…
I1013 22:23:57.674471 13701 net.cpp:294] The NetState phase (0) differed from the phase (1) specified by a rule in layer accuracy
I1013 22:23:57.674942 13701 net.cpp:51] Initializing net from parameters: 
name: "wrn_28_10"
state {
  phase: TRAIN
  level: 0
  stage: ""
}
layer {
  name: "cifar"
  type: "Data"
  top: "data"
  top: "label"
  include {
    phase: TRAIN
  }
  transform_param {
    mirror: true
    crop_size: 28
    mean_file: "/home/x306/caffe/xn/PENLU/data/cifar100/mean.binaryproto"
  }
  data_param {
    source: "/home/x306/caffe/xn/PENLU/data/cifar100/cifar100_train_lmdb"
    batch_size: 50
    backend: LMDB
  }
}
layer {
  name: "Convolution1"
  type: "Convolution"
  bottom: "data"
  top: "Convolution1"
  convolution_param {
    num_output: 16
    pad: 1
    kernel_size: 3
    stride: 1
    weight_filler {
      type: "msra"
    }
  }
}
layer {
  name: "BatchNorm1"
  type: "BatchNorm"
  bottom: "Convolution1"
  top: "Convolution1"
  param {
    lr_mult: 0
    decay_mult: 0
  }
  param {
    lr_mult: 0
    decay_mult: 0
  }
  param {
    lr_mult: 0
    decay_mult: 0
  }
  batch_norm_param {
    use_global_stats: false
  }
}
layer {
  name: "Scale1"
  type: "Scale"
  bottom: "Convolution1"
  top: "Convolution1"
  scale_param {
    bias_term: true
  }
}
layer {
  name: "penlu1"
  type: "PENLU"
  bottom: "Convolution1"
  top: "Convolution1"
  param {
    lr_mult: 2
    decay_mult: 2
  }
  param {
    lr_mult: 2
    decay_mult: 2
  }
  param {
    lr_mult: 0
    decay_mult: 0
  }
  penlu_param {
    alpha_filler {
      type: "constant"
      value: 1
    }
    beta_filler {
      type: "constant"
      value: 1
    }
    eta_filler {
      type: "constant"
      value: 1
    }
  }
}
layer {
  name: "Convolution2"
  type: "Convolution"
  bottom: "Convolution1"
  top: "Convolution2"
  convolution_param {
    num_output: 160
    bias_term: false
    pad: 1
    kernel_size: 3
    stride: 1
    weight_filler {
      type: "msra"
    }
  }
}
layer {
  name: "BatchNorm2"
  type: "BatchNorm"
  bottom: "Convolution2"
  top: "Convolution2"
  param {
    lr_mult: 0
    decay_mult: 0
  }
  param {
    lr_mult: 0
    decay_mult: 0
  }
  param {
    lr_mult: 0
    decay_mult: 0
  }
  batch_norm_param {
    use_global_stats: false
  }
}
layer {
  name: "Scale2"
  type: "Scale"
  bottom: "Convolution2"
  top: "Convolution2"
  scale_param {
    bias_term: true
  }
}
layer {
  name: "penlu2"
  type: "PENLU"
  bottom: "Convolution2"
  top: "Convolution2"
  param {
    lr_mult: 2
    decay_mult: 2
  }
  param {
    lr_mult: 2
    decay_mult: 2
  }
  param {
    lr_mult: 0
    decay_mult: 0
  }
  penlu_param {
    alpha_filler {
      type: "constant"
      value: 1
    }
    beta_filler {
      type: "constant"
      value: 1
    }
    eta_filler {
      type: "constant"
      value: 1
    }
  }
}
layer {
  name: "Convolution3"
  type: "Convolution"
  bottom: "Convolution2"
  top: "Convolution3"
  convolution_param {
    num_output: 160
    bias_term: false
    pad: 1
    kernel_size: 3
    stride: 1
    weight_filler {
      type: "msra"
    }
  }
}
layer {
  name: "Convolution4"
  type: "Convolution"
  bottom: "Convolution1"
  top: "Convolution4"
  convolution_param {
    num_output: 160
    bias_term: false
    pad: 0
    kernel_size: 1
    stride: 1
    weight_filler {
      type: "msra"
    }
  }
}
layer {
  name: "Eltwise1"
  type: "Eltwise"
  bottom: "Convolution3"
  bottom: "Convolution4"
  top: "Eltwise1"
  eltwise_param {
    operation: SUM
  }
}
layer {
  name: "BatchNorm3"
  type: "BatchNorm"
  bottom: "Eltwise1"
  top: "Eltwise1"
  param {
    lr_mult: 0
    decay_mult: 0
  }
  param {
    lr_mult: 0
    decay_mult: 0
  }
  param {
    lr_mult: 0
    decay_mult: 0
  }
  batch_norm_param {
    use_global_stats: false
  }
}
layer {
  name: "Scale3"
  type: "Scale"
  bottom: "Eltwise1"
  top: "Eltwise1"
  scale_param {
    bias_term: true
  }
}
layer {
  name: "penlu3"
  type: "PENLU"
  bottom: "Eltwise1"
  top: "Eltwise1"
  param {
    lr_mult: 2
    decay_mult: 2
  }
  param {
    lr_mult: 2
    decay_mult: 2
  }
  param {
    lr_mult: 0
    decay_mult: 0
  }
  penlu_param {
    alpha_filler {
      type: "constant"
      value: 1
    }
    beta_filler {
      type: "constant"
      value: 1
    }
    eta_filler {
      type: "constant"
      value: 1
    }
  }
}
layer {
  name: "Convolution5"
  type: "Convolution"
  bottom: "Eltwise1"
  top: "Convolution5"
  convolution_param {
    num_output: 160
    bias_term: false
    pad: 1
    kernel_size: 3
    stride: 1
    weight_filler {
      type: "msra"
    }
  }
}
layer {
  name: "BatchNorm4"
  type: "BatchNorm"
  bottom: "Convolution5"
  top: "Convolution5"
  param {
    lr_mult: 0
    decay_mult: 0
  }
  param {
    lr_mult: 0
    decay_mult: 0
  }
  param {
    lr_mult: 0
    decay_mult: 0
  }
  batch_norm_param {
    use_global_stats: false
  }
}
layer {
  name: "Scale4"
  type: "Scale"
  bottom: "Convolution5"
  top: "Convolution5"
  scale_param {
    bias_term: true
  }
}
layer {
  name: "penlu4"
  type: "PENLU"
  bottom: "Convolution5"
  top: "Convolution5"
  param {
    lr_mult: 2
    decay_mult: 2
  }
  param {
    lr_mult: 2
    decay_mult: 2
  }
  param {
    lr_mult: 0
    decay_mult: 0
  }
  penlu_param {
    alpha_filler {
      type: "constant"
      value: 1
    }
    beta_filler {
      type: "constant"
      value: 1
    }
    eta_filler {
      type: "constant"
      value: 1
    }
  }
}
layer {
  name: "Convolution6"
  type: "Convolution"
  bottom: "Convolution5"
  top: "Convolution6"
  convolution_param {
    num_output: 160
    bias_term: false
    pad: 1
    kernel_size: 3
    stride: 1
    weight_filler {
      type: "msra"
    }
  }
}
layer {
  name: "Eltwise2"
  type: "Eltwise"
  bottom: "Convolution6"
  bottom: "Eltwise1"
  top: "Eltwise2"
  eltwise_param {
    operation: SUM
  }
}
layer {
  name: "BatchNorm5"
  type: "BatchNorm"
  bottom: "Eltwise2"
  top: "Eltwise2"
  param {
    lr_mult: 0
    decay_mult: 0
  }
  param {
    lr_mult: 0
    decay_mult: 0
  }
  param {
    lr_mult: 0
    decay_mult: 0
  }
  batch_norm_param {
    use_global_stats: false
  }
}
layer {
  name: "Scale5"
  type: "Scale"
  bottom: "Eltwise2"
  top: "Eltwise2"
  scale_param {
    bias_term: true
  }
}
layer {
  name: "penlu5"
  type: "PENLU"
  bottom: "Eltwise2"
  top: "Eltwise2"
  param {
    lr_mult: 2
    decay_mult: 2
  }
  param {
    lr_mult: 2
    decay_mult: 2
  }
  param {
    lr_mult: 0
    decay_mult: 0
  }
  penlu_param {
    alpha_filler {
      type: "constant"
      value: 1
    }
    beta_filler {
      type: "constant"
      value: 1
    }
    eta_filler {
      type: "constant"
      value: 1
    }
  }
}
layer {
  name: "Convolution7"
  type: "Convolution"
  bottom: "Eltwise2"
  top: "Convolution7"
  convolution_param {
    num_output: 160
    bias_term: false
    pad: 1
    kernel_size: 3
    stride: 1
    weight_filler {
      type: "msra"
    }
  }
}
layer {
  name: "BatchNorm6"
  type: "BatchNorm"
  bottom: "Convolution7"
  top: "Convolution7"
  param {
    lr_mult: 0
    decay_mult: 0
  }
  param {
    lr_mult: 0
    decay_mult: 0
  }
  param {
    lr_mult: 0
    decay_mult: 0
  }
  batch_norm_param {
    use_global_stats: false
  }
}
layer {
  name: "Scale6"
  type: "Scale"
  bottom: "Convolution7"
  top: "Convolution7"
  scale_param {
    bias_term: true
  }
}
layer {
  name: "penlu6"
  type: "PENLU"
  bottom: "Convolution7"
  top: "Convolution7"
  param {
    lr_mult: 2
    decay_mult: 2
  }
  param {
    lr_mult: 2
    decay_mult: 2
  }
  param {
    lr_mult: 0
    decay_mult: 0
  }
  penlu_param {
    alpha_filler {
      type: "constant"
      value: 1
    }
    beta_filler {
      type: "constant"
      value: 1
    }
    eta_filler {
      type: "constant"
      value: 1
    }
  }
}
layer {
  name: "Convolution8"
  type: "Convolution"
  bottom: "Convolution7"
  top: "Convolution8"
  convolution_param {
    num_output: 160
    bias_term: false
    pad: 1
    kernel_size: 3
    stride: 1
    weight_filler {
      type: "msra"
    }
  }
}
layer {
  name: "Eltwise3"
  type: "Eltwise"
  bottom: "Convolution8"
  bottom: "Eltwise2"
  top: "Eltwise3"
  eltwise_param {
    operation: SUM
  }
}
layer {
  name: "BatchNorm7"
  type: "BatchNorm"
  bottom: "Eltwise3"
  top: "Eltwise3"
  param {
    lr_mult: 0
    decay_mult: 0
  }
  param {
    lr_mult: 0
    decay_mult: 0
  }
  param {
    lr_mult: 0
    decay_mult: 0
  }
  batch_norm_param {
    use_global_stats: false
  }
}
layer {
  name: "Scale7"
  type: "Scale"
  bottom: "Eltwise3"
  top: "Eltwise3"
  scale_param {
    bias_term: true
  }
}
layer {
  name: "penlu7"
  type: "PENLU"
  bottom: "Eltwise3"
  top: "Eltwise3"
  param {
    lr_mult: 2
    decay_mult: 2
  }
  param {
    lr_mult: 2
    decay_mult: 2
  }
  param {
    lr_mult: 0
    decay_mult: 0
  }
  penlu_param {
    alpha_filler {
      type: "constant"
      value: 1
    }
    beta_filler {
      type: "constant"
      value: 1
    }
    eta_filler {
      type: "constant"
      value: 1
    }
  }
}
layer {
  name: "Convolution9"
  type: "Convolution"
  bottom: "Eltwise3"
  top: "Convolution9"
  convolution_param {
    num_output: 160
    bias_term: false
    pad: 1
    kernel_size: 3
    stride: 1
    weight_filler {
      type: "msra"
    }
  }
}
layer {
  name: "BatchNorm8"
  type: "BatchNorm"
  bottom: "Convolution9"
  top: "Convolution9"
  param {
    lr_mult: 0
    decay_mult: 0
  }
  param {
    lr_mult: 0
    decay_mult: 0
  }
  param {
    lr_mult: 0
    decay_mult: 0
  }
  batch_norm_param {
    use_global_stats: false
  }
}
layer {
  name: "Scale8"
  type: "Scale"
  bottom: "Convolution9"
  top: "Convolution9"
  scale_param {
    bias_term: true
  }
}
layer {
  name: "penlu8"
  type: "PENLU"
  bottom: "Convolution9"
  top: "Convolution9"
  param {
    lr_mult: 2
    decay_mult: 2
  }
  param {
    lr_mult: 2
    decay_mult: 2
  }
  param {
    lr_mult: 0
    decay_mult: 0
  }
  penlu_param {
    alpha_filler {
      type: "constant"
      value: 1
    }
    beta_filler {
      type: "constant"
      value: 1
    }
    eta_filler {
      type: "constant"
      value: 1
    }
  }
}
layer {
  name: "Convolution10"
  type: "Convolution"
  bottom: "Convolution9"
  top: "Convolution10"
  convolution_param {
    num_output: 160
    bias_term: false
    pad: 1
    kernel_size: 3
    stride: 1
    weight_filler {
      type: "msra"
    }
  }
}
layer {
  name: "Eltwise4"
  type: "Eltwise"
  bottom: "Convolution10"
  bottom: "Eltwise3"
  top: "Eltwise4"
  eltwise_param {
    operation: SUM
  }
}
layer {
  name: "Convolution11"
  type: "Convolution"
  bottom: "Eltwise4"
  top: "Convolution11"
  convolution_param {
    num_output: 320
    bias_term: false
    pad: 1
    kernel_size: 3
    stride: 2
    weight_filler {
      type: "msra"
    }
  }
}
layer {
  name: "BatchNorm9"
  type: "BatchNorm"
  bottom: "Convolution11"
  top: "Convolution11"
  param {
    lr_mult: 0
    decay_mult: 0
  }
  param {
    lr_mult: 0
    decay_mult: 0
  }
  param {
    lr_mult: 0
    decay_mult: 0
  }
  batch_norm_param {
    use_global_stats: false
  }
}
layer {
  name: "Scale9"
  type: "Scale"
  bottom: "Convolution11"
  top: "Convolution11"
  scale_param {
    bias_term: true
  }
}
layer {
  name: "penlu9"
  type: "PENLU"
  bottom: "Convolution11"
  top: "Convolution11"
  param {
    lr_mult: 2
    decay_mult: 2
  }
  param {
    lr_mult: 2
    decay_mult: 2
  }
  param {
    lr_mult: 0
    decay_mult: 0
  }
  penlu_param {
    alpha_filler {
      type: "constant"
      value: 1
    }
    beta_filler {
      type: "constant"
      value: 1
    }
    eta_filler {
      type: "constant"
      value: 1
    }
  }
}
layer {
  name: "Convolution12"
  type: "Convolution"
  bottom: "Convolution11"
  top: "Convolution12"
  convolution_param {
    num_output: 320
    bias_term: false
    pad: 1
    kernel_size: 3
    stride: 1
    weight_filler {
      type: "msra"
    }
  }
}
layer {
  name: "Convolution13"
  type: "Convolution"
  bottom: "Eltwise4"
  top: "Convolution13"
  convolution_param {
    num_output: 320
    bias_term: false
    pad: 0
    kernel_size: 1
    stride: 2
    weight_filler {
      type: "msra"
    }
  }
}
layer {
  name: "Eltwise5"
  type: "Eltwise"
  bottom: "Convolution12"
  bottom: "Convolution13"
  top: "Eltwise5"
  eltwise_param {
    operation: SUM
  }
}
layer {
  name: "BatchNorm10"
  type: "BatchNorm"
  bottom: "Eltwise5"
  top: "Eltwise5"
  param {
    lr_mult: 0
    decay_mult: 0
  }
  param {
    lr_mult: 0
    decay_mult: 0
  }
  param {
    lr_mult: 0
    decay_mult: 0
  }
  batch_norm_param {
    use_global_stats: false
  }
}
layer {
  name: "Scale10"
  type: "Scale"
  bottom: "Eltwise5"
  top: "Eltwise5"
  scale_param {
    bias_term: true
  }
}
layer {
  name: "penlu10"
  type: "PENLU"
  bottom: "Eltwise5"
  top: "Eltwise5"
  param {
    lr_mult: 2
    decay_mult: 2
  }
  param {
    lr_mult: 2
    decay_mult: 2
  }
  param {
    lr_mult: 0
    decay_mult: 0
  }
  penlu_param {
    alpha_filler {
      type: "constant"
      value: 1
    }
    beta_filler {
      type: "constant"
      value: 1
    }
    eta_filler {
      type: "constant"
      value: 1
    }
  }
}
layer {
  name: "Convolution14"
  type: "Convolution"
  bottom: "Eltwise5"
  top: "Convolution14"
  convolution_param {
    num_output: 320
    bias_term: false
    pad: 1
    kernel_size: 3
    stride: 1
    weight_filler {
      type: "msra"
    }
  }
}
layer {
  name: "BatchNorm11"
  type: "BatchNorm"
  bottom: "Convolution14"
  top: "Convolution14"
  param {
    lr_mult: 0
    decay_mult: 0
  }
  param {
    lr_mult: 0
    decay_mult: 0
  }
  param {
    lr_mult: 0
    decay_mult: 0
  }
  batch_norm_param {
    use_global_stats: false
  }
}
layer {
  name: "Scale11"
  type: "Scale"
  bottom: "Convolution14"
  top: "Convolution14"
  scale_param {
    bias_term: true
  }
}
layer {
  name: "penlu11"
  type: "PENLU"
  bottom: "Convolution14"
  top: "Convolution14"
  param {
    lr_mult: 2
    decay_mult: 2
  }
  param {
    lr_mult: 2
    decay_mult: 2
  }
  param {
    lr_mult: 0
    decay_mult: 0
  }
  penlu_param {
    alpha_filler {
      type: "constant"
      value: 1
    }
    beta_filler {
      type: "constant"
      value: 1
    }
    eta_filler {
      type: "constant"
      value: 1
    }
  }
}
layer {
  name: "Convolution15"
  type: "Convolution"
  bottom: "Convolution14"
  top: "Convolution15"
  convolution_param {
    num_output: 320
    bias_term: false
    pad: 1
    kernel_size: 3
    stride: 1
    weight_filler {
      type: "msra"
    }
  }
}
layer {
  name: "Eltwise6"
  type: "Eltwise"
  bottom: "Convolution15"
  bottom: "Eltwise5"
  top: "Eltwise6"
  eltwise_param {
    operation: SUM
  }
}
layer {
  name: "BatchNorm12"
  type: "BatchNorm"
  bottom: "Eltwise6"
  top: "Eltwise6"
  param {
    lr_mult: 0
    decay_mult: 0
  }
  param {
    lr_mult: 0
    decay_mult: 0
  }
  param {
    lr_mult: 0
    decay_mult: 0
  }
  batch_norm_param {
    use_global_stats: false
  }
}
layer {
  name: "Scale12"
  type: "Scale"
  bottom: "Eltwise6"
  top: "Eltwise6"
  scale_param {
    bias_term: true
  }
}
layer {
  name: "penlu12"
  type: "PENLU"
  bottom: "Eltwise6"
  top: "Eltwise6"
  param {
    lr_mult: 2
    decay_mult: 2
  }
  param {
    lr_mult: 2
    decay_mult: 2
  }
  param {
    lr_mult: 0
    decay_mult: 0
  }
  penlu_param {
    alpha_filler {
      type: "constant"
      value: 1
    }
    beta_filler {
      type: "constant"
      value: 1
    }
    eta_filler {
      type: "constant"
      value: 1
    }
  }
}
layer {
  name: "Convolution16"
  type: "Convolution"
  bottom: "Eltwise6"
  top: "Convolution16"
  convolution_param {
    num_output: 320
    bias_term: false
    pad: 1
    kernel_size: 3
    stride: 1
    weight_filler {
      type: "msra"
    }
  }
}
layer {
  name: "BatchNorm13"
  type: "BatchNorm"
  bottom: "Convolution16"
  top: "Convolution16"
  param {
    lr_mult: 0
    decay_mult: 0
  }
  param {
    lr_mult: 0
    decay_mult: 0
  }
  param {
    lr_mult: 0
    decay_mult: 0
  }
  batch_norm_param {
    use_global_stats: false
  }
}
layer {
  name: "Scale13"
  type: "Scale"
  bottom: "Convolution16"
  top: "Convolution16"
  scale_param {
    bias_term: true
  }
}
layer {
  name: "penlu13"
  type: "PENLU"
  bottom: "Convolution16"
  top: "Convolution16"
  param {
    lr_mult: 2
    decay_mult: 2
  }
  param {
    lr_mult: 2
    decay_mult: 2
  }
  param {
    lr_mult: 0
    decay_mult: 0
  }
  penlu_param {
    alpha_filler {
      type: "constant"
      value: 1
    }
    beta_filler {
      type: "constant"
      value: 1
    }
    eta_filler {
      type: "constant"
      value: 1
    }
  }
}
layer {
  name: "Convolution17"
  type: "Convolution"
  bottom: "Convolution16"
  top: "Convolution17"
  convolution_param {
    num_output: 320
    bias_term: false
    pad: 1
    kernel_size: 3
    stride: 1
    weight_filler {
      type: "msra"
    }
  }
}
layer {
  name: "Eltwise7"
  type: "Eltwise"
  bottom: "Convolution17"
  bottom: "Eltwise6"
  top: "Eltwise7"
  eltwise_param {
    operation: SUM
  }
}
layer {
  name: "BatchNorm14"
  type: "BatchNorm"
  bottom: "Eltwise7"
  top: "Eltwise7"
  param {
    lr_mult: 0
    decay_mult: 0
  }
  param {
    lr_mult: 0
    decay_mult: 0
  }
  param {
    lr_mult: 0
    decay_mult: 0
  }
  batch_norm_param {
    use_global_stats: false
  }
}
layer {
  name: "Scale14"
  type: "Scale"
  bottom: "Eltwise7"
  top: "Eltwise7"
  scale_param {
    bias_term: true
  }
}
layer {
  name: "penlu14"
  type: "PENLU"
  bottom: "Eltwise7"
  top: "Eltwise7"
  param {
    lr_mult: 2
    decay_mult: 2
  }
  param {
    lr_mult: 2
    decay_mult: 2
  }
  param {
    lr_mult: 0
    decay_mult: 0
  }
  penlu_param {
    alpha_filler {
      type: "constant"
      value: 1
    }
    beta_filler {
      type: "constant"
      value: 1
    }
    eta_filler {
      type: "constant"
      value: 1
    }
  }
}
layer {
  name: "Convolution18"
  type: "Convolution"
  bottom: "Eltwise7"
  top: "Convolution18"
  convolution_param {
    num_output: 320
    bias_term: false
    pad: 1
    kernel_size: 3
    stride: 1
    weight_filler {
      type: "msra"
    }
  }
}
layer {
  name: "BatchNorm15"
  type: "BatchNorm"
  bottom: "Convolution18"
  top: "Convolution18"
  param {
    lr_mult: 0
    decay_mult: 0
  }
  param {
    lr_mult: 0
    decay_mult: 0
  }
  param {
    lr_mult: 0
    decay_mult: 0
  }
  batch_norm_param {
    use_global_stats: false
  }
}
layer {
  name: "Scale15"
  type: "Scale"
  bottom: "Convolution18"
  top: "Convolution18"
  scale_param {
    bias_term: true
  }
}
layer {
  name: "penlu15"
  type: "PENLU"
  bottom: "Convolution18"
  top: "Convolution18"
  param {
    lr_mult: 2
    decay_mult: 2
  }
  param {
    lr_mult: 2
    decay_mult: 2
  }
  param {
    lr_mult: 0
    decay_mult: 0
  }
  penlu_param {
    alpha_filler {
      type: "constant"
      value: 1
    }
    beta_filler {
      type: "constant"
      value: 1
    }
    eta_filler {
      type: "constant"
      value: 1
    }
  }
}
layer {
  name: "Convolution19"
  type: "Convolution"
  bottom: "Convolution18"
  top: "Convolution19"
  convolution_param {
    num_output: 320
    bias_term: false
    pad: 1
    kernel_size: 3
    stride: 1
    weight_filler {
      type: "msra"
    }
  }
}
layer {
  name: "Eltwise8"
  type: "Eltwise"
  bottom: "Convolution19"
  bottom: "Eltwise7"
  top: "Eltwise8"
  eltwise_param {
    operation: SUM
  }
}
layer {
  name: "Convolution20"
  type: "Convolution"
  bottom: "Eltwise8"
  top: "Convolution20"
  convolution_param {
    num_output: 640
    bias_term: false
    pad: 1
    kernel_size: 3
    stride: 2
    weight_filler {
      type: "msra"
    }
  }
}
layer {
  name: "BatchNorm16"
  type: "BatchNorm"
  bottom: "Convolution20"
  top: "Convolution20"
  param {
    lr_mult: 0
    decay_mult: 0
  }
  param {
    lr_mult: 0
    decay_mult: 0
  }
  param {
    lr_mult: 0
    decay_mult: 0
  }
  batch_norm_param {
    use_global_stats: false
  }
}
layer {
  name: "Scale16"
  type: "Scale"
  bottom: "Convolution20"
  top: "Convolution20"
  scale_param {
    bias_term: true
  }
}
layer {
  name: "penlu16"
  type: "PENLU"
  bottom: "Convolution20"
  top: "Convolution20"
  param {
    lr_mult: 2
    decay_mult: 2
  }
  param {
    lr_mult: 2
    decay_mult: 2
  }
  param {
    lr_mult: 0
    decay_mult: 0
  }
  penlu_param {
    alpha_filler {
      type: "constant"
      value: 1
    }
    beta_filler {
      type: "constant"
      value: 1
    }
    eta_filler {
      type: "constant"
      value: 1
    }
  }
}
layer {
  name: "Convolution21"
  type: "Convolution"
  bottom: "Convolution20"
  top: "Convolution21"
  convolution_param {
    num_output: 640
    bias_term: false
    pad: 1
    kernel_size: 3
    stride: 1
    weight_filler {
      type: "msra"
    }
  }
}
layer {
  name: "Convolution22"
  type: "Convolution"
  bottom: "Eltwise8"
  top: "Convolution22"
  convolution_param {
    num_output: 640
    bias_term: false
    pad: 0
    kernel_size: 1
    stride: 2
    weight_filler {
      type: "msra"
    }
  }
}
layer {
  name: "Eltwise9"
  type: "Eltwise"
  bottom: "Convolution21"
  bottom: "Convolution22"
  top: "Eltwise9"
  eltwise_param {
    operation: SUM
  }
}
layer {
  name: "BatchNorm17"
  type: "BatchNorm"
  bottom: "Eltwise9"
  top: "Eltwise9"
  param {
    lr_mult: 0
    decay_mult: 0
  }
  param {
    lr_mult: 0
    decay_mult: 0
  }
  param {
    lr_mult: 0
    decay_mult: 0
  }
  batch_norm_param {
    use_global_stats: false
  }
}
layer {
  name: "Scale17"
  type: "Scale"
  bottom: "Eltwise9"
  top: "Eltwise9"
  scale_param {
    bias_term: true
  }
}
layer {
  name: "penlu17"
  type: "PENLU"
  bottom: "Eltwise9"
  top: "Eltwise9"
  param {
    lr_mult: 2
    decay_mult: 2
  }
  param {
    lr_mult: 2
    decay_mult: 2
  }
  param {
    lr_mult: 0
    decay_mult: 0
  }
  penlu_param {
    alpha_filler {
      type: "constant"
      value: 1
    }
    beta_filler {
      type: "constant"
      value: 1
    }
    eta_filler {
      type: "constant"
      value: 1
    }
  }
}
layer {
  name: "Convolution23"
  type: "Convolution"
  bottom: "Eltwise9"
  top: "Convolution23"
  convolution_param {
    num_output: 640
    bias_term: false
    pad: 1
    kernel_size: 3
    stride: 1
    weight_filler {
      type: "msra"
    }
  }
}
layer {
  name: "BatchNorm18"
  type: "BatchNorm"
  bottom: "Convolution23"
  top: "Convolution23"
  param {
    lr_mult: 0
    decay_mult: 0
  }
  param {
    lr_mult: 0
    decay_mult: 0
  }
  param {
    lr_mult: 0
    decay_mult: 0
  }
  batch_norm_param {
    use_global_stats: false
  }
}
layer {
  name: "Scale18"
  type: "Scale"
  bottom: "Convolution23"
  top: "Convolution23"
  scale_param {
    bias_term: true
  }
}
layer {
  name: "penlu18"
  type: "PENLU"
  bottom: "Convolution23"
  top: "Convolution23"
  param {
    lr_mult: 2
    decay_mult: 2
  }
  param {
    lr_mult: 2
    decay_mult: 2
  }
  param {
    lr_mult: 0
    decay_mult: 0
  }
  penlu_param {
    alpha_filler {
      type: "constant"
      value: 1
    }
    beta_filler {
      type: "constant"
      value: 1
    }
    eta_filler {
      type: "constant"
      value: 1
    }
  }
}
layer {
  name: "Convolution24"
  type: "Convolution"
  bottom: "Convolution23"
  top: "Convolution24"
  convolution_param {
    num_output: 640
    bias_term: false
    pad: 1
    kernel_size: 3
    stride: 1
    weight_filler {
      type: "msra"
    }
  }
}
layer {
  name: "Eltwise10"
  type: "Eltwise"
  bottom: "Convolution24"
  bottom: "Eltwise9"
  top: "Eltwise10"
  eltwise_param {
    operation: SUM
  }
}
layer {
  name: "BatchNorm19"
  type: "BatchNorm"
  bottom: "Eltwise10"
  top: "Eltwise10"
  param {
    lr_mult: 0
    decay_mult: 0
  }
  param {
    lr_mult: 0
    decay_mult: 0
  }
  param {
    lr_mult: 0
    decay_mult: 0
  }
  batch_norm_param {
    use_global_stats: false
  }
}
layer {
  name: "Scale19"
  type: "Scale"
  bottom: "Eltwise10"
  top: "Eltwise10"
  scale_param {
    bias_term: true
  }
}
layer {
  name: "penlu19"
  type: "PENLU"
  bottom: "Eltwise10"
  top: "Eltwise10"
  param {
    lr_mult: 2
    decay_mult: 2
  }
  param {
    lr_mult: 2
    decay_mult: 2
  }
  param {
    lr_mult: 0
    decay_mult: 0
  }
  penlu_param {
    alpha_filler {
      type: "constant"
      value: 1
    }
    beta_filler {
      type: "constant"
      value: 1
    }
    eta_filler {
      type: "constant"
      value: 1
    }
  }
}
layer {
  name: "Convolution25"
  type: "Convolution"
  bottom: "Eltwise10"
  top: "Convolution25"
  convolution_param {
    num_output: 640
    bias_term: false
    pad: 1
    kernel_size: 3
    stride: 1
    weight_filler {
      type: "msra"
    }
  }
}
layer {
  name: "BatchNorm20"
  type: "BatchNorm"
  bottom: "Convolution25"
  top: "Convolution25"
  param {
    lr_mult: 0
    decay_mult: 0
  }
  param {
    lr_mult: 0
    decay_mult: 0
  }
  param {
    lr_mult: 0
    decay_mult: 0
  }
  batch_norm_param {
    use_global_stats: false
  }
}
layer {
  name: "Scale20"
  type: "Scale"
  bottom: "Convolution25"
  top: "Convolution25"
  scale_param {
    bias_term: true
  }
}
layer {
  name: "penlu20"
  type: "PENLU"
  bottom: "Convolution25"
  top: "Convolution25"
  param {
    lr_mult: 2
    decay_mult: 2
  }
  param {
    lr_mult: 2
    decay_mult: 2
  }
  param {
    lr_mult: 0
    decay_mult: 0
  }
  penlu_param {
    alpha_filler {
      type: "constant"
      value: 1
    }
    beta_filler {
      type: "constant"
      value: 1
    }
    eta_filler {
      type: "constant"
      value: 1
    }
  }
}
layer {
  name: "Convolution26"
  type: "Convolution"
  bottom: "Convolution25"
  top: "Convolution26"
  convolution_param {
    num_output: 640
    bias_term: false
    pad: 1
    kernel_size: 3
    stride: 1
    weight_filler {
      type: "msra"
    }
  }
}
layer {
  name: "Eltwise11"
  type: "Eltwise"
  bottom: "Convolution26"
  bottom: "Eltwise10"
  top: "Eltwise11"
  eltwise_param {
    operation: SUM
  }
}
layer {
  name: "BatchNorm21"
  type: "BatchNorm"
  bottom: "Eltwise11"
  top: "Eltwise11"
  param {
    lr_mult: 0
    decay_mult: 0
  }
  param {
    lr_mult: 0
    decay_mult: 0
  }
  param {
    lr_mult: 0
    decay_mult: 0
  }
  batch_norm_param {
    use_global_stats: false
  }
}
layer {
  name: "Scale21"
  type: "Scale"
  bottom: "Eltwise11"
  top: "Eltwise11"
  scale_param {
    bias_term: true
  }
}
layer {
  name: "penlu21"
  type: "PENLU"
  bottom: "Eltwise11"
  top: "Eltwise11"
  param {
    lr_mult: 2
    decay_mult: 2
  }
  param {
    lr_mult: 2
    decay_mult: 2
  }
  param {
    lr_mult: 0
    decay_mult: 0
  }
  penlu_param {
    alpha_filler {
      type: "constant"
      value: 1
    }
    beta_filler {
      type: "constant"
      value: 1
    }
    eta_filler {
      type: "constant"
      value: 1
    }
  }
}
layer {
  name: "Convolution27"
  type: "Convolution"
  bottom: "Eltwise11"
  top: "Convolution27"
  convolution_param {
    num_output: 640
    bias_term: false
    pad: 1
    kernel_size: 3
    stride: 1
    weight_filler {
      type: "msra"
    }
  }
}
layer {
  name: "BatchNorm22"
  type: "BatchNorm"
  bottom: "Convolution27"
  top: "Convolution27"
  param {
    lr_mult: 0
    decay_mult: 0
  }
  param {
    lr_mult: 0
    decay_mult: 0
  }
  param {
    lr_mult: 0
    decay_mult: 0
  }
  batch_norm_param {
    use_global_stats: false
  }
}
layer {
  name: "Scale22"
  type: "Scale"
  bottom: "Convolution27"
  top: "Convolution27"
  scale_param {
    bias_term: true
  }
}
layer {
  name: "penlu22"
  type: "PENLU"
  bottom: "Convolution27"
  top: "Convolution27"
  param {
    lr_mult: 2
    decay_mult: 2
  }
  param {
    lr_mult: 2
    decay_mult: 2
  }
  param {
    lr_mult: 0
    decay_mult: 0
  }
  penlu_param {
    alpha_filler {
      type: "constant"
      value: 1
    }
    beta_filler {
      type: "constant"
      value: 1
    }
    eta_filler {
      type: "constant"
      value: 1
    }
  }
}
layer {
  name: "Convolution28"
  type: "Convolution"
  bottom: "Convolution27"
  top: "Convolution28"
  convolution_param {
    num_output: 640
    bias_term: false
    pad: 1
    kernel_size: 3
    stride: 1
    weight_filler {
      type: "msra"
    }
  }
}
layer {
  name: "Eltwise12"
  type: "Eltwise"
  bottom: "Convolution28"
  bottom: "Eltwise11"
  top: "Eltwise12"
  eltwise_param {
    operation: SUM
  }
}
layer {
  name: "Pooling1"
  type: "Pooling"
  bottom: "Eltwise12"
  top: "Pooling1"
  pooling_param {
    pool: AVE
    global_pooling: true
  }
}
layer {
  name: "InnerProduct1"
  type: "InnerProduct"
  bottom: "Pooling1"
  top: "InnerProduct1"
  inner_product_param {
    num_output: 100
  }
}
layer {
  name: "SoftmaxWithLoss1"
  type: "SoftmaxWithLoss"
  bottom: "InnerProduct1"
  bottom: "label"
  top: "SoftmaxWithLoss1"
}
I1013 22:23:57.675499 13701 layer_factory.hpp:77] Creating layer cifar
I1013 22:23:57.675596 13701 db_lmdb.cpp:35] Opened lmdb /home/x306/caffe/xn/PENLU/data/cifar100/cifar100_train_lmdb
I1013 22:23:57.675621 13701 net.cpp:84] Creating Layer cifar
I1013 22:23:57.675628 13701 net.cpp:380] cifar -> data
I1013 22:23:57.675650 13701 net.cpp:380] cifar -> label
I1013 22:23:57.675665 13701 data_transformer.cpp:25] Loading mean file from: /home/x306/caffe/xn/PENLU/data/cifar100/mean.binaryproto
I1013 22:23:57.677117 13701 data_layer.cpp:45] output data size: 50,3,28,28
I1013 22:23:57.678411 13701 net.cpp:122] Setting up cifar
I1013 22:23:57.678422 13701 net.cpp:129] Top shape: 50 3 28 28 (117600)
I1013 22:23:57.678426 13701 net.cpp:129] Top shape: 50 (50)
I1013 22:23:57.678428 13701 net.cpp:137] Memory required for data: 470600
I1013 22:23:57.678433 13701 layer_factory.hpp:77] Creating layer Convolution1
I1013 22:23:57.678449 13701 net.cpp:84] Creating Layer Convolution1
I1013 22:23:57.678453 13701 net.cpp:406] Convolution1 <- data
I1013 22:23:57.678462 13701 net.cpp:380] Convolution1 -> Convolution1
I1013 22:23:57.825779 13701 net.cpp:122] Setting up Convolution1
I1013 22:23:57.825804 13701 net.cpp:129] Top shape: 50 16 28 28 (627200)
I1013 22:23:57.825808 13701 net.cpp:137] Memory required for data: 2979400
I1013 22:23:57.825822 13701 layer_factory.hpp:77] Creating layer BatchNorm1
I1013 22:23:57.825845 13701 net.cpp:84] Creating Layer BatchNorm1
I1013 22:23:57.825858 13701 net.cpp:406] BatchNorm1 <- Convolution1
I1013 22:23:57.825863 13701 net.cpp:367] BatchNorm1 -> Convolution1 (in-place)
I1013 22:23:57.826019 13701 net.cpp:122] Setting up BatchNorm1
I1013 22:23:57.826025 13701 net.cpp:129] Top shape: 50 16 28 28 (627200)
I1013 22:23:57.826026 13701 net.cpp:137] Memory required for data: 5488200
I1013 22:23:57.826035 13701 layer_factory.hpp:77] Creating layer Scale1
I1013 22:23:57.826056 13701 net.cpp:84] Creating Layer Scale1
I1013 22:23:57.826058 13701 net.cpp:406] Scale1 <- Convolution1
I1013 22:23:57.826061 13701 net.cpp:367] Scale1 -> Convolution1 (in-place)
I1013 22:23:57.826112 13701 layer_factory.hpp:77] Creating layer Scale1
I1013 22:23:57.826246 13701 net.cpp:122] Setting up Scale1
I1013 22:23:57.826251 13701 net.cpp:129] Top shape: 50 16 28 28 (627200)
I1013 22:23:57.826252 13701 net.cpp:137] Memory required for data: 7997000
I1013 22:23:57.826267 13701 layer_factory.hpp:77] Creating layer penlu1
I1013 22:23:57.826292 13701 net.cpp:84] Creating Layer penlu1
I1013 22:23:57.826293 13701 net.cpp:406] penlu1 <- Convolution1
I1013 22:23:57.826297 13701 net.cpp:367] penlu1 -> Convolution1 (in-place)
I1013 22:23:57.826915 13701 net.cpp:122] Setting up penlu1
I1013 22:23:57.826925 13701 net.cpp:129] Top shape: 50 16 28 28 (627200)
I1013 22:23:57.826937 13701 net.cpp:137] Memory required for data: 10505800
I1013 22:23:57.826944 13701 layer_factory.hpp:77] Creating layer Convolution1_penlu1_0_split
I1013 22:23:57.826962 13701 net.cpp:84] Creating Layer Convolution1_penlu1_0_split
I1013 22:23:57.826967 13701 net.cpp:406] Convolution1_penlu1_0_split <- Convolution1
I1013 22:23:57.826970 13701 net.cpp:380] Convolution1_penlu1_0_split -> Convolution1_penlu1_0_split_0
I1013 22:23:57.826975 13701 net.cpp:380] Convolution1_penlu1_0_split -> Convolution1_penlu1_0_split_1
I1013 22:23:57.827023 13701 net.cpp:122] Setting up Convolution1_penlu1_0_split
I1013 22:23:57.827035 13701 net.cpp:129] Top shape: 50 16 28 28 (627200)
I1013 22:23:57.827039 13701 net.cpp:129] Top shape: 50 16 28 28 (627200)
I1013 22:23:57.827041 13701 net.cpp:137] Memory required for data: 15523400
I1013 22:23:57.827044 13701 layer_factory.hpp:77] Creating layer Convolution2
I1013 22:23:57.827050 13701 net.cpp:84] Creating Layer Convolution2
I1013 22:23:57.827054 13701 net.cpp:406] Convolution2 <- Convolution1_penlu1_0_split_0
I1013 22:23:57.827069 13701 net.cpp:380] Convolution2 -> Convolution2
I1013 22:23:57.829155 13701 net.cpp:122] Setting up Convolution2
I1013 22:23:57.829165 13701 net.cpp:129] Top shape: 50 160 28 28 (6272000)
I1013 22:23:57.829169 13701 net.cpp:137] Memory required for data: 40611400
I1013 22:23:57.829172 13701 layer_factory.hpp:77] Creating layer BatchNorm2
I1013 22:23:57.829177 13701 net.cpp:84] Creating Layer BatchNorm2
I1013 22:23:57.829180 13701 net.cpp:406] BatchNorm2 <- Convolution2
I1013 22:23:57.829193 13701 net.cpp:367] BatchNorm2 -> Convolution2 (in-place)
I1013 22:23:57.829349 13701 net.cpp:122] Setting up BatchNorm2
I1013 22:23:57.829354 13701 net.cpp:129] Top shape: 50 160 28 28 (6272000)
I1013 22:23:57.829356 13701 net.cpp:137] Memory required for data: 65699400
I1013 22:23:57.829360 13701 layer_factory.hpp:77] Creating layer Scale2
I1013 22:23:57.829365 13701 net.cpp:84] Creating Layer Scale2
I1013 22:23:57.829368 13701 net.cpp:406] Scale2 <- Convolution2
I1013 22:23:57.829371 13701 net.cpp:367] Scale2 -> Convolution2 (in-place)
I1013 22:23:57.829406 13701 layer_factory.hpp:77] Creating layer Scale2
I1013 22:23:57.829488 13701 net.cpp:122] Setting up Scale2
I1013 22:23:57.829494 13701 net.cpp:129] Top shape: 50 160 28 28 (6272000)
I1013 22:23:57.829497 13701 net.cpp:137] Memory required for data: 90787400
I1013 22:23:57.829510 13701 layer_factory.hpp:77] Creating layer penlu2
I1013 22:23:57.829516 13701 net.cpp:84] Creating Layer penlu2
I1013 22:23:57.829519 13701 net.cpp:406] penlu2 <- Convolution2
I1013 22:23:57.829524 13701 net.cpp:367] penlu2 -> Convolution2 (in-place)
I1013 22:23:57.830183 13701 net.cpp:122] Setting up penlu2
I1013 22:23:57.830193 13701 net.cpp:129] Top shape: 50 160 28 28 (6272000)
I1013 22:23:57.830195 13701 net.cpp:137] Memory required for data: 115875400
I1013 22:23:57.830202 13701 layer_factory.hpp:77] Creating layer Convolution3
I1013 22:23:57.830210 13701 net.cpp:84] Creating Layer Convolution3
I1013 22:23:57.830214 13701 net.cpp:406] Convolution3 <- Convolution2
I1013 22:23:57.830217 13701 net.cpp:380] Convolution3 -> Convolution3
I1013 22:23:57.836314 13701 net.cpp:122] Setting up Convolution3
I1013 22:23:57.836324 13701 net.cpp:129] Top shape: 50 160 28 28 (6272000)
I1013 22:23:57.836328 13701 net.cpp:137] Memory required for data: 140963400
I1013 22:23:57.836331 13701 layer_factory.hpp:77] Creating layer Convolution4
I1013 22:23:57.836349 13701 net.cpp:84] Creating Layer Convolution4
I1013 22:23:57.836354 13701 net.cpp:406] Convolution4 <- Convolution1_penlu1_0_split_1
I1013 22:23:57.836357 13701 net.cpp:380] Convolution4 -> Convolution4
I1013 22:23:57.837258 13701 net.cpp:122] Setting up Convolution4
I1013 22:23:57.837270 13701 net.cpp:129] Top shape: 50 160 28 28 (6272000)
I1013 22:23:57.837272 13701 net.cpp:137] Memory required for data: 166051400
I1013 22:23:57.837276 13701 layer_factory.hpp:77] Creating layer Eltwise1
I1013 22:23:57.837281 13701 net.cpp:84] Creating Layer Eltwise1
I1013 22:23:57.837292 13701 net.cpp:406] Eltwise1 <- Convolution3
I1013 22:23:57.837296 13701 net.cpp:406] Eltwise1 <- Convolution4
I1013 22:23:57.837299 13701 net.cpp:380] Eltwise1 -> Eltwise1
I1013 22:23:57.837333 13701 net.cpp:122] Setting up Eltwise1
I1013 22:23:57.837339 13701 net.cpp:129] Top shape: 50 160 28 28 (6272000)
I1013 22:23:57.837342 13701 net.cpp:137] Memory required for data: 191139400
I1013 22:23:57.837343 13701 layer_factory.hpp:77] Creating layer BatchNorm3
I1013 22:23:57.837349 13701 net.cpp:84] Creating Layer BatchNorm3
I1013 22:23:57.837352 13701 net.cpp:406] BatchNorm3 <- Eltwise1
I1013 22:23:57.837355 13701 net.cpp:367] BatchNorm3 -> Eltwise1 (in-place)
I1013 22:23:57.837501 13701 net.cpp:122] Setting up BatchNorm3
I1013 22:23:57.837507 13701 net.cpp:129] Top shape: 50 160 28 28 (6272000)
I1013 22:23:57.837508 13701 net.cpp:137] Memory required for data: 216227400
I1013 22:23:57.837513 13701 layer_factory.hpp:77] Creating layer Scale3
I1013 22:23:57.837518 13701 net.cpp:84] Creating Layer Scale3
I1013 22:23:57.837522 13701 net.cpp:406] Scale3 <- Eltwise1
I1013 22:23:57.837525 13701 net.cpp:367] Scale3 -> Eltwise1 (in-place)
I1013 22:23:57.837553 13701 layer_factory.hpp:77] Creating layer Scale3
I1013 22:23:57.837628 13701 net.cpp:122] Setting up Scale3
I1013 22:23:57.837636 13701 net.cpp:129] Top shape: 50 160 28 28 (6272000)
I1013 22:23:57.837641 13701 net.cpp:137] Memory required for data: 241315400
I1013 22:23:57.837647 13701 layer_factory.hpp:77] Creating layer penlu3
I1013 22:23:57.837656 13701 net.cpp:84] Creating Layer penlu3
I1013 22:23:57.837667 13701 net.cpp:406] penlu3 <- Eltwise1
I1013 22:23:57.837677 13701 net.cpp:367] penlu3 -> Eltwise1 (in-place)
I1013 22:23:57.837888 13701 net.cpp:122] Setting up penlu3
I1013 22:23:57.837898 13701 net.cpp:129] Top shape: 50 160 28 28 (6272000)
I1013 22:23:57.837901 13701 net.cpp:137] Memory required for data: 266403400
I1013 22:23:57.837924 13701 layer_factory.hpp:77] Creating layer Eltwise1_penlu3_0_split
I1013 22:23:57.837935 13701 net.cpp:84] Creating Layer Eltwise1_penlu3_0_split
I1013 22:23:57.837940 13701 net.cpp:406] Eltwise1_penlu3_0_split <- Eltwise1
I1013 22:23:57.837946 13701 net.cpp:380] Eltwise1_penlu3_0_split -> Eltwise1_penlu3_0_split_0
I1013 22:23:57.837956 13701 net.cpp:380] Eltwise1_penlu3_0_split -> Eltwise1_penlu3_0_split_1
I1013 22:23:57.837987 13701 net.cpp:122] Setting up Eltwise1_penlu3_0_split
I1013 22:23:57.837994 13701 net.cpp:129] Top shape: 50 160 28 28 (6272000)
I1013 22:23:57.837999 13701 net.cpp:129] Top shape: 50 160 28 28 (6272000)
I1013 22:23:57.838004 13701 net.cpp:137] Memory required for data: 316579400
I1013 22:23:57.838009 13701 layer_factory.hpp:77] Creating layer Convolution5
I1013 22:23:57.838021 13701 net.cpp:84] Creating Layer Convolution5
I1013 22:23:57.838026 13701 net.cpp:406] Convolution5 <- Eltwise1_penlu3_0_split_0
I1013 22:23:57.838032 13701 net.cpp:380] Convolution5 -> Convolution5
I1013 22:23:57.845129 13701 net.cpp:122] Setting up Convolution5
I1013 22:23:57.845142 13701 net.cpp:129] Top shape: 50 160 28 28 (6272000)
I1013 22:23:57.845147 13701 net.cpp:137] Memory required for data: 341667400
I1013 22:23:57.845155 13701 layer_factory.hpp:77] Creating layer BatchNorm4
I1013 22:23:57.845165 13701 net.cpp:84] Creating Layer BatchNorm4
I1013 22:23:57.845170 13701 net.cpp:406] BatchNorm4 <- Convolution5
I1013 22:23:57.845178 13701 net.cpp:367] BatchNorm4 -> Convolution5 (in-place)
I1013 22:23:57.845325 13701 net.cpp:122] Setting up BatchNorm4
I1013 22:23:57.845333 13701 net.cpp:129] Top shape: 50 160 28 28 (6272000)
I1013 22:23:57.845337 13701 net.cpp:137] Memory required for data: 366755400
I1013 22:23:57.845360 13701 layer_factory.hpp:77] Creating layer Scale4
I1013 22:23:57.845368 13701 net.cpp:84] Creating Layer Scale4
I1013 22:23:57.845372 13701 net.cpp:406] Scale4 <- Convolution5
I1013 22:23:57.845381 13701 net.cpp:367] Scale4 -> Convolution5 (in-place)
I1013 22:23:57.845425 13701 layer_factory.hpp:77] Creating layer Scale4
I1013 22:23:57.845510 13701 net.cpp:122] Setting up Scale4
I1013 22:23:57.845526 13701 net.cpp:129] Top shape: 50 160 28 28 (6272000)
I1013 22:23:57.845531 13701 net.cpp:137] Memory required for data: 391843400
I1013 22:23:57.845538 13701 layer_factory.hpp:77] Creating layer penlu4
I1013 22:23:57.845548 13701 net.cpp:84] Creating Layer penlu4
I1013 22:23:57.845553 13701 net.cpp:406] penlu4 <- Convolution5
I1013 22:23:57.845561 13701 net.cpp:367] penlu4 -> Convolution5 (in-place)
I1013 22:23:57.845728 13701 net.cpp:122] Setting up penlu4
I1013 22:23:57.845736 13701 net.cpp:129] Top shape: 50 160 28 28 (6272000)
I1013 22:23:57.845741 13701 net.cpp:137] Memory required for data: 416931400
I1013 22:23:57.845748 13701 layer_factory.hpp:77] Creating layer Convolution6
I1013 22:23:57.845757 13701 net.cpp:84] Creating Layer Convolution6
I1013 22:23:57.845762 13701 net.cpp:406] Convolution6 <- Convolution5
I1013 22:23:57.845772 13701 net.cpp:380] Convolution6 -> Convolution6
I1013 22:23:57.852490 13701 net.cpp:122] Setting up Convolution6
I1013 22:23:57.852504 13701 net.cpp:129] Top shape: 50 160 28 28 (6272000)
I1013 22:23:57.852509 13701 net.cpp:137] Memory required for data: 442019400
I1013 22:23:57.852515 13701 layer_factory.hpp:77] Creating layer Eltwise2
I1013 22:23:57.852526 13701 net.cpp:84] Creating Layer Eltwise2
I1013 22:23:57.852532 13701 net.cpp:406] Eltwise2 <- Convolution6
I1013 22:23:57.852537 13701 net.cpp:406] Eltwise2 <- Eltwise1_penlu3_0_split_1
I1013 22:23:57.852545 13701 net.cpp:380] Eltwise2 -> Eltwise2
I1013 22:23:57.852572 13701 net.cpp:122] Setting up Eltwise2
I1013 22:23:57.852579 13701 net.cpp:129] Top shape: 50 160 28 28 (6272000)
I1013 22:23:57.852583 13701 net.cpp:137] Memory required for data: 467107400
I1013 22:23:57.852587 13701 layer_factory.hpp:77] Creating layer BatchNorm5
I1013 22:23:57.852594 13701 net.cpp:84] Creating Layer BatchNorm5
I1013 22:23:57.852599 13701 net.cpp:406] BatchNorm5 <- Eltwise2
I1013 22:23:57.852607 13701 net.cpp:367] BatchNorm5 -> Eltwise2 (in-place)
I1013 22:23:57.852746 13701 net.cpp:122] Setting up BatchNorm5
I1013 22:23:57.852754 13701 net.cpp:129] Top shape: 50 160 28 28 (6272000)
I1013 22:23:57.852758 13701 net.cpp:137] Memory required for data: 492195400
I1013 22:23:57.852767 13701 layer_factory.hpp:77] Creating layer Scale5
I1013 22:23:57.852776 13701 net.cpp:84] Creating Layer Scale5
I1013 22:23:57.852780 13701 net.cpp:406] Scale5 <- Eltwise2
I1013 22:23:57.852788 13701 net.cpp:367] Scale5 -> Eltwise2 (in-place)
I1013 22:23:57.852821 13701 layer_factory.hpp:77] Creating layer Scale5
I1013 22:23:57.852912 13701 net.cpp:122] Setting up Scale5
I1013 22:23:57.852919 13701 net.cpp:129] Top shape: 50 160 28 28 (6272000)
I1013 22:23:57.852924 13701 net.cpp:137] Memory required for data: 517283400
I1013 22:23:57.852931 13701 layer_factory.hpp:77] Creating layer penlu5
I1013 22:23:57.852941 13701 net.cpp:84] Creating Layer penlu5
I1013 22:23:57.852946 13701 net.cpp:406] penlu5 <- Eltwise2
I1013 22:23:57.852954 13701 net.cpp:367] penlu5 -> Eltwise2 (in-place)
I1013 22:23:57.853124 13701 net.cpp:122] Setting up penlu5
I1013 22:23:57.853132 13701 net.cpp:129] Top shape: 50 160 28 28 (6272000)
I1013 22:23:57.853137 13701 net.cpp:137] Memory required for data: 542371400
I1013 22:23:57.853145 13701 layer_factory.hpp:77] Creating layer Eltwise2_penlu5_0_split
I1013 22:23:57.853152 13701 net.cpp:84] Creating Layer Eltwise2_penlu5_0_split
I1013 22:23:57.853157 13701 net.cpp:406] Eltwise2_penlu5_0_split <- Eltwise2
I1013 22:23:57.853163 13701 net.cpp:380] Eltwise2_penlu5_0_split -> Eltwise2_penlu5_0_split_0
I1013 22:23:57.853173 13701 net.cpp:380] Eltwise2_penlu5_0_split -> Eltwise2_penlu5_0_split_1
I1013 22:23:57.853201 13701 net.cpp:122] Setting up Eltwise2_penlu5_0_split
I1013 22:23:57.853209 13701 net.cpp:129] Top shape: 50 160 28 28 (6272000)
I1013 22:23:57.853214 13701 net.cpp:129] Top shape: 50 160 28 28 (6272000)
I1013 22:23:57.853220 13701 net.cpp:137] Memory required for data: 592547400
I1013 22:23:57.853224 13701 layer_factory.hpp:77] Creating layer Convolution7
I1013 22:23:57.853230 13701 net.cpp:84] Creating Layer Convolution7
I1013 22:23:57.853241 13701 net.cpp:406] Convolution7 <- Eltwise2_penlu5_0_split_0
I1013 22:23:57.853246 13701 net.cpp:380] Convolution7 -> Convolution7
I1013 22:23:57.859824 13701 net.cpp:122] Setting up Convolution7
I1013 22:23:57.859840 13701 net.cpp:129] Top shape: 50 160 28 28 (6272000)
I1013 22:23:57.859843 13701 net.cpp:137] Memory required for data: 617635400
I1013 22:23:57.859848 13701 layer_factory.hpp:77] Creating layer BatchNorm6
I1013 22:23:57.859858 13701 net.cpp:84] Creating Layer BatchNorm6
I1013 22:23:57.859874 13701 net.cpp:406] BatchNorm6 <- Convolution7
I1013 22:23:57.859882 13701 net.cpp:367] BatchNorm6 -> Convolution7 (in-place)
I1013 22:23:57.860033 13701 net.cpp:122] Setting up BatchNorm6
I1013 22:23:57.860038 13701 net.cpp:129] Top shape: 50 160 28 28 (6272000)
I1013 22:23:57.860040 13701 net.cpp:137] Memory required for data: 642723400
I1013 22:23:57.860045 13701 layer_factory.hpp:77] Creating layer Scale6
I1013 22:23:57.860051 13701 net.cpp:84] Creating Layer Scale6
I1013 22:23:57.860054 13701 net.cpp:406] Scale6 <- Convolution7
I1013 22:23:57.860059 13701 net.cpp:367] Scale6 -> Convolution7 (in-place)
I1013 22:23:57.860111 13701 layer_factory.hpp:77] Creating layer Scale6
I1013 22:23:57.860193 13701 net.cpp:122] Setting up Scale6
I1013 22:23:57.860198 13701 net.cpp:129] Top shape: 50 160 28 28 (6272000)
I1013 22:23:57.860200 13701 net.cpp:137] Memory required for data: 667811400
I1013 22:23:57.860204 13701 layer_factory.hpp:77] Creating layer penlu6
I1013 22:23:57.860210 13701 net.cpp:84] Creating Layer penlu6
I1013 22:23:57.860213 13701 net.cpp:406] penlu6 <- Convolution7
I1013 22:23:57.860219 13701 net.cpp:367] penlu6 -> Convolution7 (in-place)
I1013 22:23:57.860385 13701 net.cpp:122] Setting up penlu6
I1013 22:23:57.860391 13701 net.cpp:129] Top shape: 50 160 28 28 (6272000)
I1013 22:23:57.860394 13701 net.cpp:137] Memory required for data: 692899400
I1013 22:23:57.860397 13701 layer_factory.hpp:77] Creating layer Convolution8
I1013 22:23:57.860404 13701 net.cpp:84] Creating Layer Convolution8
I1013 22:23:57.860407 13701 net.cpp:406] Convolution8 <- Convolution7
I1013 22:23:57.860412 13701 net.cpp:380] Convolution8 -> Convolution8
I1013 22:23:57.866973 13701 net.cpp:122] Setting up Convolution8
I1013 22:23:57.866984 13701 net.cpp:129] Top shape: 50 160 28 28 (6272000)
I1013 22:23:57.866987 13701 net.cpp:137] Memory required for data: 717987400
I1013 22:23:57.866991 13701 layer_factory.hpp:77] Creating layer Eltwise3
I1013 22:23:57.867000 13701 net.cpp:84] Creating Layer Eltwise3
I1013 22:23:57.867004 13701 net.cpp:406] Eltwise3 <- Convolution8
I1013 22:23:57.867023 13701 net.cpp:406] Eltwise3 <- Eltwise2_penlu5_0_split_1
I1013 22:23:57.867029 13701 net.cpp:380] Eltwise3 -> Eltwise3
I1013 22:23:57.867063 13701 net.cpp:122] Setting up Eltwise3
I1013 22:23:57.867069 13701 net.cpp:129] Top shape: 50 160 28 28 (6272000)
I1013 22:23:57.867070 13701 net.cpp:137] Memory required for data: 743075400
I1013 22:23:57.867074 13701 layer_factory.hpp:77] Creating layer BatchNorm7
I1013 22:23:57.867079 13701 net.cpp:84] Creating Layer BatchNorm7
I1013 22:23:57.867080 13701 net.cpp:406] BatchNorm7 <- Eltwise3
I1013 22:23:57.867084 13701 net.cpp:367] BatchNorm7 -> Eltwise3 (in-place)
I1013 22:23:57.867215 13701 net.cpp:122] Setting up BatchNorm7
I1013 22:23:57.867220 13701 net.cpp:129] Top shape: 50 160 28 28 (6272000)
I1013 22:23:57.867223 13701 net.cpp:137] Memory required for data: 768163400
I1013 22:23:57.867228 13701 layer_factory.hpp:77] Creating layer Scale7
I1013 22:23:57.867233 13701 net.cpp:84] Creating Layer Scale7
I1013 22:23:57.867234 13701 net.cpp:406] Scale7 <- Eltwise3
I1013 22:23:57.867238 13701 net.cpp:367] Scale7 -> Eltwise3 (in-place)
I1013 22:23:57.867269 13701 layer_factory.hpp:77] Creating layer Scale7
I1013 22:23:57.867348 13701 net.cpp:122] Setting up Scale7
I1013 22:23:57.867354 13701 net.cpp:129] Top shape: 50 160 28 28 (6272000)
I1013 22:23:57.867357 13701 net.cpp:137] Memory required for data: 793251400
I1013 22:23:57.867360 13701 layer_factory.hpp:77] Creating layer penlu7
I1013 22:23:57.867377 13701 net.cpp:84] Creating Layer penlu7
I1013 22:23:57.867380 13701 net.cpp:406] penlu7 <- Eltwise3
I1013 22:23:57.867386 13701 net.cpp:367] penlu7 -> Eltwise3 (in-place)
I1013 22:23:57.867544 13701 net.cpp:122] Setting up penlu7
I1013 22:23:57.867550 13701 net.cpp:129] Top shape: 50 160 28 28 (6272000)
I1013 22:23:57.867552 13701 net.cpp:137] Memory required for data: 818339400
I1013 22:23:57.867564 13701 layer_factory.hpp:77] Creating layer Eltwise3_penlu7_0_split
I1013 22:23:57.867570 13701 net.cpp:84] Creating Layer Eltwise3_penlu7_0_split
I1013 22:23:57.867575 13701 net.cpp:406] Eltwise3_penlu7_0_split <- Eltwise3
I1013 22:23:57.867580 13701 net.cpp:380] Eltwise3_penlu7_0_split -> Eltwise3_penlu7_0_split_0
I1013 22:23:57.867586 13701 net.cpp:380] Eltwise3_penlu7_0_split -> Eltwise3_penlu7_0_split_1
I1013 22:23:57.867612 13701 net.cpp:122] Setting up Eltwise3_penlu7_0_split
I1013 22:23:57.867617 13701 net.cpp:129] Top shape: 50 160 28 28 (6272000)
I1013 22:23:57.867620 13701 net.cpp:129] Top shape: 50 160 28 28 (6272000)
I1013 22:23:57.867622 13701 net.cpp:137] Memory required for data: 868515400
I1013 22:23:57.867625 13701 layer_factory.hpp:77] Creating layer Convolution9
I1013 22:23:57.867630 13701 net.cpp:84] Creating Layer Convolution9
I1013 22:23:57.867632 13701 net.cpp:406] Convolution9 <- Eltwise3_penlu7_0_split_0
I1013 22:23:57.867637 13701 net.cpp:380] Convolution9 -> Convolution9
I1013 22:23:57.874199 13701 net.cpp:122] Setting up Convolution9
I1013 22:23:57.874210 13701 net.cpp:129] Top shape: 50 160 28 28 (6272000)
I1013 22:23:57.874215 13701 net.cpp:137] Memory required for data: 893603400
I1013 22:23:57.874220 13701 layer_factory.hpp:77] Creating layer BatchNorm8
I1013 22:23:57.874227 13701 net.cpp:84] Creating Layer BatchNorm8
I1013 22:23:57.874231 13701 net.cpp:406] BatchNorm8 <- Convolution9
I1013 22:23:57.874238 13701 net.cpp:367] BatchNorm8 -> Convolution9 (in-place)
I1013 22:23:57.874377 13701 net.cpp:122] Setting up BatchNorm8
I1013 22:23:57.874382 13701 net.cpp:129] Top shape: 50 160 28 28 (6272000)
I1013 22:23:57.874387 13701 net.cpp:137] Memory required for data: 918691400
I1013 22:23:57.874392 13701 layer_factory.hpp:77] Creating layer Scale8
I1013 22:23:57.874397 13701 net.cpp:84] Creating Layer Scale8
I1013 22:23:57.874402 13701 net.cpp:406] Scale8 <- Convolution9
I1013 22:23:57.874408 13701 net.cpp:367] Scale8 -> Convolution9 (in-place)
I1013 22:23:57.874436 13701 layer_factory.hpp:77] Creating layer Scale8
I1013 22:23:57.874519 13701 net.cpp:122] Setting up Scale8
I1013 22:23:57.874526 13701 net.cpp:129] Top shape: 50 160 28 28 (6272000)
I1013 22:23:57.874529 13701 net.cpp:137] Memory required for data: 943779400
I1013 22:23:57.874536 13701 layer_factory.hpp:77] Creating layer penlu8
I1013 22:23:57.874544 13701 net.cpp:84] Creating Layer penlu8
I1013 22:23:57.874547 13701 net.cpp:406] penlu8 <- Convolution9
I1013 22:23:57.874553 13701 net.cpp:367] penlu8 -> Convolution9 (in-place)
I1013 22:23:57.874712 13701 net.cpp:122] Setting up penlu8
I1013 22:23:57.874719 13701 net.cpp:129] Top shape: 50 160 28 28 (6272000)
I1013 22:23:57.874723 13701 net.cpp:137] Memory required for data: 968867400
I1013 22:23:57.874730 13701 layer_factory.hpp:77] Creating layer Convolution10
I1013 22:23:57.874737 13701 net.cpp:84] Creating Layer Convolution10
I1013 22:23:57.874742 13701 net.cpp:406] Convolution10 <- Convolution9
I1013 22:23:57.874747 13701 net.cpp:380] Convolution10 -> Convolution10
I1013 22:23:57.881347 13701 net.cpp:122] Setting up Convolution10
I1013 22:23:57.881359 13701 net.cpp:129] Top shape: 50 160 28 28 (6272000)
I1013 22:23:57.881366 13701 net.cpp:137] Memory required for data: 993955400
I1013 22:23:57.881371 13701 layer_factory.hpp:77] Creating layer Eltwise4
I1013 22:23:57.881378 13701 net.cpp:84] Creating Layer Eltwise4
I1013 22:23:57.881383 13701 net.cpp:406] Eltwise4 <- Convolution10
I1013 22:23:57.881387 13701 net.cpp:406] Eltwise4 <- Eltwise3_penlu7_0_split_1
I1013 22:23:57.881392 13701 net.cpp:380] Eltwise4 -> Eltwise4
I1013 22:23:57.881417 13701 net.cpp:122] Setting up Eltwise4
I1013 22:23:57.881431 13701 net.cpp:129] Top shape: 50 160 28 28 (6272000)
I1013 22:23:57.881436 13701 net.cpp:137] Memory required for data: 1019043400
I1013 22:23:57.881440 13701 layer_factory.hpp:77] Creating layer Eltwise4_Eltwise4_0_split
I1013 22:23:57.881448 13701 net.cpp:84] Creating Layer Eltwise4_Eltwise4_0_split
I1013 22:23:57.881451 13701 net.cpp:406] Eltwise4_Eltwise4_0_split <- Eltwise4
I1013 22:23:57.881458 13701 net.cpp:380] Eltwise4_Eltwise4_0_split -> Eltwise4_Eltwise4_0_split_0
I1013 22:23:57.881465 13701 net.cpp:380] Eltwise4_Eltwise4_0_split -> Eltwise4_Eltwise4_0_split_1
I1013 22:23:57.881494 13701 net.cpp:122] Setting up Eltwise4_Eltwise4_0_split
I1013 22:23:57.881500 13701 net.cpp:129] Top shape: 50 160 28 28 (6272000)
I1013 22:23:57.881505 13701 net.cpp:129] Top shape: 50 160 28 28 (6272000)
I1013 22:23:57.881510 13701 net.cpp:137] Memory required for data: 1069219400
I1013 22:23:57.881513 13701 layer_factory.hpp:77] Creating layer Convolution11
I1013 22:23:57.881523 13701 net.cpp:84] Creating Layer Convolution11
I1013 22:23:57.881527 13701 net.cpp:406] Convolution11 <- Eltwise4_Eltwise4_0_split_0
I1013 22:23:57.881533 13701 net.cpp:380] Convolution11 -> Convolution11
I1013 22:23:57.893610 13701 net.cpp:122] Setting up Convolution11
I1013 22:23:57.893627 13701 net.cpp:129] Top shape: 50 320 14 14 (3136000)
I1013 22:23:57.893630 13701 net.cpp:137] Memory required for data: 1081763400
I1013 22:23:57.893635 13701 layer_factory.hpp:77] Creating layer BatchNorm9
I1013 22:23:57.893643 13701 net.cpp:84] Creating Layer BatchNorm9
I1013 22:23:57.893648 13701 net.cpp:406] BatchNorm9 <- Convolution11
I1013 22:23:57.893666 13701 net.cpp:367] BatchNorm9 -> Convolution11 (in-place)
I1013 22:23:57.893836 13701 net.cpp:122] Setting up BatchNorm9
I1013 22:23:57.893841 13701 net.cpp:129] Top shape: 50 320 14 14 (3136000)
I1013 22:23:57.893853 13701 net.cpp:137] Memory required for data: 1094307400
I1013 22:23:57.893859 13701 layer_factory.hpp:77] Creating layer Scale9
I1013 22:23:57.893865 13701 net.cpp:84] Creating Layer Scale9
I1013 22:23:57.893868 13701 net.cpp:406] Scale9 <- Convolution11
I1013 22:23:57.893877 13701 net.cpp:367] Scale9 -> Convolution11 (in-place)
I1013 22:23:57.893935 13701 layer_factory.hpp:77] Creating layer Scale9
I1013 22:23:57.894044 13701 net.cpp:122] Setting up Scale9
I1013 22:23:57.894049 13701 net.cpp:129] Top shape: 50 320 14 14 (3136000)
I1013 22:23:57.894052 13701 net.cpp:137] Memory required for data: 1106851400
I1013 22:23:57.894055 13701 layer_factory.hpp:77] Creating layer penlu9
I1013 22:23:57.894062 13701 net.cpp:84] Creating Layer penlu9
I1013 22:23:57.894064 13701 net.cpp:406] penlu9 <- Convolution11
I1013 22:23:57.894070 13701 net.cpp:367] penlu9 -> Convolution11 (in-place)
I1013 22:23:57.894223 13701 net.cpp:122] Setting up penlu9
I1013 22:23:57.894229 13701 net.cpp:129] Top shape: 50 320 14 14 (3136000)
I1013 22:23:57.894232 13701 net.cpp:137] Memory required for data: 1119395400
I1013 22:23:57.894237 13701 layer_factory.hpp:77] Creating layer Convolution12
I1013 22:23:57.894243 13701 net.cpp:84] Creating Layer Convolution12
I1013 22:23:57.894246 13701 net.cpp:406] Convolution12 <- Convolution11
I1013 22:23:57.894253 13701 net.cpp:380] Convolution12 -> Convolution12
I1013 22:23:57.915899 13701 net.cpp:122] Setting up Convolution12
I1013 22:23:57.915926 13701 net.cpp:129] Top shape: 50 320 14 14 (3136000)
I1013 22:23:57.915930 13701 net.cpp:137] Memory required for data: 1131939400
I1013 22:23:57.915935 13701 layer_factory.hpp:77] Creating layer Convolution13
I1013 22:23:57.915948 13701 net.cpp:84] Creating Layer Convolution13
I1013 22:23:57.915956 13701 net.cpp:406] Convolution13 <- Eltwise4_Eltwise4_0_split_1
I1013 22:23:57.915964 13701 net.cpp:380] Convolution13 -> Convolution13
I1013 22:23:57.918198 13701 net.cpp:122] Setting up Convolution13
I1013 22:23:57.918213 13701 net.cpp:129] Top shape: 50 320 14 14 (3136000)
I1013 22:23:57.918218 13701 net.cpp:137] Memory required for data: 1144483400
I1013 22:23:57.918226 13701 layer_factory.hpp:77] Creating layer Eltwise5
I1013 22:23:57.918272 13701 net.cpp:84] Creating Layer Eltwise5
I1013 22:23:57.918287 13701 net.cpp:406] Eltwise5 <- Convolution12
I1013 22:23:57.918308 13701 net.cpp:406] Eltwise5 <- Convolution13
I1013 22:23:57.918326 13701 net.cpp:380] Eltwise5 -> Eltwise5
I1013 22:23:57.918371 13701 net.cpp:122] Setting up Eltwise5
I1013 22:23:57.918380 13701 net.cpp:129] Top shape: 50 320 14 14 (3136000)
I1013 22:23:57.918396 13701 net.cpp:137] Memory required for data: 1157027400
I1013 22:23:57.918401 13701 layer_factory.hpp:77] Creating layer BatchNorm10
I1013 22:23:57.918417 13701 net.cpp:84] Creating Layer BatchNorm10
I1013 22:23:57.918431 13701 net.cpp:406] BatchNorm10 <- Eltwise5
I1013 22:23:57.918437 13701 net.cpp:367] BatchNorm10 -> Eltwise5 (in-place)
I1013 22:23:57.918668 13701 net.cpp:122] Setting up BatchNorm10
I1013 22:23:57.918680 13701 net.cpp:129] Top shape: 50 320 14 14 (3136000)
I1013 22:23:57.918695 13701 net.cpp:137] Memory required for data: 1169571400
I1013 22:23:57.918715 13701 layer_factory.hpp:77] Creating layer Scale10
I1013 22:23:57.918735 13701 net.cpp:84] Creating Layer Scale10
I1013 22:23:57.918740 13701 net.cpp:406] Scale10 <- Eltwise5
I1013 22:23:57.918756 13701 net.cpp:367] Scale10 -> Eltwise5 (in-place)
I1013 22:23:57.918844 13701 layer_factory.hpp:77] Creating layer Scale10
I1013 22:23:57.919013 13701 net.cpp:122] Setting up Scale10
I1013 22:23:57.919021 13701 net.cpp:129] Top shape: 50 320 14 14 (3136000)
I1013 22:23:57.919024 13701 net.cpp:137] Memory required for data: 1182115400
I1013 22:23:57.919028 13701 layer_factory.hpp:77] Creating layer penlu10
I1013 22:23:57.919051 13701 net.cpp:84] Creating Layer penlu10
I1013 22:23:57.919055 13701 net.cpp:406] penlu10 <- Eltwise5
I1013 22:23:57.919059 13701 net.cpp:367] penlu10 -> Eltwise5 (in-place)
I1013 22:23:57.919222 13701 net.cpp:122] Setting up penlu10
I1013 22:23:57.919227 13701 net.cpp:129] Top shape: 50 320 14 14 (3136000)
I1013 22:23:57.919230 13701 net.cpp:137] Memory required for data: 1194659400
I1013 22:23:57.919234 13701 layer_factory.hpp:77] Creating layer Eltwise5_penlu10_0_split
I1013 22:23:57.919239 13701 net.cpp:84] Creating Layer Eltwise5_penlu10_0_split
I1013 22:23:57.919243 13701 net.cpp:406] Eltwise5_penlu10_0_split <- Eltwise5
I1013 22:23:57.919247 13701 net.cpp:380] Eltwise5_penlu10_0_split -> Eltwise5_penlu10_0_split_0
I1013 22:23:57.919251 13701 net.cpp:380] Eltwise5_penlu10_0_split -> Eltwise5_penlu10_0_split_1
I1013 22:23:57.919276 13701 net.cpp:122] Setting up Eltwise5_penlu10_0_split
I1013 22:23:57.919281 13701 net.cpp:129] Top shape: 50 320 14 14 (3136000)
I1013 22:23:57.919284 13701 net.cpp:129] Top shape: 50 320 14 14 (3136000)
I1013 22:23:57.919286 13701 net.cpp:137] Memory required for data: 1219747400
I1013 22:23:57.919288 13701 layer_factory.hpp:77] Creating layer Convolution14
I1013 22:23:57.919294 13701 net.cpp:84] Creating Layer Convolution14
I1013 22:23:57.919298 13701 net.cpp:406] Convolution14 <- Eltwise5_penlu10_0_split_0
I1013 22:23:57.919302 13701 net.cpp:380] Convolution14 -> Convolution14
I1013 22:23:57.941048 13701 net.cpp:122] Setting up Convolution14
I1013 22:23:57.941062 13701 net.cpp:129] Top shape: 50 320 14 14 (3136000)
I1013 22:23:57.941066 13701 net.cpp:137] Memory required for data: 1232291400
I1013 22:23:57.941079 13701 layer_factory.hpp:77] Creating layer BatchNorm11
I1013 22:23:57.941085 13701 net.cpp:84] Creating Layer BatchNorm11
I1013 22:23:57.941099 13701 net.cpp:406] BatchNorm11 <- Convolution14
I1013 22:23:57.941104 13701 net.cpp:367] BatchNorm11 -> Convolution14 (in-place)
I1013 22:23:57.941282 13701 net.cpp:122] Setting up BatchNorm11
I1013 22:23:57.941287 13701 net.cpp:129] Top shape: 50 320 14 14 (3136000)
I1013 22:23:57.941298 13701 net.cpp:137] Memory required for data: 1244835400
I1013 22:23:57.941303 13701 layer_factory.hpp:77] Creating layer Scale11
I1013 22:23:57.941308 13701 net.cpp:84] Creating Layer Scale11
I1013 22:23:57.941310 13701 net.cpp:406] Scale11 <- Convolution14
I1013 22:23:57.941316 13701 net.cpp:367] Scale11 -> Convolution14 (in-place)
I1013 22:23:57.941359 13701 layer_factory.hpp:77] Creating layer Scale11
I1013 22:23:57.941443 13701 net.cpp:122] Setting up Scale11
I1013 22:23:57.941448 13701 net.cpp:129] Top shape: 50 320 14 14 (3136000)
I1013 22:23:57.941450 13701 net.cpp:137] Memory required for data: 1257379400
I1013 22:23:57.941454 13701 layer_factory.hpp:77] Creating layer penlu11
I1013 22:23:57.941460 13701 net.cpp:84] Creating Layer penlu11
I1013 22:23:57.941463 13701 net.cpp:406] penlu11 <- Convolution14
I1013 22:23:57.941468 13701 net.cpp:367] penlu11 -> Convolution14 (in-place)
I1013 22:23:57.941619 13701 net.cpp:122] Setting up penlu11
I1013 22:23:57.941625 13701 net.cpp:129] Top shape: 50 320 14 14 (3136000)
I1013 22:23:57.941628 13701 net.cpp:137] Memory required for data: 1269923400
I1013 22:23:57.941632 13701 layer_factory.hpp:77] Creating layer Convolution15
I1013 22:23:57.941639 13701 net.cpp:84] Creating Layer Convolution15
I1013 22:23:57.941642 13701 net.cpp:406] Convolution15 <- Convolution14
I1013 22:23:57.941648 13701 net.cpp:380] Convolution15 -> Convolution15
I1013 22:23:57.963908 13701 net.cpp:122] Setting up Convolution15
I1013 22:23:57.963929 13701 net.cpp:129] Top shape: 50 320 14 14 (3136000)
I1013 22:23:57.963932 13701 net.cpp:137] Memory required for data: 1282467400
I1013 22:23:57.963937 13701 layer_factory.hpp:77] Creating layer Eltwise6
I1013 22:23:57.963948 13701 net.cpp:84] Creating Layer Eltwise6
I1013 22:23:57.963953 13701 net.cpp:406] Eltwise6 <- Convolution15
I1013 22:23:57.963968 13701 net.cpp:406] Eltwise6 <- Eltwise5_penlu10_0_split_1
I1013 22:23:57.963971 13701 net.cpp:380] Eltwise6 -> Eltwise6
I1013 22:23:57.964016 13701 net.cpp:122] Setting up Eltwise6
I1013 22:23:57.964031 13701 net.cpp:129] Top shape: 50 320 14 14 (3136000)
I1013 22:23:57.964033 13701 net.cpp:137] Memory required for data: 1295011400
I1013 22:23:57.964035 13701 layer_factory.hpp:77] Creating layer BatchNorm12
I1013 22:23:57.964040 13701 net.cpp:84] Creating Layer BatchNorm12
I1013 22:23:57.964043 13701 net.cpp:406] BatchNorm12 <- Eltwise6
I1013 22:23:57.964046 13701 net.cpp:367] BatchNorm12 -> Eltwise6 (in-place)
I1013 22:23:57.964231 13701 net.cpp:122] Setting up BatchNorm12
I1013 22:23:57.964236 13701 net.cpp:129] Top shape: 50 320 14 14 (3136000)
I1013 22:23:57.964238 13701 net.cpp:137] Memory required for data: 1307555400
I1013 22:23:57.964243 13701 layer_factory.hpp:77] Creating layer Scale12
I1013 22:23:57.964249 13701 net.cpp:84] Creating Layer Scale12
I1013 22:23:57.964251 13701 net.cpp:406] Scale12 <- Eltwise6
I1013 22:23:57.964254 13701 net.cpp:367] Scale12 -> Eltwise6 (in-place)
I1013 22:23:57.964320 13701 layer_factory.hpp:77] Creating layer Scale12
I1013 22:23:57.964473 13701 net.cpp:122] Setting up Scale12
I1013 22:23:57.964479 13701 net.cpp:129] Top shape: 50 320 14 14 (3136000)
I1013 22:23:57.964481 13701 net.cpp:137] Memory required for data: 1320099400
I1013 22:23:57.964485 13701 layer_factory.hpp:77] Creating layer penlu12
I1013 22:23:57.964493 13701 net.cpp:84] Creating Layer penlu12
I1013 22:23:57.964494 13701 net.cpp:406] penlu12 <- Eltwise6
I1013 22:23:57.964498 13701 net.cpp:367] penlu12 -> Eltwise6 (in-place)
I1013 22:23:57.964682 13701 net.cpp:122] Setting up penlu12
I1013 22:23:57.964689 13701 net.cpp:129] Top shape: 50 320 14 14 (3136000)
I1013 22:23:57.964690 13701 net.cpp:137] Memory required for data: 1332643400
I1013 22:23:57.964694 13701 layer_factory.hpp:77] Creating layer Eltwise6_penlu12_0_split
I1013 22:23:57.964705 13701 net.cpp:84] Creating Layer Eltwise6_penlu12_0_split
I1013 22:23:57.964707 13701 net.cpp:406] Eltwise6_penlu12_0_split <- Eltwise6
I1013 22:23:57.964721 13701 net.cpp:380] Eltwise6_penlu12_0_split -> Eltwise6_penlu12_0_split_0
I1013 22:23:57.964727 13701 net.cpp:380] Eltwise6_penlu12_0_split -> Eltwise6_penlu12_0_split_1
I1013 22:23:57.964773 13701 net.cpp:122] Setting up Eltwise6_penlu12_0_split
I1013 22:23:57.964788 13701 net.cpp:129] Top shape: 50 320 14 14 (3136000)
I1013 22:23:57.964790 13701 net.cpp:129] Top shape: 50 320 14 14 (3136000)
I1013 22:23:57.964792 13701 net.cpp:137] Memory required for data: 1357731400
I1013 22:23:57.964824 13701 layer_factory.hpp:77] Creating layer Convolution16
I1013 22:23:57.964840 13701 net.cpp:84] Creating Layer Convolution16
I1013 22:23:57.964845 13701 net.cpp:406] Convolution16 <- Eltwise6_penlu12_0_split_0
I1013 22:23:57.964848 13701 net.cpp:380] Convolution16 -> Convolution16
I1013 22:23:57.986970 13701 net.cpp:122] Setting up Convolution16
I1013 22:23:57.986989 13701 net.cpp:129] Top shape: 50 320 14 14 (3136000)
I1013 22:23:57.986994 13701 net.cpp:137] Memory required for data: 1370275400
I1013 22:23:57.986999 13701 layer_factory.hpp:77] Creating layer BatchNorm13
I1013 22:23:57.987006 13701 net.cpp:84] Creating Layer BatchNorm13
I1013 22:23:57.987020 13701 net.cpp:406] BatchNorm13 <- Convolution16
I1013 22:23:57.987025 13701 net.cpp:367] BatchNorm13 -> Convolution16 (in-place)
I1013 22:23:57.987221 13701 net.cpp:122] Setting up BatchNorm13
I1013 22:23:57.987226 13701 net.cpp:129] Top shape: 50 320 14 14 (3136000)
I1013 22:23:57.987228 13701 net.cpp:137] Memory required for data: 1382819400
I1013 22:23:57.987234 13701 layer_factory.hpp:77] Creating layer Scale13
I1013 22:23:57.987239 13701 net.cpp:84] Creating Layer Scale13
I1013 22:23:57.987242 13701 net.cpp:406] Scale13 <- Convolution16
I1013 22:23:57.987246 13701 net.cpp:367] Scale13 -> Convolution16 (in-place)
I1013 22:23:57.987313 13701 layer_factory.hpp:77] Creating layer Scale13
I1013 22:23:57.987458 13701 net.cpp:122] Setting up Scale13
I1013 22:23:57.987463 13701 net.cpp:129] Top shape: 50 320 14 14 (3136000)
I1013 22:23:57.987465 13701 net.cpp:137] Memory required for data: 1395363400
I1013 22:23:57.987469 13701 layer_factory.hpp:77] Creating layer penlu13
I1013 22:23:57.987475 13701 net.cpp:84] Creating Layer penlu13
I1013 22:23:57.987478 13701 net.cpp:406] penlu13 <- Convolution16
I1013 22:23:57.987483 13701 net.cpp:367] penlu13 -> Convolution16 (in-place)
I1013 22:23:57.987668 13701 net.cpp:122] Setting up penlu13
I1013 22:23:57.987673 13701 net.cpp:129] Top shape: 50 320 14 14 (3136000)
I1013 22:23:57.987675 13701 net.cpp:137] Memory required for data: 1407907400
I1013 22:23:57.987680 13701 layer_factory.hpp:77] Creating layer Convolution17
I1013 22:23:57.987687 13701 net.cpp:84] Creating Layer Convolution17
I1013 22:23:57.987689 13701 net.cpp:406] Convolution17 <- Convolution16
I1013 22:23:57.987704 13701 net.cpp:380] Convolution17 -> Convolution17
I1013 22:23:58.009212 13701 net.cpp:122] Setting up Convolution17
I1013 22:23:58.009232 13701 net.cpp:129] Top shape: 50 320 14 14 (3136000)
I1013 22:23:58.009235 13701 net.cpp:137] Memory required for data: 1420451400
I1013 22:23:58.009240 13701 layer_factory.hpp:77] Creating layer Eltwise7
I1013 22:23:58.009259 13701 net.cpp:84] Creating Layer Eltwise7
I1013 22:23:58.009263 13701 net.cpp:406] Eltwise7 <- Convolution17
I1013 22:23:58.009268 13701 net.cpp:406] Eltwise7 <- Eltwise6_penlu12_0_split_1
I1013 22:23:58.009282 13701 net.cpp:380] Eltwise7 -> Eltwise7
I1013 22:23:58.009318 13701 net.cpp:122] Setting up Eltwise7
I1013 22:23:58.009335 13701 net.cpp:129] Top shape: 50 320 14 14 (3136000)
I1013 22:23:58.009340 13701 net.cpp:137] Memory required for data: 1432995400
I1013 22:23:58.009352 13701 layer_factory.hpp:77] Creating layer BatchNorm14
I1013 22:23:58.009359 13701 net.cpp:84] Creating Layer BatchNorm14
I1013 22:23:58.009364 13701 net.cpp:406] BatchNorm14 <- Eltwise7
I1013 22:23:58.009369 13701 net.cpp:367] BatchNorm14 -> Eltwise7 (in-place)
I1013 22:23:58.009624 13701 net.cpp:122] Setting up BatchNorm14
I1013 22:23:58.009634 13701 net.cpp:129] Top shape: 50 320 14 14 (3136000)
I1013 22:23:58.009647 13701 net.cpp:137] Memory required for data: 1445539400
I1013 22:23:58.009665 13701 layer_factory.hpp:77] Creating layer Scale14
I1013 22:23:58.009675 13701 net.cpp:84] Creating Layer Scale14
I1013 22:23:58.009680 13701 net.cpp:406] Scale14 <- Eltwise7
I1013 22:23:58.009694 13701 net.cpp:367] Scale14 -> Eltwise7 (in-place)
I1013 22:23:58.009784 13701 layer_factory.hpp:77] Creating layer Scale14
I1013 22:23:58.009969 13701 net.cpp:122] Setting up Scale14
I1013 22:23:58.009989 13701 net.cpp:129] Top shape: 50 320 14 14 (3136000)
I1013 22:23:58.010002 13701 net.cpp:137] Memory required for data: 1458083400
I1013 22:23:58.010007 13701 layer_factory.hpp:77] Creating layer penlu14
I1013 22:23:58.010025 13701 net.cpp:84] Creating Layer penlu14
I1013 22:23:58.010028 13701 net.cpp:406] penlu14 <- Eltwise7
I1013 22:23:58.010033 13701 net.cpp:367] penlu14 -> Eltwise7 (in-place)
I1013 22:23:58.010236 13701 net.cpp:122] Setting up penlu14
I1013 22:23:58.010241 13701 net.cpp:129] Top shape: 50 320 14 14 (3136000)
I1013 22:23:58.010253 13701 net.cpp:137] Memory required for data: 1470627400
I1013 22:23:58.010282 13701 layer_factory.hpp:77] Creating layer Eltwise7_penlu14_0_split
I1013 22:23:58.010287 13701 net.cpp:84] Creating Layer Eltwise7_penlu14_0_split
I1013 22:23:58.010289 13701 net.cpp:406] Eltwise7_penlu14_0_split <- Eltwise7
I1013 22:23:58.010293 13701 net.cpp:380] Eltwise7_penlu14_0_split -> Eltwise7_penlu14_0_split_0
I1013 22:23:58.010298 13701 net.cpp:380] Eltwise7_penlu14_0_split -> Eltwise7_penlu14_0_split_1
I1013 22:23:58.010334 13701 net.cpp:122] Setting up Eltwise7_penlu14_0_split
I1013 22:23:58.010339 13701 net.cpp:129] Top shape: 50 320 14 14 (3136000)
I1013 22:23:58.010351 13701 net.cpp:129] Top shape: 50 320 14 14 (3136000)
I1013 22:23:58.010354 13701 net.cpp:137] Memory required for data: 1495715400
I1013 22:23:58.010356 13701 layer_factory.hpp:77] Creating layer Convolution18
I1013 22:23:58.010373 13701 net.cpp:84] Creating Layer Convolution18
I1013 22:23:58.010376 13701 net.cpp:406] Convolution18 <- Eltwise7_penlu14_0_split_0
I1013 22:23:58.010380 13701 net.cpp:380] Convolution18 -> Convolution18
I1013 22:23:58.032297 13701 net.cpp:122] Setting up Convolution18
I1013 22:23:58.032312 13701 net.cpp:129] Top shape: 50 320 14 14 (3136000)
I1013 22:23:58.032315 13701 net.cpp:137] Memory required for data: 1508259400
I1013 22:23:58.032320 13701 layer_factory.hpp:77] Creating layer BatchNorm15
I1013 22:23:58.032326 13701 net.cpp:84] Creating Layer BatchNorm15
I1013 22:23:58.032330 13701 net.cpp:406] BatchNorm15 <- Convolution18
I1013 22:23:58.032335 13701 net.cpp:367] BatchNorm15 -> Convolution18 (in-place)
I1013 22:23:58.032536 13701 net.cpp:122] Setting up BatchNorm15
I1013 22:23:58.032541 13701 net.cpp:129] Top shape: 50 320 14 14 (3136000)
I1013 22:23:58.032543 13701 net.cpp:137] Memory required for data: 1520803400
I1013 22:23:58.032548 13701 layer_factory.hpp:77] Creating layer Scale15
I1013 22:23:58.032553 13701 net.cpp:84] Creating Layer Scale15
I1013 22:23:58.032555 13701 net.cpp:406] Scale15 <- Convolution18
I1013 22:23:58.032570 13701 net.cpp:367] Scale15 -> Convolution18 (in-place)
I1013 22:23:58.032626 13701 layer_factory.hpp:77] Creating layer Scale15
I1013 22:23:58.032753 13701 net.cpp:122] Setting up Scale15
I1013 22:23:58.032758 13701 net.cpp:129] Top shape: 50 320 14 14 (3136000)
I1013 22:23:58.032760 13701 net.cpp:137] Memory required for data: 1533347400
I1013 22:23:58.032764 13701 layer_factory.hpp:77] Creating layer penlu15
I1013 22:23:58.032769 13701 net.cpp:84] Creating Layer penlu15
I1013 22:23:58.032773 13701 net.cpp:406] penlu15 <- Convolution18
I1013 22:23:58.032776 13701 net.cpp:367] penlu15 -> Convolution18 (in-place)
I1013 22:23:58.032948 13701 net.cpp:122] Setting up penlu15
I1013 22:23:58.032954 13701 net.cpp:129] Top shape: 50 320 14 14 (3136000)
I1013 22:23:58.032958 13701 net.cpp:137] Memory required for data: 1545891400
I1013 22:23:58.032961 13701 layer_factory.hpp:77] Creating layer Convolution19
I1013 22:23:58.032968 13701 net.cpp:84] Creating Layer Convolution19
I1013 22:23:58.032969 13701 net.cpp:406] Convolution19 <- Convolution18
I1013 22:23:58.032984 13701 net.cpp:380] Convolution19 -> Convolution19
I1013 22:23:58.055184 13701 net.cpp:122] Setting up Convolution19
I1013 22:23:58.055214 13701 net.cpp:129] Top shape: 50 320 14 14 (3136000)
I1013 22:23:58.055217 13701 net.cpp:137] Memory required for data: 1558435400
I1013 22:23:58.055223 13701 layer_factory.hpp:77] Creating layer Eltwise8
I1013 22:23:58.055243 13701 net.cpp:84] Creating Layer Eltwise8
I1013 22:23:58.055258 13701 net.cpp:406] Eltwise8 <- Convolution19
I1013 22:23:58.055263 13701 net.cpp:406] Eltwise8 <- Eltwise7_penlu14_0_split_1
I1013 22:23:58.055268 13701 net.cpp:380] Eltwise8 -> Eltwise8
I1013 22:23:58.055325 13701 net.cpp:122] Setting up Eltwise8
I1013 22:23:58.055341 13701 net.cpp:129] Top shape: 50 320 14 14 (3136000)
I1013 22:23:58.055343 13701 net.cpp:137] Memory required for data: 1570979400
I1013 22:23:58.055346 13701 layer_factory.hpp:77] Creating layer Eltwise8_Eltwise8_0_split
I1013 22:23:58.055357 13701 net.cpp:84] Creating Layer Eltwise8_Eltwise8_0_split
I1013 22:23:58.055361 13701 net.cpp:406] Eltwise8_Eltwise8_0_split <- Eltwise8
I1013 22:23:58.055364 13701 net.cpp:380] Eltwise8_Eltwise8_0_split -> Eltwise8_Eltwise8_0_split_0
I1013 22:23:58.055378 13701 net.cpp:380] Eltwise8_Eltwise8_0_split -> Eltwise8_Eltwise8_0_split_1
I1013 22:23:58.055415 13701 net.cpp:122] Setting up Eltwise8_Eltwise8_0_split
I1013 22:23:58.055429 13701 net.cpp:129] Top shape: 50 320 14 14 (3136000)
I1013 22:23:58.055433 13701 net.cpp:129] Top shape: 50 320 14 14 (3136000)
I1013 22:23:58.055444 13701 net.cpp:137] Memory required for data: 1596067400
I1013 22:23:58.055445 13701 layer_factory.hpp:77] Creating layer Convolution20
I1013 22:23:58.055464 13701 net.cpp:84] Creating Layer Convolution20
I1013 22:23:58.055465 13701 net.cpp:406] Convolution20 <- Eltwise8_Eltwise8_0_split_0
I1013 22:23:58.055470 13701 net.cpp:380] Convolution20 -> Convolution20
I1013 22:23:58.097779 13701 net.cpp:122] Setting up Convolution20
I1013 22:23:58.097810 13701 net.cpp:129] Top shape: 50 640 7 7 (1568000)
I1013 22:23:58.097813 13701 net.cpp:137] Memory required for data: 1602339400
I1013 22:23:58.097820 13701 layer_factory.hpp:77] Creating layer BatchNorm16
I1013 22:23:58.097839 13701 net.cpp:84] Creating Layer BatchNorm16
I1013 22:23:58.097843 13701 net.cpp:406] BatchNorm16 <- Convolution20
I1013 22:23:58.097849 13701 net.cpp:367] BatchNorm16 -> Convolution20 (in-place)
I1013 22:23:58.098043 13701 net.cpp:122] Setting up BatchNorm16
I1013 22:23:58.098049 13701 net.cpp:129] Top shape: 50 640 7 7 (1568000)
I1013 22:23:58.098052 13701 net.cpp:137] Memory required for data: 1608611400
I1013 22:23:58.098067 13701 layer_factory.hpp:77] Creating layer Scale16
I1013 22:23:58.098073 13701 net.cpp:84] Creating Layer Scale16
I1013 22:23:58.098086 13701 net.cpp:406] Scale16 <- Convolution20
I1013 22:23:58.098089 13701 net.cpp:367] Scale16 -> Convolution20 (in-place)
I1013 22:23:58.098132 13701 layer_factory.hpp:77] Creating layer Scale16
I1013 22:23:58.098248 13701 net.cpp:122] Setting up Scale16
I1013 22:23:58.098253 13701 net.cpp:129] Top shape: 50 640 7 7 (1568000)
I1013 22:23:58.098254 13701 net.cpp:137] Memory required for data: 1614883400
I1013 22:23:58.098258 13701 layer_factory.hpp:77] Creating layer penlu16
I1013 22:23:58.098263 13701 net.cpp:84] Creating Layer penlu16
I1013 22:23:58.098265 13701 net.cpp:406] penlu16 <- Convolution20
I1013 22:23:58.098270 13701 net.cpp:367] penlu16 -> Convolution20 (in-place)
I1013 22:23:58.098942 13701 net.cpp:122] Setting up penlu16
I1013 22:23:58.098951 13701 net.cpp:129] Top shape: 50 640 7 7 (1568000)
I1013 22:23:58.098953 13701 net.cpp:137] Memory required for data: 1621155400
I1013 22:23:58.098958 13701 layer_factory.hpp:77] Creating layer Convolution21
I1013 22:23:58.098965 13701 net.cpp:84] Creating Layer Convolution21
I1013 22:23:58.098978 13701 net.cpp:406] Convolution21 <- Convolution20
I1013 22:23:58.098984 13701 net.cpp:380] Convolution21 -> Convolution21
I1013 22:23:58.182837 13701 net.cpp:122] Setting up Convolution21
I1013 22:23:58.182859 13701 net.cpp:129] Top shape: 50 640 7 7 (1568000)
I1013 22:23:58.182863 13701 net.cpp:137] Memory required for data: 1627427400
I1013 22:23:58.182869 13701 layer_factory.hpp:77] Creating layer Convolution22
I1013 22:23:58.182893 13701 net.cpp:84] Creating Layer Convolution22
I1013 22:23:58.182896 13701 net.cpp:406] Convolution22 <- Eltwise8_Eltwise8_0_split_1
I1013 22:23:58.182914 13701 net.cpp:380] Convolution22 -> Convolution22
I1013 22:23:58.188246 13701 net.cpp:122] Setting up Convolution22
I1013 22:23:58.188256 13701 net.cpp:129] Top shape: 50 640 7 7 (1568000)
I1013 22:23:58.188259 13701 net.cpp:137] Memory required for data: 1633699400
I1013 22:23:58.188262 13701 layer_factory.hpp:77] Creating layer Eltwise9
I1013 22:23:58.188268 13701 net.cpp:84] Creating Layer Eltwise9
I1013 22:23:58.188271 13701 net.cpp:406] Eltwise9 <- Convolution21
I1013 22:23:58.188274 13701 net.cpp:406] Eltwise9 <- Convolution22
I1013 22:23:58.188288 13701 net.cpp:380] Eltwise9 -> Eltwise9
I1013 22:23:58.188329 13701 net.cpp:122] Setting up Eltwise9
I1013 22:23:58.188334 13701 net.cpp:129] Top shape: 50 640 7 7 (1568000)
I1013 22:23:58.188336 13701 net.cpp:137] Memory required for data: 1639971400
I1013 22:23:58.188349 13701 layer_factory.hpp:77] Creating layer BatchNorm17
I1013 22:23:58.188354 13701 net.cpp:84] Creating Layer BatchNorm17
I1013 22:23:58.188356 13701 net.cpp:406] BatchNorm17 <- Eltwise9
I1013 22:23:58.188370 13701 net.cpp:367] BatchNorm17 -> Eltwise9 (in-place)
I1013 22:23:58.188549 13701 net.cpp:122] Setting up BatchNorm17
I1013 22:23:58.188555 13701 net.cpp:129] Top shape: 50 640 7 7 (1568000)
I1013 22:23:58.188556 13701 net.cpp:137] Memory required for data: 1646243400
I1013 22:23:58.188561 13701 layer_factory.hpp:77] Creating layer Scale17
I1013 22:23:58.188570 13701 net.cpp:84] Creating Layer Scale17
I1013 22:23:58.188572 13701 net.cpp:406] Scale17 <- Eltwise9
I1013 22:23:58.188575 13701 net.cpp:367] Scale17 -> Eltwise9 (in-place)
I1013 22:23:58.188624 13701 layer_factory.hpp:77] Creating layer Scale17
I1013 22:23:58.188729 13701 net.cpp:122] Setting up Scale17
I1013 22:23:58.188733 13701 net.cpp:129] Top shape: 50 640 7 7 (1568000)
I1013 22:23:58.188735 13701 net.cpp:137] Memory required for data: 1652515400
I1013 22:23:58.188740 13701 layer_factory.hpp:77] Creating layer penlu17
I1013 22:23:58.188745 13701 net.cpp:84] Creating Layer penlu17
I1013 22:23:58.188747 13701 net.cpp:406] penlu17 <- Eltwise9
I1013 22:23:58.188751 13701 net.cpp:367] penlu17 -> Eltwise9 (in-place)
I1013 22:23:58.188896 13701 net.cpp:122] Setting up penlu17
I1013 22:23:58.188902 13701 net.cpp:129] Top shape: 50 640 7 7 (1568000)
I1013 22:23:58.188905 13701 net.cpp:137] Memory required for data: 1658787400
I1013 22:23:58.188908 13701 layer_factory.hpp:77] Creating layer Eltwise9_penlu17_0_split
I1013 22:23:58.188912 13701 net.cpp:84] Creating Layer Eltwise9_penlu17_0_split
I1013 22:23:58.188915 13701 net.cpp:406] Eltwise9_penlu17_0_split <- Eltwise9
I1013 22:23:58.188918 13701 net.cpp:380] Eltwise9_penlu17_0_split -> Eltwise9_penlu17_0_split_0
I1013 22:23:58.188923 13701 net.cpp:380] Eltwise9_penlu17_0_split -> Eltwise9_penlu17_0_split_1
I1013 22:23:58.188961 13701 net.cpp:122] Setting up Eltwise9_penlu17_0_split
I1013 22:23:58.188966 13701 net.cpp:129] Top shape: 50 640 7 7 (1568000)
I1013 22:23:58.188968 13701 net.cpp:129] Top shape: 50 640 7 7 (1568000)
I1013 22:23:58.188979 13701 net.cpp:137] Memory required for data: 1671331400
I1013 22:23:58.188982 13701 layer_factory.hpp:77] Creating layer Convolution23
I1013 22:23:58.188987 13701 net.cpp:84] Creating Layer Convolution23
I1013 22:23:58.188999 13701 net.cpp:406] Convolution23 <- Eltwise9_penlu17_0_split_0
I1013 22:23:58.189003 13701 net.cpp:380] Convolution23 -> Convolution23
I1013 22:23:58.272460 13701 net.cpp:122] Setting up Convolution23
I1013 22:23:58.272493 13701 net.cpp:129] Top shape: 50 640 7 7 (1568000)
I1013 22:23:58.272496 13701 net.cpp:137] Memory required for data: 1677603400
I1013 22:23:58.272502 13701 layer_factory.hpp:77] Creating layer BatchNorm18
I1013 22:23:58.272512 13701 net.cpp:84] Creating Layer BatchNorm18
I1013 22:23:58.272527 13701 net.cpp:406] BatchNorm18 <- Convolution23
I1013 22:23:58.272532 13701 net.cpp:367] BatchNorm18 -> Convolution23 (in-place)
I1013 22:23:58.272711 13701 net.cpp:122] Setting up BatchNorm18
I1013 22:23:58.272717 13701 net.cpp:129] Top shape: 50 640 7 7 (1568000)
I1013 22:23:58.272729 13701 net.cpp:137] Memory required for data: 1683875400
I1013 22:23:58.272761 13701 layer_factory.hpp:77] Creating layer Scale18
I1013 22:23:58.272778 13701 net.cpp:84] Creating Layer Scale18
I1013 22:23:58.272781 13701 net.cpp:406] Scale18 <- Convolution23
I1013 22:23:58.272797 13701 net.cpp:367] Scale18 -> Convolution23 (in-place)
I1013 22:23:58.272860 13701 layer_factory.hpp:77] Creating layer Scale18
I1013 22:23:58.272975 13701 net.cpp:122] Setting up Scale18
I1013 22:23:58.272980 13701 net.cpp:129] Top shape: 50 640 7 7 (1568000)
I1013 22:23:58.272982 13701 net.cpp:137] Memory required for data: 1690147400
I1013 22:23:58.272985 13701 layer_factory.hpp:77] Creating layer penlu18
I1013 22:23:58.272992 13701 net.cpp:84] Creating Layer penlu18
I1013 22:23:58.273010 13701 net.cpp:406] penlu18 <- Convolution23
I1013 22:23:58.273015 13701 net.cpp:367] penlu18 -> Convolution23 (in-place)
I1013 22:23:58.273206 13701 net.cpp:122] Setting up penlu18
I1013 22:23:58.273211 13701 net.cpp:129] Top shape: 50 640 7 7 (1568000)
I1013 22:23:58.273213 13701 net.cpp:137] Memory required for data: 1696419400
I1013 22:23:58.273217 13701 layer_factory.hpp:77] Creating layer Convolution24
I1013 22:23:58.273224 13701 net.cpp:84] Creating Layer Convolution24
I1013 22:23:58.273242 13701 net.cpp:406] Convolution24 <- Convolution23
I1013 22:23:58.273247 13701 net.cpp:380] Convolution24 -> Convolution24
I1013 22:23:58.357262 13701 net.cpp:122] Setting up Convolution24
I1013 22:23:58.357295 13701 net.cpp:129] Top shape: 50 640 7 7 (1568000)
I1013 22:23:58.357300 13701 net.cpp:137] Memory required for data: 1702691400
I1013 22:23:58.357306 13701 layer_factory.hpp:77] Creating layer Eltwise10
I1013 22:23:58.357326 13701 net.cpp:84] Creating Layer Eltwise10
I1013 22:23:58.357331 13701 net.cpp:406] Eltwise10 <- Convolution24
I1013 22:23:58.357336 13701 net.cpp:406] Eltwise10 <- Eltwise9_penlu17_0_split_1
I1013 22:23:58.357343 13701 net.cpp:380] Eltwise10 -> Eltwise10
I1013 22:23:58.357400 13701 net.cpp:122] Setting up Eltwise10
I1013 22:23:58.357405 13701 net.cpp:129] Top shape: 50 640 7 7 (1568000)
I1013 22:23:58.357408 13701 net.cpp:137] Memory required for data: 1708963400
I1013 22:23:58.357410 13701 layer_factory.hpp:77] Creating layer BatchNorm19
I1013 22:23:58.357415 13701 net.cpp:84] Creating Layer BatchNorm19
I1013 22:23:58.357419 13701 net.cpp:406] BatchNorm19 <- Eltwise10
I1013 22:23:58.357424 13701 net.cpp:367] BatchNorm19 -> Eltwise10 (in-place)
I1013 22:23:58.357627 13701 net.cpp:122] Setting up BatchNorm19
I1013 22:23:58.357632 13701 net.cpp:129] Top shape: 50 640 7 7 (1568000)
I1013 22:23:58.357635 13701 net.cpp:137] Memory required for data: 1715235400
I1013 22:23:58.357640 13701 layer_factory.hpp:77] Creating layer Scale19
I1013 22:23:58.357645 13701 net.cpp:84] Creating Layer Scale19
I1013 22:23:58.357647 13701 net.cpp:406] Scale19 <- Eltwise10
I1013 22:23:58.357651 13701 net.cpp:367] Scale19 -> Eltwise10 (in-place)
I1013 22:23:58.357722 13701 layer_factory.hpp:77] Creating layer Scale19
I1013 22:23:58.357854 13701 net.cpp:122] Setting up Scale19
I1013 22:23:58.357859 13701 net.cpp:129] Top shape: 50 640 7 7 (1568000)
I1013 22:23:58.357861 13701 net.cpp:137] Memory required for data: 1721507400
I1013 22:23:58.357864 13701 layer_factory.hpp:77] Creating layer penlu19
I1013 22:23:58.357870 13701 net.cpp:84] Creating Layer penlu19
I1013 22:23:58.357872 13701 net.cpp:406] penlu19 <- Eltwise10
I1013 22:23:58.357877 13701 net.cpp:367] penlu19 -> Eltwise10 (in-place)
I1013 22:23:58.358052 13701 net.cpp:122] Setting up penlu19
I1013 22:23:58.358058 13701 net.cpp:129] Top shape: 50 640 7 7 (1568000)
I1013 22:23:58.358060 13701 net.cpp:137] Memory required for data: 1727779400
I1013 22:23:58.358065 13701 layer_factory.hpp:77] Creating layer Eltwise10_penlu19_0_split
I1013 22:23:58.358069 13701 net.cpp:84] Creating Layer Eltwise10_penlu19_0_split
I1013 22:23:58.358072 13701 net.cpp:406] Eltwise10_penlu19_0_split <- Eltwise10
I1013 22:23:58.358077 13701 net.cpp:380] Eltwise10_penlu19_0_split -> Eltwise10_penlu19_0_split_0
I1013 22:23:58.358080 13701 net.cpp:380] Eltwise10_penlu19_0_split -> Eltwise10_penlu19_0_split_1
I1013 22:23:58.358158 13701 net.cpp:122] Setting up Eltwise10_penlu19_0_split
I1013 22:23:58.358173 13701 net.cpp:129] Top shape: 50 640 7 7 (1568000)
I1013 22:23:58.358177 13701 net.cpp:129] Top shape: 50 640 7 7 (1568000)
I1013 22:23:58.358180 13701 net.cpp:137] Memory required for data: 1740323400
I1013 22:23:58.358182 13701 layer_factory.hpp:77] Creating layer Convolution25
I1013 22:23:58.358189 13701 net.cpp:84] Creating Layer Convolution25
I1013 22:23:58.358193 13701 net.cpp:406] Convolution25 <- Eltwise10_penlu19_0_split_0
I1013 22:23:58.358197 13701 net.cpp:380] Convolution25 -> Convolution25
I1013 22:23:58.442014 13701 net.cpp:122] Setting up Convolution25
I1013 22:23:58.442036 13701 net.cpp:129] Top shape: 50 640 7 7 (1568000)
I1013 22:23:58.442040 13701 net.cpp:137] Memory required for data: 1746595400
I1013 22:23:58.442049 13701 layer_factory.hpp:77] Creating layer BatchNorm20
I1013 22:23:58.442059 13701 net.cpp:84] Creating Layer BatchNorm20
I1013 22:23:58.442075 13701 net.cpp:406] BatchNorm20 <- Convolution25
I1013 22:23:58.442080 13701 net.cpp:367] BatchNorm20 -> Convolution25 (in-place)
I1013 22:23:58.442286 13701 net.cpp:122] Setting up BatchNorm20
I1013 22:23:58.442291 13701 net.cpp:129] Top shape: 50 640 7 7 (1568000)
I1013 22:23:58.442293 13701 net.cpp:137] Memory required for data: 1752867400
I1013 22:23:58.442298 13701 layer_factory.hpp:77] Creating layer Scale20
I1013 22:23:58.442304 13701 net.cpp:84] Creating Layer Scale20
I1013 22:23:58.442307 13701 net.cpp:406] Scale20 <- Convolution25
I1013 22:23:58.442322 13701 net.cpp:367] Scale20 -> Convolution25 (in-place)
I1013 22:23:58.442384 13701 layer_factory.hpp:77] Creating layer Scale20
I1013 22:23:58.442513 13701 net.cpp:122] Setting up Scale20
I1013 22:23:58.442519 13701 net.cpp:129] Top shape: 50 640 7 7 (1568000)
I1013 22:23:58.442522 13701 net.cpp:137] Memory required for data: 1759139400
I1013 22:23:58.442525 13701 layer_factory.hpp:77] Creating layer penlu20
I1013 22:23:58.442530 13701 net.cpp:84] Creating Layer penlu20
I1013 22:23:58.442533 13701 net.cpp:406] penlu20 <- Convolution25
I1013 22:23:58.442538 13701 net.cpp:367] penlu20 -> Convolution25 (in-place)
I1013 22:23:58.442689 13701 net.cpp:122] Setting up penlu20
I1013 22:23:58.442694 13701 net.cpp:129] Top shape: 50 640 7 7 (1568000)
I1013 22:23:58.442697 13701 net.cpp:137] Memory required for data: 1765411400
I1013 22:23:58.442701 13701 layer_factory.hpp:77] Creating layer Convolution26
I1013 22:23:58.442708 13701 net.cpp:84] Creating Layer Convolution26
I1013 22:23:58.442711 13701 net.cpp:406] Convolution26 <- Convolution25
I1013 22:23:58.442725 13701 net.cpp:380] Convolution26 -> Convolution26
I1013 22:23:58.526376 13701 net.cpp:122] Setting up Convolution26
I1013 22:23:58.526397 13701 net.cpp:129] Top shape: 50 640 7 7 (1568000)
I1013 22:23:58.526401 13701 net.cpp:137] Memory required for data: 1771683400
I1013 22:23:58.526408 13701 layer_factory.hpp:77] Creating layer Eltwise11
I1013 22:23:58.526427 13701 net.cpp:84] Creating Layer Eltwise11
I1013 22:23:58.526432 13701 net.cpp:406] Eltwise11 <- Convolution26
I1013 22:23:58.526439 13701 net.cpp:406] Eltwise11 <- Eltwise10_penlu19_0_split_1
I1013 22:23:58.526444 13701 net.cpp:380] Eltwise11 -> Eltwise11
I1013 22:23:58.526487 13701 net.cpp:122] Setting up Eltwise11
I1013 22:23:58.526492 13701 net.cpp:129] Top shape: 50 640 7 7 (1568000)
I1013 22:23:58.526494 13701 net.cpp:137] Memory required for data: 1777955400
I1013 22:23:58.526496 13701 layer_factory.hpp:77] Creating layer BatchNorm21
I1013 22:23:58.526502 13701 net.cpp:84] Creating Layer BatchNorm21
I1013 22:23:58.526504 13701 net.cpp:406] BatchNorm21 <- Eltwise11
I1013 22:23:58.526520 13701 net.cpp:367] BatchNorm21 -> Eltwise11 (in-place)
I1013 22:23:58.526696 13701 net.cpp:122] Setting up BatchNorm21
I1013 22:23:58.526702 13701 net.cpp:129] Top shape: 50 640 7 7 (1568000)
I1013 22:23:58.526705 13701 net.cpp:137] Memory required for data: 1784227400
I1013 22:23:58.526710 13701 layer_factory.hpp:77] Creating layer Scale21
I1013 22:23:58.526715 13701 net.cpp:84] Creating Layer Scale21
I1013 22:23:58.526739 13701 net.cpp:406] Scale21 <- Eltwise11
I1013 22:23:58.526743 13701 net.cpp:367] Scale21 -> Eltwise11 (in-place)
I1013 22:23:58.526789 13701 layer_factory.hpp:77] Creating layer Scale21
I1013 22:23:58.526897 13701 net.cpp:122] Setting up Scale21
I1013 22:23:58.526902 13701 net.cpp:129] Top shape: 50 640 7 7 (1568000)
I1013 22:23:58.526914 13701 net.cpp:137] Memory required for data: 1790499400
I1013 22:23:58.526918 13701 layer_factory.hpp:77] Creating layer penlu21
I1013 22:23:58.526924 13701 net.cpp:84] Creating Layer penlu21
I1013 22:23:58.526927 13701 net.cpp:406] penlu21 <- Eltwise11
I1013 22:23:58.526932 13701 net.cpp:367] penlu21 -> Eltwise11 (in-place)
I1013 22:23:58.527067 13701 net.cpp:122] Setting up penlu21
I1013 22:23:58.527073 13701 net.cpp:129] Top shape: 50 640 7 7 (1568000)
I1013 22:23:58.527076 13701 net.cpp:137] Memory required for data: 1796771400
I1013 22:23:58.527081 13701 layer_factory.hpp:77] Creating layer Eltwise11_penlu21_0_split
I1013 22:23:58.527086 13701 net.cpp:84] Creating Layer Eltwise11_penlu21_0_split
I1013 22:23:58.527088 13701 net.cpp:406] Eltwise11_penlu21_0_split <- Eltwise11
I1013 22:23:58.527091 13701 net.cpp:380] Eltwise11_penlu21_0_split -> Eltwise11_penlu21_0_split_0
I1013 22:23:58.527107 13701 net.cpp:380] Eltwise11_penlu21_0_split -> Eltwise11_penlu21_0_split_1
I1013 22:23:58.527145 13701 net.cpp:122] Setting up Eltwise11_penlu21_0_split
I1013 22:23:58.527150 13701 net.cpp:129] Top shape: 50 640 7 7 (1568000)
I1013 22:23:58.527153 13701 net.cpp:129] Top shape: 50 640 7 7 (1568000)
I1013 22:23:58.527166 13701 net.cpp:137] Memory required for data: 1809315400
I1013 22:23:58.527169 13701 layer_factory.hpp:77] Creating layer Convolution27
I1013 22:23:58.527176 13701 net.cpp:84] Creating Layer Convolution27
I1013 22:23:58.527179 13701 net.cpp:406] Convolution27 <- Eltwise11_penlu21_0_split_0
I1013 22:23:58.527184 13701 net.cpp:380] Convolution27 -> Convolution27
I1013 22:23:58.610561 13701 net.cpp:122] Setting up Convolution27
I1013 22:23:58.610589 13701 net.cpp:129] Top shape: 50 640 7 7 (1568000)
I1013 22:23:58.610592 13701 net.cpp:137] Memory required for data: 1815587400
I1013 22:23:58.610599 13701 layer_factory.hpp:77] Creating layer BatchNorm22
I1013 22:23:58.610620 13701 net.cpp:84] Creating Layer BatchNorm22
I1013 22:23:58.610626 13701 net.cpp:406] BatchNorm22 <- Convolution27
I1013 22:23:58.610646 13701 net.cpp:367] BatchNorm22 -> Convolution27 (in-place)
I1013 22:23:58.610869 13701 net.cpp:122] Setting up BatchNorm22
I1013 22:23:58.610877 13701 net.cpp:129] Top shape: 50 640 7 7 (1568000)
I1013 22:23:58.610879 13701 net.cpp:137] Memory required for data: 1821859400
I1013 22:23:58.610884 13701 layer_factory.hpp:77] Creating layer Scale22
I1013 22:23:58.610891 13701 net.cpp:84] Creating Layer Scale22
I1013 22:23:58.610894 13701 net.cpp:406] Scale22 <- Convolution27
I1013 22:23:58.610908 13701 net.cpp:367] Scale22 -> Convolution27 (in-place)
I1013 22:23:58.610973 13701 layer_factory.hpp:77] Creating layer Scale22
I1013 22:23:58.611104 13701 net.cpp:122] Setting up Scale22
I1013 22:23:58.611109 13701 net.cpp:129] Top shape: 50 640 7 7 (1568000)
I1013 22:23:58.611111 13701 net.cpp:137] Memory required for data: 1828131400
I1013 22:23:58.611126 13701 layer_factory.hpp:77] Creating layer penlu22
I1013 22:23:58.611133 13701 net.cpp:84] Creating Layer penlu22
I1013 22:23:58.611136 13701 net.cpp:406] penlu22 <- Convolution27
I1013 22:23:58.611141 13701 net.cpp:367] penlu22 -> Convolution27 (in-place)
I1013 22:23:58.611310 13701 net.cpp:122] Setting up penlu22
I1013 22:23:58.611315 13701 net.cpp:129] Top shape: 50 640 7 7 (1568000)
I1013 22:23:58.611317 13701 net.cpp:137] Memory required for data: 1834403400
I1013 22:23:58.611322 13701 layer_factory.hpp:77] Creating layer Convolution28
I1013 22:23:58.611330 13701 net.cpp:84] Creating Layer Convolution28
I1013 22:23:58.611332 13701 net.cpp:406] Convolution28 <- Convolution27
I1013 22:23:58.611346 13701 net.cpp:380] Convolution28 -> Convolution28
I1013 22:23:58.694823 13701 net.cpp:122] Setting up Convolution28
I1013 22:23:58.694861 13701 net.cpp:129] Top shape: 50 640 7 7 (1568000)
I1013 22:23:58.694865 13701 net.cpp:137] Memory required for data: 1840675400
I1013 22:23:58.694872 13701 layer_factory.hpp:77] Creating layer Eltwise12
I1013 22:23:58.694891 13701 net.cpp:84] Creating Layer Eltwise12
I1013 22:23:58.694896 13701 net.cpp:406] Eltwise12 <- Convolution28
I1013 22:23:58.694901 13701 net.cpp:406] Eltwise12 <- Eltwise11_penlu21_0_split_1
I1013 22:23:58.694917 13701 net.cpp:380] Eltwise12 -> Eltwise12
I1013 22:23:58.694952 13701 net.cpp:122] Setting up Eltwise12
I1013 22:23:58.694967 13701 net.cpp:129] Top shape: 50 640 7 7 (1568000)
I1013 22:23:58.694969 13701 net.cpp:137] Memory required for data: 1846947400
I1013 22:23:58.694984 13701 layer_factory.hpp:77] Creating layer Pooling1
I1013 22:23:58.694990 13701 net.cpp:84] Creating Layer Pooling1
I1013 22:23:58.694993 13701 net.cpp:406] Pooling1 <- Eltwise12
I1013 22:23:58.694998 13701 net.cpp:380] Pooling1 -> Pooling1
I1013 22:23:58.695585 13701 net.cpp:122] Setting up Pooling1
I1013 22:23:58.695596 13701 net.cpp:129] Top shape: 50 640 1 1 (32000)
I1013 22:23:58.695598 13701 net.cpp:137] Memory required for data: 1847075400
I1013 22:23:58.695601 13701 layer_factory.hpp:77] Creating layer InnerProduct1
I1013 22:23:58.695612 13701 net.cpp:84] Creating Layer InnerProduct1
I1013 22:23:58.695626 13701 net.cpp:406] InnerProduct1 <- Pooling1
I1013 22:23:58.695628 13701 net.cpp:380] InnerProduct1 -> InnerProduct1
I1013 22:23:58.695806 13701 net.cpp:122] Setting up InnerProduct1
I1013 22:23:58.695812 13701 net.cpp:129] Top shape: 50 100 (5000)
I1013 22:23:58.695814 13701 net.cpp:137] Memory required for data: 1847095400
I1013 22:23:58.695818 13701 layer_factory.hpp:77] Creating layer SoftmaxWithLoss1
I1013 22:23:58.695823 13701 net.cpp:84] Creating Layer SoftmaxWithLoss1
I1013 22:23:58.695825 13701 net.cpp:406] SoftmaxWithLoss1 <- InnerProduct1
I1013 22:23:58.695828 13701 net.cpp:406] SoftmaxWithLoss1 <- label
I1013 22:23:58.695842 13701 net.cpp:380] SoftmaxWithLoss1 -> SoftmaxWithLoss1
…
I1013 22:23:58.698629 13701 net.cpp:294] The NetState phase (1) differed from the phase (0) specified by a rule in layer cifar
I1013 22:23:58.699106 13701 net.cpp:51] Initializing net from parameters: 
name: "wrn_28_10"
state {
  phase: TEST
}
layer {
  name: "cifar"
  type: "Data"
  top: "data"
  top: "label"
  include {
    phase: TEST
  }
  transform_param {
    mirror: false
    crop_size: 28
    mean_file: "/home/x306/caffe/xn/PENLU/data/cifar100/mean.binaryproto"
  }
  data_param {
    source: "/home/x306/caffe/xn/PENLU/data/cifar100/cifar100_test_lmdb"
    batch_size: 50
    backend: LMDB
  }
}
layer {
  name: "Convolution1"
  type: "Convolution"
  bottom: "data"
  top: "Convolution1"
  convolution_param {
    num_output: 16
    pad: 1
    kernel_size: 3
    stride: 1
    weight_filler {
      type: "msra"
    }
  }
}
layer {
  name: "BatchNorm1"
  type: "BatchNorm"
  bottom: "Convolution1"
  top: "Convolution1"
  param {
    lr_mult: 0
    decay_mult: 0
  }
  param {
    lr_mult: 0
    decay_mult: 0
  }
  param {
    lr_mult: 0
    decay_mult: 0
  }
  batch_norm_param {
    use_global_stats: false
  }
}
layer {
  name: "Scale1"
  type: "Scale"
  bottom: "Convolution1"
  top: "Convolution1"
  scale_param {
    bias_term: true
  }
}
layer {
  name: "penlu1"
  type: "PENLU"
  bottom: "Convolution1"
  top: "Convolution1"
  param {
    lr_mult: 2
    decay_mult: 2
  }
  param {
    lr_mult: 2
    decay_mult: 2
  }
  param {
    lr_mult: 0
    decay_mult: 0
  }
  penlu_param {
    alpha_filler {
      type: "constant"
      value: 1
    }
    beta_filler {
      type: "constant"
      value: 1
    }
    eta_filler {
      type: "constant"
      value: 1
    }
  }
}
layer {
  name: "Convolution2"
  type: "Convolution"
  bottom: "Convolution1"
  top: "Convolution2"
  convolution_param {
    num_output: 160
    bias_term: false
    pad: 1
    kernel_size: 3
    stride: 1
    weight_filler {
      type: "msra"
    }
  }
}
layer {
  name: "BatchNorm2"
  type: "BatchNorm"
  bottom: "Convolution2"
  top: "Convolution2"
  param {
    lr_mult: 0
    decay_mult: 0
  }
  param {
    lr_mult: 0
    decay_mult: 0
  }
  param {
    lr_mult: 0
    decay_mult: 0
  }
  batch_norm_param {
    use_global_stats: false
  }
}
layer {
  name: "Scale2"
  type: "Scale"
  bottom: "Convolution2"
  top: "Convolution2"
  scale_param {
    bias_term: true
  }
}
layer {
  name: "penlu2"
  type: "PENLU"
  bottom: "Convolution2"
  top: "Convolution2"
  param {
    lr_mult: 2
    decay_mult: 2
  }
  param {
    lr_mult: 2
    decay_mult: 2
  }
  param {
    lr_mult: 0
    decay_mult: 0
  }
  penlu_param {
    alpha_filler {
      type: "constant"
      value: 1
    }
    beta_filler {
      type: "constant"
      value: 1
    }
    eta_filler {
      type: "constant"
      value: 1
    }
  }
}
layer {
  name: "Convolution3"
  type: "Convolution"
  bottom: "Convolution2"
  top: "Convolution3"
  convolution_param {
    num_output: 160
    bias_term: false
    pad: 1
    kernel_size: 3
    stride: 1
    weight_filler {
      type: "msra"
    }
  }
}
layer {
  name: "Convolution4"
  type: "Convolution"
  bottom: "Convolution1"
  top: "Convolution4"
  convolution_param {
    num_output: 160
    bias_term: false
    pad: 0
    kernel_size: 1
    stride: 1
    weight_filler {
      type: "msra"
    }
  }
}
layer {
  name: "Eltwise1"
  type: "Eltwise"
  bottom: "Convolution3"
  bottom: "Convolution4"
  top: "Eltwise1"
  eltwise_param {
    operation: SUM
  }
}
layer {
  name: "BatchNorm3"
  type: "BatchNorm"
  bottom: "Eltwise1"
  top: "Eltwise1"
  param {
    lr_mult: 0
    decay_mult: 0
  }
  param {
    lr_mult: 0
    decay_mult: 0
  }
  param {
    lr_mult: 0
    decay_mult: 0
  }
  batch_norm_param {
    use_global_stats: false
  }
}
layer {
  name: "Scale3"
  type: "Scale"
  bottom: "Eltwise1"
  top: "Eltwise1"
  scale_param {
    bias_term: true
  }
}
layer {
  name: "penlu3"
  type: "PENLU"
  bottom: "Eltwise1"
  top: "Eltwise1"
  param {
    lr_mult: 2
    decay_mult: 2
  }
  param {
    lr_mult: 2
    decay_mult: 2
  }
  param {
    lr_mult: 0
    decay_mult: 0
  }
  penlu_param {
    alpha_filler {
      type: "constant"
      value: 1
    }
    beta_filler {
      type: "constant"
      value: 1
    }
    eta_filler {
      type: "constant"
      value: 1
    }
  }
}
layer {
  name: "Convolution5"
  type: "Convolution"
  bottom: "Eltwise1"
  top: "Convolution5"
  convolution_param {
    num_output: 160
    bias_term: false
    pad: 1
    kernel_size: 3
    stride: 1
    weight_filler {
      type: "msra"
    }
  }
}
layer {
  name: "BatchNorm4"
  type: "BatchNorm"
  bottom: "Convolution5"
  top: "Convolution5"
  param {
    lr_mult: 0
    decay_mult: 0
  }
  param {
    lr_mult: 0
    decay_mult: 0
  }
  param {
    lr_mult: 0
    decay_mult: 0
  }
  batch_norm_param {
    use_global_stats: false
  }
}
layer {
  name: "Scale4"
  type: "Scale"
  bottom: "Convolution5"
  top: "Convolution5"
  scale_param {
    bias_term: true
  }
}
layer {
  name: "penlu4"
  type: "PENLU"
  bottom: "Convolution5"
  top: "Convolution5"
  param {
    lr_mult: 2
    decay_mult: 2
  }
  param {
    lr_mult: 2
    decay_mult: 2
  }
  param {
    lr_mult: 0
    decay_mult: 0
  }
  penlu_param {
    alpha_filler {
      type: "constant"
      value: 1
    }
    beta_filler {
      type: "constant"
      value: 1
    }
    eta_filler {
      type: "constant"
      value: 1
    }
  }
}
layer {
  name: "Convolution6"
  type: "Convolution"
  bottom: "Convolution5"
  top: "Convolution6"
  convolution_param {
    num_output: 160
    bias_term: false
    pad: 1
    kernel_size: 3
    stride: 1
    weight_filler {
      type: "msra"
    }
  }
}
layer {
  name: "Eltwise2"
  type: "Eltwise"
  bottom: "Convolution6"
  bottom: "Eltwise1"
  top: "Eltwise2"
  eltwise_param {
    operation: SUM
  }
}
layer {
  name: "BatchNorm5"
  type: "BatchNorm"
  bottom: "Eltwise2"
  top: "Eltwise2"
  param {
    lr_mult: 0
    decay_mult: 0
  }
  param {
    lr_mult: 0
    decay_mult: 0
  }
  param {
    lr_mult: 0
    decay_mult: 0
  }
  batch_norm_param {
    use_global_stats: false
  }
}
layer {
  name: "Scale5"
  type: "Scale"
  bottom: "Eltwise2"
  top: "Eltwise2"
  scale_param {
    bias_term: true
  }
}
layer {
  name: "penlu5"
  type: "PENLU"
  bottom: "Eltwise2"
  top: "Eltwise2"
  param {
    lr_mult: 2
    decay_mult: 2
  }
  param {
    lr_mult: 2
    decay_mult: 2
  }
  param {
    lr_mult: 0
    decay_mult: 0
  }
  penlu_param {
    alpha_filler {
      type: "constant"
      value: 1
    }
    beta_filler {
      type: "constant"
      value: 1
    }
    eta_filler {
      type: "constant"
      value: 1
    }
  }
}
layer {
  name: "Convolution7"
  type: "Convolution"
  bottom: "Eltwise2"
  top: "Convolution7"
  convolution_param {
    num_output: 160
    bias_term: false
    pad: 1
    kernel_size: 3
    stride: 1
    weight_filler {
      type: "msra"
    }
  }
}
layer {
  name: "BatchNorm6"
  type: "BatchNorm"
  bottom: "Convolution7"
  top: "Convolution7"
  param {
    lr_mult: 0
    decay_mult: 0
  }
  param {
    lr_mult: 0
    decay_mult: 0
  }
  param {
    lr_mult: 0
    decay_mult: 0
  }
  batch_norm_param {
    use_global_stats: false
  }
}
layer {
  name: "Scale6"
  type: "Scale"
  bottom: "Convolution7"
  top: "Convolution7"
  scale_param {
    bias_term: true
  }
}
layer {
  name: "penlu6"
  type: "PENLU"
  bottom: "Convolution7"
  top: "Convolution7"
  param {
    lr_mult: 2
    decay_mult: 2
  }
  param {
    lr_mult: 2
    decay_mult: 2
  }
  param {
    lr_mult: 0
    decay_mult: 0
  }
  penlu_param {
    alpha_filler {
      type: "constant"
      value: 1
    }
    beta_filler {
      type: "constant"
      value: 1
    }
    eta_filler {
      type: "constant"
      value: 1
    }
  }
}
layer {
  name: "Convolution8"
  type: "Convolution"
  bottom: "Convolution7"
  top: "Convolution8"
  convolution_param {
    num_output: 160
    bias_term: false
    pad: 1
    kernel_size: 3
    stride: 1
    weight_filler {
      type: "msra"
    }
  }
}
layer {
  name: "Eltwise3"
  type: "Eltwise"
  bottom: "Convolution8"
  bottom: "Eltwise2"
  top: "Eltwise3"
  eltwise_param {
    operation: SUM
  }
}
layer {
  name: "BatchNorm7"
  type: "BatchNorm"
  bottom: "Eltwise3"
  top: "Eltwise3"
  param {
    lr_mult: 0
    decay_mult: 0
  }
  param {
    lr_mult: 0
    decay_mult: 0
  }
  param {
    lr_mult: 0
    decay_mult: 0
  }
  batch_norm_param {
    use_global_stats: false
  }
}
layer {
  name: "Scale7"
  type: "Scale"
  bottom: "Eltwise3"
  top: "Eltwise3"
  scale_param {
    bias_term: true
  }
}
layer {
  name: "penlu7"
  type: "PENLU"
  bottom: "Eltwise3"
  top: "Eltwise3"
  param {
    lr_mult: 2
    decay_mult: 2
  }
  param {
    lr_mult: 2
    decay_mult: 2
  }
  param {
    lr_mult: 0
    decay_mult: 0
  }
  penlu_param {
    alpha_filler {
      type: "constant"
      value: 1
    }
    beta_filler {
      type: "constant"
      value: 1
    }
    eta_filler {
      type: "constant"
      value: 1
    }
  }
}
layer {
  name: "Convolution9"
  type: "Convolution"
  bottom: "Eltwise3"
  top: "Convolution9"
  convolution_param {
    num_output: 160
    bias_term: false
    pad: 1
    kernel_size: 3
    stride: 1
    weight_filler {
      type: "msra"
    }
  }
}
layer {
  name: "BatchNorm8"
  type: "BatchNorm"
  bottom: "Convolution9"
  top: "Convolution9"
  param {
    lr_mult: 0
    decay_mult: 0
  }
  param {
    lr_mult: 0
    decay_mult: 0
  }
  param {
    lr_mult: 0
    decay_mult: 0
  }
  batch_norm_param {
    use_global_stats: false
  }
}
layer {
  name: "Scale8"
  type: "Scale"
  bottom: "Convolution9"
  top: "Convolution9"
  scale_param {
    bias_term: true
  }
}
layer {
  name: "penlu8"
  type: "PENLU"
  bottom: "Convolution9"
  top: "Convolution9"
  param {
    lr_mult: 2
    decay_mult: 2
  }
  param {
    lr_mult: 2
    decay_mult: 2
  }
  param {
    lr_mult: 0
    decay_mult: 0
  }
  penlu_param {
    alpha_filler {
      type: "constant"
      value: 1
    }
    beta_filler {
      type: "constant"
      value: 1
    }
    eta_filler {
      type: "constant"
      value: 1
    }
  }
}
layer {
  name: "Convolution10"
  type: "Convolution"
  bottom: "Convolution9"
  top: "Convolution10"
  convolution_param {
    num_output: 160
    bias_term: false
    pad: 1
    kernel_size: 3
    stride: 1
    weight_filler {
      type: "msra"
    }
  }
}
layer {
  name: "Eltwise4"
  type: "Eltwise"
  bottom: "Convolution10"
  bottom: "Eltwise3"
  top: "Eltwise4"
  eltwise_param {
    operation: SUM
  }
}
layer {
  name: "Convolution11"
  type: "Convolution"
  bottom: "Eltwise4"
  top: "Convolution11"
  convolution_param {
    num_output: 320
    bias_term: false
    pad: 1
    kernel_size: 3
    stride: 2
    weight_filler {
      type: "msra"
    }
  }
}
layer {
  name: "BatchNorm9"
  type: "BatchNorm"
  bottom: "Convolution11"
  top: "Convolution11"
  param {
    lr_mult: 0
    decay_mult: 0
  }
  param {
    lr_mult: 0
    decay_mult: 0
  }
  param {
    lr_mult: 0
    decay_mult: 0
  }
  batch_norm_param {
    use_global_stats: false
  }
}
layer {
  name: "Scale9"
  type: "Scale"
  bottom: "Convolution11"
  top: "Convolution11"
  scale_param {
    bias_term: true
  }
}
layer {
  name: "penlu9"
  type: "PENLU"
  bottom: "Convolution11"
  top: "Convolution11"
  param {
    lr_mult: 2
    decay_mult: 2
  }
  param {
    lr_mult: 2
    decay_mult: 2
  }
  param {
    lr_mult: 0
    decay_mult: 0
  }
  penlu_param {
    alpha_filler {
      type: "constant"
      value: 1
    }
    beta_filler {
      type: "constant"
      value: 1
    }
    eta_filler {
      type: "constant"
      value: 1
    }
  }
}
layer {
  name: "Convolution12"
  type: "Convolution"
  bottom: "Convolution11"
  top: "Convolution12"
  convolution_param {
    num_output: 320
    bias_term: false
    pad: 1
    kernel_size: 3
    stride: 1
    weight_filler {
      type: "msra"
    }
  }
}
layer {
  name: "Convolution13"
  type: "Convolution"
  bottom: "Eltwise4"
  top: "Convolution13"
  convolution_param {
    num_output: 320
    bias_term: false
    pad: 0
    kernel_size: 1
    stride: 2
    weight_filler {
      type: "msra"
    }
  }
}
layer {
  name: "Eltwise5"
  type: "Eltwise"
  bottom: "Convolution12"
  bottom: "Convolution13"
  top: "Eltwise5"
  eltwise_param {
    operation: SUM
  }
}
layer {
  name: "BatchNorm10"
  type: "BatchNorm"
  bottom: "Eltwise5"
  top: "Eltwise5"
  param {
    lr_mult: 0
    decay_mult: 0
  }
  param {
    lr_mult: 0
    decay_mult: 0
  }
  param {
    lr_mult: 0
    decay_mult: 0
  }
  batch_norm_param {
    use_global_stats: false
  }
}
layer {
  name: "Scale10"
  type: "Scale"
  bottom: "Eltwise5"
  top: "Eltwise5"
  scale_param {
    bias_term: true
  }
}
layer {
  name: "penlu10"
  type: "PENLU"
  bottom: "Eltwise5"
  top: "Eltwise5"
  param {
    lr_mult: 2
    decay_mult: 2
  }
  param {
    lr_mult: 2
    decay_mult: 2
  }
  param {
    lr_mult: 0
    decay_mult: 0
  }
  penlu_param {
    alpha_filler {
      type: "constant"
      value: 1
    }
    beta_filler {
      type: "constant"
      value: 1
    }
    eta_filler {
      type: "constant"
      value: 1
    }
  }
}
layer {
  name: "Convolution14"
  type: "Convolution"
  bottom: "Eltwise5"
  top: "Convolution14"
  convolution_param {
    num_output: 320
    bias_term: false
    pad: 1
    kernel_size: 3
    stride: 1
    weight_filler {
      type: "msra"
    }
  }
}
layer {
  name: "BatchNorm11"
  type: "BatchNorm"
  bottom: "Convolution14"
  top: "Convolution14"
  param {
    lr_mult: 0
    decay_mult: 0
  }
  param {
    lr_mult: 0
    decay_mult: 0
  }
  param {
    lr_mult: 0
    decay_mult: 0
  }
  batch_norm_param {
    use_global_stats: false
  }
}
layer {
  name: "Scale11"
  type: "Scale"
  bottom: "Convolution14"
  top: "Convolution14"
  scale_param {
    bias_term: true
  }
}
layer {
  name: "penlu11"
  type: "PENLU"
  bottom: "Convolution14"
  top: "Convolution14"
  param {
    lr_mult: 2
    decay_mult: 2
  }
  param {
    lr_mult: 2
    decay_mult: 2
  }
  param {
    lr_mult: 0
    decay_mult: 0
  }
  penlu_param {
    alpha_filler {
      type: "constant"
      value: 1
    }
    beta_filler {
      type: "constant"
      value: 1
    }
    eta_filler {
      type: "constant"
      value: 1
    }
  }
}
layer {
  name: "Convolution15"
  type: "Convolution"
  bottom: "Convolution14"
  top: "Convolution15"
  convolution_param {
    num_output: 320
    bias_term: false
    pad: 1
    kernel_size: 3
    stride: 1
    weight_filler {
      type: "msra"
    }
  }
}
layer {
  name: "Eltwise6"
  type: "Eltwise"
  bottom: "Convolution15"
  bottom: "Eltwise5"
  top: "Eltwise6"
  eltwise_param {
    operation: SUM
  }
}
layer {
  name: "BatchNorm12"
  type: "BatchNorm"
  bottom: "Eltwise6"
  top: "Eltwise6"
  param {
    lr_mult: 0
    decay_mult: 0
  }
  param {
    lr_mult: 0
    decay_mult: 0
  }
  param {
    lr_mult: 0
    decay_mult: 0
  }
  batch_norm_param {
    use_global_stats: false
  }
}
layer {
  name: "Scale12"
  type: "Scale"
  bottom: "Eltwise6"
  top: "Eltwise6"
  scale_param {
    bias_term: true
  }
}
layer {
  name: "penlu12"
  type: "PENLU"
  bottom: "Eltwise6"
  top: "Eltwise6"
  param {
    lr_mult: 2
    decay_mult: 2
  }
  param {
    lr_mult: 2
    decay_mult: 2
  }
  param {
    lr_mult: 0
    decay_mult: 0
  }
  penlu_param {
    alpha_filler {
      type: "constant"
      value: 1
    }
    beta_filler {
      type: "constant"
      value: 1
    }
    eta_filler {
      type: "constant"
      value: 1
    }
  }
}
layer {
  name: "Convolution16"
  type: "Convolution"
  bottom: "Eltwise6"
  top: "Convolution16"
  convolution_param {
    num_output: 320
    bias_term: false
    pad: 1
    kernel_size: 3
    stride: 1
    weight_filler {
      type: "msra"
    }
  }
}
layer {
  name: "BatchNorm13"
  type: "BatchNorm"
  bottom: "Convolution16"
  top: "Convolution16"
  param {
    lr_mult: 0
    decay_mult: 0
  }
  param {
    lr_mult: 0
    decay_mult: 0
  }
  param {
    lr_mult: 0
    decay_mult: 0
  }
  batch_norm_param {
    use_global_stats: false
  }
}
layer {
  name: "Scale13"
  type: "Scale"
  bottom: "Convolution16"
  top: "Convolution16"
  scale_param {
    bias_term: true
  }
}
layer {
  name: "penlu13"
  type: "PENLU"
  bottom: "Convolution16"
  top: "Convolution16"
  param {
    lr_mult: 2
    decay_mult: 2
  }
  param {
    lr_mult: 2
    decay_mult: 2
  }
  param {
    lr_mult: 0
    decay_mult: 0
  }
  penlu_param {
    alpha_filler {
      type: "constant"
      value: 1
    }
    beta_filler {
      type: "constant"
      value: 1
    }
    eta_filler {
      type: "constant"
      value: 1
    }
  }
}
layer {
  name: "Convolution17"
  type: "Convolution"
  bottom: "Convolution16"
  top: "Convolution17"
  convolution_param {
    num_output: 320
    bias_term: false
    pad: 1
    kernel_size: 3
    stride: 1
    weight_filler {
      type: "msra"
    }
  }
}
layer {
  name: "Eltwise7"
  type: "Eltwise"
  bottom: "Convolution17"
  bottom: "Eltwise6"
  top: "Eltwise7"
  eltwise_param {
    operation: SUM
  }
}
layer {
  name: "BatchNorm14"
  type: "BatchNorm"
  bottom: "Eltwise7"
  top: "Eltwise7"
  param {
    lr_mult: 0
    decay_mult: 0
  }
  param {
    lr_mult: 0
    decay_mult: 0
  }
  param {
    lr_mult: 0
    decay_mult: 0
  }
  batch_norm_param {
    use_global_stats: false
  }
}
layer {
  name: "Scale14"
  type: "Scale"
  bottom: "Eltwise7"
  top: "Eltwise7"
  scale_param {
    bias_term: true
  }
}
layer {
  name: "penlu14"
  type: "PENLU"
  bottom: "Eltwise7"
  top: "Eltwise7"
  param {
    lr_mult: 2
    decay_mult: 2
  }
  param {
    lr_mult: 2
    decay_mult: 2
  }
  param {
    lr_mult: 0
    decay_mult: 0
  }
  penlu_param {
    alpha_filler {
      type: "constant"
      value: 1
    }
    beta_filler {
      type: "constant"
      value: 1
    }
    eta_filler {
      type: "constant"
      value: 1
    }
  }
}
layer {
  name: "Convolution18"
  type: "Convolution"
  bottom: "Eltwise7"
  top: "Convolution18"
  convolution_param {
    num_output: 320
    bias_term: false
    pad: 1
    kernel_size: 3
    stride: 1
    weight_filler {
      type: "msra"
    }
  }
}
layer {
  name: "BatchNorm15"
  type: "BatchNorm"
  bottom: "Convolution18"
  top: "Convolution18"
  param {
    lr_mult: 0
    decay_mult: 0
  }
  param {
    lr_mult: 0
    decay_mult: 0
  }
  param {
    lr_mult: 0
    decay_mult: 0
  }
  batch_norm_param {
    use_global_stats: false
  }
}
layer {
  name: "Scale15"
  type: "Scale"
  bottom: "Convolution18"
  top: "Convolution18"
  scale_param {
    bias_term: true
  }
}
layer {
  name: "penlu15"
  type: "PENLU"
  bottom: "Convolution18"
  top: "Convolution18"
  param {
    lr_mult: 2
    decay_mult: 2
  }
  param {
    lr_mult: 2
    decay_mult: 2
  }
  param {
    lr_mult: 0
    decay_mult: 0
  }
  penlu_param {
    alpha_filler {
      type: "constant"
      value: 1
    }
    beta_filler {
      type: "constant"
      value: 1
    }
    eta_filler {
      type: "constant"
      value: 1
    }
  }
}
layer {
  name: "Convolution19"
  type: "Convolution"
  bottom: "Convolution18"
  top: "Convolution19"
  convolution_param {
    num_output: 320
    bias_term: false
    pad: 1
    kernel_size: 3
    stride: 1
    weight_filler {
      type: "msra"
    }
  }
}
layer {
  name: "Eltwise8"
  type: "Eltwise"
  bottom: "Convolution19"
  bottom: "Eltwise7"
  top: "Eltwise8"
  eltwise_param {
    operation: SUM
  }
}
layer {
  name: "Convolution20"
  type: "Convolution"
  bottom: "Eltwise8"
  top: "Convolution20"
  convolution_param {
    num_output: 640
    bias_term: false
    pad: 1
    kernel_size: 3
    stride: 2
    weight_filler {
      type: "msra"
    }
  }
}
layer {
  name: "BatchNorm16"
  type: "BatchNorm"
  bottom: "Convolution20"
  top: "Convolution20"
  param {
    lr_mult: 0
    decay_mult: 0
  }
  param {
    lr_mult: 0
    decay_mult: 0
  }
  param {
    lr_mult: 0
    decay_mult: 0
  }
  batch_norm_param {
    use_global_stats: false
  }
}
layer {
  name: "Scale16"
  type: "Scale"
  bottom: "Convolution20"
  top: "Convolution20"
  scale_param {
    bias_term: true
  }
}
layer {
  name: "penlu16"
  type: "PENLU"
  bottom: "Convolution20"
  top: "Convolution20"
  param {
    lr_mult: 2
    decay_mult: 2
  }
  param {
    lr_mult: 2
    decay_mult: 2
  }
  param {
    lr_mult: 0
    decay_mult: 0
  }
  penlu_param {
    alpha_filler {
      type: "constant"
      value: 1
    }
    beta_filler {
      type: "constant"
      value: 1
    }
    eta_filler {
      type: "constant"
      value: 1
    }
  }
}
layer {
  name: "Convolution21"
  type: "Convolution"
  bottom: "Convolution20"
  top: "Convolution21"
  convolution_param {
    num_output: 640
    bias_term: false
    pad: 1
    kernel_size: 3
    stride: 1
    weight_filler {
      type: "msra"
    }
  }
}
layer {
  name: "Convolution22"
  type: "Convolution"
  bottom: "Eltwise8"
  top: "Convolution22"
  convolution_param {
    num_output: 640
    bias_term: false
    pad: 0
    kernel_size: 1
    stride: 2
    weight_filler {
      type: "msra"
    }
  }
}
layer {
  name: "Eltwise9"
  type: "Eltwise"
  bottom: "Convolution21"
  bottom: "Convolution22"
  top: "Eltwise9"
  eltwise_param {
    operation: SUM
  }
}
layer {
  name: "BatchNorm17"
  type: "BatchNorm"
  bottom: "Eltwise9"
  top: "Eltwise9"
  param {
    lr_mult: 0
    decay_mult: 0
  }
  param {
    lr_mult: 0
    decay_mult: 0
  }
  param {
    lr_mult: 0
    decay_mult: 0
  }
  batch_norm_param {
    use_global_stats: false
  }
}
layer {
  name: "Scale17"
  type: "Scale"
  bottom: "Eltwise9"
  top: "Eltwise9"
  scale_param {
    bias_term: true
  }
}
layer {
  name: "penlu17"
  type: "PENLU"
  bottom: "Eltwise9"
  top: "Eltwise9"
  param {
    lr_mult: 2
    decay_mult: 2
  }
  param {
    lr_mult: 2
    decay_mult: 2
  }
  param {
    lr_mult: 0
    decay_mult: 0
  }
  penlu_param {
    alpha_filler {
      type: "constant"
      value: 1
    }
    beta_filler {
      type: "constant"
      value: 1
    }
    eta_filler {
      type: "constant"
      value: 1
    }
  }
}
layer {
  name: "Convolution23"
  type: "Convolution"
  bottom: "Eltwise9"
  top: "Convolution23"
  convolution_param {
    num_output: 640
    bias_term: false
    pad: 1
    kernel_size: 3
    stride: 1
    weight_filler {
      type: "msra"
    }
  }
}
layer {
  name: "BatchNorm18"
  type: "BatchNorm"
  bottom: "Convolution23"
  top: "Convolution23"
  param {
    lr_mult: 0
    decay_mult: 0
  }
  param {
    lr_mult: 0
    decay_mult: 0
  }
  param {
    lr_mult: 0
    decay_mult: 0
  }
  batch_norm_param {
    use_global_stats: false
  }
}
layer {
  name: "Scale18"
  type: "Scale"
  bottom: "Convolution23"
  top: "Convolution23"
  scale_param {
    bias_term: true
  }
}
layer {
  name: "penlu18"
  type: "PENLU"
  bottom: "Convolution23"
  top: "Convolution23"
  param {
    lr_mult: 2
    decay_mult: 2
  }
  param {
    lr_mult: 2
    decay_mult: 2
  }
  param {
    lr_mult: 0
    decay_mult: 0
  }
  penlu_param {
    alpha_filler {
      type: "constant"
      value: 1
    }
    beta_filler {
      type: "constant"
      value: 1
    }
    eta_filler {
      type: "constant"
      value: 1
    }
  }
}
layer {
  name: "Convolution24"
  type: "Convolution"
  bottom: "Convolution23"
  top: "Convolution24"
  convolution_param {
    num_output: 640
    bias_term: false
    pad: 1
    kernel_size: 3
    stride: 1
    weight_filler {
      type: "msra"
    }
  }
}
layer {
  name: "Eltwise10"
  type: "Eltwise"
  bottom: "Convolution24"
  bottom: "Eltwise9"
  top: "Eltwise10"
  eltwise_param {
    operation: SUM
  }
}
layer {
  name: "BatchNorm19"
  type: "BatchNorm"
  bottom: "Eltwise10"
  top: "Eltwise10"
  param {
    lr_mult: 0
    decay_mult: 0
  }
  param {
    lr_mult: 0
    decay_mult: 0
  }
  param {
    lr_mult: 0
    decay_mult: 0
  }
  batch_norm_param {
    use_global_stats: false
  }
}
layer {
  name: "Scale19"
  type: "Scale"
  bottom: "Eltwise10"
  top: "Eltwise10"
  scale_param {
    bias_term: true
  }
}
layer {
  name: "penlu19"
  type: "PENLU"
  bottom: "Eltwise10"
  top: "Eltwise10"
  param {
    lr_mult: 2
    decay_mult: 2
  }
  param {
    lr_mult: 2
    decay_mult: 2
  }
  param {
    lr_mult: 0
    decay_mult: 0
  }
  penlu_param {
    alpha_filler {
      type: "constant"
      value: 1
    }
    beta_filler {
      type: "constant"
      value: 1
    }
    eta_filler {
      type: "constant"
      value: 1
    }
  }
}
layer {
  name: "Convolution25"
  type: "Convolution"
  bottom: "Eltwise10"
  top: "Convolution25"
  convolution_param {
    num_output: 640
    bias_term: false
    pad: 1
    kernel_size: 3
    stride: 1
    weight_filler {
      type: "msra"
    }
  }
}
layer {
  name: "BatchNorm20"
  type: "BatchNorm"
  bottom: "Convolution25"
  top: "Convolution25"
  param {
    lr_mult: 0
    decay_mult: 0
  }
  param {
    lr_mult: 0
    decay_mult: 0
  }
  param {
    lr_mult: 0
    decay_mult: 0
  }
  batch_norm_param {
    use_global_stats: false
  }
}
layer {
  name: "Scale20"
  type: "Scale"
  bottom: "Convolution25"
  top: "Convolution25"
  scale_param {
    bias_term: true
  }
}
layer {
  name: "penlu20"
  type: "PENLU"
  bottom: "Convolution25"
  top: "Convolution25"
  param {
    lr_mult: 2
    decay_mult: 2
  }
  param {
    lr_mult: 2
    decay_mult: 2
  }
  param {
    lr_mult: 0
    decay_mult: 0
  }
  penlu_param {
    alpha_filler {
      type: "constant"
      value: 1
    }
    beta_filler {
      type: "constant"
      value: 1
    }
    eta_filler {
      type: "constant"
      value: 1
    }
  }
}
layer {
  name: "Convolution26"
  type: "Convolution"
  bottom: "Convolution25"
  top: "Convolution26"
  convolution_param {
    num_output: 640
    bias_term: false
    pad: 1
    kernel_size: 3
    stride: 1
    weight_filler {
      type: "msra"
    }
  }
}
layer {
  name: "Eltwise11"
  type: "Eltwise"
  bottom: "Convolution26"
  bottom: "Eltwise10"
  top: "Eltwise11"
  eltwise_param {
    operation: SUM
  }
}
layer {
  name: "BatchNorm21"
  type: "BatchNorm"
  bottom: "Eltwise11"
  top: "Eltwise11"
  param {
    lr_mult: 0
    decay_mult: 0
  }
  param {
    lr_mult: 0
    decay_mult: 0
  }
  param {
    lr_mult: 0
    decay_mult: 0
  }
  batch_norm_param {
    use_global_stats: false
  }
}
layer {
  name: "Scale21"
  type: "Scale"
  bottom: "Eltwise11"
  top: "Eltwise11"
  scale_param {
    bias_term: true
  }
}
layer {
  name: "penlu21"
  type: "PENLU"
  bottom: "Eltwise11"
  top: "Eltwise11"
  param {
    lr_mult: 2
    decay_mult: 2
  }
  param {
    lr_mult: 2
    decay_mult: 2
  }
  param {
    lr_mult: 0
    decay_mult: 0
  }
  penlu_param {
    alpha_filler {
      type: "constant"
      value: 1
    }
    beta_filler {
      type: "constant"
      value: 1
    }
    eta_filler {
      type: "constant"
      value: 1
    }
  }
}
layer {
  name: "Convolution27"
  type: "Convolution"
  bottom: "Eltwise11"
  top: "Convolution27"
  convolution_param {
    num_output: 640
    bias_term: false
    pad: 1
    kernel_size: 3
    stride: 1
    weight_filler {
      type: "msra"
    }
  }
}
layer {
  name: "BatchNorm22"
  type: "BatchNorm"
  bottom: "Convolution27"
  top: "Convolution27"
  param {
    lr_mult: 0
    decay_mult: 0
  }
  param {
    lr_mult: 0
    decay_mult: 0
  }
  param {
    lr_mult: 0
    decay_mult: 0
  }
  batch_norm_param {
    use_global_stats: false
  }
}
layer {
  name: "Scale22"
  type: "Scale"
  bottom: "Convolution27"
  top: "Convolution27"
  scale_param {
    bias_term: true
  }
}
layer {
  name: "penlu22"
  type: "PENLU"
  bottom: "Convolution27"
  top: "Convolution27"
  param {
    lr_mult: 2
    decay_mult: 2
  }
  param {
    lr_mult: 2
    decay_mult: 2
  }
  param {
    lr_mult: 0
    decay_mult: 0
  }
  penlu_param {
    alpha_filler {
      type: "constant"
      value: 1
    }
    beta_filler {
      type: "constant"
      value: 1
    }
    eta_filler {
      type: "constant"
      value: 1
    }
  }
}
layer {
  name: "Convolution28"
  type: "Convolution"
  bottom: "Convolution27"
  top: "Convolution28"
  convolution_param {
    num_output: 640
    bias_term: false
    pad: 1
    kernel_size: 3
    stride: 1
    weight_filler {
      type: "msra"
    }
  }
}
layer {
  name: "Eltwise12"
  type: "Eltwise"
  bottom: "Convolution28"
  bottom: "Eltwise11"
  top: "Eltwise12"
  eltwise_param {
    operation: SUM
  }
}
layer {
  name: "Pooling1"
  type: "Pooling"
  bottom: "Eltwise12"
  top: "Pooling1"
  pooling_param {
    pool: AVE
    global_pooling: true
  }
}
layer {
  name: "InnerProduct1"
  type: "InnerProduct"
  bottom: "Pooling1"
  top: "InnerProduct1"
  inner_product_param {
    num_output: 100
  }
}
layer {
  name: "SoftmaxWithLoss1"
  type: "SoftmaxWithLoss"
  bottom: "InnerProduct1"
  bottom: "label"
  top: "SoftmaxWithLoss1"
}
layer {
  name: "accuracy"
  type: "Accuracy"
  bottom: "InnerProduct1"
  bottom: "label"
  top: "accuracy"
  include {
    phase: TEST
  }
}
I1013 22:23:58.699434 13701 layer_factory.hpp:77] Creating layer cifar
I1013 22:23:58.699482 13701 db_lmdb.cpp:35] Opened lmdb /home/x306/caffe/xn/PENLU/data/cifar100/cifar100_test_lmdb
I1013 22:23:58.699493 13701 net.cpp:84] Creating Layer cifar
I1013 22:23:58.699506 13701 net.cpp:380] cifar -> data
I1013 22:23:58.699513 13701 net.cpp:380] cifar -> label
I1013 22:23:58.699518 13701 data_transformer.cpp:25] Loading mean file from: /home/x306/caffe/xn/PENLU/data/cifar100/mean.binaryproto
I1013 22:23:58.699645 13701 data_layer.cpp:45] output data size: 50,3,28,28
I1013 22:23:58.700275 13701 net.cpp:122] Setting up cifar
I1013 22:23:58.700283 13701 net.cpp:129] Top shape: 50 3 28 28 (117600)
I1013 22:23:58.700286 13701 net.cpp:129] Top shape: 50 (50)
I1013 22:23:58.700289 13701 net.cpp:137] Memory required for data: 470600
I1013 22:23:58.700290 13701 layer_factory.hpp:77] Creating layer label_cifar_1_split
I1013 22:23:58.700296 13701 net.cpp:84] Creating Layer label_cifar_1_split
I1013 22:23:58.700299 13701 net.cpp:406] label_cifar_1_split <- label
I1013 22:23:58.700302 13701 net.cpp:380] label_cifar_1_split -> label_cifar_1_split_0
I1013 22:23:58.700307 13701 net.cpp:380] label_cifar_1_split -> label_cifar_1_split_1
I1013 22:23:58.700367 13701 net.cpp:122] Setting up label_cifar_1_split
I1013 22:23:58.700372 13701 net.cpp:129] Top shape: 50 (50)
I1013 22:23:58.700376 13701 net.cpp:129] Top shape: 50 (50)
I1013 22:23:58.700377 13701 net.cpp:137] Memory required for data: 471000
I1013 22:23:58.700379 13701 layer_factory.hpp:77] Creating layer Convolution1
I1013 22:23:58.700387 13701 net.cpp:84] Creating Layer Convolution1
I1013 22:23:58.700388 13701 net.cpp:406] Convolution1 <- data
I1013 22:23:58.700392 13701 net.cpp:380] Convolution1 -> Convolution1
I1013 22:23:58.701519 13701 net.cpp:122] Setting up Convolution1
I1013 22:23:58.701527 13701 net.cpp:129] Top shape: 50 16 28 28 (627200)
I1013 22:23:58.701530 13701 net.cpp:137] Memory required for data: 2979800
I1013 22:23:58.701537 13701 layer_factory.hpp:77] Creating layer BatchNorm1
I1013 22:23:58.701544 13701 net.cpp:84] Creating Layer BatchNorm1
I1013 22:23:58.701546 13701 net.cpp:406] BatchNorm1 <- Convolution1
I1013 22:23:58.701550 13701 net.cpp:367] BatchNorm1 -> Convolution1 (in-place)
I1013 22:23:58.701712 13701 net.cpp:122] Setting up BatchNorm1
I1013 22:23:58.701717 13701 net.cpp:129] Top shape: 50 16 28 28 (627200)
I1013 22:23:58.701720 13701 net.cpp:137] Memory required for data: 5488600
I1013 22:23:58.701727 13701 layer_factory.hpp:77] Creating layer Scale1
I1013 22:23:58.701732 13701 net.cpp:84] Creating Layer Scale1
I1013 22:23:58.701735 13701 net.cpp:406] Scale1 <- Convolution1
I1013 22:23:58.701738 13701 net.cpp:367] Scale1 -> Convolution1 (in-place)
I1013 22:23:58.701776 13701 layer_factory.hpp:77] Creating layer Scale1
I1013 22:23:58.701956 13701 net.cpp:122] Setting up Scale1
I1013 22:23:58.701969 13701 net.cpp:129] Top shape: 50 16 28 28 (627200)
I1013 22:23:58.701972 13701 net.cpp:137] Memory required for data: 7997400
I1013 22:23:58.701977 13701 layer_factory.hpp:77] Creating layer penlu1
I1013 22:23:58.701985 13701 net.cpp:84] Creating Layer penlu1
I1013 22:23:58.701995 13701 net.cpp:406] penlu1 <- Convolution1
I1013 22:23:58.702000 13701 net.cpp:367] penlu1 -> Convolution1 (in-place)
I1013 22:23:58.702136 13701 net.cpp:122] Setting up penlu1
I1013 22:23:58.702141 13701 net.cpp:129] Top shape: 50 16 28 28 (627200)
I1013 22:23:58.702142 13701 net.cpp:137] Memory required for data: 10506200
I1013 22:23:58.702149 13701 layer_factory.hpp:77] Creating layer Convolution1_penlu1_0_split
I1013 22:23:58.702153 13701 net.cpp:84] Creating Layer Convolution1_penlu1_0_split
I1013 22:23:58.702155 13701 net.cpp:406] Convolution1_penlu1_0_split <- Convolution1
I1013 22:23:58.702158 13701 net.cpp:380] Convolution1_penlu1_0_split -> Convolution1_penlu1_0_split_0
I1013 22:23:58.702163 13701 net.cpp:380] Convolution1_penlu1_0_split -> Convolution1_penlu1_0_split_1
I1013 22:23:58.702189 13701 net.cpp:122] Setting up Convolution1_penlu1_0_split
I1013 22:23:58.702195 13701 net.cpp:129] Top shape: 50 16 28 28 (627200)
I1013 22:23:58.702198 13701 net.cpp:129] Top shape: 50 16 28 28 (627200)
I1013 22:23:58.702200 13701 net.cpp:137] Memory required for data: 15523800
I1013 22:23:58.702203 13701 layer_factory.hpp:77] Creating layer Convolution2
I1013 22:23:58.702214 13701 net.cpp:84] Creating Layer Convolution2
I1013 22:23:58.702217 13701 net.cpp:406] Convolution2 <- Convolution1_penlu1_0_split_0
I1013 22:23:58.702221 13701 net.cpp:380] Convolution2 -> Convolution2
I1013 22:23:58.703879 13701 net.cpp:122] Setting up Convolution2
I1013 22:23:58.703888 13701 net.cpp:129] Top shape: 50 160 28 28 (6272000)
I1013 22:23:58.703891 13701 net.cpp:137] Memory required for data: 40611800
I1013 22:23:58.703894 13701 layer_factory.hpp:77] Creating layer BatchNorm2
I1013 22:23:58.703900 13701 net.cpp:84] Creating Layer BatchNorm2
I1013 22:23:58.703903 13701 net.cpp:406] BatchNorm2 <- Convolution2
I1013 22:23:58.703907 13701 net.cpp:367] BatchNorm2 -> Convolution2 (in-place)
I1013 22:23:58.704066 13701 net.cpp:122] Setting up BatchNorm2
I1013 22:23:58.704069 13701 net.cpp:129] Top shape: 50 160 28 28 (6272000)
I1013 22:23:58.704072 13701 net.cpp:137] Memory required for data: 65699800
I1013 22:23:58.704077 13701 layer_factory.hpp:77] Creating layer Scale2
I1013 22:23:58.704082 13701 net.cpp:84] Creating Layer Scale2
I1013 22:23:58.704085 13701 net.cpp:406] Scale2 <- Convolution2
I1013 22:23:58.704088 13701 net.cpp:367] Scale2 -> Convolution2 (in-place)
I1013 22:23:58.704118 13701 layer_factory.hpp:77] Creating layer Scale2
I1013 22:23:58.704210 13701 net.cpp:122] Setting up Scale2
I1013 22:23:58.704215 13701 net.cpp:129] Top shape: 50 160 28 28 (6272000)
I1013 22:23:58.704216 13701 net.cpp:137] Memory required for data: 90787800
I1013 22:23:58.704221 13701 layer_factory.hpp:77] Creating layer penlu2
I1013 22:23:58.704226 13701 net.cpp:84] Creating Layer penlu2
I1013 22:23:58.704228 13701 net.cpp:406] penlu2 <- Convolution2
I1013 22:23:58.704231 13701 net.cpp:367] penlu2 -> Convolution2 (in-place)
I1013 22:23:58.704434 13701 net.cpp:122] Setting up penlu2
I1013 22:23:58.704439 13701 net.cpp:129] Top shape: 50 160 28 28 (6272000)
I1013 22:23:58.704442 13701 net.cpp:137] Memory required for data: 115875800
I1013 22:23:58.704449 13701 layer_factory.hpp:77] Creating layer Convolution3
I1013 22:23:58.704454 13701 net.cpp:84] Creating Layer Convolution3
I1013 22:23:58.704457 13701 net.cpp:406] Convolution3 <- Convolution2
I1013 22:23:58.704460 13701 net.cpp:380] Convolution3 -> Convolution3
I1013 22:23:58.712896 13701 net.cpp:122] Setting up Convolution3
I1013 22:23:58.712908 13701 net.cpp:129] Top shape: 50 160 28 28 (6272000)
I1013 22:23:58.712911 13701 net.cpp:137] Memory required for data: 140963800
I1013 22:23:58.712915 13701 layer_factory.hpp:77] Creating layer Convolution4
I1013 22:23:58.712924 13701 net.cpp:84] Creating Layer Convolution4
I1013 22:23:58.712926 13701 net.cpp:406] Convolution4 <- Convolution1_penlu1_0_split_1
I1013 22:23:58.712931 13701 net.cpp:380] Convolution4 -> Convolution4
I1013 22:23:58.713927 13701 net.cpp:122] Setting up Convolution4
I1013 22:23:58.713937 13701 net.cpp:129] Top shape: 50 160 28 28 (6272000)
I1013 22:23:58.713946 13701 net.cpp:137] Memory required for data: 166051800
I1013 22:23:58.713950 13701 layer_factory.hpp:77] Creating layer Eltwise1
I1013 22:23:58.713956 13701 net.cpp:84] Creating Layer Eltwise1
I1013 22:23:58.713959 13701 net.cpp:406] Eltwise1 <- Convolution3
I1013 22:23:58.713963 13701 net.cpp:406] Eltwise1 <- Convolution4
I1013 22:23:58.713966 13701 net.cpp:380] Eltwise1 -> Eltwise1
I1013 22:23:58.713989 13701 net.cpp:122] Setting up Eltwise1
I1013 22:23:58.713992 13701 net.cpp:129] Top shape: 50 160 28 28 (6272000)
I1013 22:23:58.713994 13701 net.cpp:137] Memory required for data: 191139800
I1013 22:23:58.713997 13701 layer_factory.hpp:77] Creating layer BatchNorm3
I1013 22:23:58.714002 13701 net.cpp:84] Creating Layer BatchNorm3
I1013 22:23:58.714004 13701 net.cpp:406] BatchNorm3 <- Eltwise1
I1013 22:23:58.714007 13701 net.cpp:367] BatchNorm3 -> Eltwise1 (in-place)
I1013 22:23:58.714165 13701 net.cpp:122] Setting up BatchNorm3
I1013 22:23:58.714169 13701 net.cpp:129] Top shape: 50 160 28 28 (6272000)
I1013 22:23:58.714171 13701 net.cpp:137] Memory required for data: 216227800
I1013 22:23:58.714176 13701 layer_factory.hpp:77] Creating layer Scale3
I1013 22:23:58.714182 13701 net.cpp:84] Creating Layer Scale3
I1013 22:23:58.714184 13701 net.cpp:406] Scale3 <- Eltwise1
I1013 22:23:58.714187 13701 net.cpp:367] Scale3 -> Eltwise1 (in-place)
I1013 22:23:58.714220 13701 layer_factory.hpp:77] Creating layer Scale3
I1013 22:23:58.714311 13701 net.cpp:122] Setting up Scale3
I1013 22:23:58.714316 13701 net.cpp:129] Top shape: 50 160 28 28 (6272000)
I1013 22:23:58.714318 13701 net.cpp:137] Memory required for data: 241315800
I1013 22:23:58.714321 13701 layer_factory.hpp:77] Creating layer penlu3
I1013 22:23:58.714329 13701 net.cpp:84] Creating Layer penlu3
I1013 22:23:58.714331 13701 net.cpp:406] penlu3 <- Eltwise1
I1013 22:23:58.714335 13701 net.cpp:367] penlu3 -> Eltwise1 (in-place)
I1013 22:23:58.714534 13701 net.cpp:122] Setting up penlu3
I1013 22:23:58.714538 13701 net.cpp:129] Top shape: 50 160 28 28 (6272000)
I1013 22:23:58.714540 13701 net.cpp:137] Memory required for data: 266403800
I1013 22:23:58.714545 13701 layer_factory.hpp:77] Creating layer Eltwise1_penlu3_0_split
I1013 22:23:58.714550 13701 net.cpp:84] Creating Layer Eltwise1_penlu3_0_split
I1013 22:23:58.714551 13701 net.cpp:406] Eltwise1_penlu3_0_split <- Eltwise1
I1013 22:23:58.714555 13701 net.cpp:380] Eltwise1_penlu3_0_split -> Eltwise1_penlu3_0_split_0
I1013 22:23:58.714560 13701 net.cpp:380] Eltwise1_penlu3_0_split -> Eltwise1_penlu3_0_split_1
I1013 22:23:58.714584 13701 net.cpp:122] Setting up Eltwise1_penlu3_0_split
I1013 22:23:58.714588 13701 net.cpp:129] Top shape: 50 160 28 28 (6272000)
I1013 22:23:58.714591 13701 net.cpp:129] Top shape: 50 160 28 28 (6272000)
I1013 22:23:58.714593 13701 net.cpp:137] Memory required for data: 316579800
I1013 22:23:58.714596 13701 layer_factory.hpp:77] Creating layer Convolution5
I1013 22:23:58.714602 13701 net.cpp:84] Creating Layer Convolution5
I1013 22:23:58.714606 13701 net.cpp:406] Convolution5 <- Eltwise1_penlu3_0_split_0
I1013 22:23:58.714608 13701 net.cpp:380] Convolution5 -> Convolution5
I1013 22:23:58.722590 13701 net.cpp:122] Setting up Convolution5
I1013 22:23:58.722601 13701 net.cpp:129] Top shape: 50 160 28 28 (6272000)
I1013 22:23:58.722604 13701 net.cpp:137] Memory required for data: 341667800
I1013 22:23:58.722609 13701 layer_factory.hpp:77] Creating layer BatchNorm4
I1013 22:23:58.722617 13701 net.cpp:84] Creating Layer BatchNorm4
I1013 22:23:58.722621 13701 net.cpp:406] BatchNorm4 <- Convolution5
I1013 22:23:58.722625 13701 net.cpp:367] BatchNorm4 -> Convolution5 (in-place)
I1013 22:23:58.722815 13701 net.cpp:122] Setting up BatchNorm4
I1013 22:23:58.722820 13701 net.cpp:129] Top shape: 50 160 28 28 (6272000)
I1013 22:23:58.722822 13701 net.cpp:137] Memory required for data: 366755800
I1013 22:23:58.722831 13701 layer_factory.hpp:77] Creating layer Scale4
I1013 22:23:58.722837 13701 net.cpp:84] Creating Layer Scale4
I1013 22:23:58.722839 13701 net.cpp:406] Scale4 <- Convolution5
I1013 22:23:58.722851 13701 net.cpp:367] Scale4 -> Convolution5 (in-place)
I1013 22:23:58.722889 13701 layer_factory.hpp:77] Creating layer Scale4
I1013 22:23:58.722981 13701 net.cpp:122] Setting up Scale4
I1013 22:23:58.722986 13701 net.cpp:129] Top shape: 50 160 28 28 (6272000)
I1013 22:23:58.722988 13701 net.cpp:137] Memory required for data: 391843800
I1013 22:23:58.722992 13701 layer_factory.hpp:77] Creating layer penlu4
I1013 22:23:58.722998 13701 net.cpp:84] Creating Layer penlu4
I1013 22:23:58.723001 13701 net.cpp:406] penlu4 <- Convolution5
I1013 22:23:58.723004 13701 net.cpp:367] penlu4 -> Convolution5 (in-place)
I1013 22:23:58.723201 13701 net.cpp:122] Setting up penlu4
I1013 22:23:58.723206 13701 net.cpp:129] Top shape: 50 160 28 28 (6272000)
I1013 22:23:58.723207 13701 net.cpp:137] Memory required for data: 416931800
I1013 22:23:58.723212 13701 layer_factory.hpp:77] Creating layer Convolution6
I1013 22:23:58.723217 13701 net.cpp:84] Creating Layer Convolution6
I1013 22:23:58.723220 13701 net.cpp:406] Convolution6 <- Convolution5
I1013 22:23:58.723223 13701 net.cpp:380] Convolution6 -> Convolution6
I1013 22:23:58.731514 13701 net.cpp:122] Setting up Convolution6
I1013 22:23:58.731523 13701 net.cpp:129] Top shape: 50 160 28 28 (6272000)
I1013 22:23:58.731525 13701 net.cpp:137] Memory required for data: 442019800
I1013 22:23:58.731529 13701 layer_factory.hpp:77] Creating layer Eltwise2
I1013 22:23:58.731535 13701 net.cpp:84] Creating Layer Eltwise2
I1013 22:23:58.731537 13701 net.cpp:406] Eltwise2 <- Convolution6
I1013 22:23:58.731541 13701 net.cpp:406] Eltwise2 <- Eltwise1_penlu3_0_split_1
I1013 22:23:58.731545 13701 net.cpp:380] Eltwise2 -> Eltwise2
I1013 22:23:58.731570 13701 net.cpp:122] Setting up Eltwise2
I1013 22:23:58.731575 13701 net.cpp:129] Top shape: 50 160 28 28 (6272000)
I1013 22:23:58.731576 13701 net.cpp:137] Memory required for data: 467107800
I1013 22:23:58.731578 13701 layer_factory.hpp:77] Creating layer BatchNorm5
I1013 22:23:58.731582 13701 net.cpp:84] Creating Layer BatchNorm5
I1013 22:23:58.731585 13701 net.cpp:406] BatchNorm5 <- Eltwise2
I1013 22:23:58.731588 13701 net.cpp:367] BatchNorm5 -> Eltwise2 (in-place)
I1013 22:23:58.731743 13701 net.cpp:122] Setting up BatchNorm5
I1013 22:23:58.731748 13701 net.cpp:129] Top shape: 50 160 28 28 (6272000)
I1013 22:23:58.731750 13701 net.cpp:137] Memory required for data: 492195800
I1013 22:23:58.731755 13701 layer_factory.hpp:77] Creating layer Scale5
I1013 22:23:58.731760 13701 net.cpp:84] Creating Layer Scale5
I1013 22:23:58.731761 13701 net.cpp:406] Scale5 <- Eltwise2
I1013 22:23:58.731765 13701 net.cpp:367] Scale5 -> Eltwise2 (in-place)
I1013 22:23:58.731796 13701 layer_factory.hpp:77] Creating layer Scale5
I1013 22:23:58.731890 13701 net.cpp:122] Setting up Scale5
I1013 22:23:58.731894 13701 net.cpp:129] Top shape: 50 160 28 28 (6272000)
I1013 22:23:58.731896 13701 net.cpp:137] Memory required for data: 517283800
I1013 22:23:58.731900 13701 layer_factory.hpp:77] Creating layer penlu5
I1013 22:23:58.731906 13701 net.cpp:84] Creating Layer penlu5
I1013 22:23:58.731909 13701 net.cpp:406] penlu5 <- Eltwise2
I1013 22:23:58.731911 13701 net.cpp:367] penlu5 -> Eltwise2 (in-place)
I1013 22:23:58.732105 13701 net.cpp:122] Setting up penlu5
I1013 22:23:58.732110 13701 net.cpp:129] Top shape: 50 160 28 28 (6272000)
I1013 22:23:58.732111 13701 net.cpp:137] Memory required for data: 542371800
I1013 22:23:58.732115 13701 layer_factory.hpp:77] Creating layer Eltwise2_penlu5_0_split
I1013 22:23:58.732120 13701 net.cpp:84] Creating Layer Eltwise2_penlu5_0_split
I1013 22:23:58.732122 13701 net.cpp:406] Eltwise2_penlu5_0_split <- Eltwise2
I1013 22:23:58.732125 13701 net.cpp:380] Eltwise2_penlu5_0_split -> Eltwise2_penlu5_0_split_0
I1013 22:23:58.732131 13701 net.cpp:380] Eltwise2_penlu5_0_split -> Eltwise2_penlu5_0_split_1
I1013 22:23:58.732157 13701 net.cpp:122] Setting up Eltwise2_penlu5_0_split
I1013 22:23:58.732162 13701 net.cpp:129] Top shape: 50 160 28 28 (6272000)
I1013 22:23:58.732165 13701 net.cpp:129] Top shape: 50 160 28 28 (6272000)
I1013 22:23:58.732175 13701 net.cpp:137] Memory required for data: 592547800
I1013 22:23:58.732177 13701 layer_factory.hpp:77] Creating layer Convolution7
I1013 22:23:58.732184 13701 net.cpp:84] Creating Layer Convolution7
I1013 22:23:58.732187 13701 net.cpp:406] Convolution7 <- Eltwise2_penlu5_0_split_0
I1013 22:23:58.732190 13701 net.cpp:380] Convolution7 -> Convolution7
I1013 22:23:58.740344 13701 net.cpp:122] Setting up Convolution7
I1013 22:23:58.740352 13701 net.cpp:129] Top shape: 50 160 28 28 (6272000)
I1013 22:23:58.740355 13701 net.cpp:137] Memory required for data: 617635800
I1013 22:23:58.740360 13701 layer_factory.hpp:77] Creating layer BatchNorm6
I1013 22:23:58.740365 13701 net.cpp:84] Creating Layer BatchNorm6
I1013 22:23:58.740368 13701 net.cpp:406] BatchNorm6 <- Convolution7
I1013 22:23:58.740372 13701 net.cpp:367] BatchNorm6 -> Convolution7 (in-place)
I1013 22:23:58.740533 13701 net.cpp:122] Setting up BatchNorm6
I1013 22:23:58.740538 13701 net.cpp:129] Top shape: 50 160 28 28 (6272000)
I1013 22:23:58.740540 13701 net.cpp:137] Memory required for data: 642723800
I1013 22:23:58.740545 13701 layer_factory.hpp:77] Creating layer Scale6
I1013 22:23:58.740550 13701 net.cpp:84] Creating Layer Scale6
I1013 22:23:58.740551 13701 net.cpp:406] Scale6 <- Convolution7
I1013 22:23:58.740555 13701 net.cpp:367] Scale6 -> Convolution7 (in-place)
I1013 22:23:58.740588 13701 layer_factory.hpp:77] Creating layer Scale6
I1013 22:23:58.740679 13701 net.cpp:122] Setting up Scale6
I1013 22:23:58.740684 13701 net.cpp:129] Top shape: 50 160 28 28 (6272000)
I1013 22:23:58.740686 13701 net.cpp:137] Memory required for data: 667811800
I1013 22:23:58.740689 13701 layer_factory.hpp:77] Creating layer penlu6
I1013 22:23:58.740695 13701 net.cpp:84] Creating Layer penlu6
I1013 22:23:58.740698 13701 net.cpp:406] penlu6 <- Convolution7
I1013 22:23:58.740701 13701 net.cpp:367] penlu6 -> Convolution7 (in-place)
I1013 22:23:58.740896 13701 net.cpp:122] Setting up penlu6
I1013 22:23:58.740900 13701 net.cpp:129] Top shape: 50 160 28 28 (6272000)
I1013 22:23:58.740902 13701 net.cpp:137] Memory required for data: 692899800
I1013 22:23:58.740906 13701 layer_factory.hpp:77] Creating layer Convolution8
I1013 22:23:58.740917 13701 net.cpp:84] Creating Layer Convolution8
I1013 22:23:58.740919 13701 net.cpp:406] Convolution8 <- Convolution7
I1013 22:23:58.740923 13701 net.cpp:380] Convolution8 -> Convolution8
I1013 22:23:58.749066 13701 net.cpp:122] Setting up Convolution8
I1013 22:23:58.749074 13701 net.cpp:129] Top shape: 50 160 28 28 (6272000)
I1013 22:23:58.749078 13701 net.cpp:137] Memory required for data: 717987800
I1013 22:23:58.749081 13701 layer_factory.hpp:77] Creating layer Eltwise3
I1013 22:23:58.749086 13701 net.cpp:84] Creating Layer Eltwise3
I1013 22:23:58.749089 13701 net.cpp:406] Eltwise3 <- Convolution8
I1013 22:23:58.749092 13701 net.cpp:406] Eltwise3 <- Eltwise2_penlu5_0_split_1
I1013 22:23:58.749096 13701 net.cpp:380] Eltwise3 -> Eltwise3
I1013 22:23:58.749119 13701 net.cpp:122] Setting up Eltwise3
I1013 22:23:58.749125 13701 net.cpp:129] Top shape: 50 160 28 28 (6272000)
I1013 22:23:58.749126 13701 net.cpp:137] Memory required for data: 743075800
I1013 22:23:58.749128 13701 layer_factory.hpp:77] Creating layer BatchNorm7
I1013 22:23:58.749132 13701 net.cpp:84] Creating Layer BatchNorm7
I1013 22:23:58.749135 13701 net.cpp:406] BatchNorm7 <- Eltwise3
I1013 22:23:58.749138 13701 net.cpp:367] BatchNorm7 -> Eltwise3 (in-place)
I1013 22:23:58.749291 13701 net.cpp:122] Setting up BatchNorm7
I1013 22:23:58.749296 13701 net.cpp:129] Top shape: 50 160 28 28 (6272000)
I1013 22:23:58.749299 13701 net.cpp:137] Memory required for data: 768163800
I1013 22:23:58.749303 13701 layer_factory.hpp:77] Creating layer Scale7
I1013 22:23:58.749307 13701 net.cpp:84] Creating Layer Scale7
I1013 22:23:58.749310 13701 net.cpp:406] Scale7 <- Eltwise3
I1013 22:23:58.749313 13701 net.cpp:367] Scale7 -> Eltwise3 (in-place)
I1013 22:23:58.749346 13701 layer_factory.hpp:77] Creating layer Scale7
I1013 22:23:58.749435 13701 net.cpp:122] Setting up Scale7
I1013 22:23:58.749447 13701 net.cpp:129] Top shape: 50 160 28 28 (6272000)
I1013 22:23:58.749450 13701 net.cpp:137] Memory required for data: 793251800
I1013 22:23:58.749454 13701 layer_factory.hpp:77] Creating layer penlu7
I1013 22:23:58.749459 13701 net.cpp:84] Creating Layer penlu7
I1013 22:23:58.749461 13701 net.cpp:406] penlu7 <- Eltwise3
I1013 22:23:58.749465 13701 net.cpp:367] penlu7 -> Eltwise3 (in-place)
I1013 22:23:58.749660 13701 net.cpp:122] Setting up penlu7
I1013 22:23:58.749665 13701 net.cpp:129] Top shape: 50 160 28 28 (6272000)
I1013 22:23:58.749667 13701 net.cpp:137] Memory required for data: 818339800
I1013 22:23:58.749678 13701 layer_factory.hpp:77] Creating layer Eltwise3_penlu7_0_split
I1013 22:23:58.749683 13701 net.cpp:84] Creating Layer Eltwise3_penlu7_0_split
I1013 22:23:58.749686 13701 net.cpp:406] Eltwise3_penlu7_0_split <- Eltwise3
I1013 22:23:58.749688 13701 net.cpp:380] Eltwise3_penlu7_0_split -> Eltwise3_penlu7_0_split_0
I1013 22:23:58.749693 13701 net.cpp:380] Eltwise3_penlu7_0_split -> Eltwise3_penlu7_0_split_1
I1013 22:23:58.749721 13701 net.cpp:122] Setting up Eltwise3_penlu7_0_split
I1013 22:23:58.749724 13701 net.cpp:129] Top shape: 50 160 28 28 (6272000)
I1013 22:23:58.749727 13701 net.cpp:129] Top shape: 50 160 28 28 (6272000)
I1013 22:23:58.749729 13701 net.cpp:137] Memory required for data: 868515800
I1013 22:23:58.749732 13701 layer_factory.hpp:77] Creating layer Convolution9
I1013 22:23:58.749737 13701 net.cpp:84] Creating Layer Convolution9
I1013 22:23:58.749739 13701 net.cpp:406] Convolution9 <- Eltwise3_penlu7_0_split_0
I1013 22:23:58.749743 13701 net.cpp:380] Convolution9 -> Convolution9
I1013 22:23:58.758340 13701 net.cpp:122] Setting up Convolution9
I1013 22:23:58.758352 13701 net.cpp:129] Top shape: 50 160 28 28 (6272000)
I1013 22:23:58.758355 13701 net.cpp:137] Memory required for data: 893603800
I1013 22:23:58.758359 13701 layer_factory.hpp:77] Creating layer BatchNorm8
I1013 22:23:58.758366 13701 net.cpp:84] Creating Layer BatchNorm8
I1013 22:23:58.758370 13701 net.cpp:406] BatchNorm8 <- Convolution9
I1013 22:23:58.758374 13701 net.cpp:367] BatchNorm8 -> Convolution9 (in-place)
I1013 22:23:58.758549 13701 net.cpp:122] Setting up BatchNorm8
I1013 22:23:58.758555 13701 net.cpp:129] Top shape: 50 160 28 28 (6272000)
I1013 22:23:58.758558 13701 net.cpp:137] Memory required for data: 918691800
I1013 22:23:58.758563 13701 layer_factory.hpp:77] Creating layer Scale8
I1013 22:23:58.758568 13701 net.cpp:84] Creating Layer Scale8
I1013 22:23:58.758570 13701 net.cpp:406] Scale8 <- Convolution9
I1013 22:23:58.758574 13701 net.cpp:367] Scale8 -> Convolution9 (in-place)
I1013 22:23:58.758610 13701 layer_factory.hpp:77] Creating layer Scale8
I1013 22:23:58.758707 13701 net.cpp:122] Setting up Scale8
I1013 22:23:58.758711 13701 net.cpp:129] Top shape: 50 160 28 28 (6272000)
I1013 22:23:58.758713 13701 net.cpp:137] Memory required for data: 943779800
I1013 22:23:58.758718 13701 layer_factory.hpp:77] Creating layer penlu8
I1013 22:23:58.758724 13701 net.cpp:84] Creating Layer penlu8
I1013 22:23:58.758726 13701 net.cpp:406] penlu8 <- Convolution9
I1013 22:23:58.758730 13701 net.cpp:367] penlu8 -> Convolution9 (in-place)
I1013 22:23:58.758955 13701 net.cpp:122] Setting up penlu8
I1013 22:23:58.758960 13701 net.cpp:129] Top shape: 50 160 28 28 (6272000)
I1013 22:23:58.758962 13701 net.cpp:137] Memory required for data: 968867800
I1013 22:23:58.758967 13701 layer_factory.hpp:77] Creating layer Convolution10
I1013 22:23:58.758975 13701 net.cpp:84] Creating Layer Convolution10
I1013 22:23:58.758976 13701 net.cpp:406] Convolution10 <- Convolution9
I1013 22:23:58.758980 13701 net.cpp:380] Convolution10 -> Convolution10
I1013 22:23:58.767127 13701 net.cpp:122] Setting up Convolution10
I1013 22:23:58.767146 13701 net.cpp:129] Top shape: 50 160 28 28 (6272000)
I1013 22:23:58.767159 13701 net.cpp:137] Memory required for data: 993955800
I1013 22:23:58.767163 13701 layer_factory.hpp:77] Creating layer Eltwise4
I1013 22:23:58.767179 13701 net.cpp:84] Creating Layer Eltwise4
I1013 22:23:58.767200 13701 net.cpp:406] Eltwise4 <- Convolution10
I1013 22:23:58.767204 13701 net.cpp:406] Eltwise4 <- Eltwise3_penlu7_0_split_1
I1013 22:23:58.767210 13701 net.cpp:380] Eltwise4 -> Eltwise4
I1013 22:23:58.767262 13701 net.cpp:122] Setting up Eltwise4
I1013 22:23:58.767266 13701 net.cpp:129] Top shape: 50 160 28 28 (6272000)
I1013 22:23:58.767268 13701 net.cpp:137] Memory required for data: 1019043800
I1013 22:23:58.767271 13701 layer_factory.hpp:77] Creating layer Eltwise4_Eltwise4_0_split
I1013 22:23:58.767276 13701 net.cpp:84] Creating Layer Eltwise4_Eltwise4_0_split
I1013 22:23:58.767277 13701 net.cpp:406] Eltwise4_Eltwise4_0_split <- Eltwise4
I1013 22:23:58.767282 13701 net.cpp:380] Eltwise4_Eltwise4_0_split -> Eltwise4_Eltwise4_0_split_0
I1013 22:23:58.767285 13701 net.cpp:380] Eltwise4_Eltwise4_0_split -> Eltwise4_Eltwise4_0_split_1
I1013 22:23:58.767313 13701 net.cpp:122] Setting up Eltwise4_Eltwise4_0_split
I1013 22:23:58.767318 13701 net.cpp:129] Top shape: 50 160 28 28 (6272000)
I1013 22:23:58.767320 13701 net.cpp:129] Top shape: 50 160 28 28 (6272000)
I1013 22:23:58.767323 13701 net.cpp:137] Memory required for data: 1069219800
I1013 22:23:58.767324 13701 layer_factory.hpp:77] Creating layer Convolution11
I1013 22:23:58.767330 13701 net.cpp:84] Creating Layer Convolution11
I1013 22:23:58.767333 13701 net.cpp:406] Convolution11 <- Eltwise4_Eltwise4_0_split_0
I1013 22:23:58.767336 13701 net.cpp:380] Convolution11 -> Convolution11
I1013 22:23:58.781321 13701 net.cpp:122] Setting up Convolution11
I1013 22:23:58.781329 13701 net.cpp:129] Top shape: 50 320 14 14 (3136000)
I1013 22:23:58.781332 13701 net.cpp:137] Memory required for data: 1081763800
I1013 22:23:58.781337 13701 layer_factory.hpp:77] Creating layer BatchNorm9
I1013 22:23:58.781342 13701 net.cpp:84] Creating Layer BatchNorm9
I1013 22:23:58.781344 13701 net.cpp:406] BatchNorm9 <- Convolution11
I1013 22:23:58.781348 13701 net.cpp:367] BatchNorm9 -> Convolution11 (in-place)
I1013 22:23:58.781523 13701 net.cpp:122] Setting up BatchNorm9
I1013 22:23:58.781528 13701 net.cpp:129] Top shape: 50 320 14 14 (3136000)
I1013 22:23:58.781530 13701 net.cpp:137] Memory required for data: 1094307800
I1013 22:23:58.781535 13701 layer_factory.hpp:77] Creating layer Scale9
I1013 22:23:58.781539 13701 net.cpp:84] Creating Layer Scale9
I1013 22:23:58.781543 13701 net.cpp:406] Scale9 <- Convolution11
I1013 22:23:58.781545 13701 net.cpp:367] Scale9 -> Convolution11 (in-place)
I1013 22:23:58.781582 13701 layer_factory.hpp:77] Creating layer Scale9
I1013 22:23:58.781673 13701 net.cpp:122] Setting up Scale9
I1013 22:23:58.781678 13701 net.cpp:129] Top shape: 50 320 14 14 (3136000)
I1013 22:23:58.781680 13701 net.cpp:137] Memory required for data: 1106851800
I1013 22:23:58.781683 13701 layer_factory.hpp:77] Creating layer penlu9
I1013 22:23:58.781688 13701 net.cpp:84] Creating Layer penlu9
I1013 22:23:58.781692 13701 net.cpp:406] penlu9 <- Convolution11
I1013 22:23:58.781695 13701 net.cpp:367] penlu9 -> Convolution11 (in-place)
I1013 22:23:58.781860 13701 net.cpp:122] Setting up penlu9
I1013 22:23:58.781864 13701 net.cpp:129] Top shape: 50 320 14 14 (3136000)
I1013 22:23:58.781867 13701 net.cpp:137] Memory required for data: 1119395800
I1013 22:23:58.781872 13701 layer_factory.hpp:77] Creating layer Convolution12
I1013 22:23:58.781877 13701 net.cpp:84] Creating Layer Convolution12
I1013 22:23:58.781879 13701 net.cpp:406] Convolution12 <- Convolution11
I1013 22:23:58.781883 13701 net.cpp:380] Convolution12 -> Convolution12
I1013 22:23:58.809420 13701 net.cpp:122] Setting up Convolution12
I1013 22:23:58.809450 13701 net.cpp:129] Top shape: 50 320 14 14 (3136000)
I1013 22:23:58.809454 13701 net.cpp:137] Memory required for data: 1131939800
I1013 22:23:58.809459 13701 layer_factory.hpp:77] Creating layer Convolution13
I1013 22:23:58.809482 13701 net.cpp:84] Creating Layer Convolution13
I1013 22:23:58.809486 13701 net.cpp:406] Convolution13 <- Eltwise4_Eltwise4_0_split_1
I1013 22:23:58.809491 13701 net.cpp:380] Convolution13 -> Convolution13
I1013 22:23:58.812191 13701 net.cpp:122] Setting up Convolution13
I1013 22:23:58.812221 13701 net.cpp:129] Top shape: 50 320 14 14 (3136000)
I1013 22:23:58.812223 13701 net.cpp:137] Memory required for data: 1144483800
I1013 22:23:58.812227 13701 layer_factory.hpp:77] Creating layer Eltwise5
I1013 22:23:58.812233 13701 net.cpp:84] Creating Layer Eltwise5
I1013 22:23:58.812247 13701 net.cpp:406] Eltwise5 <- Convolution12
I1013 22:23:58.812249 13701 net.cpp:406] Eltwise5 <- Convolution13
I1013 22:23:58.812253 13701 net.cpp:380] Eltwise5 -> Eltwise5
I1013 22:23:58.812288 13701 net.cpp:122] Setting up Eltwise5
I1013 22:23:58.812301 13701 net.cpp:129] Top shape: 50 320 14 14 (3136000)
I1013 22:23:58.812304 13701 net.cpp:137] Memory required for data: 1157027800
I1013 22:23:58.812305 13701 layer_factory.hpp:77] Creating layer BatchNorm10
I1013 22:23:58.812321 13701 net.cpp:84] Creating Layer BatchNorm10
I1013 22:23:58.812324 13701 net.cpp:406] BatchNorm10 <- Eltwise5
I1013 22:23:58.812327 13701 net.cpp:367] BatchNorm10 -> Eltwise5 (in-place)
I1013 22:23:58.812521 13701 net.cpp:122] Setting up BatchNorm10
I1013 22:23:58.812526 13701 net.cpp:129] Top shape: 50 320 14 14 (3136000)
I1013 22:23:58.812539 13701 net.cpp:137] Memory required for data: 1169571800
I1013 22:23:58.812544 13701 layer_factory.hpp:77] Creating layer Scale10
I1013 22:23:58.812549 13701 net.cpp:84] Creating Layer Scale10
I1013 22:23:58.812562 13701 net.cpp:406] Scale10 <- Eltwise5
I1013 22:23:58.812566 13701 net.cpp:367] Scale10 -> Eltwise5 (in-place)
I1013 22:23:58.812623 13701 layer_factory.hpp:77] Creating layer Scale10
I1013 22:23:58.812755 13701 net.cpp:122] Setting up Scale10
I1013 22:23:58.812759 13701 net.cpp:129] Top shape: 50 320 14 14 (3136000)
I1013 22:23:58.812772 13701 net.cpp:137] Memory required for data: 1182115800
I1013 22:23:58.812777 13701 layer_factory.hpp:77] Creating layer penlu10
I1013 22:23:58.812783 13701 net.cpp:84] Creating Layer penlu10
I1013 22:23:58.812794 13701 net.cpp:406] penlu10 <- Eltwise5
I1013 22:23:58.812798 13701 net.cpp:367] penlu10 -> Eltwise5 (in-place)
I1013 22:23:58.812988 13701 net.cpp:122] Setting up penlu10
I1013 22:23:58.812994 13701 net.cpp:129] Top shape: 50 320 14 14 (3136000)
I1013 22:23:58.813006 13701 net.cpp:137] Memory required for data: 1194659800
I1013 22:23:58.813011 13701 layer_factory.hpp:77] Creating layer Eltwise5_penlu10_0_split
I1013 22:23:58.813015 13701 net.cpp:84] Creating Layer Eltwise5_penlu10_0_split
I1013 22:23:58.813017 13701 net.cpp:406] Eltwise5_penlu10_0_split <- Eltwise5
I1013 22:23:58.813022 13701 net.cpp:380] Eltwise5_penlu10_0_split -> Eltwise5_penlu10_0_split_0
I1013 22:23:58.813030 13701 net.cpp:380] Eltwise5_penlu10_0_split -> Eltwise5_penlu10_0_split_1
I1013 22:23:58.813067 13701 net.cpp:122] Setting up Eltwise5_penlu10_0_split
I1013 22:23:58.813072 13701 net.cpp:129] Top shape: 50 320 14 14 (3136000)
I1013 22:23:58.813086 13701 net.cpp:129] Top shape: 50 320 14 14 (3136000)
I1013 22:23:58.813087 13701 net.cpp:137] Memory required for data: 1219747800
I1013 22:23:58.813089 13701 layer_factory.hpp:77] Creating layer Convolution14
I1013 22:23:58.813096 13701 net.cpp:84] Creating Layer Convolution14
I1013 22:23:58.813098 13701 net.cpp:406] Convolution14 <- Eltwise5_penlu10_0_split_0
I1013 22:23:58.813102 13701 net.cpp:380] Convolution14 -> Convolution14
I1013 22:23:58.840484 13701 net.cpp:122] Setting up Convolution14
I1013 22:23:58.840503 13701 net.cpp:129] Top shape: 50 320 14 14 (3136000)
I1013 22:23:58.840507 13701 net.cpp:137] Memory required for data: 1232291800
I1013 22:23:58.840512 13701 layer_factory.hpp:77] Creating layer BatchNorm11
I1013 22:23:58.840522 13701 net.cpp:84] Creating Layer BatchNorm11
I1013 22:23:58.840535 13701 net.cpp:406] BatchNorm11 <- Convolution14
I1013 22:23:58.840540 13701 net.cpp:367] BatchNorm11 -> Convolution14 (in-place)
I1013 22:23:58.840756 13701 net.cpp:122] Setting up BatchNorm11
I1013 22:23:58.840761 13701 net.cpp:129] Top shape: 50 320 14 14 (3136000)
I1013 22:23:58.840764 13701 net.cpp:137] Memory required for data: 1244835800
I1013 22:23:58.840770 13701 layer_factory.hpp:77] Creating layer Scale11
I1013 22:23:58.840793 13701 net.cpp:84] Creating Layer Scale11
I1013 22:23:58.840796 13701 net.cpp:406] Scale11 <- Convolution14
I1013 22:23:58.840800 13701 net.cpp:367] Scale11 -> Convolution14 (in-place)
I1013 22:23:58.840869 13701 layer_factory.hpp:77] Creating layer Scale11
I1013 22:23:58.840986 13701 net.cpp:122] Setting up Scale11
I1013 22:23:58.840991 13701 net.cpp:129] Top shape: 50 320 14 14 (3136000)
I1013 22:23:58.840993 13701 net.cpp:137] Memory required for data: 1257379800
I1013 22:23:58.841007 13701 layer_factory.hpp:77] Creating layer penlu11
I1013 22:23:58.841024 13701 net.cpp:84] Creating Layer penlu11
I1013 22:23:58.841028 13701 net.cpp:406] penlu11 <- Convolution14
I1013 22:23:58.841032 13701 net.cpp:367] penlu11 -> Convolution14 (in-place)
I1013 22:23:58.841744 13701 net.cpp:122] Setting up penlu11
I1013 22:23:58.841753 13701 net.cpp:129] Top shape: 50 320 14 14 (3136000)
I1013 22:23:58.841756 13701 net.cpp:137] Memory required for data: 1269923800
I1013 22:23:58.841761 13701 layer_factory.hpp:77] Creating layer Convolution15
I1013 22:23:58.841768 13701 net.cpp:84] Creating Layer Convolution15
I1013 22:23:58.841771 13701 net.cpp:406] Convolution15 <- Convolution14
I1013 22:23:58.841786 13701 net.cpp:380] Convolution15 -> Convolution15
I1013 22:23:58.868907 13701 net.cpp:122] Setting up Convolution15
I1013 22:23:58.868927 13701 net.cpp:129] Top shape: 50 320 14 14 (3136000)
I1013 22:23:58.868930 13701 net.cpp:137] Memory required for data: 1282467800
I1013 22:23:58.868935 13701 layer_factory.hpp:77] Creating layer Eltwise6
I1013 22:23:58.868945 13701 net.cpp:84] Creating Layer Eltwise6
I1013 22:23:58.868959 13701 net.cpp:406] Eltwise6 <- Convolution15
I1013 22:23:58.868964 13701 net.cpp:406] Eltwise6 <- Eltwise5_penlu10_0_split_1
I1013 22:23:58.868978 13701 net.cpp:380] Eltwise6 -> Eltwise6
I1013 22:23:58.869015 13701 net.cpp:122] Setting up Eltwise6
I1013 22:23:58.869029 13701 net.cpp:129] Top shape: 50 320 14 14 (3136000)
I1013 22:23:58.869031 13701 net.cpp:137] Memory required for data: 1295011800
I1013 22:23:58.869033 13701 layer_factory.hpp:77] Creating layer BatchNorm12
I1013 22:23:58.869048 13701 net.cpp:84] Creating Layer BatchNorm12
I1013 22:23:58.869051 13701 net.cpp:406] BatchNorm12 <- Eltwise6
I1013 22:23:58.869055 13701 net.cpp:367] BatchNorm12 -> Eltwise6 (in-place)
I1013 22:23:58.869279 13701 net.cpp:122] Setting up BatchNorm12
I1013 22:23:58.869284 13701 net.cpp:129] Top shape: 50 320 14 14 (3136000)
I1013 22:23:58.869287 13701 net.cpp:137] Memory required for data: 1307555800
I1013 22:23:58.869292 13701 layer_factory.hpp:77] Creating layer Scale12
I1013 22:23:58.869297 13701 net.cpp:84] Creating Layer Scale12
I1013 22:23:58.869299 13701 net.cpp:406] Scale12 <- Eltwise6
I1013 22:23:58.869302 13701 net.cpp:367] Scale12 -> Eltwise6 (in-place)
I1013 22:23:58.869374 13701 layer_factory.hpp:77] Creating layer Scale12
I1013 22:23:58.869534 13701 net.cpp:122] Setting up Scale12
I1013 22:23:58.869539 13701 net.cpp:129] Top shape: 50 320 14 14 (3136000)
I1013 22:23:58.869541 13701 net.cpp:137] Memory required for data: 1320099800
I1013 22:23:58.869545 13701 layer_factory.hpp:77] Creating layer penlu12
I1013 22:23:58.869556 13701 net.cpp:84] Creating Layer penlu12
I1013 22:23:58.869570 13701 net.cpp:406] penlu12 <- Eltwise6
I1013 22:23:58.869573 13701 net.cpp:367] penlu12 -> Eltwise6 (in-place)
I1013 22:23:58.869774 13701 net.cpp:122] Setting up penlu12
I1013 22:23:58.869781 13701 net.cpp:129] Top shape: 50 320 14 14 (3136000)
I1013 22:23:58.869782 13701 net.cpp:137] Memory required for data: 1332643800
I1013 22:23:58.869787 13701 layer_factory.hpp:77] Creating layer Eltwise6_penlu12_0_split
I1013 22:23:58.869792 13701 net.cpp:84] Creating Layer Eltwise6_penlu12_0_split
I1013 22:23:58.869794 13701 net.cpp:406] Eltwise6_penlu12_0_split <- Eltwise6
I1013 22:23:58.869797 13701 net.cpp:380] Eltwise6_penlu12_0_split -> Eltwise6_penlu12_0_split_0
I1013 22:23:58.869812 13701 net.cpp:380] Eltwise6_penlu12_0_split -> Eltwise6_penlu12_0_split_1
I1013 22:23:58.869874 13701 net.cpp:122] Setting up Eltwise6_penlu12_0_split
I1013 22:23:58.869887 13701 net.cpp:129] Top shape: 50 320 14 14 (3136000)
I1013 22:23:58.869900 13701 net.cpp:129] Top shape: 50 320 14 14 (3136000)
I1013 22:23:58.869902 13701 net.cpp:137] Memory required for data: 1357731800
I1013 22:23:58.869905 13701 layer_factory.hpp:77] Creating layer Convolution16
I1013 22:23:58.869925 13701 net.cpp:84] Creating Layer Convolution16
I1013 22:23:58.869938 13701 net.cpp:406] Convolution16 <- Eltwise6_penlu12_0_split_0
I1013 22:23:58.869942 13701 net.cpp:380] Convolution16 -> Convolution16
I1013 22:23:58.897341 13701 net.cpp:122] Setting up Convolution16
I1013 22:23:58.897359 13701 net.cpp:129] Top shape: 50 320 14 14 (3136000)
I1013 22:23:58.897362 13701 net.cpp:137] Memory required for data: 1370275800
I1013 22:23:58.897368 13701 layer_factory.hpp:77] Creating layer BatchNorm13
I1013 22:23:58.897377 13701 net.cpp:84] Creating Layer BatchNorm13
I1013 22:23:58.897392 13701 net.cpp:406] BatchNorm13 <- Convolution16
I1013 22:23:58.897397 13701 net.cpp:367] BatchNorm13 -> Convolution16 (in-place)
I1013 22:23:58.897619 13701 net.cpp:122] Setting up BatchNorm13
I1013 22:23:58.897624 13701 net.cpp:129] Top shape: 50 320 14 14 (3136000)
I1013 22:23:58.897625 13701 net.cpp:137] Memory required for data: 1382819800
I1013 22:23:58.897630 13701 layer_factory.hpp:77] Creating layer Scale13
I1013 22:23:58.897636 13701 net.cpp:84] Creating Layer Scale13
I1013 22:23:58.897639 13701 net.cpp:406] Scale13 <- Convolution16
I1013 22:23:58.897641 13701 net.cpp:367] Scale13 -> Convolution16 (in-place)
I1013 22:23:58.897716 13701 layer_factory.hpp:77] Creating layer Scale13
I1013 22:23:58.897846 13701 net.cpp:122] Setting up Scale13
I1013 22:23:58.897851 13701 net.cpp:129] Top shape: 50 320 14 14 (3136000)
I1013 22:23:58.897853 13701 net.cpp:137] Memory required for data: 1395363800
I1013 22:23:58.897857 13701 layer_factory.hpp:77] Creating layer penlu13
I1013 22:23:58.897863 13701 net.cpp:84] Creating Layer penlu13
I1013 22:23:58.897866 13701 net.cpp:406] penlu13 <- Convolution16
I1013 22:23:58.897869 13701 net.cpp:367] penlu13 -> Convolution16 (in-place)
I1013 22:23:58.898102 13701 net.cpp:122] Setting up penlu13
I1013 22:23:58.898108 13701 net.cpp:129] Top shape: 50 320 14 14 (3136000)
I1013 22:23:58.898110 13701 net.cpp:137] Memory required for data: 1407907800
I1013 22:23:58.898114 13701 layer_factory.hpp:77] Creating layer Convolution17
I1013 22:23:58.898121 13701 net.cpp:84] Creating Layer Convolution17
I1013 22:23:58.898124 13701 net.cpp:406] Convolution17 <- Convolution16
I1013 22:23:58.898138 13701 net.cpp:380] Convolution17 -> Convolution17
I1013 22:23:58.925753 13701 net.cpp:122] Setting up Convolution17
I1013 22:23:58.925773 13701 net.cpp:129] Top shape: 50 320 14 14 (3136000)
I1013 22:23:58.925776 13701 net.cpp:137] Memory required for data: 1420451800
I1013 22:23:58.925782 13701 layer_factory.hpp:77] Creating layer Eltwise7
I1013 22:23:58.925791 13701 net.cpp:84] Creating Layer Eltwise7
I1013 22:23:58.925804 13701 net.cpp:406] Eltwise7 <- Convolution17
I1013 22:23:58.925809 13701 net.cpp:406] Eltwise7 <- Eltwise6_penlu12_0_split_1
I1013 22:23:58.925813 13701 net.cpp:380] Eltwise7 -> Eltwise7
I1013 22:23:58.925855 13701 net.cpp:122] Setting up Eltwise7
I1013 22:23:58.925860 13701 net.cpp:129] Top shape: 50 320 14 14 (3136000)
I1013 22:23:58.925863 13701 net.cpp:137] Memory required for data: 1432995800
I1013 22:23:58.925864 13701 layer_factory.hpp:77] Creating layer BatchNorm14
I1013 22:23:58.925869 13701 net.cpp:84] Creating Layer BatchNorm14
I1013 22:23:58.925873 13701 net.cpp:406] BatchNorm14 <- Eltwise7
I1013 22:23:58.925875 13701 net.cpp:367] BatchNorm14 -> Eltwise7 (in-place)
I1013 22:23:58.926106 13701 net.cpp:122] Setting up BatchNorm14
I1013 22:23:58.926112 13701 net.cpp:129] Top shape: 50 320 14 14 (3136000)
I1013 22:23:58.926115 13701 net.cpp:137] Memory required for data: 1445539800
I1013 22:23:58.926120 13701 layer_factory.hpp:77] Creating layer Scale14
I1013 22:23:58.926125 13701 net.cpp:84] Creating Layer Scale14
I1013 22:23:58.926126 13701 net.cpp:406] Scale14 <- Eltwise7
I1013 22:23:58.926151 13701 net.cpp:367] Scale14 -> Eltwise7 (in-place)
I1013 22:23:58.926205 13701 layer_factory.hpp:77] Creating layer Scale14
I1013 22:23:58.926323 13701 net.cpp:122] Setting up Scale14
I1013 22:23:58.926329 13701 net.cpp:129] Top shape: 50 320 14 14 (3136000)
I1013 22:23:58.926342 13701 net.cpp:137] Memory required for data: 1458083800
I1013 22:23:58.926347 13701 layer_factory.hpp:77] Creating layer penlu14
I1013 22:23:58.926352 13701 net.cpp:84] Creating Layer penlu14
I1013 22:23:58.926353 13701 net.cpp:406] penlu14 <- Eltwise7
I1013 22:23:58.926357 13701 net.cpp:367] penlu14 -> Eltwise7 (in-place)
I1013 22:23:58.926558 13701 net.cpp:122] Setting up penlu14
I1013 22:23:58.926563 13701 net.cpp:129] Top shape: 50 320 14 14 (3136000)
I1013 22:23:58.926565 13701 net.cpp:137] Memory required for data: 1470627800
I1013 22:23:58.926602 13701 layer_factory.hpp:77] Creating layer Eltwise7_penlu14_0_split
I1013 22:23:58.926607 13701 net.cpp:84] Creating Layer Eltwise7_penlu14_0_split
I1013 22:23:58.926610 13701 net.cpp:406] Eltwise7_penlu14_0_split <- Eltwise7
I1013 22:23:58.926614 13701 net.cpp:380] Eltwise7_penlu14_0_split -> Eltwise7_penlu14_0_split_0
I1013 22:23:58.926627 13701 net.cpp:380] Eltwise7_penlu14_0_split -> Eltwise7_penlu14_0_split_1
I1013 22:23:58.926681 13701 net.cpp:122] Setting up Eltwise7_penlu14_0_split
I1013 22:23:58.926693 13701 net.cpp:129] Top shape: 50 320 14 14 (3136000)
I1013 22:23:58.926697 13701 net.cpp:129] Top shape: 50 320 14 14 (3136000)
I1013 22:23:58.926698 13701 net.cpp:137] Memory required for data: 1495715800
I1013 22:23:58.926710 13701 layer_factory.hpp:77] Creating layer Convolution18
I1013 22:23:58.926718 13701 net.cpp:84] Creating Layer Convolution18
I1013 22:23:58.926720 13701 net.cpp:406] Convolution18 <- Eltwise7_penlu14_0_split_0
I1013 22:23:58.926734 13701 net.cpp:380] Convolution18 -> Convolution18
I1013 22:23:58.954195 13701 net.cpp:122] Setting up Convolution18
I1013 22:23:58.954224 13701 net.cpp:129] Top shape: 50 320 14 14 (3136000)
I1013 22:23:58.954227 13701 net.cpp:137] Memory required for data: 1508259800
I1013 22:23:58.954232 13701 layer_factory.hpp:77] Creating layer BatchNorm15
I1013 22:23:58.954251 13701 net.cpp:84] Creating Layer BatchNorm15
I1013 22:23:58.954255 13701 net.cpp:406] BatchNorm15 <- Convolution18
I1013 22:23:58.954260 13701 net.cpp:367] BatchNorm15 -> Convolution18 (in-place)
I1013 22:23:58.954474 13701 net.cpp:122] Setting up BatchNorm15
I1013 22:23:58.954480 13701 net.cpp:129] Top shape: 50 320 14 14 (3136000)
I1013 22:23:58.954493 13701 net.cpp:137] Memory required for data: 1520803800
I1013 22:23:58.954499 13701 layer_factory.hpp:77] Creating layer Scale15
I1013 22:23:58.954504 13701 net.cpp:84] Creating Layer Scale15
I1013 22:23:58.954516 13701 net.cpp:406] Scale15 <- Convolution18
I1013 22:23:58.954522 13701 net.cpp:367] Scale15 -> Convolution18 (in-place)
I1013 22:23:58.954586 13701 layer_factory.hpp:77] Creating layer Scale15
I1013 22:23:58.954718 13701 net.cpp:122] Setting up Scale15
I1013 22:23:58.954723 13701 net.cpp:129] Top shape: 50 320 14 14 (3136000)
I1013 22:23:58.954726 13701 net.cpp:137] Memory required for data: 1533347800
I1013 22:23:58.954730 13701 layer_factory.hpp:77] Creating layer penlu15
I1013 22:23:58.954736 13701 net.cpp:84] Creating Layer penlu15
I1013 22:23:58.954738 13701 net.cpp:406] penlu15 <- Convolution18
I1013 22:23:58.954742 13701 net.cpp:367] penlu15 -> Convolution18 (in-place)
I1013 22:23:58.954946 13701 net.cpp:122] Setting up penlu15
I1013 22:23:58.954952 13701 net.cpp:129] Top shape: 50 320 14 14 (3136000)
I1013 22:23:58.954954 13701 net.cpp:137] Memory required for data: 1545891800
I1013 22:23:58.954959 13701 layer_factory.hpp:77] Creating layer Convolution19
I1013 22:23:58.954965 13701 net.cpp:84] Creating Layer Convolution19
I1013 22:23:58.954968 13701 net.cpp:406] Convolution19 <- Convolution18
I1013 22:23:58.954982 13701 net.cpp:380] Convolution19 -> Convolution19
I1013 22:23:58.982281 13701 net.cpp:122] Setting up Convolution19
I1013 22:23:58.982300 13701 net.cpp:129] Top shape: 50 320 14 14 (3136000)
I1013 22:23:58.982313 13701 net.cpp:137] Memory required for data: 1558435800
I1013 22:23:58.982328 13701 layer_factory.hpp:77] Creating layer Eltwise8
I1013 22:23:58.982338 13701 net.cpp:84] Creating Layer Eltwise8
I1013 22:23:58.982342 13701 net.cpp:406] Eltwise8 <- Convolution19
I1013 22:23:58.982347 13701 net.cpp:406] Eltwise8 <- Eltwise7_penlu14_0_split_1
I1013 22:23:58.982352 13701 net.cpp:380] Eltwise8 -> Eltwise8
I1013 22:23:58.982406 13701 net.cpp:122] Setting up Eltwise8
I1013 22:23:58.982420 13701 net.cpp:129] Top shape: 50 320 14 14 (3136000)
I1013 22:23:58.982422 13701 net.cpp:137] Memory required for data: 1570979800
I1013 22:23:58.982424 13701 layer_factory.hpp:77] Creating layer Eltwise8_Eltwise8_0_split
I1013 22:23:58.982439 13701 net.cpp:84] Creating Layer Eltwise8_Eltwise8_0_split
I1013 22:23:58.982441 13701 net.cpp:406] Eltwise8_Eltwise8_0_split <- Eltwise8
I1013 22:23:58.982445 13701 net.cpp:380] Eltwise8_Eltwise8_0_split -> Eltwise8_Eltwise8_0_split_0
I1013 22:23:58.982460 13701 net.cpp:380] Eltwise8_Eltwise8_0_split -> Eltwise8_Eltwise8_0_split_1
I1013 22:23:58.982511 13701 net.cpp:122] Setting up Eltwise8_Eltwise8_0_split
I1013 22:23:58.982517 13701 net.cpp:129] Top shape: 50 320 14 14 (3136000)
I1013 22:23:58.982529 13701 net.cpp:129] Top shape: 50 320 14 14 (3136000)
I1013 22:23:58.982532 13701 net.cpp:137] Memory required for data: 1596067800
I1013 22:23:58.982533 13701 layer_factory.hpp:77] Creating layer Convolution20
I1013 22:23:58.982551 13701 net.cpp:84] Creating Layer Convolution20
I1013 22:23:58.982554 13701 net.cpp:406] Convolution20 <- Eltwise8_Eltwise8_0_split_0
I1013 22:23:58.982560 13701 net.cpp:380] Convolution20 -> Convolution20
I1013 22:23:59.035020 13701 net.cpp:122] Setting up Convolution20
I1013 22:23:59.035042 13701 net.cpp:129] Top shape: 50 640 7 7 (1568000)
I1013 22:23:59.035044 13701 net.cpp:137] Memory required for data: 1602339800
I1013 22:23:59.035050 13701 layer_factory.hpp:77] Creating layer BatchNorm16
I1013 22:23:59.035070 13701 net.cpp:84] Creating Layer BatchNorm16
I1013 22:23:59.035075 13701 net.cpp:406] BatchNorm16 <- Convolution20
I1013 22:23:59.035080 13701 net.cpp:367] BatchNorm16 -> Convolution20 (in-place)
I1013 22:23:59.035300 13701 net.cpp:122] Setting up BatchNorm16
I1013 22:23:59.035306 13701 net.cpp:129] Top shape: 50 640 7 7 (1568000)
I1013 22:23:59.035308 13701 net.cpp:137] Memory required for data: 1608611800
I1013 22:23:59.035313 13701 layer_factory.hpp:77] Creating layer Scale16
I1013 22:23:59.035320 13701 net.cpp:84] Creating Layer Scale16
I1013 22:23:59.035321 13701 net.cpp:406] Scale16 <- Convolution20
I1013 22:23:59.035325 13701 net.cpp:367] Scale16 -> Convolution20 (in-place)
I1013 22:23:59.035394 13701 layer_factory.hpp:77] Creating layer Scale16
I1013 22:23:59.035553 13701 net.cpp:122] Setting up Scale16
I1013 22:23:59.035558 13701 net.cpp:129] Top shape: 50 640 7 7 (1568000)
I1013 22:23:59.035560 13701 net.cpp:137] Memory required for data: 1614883800
I1013 22:23:59.035564 13701 layer_factory.hpp:77] Creating layer penlu16
I1013 22:23:59.035570 13701 net.cpp:84] Creating Layer penlu16
I1013 22:23:59.035573 13701 net.cpp:406] penlu16 <- Convolution20
I1013 22:23:59.035578 13701 net.cpp:367] penlu16 -> Convolution20 (in-place)
I1013 22:23:59.035756 13701 net.cpp:122] Setting up penlu16
I1013 22:23:59.035763 13701 net.cpp:129] Top shape: 50 640 7 7 (1568000)
I1013 22:23:59.035764 13701 net.cpp:137] Memory required for data: 1621155800
I1013 22:23:59.035768 13701 layer_factory.hpp:77] Creating layer Convolution21
I1013 22:23:59.035776 13701 net.cpp:84] Creating Layer Convolution21
I1013 22:23:59.035779 13701 net.cpp:406] Convolution21 <- Convolution20
I1013 22:23:59.035792 13701 net.cpp:380] Convolution21 -> Convolution21
I1013 22:23:59.140161 13701 net.cpp:122] Setting up Convolution21
I1013 22:23:59.140183 13701 net.cpp:129] Top shape: 50 640 7 7 (1568000)
I1013 22:23:59.140187 13701 net.cpp:137] Memory required for data: 1627427800
I1013 22:23:59.140192 13701 layer_factory.hpp:77] Creating layer Convolution22
I1013 22:23:59.140240 13701 net.cpp:84] Creating Layer Convolution22
I1013 22:23:59.140245 13701 net.cpp:406] Convolution22 <- Eltwise8_Eltwise8_0_split_1
I1013 22:23:59.140254 13701 net.cpp:380] Convolution22 -> Convolution22
I1013 22:23:59.146751 13701 net.cpp:122] Setting up Convolution22
I1013 22:23:59.146761 13701 net.cpp:129] Top shape: 50 640 7 7 (1568000)
I1013 22:23:59.146764 13701 net.cpp:137] Memory required for data: 1633699800
I1013 22:23:59.146769 13701 layer_factory.hpp:77] Creating layer Eltwise9
I1013 22:23:59.146787 13701 net.cpp:84] Creating Layer Eltwise9
I1013 22:23:59.146790 13701 net.cpp:406] Eltwise9 <- Convolution21
I1013 22:23:59.146795 13701 net.cpp:406] Eltwise9 <- Convolution22
I1013 22:23:59.146808 13701 net.cpp:380] Eltwise9 -> Eltwise9
I1013 22:23:59.146853 13701 net.cpp:122] Setting up Eltwise9
I1013 22:23:59.146858 13701 net.cpp:129] Top shape: 50 640 7 7 (1568000)
I1013 22:23:59.146872 13701 net.cpp:137] Memory required for data: 1639971800
I1013 22:23:59.146875 13701 layer_factory.hpp:77] Creating layer BatchNorm17
I1013 22:23:59.146881 13701 net.cpp:84] Creating Layer BatchNorm17
I1013 22:23:59.146893 13701 net.cpp:406] BatchNorm17 <- Eltwise9
I1013 22:23:59.146896 13701 net.cpp:367] BatchNorm17 -> Eltwise9 (in-place)
I1013 22:23:59.147088 13701 net.cpp:122] Setting up BatchNorm17
I1013 22:23:59.147092 13701 net.cpp:129] Top shape: 50 640 7 7 (1568000)
I1013 22:23:59.147094 13701 net.cpp:137] Memory required for data: 1646243800
I1013 22:23:59.147099 13701 layer_factory.hpp:77] Creating layer Scale17
I1013 22:23:59.147105 13701 net.cpp:84] Creating Layer Scale17
I1013 22:23:59.147109 13701 net.cpp:406] Scale17 <- Eltwise9
I1013 22:23:59.147121 13701 net.cpp:367] Scale17 -> Eltwise9 (in-place)
I1013 22:23:59.147166 13701 layer_factory.hpp:77] Creating layer Scale17
I1013 22:23:59.147281 13701 net.cpp:122] Setting up Scale17
I1013 22:23:59.147286 13701 net.cpp:129] Top shape: 50 640 7 7 (1568000)
I1013 22:23:59.147289 13701 net.cpp:137] Memory required for data: 1652515800
I1013 22:23:59.147292 13701 layer_factory.hpp:77] Creating layer penlu17
I1013 22:23:59.147308 13701 net.cpp:84] Creating Layer penlu17
I1013 22:23:59.147311 13701 net.cpp:406] penlu17 <- Eltwise9
I1013 22:23:59.147315 13701 net.cpp:367] penlu17 -> Eltwise9 (in-place)
I1013 22:23:59.147470 13701 net.cpp:122] Setting up penlu17
I1013 22:23:59.147475 13701 net.cpp:129] Top shape: 50 640 7 7 (1568000)
I1013 22:23:59.147477 13701 net.cpp:137] Memory required for data: 1658787800
I1013 22:23:59.147482 13701 layer_factory.hpp:77] Creating layer Eltwise9_penlu17_0_split
I1013 22:23:59.147497 13701 net.cpp:84] Creating Layer Eltwise9_penlu17_0_split
I1013 22:23:59.147500 13701 net.cpp:406] Eltwise9_penlu17_0_split <- Eltwise9
I1013 22:23:59.147503 13701 net.cpp:380] Eltwise9_penlu17_0_split -> Eltwise9_penlu17_0_split_0
I1013 22:23:59.147507 13701 net.cpp:380] Eltwise9_penlu17_0_split -> Eltwise9_penlu17_0_split_1
I1013 22:23:59.147548 13701 net.cpp:122] Setting up Eltwise9_penlu17_0_split
I1013 22:23:59.147553 13701 net.cpp:129] Top shape: 50 640 7 7 (1568000)
I1013 22:23:59.147557 13701 net.cpp:129] Top shape: 50 640 7 7 (1568000)
I1013 22:23:59.147558 13701 net.cpp:137] Memory required for data: 1671331800
I1013 22:23:59.147570 13701 layer_factory.hpp:77] Creating layer Convolution23
I1013 22:23:59.147575 13701 net.cpp:84] Creating Layer Convolution23
I1013 22:23:59.147578 13701 net.cpp:406] Convolution23 <- Eltwise9_penlu17_0_split_0
I1013 22:23:59.147583 13701 net.cpp:380] Convolution23 -> Convolution23
I1013 22:23:59.252117 13701 net.cpp:122] Setting up Convolution23
I1013 22:23:59.252140 13701 net.cpp:129] Top shape: 50 640 7 7 (1568000)
I1013 22:23:59.252142 13701 net.cpp:137] Memory required for data: 1677603800
I1013 22:23:59.252147 13701 layer_factory.hpp:77] Creating layer BatchNorm18
I1013 22:23:59.252157 13701 net.cpp:84] Creating Layer BatchNorm18
I1013 22:23:59.252163 13701 net.cpp:406] BatchNorm18 <- Convolution23
I1013 22:23:59.252177 13701 net.cpp:367] BatchNorm18 -> Convolution23 (in-place)
I1013 22:23:59.252401 13701 net.cpp:122] Setting up BatchNorm18
I1013 22:23:59.252408 13701 net.cpp:129] Top shape: 50 640 7 7 (1568000)
I1013 22:23:59.252409 13701 net.cpp:137] Memory required for data: 1683875800
I1013 22:23:59.252414 13701 layer_factory.hpp:77] Creating layer Scale18
I1013 22:23:59.252420 13701 net.cpp:84] Creating Layer Scale18
I1013 22:23:59.252424 13701 net.cpp:406] Scale18 <- Convolution23
I1013 22:23:59.252426 13701 net.cpp:367] Scale18 -> Convolution23 (in-place)
I1013 22:23:59.252496 13701 layer_factory.hpp:77] Creating layer Scale18
I1013 22:23:59.252655 13701 net.cpp:122] Setting up Scale18
I1013 22:23:59.252660 13701 net.cpp:129] Top shape: 50 640 7 7 (1568000)
I1013 22:23:59.252662 13701 net.cpp:137] Memory required for data: 1690147800
I1013 22:23:59.252666 13701 layer_factory.hpp:77] Creating layer penlu18
I1013 22:23:59.252672 13701 net.cpp:84] Creating Layer penlu18
I1013 22:23:59.252676 13701 net.cpp:406] penlu18 <- Convolution23
I1013 22:23:59.252678 13701 net.cpp:367] penlu18 -> Convolution23 (in-place)
I1013 22:23:59.252859 13701 net.cpp:122] Setting up penlu18
I1013 22:23:59.252866 13701 net.cpp:129] Top shape: 50 640 7 7 (1568000)
I1013 22:23:59.252867 13701 net.cpp:137] Memory required for data: 1696419800
I1013 22:23:59.252871 13701 layer_factory.hpp:77] Creating layer Convolution24
I1013 22:23:59.252879 13701 net.cpp:84] Creating Layer Convolution24
I1013 22:23:59.252882 13701 net.cpp:406] Convolution24 <- Convolution23
I1013 22:23:59.252897 13701 net.cpp:380] Convolution24 -> Convolution24
I1013 22:23:59.356922 13701 net.cpp:122] Setting up Convolution24
I1013 22:23:59.356945 13701 net.cpp:129] Top shape: 50 640 7 7 (1568000)
I1013 22:23:59.356950 13701 net.cpp:137] Memory required for data: 1702691800
I1013 22:23:59.356956 13701 layer_factory.hpp:77] Creating layer Eltwise10
I1013 22:23:59.356977 13701 net.cpp:84] Creating Layer Eltwise10
I1013 22:23:59.356983 13701 net.cpp:406] Eltwise10 <- Convolution24
I1013 22:23:59.357003 13701 net.cpp:406] Eltwise10 <- Eltwise9_penlu17_0_split_1
I1013 22:23:59.357008 13701 net.cpp:380] Eltwise10 -> Eltwise10
I1013 22:23:59.357072 13701 net.cpp:122] Setting up Eltwise10
I1013 22:23:59.357087 13701 net.cpp:129] Top shape: 50 640 7 7 (1568000)
I1013 22:23:59.357089 13701 net.cpp:137] Memory required for data: 1708963800
I1013 22:23:59.357106 13701 layer_factory.hpp:77] Creating layer BatchNorm19
I1013 22:23:59.357112 13701 net.cpp:84] Creating Layer BatchNorm19
I1013 22:23:59.357125 13701 net.cpp:406] BatchNorm19 <- Eltwise10
I1013 22:23:59.357127 13701 net.cpp:367] BatchNorm19 -> Eltwise10 (in-place)
I1013 22:23:59.357352 13701 net.cpp:122] Setting up BatchNorm19
I1013 22:23:59.357358 13701 net.cpp:129] Top shape: 50 640 7 7 (1568000)
I1013 22:23:59.357360 13701 net.cpp:137] Memory required for data: 1715235800
I1013 22:23:59.357365 13701 layer_factory.hpp:77] Creating layer Scale19
I1013 22:23:59.357372 13701 net.cpp:84] Creating Layer Scale19
I1013 22:23:59.357373 13701 net.cpp:406] Scale19 <- Eltwise10
I1013 22:23:59.357376 13701 net.cpp:367] Scale19 -> Eltwise10 (in-place)
I1013 22:23:59.357450 13701 layer_factory.hpp:77] Creating layer Scale19
I1013 22:23:59.357611 13701 net.cpp:122] Setting up Scale19
I1013 22:23:59.357616 13701 net.cpp:129] Top shape: 50 640 7 7 (1568000)
I1013 22:23:59.357619 13701 net.cpp:137] Memory required for data: 1721507800
I1013 22:23:59.357622 13701 layer_factory.hpp:77] Creating layer penlu19
I1013 22:23:59.357628 13701 net.cpp:84] Creating Layer penlu19
I1013 22:23:59.357631 13701 net.cpp:406] penlu19 <- Eltwise10
I1013 22:23:59.357635 13701 net.cpp:367] penlu19 -> Eltwise10 (in-place)
I1013 22:23:59.357820 13701 net.cpp:122] Setting up penlu19
I1013 22:23:59.357826 13701 net.cpp:129] Top shape: 50 640 7 7 (1568000)
I1013 22:23:59.357828 13701 net.cpp:137] Memory required for data: 1727779800
I1013 22:23:59.357832 13701 layer_factory.hpp:77] Creating layer Eltwise10_penlu19_0_split
I1013 22:23:59.357836 13701 net.cpp:84] Creating Layer Eltwise10_penlu19_0_split
I1013 22:23:59.357839 13701 net.cpp:406] Eltwise10_penlu19_0_split <- Eltwise10
I1013 22:23:59.357864 13701 net.cpp:380] Eltwise10_penlu19_0_split -> Eltwise10_penlu19_0_split_0
I1013 22:23:59.357880 13701 net.cpp:380] Eltwise10_penlu19_0_split -> Eltwise10_penlu19_0_split_1
I1013 22:23:59.357940 13701 net.cpp:122] Setting up Eltwise10_penlu19_0_split
I1013 22:23:59.357959 13701 net.cpp:129] Top shape: 50 640 7 7 (1568000)
I1013 22:23:59.357961 13701 net.cpp:129] Top shape: 50 640 7 7 (1568000)
I1013 22:23:59.357964 13701 net.cpp:137] Memory required for data: 1740323800
I1013 22:23:59.357965 13701 layer_factory.hpp:77] Creating layer Convolution25
I1013 22:23:59.357972 13701 net.cpp:84] Creating Layer Convolution25
I1013 22:23:59.357975 13701 net.cpp:406] Convolution25 <- Eltwise10_penlu19_0_split_0
I1013 22:23:59.357980 13701 net.cpp:380] Convolution25 -> Convolution25
I1013 22:23:59.462164 13701 net.cpp:122] Setting up Convolution25
I1013 22:23:59.462189 13701 net.cpp:129] Top shape: 50 640 7 7 (1568000)
I1013 22:23:59.462193 13701 net.cpp:137] Memory required for data: 1746595800
I1013 22:23:59.462200 13701 layer_factory.hpp:77] Creating layer BatchNorm20
I1013 22:23:59.462210 13701 net.cpp:84] Creating Layer BatchNorm20
I1013 22:23:59.462225 13701 net.cpp:406] BatchNorm20 <- Convolution25
I1013 22:23:59.462231 13701 net.cpp:367] BatchNorm20 -> Convolution25 (in-place)
I1013 22:23:59.462468 13701 net.cpp:122] Setting up BatchNorm20
I1013 22:23:59.462476 13701 net.cpp:129] Top shape: 50 640 7 7 (1568000)
I1013 22:23:59.462477 13701 net.cpp:137] Memory required for data: 1752867800
I1013 22:23:59.462483 13701 layer_factory.hpp:77] Creating layer Scale20
I1013 22:23:59.462489 13701 net.cpp:84] Creating Layer Scale20
I1013 22:23:59.462492 13701 net.cpp:406] Scale20 <- Convolution25
I1013 22:23:59.462507 13701 net.cpp:367] Scale20 -> Convolution25 (in-place)
I1013 22:23:59.462580 13701 layer_factory.hpp:77] Creating layer Scale20
I1013 22:23:59.462702 13701 net.cpp:122] Setting up Scale20
I1013 22:23:59.462707 13701 net.cpp:129] Top shape: 50 640 7 7 (1568000)
I1013 22:23:59.462709 13701 net.cpp:137] Memory required for data: 1759139800
I1013 22:23:59.462713 13701 layer_factory.hpp:77] Creating layer penlu20
I1013 22:23:59.462720 13701 net.cpp:84] Creating Layer penlu20
I1013 22:23:59.462723 13701 net.cpp:406] penlu20 <- Convolution25
I1013 22:23:59.462736 13701 net.cpp:367] penlu20 -> Convolution25 (in-place)
I1013 22:23:59.462896 13701 net.cpp:122] Setting up penlu20
I1013 22:23:59.462901 13701 net.cpp:129] Top shape: 50 640 7 7 (1568000)
I1013 22:23:59.462903 13701 net.cpp:137] Memory required for data: 1765411800
I1013 22:23:59.462908 13701 layer_factory.hpp:77] Creating layer Convolution26
I1013 22:23:59.462915 13701 net.cpp:84] Creating Layer Convolution26
I1013 22:23:59.462918 13701 net.cpp:406] Convolution26 <- Convolution25
I1013 22:23:59.462932 13701 net.cpp:380] Convolution26 -> Convolution26
I1013 22:23:59.567215 13701 net.cpp:122] Setting up Convolution26
I1013 22:23:59.567239 13701 net.cpp:129] Top shape: 50 640 7 7 (1568000)
I1013 22:23:59.567241 13701 net.cpp:137] Memory required for data: 1771683800
I1013 22:23:59.567248 13701 layer_factory.hpp:77] Creating layer Eltwise11
I1013 22:23:59.567268 13701 net.cpp:84] Creating Layer Eltwise11
I1013 22:23:59.567273 13701 net.cpp:406] Eltwise11 <- Convolution26
I1013 22:23:59.567279 13701 net.cpp:406] Eltwise11 <- Eltwise10_penlu19_0_split_1
I1013 22:23:59.567296 13701 net.cpp:380] Eltwise11 -> Eltwise11
I1013 22:23:59.567351 13701 net.cpp:122] Setting up Eltwise11
I1013 22:23:59.567358 13701 net.cpp:129] Top shape: 50 640 7 7 (1568000)
I1013 22:23:59.567359 13701 net.cpp:137] Memory required for data: 1777955800
I1013 22:23:59.567373 13701 layer_factory.hpp:77] Creating layer BatchNorm21
I1013 22:23:59.567378 13701 net.cpp:84] Creating Layer BatchNorm21
I1013 22:23:59.567390 13701 net.cpp:406] BatchNorm21 <- Eltwise11
I1013 22:23:59.567394 13701 net.cpp:367] BatchNorm21 -> Eltwise11 (in-place)
I1013 22:23:59.567625 13701 net.cpp:122] Setting up BatchNorm21
I1013 22:23:59.567629 13701 net.cpp:129] Top shape: 50 640 7 7 (1568000)
I1013 22:23:59.567643 13701 net.cpp:137] Memory required for data: 1784227800
I1013 22:23:59.567659 13701 layer_factory.hpp:77] Creating layer Scale21
I1013 22:23:59.567665 13701 net.cpp:84] Creating Layer Scale21
I1013 22:23:59.567667 13701 net.cpp:406] Scale21 <- Eltwise11
I1013 22:23:59.567682 13701 net.cpp:367] Scale21 -> Eltwise11 (in-place)
I1013 22:23:59.567746 13701 layer_factory.hpp:77] Creating layer Scale21
I1013 22:23:59.567868 13701 net.cpp:122] Setting up Scale21
I1013 22:23:59.567874 13701 net.cpp:129] Top shape: 50 640 7 7 (1568000)
I1013 22:23:59.567876 13701 net.cpp:137] Memory required for data: 1790499800
I1013 22:23:59.567879 13701 layer_factory.hpp:77] Creating layer penlu21
I1013 22:23:59.567885 13701 net.cpp:84] Creating Layer penlu21
I1013 22:23:59.567888 13701 net.cpp:406] penlu21 <- Eltwise11
I1013 22:23:59.567891 13701 net.cpp:367] penlu21 -> Eltwise11 (in-place)
I1013 22:23:59.568063 13701 net.cpp:122] Setting up penlu21
I1013 22:23:59.568068 13701 net.cpp:129] Top shape: 50 640 7 7 (1568000)
I1013 22:23:59.568070 13701 net.cpp:137] Memory required for data: 1796771800
I1013 22:23:59.568075 13701 layer_factory.hpp:77] Creating layer Eltwise11_penlu21_0_split
I1013 22:23:59.568079 13701 net.cpp:84] Creating Layer Eltwise11_penlu21_0_split
I1013 22:23:59.568081 13701 net.cpp:406] Eltwise11_penlu21_0_split <- Eltwise11
I1013 22:23:59.568089 13701 net.cpp:380] Eltwise11_penlu21_0_split -> Eltwise11_penlu21_0_split_0
I1013 22:23:59.568102 13701 net.cpp:380] Eltwise11_penlu21_0_split -> Eltwise11_penlu21_0_split_1
I1013 22:23:59.568150 13701 net.cpp:122] Setting up Eltwise11_penlu21_0_split
I1013 22:23:59.568156 13701 net.cpp:129] Top shape: 50 640 7 7 (1568000)
I1013 22:23:59.568158 13701 net.cpp:129] Top shape: 50 640 7 7 (1568000)
I1013 22:23:59.568161 13701 net.cpp:137] Memory required for data: 1809315800
I1013 22:23:59.568163 13701 layer_factory.hpp:77] Creating layer Convolution27
I1013 22:23:59.568169 13701 net.cpp:84] Creating Layer Convolution27
I1013 22:23:59.568171 13701 net.cpp:406] Convolution27 <- Eltwise11_penlu21_0_split_0
I1013 22:23:59.568176 13701 net.cpp:380] Convolution27 -> Convolution27
I1013 22:23:59.672487 13701 net.cpp:122] Setting up Convolution27
I1013 22:23:59.672513 13701 net.cpp:129] Top shape: 50 640 7 7 (1568000)
I1013 22:23:59.672515 13701 net.cpp:137] Memory required for data: 1815587800
I1013 22:23:59.672524 13701 layer_factory.hpp:77] Creating layer BatchNorm22
I1013 22:23:59.672533 13701 net.cpp:84] Creating Layer BatchNorm22
I1013 22:23:59.672549 13701 net.cpp:406] BatchNorm22 <- Convolution27
I1013 22:23:59.672556 13701 net.cpp:367] BatchNorm22 -> Convolution27 (in-place)
I1013 22:23:59.672796 13701 net.cpp:122] Setting up BatchNorm22
I1013 22:23:59.672802 13701 net.cpp:129] Top shape: 50 640 7 7 (1568000)
I1013 22:23:59.672804 13701 net.cpp:137] Memory required for data: 1821859800
I1013 22:23:59.672809 13701 layer_factory.hpp:77] Creating layer Scale22
I1013 22:23:59.672816 13701 net.cpp:84] Creating Layer Scale22
I1013 22:23:59.672818 13701 net.cpp:406] Scale22 <- Convolution27
I1013 22:23:59.672832 13701 net.cpp:367] Scale22 -> Convolution27 (in-place)
I1013 22:23:59.672896 13701 layer_factory.hpp:77] Creating layer Scale22
I1013 22:23:59.673061 13701 net.cpp:122] Setting up Scale22
I1013 22:23:59.673068 13701 net.cpp:129] Top shape: 50 640 7 7 (1568000)
I1013 22:23:59.673069 13701 net.cpp:137] Memory required for data: 1828131800
I1013 22:23:59.673074 13701 layer_factory.hpp:77] Creating layer penlu22
I1013 22:23:59.673080 13701 net.cpp:84] Creating Layer penlu22
I1013 22:23:59.673084 13701 net.cpp:406] penlu22 <- Convolution27
I1013 22:23:59.673097 13701 net.cpp:367] penlu22 -> Convolution27 (in-place)
I1013 22:23:59.673270 13701 net.cpp:122] Setting up penlu22
I1013 22:23:59.673276 13701 net.cpp:129] Top shape: 50 640 7 7 (1568000)
I1013 22:23:59.673279 13701 net.cpp:137] Memory required for data: 1834403800
I1013 22:23:59.673283 13701 layer_factory.hpp:77] Creating layer Convolution28
I1013 22:23:59.673290 13701 net.cpp:84] Creating Layer Convolution28
I1013 22:23:59.673315 13701 net.cpp:406] Convolution28 <- Convolution27
I1013 22:23:59.673332 13701 net.cpp:380] Convolution28 -> Convolution28
I1013 22:23:59.777521 13701 net.cpp:122] Setting up Convolution28
I1013 22:23:59.777545 13701 net.cpp:129] Top shape: 50 640 7 7 (1568000)
I1013 22:23:59.777549 13701 net.cpp:137] Memory required for data: 1840675800
I1013 22:23:59.777556 13701 layer_factory.hpp:77] Creating layer Eltwise12
I1013 22:23:59.777577 13701 net.cpp:84] Creating Layer Eltwise12
I1013 22:23:59.777583 13701 net.cpp:406] Eltwise12 <- Convolution28
I1013 22:23:59.777603 13701 net.cpp:406] Eltwise12 <- Eltwise11_penlu21_0_split_1
I1013 22:23:59.777607 13701 net.cpp:380] Eltwise12 -> Eltwise12
I1013 22:23:59.777683 13701 net.cpp:122] Setting up Eltwise12
I1013 22:23:59.777688 13701 net.cpp:129] Top shape: 50 640 7 7 (1568000)
I1013 22:23:59.777704 13701 net.cpp:137] Memory required for data: 1846947800
I1013 22:23:59.777706 13701 layer_factory.hpp:77] Creating layer Pooling1
I1013 22:23:59.777712 13701 net.cpp:84] Creating Layer Pooling1
I1013 22:23:59.777725 13701 net.cpp:406] Pooling1 <- Eltwise12
I1013 22:23:59.777741 13701 net.cpp:380] Pooling1 -> Pooling1
I1013 22:23:59.777935 13701 net.cpp:122] Setting up Pooling1
I1013 22:23:59.777943 13701 net.cpp:129] Top shape: 50 640 1 1 (32000)
I1013 22:23:59.777945 13701 net.cpp:137] Memory required for data: 1847075800
I1013 22:23:59.777948 13701 layer_factory.hpp:77] Creating layer InnerProduct1
I1013 22:23:59.777952 13701 net.cpp:84] Creating Layer InnerProduct1
I1013 22:23:59.777956 13701 net.cpp:406] InnerProduct1 <- Pooling1
I1013 22:23:59.777959 13701 net.cpp:380] InnerProduct1 -> InnerProduct1
I1013 22:23:59.778784 13701 net.cpp:122] Setting up InnerProduct1
I1013 22:23:59.778794 13701 net.cpp:129] Top shape: 50 100 (5000)
I1013 22:23:59.778795 13701 net.cpp:137] Memory required for data: 1847095800
I1013 22:23:59.778800 13701 layer_factory.hpp:77] Creating layer InnerProduct1_InnerProduct1_0_split
I1013 22:23:59.778805 13701 net.cpp:84] Creating Layer InnerProduct1_InnerProduct1_0_split
I1013 22:23:59.778808 13701 net.cpp:406] InnerProduct1_InnerProduct1_0_split <- InnerProduct1
I1013 22:23:59.778823 13701 net.cpp:380] InnerProduct1_InnerProduct1_0_split -> InnerProduct1_InnerProduct1_0_split_0
I1013 22:23:59.778831 13701 net.cpp:380] InnerProduct1_InnerProduct1_0_split -> InnerProduct1_InnerProduct1_0_split_1
I1013 22:23:59.778923 13701 net.cpp:122] Setting up InnerProduct1_InnerProduct1_0_split
I1013 22:23:59.778936 13701 net.cpp:129] Top shape: 50 100 (5000)
I1013 22:23:59.778939 13701 net.cpp:129] Top shape: 50 100 (5000)
I1013 22:23:59.778941 13701 net.cpp:137] Memory required for data: 1847135800
I1013 22:23:59.778944 13701 layer_factory.hpp:77] Creating layer SoftmaxWithLoss1
I1013 22:23:59.778959 13701 net.cpp:84] Creating Layer SoftmaxWithLoss1
I1013 22:23:59.778961 13701 net.cpp:406] SoftmaxWithLoss1 <- InnerProduct1_InnerProduct1_0_split_0
I1013 22:23:59.778964 13701 net.cpp:406] SoftmaxWithLoss1 <- label_cifar_1_split_0
…
