…
I1013 11:27:17.793501 12690 net.cpp:294] The NetState phase (0) differed from the phase (1) specified by a rule in layer accuracy
I1013 11:27:17.793965 12690 net.cpp:51] Initializing net from parameters: 
name: "wrn_28_10"
state {
  phase: TRAIN
  level: 0
  stage: ""
}
layer {
  name: "cifar"
  type: "Data"
  top: "data"
  top: "label"
  include {
    phase: TRAIN
  }
  transform_param {
    mirror: true
    crop_size: 28
    mean_file: "/home/x306/caffe/xn/PENLU/data/cifar100/mean.binaryproto"
  }
  data_param {
    source: "/home/x306/caffe/xn/PENLU/data/cifar100/cifar100_train_lmdb"
    batch_size: 50
    backend: LMDB
  }
}
layer {
  name: "Convolution1"
  type: "Convolution"
  bottom: "data"
  top: "Convolution1"
  convolution_param {
    num_output: 16
    pad: 1
    kernel_size: 3
    stride: 1
    weight_filler {
      type: "msra"
    }
  }
}
layer {
  name: "BatchNorm1"
  type: "BatchNorm"
  bottom: "Convolution1"
  top: "Convolution1"
  param {
    lr_mult: 0
    decay_mult: 0
  }
  param {
    lr_mult: 0
    decay_mult: 0
  }
  param {
    lr_mult: 0
    decay_mult: 0
  }
  batch_norm_param {
    use_global_stats: false
  }
}
layer {
  name: "Scale1"
  type: "Scale"
  bottom: "Convolution1"
  top: "Convolution1"
  scale_param {
    bias_term: true
  }
}
layer {
  name: "penlu1"
  type: "PENLU"
  bottom: "Convolution1"
  top: "Convolution1"
  param {
    lr_mult: 2
    decay_mult: 2
  }
  param {
    lr_mult: 2
    decay_mult: 2
  }
  param {
    lr_mult: 0
    decay_mult: 0
  }
  penlu_param {
    alpha_filler {
      type: "constant"
      value: 0.25
    }
    beta_filler {
      type: "constant"
      value: 1
    }
    eta_filler {
      type: "constant"
      value: 1
    }
  }
}
layer {
  name: "Convolution2"
  type: "Convolution"
  bottom: "Convolution1"
  top: "Convolution2"
  convolution_param {
    num_output: 160
    bias_term: false
    pad: 1
    kernel_size: 3
    stride: 1
    weight_filler {
      type: "msra"
    }
  }
}
layer {
  name: "BatchNorm2"
  type: "BatchNorm"
  bottom: "Convolution2"
  top: "Convolution2"
  param {
    lr_mult: 0
    decay_mult: 0
  }
  param {
    lr_mult: 0
    decay_mult: 0
  }
  param {
    lr_mult: 0
    decay_mult: 0
  }
  batch_norm_param {
    use_global_stats: false
  }
}
layer {
  name: "Scale2"
  type: "Scale"
  bottom: "Convolution2"
  top: "Convolution2"
  scale_param {
    bias_term: true
  }
}
layer {
  name: "penlu2"
  type: "PENLU"
  bottom: "Convolution2"
  top: "Convolution2"
  param {
    lr_mult: 2
    decay_mult: 2
  }
  param {
    lr_mult: 2
    decay_mult: 2
  }
  param {
    lr_mult: 0
    decay_mult: 0
  }
  penlu_param {
    alpha_filler {
      type: "constant"
      value: 0.25
    }
    beta_filler {
      type: "constant"
      value: 1
    }
    eta_filler {
      type: "constant"
      value: 1
    }
  }
}
layer {
  name: "Convolution3"
  type: "Convolution"
  bottom: "Convolution2"
  top: "Convolution3"
  convolution_param {
    num_output: 160
    bias_term: false
    pad: 1
    kernel_size: 3
    stride: 1
    weight_filler {
      type: "msra"
    }
  }
}
layer {
  name: "Convolution4"
  type: "Convolution"
  bottom: "Convolution1"
  top: "Convolution4"
  convolution_param {
    num_output: 160
    bias_term: false
    pad: 0
    kernel_size: 1
    stride: 1
    weight_filler {
      type: "msra"
    }
  }
}
layer {
  name: "Eltwise1"
  type: "Eltwise"
  bottom: "Convolution3"
  bottom: "Convolution4"
  top: "Eltwise1"
  eltwise_param {
    operation: SUM
  }
}
layer {
  name: "BatchNorm3"
  type: "BatchNorm"
  bottom: "Eltwise1"
  top: "Eltwise1"
  param {
    lr_mult: 0
    decay_mult: 0
  }
  param {
    lr_mult: 0
    decay_mult: 0
  }
  param {
    lr_mult: 0
    decay_mult: 0
  }
  batch_norm_param {
    use_global_stats: false
  }
}
layer {
  name: "Scale3"
  type: "Scale"
  bottom: "Eltwise1"
  top: "Eltwise1"
  scale_param {
    bias_term: true
  }
}
layer {
  name: "penlu3"
  type: "PENLU"
  bottom: "Eltwise1"
  top: "Eltwise1"
  param {
    lr_mult: 2
    decay_mult: 2
  }
  param {
    lr_mult: 2
    decay_mult: 2
  }
  param {
    lr_mult: 0
    decay_mult: 0
  }
  penlu_param {
    alpha_filler {
      type: "constant"
      value: 0.25
    }
    beta_filler {
      type: "constant"
      value: 1
    }
    eta_filler {
      type: "constant"
      value: 1
    }
  }
}
layer {
  name: "Convolution5"
  type: "Convolution"
  bottom: "Eltwise1"
  top: "Convolution5"
  convolution_param {
    num_output: 160
    bias_term: false
    pad: 1
    kernel_size: 3
    stride: 1
    weight_filler {
      type: "msra"
    }
  }
}
layer {
  name: "BatchNorm4"
  type: "BatchNorm"
  bottom: "Convolution5"
  top: "Convolution5"
  param {
    lr_mult: 0
    decay_mult: 0
  }
  param {
    lr_mult: 0
    decay_mult: 0
  }
  param {
    lr_mult: 0
    decay_mult: 0
  }
  batch_norm_param {
    use_global_stats: false
  }
}
layer {
  name: "Scale4"
  type: "Scale"
  bottom: "Convolution5"
  top: "Convolution5"
  scale_param {
    bias_term: true
  }
}
layer {
  name: "penlu4"
  type: "PENLU"
  bottom: "Convolution5"
  top: "Convolution5"
  param {
    lr_mult: 2
    decay_mult: 2
  }
  param {
    lr_mult: 2
    decay_mult: 2
  }
  param {
    lr_mult: 0
    decay_mult: 0
  }
  penlu_param {
    alpha_filler {
      type: "constant"
      value: 0.25
    }
    beta_filler {
      type: "constant"
      value: 1
    }
    eta_filler {
      type: "constant"
      value: 1
    }
  }
}
layer {
  name: "Convolution6"
  type: "Convolution"
  bottom: "Convolution5"
  top: "Convolution6"
  convolution_param {
    num_output: 160
    bias_term: false
    pad: 1
    kernel_size: 3
    stride: 1
    weight_filler {
      type: "msra"
    }
  }
}
layer {
  name: "Eltwise2"
  type: "Eltwise"
  bottom: "Convolution6"
  bottom: "Eltwise1"
  top: "Eltwise2"
  eltwise_param {
    operation: SUM
  }
}
layer {
  name: "BatchNorm5"
  type: "BatchNorm"
  bottom: "Eltwise2"
  top: "Eltwise2"
  param {
    lr_mult: 0
    decay_mult: 0
  }
  param {
    lr_mult: 0
    decay_mult: 0
  }
  param {
    lr_mult: 0
    decay_mult: 0
  }
  batch_norm_param {
    use_global_stats: false
  }
}
layer {
  name: "Scale5"
  type: "Scale"
  bottom: "Eltwise2"
  top: "Eltwise2"
  scale_param {
    bias_term: true
  }
}
layer {
  name: "penlu5"
  type: "PENLU"
  bottom: "Eltwise2"
  top: "Eltwise2"
  param {
    lr_mult: 2
    decay_mult: 2
  }
  param {
    lr_mult: 2
    decay_mult: 2
  }
  param {
    lr_mult: 0
    decay_mult: 0
  }
  penlu_param {
    alpha_filler {
      type: "constant"
      value: 0.25
    }
    beta_filler {
      type: "constant"
      value: 1
    }
    eta_filler {
      type: "constant"
      value: 1
    }
  }
}
layer {
  name: "Convolution7"
  type: "Convolution"
  bottom: "Eltwise2"
  top: "Convolution7"
  convolution_param {
    num_output: 160
    bias_term: false
    pad: 1
    kernel_size: 3
    stride: 1
    weight_filler {
      type: "msra"
    }
  }
}
layer {
  name: "BatchNorm6"
  type: "BatchNorm"
  bottom: "Convolution7"
  top: "Convolution7"
  param {
    lr_mult: 0
    decay_mult: 0
  }
  param {
    lr_mult: 0
    decay_mult: 0
  }
  param {
    lr_mult: 0
    decay_mult: 0
  }
  batch_norm_param {
    use_global_stats: false
  }
}
layer {
  name: "Scale6"
  type: "Scale"
  bottom: "Convolution7"
  top: "Convolution7"
  scale_param {
    bias_term: true
  }
}
layer {
  name: "penlu6"
  type: "PENLU"
  bottom: "Convolution7"
  top: "Convolution7"
  param {
    lr_mult: 2
    decay_mult: 2
  }
  param {
    lr_mult: 2
    decay_mult: 2
  }
  param {
    lr_mult: 0
    decay_mult: 0
  }
  penlu_param {
    alpha_filler {
      type: "constant"
      value: 0.25
    }
    beta_filler {
      type: "constant"
      value: 1
    }
    eta_filler {
      type: "constant"
      value: 1
    }
  }
}
layer {
  name: "Convolution8"
  type: "Convolution"
  bottom: "Convolution7"
  top: "Convolution8"
  convolution_param {
    num_output: 160
    bias_term: false
    pad: 1
    kernel_size: 3
    stride: 1
    weight_filler {
      type: "msra"
    }
  }
}
layer {
  name: "Eltwise3"
  type: "Eltwise"
  bottom: "Convolution8"
  bottom: "Eltwise2"
  top: "Eltwise3"
  eltwise_param {
    operation: SUM
  }
}
layer {
  name: "BatchNorm7"
  type: "BatchNorm"
  bottom: "Eltwise3"
  top: "Eltwise3"
  param {
    lr_mult: 0
    decay_mult: 0
  }
  param {
    lr_mult: 0
    decay_mult: 0
  }
  param {
    lr_mult: 0
    decay_mult: 0
  }
  batch_norm_param {
    use_global_stats: false
  }
}
layer {
  name: "Scale7"
  type: "Scale"
  bottom: "Eltwise3"
  top: "Eltwise3"
  scale_param {
    bias_term: true
  }
}
layer {
  name: "penlu7"
  type: "PENLU"
  bottom: "Eltwise3"
  top: "Eltwise3"
  param {
    lr_mult: 2
    decay_mult: 2
  }
  param {
    lr_mult: 2
    decay_mult: 2
  }
  param {
    lr_mult: 0
    decay_mult: 0
  }
  penlu_param {
    alpha_filler {
      type: "constant"
      value: 0.25
    }
    beta_filler {
      type: "constant"
      value: 1
    }
    eta_filler {
      type: "constant"
      value: 1
    }
  }
}
layer {
  name: "Convolution9"
  type: "Convolution"
  bottom: "Eltwise3"
  top: "Convolution9"
  convolution_param {
    num_output: 160
    bias_term: false
    pad: 1
    kernel_size: 3
    stride: 1
    weight_filler {
      type: "msra"
    }
  }
}
layer {
  name: "BatchNorm8"
  type: "BatchNorm"
  bottom: "Convolution9"
  top: "Convolution9"
  param {
    lr_mult: 0
    decay_mult: 0
  }
  param {
    lr_mult: 0
    decay_mult: 0
  }
  param {
    lr_mult: 0
    decay_mult: 0
  }
  batch_norm_param {
    use_global_stats: false
  }
}
layer {
  name: "Scale8"
  type: "Scale"
  bottom: "Convolution9"
  top: "Convolution9"
  scale_param {
    bias_term: true
  }
}
layer {
  name: "penlu8"
  type: "PENLU"
  bottom: "Convolution9"
  top: "Convolution9"
  param {
    lr_mult: 2
    decay_mult: 2
  }
  param {
    lr_mult: 2
    decay_mult: 2
  }
  param {
    lr_mult: 0
    decay_mult: 0
  }
  penlu_param {
    alpha_filler {
      type: "constant"
      value: 0.25
    }
    beta_filler {
      type: "constant"
      value: 1
    }
    eta_filler {
      type: "constant"
      value: 1
    }
  }
}
layer {
  name: "Convolution10"
  type: "Convolution"
  bottom: "Convolution9"
  top: "Convolution10"
  convolution_param {
    num_output: 160
    bias_term: false
    pad: 1
    kernel_size: 3
    stride: 1
    weight_filler {
      type: "msra"
    }
  }
}
layer {
  name: "Eltwise4"
  type: "Eltwise"
  bottom: "Convolution10"
  bottom: "Eltwise3"
  top: "Eltwise4"
  eltwise_param {
    operation: SUM
  }
}
layer {
  name: "Convolution11"
  type: "Convolution"
  bottom: "Eltwise4"
  top: "Convolution11"
  convolution_param {
    num_output: 320
    bias_term: false
    pad: 1
    kernel_size: 3
    stride: 2
    weight_filler {
      type: "msra"
    }
  }
}
layer {
  name: "BatchNorm9"
  type: "BatchNorm"
  bottom: "Convolution11"
  top: "Convolution11"
  param {
    lr_mult: 0
    decay_mult: 0
  }
  param {
    lr_mult: 0
    decay_mult: 0
  }
  param {
    lr_mult: 0
    decay_mult: 0
  }
  batch_norm_param {
    use_global_stats: false
  }
}
layer {
  name: "Scale9"
  type: "Scale"
  bottom: "Convolution11"
  top: "Convolution11"
  scale_param {
    bias_term: true
  }
}
layer {
  name: "penlu9"
  type: "PENLU"
  bottom: "Convolution11"
  top: "Convolution11"
  param {
    lr_mult: 2
    decay_mult: 2
  }
  param {
    lr_mult: 2
    decay_mult: 2
  }
  param {
    lr_mult: 0
    decay_mult: 0
  }
  penlu_param {
    alpha_filler {
      type: "constant"
      value: 0.25
    }
    beta_filler {
      type: "constant"
      value: 1
    }
    eta_filler {
      type: "constant"
      value: 1
    }
  }
}
layer {
  name: "Convolution12"
  type: "Convolution"
  bottom: "Convolution11"
  top: "Convolution12"
  convolution_param {
    num_output: 320
    bias_term: false
    pad: 1
    kernel_size: 3
    stride: 1
    weight_filler {
      type: "msra"
    }
  }
}
layer {
  name: "Convolution13"
  type: "Convolution"
  bottom: "Eltwise4"
  top: "Convolution13"
  convolution_param {
    num_output: 320
    bias_term: false
    pad: 0
    kernel_size: 1
    stride: 2
    weight_filler {
      type: "msra"
    }
  }
}
layer {
  name: "Eltwise5"
  type: "Eltwise"
  bottom: "Convolution12"
  bottom: "Convolution13"
  top: "Eltwise5"
  eltwise_param {
    operation: SUM
  }
}
layer {
  name: "BatchNorm10"
  type: "BatchNorm"
  bottom: "Eltwise5"
  top: "Eltwise5"
  param {
    lr_mult: 0
    decay_mult: 0
  }
  param {
    lr_mult: 0
    decay_mult: 0
  }
  param {
    lr_mult: 0
    decay_mult: 0
  }
  batch_norm_param {
    use_global_stats: false
  }
}
layer {
  name: "Scale10"
  type: "Scale"
  bottom: "Eltwise5"
  top: "Eltwise5"
  scale_param {
    bias_term: true
  }
}
layer {
  name: "penlu10"
  type: "PENLU"
  bottom: "Eltwise5"
  top: "Eltwise5"
  param {
    lr_mult: 2
    decay_mult: 2
  }
  param {
    lr_mult: 2
    decay_mult: 2
  }
  param {
    lr_mult: 0
    decay_mult: 0
  }
  penlu_param {
    alpha_filler {
      type: "constant"
      value: 0.25
    }
    beta_filler {
      type: "constant"
      value: 1
    }
    eta_filler {
      type: "constant"
      value: 1
    }
  }
}
layer {
  name: "Convolution14"
  type: "Convolution"
  bottom: "Eltwise5"
  top: "Convolution14"
  convolution_param {
    num_output: 320
    bias_term: false
    pad: 1
    kernel_size: 3
    stride: 1
    weight_filler {
      type: "msra"
    }
  }
}
layer {
  name: "BatchNorm11"
  type: "BatchNorm"
  bottom: "Convolution14"
  top: "Convolution14"
  param {
    lr_mult: 0
    decay_mult: 0
  }
  param {
    lr_mult: 0
    decay_mult: 0
  }
  param {
    lr_mult: 0
    decay_mult: 0
  }
  batch_norm_param {
    use_global_stats: false
  }
}
layer {
  name: "Scale11"
  type: "Scale"
  bottom: "Convolution14"
  top: "Convolution14"
  scale_param {
    bias_term: true
  }
}
layer {
  name: "penlu11"
  type: "PENLU"
  bottom: "Convolution14"
  top: "Convolution14"
  param {
    lr_mult: 2
    decay_mult: 2
  }
  param {
    lr_mult: 2
    decay_mult: 2
  }
  param {
    lr_mult: 0
    decay_mult: 0
  }
  penlu_param {
    alpha_filler {
      type: "constant"
      value: 0.25
    }
    beta_filler {
      type: "constant"
      value: 1
    }
    eta_filler {
      type: "constant"
      value: 1
    }
  }
}
layer {
  name: "Convolution15"
  type: "Convolution"
  bottom: "Convolution14"
  top: "Convolution15"
  convolution_param {
    num_output: 320
    bias_term: false
    pad: 1
    kernel_size: 3
    stride: 1
    weight_filler {
      type: "msra"
    }
  }
}
layer {
  name: "Eltwise6"
  type: "Eltwise"
  bottom: "Convolution15"
  bottom: "Eltwise5"
  top: "Eltwise6"
  eltwise_param {
    operation: SUM
  }
}
layer {
  name: "BatchNorm12"
  type: "BatchNorm"
  bottom: "Eltwise6"
  top: "Eltwise6"
  param {
    lr_mult: 0
    decay_mult: 0
  }
  param {
    lr_mult: 0
    decay_mult: 0
  }
  param {
    lr_mult: 0
    decay_mult: 0
  }
  batch_norm_param {
    use_global_stats: false
  }
}
layer {
  name: "Scale12"
  type: "Scale"
  bottom: "Eltwise6"
  top: "Eltwise6"
  scale_param {
    bias_term: true
  }
}
layer {
  name: "penlu12"
  type: "PENLU"
  bottom: "Eltwise6"
  top: "Eltwise6"
  param {
    lr_mult: 2
    decay_mult: 2
  }
  param {
    lr_mult: 2
    decay_mult: 2
  }
  param {
    lr_mult: 0
    decay_mult: 0
  }
  penlu_param {
    alpha_filler {
      type: "constant"
      value: 0.25
    }
    beta_filler {
      type: "constant"
      value: 1
    }
    eta_filler {
      type: "constant"
      value: 1
    }
  }
}
layer {
  name: "Convolution16"
  type: "Convolution"
  bottom: "Eltwise6"
  top: "Convolution16"
  convolution_param {
    num_output: 320
    bias_term: false
    pad: 1
    kernel_size: 3
    stride: 1
    weight_filler {
      type: "msra"
    }
  }
}
layer {
  name: "BatchNorm13"
  type: "BatchNorm"
  bottom: "Convolution16"
  top: "Convolution16"
  param {
    lr_mult: 0
    decay_mult: 0
  }
  param {
    lr_mult: 0
    decay_mult: 0
  }
  param {
    lr_mult: 0
    decay_mult: 0
  }
  batch_norm_param {
    use_global_stats: false
  }
}
layer {
  name: "Scale13"
  type: "Scale"
  bottom: "Convolution16"
  top: "Convolution16"
  scale_param {
    bias_term: true
  }
}
layer {
  name: "penlu13"
  type: "PENLU"
  bottom: "Convolution16"
  top: "Convolution16"
  param {
    lr_mult: 2
    decay_mult: 2
  }
  param {
    lr_mult: 2
    decay_mult: 2
  }
  param {
    lr_mult: 0
    decay_mult: 0
  }
  penlu_param {
    alpha_filler {
      type: "constant"
      value: 0.25
    }
    beta_filler {
      type: "constant"
      value: 1
    }
    eta_filler {
      type: "constant"
      value: 1
    }
  }
}
layer {
  name: "Convolution17"
  type: "Convolution"
  bottom: "Convolution16"
  top: "Convolution17"
  convolution_param {
    num_output: 320
    bias_term: false
    pad: 1
    kernel_size: 3
    stride: 1
    weight_filler {
      type: "msra"
    }
  }
}
layer {
  name: "Eltwise7"
  type: "Eltwise"
  bottom: "Convolution17"
  bottom: "Eltwise6"
  top: "Eltwise7"
  eltwise_param {
    operation: SUM
  }
}
layer {
  name: "BatchNorm14"
  type: "BatchNorm"
  bottom: "Eltwise7"
  top: "Eltwise7"
  param {
    lr_mult: 0
    decay_mult: 0
  }
  param {
    lr_mult: 0
    decay_mult: 0
  }
  param {
    lr_mult: 0
    decay_mult: 0
  }
  batch_norm_param {
    use_global_stats: false
  }
}
layer {
  name: "Scale14"
  type: "Scale"
  bottom: "Eltwise7"
  top: "Eltwise7"
  scale_param {
    bias_term: true
  }
}
layer {
  name: "penlu14"
  type: "PENLU"
  bottom: "Eltwise7"
  top: "Eltwise7"
  param {
    lr_mult: 2
    decay_mult: 2
  }
  param {
    lr_mult: 2
    decay_mult: 2
  }
  param {
    lr_mult: 0
    decay_mult: 0
  }
  penlu_param {
    alpha_filler {
      type: "constant"
      value: 0.25
    }
    beta_filler {
      type: "constant"
      value: 1
    }
    eta_filler {
      type: "constant"
      value: 1
    }
  }
}
layer {
  name: "Convolution18"
  type: "Convolution"
  bottom: "Eltwise7"
  top: "Convolution18"
  convolution_param {
    num_output: 320
    bias_term: false
    pad: 1
    kernel_size: 3
    stride: 1
    weight_filler {
      type: "msra"
    }
  }
}
layer {
  name: "BatchNorm15"
  type: "BatchNorm"
  bottom: "Convolution18"
  top: "Convolution18"
  param {
    lr_mult: 0
    decay_mult: 0
  }
  param {
    lr_mult: 0
    decay_mult: 0
  }
  param {
    lr_mult: 0
    decay_mult: 0
  }
  batch_norm_param {
    use_global_stats: false
  }
}
layer {
  name: "Scale15"
  type: "Scale"
  bottom: "Convolution18"
  top: "Convolution18"
  scale_param {
    bias_term: true
  }
}
layer {
  name: "penlu15"
  type: "PENLU"
  bottom: "Convolution18"
  top: "Convolution18"
  param {
    lr_mult: 2
    decay_mult: 2
  }
  param {
    lr_mult: 2
    decay_mult: 2
  }
  param {
    lr_mult: 0
    decay_mult: 0
  }
  penlu_param {
    alpha_filler {
      type: "constant"
      value: 0.25
    }
    beta_filler {
      type: "constant"
      value: 1
    }
    eta_filler {
      type: "constant"
      value: 1
    }
  }
}
layer {
  name: "Convolution19"
  type: "Convolution"
  bottom: "Convolution18"
  top: "Convolution19"
  convolution_param {
    num_output: 320
    bias_term: false
    pad: 1
    kernel_size: 3
    stride: 1
    weight_filler {
      type: "msra"
    }
  }
}
layer {
  name: "Eltwise8"
  type: "Eltwise"
  bottom: "Convolution19"
  bottom: "Eltwise7"
  top: "Eltwise8"
  eltwise_param {
    operation: SUM
  }
}
layer {
  name: "Convolution20"
  type: "Convolution"
  bottom: "Eltwise8"
  top: "Convolution20"
  convolution_param {
    num_output: 640
    bias_term: false
    pad: 1
    kernel_size: 3
    stride: 2
    weight_filler {
      type: "msra"
    }
  }
}
layer {
  name: "BatchNorm16"
  type: "BatchNorm"
  bottom: "Convolution20"
  top: "Convolution20"
  param {
    lr_mult: 0
    decay_mult: 0
  }
  param {
    lr_mult: 0
    decay_mult: 0
  }
  param {
    lr_mult: 0
    decay_mult: 0
  }
  batch_norm_param {
    use_global_stats: false
  }
}
layer {
  name: "Scale16"
  type: "Scale"
  bottom: "Convolution20"
  top: "Convolution20"
  scale_param {
    bias_term: true
  }
}
layer {
  name: "penlu16"
  type: "PENLU"
  bottom: "Convolution20"
  top: "Convolution20"
  param {
    lr_mult: 2
    decay_mult: 2
  }
  param {
    lr_mult: 2
    decay_mult: 2
  }
  param {
    lr_mult: 0
    decay_mult: 0
  }
  penlu_param {
    alpha_filler {
      type: "constant"
      value: 0.25
    }
    beta_filler {
      type: "constant"
      value: 1
    }
    eta_filler {
      type: "constant"
      value: 1
    }
  }
}
layer {
  name: "Convolution21"
  type: "Convolution"
  bottom: "Convolution20"
  top: "Convolution21"
  convolution_param {
    num_output: 640
    bias_term: false
    pad: 1
    kernel_size: 3
    stride: 1
    weight_filler {
      type: "msra"
    }
  }
}
layer {
  name: "Convolution22"
  type: "Convolution"
  bottom: "Eltwise8"
  top: "Convolution22"
  convolution_param {
    num_output: 640
    bias_term: false
    pad: 0
    kernel_size: 1
    stride: 2
    weight_filler {
      type: "msra"
    }
  }
}
layer {
  name: "Eltwise9"
  type: "Eltwise"
  bottom: "Convolution21"
  bottom: "Convolution22"
  top: "Eltwise9"
  eltwise_param {
    operation: SUM
  }
}
layer {
  name: "BatchNorm17"
  type: "BatchNorm"
  bottom: "Eltwise9"
  top: "Eltwise9"
  param {
    lr_mult: 0
    decay_mult: 0
  }
  param {
    lr_mult: 0
    decay_mult: 0
  }
  param {
    lr_mult: 0
    decay_mult: 0
  }
  batch_norm_param {
    use_global_stats: false
  }
}
layer {
  name: "Scale17"
  type: "Scale"
  bottom: "Eltwise9"
  top: "Eltwise9"
  scale_param {
    bias_term: true
  }
}
layer {
  name: "penlu17"
  type: "PENLU"
  bottom: "Eltwise9"
  top: "Eltwise9"
  param {
    lr_mult: 2
    decay_mult: 2
  }
  param {
    lr_mult: 2
    decay_mult: 2
  }
  param {
    lr_mult: 0
    decay_mult: 0
  }
  penlu_param {
    alpha_filler {
      type: "constant"
      value: 0.25
    }
    beta_filler {
      type: "constant"
      value: 1
    }
    eta_filler {
      type: "constant"
      value: 1
    }
  }
}
layer {
  name: "Convolution23"
  type: "Convolution"
  bottom: "Eltwise9"
  top: "Convolution23"
  convolution_param {
    num_output: 640
    bias_term: false
    pad: 1
    kernel_size: 3
    stride: 1
    weight_filler {
      type: "msra"
    }
  }
}
layer {
  name: "BatchNorm18"
  type: "BatchNorm"
  bottom: "Convolution23"
  top: "Convolution23"
  param {
    lr_mult: 0
    decay_mult: 0
  }
  param {
    lr_mult: 0
    decay_mult: 0
  }
  param {
    lr_mult: 0
    decay_mult: 0
  }
  batch_norm_param {
    use_global_stats: false
  }
}
layer {
  name: "Scale18"
  type: "Scale"
  bottom: "Convolution23"
  top: "Convolution23"
  scale_param {
    bias_term: true
  }
}
layer {
  name: "penlu18"
  type: "PENLU"
  bottom: "Convolution23"
  top: "Convolution23"
  param {
    lr_mult: 2
    decay_mult: 2
  }
  param {
    lr_mult: 2
    decay_mult: 2
  }
  param {
    lr_mult: 0
    decay_mult: 0
  }
  penlu_param {
    alpha_filler {
      type: "constant"
      value: 0.25
    }
    beta_filler {
      type: "constant"
      value: 1
    }
    eta_filler {
      type: "constant"
      value: 1
    }
  }
}
layer {
  name: "Convolution24"
  type: "Convolution"
  bottom: "Convolution23"
  top: "Convolution24"
  convolution_param {
    num_output: 640
    bias_term: false
    pad: 1
    kernel_size: 3
    stride: 1
    weight_filler {
      type: "msra"
    }
  }
}
layer {
  name: "Eltwise10"
  type: "Eltwise"
  bottom: "Convolution24"
  bottom: "Eltwise9"
  top: "Eltwise10"
  eltwise_param {
    operation: SUM
  }
}
layer {
  name: "BatchNorm19"
  type: "BatchNorm"
  bottom: "Eltwise10"
  top: "Eltwise10"
  param {
    lr_mult: 0
    decay_mult: 0
  }
  param {
    lr_mult: 0
    decay_mult: 0
  }
  param {
    lr_mult: 0
    decay_mult: 0
  }
  batch_norm_param {
    use_global_stats: false
  }
}
layer {
  name: "Scale19"
  type: "Scale"
  bottom: "Eltwise10"
  top: "Eltwise10"
  scale_param {
    bias_term: true
  }
}
layer {
  name: "penlu19"
  type: "PENLU"
  bottom: "Eltwise10"
  top: "Eltwise10"
  param {
    lr_mult: 2
    decay_mult: 2
  }
  param {
    lr_mult: 2
    decay_mult: 2
  }
  param {
    lr_mult: 0
    decay_mult: 0
  }
  penlu_param {
    alpha_filler {
      type: "constant"
      value: 0.25
    }
    beta_filler {
      type: "constant"
      value: 1
    }
    eta_filler {
      type: "constant"
      value: 1
    }
  }
}
layer {
  name: "Convolution25"
  type: "Convolution"
  bottom: "Eltwise10"
  top: "Convolution25"
  convolution_param {
    num_output: 640
    bias_term: false
    pad: 1
    kernel_size: 3
    stride: 1
    weight_filler {
      type: "msra"
    }
  }
}
layer {
  name: "BatchNorm20"
  type: "BatchNorm"
  bottom: "Convolution25"
  top: "Convolution25"
  param {
    lr_mult: 0
    decay_mult: 0
  }
  param {
    lr_mult: 0
    decay_mult: 0
  }
  param {
    lr_mult: 0
    decay_mult: 0
  }
  batch_norm_param {
    use_global_stats: false
  }
}
layer {
  name: "Scale20"
  type: "Scale"
  bottom: "Convolution25"
  top: "Convolution25"
  scale_param {
    bias_term: true
  }
}
layer {
  name: "penlu20"
  type: "PENLU"
  bottom: "Convolution25"
  top: "Convolution25"
  param {
    lr_mult: 2
    decay_mult: 2
  }
  param {
    lr_mult: 2
    decay_mult: 2
  }
  param {
    lr_mult: 0
    decay_mult: 0
  }
  penlu_param {
    alpha_filler {
      type: "constant"
      value: 0.25
    }
    beta_filler {
      type: "constant"
      value: 1
    }
    eta_filler {
      type: "constant"
      value: 1
    }
  }
}
layer {
  name: "Convolution26"
  type: "Convolution"
  bottom: "Convolution25"
  top: "Convolution26"
  convolution_param {
    num_output: 640
    bias_term: false
    pad: 1
    kernel_size: 3
    stride: 1
    weight_filler {
      type: "msra"
    }
  }
}
layer {
  name: "Eltwise11"
  type: "Eltwise"
  bottom: "Convolution26"
  bottom: "Eltwise10"
  top: "Eltwise11"
  eltwise_param {
    operation: SUM
  }
}
layer {
  name: "BatchNorm21"
  type: "BatchNorm"
  bottom: "Eltwise11"
  top: "Eltwise11"
  param {
    lr_mult: 0
    decay_mult: 0
  }
  param {
    lr_mult: 0
    decay_mult: 0
  }
  param {
    lr_mult: 0
    decay_mult: 0
  }
  batch_norm_param {
    use_global_stats: false
  }
}
layer {
  name: "Scale21"
  type: "Scale"
  bottom: "Eltwise11"
  top: "Eltwise11"
  scale_param {
    bias_term: true
  }
}
layer {
  name: "penlu21"
  type: "PENLU"
  bottom: "Eltwise11"
  top: "Eltwise11"
  param {
    lr_mult: 2
    decay_mult: 2
  }
  param {
    lr_mult: 2
    decay_mult: 2
  }
  param {
    lr_mult: 0
    decay_mult: 0
  }
  penlu_param {
    alpha_filler {
      type: "constant"
      value: 0.25
    }
    beta_filler {
      type: "constant"
      value: 1
    }
    eta_filler {
      type: "constant"
      value: 1
    }
  }
}
layer {
  name: "Convolution27"
  type: "Convolution"
  bottom: "Eltwise11"
  top: "Convolution27"
  convolution_param {
    num_output: 640
    bias_term: false
    pad: 1
    kernel_size: 3
    stride: 1
    weight_filler {
      type: "msra"
    }
  }
}
layer {
  name: "BatchNorm22"
  type: "BatchNorm"
  bottom: "Convolution27"
  top: "Convolution27"
  param {
    lr_mult: 0
    decay_mult: 0
  }
  param {
    lr_mult: 0
    decay_mult: 0
  }
  param {
    lr_mult: 0
    decay_mult: 0
  }
  batch_norm_param {
    use_global_stats: false
  }
}
layer {
  name: "Scale22"
  type: "Scale"
  bottom: "Convolution27"
  top: "Convolution27"
  scale_param {
    bias_term: true
  }
}
layer {
  name: "penlu22"
  type: "PENLU"
  bottom: "Convolution27"
  top: "Convolution27"
  param {
    lr_mult: 2
    decay_mult: 2
  }
  param {
    lr_mult: 2
    decay_mult: 2
  }
  param {
    lr_mult: 0
    decay_mult: 0
  }
  penlu_param {
    alpha_filler {
      type: "constant"
      value: 0.25
    }
    beta_filler {
      type: "constant"
      value: 1
    }
    eta_filler {
      type: "constant"
      value: 1
    }
  }
}
layer {
  name: "Convolution28"
  type: "Convolution"
  bottom: "Convolution27"
  top: "Convolution28"
  convolution_param {
    num_output: 640
    bias_term: false
    pad: 1
    kernel_size: 3
    stride: 1
    weight_filler {
      type: "msra"
    }
  }
}
layer {
  name: "Eltwise12"
  type: "Eltwise"
  bottom: "Convolution28"
  bottom: "Eltwise11"
  top: "Eltwise12"
  eltwise_param {
    operation: SUM
  }
}
layer {
  name: "Pooling1"
  type: "Pooling"
  bottom: "Eltwise12"
  top: "Pooling1"
  pooling_param {
    pool: AVE
    global_pooling: true
  }
}
layer {
  name: "InnerProduct1"
  type: "InnerProduct"
  bottom: "Pooling1"
  top: "InnerProduct1"
  inner_product_param {
    num_output: 100
  }
}
layer {
  name: "SoftmaxWithLoss1"
  type: "SoftmaxWithLoss"
  bottom: "InnerProduct1"
  bottom: "label"
  top: "SoftmaxWithLoss1"
}
I1013 11:27:17.794490 12690 layer_factory.hpp:77] Creating layer cifar
I1013 11:27:17.794584 12690 db_lmdb.cpp:35] Opened lmdb /home/x306/caffe/xn/PENLU/data/cifar100/cifar100_train_lmdb
I1013 11:27:17.794610 12690 net.cpp:84] Creating Layer cifar
I1013 11:27:17.794616 12690 net.cpp:380] cifar -> data
I1013 11:27:17.794638 12690 net.cpp:380] cifar -> label
I1013 11:27:17.794649 12690 data_transformer.cpp:25] Loading mean file from: /home/x306/caffe/xn/PENLU/data/cifar100/mean.binaryproto
I1013 11:27:17.796033 12690 data_layer.cpp:45] output data size: 50,3,28,28
I1013 11:27:17.797256 12690 net.cpp:122] Setting up cifar
I1013 11:27:17.797267 12690 net.cpp:129] Top shape: 50 3 28 28 (117600)
I1013 11:27:17.797271 12690 net.cpp:129] Top shape: 50 (50)
I1013 11:27:17.797273 12690 net.cpp:137] Memory required for data: 470600
I1013 11:27:17.797279 12690 layer_factory.hpp:77] Creating layer Convolution1
I1013 11:27:17.797294 12690 net.cpp:84] Creating Layer Convolution1
I1013 11:27:17.797297 12690 net.cpp:406] Convolution1 <- data
I1013 11:27:17.797305 12690 net.cpp:380] Convolution1 -> Convolution1
I1013 11:27:17.942636 12690 net.cpp:122] Setting up Convolution1
I1013 11:27:17.942658 12690 net.cpp:129] Top shape: 50 16 28 28 (627200)
I1013 11:27:17.942662 12690 net.cpp:137] Memory required for data: 2979400
I1013 11:27:17.942677 12690 layer_factory.hpp:77] Creating layer BatchNorm1
I1013 11:27:17.942698 12690 net.cpp:84] Creating Layer BatchNorm1
I1013 11:27:17.942713 12690 net.cpp:406] BatchNorm1 <- Convolution1
I1013 11:27:17.942718 12690 net.cpp:367] BatchNorm1 -> Convolution1 (in-place)
I1013 11:27:17.942886 12690 net.cpp:122] Setting up BatchNorm1
I1013 11:27:17.942893 12690 net.cpp:129] Top shape: 50 16 28 28 (627200)
I1013 11:27:17.942894 12690 net.cpp:137] Memory required for data: 5488200
I1013 11:27:17.942901 12690 layer_factory.hpp:77] Creating layer Scale1
I1013 11:27:17.942910 12690 net.cpp:84] Creating Layer Scale1
I1013 11:27:17.942924 12690 net.cpp:406] Scale1 <- Convolution1
I1013 11:27:17.942929 12690 net.cpp:367] Scale1 -> Convolution1 (in-place)
I1013 11:27:17.942986 12690 layer_factory.hpp:77] Creating layer Scale1
I1013 11:27:17.943123 12690 net.cpp:122] Setting up Scale1
I1013 11:27:17.943128 12690 net.cpp:129] Top shape: 50 16 28 28 (627200)
I1013 11:27:17.943130 12690 net.cpp:137] Memory required for data: 7997000
I1013 11:27:17.943135 12690 layer_factory.hpp:77] Creating layer penlu1
I1013 11:27:17.943143 12690 net.cpp:84] Creating Layer penlu1
I1013 11:27:17.943146 12690 net.cpp:406] penlu1 <- Convolution1
I1013 11:27:17.943159 12690 net.cpp:367] penlu1 -> Convolution1 (in-place)
I1013 11:27:17.943780 12690 net.cpp:122] Setting up penlu1
I1013 11:27:17.943799 12690 net.cpp:129] Top shape: 50 16 28 28 (627200)
I1013 11:27:17.943801 12690 net.cpp:137] Memory required for data: 10505800
I1013 11:27:17.943809 12690 layer_factory.hpp:77] Creating layer Convolution1_penlu1_0_split
I1013 11:27:17.943826 12690 net.cpp:84] Creating Layer Convolution1_penlu1_0_split
I1013 11:27:17.943830 12690 net.cpp:406] Convolution1_penlu1_0_split <- Convolution1
I1013 11:27:17.943835 12690 net.cpp:380] Convolution1_penlu1_0_split -> Convolution1_penlu1_0_split_0
I1013 11:27:17.943840 12690 net.cpp:380] Convolution1_penlu1_0_split -> Convolution1_penlu1_0_split_1
I1013 11:27:17.943884 12690 net.cpp:122] Setting up Convolution1_penlu1_0_split
I1013 11:27:17.943900 12690 net.cpp:129] Top shape: 50 16 28 28 (627200)
I1013 11:27:17.943903 12690 net.cpp:129] Top shape: 50 16 28 28 (627200)
I1013 11:27:17.943905 12690 net.cpp:137] Memory required for data: 15523400
I1013 11:27:17.943907 12690 layer_factory.hpp:77] Creating layer Convolution2
I1013 11:27:17.943914 12690 net.cpp:84] Creating Layer Convolution2
I1013 11:27:17.943917 12690 net.cpp:406] Convolution2 <- Convolution1_penlu1_0_split_0
I1013 11:27:17.943919 12690 net.cpp:380] Convolution2 -> Convolution2
I1013 11:27:17.945982 12690 net.cpp:122] Setting up Convolution2
I1013 11:27:17.945992 12690 net.cpp:129] Top shape: 50 160 28 28 (6272000)
I1013 11:27:17.945994 12690 net.cpp:137] Memory required for data: 40611400
I1013 11:27:17.945998 12690 layer_factory.hpp:77] Creating layer BatchNorm2
I1013 11:27:17.946004 12690 net.cpp:84] Creating Layer BatchNorm2
I1013 11:27:17.946007 12690 net.cpp:406] BatchNorm2 <- Convolution2
I1013 11:27:17.946010 12690 net.cpp:367] BatchNorm2 -> Convolution2 (in-place)
I1013 11:27:17.946167 12690 net.cpp:122] Setting up BatchNorm2
I1013 11:27:17.946172 12690 net.cpp:129] Top shape: 50 160 28 28 (6272000)
I1013 11:27:17.946174 12690 net.cpp:137] Memory required for data: 65699400
I1013 11:27:17.946179 12690 layer_factory.hpp:77] Creating layer Scale2
I1013 11:27:17.946184 12690 net.cpp:84] Creating Layer Scale2
I1013 11:27:17.946187 12690 net.cpp:406] Scale2 <- Convolution2
I1013 11:27:17.946189 12690 net.cpp:367] Scale2 -> Convolution2 (in-place)
I1013 11:27:17.946249 12690 layer_factory.hpp:77] Creating layer Scale2
I1013 11:27:17.946367 12690 net.cpp:122] Setting up Scale2
I1013 11:27:17.946372 12690 net.cpp:129] Top shape: 50 160 28 28 (6272000)
I1013 11:27:17.946373 12690 net.cpp:137] Memory required for data: 90787400
I1013 11:27:17.946377 12690 layer_factory.hpp:77] Creating layer penlu2
I1013 11:27:17.946382 12690 net.cpp:84] Creating Layer penlu2
I1013 11:27:17.946385 12690 net.cpp:406] penlu2 <- Convolution2
I1013 11:27:17.946389 12690 net.cpp:367] penlu2 -> Convolution2 (in-place)
I1013 11:27:17.947046 12690 net.cpp:122] Setting up penlu2
I1013 11:27:17.947054 12690 net.cpp:129] Top shape: 50 160 28 28 (6272000)
I1013 11:27:17.947057 12690 net.cpp:137] Memory required for data: 115875400
I1013 11:27:17.947063 12690 layer_factory.hpp:77] Creating layer Convolution3
I1013 11:27:17.947070 12690 net.cpp:84] Creating Layer Convolution3
I1013 11:27:17.947083 12690 net.cpp:406] Convolution3 <- Convolution2
I1013 11:27:17.947088 12690 net.cpp:380] Convolution3 -> Convolution3
I1013 11:27:17.953128 12690 net.cpp:122] Setting up Convolution3
I1013 11:27:17.953138 12690 net.cpp:129] Top shape: 50 160 28 28 (6272000)
I1013 11:27:17.953141 12690 net.cpp:137] Memory required for data: 140963400
I1013 11:27:17.953145 12690 layer_factory.hpp:77] Creating layer Convolution4
I1013 11:27:17.953151 12690 net.cpp:84] Creating Layer Convolution4
I1013 11:27:17.953155 12690 net.cpp:406] Convolution4 <- Convolution1_penlu1_0_split_1
I1013 11:27:17.953169 12690 net.cpp:380] Convolution4 -> Convolution4
I1013 11:27:17.954010 12690 net.cpp:122] Setting up Convolution4
I1013 11:27:17.954020 12690 net.cpp:129] Top shape: 50 160 28 28 (6272000)
I1013 11:27:17.954033 12690 net.cpp:137] Memory required for data: 166051400
I1013 11:27:17.954037 12690 layer_factory.hpp:77] Creating layer Eltwise1
I1013 11:27:17.954061 12690 net.cpp:84] Creating Layer Eltwise1
I1013 11:27:17.954064 12690 net.cpp:406] Eltwise1 <- Convolution3
I1013 11:27:17.954067 12690 net.cpp:406] Eltwise1 <- Convolution4
I1013 11:27:17.954072 12690 net.cpp:380] Eltwise1 -> Eltwise1
I1013 11:27:17.954104 12690 net.cpp:122] Setting up Eltwise1
I1013 11:27:17.954118 12690 net.cpp:129] Top shape: 50 160 28 28 (6272000)
I1013 11:27:17.954121 12690 net.cpp:137] Memory required for data: 191139400
I1013 11:27:17.954123 12690 layer_factory.hpp:77] Creating layer BatchNorm3
I1013 11:27:17.954138 12690 net.cpp:84] Creating Layer BatchNorm3
I1013 11:27:17.954140 12690 net.cpp:406] BatchNorm3 <- Eltwise1
I1013 11:27:17.954144 12690 net.cpp:367] BatchNorm3 -> Eltwise1 (in-place)
I1013 11:27:17.954301 12690 net.cpp:122] Setting up BatchNorm3
I1013 11:27:17.954308 12690 net.cpp:129] Top shape: 50 160 28 28 (6272000)
I1013 11:27:17.954319 12690 net.cpp:137] Memory required for data: 216227400
I1013 11:27:17.954325 12690 layer_factory.hpp:77] Creating layer Scale3
I1013 11:27:17.954329 12690 net.cpp:84] Creating Layer Scale3
I1013 11:27:17.954332 12690 net.cpp:406] Scale3 <- Eltwise1
I1013 11:27:17.954335 12690 net.cpp:367] Scale3 -> Eltwise1 (in-place)
I1013 11:27:17.954371 12690 layer_factory.hpp:77] Creating layer Scale3
I1013 11:27:17.954474 12690 net.cpp:122] Setting up Scale3
I1013 11:27:17.954481 12690 net.cpp:129] Top shape: 50 160 28 28 (6272000)
I1013 11:27:17.954483 12690 net.cpp:137] Memory required for data: 241315400
I1013 11:27:17.954496 12690 layer_factory.hpp:77] Creating layer penlu3
I1013 11:27:17.954502 12690 net.cpp:84] Creating Layer penlu3
I1013 11:27:17.954515 12690 net.cpp:406] penlu3 <- Eltwise1
I1013 11:27:17.954519 12690 net.cpp:367] penlu3 -> Eltwise1 (in-place)
I1013 11:27:17.954699 12690 net.cpp:122] Setting up penlu3
I1013 11:27:17.954707 12690 net.cpp:129] Top shape: 50 160 28 28 (6272000)
I1013 11:27:17.954710 12690 net.cpp:137] Memory required for data: 266403400
I1013 11:27:17.954718 12690 layer_factory.hpp:77] Creating layer Eltwise1_penlu3_0_split
I1013 11:27:17.954727 12690 net.cpp:84] Creating Layer Eltwise1_penlu3_0_split
I1013 11:27:17.954731 12690 net.cpp:406] Eltwise1_penlu3_0_split <- Eltwise1
I1013 11:27:17.954738 12690 net.cpp:380] Eltwise1_penlu3_0_split -> Eltwise1_penlu3_0_split_0
I1013 11:27:17.954752 12690 net.cpp:380] Eltwise1_penlu3_0_split -> Eltwise1_penlu3_0_split_1
I1013 11:27:17.954783 12690 net.cpp:122] Setting up Eltwise1_penlu3_0_split
I1013 11:27:17.954790 12690 net.cpp:129] Top shape: 50 160 28 28 (6272000)
I1013 11:27:17.954797 12690 net.cpp:129] Top shape: 50 160 28 28 (6272000)
I1013 11:27:17.954813 12690 net.cpp:137] Memory required for data: 316579400
I1013 11:27:17.954819 12690 layer_factory.hpp:77] Creating layer Convolution5
I1013 11:27:17.954828 12690 net.cpp:84] Creating Layer Convolution5
I1013 11:27:17.954843 12690 net.cpp:406] Convolution5 <- Eltwise1_penlu3_0_split_0
I1013 11:27:17.954852 12690 net.cpp:380] Convolution5 -> Convolution5
I1013 11:27:17.961666 12690 net.cpp:122] Setting up Convolution5
I1013 11:27:17.961679 12690 net.cpp:129] Top shape: 50 160 28 28 (6272000)
I1013 11:27:17.961684 12690 net.cpp:137] Memory required for data: 341667400
I1013 11:27:17.961691 12690 layer_factory.hpp:77] Creating layer BatchNorm4
I1013 11:27:17.961704 12690 net.cpp:84] Creating Layer BatchNorm4
I1013 11:27:17.961709 12690 net.cpp:406] BatchNorm4 <- Convolution5
I1013 11:27:17.961715 12690 net.cpp:367] BatchNorm4 -> Convolution5 (in-place)
I1013 11:27:17.961855 12690 net.cpp:122] Setting up BatchNorm4
I1013 11:27:17.961863 12690 net.cpp:129] Top shape: 50 160 28 28 (6272000)
I1013 11:27:17.961868 12690 net.cpp:137] Memory required for data: 366755400
I1013 11:27:17.961880 12690 layer_factory.hpp:77] Creating layer Scale4
I1013 11:27:17.961889 12690 net.cpp:84] Creating Layer Scale4
I1013 11:27:17.961894 12690 net.cpp:406] Scale4 <- Convolution5
I1013 11:27:17.961912 12690 net.cpp:367] Scale4 -> Convolution5 (in-place)
I1013 11:27:17.961961 12690 layer_factory.hpp:77] Creating layer Scale4
I1013 11:27:17.962074 12690 net.cpp:122] Setting up Scale4
I1013 11:27:17.962081 12690 net.cpp:129] Top shape: 50 160 28 28 (6272000)
I1013 11:27:17.962085 12690 net.cpp:137] Memory required for data: 391843400
I1013 11:27:17.962105 12690 layer_factory.hpp:77] Creating layer penlu4
I1013 11:27:17.962115 12690 net.cpp:84] Creating Layer penlu4
I1013 11:27:17.962119 12690 net.cpp:406] penlu4 <- Convolution5
I1013 11:27:17.962126 12690 net.cpp:367] penlu4 -> Convolution5 (in-place)
I1013 11:27:17.962297 12690 net.cpp:122] Setting up penlu4
I1013 11:27:17.962306 12690 net.cpp:129] Top shape: 50 160 28 28 (6272000)
I1013 11:27:17.962321 12690 net.cpp:137] Memory required for data: 416931400
I1013 11:27:17.962329 12690 layer_factory.hpp:77] Creating layer Convolution6
I1013 11:27:17.962339 12690 net.cpp:84] Creating Layer Convolution6
I1013 11:27:17.962343 12690 net.cpp:406] Convolution6 <- Convolution5
I1013 11:27:17.962352 12690 net.cpp:380] Convolution6 -> Convolution6
I1013 11:27:17.969179 12690 net.cpp:122] Setting up Convolution6
I1013 11:27:17.969192 12690 net.cpp:129] Top shape: 50 160 28 28 (6272000)
I1013 11:27:17.969197 12690 net.cpp:137] Memory required for data: 442019400
I1013 11:27:17.969202 12690 layer_factory.hpp:77] Creating layer Eltwise2
I1013 11:27:17.969213 12690 net.cpp:84] Creating Layer Eltwise2
I1013 11:27:17.969218 12690 net.cpp:406] Eltwise2 <- Convolution6
I1013 11:27:17.969223 12690 net.cpp:406] Eltwise2 <- Eltwise1_penlu3_0_split_1
I1013 11:27:17.969231 12690 net.cpp:380] Eltwise2 -> Eltwise2
I1013 11:27:17.969257 12690 net.cpp:122] Setting up Eltwise2
I1013 11:27:17.969264 12690 net.cpp:129] Top shape: 50 160 28 28 (6272000)
I1013 11:27:17.969270 12690 net.cpp:137] Memory required for data: 467107400
I1013 11:27:17.969275 12690 layer_factory.hpp:77] Creating layer BatchNorm5
I1013 11:27:17.969283 12690 net.cpp:84] Creating Layer BatchNorm5
I1013 11:27:17.969288 12690 net.cpp:406] BatchNorm5 <- Eltwise2
I1013 11:27:17.969295 12690 net.cpp:367] BatchNorm5 -> Eltwise2 (in-place)
I1013 11:27:17.969430 12690 net.cpp:122] Setting up BatchNorm5
I1013 11:27:17.969437 12690 net.cpp:129] Top shape: 50 160 28 28 (6272000)
I1013 11:27:17.969444 12690 net.cpp:137] Memory required for data: 492195400
I1013 11:27:17.969452 12690 layer_factory.hpp:77] Creating layer Scale5
I1013 11:27:17.969458 12690 net.cpp:84] Creating Layer Scale5
I1013 11:27:17.969465 12690 net.cpp:406] Scale5 <- Eltwise2
I1013 11:27:17.969472 12690 net.cpp:367] Scale5 -> Eltwise2 (in-place)
I1013 11:27:17.969504 12690 layer_factory.hpp:77] Creating layer Scale5
I1013 11:27:17.969597 12690 net.cpp:122] Setting up Scale5
I1013 11:27:17.969604 12690 net.cpp:129] Top shape: 50 160 28 28 (6272000)
I1013 11:27:17.969619 12690 net.cpp:137] Memory required for data: 517283400
I1013 11:27:17.969626 12690 layer_factory.hpp:77] Creating layer penlu5
I1013 11:27:17.969636 12690 net.cpp:84] Creating Layer penlu5
I1013 11:27:17.969641 12690 net.cpp:406] penlu5 <- Eltwise2
I1013 11:27:17.969648 12690 net.cpp:367] penlu5 -> Eltwise2 (in-place)
I1013 11:27:17.969820 12690 net.cpp:122] Setting up penlu5
I1013 11:27:17.969830 12690 net.cpp:129] Top shape: 50 160 28 28 (6272000)
I1013 11:27:17.969835 12690 net.cpp:137] Memory required for data: 542371400
I1013 11:27:17.969842 12690 layer_factory.hpp:77] Creating layer Eltwise2_penlu5_0_split
I1013 11:27:17.969849 12690 net.cpp:84] Creating Layer Eltwise2_penlu5_0_split
I1013 11:27:17.969854 12690 net.cpp:406] Eltwise2_penlu5_0_split <- Eltwise2
I1013 11:27:17.969861 12690 net.cpp:380] Eltwise2_penlu5_0_split -> Eltwise2_penlu5_0_split_0
I1013 11:27:17.969868 12690 net.cpp:380] Eltwise2_penlu5_0_split -> Eltwise2_penlu5_0_split_1
I1013 11:27:17.969897 12690 net.cpp:122] Setting up Eltwise2_penlu5_0_split
I1013 11:27:17.969904 12690 net.cpp:129] Top shape: 50 160 28 28 (6272000)
I1013 11:27:17.969910 12690 net.cpp:129] Top shape: 50 160 28 28 (6272000)
I1013 11:27:17.969920 12690 net.cpp:137] Memory required for data: 592547400
I1013 11:27:17.969925 12690 layer_factory.hpp:77] Creating layer Convolution7
I1013 11:27:17.969944 12690 net.cpp:84] Creating Layer Convolution7
I1013 11:27:17.969950 12690 net.cpp:406] Convolution7 <- Eltwise2_penlu5_0_split_0
I1013 11:27:17.969957 12690 net.cpp:380] Convolution7 -> Convolution7
I1013 11:27:17.976423 12690 net.cpp:122] Setting up Convolution7
I1013 11:27:17.976438 12690 net.cpp:129] Top shape: 50 160 28 28 (6272000)
I1013 11:27:17.976442 12690 net.cpp:137] Memory required for data: 617635400
I1013 11:27:17.976459 12690 layer_factory.hpp:77] Creating layer BatchNorm6
I1013 11:27:17.976478 12690 net.cpp:84] Creating Layer BatchNorm6
I1013 11:27:17.976492 12690 net.cpp:406] BatchNorm6 <- Convolution7
I1013 11:27:17.976511 12690 net.cpp:367] BatchNorm6 -> Convolution7 (in-place)
I1013 11:27:17.976691 12690 net.cpp:122] Setting up BatchNorm6
I1013 11:27:17.976697 12690 net.cpp:129] Top shape: 50 160 28 28 (6272000)
I1013 11:27:17.976701 12690 net.cpp:137] Memory required for data: 642723400
I1013 11:27:17.976722 12690 layer_factory.hpp:77] Creating layer Scale6
I1013 11:27:17.976743 12690 net.cpp:84] Creating Layer Scale6
I1013 11:27:17.976763 12690 net.cpp:406] Scale6 <- Convolution7
I1013 11:27:17.976785 12690 net.cpp:367] Scale6 -> Convolution7 (in-place)
I1013 11:27:17.976840 12690 layer_factory.hpp:77] Creating layer Scale6
I1013 11:27:17.976924 12690 net.cpp:122] Setting up Scale6
I1013 11:27:17.976932 12690 net.cpp:129] Top shape: 50 160 28 28 (6272000)
I1013 11:27:17.976935 12690 net.cpp:137] Memory required for data: 667811400
I1013 11:27:17.976943 12690 layer_factory.hpp:77] Creating layer penlu6
I1013 11:27:17.976953 12690 net.cpp:84] Creating Layer penlu6
I1013 11:27:17.976956 12690 net.cpp:406] penlu6 <- Convolution7
I1013 11:27:17.976964 12690 net.cpp:367] penlu6 -> Convolution7 (in-place)
I1013 11:27:17.977128 12690 net.cpp:122] Setting up penlu6
I1013 11:27:17.977134 12690 net.cpp:129] Top shape: 50 160 28 28 (6272000)
I1013 11:27:17.977138 12690 net.cpp:137] Memory required for data: 692899400
I1013 11:27:17.977147 12690 layer_factory.hpp:77] Creating layer Convolution8
I1013 11:27:17.977159 12690 net.cpp:84] Creating Layer Convolution8
I1013 11:27:17.977162 12690 net.cpp:406] Convolution8 <- Convolution7
I1013 11:27:17.977169 12690 net.cpp:380] Convolution8 -> Convolution8
I1013 11:27:17.983688 12690 net.cpp:122] Setting up Convolution8
I1013 11:27:17.983700 12690 net.cpp:129] Top shape: 50 160 28 28 (6272000)
I1013 11:27:17.983705 12690 net.cpp:137] Memory required for data: 717987400
I1013 11:27:17.983711 12690 layer_factory.hpp:77] Creating layer Eltwise3
I1013 11:27:17.983724 12690 net.cpp:84] Creating Layer Eltwise3
I1013 11:27:17.983729 12690 net.cpp:406] Eltwise3 <- Convolution8
I1013 11:27:17.983736 12690 net.cpp:406] Eltwise3 <- Eltwise2_penlu5_0_split_1
I1013 11:27:17.983742 12690 net.cpp:380] Eltwise3 -> Eltwise3
I1013 11:27:17.983767 12690 net.cpp:122] Setting up Eltwise3
I1013 11:27:17.983774 12690 net.cpp:129] Top shape: 50 160 28 28 (6272000)
I1013 11:27:17.983779 12690 net.cpp:137] Memory required for data: 743075400
I1013 11:27:17.983783 12690 layer_factory.hpp:77] Creating layer BatchNorm7
I1013 11:27:17.983791 12690 net.cpp:84] Creating Layer BatchNorm7
I1013 11:27:17.983796 12690 net.cpp:406] BatchNorm7 <- Eltwise3
I1013 11:27:17.983801 12690 net.cpp:367] BatchNorm7 -> Eltwise3 (in-place)
I1013 11:27:17.983933 12690 net.cpp:122] Setting up BatchNorm7
I1013 11:27:17.983940 12690 net.cpp:129] Top shape: 50 160 28 28 (6272000)
I1013 11:27:17.983944 12690 net.cpp:137] Memory required for data: 768163400
I1013 11:27:17.983953 12690 layer_factory.hpp:77] Creating layer Scale7
I1013 11:27:17.983960 12690 net.cpp:84] Creating Layer Scale7
I1013 11:27:17.983965 12690 net.cpp:406] Scale7 <- Eltwise3
I1013 11:27:17.983970 12690 net.cpp:367] Scale7 -> Eltwise3 (in-place)
I1013 11:27:17.984002 12690 layer_factory.hpp:77] Creating layer Scale7
I1013 11:27:17.984084 12690 net.cpp:122] Setting up Scale7
I1013 11:27:17.984092 12690 net.cpp:129] Top shape: 50 160 28 28 (6272000)
I1013 11:27:17.984097 12690 net.cpp:137] Memory required for data: 793251400
I1013 11:27:17.984114 12690 layer_factory.hpp:77] Creating layer penlu7
I1013 11:27:17.984125 12690 net.cpp:84] Creating Layer penlu7
I1013 11:27:17.984129 12690 net.cpp:406] penlu7 <- Eltwise3
I1013 11:27:17.984136 12690 net.cpp:367] penlu7 -> Eltwise3 (in-place)
I1013 11:27:17.984293 12690 net.cpp:122] Setting up penlu7
I1013 11:27:17.984300 12690 net.cpp:129] Top shape: 50 160 28 28 (6272000)
I1013 11:27:17.984304 12690 net.cpp:137] Memory required for data: 818339400
I1013 11:27:17.984321 12690 layer_factory.hpp:77] Creating layer Eltwise3_penlu7_0_split
I1013 11:27:17.984329 12690 net.cpp:84] Creating Layer Eltwise3_penlu7_0_split
I1013 11:27:17.984334 12690 net.cpp:406] Eltwise3_penlu7_0_split <- Eltwise3
I1013 11:27:17.984340 12690 net.cpp:380] Eltwise3_penlu7_0_split -> Eltwise3_penlu7_0_split_0
I1013 11:27:17.984349 12690 net.cpp:380] Eltwise3_penlu7_0_split -> Eltwise3_penlu7_0_split_1
I1013 11:27:17.984376 12690 net.cpp:122] Setting up Eltwise3_penlu7_0_split
I1013 11:27:17.984383 12690 net.cpp:129] Top shape: 50 160 28 28 (6272000)
I1013 11:27:17.984390 12690 net.cpp:129] Top shape: 50 160 28 28 (6272000)
I1013 11:27:17.984395 12690 net.cpp:137] Memory required for data: 868515400
I1013 11:27:17.984398 12690 layer_factory.hpp:77] Creating layer Convolution9
I1013 11:27:17.984407 12690 net.cpp:84] Creating Layer Convolution9
I1013 11:27:17.984411 12690 net.cpp:406] Convolution9 <- Eltwise3_penlu7_0_split_0
I1013 11:27:17.984417 12690 net.cpp:380] Convolution9 -> Convolution9
I1013 11:27:17.990947 12690 net.cpp:122] Setting up Convolution9
I1013 11:27:17.990958 12690 net.cpp:129] Top shape: 50 160 28 28 (6272000)
I1013 11:27:17.990963 12690 net.cpp:137] Memory required for data: 893603400
I1013 11:27:17.990969 12690 layer_factory.hpp:77] Creating layer BatchNorm8
I1013 11:27:17.990978 12690 net.cpp:84] Creating Layer BatchNorm8
I1013 11:27:17.990983 12690 net.cpp:406] BatchNorm8 <- Convolution9
I1013 11:27:17.990990 12690 net.cpp:367] BatchNorm8 -> Convolution9 (in-place)
I1013 11:27:17.991125 12690 net.cpp:122] Setting up BatchNorm8
I1013 11:27:17.991132 12690 net.cpp:129] Top shape: 50 160 28 28 (6272000)
I1013 11:27:17.991137 12690 net.cpp:137] Memory required for data: 918691400
I1013 11:27:17.991145 12690 layer_factory.hpp:77] Creating layer Scale8
I1013 11:27:17.991153 12690 net.cpp:84] Creating Layer Scale8
I1013 11:27:17.991158 12690 net.cpp:406] Scale8 <- Convolution9
I1013 11:27:17.991165 12690 net.cpp:367] Scale8 -> Convolution9 (in-place)
I1013 11:27:17.991195 12690 layer_factory.hpp:77] Creating layer Scale8
I1013 11:27:17.991277 12690 net.cpp:122] Setting up Scale8
I1013 11:27:17.991284 12690 net.cpp:129] Top shape: 50 160 28 28 (6272000)
I1013 11:27:17.991288 12690 net.cpp:137] Memory required for data: 943779400
I1013 11:27:17.991297 12690 layer_factory.hpp:77] Creating layer penlu8
I1013 11:27:17.991305 12690 net.cpp:84] Creating Layer penlu8
I1013 11:27:17.991309 12690 net.cpp:406] penlu8 <- Convolution9
I1013 11:27:17.991317 12690 net.cpp:367] penlu8 -> Convolution9 (in-place)
I1013 11:27:17.991472 12690 net.cpp:122] Setting up penlu8
I1013 11:27:17.991479 12690 net.cpp:129] Top shape: 50 160 28 28 (6272000)
I1013 11:27:17.991483 12690 net.cpp:137] Memory required for data: 968867400
I1013 11:27:17.991492 12690 layer_factory.hpp:77] Creating layer Convolution10
I1013 11:27:17.991502 12690 net.cpp:84] Creating Layer Convolution10
I1013 11:27:17.991505 12690 net.cpp:406] Convolution10 <- Convolution9
I1013 11:27:17.991513 12690 net.cpp:380] Convolution10 -> Convolution10
I1013 11:27:17.998041 12690 net.cpp:122] Setting up Convolution10
I1013 11:27:17.998054 12690 net.cpp:129] Top shape: 50 160 28 28 (6272000)
I1013 11:27:17.998057 12690 net.cpp:137] Memory required for data: 993955400
I1013 11:27:17.998064 12690 layer_factory.hpp:77] Creating layer Eltwise4
I1013 11:27:17.998075 12690 net.cpp:84] Creating Layer Eltwise4
I1013 11:27:17.998080 12690 net.cpp:406] Eltwise4 <- Convolution10
I1013 11:27:17.998085 12690 net.cpp:406] Eltwise4 <- Eltwise3_penlu7_0_split_1
I1013 11:27:17.998092 12690 net.cpp:380] Eltwise4 -> Eltwise4
I1013 11:27:17.998126 12690 net.cpp:122] Setting up Eltwise4
I1013 11:27:17.998133 12690 net.cpp:129] Top shape: 50 160 28 28 (6272000)
I1013 11:27:17.998137 12690 net.cpp:137] Memory required for data: 1019043400
I1013 11:27:17.998142 12690 layer_factory.hpp:77] Creating layer Eltwise4_Eltwise4_0_split
I1013 11:27:17.998150 12690 net.cpp:84] Creating Layer Eltwise4_Eltwise4_0_split
I1013 11:27:17.998154 12690 net.cpp:406] Eltwise4_Eltwise4_0_split <- Eltwise4
I1013 11:27:17.998162 12690 net.cpp:380] Eltwise4_Eltwise4_0_split -> Eltwise4_Eltwise4_0_split_0
I1013 11:27:17.998168 12690 net.cpp:380] Eltwise4_Eltwise4_0_split -> Eltwise4_Eltwise4_0_split_1
I1013 11:27:17.998198 12690 net.cpp:122] Setting up Eltwise4_Eltwise4_0_split
I1013 11:27:17.998204 12690 net.cpp:129] Top shape: 50 160 28 28 (6272000)
I1013 11:27:17.998211 12690 net.cpp:129] Top shape: 50 160 28 28 (6272000)
I1013 11:27:17.998216 12690 net.cpp:137] Memory required for data: 1069219400
I1013 11:27:17.998220 12690 layer_factory.hpp:77] Creating layer Convolution11
I1013 11:27:17.998230 12690 net.cpp:84] Creating Layer Convolution11
I1013 11:27:17.998235 12690 net.cpp:406] Convolution11 <- Eltwise4_Eltwise4_0_split_0
I1013 11:27:17.998244 12690 net.cpp:380] Convolution11 -> Convolution11
I1013 11:27:18.010120 12690 net.cpp:122] Setting up Convolution11
I1013 11:27:18.010140 12690 net.cpp:129] Top shape: 50 320 14 14 (3136000)
I1013 11:27:18.010145 12690 net.cpp:137] Memory required for data: 1081763400
I1013 11:27:18.010152 12690 layer_factory.hpp:77] Creating layer BatchNorm9
I1013 11:27:18.010164 12690 net.cpp:84] Creating Layer BatchNorm9
I1013 11:27:18.010169 12690 net.cpp:406] BatchNorm9 <- Convolution11
I1013 11:27:18.010177 12690 net.cpp:367] BatchNorm9 -> Convolution11 (in-place)
I1013 11:27:18.010339 12690 net.cpp:122] Setting up BatchNorm9
I1013 11:27:18.010346 12690 net.cpp:129] Top shape: 50 320 14 14 (3136000)
I1013 11:27:18.010350 12690 net.cpp:137] Memory required for data: 1094307400
I1013 11:27:18.010359 12690 layer_factory.hpp:77] Creating layer Scale9
I1013 11:27:18.010366 12690 net.cpp:84] Creating Layer Scale9
I1013 11:27:18.010372 12690 net.cpp:406] Scale9 <- Convolution11
I1013 11:27:18.010377 12690 net.cpp:367] Scale9 -> Convolution11 (in-place)
I1013 11:27:18.010416 12690 layer_factory.hpp:77] Creating layer Scale9
I1013 11:27:18.010500 12690 net.cpp:122] Setting up Scale9
I1013 11:27:18.010507 12690 net.cpp:129] Top shape: 50 320 14 14 (3136000)
I1013 11:27:18.010511 12690 net.cpp:137] Memory required for data: 1106851400
I1013 11:27:18.010519 12690 layer_factory.hpp:77] Creating layer penlu9
I1013 11:27:18.010529 12690 net.cpp:84] Creating Layer penlu9
I1013 11:27:18.010532 12690 net.cpp:406] penlu9 <- Convolution11
I1013 11:27:18.010540 12690 net.cpp:367] penlu9 -> Convolution11 (in-place)
I1013 11:27:18.010695 12690 net.cpp:122] Setting up penlu9
I1013 11:27:18.010702 12690 net.cpp:129] Top shape: 50 320 14 14 (3136000)
I1013 11:27:18.010707 12690 net.cpp:137] Memory required for data: 1119395400
I1013 11:27:18.010716 12690 layer_factory.hpp:77] Creating layer Convolution12
I1013 11:27:18.010726 12690 net.cpp:84] Creating Layer Convolution12
I1013 11:27:18.010730 12690 net.cpp:406] Convolution12 <- Convolution11
I1013 11:27:18.010738 12690 net.cpp:380] Convolution12 -> Convolution12
I1013 11:27:18.032356 12690 net.cpp:122] Setting up Convolution12
I1013 11:27:18.032369 12690 net.cpp:129] Top shape: 50 320 14 14 (3136000)
I1013 11:27:18.032373 12690 net.cpp:137] Memory required for data: 1131939400
I1013 11:27:18.032380 12690 layer_factory.hpp:77] Creating layer Convolution13
I1013 11:27:18.032393 12690 net.cpp:84] Creating Layer Convolution13
I1013 11:27:18.032399 12690 net.cpp:406] Convolution13 <- Eltwise4_Eltwise4_0_split_1
I1013 11:27:18.032407 12690 net.cpp:380] Convolution13 -> Convolution13
I1013 11:27:18.034505 12690 net.cpp:122] Setting up Convolution13
I1013 11:27:18.034518 12690 net.cpp:129] Top shape: 50 320 14 14 (3136000)
I1013 11:27:18.034523 12690 net.cpp:137] Memory required for data: 1144483400
I1013 11:27:18.034549 12690 layer_factory.hpp:77] Creating layer Eltwise5
I1013 11:27:18.034561 12690 net.cpp:84] Creating Layer Eltwise5
I1013 11:27:18.034566 12690 net.cpp:406] Eltwise5 <- Convolution12
I1013 11:27:18.034574 12690 net.cpp:406] Eltwise5 <- Convolution13
I1013 11:27:18.034592 12690 net.cpp:380] Eltwise5 -> Eltwise5
I1013 11:27:18.034626 12690 net.cpp:122] Setting up Eltwise5
I1013 11:27:18.034633 12690 net.cpp:129] Top shape: 50 320 14 14 (3136000)
I1013 11:27:18.034637 12690 net.cpp:137] Memory required for data: 1157027400
I1013 11:27:18.034652 12690 layer_factory.hpp:77] Creating layer BatchNorm10
I1013 11:27:18.034662 12690 net.cpp:84] Creating Layer BatchNorm10
I1013 11:27:18.034667 12690 net.cpp:406] BatchNorm10 <- Eltwise5
I1013 11:27:18.034683 12690 net.cpp:367] BatchNorm10 -> Eltwise5 (in-place)
I1013 11:27:18.034858 12690 net.cpp:122] Setting up BatchNorm10
I1013 11:27:18.034865 12690 net.cpp:129] Top shape: 50 320 14 14 (3136000)
I1013 11:27:18.034869 12690 net.cpp:137] Memory required for data: 1169571400
I1013 11:27:18.034889 12690 layer_factory.hpp:77] Creating layer Scale10
I1013 11:27:18.034900 12690 net.cpp:84] Creating Layer Scale10
I1013 11:27:18.034905 12690 net.cpp:406] Scale10 <- Eltwise5
I1013 11:27:18.034911 12690 net.cpp:367] Scale10 -> Eltwise5 (in-place)
I1013 11:27:18.034960 12690 layer_factory.hpp:77] Creating layer Scale10
I1013 11:27:18.035068 12690 net.cpp:122] Setting up Scale10
I1013 11:27:18.035075 12690 net.cpp:129] Top shape: 50 320 14 14 (3136000)
I1013 11:27:18.035079 12690 net.cpp:137] Memory required for data: 1182115400
I1013 11:27:18.035097 12690 layer_factory.hpp:77] Creating layer penlu10
I1013 11:27:18.035107 12690 net.cpp:84] Creating Layer penlu10
I1013 11:27:18.035114 12690 net.cpp:406] penlu10 <- Eltwise5
I1013 11:27:18.035130 12690 net.cpp:367] penlu10 -> Eltwise5 (in-place)
I1013 11:27:18.035323 12690 net.cpp:122] Setting up penlu10
I1013 11:27:18.035331 12690 net.cpp:129] Top shape: 50 320 14 14 (3136000)
I1013 11:27:18.035336 12690 net.cpp:137] Memory required for data: 1194659400
I1013 11:27:18.035344 12690 layer_factory.hpp:77] Creating layer Eltwise5_penlu10_0_split
I1013 11:27:18.035351 12690 net.cpp:84] Creating Layer Eltwise5_penlu10_0_split
I1013 11:27:18.035356 12690 net.cpp:406] Eltwise5_penlu10_0_split <- Eltwise5
I1013 11:27:18.035363 12690 net.cpp:380] Eltwise5_penlu10_0_split -> Eltwise5_penlu10_0_split_0
I1013 11:27:18.035372 12690 net.cpp:380] Eltwise5_penlu10_0_split -> Eltwise5_penlu10_0_split_1
I1013 11:27:18.035401 12690 net.cpp:122] Setting up Eltwise5_penlu10_0_split
I1013 11:27:18.035408 12690 net.cpp:129] Top shape: 50 320 14 14 (3136000)
I1013 11:27:18.035414 12690 net.cpp:129] Top shape: 50 320 14 14 (3136000)
I1013 11:27:18.035419 12690 net.cpp:137] Memory required for data: 1219747400
I1013 11:27:18.035424 12690 layer_factory.hpp:77] Creating layer Convolution14
I1013 11:27:18.035435 12690 net.cpp:84] Creating Layer Convolution14
I1013 11:27:18.035439 12690 net.cpp:406] Convolution14 <- Eltwise5_penlu10_0_split_0
I1013 11:27:18.035446 12690 net.cpp:380] Convolution14 -> Convolution14
I1013 11:27:18.057699 12690 net.cpp:122] Setting up Convolution14
I1013 11:27:18.057713 12690 net.cpp:129] Top shape: 50 320 14 14 (3136000)
I1013 11:27:18.057718 12690 net.cpp:137] Memory required for data: 1232291400
I1013 11:27:18.057724 12690 layer_factory.hpp:77] Creating layer BatchNorm11
I1013 11:27:18.057734 12690 net.cpp:84] Creating Layer BatchNorm11
I1013 11:27:18.057739 12690 net.cpp:406] BatchNorm11 <- Convolution14
I1013 11:27:18.057749 12690 net.cpp:367] BatchNorm11 -> Convolution14 (in-place)
I1013 11:27:18.057902 12690 net.cpp:122] Setting up BatchNorm11
I1013 11:27:18.057910 12690 net.cpp:129] Top shape: 50 320 14 14 (3136000)
I1013 11:27:18.057914 12690 net.cpp:137] Memory required for data: 1244835400
I1013 11:27:18.057937 12690 layer_factory.hpp:77] Creating layer Scale11
I1013 11:27:18.057945 12690 net.cpp:84] Creating Layer Scale11
I1013 11:27:18.057960 12690 net.cpp:406] Scale11 <- Convolution14
I1013 11:27:18.057977 12690 net.cpp:367] Scale11 -> Convolution14 (in-place)
I1013 11:27:18.058014 12690 layer_factory.hpp:77] Creating layer Scale11
I1013 11:27:18.058102 12690 net.cpp:122] Setting up Scale11
I1013 11:27:18.058110 12690 net.cpp:129] Top shape: 50 320 14 14 (3136000)
I1013 11:27:18.058115 12690 net.cpp:137] Memory required for data: 1257379400
I1013 11:27:18.058123 12690 layer_factory.hpp:77] Creating layer penlu11
I1013 11:27:18.058133 12690 net.cpp:84] Creating Layer penlu11
I1013 11:27:18.058138 12690 net.cpp:406] penlu11 <- Convolution14
I1013 11:27:18.058145 12690 net.cpp:367] penlu11 -> Convolution14 (in-place)
I1013 11:27:18.058300 12690 net.cpp:122] Setting up penlu11
I1013 11:27:18.058310 12690 net.cpp:129] Top shape: 50 320 14 14 (3136000)
I1013 11:27:18.058315 12690 net.cpp:137] Memory required for data: 1269923400
I1013 11:27:18.058322 12690 layer_factory.hpp:77] Creating layer Convolution15
I1013 11:27:18.058331 12690 net.cpp:84] Creating Layer Convolution15
I1013 11:27:18.058336 12690 net.cpp:406] Convolution15 <- Convolution14
I1013 11:27:18.058342 12690 net.cpp:380] Convolution15 -> Convolution15
I1013 11:27:18.080369 12690 net.cpp:122] Setting up Convolution15
I1013 11:27:18.080389 12690 net.cpp:129] Top shape: 50 320 14 14 (3136000)
I1013 11:27:18.080394 12690 net.cpp:137] Memory required for data: 1282467400
I1013 11:27:18.080401 12690 layer_factory.hpp:77] Creating layer Eltwise6
I1013 11:27:18.080413 12690 net.cpp:84] Creating Layer Eltwise6
I1013 11:27:18.080420 12690 net.cpp:406] Eltwise6 <- Convolution15
I1013 11:27:18.080428 12690 net.cpp:406] Eltwise6 <- Eltwise5_penlu10_0_split_1
I1013 11:27:18.080435 12690 net.cpp:380] Eltwise6 -> Eltwise6
I1013 11:27:18.080464 12690 net.cpp:122] Setting up Eltwise6
I1013 11:27:18.080471 12690 net.cpp:129] Top shape: 50 320 14 14 (3136000)
I1013 11:27:18.080476 12690 net.cpp:137] Memory required for data: 1295011400
I1013 11:27:18.080479 12690 layer_factory.hpp:77] Creating layer BatchNorm12
I1013 11:27:18.080488 12690 net.cpp:84] Creating Layer BatchNorm12
I1013 11:27:18.080503 12690 net.cpp:406] BatchNorm12 <- Eltwise6
I1013 11:27:18.080509 12690 net.cpp:367] BatchNorm12 -> Eltwise6 (in-place)
I1013 11:27:18.080677 12690 net.cpp:122] Setting up BatchNorm12
I1013 11:27:18.080683 12690 net.cpp:129] Top shape: 50 320 14 14 (3136000)
I1013 11:27:18.080687 12690 net.cpp:137] Memory required for data: 1307555400
I1013 11:27:18.080698 12690 layer_factory.hpp:77] Creating layer Scale12
I1013 11:27:18.080704 12690 net.cpp:84] Creating Layer Scale12
I1013 11:27:18.080708 12690 net.cpp:406] Scale12 <- Eltwise6
I1013 11:27:18.080715 12690 net.cpp:367] Scale12 -> Eltwise6 (in-place)
I1013 11:27:18.080754 12690 layer_factory.hpp:77] Creating layer Scale12
I1013 11:27:18.080842 12690 net.cpp:122] Setting up Scale12
I1013 11:27:18.080849 12690 net.cpp:129] Top shape: 50 320 14 14 (3136000)
I1013 11:27:18.080853 12690 net.cpp:137] Memory required for data: 1320099400
I1013 11:27:18.080862 12690 layer_factory.hpp:77] Creating layer penlu12
I1013 11:27:18.080870 12690 net.cpp:84] Creating Layer penlu12
I1013 11:27:18.080875 12690 net.cpp:406] penlu12 <- Eltwise6
I1013 11:27:18.080883 12690 net.cpp:367] penlu12 -> Eltwise6 (in-place)
I1013 11:27:18.081037 12690 net.cpp:122] Setting up penlu12
I1013 11:27:18.081044 12690 net.cpp:129] Top shape: 50 320 14 14 (3136000)
I1013 11:27:18.081048 12690 net.cpp:137] Memory required for data: 1332643400
I1013 11:27:18.081058 12690 layer_factory.hpp:77] Creating layer Eltwise6_penlu12_0_split
I1013 11:27:18.081070 12690 net.cpp:84] Creating Layer Eltwise6_penlu12_0_split
I1013 11:27:18.081074 12690 net.cpp:406] Eltwise6_penlu12_0_split <- Eltwise6
I1013 11:27:18.081080 12690 net.cpp:380] Eltwise6_penlu12_0_split -> Eltwise6_penlu12_0_split_0
I1013 11:27:18.081089 12690 net.cpp:380] Eltwise6_penlu12_0_split -> Eltwise6_penlu12_0_split_1
I1013 11:27:18.081118 12690 net.cpp:122] Setting up Eltwise6_penlu12_0_split
I1013 11:27:18.081125 12690 net.cpp:129] Top shape: 50 320 14 14 (3136000)
I1013 11:27:18.081131 12690 net.cpp:129] Top shape: 50 320 14 14 (3136000)
I1013 11:27:18.081146 12690 net.cpp:137] Memory required for data: 1357731400
I1013 11:27:18.081151 12690 layer_factory.hpp:77] Creating layer Convolution16
I1013 11:27:18.081161 12690 net.cpp:84] Creating Layer Convolution16
I1013 11:27:18.081166 12690 net.cpp:406] Convolution16 <- Eltwise6_penlu12_0_split_0
I1013 11:27:18.081171 12690 net.cpp:380] Convolution16 -> Convolution16
I1013 11:27:18.103363 12690 net.cpp:122] Setting up Convolution16
I1013 11:27:18.103384 12690 net.cpp:129] Top shape: 50 320 14 14 (3136000)
I1013 11:27:18.103389 12690 net.cpp:137] Memory required for data: 1370275400
I1013 11:27:18.103405 12690 layer_factory.hpp:77] Creating layer BatchNorm13
I1013 11:27:18.103415 12690 net.cpp:84] Creating Layer BatchNorm13
I1013 11:27:18.103423 12690 net.cpp:406] BatchNorm13 <- Convolution16
I1013 11:27:18.103433 12690 net.cpp:367] BatchNorm13 -> Convolution16 (in-place)
I1013 11:27:18.103607 12690 net.cpp:122] Setting up BatchNorm13
I1013 11:27:18.103615 12690 net.cpp:129] Top shape: 50 320 14 14 (3136000)
I1013 11:27:18.103618 12690 net.cpp:137] Memory required for data: 1382819400
I1013 11:27:18.103638 12690 layer_factory.hpp:77] Creating layer Scale13
I1013 11:27:18.103657 12690 net.cpp:84] Creating Layer Scale13
I1013 11:27:18.103662 12690 net.cpp:406] Scale13 <- Convolution16
I1013 11:27:18.103672 12690 net.cpp:367] Scale13 -> Convolution16 (in-place)
I1013 11:27:18.103730 12690 layer_factory.hpp:77] Creating layer Scale13
I1013 11:27:18.103863 12690 net.cpp:122] Setting up Scale13
I1013 11:27:18.103870 12690 net.cpp:129] Top shape: 50 320 14 14 (3136000)
I1013 11:27:18.103874 12690 net.cpp:137] Memory required for data: 1395363400
I1013 11:27:18.103893 12690 layer_factory.hpp:77] Creating layer penlu13
I1013 11:27:18.103917 12690 net.cpp:84] Creating Layer penlu13
I1013 11:27:18.103930 12690 net.cpp:406] penlu13 <- Convolution16
I1013 11:27:18.103948 12690 net.cpp:367] penlu13 -> Convolution16 (in-place)
I1013 11:27:18.104118 12690 net.cpp:122] Setting up penlu13
I1013 11:27:18.104126 12690 net.cpp:129] Top shape: 50 320 14 14 (3136000)
I1013 11:27:18.104130 12690 net.cpp:137] Memory required for data: 1407907400
I1013 11:27:18.104148 12690 layer_factory.hpp:77] Creating layer Convolution17
I1013 11:27:18.104159 12690 net.cpp:84] Creating Layer Convolution17
I1013 11:27:18.104163 12690 net.cpp:406] Convolution17 <- Convolution16
I1013 11:27:18.104171 12690 net.cpp:380] Convolution17 -> Convolution17
I1013 11:27:18.126296 12690 net.cpp:122] Setting up Convolution17
I1013 11:27:18.126313 12690 net.cpp:129] Top shape: 50 320 14 14 (3136000)
I1013 11:27:18.126317 12690 net.cpp:137] Memory required for data: 1420451400
I1013 11:27:18.126334 12690 layer_factory.hpp:77] Creating layer Eltwise7
I1013 11:27:18.126345 12690 net.cpp:84] Creating Layer Eltwise7
I1013 11:27:18.126351 12690 net.cpp:406] Eltwise7 <- Convolution17
I1013 11:27:18.126368 12690 net.cpp:406] Eltwise7 <- Eltwise6_penlu12_0_split_1
I1013 11:27:18.126375 12690 net.cpp:380] Eltwise7 -> Eltwise7
I1013 11:27:18.126404 12690 net.cpp:122] Setting up Eltwise7
I1013 11:27:18.126410 12690 net.cpp:129] Top shape: 50 320 14 14 (3136000)
I1013 11:27:18.126415 12690 net.cpp:137] Memory required for data: 1432995400
I1013 11:27:18.126420 12690 layer_factory.hpp:77] Creating layer BatchNorm14
I1013 11:27:18.126428 12690 net.cpp:84] Creating Layer BatchNorm14
I1013 11:27:18.126432 12690 net.cpp:406] BatchNorm14 <- Eltwise7
I1013 11:27:18.126438 12690 net.cpp:367] BatchNorm14 -> Eltwise7 (in-place)
I1013 11:27:18.126597 12690 net.cpp:122] Setting up BatchNorm14
I1013 11:27:18.126605 12690 net.cpp:129] Top shape: 50 320 14 14 (3136000)
I1013 11:27:18.126608 12690 net.cpp:137] Memory required for data: 1445539400
I1013 11:27:18.126628 12690 layer_factory.hpp:77] Creating layer Scale14
I1013 11:27:18.126636 12690 net.cpp:84] Creating Layer Scale14
I1013 11:27:18.126641 12690 net.cpp:406] Scale14 <- Eltwise7
I1013 11:27:18.126646 12690 net.cpp:367] Scale14 -> Eltwise7 (in-place)
I1013 11:27:18.126695 12690 layer_factory.hpp:77] Creating layer Scale14
I1013 11:27:18.126823 12690 net.cpp:122] Setting up Scale14
I1013 11:27:18.126830 12690 net.cpp:129] Top shape: 50 320 14 14 (3136000)
I1013 11:27:18.126835 12690 net.cpp:137] Memory required for data: 1458083400
I1013 11:27:18.126853 12690 layer_factory.hpp:77] Creating layer penlu14
I1013 11:27:18.126863 12690 net.cpp:84] Creating Layer penlu14
I1013 11:27:18.126868 12690 net.cpp:406] penlu14 <- Eltwise7
I1013 11:27:18.126876 12690 net.cpp:367] penlu14 -> Eltwise7 (in-place)
I1013 11:27:18.127074 12690 net.cpp:122] Setting up penlu14
I1013 11:27:18.127081 12690 net.cpp:129] Top shape: 50 320 14 14 (3136000)
I1013 11:27:18.127084 12690 net.cpp:137] Memory required for data: 1470627400
I1013 11:27:18.127121 12690 layer_factory.hpp:77] Creating layer Eltwise7_penlu14_0_split
I1013 11:27:18.127128 12690 net.cpp:84] Creating Layer Eltwise7_penlu14_0_split
I1013 11:27:18.127135 12690 net.cpp:406] Eltwise7_penlu14_0_split <- Eltwise7
I1013 11:27:18.127140 12690 net.cpp:380] Eltwise7_penlu14_0_split -> Eltwise7_penlu14_0_split_0
I1013 11:27:18.127148 12690 net.cpp:380] Eltwise7_penlu14_0_split -> Eltwise7_penlu14_0_split_1
I1013 11:27:18.127179 12690 net.cpp:122] Setting up Eltwise7_penlu14_0_split
I1013 11:27:18.127187 12690 net.cpp:129] Top shape: 50 320 14 14 (3136000)
I1013 11:27:18.127193 12690 net.cpp:129] Top shape: 50 320 14 14 (3136000)
I1013 11:27:18.127198 12690 net.cpp:137] Memory required for data: 1495715400
I1013 11:27:18.127202 12690 layer_factory.hpp:77] Creating layer Convolution18
I1013 11:27:18.127215 12690 net.cpp:84] Creating Layer Convolution18
I1013 11:27:18.127220 12690 net.cpp:406] Convolution18 <- Eltwise7_penlu14_0_split_0
I1013 11:27:18.127228 12690 net.cpp:380] Convolution18 -> Convolution18
I1013 11:27:18.149374 12690 net.cpp:122] Setting up Convolution18
I1013 11:27:18.149390 12690 net.cpp:129] Top shape: 50 320 14 14 (3136000)
I1013 11:27:18.149395 12690 net.cpp:137] Memory required for data: 1508259400
I1013 11:27:18.149401 12690 layer_factory.hpp:77] Creating layer BatchNorm15
I1013 11:27:18.149410 12690 net.cpp:84] Creating Layer BatchNorm15
I1013 11:27:18.149416 12690 net.cpp:406] BatchNorm15 <- Convolution18
I1013 11:27:18.149425 12690 net.cpp:367] BatchNorm15 -> Convolution18 (in-place)
I1013 11:27:18.149591 12690 net.cpp:122] Setting up BatchNorm15
I1013 11:27:18.149600 12690 net.cpp:129] Top shape: 50 320 14 14 (3136000)
I1013 11:27:18.149603 12690 net.cpp:137] Memory required for data: 1520803400
I1013 11:27:18.149622 12690 layer_factory.hpp:77] Creating layer Scale15
I1013 11:27:18.149631 12690 net.cpp:84] Creating Layer Scale15
I1013 11:27:18.149636 12690 net.cpp:406] Scale15 <- Convolution18
I1013 11:27:18.149643 12690 net.cpp:367] Scale15 -> Convolution18 (in-place)
I1013 11:27:18.149689 12690 layer_factory.hpp:77] Creating layer Scale15
I1013 11:27:18.149780 12690 net.cpp:122] Setting up Scale15
I1013 11:27:18.149786 12690 net.cpp:129] Top shape: 50 320 14 14 (3136000)
I1013 11:27:18.149791 12690 net.cpp:137] Memory required for data: 1533347400
I1013 11:27:18.149798 12690 layer_factory.hpp:77] Creating layer penlu15
I1013 11:27:18.149808 12690 net.cpp:84] Creating Layer penlu15
I1013 11:27:18.149812 12690 net.cpp:406] penlu15 <- Convolution18
I1013 11:27:18.149818 12690 net.cpp:367] penlu15 -> Convolution18 (in-place)
I1013 11:27:18.149981 12690 net.cpp:122] Setting up penlu15
I1013 11:27:18.149988 12690 net.cpp:129] Top shape: 50 320 14 14 (3136000)
I1013 11:27:18.149992 12690 net.cpp:137] Memory required for data: 1545891400
I1013 11:27:18.150001 12690 layer_factory.hpp:77] Creating layer Convolution19
I1013 11:27:18.150012 12690 net.cpp:84] Creating Layer Convolution19
I1013 11:27:18.150015 12690 net.cpp:406] Convolution19 <- Convolution18
I1013 11:27:18.150022 12690 net.cpp:380] Convolution19 -> Convolution19
I1013 11:27:18.171943 12690 net.cpp:122] Setting up Convolution19
I1013 11:27:18.171963 12690 net.cpp:129] Top shape: 50 320 14 14 (3136000)
I1013 11:27:18.171967 12690 net.cpp:137] Memory required for data: 1558435400
I1013 11:27:18.171974 12690 layer_factory.hpp:77] Creating layer Eltwise8
I1013 11:27:18.172009 12690 net.cpp:84] Creating Layer Eltwise8
I1013 11:27:18.172016 12690 net.cpp:406] Eltwise8 <- Convolution19
I1013 11:27:18.172034 12690 net.cpp:406] Eltwise8 <- Eltwise7_penlu14_0_split_1
I1013 11:27:18.172049 12690 net.cpp:380] Eltwise8 -> Eltwise8
I1013 11:27:18.172106 12690 net.cpp:122] Setting up Eltwise8
I1013 11:27:18.172112 12690 net.cpp:129] Top shape: 50 320 14 14 (3136000)
I1013 11:27:18.172116 12690 net.cpp:137] Memory required for data: 1570979400
I1013 11:27:18.172132 12690 layer_factory.hpp:77] Creating layer Eltwise8_Eltwise8_0_split
I1013 11:27:18.172147 12690 net.cpp:84] Creating Layer Eltwise8_Eltwise8_0_split
I1013 11:27:18.172152 12690 net.cpp:406] Eltwise8_Eltwise8_0_split <- Eltwise8
I1013 11:27:18.172171 12690 net.cpp:380] Eltwise8_Eltwise8_0_split -> Eltwise8_Eltwise8_0_split_0
I1013 11:27:18.172179 12690 net.cpp:380] Eltwise8_Eltwise8_0_split -> Eltwise8_Eltwise8_0_split_1
I1013 11:27:18.172220 12690 net.cpp:122] Setting up Eltwise8_Eltwise8_0_split
I1013 11:27:18.172227 12690 net.cpp:129] Top shape: 50 320 14 14 (3136000)
I1013 11:27:18.172233 12690 net.cpp:129] Top shape: 50 320 14 14 (3136000)
I1013 11:27:18.172238 12690 net.cpp:137] Memory required for data: 1596067400
I1013 11:27:18.172242 12690 layer_factory.hpp:77] Creating layer Convolution20
I1013 11:27:18.172264 12690 net.cpp:84] Creating Layer Convolution20
I1013 11:27:18.172269 12690 net.cpp:406] Convolution20 <- Eltwise8_Eltwise8_0_split_0
I1013 11:27:18.172286 12690 net.cpp:380] Convolution20 -> Convolution20
I1013 11:27:18.214609 12690 net.cpp:122] Setting up Convolution20
I1013 11:27:18.214632 12690 net.cpp:129] Top shape: 50 640 7 7 (1568000)
I1013 11:27:18.214637 12690 net.cpp:137] Memory required for data: 1602339400
I1013 11:27:18.214643 12690 layer_factory.hpp:77] Creating layer BatchNorm16
I1013 11:27:18.214656 12690 net.cpp:84] Creating Layer BatchNorm16
I1013 11:27:18.214675 12690 net.cpp:406] BatchNorm16 <- Convolution20
I1013 11:27:18.214685 12690 net.cpp:367] BatchNorm16 -> Convolution20 (in-place)
I1013 11:27:18.214898 12690 net.cpp:122] Setting up BatchNorm16
I1013 11:27:18.214906 12690 net.cpp:129] Top shape: 50 640 7 7 (1568000)
I1013 11:27:18.214910 12690 net.cpp:137] Memory required for data: 1608611400
I1013 11:27:18.214920 12690 layer_factory.hpp:77] Creating layer Scale16
I1013 11:27:18.214937 12690 net.cpp:84] Creating Layer Scale16
I1013 11:27:18.214943 12690 net.cpp:406] Scale16 <- Convolution20
I1013 11:27:18.214951 12690 net.cpp:367] Scale16 -> Convolution20 (in-place)
I1013 11:27:18.214998 12690 layer_factory.hpp:77] Creating layer Scale16
I1013 11:27:18.215106 12690 net.cpp:122] Setting up Scale16
I1013 11:27:18.215112 12690 net.cpp:129] Top shape: 50 640 7 7 (1568000)
I1013 11:27:18.215116 12690 net.cpp:137] Memory required for data: 1614883400
I1013 11:27:18.215134 12690 layer_factory.hpp:77] Creating layer penlu16
I1013 11:27:18.215143 12690 net.cpp:84] Creating Layer penlu16
I1013 11:27:18.215147 12690 net.cpp:406] penlu16 <- Convolution20
I1013 11:27:18.215155 12690 net.cpp:367] penlu16 -> Convolution20 (in-place)
I1013 11:27:18.215801 12690 net.cpp:122] Setting up penlu16
I1013 11:27:18.215811 12690 net.cpp:129] Top shape: 50 640 7 7 (1568000)
I1013 11:27:18.215816 12690 net.cpp:137] Memory required for data: 1621155400
I1013 11:27:18.215823 12690 layer_factory.hpp:77] Creating layer Convolution21
I1013 11:27:18.215837 12690 net.cpp:84] Creating Layer Convolution21
I1013 11:27:18.215842 12690 net.cpp:406] Convolution21 <- Convolution20
I1013 11:27:18.215849 12690 net.cpp:380] Convolution21 -> Convolution21
I1013 11:27:18.299715 12690 net.cpp:122] Setting up Convolution21
I1013 11:27:18.299738 12690 net.cpp:129] Top shape: 50 640 7 7 (1568000)
I1013 11:27:18.299743 12690 net.cpp:137] Memory required for data: 1627427400
I1013 11:27:18.299751 12690 layer_factory.hpp:77] Creating layer Convolution22
I1013 11:27:18.299777 12690 net.cpp:84] Creating Layer Convolution22
I1013 11:27:18.299784 12690 net.cpp:406] Convolution22 <- Eltwise8_Eltwise8_0_split_1
I1013 11:27:18.299839 12690 net.cpp:380] Convolution22 -> Convolution22
I1013 11:27:18.305155 12690 net.cpp:122] Setting up Convolution22
I1013 11:27:18.305166 12690 net.cpp:129] Top shape: 50 640 7 7 (1568000)
I1013 11:27:18.305171 12690 net.cpp:137] Memory required for data: 1633699400
I1013 11:27:18.305177 12690 layer_factory.hpp:77] Creating layer Eltwise9
I1013 11:27:18.305187 12690 net.cpp:84] Creating Layer Eltwise9
I1013 11:27:18.305207 12690 net.cpp:406] Eltwise9 <- Convolution21
I1013 11:27:18.305212 12690 net.cpp:406] Eltwise9 <- Convolution22
I1013 11:27:18.305228 12690 net.cpp:380] Eltwise9 -> Eltwise9
I1013 11:27:18.305287 12690 net.cpp:122] Setting up Eltwise9
I1013 11:27:18.305302 12690 net.cpp:129] Top shape: 50 640 7 7 (1568000)
I1013 11:27:18.305306 12690 net.cpp:137] Memory required for data: 1639971400
I1013 11:27:18.305321 12690 layer_factory.hpp:77] Creating layer BatchNorm17
I1013 11:27:18.305330 12690 net.cpp:84] Creating Layer BatchNorm17
I1013 11:27:18.305335 12690 net.cpp:406] BatchNorm17 <- Eltwise9
I1013 11:27:18.305351 12690 net.cpp:367] BatchNorm17 -> Eltwise9 (in-place)
I1013 11:27:18.305521 12690 net.cpp:122] Setting up BatchNorm17
I1013 11:27:18.305528 12690 net.cpp:129] Top shape: 50 640 7 7 (1568000)
I1013 11:27:18.305532 12690 net.cpp:137] Memory required for data: 1646243400
I1013 11:27:18.305541 12690 layer_factory.hpp:77] Creating layer Scale17
I1013 11:27:18.305562 12690 net.cpp:84] Creating Layer Scale17
I1013 11:27:18.305577 12690 net.cpp:406] Scale17 <- Eltwise9
I1013 11:27:18.305583 12690 net.cpp:367] Scale17 -> Eltwise9 (in-place)
I1013 11:27:18.305647 12690 layer_factory.hpp:77] Creating layer Scale17
I1013 11:27:18.305745 12690 net.cpp:122] Setting up Scale17
I1013 11:27:18.305752 12690 net.cpp:129] Top shape: 50 640 7 7 (1568000)
I1013 11:27:18.305757 12690 net.cpp:137] Memory required for data: 1652515400
I1013 11:27:18.305775 12690 layer_factory.hpp:77] Creating layer penlu17
I1013 11:27:18.305785 12690 net.cpp:84] Creating Layer penlu17
I1013 11:27:18.305789 12690 net.cpp:406] penlu17 <- Eltwise9
I1013 11:27:18.305805 12690 net.cpp:367] penlu17 -> Eltwise9 (in-place)
I1013 11:27:18.306020 12690 net.cpp:122] Setting up penlu17
I1013 11:27:18.306028 12690 net.cpp:129] Top shape: 50 640 7 7 (1568000)
I1013 11:27:18.306031 12690 net.cpp:137] Memory required for data: 1658787400
I1013 11:27:18.306049 12690 layer_factory.hpp:77] Creating layer Eltwise9_penlu17_0_split
I1013 11:27:18.306058 12690 net.cpp:84] Creating Layer Eltwise9_penlu17_0_split
I1013 11:27:18.306062 12690 net.cpp:406] Eltwise9_penlu17_0_split <- Eltwise9
I1013 11:27:18.306069 12690 net.cpp:380] Eltwise9_penlu17_0_split -> Eltwise9_penlu17_0_split_0
I1013 11:27:18.306077 12690 net.cpp:380] Eltwise9_penlu17_0_split -> Eltwise9_penlu17_0_split_1
I1013 11:27:18.306120 12690 net.cpp:122] Setting up Eltwise9_penlu17_0_split
I1013 11:27:18.306128 12690 net.cpp:129] Top shape: 50 640 7 7 (1568000)
I1013 11:27:18.306143 12690 net.cpp:129] Top shape: 50 640 7 7 (1568000)
I1013 11:27:18.306149 12690 net.cpp:137] Memory required for data: 1671331400
I1013 11:27:18.306152 12690 layer_factory.hpp:77] Creating layer Convolution23
I1013 11:27:18.306161 12690 net.cpp:84] Creating Layer Convolution23
I1013 11:27:18.306165 12690 net.cpp:406] Convolution23 <- Eltwise9_penlu17_0_split_0
I1013 11:27:18.306172 12690 net.cpp:380] Convolution23 -> Convolution23
I1013 11:27:18.389292 12690 net.cpp:122] Setting up Convolution23
I1013 11:27:18.389315 12690 net.cpp:129] Top shape: 50 640 7 7 (1568000)
I1013 11:27:18.389320 12690 net.cpp:137] Memory required for data: 1677603400
I1013 11:27:18.389328 12690 layer_factory.hpp:77] Creating layer BatchNorm18
I1013 11:27:18.389340 12690 net.cpp:84] Creating Layer BatchNorm18
I1013 11:27:18.389359 12690 net.cpp:406] BatchNorm18 <- Convolution23
I1013 11:27:18.389367 12690 net.cpp:367] BatchNorm18 -> Convolution23 (in-place)
I1013 11:27:18.389539 12690 net.cpp:122] Setting up BatchNorm18
I1013 11:27:18.389546 12690 net.cpp:129] Top shape: 50 640 7 7 (1568000)
I1013 11:27:18.389550 12690 net.cpp:137] Memory required for data: 1683875400
I1013 11:27:18.389580 12690 layer_factory.hpp:77] Creating layer Scale18
I1013 11:27:18.389591 12690 net.cpp:84] Creating Layer Scale18
I1013 11:27:18.389596 12690 net.cpp:406] Scale18 <- Convolution23
I1013 11:27:18.389602 12690 net.cpp:367] Scale18 -> Convolution23 (in-place)
I1013 11:27:18.389652 12690 layer_factory.hpp:77] Creating layer Scale18
I1013 11:27:18.389761 12690 net.cpp:122] Setting up Scale18
I1013 11:27:18.389768 12690 net.cpp:129] Top shape: 50 640 7 7 (1568000)
I1013 11:27:18.389772 12690 net.cpp:137] Memory required for data: 1690147400
I1013 11:27:18.389791 12690 layer_factory.hpp:77] Creating layer penlu18
I1013 11:27:18.389801 12690 net.cpp:84] Creating Layer penlu18
I1013 11:27:18.389806 12690 net.cpp:406] penlu18 <- Convolution23
I1013 11:27:18.389812 12690 net.cpp:367] penlu18 -> Convolution23 (in-place)
I1013 11:27:18.389962 12690 net.cpp:122] Setting up penlu18
I1013 11:27:18.389971 12690 net.cpp:129] Top shape: 50 640 7 7 (1568000)
I1013 11:27:18.389974 12690 net.cpp:137] Memory required for data: 1696419400
I1013 11:27:18.389991 12690 layer_factory.hpp:77] Creating layer Convolution24
I1013 11:27:18.390003 12690 net.cpp:84] Creating Layer Convolution24
I1013 11:27:18.390008 12690 net.cpp:406] Convolution24 <- Convolution23
I1013 11:27:18.390014 12690 net.cpp:380] Convolution24 -> Convolution24
I1013 11:27:18.473671 12690 net.cpp:122] Setting up Convolution24
I1013 11:27:18.473695 12690 net.cpp:129] Top shape: 50 640 7 7 (1568000)
I1013 11:27:18.473701 12690 net.cpp:137] Memory required for data: 1702691400
I1013 11:27:18.473708 12690 layer_factory.hpp:77] Creating layer Eltwise10
I1013 11:27:18.473731 12690 net.cpp:84] Creating Layer Eltwise10
I1013 11:27:18.473749 12690 net.cpp:406] Eltwise10 <- Convolution24
I1013 11:27:18.473767 12690 net.cpp:406] Eltwise10 <- Eltwise9_penlu17_0_split_1
I1013 11:27:18.473776 12690 net.cpp:380] Eltwise10 -> Eltwise10
I1013 11:27:18.473845 12690 net.cpp:122] Setting up Eltwise10
I1013 11:27:18.473851 12690 net.cpp:129] Top shape: 50 640 7 7 (1568000)
I1013 11:27:18.473855 12690 net.cpp:137] Memory required for data: 1708963400
I1013 11:27:18.473860 12690 layer_factory.hpp:77] Creating layer BatchNorm19
I1013 11:27:18.473883 12690 net.cpp:84] Creating Layer BatchNorm19
I1013 11:27:18.473887 12690 net.cpp:406] BatchNorm19 <- Eltwise10
I1013 11:27:18.473903 12690 net.cpp:367] BatchNorm19 -> Eltwise10 (in-place)
I1013 11:27:18.474108 12690 net.cpp:122] Setting up BatchNorm19
I1013 11:27:18.474117 12690 net.cpp:129] Top shape: 50 640 7 7 (1568000)
I1013 11:27:18.474120 12690 net.cpp:137] Memory required for data: 1715235400
I1013 11:27:18.474130 12690 layer_factory.hpp:77] Creating layer Scale19
I1013 11:27:18.474139 12690 net.cpp:84] Creating Layer Scale19
I1013 11:27:18.474143 12690 net.cpp:406] Scale19 <- Eltwise10
I1013 11:27:18.474153 12690 net.cpp:367] Scale19 -> Eltwise10 (in-place)
I1013 11:27:18.474210 12690 layer_factory.hpp:77] Creating layer Scale19
I1013 11:27:18.474354 12690 net.cpp:122] Setting up Scale19
I1013 11:27:18.474362 12690 net.cpp:129] Top shape: 50 640 7 7 (1568000)
I1013 11:27:18.474376 12690 net.cpp:137] Memory required for data: 1721507400
I1013 11:27:18.474385 12690 layer_factory.hpp:77] Creating layer penlu19
I1013 11:27:18.474405 12690 net.cpp:84] Creating Layer penlu19
I1013 11:27:18.474418 12690 net.cpp:406] penlu19 <- Eltwise10
I1013 11:27:18.474439 12690 net.cpp:367] penlu19 -> Eltwise10 (in-place)
I1013 11:27:18.474616 12690 net.cpp:122] Setting up penlu19
I1013 11:27:18.474623 12690 net.cpp:129] Top shape: 50 640 7 7 (1568000)
I1013 11:27:18.474638 12690 net.cpp:137] Memory required for data: 1727779400
I1013 11:27:18.474647 12690 layer_factory.hpp:77] Creating layer Eltwise10_penlu19_0_split
I1013 11:27:18.474664 12690 net.cpp:84] Creating Layer Eltwise10_penlu19_0_split
I1013 11:27:18.474678 12690 net.cpp:406] Eltwise10_penlu19_0_split <- Eltwise10
I1013 11:27:18.474696 12690 net.cpp:380] Eltwise10_penlu19_0_split -> Eltwise10_penlu19_0_split_0
I1013 11:27:18.474704 12690 net.cpp:380] Eltwise10_penlu19_0_split -> Eltwise10_penlu19_0_split_1
I1013 11:27:18.474759 12690 net.cpp:122] Setting up Eltwise10_penlu19_0_split
I1013 11:27:18.474767 12690 net.cpp:129] Top shape: 50 640 7 7 (1568000)
I1013 11:27:18.474774 12690 net.cpp:129] Top shape: 50 640 7 7 (1568000)
I1013 11:27:18.474779 12690 net.cpp:137] Memory required for data: 1740323400
I1013 11:27:18.474783 12690 layer_factory.hpp:77] Creating layer Convolution25
I1013 11:27:18.474795 12690 net.cpp:84] Creating Layer Convolution25
I1013 11:27:18.474800 12690 net.cpp:406] Convolution25 <- Eltwise10_penlu19_0_split_0
I1013 11:27:18.474807 12690 net.cpp:380] Convolution25 -> Convolution25
I1013 11:27:18.558008 12690 net.cpp:122] Setting up Convolution25
I1013 11:27:18.558032 12690 net.cpp:129] Top shape: 50 640 7 7 (1568000)
I1013 11:27:18.558037 12690 net.cpp:137] Memory required for data: 1746595400
I1013 11:27:18.558045 12690 layer_factory.hpp:77] Creating layer BatchNorm20
I1013 11:27:18.558058 12690 net.cpp:84] Creating Layer BatchNorm20
I1013 11:27:18.558076 12690 net.cpp:406] BatchNorm20 <- Convolution25
I1013 11:27:18.558095 12690 net.cpp:367] BatchNorm20 -> Convolution25 (in-place)
I1013 11:27:18.558333 12690 net.cpp:122] Setting up BatchNorm20
I1013 11:27:18.558341 12690 net.cpp:129] Top shape: 50 640 7 7 (1568000)
I1013 11:27:18.558346 12690 net.cpp:137] Memory required for data: 1752867400
I1013 11:27:18.558354 12690 layer_factory.hpp:77] Creating layer Scale20
I1013 11:27:18.558362 12690 net.cpp:84] Creating Layer Scale20
I1013 11:27:18.558379 12690 net.cpp:406] Scale20 <- Convolution25
I1013 11:27:18.558395 12690 net.cpp:367] Scale20 -> Convolution25 (in-place)
I1013 11:27:18.558455 12690 layer_factory.hpp:77] Creating layer Scale20
I1013 11:27:18.558568 12690 net.cpp:122] Setting up Scale20
I1013 11:27:18.558576 12690 net.cpp:129] Top shape: 50 640 7 7 (1568000)
I1013 11:27:18.558591 12690 net.cpp:137] Memory required for data: 1759139400
I1013 11:27:18.558599 12690 layer_factory.hpp:77] Creating layer penlu20
I1013 11:27:18.558609 12690 net.cpp:84] Creating Layer penlu20
I1013 11:27:18.558612 12690 net.cpp:406] penlu20 <- Convolution25
I1013 11:27:18.558619 12690 net.cpp:367] penlu20 -> Convolution25 (in-place)
I1013 11:27:18.558761 12690 net.cpp:122] Setting up penlu20
I1013 11:27:18.558768 12690 net.cpp:129] Top shape: 50 640 7 7 (1568000)
I1013 11:27:18.558773 12690 net.cpp:137] Memory required for data: 1765411400
I1013 11:27:18.558781 12690 layer_factory.hpp:77] Creating layer Convolution26
I1013 11:27:18.558792 12690 net.cpp:84] Creating Layer Convolution26
I1013 11:27:18.558797 12690 net.cpp:406] Convolution26 <- Convolution25
I1013 11:27:18.558805 12690 net.cpp:380] Convolution26 -> Convolution26
I1013 11:27:18.642400 12690 net.cpp:122] Setting up Convolution26
I1013 11:27:18.642423 12690 net.cpp:129] Top shape: 50 640 7 7 (1568000)
I1013 11:27:18.642428 12690 net.cpp:137] Memory required for data: 1771683400
I1013 11:27:18.642437 12690 layer_factory.hpp:77] Creating layer Eltwise11
I1013 11:27:18.642448 12690 net.cpp:84] Creating Layer Eltwise11
I1013 11:27:18.642467 12690 net.cpp:406] Eltwise11 <- Convolution26
I1013 11:27:18.642474 12690 net.cpp:406] Eltwise11 <- Eltwise10_penlu19_0_split_1
I1013 11:27:18.642483 12690 net.cpp:380] Eltwise11 -> Eltwise11
I1013 11:27:18.642529 12690 net.cpp:122] Setting up Eltwise11
I1013 11:27:18.642535 12690 net.cpp:129] Top shape: 50 640 7 7 (1568000)
I1013 11:27:18.642540 12690 net.cpp:137] Memory required for data: 1777955400
I1013 11:27:18.642545 12690 layer_factory.hpp:77] Creating layer BatchNorm21
I1013 11:27:18.642554 12690 net.cpp:84] Creating Layer BatchNorm21
I1013 11:27:18.642570 12690 net.cpp:406] BatchNorm21 <- Eltwise11
I1013 11:27:18.642586 12690 net.cpp:367] BatchNorm21 -> Eltwise11 (in-place)
I1013 11:27:18.642778 12690 net.cpp:122] Setting up BatchNorm21
I1013 11:27:18.642786 12690 net.cpp:129] Top shape: 50 640 7 7 (1568000)
I1013 11:27:18.642791 12690 net.cpp:137] Memory required for data: 1784227400
I1013 11:27:18.642809 12690 layer_factory.hpp:77] Creating layer Scale21
I1013 11:27:18.642850 12690 net.cpp:84] Creating Layer Scale21
I1013 11:27:18.642866 12690 net.cpp:406] Scale21 <- Eltwise11
I1013 11:27:18.642873 12690 net.cpp:367] Scale21 -> Eltwise11 (in-place)
I1013 11:27:18.642933 12690 layer_factory.hpp:77] Creating layer Scale21
I1013 11:27:18.643071 12690 net.cpp:122] Setting up Scale21
I1013 11:27:18.643079 12690 net.cpp:129] Top shape: 50 640 7 7 (1568000)
I1013 11:27:18.643082 12690 net.cpp:137] Memory required for data: 1790499400
I1013 11:27:18.643100 12690 layer_factory.hpp:77] Creating layer penlu21
I1013 11:27:18.643126 12690 net.cpp:84] Creating Layer penlu21
I1013 11:27:18.643139 12690 net.cpp:406] penlu21 <- Eltwise11
I1013 11:27:18.643146 12690 net.cpp:367] penlu21 -> Eltwise11 (in-place)
I1013 11:27:18.643292 12690 net.cpp:122] Setting up penlu21
I1013 11:27:18.643301 12690 net.cpp:129] Top shape: 50 640 7 7 (1568000)
I1013 11:27:18.643306 12690 net.cpp:137] Memory required for data: 1796771400
I1013 11:27:18.643324 12690 layer_factory.hpp:77] Creating layer Eltwise11_penlu21_0_split
I1013 11:27:18.643331 12690 net.cpp:84] Creating Layer Eltwise11_penlu21_0_split
I1013 11:27:18.643335 12690 net.cpp:406] Eltwise11_penlu21_0_split <- Eltwise11
I1013 11:27:18.643342 12690 net.cpp:380] Eltwise11_penlu21_0_split -> Eltwise11_penlu21_0_split_0
I1013 11:27:18.643359 12690 net.cpp:380] Eltwise11_penlu21_0_split -> Eltwise11_penlu21_0_split_1
I1013 11:27:18.643402 12690 net.cpp:122] Setting up Eltwise11_penlu21_0_split
I1013 11:27:18.643409 12690 net.cpp:129] Top shape: 50 640 7 7 (1568000)
I1013 11:27:18.643424 12690 net.cpp:129] Top shape: 50 640 7 7 (1568000)
I1013 11:27:18.643427 12690 net.cpp:137] Memory required for data: 1809315400
I1013 11:27:18.643442 12690 layer_factory.hpp:77] Creating layer Convolution27
I1013 11:27:18.643470 12690 net.cpp:84] Creating Layer Convolution27
I1013 11:27:18.643473 12690 net.cpp:406] Convolution27 <- Eltwise11_penlu21_0_split_0
I1013 11:27:18.643491 12690 net.cpp:380] Convolution27 -> Convolution27
I1013 11:27:18.726487 12690 net.cpp:122] Setting up Convolution27
I1013 11:27:18.726516 12690 net.cpp:129] Top shape: 50 640 7 7 (1568000)
I1013 11:27:18.726521 12690 net.cpp:137] Memory required for data: 1815587400
I1013 11:27:18.726539 12690 layer_factory.hpp:77] Creating layer BatchNorm22
I1013 11:27:18.726563 12690 net.cpp:84] Creating Layer BatchNorm22
I1013 11:27:18.726572 12690 net.cpp:406] BatchNorm22 <- Convolution27
I1013 11:27:18.726583 12690 net.cpp:367] BatchNorm22 -> Convolution27 (in-place)
I1013 11:27:18.726789 12690 net.cpp:122] Setting up BatchNorm22
I1013 11:27:18.726799 12690 net.cpp:129] Top shape: 50 640 7 7 (1568000)
I1013 11:27:18.726802 12690 net.cpp:137] Memory required for data: 1821859400
I1013 11:27:18.726822 12690 layer_factory.hpp:77] Creating layer Scale22
I1013 11:27:18.726842 12690 net.cpp:84] Creating Layer Scale22
I1013 11:27:18.726858 12690 net.cpp:406] Scale22 <- Convolution27
I1013 11:27:18.726876 12690 net.cpp:367] Scale22 -> Convolution27 (in-place)
I1013 11:27:18.726941 12690 layer_factory.hpp:77] Creating layer Scale22
I1013 11:27:18.727084 12690 net.cpp:122] Setting up Scale22
I1013 11:27:18.727093 12690 net.cpp:129] Top shape: 50 640 7 7 (1568000)
I1013 11:27:18.727097 12690 net.cpp:137] Memory required for data: 1828131400
I1013 11:27:18.727115 12690 layer_factory.hpp:77] Creating layer penlu22
I1013 11:27:18.727126 12690 net.cpp:84] Creating Layer penlu22
I1013 11:27:18.727131 12690 net.cpp:406] penlu22 <- Convolution27
I1013 11:27:18.727140 12690 net.cpp:367] penlu22 -> Convolution27 (in-place)
I1013 11:27:18.727290 12690 net.cpp:122] Setting up penlu22
I1013 11:27:18.727298 12690 net.cpp:129] Top shape: 50 640 7 7 (1568000)
I1013 11:27:18.727301 12690 net.cpp:137] Memory required for data: 1834403400
I1013 11:27:18.727319 12690 layer_factory.hpp:77] Creating layer Convolution28
I1013 11:27:18.727331 12690 net.cpp:84] Creating Layer Convolution28
I1013 11:27:18.727336 12690 net.cpp:406] Convolution28 <- Convolution27
I1013 11:27:18.727344 12690 net.cpp:380] Convolution28 -> Convolution28
I1013 11:27:18.810971 12690 net.cpp:122] Setting up Convolution28
I1013 11:27:18.810997 12690 net.cpp:129] Top shape: 50 640 7 7 (1568000)
I1013 11:27:18.811002 12690 net.cpp:137] Memory required for data: 1840675400
I1013 11:27:18.811020 12690 layer_factory.hpp:77] Creating layer Eltwise12
I1013 11:27:18.811044 12690 net.cpp:84] Creating Layer Eltwise12
I1013 11:27:18.811053 12690 net.cpp:406] Eltwise12 <- Convolution28
I1013 11:27:18.811069 12690 net.cpp:406] Eltwise12 <- Eltwise11_penlu21_0_split_1
I1013 11:27:18.811087 12690 net.cpp:380] Eltwise12 -> Eltwise12
I1013 11:27:18.811136 12690 net.cpp:122] Setting up Eltwise12
I1013 11:27:18.811152 12690 net.cpp:129] Top shape: 50 640 7 7 (1568000)
I1013 11:27:18.811156 12690 net.cpp:137] Memory required for data: 1846947400
I1013 11:27:18.811172 12690 layer_factory.hpp:77] Creating layer Pooling1
I1013 11:27:18.811195 12690 net.cpp:84] Creating Layer Pooling1
I1013 11:27:18.811210 12690 net.cpp:406] Pooling1 <- Eltwise12
I1013 11:27:18.811233 12690 net.cpp:380] Pooling1 -> Pooling1
I1013 11:27:18.811821 12690 net.cpp:122] Setting up Pooling1
I1013 11:27:18.811833 12690 net.cpp:129] Top shape: 50 640 1 1 (32000)
I1013 11:27:18.811837 12690 net.cpp:137] Memory required for data: 1847075400
I1013 11:27:18.811854 12690 layer_factory.hpp:77] Creating layer InnerProduct1
I1013 11:27:18.811878 12690 net.cpp:84] Creating Layer InnerProduct1
I1013 11:27:18.811884 12690 net.cpp:406] InnerProduct1 <- Pooling1
I1013 11:27:18.811900 12690 net.cpp:380] InnerProduct1 -> InnerProduct1
I1013 11:27:18.812099 12690 net.cpp:122] Setting up InnerProduct1
I1013 11:27:18.812108 12690 net.cpp:129] Top shape: 50 100 (5000)
I1013 11:27:18.812110 12690 net.cpp:137] Memory required for data: 1847095400
I1013 11:27:18.812129 12690 layer_factory.hpp:77] Creating layer SoftmaxWithLoss1
I1013 11:27:18.812147 12690 net.cpp:84] Creating Layer SoftmaxWithLoss1
I1013 11:27:18.812152 12690 net.cpp:406] SoftmaxWithLoss1 <- InnerProduct1
I1013 11:27:18.812158 12690 net.cpp:406] SoftmaxWithLoss1 <- label
I1013 11:27:18.812165 12690 net.cpp:380] SoftmaxWithLoss1 -> SoftmaxWithLoss1
…
I1013 11:27:18.815167 12690 net.cpp:294] The NetState phase (1) differed from the phase (0) specified by a rule in layer cifar
I1013 11:27:18.815655 12690 net.cpp:51] Initializing net from parameters: 
name: "wrn_28_10"
state {
  phase: TEST
}
layer {
  name: "cifar"
  type: "Data"
  top: "data"
  top: "label"
  include {
    phase: TEST
  }
  transform_param {
    mirror: false
    crop_size: 28
    mean_file: "/home/x306/caffe/xn/PENLU/data/cifar100/mean.binaryproto"
  }
  data_param {
    source: "/home/x306/caffe/xn/PENLU/data/cifar100/cifar100_test_lmdb"
    batch_size: 50
    backend: LMDB
  }
}
layer {
  name: "Convolution1"
  type: "Convolution"
  bottom: "data"
  top: "Convolution1"
  convolution_param {
    num_output: 16
    pad: 1
    kernel_size: 3
    stride: 1
    weight_filler {
      type: "msra"
    }
  }
}
layer {
  name: "BatchNorm1"
  type: "BatchNorm"
  bottom: "Convolution1"
  top: "Convolution1"
  param {
    lr_mult: 0
    decay_mult: 0
  }
  param {
    lr_mult: 0
    decay_mult: 0
  }
  param {
    lr_mult: 0
    decay_mult: 0
  }
  batch_norm_param {
    use_global_stats: false
  }
}
layer {
  name: "Scale1"
  type: "Scale"
  bottom: "Convolution1"
  top: "Convolution1"
  scale_param {
    bias_term: true
  }
}
layer {
  name: "penlu1"
  type: "PENLU"
  bottom: "Convolution1"
  top: "Convolution1"
  param {
    lr_mult: 2
    decay_mult: 2
  }
  param {
    lr_mult: 2
    decay_mult: 2
  }
  param {
    lr_mult: 0
    decay_mult: 0
  }
  penlu_param {
    alpha_filler {
      type: "constant"
      value: 0.25
    }
    beta_filler {
      type: "constant"
      value: 1
    }
    eta_filler {
      type: "constant"
      value: 1
    }
  }
}
layer {
  name: "Convolution2"
  type: "Convolution"
  bottom: "Convolution1"
  top: "Convolution2"
  convolution_param {
    num_output: 160
    bias_term: false
    pad: 1
    kernel_size: 3
    stride: 1
    weight_filler {
      type: "msra"
    }
  }
}
layer {
  name: "BatchNorm2"
  type: "BatchNorm"
  bottom: "Convolution2"
  top: "Convolution2"
  param {
    lr_mult: 0
    decay_mult: 0
  }
  param {
    lr_mult: 0
    decay_mult: 0
  }
  param {
    lr_mult: 0
    decay_mult: 0
  }
  batch_norm_param {
    use_global_stats: false
  }
}
layer {
  name: "Scale2"
  type: "Scale"
  bottom: "Convolution2"
  top: "Convolution2"
  scale_param {
    bias_term: true
  }
}
layer {
  name: "penlu2"
  type: "PENLU"
  bottom: "Convolution2"
  top: "Convolution2"
  param {
    lr_mult: 2
    decay_mult: 2
  }
  param {
    lr_mult: 2
    decay_mult: 2
  }
  param {
    lr_mult: 0
    decay_mult: 0
  }
  penlu_param {
    alpha_filler {
      type: "constant"
      value: 0.25
    }
    beta_filler {
      type: "constant"
      value: 1
    }
    eta_filler {
      type: "constant"
      value: 1
    }
  }
}
layer {
  name: "Convolution3"
  type: "Convolution"
  bottom: "Convolution2"
  top: "Convolution3"
  convolution_param {
    num_output: 160
    bias_term: false
    pad: 1
    kernel_size: 3
    stride: 1
    weight_filler {
      type: "msra"
    }
  }
}
layer {
  name: "Convolution4"
  type: "Convolution"
  bottom: "Convolution1"
  top: "Convolution4"
  convolution_param {
    num_output: 160
    bias_term: false
    pad: 0
    kernel_size: 1
    stride: 1
    weight_filler {
      type: "msra"
    }
  }
}
layer {
  name: "Eltwise1"
  type: "Eltwise"
  bottom: "Convolution3"
  bottom: "Convolution4"
  top: "Eltwise1"
  eltwise_param {
    operation: SUM
  }
}
layer {
  name: "BatchNorm3"
  type: "BatchNorm"
  bottom: "Eltwise1"
  top: "Eltwise1"
  param {
    lr_mult: 0
    decay_mult: 0
  }
  param {
    lr_mult: 0
    decay_mult: 0
  }
  param {
    lr_mult: 0
    decay_mult: 0
  }
  batch_norm_param {
    use_global_stats: false
  }
}
layer {
  name: "Scale3"
  type: "Scale"
  bottom: "Eltwise1"
  top: "Eltwise1"
  scale_param {
    bias_term: true
  }
}
layer {
  name: "penlu3"
  type: "PENLU"
  bottom: "Eltwise1"
  top: "Eltwise1"
  param {
    lr_mult: 2
    decay_mult: 2
  }
  param {
    lr_mult: 2
    decay_mult: 2
  }
  param {
    lr_mult: 0
    decay_mult: 0
  }
  penlu_param {
    alpha_filler {
      type: "constant"
      value: 0.25
    }
    beta_filler {
      type: "constant"
      value: 1
    }
    eta_filler {
      type: "constant"
      value: 1
    }
  }
}
layer {
  name: "Convolution5"
  type: "Convolution"
  bottom: "Eltwise1"
  top: "Convolution5"
  convolution_param {
    num_output: 160
    bias_term: false
    pad: 1
    kernel_size: 3
    stride: 1
    weight_filler {
      type: "msra"
    }
  }
}
layer {
  name: "BatchNorm4"
  type: "BatchNorm"
  bottom: "Convolution5"
  top: "Convolution5"
  param {
    lr_mult: 0
    decay_mult: 0
  }
  param {
    lr_mult: 0
    decay_mult: 0
  }
  param {
    lr_mult: 0
    decay_mult: 0
  }
  batch_norm_param {
    use_global_stats: false
  }
}
layer {
  name: "Scale4"
  type: "Scale"
  bottom: "Convolution5"
  top: "Convolution5"
  scale_param {
    bias_term: true
  }
}
layer {
  name: "penlu4"
  type: "PENLU"
  bottom: "Convolution5"
  top: "Convolution5"
  param {
    lr_mult: 2
    decay_mult: 2
  }
  param {
    lr_mult: 2
    decay_mult: 2
  }
  param {
    lr_mult: 0
    decay_mult: 0
  }
  penlu_param {
    alpha_filler {
      type: "constant"
      value: 0.25
    }
    beta_filler {
      type: "constant"
      value: 1
    }
    eta_filler {
      type: "constant"
      value: 1
    }
  }
}
layer {
  name: "Convolution6"
  type: "Convolution"
  bottom: "Convolution5"
  top: "Convolution6"
  convolution_param {
    num_output: 160
    bias_term: false
    pad: 1
    kernel_size: 3
    stride: 1
    weight_filler {
      type: "msra"
    }
  }
}
layer {
  name: "Eltwise2"
  type: "Eltwise"
  bottom: "Convolution6"
  bottom: "Eltwise1"
  top: "Eltwise2"
  eltwise_param {
    operation: SUM
  }
}
layer {
  name: "BatchNorm5"
  type: "BatchNorm"
  bottom: "Eltwise2"
  top: "Eltwise2"
  param {
    lr_mult: 0
    decay_mult: 0
  }
  param {
    lr_mult: 0
    decay_mult: 0
  }
  param {
    lr_mult: 0
    decay_mult: 0
  }
  batch_norm_param {
    use_global_stats: false
  }
}
layer {
  name: "Scale5"
  type: "Scale"
  bottom: "Eltwise2"
  top: "Eltwise2"
  scale_param {
    bias_term: true
  }
}
layer {
  name: "penlu5"
  type: "PENLU"
  bottom: "Eltwise2"
  top: "Eltwise2"
  param {
    lr_mult: 2
    decay_mult: 2
  }
  param {
    lr_mult: 2
    decay_mult: 2
  }
  param {
    lr_mult: 0
    decay_mult: 0
  }
  penlu_param {
    alpha_filler {
      type: "constant"
      value: 0.25
    }
    beta_filler {
      type: "constant"
      value: 1
    }
    eta_filler {
      type: "constant"
      value: 1
    }
  }
}
layer {
  name: "Convolution7"
  type: "Convolution"
  bottom: "Eltwise2"
  top: "Convolution7"
  convolution_param {
    num_output: 160
    bias_term: false
    pad: 1
    kernel_size: 3
    stride: 1
    weight_filler {
      type: "msra"
    }
  }
}
layer {
  name: "BatchNorm6"
  type: "BatchNorm"
  bottom: "Convolution7"
  top: "Convolution7"
  param {
    lr_mult: 0
    decay_mult: 0
  }
  param {
    lr_mult: 0
    decay_mult: 0
  }
  param {
    lr_mult: 0
    decay_mult: 0
  }
  batch_norm_param {
    use_global_stats: false
  }
}
layer {
  name: "Scale6"
  type: "Scale"
  bottom: "Convolution7"
  top: "Convolution7"
  scale_param {
    bias_term: true
  }
}
layer {
  name: "penlu6"
  type: "PENLU"
  bottom: "Convolution7"
  top: "Convolution7"
  param {
    lr_mult: 2
    decay_mult: 2
  }
  param {
    lr_mult: 2
    decay_mult: 2
  }
  param {
    lr_mult: 0
    decay_mult: 0
  }
  penlu_param {
    alpha_filler {
      type: "constant"
      value: 0.25
    }
    beta_filler {
      type: "constant"
      value: 1
    }
    eta_filler {
      type: "constant"
      value: 1
    }
  }
}
layer {
  name: "Convolution8"
  type: "Convolution"
  bottom: "Convolution7"
  top: "Convolution8"
  convolution_param {
    num_output: 160
    bias_term: false
    pad: 1
    kernel_size: 3
    stride: 1
    weight_filler {
      type: "msra"
    }
  }
}
layer {
  name: "Eltwise3"
  type: "Eltwise"
  bottom: "Convolution8"
  bottom: "Eltwise2"
  top: "Eltwise3"
  eltwise_param {
    operation: SUM
  }
}
layer {
  name: "BatchNorm7"
  type: "BatchNorm"
  bottom: "Eltwise3"
  top: "Eltwise3"
  param {
    lr_mult: 0
    decay_mult: 0
  }
  param {
    lr_mult: 0
    decay_mult: 0
  }
  param {
    lr_mult: 0
    decay_mult: 0
  }
  batch_norm_param {
    use_global_stats: false
  }
}
layer {
  name: "Scale7"
  type: "Scale"
  bottom: "Eltwise3"
  top: "Eltwise3"
  scale_param {
    bias_term: true
  }
}
layer {
  name: "penlu7"
  type: "PENLU"
  bottom: "Eltwise3"
  top: "Eltwise3"
  param {
    lr_mult: 2
    decay_mult: 2
  }
  param {
    lr_mult: 2
    decay_mult: 2
  }
  param {
    lr_mult: 0
    decay_mult: 0
  }
  penlu_param {
    alpha_filler {
      type: "constant"
      value: 0.25
    }
    beta_filler {
      type: "constant"
      value: 1
    }
    eta_filler {
      type: "constant"
      value: 1
    }
  }
}
layer {
  name: "Convolution9"
  type: "Convolution"
  bottom: "Eltwise3"
  top: "Convolution9"
  convolution_param {
    num_output: 160
    bias_term: false
    pad: 1
    kernel_size: 3
    stride: 1
    weight_filler {
      type: "msra"
    }
  }
}
layer {
  name: "BatchNorm8"
  type: "BatchNorm"
  bottom: "Convolution9"
  top: "Convolution9"
  param {
    lr_mult: 0
    decay_mult: 0
  }
  param {
    lr_mult: 0
    decay_mult: 0
  }
  param {
    lr_mult: 0
    decay_mult: 0
  }
  batch_norm_param {
    use_global_stats: false
  }
}
layer {
  name: "Scale8"
  type: "Scale"
  bottom: "Convolution9"
  top: "Convolution9"
  scale_param {
    bias_term: true
  }
}
layer {
  name: "penlu8"
  type: "PENLU"
  bottom: "Convolution9"
  top: "Convolution9"
  param {
    lr_mult: 2
    decay_mult: 2
  }
  param {
    lr_mult: 2
    decay_mult: 2
  }
  param {
    lr_mult: 0
    decay_mult: 0
  }
  penlu_param {
    alpha_filler {
      type: "constant"
      value: 0.25
    }
    beta_filler {
      type: "constant"
      value: 1
    }
    eta_filler {
      type: "constant"
      value: 1
    }
  }
}
layer {
  name: "Convolution10"
  type: "Convolution"
  bottom: "Convolution9"
  top: "Convolution10"
  convolution_param {
    num_output: 160
    bias_term: false
    pad: 1
    kernel_size: 3
    stride: 1
    weight_filler {
      type: "msra"
    }
  }
}
layer {
  name: "Eltwise4"
  type: "Eltwise"
  bottom: "Convolution10"
  bottom: "Eltwise3"
  top: "Eltwise4"
  eltwise_param {
    operation: SUM
  }
}
layer {
  name: "Convolution11"
  type: "Convolution"
  bottom: "Eltwise4"
  top: "Convolution11"
  convolution_param {
    num_output: 320
    bias_term: false
    pad: 1
    kernel_size: 3
    stride: 2
    weight_filler {
      type: "msra"
    }
  }
}
layer {
  name: "BatchNorm9"
  type: "BatchNorm"
  bottom: "Convolution11"
  top: "Convolution11"
  param {
    lr_mult: 0
    decay_mult: 0
  }
  param {
    lr_mult: 0
    decay_mult: 0
  }
  param {
    lr_mult: 0
    decay_mult: 0
  }
  batch_norm_param {
    use_global_stats: false
  }
}
layer {
  name: "Scale9"
  type: "Scale"
  bottom: "Convolution11"
  top: "Convolution11"
  scale_param {
    bias_term: true
  }
}
layer {
  name: "penlu9"
  type: "PENLU"
  bottom: "Convolution11"
  top: "Convolution11"
  param {
    lr_mult: 2
    decay_mult: 2
  }
  param {
    lr_mult: 2
    decay_mult: 2
  }
  param {
    lr_mult: 0
    decay_mult: 0
  }
  penlu_param {
    alpha_filler {
      type: "constant"
      value: 0.25
    }
    beta_filler {
      type: "constant"
      value: 1
    }
    eta_filler {
      type: "constant"
      value: 1
    }
  }
}
layer {
  name: "Convolution12"
  type: "Convolution"
  bottom: "Convolution11"
  top: "Convolution12"
  convolution_param {
    num_output: 320
    bias_term: false
    pad: 1
    kernel_size: 3
    stride: 1
    weight_filler {
      type: "msra"
    }
  }
}
layer {
  name: "Convolution13"
  type: "Convolution"
  bottom: "Eltwise4"
  top: "Convolution13"
  convolution_param {
    num_output: 320
    bias_term: false
    pad: 0
    kernel_size: 1
    stride: 2
    weight_filler {
      type: "msra"
    }
  }
}
layer {
  name: "Eltwise5"
  type: "Eltwise"
  bottom: "Convolution12"
  bottom: "Convolution13"
  top: "Eltwise5"
  eltwise_param {
    operation: SUM
  }
}
layer {
  name: "BatchNorm10"
  type: "BatchNorm"
  bottom: "Eltwise5"
  top: "Eltwise5"
  param {
    lr_mult: 0
    decay_mult: 0
  }
  param {
    lr_mult: 0
    decay_mult: 0
  }
  param {
    lr_mult: 0
    decay_mult: 0
  }
  batch_norm_param {
    use_global_stats: false
  }
}
layer {
  name: "Scale10"
  type: "Scale"
  bottom: "Eltwise5"
  top: "Eltwise5"
  scale_param {
    bias_term: true
  }
}
layer {
  name: "penlu10"
  type: "PENLU"
  bottom: "Eltwise5"
  top: "Eltwise5"
  param {
    lr_mult: 2
    decay_mult: 2
  }
  param {
    lr_mult: 2
    decay_mult: 2
  }
  param {
    lr_mult: 0
    decay_mult: 0
  }
  penlu_param {
    alpha_filler {
      type: "constant"
      value: 0.25
    }
    beta_filler {
      type: "constant"
      value: 1
    }
    eta_filler {
      type: "constant"
      value: 1
    }
  }
}
layer {
  name: "Convolution14"
  type: "Convolution"
  bottom: "Eltwise5"
  top: "Convolution14"
  convolution_param {
    num_output: 320
    bias_term: false
    pad: 1
    kernel_size: 3
    stride: 1
    weight_filler {
      type: "msra"
    }
  }
}
layer {
  name: "BatchNorm11"
  type: "BatchNorm"
  bottom: "Convolution14"
  top: "Convolution14"
  param {
    lr_mult: 0
    decay_mult: 0
  }
  param {
    lr_mult: 0
    decay_mult: 0
  }
  param {
    lr_mult: 0
    decay_mult: 0
  }
  batch_norm_param {
    use_global_stats: false
  }
}
layer {
  name: "Scale11"
  type: "Scale"
  bottom: "Convolution14"
  top: "Convolution14"
  scale_param {
    bias_term: true
  }
}
layer {
  name: "penlu11"
  type: "PENLU"
  bottom: "Convolution14"
  top: "Convolution14"
  param {
    lr_mult: 2
    decay_mult: 2
  }
  param {
    lr_mult: 2
    decay_mult: 2
  }
  param {
    lr_mult: 0
    decay_mult: 0
  }
  penlu_param {
    alpha_filler {
      type: "constant"
      value: 0.25
    }
    beta_filler {
      type: "constant"
      value: 1
    }
    eta_filler {
      type: "constant"
      value: 1
    }
  }
}
layer {
  name: "Convolution15"
  type: "Convolution"
  bottom: "Convolution14"
  top: "Convolution15"
  convolution_param {
    num_output: 320
    bias_term: false
    pad: 1
    kernel_size: 3
    stride: 1
    weight_filler {
      type: "msra"
    }
  }
}
layer {
  name: "Eltwise6"
  type: "Eltwise"
  bottom: "Convolution15"
  bottom: "Eltwise5"
  top: "Eltwise6"
  eltwise_param {
    operation: SUM
  }
}
layer {
  name: "BatchNorm12"
  type: "BatchNorm"
  bottom: "Eltwise6"
  top: "Eltwise6"
  param {
    lr_mult: 0
    decay_mult: 0
  }
  param {
    lr_mult: 0
    decay_mult: 0
  }
  param {
    lr_mult: 0
    decay_mult: 0
  }
  batch_norm_param {
    use_global_stats: false
  }
}
layer {
  name: "Scale12"
  type: "Scale"
  bottom: "Eltwise6"
  top: "Eltwise6"
  scale_param {
    bias_term: true
  }
}
layer {
  name: "penlu12"
  type: "PENLU"
  bottom: "Eltwise6"
  top: "Eltwise6"
  param {
    lr_mult: 2
    decay_mult: 2
  }
  param {
    lr_mult: 2
    decay_mult: 2
  }
  param {
    lr_mult: 0
    decay_mult: 0
  }
  penlu_param {
    alpha_filler {
      type: "constant"
      value: 0.25
    }
    beta_filler {
      type: "constant"
      value: 1
    }
    eta_filler {
      type: "constant"
      value: 1
    }
  }
}
layer {
  name: "Convolution16"
  type: "Convolution"
  bottom: "Eltwise6"
  top: "Convolution16"
  convolution_param {
    num_output: 320
    bias_term: false
    pad: 1
    kernel_size: 3
    stride: 1
    weight_filler {
      type: "msra"
    }
  }
}
layer {
  name: "BatchNorm13"
  type: "BatchNorm"
  bottom: "Convolution16"
  top: "Convolution16"
  param {
    lr_mult: 0
    decay_mult: 0
  }
  param {
    lr_mult: 0
    decay_mult: 0
  }
  param {
    lr_mult: 0
    decay_mult: 0
  }
  batch_norm_param {
    use_global_stats: false
  }
}
layer {
  name: "Scale13"
  type: "Scale"
  bottom: "Convolution16"
  top: "Convolution16"
  scale_param {
    bias_term: true
  }
}
layer {
  name: "penlu13"
  type: "PENLU"
  bottom: "Convolution16"
  top: "Convolution16"
  param {
    lr_mult: 2
    decay_mult: 2
  }
  param {
    lr_mult: 2
    decay_mult: 2
  }
  param {
    lr_mult: 0
    decay_mult: 0
  }
  penlu_param {
    alpha_filler {
      type: "constant"
      value: 0.25
    }
    beta_filler {
      type: "constant"
      value: 1
    }
    eta_filler {
      type: "constant"
      value: 1
    }
  }
}
layer {
  name: "Convolution17"
  type: "Convolution"
  bottom: "Convolution16"
  top: "Convolution17"
  convolution_param {
    num_output: 320
    bias_term: false
    pad: 1
    kernel_size: 3
    stride: 1
    weight_filler {
      type: "msra"
    }
  }
}
layer {
  name: "Eltwise7"
  type: "Eltwise"
  bottom: "Convolution17"
  bottom: "Eltwise6"
  top: "Eltwise7"
  eltwise_param {
    operation: SUM
  }
}
layer {
  name: "BatchNorm14"
  type: "BatchNorm"
  bottom: "Eltwise7"
  top: "Eltwise7"
  param {
    lr_mult: 0
    decay_mult: 0
  }
  param {
    lr_mult: 0
    decay_mult: 0
  }
  param {
    lr_mult: 0
    decay_mult: 0
  }
  batch_norm_param {
    use_global_stats: false
  }
}
layer {
  name: "Scale14"
  type: "Scale"
  bottom: "Eltwise7"
  top: "Eltwise7"
  scale_param {
    bias_term: true
  }
}
layer {
  name: "penlu14"
  type: "PENLU"
  bottom: "Eltwise7"
  top: "Eltwise7"
  param {
    lr_mult: 2
    decay_mult: 2
  }
  param {
    lr_mult: 2
    decay_mult: 2
  }
  param {
    lr_mult: 0
    decay_mult: 0
  }
  penlu_param {
    alpha_filler {
      type: "constant"
      value: 0.25
    }
    beta_filler {
      type: "constant"
      value: 1
    }
    eta_filler {
      type: "constant"
      value: 1
    }
  }
}
layer {
  name: "Convolution18"
  type: "Convolution"
  bottom: "Eltwise7"
  top: "Convolution18"
  convolution_param {
    num_output: 320
    bias_term: false
    pad: 1
    kernel_size: 3
    stride: 1
    weight_filler {
      type: "msra"
    }
  }
}
layer {
  name: "BatchNorm15"
  type: "BatchNorm"
  bottom: "Convolution18"
  top: "Convolution18"
  param {
    lr_mult: 0
    decay_mult: 0
  }
  param {
    lr_mult: 0
    decay_mult: 0
  }
  param {
    lr_mult: 0
    decay_mult: 0
  }
  batch_norm_param {
    use_global_stats: false
  }
}
layer {
  name: "Scale15"
  type: "Scale"
  bottom: "Convolution18"
  top: "Convolution18"
  scale_param {
    bias_term: true
  }
}
layer {
  name: "penlu15"
  type: "PENLU"
  bottom: "Convolution18"
  top: "Convolution18"
  param {
    lr_mult: 2
    decay_mult: 2
  }
  param {
    lr_mult: 2
    decay_mult: 2
  }
  param {
    lr_mult: 0
    decay_mult: 0
  }
  penlu_param {
    alpha_filler {
      type: "constant"
      value: 0.25
    }
    beta_filler {
      type: "constant"
      value: 1
    }
    eta_filler {
      type: "constant"
      value: 1
    }
  }
}
layer {
  name: "Convolution19"
  type: "Convolution"
  bottom: "Convolution18"
  top: "Convolution19"
  convolution_param {
    num_output: 320
    bias_term: false
    pad: 1
    kernel_size: 3
    stride: 1
    weight_filler {
      type: "msra"
    }
  }
}
layer {
  name: "Eltwise8"
  type: "Eltwise"
  bottom: "Convolution19"
  bottom: "Eltwise7"
  top: "Eltwise8"
  eltwise_param {
    operation: SUM
  }
}
layer {
  name: "Convolution20"
  type: "Convolution"
  bottom: "Eltwise8"
  top: "Convolution20"
  convolution_param {
    num_output: 640
    bias_term: false
    pad: 1
    kernel_size: 3
    stride: 2
    weight_filler {
      type: "msra"
    }
  }
}
layer {
  name: "BatchNorm16"
  type: "BatchNorm"
  bottom: "Convolution20"
  top: "Convolution20"
  param {
    lr_mult: 0
    decay_mult: 0
  }
  param {
    lr_mult: 0
    decay_mult: 0
  }
  param {
    lr_mult: 0
    decay_mult: 0
  }
  batch_norm_param {
    use_global_stats: false
  }
}
layer {
  name: "Scale16"
  type: "Scale"
  bottom: "Convolution20"
  top: "Convolution20"
  scale_param {
    bias_term: true
  }
}
layer {
  name: "penlu16"
  type: "PENLU"
  bottom: "Convolution20"
  top: "Convolution20"
  param {
    lr_mult: 2
    decay_mult: 2
  }
  param {
    lr_mult: 2
    decay_mult: 2
  }
  param {
    lr_mult: 0
    decay_mult: 0
  }
  penlu_param {
    alpha_filler {
      type: "constant"
      value: 0.25
    }
    beta_filler {
      type: "constant"
      value: 1
    }
    eta_filler {
      type: "constant"
      value: 1
    }
  }
}
layer {
  name: "Convolution21"
  type: "Convolution"
  bottom: "Convolution20"
  top: "Convolution21"
  convolution_param {
    num_output: 640
    bias_term: false
    pad: 1
    kernel_size: 3
    stride: 1
    weight_filler {
      type: "msra"
    }
  }
}
layer {
  name: "Convolution22"
  type: "Convolution"
  bottom: "Eltwise8"
  top: "Convolution22"
  convolution_param {
    num_output: 640
    bias_term: false
    pad: 0
    kernel_size: 1
    stride: 2
    weight_filler {
      type: "msra"
    }
  }
}
layer {
  name: "Eltwise9"
  type: "Eltwise"
  bottom: "Convolution21"
  bottom: "Convolution22"
  top: "Eltwise9"
  eltwise_param {
    operation: SUM
  }
}
layer {
  name: "BatchNorm17"
  type: "BatchNorm"
  bottom: "Eltwise9"
  top: "Eltwise9"
  param {
    lr_mult: 0
    decay_mult: 0
  }
  param {
    lr_mult: 0
    decay_mult: 0
  }
  param {
    lr_mult: 0
    decay_mult: 0
  }
  batch_norm_param {
    use_global_stats: false
  }
}
layer {
  name: "Scale17"
  type: "Scale"
  bottom: "Eltwise9"
  top: "Eltwise9"
  scale_param {
    bias_term: true
  }
}
layer {
  name: "penlu17"
  type: "PENLU"
  bottom: "Eltwise9"
  top: "Eltwise9"
  param {
    lr_mult: 2
    decay_mult: 2
  }
  param {
    lr_mult: 2
    decay_mult: 2
  }
  param {
    lr_mult: 0
    decay_mult: 0
  }
  penlu_param {
    alpha_filler {
      type: "constant"
      value: 0.25
    }
    beta_filler {
      type: "constant"
      value: 1
    }
    eta_filler {
      type: "constant"
      value: 1
    }
  }
}
layer {
  name: "Convolution23"
  type: "Convolution"
  bottom: "Eltwise9"
  top: "Convolution23"
  convolution_param {
    num_output: 640
    bias_term: false
    pad: 1
    kernel_size: 3
    stride: 1
    weight_filler {
      type: "msra"
    }
  }
}
layer {
  name: "BatchNorm18"
  type: "BatchNorm"
  bottom: "Convolution23"
  top: "Convolution23"
  param {
    lr_mult: 0
    decay_mult: 0
  }
  param {
    lr_mult: 0
    decay_mult: 0
  }
  param {
    lr_mult: 0
    decay_mult: 0
  }
  batch_norm_param {
    use_global_stats: false
  }
}
layer {
  name: "Scale18"
  type: "Scale"
  bottom: "Convolution23"
  top: "Convolution23"
  scale_param {
    bias_term: true
  }
}
layer {
  name: "penlu18"
  type: "PENLU"
  bottom: "Convolution23"
  top: "Convolution23"
  param {
    lr_mult: 2
    decay_mult: 2
  }
  param {
    lr_mult: 2
    decay_mult: 2
  }
  param {
    lr_mult: 0
    decay_mult: 0
  }
  penlu_param {
    alpha_filler {
      type: "constant"
      value: 0.25
    }
    beta_filler {
      type: "constant"
      value: 1
    }
    eta_filler {
      type: "constant"
      value: 1
    }
  }
}
layer {
  name: "Convolution24"
  type: "Convolution"
  bottom: "Convolution23"
  top: "Convolution24"
  convolution_param {
    num_output: 640
    bias_term: false
    pad: 1
    kernel_size: 3
    stride: 1
    weight_filler {
      type: "msra"
    }
  }
}
layer {
  name: "Eltwise10"
  type: "Eltwise"
  bottom: "Convolution24"
  bottom: "Eltwise9"
  top: "Eltwise10"
  eltwise_param {
    operation: SUM
  }
}
layer {
  name: "BatchNorm19"
  type: "BatchNorm"
  bottom: "Eltwise10"
  top: "Eltwise10"
  param {
    lr_mult: 0
    decay_mult: 0
  }
  param {
    lr_mult: 0
    decay_mult: 0
  }
  param {
    lr_mult: 0
    decay_mult: 0
  }
  batch_norm_param {
    use_global_stats: false
  }
}
layer {
  name: "Scale19"
  type: "Scale"
  bottom: "Eltwise10"
  top: "Eltwise10"
  scale_param {
    bias_term: true
  }
}
layer {
  name: "penlu19"
  type: "PENLU"
  bottom: "Eltwise10"
  top: "Eltwise10"
  param {
    lr_mult: 2
    decay_mult: 2
  }
  param {
    lr_mult: 2
    decay_mult: 2
  }
  param {
    lr_mult: 0
    decay_mult: 0
  }
  penlu_param {
    alpha_filler {
      type: "constant"
      value: 0.25
    }
    beta_filler {
      type: "constant"
      value: 1
    }
    eta_filler {
      type: "constant"
      value: 1
    }
  }
}
layer {
  name: "Convolution25"
  type: "Convolution"
  bottom: "Eltwise10"
  top: "Convolution25"
  convolution_param {
    num_output: 640
    bias_term: false
    pad: 1
    kernel_size: 3
    stride: 1
    weight_filler {
      type: "msra"
    }
  }
}
layer {
  name: "BatchNorm20"
  type: "BatchNorm"
  bottom: "Convolution25"
  top: "Convolution25"
  param {
    lr_mult: 0
    decay_mult: 0
  }
  param {
    lr_mult: 0
    decay_mult: 0
  }
  param {
    lr_mult: 0
    decay_mult: 0
  }
  batch_norm_param {
    use_global_stats: false
  }
}
layer {
  name: "Scale20"
  type: "Scale"
  bottom: "Convolution25"
  top: "Convolution25"
  scale_param {
    bias_term: true
  }
}
layer {
  name: "penlu20"
  type: "PENLU"
  bottom: "Convolution25"
  top: "Convolution25"
  param {
    lr_mult: 2
    decay_mult: 2
  }
  param {
    lr_mult: 2
    decay_mult: 2
  }
  param {
    lr_mult: 0
    decay_mult: 0
  }
  penlu_param {
    alpha_filler {
      type: "constant"
      value: 0.25
    }
    beta_filler {
      type: "constant"
      value: 1
    }
    eta_filler {
      type: "constant"
      value: 1
    }
  }
}
layer {
  name: "Convolution26"
  type: "Convolution"
  bottom: "Convolution25"
  top: "Convolution26"
  convolution_param {
    num_output: 640
    bias_term: false
    pad: 1
    kernel_size: 3
    stride: 1
    weight_filler {
      type: "msra"
    }
  }
}
layer {
  name: "Eltwise11"
  type: "Eltwise"
  bottom: "Convolution26"
  bottom: "Eltwise10"
  top: "Eltwise11"
  eltwise_param {
    operation: SUM
  }
}
layer {
  name: "BatchNorm21"
  type: "BatchNorm"
  bottom: "Eltwise11"
  top: "Eltwise11"
  param {
    lr_mult: 0
    decay_mult: 0
  }
  param {
    lr_mult: 0
    decay_mult: 0
  }
  param {
    lr_mult: 0
    decay_mult: 0
  }
  batch_norm_param {
    use_global_stats: false
  }
}
layer {
  name: "Scale21"
  type: "Scale"
  bottom: "Eltwise11"
  top: "Eltwise11"
  scale_param {
    bias_term: true
  }
}
layer {
  name: "penlu21"
  type: "PENLU"
  bottom: "Eltwise11"
  top: "Eltwise11"
  param {
    lr_mult: 2
    decay_mult: 2
  }
  param {
    lr_mult: 2
    decay_mult: 2
  }
  param {
    lr_mult: 0
    decay_mult: 0
  }
  penlu_param {
    alpha_filler {
      type: "constant"
      value: 0.25
    }
    beta_filler {
      type: "constant"
      value: 1
    }
    eta_filler {
      type: "constant"
      value: 1
    }
  }
}
layer {
  name: "Convolution27"
  type: "Convolution"
  bottom: "Eltwise11"
  top: "Convolution27"
  convolution_param {
    num_output: 640
    bias_term: false
    pad: 1
    kernel_size: 3
    stride: 1
    weight_filler {
      type: "msra"
    }
  }
}
layer {
  name: "BatchNorm22"
  type: "BatchNorm"
  bottom: "Convolution27"
  top: "Convolution27"
  param {
    lr_mult: 0
    decay_mult: 0
  }
  param {
    lr_mult: 0
    decay_mult: 0
  }
  param {
    lr_mult: 0
    decay_mult: 0
  }
  batch_norm_param {
    use_global_stats: false
  }
}
layer {
  name: "Scale22"
  type: "Scale"
  bottom: "Convolution27"
  top: "Convolution27"
  scale_param {
    bias_term: true
  }
}
layer {
  name: "penlu22"
  type: "PENLU"
  bottom: "Convolution27"
  top: "Convolution27"
  param {
    lr_mult: 2
    decay_mult: 2
  }
  param {
    lr_mult: 2
    decay_mult: 2
  }
  param {
    lr_mult: 0
    decay_mult: 0
  }
  penlu_param {
    alpha_filler {
      type: "constant"
      value: 0.25
    }
    beta_filler {
      type: "constant"
      value: 1
    }
    eta_filler {
      type: "constant"
      value: 1
    }
  }
}
layer {
  name: "Convolution28"
  type: "Convolution"
  bottom: "Convolution27"
  top: "Convolution28"
  convolution_param {
    num_output: 640
    bias_term: false
    pad: 1
    kernel_size: 3
    stride: 1
    weight_filler {
      type: "msra"
    }
  }
}
layer {
  name: "Eltwise12"
  type: "Eltwise"
  bottom: "Convolution28"
  bottom: "Eltwise11"
  top: "Eltwise12"
  eltwise_param {
    operation: SUM
  }
}
layer {
  name: "Pooling1"
  type: "Pooling"
  bottom: "Eltwise12"
  top: "Pooling1"
  pooling_param {
    pool: AVE
    global_pooling: true
  }
}
layer {
  name: "InnerProduct1"
  type: "InnerProduct"
  bottom: "Pooling1"
  top: "InnerProduct1"
  inner_product_param {
    num_output: 100
  }
}
layer {
  name: "SoftmaxWithLoss1"
  type: "SoftmaxWithLoss"
  bottom: "InnerProduct1"
  bottom: "label"
  top: "SoftmaxWithLoss1"
}
layer {
  name: "accuracy"
  type: "Accuracy"
  bottom: "InnerProduct1"
  bottom: "label"
  top: "accuracy"
  include {
    phase: TEST
  }
}
I1013 11:27:18.816124 12690 layer_factory.hpp:77] Creating layer cifar
I1013 11:27:18.816180 12690 db_lmdb.cpp:35] Opened lmdb /home/x306/caffe/xn/PENLU/data/cifar100/cifar100_test_lmdb
I1013 11:27:18.816195 12690 net.cpp:84] Creating Layer cifar
I1013 11:27:18.816202 12690 net.cpp:380] cifar -> data
I1013 11:27:18.816210 12690 net.cpp:380] cifar -> label
I1013 11:27:18.816216 12690 data_transformer.cpp:25] Loading mean file from: /home/x306/caffe/xn/PENLU/data/cifar100/mean.binaryproto
I1013 11:27:18.816345 12690 data_layer.cpp:45] output data size: 50,3,28,28
I1013 11:27:18.816990 12690 net.cpp:122] Setting up cifar
I1013 11:27:18.816998 12690 net.cpp:129] Top shape: 50 3 28 28 (117600)
I1013 11:27:18.817003 12690 net.cpp:129] Top shape: 50 (50)
I1013 11:27:18.817004 12690 net.cpp:137] Memory required for data: 470600
I1013 11:27:18.817008 12690 layer_factory.hpp:77] Creating layer label_cifar_1_split
I1013 11:27:18.817011 12690 net.cpp:84] Creating Layer label_cifar_1_split
I1013 11:27:18.817014 12690 net.cpp:406] label_cifar_1_split <- label
I1013 11:27:18.817018 12690 net.cpp:380] label_cifar_1_split -> label_cifar_1_split_0
I1013 11:27:18.817023 12690 net.cpp:380] label_cifar_1_split -> label_cifar_1_split_1
I1013 11:27:18.817085 12690 net.cpp:122] Setting up label_cifar_1_split
I1013 11:27:18.817090 12690 net.cpp:129] Top shape: 50 (50)
I1013 11:27:18.817092 12690 net.cpp:129] Top shape: 50 (50)
I1013 11:27:18.817095 12690 net.cpp:137] Memory required for data: 471000
I1013 11:27:18.817096 12690 layer_factory.hpp:77] Creating layer Convolution1
I1013 11:27:18.817104 12690 net.cpp:84] Creating Layer Convolution1
I1013 11:27:18.817107 12690 net.cpp:406] Convolution1 <- data
I1013 11:27:18.817111 12690 net.cpp:380] Convolution1 -> Convolution1
I1013 11:27:18.818235 12690 net.cpp:122] Setting up Convolution1
I1013 11:27:18.818245 12690 net.cpp:129] Top shape: 50 16 28 28 (627200)
I1013 11:27:18.818248 12690 net.cpp:137] Memory required for data: 2979800
I1013 11:27:18.818255 12690 layer_factory.hpp:77] Creating layer BatchNorm1
I1013 11:27:18.818261 12690 net.cpp:84] Creating Layer BatchNorm1
I1013 11:27:18.818265 12690 net.cpp:406] BatchNorm1 <- Convolution1
I1013 11:27:18.818270 12690 net.cpp:367] BatchNorm1 -> Convolution1 (in-place)
I1013 11:27:18.818437 12690 net.cpp:122] Setting up BatchNorm1
I1013 11:27:18.818441 12690 net.cpp:129] Top shape: 50 16 28 28 (627200)
I1013 11:27:18.818445 12690 net.cpp:137] Memory required for data: 5488600
I1013 11:27:18.818454 12690 layer_factory.hpp:77] Creating layer Scale1
I1013 11:27:18.818459 12690 net.cpp:84] Creating Layer Scale1
I1013 11:27:18.818461 12690 net.cpp:406] Scale1 <- Convolution1
I1013 11:27:18.818464 12690 net.cpp:367] Scale1 -> Convolution1 (in-place)
I1013 11:27:18.818498 12690 layer_factory.hpp:77] Creating layer Scale1
I1013 11:27:18.818606 12690 net.cpp:122] Setting up Scale1
I1013 11:27:18.818612 12690 net.cpp:129] Top shape: 50 16 28 28 (627200)
I1013 11:27:18.818614 12690 net.cpp:137] Memory required for data: 7997400
I1013 11:27:18.818626 12690 layer_factory.hpp:77] Creating layer penlu1
I1013 11:27:18.818631 12690 net.cpp:84] Creating Layer penlu1
I1013 11:27:18.818634 12690 net.cpp:406] penlu1 <- Convolution1
I1013 11:27:18.818639 12690 net.cpp:367] penlu1 -> Convolution1 (in-place)
I1013 11:27:18.818794 12690 net.cpp:122] Setting up penlu1
I1013 11:27:18.818800 12690 net.cpp:129] Top shape: 50 16 28 28 (627200)
I1013 11:27:18.818802 12690 net.cpp:137] Memory required for data: 10506200
I1013 11:27:18.818809 12690 layer_factory.hpp:77] Creating layer Convolution1_penlu1_0_split
I1013 11:27:18.818814 12690 net.cpp:84] Creating Layer Convolution1_penlu1_0_split
I1013 11:27:18.818815 12690 net.cpp:406] Convolution1_penlu1_0_split <- Convolution1
I1013 11:27:18.818819 12690 net.cpp:380] Convolution1_penlu1_0_split -> Convolution1_penlu1_0_split_0
I1013 11:27:18.818823 12690 net.cpp:380] Convolution1_penlu1_0_split -> Convolution1_penlu1_0_split_1
I1013 11:27:18.818850 12690 net.cpp:122] Setting up Convolution1_penlu1_0_split
I1013 11:27:18.818855 12690 net.cpp:129] Top shape: 50 16 28 28 (627200)
I1013 11:27:18.818857 12690 net.cpp:129] Top shape: 50 16 28 28 (627200)
I1013 11:27:18.818859 12690 net.cpp:137] Memory required for data: 15523800
I1013 11:27:18.818861 12690 layer_factory.hpp:77] Creating layer Convolution2
I1013 11:27:18.818867 12690 net.cpp:84] Creating Layer Convolution2
I1013 11:27:18.818869 12690 net.cpp:406] Convolution2 <- Convolution1_penlu1_0_split_0
I1013 11:27:18.818876 12690 net.cpp:380] Convolution2 -> Convolution2
I1013 11:27:18.820417 12690 net.cpp:122] Setting up Convolution2
I1013 11:27:18.820427 12690 net.cpp:129] Top shape: 50 160 28 28 (6272000)
I1013 11:27:18.820430 12690 net.cpp:137] Memory required for data: 40611800
I1013 11:27:18.820435 12690 layer_factory.hpp:77] Creating layer BatchNorm2
I1013 11:27:18.820441 12690 net.cpp:84] Creating Layer BatchNorm2
I1013 11:27:18.820443 12690 net.cpp:406] BatchNorm2 <- Convolution2
I1013 11:27:18.820449 12690 net.cpp:367] BatchNorm2 -> Convolution2 (in-place)
I1013 11:27:18.820611 12690 net.cpp:122] Setting up BatchNorm2
I1013 11:27:18.820618 12690 net.cpp:129] Top shape: 50 160 28 28 (6272000)
I1013 11:27:18.820621 12690 net.cpp:137] Memory required for data: 65699800
I1013 11:27:18.820626 12690 layer_factory.hpp:77] Creating layer Scale2
I1013 11:27:18.820631 12690 net.cpp:84] Creating Layer Scale2
I1013 11:27:18.820633 12690 net.cpp:406] Scale2 <- Convolution2
I1013 11:27:18.820636 12690 net.cpp:367] Scale2 -> Convolution2 (in-place)
I1013 11:27:18.820667 12690 layer_factory.hpp:77] Creating layer Scale2
I1013 11:27:18.820760 12690 net.cpp:122] Setting up Scale2
I1013 11:27:18.820765 12690 net.cpp:129] Top shape: 50 160 28 28 (6272000)
I1013 11:27:18.820766 12690 net.cpp:137] Memory required for data: 90787800
I1013 11:27:18.820770 12690 layer_factory.hpp:77] Creating layer penlu2
I1013 11:27:18.820777 12690 net.cpp:84] Creating Layer penlu2
I1013 11:27:18.820780 12690 net.cpp:406] penlu2 <- Convolution2
I1013 11:27:18.820785 12690 net.cpp:367] penlu2 -> Convolution2 (in-place)
I1013 11:27:18.821005 12690 net.cpp:122] Setting up penlu2
I1013 11:27:18.821010 12690 net.cpp:129] Top shape: 50 160 28 28 (6272000)
I1013 11:27:18.821013 12690 net.cpp:137] Memory required for data: 115875800
I1013 11:27:18.821019 12690 layer_factory.hpp:77] Creating layer Convolution3
I1013 11:27:18.821027 12690 net.cpp:84] Creating Layer Convolution3
I1013 11:27:18.821028 12690 net.cpp:406] Convolution3 <- Convolution2
I1013 11:27:18.821033 12690 net.cpp:380] Convolution3 -> Convolution3
I1013 11:27:18.828330 12690 net.cpp:122] Setting up Convolution3
I1013 11:27:18.828341 12690 net.cpp:129] Top shape: 50 160 28 28 (6272000)
I1013 11:27:18.828344 12690 net.cpp:137] Memory required for data: 140963800
I1013 11:27:18.828348 12690 layer_factory.hpp:77] Creating layer Convolution4
I1013 11:27:18.828354 12690 net.cpp:84] Creating Layer Convolution4
I1013 11:27:18.828357 12690 net.cpp:406] Convolution4 <- Convolution1_penlu1_0_split_1
I1013 11:27:18.828363 12690 net.cpp:380] Convolution4 -> Convolution4
I1013 11:27:18.829357 12690 net.cpp:122] Setting up Convolution4
I1013 11:27:18.829366 12690 net.cpp:129] Top shape: 50 160 28 28 (6272000)
I1013 11:27:18.829370 12690 net.cpp:137] Memory required for data: 166051800
I1013 11:27:18.829372 12690 layer_factory.hpp:77] Creating layer Eltwise1
I1013 11:27:18.829378 12690 net.cpp:84] Creating Layer Eltwise1
I1013 11:27:18.829381 12690 net.cpp:406] Eltwise1 <- Convolution3
I1013 11:27:18.829385 12690 net.cpp:406] Eltwise1 <- Convolution4
I1013 11:27:18.829387 12690 net.cpp:380] Eltwise1 -> Eltwise1
I1013 11:27:18.829409 12690 net.cpp:122] Setting up Eltwise1
I1013 11:27:18.829413 12690 net.cpp:129] Top shape: 50 160 28 28 (6272000)
I1013 11:27:18.829416 12690 net.cpp:137] Memory required for data: 191139800
I1013 11:27:18.829417 12690 layer_factory.hpp:77] Creating layer BatchNorm3
I1013 11:27:18.829421 12690 net.cpp:84] Creating Layer BatchNorm3
I1013 11:27:18.829424 12690 net.cpp:406] BatchNorm3 <- Eltwise1
I1013 11:27:18.829428 12690 net.cpp:367] BatchNorm3 -> Eltwise1 (in-place)
I1013 11:27:18.829586 12690 net.cpp:122] Setting up BatchNorm3
I1013 11:27:18.829591 12690 net.cpp:129] Top shape: 50 160 28 28 (6272000)
I1013 11:27:18.829593 12690 net.cpp:137] Memory required for data: 216227800
I1013 11:27:18.829598 12690 layer_factory.hpp:77] Creating layer Scale3
I1013 11:27:18.829602 12690 net.cpp:84] Creating Layer Scale3
I1013 11:27:18.829604 12690 net.cpp:406] Scale3 <- Eltwise1
I1013 11:27:18.829608 12690 net.cpp:367] Scale3 -> Eltwise1 (in-place)
I1013 11:27:18.829639 12690 layer_factory.hpp:77] Creating layer Scale3
I1013 11:27:18.829733 12690 net.cpp:122] Setting up Scale3
I1013 11:27:18.829737 12690 net.cpp:129] Top shape: 50 160 28 28 (6272000)
I1013 11:27:18.829740 12690 net.cpp:137] Memory required for data: 241315800
I1013 11:27:18.829743 12690 layer_factory.hpp:77] Creating layer penlu3
I1013 11:27:18.829751 12690 net.cpp:84] Creating Layer penlu3
I1013 11:27:18.829752 12690 net.cpp:406] penlu3 <- Eltwise1
I1013 11:27:18.829756 12690 net.cpp:367] penlu3 -> Eltwise1 (in-place)
I1013 11:27:18.829994 12690 net.cpp:122] Setting up penlu3
I1013 11:27:18.830000 12690 net.cpp:129] Top shape: 50 160 28 28 (6272000)
I1013 11:27:18.830003 12690 net.cpp:137] Memory required for data: 266403800
I1013 11:27:18.830008 12690 layer_factory.hpp:77] Creating layer Eltwise1_penlu3_0_split
I1013 11:27:18.830011 12690 net.cpp:84] Creating Layer Eltwise1_penlu3_0_split
I1013 11:27:18.830013 12690 net.cpp:406] Eltwise1_penlu3_0_split <- Eltwise1
I1013 11:27:18.830016 12690 net.cpp:380] Eltwise1_penlu3_0_split -> Eltwise1_penlu3_0_split_0
I1013 11:27:18.830020 12690 net.cpp:380] Eltwise1_penlu3_0_split -> Eltwise1_penlu3_0_split_1
I1013 11:27:18.830049 12690 net.cpp:122] Setting up Eltwise1_penlu3_0_split
I1013 11:27:18.830052 12690 net.cpp:129] Top shape: 50 160 28 28 (6272000)
I1013 11:27:18.830055 12690 net.cpp:129] Top shape: 50 160 28 28 (6272000)
I1013 11:27:18.830057 12690 net.cpp:137] Memory required for data: 316579800
I1013 11:27:18.830060 12690 layer_factory.hpp:77] Creating layer Convolution5
I1013 11:27:18.830065 12690 net.cpp:84] Creating Layer Convolution5
I1013 11:27:18.830067 12690 net.cpp:406] Convolution5 <- Eltwise1_penlu3_0_split_0
I1013 11:27:18.830071 12690 net.cpp:380] Convolution5 -> Convolution5
I1013 11:27:18.836747 12690 net.cpp:122] Setting up Convolution5
I1013 11:27:18.836756 12690 net.cpp:129] Top shape: 50 160 28 28 (6272000)
I1013 11:27:18.836760 12690 net.cpp:137] Memory required for data: 341667800
I1013 11:27:18.836762 12690 layer_factory.hpp:77] Creating layer BatchNorm4
I1013 11:27:18.836768 12690 net.cpp:84] Creating Layer BatchNorm4
I1013 11:27:18.836771 12690 net.cpp:406] BatchNorm4 <- Convolution5
I1013 11:27:18.836776 12690 net.cpp:367] BatchNorm4 -> Convolution5 (in-place)
I1013 11:27:18.836963 12690 net.cpp:122] Setting up BatchNorm4
I1013 11:27:18.836971 12690 net.cpp:129] Top shape: 50 160 28 28 (6272000)
I1013 11:27:18.836974 12690 net.cpp:137] Memory required for data: 366755800
I1013 11:27:18.836988 12690 layer_factory.hpp:77] Creating layer Scale4
I1013 11:27:18.837003 12690 net.cpp:84] Creating Layer Scale4
I1013 11:27:18.837007 12690 net.cpp:406] Scale4 <- Convolution5
I1013 11:27:18.837013 12690 net.cpp:367] Scale4 -> Convolution5 (in-place)
I1013 11:27:18.837059 12690 layer_factory.hpp:77] Creating layer Scale4
I1013 11:27:18.837191 12690 net.cpp:122] Setting up Scale4
I1013 11:27:18.837199 12690 net.cpp:129] Top shape: 50 160 28 28 (6272000)
I1013 11:27:18.837203 12690 net.cpp:137] Memory required for data: 391843800
I1013 11:27:18.837210 12690 layer_factory.hpp:77] Creating layer penlu4
I1013 11:27:18.837218 12690 net.cpp:84] Creating Layer penlu4
I1013 11:27:18.837222 12690 net.cpp:406] penlu4 <- Convolution5
I1013 11:27:18.837229 12690 net.cpp:367] penlu4 -> Convolution5 (in-place)
I1013 11:27:18.837466 12690 net.cpp:122] Setting up penlu4
I1013 11:27:18.837471 12690 net.cpp:129] Top shape: 50 160 28 28 (6272000)
I1013 11:27:18.837473 12690 net.cpp:137] Memory required for data: 416931800
I1013 11:27:18.837478 12690 layer_factory.hpp:77] Creating layer Convolution6
I1013 11:27:18.837486 12690 net.cpp:84] Creating Layer Convolution6
I1013 11:27:18.837488 12690 net.cpp:406] Convolution6 <- Convolution5
I1013 11:27:18.837491 12690 net.cpp:380] Convolution6 -> Convolution6
I1013 11:27:18.844586 12690 net.cpp:122] Setting up Convolution6
I1013 11:27:18.844597 12690 net.cpp:129] Top shape: 50 160 28 28 (6272000)
I1013 11:27:18.844600 12690 net.cpp:137] Memory required for data: 442019800
I1013 11:27:18.844604 12690 layer_factory.hpp:77] Creating layer Eltwise2
I1013 11:27:18.844610 12690 net.cpp:84] Creating Layer Eltwise2
I1013 11:27:18.844614 12690 net.cpp:406] Eltwise2 <- Convolution6
I1013 11:27:18.844616 12690 net.cpp:406] Eltwise2 <- Eltwise1_penlu3_0_split_1
I1013 11:27:18.844621 12690 net.cpp:380] Eltwise2 -> Eltwise2
I1013 11:27:18.844645 12690 net.cpp:122] Setting up Eltwise2
I1013 11:27:18.844650 12690 net.cpp:129] Top shape: 50 160 28 28 (6272000)
I1013 11:27:18.844651 12690 net.cpp:137] Memory required for data: 467107800
I1013 11:27:18.844653 12690 layer_factory.hpp:77] Creating layer BatchNorm5
I1013 11:27:18.844658 12690 net.cpp:84] Creating Layer BatchNorm5
I1013 11:27:18.844660 12690 net.cpp:406] BatchNorm5 <- Eltwise2
I1013 11:27:18.844665 12690 net.cpp:367] BatchNorm5 -> Eltwise2 (in-place)
I1013 11:27:18.844823 12690 net.cpp:122] Setting up BatchNorm5
I1013 11:27:18.844827 12690 net.cpp:129] Top shape: 50 160 28 28 (6272000)
I1013 11:27:18.844830 12690 net.cpp:137] Memory required for data: 492195800
I1013 11:27:18.844835 12690 layer_factory.hpp:77] Creating layer Scale5
I1013 11:27:18.844840 12690 net.cpp:84] Creating Layer Scale5
I1013 11:27:18.844841 12690 net.cpp:406] Scale5 <- Eltwise2
I1013 11:27:18.844844 12690 net.cpp:367] Scale5 -> Eltwise2 (in-place)
I1013 11:27:18.844877 12690 layer_factory.hpp:77] Creating layer Scale5
I1013 11:27:18.844969 12690 net.cpp:122] Setting up Scale5
I1013 11:27:18.844974 12690 net.cpp:129] Top shape: 50 160 28 28 (6272000)
I1013 11:27:18.844975 12690 net.cpp:137] Memory required for data: 517283800
I1013 11:27:18.844980 12690 layer_factory.hpp:77] Creating layer penlu5
I1013 11:27:18.844983 12690 net.cpp:84] Creating Layer penlu5
I1013 11:27:18.844986 12690 net.cpp:406] penlu5 <- Eltwise2
I1013 11:27:18.844990 12690 net.cpp:367] penlu5 -> Eltwise2 (in-place)
I1013 11:27:18.845192 12690 net.cpp:122] Setting up penlu5
I1013 11:27:18.845197 12690 net.cpp:129] Top shape: 50 160 28 28 (6272000)
I1013 11:27:18.845199 12690 net.cpp:137] Memory required for data: 542371800
I1013 11:27:18.845203 12690 layer_factory.hpp:77] Creating layer Eltwise2_penlu5_0_split
I1013 11:27:18.845207 12690 net.cpp:84] Creating Layer Eltwise2_penlu5_0_split
I1013 11:27:18.845209 12690 net.cpp:406] Eltwise2_penlu5_0_split <- Eltwise2
I1013 11:27:18.845213 12690 net.cpp:380] Eltwise2_penlu5_0_split -> Eltwise2_penlu5_0_split_0
I1013 11:27:18.845219 12690 net.cpp:380] Eltwise2_penlu5_0_split -> Eltwise2_penlu5_0_split_1
I1013 11:27:18.845247 12690 net.cpp:122] Setting up Eltwise2_penlu5_0_split
I1013 11:27:18.845260 12690 net.cpp:129] Top shape: 50 160 28 28 (6272000)
I1013 11:27:18.845263 12690 net.cpp:129] Top shape: 50 160 28 28 (6272000)
I1013 11:27:18.845265 12690 net.cpp:137] Memory required for data: 592547800
I1013 11:27:18.845268 12690 layer_factory.hpp:77] Creating layer Convolution7
I1013 11:27:18.845274 12690 net.cpp:84] Creating Layer Convolution7
I1013 11:27:18.845276 12690 net.cpp:406] Convolution7 <- Eltwise2_penlu5_0_split_0
I1013 11:27:18.845280 12690 net.cpp:380] Convolution7 -> Convolution7
I1013 11:27:18.852129 12690 net.cpp:122] Setting up Convolution7
I1013 11:27:18.852138 12690 net.cpp:129] Top shape: 50 160 28 28 (6272000)
I1013 11:27:18.852140 12690 net.cpp:137] Memory required for data: 617635800
I1013 11:27:18.852144 12690 layer_factory.hpp:77] Creating layer BatchNorm6
I1013 11:27:18.852150 12690 net.cpp:84] Creating Layer BatchNorm6
I1013 11:27:18.852152 12690 net.cpp:406] BatchNorm6 <- Convolution7
I1013 11:27:18.852157 12690 net.cpp:367] BatchNorm6 -> Convolution7 (in-place)
I1013 11:27:18.852314 12690 net.cpp:122] Setting up BatchNorm6
I1013 11:27:18.852319 12690 net.cpp:129] Top shape: 50 160 28 28 (6272000)
I1013 11:27:18.852321 12690 net.cpp:137] Memory required for data: 642723800
I1013 11:27:18.852326 12690 layer_factory.hpp:77] Creating layer Scale6
I1013 11:27:18.852331 12690 net.cpp:84] Creating Layer Scale6
I1013 11:27:18.852334 12690 net.cpp:406] Scale6 <- Convolution7
I1013 11:27:18.852337 12690 net.cpp:367] Scale6 -> Convolution7 (in-place)
I1013 11:27:18.852367 12690 layer_factory.hpp:77] Creating layer Scale6
I1013 11:27:18.852459 12690 net.cpp:122] Setting up Scale6
I1013 11:27:18.852463 12690 net.cpp:129] Top shape: 50 160 28 28 (6272000)
I1013 11:27:18.852465 12690 net.cpp:137] Memory required for data: 667811800
I1013 11:27:18.852469 12690 layer_factory.hpp:77] Creating layer penlu6
I1013 11:27:18.852474 12690 net.cpp:84] Creating Layer penlu6
I1013 11:27:18.852478 12690 net.cpp:406] penlu6 <- Convolution7
I1013 11:27:18.852480 12690 net.cpp:367] penlu6 -> Convolution7 (in-place)
I1013 11:27:18.852674 12690 net.cpp:122] Setting up penlu6
I1013 11:27:18.852679 12690 net.cpp:129] Top shape: 50 160 28 28 (6272000)
I1013 11:27:18.852680 12690 net.cpp:137] Memory required for data: 692899800
I1013 11:27:18.852684 12690 layer_factory.hpp:77] Creating layer Convolution8
I1013 11:27:18.852694 12690 net.cpp:84] Creating Layer Convolution8
I1013 11:27:18.852695 12690 net.cpp:406] Convolution8 <- Convolution7
I1013 11:27:18.852699 12690 net.cpp:380] Convolution8 -> Convolution8
I1013 11:27:18.859483 12690 net.cpp:122] Setting up Convolution8
I1013 11:27:18.859493 12690 net.cpp:129] Top shape: 50 160 28 28 (6272000)
I1013 11:27:18.859496 12690 net.cpp:137] Memory required for data: 717987800
I1013 11:27:18.859500 12690 layer_factory.hpp:77] Creating layer Eltwise3
I1013 11:27:18.859505 12690 net.cpp:84] Creating Layer Eltwise3
I1013 11:27:18.859508 12690 net.cpp:406] Eltwise3 <- Convolution8
I1013 11:27:18.859511 12690 net.cpp:406] Eltwise3 <- Eltwise2_penlu5_0_split_1
I1013 11:27:18.859514 12690 net.cpp:380] Eltwise3 -> Eltwise3
I1013 11:27:18.859539 12690 net.cpp:122] Setting up Eltwise3
I1013 11:27:18.859542 12690 net.cpp:129] Top shape: 50 160 28 28 (6272000)
I1013 11:27:18.859544 12690 net.cpp:137] Memory required for data: 743075800
I1013 11:27:18.859546 12690 layer_factory.hpp:77] Creating layer BatchNorm7
I1013 11:27:18.859551 12690 net.cpp:84] Creating Layer BatchNorm7
I1013 11:27:18.859553 12690 net.cpp:406] BatchNorm7 <- Eltwise3
I1013 11:27:18.859556 12690 net.cpp:367] BatchNorm7 -> Eltwise3 (in-place)
I1013 11:27:18.859711 12690 net.cpp:122] Setting up BatchNorm7
I1013 11:27:18.859715 12690 net.cpp:129] Top shape: 50 160 28 28 (6272000)
I1013 11:27:18.859717 12690 net.cpp:137] Memory required for data: 768163800
I1013 11:27:18.859722 12690 layer_factory.hpp:77] Creating layer Scale7
I1013 11:27:18.859726 12690 net.cpp:84] Creating Layer Scale7
I1013 11:27:18.859728 12690 net.cpp:406] Scale7 <- Eltwise3
I1013 11:27:18.859731 12690 net.cpp:367] Scale7 -> Eltwise3 (in-place)
I1013 11:27:18.859774 12690 layer_factory.hpp:77] Creating layer Scale7
I1013 11:27:18.859865 12690 net.cpp:122] Setting up Scale7
I1013 11:27:18.859871 12690 net.cpp:129] Top shape: 50 160 28 28 (6272000)
I1013 11:27:18.859874 12690 net.cpp:137] Memory required for data: 793251800
I1013 11:27:18.859877 12690 layer_factory.hpp:77] Creating layer penlu7
I1013 11:27:18.859882 12690 net.cpp:84] Creating Layer penlu7
I1013 11:27:18.859884 12690 net.cpp:406] penlu7 <- Eltwise3
I1013 11:27:18.859889 12690 net.cpp:367] penlu7 -> Eltwise3 (in-place)
I1013 11:27:18.860081 12690 net.cpp:122] Setting up penlu7
I1013 11:27:18.860085 12690 net.cpp:129] Top shape: 50 160 28 28 (6272000)
I1013 11:27:18.860087 12690 net.cpp:137] Memory required for data: 818339800
I1013 11:27:18.860100 12690 layer_factory.hpp:77] Creating layer Eltwise3_penlu7_0_split
I1013 11:27:18.860105 12690 net.cpp:84] Creating Layer Eltwise3_penlu7_0_split
I1013 11:27:18.860106 12690 net.cpp:406] Eltwise3_penlu7_0_split <- Eltwise3
I1013 11:27:18.860110 12690 net.cpp:380] Eltwise3_penlu7_0_split -> Eltwise3_penlu7_0_split_0
I1013 11:27:18.860114 12690 net.cpp:380] Eltwise3_penlu7_0_split -> Eltwise3_penlu7_0_split_1
I1013 11:27:18.860141 12690 net.cpp:122] Setting up Eltwise3_penlu7_0_split
I1013 11:27:18.860146 12690 net.cpp:129] Top shape: 50 160 28 28 (6272000)
I1013 11:27:18.860148 12690 net.cpp:129] Top shape: 50 160 28 28 (6272000)
I1013 11:27:18.860150 12690 net.cpp:137] Memory required for data: 868515800
I1013 11:27:18.860152 12690 layer_factory.hpp:77] Creating layer Convolution9
I1013 11:27:18.860157 12690 net.cpp:84] Creating Layer Convolution9
I1013 11:27:18.860160 12690 net.cpp:406] Convolution9 <- Eltwise3_penlu7_0_split_0
I1013 11:27:18.860164 12690 net.cpp:380] Convolution9 -> Convolution9
I1013 11:27:18.866864 12690 net.cpp:122] Setting up Convolution9
I1013 11:27:18.866873 12690 net.cpp:129] Top shape: 50 160 28 28 (6272000)
I1013 11:27:18.866875 12690 net.cpp:137] Memory required for data: 893603800
I1013 11:27:18.866879 12690 layer_factory.hpp:77] Creating layer BatchNorm8
I1013 11:27:18.866884 12690 net.cpp:84] Creating Layer BatchNorm8
I1013 11:27:18.866888 12690 net.cpp:406] BatchNorm8 <- Convolution9
I1013 11:27:18.866891 12690 net.cpp:367] BatchNorm8 -> Convolution9 (in-place)
I1013 11:27:18.867050 12690 net.cpp:122] Setting up BatchNorm8
I1013 11:27:18.867055 12690 net.cpp:129] Top shape: 50 160 28 28 (6272000)
I1013 11:27:18.867058 12690 net.cpp:137] Memory required for data: 918691800
I1013 11:27:18.867063 12690 layer_factory.hpp:77] Creating layer Scale8
I1013 11:27:18.867067 12690 net.cpp:84] Creating Layer Scale8
I1013 11:27:18.867069 12690 net.cpp:406] Scale8 <- Convolution9
I1013 11:27:18.867072 12690 net.cpp:367] Scale8 -> Convolution9 (in-place)
I1013 11:27:18.867103 12690 layer_factory.hpp:77] Creating layer Scale8
I1013 11:27:18.867193 12690 net.cpp:122] Setting up Scale8
I1013 11:27:18.867197 12690 net.cpp:129] Top shape: 50 160 28 28 (6272000)
I1013 11:27:18.867199 12690 net.cpp:137] Memory required for data: 943779800
I1013 11:27:18.867203 12690 layer_factory.hpp:77] Creating layer penlu8
I1013 11:27:18.867209 12690 net.cpp:84] Creating Layer penlu8
I1013 11:27:18.867211 12690 net.cpp:406] penlu8 <- Convolution9
I1013 11:27:18.867215 12690 net.cpp:367] penlu8 -> Convolution9 (in-place)
I1013 11:27:18.867413 12690 net.cpp:122] Setting up penlu8
I1013 11:27:18.867416 12690 net.cpp:129] Top shape: 50 160 28 28 (6272000)
I1013 11:27:18.867419 12690 net.cpp:137] Memory required for data: 968867800
I1013 11:27:18.867422 12690 layer_factory.hpp:77] Creating layer Convolution10
I1013 11:27:18.867429 12690 net.cpp:84] Creating Layer Convolution10
I1013 11:27:18.867431 12690 net.cpp:406] Convolution10 <- Convolution9
I1013 11:27:18.867435 12690 net.cpp:380] Convolution10 -> Convolution10
I1013 11:27:18.874665 12690 net.cpp:122] Setting up Convolution10
I1013 11:27:18.874678 12690 net.cpp:129] Top shape: 50 160 28 28 (6272000)
I1013 11:27:18.874682 12690 net.cpp:137] Memory required for data: 993955800
I1013 11:27:18.874697 12690 layer_factory.hpp:77] Creating layer Eltwise4
I1013 11:27:18.874706 12690 net.cpp:84] Creating Layer Eltwise4
I1013 11:27:18.874708 12690 net.cpp:406] Eltwise4 <- Convolution10
I1013 11:27:18.874712 12690 net.cpp:406] Eltwise4 <- Eltwise3_penlu7_0_split_1
I1013 11:27:18.874716 12690 net.cpp:380] Eltwise4 -> Eltwise4
I1013 11:27:18.874742 12690 net.cpp:122] Setting up Eltwise4
I1013 11:27:18.874747 12690 net.cpp:129] Top shape: 50 160 28 28 (6272000)
I1013 11:27:18.874748 12690 net.cpp:137] Memory required for data: 1019043800
I1013 11:27:18.874750 12690 layer_factory.hpp:77] Creating layer Eltwise4_Eltwise4_0_split
I1013 11:27:18.874754 12690 net.cpp:84] Creating Layer Eltwise4_Eltwise4_0_split
I1013 11:27:18.874756 12690 net.cpp:406] Eltwise4_Eltwise4_0_split <- Eltwise4
I1013 11:27:18.874760 12690 net.cpp:380] Eltwise4_Eltwise4_0_split -> Eltwise4_Eltwise4_0_split_0
I1013 11:27:18.874765 12690 net.cpp:380] Eltwise4_Eltwise4_0_split -> Eltwise4_Eltwise4_0_split_1
I1013 11:27:18.874794 12690 net.cpp:122] Setting up Eltwise4_Eltwise4_0_split
I1013 11:27:18.874797 12690 net.cpp:129] Top shape: 50 160 28 28 (6272000)
I1013 11:27:18.874800 12690 net.cpp:129] Top shape: 50 160 28 28 (6272000)
I1013 11:27:18.874802 12690 net.cpp:137] Memory required for data: 1069219800
I1013 11:27:18.874804 12690 layer_factory.hpp:77] Creating layer Convolution11
I1013 11:27:18.874810 12690 net.cpp:84] Creating Layer Convolution11
I1013 11:27:18.874814 12690 net.cpp:406] Convolution11 <- Eltwise4_Eltwise4_0_split_0
I1013 11:27:18.874816 12690 net.cpp:380] Convolution11 -> Convolution11
I1013 11:27:18.886365 12690 net.cpp:122] Setting up Convolution11
I1013 11:27:18.886374 12690 net.cpp:129] Top shape: 50 320 14 14 (3136000)
I1013 11:27:18.886376 12690 net.cpp:137] Memory required for data: 1081763800
I1013 11:27:18.886380 12690 layer_factory.hpp:77] Creating layer BatchNorm9
I1013 11:27:18.886386 12690 net.cpp:84] Creating Layer BatchNorm9
I1013 11:27:18.886389 12690 net.cpp:406] BatchNorm9 <- Convolution11
I1013 11:27:18.886392 12690 net.cpp:367] BatchNorm9 -> Convolution11 (in-place)
I1013 11:27:18.886566 12690 net.cpp:122] Setting up BatchNorm9
I1013 11:27:18.886571 12690 net.cpp:129] Top shape: 50 320 14 14 (3136000)
I1013 11:27:18.886574 12690 net.cpp:137] Memory required for data: 1094307800
I1013 11:27:18.886579 12690 layer_factory.hpp:77] Creating layer Scale9
I1013 11:27:18.886584 12690 net.cpp:84] Creating Layer Scale9
I1013 11:27:18.886585 12690 net.cpp:406] Scale9 <- Convolution11
I1013 11:27:18.886589 12690 net.cpp:367] Scale9 -> Convolution11 (in-place)
I1013 11:27:18.886626 12690 layer_factory.hpp:77] Creating layer Scale9
I1013 11:27:18.886718 12690 net.cpp:122] Setting up Scale9
I1013 11:27:18.886723 12690 net.cpp:129] Top shape: 50 320 14 14 (3136000)
I1013 11:27:18.886724 12690 net.cpp:137] Memory required for data: 1106851800
I1013 11:27:18.886729 12690 layer_factory.hpp:77] Creating layer penlu9
I1013 11:27:18.886734 12690 net.cpp:84] Creating Layer penlu9
I1013 11:27:18.886736 12690 net.cpp:406] penlu9 <- Convolution11
I1013 11:27:18.886740 12690 net.cpp:367] penlu9 -> Convolution11 (in-place)
I1013 11:27:18.886906 12690 net.cpp:122] Setting up penlu9
I1013 11:27:18.886911 12690 net.cpp:129] Top shape: 50 320 14 14 (3136000)
I1013 11:27:18.886914 12690 net.cpp:137] Memory required for data: 1119395800
I1013 11:27:18.886917 12690 layer_factory.hpp:77] Creating layer Convolution12
I1013 11:27:18.886924 12690 net.cpp:84] Creating Layer Convolution12
I1013 11:27:18.886926 12690 net.cpp:406] Convolution12 <- Convolution11
I1013 11:27:18.886930 12690 net.cpp:380] Convolution12 -> Convolution12
I1013 11:27:18.909471 12690 net.cpp:122] Setting up Convolution12
I1013 11:27:18.909492 12690 net.cpp:129] Top shape: 50 320 14 14 (3136000)
I1013 11:27:18.909497 12690 net.cpp:137] Memory required for data: 1131939800
I1013 11:27:18.909504 12690 layer_factory.hpp:77] Creating layer Convolution13
I1013 11:27:18.909518 12690 net.cpp:84] Creating Layer Convolution13
I1013 11:27:18.909524 12690 net.cpp:406] Convolution13 <- Eltwise4_Eltwise4_0_split_1
I1013 11:27:18.909545 12690 net.cpp:380] Convolution13 -> Convolution13
I1013 11:27:18.911962 12690 net.cpp:122] Setting up Convolution13
I1013 11:27:18.911972 12690 net.cpp:129] Top shape: 50 320 14 14 (3136000)
I1013 11:27:18.911978 12690 net.cpp:137] Memory required for data: 1144483800
I1013 11:27:18.911983 12690 layer_factory.hpp:77] Creating layer Eltwise5
I1013 11:27:18.911994 12690 net.cpp:84] Creating Layer Eltwise5
I1013 11:27:18.911999 12690 net.cpp:406] Eltwise5 <- Convolution12
I1013 11:27:18.912004 12690 net.cpp:406] Eltwise5 <- Convolution13
I1013 11:27:18.912011 12690 net.cpp:380] Eltwise5 -> Eltwise5
I1013 11:27:18.912039 12690 net.cpp:122] Setting up Eltwise5
I1013 11:27:18.912046 12690 net.cpp:129] Top shape: 50 320 14 14 (3136000)
I1013 11:27:18.912050 12690 net.cpp:137] Memory required for data: 1157027800
I1013 11:27:18.912055 12690 layer_factory.hpp:77] Creating layer BatchNorm10
I1013 11:27:18.912063 12690 net.cpp:84] Creating Layer BatchNorm10
I1013 11:27:18.912067 12690 net.cpp:406] BatchNorm10 <- Eltwise5
I1013 11:27:18.912073 12690 net.cpp:367] BatchNorm10 -> Eltwise5 (in-place)
I1013 11:27:18.912253 12690 net.cpp:122] Setting up BatchNorm10
I1013 11:27:18.912261 12690 net.cpp:129] Top shape: 50 320 14 14 (3136000)
I1013 11:27:18.912264 12690 net.cpp:137] Memory required for data: 1169571800
I1013 11:27:18.912274 12690 layer_factory.hpp:77] Creating layer Scale10
I1013 11:27:18.912281 12690 net.cpp:84] Creating Layer Scale10
I1013 11:27:18.912286 12690 net.cpp:406] Scale10 <- Eltwise5
I1013 11:27:18.912292 12690 net.cpp:367] Scale10 -> Eltwise5 (in-place)
I1013 11:27:18.912335 12690 layer_factory.hpp:77] Creating layer Scale10
I1013 11:27:18.912433 12690 net.cpp:122] Setting up Scale10
I1013 11:27:18.912441 12690 net.cpp:129] Top shape: 50 320 14 14 (3136000)
I1013 11:27:18.912444 12690 net.cpp:137] Memory required for data: 1182115800
I1013 11:27:18.912452 12690 layer_factory.hpp:77] Creating layer penlu10
I1013 11:27:18.912462 12690 net.cpp:84] Creating Layer penlu10
I1013 11:27:18.912466 12690 net.cpp:406] penlu10 <- Eltwise5
I1013 11:27:18.912473 12690 net.cpp:367] penlu10 -> Eltwise5 (in-place)
I1013 11:27:18.912643 12690 net.cpp:122] Setting up penlu10
I1013 11:27:18.912650 12690 net.cpp:129] Top shape: 50 320 14 14 (3136000)
I1013 11:27:18.912654 12690 net.cpp:137] Memory required for data: 1194659800
I1013 11:27:18.912662 12690 layer_factory.hpp:77] Creating layer Eltwise5_penlu10_0_split
I1013 11:27:18.912670 12690 net.cpp:84] Creating Layer Eltwise5_penlu10_0_split
I1013 11:27:18.912674 12690 net.cpp:406] Eltwise5_penlu10_0_split <- Eltwise5
I1013 11:27:18.912680 12690 net.cpp:380] Eltwise5_penlu10_0_split -> Eltwise5_penlu10_0_split_0
I1013 11:27:18.912691 12690 net.cpp:380] Eltwise5_penlu10_0_split -> Eltwise5_penlu10_0_split_1
I1013 11:27:18.912724 12690 net.cpp:122] Setting up Eltwise5_penlu10_0_split
I1013 11:27:18.912731 12690 net.cpp:129] Top shape: 50 320 14 14 (3136000)
I1013 11:27:18.912737 12690 net.cpp:129] Top shape: 50 320 14 14 (3136000)
I1013 11:27:18.912741 12690 net.cpp:137] Memory required for data: 1219747800
I1013 11:27:18.912745 12690 layer_factory.hpp:77] Creating layer Convolution14
I1013 11:27:18.912755 12690 net.cpp:84] Creating Layer Convolution14
I1013 11:27:18.912758 12690 net.cpp:406] Convolution14 <- Eltwise5_penlu10_0_split_0
I1013 11:27:18.912766 12690 net.cpp:380] Convolution14 -> Convolution14
I1013 11:27:18.935137 12690 net.cpp:122] Setting up Convolution14
I1013 11:27:18.935158 12690 net.cpp:129] Top shape: 50 320 14 14 (3136000)
I1013 11:27:18.935163 12690 net.cpp:137] Memory required for data: 1232291800
I1013 11:27:18.935169 12690 layer_factory.hpp:77] Creating layer BatchNorm11
I1013 11:27:18.935181 12690 net.cpp:84] Creating Layer BatchNorm11
I1013 11:27:18.935201 12690 net.cpp:406] BatchNorm11 <- Convolution14
I1013 11:27:18.935220 12690 net.cpp:367] BatchNorm11 -> Convolution14 (in-place)
I1013 11:27:18.935446 12690 net.cpp:122] Setting up BatchNorm11
I1013 11:27:18.935454 12690 net.cpp:129] Top shape: 50 320 14 14 (3136000)
I1013 11:27:18.935468 12690 net.cpp:137] Memory required for data: 1244835800
I1013 11:27:18.935493 12690 layer_factory.hpp:77] Creating layer Scale11
I1013 11:27:18.935503 12690 net.cpp:84] Creating Layer Scale11
I1013 11:27:18.935508 12690 net.cpp:406] Scale11 <- Convolution14
I1013 11:27:18.935513 12690 net.cpp:367] Scale11 -> Convolution14 (in-place)
I1013 11:27:18.935569 12690 layer_factory.hpp:77] Creating layer Scale11
I1013 11:27:18.935669 12690 net.cpp:122] Setting up Scale11
I1013 11:27:18.935678 12690 net.cpp:129] Top shape: 50 320 14 14 (3136000)
I1013 11:27:18.935681 12690 net.cpp:137] Memory required for data: 1257379800
I1013 11:27:18.935688 12690 layer_factory.hpp:77] Creating layer penlu11
I1013 11:27:18.935698 12690 net.cpp:84] Creating Layer penlu11
I1013 11:27:18.935701 12690 net.cpp:406] penlu11 <- Convolution14
I1013 11:27:18.935708 12690 net.cpp:367] penlu11 -> Convolution14 (in-place)
I1013 11:27:18.936400 12690 net.cpp:122] Setting up penlu11
I1013 11:27:18.936410 12690 net.cpp:129] Top shape: 50 320 14 14 (3136000)
I1013 11:27:18.936414 12690 net.cpp:137] Memory required for data: 1269923800
I1013 11:27:18.936424 12690 layer_factory.hpp:77] Creating layer Convolution15
I1013 11:27:18.936434 12690 net.cpp:84] Creating Layer Convolution15
I1013 11:27:18.936449 12690 net.cpp:406] Convolution15 <- Convolution14
I1013 11:27:18.936457 12690 net.cpp:380] Convolution15 -> Convolution15
I1013 11:27:18.957974 12690 net.cpp:122] Setting up Convolution15
I1013 11:27:18.957986 12690 net.cpp:129] Top shape: 50 320 14 14 (3136000)
I1013 11:27:18.957991 12690 net.cpp:137] Memory required for data: 1282467800
I1013 11:27:18.957998 12690 layer_factory.hpp:77] Creating layer Eltwise6
I1013 11:27:18.958009 12690 net.cpp:84] Creating Layer Eltwise6
I1013 11:27:18.958014 12690 net.cpp:406] Eltwise6 <- Convolution15
I1013 11:27:18.958021 12690 net.cpp:406] Eltwise6 <- Eltwise5_penlu10_0_split_1
I1013 11:27:18.958027 12690 net.cpp:380] Eltwise6 -> Eltwise6
I1013 11:27:18.958058 12690 net.cpp:122] Setting up Eltwise6
I1013 11:27:18.958065 12690 net.cpp:129] Top shape: 50 320 14 14 (3136000)
I1013 11:27:18.958070 12690 net.cpp:137] Memory required for data: 1295011800
I1013 11:27:18.958075 12690 layer_factory.hpp:77] Creating layer BatchNorm12
I1013 11:27:18.958082 12690 net.cpp:84] Creating Layer BatchNorm12
I1013 11:27:18.958086 12690 net.cpp:406] BatchNorm12 <- Eltwise6
I1013 11:27:18.958092 12690 net.cpp:367] BatchNorm12 -> Eltwise6 (in-place)
I1013 11:27:18.958268 12690 net.cpp:122] Setting up BatchNorm12
I1013 11:27:18.958276 12690 net.cpp:129] Top shape: 50 320 14 14 (3136000)
I1013 11:27:18.958279 12690 net.cpp:137] Memory required for data: 1307555800
I1013 11:27:18.958289 12690 layer_factory.hpp:77] Creating layer Scale12
I1013 11:27:18.958295 12690 net.cpp:84] Creating Layer Scale12
I1013 11:27:18.958300 12690 net.cpp:406] Scale12 <- Eltwise6
I1013 11:27:18.958307 12690 net.cpp:367] Scale12 -> Eltwise6 (in-place)
I1013 11:27:18.958350 12690 layer_factory.hpp:77] Creating layer Scale12
I1013 11:27:18.958453 12690 net.cpp:122] Setting up Scale12
I1013 11:27:18.958461 12690 net.cpp:129] Top shape: 50 320 14 14 (3136000)
I1013 11:27:18.958464 12690 net.cpp:137] Memory required for data: 1320099800
I1013 11:27:18.958472 12690 layer_factory.hpp:77] Creating layer penlu12
I1013 11:27:18.958487 12690 net.cpp:84] Creating Layer penlu12
I1013 11:27:18.958492 12690 net.cpp:406] penlu12 <- Eltwise6
I1013 11:27:18.958498 12690 net.cpp:367] penlu12 -> Eltwise6 (in-place)
I1013 11:27:18.958673 12690 net.cpp:122] Setting up penlu12
I1013 11:27:18.958679 12690 net.cpp:129] Top shape: 50 320 14 14 (3136000)
I1013 11:27:18.958683 12690 net.cpp:137] Memory required for data: 1332643800
I1013 11:27:18.958693 12690 layer_factory.hpp:77] Creating layer Eltwise6_penlu12_0_split
I1013 11:27:18.958701 12690 net.cpp:84] Creating Layer Eltwise6_penlu12_0_split
I1013 11:27:18.958705 12690 net.cpp:406] Eltwise6_penlu12_0_split <- Eltwise6
I1013 11:27:18.958711 12690 net.cpp:380] Eltwise6_penlu12_0_split -> Eltwise6_penlu12_0_split_0
I1013 11:27:18.958727 12690 net.cpp:380] Eltwise6_penlu12_0_split -> Eltwise6_penlu12_0_split_1
I1013 11:27:18.958763 12690 net.cpp:122] Setting up Eltwise6_penlu12_0_split
I1013 11:27:18.958770 12690 net.cpp:129] Top shape: 50 320 14 14 (3136000)
I1013 11:27:18.958776 12690 net.cpp:129] Top shape: 50 320 14 14 (3136000)
I1013 11:27:18.958781 12690 net.cpp:137] Memory required for data: 1357731800
I1013 11:27:18.958784 12690 layer_factory.hpp:77] Creating layer Convolution16
I1013 11:27:18.958796 12690 net.cpp:84] Creating Layer Convolution16
I1013 11:27:18.958799 12690 net.cpp:406] Convolution16 <- Eltwise6_penlu12_0_split_0
I1013 11:27:18.958806 12690 net.cpp:380] Convolution16 -> Convolution16
I1013 11:27:18.981051 12690 net.cpp:122] Setting up Convolution16
I1013 11:27:18.981072 12690 net.cpp:129] Top shape: 50 320 14 14 (3136000)
I1013 11:27:18.981076 12690 net.cpp:137] Memory required for data: 1370275800
I1013 11:27:18.981086 12690 layer_factory.hpp:77] Creating layer BatchNorm13
I1013 11:27:18.981096 12690 net.cpp:84] Creating Layer BatchNorm13
I1013 11:27:18.981103 12690 net.cpp:406] BatchNorm13 <- Convolution16
I1013 11:27:18.981112 12690 net.cpp:367] BatchNorm13 -> Convolution16 (in-place)
I1013 11:27:18.981304 12690 net.cpp:122] Setting up BatchNorm13
I1013 11:27:18.981312 12690 net.cpp:129] Top shape: 50 320 14 14 (3136000)
I1013 11:27:18.981317 12690 net.cpp:137] Memory required for data: 1382819800
I1013 11:27:18.981325 12690 layer_factory.hpp:77] Creating layer Scale13
I1013 11:27:18.981333 12690 net.cpp:84] Creating Layer Scale13
I1013 11:27:18.981338 12690 net.cpp:406] Scale13 <- Convolution16
I1013 11:27:18.981344 12690 net.cpp:367] Scale13 -> Convolution16 (in-place)
I1013 11:27:18.981390 12690 layer_factory.hpp:77] Creating layer Scale13
I1013 11:27:18.981495 12690 net.cpp:122] Setting up Scale13
I1013 11:27:18.981503 12690 net.cpp:129] Top shape: 50 320 14 14 (3136000)
I1013 11:27:18.981506 12690 net.cpp:137] Memory required for data: 1395363800
I1013 11:27:18.981514 12690 layer_factory.hpp:77] Creating layer penlu13
I1013 11:27:18.981525 12690 net.cpp:84] Creating Layer penlu13
I1013 11:27:18.981529 12690 net.cpp:406] penlu13 <- Convolution16
I1013 11:27:18.981536 12690 net.cpp:367] penlu13 -> Convolution16 (in-place)
I1013 11:27:18.981710 12690 net.cpp:122] Setting up penlu13
I1013 11:27:18.981717 12690 net.cpp:129] Top shape: 50 320 14 14 (3136000)
I1013 11:27:18.981721 12690 net.cpp:137] Memory required for data: 1407907800
I1013 11:27:18.981730 12690 layer_factory.hpp:77] Creating layer Convolution17
I1013 11:27:18.981751 12690 net.cpp:84] Creating Layer Convolution17
I1013 11:27:18.981765 12690 net.cpp:406] Convolution17 <- Convolution16
I1013 11:27:18.981772 12690 net.cpp:380] Convolution17 -> Convolution17
I1013 11:27:19.004178 12690 net.cpp:122] Setting up Convolution17
I1013 11:27:19.004196 12690 net.cpp:129] Top shape: 50 320 14 14 (3136000)
I1013 11:27:19.004200 12690 net.cpp:137] Memory required for data: 1420451800
I1013 11:27:19.004218 12690 layer_factory.hpp:77] Creating layer Eltwise7
I1013 11:27:19.004230 12690 net.cpp:84] Creating Layer Eltwise7
I1013 11:27:19.004236 12690 net.cpp:406] Eltwise7 <- Convolution17
I1013 11:27:19.004245 12690 net.cpp:406] Eltwise7 <- Eltwise6_penlu12_0_split_1
I1013 11:27:19.004252 12690 net.cpp:380] Eltwise7 -> Eltwise7
I1013 11:27:19.004302 12690 net.cpp:122] Setting up Eltwise7
I1013 11:27:19.004309 12690 net.cpp:129] Top shape: 50 320 14 14 (3136000)
I1013 11:27:19.004313 12690 net.cpp:137] Memory required for data: 1432995800
I1013 11:27:19.004326 12690 layer_factory.hpp:77] Creating layer BatchNorm14
I1013 11:27:19.004345 12690 net.cpp:84] Creating Layer BatchNorm14
I1013 11:27:19.004350 12690 net.cpp:406] BatchNorm14 <- Eltwise7
I1013 11:27:19.004355 12690 net.cpp:367] BatchNorm14 -> Eltwise7 (in-place)
I1013 11:27:19.004554 12690 net.cpp:122] Setting up BatchNorm14
I1013 11:27:19.004561 12690 net.cpp:129] Top shape: 50 320 14 14 (3136000)
I1013 11:27:19.004565 12690 net.cpp:137] Memory required for data: 1445539800
I1013 11:27:19.004585 12690 layer_factory.hpp:77] Creating layer Scale14
I1013 11:27:19.004602 12690 net.cpp:84] Creating Layer Scale14
I1013 11:27:19.004607 12690 net.cpp:406] Scale14 <- Eltwise7
I1013 11:27:19.004613 12690 net.cpp:367] Scale14 -> Eltwise7 (in-place)
I1013 11:27:19.004672 12690 layer_factory.hpp:77] Creating layer Scale14
I1013 11:27:19.004796 12690 net.cpp:122] Setting up Scale14
I1013 11:27:19.004803 12690 net.cpp:129] Top shape: 50 320 14 14 (3136000)
I1013 11:27:19.004817 12690 net.cpp:137] Memory required for data: 1458083800
I1013 11:27:19.004825 12690 layer_factory.hpp:77] Creating layer penlu14
I1013 11:27:19.004835 12690 net.cpp:84] Creating Layer penlu14
I1013 11:27:19.004839 12690 net.cpp:406] penlu14 <- Eltwise7
I1013 11:27:19.004848 12690 net.cpp:367] penlu14 -> Eltwise7 (in-place)
I1013 11:27:19.005035 12690 net.cpp:122] Setting up penlu14
I1013 11:27:19.005043 12690 net.cpp:129] Top shape: 50 320 14 14 (3136000)
I1013 11:27:19.005046 12690 net.cpp:137] Memory required for data: 1470627800
I1013 11:27:19.005077 12690 layer_factory.hpp:77] Creating layer Eltwise7_penlu14_0_split
I1013 11:27:19.005085 12690 net.cpp:84] Creating Layer Eltwise7_penlu14_0_split
I1013 11:27:19.005090 12690 net.cpp:406] Eltwise7_penlu14_0_split <- Eltwise7
I1013 11:27:19.005096 12690 net.cpp:380] Eltwise7_penlu14_0_split -> Eltwise7_penlu14_0_split_0
I1013 11:27:19.005105 12690 net.cpp:380] Eltwise7_penlu14_0_split -> Eltwise7_penlu14_0_split_1
I1013 11:27:19.005141 12690 net.cpp:122] Setting up Eltwise7_penlu14_0_split
I1013 11:27:19.005147 12690 net.cpp:129] Top shape: 50 320 14 14 (3136000)
I1013 11:27:19.005154 12690 net.cpp:129] Top shape: 50 320 14 14 (3136000)
I1013 11:27:19.005158 12690 net.cpp:137] Memory required for data: 1495715800
I1013 11:27:19.005162 12690 layer_factory.hpp:77] Creating layer Convolution18
I1013 11:27:19.005174 12690 net.cpp:84] Creating Layer Convolution18
I1013 11:27:19.005178 12690 net.cpp:406] Convolution18 <- Eltwise7_penlu14_0_split_0
I1013 11:27:19.005185 12690 net.cpp:380] Convolution18 -> Convolution18
I1013 11:27:19.027768 12690 net.cpp:122] Setting up Convolution18
I1013 11:27:19.027788 12690 net.cpp:129] Top shape: 50 320 14 14 (3136000)
I1013 11:27:19.027792 12690 net.cpp:137] Memory required for data: 1508259800
I1013 11:27:19.027801 12690 layer_factory.hpp:77] Creating layer BatchNorm15
I1013 11:27:19.027811 12690 net.cpp:84] Creating Layer BatchNorm15
I1013 11:27:19.027827 12690 net.cpp:406] BatchNorm15 <- Convolution18
I1013 11:27:19.027837 12690 net.cpp:367] BatchNorm15 -> Convolution18 (in-place)
I1013 11:27:19.028041 12690 net.cpp:122] Setting up BatchNorm15
I1013 11:27:19.028049 12690 net.cpp:129] Top shape: 50 320 14 14 (3136000)
I1013 11:27:19.028053 12690 net.cpp:137] Memory required for data: 1520803800
I1013 11:27:19.028076 12690 layer_factory.hpp:77] Creating layer Scale15
I1013 11:27:19.028084 12690 net.cpp:84] Creating Layer Scale15
I1013 11:27:19.028090 12690 net.cpp:406] Scale15 <- Convolution18
I1013 11:27:19.028095 12690 net.cpp:367] Scale15 -> Convolution18 (in-place)
I1013 11:27:19.028151 12690 layer_factory.hpp:77] Creating layer Scale15
I1013 11:27:19.028277 12690 net.cpp:122] Setting up Scale15
I1013 11:27:19.028285 12690 net.cpp:129] Top shape: 50 320 14 14 (3136000)
I1013 11:27:19.028290 12690 net.cpp:137] Memory required for data: 1533347800
I1013 11:27:19.028307 12690 layer_factory.hpp:77] Creating layer penlu15
I1013 11:27:19.028326 12690 net.cpp:84] Creating Layer penlu15
I1013 11:27:19.028329 12690 net.cpp:406] penlu15 <- Convolution18
I1013 11:27:19.028347 12690 net.cpp:367] penlu15 -> Convolution18 (in-place)
I1013 11:27:19.028581 12690 net.cpp:122] Setting up penlu15
I1013 11:27:19.028589 12690 net.cpp:129] Top shape: 50 320 14 14 (3136000)
I1013 11:27:19.028594 12690 net.cpp:137] Memory required for data: 1545891800
I1013 11:27:19.028615 12690 layer_factory.hpp:77] Creating layer Convolution19
I1013 11:27:19.028626 12690 net.cpp:84] Creating Layer Convolution19
I1013 11:27:19.028630 12690 net.cpp:406] Convolution19 <- Convolution18
I1013 11:27:19.028638 12690 net.cpp:380] Convolution19 -> Convolution19
I1013 11:27:19.050613 12690 net.cpp:122] Setting up Convolution19
I1013 11:27:19.050626 12690 net.cpp:129] Top shape: 50 320 14 14 (3136000)
I1013 11:27:19.050631 12690 net.cpp:137] Memory required for data: 1558435800
I1013 11:27:19.050647 12690 layer_factory.hpp:77] Creating layer Eltwise8
I1013 11:27:19.050657 12690 net.cpp:84] Creating Layer Eltwise8
I1013 11:27:19.050662 12690 net.cpp:406] Eltwise8 <- Convolution19
I1013 11:27:19.050669 12690 net.cpp:406] Eltwise8 <- Eltwise7_penlu14_0_split_1
I1013 11:27:19.050678 12690 net.cpp:380] Eltwise8 -> Eltwise8
I1013 11:27:19.050719 12690 net.cpp:122] Setting up Eltwise8
I1013 11:27:19.050725 12690 net.cpp:129] Top shape: 50 320 14 14 (3136000)
I1013 11:27:19.050729 12690 net.cpp:137] Memory required for data: 1570979800
I1013 11:27:19.050743 12690 layer_factory.hpp:77] Creating layer Eltwise8_Eltwise8_0_split
I1013 11:27:19.050751 12690 net.cpp:84] Creating Layer Eltwise8_Eltwise8_0_split
I1013 11:27:19.050755 12690 net.cpp:406] Eltwise8_Eltwise8_0_split <- Eltwise8
I1013 11:27:19.050761 12690 net.cpp:380] Eltwise8_Eltwise8_0_split -> Eltwise8_Eltwise8_0_split_0
I1013 11:27:19.050770 12690 net.cpp:380] Eltwise8_Eltwise8_0_split -> Eltwise8_Eltwise8_0_split_1
I1013 11:27:19.050817 12690 net.cpp:122] Setting up Eltwise8_Eltwise8_0_split
I1013 11:27:19.050822 12690 net.cpp:129] Top shape: 50 320 14 14 (3136000)
I1013 11:27:19.050827 12690 net.cpp:129] Top shape: 50 320 14 14 (3136000)
I1013 11:27:19.050843 12690 net.cpp:137] Memory required for data: 1596067800
I1013 11:27:19.050846 12690 layer_factory.hpp:77] Creating layer Convolution20
I1013 11:27:19.050856 12690 net.cpp:84] Creating Layer Convolution20
I1013 11:27:19.050861 12690 net.cpp:406] Convolution20 <- Eltwise8_Eltwise8_0_split_0
I1013 11:27:19.050869 12690 net.cpp:380] Convolution20 -> Convolution20
I1013 11:27:19.093389 12690 net.cpp:122] Setting up Convolution20
I1013 11:27:19.093410 12690 net.cpp:129] Top shape: 50 640 7 7 (1568000)
I1013 11:27:19.093415 12690 net.cpp:137] Memory required for data: 1602339800
I1013 11:27:19.093422 12690 layer_factory.hpp:77] Creating layer BatchNorm16
I1013 11:27:19.093435 12690 net.cpp:84] Creating Layer BatchNorm16
I1013 11:27:19.093441 12690 net.cpp:406] BatchNorm16 <- Convolution20
I1013 11:27:19.093451 12690 net.cpp:367] BatchNorm16 -> Convolution20 (in-place)
I1013 11:27:19.093639 12690 net.cpp:122] Setting up BatchNorm16
I1013 11:27:19.093647 12690 net.cpp:129] Top shape: 50 640 7 7 (1568000)
I1013 11:27:19.093650 12690 net.cpp:137] Memory required for data: 1608611800
I1013 11:27:19.093659 12690 layer_factory.hpp:77] Creating layer Scale16
I1013 11:27:19.093668 12690 net.cpp:84] Creating Layer Scale16
I1013 11:27:19.093672 12690 net.cpp:406] Scale16 <- Convolution20
I1013 11:27:19.093678 12690 net.cpp:367] Scale16 -> Convolution20 (in-place)
I1013 11:27:19.093719 12690 layer_factory.hpp:77] Creating layer Scale16
I1013 11:27:19.093822 12690 net.cpp:122] Setting up Scale16
I1013 11:27:19.093829 12690 net.cpp:129] Top shape: 50 640 7 7 (1568000)
I1013 11:27:19.093833 12690 net.cpp:137] Memory required for data: 1614883800
I1013 11:27:19.093842 12690 layer_factory.hpp:77] Creating layer penlu16
I1013 11:27:19.093850 12690 net.cpp:84] Creating Layer penlu16
I1013 11:27:19.093854 12690 net.cpp:406] penlu16 <- Convolution20
I1013 11:27:19.093863 12690 net.cpp:367] penlu16 -> Convolution20 (in-place)
I1013 11:27:19.094058 12690 net.cpp:122] Setting up penlu16
I1013 11:27:19.094066 12690 net.cpp:129] Top shape: 50 640 7 7 (1568000)
I1013 11:27:19.094070 12690 net.cpp:137] Memory required for data: 1621155800
I1013 11:27:19.094089 12690 layer_factory.hpp:77] Creating layer Convolution21
I1013 11:27:19.094099 12690 net.cpp:84] Creating Layer Convolution21
I1013 11:27:19.094103 12690 net.cpp:406] Convolution21 <- Convolution20
I1013 11:27:19.094111 12690 net.cpp:380] Convolution21 -> Convolution21
I1013 11:27:19.178243 12690 net.cpp:122] Setting up Convolution21
I1013 11:27:19.178266 12690 net.cpp:129] Top shape: 50 640 7 7 (1568000)
I1013 11:27:19.178313 12690 net.cpp:137] Memory required for data: 1627427800
I1013 11:27:19.178331 12690 layer_factory.hpp:77] Creating layer Convolution22
I1013 11:27:19.178350 12690 net.cpp:84] Creating Layer Convolution22
I1013 11:27:19.178366 12690 net.cpp:406] Convolution22 <- Eltwise8_Eltwise8_0_split_1
I1013 11:27:19.178377 12690 net.cpp:380] Convolution22 -> Convolution22
I1013 11:27:19.183732 12690 net.cpp:122] Setting up Convolution22
I1013 11:27:19.183743 12690 net.cpp:129] Top shape: 50 640 7 7 (1568000)
I1013 11:27:19.183748 12690 net.cpp:137] Memory required for data: 1633699800
I1013 11:27:19.183753 12690 layer_factory.hpp:77] Creating layer Eltwise9
I1013 11:27:19.183763 12690 net.cpp:84] Creating Layer Eltwise9
I1013 11:27:19.183768 12690 net.cpp:406] Eltwise9 <- Convolution21
I1013 11:27:19.183774 12690 net.cpp:406] Eltwise9 <- Convolution22
I1013 11:27:19.183784 12690 net.cpp:380] Eltwise9 -> Eltwise9
I1013 11:27:19.183809 12690 net.cpp:122] Setting up Eltwise9
I1013 11:27:19.183816 12690 net.cpp:129] Top shape: 50 640 7 7 (1568000)
I1013 11:27:19.183820 12690 net.cpp:137] Memory required for data: 1639971800
I1013 11:27:19.183825 12690 layer_factory.hpp:77] Creating layer BatchNorm17
I1013 11:27:19.183835 12690 net.cpp:84] Creating Layer BatchNorm17
I1013 11:27:19.183840 12690 net.cpp:406] BatchNorm17 <- Eltwise9
I1013 11:27:19.183846 12690 net.cpp:367] BatchNorm17 -> Eltwise9 (in-place)
I1013 11:27:19.184020 12690 net.cpp:122] Setting up BatchNorm17
I1013 11:27:19.184027 12690 net.cpp:129] Top shape: 50 640 7 7 (1568000)
I1013 11:27:19.184031 12690 net.cpp:137] Memory required for data: 1646243800
I1013 11:27:19.184051 12690 layer_factory.hpp:77] Creating layer Scale17
I1013 11:27:19.184058 12690 net.cpp:84] Creating Layer Scale17
I1013 11:27:19.184063 12690 net.cpp:406] Scale17 <- Eltwise9
I1013 11:27:19.184072 12690 net.cpp:367] Scale17 -> Eltwise9 (in-place)
I1013 11:27:19.184121 12690 layer_factory.hpp:77] Creating layer Scale17
I1013 11:27:19.184253 12690 net.cpp:122] Setting up Scale17
I1013 11:27:19.184260 12690 net.cpp:129] Top shape: 50 640 7 7 (1568000)
I1013 11:27:19.184264 12690 net.cpp:137] Memory required for data: 1652515800
I1013 11:27:19.184283 12690 layer_factory.hpp:77] Creating layer penlu17
I1013 11:27:19.184291 12690 net.cpp:84] Creating Layer penlu17
I1013 11:27:19.184296 12690 net.cpp:406] penlu17 <- Eltwise9
I1013 11:27:19.184303 12690 net.cpp:367] penlu17 -> Eltwise9 (in-place)
I1013 11:27:19.184475 12690 net.cpp:122] Setting up penlu17
I1013 11:27:19.184482 12690 net.cpp:129] Top shape: 50 640 7 7 (1568000)
I1013 11:27:19.184486 12690 net.cpp:137] Memory required for data: 1658787800
I1013 11:27:19.184495 12690 layer_factory.hpp:77] Creating layer Eltwise9_penlu17_0_split
I1013 11:27:19.184502 12690 net.cpp:84] Creating Layer Eltwise9_penlu17_0_split
I1013 11:27:19.184506 12690 net.cpp:406] Eltwise9_penlu17_0_split <- Eltwise9
I1013 11:27:19.184514 12690 net.cpp:380] Eltwise9_penlu17_0_split -> Eltwise9_penlu17_0_split_0
I1013 11:27:19.184521 12690 net.cpp:380] Eltwise9_penlu17_0_split -> Eltwise9_penlu17_0_split_1
I1013 11:27:19.184556 12690 net.cpp:122] Setting up Eltwise9_penlu17_0_split
I1013 11:27:19.184563 12690 net.cpp:129] Top shape: 50 640 7 7 (1568000)
I1013 11:27:19.184569 12690 net.cpp:129] Top shape: 50 640 7 7 (1568000)
I1013 11:27:19.184574 12690 net.cpp:137] Memory required for data: 1671331800
I1013 11:27:19.184578 12690 layer_factory.hpp:77] Creating layer Convolution23
I1013 11:27:19.184587 12690 net.cpp:84] Creating Layer Convolution23
I1013 11:27:19.184592 12690 net.cpp:406] Convolution23 <- Eltwise9_penlu17_0_split_0
I1013 11:27:19.184598 12690 net.cpp:380] Convolution23 -> Convolution23
I1013 11:27:19.268002 12690 net.cpp:122] Setting up Convolution23
I1013 11:27:19.268023 12690 net.cpp:129] Top shape: 50 640 7 7 (1568000)
I1013 11:27:19.268028 12690 net.cpp:137] Memory required for data: 1677603800
I1013 11:27:19.268035 12690 layer_factory.hpp:77] Creating layer BatchNorm18
I1013 11:27:19.268059 12690 net.cpp:84] Creating Layer BatchNorm18
I1013 11:27:19.268098 12690 net.cpp:406] BatchNorm18 <- Convolution23
I1013 11:27:19.268118 12690 net.cpp:367] BatchNorm18 -> Convolution23 (in-place)
I1013 11:27:19.268338 12690 net.cpp:122] Setting up BatchNorm18
I1013 11:27:19.268347 12690 net.cpp:129] Top shape: 50 640 7 7 (1568000)
I1013 11:27:19.268350 12690 net.cpp:137] Memory required for data: 1683875800
I1013 11:27:19.268359 12690 layer_factory.hpp:77] Creating layer Scale18
I1013 11:27:19.268378 12690 net.cpp:84] Creating Layer Scale18
I1013 11:27:19.268383 12690 net.cpp:406] Scale18 <- Convolution23
I1013 11:27:19.268389 12690 net.cpp:367] Scale18 -> Convolution23 (in-place)
I1013 11:27:19.268440 12690 layer_factory.hpp:77] Creating layer Scale18
I1013 11:27:19.268565 12690 net.cpp:122] Setting up Scale18
I1013 11:27:19.268573 12690 net.cpp:129] Top shape: 50 640 7 7 (1568000)
I1013 11:27:19.268577 12690 net.cpp:137] Memory required for data: 1690147800
I1013 11:27:19.268585 12690 layer_factory.hpp:77] Creating layer penlu18
I1013 11:27:19.268604 12690 net.cpp:84] Creating Layer penlu18
I1013 11:27:19.268607 12690 net.cpp:406] penlu18 <- Convolution23
I1013 11:27:19.268615 12690 net.cpp:367] penlu18 -> Convolution23 (in-place)
I1013 11:27:19.268777 12690 net.cpp:122] Setting up penlu18
I1013 11:27:19.268784 12690 net.cpp:129] Top shape: 50 640 7 7 (1568000)
I1013 11:27:19.268788 12690 net.cpp:137] Memory required for data: 1696419800
I1013 11:27:19.268807 12690 layer_factory.hpp:77] Creating layer Convolution24
I1013 11:27:19.268817 12690 net.cpp:84] Creating Layer Convolution24
I1013 11:27:19.268822 12690 net.cpp:406] Convolution24 <- Convolution23
I1013 11:27:19.268829 12690 net.cpp:380] Convolution24 -> Convolution24
I1013 11:27:19.352967 12690 net.cpp:122] Setting up Convolution24
I1013 11:27:19.352989 12690 net.cpp:129] Top shape: 50 640 7 7 (1568000)
I1013 11:27:19.352993 12690 net.cpp:137] Memory required for data: 1702691800
I1013 11:27:19.353011 12690 layer_factory.hpp:77] Creating layer Eltwise10
I1013 11:27:19.353039 12690 net.cpp:84] Creating Layer Eltwise10
I1013 11:27:19.353045 12690 net.cpp:406] Eltwise10 <- Convolution24
I1013 11:27:19.353063 12690 net.cpp:406] Eltwise10 <- Eltwise9_penlu17_0_split_1
I1013 11:27:19.353082 12690 net.cpp:380] Eltwise10 -> Eltwise10
I1013 11:27:19.353140 12690 net.cpp:122] Setting up Eltwise10
I1013 11:27:19.353147 12690 net.cpp:129] Top shape: 50 640 7 7 (1568000)
I1013 11:27:19.353152 12690 net.cpp:137] Memory required for data: 1708963800
I1013 11:27:19.353157 12690 layer_factory.hpp:77] Creating layer BatchNorm19
I1013 11:27:19.353165 12690 net.cpp:84] Creating Layer BatchNorm19
I1013 11:27:19.353169 12690 net.cpp:406] BatchNorm19 <- Eltwise10
I1013 11:27:19.353178 12690 net.cpp:367] BatchNorm19 -> Eltwise10 (in-place)
I1013 11:27:19.353379 12690 net.cpp:122] Setting up BatchNorm19
I1013 11:27:19.353386 12690 net.cpp:129] Top shape: 50 640 7 7 (1568000)
I1013 11:27:19.353390 12690 net.cpp:137] Memory required for data: 1715235800
I1013 11:27:19.353410 12690 layer_factory.hpp:77] Creating layer Scale19
I1013 11:27:19.353418 12690 net.cpp:84] Creating Layer Scale19
I1013 11:27:19.353423 12690 net.cpp:406] Scale19 <- Eltwise10
I1013 11:27:19.353430 12690 net.cpp:367] Scale19 -> Eltwise10 (in-place)
I1013 11:27:19.353482 12690 layer_factory.hpp:77] Creating layer Scale19
I1013 11:27:19.353611 12690 net.cpp:122] Setting up Scale19
I1013 11:27:19.353618 12690 net.cpp:129] Top shape: 50 640 7 7 (1568000)
I1013 11:27:19.353623 12690 net.cpp:137] Memory required for data: 1721507800
I1013 11:27:19.353641 12690 layer_factory.hpp:77] Creating layer penlu19
I1013 11:27:19.353653 12690 net.cpp:84] Creating Layer penlu19
I1013 11:27:19.353658 12690 net.cpp:406] penlu19 <- Eltwise10
I1013 11:27:19.353664 12690 net.cpp:367] penlu19 -> Eltwise10 (in-place)
I1013 11:27:19.353832 12690 net.cpp:122] Setting up penlu19
I1013 11:27:19.353839 12690 net.cpp:129] Top shape: 50 640 7 7 (1568000)
I1013 11:27:19.353843 12690 net.cpp:137] Memory required for data: 1727779800
I1013 11:27:19.353863 12690 layer_factory.hpp:77] Creating layer Eltwise10_penlu19_0_split
I1013 11:27:19.353880 12690 net.cpp:84] Creating Layer Eltwise10_penlu19_0_split
I1013 11:27:19.353885 12690 net.cpp:406] Eltwise10_penlu19_0_split <- Eltwise10
I1013 11:27:19.353893 12690 net.cpp:380] Eltwise10_penlu19_0_split -> Eltwise10_penlu19_0_split_0
I1013 11:27:19.353899 12690 net.cpp:380] Eltwise10_penlu19_0_split -> Eltwise10_penlu19_0_split_1
I1013 11:27:19.353946 12690 net.cpp:122] Setting up Eltwise10_penlu19_0_split
I1013 11:27:19.353955 12690 net.cpp:129] Top shape: 50 640 7 7 (1568000)
I1013 11:27:19.353960 12690 net.cpp:129] Top shape: 50 640 7 7 (1568000)
I1013 11:27:19.353965 12690 net.cpp:137] Memory required for data: 1740323800
I1013 11:27:19.353970 12690 layer_factory.hpp:77] Creating layer Convolution25
I1013 11:27:19.353981 12690 net.cpp:84] Creating Layer Convolution25
I1013 11:27:19.353986 12690 net.cpp:406] Convolution25 <- Eltwise10_penlu19_0_split_0
I1013 11:27:19.353993 12690 net.cpp:380] Convolution25 -> Convolution25
I1013 11:27:19.437906 12690 net.cpp:122] Setting up Convolution25
I1013 11:27:19.437947 12690 net.cpp:129] Top shape: 50 640 7 7 (1568000)
I1013 11:27:19.437952 12690 net.cpp:137] Memory required for data: 1746595800
I1013 11:27:19.437970 12690 layer_factory.hpp:77] Creating layer BatchNorm20
I1013 11:27:19.438004 12690 net.cpp:84] Creating Layer BatchNorm20
I1013 11:27:19.438011 12690 net.cpp:406] BatchNorm20 <- Convolution25
I1013 11:27:19.438043 12690 net.cpp:367] BatchNorm20 -> Convolution25 (in-place)
I1013 11:27:19.438284 12690 net.cpp:122] Setting up BatchNorm20
I1013 11:27:19.438292 12690 net.cpp:129] Top shape: 50 640 7 7 (1568000)
I1013 11:27:19.438297 12690 net.cpp:137] Memory required for data: 1752867800
I1013 11:27:19.438315 12690 layer_factory.hpp:77] Creating layer Scale20
I1013 11:27:19.438325 12690 net.cpp:84] Creating Layer Scale20
I1013 11:27:19.438329 12690 net.cpp:406] Scale20 <- Convolution25
I1013 11:27:19.438336 12690 net.cpp:367] Scale20 -> Convolution25 (in-place)
I1013 11:27:19.438401 12690 layer_factory.hpp:77] Creating layer Scale20
I1013 11:27:19.438552 12690 net.cpp:122] Setting up Scale20
I1013 11:27:19.438560 12690 net.cpp:129] Top shape: 50 640 7 7 (1568000)
I1013 11:27:19.438565 12690 net.cpp:137] Memory required for data: 1759139800
I1013 11:27:19.438582 12690 layer_factory.hpp:77] Creating layer penlu20
I1013 11:27:19.438606 12690 net.cpp:84] Creating Layer penlu20
I1013 11:27:19.438621 12690 net.cpp:406] penlu20 <- Convolution25
I1013 11:27:19.438627 12690 net.cpp:367] penlu20 -> Convolution25 (in-place)
I1013 11:27:19.438791 12690 net.cpp:122] Setting up penlu20
I1013 11:27:19.438798 12690 net.cpp:129] Top shape: 50 640 7 7 (1568000)
I1013 11:27:19.438802 12690 net.cpp:137] Memory required for data: 1765411800
I1013 11:27:19.438822 12690 layer_factory.hpp:77] Creating layer Convolution26
I1013 11:27:19.438833 12690 net.cpp:84] Creating Layer Convolution26
I1013 11:27:19.438838 12690 net.cpp:406] Convolution26 <- Convolution25
I1013 11:27:19.438844 12690 net.cpp:380] Convolution26 -> Convolution26
I1013 11:27:19.522743 12690 net.cpp:122] Setting up Convolution26
I1013 11:27:19.522766 12690 net.cpp:129] Top shape: 50 640 7 7 (1568000)
I1013 11:27:19.522771 12690 net.cpp:137] Memory required for data: 1771683800
I1013 11:27:19.522779 12690 layer_factory.hpp:77] Creating layer Eltwise11
I1013 11:27:19.522802 12690 net.cpp:84] Creating Layer Eltwise11
I1013 11:27:19.522820 12690 net.cpp:406] Eltwise11 <- Convolution26
I1013 11:27:19.522840 12690 net.cpp:406] Eltwise11 <- Eltwise10_penlu19_0_split_1
I1013 11:27:19.522847 12690 net.cpp:380] Eltwise11 -> Eltwise11
I1013 11:27:19.522923 12690 net.cpp:122] Setting up Eltwise11
I1013 11:27:19.522930 12690 net.cpp:129] Top shape: 50 640 7 7 (1568000)
I1013 11:27:19.522934 12690 net.cpp:137] Memory required for data: 1777955800
I1013 11:27:19.522939 12690 layer_factory.hpp:77] Creating layer BatchNorm21
I1013 11:27:19.522948 12690 net.cpp:84] Creating Layer BatchNorm21
I1013 11:27:19.522967 12690 net.cpp:406] BatchNorm21 <- Eltwise11
I1013 11:27:19.522974 12690 net.cpp:367] BatchNorm21 -> Eltwise11 (in-place)
I1013 11:27:19.523226 12690 net.cpp:122] Setting up BatchNorm21
I1013 11:27:19.523233 12690 net.cpp:129] Top shape: 50 640 7 7 (1568000)
I1013 11:27:19.523237 12690 net.cpp:137] Memory required for data: 1784227800
I1013 11:27:19.523248 12690 layer_factory.hpp:77] Creating layer Scale21
I1013 11:27:19.523257 12690 net.cpp:84] Creating Layer Scale21
I1013 11:27:19.523260 12690 net.cpp:406] Scale21 <- Eltwise11
I1013 11:27:19.523267 12690 net.cpp:367] Scale21 -> Eltwise11 (in-place)
I1013 11:27:19.523320 12690 layer_factory.hpp:77] Creating layer Scale21
I1013 11:27:19.523448 12690 net.cpp:122] Setting up Scale21
I1013 11:27:19.523455 12690 net.cpp:129] Top shape: 50 640 7 7 (1568000)
I1013 11:27:19.523459 12690 net.cpp:137] Memory required for data: 1790499800
I1013 11:27:19.523478 12690 layer_factory.hpp:77] Creating layer penlu21
I1013 11:27:19.523488 12690 net.cpp:84] Creating Layer penlu21
I1013 11:27:19.523491 12690 net.cpp:406] penlu21 <- Eltwise11
I1013 11:27:19.523499 12690 net.cpp:367] penlu21 -> Eltwise11 (in-place)
I1013 11:27:19.523668 12690 net.cpp:122] Setting up penlu21
I1013 11:27:19.523674 12690 net.cpp:129] Top shape: 50 640 7 7 (1568000)
I1013 11:27:19.523679 12690 net.cpp:137] Memory required for data: 1796771800
I1013 11:27:19.523697 12690 layer_factory.hpp:77] Creating layer Eltwise11_penlu21_0_split
I1013 11:27:19.523703 12690 net.cpp:84] Creating Layer Eltwise11_penlu21_0_split
I1013 11:27:19.523708 12690 net.cpp:406] Eltwise11_penlu21_0_split <- Eltwise11
I1013 11:27:19.523715 12690 net.cpp:380] Eltwise11_penlu21_0_split -> Eltwise11_penlu21_0_split_0
I1013 11:27:19.523723 12690 net.cpp:380] Eltwise11_penlu21_0_split -> Eltwise11_penlu21_0_split_1
I1013 11:27:19.523777 12690 net.cpp:122] Setting up Eltwise11_penlu21_0_split
I1013 11:27:19.523783 12690 net.cpp:129] Top shape: 50 640 7 7 (1568000)
I1013 11:27:19.523798 12690 net.cpp:129] Top shape: 50 640 7 7 (1568000)
I1013 11:27:19.523802 12690 net.cpp:137] Memory required for data: 1809315800
I1013 11:27:19.523807 12690 layer_factory.hpp:77] Creating layer Convolution27
I1013 11:27:19.523818 12690 net.cpp:84] Creating Layer Convolution27
I1013 11:27:19.523821 12690 net.cpp:406] Convolution27 <- Eltwise11_penlu21_0_split_0
I1013 11:27:19.523829 12690 net.cpp:380] Convolution27 -> Convolution27
I1013 11:27:19.607336 12690 net.cpp:122] Setting up Convolution27
I1013 11:27:19.607359 12690 net.cpp:129] Top shape: 50 640 7 7 (1568000)
I1013 11:27:19.607364 12690 net.cpp:137] Memory required for data: 1815587800
I1013 11:27:19.607373 12690 layer_factory.hpp:77] Creating layer BatchNorm22
I1013 11:27:19.607398 12690 net.cpp:84] Creating Layer BatchNorm22
I1013 11:27:19.607416 12690 net.cpp:406] BatchNorm22 <- Convolution27
I1013 11:27:19.607434 12690 net.cpp:367] BatchNorm22 -> Convolution27 (in-place)
I1013 11:27:19.607702 12690 net.cpp:122] Setting up BatchNorm22
I1013 11:27:19.607709 12690 net.cpp:129] Top shape: 50 640 7 7 (1568000)
I1013 11:27:19.607713 12690 net.cpp:137] Memory required for data: 1821859800
I1013 11:27:19.607733 12690 layer_factory.hpp:77] Creating layer Scale22
I1013 11:27:19.607743 12690 net.cpp:84] Creating Layer Scale22
I1013 11:27:19.607748 12690 net.cpp:406] Scale22 <- Convolution27
I1013 11:27:19.607754 12690 net.cpp:367] Scale22 -> Convolution27 (in-place)
I1013 11:27:19.607833 12690 layer_factory.hpp:77] Creating layer Scale22
I1013 11:27:19.607964 12690 net.cpp:122] Setting up Scale22
I1013 11:27:19.607971 12690 net.cpp:129] Top shape: 50 640 7 7 (1568000)
I1013 11:27:19.607975 12690 net.cpp:137] Memory required for data: 1828131800
I1013 11:27:19.607995 12690 layer_factory.hpp:77] Creating layer penlu22
I1013 11:27:19.608016 12690 net.cpp:84] Creating Layer penlu22
I1013 11:27:19.608021 12690 net.cpp:406] penlu22 <- Convolution27
I1013 11:27:19.608037 12690 net.cpp:367] penlu22 -> Convolution27 (in-place)
I1013 11:27:19.608228 12690 net.cpp:122] Setting up penlu22
I1013 11:27:19.608237 12690 net.cpp:129] Top shape: 50 640 7 7 (1568000)
I1013 11:27:19.608240 12690 net.cpp:137] Memory required for data: 1834403800
I1013 11:27:19.608283 12690 layer_factory.hpp:77] Creating layer Convolution28
I1013 11:27:19.608309 12690 net.cpp:84] Creating Layer Convolution28
I1013 11:27:19.608314 12690 net.cpp:406] Convolution28 <- Convolution27
I1013 11:27:19.608330 12690 net.cpp:380] Convolution28 -> Convolution28
I1013 11:27:19.691977 12690 net.cpp:122] Setting up Convolution28
I1013 11:27:19.692000 12690 net.cpp:129] Top shape: 50 640 7 7 (1568000)
I1013 11:27:19.692005 12690 net.cpp:137] Memory required for data: 1840675800
I1013 11:27:19.692014 12690 layer_factory.hpp:77] Creating layer Eltwise12
I1013 11:27:19.692036 12690 net.cpp:84] Creating Layer Eltwise12
I1013 11:27:19.692044 12690 net.cpp:406] Eltwise12 <- Convolution28
I1013 11:27:19.692062 12690 net.cpp:406] Eltwise12 <- Eltwise11_penlu21_0_split_1
I1013 11:27:19.692082 12690 net.cpp:380] Eltwise12 -> Eltwise12
I1013 11:27:19.692168 12690 net.cpp:122] Setting up Eltwise12
I1013 11:27:19.692175 12690 net.cpp:129] Top shape: 50 640 7 7 (1568000)
I1013 11:27:19.692179 12690 net.cpp:137] Memory required for data: 1846947800
I1013 11:27:19.692184 12690 layer_factory.hpp:77] Creating layer Pooling1
I1013 11:27:19.692195 12690 net.cpp:84] Creating Layer Pooling1
I1013 11:27:19.692214 12690 net.cpp:406] Pooling1 <- Eltwise12
I1013 11:27:19.692230 12690 net.cpp:380] Pooling1 -> Pooling1
I1013 11:27:19.692432 12690 net.cpp:122] Setting up Pooling1
I1013 11:27:19.692441 12690 net.cpp:129] Top shape: 50 640 1 1 (32000)
I1013 11:27:19.692445 12690 net.cpp:137] Memory required for data: 1847075800
I1013 11:27:19.692450 12690 layer_factory.hpp:77] Creating layer InnerProduct1
I1013 11:27:19.692458 12690 net.cpp:84] Creating Layer InnerProduct1
I1013 11:27:19.692473 12690 net.cpp:406] InnerProduct1 <- Pooling1
I1013 11:27:19.692492 12690 net.cpp:380] InnerProduct1 -> InnerProduct1
I1013 11:27:19.693320 12690 net.cpp:122] Setting up InnerProduct1
I1013 11:27:19.693331 12690 net.cpp:129] Top shape: 50 100 (5000)
I1013 11:27:19.693334 12690 net.cpp:137] Memory required for data: 1847095800
I1013 11:27:19.693341 12690 layer_factory.hpp:77] Creating layer InnerProduct1_InnerProduct1_0_split
I1013 11:27:19.693349 12690 net.cpp:84] Creating Layer InnerProduct1_InnerProduct1_0_split
I1013 11:27:19.693366 12690 net.cpp:406] InnerProduct1_InnerProduct1_0_split <- InnerProduct1
I1013 11:27:19.693372 12690 net.cpp:380] InnerProduct1_InnerProduct1_0_split -> InnerProduct1_InnerProduct1_0_split_0
I1013 11:27:19.693380 12690 net.cpp:380] InnerProduct1_InnerProduct1_0_split -> InnerProduct1_InnerProduct1_0_split_1
I1013 11:27:19.693434 12690 net.cpp:122] Setting up InnerProduct1_InnerProduct1_0_split
I1013 11:27:19.693441 12690 net.cpp:129] Top shape: 50 100 (5000)
I1013 11:27:19.693446 12690 net.cpp:129] Top shape: 50 100 (5000)
I1013 11:27:19.693460 12690 net.cpp:137] Memory required for data: 1847135800
I1013 11:27:19.693465 12690 layer_factory.hpp:77] Creating layer SoftmaxWithLoss1
I1013 11:27:19.693475 12690 net.cpp:84] Creating Layer SoftmaxWithLoss1
I1013 11:27:19.693480 12690 net.cpp:406] SoftmaxWithLoss1 <- InnerProduct1_InnerProduct1_0_split_0
I1013 11:27:19.693485 12690 net.cpp:406] SoftmaxWithLoss1 <- label_cifar_1_split_0
…
