…
I1017 16:08:54.123980 22869 net.cpp:294] The NetState phase (0) differed from the phase (1) specified by a rule in layer accuracy
I1017 16:08:54.124435 22869 net.cpp:51] Initializing net from parameters: 
name: "wrn_28_10"
state {
  phase: TRAIN
  level: 0
  stage: ""
}
layer {
  name: "cifar"
  type: "Data"
  top: "data"
  top: "label"
  include {
    phase: TRAIN
  }
  transform_param {
    mirror: true
    crop_size: 28
    mean_file: "/home/x306/caffe/xn/PENLU/data/cifar100/mean.binaryproto"
  }
  data_param {
    source: "/home/x306/caffe/xn/PENLU/data/cifar100/cifar100_train_lmdb"
    batch_size: 50
    backend: LMDB
  }
}
layer {
  name: "Convolution1"
  type: "Convolution"
  bottom: "data"
  top: "Convolution1"
  convolution_param {
    num_output: 16
    pad: 1
    kernel_size: 3
    stride: 1
    weight_filler {
      type: "msra"
    }
  }
}
layer {
  name: "BatchNorm1"
  type: "BatchNorm"
  bottom: "Convolution1"
  top: "Convolution1"
  param {
    lr_mult: 0
    decay_mult: 0
  }
  param {
    lr_mult: 0
    decay_mult: 0
  }
  param {
    lr_mult: 0
    decay_mult: 0
  }
  batch_norm_param {
    use_global_stats: false
  }
}
layer {
  name: "Scale1"
  type: "Scale"
  bottom: "Convolution1"
  top: "Convolution1"
  scale_param {
    bias_term: true
  }
}
layer {
  name: "penlu1"
  type: "PENLU"
  bottom: "Convolution1"
  top: "Convolution1"
  param {
    lr_mult: 2
    decay_mult: 0
  }
  param {
    lr_mult: 2
    decay_mult: 0
  }
  param {
    lr_mult: 0
    decay_mult: 0
  }
  penlu_param {
    alpha_filler {
      type: "constant"
      value: 0.25
    }
    beta_filler {
      type: "constant"
      value: 1
    }
    eta_filler {
      type: "constant"
      value: 1
    }
  }
}
layer {
  name: "Convolution2"
  type: "Convolution"
  bottom: "Convolution1"
  top: "Convolution2"
  convolution_param {
    num_output: 160
    bias_term: false
    pad: 1
    kernel_size: 3
    stride: 1
    weight_filler {
      type: "msra"
    }
  }
}
layer {
  name: "BatchNorm2"
  type: "BatchNorm"
  bottom: "Convolution2"
  top: "Convolution2"
  param {
    lr_mult: 0
    decay_mult: 0
  }
  param {
    lr_mult: 0
    decay_mult: 0
  }
  param {
    lr_mult: 0
    decay_mult: 0
  }
  batch_norm_param {
    use_global_stats: false
  }
}
layer {
  name: "Scale2"
  type: "Scale"
  bottom: "Convolution2"
  top: "Convolution2"
  scale_param {
    bias_term: true
  }
}
layer {
  name: "penlu2"
  type: "PENLU"
  bottom: "Convolution2"
  top: "Convolution2"
  param {
    lr_mult: 2
    decay_mult: 0
  }
  param {
    lr_mult: 2
    decay_mult: 0
  }
  param {
    lr_mult: 0
    decay_mult: 0
  }
  penlu_param {
    alpha_filler {
      type: "constant"
      value: 0.25
    }
    beta_filler {
      type: "constant"
      value: 1
    }
    eta_filler {
      type: "constant"
      value: 1
    }
  }
}
layer {
  name: "Convolution3"
  type: "Convolution"
  bottom: "Convolution2"
  top: "Convolution3"
  convolution_param {
    num_output: 160
    bias_term: false
    pad: 1
    kernel_size: 3
    stride: 1
    weight_filler {
      type: "msra"
    }
  }
}
layer {
  name: "Convolution4"
  type: "Convolution"
  bottom: "Convolution1"
  top: "Convolution4"
  convolution_param {
    num_output: 160
    bias_term: false
    pad: 0
    kernel_size: 1
    stride: 1
    weight_filler {
      type: "msra"
    }
  }
}
layer {
  name: "Eltwise1"
  type: "Eltwise"
  bottom: "Convolution3"
  bottom: "Convolution4"
  top: "Eltwise1"
  eltwise_param {
    operation: SUM
  }
}
layer {
  name: "BatchNorm3"
  type: "BatchNorm"
  bottom: "Eltwise1"
  top: "Eltwise1"
  param {
    lr_mult: 0
    decay_mult: 0
  }
  param {
    lr_mult: 0
    decay_mult: 0
  }
  param {
    lr_mult: 0
    decay_mult: 0
  }
  batch_norm_param {
    use_global_stats: false
  }
}
layer {
  name: "Scale3"
  type: "Scale"
  bottom: "Eltwise1"
  top: "Eltwise1"
  scale_param {
    bias_term: true
  }
}
layer {
  name: "penlu3"
  type: "PENLU"
  bottom: "Eltwise1"
  top: "Eltwise1"
  param {
    lr_mult: 2
    decay_mult: 0
  }
  param {
    lr_mult: 2
    decay_mult: 0
  }
  param {
    lr_mult: 0
    decay_mult: 0
  }
  penlu_param {
    alpha_filler {
      type: "constant"
      value: 0.25
    }
    beta_filler {
      type: "constant"
      value: 1
    }
    eta_filler {
      type: "constant"
      value: 1
    }
  }
}
layer {
  name: "Convolution5"
  type: "Convolution"
  bottom: "Eltwise1"
  top: "Convolution5"
  convolution_param {
    num_output: 160
    bias_term: false
    pad: 1
    kernel_size: 3
    stride: 1
    weight_filler {
      type: "msra"
    }
  }
}
layer {
  name: "BatchNorm4"
  type: "BatchNorm"
  bottom: "Convolution5"
  top: "Convolution5"
  param {
    lr_mult: 0
    decay_mult: 0
  }
  param {
    lr_mult: 0
    decay_mult: 0
  }
  param {
    lr_mult: 0
    decay_mult: 0
  }
  batch_norm_param {
    use_global_stats: false
  }
}
layer {
  name: "Scale4"
  type: "Scale"
  bottom: "Convolution5"
  top: "Convolution5"
  scale_param {
    bias_term: true
  }
}
layer {
  name: "penlu4"
  type: "PENLU"
  bottom: "Convolution5"
  top: "Convolution5"
  param {
    lr_mult: 2
    decay_mult: 0
  }
  param {
    lr_mult: 2
    decay_mult: 0
  }
  param {
    lr_mult: 0
    decay_mult: 0
  }
  penlu_param {
    alpha_filler {
      type: "constant"
      value: 0.25
    }
    beta_filler {
      type: "constant"
      value: 1
    }
    eta_filler {
      type: "constant"
      value: 1
    }
  }
}
layer {
  name: "Convolution6"
  type: "Convolution"
  bottom: "Convolution5"
  top: "Convolution6"
  convolution_param {
    num_output: 160
    bias_term: false
    pad: 1
    kernel_size: 3
    stride: 1
    weight_filler {
      type: "msra"
    }
  }
}
layer {
  name: "Eltwise2"
  type: "Eltwise"
  bottom: "Convolution6"
  bottom: "Eltwise1"
  top: "Eltwise2"
  eltwise_param {
    operation: SUM
  }
}
layer {
  name: "BatchNorm5"
  type: "BatchNorm"
  bottom: "Eltwise2"
  top: "Eltwise2"
  param {
    lr_mult: 0
    decay_mult: 0
  }
  param {
    lr_mult: 0
    decay_mult: 0
  }
  param {
    lr_mult: 0
    decay_mult: 0
  }
  batch_norm_param {
    use_global_stats: false
  }
}
layer {
  name: "Scale5"
  type: "Scale"
  bottom: "Eltwise2"
  top: "Eltwise2"
  scale_param {
    bias_term: true
  }
}
layer {
  name: "penlu5"
  type: "PENLU"
  bottom: "Eltwise2"
  top: "Eltwise2"
  param {
    lr_mult: 2
    decay_mult: 0
  }
  param {
    lr_mult: 2
    decay_mult: 0
  }
  param {
    lr_mult: 0
    decay_mult: 0
  }
  penlu_param {
    alpha_filler {
      type: "constant"
      value: 0.25
    }
    beta_filler {
      type: "constant"
      value: 1
    }
    eta_filler {
      type: "constant"
      value: 1
    }
  }
}
layer {
  name: "Convolution7"
  type: "Convolution"
  bottom: "Eltwise2"
  top: "Convolution7"
  convolution_param {
    num_output: 160
    bias_term: false
    pad: 1
    kernel_size: 3
    stride: 1
    weight_filler {
      type: "msra"
    }
  }
}
layer {
  name: "BatchNorm6"
  type: "BatchNorm"
  bottom: "Convolution7"
  top: "Convolution7"
  param {
    lr_mult: 0
    decay_mult: 0
  }
  param {
    lr_mult: 0
    decay_mult: 0
  }
  param {
    lr_mult: 0
    decay_mult: 0
  }
  batch_norm_param {
    use_global_stats: false
  }
}
layer {
  name: "Scale6"
  type: "Scale"
  bottom: "Convolution7"
  top: "Convolution7"
  scale_param {
    bias_term: true
  }
}
layer {
  name: "penlu6"
  type: "PENLU"
  bottom: "Convolution7"
  top: "Convolution7"
  param {
    lr_mult: 2
    decay_mult: 0
  }
  param {
    lr_mult: 2
    decay_mult: 0
  }
  param {
    lr_mult: 0
    decay_mult: 0
  }
  penlu_param {
    alpha_filler {
      type: "constant"
      value: 0.25
    }
    beta_filler {
      type: "constant"
      value: 1
    }
    eta_filler {
      type: "constant"
      value: 1
    }
  }
}
layer {
  name: "Convolution8"
  type: "Convolution"
  bottom: "Convolution7"
  top: "Convolution8"
  convolution_param {
    num_output: 160
    bias_term: false
    pad: 1
    kernel_size: 3
    stride: 1
    weight_filler {
      type: "msra"
    }
  }
}
layer {
  name: "Eltwise3"
  type: "Eltwise"
  bottom: "Convolution8"
  bottom: "Eltwise2"
  top: "Eltwise3"
  eltwise_param {
    operation: SUM
  }
}
layer {
  name: "BatchNorm7"
  type: "BatchNorm"
  bottom: "Eltwise3"
  top: "Eltwise3"
  param {
    lr_mult: 0
    decay_mult: 0
  }
  param {
    lr_mult: 0
    decay_mult: 0
  }
  param {
    lr_mult: 0
    decay_mult: 0
  }
  batch_norm_param {
    use_global_stats: false
  }
}
layer {
  name: "Scale7"
  type: "Scale"
  bottom: "Eltwise3"
  top: "Eltwise3"
  scale_param {
    bias_term: true
  }
}
layer {
  name: "penlu7"
  type: "PENLU"
  bottom: "Eltwise3"
  top: "Eltwise3"
  param {
    lr_mult: 2
    decay_mult: 0
  }
  param {
    lr_mult: 2
    decay_mult: 0
  }
  param {
    lr_mult: 0
    decay_mult: 0
  }
  penlu_param {
    alpha_filler {
      type: "constant"
      value: 0.25
    }
    beta_filler {
      type: "constant"
      value: 1
    }
    eta_filler {
      type: "constant"
      value: 1
    }
  }
}
layer {
  name: "Convolution9"
  type: "Convolution"
  bottom: "Eltwise3"
  top: "Convolution9"
  convolution_param {
    num_output: 160
    bias_term: false
    pad: 1
    kernel_size: 3
    stride: 1
    weight_filler {
      type: "msra"
    }
  }
}
layer {
  name: "BatchNorm8"
  type: "BatchNorm"
  bottom: "Convolution9"
  top: "Convolution9"
  param {
    lr_mult: 0
    decay_mult: 0
  }
  param {
    lr_mult: 0
    decay_mult: 0
  }
  param {
    lr_mult: 0
    decay_mult: 0
  }
  batch_norm_param {
    use_global_stats: false
  }
}
layer {
  name: "Scale8"
  type: "Scale"
  bottom: "Convolution9"
  top: "Convolution9"
  scale_param {
    bias_term: true
  }
}
layer {
  name: "penlu8"
  type: "PENLU"
  bottom: "Convolution9"
  top: "Convolution9"
  param {
    lr_mult: 2
    decay_mult: 0
  }
  param {
    lr_mult: 2
    decay_mult: 0
  }
  param {
    lr_mult: 0
    decay_mult: 0
  }
  penlu_param {
    alpha_filler {
      type: "constant"
      value: 0.25
    }
    beta_filler {
      type: "constant"
      value: 1
    }
    eta_filler {
      type: "constant"
      value: 1
    }
  }
}
layer {
  name: "Convolution10"
  type: "Convolution"
  bottom: "Convolution9"
  top: "Convolution10"
  convolution_param {
    num_output: 160
    bias_term: false
    pad: 1
    kernel_size: 3
    stride: 1
    weight_filler {
      type: "msra"
    }
  }
}
layer {
  name: "Eltwise4"
  type: "Eltwise"
  bottom: "Convolution10"
  bottom: "Eltwise3"
  top: "Eltwise4"
  eltwise_param {
    operation: SUM
  }
}
layer {
  name: "Convolution11"
  type: "Convolution"
  bottom: "Eltwise4"
  top: "Convolution11"
  convolution_param {
    num_output: 320
    bias_term: false
    pad: 1
    kernel_size: 3
    stride: 2
    weight_filler {
      type: "msra"
    }
  }
}
layer {
  name: "BatchNorm9"
  type: "BatchNorm"
  bottom: "Convolution11"
  top: "Convolution11"
  param {
    lr_mult: 0
    decay_mult: 0
  }
  param {
    lr_mult: 0
    decay_mult: 0
  }
  param {
    lr_mult: 0
    decay_mult: 0
  }
  batch_norm_param {
    use_global_stats: false
  }
}
layer {
  name: "Scale9"
  type: "Scale"
  bottom: "Convolution11"
  top: "Convolution11"
  scale_param {
    bias_term: true
  }
}
layer {
  name: "penlu9"
  type: "PENLU"
  bottom: "Convolution11"
  top: "Convolution11"
  param {
    lr_mult: 2
    decay_mult: 0
  }
  param {
    lr_mult: 2
    decay_mult: 0
  }
  param {
    lr_mult: 0
    decay_mult: 0
  }
  penlu_param {
    alpha_filler {
      type: "constant"
      value: 0.25
    }
    beta_filler {
      type: "constant"
      value: 1
    }
    eta_filler {
      type: "constant"
      value: 1
    }
  }
}
layer {
  name: "Convolution12"
  type: "Convolution"
  bottom: "Convolution11"
  top: "Convolution12"
  convolution_param {
    num_output: 320
    bias_term: false
    pad: 1
    kernel_size: 3
    stride: 1
    weight_filler {
      type: "msra"
    }
  }
}
layer {
  name: "Convolution13"
  type: "Convolution"
  bottom: "Eltwise4"
  top: "Convolution13"
  convolution_param {
    num_output: 320
    bias_term: false
    pad: 0
    kernel_size: 1
    stride: 2
    weight_filler {
      type: "msra"
    }
  }
}
layer {
  name: "Eltwise5"
  type: "Eltwise"
  bottom: "Convolution12"
  bottom: "Convolution13"
  top: "Eltwise5"
  eltwise_param {
    operation: SUM
  }
}
layer {
  name: "BatchNorm10"
  type: "BatchNorm"
  bottom: "Eltwise5"
  top: "Eltwise5"
  param {
    lr_mult: 0
    decay_mult: 0
  }
  param {
    lr_mult: 0
    decay_mult: 0
  }
  param {
    lr_mult: 0
    decay_mult: 0
  }
  batch_norm_param {
    use_global_stats: false
  }
}
layer {
  name: "Scale10"
  type: "Scale"
  bottom: "Eltwise5"
  top: "Eltwise5"
  scale_param {
    bias_term: true
  }
}
layer {
  name: "penlu10"
  type: "PENLU"
  bottom: "Eltwise5"
  top: "Eltwise5"
  param {
    lr_mult: 2
    decay_mult: 0
  }
  param {
    lr_mult: 2
    decay_mult: 0
  }
  param {
    lr_mult: 0
    decay_mult: 0
  }
  penlu_param {
    alpha_filler {
      type: "constant"
      value: 0.25
    }
    beta_filler {
      type: "constant"
      value: 1
    }
    eta_filler {
      type: "constant"
      value: 1
    }
  }
}
layer {
  name: "Convolution14"
  type: "Convolution"
  bottom: "Eltwise5"
  top: "Convolution14"
  convolution_param {
    num_output: 320
    bias_term: false
    pad: 1
    kernel_size: 3
    stride: 1
    weight_filler {
      type: "msra"
    }
  }
}
layer {
  name: "BatchNorm11"
  type: "BatchNorm"
  bottom: "Convolution14"
  top: "Convolution14"
  param {
    lr_mult: 0
    decay_mult: 0
  }
  param {
    lr_mult: 0
    decay_mult: 0
  }
  param {
    lr_mult: 0
    decay_mult: 0
  }
  batch_norm_param {
    use_global_stats: false
  }
}
layer {
  name: "Scale11"
  type: "Scale"
  bottom: "Convolution14"
  top: "Convolution14"
  scale_param {
    bias_term: true
  }
}
layer {
  name: "penlu11"
  type: "PENLU"
  bottom: "Convolution14"
  top: "Convolution14"
  param {
    lr_mult: 2
    decay_mult: 0
  }
  param {
    lr_mult: 2
    decay_mult: 0
  }
  param {
    lr_mult: 0
    decay_mult: 0
  }
  penlu_param {
    alpha_filler {
      type: "constant"
      value: 0.25
    }
    beta_filler {
      type: "constant"
      value: 1
    }
    eta_filler {
      type: "constant"
      value: 1
    }
  }
}
layer {
  name: "Convolution15"
  type: "Convolution"
  bottom: "Convolution14"
  top: "Convolution15"
  convolution_param {
    num_output: 320
    bias_term: false
    pad: 1
    kernel_size: 3
    stride: 1
    weight_filler {
      type: "msra"
    }
  }
}
layer {
  name: "Eltwise6"
  type: "Eltwise"
  bottom: "Convolution15"
  bottom: "Eltwise5"
  top: "Eltwise6"
  eltwise_param {
    operation: SUM
  }
}
layer {
  name: "BatchNorm12"
  type: "BatchNorm"
  bottom: "Eltwise6"
  top: "Eltwise6"
  param {
    lr_mult: 0
    decay_mult: 0
  }
  param {
    lr_mult: 0
    decay_mult: 0
  }
  param {
    lr_mult: 0
    decay_mult: 0
  }
  batch_norm_param {
    use_global_stats: false
  }
}
layer {
  name: "Scale12"
  type: "Scale"
  bottom: "Eltwise6"
  top: "Eltwise6"
  scale_param {
    bias_term: true
  }
}
layer {
  name: "penlu12"
  type: "PENLU"
  bottom: "Eltwise6"
  top: "Eltwise6"
  param {
    lr_mult: 2
    decay_mult: 0
  }
  param {
    lr_mult: 2
    decay_mult: 0
  }
  param {
    lr_mult: 0
    decay_mult: 0
  }
  penlu_param {
    alpha_filler {
      type: "constant"
      value: 0.25
    }
    beta_filler {
      type: "constant"
      value: 1
    }
    eta_filler {
      type: "constant"
      value: 1
    }
  }
}
layer {
  name: "Convolution16"
  type: "Convolution"
  bottom: "Eltwise6"
  top: "Convolution16"
  convolution_param {
    num_output: 320
    bias_term: false
    pad: 1
    kernel_size: 3
    stride: 1
    weight_filler {
      type: "msra"
    }
  }
}
layer {
  name: "BatchNorm13"
  type: "BatchNorm"
  bottom: "Convolution16"
  top: "Convolution16"
  param {
    lr_mult: 0
    decay_mult: 0
  }
  param {
    lr_mult: 0
    decay_mult: 0
  }
  param {
    lr_mult: 0
    decay_mult: 0
  }
  batch_norm_param {
    use_global_stats: false
  }
}
layer {
  name: "Scale13"
  type: "Scale"
  bottom: "Convolution16"
  top: "Convolution16"
  scale_param {
    bias_term: true
  }
}
layer {
  name: "penlu13"
  type: "PENLU"
  bottom: "Convolution16"
  top: "Convolution16"
  param {
    lr_mult: 2
    decay_mult: 0
  }
  param {
    lr_mult: 2
    decay_mult: 0
  }
  param {
    lr_mult: 0
    decay_mult: 0
  }
  penlu_param {
    alpha_filler {
      type: "constant"
      value: 0.25
    }
    beta_filler {
      type: "constant"
      value: 1
    }
    eta_filler {
      type: "constant"
      value: 1
    }
  }
}
layer {
  name: "Convolution17"
  type: "Convolution"
  bottom: "Convolution16"
  top: "Convolution17"
  convolution_param {
    num_output: 320
    bias_term: false
    pad: 1
    kernel_size: 3
    stride: 1
    weight_filler {
      type: "msra"
    }
  }
}
layer {
  name: "Eltwise7"
  type: "Eltwise"
  bottom: "Convolution17"
  bottom: "Eltwise6"
  top: "Eltwise7"
  eltwise_param {
    operation: SUM
  }
}
layer {
  name: "BatchNorm14"
  type: "BatchNorm"
  bottom: "Eltwise7"
  top: "Eltwise7"
  param {
    lr_mult: 0
    decay_mult: 0
  }
  param {
    lr_mult: 0
    decay_mult: 0
  }
  param {
    lr_mult: 0
    decay_mult: 0
  }
  batch_norm_param {
    use_global_stats: false
  }
}
layer {
  name: "Scale14"
  type: "Scale"
  bottom: "Eltwise7"
  top: "Eltwise7"
  scale_param {
    bias_term: true
  }
}
layer {
  name: "penlu14"
  type: "PENLU"
  bottom: "Eltwise7"
  top: "Eltwise7"
  param {
    lr_mult: 2
    decay_mult: 0
  }
  param {
    lr_mult: 2
    decay_mult: 0
  }
  param {
    lr_mult: 0
    decay_mult: 0
  }
  penlu_param {
    alpha_filler {
      type: "constant"
      value: 0.25
    }
    beta_filler {
      type: "constant"
      value: 1
    }
    eta_filler {
      type: "constant"
      value: 1
    }
  }
}
layer {
  name: "Convolution18"
  type: "Convolution"
  bottom: "Eltwise7"
  top: "Convolution18"
  convolution_param {
    num_output: 320
    bias_term: false
    pad: 1
    kernel_size: 3
    stride: 1
    weight_filler {
      type: "msra"
    }
  }
}
layer {
  name: "BatchNorm15"
  type: "BatchNorm"
  bottom: "Convolution18"
  top: "Convolution18"
  param {
    lr_mult: 0
    decay_mult: 0
  }
  param {
    lr_mult: 0
    decay_mult: 0
  }
  param {
    lr_mult: 0
    decay_mult: 0
  }
  batch_norm_param {
    use_global_stats: false
  }
}
layer {
  name: "Scale15"
  type: "Scale"
  bottom: "Convolution18"
  top: "Convolution18"
  scale_param {
    bias_term: true
  }
}
layer {
  name: "penlu15"
  type: "PENLU"
  bottom: "Convolution18"
  top: "Convolution18"
  param {
    lr_mult: 2
    decay_mult: 0
  }
  param {
    lr_mult: 2
    decay_mult: 0
  }
  param {
    lr_mult: 0
    decay_mult: 0
  }
  penlu_param {
    alpha_filler {
      type: "constant"
      value: 0.25
    }
    beta_filler {
      type: "constant"
      value: 1
    }
    eta_filler {
      type: "constant"
      value: 1
    }
  }
}
layer {
  name: "Convolution19"
  type: "Convolution"
  bottom: "Convolution18"
  top: "Convolution19"
  convolution_param {
    num_output: 320
    bias_term: false
    pad: 1
    kernel_size: 3
    stride: 1
    weight_filler {
      type: "msra"
    }
  }
}
layer {
  name: "Eltwise8"
  type: "Eltwise"
  bottom: "Convolution19"
  bottom: "Eltwise7"
  top: "Eltwise8"
  eltwise_param {
    operation: SUM
  }
}
layer {
  name: "Convolution20"
  type: "Convolution"
  bottom: "Eltwise8"
  top: "Convolution20"
  convolution_param {
    num_output: 640
    bias_term: false
    pad: 1
    kernel_size: 3
    stride: 2
    weight_filler {
      type: "msra"
    }
  }
}
layer {
  name: "BatchNorm16"
  type: "BatchNorm"
  bottom: "Convolution20"
  top: "Convolution20"
  param {
    lr_mult: 0
    decay_mult: 0
  }
  param {
    lr_mult: 0
    decay_mult: 0
  }
  param {
    lr_mult: 0
    decay_mult: 0
  }
  batch_norm_param {
    use_global_stats: false
  }
}
layer {
  name: "Scale16"
  type: "Scale"
  bottom: "Convolution20"
  top: "Convolution20"
  scale_param {
    bias_term: true
  }
}
layer {
  name: "penlu16"
  type: "PENLU"
  bottom: "Convolution20"
  top: "Convolution20"
  param {
    lr_mult: 2
    decay_mult: 0
  }
  param {
    lr_mult: 2
    decay_mult: 0
  }
  param {
    lr_mult: 0
    decay_mult: 0
  }
  penlu_param {
    alpha_filler {
      type: "constant"
      value: 0.25
    }
    beta_filler {
      type: "constant"
      value: 1
    }
    eta_filler {
      type: "constant"
      value: 1
    }
  }
}
layer {
  name: "Convolution21"
  type: "Convolution"
  bottom: "Convolution20"
  top: "Convolution21"
  convolution_param {
    num_output: 640
    bias_term: false
    pad: 1
    kernel_size: 3
    stride: 1
    weight_filler {
      type: "msra"
    }
  }
}
layer {
  name: "Convolution22"
  type: "Convolution"
  bottom: "Eltwise8"
  top: "Convolution22"
  convolution_param {
    num_output: 640
    bias_term: false
    pad: 0
    kernel_size: 1
    stride: 2
    weight_filler {
      type: "msra"
    }
  }
}
layer {
  name: "Eltwise9"
  type: "Eltwise"
  bottom: "Convolution21"
  bottom: "Convolution22"
  top: "Eltwise9"
  eltwise_param {
    operation: SUM
  }
}
layer {
  name: "BatchNorm17"
  type: "BatchNorm"
  bottom: "Eltwise9"
  top: "Eltwise9"
  param {
    lr_mult: 0
    decay_mult: 0
  }
  param {
    lr_mult: 0
    decay_mult: 0
  }
  param {
    lr_mult: 0
    decay_mult: 0
  }
  batch_norm_param {
    use_global_stats: false
  }
}
layer {
  name: "Scale17"
  type: "Scale"
  bottom: "Eltwise9"
  top: "Eltwise9"
  scale_param {
    bias_term: true
  }
}
layer {
  name: "penlu17"
  type: "PENLU"
  bottom: "Eltwise9"
  top: "Eltwise9"
  param {
    lr_mult: 2
    decay_mult: 0
  }
  param {
    lr_mult: 2
    decay_mult: 0
  }
  param {
    lr_mult: 0
    decay_mult: 0
  }
  penlu_param {
    alpha_filler {
      type: "constant"
      value: 0.25
    }
    beta_filler {
      type: "constant"
      value: 1
    }
    eta_filler {
      type: "constant"
      value: 1
    }
  }
}
layer {
  name: "Convolution23"
  type: "Convolution"
  bottom: "Eltwise9"
  top: "Convolution23"
  convolution_param {
    num_output: 640
    bias_term: false
    pad: 1
    kernel_size: 3
    stride: 1
    weight_filler {
      type: "msra"
    }
  }
}
layer {
  name: "BatchNorm18"
  type: "BatchNorm"
  bottom: "Convolution23"
  top: "Convolution23"
  param {
    lr_mult: 0
    decay_mult: 0
  }
  param {
    lr_mult: 0
    decay_mult: 0
  }
  param {
    lr_mult: 0
    decay_mult: 0
  }
  batch_norm_param {
    use_global_stats: false
  }
}
layer {
  name: "Scale18"
  type: "Scale"
  bottom: "Convolution23"
  top: "Convolution23"
  scale_param {
    bias_term: true
  }
}
layer {
  name: "penlu18"
  type: "PENLU"
  bottom: "Convolution23"
  top: "Convolution23"
  param {
    lr_mult: 2
    decay_mult: 0
  }
  param {
    lr_mult: 2
    decay_mult: 0
  }
  param {
    lr_mult: 0
    decay_mult: 0
  }
  penlu_param {
    alpha_filler {
      type: "constant"
      value: 0.25
    }
    beta_filler {
      type: "constant"
      value: 1
    }
    eta_filler {
      type: "constant"
      value: 1
    }
  }
}
layer {
  name: "Convolution24"
  type: "Convolution"
  bottom: "Convolution23"
  top: "Convolution24"
  convolution_param {
    num_output: 640
    bias_term: false
    pad: 1
    kernel_size: 3
    stride: 1
    weight_filler {
      type: "msra"
    }
  }
}
layer {
  name: "Eltwise10"
  type: "Eltwise"
  bottom: "Convolution24"
  bottom: "Eltwise9"
  top: "Eltwise10"
  eltwise_param {
    operation: SUM
  }
}
layer {
  name: "BatchNorm19"
  type: "BatchNorm"
  bottom: "Eltwise10"
  top: "Eltwise10"
  param {
    lr_mult: 0
    decay_mult: 0
  }
  param {
    lr_mult: 0
    decay_mult: 0
  }
  param {
    lr_mult: 0
    decay_mult: 0
  }
  batch_norm_param {
    use_global_stats: false
  }
}
layer {
  name: "Scale19"
  type: "Scale"
  bottom: "Eltwise10"
  top: "Eltwise10"
  scale_param {
    bias_term: true
  }
}
layer {
  name: "penlu19"
  type: "PENLU"
  bottom: "Eltwise10"
  top: "Eltwise10"
  param {
    lr_mult: 2
    decay_mult: 0
  }
  param {
    lr_mult: 2
    decay_mult: 0
  }
  param {
    lr_mult: 0
    decay_mult: 0
  }
  penlu_param {
    alpha_filler {
      type: "constant"
      value: 0.25
    }
    beta_filler {
      type: "constant"
      value: 1
    }
    eta_filler {
      type: "constant"
      value: 1
    }
  }
}
layer {
  name: "Convolution25"
  type: "Convolution"
  bottom: "Eltwise10"
  top: "Convolution25"
  convolution_param {
    num_output: 640
    bias_term: false
    pad: 1
    kernel_size: 3
    stride: 1
    weight_filler {
      type: "msra"
    }
  }
}
layer {
  name: "BatchNorm20"
  type: "BatchNorm"
  bottom: "Convolution25"
  top: "Convolution25"
  param {
    lr_mult: 0
    decay_mult: 0
  }
  param {
    lr_mult: 0
    decay_mult: 0
  }
  param {
    lr_mult: 0
    decay_mult: 0
  }
  batch_norm_param {
    use_global_stats: false
  }
}
layer {
  name: "Scale20"
  type: "Scale"
  bottom: "Convolution25"
  top: "Convolution25"
  scale_param {
    bias_term: true
  }
}
layer {
  name: "penlu20"
  type: "PENLU"
  bottom: "Convolution25"
  top: "Convolution25"
  param {
    lr_mult: 2
    decay_mult: 0
  }
  param {
    lr_mult: 2
    decay_mult: 0
  }
  param {
    lr_mult: 0
    decay_mult: 0
  }
  penlu_param {
    alpha_filler {
      type: "constant"
      value: 0.25
    }
    beta_filler {
      type: "constant"
      value: 1
    }
    eta_filler {
      type: "constant"
      value: 1
    }
  }
}
layer {
  name: "Convolution26"
  type: "Convolution"
  bottom: "Convolution25"
  top: "Convolution26"
  convolution_param {
    num_output: 640
    bias_term: false
    pad: 1
    kernel_size: 3
    stride: 1
    weight_filler {
      type: "msra"
    }
  }
}
layer {
  name: "Eltwise11"
  type: "Eltwise"
  bottom: "Convolution26"
  bottom: "Eltwise10"
  top: "Eltwise11"
  eltwise_param {
    operation: SUM
  }
}
layer {
  name: "BatchNorm21"
  type: "BatchNorm"
  bottom: "Eltwise11"
  top: "Eltwise11"
  param {
    lr_mult: 0
    decay_mult: 0
  }
  param {
    lr_mult: 0
    decay_mult: 0
  }
  param {
    lr_mult: 0
    decay_mult: 0
  }
  batch_norm_param {
    use_global_stats: false
  }
}
layer {
  name: "Scale21"
  type: "Scale"
  bottom: "Eltwise11"
  top: "Eltwise11"
  scale_param {
    bias_term: true
  }
}
layer {
  name: "penlu21"
  type: "PENLU"
  bottom: "Eltwise11"
  top: "Eltwise11"
  param {
    lr_mult: 2
    decay_mult: 0
  }
  param {
    lr_mult: 2
    decay_mult: 0
  }
  param {
    lr_mult: 0
    decay_mult: 0
  }
  penlu_param {
    alpha_filler {
      type: "constant"
      value: 0.25
    }
    beta_filler {
      type: "constant"
      value: 1
    }
    eta_filler {
      type: "constant"
      value: 1
    }
  }
}
layer {
  name: "Convolution27"
  type: "Convolution"
  bottom: "Eltwise11"
  top: "Convolution27"
  convolution_param {
    num_output: 640
    bias_term: false
    pad: 1
    kernel_size: 3
    stride: 1
    weight_filler {
      type: "msra"
    }
  }
}
layer {
  name: "BatchNorm22"
  type: "BatchNorm"
  bottom: "Convolution27"
  top: "Convolution27"
  param {
    lr_mult: 0
    decay_mult: 0
  }
  param {
    lr_mult: 0
    decay_mult: 0
  }
  param {
    lr_mult: 0
    decay_mult: 0
  }
  batch_norm_param {
    use_global_stats: false
  }
}
layer {
  name: "Scale22"
  type: "Scale"
  bottom: "Convolution27"
  top: "Convolution27"
  scale_param {
    bias_term: true
  }
}
layer {
  name: "penlu22"
  type: "PENLU"
  bottom: "Convolution27"
  top: "Convolution27"
  param {
    lr_mult: 2
    decay_mult: 0
  }
  param {
    lr_mult: 2
    decay_mult: 0
  }
  param {
    lr_mult: 0
    decay_mult: 0
  }
  penlu_param {
    alpha_filler {
      type: "constant"
      value: 0.25
    }
    beta_filler {
      type: "constant"
      value: 1
    }
    eta_filler {
      type: "constant"
      value: 1
    }
  }
}
layer {
  name: "Convolution28"
  type: "Convolution"
  bottom: "Convolution27"
  top: "Convolution28"
  convolution_param {
    num_output: 640
    bias_term: false
    pad: 1
    kernel_size: 3
    stride: 1
    weight_filler {
      type: "msra"
    }
  }
}
layer {
  name: "Eltwise12"
  type: "Eltwise"
  bottom: "Convolution28"
  bottom: "Eltwise11"
  top: "Eltwise12"
  eltwise_param {
    operation: SUM
  }
}
layer {
  name: "Pooling1"
  type: "Pooling"
  bottom: "Eltwise12"
  top: "Pooling1"
  pooling_param {
    pool: AVE
    global_pooling: true
  }
}
layer {
  name: "InnerProduct1"
  type: "InnerProduct"
  bottom: "Pooling1"
  top: "InnerProduct1"
  inner_product_param {
    num_output: 100
  }
}
layer {
  name: "SoftmaxWithLoss1"
  type: "SoftmaxWithLoss"
  bottom: "InnerProduct1"
  bottom: "label"
  top: "SoftmaxWithLoss1"
}
I1017 16:08:54.124913 22869 layer_factory.hpp:77] Creating layer cifar
I1017 16:08:54.125016 22869 db_lmdb.cpp:35] Opened lmdb /home/x306/caffe/xn/PENLU/data/cifar100/cifar100_train_lmdb
I1017 16:08:54.125042 22869 net.cpp:84] Creating Layer cifar
I1017 16:08:54.125051 22869 net.cpp:380] cifar -> data
I1017 16:08:54.125072 22869 net.cpp:380] cifar -> label
I1017 16:08:54.125084 22869 data_transformer.cpp:25] Loading mean file from: /home/x306/caffe/xn/PENLU/data/cifar100/mean.binaryproto
I1017 16:08:54.126587 22869 data_layer.cpp:45] output data size: 50,3,28,28
I1017 16:08:54.127979 22869 net.cpp:122] Setting up cifar
I1017 16:08:54.127990 22869 net.cpp:129] Top shape: 50 3 28 28 (117600)
I1017 16:08:54.127995 22869 net.cpp:129] Top shape: 50 (50)
I1017 16:08:54.127996 22869 net.cpp:137] Memory required for data: 470600
I1017 16:08:54.128001 22869 layer_factory.hpp:77] Creating layer Convolution1
I1017 16:08:54.128015 22869 net.cpp:84] Creating Layer Convolution1
I1017 16:08:54.128020 22869 net.cpp:406] Convolution1 <- data
I1017 16:08:54.128026 22869 net.cpp:380] Convolution1 -> Convolution1
I1017 16:08:54.282068 22869 net.cpp:122] Setting up Convolution1
I1017 16:08:54.282093 22869 net.cpp:129] Top shape: 50 16 28 28 (627200)
I1017 16:08:54.282096 22869 net.cpp:137] Memory required for data: 2979400
I1017 16:08:54.282110 22869 layer_factory.hpp:77] Creating layer BatchNorm1
I1017 16:08:54.282132 22869 net.cpp:84] Creating Layer BatchNorm1
I1017 16:08:54.282150 22869 net.cpp:406] BatchNorm1 <- Convolution1
I1017 16:08:54.282167 22869 net.cpp:367] BatchNorm1 -> Convolution1 (in-place)
I1017 16:08:54.282305 22869 net.cpp:122] Setting up BatchNorm1
I1017 16:08:54.282311 22869 net.cpp:129] Top shape: 50 16 28 28 (627200)
I1017 16:08:54.282315 22869 net.cpp:137] Memory required for data: 5488200
I1017 16:08:54.282322 22869 layer_factory.hpp:77] Creating layer Scale1
I1017 16:08:54.282332 22869 net.cpp:84] Creating Layer Scale1
I1017 16:08:54.282347 22869 net.cpp:406] Scale1 <- Convolution1
I1017 16:08:54.282351 22869 net.cpp:367] Scale1 -> Convolution1 (in-place)
I1017 16:08:54.282393 22869 layer_factory.hpp:77] Creating layer Scale1
I1017 16:08:54.282498 22869 net.cpp:122] Setting up Scale1
I1017 16:08:54.282505 22869 net.cpp:129] Top shape: 50 16 28 28 (627200)
I1017 16:08:54.282506 22869 net.cpp:137] Memory required for data: 7997000
I1017 16:08:54.282510 22869 layer_factory.hpp:77] Creating layer penlu1
I1017 16:08:54.282517 22869 net.cpp:84] Creating Layer penlu1
I1017 16:08:54.282521 22869 net.cpp:406] penlu1 <- Convolution1
I1017 16:08:54.282536 22869 net.cpp:367] penlu1 -> Convolution1 (in-place)
I1017 16:08:54.283145 22869 net.cpp:122] Setting up penlu1
I1017 16:08:54.283164 22869 net.cpp:129] Top shape: 50 16 28 28 (627200)
I1017 16:08:54.283170 22869 net.cpp:137] Memory required for data: 10505800
I1017 16:08:54.283191 22869 layer_factory.hpp:77] Creating layer Convolution1_penlu1_0_split
I1017 16:08:54.283201 22869 net.cpp:84] Creating Layer Convolution1_penlu1_0_split
I1017 16:08:54.283206 22869 net.cpp:406] Convolution1_penlu1_0_split <- Convolution1
I1017 16:08:54.283210 22869 net.cpp:380] Convolution1_penlu1_0_split -> Convolution1_penlu1_0_split_0
I1017 16:08:54.283217 22869 net.cpp:380] Convolution1_penlu1_0_split -> Convolution1_penlu1_0_split_1
I1017 16:08:54.283268 22869 net.cpp:122] Setting up Convolution1_penlu1_0_split
I1017 16:08:54.283282 22869 net.cpp:129] Top shape: 50 16 28 28 (627200)
I1017 16:08:54.283287 22869 net.cpp:129] Top shape: 50 16 28 28 (627200)
I1017 16:08:54.283299 22869 net.cpp:137] Memory required for data: 15523400
I1017 16:08:54.283303 22869 layer_factory.hpp:77] Creating layer Convolution2
I1017 16:08:54.283323 22869 net.cpp:84] Creating Layer Convolution2
I1017 16:08:54.283325 22869 net.cpp:406] Convolution2 <- Convolution1_penlu1_0_split_0
I1017 16:08:54.283329 22869 net.cpp:380] Convolution2 -> Convolution2
I1017 16:08:54.285446 22869 net.cpp:122] Setting up Convolution2
I1017 16:08:54.285456 22869 net.cpp:129] Top shape: 50 160 28 28 (6272000)
I1017 16:08:54.285470 22869 net.cpp:137] Memory required for data: 40611400
I1017 16:08:54.285475 22869 layer_factory.hpp:77] Creating layer BatchNorm2
I1017 16:08:54.285495 22869 net.cpp:84] Creating Layer BatchNorm2
I1017 16:08:54.285500 22869 net.cpp:406] BatchNorm2 <- Convolution2
I1017 16:08:54.285516 22869 net.cpp:367] BatchNorm2 -> Convolution2 (in-place)
I1017 16:08:54.285650 22869 net.cpp:122] Setting up BatchNorm2
I1017 16:08:54.285655 22869 net.cpp:129] Top shape: 50 160 28 28 (6272000)
I1017 16:08:54.285660 22869 net.cpp:137] Memory required for data: 65699400
I1017 16:08:54.285681 22869 layer_factory.hpp:77] Creating layer Scale2
I1017 16:08:54.285688 22869 net.cpp:84] Creating Layer Scale2
I1017 16:08:54.285692 22869 net.cpp:406] Scale2 <- Convolution2
I1017 16:08:54.285697 22869 net.cpp:367] Scale2 -> Convolution2 (in-place)
I1017 16:08:54.285734 22869 layer_factory.hpp:77] Creating layer Scale2
I1017 16:08:54.285835 22869 net.cpp:122] Setting up Scale2
I1017 16:08:54.285840 22869 net.cpp:129] Top shape: 50 160 28 28 (6272000)
I1017 16:08:54.285842 22869 net.cpp:137] Memory required for data: 90787400
I1017 16:08:54.285857 22869 layer_factory.hpp:77] Creating layer penlu2
I1017 16:08:54.285864 22869 net.cpp:84] Creating Layer penlu2
I1017 16:08:54.285867 22869 net.cpp:406] penlu2 <- Convolution2
I1017 16:08:54.285871 22869 net.cpp:367] penlu2 -> Convolution2 (in-place)
I1017 16:08:54.286520 22869 net.cpp:122] Setting up penlu2
I1017 16:08:54.286530 22869 net.cpp:129] Top shape: 50 160 28 28 (6272000)
I1017 16:08:54.286533 22869 net.cpp:137] Memory required for data: 115875400
I1017 16:08:54.286541 22869 layer_factory.hpp:77] Creating layer Convolution3
I1017 16:08:54.286548 22869 net.cpp:84] Creating Layer Convolution3
I1017 16:08:54.286552 22869 net.cpp:406] Convolution3 <- Convolution2
I1017 16:08:54.286556 22869 net.cpp:380] Convolution3 -> Convolution3
I1017 16:08:54.292654 22869 net.cpp:122] Setting up Convolution3
I1017 16:08:54.292665 22869 net.cpp:129] Top shape: 50 160 28 28 (6272000)
I1017 16:08:54.292668 22869 net.cpp:137] Memory required for data: 140963400
I1017 16:08:54.292672 22869 layer_factory.hpp:77] Creating layer Convolution4
I1017 16:08:54.292680 22869 net.cpp:84] Creating Layer Convolution4
I1017 16:08:54.292683 22869 net.cpp:406] Convolution4 <- Convolution1_penlu1_0_split_1
I1017 16:08:54.292687 22869 net.cpp:380] Convolution4 -> Convolution4
I1017 16:08:54.293542 22869 net.cpp:122] Setting up Convolution4
I1017 16:08:54.293552 22869 net.cpp:129] Top shape: 50 160 28 28 (6272000)
I1017 16:08:54.293556 22869 net.cpp:137] Memory required for data: 166051400
I1017 16:08:54.293560 22869 layer_factory.hpp:77] Creating layer Eltwise1
I1017 16:08:54.293575 22869 net.cpp:84] Creating Layer Eltwise1
I1017 16:08:54.293578 22869 net.cpp:406] Eltwise1 <- Convolution3
I1017 16:08:54.293582 22869 net.cpp:406] Eltwise1 <- Convolution4
I1017 16:08:54.293586 22869 net.cpp:380] Eltwise1 -> Eltwise1
I1017 16:08:54.293608 22869 net.cpp:122] Setting up Eltwise1
I1017 16:08:54.293613 22869 net.cpp:129] Top shape: 50 160 28 28 (6272000)
I1017 16:08:54.293617 22869 net.cpp:137] Memory required for data: 191139400
I1017 16:08:54.293619 22869 layer_factory.hpp:77] Creating layer BatchNorm3
I1017 16:08:54.293624 22869 net.cpp:84] Creating Layer BatchNorm3
I1017 16:08:54.293627 22869 net.cpp:406] BatchNorm3 <- Eltwise1
I1017 16:08:54.293630 22869 net.cpp:367] BatchNorm3 -> Eltwise1 (in-place)
I1017 16:08:54.293766 22869 net.cpp:122] Setting up BatchNorm3
I1017 16:08:54.293773 22869 net.cpp:129] Top shape: 50 160 28 28 (6272000)
I1017 16:08:54.293776 22869 net.cpp:137] Memory required for data: 216227400
I1017 16:08:54.293782 22869 layer_factory.hpp:77] Creating layer Scale3
I1017 16:08:54.293788 22869 net.cpp:84] Creating Layer Scale3
I1017 16:08:54.293792 22869 net.cpp:406] Scale3 <- Eltwise1
I1017 16:08:54.293795 22869 net.cpp:367] Scale3 -> Eltwise1 (in-place)
I1017 16:08:54.293822 22869 layer_factory.hpp:77] Creating layer Scale3
I1017 16:08:54.293920 22869 net.cpp:122] Setting up Scale3
I1017 16:08:54.293933 22869 net.cpp:129] Top shape: 50 160 28 28 (6272000)
I1017 16:08:54.293938 22869 net.cpp:137] Memory required for data: 241315400
I1017 16:08:54.293946 22869 layer_factory.hpp:77] Creating layer penlu3
I1017 16:08:54.293956 22869 net.cpp:84] Creating Layer penlu3
I1017 16:08:54.293962 22869 net.cpp:406] penlu3 <- Eltwise1
I1017 16:08:54.293968 22869 net.cpp:367] penlu3 -> Eltwise1 (in-place)
I1017 16:08:54.294153 22869 net.cpp:122] Setting up penlu3
I1017 16:08:54.294160 22869 net.cpp:129] Top shape: 50 160 28 28 (6272000)
I1017 16:08:54.294163 22869 net.cpp:137] Memory required for data: 266403400
I1017 16:08:54.294180 22869 layer_factory.hpp:77] Creating layer Eltwise1_penlu3_0_split
I1017 16:08:54.294188 22869 net.cpp:84] Creating Layer Eltwise1_penlu3_0_split
I1017 16:08:54.294190 22869 net.cpp:406] Eltwise1_penlu3_0_split <- Eltwise1
I1017 16:08:54.294194 22869 net.cpp:380] Eltwise1_penlu3_0_split -> Eltwise1_penlu3_0_split_0
I1017 16:08:54.294199 22869 net.cpp:380] Eltwise1_penlu3_0_split -> Eltwise1_penlu3_0_split_1
I1017 16:08:54.294225 22869 net.cpp:122] Setting up Eltwise1_penlu3_0_split
I1017 16:08:54.294230 22869 net.cpp:129] Top shape: 50 160 28 28 (6272000)
I1017 16:08:54.294234 22869 net.cpp:129] Top shape: 50 160 28 28 (6272000)
I1017 16:08:54.294239 22869 net.cpp:137] Memory required for data: 316579400
I1017 16:08:54.294243 22869 layer_factory.hpp:77] Creating layer Convolution5
I1017 16:08:54.294251 22869 net.cpp:84] Creating Layer Convolution5
I1017 16:08:54.294256 22869 net.cpp:406] Convolution5 <- Eltwise1_penlu3_0_split_0
I1017 16:08:54.294261 22869 net.cpp:380] Convolution5 -> Convolution5
I1017 16:08:54.301036 22869 net.cpp:122] Setting up Convolution5
I1017 16:08:54.301051 22869 net.cpp:129] Top shape: 50 160 28 28 (6272000)
I1017 16:08:54.301054 22869 net.cpp:137] Memory required for data: 341667400
I1017 16:08:54.301059 22869 layer_factory.hpp:77] Creating layer BatchNorm4
I1017 16:08:54.301065 22869 net.cpp:84] Creating Layer BatchNorm4
I1017 16:08:54.301070 22869 net.cpp:406] BatchNorm4 <- Convolution5
I1017 16:08:54.301074 22869 net.cpp:367] BatchNorm4 -> Convolution5 (in-place)
I1017 16:08:54.301208 22869 net.cpp:122] Setting up BatchNorm4
I1017 16:08:54.301213 22869 net.cpp:129] Top shape: 50 160 28 28 (6272000)
I1017 16:08:54.301215 22869 net.cpp:137] Memory required for data: 366755400
I1017 16:08:54.301225 22869 layer_factory.hpp:77] Creating layer Scale4
I1017 16:08:54.301235 22869 net.cpp:84] Creating Layer Scale4
I1017 16:08:54.301239 22869 net.cpp:406] Scale4 <- Convolution5
I1017 16:08:54.301242 22869 net.cpp:367] Scale4 -> Convolution5 (in-place)
I1017 16:08:54.301270 22869 layer_factory.hpp:77] Creating layer Scale4
I1017 16:08:54.301354 22869 net.cpp:122] Setting up Scale4
I1017 16:08:54.301360 22869 net.cpp:129] Top shape: 50 160 28 28 (6272000)
I1017 16:08:54.301363 22869 net.cpp:137] Memory required for data: 391843400
I1017 16:08:54.301367 22869 layer_factory.hpp:77] Creating layer penlu4
I1017 16:08:54.301374 22869 net.cpp:84] Creating Layer penlu4
I1017 16:08:54.301378 22869 net.cpp:406] penlu4 <- Convolution5
I1017 16:08:54.301381 22869 net.cpp:367] penlu4 -> Convolution5 (in-place)
I1017 16:08:54.301553 22869 net.cpp:122] Setting up penlu4
I1017 16:08:54.301558 22869 net.cpp:129] Top shape: 50 160 28 28 (6272000)
I1017 16:08:54.301560 22869 net.cpp:137] Memory required for data: 416931400
I1017 16:08:54.301565 22869 layer_factory.hpp:77] Creating layer Convolution6
I1017 16:08:54.301573 22869 net.cpp:84] Creating Layer Convolution6
I1017 16:08:54.301576 22869 net.cpp:406] Convolution6 <- Convolution5
I1017 16:08:54.301580 22869 net.cpp:380] Convolution6 -> Convolution6
I1017 16:08:54.308284 22869 net.cpp:122] Setting up Convolution6
I1017 16:08:54.308295 22869 net.cpp:129] Top shape: 50 160 28 28 (6272000)
I1017 16:08:54.308298 22869 net.cpp:137] Memory required for data: 442019400
I1017 16:08:54.308302 22869 layer_factory.hpp:77] Creating layer Eltwise2
I1017 16:08:54.308308 22869 net.cpp:84] Creating Layer Eltwise2
I1017 16:08:54.308313 22869 net.cpp:406] Eltwise2 <- Convolution6
I1017 16:08:54.308316 22869 net.cpp:406] Eltwise2 <- Eltwise1_penlu3_0_split_1
I1017 16:08:54.308320 22869 net.cpp:380] Eltwise2 -> Eltwise2
I1017 16:08:54.308341 22869 net.cpp:122] Setting up Eltwise2
I1017 16:08:54.308346 22869 net.cpp:129] Top shape: 50 160 28 28 (6272000)
I1017 16:08:54.308348 22869 net.cpp:137] Memory required for data: 467107400
I1017 16:08:54.308351 22869 layer_factory.hpp:77] Creating layer BatchNorm5
I1017 16:08:54.308356 22869 net.cpp:84] Creating Layer BatchNorm5
I1017 16:08:54.308358 22869 net.cpp:406] BatchNorm5 <- Eltwise2
I1017 16:08:54.308362 22869 net.cpp:367] BatchNorm5 -> Eltwise2 (in-place)
I1017 16:08:54.308492 22869 net.cpp:122] Setting up BatchNorm5
I1017 16:08:54.308497 22869 net.cpp:129] Top shape: 50 160 28 28 (6272000)
I1017 16:08:54.308501 22869 net.cpp:137] Memory required for data: 492195400
I1017 16:08:54.308506 22869 layer_factory.hpp:77] Creating layer Scale5
I1017 16:08:54.308511 22869 net.cpp:84] Creating Layer Scale5
I1017 16:08:54.308516 22869 net.cpp:406] Scale5 <- Eltwise2
I1017 16:08:54.308518 22869 net.cpp:367] Scale5 -> Eltwise2 (in-place)
I1017 16:08:54.308547 22869 layer_factory.hpp:77] Creating layer Scale5
I1017 16:08:54.308626 22869 net.cpp:122] Setting up Scale5
I1017 16:08:54.308631 22869 net.cpp:129] Top shape: 50 160 28 28 (6272000)
I1017 16:08:54.308634 22869 net.cpp:137] Memory required for data: 517283400
I1017 16:08:54.308639 22869 layer_factory.hpp:77] Creating layer penlu5
I1017 16:08:54.308645 22869 net.cpp:84] Creating Layer penlu5
I1017 16:08:54.308648 22869 net.cpp:406] penlu5 <- Eltwise2
I1017 16:08:54.308652 22869 net.cpp:367] penlu5 -> Eltwise2 (in-place)
I1017 16:08:54.308820 22869 net.cpp:122] Setting up penlu5
I1017 16:08:54.308825 22869 net.cpp:129] Top shape: 50 160 28 28 (6272000)
I1017 16:08:54.308827 22869 net.cpp:137] Memory required for data: 542371400
I1017 16:08:54.308832 22869 layer_factory.hpp:77] Creating layer Eltwise2_penlu5_0_split
I1017 16:08:54.308837 22869 net.cpp:84] Creating Layer Eltwise2_penlu5_0_split
I1017 16:08:54.308840 22869 net.cpp:406] Eltwise2_penlu5_0_split <- Eltwise2
I1017 16:08:54.308843 22869 net.cpp:380] Eltwise2_penlu5_0_split -> Eltwise2_penlu5_0_split_0
I1017 16:08:54.308848 22869 net.cpp:380] Eltwise2_penlu5_0_split -> Eltwise2_penlu5_0_split_1
I1017 16:08:54.308871 22869 net.cpp:122] Setting up Eltwise2_penlu5_0_split
I1017 16:08:54.308876 22869 net.cpp:129] Top shape: 50 160 28 28 (6272000)
I1017 16:08:54.308881 22869 net.cpp:129] Top shape: 50 160 28 28 (6272000)
I1017 16:08:54.308882 22869 net.cpp:137] Memory required for data: 592547400
I1017 16:08:54.308884 22869 layer_factory.hpp:77] Creating layer Convolution7
I1017 16:08:54.308899 22869 net.cpp:84] Creating Layer Convolution7
I1017 16:08:54.308903 22869 net.cpp:406] Convolution7 <- Eltwise2_penlu5_0_split_0
I1017 16:08:54.308907 22869 net.cpp:380] Convolution7 -> Convolution7
I1017 16:08:54.315542 22869 net.cpp:122] Setting up Convolution7
I1017 16:08:54.315557 22869 net.cpp:129] Top shape: 50 160 28 28 (6272000)
I1017 16:08:54.315559 22869 net.cpp:137] Memory required for data: 617635400
I1017 16:08:54.315564 22869 layer_factory.hpp:77] Creating layer BatchNorm6
I1017 16:08:54.315582 22869 net.cpp:84] Creating Layer BatchNorm6
I1017 16:08:54.315585 22869 net.cpp:406] BatchNorm6 <- Convolution7
I1017 16:08:54.315589 22869 net.cpp:367] BatchNorm6 -> Convolution7 (in-place)
I1017 16:08:54.315744 22869 net.cpp:122] Setting up BatchNorm6
I1017 16:08:54.315750 22869 net.cpp:129] Top shape: 50 160 28 28 (6272000)
I1017 16:08:54.315753 22869 net.cpp:137] Memory required for data: 642723400
I1017 16:08:54.315769 22869 layer_factory.hpp:77] Creating layer Scale6
I1017 16:08:54.315774 22869 net.cpp:84] Creating Layer Scale6
I1017 16:08:54.315778 22869 net.cpp:406] Scale6 <- Convolution7
I1017 16:08:54.315781 22869 net.cpp:367] Scale6 -> Convolution7 (in-place)
I1017 16:08:54.315820 22869 layer_factory.hpp:77] Creating layer Scale6
I1017 16:08:54.315903 22869 net.cpp:122] Setting up Scale6
I1017 16:08:54.315909 22869 net.cpp:129] Top shape: 50 160 28 28 (6272000)
I1017 16:08:54.315912 22869 net.cpp:137] Memory required for data: 667811400
I1017 16:08:54.315915 22869 layer_factory.hpp:77] Creating layer penlu6
I1017 16:08:54.315922 22869 net.cpp:84] Creating Layer penlu6
I1017 16:08:54.315925 22869 net.cpp:406] penlu6 <- Convolution7
I1017 16:08:54.315929 22869 net.cpp:367] penlu6 -> Convolution7 (in-place)
I1017 16:08:54.316117 22869 net.cpp:122] Setting up penlu6
I1017 16:08:54.316123 22869 net.cpp:129] Top shape: 50 160 28 28 (6272000)
I1017 16:08:54.316124 22869 net.cpp:137] Memory required for data: 692899400
I1017 16:08:54.316129 22869 layer_factory.hpp:77] Creating layer Convolution8
I1017 16:08:54.316138 22869 net.cpp:84] Creating Layer Convolution8
I1017 16:08:54.316140 22869 net.cpp:406] Convolution8 <- Convolution7
I1017 16:08:54.316144 22869 net.cpp:380] Convolution8 -> Convolution8
I1017 16:08:54.322892 22869 net.cpp:122] Setting up Convolution8
I1017 16:08:54.322903 22869 net.cpp:129] Top shape: 50 160 28 28 (6272000)
I1017 16:08:54.322906 22869 net.cpp:137] Memory required for data: 717987400
I1017 16:08:54.322911 22869 layer_factory.hpp:77] Creating layer Eltwise3
I1017 16:08:54.322921 22869 net.cpp:84] Creating Layer Eltwise3
I1017 16:08:54.322924 22869 net.cpp:406] Eltwise3 <- Convolution8
I1017 16:08:54.322928 22869 net.cpp:406] Eltwise3 <- Eltwise2_penlu5_0_split_1
I1017 16:08:54.322932 22869 net.cpp:380] Eltwise3 -> Eltwise3
I1017 16:08:54.322952 22869 net.cpp:122] Setting up Eltwise3
I1017 16:08:54.322957 22869 net.cpp:129] Top shape: 50 160 28 28 (6272000)
I1017 16:08:54.322960 22869 net.cpp:137] Memory required for data: 743075400
I1017 16:08:54.322962 22869 layer_factory.hpp:77] Creating layer BatchNorm7
I1017 16:08:54.322966 22869 net.cpp:84] Creating Layer BatchNorm7
I1017 16:08:54.322970 22869 net.cpp:406] BatchNorm7 <- Eltwise3
I1017 16:08:54.322973 22869 net.cpp:367] BatchNorm7 -> Eltwise3 (in-place)
I1017 16:08:54.323107 22869 net.cpp:122] Setting up BatchNorm7
I1017 16:08:54.323113 22869 net.cpp:129] Top shape: 50 160 28 28 (6272000)
I1017 16:08:54.323117 22869 net.cpp:137] Memory required for data: 768163400
I1017 16:08:54.323122 22869 layer_factory.hpp:77] Creating layer Scale7
I1017 16:08:54.323127 22869 net.cpp:84] Creating Layer Scale7
I1017 16:08:54.323128 22869 net.cpp:406] Scale7 <- Eltwise3
I1017 16:08:54.323132 22869 net.cpp:367] Scale7 -> Eltwise3 (in-place)
I1017 16:08:54.323159 22869 layer_factory.hpp:77] Creating layer Scale7
I1017 16:08:54.323240 22869 net.cpp:122] Setting up Scale7
I1017 16:08:54.323245 22869 net.cpp:129] Top shape: 50 160 28 28 (6272000)
I1017 16:08:54.323247 22869 net.cpp:137] Memory required for data: 793251400
I1017 16:08:54.323261 22869 layer_factory.hpp:77] Creating layer penlu7
I1017 16:08:54.323268 22869 net.cpp:84] Creating Layer penlu7
I1017 16:08:54.323272 22869 net.cpp:406] penlu7 <- Eltwise3
I1017 16:08:54.323276 22869 net.cpp:367] penlu7 -> Eltwise3 (in-place)
I1017 16:08:54.323437 22869 net.cpp:122] Setting up penlu7
I1017 16:08:54.323443 22869 net.cpp:129] Top shape: 50 160 28 28 (6272000)
I1017 16:08:54.323446 22869 net.cpp:137] Memory required for data: 818339400
I1017 16:08:54.323458 22869 layer_factory.hpp:77] Creating layer Eltwise3_penlu7_0_split
I1017 16:08:54.323463 22869 net.cpp:84] Creating Layer Eltwise3_penlu7_0_split
I1017 16:08:54.323467 22869 net.cpp:406] Eltwise3_penlu7_0_split <- Eltwise3
I1017 16:08:54.323470 22869 net.cpp:380] Eltwise3_penlu7_0_split -> Eltwise3_penlu7_0_split_0
I1017 16:08:54.323475 22869 net.cpp:380] Eltwise3_penlu7_0_split -> Eltwise3_penlu7_0_split_1
I1017 16:08:54.323500 22869 net.cpp:122] Setting up Eltwise3_penlu7_0_split
I1017 16:08:54.323505 22869 net.cpp:129] Top shape: 50 160 28 28 (6272000)
I1017 16:08:54.323509 22869 net.cpp:129] Top shape: 50 160 28 28 (6272000)
I1017 16:08:54.323511 22869 net.cpp:137] Memory required for data: 868515400
I1017 16:08:54.323514 22869 layer_factory.hpp:77] Creating layer Convolution9
I1017 16:08:54.323520 22869 net.cpp:84] Creating Layer Convolution9
I1017 16:08:54.323523 22869 net.cpp:406] Convolution9 <- Eltwise3_penlu7_0_split_0
I1017 16:08:54.323527 22869 net.cpp:380] Convolution9 -> Convolution9
I1017 16:08:54.330247 22869 net.cpp:122] Setting up Convolution9
I1017 16:08:54.330258 22869 net.cpp:129] Top shape: 50 160 28 28 (6272000)
I1017 16:08:54.330261 22869 net.cpp:137] Memory required for data: 893603400
I1017 16:08:54.330266 22869 layer_factory.hpp:77] Creating layer BatchNorm8
I1017 16:08:54.330272 22869 net.cpp:84] Creating Layer BatchNorm8
I1017 16:08:54.330276 22869 net.cpp:406] BatchNorm8 <- Convolution9
I1017 16:08:54.330281 22869 net.cpp:367] BatchNorm8 -> Convolution9 (in-place)
I1017 16:08:54.330420 22869 net.cpp:122] Setting up BatchNorm8
I1017 16:08:54.330425 22869 net.cpp:129] Top shape: 50 160 28 28 (6272000)
I1017 16:08:54.330428 22869 net.cpp:137] Memory required for data: 918691400
I1017 16:08:54.330433 22869 layer_factory.hpp:77] Creating layer Scale8
I1017 16:08:54.330440 22869 net.cpp:84] Creating Layer Scale8
I1017 16:08:54.330443 22869 net.cpp:406] Scale8 <- Convolution9
I1017 16:08:54.330446 22869 net.cpp:367] Scale8 -> Convolution9 (in-place)
I1017 16:08:54.330473 22869 layer_factory.hpp:77] Creating layer Scale8
I1017 16:08:54.330554 22869 net.cpp:122] Setting up Scale8
I1017 16:08:54.330559 22869 net.cpp:129] Top shape: 50 160 28 28 (6272000)
I1017 16:08:54.330562 22869 net.cpp:137] Memory required for data: 943779400
I1017 16:08:54.330566 22869 layer_factory.hpp:77] Creating layer penlu8
I1017 16:08:54.330574 22869 net.cpp:84] Creating Layer penlu8
I1017 16:08:54.330577 22869 net.cpp:406] penlu8 <- Convolution9
I1017 16:08:54.330580 22869 net.cpp:367] penlu8 -> Convolution9 (in-place)
I1017 16:08:54.330739 22869 net.cpp:122] Setting up penlu8
I1017 16:08:54.330745 22869 net.cpp:129] Top shape: 50 160 28 28 (6272000)
I1017 16:08:54.330749 22869 net.cpp:137] Memory required for data: 968867400
I1017 16:08:54.330752 22869 layer_factory.hpp:77] Creating layer Convolution10
I1017 16:08:54.330760 22869 net.cpp:84] Creating Layer Convolution10
I1017 16:08:54.330763 22869 net.cpp:406] Convolution10 <- Convolution9
I1017 16:08:54.330767 22869 net.cpp:380] Convolution10 -> Convolution10
I1017 16:08:54.337472 22869 net.cpp:122] Setting up Convolution10
I1017 16:08:54.337484 22869 net.cpp:129] Top shape: 50 160 28 28 (6272000)
I1017 16:08:54.337487 22869 net.cpp:137] Memory required for data: 993955400
I1017 16:08:54.337491 22869 layer_factory.hpp:77] Creating layer Eltwise4
I1017 16:08:54.337499 22869 net.cpp:84] Creating Layer Eltwise4
I1017 16:08:54.337502 22869 net.cpp:406] Eltwise4 <- Convolution10
I1017 16:08:54.337507 22869 net.cpp:406] Eltwise4 <- Eltwise3_penlu7_0_split_1
I1017 16:08:54.337509 22869 net.cpp:380] Eltwise4 -> Eltwise4
I1017 16:08:54.337540 22869 net.cpp:122] Setting up Eltwise4
I1017 16:08:54.337546 22869 net.cpp:129] Top shape: 50 160 28 28 (6272000)
I1017 16:08:54.337548 22869 net.cpp:137] Memory required for data: 1019043400
I1017 16:08:54.337551 22869 layer_factory.hpp:77] Creating layer Eltwise4_Eltwise4_0_split
I1017 16:08:54.337554 22869 net.cpp:84] Creating Layer Eltwise4_Eltwise4_0_split
I1017 16:08:54.337558 22869 net.cpp:406] Eltwise4_Eltwise4_0_split <- Eltwise4
I1017 16:08:54.337561 22869 net.cpp:380] Eltwise4_Eltwise4_0_split -> Eltwise4_Eltwise4_0_split_0
I1017 16:08:54.337566 22869 net.cpp:380] Eltwise4_Eltwise4_0_split -> Eltwise4_Eltwise4_0_split_1
I1017 16:08:54.337591 22869 net.cpp:122] Setting up Eltwise4_Eltwise4_0_split
I1017 16:08:54.337596 22869 net.cpp:129] Top shape: 50 160 28 28 (6272000)
I1017 16:08:54.337600 22869 net.cpp:129] Top shape: 50 160 28 28 (6272000)
I1017 16:08:54.337602 22869 net.cpp:137] Memory required for data: 1069219400
I1017 16:08:54.337604 22869 layer_factory.hpp:77] Creating layer Convolution11
I1017 16:08:54.337610 22869 net.cpp:84] Creating Layer Convolution11
I1017 16:08:54.337613 22869 net.cpp:406] Convolution11 <- Eltwise4_Eltwise4_0_split_0
I1017 16:08:54.337618 22869 net.cpp:380] Convolution11 -> Convolution11
I1017 16:08:54.349450 22869 net.cpp:122] Setting up Convolution11
I1017 16:08:54.349475 22869 net.cpp:129] Top shape: 50 320 14 14 (3136000)
I1017 16:08:54.349478 22869 net.cpp:137] Memory required for data: 1081763400
I1017 16:08:54.349484 22869 layer_factory.hpp:77] Creating layer BatchNorm9
I1017 16:08:54.349493 22869 net.cpp:84] Creating Layer BatchNorm9
I1017 16:08:54.349496 22869 net.cpp:406] BatchNorm9 <- Convolution11
I1017 16:08:54.349501 22869 net.cpp:367] BatchNorm9 -> Convolution11 (in-place)
I1017 16:08:54.349668 22869 net.cpp:122] Setting up BatchNorm9
I1017 16:08:54.349673 22869 net.cpp:129] Top shape: 50 320 14 14 (3136000)
I1017 16:08:54.349685 22869 net.cpp:137] Memory required for data: 1094307400
I1017 16:08:54.349691 22869 layer_factory.hpp:77] Creating layer Scale9
I1017 16:08:54.349697 22869 net.cpp:84] Creating Layer Scale9
I1017 16:08:54.349699 22869 net.cpp:406] Scale9 <- Convolution11
I1017 16:08:54.349704 22869 net.cpp:367] Scale9 -> Convolution11 (in-place)
I1017 16:08:54.349735 22869 layer_factory.hpp:77] Creating layer Scale9
I1017 16:08:54.349818 22869 net.cpp:122] Setting up Scale9
I1017 16:08:54.349823 22869 net.cpp:129] Top shape: 50 320 14 14 (3136000)
I1017 16:08:54.349825 22869 net.cpp:137] Memory required for data: 1106851400
I1017 16:08:54.349829 22869 layer_factory.hpp:77] Creating layer penlu9
I1017 16:08:54.349838 22869 net.cpp:84] Creating Layer penlu9
I1017 16:08:54.349841 22869 net.cpp:406] penlu9 <- Convolution11
I1017 16:08:54.349844 22869 net.cpp:367] penlu9 -> Convolution11 (in-place)
I1017 16:08:54.350023 22869 net.cpp:122] Setting up penlu9
I1017 16:08:54.350028 22869 net.cpp:129] Top shape: 50 320 14 14 (3136000)
I1017 16:08:54.350031 22869 net.cpp:137] Memory required for data: 1119395400
I1017 16:08:54.350036 22869 layer_factory.hpp:77] Creating layer Convolution12
I1017 16:08:54.350044 22869 net.cpp:84] Creating Layer Convolution12
I1017 16:08:54.350047 22869 net.cpp:406] Convolution12 <- Convolution11
I1017 16:08:54.350051 22869 net.cpp:380] Convolution12 -> Convolution12
I1017 16:08:54.372599 22869 net.cpp:122] Setting up Convolution12
I1017 16:08:54.372617 22869 net.cpp:129] Top shape: 50 320 14 14 (3136000)
I1017 16:08:54.372622 22869 net.cpp:137] Memory required for data: 1131939400
I1017 16:08:54.372628 22869 layer_factory.hpp:77] Creating layer Convolution13
I1017 16:08:54.372639 22869 net.cpp:84] Creating Layer Convolution13
I1017 16:08:54.372644 22869 net.cpp:406] Convolution13 <- Eltwise4_Eltwise4_0_split_1
I1017 16:08:54.372650 22869 net.cpp:380] Convolution13 -> Convolution13
I1017 16:08:54.374826 22869 net.cpp:122] Setting up Convolution13
I1017 16:08:54.374838 22869 net.cpp:129] Top shape: 50 320 14 14 (3136000)
I1017 16:08:54.374841 22869 net.cpp:137] Memory required for data: 1144483400
I1017 16:08:54.374866 22869 layer_factory.hpp:77] Creating layer Eltwise5
I1017 16:08:54.374871 22869 net.cpp:84] Creating Layer Eltwise5
I1017 16:08:54.374876 22869 net.cpp:406] Eltwise5 <- Convolution12
I1017 16:08:54.374878 22869 net.cpp:406] Eltwise5 <- Convolution13
I1017 16:08:54.374882 22869 net.cpp:380] Eltwise5 -> Eltwise5
I1017 16:08:54.374905 22869 net.cpp:122] Setting up Eltwise5
I1017 16:08:54.374910 22869 net.cpp:129] Top shape: 50 320 14 14 (3136000)
I1017 16:08:54.374913 22869 net.cpp:137] Memory required for data: 1157027400
I1017 16:08:54.374925 22869 layer_factory.hpp:77] Creating layer BatchNorm10
I1017 16:08:54.374930 22869 net.cpp:84] Creating Layer BatchNorm10
I1017 16:08:54.374943 22869 net.cpp:406] BatchNorm10 <- Eltwise5
I1017 16:08:54.374948 22869 net.cpp:367] BatchNorm10 -> Eltwise5 (in-place)
I1017 16:08:54.375108 22869 net.cpp:122] Setting up BatchNorm10
I1017 16:08:54.375113 22869 net.cpp:129] Top shape: 50 320 14 14 (3136000)
I1017 16:08:54.375116 22869 net.cpp:137] Memory required for data: 1169571400
I1017 16:08:54.375133 22869 layer_factory.hpp:77] Creating layer Scale10
I1017 16:08:54.375138 22869 net.cpp:84] Creating Layer Scale10
I1017 16:08:54.375141 22869 net.cpp:406] Scale10 <- Eltwise5
I1017 16:08:54.375144 22869 net.cpp:367] Scale10 -> Eltwise5 (in-place)
I1017 16:08:54.375190 22869 layer_factory.hpp:77] Creating layer Scale10
I1017 16:08:54.375291 22869 net.cpp:122] Setting up Scale10
I1017 16:08:54.375298 22869 net.cpp:129] Top shape: 50 320 14 14 (3136000)
I1017 16:08:54.375300 22869 net.cpp:137] Memory required for data: 1182115400
I1017 16:08:54.375314 22869 layer_factory.hpp:77] Creating layer penlu10
I1017 16:08:54.375321 22869 net.cpp:84] Creating Layer penlu10
I1017 16:08:54.375324 22869 net.cpp:406] penlu10 <- Eltwise5
I1017 16:08:54.375329 22869 net.cpp:367] penlu10 -> Eltwise5 (in-place)
I1017 16:08:54.375489 22869 net.cpp:122] Setting up penlu10
I1017 16:08:54.375495 22869 net.cpp:129] Top shape: 50 320 14 14 (3136000)
I1017 16:08:54.375497 22869 net.cpp:137] Memory required for data: 1194659400
I1017 16:08:54.375512 22869 layer_factory.hpp:77] Creating layer Eltwise5_penlu10_0_split
I1017 16:08:54.375517 22869 net.cpp:84] Creating Layer Eltwise5_penlu10_0_split
I1017 16:08:54.375520 22869 net.cpp:406] Eltwise5_penlu10_0_split <- Eltwise5
I1017 16:08:54.375524 22869 net.cpp:380] Eltwise5_penlu10_0_split -> Eltwise5_penlu10_0_split_0
I1017 16:08:54.375532 22869 net.cpp:380] Eltwise5_penlu10_0_split -> Eltwise5_penlu10_0_split_1
I1017 16:08:54.375573 22869 net.cpp:122] Setting up Eltwise5_penlu10_0_split
I1017 16:08:54.375578 22869 net.cpp:129] Top shape: 50 320 14 14 (3136000)
I1017 16:08:54.375584 22869 net.cpp:129] Top shape: 50 320 14 14 (3136000)
I1017 16:08:54.375599 22869 net.cpp:137] Memory required for data: 1219747400
I1017 16:08:54.375604 22869 layer_factory.hpp:77] Creating layer Convolution14
I1017 16:08:54.375612 22869 net.cpp:84] Creating Layer Convolution14
I1017 16:08:54.375617 22869 net.cpp:406] Convolution14 <- Eltwise5_penlu10_0_split_0
I1017 16:08:54.375622 22869 net.cpp:380] Convolution14 -> Convolution14
I1017 16:08:54.397931 22869 net.cpp:122] Setting up Convolution14
I1017 16:08:54.397948 22869 net.cpp:129] Top shape: 50 320 14 14 (3136000)
I1017 16:08:54.397950 22869 net.cpp:137] Memory required for data: 1232291400
I1017 16:08:54.397964 22869 layer_factory.hpp:77] Creating layer BatchNorm11
I1017 16:08:54.397982 22869 net.cpp:84] Creating Layer BatchNorm11
I1017 16:08:54.397986 22869 net.cpp:406] BatchNorm11 <- Convolution14
I1017 16:08:54.397991 22869 net.cpp:367] BatchNorm11 -> Convolution14 (in-place)
I1017 16:08:54.398155 22869 net.cpp:122] Setting up BatchNorm11
I1017 16:08:54.398160 22869 net.cpp:129] Top shape: 50 320 14 14 (3136000)
I1017 16:08:54.398164 22869 net.cpp:137] Memory required for data: 1244835400
I1017 16:08:54.398169 22869 layer_factory.hpp:77] Creating layer Scale11
I1017 16:08:54.398175 22869 net.cpp:84] Creating Layer Scale11
I1017 16:08:54.398177 22869 net.cpp:406] Scale11 <- Convolution14
I1017 16:08:54.398190 22869 net.cpp:367] Scale11 -> Convolution14 (in-place)
I1017 16:08:54.398224 22869 layer_factory.hpp:77] Creating layer Scale11
I1017 16:08:54.398308 22869 net.cpp:122] Setting up Scale11
I1017 16:08:54.398313 22869 net.cpp:129] Top shape: 50 320 14 14 (3136000)
I1017 16:08:54.398316 22869 net.cpp:137] Memory required for data: 1257379400
I1017 16:08:54.398320 22869 layer_factory.hpp:77] Creating layer penlu11
I1017 16:08:54.398327 22869 net.cpp:84] Creating Layer penlu11
I1017 16:08:54.398330 22869 net.cpp:406] penlu11 <- Convolution14
I1017 16:08:54.398334 22869 net.cpp:367] penlu11 -> Convolution14 (in-place)
I1017 16:08:54.398486 22869 net.cpp:122] Setting up penlu11
I1017 16:08:54.398492 22869 net.cpp:129] Top shape: 50 320 14 14 (3136000)
I1017 16:08:54.398494 22869 net.cpp:137] Memory required for data: 1269923400
I1017 16:08:54.398499 22869 layer_factory.hpp:77] Creating layer Convolution15
I1017 16:08:54.398506 22869 net.cpp:84] Creating Layer Convolution15
I1017 16:08:54.398510 22869 net.cpp:406] Convolution15 <- Convolution14
I1017 16:08:54.398514 22869 net.cpp:380] Convolution15 -> Convolution15
I1017 16:08:54.420783 22869 net.cpp:122] Setting up Convolution15
I1017 16:08:54.420801 22869 net.cpp:129] Top shape: 50 320 14 14 (3136000)
I1017 16:08:54.420804 22869 net.cpp:137] Memory required for data: 1282467400
I1017 16:08:54.420810 22869 layer_factory.hpp:77] Creating layer Eltwise6
I1017 16:08:54.420819 22869 net.cpp:84] Creating Layer Eltwise6
I1017 16:08:54.420833 22869 net.cpp:406] Eltwise6 <- Convolution15
I1017 16:08:54.420838 22869 net.cpp:406] Eltwise6 <- Eltwise5_penlu10_0_split_1
I1017 16:08:54.420843 22869 net.cpp:380] Eltwise6 -> Eltwise6
I1017 16:08:54.420868 22869 net.cpp:122] Setting up Eltwise6
I1017 16:08:54.420873 22869 net.cpp:129] Top shape: 50 320 14 14 (3136000)
I1017 16:08:54.420876 22869 net.cpp:137] Memory required for data: 1295011400
I1017 16:08:54.420887 22869 layer_factory.hpp:77] Creating layer BatchNorm12
I1017 16:08:54.420892 22869 net.cpp:84] Creating Layer BatchNorm12
I1017 16:08:54.420907 22869 net.cpp:406] BatchNorm12 <- Eltwise6
I1017 16:08:54.420909 22869 net.cpp:367] BatchNorm12 -> Eltwise6 (in-place)
I1017 16:08:54.421072 22869 net.cpp:122] Setting up BatchNorm12
I1017 16:08:54.421077 22869 net.cpp:129] Top shape: 50 320 14 14 (3136000)
I1017 16:08:54.421080 22869 net.cpp:137] Memory required for data: 1307555400
I1017 16:08:54.421095 22869 layer_factory.hpp:77] Creating layer Scale12
I1017 16:08:54.421102 22869 net.cpp:84] Creating Layer Scale12
I1017 16:08:54.421104 22869 net.cpp:406] Scale12 <- Eltwise6
I1017 16:08:54.421108 22869 net.cpp:367] Scale12 -> Eltwise6 (in-place)
I1017 16:08:54.421157 22869 layer_factory.hpp:77] Creating layer Scale12
I1017 16:08:54.421264 22869 net.cpp:122] Setting up Scale12
I1017 16:08:54.421272 22869 net.cpp:129] Top shape: 50 320 14 14 (3136000)
I1017 16:08:54.421275 22869 net.cpp:137] Memory required for data: 1320099400
I1017 16:08:54.421293 22869 layer_factory.hpp:77] Creating layer penlu12
I1017 16:08:54.421303 22869 net.cpp:84] Creating Layer penlu12
I1017 16:08:54.421308 22869 net.cpp:406] penlu12 <- Eltwise6
I1017 16:08:54.421315 22869 net.cpp:367] penlu12 -> Eltwise6 (in-place)
I1017 16:08:54.421473 22869 net.cpp:122] Setting up penlu12
I1017 16:08:54.421479 22869 net.cpp:129] Top shape: 50 320 14 14 (3136000)
I1017 16:08:54.421484 22869 net.cpp:137] Memory required for data: 1332643400
I1017 16:08:54.421494 22869 layer_factory.hpp:77] Creating layer Eltwise6_penlu12_0_split
I1017 16:08:54.421506 22869 net.cpp:84] Creating Layer Eltwise6_penlu12_0_split
I1017 16:08:54.421510 22869 net.cpp:406] Eltwise6_penlu12_0_split <- Eltwise6
I1017 16:08:54.421515 22869 net.cpp:380] Eltwise6_penlu12_0_split -> Eltwise6_penlu12_0_split_0
I1017 16:08:54.421521 22869 net.cpp:380] Eltwise6_penlu12_0_split -> Eltwise6_penlu12_0_split_1
I1017 16:08:54.421548 22869 net.cpp:122] Setting up Eltwise6_penlu12_0_split
I1017 16:08:54.421555 22869 net.cpp:129] Top shape: 50 320 14 14 (3136000)
I1017 16:08:54.421558 22869 net.cpp:129] Top shape: 50 320 14 14 (3136000)
I1017 16:08:54.421569 22869 net.cpp:137] Memory required for data: 1357731400
I1017 16:08:54.421572 22869 layer_factory.hpp:77] Creating layer Convolution16
I1017 16:08:54.421579 22869 net.cpp:84] Creating Layer Convolution16
I1017 16:08:54.421583 22869 net.cpp:406] Convolution16 <- Eltwise6_penlu12_0_split_0
I1017 16:08:54.421587 22869 net.cpp:380] Convolution16 -> Convolution16
I1017 16:08:54.443929 22869 net.cpp:122] Setting up Convolution16
I1017 16:08:54.443948 22869 net.cpp:129] Top shape: 50 320 14 14 (3136000)
I1017 16:08:54.443950 22869 net.cpp:137] Memory required for data: 1370275400
I1017 16:08:54.443956 22869 layer_factory.hpp:77] Creating layer BatchNorm13
I1017 16:08:54.443965 22869 net.cpp:84] Creating Layer BatchNorm13
I1017 16:08:54.443969 22869 net.cpp:406] BatchNorm13 <- Convolution16
I1017 16:08:54.443984 22869 net.cpp:367] BatchNorm13 -> Convolution16 (in-place)
I1017 16:08:54.444151 22869 net.cpp:122] Setting up BatchNorm13
I1017 16:08:54.444157 22869 net.cpp:129] Top shape: 50 320 14 14 (3136000)
I1017 16:08:54.444159 22869 net.cpp:137] Memory required for data: 1382819400
I1017 16:08:54.444165 22869 layer_factory.hpp:77] Creating layer Scale13
I1017 16:08:54.444170 22869 net.cpp:84] Creating Layer Scale13
I1017 16:08:54.444173 22869 net.cpp:406] Scale13 <- Convolution16
I1017 16:08:54.444176 22869 net.cpp:367] Scale13 -> Convolution16 (in-place)
I1017 16:08:54.444221 22869 layer_factory.hpp:77] Creating layer Scale13
I1017 16:08:54.444334 22869 net.cpp:122] Setting up Scale13
I1017 16:08:54.444339 22869 net.cpp:129] Top shape: 50 320 14 14 (3136000)
I1017 16:08:54.444340 22869 net.cpp:137] Memory required for data: 1395363400
I1017 16:08:54.444344 22869 layer_factory.hpp:77] Creating layer penlu13
I1017 16:08:54.444362 22869 net.cpp:84] Creating Layer penlu13
I1017 16:08:54.444365 22869 net.cpp:406] penlu13 <- Convolution16
I1017 16:08:54.444370 22869 net.cpp:367] penlu13 -> Convolution16 (in-place)
I1017 16:08:54.444531 22869 net.cpp:122] Setting up penlu13
I1017 16:08:54.444537 22869 net.cpp:129] Top shape: 50 320 14 14 (3136000)
I1017 16:08:54.444540 22869 net.cpp:137] Memory required for data: 1407907400
I1017 16:08:54.444553 22869 layer_factory.hpp:77] Creating layer Convolution17
I1017 16:08:54.444562 22869 net.cpp:84] Creating Layer Convolution17
I1017 16:08:54.444566 22869 net.cpp:406] Convolution17 <- Convolution16
I1017 16:08:54.444569 22869 net.cpp:380] Convolution17 -> Convolution17
I1017 16:08:54.466464 22869 net.cpp:122] Setting up Convolution17
I1017 16:08:54.466480 22869 net.cpp:129] Top shape: 50 320 14 14 (3136000)
I1017 16:08:54.466482 22869 net.cpp:137] Memory required for data: 1420451400
I1017 16:08:54.466488 22869 layer_factory.hpp:77] Creating layer Eltwise7
I1017 16:08:54.466497 22869 net.cpp:84] Creating Layer Eltwise7
I1017 16:08:54.466511 22869 net.cpp:406] Eltwise7 <- Convolution17
I1017 16:08:54.466516 22869 net.cpp:406] Eltwise7 <- Eltwise6_penlu12_0_split_1
I1017 16:08:54.466521 22869 net.cpp:380] Eltwise7 -> Eltwise7
I1017 16:08:54.466578 22869 net.cpp:122] Setting up Eltwise7
I1017 16:08:54.466583 22869 net.cpp:129] Top shape: 50 320 14 14 (3136000)
I1017 16:08:54.466596 22869 net.cpp:137] Memory required for data: 1432995400
I1017 16:08:54.466598 22869 layer_factory.hpp:77] Creating layer BatchNorm14
I1017 16:08:54.466603 22869 net.cpp:84] Creating Layer BatchNorm14
I1017 16:08:54.466614 22869 net.cpp:406] BatchNorm14 <- Eltwise7
I1017 16:08:54.466619 22869 net.cpp:367] BatchNorm14 -> Eltwise7 (in-place)
I1017 16:08:54.466792 22869 net.cpp:122] Setting up BatchNorm14
I1017 16:08:54.466797 22869 net.cpp:129] Top shape: 50 320 14 14 (3136000)
I1017 16:08:54.466799 22869 net.cpp:137] Memory required for data: 1445539400
I1017 16:08:54.466804 22869 layer_factory.hpp:77] Creating layer Scale14
I1017 16:08:54.466809 22869 net.cpp:84] Creating Layer Scale14
I1017 16:08:54.466812 22869 net.cpp:406] Scale14 <- Eltwise7
I1017 16:08:54.466826 22869 net.cpp:367] Scale14 -> Eltwise7 (in-place)
I1017 16:08:54.466859 22869 layer_factory.hpp:77] Creating layer Scale14
I1017 16:08:54.466984 22869 net.cpp:122] Setting up Scale14
I1017 16:08:54.466990 22869 net.cpp:129] Top shape: 50 320 14 14 (3136000)
I1017 16:08:54.466992 22869 net.cpp:137] Memory required for data: 1458083400
I1017 16:08:54.467006 22869 layer_factory.hpp:77] Creating layer penlu14
I1017 16:08:54.467015 22869 net.cpp:84] Creating Layer penlu14
I1017 16:08:54.467017 22869 net.cpp:406] penlu14 <- Eltwise7
I1017 16:08:54.467021 22869 net.cpp:367] penlu14 -> Eltwise7 (in-place)
I1017 16:08:54.467187 22869 net.cpp:122] Setting up penlu14
I1017 16:08:54.467193 22869 net.cpp:129] Top shape: 50 320 14 14 (3136000)
I1017 16:08:54.467196 22869 net.cpp:137] Memory required for data: 1470627400
I1017 16:08:54.467221 22869 layer_factory.hpp:77] Creating layer Eltwise7_penlu14_0_split
I1017 16:08:54.467227 22869 net.cpp:84] Creating Layer Eltwise7_penlu14_0_split
I1017 16:08:54.467231 22869 net.cpp:406] Eltwise7_penlu14_0_split <- Eltwise7
I1017 16:08:54.467234 22869 net.cpp:380] Eltwise7_penlu14_0_split -> Eltwise7_penlu14_0_split_0
I1017 16:08:54.467239 22869 net.cpp:380] Eltwise7_penlu14_0_split -> Eltwise7_penlu14_0_split_1
I1017 16:08:54.467291 22869 net.cpp:122] Setting up Eltwise7_penlu14_0_split
I1017 16:08:54.467305 22869 net.cpp:129] Top shape: 50 320 14 14 (3136000)
I1017 16:08:54.467309 22869 net.cpp:129] Top shape: 50 320 14 14 (3136000)
I1017 16:08:54.467322 22869 net.cpp:137] Memory required for data: 1495715400
I1017 16:08:54.467324 22869 layer_factory.hpp:77] Creating layer Convolution18
I1017 16:08:54.467340 22869 net.cpp:84] Creating Layer Convolution18
I1017 16:08:54.467344 22869 net.cpp:406] Convolution18 <- Eltwise7_penlu14_0_split_0
I1017 16:08:54.467348 22869 net.cpp:380] Convolution18 -> Convolution18
I1017 16:08:54.489150 22869 net.cpp:122] Setting up Convolution18
I1017 16:08:54.489163 22869 net.cpp:129] Top shape: 50 320 14 14 (3136000)
I1017 16:08:54.489166 22869 net.cpp:137] Memory required for data: 1508259400
I1017 16:08:54.489181 22869 layer_factory.hpp:77] Creating layer BatchNorm15
I1017 16:08:54.489200 22869 net.cpp:84] Creating Layer BatchNorm15
I1017 16:08:54.489205 22869 net.cpp:406] BatchNorm15 <- Convolution18
I1017 16:08:54.489210 22869 net.cpp:367] BatchNorm15 -> Convolution18 (in-place)
I1017 16:08:54.489384 22869 net.cpp:122] Setting up BatchNorm15
I1017 16:08:54.489390 22869 net.cpp:129] Top shape: 50 320 14 14 (3136000)
I1017 16:08:54.489403 22869 net.cpp:137] Memory required for data: 1520803400
I1017 16:08:54.489408 22869 layer_factory.hpp:77] Creating layer Scale15
I1017 16:08:54.489413 22869 net.cpp:84] Creating Layer Scale15
I1017 16:08:54.489416 22869 net.cpp:406] Scale15 <- Convolution18
I1017 16:08:54.489429 22869 net.cpp:367] Scale15 -> Convolution18 (in-place)
I1017 16:08:54.489483 22869 layer_factory.hpp:77] Creating layer Scale15
I1017 16:08:54.489589 22869 net.cpp:122] Setting up Scale15
I1017 16:08:54.489595 22869 net.cpp:129] Top shape: 50 320 14 14 (3136000)
I1017 16:08:54.489608 22869 net.cpp:137] Memory required for data: 1533347400
I1017 16:08:54.489611 22869 layer_factory.hpp:77] Creating layer penlu15
I1017 16:08:54.489617 22869 net.cpp:84] Creating Layer penlu15
I1017 16:08:54.489620 22869 net.cpp:406] penlu15 <- Convolution18
I1017 16:08:54.489624 22869 net.cpp:367] penlu15 -> Convolution18 (in-place)
I1017 16:08:54.489789 22869 net.cpp:122] Setting up penlu15
I1017 16:08:54.489795 22869 net.cpp:129] Top shape: 50 320 14 14 (3136000)
I1017 16:08:54.489807 22869 net.cpp:137] Memory required for data: 1545891400
I1017 16:08:54.489812 22869 layer_factory.hpp:77] Creating layer Convolution19
I1017 16:08:54.489820 22869 net.cpp:84] Creating Layer Convolution19
I1017 16:08:54.489822 22869 net.cpp:406] Convolution19 <- Convolution18
I1017 16:08:54.489827 22869 net.cpp:380] Convolution19 -> Convolution19
I1017 16:08:54.512054 22869 net.cpp:122] Setting up Convolution19
I1017 16:08:54.512073 22869 net.cpp:129] Top shape: 50 320 14 14 (3136000)
I1017 16:08:54.512076 22869 net.cpp:137] Memory required for data: 1558435400
I1017 16:08:54.512081 22869 layer_factory.hpp:77] Creating layer Eltwise8
I1017 16:08:54.512115 22869 net.cpp:84] Creating Layer Eltwise8
I1017 16:08:54.512131 22869 net.cpp:406] Eltwise8 <- Convolution19
I1017 16:08:54.512145 22869 net.cpp:406] Eltwise8 <- Eltwise7_penlu14_0_split_1
I1017 16:08:54.512150 22869 net.cpp:380] Eltwise8 -> Eltwise8
I1017 16:08:54.512194 22869 net.cpp:122] Setting up Eltwise8
I1017 16:08:54.512208 22869 net.cpp:129] Top shape: 50 320 14 14 (3136000)
I1017 16:08:54.512210 22869 net.cpp:137] Memory required for data: 1570979400
I1017 16:08:54.512212 22869 layer_factory.hpp:77] Creating layer Eltwise8_Eltwise8_0_split
I1017 16:08:54.512228 22869 net.cpp:84] Creating Layer Eltwise8_Eltwise8_0_split
I1017 16:08:54.512229 22869 net.cpp:406] Eltwise8_Eltwise8_0_split <- Eltwise8
I1017 16:08:54.512233 22869 net.cpp:380] Eltwise8_Eltwise8_0_split -> Eltwise8_Eltwise8_0_split_0
I1017 16:08:54.512246 22869 net.cpp:380] Eltwise8_Eltwise8_0_split -> Eltwise8_Eltwise8_0_split_1
I1017 16:08:54.512305 22869 net.cpp:122] Setting up Eltwise8_Eltwise8_0_split
I1017 16:08:54.512310 22869 net.cpp:129] Top shape: 50 320 14 14 (3136000)
I1017 16:08:54.512313 22869 net.cpp:129] Top shape: 50 320 14 14 (3136000)
I1017 16:08:54.512326 22869 net.cpp:137] Memory required for data: 1596067400
I1017 16:08:54.512327 22869 layer_factory.hpp:77] Creating layer Convolution20
I1017 16:08:54.512334 22869 net.cpp:84] Creating Layer Convolution20
I1017 16:08:54.512349 22869 net.cpp:406] Convolution20 <- Eltwise8_Eltwise8_0_split_0
I1017 16:08:54.512354 22869 net.cpp:380] Convolution20 -> Convolution20
I1017 16:08:54.554544 22869 net.cpp:122] Setting up Convolution20
I1017 16:08:54.554566 22869 net.cpp:129] Top shape: 50 640 7 7 (1568000)
I1017 16:08:54.554569 22869 net.cpp:137] Memory required for data: 1602339400
I1017 16:08:54.554575 22869 layer_factory.hpp:77] Creating layer BatchNorm16
I1017 16:08:54.554586 22869 net.cpp:84] Creating Layer BatchNorm16
I1017 16:08:54.554601 22869 net.cpp:406] BatchNorm16 <- Convolution20
I1017 16:08:54.554606 22869 net.cpp:367] BatchNorm16 -> Convolution20 (in-place)
I1017 16:08:54.554798 22869 net.cpp:122] Setting up BatchNorm16
I1017 16:08:54.554805 22869 net.cpp:129] Top shape: 50 640 7 7 (1568000)
I1017 16:08:54.554806 22869 net.cpp:137] Memory required for data: 1608611400
I1017 16:08:54.554811 22869 layer_factory.hpp:77] Creating layer Scale16
I1017 16:08:54.554816 22869 net.cpp:84] Creating Layer Scale16
I1017 16:08:54.554819 22869 net.cpp:406] Scale16 <- Convolution20
I1017 16:08:54.554822 22869 net.cpp:367] Scale16 -> Convolution20 (in-place)
I1017 16:08:54.554884 22869 layer_factory.hpp:77] Creating layer Scale16
I1017 16:08:54.555014 22869 net.cpp:122] Setting up Scale16
I1017 16:08:54.555019 22869 net.cpp:129] Top shape: 50 640 7 7 (1568000)
I1017 16:08:54.555022 22869 net.cpp:137] Memory required for data: 1614883400
I1017 16:08:54.555025 22869 layer_factory.hpp:77] Creating layer penlu16
I1017 16:08:54.555032 22869 net.cpp:84] Creating Layer penlu16
I1017 16:08:54.555035 22869 net.cpp:406] penlu16 <- Convolution20
I1017 16:08:54.555049 22869 net.cpp:367] penlu16 -> Convolution20 (in-place)
I1017 16:08:54.555717 22869 net.cpp:122] Setting up penlu16
I1017 16:08:54.555727 22869 net.cpp:129] Top shape: 50 640 7 7 (1568000)
I1017 16:08:54.555729 22869 net.cpp:137] Memory required for data: 1621155400
I1017 16:08:54.555734 22869 layer_factory.hpp:77] Creating layer Convolution21
I1017 16:08:54.555743 22869 net.cpp:84] Creating Layer Convolution21
I1017 16:08:54.555755 22869 net.cpp:406] Convolution21 <- Convolution20
I1017 16:08:54.555760 22869 net.cpp:380] Convolution21 -> Convolution21
I1017 16:08:54.639389 22869 net.cpp:122] Setting up Convolution21
I1017 16:08:54.639412 22869 net.cpp:129] Top shape: 50 640 7 7 (1568000)
I1017 16:08:54.639415 22869 net.cpp:137] Memory required for data: 1627427400
I1017 16:08:54.639421 22869 layer_factory.hpp:77] Creating layer Convolution22
I1017 16:08:54.639442 22869 net.cpp:84] Creating Layer Convolution22
I1017 16:08:54.639447 22869 net.cpp:406] Convolution22 <- Eltwise8_Eltwise8_0_split_1
I1017 16:08:54.639477 22869 net.cpp:380] Convolution22 -> Convolution22
I1017 16:08:54.644781 22869 net.cpp:122] Setting up Convolution22
I1017 16:08:54.644793 22869 net.cpp:129] Top shape: 50 640 7 7 (1568000)
I1017 16:08:54.644795 22869 net.cpp:137] Memory required for data: 1633699400
I1017 16:08:54.644798 22869 layer_factory.hpp:77] Creating layer Eltwise9
I1017 16:08:54.644804 22869 net.cpp:84] Creating Layer Eltwise9
I1017 16:08:54.644806 22869 net.cpp:406] Eltwise9 <- Convolution21
I1017 16:08:54.644810 22869 net.cpp:406] Eltwise9 <- Convolution22
I1017 16:08:54.644824 22869 net.cpp:380] Eltwise9 -> Eltwise9
I1017 16:08:54.644866 22869 net.cpp:122] Setting up Eltwise9
I1017 16:08:54.644871 22869 net.cpp:129] Top shape: 50 640 7 7 (1568000)
I1017 16:08:54.644873 22869 net.cpp:137] Memory required for data: 1639971400
I1017 16:08:54.644886 22869 layer_factory.hpp:77] Creating layer BatchNorm17
I1017 16:08:54.644891 22869 net.cpp:84] Creating Layer BatchNorm17
I1017 16:08:54.644893 22869 net.cpp:406] BatchNorm17 <- Eltwise9
I1017 16:08:54.644907 22869 net.cpp:367] BatchNorm17 -> Eltwise9 (in-place)
I1017 16:08:54.645086 22869 net.cpp:122] Setting up BatchNorm17
I1017 16:08:54.645092 22869 net.cpp:129] Top shape: 50 640 7 7 (1568000)
I1017 16:08:54.645093 22869 net.cpp:137] Memory required for data: 1646243400
I1017 16:08:54.645098 22869 layer_factory.hpp:77] Creating layer Scale17
I1017 16:08:54.645103 22869 net.cpp:84] Creating Layer Scale17
I1017 16:08:54.645107 22869 net.cpp:406] Scale17 <- Eltwise9
I1017 16:08:54.645109 22869 net.cpp:367] Scale17 -> Eltwise9 (in-place)
I1017 16:08:54.645174 22869 layer_factory.hpp:77] Creating layer Scale17
I1017 16:08:54.645323 22869 net.cpp:122] Setting up Scale17
I1017 16:08:54.645328 22869 net.cpp:129] Top shape: 50 640 7 7 (1568000)
I1017 16:08:54.645330 22869 net.cpp:137] Memory required for data: 1652515400
I1017 16:08:54.645334 22869 layer_factory.hpp:77] Creating layer penlu17
I1017 16:08:54.645341 22869 net.cpp:84] Creating Layer penlu17
I1017 16:08:54.645344 22869 net.cpp:406] penlu17 <- Eltwise9
I1017 16:08:54.645347 22869 net.cpp:367] penlu17 -> Eltwise9 (in-place)
I1017 16:08:54.645508 22869 net.cpp:122] Setting up penlu17
I1017 16:08:54.645514 22869 net.cpp:129] Top shape: 50 640 7 7 (1568000)
I1017 16:08:54.645515 22869 net.cpp:137] Memory required for data: 1658787400
I1017 16:08:54.645520 22869 layer_factory.hpp:77] Creating layer Eltwise9_penlu17_0_split
I1017 16:08:54.645524 22869 net.cpp:84] Creating Layer Eltwise9_penlu17_0_split
I1017 16:08:54.645526 22869 net.cpp:406] Eltwise9_penlu17_0_split <- Eltwise9
I1017 16:08:54.645529 22869 net.cpp:380] Eltwise9_penlu17_0_split -> Eltwise9_penlu17_0_split_0
I1017 16:08:54.645545 22869 net.cpp:380] Eltwise9_penlu17_0_split -> Eltwise9_penlu17_0_split_1
I1017 16:08:54.645601 22869 net.cpp:122] Setting up Eltwise9_penlu17_0_split
I1017 16:08:54.645606 22869 net.cpp:129] Top shape: 50 640 7 7 (1568000)
I1017 16:08:54.645609 22869 net.cpp:129] Top shape: 50 640 7 7 (1568000)
I1017 16:08:54.645611 22869 net.cpp:137] Memory required for data: 1671331400
I1017 16:08:54.645613 22869 layer_factory.hpp:77] Creating layer Convolution23
I1017 16:08:54.645618 22869 net.cpp:84] Creating Layer Convolution23
I1017 16:08:54.645622 22869 net.cpp:406] Convolution23 <- Eltwise9_penlu17_0_split_0
I1017 16:08:54.645625 22869 net.cpp:380] Convolution23 -> Convolution23
I1017 16:08:54.729122 22869 net.cpp:122] Setting up Convolution23
I1017 16:08:54.729154 22869 net.cpp:129] Top shape: 50 640 7 7 (1568000)
I1017 16:08:54.729157 22869 net.cpp:137] Memory required for data: 1677603400
I1017 16:08:54.729164 22869 layer_factory.hpp:77] Creating layer BatchNorm18
I1017 16:08:54.729176 22869 net.cpp:84] Creating Layer BatchNorm18
I1017 16:08:54.729189 22869 net.cpp:406] BatchNorm18 <- Convolution23
I1017 16:08:54.729197 22869 net.cpp:367] BatchNorm18 -> Convolution23 (in-place)
I1017 16:08:54.729374 22869 net.cpp:122] Setting up BatchNorm18
I1017 16:08:54.729379 22869 net.cpp:129] Top shape: 50 640 7 7 (1568000)
I1017 16:08:54.729391 22869 net.cpp:137] Memory required for data: 1683875400
I1017 16:08:54.729418 22869 layer_factory.hpp:77] Creating layer Scale18
I1017 16:08:54.729424 22869 net.cpp:84] Creating Layer Scale18
I1017 16:08:54.729429 22869 net.cpp:406] Scale18 <- Convolution23
I1017 16:08:54.729431 22869 net.cpp:367] Scale18 -> Convolution23 (in-place)
I1017 16:08:54.729486 22869 layer_factory.hpp:77] Creating layer Scale18
I1017 16:08:54.729615 22869 net.cpp:122] Setting up Scale18
I1017 16:08:54.729620 22869 net.cpp:129] Top shape: 50 640 7 7 (1568000)
I1017 16:08:54.729634 22869 net.cpp:137] Memory required for data: 1690147400
I1017 16:08:54.729637 22869 layer_factory.hpp:77] Creating layer penlu18
I1017 16:08:54.729645 22869 net.cpp:84] Creating Layer penlu18
I1017 16:08:54.729657 22869 net.cpp:406] penlu18 <- Convolution23
I1017 16:08:54.729660 22869 net.cpp:367] penlu18 -> Convolution23 (in-place)
I1017 16:08:54.729812 22869 net.cpp:122] Setting up penlu18
I1017 16:08:54.729817 22869 net.cpp:129] Top shape: 50 640 7 7 (1568000)
I1017 16:08:54.729830 22869 net.cpp:137] Memory required for data: 1696419400
I1017 16:08:54.729835 22869 layer_factory.hpp:77] Creating layer Convolution24
I1017 16:08:54.729841 22869 net.cpp:84] Creating Layer Convolution24
I1017 16:08:54.729854 22869 net.cpp:406] Convolution24 <- Convolution23
I1017 16:08:54.729859 22869 net.cpp:380] Convolution24 -> Convolution24
I1017 16:08:54.813330 22869 net.cpp:122] Setting up Convolution24
I1017 16:08:54.813366 22869 net.cpp:129] Top shape: 50 640 7 7 (1568000)
I1017 16:08:54.813369 22869 net.cpp:137] Memory required for data: 1702691400
I1017 16:08:54.813377 22869 layer_factory.hpp:77] Creating layer Eltwise10
I1017 16:08:54.813386 22869 net.cpp:84] Creating Layer Eltwise10
I1017 16:08:54.813401 22869 net.cpp:406] Eltwise10 <- Convolution24
I1017 16:08:54.813408 22869 net.cpp:406] Eltwise10 <- Eltwise9_penlu17_0_split_1
I1017 16:08:54.813415 22869 net.cpp:380] Eltwise10 -> Eltwise10
I1017 16:08:54.813463 22869 net.cpp:122] Setting up Eltwise10
I1017 16:08:54.813469 22869 net.cpp:129] Top shape: 50 640 7 7 (1568000)
I1017 16:08:54.813472 22869 net.cpp:137] Memory required for data: 1708963400
I1017 16:08:54.813473 22869 layer_factory.hpp:77] Creating layer BatchNorm19
I1017 16:08:54.813480 22869 net.cpp:84] Creating Layer BatchNorm19
I1017 16:08:54.813482 22869 net.cpp:406] BatchNorm19 <- Eltwise10
I1017 16:08:54.813486 22869 net.cpp:367] BatchNorm19 -> Eltwise10 (in-place)
I1017 16:08:54.813685 22869 net.cpp:122] Setting up BatchNorm19
I1017 16:08:54.813691 22869 net.cpp:129] Top shape: 50 640 7 7 (1568000)
I1017 16:08:54.813694 22869 net.cpp:137] Memory required for data: 1715235400
I1017 16:08:54.813699 22869 layer_factory.hpp:77] Creating layer Scale19
I1017 16:08:54.813705 22869 net.cpp:84] Creating Layer Scale19
I1017 16:08:54.813709 22869 net.cpp:406] Scale19 <- Eltwise10
I1017 16:08:54.813711 22869 net.cpp:367] Scale19 -> Eltwise10 (in-place)
I1017 16:08:54.813778 22869 layer_factory.hpp:77] Creating layer Scale19
I1017 16:08:54.813937 22869 net.cpp:122] Setting up Scale19
I1017 16:08:54.813943 22869 net.cpp:129] Top shape: 50 640 7 7 (1568000)
I1017 16:08:54.813956 22869 net.cpp:137] Memory required for data: 1721507400
I1017 16:08:54.813959 22869 layer_factory.hpp:77] Creating layer penlu19
I1017 16:08:54.813977 22869 net.cpp:84] Creating Layer penlu19
I1017 16:08:54.813979 22869 net.cpp:406] penlu19 <- Eltwise10
I1017 16:08:54.813994 22869 net.cpp:367] penlu19 -> Eltwise10 (in-place)
I1017 16:08:54.814185 22869 net.cpp:122] Setting up penlu19
I1017 16:08:54.814191 22869 net.cpp:129] Top shape: 50 640 7 7 (1568000)
I1017 16:08:54.814193 22869 net.cpp:137] Memory required for data: 1727779400
I1017 16:08:54.814198 22869 layer_factory.hpp:77] Creating layer Eltwise10_penlu19_0_split
I1017 16:08:54.814203 22869 net.cpp:84] Creating Layer Eltwise10_penlu19_0_split
I1017 16:08:54.814204 22869 net.cpp:406] Eltwise10_penlu19_0_split <- Eltwise10
I1017 16:08:54.814208 22869 net.cpp:380] Eltwise10_penlu19_0_split -> Eltwise10_penlu19_0_split_0
I1017 16:08:54.814222 22869 net.cpp:380] Eltwise10_penlu19_0_split -> Eltwise10_penlu19_0_split_1
I1017 16:08:54.814307 22869 net.cpp:122] Setting up Eltwise10_penlu19_0_split
I1017 16:08:54.814323 22869 net.cpp:129] Top shape: 50 640 7 7 (1568000)
I1017 16:08:54.814327 22869 net.cpp:129] Top shape: 50 640 7 7 (1568000)
I1017 16:08:54.814330 22869 net.cpp:137] Memory required for data: 1740323400
I1017 16:08:54.814342 22869 layer_factory.hpp:77] Creating layer Convolution25
I1017 16:08:54.814348 22869 net.cpp:84] Creating Layer Convolution25
I1017 16:08:54.814363 22869 net.cpp:406] Convolution25 <- Eltwise10_penlu19_0_split_0
I1017 16:08:54.814368 22869 net.cpp:380] Convolution25 -> Convolution25
I1017 16:08:54.898298 22869 net.cpp:122] Setting up Convolution25
I1017 16:08:54.898320 22869 net.cpp:129] Top shape: 50 640 7 7 (1568000)
I1017 16:08:54.898324 22869 net.cpp:137] Memory required for data: 1746595400
I1017 16:08:54.898331 22869 layer_factory.hpp:77] Creating layer BatchNorm20
I1017 16:08:54.898351 22869 net.cpp:84] Creating Layer BatchNorm20
I1017 16:08:54.898356 22869 net.cpp:406] BatchNorm20 <- Convolution25
I1017 16:08:54.898362 22869 net.cpp:367] BatchNorm20 -> Convolution25 (in-place)
I1017 16:08:54.898557 22869 net.cpp:122] Setting up BatchNorm20
I1017 16:08:54.898564 22869 net.cpp:129] Top shape: 50 640 7 7 (1568000)
I1017 16:08:54.898566 22869 net.cpp:137] Memory required for data: 1752867400
I1017 16:08:54.898571 22869 layer_factory.hpp:77] Creating layer Scale20
I1017 16:08:54.898579 22869 net.cpp:84] Creating Layer Scale20
I1017 16:08:54.898582 22869 net.cpp:406] Scale20 <- Convolution25
I1017 16:08:54.898596 22869 net.cpp:367] Scale20 -> Convolution25 (in-place)
I1017 16:08:54.898653 22869 layer_factory.hpp:77] Creating layer Scale20
I1017 16:08:54.898804 22869 net.cpp:122] Setting up Scale20
I1017 16:08:54.898810 22869 net.cpp:129] Top shape: 50 640 7 7 (1568000)
I1017 16:08:54.898813 22869 net.cpp:137] Memory required for data: 1759139400
I1017 16:08:54.898816 22869 layer_factory.hpp:77] Creating layer penlu20
I1017 16:08:54.898823 22869 net.cpp:84] Creating Layer penlu20
I1017 16:08:54.898826 22869 net.cpp:406] penlu20 <- Convolution25
I1017 16:08:54.898830 22869 net.cpp:367] penlu20 -> Convolution25 (in-place)
I1017 16:08:54.898998 22869 net.cpp:122] Setting up penlu20
I1017 16:08:54.899003 22869 net.cpp:129] Top shape: 50 640 7 7 (1568000)
I1017 16:08:54.899004 22869 net.cpp:137] Memory required for data: 1765411400
I1017 16:08:54.899009 22869 layer_factory.hpp:77] Creating layer Convolution26
I1017 16:08:54.899019 22869 net.cpp:84] Creating Layer Convolution26
I1017 16:08:54.899020 22869 net.cpp:406] Convolution26 <- Convolution25
I1017 16:08:54.899034 22869 net.cpp:380] Convolution26 -> Convolution26
I1017 16:08:54.982524 22869 net.cpp:122] Setting up Convolution26
I1017 16:08:54.982548 22869 net.cpp:129] Top shape: 50 640 7 7 (1568000)
I1017 16:08:54.982551 22869 net.cpp:137] Memory required for data: 1771683400
I1017 16:08:54.982559 22869 layer_factory.hpp:77] Creating layer Eltwise11
I1017 16:08:54.982578 22869 net.cpp:84] Creating Layer Eltwise11
I1017 16:08:54.982584 22869 net.cpp:406] Eltwise11 <- Convolution26
I1017 16:08:54.982589 22869 net.cpp:406] Eltwise11 <- Eltwise10_penlu19_0_split_1
I1017 16:08:54.982605 22869 net.cpp:380] Eltwise11 -> Eltwise11
I1017 16:08:54.982656 22869 net.cpp:122] Setting up Eltwise11
I1017 16:08:54.982661 22869 net.cpp:129] Top shape: 50 640 7 7 (1568000)
I1017 16:08:54.982673 22869 net.cpp:137] Memory required for data: 1777955400
I1017 16:08:54.982676 22869 layer_factory.hpp:77] Creating layer BatchNorm21
I1017 16:08:54.982682 22869 net.cpp:84] Creating Layer BatchNorm21
I1017 16:08:54.982693 22869 net.cpp:406] BatchNorm21 <- Eltwise11
I1017 16:08:54.982697 22869 net.cpp:367] BatchNorm21 -> Eltwise11 (in-place)
I1017 16:08:54.982897 22869 net.cpp:122] Setting up BatchNorm21
I1017 16:08:54.982903 22869 net.cpp:129] Top shape: 50 640 7 7 (1568000)
I1017 16:08:54.982904 22869 net.cpp:137] Memory required for data: 1784227400
I1017 16:08:54.982909 22869 layer_factory.hpp:77] Creating layer Scale21
I1017 16:08:54.982936 22869 net.cpp:84] Creating Layer Scale21
I1017 16:08:54.982940 22869 net.cpp:406] Scale21 <- Eltwise11
I1017 16:08:54.982956 22869 net.cpp:367] Scale21 -> Eltwise11 (in-place)
I1017 16:08:54.983011 22869 layer_factory.hpp:77] Creating layer Scale21
I1017 16:08:54.983135 22869 net.cpp:122] Setting up Scale21
I1017 16:08:54.983141 22869 net.cpp:129] Top shape: 50 640 7 7 (1568000)
I1017 16:08:54.983144 22869 net.cpp:137] Memory required for data: 1790499400
I1017 16:08:54.983147 22869 layer_factory.hpp:77] Creating layer penlu21
I1017 16:08:54.983153 22869 net.cpp:84] Creating Layer penlu21
I1017 16:08:54.983156 22869 net.cpp:406] penlu21 <- Eltwise11
I1017 16:08:54.983160 22869 net.cpp:367] penlu21 -> Eltwise11 (in-place)
I1017 16:08:54.983330 22869 net.cpp:122] Setting up penlu21
I1017 16:08:54.983336 22869 net.cpp:129] Top shape: 50 640 7 7 (1568000)
I1017 16:08:54.983338 22869 net.cpp:137] Memory required for data: 1796771400
I1017 16:08:54.983342 22869 layer_factory.hpp:77] Creating layer Eltwise11_penlu21_0_split
I1017 16:08:54.983347 22869 net.cpp:84] Creating Layer Eltwise11_penlu21_0_split
I1017 16:08:54.983350 22869 net.cpp:406] Eltwise11_penlu21_0_split <- Eltwise11
I1017 16:08:54.983353 22869 net.cpp:380] Eltwise11_penlu21_0_split -> Eltwise11_penlu21_0_split_0
I1017 16:08:54.983368 22869 net.cpp:380] Eltwise11_penlu21_0_split -> Eltwise11_penlu21_0_split_1
I1017 16:08:54.983417 22869 net.cpp:122] Setting up Eltwise11_penlu21_0_split
I1017 16:08:54.983422 22869 net.cpp:129] Top shape: 50 640 7 7 (1568000)
I1017 16:08:54.983438 22869 net.cpp:129] Top shape: 50 640 7 7 (1568000)
I1017 16:08:54.983439 22869 net.cpp:137] Memory required for data: 1809315400
I1017 16:08:54.983443 22869 layer_factory.hpp:77] Creating layer Convolution27
I1017 16:08:54.983460 22869 net.cpp:84] Creating Layer Convolution27
I1017 16:08:54.983474 22869 net.cpp:406] Convolution27 <- Eltwise11_penlu21_0_split_0
I1017 16:08:54.983479 22869 net.cpp:380] Convolution27 -> Convolution27
I1017 16:08:55.066604 22869 net.cpp:122] Setting up Convolution27
I1017 16:08:55.066639 22869 net.cpp:129] Top shape: 50 640 7 7 (1568000)
I1017 16:08:55.066644 22869 net.cpp:137] Memory required for data: 1815587400
I1017 16:08:55.066651 22869 layer_factory.hpp:77] Creating layer BatchNorm22
I1017 16:08:55.066670 22869 net.cpp:84] Creating Layer BatchNorm22
I1017 16:08:55.066675 22869 net.cpp:406] BatchNorm22 <- Convolution27
I1017 16:08:55.066682 22869 net.cpp:367] BatchNorm22 -> Convolution27 (in-place)
I1017 16:08:55.066884 22869 net.cpp:122] Setting up BatchNorm22
I1017 16:08:55.066891 22869 net.cpp:129] Top shape: 50 640 7 7 (1568000)
I1017 16:08:55.066903 22869 net.cpp:137] Memory required for data: 1821859400
I1017 16:08:55.066910 22869 layer_factory.hpp:77] Creating layer Scale22
I1017 16:08:55.066915 22869 net.cpp:84] Creating Layer Scale22
I1017 16:08:55.066928 22869 net.cpp:406] Scale22 <- Convolution27
I1017 16:08:55.066931 22869 net.cpp:367] Scale22 -> Convolution27 (in-place)
I1017 16:08:55.066985 22869 layer_factory.hpp:77] Creating layer Scale22
I1017 16:08:55.067117 22869 net.cpp:122] Setting up Scale22
I1017 16:08:55.067122 22869 net.cpp:129] Top shape: 50 640 7 7 (1568000)
I1017 16:08:55.067134 22869 net.cpp:137] Memory required for data: 1828131400
I1017 16:08:55.067139 22869 layer_factory.hpp:77] Creating layer penlu22
I1017 16:08:55.067145 22869 net.cpp:84] Creating Layer penlu22
I1017 16:08:55.067148 22869 net.cpp:406] penlu22 <- Convolution27
I1017 16:08:55.067162 22869 net.cpp:367] penlu22 -> Convolution27 (in-place)
I1017 16:08:55.067317 22869 net.cpp:122] Setting up penlu22
I1017 16:08:55.067323 22869 net.cpp:129] Top shape: 50 640 7 7 (1568000)
I1017 16:08:55.067335 22869 net.cpp:137] Memory required for data: 1834403400
I1017 16:08:55.067340 22869 layer_factory.hpp:77] Creating layer Convolution28
I1017 16:08:55.067348 22869 net.cpp:84] Creating Layer Convolution28
I1017 16:08:55.067359 22869 net.cpp:406] Convolution28 <- Convolution27
I1017 16:08:55.067366 22869 net.cpp:380] Convolution28 -> Convolution28
I1017 16:08:55.151000 22869 net.cpp:122] Setting up Convolution28
I1017 16:08:55.151022 22869 net.cpp:129] Top shape: 50 640 7 7 (1568000)
I1017 16:08:55.151026 22869 net.cpp:137] Memory required for data: 1840675400
I1017 16:08:55.151032 22869 layer_factory.hpp:77] Creating layer Eltwise12
I1017 16:08:55.151041 22869 net.cpp:84] Creating Layer Eltwise12
I1017 16:08:55.151057 22869 net.cpp:406] Eltwise12 <- Convolution28
I1017 16:08:55.151062 22869 net.cpp:406] Eltwise12 <- Eltwise11_penlu21_0_split_1
I1017 16:08:55.151077 22869 net.cpp:380] Eltwise12 -> Eltwise12
I1017 16:08:55.151129 22869 net.cpp:122] Setting up Eltwise12
I1017 16:08:55.151134 22869 net.cpp:129] Top shape: 50 640 7 7 (1568000)
I1017 16:08:55.151149 22869 net.cpp:137] Memory required for data: 1846947400
I1017 16:08:55.151152 22869 layer_factory.hpp:77] Creating layer Pooling1
I1017 16:08:55.151157 22869 net.cpp:84] Creating Layer Pooling1
I1017 16:08:55.151168 22869 net.cpp:406] Pooling1 <- Eltwise12
I1017 16:08:55.151173 22869 net.cpp:380] Pooling1 -> Pooling1
I1017 16:08:55.151760 22869 net.cpp:122] Setting up Pooling1
I1017 16:08:55.151770 22869 net.cpp:129] Top shape: 50 640 1 1 (32000)
I1017 16:08:55.151772 22869 net.cpp:137] Memory required for data: 1847075400
I1017 16:08:55.151775 22869 layer_factory.hpp:77] Creating layer InnerProduct1
I1017 16:08:55.151787 22869 net.cpp:84] Creating Layer InnerProduct1
I1017 16:08:55.151800 22869 net.cpp:406] InnerProduct1 <- Pooling1
I1017 16:08:55.151808 22869 net.cpp:380] InnerProduct1 -> InnerProduct1
I1017 16:08:55.151994 22869 net.cpp:122] Setting up InnerProduct1
I1017 16:08:55.151999 22869 net.cpp:129] Top shape: 50 100 (5000)
I1017 16:08:55.152003 22869 net.cpp:137] Memory required for data: 1847095400
I1017 16:08:55.152006 22869 layer_factory.hpp:77] Creating layer SoftmaxWithLoss1
I1017 16:08:55.152012 22869 net.cpp:84] Creating Layer SoftmaxWithLoss1
I1017 16:08:55.152015 22869 net.cpp:406] SoftmaxWithLoss1 <- InnerProduct1
I1017 16:08:55.152019 22869 net.cpp:406] SoftmaxWithLoss1 <- label
I1017 16:08:55.152031 22869 net.cpp:380] SoftmaxWithLoss1 -> SoftmaxWithLoss1
…
I1017 16:08:55.154783 22869 net.cpp:294] The NetState phase (1) differed from the phase (0) specified by a rule in layer cifar
I1017 16:08:55.155282 22869 net.cpp:51] Initializing net from parameters: 
name: "wrn_28_10"
state {
  phase: TEST
}
layer {
  name: "cifar"
  type: "Data"
  top: "data"
  top: "label"
  include {
    phase: TEST
  }
  transform_param {
    mirror: false
    crop_size: 28
    mean_file: "/home/x306/caffe/xn/PENLU/data/cifar100/mean.binaryproto"
  }
  data_param {
    source: "/home/x306/caffe/xn/PENLU/data/cifar100/cifar100_test_lmdb"
    batch_size: 50
    backend: LMDB
  }
}
layer {
  name: "Convolution1"
  type: "Convolution"
  bottom: "data"
  top: "Convolution1"
  convolution_param {
    num_output: 16
    pad: 1
    kernel_size: 3
    stride: 1
    weight_filler {
      type: "msra"
    }
  }
}
layer {
  name: "BatchNorm1"
  type: "BatchNorm"
  bottom: "Convolution1"
  top: "Convolution1"
  param {
    lr_mult: 0
    decay_mult: 0
  }
  param {
    lr_mult: 0
    decay_mult: 0
  }
  param {
    lr_mult: 0
    decay_mult: 0
  }
  batch_norm_param {
    use_global_stats: false
  }
}
layer {
  name: "Scale1"
  type: "Scale"
  bottom: "Convolution1"
  top: "Convolution1"
  scale_param {
    bias_term: true
  }
}
layer {
  name: "penlu1"
  type: "PENLU"
  bottom: "Convolution1"
  top: "Convolution1"
  param {
    lr_mult: 2
    decay_mult: 0
  }
  param {
    lr_mult: 2
    decay_mult: 0
  }
  param {
    lr_mult: 0
    decay_mult: 0
  }
  penlu_param {
    alpha_filler {
      type: "constant"
      value: 0.25
    }
    beta_filler {
      type: "constant"
      value: 1
    }
    eta_filler {
      type: "constant"
      value: 1
    }
  }
}
layer {
  name: "Convolution2"
  type: "Convolution"
  bottom: "Convolution1"
  top: "Convolution2"
  convolution_param {
    num_output: 160
    bias_term: false
    pad: 1
    kernel_size: 3
    stride: 1
    weight_filler {
      type: "msra"
    }
  }
}
layer {
  name: "BatchNorm2"
  type: "BatchNorm"
  bottom: "Convolution2"
  top: "Convolution2"
  param {
    lr_mult: 0
    decay_mult: 0
  }
  param {
    lr_mult: 0
    decay_mult: 0
  }
  param {
    lr_mult: 0
    decay_mult: 0
  }
  batch_norm_param {
    use_global_stats: false
  }
}
layer {
  name: "Scale2"
  type: "Scale"
  bottom: "Convolution2"
  top: "Convolution2"
  scale_param {
    bias_term: true
  }
}
layer {
  name: "penlu2"
  type: "PENLU"
  bottom: "Convolution2"
  top: "Convolution2"
  param {
    lr_mult: 2
    decay_mult: 0
  }
  param {
    lr_mult: 2
    decay_mult: 0
  }
  param {
    lr_mult: 0
    decay_mult: 0
  }
  penlu_param {
    alpha_filler {
      type: "constant"
      value: 0.25
    }
    beta_filler {
      type: "constant"
      value: 1
    }
    eta_filler {
      type: "constant"
      value: 1
    }
  }
}
layer {
  name: "Convolution3"
  type: "Convolution"
  bottom: "Convolution2"
  top: "Convolution3"
  convolution_param {
    num_output: 160
    bias_term: false
    pad: 1
    kernel_size: 3
    stride: 1
    weight_filler {
      type: "msra"
    }
  }
}
layer {
  name: "Convolution4"
  type: "Convolution"
  bottom: "Convolution1"
  top: "Convolution4"
  convolution_param {
    num_output: 160
    bias_term: false
    pad: 0
    kernel_size: 1
    stride: 1
    weight_filler {
      type: "msra"
    }
  }
}
layer {
  name: "Eltwise1"
  type: "Eltwise"
  bottom: "Convolution3"
  bottom: "Convolution4"
  top: "Eltwise1"
  eltwise_param {
    operation: SUM
  }
}
layer {
  name: "BatchNorm3"
  type: "BatchNorm"
  bottom: "Eltwise1"
  top: "Eltwise1"
  param {
    lr_mult: 0
    decay_mult: 0
  }
  param {
    lr_mult: 0
    decay_mult: 0
  }
  param {
    lr_mult: 0
    decay_mult: 0
  }
  batch_norm_param {
    use_global_stats: false
  }
}
layer {
  name: "Scale3"
  type: "Scale"
  bottom: "Eltwise1"
  top: "Eltwise1"
  scale_param {
    bias_term: true
  }
}
layer {
  name: "penlu3"
  type: "PENLU"
  bottom: "Eltwise1"
  top: "Eltwise1"
  param {
    lr_mult: 2
    decay_mult: 0
  }
  param {
    lr_mult: 2
    decay_mult: 0
  }
  param {
    lr_mult: 0
    decay_mult: 0
  }
  penlu_param {
    alpha_filler {
      type: "constant"
      value: 0.25
    }
    beta_filler {
      type: "constant"
      value: 1
    }
    eta_filler {
      type: "constant"
      value: 1
    }
  }
}
layer {
  name: "Convolution5"
  type: "Convolution"
  bottom: "Eltwise1"
  top: "Convolution5"
  convolution_param {
    num_output: 160
    bias_term: false
    pad: 1
    kernel_size: 3
    stride: 1
    weight_filler {
      type: "msra"
    }
  }
}
layer {
  name: "BatchNorm4"
  type: "BatchNorm"
  bottom: "Convolution5"
  top: "Convolution5"
  param {
    lr_mult: 0
    decay_mult: 0
  }
  param {
    lr_mult: 0
    decay_mult: 0
  }
  param {
    lr_mult: 0
    decay_mult: 0
  }
  batch_norm_param {
    use_global_stats: false
  }
}
layer {
  name: "Scale4"
  type: "Scale"
  bottom: "Convolution5"
  top: "Convolution5"
  scale_param {
    bias_term: true
  }
}
layer {
  name: "penlu4"
  type: "PENLU"
  bottom: "Convolution5"
  top: "Convolution5"
  param {
    lr_mult: 2
    decay_mult: 0
  }
  param {
    lr_mult: 2
    decay_mult: 0
  }
  param {
    lr_mult: 0
    decay_mult: 0
  }
  penlu_param {
    alpha_filler {
      type: "constant"
      value: 0.25
    }
    beta_filler {
      type: "constant"
      value: 1
    }
    eta_filler {
      type: "constant"
      value: 1
    }
  }
}
layer {
  name: "Convolution6"
  type: "Convolution"
  bottom: "Convolution5"
  top: "Convolution6"
  convolution_param {
    num_output: 160
    bias_term: false
    pad: 1
    kernel_size: 3
    stride: 1
    weight_filler {
      type: "msra"
    }
  }
}
layer {
  name: "Eltwise2"
  type: "Eltwise"
  bottom: "Convolution6"
  bottom: "Eltwise1"
  top: "Eltwise2"
  eltwise_param {
    operation: SUM
  }
}
layer {
  name: "BatchNorm5"
  type: "BatchNorm"
  bottom: "Eltwise2"
  top: "Eltwise2"
  param {
    lr_mult: 0
    decay_mult: 0
  }
  param {
    lr_mult: 0
    decay_mult: 0
  }
  param {
    lr_mult: 0
    decay_mult: 0
  }
  batch_norm_param {
    use_global_stats: false
  }
}
layer {
  name: "Scale5"
  type: "Scale"
  bottom: "Eltwise2"
  top: "Eltwise2"
  scale_param {
    bias_term: true
  }
}
layer {
  name: "penlu5"
  type: "PENLU"
  bottom: "Eltwise2"
  top: "Eltwise2"
  param {
    lr_mult: 2
    decay_mult: 0
  }
  param {
    lr_mult: 2
    decay_mult: 0
  }
  param {
    lr_mult: 0
    decay_mult: 0
  }
  penlu_param {
    alpha_filler {
      type: "constant"
      value: 0.25
    }
    beta_filler {
      type: "constant"
      value: 1
    }
    eta_filler {
      type: "constant"
      value: 1
    }
  }
}
layer {
  name: "Convolution7"
  type: "Convolution"
  bottom: "Eltwise2"
  top: "Convolution7"
  convolution_param {
    num_output: 160
    bias_term: false
    pad: 1
    kernel_size: 3
    stride: 1
    weight_filler {
      type: "msra"
    }
  }
}
layer {
  name: "BatchNorm6"
  type: "BatchNorm"
  bottom: "Convolution7"
  top: "Convolution7"
  param {
    lr_mult: 0
    decay_mult: 0
  }
  param {
    lr_mult: 0
    decay_mult: 0
  }
  param {
    lr_mult: 0
    decay_mult: 0
  }
  batch_norm_param {
    use_global_stats: false
  }
}
layer {
  name: "Scale6"
  type: "Scale"
  bottom: "Convolution7"
  top: "Convolution7"
  scale_param {
    bias_term: true
  }
}
layer {
  name: "penlu6"
  type: "PENLU"
  bottom: "Convolution7"
  top: "Convolution7"
  param {
    lr_mult: 2
    decay_mult: 0
  }
  param {
    lr_mult: 2
    decay_mult: 0
  }
  param {
    lr_mult: 0
    decay_mult: 0
  }
  penlu_param {
    alpha_filler {
      type: "constant"
      value: 0.25
    }
    beta_filler {
      type: "constant"
      value: 1
    }
    eta_filler {
      type: "constant"
      value: 1
    }
  }
}
layer {
  name: "Convolution8"
  type: "Convolution"
  bottom: "Convolution7"
  top: "Convolution8"
  convolution_param {
    num_output: 160
    bias_term: false
    pad: 1
    kernel_size: 3
    stride: 1
    weight_filler {
      type: "msra"
    }
  }
}
layer {
  name: "Eltwise3"
  type: "Eltwise"
  bottom: "Convolution8"
  bottom: "Eltwise2"
  top: "Eltwise3"
  eltwise_param {
    operation: SUM
  }
}
layer {
  name: "BatchNorm7"
  type: "BatchNorm"
  bottom: "Eltwise3"
  top: "Eltwise3"
  param {
    lr_mult: 0
    decay_mult: 0
  }
  param {
    lr_mult: 0
    decay_mult: 0
  }
  param {
    lr_mult: 0
    decay_mult: 0
  }
  batch_norm_param {
    use_global_stats: false
  }
}
layer {
  name: "Scale7"
  type: "Scale"
  bottom: "Eltwise3"
  top: "Eltwise3"
  scale_param {
    bias_term: true
  }
}
layer {
  name: "penlu7"
  type: "PENLU"
  bottom: "Eltwise3"
  top: "Eltwise3"
  param {
    lr_mult: 2
    decay_mult: 0
  }
  param {
    lr_mult: 2
    decay_mult: 0
  }
  param {
    lr_mult: 0
    decay_mult: 0
  }
  penlu_param {
    alpha_filler {
      type: "constant"
      value: 0.25
    }
    beta_filler {
      type: "constant"
      value: 1
    }
    eta_filler {
      type: "constant"
      value: 1
    }
  }
}
layer {
  name: "Convolution9"
  type: "Convolution"
  bottom: "Eltwise3"
  top: "Convolution9"
  convolution_param {
    num_output: 160
    bias_term: false
    pad: 1
    kernel_size: 3
    stride: 1
    weight_filler {
      type: "msra"
    }
  }
}
layer {
  name: "BatchNorm8"
  type: "BatchNorm"
  bottom: "Convolution9"
  top: "Convolution9"
  param {
    lr_mult: 0
    decay_mult: 0
  }
  param {
    lr_mult: 0
    decay_mult: 0
  }
  param {
    lr_mult: 0
    decay_mult: 0
  }
  batch_norm_param {
    use_global_stats: false
  }
}
layer {
  name: "Scale8"
  type: "Scale"
  bottom: "Convolution9"
  top: "Convolution9"
  scale_param {
    bias_term: true
  }
}
layer {
  name: "penlu8"
  type: "PENLU"
  bottom: "Convolution9"
  top: "Convolution9"
  param {
    lr_mult: 2
    decay_mult: 0
  }
  param {
    lr_mult: 2
    decay_mult: 0
  }
  param {
    lr_mult: 0
    decay_mult: 0
  }
  penlu_param {
    alpha_filler {
      type: "constant"
      value: 0.25
    }
    beta_filler {
      type: "constant"
      value: 1
    }
    eta_filler {
      type: "constant"
      value: 1
    }
  }
}
layer {
  name: "Convolution10"
  type: "Convolution"
  bottom: "Convolution9"
  top: "Convolution10"
  convolution_param {
    num_output: 160
    bias_term: false
    pad: 1
    kernel_size: 3
    stride: 1
    weight_filler {
      type: "msra"
    }
  }
}
layer {
  name: "Eltwise4"
  type: "Eltwise"
  bottom: "Convolution10"
  bottom: "Eltwise3"
  top: "Eltwise4"
  eltwise_param {
    operation: SUM
  }
}
layer {
  name: "Convolution11"
  type: "Convolution"
  bottom: "Eltwise4"
  top: "Convolution11"
  convolution_param {
    num_output: 320
    bias_term: false
    pad: 1
    kernel_size: 3
    stride: 2
    weight_filler {
      type: "msra"
    }
  }
}
layer {
  name: "BatchNorm9"
  type: "BatchNorm"
  bottom: "Convolution11"
  top: "Convolution11"
  param {
    lr_mult: 0
    decay_mult: 0
  }
  param {
    lr_mult: 0
    decay_mult: 0
  }
  param {
    lr_mult: 0
    decay_mult: 0
  }
  batch_norm_param {
    use_global_stats: false
  }
}
layer {
  name: "Scale9"
  type: "Scale"
  bottom: "Convolution11"
  top: "Convolution11"
  scale_param {
    bias_term: true
  }
}
layer {
  name: "penlu9"
  type: "PENLU"
  bottom: "Convolution11"
  top: "Convolution11"
  param {
    lr_mult: 2
    decay_mult: 0
  }
  param {
    lr_mult: 2
    decay_mult: 0
  }
  param {
    lr_mult: 0
    decay_mult: 0
  }
  penlu_param {
    alpha_filler {
      type: "constant"
      value: 0.25
    }
    beta_filler {
      type: "constant"
      value: 1
    }
    eta_filler {
      type: "constant"
      value: 1
    }
  }
}
layer {
  name: "Convolution12"
  type: "Convolution"
  bottom: "Convolution11"
  top: "Convolution12"
  convolution_param {
    num_output: 320
    bias_term: false
    pad: 1
    kernel_size: 3
    stride: 1
    weight_filler {
      type: "msra"
    }
  }
}
layer {
  name: "Convolution13"
  type: "Convolution"
  bottom: "Eltwise4"
  top: "Convolution13"
  convolution_param {
    num_output: 320
    bias_term: false
    pad: 0
    kernel_size: 1
    stride: 2
    weight_filler {
      type: "msra"
    }
  }
}
layer {
  name: "Eltwise5"
  type: "Eltwise"
  bottom: "Convolution12"
  bottom: "Convolution13"
  top: "Eltwise5"
  eltwise_param {
    operation: SUM
  }
}
layer {
  name: "BatchNorm10"
  type: "BatchNorm"
  bottom: "Eltwise5"
  top: "Eltwise5"
  param {
    lr_mult: 0
    decay_mult: 0
  }
  param {
    lr_mult: 0
    decay_mult: 0
  }
  param {
    lr_mult: 0
    decay_mult: 0
  }
  batch_norm_param {
    use_global_stats: false
  }
}
layer {
  name: "Scale10"
  type: "Scale"
  bottom: "Eltwise5"
  top: "Eltwise5"
  scale_param {
    bias_term: true
  }
}
layer {
  name: "penlu10"
  type: "PENLU"
  bottom: "Eltwise5"
  top: "Eltwise5"
  param {
    lr_mult: 2
    decay_mult: 0
  }
  param {
    lr_mult: 2
    decay_mult: 0
  }
  param {
    lr_mult: 0
    decay_mult: 0
  }
  penlu_param {
    alpha_filler {
      type: "constant"
      value: 0.25
    }
    beta_filler {
      type: "constant"
      value: 1
    }
    eta_filler {
      type: "constant"
      value: 1
    }
  }
}
layer {
  name: "Convolution14"
  type: "Convolution"
  bottom: "Eltwise5"
  top: "Convolution14"
  convolution_param {
    num_output: 320
    bias_term: false
    pad: 1
    kernel_size: 3
    stride: 1
    weight_filler {
      type: "msra"
    }
  }
}
layer {
  name: "BatchNorm11"
  type: "BatchNorm"
  bottom: "Convolution14"
  top: "Convolution14"
  param {
    lr_mult: 0
    decay_mult: 0
  }
  param {
    lr_mult: 0
    decay_mult: 0
  }
  param {
    lr_mult: 0
    decay_mult: 0
  }
  batch_norm_param {
    use_global_stats: false
  }
}
layer {
  name: "Scale11"
  type: "Scale"
  bottom: "Convolution14"
  top: "Convolution14"
  scale_param {
    bias_term: true
  }
}
layer {
  name: "penlu11"
  type: "PENLU"
  bottom: "Convolution14"
  top: "Convolution14"
  param {
    lr_mult: 2
    decay_mult: 0
  }
  param {
    lr_mult: 2
    decay_mult: 0
  }
  param {
    lr_mult: 0
    decay_mult: 0
  }
  penlu_param {
    alpha_filler {
      type: "constant"
      value: 0.25
    }
    beta_filler {
      type: "constant"
      value: 1
    }
    eta_filler {
      type: "constant"
      value: 1
    }
  }
}
layer {
  name: "Convolution15"
  type: "Convolution"
  bottom: "Convolution14"
  top: "Convolution15"
  convolution_param {
    num_output: 320
    bias_term: false
    pad: 1
    kernel_size: 3
    stride: 1
    weight_filler {
      type: "msra"
    }
  }
}
layer {
  name: "Eltwise6"
  type: "Eltwise"
  bottom: "Convolution15"
  bottom: "Eltwise5"
  top: "Eltwise6"
  eltwise_param {
    operation: SUM
  }
}
layer {
  name: "BatchNorm12"
  type: "BatchNorm"
  bottom: "Eltwise6"
  top: "Eltwise6"
  param {
    lr_mult: 0
    decay_mult: 0
  }
  param {
    lr_mult: 0
    decay_mult: 0
  }
  param {
    lr_mult: 0
    decay_mult: 0
  }
  batch_norm_param {
    use_global_stats: false
  }
}
layer {
  name: "Scale12"
  type: "Scale"
  bottom: "Eltwise6"
  top: "Eltwise6"
  scale_param {
    bias_term: true
  }
}
layer {
  name: "penlu12"
  type: "PENLU"
  bottom: "Eltwise6"
  top: "Eltwise6"
  param {
    lr_mult: 2
    decay_mult: 0
  }
  param {
    lr_mult: 2
    decay_mult: 0
  }
  param {
    lr_mult: 0
    decay_mult: 0
  }
  penlu_param {
    alpha_filler {
      type: "constant"
      value: 0.25
    }
    beta_filler {
      type: "constant"
      value: 1
    }
    eta_filler {
      type: "constant"
      value: 1
    }
  }
}
layer {
  name: "Convolution16"
  type: "Convolution"
  bottom: "Eltwise6"
  top: "Convolution16"
  convolution_param {
    num_output: 320
    bias_term: false
    pad: 1
    kernel_size: 3
    stride: 1
    weight_filler {
      type: "msra"
    }
  }
}
layer {
  name: "BatchNorm13"
  type: "BatchNorm"
  bottom: "Convolution16"
  top: "Convolution16"
  param {
    lr_mult: 0
    decay_mult: 0
  }
  param {
    lr_mult: 0
    decay_mult: 0
  }
  param {
    lr_mult: 0
    decay_mult: 0
  }
  batch_norm_param {
    use_global_stats: false
  }
}
layer {
  name: "Scale13"
  type: "Scale"
  bottom: "Convolution16"
  top: "Convolution16"
  scale_param {
    bias_term: true
  }
}
layer {
  name: "penlu13"
  type: "PENLU"
  bottom: "Convolution16"
  top: "Convolution16"
  param {
    lr_mult: 2
    decay_mult: 0
  }
  param {
    lr_mult: 2
    decay_mult: 0
  }
  param {
    lr_mult: 0
    decay_mult: 0
  }
  penlu_param {
    alpha_filler {
      type: "constant"
      value: 0.25
    }
    beta_filler {
      type: "constant"
      value: 1
    }
    eta_filler {
      type: "constant"
      value: 1
    }
  }
}
layer {
  name: "Convolution17"
  type: "Convolution"
  bottom: "Convolution16"
  top: "Convolution17"
  convolution_param {
    num_output: 320
    bias_term: false
    pad: 1
    kernel_size: 3
    stride: 1
    weight_filler {
      type: "msra"
    }
  }
}
layer {
  name: "Eltwise7"
  type: "Eltwise"
  bottom: "Convolution17"
  bottom: "Eltwise6"
  top: "Eltwise7"
  eltwise_param {
    operation: SUM
  }
}
layer {
  name: "BatchNorm14"
  type: "BatchNorm"
  bottom: "Eltwise7"
  top: "Eltwise7"
  param {
    lr_mult: 0
    decay_mult: 0
  }
  param {
    lr_mult: 0
    decay_mult: 0
  }
  param {
    lr_mult: 0
    decay_mult: 0
  }
  batch_norm_param {
    use_global_stats: false
  }
}
layer {
  name: "Scale14"
  type: "Scale"
  bottom: "Eltwise7"
  top: "Eltwise7"
  scale_param {
    bias_term: true
  }
}
layer {
  name: "penlu14"
  type: "PENLU"
  bottom: "Eltwise7"
  top: "Eltwise7"
  param {
    lr_mult: 2
    decay_mult: 0
  }
  param {
    lr_mult: 2
    decay_mult: 0
  }
  param {
    lr_mult: 0
    decay_mult: 0
  }
  penlu_param {
    alpha_filler {
      type: "constant"
      value: 0.25
    }
    beta_filler {
      type: "constant"
      value: 1
    }
    eta_filler {
      type: "constant"
      value: 1
    }
  }
}
layer {
  name: "Convolution18"
  type: "Convolution"
  bottom: "Eltwise7"
  top: "Convolution18"
  convolution_param {
    num_output: 320
    bias_term: false
    pad: 1
    kernel_size: 3
    stride: 1
    weight_filler {
      type: "msra"
    }
  }
}
layer {
  name: "BatchNorm15"
  type: "BatchNorm"
  bottom: "Convolution18"
  top: "Convolution18"
  param {
    lr_mult: 0
    decay_mult: 0
  }
  param {
    lr_mult: 0
    decay_mult: 0
  }
  param {
    lr_mult: 0
    decay_mult: 0
  }
  batch_norm_param {
    use_global_stats: false
  }
}
layer {
  name: "Scale15"
  type: "Scale"
  bottom: "Convolution18"
  top: "Convolution18"
  scale_param {
    bias_term: true
  }
}
layer {
  name: "penlu15"
  type: "PENLU"
  bottom: "Convolution18"
  top: "Convolution18"
  param {
    lr_mult: 2
    decay_mult: 0
  }
  param {
    lr_mult: 2
    decay_mult: 0
  }
  param {
    lr_mult: 0
    decay_mult: 0
  }
  penlu_param {
    alpha_filler {
      type: "constant"
      value: 0.25
    }
    beta_filler {
      type: "constant"
      value: 1
    }
    eta_filler {
      type: "constant"
      value: 1
    }
  }
}
layer {
  name: "Convolution19"
  type: "Convolution"
  bottom: "Convolution18"
  top: "Convolution19"
  convolution_param {
    num_output: 320
    bias_term: false
    pad: 1
    kernel_size: 3
    stride: 1
    weight_filler {
      type: "msra"
    }
  }
}
layer {
  name: "Eltwise8"
  type: "Eltwise"
  bottom: "Convolution19"
  bottom: "Eltwise7"
  top: "Eltwise8"
  eltwise_param {
    operation: SUM
  }
}
layer {
  name: "Convolution20"
  type: "Convolution"
  bottom: "Eltwise8"
  top: "Convolution20"
  convolution_param {
    num_output: 640
    bias_term: false
    pad: 1
    kernel_size: 3
    stride: 2
    weight_filler {
      type: "msra"
    }
  }
}
layer {
  name: "BatchNorm16"
  type: "BatchNorm"
  bottom: "Convolution20"
  top: "Convolution20"
  param {
    lr_mult: 0
    decay_mult: 0
  }
  param {
    lr_mult: 0
    decay_mult: 0
  }
  param {
    lr_mult: 0
    decay_mult: 0
  }
  batch_norm_param {
    use_global_stats: false
  }
}
layer {
  name: "Scale16"
  type: "Scale"
  bottom: "Convolution20"
  top: "Convolution20"
  scale_param {
    bias_term: true
  }
}
layer {
  name: "penlu16"
  type: "PENLU"
  bottom: "Convolution20"
  top: "Convolution20"
  param {
    lr_mult: 2
    decay_mult: 0
  }
  param {
    lr_mult: 2
    decay_mult: 0
  }
  param {
    lr_mult: 0
    decay_mult: 0
  }
  penlu_param {
    alpha_filler {
      type: "constant"
      value: 0.25
    }
    beta_filler {
      type: "constant"
      value: 1
    }
    eta_filler {
      type: "constant"
      value: 1
    }
  }
}
layer {
  name: "Convolution21"
  type: "Convolution"
  bottom: "Convolution20"
  top: "Convolution21"
  convolution_param {
    num_output: 640
    bias_term: false
    pad: 1
    kernel_size: 3
    stride: 1
    weight_filler {
      type: "msra"
    }
  }
}
layer {
  name: "Convolution22"
  type: "Convolution"
  bottom: "Eltwise8"
  top: "Convolution22"
  convolution_param {
    num_output: 640
    bias_term: false
    pad: 0
    kernel_size: 1
    stride: 2
    weight_filler {
      type: "msra"
    }
  }
}
layer {
  name: "Eltwise9"
  type: "Eltwise"
  bottom: "Convolution21"
  bottom: "Convolution22"
  top: "Eltwise9"
  eltwise_param {
    operation: SUM
  }
}
layer {
  name: "BatchNorm17"
  type: "BatchNorm"
  bottom: "Eltwise9"
  top: "Eltwise9"
  param {
    lr_mult: 0
    decay_mult: 0
  }
  param {
    lr_mult: 0
    decay_mult: 0
  }
  param {
    lr_mult: 0
    decay_mult: 0
  }
  batch_norm_param {
    use_global_stats: false
  }
}
layer {
  name: "Scale17"
  type: "Scale"
  bottom: "Eltwise9"
  top: "Eltwise9"
  scale_param {
    bias_term: true
  }
}
layer {
  name: "penlu17"
  type: "PENLU"
  bottom: "Eltwise9"
  top: "Eltwise9"
  param {
    lr_mult: 2
    decay_mult: 0
  }
  param {
    lr_mult: 2
    decay_mult: 0
  }
  param {
    lr_mult: 0
    decay_mult: 0
  }
  penlu_param {
    alpha_filler {
      type: "constant"
      value: 0.25
    }
    beta_filler {
      type: "constant"
      value: 1
    }
    eta_filler {
      type: "constant"
      value: 1
    }
  }
}
layer {
  name: "Convolution23"
  type: "Convolution"
  bottom: "Eltwise9"
  top: "Convolution23"
  convolution_param {
    num_output: 640
    bias_term: false
    pad: 1
    kernel_size: 3
    stride: 1
    weight_filler {
      type: "msra"
    }
  }
}
layer {
  name: "BatchNorm18"
  type: "BatchNorm"
  bottom: "Convolution23"
  top: "Convolution23"
  param {
    lr_mult: 0
    decay_mult: 0
  }
  param {
    lr_mult: 0
    decay_mult: 0
  }
  param {
    lr_mult: 0
    decay_mult: 0
  }
  batch_norm_param {
    use_global_stats: false
  }
}
layer {
  name: "Scale18"
  type: "Scale"
  bottom: "Convolution23"
  top: "Convolution23"
  scale_param {
    bias_term: true
  }
}
layer {
  name: "penlu18"
  type: "PENLU"
  bottom: "Convolution23"
  top: "Convolution23"
  param {
    lr_mult: 2
    decay_mult: 0
  }
  param {
    lr_mult: 2
    decay_mult: 0
  }
  param {
    lr_mult: 0
    decay_mult: 0
  }
  penlu_param {
    alpha_filler {
      type: "constant"
      value: 0.25
    }
    beta_filler {
      type: "constant"
      value: 1
    }
    eta_filler {
      type: "constant"
      value: 1
    }
  }
}
layer {
  name: "Convolution24"
  type: "Convolution"
  bottom: "Convolution23"
  top: "Convolution24"
  convolution_param {
    num_output: 640
    bias_term: false
    pad: 1
    kernel_size: 3
    stride: 1
    weight_filler {
      type: "msra"
    }
  }
}
layer {
  name: "Eltwise10"
  type: "Eltwise"
  bottom: "Convolution24"
  bottom: "Eltwise9"
  top: "Eltwise10"
  eltwise_param {
    operation: SUM
  }
}
layer {
  name: "BatchNorm19"
  type: "BatchNorm"
  bottom: "Eltwise10"
  top: "Eltwise10"
  param {
    lr_mult: 0
    decay_mult: 0
  }
  param {
    lr_mult: 0
    decay_mult: 0
  }
  param {
    lr_mult: 0
    decay_mult: 0
  }
  batch_norm_param {
    use_global_stats: false
  }
}
layer {
  name: "Scale19"
  type: "Scale"
  bottom: "Eltwise10"
  top: "Eltwise10"
  scale_param {
    bias_term: true
  }
}
layer {
  name: "penlu19"
  type: "PENLU"
  bottom: "Eltwise10"
  top: "Eltwise10"
  param {
    lr_mult: 2
    decay_mult: 0
  }
  param {
    lr_mult: 2
    decay_mult: 0
  }
  param {
    lr_mult: 0
    decay_mult: 0
  }
  penlu_param {
    alpha_filler {
      type: "constant"
      value: 0.25
    }
    beta_filler {
      type: "constant"
      value: 1
    }
    eta_filler {
      type: "constant"
      value: 1
    }
  }
}
layer {
  name: "Convolution25"
  type: "Convolution"
  bottom: "Eltwise10"
  top: "Convolution25"
  convolution_param {
    num_output: 640
    bias_term: false
    pad: 1
    kernel_size: 3
    stride: 1
    weight_filler {
      type: "msra"
    }
  }
}
layer {
  name: "BatchNorm20"
  type: "BatchNorm"
  bottom: "Convolution25"
  top: "Convolution25"
  param {
    lr_mult: 0
    decay_mult: 0
  }
  param {
    lr_mult: 0
    decay_mult: 0
  }
  param {
    lr_mult: 0
    decay_mult: 0
  }
  batch_norm_param {
    use_global_stats: false
  }
}
layer {
  name: "Scale20"
  type: "Scale"
  bottom: "Convolution25"
  top: "Convolution25"
  scale_param {
    bias_term: true
  }
}
layer {
  name: "penlu20"
  type: "PENLU"
  bottom: "Convolution25"
  top: "Convolution25"
  param {
    lr_mult: 2
    decay_mult: 0
  }
  param {
    lr_mult: 2
    decay_mult: 0
  }
  param {
    lr_mult: 0
    decay_mult: 0
  }
  penlu_param {
    alpha_filler {
      type: "constant"
      value: 0.25
    }
    beta_filler {
      type: "constant"
      value: 1
    }
    eta_filler {
      type: "constant"
      value: 1
    }
  }
}
layer {
  name: "Convolution26"
  type: "Convolution"
  bottom: "Convolution25"
  top: "Convolution26"
  convolution_param {
    num_output: 640
    bias_term: false
    pad: 1
    kernel_size: 3
    stride: 1
    weight_filler {
      type: "msra"
    }
  }
}
layer {
  name: "Eltwise11"
  type: "Eltwise"
  bottom: "Convolution26"
  bottom: "Eltwise10"
  top: "Eltwise11"
  eltwise_param {
    operation: SUM
  }
}
layer {
  name: "BatchNorm21"
  type: "BatchNorm"
  bottom: "Eltwise11"
  top: "Eltwise11"
  param {
    lr_mult: 0
    decay_mult: 0
  }
  param {
    lr_mult: 0
    decay_mult: 0
  }
  param {
    lr_mult: 0
    decay_mult: 0
  }
  batch_norm_param {
    use_global_stats: false
  }
}
layer {
  name: "Scale21"
  type: "Scale"
  bottom: "Eltwise11"
  top: "Eltwise11"
  scale_param {
    bias_term: true
  }
}
layer {
  name: "penlu21"
  type: "PENLU"
  bottom: "Eltwise11"
  top: "Eltwise11"
  param {
    lr_mult: 2
    decay_mult: 0
  }
  param {
    lr_mult: 2
    decay_mult: 0
  }
  param {
    lr_mult: 0
    decay_mult: 0
  }
  penlu_param {
    alpha_filler {
      type: "constant"
      value: 0.25
    }
    beta_filler {
      type: "constant"
      value: 1
    }
    eta_filler {
      type: "constant"
      value: 1
    }
  }
}
layer {
  name: "Convolution27"
  type: "Convolution"
  bottom: "Eltwise11"
  top: "Convolution27"
  convolution_param {
    num_output: 640
    bias_term: false
    pad: 1
    kernel_size: 3
    stride: 1
    weight_filler {
      type: "msra"
    }
  }
}
layer {
  name: "BatchNorm22"
  type: "BatchNorm"
  bottom: "Convolution27"
  top: "Convolution27"
  param {
    lr_mult: 0
    decay_mult: 0
  }
  param {
    lr_mult: 0
    decay_mult: 0
  }
  param {
    lr_mult: 0
    decay_mult: 0
  }
  batch_norm_param {
    use_global_stats: false
  }
}
layer {
  name: "Scale22"
  type: "Scale"
  bottom: "Convolution27"
  top: "Convolution27"
  scale_param {
    bias_term: true
  }
}
layer {
  name: "penlu22"
  type: "PENLU"
  bottom: "Convolution27"
  top: "Convolution27"
  param {
    lr_mult: 2
    decay_mult: 0
  }
  param {
    lr_mult: 2
    decay_mult: 0
  }
  param {
    lr_mult: 0
    decay_mult: 0
  }
  penlu_param {
    alpha_filler {
      type: "constant"
      value: 0.25
    }
    beta_filler {
      type: "constant"
      value: 1
    }
    eta_filler {
      type: "constant"
      value: 1
    }
  }
}
layer {
  name: "Convolution28"
  type: "Convolution"
  bottom: "Convolution27"
  top: "Convolution28"
  convolution_param {
    num_output: 640
    bias_term: false
    pad: 1
    kernel_size: 3
    stride: 1
    weight_filler {
      type: "msra"
    }
  }
}
layer {
  name: "Eltwise12"
  type: "Eltwise"
  bottom: "Convolution28"
  bottom: "Eltwise11"
  top: "Eltwise12"
  eltwise_param {
    operation: SUM
  }
}
layer {
  name: "Pooling1"
  type: "Pooling"
  bottom: "Eltwise12"
  top: "Pooling1"
  pooling_param {
    pool: AVE
    global_pooling: true
  }
}
layer {
  name: "InnerProduct1"
  type: "InnerProduct"
  bottom: "Pooling1"
  top: "InnerProduct1"
  inner_product_param {
    num_output: 100
  }
}
layer {
  name: "SoftmaxWithLoss1"
  type: "SoftmaxWithLoss"
  bottom: "InnerProduct1"
  bottom: "label"
  top: "SoftmaxWithLoss1"
}
layer {
  name: "accuracy"
  type: "Accuracy"
  bottom: "InnerProduct1"
  bottom: "label"
  top: "accuracy"
  include {
    phase: TEST
  }
}
I1017 16:08:55.155591 22869 layer_factory.hpp:77] Creating layer cifar
I1017 16:08:55.155633 22869 db_lmdb.cpp:35] Opened lmdb /home/x306/caffe/xn/PENLU/data/cifar100/cifar100_test_lmdb
I1017 16:08:55.155644 22869 net.cpp:84] Creating Layer cifar
I1017 16:08:55.155648 22869 net.cpp:380] cifar -> data
I1017 16:08:55.155663 22869 net.cpp:380] cifar -> label
I1017 16:08:55.155668 22869 data_transformer.cpp:25] Loading mean file from: /home/x306/caffe/xn/PENLU/data/cifar100/mean.binaryproto
I1017 16:08:55.155795 22869 data_layer.cpp:45] output data size: 50,3,28,28
I1017 16:08:55.156394 22869 net.cpp:122] Setting up cifar
I1017 16:08:55.156412 22869 net.cpp:129] Top shape: 50 3 28 28 (117600)
I1017 16:08:55.156416 22869 net.cpp:129] Top shape: 50 (50)
I1017 16:08:55.156419 22869 net.cpp:137] Memory required for data: 470600
I1017 16:08:55.156420 22869 layer_factory.hpp:77] Creating layer label_cifar_1_split
I1017 16:08:55.156425 22869 net.cpp:84] Creating Layer label_cifar_1_split
I1017 16:08:55.156428 22869 net.cpp:406] label_cifar_1_split <- label
I1017 16:08:55.156431 22869 net.cpp:380] label_cifar_1_split -> label_cifar_1_split_0
I1017 16:08:55.156436 22869 net.cpp:380] label_cifar_1_split -> label_cifar_1_split_1
I1017 16:08:55.156512 22869 net.cpp:122] Setting up label_cifar_1_split
I1017 16:08:55.156517 22869 net.cpp:129] Top shape: 50 (50)
I1017 16:08:55.156520 22869 net.cpp:129] Top shape: 50 (50)
I1017 16:08:55.156522 22869 net.cpp:137] Memory required for data: 471000
I1017 16:08:55.156524 22869 layer_factory.hpp:77] Creating layer Convolution1
I1017 16:08:55.156532 22869 net.cpp:84] Creating Layer Convolution1
I1017 16:08:55.156533 22869 net.cpp:406] Convolution1 <- data
I1017 16:08:55.156538 22869 net.cpp:380] Convolution1 -> Convolution1
I1017 16:08:55.157691 22869 net.cpp:122] Setting up Convolution1
I1017 16:08:55.157699 22869 net.cpp:129] Top shape: 50 16 28 28 (627200)
I1017 16:08:55.157702 22869 net.cpp:137] Memory required for data: 2979800
I1017 16:08:55.157709 22869 layer_factory.hpp:77] Creating layer BatchNorm1
I1017 16:08:55.157716 22869 net.cpp:84] Creating Layer BatchNorm1
I1017 16:08:55.157718 22869 net.cpp:406] BatchNorm1 <- Convolution1
I1017 16:08:55.157724 22869 net.cpp:367] BatchNorm1 -> Convolution1 (in-place)
I1017 16:08:55.157886 22869 net.cpp:122] Setting up BatchNorm1
I1017 16:08:55.157894 22869 net.cpp:129] Top shape: 50 16 28 28 (627200)
I1017 16:08:55.157897 22869 net.cpp:137] Memory required for data: 5488600
I1017 16:08:55.157905 22869 layer_factory.hpp:77] Creating layer Scale1
I1017 16:08:55.157912 22869 net.cpp:84] Creating Layer Scale1
I1017 16:08:55.157914 22869 net.cpp:406] Scale1 <- Convolution1
I1017 16:08:55.157938 22869 net.cpp:367] Scale1 -> Convolution1 (in-place)
I1017 16:08:55.157984 22869 layer_factory.hpp:77] Creating layer Scale1
I1017 16:08:55.158092 22869 net.cpp:122] Setting up Scale1
I1017 16:08:55.158097 22869 net.cpp:129] Top shape: 50 16 28 28 (627200)
I1017 16:08:55.158098 22869 net.cpp:137] Memory required for data: 7997400
I1017 16:08:55.158112 22869 layer_factory.hpp:77] Creating layer penlu1
I1017 16:08:55.158118 22869 net.cpp:84] Creating Layer penlu1
I1017 16:08:55.158120 22869 net.cpp:406] penlu1 <- Convolution1
I1017 16:08:55.158124 22869 net.cpp:367] penlu1 -> Convolution1 (in-place)
I1017 16:08:55.158277 22869 net.cpp:122] Setting up penlu1
I1017 16:08:55.158283 22869 net.cpp:129] Top shape: 50 16 28 28 (627200)
I1017 16:08:55.158285 22869 net.cpp:137] Memory required for data: 10506200
I1017 16:08:55.158291 22869 layer_factory.hpp:77] Creating layer Convolution1_penlu1_0_split
I1017 16:08:55.158298 22869 net.cpp:84] Creating Layer Convolution1_penlu1_0_split
I1017 16:08:55.158300 22869 net.cpp:406] Convolution1_penlu1_0_split <- Convolution1
I1017 16:08:55.158303 22869 net.cpp:380] Convolution1_penlu1_0_split -> Convolution1_penlu1_0_split_0
I1017 16:08:55.158308 22869 net.cpp:380] Convolution1_penlu1_0_split -> Convolution1_penlu1_0_split_1
I1017 16:08:55.158336 22869 net.cpp:122] Setting up Convolution1_penlu1_0_split
I1017 16:08:55.158340 22869 net.cpp:129] Top shape: 50 16 28 28 (627200)
I1017 16:08:55.158344 22869 net.cpp:129] Top shape: 50 16 28 28 (627200)
I1017 16:08:55.158346 22869 net.cpp:137] Memory required for data: 15523800
I1017 16:08:55.158349 22869 layer_factory.hpp:77] Creating layer Convolution2
I1017 16:08:55.158354 22869 net.cpp:84] Creating Layer Convolution2
I1017 16:08:55.158356 22869 net.cpp:406] Convolution2 <- Convolution1_penlu1_0_split_0
I1017 16:08:55.158360 22869 net.cpp:380] Convolution2 -> Convolution2
I1017 16:08:55.159981 22869 net.cpp:122] Setting up Convolution2
I1017 16:08:55.159989 22869 net.cpp:129] Top shape: 50 160 28 28 (6272000)
I1017 16:08:55.159992 22869 net.cpp:137] Memory required for data: 40611800
I1017 16:08:55.159996 22869 layer_factory.hpp:77] Creating layer BatchNorm2
I1017 16:08:55.160002 22869 net.cpp:84] Creating Layer BatchNorm2
I1017 16:08:55.160006 22869 net.cpp:406] BatchNorm2 <- Convolution2
I1017 16:08:55.160008 22869 net.cpp:367] BatchNorm2 -> Convolution2 (in-place)
I1017 16:08:55.160167 22869 net.cpp:122] Setting up BatchNorm2
I1017 16:08:55.160172 22869 net.cpp:129] Top shape: 50 160 28 28 (6272000)
I1017 16:08:55.160174 22869 net.cpp:137] Memory required for data: 65699800
I1017 16:08:55.160179 22869 layer_factory.hpp:77] Creating layer Scale2
I1017 16:08:55.160183 22869 net.cpp:84] Creating Layer Scale2
I1017 16:08:55.160187 22869 net.cpp:406] Scale2 <- Convolution2
I1017 16:08:55.160189 22869 net.cpp:367] Scale2 -> Convolution2 (in-place)
I1017 16:08:55.160220 22869 layer_factory.hpp:77] Creating layer Scale2
I1017 16:08:55.160310 22869 net.cpp:122] Setting up Scale2
I1017 16:08:55.160315 22869 net.cpp:129] Top shape: 50 160 28 28 (6272000)
I1017 16:08:55.160317 22869 net.cpp:137] Memory required for data: 90787800
I1017 16:08:55.160322 22869 layer_factory.hpp:77] Creating layer penlu2
I1017 16:08:55.160326 22869 net.cpp:84] Creating Layer penlu2
I1017 16:08:55.160329 22869 net.cpp:406] penlu2 <- Convolution2
I1017 16:08:55.160333 22869 net.cpp:367] penlu2 -> Convolution2 (in-place)
I1017 16:08:55.160538 22869 net.cpp:122] Setting up penlu2
I1017 16:08:55.160542 22869 net.cpp:129] Top shape: 50 160 28 28 (6272000)
I1017 16:08:55.160544 22869 net.cpp:137] Memory required for data: 115875800
I1017 16:08:55.160552 22869 layer_factory.hpp:77] Creating layer Convolution3
I1017 16:08:55.160558 22869 net.cpp:84] Creating Layer Convolution3
I1017 16:08:55.160560 22869 net.cpp:406] Convolution3 <- Convolution2
I1017 16:08:55.160564 22869 net.cpp:380] Convolution3 -> Convolution3
I1017 16:08:55.168524 22869 net.cpp:122] Setting up Convolution3
I1017 16:08:55.168536 22869 net.cpp:129] Top shape: 50 160 28 28 (6272000)
I1017 16:08:55.168539 22869 net.cpp:137] Memory required for data: 140963800
I1017 16:08:55.168543 22869 layer_factory.hpp:77] Creating layer Convolution4
I1017 16:08:55.168552 22869 net.cpp:84] Creating Layer Convolution4
I1017 16:08:55.168555 22869 net.cpp:406] Convolution4 <- Convolution1_penlu1_0_split_1
I1017 16:08:55.168560 22869 net.cpp:380] Convolution4 -> Convolution4
I1017 16:08:55.169533 22869 net.cpp:122] Setting up Convolution4
I1017 16:08:55.169543 22869 net.cpp:129] Top shape: 50 160 28 28 (6272000)
I1017 16:08:55.169545 22869 net.cpp:137] Memory required for data: 166051800
I1017 16:08:55.169549 22869 layer_factory.hpp:77] Creating layer Eltwise1
I1017 16:08:55.169554 22869 net.cpp:84] Creating Layer Eltwise1
I1017 16:08:55.169558 22869 net.cpp:406] Eltwise1 <- Convolution3
I1017 16:08:55.169560 22869 net.cpp:406] Eltwise1 <- Convolution4
I1017 16:08:55.169564 22869 net.cpp:380] Eltwise1 -> Eltwise1
I1017 16:08:55.169584 22869 net.cpp:122] Setting up Eltwise1
I1017 16:08:55.169589 22869 net.cpp:129] Top shape: 50 160 28 28 (6272000)
I1017 16:08:55.169590 22869 net.cpp:137] Memory required for data: 191139800
I1017 16:08:55.169594 22869 layer_factory.hpp:77] Creating layer BatchNorm3
I1017 16:08:55.169597 22869 net.cpp:84] Creating Layer BatchNorm3
I1017 16:08:55.169600 22869 net.cpp:406] BatchNorm3 <- Eltwise1
I1017 16:08:55.169603 22869 net.cpp:367] BatchNorm3 -> Eltwise1 (in-place)
I1017 16:08:55.169759 22869 net.cpp:122] Setting up BatchNorm3
I1017 16:08:55.169762 22869 net.cpp:129] Top shape: 50 160 28 28 (6272000)
I1017 16:08:55.169764 22869 net.cpp:137] Memory required for data: 216227800
I1017 16:08:55.169770 22869 layer_factory.hpp:77] Creating layer Scale3
I1017 16:08:55.169773 22869 net.cpp:84] Creating Layer Scale3
I1017 16:08:55.169776 22869 net.cpp:406] Scale3 <- Eltwise1
I1017 16:08:55.169780 22869 net.cpp:367] Scale3 -> Eltwise1 (in-place)
I1017 16:08:55.169811 22869 layer_factory.hpp:77] Creating layer Scale3
I1017 16:08:55.169903 22869 net.cpp:122] Setting up Scale3
I1017 16:08:55.169908 22869 net.cpp:129] Top shape: 50 160 28 28 (6272000)
I1017 16:08:55.169909 22869 net.cpp:137] Memory required for data: 241315800
I1017 16:08:55.169914 22869 layer_factory.hpp:77] Creating layer penlu3
I1017 16:08:55.169936 22869 net.cpp:84] Creating Layer penlu3
I1017 16:08:55.169939 22869 net.cpp:406] penlu3 <- Eltwise1
I1017 16:08:55.169944 22869 net.cpp:367] penlu3 -> Eltwise1 (in-place)
I1017 16:08:55.170161 22869 net.cpp:122] Setting up penlu3
I1017 16:08:55.170166 22869 net.cpp:129] Top shape: 50 160 28 28 (6272000)
I1017 16:08:55.170168 22869 net.cpp:137] Memory required for data: 266403800
I1017 16:08:55.170172 22869 layer_factory.hpp:77] Creating layer Eltwise1_penlu3_0_split
I1017 16:08:55.170178 22869 net.cpp:84] Creating Layer Eltwise1_penlu3_0_split
I1017 16:08:55.170181 22869 net.cpp:406] Eltwise1_penlu3_0_split <- Eltwise1
I1017 16:08:55.170183 22869 net.cpp:380] Eltwise1_penlu3_0_split -> Eltwise1_penlu3_0_split_0
I1017 16:08:55.170188 22869 net.cpp:380] Eltwise1_penlu3_0_split -> Eltwise1_penlu3_0_split_1
I1017 16:08:55.170214 22869 net.cpp:122] Setting up Eltwise1_penlu3_0_split
I1017 16:08:55.170218 22869 net.cpp:129] Top shape: 50 160 28 28 (6272000)
I1017 16:08:55.170222 22869 net.cpp:129] Top shape: 50 160 28 28 (6272000)
I1017 16:08:55.170223 22869 net.cpp:137] Memory required for data: 316579800
I1017 16:08:55.170225 22869 layer_factory.hpp:77] Creating layer Convolution5
I1017 16:08:55.170230 22869 net.cpp:84] Creating Layer Convolution5
I1017 16:08:55.170233 22869 net.cpp:406] Convolution5 <- Eltwise1_penlu3_0_split_0
I1017 16:08:55.170236 22869 net.cpp:380] Convolution5 -> Convolution5
I1017 16:08:55.177567 22869 net.cpp:122] Setting up Convolution5
I1017 16:08:55.177575 22869 net.cpp:129] Top shape: 50 160 28 28 (6272000)
I1017 16:08:55.177577 22869 net.cpp:137] Memory required for data: 341667800
I1017 16:08:55.177582 22869 layer_factory.hpp:77] Creating layer BatchNorm4
I1017 16:08:55.177587 22869 net.cpp:84] Creating Layer BatchNorm4
I1017 16:08:55.177590 22869 net.cpp:406] BatchNorm4 <- Convolution5
I1017 16:08:55.177594 22869 net.cpp:367] BatchNorm4 -> Convolution5 (in-place)
I1017 16:08:55.177762 22869 net.cpp:122] Setting up BatchNorm4
I1017 16:08:55.177767 22869 net.cpp:129] Top shape: 50 160 28 28 (6272000)
I1017 16:08:55.177769 22869 net.cpp:137] Memory required for data: 366755800
I1017 16:08:55.177778 22869 layer_factory.hpp:77] Creating layer Scale4
I1017 16:08:55.177791 22869 net.cpp:84] Creating Layer Scale4
I1017 16:08:55.177794 22869 net.cpp:406] Scale4 <- Convolution5
I1017 16:08:55.177798 22869 net.cpp:367] Scale4 -> Convolution5 (in-place)
I1017 16:08:55.177834 22869 layer_factory.hpp:77] Creating layer Scale4
I1017 16:08:55.177935 22869 net.cpp:122] Setting up Scale4
I1017 16:08:55.177942 22869 net.cpp:129] Top shape: 50 160 28 28 (6272000)
I1017 16:08:55.177943 22869 net.cpp:137] Memory required for data: 391843800
I1017 16:08:55.177947 22869 layer_factory.hpp:77] Creating layer penlu4
I1017 16:08:55.177953 22869 net.cpp:84] Creating Layer penlu4
I1017 16:08:55.177956 22869 net.cpp:406] penlu4 <- Convolution5
I1017 16:08:55.177961 22869 net.cpp:367] penlu4 -> Convolution5 (in-place)
I1017 16:08:55.178191 22869 net.cpp:122] Setting up penlu4
I1017 16:08:55.178196 22869 net.cpp:129] Top shape: 50 160 28 28 (6272000)
I1017 16:08:55.178198 22869 net.cpp:137] Memory required for data: 416931800
I1017 16:08:55.178203 22869 layer_factory.hpp:77] Creating layer Convolution6
I1017 16:08:55.178210 22869 net.cpp:84] Creating Layer Convolution6
I1017 16:08:55.178213 22869 net.cpp:406] Convolution6 <- Convolution5
I1017 16:08:55.178216 22869 net.cpp:380] Convolution6 -> Convolution6
I1017 16:08:55.186162 22869 net.cpp:122] Setting up Convolution6
I1017 16:08:55.186173 22869 net.cpp:129] Top shape: 50 160 28 28 (6272000)
I1017 16:08:55.186177 22869 net.cpp:137] Memory required for data: 442019800
I1017 16:08:55.186182 22869 layer_factory.hpp:77] Creating layer Eltwise2
I1017 16:08:55.186187 22869 net.cpp:84] Creating Layer Eltwise2
I1017 16:08:55.186190 22869 net.cpp:406] Eltwise2 <- Convolution6
I1017 16:08:55.186193 22869 net.cpp:406] Eltwise2 <- Eltwise1_penlu3_0_split_1
I1017 16:08:55.186198 22869 net.cpp:380] Eltwise2 -> Eltwise2
I1017 16:08:55.186223 22869 net.cpp:122] Setting up Eltwise2
I1017 16:08:55.186228 22869 net.cpp:129] Top shape: 50 160 28 28 (6272000)
I1017 16:08:55.186229 22869 net.cpp:137] Memory required for data: 467107800
I1017 16:08:55.186231 22869 layer_factory.hpp:77] Creating layer BatchNorm5
I1017 16:08:55.186238 22869 net.cpp:84] Creating Layer BatchNorm5
I1017 16:08:55.186239 22869 net.cpp:406] BatchNorm5 <- Eltwise2
I1017 16:08:55.186244 22869 net.cpp:367] BatchNorm5 -> Eltwise2 (in-place)
I1017 16:08:55.186411 22869 net.cpp:122] Setting up BatchNorm5
I1017 16:08:55.186416 22869 net.cpp:129] Top shape: 50 160 28 28 (6272000)
I1017 16:08:55.186419 22869 net.cpp:137] Memory required for data: 492195800
I1017 16:08:55.186424 22869 layer_factory.hpp:77] Creating layer Scale5
I1017 16:08:55.186429 22869 net.cpp:84] Creating Layer Scale5
I1017 16:08:55.186432 22869 net.cpp:406] Scale5 <- Eltwise2
I1017 16:08:55.186435 22869 net.cpp:367] Scale5 -> Eltwise2 (in-place)
I1017 16:08:55.186470 22869 layer_factory.hpp:77] Creating layer Scale5
I1017 16:08:55.186571 22869 net.cpp:122] Setting up Scale5
I1017 16:08:55.186576 22869 net.cpp:129] Top shape: 50 160 28 28 (6272000)
I1017 16:08:55.186578 22869 net.cpp:137] Memory required for data: 517283800
I1017 16:08:55.186583 22869 layer_factory.hpp:77] Creating layer penlu5
I1017 16:08:55.186589 22869 net.cpp:84] Creating Layer penlu5
I1017 16:08:55.186592 22869 net.cpp:406] penlu5 <- Eltwise2
I1017 16:08:55.186596 22869 net.cpp:367] penlu5 -> Eltwise2 (in-place)
I1017 16:08:55.186805 22869 net.cpp:122] Setting up penlu5
I1017 16:08:55.186810 22869 net.cpp:129] Top shape: 50 160 28 28 (6272000)
I1017 16:08:55.186812 22869 net.cpp:137] Memory required for data: 542371800
I1017 16:08:55.186817 22869 layer_factory.hpp:77] Creating layer Eltwise2_penlu5_0_split
I1017 16:08:55.186821 22869 net.cpp:84] Creating Layer Eltwise2_penlu5_0_split
I1017 16:08:55.186823 22869 net.cpp:406] Eltwise2_penlu5_0_split <- Eltwise2
I1017 16:08:55.186828 22869 net.cpp:380] Eltwise2_penlu5_0_split -> Eltwise2_penlu5_0_split_0
I1017 16:08:55.186835 22869 net.cpp:380] Eltwise2_penlu5_0_split -> Eltwise2_penlu5_0_split_1
I1017 16:08:55.186861 22869 net.cpp:122] Setting up Eltwise2_penlu5_0_split
I1017 16:08:55.186875 22869 net.cpp:129] Top shape: 50 160 28 28 (6272000)
I1017 16:08:55.186879 22869 net.cpp:129] Top shape: 50 160 28 28 (6272000)
I1017 16:08:55.186882 22869 net.cpp:137] Memory required for data: 592547800
I1017 16:08:55.186883 22869 layer_factory.hpp:77] Creating layer Convolution7
I1017 16:08:55.186890 22869 net.cpp:84] Creating Layer Convolution7
I1017 16:08:55.186892 22869 net.cpp:406] Convolution7 <- Eltwise2_penlu5_0_split_0
I1017 16:08:55.186897 22869 net.cpp:380] Convolution7 -> Convolution7
I1017 16:08:55.194581 22869 net.cpp:122] Setting up Convolution7
I1017 16:08:55.194589 22869 net.cpp:129] Top shape: 50 160 28 28 (6272000)
I1017 16:08:55.194592 22869 net.cpp:137] Memory required for data: 617635800
I1017 16:08:55.194597 22869 layer_factory.hpp:77] Creating layer BatchNorm6
I1017 16:08:55.194602 22869 net.cpp:84] Creating Layer BatchNorm6
I1017 16:08:55.194604 22869 net.cpp:406] BatchNorm6 <- Convolution7
I1017 16:08:55.194608 22869 net.cpp:367] BatchNorm6 -> Convolution7 (in-place)
I1017 16:08:55.194772 22869 net.cpp:122] Setting up BatchNorm6
I1017 16:08:55.194777 22869 net.cpp:129] Top shape: 50 160 28 28 (6272000)
I1017 16:08:55.194779 22869 net.cpp:137] Memory required for data: 642723800
I1017 16:08:55.194784 22869 layer_factory.hpp:77] Creating layer Scale6
I1017 16:08:55.194788 22869 net.cpp:84] Creating Layer Scale6
I1017 16:08:55.194792 22869 net.cpp:406] Scale6 <- Convolution7
I1017 16:08:55.194794 22869 net.cpp:367] Scale6 -> Convolution7 (in-place)
I1017 16:08:55.194828 22869 layer_factory.hpp:77] Creating layer Scale6
I1017 16:08:55.194921 22869 net.cpp:122] Setting up Scale6
I1017 16:08:55.194926 22869 net.cpp:129] Top shape: 50 160 28 28 (6272000)
I1017 16:08:55.194928 22869 net.cpp:137] Memory required for data: 667811800
I1017 16:08:55.194932 22869 layer_factory.hpp:77] Creating layer penlu6
I1017 16:08:55.194937 22869 net.cpp:84] Creating Layer penlu6
I1017 16:08:55.194941 22869 net.cpp:406] penlu6 <- Convolution7
I1017 16:08:55.194944 22869 net.cpp:367] penlu6 -> Convolution7 (in-place)
I1017 16:08:55.195142 22869 net.cpp:122] Setting up penlu6
I1017 16:08:55.195147 22869 net.cpp:129] Top shape: 50 160 28 28 (6272000)
I1017 16:08:55.195148 22869 net.cpp:137] Memory required for data: 692899800
I1017 16:08:55.195153 22869 layer_factory.hpp:77] Creating layer Convolution8
I1017 16:08:55.195163 22869 net.cpp:84] Creating Layer Convolution8
I1017 16:08:55.195165 22869 net.cpp:406] Convolution8 <- Convolution7
I1017 16:08:55.195169 22869 net.cpp:380] Convolution8 -> Convolution8
I1017 16:08:55.202826 22869 net.cpp:122] Setting up Convolution8
I1017 16:08:55.202834 22869 net.cpp:129] Top shape: 50 160 28 28 (6272000)
I1017 16:08:55.202837 22869 net.cpp:137] Memory required for data: 717987800
I1017 16:08:55.202841 22869 layer_factory.hpp:77] Creating layer Eltwise3
I1017 16:08:55.202847 22869 net.cpp:84] Creating Layer Eltwise3
I1017 16:08:55.202849 22869 net.cpp:406] Eltwise3 <- Convolution8
I1017 16:08:55.202852 22869 net.cpp:406] Eltwise3 <- Eltwise2_penlu5_0_split_1
I1017 16:08:55.202857 22869 net.cpp:380] Eltwise3 -> Eltwise3
I1017 16:08:55.202879 22869 net.cpp:122] Setting up Eltwise3
I1017 16:08:55.202884 22869 net.cpp:129] Top shape: 50 160 28 28 (6272000)
I1017 16:08:55.202886 22869 net.cpp:137] Memory required for data: 743075800
I1017 16:08:55.202888 22869 layer_factory.hpp:77] Creating layer BatchNorm7
I1017 16:08:55.202893 22869 net.cpp:84] Creating Layer BatchNorm7
I1017 16:08:55.202895 22869 net.cpp:406] BatchNorm7 <- Eltwise3
I1017 16:08:55.202898 22869 net.cpp:367] BatchNorm7 -> Eltwise3 (in-place)
I1017 16:08:55.203054 22869 net.cpp:122] Setting up BatchNorm7
I1017 16:08:55.203058 22869 net.cpp:129] Top shape: 50 160 28 28 (6272000)
I1017 16:08:55.203061 22869 net.cpp:137] Memory required for data: 768163800
I1017 16:08:55.203066 22869 layer_factory.hpp:77] Creating layer Scale7
I1017 16:08:55.203070 22869 net.cpp:84] Creating Layer Scale7
I1017 16:08:55.203073 22869 net.cpp:406] Scale7 <- Eltwise3
I1017 16:08:55.203076 22869 net.cpp:367] Scale7 -> Eltwise3 (in-place)
I1017 16:08:55.203117 22869 layer_factory.hpp:77] Creating layer Scale7
I1017 16:08:55.203212 22869 net.cpp:122] Setting up Scale7
I1017 16:08:55.203217 22869 net.cpp:129] Top shape: 50 160 28 28 (6272000)
I1017 16:08:55.203218 22869 net.cpp:137] Memory required for data: 793251800
I1017 16:08:55.203222 22869 layer_factory.hpp:77] Creating layer penlu7
I1017 16:08:55.203228 22869 net.cpp:84] Creating Layer penlu7
I1017 16:08:55.203230 22869 net.cpp:406] penlu7 <- Eltwise3
I1017 16:08:55.203234 22869 net.cpp:367] penlu7 -> Eltwise3 (in-place)
I1017 16:08:55.203429 22869 net.cpp:122] Setting up penlu7
I1017 16:08:55.203434 22869 net.cpp:129] Top shape: 50 160 28 28 (6272000)
I1017 16:08:55.203436 22869 net.cpp:137] Memory required for data: 818339800
I1017 16:08:55.203449 22869 layer_factory.hpp:77] Creating layer Eltwise3_penlu7_0_split
I1017 16:08:55.203454 22869 net.cpp:84] Creating Layer Eltwise3_penlu7_0_split
I1017 16:08:55.203457 22869 net.cpp:406] Eltwise3_penlu7_0_split <- Eltwise3
I1017 16:08:55.203460 22869 net.cpp:380] Eltwise3_penlu7_0_split -> Eltwise3_penlu7_0_split_0
I1017 16:08:55.203465 22869 net.cpp:380] Eltwise3_penlu7_0_split -> Eltwise3_penlu7_0_split_1
I1017 16:08:55.203493 22869 net.cpp:122] Setting up Eltwise3_penlu7_0_split
I1017 16:08:55.203497 22869 net.cpp:129] Top shape: 50 160 28 28 (6272000)
I1017 16:08:55.203500 22869 net.cpp:129] Top shape: 50 160 28 28 (6272000)
I1017 16:08:55.203502 22869 net.cpp:137] Memory required for data: 868515800
I1017 16:08:55.203505 22869 layer_factory.hpp:77] Creating layer Convolution9
I1017 16:08:55.203510 22869 net.cpp:84] Creating Layer Convolution9
I1017 16:08:55.203512 22869 net.cpp:406] Convolution9 <- Eltwise3_penlu7_0_split_0
I1017 16:08:55.203517 22869 net.cpp:380] Convolution9 -> Convolution9
I1017 16:08:55.211613 22869 net.cpp:122] Setting up Convolution9
I1017 16:08:55.211624 22869 net.cpp:129] Top shape: 50 160 28 28 (6272000)
I1017 16:08:55.211637 22869 net.cpp:137] Memory required for data: 893603800
I1017 16:08:55.211642 22869 layer_factory.hpp:77] Creating layer BatchNorm8
I1017 16:08:55.211659 22869 net.cpp:84] Creating Layer BatchNorm8
I1017 16:08:55.211663 22869 net.cpp:406] BatchNorm8 <- Convolution9
I1017 16:08:55.211668 22869 net.cpp:367] BatchNorm8 -> Convolution9 (in-place)
I1017 16:08:55.211850 22869 net.cpp:122] Setting up BatchNorm8
I1017 16:08:55.211855 22869 net.cpp:129] Top shape: 50 160 28 28 (6272000)
I1017 16:08:55.211868 22869 net.cpp:137] Memory required for data: 918691800
I1017 16:08:55.211874 22869 layer_factory.hpp:77] Creating layer Scale8
I1017 16:08:55.211879 22869 net.cpp:84] Creating Layer Scale8
I1017 16:08:55.211881 22869 net.cpp:406] Scale8 <- Convolution9
I1017 16:08:55.211885 22869 net.cpp:367] Scale8 -> Convolution9 (in-place)
I1017 16:08:55.211921 22869 layer_factory.hpp:77] Creating layer Scale8
I1017 16:08:55.212021 22869 net.cpp:122] Setting up Scale8
I1017 16:08:55.212028 22869 net.cpp:129] Top shape: 50 160 28 28 (6272000)
I1017 16:08:55.212030 22869 net.cpp:137] Memory required for data: 943779800
I1017 16:08:55.212034 22869 layer_factory.hpp:77] Creating layer penlu8
I1017 16:08:55.212041 22869 net.cpp:84] Creating Layer penlu8
I1017 16:08:55.212044 22869 net.cpp:406] penlu8 <- Convolution9
I1017 16:08:55.212049 22869 net.cpp:367] penlu8 -> Convolution9 (in-place)
I1017 16:08:55.212268 22869 net.cpp:122] Setting up penlu8
I1017 16:08:55.212275 22869 net.cpp:129] Top shape: 50 160 28 28 (6272000)
I1017 16:08:55.212277 22869 net.cpp:137] Memory required for data: 968867800
I1017 16:08:55.212282 22869 layer_factory.hpp:77] Creating layer Convolution10
I1017 16:08:55.212290 22869 net.cpp:84] Creating Layer Convolution10
I1017 16:08:55.212293 22869 net.cpp:406] Convolution10 <- Convolution9
I1017 16:08:55.212297 22869 net.cpp:380] Convolution10 -> Convolution10
I1017 16:08:55.220161 22869 net.cpp:122] Setting up Convolution10
I1017 16:08:55.220182 22869 net.cpp:129] Top shape: 50 160 28 28 (6272000)
I1017 16:08:55.220185 22869 net.cpp:137] Memory required for data: 993955800
I1017 16:08:55.220197 22869 layer_factory.hpp:77] Creating layer Eltwise4
I1017 16:08:55.220211 22869 net.cpp:84] Creating Layer Eltwise4
I1017 16:08:55.220214 22869 net.cpp:406] Eltwise4 <- Convolution10
I1017 16:08:55.220217 22869 net.cpp:406] Eltwise4 <- Eltwise3_penlu7_0_split_1
I1017 16:08:55.220221 22869 net.cpp:380] Eltwise4 -> Eltwise4
I1017 16:08:55.220247 22869 net.cpp:122] Setting up Eltwise4
I1017 16:08:55.220250 22869 net.cpp:129] Top shape: 50 160 28 28 (6272000)
I1017 16:08:55.220252 22869 net.cpp:137] Memory required for data: 1019043800
I1017 16:08:55.220254 22869 layer_factory.hpp:77] Creating layer Eltwise4_Eltwise4_0_split
I1017 16:08:55.220259 22869 net.cpp:84] Creating Layer Eltwise4_Eltwise4_0_split
I1017 16:08:55.220262 22869 net.cpp:406] Eltwise4_Eltwise4_0_split <- Eltwise4
I1017 16:08:55.220264 22869 net.cpp:380] Eltwise4_Eltwise4_0_split -> Eltwise4_Eltwise4_0_split_0
I1017 16:08:55.220268 22869 net.cpp:380] Eltwise4_Eltwise4_0_split -> Eltwise4_Eltwise4_0_split_1
I1017 16:08:55.220297 22869 net.cpp:122] Setting up Eltwise4_Eltwise4_0_split
I1017 16:08:55.220301 22869 net.cpp:129] Top shape: 50 160 28 28 (6272000)
I1017 16:08:55.220304 22869 net.cpp:129] Top shape: 50 160 28 28 (6272000)
I1017 16:08:55.220306 22869 net.cpp:137] Memory required for data: 1069219800
I1017 16:08:55.220309 22869 layer_factory.hpp:77] Creating layer Convolution11
I1017 16:08:55.220314 22869 net.cpp:84] Creating Layer Convolution11
I1017 16:08:55.220316 22869 net.cpp:406] Convolution11 <- Eltwise4_Eltwise4_0_split_0
I1017 16:08:55.220320 22869 net.cpp:380] Convolution11 -> Convolution11
I1017 16:08:55.233481 22869 net.cpp:122] Setting up Convolution11
I1017 16:08:55.233490 22869 net.cpp:129] Top shape: 50 320 14 14 (3136000)
I1017 16:08:55.233494 22869 net.cpp:137] Memory required for data: 1081763800
I1017 16:08:55.233496 22869 layer_factory.hpp:77] Creating layer BatchNorm9
I1017 16:08:55.233502 22869 net.cpp:84] Creating Layer BatchNorm9
I1017 16:08:55.233505 22869 net.cpp:406] BatchNorm9 <- Convolution11
I1017 16:08:55.233510 22869 net.cpp:367] BatchNorm9 -> Convolution11 (in-place)
I1017 16:08:55.233686 22869 net.cpp:122] Setting up BatchNorm9
I1017 16:08:55.233690 22869 net.cpp:129] Top shape: 50 320 14 14 (3136000)
I1017 16:08:55.233692 22869 net.cpp:137] Memory required for data: 1094307800
I1017 16:08:55.233697 22869 layer_factory.hpp:77] Creating layer Scale9
I1017 16:08:55.233702 22869 net.cpp:84] Creating Layer Scale9
I1017 16:08:55.233705 22869 net.cpp:406] Scale9 <- Convolution11
I1017 16:08:55.233708 22869 net.cpp:367] Scale9 -> Convolution11 (in-place)
I1017 16:08:55.233745 22869 layer_factory.hpp:77] Creating layer Scale9
I1017 16:08:55.233840 22869 net.cpp:122] Setting up Scale9
I1017 16:08:55.233845 22869 net.cpp:129] Top shape: 50 320 14 14 (3136000)
I1017 16:08:55.233847 22869 net.cpp:137] Memory required for data: 1106851800
I1017 16:08:55.233851 22869 layer_factory.hpp:77] Creating layer penlu9
I1017 16:08:55.233857 22869 net.cpp:84] Creating Layer penlu9
I1017 16:08:55.233860 22869 net.cpp:406] penlu9 <- Convolution11
I1017 16:08:55.233865 22869 net.cpp:367] penlu9 -> Convolution11 (in-place)
I1017 16:08:55.234041 22869 net.cpp:122] Setting up penlu9
I1017 16:08:55.234046 22869 net.cpp:129] Top shape: 50 320 14 14 (3136000)
I1017 16:08:55.234048 22869 net.cpp:137] Memory required for data: 1119395800
I1017 16:08:55.234053 22869 layer_factory.hpp:77] Creating layer Convolution12
I1017 16:08:55.234058 22869 net.cpp:84] Creating Layer Convolution12
I1017 16:08:55.234061 22869 net.cpp:406] Convolution12 <- Convolution11
I1017 16:08:55.234066 22869 net.cpp:380] Convolution12 -> Convolution12
I1017 16:08:55.260318 22869 net.cpp:122] Setting up Convolution12
I1017 16:08:55.260337 22869 net.cpp:129] Top shape: 50 320 14 14 (3136000)
I1017 16:08:55.260340 22869 net.cpp:137] Memory required for data: 1131939800
I1017 16:08:55.260346 22869 layer_factory.hpp:77] Creating layer Convolution13
I1017 16:08:55.260370 22869 net.cpp:84] Creating Layer Convolution13
I1017 16:08:55.260375 22869 net.cpp:406] Convolution13 <- Eltwise4_Eltwise4_0_split_1
I1017 16:08:55.260398 22869 net.cpp:380] Convolution13 -> Convolution13
I1017 16:08:55.263047 22869 net.cpp:122] Setting up Convolution13
I1017 16:08:55.263057 22869 net.cpp:129] Top shape: 50 320 14 14 (3136000)
I1017 16:08:55.263061 22869 net.cpp:137] Memory required for data: 1144483800
I1017 16:08:55.263064 22869 layer_factory.hpp:77] Creating layer Eltwise5
I1017 16:08:55.263070 22869 net.cpp:84] Creating Layer Eltwise5
I1017 16:08:55.263073 22869 net.cpp:406] Eltwise5 <- Convolution12
I1017 16:08:55.263077 22869 net.cpp:406] Eltwise5 <- Convolution13
I1017 16:08:55.263082 22869 net.cpp:380] Eltwise5 -> Eltwise5
I1017 16:08:55.263105 22869 net.cpp:122] Setting up Eltwise5
I1017 16:08:55.263110 22869 net.cpp:129] Top shape: 50 320 14 14 (3136000)
I1017 16:08:55.263113 22869 net.cpp:137] Memory required for data: 1157027800
I1017 16:08:55.263114 22869 layer_factory.hpp:77] Creating layer BatchNorm10
I1017 16:08:55.263119 22869 net.cpp:84] Creating Layer BatchNorm10
I1017 16:08:55.263121 22869 net.cpp:406] BatchNorm10 <- Eltwise5
I1017 16:08:55.263125 22869 net.cpp:367] BatchNorm10 -> Eltwise5 (in-place)
I1017 16:08:55.263305 22869 net.cpp:122] Setting up BatchNorm10
I1017 16:08:55.263310 22869 net.cpp:129] Top shape: 50 320 14 14 (3136000)
I1017 16:08:55.263314 22869 net.cpp:137] Memory required for data: 1169571800
I1017 16:08:55.263319 22869 layer_factory.hpp:77] Creating layer Scale10
I1017 16:08:55.263324 22869 net.cpp:84] Creating Layer Scale10
I1017 16:08:55.263327 22869 net.cpp:406] Scale10 <- Eltwise5
I1017 16:08:55.263331 22869 net.cpp:367] Scale10 -> Eltwise5 (in-place)
I1017 16:08:55.263370 22869 layer_factory.hpp:77] Creating layer Scale10
I1017 16:08:55.263466 22869 net.cpp:122] Setting up Scale10
I1017 16:08:55.263471 22869 net.cpp:129] Top shape: 50 320 14 14 (3136000)
I1017 16:08:55.263474 22869 net.cpp:137] Memory required for data: 1182115800
I1017 16:08:55.263478 22869 layer_factory.hpp:77] Creating layer penlu10
I1017 16:08:55.263485 22869 net.cpp:84] Creating Layer penlu10
I1017 16:08:55.263489 22869 net.cpp:406] penlu10 <- Eltwise5
I1017 16:08:55.263494 22869 net.cpp:367] penlu10 -> Eltwise5 (in-place)
I1017 16:08:55.263664 22869 net.cpp:122] Setting up penlu10
I1017 16:08:55.263670 22869 net.cpp:129] Top shape: 50 320 14 14 (3136000)
I1017 16:08:55.263674 22869 net.cpp:137] Memory required for data: 1194659800
I1017 16:08:55.263679 22869 layer_factory.hpp:77] Creating layer Eltwise5_penlu10_0_split
I1017 16:08:55.263684 22869 net.cpp:84] Creating Layer Eltwise5_penlu10_0_split
I1017 16:08:55.263686 22869 net.cpp:406] Eltwise5_penlu10_0_split <- Eltwise5
I1017 16:08:55.263689 22869 net.cpp:380] Eltwise5_penlu10_0_split -> Eltwise5_penlu10_0_split_0
I1017 16:08:55.263698 22869 net.cpp:380] Eltwise5_penlu10_0_split -> Eltwise5_penlu10_0_split_1
I1017 16:08:55.263727 22869 net.cpp:122] Setting up Eltwise5_penlu10_0_split
I1017 16:08:55.263732 22869 net.cpp:129] Top shape: 50 320 14 14 (3136000)
I1017 16:08:55.263736 22869 net.cpp:129] Top shape: 50 320 14 14 (3136000)
I1017 16:08:55.263737 22869 net.cpp:137] Memory required for data: 1219747800
I1017 16:08:55.263739 22869 layer_factory.hpp:77] Creating layer Convolution14
I1017 16:08:55.263746 22869 net.cpp:84] Creating Layer Convolution14
I1017 16:08:55.263749 22869 net.cpp:406] Convolution14 <- Eltwise5_penlu10_0_split_0
I1017 16:08:55.263753 22869 net.cpp:380] Convolution14 -> Convolution14
I1017 16:08:55.289580 22869 net.cpp:122] Setting up Convolution14
I1017 16:08:55.289599 22869 net.cpp:129] Top shape: 50 320 14 14 (3136000)
I1017 16:08:55.289603 22869 net.cpp:137] Memory required for data: 1232291800
I1017 16:08:55.289608 22869 layer_factory.hpp:77] Creating layer BatchNorm11
I1017 16:08:55.289616 22869 net.cpp:84] Creating Layer BatchNorm11
I1017 16:08:55.289630 22869 net.cpp:406] BatchNorm11 <- Convolution14
I1017 16:08:55.289636 22869 net.cpp:367] BatchNorm11 -> Convolution14 (in-place)
I1017 16:08:55.289880 22869 net.cpp:122] Setting up BatchNorm11
I1017 16:08:55.289885 22869 net.cpp:129] Top shape: 50 320 14 14 (3136000)
I1017 16:08:55.289897 22869 net.cpp:137] Memory required for data: 1244835800
I1017 16:08:55.289903 22869 layer_factory.hpp:77] Creating layer Scale11
I1017 16:08:55.289934 22869 net.cpp:84] Creating Layer Scale11
I1017 16:08:55.289938 22869 net.cpp:406] Scale11 <- Convolution14
I1017 16:08:55.289942 22869 net.cpp:367] Scale11 -> Convolution14 (in-place)
I1017 16:08:55.290004 22869 layer_factory.hpp:77] Creating layer Scale11
I1017 16:08:55.290123 22869 net.cpp:122] Setting up Scale11
I1017 16:08:55.290128 22869 net.cpp:129] Top shape: 50 320 14 14 (3136000)
I1017 16:08:55.290130 22869 net.cpp:137] Memory required for data: 1257379800
I1017 16:08:55.290134 22869 layer_factory.hpp:77] Creating layer penlu11
I1017 16:08:55.290140 22869 net.cpp:84] Creating Layer penlu11
I1017 16:08:55.290143 22869 net.cpp:406] penlu11 <- Convolution14
I1017 16:08:55.290148 22869 net.cpp:367] penlu11 -> Convolution14 (in-place)
I1017 16:08:55.290871 22869 net.cpp:122] Setting up penlu11
I1017 16:08:55.290880 22869 net.cpp:129] Top shape: 50 320 14 14 (3136000)
I1017 16:08:55.290882 22869 net.cpp:137] Memory required for data: 1269923800
I1017 16:08:55.290887 22869 layer_factory.hpp:77] Creating layer Convolution15
I1017 16:08:55.290895 22869 net.cpp:84] Creating Layer Convolution15
I1017 16:08:55.290908 22869 net.cpp:406] Convolution15 <- Convolution14
I1017 16:08:55.290913 22869 net.cpp:380] Convolution15 -> Convolution15
I1017 16:08:55.316401 22869 net.cpp:122] Setting up Convolution15
I1017 16:08:55.316416 22869 net.cpp:129] Top shape: 50 320 14 14 (3136000)
I1017 16:08:55.316421 22869 net.cpp:137] Memory required for data: 1282467800
I1017 16:08:55.316426 22869 layer_factory.hpp:77] Creating layer Eltwise6
I1017 16:08:55.316433 22869 net.cpp:84] Creating Layer Eltwise6
I1017 16:08:55.316447 22869 net.cpp:406] Eltwise6 <- Convolution15
I1017 16:08:55.316452 22869 net.cpp:406] Eltwise6 <- Eltwise5_penlu10_0_split_1
I1017 16:08:55.316469 22869 net.cpp:380] Eltwise6 -> Eltwise6
I1017 16:08:55.316527 22869 net.cpp:122] Setting up Eltwise6
I1017 16:08:55.316532 22869 net.cpp:129] Top shape: 50 320 14 14 (3136000)
I1017 16:08:55.316535 22869 net.cpp:137] Memory required for data: 1295011800
I1017 16:08:55.316537 22869 layer_factory.hpp:77] Creating layer BatchNorm12
I1017 16:08:55.316542 22869 net.cpp:84] Creating Layer BatchNorm12
I1017 16:08:55.316545 22869 net.cpp:406] BatchNorm12 <- Eltwise6
I1017 16:08:55.316548 22869 net.cpp:367] BatchNorm12 -> Eltwise6 (in-place)
I1017 16:08:55.316752 22869 net.cpp:122] Setting up BatchNorm12
I1017 16:08:55.316757 22869 net.cpp:129] Top shape: 50 320 14 14 (3136000)
I1017 16:08:55.316759 22869 net.cpp:137] Memory required for data: 1307555800
I1017 16:08:55.316766 22869 layer_factory.hpp:77] Creating layer Scale12
I1017 16:08:55.316771 22869 net.cpp:84] Creating Layer Scale12
I1017 16:08:55.316772 22869 net.cpp:406] Scale12 <- Eltwise6
I1017 16:08:55.316787 22869 net.cpp:367] Scale12 -> Eltwise6 (in-place)
I1017 16:08:55.316835 22869 layer_factory.hpp:77] Creating layer Scale12
I1017 16:08:55.316954 22869 net.cpp:122] Setting up Scale12
I1017 16:08:55.316959 22869 net.cpp:129] Top shape: 50 320 14 14 (3136000)
I1017 16:08:55.316962 22869 net.cpp:137] Memory required for data: 1320099800
I1017 16:08:55.316965 22869 layer_factory.hpp:77] Creating layer penlu12
I1017 16:08:55.316988 22869 net.cpp:84] Creating Layer penlu12
I1017 16:08:55.316992 22869 net.cpp:406] penlu12 <- Eltwise6
I1017 16:08:55.316994 22869 net.cpp:367] penlu12 -> Eltwise6 (in-place)
I1017 16:08:55.317178 22869 net.cpp:122] Setting up penlu12
I1017 16:08:55.317183 22869 net.cpp:129] Top shape: 50 320 14 14 (3136000)
I1017 16:08:55.317185 22869 net.cpp:137] Memory required for data: 1332643800
I1017 16:08:55.317190 22869 layer_factory.hpp:77] Creating layer Eltwise6_penlu12_0_split
I1017 16:08:55.317194 22869 net.cpp:84] Creating Layer Eltwise6_penlu12_0_split
I1017 16:08:55.317198 22869 net.cpp:406] Eltwise6_penlu12_0_split <- Eltwise6
I1017 16:08:55.317212 22869 net.cpp:380] Eltwise6_penlu12_0_split -> Eltwise6_penlu12_0_split_0
I1017 16:08:55.317226 22869 net.cpp:380] Eltwise6_penlu12_0_split -> Eltwise6_penlu12_0_split_1
I1017 16:08:55.317286 22869 net.cpp:122] Setting up Eltwise6_penlu12_0_split
I1017 16:08:55.317291 22869 net.cpp:129] Top shape: 50 320 14 14 (3136000)
I1017 16:08:55.317293 22869 net.cpp:129] Top shape: 50 320 14 14 (3136000)
I1017 16:08:55.317296 22869 net.cpp:137] Memory required for data: 1357731800
I1017 16:08:55.317297 22869 layer_factory.hpp:77] Creating layer Convolution16
I1017 16:08:55.317315 22869 net.cpp:84] Creating Layer Convolution16
I1017 16:08:55.317318 22869 net.cpp:406] Convolution16 <- Eltwise6_penlu12_0_split_0
I1017 16:08:55.317322 22869 net.cpp:380] Convolution16 -> Convolution16
I1017 16:08:55.343598 22869 net.cpp:122] Setting up Convolution16
I1017 16:08:55.343616 22869 net.cpp:129] Top shape: 50 320 14 14 (3136000)
I1017 16:08:55.343619 22869 net.cpp:137] Memory required for data: 1370275800
I1017 16:08:55.343624 22869 layer_factory.hpp:77] Creating layer BatchNorm13
I1017 16:08:55.343633 22869 net.cpp:84] Creating Layer BatchNorm13
I1017 16:08:55.343647 22869 net.cpp:406] BatchNorm13 <- Convolution16
I1017 16:08:55.343653 22869 net.cpp:367] BatchNorm13 -> Convolution16 (in-place)
I1017 16:08:55.343888 22869 net.cpp:122] Setting up BatchNorm13
I1017 16:08:55.343894 22869 net.cpp:129] Top shape: 50 320 14 14 (3136000)
I1017 16:08:55.343896 22869 net.cpp:137] Memory required for data: 1382819800
I1017 16:08:55.343902 22869 layer_factory.hpp:77] Creating layer Scale13
I1017 16:08:55.343907 22869 net.cpp:84] Creating Layer Scale13
I1017 16:08:55.343910 22869 net.cpp:406] Scale13 <- Convolution16
I1017 16:08:55.343914 22869 net.cpp:367] Scale13 -> Convolution16 (in-place)
I1017 16:08:55.343976 22869 layer_factory.hpp:77] Creating layer Scale13
I1017 16:08:55.344097 22869 net.cpp:122] Setting up Scale13
I1017 16:08:55.344103 22869 net.cpp:129] Top shape: 50 320 14 14 (3136000)
I1017 16:08:55.344105 22869 net.cpp:137] Memory required for data: 1395363800
I1017 16:08:55.344120 22869 layer_factory.hpp:77] Creating layer penlu13
I1017 16:08:55.344127 22869 net.cpp:84] Creating Layer penlu13
I1017 16:08:55.344144 22869 net.cpp:406] penlu13 <- Convolution16
I1017 16:08:55.344149 22869 net.cpp:367] penlu13 -> Convolution16 (in-place)
I1017 16:08:55.344365 22869 net.cpp:122] Setting up penlu13
I1017 16:08:55.344372 22869 net.cpp:129] Top shape: 50 320 14 14 (3136000)
I1017 16:08:55.344374 22869 net.cpp:137] Memory required for data: 1407907800
I1017 16:08:55.344378 22869 layer_factory.hpp:77] Creating layer Convolution17
I1017 16:08:55.344385 22869 net.cpp:84] Creating Layer Convolution17
I1017 16:08:55.344388 22869 net.cpp:406] Convolution17 <- Convolution16
I1017 16:08:55.344403 22869 net.cpp:380] Convolution17 -> Convolution17
I1017 16:08:55.370638 22869 net.cpp:122] Setting up Convolution17
I1017 16:08:55.370657 22869 net.cpp:129] Top shape: 50 320 14 14 (3136000)
I1017 16:08:55.370661 22869 net.cpp:137] Memory required for data: 1420451800
I1017 16:08:55.370666 22869 layer_factory.hpp:77] Creating layer Eltwise7
I1017 16:08:55.370676 22869 net.cpp:84] Creating Layer Eltwise7
I1017 16:08:55.370690 22869 net.cpp:406] Eltwise7 <- Convolution17
I1017 16:08:55.370695 22869 net.cpp:406] Eltwise7 <- Eltwise6_penlu12_0_split_1
I1017 16:08:55.370712 22869 net.cpp:380] Eltwise7 -> Eltwise7
I1017 16:08:55.370764 22869 net.cpp:122] Setting up Eltwise7
I1017 16:08:55.370769 22869 net.cpp:129] Top shape: 50 320 14 14 (3136000)
I1017 16:08:55.370770 22869 net.cpp:137] Memory required for data: 1432995800
I1017 16:08:55.370772 22869 layer_factory.hpp:77] Creating layer BatchNorm14
I1017 16:08:55.370777 22869 net.cpp:84] Creating Layer BatchNorm14
I1017 16:08:55.370780 22869 net.cpp:406] BatchNorm14 <- Eltwise7
I1017 16:08:55.370784 22869 net.cpp:367] BatchNorm14 -> Eltwise7 (in-place)
I1017 16:08:55.370988 22869 net.cpp:122] Setting up BatchNorm14
I1017 16:08:55.370993 22869 net.cpp:129] Top shape: 50 320 14 14 (3136000)
I1017 16:08:55.370995 22869 net.cpp:137] Memory required for data: 1445539800
I1017 16:08:55.371001 22869 layer_factory.hpp:77] Creating layer Scale14
I1017 16:08:55.371026 22869 net.cpp:84] Creating Layer Scale14
I1017 16:08:55.371029 22869 net.cpp:406] Scale14 <- Eltwise7
I1017 16:08:55.371044 22869 net.cpp:367] Scale14 -> Eltwise7 (in-place)
I1017 16:08:55.371119 22869 layer_factory.hpp:77] Creating layer Scale14
I1017 16:08:55.371240 22869 net.cpp:122] Setting up Scale14
I1017 16:08:55.371245 22869 net.cpp:129] Top shape: 50 320 14 14 (3136000)
I1017 16:08:55.371248 22869 net.cpp:137] Memory required for data: 1458083800
I1017 16:08:55.371251 22869 layer_factory.hpp:77] Creating layer penlu14
I1017 16:08:55.371258 22869 net.cpp:84] Creating Layer penlu14
I1017 16:08:55.371260 22869 net.cpp:406] penlu14 <- Eltwise7
I1017 16:08:55.371274 22869 net.cpp:367] penlu14 -> Eltwise7 (in-place)
I1017 16:08:55.371485 22869 net.cpp:122] Setting up penlu14
I1017 16:08:55.371491 22869 net.cpp:129] Top shape: 50 320 14 14 (3136000)
I1017 16:08:55.371493 22869 net.cpp:137] Memory required for data: 1470627800
I1017 16:08:55.371508 22869 layer_factory.hpp:77] Creating layer Eltwise7_penlu14_0_split
I1017 16:08:55.371526 22869 net.cpp:84] Creating Layer Eltwise7_penlu14_0_split
I1017 16:08:55.371528 22869 net.cpp:406] Eltwise7_penlu14_0_split <- Eltwise7
I1017 16:08:55.371532 22869 net.cpp:380] Eltwise7_penlu14_0_split -> Eltwise7_penlu14_0_split_0
I1017 16:08:55.371537 22869 net.cpp:380] Eltwise7_penlu14_0_split -> Eltwise7_penlu14_0_split_1
I1017 16:08:55.371615 22869 net.cpp:122] Setting up Eltwise7_penlu14_0_split
I1017 16:08:55.371620 22869 net.cpp:129] Top shape: 50 320 14 14 (3136000)
I1017 16:08:55.371623 22869 net.cpp:129] Top shape: 50 320 14 14 (3136000)
I1017 16:08:55.371625 22869 net.cpp:137] Memory required for data: 1495715800
I1017 16:08:55.371628 22869 layer_factory.hpp:77] Creating layer Convolution18
I1017 16:08:55.371634 22869 net.cpp:84] Creating Layer Convolution18
I1017 16:08:55.371637 22869 net.cpp:406] Convolution18 <- Eltwise7_penlu14_0_split_0
I1017 16:08:55.371650 22869 net.cpp:380] Convolution18 -> Convolution18
I1017 16:08:55.397328 22869 net.cpp:122] Setting up Convolution18
I1017 16:08:55.397356 22869 net.cpp:129] Top shape: 50 320 14 14 (3136000)
I1017 16:08:55.397359 22869 net.cpp:137] Memory required for data: 1508259800
I1017 16:08:55.397366 22869 layer_factory.hpp:77] Creating layer BatchNorm15
I1017 16:08:55.397373 22869 net.cpp:84] Creating Layer BatchNorm15
I1017 16:08:55.397377 22869 net.cpp:406] BatchNorm15 <- Convolution18
I1017 16:08:55.397382 22869 net.cpp:367] BatchNorm15 -> Convolution18 (in-place)
I1017 16:08:55.397604 22869 net.cpp:122] Setting up BatchNorm15
I1017 16:08:55.397610 22869 net.cpp:129] Top shape: 50 320 14 14 (3136000)
I1017 16:08:55.397613 22869 net.cpp:137] Memory required for data: 1520803800
I1017 16:08:55.397617 22869 layer_factory.hpp:77] Creating layer Scale15
I1017 16:08:55.397624 22869 net.cpp:84] Creating Layer Scale15
I1017 16:08:55.397626 22869 net.cpp:406] Scale15 <- Convolution18
I1017 16:08:55.397639 22869 net.cpp:367] Scale15 -> Convolution18 (in-place)
I1017 16:08:55.397688 22869 layer_factory.hpp:77] Creating layer Scale15
I1017 16:08:55.397810 22869 net.cpp:122] Setting up Scale15
I1017 16:08:55.397815 22869 net.cpp:129] Top shape: 50 320 14 14 (3136000)
I1017 16:08:55.397817 22869 net.cpp:137] Memory required for data: 1533347800
I1017 16:08:55.397821 22869 layer_factory.hpp:77] Creating layer penlu15
I1017 16:08:55.397827 22869 net.cpp:84] Creating Layer penlu15
I1017 16:08:55.397830 22869 net.cpp:406] penlu15 <- Convolution18
I1017 16:08:55.397845 22869 net.cpp:367] penlu15 -> Convolution18 (in-place)
I1017 16:08:55.398032 22869 net.cpp:122] Setting up penlu15
I1017 16:08:55.398038 22869 net.cpp:129] Top shape: 50 320 14 14 (3136000)
I1017 16:08:55.398041 22869 net.cpp:137] Memory required for data: 1545891800
I1017 16:08:55.398046 22869 layer_factory.hpp:77] Creating layer Convolution19
I1017 16:08:55.398052 22869 net.cpp:84] Creating Layer Convolution19
I1017 16:08:55.398056 22869 net.cpp:406] Convolution19 <- Convolution18
I1017 16:08:55.398068 22869 net.cpp:380] Convolution19 -> Convolution19
I1017 16:08:55.423611 22869 net.cpp:122] Setting up Convolution19
I1017 16:08:55.423627 22869 net.cpp:129] Top shape: 50 320 14 14 (3136000)
I1017 16:08:55.423630 22869 net.cpp:137] Memory required for data: 1558435800
I1017 16:08:55.423646 22869 layer_factory.hpp:77] Creating layer Eltwise8
I1017 16:08:55.423665 22869 net.cpp:84] Creating Layer Eltwise8
I1017 16:08:55.423669 22869 net.cpp:406] Eltwise8 <- Convolution19
I1017 16:08:55.423673 22869 net.cpp:406] Eltwise8 <- Eltwise7_penlu14_0_split_1
I1017 16:08:55.423687 22869 net.cpp:380] Eltwise8 -> Eltwise8
I1017 16:08:55.423733 22869 net.cpp:122] Setting up Eltwise8
I1017 16:08:55.423738 22869 net.cpp:129] Top shape: 50 320 14 14 (3136000)
I1017 16:08:55.423749 22869 net.cpp:137] Memory required for data: 1570979800
I1017 16:08:55.423751 22869 layer_factory.hpp:77] Creating layer Eltwise8_Eltwise8_0_split
I1017 16:08:55.423756 22869 net.cpp:84] Creating Layer Eltwise8_Eltwise8_0_split
I1017 16:08:55.423769 22869 net.cpp:406] Eltwise8_Eltwise8_0_split <- Eltwise8
I1017 16:08:55.423773 22869 net.cpp:380] Eltwise8_Eltwise8_0_split -> Eltwise8_Eltwise8_0_split_0
I1017 16:08:55.423777 22869 net.cpp:380] Eltwise8_Eltwise8_0_split -> Eltwise8_Eltwise8_0_split_1
I1017 16:08:55.423827 22869 net.cpp:122] Setting up Eltwise8_Eltwise8_0_split
I1017 16:08:55.423833 22869 net.cpp:129] Top shape: 50 320 14 14 (3136000)
I1017 16:08:55.423846 22869 net.cpp:129] Top shape: 50 320 14 14 (3136000)
I1017 16:08:55.423848 22869 net.cpp:137] Memory required for data: 1596067800
I1017 16:08:55.423851 22869 layer_factory.hpp:77] Creating layer Convolution20
I1017 16:08:55.423858 22869 net.cpp:84] Creating Layer Convolution20
I1017 16:08:55.423861 22869 net.cpp:406] Convolution20 <- Eltwise8_Eltwise8_0_split_0
I1017 16:08:55.423866 22869 net.cpp:380] Convolution20 -> Convolution20
I1017 16:08:55.473788 22869 net.cpp:122] Setting up Convolution20
I1017 16:08:55.473809 22869 net.cpp:129] Top shape: 50 640 7 7 (1568000)
I1017 16:08:55.473812 22869 net.cpp:137] Memory required for data: 1602339800
I1017 16:08:55.473819 22869 layer_factory.hpp:77] Creating layer BatchNorm16
I1017 16:08:55.473829 22869 net.cpp:84] Creating Layer BatchNorm16
I1017 16:08:55.473832 22869 net.cpp:406] BatchNorm16 <- Convolution20
I1017 16:08:55.473847 22869 net.cpp:367] BatchNorm16 -> Convolution20 (in-place)
I1017 16:08:55.474052 22869 net.cpp:122] Setting up BatchNorm16
I1017 16:08:55.474059 22869 net.cpp:129] Top shape: 50 640 7 7 (1568000)
I1017 16:08:55.474061 22869 net.cpp:137] Memory required for data: 1608611800
I1017 16:08:55.474066 22869 layer_factory.hpp:77] Creating layer Scale16
I1017 16:08:55.474071 22869 net.cpp:84] Creating Layer Scale16
I1017 16:08:55.474074 22869 net.cpp:406] Scale16 <- Convolution20
I1017 16:08:55.474077 22869 net.cpp:367] Scale16 -> Convolution20 (in-place)
I1017 16:08:55.474134 22869 layer_factory.hpp:77] Creating layer Scale16
I1017 16:08:55.474254 22869 net.cpp:122] Setting up Scale16
I1017 16:08:55.474259 22869 net.cpp:129] Top shape: 50 640 7 7 (1568000)
I1017 16:08:55.474262 22869 net.cpp:137] Memory required for data: 1614883800
I1017 16:08:55.474267 22869 layer_factory.hpp:77] Creating layer penlu16
I1017 16:08:55.474272 22869 net.cpp:84] Creating Layer penlu16
I1017 16:08:55.474275 22869 net.cpp:406] penlu16 <- Convolution20
I1017 16:08:55.474278 22869 net.cpp:367] penlu16 -> Convolution20 (in-place)
I1017 16:08:55.474443 22869 net.cpp:122] Setting up penlu16
I1017 16:08:55.474448 22869 net.cpp:129] Top shape: 50 640 7 7 (1568000)
I1017 16:08:55.474450 22869 net.cpp:137] Memory required for data: 1621155800
I1017 16:08:55.474455 22869 layer_factory.hpp:77] Creating layer Convolution21
I1017 16:08:55.474463 22869 net.cpp:84] Creating Layer Convolution21
I1017 16:08:55.474465 22869 net.cpp:406] Convolution21 <- Convolution20
I1017 16:08:55.474469 22869 net.cpp:380] Convolution21 -> Convolution21
I1017 16:08:55.571895 22869 net.cpp:122] Setting up Convolution21
I1017 16:08:55.571919 22869 net.cpp:129] Top shape: 50 640 7 7 (1568000)
I1017 16:08:55.571938 22869 net.cpp:137] Memory required for data: 1627427800
I1017 16:08:55.571945 22869 layer_factory.hpp:77] Creating layer Convolution22
I1017 16:08:55.571967 22869 net.cpp:84] Creating Layer Convolution22
I1017 16:08:55.571974 22869 net.cpp:406] Convolution22 <- Eltwise8_Eltwise8_0_split_1
I1017 16:08:55.571980 22869 net.cpp:380] Convolution22 -> Convolution22
I1017 16:08:55.578112 22869 net.cpp:122] Setting up Convolution22
I1017 16:08:55.578122 22869 net.cpp:129] Top shape: 50 640 7 7 (1568000)
I1017 16:08:55.578125 22869 net.cpp:137] Memory required for data: 1633699800
I1017 16:08:55.578130 22869 layer_factory.hpp:77] Creating layer Eltwise9
I1017 16:08:55.578135 22869 net.cpp:84] Creating Layer Eltwise9
I1017 16:08:55.578137 22869 net.cpp:406] Eltwise9 <- Convolution21
I1017 16:08:55.578140 22869 net.cpp:406] Eltwise9 <- Convolution22
I1017 16:08:55.578145 22869 net.cpp:380] Eltwise9 -> Eltwise9
I1017 16:08:55.578187 22869 net.cpp:122] Setting up Eltwise9
I1017 16:08:55.578193 22869 net.cpp:129] Top shape: 50 640 7 7 (1568000)
I1017 16:08:55.578207 22869 net.cpp:137] Memory required for data: 1639971800
I1017 16:08:55.578208 22869 layer_factory.hpp:77] Creating layer BatchNorm17
I1017 16:08:55.578213 22869 net.cpp:84] Creating Layer BatchNorm17
I1017 16:08:55.578225 22869 net.cpp:406] BatchNorm17 <- Eltwise9
I1017 16:08:55.578230 22869 net.cpp:367] BatchNorm17 -> Eltwise9 (in-place)
I1017 16:08:55.578425 22869 net.cpp:122] Setting up BatchNorm17
I1017 16:08:55.578430 22869 net.cpp:129] Top shape: 50 640 7 7 (1568000)
I1017 16:08:55.578433 22869 net.cpp:137] Memory required for data: 1646243800
I1017 16:08:55.578447 22869 layer_factory.hpp:77] Creating layer Scale17
I1017 16:08:55.578454 22869 net.cpp:84] Creating Layer Scale17
I1017 16:08:55.578457 22869 net.cpp:406] Scale17 <- Eltwise9
I1017 16:08:55.578460 22869 net.cpp:367] Scale17 -> Eltwise9 (in-place)
I1017 16:08:55.578507 22869 layer_factory.hpp:77] Creating layer Scale17
I1017 16:08:55.578624 22869 net.cpp:122] Setting up Scale17
I1017 16:08:55.578629 22869 net.cpp:129] Top shape: 50 640 7 7 (1568000)
I1017 16:08:55.578632 22869 net.cpp:137] Memory required for data: 1652515800
I1017 16:08:55.578646 22869 layer_factory.hpp:77] Creating layer penlu17
I1017 16:08:55.578654 22869 net.cpp:84] Creating Layer penlu17
I1017 16:08:55.578656 22869 net.cpp:406] penlu17 <- Eltwise9
I1017 16:08:55.578661 22869 net.cpp:367] penlu17 -> Eltwise9 (in-place)
I1017 16:08:55.578814 22869 net.cpp:122] Setting up penlu17
I1017 16:08:55.578820 22869 net.cpp:129] Top shape: 50 640 7 7 (1568000)
I1017 16:08:55.578822 22869 net.cpp:137] Memory required for data: 1658787800
I1017 16:08:55.578827 22869 layer_factory.hpp:77] Creating layer Eltwise9_penlu17_0_split
I1017 16:08:55.578832 22869 net.cpp:84] Creating Layer Eltwise9_penlu17_0_split
I1017 16:08:55.578836 22869 net.cpp:406] Eltwise9_penlu17_0_split <- Eltwise9
I1017 16:08:55.578840 22869 net.cpp:380] Eltwise9_penlu17_0_split -> Eltwise9_penlu17_0_split_0
I1017 16:08:55.578845 22869 net.cpp:380] Eltwise9_penlu17_0_split -> Eltwise9_penlu17_0_split_1
I1017 16:08:55.578876 22869 net.cpp:122] Setting up Eltwise9_penlu17_0_split
I1017 16:08:55.578881 22869 net.cpp:129] Top shape: 50 640 7 7 (1568000)
I1017 16:08:55.578886 22869 net.cpp:129] Top shape: 50 640 7 7 (1568000)
I1017 16:08:55.578887 22869 net.cpp:137] Memory required for data: 1671331800
I1017 16:08:55.578891 22869 layer_factory.hpp:77] Creating layer Convolution23
I1017 16:08:55.578896 22869 net.cpp:84] Creating Layer Convolution23
I1017 16:08:55.578899 22869 net.cpp:406] Convolution23 <- Eltwise9_penlu17_0_split_0
I1017 16:08:55.578903 22869 net.cpp:380] Convolution23 -> Convolution23
I1017 16:08:55.676574 22869 net.cpp:122] Setting up Convolution23
I1017 16:08:55.676597 22869 net.cpp:129] Top shape: 50 640 7 7 (1568000)
I1017 16:08:55.676601 22869 net.cpp:137] Memory required for data: 1677603800
I1017 16:08:55.676609 22869 layer_factory.hpp:77] Creating layer BatchNorm18
I1017 16:08:55.676628 22869 net.cpp:84] Creating Layer BatchNorm18
I1017 16:08:55.676647 22869 net.cpp:406] BatchNorm18 <- Convolution23
I1017 16:08:55.676654 22869 net.cpp:367] BatchNorm18 -> Convolution23 (in-place)
I1017 16:08:55.676869 22869 net.cpp:122] Setting up BatchNorm18
I1017 16:08:55.676877 22869 net.cpp:129] Top shape: 50 640 7 7 (1568000)
I1017 16:08:55.676879 22869 net.cpp:137] Memory required for data: 1683875800
I1017 16:08:55.676884 22869 layer_factory.hpp:77] Creating layer Scale18
I1017 16:08:55.676890 22869 net.cpp:84] Creating Layer Scale18
I1017 16:08:55.676893 22869 net.cpp:406] Scale18 <- Convolution23
I1017 16:08:55.676898 22869 net.cpp:367] Scale18 -> Convolution23 (in-place)
I1017 16:08:55.676956 22869 layer_factory.hpp:77] Creating layer Scale18
I1017 16:08:55.677078 22869 net.cpp:122] Setting up Scale18
I1017 16:08:55.677084 22869 net.cpp:129] Top shape: 50 640 7 7 (1568000)
I1017 16:08:55.677086 22869 net.cpp:137] Memory required for data: 1690147800
I1017 16:08:55.677090 22869 layer_factory.hpp:77] Creating layer penlu18
I1017 16:08:55.677098 22869 net.cpp:84] Creating Layer penlu18
I1017 16:08:55.677100 22869 net.cpp:406] penlu18 <- Convolution23
I1017 16:08:55.677104 22869 net.cpp:367] penlu18 -> Convolution23 (in-place)
I1017 16:08:55.677273 22869 net.cpp:122] Setting up penlu18
I1017 16:08:55.677279 22869 net.cpp:129] Top shape: 50 640 7 7 (1568000)
I1017 16:08:55.677283 22869 net.cpp:137] Memory required for data: 1696419800
I1017 16:08:55.677287 22869 layer_factory.hpp:77] Creating layer Convolution24
I1017 16:08:55.677294 22869 net.cpp:84] Creating Layer Convolution24
I1017 16:08:55.677297 22869 net.cpp:406] Convolution24 <- Convolution23
I1017 16:08:55.677301 22869 net.cpp:380] Convolution24 -> Convolution24
I1017 16:08:55.774423 22869 net.cpp:122] Setting up Convolution24
I1017 16:08:55.774446 22869 net.cpp:129] Top shape: 50 640 7 7 (1568000)
I1017 16:08:55.774449 22869 net.cpp:137] Memory required for data: 1702691800
I1017 16:08:55.774456 22869 layer_factory.hpp:77] Creating layer Eltwise10
I1017 16:08:55.774467 22869 net.cpp:84] Creating Layer Eltwise10
I1017 16:08:55.774472 22869 net.cpp:406] Eltwise10 <- Convolution24
I1017 16:08:55.774488 22869 net.cpp:406] Eltwise10 <- Eltwise9_penlu17_0_split_1
I1017 16:08:55.774493 22869 net.cpp:380] Eltwise10 -> Eltwise10
I1017 16:08:55.774529 22869 net.cpp:122] Setting up Eltwise10
I1017 16:08:55.774535 22869 net.cpp:129] Top shape: 50 640 7 7 (1568000)
I1017 16:08:55.774547 22869 net.cpp:137] Memory required for data: 1708963800
I1017 16:08:55.774549 22869 layer_factory.hpp:77] Creating layer BatchNorm19
I1017 16:08:55.774565 22869 net.cpp:84] Creating Layer BatchNorm19
I1017 16:08:55.774569 22869 net.cpp:406] BatchNorm19 <- Eltwise10
I1017 16:08:55.774574 22869 net.cpp:367] BatchNorm19 -> Eltwise10 (in-place)
I1017 16:08:55.774773 22869 net.cpp:122] Setting up BatchNorm19
I1017 16:08:55.774780 22869 net.cpp:129] Top shape: 50 640 7 7 (1568000)
I1017 16:08:55.774781 22869 net.cpp:137] Memory required for data: 1715235800
I1017 16:08:55.774797 22869 layer_factory.hpp:77] Creating layer Scale19
I1017 16:08:55.774804 22869 net.cpp:84] Creating Layer Scale19
I1017 16:08:55.774808 22869 net.cpp:406] Scale19 <- Eltwise10
I1017 16:08:55.774811 22869 net.cpp:367] Scale19 -> Eltwise10 (in-place)
I1017 16:08:55.774859 22869 layer_factory.hpp:77] Creating layer Scale19
I1017 16:08:55.774982 22869 net.cpp:122] Setting up Scale19
I1017 16:08:55.774988 22869 net.cpp:129] Top shape: 50 640 7 7 (1568000)
I1017 16:08:55.774991 22869 net.cpp:137] Memory required for data: 1721507800
I1017 16:08:55.775004 22869 layer_factory.hpp:77] Creating layer penlu19
I1017 16:08:55.775014 22869 net.cpp:84] Creating Layer penlu19
I1017 16:08:55.775017 22869 net.cpp:406] penlu19 <- Eltwise10
I1017 16:08:55.775022 22869 net.cpp:367] penlu19 -> Eltwise10 (in-place)
I1017 16:08:55.775184 22869 net.cpp:122] Setting up penlu19
I1017 16:08:55.775190 22869 net.cpp:129] Top shape: 50 640 7 7 (1568000)
I1017 16:08:55.775193 22869 net.cpp:137] Memory required for data: 1727779800
I1017 16:08:55.775208 22869 layer_factory.hpp:77] Creating layer Eltwise10_penlu19_0_split
I1017 16:08:55.775225 22869 net.cpp:84] Creating Layer Eltwise10_penlu19_0_split
I1017 16:08:55.775229 22869 net.cpp:406] Eltwise10_penlu19_0_split <- Eltwise10
I1017 16:08:55.775233 22869 net.cpp:380] Eltwise10_penlu19_0_split -> Eltwise10_penlu19_0_split_0
I1017 16:08:55.775238 22869 net.cpp:380] Eltwise10_penlu19_0_split -> Eltwise10_penlu19_0_split_1
I1017 16:08:55.775281 22869 net.cpp:122] Setting up Eltwise10_penlu19_0_split
I1017 16:08:55.775286 22869 net.cpp:129] Top shape: 50 640 7 7 (1568000)
I1017 16:08:55.775290 22869 net.cpp:129] Top shape: 50 640 7 7 (1568000)
I1017 16:08:55.775302 22869 net.cpp:137] Memory required for data: 1740323800
I1017 16:08:55.775305 22869 layer_factory.hpp:77] Creating layer Convolution25
I1017 16:08:55.775311 22869 net.cpp:84] Creating Layer Convolution25
I1017 16:08:55.775315 22869 net.cpp:406] Convolution25 <- Eltwise10_penlu19_0_split_0
I1017 16:08:55.775318 22869 net.cpp:380] Convolution25 -> Convolution25
I1017 16:08:55.872472 22869 net.cpp:122] Setting up Convolution25
I1017 16:08:55.872498 22869 net.cpp:129] Top shape: 50 640 7 7 (1568000)
I1017 16:08:55.872500 22869 net.cpp:137] Memory required for data: 1746595800
I1017 16:08:55.872508 22869 layer_factory.hpp:77] Creating layer BatchNorm20
I1017 16:08:55.872517 22869 net.cpp:84] Creating Layer BatchNorm20
I1017 16:08:55.872522 22869 net.cpp:406] BatchNorm20 <- Convolution25
I1017 16:08:55.872539 22869 net.cpp:367] BatchNorm20 -> Convolution25 (in-place)
I1017 16:08:55.872750 22869 net.cpp:122] Setting up BatchNorm20
I1017 16:08:55.872757 22869 net.cpp:129] Top shape: 50 640 7 7 (1568000)
I1017 16:08:55.872759 22869 net.cpp:137] Memory required for data: 1752867800
I1017 16:08:55.872766 22869 layer_factory.hpp:77] Creating layer Scale20
I1017 16:08:55.872771 22869 net.cpp:84] Creating Layer Scale20
I1017 16:08:55.872774 22869 net.cpp:406] Scale20 <- Convolution25
I1017 16:08:55.872777 22869 net.cpp:367] Scale20 -> Convolution25 (in-place)
I1017 16:08:55.872839 22869 layer_factory.hpp:77] Creating layer Scale20
I1017 16:08:55.872967 22869 net.cpp:122] Setting up Scale20
I1017 16:08:55.872972 22869 net.cpp:129] Top shape: 50 640 7 7 (1568000)
I1017 16:08:55.872973 22869 net.cpp:137] Memory required for data: 1759139800
I1017 16:08:55.872978 22869 layer_factory.hpp:77] Creating layer penlu20
I1017 16:08:55.872984 22869 net.cpp:84] Creating Layer penlu20
I1017 16:08:55.872987 22869 net.cpp:406] penlu20 <- Convolution25
I1017 16:08:55.872990 22869 net.cpp:367] penlu20 -> Convolution25 (in-place)
I1017 16:08:55.873167 22869 net.cpp:122] Setting up penlu20
I1017 16:08:55.873172 22869 net.cpp:129] Top shape: 50 640 7 7 (1568000)
I1017 16:08:55.873174 22869 net.cpp:137] Memory required for data: 1765411800
I1017 16:08:55.873179 22869 layer_factory.hpp:77] Creating layer Convolution26
I1017 16:08:55.873186 22869 net.cpp:84] Creating Layer Convolution26
I1017 16:08:55.873189 22869 net.cpp:406] Convolution26 <- Convolution25
I1017 16:08:55.873204 22869 net.cpp:380] Convolution26 -> Convolution26
I1017 16:08:55.970804 22869 net.cpp:122] Setting up Convolution26
I1017 16:08:55.970827 22869 net.cpp:129] Top shape: 50 640 7 7 (1568000)
I1017 16:08:55.970831 22869 net.cpp:137] Memory required for data: 1771683800
I1017 16:08:55.970839 22869 layer_factory.hpp:77] Creating layer Eltwise11
I1017 16:08:55.970849 22869 net.cpp:84] Creating Layer Eltwise11
I1017 16:08:55.970865 22869 net.cpp:406] Eltwise11 <- Convolution26
I1017 16:08:55.970870 22869 net.cpp:406] Eltwise11 <- Eltwise10_penlu19_0_split_1
I1017 16:08:55.970875 22869 net.cpp:380] Eltwise11 -> Eltwise11
I1017 16:08:55.970922 22869 net.cpp:122] Setting up Eltwise11
I1017 16:08:55.970928 22869 net.cpp:129] Top shape: 50 640 7 7 (1568000)
I1017 16:08:55.970930 22869 net.cpp:137] Memory required for data: 1777955800
I1017 16:08:55.970932 22869 layer_factory.hpp:77] Creating layer BatchNorm21
I1017 16:08:55.970938 22869 net.cpp:84] Creating Layer BatchNorm21
I1017 16:08:55.970942 22869 net.cpp:406] BatchNorm21 <- Eltwise11
I1017 16:08:55.970944 22869 net.cpp:367] BatchNorm21 -> Eltwise11 (in-place)
I1017 16:08:55.971173 22869 net.cpp:122] Setting up BatchNorm21
I1017 16:08:55.971179 22869 net.cpp:129] Top shape: 50 640 7 7 (1568000)
I1017 16:08:55.971181 22869 net.cpp:137] Memory required for data: 1784227800
I1017 16:08:55.971196 22869 layer_factory.hpp:77] Creating layer Scale21
I1017 16:08:55.971204 22869 net.cpp:84] Creating Layer Scale21
I1017 16:08:55.971207 22869 net.cpp:406] Scale21 <- Eltwise11
I1017 16:08:55.971211 22869 net.cpp:367] Scale21 -> Eltwise11 (in-place)
I1017 16:08:55.971261 22869 layer_factory.hpp:77] Creating layer Scale21
I1017 16:08:55.971386 22869 net.cpp:122] Setting up Scale21
I1017 16:08:55.971392 22869 net.cpp:129] Top shape: 50 640 7 7 (1568000)
I1017 16:08:55.971395 22869 net.cpp:137] Memory required for data: 1790499800
I1017 16:08:55.971408 22869 layer_factory.hpp:77] Creating layer penlu21
I1017 16:08:55.971416 22869 net.cpp:84] Creating Layer penlu21
I1017 16:08:55.971420 22869 net.cpp:406] penlu21 <- Eltwise11
I1017 16:08:55.971423 22869 net.cpp:367] penlu21 -> Eltwise11 (in-place)
I1017 16:08:55.971596 22869 net.cpp:122] Setting up penlu21
I1017 16:08:55.971601 22869 net.cpp:129] Top shape: 50 640 7 7 (1568000)
I1017 16:08:55.971603 22869 net.cpp:137] Memory required for data: 1796771800
I1017 16:08:55.971618 22869 layer_factory.hpp:77] Creating layer Eltwise11_penlu21_0_split
I1017 16:08:55.971623 22869 net.cpp:84] Creating Layer Eltwise11_penlu21_0_split
I1017 16:08:55.971627 22869 net.cpp:406] Eltwise11_penlu21_0_split <- Eltwise11
I1017 16:08:55.971631 22869 net.cpp:380] Eltwise11_penlu21_0_split -> Eltwise11_penlu21_0_split_0
I1017 16:08:55.971645 22869 net.cpp:380] Eltwise11_penlu21_0_split -> Eltwise11_penlu21_0_split_1
I1017 16:08:55.971705 22869 net.cpp:122] Setting up Eltwise11_penlu21_0_split
I1017 16:08:55.971710 22869 net.cpp:129] Top shape: 50 640 7 7 (1568000)
I1017 16:08:55.971724 22869 net.cpp:129] Top shape: 50 640 7 7 (1568000)
I1017 16:08:55.971727 22869 net.cpp:137] Memory required for data: 1809315800
I1017 16:08:55.971729 22869 layer_factory.hpp:77] Creating layer Convolution27
I1017 16:08:55.971747 22869 net.cpp:84] Creating Layer Convolution27
I1017 16:08:55.971751 22869 net.cpp:406] Convolution27 <- Eltwise11_penlu21_0_split_0
I1017 16:08:55.971755 22869 net.cpp:380] Convolution27 -> Convolution27
I1017 16:08:56.069460 22869 net.cpp:122] Setting up Convolution27
I1017 16:08:56.069483 22869 net.cpp:129] Top shape: 50 640 7 7 (1568000)
I1017 16:08:56.069486 22869 net.cpp:137] Memory required for data: 1815587800
I1017 16:08:56.069494 22869 layer_factory.hpp:77] Creating layer BatchNorm22
I1017 16:08:56.069515 22869 net.cpp:84] Creating Layer BatchNorm22
I1017 16:08:56.069521 22869 net.cpp:406] BatchNorm22 <- Convolution27
I1017 16:08:56.069537 22869 net.cpp:367] BatchNorm22 -> Convolution27 (in-place)
I1017 16:08:56.069767 22869 net.cpp:122] Setting up BatchNorm22
I1017 16:08:56.069773 22869 net.cpp:129] Top shape: 50 640 7 7 (1568000)
I1017 16:08:56.069777 22869 net.cpp:137] Memory required for data: 1821859800
I1017 16:08:56.069782 22869 layer_factory.hpp:77] Creating layer Scale22
I1017 16:08:56.069787 22869 net.cpp:84] Creating Layer Scale22
I1017 16:08:56.069790 22869 net.cpp:406] Scale22 <- Convolution27
I1017 16:08:56.069794 22869 net.cpp:367] Scale22 -> Convolution27 (in-place)
I1017 16:08:56.069854 22869 layer_factory.hpp:77] Creating layer Scale22
I1017 16:08:56.070008 22869 net.cpp:122] Setting up Scale22
I1017 16:08:56.070013 22869 net.cpp:129] Top shape: 50 640 7 7 (1568000)
I1017 16:08:56.070015 22869 net.cpp:137] Memory required for data: 1828131800
I1017 16:08:56.070020 22869 layer_factory.hpp:77] Creating layer penlu22
I1017 16:08:56.070027 22869 net.cpp:84] Creating Layer penlu22
I1017 16:08:56.070030 22869 net.cpp:406] penlu22 <- Convolution27
I1017 16:08:56.070034 22869 net.cpp:367] penlu22 -> Convolution27 (in-place)
I1017 16:08:56.070214 22869 net.cpp:122] Setting up penlu22
I1017 16:08:56.070219 22869 net.cpp:129] Top shape: 50 640 7 7 (1568000)
I1017 16:08:56.070221 22869 net.cpp:137] Memory required for data: 1834403800
I1017 16:08:56.070237 22869 layer_factory.hpp:77] Creating layer Convolution28
I1017 16:08:56.070258 22869 net.cpp:84] Creating Layer Convolution28
I1017 16:08:56.070262 22869 net.cpp:406] Convolution28 <- Convolution27
I1017 16:08:56.070267 22869 net.cpp:380] Convolution28 -> Convolution28
I1017 16:08:56.168159 22869 net.cpp:122] Setting up Convolution28
I1017 16:08:56.168182 22869 net.cpp:129] Top shape: 50 640 7 7 (1568000)
I1017 16:08:56.168186 22869 net.cpp:137] Memory required for data: 1840675800
I1017 16:08:56.168193 22869 layer_factory.hpp:77] Creating layer Eltwise12
I1017 16:08:56.168215 22869 net.cpp:84] Creating Layer Eltwise12
I1017 16:08:56.168220 22869 net.cpp:406] Eltwise12 <- Convolution28
I1017 16:08:56.168227 22869 net.cpp:406] Eltwise12 <- Eltwise11_penlu21_0_split_1
I1017 16:08:56.168232 22869 net.cpp:380] Eltwise12 -> Eltwise12
I1017 16:08:56.168282 22869 net.cpp:122] Setting up Eltwise12
I1017 16:08:56.168288 22869 net.cpp:129] Top shape: 50 640 7 7 (1568000)
I1017 16:08:56.168292 22869 net.cpp:137] Memory required for data: 1846947800
I1017 16:08:56.168293 22869 layer_factory.hpp:77] Creating layer Pooling1
I1017 16:08:56.168298 22869 net.cpp:84] Creating Layer Pooling1
I1017 16:08:56.168301 22869 net.cpp:406] Pooling1 <- Eltwise12
I1017 16:08:56.168305 22869 net.cpp:380] Pooling1 -> Pooling1
I1017 16:08:56.168484 22869 net.cpp:122] Setting up Pooling1
I1017 16:08:56.168493 22869 net.cpp:129] Top shape: 50 640 1 1 (32000)
I1017 16:08:56.168495 22869 net.cpp:137] Memory required for data: 1847075800
I1017 16:08:56.168509 22869 layer_factory.hpp:77] Creating layer InnerProduct1
I1017 16:08:56.168514 22869 net.cpp:84] Creating Layer InnerProduct1
I1017 16:08:56.168517 22869 net.cpp:406] InnerProduct1 <- Pooling1
I1017 16:08:56.168521 22869 net.cpp:380] InnerProduct1 -> InnerProduct1
I1017 16:08:56.169332 22869 net.cpp:122] Setting up InnerProduct1
I1017 16:08:56.169342 22869 net.cpp:129] Top shape: 50 100 (5000)
I1017 16:08:56.169354 22869 net.cpp:137] Memory required for data: 1847095800
I1017 16:08:56.169360 22869 layer_factory.hpp:77] Creating layer InnerProduct1_InnerProduct1_0_split
I1017 16:08:56.169381 22869 net.cpp:84] Creating Layer InnerProduct1_InnerProduct1_0_split
I1017 16:08:56.169385 22869 net.cpp:406] InnerProduct1_InnerProduct1_0_split <- InnerProduct1
I1017 16:08:56.169397 22869 net.cpp:380] InnerProduct1_InnerProduct1_0_split -> InnerProduct1_InnerProduct1_0_split_0
I1017 16:08:56.169404 22869 net.cpp:380] InnerProduct1_InnerProduct1_0_split -> InnerProduct1_InnerProduct1_0_split_1
I1017 16:08:56.169488 22869 net.cpp:122] Setting up InnerProduct1_InnerProduct1_0_split
I1017 16:08:56.169493 22869 net.cpp:129] Top shape: 50 100 (5000)
I1017 16:08:56.169497 22869 net.cpp:129] Top shape: 50 100 (5000)
I1017 16:08:56.169510 22869 net.cpp:137] Memory required for data: 1847135800
I1017 16:08:56.169513 22869 layer_factory.hpp:77] Creating layer SoftmaxWithLoss1
I1017 16:08:56.169528 22869 net.cpp:84] Creating Layer SoftmaxWithLoss1
I1017 16:08:56.169530 22869 net.cpp:406] SoftmaxWithLoss1 <- InnerProduct1_InnerProduct1_0_split_0
I1017 16:08:56.169533 22869 net.cpp:406] SoftmaxWithLoss1 <- label_cifar_1_split_0
…
