…
I1012 21:57:23.305022 11428 net.cpp:294] The NetState phase (0) differed from the phase (1) specified by a rule in layer accuracy
I1012 21:57:23.305407 11428 net.cpp:51] Initializing net from parameters: 
name: "wrn_28_10"
state {
  phase: TRAIN
  level: 0
  stage: ""
}
layer {
  name: "cifar"
  type: "Data"
  top: "data"
  top: "label"
  include {
    phase: TRAIN
  }
  transform_param {
    mirror: true
    crop_size: 28
    mean_file: "/home/x306/caffe/xn/PENLU/data/cifar100/mean.binaryproto"
  }
  data_param {
    source: "/home/x306/caffe/xn/PENLU/data/cifar100/cifar100_train_lmdb"
    batch_size: 50
    backend: LMDB
  }
}
layer {
  name: "Convolution1"
  type: "Convolution"
  bottom: "data"
  top: "Convolution1"
  convolution_param {
    num_output: 16
    pad: 1
    kernel_size: 3
    stride: 1
    weight_filler {
      type: "msra"
    }
  }
}
layer {
  name: "BatchNorm1"
  type: "BatchNorm"
  bottom: "Convolution1"
  top: "Convolution1"
  param {
    lr_mult: 0
    decay_mult: 0
  }
  param {
    lr_mult: 0
    decay_mult: 0
  }
  param {
    lr_mult: 0
    decay_mult: 0
  }
  batch_norm_param {
    use_global_stats: false
  }
}
layer {
  name: "Scale1"
  type: "Scale"
  bottom: "Convolution1"
  top: "Convolution1"
  scale_param {
    bias_term: true
  }
}
layer {
  name: "ReLU1"
  type: "ReLU"
  bottom: "Convolution1"
  top: "Convolution1"
}
layer {
  name: "Convolution2"
  type: "Convolution"
  bottom: "Convolution1"
  top: "Convolution2"
  convolution_param {
    num_output: 160
    bias_term: false
    pad: 1
    kernel_size: 3
    stride: 1
    weight_filler {
      type: "msra"
    }
  }
}
layer {
  name: "BatchNorm2"
  type: "BatchNorm"
  bottom: "Convolution2"
  top: "Convolution2"
  param {
    lr_mult: 0
    decay_mult: 0
  }
  param {
    lr_mult: 0
    decay_mult: 0
  }
  param {
    lr_mult: 0
    decay_mult: 0
  }
  batch_norm_param {
    use_global_stats: false
  }
}
layer {
  name: "Scale2"
  type: "Scale"
  bottom: "Convolution2"
  top: "Convolution2"
  scale_param {
    bias_term: true
  }
}
layer {
  name: "ReLU2"
  type: "ReLU"
  bottom: "Convolution2"
  top: "Convolution2"
}
layer {
  name: "Convolution3"
  type: "Convolution"
  bottom: "Convolution2"
  top: "Convolution3"
  convolution_param {
    num_output: 160
    bias_term: false
    pad: 1
    kernel_size: 3
    stride: 1
    weight_filler {
      type: "msra"
    }
  }
}
layer {
  name: "Convolution4"
  type: "Convolution"
  bottom: "Convolution1"
  top: "Convolution4"
  convolution_param {
    num_output: 160
    bias_term: false
    pad: 0
    kernel_size: 1
    stride: 1
    weight_filler {
      type: "msra"
    }
  }
}
layer {
  name: "Eltwise1"
  type: "Eltwise"
  bottom: "Convolution3"
  bottom: "Convolution4"
  top: "Eltwise1"
  eltwise_param {
    operation: SUM
  }
}
layer {
  name: "BatchNorm3"
  type: "BatchNorm"
  bottom: "Eltwise1"
  top: "Eltwise1"
  param {
    lr_mult: 0
    decay_mult: 0
  }
  param {
    lr_mult: 0
    decay_mult: 0
  }
  param {
    lr_mult: 0
    decay_mult: 0
  }
  batch_norm_param {
    use_global_stats: false
  }
}
layer {
  name: "Scale3"
  type: "Scale"
  bottom: "Eltwise1"
  top: "Eltwise1"
  scale_param {
    bias_term: true
  }
}
layer {
  name: "ReLU3"
  type: "ReLU"
  bottom: "Eltwise1"
  top: "Eltwise1"
}
layer {
  name: "Convolution5"
  type: "Convolution"
  bottom: "Eltwise1"
  top: "Convolution5"
  convolution_param {
    num_output: 160
    bias_term: false
    pad: 1
    kernel_size: 3
    stride: 1
    weight_filler {
      type: "msra"
    }
  }
}
layer {
  name: "BatchNorm4"
  type: "BatchNorm"
  bottom: "Convolution5"
  top: "Convolution5"
  param {
    lr_mult: 0
    decay_mult: 0
  }
  param {
    lr_mult: 0
    decay_mult: 0
  }
  param {
    lr_mult: 0
    decay_mult: 0
  }
  batch_norm_param {
    use_global_stats: false
  }
}
layer {
  name: "Scale4"
  type: "Scale"
  bottom: "Convolution5"
  top: "Convolution5"
  scale_param {
    bias_term: true
  }
}
layer {
  name: "ReLU4"
  type: "ReLU"
  bottom: "Convolution5"
  top: "Convolution5"
}
layer {
  name: "Convolution6"
  type: "Convolution"
  bottom: "Convolution5"
  top: "Convolution6"
  convolution_param {
    num_output: 160
    bias_term: false
    pad: 1
    kernel_size: 3
    stride: 1
    weight_filler {
      type: "msra"
    }
  }
}
layer {
  name: "Eltwise2"
  type: "Eltwise"
  bottom: "Convolution6"
  bottom: "Eltwise1"
  top: "Eltwise2"
  eltwise_param {
    operation: SUM
  }
}
layer {
  name: "BatchNorm5"
  type: "BatchNorm"
  bottom: "Eltwise2"
  top: "Eltwise2"
  param {
    lr_mult: 0
    decay_mult: 0
  }
  param {
    lr_mult: 0
    decay_mult: 0
  }
  param {
    lr_mult: 0
    decay_mult: 0
  }
  batch_norm_param {
    use_global_stats: false
  }
}
layer {
  name: "Scale5"
  type: "Scale"
  bottom: "Eltwise2"
  top: "Eltwise2"
  scale_param {
    bias_term: true
  }
}
layer {
  name: "ReLU5"
  type: "ReLU"
  bottom: "Eltwise2"
  top: "Eltwise2"
}
layer {
  name: "Convolution7"
  type: "Convolution"
  bottom: "Eltwise2"
  top: "Convolution7"
  convolution_param {
    num_output: 160
    bias_term: false
    pad: 1
    kernel_size: 3
    stride: 1
    weight_filler {
      type: "msra"
    }
  }
}
layer {
  name: "BatchNorm6"
  type: "BatchNorm"
  bottom: "Convolution7"
  top: "Convolution7"
  param {
    lr_mult: 0
    decay_mult: 0
  }
  param {
    lr_mult: 0
    decay_mult: 0
  }
  param {
    lr_mult: 0
    decay_mult: 0
  }
  batch_norm_param {
    use_global_stats: false
  }
}
layer {
  name: "Scale6"
  type: "Scale"
  bottom: "Convolution7"
  top: "Convolution7"
  scale_param {
    bias_term: true
  }
}
layer {
  name: "ReLU6"
  type: "ReLU"
  bottom: "Convolution7"
  top: "Convolution7"
}
layer {
  name: "Convolution8"
  type: "Convolution"
  bottom: "Convolution7"
  top: "Convolution8"
  convolution_param {
    num_output: 160
    bias_term: false
    pad: 1
    kernel_size: 3
    stride: 1
    weight_filler {
      type: "msra"
    }
  }
}
layer {
  name: "Eltwise3"
  type: "Eltwise"
  bottom: "Convolution8"
  bottom: "Eltwise2"
  top: "Eltwise3"
  eltwise_param {
    operation: SUM
  }
}
layer {
  name: "BatchNorm7"
  type: "BatchNorm"
  bottom: "Eltwise3"
  top: "Eltwise3"
  param {
    lr_mult: 0
    decay_mult: 0
  }
  param {
    lr_mult: 0
    decay_mult: 0
  }
  param {
    lr_mult: 0
    decay_mult: 0
  }
  batch_norm_param {
    use_global_stats: false
  }
}
layer {
  name: "Scale7"
  type: "Scale"
  bottom: "Eltwise3"
  top: "Eltwise3"
  scale_param {
    bias_term: true
  }
}
layer {
  name: "ReLU7"
  type: "ReLU"
  bottom: "Eltwise3"
  top: "Eltwise3"
}
layer {
  name: "Convolution9"
  type: "Convolution"
  bottom: "Eltwise3"
  top: "Convolution9"
  convolution_param {
    num_output: 160
    bias_term: false
    pad: 1
    kernel_size: 3
    stride: 1
    weight_filler {
      type: "msra"
    }
  }
}
layer {
  name: "BatchNorm8"
  type: "BatchNorm"
  bottom: "Convolution9"
  top: "Convolution9"
  param {
    lr_mult: 0
    decay_mult: 0
  }
  param {
    lr_mult: 0
    decay_mult: 0
  }
  param {
    lr_mult: 0
    decay_mult: 0
  }
  batch_norm_param {
    use_global_stats: false
  }
}
layer {
  name: "Scale8"
  type: "Scale"
  bottom: "Convolution9"
  top: "Convolution9"
  scale_param {
    bias_term: true
  }
}
layer {
  name: "ReLU8"
  type: "ReLU"
  bottom: "Convolution9"
  top: "Convolution9"
}
layer {
  name: "Convolution10"
  type: "Convolution"
  bottom: "Convolution9"
  top: "Convolution10"
  convolution_param {
    num_output: 160
    bias_term: false
    pad: 1
    kernel_size: 3
    stride: 1
    weight_filler {
      type: "msra"
    }
  }
}
layer {
  name: "Eltwise4"
  type: "Eltwise"
  bottom: "Convolution10"
  bottom: "Eltwise3"
  top: "Eltwise4"
  eltwise_param {
    operation: SUM
  }
}
layer {
  name: "Convolution11"
  type: "Convolution"
  bottom: "Eltwise4"
  top: "Convolution11"
  convolution_param {
    num_output: 320
    bias_term: false
    pad: 1
    kernel_size: 3
    stride: 2
    weight_filler {
      type: "msra"
    }
  }
}
layer {
  name: "BatchNorm9"
  type: "BatchNorm"
  bottom: "Convolution11"
  top: "Convolution11"
  param {
    lr_mult: 0
    decay_mult: 0
  }
  param {
    lr_mult: 0
    decay_mult: 0
  }
  param {
    lr_mult: 0
    decay_mult: 0
  }
  batch_norm_param {
    use_global_stats: false
  }
}
layer {
  name: "Scale9"
  type: "Scale"
  bottom: "Convolution11"
  top: "Convolution11"
  scale_param {
    bias_term: true
  }
}
layer {
  name: "ReLU9"
  type: "ReLU"
  bottom: "Convolution11"
  top: "Convolution11"
}
layer {
  name: "Convolution12"
  type: "Convolution"
  bottom: "Convolution11"
  top: "Convolution12"
  convolution_param {
    num_output: 320
    bias_term: false
    pad: 1
    kernel_size: 3
    stride: 1
    weight_filler {
      type: "msra"
    }
  }
}
layer {
  name: "Convolution13"
  type: "Convolution"
  bottom: "Eltwise4"
  top: "Convolution13"
  convolution_param {
    num_output: 320
    bias_term: false
    pad: 0
    kernel_size: 1
    stride: 2
    weight_filler {
      type: "msra"
    }
  }
}
layer {
  name: "Eltwise5"
  type: "Eltwise"
  bottom: "Convolution12"
  bottom: "Convolution13"
  top: "Eltwise5"
  eltwise_param {
    operation: SUM
  }
}
layer {
  name: "BatchNorm10"
  type: "BatchNorm"
  bottom: "Eltwise5"
  top: "Eltwise5"
  param {
    lr_mult: 0
    decay_mult: 0
  }
  param {
    lr_mult: 0
    decay_mult: 0
  }
  param {
    lr_mult: 0
    decay_mult: 0
  }
  batch_norm_param {
    use_global_stats: false
  }
}
layer {
  name: "Scale10"
  type: "Scale"
  bottom: "Eltwise5"
  top: "Eltwise5"
  scale_param {
    bias_term: true
  }
}
layer {
  name: "ReLU10"
  type: "ReLU"
  bottom: "Eltwise5"
  top: "Eltwise5"
}
layer {
  name: "Convolution14"
  type: "Convolution"
  bottom: "Eltwise5"
  top: "Convolution14"
  convolution_param {
    num_output: 320
    bias_term: false
    pad: 1
    kernel_size: 3
    stride: 1
    weight_filler {
      type: "msra"
    }
  }
}
layer {
  name: "BatchNorm11"
  type: "BatchNorm"
  bottom: "Convolution14"
  top: "Convolution14"
  param {
    lr_mult: 0
    decay_mult: 0
  }
  param {
    lr_mult: 0
    decay_mult: 0
  }
  param {
    lr_mult: 0
    decay_mult: 0
  }
  batch_norm_param {
    use_global_stats: false
  }
}
layer {
  name: "Scale11"
  type: "Scale"
  bottom: "Convolution14"
  top: "Convolution14"
  scale_param {
    bias_term: true
  }
}
layer {
  name: "ReLU11"
  type: "ReLU"
  bottom: "Convolution14"
  top: "Convolution14"
}
layer {
  name: "Convolution15"
  type: "Convolution"
  bottom: "Convolution14"
  top: "Convolution15"
  convolution_param {
    num_output: 320
    bias_term: false
    pad: 1
    kernel_size: 3
    stride: 1
    weight_filler {
      type: "msra"
    }
  }
}
layer {
  name: "Eltwise6"
  type: "Eltwise"
  bottom: "Convolution15"
  bottom: "Eltwise5"
  top: "Eltwise6"
  eltwise_param {
    operation: SUM
  }
}
layer {
  name: "BatchNorm12"
  type: "BatchNorm"
  bottom: "Eltwise6"
  top: "Eltwise6"
  param {
    lr_mult: 0
    decay_mult: 0
  }
  param {
    lr_mult: 0
    decay_mult: 0
  }
  param {
    lr_mult: 0
    decay_mult: 0
  }
  batch_norm_param {
    use_global_stats: false
  }
}
layer {
  name: "Scale12"
  type: "Scale"
  bottom: "Eltwise6"
  top: "Eltwise6"
  scale_param {
    bias_term: true
  }
}
layer {
  name: "ReLU12"
  type: "ReLU"
  bottom: "Eltwise6"
  top: "Eltwise6"
}
layer {
  name: "Convolution16"
  type: "Convolution"
  bottom: "Eltwise6"
  top: "Convolution16"
  convolution_param {
    num_output: 320
    bias_term: false
    pad: 1
    kernel_size: 3
    stride: 1
    weight_filler {
      type: "msra"
    }
  }
}
layer {
  name: "BatchNorm13"
  type: "BatchNorm"
  bottom: "Convolution16"
  top: "Convolution16"
  param {
    lr_mult: 0
    decay_mult: 0
  }
  param {
    lr_mult: 0
    decay_mult: 0
  }
  param {
    lr_mult: 0
    decay_mult: 0
  }
  batch_norm_param {
    use_global_stats: false
  }
}
layer {
  name: "Scale13"
  type: "Scale"
  bottom: "Convolution16"
  top: "Convolution16"
  scale_param {
    bias_term: true
  }
}
layer {
  name: "ReLU13"
  type: "ReLU"
  bottom: "Convolution16"
  top: "Convolution16"
}
layer {
  name: "Convolution17"
  type: "Convolution"
  bottom: "Convolution16"
  top: "Convolution17"
  convolution_param {
    num_output: 320
    bias_term: false
    pad: 1
    kernel_size: 3
    stride: 1
    weight_filler {
      type: "msra"
    }
  }
}
layer {
  name: "Eltwise7"
  type: "Eltwise"
  bottom: "Convolution17"
  bottom: "Eltwise6"
  top: "Eltwise7"
  eltwise_param {
    operation: SUM
  }
}
layer {
  name: "BatchNorm14"
  type: "BatchNorm"
  bottom: "Eltwise7"
  top: "Eltwise7"
  param {
    lr_mult: 0
    decay_mult: 0
  }
  param {
    lr_mult: 0
    decay_mult: 0
  }
  param {
    lr_mult: 0
    decay_mult: 0
  }
  batch_norm_param {
    use_global_stats: false
  }
}
layer {
  name: "Scale14"
  type: "Scale"
  bottom: "Eltwise7"
  top: "Eltwise7"
  scale_param {
    bias_term: true
  }
}
layer {
  name: "ReLU14"
  type: "ReLU"
  bottom: "Eltwise7"
  top: "Eltwise7"
}
layer {
  name: "Convolution18"
  type: "Convolution"
  bottom: "Eltwise7"
  top: "Convolution18"
  convolution_param {
    num_output: 320
    bias_term: false
    pad: 1
    kernel_size: 3
    stride: 1
    weight_filler {
      type: "msra"
    }
  }
}
layer {
  name: "BatchNorm15"
  type: "BatchNorm"
  bottom: "Convolution18"
  top: "Convolution18"
  param {
    lr_mult: 0
    decay_mult: 0
  }
  param {
    lr_mult: 0
    decay_mult: 0
  }
  param {
    lr_mult: 0
    decay_mult: 0
  }
  batch_norm_param {
    use_global_stats: false
  }
}
layer {
  name: "Scale15"
  type: "Scale"
  bottom: "Convolution18"
  top: "Convolution18"
  scale_param {
    bias_term: true
  }
}
layer {
  name: "ReLU15"
  type: "ReLU"
  bottom: "Convolution18"
  top: "Convolution18"
}
layer {
  name: "Convolution19"
  type: "Convolution"
  bottom: "Convolution18"
  top: "Convolution19"
  convolution_param {
    num_output: 320
    bias_term: false
    pad: 1
    kernel_size: 3
    stride: 1
    weight_filler {
      type: "msra"
    }
  }
}
layer {
  name: "Eltwise8"
  type: "Eltwise"
  bottom: "Convolution19"
  bottom: "Eltwise7"
  top: "Eltwise8"
  eltwise_param {
    operation: SUM
  }
}
layer {
  name: "Convolution20"
  type: "Convolution"
  bottom: "Eltwise8"
  top: "Convolution20"
  convolution_param {
    num_output: 640
    bias_term: false
    pad: 1
    kernel_size: 3
    stride: 2
    weight_filler {
      type: "msra"
    }
  }
}
layer {
  name: "BatchNorm16"
  type: "BatchNorm"
  bottom: "Convolution20"
  top: "Convolution20"
  param {
    lr_mult: 0
    decay_mult: 0
  }
  param {
    lr_mult: 0
    decay_mult: 0
  }
  param {
    lr_mult: 0
    decay_mult: 0
  }
  batch_norm_param {
    use_global_stats: false
  }
}
layer {
  name: "Scale16"
  type: "Scale"
  bottom: "Convolution20"
  top: "Convolution20"
  scale_param {
    bias_term: true
  }
}
layer {
  name: "ReLU16"
  type: "ReLU"
  bottom: "Convolution20"
  top: "Convolution20"
}
layer {
  name: "Convolution21"
  type: "Convolution"
  bottom: "Convolution20"
  top: "Convolution21"
  convolution_param {
    num_output: 640
    bias_term: false
    pad: 1
    kernel_size: 3
    stride: 1
    weight_filler {
      type: "msra"
    }
  }
}
layer {
  name: "Convolution22"
  type: "Convolution"
  bottom: "Eltwise8"
  top: "Convolution22"
  convolution_param {
    num_output: 640
    bias_term: false
    pad: 0
    kernel_size: 1
    stride: 2
    weight_filler {
      type: "msra"
    }
  }
}
layer {
  name: "Eltwise9"
  type: "Eltwise"
  bottom: "Convolution21"
  bottom: "Convolution22"
  top: "Eltwise9"
  eltwise_param {
    operation: SUM
  }
}
layer {
  name: "BatchNorm17"
  type: "BatchNorm"
  bottom: "Eltwise9"
  top: "Eltwise9"
  param {
    lr_mult: 0
    decay_mult: 0
  }
  param {
    lr_mult: 0
    decay_mult: 0
  }
  param {
    lr_mult: 0
    decay_mult: 0
  }
  batch_norm_param {
    use_global_stats: false
  }
}
layer {
  name: "Scale17"
  type: "Scale"
  bottom: "Eltwise9"
  top: "Eltwise9"
  scale_param {
    bias_term: true
  }
}
layer {
  name: "ReLU17"
  type: "ReLU"
  bottom: "Eltwise9"
  top: "Eltwise9"
}
layer {
  name: "Convolution23"
  type: "Convolution"
  bottom: "Eltwise9"
  top: "Convolution23"
  convolution_param {
    num_output: 640
    bias_term: false
    pad: 1
    kernel_size: 3
    stride: 1
    weight_filler {
      type: "msra"
    }
  }
}
layer {
  name: "BatchNorm18"
  type: "BatchNorm"
  bottom: "Convolution23"
  top: "Convolution23"
  param {
    lr_mult: 0
    decay_mult: 0
  }
  param {
    lr_mult: 0
    decay_mult: 0
  }
  param {
    lr_mult: 0
    decay_mult: 0
  }
  batch_norm_param {
    use_global_stats: false
  }
}
layer {
  name: "Scale18"
  type: "Scale"
  bottom: "Convolution23"
  top: "Convolution23"
  scale_param {
    bias_term: true
  }
}
layer {
  name: "ReLU18"
  type: "ReLU"
  bottom: "Convolution23"
  top: "Convolution23"
}
layer {
  name: "Convolution24"
  type: "Convolution"
  bottom: "Convolution23"
  top: "Convolution24"
  convolution_param {
    num_output: 640
    bias_term: false
    pad: 1
    kernel_size: 3
    stride: 1
    weight_filler {
      type: "msra"
    }
  }
}
layer {
  name: "Eltwise10"
  type: "Eltwise"
  bottom: "Convolution24"
  bottom: "Eltwise9"
  top: "Eltwise10"
  eltwise_param {
    operation: SUM
  }
}
layer {
  name: "BatchNorm19"
  type: "BatchNorm"
  bottom: "Eltwise10"
  top: "Eltwise10"
  param {
    lr_mult: 0
    decay_mult: 0
  }
  param {
    lr_mult: 0
    decay_mult: 0
  }
  param {
    lr_mult: 0
    decay_mult: 0
  }
  batch_norm_param {
    use_global_stats: false
  }
}
layer {
  name: "Scale19"
  type: "Scale"
  bottom: "Eltwise10"
  top: "Eltwise10"
  scale_param {
    bias_term: true
  }
}
layer {
  name: "ReLU19"
  type: "ReLU"
  bottom: "Eltwise10"
  top: "Eltwise10"
}
layer {
  name: "Convolution25"
  type: "Convolution"
  bottom: "Eltwise10"
  top: "Convolution25"
  convolution_param {
    num_output: 640
    bias_term: false
    pad: 1
    kernel_size: 3
    stride: 1
    weight_filler {
      type: "msra"
    }
  }
}
layer {
  name: "BatchNorm20"
  type: "BatchNorm"
  bottom: "Convolution25"
  top: "Convolution25"
  param {
    lr_mult: 0
    decay_mult: 0
  }
  param {
    lr_mult: 0
    decay_mult: 0
  }
  param {
    lr_mult: 0
    decay_mult: 0
  }
  batch_norm_param {
    use_global_stats: false
  }
}
layer {
  name: "Scale20"
  type: "Scale"
  bottom: "Convolution25"
  top: "Convolution25"
  scale_param {
    bias_term: true
  }
}
layer {
  name: "ReLU20"
  type: "ReLU"
  bottom: "Convolution25"
  top: "Convolution25"
}
layer {
  name: "Convolution26"
  type: "Convolution"
  bottom: "Convolution25"
  top: "Convolution26"
  convolution_param {
    num_output: 640
    bias_term: false
    pad: 1
    kernel_size: 3
    stride: 1
    weight_filler {
      type: "msra"
    }
  }
}
layer {
  name: "Eltwise11"
  type: "Eltwise"
  bottom: "Convolution26"
  bottom: "Eltwise10"
  top: "Eltwise11"
  eltwise_param {
    operation: SUM
  }
}
layer {
  name: "BatchNorm21"
  type: "BatchNorm"
  bottom: "Eltwise11"
  top: "Eltwise11"
  param {
    lr_mult: 0
    decay_mult: 0
  }
  param {
    lr_mult: 0
    decay_mult: 0
  }
  param {
    lr_mult: 0
    decay_mult: 0
  }
  batch_norm_param {
    use_global_stats: false
  }
}
layer {
  name: "Scale21"
  type: "Scale"
  bottom: "Eltwise11"
  top: "Eltwise11"
  scale_param {
    bias_term: true
  }
}
layer {
  name: "ReLU21"
  type: "ReLU"
  bottom: "Eltwise11"
  top: "Eltwise11"
}
layer {
  name: "Convolution27"
  type: "Convolution"
  bottom: "Eltwise11"
  top: "Convolution27"
  convolution_param {
    num_output: 640
    bias_term: false
    pad: 1
    kernel_size: 3
    stride: 1
    weight_filler {
      type: "msra"
    }
  }
}
layer {
  name: "BatchNorm22"
  type: "BatchNorm"
  bottom: "Convolution27"
  top: "Convolution27"
  param {
    lr_mult: 0
    decay_mult: 0
  }
  param {
    lr_mult: 0
    decay_mult: 0
  }
  param {
    lr_mult: 0
    decay_mult: 0
  }
  batch_norm_param {
    use_global_stats: false
  }
}
layer {
  name: "Scale22"
  type: "Scale"
  bottom: "Convolution27"
  top: "Convolution27"
  scale_param {
    bias_term: true
  }
}
layer {
  name: "ReLU22"
  type: "ReLU"
  bottom: "Convolution27"
  top: "Convolution27"
}
layer {
  name: "Convolution28"
  type: "Convolution"
  bottom: "Convolution27"
  top: "Convolution28"
  convolution_param {
    num_output: 640
    bias_term: false
    pad: 1
    kernel_size: 3
    stride: 1
    weight_filler {
      type: "msra"
    }
  }
}
layer {
  name: "Eltwise12"
  type: "Eltwise"
  bottom: "Convolution28"
  bottom: "Eltwise11"
  top: "Eltwise12"
  eltwise_param {
    operation: SUM
  }
}
layer {
  name: "Pooling1"
  type: "Pooling"
  bottom: "Eltwise12"
  top: "Pooling1"
  pooling_param {
    pool: AVE
    global_pooling: true
  }
}
layer {
  name: "InnerProduct1"
  type: "InnerProduct"
  bottom: "Pooling1"
  top: "InnerProduct1"
  inner_product_param {
    num_output: 100
  }
}
layer {
  name: "SoftmaxWithLoss1"
  type: "SoftmaxWithLoss"
  bottom: "InnerProduct1"
  bottom: "label"
  top: "SoftmaxWithLoss1"
}
I1012 21:57:23.305851 11428 layer_factory.hpp:77] Creating layer cifar
I1012 21:57:23.305986 11428 db_lmdb.cpp:35] Opened lmdb /home/x306/caffe/xn/PENLU/data/cifar100/cifar100_train_lmdb
I1012 21:57:23.306017 11428 net.cpp:84] Creating Layer cifar
I1012 21:57:23.306035 11428 net.cpp:380] cifar -> data
I1012 21:57:23.306063 11428 net.cpp:380] cifar -> label
I1012 21:57:23.306084 11428 data_transformer.cpp:25] Loading mean file from: /home/x306/caffe/xn/PENLU/data/cifar100/mean.binaryproto
I1012 21:57:23.307494 11428 data_layer.cpp:45] output data size: 50,3,28,28
I1012 21:57:23.308845 11428 net.cpp:122] Setting up cifar
I1012 21:57:23.308857 11428 net.cpp:129] Top shape: 50 3 28 28 (117600)
I1012 21:57:23.308862 11428 net.cpp:129] Top shape: 50 (50)
I1012 21:57:23.308876 11428 net.cpp:137] Memory required for data: 470600
I1012 21:57:23.308884 11428 layer_factory.hpp:77] Creating layer Convolution1
I1012 21:57:23.308903 11428 net.cpp:84] Creating Layer Convolution1
I1012 21:57:23.308917 11428 net.cpp:406] Convolution1 <- data
I1012 21:57:23.308938 11428 net.cpp:380] Convolution1 -> Convolution1
I1012 21:57:23.455447 11428 net.cpp:122] Setting up Convolution1
I1012 21:57:23.455471 11428 net.cpp:129] Top shape: 50 16 28 28 (627200)
I1012 21:57:23.455474 11428 net.cpp:137] Memory required for data: 2979400
I1012 21:57:23.455490 11428 layer_factory.hpp:77] Creating layer BatchNorm1
I1012 21:57:23.455513 11428 net.cpp:84] Creating Layer BatchNorm1
I1012 21:57:23.455528 11428 net.cpp:406] BatchNorm1 <- Convolution1
I1012 21:57:23.455533 11428 net.cpp:367] BatchNorm1 -> Convolution1 (in-place)
I1012 21:57:23.455693 11428 net.cpp:122] Setting up BatchNorm1
I1012 21:57:23.455700 11428 net.cpp:129] Top shape: 50 16 28 28 (627200)
I1012 21:57:23.455703 11428 net.cpp:137] Memory required for data: 5488200
I1012 21:57:23.455711 11428 layer_factory.hpp:77] Creating layer Scale1
I1012 21:57:23.455731 11428 net.cpp:84] Creating Layer Scale1
I1012 21:57:23.455735 11428 net.cpp:406] Scale1 <- Convolution1
I1012 21:57:23.455740 11428 net.cpp:367] Scale1 -> Convolution1 (in-place)
I1012 21:57:23.455798 11428 layer_factory.hpp:77] Creating layer Scale1
I1012 21:57:23.455927 11428 net.cpp:122] Setting up Scale1
I1012 21:57:23.455943 11428 net.cpp:129] Top shape: 50 16 28 28 (627200)
I1012 21:57:23.455946 11428 net.cpp:137] Memory required for data: 7997000
I1012 21:57:23.455951 11428 layer_factory.hpp:77] Creating layer ReLU1
I1012 21:57:23.455957 11428 net.cpp:84] Creating Layer ReLU1
I1012 21:57:23.455961 11428 net.cpp:406] ReLU1 <- Convolution1
I1012 21:57:23.455976 11428 net.cpp:367] ReLU1 -> Convolution1 (in-place)
I1012 21:57:23.456121 11428 net.cpp:122] Setting up ReLU1
I1012 21:57:23.456128 11428 net.cpp:129] Top shape: 50 16 28 28 (627200)
I1012 21:57:23.456147 11428 net.cpp:137] Memory required for data: 10505800
I1012 21:57:23.456151 11428 layer_factory.hpp:77] Creating layer Convolution1_ReLU1_0_split
I1012 21:57:23.456171 11428 net.cpp:84] Creating Layer Convolution1_ReLU1_0_split
I1012 21:57:23.456174 11428 net.cpp:406] Convolution1_ReLU1_0_split <- Convolution1
I1012 21:57:23.456179 11428 net.cpp:380] Convolution1_ReLU1_0_split -> Convolution1_ReLU1_0_split_0
I1012 21:57:23.456194 11428 net.cpp:380] Convolution1_ReLU1_0_split -> Convolution1_ReLU1_0_split_1
I1012 21:57:23.456251 11428 net.cpp:122] Setting up Convolution1_ReLU1_0_split
I1012 21:57:23.456265 11428 net.cpp:129] Top shape: 50 16 28 28 (627200)
I1012 21:57:23.456270 11428 net.cpp:129] Top shape: 50 16 28 28 (627200)
I1012 21:57:23.456284 11428 net.cpp:137] Memory required for data: 15523400
I1012 21:57:23.456288 11428 layer_factory.hpp:77] Creating layer Convolution2
I1012 21:57:23.456306 11428 net.cpp:84] Creating Layer Convolution2
I1012 21:57:23.456310 11428 net.cpp:406] Convolution2 <- Convolution1_ReLU1_0_split_0
I1012 21:57:23.456328 11428 net.cpp:380] Convolution2 -> Convolution2
I1012 21:57:23.458498 11428 net.cpp:122] Setting up Convolution2
I1012 21:57:23.458508 11428 net.cpp:129] Top shape: 50 160 28 28 (6272000)
I1012 21:57:23.458523 11428 net.cpp:137] Memory required for data: 40611400
I1012 21:57:23.458528 11428 layer_factory.hpp:77] Creating layer BatchNorm2
I1012 21:57:23.458546 11428 net.cpp:84] Creating Layer BatchNorm2
I1012 21:57:23.458551 11428 net.cpp:406] BatchNorm2 <- Convolution2
I1012 21:57:23.458556 11428 net.cpp:367] BatchNorm2 -> Convolution2 (in-place)
I1012 21:57:23.458686 11428 net.cpp:122] Setting up BatchNorm2
I1012 21:57:23.458693 11428 net.cpp:129] Top shape: 50 160 28 28 (6272000)
I1012 21:57:23.458698 11428 net.cpp:137] Memory required for data: 65699400
I1012 21:57:23.458716 11428 layer_factory.hpp:77] Creating layer Scale2
I1012 21:57:23.458724 11428 net.cpp:84] Creating Layer Scale2
I1012 21:57:23.458727 11428 net.cpp:406] Scale2 <- Convolution2
I1012 21:57:23.458732 11428 net.cpp:367] Scale2 -> Convolution2 (in-place)
I1012 21:57:23.458758 11428 layer_factory.hpp:77] Creating layer Scale2
I1012 21:57:23.458859 11428 net.cpp:122] Setting up Scale2
I1012 21:57:23.458866 11428 net.cpp:129] Top shape: 50 160 28 28 (6272000)
I1012 21:57:23.458870 11428 net.cpp:137] Memory required for data: 90787400
I1012 21:57:23.458886 11428 layer_factory.hpp:77] Creating layer ReLU2
I1012 21:57:23.458892 11428 net.cpp:84] Creating Layer ReLU2
I1012 21:57:23.458896 11428 net.cpp:406] ReLU2 <- Convolution2
I1012 21:57:23.458901 11428 net.cpp:367] ReLU2 -> Convolution2 (in-place)
I1012 21:57:23.459345 11428 net.cpp:122] Setting up ReLU2
I1012 21:57:23.459355 11428 net.cpp:129] Top shape: 50 160 28 28 (6272000)
I1012 21:57:23.459359 11428 net.cpp:137] Memory required for data: 115875400
I1012 21:57:23.459363 11428 layer_factory.hpp:77] Creating layer Convolution3
I1012 21:57:23.459372 11428 net.cpp:84] Creating Layer Convolution3
I1012 21:57:23.459377 11428 net.cpp:406] Convolution3 <- Convolution2
I1012 21:57:23.459383 11428 net.cpp:380] Convolution3 -> Convolution3
I1012 21:57:23.465673 11428 net.cpp:122] Setting up Convolution3
I1012 21:57:23.465683 11428 net.cpp:129] Top shape: 50 160 28 28 (6272000)
I1012 21:57:23.465687 11428 net.cpp:137] Memory required for data: 140963400
I1012 21:57:23.465693 11428 layer_factory.hpp:77] Creating layer Convolution4
I1012 21:57:23.465703 11428 net.cpp:84] Creating Layer Convolution4
I1012 21:57:23.465714 11428 net.cpp:406] Convolution4 <- Convolution1_ReLU1_0_split_1
I1012 21:57:23.465721 11428 net.cpp:380] Convolution4 -> Convolution4
I1012 21:57:23.466626 11428 net.cpp:122] Setting up Convolution4
I1012 21:57:23.466648 11428 net.cpp:129] Top shape: 50 160 28 28 (6272000)
I1012 21:57:23.466663 11428 net.cpp:137] Memory required for data: 166051400
I1012 21:57:23.466670 11428 layer_factory.hpp:77] Creating layer Eltwise1
I1012 21:57:23.466681 11428 net.cpp:84] Creating Layer Eltwise1
I1012 21:57:23.466687 11428 net.cpp:406] Eltwise1 <- Convolution3
I1012 21:57:23.466694 11428 net.cpp:406] Eltwise1 <- Convolution4
I1012 21:57:23.466704 11428 net.cpp:380] Eltwise1 -> Eltwise1
I1012 21:57:23.466734 11428 net.cpp:122] Setting up Eltwise1
I1012 21:57:23.466743 11428 net.cpp:129] Top shape: 50 160 28 28 (6272000)
I1012 21:57:23.466751 11428 net.cpp:137] Memory required for data: 191139400
I1012 21:57:23.466756 11428 layer_factory.hpp:77] Creating layer BatchNorm3
I1012 21:57:23.466768 11428 net.cpp:84] Creating Layer BatchNorm3
I1012 21:57:23.466775 11428 net.cpp:406] BatchNorm3 <- Eltwise1
I1012 21:57:23.466784 11428 net.cpp:367] BatchNorm3 -> Eltwise1 (in-place)
I1012 21:57:23.466938 11428 net.cpp:122] Setting up BatchNorm3
I1012 21:57:23.466946 11428 net.cpp:129] Top shape: 50 160 28 28 (6272000)
I1012 21:57:23.466951 11428 net.cpp:137] Memory required for data: 216227400
I1012 21:57:23.466967 11428 layer_factory.hpp:77] Creating layer Scale3
I1012 21:57:23.466976 11428 net.cpp:84] Creating Layer Scale3
I1012 21:57:23.466982 11428 net.cpp:406] Scale3 <- Eltwise1
I1012 21:57:23.466991 11428 net.cpp:367] Scale3 -> Eltwise1 (in-place)
I1012 21:57:23.467030 11428 layer_factory.hpp:77] Creating layer Scale3
I1012 21:57:23.467157 11428 net.cpp:122] Setting up Scale3
I1012 21:57:23.467166 11428 net.cpp:129] Top shape: 50 160 28 28 (6272000)
I1012 21:57:23.467170 11428 net.cpp:137] Memory required for data: 241315400
I1012 21:57:23.467175 11428 layer_factory.hpp:77] Creating layer ReLU3
I1012 21:57:23.467185 11428 net.cpp:84] Creating Layer ReLU3
I1012 21:57:23.467190 11428 net.cpp:406] ReLU3 <- Eltwise1
I1012 21:57:23.467198 11428 net.cpp:367] ReLU3 -> Eltwise1 (in-place)
I1012 21:57:23.467653 11428 net.cpp:122] Setting up ReLU3
I1012 21:57:23.467663 11428 net.cpp:129] Top shape: 50 160 28 28 (6272000)
I1012 21:57:23.467676 11428 net.cpp:137] Memory required for data: 266403400
I1012 21:57:23.467680 11428 layer_factory.hpp:77] Creating layer Eltwise1_ReLU3_0_split
I1012 21:57:23.467687 11428 net.cpp:84] Creating Layer Eltwise1_ReLU3_0_split
I1012 21:57:23.467692 11428 net.cpp:406] Eltwise1_ReLU3_0_split <- Eltwise1
I1012 21:57:23.467697 11428 net.cpp:380] Eltwise1_ReLU3_0_split -> Eltwise1_ReLU3_0_split_0
I1012 21:57:23.467705 11428 net.cpp:380] Eltwise1_ReLU3_0_split -> Eltwise1_ReLU3_0_split_1
I1012 21:57:23.467766 11428 net.cpp:122] Setting up Eltwise1_ReLU3_0_split
I1012 21:57:23.467772 11428 net.cpp:129] Top shape: 50 160 28 28 (6272000)
I1012 21:57:23.467784 11428 net.cpp:129] Top shape: 50 160 28 28 (6272000)
I1012 21:57:23.467787 11428 net.cpp:137] Memory required for data: 316579400
I1012 21:57:23.467800 11428 layer_factory.hpp:77] Creating layer Convolution5
I1012 21:57:23.467808 11428 net.cpp:84] Creating Layer Convolution5
I1012 21:57:23.467811 11428 net.cpp:406] Convolution5 <- Eltwise1_ReLU3_0_split_0
I1012 21:57:23.467818 11428 net.cpp:380] Convolution5 -> Convolution5
I1012 21:57:23.473670 11428 net.cpp:122] Setting up Convolution5
I1012 21:57:23.473680 11428 net.cpp:129] Top shape: 50 160 28 28 (6272000)
I1012 21:57:23.473695 11428 net.cpp:137] Memory required for data: 341667400
I1012 21:57:23.473700 11428 layer_factory.hpp:77] Creating layer BatchNorm4
I1012 21:57:23.473706 11428 net.cpp:84] Creating Layer BatchNorm4
I1012 21:57:23.473711 11428 net.cpp:406] BatchNorm4 <- Convolution5
I1012 21:57:23.473716 11428 net.cpp:367] BatchNorm4 -> Convolution5 (in-place)
I1012 21:57:23.473850 11428 net.cpp:122] Setting up BatchNorm4
I1012 21:57:23.473857 11428 net.cpp:129] Top shape: 50 160 28 28 (6272000)
I1012 21:57:23.473879 11428 net.cpp:137] Memory required for data: 366755400
I1012 21:57:23.473887 11428 layer_factory.hpp:77] Creating layer Scale4
I1012 21:57:23.473894 11428 net.cpp:84] Creating Layer Scale4
I1012 21:57:23.473898 11428 net.cpp:406] Scale4 <- Convolution5
I1012 21:57:23.473903 11428 net.cpp:367] Scale4 -> Convolution5 (in-place)
I1012 21:57:23.473937 11428 layer_factory.hpp:77] Creating layer Scale4
I1012 21:57:23.474016 11428 net.cpp:122] Setting up Scale4
I1012 21:57:23.474022 11428 net.cpp:129] Top shape: 50 160 28 28 (6272000)
I1012 21:57:23.474026 11428 net.cpp:137] Memory required for data: 391843400
I1012 21:57:23.474032 11428 layer_factory.hpp:77] Creating layer ReLU4
I1012 21:57:23.474038 11428 net.cpp:84] Creating Layer ReLU4
I1012 21:57:23.474042 11428 net.cpp:406] ReLU4 <- Convolution5
I1012 21:57:23.474047 11428 net.cpp:367] ReLU4 -> Convolution5 (in-place)
I1012 21:57:23.474479 11428 net.cpp:122] Setting up ReLU4
I1012 21:57:23.474489 11428 net.cpp:129] Top shape: 50 160 28 28 (6272000)
I1012 21:57:23.474493 11428 net.cpp:137] Memory required for data: 416931400
I1012 21:57:23.474498 11428 layer_factory.hpp:77] Creating layer Convolution6
I1012 21:57:23.474506 11428 net.cpp:84] Creating Layer Convolution6
I1012 21:57:23.474510 11428 net.cpp:406] Convolution6 <- Convolution5
I1012 21:57:23.474517 11428 net.cpp:380] Convolution6 -> Convolution6
I1012 21:57:23.481165 11428 net.cpp:122] Setting up Convolution6
I1012 21:57:23.481176 11428 net.cpp:129] Top shape: 50 160 28 28 (6272000)
I1012 21:57:23.481180 11428 net.cpp:137] Memory required for data: 442019400
I1012 21:57:23.481186 11428 layer_factory.hpp:77] Creating layer Eltwise2
I1012 21:57:23.481194 11428 net.cpp:84] Creating Layer Eltwise2
I1012 21:57:23.481197 11428 net.cpp:406] Eltwise2 <- Convolution6
I1012 21:57:23.481202 11428 net.cpp:406] Eltwise2 <- Eltwise1_ReLU3_0_split_1
I1012 21:57:23.481209 11428 net.cpp:380] Eltwise2 -> Eltwise2
I1012 21:57:23.481231 11428 net.cpp:122] Setting up Eltwise2
I1012 21:57:23.481237 11428 net.cpp:129] Top shape: 50 160 28 28 (6272000)
I1012 21:57:23.481241 11428 net.cpp:137] Memory required for data: 467107400
I1012 21:57:23.481245 11428 layer_factory.hpp:77] Creating layer BatchNorm5
I1012 21:57:23.481251 11428 net.cpp:84] Creating Layer BatchNorm5
I1012 21:57:23.481256 11428 net.cpp:406] BatchNorm5 <- Eltwise2
I1012 21:57:23.481261 11428 net.cpp:367] BatchNorm5 -> Eltwise2 (in-place)
I1012 21:57:23.481386 11428 net.cpp:122] Setting up BatchNorm5
I1012 21:57:23.481392 11428 net.cpp:129] Top shape: 50 160 28 28 (6272000)
I1012 21:57:23.481396 11428 net.cpp:137] Memory required for data: 492195400
I1012 21:57:23.481403 11428 layer_factory.hpp:77] Creating layer Scale5
I1012 21:57:23.481410 11428 net.cpp:84] Creating Layer Scale5
I1012 21:57:23.481413 11428 net.cpp:406] Scale5 <- Eltwise2
I1012 21:57:23.481420 11428 net.cpp:367] Scale5 -> Eltwise2 (in-place)
I1012 21:57:23.481446 11428 layer_factory.hpp:77] Creating layer Scale5
I1012 21:57:23.481523 11428 net.cpp:122] Setting up Scale5
I1012 21:57:23.481528 11428 net.cpp:129] Top shape: 50 160 28 28 (6272000)
I1012 21:57:23.481533 11428 net.cpp:137] Memory required for data: 517283400
I1012 21:57:23.481537 11428 layer_factory.hpp:77] Creating layer ReLU5
I1012 21:57:23.481544 11428 net.cpp:84] Creating Layer ReLU5
I1012 21:57:23.481547 11428 net.cpp:406] ReLU5 <- Eltwise2
I1012 21:57:23.481554 11428 net.cpp:367] ReLU5 -> Eltwise2 (in-place)
I1012 21:57:23.481675 11428 net.cpp:122] Setting up ReLU5
I1012 21:57:23.481683 11428 net.cpp:129] Top shape: 50 160 28 28 (6272000)
I1012 21:57:23.481688 11428 net.cpp:137] Memory required for data: 542371400
I1012 21:57:23.481691 11428 layer_factory.hpp:77] Creating layer Eltwise2_ReLU5_0_split
I1012 21:57:23.481696 11428 net.cpp:84] Creating Layer Eltwise2_ReLU5_0_split
I1012 21:57:23.481700 11428 net.cpp:406] Eltwise2_ReLU5_0_split <- Eltwise2
I1012 21:57:23.481706 11428 net.cpp:380] Eltwise2_ReLU5_0_split -> Eltwise2_ReLU5_0_split_0
I1012 21:57:23.481712 11428 net.cpp:380] Eltwise2_ReLU5_0_split -> Eltwise2_ReLU5_0_split_1
I1012 21:57:23.481748 11428 net.cpp:122] Setting up Eltwise2_ReLU5_0_split
I1012 21:57:23.481755 11428 net.cpp:129] Top shape: 50 160 28 28 (6272000)
I1012 21:57:23.481758 11428 net.cpp:129] Top shape: 50 160 28 28 (6272000)
I1012 21:57:23.481762 11428 net.cpp:137] Memory required for data: 592547400
I1012 21:57:23.481766 11428 layer_factory.hpp:77] Creating layer Convolution7
I1012 21:57:23.481775 11428 net.cpp:84] Creating Layer Convolution7
I1012 21:57:23.481779 11428 net.cpp:406] Convolution7 <- Eltwise2_ReLU5_0_split_0
I1012 21:57:23.481786 11428 net.cpp:380] Convolution7 -> Convolution7
I1012 21:57:23.488198 11428 net.cpp:122] Setting up Convolution7
I1012 21:57:23.488211 11428 net.cpp:129] Top shape: 50 160 28 28 (6272000)
I1012 21:57:23.488215 11428 net.cpp:137] Memory required for data: 617635400
I1012 21:57:23.488225 11428 layer_factory.hpp:77] Creating layer BatchNorm6
I1012 21:57:23.488242 11428 net.cpp:84] Creating Layer BatchNorm6
I1012 21:57:23.488248 11428 net.cpp:406] BatchNorm6 <- Convolution7
I1012 21:57:23.488255 11428 net.cpp:367] BatchNorm6 -> Convolution7 (in-place)
I1012 21:57:23.488397 11428 net.cpp:122] Setting up BatchNorm6
I1012 21:57:23.488404 11428 net.cpp:129] Top shape: 50 160 28 28 (6272000)
I1012 21:57:23.488416 11428 net.cpp:137] Memory required for data: 642723400
I1012 21:57:23.488425 11428 layer_factory.hpp:77] Creating layer Scale6
I1012 21:57:23.488442 11428 net.cpp:84] Creating Layer Scale6
I1012 21:57:23.488448 11428 net.cpp:406] Scale6 <- Convolution7
I1012 21:57:23.488464 11428 net.cpp:367] Scale6 -> Convolution7 (in-place)
I1012 21:57:23.488528 11428 layer_factory.hpp:77] Creating layer Scale6
I1012 21:57:23.488641 11428 net.cpp:122] Setting up Scale6
I1012 21:57:23.488647 11428 net.cpp:129] Top shape: 50 160 28 28 (6272000)
I1012 21:57:23.488651 11428 net.cpp:137] Memory required for data: 667811400
I1012 21:57:23.488654 11428 layer_factory.hpp:77] Creating layer ReLU6
I1012 21:57:23.488659 11428 net.cpp:84] Creating Layer ReLU6
I1012 21:57:23.488673 11428 net.cpp:406] ReLU6 <- Convolution7
I1012 21:57:23.488678 11428 net.cpp:367] ReLU6 -> Convolution7 (in-place)
I1012 21:57:23.488802 11428 net.cpp:122] Setting up ReLU6
I1012 21:57:23.488811 11428 net.cpp:129] Top shape: 50 160 28 28 (6272000)
I1012 21:57:23.488813 11428 net.cpp:137] Memory required for data: 692899400
I1012 21:57:23.488817 11428 layer_factory.hpp:77] Creating layer Convolution8
I1012 21:57:23.488826 11428 net.cpp:84] Creating Layer Convolution8
I1012 21:57:23.488829 11428 net.cpp:406] Convolution8 <- Convolution7
I1012 21:57:23.488836 11428 net.cpp:380] Convolution8 -> Convolution8
I1012 21:57:23.495393 11428 net.cpp:122] Setting up Convolution8
I1012 21:57:23.495404 11428 net.cpp:129] Top shape: 50 160 28 28 (6272000)
I1012 21:57:23.495409 11428 net.cpp:137] Memory required for data: 717987400
I1012 21:57:23.495412 11428 layer_factory.hpp:77] Creating layer Eltwise3
I1012 21:57:23.495422 11428 net.cpp:84] Creating Layer Eltwise3
I1012 21:57:23.495437 11428 net.cpp:406] Eltwise3 <- Convolution8
I1012 21:57:23.495453 11428 net.cpp:406] Eltwise3 <- Eltwise2_ReLU5_0_split_1
I1012 21:57:23.495460 11428 net.cpp:380] Eltwise3 -> Eltwise3
I1012 21:57:23.495496 11428 net.cpp:122] Setting up Eltwise3
I1012 21:57:23.495513 11428 net.cpp:129] Top shape: 50 160 28 28 (6272000)
I1012 21:57:23.495517 11428 net.cpp:137] Memory required for data: 743075400
I1012 21:57:23.495529 11428 layer_factory.hpp:77] Creating layer BatchNorm7
I1012 21:57:23.495535 11428 net.cpp:84] Creating Layer BatchNorm7
I1012 21:57:23.495549 11428 net.cpp:406] BatchNorm7 <- Eltwise3
I1012 21:57:23.495553 11428 net.cpp:367] BatchNorm7 -> Eltwise3 (in-place)
I1012 21:57:23.495731 11428 net.cpp:122] Setting up BatchNorm7
I1012 21:57:23.495738 11428 net.cpp:129] Top shape: 50 160 28 28 (6272000)
I1012 21:57:23.495740 11428 net.cpp:137] Memory required for data: 768163400
I1012 21:57:23.495746 11428 layer_factory.hpp:77] Creating layer Scale7
I1012 21:57:23.495762 11428 net.cpp:84] Creating Layer Scale7
I1012 21:57:23.495766 11428 net.cpp:406] Scale7 <- Eltwise3
I1012 21:57:23.495790 11428 net.cpp:367] Scale7 -> Eltwise3 (in-place)
I1012 21:57:23.495841 11428 layer_factory.hpp:77] Creating layer Scale7
I1012 21:57:23.495937 11428 net.cpp:122] Setting up Scale7
I1012 21:57:23.495944 11428 net.cpp:129] Top shape: 50 160 28 28 (6272000)
I1012 21:57:23.495962 11428 net.cpp:137] Memory required for data: 793251400
I1012 21:57:23.495967 11428 layer_factory.hpp:77] Creating layer ReLU7
I1012 21:57:23.495987 11428 net.cpp:84] Creating Layer ReLU7
I1012 21:57:23.495991 11428 net.cpp:406] ReLU7 <- Eltwise3
I1012 21:57:23.496009 11428 net.cpp:367] ReLU7 -> Eltwise3 (in-place)
I1012 21:57:23.496158 11428 net.cpp:122] Setting up ReLU7
I1012 21:57:23.496166 11428 net.cpp:129] Top shape: 50 160 28 28 (6272000)
I1012 21:57:23.496181 11428 net.cpp:137] Memory required for data: 818339400
I1012 21:57:23.496184 11428 layer_factory.hpp:77] Creating layer Eltwise3_ReLU7_0_split
I1012 21:57:23.496191 11428 net.cpp:84] Creating Layer Eltwise3_ReLU7_0_split
I1012 21:57:23.496196 11428 net.cpp:406] Eltwise3_ReLU7_0_split <- Eltwise3
I1012 21:57:23.496201 11428 net.cpp:380] Eltwise3_ReLU7_0_split -> Eltwise3_ReLU7_0_split_0
I1012 21:57:23.496206 11428 net.cpp:380] Eltwise3_ReLU7_0_split -> Eltwise3_ReLU7_0_split_1
I1012 21:57:23.496235 11428 net.cpp:122] Setting up Eltwise3_ReLU7_0_split
I1012 21:57:23.496240 11428 net.cpp:129] Top shape: 50 160 28 28 (6272000)
I1012 21:57:23.496245 11428 net.cpp:129] Top shape: 50 160 28 28 (6272000)
I1012 21:57:23.496248 11428 net.cpp:137] Memory required for data: 868515400
I1012 21:57:23.496253 11428 layer_factory.hpp:77] Creating layer Convolution9
I1012 21:57:23.496260 11428 net.cpp:84] Creating Layer Convolution9
I1012 21:57:23.496264 11428 net.cpp:406] Convolution9 <- Eltwise3_ReLU7_0_split_0
I1012 21:57:23.496271 11428 net.cpp:380] Convolution9 -> Convolution9
I1012 21:57:23.502442 11428 net.cpp:122] Setting up Convolution9
I1012 21:57:23.502452 11428 net.cpp:129] Top shape: 50 160 28 28 (6272000)
I1012 21:57:23.502459 11428 net.cpp:137] Memory required for data: 893603400
I1012 21:57:23.502465 11428 layer_factory.hpp:77] Creating layer BatchNorm8
I1012 21:57:23.502470 11428 net.cpp:84] Creating Layer BatchNorm8
I1012 21:57:23.502475 11428 net.cpp:406] BatchNorm8 <- Convolution9
I1012 21:57:23.502480 11428 net.cpp:367] BatchNorm8 -> Convolution9 (in-place)
I1012 21:57:23.502622 11428 net.cpp:122] Setting up BatchNorm8
I1012 21:57:23.502629 11428 net.cpp:129] Top shape: 50 160 28 28 (6272000)
I1012 21:57:23.502642 11428 net.cpp:137] Memory required for data: 918691400
I1012 21:57:23.502650 11428 layer_factory.hpp:77] Creating layer Scale8
I1012 21:57:23.502655 11428 net.cpp:84] Creating Layer Scale8
I1012 21:57:23.502658 11428 net.cpp:406] Scale8 <- Convolution9
I1012 21:57:23.502663 11428 net.cpp:367] Scale8 -> Convolution9 (in-place)
I1012 21:57:23.502691 11428 layer_factory.hpp:77] Creating layer Scale8
I1012 21:57:23.502771 11428 net.cpp:122] Setting up Scale8
I1012 21:57:23.502777 11428 net.cpp:129] Top shape: 50 160 28 28 (6272000)
I1012 21:57:23.502781 11428 net.cpp:137] Memory required for data: 943779400
I1012 21:57:23.502787 11428 layer_factory.hpp:77] Creating layer ReLU8
I1012 21:57:23.502794 11428 net.cpp:84] Creating Layer ReLU8
I1012 21:57:23.502797 11428 net.cpp:406] ReLU8 <- Convolution9
I1012 21:57:23.502801 11428 net.cpp:367] ReLU8 -> Convolution9 (in-place)
I1012 21:57:23.502921 11428 net.cpp:122] Setting up ReLU8
I1012 21:57:23.502929 11428 net.cpp:129] Top shape: 50 160 28 28 (6272000)
I1012 21:57:23.502933 11428 net.cpp:137] Memory required for data: 968867400
I1012 21:57:23.502938 11428 layer_factory.hpp:77] Creating layer Convolution10
I1012 21:57:23.502944 11428 net.cpp:84] Creating Layer Convolution10
I1012 21:57:23.502949 11428 net.cpp:406] Convolution10 <- Convolution9
I1012 21:57:23.502954 11428 net.cpp:380] Convolution10 -> Convolution10
I1012 21:57:23.509616 11428 net.cpp:122] Setting up Convolution10
I1012 21:57:23.509627 11428 net.cpp:129] Top shape: 50 160 28 28 (6272000)
I1012 21:57:23.509632 11428 net.cpp:137] Memory required for data: 993955400
I1012 21:57:23.509645 11428 layer_factory.hpp:77] Creating layer Eltwise4
I1012 21:57:23.509652 11428 net.cpp:84] Creating Layer Eltwise4
I1012 21:57:23.509657 11428 net.cpp:406] Eltwise4 <- Convolution10
I1012 21:57:23.509662 11428 net.cpp:406] Eltwise4 <- Eltwise3_ReLU7_0_split_1
I1012 21:57:23.509670 11428 net.cpp:380] Eltwise4 -> Eltwise4
I1012 21:57:23.509691 11428 net.cpp:122] Setting up Eltwise4
I1012 21:57:23.509697 11428 net.cpp:129] Top shape: 50 160 28 28 (6272000)
I1012 21:57:23.509701 11428 net.cpp:137] Memory required for data: 1019043400
I1012 21:57:23.509704 11428 layer_factory.hpp:77] Creating layer Eltwise4_Eltwise4_0_split
I1012 21:57:23.509711 11428 net.cpp:84] Creating Layer Eltwise4_Eltwise4_0_split
I1012 21:57:23.509716 11428 net.cpp:406] Eltwise4_Eltwise4_0_split <- Eltwise4
I1012 21:57:23.509721 11428 net.cpp:380] Eltwise4_Eltwise4_0_split -> Eltwise4_Eltwise4_0_split_0
I1012 21:57:23.509727 11428 net.cpp:380] Eltwise4_Eltwise4_0_split -> Eltwise4_Eltwise4_0_split_1
I1012 21:57:23.509752 11428 net.cpp:122] Setting up Eltwise4_Eltwise4_0_split
I1012 21:57:23.509757 11428 net.cpp:129] Top shape: 50 160 28 28 (6272000)
I1012 21:57:23.509763 11428 net.cpp:129] Top shape: 50 160 28 28 (6272000)
I1012 21:57:23.509766 11428 net.cpp:137] Memory required for data: 1069219400
I1012 21:57:23.509770 11428 layer_factory.hpp:77] Creating layer Convolution11
I1012 21:57:23.509778 11428 net.cpp:84] Creating Layer Convolution11
I1012 21:57:23.509783 11428 net.cpp:406] Convolution11 <- Eltwise4_Eltwise4_0_split_0
I1012 21:57:23.509788 11428 net.cpp:380] Convolution11 -> Convolution11
I1012 21:57:23.521868 11428 net.cpp:122] Setting up Convolution11
I1012 21:57:23.521885 11428 net.cpp:129] Top shape: 50 320 14 14 (3136000)
I1012 21:57:23.521888 11428 net.cpp:137] Memory required for data: 1081763400
I1012 21:57:23.521894 11428 layer_factory.hpp:77] Creating layer BatchNorm9
I1012 21:57:23.521914 11428 net.cpp:84] Creating Layer BatchNorm9
I1012 21:57:23.521922 11428 net.cpp:406] BatchNorm9 <- Convolution11
I1012 21:57:23.521939 11428 net.cpp:367] BatchNorm9 -> Convolution11 (in-place)
I1012 21:57:23.522112 11428 net.cpp:122] Setting up BatchNorm9
I1012 21:57:23.522119 11428 net.cpp:129] Top shape: 50 320 14 14 (3136000)
I1012 21:57:23.522122 11428 net.cpp:137] Memory required for data: 1094307400
I1012 21:57:23.522128 11428 layer_factory.hpp:77] Creating layer Scale9
I1012 21:57:23.522135 11428 net.cpp:84] Creating Layer Scale9
I1012 21:57:23.522148 11428 net.cpp:406] Scale9 <- Convolution11
I1012 21:57:23.522155 11428 net.cpp:367] Scale9 -> Convolution11 (in-place)
I1012 21:57:23.522213 11428 layer_factory.hpp:77] Creating layer Scale9
I1012 21:57:23.522337 11428 net.cpp:122] Setting up Scale9
I1012 21:57:23.522343 11428 net.cpp:129] Top shape: 50 320 14 14 (3136000)
I1012 21:57:23.522346 11428 net.cpp:137] Memory required for data: 1106851400
I1012 21:57:23.522351 11428 layer_factory.hpp:77] Creating layer ReLU9
I1012 21:57:23.522357 11428 net.cpp:84] Creating Layer ReLU9
I1012 21:57:23.522361 11428 net.cpp:406] ReLU9 <- Convolution11
I1012 21:57:23.522374 11428 net.cpp:367] ReLU9 -> Convolution11 (in-place)
I1012 21:57:23.522517 11428 net.cpp:122] Setting up ReLU9
I1012 21:57:23.522526 11428 net.cpp:129] Top shape: 50 320 14 14 (3136000)
I1012 21:57:23.522538 11428 net.cpp:137] Memory required for data: 1119395400
I1012 21:57:23.522541 11428 layer_factory.hpp:77] Creating layer Convolution12
I1012 21:57:23.522550 11428 net.cpp:84] Creating Layer Convolution12
I1012 21:57:23.522555 11428 net.cpp:406] Convolution12 <- Convolution11
I1012 21:57:23.522560 11428 net.cpp:380] Convolution12 -> Convolution12
I1012 21:57:23.544039 11428 net.cpp:122] Setting up Convolution12
I1012 21:57:23.544051 11428 net.cpp:129] Top shape: 50 320 14 14 (3136000)
I1012 21:57:23.544055 11428 net.cpp:137] Memory required for data: 1131939400
I1012 21:57:23.544060 11428 layer_factory.hpp:77] Creating layer Convolution13
I1012 21:57:23.544070 11428 net.cpp:84] Creating Layer Convolution13
I1012 21:57:23.544095 11428 net.cpp:406] Convolution13 <- Eltwise4_Eltwise4_0_split_1
I1012 21:57:23.544103 11428 net.cpp:380] Convolution13 -> Convolution13
I1012 21:57:23.546331 11428 net.cpp:122] Setting up Convolution13
I1012 21:57:23.546344 11428 net.cpp:129] Top shape: 50 320 14 14 (3136000)
I1012 21:57:23.546347 11428 net.cpp:137] Memory required for data: 1144483400
I1012 21:57:23.546352 11428 layer_factory.hpp:77] Creating layer Eltwise5
I1012 21:57:23.546360 11428 net.cpp:84] Creating Layer Eltwise5
I1012 21:57:23.546362 11428 net.cpp:406] Eltwise5 <- Convolution12
I1012 21:57:23.546377 11428 net.cpp:406] Eltwise5 <- Convolution13
I1012 21:57:23.546394 11428 net.cpp:380] Eltwise5 -> Eltwise5
I1012 21:57:23.546430 11428 net.cpp:122] Setting up Eltwise5
I1012 21:57:23.546452 11428 net.cpp:129] Top shape: 50 320 14 14 (3136000)
I1012 21:57:23.546455 11428 net.cpp:137] Memory required for data: 1157027400
I1012 21:57:23.546458 11428 layer_factory.hpp:77] Creating layer BatchNorm10
I1012 21:57:23.546473 11428 net.cpp:84] Creating Layer BatchNorm10
I1012 21:57:23.546478 11428 net.cpp:406] BatchNorm10 <- Eltwise5
I1012 21:57:23.546491 11428 net.cpp:367] BatchNorm10 -> Eltwise5 (in-place)
I1012 21:57:23.546669 11428 net.cpp:122] Setting up BatchNorm10
I1012 21:57:23.546675 11428 net.cpp:129] Top shape: 50 320 14 14 (3136000)
I1012 21:57:23.546679 11428 net.cpp:137] Memory required for data: 1169571400
I1012 21:57:23.546684 11428 layer_factory.hpp:77] Creating layer Scale10
I1012 21:57:23.546690 11428 net.cpp:84] Creating Layer Scale10
I1012 21:57:23.546694 11428 net.cpp:406] Scale10 <- Eltwise5
I1012 21:57:23.546708 11428 net.cpp:367] Scale10 -> Eltwise5 (in-place)
I1012 21:57:23.546773 11428 layer_factory.hpp:77] Creating layer Scale10
I1012 21:57:23.546856 11428 net.cpp:122] Setting up Scale10
I1012 21:57:23.546864 11428 net.cpp:129] Top shape: 50 320 14 14 (3136000)
I1012 21:57:23.546866 11428 net.cpp:137] Memory required for data: 1182115400
I1012 21:57:23.546872 11428 layer_factory.hpp:77] Creating layer ReLU10
I1012 21:57:23.546878 11428 net.cpp:84] Creating Layer ReLU10
I1012 21:57:23.546881 11428 net.cpp:406] ReLU10 <- Eltwise5
I1012 21:57:23.546896 11428 net.cpp:367] ReLU10 -> Eltwise5 (in-place)
I1012 21:57:23.547412 11428 net.cpp:122] Setting up ReLU10
I1012 21:57:23.547422 11428 net.cpp:129] Top shape: 50 320 14 14 (3136000)
I1012 21:57:23.547427 11428 net.cpp:137] Memory required for data: 1194659400
I1012 21:57:23.547431 11428 layer_factory.hpp:77] Creating layer Eltwise5_ReLU10_0_split
I1012 21:57:23.547437 11428 net.cpp:84] Creating Layer Eltwise5_ReLU10_0_split
I1012 21:57:23.547441 11428 net.cpp:406] Eltwise5_ReLU10_0_split <- Eltwise5
I1012 21:57:23.547448 11428 net.cpp:380] Eltwise5_ReLU10_0_split -> Eltwise5_ReLU10_0_split_0
I1012 21:57:23.547456 11428 net.cpp:380] Eltwise5_ReLU10_0_split -> Eltwise5_ReLU10_0_split_1
I1012 21:57:23.547487 11428 net.cpp:122] Setting up Eltwise5_ReLU10_0_split
I1012 21:57:23.547494 11428 net.cpp:129] Top shape: 50 320 14 14 (3136000)
I1012 21:57:23.547499 11428 net.cpp:129] Top shape: 50 320 14 14 (3136000)
I1012 21:57:23.547503 11428 net.cpp:137] Memory required for data: 1219747400
I1012 21:57:23.547507 11428 layer_factory.hpp:77] Creating layer Convolution14
I1012 21:57:23.547514 11428 net.cpp:84] Creating Layer Convolution14
I1012 21:57:23.547519 11428 net.cpp:406] Convolution14 <- Eltwise5_ReLU10_0_split_0
I1012 21:57:23.547526 11428 net.cpp:380] Convolution14 -> Convolution14
I1012 21:57:23.569380 11428 net.cpp:122] Setting up Convolution14
I1012 21:57:23.569394 11428 net.cpp:129] Top shape: 50 320 14 14 (3136000)
I1012 21:57:23.569398 11428 net.cpp:137] Memory required for data: 1232291400
I1012 21:57:23.569422 11428 layer_factory.hpp:77] Creating layer BatchNorm11
I1012 21:57:23.569432 11428 net.cpp:84] Creating Layer BatchNorm11
I1012 21:57:23.569437 11428 net.cpp:406] BatchNorm11 <- Convolution14
I1012 21:57:23.569443 11428 net.cpp:367] BatchNorm11 -> Convolution14 (in-place)
I1012 21:57:23.569605 11428 net.cpp:122] Setting up BatchNorm11
I1012 21:57:23.569612 11428 net.cpp:129] Top shape: 50 320 14 14 (3136000)
I1012 21:57:23.569638 11428 net.cpp:137] Memory required for data: 1244835400
I1012 21:57:23.569654 11428 layer_factory.hpp:77] Creating layer Scale11
I1012 21:57:23.569675 11428 net.cpp:84] Creating Layer Scale11
I1012 21:57:23.569680 11428 net.cpp:406] Scale11 <- Convolution14
I1012 21:57:23.569685 11428 net.cpp:367] Scale11 -> Convolution14 (in-place)
I1012 21:57:23.569730 11428 layer_factory.hpp:77] Creating layer Scale11
I1012 21:57:23.569811 11428 net.cpp:122] Setting up Scale11
I1012 21:57:23.569818 11428 net.cpp:129] Top shape: 50 320 14 14 (3136000)
I1012 21:57:23.569821 11428 net.cpp:137] Memory required for data: 1257379400
I1012 21:57:23.569828 11428 layer_factory.hpp:77] Creating layer ReLU11
I1012 21:57:23.569833 11428 net.cpp:84] Creating Layer ReLU11
I1012 21:57:23.569838 11428 net.cpp:406] ReLU11 <- Convolution14
I1012 21:57:23.569842 11428 net.cpp:367] ReLU11 -> Convolution14 (in-place)
I1012 21:57:23.570322 11428 net.cpp:122] Setting up ReLU11
I1012 21:57:23.570332 11428 net.cpp:129] Top shape: 50 320 14 14 (3136000)
I1012 21:57:23.570335 11428 net.cpp:137] Memory required for data: 1269923400
I1012 21:57:23.570339 11428 layer_factory.hpp:77] Creating layer Convolution15
I1012 21:57:23.570348 11428 net.cpp:84] Creating Layer Convolution15
I1012 21:57:23.570353 11428 net.cpp:406] Convolution15 <- Convolution14
I1012 21:57:23.570358 11428 net.cpp:380] Convolution15 -> Convolution15
I1012 21:57:23.592736 11428 net.cpp:122] Setting up Convolution15
I1012 21:57:23.592754 11428 net.cpp:129] Top shape: 50 320 14 14 (3136000)
I1012 21:57:23.592758 11428 net.cpp:137] Memory required for data: 1282467400
I1012 21:57:23.592774 11428 layer_factory.hpp:77] Creating layer Eltwise6
I1012 21:57:23.592792 11428 net.cpp:84] Creating Layer Eltwise6
I1012 21:57:23.592798 11428 net.cpp:406] Eltwise6 <- Convolution15
I1012 21:57:23.592813 11428 net.cpp:406] Eltwise6 <- Eltwise5_ReLU10_0_split_1
I1012 21:57:23.592819 11428 net.cpp:380] Eltwise6 -> Eltwise6
I1012 21:57:23.592844 11428 net.cpp:122] Setting up Eltwise6
I1012 21:57:23.592859 11428 net.cpp:129] Top shape: 50 320 14 14 (3136000)
I1012 21:57:23.592872 11428 net.cpp:137] Memory required for data: 1295011400
I1012 21:57:23.592875 11428 layer_factory.hpp:77] Creating layer BatchNorm12
I1012 21:57:23.592890 11428 net.cpp:84] Creating Layer BatchNorm12
I1012 21:57:23.592895 11428 net.cpp:406] BatchNorm12 <- Eltwise6
I1012 21:57:23.592909 11428 net.cpp:367] BatchNorm12 -> Eltwise6 (in-place)
I1012 21:57:23.593068 11428 net.cpp:122] Setting up BatchNorm12
I1012 21:57:23.593075 11428 net.cpp:129] Top shape: 50 320 14 14 (3136000)
I1012 21:57:23.593078 11428 net.cpp:137] Memory required for data: 1307555400
I1012 21:57:23.593085 11428 layer_factory.hpp:77] Creating layer Scale12
I1012 21:57:23.593091 11428 net.cpp:84] Creating Layer Scale12
I1012 21:57:23.593093 11428 net.cpp:406] Scale12 <- Eltwise6
I1012 21:57:23.593107 11428 net.cpp:367] Scale12 -> Eltwise6 (in-place)
I1012 21:57:23.593161 11428 layer_factory.hpp:77] Creating layer Scale12
I1012 21:57:23.593264 11428 net.cpp:122] Setting up Scale12
I1012 21:57:23.593271 11428 net.cpp:129] Top shape: 50 320 14 14 (3136000)
I1012 21:57:23.593284 11428 net.cpp:137] Memory required for data: 1320099400
I1012 21:57:23.593291 11428 layer_factory.hpp:77] Creating layer ReLU12
I1012 21:57:23.593297 11428 net.cpp:84] Creating Layer ReLU12
I1012 21:57:23.593300 11428 net.cpp:406] ReLU12 <- Eltwise6
I1012 21:57:23.593305 11428 net.cpp:367] ReLU12 -> Eltwise6 (in-place)
I1012 21:57:23.593441 11428 net.cpp:122] Setting up ReLU12
I1012 21:57:23.593447 11428 net.cpp:129] Top shape: 50 320 14 14 (3136000)
I1012 21:57:23.593451 11428 net.cpp:137] Memory required for data: 1332643400
I1012 21:57:23.593466 11428 layer_factory.hpp:77] Creating layer Eltwise6_ReLU12_0_split
I1012 21:57:23.593477 11428 net.cpp:84] Creating Layer Eltwise6_ReLU12_0_split
I1012 21:57:23.593482 11428 net.cpp:406] Eltwise6_ReLU12_0_split <- Eltwise6
I1012 21:57:23.593497 11428 net.cpp:380] Eltwise6_ReLU12_0_split -> Eltwise6_ReLU12_0_split_0
I1012 21:57:23.593523 11428 net.cpp:380] Eltwise6_ReLU12_0_split -> Eltwise6_ReLU12_0_split_1
I1012 21:57:23.593556 11428 net.cpp:122] Setting up Eltwise6_ReLU12_0_split
I1012 21:57:23.593562 11428 net.cpp:129] Top shape: 50 320 14 14 (3136000)
I1012 21:57:23.593567 11428 net.cpp:129] Top shape: 50 320 14 14 (3136000)
I1012 21:57:23.593570 11428 net.cpp:137] Memory required for data: 1357731400
I1012 21:57:23.593575 11428 layer_factory.hpp:77] Creating layer Convolution16
I1012 21:57:23.593585 11428 net.cpp:84] Creating Layer Convolution16
I1012 21:57:23.593590 11428 net.cpp:406] Convolution16 <- Eltwise6_ReLU12_0_split_0
I1012 21:57:23.593595 11428 net.cpp:380] Convolution16 -> Convolution16
I1012 21:57:23.616051 11428 net.cpp:122] Setting up Convolution16
I1012 21:57:23.616068 11428 net.cpp:129] Top shape: 50 320 14 14 (3136000)
I1012 21:57:23.616072 11428 net.cpp:137] Memory required for data: 1370275400
I1012 21:57:23.616088 11428 layer_factory.hpp:77] Creating layer BatchNorm13
I1012 21:57:23.616109 11428 net.cpp:84] Creating Layer BatchNorm13
I1012 21:57:23.616116 11428 net.cpp:406] BatchNorm13 <- Convolution16
I1012 21:57:23.616130 11428 net.cpp:367] BatchNorm13 -> Convolution16 (in-place)
I1012 21:57:23.616320 11428 net.cpp:122] Setting up BatchNorm13
I1012 21:57:23.616328 11428 net.cpp:129] Top shape: 50 320 14 14 (3136000)
I1012 21:57:23.616330 11428 net.cpp:137] Memory required for data: 1382819400
I1012 21:57:23.616336 11428 layer_factory.hpp:77] Creating layer Scale13
I1012 21:57:23.616343 11428 net.cpp:84] Creating Layer Scale13
I1012 21:57:23.616356 11428 net.cpp:406] Scale13 <- Convolution16
I1012 21:57:23.616363 11428 net.cpp:367] Scale13 -> Convolution16 (in-place)
I1012 21:57:23.616422 11428 layer_factory.hpp:77] Creating layer Scale13
I1012 21:57:23.616559 11428 net.cpp:122] Setting up Scale13
I1012 21:57:23.616564 11428 net.cpp:129] Top shape: 50 320 14 14 (3136000)
I1012 21:57:23.616578 11428 net.cpp:137] Memory required for data: 1395363400
I1012 21:57:23.616585 11428 layer_factory.hpp:77] Creating layer ReLU13
I1012 21:57:23.616603 11428 net.cpp:84] Creating Layer ReLU13
I1012 21:57:23.616607 11428 net.cpp:406] ReLU13 <- Convolution16
I1012 21:57:23.616621 11428 net.cpp:367] ReLU13 -> Convolution16 (in-place)
I1012 21:57:23.616799 11428 net.cpp:122] Setting up ReLU13
I1012 21:57:23.616807 11428 net.cpp:129] Top shape: 50 320 14 14 (3136000)
I1012 21:57:23.616827 11428 net.cpp:137] Memory required for data: 1407907400
I1012 21:57:23.616829 11428 layer_factory.hpp:77] Creating layer Convolution17
I1012 21:57:23.616849 11428 net.cpp:84] Creating Layer Convolution17
I1012 21:57:23.616853 11428 net.cpp:406] Convolution17 <- Convolution16
I1012 21:57:23.616859 11428 net.cpp:380] Convolution17 -> Convolution17
I1012 21:57:23.639837 11428 net.cpp:122] Setting up Convolution17
I1012 21:57:23.639856 11428 net.cpp:129] Top shape: 50 320 14 14 (3136000)
I1012 21:57:23.639860 11428 net.cpp:137] Memory required for data: 1420451400
I1012 21:57:23.639866 11428 layer_factory.hpp:77] Creating layer Eltwise7
I1012 21:57:23.639886 11428 net.cpp:84] Creating Layer Eltwise7
I1012 21:57:23.639891 11428 net.cpp:406] Eltwise7 <- Convolution17
I1012 21:57:23.639906 11428 net.cpp:406] Eltwise7 <- Eltwise6_ReLU12_0_split_1
I1012 21:57:23.639914 11428 net.cpp:380] Eltwise7 -> Eltwise7
I1012 21:57:23.639961 11428 net.cpp:122] Setting up Eltwise7
I1012 21:57:23.639967 11428 net.cpp:129] Top shape: 50 320 14 14 (3136000)
I1012 21:57:23.639971 11428 net.cpp:137] Memory required for data: 1432995400
I1012 21:57:23.639973 11428 layer_factory.hpp:77] Creating layer BatchNorm14
I1012 21:57:23.639981 11428 net.cpp:84] Creating Layer BatchNorm14
I1012 21:57:23.639983 11428 net.cpp:406] BatchNorm14 <- Eltwise7
I1012 21:57:23.639998 11428 net.cpp:367] BatchNorm14 -> Eltwise7 (in-place)
I1012 21:57:23.640187 11428 net.cpp:122] Setting up BatchNorm14
I1012 21:57:23.640192 11428 net.cpp:129] Top shape: 50 320 14 14 (3136000)
I1012 21:57:23.640195 11428 net.cpp:137] Memory required for data: 1445539400
I1012 21:57:23.640221 11428 layer_factory.hpp:77] Creating layer Scale14
I1012 21:57:23.640229 11428 net.cpp:84] Creating Layer Scale14
I1012 21:57:23.640249 11428 net.cpp:406] Scale14 <- Eltwise7
I1012 21:57:23.640252 11428 net.cpp:367] Scale14 -> Eltwise7 (in-place)
I1012 21:57:23.640308 11428 layer_factory.hpp:77] Creating layer Scale14
I1012 21:57:23.640413 11428 net.cpp:122] Setting up Scale14
I1012 21:57:23.640419 11428 net.cpp:129] Top shape: 50 320 14 14 (3136000)
I1012 21:57:23.640432 11428 net.cpp:137] Memory required for data: 1458083400
I1012 21:57:23.640437 11428 layer_factory.hpp:77] Creating layer ReLU14
I1012 21:57:23.640444 11428 net.cpp:84] Creating Layer ReLU14
I1012 21:57:23.640449 11428 net.cpp:406] ReLU14 <- Eltwise7
I1012 21:57:23.640452 11428 net.cpp:367] ReLU14 -> Eltwise7 (in-place)
I1012 21:57:23.640620 11428 net.cpp:122] Setting up ReLU14
I1012 21:57:23.640628 11428 net.cpp:129] Top shape: 50 320 14 14 (3136000)
I1012 21:57:23.640632 11428 net.cpp:137] Memory required for data: 1470627400
I1012 21:57:23.640635 11428 layer_factory.hpp:77] Creating layer Eltwise7_ReLU14_0_split
I1012 21:57:23.640641 11428 net.cpp:84] Creating Layer Eltwise7_ReLU14_0_split
I1012 21:57:23.640645 11428 net.cpp:406] Eltwise7_ReLU14_0_split <- Eltwise7
I1012 21:57:23.640650 11428 net.cpp:380] Eltwise7_ReLU14_0_split -> Eltwise7_ReLU14_0_split_0
I1012 21:57:23.640655 11428 net.cpp:380] Eltwise7_ReLU14_0_split -> Eltwise7_ReLU14_0_split_1
I1012 21:57:23.640687 11428 net.cpp:122] Setting up Eltwise7_ReLU14_0_split
I1012 21:57:23.640693 11428 net.cpp:129] Top shape: 50 320 14 14 (3136000)
I1012 21:57:23.640698 11428 net.cpp:129] Top shape: 50 320 14 14 (3136000)
I1012 21:57:23.640702 11428 net.cpp:137] Memory required for data: 1495715400
I1012 21:57:23.640707 11428 layer_factory.hpp:77] Creating layer Convolution18
I1012 21:57:23.640715 11428 net.cpp:84] Creating Layer Convolution18
I1012 21:57:23.640719 11428 net.cpp:406] Convolution18 <- Eltwise7_ReLU14_0_split_0
I1012 21:57:23.640727 11428 net.cpp:380] Convolution18 -> Convolution18
I1012 21:57:23.662577 11428 net.cpp:122] Setting up Convolution18
I1012 21:57:23.662590 11428 net.cpp:129] Top shape: 50 320 14 14 (3136000)
I1012 21:57:23.662592 11428 net.cpp:137] Memory required for data: 1508259400
I1012 21:57:23.662609 11428 layer_factory.hpp:77] Creating layer BatchNorm15
I1012 21:57:23.662627 11428 net.cpp:84] Creating Layer BatchNorm15
I1012 21:57:23.662632 11428 net.cpp:406] BatchNorm15 <- Convolution18
I1012 21:57:23.662638 11428 net.cpp:367] BatchNorm15 -> Convolution18 (in-place)
I1012 21:57:23.662812 11428 net.cpp:122] Setting up BatchNorm15
I1012 21:57:23.662819 11428 net.cpp:129] Top shape: 50 320 14 14 (3136000)
I1012 21:57:23.662833 11428 net.cpp:137] Memory required for data: 1520803400
I1012 21:57:23.662840 11428 layer_factory.hpp:77] Creating layer Scale15
I1012 21:57:23.662858 11428 net.cpp:84] Creating Layer Scale15
I1012 21:57:23.662861 11428 net.cpp:406] Scale15 <- Convolution18
I1012 21:57:23.662866 11428 net.cpp:367] Scale15 -> Convolution18 (in-place)
I1012 21:57:23.662910 11428 layer_factory.hpp:77] Creating layer Scale15
I1012 21:57:23.662997 11428 net.cpp:122] Setting up Scale15
I1012 21:57:23.663002 11428 net.cpp:129] Top shape: 50 320 14 14 (3136000)
I1012 21:57:23.663007 11428 net.cpp:137] Memory required for data: 1533347400
I1012 21:57:23.663012 11428 layer_factory.hpp:77] Creating layer ReLU15
I1012 21:57:23.663018 11428 net.cpp:84] Creating Layer ReLU15
I1012 21:57:23.663023 11428 net.cpp:406] ReLU15 <- Convolution18
I1012 21:57:23.663028 11428 net.cpp:367] ReLU15 -> Convolution18 (in-place)
I1012 21:57:23.663149 11428 net.cpp:122] Setting up ReLU15
I1012 21:57:23.663157 11428 net.cpp:129] Top shape: 50 320 14 14 (3136000)
I1012 21:57:23.663161 11428 net.cpp:137] Memory required for data: 1545891400
I1012 21:57:23.663166 11428 layer_factory.hpp:77] Creating layer Convolution19
I1012 21:57:23.663173 11428 net.cpp:84] Creating Layer Convolution19
I1012 21:57:23.663177 11428 net.cpp:406] Convolution19 <- Convolution18
I1012 21:57:23.663183 11428 net.cpp:380] Convolution19 -> Convolution19
I1012 21:57:23.685451 11428 net.cpp:122] Setting up Convolution19
I1012 21:57:23.685472 11428 net.cpp:129] Top shape: 50 320 14 14 (3136000)
I1012 21:57:23.685477 11428 net.cpp:137] Memory required for data: 1558435400
I1012 21:57:23.685493 11428 layer_factory.hpp:77] Creating layer Eltwise8
I1012 21:57:23.685518 11428 net.cpp:84] Creating Layer Eltwise8
I1012 21:57:23.685523 11428 net.cpp:406] Eltwise8 <- Convolution19
I1012 21:57:23.685529 11428 net.cpp:406] Eltwise8 <- Eltwise7_ReLU14_0_split_1
I1012 21:57:23.685535 11428 net.cpp:380] Eltwise8 -> Eltwise8
I1012 21:57:23.685571 11428 net.cpp:122] Setting up Eltwise8
I1012 21:57:23.685586 11428 net.cpp:129] Top shape: 50 320 14 14 (3136000)
I1012 21:57:23.685590 11428 net.cpp:137] Memory required for data: 1570979400
I1012 21:57:23.685595 11428 layer_factory.hpp:77] Creating layer Eltwise8_Eltwise8_0_split
I1012 21:57:23.685611 11428 net.cpp:84] Creating Layer Eltwise8_Eltwise8_0_split
I1012 21:57:23.685626 11428 net.cpp:406] Eltwise8_Eltwise8_0_split <- Eltwise8
I1012 21:57:23.685631 11428 net.cpp:380] Eltwise8_Eltwise8_0_split -> Eltwise8_Eltwise8_0_split_0
I1012 21:57:23.685637 11428 net.cpp:380] Eltwise8_Eltwise8_0_split -> Eltwise8_Eltwise8_0_split_1
I1012 21:57:23.685667 11428 net.cpp:122] Setting up Eltwise8_Eltwise8_0_split
I1012 21:57:23.685680 11428 net.cpp:129] Top shape: 50 320 14 14 (3136000)
I1012 21:57:23.685685 11428 net.cpp:129] Top shape: 50 320 14 14 (3136000)
I1012 21:57:23.685699 11428 net.cpp:137] Memory required for data: 1596067400
I1012 21:57:23.685703 11428 layer_factory.hpp:77] Creating layer Convolution20
I1012 21:57:23.685714 11428 net.cpp:84] Creating Layer Convolution20
I1012 21:57:23.685719 11428 net.cpp:406] Convolution20 <- Eltwise8_Eltwise8_0_split_0
I1012 21:57:23.685724 11428 net.cpp:380] Convolution20 -> Convolution20
I1012 21:57:23.728250 11428 net.cpp:122] Setting up Convolution20
I1012 21:57:23.728271 11428 net.cpp:129] Top shape: 50 640 7 7 (1568000)
I1012 21:57:23.728276 11428 net.cpp:137] Memory required for data: 1602339400
I1012 21:57:23.728281 11428 layer_factory.hpp:77] Creating layer BatchNorm16
I1012 21:57:23.728302 11428 net.cpp:84] Creating Layer BatchNorm16
I1012 21:57:23.728307 11428 net.cpp:406] BatchNorm16 <- Convolution20
I1012 21:57:23.728313 11428 net.cpp:367] BatchNorm16 -> Convolution20 (in-place)
I1012 21:57:23.728504 11428 net.cpp:122] Setting up BatchNorm16
I1012 21:57:23.728512 11428 net.cpp:129] Top shape: 50 640 7 7 (1568000)
I1012 21:57:23.728514 11428 net.cpp:137] Memory required for data: 1608611400
I1012 21:57:23.728520 11428 layer_factory.hpp:77] Creating layer Scale16
I1012 21:57:23.728536 11428 net.cpp:84] Creating Layer Scale16
I1012 21:57:23.728540 11428 net.cpp:406] Scale16 <- Convolution20
I1012 21:57:23.728545 11428 net.cpp:367] Scale16 -> Convolution20 (in-place)
I1012 21:57:23.728585 11428 layer_factory.hpp:77] Creating layer Scale16
I1012 21:57:23.728688 11428 net.cpp:122] Setting up Scale16
I1012 21:57:23.728694 11428 net.cpp:129] Top shape: 50 640 7 7 (1568000)
I1012 21:57:23.728708 11428 net.cpp:137] Memory required for data: 1614883400
I1012 21:57:23.728713 11428 layer_factory.hpp:77] Creating layer ReLU16
I1012 21:57:23.728718 11428 net.cpp:84] Creating Layer ReLU16
I1012 21:57:23.728721 11428 net.cpp:406] ReLU16 <- Convolution20
I1012 21:57:23.728739 11428 net.cpp:367] ReLU16 -> Convolution20 (in-place)
I1012 21:57:23.728899 11428 net.cpp:122] Setting up ReLU16
I1012 21:57:23.728905 11428 net.cpp:129] Top shape: 50 640 7 7 (1568000)
I1012 21:57:23.728919 11428 net.cpp:137] Memory required for data: 1621155400
I1012 21:57:23.728922 11428 layer_factory.hpp:77] Creating layer Convolution21
I1012 21:57:23.728940 11428 net.cpp:84] Creating Layer Convolution21
I1012 21:57:23.728945 11428 net.cpp:406] Convolution21 <- Convolution20
I1012 21:57:23.728950 11428 net.cpp:380] Convolution21 -> Convolution21
I1012 21:57:23.812549 11428 net.cpp:122] Setting up Convolution21
I1012 21:57:23.812582 11428 net.cpp:129] Top shape: 50 640 7 7 (1568000)
I1012 21:57:23.812610 11428 net.cpp:137] Memory required for data: 1627427400
I1012 21:57:23.812618 11428 layer_factory.hpp:77] Creating layer Convolution22
I1012 21:57:23.812633 11428 net.cpp:84] Creating Layer Convolution22
I1012 21:57:23.812647 11428 net.cpp:406] Convolution22 <- Eltwise8_Eltwise8_0_split_1
I1012 21:57:23.812654 11428 net.cpp:380] Convolution22 -> Convolution22
I1012 21:57:23.817971 11428 net.cpp:122] Setting up Convolution22
I1012 21:57:23.817993 11428 net.cpp:129] Top shape: 50 640 7 7 (1568000)
I1012 21:57:23.817997 11428 net.cpp:137] Memory required for data: 1633699400
I1012 21:57:23.818002 11428 layer_factory.hpp:77] Creating layer Eltwise9
I1012 21:57:23.818018 11428 net.cpp:84] Creating Layer Eltwise9
I1012 21:57:23.818023 11428 net.cpp:406] Eltwise9 <- Convolution21
I1012 21:57:23.818027 11428 net.cpp:406] Eltwise9 <- Convolution22
I1012 21:57:23.818033 11428 net.cpp:380] Eltwise9 -> Eltwise9
I1012 21:57:23.818063 11428 net.cpp:122] Setting up Eltwise9
I1012 21:57:23.818069 11428 net.cpp:129] Top shape: 50 640 7 7 (1568000)
I1012 21:57:23.818084 11428 net.cpp:137] Memory required for data: 1639971400
I1012 21:57:23.818086 11428 layer_factory.hpp:77] Creating layer BatchNorm17
I1012 21:57:23.818101 11428 net.cpp:84] Creating Layer BatchNorm17
I1012 21:57:23.818105 11428 net.cpp:406] BatchNorm17 <- Eltwise9
I1012 21:57:23.818120 11428 net.cpp:367] BatchNorm17 -> Eltwise9 (in-place)
I1012 21:57:23.818285 11428 net.cpp:122] Setting up BatchNorm17
I1012 21:57:23.818292 11428 net.cpp:129] Top shape: 50 640 7 7 (1568000)
I1012 21:57:23.818305 11428 net.cpp:137] Memory required for data: 1646243400
I1012 21:57:23.818311 11428 layer_factory.hpp:77] Creating layer Scale17
I1012 21:57:23.818328 11428 net.cpp:84] Creating Layer Scale17
I1012 21:57:23.818332 11428 net.cpp:406] Scale17 <- Eltwise9
I1012 21:57:23.818338 11428 net.cpp:367] Scale17 -> Eltwise9 (in-place)
I1012 21:57:23.818377 11428 layer_factory.hpp:77] Creating layer Scale17
I1012 21:57:23.818481 11428 net.cpp:122] Setting up Scale17
I1012 21:57:23.818488 11428 net.cpp:129] Top shape: 50 640 7 7 (1568000)
I1012 21:57:23.818491 11428 net.cpp:137] Memory required for data: 1652515400
I1012 21:57:23.818507 11428 layer_factory.hpp:77] Creating layer ReLU17
I1012 21:57:23.818516 11428 net.cpp:84] Creating Layer ReLU17
I1012 21:57:23.818519 11428 net.cpp:406] ReLU17 <- Eltwise9
I1012 21:57:23.818524 11428 net.cpp:367] ReLU17 -> Eltwise9 (in-place)
I1012 21:57:23.818992 11428 net.cpp:122] Setting up ReLU17
I1012 21:57:23.819002 11428 net.cpp:129] Top shape: 50 640 7 7 (1568000)
I1012 21:57:23.819018 11428 net.cpp:137] Memory required for data: 1658787400
I1012 21:57:23.819022 11428 layer_factory.hpp:77] Creating layer Eltwise9_ReLU17_0_split
I1012 21:57:23.819028 11428 net.cpp:84] Creating Layer Eltwise9_ReLU17_0_split
I1012 21:57:23.819033 11428 net.cpp:406] Eltwise9_ReLU17_0_split <- Eltwise9
I1012 21:57:23.819038 11428 net.cpp:380] Eltwise9_ReLU17_0_split -> Eltwise9_ReLU17_0_split_0
I1012 21:57:23.819046 11428 net.cpp:380] Eltwise9_ReLU17_0_split -> Eltwise9_ReLU17_0_split_1
I1012 21:57:23.819088 11428 net.cpp:122] Setting up Eltwise9_ReLU17_0_split
I1012 21:57:23.819094 11428 net.cpp:129] Top shape: 50 640 7 7 (1568000)
I1012 21:57:23.819099 11428 net.cpp:129] Top shape: 50 640 7 7 (1568000)
I1012 21:57:23.819113 11428 net.cpp:137] Memory required for data: 1671331400
I1012 21:57:23.819118 11428 layer_factory.hpp:77] Creating layer Convolution23
I1012 21:57:23.819124 11428 net.cpp:84] Creating Layer Convolution23
I1012 21:57:23.819129 11428 net.cpp:406] Convolution23 <- Eltwise9_ReLU17_0_split_0
I1012 21:57:23.819135 11428 net.cpp:380] Convolution23 -> Convolution23
I1012 21:57:23.902199 11428 net.cpp:122] Setting up Convolution23
I1012 21:57:23.902225 11428 net.cpp:129] Top shape: 50 640 7 7 (1568000)
I1012 21:57:23.902227 11428 net.cpp:137] Memory required for data: 1677603400
I1012 21:57:23.902235 11428 layer_factory.hpp:77] Creating layer BatchNorm18
I1012 21:57:23.902256 11428 net.cpp:84] Creating Layer BatchNorm18
I1012 21:57:23.902261 11428 net.cpp:406] BatchNorm18 <- Convolution23
I1012 21:57:23.902298 11428 net.cpp:367] BatchNorm18 -> Convolution23 (in-place)
I1012 21:57:23.902463 11428 net.cpp:122] Setting up BatchNorm18
I1012 21:57:23.902470 11428 net.cpp:129] Top shape: 50 640 7 7 (1568000)
I1012 21:57:23.902473 11428 net.cpp:137] Memory required for data: 1683875400
I1012 21:57:23.902479 11428 layer_factory.hpp:77] Creating layer Scale18
I1012 21:57:23.902487 11428 net.cpp:84] Creating Layer Scale18
I1012 21:57:23.902500 11428 net.cpp:406] Scale18 <- Convolution23
I1012 21:57:23.902505 11428 net.cpp:367] Scale18 -> Convolution23 (in-place)
I1012 21:57:23.902567 11428 layer_factory.hpp:77] Creating layer Scale18
I1012 21:57:23.902693 11428 net.cpp:122] Setting up Scale18
I1012 21:57:23.902699 11428 net.cpp:129] Top shape: 50 640 7 7 (1568000)
I1012 21:57:23.902712 11428 net.cpp:137] Memory required for data: 1690147400
I1012 21:57:23.902717 11428 layer_factory.hpp:77] Creating layer ReLU18
I1012 21:57:23.902722 11428 net.cpp:84] Creating Layer ReLU18
I1012 21:57:23.902739 11428 net.cpp:406] ReLU18 <- Convolution23
I1012 21:57:23.902743 11428 net.cpp:367] ReLU18 -> Convolution23 (in-place)
I1012 21:57:23.903342 11428 net.cpp:122] Setting up ReLU18
I1012 21:57:23.903352 11428 net.cpp:129] Top shape: 50 640 7 7 (1568000)
I1012 21:57:23.903354 11428 net.cpp:137] Memory required for data: 1696419400
I1012 21:57:23.903358 11428 layer_factory.hpp:77] Creating layer Convolution24
I1012 21:57:23.903367 11428 net.cpp:84] Creating Layer Convolution24
I1012 21:57:23.903380 11428 net.cpp:406] Convolution24 <- Convolution23
I1012 21:57:23.903388 11428 net.cpp:380] Convolution24 -> Convolution24
I1012 21:57:23.986889 11428 net.cpp:122] Setting up Convolution24
I1012 21:57:23.986912 11428 net.cpp:129] Top shape: 50 640 7 7 (1568000)
I1012 21:57:23.986915 11428 net.cpp:137] Memory required for data: 1702691400
I1012 21:57:23.986922 11428 layer_factory.hpp:77] Creating layer Eltwise10
I1012 21:57:23.986943 11428 net.cpp:84] Creating Layer Eltwise10
I1012 21:57:23.986948 11428 net.cpp:406] Eltwise10 <- Convolution24
I1012 21:57:23.986954 11428 net.cpp:406] Eltwise10 <- Eltwise9_ReLU17_0_split_1
I1012 21:57:23.986960 11428 net.cpp:380] Eltwise10 -> Eltwise10
I1012 21:57:23.986985 11428 net.cpp:122] Setting up Eltwise10
I1012 21:57:23.987000 11428 net.cpp:129] Top shape: 50 640 7 7 (1568000)
I1012 21:57:23.987004 11428 net.cpp:137] Memory required for data: 1708963400
I1012 21:57:23.987016 11428 layer_factory.hpp:77] Creating layer BatchNorm19
I1012 21:57:23.987025 11428 net.cpp:84] Creating Layer BatchNorm19
I1012 21:57:23.987036 11428 net.cpp:406] BatchNorm19 <- Eltwise10
I1012 21:57:23.987040 11428 net.cpp:367] BatchNorm19 -> Eltwise10 (in-place)
I1012 21:57:23.987236 11428 net.cpp:122] Setting up BatchNorm19
I1012 21:57:23.987241 11428 net.cpp:129] Top shape: 50 640 7 7 (1568000)
I1012 21:57:23.987244 11428 net.cpp:137] Memory required for data: 1715235400
I1012 21:57:23.987251 11428 layer_factory.hpp:77] Creating layer Scale19
I1012 21:57:23.987257 11428 net.cpp:84] Creating Layer Scale19
I1012 21:57:23.987270 11428 net.cpp:406] Scale19 <- Eltwise10
I1012 21:57:23.987277 11428 net.cpp:367] Scale19 -> Eltwise10 (in-place)
I1012 21:57:23.987339 11428 layer_factory.hpp:77] Creating layer Scale19
I1012 21:57:23.987481 11428 net.cpp:122] Setting up Scale19
I1012 21:57:23.987488 11428 net.cpp:129] Top shape: 50 640 7 7 (1568000)
I1012 21:57:23.987490 11428 net.cpp:137] Memory required for data: 1721507400
I1012 21:57:23.987495 11428 layer_factory.hpp:77] Creating layer ReLU19
I1012 21:57:23.987500 11428 net.cpp:84] Creating Layer ReLU19
I1012 21:57:23.987504 11428 net.cpp:406] ReLU19 <- Eltwise10
I1012 21:57:23.987519 11428 net.cpp:367] ReLU19 -> Eltwise10 (in-place)
I1012 21:57:23.987671 11428 net.cpp:122] Setting up ReLU19
I1012 21:57:23.987679 11428 net.cpp:129] Top shape: 50 640 7 7 (1568000)
I1012 21:57:23.987699 11428 net.cpp:137] Memory required for data: 1727779400
I1012 21:57:23.987701 11428 layer_factory.hpp:77] Creating layer Eltwise10_ReLU19_0_split
I1012 21:57:23.987741 11428 net.cpp:84] Creating Layer Eltwise10_ReLU19_0_split
I1012 21:57:23.987745 11428 net.cpp:406] Eltwise10_ReLU19_0_split <- Eltwise10
I1012 21:57:23.987751 11428 net.cpp:380] Eltwise10_ReLU19_0_split -> Eltwise10_ReLU19_0_split_0
I1012 21:57:23.987756 11428 net.cpp:380] Eltwise10_ReLU19_0_split -> Eltwise10_ReLU19_0_split_1
I1012 21:57:23.987799 11428 net.cpp:122] Setting up Eltwise10_ReLU19_0_split
I1012 21:57:23.987807 11428 net.cpp:129] Top shape: 50 640 7 7 (1568000)
I1012 21:57:23.987810 11428 net.cpp:129] Top shape: 50 640 7 7 (1568000)
I1012 21:57:23.987812 11428 net.cpp:137] Memory required for data: 1740323400
I1012 21:57:23.987815 11428 layer_factory.hpp:77] Creating layer Convolution25
I1012 21:57:23.987823 11428 net.cpp:84] Creating Layer Convolution25
I1012 21:57:23.987838 11428 net.cpp:406] Convolution25 <- Eltwise10_ReLU19_0_split_0
I1012 21:57:23.987843 11428 net.cpp:380] Convolution25 -> Convolution25
I1012 21:57:24.071866 11428 net.cpp:122] Setting up Convolution25
I1012 21:57:24.071902 11428 net.cpp:129] Top shape: 50 640 7 7 (1568000)
I1012 21:57:24.071907 11428 net.cpp:137] Memory required for data: 1746595400
I1012 21:57:24.071913 11428 layer_factory.hpp:77] Creating layer BatchNorm20
I1012 21:57:24.071926 11428 net.cpp:84] Creating Layer BatchNorm20
I1012 21:57:24.071933 11428 net.cpp:406] BatchNorm20 <- Convolution25
I1012 21:57:24.071943 11428 net.cpp:367] BatchNorm20 -> Convolution25 (in-place)
I1012 21:57:24.072149 11428 net.cpp:122] Setting up BatchNorm20
I1012 21:57:24.072158 11428 net.cpp:129] Top shape: 50 640 7 7 (1568000)
I1012 21:57:24.072162 11428 net.cpp:137] Memory required for data: 1752867400
I1012 21:57:24.072170 11428 layer_factory.hpp:77] Creating layer Scale20
I1012 21:57:24.072177 11428 net.cpp:84] Creating Layer Scale20
I1012 21:57:24.072182 11428 net.cpp:406] Scale20 <- Convolution25
I1012 21:57:24.072188 11428 net.cpp:367] Scale20 -> Convolution25 (in-place)
I1012 21:57:24.072227 11428 layer_factory.hpp:77] Creating layer Scale20
I1012 21:57:24.072317 11428 net.cpp:122] Setting up Scale20
I1012 21:57:24.072324 11428 net.cpp:129] Top shape: 50 640 7 7 (1568000)
I1012 21:57:24.072329 11428 net.cpp:137] Memory required for data: 1759139400
I1012 21:57:24.072335 11428 layer_factory.hpp:77] Creating layer ReLU20
I1012 21:57:24.072340 11428 net.cpp:84] Creating Layer ReLU20
I1012 21:57:24.072345 11428 net.cpp:406] ReLU20 <- Convolution25
I1012 21:57:24.072350 11428 net.cpp:367] ReLU20 -> Convolution25 (in-place)
I1012 21:57:24.072487 11428 net.cpp:122] Setting up ReLU20
I1012 21:57:24.072495 11428 net.cpp:129] Top shape: 50 640 7 7 (1568000)
I1012 21:57:24.072500 11428 net.cpp:137] Memory required for data: 1765411400
I1012 21:57:24.072504 11428 layer_factory.hpp:77] Creating layer Convolution26
I1012 21:57:24.072515 11428 net.cpp:84] Creating Layer Convolution26
I1012 21:57:24.072518 11428 net.cpp:406] Convolution26 <- Convolution25
I1012 21:57:24.072525 11428 net.cpp:380] Convolution26 -> Convolution26
I1012 21:57:24.156227 11428 net.cpp:122] Setting up Convolution26
I1012 21:57:24.156250 11428 net.cpp:129] Top shape: 50 640 7 7 (1568000)
I1012 21:57:24.156255 11428 net.cpp:137] Memory required for data: 1771683400
I1012 21:57:24.156262 11428 layer_factory.hpp:77] Creating layer Eltwise11
I1012 21:57:24.156282 11428 net.cpp:84] Creating Layer Eltwise11
I1012 21:57:24.156288 11428 net.cpp:406] Eltwise11 <- Convolution26
I1012 21:57:24.156306 11428 net.cpp:406] Eltwise11 <- Eltwise10_ReLU19_0_split_1
I1012 21:57:24.156312 11428 net.cpp:380] Eltwise11 -> Eltwise11
I1012 21:57:24.156364 11428 net.cpp:122] Setting up Eltwise11
I1012 21:57:24.156380 11428 net.cpp:129] Top shape: 50 640 7 7 (1568000)
I1012 21:57:24.156383 11428 net.cpp:137] Memory required for data: 1777955400
I1012 21:57:24.156397 11428 layer_factory.hpp:77] Creating layer BatchNorm21
I1012 21:57:24.156404 11428 net.cpp:84] Creating Layer BatchNorm21
I1012 21:57:24.156406 11428 net.cpp:406] BatchNorm21 <- Eltwise11
I1012 21:57:24.156411 11428 net.cpp:367] BatchNorm21 -> Eltwise11 (in-place)
I1012 21:57:24.156620 11428 net.cpp:122] Setting up BatchNorm21
I1012 21:57:24.156627 11428 net.cpp:129] Top shape: 50 640 7 7 (1568000)
I1012 21:57:24.156641 11428 net.cpp:137] Memory required for data: 1784227400
I1012 21:57:24.156673 11428 layer_factory.hpp:77] Creating layer Scale21
I1012 21:57:24.156689 11428 net.cpp:84] Creating Layer Scale21
I1012 21:57:24.156702 11428 net.cpp:406] Scale21 <- Eltwise11
I1012 21:57:24.156707 11428 net.cpp:367] Scale21 -> Eltwise11 (in-place)
I1012 21:57:24.156780 11428 layer_factory.hpp:77] Creating layer Scale21
I1012 21:57:24.156918 11428 net.cpp:122] Setting up Scale21
I1012 21:57:24.156924 11428 net.cpp:129] Top shape: 50 640 7 7 (1568000)
I1012 21:57:24.156926 11428 net.cpp:137] Memory required for data: 1790499400
I1012 21:57:24.156931 11428 layer_factory.hpp:77] Creating layer ReLU21
I1012 21:57:24.156937 11428 net.cpp:84] Creating Layer ReLU21
I1012 21:57:24.156940 11428 net.cpp:406] ReLU21 <- Eltwise11
I1012 21:57:24.156955 11428 net.cpp:367] ReLU21 -> Eltwise11 (in-place)
I1012 21:57:24.157116 11428 net.cpp:122] Setting up ReLU21
I1012 21:57:24.157124 11428 net.cpp:129] Top shape: 50 640 7 7 (1568000)
I1012 21:57:24.157127 11428 net.cpp:137] Memory required for data: 1796771400
I1012 21:57:24.157130 11428 layer_factory.hpp:77] Creating layer Eltwise11_ReLU21_0_split
I1012 21:57:24.157135 11428 net.cpp:84] Creating Layer Eltwise11_ReLU21_0_split
I1012 21:57:24.157140 11428 net.cpp:406] Eltwise11_ReLU21_0_split <- Eltwise11
I1012 21:57:24.157155 11428 net.cpp:380] Eltwise11_ReLU21_0_split -> Eltwise11_ReLU21_0_split_0
I1012 21:57:24.157161 11428 net.cpp:380] Eltwise11_ReLU21_0_split -> Eltwise11_ReLU21_0_split_1
I1012 21:57:24.157215 11428 net.cpp:122] Setting up Eltwise11_ReLU21_0_split
I1012 21:57:24.157232 11428 net.cpp:129] Top shape: 50 640 7 7 (1568000)
I1012 21:57:24.157235 11428 net.cpp:129] Top shape: 50 640 7 7 (1568000)
I1012 21:57:24.157250 11428 net.cpp:137] Memory required for data: 1809315400
I1012 21:57:24.157253 11428 layer_factory.hpp:77] Creating layer Convolution27
I1012 21:57:24.157272 11428 net.cpp:84] Creating Layer Convolution27
I1012 21:57:24.157276 11428 net.cpp:406] Convolution27 <- Eltwise11_ReLU21_0_split_0
I1012 21:57:24.157292 11428 net.cpp:380] Convolution27 -> Convolution27
I1012 21:57:24.240977 11428 net.cpp:122] Setting up Convolution27
I1012 21:57:24.241000 11428 net.cpp:129] Top shape: 50 640 7 7 (1568000)
I1012 21:57:24.241004 11428 net.cpp:137] Memory required for data: 1815587400
I1012 21:57:24.241013 11428 layer_factory.hpp:77] Creating layer BatchNorm22
I1012 21:57:24.241024 11428 net.cpp:84] Creating Layer BatchNorm22
I1012 21:57:24.241040 11428 net.cpp:406] BatchNorm22 <- Convolution27
I1012 21:57:24.241046 11428 net.cpp:367] BatchNorm22 -> Convolution27 (in-place)
I1012 21:57:24.241225 11428 net.cpp:122] Setting up BatchNorm22
I1012 21:57:24.241232 11428 net.cpp:129] Top shape: 50 640 7 7 (1568000)
I1012 21:57:24.241235 11428 net.cpp:137] Memory required for data: 1821859400
I1012 21:57:24.241242 11428 layer_factory.hpp:77] Creating layer Scale22
I1012 21:57:24.241250 11428 net.cpp:84] Creating Layer Scale22
I1012 21:57:24.241252 11428 net.cpp:406] Scale22 <- Convolution27
I1012 21:57:24.241267 11428 net.cpp:367] Scale22 -> Convolution27 (in-place)
I1012 21:57:24.241313 11428 layer_factory.hpp:77] Creating layer Scale22
I1012 21:57:24.241421 11428 net.cpp:122] Setting up Scale22
I1012 21:57:24.241428 11428 net.cpp:129] Top shape: 50 640 7 7 (1568000)
I1012 21:57:24.241432 11428 net.cpp:137] Memory required for data: 1828131400
I1012 21:57:24.241447 11428 layer_factory.hpp:77] Creating layer ReLU22
I1012 21:57:24.241453 11428 net.cpp:84] Creating Layer ReLU22
I1012 21:57:24.241458 11428 net.cpp:406] ReLU22 <- Convolution27
I1012 21:57:24.241463 11428 net.cpp:367] ReLU22 -> Convolution27 (in-place)
I1012 21:57:24.241600 11428 net.cpp:122] Setting up ReLU22
I1012 21:57:24.241608 11428 net.cpp:129] Top shape: 50 640 7 7 (1568000)
I1012 21:57:24.241612 11428 net.cpp:137] Memory required for data: 1834403400
I1012 21:57:24.241626 11428 layer_factory.hpp:77] Creating layer Convolution28
I1012 21:57:24.241647 11428 net.cpp:84] Creating Layer Convolution28
I1012 21:57:24.241652 11428 net.cpp:406] Convolution28 <- Convolution27
I1012 21:57:24.241658 11428 net.cpp:380] Convolution28 -> Convolution28
I1012 21:57:24.325290 11428 net.cpp:122] Setting up Convolution28
I1012 21:57:24.325314 11428 net.cpp:129] Top shape: 50 640 7 7 (1568000)
I1012 21:57:24.325318 11428 net.cpp:137] Memory required for data: 1840675400
I1012 21:57:24.325327 11428 layer_factory.hpp:77] Creating layer Eltwise12
I1012 21:57:24.325350 11428 net.cpp:84] Creating Layer Eltwise12
I1012 21:57:24.325356 11428 net.cpp:406] Eltwise12 <- Convolution28
I1012 21:57:24.325364 11428 net.cpp:406] Eltwise12 <- Eltwise11_ReLU21_0_split_1
I1012 21:57:24.325371 11428 net.cpp:380] Eltwise12 -> Eltwise12
I1012 21:57:24.325410 11428 net.cpp:122] Setting up Eltwise12
I1012 21:57:24.325417 11428 net.cpp:129] Top shape: 50 640 7 7 (1568000)
I1012 21:57:24.325419 11428 net.cpp:137] Memory required for data: 1846947400
I1012 21:57:24.325423 11428 layer_factory.hpp:77] Creating layer Pooling1
I1012 21:57:24.325429 11428 net.cpp:84] Creating Layer Pooling1
I1012 21:57:24.325433 11428 net.cpp:406] Pooling1 <- Eltwise12
I1012 21:57:24.325438 11428 net.cpp:380] Pooling1 -> Pooling1
I1012 21:57:24.326023 11428 net.cpp:122] Setting up Pooling1
I1012 21:57:24.326035 11428 net.cpp:129] Top shape: 50 640 1 1 (32000)
I1012 21:57:24.326038 11428 net.cpp:137] Memory required for data: 1847075400
I1012 21:57:24.326052 11428 layer_factory.hpp:77] Creating layer InnerProduct1
I1012 21:57:24.326064 11428 net.cpp:84] Creating Layer InnerProduct1
I1012 21:57:24.326069 11428 net.cpp:406] InnerProduct1 <- Pooling1
I1012 21:57:24.326074 11428 net.cpp:380] InnerProduct1 -> InnerProduct1
I1012 21:57:24.326248 11428 net.cpp:122] Setting up InnerProduct1
I1012 21:57:24.326256 11428 net.cpp:129] Top shape: 50 100 (5000)
I1012 21:57:24.326259 11428 net.cpp:137] Memory required for data: 1847095400
I1012 21:57:24.326274 11428 layer_factory.hpp:77] Creating layer SoftmaxWithLoss1
I1012 21:57:24.326282 11428 net.cpp:84] Creating Layer SoftmaxWithLoss1
I1012 21:57:24.326287 11428 net.cpp:406] SoftmaxWithLoss1 <- InnerProduct1
I1012 21:57:24.326292 11428 net.cpp:406] SoftmaxWithLoss1 <- label
I1012 21:57:24.326297 11428 net.cpp:380] SoftmaxWithLoss1 -> SoftmaxWithLoss1
…
I1012 21:57:24.329273 11428 net.cpp:294] The NetState phase (1) differed from the phase (0) specified by a rule in layer cifar
I1012 21:57:24.329617 11428 net.cpp:51] Initializing net from parameters: 
name: "wrn_28_10"
state {
  phase: TEST
}
layer {
  name: "cifar"
  type: "Data"
  top: "data"
  top: "label"
  include {
    phase: TEST
  }
  transform_param {
    mirror: false
    crop_size: 28
    mean_file: "/home/x306/caffe/xn/PENLU/data/cifar100/mean.binaryproto"
  }
  data_param {
    source: "/home/x306/caffe/xn/PENLU/data/cifar100/cifar100_test_lmdb"
    batch_size: 50
    backend: LMDB
  }
}
layer {
  name: "Convolution1"
  type: "Convolution"
  bottom: "data"
  top: "Convolution1"
  convolution_param {
    num_output: 16
    pad: 1
    kernel_size: 3
    stride: 1
    weight_filler {
      type: "msra"
    }
  }
}
layer {
  name: "BatchNorm1"
  type: "BatchNorm"
  bottom: "Convolution1"
  top: "Convolution1"
  param {
    lr_mult: 0
    decay_mult: 0
  }
  param {
    lr_mult: 0
    decay_mult: 0
  }
  param {
    lr_mult: 0
    decay_mult: 0
  }
  batch_norm_param {
    use_global_stats: false
  }
}
layer {
  name: "Scale1"
  type: "Scale"
  bottom: "Convolution1"
  top: "Convolution1"
  scale_param {
    bias_term: true
  }
}
layer {
  name: "ReLU1"
  type: "ReLU"
  bottom: "Convolution1"
  top: "Convolution1"
}
layer {
  name: "Convolution2"
  type: "Convolution"
  bottom: "Convolution1"
  top: "Convolution2"
  convolution_param {
    num_output: 160
    bias_term: false
    pad: 1
    kernel_size: 3
    stride: 1
    weight_filler {
      type: "msra"
    }
  }
}
layer {
  name: "BatchNorm2"
  type: "BatchNorm"
  bottom: "Convolution2"
  top: "Convolution2"
  param {
    lr_mult: 0
    decay_mult: 0
  }
  param {
    lr_mult: 0
    decay_mult: 0
  }
  param {
    lr_mult: 0
    decay_mult: 0
  }
  batch_norm_param {
    use_global_stats: false
  }
}
layer {
  name: "Scale2"
  type: "Scale"
  bottom: "Convolution2"
  top: "Convolution2"
  scale_param {
    bias_term: true
  }
}
layer {
  name: "ReLU2"
  type: "ReLU"
  bottom: "Convolution2"
  top: "Convolution2"
}
layer {
  name: "Convolution3"
  type: "Convolution"
  bottom: "Convolution2"
  top: "Convolution3"
  convolution_param {
    num_output: 160
    bias_term: false
    pad: 1
    kernel_size: 3
    stride: 1
    weight_filler {
      type: "msra"
    }
  }
}
layer {
  name: "Convolution4"
  type: "Convolution"
  bottom: "Convolution1"
  top: "Convolution4"
  convolution_param {
    num_output: 160
    bias_term: false
    pad: 0
    kernel_size: 1
    stride: 1
    weight_filler {
      type: "msra"
    }
  }
}
layer {
  name: "Eltwise1"
  type: "Eltwise"
  bottom: "Convolution3"
  bottom: "Convolution4"
  top: "Eltwise1"
  eltwise_param {
    operation: SUM
  }
}
layer {
  name: "BatchNorm3"
  type: "BatchNorm"
  bottom: "Eltwise1"
  top: "Eltwise1"
  param {
    lr_mult: 0
    decay_mult: 0
  }
  param {
    lr_mult: 0
    decay_mult: 0
  }
  param {
    lr_mult: 0
    decay_mult: 0
  }
  batch_norm_param {
    use_global_stats: false
  }
}
layer {
  name: "Scale3"
  type: "Scale"
  bottom: "Eltwise1"
  top: "Eltwise1"
  scale_param {
    bias_term: true
  }
}
layer {
  name: "ReLU3"
  type: "ReLU"
  bottom: "Eltwise1"
  top: "Eltwise1"
}
layer {
  name: "Convolution5"
  type: "Convolution"
  bottom: "Eltwise1"
  top: "Convolution5"
  convolution_param {
    num_output: 160
    bias_term: false
    pad: 1
    kernel_size: 3
    stride: 1
    weight_filler {
      type: "msra"
    }
  }
}
layer {
  name: "BatchNorm4"
  type: "BatchNorm"
  bottom: "Convolution5"
  top: "Convolution5"
  param {
    lr_mult: 0
    decay_mult: 0
  }
  param {
    lr_mult: 0
    decay_mult: 0
  }
  param {
    lr_mult: 0
    decay_mult: 0
  }
  batch_norm_param {
    use_global_stats: false
  }
}
layer {
  name: "Scale4"
  type: "Scale"
  bottom: "Convolution5"
  top: "Convolution5"
  scale_param {
    bias_term: true
  }
}
layer {
  name: "ReLU4"
  type: "ReLU"
  bottom: "Convolution5"
  top: "Convolution5"
}
layer {
  name: "Convolution6"
  type: "Convolution"
  bottom: "Convolution5"
  top: "Convolution6"
  convolution_param {
    num_output: 160
    bias_term: false
    pad: 1
    kernel_size: 3
    stride: 1
    weight_filler {
      type: "msra"
    }
  }
}
layer {
  name: "Eltwise2"
  type: "Eltwise"
  bottom: "Convolution6"
  bottom: "Eltwise1"
  top: "Eltwise2"
  eltwise_param {
    operation: SUM
  }
}
layer {
  name: "BatchNorm5"
  type: "BatchNorm"
  bottom: "Eltwise2"
  top: "Eltwise2"
  param {
    lr_mult: 0
    decay_mult: 0
  }
  param {
    lr_mult: 0
    decay_mult: 0
  }
  param {
    lr_mult: 0
    decay_mult: 0
  }
  batch_norm_param {
    use_global_stats: false
  }
}
layer {
  name: "Scale5"
  type: "Scale"
  bottom: "Eltwise2"
  top: "Eltwise2"
  scale_param {
    bias_term: true
  }
}
layer {
  name: "ReLU5"
  type: "ReLU"
  bottom: "Eltwise2"
  top: "Eltwise2"
}
layer {
  name: "Convolution7"
  type: "Convolution"
  bottom: "Eltwise2"
  top: "Convolution7"
  convolution_param {
    num_output: 160
    bias_term: false
    pad: 1
    kernel_size: 3
    stride: 1
    weight_filler {
      type: "msra"
    }
  }
}
layer {
  name: "BatchNorm6"
  type: "BatchNorm"
  bottom: "Convolution7"
  top: "Convolution7"
  param {
    lr_mult: 0
    decay_mult: 0
  }
  param {
    lr_mult: 0
    decay_mult: 0
  }
  param {
    lr_mult: 0
    decay_mult: 0
  }
  batch_norm_param {
    use_global_stats: false
  }
}
layer {
  name: "Scale6"
  type: "Scale"
  bottom: "Convolution7"
  top: "Convolution7"
  scale_param {
    bias_term: true
  }
}
layer {
  name: "ReLU6"
  type: "ReLU"
  bottom: "Convolution7"
  top: "Convolution7"
}
layer {
  name: "Convolution8"
  type: "Convolution"
  bottom: "Convolution7"
  top: "Convolution8"
  convolution_param {
    num_output: 160
    bias_term: false
    pad: 1
    kernel_size: 3
    stride: 1
    weight_filler {
      type: "msra"
    }
  }
}
layer {
  name: "Eltwise3"
  type: "Eltwise"
  bottom: "Convolution8"
  bottom: "Eltwise2"
  top: "Eltwise3"
  eltwise_param {
    operation: SUM
  }
}
layer {
  name: "BatchNorm7"
  type: "BatchNorm"
  bottom: "Eltwise3"
  top: "Eltwise3"
  param {
    lr_mult: 0
    decay_mult: 0
  }
  param {
    lr_mult: 0
    decay_mult: 0
  }
  param {
    lr_mult: 0
    decay_mult: 0
  }
  batch_norm_param {
    use_global_stats: false
  }
}
layer {
  name: "Scale7"
  type: "Scale"
  bottom: "Eltwise3"
  top: "Eltwise3"
  scale_param {
    bias_term: true
  }
}
layer {
  name: "ReLU7"
  type: "ReLU"
  bottom: "Eltwise3"
  top: "Eltwise3"
}
layer {
  name: "Convolution9"
  type: "Convolution"
  bottom: "Eltwise3"
  top: "Convolution9"
  convolution_param {
    num_output: 160
    bias_term: false
    pad: 1
    kernel_size: 3
    stride: 1
    weight_filler {
      type: "msra"
    }
  }
}
layer {
  name: "BatchNorm8"
  type: "BatchNorm"
  bottom: "Convolution9"
  top: "Convolution9"
  param {
    lr_mult: 0
    decay_mult: 0
  }
  param {
    lr_mult: 0
    decay_mult: 0
  }
  param {
    lr_mult: 0
    decay_mult: 0
  }
  batch_norm_param {
    use_global_stats: false
  }
}
layer {
  name: "Scale8"
  type: "Scale"
  bottom: "Convolution9"
  top: "Convolution9"
  scale_param {
    bias_term: true
  }
}
layer {
  name: "ReLU8"
  type: "ReLU"
  bottom: "Convolution9"
  top: "Convolution9"
}
layer {
  name: "Convolution10"
  type: "Convolution"
  bottom: "Convolution9"
  top: "Convolution10"
  convolution_param {
    num_output: 160
    bias_term: false
    pad: 1
    kernel_size: 3
    stride: 1
    weight_filler {
      type: "msra"
    }
  }
}
layer {
  name: "Eltwise4"
  type: "Eltwise"
  bottom: "Convolution10"
  bottom: "Eltwise3"
  top: "Eltwise4"
  eltwise_param {
    operation: SUM
  }
}
layer {
  name: "Convolution11"
  type: "Convolution"
  bottom: "Eltwise4"
  top: "Convolution11"
  convolution_param {
    num_output: 320
    bias_term: false
    pad: 1
    kernel_size: 3
    stride: 2
    weight_filler {
      type: "msra"
    }
  }
}
layer {
  name: "BatchNorm9"
  type: "BatchNorm"
  bottom: "Convolution11"
  top: "Convolution11"
  param {
    lr_mult: 0
    decay_mult: 0
  }
  param {
    lr_mult: 0
    decay_mult: 0
  }
  param {
    lr_mult: 0
    decay_mult: 0
  }
  batch_norm_param {
    use_global_stats: false
  }
}
layer {
  name: "Scale9"
  type: "Scale"
  bottom: "Convolution11"
  top: "Convolution11"
  scale_param {
    bias_term: true
  }
}
layer {
  name: "ReLU9"
  type: "ReLU"
  bottom: "Convolution11"
  top: "Convolution11"
}
layer {
  name: "Convolution12"
  type: "Convolution"
  bottom: "Convolution11"
  top: "Convolution12"
  convolution_param {
    num_output: 320
    bias_term: false
    pad: 1
    kernel_size: 3
    stride: 1
    weight_filler {
      type: "msra"
    }
  }
}
layer {
  name: "Convolution13"
  type: "Convolution"
  bottom: "Eltwise4"
  top: "Convolution13"
  convolution_param {
    num_output: 320
    bias_term: false
    pad: 0
    kernel_size: 1
    stride: 2
    weight_filler {
      type: "msra"
    }
  }
}
layer {
  name: "Eltwise5"
  type: "Eltwise"
  bottom: "Convolution12"
  bottom: "Convolution13"
  top: "Eltwise5"
  eltwise_param {
    operation: SUM
  }
}
layer {
  name: "BatchNorm10"
  type: "BatchNorm"
  bottom: "Eltwise5"
  top: "Eltwise5"
  param {
    lr_mult: 0
    decay_mult: 0
  }
  param {
    lr_mult: 0
    decay_mult: 0
  }
  param {
    lr_mult: 0
    decay_mult: 0
  }
  batch_norm_param {
    use_global_stats: false
  }
}
layer {
  name: "Scale10"
  type: "Scale"
  bottom: "Eltwise5"
  top: "Eltwise5"
  scale_param {
    bias_term: true
  }
}
layer {
  name: "ReLU10"
  type: "ReLU"
  bottom: "Eltwise5"
  top: "Eltwise5"
}
layer {
  name: "Convolution14"
  type: "Convolution"
  bottom: "Eltwise5"
  top: "Convolution14"
  convolution_param {
    num_output: 320
    bias_term: false
    pad: 1
    kernel_size: 3
    stride: 1
    weight_filler {
      type: "msra"
    }
  }
}
layer {
  name: "BatchNorm11"
  type: "BatchNorm"
  bottom: "Convolution14"
  top: "Convolution14"
  param {
    lr_mult: 0
    decay_mult: 0
  }
  param {
    lr_mult: 0
    decay_mult: 0
  }
  param {
    lr_mult: 0
    decay_mult: 0
  }
  batch_norm_param {
    use_global_stats: false
  }
}
layer {
  name: "Scale11"
  type: "Scale"
  bottom: "Convolution14"
  top: "Convolution14"
  scale_param {
    bias_term: true
  }
}
layer {
  name: "ReLU11"
  type: "ReLU"
  bottom: "Convolution14"
  top: "Convolution14"
}
layer {
  name: "Convolution15"
  type: "Convolution"
  bottom: "Convolution14"
  top: "Convolution15"
  convolution_param {
    num_output: 320
    bias_term: false
    pad: 1
    kernel_size: 3
    stride: 1
    weight_filler {
      type: "msra"
    }
  }
}
layer {
  name: "Eltwise6"
  type: "Eltwise"
  bottom: "Convolution15"
  bottom: "Eltwise5"
  top: "Eltwise6"
  eltwise_param {
    operation: SUM
  }
}
layer {
  name: "BatchNorm12"
  type: "BatchNorm"
  bottom: "Eltwise6"
  top: "Eltwise6"
  param {
    lr_mult: 0
    decay_mult: 0
  }
  param {
    lr_mult: 0
    decay_mult: 0
  }
  param {
    lr_mult: 0
    decay_mult: 0
  }
  batch_norm_param {
    use_global_stats: false
  }
}
layer {
  name: "Scale12"
  type: "Scale"
  bottom: "Eltwise6"
  top: "Eltwise6"
  scale_param {
    bias_term: true
  }
}
layer {
  name: "ReLU12"
  type: "ReLU"
  bottom: "Eltwise6"
  top: "Eltwise6"
}
layer {
  name: "Convolution16"
  type: "Convolution"
  bottom: "Eltwise6"
  top: "Convolution16"
  convolution_param {
    num_output: 320
    bias_term: false
    pad: 1
    kernel_size: 3
    stride: 1
    weight_filler {
      type: "msra"
    }
  }
}
layer {
  name: "BatchNorm13"
  type: "BatchNorm"
  bottom: "Convolution16"
  top: "Convolution16"
  param {
    lr_mult: 0
    decay_mult: 0
  }
  param {
    lr_mult: 0
    decay_mult: 0
  }
  param {
    lr_mult: 0
    decay_mult: 0
  }
  batch_norm_param {
    use_global_stats: false
  }
}
layer {
  name: "Scale13"
  type: "Scale"
  bottom: "Convolution16"
  top: "Convolution16"
  scale_param {
    bias_term: true
  }
}
layer {
  name: "ReLU13"
  type: "ReLU"
  bottom: "Convolution16"
  top: "Convolution16"
}
layer {
  name: "Convolution17"
  type: "Convolution"
  bottom: "Convolution16"
  top: "Convolution17"
  convolution_param {
    num_output: 320
    bias_term: false
    pad: 1
    kernel_size: 3
    stride: 1
    weight_filler {
      type: "msra"
    }
  }
}
layer {
  name: "Eltwise7"
  type: "Eltwise"
  bottom: "Convolution17"
  bottom: "Eltwise6"
  top: "Eltwise7"
  eltwise_param {
    operation: SUM
  }
}
layer {
  name: "BatchNorm14"
  type: "BatchNorm"
  bottom: "Eltwise7"
  top: "Eltwise7"
  param {
    lr_mult: 0
    decay_mult: 0
  }
  param {
    lr_mult: 0
    decay_mult: 0
  }
  param {
    lr_mult: 0
    decay_mult: 0
  }
  batch_norm_param {
    use_global_stats: false
  }
}
layer {
  name: "Scale14"
  type: "Scale"
  bottom: "Eltwise7"
  top: "Eltwise7"
  scale_param {
    bias_term: true
  }
}
layer {
  name: "ReLU14"
  type: "ReLU"
  bottom: "Eltwise7"
  top: "Eltwise7"
}
layer {
  name: "Convolution18"
  type: "Convolution"
  bottom: "Eltwise7"
  top: "Convolution18"
  convolution_param {
    num_output: 320
    bias_term: false
    pad: 1
    kernel_size: 3
    stride: 1
    weight_filler {
      type: "msra"
    }
  }
}
layer {
  name: "BatchNorm15"
  type: "BatchNorm"
  bottom: "Convolution18"
  top: "Convolution18"
  param {
    lr_mult: 0
    decay_mult: 0
  }
  param {
    lr_mult: 0
    decay_mult: 0
  }
  param {
    lr_mult: 0
    decay_mult: 0
  }
  batch_norm_param {
    use_global_stats: false
  }
}
layer {
  name: "Scale15"
  type: "Scale"
  bottom: "Convolution18"
  top: "Convolution18"
  scale_param {
    bias_term: true
  }
}
layer {
  name: "ReLU15"
  type: "ReLU"
  bottom: "Convolution18"
  top: "Convolution18"
}
layer {
  name: "Convolution19"
  type: "Convolution"
  bottom: "Convolution18"
  top: "Convolution19"
  convolution_param {
    num_output: 320
    bias_term: false
    pad: 1
    kernel_size: 3
    stride: 1
    weight_filler {
      type: "msra"
    }
  }
}
layer {
  name: "Eltwise8"
  type: "Eltwise"
  bottom: "Convolution19"
  bottom: "Eltwise7"
  top: "Eltwise8"
  eltwise_param {
    operation: SUM
  }
}
layer {
  name: "Convolution20"
  type: "Convolution"
  bottom: "Eltwise8"
  top: "Convolution20"
  convolution_param {
    num_output: 640
    bias_term: false
    pad: 1
    kernel_size: 3
    stride: 2
    weight_filler {
      type: "msra"
    }
  }
}
layer {
  name: "BatchNorm16"
  type: "BatchNorm"
  bottom: "Convolution20"
  top: "Convolution20"
  param {
    lr_mult: 0
    decay_mult: 0
  }
  param {
    lr_mult: 0
    decay_mult: 0
  }
  param {
    lr_mult: 0
    decay_mult: 0
  }
  batch_norm_param {
    use_global_stats: false
  }
}
layer {
  name: "Scale16"
  type: "Scale"
  bottom: "Convolution20"
  top: "Convolution20"
  scale_param {
    bias_term: true
  }
}
layer {
  name: "ReLU16"
  type: "ReLU"
  bottom: "Convolution20"
  top: "Convolution20"
}
layer {
  name: "Convolution21"
  type: "Convolution"
  bottom: "Convolution20"
  top: "Convolution21"
  convolution_param {
    num_output: 640
    bias_term: false
    pad: 1
    kernel_size: 3
    stride: 1
    weight_filler {
      type: "msra"
    }
  }
}
layer {
  name: "Convolution22"
  type: "Convolution"
  bottom: "Eltwise8"
  top: "Convolution22"
  convolution_param {
    num_output: 640
    bias_term: false
    pad: 0
    kernel_size: 1
    stride: 2
    weight_filler {
      type: "msra"
    }
  }
}
layer {
  name: "Eltwise9"
  type: "Eltwise"
  bottom: "Convolution21"
  bottom: "Convolution22"
  top: "Eltwise9"
  eltwise_param {
    operation: SUM
  }
}
layer {
  name: "BatchNorm17"
  type: "BatchNorm"
  bottom: "Eltwise9"
  top: "Eltwise9"
  param {
    lr_mult: 0
    decay_mult: 0
  }
  param {
    lr_mult: 0
    decay_mult: 0
  }
  param {
    lr_mult: 0
    decay_mult: 0
  }
  batch_norm_param {
    use_global_stats: false
  }
}
layer {
  name: "Scale17"
  type: "Scale"
  bottom: "Eltwise9"
  top: "Eltwise9"
  scale_param {
    bias_term: true
  }
}
layer {
  name: "ReLU17"
  type: "ReLU"
  bottom: "Eltwise9"
  top: "Eltwise9"
}
layer {
  name: "Convolution23"
  type: "Convolution"
  bottom: "Eltwise9"
  top: "Convolution23"
  convolution_param {
    num_output: 640
    bias_term: false
    pad: 1
    kernel_size: 3
    stride: 1
    weight_filler {
      type: "msra"
    }
  }
}
layer {
  name: "BatchNorm18"
  type: "BatchNorm"
  bottom: "Convolution23"
  top: "Convolution23"
  param {
    lr_mult: 0
    decay_mult: 0
  }
  param {
    lr_mult: 0
    decay_mult: 0
  }
  param {
    lr_mult: 0
    decay_mult: 0
  }
  batch_norm_param {
    use_global_stats: false
  }
}
layer {
  name: "Scale18"
  type: "Scale"
  bottom: "Convolution23"
  top: "Convolution23"
  scale_param {
    bias_term: true
  }
}
layer {
  name: "ReLU18"
  type: "ReLU"
  bottom: "Convolution23"
  top: "Convolution23"
}
layer {
  name: "Convolution24"
  type: "Convolution"
  bottom: "Convolution23"
  top: "Convolution24"
  convolution_param {
    num_output: 640
    bias_term: false
    pad: 1
    kernel_size: 3
    stride: 1
    weight_filler {
      type: "msra"
    }
  }
}
layer {
  name: "Eltwise10"
  type: "Eltwise"
  bottom: "Convolution24"
  bottom: "Eltwise9"
  top: "Eltwise10"
  eltwise_param {
    operation: SUM
  }
}
layer {
  name: "BatchNorm19"
  type: "BatchNorm"
  bottom: "Eltwise10"
  top: "Eltwise10"
  param {
    lr_mult: 0
    decay_mult: 0
  }
  param {
    lr_mult: 0
    decay_mult: 0
  }
  param {
    lr_mult: 0
    decay_mult: 0
  }
  batch_norm_param {
    use_global_stats: false
  }
}
layer {
  name: "Scale19"
  type: "Scale"
  bottom: "Eltwise10"
  top: "Eltwise10"
  scale_param {
    bias_term: true
  }
}
layer {
  name: "ReLU19"
  type: "ReLU"
  bottom: "Eltwise10"
  top: "Eltwise10"
}
layer {
  name: "Convolution25"
  type: "Convolution"
  bottom: "Eltwise10"
  top: "Convolution25"
  convolution_param {
    num_output: 640
    bias_term: false
    pad: 1
    kernel_size: 3
    stride: 1
    weight_filler {
      type: "msra"
    }
  }
}
layer {
  name: "BatchNorm20"
  type: "BatchNorm"
  bottom: "Convolution25"
  top: "Convolution25"
  param {
    lr_mult: 0
    decay_mult: 0
  }
  param {
    lr_mult: 0
    decay_mult: 0
  }
  param {
    lr_mult: 0
    decay_mult: 0
  }
  batch_norm_param {
    use_global_stats: false
  }
}
layer {
  name: "Scale20"
  type: "Scale"
  bottom: "Convolution25"
  top: "Convolution25"
  scale_param {
    bias_term: true
  }
}
layer {
  name: "ReLU20"
  type: "ReLU"
  bottom: "Convolution25"
  top: "Convolution25"
}
layer {
  name: "Convolution26"
  type: "Convolution"
  bottom: "Convolution25"
  top: "Convolution26"
  convolution_param {
    num_output: 640
    bias_term: false
    pad: 1
    kernel_size: 3
    stride: 1
    weight_filler {
      type: "msra"
    }
  }
}
layer {
  name: "Eltwise11"
  type: "Eltwise"
  bottom: "Convolution26"
  bottom: "Eltwise10"
  top: "Eltwise11"
  eltwise_param {
    operation: SUM
  }
}
layer {
  name: "BatchNorm21"
  type: "BatchNorm"
  bottom: "Eltwise11"
  top: "Eltwise11"
  param {
    lr_mult: 0
    decay_mult: 0
  }
  param {
    lr_mult: 0
    decay_mult: 0
  }
  param {
    lr_mult: 0
    decay_mult: 0
  }
  batch_norm_param {
    use_global_stats: false
  }
}
layer {
  name: "Scale21"
  type: "Scale"
  bottom: "Eltwise11"
  top: "Eltwise11"
  scale_param {
    bias_term: true
  }
}
layer {
  name: "ReLU21"
  type: "ReLU"
  bottom: "Eltwise11"
  top: "Eltwise11"
}
layer {
  name: "Convolution27"
  type: "Convolution"
  bottom: "Eltwise11"
  top: "Convolution27"
  convolution_param {
    num_output: 640
    bias_term: false
    pad: 1
    kernel_size: 3
    stride: 1
    weight_filler {
      type: "msra"
    }
  }
}
layer {
  name: "BatchNorm22"
  type: "BatchNorm"
  bottom: "Convolution27"
  top: "Convolution27"
  param {
    lr_mult: 0
    decay_mult: 0
  }
  param {
    lr_mult: 0
    decay_mult: 0
  }
  param {
    lr_mult: 0
    decay_mult: 0
  }
  batch_norm_param {
    use_global_stats: false
  }
}
layer {
  name: "Scale22"
  type: "Scale"
  bottom: "Convolution27"
  top: "Convolution27"
  scale_param {
    bias_term: true
  }
}
layer {
  name: "ReLU22"
  type: "ReLU"
  bottom: "Convolution27"
  top: "Convolution27"
}
layer {
  name: "Convolution28"
  type: "Convolution"
  bottom: "Convolution27"
  top: "Convolution28"
  convolution_param {
    num_output: 640
    bias_term: false
    pad: 1
    kernel_size: 3
    stride: 1
    weight_filler {
      type: "msra"
    }
  }
}
layer {
  name: "Eltwise12"
  type: "Eltwise"
  bottom: "Convolution28"
  bottom: "Eltwise11"
  top: "Eltwise12"
  eltwise_param {
    operation: SUM
  }
}
layer {
  name: "Pooling1"
  type: "Pooling"
  bottom: "Eltwise12"
  top: "Pooling1"
  pooling_param {
    pool: AVE
    global_pooling: true
  }
}
layer {
  name: "InnerProduct1"
  type: "InnerProduct"
  bottom: "Pooling1"
  top: "InnerProduct1"
  inner_product_param {
    num_output: 100
  }
}
layer {
  name: "SoftmaxWithLoss1"
  type: "SoftmaxWithLoss"
  bottom: "InnerProduct1"
  bottom: "label"
  top: "SoftmaxWithLoss1"
}
layer {
  name: "accuracy"
  type: "Accuracy"
  bottom: "InnerProduct1"
  bottom: "label"
  top: "accuracy"
  include {
    phase: TEST
  }
}
I1012 21:57:24.329901 11428 layer_factory.hpp:77] Creating layer cifar
I1012 21:57:24.329953 11428 db_lmdb.cpp:35] Opened lmdb /home/x306/caffe/xn/PENLU/data/cifar100/cifar100_test_lmdb
I1012 21:57:24.329965 11428 net.cpp:84] Creating Layer cifar
I1012 21:57:24.329972 11428 net.cpp:380] cifar -> data
I1012 21:57:24.329978 11428 net.cpp:380] cifar -> label
I1012 21:57:24.329985 11428 data_transformer.cpp:25] Loading mean file from: /home/x306/caffe/xn/PENLU/data/cifar100/mean.binaryproto
I1012 21:57:24.330116 11428 data_layer.cpp:45] output data size: 50,3,28,28
I1012 21:57:24.331307 11428 net.cpp:122] Setting up cifar
I1012 21:57:24.331316 11428 net.cpp:129] Top shape: 50 3 28 28 (117600)
I1012 21:57:24.331321 11428 net.cpp:129] Top shape: 50 (50)
I1012 21:57:24.331324 11428 net.cpp:137] Memory required for data: 470600
I1012 21:57:24.331327 11428 layer_factory.hpp:77] Creating layer label_cifar_1_split
I1012 21:57:24.331333 11428 net.cpp:84] Creating Layer label_cifar_1_split
I1012 21:57:24.331337 11428 net.cpp:406] label_cifar_1_split <- label
I1012 21:57:24.331342 11428 net.cpp:380] label_cifar_1_split -> label_cifar_1_split_0
I1012 21:57:24.331348 11428 net.cpp:380] label_cifar_1_split -> label_cifar_1_split_1
I1012 21:57:24.331413 11428 net.cpp:122] Setting up label_cifar_1_split
I1012 21:57:24.331419 11428 net.cpp:129] Top shape: 50 (50)
I1012 21:57:24.331423 11428 net.cpp:129] Top shape: 50 (50)
I1012 21:57:24.331426 11428 net.cpp:137] Memory required for data: 471000
I1012 21:57:24.331429 11428 layer_factory.hpp:77] Creating layer Convolution1
I1012 21:57:24.331439 11428 net.cpp:84] Creating Layer Convolution1
I1012 21:57:24.331442 11428 net.cpp:406] Convolution1 <- data
I1012 21:57:24.331446 11428 net.cpp:380] Convolution1 -> Convolution1
I1012 21:57:24.332569 11428 net.cpp:122] Setting up Convolution1
I1012 21:57:24.332579 11428 net.cpp:129] Top shape: 50 16 28 28 (627200)
I1012 21:57:24.332582 11428 net.cpp:137] Memory required for data: 2979800
I1012 21:57:24.332592 11428 layer_factory.hpp:77] Creating layer BatchNorm1
I1012 21:57:24.332599 11428 net.cpp:84] Creating Layer BatchNorm1
I1012 21:57:24.332602 11428 net.cpp:406] BatchNorm1 <- Convolution1
I1012 21:57:24.332607 11428 net.cpp:367] BatchNorm1 -> Convolution1 (in-place)
I1012 21:57:24.332773 11428 net.cpp:122] Setting up BatchNorm1
I1012 21:57:24.332780 11428 net.cpp:129] Top shape: 50 16 28 28 (627200)
I1012 21:57:24.332790 11428 net.cpp:137] Memory required for data: 5488600
I1012 21:57:24.332799 11428 layer_factory.hpp:77] Creating layer Scale1
I1012 21:57:24.332805 11428 net.cpp:84] Creating Layer Scale1
I1012 21:57:24.332810 11428 net.cpp:406] Scale1 <- Convolution1
I1012 21:57:24.332814 11428 net.cpp:367] Scale1 -> Convolution1 (in-place)
I1012 21:57:24.332849 11428 layer_factory.hpp:77] Creating layer Scale1
I1012 21:57:24.332948 11428 net.cpp:122] Setting up Scale1
I1012 21:57:24.332955 11428 net.cpp:129] Top shape: 50 16 28 28 (627200)
I1012 21:57:24.332958 11428 net.cpp:137] Memory required for data: 7997400
I1012 21:57:24.332963 11428 layer_factory.hpp:77] Creating layer ReLU1
I1012 21:57:24.332969 11428 net.cpp:84] Creating Layer ReLU1
I1012 21:57:24.332973 11428 net.cpp:406] ReLU1 <- Convolution1
I1012 21:57:24.332978 11428 net.cpp:367] ReLU1 -> Convolution1 (in-place)
I1012 21:57:24.333173 11428 net.cpp:122] Setting up ReLU1
I1012 21:57:24.333181 11428 net.cpp:129] Top shape: 50 16 28 28 (627200)
I1012 21:57:24.333184 11428 net.cpp:137] Memory required for data: 10506200
I1012 21:57:24.333189 11428 layer_factory.hpp:77] Creating layer Convolution1_ReLU1_0_split
I1012 21:57:24.333194 11428 net.cpp:84] Creating Layer Convolution1_ReLU1_0_split
I1012 21:57:24.333197 11428 net.cpp:406] Convolution1_ReLU1_0_split <- Convolution1
I1012 21:57:24.333201 11428 net.cpp:380] Convolution1_ReLU1_0_split -> Convolution1_ReLU1_0_split_0
I1012 21:57:24.333207 11428 net.cpp:380] Convolution1_ReLU1_0_split -> Convolution1_ReLU1_0_split_1
I1012 21:57:24.333240 11428 net.cpp:122] Setting up Convolution1_ReLU1_0_split
I1012 21:57:24.333245 11428 net.cpp:129] Top shape: 50 16 28 28 (627200)
I1012 21:57:24.333250 11428 net.cpp:129] Top shape: 50 16 28 28 (627200)
I1012 21:57:24.333253 11428 net.cpp:137] Memory required for data: 15523800
I1012 21:57:24.333256 11428 layer_factory.hpp:77] Creating layer Convolution2
I1012 21:57:24.333268 11428 net.cpp:84] Creating Layer Convolution2
I1012 21:57:24.333272 11428 net.cpp:406] Convolution2 <- Convolution1_ReLU1_0_split_0
I1012 21:57:24.333278 11428 net.cpp:380] Convolution2 -> Convolution2
I1012 21:57:24.334825 11428 net.cpp:122] Setting up Convolution2
I1012 21:57:24.334834 11428 net.cpp:129] Top shape: 50 160 28 28 (6272000)
I1012 21:57:24.334838 11428 net.cpp:137] Memory required for data: 40611800
I1012 21:57:24.334843 11428 layer_factory.hpp:77] Creating layer BatchNorm2
I1012 21:57:24.334851 11428 net.cpp:84] Creating Layer BatchNorm2
I1012 21:57:24.334856 11428 net.cpp:406] BatchNorm2 <- Convolution2
I1012 21:57:24.334861 11428 net.cpp:367] BatchNorm2 -> Convolution2 (in-place)
I1012 21:57:24.335021 11428 net.cpp:122] Setting up BatchNorm2
I1012 21:57:24.335027 11428 net.cpp:129] Top shape: 50 160 28 28 (6272000)
I1012 21:57:24.335031 11428 net.cpp:137] Memory required for data: 65699800
I1012 21:57:24.335041 11428 layer_factory.hpp:77] Creating layer Scale2
I1012 21:57:24.335047 11428 net.cpp:84] Creating Layer Scale2
I1012 21:57:24.335050 11428 net.cpp:406] Scale2 <- Convolution2
I1012 21:57:24.335054 11428 net.cpp:367] Scale2 -> Convolution2 (in-place)
I1012 21:57:24.335089 11428 layer_factory.hpp:77] Creating layer Scale2
I1012 21:57:24.335182 11428 net.cpp:122] Setting up Scale2
I1012 21:57:24.335187 11428 net.cpp:129] Top shape: 50 160 28 28 (6272000)
I1012 21:57:24.335194 11428 net.cpp:137] Memory required for data: 90787800
I1012 21:57:24.335199 11428 layer_factory.hpp:77] Creating layer ReLU2
I1012 21:57:24.335204 11428 net.cpp:84] Creating Layer ReLU2
I1012 21:57:24.335207 11428 net.cpp:406] ReLU2 <- Convolution2
I1012 21:57:24.335216 11428 net.cpp:367] ReLU2 -> Convolution2 (in-place)
I1012 21:57:24.335382 11428 net.cpp:122] Setting up ReLU2
I1012 21:57:24.335389 11428 net.cpp:129] Top shape: 50 160 28 28 (6272000)
I1012 21:57:24.335393 11428 net.cpp:137] Memory required for data: 115875800
I1012 21:57:24.335397 11428 layer_factory.hpp:77] Creating layer Convolution3
I1012 21:57:24.335403 11428 net.cpp:84] Creating Layer Convolution3
I1012 21:57:24.335413 11428 net.cpp:406] Convolution3 <- Convolution2
I1012 21:57:24.335418 11428 net.cpp:380] Convolution3 -> Convolution3
I1012 21:57:24.342625 11428 net.cpp:122] Setting up Convolution3
I1012 21:57:24.342636 11428 net.cpp:129] Top shape: 50 160 28 28 (6272000)
I1012 21:57:24.342639 11428 net.cpp:137] Memory required for data: 140963800
I1012 21:57:24.342644 11428 layer_factory.hpp:77] Creating layer Convolution4
I1012 21:57:24.342653 11428 net.cpp:84] Creating Layer Convolution4
I1012 21:57:24.342658 11428 net.cpp:406] Convolution4 <- Convolution1_ReLU1_0_split_1
I1012 21:57:24.342664 11428 net.cpp:380] Convolution4 -> Convolution4
I1012 21:57:24.343596 11428 net.cpp:122] Setting up Convolution4
I1012 21:57:24.343605 11428 net.cpp:129] Top shape: 50 160 28 28 (6272000)
I1012 21:57:24.343608 11428 net.cpp:137] Memory required for data: 166051800
I1012 21:57:24.343613 11428 layer_factory.hpp:77] Creating layer Eltwise1
I1012 21:57:24.343618 11428 net.cpp:84] Creating Layer Eltwise1
I1012 21:57:24.343622 11428 net.cpp:406] Eltwise1 <- Convolution3
I1012 21:57:24.343627 11428 net.cpp:406] Eltwise1 <- Convolution4
I1012 21:57:24.343631 11428 net.cpp:380] Eltwise1 -> Eltwise1
I1012 21:57:24.343652 11428 net.cpp:122] Setting up Eltwise1
I1012 21:57:24.343657 11428 net.cpp:129] Top shape: 50 160 28 28 (6272000)
I1012 21:57:24.343660 11428 net.cpp:137] Memory required for data: 191139800
I1012 21:57:24.343663 11428 layer_factory.hpp:77] Creating layer BatchNorm3
I1012 21:57:24.343669 11428 net.cpp:84] Creating Layer BatchNorm3
I1012 21:57:24.343672 11428 net.cpp:406] BatchNorm3 <- Eltwise1
I1012 21:57:24.343677 11428 net.cpp:367] BatchNorm3 -> Eltwise1 (in-place)
I1012 21:57:24.343828 11428 net.cpp:122] Setting up BatchNorm3
I1012 21:57:24.343833 11428 net.cpp:129] Top shape: 50 160 28 28 (6272000)
I1012 21:57:24.343837 11428 net.cpp:137] Memory required for data: 216227800
I1012 21:57:24.343844 11428 layer_factory.hpp:77] Creating layer Scale3
I1012 21:57:24.343850 11428 net.cpp:84] Creating Layer Scale3
I1012 21:57:24.343853 11428 net.cpp:406] Scale3 <- Eltwise1
I1012 21:57:24.343858 11428 net.cpp:367] Scale3 -> Eltwise1 (in-place)
I1012 21:57:24.343890 11428 layer_factory.hpp:77] Creating layer Scale3
I1012 21:57:24.343979 11428 net.cpp:122] Setting up Scale3
I1012 21:57:24.343986 11428 net.cpp:129] Top shape: 50 160 28 28 (6272000)
I1012 21:57:24.343987 11428 net.cpp:137] Memory required for data: 241315800
I1012 21:57:24.343992 11428 layer_factory.hpp:77] Creating layer ReLU3
I1012 21:57:24.343998 11428 net.cpp:84] Creating Layer ReLU3
I1012 21:57:24.344002 11428 net.cpp:406] ReLU3 <- Eltwise1
I1012 21:57:24.344005 11428 net.cpp:367] ReLU3 -> Eltwise1 (in-place)
I1012 21:57:24.344130 11428 net.cpp:122] Setting up ReLU3
I1012 21:57:24.344136 11428 net.cpp:129] Top shape: 50 160 28 28 (6272000)
I1012 21:57:24.344139 11428 net.cpp:137] Memory required for data: 266403800
I1012 21:57:24.344142 11428 layer_factory.hpp:77] Creating layer Eltwise1_ReLU3_0_split
I1012 21:57:24.344147 11428 net.cpp:84] Creating Layer Eltwise1_ReLU3_0_split
I1012 21:57:24.344151 11428 net.cpp:406] Eltwise1_ReLU3_0_split <- Eltwise1
I1012 21:57:24.344154 11428 net.cpp:380] Eltwise1_ReLU3_0_split -> Eltwise1_ReLU3_0_split_0
I1012 21:57:24.344161 11428 net.cpp:380] Eltwise1_ReLU3_0_split -> Eltwise1_ReLU3_0_split_1
I1012 21:57:24.344192 11428 net.cpp:122] Setting up Eltwise1_ReLU3_0_split
I1012 21:57:24.344197 11428 net.cpp:129] Top shape: 50 160 28 28 (6272000)
I1012 21:57:24.344199 11428 net.cpp:129] Top shape: 50 160 28 28 (6272000)
I1012 21:57:24.344202 11428 net.cpp:137] Memory required for data: 316579800
I1012 21:57:24.344205 11428 layer_factory.hpp:77] Creating layer Convolution5
I1012 21:57:24.344211 11428 net.cpp:84] Creating Layer Convolution5
I1012 21:57:24.344215 11428 net.cpp:406] Convolution5 <- Eltwise1_ReLU3_0_split_0
I1012 21:57:24.344220 11428 net.cpp:380] Convolution5 -> Convolution5
I1012 21:57:24.350829 11428 net.cpp:122] Setting up Convolution5
I1012 21:57:24.350838 11428 net.cpp:129] Top shape: 50 160 28 28 (6272000)
I1012 21:57:24.350850 11428 net.cpp:137] Memory required for data: 341667800
I1012 21:57:24.350855 11428 layer_factory.hpp:77] Creating layer BatchNorm4
I1012 21:57:24.350862 11428 net.cpp:84] Creating Layer BatchNorm4
I1012 21:57:24.350865 11428 net.cpp:406] BatchNorm4 <- Convolution5
I1012 21:57:24.350870 11428 net.cpp:367] BatchNorm4 -> Convolution5 (in-place)
I1012 21:57:24.351032 11428 net.cpp:122] Setting up BatchNorm4
I1012 21:57:24.351038 11428 net.cpp:129] Top shape: 50 160 28 28 (6272000)
I1012 21:57:24.351042 11428 net.cpp:137] Memory required for data: 366755800
I1012 21:57:24.351047 11428 layer_factory.hpp:77] Creating layer Scale4
I1012 21:57:24.351052 11428 net.cpp:84] Creating Layer Scale4
I1012 21:57:24.351055 11428 net.cpp:406] Scale4 <- Convolution5
I1012 21:57:24.351059 11428 net.cpp:367] Scale4 -> Convolution5 (in-place)
I1012 21:57:24.351092 11428 layer_factory.hpp:77] Creating layer Scale4
I1012 21:57:24.351184 11428 net.cpp:122] Setting up Scale4
I1012 21:57:24.351189 11428 net.cpp:129] Top shape: 50 160 28 28 (6272000)
I1012 21:57:24.351192 11428 net.cpp:137] Memory required for data: 391843800
I1012 21:57:24.351197 11428 layer_factory.hpp:77] Creating layer ReLU4
I1012 21:57:24.351203 11428 net.cpp:84] Creating Layer ReLU4
I1012 21:57:24.351207 11428 net.cpp:406] ReLU4 <- Convolution5
I1012 21:57:24.351210 11428 net.cpp:367] ReLU4 -> Convolution5 (in-place)
I1012 21:57:24.351339 11428 net.cpp:122] Setting up ReLU4
I1012 21:57:24.351347 11428 net.cpp:129] Top shape: 50 160 28 28 (6272000)
I1012 21:57:24.351351 11428 net.cpp:137] Memory required for data: 416931800
I1012 21:57:24.351353 11428 layer_factory.hpp:77] Creating layer Convolution6
I1012 21:57:24.351359 11428 net.cpp:84] Creating Layer Convolution6
I1012 21:57:24.351362 11428 net.cpp:406] Convolution6 <- Convolution5
I1012 21:57:24.351368 11428 net.cpp:380] Convolution6 -> Convolution6
I1012 21:57:24.358558 11428 net.cpp:122] Setting up Convolution6
I1012 21:57:24.358579 11428 net.cpp:129] Top shape: 50 160 28 28 (6272000)
I1012 21:57:24.358583 11428 net.cpp:137] Memory required for data: 442019800
I1012 21:57:24.358589 11428 layer_factory.hpp:77] Creating layer Eltwise2
I1012 21:57:24.358599 11428 net.cpp:84] Creating Layer Eltwise2
I1012 21:57:24.358604 11428 net.cpp:406] Eltwise2 <- Convolution6
I1012 21:57:24.358608 11428 net.cpp:406] Eltwise2 <- Eltwise1_ReLU3_0_split_1
I1012 21:57:24.358615 11428 net.cpp:380] Eltwise2 -> Eltwise2
I1012 21:57:24.358654 11428 net.cpp:122] Setting up Eltwise2
I1012 21:57:24.358659 11428 net.cpp:129] Top shape: 50 160 28 28 (6272000)
I1012 21:57:24.358674 11428 net.cpp:137] Memory required for data: 467107800
I1012 21:57:24.358676 11428 layer_factory.hpp:77] Creating layer BatchNorm5
I1012 21:57:24.358683 11428 net.cpp:84] Creating Layer BatchNorm5
I1012 21:57:24.358690 11428 net.cpp:406] BatchNorm5 <- Eltwise2
I1012 21:57:24.358696 11428 net.cpp:367] BatchNorm5 -> Eltwise2 (in-place)
I1012 21:57:24.358860 11428 net.cpp:122] Setting up BatchNorm5
I1012 21:57:24.358867 11428 net.cpp:129] Top shape: 50 160 28 28 (6272000)
I1012 21:57:24.358872 11428 net.cpp:137] Memory required for data: 492195800
I1012 21:57:24.358881 11428 layer_factory.hpp:77] Creating layer Scale5
I1012 21:57:24.358891 11428 net.cpp:84] Creating Layer Scale5
I1012 21:57:24.358896 11428 net.cpp:406] Scale5 <- Eltwise2
I1012 21:57:24.358901 11428 net.cpp:367] Scale5 -> Eltwise2 (in-place)
I1012 21:57:24.358938 11428 layer_factory.hpp:77] Creating layer Scale5
I1012 21:57:24.359036 11428 net.cpp:122] Setting up Scale5
I1012 21:57:24.359043 11428 net.cpp:129] Top shape: 50 160 28 28 (6272000)
I1012 21:57:24.359047 11428 net.cpp:137] Memory required for data: 517283800
I1012 21:57:24.359055 11428 layer_factory.hpp:77] Creating layer ReLU5
I1012 21:57:24.359063 11428 net.cpp:84] Creating Layer ReLU5
I1012 21:57:24.359068 11428 net.cpp:406] ReLU5 <- Eltwise2
I1012 21:57:24.359074 11428 net.cpp:367] ReLU5 -> Eltwise2 (in-place)
I1012 21:57:24.359560 11428 net.cpp:122] Setting up ReLU5
I1012 21:57:24.359572 11428 net.cpp:129] Top shape: 50 160 28 28 (6272000)
I1012 21:57:24.359586 11428 net.cpp:137] Memory required for data: 542371800
I1012 21:57:24.359591 11428 layer_factory.hpp:77] Creating layer Eltwise2_ReLU5_0_split
I1012 21:57:24.359599 11428 net.cpp:84] Creating Layer Eltwise2_ReLU5_0_split
I1012 21:57:24.359604 11428 net.cpp:406] Eltwise2_ReLU5_0_split <- Eltwise2
I1012 21:57:24.359611 11428 net.cpp:380] Eltwise2_ReLU5_0_split -> Eltwise2_ReLU5_0_split_0
I1012 21:57:24.359621 11428 net.cpp:380] Eltwise2_ReLU5_0_split -> Eltwise2_ReLU5_0_split_1
I1012 21:57:24.359658 11428 net.cpp:122] Setting up Eltwise2_ReLU5_0_split
I1012 21:57:24.359666 11428 net.cpp:129] Top shape: 50 160 28 28 (6272000)
I1012 21:57:24.359671 11428 net.cpp:129] Top shape: 50 160 28 28 (6272000)
I1012 21:57:24.359676 11428 net.cpp:137] Memory required for data: 592547800
I1012 21:57:24.359681 11428 layer_factory.hpp:77] Creating layer Convolution7
I1012 21:57:24.359693 11428 net.cpp:84] Creating Layer Convolution7
I1012 21:57:24.359696 11428 net.cpp:406] Convolution7 <- Eltwise2_ReLU5_0_split_0
I1012 21:57:24.359705 11428 net.cpp:380] Convolution7 -> Convolution7
I1012 21:57:24.365664 11428 net.cpp:122] Setting up Convolution7
I1012 21:57:24.365674 11428 net.cpp:129] Top shape: 50 160 28 28 (6272000)
I1012 21:57:24.365676 11428 net.cpp:137] Memory required for data: 617635800
I1012 21:57:24.365686 11428 layer_factory.hpp:77] Creating layer BatchNorm6
I1012 21:57:24.365692 11428 net.cpp:84] Creating Layer BatchNorm6
I1012 21:57:24.365696 11428 net.cpp:406] BatchNorm6 <- Convolution7
I1012 21:57:24.365701 11428 net.cpp:367] BatchNorm6 -> Convolution7 (in-place)
I1012 21:57:24.365866 11428 net.cpp:122] Setting up BatchNorm6
I1012 21:57:24.365871 11428 net.cpp:129] Top shape: 50 160 28 28 (6272000)
I1012 21:57:24.365875 11428 net.cpp:137] Memory required for data: 642723800
I1012 21:57:24.365880 11428 layer_factory.hpp:77] Creating layer Scale6
I1012 21:57:24.365885 11428 net.cpp:84] Creating Layer Scale6
I1012 21:57:24.365890 11428 net.cpp:406] Scale6 <- Convolution7
I1012 21:57:24.365895 11428 net.cpp:367] Scale6 -> Convolution7 (in-place)
I1012 21:57:24.365942 11428 layer_factory.hpp:77] Creating layer Scale6
I1012 21:57:24.366048 11428 net.cpp:122] Setting up Scale6
I1012 21:57:24.366053 11428 net.cpp:129] Top shape: 50 160 28 28 (6272000)
I1012 21:57:24.366056 11428 net.cpp:137] Memory required for data: 667811800
I1012 21:57:24.366061 11428 layer_factory.hpp:77] Creating layer ReLU6
I1012 21:57:24.366066 11428 net.cpp:84] Creating Layer ReLU6
I1012 21:57:24.366070 11428 net.cpp:406] ReLU6 <- Convolution7
I1012 21:57:24.366075 11428 net.cpp:367] ReLU6 -> Convolution7 (in-place)
I1012 21:57:24.366550 11428 net.cpp:122] Setting up ReLU6
I1012 21:57:24.366559 11428 net.cpp:129] Top shape: 50 160 28 28 (6272000)
I1012 21:57:24.366562 11428 net.cpp:137] Memory required for data: 692899800
I1012 21:57:24.366565 11428 layer_factory.hpp:77] Creating layer Convolution8
I1012 21:57:24.366575 11428 net.cpp:84] Creating Layer Convolution8
I1012 21:57:24.366580 11428 net.cpp:406] Convolution8 <- Convolution7
I1012 21:57:24.366585 11428 net.cpp:380] Convolution8 -> Convolution8
I1012 21:57:24.373486 11428 net.cpp:122] Setting up Convolution8
I1012 21:57:24.373495 11428 net.cpp:129] Top shape: 50 160 28 28 (6272000)
I1012 21:57:24.373498 11428 net.cpp:137] Memory required for data: 717987800
I1012 21:57:24.373503 11428 layer_factory.hpp:77] Creating layer Eltwise3
I1012 21:57:24.373509 11428 net.cpp:84] Creating Layer Eltwise3
I1012 21:57:24.373513 11428 net.cpp:406] Eltwise3 <- Convolution8
I1012 21:57:24.373517 11428 net.cpp:406] Eltwise3 <- Eltwise2_ReLU5_0_split_1
I1012 21:57:24.373522 11428 net.cpp:380] Eltwise3 -> Eltwise3
I1012 21:57:24.373548 11428 net.cpp:122] Setting up Eltwise3
I1012 21:57:24.373553 11428 net.cpp:129] Top shape: 50 160 28 28 (6272000)
I1012 21:57:24.373556 11428 net.cpp:137] Memory required for data: 743075800
I1012 21:57:24.373559 11428 layer_factory.hpp:77] Creating layer BatchNorm7
I1012 21:57:24.373565 11428 net.cpp:84] Creating Layer BatchNorm7
I1012 21:57:24.373576 11428 net.cpp:406] BatchNorm7 <- Eltwise3
I1012 21:57:24.373581 11428 net.cpp:367] BatchNorm7 -> Eltwise3 (in-place)
I1012 21:57:24.373744 11428 net.cpp:122] Setting up BatchNorm7
I1012 21:57:24.373750 11428 net.cpp:129] Top shape: 50 160 28 28 (6272000)
I1012 21:57:24.373754 11428 net.cpp:137] Memory required for data: 768163800
I1012 21:57:24.373759 11428 layer_factory.hpp:77] Creating layer Scale7
I1012 21:57:24.373765 11428 net.cpp:84] Creating Layer Scale7
I1012 21:57:24.373769 11428 net.cpp:406] Scale7 <- Eltwise3
I1012 21:57:24.373773 11428 net.cpp:367] Scale7 -> Eltwise3 (in-place)
I1012 21:57:24.373806 11428 layer_factory.hpp:77] Creating layer Scale7
I1012 21:57:24.373903 11428 net.cpp:122] Setting up Scale7
I1012 21:57:24.373908 11428 net.cpp:129] Top shape: 50 160 28 28 (6272000)
I1012 21:57:24.373911 11428 net.cpp:137] Memory required for data: 793251800
I1012 21:57:24.373929 11428 layer_factory.hpp:77] Creating layer ReLU7
I1012 21:57:24.373936 11428 net.cpp:84] Creating Layer ReLU7
I1012 21:57:24.373939 11428 net.cpp:406] ReLU7 <- Eltwise3
I1012 21:57:24.373944 11428 net.cpp:367] ReLU7 -> Eltwise3 (in-place)
I1012 21:57:24.374084 11428 net.cpp:122] Setting up ReLU7
I1012 21:57:24.374090 11428 net.cpp:129] Top shape: 50 160 28 28 (6272000)
I1012 21:57:24.374094 11428 net.cpp:137] Memory required for data: 818339800
I1012 21:57:24.374097 11428 layer_factory.hpp:77] Creating layer Eltwise3_ReLU7_0_split
I1012 21:57:24.374102 11428 net.cpp:84] Creating Layer Eltwise3_ReLU7_0_split
I1012 21:57:24.374106 11428 net.cpp:406] Eltwise3_ReLU7_0_split <- Eltwise3
I1012 21:57:24.374110 11428 net.cpp:380] Eltwise3_ReLU7_0_split -> Eltwise3_ReLU7_0_split_0
I1012 21:57:24.374115 11428 net.cpp:380] Eltwise3_ReLU7_0_split -> Eltwise3_ReLU7_0_split_1
I1012 21:57:24.374150 11428 net.cpp:122] Setting up Eltwise3_ReLU7_0_split
I1012 21:57:24.374155 11428 net.cpp:129] Top shape: 50 160 28 28 (6272000)
I1012 21:57:24.374157 11428 net.cpp:129] Top shape: 50 160 28 28 (6272000)
I1012 21:57:24.374161 11428 net.cpp:137] Memory required for data: 868515800
I1012 21:57:24.374163 11428 layer_factory.hpp:77] Creating layer Convolution9
I1012 21:57:24.374171 11428 net.cpp:84] Creating Layer Convolution9
I1012 21:57:24.374174 11428 net.cpp:406] Convolution9 <- Eltwise3_ReLU7_0_split_0
I1012 21:57:24.374179 11428 net.cpp:380] Convolution9 -> Convolution9
I1012 21:57:24.380481 11428 net.cpp:122] Setting up Convolution9
I1012 21:57:24.380491 11428 net.cpp:129] Top shape: 50 160 28 28 (6272000)
I1012 21:57:24.380496 11428 net.cpp:137] Memory required for data: 893603800
I1012 21:57:24.380499 11428 layer_factory.hpp:77] Creating layer BatchNorm8
I1012 21:57:24.380506 11428 net.cpp:84] Creating Layer BatchNorm8
I1012 21:57:24.380509 11428 net.cpp:406] BatchNorm8 <- Convolution9
I1012 21:57:24.380514 11428 net.cpp:367] BatchNorm8 -> Convolution9 (in-place)
I1012 21:57:24.380679 11428 net.cpp:122] Setting up BatchNorm8
I1012 21:57:24.380684 11428 net.cpp:129] Top shape: 50 160 28 28 (6272000)
I1012 21:57:24.380687 11428 net.cpp:137] Memory required for data: 918691800
I1012 21:57:24.380694 11428 layer_factory.hpp:77] Creating layer Scale8
I1012 21:57:24.380698 11428 net.cpp:84] Creating Layer Scale8
I1012 21:57:24.380702 11428 net.cpp:406] Scale8 <- Convolution9
I1012 21:57:24.380707 11428 net.cpp:367] Scale8 -> Convolution9 (in-place)
I1012 21:57:24.380739 11428 layer_factory.hpp:77] Creating layer Scale8
I1012 21:57:24.380832 11428 net.cpp:122] Setting up Scale8
I1012 21:57:24.380838 11428 net.cpp:129] Top shape: 50 160 28 28 (6272000)
I1012 21:57:24.380841 11428 net.cpp:137] Memory required for data: 943779800
I1012 21:57:24.380846 11428 layer_factory.hpp:77] Creating layer ReLU8
I1012 21:57:24.380851 11428 net.cpp:84] Creating Layer ReLU8
I1012 21:57:24.380854 11428 net.cpp:406] ReLU8 <- Convolution9
I1012 21:57:24.380858 11428 net.cpp:367] ReLU8 -> Convolution9 (in-place)
I1012 21:57:24.380990 11428 net.cpp:122] Setting up ReLU8
I1012 21:57:24.380996 11428 net.cpp:129] Top shape: 50 160 28 28 (6272000)
I1012 21:57:24.381000 11428 net.cpp:137] Memory required for data: 968867800
I1012 21:57:24.381009 11428 layer_factory.hpp:77] Creating layer Convolution10
I1012 21:57:24.381017 11428 net.cpp:84] Creating Layer Convolution10
I1012 21:57:24.381021 11428 net.cpp:406] Convolution10 <- Convolution9
I1012 21:57:24.381026 11428 net.cpp:380] Convolution10 -> Convolution10
I1012 21:57:24.388100 11428 net.cpp:122] Setting up Convolution10
I1012 21:57:24.388123 11428 net.cpp:129] Top shape: 50 160 28 28 (6272000)
I1012 21:57:24.388128 11428 net.cpp:137] Memory required for data: 993955800
I1012 21:57:24.388134 11428 layer_factory.hpp:77] Creating layer Eltwise4
I1012 21:57:24.388139 11428 net.cpp:84] Creating Layer Eltwise4
I1012 21:57:24.388144 11428 net.cpp:406] Eltwise4 <- Convolution10
I1012 21:57:24.388150 11428 net.cpp:406] Eltwise4 <- Eltwise3_ReLU7_0_split_1
I1012 21:57:24.388156 11428 net.cpp:380] Eltwise4 -> Eltwise4
I1012 21:57:24.388191 11428 net.cpp:122] Setting up Eltwise4
I1012 21:57:24.388198 11428 net.cpp:129] Top shape: 50 160 28 28 (6272000)
I1012 21:57:24.388211 11428 net.cpp:137] Memory required for data: 1019043800
I1012 21:57:24.388214 11428 layer_factory.hpp:77] Creating layer Eltwise4_Eltwise4_0_split
I1012 21:57:24.388219 11428 net.cpp:84] Creating Layer Eltwise4_Eltwise4_0_split
I1012 21:57:24.388223 11428 net.cpp:406] Eltwise4_Eltwise4_0_split <- Eltwise4
I1012 21:57:24.388228 11428 net.cpp:380] Eltwise4_Eltwise4_0_split -> Eltwise4_Eltwise4_0_split_0
I1012 21:57:24.388234 11428 net.cpp:380] Eltwise4_Eltwise4_0_split -> Eltwise4_Eltwise4_0_split_1
I1012 21:57:24.388265 11428 net.cpp:122] Setting up Eltwise4_Eltwise4_0_split
I1012 21:57:24.388272 11428 net.cpp:129] Top shape: 50 160 28 28 (6272000)
I1012 21:57:24.388275 11428 net.cpp:129] Top shape: 50 160 28 28 (6272000)
I1012 21:57:24.388279 11428 net.cpp:137] Memory required for data: 1069219800
I1012 21:57:24.388283 11428 layer_factory.hpp:77] Creating layer Convolution11
I1012 21:57:24.388291 11428 net.cpp:84] Creating Layer Convolution11
I1012 21:57:24.388295 11428 net.cpp:406] Convolution11 <- Eltwise4_Eltwise4_0_split_0
I1012 21:57:24.388301 11428 net.cpp:380] Convolution11 -> Convolution11
I1012 21:57:24.400037 11428 net.cpp:122] Setting up Convolution11
I1012 21:57:24.400048 11428 net.cpp:129] Top shape: 50 320 14 14 (3136000)
I1012 21:57:24.400051 11428 net.cpp:137] Memory required for data: 1081763800
I1012 21:57:24.400058 11428 layer_factory.hpp:77] Creating layer BatchNorm9
I1012 21:57:24.400065 11428 net.cpp:84] Creating Layer BatchNorm9
I1012 21:57:24.400069 11428 net.cpp:406] BatchNorm9 <- Convolution11
I1012 21:57:24.400076 11428 net.cpp:367] BatchNorm9 -> Convolution11 (in-place)
I1012 21:57:24.400259 11428 net.cpp:122] Setting up BatchNorm9
I1012 21:57:24.400265 11428 net.cpp:129] Top shape: 50 320 14 14 (3136000)
I1012 21:57:24.400279 11428 net.cpp:137] Memory required for data: 1094307800
I1012 21:57:24.400285 11428 layer_factory.hpp:77] Creating layer Scale9
I1012 21:57:24.400292 11428 net.cpp:84] Creating Layer Scale9
I1012 21:57:24.400296 11428 net.cpp:406] Scale9 <- Convolution11
I1012 21:57:24.400300 11428 net.cpp:367] Scale9 -> Convolution11 (in-place)
I1012 21:57:24.400339 11428 layer_factory.hpp:77] Creating layer Scale9
I1012 21:57:24.400436 11428 net.cpp:122] Setting up Scale9
I1012 21:57:24.400442 11428 net.cpp:129] Top shape: 50 320 14 14 (3136000)
I1012 21:57:24.400446 11428 net.cpp:137] Memory required for data: 1106851800
I1012 21:57:24.400451 11428 layer_factory.hpp:77] Creating layer ReLU9
I1012 21:57:24.400458 11428 net.cpp:84] Creating Layer ReLU9
I1012 21:57:24.400462 11428 net.cpp:406] ReLU9 <- Convolution11
I1012 21:57:24.400466 11428 net.cpp:367] ReLU9 -> Convolution11 (in-place)
I1012 21:57:24.400593 11428 net.cpp:122] Setting up ReLU9
I1012 21:57:24.400600 11428 net.cpp:129] Top shape: 50 320 14 14 (3136000)
I1012 21:57:24.400604 11428 net.cpp:137] Memory required for data: 1119395800
I1012 21:57:24.400609 11428 layer_factory.hpp:77] Creating layer Convolution12
I1012 21:57:24.400616 11428 net.cpp:84] Creating Layer Convolution12
I1012 21:57:24.400629 11428 net.cpp:406] Convolution12 <- Convolution11
I1012 21:57:24.400635 11428 net.cpp:380] Convolution12 -> Convolution12
I1012 21:57:24.423477 11428 net.cpp:122] Setting up Convolution12
I1012 21:57:24.423506 11428 net.cpp:129] Top shape: 50 320 14 14 (3136000)
I1012 21:57:24.423509 11428 net.cpp:137] Memory required for data: 1131939800
I1012 21:57:24.423516 11428 layer_factory.hpp:77] Creating layer Convolution13
I1012 21:57:24.423526 11428 net.cpp:84] Creating Layer Convolution13
I1012 21:57:24.423530 11428 net.cpp:406] Convolution13 <- Eltwise4_Eltwise4_0_split_1
I1012 21:57:24.423547 11428 net.cpp:380] Convolution13 -> Convolution13
I1012 21:57:24.425612 11428 net.cpp:122] Setting up Convolution13
I1012 21:57:24.425624 11428 net.cpp:129] Top shape: 50 320 14 14 (3136000)
I1012 21:57:24.425637 11428 net.cpp:137] Memory required for data: 1144483800
I1012 21:57:24.425642 11428 layer_factory.hpp:77] Creating layer Eltwise5
I1012 21:57:24.425649 11428 net.cpp:84] Creating Layer Eltwise5
I1012 21:57:24.425654 11428 net.cpp:406] Eltwise5 <- Convolution12
I1012 21:57:24.425659 11428 net.cpp:406] Eltwise5 <- Convolution13
I1012 21:57:24.425665 11428 net.cpp:380] Eltwise5 -> Eltwise5
I1012 21:57:24.425698 11428 net.cpp:122] Setting up Eltwise5
I1012 21:57:24.425704 11428 net.cpp:129] Top shape: 50 320 14 14 (3136000)
I1012 21:57:24.425717 11428 net.cpp:137] Memory required for data: 1157027800
I1012 21:57:24.425720 11428 layer_factory.hpp:77] Creating layer BatchNorm10
I1012 21:57:24.425726 11428 net.cpp:84] Creating Layer BatchNorm10
I1012 21:57:24.425729 11428 net.cpp:406] BatchNorm10 <- Eltwise5
I1012 21:57:24.425734 11428 net.cpp:367] BatchNorm10 -> Eltwise5 (in-place)
I1012 21:57:24.425920 11428 net.cpp:122] Setting up BatchNorm10
I1012 21:57:24.425937 11428 net.cpp:129] Top shape: 50 320 14 14 (3136000)
I1012 21:57:24.425940 11428 net.cpp:137] Memory required for data: 1169571800
I1012 21:57:24.425961 11428 layer_factory.hpp:77] Creating layer Scale10
I1012 21:57:24.425976 11428 net.cpp:84] Creating Layer Scale10
I1012 21:57:24.425978 11428 net.cpp:406] Scale10 <- Eltwise5
I1012 21:57:24.425985 11428 net.cpp:367] Scale10 -> Eltwise5 (in-place)
I1012 21:57:24.426028 11428 layer_factory.hpp:77] Creating layer Scale10
I1012 21:57:24.426126 11428 net.cpp:122] Setting up Scale10
I1012 21:57:24.426132 11428 net.cpp:129] Top shape: 50 320 14 14 (3136000)
I1012 21:57:24.426136 11428 net.cpp:137] Memory required for data: 1182115800
I1012 21:57:24.426142 11428 layer_factory.hpp:77] Creating layer ReLU10
I1012 21:57:24.426148 11428 net.cpp:84] Creating Layer ReLU10
I1012 21:57:24.426151 11428 net.cpp:406] ReLU10 <- Eltwise5
I1012 21:57:24.426157 11428 net.cpp:367] ReLU10 -> Eltwise5 (in-place)
I1012 21:57:24.426287 11428 net.cpp:122] Setting up ReLU10
I1012 21:57:24.426295 11428 net.cpp:129] Top shape: 50 320 14 14 (3136000)
I1012 21:57:24.426298 11428 net.cpp:137] Memory required for data: 1194659800
I1012 21:57:24.426302 11428 layer_factory.hpp:77] Creating layer Eltwise5_ReLU10_0_split
I1012 21:57:24.426308 11428 net.cpp:84] Creating Layer Eltwise5_ReLU10_0_split
I1012 21:57:24.426312 11428 net.cpp:406] Eltwise5_ReLU10_0_split <- Eltwise5
I1012 21:57:24.426318 11428 net.cpp:380] Eltwise5_ReLU10_0_split -> Eltwise5_ReLU10_0_split_0
I1012 21:57:24.426327 11428 net.cpp:380] Eltwise5_ReLU10_0_split -> Eltwise5_ReLU10_0_split_1
I1012 21:57:24.426365 11428 net.cpp:122] Setting up Eltwise5_ReLU10_0_split
I1012 21:57:24.426371 11428 net.cpp:129] Top shape: 50 320 14 14 (3136000)
I1012 21:57:24.426376 11428 net.cpp:129] Top shape: 50 320 14 14 (3136000)
I1012 21:57:24.426379 11428 net.cpp:137] Memory required for data: 1219747800
I1012 21:57:24.426383 11428 layer_factory.hpp:77] Creating layer Convolution14
I1012 21:57:24.426393 11428 net.cpp:84] Creating Layer Convolution14
I1012 21:57:24.426396 11428 net.cpp:406] Convolution14 <- Eltwise5_ReLU10_0_split_0
I1012 21:57:24.426403 11428 net.cpp:380] Convolution14 -> Convolution14
I1012 21:57:24.449241 11428 net.cpp:122] Setting up Convolution14
I1012 21:57:24.449261 11428 net.cpp:129] Top shape: 50 320 14 14 (3136000)
I1012 21:57:24.449275 11428 net.cpp:137] Memory required for data: 1232291800
I1012 21:57:24.449301 11428 layer_factory.hpp:77] Creating layer BatchNorm11
I1012 21:57:24.449332 11428 net.cpp:84] Creating Layer BatchNorm11
I1012 21:57:24.449337 11428 net.cpp:406] BatchNorm11 <- Convolution14
I1012 21:57:24.449357 11428 net.cpp:367] BatchNorm11 -> Convolution14 (in-place)
I1012 21:57:24.449584 11428 net.cpp:122] Setting up BatchNorm11
I1012 21:57:24.449590 11428 net.cpp:129] Top shape: 50 320 14 14 (3136000)
I1012 21:57:24.449594 11428 net.cpp:137] Memory required for data: 1244835800
I1012 21:57:24.449600 11428 layer_factory.hpp:77] Creating layer Scale11
I1012 21:57:24.449606 11428 net.cpp:84] Creating Layer Scale11
I1012 21:57:24.449620 11428 net.cpp:406] Scale11 <- Convolution14
I1012 21:57:24.449626 11428 net.cpp:367] Scale11 -> Convolution14 (in-place)
I1012 21:57:24.449728 11428 layer_factory.hpp:77] Creating layer Scale11
I1012 21:57:24.449856 11428 net.cpp:122] Setting up Scale11
I1012 21:57:24.449863 11428 net.cpp:129] Top shape: 50 320 14 14 (3136000)
I1012 21:57:24.449877 11428 net.cpp:137] Memory required for data: 1257379800
I1012 21:57:24.449882 11428 layer_factory.hpp:77] Creating layer ReLU11
I1012 21:57:24.449888 11428 net.cpp:84] Creating Layer ReLU11
I1012 21:57:24.449894 11428 net.cpp:406] ReLU11 <- Convolution14
I1012 21:57:24.449913 11428 net.cpp:367] ReLU11 -> Convolution14 (in-place)
I1012 21:57:24.450075 11428 net.cpp:122] Setting up ReLU11
I1012 21:57:24.450083 11428 net.cpp:129] Top shape: 50 320 14 14 (3136000)
I1012 21:57:24.450098 11428 net.cpp:137] Memory required for data: 1269923800
I1012 21:57:24.450101 11428 layer_factory.hpp:77] Creating layer Convolution15
I1012 21:57:24.450120 11428 net.cpp:84] Creating Layer Convolution15
I1012 21:57:24.450125 11428 net.cpp:406] Convolution15 <- Convolution14
I1012 21:57:24.450140 11428 net.cpp:380] Convolution15 -> Convolution15
I1012 21:57:24.471953 11428 net.cpp:122] Setting up Convolution15
I1012 21:57:24.471977 11428 net.cpp:129] Top shape: 50 320 14 14 (3136000)
I1012 21:57:24.471981 11428 net.cpp:137] Memory required for data: 1282467800
I1012 21:57:24.471995 11428 layer_factory.hpp:77] Creating layer Eltwise6
I1012 21:57:24.472003 11428 net.cpp:84] Creating Layer Eltwise6
I1012 21:57:24.472018 11428 net.cpp:406] Eltwise6 <- Convolution15
I1012 21:57:24.472038 11428 net.cpp:406] Eltwise6 <- Eltwise5_ReLU10_0_split_1
I1012 21:57:24.472043 11428 net.cpp:380] Eltwise6 -> Eltwise6
I1012 21:57:24.472101 11428 net.cpp:122] Setting up Eltwise6
I1012 21:57:24.472116 11428 net.cpp:129] Top shape: 50 320 14 14 (3136000)
I1012 21:57:24.472120 11428 net.cpp:137] Memory required for data: 1295011800
I1012 21:57:24.472132 11428 layer_factory.hpp:77] Creating layer BatchNorm12
I1012 21:57:24.472138 11428 net.cpp:84] Creating Layer BatchNorm12
I1012 21:57:24.472153 11428 net.cpp:406] BatchNorm12 <- Eltwise6
I1012 21:57:24.472158 11428 net.cpp:367] BatchNorm12 -> Eltwise6 (in-place)
I1012 21:57:24.472345 11428 net.cpp:122] Setting up BatchNorm12
I1012 21:57:24.472352 11428 net.cpp:129] Top shape: 50 320 14 14 (3136000)
I1012 21:57:24.472354 11428 net.cpp:137] Memory required for data: 1307555800
I1012 21:57:24.472360 11428 layer_factory.hpp:77] Creating layer Scale12
I1012 21:57:24.472378 11428 net.cpp:84] Creating Layer Scale12
I1012 21:57:24.472383 11428 net.cpp:406] Scale12 <- Eltwise6
I1012 21:57:24.472400 11428 net.cpp:367] Scale12 -> Eltwise6 (in-place)
I1012 21:57:24.472450 11428 layer_factory.hpp:77] Creating layer Scale12
I1012 21:57:24.472548 11428 net.cpp:122] Setting up Scale12
I1012 21:57:24.472554 11428 net.cpp:129] Top shape: 50 320 14 14 (3136000)
I1012 21:57:24.472558 11428 net.cpp:137] Memory required for data: 1320099800
I1012 21:57:24.472563 11428 layer_factory.hpp:77] Creating layer ReLU12
I1012 21:57:24.472574 11428 net.cpp:84] Creating Layer ReLU12
I1012 21:57:24.472579 11428 net.cpp:406] ReLU12 <- Eltwise6
I1012 21:57:24.472584 11428 net.cpp:367] ReLU12 -> Eltwise6 (in-place)
I1012 21:57:24.473086 11428 net.cpp:122] Setting up ReLU12
I1012 21:57:24.473096 11428 net.cpp:129] Top shape: 50 320 14 14 (3136000)
I1012 21:57:24.473100 11428 net.cpp:137] Memory required for data: 1332643800
I1012 21:57:24.473104 11428 layer_factory.hpp:77] Creating layer Eltwise6_ReLU12_0_split
I1012 21:57:24.473111 11428 net.cpp:84] Creating Layer Eltwise6_ReLU12_0_split
I1012 21:57:24.473116 11428 net.cpp:406] Eltwise6_ReLU12_0_split <- Eltwise6
I1012 21:57:24.473121 11428 net.cpp:380] Eltwise6_ReLU12_0_split -> Eltwise6_ReLU12_0_split_0
I1012 21:57:24.473129 11428 net.cpp:380] Eltwise6_ReLU12_0_split -> Eltwise6_ReLU12_0_split_1
I1012 21:57:24.473165 11428 net.cpp:122] Setting up Eltwise6_ReLU12_0_split
I1012 21:57:24.473171 11428 net.cpp:129] Top shape: 50 320 14 14 (3136000)
I1012 21:57:24.473176 11428 net.cpp:129] Top shape: 50 320 14 14 (3136000)
I1012 21:57:24.473181 11428 net.cpp:137] Memory required for data: 1357731800
I1012 21:57:24.473183 11428 layer_factory.hpp:77] Creating layer Convolution16
I1012 21:57:24.473191 11428 net.cpp:84] Creating Layer Convolution16
I1012 21:57:24.473196 11428 net.cpp:406] Convolution16 <- Eltwise6_ReLU12_0_split_0
I1012 21:57:24.473202 11428 net.cpp:380] Convolution16 -> Convolution16
I1012 21:57:24.495162 11428 net.cpp:122] Setting up Convolution16
I1012 21:57:24.495182 11428 net.cpp:129] Top shape: 50 320 14 14 (3136000)
I1012 21:57:24.495185 11428 net.cpp:137] Memory required for data: 1370275800
I1012 21:57:24.495192 11428 layer_factory.hpp:77] Creating layer BatchNorm13
I1012 21:57:24.495210 11428 net.cpp:84] Creating Layer BatchNorm13
I1012 21:57:24.495226 11428 net.cpp:406] BatchNorm13 <- Convolution16
I1012 21:57:24.495234 11428 net.cpp:367] BatchNorm13 -> Convolution16 (in-place)
I1012 21:57:24.495437 11428 net.cpp:122] Setting up BatchNorm13
I1012 21:57:24.495445 11428 net.cpp:129] Top shape: 50 320 14 14 (3136000)
I1012 21:57:24.495457 11428 net.cpp:137] Memory required for data: 1382819800
I1012 21:57:24.495465 11428 layer_factory.hpp:77] Creating layer Scale13
I1012 21:57:24.495489 11428 net.cpp:84] Creating Layer Scale13
I1012 21:57:24.495503 11428 net.cpp:406] Scale13 <- Convolution16
I1012 21:57:24.495512 11428 net.cpp:367] Scale13 -> Convolution16 (in-place)
I1012 21:57:24.495565 11428 layer_factory.hpp:77] Creating layer Scale13
I1012 21:57:24.495685 11428 net.cpp:122] Setting up Scale13
I1012 21:57:24.495692 11428 net.cpp:129] Top shape: 50 320 14 14 (3136000)
I1012 21:57:24.495698 11428 net.cpp:137] Memory required for data: 1395363800
I1012 21:57:24.495718 11428 layer_factory.hpp:77] Creating layer ReLU13
I1012 21:57:24.495724 11428 net.cpp:84] Creating Layer ReLU13
I1012 21:57:24.495728 11428 net.cpp:406] ReLU13 <- Convolution16
I1012 21:57:24.495735 11428 net.cpp:367] ReLU13 -> Convolution16 (in-place)
I1012 21:57:24.496259 11428 net.cpp:122] Setting up ReLU13
I1012 21:57:24.496269 11428 net.cpp:129] Top shape: 50 320 14 14 (3136000)
I1012 21:57:24.496275 11428 net.cpp:137] Memory required for data: 1407907800
I1012 21:57:24.496291 11428 layer_factory.hpp:77] Creating layer Convolution17
I1012 21:57:24.496304 11428 net.cpp:84] Creating Layer Convolution17
I1012 21:57:24.496309 11428 net.cpp:406] Convolution17 <- Convolution16
I1012 21:57:24.496317 11428 net.cpp:380] Convolution17 -> Convolution17
I1012 21:57:24.518936 11428 net.cpp:122] Setting up Convolution17
I1012 21:57:24.518966 11428 net.cpp:129] Top shape: 50 320 14 14 (3136000)
I1012 21:57:24.518971 11428 net.cpp:137] Memory required for data: 1420451800
I1012 21:57:24.518978 11428 layer_factory.hpp:77] Creating layer Eltwise7
I1012 21:57:24.518999 11428 net.cpp:84] Creating Layer Eltwise7
I1012 21:57:24.519006 11428 net.cpp:406] Eltwise7 <- Convolution17
I1012 21:57:24.519011 11428 net.cpp:406] Eltwise7 <- Eltwise6_ReLU12_0_split_1
I1012 21:57:24.519019 11428 net.cpp:380] Eltwise7 -> Eltwise7
I1012 21:57:24.519080 11428 net.cpp:122] Setting up Eltwise7
I1012 21:57:24.519096 11428 net.cpp:129] Top shape: 50 320 14 14 (3136000)
I1012 21:57:24.519099 11428 net.cpp:137] Memory required for data: 1432995800
I1012 21:57:24.519114 11428 layer_factory.hpp:77] Creating layer BatchNorm14
I1012 21:57:24.519135 11428 net.cpp:84] Creating Layer BatchNorm14
I1012 21:57:24.519138 11428 net.cpp:406] BatchNorm14 <- Eltwise7
I1012 21:57:24.519153 11428 net.cpp:367] BatchNorm14 -> Eltwise7 (in-place)
I1012 21:57:24.519366 11428 net.cpp:122] Setting up BatchNorm14
I1012 21:57:24.519373 11428 net.cpp:129] Top shape: 50 320 14 14 (3136000)
I1012 21:57:24.519387 11428 net.cpp:137] Memory required for data: 1445539800
I1012 21:57:24.519392 11428 layer_factory.hpp:77] Creating layer Scale14
I1012 21:57:24.519409 11428 net.cpp:84] Creating Layer Scale14
I1012 21:57:24.519413 11428 net.cpp:406] Scale14 <- Eltwise7
I1012 21:57:24.519418 11428 net.cpp:367] Scale14 -> Eltwise7 (in-place)
I1012 21:57:24.519479 11428 layer_factory.hpp:77] Creating layer Scale14
I1012 21:57:24.519621 11428 net.cpp:122] Setting up Scale14
I1012 21:57:24.519628 11428 net.cpp:129] Top shape: 50 320 14 14 (3136000)
I1012 21:57:24.519641 11428 net.cpp:137] Memory required for data: 1458083800
I1012 21:57:24.519646 11428 layer_factory.hpp:77] Creating layer ReLU14
I1012 21:57:24.519667 11428 net.cpp:84] Creating Layer ReLU14
I1012 21:57:24.519670 11428 net.cpp:406] ReLU14 <- Eltwise7
I1012 21:57:24.519685 11428 net.cpp:367] ReLU14 -> Eltwise7 (in-place)
I1012 21:57:24.519862 11428 net.cpp:122] Setting up ReLU14
I1012 21:57:24.519870 11428 net.cpp:129] Top shape: 50 320 14 14 (3136000)
I1012 21:57:24.519884 11428 net.cpp:137] Memory required for data: 1470627800
I1012 21:57:24.519888 11428 layer_factory.hpp:77] Creating layer Eltwise7_ReLU14_0_split
I1012 21:57:24.519896 11428 net.cpp:84] Creating Layer Eltwise7_ReLU14_0_split
I1012 21:57:24.519901 11428 net.cpp:406] Eltwise7_ReLU14_0_split <- Eltwise7
I1012 21:57:24.519918 11428 net.cpp:380] Eltwise7_ReLU14_0_split -> Eltwise7_ReLU14_0_split_0
I1012 21:57:24.519927 11428 net.cpp:380] Eltwise7_ReLU14_0_split -> Eltwise7_ReLU14_0_split_1
I1012 21:57:24.519976 11428 net.cpp:122] Setting up Eltwise7_ReLU14_0_split
I1012 21:57:24.519984 11428 net.cpp:129] Top shape: 50 320 14 14 (3136000)
I1012 21:57:24.519999 11428 net.cpp:129] Top shape: 50 320 14 14 (3136000)
I1012 21:57:24.520004 11428 net.cpp:137] Memory required for data: 1495715800
I1012 21:57:24.520009 11428 layer_factory.hpp:77] Creating layer Convolution18
I1012 21:57:24.520020 11428 net.cpp:84] Creating Layer Convolution18
I1012 21:57:24.520025 11428 net.cpp:406] Convolution18 <- Eltwise7_ReLU14_0_split_0
I1012 21:57:24.520035 11428 net.cpp:380] Convolution18 -> Convolution18
I1012 21:57:24.542647 11428 net.cpp:122] Setting up Convolution18
I1012 21:57:24.542668 11428 net.cpp:129] Top shape: 50 320 14 14 (3136000)
I1012 21:57:24.542671 11428 net.cpp:137] Memory required for data: 1508259800
I1012 21:57:24.542678 11428 layer_factory.hpp:77] Creating layer BatchNorm15
I1012 21:57:24.542690 11428 net.cpp:84] Creating Layer BatchNorm15
I1012 21:57:24.542709 11428 net.cpp:406] BatchNorm15 <- Convolution18
I1012 21:57:24.542717 11428 net.cpp:367] BatchNorm15 -> Convolution18 (in-place)
I1012 21:57:24.542914 11428 net.cpp:122] Setting up BatchNorm15
I1012 21:57:24.542922 11428 net.cpp:129] Top shape: 50 320 14 14 (3136000)
I1012 21:57:24.542924 11428 net.cpp:137] Memory required for data: 1520803800
I1012 21:57:24.542930 11428 layer_factory.hpp:77] Creating layer Scale15
I1012 21:57:24.542951 11428 net.cpp:84] Creating Layer Scale15
I1012 21:57:24.542956 11428 net.cpp:406] Scale15 <- Convolution18
I1012 21:57:24.542963 11428 net.cpp:367] Scale15 -> Convolution18 (in-place)
I1012 21:57:24.543018 11428 layer_factory.hpp:77] Creating layer Scale15
I1012 21:57:24.543139 11428 net.cpp:122] Setting up Scale15
I1012 21:57:24.543146 11428 net.cpp:129] Top shape: 50 320 14 14 (3136000)
I1012 21:57:24.543149 11428 net.cpp:137] Memory required for data: 1533347800
I1012 21:57:24.543154 11428 layer_factory.hpp:77] Creating layer ReLU15
I1012 21:57:24.543175 11428 net.cpp:84] Creating Layer ReLU15
I1012 21:57:24.543180 11428 net.cpp:406] ReLU15 <- Convolution18
I1012 21:57:24.543184 11428 net.cpp:367] ReLU15 -> Convolution18 (in-place)
I1012 21:57:24.543397 11428 net.cpp:122] Setting up ReLU15
I1012 21:57:24.543404 11428 net.cpp:129] Top shape: 50 320 14 14 (3136000)
I1012 21:57:24.543408 11428 net.cpp:137] Memory required for data: 1545891800
I1012 21:57:24.543411 11428 layer_factory.hpp:77] Creating layer Convolution19
I1012 21:57:24.543431 11428 net.cpp:84] Creating Layer Convolution19
I1012 21:57:24.543434 11428 net.cpp:406] Convolution19 <- Convolution18
I1012 21:57:24.543450 11428 net.cpp:380] Convolution19 -> Convolution19
I1012 21:57:24.565440 11428 net.cpp:122] Setting up Convolution19
I1012 21:57:24.565464 11428 net.cpp:129] Top shape: 50 320 14 14 (3136000)
I1012 21:57:24.565467 11428 net.cpp:137] Memory required for data: 1558435800
I1012 21:57:24.565474 11428 layer_factory.hpp:77] Creating layer Eltwise8
I1012 21:57:24.565491 11428 net.cpp:84] Creating Layer Eltwise8
I1012 21:57:24.565497 11428 net.cpp:406] Eltwise8 <- Convolution19
I1012 21:57:24.565505 11428 net.cpp:406] Eltwise8 <- Eltwise7_ReLU14_0_split_1
I1012 21:57:24.565510 11428 net.cpp:380] Eltwise8 -> Eltwise8
I1012 21:57:24.565551 11428 net.cpp:122] Setting up Eltwise8
I1012 21:57:24.565565 11428 net.cpp:129] Top shape: 50 320 14 14 (3136000)
I1012 21:57:24.565578 11428 net.cpp:137] Memory required for data: 1570979800
I1012 21:57:24.565582 11428 layer_factory.hpp:77] Creating layer Eltwise8_Eltwise8_0_split
I1012 21:57:24.565589 11428 net.cpp:84] Creating Layer Eltwise8_Eltwise8_0_split
I1012 21:57:24.565608 11428 net.cpp:406] Eltwise8_Eltwise8_0_split <- Eltwise8
I1012 21:57:24.565623 11428 net.cpp:380] Eltwise8_Eltwise8_0_split -> Eltwise8_Eltwise8_0_split_0
I1012 21:57:24.565629 11428 net.cpp:380] Eltwise8_Eltwise8_0_split -> Eltwise8_Eltwise8_0_split_1
I1012 21:57:24.565692 11428 net.cpp:122] Setting up Eltwise8_Eltwise8_0_split
I1012 21:57:24.565699 11428 net.cpp:129] Top shape: 50 320 14 14 (3136000)
I1012 21:57:24.565716 11428 net.cpp:129] Top shape: 50 320 14 14 (3136000)
I1012 21:57:24.565721 11428 net.cpp:137] Memory required for data: 1596067800
I1012 21:57:24.565737 11428 layer_factory.hpp:77] Creating layer Convolution20
I1012 21:57:24.565749 11428 net.cpp:84] Creating Layer Convolution20
I1012 21:57:24.565754 11428 net.cpp:406] Convolution20 <- Eltwise8_Eltwise8_0_split_0
I1012 21:57:24.565763 11428 net.cpp:380] Convolution20 -> Convolution20
I1012 21:57:24.608299 11428 net.cpp:122] Setting up Convolution20
I1012 21:57:24.608321 11428 net.cpp:129] Top shape: 50 640 7 7 (1568000)
I1012 21:57:24.608325 11428 net.cpp:137] Memory required for data: 1602339800
I1012 21:57:24.608332 11428 layer_factory.hpp:77] Creating layer BatchNorm16
I1012 21:57:24.608345 11428 net.cpp:84] Creating Layer BatchNorm16
I1012 21:57:24.608361 11428 net.cpp:406] BatchNorm16 <- Convolution20
I1012 21:57:24.608382 11428 net.cpp:367] BatchNorm16 -> Convolution20 (in-place)
I1012 21:57:24.608618 11428 net.cpp:122] Setting up BatchNorm16
I1012 21:57:24.608624 11428 net.cpp:129] Top shape: 50 640 7 7 (1568000)
I1012 21:57:24.608628 11428 net.cpp:137] Memory required for data: 1608611800
I1012 21:57:24.608633 11428 layer_factory.hpp:77] Creating layer Scale16
I1012 21:57:24.608640 11428 net.cpp:84] Creating Layer Scale16
I1012 21:57:24.608654 11428 net.cpp:406] Scale16 <- Convolution20
I1012 21:57:24.608660 11428 net.cpp:367] Scale16 -> Convolution20 (in-place)
I1012 21:57:24.608737 11428 layer_factory.hpp:77] Creating layer Scale16
I1012 21:57:24.608903 11428 net.cpp:122] Setting up Scale16
I1012 21:57:24.608911 11428 net.cpp:129] Top shape: 50 640 7 7 (1568000)
I1012 21:57:24.608923 11428 net.cpp:137] Memory required for data: 1614883800
I1012 21:57:24.608928 11428 layer_factory.hpp:77] Creating layer ReLU16
I1012 21:57:24.608935 11428 net.cpp:84] Creating Layer ReLU16
I1012 21:57:24.608952 11428 net.cpp:406] ReLU16 <- Convolution20
I1012 21:57:24.608958 11428 net.cpp:367] ReLU16 -> Convolution20 (in-place)
I1012 21:57:24.609148 11428 net.cpp:122] Setting up ReLU16
I1012 21:57:24.609154 11428 net.cpp:129] Top shape: 50 640 7 7 (1568000)
I1012 21:57:24.609191 11428 net.cpp:137] Memory required for data: 1621155800
I1012 21:57:24.609195 11428 layer_factory.hpp:77] Creating layer Convolution21
I1012 21:57:24.609215 11428 net.cpp:84] Creating Layer Convolution21
I1012 21:57:24.609218 11428 net.cpp:406] Convolution21 <- Convolution20
I1012 21:57:24.609225 11428 net.cpp:380] Convolution21 -> Convolution21
I1012 21:57:24.692749 11428 net.cpp:122] Setting up Convolution21
I1012 21:57:24.692771 11428 net.cpp:129] Top shape: 50 640 7 7 (1568000)
I1012 21:57:24.692775 11428 net.cpp:137] Memory required for data: 1627427800
I1012 21:57:24.692781 11428 layer_factory.hpp:77] Creating layer Convolution22
I1012 21:57:24.692797 11428 net.cpp:84] Creating Layer Convolution22
I1012 21:57:24.692816 11428 net.cpp:406] Convolution22 <- Eltwise8_Eltwise8_0_split_1
I1012 21:57:24.692834 11428 net.cpp:380] Convolution22 -> Convolution22
I1012 21:57:24.698557 11428 net.cpp:122] Setting up Convolution22
I1012 21:57:24.698568 11428 net.cpp:129] Top shape: 50 640 7 7 (1568000)
I1012 21:57:24.698572 11428 net.cpp:137] Memory required for data: 1633699800
I1012 21:57:24.698577 11428 layer_factory.hpp:77] Creating layer Eltwise9
I1012 21:57:24.698583 11428 net.cpp:84] Creating Layer Eltwise9
I1012 21:57:24.698587 11428 net.cpp:406] Eltwise9 <- Convolution21
I1012 21:57:24.698601 11428 net.cpp:406] Eltwise9 <- Convolution22
I1012 21:57:24.698607 11428 net.cpp:380] Eltwise9 -> Eltwise9
I1012 21:57:24.698653 11428 net.cpp:122] Setting up Eltwise9
I1012 21:57:24.698660 11428 net.cpp:129] Top shape: 50 640 7 7 (1568000)
I1012 21:57:24.698673 11428 net.cpp:137] Memory required for data: 1639971800
I1012 21:57:24.698676 11428 layer_factory.hpp:77] Creating layer BatchNorm17
I1012 21:57:24.698693 11428 net.cpp:84] Creating Layer BatchNorm17
I1012 21:57:24.698695 11428 net.cpp:406] BatchNorm17 <- Eltwise9
I1012 21:57:24.698711 11428 net.cpp:367] BatchNorm17 -> Eltwise9 (in-place)
I1012 21:57:24.698904 11428 net.cpp:122] Setting up BatchNorm17
I1012 21:57:24.698910 11428 net.cpp:129] Top shape: 50 640 7 7 (1568000)
I1012 21:57:24.698925 11428 net.cpp:137] Memory required for data: 1646243800
I1012 21:57:24.698931 11428 layer_factory.hpp:77] Creating layer Scale17
I1012 21:57:24.698947 11428 net.cpp:84] Creating Layer Scale17
I1012 21:57:24.698951 11428 net.cpp:406] Scale17 <- Eltwise9
I1012 21:57:24.698956 11428 net.cpp:367] Scale17 -> Eltwise9 (in-place)
I1012 21:57:24.699004 11428 layer_factory.hpp:77] Creating layer Scale17
I1012 21:57:24.699126 11428 net.cpp:122] Setting up Scale17
I1012 21:57:24.699132 11428 net.cpp:129] Top shape: 50 640 7 7 (1568000)
I1012 21:57:24.699136 11428 net.cpp:137] Memory required for data: 1652515800
I1012 21:57:24.699152 11428 layer_factory.hpp:77] Creating layer ReLU17
I1012 21:57:24.699159 11428 net.cpp:84] Creating Layer ReLU17
I1012 21:57:24.699163 11428 net.cpp:406] ReLU17 <- Eltwise9
I1012 21:57:24.699168 11428 net.cpp:367] ReLU17 -> Eltwise9 (in-place)
I1012 21:57:24.699309 11428 net.cpp:122] Setting up ReLU17
I1012 21:57:24.699317 11428 net.cpp:129] Top shape: 50 640 7 7 (1568000)
I1012 21:57:24.699321 11428 net.cpp:137] Memory required for data: 1658787800
I1012 21:57:24.699335 11428 layer_factory.hpp:77] Creating layer Eltwise9_ReLU17_0_split
I1012 21:57:24.699342 11428 net.cpp:84] Creating Layer Eltwise9_ReLU17_0_split
I1012 21:57:24.699347 11428 net.cpp:406] Eltwise9_ReLU17_0_split <- Eltwise9
I1012 21:57:24.699352 11428 net.cpp:380] Eltwise9_ReLU17_0_split -> Eltwise9_ReLU17_0_split_0
I1012 21:57:24.699358 11428 net.cpp:380] Eltwise9_ReLU17_0_split -> Eltwise9_ReLU17_0_split_1
I1012 21:57:24.699405 11428 net.cpp:122] Setting up Eltwise9_ReLU17_0_split
I1012 21:57:24.699412 11428 net.cpp:129] Top shape: 50 640 7 7 (1568000)
I1012 21:57:24.699416 11428 net.cpp:129] Top shape: 50 640 7 7 (1568000)
I1012 21:57:24.699430 11428 net.cpp:137] Memory required for data: 1671331800
I1012 21:57:24.699434 11428 layer_factory.hpp:77] Creating layer Convolution23
I1012 21:57:24.699443 11428 net.cpp:84] Creating Layer Convolution23
I1012 21:57:24.699447 11428 net.cpp:406] Convolution23 <- Eltwise9_ReLU17_0_split_0
I1012 21:57:24.699463 11428 net.cpp:380] Convolution23 -> Convolution23
I1012 21:57:24.783172 11428 net.cpp:122] Setting up Convolution23
I1012 21:57:24.783195 11428 net.cpp:129] Top shape: 50 640 7 7 (1568000)
I1012 21:57:24.783200 11428 net.cpp:137] Memory required for data: 1677603800
I1012 21:57:24.783206 11428 layer_factory.hpp:77] Creating layer BatchNorm18
I1012 21:57:24.783226 11428 net.cpp:84] Creating Layer BatchNorm18
I1012 21:57:24.783232 11428 net.cpp:406] BatchNorm18 <- Convolution23
I1012 21:57:24.783251 11428 net.cpp:367] BatchNorm18 -> Convolution23 (in-place)
I1012 21:57:24.783454 11428 net.cpp:122] Setting up BatchNorm18
I1012 21:57:24.783462 11428 net.cpp:129] Top shape: 50 640 7 7 (1568000)
I1012 21:57:24.783465 11428 net.cpp:137] Memory required for data: 1683875800
I1012 21:57:24.783471 11428 layer_factory.hpp:77] Creating layer Scale18
I1012 21:57:24.783478 11428 net.cpp:84] Creating Layer Scale18
I1012 21:57:24.783494 11428 net.cpp:406] Scale18 <- Convolution23
I1012 21:57:24.783500 11428 net.cpp:367] Scale18 -> Convolution23 (in-place)
I1012 21:57:24.783572 11428 layer_factory.hpp:77] Creating layer Scale18
I1012 21:57:24.783707 11428 net.cpp:122] Setting up Scale18
I1012 21:57:24.783713 11428 net.cpp:129] Top shape: 50 640 7 7 (1568000)
I1012 21:57:24.783716 11428 net.cpp:137] Memory required for data: 1690147800
I1012 21:57:24.783721 11428 layer_factory.hpp:77] Creating layer ReLU18
I1012 21:57:24.783726 11428 net.cpp:84] Creating Layer ReLU18
I1012 21:57:24.783730 11428 net.cpp:406] ReLU18 <- Convolution23
I1012 21:57:24.783745 11428 net.cpp:367] ReLU18 -> Convolution23 (in-place)
I1012 21:57:24.783905 11428 net.cpp:122] Setting up ReLU18
I1012 21:57:24.783912 11428 net.cpp:129] Top shape: 50 640 7 7 (1568000)
I1012 21:57:24.783915 11428 net.cpp:137] Memory required for data: 1696419800
I1012 21:57:24.783918 11428 layer_factory.hpp:77] Creating layer Convolution24
I1012 21:57:24.783926 11428 net.cpp:84] Creating Layer Convolution24
I1012 21:57:24.783941 11428 net.cpp:406] Convolution24 <- Convolution23
I1012 21:57:24.783946 11428 net.cpp:380] Convolution24 -> Convolution24
I1012 21:57:24.868053 11428 net.cpp:122] Setting up Convolution24
I1012 21:57:24.868074 11428 net.cpp:129] Top shape: 50 640 7 7 (1568000)
I1012 21:57:24.868078 11428 net.cpp:137] Memory required for data: 1702691800
I1012 21:57:24.868085 11428 layer_factory.hpp:77] Creating layer Eltwise10
I1012 21:57:24.868094 11428 net.cpp:84] Creating Layer Eltwise10
I1012 21:57:24.868110 11428 net.cpp:406] Eltwise10 <- Convolution24
I1012 21:57:24.868118 11428 net.cpp:406] Eltwise10 <- Eltwise9_ReLU17_0_split_1
I1012 21:57:24.868127 11428 net.cpp:380] Eltwise10 -> Eltwise10
I1012 21:57:24.868168 11428 net.cpp:122] Setting up Eltwise10
I1012 21:57:24.868175 11428 net.cpp:129] Top shape: 50 640 7 7 (1568000)
I1012 21:57:24.868188 11428 net.cpp:137] Memory required for data: 1708963800
I1012 21:57:24.868191 11428 layer_factory.hpp:77] Creating layer BatchNorm19
I1012 21:57:24.868206 11428 net.cpp:84] Creating Layer BatchNorm19
I1012 21:57:24.868223 11428 net.cpp:406] BatchNorm19 <- Eltwise10
I1012 21:57:24.868232 11428 net.cpp:367] BatchNorm19 -> Eltwise10 (in-place)
I1012 21:57:24.868422 11428 net.cpp:122] Setting up BatchNorm19
I1012 21:57:24.868428 11428 net.cpp:129] Top shape: 50 640 7 7 (1568000)
I1012 21:57:24.868433 11428 net.cpp:137] Memory required for data: 1715235800
I1012 21:57:24.868453 11428 layer_factory.hpp:77] Creating layer Scale19
I1012 21:57:24.868461 11428 net.cpp:84] Creating Layer Scale19
I1012 21:57:24.868465 11428 net.cpp:406] Scale19 <- Eltwise10
I1012 21:57:24.868472 11428 net.cpp:367] Scale19 -> Eltwise10 (in-place)
I1012 21:57:24.868523 11428 layer_factory.hpp:77] Creating layer Scale19
I1012 21:57:24.868646 11428 net.cpp:122] Setting up Scale19
I1012 21:57:24.868654 11428 net.cpp:129] Top shape: 50 640 7 7 (1568000)
I1012 21:57:24.868659 11428 net.cpp:137] Memory required for data: 1721507800
I1012 21:57:24.868676 11428 layer_factory.hpp:77] Creating layer ReLU19
I1012 21:57:24.868695 11428 net.cpp:84] Creating Layer ReLU19
I1012 21:57:24.868700 11428 net.cpp:406] ReLU19 <- Eltwise10
I1012 21:57:24.868707 11428 net.cpp:367] ReLU19 -> Eltwise10 (in-place)
I1012 21:57:24.868849 11428 net.cpp:122] Setting up ReLU19
I1012 21:57:24.868858 11428 net.cpp:129] Top shape: 50 640 7 7 (1568000)
I1012 21:57:24.868873 11428 net.cpp:137] Memory required for data: 1727779800
I1012 21:57:24.868880 11428 layer_factory.hpp:77] Creating layer Eltwise10_ReLU19_0_split
I1012 21:57:24.868887 11428 net.cpp:84] Creating Layer Eltwise10_ReLU19_0_split
I1012 21:57:24.868892 11428 net.cpp:406] Eltwise10_ReLU19_0_split <- Eltwise10
I1012 21:57:24.868901 11428 net.cpp:380] Eltwise10_ReLU19_0_split -> Eltwise10_ReLU19_0_split_0
I1012 21:57:24.868908 11428 net.cpp:380] Eltwise10_ReLU19_0_split -> Eltwise10_ReLU19_0_split_1
I1012 21:57:24.868957 11428 net.cpp:122] Setting up Eltwise10_ReLU19_0_split
I1012 21:57:24.868964 11428 net.cpp:129] Top shape: 50 640 7 7 (1568000)
I1012 21:57:24.868980 11428 net.cpp:129] Top shape: 50 640 7 7 (1568000)
I1012 21:57:24.868985 11428 net.cpp:137] Memory required for data: 1740323800
I1012 21:57:24.868990 11428 layer_factory.hpp:77] Creating layer Convolution25
I1012 21:57:24.869001 11428 net.cpp:84] Creating Layer Convolution25
I1012 21:57:24.869006 11428 net.cpp:406] Convolution25 <- Eltwise10_ReLU19_0_split_0
I1012 21:57:24.869014 11428 net.cpp:380] Convolution25 -> Convolution25
I1012 21:57:24.952878 11428 net.cpp:122] Setting up Convolution25
I1012 21:57:24.952904 11428 net.cpp:129] Top shape: 50 640 7 7 (1568000)
I1012 21:57:24.952908 11428 net.cpp:137] Memory required for data: 1746595800
I1012 21:57:24.952916 11428 layer_factory.hpp:77] Creating layer BatchNorm20
I1012 21:57:24.952929 11428 net.cpp:84] Creating Layer BatchNorm20
I1012 21:57:24.952936 11428 net.cpp:406] BatchNorm20 <- Convolution25
I1012 21:57:24.952947 11428 net.cpp:367] BatchNorm20 -> Convolution25 (in-place)
I1012 21:57:24.953155 11428 net.cpp:122] Setting up BatchNorm20
I1012 21:57:24.953162 11428 net.cpp:129] Top shape: 50 640 7 7 (1568000)
I1012 21:57:24.953166 11428 net.cpp:137] Memory required for data: 1752867800
I1012 21:57:24.953172 11428 layer_factory.hpp:77] Creating layer Scale20
I1012 21:57:24.953179 11428 net.cpp:84] Creating Layer Scale20
I1012 21:57:24.953186 11428 net.cpp:406] Scale20 <- Convolution25
I1012 21:57:24.953203 11428 net.cpp:367] Scale20 -> Convolution25 (in-place)
I1012 21:57:24.953258 11428 layer_factory.hpp:77] Creating layer Scale20
I1012 21:57:24.953366 11428 net.cpp:122] Setting up Scale20
I1012 21:57:24.953372 11428 net.cpp:129] Top shape: 50 640 7 7 (1568000)
I1012 21:57:24.953375 11428 net.cpp:137] Memory required for data: 1759139800
I1012 21:57:24.953380 11428 layer_factory.hpp:77] Creating layer ReLU20
I1012 21:57:24.953387 11428 net.cpp:84] Creating Layer ReLU20
I1012 21:57:24.953392 11428 net.cpp:406] ReLU20 <- Convolution25
I1012 21:57:24.953399 11428 net.cpp:367] ReLU20 -> Convolution25 (in-place)
I1012 21:57:24.953965 11428 net.cpp:122] Setting up ReLU20
I1012 21:57:24.953975 11428 net.cpp:129] Top shape: 50 640 7 7 (1568000)
I1012 21:57:24.953979 11428 net.cpp:137] Memory required for data: 1765411800
I1012 21:57:24.953982 11428 layer_factory.hpp:77] Creating layer Convolution26
I1012 21:57:24.953991 11428 net.cpp:84] Creating Layer Convolution26
I1012 21:57:24.953999 11428 net.cpp:406] Convolution26 <- Convolution25
I1012 21:57:24.954007 11428 net.cpp:380] Convolution26 -> Convolution26
I1012 21:57:25.037657 11428 net.cpp:122] Setting up Convolution26
I1012 21:57:25.037680 11428 net.cpp:129] Top shape: 50 640 7 7 (1568000)
I1012 21:57:25.037685 11428 net.cpp:137] Memory required for data: 1771683800
I1012 21:57:25.037693 11428 layer_factory.hpp:77] Creating layer Eltwise11
I1012 21:57:25.037705 11428 net.cpp:84] Creating Layer Eltwise11
I1012 21:57:25.037713 11428 net.cpp:406] Eltwise11 <- Convolution26
I1012 21:57:25.037721 11428 net.cpp:406] Eltwise11 <- Eltwise10_ReLU19_0_split_1
I1012 21:57:25.037729 11428 net.cpp:380] Eltwise11 -> Eltwise11
I1012 21:57:25.037781 11428 net.cpp:122] Setting up Eltwise11
I1012 21:57:25.037788 11428 net.cpp:129] Top shape: 50 640 7 7 (1568000)
I1012 21:57:25.037791 11428 net.cpp:137] Memory required for data: 1777955800
I1012 21:57:25.037794 11428 layer_factory.hpp:77] Creating layer BatchNorm21
I1012 21:57:25.037801 11428 net.cpp:84] Creating Layer BatchNorm21
I1012 21:57:25.037806 11428 net.cpp:406] BatchNorm21 <- Eltwise11
I1012 21:57:25.037812 11428 net.cpp:367] BatchNorm21 -> Eltwise11 (in-place)
I1012 21:57:25.038012 11428 net.cpp:122] Setting up BatchNorm21
I1012 21:57:25.038019 11428 net.cpp:129] Top shape: 50 640 7 7 (1568000)
I1012 21:57:25.038023 11428 net.cpp:137] Memory required for data: 1784227800
I1012 21:57:25.038046 11428 layer_factory.hpp:77] Creating layer Scale21
I1012 21:57:25.038055 11428 net.cpp:84] Creating Layer Scale21
I1012 21:57:25.038060 11428 net.cpp:406] Scale21 <- Eltwise11
I1012 21:57:25.038066 11428 net.cpp:367] Scale21 -> Eltwise11 (in-place)
I1012 21:57:25.038112 11428 layer_factory.hpp:77] Creating layer Scale21
I1012 21:57:25.038218 11428 net.cpp:122] Setting up Scale21
I1012 21:57:25.038225 11428 net.cpp:129] Top shape: 50 640 7 7 (1568000)
I1012 21:57:25.038230 11428 net.cpp:137] Memory required for data: 1790499800
I1012 21:57:25.038239 11428 layer_factory.hpp:77] Creating layer ReLU21
I1012 21:57:25.038244 11428 net.cpp:84] Creating Layer ReLU21
I1012 21:57:25.038249 11428 net.cpp:406] ReLU21 <- Eltwise11
I1012 21:57:25.038255 11428 net.cpp:367] ReLU21 -> Eltwise11 (in-place)
I1012 21:57:25.038426 11428 net.cpp:122] Setting up ReLU21
I1012 21:57:25.038434 11428 net.cpp:129] Top shape: 50 640 7 7 (1568000)
I1012 21:57:25.038440 11428 net.cpp:137] Memory required for data: 1796771800
I1012 21:57:25.038446 11428 layer_factory.hpp:77] Creating layer Eltwise11_ReLU21_0_split
I1012 21:57:25.038455 11428 net.cpp:84] Creating Layer Eltwise11_ReLU21_0_split
I1012 21:57:25.038460 11428 net.cpp:406] Eltwise11_ReLU21_0_split <- Eltwise11
I1012 21:57:25.038467 11428 net.cpp:380] Eltwise11_ReLU21_0_split -> Eltwise11_ReLU21_0_split_0
I1012 21:57:25.038475 11428 net.cpp:380] Eltwise11_ReLU21_0_split -> Eltwise11_ReLU21_0_split_1
I1012 21:57:25.038522 11428 net.cpp:122] Setting up Eltwise11_ReLU21_0_split
I1012 21:57:25.038529 11428 net.cpp:129] Top shape: 50 640 7 7 (1568000)
I1012 21:57:25.038537 11428 net.cpp:129] Top shape: 50 640 7 7 (1568000)
I1012 21:57:25.038542 11428 net.cpp:137] Memory required for data: 1809315800
I1012 21:57:25.038547 11428 layer_factory.hpp:77] Creating layer Convolution27
I1012 21:57:25.038558 11428 net.cpp:84] Creating Layer Convolution27
I1012 21:57:25.038561 11428 net.cpp:406] Convolution27 <- Eltwise11_ReLU21_0_split_0
I1012 21:57:25.038569 11428 net.cpp:380] Convolution27 -> Convolution27
I1012 21:57:25.122275 11428 net.cpp:122] Setting up Convolution27
I1012 21:57:25.122300 11428 net.cpp:129] Top shape: 50 640 7 7 (1568000)
I1012 21:57:25.122304 11428 net.cpp:137] Memory required for data: 1815587800
I1012 21:57:25.122313 11428 layer_factory.hpp:77] Creating layer BatchNorm22
I1012 21:57:25.122334 11428 net.cpp:84] Creating Layer BatchNorm22
I1012 21:57:25.122342 11428 net.cpp:406] BatchNorm22 <- Convolution27
I1012 21:57:25.122351 11428 net.cpp:367] BatchNorm22 -> Convolution27 (in-place)
I1012 21:57:25.122566 11428 net.cpp:122] Setting up BatchNorm22
I1012 21:57:25.122573 11428 net.cpp:129] Top shape: 50 640 7 7 (1568000)
I1012 21:57:25.122576 11428 net.cpp:137] Memory required for data: 1821859800
I1012 21:57:25.122583 11428 layer_factory.hpp:77] Creating layer Scale22
I1012 21:57:25.122589 11428 net.cpp:84] Creating Layer Scale22
I1012 21:57:25.122603 11428 net.cpp:406] Scale22 <- Convolution27
I1012 21:57:25.122609 11428 net.cpp:367] Scale22 -> Convolution27 (in-place)
I1012 21:57:25.122666 11428 layer_factory.hpp:77] Creating layer Scale22
I1012 21:57:25.122793 11428 net.cpp:122] Setting up Scale22
I1012 21:57:25.122800 11428 net.cpp:129] Top shape: 50 640 7 7 (1568000)
I1012 21:57:25.122803 11428 net.cpp:137] Memory required for data: 1828131800
I1012 21:57:25.122808 11428 layer_factory.hpp:77] Creating layer ReLU22
I1012 21:57:25.122840 11428 net.cpp:84] Creating Layer ReLU22
I1012 21:57:25.122845 11428 net.cpp:406] ReLU22 <- Convolution27
I1012 21:57:25.122849 11428 net.cpp:367] ReLU22 -> Convolution27 (in-place)
I1012 21:57:25.123003 11428 net.cpp:122] Setting up ReLU22
I1012 21:57:25.123011 11428 net.cpp:129] Top shape: 50 640 7 7 (1568000)
I1012 21:57:25.123014 11428 net.cpp:137] Memory required for data: 1834403800
I1012 21:57:25.123018 11428 layer_factory.hpp:77] Creating layer Convolution28
I1012 21:57:25.123028 11428 net.cpp:84] Creating Layer Convolution28
I1012 21:57:25.123033 11428 net.cpp:406] Convolution28 <- Convolution27
I1012 21:57:25.123050 11428 net.cpp:380] Convolution28 -> Convolution28
I1012 21:57:25.206938 11428 net.cpp:122] Setting up Convolution28
I1012 21:57:25.206960 11428 net.cpp:129] Top shape: 50 640 7 7 (1568000)
I1012 21:57:25.206964 11428 net.cpp:137] Memory required for data: 1840675800
I1012 21:57:25.206974 11428 layer_factory.hpp:77] Creating layer Eltwise12
I1012 21:57:25.206997 11428 net.cpp:84] Creating Layer Eltwise12
I1012 21:57:25.207007 11428 net.cpp:406] Eltwise12 <- Convolution28
I1012 21:57:25.207016 11428 net.cpp:406] Eltwise12 <- Eltwise11_ReLU21_0_split_1
I1012 21:57:25.207024 11428 net.cpp:380] Eltwise12 -> Eltwise12
I1012 21:57:25.207072 11428 net.cpp:122] Setting up Eltwise12
I1012 21:57:25.207079 11428 net.cpp:129] Top shape: 50 640 7 7 (1568000)
I1012 21:57:25.207082 11428 net.cpp:137] Memory required for data: 1846947800
I1012 21:57:25.207085 11428 layer_factory.hpp:77] Creating layer Pooling1
I1012 21:57:25.207093 11428 net.cpp:84] Creating Layer Pooling1
I1012 21:57:25.207096 11428 net.cpp:406] Pooling1 <- Eltwise12
I1012 21:57:25.207103 11428 net.cpp:380] Pooling1 -> Pooling1
I1012 21:57:25.207283 11428 net.cpp:122] Setting up Pooling1
I1012 21:57:25.207291 11428 net.cpp:129] Top shape: 50 640 1 1 (32000)
I1012 21:57:25.207294 11428 net.cpp:137] Memory required for data: 1847075800
I1012 21:57:25.207298 11428 layer_factory.hpp:77] Creating layer InnerProduct1
I1012 21:57:25.207304 11428 net.cpp:84] Creating Layer InnerProduct1
I1012 21:57:25.207307 11428 net.cpp:406] InnerProduct1 <- Pooling1
I1012 21:57:25.207324 11428 net.cpp:380] InnerProduct1 -> InnerProduct1
I1012 21:57:25.207502 11428 net.cpp:122] Setting up InnerProduct1
I1012 21:57:25.207509 11428 net.cpp:129] Top shape: 50 100 (5000)
I1012 21:57:25.207515 11428 net.cpp:137] Memory required for data: 1847095800
I1012 21:57:25.207533 11428 layer_factory.hpp:77] Creating layer InnerProduct1_InnerProduct1_0_split
I1012 21:57:25.207541 11428 net.cpp:84] Creating Layer InnerProduct1_InnerProduct1_0_split
I1012 21:57:25.207546 11428 net.cpp:406] InnerProduct1_InnerProduct1_0_split <- InnerProduct1
I1012 21:57:25.207554 11428 net.cpp:380] InnerProduct1_InnerProduct1_0_split -> InnerProduct1_InnerProduct1_0_split_0
I1012 21:57:25.207562 11428 net.cpp:380] InnerProduct1_InnerProduct1_0_split -> InnerProduct1_InnerProduct1_0_split_1
I1012 21:57:25.207607 11428 net.cpp:122] Setting up InnerProduct1_InnerProduct1_0_split
I1012 21:57:25.207613 11428 net.cpp:129] Top shape: 50 100 (5000)
I1012 21:57:25.207619 11428 net.cpp:129] Top shape: 50 100 (5000)
I1012 21:57:25.207624 11428 net.cpp:137] Memory required for data: 1847135800
I1012 21:57:25.207630 11428 layer_factory.hpp:77] Creating layer SoftmaxWithLoss1
I1012 21:57:25.207638 11428 net.cpp:84] Creating Layer SoftmaxWithLoss1
I1012 21:57:25.207643 11428 net.cpp:406] SoftmaxWithLoss1 <- InnerProduct1_InnerProduct1_0_split_0
I1012 21:57:25.207650 11428 net.cpp:406] SoftmaxWithLoss1 <- label_cifar_1_split_0
…
