…
I0926 14:52:16.594955  4911 net.cpp:294] The NetState phase (0) differed from the phase (1) specified by a rule in layer Accuracy1
I0926 14:52:16.596146  4911 net.cpp:51] Initializing net from parameters: 
name: "resnet_cifar10"
state {
  phase: TRAIN
  level: 0
  stage: ""
}
layer {
  name: "Data1"
  type: "Data"
  top: "Data1"
  top: "Data2"
  include {
    phase: TRAIN
  }
  transform_param {
    mirror: true
    crop_size: 28
    mean_file: "/home/x306/caffe/xn/PENLU/data/cifar10/mean.binaryproto"
  }
  data_param {
    source: "/home/x306/caffe/xn/PENLU/data/cifar10/cifar10_train_lmdb"
    batch_size: 100
    backend: LMDB
  }
}
layer {
  name: "Convolution1"
  type: "Convolution"
  bottom: "Data1"
  top: "Convolution1"
  param {
    lr_mult: 1
    decay_mult: 1
  }
  param {
    lr_mult: 2
    decay_mult: 0
  }
  convolution_param {
    num_output: 16
    pad: 1
    kernel_size: 3
    stride: 1
    weight_filler {
      type: "gaussian"
      std: 0.118
    }
    bias_filler {
      type: "constant"
      value: 0
    }
  }
}
layer {
  name: "BatchNorm1"
  type: "BatchNorm"
  bottom: "Convolution1"
  top: "Convolution1"
  param {
    lr_mult: 0
    decay_mult: 0
  }
  param {
    lr_mult: 0
    decay_mult: 0
  }
  param {
    lr_mult: 0
    decay_mult: 0
  }
}
layer {
  name: "Scale1"
  type: "Scale"
  bottom: "Convolution1"
  top: "Convolution1"
  scale_param {
    bias_term: true
  }
}
layer {
  name: "penlu1"
  type: "PENLU"
  bottom: "Convolution1"
  top: "Convolution1"
  param {
    lr_mult: 1
    decay_mult: 0
  }
  param {
    lr_mult: 1
    decay_mult: 0
  }
  param {
    lr_mult: 1
    decay_mult: 0
  }
  penlu_param {
    alpha_filler {
      type: "constant"
      value: 2
    }
    beta_filler {
      type: "constant"
      value: 1
    }
    eta_filler {
      type: "constant"
      value: 1
    }
  }
}
layer {
  name: "Convolution2"
  type: "Convolution"
  bottom: "Convolution1"
  top: "Convolution2"
  param {
    lr_mult: 1
    decay_mult: 1
  }
  param {
    lr_mult: 2
    decay_mult: 0
  }
  convolution_param {
    num_output: 16
    pad: 1
    kernel_size: 3
    stride: 1
    weight_filler {
      type: "gaussian"
      std: 0.118
    }
    bias_filler {
      type: "constant"
      value: 0
    }
  }
}
layer {
  name: "BatchNorm2"
  type: "BatchNorm"
  bottom: "Convolution2"
  top: "Convolution2"
  param {
    lr_mult: 0
    decay_mult: 0
  }
  param {
    lr_mult: 0
    decay_mult: 0
  }
  param {
    lr_mult: 0
    decay_mult: 0
  }
}
layer {
  name: "Scale2"
  type: "Scale"
  bottom: "Convolution2"
  top: "Convolution2"
  scale_param {
    bias_term: true
  }
}
layer {
  name: "penlu2"
  type: "PENLU"
  bottom: "Convolution2"
  top: "Convolution2"
  param {
    lr_mult: 1
    decay_mult: 0
  }
  param {
    lr_mult: 1
    decay_mult: 0
  }
  param {
    lr_mult: 1
    decay_mult: 0
  }
  penlu_param {
    alpha_filler {
      type: "constant"
      value: 2
    }
    beta_filler {
      type: "constant"
      value: 1
    }
    eta_filler {
      type: "constant"
      value: 1
    }
  }
}
layer {
  name: "Convolution3"
  type: "Convolution"
  bottom: "Convolution2"
  top: "Convolution3"
  param {
    lr_mult: 1
    decay_mult: 1
  }
  param {
    lr_mult: 2
    decay_mult: 0
  }
  convolution_param {
    num_output: 16
    pad: 1
    kernel_size: 3
    stride: 1
    weight_filler {
      type: "gaussian"
      std: 0.118
    }
    bias_filler {
      type: "constant"
      value: 0
    }
  }
}
layer {
  name: "BatchNorm3"
  type: "BatchNorm"
  bottom: "Convolution3"
  top: "Convolution3"
  param {
    lr_mult: 0
    decay_mult: 0
  }
  param {
    lr_mult: 0
    decay_mult: 0
  }
  param {
    lr_mult: 0
    decay_mult: 0
  }
}
layer {
  name: "Scale3"
  type: "Scale"
  bottom: "Convolution3"
  top: "Convolution3"
  scale_param {
    bias_term: true
  }
}
layer {
  name: "Eltwise1"
  type: "Eltwise"
  bottom: "Convolution1"
  bottom: "Convolution3"
  top: "Eltwise1"
  eltwise_param {
    operation: SUM
  }
}
layer {
  name: "penlu3"
  type: "PENLU"
  bottom: "Eltwise1"
  top: "Eltwise1"
  param {
    lr_mult: 1
    decay_mult: 0
  }
  param {
    lr_mult: 1
    decay_mult: 0
  }
  param {
    lr_mult: 1
    decay_mult: 0
  }
  penlu_param {
    alpha_filler {
      type: "constant"
      value: 2
    }
    beta_filler {
      type: "constant"
      value: 1
    }
    eta_filler {
      type: "constant"
      value: 1
    }
  }
}
layer {
  name: "Convolution4"
  type: "Convolution"
  bottom: "Eltwise1"
  top: "Convolution4"
  param {
    lr_mult: 1
    decay_mult: 1
  }
  param {
    lr_mult: 2
    decay_mult: 0
  }
  convolution_param {
    num_output: 16
    pad: 1
    kernel_size: 3
    stride: 1
    weight_filler {
      type: "gaussian"
      std: 0.118
    }
    bias_filler {
      type: "constant"
      value: 0
    }
  }
}
layer {
  name: "BatchNorm4"
  type: "BatchNorm"
  bottom: "Convolution4"
  top: "Convolution4"
  param {
    lr_mult: 0
    decay_mult: 0
  }
  param {
    lr_mult: 0
    decay_mult: 0
  }
  param {
    lr_mult: 0
    decay_mult: 0
  }
}
layer {
  name: "Scale4"
  type: "Scale"
  bottom: "Convolution4"
  top: "Convolution4"
  scale_param {
    bias_term: true
  }
}
layer {
  name: "penlu4"
  type: "PENLU"
  bottom: "Convolution4"
  top: "Convolution4"
  param {
    lr_mult: 1
    decay_mult: 0
  }
  param {
    lr_mult: 1
    decay_mult: 0
  }
  param {
    lr_mult: 1
    decay_mult: 0
  }
  penlu_param {
    alpha_filler {
      type: "constant"
      value: 2
    }
    beta_filler {
      type: "constant"
      value: 1
    }
    eta_filler {
      type: "constant"
      value: 1
    }
  }
}
layer {
  name: "Convolution5"
  type: "Convolution"
  bottom: "Convolution4"
  top: "Convolution5"
  param {
    lr_mult: 1
    decay_mult: 1
  }
  param {
    lr_mult: 2
    decay_mult: 0
  }
  convolution_param {
    num_output: 16
    pad: 1
    kernel_size: 3
    stride: 1
    weight_filler {
      type: "gaussian"
      std: 0.118
    }
    bias_filler {
      type: "constant"
      value: 0
    }
  }
}
layer {
  name: "BatchNorm5"
  type: "BatchNorm"
  bottom: "Convolution5"
  top: "Convolution5"
  param {
    lr_mult: 0
    decay_mult: 0
  }
  param {
    lr_mult: 0
    decay_mult: 0
  }
  param {
    lr_mult: 0
    decay_mult: 0
  }
}
layer {
  name: "Scale5"
  type: "Scale"
  bottom: "Convolution5"
  top: "Convolution5"
  scale_param {
    bias_term: true
  }
}
layer {
  name: "Eltwise2"
  type: "Eltwise"
  bottom: "Eltwise1"
  bottom: "Convolution5"
  top: "Eltwise2"
  eltwise_param {
    operation: SUM
  }
}
layer {
  name: "penlu5"
  type: "PENLU"
  bottom: "Eltwise2"
  top: "Eltwise2"
  param {
    lr_mult: 1
    decay_mult: 0
  }
  param {
    lr_mult: 1
    decay_mult: 0
  }
  param {
    lr_mult: 1
    decay_mult: 0
  }
  penlu_param {
    alpha_filler {
      type: "constant"
      value: 2
    }
    beta_filler {
      type: "constant"
      value: 1
    }
    eta_filler {
      type: "constant"
      value: 1
    }
  }
}
layer {
  name: "Convolution6"
  type: "Convolution"
  bottom: "Eltwise2"
  top: "Convolution6"
  param {
    lr_mult: 1
    decay_mult: 1
  }
  param {
    lr_mult: 2
    decay_mult: 0
  }
  convolution_param {
    num_output: 16
    pad: 1
    kernel_size: 3
    stride: 1
    weight_filler {
      type: "gaussian"
      std: 0.118
    }
    bias_filler {
      type: "constant"
      value: 0
    }
  }
}
layer {
  name: "BatchNorm6"
  type: "BatchNorm"
  bottom: "Convolution6"
  top: "Convolution6"
  param {
    lr_mult: 0
    decay_mult: 0
  }
  param {
    lr_mult: 0
    decay_mult: 0
  }
  param {
    lr_mult: 0
    decay_mult: 0
  }
}
layer {
  name: "Scale6"
  type: "Scale"
  bottom: "Convolution6"
  top: "Convolution6"
  scale_param {
    bias_term: true
  }
}
layer {
  name: "penlu6"
  type: "PENLU"
  bottom: "Convolution6"
  top: "Convolution6"
  param {
    lr_mult: 1
    decay_mult: 0
  }
  param {
    lr_mult: 1
    decay_mult: 0
  }
  param {
    lr_mult: 1
    decay_mult: 0
  }
  penlu_param {
    alpha_filler {
      type: "constant"
      value: 2
    }
    beta_filler {
      type: "constant"
      value: 1
    }
    eta_filler {
      type: "constant"
      value: 1
    }
  }
}
layer {
  name: "Convolution7"
  type: "Convolution"
  bottom: "Convolution6"
  top: "Convolution7"
  param {
    lr_mult: 1
    decay_mult: 1
  }
  param {
    lr_mult: 2
    decay_mult: 0
  }
  convolution_param {
    num_output: 16
    pad: 1
    kernel_size: 3
    stride: 1
    weight_filler {
      type: "gaussian"
      std: 0.118
    }
    bias_filler {
      type: "constant"
      value: 0
    }
  }
}
layer {
  name: "BatchNorm7"
  type: "BatchNorm"
  bottom: "Convolution7"
  top: "Convolution7"
  param {
    lr_mult: 0
    decay_mult: 0
  }
  param {
    lr_mult: 0
    decay_mult: 0
  }
  param {
    lr_mult: 0
    decay_mult: 0
  }
}
layer {
  name: "Scale7"
  type: "Scale"
  bottom: "Convolution7"
  top: "Convolution7"
  scale_param {
    bias_term: true
  }
}
layer {
  name: "Eltwise3"
  type: "Eltwise"
  bottom: "Eltwise2"
  bottom: "Convolution7"
  top: "Eltwise3"
  eltwise_param {
    operation: SUM
  }
}
layer {
  name: "penlu7"
  type: "PENLU"
  bottom: "Eltwise3"
  top: "Eltwise3"
  param {
    lr_mult: 1
    decay_mult: 0
  }
  param {
    lr_mult: 1
    decay_mult: 0
  }
  param {
    lr_mult: 1
    decay_mult: 0
  }
  penlu_param {
    alpha_filler {
      type: "constant"
      value: 2
    }
    beta_filler {
      type: "constant"
      value: 1
    }
    eta_filler {
      type: "constant"
      value: 1
    }
  }
}
layer {
  name: "Convolution8"
  type: "Convolution"
  bottom: "Eltwise3"
  top: "Convolution8"
  param {
    lr_mult: 1
    decay_mult: 1
  }
  param {
    lr_mult: 2
    decay_mult: 0
  }
  convolution_param {
    num_output: 16
    pad: 1
    kernel_size: 3
    stride: 1
    weight_filler {
      type: "gaussian"
      std: 0.118
    }
    bias_filler {
      type: "constant"
      value: 0
    }
  }
}
layer {
  name: "BatchNorm8"
  type: "BatchNorm"
  bottom: "Convolution8"
  top: "Convolution8"
  param {
    lr_mult: 0
    decay_mult: 0
  }
  param {
    lr_mult: 0
    decay_mult: 0
  }
  param {
    lr_mult: 0
    decay_mult: 0
  }
}
layer {
  name: "Scale8"
  type: "Scale"
  bottom: "Convolution8"
  top: "Convolution8"
  scale_param {
    bias_term: true
  }
}
layer {
  name: "penlu8"
  type: "PENLU"
  bottom: "Convolution8"
  top: "Convolution8"
  param {
    lr_mult: 1
    decay_mult: 0
  }
  param {
    lr_mult: 1
    decay_mult: 0
  }
  param {
    lr_mult: 1
    decay_mult: 0
  }
  penlu_param {
    alpha_filler {
      type: "constant"
      value: 2
    }
    beta_filler {
      type: "constant"
      value: 1
    }
    eta_filler {
      type: "constant"
      value: 1
    }
  }
}
layer {
  name: "Convolution9"
  type: "Convolution"
  bottom: "Convolution8"
  top: "Convolution9"
  param {
    lr_mult: 1
    decay_mult: 1
  }
  param {
    lr_mult: 2
    decay_mult: 0
  }
  convolution_param {
    num_output: 16
    pad: 1
    kernel_size: 3
    stride: 1
    weight_filler {
      type: "gaussian"
      std: 0.118
    }
    bias_filler {
      type: "constant"
      value: 0
    }
  }
}
layer {
  name: "BatchNorm9"
  type: "BatchNorm"
  bottom: "Convolution9"
  top: "Convolution9"
  param {
    lr_mult: 0
    decay_mult: 0
  }
  param {
    lr_mult: 0
    decay_mult: 0
  }
  param {
    lr_mult: 0
    decay_mult: 0
  }
}
layer {
  name: "Scale9"
  type: "Scale"
  bottom: "Convolution9"
  top: "Convolution9"
  scale_param {
    bias_term: true
  }
}
layer {
  name: "Eltwise4"
  type: "Eltwise"
  bottom: "Eltwise3"
  bottom: "Convolution9"
  top: "Eltwise4"
  eltwise_param {
    operation: SUM
  }
}
layer {
  name: "penlu9"
  type: "PENLU"
  bottom: "Eltwise4"
  top: "Eltwise4"
  param {
    lr_mult: 1
    decay_mult: 0
  }
  param {
    lr_mult: 1
    decay_mult: 0
  }
  param {
    lr_mult: 1
    decay_mult: 0
  }
  penlu_param {
    alpha_filler {
      type: "constant"
      value: 2
    }
    beta_filler {
      type: "constant"
      value: 1
    }
    eta_filler {
      type: "constant"
      value: 1
    }
  }
}
layer {
  name: "Convolution10"
  type: "Convolution"
  bottom: "Eltwise4"
  top: "Convolution10"
  param {
    lr_mult: 1
    decay_mult: 1
  }
  param {
    lr_mult: 2
    decay_mult: 0
  }
  convolution_param {
    num_output: 16
    pad: 1
    kernel_size: 3
    stride: 1
    weight_filler {
      type: "gaussian"
      std: 0.118
    }
    bias_filler {
      type: "constant"
      value: 0
    }
  }
}
layer {
  name: "BatchNorm10"
  type: "BatchNorm"
  bottom: "Convolution10"
  top: "Convolution10"
  param {
    lr_mult: 0
    decay_mult: 0
  }
  param {
    lr_mult: 0
    decay_mult: 0
  }
  param {
    lr_mult: 0
    decay_mult: 0
  }
}
layer {
  name: "Scale10"
  type: "Scale"
  bottom: "Convolution10"
  top: "Convolution10"
  scale_param {
    bias_term: true
  }
}
layer {
  name: "penlu10"
  type: "PENLU"
  bottom: "Convolution10"
  top: "Convolution10"
  param {
    lr_mult: 1
    decay_mult: 0
  }
  param {
    lr_mult: 1
    decay_mult: 0
  }
  param {
    lr_mult: 1
    decay_mult: 0
  }
  penlu_param {
    alpha_filler {
      type: "constant"
      value: 2
    }
    beta_filler {
      type: "constant"
      value: 1
    }
    eta_filler {
      type: "constant"
      value: 1
    }
  }
}
layer {
  name: "Convolution11"
  type: "Convolution"
  bottom: "Convolution10"
  top: "Convolution11"
  param {
    lr_mult: 1
    decay_mult: 1
  }
  param {
    lr_mult: 2
    decay_mult: 0
  }
  convolution_param {
    num_output: 16
    pad: 1
    kernel_size: 3
    stride: 1
    weight_filler {
      type: "gaussian"
      std: 0.118
    }
    bias_filler {
      type: "constant"
      value: 0
    }
  }
}
layer {
  name: "BatchNorm11"
  type: "BatchNorm"
  bottom: "Convolution11"
  top: "Convolution11"
  param {
    lr_mult: 0
    decay_mult: 0
  }
  param {
    lr_mult: 0
    decay_mult: 0
  }
  param {
    lr_mult: 0
    decay_mult: 0
  }
}
layer {
  name: "Scale11"
  type: "Scale"
  bottom: "Convolution11"
  top: "Convolution11"
  scale_param {
    bias_term: true
  }
}
layer {
  name: "Eltwise5"
  type: "Eltwise"
  bottom: "Eltwise4"
  bottom: "Convolution11"
  top: "Eltwise5"
  eltwise_param {
    operation: SUM
  }
}
layer {
  name: "penlu11"
  type: "PENLU"
  bottom: "Eltwise5"
  top: "Eltwise5"
  param {
    lr_mult: 1
    decay_mult: 0
  }
  param {
    lr_mult: 1
    decay_mult: 0
  }
  param {
    lr_mult: 1
    decay_mult: 0
  }
  penlu_param {
    alpha_filler {
      type: "constant"
      value: 2
    }
    beta_filler {
      type: "constant"
      value: 1
    }
    eta_filler {
      type: "constant"
      value: 1
    }
  }
}
layer {
  name: "Convolution12"
  type: "Convolution"
  bottom: "Eltwise5"
  top: "Convolution12"
  param {
    lr_mult: 1
    decay_mult: 1
  }
  param {
    lr_mult: 2
    decay_mult: 0
  }
  convolution_param {
    num_output: 16
    pad: 1
    kernel_size: 3
    stride: 1
    weight_filler {
      type: "gaussian"
      std: 0.118
    }
    bias_filler {
      type: "constant"
      value: 0
    }
  }
}
layer {
  name: "BatchNorm12"
  type: "BatchNorm"
  bottom: "Convolution12"
  top: "Convolution12"
  param {
    lr_mult: 0
    decay_mult: 0
  }
  param {
    lr_mult: 0
    decay_mult: 0
  }
  param {
    lr_mult: 0
    decay_mult: 0
  }
}
layer {
  name: "Scale12"
  type: "Scale"
  bottom: "Convolution12"
  top: "Convolution12"
  scale_param {
    bias_term: true
  }
}
layer {
  name: "penlu12"
  type: "PENLU"
  bottom: "Convolution12"
  top: "Convolution12"
  param {
    lr_mult: 1
    decay_mult: 0
  }
  param {
    lr_mult: 1
    decay_mult: 0
  }
  param {
    lr_mult: 1
    decay_mult: 0
  }
  penlu_param {
    alpha_filler {
      type: "constant"
      value: 2
    }
    beta_filler {
      type: "constant"
      value: 1
    }
    eta_filler {
      type: "constant"
      value: 1
    }
  }
}
layer {
  name: "Convolution13"
  type: "Convolution"
  bottom: "Convolution12"
  top: "Convolution13"
  param {
    lr_mult: 1
    decay_mult: 1
  }
  param {
    lr_mult: 2
    decay_mult: 0
  }
  convolution_param {
    num_output: 16
    pad: 1
    kernel_size: 3
    stride: 1
    weight_filler {
      type: "gaussian"
      std: 0.118
    }
    bias_filler {
      type: "constant"
      value: 0
    }
  }
}
layer {
  name: "BatchNorm13"
  type: "BatchNorm"
  bottom: "Convolution13"
  top: "Convolution13"
  param {
    lr_mult: 0
    decay_mult: 0
  }
  param {
    lr_mult: 0
    decay_mult: 0
  }
  param {
    lr_mult: 0
    decay_mult: 0
  }
}
layer {
  name: "Scale13"
  type: "Scale"
  bottom: "Convolution13"
  top: "Convolution13"
  scale_param {
    bias_term: true
  }
}
layer {
  name: "Eltwise6"
  type: "Eltwise"
  bottom: "Eltwise5"
  bottom: "Convolution13"
  top: "Eltwise6"
  eltwise_param {
    operation: SUM
  }
}
layer {
  name: "penlu13"
  type: "PENLU"
  bottom: "Eltwise6"
  top: "Eltwise6"
  param {
    lr_mult: 1
    decay_mult: 0
  }
  param {
    lr_mult: 1
    decay_mult: 0
  }
  param {
    lr_mult: 1
    decay_mult: 0
  }
  penlu_param {
    alpha_filler {
      type: "constant"
      value: 2
    }
    beta_filler {
      type: "constant"
      value: 1
    }
    eta_filler {
      type: "constant"
      value: 1
    }
  }
}
layer {
  name: "Convolution14"
  type: "Convolution"
  bottom: "Eltwise6"
  top: "Convolution14"
  param {
    lr_mult: 1
    decay_mult: 1
  }
  param {
    lr_mult: 2
    decay_mult: 0
  }
  convolution_param {
    num_output: 16
    pad: 1
    kernel_size: 3
    stride: 1
    weight_filler {
      type: "gaussian"
      std: 0.118
    }
    bias_filler {
      type: "constant"
      value: 0
    }
  }
}
layer {
  name: "BatchNorm14"
  type: "BatchNorm"
  bottom: "Convolution14"
  top: "Convolution14"
  param {
    lr_mult: 0
    decay_mult: 0
  }
  param {
    lr_mult: 0
    decay_mult: 0
  }
  param {
    lr_mult: 0
    decay_mult: 0
  }
}
layer {
  name: "Scale14"
  type: "Scale"
  bottom: "Convolution14"
  top: "Convolution14"
  scale_param {
    bias_term: true
  }
}
layer {
  name: "penlu14"
  type: "PENLU"
  bottom: "Convolution14"
  top: "Convolution14"
  param {
    lr_mult: 1
    decay_mult: 0
  }
  param {
    lr_mult: 1
    decay_mult: 0
  }
  param {
    lr_mult: 1
    decay_mult: 0
  }
  penlu_param {
    alpha_filler {
      type: "constant"
      value: 2
    }
    beta_filler {
      type: "constant"
      value: 1
    }
    eta_filler {
      type: "constant"
      value: 1
    }
  }
}
layer {
  name: "Convolution15"
  type: "Convolution"
  bottom: "Convolution14"
  top: "Convolution15"
  param {
    lr_mult: 1
    decay_mult: 1
  }
  param {
    lr_mult: 2
    decay_mult: 0
  }
  convolution_param {
    num_output: 16
    pad: 1
    kernel_size: 3
    stride: 1
    weight_filler {
      type: "gaussian"
      std: 0.118
    }
    bias_filler {
      type: "constant"
      value: 0
    }
  }
}
layer {
  name: "BatchNorm15"
  type: "BatchNorm"
  bottom: "Convolution15"
  top: "Convolution15"
  param {
    lr_mult: 0
    decay_mult: 0
  }
  param {
    lr_mult: 0
    decay_mult: 0
  }
  param {
    lr_mult: 0
    decay_mult: 0
  }
}
layer {
  name: "Scale15"
  type: "Scale"
  bottom: "Convolution15"
  top: "Convolution15"
  scale_param {
    bias_term: true
  }
}
layer {
  name: "Eltwise7"
  type: "Eltwise"
  bottom: "Eltwise6"
  bottom: "Convolution15"
  top: "Eltwise7"
  eltwise_param {
    operation: SUM
  }
}
layer {
  name: "penlu15"
  type: "PENLU"
  bottom: "Eltwise7"
  top: "Eltwise7"
  param {
    lr_mult: 1
    decay_mult: 0
  }
  param {
    lr_mult: 1
    decay_mult: 0
  }
  param {
    lr_mult: 1
    decay_mult: 0
  }
  penlu_param {
    alpha_filler {
      type: "constant"
      value: 2
    }
    beta_filler {
      type: "constant"
      value: 1
    }
    eta_filler {
      type: "constant"
      value: 1
    }
  }
}
layer {
  name: "Convolution16"
  type: "Convolution"
  bottom: "Eltwise7"
  top: "Convolution16"
  param {
    lr_mult: 1
    decay_mult: 1
  }
  param {
    lr_mult: 2
    decay_mult: 0
  }
  convolution_param {
    num_output: 16
    pad: 1
    kernel_size: 3
    stride: 1
    weight_filler {
      type: "gaussian"
      std: 0.118
    }
    bias_filler {
      type: "constant"
      value: 0
    }
  }
}
layer {
  name: "BatchNorm16"
  type: "BatchNorm"
  bottom: "Convolution16"
  top: "Convolution16"
  param {
    lr_mult: 0
    decay_mult: 0
  }
  param {
    lr_mult: 0
    decay_mult: 0
  }
  param {
    lr_mult: 0
    decay_mult: 0
  }
}
layer {
  name: "Scale16"
  type: "Scale"
  bottom: "Convolution16"
  top: "Convolution16"
  scale_param {
    bias_term: true
  }
}
layer {
  name: "penlu16"
  type: "PENLU"
  bottom: "Convolution16"
  top: "Convolution16"
  param {
    lr_mult: 1
    decay_mult: 0
  }
  param {
    lr_mult: 1
    decay_mult: 0
  }
  param {
    lr_mult: 1
    decay_mult: 0
  }
  penlu_param {
    alpha_filler {
      type: "constant"
      value: 2
    }
    beta_filler {
      type: "constant"
      value: 1
    }
    eta_filler {
      type: "constant"
      value: 1
    }
  }
}
layer {
  name: "Convolution17"
  type: "Convolution"
  bottom: "Convolution16"
  top: "Convolution17"
  param {
    lr_mult: 1
    decay_mult: 1
  }
  param {
    lr_mult: 2
    decay_mult: 0
  }
  convolution_param {
    num_output: 16
    pad: 1
    kernel_size: 3
    stride: 1
    weight_filler {
      type: "gaussian"
      std: 0.118
    }
    bias_filler {
      type: "constant"
      value: 0
    }
  }
}
layer {
  name: "BatchNorm17"
  type: "BatchNorm"
  bottom: "Convolution17"
  top: "Convolution17"
  param {
    lr_mult: 0
    decay_mult: 0
  }
  param {
    lr_mult: 0
    decay_mult: 0
  }
  param {
    lr_mult: 0
    decay_mult: 0
  }
}
layer {
  name: "Scale17"
  type: "Scale"
  bottom: "Convolution17"
  top: "Convolution17"
  scale_param {
    bias_term: true
  }
}
layer {
  name: "Eltwise8"
  type: "Eltwise"
  bottom: "Eltwise7"
  bottom: "Convolution17"
  top: "Eltwise8"
  eltwise_param {
    operation: SUM
  }
}
layer {
  name: "penlu17"
  type: "PENLU"
  bottom: "Eltwise8"
  top: "Eltwise8"
  param {
    lr_mult: 1
    decay_mult: 0
  }
  param {
    lr_mult: 1
    decay_mult: 0
  }
  param {
    lr_mult: 1
    decay_mult: 0
  }
  penlu_param {
    alpha_filler {
      type: "constant"
      value: 2
    }
    beta_filler {
      type: "constant"
      value: 1
    }
    eta_filler {
      type: "constant"
      value: 1
    }
  }
}
layer {
  name: "Convolution18"
  type: "Convolution"
  bottom: "Eltwise8"
  top: "Convolution18"
  param {
    lr_mult: 1
    decay_mult: 1
  }
  param {
    lr_mult: 2
    decay_mult: 0
  }
  convolution_param {
    num_output: 16
    pad: 1
    kernel_size: 3
    stride: 1
    weight_filler {
      type: "gaussian"
      std: 0.118
    }
    bias_filler {
      type: "constant"
      value: 0
    }
  }
}
layer {
  name: "BatchNorm18"
  type: "BatchNorm"
  bottom: "Convolution18"
  top: "Convolution18"
  param {
    lr_mult: 0
    decay_mult: 0
  }
  param {
    lr_mult: 0
    decay_mult: 0
  }
  param {
    lr_mult: 0
    decay_mult: 0
  }
}
layer {
  name: "Scale18"
  type: "Scale"
  bottom: "Convolution18"
  top: "Convolution18"
  scale_param {
    bias_term: true
  }
}
layer {
  name: "penlu18"
  type: "PENLU"
  bottom: "Convolution18"
  top: "Convolution18"
  param {
    lr_mult: 1
    decay_mult: 0
  }
  param {
    lr_mult: 1
    decay_mult: 0
  }
  param {
    lr_mult: 1
    decay_mult: 0
  }
  penlu_param {
    alpha_filler {
      type: "constant"
      value: 2
    }
    beta_filler {
      type: "constant"
      value: 1
    }
    eta_filler {
      type: "constant"
      value: 1
    }
  }
}
layer {
  name: "Convolution19"
  type: "Convolution"
  bottom: "Convolution18"
  top: "Convolution19"
  param {
    lr_mult: 1
    decay_mult: 1
  }
  param {
    lr_mult: 2
    decay_mult: 0
  }
  convolution_param {
    num_output: 16
    pad: 1
    kernel_size: 3
    stride: 1
    weight_filler {
      type: "gaussian"
      std: 0.118
    }
    bias_filler {
      type: "constant"
      value: 0
    }
  }
}
layer {
  name: "BatchNorm19"
  type: "BatchNorm"
  bottom: "Convolution19"
  top: "Convolution19"
  param {
    lr_mult: 0
    decay_mult: 0
  }
  param {
    lr_mult: 0
    decay_mult: 0
  }
  param {
    lr_mult: 0
    decay_mult: 0
  }
}
layer {
  name: "Scale19"
  type: "Scale"
  bottom: "Convolution19"
  top: "Convolution19"
  scale_param {
    bias_term: true
  }
}
layer {
  name: "Eltwise9"
  type: "Eltwise"
  bottom: "Eltwise8"
  bottom: "Convolution19"
  top: "Eltwise9"
  eltwise_param {
    operation: SUM
  }
}
layer {
  name: "penlu19"
  type: "PENLU"
  bottom: "Eltwise9"
  top: "Eltwise9"
  param {
    lr_mult: 1
    decay_mult: 0
  }
  param {
    lr_mult: 1
    decay_mult: 0
  }
  param {
    lr_mult: 1
    decay_mult: 0
  }
  penlu_param {
    alpha_filler {
      type: "constant"
      value: 2
    }
    beta_filler {
      type: "constant"
      value: 1
    }
    eta_filler {
      type: "constant"
      value: 1
    }
  }
}
layer {
  name: "Convolution20"
  type: "Convolution"
  bottom: "Eltwise9"
  top: "Convolution20"
  param {
    lr_mult: 1
    decay_mult: 1
  }
  param {
    lr_mult: 2
    decay_mult: 0
  }
  convolution_param {
    num_output: 32
    pad: 0
    kernel_size: 1
    stride: 2
    weight_filler {
      type: "gaussian"
      std: 0.25
    }
    bias_filler {
      type: "constant"
      value: 0
    }
  }
}
layer {
  name: "BatchNorm20"
  type: "BatchNorm"
  bottom: "Convolution20"
  top: "Convolution20"
  param {
    lr_mult: 0
    decay_mult: 0
  }
  param {
    lr_mult: 0
    decay_mult: 0
  }
  param {
    lr_mult: 0
    decay_mult: 0
  }
}
layer {
  name: "Scale20"
  type: "Scale"
  bottom: "Convolution20"
  top: "Convolution20"
  scale_param {
    bias_term: true
  }
}
layer {
  name: "Convolution21"
  type: "Convolution"
  bottom: "Eltwise9"
  top: "Convolution21"
  param {
    lr_mult: 1
    decay_mult: 1
  }
  param {
    lr_mult: 2
    decay_mult: 0
  }
  convolution_param {
    num_output: 32
    pad: 1
    kernel_size: 3
    stride: 2
    weight_filler {
      type: "gaussian"
      std: 0.083
    }
    bias_filler {
      type: "constant"
      value: 0
    }
  }
}
layer {
  name: "BatchNorm21"
  type: "BatchNorm"
  bottom: "Convolution21"
  top: "Convolution21"
  param {
    lr_mult: 0
    decay_mult: 0
  }
  param {
    lr_mult: 0
    decay_mult: 0
  }
  param {
    lr_mult: 0
    decay_mult: 0
  }
}
layer {
  name: "Scale21"
  type: "Scale"
  bottom: "Convolution21"
  top: "Convolution21"
  scale_param {
    bias_term: true
  }
}
layer {
  name: "penlu20"
  type: "PENLU"
  bottom: "Convolution21"
  top: "Convolution21"
  param {
    lr_mult: 1
    decay_mult: 0
  }
  param {
    lr_mult: 1
    decay_mult: 0
  }
  param {
    lr_mult: 1
    decay_mult: 0
  }
  penlu_param {
    alpha_filler {
      type: "constant"
      value: 2
    }
    beta_filler {
      type: "constant"
      value: 1
    }
    eta_filler {
      type: "constant"
      value: 1
    }
  }
}
layer {
  name: "Convolution22"
  type: "Convolution"
  bottom: "Convolution21"
  top: "Convolution22"
  param {
    lr_mult: 1
    decay_mult: 1
  }
  param {
    lr_mult: 2
    decay_mult: 0
  }
  convolution_param {
    num_output: 32
    pad: 1
    kernel_size: 3
    stride: 1
    weight_filler {
      type: "gaussian"
      std: 0.083
    }
    bias_filler {
      type: "constant"
      value: 0
    }
  }
}
layer {
  name: "BatchNorm22"
  type: "BatchNorm"
  bottom: "Convolution22"
  top: "Convolution22"
  param {
    lr_mult: 0
    decay_mult: 0
  }
  param {
    lr_mult: 0
    decay_mult: 0
  }
  param {
    lr_mult: 0
    decay_mult: 0
  }
}
layer {
  name: "Scale22"
  type: "Scale"
  bottom: "Convolution22"
  top: "Convolution22"
  scale_param {
    bias_term: true
  }
}
layer {
  name: "Eltwise10"
  type: "Eltwise"
  bottom: "Convolution20"
  bottom: "Convolution22"
  top: "Eltwise10"
  eltwise_param {
    operation: SUM
  }
}
layer {
  name: "penlu21"
  type: "PENLU"
  bottom: "Eltwise10"
  top: "Eltwise10"
  param {
    lr_mult: 1
    decay_mult: 0
  }
  param {
    lr_mult: 1
    decay_mult: 0
  }
  param {
    lr_mult: 1
    decay_mult: 0
  }
  penlu_param {
    alpha_filler {
      type: "constant"
      value: 2
    }
    beta_filler {
      type: "constant"
      value: 1
    }
    eta_filler {
      type: "constant"
      value: 1
    }
  }
}
layer {
  name: "Convolution23"
  type: "Convolution"
  bottom: "Eltwise10"
  top: "Convolution23"
  param {
    lr_mult: 1
    decay_mult: 1
  }
  param {
    lr_mult: 2
    decay_mult: 0
  }
  convolution_param {
    num_output: 32
    pad: 1
    kernel_size: 3
    stride: 1
    weight_filler {
      type: "gaussian"
      std: 0.083
    }
    bias_filler {
      type: "constant"
      value: 0
    }
  }
}
layer {
  name: "BatchNorm23"
  type: "BatchNorm"
  bottom: "Convolution23"
  top: "Convolution23"
  param {
    lr_mult: 0
    decay_mult: 0
  }
  param {
    lr_mult: 0
    decay_mult: 0
  }
  param {
    lr_mult: 0
    decay_mult: 0
  }
}
layer {
  name: "Scale23"
  type: "Scale"
  bottom: "Convolution23"
  top: "Convolution23"
  scale_param {
    bias_term: true
  }
}
layer {
  name: "penlu22"
  type: "PENLU"
  bottom: "Convolution23"
  top: "Convolution23"
  param {
    lr_mult: 1
    decay_mult: 0
  }
  param {
    lr_mult: 1
    decay_mult: 0
  }
  param {
    lr_mult: 1
    decay_mult: 0
  }
  penlu_param {
    alpha_filler {
      type: "constant"
      value: 2
    }
    beta_filler {
      type: "constant"
      value: 1
    }
    eta_filler {
      type: "constant"
      value: 1
    }
  }
}
layer {
  name: "Convolution24"
  type: "Convolution"
  bottom: "Convolution23"
  top: "Convolution24"
  param {
    lr_mult: 1
    decay_mult: 1
  }
  param {
    lr_mult: 2
    decay_mult: 0
  }
  convolution_param {
    num_output: 32
    pad: 1
    kernel_size: 3
    stride: 1
    weight_filler {
      type: "gaussian"
      std
I0926 14:52:16.597175  4911 layer_factory.hpp:77] Creating layer Data1
I0926 14:52:16.597250  4911 db_lmdb.cpp:35] Opened lmdb /home/x306/caffe/xn/PENLU/data/cifar10/cifar10_train_lmdb
I0926 14:52:16.597268  4911 net.cpp:84] Creating Layer Data1
I0926 14:52:16.597275  4911 net.cpp:380] Data1 -> Data1
I0926 14:52:16.597290  4911 net.cpp:380] Data1 -> Data2
I0926 14:52:16.597298  4911 data_transformer.cpp:25] Loading mean file from: /home/x306/caffe/xn/PENLU/data/cifar10/mean.binaryproto
I0926 14:52:16.598670  4911 data_layer.cpp:45] output data size: 100,3,28,28
I0926 14:52:16.600953  4911 net.cpp:122] Setting up Data1
I0926 14:52:16.600968  4911 net.cpp:129] Top shape: 100 3 28 28 (235200)
I0926 14:52:16.600972  4911 net.cpp:129] Top shape: 100 (100)
I0926 14:52:16.600975  4911 net.cpp:137] Memory required for data: 941200
I0926 14:52:16.600980  4911 layer_factory.hpp:77] Creating layer Convolution1
I0926 14:52:16.600998  4911 net.cpp:84] Creating Layer Convolution1
I0926 14:52:16.601003  4911 net.cpp:406] Convolution1 <- Data1
I0926 14:52:16.601012  4911 net.cpp:380] Convolution1 -> Convolution1
I0926 14:52:16.747198  4911 net.cpp:122] Setting up Convolution1
I0926 14:52:16.747222  4911 net.cpp:129] Top shape: 100 16 28 28 (1254400)
I0926 14:52:16.747225  4911 net.cpp:137] Memory required for data: 5958800
I0926 14:52:16.747241  4911 layer_factory.hpp:77] Creating layer BatchNorm1
I0926 14:52:16.747262  4911 net.cpp:84] Creating Layer BatchNorm1
I0926 14:52:16.747265  4911 net.cpp:406] BatchNorm1 <- Convolution1
I0926 14:52:16.747303  4911 net.cpp:367] BatchNorm1 -> Convolution1 (in-place)
I0926 14:52:16.747457  4911 net.cpp:122] Setting up BatchNorm1
I0926 14:52:16.747462  4911 net.cpp:129] Top shape: 100 16 28 28 (1254400)
I0926 14:52:16.747465  4911 net.cpp:137] Memory required for data: 10976400
I0926 14:52:16.747473  4911 layer_factory.hpp:77] Creating layer Scale1
I0926 14:52:16.747483  4911 net.cpp:84] Creating Layer Scale1
I0926 14:52:16.747484  4911 net.cpp:406] Scale1 <- Convolution1
I0926 14:52:16.747489  4911 net.cpp:367] Scale1 -> Convolution1 (in-place)
I0926 14:52:16.747539  4911 layer_factory.hpp:77] Creating layer Scale1
I0926 14:52:16.747617  4911 net.cpp:122] Setting up Scale1
I0926 14:52:16.747622  4911 net.cpp:129] Top shape: 100 16 28 28 (1254400)
I0926 14:52:16.747625  4911 net.cpp:137] Memory required for data: 15994000
I0926 14:52:16.747629  4911 layer_factory.hpp:77] Creating layer penlu1
I0926 14:52:16.747635  4911 net.cpp:84] Creating Layer penlu1
I0926 14:52:16.747638  4911 net.cpp:406] penlu1 <- Convolution1
I0926 14:52:16.747642  4911 net.cpp:367] penlu1 -> Convolution1 (in-place)
I0926 14:52:16.748268  4911 net.cpp:122] Setting up penlu1
I0926 14:52:16.748281  4911 net.cpp:129] Top shape: 100 16 28 28 (1254400)
I0926 14:52:16.748286  4911 net.cpp:137] Memory required for data: 21011600
I0926 14:52:16.748309  4911 layer_factory.hpp:77] Creating layer Convolution1_penlu1_0_split
I0926 14:52:16.748335  4911 net.cpp:84] Creating Layer Convolution1_penlu1_0_split
I0926 14:52:16.748338  4911 net.cpp:406] Convolution1_penlu1_0_split <- Convolution1
I0926 14:52:16.748342  4911 net.cpp:380] Convolution1_penlu1_0_split -> Convolution1_penlu1_0_split_0
I0926 14:52:16.748348  4911 net.cpp:380] Convolution1_penlu1_0_split -> Convolution1_penlu1_0_split_1
I0926 14:52:16.748383  4911 net.cpp:122] Setting up Convolution1_penlu1_0_split
I0926 14:52:16.748397  4911 net.cpp:129] Top shape: 100 16 28 28 (1254400)
I0926 14:52:16.748400  4911 net.cpp:129] Top shape: 100 16 28 28 (1254400)
I0926 14:52:16.748402  4911 net.cpp:137] Memory required for data: 31046800
I0926 14:52:16.748405  4911 layer_factory.hpp:77] Creating layer Convolution2
I0926 14:52:16.748422  4911 net.cpp:84] Creating Layer Convolution2
I0926 14:52:16.748425  4911 net.cpp:406] Convolution2 <- Convolution1_penlu1_0_split_0
I0926 14:52:16.748440  4911 net.cpp:380] Convolution2 -> Convolution2
I0926 14:52:16.749296  4911 net.cpp:122] Setting up Convolution2
I0926 14:52:16.749306  4911 net.cpp:129] Top shape: 100 16 28 28 (1254400)
I0926 14:52:16.749310  4911 net.cpp:137] Memory required for data: 36064400
I0926 14:52:16.749315  4911 layer_factory.hpp:77] Creating layer BatchNorm2
I0926 14:52:16.749320  4911 net.cpp:84] Creating Layer BatchNorm2
I0926 14:52:16.749321  4911 net.cpp:406] BatchNorm2 <- Convolution2
I0926 14:52:16.749325  4911 net.cpp:367] BatchNorm2 -> Convolution2 (in-place)
I0926 14:52:16.749457  4911 net.cpp:122] Setting up BatchNorm2
I0926 14:52:16.749464  4911 net.cpp:129] Top shape: 100 16 28 28 (1254400)
I0926 14:52:16.749465  4911 net.cpp:137] Memory required for data: 41082000
I0926 14:52:16.749470  4911 layer_factory.hpp:77] Creating layer Scale2
I0926 14:52:16.749475  4911 net.cpp:84] Creating Layer Scale2
I0926 14:52:16.749477  4911 net.cpp:406] Scale2 <- Convolution2
I0926 14:52:16.749480  4911 net.cpp:367] Scale2 -> Convolution2 (in-place)
I0926 14:52:16.749524  4911 layer_factory.hpp:77] Creating layer Scale2
I0926 14:52:16.749639  4911 net.cpp:122] Setting up Scale2
I0926 14:52:16.749644  4911 net.cpp:129] Top shape: 100 16 28 28 (1254400)
I0926 14:52:16.749646  4911 net.cpp:137] Memory required for data: 46099600
I0926 14:52:16.749652  4911 layer_factory.hpp:77] Creating layer penlu2
I0926 14:52:16.749657  4911 net.cpp:84] Creating Layer penlu2
I0926 14:52:16.749660  4911 net.cpp:406] penlu2 <- Convolution2
I0926 14:52:16.749672  4911 net.cpp:367] penlu2 -> Convolution2 (in-place)
I0926 14:52:16.749774  4911 net.cpp:122] Setting up penlu2
I0926 14:52:16.749779  4911 net.cpp:129] Top shape: 100 16 28 28 (1254400)
I0926 14:52:16.749789  4911 net.cpp:137] Memory required for data: 51117200
I0926 14:52:16.749794  4911 layer_factory.hpp:77] Creating layer Convolution3
I0926 14:52:16.749810  4911 net.cpp:84] Creating Layer Convolution3
I0926 14:52:16.749814  4911 net.cpp:406] Convolution3 <- Convolution2
I0926 14:52:16.749817  4911 net.cpp:380] Convolution3 -> Convolution3
I0926 14:52:16.750635  4911 net.cpp:122] Setting up Convolution3
I0926 14:52:16.750645  4911 net.cpp:129] Top shape: 100 16 28 28 (1254400)
I0926 14:52:16.750648  4911 net.cpp:137] Memory required for data: 56134800
I0926 14:52:16.750653  4911 layer_factory.hpp:77] Creating layer BatchNorm3
I0926 14:52:16.750658  4911 net.cpp:84] Creating Layer BatchNorm3
I0926 14:52:16.750660  4911 net.cpp:406] BatchNorm3 <- Convolution3
I0926 14:52:16.750674  4911 net.cpp:367] BatchNorm3 -> Convolution3 (in-place)
I0926 14:52:16.750798  4911 net.cpp:122] Setting up BatchNorm3
I0926 14:52:16.750804  4911 net.cpp:129] Top shape: 100 16 28 28 (1254400)
I0926 14:52:16.750807  4911 net.cpp:137] Memory required for data: 61152400
I0926 14:52:16.750811  4911 layer_factory.hpp:77] Creating layer Scale3
I0926 14:52:16.750815  4911 net.cpp:84] Creating Layer Scale3
I0926 14:52:16.750818  4911 net.cpp:406] Scale3 <- Convolution3
I0926 14:52:16.750821  4911 net.cpp:367] Scale3 -> Convolution3 (in-place)
I0926 14:52:16.750864  4911 layer_factory.hpp:77] Creating layer Scale3
I0926 14:52:16.750955  4911 net.cpp:122] Setting up Scale3
I0926 14:52:16.750960  4911 net.cpp:129] Top shape: 100 16 28 28 (1254400)
I0926 14:52:16.750962  4911 net.cpp:137] Memory required for data: 66170000
I0926 14:52:16.750967  4911 layer_factory.hpp:77] Creating layer Eltwise1
I0926 14:52:16.750970  4911 net.cpp:84] Creating Layer Eltwise1
I0926 14:52:16.750973  4911 net.cpp:406] Eltwise1 <- Convolution1_penlu1_0_split_1
I0926 14:52:16.750975  4911 net.cpp:406] Eltwise1 <- Convolution3
I0926 14:52:16.750991  4911 net.cpp:380] Eltwise1 -> Eltwise1
I0926 14:52:16.751019  4911 net.cpp:122] Setting up Eltwise1
I0926 14:52:16.751024  4911 net.cpp:129] Top shape: 100 16 28 28 (1254400)
I0926 14:52:16.751026  4911 net.cpp:137] Memory required for data: 71187600
I0926 14:52:16.751029  4911 layer_factory.hpp:77] Creating layer penlu3
I0926 14:52:16.751034  4911 net.cpp:84] Creating Layer penlu3
I0926 14:52:16.751035  4911 net.cpp:406] penlu3 <- Eltwise1
I0926 14:52:16.751039  4911 net.cpp:367] penlu3 -> Eltwise1 (in-place)
I0926 14:52:16.751155  4911 net.cpp:122] Setting up penlu3
I0926 14:52:16.751160  4911 net.cpp:129] Top shape: 100 16 28 28 (1254400)
I0926 14:52:16.751163  4911 net.cpp:137] Memory required for data: 76205200
I0926 14:52:16.751168  4911 layer_factory.hpp:77] Creating layer Eltwise1_penlu3_0_split
I0926 14:52:16.751170  4911 net.cpp:84] Creating Layer Eltwise1_penlu3_0_split
I0926 14:52:16.751173  4911 net.cpp:406] Eltwise1_penlu3_0_split <- Eltwise1
I0926 14:52:16.751176  4911 net.cpp:380] Eltwise1_penlu3_0_split -> Eltwise1_penlu3_0_split_0
I0926 14:52:16.751190  4911 net.cpp:380] Eltwise1_penlu3_0_split -> Eltwise1_penlu3_0_split_1
I0926 14:52:16.751220  4911 net.cpp:122] Setting up Eltwise1_penlu3_0_split
I0926 14:52:16.751225  4911 net.cpp:129] Top shape: 100 16 28 28 (1254400)
I0926 14:52:16.751229  4911 net.cpp:129] Top shape: 100 16 28 28 (1254400)
I0926 14:52:16.751230  4911 net.cpp:137] Memory required for data: 86240400
I0926 14:52:16.751232  4911 layer_factory.hpp:77] Creating layer Convolution4
I0926 14:52:16.751240  4911 net.cpp:84] Creating Layer Convolution4
I0926 14:52:16.751242  4911 net.cpp:406] Convolution4 <- Eltwise1_penlu3_0_split_0
I0926 14:52:16.751245  4911 net.cpp:380] Convolution4 -> Convolution4
I0926 14:52:16.752079  4911 net.cpp:122] Setting up Convolution4
I0926 14:52:16.752089  4911 net.cpp:129] Top shape: 100 16 28 28 (1254400)
I0926 14:52:16.752092  4911 net.cpp:137] Memory required for data: 91258000
I0926 14:52:16.752096  4911 layer_factory.hpp:77] Creating layer BatchNorm4
I0926 14:52:16.752101  4911 net.cpp:84] Creating Layer BatchNorm4
I0926 14:52:16.752111  4911 net.cpp:406] BatchNorm4 <- Convolution4
I0926 14:52:16.752116  4911 net.cpp:367] BatchNorm4 -> Convolution4 (in-place)
I0926 14:52:16.752231  4911 net.cpp:122] Setting up BatchNorm4
I0926 14:52:16.752238  4911 net.cpp:129] Top shape: 100 16 28 28 (1254400)
I0926 14:52:16.752239  4911 net.cpp:137] Memory required for data: 96275600
I0926 14:52:16.752248  4911 layer_factory.hpp:77] Creating layer Scale4
I0926 14:52:16.752252  4911 net.cpp:84] Creating Layer Scale4
I0926 14:52:16.752254  4911 net.cpp:406] Scale4 <- Convolution4
I0926 14:52:16.752257  4911 net.cpp:367] Scale4 -> Convolution4 (in-place)
I0926 14:52:16.752281  4911 layer_factory.hpp:77] Creating layer Scale4
I0926 14:52:16.752352  4911 net.cpp:122] Setting up Scale4
I0926 14:52:16.752357  4911 net.cpp:129] Top shape: 100 16 28 28 (1254400)
I0926 14:52:16.752359  4911 net.cpp:137] Memory required for data: 101293200
I0926 14:52:16.752363  4911 layer_factory.hpp:77] Creating layer penlu4
I0926 14:52:16.752369  4911 net.cpp:84] Creating Layer penlu4
I0926 14:52:16.752372  4911 net.cpp:406] penlu4 <- Convolution4
I0926 14:52:16.752375  4911 net.cpp:367] penlu4 -> Convolution4 (in-place)
I0926 14:52:16.752466  4911 net.cpp:122] Setting up penlu4
I0926 14:52:16.752472  4911 net.cpp:129] Top shape: 100 16 28 28 (1254400)
I0926 14:52:16.752475  4911 net.cpp:137] Memory required for data: 106310800
I0926 14:52:16.752478  4911 layer_factory.hpp:77] Creating layer Convolution5
I0926 14:52:16.752485  4911 net.cpp:84] Creating Layer Convolution5
I0926 14:52:16.752488  4911 net.cpp:406] Convolution5 <- Convolution4
I0926 14:52:16.752492  4911 net.cpp:380] Convolution5 -> Convolution5
I0926 14:52:16.753355  4911 net.cpp:122] Setting up Convolution5
I0926 14:52:16.753365  4911 net.cpp:129] Top shape: 100 16 28 28 (1254400)
I0926 14:52:16.753368  4911 net.cpp:137] Memory required for data: 111328400
I0926 14:52:16.753372  4911 layer_factory.hpp:77] Creating layer BatchNorm5
I0926 14:52:16.753378  4911 net.cpp:84] Creating Layer BatchNorm5
I0926 14:52:16.753382  4911 net.cpp:406] BatchNorm5 <- Convolution5
I0926 14:52:16.753386  4911 net.cpp:367] BatchNorm5 -> Convolution5 (in-place)
I0926 14:52:16.753505  4911 net.cpp:122] Setting up BatchNorm5
I0926 14:52:16.753511  4911 net.cpp:129] Top shape: 100 16 28 28 (1254400)
I0926 14:52:16.753513  4911 net.cpp:137] Memory required for data: 116346000
I0926 14:52:16.753518  4911 layer_factory.hpp:77] Creating layer Scale5
I0926 14:52:16.753523  4911 net.cpp:84] Creating Layer Scale5
I0926 14:52:16.753526  4911 net.cpp:406] Scale5 <- Convolution5
I0926 14:52:16.753530  4911 net.cpp:367] Scale5 -> Convolution5 (in-place)
I0926 14:52:16.753554  4911 layer_factory.hpp:77] Creating layer Scale5
I0926 14:52:16.753626  4911 net.cpp:122] Setting up Scale5
I0926 14:52:16.753631  4911 net.cpp:129] Top shape: 100 16 28 28 (1254400)
I0926 14:52:16.753633  4911 net.cpp:137] Memory required for data: 121363600
I0926 14:52:16.753638  4911 layer_factory.hpp:77] Creating layer Eltwise2
I0926 14:52:16.753643  4911 net.cpp:84] Creating Layer Eltwise2
I0926 14:52:16.753645  4911 net.cpp:406] Eltwise2 <- Eltwise1_penlu3_0_split_1
I0926 14:52:16.753648  4911 net.cpp:406] Eltwise2 <- Convolution5
I0926 14:52:16.753651  4911 net.cpp:380] Eltwise2 -> Eltwise2
I0926 14:52:16.753666  4911 net.cpp:122] Setting up Eltwise2
I0926 14:52:16.753670  4911 net.cpp:129] Top shape: 100 16 28 28 (1254400)
I0926 14:52:16.753674  4911 net.cpp:137] Memory required for data: 126381200
I0926 14:52:16.753675  4911 layer_factory.hpp:77] Creating layer penlu5
I0926 14:52:16.753681  4911 net.cpp:84] Creating Layer penlu5
I0926 14:52:16.753684  4911 net.cpp:406] penlu5 <- Eltwise2
I0926 14:52:16.753687  4911 net.cpp:367] penlu5 -> Eltwise2 (in-place)
I0926 14:52:16.753783  4911 net.cpp:122] Setting up penlu5
I0926 14:52:16.753788  4911 net.cpp:129] Top shape: 100 16 28 28 (1254400)
I0926 14:52:16.753790  4911 net.cpp:137] Memory required for data: 131398800
I0926 14:52:16.753795  4911 layer_factory.hpp:77] Creating layer Eltwise2_penlu5_0_split
I0926 14:52:16.753799  4911 net.cpp:84] Creating Layer Eltwise2_penlu5_0_split
I0926 14:52:16.753808  4911 net.cpp:406] Eltwise2_penlu5_0_split <- Eltwise2
I0926 14:52:16.753813  4911 net.cpp:380] Eltwise2_penlu5_0_split -> Eltwise2_penlu5_0_split_0
I0926 14:52:16.753816  4911 net.cpp:380] Eltwise2_penlu5_0_split -> Eltwise2_penlu5_0_split_1
I0926 14:52:16.753839  4911 net.cpp:122] Setting up Eltwise2_penlu5_0_split
I0926 14:52:16.753844  4911 net.cpp:129] Top shape: 100 16 28 28 (1254400)
I0926 14:52:16.753846  4911 net.cpp:129] Top shape: 100 16 28 28 (1254400)
I0926 14:52:16.753849  4911 net.cpp:137] Memory required for data: 141434000
I0926 14:52:16.753850  4911 layer_factory.hpp:77] Creating layer Convolution6
I0926 14:52:16.753856  4911 net.cpp:84] Creating Layer Convolution6
I0926 14:52:16.753860  4911 net.cpp:406] Convolution6 <- Eltwise2_penlu5_0_split_0
I0926 14:52:16.753864  4911 net.cpp:380] Convolution6 -> Convolution6
I0926 14:52:16.754705  4911 net.cpp:122] Setting up Convolution6
I0926 14:52:16.754715  4911 net.cpp:129] Top shape: 100 16 28 28 (1254400)
I0926 14:52:16.754719  4911 net.cpp:137] Memory required for data: 146451600
I0926 14:52:16.754724  4911 layer_factory.hpp:77] Creating layer BatchNorm6
I0926 14:52:16.754729  4911 net.cpp:84] Creating Layer BatchNorm6
I0926 14:52:16.754732  4911 net.cpp:406] BatchNorm6 <- Convolution6
I0926 14:52:16.754736  4911 net.cpp:367] BatchNorm6 -> Convolution6 (in-place)
I0926 14:52:16.754858  4911 net.cpp:122] Setting up BatchNorm6
I0926 14:52:16.754863  4911 net.cpp:129] Top shape: 100 16 28 28 (1254400)
I0926 14:52:16.754866  4911 net.cpp:137] Memory required for data: 151469200
I0926 14:52:16.754871  4911 layer_factory.hpp:77] Creating layer Scale6
I0926 14:52:16.754878  4911 net.cpp:84] Creating Layer Scale6
I0926 14:52:16.754881  4911 net.cpp:406] Scale6 <- Convolution6
I0926 14:52:16.754884  4911 net.cpp:367] Scale6 -> Convolution6 (in-place)
I0926 14:52:16.754909  4911 layer_factory.hpp:77] Creating layer Scale6
I0926 14:52:16.754981  4911 net.cpp:122] Setting up Scale6
I0926 14:52:16.754987  4911 net.cpp:129] Top shape: 100 16 28 28 (1254400)
I0926 14:52:16.754989  4911 net.cpp:137] Memory required for data: 156486800
I0926 14:52:16.754992  4911 layer_factory.hpp:77] Creating layer penlu6
I0926 14:52:16.754999  4911 net.cpp:84] Creating Layer penlu6
I0926 14:52:16.755002  4911 net.cpp:406] penlu6 <- Convolution6
I0926 14:52:16.755007  4911 net.cpp:367] penlu6 -> Convolution6 (in-place)
I0926 14:52:16.755105  4911 net.cpp:122] Setting up penlu6
I0926 14:52:16.755110  4911 net.cpp:129] Top shape: 100 16 28 28 (1254400)
I0926 14:52:16.755112  4911 net.cpp:137] Memory required for data: 161504400
I0926 14:52:16.755117  4911 layer_factory.hpp:77] Creating layer Convolution7
I0926 14:52:16.755125  4911 net.cpp:84] Creating Layer Convolution7
I0926 14:52:16.755127  4911 net.cpp:406] Convolution7 <- Convolution6
I0926 14:52:16.755131  4911 net.cpp:380] Convolution7 -> Convolution7
I0926 14:52:16.755653  4911 net.cpp:122] Setting up Convolution7
I0926 14:52:16.755662  4911 net.cpp:129] Top shape: 100 16 28 28 (1254400)
I0926 14:52:16.755666  4911 net.cpp:137] Memory required for data: 166522000
I0926 14:52:16.755669  4911 layer_factory.hpp:77] Creating layer BatchNorm7
I0926 14:52:16.755676  4911 net.cpp:84] Creating Layer BatchNorm7
I0926 14:52:16.755678  4911 net.cpp:406] BatchNorm7 <- Convolution7
I0926 14:52:16.755681  4911 net.cpp:367] BatchNorm7 -> Convolution7 (in-place)
I0926 14:52:16.755803  4911 net.cpp:122] Setting up BatchNorm7
I0926 14:52:16.755808  4911 net.cpp:129] Top shape: 100 16 28 28 (1254400)
I0926 14:52:16.755810  4911 net.cpp:137] Memory required for data: 171539600
I0926 14:52:16.755820  4911 layer_factory.hpp:77] Creating layer Scale7
I0926 14:52:16.755827  4911 net.cpp:84] Creating Layer Scale7
I0926 14:52:16.755831  4911 net.cpp:406] Scale7 <- Convolution7
I0926 14:52:16.755833  4911 net.cpp:367] Scale7 -> Convolution7 (in-place)
I0926 14:52:16.755858  4911 layer_factory.hpp:77] Creating layer Scale7
I0926 14:52:16.755929  4911 net.cpp:122] Setting up Scale7
I0926 14:52:16.755941  4911 net.cpp:129] Top shape: 100 16 28 28 (1254400)
I0926 14:52:16.755945  4911 net.cpp:137] Memory required for data: 176557200
I0926 14:52:16.755949  4911 layer_factory.hpp:77] Creating layer Eltwise3
I0926 14:52:16.755954  4911 net.cpp:84] Creating Layer Eltwise3
I0926 14:52:16.755956  4911 net.cpp:406] Eltwise3 <- Eltwise2_penlu5_0_split_1
I0926 14:52:16.755959  4911 net.cpp:406] Eltwise3 <- Convolution7
I0926 14:52:16.755964  4911 net.cpp:380] Eltwise3 -> Eltwise3
I0926 14:52:16.755978  4911 net.cpp:122] Setting up Eltwise3
I0926 14:52:16.755983  4911 net.cpp:129] Top shape: 100 16 28 28 (1254400)
I0926 14:52:16.755985  4911 net.cpp:137] Memory required for data: 181574800
I0926 14:52:16.755987  4911 layer_factory.hpp:77] Creating layer penlu7
I0926 14:52:16.755992  4911 net.cpp:84] Creating Layer penlu7
I0926 14:52:16.755995  4911 net.cpp:406] penlu7 <- Eltwise3
I0926 14:52:16.756000  4911 net.cpp:367] penlu7 -> Eltwise3 (in-place)
I0926 14:52:16.756103  4911 net.cpp:122] Setting up penlu7
I0926 14:52:16.756108  4911 net.cpp:129] Top shape: 100 16 28 28 (1254400)
I0926 14:52:16.756110  4911 net.cpp:137] Memory required for data: 186592400
I0926 14:52:16.756115  4911 layer_factory.hpp:77] Creating layer Eltwise3_penlu7_0_split
I0926 14:52:16.756120  4911 net.cpp:84] Creating Layer Eltwise3_penlu7_0_split
I0926 14:52:16.756122  4911 net.cpp:406] Eltwise3_penlu7_0_split <- Eltwise3
I0926 14:52:16.756125  4911 net.cpp:380] Eltwise3_penlu7_0_split -> Eltwise3_penlu7_0_split_0
I0926 14:52:16.756129  4911 net.cpp:380] Eltwise3_penlu7_0_split -> Eltwise3_penlu7_0_split_1
I0926 14:52:16.756151  4911 net.cpp:122] Setting up Eltwise3_penlu7_0_split
I0926 14:52:16.756155  4911 net.cpp:129] Top shape: 100 16 28 28 (1254400)
I0926 14:52:16.756158  4911 net.cpp:129] Top shape: 100 16 28 28 (1254400)
I0926 14:52:16.756160  4911 net.cpp:137] Memory required for data: 196627600
I0926 14:52:16.756162  4911 layer_factory.hpp:77] Creating layer Convolution8
I0926 14:52:16.756168  4911 net.cpp:84] Creating Layer Convolution8
I0926 14:52:16.756171  4911 net.cpp:406] Convolution8 <- Eltwise3_penlu7_0_split_0
I0926 14:52:16.756176  4911 net.cpp:380] Convolution8 -> Convolution8
I0926 14:52:16.757035  4911 net.cpp:122] Setting up Convolution8
I0926 14:52:16.757045  4911 net.cpp:129] Top shape: 100 16 28 28 (1254400)
I0926 14:52:16.757047  4911 net.cpp:137] Memory required for data: 201645200
I0926 14:52:16.757052  4911 layer_factory.hpp:77] Creating layer BatchNorm8
I0926 14:52:16.757058  4911 net.cpp:84] Creating Layer BatchNorm8
I0926 14:52:16.757062  4911 net.cpp:406] BatchNorm8 <- Convolution8
I0926 14:52:16.757066  4911 net.cpp:367] BatchNorm8 -> Convolution8 (in-place)
I0926 14:52:16.757186  4911 net.cpp:122] Setting up BatchNorm8
I0926 14:52:16.757191  4911 net.cpp:129] Top shape: 100 16 28 28 (1254400)
I0926 14:52:16.757194  4911 net.cpp:137] Memory required for data: 206662800
I0926 14:52:16.757199  4911 layer_factory.hpp:77] Creating layer Scale8
I0926 14:52:16.757203  4911 net.cpp:84] Creating Layer Scale8
I0926 14:52:16.757206  4911 net.cpp:406] Scale8 <- Convolution8
I0926 14:52:16.757210  4911 net.cpp:367] Scale8 -> Convolution8 (in-place)
I0926 14:52:16.757236  4911 layer_factory.hpp:77] Creating layer Scale8
I0926 14:52:16.757308  4911 net.cpp:122] Setting up Scale8
I0926 14:52:16.757313  4911 net.cpp:129] Top shape: 100 16 28 28 (1254400)
I0926 14:52:16.757318  4911 net.cpp:137] Memory required for data: 211680400
I0926 14:52:16.757321  4911 layer_factory.hpp:77] Creating layer penlu8
I0926 14:52:16.757325  4911 net.cpp:84] Creating Layer penlu8
I0926 14:52:16.757328  4911 net.cpp:406] penlu8 <- Convolution8
I0926 14:52:16.757333  4911 net.cpp:367] penlu8 -> Convolution8 (in-place)
I0926 14:52:16.757448  4911 net.cpp:122] Setting up penlu8
I0926 14:52:16.757455  4911 net.cpp:129] Top shape: 100 16 28 28 (1254400)
I0926 14:52:16.757458  4911 net.cpp:137] Memory required for data: 216698000
I0926 14:52:16.757467  4911 layer_factory.hpp:77] Creating layer Convolution9
I0926 14:52:16.757477  4911 net.cpp:84] Creating Layer Convolution9
I0926 14:52:16.757488  4911 net.cpp:406] Convolution9 <- Convolution8
I0926 14:52:16.757493  4911 net.cpp:380] Convolution9 -> Convolution9
I0926 14:52:16.758360  4911 net.cpp:122] Setting up Convolution9
I0926 14:52:16.758370  4911 net.cpp:129] Top shape: 100 16 28 28 (1254400)
I0926 14:52:16.758373  4911 net.cpp:137] Memory required for data: 221715600
I0926 14:52:16.758378  4911 layer_factory.hpp:77] Creating layer BatchNorm9
I0926 14:52:16.758385  4911 net.cpp:84] Creating Layer BatchNorm9
I0926 14:52:16.758388  4911 net.cpp:406] BatchNorm9 <- Convolution9
I0926 14:52:16.758393  4911 net.cpp:367] BatchNorm9 -> Convolution9 (in-place)
I0926 14:52:16.758518  4911 net.cpp:122] Setting up BatchNorm9
I0926 14:52:16.758524  4911 net.cpp:129] Top shape: 100 16 28 28 (1254400)
I0926 14:52:16.758527  4911 net.cpp:137] Memory required for data: 226733200
I0926 14:52:16.758543  4911 layer_factory.hpp:77] Creating layer Scale9
I0926 14:52:16.758555  4911 net.cpp:84] Creating Layer Scale9
I0926 14:52:16.758558  4911 net.cpp:406] Scale9 <- Convolution9
I0926 14:52:16.758561  4911 net.cpp:367] Scale9 -> Convolution9 (in-place)
I0926 14:52:16.758606  4911 layer_factory.hpp:77] Creating layer Scale9
I0926 14:52:16.758723  4911 net.cpp:122] Setting up Scale9
I0926 14:52:16.758729  4911 net.cpp:129] Top shape: 100 16 28 28 (1254400)
I0926 14:52:16.758741  4911 net.cpp:137] Memory required for data: 231750800
I0926 14:52:16.758746  4911 layer_factory.hpp:77] Creating layer Eltwise4
I0926 14:52:16.758750  4911 net.cpp:84] Creating Layer Eltwise4
I0926 14:52:16.758752  4911 net.cpp:406] Eltwise4 <- Eltwise3_penlu7_0_split_1
I0926 14:52:16.758756  4911 net.cpp:406] Eltwise4 <- Convolution9
I0926 14:52:16.758761  4911 net.cpp:380] Eltwise4 -> Eltwise4
I0926 14:52:16.758777  4911 net.cpp:122] Setting up Eltwise4
I0926 14:52:16.758791  4911 net.cpp:129] Top shape: 100 16 28 28 (1254400)
I0926 14:52:16.758793  4911 net.cpp:137] Memory required for data: 236768400
I0926 14:52:16.758795  4911 layer_factory.hpp:77] Creating layer penlu9
I0926 14:52:16.758811  4911 net.cpp:84] Creating Layer penlu9
I0926 14:52:16.758813  4911 net.cpp:406] penlu9 <- Eltwise4
I0926 14:52:16.758817  4911 net.cpp:367] penlu9 -> Eltwise4 (in-place)
I0926 14:52:16.758944  4911 net.cpp:122] Setting up penlu9
I0926 14:52:16.758951  4911 net.cpp:129] Top shape: 100 16 28 28 (1254400)
I0926 14:52:16.758955  4911 net.cpp:137] Memory required for data: 241786000
I0926 14:52:16.758963  4911 layer_factory.hpp:77] Creating layer Eltwise4_penlu9_0_split
I0926 14:52:16.758970  4911 net.cpp:84] Creating Layer Eltwise4_penlu9_0_split
I0926 14:52:16.758975  4911 net.cpp:406] Eltwise4_penlu9_0_split <- Eltwise4
I0926 14:52:16.758983  4911 net.cpp:380] Eltwise4_penlu9_0_split -> Eltwise4_penlu9_0_split_0
I0926 14:52:16.758991  4911 net.cpp:380] Eltwise4_penlu9_0_split -> Eltwise4_penlu9_0_split_1
I0926 14:52:16.759021  4911 net.cpp:122] Setting up Eltwise4_penlu9_0_split
I0926 14:52:16.759027  4911 net.cpp:129] Top shape: 100 16 28 28 (1254400)
I0926 14:52:16.759033  4911 net.cpp:129] Top shape: 100 16 28 28 (1254400)
I0926 14:52:16.759037  4911 net.cpp:137] Memory required for data: 251821200
I0926 14:52:16.759052  4911 layer_factory.hpp:77] Creating layer Convolution10
I0926 14:52:16.759075  4911 net.cpp:84] Creating Layer Convolution10
I0926 14:52:16.759081  4911 net.cpp:406] Convolution10 <- Eltwise4_penlu9_0_split_0
I0926 14:52:16.759086  4911 net.cpp:380] Convolution10 -> Convolution10
I0926 14:52:16.759989  4911 net.cpp:122] Setting up Convolution10
I0926 14:52:16.759999  4911 net.cpp:129] Top shape: 100 16 28 28 (1254400)
I0926 14:52:16.760002  4911 net.cpp:137] Memory required for data: 256838800
I0926 14:52:16.760006  4911 layer_factory.hpp:77] Creating layer BatchNorm10
I0926 14:52:16.760012  4911 net.cpp:84] Creating Layer BatchNorm10
I0926 14:52:16.760016  4911 net.cpp:406] BatchNorm10 <- Convolution10
I0926 14:52:16.760020  4911 net.cpp:367] BatchNorm10 -> Convolution10 (in-place)
I0926 14:52:16.760150  4911 net.cpp:122] Setting up BatchNorm10
I0926 14:52:16.760164  4911 net.cpp:129] Top shape: 100 16 28 28 (1254400)
I0926 14:52:16.760166  4911 net.cpp:137] Memory required for data: 261856400
I0926 14:52:16.760172  4911 layer_factory.hpp:77] Creating layer Scale10
I0926 14:52:16.760177  4911 net.cpp:84] Creating Layer Scale10
I0926 14:52:16.760180  4911 net.cpp:406] Scale10 <- Convolution10
I0926 14:52:16.760185  4911 net.cpp:367] Scale10 -> Convolution10 (in-place)
I0926 14:52:16.760212  4911 layer_factory.hpp:77] Creating layer Scale10
I0926 14:52:16.760290  4911 net.cpp:122] Setting up Scale10
I0926 14:52:16.760296  4911 net.cpp:129] Top shape: 100 16 28 28 (1254400)
I0926 14:52:16.760298  4911 net.cpp:137] Memory required for data: 266874000
I0926 14:52:16.760303  4911 layer_factory.hpp:77] Creating layer penlu10
I0926 14:52:16.760308  4911 net.cpp:84] Creating Layer penlu10
I0926 14:52:16.760311  4911 net.cpp:406] penlu10 <- Convolution10
I0926 14:52:16.760315  4911 net.cpp:367] penlu10 -> Convolution10 (in-place)
I0926 14:52:16.760433  4911 net.cpp:122] Setting up penlu10
I0926 14:52:16.760439  4911 net.cpp:129] Top shape: 100 16 28 28 (1254400)
I0926 14:52:16.760450  4911 net.cpp:137] Memory required for data: 271891600
I0926 14:52:16.760455  4911 layer_factory.hpp:77] Creating layer Convolution11
I0926 14:52:16.760463  4911 net.cpp:84] Creating Layer Convolution11
I0926 14:52:16.760466  4911 net.cpp:406] Convolution11 <- Convolution10
I0926 14:52:16.760470  4911 net.cpp:380] Convolution11 -> Convolution11
I0926 14:52:16.761471  4911 net.cpp:122] Setting up Convolution11
I0926 14:52:16.761492  4911 net.cpp:129] Top shape: 100 16 28 28 (1254400)
I0926 14:52:16.761495  4911 net.cpp:137] Memory required for data: 276909200
I0926 14:52:16.761499  4911 layer_factory.hpp:77] Creating layer BatchNorm11
I0926 14:52:16.761505  4911 net.cpp:84] Creating Layer BatchNorm11
I0926 14:52:16.761508  4911 net.cpp:406] BatchNorm11 <- Convolution11
I0926 14:52:16.761513  4911 net.cpp:367] BatchNorm11 -> Convolution11 (in-place)
I0926 14:52:16.761647  4911 net.cpp:122] Setting up BatchNorm11
I0926 14:52:16.761653  4911 net.cpp:129] Top shape: 100 16 28 28 (1254400)
I0926 14:52:16.761664  4911 net.cpp:137] Memory required for data: 281926800
I0926 14:52:16.761669  4911 layer_factory.hpp:77] Creating layer Scale11
I0926 14:52:16.761674  4911 net.cpp:84] Creating Layer Scale11
I0926 14:52:16.761677  4911 net.cpp:406] Scale11 <- Convolution11
I0926 14:52:16.761682  4911 net.cpp:367] Scale11 -> Convolution11 (in-place)
I0926 14:52:16.761716  4911 layer_factory.hpp:77] Creating layer Scale11
I0926 14:52:16.761811  4911 net.cpp:122] Setting up Scale11
I0926 14:52:16.761816  4911 net.cpp:129] Top shape: 100 16 28 28 (1254400)
I0926 14:52:16.761828  4911 net.cpp:137] Memory required for data: 286944400
I0926 14:52:16.761832  4911 layer_factory.hpp:77] Creating layer Eltwise5
I0926 14:52:16.761837  4911 net.cpp:84] Creating Layer Eltwise5
I0926 14:52:16.761839  4911 net.cpp:406] Eltwise5 <- Eltwise4_penlu9_0_split_1
I0926 14:52:16.761842  4911 net.cpp:406] Eltwise5 <- Convolution11
I0926 14:52:16.761847  4911 net.cpp:380] Eltwise5 -> Eltwise5
I0926 14:52:16.761863  4911 net.cpp:122] Setting up Eltwise5
I0926 14:52:16.761878  4911 net.cpp:129] Top shape: 100 16 28 28 (1254400)
I0926 14:52:16.761879  4911 net.cpp:137] Memory required for data: 291962000
I0926 14:52:16.761881  4911 layer_factory.hpp:77] Creating layer penlu11
I0926 14:52:16.761896  4911 net.cpp:84] Creating Layer penlu11
I0926 14:52:16.761899  4911 net.cpp:406] penlu11 <- Eltwise5
I0926 14:52:16.761903  4911 net.cpp:367] penlu11 -> Eltwise5 (in-place)
I0926 14:52:16.762010  4911 net.cpp:122] Setting up penlu11
I0926 14:52:16.762017  4911 net.cpp:129] Top shape: 100 16 28 28 (1254400)
I0926 14:52:16.762019  4911 net.cpp:137] Memory required for data: 296979600
I0926 14:52:16.762024  4911 layer_factory.hpp:77] Creating layer Eltwise5_penlu11_0_split
I0926 14:52:16.762028  4911 net.cpp:84] Creating Layer Eltwise5_penlu11_0_split
I0926 14:52:16.762032  4911 net.cpp:406] Eltwise5_penlu11_0_split <- Eltwise5
I0926 14:52:16.762042  4911 net.cpp:380] Eltwise5_penlu11_0_split -> Eltwise5_penlu11_0_split_0
I0926 14:52:16.762048  4911 net.cpp:380] Eltwise5_penlu11_0_split -> Eltwise5_penlu11_0_split_1
I0926 14:52:16.762071  4911 net.cpp:122] Setting up Eltwise5_penlu11_0_split
I0926 14:52:16.762076  4911 net.cpp:129] Top shape: 100 16 28 28 (1254400)
I0926 14:52:16.762080  4911 net.cpp:129] Top shape: 100 16 28 28 (1254400)
I0926 14:52:16.762082  4911 net.cpp:137] Memory required for data: 307014800
I0926 14:52:16.762084  4911 layer_factory.hpp:77] Creating layer Convolution12
I0926 14:52:16.762092  4911 net.cpp:84] Creating Layer Convolution12
I0926 14:52:16.762095  4911 net.cpp:406] Convolution12 <- Eltwise5_penlu11_0_split_0
I0926 14:52:16.762099  4911 net.cpp:380] Convolution12 -> Convolution12
I0926 14:52:16.762979  4911 net.cpp:122] Setting up Convolution12
I0926 14:52:16.762989  4911 net.cpp:129] Top shape: 100 16 28 28 (1254400)
I0926 14:52:16.762994  4911 net.cpp:137] Memory required for data: 312032400
I0926 14:52:16.762998  4911 layer_factory.hpp:77] Creating layer BatchNorm12
I0926 14:52:16.763005  4911 net.cpp:84] Creating Layer BatchNorm12
I0926 14:52:16.763007  4911 net.cpp:406] BatchNorm12 <- Convolution12
I0926 14:52:16.763012  4911 net.cpp:367] BatchNorm12 -> Convolution12 (in-place)
I0926 14:52:16.763144  4911 net.cpp:122] Setting up BatchNorm12
I0926 14:52:16.763149  4911 net.cpp:129] Top shape: 100 16 28 28 (1254400)
I0926 14:52:16.763151  4911 net.cpp:137] Memory required for data: 317050000
I0926 14:52:16.763156  4911 layer_factory.hpp:77] Creating layer Scale12
I0926 14:52:16.763164  4911 net.cpp:84] Creating Layer Scale12
I0926 14:52:16.763167  4911 net.cpp:406] Scale12 <- Convolution12
I0926 14:52:16.763170  4911 net.cpp:367] Scale12 -> Convolution12 (in-place)
I0926 14:52:16.763197  4911 layer_factory.hpp:77] Creating layer Scale12
I0926 14:52:16.763275  4911 net.cpp:122] Setting up Scale12
I0926 14:52:16.763281  4911 net.cpp:129] Top shape: 100 16 28 28 (1254400)
I0926 14:52:16.763284  4911 net.cpp:137] Memory required for data: 322067600
I0926 14:52:16.763288  4911 layer_factory.hpp:77] Creating layer penlu12
I0926 14:52:16.763294  4911 net.cpp:84] Creating Layer penlu12
I0926 14:52:16.763298  4911 net.cpp:406] penlu12 <- Convolution12
I0926 14:52:16.763303  4911 net.cpp:367] penlu12 -> Convolution12 (in-place)
I0926 14:52:16.763409  4911 net.cpp:122] Setting up penlu12
I0926 14:52:16.763415  4911 net.cpp:129] Top shape: 100 16 28 28 (1254400)
I0926 14:52:16.763418  4911 net.cpp:137] Memory required for data: 327085200
I0926 14:52:16.763422  4911 layer_factory.hpp:77] Creating layer Convolution13
I0926 14:52:16.763430  4911 net.cpp:84] Creating Layer Convolution13
I0926 14:52:16.763433  4911 net.cpp:406] Convolution13 <- Convolution12
I0926 14:52:16.763437  4911 net.cpp:380] Convolution13 -> Convolution13
I0926 14:52:16.764317  4911 net.cpp:122] Setting up Convolution13
I0926 14:52:16.764327  4911 net.cpp:129] Top shape: 100 16 28 28 (1254400)
I0926 14:52:16.764330  4911 net.cpp:137] Memory required for data: 332102800
I0926 14:52:16.764334  4911 layer_factory.hpp:77] Creating layer BatchNorm13
I0926 14:52:16.764340  4911 net.cpp:84] Creating Layer BatchNorm13
I0926 14:52:16.764344  4911 net.cpp:406] BatchNorm13 <- Convolution13
I0926 14:52:16.764348  4911 net.cpp:367] BatchNorm13 -> Convolution13 (in-place)
I0926 14:52:16.764480  4911 net.cpp:122] Setting up BatchNorm13
I0926 14:52:16.764487  4911 net.cpp:129] Top shape: 100 16 28 28 (1254400)
I0926 14:52:16.764489  4911 net.cpp:137] Memory required for data: 337120400
I0926 14:52:16.764513  4911 layer_factory.hpp:77] Creating layer Scale13
I0926 14:52:16.764520  4911 net.cpp:84] Creating Layer Scale13
I0926 14:52:16.764523  4911 net.cpp:406] Scale13 <- Convolution13
I0926 14:52:16.764528  4911 net.cpp:367] Scale13 -> Convolution13 (in-place)
I0926 14:52:16.764564  4911 layer_factory.hpp:77] Creating layer Scale13
I0926 14:52:16.764643  4911 net.cpp:122] Setting up Scale13
I0926 14:52:16.764648  4911 net.cpp:129] Top shape: 100 16 28 28 (1254400)
I0926 14:52:16.764658  4911 net.cpp:137] Memory required for data: 342138000
I0926 14:52:16.764663  4911 layer_factory.hpp:77] Creating layer Eltwise6
I0926 14:52:16.764668  4911 net.cpp:84] Creating Layer Eltwise6
I0926 14:52:16.764672  4911 net.cpp:406] Eltwise6 <- Eltwise5_penlu11_0_split_1
I0926 14:52:16.764675  4911 net.cpp:406] Eltwise6 <- Convolution13
I0926 14:52:16.764679  4911 net.cpp:380] Eltwise6 -> Eltwise6
I0926 14:52:16.764698  4911 net.cpp:122] Setting up Eltwise6
I0926 14:52:16.764703  4911 net.cpp:129] Top shape: 100 16 28 28 (1254400)
I0926 14:52:16.764706  4911 net.cpp:137] Memory required for data: 347155600
I0926 14:52:16.764709  4911 layer_factory.hpp:77] Creating layer penlu13
I0926 14:52:16.764717  4911 net.cpp:84] Creating Layer penlu13
I0926 14:52:16.764721  4911 net.cpp:406] penlu13 <- Eltwise6
I0926 14:52:16.764725  4911 net.cpp:367] penlu13 -> Eltwise6 (in-place)
I0926 14:52:16.764835  4911 net.cpp:122] Setting up penlu13
I0926 14:52:16.764842  4911 net.cpp:129] Top shape: 100 16 28 28 (1254400)
I0926 14:52:16.764844  4911 net.cpp:137] Memory required for data: 352173200
I0926 14:52:16.764858  4911 layer_factory.hpp:77] Creating layer Eltwise6_penlu13_0_split
I0926 14:52:16.764863  4911 net.cpp:84] Creating Layer Eltwise6_penlu13_0_split
I0926 14:52:16.764866  4911 net.cpp:406] Eltwise6_penlu13_0_split <- Eltwise6
I0926 14:52:16.764869  4911 net.cpp:380] Eltwise6_penlu13_0_split -> Eltwise6_penlu13_0_split_0
I0926 14:52:16.764874  4911 net.cpp:380] Eltwise6_penlu13_0_split -> Eltwise6_penlu13_0_split_1
I0926 14:52:16.764899  4911 net.cpp:122] Setting up Eltwise6_penlu13_0_split
I0926 14:52:16.764904  4911 net.cpp:129] Top shape: 100 16 28 28 (1254400)
I0926 14:52:16.764907  4911 net.cpp:129] Top shape: 100 16 28 28 (1254400)
I0926 14:52:16.764909  4911 net.cpp:137] Memory required for data: 362208400
I0926 14:52:16.764911  4911 layer_factory.hpp:77] Creating layer Convolution14
I0926 14:52:16.764919  4911 net.cpp:84] Creating Layer Convolution14
I0926 14:52:16.764922  4911 net.cpp:406] Convolution14 <- Eltwise6_penlu13_0_split_0
I0926 14:52:16.764926  4911 net.cpp:380] Convolution14 -> Convolution14
I0926 14:52:16.765808  4911 net.cpp:122] Setting up Convolution14
I0926 14:52:16.765817  4911 net.cpp:129] Top shape: 100 16 28 28 (1254400)
I0926 14:52:16.765820  4911 net.cpp:137] Memory required for data: 367226000
I0926 14:52:16.765825  4911 layer_factory.hpp:77] Creating layer BatchNorm14
I0926 14:52:16.765830  4911 net.cpp:84] Creating Layer BatchNorm14
I0926 14:52:16.765832  4911 net.cpp:406] BatchNorm14 <- Convolution14
I0926 14:52:16.765837  4911 net.cpp:367] BatchNorm14 -> Convolution14 (in-place)
I0926 14:52:16.765970  4911 net.cpp:122] Setting up BatchNorm14
I0926 14:52:16.765975  4911 net.cpp:129] Top shape: 100 16 28 28 (1254400)
I0926 14:52:16.765977  4911 net.cpp:137] Memory required for data: 372243600
I0926 14:52:16.765982  4911 layer_factory.hpp:77] Creating layer Scale14
I0926 14:52:16.765987  4911 net.cpp:84] Creating Layer Scale14
I0926 14:52:16.765990  4911 net.cpp:406] Scale14 <- Convolution14
I0926 14:52:16.765992  4911 net.cpp:367] Scale14 -> Convolution14 (in-place)
I0926 14:52:16.766018  4911 layer_factory.hpp:77] Creating layer Scale14
I0926 14:52:16.766095  4911 net.cpp:122] Setting up Scale14
I0926 14:52:16.766099  4911 net.cpp:129] Top shape: 100 16 28 28 (1254400)
I0926 14:52:16.766101  4911 net.cpp:137] Memory required for data: 377261200
I0926 14:52:16.766105  4911 layer_factory.hpp:77] Creating layer penlu14
I0926 14:52:16.766111  4911 net.cpp:84] Creating Layer penlu14
I0926 14:52:16.766113  4911 net.cpp:406] penlu14 <- Convolution14
I0926 14:52:16.766116  4911 net.cpp:367] penlu14 -> Convolution14 (in-place)
I0926 14:52:16.766224  4911 net.cpp:122] Setting up penlu14
I0926 14:52:16.766228  4911 net.cpp:129] Top shape: 100 16 28 28 (1254400)
I0926 14:52:16.766230  4911 net.cpp:137] Memory required for data: 382278800
I0926 14:52:16.766234  4911 layer_factory.hpp:77] Creating layer Convolution15
I0926 14:52:16.766242  4911 net.cpp:84] Creating Layer Convolution15
I0926 14:52:16.766250  4911 net.cpp:406] Convolution15 <- Convolution14
I0926 14:52:16.766254  4911 net.cpp:380] Convolution15 -> Convolution15
I0926 14:52:16.767133  4911 net.cpp:122] Setting up Convolution15
I0926 14:52:16.767141  4911 net.cpp:129] Top shape: 100 16 28 28 (1254400)
I0926 14:52:16.767144  4911 net.cpp:137] Memory required for data: 387296400
I0926 14:52:16.767148  4911 layer_factory.hpp:77] Creating layer BatchNorm15
I0926 14:52:16.767153  4911 net.cpp:84] Creating Layer BatchNorm15
I0926 14:52:16.767156  4911 net.cpp:406] BatchNorm15 <- Convolution15
I0926 14:52:16.767160  4911 net.cpp:367] BatchNorm15 -> Convolution15 (in-place)
I0926 14:52:16.767293  4911 net.cpp:122] Setting up BatchNorm15
I0926 14:52:16.767297  4911 net.cpp:129] Top shape: 100 16 28 28 (1254400)
I0926 14:52:16.767300  4911 net.cpp:137] Memory required for data: 392314000
I0926 14:52:16.767304  4911 layer_factory.hpp:77] Creating layer Scale15
I0926 14:52:16.767309  4911 net.cpp:84] Creating Layer Scale15
I0926 14:52:16.767313  4911 net.cpp:406] Scale15 <- Convolution15
I0926 14:52:16.767315  4911 net.cpp:367] Scale15 -> Convolution15 (in-place)
I0926 14:52:16.767340  4911 layer_factory.hpp:77] Creating layer Scale15
I0926 14:52:16.767418  4911 net.cpp:122] Setting up Scale15
I0926 14:52:16.767423  4911 net.cpp:129] Top shape: 100 16 28 28 (1254400)
I0926 14:52:16.767426  4911 net.cpp:137] Memory required for data: 397331600
I0926 14:52:16.767429  4911 layer_factory.hpp:77] Creating layer Eltwise7
I0926 14:52:16.767433  4911 net.cpp:84] Creating Layer Eltwise7
I0926 14:52:16.767436  4911 net.cpp:406] Eltwise7 <- Eltwise6_penlu13_0_split_1
I0926 14:52:16.767438  4911 net.cpp:406] Eltwise7 <- Convolution15
I0926 14:52:16.767442  4911 net.cpp:380] Eltwise7 -> Eltwise7
I0926 14:52:16.767457  4911 net.cpp:122] Setting up Eltwise7
I0926 14:52:16.767462  4911 net.cpp:129] Top shape: 100 16 28 28 (1254400)
I0926 14:52:16.767463  4911 net.cpp:137] Memory required for data: 402349200
I0926 14:52:16.767465  4911 layer_factory.hpp:77] Creating layer penlu15
I0926 14:52:16.767472  4911 net.cpp:84] Creating Layer penlu15
I0926 14:52:16.767473  4911 net.cpp:406] penlu15 <- Eltwise7
I0926 14:52:16.767477  4911 net.cpp:367] penlu15 -> Eltwise7 (in-place)
I0926 14:52:16.767598  4911 net.cpp:122] Setting up penlu15
I0926 14:52:16.767604  4911 net.cpp:129] Top shape: 100 16 28 28 (1254400)
I0926 14:52:16.767606  4911 net.cpp:137] Memory required for data: 407366800
I0926 14:52:16.767611  4911 layer_factory.hpp:77] Creating layer Eltwise7_penlu15_0_split
I0926 14:52:16.767614  4911 net.cpp:84] Creating Layer Eltwise7_penlu15_0_split
I0926 14:52:16.767617  4911 net.cpp:406] Eltwise7_penlu15_0_split <- Eltwise7
I0926 14:52:16.767621  4911 net.cpp:380] Eltwise7_penlu15_0_split -> Eltwise7_penlu15_0_split_0
I0926 14:52:16.767624  4911 net.cpp:380] Eltwise7_penlu15_0_split -> Eltwise7_penlu15_0_split_1
I0926 14:52:16.767647  4911 net.cpp:122] Setting up Eltwise7_penlu15_0_split
I0926 14:52:16.767650  4911 net.cpp:129] Top shape: 100 16 28 28 (1254400)
I0926 14:52:16.767653  4911 net.cpp:129] Top shape: 100 16 28 28 (1254400)
I0926 14:52:16.767655  4911 net.cpp:137] Memory required for data: 417402000
I0926 14:52:16.767657  4911 layer_factory.hpp:77] Creating layer Convolution16
I0926 14:52:16.767663  4911 net.cpp:84] Creating Layer Convolution16
I0926 14:52:16.767666  4911 net.cpp:406] Convolution16 <- Eltwise7_penlu15_0_split_0
I0926 14:52:16.767669  4911 net.cpp:380] Convolution16 -> Convolution16
I0926 14:52:16.768573  4911 net.cpp:122] Setting up Convolution16
I0926 14:52:16.768582  4911 net.cpp:129] Top shape: 100 16 28 28 (1254400)
I0926 14:52:16.768585  4911 net.cpp:137] Memory required for data: 422419600
I0926 14:52:16.768589  4911 layer_factory.hpp:77] Creating layer BatchNorm16
I0926 14:52:16.768594  4911 net.cpp:84] Creating Layer BatchNorm16
I0926 14:52:16.768597  4911 net.cpp:406] BatchNorm16 <- Convolution16
I0926 14:52:16.768601  4911 net.cpp:367] BatchNorm16 -> Convolution16 (in-place)
I0926 14:52:16.768733  4911 net.cpp:122] Setting up BatchNorm16
I0926 14:52:16.768744  4911 net.cpp:129] Top shape: 100 16 28 28 (1254400)
I0926 14:52:16.768746  4911 net.cpp:137] Memory required for data: 427437200
I0926 14:52:16.768751  4911 layer_factory.hpp:77] Creating layer Scale16
I0926 14:52:16.768756  4911 net.cpp:84] Creating Layer Scale16
I0926 14:52:16.768759  4911 net.cpp:406] Scale16 <- Convolution16
I0926 14:52:16.768762  4911 net.cpp:367] Scale16 -> Convolution16 (in-place)
I0926 14:52:16.768788  4911 layer_factory.hpp:77] Creating layer Scale16
I0926 14:52:16.768867  4911 net.cpp:122] Setting up Scale16
I0926 14:52:16.768872  4911 net.cpp:129] Top shape: 100 16 28 28 (1254400)
I0926 14:52:16.768873  4911 net.cpp:137] Memory required for data: 432454800
I0926 14:52:16.768877  4911 layer_factory.hpp:77] Creating layer penlu16
I0926 14:52:16.768882  4911 net.cpp:84] Creating Layer penlu16
I0926 14:52:16.768884  4911 net.cpp:406] penlu16 <- Convolution16
I0926 14:52:16.768888  4911 net.cpp:367] penlu16 -> Convolution16 (in-place)
I0926 14:52:16.769001  4911 net.cpp:122] Setting up penlu16
I0926 14:52:16.769006  4911 net.cpp:129] Top shape: 100 16 28 28 (1254400)
I0926 14:52:16.769008  4911 net.cpp:137] Memory required for data: 437472400
I0926 14:52:16.769012  4911 layer_factory.hpp:77] Creating layer Convolution17
I0926 14:52:16.769018  4911 net.cpp:84] Creating Layer Convolution17
I0926 14:52:16.769021  4911 net.cpp:406] Convolution17 <- Convolution16
I0926 14:52:16.769026  4911 net.cpp:380] Convolution17 -> Convolution17
I0926 14:52:16.769588  4911 net.cpp:122] Setting up Convolution17
I0926 14:52:16.769596  4911 net.cpp:129] Top shape: 100 16 28 28 (1254400)
I0926 14:52:16.769598  4911 net.cpp:137] Memory required for data: 442490000
I0926 14:52:16.769603  4911 layer_factory.hpp:77] Creating layer BatchNorm17
I0926 14:52:16.769608  4911 net.cpp:84] Creating Layer BatchNorm17
I0926 14:52:16.769610  4911 net.cpp:406] BatchNorm17 <- Convolution17
I0926 14:52:16.769613  4911 net.cpp:367] BatchNorm17 -> Convolution17 (in-place)
I0926 14:52:16.769744  4911 net.cpp:122] Setting up BatchNorm17
I0926 14:52:16.769748  4911 net.cpp:129] Top shape: 100 16 28 28 (1254400)
I0926 14:52:16.769750  4911 net.cpp:137] Memory required for data: 447507600
I0926 14:52:16.769755  4911 layer_factory.hpp:77] Creating layer Scale17
I0926 14:52:16.769759  4911 net.cpp:84] Creating Layer Scale17
I0926 14:52:16.769762  4911 net.cpp:406] Scale17 <- Convolution17
I0926 14:52:16.769764  4911 net.cpp:367] Scale17 -> Convolution17 (in-place)
I0926 14:52:16.769790  4911 layer_factory.hpp:77] Creating layer Scale17
I0926 14:52:16.769865  4911 net.cpp:122] Setting up Scale17
I0926 14:52:16.769870  4911 net.cpp:129] Top shape: 100 16 28 28 (1254400)
I0926 14:52:16.769872  4911 net.cpp:137] Memory required for data: 452525200
I0926 14:52:16.769876  4911 layer_factory.hpp:77] Creating layer Eltwise8
I0926 14:52:16.769881  4911 net.cpp:84] Creating Layer Eltwise8
I0926 14:52:16.769882  4911 net.cpp:406] Eltwise8 <- Eltwise7_penlu15_0_split_1
I0926 14:52:16.769886  4911 net.cpp:406] Eltwise8 <- Convolution17
I0926 14:52:16.769888  4911 net.cpp:380] Eltwise8 -> Eltwise8
I0926 14:52:16.769903  4911 net.cpp:122] Setting up Eltwise8
I0926 14:52:16.769906  4911 net.cpp:129] Top shape: 100 16 28 28 (1254400)
I0926 14:52:16.769908  4911 net.cpp:137] Memory required for data: 457542800
I0926 14:52:16.769911  4911 layer_factory.hpp:77] Creating layer penlu17
I0926 14:52:16.769917  4911 net.cpp:84] Creating Layer penlu17
I0926 14:52:16.769918  4911 net.cpp:406] penlu17 <- Eltwise8
I0926 14:52:16.769922  4911 net.cpp:367] penlu17 -> Eltwise8 (in-place)
I0926 14:52:16.770030  4911 net.cpp:122] Setting up penlu17
I0926 14:52:16.770035  4911 net.cpp:129] Top shape: 100 16 28 28 (1254400)
I0926 14:52:16.770037  4911 net.cpp:137] Memory required for data: 462560400
I0926 14:52:16.770041  4911 layer_factory.hpp:77] Creating layer Eltwise8_penlu17_0_split
I0926 14:52:16.770045  4911 net.cpp:84] Creating Layer Eltwise8_penlu17_0_split
I0926 14:52:16.770047  4911 net.cpp:406] Eltwise8_penlu17_0_split <- Eltwise8
I0926 14:52:16.770058  4911 net.cpp:380] Eltwise8_penlu17_0_split -> Eltwise8_penlu17_0_split_0
I0926 14:52:16.770062  4911 net.cpp:380] Eltwise8_penlu17_0_split -> Eltwise8_penlu17_0_split_1
I0926 14:52:16.770086  4911 net.cpp:122] Setting up Eltwise8_penlu17_0_split
I0926 14:52:16.770088  4911 net.cpp:129] Top shape: 100 16 28 28 (1254400)
I0926 14:52:16.770092  4911 net.cpp:129] Top shape: 100 16 28 28 (1254400)
I0926 14:52:16.770093  4911 net.cpp:137] Memory required for data: 472595600
I0926 14:52:16.770095  4911 layer_factory.hpp:77] Creating layer Convolution18
I0926 14:52:16.770102  4911 net.cpp:84] Creating Layer Convolution18
I0926 14:52:16.770104  4911 net.cpp:406] Convolution18 <- Eltwise8_penlu17_0_split_0
I0926 14:52:16.770108  4911 net.cpp:380] Convolution18 -> Convolution18
I0926 14:52:16.770994  4911 net.cpp:122] Setting up Convolution18
I0926 14:52:16.771003  4911 net.cpp:129] Top shape: 100 16 28 28 (1254400)
I0926 14:52:16.771005  4911 net.cpp:137] Memory required for data: 477613200
I0926 14:52:16.771010  4911 layer_factory.hpp:77] Creating layer BatchNorm18
I0926 14:52:16.771015  4911 net.cpp:84] Creating Layer BatchNorm18
I0926 14:52:16.771018  4911 net.cpp:406] BatchNorm18 <- Convolution18
I0926 14:52:16.771021  4911 net.cpp:367] BatchNorm18 -> Convolution18 (in-place)
I0926 14:52:16.771152  4911 net.cpp:122] Setting up BatchNorm18
I0926 14:52:16.771157  4911 net.cpp:129] Top shape: 100 16 28 28 (1254400)
I0926 14:52:16.771158  4911 net.cpp:137] Memory required for data: 482630800
I0926 14:52:16.771163  4911 layer_factory.hpp:77] Creating layer Scale18
I0926 14:52:16.771167  4911 net.cpp:84] Creating Layer Scale18
I0926 14:52:16.771170  4911 net.cpp:406] Scale18 <- Convolution18
I0926 14:52:16.771173  4911 net.cpp:367] Scale18 -> Convolution18 (in-place)
I0926 14:52:16.771200  4911 layer_factory.hpp:77] Creating layer Scale18
I0926 14:52:16.771280  4911 net.cpp:122] Setting up Scale18
I0926 14:52:16.771283  4911 net.cpp:129] Top shape: 100 16 28 28 (1254400)
I0926 14:52:16.771286  4911 net.cpp:137] Memory required for data: 487648400
I0926 14:52:16.771289  4911 layer_factory.hpp:77] Creating layer penlu18
I0926 14:52:16.771296  4911 net.cpp:84] Creating Layer penlu18
I0926 14:52:16.771297  4911 net.cpp:406] penlu18 <- Convolution18
I0926 14:52:16.771301  4911 net.cpp:367] penlu18 -> Convolution18 (in-place)
I0926 14:52:16.771409  4911 net.cpp:122] Setting up penlu18
I0926 14:52:16.771414  4911 net.cpp:129] Top shape: 100 16 28 28 (1254400)
I0926 14:52:16.771415  4911 net.cpp:137] Memory required for data: 492666000
I0926 14:52:16.771420  4911 layer_factory.hpp:77] Creating layer Convolution19
I0926 14:52:16.771426  4911 net.cpp:84] Creating Layer Convolution19
I0926 14:52:16.771428  4911 net.cpp:406] Convolution19 <- Convolution18
I0926 14:52:16.771432  4911 net.cpp:380] Convolution19 -> Convolution19
I0926 14:52:16.772325  4911 net.cpp:122] Setting up Convolution19
I0926 14:52:16.772333  4911 net.cpp:129] Top shape: 100 16 28 28 (1254400)
I0926 14:52:16.772336  4911 net.cpp:137] Memory required for data: 497683600
I0926 14:52:16.772341  4911 layer_factory.hpp:77] Creating layer BatchNorm19
I0926 14:52:16.772346  4911 net.cpp:84] Creating Layer BatchNorm19
I0926 14:52:16.772348  4911 net.cpp:406] BatchNorm19 <- Convolution19
I0926 14:52:16.772352  4911 net.cpp:367] BatchNorm19 -> Convolution19 (in-place)
I0926 14:52:16.772483  4911 net.cpp:122] Setting up BatchNorm19
I0926 14:52:16.772488  4911 net.cpp:129] Top shape: 100 16 28 28 (1254400)
I0926 14:52:16.772490  4911 net.cpp:137] Memory required for data: 502701200
I0926 14:52:16.772511  4911 layer_factory.hpp:77] Creating layer Scale19
I0926 14:52:16.772516  4911 net.cpp:84] Creating Layer Scale19
I0926 14:52:16.772519  4911 net.cpp:406] Scale19 <- Convolution19
I0926 14:52:16.772522  4911 net.cpp:367] Scale19 -> Convolution19 (in-place)
I0926 14:52:16.772560  4911 layer_factory.hpp:77] Creating layer Scale19
I0926 14:52:16.772639  4911 net.cpp:122] Setting up Scale19
I0926 14:52:16.772642  4911 net.cpp:129] Top shape: 100 16 28 28 (1254400)
I0926 14:52:16.772644  4911 net.cpp:137] Memory required for data: 507718800
I0926 14:52:16.772655  4911 layer_factory.hpp:77] Creating layer Eltwise9
I0926 14:52:16.772660  4911 net.cpp:84] Creating Layer Eltwise9
I0926 14:52:16.772662  4911 net.cpp:406] Eltwise9 <- Eltwise8_penlu17_0_split_1
I0926 14:52:16.772665  4911 net.cpp:406] Eltwise9 <- Convolution19
I0926 14:52:16.772670  4911 net.cpp:380] Eltwise9 -> Eltwise9
I0926 14:52:16.772686  4911 net.cpp:122] Setting up Eltwise9
I0926 14:52:16.772689  4911 net.cpp:129] Top shape: 100 16 28 28 (1254400)
I0926 14:52:16.772691  4911 net.cpp:137] Memory required for data: 512736400
I0926 14:52:16.772693  4911 layer_factory.hpp:77] Creating layer penlu19
I0926 14:52:16.772698  4911 net.cpp:84] Creating Layer penlu19
I0926 14:52:16.772701  4911 net.cpp:406] penlu19 <- Eltwise9
I0926 14:52:16.772704  4911 net.cpp:367] penlu19 -> Eltwise9 (in-place)
I0926 14:52:16.772812  4911 net.cpp:122] Setting up penlu19
I0926 14:52:16.772817  4911 net.cpp:129] Top shape: 100 16 28 28 (1254400)
I0926 14:52:16.772819  4911 net.cpp:137] Memory required for data: 517754000
I0926 14:52:16.772824  4911 layer_factory.hpp:77] Creating layer Eltwise9_penlu19_0_split
I0926 14:52:16.772827  4911 net.cpp:84] Creating Layer Eltwise9_penlu19_0_split
I0926 14:52:16.772830  4911 net.cpp:406] Eltwise9_penlu19_0_split <- Eltwise9
I0926 14:52:16.772835  4911 net.cpp:380] Eltwise9_penlu19_0_split -> Eltwise9_penlu19_0_split_0
I0926 14:52:16.772838  4911 net.cpp:380] Eltwise9_penlu19_0_split -> Eltwise9_penlu19_0_split_1
I0926 14:52:16.772861  4911 net.cpp:122] Setting up Eltwise9_penlu19_0_split
I0926 14:52:16.772864  4911 net.cpp:129] Top shape: 100 16 28 28 (1254400)
I0926 14:52:16.772867  4911 net.cpp:129] Top shape: 100 16 28 28 (1254400)
I0926 14:52:16.772869  4911 net.cpp:137] Memory required for data: 527789200
I0926 14:52:16.772871  4911 layer_factory.hpp:77] Creating layer Convolution20
I0926 14:52:16.772878  4911 net.cpp:84] Creating Layer Convolution20
I0926 14:52:16.772881  4911 net.cpp:406] Convolution20 <- Eltwise9_penlu19_0_split_0
I0926 14:52:16.772884  4911 net.cpp:380] Convolution20 -> Convolution20
I0926 14:52:16.774080  4911 net.cpp:122] Setting up Convolution20
I0926 14:52:16.774089  4911 net.cpp:129] Top shape: 100 32 14 14 (627200)
I0926 14:52:16.774092  4911 net.cpp:137] Memory required for data: 530298000
I0926 14:52:16.774096  4911 layer_factory.hpp:77] Creating layer BatchNorm20
I0926 14:52:16.774101  4911 net.cpp:84] Creating Layer BatchNorm20
I0926 14:52:16.774103  4911 net.cpp:406] BatchNorm20 <- Convolution20
I0926 14:52:16.774108  4911 net.cpp:367] BatchNorm20 -> Convolution20 (in-place)
I0926 14:52:16.774250  4911 net.cpp:122] Setting up BatchNorm20
I0926 14:52:16.774255  4911 net.cpp:129] Top shape: 100 32 14 14 (627200)
I0926 14:52:16.774256  4911 net.cpp:137] Memory required for data: 532806800
I0926 14:52:16.774261  4911 layer_factory.hpp:77] Creating layer Scale20
I0926 14:52:16.774266  4911 net.cpp:84] Creating Layer Scale20
I0926 14:52:16.774268  4911 net.cpp:406] Scale20 <- Convolution20
I0926 14:52:16.774272  4911 net.cpp:367] Scale20 -> Convolution20 (in-place)
I0926 14:52:16.774297  4911 layer_factory.hpp:77] Creating layer Scale20
I0926 14:52:16.774372  4911 net.cpp:122] Setting up Scale20
I0926 14:52:16.774377  4911 net.cpp:129] Top shape: 100 32 14 14 (627200)
I0926 14:52:16.774379  4911 net.cpp:137] Memory required for data: 535315600
I0926 14:52:16.774384  4911 layer_factory.hpp:77] Creating layer Convolution21
I0926 14:52:16.774389  4911 net.cpp:84] Creating Layer Convolution21
I0926 14:52:16.774391  4911 net.cpp:406] Convolution21 <- Eltwise9_penlu19_0_split_1
I0926 14:52:16.774396  4911 net.cpp:380] Convolution21 -> Convolution21
I0926 14:52:16.776114  4911 net.cpp:122] Setting up Convolution21
I0926 14:52:16.776124  4911 net.cpp:129] Top shape: 100 32 14 14 (627200)
I0926 14:52:16.776126  4911 net.cpp:137] Memory required for data: 537824400
I0926 14:52:16.776130  4911 layer_factory.hpp:77] Creating layer BatchNorm21
I0926 14:52:16.776136  4911 net.cpp:84] Creating Layer BatchNorm21
I0926 14:52:16.776144  4911 net.cpp:406] BatchNorm21 <- Convolution21
I0926 14:52:16.776149  4911 net.cpp:367] BatchNorm21 -> Convolution21 (in-place)
I0926 14:52:16.776286  4911 net.cpp:122] Setting up BatchNorm21
I0926 14:52:16.776291  4911 net.cpp:129] Top shape: 100 32 14 14 (627200)
I0926 14:52:16.776293  4911 net.cpp:137] Memory required for data: 540333200
I0926 14:52:16.776298  4911 layer_factory.hpp:77] Creating layer Scale21
I0926 14:52:16.776304  4911 net.cpp:84] Creating Layer Scale21
I0926 14:52:16.776305  4911 net.cpp:406] Scale21 <- Convolution21
I0926 14:52:16.776309  4911 net.cpp:367] Scale21 -> Convolution21 (in-place)
I0926 14:52:16.776336  4911 layer_factory.hpp:77] Creating layer Scale21
I0926 14:52:16.776437  4911 net.cpp:122] Setting up Scale21
I0926 14:52:16.776443  4911 net.cpp:129] Top shape: 100 32 14 14 (627200)
I0926 14:52:16.776445  4911 net.cpp:137] Memory required for data: 542842000
I0926 14:52:16.776449  4911 layer_factory.hpp:77] Creating layer penlu20
I0926 14:52:16.776455  4911 net.cpp:84] Creating Layer penlu20
I0926 14:52:16.776458  4911 net.cpp:406] penlu20 <- Convolution21
I0926 14:52:16.776471  4911 net.cpp:367] penlu20 -> Convolution21 (in-place)
I0926 14:52:16.776623  4911 net.cpp:122] Setting up penlu20
I0926 14:52:16.776629  4911 net.cpp:129] Top shape: 100 32 14 14 (627200)
I0926 14:52:16.776631  4911 net.cpp:137] Memory required for data: 545350800
I0926 14:52:16.776635  4911 layer_factory.hpp:77] Creating layer Convolution22
I0926 14:52:16.776643  4911 net.cpp:84] Creating Layer Convolution22
I0926 14:52:16.776644  4911 net.cpp:406] Convolution22 <- Convolution21
I0926 14:52:16.776648  4911 net.cpp:380] Convolution22 -> Convolution22
I0926 14:52:16.777722  4911 net.cpp:122] Setting up Convolution22
I0926 14:52:16.777731  4911 net.cpp:129] Top shape: 100 32 14 14 (627200)
I0926 14:52:16.777734  4911 net.cpp:137] Memory required for data: 547859600
I0926 14:52:16.777739  4911 layer_factory.hpp:77] Creating layer BatchNorm22
I0926 14:52:16.777743  4911 net.cpp:84] Creating Layer BatchNorm22
I0926 14:52:16.777745  4911 net.cpp:406] BatchNorm22 <- Convolution22
I0926 14:52:16.777750  4911 net.cpp:367] BatchNorm22 -> Convolution22 (in-place)
I0926 14:52:16.777880  4911 net.cpp:122] Setting up BatchNorm22
I0926 14:52:16.777885  4911 net.cpp:129] Top shape: 100 32 14 14 (627200)
I0926 14:52:16.777887  4911 net.cpp:137] Memory required for data: 550368400
I0926 14:52:16.777892  4911 layer_factory.hpp:77] Creating layer Scale22
I0926 14:52:16.777895  4911 net.cpp:84] Creating Layer Scale22
I0926 14:52:16.777899  4911 net.cpp:406] Scale22 <- Convolution22
I0926 14:52:16.777902  4911 net.cpp:367] Scale22 -> Convolution22 (in-place)
I0926 14:52:16.777927  4911 layer_factory.hpp:77] Creating layer Scale22
I0926 14:52:16.778002  4911 net.cpp:122] Setting up Scale22
I0926 14:52:16.778005  4911 net.cpp:129] Top shape: 100 32 14 14 (627200)
I0926 14:52:16.778007  4911 net.cpp:137] Memory required for data: 552877200
I0926 14:52:16.778012  4911 layer_factory.hpp:77] Creating layer Eltwise10
I0926 14:52:16.778015  4911 net.cpp:84] Creating Layer Eltwise10
I0926 14:52:16.778017  4911 net.cpp:406] Eltwise10 <- Convolution20
I0926 14:52:16.778020  4911 net.cpp:406] Eltwise10 <- Convolution22
I0926 14:52:16.778024  4911 net.cpp:380] Eltwise10 -> Eltwise10
I0926 14:52:16.778039  4911 net.cpp:122] Setting up Eltwise10
I0926 14:52:16.778043  4911 net.cpp:129] Top shape: 100 32 14 14 (627200)
I0926 14:52:16.778045  4911 net.cpp:137] Memory required for data: 555386000
I0926 14:52:16.778048  4911 layer_factory.hpp:77] Creating layer penlu21
I0926 14:52:16.778051  4911 net.cpp:84] Creating Layer penlu21
I0926 14:52:16.778054  4911 net.cpp:406] penlu21 <- Eltwise10
I0926 14:52:16.778059  4911 net.cpp:367] penlu21 -> Eltwise10 (in-place)
I0926 14:52:16.778164  4911 net.cpp:122] Setting up penlu21
I0926 14:52:16.778168  4911 net.cpp:129] Top shape: 100 32 14 14 (627200)
I0926 14:52:16.778170  4911 net.cpp:137] Memory required for data: 557894800
I0926 14:52:16.778175  4911 layer_factory.hpp:77] Creating layer Eltwise10_penlu21_0_split
I0926 14:52:16.778187  4911 net.cpp:84] Creating Layer Eltwise10_penlu21_0_split
I0926 14:52:16.778188  4911 net.cpp:406] Eltwise10_penlu21_0_split <- Eltwise10
I0926 14:52:16.778192  4911 net.cpp:380] Eltwise10_penlu21_0_split -> Eltwise10_penlu21_0_split_0
I0926 14:52:16.778197  4911 net.cpp:380] Eltwise10_penlu21_0_split -> Eltwise10_penlu21_0_split_1
I0926 14:52:16.778219  4911 net.cpp:122] Setting up Eltwise10_penlu21_0_split
I0926 14:52:16.778223  4911 net.cpp:129] Top shape: 100 32 14 14 (627200)
I0926 14:52:16.778226  4911 net.cpp:129] Top shape: 100 32 14 14 (627200)
I0926 14:52:16.778228  4911 net.cpp:137] Memory required for data: 562912400
I0926 14:52:16.778230  4911 layer_factory.hpp:77] Creating layer Convolution23
I0926 14:52:16.778236  4911 net.cpp:84] Creating Layer Convolution23
I0926 14:52:16.778239  4911 net.cpp:406] Convolution23 <- Eltwise10_penlu21_0_split_0
I0926 14:52:16.778242  4911 net.cpp:380] Convolution23 -> Convolution23
I0926 14:52:16.779559  4911 net.cpp:122] Setting up Convolution23
I0926 14:52:16.779568  4911 net.cpp:129] Top shape: 100 32 14 14 (627200)
I0926 14:52:16.779570  4911 net.cpp:137] Memory required for data: 565421200
I0926 14:52:16.779575  4911 layer_factory.hpp:77] Creating layer BatchNorm23
I0926 14:52:16.779580  4911 net.cpp:84] Creating Layer BatchNorm23
I0926 14:52:16.779582  4911 net.cpp:406] BatchNorm23 <- Convolution23
I0926 14:52:16.779587  4911 net.cpp:367] BatchNorm23 -> Convolution23 (in-place)
I0926 14:52:16.779721  4911 net.cpp:122] Setting up BatchNorm23
I0926 14:52:16.779726  4911 net.cpp:129] Top shape: 100 32 14 14 (627200)
I0926 14:52:16.779727  4911 net.cpp:137] Memory required for data: 567930000
I0926 14:52:16.779732  4911 layer_factory.hpp:77] Creating layer Scale23
I0926 14:52:16.779736  4911 net.cpp:84] Creating Layer Scale23
I0926 14:52:16.779738  4911 net.cpp:406] Scale23 <- Convolution23
I0926 14:52:16.779742  4911 net.cpp:367] Scale23 -> Convolution23 (in-place)
I0926 14:52:16.779769  4911 layer_factory.hpp:77] Creating layer Scale23
I0926 14:52:16.779844  4911 net.cpp:122] Setting up Scale23
I0926 14:52:16.779848  4911 net.cpp:129] Top shape: 100 32 14 14 (627200)
I0926 14:52:16.779850  4911 net.cpp:137] Memory required for data: 570438800
I0926 14:52:16.779855  4911 layer_factory.hpp:77] Creating layer penlu22
I0926 14:52:16.779860  4911 net.cpp:84] Creating Layer penlu22
I0926 14:52:16.779861  4911 net.cpp:406] penlu22 <- Convolution23
I0926 14:52:16.779865  4911 net.cpp:367] penlu22 -> Convolution23 (in-place)
I0926 14:52:16.779973  4911 net.cpp:122] Setting up penlu22
I0926 14:52:16.779978  4911 net.cpp:129] Top shape: 100 32 14 14 (627200)
I0926 14:52:16.779979  4911 net.cpp:137] Memory required for data: 572947600
I0926 14:52:16.779983  4911 layer_factory.hpp:77] Creating layer Convolution24
I0926 14:52:16.779989  4911 net.cpp:84] Creating Layer Convolution24
I0926 14:52:16.779992  4911 net.cpp:406] Convolution24 <- Convolution23
I0926 14:52:16.779996  4911 net.cpp:380] Convolution24 -> Convolution24
I0926 14:52:16.781057  4911 net.cpp:122] Setting up Convolution24
I0926 14:52:16.781065  4911 net.cpp:129] Top shape: 100 32 14 14 (627200)
I0926 14:52:16.781069  4911 net.cpp:137] Memory required for data: 575456400
I0926 14:52:16.781072  4911 layer_factory.hpp:77] Creating layer BatchNorm24
I0926 14:52:16.781078  4911 net.cpp:84] Creating Layer BatchNorm24
I0926 14:52:16.781080  4911 net.cpp:406] BatchNorm24 <- Convolution24
I0926 14:52:16.781085  4911 net.cpp:367] BatchNorm24 -> Convolution24 (in-place)
I0926 14:52:16.781216  4911 net.cpp:122] Setting up BatchNorm24
I0926 14:52:16.781221  4911 net.cpp:129] Top shape: 100 32 14 14 (627200)
I0926 14:52:16.781224  4911 net.cpp:137] Memory required for data: 577965200
I0926 14:52:16.781227  4911 layer_factory.hpp:77] Creating layer Scale24
I0926 14:52:16.781231  4911 net.cpp:84] Creating Layer Scale24
I0926 14:52:16.781234  4911 net.cpp:406] Scale24 <- Convolution24
I0926 14:52:16.781237  4911 net.cpp:367] Scale24 -> Convolution24 (in-place)
I0926 14:52:16.781270  4911 layer_factory.hpp:77] Creating layer Scale24
I0926 14:52:16.781345  4911 net.cpp:122] Setting up Scale24
I0926 14:52:16.781350  4911 net.cpp:129] Top shape: 100 32 14 14 (627200)
I0926 14:52:16.781352  4911 net.cpp:137] Memory required for data: 580474000
I0926 14:52:16.781357  4911 layer_factory.hpp:77] Creating layer Eltwise11
I0926 14:52:16.781360  4911 net.cpp:84] Creating Layer Eltwise11
I0926 14:52:16.781363  4911 net.cpp:406] Eltwise11 <- Eltwise10_penlu21_0_split_1
I0926 14:52:16.781365  4911 net.cpp:406] Eltwise11 <- Convolution24
I0926 14:52:16.781369  4911 net.cpp:380] Eltwise11 -> Eltwise11
I0926 14:52:16.781384  4911 net.cpp:122] Setting up Eltwise11
I0926 14:52:16.781388  4911 net.cpp:129] Top shape: 100 32 14 14 (627200)
I0926 14:52:16.781390  4911 net.cpp:137] Memory required for data: 582982800
I0926 14:52:16.781392  4911 layer_factory.hpp:77] Creating layer penlu23
I0926 14:52:16.781396  4911 net.cpp:84] Creating Layer penlu23
I0926 14:52:16.781399  4911 net.cpp:406] penlu23 <- Eltwise11
I0926 14:52:16.781402  4911 net.cpp:367] penlu23 -> Eltwise11 (in-place)
I0926 14:52:16.781507  4911 net.cpp:122] Setting up penlu23
I0926 14:52:16.781510  4911 net.cpp:129] Top shape: 100 32 14 14 (627200)
I0926 14:52:16.781512  4911 net.cpp:137] Memory required for data: 585491600
I0926 14:52:16.781517  4911 layer_factory.hpp:77] Creating layer Eltwise11_penlu23_0_split
I0926 14:52:16.781520  4911 net.cpp:84] Creating Layer Eltwise11_penlu23_0_split
I0926 14:52:16.781522  4911 net.cpp:406] Eltwise11_penlu23_0_split <- Eltwise11
I0926 14:52:16.781527  4911 net.cpp:380] Eltwise11_penlu23_0_split -> Eltwise11_penlu23_0_split_0
I0926 14:52:16.781533  4911 net.cpp:380] Eltwise11_penlu23_0_split -> Eltwise11_penlu23_0_split_1
I0926 14:52:16.781554  4911 net.cpp:122] Setting up Eltwise11_penlu23_0_split
I0926 14:52:16.781558  4911 net.cpp:129] Top shape: 100 32 14 14 (627200)
I0926 14:52:16.781560  4911 net.cpp:129] Top shape: 100 32 14 14 (627200)
I0926 14:52:16.781563  4911 net.cpp:137] Memory required for data: 590509200
I0926 14:52:16.781564  4911 layer_factory.hpp:77] Creating layer Convolution25
I0926 14:52:16.781570  4911 net.cpp:84] Creating Layer Convolution25
I0926 14:52:16.781574  4911 net.cpp:406] Convolution25 <- Eltwise11_penlu23_0_split_0
I0926 14:52:16.781577  4911 net.cpp:380] Convolution25 -> Convolution25
I0926 14:52:16.782598  4911 net.cpp:122] Setting up Convolution25
I0926 14:52:16.782605  4911 net.cpp:129] Top shape: 100 32 14 14 (627200)
I0926 14:52:16.782608  4911 net.cpp:137] Memory required for data: 593018000
I0926 14:52:16.782611  4911 layer_factory.hpp:77] Creating layer BatchNorm25
I0926 14:52:16.782616  4911 net.cpp:84] Creating Layer BatchNorm25
I0926 14:52:16.782619  4911 net.cpp:406] BatchNorm25 <- Convolution25
I0926 14:52:16.782624  4911 net.cpp:367] BatchNorm25 -> Convolution25 (in-place)
I0926 14:52:16.782755  4911 net.cpp:122] Setting up BatchNorm25
I0926 14:52:16.782759  4911 net.cpp:129] Top shape: 100 32 14 14 (627200)
I0926 14:52:16.782762  4911 net.cpp:137] Memory required for data: 595526800
I0926 14:52:16.782766  4911 layer_factory.hpp:77] Creating layer Scale25
I0926 14:52:16.782771  4911 net.cpp:84] Creating Layer Scale25
I0926 14:52:16.782773  4911 net.cpp:406] Scale25 <- Convolution25
I0926 14:52:16.782776  4911 net.cpp:367] Scale25 -> Convolution25 (in-place)
I0926 14:52:16.782802  4911 layer_factory.hpp:77] Creating layer Scale25
I0926 14:52:16.782877  4911 net.cpp:122] Setting up Scale25
I0926 14:52:16.782881  4911 net.cpp:129] Top shape: 100 32 14 14 (627200)
I0926 14:52:16.782883  4911 net.cpp:137] Memory required for data: 598035600
I0926 14:52:16.782887  4911 layer_factory.hpp:77] Creating layer penlu24
I0926 14:52:16.782892  4911 net.cpp:84] Creating Layer penlu24
I0926 14:52:16.782896  4911 net.cpp:406] penlu24 <- Convolution25
I0926 14:52:16.782898  4911 net.cpp:367] penlu24 -> Convolution25 (in-place)
I0926 14:52:16.783001  4911 net.cpp:122] Setting up penlu24
I0926 14:52:16.783005  4911 net.cpp:129] Top shape: 100 32 14 14 (627200)
I0926 14:52:16.783013  4911 net.cpp:137] Memory required for data: 600544400
I0926 14:52:16.783018  4911 layer_factory.hpp:77] Creating layer Convolution26
I0926 14:52:16.783025  4911 net.cpp:84] Creating Layer Convolution26
I0926 14:52:16.783027  4911 net.cpp:406] Convolution26 <- Convolution25
I0926 14:52:16.783031  4911 net.cpp:380] Convolution26 -> Convolution26
I0926 14:52:16.784065  4911 net.cpp:122] Setting up Convolution26
I0926 14:52:16.784075  4911 net.cpp:129] Top shape: 100 32 14 14 (627200)
I0926 14:52:16.784076  4911 net.cpp:137] Memory required for data: 603053200
I0926 14:52:16.784080  4911 layer_factory.hpp:77] Creating layer BatchNorm26
I0926 14:52:16.784086  4911 net.cpp:84] Creating Layer BatchNorm26
I0926 14:52:16.784088  4911 net.cpp:406] BatchNorm26 <- Convolution26
I0926 14:52:16.784092  4911 net.cpp:367] BatchNorm26 -> Convolution26 (in-place)
I0926 14:52:16.784226  4911 net.cpp:122] Setting up BatchNorm26
I0926 14:52:16.784230  4911 net.cpp:129] Top shape: 100 32 14 14 (627200)
I0926 14:52:16.784234  4911 net.cpp:137] Memory required for data: 605562000
I0926 14:52:16.784237  4911 layer_factory.hpp:77] Creating layer Scale26
I0926 14:52:16.784242  4911 net.cpp:84] Creating Layer Scale26
I0926 14:52:16.784245  4911 net.cpp:406] Scale26 <- Convolution26
I0926 14:52:16.784247  4911 net.cpp:367] Scale26 -> Convolution26 (in-place)
I0926 14:52:16.784273  4911 layer_factory.hpp:77] Creating layer Scale26
I0926 14:52:16.784350  4911 net.cpp:122] Setting up Scale26
I0926 14:52:16.784355  4911 net.cpp:129] Top shape: 100 32 14 14 (627200)
I0926 14:52:16.784358  4911 net.cpp:137] Memory required for data: 608070800
I0926 14:52:16.784361  4911 layer_factory.hpp:77] Creating layer Eltwise12
I0926 14:52:16.784365  4911 net.cpp:84] Creating Layer Eltwise12
I0926 14:52:16.784368  4911 net.cpp:406] Eltwise12 <- Eltwise11_penlu23_0_split_1
I0926 14:52:16.784371  4911 net.cpp:406] Eltwise12 <- Convolution26
I0926 14:52:16.784374  4911 net.cpp:380] Eltwise12 -> Eltwise12
I0926 14:52:16.784390  4911 net.cpp:122] Setting up Eltwise12
I0926 14:52:16.784394  4911 net.cpp:129] Top shape: 100 32 14 14 (627200)
I0926 14:52:16.784395  4911 net.cpp:137] Memory required for data: 610579600
I0926 14:52:16.784397  4911 layer_factory.hpp:77] Creating layer penlu25
I0926 14:52:16.784402  4911 net.cpp:84] Creating Layer penlu25
I0926 14:52:16.784405  4911 net.cpp:406] penlu25 <- Eltwise12
I0926 14:52:16.784409  4911 net.cpp:367] penlu25 -> Eltwise12 (in-place)
I0926 14:52:16.784543  4911 net.cpp:122] Setting up penlu25
I0926 14:52:16.784548  4911 net.cpp:129] Top shape: 100 32 14 14 (627200)
I0926 14:52:16.784549  4911 net.cpp:137] Memory required for data: 613088400
I0926 14:52:16.784581  4911 layer_factory.hpp:77] Creating layer Eltwise12_penlu25_0_split
I0926 14:52:16.784592  4911 net.cpp:84] Creating Layer Eltwise12_penlu25_0_split
I0926 14:52:16.784595  4911 net.cpp:406] Eltwise12_penlu25_0_split <- Eltwise12
I0926 14:52:16.784598  4911 net.cpp:380] Eltwise12_penlu25_0_split -> Eltwise12_penlu25_0_split_0
I0926 14:52:16.784606  4911 net.cpp:380] Eltwise12_penlu25_0_split -> Eltwise12_penlu25_0_split_1
I0926 14:52:16.784631  4911 net.cpp:122] Setting up Eltwise12_penlu25_0_split
I0926 14:52:16.784636  4911 net.cpp:129] Top shape: 100 32 14 14 (627200)
I0926 14:52:16.784638  4911 net.cpp:129] Top shape: 100 32 14 14 (627200)
I0926 14:52:16.784641  4911 net.cpp:137] Memory required for data: 618106000
I0926 14:52:16.784643  4911 layer_factory.hpp:77] Creating layer Convolution27
I0926 14:52:16.784649  4911 net.cpp:84] Creating Layer Convolution27
I0926 14:52:16.784651  4911 net.cpp:406] Convolution27 <- Eltwise12_penlu25_0_split_0
I0926 14:52:16.784656  4911 net.cpp:380] Convolution27 -> Convolution27
I0926 14:52:16.785360  4911 net.cpp:122] Setting up Convolution27
I0926 14:52:16.785368  4911 net.cpp:129] Top shape: 100 32 14 14 (627200)
I0926 14:52:16.785370  4911 net.cpp:137] Memory required for data: 620614800
I0926 14:52:16.785374  4911 layer_factory.hpp:77] Creating layer BatchNorm27
I0926 14:52:16.785379  4911 net.cpp:84] Creating Layer BatchNorm27
I0926 14:52:16.785388  4911 net.cpp:406] BatchNorm27 <- Convolution27
I0926 14:52:16.785392  4911 net.cpp:367] BatchNorm27 -> Convolution27 (in-place)
I0926 14:52:16.785527  4911 net.cpp:122] Setting up BatchNorm27
I0926 14:52:16.785531  4911 net.cpp:129] Top shape: 100 32 14 14 (627200)
I0926 14:52:16.785533  4911 net.cpp:137] Memory required for data: 623123600
I0926 14:52:16.785538  4911 layer_factory.hpp:77] Creating layer Scale27
I0926 14:52:16.785542  4911 net.cpp:84] Creating Layer Scale27
I0926 14:52:16.785544  4911 net.cpp:406] Scale27 <- Convolution27
I0926 14:52:16.785547  4911 net.cpp:367] Scale27 -> Convolution27 (in-place)
I0926 14:52:16.785574  4911 layer_factory.hpp:77] Creating layer Scale27
I0926 14:52:16.785650  4911 net.cpp:122] Setting up Scale27
I0926 14:52:16.785653  4911 net.cpp:129] Top shape: 100 32 14 14 (627200)
I0926 14:52:16.785655  4911 net.cpp:137] Memory required for data: 625632400
I0926 14:52:16.785660  4911 layer_factory.hpp:77] Creating layer penlu26
I0926 14:52:16.785665  4911 net.cpp:84] Creating Layer penlu26
I0926 14:52:16.785666  4911 net.cpp:406] penlu26 <- Convolution27
I0926 14:52:16.785670  4911 net.cpp:367] penlu26 -> Convolution27 (in-place)
I0926 14:52:16.785778  4911 net.cpp:122] Setting up penlu26
I0926 14:52:16.785781  4911 net.cpp:129] Top shape: 100 32 14 14 (627200)
I0926 14:52:16.785784  4911 net.cpp:137] Memory required for data: 628141200
I0926 14:52:16.785789  4911 layer_factory.hpp:77] Creating layer Convolution28
I0926 14:52:16.785795  4911 net.cpp:84] Creating Layer Convolution28
I0926 14:52:16.785797  4911 net.cpp:406] Convolution28 <- Convolution27
I0926 14:52:16.785801  4911 net.cpp:380] Convolution28 -> Convolution28
I0926 14:52:16.786813  4911 net.cpp:122] Setting up Convolution28
I0926 14:52:16.786820  4911 net.cpp:129] Top shape: 100 32 14 14 (627200)
I0926 14:52:16.786823  4911 net.cpp:137] Memory required for data: 630650000
I0926 14:52:16.786828  4911 layer_factory.hpp:77] Creating layer BatchNorm28
I0926 14:52:16.786833  4911 net.cpp:84] Creating Layer BatchNorm28
I0926 14:52:16.786835  4911 net.cpp:406] BatchNorm28 <- Convolution28
I0926 14:52:16.786839  4911 net.cpp:367] BatchNorm28 -> Convolution28 (in-place)
I0926 14:52:16.786972  4911 net.cpp:122] Setting up BatchNorm28
I0926 14:52:16.786976  4911 net.cpp:129] Top shape: 100 32 14 14 (627200)
I0926 14:52:16.786978  4911 net.cpp:137] Memory required for data: 633158800
I0926 14:52:16.786983  4911 layer_factory.hpp:77] Creating layer Scale28
I0926 14:52:16.786988  4911 net.cpp:84] Creating Layer Scale28
I0926 14:52:16.786990  4911 net.cpp:406] Scale28 <- Convolution28
I0926 14:52:16.786993  4911 net.cpp:367] Scale28 -> Convolution28 (in-place)
I0926 14:52:16.787019  4911 layer_factory.hpp:77] Creating layer Scale28
I0926 14:52:16.787096  4911 net.cpp:122] Setting up Scale28
I0926 14:52:16.787101  4911 net.cpp:129] Top shape: 100 32 14 14 (627200)
I0926 14:52:16.787102  4911 net.cpp:137] Memory required for data: 635667600
I0926 14:52:16.787106  4911 layer_factory.hpp:77] Creating layer Eltwise13
I0926 14:52:16.787111  4911 net.cpp:84] Creating Layer Eltwise13
I0926 14:52:16.787113  4911 net.cpp:406] Eltwise13 <- Eltwise12_penlu25_0_split_1
I0926 14:52:16.787117  4911 net.cpp:406] Eltwise13 <- Convolution28
I0926 14:52:16.787119  4911 net.cpp:380] Eltwise13 -> Eltwise13
I0926 14:52:16.787135  4911 net.cpp:122] Setting up Eltwise13
I0926 14:52:16.787138  4911 net.cpp:129] Top shape: 100 32 14 14 (627200)
I0926 14:52:16.787140  4911 net.cpp:137] Memory required for data: 638176400
I0926 14:52:16.787142  4911 layer_factory.hpp:77] Creating layer penlu27
I0926 14:52:16.787147  4911 net.cpp:84] Creating Layer penlu27
I0926 14:52:16.787150  4911 net.cpp:406] penlu27 <- Eltwise13
I0926 14:52:16.787153  4911 net.cpp:367] penlu27 -> Eltwise13 (in-place)
I0926 14:52:16.787258  4911 net.cpp:122] Setting up penlu27
I0926 14:52:16.787263  4911 net.cpp:129] Top shape: 100 32 14 14 (627200)
I0926 14:52:16.787266  4911 net.cpp:137] Memory required for data: 640685200
I0926 14:52:16.787269  4911 layer_factory.hpp:77] Creating layer Eltwise13_penlu27_0_split
I0926 14:52:16.787278  4911 net.cpp:84] Creating Layer Eltwise13_penlu27_0_split
I0926 14:52:16.787281  4911 net.cpp:406] Eltwise13_penlu27_0_split <- Eltwise13
I0926 14:52:16.787284  4911 net.cpp:380] Eltwise13_penlu27_0_split -> Eltwise13_penlu27_0_split_0
I0926 14:52:16.787288  4911 net.cpp:380] Eltwise13_penlu27_0_split -> Eltwise13_penlu27_0_split_1
I0926 14:52:16.787312  4911 net.cpp:122] Setting up Eltwise13_penlu27_0_split
I0926 14:52:16.787315  4911 net.cpp:129] Top shape: 100 32 14 14 (627200)
I0926 14:52:16.787318  4911 net.cpp:129] Top shape: 100 32 14 14 (627200)
I0926 14:52:16.787320  4911 net.cpp:137] Memory required for data: 645702800
I0926 14:52:16.787322  4911 layer_factory.hpp:77] Creating layer Convolution29
I0926 14:52:16.787329  4911 net.cpp:84] Creating Layer Convolution29
I0926 14:52:16.787331  4911 net.cpp:406] Convolution29 <- Eltwise13_penlu27_0_split_0
I0926 14:52:16.787335  4911 net.cpp:380] Convolution29 -> Convolution29
I0926 14:52:16.788353  4911 net.cpp:122] Setting up Convolution29
I0926 14:52:16.788362  4911 net.cpp:129] Top shape: 100 32 14 14 (627200)
I0926 14:52:16.788364  4911 net.cpp:137] Memory required for data: 648211600
I0926 14:52:16.788368  4911 layer_factory.hpp:77] Creating layer BatchNorm29
I0926 14:52:16.788373  4911 net.cpp:84] Creating Layer BatchNorm29
I0926 14:52:16.788377  4911 net.cpp:406] BatchNorm29 <- Convolution29
I0926 14:52:16.788380  4911 net.cpp:367] BatchNorm29 -> Convolution29 (in-place)
I0926 14:52:16.788527  4911 net.cpp:122] Setting up BatchNorm29
I0926 14:52:16.788542  4911 net.cpp:129] Top shape: 100 32 14 14 (627200)
I0926 14:52:16.788544  4911 net.cpp:137] Memory required for data: 650720400
I0926 14:52:16.788548  4911 layer_factory.hpp:77] Creating layer Scale29
I0926 14:52:16.788553  4911 net.cpp:84] Creating Layer Scale29
I0926 14:52:16.788555  4911 net.cpp:406] Scale29 <- Convolution29
I0926 14:52:16.788559  4911 net.cpp:367] Scale29 -> Convolution29 (in-place)
I0926 14:52:16.788586  4911 layer_factory.hpp:77] Creating layer Scale29
I0926 14:52:16.788663  4911 net.cpp:122] Setting up Scale29
I0926 14:52:16.788667  4911 net.cpp:129] Top shape: 100 32 14 14 (627200)
I0926 14:52:16.788669  4911 net.cpp:137] Memory required for data: 653229200
I0926 14:52:16.788673  4911 layer_factory.hpp:77] Creating layer penlu28
I0926 14:52:16.788681  4911 net.cpp:84] Creating Layer penlu28
I0926 14:52:16.788682  4911 net.cpp:406] penlu28 <- Convolution29
I0926 14:52:16.788686  4911 net.cpp:367] penlu28 -> Convolution29 (in-place)
I0926 14:52:16.788790  4911 net.cpp:122] Setting up penlu28
I0926 14:52:16.788795  4911 net.cpp:129] Top shape: 100 32 14 14 (627200)
I0926 14:52:16.788797  4911 net.cpp:137] Memory required for data: 655738000
I0926 14:52:16.788801  4911 layer_factory.hpp:77] Creating layer Convolution30
I0926 14:52:16.788807  4911 net.cpp:84] Creating Layer Convolution30
I0926 14:52:16.788810  4911 net.cpp:406] Convolution30 <- Convolution29
I0926 14:52:16.788813  4911 net.cpp:380] Convolution30 -> Convolution30
I0926 14:52:16.789835  4911 net.cpp:122] Setting up Convolution30
I0926 14:52:16.789844  4911 net.cpp:129] Top shape: 100 32 14 14 (627200)
I0926 14:52:16.789846  4911 net.cpp:137] Memory required for data: 658246800
I0926 14:52:16.789851  4911 layer_factory.hpp:77] Creating layer BatchNorm30
I0926 14:52:16.789856  4911 net.cpp:84] Creating Layer BatchNorm30
I0926 14:52:16.789858  4911 net.cpp:406] BatchNorm30 <- Convolution30
I0926 14:52:16.789862  4911 net.cpp:367] BatchNorm30 -> Convolution30 (in-place)
I0926 14:52:16.789994  4911 net.cpp:122] Setting up BatchNorm30
I0926 14:52:16.789999  4911 net.cpp:129] Top shape: 100 32 14 14 (627200)
I0926 14:52:16.790001  4911 net.cpp:137] Memory required for data: 660755600
I0926 14:52:16.790005  4911 layer_factory.hpp:77] Creating layer Scale30
I0926 14:52:16.790009  4911 net.cpp:84] Creating Layer Scale30
I0926 14:52:16.790011  4911 net.cpp:406] Scale30 <- Convolution30
I0926 14:52:16.790015  4911 net.cpp:367] Scale30 -> Convolution30 (in-place)
I0926 14:52:16.790048  4911 layer_factory.hpp:77] Creating layer Scale30
I0926 14:52:16.790125  4911 net.cpp:122] Setting up Scale30
I0926 14:52:16.790130  4911 net.cpp:129] Top shape: 100 32 14 14 (627200)
I0926 14:52:16.790132  4911 net.cpp:137] Memory required for data: 663264400
I0926 14:52:16.790135  4911 layer_factory.hpp:77] Creating layer Eltwise14
I0926 14:52:16.790139  4911 net.cpp:84] Creating Layer Eltwise14
I0926 14:52:16.790143  4911 net.cpp:406] Eltwise14 <- Eltwise13_penlu27_0_split_1
I0926 14:52:16.790145  4911 net.cpp:406] Eltwise14 <- Convolution30
I0926 14:52:16.790148  4911 net.cpp:380] Eltwise14 -> Eltwise14
I0926 14:52:16.790164  4911 net.cpp:122] Setting up Eltwise14
I0926 14:52:16.790169  4911 net.cpp:129] Top shape: 100 32 14 14 (627200)
I0926 14:52:16.790170  4911 net.cpp:137] Memory required for data: 665773200
I0926 14:52:16.790172  4911 layer_factory.hpp:77] Creating layer penlu29
I0926 14:52:16.790177  4911 net.cpp:84] Creating Layer penlu29
I0926 14:52:16.790179  4911 net.cpp:406] penlu29 <- Eltwise14
I0926 14:52:16.790182  4911 net.cpp:367] penlu29 -> Eltwise14 (in-place)
I0926 14:52:16.790292  4911 net.cpp:122] Setting up penlu29
I0926 14:52:16.790295  4911 net.cpp:129] Top shape: 100 32 14 14 (627200)
I0926 14:52:16.790297  4911 net.cpp:137] Memory required for data: 668282000
I0926 14:52:16.790302  4911 layer_factory.hpp:77] Creating layer Eltwise14_penlu29_0_split
I0926 14:52:16.790305  4911 net.cpp:84] Creating Layer Eltwise14_penlu29_0_split
I0926 14:52:16.790307  4911 net.cpp:406] Eltwise14_penlu29_0_split <- Eltwise14
I0926 14:52:16.790310  4911 net.cpp:380] Eltwise14_penlu29_0_split -> Eltwise14_penlu29_0_split_0
I0926 14:52:16.790315  4911 net.cpp:380] Eltwise14_penlu29_0_split -> Eltwise14_penlu29_0_split_1
I0926 14:52:16.790338  4911 net.cpp:122] Setting up Eltwise14_penlu29_0_split
I0926 14:52:16.790341  4911 net.cpp:129] Top shape: 100 32 14 14 (627200)
I0926 14:52:16.790344  4911 net.cpp:129] Top shape: 100 32 14 14 (627200)
I0926 14:52:16.790346  4911 net.cpp:137] Memory required for data: 673299600
I0926 14:52:16.790349  4911 layer_factory.hpp:77] Creating layer Convolution31
I0926 14:52:16.790354  4911 net.cpp:84] Creating Layer Convolution31
I0926 14:52:16.790356  4911 net.cpp:406] Convolution31 <- Eltwise14_penlu29_0_split_0
I0926 14:52:16.790360  4911 net.cpp:380] Convolution31 -> Convolution31
I0926 14:52:16.791394  4911 net.cpp:122] Setting up Convolution31
I0926 14:52:16.791402  4911 net.cpp:129] Top shape: 100 32 14 14 (627200)
I0926 14:52:16.791405  4911 net.cpp:137] Memory required for data: 675808400
I0926 14:52:16.791409  4911 layer_factory.hpp:77] Creating layer BatchNorm31
I0926 14:52:16.791414  4911 net.cpp:84] Creating Layer BatchNorm31
I0926 14:52:16.791417  4911 net.cpp:406] BatchNorm31 <- Convolution31
I0926 14:52:16.791420  4911 net.cpp:367] BatchNorm31 -> Convolution31 (in-place)
I0926 14:52:16.791556  4911 net.cpp:122] Setting up BatchNorm31
I0926 14:52:16.791561  4911 net.cpp:129] Top shape: 100 32 14 14 (627200)
I0926 14:52:16.791563  4911 net.cpp:137] Memory required for data: 678317200
I0926 14:52:16.791568  4911 layer_factory.hpp:77] Creating layer Scale31
I0926 14:52:16.791571  4911 net.cpp:84] Creating Layer Scale31
I0926 14:52:16.791574  4911 net.cpp:406] Scale31 <- Convolution31
I0926 14:52:16.791579  4911 net.cpp:367] Scale31 -> Convolution31 (in-place)
I0926 14:52:16.791604  4911 layer_factory.hpp:77] Creating layer Scale31
I0926 14:52:16.791679  4911 net.cpp:122] Setting up Scale31
I0926 14:52:16.791683  4911 net.cpp:129] Top shape: 100 32 14 14 (627200)
I0926 14:52:16.791685  4911 net.cpp:137] Memory required for data: 680826000
I0926 14:52:16.791689  4911 layer_factory.hpp:77] Creating layer penlu30
I0926 14:52:16.791694  4911 net.cpp:84] Creating Layer penlu30
I0926 14:52:16.791697  4911 net.cpp:406] penlu30 <- Convolution31
I0926 14:52:16.791702  4911 net.cpp:367] penlu30 -> Convolution31 (in-place)
I0926 14:52:16.791808  4911 net.cpp:122] Setting up penlu30
I0926 14:52:16.791813  4911 net.cpp:129] Top shape: 100 32 14 14 (627200)
I0926 14:52:16.791821  4911 net.cpp:137] Memory required for data: 683334800
I0926 14:52:16.791826  4911 layer_factory.hpp:77] Creating layer Convolution32
I0926 14:52:16.791832  4911 net.cpp:84] Creating Layer Convolution32
I0926 14:52:16.791834  4911 net.cpp:406] Convolution32 <- Convolution31
I0926 14:52:16.791838  4911 net.cpp:380] Convolution32 -> Convolution32
I0926 14:52:16.792888  4911 net.cpp:122] Setting up Convolution32
I0926 14:52:16.792896  4911 net.cpp:129] Top shape: 100 32 14 14 (627200)
I0926 14:52:16.792899  4911 net.cpp:137] Memory required for data: 685843600
I0926 14:52:16.792903  4911 layer_factory.hpp:77] Creating layer BatchNorm32
I0926 14:52:16.792907  4911 net.cpp:84] Creating Layer BatchNorm32
I0926 14:52:16.792910  4911 net.cpp:406] BatchNorm32 <- Convolution32
I0926 14:52:16.792915  4911 net.cpp:367] BatchNorm32 -> Convolution32 (in-place)
I0926 14:52:16.793051  4911 net.cpp:122] Setting up BatchNorm32
I0926 14:52:16.793054  4911 net.cpp:129] Top shape: 100 32 14 14 (627200)
I0926 14:52:16.793056  4911 net.cpp:137] Memory required for data: 688352400
I0926 14:52:16.793061  4911 layer_factory.hpp:77] Creating layer Scale32
I0926 14:52:16.793064  4911 net.cpp:84] Creating Layer Scale32
I0926 14:52:16.793067  4911 net.cpp:406] Scale32 <- Convolution32
I0926 14:52:16.793071  4911 net.cpp:367] Scale32 -> Convolution32 (in-place)
I0926 14:52:16.793097  4911 layer_factory.hpp:77] Creating layer Scale32
I0926 14:52:16.793175  4911 net.cpp:122] Setting up Scale32
I0926 14:52:16.793180  4911 net.cpp:129] Top shape: 100 32 14 14 (627200)
I0926 14:52:16.793182  4911 net.cpp:137] Memory required for data: 690861200
I0926 14:52:16.793186  4911 layer_factory.hpp:77] Creating layer Eltwise15
I0926 14:52:16.793190  4911 net.cpp:84] Creating Layer Eltwise15
I0926 14:52:16.793192  4911 net.cpp:406] Eltwise15 <- Eltwise14_penlu29_0_split_1
I0926 14:52:16.793195  4911 net.cpp:406] Eltwise15 <- Convolution32
I0926 14:52:16.793198  4911 net.cpp:380] Eltwise15 -> Eltwise15
I0926 14:52:16.793215  4911 net.cpp:122] Setting up Eltwise15
I0926 14:52:16.793220  4911 net.cpp:129] Top shape: 100 32 14 14 (627200)
I0926 14:52:16.793221  4911 net.cpp:137] Memory required for data: 693370000
I0926 14:52:16.793223  4911 layer_factory.hpp:77] Creating layer penlu31
I0926 14:52:16.793227  4911 net.cpp:84] Creating Layer penlu31
I0926 14:52:16.793231  4911 net.cpp:406] penlu31 <- Eltwise15
I0926 14:52:16.793233  4911 net.cpp:367] penlu31 -> Eltwise15 (in-place)
I0926 14:52:16.793342  4911 net.cpp:122] Setting up penlu31
I0926 14:52:16.793346  4911 net.cpp:129] Top shape: 100 32 14 14 (627200)
I0926 14:52:16.793349  4911 net.cpp:137] Memory required for data: 695878800
I0926 14:52:16.793352  4911 layer_factory.hpp:77] Creating layer Eltwise15_penlu31_0_split
I0926 14:52:16.793356  4911 net.cpp:84] Creating Layer Eltwise15_penlu31_0_split
I0926 14:52:16.793359  4911 net.cpp:406] Eltwise15_penlu31_0_split <- Eltwise15
I0926 14:52:16.793361  4911 net.cpp:380] Eltwise15_penlu31_0_split -> Eltwise15_penlu31_0_split_0
I0926 14:52:16.793365  4911 net.cpp:380] Eltwise15_penlu31_0_split -> Eltwise15_penlu31_0_split_1
I0926 14:52:16.793388  4911 net.cpp:122] Setting up Eltwise15_penlu31_0_split
I0926 14:52:16.793391  4911 net.cpp:129] Top shape: 100 32 14 14 (627200)
I0926 14:52:16.793395  4911 net.cpp:129] Top shape: 100 32 14 14 (627200)
I0926 14:52:16.793396  4911 net.cpp:137] Memory required for data: 700896400
I0926 14:52:16.793398  4911 layer_factory.hpp:77] Creating layer Convolution33
I0926 14:52:16.793404  4911 net.cpp:84] Creating Layer Convolution33
I0926 14:52:16.793407  4911 net.cpp:406] Convolution33 <- Eltwise15_penlu31_0_split_0
I0926 14:52:16.793411  4911 net.cpp:380] Convolution33 -> Convolution33
I0926 14:52:16.794742  4911 net.cpp:122] Setting up Convolution33
I0926 14:52:16.794750  4911 net.cpp:129] Top shape: 100 32 14 14 (627200)
I0926 14:52:16.794754  4911 net.cpp:137] Memory required for data: 703405200
I0926 14:52:16.794757  4911 layer_factory.hpp:77] Creating layer BatchNorm33
I0926 14:52:16.794764  4911 net.cpp:84] Creating Layer BatchNorm33
I0926 14:52:16.794772  4911 net.cpp:406] BatchNorm33 <- Convolution33
I0926 14:52:16.794776  4911 net.cpp:367] BatchNorm33 -> Convolution33 (in-place)
I0926 14:52:16.794916  4911 net.cpp:122] Setting up BatchNorm33
I0926 14:52:16.794921  4911 net.cpp:129] Top shape: 100 32 14 14 (627200)
I0926 14:52:16.794924  4911 net.cpp:137] Memory required for data: 705914000
I0926 14:52:16.794929  4911 layer_factory.hpp:77] Creating layer Scale33
I0926 14:52:16.794934  4911 net.cpp:84] Creating Layer Scale33
I0926 14:52:16.794935  4911 net.cpp:406] Scale33 <- Convolution33
I0926 14:52:16.794939  4911 net.cpp:367] Scale33 -> Convolution33 (in-place)
I0926 14:52:16.794965  4911 layer_factory.hpp:77] Creating layer Scale33
I0926 14:52:16.795044  4911 net.cpp:122] Setting up Scale33
I0926 14:52:16.795048  4911 net.cpp:129] Top shape: 100 32 14 14 (627200)
I0926 14:52:16.795050  4911 net.cpp:137] Memory required for data: 708422800
I0926 14:52:16.795053  4911 layer_factory.hpp:77] Creating layer penlu32
I0926 14:52:16.795058  4911 net.cpp:84] Creating Layer penlu32
I0926 14:52:16.795061  4911 net.cpp:406] penlu32 <- Convolution33
I0926 14:52:16.795064  4911 net.cpp:367] penlu32 -> Convolution33 (in-place)
I0926 14:52:16.795172  4911 net.cpp:122] Setting up penlu32
I0926 14:52:16.795177  4911 net.cpp:129] Top shape: 100 32 14 14 (627200)
I0926 14:52:16.795179  4911 net.cpp:137] Memory required for data: 710931600
I0926 14:52:16.795183  4911 layer_factory.hpp:77] Creating layer Convolution34
I0926 14:52:16.795189  4911 net.cpp:84] Creating Layer Convolution34
I0926 14:52:16.795192  4911 net.cpp:406] Convolution34 <- Convolution33
I0926 14:52:16.795197  4911 net.cpp:380] Convolution34 -> Convolution34
I0926 14:52:16.796233  4911 net.cpp:122] Setting up Convolution34
I0926 14:52:16.796241  4911 net.cpp:129] Top shape: 100 32 14 14 (627200)
I0926 14:52:16.796244  4911 net.cpp:137] Memory required for data: 713440400
I0926 14:52:16.796248  4911 layer_factory.hpp:77] Creating layer BatchNorm34
I0926 14:52:16.796253  4911 net.cpp:84] Creating Layer BatchNorm34
I0926 14:52:16.796257  4911 net.cpp:406] BatchNorm34 <- Convolution34
I0926 14:52:16.796260  4911 net.cpp:367] BatchNorm34 -> Convolution34 (in-place)
I0926 14:52:16.796396  4911 net.cpp:122] Setting up BatchNorm34
I0926 14:52:16.796401  4911 net.cpp:129] Top shape: 100 32 14 14 (627200)
I0926 14:52:16.796402  4911 net.cpp:137] Memory required for data: 715949200
I0926 14:52:16.796406  4911 layer_factory.hpp:77] Creating layer Scale34
I0926 14:52:16.796411  4911 net.cpp:84] Creating Layer Scale34
I0926 14:52:16.796413  4911 net.cpp:406] Scale34 <- Convolution34
I0926 14:52:16.796417  4911 net.cpp:367] Scale34 -> Convolution34 (in-place)
I0926 14:52:16.796443  4911 layer_factory.hpp:77] Creating layer Scale34
I0926 14:52:16.796546  4911 net.cpp:122] Setting up Scale34
I0926 14:52:16.796551  4911 net.cpp:129] Top shape: 100 32 14 14 (627200)
I0926 14:52:16.796553  4911 net.cpp:137] Memory required for data: 718458000
I0926 14:52:16.796557  4911 layer_factory.hpp:77] Creating layer Eltwise16
I0926 14:52:16.796562  4911 net.cpp:84] Creating Layer Eltwise16
I0926 14:52:16.796566  4911 net.cpp:406] Eltwise16 <- Eltwise15_penlu31_0_split_1
I0926 14:52:16.796567  4911 net.cpp:406] Eltwise16 <- Convolution34
I0926 14:52:16.796571  4911 net.cpp:380] Eltwise16 -> Eltwise16
I0926 14:52:16.796587  4911 net.cpp:122] Setting up Eltwise16
I0926 14:52:16.796591  4911 net.cpp:129] Top shape: 100 32 14 14 (627200)
I0926 14:52:16.796593  4911 net.cpp:137] Memory required for data: 720966800
I0926 14:52:16.796596  4911 layer_factory.hpp:77] Creating layer penlu33
I0926 14:52:16.796600  4911 net.cpp:84] Creating Layer penlu33
I0926 14:52:16.796602  4911 net.cpp:406] penlu33 <- Eltwise16
I0926 14:52:16.796605  4911 net.cpp:367] penlu33 -> Eltwise16 (in-place)
I0926 14:52:16.796711  4911 net.cpp:122] Setting up penlu33
I0926 14:52:16.796715  4911 net.cpp:129] Top shape: 100 32 14 14 (627200)
I0926 14:52:16.796717  4911 net.cpp:137] Memory required for data: 723475600
I0926 14:52:16.796730  4911 layer_factory.hpp:77] Creating layer Eltwise16_penlu33_0_split
I0926 14:52:16.796733  4911 net.cpp:84] Creating Layer Eltwise16_penlu33_0_split
I0926 14:52:16.796736  4911 net.cpp:406] Eltwise16_penlu33_0_split <- Eltwise16
I0926 14:52:16.796738  4911 net.cpp:380] Eltwise16_penlu33_0_split -> Eltwise16_penlu33_0_split_0
I0926 14:52:16.796742  4911 net.cpp:380] Eltwise16_penlu33_0_split -> Eltwise16_penlu33_0_split_1
I0926 14:52:16.796766  4911 net.cpp:122] Setting up Eltwise16_penlu33_0_split
I0926 14:52:16.796771  4911 net.cpp:129] Top shape: 100 32 14 14 (627200)
I0926 14:52:16.796772  4911 net.cpp:129] Top shape: 100 32 14 14 (627200)
I0926 14:52:16.796774  4911 net.cpp:137] Memory required for data: 728493200
I0926 14:52:16.796777  4911 layer_factory.hpp:77] Creating layer Convolution35
I0926 14:52:16.796782  4911 net.cpp:84] Creating Layer Convolution35
I0926 14:52:16.796785  4911 net.cpp:406] Convolution35 <- Eltwise16_penlu33_0_split_0
I0926 14:52:16.796789  4911 net.cpp:380] Convolution35 -> Convolution35
I0926 14:52:16.797818  4911 net.cpp:122] Setting up Convolution35
I0926 14:52:16.797827  4911 net.cpp:129] Top shape: 100 32 14 14 (627200)
I0926 14:52:16.797829  4911 net.cpp:137] Memory required for data: 731002000
I0926 14:52:16.797834  4911 layer_factory.hpp:77] Creating layer BatchNorm35
I0926 14:52:16.797839  4911 net.cpp:84] Creating Layer BatchNorm35
I0926 14:52:16.797842  4911 net.cpp:406] BatchNorm35 <- Convolution35
I0926 14:52:16.797847  4911 net.cpp:367] BatchNorm35 -> Convolution35 (in-place)
I0926 14:52:16.797979  4911 net.cpp:122] Setting up BatchNorm35
I0926 14:52:16.797984  4911 net.cpp:129] Top shape: 100 32 14 14 (627200)
I0926 14:52:16.797986  4911 net.cpp:137] Memory required for data: 733510800
I0926 14:52:16.797991  4911 layer_factory.hpp:77] Creating layer Scale35
I0926 14:52:16.797996  4911 net.cpp:84] Creating Layer Scale35
I0926 14:52:16.797997  4911 net.cpp:406] Scale35 <- Convolution35
I0926 14:52:16.798001  4911 net.cpp:367] Scale35 -> Convolution35 (in-place)
I0926 14:52:16.798028  4911 layer_factory.hpp:77] Creating layer Scale35
I0926 14:52:16.798106  4911 net.cpp:122] Setting up Scale35
I0926 14:52:16.798110  4911 net.cpp:129] Top shape: 100 32 14 14 (627200)
I0926 14:52:16.798112  4911 net.cpp:137] Memory required for data: 736019600
I0926 14:52:16.798116  4911 layer_factory.hpp:77] Creating layer penlu34
I0926 14:52:16.798122  4911 net.cpp:84] Creating Layer penlu34
I0926 14:52:16.798125  4911 net.cpp:406] penlu34 <- Convolution35
I0926 14:52:16.798127  4911 net.cpp:367] penlu34 -> Convolution35 (in-place)
I0926 14:52:16.798233  4911 net.cpp:122] Setting up penlu34
I0926 14:52:16.798238  4911 net.cpp:129] Top shape: 100 32 14 14 (627200)
I0926 14:52:16.798240  4911 net.cpp:137] Memory required for data: 738528400
I0926 14:52:16.798244  4911 layer_factory.hpp:77] Creating layer Convolution36
I0926 14:52:16.798251  4911 net.cpp:84] Creating Layer Convolution36
I0926 14:52:16.798254  4911 net.cpp:406] Convolution36 <- Convolution35
I0926 14:52:16.798257  4911 net.cpp:380] Convolution36 -> Convolution36
I0926 14:52:16.799304  4911 net.cpp:122] Setting up Convolution36
I0926 14:52:16.799314  4911 net.cpp:129] Top shape: 100 32 14 14 (627200)
I0926 14:52:16.799315  4911 net.cpp:137] Memory required for data: 741037200
I0926 14:52:16.799320  4911 layer_factory.hpp:77] Creating layer BatchNorm36
I0926 14:52:16.799325  4911 net.cpp:84] Creating Layer BatchNorm36
I0926 14:52:16.799327  4911 net.cpp:406] BatchNorm36 <- Convolution36
I0926 14:52:16.799331  4911 net.cpp:367] BatchNorm36 -> Convolution36 (in-place)
I0926 14:52:16.799464  4911 net.cpp:122] Setting up BatchNorm36
I0926 14:52:16.799468  4911 net.cpp:129] Top shape: 100 32 14 14 (627200)
I0926 14:52:16.799471  4911 net.cpp:137] Memory required for data: 743546000
I0926 14:52:16.799475  4911 layer_factory.hpp:77] Creating layer Scale36
I0926 14:52:16.799479  4911 net.cpp:84] Creating Layer Scale36
I0926 14:52:16.799481  4911 net.cpp:406] Scale36 <- Convolution36
I0926 14:52:16.799485  4911 net.cpp:367] Scale36 -> Convolution36 (in-place)
I0926 14:52:16.799518  4911 layer_factory.hpp:77] Creating layer Scale36
I0926 14:52:16.799595  4911 net.cpp:122] Setting up Scale36
I0926 14:52:16.799600  4911 net.cpp:129] Top shape: 100 32 14 14 (627200)
I0926 14:52:16.799602  4911 net.cpp:137] Memory required for data: 746054800
I0926 14:52:16.799605  4911 layer_factory.hpp:77] Creating layer Eltwise17
I0926 14:52:16.799609  4911 net.cpp:84] Creating Layer Eltwise17
I0926 14:52:16.799612  4911 net.cpp:406] Eltwise17 <- Eltwise16_penlu33_0_split_1
I0926 14:52:16.799615  4911 net.cpp:406] Eltwise17 <- Convolution36
I0926 14:52:16.799619  4911 net.cpp:380] Eltwise17 -> Eltwise17
I0926 14:52:16.799635  4911 net.cpp:122] Setting up Eltwise17
I0926 14:52:16.799638  4911 net.cpp:129] Top shape: 100 32 14 14 (627200)
I0926 14:52:16.799640  4911 net.cpp:137] Memory required for data: 748563600
I0926 14:52:16.799643  4911 layer_factory.hpp:77] Creating layer penlu35
I0926 14:52:16.799649  4911 net.cpp:84] Creating Layer penlu35
I0926 14:52:16.799650  4911 net.cpp:406] penlu35 <- Eltwise17
I0926 14:52:16.799654  4911 net.cpp:367] penlu35 -> Eltwise17 (in-place)
I0926 14:52:16.799763  4911 net.cpp:122] Setting up penlu35
I0926 14:52:16.799767  4911 net.cpp:129] Top shape: 100 32 14 14 (627200)
I0926 14:52:16.799769  4911 net.cpp:137] Memory required for data: 751072400
I0926 14:52:16.799774  4911 layer_factory.hpp:77] Creating layer Eltwise17_penlu35_0_split
I0926 14:52:16.799778  4911 net.cpp:84] Creating Layer Eltwise17_penlu35_0_split
I0926 14:52:16.799780  4911 net.cpp:406] Eltwise17_penlu35_0_split <- Eltwise17
I0926 14:52:16.799783  4911 net.cpp:380] Eltwise17_penlu35_0_split -> Eltwise17_penlu35_0_split_0
I0926 14:52:16.799787  4911 net.cpp:380] Eltwise17_penlu35_0_split -> Eltwise17_penlu35_0_split_1
I0926 14:52:16.799810  4911 net.cpp:122] Setting up Eltwise17_penlu35_0_split
I0926 14:52:16.799814  4911 net.cpp:129] Top shape: 100 32 14 14 (627200)
I0926 14:52:16.799816  4911 net.cpp:129] Top shape: 100 32 14 14 (627200)
I0926 14:52:16.799818  4911 net.cpp:137] Memory required for data: 756090000
I0926 14:52:16.799821  4911 layer_factory.hpp:77] Creating layer Convolution37
I0926 14:52:16.799827  4911 net.cpp:84] Creating Layer Convolution37
I0926 14:52:16.799829  4911 net.cpp:406] Convolution37 <- Eltwise17_penlu35_0_split_0
I0926 14:52:16.799834  4911 net.cpp:380] Convolution37 -> Convolution37
I0926 14:52:16.800580  4911 net.cpp:122] Setting up Convolution37
I0926 14:52:16.800587  4911 net.cpp:129] Top shape: 100 32 14 14 (627200)
I0926 14:52:16.800590  4911 net.cpp:137] Memory required for data: 758598800
I0926 14:52:16.800595  4911 layer_factory.hpp:77] Creating layer BatchNorm37
I0926 14:52:16.800598  4911 net.cpp:84] Creating Layer BatchNorm37
I0926 14:52:16.800601  4911 net.cpp:406] BatchNorm37 <- Convolution37
I0926 14:52:16.800604  4911 net.cpp:367] BatchNorm37 -> Convolution37 (in-place)
I0926 14:52:16.800740  4911 net.cpp:122] Setting up BatchNorm37
I0926 14:52:16.800743  4911 net.cpp:129] Top shape: 100 32 14 14 (627200)
I0926 14:52:16.800745  4911 net.cpp:137] Memory required for data: 761107600
I0926 14:52:16.800750  4911 layer_factory.hpp:77] Creating layer Scale37
I0926 14:52:16.800753  4911 net.cpp:84] Creating Layer Scale37
I0926 14:52:16.800756  4911 net.cpp:406] Scale37 <- Convolution37
I0926 14:52:16.800760  4911 net.cpp:367] Scale37 -> Convolution37 (in-place)
I0926 14:52:16.800786  4911 layer_factory.hpp:77] Creating layer Scale37
I0926 14:52:16.800861  4911 net.cpp:122] Setting up Scale37
I0926 14:52:16.800865  4911 net.cpp:129] Top shape: 100 32 14 14 (627200)
I0926 14:52:16.800868  4911 net.cpp:137] Memory required for data: 763616400
I0926 14:52:16.800870  4911 layer_factory.hpp:77] Creating layer penlu36
I0926 14:52:16.800876  4911 net.cpp:84] Creating Layer penlu36
I0926 14:52:16.800879  4911 net.cpp:406] penlu36 <- Convolution37
I0926 14:52:16.800882  4911 net.cpp:367] penlu36 -> Convolution37 (in-place)
I0926 14:52:16.800988  4911 net.cpp:122] Setting up penlu36
I0926 14:52:16.800993  4911 net.cpp:129] Top shape: 100 32 14 14 (627200)
I0926 14:52:16.801002  4911 net.cpp:137] Memory required for data: 766125200
I0926 14:52:16.801005  4911 layer_factory.hpp:77] Creating layer Convolution38
I0926 14:52:16.801012  4911 net.cpp:84] Creating Layer Convolution38
I0926 14:52:16.801015  4911 net.cpp:406] Convolution38 <- Convolution37
I0926 14:52:16.801019  4911 net.cpp:380] Convolution38 -> Convolution38
I0926 14:52:16.802057  4911 net.cpp:122] Setting up Convolution38
I0926 14:52:16.802064  4911 net.cpp:129] Top shape: 100 32 14 14 (627200)
I0926 14:52:16.802067  4911 net.cpp:137] Memory required for data: 768634000
I0926 14:52:16.802072  4911 layer_factory.hpp:77] Creating layer BatchNorm38
I0926 14:52:16.802076  4911 net.cpp:84] Creating Layer BatchNorm38
I0926 14:52:16.802079  4911 net.cpp:406] BatchNorm38 <- Convolution38
I0926 14:52:16.802083  4911 net.cpp:367] BatchNorm38 -> Convolution38 (in-place)
I0926 14:52:16.802219  4911 net.cpp:122] Setting up BatchNorm38
I0926 14:52:16.802224  4911 net.cpp:129] Top shape: 100 32 14 14 (627200)
I0926 14:52:16.802227  4911 net.cpp:137] Memory required for data: 771142800
I0926 14:52:16.802232  4911 layer_factory.hpp:77] Creating layer Scale38
I0926 14:52:16.802235  4911 net.cpp:84] Creating Layer Scale38
I0926 14:52:16.802238  4911 net.cpp:406] Scale38 <- Convolution38
I0926 14:52:16.802242  4911 net.cpp:367] Scale38 -> Convolution38 (in-place)
I0926 14:52:16.802269  4911 layer_factory.hpp:77] Creating layer Scale38
I0926 14:52:16.802346  4911 net.cpp:122] Setting up Scale38
I0926 14:52:16.802350  4911 net.cpp:129] Top shape: 100 32 14 14 (627200)
I0926 14:52:16.802352  4911 net.cpp:137] Memory required for data: 773651600
I0926 14:52:16.802356  4911 layer_factory.hpp:77] Creating layer Eltwise18
I0926 14:52:16.802359  4911 net.cpp:84] Creating Layer Eltwise18
I0926 14:52:16.802362  4911 net.cpp:406] Eltwise18 <- Eltwise17_penlu35_0_split_1
I0926 14:52:16.802366  4911 net.cpp:406] Eltwise18 <- Convolution38
I0926 14:52:16.802369  4911 net.cpp:380] Eltwise18 -> Eltwise18
I0926 14:52:16.802384  4911 net.cpp:122] Setting up Eltwise18
I0926 14:52:16.802388  4911 net.cpp:129] Top shape: 100 32 14 14 (627200)
I0926 14:52:16.802390  4911 net.cpp:137] Memory required for data: 776160400
I0926 14:52:16.802392  4911 layer_factory.hpp:77] Creating layer penlu37
I0926 14:52:16.802397  4911 net.cpp:84] Creating Layer penlu37
I0926 14:52:16.802399  4911 net.cpp:406] penlu37 <- Eltwise18
I0926 14:52:16.802403  4911 net.cpp:367] penlu37 -> Eltwise18 (in-place)
I0926 14:52:16.802510  4911 net.cpp:122] Setting up penlu37
I0926 14:52:16.802515  4911 net.cpp:129] Top shape: 100 32 14 14 (627200)
I0926 14:52:16.802516  4911 net.cpp:137] Memory required for data: 778669200
I0926 14:52:16.802521  4911 layer_factory.hpp:77] Creating layer Eltwise18_penlu37_0_split
I0926 14:52:16.802525  4911 net.cpp:84] Creating Layer Eltwise18_penlu37_0_split
I0926 14:52:16.802526  4911 net.cpp:406] Eltwise18_penlu37_0_split <- Eltwise18
I0926 14:52:16.802530  4911 net.cpp:380] Eltwise18_penlu37_0_split -> Eltwise18_penlu37_0_split_0
I0926 14:52:16.802534  4911 net.cpp:380] Eltwise18_penlu37_0_split -> Eltwise18_penlu37_0_split_1
I0926 14:52:16.802556  4911 net.cpp:122] Setting up Eltwise18_penlu37_0_split
I0926 14:52:16.802561  4911 net.cpp:129] Top shape: 100 32 14 14 (627200)
I0926 14:52:16.802562  4911 net.cpp:129] Top shape: 100 32 14 14 (627200)
I0926 14:52:16.802564  4911 net.cpp:137] Memory required for data: 783686800
I0926 14:52:16.802567  4911 layer_factory.hpp:77] Creating layer Convolution39
I0926 14:52:16.802574  4911 net.cpp:84] Creating Layer Convolution39
I0926 14:52:16.802577  4911 net.cpp:406] Convolution39 <- Eltwise18_penlu37_0_split_0
I0926 14:52:16.802580  4911 net.cpp:380] Convolution39 -> Convolution39
I0926 14:52:16.803459  4911 net.cpp:122] Setting up Convolution39
I0926 14:52:16.803468  4911 net.cpp:129] Top shape: 100 64 7 7 (313600)
I0926 14:52:16.803470  4911 net.cpp:137] Memory required for data: 784941200
I0926 14:52:16.803475  4911 layer_factory.hpp:77] Creating layer BatchNorm39
I0926 14:52:16.803486  4911 net.cpp:84] Creating Layer BatchNorm39
I0926 14:52:16.803489  4911 net.cpp:406] BatchNorm39 <- Convolution39
I0926 14:52:16.803493  4911 net.cpp:367] BatchNorm39 -> Convolution39 (in-place)
I0926 14:52:16.803627  4911 net.cpp:122] Setting up BatchNorm39
I0926 14:52:16.803632  4911 net.cpp:129] Top shape: 100 64 7 7 (313600)
I0926 14:52:16.803633  4911 net.cpp:137] Memory required for data: 786195600
I0926 14:52:16.803638  4911 layer_factory.hpp:77] Creating layer Scale39
I0926 14:52:16.803642  4911 net.cpp:84] Creating Layer Scale39
I0926 14:52:16.803645  4911 net.cpp:406] Scale39 <- Convolution39
I0926 14:52:16.803648  4911 net.cpp:367] Scale39 -> Convolution39 (in-place)
I0926 14:52:16.803674  4911 layer_factory.hpp:77] Creating layer Scale39
I0926 14:52:16.803751  4911 net.cpp:122] Setting up Scale39
I0926 14:52:16.803756  4911 net.cpp:129] Top shape: 100 64 7 7 (313600)
I0926 14:52:16.803758  4911 net.cpp:137] Memory required for data: 787450000
I0926 14:52:16.803762  4911 layer_factory.hpp:77] Creating layer Convolution40
I0926 14:52:16.803768  4911 net.cpp:84] Creating Layer Convolution40
I0926 14:52:16.803771  4911 net.cpp:406] Convolution40 <- Eltwise18_penlu37_0_split_1
I0926 14:52:16.803776  4911 net.cpp:380] Convolution40 -> Convolution40
I0926 14:52:16.805608  4911 net.cpp:122] Setting up Convolution40
I0926 14:52:16.805619  4911 net.cpp:129] Top shape: 100 64 7 7 (313600)
I0926 14:52:16.805621  4911 net.cpp:137] Memory required for data: 788704400
I0926 14:52:16.805626  4911 layer_factory.hpp:77] Creating layer BatchNorm40
I0926 14:52:16.805632  4911 net.cpp:84] Creating Layer BatchNorm40
I0926 14:52:16.805636  4911 net.cpp:406] BatchNorm40 <- Convolution40
I0926 14:52:16.805639  4911 net.cpp:367] BatchNorm40 -> Convolution40 (in-place)
I0926 14:52:16.805783  4911 net.cpp:122] Setting up BatchNorm40
I0926 14:52:16.805788  4911 net.cpp:129] Top shape: 100 64 7 7 (313600)
I0926 14:52:16.805789  4911 net.cpp:137] Memory required for data: 789958800
I0926 14:52:16.805794  4911 layer_factory.hpp:77] Creating layer Scale40
I0926 14:52:16.805799  4911 net.cpp:84] Creating Layer Scale40
I0926 14:52:16.805801  4911 net.cpp:406] Scale40 <- Convolution40
I0926 14:52:16.805804  4911 net.cpp:367] Scale40 -> Convolution40 (in-place)
I0926 14:52:16.805833  4911 layer_factory.hpp:77] Creating layer Scale40
I0926 14:52:16.805915  4911 net.cpp:122] Setting up Scale40
I0926 14:52:16.805920  4911 net.cpp:129] Top shape: 100 64 7 7 (313600)
I0926 14:52:16.805922  4911 net.cpp:137] Memory required for data: 791213200
I0926 14:52:16.805927  4911 layer_factory.hpp:77] Creating layer penlu38
I0926 14:52:16.805932  4911 net.cpp:84] Creating Layer penlu38
I0926 14:52:16.805934  4911 net.cpp:406] penlu38 <- Convolution40
I0926 14:52:16.805938  4911 net.cpp:367] penlu38 -> Convolution40 (in-place)
I0926 14:52:16.806049  4911 net.cpp:122] Setting up penlu38
I0926 14:52:16.806054  4911 net.cpp:129] Top shape: 100 64 7 7 (313600)
I0926 14:52:16.806056  4911 net.cpp:137] Memory required for data: 792467600
I0926 14:52:16.806061  4911 layer_factory.hpp:77] Creating layer Convolution41
I0926 14:52:16.806067  4911 net.cpp:84] Creating Layer Convolution41
I0926 14:52:16.806071  4911 net.cpp:406] Convolution41 <- Convolution40
I0926 14:52:16.806074  4911 net.cpp:380] Convolution41 -> Convolution41
I0926 14:52:16.808221  4911 net.cpp:122] Setting up Convolution41
I0926 14:52:16.808230  4911 net.cpp:129] Top shape: 100 64 7 7 (313600)
I0926 14:52:16.808233  4911 net.cpp:137] Memory required for data: 793722000
I0926 14:52:16.808238  4911 layer_factory.hpp:77] Creating layer BatchNorm41
I0926 14:52:16.808243  4911 net.cpp:84] Creating Layer BatchNorm41
I0926 14:52:16.808245  4911 net.cpp:406] BatchNorm41 <- Convolution41
I0926 14:52:16.808249  4911 net.cpp:367] BatchNorm41 -> Convolution41 (in-place)
I0926 14:52:16.808393  4911 net.cpp:122] Setting up BatchNorm41
I0926 14:52:16.808396  4911 net.cpp:129] Top shape: 100 64 7 7 (313600)
I0926 14:52:16.808398  4911 net.cpp:137] Memory required for data: 794976400
I0926 14:52:16.808403  4911 layer_factory.hpp:77] Creating layer Scale41
I0926 14:52:16.808414  4911 net.cpp:84] Creating Layer Scale41
I0926 14:52:16.808418  4911 net.cpp:406] Scale41 <- Convolution41
I0926 14:52:16.808420  4911 net.cpp:367] Scale41 -> Convolution41 (in-place)
I0926 14:52:16.808450  4911 layer_factory.hpp:77] Creating layer Scale41
I0926 14:52:16.808558  4911 net.cpp:122] Setting up Scale41
I0926 14:52:16.808564  4911 net.cpp:129] Top shape: 100 64 7 7 (313600)
I0926 14:52:16.808567  4911 net.cpp:137] Memory required for data: 796230800
I0926 14:52:16.808570  4911 layer_factory.hpp:77] Creating layer Eltwise19
I0926 14:52:16.808574  4911 net.cpp:84] Creating Layer Eltwise19
I0926 14:52:16.808578  4911 net.cpp:406] Eltwise19 <- Convolution39
I0926 14:52:16.808580  4911 net.cpp:406] Eltwise19 <- Convolution41
I0926 14:52:16.808584  4911 net.cpp:380] Eltwise19 -> Eltwise19
I0926 14:52:16.808601  4911 net.cpp:122] Setting up Eltwise19
I0926 14:52:16.808605  4911 net.cpp:129] Top shape: 100 64 7 7 (313600)
I0926 14:52:16.808607  4911 net.cpp:137] Memory required for data: 797485200
I0926 14:52:16.808609  4911 layer_factory.hpp:77] Creating layer penlu39
I0926 14:52:16.808615  4911 net.cpp:84] Creating Layer penlu39
I0926 14:52:16.808617  4911 net.cpp:406] penlu39 <- Eltwise19
I0926 14:52:16.808621  4911 net.cpp:367] penlu39 -> Eltwise19 (in-place)
I0926 14:52:16.808734  4911 net.cpp:122] Setting up penlu39
I0926 14:52:16.808739  4911 net.cpp:129] Top shape: 100 64 7 7 (313600)
I0926 14:52:16.808742  4911 net.cpp:137] Memory required for data: 798739600
I0926 14:52:16.808745  4911 layer_factory.hpp:77] Creating layer Eltwise19_penlu39_0_split
I0926 14:52:16.808749  4911 net.cpp:84] Creating Layer Eltwise19_penlu39_0_split
I0926 14:52:16.808751  4911 net.cpp:406] Eltwise19_penlu39_0_split <- Eltwise19
I0926 14:52:16.808754  4911 net.cpp:380] Eltwise19_penlu39_0_split -> Eltwise19_penlu39_0_split_0
I0926 14:52:16.808758  4911 net.cpp:380] Eltwise19_penlu39_0_split -> Eltwise19_penlu39_0_split_1
I0926 14:52:16.808792  4911 net.cpp:122] Setting up Eltwise19_penlu39_0_split
I0926 14:52:16.808796  4911 net.cpp:129] Top shape: 100 64 7 7 (313600)
I0926 14:52:16.808799  4911 net.cpp:129] Top shape: 100 64 7 7 (313600)
I0926 14:52:16.808801  4911 net.cpp:137] Memory required for data: 801248400
I0926 14:52:16.808804  4911 layer_factory.hpp:77] Creating layer Convolution42
I0926 14:52:16.808809  4911 net.cpp:84] Creating Layer Convolution42
I0926 14:52:16.808812  4911 net.cpp:406] Convolution42 <- Eltwise19_penlu39_0_split_0
I0926 14:52:16.808816  4911 net.cpp:380] Convolution42 -> Convolution42
I0926 14:52:16.810571  4911 net.cpp:122] Setting up Convolution42
I0926 14:52:16.810580  4911 net.cpp:129] Top shape: 100 64 7 7 (313600)
I0926 14:52:16.810582  4911 net.cpp:137] Memory required for data: 802502800
I0926 14:52:16.810587  4911 layer_factory.hpp:77] Creating layer BatchNorm42
I0926 14:52:16.810592  4911 net.cpp:84] Creating Layer BatchNorm42
I0926 14:52:16.810595  4911 net.cpp:406] BatchNorm42 <- Convolution42
I0926 14:52:16.810598  4911 net.cpp:367] BatchNorm42 -> Convolution42 (in-place)
I0926 14:52:16.810739  4911 net.cpp:122] Setting up BatchNorm42
I0926 14:52:16.810744  4911 net.cpp:129] Top shape: 100 64 7 7 (313600)
I0926 14:52:16.810745  4911 net.cpp:137] Memory required for data: 803757200
I0926 14:52:16.810750  4911 layer_factory.hpp:77] Creating layer Scale42
I0926 14:52:16.810755  4911 net.cpp:84] Creating Layer Scale42
I0926 14:52:16.810757  4911 net.cpp:406] Scale42 <- Convolution42
I0926 14:52:16.810760  4911 net.cpp:367] Scale42 -> Convolution42 (in-place)
I0926 14:52:16.810789  4911 layer_factory.hpp:77] Creating layer Scale42
I0926 14:52:16.810870  4911 net.cpp:122] Setting up Scale42
I0926 14:52:16.810874  4911 net.cpp:129] Top shape: 100 64 7 7 (313600)
I0926 14:52:16.810876  4911 net.cpp:137] Memory required for data: 805011600
I0926 14:52:16.810880  4911 layer_factory.hpp:77] Creating layer penlu40
I0926 14:52:16.810885  4911 net.cpp:84] Creating Layer penlu40
I0926 14:52:16.810887  4911 net.cpp:406] penlu40 <- Convolution42
I0926 14:52:16.810899  4911 net.cpp:367] penlu40 -> Convolution42 (in-place)
I0926 14:52:16.811013  4911 net.cpp:122] Setting up penlu40
I0926 14:52:16.811018  4911 net.cpp:129] Top shape: 100 64 7 7 (313600)
I0926 14:52:16.811020  4911 net.cpp:137] Memory required for data: 806266000
I0926 14:52:16.811024  4911 layer_factory.hpp:77] Creating layer Convolution43
I0926 14:52:16.811031  4911 net.cpp:84] Creating Layer Convolution43
I0926 14:52:16.811034  4911 net.cpp:406] Convolution43 <- Convolution42
I0926 14:52:16.811039  4911 net.cpp:380] Convolution43 -> Convolution43
I0926 14:52:16.813365  4911 net.cpp:122] Setting up Convolution43
I0926 14:52:16.813374  4911 net.cpp:129] Top shape: 100 64 7 7 (313600)
I0926 14:52:16.813377  4911 net.cpp:137] Memory required for data: 807520400
I0926 14:52:16.813381  4911 layer_factory.hpp:77] Creating layer BatchNorm43
I0926 14:52:16.813386  4911 net.cpp:84] Creating Layer BatchNorm43
I0926 14:52:16.813390  4911 net.cpp:406] BatchNorm43 <- Convolution43
I0926 14:52:16.813393  4911 net.cpp:367] BatchNorm43 -> Convolution43 (in-place)
I0926 14:52:16.813540  4911 net.cpp:122] Setting up BatchNorm43
I0926 14:52:16.813545  4911 net.cpp:129] Top shape: 100 64 7 7 (313600)
I0926 14:52:16.813547  4911 net.cpp:137] Memory required for data: 808774800
I0926 14:52:16.813552  4911 layer_factory.hpp:77] Creating layer Scale43
I0926 14:52:16.813556  4911 net.cpp:84] Creating Layer Scale43
I0926 14:52:16.813560  4911 net.cpp:406] Scale43 <- Convolution43
I0926 14:52:16.813563  4911 net.cpp:367] Scale43 -> Convolution43 (in-place)
I0926 14:52:16.813591  4911 layer_factory.hpp:77] Creating layer Scale43
I0926 14:52:16.813671  4911 net.cpp:122] Setting up Scale43
I0926 14:52:16.813676  4911 net.cpp:129] Top shape: 100 64 7 7 (313600)
I0926 14:52:16.813678  4911 net.cpp:137] Memory required for data: 810029200
I0926 14:52:16.813683  4911 layer_factory.hpp:77] Creating layer Eltwise20
I0926 14:52:16.813685  4911 net.cpp:84] Creating Layer Eltwise20
I0926 14:52:16.813688  4911 net.cpp:406] Eltwise20 <- Eltwise19_penlu39_0_split_1
I0926 14:52:16.813691  4911 net.cpp:406] Eltwise20 <- Convolution43
I0926 14:52:16.813695  4911 net.cpp:380] Eltwise20 -> Eltwise20
I0926 14:52:16.813712  4911 net.cpp:122] Setting up Eltwise20
I0926 14:52:16.813716  4911 net.cpp:129] Top shape: 100 64 7 7 (313600)
I0926 14:52:16.813719  4911 net.cpp:137] Memory required for data: 811283600
I0926 14:52:16.813720  4911 layer_factory.hpp:77] Creating layer penlu41
I0926 14:52:16.813724  4911 net.cpp:84] Creating Layer penlu41
I0926 14:52:16.813727  4911 net.cpp:406] penlu41 <- Eltwise20
I0926 14:52:16.813731  4911 net.cpp:367] penlu41 -> Eltwise20 (in-place)
I0926 14:52:16.813845  4911 net.cpp:122] Setting up penlu41
I0926 14:52:16.813850  4911 net.cpp:129] Top shape: 100 64 7 7 (313600)
I0926 14:52:16.813853  4911 net.cpp:137] Memory required for data: 812538000
I0926 14:52:16.813856  4911 layer_factory.hpp:77] Creating layer Eltwise20_penlu41_0_split
I0926 14:52:16.813860  4911 net.cpp:84] Creating Layer Eltwise20_penlu41_0_split
I0926 14:52:16.813863  4911 net.cpp:406] Eltwise20_penlu41_0_split <- Eltwise20
I0926 14:52:16.813865  4911 net.cpp:380] Eltwise20_penlu41_0_split -> Eltwise20_penlu41_0_split_0
I0926 14:52:16.813869  4911 net.cpp:380] Eltwise20_penlu41_0_split -> Eltwise20_penlu41_0_split_1
I0926 14:52:16.813894  4911 net.cpp:122] Setting up Eltwise20_penlu41_0_split
I0926 14:52:16.813897  4911 net.cpp:129] Top shape: 100 64 7 7 (313600)
I0926 14:52:16.813900  4911 net.cpp:129] Top shape: 100 64 7 7 (313600)
I0926 14:52:16.813902  4911 net.cpp:137] Memory required for data: 815046800
I0926 14:52:16.813905  4911 layer_factory.hpp:77] Creating layer Convolution44
I0926 14:52:16.813911  4911 net.cpp:84] Creating Layer Convolution44
I0926 14:52:16.813913  4911 net.cpp:406] Convolution44 <- Eltwise20_penlu41_0_split_0
I0926 14:52:16.813917  4911 net.cpp:380] Convolution44 -> Convolution44
I0926 14:52:16.815601  4911 net.cpp:122] Setting up Convolution44
I0926 14:52:16.815610  4911 net.cpp:129] Top shape: 100 64 7 7 (313600)
I0926 14:52:16.815620  4911 net.cpp:137] Memory required for data: 816301200
I0926 14:52:16.815625  4911 layer_factory.hpp:77] Creating layer BatchNorm44
I0926 14:52:16.815629  4911 net.cpp:84] Creating Layer BatchNorm44
I0926 14:52:16.815632  4911 net.cpp:406] BatchNorm44 <- Convolution44
I0926 14:52:16.815636  4911 net.cpp:367] BatchNorm44 -> Convolution44 (in-place)
I0926 14:52:16.815795  4911 net.cpp:122] Setting up BatchNorm44
I0926 14:52:16.815801  4911 net.cpp:129] Top shape: 100 64 7 7 (313600)
I0926 14:52:16.815804  4911 net.cpp:137] Memory required for data: 817555600
I0926 14:52:16.815809  4911 layer_factory.hpp:77] Creating layer Scale44
I0926 14:52:16.815814  4911 net.cpp:84] Creating Layer Scale44
I0926 14:52:16.815815  4911 net.cpp:406] Scale44 <- Convolution44
I0926 14:52:16.815821  4911 net.cpp:367] Scale44 -> Convolution44 (in-place)
I0926 14:52:16.815850  4911 layer_factory.hpp:77] Creating layer Scale44
I0926 14:52:16.815932  4911 net.cpp:122] Setting up Scale44
I0926 14:52:16.815937  4911 net.cpp:129] Top shape: 100 64 7 7 (313600)
I0926 14:52:16.815938  4911 net.cpp:137] Memory required for data: 818810000
I0926 14:52:16.815943  4911 layer_factory.hpp:77] Creating layer penlu42
I0926 14:52:16.815948  4911 net.cpp:84] Creating Layer penlu42
I0926 14:52:16.815950  4911 net.cpp:406] penlu42 <- Convolution44
I0926 14:52:16.815954  4911 net.cpp:367] penlu42 -> Convolution44 (in-place)
I0926 14:52:16.816068  4911 net.cpp:122] Setting up penlu42
I0926 14:52:16.816072  4911 net.cpp:129] Top shape: 100 64 7 7 (313600)
I0926 14:52:16.816074  4911 net.cpp:137] Memory required for data: 820064400
I0926 14:52:16.816078  4911 layer_factory.hpp:77] Creating layer Convolution45
I0926 14:52:16.816085  4911 net.cpp:84] Creating Layer Convolution45
I0926 14:52:16.816088  4911 net.cpp:406] Convolution45 <- Convolution44
I0926 14:52:16.816092  4911 net.cpp:380] Convolution45 -> Convolution45
I0926 14:52:16.818104  4911 net.cpp:122] Setting up Convolution45
I0926 14:52:16.818114  4911 net.cpp:129] Top shape: 100 64 7 7 (313600)
I0926 14:52:16.818116  4911 net.cpp:137] Memory required for data: 821318800
I0926 14:52:16.818120  4911 layer_factory.hpp:77] Creating layer BatchNorm45
I0926 14:52:16.818125  4911 net.cpp:84] Creating Layer BatchNorm45
I0926 14:52:16.818128  4911 net.cpp:406] BatchNorm45 <- Convolution45
I0926 14:52:16.818132  4911 net.cpp:367] BatchNorm45 -> Convolution45 (in-place)
I0926 14:52:16.818279  4911 net.cpp:122] Setting up BatchNorm45
I0926 14:52:16.818282  4911 net.cpp:129] Top shape: 100 64 7 7 (313600)
I0926 14:52:16.818285  4911 net.cpp:137] Memory required for data: 822573200
I0926 14:52:16.818290  4911 layer_factory.hpp:77] Creating layer Scale45
I0926 14:52:16.818294  4911 net.cpp:84] Creating Layer Scale45
I0926 14:52:16.818296  4911 net.cpp:406] Scale45 <- Convolution45
I0926 14:52:16.818300  4911 net.cpp:367] Scale45 -> Convolution45 (in-place)
I0926 14:52:16.818328  4911 layer_factory.hpp:77] Creating layer Scale45
I0926 14:52:16.818410  4911 net.cpp:122] Setting up Scale45
I0926 14:52:16.818414  4911 net.cpp:129] Top shape: 100 64 7 7 (313600)
I0926 14:52:16.818416  4911 net.cpp:137] Memory required for data: 823827600
I0926 14:52:16.818420  4911 layer_factory.hpp:77] Creating layer Eltwise21
I0926 14:52:16.818425  4911 net.cpp:84] Creating Layer Eltwise21
I0926 14:52:16.818428  4911 net.cpp:406] Eltwise21 <- Eltwise20_penlu41_0_split_1
I0926 14:52:16.818430  4911 net.cpp:406] Eltwise21 <- Convolution45
I0926 14:52:16.818434  4911 net.cpp:380] Eltwise21 -> Eltwise21
I0926 14:52:16.818451  4911 net.cpp:122] Setting up Eltwise21
…
I0926 14:52:17.174953  4911 net.cpp:137] Memory required for data: 1030145200
I0926 14:52:17.174958  4911 layer_factory.hpp:77] Creating layer BatchNorm40
I0926 14:52:17.174963  4911 net.cpp:84] Creating Layer BatchNorm40
I0926 14:52:17.174967  4911 net.cpp:406] BatchNorm40 <- Convolution40
I0926 14:52:17.174971  4911 net.cpp:367] BatchNorm40 -> Convolution40 (in-place)
I0926 14:52:17.175114  4911 net.cpp:122] Setting up BatchNorm40
I0926 14:52:17.175119  4911 net.cpp:129] Top shape: 100 64 8 8 (409600)
I0926 14:52:17.175122  4911 net.cpp:137] Memory required for data: 1031783600
I0926 14:52:17.175127  4911 layer_factory.hpp:77] Creating layer Scale40
I0926 14:52:17.175132  4911 net.cpp:84] Creating Layer Scale40
I0926 14:52:17.175134  4911 net.cpp:406] Scale40 <- Convolution40
I0926 14:52:17.175137  4911 net.cpp:367] Scale40 -> Convolution40 (in-place)
I0926 14:52:17.175165  4911 layer_factory.hpp:77] Creating layer Scale40
I0926 14:52:17.175246  4911 net.cpp:122] Setting up Scale40
I0926 14:52:17.175251  4911 net.cpp:129] Top shape: 100 64 8 8 (409600)
I0926 14:52:17.175253  4911 net.cpp:137] Memory required for data: 1033422000
I0926 14:52:17.175257  4911 layer_factory.hpp:77] Creating layer penlu38
I0926 14:52:17.175263  4911 net.cpp:84] Creating Layer penlu38
I0926 14:52:17.175266  4911 net.cpp:406] penlu38 <- Convolution40
I0926 14:52:17.175269  4911 net.cpp:367] penlu38 -> Convolution40 (in-place)
I0926 14:52:17.175390  4911 net.cpp:122] Setting up penlu38
I0926 14:52:17.175395  4911 net.cpp:129] Top shape: 100 64 8 8 (409600)
I0926 14:52:17.175397  4911 net.cpp:137] Memory required for data: 1035060400
I0926 14:52:17.175402  4911 layer_factory.hpp:77] Creating layer Convolution41
I0926 14:52:17.175410  4911 net.cpp:84] Creating Layer Convolution41
I0926 14:52:17.175412  4911 net.cpp:406] Convolution41 <- Convolution40
I0926 14:52:17.175416  4911 net.cpp:380] Convolution41 -> Convolution41
I0926 14:52:17.177224  4911 net.cpp:122] Setting up Convolution41
I0926 14:52:17.177233  4911 net.cpp:129] Top shape: 100 64 8 8 (409600)
I0926 14:52:17.177237  4911 net.cpp:137] Memory required for data: 1036698800
I0926 14:52:17.177240  4911 layer_factory.hpp:77] Creating layer BatchNorm41
I0926 14:52:17.177247  4911 net.cpp:84] Creating Layer BatchNorm41
I0926 14:52:17.177249  4911 net.cpp:406] BatchNorm41 <- Convolution41
I0926 14:52:17.177261  4911 net.cpp:367] BatchNorm41 -> Convolution41 (in-place)
I0926 14:52:17.177400  4911 net.cpp:122] Setting up BatchNorm41
I0926 14:52:17.177405  4911 net.cpp:129] Top shape: 100 64 8 8 (409600)
I0926 14:52:17.177407  4911 net.cpp:137] Memory required for data: 1038337200
I0926 14:52:17.177412  4911 layer_factory.hpp:77] Creating layer Scale41
I0926 14:52:17.177417  4911 net.cpp:84] Creating Layer Scale41
I0926 14:52:17.177419  4911 net.cpp:406] Scale41 <- Convolution41
I0926 14:52:17.177423  4911 net.cpp:367] Scale41 -> Convolution41 (in-place)
I0926 14:52:17.177450  4911 layer_factory.hpp:77] Creating layer Scale41
I0926 14:52:17.177531  4911 net.cpp:122] Setting up Scale41
I0926 14:52:17.177534  4911 net.cpp:129] Top shape: 100 64 8 8 (409600)
I0926 14:52:17.177537  4911 net.cpp:137] Memory required for data: 1039975600
I0926 14:52:17.177541  4911 layer_factory.hpp:77] Creating layer Eltwise19
I0926 14:52:17.177546  4911 net.cpp:84] Creating Layer Eltwise19
I0926 14:52:17.177548  4911 net.cpp:406] Eltwise19 <- Convolution39
I0926 14:52:17.177551  4911 net.cpp:406] Eltwise19 <- Convolution41
I0926 14:52:17.177554  4911 net.cpp:380] Eltwise19 -> Eltwise19
I0926 14:52:17.177570  4911 net.cpp:122] Setting up Eltwise19
I0926 14:52:17.177574  4911 net.cpp:129] Top shape: 100 64 8 8 (409600)
I0926 14:52:17.177577  4911 net.cpp:137] Memory required for data: 1041614000
I0926 14:52:17.177578  4911 layer_factory.hpp:77] Creating layer penlu39
I0926 14:52:17.177584  4911 net.cpp:84] Creating Layer penlu39
I0926 14:52:17.177587  4911 net.cpp:406] penlu39 <- Eltwise19
I0926 14:52:17.177590  4911 net.cpp:367] penlu39 -> Eltwise19 (in-place)
I0926 14:52:17.177705  4911 net.cpp:122] Setting up penlu39
I0926 14:52:17.177709  4911 net.cpp:129] Top shape: 100 64 8 8 (409600)
I0926 14:52:17.177711  4911 net.cpp:137] Memory required for data: 1043252400
I0926 14:52:17.177716  4911 layer_factory.hpp:77] Creating layer Eltwise19_penlu39_0_split
I0926 14:52:17.177721  4911 net.cpp:84] Creating Layer Eltwise19_penlu39_0_split
I0926 14:52:17.177722  4911 net.cpp:406] Eltwise19_penlu39_0_split <- Eltwise19
I0926 14:52:17.177726  4911 net.cpp:380] Eltwise19_penlu39_0_split -> Eltwise19_penlu39_0_split_0
I0926 14:52:17.177731  4911 net.cpp:380] Eltwise19_penlu39_0_split -> Eltwise19_penlu39_0_split_1
I0926 14:52:17.177754  4911 net.cpp:122] Setting up Eltwise19_penlu39_0_split
I0926 14:52:17.177758  4911 net.cpp:129] Top shape: 100 64 8 8 (409600)
I0926 14:52:17.177760  4911 net.cpp:129] Top shape: 100 64 8 8 (409600)
I0926 14:52:17.177762  4911 net.cpp:137] Memory required for data: 1046529200
I0926 14:52:17.177765  4911 layer_factory.hpp:77] Creating layer Convolution42
I0926 14:52:17.177772  4911 net.cpp:84] Creating Layer Convolution42
I0926 14:52:17.177773  4911 net.cpp:406] Convolution42 <- Eltwise19_penlu39_0_split_0
I0926 14:52:17.177778  4911 net.cpp:380] Convolution42 -> Convolution42
I0926 14:52:17.179549  4911 net.cpp:122] Setting up Convolution42
I0926 14:52:17.179558  4911 net.cpp:129] Top shape: 100 64 8 8 (409600)
I0926 14:52:17.179560  4911 net.cpp:137] Memory required for data: 1048167600
I0926 14:52:17.179565  4911 layer_factory.hpp:77] Creating layer BatchNorm42
I0926 14:52:17.179570  4911 net.cpp:84] Creating Layer BatchNorm42
I0926 14:52:17.179574  4911 net.cpp:406] BatchNorm42 <- Convolution42
I0926 14:52:17.179577  4911 net.cpp:367] BatchNorm42 -> Convolution42 (in-place)
I0926 14:52:17.179714  4911 net.cpp:122] Setting up BatchNorm42
I0926 14:52:17.179718  4911 net.cpp:129] Top shape: 100 64 8 8 (409600)
I0926 14:52:17.179720  4911 net.cpp:137] Memory required for data: 1049806000
I0926 14:52:17.179725  4911 layer_factory.hpp:77] Creating layer Scale42
I0926 14:52:17.179731  4911 net.cpp:84] Creating Layer Scale42
I0926 14:52:17.179733  4911 net.cpp:406] Scale42 <- Convolution42
I0926 14:52:17.179738  4911 net.cpp:367] Scale42 -> Convolution42 (in-place)
I0926 14:52:17.179765  4911 layer_factory.hpp:77] Creating layer Scale42
I0926 14:52:17.179843  4911 net.cpp:122] Setting up Scale42
I0926 14:52:17.179848  4911 net.cpp:129] Top shape: 100 64 8 8 (409600)
I0926 14:52:17.179857  4911 net.cpp:137] Memory required for data: 1051444400
I0926 14:52:17.179860  4911 layer_factory.hpp:77] Creating layer penlu40
I0926 14:52:17.179867  4911 net.cpp:84] Creating Layer penlu40
I0926 14:52:17.179869  4911 net.cpp:406] penlu40 <- Convolution42
I0926 14:52:17.179873  4911 net.cpp:367] penlu40 -> Convolution42 (in-place)
I0926 14:52:17.179989  4911 net.cpp:122] Setting up penlu40
I0926 14:52:17.179994  4911 net.cpp:129] Top shape: 100 64 8 8 (409600)
I0926 14:52:17.179996  4911 net.cpp:137] Memory required for data: 1053082800
I0926 14:52:17.180001  4911 layer_factory.hpp:77] Creating layer Convolution43
I0926 14:52:17.180007  4911 net.cpp:84] Creating Layer Convolution43
I0926 14:52:17.180011  4911 net.cpp:406] Convolution43 <- Convolution42
I0926 14:52:17.180014  4911 net.cpp:380] Convolution43 -> Convolution43
I0926 14:52:17.181813  4911 net.cpp:122] Setting up Convolution43
I0926 14:52:17.181821  4911 net.cpp:129] Top shape: 100 64 8 8 (409600)
I0926 14:52:17.181824  4911 net.cpp:137] Memory required for data: 1054721200
I0926 14:52:17.181828  4911 layer_factory.hpp:77] Creating layer BatchNorm43
I0926 14:52:17.181833  4911 net.cpp:84] Creating Layer BatchNorm43
I0926 14:52:17.181836  4911 net.cpp:406] BatchNorm43 <- Convolution43
I0926 14:52:17.181841  4911 net.cpp:367] BatchNorm43 -> Convolution43 (in-place)
I0926 14:52:17.181978  4911 net.cpp:122] Setting up BatchNorm43
I0926 14:52:17.181983  4911 net.cpp:129] Top shape: 100 64 8 8 (409600)
I0926 14:52:17.181985  4911 net.cpp:137] Memory required for data: 1056359600
I0926 14:52:17.181990  4911 layer_factory.hpp:77] Creating layer Scale43
I0926 14:52:17.181994  4911 net.cpp:84] Creating Layer Scale43
I0926 14:52:17.181998  4911 net.cpp:406] Scale43 <- Convolution43
I0926 14:52:17.182001  4911 net.cpp:367] Scale43 -> Convolution43 (in-place)
I0926 14:52:17.182029  4911 layer_factory.hpp:77] Creating layer Scale43
I0926 14:52:17.182108  4911 net.cpp:122] Setting up Scale43
I0926 14:52:17.182113  4911 net.cpp:129] Top shape: 100 64 8 8 (409600)
I0926 14:52:17.182116  4911 net.cpp:137] Memory required for data: 1057998000
I0926 14:52:17.182119  4911 layer_factory.hpp:77] Creating layer Eltwise20
I0926 14:52:17.182123  4911 net.cpp:84] Creating Layer Eltwise20
I0926 14:52:17.182126  4911 net.cpp:406] Eltwise20 <- Eltwise19_penlu39_0_split_1
I0926 14:52:17.182128  4911 net.cpp:406] Eltwise20 <- Convolution43
I0926 14:52:17.182133  4911 net.cpp:380] Eltwise20 -> Eltwise20
I0926 14:52:17.182152  4911 net.cpp:122] Setting up Eltwise20
I0926 14:52:17.182155  4911 net.cpp:129] Top shape: 100 64 8 8 (409600)
I0926 14:52:17.182157  4911 net.cpp:137] Memory required for data: 1059636400
I0926 14:52:17.182159  4911 layer_factory.hpp:77] Creating layer penlu41
I0926 14:52:17.182164  4911 net.cpp:84] Creating Layer penlu41
I0926 14:52:17.182166  4911 net.cpp:406] penlu41 <- Eltwise20
I0926 14:52:17.182170  4911 net.cpp:367] penlu41 -> Eltwise20 (in-place)
I0926 14:52:17.182286  4911 net.cpp:122] Setting up penlu41
I0926 14:52:17.182291  4911 net.cpp:129] Top shape: 100 64 8 8 (409600)
I0926 14:52:17.182292  4911 net.cpp:137] Memory required for data: 1061274800
I0926 14:52:17.182296  4911 layer_factory.hpp:77] Creating layer Eltwise20_penlu41_0_split
I0926 14:52:17.182301  4911 net.cpp:84] Creating Layer Eltwise20_penlu41_0_split
I0926 14:52:17.182302  4911 net.cpp:406] Eltwise20_penlu41_0_split <- Eltwise20
I0926 14:52:17.182305  4911 net.cpp:380] Eltwise20_penlu41_0_split -> Eltwise20_penlu41_0_split_0
I0926 14:52:17.182309  4911 net.cpp:380] Eltwise20_penlu41_0_split -> Eltwise20_penlu41_0_split_1
I0926 14:52:17.182333  4911 net.cpp:122] Setting up Eltwise20_penlu41_0_split
I0926 14:52:17.182337  4911 net.cpp:129] Top shape: 100 64 8 8 (409600)
I0926 14:52:17.182339  4911 net.cpp:129] Top shape: 100 64 8 8 (409600)
I0926 14:52:17.182341  4911 net.cpp:137] Memory required for data: 1064551600
I0926 14:52:17.182344  4911 layer_factory.hpp:77] Creating layer Convolution44
I0926 14:52:17.182350  4911 net.cpp:84] Creating Layer Convolution44
I0926 14:52:17.182359  4911 net.cpp:406] Convolution44 <- Eltwise20_penlu41_0_split_0
I0926 14:52:17.182364  4911 net.cpp:380] Convolution44 -> Convolution44
I0926 14:52:17.184453  4911 net.cpp:122] Setting up Convolution44
I0926 14:52:17.184460  4911 net.cpp:129] Top shape: 100 64 8 8 (409600)
I0926 14:52:17.184463  4911 net.cpp:137] Memory required for data: 1066190000
I0926 14:52:17.184468  4911 layer_factory.hpp:77] Creating layer BatchNorm44
I0926 14:52:17.184473  4911 net.cpp:84] Creating Layer BatchNorm44
I0926 14:52:17.184476  4911 net.cpp:406] BatchNorm44 <- Convolution44
I0926 14:52:17.184480  4911 net.cpp:367] BatchNorm44 -> Convolution44 (in-place)
I0926 14:52:17.184646  4911 net.cpp:122] Setting up BatchNorm44
I0926 14:52:17.184651  4911 net.cpp:129] Top shape: 100 64 8 8 (409600)
I0926 14:52:17.184653  4911 net.cpp:137] Memory required for data: 1067828400
I0926 14:52:17.184659  4911 layer_factory.hpp:77] Creating layer Scale44
I0926 14:52:17.184662  4911 net.cpp:84] Creating Layer Scale44
I0926 14:52:17.184664  4911 net.cpp:406] Scale44 <- Convolution44
I0926 14:52:17.184667  4911 net.cpp:367] Scale44 -> Convolution44 (in-place)
I0926 14:52:17.184697  4911 layer_factory.hpp:77] Creating layer Scale44
I0926 14:52:17.184775  4911 net.cpp:122] Setting up Scale44
I0926 14:52:17.184780  4911 net.cpp:129] Top shape: 100 64 8 8 (409600)
I0926 14:52:17.184782  4911 net.cpp:137] Memory required for data: 1069466800
I0926 14:52:17.184787  4911 layer_factory.hpp:77] Creating layer penlu42
I0926 14:52:17.184792  4911 net.cpp:84] Creating Layer penlu42
I0926 14:52:17.184794  4911 net.cpp:406] penlu42 <- Convolution44
I0926 14:52:17.184798  4911 net.cpp:367] penlu42 -> Convolution44 (in-place)
I0926 14:52:17.184916  4911 net.cpp:122] Setting up penlu42
I0926 14:52:17.184921  4911 net.cpp:129] Top shape: 100 64 8 8 (409600)
I0926 14:52:17.184922  4911 net.cpp:137] Memory required for data: 1071105200
I0926 14:52:17.184926  4911 layer_factory.hpp:77] Creating layer Convolution45
I0926 14:52:17.184933  4911 net.cpp:84] Creating Layer Convolution45
I0926 14:52:17.184936  4911 net.cpp:406] Convolution45 <- Convolution44
I0926 14:52:17.184939  4911 net.cpp:380] Convolution45 -> Convolution45
I0926 14:52:17.186722  4911 net.cpp:122] Setting up Convolution45
I0926 14:52:17.186731  4911 net.cpp:129] Top shape: 100 64 8 8 (409600)
I0926 14:52:17.186733  4911 net.cpp:137] Memory required for data: 1072743600
I0926 14:52:17.186738  4911 layer_factory.hpp:77] Creating layer BatchNorm45
I0926 14:52:17.186743  4911 net.cpp:84] Creating Layer BatchNorm45
I0926 14:52:17.186745  4911 net.cpp:406] BatchNorm45 <- Convolution45
I0926 14:52:17.186750  4911 net.cpp:367] BatchNorm45 -> Convolution45 (in-place)
I0926 14:52:17.186887  4911 net.cpp:122] Setting up BatchNorm45
I0926 14:52:17.186892  4911 net.cpp:129] Top shape: 100 64 8 8 (409600)
I0926 14:52:17.186894  4911 net.cpp:137] Memory required for data: 1074382000
I0926 14:52:17.186899  4911 layer_factory.hpp:77] Creating layer Scale45
I0926 14:52:17.186903  4911 net.cpp:84] Creating Layer Scale45
I0926 14:52:17.186906  4911 net.cpp:406] Scale45 <- Convolution45
I0926 14:52:17.186909  4911 net.cpp:367] Scale45 -> Convolution45 (in-place)
I0926 14:52:17.186938  4911 layer_factory.hpp:77] Creating layer Scale45
I0926 14:52:17.187016  4911 net.cpp:122] Setting up Scale45
I0926 14:52:17.187021  4911 net.cpp:129] Top shape: 100 64 8 8 (409600)
I0926 14:52:17.187022  4911 net.cpp:137] Memory required for data: 1076020400
I0926 14:52:17.187026  4911 layer_factory.hpp:77] Creating layer Eltwise21
I0926 14:52:17.187031  4911 net.cpp:84] Creating Layer Eltwise21
I0926 14:52:17.187033  4911 net.cpp:406] Eltwise21 <- Eltwise20_penlu41_0_split_1
I0926 14:52:17.187036  4911 net.cpp:406] Eltwise21 <- Convolution45
I0926 14:52:17.187041  4911 net.cpp:380] Eltwise21 -> Eltwise21
I0926 14:52:17.187057  4911 net.cpp:122] Setting up Eltwise21
I0926 14:52:17.187059  4911 net.cpp:129] Top shape: 100 64 8 8 (409600)
I0926 14:52:17.187062  4911 net.cpp:137] Memory required for data: 1077658800
I0926 14:52:17.187070  4911 layer_factory.hpp:77] Creating layer penlu43
I0926 14:52:17.187077  4911 net.cpp:84] Creating Layer penlu43
I0926 14:52:17.187078  4911 net.cpp:406] penlu43 <- Eltwise21
I0926 14:52:17.187083  4911 net.cpp:367] penlu43 -> Eltwise21 (in-place)
I0926 14:52:17.187198  4911 net.cpp:122] Setting up penlu43
I0926 14:52:17.187203  4911 net.cpp:129] Top shape: 100 64 8 8 (409600)
I0926 14:52:17.187206  4911 net.cpp:137] Memory required for data: 1079297200
I0926 14:52:17.187209  4911 layer_factory.hpp:77] Creating layer Eltwise21_penlu43_0_split
I0926 14:52:17.187213  4911 net.cpp:84] Creating Layer Eltwise21_penlu43_0_split
I0926 14:52:17.187216  4911 net.cpp:406] Eltwise21_penlu43_0_split <- Eltwise21
I0926 14:52:17.187218  4911 net.cpp:380] Eltwise21_penlu43_0_split -> Eltwise21_penlu43_0_split_0
I0926 14:52:17.187224  4911 net.cpp:380] Eltwise21_penlu43_0_split -> Eltwise21_penlu43_0_split_1
I0926 14:52:17.187247  4911 net.cpp:122] Setting up Eltwise21_penlu43_0_split
I0926 14:52:17.187250  4911 net.cpp:129] Top shape: 100 64 8 8 (409600)
I0926 14:52:17.187253  4911 net.cpp:129] Top shape: 100 64 8 8 (409600)
I0926 14:52:17.202019  4911 net.cpp:137] Memory required for data: 1082574000
I0926 14:52:17.202029  4911 layer_factory.hpp:77] Creating layer Convolution46
I0926 14:52:17.202039  4911 net.cpp:84] Creating Layer Convolution46
I0926 14:52:17.202044  4911 net.cpp:406] Convolution46 <- Eltwise21_penlu43_0_split_0
I0926 14:52:17.202049  4911 net.cpp:380] Convolution46 -> Convolution46
I0926 14:52:17.204044  4911 net.cpp:122] Setting up Convolution46
I0926 14:52:17.204054  4911 net.cpp:129] Top shape: 100 64 8 8 (409600)
I0926 14:52:17.204056  4911 net.cpp:137] Memory required for data: 1084212400
I0926 14:52:17.204062  4911 layer_factory.hpp:77] Creating layer BatchNorm46
I0926 14:52:17.204067  4911 net.cpp:84] Creating Layer BatchNorm46
I0926 14:52:17.204071  4911 net.cpp:406] BatchNorm46 <- Convolution46
I0926 14:52:17.204075  4911 net.cpp:367] BatchNorm46 -> Convolution46 (in-place)
I0926 14:52:17.204282  4911 net.cpp:122] Setting up BatchNorm46
I0926 14:52:17.204288  4911 net.cpp:129] Top shape: 100 64 8 8 (409600)
I0926 14:52:17.204289  4911 net.cpp:137] Memory required for data: 1085850800
I0926 14:52:17.204295  4911 layer_factory.hpp:77] Creating layer Scale46
I0926 14:52:17.204299  4911 net.cpp:84] Creating Layer Scale46
I0926 14:52:17.204301  4911 net.cpp:406] Scale46 <- Convolution46
I0926 14:52:17.204305  4911 net.cpp:367] Scale46 -> Convolution46 (in-place)
I0926 14:52:17.204334  4911 layer_factory.hpp:77] Creating layer Scale46
I0926 14:52:17.204416  4911 net.cpp:122] Setting up Scale46
I0926 14:52:17.204421  4911 net.cpp:129] Top shape: 100 64 8 8 (409600)
I0926 14:52:17.204422  4911 net.cpp:137] Memory required for data: 1087489200
I0926 14:52:17.204427  4911 layer_factory.hpp:77] Creating layer penlu44
I0926 14:52:17.204432  4911 net.cpp:84] Creating Layer penlu44
I0926 14:52:17.204434  4911 net.cpp:406] penlu44 <- Convolution46
I0926 14:52:17.204438  4911 net.cpp:367] penlu44 -> Convolution46 (in-place)
I0926 14:52:17.204566  4911 net.cpp:122] Setting up penlu44
I0926 14:52:17.204571  4911 net.cpp:129] Top shape: 100 64 8 8 (409600)
I0926 14:52:17.204572  4911 net.cpp:137] Memory required for data: 1089127600
I0926 14:52:17.204577  4911 layer_factory.hpp:77] Creating layer Convolution47
I0926 14:52:17.204586  4911 net.cpp:84] Creating Layer Convolution47
I0926 14:52:17.204587  4911 net.cpp:406] Convolution47 <- Convolution46
I0926 14:52:17.204591  4911 net.cpp:380] Convolution47 -> Convolution47
I0926 14:52:17.206495  4911 net.cpp:122] Setting up Convolution47
I0926 14:52:17.206504  4911 net.cpp:129] Top shape: 100 64 8 8 (409600)
I0926 14:52:17.206507  4911 net.cpp:137] Memory required for data: 1090766000
I0926 14:52:17.206511  4911 layer_factory.hpp:77] Creating layer BatchNorm47
I0926 14:52:17.206517  4911 net.cpp:84] Creating Layer BatchNorm47
I0926 14:52:17.206521  4911 net.cpp:406] BatchNorm47 <- Convolution47
I0926 14:52:17.206524  4911 net.cpp:367] BatchNorm47 -> Convolution47 (in-place)
I0926 14:52:17.206673  4911 net.cpp:122] Setting up BatchNorm47
I0926 14:52:17.206678  4911 net.cpp:129] Top shape: 100 64 8 8 (409600)
I0926 14:52:17.206681  4911 net.cpp:137] Memory required for data: 1092404400
I0926 14:52:17.206686  4911 layer_factory.hpp:77] Creating layer Scale47
I0926 14:52:17.206691  4911 net.cpp:84] Creating Layer Scale47
I0926 14:52:17.206693  4911 net.cpp:406] Scale47 <- Convolution47
I0926 14:52:17.206696  4911 net.cpp:367] Scale47 -> Convolution47 (in-place)
I0926 14:52:17.206724  4911 layer_factory.hpp:77] Creating layer Scale47
I0926 14:52:17.206804  4911 net.cpp:122] Setting up Scale47
I0926 14:52:17.206809  4911 net.cpp:129] Top shape: 100 64 8 8 (409600)
I0926 14:52:17.206811  4911 net.cpp:137] Memory required for data: 1094042800
I0926 14:52:17.206815  4911 layer_factory.hpp:77] Creating layer Eltwise22
I0926 14:52:17.206818  4911 net.cpp:84] Creating Layer Eltwise22
I0926 14:52:17.206821  4911 net.cpp:406] Eltwise22 <- Eltwise21_penlu43_0_split_1
I0926 14:52:17.206825  4911 net.cpp:406] Eltwise22 <- Convolution47
I0926 14:52:17.206830  4911 net.cpp:380] Eltwise22 -> Eltwise22
I0926 14:52:17.206845  4911 net.cpp:122] Setting up Eltwise22
I0926 14:52:17.206849  4911 net.cpp:129] Top shape: 100 64 8 8 (409600)
I0926 14:52:17.206851  4911 net.cpp:137] Memory required for data: 1095681200
I0926 14:52:17.206853  4911 layer_factory.hpp:77] Creating layer penlu45
I0926 14:52:17.206858  4911 net.cpp:84] Creating Layer penlu45
I0926 14:52:17.206861  4911 net.cpp:406] penlu45 <- Eltwise22
I0926 14:52:17.206864  4911 net.cpp:367] penlu45 -> Eltwise22 (in-place)
I0926 14:52:17.206980  4911 net.cpp:122] Setting up penlu45
I0926 14:52:17.206985  4911 net.cpp:129] Top shape: 100 64 8 8 (409600)
I0926 14:52:17.206987  4911 net.cpp:137] Memory required for data: 1097319600
I0926 14:52:17.206991  4911 layer_factory.hpp:77] Creating layer Eltwise22_penlu45_0_split
I0926 14:52:17.206995  4911 net.cpp:84] Creating Layer Eltwise22_penlu45_0_split
I0926 14:52:17.206997  4911 net.cpp:406] Eltwise22_penlu45_0_split <- Eltwise22
I0926 14:52:17.207001  4911 net.cpp:380] Eltwise22_penlu45_0_split -> Eltwise22_penlu45_0_split_0
I0926 14:52:17.207007  4911 net.cpp:380] Eltwise22_penlu45_0_split -> Eltwise22_penlu45_0_split_1
I0926 14:52:17.207031  4911 net.cpp:122] Setting up Eltwise22_penlu45_0_split
I0926 14:52:17.207036  4911 net.cpp:129] Top shape: 100 64 8 8 (409600)
I0926 14:52:17.207038  4911 net.cpp:129] Top shape: 100 64 8 8 (409600)
I0926 14:52:17.207041  4911 net.cpp:137] Memory required for data: 1100596400
I0926 14:52:17.207042  4911 layer_factory.hpp:77] Creating layer Convolution48
I0926 14:52:17.207049  4911 net.cpp:84] Creating Layer Convolution48
I0926 14:52:17.207051  4911 net.cpp:406] Convolution48 <- Eltwise22_penlu45_0_split_0
I0926 14:52:17.207056  4911 net.cpp:380] Convolution48 -> Convolution48
I0926 14:52:17.209154  4911 net.cpp:122] Setting up Convolution48
I0926 14:52:17.209163  4911 net.cpp:129] Top shape: 100 64 8 8 (409600)
I0926 14:52:17.209166  4911 net.cpp:137] Memory required for data: 1102234800
I0926 14:52:17.209170  4911 layer_factory.hpp:77] Creating layer BatchNorm48
I0926 14:52:17.209177  4911 net.cpp:84] Creating Layer BatchNorm48
I0926 14:52:17.209178  4911 net.cpp:406] BatchNorm48 <- Convolution48
I0926 14:52:17.209182  4911 net.cpp:367] BatchNorm48 -> Convolution48 (in-place)
I0926 14:52:17.209327  4911 net.cpp:122] Setting up BatchNorm48
I0926 14:52:17.209332  4911 net.cpp:129] Top shape: 100 64 8 8 (409600)
I0926 14:52:17.209334  4911 net.cpp:137] Memory required for data: 1103873200
I0926 14:52:17.209339  4911 layer_factory.hpp:77] Creating layer Scale48
I0926 14:52:17.209343  4911 net.cpp:84] Creating Layer Scale48
I0926 14:52:17.209347  4911 net.cpp:406] Scale48 <- Convolution48
I0926 14:52:17.209349  4911 net.cpp:367] Scale48 -> Convolution48 (in-place)
I0926 14:52:17.209378  4911 layer_factory.hpp:77] Creating layer Scale48
I0926 14:52:17.209460  4911 net.cpp:122] Setting up Scale48
I0926 14:52:17.209465  4911 net.cpp:129] Top shape: 100 64 8 8 (409600)
I0926 14:52:17.209475  4911 net.cpp:137] Memory required for data: 1105511600
I0926 14:52:17.209478  4911 layer_factory.hpp:77] Creating layer penlu46
I0926 14:52:17.209483  4911 net.cpp:84] Creating Layer penlu46
I0926 14:52:17.209486  4911 net.cpp:406] penlu46 <- Convolution48
I0926 14:52:17.209491  4911 net.cpp:367] penlu46 -> Convolution48 (in-place)
I0926 14:52:17.209611  4911 net.cpp:122] Setting up penlu46
I0926 14:52:17.209616  4911 net.cpp:129] Top shape: 100 64 8 8 (409600)
I0926 14:52:17.209619  4911 net.cpp:137] Memory required for data: 1107150000
I0926 14:52:17.209622  4911 layer_factory.hpp:77] Creating layer Convolution49
I0926 14:52:17.209630  4911 net.cpp:84] Creating Layer Convolution49
I0926 14:52:17.209631  4911 net.cpp:406] Convolution49 <- Convolution48
I0926 14:52:17.209635  4911 net.cpp:380] Convolution49 -> Convolution49
I0926 14:52:17.211745  4911 net.cpp:122] Setting up Convolution49
I0926 14:52:17.211753  4911 net.cpp:129] Top shape: 100 64 8 8 (409600)
I0926 14:52:17.211755  4911 net.cpp:137] Memory required for data: 1108788400
I0926 14:52:17.211760  4911 layer_factory.hpp:77] Creating layer BatchNorm49
I0926 14:52:17.211766  4911 net.cpp:84] Creating Layer BatchNorm49
I0926 14:52:17.211769  4911 net.cpp:406] BatchNorm49 <- Convolution49
I0926 14:52:17.211773  4911 net.cpp:367] BatchNorm49 -> Convolution49 (in-place)
I0926 14:52:17.211916  4911 net.cpp:122] Setting up BatchNorm49
I0926 14:52:17.211921  4911 net.cpp:129] Top shape: 100 64 8 8 (409600)
I0926 14:52:17.211923  4911 net.cpp:137] Memory required for data: 1110426800
I0926 14:52:17.211927  4911 layer_factory.hpp:77] Creating layer Scale49
I0926 14:52:17.211932  4911 net.cpp:84] Creating Layer Scale49
I0926 14:52:17.211935  4911 net.cpp:406] Scale49 <- Convolution49
I0926 14:52:17.211938  4911 net.cpp:367] Scale49 -> Convolution49 (in-place)
I0926 14:52:17.211966  4911 layer_factory.hpp:77] Creating layer Scale49
I0926 14:52:17.212047  4911 net.cpp:122] Setting up Scale49
I0926 14:52:17.212052  4911 net.cpp:129] Top shape: 100 64 8 8 (409600)
I0926 14:52:17.212054  4911 net.cpp:137] Memory required for data: 1112065200
I0926 14:52:17.212059  4911 layer_factory.hpp:77] Creating layer Eltwise23
I0926 14:52:17.212062  4911 net.cpp:84] Creating Layer Eltwise23
I0926 14:52:17.212065  4911 net.cpp:406] Eltwise23 <- Eltwise22_penlu45_0_split_1
I0926 14:52:17.212069  4911 net.cpp:406] Eltwise23 <- Convolution49
I0926 14:52:17.212072  4911 net.cpp:380] Eltwise23 -> Eltwise23
I0926 14:52:17.212096  4911 net.cpp:122] Setting up Eltwise23
I0926 14:52:17.212105  4911 net.cpp:129] Top shape: 100 64 8 8 (409600)
I0926 14:52:17.212108  4911 net.cpp:137] Memory required for data: 1113703600
I0926 14:52:17.212112  4911 layer_factory.hpp:77] Creating layer penlu47
I0926 14:52:17.212119  4911 net.cpp:84] Creating Layer penlu47
I0926 14:52:17.212122  4911 net.cpp:406] penlu47 <- Eltwise23
I0926 14:52:17.212126  4911 net.cpp:367] penlu47 -> Eltwise23 (in-place)
I0926 14:52:17.212247  4911 net.cpp:122] Setting up penlu47
I0926 14:52:17.212252  4911 net.cpp:129] Top shape: 100 64 8 8 (409600)
I0926 14:52:17.212255  4911 net.cpp:137] Memory required for data: 1115342000
I0926 14:52:17.212258  4911 layer_factory.hpp:77] Creating layer Eltwise23_penlu47_0_split
I0926 14:52:17.212262  4911 net.cpp:84] Creating Layer Eltwise23_penlu47_0_split
I0926 14:52:17.212265  4911 net.cpp:406] Eltwise23_penlu47_0_split <- Eltwise23
I0926 14:52:17.212268  4911 net.cpp:380] Eltwise23_penlu47_0_split -> Eltwise23_penlu47_0_split_0
I0926 14:52:17.212272  4911 net.cpp:380] Eltwise23_penlu47_0_split -> Eltwise23_penlu47_0_split_1
I0926 14:52:17.212297  4911 net.cpp:122] Setting up Eltwise23_penlu47_0_split
I0926 14:52:17.212301  4911 net.cpp:129] Top shape: 100 64 8 8 (409600)
I0926 14:52:17.212304  4911 net.cpp:129] Top shape: 100 64 8 8 (409600)
I0926 14:52:17.212306  4911 net.cpp:137] Memory required for data: 1118618800
I0926 14:52:17.212308  4911 layer_factory.hpp:77] Creating layer Convolution50
I0926 14:52:17.212316  4911 net.cpp:84] Creating Layer Convolution50
I0926 14:52:17.212323  4911 net.cpp:406] Convolution50 <- Eltwise23_penlu47_0_split_0
I0926 14:52:17.212328  4911 net.cpp:380] Convolution50 -> Convolution50
I0926 14:52:17.214947  4911 net.cpp:122] Setting up Convolution50
I0926 14:52:17.214956  4911 net.cpp:129] Top shape: 100 64 8 8 (409600)
I0926 14:52:17.214959  4911 net.cpp:137] Memory required for data: 1120257200
I0926 14:52:17.214964  4911 layer_factory.hpp:77] Creating layer BatchNorm50
I0926 14:52:17.214969  4911 net.cpp:84] Creating Layer BatchNorm50
I0926 14:52:17.214972  4911 net.cpp:406] BatchNorm50 <- Convolution50
I0926 14:52:17.214977  4911 net.cpp:367] BatchNorm50 -> Convolution50 (in-place)
I0926 14:52:17.215124  4911 net.cpp:122] Setting up BatchNorm50
I0926 14:52:17.215128  4911 net.cpp:129] Top shape: 100 64 8 8 (409600)
I0926 14:52:17.215131  4911 net.cpp:137] Memory required for data: 1121895600
I0926 14:52:17.215137  4911 layer_factory.hpp:77] Creating layer Scale50
I0926 14:52:17.215140  4911 net.cpp:84] Creating Layer Scale50
I0926 14:52:17.215143  4911 net.cpp:406] Scale50 <- Convolution50
I0926 14:52:17.215147  4911 net.cpp:367] Scale50 -> Convolution50 (in-place)
I0926 14:52:17.215176  4911 layer_factory.hpp:77] Creating layer Scale50
I0926 14:52:17.215258  4911 net.cpp:122] Setting up Scale50
I0926 14:52:17.215262  4911 net.cpp:129] Top shape: 100 64 8 8 (409600)
I0926 14:52:17.215265  4911 net.cpp:137] Memory required for data: 1123534000
I0926 14:52:17.215268  4911 layer_factory.hpp:77] Creating layer penlu48
I0926 14:52:17.215275  4911 net.cpp:84] Creating Layer penlu48
I0926 14:52:17.215276  4911 net.cpp:406] penlu48 <- Convolution50
I0926 14:52:17.215281  4911 net.cpp:367] penlu48 -> Convolution50 (in-place)
I0926 14:52:17.215399  4911 net.cpp:122] Setting up penlu48
I0926 14:52:17.215404  4911 net.cpp:129] Top shape: 100 64 8 8 (409600)
I0926 14:52:17.215405  4911 net.cpp:137] Memory required for data: 1125172400
I0926 14:52:17.215410  4911 layer_factory.hpp:77] Creating layer Convolution51
I0926 14:52:17.215418  4911 net.cpp:84] Creating Layer Convolution51
I0926 14:52:17.215421  4911 net.cpp:406] Convolution51 <- Convolution50
I0926 14:52:17.215425  4911 net.cpp:380] Convolution51 -> Convolution51
I0926 14:52:17.217203  4911 net.cpp:122] Setting up Convolution51
I0926 14:52:17.217212  4911 net.cpp:129] Top shape: 100 64 8 8 (409600)
I0926 14:52:17.217216  4911 net.cpp:137] Memory required for data: 1126810800
I0926 14:52:17.217219  4911 layer_factory.hpp:77] Creating layer BatchNorm51
I0926 14:52:17.217226  4911 net.cpp:84] Creating Layer BatchNorm51
I0926 14:52:17.217228  4911 net.cpp:406] BatchNorm51 <- Convolution51
I0926 14:52:17.217231  4911 net.cpp:367] BatchNorm51 -> Convolution51 (in-place)
I0926 14:52:17.217372  4911 net.cpp:122] Setting up BatchNorm51
I0926 14:52:17.217377  4911 net.cpp:129] Top shape: 100 64 8 8 (409600)
I0926 14:52:17.217380  4911 net.cpp:137] Memory required for data: 1128449200
I0926 14:52:17.217384  4911 layer_factory.hpp:77] Creating layer Scale51
I0926 14:52:17.217389  4911 net.cpp:84] Creating Layer Scale51
I0926 14:52:17.217391  4911 net.cpp:406] Scale51 <- Convolution51
I0926 14:52:17.217394  4911 net.cpp:367] Scale51 -> Convolution51 (in-place)
I0926 14:52:17.217423  4911 layer_factory.hpp:77] Creating layer Scale51
I0926 14:52:17.217504  4911 net.cpp:122] Setting up Scale51
I0926 14:52:17.217509  4911 net.cpp:129] Top shape: 100 64 8 8 (409600)
I0926 14:52:17.217511  4911 net.cpp:137] Memory required for data: 1130087600
I0926 14:52:17.217515  4911 layer_factory.hpp:77] Creating layer Eltwise24
I0926 14:52:17.217519  4911 net.cpp:84] Creating Layer Eltwise24
I0926 14:52:17.217522  4911 net.cpp:406] Eltwise24 <- Eltwise23_penlu47_0_split_1
I0926 14:52:17.217525  4911 net.cpp:406] Eltwise24 <- Convolution51
I0926 14:52:17.217530  4911 net.cpp:380] Eltwise24 -> Eltwise24
I0926 14:52:17.217546  4911 net.cpp:122] Setting up Eltwise24
I0926 14:52:17.217550  4911 net.cpp:129] Top shape: 100 64 8 8 (409600)
I0926 14:52:17.217552  4911 net.cpp:137] Memory required for data: 1131726000
I0926 14:52:17.217561  4911 layer_factory.hpp:77] Creating layer penlu49
I0926 14:52:17.217567  4911 net.cpp:84] Creating Layer penlu49
I0926 14:52:17.217569  4911 net.cpp:406] penlu49 <- Eltwise24
I0926 14:52:17.217573  4911 net.cpp:367] penlu49 -> Eltwise24 (in-place)
I0926 14:52:17.217691  4911 net.cpp:122] Setting up penlu49
I0926 14:52:17.217696  4911 net.cpp:129] Top shape: 100 64 8 8 (409600)
I0926 14:52:17.217699  4911 net.cpp:137] Memory required for data: 1133364400
I0926 14:52:17.217702  4911 layer_factory.hpp:77] Creating layer Eltwise24_penlu49_0_split
I0926 14:52:17.217706  4911 net.cpp:84] Creating Layer Eltwise24_penlu49_0_split
I0926 14:52:17.217708  4911 net.cpp:406] Eltwise24_penlu49_0_split <- Eltwise24
I0926 14:52:17.217711  4911 net.cpp:380] Eltwise24_penlu49_0_split -> Eltwise24_penlu49_0_split_0
I0926 14:52:17.217716  4911 net.cpp:380] Eltwise24_penlu49_0_split -> Eltwise24_penlu49_0_split_1
I0926 14:52:17.217749  4911 net.cpp:122] Setting up Eltwise24_penlu49_0_split
I0926 14:52:17.232404  4911 net.cpp:129] Top shape: 100 64 8 8 (409600)
I0926 14:52:17.232415  4911 net.cpp:129] Top shape: 100 64 8 8 (409600)
I0926 14:52:17.232419  4911 net.cpp:137] Memory required for data: 1136641200
I0926 14:52:17.232421  4911 layer_factory.hpp:77] Creating layer Convolution52
I0926 14:52:17.232431  4911 net.cpp:84] Creating Layer Convolution52
I0926 14:52:17.232435  4911 net.cpp:406] Convolution52 <- Eltwise24_penlu49_0_split_0
I0926 14:52:17.232441  4911 net.cpp:380] Convolution52 -> Convolution52
I0926 14:52:17.235049  4911 net.cpp:122] Setting up Convolution52
I0926 14:52:17.235059  4911 net.cpp:129] Top shape: 100 64 8 8 (409600)
I0926 14:52:17.235061  4911 net.cpp:137] Memory required for data: 1138279600
I0926 14:52:17.235067  4911 layer_factory.hpp:77] Creating layer BatchNorm52
I0926 14:52:17.235072  4911 net.cpp:84] Creating Layer BatchNorm52
I0926 14:52:17.235076  4911 net.cpp:406] BatchNorm52 <- Convolution52
I0926 14:52:17.235080  4911 net.cpp:367] BatchNorm52 -> Convolution52 (in-place)
I0926 14:52:17.235231  4911 net.cpp:122] Setting up BatchNorm52
I0926 14:52:17.235236  4911 net.cpp:129] Top shape: 100 64 8 8 (409600)
I0926 14:52:17.235239  4911 net.cpp:137] Memory required for data: 1139918000
I0926 14:52:17.235244  4911 layer_factory.hpp:77] Creating layer Scale52
I0926 14:52:17.235249  4911 net.cpp:84] Creating Layer Scale52
I0926 14:52:17.235250  4911 net.cpp:406] Scale52 <- Convolution52
I0926 14:52:17.235255  4911 net.cpp:367] Scale52 -> Convolution52 (in-place)
I0926 14:52:17.235285  4911 layer_factory.hpp:77] Creating layer Scale52
I0926 14:52:17.235370  4911 net.cpp:122] Setting up Scale52
I0926 14:52:17.235375  4911 net.cpp:129] Top shape: 100 64 8 8 (409600)
I0926 14:52:17.235378  4911 net.cpp:137] Memory required for data: 1141556400
I0926 14:52:17.235381  4911 layer_factory.hpp:77] Creating layer penlu50
I0926 14:52:17.235404  4911 net.cpp:84] Creating Layer penlu50
I0926 14:52:17.235406  4911 net.cpp:406] penlu50 <- Convolution52
I0926 14:52:17.235410  4911 net.cpp:367] penlu50 -> Convolution52 (in-place)
I0926 14:52:17.235535  4911 net.cpp:122] Setting up penlu50
I0926 14:52:17.235540  4911 net.cpp:129] Top shape: 100 64 8 8 (409600)
I0926 14:52:17.235543  4911 net.cpp:137] Memory required for data: 1143194800
I0926 14:52:17.235589  4911 layer_factory.hpp:77] Creating layer Convolution53
I0926 14:52:17.235596  4911 net.cpp:84] Creating Layer Convolution53
I0926 14:52:17.235599  4911 net.cpp:406] Convolution53 <- Convolution52
I0926 14:52:17.235604  4911 net.cpp:380] Convolution53 -> Convolution53
I0926 14:52:17.237481  4911 net.cpp:122] Setting up Convolution53
I0926 14:52:17.237490  4911 net.cpp:129] Top shape: 100 64 8 8 (409600)
I0926 14:52:17.237493  4911 net.cpp:137] Memory required for data: 1144833200
I0926 14:52:17.237498  4911 layer_factory.hpp:77] Creating layer BatchNorm53
I0926 14:52:17.237502  4911 net.cpp:84] Creating Layer BatchNorm53
I0926 14:52:17.237505  4911 net.cpp:406] BatchNorm53 <- Convolution53
I0926 14:52:17.237509  4911 net.cpp:367] BatchNorm53 -> Convolution53 (in-place)
I0926 14:52:17.237661  4911 net.cpp:122] Setting up BatchNorm53
I0926 14:52:17.237666  4911 net.cpp:129] Top shape: 100 64 8 8 (409600)
I0926 14:52:17.237668  4911 net.cpp:137] Memory required for data: 1146471600
I0926 14:52:17.237673  4911 layer_factory.hpp:77] Creating layer Scale53
I0926 14:52:17.237679  4911 net.cpp:84] Creating Layer Scale53
I0926 14:52:17.237680  4911 net.cpp:406] Scale53 <- Convolution53
I0926 14:52:17.237684  4911 net.cpp:367] Scale53 -> Convolution53 (in-place)
I0926 14:52:17.237712  4911 layer_factory.hpp:77] Creating layer Scale53
I0926 14:52:17.237797  4911 net.cpp:122] Setting up Scale53
I0926 14:52:17.237802  4911 net.cpp:129] Top shape: 100 64 8 8 (409600)
I0926 14:52:17.237803  4911 net.cpp:137] Memory required for data: 1148110000
I0926 14:52:17.237807  4911 layer_factory.hpp:77] Creating layer Eltwise25
I0926 14:52:17.237812  4911 net.cpp:84] Creating Layer Eltwise25
I0926 14:52:17.237815  4911 net.cpp:406] Eltwise25 <- Eltwise24_penlu49_0_split_1
I0926 14:52:17.237818  4911 net.cpp:406] Eltwise25 <- Convolution53
I0926 14:52:17.237823  4911 net.cpp:380] Eltwise25 -> Eltwise25
I0926 14:52:17.237840  4911 net.cpp:122] Setting up Eltwise25
I0926 14:52:17.237844  4911 net.cpp:129] Top shape: 100 64 8 8 (409600)
I0926 14:52:17.237848  4911 net.cpp:137] Memory required for data: 1149748400
I0926 14:52:17.237849  4911 layer_factory.hpp:77] Creating layer penlu51
I0926 14:52:17.237854  4911 net.cpp:84] Creating Layer penlu51
I0926 14:52:17.237856  4911 net.cpp:406] penlu51 <- Eltwise25
I0926 14:52:17.237860  4911 net.cpp:367] penlu51 -> Eltwise25 (in-place)
I0926 14:52:17.237982  4911 net.cpp:122] Setting up penlu51
I0926 14:52:17.237985  4911 net.cpp:129] Top shape: 100 64 8 8 (409600)
I0926 14:52:17.237987  4911 net.cpp:137] Memory required for data: 1151386800
I0926 14:52:17.237993  4911 layer_factory.hpp:77] Creating layer Eltwise25_penlu51_0_split
I0926 14:52:17.237995  4911 net.cpp:84] Creating Layer Eltwise25_penlu51_0_split
I0926 14:52:17.237998  4911 net.cpp:406] Eltwise25_penlu51_0_split <- Eltwise25
I0926 14:52:17.238001  4911 net.cpp:380] Eltwise25_penlu51_0_split -> Eltwise25_penlu51_0_split_0
I0926 14:52:17.238005  4911 net.cpp:380] Eltwise25_penlu51_0_split -> Eltwise25_penlu51_0_split_1
I0926 14:52:17.238030  4911 net.cpp:122] Setting up Eltwise25_penlu51_0_split
I0926 14:52:17.238034  4911 net.cpp:129] Top shape: 100 64 8 8 (409600)
I0926 14:52:17.238037  4911 net.cpp:129] Top shape: 100 64 8 8 (409600)
I0926 14:52:17.238039  4911 net.cpp:137] Memory required for data: 1154663600
I0926 14:52:17.238041  4911 layer_factory.hpp:77] Creating layer Convolution54
I0926 14:52:17.238047  4911 net.cpp:84] Creating Layer Convolution54
I0926 14:52:17.238050  4911 net.cpp:406] Convolution54 <- Eltwise25_penlu51_0_split_0
I0926 14:52:17.238054  4911 net.cpp:380] Convolution54 -> Convolution54
I0926 14:52:17.240155  4911 net.cpp:122] Setting up Convolution54
I0926 14:52:17.240164  4911 net.cpp:129] Top shape: 100 64 8 8 (409600)
I0926 14:52:17.240166  4911 net.cpp:137] Memory required for data: 1156302000
I0926 14:52:17.240171  4911 layer_factory.hpp:77] Creating layer BatchNorm54
I0926 14:52:17.240177  4911 net.cpp:84] Creating Layer BatchNorm54
I0926 14:52:17.240180  4911 net.cpp:406] BatchNorm54 <- Convolution54
I0926 14:52:17.240183  4911 net.cpp:367] BatchNorm54 -> Convolution54 (in-place)
I0926 14:52:17.240334  4911 net.cpp:122] Setting up BatchNorm54
I0926 14:52:17.240337  4911 net.cpp:129] Top shape: 100 64 8 8 (409600)
I0926 14:52:17.240340  4911 net.cpp:137] Memory required for data: 1157940400
I0926 14:52:17.240345  4911 layer_factory.hpp:77] Creating layer Scale54
I0926 14:52:17.240348  4911 net.cpp:84] Creating Layer Scale54
I0926 14:52:17.240351  4911 net.cpp:406] Scale54 <- Convolution54
I0926 14:52:17.240355  4911 net.cpp:367] Scale54 -> Convolution54 (in-place)
I0926 14:52:17.240386  4911 layer_factory.hpp:77] Creating layer Scale54
I0926 14:52:17.240468  4911 net.cpp:122] Setting up Scale54
I0926 14:52:17.240473  4911 net.cpp:129] Top shape: 100 64 8 8 (409600)
I0926 14:52:17.240481  4911 net.cpp:137] Memory required for data: 1159578800
I0926 14:52:17.240486  4911 layer_factory.hpp:77] Creating layer penlu52
I0926 14:52:17.240492  4911 net.cpp:84] Creating Layer penlu52
I0926 14:52:17.240499  4911 net.cpp:406] penlu52 <- Convolution54
I0926 14:52:17.240514  4911 net.cpp:367] penlu52 -> Convolution54 (in-place)
I0926 14:52:17.240646  4911 net.cpp:122] Setting up penlu52
I0926 14:52:17.240651  4911 net.cpp:129] Top shape: 100 64 8 8 (409600)
I0926 14:52:17.240653  4911 net.cpp:137] Memory required for data: 1161217200
I0926 14:52:17.240658  4911 layer_factory.hpp:77] Creating layer Convolution55
I0926 14:52:17.240664  4911 net.cpp:84] Creating Layer Convolution55
I0926 14:52:17.240667  4911 net.cpp:406] Convolution55 <- Convolution54
I0926 14:52:17.240671  4911 net.cpp:380] Convolution55 -> Convolution55
I0926 14:52:17.242457  4911 net.cpp:122] Setting up Convolution55
I0926 14:52:17.242470  4911 net.cpp:129] Top shape: 100 64 8 8 (409600)
I0926 14:52:17.242473  4911 net.cpp:137] Memory required for data: 1162855600
I0926 14:52:17.242483  4911 layer_factory.hpp:77] Creating layer BatchNorm55
I0926 14:52:17.242491  4911 net.cpp:84] Creating Layer BatchNorm55
I0926 14:52:17.242497  4911 net.cpp:406] BatchNorm55 <- Convolution55
I0926 14:52:17.242501  4911 net.cpp:367] BatchNorm55 -> Convolution55 (in-place)
I0926 14:52:17.242646  4911 net.cpp:122] Setting up BatchNorm55
I0926 14:52:17.242651  4911 net.cpp:129] Top shape: 100 64 8 8 (409600)
I0926 14:52:17.242653  4911 net.cpp:137] Memory required for data: 1164494000
I0926 14:52:17.242658  4911 layer_factory.hpp:77] Creating layer Scale55
I0926 14:52:17.242663  4911 net.cpp:84] Creating Layer Scale55
I0926 14:52:17.242666  4911 net.cpp:406] Scale55 <- Convolution55
I0926 14:52:17.242669  4911 net.cpp:367] Scale55 -> Convolution55 (in-place)
I0926 14:52:17.242698  4911 layer_factory.hpp:77] Creating layer Scale55
I0926 14:52:17.242782  4911 net.cpp:122] Setting up Scale55
I0926 14:52:17.242786  4911 net.cpp:129] Top shape: 100 64 8 8 (409600)
I0926 14:52:17.242789  4911 net.cpp:137] Memory required for data: 1166132400
I0926 14:52:17.242792  4911 layer_factory.hpp:77] Creating layer Eltwise26
I0926 14:52:17.242795  4911 net.cpp:84] Creating Layer Eltwise26
I0926 14:52:17.242799  4911 net.cpp:406] Eltwise26 <- Eltwise25_penlu51_0_split_1
I0926 14:52:17.242801  4911 net.cpp:406] Eltwise26 <- Convolution55
I0926 14:52:17.242805  4911 net.cpp:380] Eltwise26 -> Eltwise26
I0926 14:52:17.242821  4911 net.cpp:122] Setting up Eltwise26
I0926 14:52:17.242825  4911 net.cpp:129] Top shape: 100 64 8 8 (409600)
I0926 14:52:17.242827  4911 net.cpp:137] Memory required for data: 1167770800
I0926 14:52:17.242830  4911 layer_factory.hpp:77] Creating layer penlu53
I0926 14:52:17.242835  4911 net.cpp:84] Creating Layer penlu53
I0926 14:52:17.242837  4911 net.cpp:406] penlu53 <- Eltwise26
I0926 14:52:17.242841  4911 net.cpp:367] penlu53 -> Eltwise26 (in-place)
I0926 14:52:17.242961  4911 net.cpp:122] Setting up penlu53
I0926 14:52:17.242965  4911 net.cpp:129] Top shape: 100 64 8 8 (409600)
I0926 14:52:17.242967  4911 net.cpp:137] Memory required for data: 1169409200
I0926 14:52:17.242972  4911 layer_factory.hpp:77] Creating layer Eltwise26_penlu53_0_split
I0926 14:52:17.242975  4911 net.cpp:84] Creating Layer Eltwise26_penlu53_0_split
I0926 14:52:17.242979  4911 net.cpp:406] Eltwise26_penlu53_0_split <- Eltwise26
I0926 14:52:17.242983  4911 net.cpp:380] Eltwise26_penlu53_0_split -> Eltwise26_penlu53_0_split_0
I0926 14:52:17.242987  4911 net.cpp:380] Eltwise26_penlu53_0_split -> Eltwise26_penlu53_0_split_1
I0926 14:52:17.243011  4911 net.cpp:122] Setting up Eltwise26_penlu53_0_split
I0926 14:52:17.243015  4911 net.cpp:129] Top shape: 100 64 8 8 (409600)
I0926 14:52:17.243017  4911 net.cpp:129] Top shape: 100 64 8 8 (409600)
I0926 14:52:17.243019  4911 net.cpp:137] Memory required for data: 1172686000
I0926 14:52:17.243021  4911 layer_factory.hpp:77] Creating layer Convolution56
I0926 14:52:17.243028  4911 net.cpp:84] Creating Layer Convolution56
I0926 14:52:17.243037  4911 net.cpp:406] Convolution56 <- Eltwise26_penlu53_0_split_0
I0926 14:52:17.243042  4911 net.cpp:380] Convolution56 -> Convolution56
I0926 14:52:17.244828  4911 net.cpp:122] Setting up Convolution56
I0926 14:52:17.244837  4911 net.cpp:129] Top shape: 100 64 8 8 (409600)
I0926 14:52:17.244840  4911 net.cpp:137] Memory required for data: 1174324400
I0926 14:52:17.244845  4911 layer_factory.hpp:77] Creating layer BatchNorm56
I0926 14:52:17.244850  4911 net.cpp:84] Creating Layer BatchNorm56
I0926 14:52:17.244853  4911 net.cpp:406] BatchNorm56 <- Convolution56
I0926 14:52:17.244858  4911 net.cpp:367] BatchNorm56 -> Convolution56 (in-place)
I0926 14:52:17.245015  4911 net.cpp:122] Setting up BatchNorm56
I0926 14:52:17.245020  4911 net.cpp:129] Top shape: 100 64 8 8 (409600)
I0926 14:52:17.245023  4911 net.cpp:137] Memory required for data: 1175962800
I0926 14:52:17.245028  4911 layer_factory.hpp:77] Creating layer Scale56
I0926 14:52:17.245033  4911 net.cpp:84] Creating Layer Scale56
I0926 14:52:17.245036  4911 net.cpp:406] Scale56 <- Convolution56
I0926 14:52:17.245040  4911 net.cpp:367] Scale56 -> Convolution56 (in-place)
I0926 14:52:17.245069  4911 layer_factory.hpp:77] Creating layer Scale56
I0926 14:52:17.245156  4911 net.cpp:122] Setting up Scale56
I0926 14:52:17.245159  4911 net.cpp:129] Top shape: 100 64 8 8 (409600)
I0926 14:52:17.245162  4911 net.cpp:137] Memory required for data: 1177601200
I0926 14:52:17.245165  4911 layer_factory.hpp:77] Creating layer penlu54
I0926 14:52:17.245172  4911 net.cpp:84] Creating Layer penlu54
I0926 14:52:17.245174  4911 net.cpp:406] penlu54 <- Convolution56
I0926 14:52:17.245177  4911 net.cpp:367] penlu54 -> Convolution56 (in-place)
I0926 14:52:17.245303  4911 net.cpp:122] Setting up penlu54
I0926 14:52:17.245308  4911 net.cpp:129] Top shape: 100 64 8 8 (409600)
I0926 14:52:17.245311  4911 net.cpp:137] Memory required for data: 1179239600
I0926 14:52:17.245314  4911 layer_factory.hpp:77] Creating layer Convolution57
I0926 14:52:17.245321  4911 net.cpp:84] Creating Layer Convolution57
I0926 14:52:17.245323  4911 net.cpp:406] Convolution57 <- Convolution56
I0926 14:52:17.245327  4911 net.cpp:380] Convolution57 -> Convolution57
I0926 14:52:17.247112  4911 net.cpp:122] Setting up Convolution57
I0926 14:52:17.247122  4911 net.cpp:129] Top shape: 100 64 8 8 (409600)
I0926 14:52:17.247124  4911 net.cpp:137] Memory required for data: 1180878000
I0926 14:52:17.247128  4911 layer_factory.hpp:77] Creating layer BatchNorm57
I0926 14:52:17.247134  4911 net.cpp:84] Creating Layer BatchNorm57
I0926 14:52:17.247138  4911 net.cpp:406] BatchNorm57 <- Convolution57
I0926 14:52:17.247141  4911 net.cpp:367] BatchNorm57 -> Convolution57 (in-place)
I0926 14:52:17.247285  4911 net.cpp:122] Setting up BatchNorm57
I0926 14:52:17.247290  4911 net.cpp:129] Top shape: 100 64 8 8 (409600)
I0926 14:52:17.247292  4911 net.cpp:137] Memory required for data: 1182516400
I0926 14:52:17.247298  4911 layer_factory.hpp:77] Creating layer Scale57
I0926 14:52:17.247301  4911 net.cpp:84] Creating Layer Scale57
I0926 14:52:17.247304  4911 net.cpp:406] Scale57 <- Convolution57
I0926 14:52:17.247308  4911 net.cpp:367] Scale57 -> Convolution57 (in-place)
I0926 14:52:17.247336  4911 layer_factory.hpp:77] Creating layer Scale57
I0926 14:52:17.247421  4911 net.cpp:122] Setting up Scale57
I0926 14:52:17.247424  4911 net.cpp:129] Top shape: 100 64 8 8 (409600)
I0926 14:52:17.247426  4911 net.cpp:137] Memory required for data: 1184154800
I0926 14:52:17.247431  4911 layer_factory.hpp:77] Creating layer Eltwise27
I0926 14:52:17.247434  4911 net.cpp:84] Creating Layer Eltwise27
I0926 14:52:17.247437  4911 net.cpp:406] Eltwise27 <- Eltwise26_penlu53_0_split_1
I0926 14:52:17.247440  4911 net.cpp:406] Eltwise27 <- Convolution57
I0926 14:52:17.247444  4911 net.cpp:380] Eltwise27 -> Eltwise27
I0926 14:52:17.247460  4911 net.cpp:122] Setting up Eltwise27
I0926 14:52:17.247464  4911 net.cpp:129] Top shape: 100 64 8 8 (409600)
I0926 14:52:17.247467  4911 net.cpp:137] Memory required for data: 1185793200
I0926 14:52:17.247475  4911 layer_factory.hpp:77] Creating layer penlu55
I0926 14:52:17.247481  4911 net.cpp:84] Creating Layer penlu55
I0926 14:52:17.247483  4911 net.cpp:406] penlu55 <- Eltwise27
I0926 14:52:17.247488  4911 net.cpp:367] penlu55 -> Eltwise27 (in-place)
I0926 14:52:17.247609  4911 net.cpp:122] Setting up penlu55
I0926 14:52:17.247615  4911 net.cpp:129] Top shape: 100 64 8 8 (409600)
I0926 14:52:17.247617  4911 net.cpp:137] Memory required for data: 1187431600
I0926 14:52:17.247622  4911 layer_factory.hpp:77] Creating layer Pooling1
I0926 14:52:17.247627  4911 net.cpp:84] Creating Layer Pooling1
I0926 14:52:17.247628  4911 net.cpp:406] Pooling1 <- Eltwise27
I0926 14:52:17.247632  4911 net.cpp:380] Pooling1 -> Pooling1
I0926 14:52:17.248116  4911 net.cpp:122] Setting up Pooling1
I0926 14:52:17.248124  4911 net.cpp:129] Top shape: 100 64 1 1 (6400)
I0926 14:52:17.262811  4911 net.cpp:137] Memory required for data: 1187457200
I0926 14:52:17.262821  4911 layer_factory.hpp:77] Creating layer InnerProduct1
I0926 14:52:17.262828  4911 net.cpp:84] Creating Layer InnerProduct1
I0926 14:52:17.262831  4911 net.cpp:406] InnerProduct1 <- Pooling1
I0926 14:52:17.262837  4911 net.cpp:380] InnerProduct1 -> InnerProduct1
I0926 14:52:17.262966  4911 net.cpp:122] Setting up InnerProduct1
I0926 14:52:17.262972  4911 net.cpp:129] Top shape: 100 10 (1000)
I0926 14:52:17.262975  4911 net.cpp:137] Memory required for data: 1187461200
I0926 14:52:17.262979  4911 layer_factory.hpp:77] Creating layer InnerProduct1_InnerProduct1_0_split
I0926 14:52:17.262984  4911 net.cpp:84] Creating Layer InnerProduct1_InnerProduct1_0_split
I0926 14:52:17.262986  4911 net.cpp:406] InnerProduct1_InnerProduct1_0_split <- InnerProduct1
I0926 14:52:17.262990  4911 net.cpp:380] InnerProduct1_InnerProduct1_0_split -> InnerProduct1_InnerProduct1_0_split_0
I0926 14:52:17.262996  4911 net.cpp:380] InnerProduct1_InnerProduct1_0_split -> InnerProduct1_InnerProduct1_0_split_1
I0926 14:52:17.263025  4911 net.cpp:122] Setting up InnerProduct1_InnerProduct1_0_split
I0926 14:52:17.263029  4911 net.cpp:129] Top shape: 100 10 (1000)
I0926 14:52:17.263032  4911 net.cpp:129] Top shape: 100 10 (1000)
I0926 14:52:17.263034  4911 net.cpp:137] Memory required for data: 1187469200
I0926 14:52:17.263036  4911 layer_factory.hpp:77] Creating layer SoftmaxWithLoss1
I0926 14:52:17.263042  4911 net.cpp:84] Creating Layer SoftmaxWithLoss1
I0926 14:52:17.263046  4911 net.cpp:406] SoftmaxWithLoss1 <- InnerProduct1_InnerProduct1_0_split_0
I0926 14:52:17.263048  4911 net.cpp:406] SoftmaxWithLoss1 <- Data2_Data1_1_split_0
…
