…
I0927 14:49:10.679141  3463 net.cpp:294] The NetState phase (0) differed from the phase (1) specified by a rule in layer Accuracy1
I0927 14:49:10.680235  3463 net.cpp:51] Initializing net from parameters: 
name: "resnet_cifar10"
state {
  phase: TRAIN
  level: 0
  stage: ""
}
layer {
  name: "Data1"
  type: "Data"
  top: "Data1"
  top: "Data2"
  include {
    phase: TRAIN
  }
  transform_param {
    mirror: true
    crop_size: 28
    mean_file: "/home/x306/caffe/xn/PENLU/data/cifar10/mean.binaryproto"
  }
  data_param {
    source: "/home/x306/caffe/xn/PENLU/data/cifar10/cifar10_train_lmdb"
    batch_size: 100
    backend: LMDB
  }
}
layer {
  name: "Convolution1"
  type: "Convolution"
  bottom: "Data1"
  top: "Convolution1"
  param {
    lr_mult: 1
    decay_mult: 1
  }
  param {
    lr_mult: 2
    decay_mult: 0
  }
  convolution_param {
    num_output: 16
    pad: 1
    kernel_size: 3
    stride: 1
    weight_filler {
      type: "gaussian"
      std: 0.118
    }
    bias_filler {
      type: "constant"
      value: 0
    }
  }
}
layer {
  name: "BatchNorm1"
  type: "BatchNorm"
  bottom: "Convolution1"
  top: "Convolution1"
  param {
    lr_mult: 0
    decay_mult: 0
  }
  param {
    lr_mult: 0
    decay_mult: 0
  }
  param {
    lr_mult: 0
    decay_mult: 0
  }
}
layer {
  name: "Scale1"
  type: "Scale"
  bottom: "Convolution1"
  top: "Convolution1"
  scale_param {
    bias_term: true
  }
}
layer {
  name: "M2PELU1"
  type: "M2PELU"
  bottom: "Convolution1"
  top: "Convolution1"
  param {
    lr_mult: 2
    decay_mult: 2
  }
  param {
    lr_mult: 2
    decay_mult: 2
  }
  m2pelu_param {
    alpha_filler {
      type: "constant"
      value: 0.25
    }
    beta_filler {
      type: "constant"
      value: 1
    }
  }
}
layer {
  name: "Convolution2"
  type: "Convolution"
  bottom: "Convolution1"
  top: "Convolution2"
  param {
    lr_mult: 1
    decay_mult: 1
  }
  param {
    lr_mult: 2
    decay_mult: 0
  }
  convolution_param {
    num_output: 16
    pad: 1
    kernel_size: 3
    stride: 1
    weight_filler {
      type: "gaussian"
      std: 0.118
    }
    bias_filler {
      type: "constant"
      value: 0
    }
  }
}
layer {
  name: "BatchNorm2"
  type: "BatchNorm"
  bottom: "Convolution2"
  top: "Convolution2"
  param {
    lr_mult: 0
    decay_mult: 0
  }
  param {
    lr_mult: 0
    decay_mult: 0
  }
  param {
    lr_mult: 0
    decay_mult: 0
  }
}
layer {
  name: "Scale2"
  type: "Scale"
  bottom: "Convolution2"
  top: "Convolution2"
  scale_param {
    bias_term: true
  }
}
layer {
  name: "M2PELU2"
  type: "M2PELU"
  bottom: "Convolution2"
  top: "Convolution2"
  param {
    lr_mult: 2
    decay_mult: 2
  }
  param {
    lr_mult: 2
    decay_mult: 2
  }
  m2pelu_param {
    alpha_filler {
      type: "constant"
      value: 0.25
    }
    beta_filler {
      type: "constant"
      value: 1
    }
  }
}
layer {
  name: "Convolution3"
  type: "Convolution"
  bottom: "Convolution2"
  top: "Convolution3"
  param {
    lr_mult: 1
    decay_mult: 1
  }
  param {
    lr_mult: 2
    decay_mult: 0
  }
  convolution_param {
    num_output: 16
    pad: 1
    kernel_size: 3
    stride: 1
    weight_filler {
      type: "gaussian"
      std: 0.118
    }
    bias_filler {
      type: "constant"
      value: 0
    }
  }
}
layer {
  name: "BatchNorm3"
  type: "BatchNorm"
  bottom: "Convolution3"
  top: "Convolution3"
  param {
    lr_mult: 0
    decay_mult: 0
  }
  param {
    lr_mult: 0
    decay_mult: 0
  }
  param {
    lr_mult: 0
    decay_mult: 0
  }
}
layer {
  name: "Scale3"
  type: "Scale"
  bottom: "Convolution3"
  top: "Convolution3"
  scale_param {
    bias_term: true
  }
}
layer {
  name: "Eltwise1"
  type: "Eltwise"
  bottom: "Convolution1"
  bottom: "Convolution3"
  top: "Eltwise1"
  eltwise_param {
    operation: SUM
  }
}
layer {
  name: "M2PELU3"
  type: "M2PELU"
  bottom: "Eltwise1"
  top: "Eltwise1"
  param {
    lr_mult: 2
    decay_mult: 2
  }
  param {
    lr_mult: 2
    decay_mult: 2
  }
  m2pelu_param {
    alpha_filler {
      type: "constant"
      value: 0.25
    }
    beta_filler {
      type: "constant"
      value: 1
    }
  }
}
layer {
  name: "Convolution4"
  type: "Convolution"
  bottom: "Eltwise1"
  top: "Convolution4"
  param {
    lr_mult: 1
    decay_mult: 1
  }
  param {
    lr_mult: 2
    decay_mult: 0
  }
  convolution_param {
    num_output: 16
    pad: 1
    kernel_size: 3
    stride: 1
    weight_filler {
      type: "gaussian"
      std: 0.118
    }
    bias_filler {
      type: "constant"
      value: 0
    }
  }
}
layer {
  name: "BatchNorm4"
  type: "BatchNorm"
  bottom: "Convolution4"
  top: "Convolution4"
  param {
    lr_mult: 0
    decay_mult: 0
  }
  param {
    lr_mult: 0
    decay_mult: 0
  }
  param {
    lr_mult: 0
    decay_mult: 0
  }
}
layer {
  name: "Scale4"
  type: "Scale"
  bottom: "Convolution4"
  top: "Convolution4"
  scale_param {
    bias_term: true
  }
}
layer {
  name: "M2PELU4"
  type: "M2PELU"
  bottom: "Convolution4"
  top: "Convolution4"
  param {
    lr_mult: 2
    decay_mult: 2
  }
  param {
    lr_mult: 2
    decay_mult: 2
  }
  m2pelu_param {
    alpha_filler {
      type: "constant"
      value: 0.25
    }
    beta_filler {
      type: "constant"
      value: 1
    }
  }
}
layer {
  name: "Convolution5"
  type: "Convolution"
  bottom: "Convolution4"
  top: "Convolution5"
  param {
    lr_mult: 1
    decay_mult: 1
  }
  param {
    lr_mult: 2
    decay_mult: 0
  }
  convolution_param {
    num_output: 16
    pad: 1
    kernel_size: 3
    stride: 1
    weight_filler {
      type: "gaussian"
      std: 0.118
    }
    bias_filler {
      type: "constant"
      value: 0
    }
  }
}
layer {
  name: "BatchNorm5"
  type: "BatchNorm"
  bottom: "Convolution5"
  top: "Convolution5"
  param {
    lr_mult: 0
    decay_mult: 0
  }
  param {
    lr_mult: 0
    decay_mult: 0
  }
  param {
    lr_mult: 0
    decay_mult: 0
  }
}
layer {
  name: "Scale5"
  type: "Scale"
  bottom: "Convolution5"
  top: "Convolution5"
  scale_param {
    bias_term: true
  }
}
layer {
  name: "Eltwise2"
  type: "Eltwise"
  bottom: "Eltwise1"
  bottom: "Convolution5"
  top: "Eltwise2"
  eltwise_param {
    operation: SUM
  }
}
layer {
  name: "M2PELU5"
  type: "M2PELU"
  bottom: "Eltwise2"
  top: "Eltwise2"
  param {
    lr_mult: 2
    decay_mult: 2
  }
  param {
    lr_mult: 2
    decay_mult: 2
  }
  m2pelu_param {
    alpha_filler {
      type: "constant"
      value: 0.25
    }
    beta_filler {
      type: "constant"
      value: 1
    }
  }
}
layer {
  name: "Convolution6"
  type: "Convolution"
  bottom: "Eltwise2"
  top: "Convolution6"
  param {
    lr_mult: 1
    decay_mult: 1
  }
  param {
    lr_mult: 2
    decay_mult: 0
  }
  convolution_param {
    num_output: 16
    pad: 1
    kernel_size: 3
    stride: 1
    weight_filler {
      type: "gaussian"
      std: 0.118
    }
    bias_filler {
      type: "constant"
      value: 0
    }
  }
}
layer {
  name: "BatchNorm6"
  type: "BatchNorm"
  bottom: "Convolution6"
  top: "Convolution6"
  param {
    lr_mult: 0
    decay_mult: 0
  }
  param {
    lr_mult: 0
    decay_mult: 0
  }
  param {
    lr_mult: 0
    decay_mult: 0
  }
}
layer {
  name: "Scale6"
  type: "Scale"
  bottom: "Convolution6"
  top: "Convolution6"
  scale_param {
    bias_term: true
  }
}
layer {
  name: "M2PELU6"
  type: "M2PELU"
  bottom: "Convolution6"
  top: "Convolution6"
  param {
    lr_mult: 2
    decay_mult: 2
  }
  param {
    lr_mult: 2
    decay_mult: 2
  }
  m2pelu_param {
    alpha_filler {
      type: "constant"
      value: 0.25
    }
    beta_filler {
      type: "constant"
      value: 1
    }
  }
}
layer {
  name: "Convolution7"
  type: "Convolution"
  bottom: "Convolution6"
  top: "Convolution7"
  param {
    lr_mult: 1
    decay_mult: 1
  }
  param {
    lr_mult: 2
    decay_mult: 0
  }
  convolution_param {
    num_output: 16
    pad: 1
    kernel_size: 3
    stride: 1
    weight_filler {
      type: "gaussian"
      std: 0.118
    }
    bias_filler {
      type: "constant"
      value: 0
    }
  }
}
layer {
  name: "BatchNorm7"
  type: "BatchNorm"
  bottom: "Convolution7"
  top: "Convolution7"
  param {
    lr_mult: 0
    decay_mult: 0
  }
  param {
    lr_mult: 0
    decay_mult: 0
  }
  param {
    lr_mult: 0
    decay_mult: 0
  }
}
layer {
  name: "Scale7"
  type: "Scale"
  bottom: "Convolution7"
  top: "Convolution7"
  scale_param {
    bias_term: true
  }
}
layer {
  name: "Eltwise3"
  type: "Eltwise"
  bottom: "Eltwise2"
  bottom: "Convolution7"
  top: "Eltwise3"
  eltwise_param {
    operation: SUM
  }
}
layer {
  name: "M2PELU7"
  type: "M2PELU"
  bottom: "Eltwise3"
  top: "Eltwise3"
  param {
    lr_mult: 2
    decay_mult: 2
  }
  param {
    lr_mult: 2
    decay_mult: 2
  }
  m2pelu_param {
    alpha_filler {
      type: "constant"
      value: 0.25
    }
    beta_filler {
      type: "constant"
      value: 1
    }
  }
}
layer {
  name: "Convolution8"
  type: "Convolution"
  bottom: "Eltwise3"
  top: "Convolution8"
  param {
    lr_mult: 1
    decay_mult: 1
  }
  param {
    lr_mult: 2
    decay_mult: 0
  }
  convolution_param {
    num_output: 16
    pad: 1
    kernel_size: 3
    stride: 1
    weight_filler {
      type: "gaussian"
      std: 0.118
    }
    bias_filler {
      type: "constant"
      value: 0
    }
  }
}
layer {
  name: "BatchNorm8"
  type: "BatchNorm"
  bottom: "Convolution8"
  top: "Convolution8"
  param {
    lr_mult: 0
    decay_mult: 0
  }
  param {
    lr_mult: 0
    decay_mult: 0
  }
  param {
    lr_mult: 0
    decay_mult: 0
  }
}
layer {
  name: "Scale8"
  type: "Scale"
  bottom: "Convolution8"
  top: "Convolution8"
  scale_param {
    bias_term: true
  }
}
layer {
  name: "M2PELU8"
  type: "M2PELU"
  bottom: "Convolution8"
  top: "Convolution8"
  param {
    lr_mult: 2
    decay_mult: 2
  }
  param {
    lr_mult: 2
    decay_mult: 2
  }
  m2pelu_param {
    alpha_filler {
      type: "constant"
      value: 0.25
    }
    beta_filler {
      type: "constant"
      value: 1
    }
  }
}
layer {
  name: "Convolution9"
  type: "Convolution"
  bottom: "Convolution8"
  top: "Convolution9"
  param {
    lr_mult: 1
    decay_mult: 1
  }
  param {
    lr_mult: 2
    decay_mult: 0
  }
  convolution_param {
    num_output: 16
    pad: 1
    kernel_size: 3
    stride: 1
    weight_filler {
      type: "gaussian"
      std: 0.118
    }
    bias_filler {
      type: "constant"
      value: 0
    }
  }
}
layer {
  name: "BatchNorm9"
  type: "BatchNorm"
  bottom: "Convolution9"
  top: "Convolution9"
  param {
    lr_mult: 0
    decay_mult: 0
  }
  param {
    lr_mult: 0
    decay_mult: 0
  }
  param {
    lr_mult: 0
    decay_mult: 0
  }
}
layer {
  name: "Scale9"
  type: "Scale"
  bottom: "Convolution9"
  top: "Convolution9"
  scale_param {
    bias_term: true
  }
}
layer {
  name: "Eltwise4"
  type: "Eltwise"
  bottom: "Eltwise3"
  bottom: "Convolution9"
  top: "Eltwise4"
  eltwise_param {
    operation: SUM
  }
}
layer {
  name: "M2PELU9"
  type: "M2PELU"
  bottom: "Eltwise4"
  top: "Eltwise4"
  param {
    lr_mult: 2
    decay_mult: 2
  }
  param {
    lr_mult: 2
    decay_mult: 2
  }
  m2pelu_param {
    alpha_filler {
      type: "constant"
      value: 0.25
    }
    beta_filler {
      type: "constant"
      value: 1
    }
  }
}
layer {
  name: "Convolution10"
  type: "Convolution"
  bottom: "Eltwise4"
  top: "Convolution10"
  param {
    lr_mult: 1
    decay_mult: 1
  }
  param {
    lr_mult: 2
    decay_mult: 0
  }
  convolution_param {
    num_output: 16
    pad: 1
    kernel_size: 3
    stride: 1
    weight_filler {
      type: "gaussian"
      std: 0.118
    }
    bias_filler {
      type: "constant"
      value: 0
    }
  }
}
layer {
  name: "BatchNorm10"
  type: "BatchNorm"
  bottom: "Convolution10"
  top: "Convolution10"
  param {
    lr_mult: 0
    decay_mult: 0
  }
  param {
    lr_mult: 0
    decay_mult: 0
  }
  param {
    lr_mult: 0
    decay_mult: 0
  }
}
layer {
  name: "Scale10"
  type: "Scale"
  bottom: "Convolution10"
  top: "Convolution10"
  scale_param {
    bias_term: true
  }
}
layer {
  name: "M2PELU10"
  type: "M2PELU"
  bottom: "Convolution10"
  top: "Convolution10"
  param {
    lr_mult: 2
    decay_mult: 2
  }
  param {
    lr_mult: 2
    decay_mult: 2
  }
  m2pelu_param {
    alpha_filler {
      type: "constant"
      value: 0.25
    }
    beta_filler {
      type: "constant"
      value: 1
    }
  }
}
layer {
  name: "Convolution11"
  type: "Convolution"
  bottom: "Convolution10"
  top: "Convolution11"
  param {
    lr_mult: 1
    decay_mult: 1
  }
  param {
    lr_mult: 2
    decay_mult: 0
  }
  convolution_param {
    num_output: 16
    pad: 1
    kernel_size: 3
    stride: 1
    weight_filler {
      type: "gaussian"
      std: 0.118
    }
    bias_filler {
      type: "constant"
      value: 0
    }
  }
}
layer {
  name: "BatchNorm11"
  type: "BatchNorm"
  bottom: "Convolution11"
  top: "Convolution11"
  param {
    lr_mult: 0
    decay_mult: 0
  }
  param {
    lr_mult: 0
    decay_mult: 0
  }
  param {
    lr_mult: 0
    decay_mult: 0
  }
}
layer {
  name: "Scale11"
  type: "Scale"
  bottom: "Convolution11"
  top: "Convolution11"
  scale_param {
    bias_term: true
  }
}
layer {
  name: "Eltwise5"
  type: "Eltwise"
  bottom: "Eltwise4"
  bottom: "Convolution11"
  top: "Eltwise5"
  eltwise_param {
    operation: SUM
  }
}
layer {
  name: "M2PELU11"
  type: "M2PELU"
  bottom: "Eltwise5"
  top: "Eltwise5"
  param {
    lr_mult: 2
    decay_mult: 2
  }
  param {
    lr_mult: 2
    decay_mult: 2
  }
  m2pelu_param {
    alpha_filler {
      type: "constant"
      value: 0.25
    }
    beta_filler {
      type: "constant"
      value: 1
    }
  }
}
layer {
  name: "Convolution12"
  type: "Convolution"
  bottom: "Eltwise5"
  top: "Convolution12"
  param {
    lr_mult: 1
    decay_mult: 1
  }
  param {
    lr_mult: 2
    decay_mult: 0
  }
  convolution_param {
    num_output: 16
    pad: 1
    kernel_size: 3
    stride: 1
    weight_filler {
      type: "gaussian"
      std: 0.118
    }
    bias_filler {
      type: "constant"
      value: 0
    }
  }
}
layer {
  name: "BatchNorm12"
  type: "BatchNorm"
  bottom: "Convolution12"
  top: "Convolution12"
  param {
    lr_mult: 0
    decay_mult: 0
  }
  param {
    lr_mult: 0
    decay_mult: 0
  }
  param {
    lr_mult: 0
    decay_mult: 0
  }
}
layer {
  name: "Scale12"
  type: "Scale"
  bottom: "Convolution12"
  top: "Convolution12"
  scale_param {
    bias_term: true
  }
}
layer {
  name: "M2PELU12"
  type: "M2PELU"
  bottom: "Convolution12"
  top: "Convolution12"
  param {
    lr_mult: 2
    decay_mult: 2
  }
  param {
    lr_mult: 2
    decay_mult: 2
  }
  m2pelu_param {
    alpha_filler {
      type: "constant"
      value: 0.25
    }
    beta_filler {
      type: "constant"
      value: 1
    }
  }
}
layer {
  name: "Convolution13"
  type: "Convolution"
  bottom: "Convolution12"
  top: "Convolution13"
  param {
    lr_mult: 1
    decay_mult: 1
  }
  param {
    lr_mult: 2
    decay_mult: 0
  }
  convolution_param {
    num_output: 16
    pad: 1
    kernel_size: 3
    stride: 1
    weight_filler {
      type: "gaussian"
      std: 0.118
    }
    bias_filler {
      type: "constant"
      value: 0
    }
  }
}
layer {
  name: "BatchNorm13"
  type: "BatchNorm"
  bottom: "Convolution13"
  top: "Convolution13"
  param {
    lr_mult: 0
    decay_mult: 0
  }
  param {
    lr_mult: 0
    decay_mult: 0
  }
  param {
    lr_mult: 0
    decay_mult: 0
  }
}
layer {
  name: "Scale13"
  type: "Scale"
  bottom: "Convolution13"
  top: "Convolution13"
  scale_param {
    bias_term: true
  }
}
layer {
  name: "Eltwise6"
  type: "Eltwise"
  bottom: "Eltwise5"
  bottom: "Convolution13"
  top: "Eltwise6"
  eltwise_param {
    operation: SUM
  }
}
layer {
  name: "M2PELU13"
  type: "M2PELU"
  bottom: "Eltwise6"
  top: "Eltwise6"
  param {
    lr_mult: 2
    decay_mult: 2
  }
  param {
    lr_mult: 2
    decay_mult: 2
  }
  m2pelu_param {
    alpha_filler {
      type: "constant"
      value: 0.25
    }
    beta_filler {
      type: "constant"
      value: 1
    }
  }
}
layer {
  name: "Convolution14"
  type: "Convolution"
  bottom: "Eltwise6"
  top: "Convolution14"
  param {
    lr_mult: 1
    decay_mult: 1
  }
  param {
    lr_mult: 2
    decay_mult: 0
  }
  convolution_param {
    num_output: 16
    pad: 1
    kernel_size: 3
    stride: 1
    weight_filler {
      type: "gaussian"
      std: 0.118
    }
    bias_filler {
      type: "constant"
      value: 0
    }
  }
}
layer {
  name: "BatchNorm14"
  type: "BatchNorm"
  bottom: "Convolution14"
  top: "Convolution14"
  param {
    lr_mult: 0
    decay_mult: 0
  }
  param {
    lr_mult: 0
    decay_mult: 0
  }
  param {
    lr_mult: 0
    decay_mult: 0
  }
}
layer {
  name: "Scale14"
  type: "Scale"
  bottom: "Convolution14"
  top: "Convolution14"
  scale_param {
    bias_term: true
  }
}
layer {
  name: "M2PELU14"
  type: "M2PELU"
  bottom: "Convolution14"
  top: "Convolution14"
  param {
    lr_mult: 2
    decay_mult: 2
  }
  param {
    lr_mult: 2
    decay_mult: 2
  }
  m2pelu_param {
    alpha_filler {
      type: "constant"
      value: 0.25
    }
    beta_filler {
      type: "constant"
      value: 1
    }
  }
}
layer {
  name: "Convolution15"
  type: "Convolution"
  bottom: "Convolution14"
  top: "Convolution15"
  param {
    lr_mult: 1
    decay_mult: 1
  }
  param {
    lr_mult: 2
    decay_mult: 0
  }
  convolution_param {
    num_output: 16
    pad: 1
    kernel_size: 3
    stride: 1
    weight_filler {
      type: "gaussian"
      std: 0.118
    }
    bias_filler {
      type: "constant"
      value: 0
    }
  }
}
layer {
  name: "BatchNorm15"
  type: "BatchNorm"
  bottom: "Convolution15"
  top: "Convolution15"
  param {
    lr_mult: 0
    decay_mult: 0
  }
  param {
    lr_mult: 0
    decay_mult: 0
  }
  param {
    lr_mult: 0
    decay_mult: 0
  }
}
layer {
  name: "Scale15"
  type: "Scale"
  bottom: "Convolution15"
  top: "Convolution15"
  scale_param {
    bias_term: true
  }
}
layer {
  name: "Eltwise7"
  type: "Eltwise"
  bottom: "Eltwise6"
  bottom: "Convolution15"
  top: "Eltwise7"
  eltwise_param {
    operation: SUM
  }
}
layer {
  name: "M2PELU15"
  type: "M2PELU"
  bottom: "Eltwise7"
  top: "Eltwise7"
  param {
    lr_mult: 2
    decay_mult: 2
  }
  param {
    lr_mult: 2
    decay_mult: 2
  }
  m2pelu_param {
    alpha_filler {
      type: "constant"
      value: 0.25
    }
    beta_filler {
      type: "constant"
      value: 1
    }
  }
}
layer {
  name: "Convolution16"
  type: "Convolution"
  bottom: "Eltwise7"
  top: "Convolution16"
  param {
    lr_mult: 1
    decay_mult: 1
  }
  param {
    lr_mult: 2
    decay_mult: 0
  }
  convolution_param {
    num_output: 16
    pad: 1
    kernel_size: 3
    stride: 1
    weight_filler {
      type: "gaussian"
      std: 0.118
    }
    bias_filler {
      type: "constant"
      value: 0
    }
  }
}
layer {
  name: "BatchNorm16"
  type: "BatchNorm"
  bottom: "Convolution16"
  top: "Convolution16"
  param {
    lr_mult: 0
    decay_mult: 0
  }
  param {
    lr_mult: 0
    decay_mult: 0
  }
  param {
    lr_mult: 0
    decay_mult: 0
  }
}
layer {
  name: "Scale16"
  type: "Scale"
  bottom: "Convolution16"
  top: "Convolution16"
  scale_param {
    bias_term: true
  }
}
layer {
  name: "M2PELU16"
  type: "M2PELU"
  bottom: "Convolution16"
  top: "Convolution16"
  param {
    lr_mult: 2
    decay_mult: 2
  }
  param {
    lr_mult: 2
    decay_mult: 2
  }
  m2pelu_param {
    alpha_filler {
      type: "constant"
      value: 0.25
    }
    beta_filler {
      type: "constant"
      value: 1
    }
  }
}
layer {
  name: "Convolution17"
  type: "Convolution"
  bottom: "Convolution16"
  top: "Convolution17"
  param {
    lr_mult: 1
    decay_mult: 1
  }
  param {
    lr_mult: 2
    decay_mult: 0
  }
  convolution_param {
    num_output: 16
    pad: 1
    kernel_size: 3
    stride: 1
    weight_filler {
      type: "gaussian"
      std: 0.118
    }
    bias_filler {
      type: "constant"
      value: 0
    }
  }
}
layer {
  name: "BatchNorm17"
  type: "BatchNorm"
  bottom: "Convolution17"
  top: "Convolution17"
  param {
    lr_mult: 0
    decay_mult: 0
  }
  param {
    lr_mult: 0
    decay_mult: 0
  }
  param {
    lr_mult: 0
    decay_mult: 0
  }
}
layer {
  name: "Scale17"
  type: "Scale"
  bottom: "Convolution17"
  top: "Convolution17"
  scale_param {
    bias_term: true
  }
}
layer {
  name: "Eltwise8"
  type: "Eltwise"
  bottom: "Eltwise7"
  bottom: "Convolution17"
  top: "Eltwise8"
  eltwise_param {
    operation: SUM
  }
}
layer {
  name: "M2PELU17"
  type: "M2PELU"
  bottom: "Eltwise8"
  top: "Eltwise8"
  param {
    lr_mult: 2
    decay_mult: 2
  }
  param {
    lr_mult: 2
    decay_mult: 2
  }
  m2pelu_param {
    alpha_filler {
      type: "constant"
      value: 0.25
    }
    beta_filler {
      type: "constant"
      value: 1
    }
  }
}
layer {
  name: "Convolution18"
  type: "Convolution"
  bottom: "Eltwise8"
  top: "Convolution18"
  param {
    lr_mult: 1
    decay_mult: 1
  }
  param {
    lr_mult: 2
    decay_mult: 0
  }
  convolution_param {
    num_output: 16
    pad: 1
    kernel_size: 3
    stride: 1
    weight_filler {
      type: "gaussian"
      std: 0.118
    }
    bias_filler {
      type: "constant"
      value: 0
    }
  }
}
layer {
  name: "BatchNorm18"
  type: "BatchNorm"
  bottom: "Convolution18"
  top: "Convolution18"
  param {
    lr_mult: 0
    decay_mult: 0
  }
  param {
    lr_mult: 0
    decay_mult: 0
  }
  param {
    lr_mult: 0
    decay_mult: 0
  }
}
layer {
  name: "Scale18"
  type: "Scale"
  bottom: "Convolution18"
  top: "Convolution18"
  scale_param {
    bias_term: true
  }
}
layer {
  name: "M2PELU18"
  type: "M2PELU"
  bottom: "Convolution18"
  top: "Convolution18"
  param {
    lr_mult: 2
    decay_mult: 2
  }
  param {
    lr_mult: 2
    decay_mult: 2
  }
  m2pelu_param {
    alpha_filler {
      type: "constant"
      value: 0.25
    }
    beta_filler {
      type: "constant"
      value: 1
    }
  }
}
layer {
  name: "Convolution19"
  type: "Convolution"
  bottom: "Convolution18"
  top: "Convolution19"
  param {
    lr_mult: 1
    decay_mult: 1
  }
  param {
    lr_mult: 2
    decay_mult: 0
  }
  convolution_param {
    num_output: 16
    pad: 1
    kernel_size: 3
    stride: 1
    weight_filler {
      type: "gaussian"
      std: 0.118
    }
    bias_filler {
      type: "constant"
      value: 0
    }
  }
}
layer {
  name: "BatchNorm19"
  type: "BatchNorm"
  bottom: "Convolution19"
  top: "Convolution19"
  param {
    lr_mult: 0
    decay_mult: 0
  }
  param {
    lr_mult: 0
    decay_mult: 0
  }
  param {
    lr_mult: 0
    decay_mult: 0
  }
}
layer {
  name: "Scale19"
  type: "Scale"
  bottom: "Convolution19"
  top: "Convolution19"
  scale_param {
    bias_term: true
  }
}
layer {
  name: "Eltwise9"
  type: "Eltwise"
  bottom: "Eltwise8"
  bottom: "Convolution19"
  top: "Eltwise9"
  eltwise_param {
    operation: SUM
  }
}
layer {
  name: "M2PELU19"
  type: "M2PELU"
  bottom: "Eltwise9"
  top: "Eltwise9"
  param {
    lr_mult: 2
    decay_mult: 2
  }
  param {
    lr_mult: 2
    decay_mult: 2
  }
  m2pelu_param {
    alpha_filler {
      type: "constant"
      value: 0.25
    }
    beta_filler {
      type: "constant"
      value: 1
    }
  }
}
layer {
  name: "Convolution20"
  type: "Convolution"
  bottom: "Eltwise9"
  top: "Convolution20"
  param {
    lr_mult: 1
    decay_mult: 1
  }
  param {
    lr_mult: 2
    decay_mult: 0
  }
  convolution_param {
    num_output: 32
    pad: 0
    kernel_size: 1
    stride: 2
    weight_filler {
      type: "gaussian"
      std: 0.25
    }
    bias_filler {
      type: "constant"
      value: 0
    }
  }
}
layer {
  name: "BatchNorm20"
  type: "BatchNorm"
  bottom: "Convolution20"
  top: "Convolution20"
  param {
    lr_mult: 0
    decay_mult: 0
  }
  param {
    lr_mult: 0
    decay_mult: 0
  }
  param {
    lr_mult: 0
    decay_mult: 0
  }
}
layer {
  name: "Scale20"
  type: "Scale"
  bottom: "Convolution20"
  top: "Convolution20"
  scale_param {
    bias_term: true
  }
}
layer {
  name: "Convolution21"
  type: "Convolution"
  bottom: "Eltwise9"
  top: "Convolution21"
  param {
    lr_mult: 1
    decay_mult: 1
  }
  param {
    lr_mult: 2
    decay_mult: 0
  }
  convolution_param {
    num_output: 32
    pad: 1
    kernel_size: 3
    stride: 2
    weight_filler {
      type: "gaussian"
      std: 0.083
    }
    bias_filler {
      type: "constant"
      value: 0
    }
  }
}
layer {
  name: "BatchNorm21"
  type: "BatchNorm"
  bottom: "Convolution21"
  top: "Convolution21"
  param {
    lr_mult: 0
    decay_mult: 0
  }
  param {
    lr_mult: 0
    decay_mult: 0
  }
  param {
    lr_mult: 0
    decay_mult: 0
  }
}
layer {
  name: "Scale21"
  type: "Scale"
  bottom: "Convolution21"
  top: "Convolution21"
  scale_param {
    bias_term: true
  }
}
layer {
  name: "M2PELU20"
  type: "M2PELU"
  bottom: "Convolution21"
  top: "Convolution21"
  param {
    lr_mult: 2
    decay_mult: 2
  }
  param {
    lr_mult: 2
    decay_mult: 2
  }
  m2pelu_param {
    alpha_filler {
      type: "constant"
      value: 0.25
    }
    beta_filler {
      type: "constant"
      value: 1
    }
  }
}
layer {
  name: "Convolution22"
  type: "Convolution"
  bottom: "Convolution21"
  top: "Convolution22"
  param {
    lr_mult: 1
    decay_mult: 1
  }
  param {
    lr_mult: 2
    decay_mult: 0
  }
  convolution_param {
    num_output: 32
    pad: 1
    kernel_size: 3
    stride: 1
    weight_filler {
      type: "gaussian"
      std: 0.083
    }
    bias_filler {
      type: "constant"
      value: 0
    }
  }
}
layer {
  name: "BatchNorm22"
  type: "BatchNorm"
  bottom: "Convolution22"
  top: "Convolution22"
  param {
    lr_mult: 0
    decay_mult: 0
  }
  param {
    lr_mult: 0
    decay_mult: 0
  }
  param {
    lr_mult: 0
    decay_mult: 0
  }
}
layer {
  name: "Scale22"
  type: "Scale"
  bottom: "Convolution22"
  top: "Convolution22"
  scale_param {
    bias_term: true
  }
}
layer {
  name: "Eltwise10"
  type: "Eltwise"
  bottom: "Convolution20"
  bottom: "Convolution22"
  top: "Eltwise10"
  eltwise_param {
    operation: SUM
  }
}
layer {
  name: "M2PELU21"
  type: "M2PELU"
  bottom: "Eltwise10"
  top: "Eltwise10"
  param {
    lr_mult: 2
    decay_mult: 2
  }
  param {
    lr_mult: 2
    decay_mult: 2
  }
  m2pelu_param {
    alpha_filler {
      type: "constant"
      value: 0.25
    }
    beta_filler {
      type: "constant"
      value: 1
    }
  }
}
layer {
  name: "Convolution23"
  type: "Convolution"
  bottom: "Eltwise10"
  top: "Convolution23"
  param {
    lr_mult: 1
    decay_mult: 1
  }
  param {
    lr_mult: 2
    decay_mult: 0
  }
  convolution_param {
    num_output: 32
    pad: 1
    kernel_size: 3
    stride: 1
    weight_filler {
      type: "gaussian"
      std: 0.083
    }
    bias_filler {
      type: "constant"
      value: 0
    }
  }
}
layer {
  name: "BatchNorm23"
  type: "BatchNorm"
  bottom: "Convolution23"
  top: "Convolution23"
  param {
    lr_mult: 0
    decay_mult: 0
  }
  param {
    lr_mult: 0
    decay_mult: 0
  }
  param {
    lr_mult: 0
    decay_mult: 0
  }
}
layer {
  name: "Scale23"
  type: "Scale"
  bottom: "Convolution23"
  top: "Convolution23"
  scale_param {
    bias_term: true
  }
}
layer {
  name: "M2PELU22"
  type: "M2PELU"
  bottom: "Convolution23"
  top: "Convolution23"
  param {
    lr_mult: 2
    decay_mult: 2
  }
  param {
    lr_mult: 2
    decay_mult: 2
  }
  m2pelu_param {
    alpha_filler {
      type: "constant"
      value: 0.25
    }
    beta_filler {
      type: "constant"
      value: 1
    }
  }
}
layer {
  name: "Convolution24"
  type: "Convolution"
  bottom: "Convolution23"
  top: "Convolution24"
  param {
    lr_mult: 1
    decay_mult: 1
  }
  param {
    lr_mult: 2
    decay_mult: 0
  }
  convolution_param {
    num_output: 32
    pad: 1
    kernel_size: 3
    stride: 1
    weight_filler {
      type: "gaussian"
      std: 0.083
    }
    bias_filler {
      type: "constant"
      value: 0
    }
  }
}
layer {
  name: "BatchNorm24"
  type: "BatchNorm"
  bottom: "Convolution24"
  top: "Convolution24"
  param {
    lr_mult: 0
    decay_mult: 0
  }
  param {
    lr_mult: 0
    decay_mult: 0
  }
  param {
    lr_mult: 0
    decay_mult: 0
  }
}
layer {
  name: "Scale24"
  type: "Scale"
  bottom: "Convolution24"
  top: "Convolution24"
  scale_param {
    bias_term: true
  }
}
layer {
  name: "Eltwise11"
  type: "Eltwise"
  bottom: "Eltwise10"
  bottom: "Convolution24"
  top: "Eltwise11"
  eltwise_param {
    operation: SUM
  }
}
layer {
  name: "M2PELU23"
  type: "M2PELU"
  bottom: "Eltwise11"
  top: "Eltwise11"
  param {
    lr_mult: 2
    decay_mult: 2
  }
  param {
    lr_mult: 2
    decay_mult: 2
  }
  m2pelu_param {
    alpha_filler {
      type: "constant"
      value: 0.25
    }
    beta_filler {
      type: "constant"
      value: 1
    }
  }
}
layer {
  name: "Convolution25"
  type: "Convolution"
  bottom: "Eltwise11"
  top: "Convolution25"
  param {
    lr_mult: 1
    decay_mult: 1
  }
  param {
    lr_mult: 2
    decay_mult: 0
  }
  convolution_param {
    num_output: 32
    pad: 1
    kernel_size: 3
    stride: 1
    weight_filler {
      type: "gaussian"
      std: 0.083
    }
    bias_filler {
      type: "constant"
      value: 0
    }
  }
}
layer {
  name: "BatchNorm25"
  type: "BatchNorm"
  bottom: "Convolution25"
  top: "Convolution25"
  param {
    lr_mult: 0
    decay_mult: 0
  }
  param {
    lr_mult: 0
    decay_mult: 0
  }
  param {
    lr_mult: 0
    decay_mult: 0
  }
}
layer {
  name: "Scale25"
  type: "Scale"
  bottom: "Convolution25"
  top: "Convolution25"
  scale_param {
    bias_term: true
  }
}
layer {
  name: "M2PELU24"
  type: "M2PELU"
  bottom: "Convolution25"
  top: "Convolution25"
  param {
    lr_mult: 2
    decay_mult: 2
  }
  param {
    lr_mult: 2
    decay_mult: 2
  }
  m2pelu_param {
    alpha_filler {
      type: "constant"
      value: 0.25
    }
    beta_filler {
      type: "constant"
      value: 1
    }
  }
}
layer {
  name: "Convolution26"
  type: "Convolution"
  bottom: "Convolution25"
  top: "Convolution26"
  param {
    lr_mult: 1
    decay_mult: 1
  }
  param {
    lr_mult: 2
 
I0927 14:49:10.681121  3463 layer_factory.hpp:77] Creating layer Data1
I0927 14:49:10.681198  3463 db_lmdb.cpp:35] Opened lmdb /home/x306/caffe/xn/PENLU/data/cifar10/cifar10_train_lmdb
I0927 14:49:10.681217  3463 net.cpp:84] Creating Layer Data1
I0927 14:49:10.681224  3463 net.cpp:380] Data1 -> Data1
I0927 14:49:10.681241  3463 net.cpp:380] Data1 -> Data2
I0927 14:49:10.681249  3463 data_transformer.cpp:25] Loading mean file from: /home/x306/caffe/xn/PENLU/data/cifar10/mean.binaryproto
I0927 14:49:10.682669  3463 data_layer.cpp:45] output data size: 100,3,28,28
I0927 14:49:10.684928  3463 net.cpp:122] Setting up Data1
I0927 14:49:10.684950  3463 net.cpp:129] Top shape: 100 3 28 28 (235200)
I0927 14:49:10.684955  3463 net.cpp:129] Top shape: 100 (100)
I0927 14:49:10.684957  3463 net.cpp:137] Memory required for data: 941200
I0927 14:49:10.684963  3463 layer_factory.hpp:77] Creating layer Convolution1
I0927 14:49:10.684981  3463 net.cpp:84] Creating Layer Convolution1
I0927 14:49:10.684986  3463 net.cpp:406] Convolution1 <- Data1
I0927 14:49:10.684995  3463 net.cpp:380] Convolution1 -> Convolution1
I0927 14:49:10.832129  3463 net.cpp:122] Setting up Convolution1
I0927 14:49:10.832152  3463 net.cpp:129] Top shape: 100 16 28 28 (1254400)
I0927 14:49:10.832156  3463 net.cpp:137] Memory required for data: 5958800
I0927 14:49:10.832171  3463 layer_factory.hpp:77] Creating layer BatchNorm1
I0927 14:49:10.832196  3463 net.cpp:84] Creating Layer BatchNorm1
I0927 14:49:10.832217  3463 net.cpp:406] BatchNorm1 <- Convolution1
I0927 14:49:10.832247  3463 net.cpp:367] BatchNorm1 -> Convolution1 (in-place)
I0927 14:49:10.832411  3463 net.cpp:122] Setting up BatchNorm1
I0927 14:49:10.832418  3463 net.cpp:129] Top shape: 100 16 28 28 (1254400)
I0927 14:49:10.832420  3463 net.cpp:137] Memory required for data: 10976400
I0927 14:49:10.832428  3463 layer_factory.hpp:77] Creating layer Scale1
I0927 14:49:10.832446  3463 net.cpp:84] Creating Layer Scale1
I0927 14:49:10.832451  3463 net.cpp:406] Scale1 <- Convolution1
I0927 14:49:10.832455  3463 net.cpp:367] Scale1 -> Convolution1 (in-place)
I0927 14:49:10.832527  3463 layer_factory.hpp:77] Creating layer Scale1
I0927 14:49:10.832638  3463 net.cpp:122] Setting up Scale1
I0927 14:49:10.832644  3463 net.cpp:129] Top shape: 100 16 28 28 (1254400)
I0927 14:49:10.832648  3463 net.cpp:137] Memory required for data: 15994000
I0927 14:49:10.832651  3463 layer_factory.hpp:77] Creating layer M2PELU1
I0927 14:49:10.832660  3463 net.cpp:84] Creating Layer M2PELU1
I0927 14:49:10.832664  3463 net.cpp:406] M2PELU1 <- Convolution1
I0927 14:49:10.832676  3463 net.cpp:367] M2PELU1 -> Convolution1 (in-place)
I0927 14:49:10.833258  3463 net.cpp:122] Setting up M2PELU1
I0927 14:49:10.833268  3463 net.cpp:129] Top shape: 100 16 28 28 (1254400)
I0927 14:49:10.833287  3463 net.cpp:137] Memory required for data: 21011600
I0927 14:49:10.833294  3463 layer_factory.hpp:77] Creating layer Convolution1_M2PELU1_0_split
I0927 14:49:10.833317  3463 net.cpp:84] Creating Layer Convolution1_M2PELU1_0_split
I0927 14:49:10.833333  3463 net.cpp:406] Convolution1_M2PELU1_0_split <- Convolution1
I0927 14:49:10.833339  3463 net.cpp:380] Convolution1_M2PELU1_0_split -> Convolution1_M2PELU1_0_split_0
I0927 14:49:10.833359  3463 net.cpp:380] Convolution1_M2PELU1_0_split -> Convolution1_M2PELU1_0_split_1
I0927 14:49:10.833407  3463 net.cpp:122] Setting up Convolution1_M2PELU1_0_split
I0927 14:49:10.833415  3463 net.cpp:129] Top shape: 100 16 28 28 (1254400)
I0927 14:49:10.833418  3463 net.cpp:129] Top shape: 100 16 28 28 (1254400)
I0927 14:49:10.833420  3463 net.cpp:137] Memory required for data: 31046800
I0927 14:49:10.833422  3463 layer_factory.hpp:77] Creating layer Convolution2
I0927 14:49:10.833431  3463 net.cpp:84] Creating Layer Convolution2
I0927 14:49:10.833432  3463 net.cpp:406] Convolution2 <- Convolution1_M2PELU1_0_split_0
I0927 14:49:10.833446  3463 net.cpp:380] Convolution2 -> Convolution2
I0927 14:49:10.834291  3463 net.cpp:122] Setting up Convolution2
I0927 14:49:10.834301  3463 net.cpp:129] Top shape: 100 16 28 28 (1254400)
I0927 14:49:10.834305  3463 net.cpp:137] Memory required for data: 36064400
I0927 14:49:10.834308  3463 layer_factory.hpp:77] Creating layer BatchNorm2
I0927 14:49:10.834313  3463 net.cpp:84] Creating Layer BatchNorm2
I0927 14:49:10.834316  3463 net.cpp:406] BatchNorm2 <- Convolution2
I0927 14:49:10.834329  3463 net.cpp:367] BatchNorm2 -> Convolution2 (in-place)
I0927 14:49:10.834481  3463 net.cpp:122] Setting up BatchNorm2
I0927 14:49:10.834489  3463 net.cpp:129] Top shape: 100 16 28 28 (1254400)
I0927 14:49:10.834491  3463 net.cpp:137] Memory required for data: 41082000
I0927 14:49:10.834496  3463 layer_factory.hpp:77] Creating layer Scale2
I0927 14:49:10.834501  3463 net.cpp:84] Creating Layer Scale2
I0927 14:49:10.834503  3463 net.cpp:406] Scale2 <- Convolution2
I0927 14:49:10.834507  3463 net.cpp:367] Scale2 -> Convolution2 (in-place)
I0927 14:49:10.834586  3463 layer_factory.hpp:77] Creating layer Scale2
I0927 14:49:10.834688  3463 net.cpp:122] Setting up Scale2
I0927 14:49:10.834695  3463 net.cpp:129] Top shape: 100 16 28 28 (1254400)
I0927 14:49:10.834697  3463 net.cpp:137] Memory required for data: 46099600
I0927 14:49:10.834702  3463 layer_factory.hpp:77] Creating layer M2PELU2
I0927 14:49:10.834707  3463 net.cpp:84] Creating Layer M2PELU2
I0927 14:49:10.834709  3463 net.cpp:406] M2PELU2 <- Convolution2
I0927 14:49:10.834712  3463 net.cpp:367] M2PELU2 -> Convolution2 (in-place)
I0927 14:49:10.834815  3463 net.cpp:122] Setting up M2PELU2
I0927 14:49:10.834821  3463 net.cpp:129] Top shape: 100 16 28 28 (1254400)
I0927 14:49:10.834830  3463 net.cpp:137] Memory required for data: 51117200
I0927 14:49:10.834837  3463 layer_factory.hpp:77] Creating layer Convolution3
I0927 14:49:10.834854  3463 net.cpp:84] Creating Layer Convolution3
I0927 14:49:10.834858  3463 net.cpp:406] Convolution3 <- Convolution2
I0927 14:49:10.834862  3463 net.cpp:380] Convolution3 -> Convolution3
I0927 14:49:10.835692  3463 net.cpp:122] Setting up Convolution3
I0927 14:49:10.835703  3463 net.cpp:129] Top shape: 100 16 28 28 (1254400)
I0927 14:49:10.835706  3463 net.cpp:137] Memory required for data: 56134800
I0927 14:49:10.835711  3463 layer_factory.hpp:77] Creating layer BatchNorm3
I0927 14:49:10.835716  3463 net.cpp:84] Creating Layer BatchNorm3
I0927 14:49:10.835717  3463 net.cpp:406] BatchNorm3 <- Convolution3
I0927 14:49:10.835731  3463 net.cpp:367] BatchNorm3 -> Convolution3 (in-place)
I0927 14:49:10.835857  3463 net.cpp:122] Setting up BatchNorm3
I0927 14:49:10.835862  3463 net.cpp:129] Top shape: 100 16 28 28 (1254400)
I0927 14:49:10.835865  3463 net.cpp:137] Memory required for data: 61152400
I0927 14:49:10.835870  3463 layer_factory.hpp:77] Creating layer Scale3
I0927 14:49:10.835873  3463 net.cpp:84] Creating Layer Scale3
I0927 14:49:10.835876  3463 net.cpp:406] Scale3 <- Convolution3
I0927 14:49:10.835880  3463 net.cpp:367] Scale3 -> Convolution3 (in-place)
I0927 14:49:10.835922  3463 layer_factory.hpp:77] Creating layer Scale3
I0927 14:49:10.836009  3463 net.cpp:122] Setting up Scale3
I0927 14:49:10.836014  3463 net.cpp:129] Top shape: 100 16 28 28 (1254400)
I0927 14:49:10.836017  3463 net.cpp:137] Memory required for data: 66170000
I0927 14:49:10.836020  3463 layer_factory.hpp:77] Creating layer Eltwise1
I0927 14:49:10.836025  3463 net.cpp:84] Creating Layer Eltwise1
I0927 14:49:10.836028  3463 net.cpp:406] Eltwise1 <- Convolution1_M2PELU1_0_split_1
I0927 14:49:10.836031  3463 net.cpp:406] Eltwise1 <- Convolution3
I0927 14:49:10.836045  3463 net.cpp:380] Eltwise1 -> Eltwise1
I0927 14:49:10.836071  3463 net.cpp:122] Setting up Eltwise1
I0927 14:49:10.836076  3463 net.cpp:129] Top shape: 100 16 28 28 (1254400)
I0927 14:49:10.836078  3463 net.cpp:137] Memory required for data: 71187600
I0927 14:49:10.836081  3463 layer_factory.hpp:77] Creating layer M2PELU3
I0927 14:49:10.836086  3463 net.cpp:84] Creating Layer M2PELU3
I0927 14:49:10.836087  3463 net.cpp:406] M2PELU3 <- Eltwise1
I0927 14:49:10.836091  3463 net.cpp:367] M2PELU3 -> Eltwise1 (in-place)
I0927 14:49:10.836182  3463 net.cpp:122] Setting up M2PELU3
I0927 14:49:10.836189  3463 net.cpp:129] Top shape: 100 16 28 28 (1254400)
I0927 14:49:10.836190  3463 net.cpp:137] Memory required for data: 76205200
I0927 14:49:10.836194  3463 layer_factory.hpp:77] Creating layer Eltwise1_M2PELU3_0_split
I0927 14:49:10.836197  3463 net.cpp:84] Creating Layer Eltwise1_M2PELU3_0_split
I0927 14:49:10.836200  3463 net.cpp:406] Eltwise1_M2PELU3_0_split <- Eltwise1
I0927 14:49:10.836203  3463 net.cpp:380] Eltwise1_M2PELU3_0_split -> Eltwise1_M2PELU3_0_split_0
I0927 14:49:10.836218  3463 net.cpp:380] Eltwise1_M2PELU3_0_split -> Eltwise1_M2PELU3_0_split_1
I0927 14:49:10.836248  3463 net.cpp:122] Setting up Eltwise1_M2PELU3_0_split
I0927 14:49:10.836253  3463 net.cpp:129] Top shape: 100 16 28 28 (1254400)
I0927 14:49:10.836256  3463 net.cpp:129] Top shape: 100 16 28 28 (1254400)
I0927 14:49:10.836258  3463 net.cpp:137] Memory required for data: 86240400
I0927 14:49:10.836261  3463 layer_factory.hpp:77] Creating layer Convolution4
I0927 14:49:10.836266  3463 net.cpp:84] Creating Layer Convolution4
I0927 14:49:10.836268  3463 net.cpp:406] Convolution4 <- Eltwise1_M2PELU3_0_split_0
I0927 14:49:10.836282  3463 net.cpp:380] Convolution4 -> Convolution4
I0927 14:49:10.837116  3463 net.cpp:122] Setting up Convolution4
I0927 14:49:10.837126  3463 net.cpp:129] Top shape: 100 16 28 28 (1254400)
I0927 14:49:10.837128  3463 net.cpp:137] Memory required for data: 91258000
I0927 14:49:10.837133  3463 layer_factory.hpp:77] Creating layer BatchNorm4
I0927 14:49:10.837139  3463 net.cpp:84] Creating Layer BatchNorm4
I0927 14:49:10.837158  3463 net.cpp:406] BatchNorm4 <- Convolution4
I0927 14:49:10.837172  3463 net.cpp:367] BatchNorm4 -> Convolution4 (in-place)
I0927 14:49:10.837311  3463 net.cpp:122] Setting up BatchNorm4
I0927 14:49:10.837316  3463 net.cpp:129] Top shape: 100 16 28 28 (1254400)
I0927 14:49:10.837318  3463 net.cpp:137] Memory required for data: 96275600
I0927 14:49:10.837323  3463 layer_factory.hpp:77] Creating layer Scale4
I0927 14:49:10.837327  3463 net.cpp:84] Creating Layer Scale4
I0927 14:49:10.837330  3463 net.cpp:406] Scale4 <- Convolution4
I0927 14:49:10.837344  3463 net.cpp:367] Scale4 -> Convolution4 (in-place)
I0927 14:49:10.837388  3463 layer_factory.hpp:77] Creating layer Scale4
I0927 14:49:10.837491  3463 net.cpp:122] Setting up Scale4
I0927 14:49:10.837496  3463 net.cpp:129] Top shape: 100 16 28 28 (1254400)
I0927 14:49:10.837507  3463 net.cpp:137] Memory required for data: 101293200
I0927 14:49:10.837515  3463 layer_factory.hpp:77] Creating layer M2PELU4
I0927 14:49:10.837522  3463 net.cpp:84] Creating Layer M2PELU4
I0927 14:49:10.837524  3463 net.cpp:406] M2PELU4 <- Convolution4
I0927 14:49:10.837527  3463 net.cpp:367] M2PELU4 -> Convolution4 (in-place)
I0927 14:49:10.837604  3463 net.cpp:122] Setting up M2PELU4
I0927 14:49:10.837610  3463 net.cpp:129] Top shape: 100 16 28 28 (1254400)
I0927 14:49:10.837612  3463 net.cpp:137] Memory required for data: 106310800
I0927 14:49:10.837617  3463 layer_factory.hpp:77] Creating layer Convolution5
I0927 14:49:10.837625  3463 net.cpp:84] Creating Layer Convolution5
I0927 14:49:10.837628  3463 net.cpp:406] Convolution5 <- Convolution4
I0927 14:49:10.837632  3463 net.cpp:380] Convolution5 -> Convolution5
I0927 14:49:10.838495  3463 net.cpp:122] Setting up Convolution5
I0927 14:49:10.838505  3463 net.cpp:129] Top shape: 100 16 28 28 (1254400)
I0927 14:49:10.838508  3463 net.cpp:137] Memory required for data: 111328400
I0927 14:49:10.838513  3463 layer_factory.hpp:77] Creating layer BatchNorm5
I0927 14:49:10.838522  3463 net.cpp:84] Creating Layer BatchNorm5
I0927 14:49:10.838537  3463 net.cpp:406] BatchNorm5 <- Convolution5
I0927 14:49:10.838541  3463 net.cpp:367] BatchNorm5 -> Convolution5 (in-place)
I0927 14:49:10.838673  3463 net.cpp:122] Setting up BatchNorm5
I0927 14:49:10.838680  3463 net.cpp:129] Top shape: 100 16 28 28 (1254400)
I0927 14:49:10.838682  3463 net.cpp:137] Memory required for data: 116346000
I0927 14:49:10.838687  3463 layer_factory.hpp:77] Creating layer Scale5
I0927 14:49:10.838692  3463 net.cpp:84] Creating Layer Scale5
I0927 14:49:10.838696  3463 net.cpp:406] Scale5 <- Convolution5
I0927 14:49:10.838698  3463 net.cpp:367] Scale5 -> Convolution5 (in-place)
I0927 14:49:10.838724  3463 layer_factory.hpp:77] Creating layer Scale5
I0927 14:49:10.838799  3463 net.cpp:122] Setting up Scale5
I0927 14:49:10.838805  3463 net.cpp:129] Top shape: 100 16 28 28 (1254400)
I0927 14:49:10.838809  3463 net.cpp:137] Memory required for data: 121363600
I0927 14:49:10.838812  3463 layer_factory.hpp:77] Creating layer Eltwise2
I0927 14:49:10.838819  3463 net.cpp:84] Creating Layer Eltwise2
I0927 14:49:10.838821  3463 net.cpp:406] Eltwise2 <- Eltwise1_M2PELU3_0_split_1
I0927 14:49:10.838824  3463 net.cpp:406] Eltwise2 <- Convolution5
I0927 14:49:10.838829  3463 net.cpp:380] Eltwise2 -> Eltwise2
I0927 14:49:10.838843  3463 net.cpp:122] Setting up Eltwise2
I0927 14:49:10.838848  3463 net.cpp:129] Top shape: 100 16 28 28 (1254400)
I0927 14:49:10.838850  3463 net.cpp:137] Memory required for data: 126381200
I0927 14:49:10.838853  3463 layer_factory.hpp:77] Creating layer M2PELU5
I0927 14:49:10.838858  3463 net.cpp:84] Creating Layer M2PELU5
I0927 14:49:10.838861  3463 net.cpp:406] M2PELU5 <- Eltwise2
I0927 14:49:10.838865  3463 net.cpp:367] M2PELU5 -> Eltwise2 (in-place)
I0927 14:49:10.838943  3463 net.cpp:122] Setting up M2PELU5
I0927 14:49:10.838949  3463 net.cpp:129] Top shape: 100 16 28 28 (1254400)
I0927 14:49:10.838953  3463 net.cpp:137] Memory required for data: 131398800
I0927 14:49:10.838955  3463 layer_factory.hpp:77] Creating layer Eltwise2_M2PELU5_0_split
I0927 14:49:10.838966  3463 net.cpp:84] Creating Layer Eltwise2_M2PELU5_0_split
I0927 14:49:10.838970  3463 net.cpp:406] Eltwise2_M2PELU5_0_split <- Eltwise2
I0927 14:49:10.838973  3463 net.cpp:380] Eltwise2_M2PELU5_0_split -> Eltwise2_M2PELU5_0_split_0
I0927 14:49:10.838979  3463 net.cpp:380] Eltwise2_M2PELU5_0_split -> Eltwise2_M2PELU5_0_split_1
I0927 14:49:10.839002  3463 net.cpp:122] Setting up Eltwise2_M2PELU5_0_split
I0927 14:49:10.839007  3463 net.cpp:129] Top shape: 100 16 28 28 (1254400)
I0927 14:49:10.839011  3463 net.cpp:129] Top shape: 100 16 28 28 (1254400)
I0927 14:49:10.839015  3463 net.cpp:137] Memory required for data: 141434000
I0927 14:49:10.839016  3463 layer_factory.hpp:77] Creating layer Convolution6
I0927 14:49:10.839023  3463 net.cpp:84] Creating Layer Convolution6
I0927 14:49:10.839027  3463 net.cpp:406] Convolution6 <- Eltwise2_M2PELU5_0_split_0
I0927 14:49:10.839031  3463 net.cpp:380] Convolution6 -> Convolution6
I0927 14:49:10.839893  3463 net.cpp:122] Setting up Convolution6
I0927 14:49:10.839903  3463 net.cpp:129] Top shape: 100 16 28 28 (1254400)
I0927 14:49:10.839907  3463 net.cpp:137] Memory required for data: 146451600
I0927 14:49:10.839912  3463 layer_factory.hpp:77] Creating layer BatchNorm6
I0927 14:49:10.839917  3463 net.cpp:84] Creating Layer BatchNorm6
I0927 14:49:10.839920  3463 net.cpp:406] BatchNorm6 <- Convolution6
I0927 14:49:10.839926  3463 net.cpp:367] BatchNorm6 -> Convolution6 (in-place)
I0927 14:49:10.840052  3463 net.cpp:122] Setting up BatchNorm6
I0927 14:49:10.840059  3463 net.cpp:129] Top shape: 100 16 28 28 (1254400)
I0927 14:49:10.840061  3463 net.cpp:137] Memory required for data: 151469200
I0927 14:49:10.840066  3463 layer_factory.hpp:77] Creating layer Scale6
I0927 14:49:10.840071  3463 net.cpp:84] Creating Layer Scale6
I0927 14:49:10.840075  3463 net.cpp:406] Scale6 <- Convolution6
I0927 14:49:10.840080  3463 net.cpp:367] Scale6 -> Convolution6 (in-place)
I0927 14:49:10.840104  3463 layer_factory.hpp:77] Creating layer Scale6
I0927 14:49:10.840179  3463 net.cpp:122] Setting up Scale6
I0927 14:49:10.840184  3463 net.cpp:129] Top shape: 100 16 28 28 (1254400)
I0927 14:49:10.840188  3463 net.cpp:137] Memory required for data: 156486800
I0927 14:49:10.840191  3463 layer_factory.hpp:77] Creating layer M2PELU6
I0927 14:49:10.840198  3463 net.cpp:84] Creating Layer M2PELU6
I0927 14:49:10.840200  3463 net.cpp:406] M2PELU6 <- Convolution6
I0927 14:49:10.840204  3463 net.cpp:367] M2PELU6 -> Convolution6 (in-place)
I0927 14:49:10.840286  3463 net.cpp:122] Setting up M2PELU6
I0927 14:49:10.840291  3463 net.cpp:129] Top shape: 100 16 28 28 (1254400)
I0927 14:49:10.840293  3463 net.cpp:137] Memory required for data: 161504400
I0927 14:49:10.840297  3463 layer_factory.hpp:77] Creating layer Convolution7
I0927 14:49:10.840306  3463 net.cpp:84] Creating Layer Convolution7
I0927 14:49:10.840309  3463 net.cpp:406] Convolution7 <- Convolution6
I0927 14:49:10.840313  3463 net.cpp:380] Convolution7 -> Convolution7
I0927 14:49:10.840857  3463 net.cpp:122] Setting up Convolution7
I0927 14:49:10.840865  3463 net.cpp:129] Top shape: 100 16 28 28 (1254400)
I0927 14:49:10.840869  3463 net.cpp:137] Memory required for data: 166522000
I0927 14:49:10.840873  3463 layer_factory.hpp:77] Creating layer BatchNorm7
I0927 14:49:10.840879  3463 net.cpp:84] Creating Layer BatchNorm7
I0927 14:49:10.840883  3463 net.cpp:406] BatchNorm7 <- Convolution7
I0927 14:49:10.840886  3463 net.cpp:367] BatchNorm7 -> Convolution7 (in-place)
I0927 14:49:10.841013  3463 net.cpp:122] Setting up BatchNorm7
I0927 14:49:10.841019  3463 net.cpp:129] Top shape: 100 16 28 28 (1254400)
I0927 14:49:10.841022  3463 net.cpp:137] Memory required for data: 171539600
I0927 14:49:10.841027  3463 layer_factory.hpp:77] Creating layer Scale7
I0927 14:49:10.841034  3463 net.cpp:84] Creating Layer Scale7
I0927 14:49:10.841038  3463 net.cpp:406] Scale7 <- Convolution7
I0927 14:49:10.841042  3463 net.cpp:367] Scale7 -> Convolution7 (in-place)
I0927 14:49:10.841068  3463 layer_factory.hpp:77] Creating layer Scale7
I0927 14:49:10.841150  3463 net.cpp:122] Setting up Scale7
I0927 14:49:10.841156  3463 net.cpp:129] Top shape: 100 16 28 28 (1254400)
I0927 14:49:10.841159  3463 net.cpp:137] Memory required for data: 176557200
I0927 14:49:10.841163  3463 layer_factory.hpp:77] Creating layer Eltwise3
I0927 14:49:10.841169  3463 net.cpp:84] Creating Layer Eltwise3
I0927 14:49:10.841172  3463 net.cpp:406] Eltwise3 <- Eltwise2_M2PELU5_0_split_1
I0927 14:49:10.841176  3463 net.cpp:406] Eltwise3 <- Convolution7
I0927 14:49:10.841181  3463 net.cpp:380] Eltwise3 -> Eltwise3
I0927 14:49:10.841197  3463 net.cpp:122] Setting up Eltwise3
I0927 14:49:10.841202  3463 net.cpp:129] Top shape: 100 16 28 28 (1254400)
I0927 14:49:10.841204  3463 net.cpp:137] Memory required for data: 181574800
I0927 14:49:10.841207  3463 layer_factory.hpp:77] Creating layer M2PELU7
I0927 14:49:10.841212  3463 net.cpp:84] Creating Layer M2PELU7
I0927 14:49:10.841215  3463 net.cpp:406] M2PELU7 <- Eltwise3
I0927 14:49:10.841218  3463 net.cpp:367] M2PELU7 -> Eltwise3 (in-place)
I0927 14:49:10.841298  3463 net.cpp:122] Setting up M2PELU7
I0927 14:49:10.841305  3463 net.cpp:129] Top shape: 100 16 28 28 (1254400)
I0927 14:49:10.841307  3463 net.cpp:137] Memory required for data: 186592400
I0927 14:49:10.841311  3463 layer_factory.hpp:77] Creating layer Eltwise3_M2PELU7_0_split
I0927 14:49:10.841315  3463 net.cpp:84] Creating Layer Eltwise3_M2PELU7_0_split
I0927 14:49:10.841318  3463 net.cpp:406] Eltwise3_M2PELU7_0_split <- Eltwise3
I0927 14:49:10.841323  3463 net.cpp:380] Eltwise3_M2PELU7_0_split -> Eltwise3_M2PELU7_0_split_0
I0927 14:49:10.841328  3463 net.cpp:380] Eltwise3_M2PELU7_0_split -> Eltwise3_M2PELU7_0_split_1
I0927 14:49:10.841351  3463 net.cpp:122] Setting up Eltwise3_M2PELU7_0_split
I0927 14:49:10.841356  3463 net.cpp:129] Top shape: 100 16 28 28 (1254400)
I0927 14:49:10.841358  3463 net.cpp:129] Top shape: 100 16 28 28 (1254400)
I0927 14:49:10.841361  3463 net.cpp:137] Memory required for data: 196627600
I0927 14:49:10.841364  3463 layer_factory.hpp:77] Creating layer Convolution8
I0927 14:49:10.841372  3463 net.cpp:84] Creating Layer Convolution8
I0927 14:49:10.841374  3463 net.cpp:406] Convolution8 <- Eltwise3_M2PELU7_0_split_0
I0927 14:49:10.841378  3463 net.cpp:380] Convolution8 -> Convolution8
I0927 14:49:10.842238  3463 net.cpp:122] Setting up Convolution8
I0927 14:49:10.842248  3463 net.cpp:129] Top shape: 100 16 28 28 (1254400)
I0927 14:49:10.842252  3463 net.cpp:137] Memory required for data: 201645200
I0927 14:49:10.842262  3463 layer_factory.hpp:77] Creating layer BatchNorm8
I0927 14:49:10.842268  3463 net.cpp:84] Creating Layer BatchNorm8
I0927 14:49:10.842272  3463 net.cpp:406] BatchNorm8 <- Convolution8
I0927 14:49:10.842277  3463 net.cpp:367] BatchNorm8 -> Convolution8 (in-place)
I0927 14:49:10.842402  3463 net.cpp:122] Setting up BatchNorm8
I0927 14:49:10.842407  3463 net.cpp:129] Top shape: 100 16 28 28 (1254400)
I0927 14:49:10.842411  3463 net.cpp:137] Memory required for data: 206662800
I0927 14:49:10.842416  3463 layer_factory.hpp:77] Creating layer Scale8
I0927 14:49:10.842420  3463 net.cpp:84] Creating Layer Scale8
I0927 14:49:10.842423  3463 net.cpp:406] Scale8 <- Convolution8
I0927 14:49:10.842427  3463 net.cpp:367] Scale8 -> Convolution8 (in-place)
I0927 14:49:10.842453  3463 layer_factory.hpp:77] Creating layer Scale8
I0927 14:49:10.842545  3463 net.cpp:122] Setting up Scale8
I0927 14:49:10.842551  3463 net.cpp:129] Top shape: 100 16 28 28 (1254400)
I0927 14:49:10.842555  3463 net.cpp:137] Memory required for data: 211680400
I0927 14:49:10.842568  3463 layer_factory.hpp:77] Creating layer M2PELU8
I0927 14:49:10.842574  3463 net.cpp:84] Creating Layer M2PELU8
I0927 14:49:10.842577  3463 net.cpp:406] M2PELU8 <- Convolution8
I0927 14:49:10.842581  3463 net.cpp:367] M2PELU8 -> Convolution8 (in-place)
I0927 14:49:10.842664  3463 net.cpp:122] Setting up M2PELU8
I0927 14:49:10.842670  3463 net.cpp:129] Top shape: 100 16 28 28 (1254400)
I0927 14:49:10.842674  3463 net.cpp:137] Memory required for data: 216698000
I0927 14:49:10.842677  3463 layer_factory.hpp:77] Creating layer Convolution9
I0927 14:49:10.842692  3463 net.cpp:84] Creating Layer Convolution9
I0927 14:49:10.842695  3463 net.cpp:406] Convolution9 <- Convolution8
I0927 14:49:10.842700  3463 net.cpp:380] Convolution9 -> Convolution9
I0927 14:49:10.843881  3463 net.cpp:122] Setting up Convolution9
I0927 14:49:10.843894  3463 net.cpp:129] Top shape: 100 16 28 28 (1254400)
I0927 14:49:10.843900  3463 net.cpp:137] Memory required for data: 221715600
I0927 14:49:10.843909  3463 layer_factory.hpp:77] Creating layer BatchNorm9
I0927 14:49:10.843919  3463 net.cpp:84] Creating Layer BatchNorm9
I0927 14:49:10.843924  3463 net.cpp:406] BatchNorm9 <- Convolution9
I0927 14:49:10.843933  3463 net.cpp:367] BatchNorm9 -> Convolution9 (in-place)
I0927 14:49:10.844130  3463 net.cpp:122] Setting up BatchNorm9
I0927 14:49:10.844137  3463 net.cpp:129] Top shape: 100 16 28 28 (1254400)
I0927 14:49:10.844141  3463 net.cpp:137] Memory required for data: 226733200
I0927 14:49:10.844146  3463 layer_factory.hpp:77] Creating layer Scale9
I0927 14:49:10.844153  3463 net.cpp:84] Creating Layer Scale9
I0927 14:49:10.844156  3463 net.cpp:406] Scale9 <- Convolution9
I0927 14:49:10.844161  3463 net.cpp:367] Scale9 -> Convolution9 (in-place)
I0927 14:49:10.844194  3463 layer_factory.hpp:77] Creating layer Scale9
I0927 14:49:10.844337  3463 net.cpp:122] Setting up Scale9
I0927 14:49:10.844349  3463 net.cpp:129] Top shape: 100 16 28 28 (1254400)
I0927 14:49:10.844354  3463 net.cpp:137] Memory required for data: 231750800
I0927 14:49:10.844362  3463 layer_factory.hpp:77] Creating layer Eltwise4
I0927 14:49:10.844370  3463 net.cpp:84] Creating Layer Eltwise4
I0927 14:49:10.844377  3463 net.cpp:406] Eltwise4 <- Eltwise3_M2PELU7_0_split_1
I0927 14:49:10.844383  3463 net.cpp:406] Eltwise4 <- Convolution9
I0927 14:49:10.844389  3463 net.cpp:380] Eltwise4 -> Eltwise4
I0927 14:49:10.844425  3463 net.cpp:122] Setting up Eltwise4
I0927 14:49:10.844435  3463 net.cpp:129] Top shape: 100 16 28 28 (1254400)
I0927 14:49:10.844440  3463 net.cpp:137] Memory required for data: 236768400
I0927 14:49:10.844445  3463 layer_factory.hpp:77] Creating layer M2PELU9
I0927 14:49:10.844455  3463 net.cpp:84] Creating Layer M2PELU9
I0927 14:49:10.844462  3463 net.cpp:406] M2PELU9 <- Eltwise4
I0927 14:49:10.844470  3463 net.cpp:367] M2PELU9 -> Eltwise4 (in-place)
I0927 14:49:10.844604  3463 net.cpp:122] Setting up M2PELU9
I0927 14:49:10.844632  3463 net.cpp:129] Top shape: 100 16 28 28 (1254400)
I0927 14:49:10.844647  3463 net.cpp:137] Memory required for data: 241786000
I0927 14:49:10.844665  3463 layer_factory.hpp:77] Creating layer Eltwise4_M2PELU9_0_split
I0927 14:49:10.844672  3463 net.cpp:84] Creating Layer Eltwise4_M2PELU9_0_split
I0927 14:49:10.844677  3463 net.cpp:406] Eltwise4_M2PELU9_0_split <- Eltwise4
I0927 14:49:10.844684  3463 net.cpp:380] Eltwise4_M2PELU9_0_split -> Eltwise4_M2PELU9_0_split_0
I0927 14:49:10.844696  3463 net.cpp:380] Eltwise4_M2PELU9_0_split -> Eltwise4_M2PELU9_0_split_1
I0927 14:49:10.844732  3463 net.cpp:122] Setting up Eltwise4_M2PELU9_0_split
I0927 14:49:10.844739  3463 net.cpp:129] Top shape: 100 16 28 28 (1254400)
I0927 14:49:10.844745  3463 net.cpp:129] Top shape: 100 16 28 28 (1254400)
I0927 14:49:10.844750  3463 net.cpp:137] Memory required for data: 251821200
I0927 14:49:10.844755  3463 layer_factory.hpp:77] Creating layer Convolution10
I0927 14:49:10.844775  3463 net.cpp:84] Creating Layer Convolution10
I0927 14:49:10.844789  3463 net.cpp:406] Convolution10 <- Eltwise4_M2PELU9_0_split_0
I0927 14:49:10.844799  3463 net.cpp:380] Convolution10 -> Convolution10
I0927 14:49:10.845693  3463 net.cpp:122] Setting up Convolution10
I0927 14:49:10.845705  3463 net.cpp:129] Top shape: 100 16 28 28 (1254400)
I0927 14:49:10.845721  3463 net.cpp:137] Memory required for data: 256838800
I0927 14:49:10.845729  3463 layer_factory.hpp:77] Creating layer BatchNorm10
I0927 14:49:10.845737  3463 net.cpp:84] Creating Layer BatchNorm10
I0927 14:49:10.845752  3463 net.cpp:406] BatchNorm10 <- Convolution10
I0927 14:49:10.845770  3463 net.cpp:367] BatchNorm10 -> Convolution10 (in-place)
I0927 14:49:10.845913  3463 net.cpp:122] Setting up BatchNorm10
I0927 14:49:10.845922  3463 net.cpp:129] Top shape: 100 16 28 28 (1254400)
I0927 14:49:10.845927  3463 net.cpp:137] Memory required for data: 261856400
I0927 14:49:10.845937  3463 layer_factory.hpp:77] Creating layer Scale10
I0927 14:49:10.845943  3463 net.cpp:84] Creating Layer Scale10
I0927 14:49:10.845949  3463 net.cpp:406] Scale10 <- Convolution10
I0927 14:49:10.845957  3463 net.cpp:367] Scale10 -> Convolution10 (in-place)
I0927 14:49:10.845993  3463 layer_factory.hpp:77] Creating layer Scale10
I0927 14:49:10.846087  3463 net.cpp:122] Setting up Scale10
I0927 14:49:10.846096  3463 net.cpp:129] Top shape: 100 16 28 28 (1254400)
I0927 14:49:10.846110  3463 net.cpp:137] Memory required for data: 266874000
I0927 14:49:10.846119  3463 layer_factory.hpp:77] Creating layer M2PELU10
I0927 14:49:10.846127  3463 net.cpp:84] Creating Layer M2PELU10
I0927 14:49:10.846132  3463 net.cpp:406] M2PELU10 <- Convolution10
I0927 14:49:10.846141  3463 net.cpp:367] M2PELU10 -> Convolution10 (in-place)
I0927 14:49:10.846261  3463 net.cpp:122] Setting up M2PELU10
I0927 14:49:10.846267  3463 net.cpp:129] Top shape: 100 16 28 28 (1254400)
I0927 14:49:10.846272  3463 net.cpp:137] Memory required for data: 271891600
I0927 14:49:10.846289  3463 layer_factory.hpp:77] Creating layer Convolution11
I0927 14:49:10.846302  3463 net.cpp:84] Creating Layer Convolution11
I0927 14:49:10.846307  3463 net.cpp:406] Convolution11 <- Convolution10
I0927 14:49:10.846314  3463 net.cpp:380] Convolution11 -> Convolution11
I0927 14:49:10.847224  3463 net.cpp:122] Setting up Convolution11
I0927 14:49:10.847236  3463 net.cpp:129] Top shape: 100 16 28 28 (1254400)
I0927 14:49:10.847241  3463 net.cpp:137] Memory required for data: 276909200
I0927 14:49:10.847249  3463 layer_factory.hpp:77] Creating layer BatchNorm11
I0927 14:49:10.847259  3463 net.cpp:84] Creating Layer BatchNorm11
I0927 14:49:10.847265  3463 net.cpp:406] BatchNorm11 <- Convolution11
I0927 14:49:10.847272  3463 net.cpp:367] BatchNorm11 -> Convolution11 (in-place)
I0927 14:49:10.847403  3463 net.cpp:122] Setting up BatchNorm11
I0927 14:49:10.847410  3463 net.cpp:129] Top shape: 100 16 28 28 (1254400)
I0927 14:49:10.847416  3463 net.cpp:137] Memory required for data: 281926800
I0927 14:49:10.847426  3463 layer_factory.hpp:77] Creating layer Scale11
I0927 14:49:10.847434  3463 net.cpp:84] Creating Layer Scale11
I0927 14:49:10.847440  3463 net.cpp:406] Scale11 <- Convolution11
I0927 14:49:10.847445  3463 net.cpp:367] Scale11 -> Convolution11 (in-place)
I0927 14:49:10.847478  3463 layer_factory.hpp:77] Creating layer Scale11
I0927 14:49:10.847563  3463 net.cpp:122] Setting up Scale11
I0927 14:49:10.847571  3463 net.cpp:129] Top shape: 100 16 28 28 (1254400)
I0927 14:49:10.847576  3463 net.cpp:137] Memory required for data: 286944400
I0927 14:49:10.847585  3463 layer_factory.hpp:77] Creating layer Eltwise5
I0927 14:49:10.847594  3463 net.cpp:84] Creating Layer Eltwise5
I0927 14:49:10.847599  3463 net.cpp:406] Eltwise5 <- Eltwise4_M2PELU9_0_split_1
I0927 14:49:10.847604  3463 net.cpp:406] Eltwise5 <- Convolution11
I0927 14:49:10.847612  3463 net.cpp:380] Eltwise5 -> Eltwise5
I0927 14:49:10.847632  3463 net.cpp:122] Setting up Eltwise5
I0927 14:49:10.847640  3463 net.cpp:129] Top shape: 100 16 28 28 (1254400)
I0927 14:49:10.847645  3463 net.cpp:137] Memory required for data: 291962000
I0927 14:49:10.847648  3463 layer_factory.hpp:77] Creating layer M2PELU11
I0927 14:49:10.847658  3463 net.cpp:84] Creating Layer M2PELU11
I0927 14:49:10.847662  3463 net.cpp:406] M2PELU11 <- Eltwise5
I0927 14:49:10.847669  3463 net.cpp:367] M2PELU11 -> Eltwise5 (in-place)
I0927 14:49:10.847759  3463 net.cpp:122] Setting up M2PELU11
I0927 14:49:10.847767  3463 net.cpp:129] Top shape: 100 16 28 28 (1254400)
I0927 14:49:10.847771  3463 net.cpp:137] Memory required for data: 296979600
I0927 14:49:10.847779  3463 layer_factory.hpp:77] Creating layer Eltwise5_M2PELU11_0_split
I0927 14:49:10.847785  3463 net.cpp:84] Creating Layer Eltwise5_M2PELU11_0_split
I0927 14:49:10.847797  3463 net.cpp:406] Eltwise5_M2PELU11_0_split <- Eltwise5
I0927 14:49:10.847807  3463 net.cpp:380] Eltwise5_M2PELU11_0_split -> Eltwise5_M2PELU11_0_split_0
I0927 14:49:10.847815  3463 net.cpp:380] Eltwise5_M2PELU11_0_split -> Eltwise5_M2PELU11_0_split_1
I0927 14:49:10.847844  3463 net.cpp:122] Setting up Eltwise5_M2PELU11_0_split
I0927 14:49:10.847851  3463 net.cpp:129] Top shape: 100 16 28 28 (1254400)
I0927 14:49:10.847858  3463 net.cpp:129] Top shape: 100 16 28 28 (1254400)
I0927 14:49:10.847863  3463 net.cpp:137] Memory required for data: 307014800
I0927 14:49:10.847867  3463 layer_factory.hpp:77] Creating layer Convolution12
I0927 14:49:10.847878  3463 net.cpp:84] Creating Layer Convolution12
I0927 14:49:10.847883  3463 net.cpp:406] Convolution12 <- Eltwise5_M2PELU11_0_split_0
I0927 14:49:10.847890  3463 net.cpp:380] Convolution12 -> Convolution12
I0927 14:49:10.848778  3463 net.cpp:122] Setting up Convolution12
I0927 14:49:10.848790  3463 net.cpp:129] Top shape: 100 16 28 28 (1254400)
I0927 14:49:10.848796  3463 net.cpp:137] Memory required for data: 312032400
I0927 14:49:10.848803  3463 layer_factory.hpp:77] Creating layer BatchNorm12
I0927 14:49:10.848812  3463 net.cpp:84] Creating Layer BatchNorm12
I0927 14:49:10.848817  3463 net.cpp:406] BatchNorm12 <- Convolution12
I0927 14:49:10.848827  3463 net.cpp:367] BatchNorm12 -> Convolution12 (in-place)
I0927 14:49:10.848963  3463 net.cpp:122] Setting up BatchNorm12
I0927 14:49:10.848971  3463 net.cpp:129] Top shape: 100 16 28 28 (1254400)
I0927 14:49:10.848976  3463 net.cpp:137] Memory required for data: 317050000
I0927 14:49:10.848986  3463 layer_factory.hpp:77] Creating layer Scale12
I0927 14:49:10.848994  3463 net.cpp:84] Creating Layer Scale12
I0927 14:49:10.848999  3463 net.cpp:406] Scale12 <- Convolution12
I0927 14:49:10.849005  3463 net.cpp:367] Scale12 -> Convolution12 (in-place)
I0927 14:49:10.849038  3463 layer_factory.hpp:77] Creating layer Scale12
I0927 14:49:10.849123  3463 net.cpp:122] Setting up Scale12
I0927 14:49:10.849131  3463 net.cpp:129] Top shape: 100 16 28 28 (1254400)
I0927 14:49:10.849135  3463 net.cpp:137] Memory required for data: 322067600
I0927 14:49:10.849143  3463 layer_factory.hpp:77] Creating layer M2PELU12
I0927 14:49:10.849151  3463 net.cpp:84] Creating Layer M2PELU12
I0927 14:49:10.849156  3463 net.cpp:406] M2PELU12 <- Convolution12
I0927 14:49:10.849164  3463 net.cpp:367] M2PELU12 -> Convolution12 (in-place)
I0927 14:49:10.849256  3463 net.cpp:122] Setting up M2PELU12
I0927 14:49:10.849262  3463 net.cpp:129] Top shape: 100 16 28 28 (1254400)
I0927 14:49:10.849267  3463 net.cpp:137] Memory required for data: 327085200
I0927 14:49:10.849274  3463 layer_factory.hpp:77] Creating layer Convolution13
I0927 14:49:10.849287  3463 net.cpp:84] Creating Layer Convolution13
I0927 14:49:10.849292  3463 net.cpp:406] Convolution13 <- Convolution12
I0927 14:49:10.849298  3463 net.cpp:380] Convolution13 -> Convolution13
I0927 14:49:10.850184  3463 net.cpp:122] Setting up Convolution13
I0927 14:49:10.850195  3463 net.cpp:129] Top shape: 100 16 28 28 (1254400)
I0927 14:49:10.850200  3463 net.cpp:137] Memory required for data: 332102800
I0927 14:49:10.850208  3463 layer_factory.hpp:77] Creating layer BatchNorm13
I0927 14:49:10.850217  3463 net.cpp:84] Creating Layer BatchNorm13
I0927 14:49:10.850222  3463 net.cpp:406] BatchNorm13 <- Convolution13
I0927 14:49:10.850230  3463 net.cpp:367] BatchNorm13 -> Convolution13 (in-place)
I0927 14:49:10.850366  3463 net.cpp:122] Setting up BatchNorm13
I0927 14:49:10.850374  3463 net.cpp:129] Top shape: 100 16 28 28 (1254400)
I0927 14:49:10.850380  3463 net.cpp:137] Memory required for data: 337120400
I0927 14:49:10.850389  3463 layer_factory.hpp:77] Creating layer Scale13
I0927 14:49:10.850397  3463 net.cpp:84] Creating Layer Scale13
I0927 14:49:10.850402  3463 net.cpp:406] Scale13 <- Convolution13
I0927 14:49:10.850410  3463 net.cpp:367] Scale13 -> Convolution13 (in-place)
I0927 14:49:10.850443  3463 layer_factory.hpp:77] Creating layer Scale13
I0927 14:49:10.850544  3463 net.cpp:122] Setting up Scale13
I0927 14:49:10.850559  3463 net.cpp:129] Top shape: 100 16 28 28 (1254400)
I0927 14:49:10.850574  3463 net.cpp:137] Memory required for data: 342138000
I0927 14:49:10.850582  3463 layer_factory.hpp:77] Creating layer Eltwise6
I0927 14:49:10.850594  3463 net.cpp:84] Creating Layer Eltwise6
I0927 14:49:10.850599  3463 net.cpp:406] Eltwise6 <- Eltwise5_M2PELU11_0_split_1
I0927 14:49:10.850605  3463 net.cpp:406] Eltwise6 <- Convolution13
I0927 14:49:10.850613  3463 net.cpp:380] Eltwise6 -> Eltwise6
I0927 14:49:10.850638  3463 net.cpp:122] Setting up Eltwise6
I0927 14:49:10.850646  3463 net.cpp:129] Top shape: 100 16 28 28 (1254400)
I0927 14:49:10.850651  3463 net.cpp:137] Memory required for data: 347155600
I0927 14:49:10.850656  3463 layer_factory.hpp:77] Creating layer M2PELU13
I0927 14:49:10.850667  3463 net.cpp:84] Creating Layer M2PELU13
I0927 14:49:10.850672  3463 net.cpp:406] M2PELU13 <- Eltwise6
I0927 14:49:10.850680  3463 net.cpp:367] M2PELU13 -> Eltwise6 (in-place)
I0927 14:49:10.850772  3463 net.cpp:122] Setting up M2PELU13
I0927 14:49:10.850780  3463 net.cpp:129] Top shape: 100 16 28 28 (1254400)
I0927 14:49:10.850785  3463 net.cpp:137] Memory required for data: 352173200
I0927 14:49:10.850792  3463 layer_factory.hpp:77] Creating layer Eltwise6_M2PELU13_0_split
I0927 14:49:10.850800  3463 net.cpp:84] Creating Layer Eltwise6_M2PELU13_0_split
I0927 14:49:10.850805  3463 net.cpp:406] Eltwise6_M2PELU13_0_split <- Eltwise6
I0927 14:49:10.850811  3463 net.cpp:380] Eltwise6_M2PELU13_0_split -> Eltwise6_M2PELU13_0_split_0
I0927 14:49:10.850819  3463 net.cpp:380] Eltwise6_M2PELU13_0_split -> Eltwise6_M2PELU13_0_split_1
I0927 14:49:10.850847  3463 net.cpp:122] Setting up Eltwise6_M2PELU13_0_split
I0927 14:49:10.850854  3463 net.cpp:129] Top shape: 100 16 28 28 (1254400)
I0927 14:49:10.850862  3463 net.cpp:129] Top shape: 100 16 28 28 (1254400)
I0927 14:49:10.850864  3463 net.cpp:137] Memory required for data: 362208400
I0927 14:49:10.850867  3463 layer_factory.hpp:77] Creating layer Convolution14
I0927 14:49:10.850874  3463 net.cpp:84] Creating Layer Convolution14
I0927 14:49:10.850878  3463 net.cpp:406] Convolution14 <- Eltwise6_M2PELU13_0_split_0
I0927 14:49:10.850881  3463 net.cpp:380] Convolution14 -> Convolution14
I0927 14:49:10.851761  3463 net.cpp:122] Setting up Convolution14
I0927 14:49:10.851769  3463 net.cpp:129] Top shape: 100 16 28 28 (1254400)
I0927 14:49:10.851773  3463 net.cpp:137] Memory required for data: 367226000
I0927 14:49:10.851776  3463 layer_factory.hpp:77] Creating layer BatchNorm14
I0927 14:49:10.851783  3463 net.cpp:84] Creating Layer BatchNorm14
I0927 14:49:10.851784  3463 net.cpp:406] BatchNorm14 <- Convolution14
I0927 14:49:10.851789  3463 net.cpp:367] BatchNorm14 -> Convolution14 (in-place)
I0927 14:49:10.851920  3463 net.cpp:122] Setting up BatchNorm14
I0927 14:49:10.851924  3463 net.cpp:129] Top shape: 100 16 28 28 (1254400)
I0927 14:49:10.851927  3463 net.cpp:137] Memory required for data: 372243600
I0927 14:49:10.851932  3463 layer_factory.hpp:77] Creating layer Scale14
I0927 14:49:10.851936  3463 net.cpp:84] Creating Layer Scale14
I0927 14:49:10.851938  3463 net.cpp:406] Scale14 <- Convolution14
I0927 14:49:10.851943  3463 net.cpp:367] Scale14 -> Convolution14 (in-place)
I0927 14:49:10.851968  3463 layer_factory.hpp:77] Creating layer Scale14
I0927 14:49:10.852046  3463 net.cpp:122] Setting up Scale14
I0927 14:49:10.852049  3463 net.cpp:129] Top shape: 100 16 28 28 (1254400)
I0927 14:49:10.852051  3463 net.cpp:137] Memory required for data: 377261200
I0927 14:49:10.852056  3463 layer_factory.hpp:77] Creating layer M2PELU14
I0927 14:49:10.852061  3463 net.cpp:84] Creating Layer M2PELU14
I0927 14:49:10.852062  3463 net.cpp:406] M2PELU14 <- Convolution14
I0927 14:49:10.852066  3463 net.cpp:367] M2PELU14 -> Convolution14 (in-place)
I0927 14:49:10.852149  3463 net.cpp:122] Setting up M2PELU14
I0927 14:49:10.852154  3463 net.cpp:129] Top shape: 100 16 28 28 (1254400)
I0927 14:49:10.852155  3463 net.cpp:137] Memory required for data: 382278800
I0927 14:49:10.852165  3463 layer_factory.hpp:77] Creating layer Convolution15
I0927 14:49:10.852172  3463 net.cpp:84] Creating Layer Convolution15
I0927 14:49:10.852174  3463 net.cpp:406] Convolution15 <- Convolution14
I0927 14:49:10.852179  3463 net.cpp:380] Convolution15 -> Convolution15
I0927 14:49:10.853058  3463 net.cpp:122] Setting up Convolution15
I0927 14:49:10.853067  3463 net.cpp:129] Top shape: 100 16 28 28 (1254400)
I0927 14:49:10.853070  3463 net.cpp:137] Memory required for data: 387296400
I0927 14:49:10.853075  3463 layer_factory.hpp:77] Creating layer BatchNorm15
I0927 14:49:10.853080  3463 net.cpp:84] Creating Layer BatchNorm15
I0927 14:49:10.853082  3463 net.cpp:406] BatchNorm15 <- Convolution15
I0927 14:49:10.853087  3463 net.cpp:367] BatchNorm15 -> Convolution15 (in-place)
I0927 14:49:10.853230  3463 net.cpp:122] Setting up BatchNorm15
I0927 14:49:10.853235  3463 net.cpp:129] Top shape: 100 16 28 28 (1254400)
I0927 14:49:10.853236  3463 net.cpp:137] Memory required for data: 392314000
I0927 14:49:10.853250  3463 layer_factory.hpp:77] Creating layer Scale15
I0927 14:49:10.853255  3463 net.cpp:84] Creating Layer Scale15
I0927 14:49:10.853257  3463 net.cpp:406] Scale15 <- Convolution15
I0927 14:49:10.853261  3463 net.cpp:367] Scale15 -> Convolution15 (in-place)
I0927 14:49:10.853287  3463 layer_factory.hpp:77] Creating layer Scale15
I0927 14:49:10.853363  3463 net.cpp:122] Setting up Scale15
I0927 14:49:10.853366  3463 net.cpp:129] Top shape: 100 16 28 28 (1254400)
I0927 14:49:10.853368  3463 net.cpp:137] Memory required for data: 397331600
I0927 14:49:10.853373  3463 layer_factory.hpp:77] Creating layer Eltwise7
I0927 14:49:10.853375  3463 net.cpp:84] Creating Layer Eltwise7
I0927 14:49:10.853379  3463 net.cpp:406] Eltwise7 <- Eltwise6_M2PELU13_0_split_1
I0927 14:49:10.853380  3463 net.cpp:406] Eltwise7 <- Convolution15
I0927 14:49:10.853384  3463 net.cpp:380] Eltwise7 -> Eltwise7
I0927 14:49:10.853400  3463 net.cpp:122] Setting up Eltwise7
I0927 14:49:10.853404  3463 net.cpp:129] Top shape: 100 16 28 28 (1254400)
I0927 14:49:10.853405  3463 net.cpp:137] Memory required for data: 402349200
I0927 14:49:10.853407  3463 layer_factory.hpp:77] Creating layer M2PELU15
I0927 14:49:10.853412  3463 net.cpp:84] Creating Layer M2PELU15
I0927 14:49:10.853415  3463 net.cpp:406] M2PELU15 <- Eltwise7
I0927 14:49:10.853418  3463 net.cpp:367] M2PELU15 -> Eltwise7 (in-place)
I0927 14:49:10.853500  3463 net.cpp:122] Setting up M2PELU15
I0927 14:49:10.853504  3463 net.cpp:129] Top shape: 100 16 28 28 (1254400)
I0927 14:49:10.853507  3463 net.cpp:137] Memory required for data: 407366800
I0927 14:49:10.853510  3463 layer_factory.hpp:77] Creating layer Eltwise7_M2PELU15_0_split
I0927 14:49:10.853513  3463 net.cpp:84] Creating Layer Eltwise7_M2PELU15_0_split
I0927 14:49:10.853515  3463 net.cpp:406] Eltwise7_M2PELU15_0_split <- Eltwise7
I0927 14:49:10.853518  3463 net.cpp:380] Eltwise7_M2PELU15_0_split -> Eltwise7_M2PELU15_0_split_0
I0927 14:49:10.853523  3463 net.cpp:380] Eltwise7_M2PELU15_0_split -> Eltwise7_M2PELU15_0_split_1
I0927 14:49:10.853544  3463 net.cpp:122] Setting up Eltwise7_M2PELU15_0_split
I0927 14:49:10.853549  3463 net.cpp:129] Top shape: 100 16 28 28 (1254400)
I0927 14:49:10.853551  3463 net.cpp:129] Top shape: 100 16 28 28 (1254400)
I0927 14:49:10.853552  3463 net.cpp:137] Memory required for data: 417402000
I0927 14:49:10.853554  3463 layer_factory.hpp:77] Creating layer Convolution16
I0927 14:49:10.853560  3463 net.cpp:84] Creating Layer Convolution16
I0927 14:49:10.853564  3463 net.cpp:406] Convolution16 <- Eltwise7_M2PELU15_0_split_0
I0927 14:49:10.853567  3463 net.cpp:380] Convolution16 -> Convolution16
I0927 14:49:10.854416  3463 net.cpp:122] Setting up Convolution16
I0927 14:49:10.854425  3463 net.cpp:129] Top shape: 100 16 28 28 (1254400)
I0927 14:49:10.854427  3463 net.cpp:137] Memory required for data: 422419600
I0927 14:49:10.854431  3463 layer_factory.hpp:77] Creating layer BatchNorm16
I0927 14:49:10.854436  3463 net.cpp:84] Creating Layer BatchNorm16
I0927 14:49:10.854439  3463 net.cpp:406] BatchNorm16 <- Convolution16
I0927 14:49:10.854449  3463 net.cpp:367] BatchNorm16 -> Convolution16 (in-place)
I0927 14:49:10.854604  3463 net.cpp:122] Setting up BatchNorm16
I0927 14:49:10.854609  3463 net.cpp:129] Top shape: 100 16 28 28 (1254400)
I0927 14:49:10.854610  3463 net.cpp:137] Memory required for data: 427437200
I0927 14:49:10.854615  3463 layer_factory.hpp:77] Creating layer Scale16
I0927 14:49:10.854619  3463 net.cpp:84] Creating Layer Scale16
I0927 14:49:10.854622  3463 net.cpp:406] Scale16 <- Convolution16
I0927 14:49:10.854625  3463 net.cpp:367] Scale16 -> Convolution16 (in-place)
I0927 14:49:10.854650  3463 layer_factory.hpp:77] Creating layer Scale16
I0927 14:49:10.854725  3463 net.cpp:122] Setting up Scale16
I0927 14:49:10.854730  3463 net.cpp:129] Top shape: 100 16 28 28 (1254400)
I0927 14:49:10.854732  3463 net.cpp:137] Memory required for data: 432454800
I0927 14:49:10.854737  3463 layer_factory.hpp:77] Creating layer M2PELU16
I0927 14:49:10.854742  3463 net.cpp:84] Creating Layer M2PELU16
I0927 14:49:10.854743  3463 net.cpp:406] M2PELU16 <- Convolution16
I0927 14:49:10.854748  3463 net.cpp:367] M2PELU16 -> Convolution16 (in-place)
I0927 14:49:10.854836  3463 net.cpp:122] Setting up M2PELU16
I0927 14:49:10.854841  3463 net.cpp:129] Top shape: 100 16 28 28 (1254400)
I0927 14:49:10.854843  3463 net.cpp:137] Memory required for data: 437472400
I0927 14:49:10.854846  3463 layer_factory.hpp:77] Creating layer Convolution17
I0927 14:49:10.854853  3463 net.cpp:84] Creating Layer Convolution17
I0927 14:49:10.854856  3463 net.cpp:406] Convolution17 <- Convolution16
I0927 14:49:10.854861  3463 net.cpp:380] Convolution17 -> Convolution17
I0927 14:49:10.855413  3463 net.cpp:122] Setting up Convolution17
I0927 14:49:10.855422  3463 net.cpp:129] Top shape: 100 16 28 28 (1254400)
I0927 14:49:10.855423  3463 net.cpp:137] Memory required for data: 442490000
I0927 14:49:10.855427  3463 layer_factory.hpp:77] Creating layer BatchNorm17
I0927 14:49:10.855432  3463 net.cpp:84] Creating Layer BatchNorm17
I0927 14:49:10.855435  3463 net.cpp:406] BatchNorm17 <- Convolution17
I0927 14:49:10.855438  3463 net.cpp:367] BatchNorm17 -> Convolution17 (in-place)
I0927 14:49:10.855567  3463 net.cpp:122] Setting up BatchNorm17
I0927 14:49:10.855571  3463 net.cpp:129] Top shape: 100 16 28 28 (1254400)
I0927 14:49:10.855573  3463 net.cpp:137] Memory required for data: 447507600
I0927 14:49:10.855578  3463 layer_factory.hpp:77] Creating layer Scale17
I0927 14:49:10.855582  3463 net.cpp:84] Creating Layer Scale17
I0927 14:49:10.855585  3463 net.cpp:406] Scale17 <- Convolution17
I0927 14:49:10.855588  3463 net.cpp:367] Scale17 -> Convolution17 (in-place)
I0927 14:49:10.855612  3463 layer_factory.hpp:77] Creating layer Scale17
I0927 14:49:10.855689  3463 net.cpp:122] Setting up Scale17
I0927 14:49:10.855693  3463 net.cpp:129] Top shape: 100 16 28 28 (1254400)
I0927 14:49:10.855695  3463 net.cpp:137] Memory required for data: 452525200
I0927 14:49:10.855698  3463 layer_factory.hpp:77] Creating layer Eltwise8
I0927 14:49:10.855703  3463 net.cpp:84] Creating Layer Eltwise8
I0927 14:49:10.855705  3463 net.cpp:406] Eltwise8 <- Eltwise7_M2PELU15_0_split_1
I0927 14:49:10.855708  3463 net.cpp:406] Eltwise8 <- Convolution17
I0927 14:49:10.855711  3463 net.cpp:380] Eltwise8 -> Eltwise8
I0927 14:49:10.855727  3463 net.cpp:122] Setting up Eltwise8
I0927 14:49:10.855731  3463 net.cpp:129] Top shape: 100 16 28 28 (1254400)
I0927 14:49:10.855732  3463 net.cpp:137] Memory required for data: 457542800
I0927 14:49:10.855736  3463 layer_factory.hpp:77] Creating layer M2PELU17
I0927 14:49:10.855741  3463 net.cpp:84] Creating Layer M2PELU17
I0927 14:49:10.855742  3463 net.cpp:406] M2PELU17 <- Eltwise8
I0927 14:49:10.855746  3463 net.cpp:367] M2PELU17 -> Eltwise8 (in-place)
I0927 14:49:10.855839  3463 net.cpp:122] Setting up M2PELU17
I0927 14:49:10.855844  3463 net.cpp:129] Top shape: 100 16 28 28 (1254400)
I0927 14:49:10.855846  3463 net.cpp:137] Memory required for data: 462560400
I0927 14:49:10.855850  3463 layer_factory.hpp:77] Creating layer Eltwise8_M2PELU17_0_split
I0927 14:49:10.855861  3463 net.cpp:84] Creating Layer Eltwise8_M2PELU17_0_split
I0927 14:49:10.855865  3463 net.cpp:406] Eltwise8_M2PELU17_0_split <- Eltwise8
I0927 14:49:10.855868  3463 net.cpp:380] Eltwise8_M2PELU17_0_split -> Eltwise8_M2PELU17_0_split_0
I0927 14:49:10.855873  3463 net.cpp:380] Eltwise8_M2PELU17_0_split -> Eltwise8_M2PELU17_0_split_1
I0927 14:49:10.855898  3463 net.cpp:122] Setting up Eltwise8_M2PELU17_0_split
I0927 14:49:10.855902  3463 net.cpp:129] Top shape: 100 16 28 28 (1254400)
I0927 14:49:10.855906  3463 net.cpp:129] Top shape: 100 16 28 28 (1254400)
I0927 14:49:10.855907  3463 net.cpp:137] Memory required for data: 472595600
I0927 14:49:10.855911  3463 layer_factory.hpp:77] Creating layer Convolution18
I0927 14:49:10.855916  3463 net.cpp:84] Creating Layer Convolution18
I0927 14:49:10.855918  3463 net.cpp:406] Convolution18 <- Eltwise8_M2PELU17_0_split_0
I0927 14:49:10.855923  3463 net.cpp:380] Convolution18 -> Convolution18
I0927 14:49:10.856865  3463 net.cpp:122] Setting up Convolution18
I0927 14:49:10.856873  3463 net.cpp:129] Top shape: 100 16 28 28 (1254400)
I0927 14:49:10.856875  3463 net.cpp:137] Memory required for data: 477613200
I0927 14:49:10.856879  3463 layer_factory.hpp:77] Creating layer BatchNorm18
I0927 14:49:10.856884  3463 net.cpp:84] Creating Layer BatchNorm18
I0927 14:49:10.856887  3463 net.cpp:406] BatchNorm18 <- Convolution18
I0927 14:49:10.856890  3463 net.cpp:367] BatchNorm18 -> Convolution18 (in-place)
I0927 14:49:10.857019  3463 net.cpp:122] Setting up BatchNorm18
I0927 14:49:10.857023  3463 net.cpp:129] Top shape: 100 16 28 28 (1254400)
I0927 14:49:10.857025  3463 net.cpp:137] Memory required for data: 482630800
I0927 14:49:10.857030  3463 layer_factory.hpp:77] Creating layer Scale18
I0927 14:49:10.857034  3463 net.cpp:84] Creating Layer Scale18
I0927 14:49:10.857036  3463 net.cpp:406] Scale18 <- Convolution18
I0927 14:49:10.857039  3463 net.cpp:367] Scale18 -> Convolution18 (in-place)
I0927 14:49:10.857065  3463 layer_factory.hpp:77] Creating layer Scale18
I0927 14:49:10.857141  3463 net.cpp:122] Setting up Scale18
I0927 14:49:10.857144  3463 net.cpp:129] Top shape: 100 16 28 28 (1254400)
I0927 14:49:10.857146  3463 net.cpp:137] Memory required for data: 487648400
I0927 14:49:10.857151  3463 layer_factory.hpp:77] Creating layer M2PELU18
I0927 14:49:10.857154  3463 net.cpp:84] Creating Layer M2PELU18
I0927 14:49:10.857156  3463 net.cpp:406] M2PELU18 <- Convolution18
I0927 14:49:10.857161  3463 net.cpp:367] M2PELU18 -> Convolution18 (in-place)
I0927 14:49:10.857242  3463 net.cpp:122] Setting up M2PELU18
I0927 14:49:10.857246  3463 net.cpp:129] Top shape: 100 16 28 28 (1254400)
I0927 14:49:10.857249  3463 net.cpp:137] Memory required for data: 492666000
I0927 14:49:10.857252  3463 layer_factory.hpp:77] Creating layer Convolution19
I0927 14:49:10.857259  3463 net.cpp:84] Creating Layer Convolution19
I0927 14:49:10.857260  3463 net.cpp:406] Convolution19 <- Convolution18
I0927 14:49:10.857265  3463 net.cpp:380] Convolution19 -> Convolution19
I0927 14:49:10.858151  3463 net.cpp:122] Setting up Convolution19
I0927 14:49:10.858160  3463 net.cpp:129] Top shape: 100 16 28 28 (1254400)
I0927 14:49:10.858162  3463 net.cpp:137] Memory required for data: 497683600
I0927 14:49:10.858166  3463 layer_factory.hpp:77] Creating layer BatchNorm19
I0927 14:49:10.858171  3463 net.cpp:84] Creating Layer BatchNorm19
I0927 14:49:10.858175  3463 net.cpp:406] BatchNorm19 <- Convolution19
I0927 14:49:10.858178  3463 net.cpp:367] BatchNorm19 -> Convolution19 (in-place)
I0927 14:49:10.858309  3463 net.cpp:122] Setting up BatchNorm19
I0927 14:49:10.858314  3463 net.cpp:129] Top shape: 100 16 28 28 (1254400)
I0927 14:49:10.858315  3463 net.cpp:137] Memory required for data: 502701200
I0927 14:49:10.858319  3463 layer_factory.hpp:77] Creating layer Scale19
I0927 14:49:10.858325  3463 net.cpp:84] Creating Layer Scale19
I0927 14:49:10.858326  3463 net.cpp:406] Scale19 <- Convolution19
I0927 14:49:10.858330  3463 net.cpp:367] Scale19 -> Convolution19 (in-place)
I0927 14:49:10.858355  3463 layer_factory.hpp:77] Creating layer Scale19
I0927 14:49:10.858441  3463 net.cpp:122] Setting up Scale19
I0927 14:49:10.858446  3463 net.cpp:129] Top shape: 100 16 28 28 (1254400)
I0927 14:49:10.858448  3463 net.cpp:137] Memory required for data: 507718800
I0927 14:49:10.858453  3463 layer_factory.hpp:77] Creating layer Eltwise9
I0927 14:49:10.858458  3463 net.cpp:84] Creating Layer Eltwise9
I0927 14:49:10.858460  3463 net.cpp:406] Eltwise9 <- Eltwise8_M2PELU17_0_split_1
I0927 14:49:10.858463  3463 net.cpp:406] Eltwise9 <- Convolution19
I0927 14:49:10.858466  3463 net.cpp:380] Eltwise9 -> Eltwise9
I0927 14:49:10.858481  3463 net.cpp:122] Setting up Eltwise9
I0927 14:49:10.858485  3463 net.cpp:129] Top shape: 100 16 28 28 (1254400)
I0927 14:49:10.858487  3463 net.cpp:137] Memory required for data: 512736400
I0927 14:49:10.858489  3463 layer_factory.hpp:77] Creating layer M2PELU19
I0927 14:49:10.858494  3463 net.cpp:84] Creating Layer M2PELU19
I0927 14:49:10.858496  3463 net.cpp:406] M2PELU19 <- Eltwise9
I0927 14:49:10.858500  3463 net.cpp:367] M2PELU19 -> Eltwise9 (in-place)
I0927 14:49:10.858610  3463 net.cpp:122] Setting up M2PELU19
I0927 14:49:10.858615  3463 net.cpp:129] Top shape: 100 16 28 28 (1254400)
I0927 14:49:10.858618  3463 net.cpp:137] Memory required for data: 517754000
I0927 14:49:10.858621  3463 layer_factory.hpp:77] Creating layer Eltwise9_M2PELU19_0_split
I0927 14:49:10.858624  3463 net.cpp:84] Creating Layer Eltwise9_M2PELU19_0_split
I0927 14:49:10.858628  3463 net.cpp:406] Eltwise9_M2PELU19_0_split <- Eltwise9
I0927 14:49:10.858631  3463 net.cpp:380] Eltwise9_M2PELU19_0_split -> Eltwise9_M2PELU19_0_split_0
I0927 14:49:10.858635  3463 net.cpp:380] Eltwise9_M2PELU19_0_split -> Eltwise9_M2PELU19_0_split_1
I0927 14:49:10.858657  3463 net.cpp:122] Setting up Eltwise9_M2PELU19_0_split
I0927 14:49:10.858661  3463 net.cpp:129] Top shape: 100 16 28 28 (1254400)
I0927 14:49:10.858664  3463 net.cpp:129] Top shape: 100 16 28 28 (1254400)
I0927 14:49:10.858666  3463 net.cpp:137] Memory required for data: 527789200
I0927 14:49:10.858669  3463 layer_factory.hpp:77] Creating layer Convolution20
I0927 14:49:10.858676  3463 net.cpp:84] Creating Layer Convolution20
I0927 14:49:10.858680  3463 net.cpp:406] Convolution20 <- Eltwise9_M2PELU19_0_split_0
I0927 14:49:10.858683  3463 net.cpp:380] Convolution20 -> Convolution20
I0927 14:49:10.859879  3463 net.cpp:122] Setting up Convolution20
I0927 14:49:10.859887  3463 net.cpp:129] Top shape: 100 32 14 14 (627200)
I0927 14:49:10.859889  3463 net.cpp:137] Memory required for data: 530298000
I0927 14:49:10.859895  3463 layer_factory.hpp:77] Creating layer BatchNorm20
I0927 14:49:10.859900  3463 net.cpp:84] Creating Layer BatchNorm20
I0927 14:49:10.859902  3463 net.cpp:406] BatchNorm20 <- Convolution20
I0927 14:49:10.859906  3463 net.cpp:367] BatchNorm20 -> Convolution20 (in-place)
I0927 14:49:10.860056  3463 net.cpp:122] Setting up BatchNorm20
I0927 14:49:10.860060  3463 net.cpp:129] Top shape: 100 32 14 14 (627200)
I0927 14:49:10.860064  3463 net.cpp:137] Memory required for data: 532806800
I0927 14:49:10.860069  3463 layer_factory.hpp:77] Creating layer Scale20
I0927 14:49:10.860072  3463 net.cpp:84] Creating Layer Scale20
I0927 14:49:10.860074  3463 net.cpp:406] Scale20 <- Convolution20
I0927 14:49:10.860079  3463 net.cpp:367] Scale20 -> Convolution20 (in-place)
I0927 14:49:10.860105  3463 layer_factory.hpp:77] Creating layer Scale20
I0927 14:49:10.860203  3463 net.cpp:122] Setting up Scale20
I0927 14:49:10.860206  3463 net.cpp:129] Top shape: 100 32 14 14 (627200)
I0927 14:49:10.860208  3463 net.cpp:137] Memory required for data: 535315600
I0927 14:49:10.860213  3463 layer_factory.hpp:77] Creating layer Convolution21
I0927 14:49:10.860219  3463 net.cpp:84] Creating Layer Convolution21
I0927 14:49:10.860221  3463 net.cpp:406] Convolution21 <- Eltwise9_M2PELU19_0_split_1
I0927 14:49:10.860226  3463 net.cpp:380] Convolution21 -> Convolution21
I0927 14:49:10.862041  3463 net.cpp:122] Setting up Convolution21
I0927 14:49:10.862051  3463 net.cpp:129] Top shape: 100 32 14 14 (627200)
I0927 14:49:10.862059  3463 net.cpp:137] Memory required for data: 537824400
I0927 14:49:10.862066  3463 layer_factory.hpp:77] Creating layer BatchNorm21
I0927 14:49:10.862069  3463 net.cpp:84] Creating Layer BatchNorm21
I0927 14:49:10.862072  3463 net.cpp:406] BatchNorm21 <- Convolution21
I0927 14:49:10.862076  3463 net.cpp:367] BatchNorm21 -> Convolution21 (in-place)
I0927 14:49:10.862222  3463 net.cpp:122] Setting up BatchNorm21
I0927 14:49:10.862226  3463 net.cpp:129] Top shape: 100 32 14 14 (627200)
I0927 14:49:10.862228  3463 net.cpp:137] Memory required for data: 540333200
I0927 14:49:10.862233  3463 layer_factory.hpp:77] Creating layer Scale21
I0927 14:49:10.862238  3463 net.cpp:84] Creating Layer Scale21
I0927 14:49:10.862241  3463 net.cpp:406] Scale21 <- Convolution21
I0927 14:49:10.862243  3463 net.cpp:367] Scale21 -> Convolution21 (in-place)
I0927 14:49:10.862291  3463 layer_factory.hpp:77] Creating layer Scale21
I0927 14:49:10.862368  3463 net.cpp:122] Setting up Scale21
I0927 14:49:10.862373  3463 net.cpp:129] Top shape: 100 32 14 14 (627200)
I0927 14:49:10.862375  3463 net.cpp:137] Memory required for data: 542842000
I0927 14:49:10.862380  3463 layer_factory.hpp:77] Creating layer M2PELU20
I0927 14:49:10.862385  3463 net.cpp:84] Creating Layer M2PELU20
I0927 14:49:10.862387  3463 net.cpp:406] M2PELU20 <- Convolution21
I0927 14:49:10.862391  3463 net.cpp:367] M2PELU20 -> Convolution21 (in-place)
I0927 14:49:10.862478  3463 net.cpp:122] Setting up M2PELU20
I0927 14:49:10.862483  3463 net.cpp:129] Top shape: 100 32 14 14 (627200)
I0927 14:49:10.862484  3463 net.cpp:137] Memory required for data: 545350800
I0927 14:49:10.862488  3463 layer_factory.hpp:77] Creating layer Convolution22
I0927 14:49:10.862495  3463 net.cpp:84] Creating Layer Convolution22
I0927 14:49:10.862498  3463 net.cpp:406] Convolution22 <- Convolution21
I0927 14:49:10.862502  3463 net.cpp:380] Convolution22 -> Convolution22
I0927 14:49:10.863587  3463 net.cpp:122] Setting up Convolution22
I0927 14:49:10.863596  3463 net.cpp:129] Top shape: 100 32 14 14 (627200)
I0927 14:49:10.863600  3463 net.cpp:137] Memory required for data: 547859600
I0927 14:49:10.863603  3463 layer_factory.hpp:77] Creating layer BatchNorm22
I0927 14:49:10.863608  3463 net.cpp:84] Creating Layer BatchNorm22
I0927 14:49:10.863611  3463 net.cpp:406] BatchNorm22 <- Convolution22
I0927 14:49:10.863615  3463 net.cpp:367] BatchNorm22 -> Convolution22 (in-place)
I0927 14:49:10.863749  3463 net.cpp:122] Setting up BatchNorm22
I0927 14:49:10.863754  3463 net.cpp:129] Top shape: 100 32 14 14 (627200)
I0927 14:49:10.863755  3463 net.cpp:137] Memory required for data: 550368400
I0927 14:49:10.863759  3463 layer_factory.hpp:77] Creating layer Scale22
I0927 14:49:10.863765  3463 net.cpp:84] Creating Layer Scale22
I0927 14:49:10.863767  3463 net.cpp:406] Scale22 <- Convolution22
I0927 14:49:10.863770  3463 net.cpp:367] Scale22 -> Convolution22 (in-place)
I0927 14:49:10.863796  3463 layer_factory.hpp:77] Creating layer Scale22
I0927 14:49:10.863883  3463 net.cpp:122] Setting up Scale22
I0927 14:49:10.863888  3463 net.cpp:129] Top shape: 100 32 14 14 (627200)
I0927 14:49:10.863889  3463 net.cpp:137] Memory required for data: 552877200
I0927 14:49:10.863893  3463 layer_factory.hpp:77] Creating layer Eltwise10
I0927 14:49:10.863898  3463 net.cpp:84] Creating Layer Eltwise10
I0927 14:49:10.863901  3463 net.cpp:406] Eltwise10 <- Convolution20
I0927 14:49:10.863904  3463 net.cpp:406] Eltwise10 <- Convolution22
I0927 14:49:10.863907  3463 net.cpp:380] Eltwise10 -> Eltwise10
I0927 14:49:10.863924  3463 net.cpp:122] Setting up Eltwise10
I0927 14:49:10.863929  3463 net.cpp:129] Top shape: 100 32 14 14 (627200)
I0927 14:49:10.863930  3463 net.cpp:137] Memory required for data: 555386000
I0927 14:49:10.863932  3463 layer_factory.hpp:77] Creating layer M2PELU21
I0927 14:49:10.863937  3463 net.cpp:84] Creating Layer M2PELU21
I0927 14:49:10.863940  3463 net.cpp:406] M2PELU21 <- Eltwise10
I0927 14:49:10.863943  3463 net.cpp:367] M2PELU21 -> Eltwise10 (in-place)
I0927 14:49:10.864027  3463 net.cpp:122] Setting up M2PELU21
I0927 14:49:10.864038  3463 net.cpp:129] Top shape: 100 32 14 14 (627200)
I0927 14:49:10.864042  3463 net.cpp:137] Memory required for data: 557894800
I0927 14:49:10.864045  3463 layer_factory.hpp:77] Creating layer Eltwise10_M2PELU21_0_split
I0927 14:49:10.864050  3463 net.cpp:84] Creating Layer Eltwise10_M2PELU21_0_split
I0927 14:49:10.864053  3463 net.cpp:406] Eltwise10_M2PELU21_0_split <- Eltwise10
I0927 14:49:10.864056  3463 net.cpp:380] Eltwise10_M2PELU21_0_split -> Eltwise10_M2PELU21_0_split_0
I0927 14:49:10.864060  3463 net.cpp:380] Eltwise10_M2PELU21_0_split -> Eltwise10_M2PELU21_0_split_1
I0927 14:49:10.864085  3463 net.cpp:122] Setting up Eltwise10_M2PELU21_0_split
I0927 14:49:10.864089  3463 net.cpp:129] Top shape: 100 32 14 14 (627200)
I0927 14:49:10.864092  3463 net.cpp:129] Top shape: 100 32 14 14 (627200)
I0927 14:49:10.864094  3463 net.cpp:137] Memory required for data: 562912400
I0927 14:49:10.864096  3463 layer_factory.hpp:77] Creating layer Convolution23
I0927 14:49:10.864102  3463 net.cpp:84] Creating Layer Convolution23
I0927 14:49:10.864105  3463 net.cpp:406] Convolution23 <- Eltwise10_M2PELU21_0_split_0
I0927 14:49:10.864110  3463 net.cpp:380] Convolution23 -> Convolution23
I0927 14:49:10.865483  3463 net.cpp:122] Setting up Convolution23
I0927 14:49:10.865492  3463 net.cpp:129] Top shape: 100 32 14 14 (627200)
I0927 14:49:10.865494  3463 net.cpp:137] Memory required for data: 565421200
I0927 14:49:10.865499  3463 layer_factory.hpp:77] Creating layer BatchNorm23
I0927 14:49:10.865504  3463 net.cpp:84] Creating Layer BatchNorm23
I0927 14:49:10.865507  3463 net.cpp:406] BatchNorm23 <- Convolution23
I0927 14:49:10.865511  3463 net.cpp:367] BatchNorm23 -> Convolution23 (in-place)
I0927 14:49:10.865648  3463 net.cpp:122] Setting up BatchNorm23
I0927 14:49:10.865653  3463 net.cpp:129] Top shape: 100 32 14 14 (627200)
I0927 14:49:10.865654  3463 net.cpp:137] Memory required for data: 567930000
I0927 14:49:10.865659  3463 layer_factory.hpp:77] Creating layer Scale23
I0927 14:49:10.865664  3463 net.cpp:84] Creating Layer Scale23
I0927 14:49:10.865666  3463 net.cpp:406] Scale23 <- Convolution23
I0927 14:49:10.865669  3463 net.cpp:367] Scale23 -> Convolution23 (in-place)
I0927 14:49:10.865695  3463 layer_factory.hpp:77] Creating layer Scale23
I0927 14:49:10.865773  3463 net.cpp:122] Setting up Scale23
I0927 14:49:10.865778  3463 net.cpp:129] Top shape: 100 32 14 14 (627200)
I0927 14:49:10.865780  3463 net.cpp:137] Memory required for data: 570438800
I0927 14:49:10.865784  3463 layer_factory.hpp:77] Creating layer M2PELU22
I0927 14:49:10.865789  3463 net.cpp:84] Creating Layer M2PELU22
I0927 14:49:10.865792  3463 net.cpp:406] M2PELU22 <- Convolution23
I0927 14:49:10.865795  3463 net.cpp:367] M2PELU22 -> Convolution23 (in-place)
I0927 14:49:10.865877  3463 net.cpp:122] Setting up M2PELU22
I0927 14:49:10.865882  3463 net.cpp:129] Top shape: 100 32 14 14 (627200)
I0927 14:49:10.865885  3463 net.cpp:137] Memory required for data: 572947600
I0927 14:49:10.865888  3463 layer_factory.hpp:77] Creating layer Convolution24
I0927 14:49:10.865893  3463 net.cpp:84] Creating Layer Convolution24
I0927 14:49:10.865896  3463 net.cpp:406] Convolution24 <- Convolution23
I0927 14:49:10.865900  3463 net.cpp:380] Convolution24 -> Convolution24
I0927 14:49:10.866977  3463 net.cpp:122] Setting up Convolution24
I0927 14:49:10.866987  3463 net.cpp:129] Top shape: 100 32 14 14 (627200)
I0927 14:49:10.866989  3463 net.cpp:137] Memory required for data: 575456400
I0927 14:49:10.866994  3463 layer_factory.hpp:77] Creating layer BatchNorm24
I0927 14:49:10.866998  3463 net.cpp:84] Creating Layer BatchNorm24
I0927 14:49:10.867002  3463 net.cpp:406] BatchNorm24 <- Convolution24
I0927 14:49:10.867005  3463 net.cpp:367] BatchNorm24 -> Convolution24 (in-place)
I0927 14:49:10.867137  3463 net.cpp:122] Setting up BatchNorm24
I0927 14:49:10.867141  3463 net.cpp:129] Top shape: 100 32 14 14 (627200)
I0927 14:49:10.867144  3463 net.cpp:137] Memory required for data: 577965200
I0927 14:49:10.867148  3463 layer_factory.hpp:77] Creating layer Scale24
I0927 14:49:10.867158  3463 net.cpp:84] Creating Layer Scale24
I0927 14:49:10.867161  3463 net.cpp:406] Scale24 <- Convolution24
I0927 14:49:10.867164  3463 net.cpp:367] Scale24 -> Convolution24 (in-place)
I0927 14:49:10.867192  3463 layer_factory.hpp:77] Creating layer Scale24
I0927 14:49:10.867267  3463 net.cpp:122] Setting up Scale24
I0927 14:49:10.867271  3463 net.cpp:129] Top shape: 100 32 14 14 (627200)
I0927 14:49:10.867274  3463 net.cpp:137] Memory required for data: 580474000
I0927 14:49:10.867277  3463 layer_factory.hpp:77] Creating layer Eltwise11
I0927 14:49:10.867281  3463 net.cpp:84] Creating Layer Eltwise11
I0927 14:49:10.867285  3463 net.cpp:406] Eltwise11 <- Eltwise10_M2PELU21_0_split_1
I0927 14:49:10.867286  3463 net.cpp:406] Eltwise11 <- Convolution24
I0927 14:49:10.867290  3463 net.cpp:380] Eltwise11 -> Eltwise11
I0927 14:49:10.867305  3463 net.cpp:122] Setting up Eltwise11
I0927 14:49:10.867310  3463 net.cpp:129] Top shape: 100 32 14 14 (627200)
I0927 14:49:10.867311  3463 net.cpp:137] Memory required for data: 582982800
I0927 14:49:10.867313  3463 layer_factory.hpp:77] Creating layer M2PELU23
I0927 14:49:10.867318  3463 net.cpp:84] Creating Layer M2PELU23
I0927 14:49:10.867321  3463 net.cpp:406] M2PELU23 <- Eltwise11
I0927 14:49:10.867324  3463 net.cpp:367] M2PELU23 -> Eltwise11 (in-place)
I0927 14:49:10.867406  3463 net.cpp:122] Setting up M2PELU23
I0927 14:49:10.867410  3463 net.cpp:129] Top shape: 100 32 14 14 (627200)
I0927 14:49:10.867413  3463 net.cpp:137] Memory required for data: 585491600
I0927 14:49:10.867416  3463 layer_factory.hpp:77] Creating layer Eltwise11_M2PELU23_0_split
I0927 14:49:10.867420  3463 net.cpp:84] Creating Layer Eltwise11_M2PELU23_0_split
I0927 14:49:10.867422  3463 net.cpp:406] Eltwise11_M2PELU23_0_split <- Eltwise11
I0927 14:49:10.867425  3463 net.cpp:380] Eltwise11_M2PELU23_0_split -> Eltwise11_M2PELU23_0_split_0
I0927 14:49:10.867430  3463 net.cpp:380] Eltwise11_M2PELU23_0_split -> Eltwise11_M2PELU23_0_split_1
I0927 14:49:10.867452  3463 net.cpp:122] Setting up Eltwise11_M2PELU23_0_split
I0927 14:49:10.867456  3463 net.cpp:129] Top shape: 100 32 14 14 (627200)
I0927 14:49:10.867460  3463 net.cpp:129] Top shape: 100 32 14 14 (627200)
I0927 14:49:10.867461  3463 net.cpp:137] Memory required for data: 590509200
I0927 14:49:10.867463  3463 layer_factory.hpp:77] Creating layer Convolution25
I0927 14:49:10.867470  3463 net.cpp:84] Creating Layer Convolution25
I0927 14:49:10.867472  3463 net.cpp:406] Convolution25 <- Eltwise11_M2PELU23_0_split_0
I0927 14:49:10.867475  3463 net.cpp:380] Convolution25 -> Convolution25
I0927 14:49:10.868520  3463 net.cpp:122] Setting up Convolution25
I0927 14:49:10.868528  3463 net.cpp:129] Top shape: 100 32 14 14 (627200)
I0927 14:49:10.868530  3463 net.cpp:137] Memory required for data: 593018000
I0927 14:49:10.868535  3463 layer_factory.hpp:77] Creating layer BatchNorm25
I0927 14:49:10.868541  3463 net.cpp:84] Creating Layer BatchNorm25
I0927 14:49:10.868544  3463 net.cpp:406] BatchNorm25 <- Convolution25
I0927 14:49:10.868549  3463 net.cpp:367] BatchNorm25 -> Convolution25 (in-place)
I0927 14:49:10.868685  3463 net.cpp:122] Setting up BatchNorm25
I0927 14:49:10.868688  3463 net.cpp:129] Top shape: 100 32 14 14 (627200)
I0927 14:49:10.868690  3463 net.cpp:137] Memory required for data: 595526800
I0927 14:49:10.868695  3463 layer_factory.hpp:77] Creating layer Scale25
I0927 14:49:10.868700  3463 net.cpp:84] Creating Layer Scale25
I0927 14:49:10.868703  3463 net.cpp:406] Scale25 <- Convolution25
I0927 14:49:10.868706  3463 net.cpp:367] Scale25 -> Convolution25 (in-place)
I0927 14:49:10.868732  3463 layer_factory.hpp:77] Creating layer Scale25
I0927 14:49:10.868809  3463 net.cpp:122] Setting up Scale25
I0927 14:49:10.868813  3463 net.cpp:129] Top shape: 100 32 14 14 (627200)
I0927 14:49:10.868815  3463 net.cpp:137] Memory required for data: 598035600
I0927 14:49:10.868818  3463 layer_factory.hpp:77] Creating layer M2PELU24
I0927 14:49:10.868832  3463 net.cpp:84] Creating Layer M2PELU24
I0927 14:49:10.868834  3463 net.cpp:406] M2PELU24 <- Convolution25
I0927 14:49:10.868844  3463 net.cpp:367] M2PELU24 -> Convolution25 (in-place)
I0927 14:49:10.868927  3463 net.cpp:122] Setting up M2PELU24
I0927 14:49:10.868932  3463 net.cpp:129] Top shape: 100 32 14 14 (627200)
I0927 14:49:10.868933  3463 net.cpp:137] Memory required for data: 600544400
I0927 14:49:10.868937  3463 layer_factory.hpp:77] Creating layer Convolution26
I0927 14:49:10.868943  3463 net.cpp:84] Creating Layer Convolution26
I0927 14:49:10.868945  3463 net.cpp:406] Convolution26 <- Convolution25
I0927 14:49:10.868950  3463 net.cpp:380] Convolution26 -> Convolution26
I0927 14:49:10.870002  3463 net.cpp:122] Setting up Convolution26
I0927 14:49:10.870012  3463 net.cpp:129] Top shape: 100 32 14 14 (627200)
I0927 14:49:10.870014  3463 net.cpp:137] Memory required for data: 603053200
I0927 14:49:10.870018  3463 layer_factory.hpp:77] Creating layer BatchNorm26
I0927 14:49:10.870023  3463 net.cpp:84] Creating Layer BatchNorm26
I0927 14:49:10.870025  3463 net.cpp:406] BatchNorm26 <- Convolution26
I0927 14:49:10.870030  3463 net.cpp:367] BatchNorm26 -> Convolution26 (in-place)
I0927 14:49:10.870165  3463 net.cpp:122] Setting up BatchNorm26
I0927 14:49:10.870170  3463 net.cpp:129] Top shape: 100 32 14 14 (627200)
I0927 14:49:10.870172  3463 net.cpp:137] Memory required for data: 605562000
I0927 14:49:10.870177  3463 layer_factory.hpp:77] Creating layer Scale26
I0927 14:49:10.870180  3463 net.cpp:84] Creating Layer Scale26
I0927 14:49:10.870183  3463 net.cpp:406] Scale26 <- Convolution26
I0927 14:49:10.870187  3463 net.cpp:367] Scale26 -> Convolution26 (in-place)
I0927 14:49:10.870213  3463 layer_factory.hpp:77] Creating layer Scale26
I0927 14:49:10.870292  3463 net.cpp:122] Setting up Scale26
I0927 14:49:10.870296  3463 net.cpp:129] Top shape: 100 32 14 14 (627200)
I0927 14:49:10.870298  3463 net.cpp:137] Memory required for data: 608070800
I0927 14:49:10.870302  3463 layer_factory.hpp:77] Creating layer Eltwise12
I0927 14:49:10.870306  3463 net.cpp:84] Creating Layer Eltwise12
I0927 14:49:10.870308  3463 net.cpp:406] Eltwise12 <- Eltwise11_M2PELU23_0_split_1
I0927 14:49:10.870311  3463 net.cpp:406] Eltwise12 <- Convolution26
I0927 14:49:10.870314  3463 net.cpp:380] Eltwise12 -> Eltwise12
I0927 14:49:10.870332  3463 net.cpp:122] Setting up Eltwise12
I0927 14:49:10.870337  3463 net.cpp:129] Top shape: 100 32 14 14 (627200)
I0927 14:49:10.870338  3463 net.cpp:137] Memory required for data: 610579600
I0927 14:49:10.870340  3463 layer_factory.hpp:77] Creating layer M2PELU25
I0927 14:49:10.870345  3463 net.cpp:84] Creating Layer M2PELU25
I0927 14:49:10.870347  3463 net.cpp:406] M2PELU25 <- Eltwise12
I0927 14:49:10.870352  3463 net.cpp:367] M2PELU25 -> Eltwise12 (in-place)
I0927 14:49:10.870435  3463 net.cpp:122] Setting up M2PELU25
I0927 14:49:10.870440  3463 net.cpp:129] Top shape: 100 32 14 14 (627200)
I0927 14:49:10.870441  3463 net.cpp:137] Memory required for data: 613088400
I0927 14:49:10.870445  3463 layer_factory.hpp:77] Creating layer Eltwise12_M2PELU25_0_split
I0927 14:49:10.870457  3463 net.cpp:84] Creating Layer Eltwise12_M2PELU25_0_split
I0927 14:49:10.870460  3463 net.cpp:406] Eltwise12_M2PELU25_0_split <- Eltwise12
I0927 14:49:10.870463  3463 net.cpp:380] Eltwise12_M2PELU25_0_split -> Eltwise12_M2PELU25_0_split_0
I0927 14:49:10.870472  3463 net.cpp:380] Eltwise12_M2PELU25_0_split -> Eltwise12_M2PELU25_0_split_1
I0927 14:49:10.870496  3463 net.cpp:122] Setting up Eltwise12_M2PELU25_0_split
I0927 14:49:10.870501  3463 net.cpp:129] Top shape: 100 32 14 14 (627200)
I0927 14:49:10.870503  3463 net.cpp:129] Top shape: 100 32 14 14 (627200)
I0927 14:49:10.870506  3463 net.cpp:137] Memory required for data: 618106000
I0927 14:49:10.870508  3463 layer_factory.hpp:77] Creating layer Convolution27
I0927 14:49:10.870514  3463 net.cpp:84] Creating Layer Convolution27
I0927 14:49:10.870517  3463 net.cpp:406] Convolution27 <- Eltwise12_M2PELU25_0_split_0
I0927 14:49:10.870537  3463 net.cpp:380] Convolution27 -> Convolution27
I0927 14:49:10.871265  3463 net.cpp:122] Setting up Convolution27
I0927 14:49:10.871273  3463 net.cpp:129] Top shape: 100 32 14 14 (627200)
I0927 14:49:10.871281  3463 net.cpp:137] Memory required for data: 620614800
I0927 14:49:10.871285  3463 layer_factory.hpp:77] Creating layer BatchNorm27
I0927 14:49:10.871290  3463 net.cpp:84] Creating Layer BatchNorm27
I0927 14:49:10.871294  3463 net.cpp:406] BatchNorm27 <- Convolution27
I0927 14:49:10.871296  3463 net.cpp:367] BatchNorm27 -> Convolution27 (in-place)
I0927 14:49:10.871429  3463 net.cpp:122] Setting up BatchNorm27
I0927 14:49:10.871433  3463 net.cpp:129] Top shape: 100 32 14 14 (627200)
I0927 14:49:10.871435  3463 net.cpp:137] Memory required for data: 623123600
I0927 14:49:10.871440  3463 layer_factory.hpp:77] Creating layer Scale27
I0927 14:49:10.871444  3463 net.cpp:84] Creating Layer Scale27
I0927 14:49:10.871446  3463 net.cpp:406] Scale27 <- Convolution27
I0927 14:49:10.871450  3463 net.cpp:367] Scale27 -> Convolution27 (in-place)
I0927 14:49:10.871475  3463 layer_factory.hpp:77] Creating layer Scale27
I0927 14:49:10.871551  3463 net.cpp:122] Setting up Scale27
I0927 14:49:10.871554  3463 net.cpp:129] Top shape: 100 32 14 14 (627200)
I0927 14:49:10.871556  3463 net.cpp:137] Memory required for data: 625632400
I0927 14:49:10.871559  3463 layer_factory.hpp:77] Creating layer M2PELU26
I0927 14:49:10.871564  3463 net.cpp:84] Creating Layer M2PELU26
I0927 14:49:10.871567  3463 net.cpp:406] M2PELU26 <- Convolution27
I0927 14:49:10.871572  3463 net.cpp:367] M2PELU26 -> Convolution27 (in-place)
I0927 14:49:10.871651  3463 net.cpp:122] Setting up M2PELU26
I0927 14:49:10.871655  3463 net.cpp:129] Top shape: 100 32 14 14 (627200)
I0927 14:49:10.871657  3463 net.cpp:137] Memory required for data: 628141200
I0927 14:49:10.871661  3463 layer_factory.hpp:77] Creating layer Convolution28
I0927 14:49:10.871667  3463 net.cpp:84] Creating Layer Convolution28
I0927 14:49:10.871670  3463 net.cpp:406] Convolution28 <- Convolution27
I0927 14:49:10.871673  3463 net.cpp:380] Convolution28 -> Convolution28
I0927 14:49:10.872691  3463 net.cpp:122] Setting up Convolution28
I0927 14:49:10.872699  3463 net.cpp:129] Top shape: 100 32 14 14 (627200)
I0927 14:49:10.872702  3463 net.cpp:137] Memory required for data: 630650000
I0927 14:49:10.872706  3463 layer_factory.hpp:77] Creating layer BatchNorm28
I0927 14:49:10.872711  3463 net.cpp:84] Creating Layer BatchNorm28
I0927 14:49:10.872714  3463 net.cpp:406] BatchNorm28 <- Convolution28
I0927 14:49:10.872717  3463 net.cpp:367] BatchNorm28 -> Convolution28 (in-place)
I0927 14:49:10.872851  3463 net.cpp:122] Setting up BatchNorm28
I0927 14:49:10.872855  3463 net.cpp:129] Top shape: 100 32 14 14 (627200)
I0927 14:49:10.872858  3463 net.cpp:137] Memory required for data: 633158800
I0927 14:49:10.872862  3463 layer_factory.hpp:77] Creating layer Scale28
I0927 14:49:10.872866  3463 net.cpp:84] Creating Layer Scale28
I0927 14:49:10.872869  3463 net.cpp:406] Scale28 <- Convolution28
I0927 14:49:10.872871  3463 net.cpp:367] Scale28 -> Convolution28 (in-place)
I0927 14:49:10.872898  3463 layer_factory.hpp:77] Creating layer Scale28
I0927 14:49:10.872972  3463 net.cpp:122] Setting up Scale28
I0927 14:49:10.872977  3463 net.cpp:129] Top shape: 100 32 14 14 (627200)
I0927 14:49:10.872978  3463 net.cpp:137] Memory required for data: 635667600
I0927 14:49:10.872982  3463 layer_factory.hpp:77] Creating layer Eltwise13
I0927 14:49:10.872987  3463 net.cpp:84] Creating Layer Eltwise13
I0927 14:49:10.872989  3463 net.cpp:406] Eltwise13 <- Eltwise12_M2PELU25_0_split_1
I0927 14:49:10.872992  3463 net.cpp:406] Eltwise13 <- Convolution28
I0927 14:49:10.872995  3463 net.cpp:380] Eltwise13 -> Eltwise13
I0927 14:49:10.873010  3463 net.cpp:122] Setting up Eltwise13
I0927 14:49:10.873014  3463 net.cpp:129] Top shape: 100 32 14 14 (627200)
I0927 14:49:10.873016  3463 net.cpp:137] Memory required for data: 638176400
I0927 14:49:10.873018  3463 layer_factory.hpp:77] Creating layer M2PELU27
I0927 14:49:10.873023  3463 net.cpp:84] Creating Layer M2PELU27
I0927 14:49:10.873025  3463 net.cpp:406] M2PELU27 <- Eltwise13
I0927 14:49:10.873028  3463 net.cpp:367] M2PELU27 -> Eltwise13 (in-place)
I0927 14:49:10.873117  3463 net.cpp:122] Setting up M2PELU27
I0927 14:49:10.873122  3463 net.cpp:129] Top shape: 100 32 14 14 (627200)
I0927 14:49:10.873124  3463 net.cpp:137] Memory required for data: 640685200
I0927 14:49:10.873128  3463 layer_factory.hpp:77] Creating layer Eltwise13_M2PELU27_0_split
I0927 14:49:10.873132  3463 net.cpp:84] Creating Layer Eltwise13_M2PELU27_0_split
I0927 14:49:10.873134  3463 net.cpp:406] Eltwise13_M2PELU27_0_split <- Eltwise13
I0927 14:49:10.873137  3463 net.cpp:380] Eltwise13_M2PELU27_0_split -> Eltwise13_M2PELU27_0_split_0
I0927 14:49:10.873142  3463 net.cpp:380] Eltwise13_M2PELU27_0_split -> Eltwise13_M2PELU27_0_split_1
I0927 14:49:10.873167  3463 net.cpp:122] Setting up Eltwise13_M2PELU27_0_split
I0927 14:49:10.873169  3463 net.cpp:129] Top shape: 100 32 14 14 (627200)
I0927 14:49:10.873172  3463 net.cpp:129] Top shape: 100 32 14 14 (627200)
I0927 14:49:10.873174  3463 net.cpp:137] Memory required for data: 645702800
I0927 14:49:10.873176  3463 layer_factory.hpp:77] Creating layer Convolution29
I0927 14:49:10.873183  3463 net.cpp:84] Creating Layer Convolution29
I0927 14:49:10.873185  3463 net.cpp:406] Convolution29 <- Eltwise13_M2PELU27_0_split_0
I0927 14:49:10.873189  3463 net.cpp:380] Convolution29 -> Convolution29
I0927 14:49:10.874249  3463 net.cpp:122] Setting up Convolution29
I0927 14:49:10.874258  3463 net.cpp:129] Top shape: 100 32 14 14 (627200)
I0927 14:49:10.874260  3463 net.cpp:137] Memory required for data: 648211600
I0927 14:49:10.874264  3463 layer_factory.hpp:77] Creating layer BatchNorm29
I0927 14:49:10.874270  3463 net.cpp:84] Creating Layer BatchNorm29
I0927 14:49:10.874274  3463 net.cpp:406] BatchNorm29 <- Convolution29
I0927 14:49:10.874276  3463 net.cpp:367] BatchNorm29 -> Convolution29 (in-place)
I0927 14:49:10.874413  3463 net.cpp:122] Setting up BatchNorm29
I0927 14:49:10.874418  3463 net.cpp:129] Top shape: 100 32 14 14 (627200)
I0927 14:49:10.874420  3463 net.cpp:137] Memory required for data: 650720400
I0927 14:49:10.874424  3463 layer_factory.hpp:77] Creating layer Scale29
I0927 14:49:10.874429  3463 net.cpp:84] Creating Layer Scale29
I0927 14:49:10.874433  3463 net.cpp:406] Scale29 <- Convolution29
I0927 14:49:10.874435  3463 net.cpp:367] Scale29 -> Convolution29 (in-place)
I0927 14:49:10.874462  3463 layer_factory.hpp:77] Creating layer Scale29
I0927 14:49:10.874567  3463 net.cpp:122] Setting up Scale29
I0927 14:49:10.874572  3463 net.cpp:129] Top shape: 100 32 14 14 (627200)
I0927 14:49:10.874574  3463 net.cpp:137] Memory required for data: 653229200
I0927 14:49:10.874594  3463 layer_factory.hpp:77] Creating layer M2PELU28
I0927 14:49:10.874601  3463 net.cpp:84] Creating Layer M2PELU28
I0927 14:49:10.874604  3463 net.cpp:406] M2PELU28 <- Convolution29
I0927 14:49:10.874608  3463 net.cpp:367] M2PELU28 -> Convolution29 (in-place)
I0927 14:49:10.874696  3463 net.cpp:122] Setting up M2PELU28
I0927 14:49:10.874701  3463 net.cpp:129] Top shape: 100 32 14 14 (627200)
I0927 14:49:10.874703  3463 net.cpp:137] Memory required for data: 655738000
I0927 14:49:10.874707  3463 layer_factory.hpp:77] Creating layer Convolution30
I0927 14:49:10.874713  3463 net.cpp:84] Creating Layer Convolution30
I0927 14:49:10.874716  3463 net.cpp:406] Convolution30 <- Convolution29
I0927 14:49:10.874721  3463 net.cpp:380] Convolution30 -> Convolution30
I0927 14:49:10.875771  3463 net.cpp:122] Setting up Convolution30
I0927 14:49:10.875779  3463 net.cpp:129] Top shape: 100 32 14 14 (627200)
I0927 14:49:10.875782  3463 net.cpp:137] Memory required for data: 658246800
I0927 14:49:10.875787  3463 layer_factory.hpp:77] Creating layer BatchNorm30
I0927 14:49:10.875792  3463 net.cpp:84] Creating Layer BatchNorm30
I0927 14:49:10.875794  3463 net.cpp:406] BatchNorm30 <- Convolution30
I0927 14:49:10.875798  3463 net.cpp:367] BatchNorm30 -> Convolution30 (in-place)
I0927 14:49:10.875931  3463 net.cpp:122] Setting up BatchNorm30
I0927 14:49:10.875934  3463 net.cpp:129] Top shape: 100 32 14 14 (627200)
I0927 14:49:10.875936  3463 net.cpp:137] Memory required for data: 660755600
I0927 14:49:10.875947  3463 layer_factory.hpp:77] Creating layer Scale30
I0927 14:49:10.875952  3463 net.cpp:84] Creating Layer Scale30
I0927 14:49:10.875954  3463 net.cpp:406] Scale30 <- Convolution30
I0927 14:49:10.875958  3463 net.cpp:367] Scale30 -> Convolution30 (in-place)
I0927 14:49:10.875984  3463 layer_factory.hpp:77] Creating layer Scale30
I0927 14:49:10.876061  3463 net.cpp:122] Setting up Scale30
I0927 14:49:10.876065  3463 net.cpp:129] Top shape: 100 32 14 14 (627200)
I0927 14:49:10.876067  3463 net.cpp:137] Memory required for data: 663264400
I0927 14:49:10.876071  3463 layer_factory.hpp:77] Creating layer Eltwise14
I0927 14:49:10.876075  3463 net.cpp:84] Creating Layer Eltwise14
I0927 14:49:10.876077  3463 net.cpp:406] Eltwise14 <- Eltwise13_M2PELU27_0_split_1
I0927 14:49:10.876080  3463 net.cpp:406] Eltwise14 <- Convolution30
I0927 14:49:10.876085  3463 net.cpp:380] Eltwise14 -> Eltwise14
I0927 14:49:10.876101  3463 net.cpp:122] Setting up Eltwise14
I0927 14:49:10.876104  3463 net.cpp:129] Top shape: 100 32 14 14 (627200)
I0927 14:49:10.876106  3463 net.cpp:137] Memory required for data: 665773200
I0927 14:49:10.876108  3463 layer_factory.hpp:77] Creating layer M2PELU29
I0927 14:49:10.876112  3463 net.cpp:84] Creating Layer M2PELU29
I0927 14:49:10.876114  3463 net.cpp:406] M2PELU29 <- Eltwise14
I0927 14:49:10.876118  3463 net.cpp:367] M2PELU29 -> Eltwise14 (in-place)
I0927 14:49:10.876201  3463 net.cpp:122] Setting up M2PELU29
I0927 14:49:10.876205  3463 net.cpp:129] Top shape: 100 32 14 14 (627200)
I0927 14:49:10.876207  3463 net.cpp:137] Memory required for data: 668282000
I0927 14:49:10.876211  3463 layer_factory.hpp:77] Creating layer Eltwise14_M2PELU29_0_split
I0927 14:49:10.876215  3463 net.cpp:84] Creating Layer Eltwise14_M2PELU29_0_split
I0927 14:49:10.876217  3463 net.cpp:406] Eltwise14_M2PELU29_0_split <- Eltwise14
I0927 14:49:10.876220  3463 net.cpp:380] Eltwise14_M2PELU29_0_split -> Eltwise14_M2PELU29_0_split_0
I0927 14:49:10.876224  3463 net.cpp:380] Eltwise14_M2PELU29_0_split -> Eltwise14_M2PELU29_0_split_1
I0927 14:49:10.876247  3463 net.cpp:122] Setting up Eltwise14_M2PELU29_0_split
I0927 14:49:10.876251  3463 net.cpp:129] Top shape: 100 32 14 14 (627200)
I0927 14:49:10.876255  3463 net.cpp:129] Top shape: 100 32 14 14 (627200)
I0927 14:49:10.876256  3463 net.cpp:137] Memory required for data: 673299600
I0927 14:49:10.876258  3463 layer_factory.hpp:77] Creating layer Convolution31
I0927 14:49:10.876263  3463 net.cpp:84] Creating Layer Convolution31
I0927 14:49:10.876266  3463 net.cpp:406] Convolution31 <- Eltwise14_M2PELU29_0_split_0
I0927 14:49:10.876271  3463 net.cpp:380] Convolution31 -> Convolution31
I0927 14:49:10.877292  3463 net.cpp:122] Setting up Convolution31
I0927 14:49:10.877301  3463 net.cpp:129] Top shape: 100 32 14 14 (627200)
I0927 14:49:10.877303  3463 net.cpp:137] Memory required for data: 675808400
I0927 14:49:10.877307  3463 layer_factory.hpp:77] Creating layer BatchNorm31
I0927 14:49:10.877313  3463 net.cpp:84] Creating Layer BatchNorm31
I0927 14:49:10.877315  3463 net.cpp:406] BatchNorm31 <- Convolution31
I0927 14:49:10.877319  3463 net.cpp:367] BatchNorm31 -> Convolution31 (in-place)
I0927 14:49:10.877456  3463 net.cpp:122] Setting up BatchNorm31
I0927 14:49:10.877460  3463 net.cpp:129] Top shape: 100 32 14 14 (627200)
I0927 14:49:10.877462  3463 net.cpp:137] Memory required for data: 678317200
I0927 14:49:10.877467  3463 layer_factory.hpp:77] Creating layer Scale31
I0927 14:49:10.877471  3463 net.cpp:84] Creating Layer Scale31
I0927 14:49:10.877473  3463 net.cpp:406] Scale31 <- Convolution31
I0927 14:49:10.877476  3463 net.cpp:367] Scale31 -> Convolution31 (in-place)
I0927 14:49:10.877503  3463 layer_factory.hpp:77] Creating layer Scale31
I0927 14:49:10.877579  3463 net.cpp:122] Setting up Scale31
I0927 14:49:10.877583  3463 net.cpp:129] Top shape: 100 32 14 14 (627200)
I0927 14:49:10.877585  3463 net.cpp:137] Memory required for data: 680826000
I0927 14:49:10.877589  3463 layer_factory.hpp:77] Creating layer M2PELU30
I0927 14:49:10.877594  3463 net.cpp:84] Creating Layer M2PELU30
I0927 14:49:10.877601  3463 net.cpp:406] M2PELU30 <- Convolution31
I0927 14:49:10.877606  3463 net.cpp:367] M2PELU30 -> Convolution31 (in-place)
I0927 14:49:10.877692  3463 net.cpp:122] Setting up M2PELU30
I0927 14:49:10.877697  3463 net.cpp:129] Top shape: 100 32 14 14 (627200)
I0927 14:49:10.877699  3463 net.cpp:137] Memory required for data: 683334800
I0927 14:49:10.877702  3463 layer_factory.hpp:77] Creating layer Convolution32
I0927 14:49:10.877709  3463 net.cpp:84] Creating Layer Convolution32
I0927 14:49:10.877712  3463 net.cpp:406] Convolution32 <- Convolution31
I0927 14:49:10.877715  3463 net.cpp:380] Convolution32 -> Convolution32
I0927 14:49:10.878785  3463 net.cpp:122] Setting up Convolution32
I0927 14:49:10.878793  3463 net.cpp:129] Top shape: 100 32 14 14 (627200)
I0927 14:49:10.878796  3463 net.cpp:137] Memory required for data: 685843600
I0927 14:49:10.878800  3463 layer_factory.hpp:77] Creating layer BatchNorm32
I0927 14:49:10.878805  3463 net.cpp:84] Creating Layer BatchNorm32
I0927 14:49:10.878808  3463 net.cpp:406] BatchNorm32 <- Convolution32
I0927 14:49:10.878811  3463 net.cpp:367] BatchNorm32 -> Convolution32 (in-place)
I0927 14:49:10.878943  3463 net.cpp:122] Setting up BatchNorm32
I0927 14:49:10.878947  3463 net.cpp:129] Top shape: 100 32 14 14 (627200)
I0927 14:49:10.878949  3463 net.cpp:137] Memory required for data: 688352400
I0927 14:49:10.878954  3463 layer_factory.hpp:77] Creating layer Scale32
I0927 14:49:10.878959  3463 net.cpp:84] Creating Layer Scale32
I0927 14:49:10.878962  3463 net.cpp:406] Scale32 <- Convolution32
I0927 14:49:10.878964  3463 net.cpp:367] Scale32 -> Convolution32 (in-place)
I0927 14:49:10.878990  3463 layer_factory.hpp:77] Creating layer Scale32
I0927 14:49:10.879067  3463 net.cpp:122] Setting up Scale32
I0927 14:49:10.879071  3463 net.cpp:129] Top shape: 100 32 14 14 (627200)
I0927 14:49:10.879073  3463 net.cpp:137] Memory required for data: 690861200
I0927 14:49:10.879076  3463 layer_factory.hpp:77] Creating layer Eltwise15
I0927 14:49:10.879081  3463 net.cpp:84] Creating Layer Eltwise15
I0927 14:49:10.879083  3463 net.cpp:406] Eltwise15 <- Eltwise14_M2PELU29_0_split_1
I0927 14:49:10.879086  3463 net.cpp:406] Eltwise15 <- Convolution32
I0927 14:49:10.879089  3463 net.cpp:380] Eltwise15 -> Eltwise15
I0927 14:49:10.879106  3463 net.cpp:122] Setting up Eltwise15
I0927 14:49:10.879109  3463 net.cpp:129] Top shape: 100 32 14 14 (627200)
I0927 14:49:10.879112  3463 net.cpp:137] Memory required for data: 693370000
I0927 14:49:10.879113  3463 layer_factory.hpp:77] Creating layer M2PELU31
I0927 14:49:10.879118  3463 net.cpp:84] Creating Layer M2PELU31
I0927 14:49:10.879120  3463 net.cpp:406] M2PELU31 <- Eltwise15
I0927 14:49:10.879123  3463 net.cpp:367] M2PELU31 -> Eltwise15 (in-place)
I0927 14:49:10.879206  3463 net.cpp:122] Setting up M2PELU31
I0927 14:49:10.879210  3463 net.cpp:129] Top shape: 100 32 14 14 (627200)
I0927 14:49:10.879212  3463 net.cpp:137] Memory required for data: 695878800
I0927 14:49:10.879215  3463 layer_factory.hpp:77] Creating layer Eltwise15_M2PELU31_0_split
I0927 14:49:10.879220  3463 net.cpp:84] Creating Layer Eltwise15_M2PELU31_0_split
I0927 14:49:10.879222  3463 net.cpp:406] Eltwise15_M2PELU31_0_split <- Eltwise15
I0927 14:49:10.879225  3463 net.cpp:380] Eltwise15_M2PELU31_0_split -> Eltwise15_M2PELU31_0_split_0
I0927 14:49:10.879230  3463 net.cpp:380] Eltwise15_M2PELU31_0_split -> Eltwise15_M2PELU31_0_split_1
I0927 14:49:10.879253  3463 net.cpp:122] Setting up Eltwise15_M2PELU31_0_split
I0927 14:49:10.879256  3463 net.cpp:129] Top shape: 100 32 14 14 (627200)
I0927 14:49:10.879259  3463 net.cpp:129] Top shape: 100 32 14 14 (627200)
I0927 14:49:10.879261  3463 net.cpp:137] Memory required for data: 700896400
I0927 14:49:10.879263  3463 layer_factory.hpp:77] Creating layer Convolution33
I0927 14:49:10.879268  3463 net.cpp:84] Creating Layer Convolution33
I0927 14:49:10.879271  3463 net.cpp:406] Convolution33 <- Eltwise15_M2PELU31_0_split_0
I0927 14:49:10.879277  3463 net.cpp:380] Convolution33 -> Convolution33
I0927 14:49:10.880619  3463 net.cpp:122] Setting up Convolution33
I0927 14:49:10.880626  3463 net.cpp:129] Top shape: 100 32 14 14 (627200)
I0927 14:49:10.880628  3463 net.cpp:137] Memory required for data: 703405200
I0927 14:49:10.880633  3463 layer_factory.hpp:77] Creating layer BatchNorm33
I0927 14:49:10.880638  3463 net.cpp:84] Creating Layer BatchNorm33
I0927 14:49:10.880640  3463 net.cpp:406] BatchNorm33 <- Convolution33
I0927 14:49:10.880645  3463 net.cpp:367] BatchNorm33 -> Convolution33 (in-place)
I0927 14:49:10.880782  3463 net.cpp:122] Setting up BatchNorm33
I0927 14:49:10.880786  3463 net.cpp:129] Top shape: 100 32 14 14 (627200)
I0927 14:49:10.880789  3463 net.cpp:137] Memory required for data: 705914000
I0927 14:49:10.880794  3463 layer_factory.hpp:77] Creating layer Scale33
I0927 14:49:10.880798  3463 net.cpp:84] Creating Layer Scale33
I0927 14:49:10.880800  3463 net.cpp:406] Scale33 <- Convolution33
I0927 14:49:10.880803  3463 net.cpp:367] Scale33 -> Convolution33 (in-place)
I0927 14:49:10.880831  3463 layer_factory.hpp:77] Creating layer Scale33
I0927 14:49:10.880908  3463 net.cpp:122] Setting up Scale33
I0927 14:49:10.880911  3463 net.cpp:129] Top shape: 100 32 14 14 (627200)
I0927 14:49:10.880913  3463 net.cpp:137] Memory required for data: 708422800
I0927 14:49:10.880918  3463 layer_factory.hpp:77] Creating layer M2PELU32
I0927 14:49:10.880923  3463 net.cpp:84] Creating Layer M2PELU32
I0927 14:49:10.880924  3463 net.cpp:406] M2PELU32 <- Convolution33
I0927 14:49:10.880928  3463 net.cpp:367] M2PELU32 -> Convolution33 (in-place)
I0927 14:49:10.881011  3463 net.cpp:122] Setting up M2PELU32
I0927 14:49:10.881016  3463 net.cpp:129] Top shape: 100 32 14 14 (627200)
I0927 14:49:10.881017  3463 net.cpp:137] Memory required for data: 710931600
I0927 14:49:10.881021  3463 layer_factory.hpp:77] Creating layer Convolution34
I0927 14:49:10.881027  3463 net.cpp:84] Creating Layer Convolution34
I0927 14:49:10.881029  3463 net.cpp:406] Convolution34 <- Convolution33
I0927 14:49:10.881034  3463 net.cpp:380] Convolution34 -> Convolution34
I0927 14:49:10.882064  3463 net.cpp:122] Setting up Convolution34
I0927 14:49:10.882072  3463 net.cpp:129] Top shape: 100 32 14 14 (627200)
I0927 14:49:10.882074  3463 net.cpp:137] Memory required for data: 713440400
I0927 14:49:10.882078  3463 layer_factory.hpp:77] Creating layer BatchNorm34
I0927 14:49:10.882083  3463 net.cpp:84] Creating Layer BatchNorm34
I0927 14:49:10.882086  3463 net.cpp:406] BatchNorm34 <- Convolution34
I0927 14:49:10.882089  3463 net.cpp:367] BatchNorm34 -> Convolution34 (in-place)
I0927 14:49:10.882225  3463 net.cpp:122] Setting up BatchNorm34
I0927 14:49:10.882230  3463 net.cpp:129] Top shape: 100 32 14 14 (627200)
I0927 14:49:10.882231  3463 net.cpp:137] Memory required for data: 715949200
I0927 14:49:10.882236  3463 layer_factory.hpp:77] Creating layer Scale34
I0927 14:49:10.882241  3463 net.cpp:84] Creating Layer Scale34
I0927 14:49:10.882242  3463 net.cpp:406] Scale34 <- Convolution34
I0927 14:49:10.882246  3463 net.cpp:367] Scale34 -> Convolution34 (in-place)
I0927 14:49:10.882272  3463 layer_factory.hpp:77] Creating layer Scale34
I0927 14:49:10.882349  3463 net.cpp:122] Setting up Scale34
I0927 14:49:10.882354  3463 net.cpp:129] Top shape: 100 32 14 14 (627200)
I0927 14:49:10.882355  3463 net.cpp:137] Memory required for data: 718458000
I0927 14:49:10.882359  3463 layer_factory.hpp:77] Creating layer Eltwise16
I0927 14:49:10.882364  3463 net.cpp:84] Creating Layer Eltwise16
I0927 14:49:10.882365  3463 net.cpp:406] Eltwise16 <- Eltwise15_M2PELU31_0_split_1
I0927 14:49:10.882369  3463 net.cpp:406] Eltwise16 <- Convolution34
I0927 14:49:10.882371  3463 net.cpp:380] Eltwise16 -> Eltwise16
I0927 14:49:10.882388  3463 net.cpp:122] Setting up Eltwise16
I0927 14:49:10.882392  3463 net.cpp:129] Top shape: 100 32 14 14 (627200)
I0927 14:49:10.882395  3463 net.cpp:137] Memory required for data: 720966800
I0927 14:49:10.882396  3463 layer_factory.hpp:77] Creating layer M2PELU33
I0927 14:49:10.882401  3463 net.cpp:84] Creating Layer M2PELU33
I0927 14:49:10.882403  3463 net.cpp:406] M2PELU33 <- Eltwise16
I0927 14:49:10.882413  3463 net.cpp:367] M2PELU33 -> Eltwise16 (in-place)
I0927 14:49:10.882498  3463 net.cpp:122] Setting up M2PELU33
I0927 14:49:10.882503  3463 net.cpp:129] Top shape: 100 32 14 14 (627200)
I0927 14:49:10.882504  3463 net.cpp:137] Memory required for data: 723475600
I0927 14:49:10.882508  3463 layer_factory.hpp:77] Creating layer Eltwise16_M2PELU33_0_split
I0927 14:49:10.882513  3463 net.cpp:84] Creating Layer Eltwise16_M2PELU33_0_split
I0927 14:49:10.882514  3463 net.cpp:406] Eltwise16_M2PELU33_0_split <- Eltwise16
I0927 14:49:10.882517  3463 net.cpp:380] Eltwise16_M2PELU33_0_split -> Eltwise16_M2PELU33_0_split_0
I0927 14:49:10.882537  3463 net.cpp:380] Eltwise16_M2PELU33_0_split -> Eltwise16_M2PELU33_0_split_1
I0927 14:49:10.882572  3463 net.cpp:122] Setting up Eltwise16_M2PELU33_0_split
I0927 14:49:10.882576  3463 net.cpp:129] Top shape: 100 32 14 14 (627200)
I0927 14:49:10.882580  3463 net.cpp:129] Top shape: 100 32 14 14 (627200)
I0927 14:49:10.882581  3463 net.cpp:137] Memory required for data: 728493200
I0927 14:49:10.882583  3463 layer_factory.hpp:77] Creating layer Convolution35
I0927 14:49:10.882589  3463 net.cpp:84] Creating Layer Convolution35
I0927 14:49:10.882592  3463 net.cpp:406] Convolution35 <- Eltwise16_M2PELU33_0_split_0
I0927 14:49:10.882596  3463 net.cpp:380] Convolution35 -> Convolution35
I0927 14:49:10.883651  3463 net.cpp:122] Setting up Convolution35
I0927 14:49:10.883659  3463 net.cpp:129] Top shape: 100 32 14 14 (627200)
I0927 14:49:10.883661  3463 net.cpp:137] Memory required for data: 731002000
I0927 14:49:10.883666  3463 layer_factory.hpp:77] Creating layer BatchNorm35
I0927 14:49:10.883671  3463 net.cpp:84] Creating Layer BatchNorm35
I0927 14:49:10.883674  3463 net.cpp:406] BatchNorm35 <- Convolution35
I0927 14:49:10.883679  3463 net.cpp:367] BatchNorm35 -> Convolution35 (in-place)
I0927 14:49:10.883816  3463 net.cpp:122] Setting up BatchNorm35
I0927 14:49:10.883821  3463 net.cpp:129] Top shape: 100 32 14 14 (627200)
I0927 14:49:10.883822  3463 net.cpp:137] Memory required for data: 733510800
I0927 14:49:10.883826  3463 layer_factory.hpp:77] Creating layer Scale35
I0927 14:49:10.883831  3463 net.cpp:84] Creating Layer Scale35
I0927 14:49:10.883833  3463 net.cpp:406] Scale35 <- Convolution35
I0927 14:49:10.883837  3463 net.cpp:367] Scale35 -> Convolution35 (in-place)
I0927 14:49:10.883864  3463 layer_factory.hpp:77] Creating layer Scale35
I0927 14:49:10.883949  3463 net.cpp:122] Setting up Scale35
I0927 14:49:10.883954  3463 net.cpp:129] Top shape: 100 32 14 14 (627200)
I0927 14:49:10.883955  3463 net.cpp:137] Memory required for data: 736019600
I0927 14:49:10.883960  3463 layer_factory.hpp:77] Creating layer M2PELU34
I0927 14:49:10.883965  3463 net.cpp:84] Creating Layer M2PELU34
I0927 14:49:10.883966  3463 net.cpp:406] M2PELU34 <- Convolution35
I0927 14:49:10.883970  3463 net.cpp:367] M2PELU34 -> Convolution35 (in-place)
I0927 14:49:10.884052  3463 net.cpp:122] Setting up M2PELU34
I0927 14:49:10.884057  3463 net.cpp:129] Top shape: 100 32 14 14 (627200)
I0927 14:49:10.884058  3463 net.cpp:137] Memory required for data: 738528400
I0927 14:49:10.884063  3463 layer_factory.hpp:77] Creating layer Convolution36
I0927 14:49:10.884068  3463 net.cpp:84] Creating Layer Convolution36
I0927 14:49:10.884070  3463 net.cpp:406] Convolution36 <- Convolution35
I0927 14:49:10.884074  3463 net.cpp:380] Convolution36 -> Convolution36
I0927 14:49:10.885118  3463 net.cpp:122] Setting up Convolution36
I0927 14:49:10.885126  3463 net.cpp:129] Top shape: 100 32 14 14 (627200)
I0927 14:49:10.885129  3463 net.cpp:137] Memory required for data: 741037200
I0927 14:49:10.885133  3463 layer_factory.hpp:77] Creating layer BatchNorm36
I0927 14:49:10.885138  3463 net.cpp:84] Creating Layer BatchNorm36
I0927 14:49:10.885141  3463 net.cpp:406] BatchNorm36 <- Convolution36
I0927 14:49:10.885144  3463 net.cpp:367] BatchNorm36 -> Convolution36 (in-place)
I0927 14:49:10.885284  3463 net.cpp:122] Setting up BatchNorm36
I0927 14:49:10.885288  3463 net.cpp:129] Top shape: 100 32 14 14 (627200)
I0927 14:49:10.885298  3463 net.cpp:137] Memory required for data: 743546000
I0927 14:49:10.885303  3463 layer_factory.hpp:77] Creating layer Scale36
I0927 14:49:10.885308  3463 net.cpp:84] Creating Layer Scale36
I0927 14:49:10.885309  3463 net.cpp:406] Scale36 <- Convolution36
I0927 14:49:10.885313  3463 net.cpp:367] Scale36 -> Convolution36 (in-place)
I0927 14:49:10.885342  3463 layer_factory.hpp:77] Creating layer Scale36
I0927 14:49:10.885419  3463 net.cpp:122] Setting up Scale36
I0927 14:49:10.885424  3463 net.cpp:129] Top shape: 100 32 14 14 (627200)
I0927 14:49:10.885427  3463 net.cpp:137] Memory required for data: 746054800
I0927 14:49:10.885430  3463 layer_factory.hpp:77] Creating layer Eltwise17
I0927 14:49:10.885434  3463 net.cpp:84] Creating Layer Eltwise17
I0927 14:49:10.885437  3463 net.cpp:406] Eltwise17 <- Eltwise16_M2PELU33_0_split_1
I0927 14:49:10.885440  3463 net.cpp:406] Eltwise17 <- Convolution36
I0927 14:49:10.885443  3463 net.cpp:380] Eltwise17 -> Eltwise17
I0927 14:49:10.885460  3463 net.cpp:122] Setting up Eltwise17
I0927 14:49:10.885463  3463 net.cpp:129] Top shape: 100 32 14 14 (627200)
I0927 14:49:10.885465  3463 net.cpp:137] Memory required for data: 748563600
I0927 14:49:10.885468  3463 layer_factory.hpp:77] Creating layer M2PELU35
I0927 14:49:10.885473  3463 net.cpp:84] Creating Layer M2PELU35
I0927 14:49:10.885476  3463 net.cpp:406] M2PELU35 <- Eltwise17
I0927 14:49:10.885479  3463 net.cpp:367] M2PELU35 -> Eltwise17 (in-place)
I0927 14:49:10.885566  3463 net.cpp:122] Setting up M2PELU35
I0927 14:49:10.885571  3463 net.cpp:129] Top shape: 100 32 14 14 (627200)
I0927 14:49:10.885572  3463 net.cpp:137] Memory required for data: 751072400
I0927 14:49:10.885576  3463 layer_factory.hpp:77] Creating layer Eltwise17_M2PELU35_0_split
I0927 14:49:10.885579  3463 net.cpp:84] Creating Layer Eltwise17_M2PELU35_0_split
I0927 14:49:10.885581  3463 net.cpp:406] Eltwise17_M2PELU35_0_split <- Eltwise17
I0927 14:49:10.885586  3463 net.cpp:380] Eltwise17_M2PELU35_0_split -> Eltwise17_M2PELU35_0_split_0
I0927 14:49:10.885591  3463 net.cpp:380] Eltwise17_M2PELU35_0_split -> Eltwise17_M2PELU35_0_split_1
I0927 14:49:10.885614  3463 net.cpp:122] Setting up Eltwise17_M2PELU35_0_split
I0927 14:49:10.885617  3463 net.cpp:129] Top shape: 100 32 14 14 (627200)
I0927 14:49:10.885620  3463 net.cpp:129] Top shape: 100 32 14 14 (627200)
I0927 14:49:10.885622  3463 net.cpp:137] Memory required for data: 756090000
I0927 14:49:10.885624  3463 layer_factory.hpp:77] Creating layer Convolution37
I0927 14:49:10.885630  3463 net.cpp:84] Creating Layer Convolution37
I0927 14:49:10.885633  3463 net.cpp:406] Convolution37 <- Eltwise17_M2PELU35_0_split_0
I0927 14:49:10.885637  3463 net.cpp:380] Convolution37 -> Convolution37
I0927 14:49:10.886359  3463 net.cpp:122] Setting up Convolution37
I0927 14:49:10.886368  3463 net.cpp:129] Top shape: 100 32 14 14 (627200)
I0927 14:49:10.886370  3463 net.cpp:137] Memory required for data: 758598800
I0927 14:49:10.886374  3463 layer_factory.hpp:77] Creating layer BatchNorm37
I0927 14:49:10.886379  3463 net.cpp:84] Creating Layer BatchNorm37
I0927 14:49:10.886380  3463 net.cpp:406] BatchNorm37 <- Convolution37
I0927 14:49:10.886384  3463 net.cpp:367] BatchNorm37 -> Convolution37 (in-place)
I0927 14:49:10.886518  3463 net.cpp:122] Setting up BatchNorm37
I0927 14:49:10.886538  3463 net.cpp:129] Top shape: 100 32 14 14 (627200)
I0927 14:49:10.886539  3463 net.cpp:137] Memory required for data: 761107600
I0927 14:49:10.886544  3463 layer_factory.hpp:77] Creating layer Scale37
I0927 14:49:10.886548  3463 net.cpp:84] Creating Layer Scale37
I0927 14:49:10.886551  3463 net.cpp:406] Scale37 <- Convolution37
I0927 14:49:10.886554  3463 net.cpp:367] Scale37 -> Convolution37 (in-place)
I0927 14:49:10.886590  3463 layer_factory.hpp:77] Creating layer Scale37
I0927 14:49:10.886667  3463 net.cpp:122] Setting up Scale37
I0927 14:49:10.886672  3463 net.cpp:129] Top shape: 100 32 14 14 (627200)
I0927 14:49:10.886673  3463 net.cpp:137] Memory required for data: 763616400
I0927 14:49:10.886677  3463 layer_factory.hpp:77] Creating layer M2PELU36
I0927 14:49:10.886688  3463 net.cpp:84] Creating Layer M2PELU36
I0927 14:49:10.886690  3463 net.cpp:406] M2PELU36 <- Convolution37
I0927 14:49:10.886694  3463 net.cpp:367] M2PELU36 -> Convolution37 (in-place)
I0927 14:49:10.886780  3463 net.cpp:122] Setting up M2PELU36
I0927 14:49:10.886785  3463 net.cpp:129] Top shape: 100 32 14 14 (627200)
I0927 14:49:10.886786  3463 net.cpp:137] Memory required for data: 766125200
I0927 14:49:10.886790  3463 layer_factory.hpp:77] Creating layer Convolution38
I0927 14:49:10.886796  3463 net.cpp:84] Creating Layer Convolution38
I0927 14:49:10.886798  3463 net.cpp:406] Convolution38 <- Convolution37
I0927 14:49:10.886802  3463 net.cpp:380] Convolution38 -> Convolution38
I0927 14:49:10.887847  3463 net.cpp:122] Setting up Convolution38
I0927 14:49:10.887856  3463 net.cpp:129] Top shape: 100 32 14 14 (627200)
I0927 14:49:10.887857  3463 net.cpp:137] Memory required for data: 768634000
I0927 14:49:10.887862  3463 layer_factory.hpp:77] Creating layer BatchNorm38
I0927 14:49:10.887867  3463 net.cpp:84] Creating Layer BatchNorm38
I0927 14:49:10.887869  3463 net.cpp:406] BatchNorm38 <- Convolution38
I0927 14:49:10.887873  3463 net.cpp:367] BatchNorm38 -> Convolution38 (in-place)
I0927 14:49:10.888008  3463 net.cpp:122] Setting up BatchNorm38
I0927 14:49:10.888013  3463 net.cpp:129] Top shape: 100 32 14 14 (627200)
I0927 14:49:10.888015  3463 net.cpp:137] Memory required for data: 771142800
I0927 14:49:10.888020  3463 layer_factory.hpp:77] Creating layer Scale38
I0927 14:49:10.888025  3463 net.cpp:84] Creating Layer Scale38
I0927 14:49:10.888026  3463 net.cpp:406] Scale38 <- Convolution38
I0927 14:49:10.888031  3463 net.cpp:367] Scale38 -> Convolution38 (in-place)
I0927 14:49:10.888056  3463 layer_factory.hpp:77] Creating layer Scale38
I0927 14:49:10.888134  3463 net.cpp:122] Setting up Scale38
I0927 14:49:10.888137  3463 net.cpp:129] Top shape: 100 32 14 14 (627200)
I0927 14:49:10.888139  3463 net.cpp:137] Memory required for data: 773651600
I0927 14:49:10.888144  3463 layer_factory.hpp:77] Creating layer Eltwise18
I0927 14:49:10.888147  3463 net.cpp:84] Creating Layer Eltwise18
I0927 14:49:10.888150  3463 net.cpp:406] Eltwise18 <- Eltwise17_M2PELU35_0_split_1
I0927 14:49:10.888154  3463 net.cpp:406] Eltwise18 <- Convolution38
I0927 14:49:10.888156  3463 net.cpp:380] Eltwise18 -> Eltwise18
I0927 14:49:10.888172  3463 net.cpp:122] Setting up Eltwise18
I0927 14:49:10.888176  3463 net.cpp:129] Top shape: 100 32 14 14 (627200)
I0927 14:49:10.888178  3463 net.cpp:137] Memory required for data: 776160400
I0927 14:49:10.888180  3463 layer_factory.hpp:77] Creating layer M2PELU37
I0927 14:49:10.888185  3463 net.cpp:84] Creating Layer M2PELU37
I0927 14:49:10.888187  3463 net.cpp:406] M2PELU37 <- Eltwise18
I0927 14:49:10.888191  3463 net.cpp:367] M2PELU37 -> Eltwise18 (in-place)
I0927 14:49:10.888275  3463 net.cpp:122] Setting up M2PELU37
I0927 14:49:10.888279  3463 net.cpp:129] Top shape: 100 32 14 14 (627200)
I0927 14:49:10.888281  3463 net.cpp:137] Memory required for data: 778669200
I0927 14:49:10.888284  3463 layer_factory.hpp:77] Creating layer Eltwise18_M2PELU37_0_split
I0927 14:49:10.888288  3463 net.cpp:84] Creating Layer Eltwise18_M2PELU37_0_split
I0927 14:49:10.888290  3463 net.cpp:406] Eltwise18_M2PELU37_0_split <- Eltwise18
I0927 14:49:10.888294  3463 net.cpp:380] Eltwise18_M2PELU37_0_split -> Eltwise18_M2PELU37_0_split_0
I0927 14:49:10.888298  3463 net.cpp:380] Eltwise18_M2PELU37_0_split -> Eltwise18_M2PELU37_0_split_1
I0927 14:49:10.888321  3463 net.cpp:122] Setting up Eltwise18_M2PELU37_0_split
I0927 14:49:10.888325  3463 net.cpp:129] Top shape: 100 32 14 14 (627200)
I0927 14:49:10.888327  3463 net.cpp:129] Top shape: 100 32 14 14 (627200)
I0927 14:49:10.888329  3463 net.cpp:137] Memory required for data: 783686800
I0927 14:49:10.888331  3463 layer_factory.hpp:77] Creating layer Convolution39
I0927 14:49:10.888336  3463 net.cpp:84] Creating Layer Convolution39
I0927 14:49:10.888339  3463 net.cpp:406] Convolution39 <- Eltwise18_M2PELU37_0_split_0
I0927 14:49:10.888350  3463 net.cpp:380] Convolution39 -> Convolution39
I0927 14:49:10.889236  3463 net.cpp:122] Setting up Convolution39
I0927 14:49:10.889245  3463 net.cpp:129] Top shape: 100 64 7 7 (313600)
I0927 14:49:10.889248  3463 net.cpp:137] Memory required for data: 784941200
I0927 14:49:10.889252  3463 layer_factory.hpp:77] Creating layer BatchNorm39
I0927 14:49:10.889256  3463 net.cpp:84] Creating Layer BatchNorm39
I0927 14:49:10.889259  3463 net.cpp:406] BatchNorm39 <- Convolution39
I0927 14:49:10.889263  3463 net.cpp:367] BatchNorm39 -> Convolution39 (in-place)
I0927 14:49:10.889397  3463 net.cpp:122] Setting up BatchNorm39
I0927 14:49:10.889401  3463 net.cpp:129] Top shape: 100 64 7 7 (313600)
I0927 14:49:10.889403  3463 net.cpp:137] Memory required for data: 786195600
I0927 14:49:10.889408  3463 layer_factory.hpp:77] Creating layer Scale39
I0927 14:49:10.889412  3463 net.cpp:84] Creating Layer Scale39
I0927 14:49:10.889415  3463 net.cpp:406] Scale39 <- Convolution39
I0927 14:49:10.889417  3463 net.cpp:367] Scale39 -> Convolution39 (in-place)
I0927 14:49:10.889443  3463 layer_factory.hpp:77] Creating layer Scale39
I0927 14:49:10.889520  3463 net.cpp:122] Setting up Scale39
I0927 14:49:10.889524  3463 net.cpp:129] Top shape: 100 64 7 7 (313600)
I0927 14:49:10.889526  3463 net.cpp:137] Memory required for data: 787450000
I0927 14:49:10.889530  3463 layer_factory.hpp:77] Creating layer Convolution40
I0927 14:49:10.889536  3463 net.cpp:84] Creating Layer Convolution40
I0927 14:49:10.889539  3463 net.cpp:406] Convolution40 <- Eltwise18_M2PELU37_0_split_1
I0927 14:49:10.889544  3463 net.cpp:380] Convolution40 -> Convolution40
I0927 14:49:10.891363  3463 net.cpp:122] Setting up Convolution40
I0927 14:49:10.891376  3463 net.cpp:129] Top shape: 100 64 7 7 (313600)
I0927 14:49:10.891381  3463 net.cpp:137] Memory required for data: 788704400
I0927 14:49:10.891386  3463 layer_factory.hpp:77] Creating layer BatchNorm40
I0927 14:49:10.891393  3463 net.cpp:84] Creating Layer BatchNorm40
I0927 14:49:10.891396  3463 net.cpp:406] BatchNorm40 <- Convolution40
I0927 14:49:10.891402  3463 net.cpp:367] BatchNorm40 -> Convolution40 (in-place)
I0927 14:49:10.891538  3463 net.cpp:122] Setting up BatchNorm40
I0927 14:49:10.891542  3463 net.cpp:129] Top shape: 100 64 7 7 (313600)
I0927 14:49:10.891546  3463 net.cpp:137] Memory required for data: 789958800
I0927 14:49:10.891549  3463 layer_factory.hpp:77] Creating layer Scale40
I0927 14:49:10.891553  3463 net.cpp:84] Creating Layer Scale40
I0927 14:49:10.891556  3463 net.cpp:406] Scale40 <- Convolution40
I0927 14:49:10.891561  3463 net.cpp:367] Scale40 -> Convolution40 (in-place)
I0927 14:49:10.891587  3463 layer_factory.hpp:77] Creating layer Scale40
I0927 14:49:10.891667  3463 net.cpp:122] Setting up Scale40
I0927 14:49:10.891671  3463 net.cpp:129] Top shape: 100 64 7 7 (313600)
I0927 14:49:10.891674  3463 net.cpp:137] Memory required for data: 791213200
I0927 14:49:10.891677  3463 layer_factory.hpp:77] Creating layer M2PELU38
I0927 14:49:10.891681  3463 net.cpp:84] Creating Layer M2PELU38
I0927 14:49:10.891685  3463 net.cpp:406] M2PELU38 <- Convolution40
I0927 14:49:10.891688  3463 net.cpp:367] M2PELU38 -> Convolution40 (in-place)
I0927 14:49:10.891777  3463 net.cpp:122] Setting up M2PELU38
I0927 14:49:10.891782  3463 net.cpp:129] Top shape: 100 64 7 7 (313600)
I0927 14:49:10.891783  3463 net.cpp:137] Memory required for data: 792467600
I0927 14:49:10.891788  3463 layer_factory.hpp:77] Creating layer Convolution41
I0927 14:49:10.891794  3463 net.cpp:84] Creating Layer Convolution41
I0927 14:49:10.891796  3463 net.cpp:406] Convolution41 <- Convolution40
I0927 14:49:10.891800  3463 net.cpp:380] Convolution41 -> Convolution41
I0927 14:49:10.894166  3463 net.cpp:122] Setting up Convolution41
I0927 14:49:10.894176  3463 net.cpp:129] Top shape: 100 64 7 7 (313600)
I0927 14:49:10.894179  3463 net.cpp:137] Memory required for data: 793722000
I0927 14:49:10.894183  3463 layer_factory.hpp:77] Creating layer BatchNorm41
I0927 14:49:10.894188  3463 net.cpp:84] Creating Layer BatchNorm41
I0927 14:49:10.894198  3463 net.cpp:406] BatchNorm41 <- Convolution41
I0927 14:49:10.894203  3463 net.cpp:367] BatchNorm41 -> Convolution41 (in-place)
I0927 14:49:10.894351  3463 net.cpp:122] Setting up BatchNorm41
I0927 14:49:10.894356  3463 net.cpp:129] Top shape: 100 64 7 7 (313600)
I0927 14:49:10.894357  3463 net.cpp:137] Memory required for data: 794976400
I0927 14:49:10.894362  3463 layer_factory.hpp:77] Creating layer Scale41
I0927 14:49:10.894367  3463 net.cpp:84] Creating Layer Scale41
I0927 14:49:10.894369  3463 net.cpp:406] Scale41 <- Convolution41
I0927 14:49:10.894373  3463 net.cpp:367] Scale41 -> Convolution41 (in-place)
I0927 14:49:10.894402  3463 layer_factory.hpp:77] Creating layer Scale41
I0927 14:49:10.894484  3463 net.cpp:122] Setting up Scale41
I0927 14:49:10.894489  3463 net.cpp:129] Top shape: 100 64 7 7 (313600)
I0927 14:49:10.894490  3463 net.cpp:137] Memory required for data: 796230800
I0927 14:49:10.894495  3463 layer_factory.hpp:77] Creating layer Eltwise19
I0927 14:49:10.894498  3463 net.cpp:84] Creating Layer Eltwise19
I0927 14:49:10.894501  3463 net.cpp:406] Eltwise19 <- Convolution39
I0927 14:49:10.894505  3463 net.cpp:406] Eltwise19 <- Convolution41
I0927 14:49:10.894508  3463 net.cpp:380] Eltwise19 -> Eltwise19
I0927 14:49:10.894531  3463 net.cpp:122] Setting up Eltwise19
I0927 14:49:10.894536  3463 net.cpp:129] Top shape: 100 64 7 7 (313600)
I0927 14:49:10.894538  3463 net.cpp:137] Memory required for data: 797485200
I0927 14:49:10.894541  3463 layer_factory.hpp:77] Creating layer M2PELU39
I0927 14:49:10.894546  3463 net.cpp:84] Creating Layer M2PELU39
I0927 14:49:10.894547  3463 net.cpp:406] M2PELU39 <- Eltwise19
I0927 14:49:10.894551  3463 net.cpp:367] M2PELU39 -> Eltwise19 (in-place)
I0927 14:49:10.894644  3463 net.cpp:122] Setting up M2PELU39
I0927 14:49:10.894649  3463 net.cpp:129] Top shape: 100 64 7 7 (313600)
I0927 14:49:10.894650  3463 net.cpp:137] Memory required for data: 798739600
I0927 14:49:10.894654  3463 layer_factory.hpp:77] Creating layer Eltwise19_M2PELU39_0_split
I0927 14:49:10.894659  3463 net.cpp:84] Creating Layer Eltwise19_M2PELU39_0_split
I0927 14:49:10.894661  3463 net.cpp:406] Eltwise19_M2PELU39_0_split <- Eltwise19
I0927 14:49:10.894665  3463 net.cpp:380] Eltwise19_M2PELU39_0_split -> Eltwise19_M2PELU39_0_split_0
I0927 14:49:10.894668  3463 net.cpp:380] Eltwise19_M2PELU39_0_split -> Eltwise19_M2PELU39_0_split_1
I0927 14:49:10.894695  3463 net.cpp:122] Setting up Eltwise19_M2PELU39_0_split
I0927 14:49:10.894698  3463 net.cpp:129] Top shape: 100 64 7 7 (313600)
I0927 14:49:10.894701  3463 net.cpp:129] Top shape: 100 64 7 7 (313600)
I0927 14:49:10.894702  3463 net.cpp:137] Memory required for data: 801248400
I0927 14:49:10.894704  3463 layer_factory.hpp:77] Creating layer Convolution42
I0927 14:49:10.894711  3463 net.cpp:84] Creating Layer Convolution42
I0927 14:49:10.894713  3463 net.cpp:406] Convolution42 <- Eltwise19_M2PELU39_0_split_0
I0927 14:49:10.894717  3463 net.cpp:380] Convolution42 -> Convolution42
I0927 14:49:10.896452  3463 net.cpp:122] Setting up Convolution42
I0927 14:49:10.896461  3463 net.cpp:129] Top shape: 100 64 7 7 (313600)
I0927 14:49:10.896464  3463 net.cpp:137] Memory required for data: 802502800
I0927 14:49:10.896468  3463 layer_factory.hpp:77] Creating layer BatchNorm42
I0927 14:49:10.896473  3463 net.cpp:84] Creating Layer BatchNorm42
I0927 14:49:10.896476  3463 net.cpp:406] BatchNorm42 <- Convolution42
I0927 14:49:10.896479  3463 net.cpp:367] BatchNorm42 -> Convolution42 (in-place)
I0927 14:49:10.896620  3463 net.cpp:122] Setting up BatchNorm42
I0927 14:49:10.896625  3463 net.cpp:129] Top shape: 100 64 7 7 (313600)
I0927 14:49:10.896626  3463 net.cpp:137] Memory required for data: 803757200
I0927 14:49:10.896631  3463 layer_factory.hpp:77] Creating layer Scale42
I0927 14:49:10.896634  3463 net.cpp:84] Creating Layer Scale42
I0927 14:49:10.896637  3463 net.cpp:406] Scale42 <- Convolution42
I0927 14:49:10.896641  3463 net.cpp:367] Scale42 -> Convolution42 (in-place)
I0927 14:49:10.896669  3463 layer_factory.hpp:77] Creating layer Scale42
I0927 14:49:10.896759  3463 net.cpp:122] Setting up Scale42
I0927 14:49:10.896764  3463 net.cpp:129] Top shape: 100 64 7 7 (313600)
I0927 14:49:10.896766  3463 net.cpp:137] Memory required for data: 805011600
I0927 14:49:10.896770  3463 layer_factory.hpp:77] Creating layer M2PELU40
I0927 14:49:10.896775  3463 net.cpp:84] Creating Layer M2PELU40
I0927 14:49:10.896778  3463 net.cpp:406] M2PELU40 <- Convolution42
I0927 14:49:10.896781  3463 net.cpp:367] M2PELU40 -> Convolution42 (in-place)
I0927 14:49:10.896868  3463 net.cpp:122] Setting up M2PELU40
I0927 14:49:10.896873  3463 net.cpp:129] Top shape: 100 64 7 7 (313600)
I0927 14:49:10.896875  3463 net.cpp:137] Memory required for data: 806266000
I0927 14:49:10.896878  3463 layer_factory.hpp:77] Creating layer Convolution43
I0927 14:49:10.896885  3463 net.cpp:84] Creating Layer Convolution43
I0927 14:49:10.896888  3463 net.cpp:406] Convolution43 <- Convolution42
I0927 14:49:10.896893  3463 net.cpp:380] Convolution43 -> Convolution43
I0927 14:49:10.899224  3463 net.cpp:122] Setting up Convolution43
I0927 14:49:10.899233  3463 net.cpp:129] Top shape: 100 64 7 7 (313600)
I0927 14:49:10.899236  3463 net.cpp:137] Memory required for data: 807520400
I0927 14:49:10.899240  3463 layer_factory.hpp:77] Creating layer BatchNorm43
I0927 14:49:10.899246  3463 net.cpp:84] Creating Layer BatchNorm43
I0927 14:49:10.899250  3463 net.cpp:406] BatchNorm43 <- Convolution43
I0927 14:49:10.899255  3463 net.cpp:367] BatchNorm43 -> Convolution43 (in-place)
I0927 14:49:10.899397  3463 net.cpp:122] Setting up BatchNorm43
I0927 14:49:10.899401  3463 net.cpp:129] Top shape: 100 64 7 7 (313600)
I0927 14:49:10.899405  3463 net.cpp:137] Memory required for data: 808774800
I0927 14:49:10.899408  3463 layer_factory.hpp:77] Creating layer Scale43
I0927 14:49:10.899413  3463 net.cpp:84] Creating Layer Scale43
I0927 14:49:10.899416  3463 net.cpp:406] Scale43 <- Convolution43
I0927 14:49:10.899420  3463 net.cpp:367] Scale43 -> Convolution43 (in-place)
I0927 14:49:10.899447  3463 layer_factory.hpp:77] Creating layer Scale43
I0927 14:49:10.899528  3463 net.cpp:122] Setting up Scale43
I0927 14:49:10.899531  3463 net.cpp:129] Top shape: 100 64 7 7 (313600)
I0927 14:49:10.899533  3463 net.cpp:137] Memory required for data: 810029200
I0927 14:49:10.899538  3463 layer_factory.hpp:77] Creating layer Eltwise20
I0927 14:49:10.899543  3463 net.cpp:84] Creating Layer Eltwise20
I0927 14:49:10.899544  3463 net.cpp:406] Eltwise20 <- Eltwise19_M2PELU39_0_split_1
I0927 14:49:10.899547  3463 net.cpp:406] Eltwise20 <- Convolution43
I0927 14:49:10.899551  3463 net.cpp:380] Eltwise20 -> Eltwise20
I0927 14:49:10.899569  3463 net.cpp:122] Setting up Eltwise20
I0927 14:49:10.899571  3463 net.cpp:129] Top shape: 100 64 7 7 (313600)
I0927 14:49:10.899574  3463 net.cpp:137] Memory required for data: 811283600
I0927 14:49:10.899575  3463 layer_factory.hpp:77] Creating layer M2PELU41
I0927 14:49:10.899581  3463 net.cpp:84] Creating Layer M2PELU41
I0927 14:49:10.899583  3463 net.cpp:406] M2PELU41 <- Eltwise20
I0927 14:49:10.899586  3463 net.cpp:367] M2PELU41 -> Eltwise20 (in-place)
I0927 14:49:10.899673  3463 net.cpp:122] Setting up M2PELU41
I0927 14:49:10.899678  3463 net.cpp:129] Top shape: 100 64 7 7 (313600)
I0927 14:49:10.899680  3463 net.cpp:137] Memory required for data: 812538000
I0927 14:49:10.899683  3463 layer_factory.hpp:77] Creating layer Eltwise20_M2PELU41_0_split
I0927 14:49:10.899688  3463 net.cpp:84] Creating Layer Eltwise20_M2PELU41_0_split
I0927 14:49:10.899690  3463 net.cpp:406] Eltwise20_M2PELU41_0_split <- Eltwise20
I0927 14:49:10.899693  3463 net.cpp:380] Eltwise20_M2PELU41_0_split -> Eltwise20_M2PELU41_0_split_0
I0927 14:49:10.899698  3463 net.cpp:380] Eltwise20_M2PELU41_0_split -> Eltwise20_M2PELU41_0_split_1
I0927 14:49:10.899721  3463 net.cpp:122] Setting up Eltwise20_M2PELU41_0_split
I0927 14:49:10.899725  3463 net.cpp:129] Top shape: 100 64 7 7 (313600)
I0927 14:49:10.899729  3463 net.cpp:129] Top shape: 100 64 7 7 (313600)
I0927 14:49:10.899730  3463 net.cpp:137] Memory required for data: 815046800
I0927 14:49:10.899739  3463 layer_factory.hpp:77] Creating layer Convolution44
I0927 14:49:10.899745  3463 net.cpp:84] Creating Layer Convolution44
I0927 14:49:10.899749  3463 net.cpp:406] Convolution44 <- Eltwise20_M2PELU41_0_split_0
I0927 14:49:10.899752  3463 net.cpp:380] Convolution44 -> Convolution44
I0927 14:49:10.901437  3463 net.cpp:122] Setting up Convolution44
I0927 14:49:10.901445  3463 net.cpp:129] Top shape: 100 64 7 7 (313600)
I0927 14:49:10.901448  3463 net.cpp:137] Memory required for data: 816301200
I0927 14:49:10.901453  3463 layer_factory.hpp:77] Creating layer BatchNorm44
I0927 14:49:10.901456  3463 net.cpp:84] Creating Layer BatchNorm44
I0927 14:49:10.901459  3463 net.cpp:406] BatchNorm44 <- Convolution44
I0927 14:49:10.901464  3463 net.cpp:367] BatchNorm44 -> Convolution44 (in-place)
I0927 14:49:10.901607  3463 net.cpp:122] Setting up BatchNorm44
I0927 14:49:10.901612  3463 net.cpp:129] Top shape: 100 64 7 7 (313600)
I0927 14:49:10.901613  3463 net.cpp:137] Memory required for data: 817555600
I0927 14:49:10.901618  3463 layer_factory.hpp:77] Creating layer Scale44
I0927 14:49:10.901623  3463 net.cpp:84] Creating Layer Scale44
I0927 14:49:10.901624  3463 net.cpp:406] Scale44 <- Convolution44
I0927 14:49:10.901628  3463 net.cpp:367] Scale44 -> Convolution44 (in-place)
I0927 14:49:10.901655  3463 layer_factory.hpp:77] Creating layer Scale44
I0927 14:49:10.901736  3463 net.cpp:122] Setting up Scale44
I0927 14:49:10.901741  3463 net.cpp:129] Top shape: 100 64 7 7 (313600)
I0927 14:49:10.901742  3463 net.cpp:137] Memory required for data: 818810000
I0927 14:49:10.901746  3463 layer_factory.hpp:77] Creating layer M2PELU42
I0927 14:49:10.901751  3463 net.cpp:84] Creating Layer M2PELU42
I0927 14:49:10.901754  3463 net.cpp:406] M2PELU42 <- Convolution44
I0927 14:49:10.901757  3463 net.cpp:367] M2PELU42 -> Convolution44 (in-place)
I0927 14:49:10.901845  3463 net.cpp:122] Setting up M2PELU42
I0927 14:49:10.901850  3463 net.cpp:129] Top shape: 100 64 7 7 (313600)
I0927 14:49:10.901852  3463 net.cpp:137] Memory required for data: 820064400
I0927 14:49:10.901855  3463 layer_factory.hpp:77] Creating layer Convolution45
I0927 14:49:10.901862  3463 net.cpp:84] Creating Layer Convolution45
I0927 14:49:10.901865  3463 net.cpp:406] Convolution45 <- Convolution44
I0927 14:49:10.901870  3463 net.cpp:380] Convolution45 -> Convolution45
I0927 14:49:10.903884  3463 net.cpp:122] Setting up Convolution45
I0927 14:49:10.903892  3463 net.cpp:129] Top shape: 100 64 7 7 (313600)
I0927 14:49:10.903895  3463 net.cpp:137] Memory required for data: 821318800
I0927 14:49:10.903899  3463 layer_factory.hpp:77] Creating layer BatchNorm45
I0927 14:49:10.903905  3463 net.cpp:84] Creating Layer BatchNorm45
I0927 14:49:10.903908  3463 net.cpp:406] BatchNorm45 <- Convolution45
I0927 14:49:10.903913  3463 net.cpp:367] BatchNorm45 -> Convolution45 (in-place)
I0927 14:49:10.904057  3463 net.cpp:122] Setting up BatchNorm45
I0927 14:49:10.904062  3463 net.cpp:129] Top shape: 100 64 7 7 (313600)
I0927 14:49:10.904064  3463 net.cpp:137] Memory required for data: 822573200
I0927 14:49:10.904068  3463 layer_factory.hpp:77] Creating layer Scale45
I0927 14:49:10.904073  3463 net.cpp:84] Creating Layer Scale45
I0927 14:49:10.904075  3463 net.cpp:406] Scale45 <- Convolution45
I0927 14:49:10.904079  3463 net.cpp:367] Scale45 -> Convolution45 (in-place)
I0927 14:49:10.904108  3463 layer_factory.hpp:77] Creating layer Scale45
I0927 14:49:10.904191  3463 net.cpp:122] Setting up Scale45
I0927 14:49:10.904196  3463 net.cpp:129] Top shape: 100 64 7 7 (313600)
I0927 14:49:10.904198  3463 net.cpp:137] Memory required for data: 823827600
…
I0927 14:49:11.262287  3463 net.cpp:84] Creating Layer BatchNorm40
I0927 14:49:11.262290  3463 net.cpp:406] BatchNorm40 <- Convolution40
I0927 14:49:11.262295  3463 net.cpp:367] BatchNorm40 -> Convolution40 (in-place)
I0927 14:49:11.262441  3463 net.cpp:122] Setting up BatchNorm40
I0927 14:49:11.262446  3463 net.cpp:129] Top shape: 100 64 8 8 (409600)
I0927 14:49:11.262449  3463 net.cpp:137] Memory required for data: 1031783600
I0927 14:49:11.262452  3463 layer_factory.hpp:77] Creating layer Scale40
I0927 14:49:11.262456  3463 net.cpp:84] Creating Layer Scale40
I0927 14:49:11.262459  3463 net.cpp:406] Scale40 <- Convolution40
I0927 14:49:11.262464  3463 net.cpp:367] Scale40 -> Convolution40 (in-place)
I0927 14:49:11.262490  3463 layer_factory.hpp:77] Creating layer Scale40
I0927 14:49:11.262599  3463 net.cpp:122] Setting up Scale40
I0927 14:49:11.262605  3463 net.cpp:129] Top shape: 100 64 8 8 (409600)
I0927 14:49:11.262607  3463 net.cpp:137] Memory required for data: 1033422000
I0927 14:49:11.262611  3463 layer_factory.hpp:77] Creating layer M2PELU38
I0927 14:49:11.262616  3463 net.cpp:84] Creating Layer M2PELU38
I0927 14:49:11.262619  3463 net.cpp:406] M2PELU38 <- Convolution40
I0927 14:49:11.262629  3463 net.cpp:367] M2PELU38 -> Convolution40 (in-place)
I0927 14:49:11.262729  3463 net.cpp:122] Setting up M2PELU38
I0927 14:49:11.262734  3463 net.cpp:129] Top shape: 100 64 8 8 (409600)
I0927 14:49:11.262737  3463 net.cpp:137] Memory required for data: 1035060400
I0927 14:49:11.262739  3463 layer_factory.hpp:77] Creating layer Convolution41
I0927 14:49:11.262747  3463 net.cpp:84] Creating Layer Convolution41
I0927 14:49:11.262749  3463 net.cpp:406] Convolution41 <- Convolution40
I0927 14:49:11.262753  3463 net.cpp:380] Convolution41 -> Convolution41
I0927 14:49:11.264484  3463 net.cpp:122] Setting up Convolution41
I0927 14:49:11.264493  3463 net.cpp:129] Top shape: 100 64 8 8 (409600)
I0927 14:49:11.264495  3463 net.cpp:137] Memory required for data: 1036698800
I0927 14:49:11.264500  3463 layer_factory.hpp:77] Creating layer BatchNorm41
I0927 14:49:11.264505  3463 net.cpp:84] Creating Layer BatchNorm41
I0927 14:49:11.264508  3463 net.cpp:406] BatchNorm41 <- Convolution41
I0927 14:49:11.264513  3463 net.cpp:367] BatchNorm41 -> Convolution41 (in-place)
I0927 14:49:11.264645  3463 net.cpp:122] Setting up BatchNorm41
I0927 14:49:11.264650  3463 net.cpp:129] Top shape: 100 64 8 8 (409600)
I0927 14:49:11.264652  3463 net.cpp:137] Memory required for data: 1038337200
I0927 14:49:11.264657  3463 layer_factory.hpp:77] Creating layer Scale41
I0927 14:49:11.264660  3463 net.cpp:84] Creating Layer Scale41
I0927 14:49:11.264663  3463 net.cpp:406] Scale41 <- Convolution41
I0927 14:49:11.264667  3463 net.cpp:367] Scale41 -> Convolution41 (in-place)
I0927 14:49:11.264694  3463 layer_factory.hpp:77] Creating layer Scale41
I0927 14:49:11.264771  3463 net.cpp:122] Setting up Scale41
I0927 14:49:11.264775  3463 net.cpp:129] Top shape: 100 64 8 8 (409600)
I0927 14:49:11.264777  3463 net.cpp:137] Memory required for data: 1039975600
I0927 14:49:11.264781  3463 layer_factory.hpp:77] Creating layer Eltwise19
I0927 14:49:11.264786  3463 net.cpp:84] Creating Layer Eltwise19
I0927 14:49:11.264788  3463 net.cpp:406] Eltwise19 <- Convolution39
I0927 14:49:11.264791  3463 net.cpp:406] Eltwise19 <- Convolution41
I0927 14:49:11.264794  3463 net.cpp:380] Eltwise19 -> Eltwise19
I0927 14:49:11.264811  3463 net.cpp:122] Setting up Eltwise19
I0927 14:49:11.264816  3463 net.cpp:129] Top shape: 100 64 8 8 (409600)
I0927 14:49:11.264817  3463 net.cpp:137] Memory required for data: 1041614000
I0927 14:49:11.264819  3463 layer_factory.hpp:77] Creating layer M2PELU39
I0927 14:49:11.264823  3463 net.cpp:84] Creating Layer M2PELU39
I0927 14:49:11.264825  3463 net.cpp:406] M2PELU39 <- Eltwise19
I0927 14:49:11.264829  3463 net.cpp:367] M2PELU39 -> Eltwise19 (in-place)
I0927 14:49:11.264920  3463 net.cpp:122] Setting up M2PELU39
I0927 14:49:11.264925  3463 net.cpp:129] Top shape: 100 64 8 8 (409600)
I0927 14:49:11.264927  3463 net.cpp:137] Memory required for data: 1043252400
I0927 14:49:11.264930  3463 layer_factory.hpp:77] Creating layer Eltwise19_M2PELU39_0_split
I0927 14:49:11.264935  3463 net.cpp:84] Creating Layer Eltwise19_M2PELU39_0_split
I0927 14:49:11.264937  3463 net.cpp:406] Eltwise19_M2PELU39_0_split <- Eltwise19
I0927 14:49:11.264940  3463 net.cpp:380] Eltwise19_M2PELU39_0_split -> Eltwise19_M2PELU39_0_split_0
I0927 14:49:11.264945  3463 net.cpp:380] Eltwise19_M2PELU39_0_split -> Eltwise19_M2PELU39_0_split_1
I0927 14:49:11.264968  3463 net.cpp:122] Setting up Eltwise19_M2PELU39_0_split
I0927 14:49:11.264972  3463 net.cpp:129] Top shape: 100 64 8 8 (409600)
I0927 14:49:11.264974  3463 net.cpp:129] Top shape: 100 64 8 8 (409600)
I0927 14:49:11.264976  3463 net.cpp:137] Memory required for data: 1046529200
I0927 14:49:11.264979  3463 layer_factory.hpp:77] Creating layer Convolution42
I0927 14:49:11.264987  3463 net.cpp:84] Creating Layer Convolution42
I0927 14:49:11.264989  3463 net.cpp:406] Convolution42 <- Eltwise19_M2PELU39_0_split_0
I0927 14:49:11.264994  3463 net.cpp:380] Convolution42 -> Convolution42
I0927 14:49:11.266731  3463 net.cpp:122] Setting up Convolution42
I0927 14:49:11.266739  3463 net.cpp:129] Top shape: 100 64 8 8 (409600)
I0927 14:49:11.266749  3463 net.cpp:137] Memory required for data: 1048167600
I0927 14:49:11.266754  3463 layer_factory.hpp:77] Creating layer BatchNorm42
I0927 14:49:11.266758  3463 net.cpp:84] Creating Layer BatchNorm42
I0927 14:49:11.266762  3463 net.cpp:406] BatchNorm42 <- Convolution42
I0927 14:49:11.266767  3463 net.cpp:367] BatchNorm42 -> Convolution42 (in-place)
I0927 14:49:11.266901  3463 net.cpp:122] Setting up BatchNorm42
I0927 14:49:11.266906  3463 net.cpp:129] Top shape: 100 64 8 8 (409600)
I0927 14:49:11.266908  3463 net.cpp:137] Memory required for data: 1049806000
I0927 14:49:11.266913  3463 layer_factory.hpp:77] Creating layer Scale42
I0927 14:49:11.266916  3463 net.cpp:84] Creating Layer Scale42
I0927 14:49:11.266919  3463 net.cpp:406] Scale42 <- Convolution42
I0927 14:49:11.266923  3463 net.cpp:367] Scale42 -> Convolution42 (in-place)
I0927 14:49:11.266949  3463 layer_factory.hpp:77] Creating layer Scale42
I0927 14:49:11.267025  3463 net.cpp:122] Setting up Scale42
I0927 14:49:11.267030  3463 net.cpp:129] Top shape: 100 64 8 8 (409600)
I0927 14:49:11.267031  3463 net.cpp:137] Memory required for data: 1051444400
I0927 14:49:11.267035  3463 layer_factory.hpp:77] Creating layer M2PELU40
I0927 14:49:11.267040  3463 net.cpp:84] Creating Layer M2PELU40
I0927 14:49:11.267043  3463 net.cpp:406] M2PELU40 <- Convolution42
I0927 14:49:11.267046  3463 net.cpp:367] M2PELU40 -> Convolution42 (in-place)
I0927 14:49:11.267138  3463 net.cpp:122] Setting up M2PELU40
I0927 14:49:11.267143  3463 net.cpp:129] Top shape: 100 64 8 8 (409600)
I0927 14:49:11.267145  3463 net.cpp:137] Memory required for data: 1053082800
I0927 14:49:11.267148  3463 layer_factory.hpp:77] Creating layer Convolution43
I0927 14:49:11.267155  3463 net.cpp:84] Creating Layer Convolution43
I0927 14:49:11.267158  3463 net.cpp:406] Convolution43 <- Convolution42
I0927 14:49:11.267163  3463 net.cpp:380] Convolution43 -> Convolution43
I0927 14:49:11.268885  3463 net.cpp:122] Setting up Convolution43
I0927 14:49:11.268894  3463 net.cpp:129] Top shape: 100 64 8 8 (409600)
I0927 14:49:11.268896  3463 net.cpp:137] Memory required for data: 1054721200
I0927 14:49:11.268901  3463 layer_factory.hpp:77] Creating layer BatchNorm43
I0927 14:49:11.268908  3463 net.cpp:84] Creating Layer BatchNorm43
I0927 14:49:11.268910  3463 net.cpp:406] BatchNorm43 <- Convolution43
I0927 14:49:11.268913  3463 net.cpp:367] BatchNorm43 -> Convolution43 (in-place)
I0927 14:49:11.269049  3463 net.cpp:122] Setting up BatchNorm43
I0927 14:49:11.269054  3463 net.cpp:129] Top shape: 100 64 8 8 (409600)
I0927 14:49:11.269057  3463 net.cpp:137] Memory required for data: 1056359600
I0927 14:49:11.269062  3463 layer_factory.hpp:77] Creating layer Scale43
I0927 14:49:11.269065  3463 net.cpp:84] Creating Layer Scale43
I0927 14:49:11.269068  3463 net.cpp:406] Scale43 <- Convolution43
I0927 14:49:11.269070  3463 net.cpp:367] Scale43 -> Convolution43 (in-place)
I0927 14:49:11.269098  3463 layer_factory.hpp:77] Creating layer Scale43
I0927 14:49:11.269176  3463 net.cpp:122] Setting up Scale43
I0927 14:49:11.269181  3463 net.cpp:129] Top shape: 100 64 8 8 (409600)
I0927 14:49:11.269182  3463 net.cpp:137] Memory required for data: 1057998000
I0927 14:49:11.269186  3463 layer_factory.hpp:77] Creating layer Eltwise20
I0927 14:49:11.269191  3463 net.cpp:84] Creating Layer Eltwise20
I0927 14:49:11.269194  3463 net.cpp:406] Eltwise20 <- Eltwise19_M2PELU39_0_split_1
I0927 14:49:11.269197  3463 net.cpp:406] Eltwise20 <- Convolution43
I0927 14:49:11.269201  3463 net.cpp:380] Eltwise20 -> Eltwise20
I0927 14:49:11.269217  3463 net.cpp:122] Setting up Eltwise20
I0927 14:49:11.269222  3463 net.cpp:129] Top shape: 100 64 8 8 (409600)
I0927 14:49:11.269223  3463 net.cpp:137] Memory required for data: 1059636400
I0927 14:49:11.269225  3463 layer_factory.hpp:77] Creating layer M2PELU41
I0927 14:49:11.269230  3463 net.cpp:84] Creating Layer M2PELU41
I0927 14:49:11.269232  3463 net.cpp:406] M2PELU41 <- Eltwise20
I0927 14:49:11.269235  3463 net.cpp:367] M2PELU41 -> Eltwise20 (in-place)
I0927 14:49:11.269327  3463 net.cpp:122] Setting up M2PELU41
I0927 14:49:11.269338  3463 net.cpp:129] Top shape: 100 64 8 8 (409600)
I0927 14:49:11.269341  3463 net.cpp:137] Memory required for data: 1061274800
I0927 14:49:11.269345  3463 layer_factory.hpp:77] Creating layer Eltwise20_M2PELU41_0_split
I0927 14:49:11.269349  3463 net.cpp:84] Creating Layer Eltwise20_M2PELU41_0_split
I0927 14:49:11.269351  3463 net.cpp:406] Eltwise20_M2PELU41_0_split <- Eltwise20
I0927 14:49:11.269356  3463 net.cpp:380] Eltwise20_M2PELU41_0_split -> Eltwise20_M2PELU41_0_split_0
I0927 14:49:11.269359  3463 net.cpp:380] Eltwise20_M2PELU41_0_split -> Eltwise20_M2PELU41_0_split_1
I0927 14:49:11.269385  3463 net.cpp:122] Setting up Eltwise20_M2PELU41_0_split
I0927 14:49:11.269389  3463 net.cpp:129] Top shape: 100 64 8 8 (409600)
I0927 14:49:11.269392  3463 net.cpp:129] Top shape: 100 64 8 8 (409600)
I0927 14:49:11.269394  3463 net.cpp:137] Memory required for data: 1064551600
I0927 14:49:11.269397  3463 layer_factory.hpp:77] Creating layer Convolution44
I0927 14:49:11.269402  3463 net.cpp:84] Creating Layer Convolution44
I0927 14:49:11.269405  3463 net.cpp:406] Convolution44 <- Eltwise20_M2PELU41_0_split_0
I0927 14:49:11.269409  3463 net.cpp:380] Convolution44 -> Convolution44
I0927 14:49:11.271487  3463 net.cpp:122] Setting up Convolution44
I0927 14:49:11.271497  3463 net.cpp:129] Top shape: 100 64 8 8 (409600)
I0927 14:49:11.271498  3463 net.cpp:137] Memory required for data: 1066190000
I0927 14:49:11.271504  3463 layer_factory.hpp:77] Creating layer BatchNorm44
I0927 14:49:11.271509  3463 net.cpp:84] Creating Layer BatchNorm44
I0927 14:49:11.271512  3463 net.cpp:406] BatchNorm44 <- Convolution44
I0927 14:49:11.271515  3463 net.cpp:367] BatchNorm44 -> Convolution44 (in-place)
I0927 14:49:11.271661  3463 net.cpp:122] Setting up BatchNorm44
I0927 14:49:11.271664  3463 net.cpp:129] Top shape: 100 64 8 8 (409600)
I0927 14:49:11.271667  3463 net.cpp:137] Memory required for data: 1067828400
I0927 14:49:11.289232  3463 layer_factory.hpp:77] Creating layer Scale44
I0927 14:49:11.289242  3463 net.cpp:84] Creating Layer Scale44
I0927 14:49:11.289244  3463 net.cpp:406] Scale44 <- Convolution44
I0927 14:49:11.289248  3463 net.cpp:367] Scale44 -> Convolution44 (in-place)
I0927 14:49:11.289294  3463 layer_factory.hpp:77] Creating layer Scale44
I0927 14:49:11.289384  3463 net.cpp:122] Setting up Scale44
I0927 14:49:11.289391  3463 net.cpp:129] Top shape: 100 64 8 8 (409600)
I0927 14:49:11.289393  3463 net.cpp:137] Memory required for data: 1069466800
I0927 14:49:11.289397  3463 layer_factory.hpp:77] Creating layer M2PELU42
I0927 14:49:11.289402  3463 net.cpp:84] Creating Layer M2PELU42
I0927 14:49:11.289405  3463 net.cpp:406] M2PELU42 <- Convolution44
I0927 14:49:11.289409  3463 net.cpp:367] M2PELU42 -> Convolution44 (in-place)
I0927 14:49:11.289511  3463 net.cpp:122] Setting up M2PELU42
I0927 14:49:11.289516  3463 net.cpp:129] Top shape: 100 64 8 8 (409600)
I0927 14:49:11.289518  3463 net.cpp:137] Memory required for data: 1071105200
I0927 14:49:11.289522  3463 layer_factory.hpp:77] Creating layer Convolution45
I0927 14:49:11.289530  3463 net.cpp:84] Creating Layer Convolution45
I0927 14:49:11.289532  3463 net.cpp:406] Convolution45 <- Convolution44
I0927 14:49:11.289537  3463 net.cpp:380] Convolution45 -> Convolution45
I0927 14:49:11.291630  3463 net.cpp:122] Setting up Convolution45
I0927 14:49:11.291640  3463 net.cpp:129] Top shape: 100 64 8 8 (409600)
I0927 14:49:11.291641  3463 net.cpp:137] Memory required for data: 1072743600
I0927 14:49:11.291646  3463 layer_factory.hpp:77] Creating layer BatchNorm45
I0927 14:49:11.291653  3463 net.cpp:84] Creating Layer BatchNorm45
I0927 14:49:11.291657  3463 net.cpp:406] BatchNorm45 <- Convolution45
I0927 14:49:11.291661  3463 net.cpp:367] BatchNorm45 -> Convolution45 (in-place)
I0927 14:49:11.291805  3463 net.cpp:122] Setting up BatchNorm45
I0927 14:49:11.291808  3463 net.cpp:129] Top shape: 100 64 8 8 (409600)
I0927 14:49:11.291810  3463 net.cpp:137] Memory required for data: 1074382000
I0927 14:49:11.291815  3463 layer_factory.hpp:77] Creating layer Scale45
I0927 14:49:11.291828  3463 net.cpp:84] Creating Layer Scale45
I0927 14:49:11.291831  3463 net.cpp:406] Scale45 <- Convolution45
I0927 14:49:11.291836  3463 net.cpp:367] Scale45 -> Convolution45 (in-place)
I0927 14:49:11.291865  3463 layer_factory.hpp:77] Creating layer Scale45
I0927 14:49:11.291946  3463 net.cpp:122] Setting up Scale45
I0927 14:49:11.291951  3463 net.cpp:129] Top shape: 100 64 8 8 (409600)
I0927 14:49:11.291954  3463 net.cpp:137] Memory required for data: 1076020400
I0927 14:49:11.291957  3463 layer_factory.hpp:77] Creating layer Eltwise21
I0927 14:49:11.291962  3463 net.cpp:84] Creating Layer Eltwise21
I0927 14:49:11.291965  3463 net.cpp:406] Eltwise21 <- Eltwise20_M2PELU41_0_split_1
I0927 14:49:11.291968  3463 net.cpp:406] Eltwise21 <- Convolution45
I0927 14:49:11.291972  3463 net.cpp:380] Eltwise21 -> Eltwise21
I0927 14:49:11.291990  3463 net.cpp:122] Setting up Eltwise21
I0927 14:49:11.291993  3463 net.cpp:129] Top shape: 100 64 8 8 (409600)
I0927 14:49:11.291996  3463 net.cpp:137] Memory required for data: 1077658800
I0927 14:49:11.291997  3463 layer_factory.hpp:77] Creating layer M2PELU43
I0927 14:49:11.292001  3463 net.cpp:84] Creating Layer M2PELU43
I0927 14:49:11.292004  3463 net.cpp:406] M2PELU43 <- Eltwise21
I0927 14:49:11.292009  3463 net.cpp:367] M2PELU43 -> Eltwise21 (in-place)
I0927 14:49:11.292102  3463 net.cpp:122] Setting up M2PELU43
I0927 14:49:11.292107  3463 net.cpp:129] Top shape: 100 64 8 8 (409600)
I0927 14:49:11.292109  3463 net.cpp:137] Memory required for data: 1079297200
I0927 14:49:11.292114  3463 layer_factory.hpp:77] Creating layer Eltwise21_M2PELU43_0_split
I0927 14:49:11.292119  3463 net.cpp:84] Creating Layer Eltwise21_M2PELU43_0_split
I0927 14:49:11.292120  3463 net.cpp:406] Eltwise21_M2PELU43_0_split <- Eltwise21
I0927 14:49:11.292124  3463 net.cpp:380] Eltwise21_M2PELU43_0_split -> Eltwise21_M2PELU43_0_split_0
I0927 14:49:11.292129  3463 net.cpp:380] Eltwise21_M2PELU43_0_split -> Eltwise21_M2PELU43_0_split_1
I0927 14:49:11.292155  3463 net.cpp:122] Setting up Eltwise21_M2PELU43_0_split
I0927 14:49:11.292158  3463 net.cpp:129] Top shape: 100 64 8 8 (409600)
I0927 14:49:11.292160  3463 net.cpp:129] Top shape: 100 64 8 8 (409600)
I0927 14:49:11.292162  3463 net.cpp:137] Memory required for data: 1082574000
I0927 14:49:11.292165  3463 layer_factory.hpp:77] Creating layer Convolution46
I0927 14:49:11.292171  3463 net.cpp:84] Creating Layer Convolution46
I0927 14:49:11.292173  3463 net.cpp:406] Convolution46 <- Eltwise21_M2PELU43_0_split_0
I0927 14:49:11.292178  3463 net.cpp:380] Convolution46 -> Convolution46
I0927 14:49:11.293937  3463 net.cpp:122] Setting up Convolution46
I0927 14:49:11.293946  3463 net.cpp:129] Top shape: 100 64 8 8 (409600)
I0927 14:49:11.293949  3463 net.cpp:137] Memory required for data: 1084212400
I0927 14:49:11.293954  3463 layer_factory.hpp:77] Creating layer BatchNorm46
I0927 14:49:11.293958  3463 net.cpp:84] Creating Layer BatchNorm46
I0927 14:49:11.293962  3463 net.cpp:406] BatchNorm46 <- Convolution46
I0927 14:49:11.293967  3463 net.cpp:367] BatchNorm46 -> Convolution46 (in-place)
I0927 14:49:11.294111  3463 net.cpp:122] Setting up BatchNorm46
I0927 14:49:11.294116  3463 net.cpp:129] Top shape: 100 64 8 8 (409600)
I0927 14:49:11.294118  3463 net.cpp:137] Memory required for data: 1085850800
I0927 14:49:11.294123  3463 layer_factory.hpp:77] Creating layer Scale46
I0927 14:49:11.294127  3463 net.cpp:84] Creating Layer Scale46
I0927 14:49:11.294129  3463 net.cpp:406] Scale46 <- Convolution46
I0927 14:49:11.294133  3463 net.cpp:367] Scale46 -> Convolution46 (in-place)
I0927 14:49:11.294162  3463 layer_factory.hpp:77] Creating layer Scale46
I0927 14:49:11.294244  3463 net.cpp:122] Setting up Scale46
I0927 14:49:11.294248  3463 net.cpp:129] Top shape: 100 64 8 8 (409600)
I0927 14:49:11.294250  3463 net.cpp:137] Memory required for data: 1087489200
I0927 14:49:11.294255  3463 layer_factory.hpp:77] Creating layer M2PELU44
I0927 14:49:11.294260  3463 net.cpp:84] Creating Layer M2PELU44
I0927 14:49:11.294261  3463 net.cpp:406] M2PELU44 <- Convolution46
I0927 14:49:11.294272  3463 net.cpp:367] M2PELU44 -> Convolution46 (in-place)
I0927 14:49:11.294369  3463 net.cpp:122] Setting up M2PELU44
I0927 14:49:11.294374  3463 net.cpp:129] Top shape: 100 64 8 8 (409600)
I0927 14:49:11.294376  3463 net.cpp:137] Memory required for data: 1089127600
I0927 14:49:11.294380  3463 layer_factory.hpp:77] Creating layer Convolution47
I0927 14:49:11.294389  3463 net.cpp:84] Creating Layer Convolution47
I0927 14:49:11.294390  3463 net.cpp:406] Convolution47 <- Convolution46
I0927 14:49:11.294394  3463 net.cpp:380] Convolution47 -> Convolution47
I0927 14:49:11.296144  3463 net.cpp:122] Setting up Convolution47
I0927 14:49:11.296152  3463 net.cpp:129] Top shape: 100 64 8 8 (409600)
I0927 14:49:11.296155  3463 net.cpp:137] Memory required for data: 1090766000
I0927 14:49:11.296160  3463 layer_factory.hpp:77] Creating layer BatchNorm47
I0927 14:49:11.296166  3463 net.cpp:84] Creating Layer BatchNorm47
I0927 14:49:11.296169  3463 net.cpp:406] BatchNorm47 <- Convolution47
I0927 14:49:11.296174  3463 net.cpp:367] BatchNorm47 -> Convolution47 (in-place)
I0927 14:49:11.296308  3463 net.cpp:122] Setting up BatchNorm47
I0927 14:49:11.296313  3463 net.cpp:129] Top shape: 100 64 8 8 (409600)
I0927 14:49:11.296315  3463 net.cpp:137] Memory required for data: 1092404400
I0927 14:49:11.296319  3463 layer_factory.hpp:77] Creating layer Scale47
I0927 14:49:11.296324  3463 net.cpp:84] Creating Layer Scale47
I0927 14:49:11.296327  3463 net.cpp:406] Scale47 <- Convolution47
I0927 14:49:11.296330  3463 net.cpp:367] Scale47 -> Convolution47 (in-place)
I0927 14:49:11.296357  3463 layer_factory.hpp:77] Creating layer Scale47
I0927 14:49:11.296435  3463 net.cpp:122] Setting up Scale47
I0927 14:49:11.296439  3463 net.cpp:129] Top shape: 100 64 8 8 (409600)
I0927 14:49:11.296442  3463 net.cpp:137] Memory required for data: 1094042800
I0927 14:49:11.296447  3463 layer_factory.hpp:77] Creating layer Eltwise22
I0927 14:49:11.296450  3463 net.cpp:84] Creating Layer Eltwise22
I0927 14:49:11.296453  3463 net.cpp:406] Eltwise22 <- Eltwise21_M2PELU43_0_split_1
I0927 14:49:11.296456  3463 net.cpp:406] Eltwise22 <- Convolution47
I0927 14:49:11.296460  3463 net.cpp:380] Eltwise22 -> Eltwise22
I0927 14:49:11.296478  3463 net.cpp:122] Setting up Eltwise22
I0927 14:49:11.296480  3463 net.cpp:129] Top shape: 100 64 8 8 (409600)
I0927 14:49:11.296483  3463 net.cpp:137] Memory required for data: 1095681200
I0927 14:49:11.296484  3463 layer_factory.hpp:77] Creating layer M2PELU45
I0927 14:49:11.296489  3463 net.cpp:84] Creating Layer M2PELU45
I0927 14:49:11.296492  3463 net.cpp:406] M2PELU45 <- Eltwise22
I0927 14:49:11.296495  3463 net.cpp:367] M2PELU45 -> Eltwise22 (in-place)
I0927 14:49:11.296586  3463 net.cpp:122] Setting up M2PELU45
I0927 14:49:11.296591  3463 net.cpp:129] Top shape: 100 64 8 8 (409600)
I0927 14:49:11.296593  3463 net.cpp:137] Memory required for data: 1097319600
I0927 14:49:11.296597  3463 layer_factory.hpp:77] Creating layer Eltwise22_M2PELU45_0_split
I0927 14:49:11.296600  3463 net.cpp:84] Creating Layer Eltwise22_M2PELU45_0_split
I0927 14:49:11.296603  3463 net.cpp:406] Eltwise22_M2PELU45_0_split <- Eltwise22
I0927 14:49:11.296607  3463 net.cpp:380] Eltwise22_M2PELU45_0_split -> Eltwise22_M2PELU45_0_split_0
I0927 14:49:11.296612  3463 net.cpp:380] Eltwise22_M2PELU45_0_split -> Eltwise22_M2PELU45_0_split_1
I0927 14:49:11.296635  3463 net.cpp:122] Setting up Eltwise22_M2PELU45_0_split
I0927 14:49:11.296639  3463 net.cpp:129] Top shape: 100 64 8 8 (409600)
I0927 14:49:11.296641  3463 net.cpp:129] Top shape: 100 64 8 8 (409600)
I0927 14:49:11.296643  3463 net.cpp:137] Memory required for data: 1100596400
I0927 14:49:11.296645  3463 layer_factory.hpp:77] Creating layer Convolution48
I0927 14:49:11.296653  3463 net.cpp:84] Creating Layer Convolution48
I0927 14:49:11.296654  3463 net.cpp:406] Convolution48 <- Eltwise22_M2PELU45_0_split_0
I0927 14:49:11.296658  3463 net.cpp:380] Convolution48 -> Convolution48
I0927 14:49:11.298722  3463 net.cpp:122] Setting up Convolution48
I0927 14:49:11.298732  3463 net.cpp:129] Top shape: 100 64 8 8 (409600)
I0927 14:49:11.298740  3463 net.cpp:137] Memory required for data: 1102234800
I0927 14:49:11.298745  3463 layer_factory.hpp:77] Creating layer BatchNorm48
I0927 14:49:11.298753  3463 net.cpp:84] Creating Layer BatchNorm48
I0927 14:49:11.298755  3463 net.cpp:406] BatchNorm48 <- Convolution48
I0927 14:49:11.298759  3463 net.cpp:367] BatchNorm48 -> Convolution48 (in-place)
I0927 14:49:11.298913  3463 net.cpp:122] Setting up BatchNorm48
I0927 14:49:11.298918  3463 net.cpp:129] Top shape: 100 64 8 8 (409600)
I0927 14:49:11.298920  3463 net.cpp:137] Memory required for data: 1103873200
I0927 14:49:11.298925  3463 layer_factory.hpp:77] Creating layer Scale48
I0927 14:49:11.298930  3463 net.cpp:84] Creating Layer Scale48
I0927 14:49:11.298933  3463 net.cpp:406] Scale48 <- Convolution48
I0927 14:49:11.298936  3463 net.cpp:367] Scale48 -> Convolution48 (in-place)
I0927 14:49:11.298965  3463 layer_factory.hpp:77] Creating layer Scale48
I0927 14:49:11.299047  3463 net.cpp:122] Setting up Scale48
I0927 14:49:11.299052  3463 net.cpp:129] Top shape: 100 64 8 8 (409600)
I0927 14:49:11.299054  3463 net.cpp:137] Memory required for data: 1105511600
I0927 14:49:11.299058  3463 layer_factory.hpp:77] Creating layer M2PELU46
I0927 14:49:11.299063  3463 net.cpp:84] Creating Layer M2PELU46
I0927 14:49:11.299067  3463 net.cpp:406] M2PELU46 <- Convolution48
I0927 14:49:11.299070  3463 net.cpp:367] M2PELU46 -> Convolution48 (in-place)
I0927 14:49:11.299162  3463 net.cpp:122] Setting up M2PELU46
I0927 14:49:11.299167  3463 net.cpp:129] Top shape: 100 64 8 8 (409600)
I0927 14:49:11.299170  3463 net.cpp:137] Memory required for data: 1107150000
I0927 14:49:11.299173  3463 layer_factory.hpp:77] Creating layer Convolution49
I0927 14:49:11.299180  3463 net.cpp:84] Creating Layer Convolution49
I0927 14:49:11.299182  3463 net.cpp:406] Convolution49 <- Convolution48
I0927 14:49:11.299187  3463 net.cpp:380] Convolution49 -> Convolution49
I0927 14:49:11.301298  3463 net.cpp:122] Setting up Convolution49
I0927 14:49:11.301307  3463 net.cpp:129] Top shape: 100 64 8 8 (409600)
I0927 14:49:11.301311  3463 net.cpp:137] Memory required for data: 1108788400
I0927 14:49:11.301314  3463 layer_factory.hpp:77] Creating layer BatchNorm49
I0927 14:49:11.301319  3463 net.cpp:84] Creating Layer BatchNorm49
I0927 14:49:11.301322  3463 net.cpp:406] BatchNorm49 <- Convolution49
I0927 14:49:11.301327  3463 net.cpp:367] BatchNorm49 -> Convolution49 (in-place)
I0927 14:49:11.301465  3463 net.cpp:122] Setting up BatchNorm49
I0927 14:49:11.301470  3463 net.cpp:129] Top shape: 100 64 8 8 (409600)
I0927 14:49:11.301471  3463 net.cpp:137] Memory required for data: 1110426800
I0927 14:49:11.301476  3463 layer_factory.hpp:77] Creating layer Scale49
I0927 14:49:11.301481  3463 net.cpp:84] Creating Layer Scale49
I0927 14:49:11.301483  3463 net.cpp:406] Scale49 <- Convolution49
I0927 14:49:11.301486  3463 net.cpp:367] Scale49 -> Convolution49 (in-place)
I0927 14:49:11.301514  3463 layer_factory.hpp:77] Creating layer Scale49
I0927 14:49:11.301597  3463 net.cpp:122] Setting up Scale49
I0927 14:49:11.301602  3463 net.cpp:129] Top shape: 100 64 8 8 (409600)
I0927 14:49:11.301604  3463 net.cpp:137] Memory required for data: 1112065200
I0927 14:49:11.301609  3463 layer_factory.hpp:77] Creating layer Eltwise23
I0927 14:49:11.301611  3463 net.cpp:84] Creating Layer Eltwise23
I0927 14:49:11.301614  3463 net.cpp:406] Eltwise23 <- Eltwise22_M2PELU45_0_split_1
I0927 14:49:11.301617  3463 net.cpp:406] Eltwise23 <- Convolution49
I0927 14:49:11.301621  3463 net.cpp:380] Eltwise23 -> Eltwise23
I0927 14:49:11.301638  3463 net.cpp:122] Setting up Eltwise23
I0927 14:49:11.301642  3463 net.cpp:129] Top shape: 100 64 8 8 (409600)
I0927 14:49:11.301645  3463 net.cpp:137] Memory required for data: 1113703600
I0927 14:49:11.301646  3463 layer_factory.hpp:77] Creating layer M2PELU47
I0927 14:49:11.301651  3463 net.cpp:84] Creating Layer M2PELU47
I0927 14:49:11.301654  3463 net.cpp:406] M2PELU47 <- Eltwise23
I0927 14:49:11.301657  3463 net.cpp:367] M2PELU47 -> Eltwise23 (in-place)
I0927 14:49:11.301759  3463 net.cpp:122] Setting up M2PELU47
I0927 14:49:11.301764  3463 net.cpp:129] Top shape: 100 64 8 8 (409600)
I0927 14:49:11.301765  3463 net.cpp:137] Memory required for data: 1115342000
I0927 14:49:11.301769  3463 layer_factory.hpp:77] Creating layer Eltwise23_M2PELU47_0_split
I0927 14:49:11.301774  3463 net.cpp:84] Creating Layer Eltwise23_M2PELU47_0_split
I0927 14:49:11.301776  3463 net.cpp:406] Eltwise23_M2PELU47_0_split <- Eltwise23
I0927 14:49:11.301779  3463 net.cpp:380] Eltwise23_M2PELU47_0_split -> Eltwise23_M2PELU47_0_split_0
I0927 14:49:11.301784  3463 net.cpp:380] Eltwise23_M2PELU47_0_split -> Eltwise23_M2PELU47_0_split_1
I0927 14:49:11.301808  3463 net.cpp:122] Setting up Eltwise23_M2PELU47_0_split
I0927 14:49:11.301812  3463 net.cpp:129] Top shape: 100 64 8 8 (409600)
I0927 14:49:11.301815  3463 net.cpp:129] Top shape: 100 64 8 8 (409600)
I0927 14:49:11.301816  3463 net.cpp:137] Memory required for data: 1118618800
I0927 14:49:11.301820  3463 layer_factory.hpp:77] Creating layer Convolution50
I0927 14:49:11.301826  3463 net.cpp:84] Creating Layer Convolution50
I0927 14:49:11.301828  3463 net.cpp:406] Convolution50 <- Eltwise23_M2PELU47_0_split_0
I0927 14:49:11.301831  3463 net.cpp:380] Convolution50 -> Convolution50
I0927 14:49:11.304450  3463 net.cpp:122] Setting up Convolution50
I0927 14:49:11.304458  3463 net.cpp:129] Top shape: 100 64 8 8 (409600)
I0927 14:49:11.304461  3463 net.cpp:137] Memory required for data: 1120257200
I0927 14:49:11.304466  3463 layer_factory.hpp:77] Creating layer BatchNorm50
I0927 14:49:11.304471  3463 net.cpp:84] Creating Layer BatchNorm50
I0927 14:49:11.304474  3463 net.cpp:406] BatchNorm50 <- Convolution50
I0927 14:49:11.304478  3463 net.cpp:367] BatchNorm50 -> Convolution50 (in-place)
I0927 14:49:11.319854  3463 net.cpp:122] Setting up BatchNorm50
I0927 14:49:11.319862  3463 net.cpp:129] Top shape: 100 64 8 8 (409600)
I0927 14:49:11.319865  3463 net.cpp:137] Memory required for data: 1121895600
I0927 14:49:11.319870  3463 layer_factory.hpp:77] Creating layer Scale50
I0927 14:49:11.319875  3463 net.cpp:84] Creating Layer Scale50
I0927 14:49:11.319878  3463 net.cpp:406] Scale50 <- Convolution50
I0927 14:49:11.319883  3463 net.cpp:367] Scale50 -> Convolution50 (in-place)
I0927 14:49:11.319913  3463 layer_factory.hpp:77] Creating layer Scale50
I0927 14:49:11.319996  3463 net.cpp:122] Setting up Scale50
I0927 14:49:11.320001  3463 net.cpp:129] Top shape: 100 64 8 8 (409600)
I0927 14:49:11.320003  3463 net.cpp:137] Memory required for data: 1123534000
I0927 14:49:11.320008  3463 layer_factory.hpp:77] Creating layer M2PELU48
I0927 14:49:11.320013  3463 net.cpp:84] Creating Layer M2PELU48
I0927 14:49:11.320015  3463 net.cpp:406] M2PELU48 <- Convolution50
I0927 14:49:11.320019  3463 net.cpp:367] M2PELU48 -> Convolution50 (in-place)
I0927 14:49:11.320113  3463 net.cpp:122] Setting up M2PELU48
I0927 14:49:11.320118  3463 net.cpp:129] Top shape: 100 64 8 8 (409600)
I0927 14:49:11.320121  3463 net.cpp:137] Memory required for data: 1125172400
I0927 14:49:11.320124  3463 layer_factory.hpp:77] Creating layer Convolution51
I0927 14:49:11.320132  3463 net.cpp:84] Creating Layer Convolution51
I0927 14:49:11.320133  3463 net.cpp:406] Convolution51 <- Convolution50
I0927 14:49:11.320138  3463 net.cpp:380] Convolution51 -> Convolution51
I0927 14:49:11.322156  3463 net.cpp:122] Setting up Convolution51
I0927 14:49:11.322165  3463 net.cpp:129] Top shape: 100 64 8 8 (409600)
I0927 14:49:11.322167  3463 net.cpp:137] Memory required for data: 1126810800
I0927 14:49:11.322172  3463 layer_factory.hpp:77] Creating layer BatchNorm51
I0927 14:49:11.322178  3463 net.cpp:84] Creating Layer BatchNorm51
I0927 14:49:11.322181  3463 net.cpp:406] BatchNorm51 <- Convolution51
I0927 14:49:11.322185  3463 net.cpp:367] BatchNorm51 -> Convolution51 (in-place)
I0927 14:49:11.322327  3463 net.cpp:122] Setting up BatchNorm51
I0927 14:49:11.322331  3463 net.cpp:129] Top shape: 100 64 8 8 (409600)
I0927 14:49:11.322335  3463 net.cpp:137] Memory required for data: 1128449200
I0927 14:49:11.322346  3463 layer_factory.hpp:77] Creating layer Scale51
I0927 14:49:11.322351  3463 net.cpp:84] Creating Layer Scale51
I0927 14:49:11.322355  3463 net.cpp:406] Scale51 <- Convolution51
I0927 14:49:11.322357  3463 net.cpp:367] Scale51 -> Convolution51 (in-place)
I0927 14:49:11.322388  3463 layer_factory.hpp:77] Creating layer Scale51
I0927 14:49:11.322469  3463 net.cpp:122] Setting up Scale51
I0927 14:49:11.322474  3463 net.cpp:129] Top shape: 100 64 8 8 (409600)
I0927 14:49:11.322475  3463 net.cpp:137] Memory required for data: 1130087600
I0927 14:49:11.322479  3463 layer_factory.hpp:77] Creating layer Eltwise24
I0927 14:49:11.322484  3463 net.cpp:84] Creating Layer Eltwise24
I0927 14:49:11.322487  3463 net.cpp:406] Eltwise24 <- Eltwise23_M2PELU47_0_split_1
I0927 14:49:11.322490  3463 net.cpp:406] Eltwise24 <- Convolution51
I0927 14:49:11.322494  3463 net.cpp:380] Eltwise24 -> Eltwise24
I0927 14:49:11.322510  3463 net.cpp:122] Setting up Eltwise24
I0927 14:49:11.322515  3463 net.cpp:129] Top shape: 100 64 8 8 (409600)
I0927 14:49:11.322516  3463 net.cpp:137] Memory required for data: 1131726000
I0927 14:49:11.322518  3463 layer_factory.hpp:77] Creating layer M2PELU49
I0927 14:49:11.322533  3463 net.cpp:84] Creating Layer M2PELU49
I0927 14:49:11.322536  3463 net.cpp:406] M2PELU49 <- Eltwise24
I0927 14:49:11.322540  3463 net.cpp:367] M2PELU49 -> Eltwise24 (in-place)
I0927 14:49:11.322638  3463 net.cpp:122] Setting up M2PELU49
I0927 14:49:11.322643  3463 net.cpp:129] Top shape: 100 64 8 8 (409600)
I0927 14:49:11.322644  3463 net.cpp:137] Memory required for data: 1133364400
I0927 14:49:11.322649  3463 layer_factory.hpp:77] Creating layer Eltwise24_M2PELU49_0_split
I0927 14:49:11.322652  3463 net.cpp:84] Creating Layer Eltwise24_M2PELU49_0_split
I0927 14:49:11.322654  3463 net.cpp:406] Eltwise24_M2PELU49_0_split <- Eltwise24
I0927 14:49:11.322659  3463 net.cpp:380] Eltwise24_M2PELU49_0_split -> Eltwise24_M2PELU49_0_split_0
I0927 14:49:11.322662  3463 net.cpp:380] Eltwise24_M2PELU49_0_split -> Eltwise24_M2PELU49_0_split_1
I0927 14:49:11.322701  3463 net.cpp:122] Setting up Eltwise24_M2PELU49_0_split
I0927 14:49:11.322705  3463 net.cpp:129] Top shape: 100 64 8 8 (409600)
I0927 14:49:11.322710  3463 net.cpp:129] Top shape: 100 64 8 8 (409600)
I0927 14:49:11.322711  3463 net.cpp:137] Memory required for data: 1136641200
I0927 14:49:11.322713  3463 layer_factory.hpp:77] Creating layer Convolution52
I0927 14:49:11.322720  3463 net.cpp:84] Creating Layer Convolution52
I0927 14:49:11.322722  3463 net.cpp:406] Convolution52 <- Eltwise24_M2PELU49_0_split_0
I0927 14:49:11.322726  3463 net.cpp:380] Convolution52 -> Convolution52
I0927 14:49:11.324877  3463 net.cpp:122] Setting up Convolution52
I0927 14:49:11.324887  3463 net.cpp:129] Top shape: 100 64 8 8 (409600)
I0927 14:49:11.324888  3463 net.cpp:137] Memory required for data: 1138279600
I0927 14:49:11.324893  3463 layer_factory.hpp:77] Creating layer BatchNorm52
I0927 14:49:11.324899  3463 net.cpp:84] Creating Layer BatchNorm52
I0927 14:49:11.324903  3463 net.cpp:406] BatchNorm52 <- Convolution52
I0927 14:49:11.324905  3463 net.cpp:367] BatchNorm52 -> Convolution52 (in-place)
I0927 14:49:11.325053  3463 net.cpp:122] Setting up BatchNorm52
I0927 14:49:11.325058  3463 net.cpp:129] Top shape: 100 64 8 8 (409600)
I0927 14:49:11.325060  3463 net.cpp:137] Memory required for data: 1139918000
I0927 14:49:11.325065  3463 layer_factory.hpp:77] Creating layer Scale52
I0927 14:49:11.325068  3463 net.cpp:84] Creating Layer Scale52
I0927 14:49:11.325072  3463 net.cpp:406] Scale52 <- Convolution52
I0927 14:49:11.325074  3463 net.cpp:367] Scale52 -> Convolution52 (in-place)
I0927 14:49:11.325104  3463 layer_factory.hpp:77] Creating layer Scale52
I0927 14:49:11.325187  3463 net.cpp:122] Setting up Scale52
I0927 14:49:11.325193  3463 net.cpp:129] Top shape: 100 64 8 8 (409600)
I0927 14:49:11.325196  3463 net.cpp:137] Memory required for data: 1141556400
I0927 14:49:11.325199  3463 layer_factory.hpp:77] Creating layer M2PELU50
I0927 14:49:11.325219  3463 net.cpp:84] Creating Layer M2PELU50
I0927 14:49:11.325229  3463 net.cpp:406] M2PELU50 <- Convolution52
I0927 14:49:11.325234  3463 net.cpp:367] M2PELU50 -> Convolution52 (in-place)
I0927 14:49:11.325333  3463 net.cpp:122] Setting up M2PELU50
I0927 14:49:11.325338  3463 net.cpp:129] Top shape: 100 64 8 8 (409600)
I0927 14:49:11.325340  3463 net.cpp:137] Memory required for data: 1143194800
I0927 14:49:11.325345  3463 layer_factory.hpp:77] Creating layer Convolution53
I0927 14:49:11.325351  3463 net.cpp:84] Creating Layer Convolution53
I0927 14:49:11.325354  3463 net.cpp:406] Convolution53 <- Convolution52
I0927 14:49:11.325358  3463 net.cpp:380] Convolution53 -> Convolution53
I0927 14:49:11.327111  3463 net.cpp:122] Setting up Convolution53
I0927 14:49:11.327121  3463 net.cpp:129] Top shape: 100 64 8 8 (409600)
I0927 14:49:11.327122  3463 net.cpp:137] Memory required for data: 1144833200
I0927 14:49:11.327127  3463 layer_factory.hpp:77] Creating layer BatchNorm53
I0927 14:49:11.327133  3463 net.cpp:84] Creating Layer BatchNorm53
I0927 14:49:11.327136  3463 net.cpp:406] BatchNorm53 <- Convolution53
I0927 14:49:11.327139  3463 net.cpp:367] BatchNorm53 -> Convolution53 (in-place)
I0927 14:49:11.327281  3463 net.cpp:122] Setting up BatchNorm53
I0927 14:49:11.327286  3463 net.cpp:129] Top shape: 100 64 8 8 (409600)
I0927 14:49:11.327287  3463 net.cpp:137] Memory required for data: 1146471600
I0927 14:49:11.327292  3463 layer_factory.hpp:77] Creating layer Scale53
I0927 14:49:11.327296  3463 net.cpp:84] Creating Layer Scale53
I0927 14:49:11.327299  3463 net.cpp:406] Scale53 <- Convolution53
I0927 14:49:11.327302  3463 net.cpp:367] Scale53 -> Convolution53 (in-place)
I0927 14:49:11.327330  3463 layer_factory.hpp:77] Creating layer Scale53
I0927 14:49:11.327411  3463 net.cpp:122] Setting up Scale53
I0927 14:49:11.327415  3463 net.cpp:129] Top shape: 100 64 8 8 (409600)
I0927 14:49:11.327417  3463 net.cpp:137] Memory required for data: 1148110000
I0927 14:49:11.327421  3463 layer_factory.hpp:77] Creating layer Eltwise25
I0927 14:49:11.327425  3463 net.cpp:84] Creating Layer Eltwise25
I0927 14:49:11.327428  3463 net.cpp:406] Eltwise25 <- Eltwise24_M2PELU49_0_split_1
I0927 14:49:11.327431  3463 net.cpp:406] Eltwise25 <- Convolution53
I0927 14:49:11.327435  3463 net.cpp:380] Eltwise25 -> Eltwise25
I0927 14:49:11.327453  3463 net.cpp:122] Setting up Eltwise25
I0927 14:49:11.327457  3463 net.cpp:129] Top shape: 100 64 8 8 (409600)
I0927 14:49:11.327460  3463 net.cpp:137] Memory required for data: 1149748400
I0927 14:49:11.327461  3463 layer_factory.hpp:77] Creating layer M2PELU51
I0927 14:49:11.327466  3463 net.cpp:84] Creating Layer M2PELU51
I0927 14:49:11.327469  3463 net.cpp:406] M2PELU51 <- Eltwise25
I0927 14:49:11.327472  3463 net.cpp:367] M2PELU51 -> Eltwise25 (in-place)
I0927 14:49:11.327566  3463 net.cpp:122] Setting up M2PELU51
I0927 14:49:11.327572  3463 net.cpp:129] Top shape: 100 64 8 8 (409600)
I0927 14:49:11.327574  3463 net.cpp:137] Memory required for data: 1151386800
I0927 14:49:11.327579  3463 layer_factory.hpp:77] Creating layer Eltwise25_M2PELU51_0_split
I0927 14:49:11.327582  3463 net.cpp:84] Creating Layer Eltwise25_M2PELU51_0_split
I0927 14:49:11.327584  3463 net.cpp:406] Eltwise25_M2PELU51_0_split <- Eltwise25
I0927 14:49:11.327587  3463 net.cpp:380] Eltwise25_M2PELU51_0_split -> Eltwise25_M2PELU51_0_split_0
I0927 14:49:11.327591  3463 net.cpp:380] Eltwise25_M2PELU51_0_split -> Eltwise25_M2PELU51_0_split_1
I0927 14:49:11.327617  3463 net.cpp:122] Setting up Eltwise25_M2PELU51_0_split
I0927 14:49:11.327621  3463 net.cpp:129] Top shape: 100 64 8 8 (409600)
I0927 14:49:11.327625  3463 net.cpp:129] Top shape: 100 64 8 8 (409600)
I0927 14:49:11.327626  3463 net.cpp:137] Memory required for data: 1154663600
I0927 14:49:11.327628  3463 layer_factory.hpp:77] Creating layer Convolution54
I0927 14:49:11.327635  3463 net.cpp:84] Creating Layer Convolution54
I0927 14:49:11.327636  3463 net.cpp:406] Convolution54 <- Eltwise25_M2PELU51_0_split_0
I0927 14:49:11.327641  3463 net.cpp:380] Convolution54 -> Convolution54
I0927 14:49:11.329697  3463 net.cpp:122] Setting up Convolution54
I0927 14:49:11.329712  3463 net.cpp:129] Top shape: 100 64 8 8 (409600)
I0927 14:49:11.329715  3463 net.cpp:137] Memory required for data: 1156302000
I0927 14:49:11.329721  3463 layer_factory.hpp:77] Creating layer BatchNorm54
I0927 14:49:11.329726  3463 net.cpp:84] Creating Layer BatchNorm54
I0927 14:49:11.329730  3463 net.cpp:406] BatchNorm54 <- Convolution54
I0927 14:49:11.329733  3463 net.cpp:367] BatchNorm54 -> Convolution54 (in-place)
I0927 14:49:11.329882  3463 net.cpp:122] Setting up BatchNorm54
I0927 14:49:11.329887  3463 net.cpp:129] Top shape: 100 64 8 8 (409600)
I0927 14:49:11.329890  3463 net.cpp:137] Memory required for data: 1157940400
I0927 14:49:11.329895  3463 layer_factory.hpp:77] Creating layer Scale54
I0927 14:49:11.329898  3463 net.cpp:84] Creating Layer Scale54
I0927 14:49:11.329900  3463 net.cpp:406] Scale54 <- Convolution54
I0927 14:49:11.329903  3463 net.cpp:367] Scale54 -> Convolution54 (in-place)
I0927 14:49:11.329933  3463 layer_factory.hpp:77] Creating layer Scale54
I0927 14:49:11.330015  3463 net.cpp:122] Setting up Scale54
I0927 14:49:11.330020  3463 net.cpp:129] Top shape: 100 64 8 8 (409600)
I0927 14:49:11.330023  3463 net.cpp:137] Memory required for data: 1159578800
I0927 14:49:11.330026  3463 layer_factory.hpp:77] Creating layer M2PELU52
I0927 14:49:11.330030  3463 net.cpp:84] Creating Layer M2PELU52
I0927 14:49:11.330034  3463 net.cpp:406] M2PELU52 <- Convolution54
I0927 14:49:11.330037  3463 net.cpp:367] M2PELU52 -> Convolution54 (in-place)
I0927 14:49:11.330132  3463 net.cpp:122] Setting up M2PELU52
I0927 14:49:11.330137  3463 net.cpp:129] Top shape: 100 64 8 8 (409600)
I0927 14:49:11.330139  3463 net.cpp:137] Memory required for data: 1161217200
I0927 14:49:11.330143  3463 layer_factory.hpp:77] Creating layer Convolution55
I0927 14:49:11.330150  3463 net.cpp:84] Creating Layer Convolution55
I0927 14:49:11.330154  3463 net.cpp:406] Convolution55 <- Convolution54
I0927 14:49:11.330158  3463 net.cpp:380] Convolution55 -> Convolution55
I0927 14:49:11.331912  3463 net.cpp:122] Setting up Convolution55
I0927 14:49:11.331921  3463 net.cpp:129] Top shape: 100 64 8 8 (409600)
I0927 14:49:11.331923  3463 net.cpp:137] Memory required for data: 1162855600
I0927 14:49:11.331928  3463 layer_factory.hpp:77] Creating layer BatchNorm55
I0927 14:49:11.331933  3463 net.cpp:84] Creating Layer BatchNorm55
I0927 14:49:11.331936  3463 net.cpp:406] BatchNorm55 <- Convolution55
I0927 14:49:11.331940  3463 net.cpp:367] BatchNorm55 -> Convolution55 (in-place)
I0927 14:49:11.332084  3463 net.cpp:122] Setting up BatchNorm55
I0927 14:49:11.332088  3463 net.cpp:129] Top shape: 100 64 8 8 (409600)
I0927 14:49:11.332090  3463 net.cpp:137] Memory required for data: 1164494000
I0927 14:49:11.332095  3463 layer_factory.hpp:77] Creating layer Scale55
I0927 14:49:11.332100  3463 net.cpp:84] Creating Layer Scale55
I0927 14:49:11.332103  3463 net.cpp:406] Scale55 <- Convolution55
I0927 14:49:11.332106  3463 net.cpp:367] Scale55 -> Convolution55 (in-place)
I0927 14:49:11.332135  3463 layer_factory.hpp:77] Creating layer Scale55
I0927 14:49:11.332218  3463 net.cpp:122] Setting up Scale55
I0927 14:49:11.332222  3463 net.cpp:129] Top shape: 100 64 8 8 (409600)
I0927 14:49:11.332224  3463 net.cpp:137] Memory required for data: 1166132400
I0927 14:49:11.332228  3463 layer_factory.hpp:77] Creating layer Eltwise26
I0927 14:49:11.332235  3463 net.cpp:84] Creating Layer Eltwise26
I0927 14:49:11.332238  3463 net.cpp:406] Eltwise26 <- Eltwise25_M2PELU51_0_split_1
I0927 14:49:11.332242  3463 net.cpp:406] Eltwise26 <- Convolution55
I0927 14:49:11.332245  3463 net.cpp:380] Eltwise26 -> Eltwise26
I0927 14:49:11.332262  3463 net.cpp:122] Setting up Eltwise26
I0927 14:49:11.332267  3463 net.cpp:129] Top shape: 100 64 8 8 (409600)
I0927 14:49:11.332268  3463 net.cpp:137] Memory required for data: 1167770800
I0927 14:49:11.332270  3463 layer_factory.hpp:77] Creating layer M2PELU53
I0927 14:49:11.332275  3463 net.cpp:84] Creating Layer M2PELU53
I0927 14:49:11.332278  3463 net.cpp:406] M2PELU53 <- Eltwise26
I0927 14:49:11.332288  3463 net.cpp:367] M2PELU53 -> Eltwise26 (in-place)
I0927 14:49:11.332386  3463 net.cpp:122] Setting up M2PELU53
I0927 14:49:11.332391  3463 net.cpp:129] Top shape: 100 64 8 8 (409600)
I0927 14:49:11.332392  3463 net.cpp:137] Memory required for data: 1169409200
I0927 14:49:11.332396  3463 layer_factory.hpp:77] Creating layer Eltwise26_M2PELU53_0_split
I0927 14:49:11.332399  3463 net.cpp:84] Creating Layer Eltwise26_M2PELU53_0_split
I0927 14:49:11.332402  3463 net.cpp:406] Eltwise26_M2PELU53_0_split <- Eltwise26
I0927 14:49:11.332406  3463 net.cpp:380] Eltwise26_M2PELU53_0_split -> Eltwise26_M2PELU53_0_split_0
I0927 14:49:11.332411  3463 net.cpp:380] Eltwise26_M2PELU53_0_split -> Eltwise26_M2PELU53_0_split_1
I0927 14:49:11.332437  3463 net.cpp:122] Setting up Eltwise26_M2PELU53_0_split
I0927 14:49:11.332439  3463 net.cpp:129] Top shape: 100 64 8 8 (409600)
I0927 14:49:11.332442  3463 net.cpp:129] Top shape: 100 64 8 8 (409600)
I0927 14:49:11.332444  3463 net.cpp:137] Memory required for data: 1172686000
I0927 14:49:11.332446  3463 layer_factory.hpp:77] Creating layer Convolution56
I0927 14:49:11.332453  3463 net.cpp:84] Creating Layer Convolution56
I0927 14:49:11.332455  3463 net.cpp:406] Convolution56 <- Eltwise26_M2PELU53_0_split_0
I0927 14:49:11.332459  3463 net.cpp:380] Convolution56 -> Convolution56
I0927 14:49:11.334184  3463 net.cpp:122] Setting up Convolution56
I0927 14:49:11.334194  3463 net.cpp:129] Top shape: 100 64 8 8 (409600)
I0927 14:49:11.334197  3463 net.cpp:137] Memory required for data: 1174324400
I0927 14:49:11.334201  3463 layer_factory.hpp:77] Creating layer BatchNorm56
I0927 14:49:11.350106  3463 net.cpp:84] Creating Layer BatchNorm56
I0927 14:49:11.350114  3463 net.cpp:406] BatchNorm56 <- Convolution56
I0927 14:49:11.350121  3463 net.cpp:367] BatchNorm56 -> Convolution56 (in-place)
I0927 14:49:11.350292  3463 net.cpp:122] Setting up BatchNorm56
I0927 14:49:11.350298  3463 net.cpp:129] Top shape: 100 64 8 8 (409600)
I0927 14:49:11.350301  3463 net.cpp:137] Memory required for data: 1175962800
I0927 14:49:11.350306  3463 layer_factory.hpp:77] Creating layer Scale56
I0927 14:49:11.350311  3463 net.cpp:84] Creating Layer Scale56
I0927 14:49:11.350313  3463 net.cpp:406] Scale56 <- Convolution56
I0927 14:49:11.350318  3463 net.cpp:367] Scale56 -> Convolution56 (in-place)
I0927 14:49:11.350349  3463 layer_factory.hpp:77] Creating layer Scale56
I0927 14:49:11.350440  3463 net.cpp:122] Setting up Scale56
I0927 14:49:11.350443  3463 net.cpp:129] Top shape: 100 64 8 8 (409600)
I0927 14:49:11.350446  3463 net.cpp:137] Memory required for data: 1177601200
I0927 14:49:11.350450  3463 layer_factory.hpp:77] Creating layer M2PELU54
I0927 14:49:11.350455  3463 net.cpp:84] Creating Layer M2PELU54
I0927 14:49:11.350457  3463 net.cpp:406] M2PELU54 <- Convolution56
I0927 14:49:11.350462  3463 net.cpp:367] M2PELU54 -> Convolution56 (in-place)
I0927 14:49:11.350576  3463 net.cpp:122] Setting up M2PELU54
I0927 14:49:11.350582  3463 net.cpp:129] Top shape: 100 64 8 8 (409600)
I0927 14:49:11.350584  3463 net.cpp:137] Memory required for data: 1179239600
I0927 14:49:11.350589  3463 layer_factory.hpp:77] Creating layer Convolution57
I0927 14:49:11.350596  3463 net.cpp:84] Creating Layer Convolution57
I0927 14:49:11.350600  3463 net.cpp:406] Convolution57 <- Convolution56
I0927 14:49:11.350603  3463 net.cpp:380] Convolution57 -> Convolution57
I0927 14:49:11.352687  3463 net.cpp:122] Setting up Convolution57
I0927 14:49:11.352697  3463 net.cpp:129] Top shape: 100 64 8 8 (409600)
I0927 14:49:11.352700  3463 net.cpp:137] Memory required for data: 1180878000
I0927 14:49:11.352705  3463 layer_factory.hpp:77] Creating layer BatchNorm57
I0927 14:49:11.352710  3463 net.cpp:84] Creating Layer BatchNorm57
I0927 14:49:11.352713  3463 net.cpp:406] BatchNorm57 <- Convolution57
I0927 14:49:11.352717  3463 net.cpp:367] BatchNorm57 -> Convolution57 (in-place)
I0927 14:49:11.352869  3463 net.cpp:122] Setting up BatchNorm57
I0927 14:49:11.352874  3463 net.cpp:129] Top shape: 100 64 8 8 (409600)
I0927 14:49:11.352875  3463 net.cpp:137] Memory required for data: 1182516400
I0927 14:49:11.352888  3463 layer_factory.hpp:77] Creating layer Scale57
I0927 14:49:11.352893  3463 net.cpp:84] Creating Layer Scale57
I0927 14:49:11.352896  3463 net.cpp:406] Scale57 <- Convolution57
I0927 14:49:11.352900  3463 net.cpp:367] Scale57 -> Convolution57 (in-place)
I0927 14:49:11.352933  3463 layer_factory.hpp:77] Creating layer Scale57
I0927 14:49:11.353020  3463 net.cpp:122] Setting up Scale57
I0927 14:49:11.353024  3463 net.cpp:129] Top shape: 100 64 8 8 (409600)
I0927 14:49:11.353026  3463 net.cpp:137] Memory required for data: 1184154800
I0927 14:49:11.353030  3463 layer_factory.hpp:77] Creating layer Eltwise27
I0927 14:49:11.353035  3463 net.cpp:84] Creating Layer Eltwise27
I0927 14:49:11.353039  3463 net.cpp:406] Eltwise27 <- Eltwise26_M2PELU53_0_split_1
I0927 14:49:11.353041  3463 net.cpp:406] Eltwise27 <- Convolution57
I0927 14:49:11.353045  3463 net.cpp:380] Eltwise27 -> Eltwise27
I0927 14:49:11.353062  3463 net.cpp:122] Setting up Eltwise27
I0927 14:49:11.353066  3463 net.cpp:129] Top shape: 100 64 8 8 (409600)
I0927 14:49:11.353068  3463 net.cpp:137] Memory required for data: 1185793200
I0927 14:49:11.353070  3463 layer_factory.hpp:77] Creating layer M2PELU55
I0927 14:49:11.353076  3463 net.cpp:84] Creating Layer M2PELU55
I0927 14:49:11.353078  3463 net.cpp:406] M2PELU55 <- Eltwise27
I0927 14:49:11.353082  3463 net.cpp:367] M2PELU55 -> Eltwise27 (in-place)
I0927 14:49:11.353181  3463 net.cpp:122] Setting up M2PELU55
I0927 14:49:11.353186  3463 net.cpp:129] Top shape: 100 64 8 8 (409600)
I0927 14:49:11.353188  3463 net.cpp:137] Memory required for data: 1187431600
I0927 14:49:11.353193  3463 layer_factory.hpp:77] Creating layer Pooling1
I0927 14:49:11.353197  3463 net.cpp:84] Creating Layer Pooling1
I0927 14:49:11.353200  3463 net.cpp:406] Pooling1 <- Eltwise27
I0927 14:49:11.353204  3463 net.cpp:380] Pooling1 -> Pooling1
I0927 14:49:11.353775  3463 net.cpp:122] Setting up Pooling1
I0927 14:49:11.353796  3463 net.cpp:129] Top shape: 100 64 1 1 (6400)
I0927 14:49:11.353799  3463 net.cpp:137] Memory required for data: 1187457200
I0927 14:49:11.353802  3463 layer_factory.hpp:77] Creating layer InnerProduct1
I0927 14:49:11.353808  3463 net.cpp:84] Creating Layer InnerProduct1
I0927 14:49:11.353811  3463 net.cpp:406] InnerProduct1 <- Pooling1
I0927 14:49:11.353816  3463 net.cpp:380] InnerProduct1 -> InnerProduct1
I0927 14:49:11.353935  3463 net.cpp:122] Setting up InnerProduct1
I0927 14:49:11.353940  3463 net.cpp:129] Top shape: 100 10 (1000)
I0927 14:49:11.353941  3463 net.cpp:137] Memory required for data: 1187461200
I0927 14:49:11.353945  3463 layer_factory.hpp:77] Creating layer InnerProduct1_InnerProduct1_0_split
I0927 14:49:11.353950  3463 net.cpp:84] Creating Layer InnerProduct1_InnerProduct1_0_split
I0927 14:49:11.353952  3463 net.cpp:406] InnerProduct1_InnerProduct1_0_split <- InnerProduct1
I0927 14:49:11.353956  3463 net.cpp:380] InnerProduct1_InnerProduct1_0_split -> InnerProduct1_InnerProduct1_0_split_0
I0927 14:49:11.353961  3463 net.cpp:380] InnerProduct1_InnerProduct1_0_split -> InnerProduct1_InnerProduct1_0_split_1
I0927 14:49:11.353989  3463 net.cpp:122] Setting up InnerProduct1_InnerProduct1_0_split
I0927 14:49:11.353992  3463 net.cpp:129] Top shape: 100 10 (1000)
I0927 14:49:11.353996  3463 net.cpp:129] Top shape: 100 10 (1000)
I0927 14:49:11.353997  3463 net.cpp:137] Memory required for data: 1187469200
I0927 14:49:11.353999  3463 layer_factory.hpp:77] Creating layer SoftmaxWithLoss1
I0927 14:49:11.354004  3463 net.cpp:84] Creating Layer SoftmaxWithLoss1
I0927 14:49:11.354007  3463 net.cpp:406] SoftmaxWithLoss1 <- InnerProduct1_InnerProduct1_0_split_0
I0927 14:49:11.354010  3463 net.cpp:406] SoftmaxWithLoss1 <- Data2_Data1_1_split_0
…
