…
I0929 09:26:45.592521  1584 net.cpp:294] The NetState phase (0) differed from the phase (1) specified by a rule in layer Accuracy1
I0929 09:26:45.593626  1584 net.cpp:51] Initializing net from parameters: 
name: "resnet_cifar10"
state {
  phase: TRAIN
  level: 0
  stage: ""
}
layer {
  name: "Data1"
  type: "Data"
  top: "Data1"
  top: "Data2"
  include {
    phase: TRAIN
  }
  transform_param {
    mirror: true
    crop_size: 28
    mean_file: "/home/x306/caffe/xn/PENLU/data/cifar10/mean.binaryproto"
  }
  data_param {
    source: "/home/x306/caffe/xn/PENLU/data/cifar10/cifar10_train_lmdb"
    batch_size: 100
    backend: LMDB
  }
}
layer {
  name: "Convolution1"
  type: "Convolution"
  bottom: "Data1"
  top: "Convolution1"
  param {
    lr_mult: 1
    decay_mult: 1
  }
  param {
    lr_mult: 2
    decay_mult: 0
  }
  convolution_param {
    num_output: 16
    pad: 1
    kernel_size: 3
    stride: 1
    weight_filler {
      type: "taylor"
      alpha: 0.25
      beta: 1
    }
    bias_filler {
      type: "constant"
      value: 0
    }
  }
}
layer {
  name: "BatchNorm1"
  type: "BatchNorm"
  bottom: "Convolution1"
  top: "Convolution1"
  param {
    lr_mult: 0
    decay_mult: 0
  }
  param {
    lr_mult: 0
    decay_mult: 0
  }
  param {
    lr_mult: 0
    decay_mult: 0
  }
}
layer {
  name: "Scale1"
  type: "Scale"
  bottom: "Convolution1"
  top: "Convolution1"
  scale_param {
    bias_term: true
  }
}
layer {
  name: "M2PELU1"
  type: "M2PELU"
  bottom: "Convolution1"
  top: "Convolution1"
  param {
    lr_mult: 2
    decay_mult: 2
  }
  param {
    lr_mult: 2
    decay_mult: 2
  }
  m2pelu_param {
    alpha_filler {
      type: "constant"
      value: 0.25
    }
    beta_filler {
      type: "constant"
      value: 1
    }
  }
}
layer {
  name: "Convolution2"
  type: "Convolution"
  bottom: "Convolution1"
  top: "Convolution2"
  param {
    lr_mult: 1
    decay_mult: 1
  }
  param {
    lr_mult: 2
    decay_mult: 0
  }
  convolution_param {
    num_output: 16
    pad: 1
    kernel_size: 3
    stride: 1
    weight_filler {
      type: "taylor"
      alpha: 0.25
      beta: 1
    }
    bias_filler {
      type: "constant"
      value: 0
    }
  }
}
layer {
  name: "BatchNorm2"
  type: "BatchNorm"
  bottom: "Convolution2"
  top: "Convolution2"
  param {
    lr_mult: 0
    decay_mult: 0
  }
  param {
    lr_mult: 0
    decay_mult: 0
  }
  param {
    lr_mult: 0
    decay_mult: 0
  }
}
layer {
  name: "Scale2"
  type: "Scale"
  bottom: "Convolution2"
  top: "Convolution2"
  scale_param {
    bias_term: true
  }
}
layer {
  name: "M2PELU2"
  type: "M2PELU"
  bottom: "Convolution2"
  top: "Convolution2"
  param {
    lr_mult: 2
    decay_mult: 2
  }
  param {
    lr_mult: 2
    decay_mult: 2
  }
  m2pelu_param {
    alpha_filler {
      type: "constant"
      value: 0.25
    }
    beta_filler {
      type: "constant"
      value: 1
    }
  }
}
layer {
  name: "Convolution3"
  type: "Convolution"
  bottom: "Convolution2"
  top: "Convolution3"
  param {
    lr_mult: 1
    decay_mult: 1
  }
  param {
    lr_mult: 2
    decay_mult: 0
  }
  convolution_param {
    num_output: 16
    pad: 1
    kernel_size: 3
    stride: 1
    weight_filler {
      type: "taylor"
      alpha: 0.25
      beta: 1
    }
    bias_filler {
      type: "constant"
      value: 0
    }
  }
}
layer {
  name: "BatchNorm3"
  type: "BatchNorm"
  bottom: "Convolution3"
  top: "Convolution3"
  param {
    lr_mult: 0
    decay_mult: 0
  }
  param {
    lr_mult: 0
    decay_mult: 0
  }
  param {
    lr_mult: 0
    decay_mult: 0
  }
}
layer {
  name: "Scale3"
  type: "Scale"
  bottom: "Convolution3"
  top: "Convolution3"
  scale_param {
    bias_term: true
  }
}
layer {
  name: "Eltwise1"
  type: "Eltwise"
  bottom: "Convolution1"
  bottom: "Convolution3"
  top: "Eltwise1"
  eltwise_param {
    operation: SUM
  }
}
layer {
  name: "M2PELU3"
  type: "M2PELU"
  bottom: "Eltwise1"
  top: "Eltwise1"
  param {
    lr_mult: 2
    decay_mult: 2
  }
  param {
    lr_mult: 2
    decay_mult: 2
  }
  m2pelu_param {
    alpha_filler {
      type: "constant"
      value: 0.25
    }
    beta_filler {
      type: "constant"
      value: 1
    }
  }
}
layer {
  name: "Convolution4"
  type: "Convolution"
  bottom: "Eltwise1"
  top: "Convolution4"
  param {
    lr_mult: 1
    decay_mult: 1
  }
  param {
    lr_mult: 2
    decay_mult: 0
  }
  convolution_param {
    num_output: 16
    pad: 1
    kernel_size: 3
    stride: 1
    weight_filler {
      type: "taylor"
      alpha: 0.25
      beta: 1
    }
    bias_filler {
      type: "constant"
      value: 0
    }
  }
}
layer {
  name: "BatchNorm4"
  type: "BatchNorm"
  bottom: "Convolution4"
  top: "Convolution4"
  param {
    lr_mult: 0
    decay_mult: 0
  }
  param {
    lr_mult: 0
    decay_mult: 0
  }
  param {
    lr_mult: 0
    decay_mult: 0
  }
}
layer {
  name: "Scale4"
  type: "Scale"
  bottom: "Convolution4"
  top: "Convolution4"
  scale_param {
    bias_term: true
  }
}
layer {
  name: "M2PELU4"
  type: "M2PELU"
  bottom: "Convolution4"
  top: "Convolution4"
  param {
    lr_mult: 2
    decay_mult: 2
  }
  param {
    lr_mult: 2
    decay_mult: 2
  }
  m2pelu_param {
    alpha_filler {
      type: "constant"
      value: 0.25
    }
    beta_filler {
      type: "constant"
      value: 1
    }
  }
}
layer {
  name: "Convolution5"
  type: "Convolution"
  bottom: "Convolution4"
  top: "Convolution5"
  param {
    lr_mult: 1
    decay_mult: 1
  }
  param {
    lr_mult: 2
    decay_mult: 0
  }
  convolution_param {
    num_output: 16
    pad: 1
    kernel_size: 3
    stride: 1
    weight_filler {
      type: "taylor"
      alpha: 0.25
      beta: 1
    }
    bias_filler {
      type: "constant"
      value: 0
    }
  }
}
layer {
  name: "BatchNorm5"
  type: "BatchNorm"
  bottom: "Convolution5"
  top: "Convolution5"
  param {
    lr_mult: 0
    decay_mult: 0
  }
  param {
    lr_mult: 0
    decay_mult: 0
  }
  param {
    lr_mult: 0
    decay_mult: 0
  }
}
layer {
  name: "Scale5"
  type: "Scale"
  bottom: "Convolution5"
  top: "Convolution5"
  scale_param {
    bias_term: true
  }
}
layer {
  name: "Eltwise2"
  type: "Eltwise"
  bottom: "Eltwise1"
  bottom: "Convolution5"
  top: "Eltwise2"
  eltwise_param {
    operation: SUM
  }
}
layer {
  name: "M2PELU5"
  type: "M2PELU"
  bottom: "Eltwise2"
  top: "Eltwise2"
  param {
    lr_mult: 2
    decay_mult: 2
  }
  param {
    lr_mult: 2
    decay_mult: 2
  }
  m2pelu_param {
    alpha_filler {
      type: "constant"
      value: 0.25
    }
    beta_filler {
      type: "constant"
      value: 1
    }
  }
}
layer {
  name: "Convolution6"
  type: "Convolution"
  bottom: "Eltwise2"
  top: "Convolution6"
  param {
    lr_mult: 1
    decay_mult: 1
  }
  param {
    lr_mult: 2
    decay_mult: 0
  }
  convolution_param {
    num_output: 16
    pad: 1
    kernel_size: 3
    stride: 1
    weight_filler {
      type: "taylor"
      alpha: 0.25
      beta: 1
    }
    bias_filler {
      type: "constant"
      value: 0
    }
  }
}
layer {
  name: "BatchNorm6"
  type: "BatchNorm"
  bottom: "Convolution6"
  top: "Convolution6"
  param {
    lr_mult: 0
    decay_mult: 0
  }
  param {
    lr_mult: 0
    decay_mult: 0
  }
  param {
    lr_mult: 0
    decay_mult: 0
  }
}
layer {
  name: "Scale6"
  type: "Scale"
  bottom: "Convolution6"
  top: "Convolution6"
  scale_param {
    bias_term: true
  }
}
layer {
  name: "M2PELU6"
  type: "M2PELU"
  bottom: "Convolution6"
  top: "Convolution6"
  param {
    lr_mult: 2
    decay_mult: 2
  }
  param {
    lr_mult: 2
    decay_mult: 2
  }
  m2pelu_param {
    alpha_filler {
      type: "constant"
      value: 0.25
    }
    beta_filler {
      type: "constant"
      value: 1
    }
  }
}
layer {
  name: "Convolution7"
  type: "Convolution"
  bottom: "Convolution6"
  top: "Convolution7"
  param {
    lr_mult: 1
    decay_mult: 1
  }
  param {
    lr_mult: 2
    decay_mult: 0
  }
  convolution_param {
    num_output: 16
    pad: 1
    kernel_size: 3
    stride: 1
    weight_filler {
      type: "taylor"
      alpha: 0.25
      beta: 1
    }
    bias_filler {
      type: "constant"
      value: 0
    }
  }
}
layer {
  name: "BatchNorm7"
  type: "BatchNorm"
  bottom: "Convolution7"
  top: "Convolution7"
  param {
    lr_mult: 0
    decay_mult: 0
  }
  param {
    lr_mult: 0
    decay_mult: 0
  }
  param {
    lr_mult: 0
    decay_mult: 0
  }
}
layer {
  name: "Scale7"
  type: "Scale"
  bottom: "Convolution7"
  top: "Convolution7"
  scale_param {
    bias_term: true
  }
}
layer {
  name: "Eltwise3"
  type: "Eltwise"
  bottom: "Eltwise2"
  bottom: "Convolution7"
  top: "Eltwise3"
  eltwise_param {
    operation: SUM
  }
}
layer {
  name: "M2PELU7"
  type: "M2PELU"
  bottom: "Eltwise3"
  top: "Eltwise3"
  param {
    lr_mult: 2
    decay_mult: 2
  }
  param {
    lr_mult: 2
    decay_mult: 2
  }
  m2pelu_param {
    alpha_filler {
      type: "constant"
      value: 0.25
    }
    beta_filler {
      type: "constant"
      value: 1
    }
  }
}
layer {
  name: "Convolution8"
  type: "Convolution"
  bottom: "Eltwise3"
  top: "Convolution8"
  param {
    lr_mult: 1
    decay_mult: 1
  }
  param {
    lr_mult: 2
    decay_mult: 0
  }
  convolution_param {
    num_output: 16
    pad: 1
    kernel_size: 3
    stride: 1
    weight_filler {
      type: "taylor"
      alpha: 0.25
      beta: 1
    }
    bias_filler {
      type: "constant"
      value: 0
    }
  }
}
layer {
  name: "BatchNorm8"
  type: "BatchNorm"
  bottom: "Convolution8"
  top: "Convolution8"
  param {
    lr_mult: 0
    decay_mult: 0
  }
  param {
    lr_mult: 0
    decay_mult: 0
  }
  param {
    lr_mult: 0
    decay_mult: 0
  }
}
layer {
  name: "Scale8"
  type: "Scale"
  bottom: "Convolution8"
  top: "Convolution8"
  scale_param {
    bias_term: true
  }
}
layer {
  name: "M2PELU8"
  type: "M2PELU"
  bottom: "Convolution8"
  top: "Convolution8"
  param {
    lr_mult: 2
    decay_mult: 2
  }
  param {
    lr_mult: 2
    decay_mult: 2
  }
  m2pelu_param {
    alpha_filler {
      type: "constant"
      value: 0.25
    }
    beta_filler {
      type: "constant"
      value: 1
    }
  }
}
layer {
  name: "Convolution9"
  type: "Convolution"
  bottom: "Convolution8"
  top: "Convolution9"
  param {
    lr_mult: 1
    decay_mult: 1
  }
  param {
    lr_mult: 2
    decay_mult: 0
  }
  convolution_param {
    num_output: 16
    pad: 1
    kernel_size: 3
    stride: 1
    weight_filler {
      type: "taylor"
      alpha: 0.25
      beta: 1
    }
    bias_filler {
      type: "constant"
      value: 0
    }
  }
}
layer {
  name: "BatchNorm9"
  type: "BatchNorm"
  bottom: "Convolution9"
  top: "Convolution9"
  param {
    lr_mult: 0
    decay_mult: 0
  }
  param {
    lr_mult: 0
    decay_mult: 0
  }
  param {
    lr_mult: 0
    decay_mult: 0
  }
}
layer {
  name: "Scale9"
  type: "Scale"
  bottom: "Convolution9"
  top: "Convolution9"
  scale_param {
    bias_term: true
  }
}
layer {
  name: "Eltwise4"
  type: "Eltwise"
  bottom: "Eltwise3"
  bottom: "Convolution9"
  top: "Eltwise4"
  eltwise_param {
    operation: SUM
  }
}
layer {
  name: "M2PELU9"
  type: "M2PELU"
  bottom: "Eltwise4"
  top: "Eltwise4"
  param {
    lr_mult: 2
    decay_mult: 2
  }
  param {
    lr_mult: 2
    decay_mult: 2
  }
  m2pelu_param {
    alpha_filler {
      type: "constant"
      value: 0.25
    }
    beta_filler {
      type: "constant"
      value: 1
    }
  }
}
layer {
  name: "Convolution10"
  type: "Convolution"
  bottom: "Eltwise4"
  top: "Convolution10"
  param {
    lr_mult: 1
    decay_mult: 1
  }
  param {
    lr_mult: 2
    decay_mult: 0
  }
  convolution_param {
    num_output: 16
    pad: 1
    kernel_size: 3
    stride: 1
    weight_filler {
      type: "taylor"
      alpha: 0.25
      beta: 1
    }
    bias_filler {
      type: "constant"
      value: 0
    }
  }
}
layer {
  name: "BatchNorm10"
  type: "BatchNorm"
  bottom: "Convolution10"
  top: "Convolution10"
  param {
    lr_mult: 0
    decay_mult: 0
  }
  param {
    lr_mult: 0
    decay_mult: 0
  }
  param {
    lr_mult: 0
    decay_mult: 0
  }
}
layer {
  name: "Scale10"
  type: "Scale"
  bottom: "Convolution10"
  top: "Convolution10"
  scale_param {
    bias_term: true
  }
}
layer {
  name: "M2PELU10"
  type: "M2PELU"
  bottom: "Convolution10"
  top: "Convolution10"
  param {
    lr_mult: 2
    decay_mult: 2
  }
  param {
    lr_mult: 2
    decay_mult: 2
  }
  m2pelu_param {
    alpha_filler {
      type: "constant"
      value: 0.25
    }
    beta_filler {
      type: "constant"
      value: 1
    }
  }
}
layer {
  name: "Convolution11"
  type: "Convolution"
  bottom: "Convolution10"
  top: "Convolution11"
  param {
    lr_mult: 1
    decay_mult: 1
  }
  param {
    lr_mult: 2
    decay_mult: 0
  }
  convolution_param {
    num_output: 16
    pad: 1
    kernel_size: 3
    stride: 1
    weight_filler {
      type: "taylor"
      alpha: 0.25
      beta: 1
    }
    bias_filler {
      type: "constant"
      value: 0
    }
  }
}
layer {
  name: "BatchNorm11"
  type: "BatchNorm"
  bottom: "Convolution11"
  top: "Convolution11"
  param {
    lr_mult: 0
    decay_mult: 0
  }
  param {
    lr_mult: 0
    decay_mult: 0
  }
  param {
    lr_mult: 0
    decay_mult: 0
  }
}
layer {
  name: "Scale11"
  type: "Scale"
  bottom: "Convolution11"
  top: "Convolution11"
  scale_param {
    bias_term: true
  }
}
layer {
  name: "Eltwise5"
  type: "Eltwise"
  bottom: "Eltwise4"
  bottom: "Convolution11"
  top: "Eltwise5"
  eltwise_param {
    operation: SUM
  }
}
layer {
  name: "M2PELU11"
  type: "M2PELU"
  bottom: "Eltwise5"
  top: "Eltwise5"
  param {
    lr_mult: 2
    decay_mult: 2
  }
  param {
    lr_mult: 2
    decay_mult: 2
  }
  m2pelu_param {
    alpha_filler {
      type: "constant"
      value: 0.25
    }
    beta_filler {
      type: "constant"
      value: 1
    }
  }
}
layer {
  name: "Convolution12"
  type: "Convolution"
  bottom: "Eltwise5"
  top: "Convolution12"
  param {
    lr_mult: 1
    decay_mult: 1
  }
  param {
    lr_mult: 2
    decay_mult: 0
  }
  convolution_param {
    num_output: 16
    pad: 1
    kernel_size: 3
    stride: 1
    weight_filler {
      type: "taylor"
      alpha: 0.25
      beta: 1
    }
    bias_filler {
      type: "constant"
      value: 0
    }
  }
}
layer {
  name: "BatchNorm12"
  type: "BatchNorm"
  bottom: "Convolution12"
  top: "Convolution12"
  param {
    lr_mult: 0
    decay_mult: 0
  }
  param {
    lr_mult: 0
    decay_mult: 0
  }
  param {
    lr_mult: 0
    decay_mult: 0
  }
}
layer {
  name: "Scale12"
  type: "Scale"
  bottom: "Convolution12"
  top: "Convolution12"
  scale_param {
    bias_term: true
  }
}
layer {
  name: "M2PELU12"
  type: "M2PELU"
  bottom: "Convolution12"
  top: "Convolution12"
  param {
    lr_mult: 2
    decay_mult: 2
  }
  param {
    lr_mult: 2
    decay_mult: 2
  }
  m2pelu_param {
    alpha_filler {
      type: "constant"
      value: 0.25
    }
    beta_filler {
      type: "constant"
      value: 1
    }
  }
}
layer {
  name: "Convolution13"
  type: "Convolution"
  bottom: "Convolution12"
  top: "Convolution13"
  param {
    lr_mult: 1
    decay_mult: 1
  }
  param {
    lr_mult: 2
    decay_mult: 0
  }
  convolution_param {
    num_output: 16
    pad: 1
    kernel_size: 3
    stride: 1
    weight_filler {
      type: "taylor"
      alpha: 0.25
      beta: 1
    }
    bias_filler {
      type: "constant"
      value: 0
    }
  }
}
layer {
  name: "BatchNorm13"
  type: "BatchNorm"
  bottom: "Convolution13"
  top: "Convolution13"
  param {
    lr_mult: 0
    decay_mult: 0
  }
  param {
    lr_mult: 0
    decay_mult: 0
  }
  param {
    lr_mult: 0
    decay_mult: 0
  }
}
layer {
  name: "Scale13"
  type: "Scale"
  bottom: "Convolution13"
  top: "Convolution13"
  scale_param {
    bias_term: true
  }
}
layer {
  name: "Eltwise6"
  type: "Eltwise"
  bottom: "Eltwise5"
  bottom: "Convolution13"
  top: "Eltwise6"
  eltwise_param {
    operation: SUM
  }
}
layer {
  name: "M2PELU13"
  type: "M2PELU"
  bottom: "Eltwise6"
  top: "Eltwise6"
  param {
    lr_mult: 2
    decay_mult: 2
  }
  param {
    lr_mult: 2
    decay_mult: 2
  }
  m2pelu_param {
    alpha_filler {
      type: "constant"
      value: 0.25
    }
    beta_filler {
      type: "constant"
      value: 1
    }
  }
}
layer {
  name: "Convolution14"
  type: "Convolution"
  bottom: "Eltwise6"
  top: "Convolution14"
  param {
    lr_mult: 1
    decay_mult: 1
  }
  param {
    lr_mult: 2
    decay_mult: 0
  }
  convolution_param {
    num_output: 16
    pad: 1
    kernel_size: 3
    stride: 1
    weight_filler {
      type: "taylor"
      alpha: 0.25
      beta: 1
    }
    bias_filler {
      type: "constant"
      value: 0
    }
  }
}
layer {
  name: "BatchNorm14"
  type: "BatchNorm"
  bottom: "Convolution14"
  top: "Convolution14"
  param {
    lr_mult: 0
    decay_mult: 0
  }
  param {
    lr_mult: 0
    decay_mult: 0
  }
  param {
    lr_mult: 0
    decay_mult: 0
  }
}
layer {
  name: "Scale14"
  type: "Scale"
  bottom: "Convolution14"
  top: "Convolution14"
  scale_param {
    bias_term: true
  }
}
layer {
  name: "M2PELU14"
  type: "M2PELU"
  bottom: "Convolution14"
  top: "Convolution14"
  param {
    lr_mult: 2
    decay_mult: 2
  }
  param {
    lr_mult: 2
    decay_mult: 2
  }
  m2pelu_param {
    alpha_filler {
      type: "constant"
      value: 0.25
    }
    beta_filler {
      type: "constant"
      value: 1
    }
  }
}
layer {
  name: "Convolution15"
  type: "Convolution"
  bottom: "Convolution14"
  top: "Convolution15"
  param {
    lr_mult: 1
    decay_mult: 1
  }
  param {
    lr_mult: 2
    decay_mult: 0
  }
  convolution_param {
    num_output: 16
    pad: 1
    kernel_size: 3
    stride: 1
    weight_filler {
      type: "taylor"
      alpha: 0.25
      beta: 1
    }
    bias_filler {
      type: "constant"
      value: 0
    }
  }
}
layer {
  name: "BatchNorm15"
  type: "BatchNorm"
  bottom: "Convolution15"
  top: "Convolution15"
  param {
    lr_mult: 0
    decay_mult: 0
  }
  param {
    lr_mult: 0
    decay_mult: 0
  }
  param {
    lr_mult: 0
    decay_mult: 0
  }
}
layer {
  name: "Scale15"
  type: "Scale"
  bottom: "Convolution15"
  top: "Convolution15"
  scale_param {
    bias_term: true
  }
}
layer {
  name: "Eltwise7"
  type: "Eltwise"
  bottom: "Eltwise6"
  bottom: "Convolution15"
  top: "Eltwise7"
  eltwise_param {
    operation: SUM
  }
}
layer {
  name: "M2PELU15"
  type: "M2PELU"
  bottom: "Eltwise7"
  top: "Eltwise7"
  param {
    lr_mult: 2
    decay_mult: 2
  }
  param {
    lr_mult: 2
    decay_mult: 2
  }
  m2pelu_param {
    alpha_filler {
      type: "constant"
      value: 0.25
    }
    beta_filler {
      type: "constant"
      value: 1
    }
  }
}
layer {
  name: "Convolution16"
  type: "Convolution"
  bottom: "Eltwise7"
  top: "Convolution16"
  param {
    lr_mult: 1
    decay_mult: 1
  }
  param {
    lr_mult: 2
    decay_mult: 0
  }
  convolution_param {
    num_output: 16
    pad: 1
    kernel_size: 3
    stride: 1
    weight_filler {
      type: "taylor"
      alpha: 0.25
      beta: 1
    }
    bias_filler {
      type: "constant"
      value: 0
    }
  }
}
layer {
  name: "BatchNorm16"
  type: "BatchNorm"
  bottom: "Convolution16"
  top: "Convolution16"
  param {
    lr_mult: 0
    decay_mult: 0
  }
  param {
    lr_mult: 0
    decay_mult: 0
  }
  param {
    lr_mult: 0
    decay_mult: 0
  }
}
layer {
  name: "Scale16"
  type: "Scale"
  bottom: "Convolution16"
  top: "Convolution16"
  scale_param {
    bias_term: true
  }
}
layer {
  name: "M2PELU16"
  type: "M2PELU"
  bottom: "Convolution16"
  top: "Convolution16"
  param {
    lr_mult: 2
    decay_mult: 2
  }
  param {
    lr_mult: 2
    decay_mult: 2
  }
  m2pelu_param {
    alpha_filler {
      type: "constant"
      value: 0.25
    }
    beta_filler {
      type: "constant"
      value: 1
    }
  }
}
layer {
  name: "Convolution17"
  type: "Convolution"
  bottom: "Convolution16"
  top: "Convolution17"
  param {
    lr_mult: 1
    decay_mult: 1
  }
  param {
    lr_mult: 2
    decay_mult: 0
  }
  convolution_param {
    num_output: 16
    pad: 1
    kernel_size: 3
    stride: 1
    weight_filler {
      type: "taylor"
      alpha: 0.25
      beta: 1
    }
    bias_filler {
      type: "constant"
      value: 0
    }
  }
}
layer {
  name: "BatchNorm17"
  type: "BatchNorm"
  bottom: "Convolution17"
  top: "Convolution17"
  param {
    lr_mult: 0
    decay_mult: 0
  }
  param {
    lr_mult: 0
    decay_mult: 0
  }
  param {
    lr_mult: 0
    decay_mult: 0
  }
}
layer {
  name: "Scale17"
  type: "Scale"
  bottom: "Convolution17"
  top: "Convolution17"
  scale_param {
    bias_term: true
  }
}
layer {
  name: "Eltwise8"
  type: "Eltwise"
  bottom: "Eltwise7"
  bottom: "Convolution17"
  top: "Eltwise8"
  eltwise_param {
    operation: SUM
  }
}
layer {
  name: "M2PELU17"
  type: "M2PELU"
  bottom: "Eltwise8"
  top: "Eltwise8"
  param {
    lr_mult: 2
    decay_mult: 2
  }
  param {
    lr_mult: 2
    decay_mult: 2
  }
  m2pelu_param {
    alpha_filler {
      type: "constant"
      value: 0.25
    }
    beta_filler {
      type: "constant"
      value: 1
    }
  }
}
layer {
  name: "Convolution18"
  type: "Convolution"
  bottom: "Eltwise8"
  top: "Convolution18"
  param {
    lr_mult: 1
    decay_mult: 1
  }
  param {
    lr_mult: 2
    decay_mult: 0
  }
  convolution_param {
    num_output: 16
    pad: 1
    kernel_size: 3
    stride: 1
    weight_filler {
      type: "taylor"
      alpha: 0.25
      beta: 1
    }
    bias_filler {
      type: "constant"
      value: 0
    }
  }
}
layer {
  name: "BatchNorm18"
  type: "BatchNorm"
  bottom: "Convolution18"
  top: "Convolution18"
  param {
    lr_mult: 0
    decay_mult: 0
  }
  param {
    lr_mult: 0
    decay_mult: 0
  }
  param {
    lr_mult: 0
    decay_mult: 0
  }
}
layer {
  name: "Scale18"
  type: "Scale"
  bottom: "Convolution18"
  top: "Convolution18"
  scale_param {
    bias_term: true
  }
}
layer {
  name: "M2PELU18"
  type: "M2PELU"
  bottom: "Convolution18"
  top: "Convolution18"
  param {
    lr_mult: 2
    decay_mult: 2
  }
  param {
    lr_mult: 2
    decay_mult: 2
  }
  m2pelu_param {
    alpha_filler {
      type: "constant"
      value: 0.25
    }
    beta_filler {
      type: "constant"
      value: 1
    }
  }
}
layer {
  name: "Convolution19"
  type: "Convolution"
  bottom: "Convolution18"
  top: "Convolution19"
  param {
    lr_mult: 1
    decay_mult: 1
  }
  param {
    lr_mult: 2
    decay_mult: 0
  }
  convolution_param {
    num_output: 16
    pad: 1
    kernel_size: 3
    stride: 1
    weight_filler {
      type: "taylor"
      alpha: 0.25
      beta: 1
    }
    bias_filler {
      type: "constant"
      value: 0
    }
  }
}
layer {
  name: "BatchNorm19"
  type: "BatchNorm"
  bottom: "Convolution19"
  top: "Convolution19"
  param {
    lr_mult: 0
    decay_mult: 0
  }
  param {
    lr_mult: 0
    decay_mult: 0
  }
  param {
    lr_mult: 0
    decay_mult: 0
  }
}
layer {
  name: "Scale19"
  type: "Scale"
  bottom: "Convolution19"
  top: "Convolution19"
  scale_param {
    bias_term: true
  }
}
layer {
  name: "Eltwise9"
  type: "Eltwise"
  bottom: "Eltwise8"
  bottom: "Convolution19"
  top: "Eltwise9"
  eltwise_param {
    operation: SUM
  }
}
layer {
  name: "M2PELU19"
  type: "M2PELU"
  bottom: "Eltwise9"
  top: "Eltwise9"
  param {
    lr_mult: 2
    decay_mult: 2
  }
  param {
    lr_mult: 2
    decay_mult: 2
  }
  m2pelu_param {
    alpha_filler {
      type: "constant"
      value: 0.25
    }
    beta_filler {
      type: "constant"
      value: 1
    }
  }
}
layer {
  name: "Convolution20"
  type: "Convolution"
  bottom: "Eltwise9"
  top: "Convolution20"
  param {
    lr_mult: 1
    decay_mult: 1
  }
  param {
    lr_mult: 2
    decay_mult: 0
  }
  convolution_param {
    num_output: 32
    pad: 0
    kernel_size: 1
    stride: 2
    weight_filler {
      type: "taylor"
      alpha: 0.25
      beta: 1
    }
    bias_filler {
      type: "constant"
      value: 0
    }
  }
}
layer {
  name: "BatchNorm20"
  type: "BatchNorm"
  bottom: "Convolution20"
  top: "Convolution20"
  param {
    lr_mult: 0
    decay_mult: 0
  }
  param {
    lr_mult: 0
    decay_mult: 0
  }
  param {
    lr_mult: 0
    decay_mult: 0
  }
}
layer {
  name: "Scale20"
  type: "Scale"
  bottom: "Convolution20"
  top: "Convolution20"
  scale_param {
    bias_term: true
  }
}
layer {
  name: "Convolution21"
  type: "Convolution"
  bottom: "Eltwise9"
  top: "Convolution21"
  param {
    lr_mult: 1
    decay_mult: 1
  }
  param {
    lr_mult: 2
    decay_mult: 0
  }
  convolution_param {
    num_output: 32
    pad: 1
    kernel_size: 3
    stride: 2
    weight_filler {
      type: "taylor"
      alpha: 0.25
      beta: 1
    }
    bias_filler {
      type: "constant"
      value: 0
    }
  }
}
layer {
  name: "BatchNorm21"
  type: "BatchNorm"
  bottom: "Convolution21"
  top: "Convolution21"
  param {
    lr_mult: 0
    decay_mult: 0
  }
  param {
    lr_mult: 0
    decay_mult: 0
  }
  param {
    lr_mult: 0
    decay_mult: 0
  }
}
layer {
  name: "Scale21"
  type: "Scale"
  bottom: "Convolution21"
  top: "Convolution21"
  scale_param {
    bias_term: true
  }
}
layer {
  name: "M2PELU20"
  type: "M2PELU"
  bottom: "Convolution21"
  top: "Convolution21"
  param {
    lr_mult: 2
    decay_mult: 0
  }
  param {
    lr_mult: 2
    decay_mult: 0
  }
  m2pelu_param {
    alpha_filler {
      type: "constant"
      value: 0.25
    }
    beta_filler {
      type: "constant"
      value: 1
    }
  }
}
layer {
  name: "Convolution22"
  type: "Convolution"
  bottom: "Convolution21"
  top: "Convolution22"
  param {
    lr_mult: 1
    decay_mult: 1
  }
  param {
    lr_mult: 2
    decay_mult: 0
  }
  convolution_param {
    num_output: 32
    pad: 1
    kernel_size: 3
    stride: 1
    weight_filler {
      type: "taylor"
      alpha: 0.25
      beta: 1
    }
    bias_filler {
      type: "constant"
      value: 0
    }
  }
}
layer {
  name: "BatchNorm22"
  type: "BatchNorm"
  bottom: "Convolution22"
  top: "Convolution22"
  param {
    lr_mult: 0
    decay_mult: 0
  }
  param {
    lr_mult: 0
    decay_mult: 0
  }
  param {
    lr_mult: 0
    decay_mult: 0
  }
}
layer {
  name: "Scale22"
  type: "Scale"
  bottom: "Convolution22"
  top: "Convolution22"
  scale_param {
    bias_term: true
  }
}
layer {
  name: "Eltwise10"
  type: "Eltwise"
  bottom: "Convolution20"
  bottom: "Convolution22"
  top: "Eltwise10"
  eltwise_param {
    operation: SUM
  }
}
layer {
  name: "M2PELU21"
  type: "M2PELU"
  bottom: "Eltwise10"
  top: "Eltwise10"
  param {
    lr_mult: 2
    decay_mult: 2
  }
  param {
    lr_mult: 2
    decay_mult: 2
  }
  m2pelu_param {
    alpha_filler {
      type: "constant"
      value: 0.25
    }
    beta_filler {
      type: "constant"
      value: 1
    }
  }
}
layer {
  name: "Convolution23"
  type: "Convolution"
  bottom: "Eltwise10"
  top: "Convolution23"
  param {
    lr_mult: 1
    decay_mult: 1
  }
  param {
    lr_mult: 2
    decay_mult: 0
  }
  convolution_param {
    num_output: 32
    pad: 1
    kernel_size: 3
    stride: 1
    weight_filler {
      type: "taylor"
      alpha: 0.25
      beta: 1
    }
    bias_filler {
      type: "constant"
      value: 0
    }
  }
}
layer {
  name: "BatchNorm23"
  type: "BatchNorm"
  bottom: "Convolution23"
  top: "Convolution23"
  param {
    lr_mult: 0
    decay_mult: 0
  }
  param {
    lr_mult: 0
    decay_mult: 0
  }
  param {
    lr_mult: 0
    decay_mult: 0
  }
}
layer {
  name: "Scale23"
  type: "Scale"
  bottom: "Convolution23"
  top: "Convolution23"
  scale_param {
    bias_term: true
  }
}
layer {
  name: "M2PELU22"
  type: "M2PELU"
  bottom: "Convolution23"
  top: "Convolution23"
  param {
    lr_mult: 2
    decay_mult: 2
  }
  param {
    lr_mult: 2
    decay_mult: 2
  }
  m2pelu_param {
    alpha_filler {
      type: "constant"
      value: 0.25
    }
    beta_filler {
      type: "constant"
      value: 1
    }
  }
}
layer {
  name: "Convolution24"
  type: "Convolution"
  bottom: "Convolution23"
  top: "Convolution24"
  param {
    lr_mult: 1
    decay_mult: 1
  }
  param {
    lr_mult: 2
    decay_mult: 0
  }
  convolution_param {
    num_output: 32
    pad: 1
    kernel_size: 3
    stride: 1
    weight_filler {
      type: "taylor"
      alpha: 0.25
      beta: 1
    }
    bias_filler {
      type: "constant"
      value: 0
    }
  }
}
layer {
  name: "BatchNorm24"
  type: "BatchNorm"
  bottom: "Convolution24"
  top: "Convolution24"
  param {
    lr_mult: 0
    decay_mult: 0
  }
  param {
    lr_mult: 0
    decay_mult: 0
  }
  param {
    lr_mult: 0
    decay_mult: 0
  }
}
layer {
  name: "Scale24"
  type: "Scale"
  bottom: "Convolution24"
  top: "Convolution24"
  scale_param {
    bias_term: true
  }
}
layer {
  name: "Eltwise11"
  type: "Eltwise"
  bottom: "Eltwise10"
  bottom: "Convolution24"
  top: "Eltwise11"
  eltwise_param {
    operation: SUM
  }
}
layer {
  name: "M2PELU23"
  type: "M2PELU"
  bottom: "Eltwise11"
  top: "Eltwise11"
  param {
    lr_mult: 2
    decay_mult: 2
  }
  param {
    lr_mult: 2
    decay_mult: 2
  }
  m2pelu_param {
    alpha_filler {
      type: "constant"
      value: 0.25
    }
    beta_filler {
      type: "constant"
      value: 1
    }
  }
}
layer {
  name: "Convolution25"
  type: "Convolution"
  bottom: "Eltwise11"
  top: "Convolution25"
  param {
    lr_mult: 1
    decay_mult: 1
  }
  param {
    lr_mult: 2
    decay_mult: 0
  }
  convolution_param {
    num_output: 32
    pad: 1
    kernel_size: 3
    stride: 1
    weight_filler {
      type: "taylor"
      alpha: 0.25
      beta: 1
    }
    bias_filler {
      type: "constant"
      value: 0
    }
  }
}
layer {
  name: "BatchNorm25"
  type: "BatchNorm"
  bottom: "Convolution25"
  top: "Convolution25"
  param {
    lr_mult: 0
    decay_mult: 0
  }
  param {
    lr_mult: 0
    decay_mult: 0
  }
  param {
    lr_mult: 0
    decay_mult: 0
  }
}
layer {
  name: "Scale25"
  type: "Scale"
  bottom: "Convolution25"
  top: "Convolution25"
  scale_param {
    bias_term: true
  }
}
layer {
  name: "M2PELU24"
  type: "M2PELU"
  bottom: "Convolution25"
  top: "Convolution25"
  param {
    lr_mult: 2
    decay_mult: 2
  }
  param {
    lr_mult: 2
    decay_mult: 2
  }
 
I0929 09:26:45.594403  1584 layer_factory.hpp:77] Creating layer Data1
I0929 09:26:45.594480  1584 db_lmdb.cpp:35] Opened lmdb /home/x306/caffe/xn/PENLU/data/cifar10/cifar10_train_lmdb
I0929 09:26:45.594497  1584 net.cpp:84] Creating Layer Data1
I0929 09:26:45.594504  1584 net.cpp:380] Data1 -> Data1
I0929 09:26:45.594527  1584 net.cpp:380] Data1 -> Data2
I0929 09:26:45.594538  1584 data_transformer.cpp:25] Loading mean file from: /home/x306/caffe/xn/PENLU/data/cifar10/mean.binaryproto
I0929 09:26:45.595954  1584 data_layer.cpp:45] output data size: 100,3,28,28
I0929 09:26:45.598242  1584 net.cpp:122] Setting up Data1
I0929 09:26:45.598254  1584 net.cpp:129] Top shape: 100 3 28 28 (235200)
I0929 09:26:45.598258  1584 net.cpp:129] Top shape: 100 (100)
I0929 09:26:45.598261  1584 net.cpp:137] Memory required for data: 941200
I0929 09:26:45.598268  1584 layer_factory.hpp:77] Creating layer Convolution1
I0929 09:26:45.598285  1584 net.cpp:84] Creating Layer Convolution1
I0929 09:26:45.598289  1584 net.cpp:406] Convolution1 <- Data1
I0929 09:26:45.598299  1584 net.cpp:380] Convolution1 -> Convolution1
I0929 09:26:45.598390  1584 filler.hpp:251] The std of weights in this layer is: 0.264039
I0929 09:26:45.745972  1584 net.cpp:122] Setting up Convolution1
I0929 09:26:45.745996  1584 net.cpp:129] Top shape: 100 16 28 28 (1254400)
I0929 09:26:45.746001  1584 net.cpp:137] Memory required for data: 5958800
I0929 09:26:45.746014  1584 layer_factory.hpp:77] Creating layer BatchNorm1
I0929 09:26:45.746062  1584 net.cpp:84] Creating Layer BatchNorm1
I0929 09:26:45.746067  1584 net.cpp:406] BatchNorm1 <- Convolution1
I0929 09:26:45.746080  1584 net.cpp:367] BatchNorm1 -> Convolution1 (in-place)
I0929 09:26:45.746254  1584 net.cpp:122] Setting up BatchNorm1
I0929 09:26:45.746260  1584 net.cpp:129] Top shape: 100 16 28 28 (1254400)
I0929 09:26:45.746273  1584 net.cpp:137] Memory required for data: 10976400
I0929 09:26:45.746280  1584 layer_factory.hpp:77] Creating layer Scale1
I0929 09:26:45.746301  1584 net.cpp:84] Creating Layer Scale1
I0929 09:26:45.746305  1584 net.cpp:406] Scale1 <- Convolution1
I0929 09:26:45.746310  1584 net.cpp:367] Scale1 -> Convolution1 (in-place)
I0929 09:26:45.746369  1584 layer_factory.hpp:77] Creating layer Scale1
I0929 09:26:45.746470  1584 net.cpp:122] Setting up Scale1
I0929 09:26:45.746476  1584 net.cpp:129] Top shape: 100 16 28 28 (1254400)
I0929 09:26:45.746479  1584 net.cpp:137] Memory required for data: 15994000
I0929 09:26:45.746493  1584 layer_factory.hpp:77] Creating layer M2PELU1
I0929 09:26:45.746503  1584 net.cpp:84] Creating Layer M2PELU1
I0929 09:26:45.746507  1584 net.cpp:406] M2PELU1 <- Convolution1
I0929 09:26:45.746510  1584 net.cpp:367] M2PELU1 -> Convolution1 (in-place)
I0929 09:26:45.747107  1584 net.cpp:122] Setting up M2PELU1
I0929 09:26:45.747117  1584 net.cpp:129] Top shape: 100 16 28 28 (1254400)
I0929 09:26:45.747136  1584 net.cpp:137] Memory required for data: 21011600
I0929 09:26:45.747143  1584 layer_factory.hpp:77] Creating layer Convolution1_M2PELU1_0_split
I0929 09:26:45.747151  1584 net.cpp:84] Creating Layer Convolution1_M2PELU1_0_split
I0929 09:26:45.747155  1584 net.cpp:406] Convolution1_M2PELU1_0_split <- Convolution1
I0929 09:26:45.747159  1584 net.cpp:380] Convolution1_M2PELU1_0_split -> Convolution1_M2PELU1_0_split_0
I0929 09:26:45.747164  1584 net.cpp:380] Convolution1_M2PELU1_0_split -> Convolution1_M2PELU1_0_split_1
I0929 09:26:45.747189  1584 net.cpp:122] Setting up Convolution1_M2PELU1_0_split
I0929 09:26:45.747193  1584 net.cpp:129] Top shape: 100 16 28 28 (1254400)
I0929 09:26:45.747205  1584 net.cpp:129] Top shape: 100 16 28 28 (1254400)
I0929 09:26:45.747208  1584 net.cpp:137] Memory required for data: 31046800
I0929 09:26:45.747211  1584 layer_factory.hpp:77] Creating layer Convolution2
I0929 09:26:45.747231  1584 net.cpp:84] Creating Layer Convolution2
I0929 09:26:45.747233  1584 net.cpp:406] Convolution2 <- Convolution1_M2PELU1_0_split_0
I0929 09:26:45.747237  1584 net.cpp:380] Convolution2 -> Convolution2
I0929 09:26:45.747308  1584 filler.hpp:251] The std of weights in this layer is: 0.114332
I0929 09:26:45.748114  1584 net.cpp:122] Setting up Convolution2
I0929 09:26:45.748124  1584 net.cpp:129] Top shape: 100 16 28 28 (1254400)
I0929 09:26:45.748128  1584 net.cpp:137] Memory required for data: 36064400
I0929 09:26:45.748132  1584 layer_factory.hpp:77] Creating layer BatchNorm2
I0929 09:26:45.748138  1584 net.cpp:84] Creating Layer BatchNorm2
I0929 09:26:45.748142  1584 net.cpp:406] BatchNorm2 <- Convolution2
I0929 09:26:45.748147  1584 net.cpp:367] BatchNorm2 -> Convolution2 (in-place)
I0929 09:26:45.748271  1584 net.cpp:122] Setting up BatchNorm2
I0929 09:26:45.748276  1584 net.cpp:129] Top shape: 100 16 28 28 (1254400)
I0929 09:26:45.748280  1584 net.cpp:137] Memory required for data: 41082000
I0929 09:26:45.748284  1584 layer_factory.hpp:77] Creating layer Scale2
I0929 09:26:45.748289  1584 net.cpp:84] Creating Layer Scale2
I0929 09:26:45.748292  1584 net.cpp:406] Scale2 <- Convolution2
I0929 09:26:45.748296  1584 net.cpp:367] Scale2 -> Convolution2 (in-place)
I0929 09:26:45.748322  1584 layer_factory.hpp:77] Creating layer Scale2
I0929 09:26:45.748396  1584 net.cpp:122] Setting up Scale2
I0929 09:26:45.748401  1584 net.cpp:129] Top shape: 100 16 28 28 (1254400)
I0929 09:26:45.748404  1584 net.cpp:137] Memory required for data: 46099600
I0929 09:26:45.748409  1584 layer_factory.hpp:77] Creating layer M2PELU2
I0929 09:26:45.748414  1584 net.cpp:84] Creating Layer M2PELU2
I0929 09:26:45.748425  1584 net.cpp:406] M2PELU2 <- Convolution2
I0929 09:26:45.748428  1584 net.cpp:367] M2PELU2 -> Convolution2 (in-place)
I0929 09:26:45.748507  1584 net.cpp:122] Setting up M2PELU2
I0929 09:26:45.748512  1584 net.cpp:129] Top shape: 100 16 28 28 (1254400)
I0929 09:26:45.748514  1584 net.cpp:137] Memory required for data: 51117200
I0929 09:26:45.748520  1584 layer_factory.hpp:77] Creating layer Convolution3
I0929 09:26:45.748528  1584 net.cpp:84] Creating Layer Convolution3
I0929 09:26:45.748531  1584 net.cpp:406] Convolution3 <- Convolution2
I0929 09:26:45.748538  1584 net.cpp:380] Convolution3 -> Convolution3
I0929 09:26:45.748608  1584 filler.hpp:251] The std of weights in this layer is: 0.114332
I0929 09:26:45.749411  1584 net.cpp:122] Setting up Convolution3
I0929 09:26:45.749421  1584 net.cpp:129] Top shape: 100 16 28 28 (1254400)
I0929 09:26:45.749424  1584 net.cpp:137] Memory required for data: 56134800
I0929 09:26:45.749429  1584 layer_factory.hpp:77] Creating layer BatchNorm3
I0929 09:26:45.749435  1584 net.cpp:84] Creating Layer BatchNorm3
I0929 09:26:45.749439  1584 net.cpp:406] BatchNorm3 <- Convolution3
I0929 09:26:45.749444  1584 net.cpp:367] BatchNorm3 -> Convolution3 (in-place)
I0929 09:26:45.749564  1584 net.cpp:122] Setting up BatchNorm3
I0929 09:26:45.749569  1584 net.cpp:129] Top shape: 100 16 28 28 (1254400)
I0929 09:26:45.749572  1584 net.cpp:137] Memory required for data: 61152400
I0929 09:26:45.749577  1584 layer_factory.hpp:77] Creating layer Scale3
I0929 09:26:45.749583  1584 net.cpp:84] Creating Layer Scale3
I0929 09:26:45.749586  1584 net.cpp:406] Scale3 <- Convolution3
I0929 09:26:45.749589  1584 net.cpp:367] Scale3 -> Convolution3 (in-place)
I0929 09:26:45.749614  1584 layer_factory.hpp:77] Creating layer Scale3
I0929 09:26:45.749687  1584 net.cpp:122] Setting up Scale3
I0929 09:26:45.749691  1584 net.cpp:129] Top shape: 100 16 28 28 (1254400)
I0929 09:26:45.749694  1584 net.cpp:137] Memory required for data: 66170000
I0929 09:26:45.749698  1584 layer_factory.hpp:77] Creating layer Eltwise1
I0929 09:26:45.749704  1584 net.cpp:84] Creating Layer Eltwise1
I0929 09:26:45.749707  1584 net.cpp:406] Eltwise1 <- Convolution1_M2PELU1_0_split_1
I0929 09:26:45.749711  1584 net.cpp:406] Eltwise1 <- Convolution3
I0929 09:26:45.749714  1584 net.cpp:380] Eltwise1 -> Eltwise1
I0929 09:26:45.749732  1584 net.cpp:122] Setting up Eltwise1
I0929 09:26:45.749735  1584 net.cpp:129] Top shape: 100 16 28 28 (1254400)
I0929 09:26:45.749738  1584 net.cpp:137] Memory required for data: 71187600
I0929 09:26:45.749740  1584 layer_factory.hpp:77] Creating layer M2PELU3
I0929 09:26:45.749745  1584 net.cpp:84] Creating Layer M2PELU3
I0929 09:26:45.749748  1584 net.cpp:406] M2PELU3 <- Eltwise1
I0929 09:26:45.749752  1584 net.cpp:367] M2PELU3 -> Eltwise1 (in-place)
I0929 09:26:45.749828  1584 net.cpp:122] Setting up M2PELU3
I0929 09:26:45.749832  1584 net.cpp:129] Top shape: 100 16 28 28 (1254400)
I0929 09:26:45.749835  1584 net.cpp:137] Memory required for data: 76205200
I0929 09:26:45.749840  1584 layer_factory.hpp:77] Creating layer Eltwise1_M2PELU3_0_split
I0929 09:26:45.749843  1584 net.cpp:84] Creating Layer Eltwise1_M2PELU3_0_split
I0929 09:26:45.749846  1584 net.cpp:406] Eltwise1_M2PELU3_0_split <- Eltwise1
I0929 09:26:45.749850  1584 net.cpp:380] Eltwise1_M2PELU3_0_split -> Eltwise1_M2PELU3_0_split_0
I0929 09:26:45.749855  1584 net.cpp:380] Eltwise1_M2PELU3_0_split -> Eltwise1_M2PELU3_0_split_1
I0929 09:26:45.749877  1584 net.cpp:122] Setting up Eltwise1_M2PELU3_0_split
I0929 09:26:45.749882  1584 net.cpp:129] Top shape: 100 16 28 28 (1254400)
I0929 09:26:45.749886  1584 net.cpp:129] Top shape: 100 16 28 28 (1254400)
I0929 09:26:45.749888  1584 net.cpp:137] Memory required for data: 86240400
I0929 09:26:45.749891  1584 layer_factory.hpp:77] Creating layer Convolution4
I0929 09:26:45.749899  1584 net.cpp:84] Creating Layer Convolution4
I0929 09:26:45.749902  1584 net.cpp:406] Convolution4 <- Eltwise1_M2PELU3_0_split_0
I0929 09:26:45.749907  1584 net.cpp:380] Convolution4 -> Convolution4
I0929 09:26:45.749980  1584 filler.hpp:251] The std of weights in this layer is: 0.114332
I0929 09:26:45.750789  1584 net.cpp:122] Setting up Convolution4
I0929 09:26:45.750800  1584 net.cpp:129] Top shape: 100 16 28 28 (1254400)
I0929 09:26:45.750803  1584 net.cpp:137] Memory required for data: 91258000
I0929 09:26:45.750808  1584 layer_factory.hpp:77] Creating layer BatchNorm4
I0929 09:26:45.750813  1584 net.cpp:84] Creating Layer BatchNorm4
I0929 09:26:45.750816  1584 net.cpp:406] BatchNorm4 <- Convolution4
I0929 09:26:45.750821  1584 net.cpp:367] BatchNorm4 -> Convolution4 (in-place)
I0929 09:26:45.750948  1584 net.cpp:122] Setting up BatchNorm4
I0929 09:26:45.750953  1584 net.cpp:129] Top shape: 100 16 28 28 (1254400)
I0929 09:26:45.750955  1584 net.cpp:137] Memory required for data: 96275600
I0929 09:26:45.750969  1584 layer_factory.hpp:77] Creating layer Scale4
I0929 09:26:45.750974  1584 net.cpp:84] Creating Layer Scale4
I0929 09:26:45.750977  1584 net.cpp:406] Scale4 <- Convolution4
I0929 09:26:45.750980  1584 net.cpp:367] Scale4 -> Convolution4 (in-place)
I0929 09:26:45.751013  1584 layer_factory.hpp:77] Creating layer Scale4
I0929 09:26:45.751094  1584 net.cpp:122] Setting up Scale4
I0929 09:26:45.751099  1584 net.cpp:129] Top shape: 100 16 28 28 (1254400)
I0929 09:26:45.751102  1584 net.cpp:137] Memory required for data: 101293200
I0929 09:26:45.751111  1584 layer_factory.hpp:77] Creating layer M2PELU4
I0929 09:26:45.751116  1584 net.cpp:84] Creating Layer M2PELU4
I0929 09:26:45.751118  1584 net.cpp:406] M2PELU4 <- Convolution4
I0929 09:26:45.751122  1584 net.cpp:367] M2PELU4 -> Convolution4 (in-place)
I0929 09:26:45.751199  1584 net.cpp:122] Setting up M2PELU4
I0929 09:26:45.751204  1584 net.cpp:129] Top shape: 100 16 28 28 (1254400)
I0929 09:26:45.751206  1584 net.cpp:137] Memory required for data: 106310800
I0929 09:26:45.751210  1584 layer_factory.hpp:77] Creating layer Convolution5
I0929 09:26:45.751217  1584 net.cpp:84] Creating Layer Convolution5
I0929 09:26:45.751220  1584 net.cpp:406] Convolution5 <- Convolution4
I0929 09:26:45.751225  1584 net.cpp:380] Convolution5 -> Convolution5
I0929 09:26:45.751296  1584 filler.hpp:251] The std of weights in this layer is: 0.114332
I0929 09:26:45.752095  1584 net.cpp:122] Setting up Convolution5
I0929 09:26:45.752105  1584 net.cpp:129] Top shape: 100 16 28 28 (1254400)
I0929 09:26:45.752109  1584 net.cpp:137] Memory required for data: 111328400
I0929 09:26:45.752113  1584 layer_factory.hpp:77] Creating layer BatchNorm5
I0929 09:26:45.752120  1584 net.cpp:84] Creating Layer BatchNorm5
I0929 09:26:45.752122  1584 net.cpp:406] BatchNorm5 <- Convolution5
I0929 09:26:45.752126  1584 net.cpp:367] BatchNorm5 -> Convolution5 (in-place)
I0929 09:26:45.752249  1584 net.cpp:122] Setting up BatchNorm5
I0929 09:26:45.752254  1584 net.cpp:129] Top shape: 100 16 28 28 (1254400)
I0929 09:26:45.752256  1584 net.cpp:137] Memory required for data: 116346000
I0929 09:26:45.752261  1584 layer_factory.hpp:77] Creating layer Scale5
I0929 09:26:45.752266  1584 net.cpp:84] Creating Layer Scale5
I0929 09:26:45.752269  1584 net.cpp:406] Scale5 <- Convolution5
I0929 09:26:45.752272  1584 net.cpp:367] Scale5 -> Convolution5 (in-place)
I0929 09:26:45.752297  1584 layer_factory.hpp:77] Creating layer Scale5
I0929 09:26:45.752383  1584 net.cpp:122] Setting up Scale5
I0929 09:26:45.752391  1584 net.cpp:129] Top shape: 100 16 28 28 (1254400)
I0929 09:26:45.752395  1584 net.cpp:137] Memory required for data: 121363600
I0929 09:26:45.752411  1584 layer_factory.hpp:77] Creating layer Eltwise2
I0929 09:26:45.752418  1584 net.cpp:84] Creating Layer Eltwise2
I0929 09:26:45.752423  1584 net.cpp:406] Eltwise2 <- Eltwise1_M2PELU3_0_split_1
I0929 09:26:45.752426  1584 net.cpp:406] Eltwise2 <- Convolution5
I0929 09:26:45.752432  1584 net.cpp:380] Eltwise2 -> Eltwise2
I0929 09:26:45.752455  1584 net.cpp:122] Setting up Eltwise2
I0929 09:26:45.752462  1584 net.cpp:129] Top shape: 100 16 28 28 (1254400)
I0929 09:26:45.752466  1584 net.cpp:137] Memory required for data: 126381200
I0929 09:26:45.752470  1584 layer_factory.hpp:77] Creating layer M2PELU5
I0929 09:26:45.752488  1584 net.cpp:84] Creating Layer M2PELU5
I0929 09:26:45.752493  1584 net.cpp:406] M2PELU5 <- Eltwise2
I0929 09:26:45.752501  1584 net.cpp:367] M2PELU5 -> Eltwise2 (in-place)
I0929 09:26:45.752594  1584 net.cpp:122] Setting up M2PELU5
I0929 09:26:45.752600  1584 net.cpp:129] Top shape: 100 16 28 28 (1254400)
I0929 09:26:45.752604  1584 net.cpp:137] Memory required for data: 131398800
I0929 09:26:45.752607  1584 layer_factory.hpp:77] Creating layer Eltwise2_M2PELU5_0_split
I0929 09:26:45.752612  1584 net.cpp:84] Creating Layer Eltwise2_M2PELU5_0_split
I0929 09:26:45.752615  1584 net.cpp:406] Eltwise2_M2PELU5_0_split <- Eltwise2
I0929 09:26:45.752619  1584 net.cpp:380] Eltwise2_M2PELU5_0_split -> Eltwise2_M2PELU5_0_split_0
I0929 09:26:45.752624  1584 net.cpp:380] Eltwise2_M2PELU5_0_split -> Eltwise2_M2PELU5_0_split_1
I0929 09:26:45.752646  1584 net.cpp:122] Setting up Eltwise2_M2PELU5_0_split
I0929 09:26:45.752650  1584 net.cpp:129] Top shape: 100 16 28 28 (1254400)
I0929 09:26:45.752655  1584 net.cpp:129] Top shape: 100 16 28 28 (1254400)
I0929 09:26:45.752656  1584 net.cpp:137] Memory required for data: 141434000
I0929 09:26:45.752660  1584 layer_factory.hpp:77] Creating layer Convolution6
I0929 09:26:45.752665  1584 net.cpp:84] Creating Layer Convolution6
I0929 09:26:45.752668  1584 net.cpp:406] Convolution6 <- Eltwise2_M2PELU5_0_split_0
I0929 09:26:45.752672  1584 net.cpp:380] Convolution6 -> Convolution6
I0929 09:26:45.752746  1584 filler.hpp:251] The std of weights in this layer is: 0.114332
I0929 09:26:45.753549  1584 net.cpp:122] Setting up Convolution6
I0929 09:26:45.753559  1584 net.cpp:129] Top shape: 100 16 28 28 (1254400)
I0929 09:26:45.753562  1584 net.cpp:137] Memory required for data: 146451600
I0929 09:26:45.753567  1584 layer_factory.hpp:77] Creating layer BatchNorm6
I0929 09:26:45.753573  1584 net.cpp:84] Creating Layer BatchNorm6
I0929 09:26:45.753576  1584 net.cpp:406] BatchNorm6 <- Convolution6
I0929 09:26:45.753582  1584 net.cpp:367] BatchNorm6 -> Convolution6 (in-place)
I0929 09:26:45.753710  1584 net.cpp:122] Setting up BatchNorm6
I0929 09:26:45.753715  1584 net.cpp:129] Top shape: 100 16 28 28 (1254400)
I0929 09:26:45.753717  1584 net.cpp:137] Memory required for data: 151469200
I0929 09:26:45.753722  1584 layer_factory.hpp:77] Creating layer Scale6
I0929 09:26:45.753727  1584 net.cpp:84] Creating Layer Scale6
I0929 09:26:45.753731  1584 net.cpp:406] Scale6 <- Convolution6
I0929 09:26:45.753734  1584 net.cpp:367] Scale6 -> Convolution6 (in-place)
I0929 09:26:45.753759  1584 layer_factory.hpp:77] Creating layer Scale6
I0929 09:26:45.753834  1584 net.cpp:122] Setting up Scale6
I0929 09:26:45.753839  1584 net.cpp:129] Top shape: 100 16 28 28 (1254400)
I0929 09:26:45.753841  1584 net.cpp:137] Memory required for data: 156486800
I0929 09:26:45.753845  1584 layer_factory.hpp:77] Creating layer M2PELU6
I0929 09:26:45.753851  1584 net.cpp:84] Creating Layer M2PELU6
I0929 09:26:45.753854  1584 net.cpp:406] M2PELU6 <- Convolution6
I0929 09:26:45.753859  1584 net.cpp:367] M2PELU6 -> Convolution6 (in-place)
I0929 09:26:45.753937  1584 net.cpp:122] Setting up M2PELU6
I0929 09:26:45.753942  1584 net.cpp:129] Top shape: 100 16 28 28 (1254400)
I0929 09:26:45.753945  1584 net.cpp:137] Memory required for data: 161504400
I0929 09:26:45.753948  1584 layer_factory.hpp:77] Creating layer Convolution7
I0929 09:26:45.753957  1584 net.cpp:84] Creating Layer Convolution7
I0929 09:26:45.753960  1584 net.cpp:406] Convolution7 <- Convolution6
I0929 09:26:45.753964  1584 net.cpp:380] Convolution7 -> Convolution7
I0929 09:26:45.754042  1584 filler.hpp:251] The std of weights in this layer is: 0.114332
I0929 09:26:45.754515  1584 net.cpp:122] Setting up Convolution7
I0929 09:26:45.754528  1584 net.cpp:129] Top shape: 100 16 28 28 (1254400)
I0929 09:26:45.754530  1584 net.cpp:137] Memory required for data: 166522000
I0929 09:26:45.754545  1584 layer_factory.hpp:77] Creating layer BatchNorm7
I0929 09:26:45.754552  1584 net.cpp:84] Creating Layer BatchNorm7
I0929 09:26:45.754555  1584 net.cpp:406] BatchNorm7 <- Convolution7
I0929 09:26:45.754568  1584 net.cpp:367] BatchNorm7 -> Convolution7 (in-place)
I0929 09:26:45.754706  1584 net.cpp:122] Setting up BatchNorm7
I0929 09:26:45.754711  1584 net.cpp:129] Top shape: 100 16 28 28 (1254400)
I0929 09:26:45.754714  1584 net.cpp:137] Memory required for data: 171539600
I0929 09:26:45.754729  1584 layer_factory.hpp:77] Creating layer Scale7
I0929 09:26:45.754736  1584 net.cpp:84] Creating Layer Scale7
I0929 09:26:45.754739  1584 net.cpp:406] Scale7 <- Convolution7
I0929 09:26:45.754743  1584 net.cpp:367] Scale7 -> Convolution7 (in-place)
I0929 09:26:45.754779  1584 layer_factory.hpp:77] Creating layer Scale7
I0929 09:26:45.754864  1584 net.cpp:122] Setting up Scale7
I0929 09:26:45.754869  1584 net.cpp:129] Top shape: 100 16 28 28 (1254400)
I0929 09:26:45.754873  1584 net.cpp:137] Memory required for data: 176557200
I0929 09:26:45.754876  1584 layer_factory.hpp:77] Creating layer Eltwise3
I0929 09:26:45.754881  1584 net.cpp:84] Creating Layer Eltwise3
I0929 09:26:45.754884  1584 net.cpp:406] Eltwise3 <- Eltwise2_M2PELU5_0_split_1
I0929 09:26:45.754887  1584 net.cpp:406] Eltwise3 <- Convolution7
I0929 09:26:45.754891  1584 net.cpp:380] Eltwise3 -> Eltwise3
I0929 09:26:45.754907  1584 net.cpp:122] Setting up Eltwise3
I0929 09:26:45.754911  1584 net.cpp:129] Top shape: 100 16 28 28 (1254400)
I0929 09:26:45.754914  1584 net.cpp:137] Memory required for data: 181574800
I0929 09:26:45.754916  1584 layer_factory.hpp:77] Creating layer M2PELU7
I0929 09:26:45.754921  1584 net.cpp:84] Creating Layer M2PELU7
I0929 09:26:45.754923  1584 net.cpp:406] M2PELU7 <- Eltwise3
I0929 09:26:45.754927  1584 net.cpp:367] M2PELU7 -> Eltwise3 (in-place)
I0929 09:26:45.755010  1584 net.cpp:122] Setting up M2PELU7
I0929 09:26:45.755015  1584 net.cpp:129] Top shape: 100 16 28 28 (1254400)
I0929 09:26:45.755018  1584 net.cpp:137] Memory required for data: 186592400
I0929 09:26:45.755022  1584 layer_factory.hpp:77] Creating layer Eltwise3_M2PELU7_0_split
I0929 09:26:45.755026  1584 net.cpp:84] Creating Layer Eltwise3_M2PELU7_0_split
I0929 09:26:45.755029  1584 net.cpp:406] Eltwise3_M2PELU7_0_split <- Eltwise3
I0929 09:26:45.755033  1584 net.cpp:380] Eltwise3_M2PELU7_0_split -> Eltwise3_M2PELU7_0_split_0
I0929 09:26:45.755036  1584 net.cpp:380] Eltwise3_M2PELU7_0_split -> Eltwise3_M2PELU7_0_split_1
I0929 09:26:45.755060  1584 net.cpp:122] Setting up Eltwise3_M2PELU7_0_split
I0929 09:26:45.755064  1584 net.cpp:129] Top shape: 100 16 28 28 (1254400)
I0929 09:26:45.755069  1584 net.cpp:129] Top shape: 100 16 28 28 (1254400)
I0929 09:26:45.755071  1584 net.cpp:137] Memory required for data: 196627600
I0929 09:26:45.755074  1584 layer_factory.hpp:77] Creating layer Convolution8
I0929 09:26:45.755079  1584 net.cpp:84] Creating Layer Convolution8
I0929 09:26:45.755082  1584 net.cpp:406] Convolution8 <- Eltwise3_M2PELU7_0_split_0
I0929 09:26:45.755086  1584 net.cpp:380] Convolution8 -> Convolution8
I0929 09:26:45.755162  1584 filler.hpp:251] The std of weights in this layer is: 0.114332
I0929 09:26:45.755975  1584 net.cpp:122] Setting up Convolution8
I0929 09:26:45.755985  1584 net.cpp:129] Top shape: 100 16 28 28 (1254400)
I0929 09:26:45.755987  1584 net.cpp:137] Memory required for data: 201645200
I0929 09:26:45.755998  1584 layer_factory.hpp:77] Creating layer BatchNorm8
I0929 09:26:45.756006  1584 net.cpp:84] Creating Layer BatchNorm8
I0929 09:26:45.756008  1584 net.cpp:406] BatchNorm8 <- Convolution8
I0929 09:26:45.756012  1584 net.cpp:367] BatchNorm8 -> Convolution8 (in-place)
I0929 09:26:45.756142  1584 net.cpp:122] Setting up BatchNorm8
I0929 09:26:45.756147  1584 net.cpp:129] Top shape: 100 16 28 28 (1254400)
I0929 09:26:45.756150  1584 net.cpp:137] Memory required for data: 206662800
I0929 09:26:45.756155  1584 layer_factory.hpp:77] Creating layer Scale8
I0929 09:26:45.756161  1584 net.cpp:84] Creating Layer Scale8
I0929 09:26:45.756165  1584 net.cpp:406] Scale8 <- Convolution8
I0929 09:26:45.756168  1584 net.cpp:367] Scale8 -> Convolution8 (in-place)
I0929 09:26:45.756194  1584 layer_factory.hpp:77] Creating layer Scale8
I0929 09:26:45.756279  1584 net.cpp:122] Setting up Scale8
I0929 09:26:45.756284  1584 net.cpp:129] Top shape: 100 16 28 28 (1254400)
I0929 09:26:45.756287  1584 net.cpp:137] Memory required for data: 211680400
I0929 09:26:45.756291  1584 layer_factory.hpp:77] Creating layer M2PELU8
I0929 09:26:45.756297  1584 net.cpp:84] Creating Layer M2PELU8
I0929 09:26:45.756300  1584 net.cpp:406] M2PELU8 <- Convolution8
I0929 09:26:45.756304  1584 net.cpp:367] M2PELU8 -> Convolution8 (in-place)
I0929 09:26:45.756387  1584 net.cpp:122] Setting up M2PELU8
I0929 09:26:45.756392  1584 net.cpp:129] Top shape: 100 16 28 28 (1254400)
I0929 09:26:45.756395  1584 net.cpp:137] Memory required for data: 216698000
I0929 09:26:45.756399  1584 layer_factory.hpp:77] Creating layer Convolution9
I0929 09:26:45.756407  1584 net.cpp:84] Creating Layer Convolution9
I0929 09:26:45.756410  1584 net.cpp:406] Convolution9 <- Convolution8
I0929 09:26:45.756415  1584 net.cpp:380] Convolution9 -> Convolution9
I0929 09:26:45.756492  1584 filler.hpp:251] The std of weights in this layer is: 0.114332
I0929 09:26:45.757338  1584 net.cpp:122] Setting up Convolution9
I0929 09:26:45.757347  1584 net.cpp:129] Top shape: 100 16 28 28 (1254400)
I0929 09:26:45.757350  1584 net.cpp:137] Memory required for data: 221715600
I0929 09:26:45.757355  1584 layer_factory.hpp:77] Creating layer BatchNorm9
I0929 09:26:45.757361  1584 net.cpp:84] Creating Layer BatchNorm9
I0929 09:26:45.757365  1584 net.cpp:406] BatchNorm9 <- Convolution9
I0929 09:26:45.757369  1584 net.cpp:367] BatchNorm9 -> Convolution9 (in-place)
I0929 09:26:45.757552  1584 net.cpp:122] Setting up BatchNorm9
I0929 09:26:45.757560  1584 net.cpp:129] Top shape: 100 16 28 28 (1254400)
I0929 09:26:45.757561  1584 net.cpp:137] Memory required for data: 226733200
I0929 09:26:45.757567  1584 layer_factory.hpp:77] Creating layer Scale9
I0929 09:26:45.757571  1584 net.cpp:84] Creating Layer Scale9
I0929 09:26:45.757575  1584 net.cpp:406] Scale9 <- Convolution9
I0929 09:26:45.757577  1584 net.cpp:367] Scale9 -> Convolution9 (in-place)
I0929 09:26:45.757604  1584 layer_factory.hpp:77] Creating layer Scale9
I0929 09:26:45.757732  1584 net.cpp:122] Setting up Scale9
I0929 09:26:45.757745  1584 net.cpp:129] Top shape: 100 16 28 28 (1254400)
I0929 09:26:45.757750  1584 net.cpp:137] Memory required for data: 231750800
I0929 09:26:45.757757  1584 layer_factory.hpp:77] Creating layer Eltwise4
I0929 09:26:45.757766  1584 net.cpp:84] Creating Layer Eltwise4
I0929 09:26:45.757771  1584 net.cpp:406] Eltwise4 <- Eltwise3_M2PELU7_0_split_1
I0929 09:26:45.757778  1584 net.cpp:406] Eltwise4 <- Convolution9
I0929 09:26:45.757783  1584 net.cpp:380] Eltwise4 -> Eltwise4
I0929 09:26:45.757802  1584 net.cpp:122] Setting up Eltwise4
I0929 09:26:45.757807  1584 net.cpp:129] Top shape: 100 16 28 28 (1254400)
I0929 09:26:45.757810  1584 net.cpp:137] Memory required for data: 236768400
I0929 09:26:45.757812  1584 layer_factory.hpp:77] Creating layer M2PELU9
I0929 09:26:45.757818  1584 net.cpp:84] Creating Layer M2PELU9
I0929 09:26:45.757822  1584 net.cpp:406] M2PELU9 <- Eltwise4
I0929 09:26:45.757824  1584 net.cpp:367] M2PELU9 -> Eltwise4 (in-place)
I0929 09:26:45.757911  1584 net.cpp:122] Setting up M2PELU9
I0929 09:26:45.757916  1584 net.cpp:129] Top shape: 100 16 28 28 (1254400)
I0929 09:26:45.757920  1584 net.cpp:137] Memory required for data: 241786000
I0929 09:26:45.757923  1584 layer_factory.hpp:77] Creating layer Eltwise4_M2PELU9_0_split
I0929 09:26:45.757928  1584 net.cpp:84] Creating Layer Eltwise4_M2PELU9_0_split
I0929 09:26:45.757931  1584 net.cpp:406] Eltwise4_M2PELU9_0_split <- Eltwise4
I0929 09:26:45.757936  1584 net.cpp:380] Eltwise4_M2PELU9_0_split -> Eltwise4_M2PELU9_0_split_0
I0929 09:26:45.757939  1584 net.cpp:380] Eltwise4_M2PELU9_0_split -> Eltwise4_M2PELU9_0_split_1
I0929 09:26:45.757962  1584 net.cpp:122] Setting up Eltwise4_M2PELU9_0_split
I0929 09:26:45.757967  1584 net.cpp:129] Top shape: 100 16 28 28 (1254400)
I0929 09:26:45.757972  1584 net.cpp:129] Top shape: 100 16 28 28 (1254400)
I0929 09:26:45.757980  1584 net.cpp:137] Memory required for data: 251821200
I0929 09:26:45.757983  1584 layer_factory.hpp:77] Creating layer Convolution10
I0929 09:26:45.757990  1584 net.cpp:84] Creating Layer Convolution10
I0929 09:26:45.757993  1584 net.cpp:406] Convolution10 <- Eltwise4_M2PELU9_0_split_0
I0929 09:26:45.757997  1584 net.cpp:380] Convolution10 -> Convolution10
I0929 09:26:45.758077  1584 filler.hpp:251] The std of weights in this layer is: 0.114332
I0929 09:26:45.758924  1584 net.cpp:122] Setting up Convolution10
I0929 09:26:45.758934  1584 net.cpp:129] Top shape: 100 16 28 28 (1254400)
I0929 09:26:45.758939  1584 net.cpp:137] Memory required for data: 256838800
I0929 09:26:45.758944  1584 layer_factory.hpp:77] Creating layer BatchNorm10
I0929 09:26:45.758950  1584 net.cpp:84] Creating Layer BatchNorm10
I0929 09:26:45.758956  1584 net.cpp:406] BatchNorm10 <- Convolution10
I0929 09:26:45.758963  1584 net.cpp:367] BatchNorm10 -> Convolution10 (in-place)
I0929 09:26:45.759109  1584 net.cpp:122] Setting up BatchNorm10
I0929 09:26:45.759116  1584 net.cpp:129] Top shape: 100 16 28 28 (1254400)
I0929 09:26:45.759119  1584 net.cpp:137] Memory required for data: 261856400
I0929 09:26:45.759124  1584 layer_factory.hpp:77] Creating layer Scale10
I0929 09:26:45.759131  1584 net.cpp:84] Creating Layer Scale10
I0929 09:26:45.759135  1584 net.cpp:406] Scale10 <- Convolution10
I0929 09:26:45.759140  1584 net.cpp:367] Scale10 -> Convolution10 (in-place)
I0929 09:26:45.759166  1584 layer_factory.hpp:77] Creating layer Scale10
I0929 09:26:45.759308  1584 net.cpp:122] Setting up Scale10
I0929 09:26:45.759316  1584 net.cpp:129] Top shape: 100 16 28 28 (1254400)
I0929 09:26:45.759320  1584 net.cpp:137] Memory required for data: 266874000
I0929 09:26:45.759323  1584 layer_factory.hpp:77] Creating layer M2PELU10
I0929 09:26:45.759330  1584 net.cpp:84] Creating Layer M2PELU10
I0929 09:26:45.759333  1584 net.cpp:406] M2PELU10 <- Convolution10
I0929 09:26:45.759338  1584 net.cpp:367] M2PELU10 -> Convolution10 (in-place)
I0929 09:26:45.759424  1584 net.cpp:122] Setting up M2PELU10
I0929 09:26:45.759429  1584 net.cpp:129] Top shape: 100 16 28 28 (1254400)
I0929 09:26:45.759433  1584 net.cpp:137] Memory required for data: 271891600
I0929 09:26:45.759436  1584 layer_factory.hpp:77] Creating layer Convolution11
I0929 09:26:45.759443  1584 net.cpp:84] Creating Layer Convolution11
I0929 09:26:45.759447  1584 net.cpp:406] Convolution11 <- Convolution10
I0929 09:26:45.759451  1584 net.cpp:380] Convolution11 -> Convolution11
I0929 09:26:45.759532  1584 filler.hpp:251] The std of weights in this layer is: 0.114332
I0929 09:26:45.760401  1584 net.cpp:122] Setting up Convolution11
I0929 09:26:45.760411  1584 net.cpp:129] Top shape: 100 16 28 28 (1254400)
I0929 09:26:45.760414  1584 net.cpp:137] Memory required for data: 276909200
I0929 09:26:45.760418  1584 layer_factory.hpp:77] Creating layer BatchNorm11
I0929 09:26:45.760424  1584 net.cpp:84] Creating Layer BatchNorm11
I0929 09:26:45.760427  1584 net.cpp:406] BatchNorm11 <- Convolution11
I0929 09:26:45.760432  1584 net.cpp:367] BatchNorm11 -> Convolution11 (in-place)
I0929 09:26:45.760577  1584 net.cpp:122] Setting up BatchNorm11
I0929 09:26:45.760582  1584 net.cpp:129] Top shape: 100 16 28 28 (1254400)
I0929 09:26:45.760586  1584 net.cpp:137] Memory required for data: 281926800
I0929 09:26:45.760589  1584 layer_factory.hpp:77] Creating layer Scale11
I0929 09:26:45.760594  1584 net.cpp:84] Creating Layer Scale11
I0929 09:26:45.760596  1584 net.cpp:406] Scale11 <- Convolution11
I0929 09:26:45.760601  1584 net.cpp:367] Scale11 -> Convolution11 (in-place)
I0929 09:26:45.760627  1584 layer_factory.hpp:77] Creating layer Scale11
I0929 09:26:45.760712  1584 net.cpp:122] Setting up Scale11
I0929 09:26:45.760717  1584 net.cpp:129] Top shape: 100 16 28 28 (1254400)
I0929 09:26:45.760720  1584 net.cpp:137] Memory required for data: 286944400
I0929 09:26:45.760725  1584 layer_factory.hpp:77] Creating layer Eltwise5
I0929 09:26:45.760730  1584 net.cpp:84] Creating Layer Eltwise5
I0929 09:26:45.760732  1584 net.cpp:406] Eltwise5 <- Eltwise4_M2PELU9_0_split_1
I0929 09:26:45.760742  1584 net.cpp:406] Eltwise5 <- Convolution11
I0929 09:26:45.760747  1584 net.cpp:380] Eltwise5 -> Eltwise5
I0929 09:26:45.760764  1584 net.cpp:122] Setting up Eltwise5
I0929 09:26:45.760769  1584 net.cpp:129] Top shape: 100 16 28 28 (1254400)
I0929 09:26:45.760772  1584 net.cpp:137] Memory required for data: 291962000
I0929 09:26:45.760774  1584 layer_factory.hpp:77] Creating layer M2PELU11
I0929 09:26:45.760781  1584 net.cpp:84] Creating Layer M2PELU11
I0929 09:26:45.760783  1584 net.cpp:406] M2PELU11 <- Eltwise5
I0929 09:26:45.760787  1584 net.cpp:367] M2PELU11 -> Eltwise5 (in-place)
I0929 09:26:45.760872  1584 net.cpp:122] Setting up M2PELU11
I0929 09:26:45.760877  1584 net.cpp:129] Top shape: 100 16 28 28 (1254400)
I0929 09:26:45.760880  1584 net.cpp:137] Memory required for data: 296979600
I0929 09:26:45.760885  1584 layer_factory.hpp:77] Creating layer Eltwise5_M2PELU11_0_split
I0929 09:26:45.760888  1584 net.cpp:84] Creating Layer Eltwise5_M2PELU11_0_split
I0929 09:26:45.760891  1584 net.cpp:406] Eltwise5_M2PELU11_0_split <- Eltwise5
I0929 09:26:45.760895  1584 net.cpp:380] Eltwise5_M2PELU11_0_split -> Eltwise5_M2PELU11_0_split_0
I0929 09:26:45.760898  1584 net.cpp:380] Eltwise5_M2PELU11_0_split -> Eltwise5_M2PELU11_0_split_1
I0929 09:26:45.760921  1584 net.cpp:122] Setting up Eltwise5_M2PELU11_0_split
I0929 09:26:45.760926  1584 net.cpp:129] Top shape: 100 16 28 28 (1254400)
I0929 09:26:45.760931  1584 net.cpp:129] Top shape: 100 16 28 28 (1254400)
I0929 09:26:45.760933  1584 net.cpp:137] Memory required for data: 307014800
I0929 09:26:45.760936  1584 layer_factory.hpp:77] Creating layer Convolution12
I0929 09:26:45.760942  1584 net.cpp:84] Creating Layer Convolution12
I0929 09:26:45.760946  1584 net.cpp:406] Convolution12 <- Eltwise5_M2PELU11_0_split_0
I0929 09:26:45.760949  1584 net.cpp:380] Convolution12 -> Convolution12
I0929 09:26:45.761029  1584 filler.hpp:251] The std of weights in this layer is: 0.114332
I0929 09:26:45.761953  1584 net.cpp:122] Setting up Convolution12
I0929 09:26:45.761963  1584 net.cpp:129] Top shape: 100 16 28 28 (1254400)
I0929 09:26:45.761966  1584 net.cpp:137] Memory required for data: 312032400
I0929 09:26:45.761971  1584 layer_factory.hpp:77] Creating layer BatchNorm12
I0929 09:26:45.761977  1584 net.cpp:84] Creating Layer BatchNorm12
I0929 09:26:45.761981  1584 net.cpp:406] BatchNorm12 <- Convolution12
I0929 09:26:45.761984  1584 net.cpp:367] BatchNorm12 -> Convolution12 (in-place)
I0929 09:26:45.762115  1584 net.cpp:122] Setting up BatchNorm12
I0929 09:26:45.762120  1584 net.cpp:129] Top shape: 100 16 28 28 (1254400)
I0929 09:26:45.762121  1584 net.cpp:137] Memory required for data: 317050000
I0929 09:26:45.762126  1584 layer_factory.hpp:77] Creating layer Scale12
I0929 09:26:45.762131  1584 net.cpp:84] Creating Layer Scale12
I0929 09:26:45.762135  1584 net.cpp:406] Scale12 <- Convolution12
I0929 09:26:45.762138  1584 net.cpp:367] Scale12 -> Convolution12 (in-place)
I0929 09:26:45.762163  1584 layer_factory.hpp:77] Creating layer Scale12
I0929 09:26:45.762239  1584 net.cpp:122] Setting up Scale12
I0929 09:26:45.762244  1584 net.cpp:129] Top shape: 100 16 28 28 (1254400)
I0929 09:26:45.762248  1584 net.cpp:137] Memory required for data: 322067600
I0929 09:26:45.762251  1584 layer_factory.hpp:77] Creating layer M2PELU12
I0929 09:26:45.762256  1584 net.cpp:84] Creating Layer M2PELU12
I0929 09:26:45.762259  1584 net.cpp:406] M2PELU12 <- Convolution12
I0929 09:26:45.762264  1584 net.cpp:367] M2PELU12 -> Convolution12 (in-place)
I0929 09:26:45.762346  1584 net.cpp:122] Setting up M2PELU12
I0929 09:26:45.762351  1584 net.cpp:129] Top shape: 100 16 28 28 (1254400)
I0929 09:26:45.762353  1584 net.cpp:137] Memory required for data: 327085200
I0929 09:26:45.762357  1584 layer_factory.hpp:77] Creating layer Convolution13
I0929 09:26:45.762364  1584 net.cpp:84] Creating Layer Convolution13
I0929 09:26:45.762367  1584 net.cpp:406] Convolution13 <- Convolution12
I0929 09:26:45.762372  1584 net.cpp:380] Convolution13 -> Convolution13
I0929 09:26:45.762456  1584 filler.hpp:251] The std of weights in this layer is: 0.114332
I0929 09:26:45.763284  1584 net.cpp:122] Setting up Convolution13
I0929 09:26:45.763294  1584 net.cpp:129] Top shape: 100 16 28 28 (1254400)
I0929 09:26:45.763298  1584 net.cpp:137] Memory required for data: 332102800
I0929 09:26:45.763303  1584 layer_factory.hpp:77] Creating layer BatchNorm13
I0929 09:26:45.763309  1584 net.cpp:84] Creating Layer BatchNorm13
I0929 09:26:45.763311  1584 net.cpp:406] BatchNorm13 <- Convolution13
I0929 09:26:45.763314  1584 net.cpp:367] BatchNorm13 -> Convolution13 (in-place)
I0929 09:26:45.763444  1584 net.cpp:122] Setting up BatchNorm13
I0929 09:26:45.763449  1584 net.cpp:129] Top shape: 100 16 28 28 (1254400)
I0929 09:26:45.763451  1584 net.cpp:137] Memory required for data: 337120400
I0929 09:26:45.763456  1584 layer_factory.hpp:77] Creating layer Scale13
I0929 09:26:45.763461  1584 net.cpp:84] Creating Layer Scale13
I0929 09:26:45.763463  1584 net.cpp:406] Scale13 <- Convolution13
I0929 09:26:45.763466  1584 net.cpp:367] Scale13 -> Convolution13 (in-place)
I0929 09:26:45.763492  1584 layer_factory.hpp:77] Creating layer Scale13
I0929 09:26:45.763569  1584 net.cpp:122] Setting up Scale13
I0929 09:26:45.763574  1584 net.cpp:129] Top shape: 100 16 28 28 (1254400)
I0929 09:26:45.763576  1584 net.cpp:137] Memory required for data: 342138000
I0929 09:26:45.763581  1584 layer_factory.hpp:77] Creating layer Eltwise6
I0929 09:26:45.763586  1584 net.cpp:84] Creating Layer Eltwise6
I0929 09:26:45.763589  1584 net.cpp:406] Eltwise6 <- Eltwise5_M2PELU11_0_split_1
I0929 09:26:45.763592  1584 net.cpp:406] Eltwise6 <- Convolution13
I0929 09:26:45.763595  1584 net.cpp:380] Eltwise6 -> Eltwise6
I0929 09:26:45.763613  1584 net.cpp:122] Setting up Eltwise6
I0929 09:26:45.763618  1584 net.cpp:129] Top shape: 100 16 28 28 (1254400)
I0929 09:26:45.763620  1584 net.cpp:137] Memory required for data: 347155600
I0929 09:26:45.763623  1584 layer_factory.hpp:77] Creating layer M2PELU13
I0929 09:26:45.763631  1584 net.cpp:84] Creating Layer M2PELU13
I0929 09:26:45.763633  1584 net.cpp:406] M2PELU13 <- Eltwise6
I0929 09:26:45.763638  1584 net.cpp:367] M2PELU13 -> Eltwise6 (in-place)
I0929 09:26:45.763721  1584 net.cpp:122] Setting up M2PELU13
I0929 09:26:45.763725  1584 net.cpp:129] Top shape: 100 16 28 28 (1254400)
I0929 09:26:45.763727  1584 net.cpp:137] Memory required for data: 352173200
I0929 09:26:45.763731  1584 layer_factory.hpp:77] Creating layer Eltwise6_M2PELU13_0_split
I0929 09:26:45.763736  1584 net.cpp:84] Creating Layer Eltwise6_M2PELU13_0_split
I0929 09:26:45.763737  1584 net.cpp:406] Eltwise6_M2PELU13_0_split <- Eltwise6
I0929 09:26:45.763741  1584 net.cpp:380] Eltwise6_M2PELU13_0_split -> Eltwise6_M2PELU13_0_split_0
I0929 09:26:45.763746  1584 net.cpp:380] Eltwise6_M2PELU13_0_split -> Eltwise6_M2PELU13_0_split_1
I0929 09:26:45.763767  1584 net.cpp:122] Setting up Eltwise6_M2PELU13_0_split
I0929 09:26:45.763770  1584 net.cpp:129] Top shape: 100 16 28 28 (1254400)
I0929 09:26:45.763773  1584 net.cpp:129] Top shape: 100 16 28 28 (1254400)
I0929 09:26:45.763775  1584 net.cpp:137] Memory required for data: 362208400
I0929 09:26:45.763777  1584 layer_factory.hpp:77] Creating layer Convolution14
I0929 09:26:45.763782  1584 net.cpp:84] Creating Layer Convolution14
I0929 09:26:45.763784  1584 net.cpp:406] Convolution14 <- Eltwise6_M2PELU13_0_split_0
I0929 09:26:45.763790  1584 net.cpp:380] Convolution14 -> Convolution14
I0929 09:26:45.763865  1584 filler.hpp:251] The std of weights in this layer is: 0.114332
I0929 09:26:45.764662  1584 net.cpp:122] Setting up Convolution14
I0929 09:26:45.764670  1584 net.cpp:129] Top shape: 100 16 28 28 (1254400)
I0929 09:26:45.764673  1584 net.cpp:137] Memory required for data: 367226000
I0929 09:26:45.764678  1584 layer_factory.hpp:77] Creating layer BatchNorm14
I0929 09:26:45.764683  1584 net.cpp:84] Creating Layer BatchNorm14
I0929 09:26:45.764685  1584 net.cpp:406] BatchNorm14 <- Convolution14
I0929 09:26:45.764689  1584 net.cpp:367] BatchNorm14 -> Convolution14 (in-place)
I0929 09:26:45.764827  1584 net.cpp:122] Setting up BatchNorm14
I0929 09:26:45.764832  1584 net.cpp:129] Top shape: 100 16 28 28 (1254400)
I0929 09:26:45.764834  1584 net.cpp:137] Memory required for data: 372243600
I0929 09:26:45.764839  1584 layer_factory.hpp:77] Creating layer Scale14
I0929 09:26:45.764843  1584 net.cpp:84] Creating Layer Scale14
I0929 09:26:45.764845  1584 net.cpp:406] Scale14 <- Convolution14
I0929 09:26:45.764848  1584 net.cpp:367] Scale14 -> Convolution14 (in-place)
I0929 09:26:45.764874  1584 layer_factory.hpp:77] Creating layer Scale14
I0929 09:26:45.764951  1584 net.cpp:122] Setting up Scale14
I0929 09:26:45.764955  1584 net.cpp:129] Top shape: 100 16 28 28 (1254400)
I0929 09:26:45.764957  1584 net.cpp:137] Memory required for data: 377261200
I0929 09:26:45.764961  1584 layer_factory.hpp:77] Creating layer M2PELU14
I0929 09:26:45.764966  1584 net.cpp:84] Creating Layer M2PELU14
I0929 09:26:45.764968  1584 net.cpp:406] M2PELU14 <- Convolution14
I0929 09:26:45.764972  1584 net.cpp:367] M2PELU14 -> Convolution14 (in-place)
I0929 09:26:45.765056  1584 net.cpp:122] Setting up M2PELU14
I0929 09:26:45.765060  1584 net.cpp:129] Top shape: 100 16 28 28 (1254400)
I0929 09:26:45.765063  1584 net.cpp:137] Memory required for data: 382278800
I0929 09:26:45.765066  1584 layer_factory.hpp:77] Creating layer Convolution15
I0929 09:26:45.765072  1584 net.cpp:84] Creating Layer Convolution15
I0929 09:26:45.765074  1584 net.cpp:406] Convolution15 <- Convolution14
I0929 09:26:45.765079  1584 net.cpp:380] Convolution15 -> Convolution15
I0929 09:26:45.765156  1584 filler.hpp:251] The std of weights in this layer is: 0.114332
I0929 09:26:45.765954  1584 net.cpp:122] Setting up Convolution15
I0929 09:26:45.765961  1584 net.cpp:129] Top shape: 100 16 28 28 (1254400)
I0929 09:26:45.765964  1584 net.cpp:137] Memory required for data: 387296400
I0929 09:26:45.765969  1584 layer_factory.hpp:77] Creating layer BatchNorm15
I0929 09:26:45.765975  1584 net.cpp:84] Creating Layer BatchNorm15
I0929 09:26:45.765978  1584 net.cpp:406] BatchNorm15 <- Convolution15
I0929 09:26:45.765981  1584 net.cpp:367] BatchNorm15 -> Convolution15 (in-place)
I0929 09:26:45.766111  1584 net.cpp:122] Setting up BatchNorm15
I0929 09:26:45.766116  1584 net.cpp:129] Top shape: 100 16 28 28 (1254400)
I0929 09:26:45.766119  1584 net.cpp:137] Memory required for data: 392314000
I0929 09:26:45.766132  1584 layer_factory.hpp:77] Creating layer Scale15
I0929 09:26:45.766137  1584 net.cpp:84] Creating Layer Scale15
I0929 09:26:45.766140  1584 net.cpp:406] Scale15 <- Convolution15
I0929 09:26:45.766144  1584 net.cpp:367] Scale15 -> Convolution15 (in-place)
I0929 09:26:45.766170  1584 layer_factory.hpp:77] Creating layer Scale15
I0929 09:26:45.766244  1584 net.cpp:122] Setting up Scale15
I0929 09:26:45.766248  1584 net.cpp:129] Top shape: 100 16 28 28 (1254400)
I0929 09:26:45.766250  1584 net.cpp:137] Memory required for data: 397331600
I0929 09:26:45.766254  1584 layer_factory.hpp:77] Creating layer Eltwise7
I0929 09:26:45.766258  1584 net.cpp:84] Creating Layer Eltwise7
I0929 09:26:45.766260  1584 net.cpp:406] Eltwise7 <- Eltwise6_M2PELU13_0_split_1
I0929 09:26:45.766263  1584 net.cpp:406] Eltwise7 <- Convolution15
I0929 09:26:45.766268  1584 net.cpp:380] Eltwise7 -> Eltwise7
I0929 09:26:45.766281  1584 net.cpp:122] Setting up Eltwise7
I0929 09:26:45.766286  1584 net.cpp:129] Top shape: 100 16 28 28 (1254400)
I0929 09:26:45.766288  1584 net.cpp:137] Memory required for data: 402349200
I0929 09:26:45.766290  1584 layer_factory.hpp:77] Creating layer M2PELU15
I0929 09:26:45.766294  1584 net.cpp:84] Creating Layer M2PELU15
I0929 09:26:45.766296  1584 net.cpp:406] M2PELU15 <- Eltwise7
I0929 09:26:45.766301  1584 net.cpp:367] M2PELU15 -> Eltwise7 (in-place)
I0929 09:26:45.766386  1584 net.cpp:122] Setting up M2PELU15
I0929 09:26:45.766389  1584 net.cpp:129] Top shape: 100 16 28 28 (1254400)
I0929 09:26:45.766391  1584 net.cpp:137] Memory required for data: 407366800
I0929 09:26:45.766394  1584 layer_factory.hpp:77] Creating layer Eltwise7_M2PELU15_0_split
I0929 09:26:45.766404  1584 net.cpp:84] Creating Layer Eltwise7_M2PELU15_0_split
I0929 09:26:45.766407  1584 net.cpp:406] Eltwise7_M2PELU15_0_split <- Eltwise7
I0929 09:26:45.766410  1584 net.cpp:380] Eltwise7_M2PELU15_0_split -> Eltwise7_M2PELU15_0_split_0
I0929 09:26:45.766414  1584 net.cpp:380] Eltwise7_M2PELU15_0_split -> Eltwise7_M2PELU15_0_split_1
I0929 09:26:45.766436  1584 net.cpp:122] Setting up Eltwise7_M2PELU15_0_split
I0929 09:26:45.766440  1584 net.cpp:129] Top shape: 100 16 28 28 (1254400)
I0929 09:26:45.766443  1584 net.cpp:129] Top shape: 100 16 28 28 (1254400)
I0929 09:26:45.766445  1584 net.cpp:137] Memory required for data: 417402000
I0929 09:26:45.766448  1584 layer_factory.hpp:77] Creating layer Convolution16
I0929 09:26:45.766453  1584 net.cpp:84] Creating Layer Convolution16
I0929 09:26:45.766456  1584 net.cpp:406] Convolution16 <- Eltwise7_M2PELU15_0_split_0
I0929 09:26:45.766459  1584 net.cpp:380] Convolution16 -> Convolution16
I0929 09:26:45.766551  1584 filler.hpp:251] The std of weights in this layer is: 0.114332
I0929 09:26:45.767355  1584 net.cpp:122] Setting up Convolution16
I0929 09:26:45.767364  1584 net.cpp:129] Top shape: 100 16 28 28 (1254400)
I0929 09:26:45.767366  1584 net.cpp:137] Memory required for data: 422419600
I0929 09:26:45.767371  1584 layer_factory.hpp:77] Creating layer BatchNorm16
I0929 09:26:45.767376  1584 net.cpp:84] Creating Layer BatchNorm16
I0929 09:26:45.767379  1584 net.cpp:406] BatchNorm16 <- Convolution16
I0929 09:26:45.767382  1584 net.cpp:367] BatchNorm16 -> Convolution16 (in-place)
I0929 09:26:45.767511  1584 net.cpp:122] Setting up BatchNorm16
I0929 09:26:45.767515  1584 net.cpp:129] Top shape: 100 16 28 28 (1254400)
I0929 09:26:45.767518  1584 net.cpp:137] Memory required for data: 427437200
I0929 09:26:45.767524  1584 layer_factory.hpp:77] Creating layer Scale16
I0929 09:26:45.767527  1584 net.cpp:84] Creating Layer Scale16
I0929 09:26:45.767529  1584 net.cpp:406] Scale16 <- Convolution16
I0929 09:26:45.767532  1584 net.cpp:367] Scale16 -> Convolution16 (in-place)
I0929 09:26:45.767557  1584 layer_factory.hpp:77] Creating layer Scale16
I0929 09:26:45.767633  1584 net.cpp:122] Setting up Scale16
I0929 09:26:45.767638  1584 net.cpp:129] Top shape: 100 16 28 28 (1254400)
I0929 09:26:45.767640  1584 net.cpp:137] Memory required for data: 432454800
I0929 09:26:45.767643  1584 layer_factory.hpp:77] Creating layer M2PELU16
I0929 09:26:45.767648  1584 net.cpp:84] Creating Layer M2PELU16
I0929 09:26:45.767652  1584 net.cpp:406] M2PELU16 <- Convolution16
I0929 09:26:45.767654  1584 net.cpp:367] M2PELU16 -> Convolution16 (in-place)
I0929 09:26:45.767736  1584 net.cpp:122] Setting up M2PELU16
I0929 09:26:45.767740  1584 net.cpp:129] Top shape: 100 16 28 28 (1254400)
I0929 09:26:45.767742  1584 net.cpp:137] Memory required for data: 437472400
I0929 09:26:45.767746  1584 layer_factory.hpp:77] Creating layer Convolution17
I0929 09:26:45.767752  1584 net.cpp:84] Creating Layer Convolution17
I0929 09:26:45.767755  1584 net.cpp:406] Convolution17 <- Convolution16
I0929 09:26:45.767760  1584 net.cpp:380] Convolution17 -> Convolution17
I0929 09:26:45.767838  1584 filler.hpp:251] The std of weights in this layer is: 0.114332
I0929 09:26:45.768317  1584 net.cpp:122] Setting up Convolution17
I0929 09:26:45.768324  1584 net.cpp:129] Top shape: 100 16 28 28 (1254400)
I0929 09:26:45.768327  1584 net.cpp:137] Memory required for data: 442490000
I0929 09:26:45.768332  1584 layer_factory.hpp:77] Creating layer BatchNorm17
I0929 09:26:45.768337  1584 net.cpp:84] Creating Layer BatchNorm17
I0929 09:26:45.768339  1584 net.cpp:406] BatchNorm17 <- Convolution17
I0929 09:26:45.768342  1584 net.cpp:367] BatchNorm17 -> Convolution17 (in-place)
I0929 09:26:45.768468  1584 net.cpp:122] Setting up BatchNorm17
I0929 09:26:45.768472  1584 net.cpp:129] Top shape: 100 16 28 28 (1254400)
I0929 09:26:45.768476  1584 net.cpp:137] Memory required for data: 447507600
I0929 09:26:45.768479  1584 layer_factory.hpp:77] Creating layer Scale17
I0929 09:26:45.768483  1584 net.cpp:84] Creating Layer Scale17
I0929 09:26:45.768492  1584 net.cpp:406] Scale17 <- Convolution17
I0929 09:26:45.768496  1584 net.cpp:367] Scale17 -> Convolution17 (in-place)
I0929 09:26:45.768522  1584 layer_factory.hpp:77] Creating layer Scale17
I0929 09:26:45.768597  1584 net.cpp:122] Setting up Scale17
I0929 09:26:45.768601  1584 net.cpp:129] Top shape: 100 16 28 28 (1254400)
I0929 09:26:45.768604  1584 net.cpp:137] Memory required for data: 452525200
I0929 09:26:45.768607  1584 layer_factory.hpp:77] Creating layer Eltwise8
I0929 09:26:45.768610  1584 net.cpp:84] Creating Layer Eltwise8
I0929 09:26:45.768613  1584 net.cpp:406] Eltwise8 <- Eltwise7_M2PELU15_0_split_1
I0929 09:26:45.768616  1584 net.cpp:406] Eltwise8 <- Convolution17
I0929 09:26:45.768620  1584 net.cpp:380] Eltwise8 -> Eltwise8
I0929 09:26:45.768633  1584 net.cpp:122] Setting up Eltwise8
I0929 09:26:45.768637  1584 net.cpp:129] Top shape: 100 16 28 28 (1254400)
I0929 09:26:45.768640  1584 net.cpp:137] Memory required for data: 457542800
I0929 09:26:45.768641  1584 layer_factory.hpp:77] Creating layer M2PELU17
I0929 09:26:45.768646  1584 net.cpp:84] Creating Layer M2PELU17
I0929 09:26:45.768648  1584 net.cpp:406] M2PELU17 <- Eltwise8
I0929 09:26:45.768651  1584 net.cpp:367] M2PELU17 -> Eltwise8 (in-place)
I0929 09:26:45.768734  1584 net.cpp:122] Setting up M2PELU17
I0929 09:26:45.768738  1584 net.cpp:129] Top shape: 100 16 28 28 (1254400)
I0929 09:26:45.768740  1584 net.cpp:137] Memory required for data: 462560400
I0929 09:26:45.768743  1584 layer_factory.hpp:77] Creating layer Eltwise8_M2PELU17_0_split
I0929 09:26:45.768748  1584 net.cpp:84] Creating Layer Eltwise8_M2PELU17_0_split
I0929 09:26:45.768750  1584 net.cpp:406] Eltwise8_M2PELU17_0_split <- Eltwise8
I0929 09:26:45.768754  1584 net.cpp:380] Eltwise8_M2PELU17_0_split -> Eltwise8_M2PELU17_0_split_0
I0929 09:26:45.768757  1584 net.cpp:380] Eltwise8_M2PELU17_0_split -> Eltwise8_M2PELU17_0_split_1
I0929 09:26:45.768779  1584 net.cpp:122] Setting up Eltwise8_M2PELU17_0_split
I0929 09:26:45.768782  1584 net.cpp:129] Top shape: 100 16 28 28 (1254400)
I0929 09:26:45.768785  1584 net.cpp:129] Top shape: 100 16 28 28 (1254400)
I0929 09:26:45.768787  1584 net.cpp:137] Memory required for data: 472595600
I0929 09:26:45.768790  1584 layer_factory.hpp:77] Creating layer Convolution18
I0929 09:26:45.768795  1584 net.cpp:84] Creating Layer Convolution18
I0929 09:26:45.768797  1584 net.cpp:406] Convolution18 <- Eltwise8_M2PELU17_0_split_0
I0929 09:26:45.768801  1584 net.cpp:380] Convolution18 -> Convolution18
I0929 09:26:45.768877  1584 filler.hpp:251] The std of weights in this layer is: 0.114332
I0929 09:26:45.769668  1584 net.cpp:122] Setting up Convolution18
I0929 09:26:45.769676  1584 net.cpp:129] Top shape: 100 16 28 28 (1254400)
I0929 09:26:45.769680  1584 net.cpp:137] Memory required for data: 477613200
I0929 09:26:45.769683  1584 layer_factory.hpp:77] Creating layer BatchNorm18
I0929 09:26:45.769690  1584 net.cpp:84] Creating Layer BatchNorm18
I0929 09:26:45.769691  1584 net.cpp:406] BatchNorm18 <- Convolution18
I0929 09:26:45.769695  1584 net.cpp:367] BatchNorm18 -> Convolution18 (in-place)
I0929 09:26:45.769826  1584 net.cpp:122] Setting up BatchNorm18
I0929 09:26:45.769831  1584 net.cpp:129] Top shape: 100 16 28 28 (1254400)
I0929 09:26:45.769834  1584 net.cpp:137] Memory required for data: 482630800
I0929 09:26:45.769837  1584 layer_factory.hpp:77] Creating layer Scale18
I0929 09:26:45.769841  1584 net.cpp:84] Creating Layer Scale18
I0929 09:26:45.769845  1584 net.cpp:406] Scale18 <- Convolution18
I0929 09:26:45.769848  1584 net.cpp:367] Scale18 -> Convolution18 (in-place)
I0929 09:26:45.769872  1584 layer_factory.hpp:77] Creating layer Scale18
I0929 09:26:45.769948  1584 net.cpp:122] Setting up Scale18
I0929 09:26:45.769953  1584 net.cpp:129] Top shape: 100 16 28 28 (1254400)
I0929 09:26:45.769954  1584 net.cpp:137] Memory required for data: 487648400
I0929 09:26:45.769958  1584 layer_factory.hpp:77] Creating layer M2PELU18
I0929 09:26:45.769963  1584 net.cpp:84] Creating Layer M2PELU18
I0929 09:26:45.769965  1584 net.cpp:406] M2PELU18 <- Convolution18
I0929 09:26:45.769974  1584 net.cpp:367] M2PELU18 -> Convolution18 (in-place)
I0929 09:26:45.770059  1584 net.cpp:122] Setting up M2PELU18
I0929 09:26:45.770063  1584 net.cpp:129] Top shape: 100 16 28 28 (1254400)
I0929 09:26:45.770066  1584 net.cpp:137] Memory required for data: 492666000
I0929 09:26:45.770069  1584 layer_factory.hpp:77] Creating layer Convolution19
I0929 09:26:45.770076  1584 net.cpp:84] Creating Layer Convolution19
I0929 09:26:45.770078  1584 net.cpp:406] Convolution19 <- Convolution18
I0929 09:26:45.770081  1584 net.cpp:380] Convolution19 -> Convolution19
I0929 09:26:45.770159  1584 filler.hpp:251] The std of weights in this layer is: 0.114332
I0929 09:26:45.770993  1584 net.cpp:122] Setting up Convolution19
I0929 09:26:45.771003  1584 net.cpp:129] Top shape: 100 16 28 28 (1254400)
I0929 09:26:45.771004  1584 net.cpp:137] Memory required for data: 497683600
I0929 09:26:45.771009  1584 layer_factory.hpp:77] Creating layer BatchNorm19
I0929 09:26:45.771014  1584 net.cpp:84] Creating Layer BatchNorm19
I0929 09:26:45.771018  1584 net.cpp:406] BatchNorm19 <- Convolution19
I0929 09:26:45.771020  1584 net.cpp:367] BatchNorm19 -> Convolution19 (in-place)
I0929 09:26:45.771149  1584 net.cpp:122] Setting up BatchNorm19
I0929 09:26:45.771153  1584 net.cpp:129] Top shape: 100 16 28 28 (1254400)
I0929 09:26:45.771157  1584 net.cpp:137] Memory required for data: 502701200
I0929 09:26:45.771160  1584 layer_factory.hpp:77] Creating layer Scale19
I0929 09:26:45.771164  1584 net.cpp:84] Creating Layer Scale19
I0929 09:26:45.771167  1584 net.cpp:406] Scale19 <- Convolution19
I0929 09:26:45.771170  1584 net.cpp:367] Scale19 -> Convolution19 (in-place)
I0929 09:26:45.771196  1584 layer_factory.hpp:77] Creating layer Scale19
I0929 09:26:45.771272  1584 net.cpp:122] Setting up Scale19
I0929 09:26:45.771276  1584 net.cpp:129] Top shape: 100 16 28 28 (1254400)
I0929 09:26:45.771278  1584 net.cpp:137] Memory required for data: 507718800
I0929 09:26:45.771282  1584 layer_factory.hpp:77] Creating layer Eltwise9
I0929 09:26:45.771286  1584 net.cpp:84] Creating Layer Eltwise9
I0929 09:26:45.771289  1584 net.cpp:406] Eltwise9 <- Eltwise8_M2PELU17_0_split_1
I0929 09:26:45.771291  1584 net.cpp:406] Eltwise9 <- Convolution19
I0929 09:26:45.771294  1584 net.cpp:380] Eltwise9 -> Eltwise9
I0929 09:26:45.771309  1584 net.cpp:122] Setting up Eltwise9
I0929 09:26:45.771313  1584 net.cpp:129] Top shape: 100 16 28 28 (1254400)
I0929 09:26:45.771315  1584 net.cpp:137] Memory required for data: 512736400
I0929 09:26:45.771317  1584 layer_factory.hpp:77] Creating layer M2PELU19
I0929 09:26:45.771322  1584 net.cpp:84] Creating Layer M2PELU19
I0929 09:26:45.771324  1584 net.cpp:406] M2PELU19 <- Eltwise9
I0929 09:26:45.771327  1584 net.cpp:367] M2PELU19 -> Eltwise9 (in-place)
I0929 09:26:45.771409  1584 net.cpp:122] Setting up M2PELU19
I0929 09:26:45.771414  1584 net.cpp:129] Top shape: 100 16 28 28 (1254400)
I0929 09:26:45.771416  1584 net.cpp:137] Memory required for data: 517754000
I0929 09:26:45.771420  1584 layer_factory.hpp:77] Creating layer Eltwise9_M2PELU19_0_split
I0929 09:26:45.771423  1584 net.cpp:84] Creating Layer Eltwise9_M2PELU19_0_split
I0929 09:26:45.771425  1584 net.cpp:406] Eltwise9_M2PELU19_0_split <- Eltwise9
I0929 09:26:45.771428  1584 net.cpp:380] Eltwise9_M2PELU19_0_split -> Eltwise9_M2PELU19_0_split_0
I0929 09:26:45.771432  1584 net.cpp:380] Eltwise9_M2PELU19_0_split -> Eltwise9_M2PELU19_0_split_1
I0929 09:26:45.771455  1584 net.cpp:122] Setting up Eltwise9_M2PELU19_0_split
I0929 09:26:45.771457  1584 net.cpp:129] Top shape: 100 16 28 28 (1254400)
I0929 09:26:45.771461  1584 net.cpp:129] Top shape: 100 16 28 28 (1254400)
I0929 09:26:45.771462  1584 net.cpp:137] Memory required for data: 527789200
I0929 09:26:45.771464  1584 layer_factory.hpp:77] Creating layer Convolution20
I0929 09:26:45.771471  1584 net.cpp:84] Creating Layer Convolution20
I0929 09:26:45.771474  1584 net.cpp:406] Convolution20 <- Eltwise9_M2PELU19_0_split_0
I0929 09:26:45.771478  1584 net.cpp:380] Convolution20 -> Convolution20
I0929 09:26:45.771562  1584 filler.hpp:251] The std of weights in this layer is: 0.342997
I0929 09:26:45.772677  1584 net.cpp:122] Setting up Convolution20
I0929 09:26:45.772686  1584 net.cpp:129] Top shape: 100 32 14 14 (627200)
I0929 09:26:45.772688  1584 net.cpp:137] Memory required for data: 530298000
I0929 09:26:45.772693  1584 layer_factory.hpp:77] Creating layer BatchNorm20
I0929 09:26:45.772698  1584 net.cpp:84] Creating Layer BatchNorm20
I0929 09:26:45.772701  1584 net.cpp:406] BatchNorm20 <- Convolution20
I0929 09:26:45.772704  1584 net.cpp:367] BatchNorm20 -> Convolution20 (in-place)
I0929 09:26:45.772842  1584 net.cpp:122] Setting up BatchNorm20
I0929 09:26:45.772847  1584 net.cpp:129] Top shape: 100 32 14 14 (627200)
I0929 09:26:45.772850  1584 net.cpp:137] Memory required for data: 532806800
I0929 09:26:45.772853  1584 layer_factory.hpp:77] Creating layer Scale20
I0929 09:26:45.772857  1584 net.cpp:84] Creating Layer Scale20
I0929 09:26:45.772861  1584 net.cpp:406] Scale20 <- Convolution20
I0929 09:26:45.772863  1584 net.cpp:367] Scale20 -> Convolution20 (in-place)
I0929 09:26:45.772888  1584 layer_factory.hpp:77] Creating layer Scale20
I0929 09:26:45.772974  1584 net.cpp:122] Setting up Scale20
I0929 09:26:45.772982  1584 net.cpp:129] Top shape: 100 32 14 14 (627200)
I0929 09:26:45.772985  1584 net.cpp:137] Memory required for data: 535315600
I0929 09:26:45.772992  1584 layer_factory.hpp:77] Creating layer Convolution21
I0929 09:26:45.773001  1584 net.cpp:84] Creating Layer Convolution21
I0929 09:26:45.773005  1584 net.cpp:406] Convolution21 <- Eltwise9_M2PELU19_0_split_1
I0929 09:26:45.773008  1584 net.cpp:380] Convolution21 -> Convolution21
I0929 09:26:45.773100  1584 filler.hpp:251] The std of weights in this layer is: 0.114332
I0929 09:26:45.775002  1584 net.cpp:122] Setting up Convolution21
I0929 09:26:45.775010  1584 net.cpp:129] Top shape: 100 32 14 14 (627200)
I0929 09:26:45.775012  1584 net.cpp:137] Memory required for data: 537824400
I0929 09:26:45.775017  1584 layer_factory.hpp:77] Creating layer BatchNorm21
I0929 09:26:45.775022  1584 net.cpp:84] Creating Layer BatchNorm21
I0929 09:26:45.775025  1584 net.cpp:406] BatchNorm21 <- Convolution21
I0929 09:26:45.775029  1584 net.cpp:367] BatchNorm21 -> Convolution21 (in-place)
I0929 09:26:45.775167  1584 net.cpp:122] Setting up BatchNorm21
I0929 09:26:45.775171  1584 net.cpp:129] Top shape: 100 32 14 14 (627200)
I0929 09:26:45.775173  1584 net.cpp:137] Memory required for data: 540333200
I0929 09:26:45.775178  1584 layer_factory.hpp:77] Creating layer Scale21
I0929 09:26:45.775182  1584 net.cpp:84] Creating Layer Scale21
I0929 09:26:45.775185  1584 net.cpp:406] Scale21 <- Convolution21
I0929 09:26:45.775188  1584 net.cpp:367] Scale21 -> Convolution21 (in-place)
I0929 09:26:45.775214  1584 layer_factory.hpp:77] Creating layer Scale21
I0929 09:26:45.775313  1584 net.cpp:122] Setting up Scale21
I0929 09:26:45.775319  1584 net.cpp:129] Top shape: 100 32 14 14 (627200)
I0929 09:26:45.775321  1584 net.cpp:137] Memory required for data: 542842000
I0929 09:26:45.775326  1584 layer_factory.hpp:77] Creating layer M2PELU20
I0929 09:26:45.775331  1584 net.cpp:84] Creating Layer M2PELU20
I0929 09:26:45.775334  1584 net.cpp:406] M2PELU20 <- Convolution21
I0929 09:26:45.775338  1584 net.cpp:367] M2PELU20 -> Convolution21 (in-place)
I0929 09:26:45.775452  1584 net.cpp:122] Setting up M2PELU20
I0929 09:26:45.775460  1584 net.cpp:129] Top shape: 100 32 14 14 (627200)
I0929 09:26:45.775461  1584 net.cpp:137] Memory required for data: 545350800
I0929 09:26:45.775465  1584 layer_factory.hpp:77] Creating layer Convolution22
I0929 09:26:45.775473  1584 net.cpp:84] Creating Layer Convolution22
I0929 09:26:45.775476  1584 net.cpp:406] Convolution22 <- Convolution21
I0929 09:26:45.775480  1584 net.cpp:380] Convolution22 -> Convolution22
I0929 09:26:45.775565  1584 filler.hpp:251] The std of weights in this layer is: 0.0808452
I0929 09:26:45.776684  1584 net.cpp:122] Setting up Convolution22
I0929 09:26:45.776692  1584 net.cpp:129] Top shape: 100 32 14 14 (627200)
I0929 09:26:45.776703  1584 net.cpp:137] Memory required for data: 547859600
I0929 09:26:45.776708  1584 layer_factory.hpp:77] Creating layer BatchNorm22
I0929 09:26:45.776715  1584 net.cpp:84] Creating Layer BatchNorm22
I0929 09:26:45.776716  1584 net.cpp:406] BatchNorm22 <- Convolution22
I0929 09:26:45.776721  1584 net.cpp:367] BatchNorm22 -> Convolution22 (in-place)
I0929 09:26:45.776852  1584 net.cpp:122] Setting up BatchNorm22
I0929 09:26:45.776856  1584 net.cpp:129] Top shape: 100 32 14 14 (627200)
I0929 09:26:45.776859  1584 net.cpp:137] Memory required for data: 550368400
I0929 09:26:45.776863  1584 layer_factory.hpp:77] Creating layer Scale22
I0929 09:26:45.776868  1584 net.cpp:84] Creating Layer Scale22
I0929 09:26:45.776870  1584 net.cpp:406] Scale22 <- Convolution22
I0929 09:26:45.776873  1584 net.cpp:367] Scale22 -> Convolution22 (in-place)
I0929 09:26:45.776899  1584 layer_factory.hpp:77] Creating layer Scale22
I0929 09:26:45.776974  1584 net.cpp:122] Setting up Scale22
I0929 09:26:45.776978  1584 net.cpp:129] Top shape: 100 32 14 14 (627200)
I0929 09:26:45.776980  1584 net.cpp:137] Memory required for data: 552877200
I0929 09:26:45.776984  1584 layer_factory.hpp:77] Creating layer Eltwise10
I0929 09:26:45.776988  1584 net.cpp:84] Creating Layer Eltwise10
I0929 09:26:45.776990  1584 net.cpp:406] Eltwise10 <- Convolution20
I0929 09:26:45.776993  1584 net.cpp:406] Eltwise10 <- Convolution22
I0929 09:26:45.776998  1584 net.cpp:380] Eltwise10 -> Eltwise10
I0929 09:26:45.777012  1584 net.cpp:122] Setting up Eltwise10
I0929 09:26:45.777015  1584 net.cpp:129] Top shape: 100 32 14 14 (627200)
I0929 09:26:45.777017  1584 net.cpp:137] Memory required for data: 555386000
I0929 09:26:45.777019  1584 layer_factory.hpp:77] Creating layer M2PELU21
I0929 09:26:45.777024  1584 net.cpp:84] Creating Layer M2PELU21
I0929 09:26:45.777026  1584 net.cpp:406] M2PELU21 <- Eltwise10
I0929 09:26:45.777029  1584 net.cpp:367] M2PELU21 -> Eltwise10 (in-place)
I0929 09:26:45.777110  1584 net.cpp:122] Setting up M2PELU21
I0929 09:26:45.777114  1584 net.cpp:129] Top shape: 100 32 14 14 (627200)
I0929 09:26:45.777117  1584 net.cpp:137] Memory required for data: 557894800
I0929 09:26:45.777120  1584 layer_factory.hpp:77] Creating layer Eltwise10_M2PELU21_0_split
I0929 09:26:45.777124  1584 net.cpp:84] Creating Layer Eltwise10_M2PELU21_0_split
I0929 09:26:45.777127  1584 net.cpp:406] Eltwise10_M2PELU21_0_split <- Eltwise10
I0929 09:26:45.777130  1584 net.cpp:380] Eltwise10_M2PELU21_0_split -> Eltwise10_M2PELU21_0_split_0
I0929 09:26:45.777134  1584 net.cpp:380] Eltwise10_M2PELU21_0_split -> Eltwise10_M2PELU21_0_split_1
I0929 09:26:45.777156  1584 net.cpp:122] Setting up Eltwise10_M2PELU21_0_split
I0929 09:26:45.777160  1584 net.cpp:129] Top shape: 100 32 14 14 (627200)
I0929 09:26:45.777163  1584 net.cpp:129] Top shape: 100 32 14 14 (627200)
I0929 09:26:45.777165  1584 net.cpp:137] Memory required for data: 562912400
I0929 09:26:45.777168  1584 layer_factory.hpp:77] Creating layer Convolution23
I0929 09:26:45.777173  1584 net.cpp:84] Creating Layer Convolution23
I0929 09:26:45.777175  1584 net.cpp:406] Convolution23 <- Eltwise10_M2PELU21_0_split_0
I0929 09:26:45.777179  1584 net.cpp:380] Convolution23 -> Convolution23
I0929 09:26:45.777256  1584 filler.hpp:251] The std of weights in this layer is: 0.0808452
I0929 09:26:45.778514  1584 net.cpp:122] Setting up Convolution23
I0929 09:26:45.778537  1584 net.cpp:129] Top shape: 100 32 14 14 (627200)
I0929 09:26:45.778540  1584 net.cpp:137] Memory required for data: 565421200
I0929 09:26:45.778545  1584 layer_factory.hpp:77] Creating layer BatchNorm23
I0929 09:26:45.778550  1584 net.cpp:84] Creating Layer BatchNorm23
I0929 09:26:45.778553  1584 net.cpp:406] BatchNorm23 <- Convolution23
I0929 09:26:45.778556  1584 net.cpp:367] BatchNorm23 -> Convolution23 (in-place)
I0929 09:26:45.778702  1584 net.cpp:122] Setting up BatchNorm23
I0929 09:26:45.778707  1584 net.cpp:129] Top shape: 100 32 14 14 (627200)
I0929 09:26:45.778708  1584 net.cpp:137] Memory required for data: 567930000
I0929 09:26:45.778712  1584 layer_factory.hpp:77] Creating layer Scale23
I0929 09:26:45.778723  1584 net.cpp:84] Creating Layer Scale23
I0929 09:26:45.778726  1584 net.cpp:406] Scale23 <- Convolution23
I0929 09:26:45.778729  1584 net.cpp:367] Scale23 -> Convolution23 (in-place)
I0929 09:26:45.778758  1584 layer_factory.hpp:77] Creating layer Scale23
I0929 09:26:45.778833  1584 net.cpp:122] Setting up Scale23
I0929 09:26:45.778838  1584 net.cpp:129] Top shape: 100 32 14 14 (627200)
I0929 09:26:45.778841  1584 net.cpp:137] Memory required for data: 570438800
I0929 09:26:45.778844  1584 layer_factory.hpp:77] Creating layer M2PELU22
I0929 09:26:45.778849  1584 net.cpp:84] Creating Layer M2PELU22
I0929 09:26:45.778851  1584 net.cpp:406] M2PELU22 <- Convolution23
I0929 09:26:45.778856  1584 net.cpp:367] M2PELU22 -> Convolution23 (in-place)
I0929 09:26:45.778937  1584 net.cpp:122] Setting up M2PELU22
I0929 09:26:45.778941  1584 net.cpp:129] Top shape: 100 32 14 14 (627200)
I0929 09:26:45.778944  1584 net.cpp:137] Memory required for data: 572947600
I0929 09:26:45.778946  1584 layer_factory.hpp:77] Creating layer Convolution24
I0929 09:26:45.778954  1584 net.cpp:84] Creating Layer Convolution24
I0929 09:26:45.778955  1584 net.cpp:406] Convolution24 <- Convolution23
I0929 09:26:45.778960  1584 net.cpp:380] Convolution24 -> Convolution24
I0929 09:26:45.779037  1584 filler.hpp:251] The std of weights in this layer is: 0.0808452
I0929 09:26:45.779992  1584 net.cpp:122] Setting up Convolution24
I0929 09:26:45.780001  1584 net.cpp:129] Top shape: 100 32 14 14 (627200)
I0929 09:26:45.780004  1584 net.cpp:137] Memory required for data: 575456400
I0929 09:26:45.780009  1584 layer_factory.hpp:77] Creating layer BatchNorm24
I0929 09:26:45.780014  1584 net.cpp:84] Creating Layer BatchNorm24
I0929 09:26:45.780016  1584 net.cpp:406] BatchNorm24 <- Convolution24
I0929 09:26:45.780020  1584 net.cpp:367] BatchNorm24 -> Convolution24 (in-place)
I0929 09:26:45.780153  1584 net.cpp:122] Setting up BatchNorm24
I0929 09:26:45.780156  1584 net.cpp:129] Top shape: 100 32 14 14 (627200)
I0929 09:26:45.780158  1584 net.cpp:137] Memory required for data: 577965200
I0929 09:26:45.780164  1584 layer_factory.hpp:77] Creating layer Scale24
I0929 09:26:45.780167  1584 net.cpp:84] Creating Layer Scale24
I0929 09:26:45.780170  1584 net.cpp:406] Scale24 <- Convolution24
I0929 09:26:45.780174  1584 net.cpp:367] Scale24 -> Convolution24 (in-place)
I0929 09:26:45.780200  1584 layer_factory.hpp:77] Creating layer Scale24
I0929 09:26:45.780277  1584 net.cpp:122] Setting up Scale24
I0929 09:26:45.780280  1584 net.cpp:129] Top shape: 100 32 14 14 (627200)
I0929 09:26:45.780282  1584 net.cpp:137] Memory required for data: 580474000
I0929 09:26:45.780287  1584 layer_factory.hpp:77] Creating layer Eltwise11
I0929 09:26:45.780290  1584 net.cpp:84] Creating Layer Eltwise11
I0929 09:26:45.780293  1584 net.cpp:406] Eltwise11 <- Eltwise10_M2PELU21_0_split_1
I0929 09:26:45.780297  1584 net.cpp:406] Eltwise11 <- Convolution24
I0929 09:26:45.780299  1584 net.cpp:380] Eltwise11 -> Eltwise11
I0929 09:26:45.780314  1584 net.cpp:122] Setting up Eltwise11
I0929 09:26:45.780318  1584 net.cpp:129] Top shape: 100 32 14 14 (627200)
I0929 09:26:45.780320  1584 net.cpp:137] Memory required for data: 582982800
I0929 09:26:45.780323  1584 layer_factory.hpp:77] Creating layer M2PELU23
I0929 09:26:45.780328  1584 net.cpp:84] Creating Layer M2PELU23
I0929 09:26:45.780329  1584 net.cpp:406] M2PELU23 <- Eltwise11
I0929 09:26:45.780333  1584 net.cpp:367] M2PELU23 -> Eltwise11 (in-place)
I0929 09:26:45.780413  1584 net.cpp:122] Setting up M2PELU23
I0929 09:26:45.780417  1584 net.cpp:129] Top shape: 100 32 14 14 (627200)
I0929 09:26:45.780419  1584 net.cpp:137] Memory required for data: 585491600
I0929 09:26:45.780423  1584 layer_factory.hpp:77] Creating layer Eltwise11_M2PELU23_0_split
I0929 09:26:45.780427  1584 net.cpp:84] Creating Layer Eltwise11_M2PELU23_0_split
I0929 09:26:45.780429  1584 net.cpp:406] Eltwise11_M2PELU23_0_split <- Eltwise11
I0929 09:26:45.780432  1584 net.cpp:380] Eltwise11_M2PELU23_0_split -> Eltwise11_M2PELU23_0_split_0
I0929 09:26:45.780442  1584 net.cpp:380] Eltwise11_M2PELU23_0_split -> Eltwise11_M2PELU23_0_split_1
I0929 09:26:45.780467  1584 net.cpp:122] Setting up Eltwise11_M2PELU23_0_split
I0929 09:26:45.780470  1584 net.cpp:129] Top shape: 100 32 14 14 (627200)
I0929 09:26:45.780473  1584 net.cpp:129] Top shape: 100 32 14 14 (627200)
I0929 09:26:45.780475  1584 net.cpp:137] Memory required for data: 590509200
I0929 09:26:45.780478  1584 layer_factory.hpp:77] Creating layer Convolution25
I0929 09:26:45.780483  1584 net.cpp:84] Creating Layer Convolution25
I0929 09:26:45.780485  1584 net.cpp:406] Convolution25 <- Eltwise11_M2PELU23_0_split_0
I0929 09:26:45.780490  1584 net.cpp:380] Convolution25 -> Convolution25
I0929 09:26:45.780568  1584 filler.hpp:251] The std of weights in this layer is: 0.0808452
I0929 09:26:45.781523  1584 net.cpp:122] Setting up Convolution25
I0929 09:26:45.781532  1584 net.cpp:129] Top shape: 100 32 14 14 (627200)
I0929 09:26:45.781534  1584 net.cpp:137] Memory required for data: 593018000
I0929 09:26:45.781538  1584 layer_factory.hpp:77] Creating layer BatchNorm25
I0929 09:26:45.781543  1584 net.cpp:84] Creating Layer BatchNorm25
I0929 09:26:45.781546  1584 net.cpp:406] BatchNorm25 <- Convolution25
I0929 09:26:45.781549  1584 net.cpp:367] BatchNorm25 -> Convolution25 (in-place)
I0929 09:26:45.781682  1584 net.cpp:122] Setting up BatchNorm25
I0929 09:26:45.781687  1584 net.cpp:129] Top shape: 100 32 14 14 (627200)
I0929 09:26:45.781689  1584 net.cpp:137] Memory required for data: 595526800
I0929 09:26:45.781693  1584 layer_factory.hpp:77] Creating layer Scale25
I0929 09:26:45.781697  1584 net.cpp:84] Creating Layer Scale25
I0929 09:26:45.781700  1584 net.cpp:406] Scale25 <- Convolution25
I0929 09:26:45.781703  1584 net.cpp:367] Scale25 -> Convolution25 (in-place)
I0929 09:26:45.781729  1584 layer_factory.hpp:77] Creating layer Scale25
I0929 09:26:45.781803  1584 net.cpp:122] Setting up Scale25
I0929 09:26:45.781807  1584 net.cpp:129] Top shape: 100 32 14 14 (627200)
I0929 09:26:45.781810  1584 net.cpp:137] Memory required for data: 598035600
I0929 09:26:45.781813  1584 layer_factory.hpp:77] Creating layer M2PELU24
I0929 09:26:45.781818  1584 net.cpp:84] Creating Layer M2PELU24
I0929 09:26:45.781821  1584 net.cpp:406] M2PELU24 <- Convolution25
I0929 09:26:45.781823  1584 net.cpp:367] M2PELU24 -> Convolution25 (in-place)
I0929 09:26:45.781908  1584 net.cpp:122] Setting up M2PELU24
I0929 09:26:45.781911  1584 net.cpp:129] Top shape: 100 32 14 14 (627200)
I0929 09:26:45.781913  1584 net.cpp:137] Memory required for data: 600544400
I0929 09:26:45.781918  1584 layer_factory.hpp:77] Creating layer Convolution26
I0929 09:26:45.781924  1584 net.cpp:84] Creating Layer Convolution26
I0929 09:26:45.781925  1584 net.cpp:406] Convolution26 <- Convolution25
I0929 09:26:45.781930  1584 net.cpp:380] Convolution26 -> Convolution26
I0929 09:26:45.782009  1584 filler.hpp:251] The std of weights in this layer is: 0.0808452
I0929 09:26:45.782985  1584 net.cpp:122] Setting up Convolution26
I0929 09:26:45.782994  1584 net.cpp:129] Top shape: 100 32 14 14 (627200)
I0929 09:26:45.782996  1584 net.cpp:137] Memory required for data: 603053200
I0929 09:26:45.783001  1584 layer_factory.hpp:77] Creating layer BatchNorm26
I0929 09:26:45.783006  1584 net.cpp:84] Creating Layer BatchNorm26
I0929 09:26:45.783008  1584 net.cpp:406] BatchNorm26 <- Convolution26
I0929 09:26:45.783012  1584 net.cpp:367] BatchNorm26 -> Convolution26 (in-place)
I0929 09:26:45.783145  1584 net.cpp:122] Setting up BatchNorm26
I0929 09:26:45.783150  1584 net.cpp:129] Top shape: 100 32 14 14 (627200)
I0929 09:26:45.783152  1584 net.cpp:137] Memory required for data: 605562000
I0929 09:26:45.783157  1584 layer_factory.hpp:77] Creating layer Scale26
I0929 09:26:45.783161  1584 net.cpp:84] Creating Layer Scale26
I0929 09:26:45.783164  1584 net.cpp:406] Scale26 <- Convolution26
I0929 09:26:45.783167  1584 net.cpp:367] Scale26 -> Convolution26 (in-place)
I0929 09:26:45.783193  1584 layer_factory.hpp:77] Creating layer Scale26
I0929 09:26:45.783268  1584 net.cpp:122] Setting up Scale26
I0929 09:26:45.783278  1584 net.cpp:129] Top shape: 100 32 14 14 (627200)
I0929 09:26:45.783282  1584 net.cpp:137] Memory required for data: 608070800
I0929 09:26:45.783284  1584 layer_factory.hpp:77] Creating layer Eltwise12
I0929 09:26:45.783289  1584 net.cpp:84] Creating Layer Eltwise12
I0929 09:26:45.783293  1584 net.cpp:406] Eltwise12 <- Eltwise11_M2PELU23_0_split_1
I0929 09:26:45.783295  1584 net.cpp:406] Eltwise12 <- Convolution26
I0929 09:26:45.783298  1584 net.cpp:380] Eltwise12 -> Eltwise12
I0929 09:26:45.783315  1584 net.cpp:122] Setting up Eltwise12
I0929 09:26:45.783318  1584 net.cpp:129] Top shape: 100 32 14 14 (627200)
I0929 09:26:45.783320  1584 net.cpp:137] Memory required for data: 610579600
I0929 09:26:45.783323  1584 layer_factory.hpp:77] Creating layer M2PELU25
I0929 09:26:45.783327  1584 net.cpp:84] Creating Layer M2PELU25
I0929 09:26:45.783329  1584 net.cpp:406] M2PELU25 <- Eltwise12
I0929 09:26:45.783334  1584 net.cpp:367] M2PELU25 -> Eltwise12 (in-place)
I0929 09:26:45.783414  1584 net.cpp:122] Setting up M2PELU25
I0929 09:26:45.783419  1584 net.cpp:129] Top shape: 100 32 14 14 (627200)
I0929 09:26:45.783421  1584 net.cpp:137] Memory required for data: 613088400
I0929 09:26:45.783424  1584 layer_factory.hpp:77] Creating layer Eltwise12_M2PELU25_0_split
I0929 09:26:45.783437  1584 net.cpp:84] Creating Layer Eltwise12_M2PELU25_0_split
I0929 09:26:45.783438  1584 net.cpp:406] Eltwise12_M2PELU25_0_split <- Eltwise12
I0929 09:26:45.783442  1584 net.cpp:380] Eltwise12_M2PELU25_0_split -> Eltwise12_M2PELU25_0_split_0
I0929 09:26:45.783450  1584 net.cpp:380] Eltwise12_M2PELU25_0_split -> Eltwise12_M2PELU25_0_split_1
I0929 09:26:45.783474  1584 net.cpp:122] Setting up Eltwise12_M2PELU25_0_split
I0929 09:26:45.783479  1584 net.cpp:129] Top shape: 100 32 14 14 (627200)
I0929 09:26:45.783483  1584 net.cpp:129] Top shape: 100 32 14 14 (627200)
I0929 09:26:45.783483  1584 net.cpp:137] Memory required for data: 618106000
I0929 09:26:45.783486  1584 layer_factory.hpp:77] Creating layer Convolution27
I0929 09:26:45.783494  1584 net.cpp:84] Creating Layer Convolution27
I0929 09:26:45.783496  1584 net.cpp:406] Convolution27 <- Eltwise12_M2PELU25_0_split_0
I0929 09:26:45.783500  1584 net.cpp:380] Convolution27 -> Convolution27
I0929 09:26:45.783581  1584 filler.hpp:251] The std of weights in this layer is: 0.0808452
I0929 09:26:45.784221  1584 net.cpp:122] Setting up Convolution27
I0929 09:26:45.784229  1584 net.cpp:129] Top shape: 100 32 14 14 (627200)
I0929 09:26:45.784230  1584 net.cpp:137] Memory required for data: 620614800
I0929 09:26:45.784235  1584 layer_factory.hpp:77] Creating layer BatchNorm27
I0929 09:26:45.784240  1584 net.cpp:84] Creating Layer BatchNorm27
I0929 09:26:45.784243  1584 net.cpp:406] BatchNorm27 <- Convolution27
I0929 09:26:45.784246  1584 net.cpp:367] BatchNorm27 -> Convolution27 (in-place)
I0929 09:26:45.784379  1584 net.cpp:122] Setting up BatchNorm27
I0929 09:26:45.784384  1584 net.cpp:129] Top shape: 100 32 14 14 (627200)
I0929 09:26:45.784385  1584 net.cpp:137] Memory required for data: 623123600
I0929 09:26:45.784390  1584 layer_factory.hpp:77] Creating layer Scale27
I0929 09:26:45.784394  1584 net.cpp:84] Creating Layer Scale27
I0929 09:26:45.784396  1584 net.cpp:406] Scale27 <- Convolution27
I0929 09:26:45.784399  1584 net.cpp:367] Scale27 -> Convolution27 (in-place)
I0929 09:26:45.784425  1584 layer_factory.hpp:77] Creating layer Scale27
I0929 09:26:45.784499  1584 net.cpp:122] Setting up Scale27
I0929 09:26:45.784502  1584 net.cpp:129] Top shape: 100 32 14 14 (627200)
I0929 09:26:45.784504  1584 net.cpp:137] Memory required for data: 625632400
I0929 09:26:45.784508  1584 layer_factory.hpp:77] Creating layer M2PELU26
I0929 09:26:45.784513  1584 net.cpp:84] Creating Layer M2PELU26
I0929 09:26:45.784515  1584 net.cpp:406] M2PELU26 <- Convolution27
I0929 09:26:45.784518  1584 net.cpp:367] M2PELU26 -> Convolution27 (in-place)
I0929 09:26:45.784600  1584 net.cpp:122] Setting up M2PELU26
I0929 09:26:45.784603  1584 net.cpp:129] Top shape: 100 32 14 14 (627200)
I0929 09:26:45.784612  1584 net.cpp:137] Memory required for data: 628141200
I0929 09:26:45.784616  1584 layer_factory.hpp:77] Creating layer Convolution28
I0929 09:26:45.784623  1584 net.cpp:84] Creating Layer Convolution28
I0929 09:26:45.784626  1584 net.cpp:406] Convolution28 <- Convolution27
I0929 09:26:45.784629  1584 net.cpp:380] Convolution28 -> Convolution28
I0929 09:26:45.784711  1584 filler.hpp:251] The std of weights in this layer is: 0.0808452
I0929 09:26:45.785663  1584 net.cpp:122] Setting up Convolution28
I0929 09:26:45.785671  1584 net.cpp:129] Top shape: 100 32 14 14 (627200)
I0929 09:26:45.785676  1584 net.cpp:137] Memory required for data: 630650000
I0929 09:26:45.785681  1584 layer_factory.hpp:77] Creating layer BatchNorm28
I0929 09:26:45.785684  1584 net.cpp:84] Creating Layer BatchNorm28
I0929 09:26:45.785687  1584 net.cpp:406] BatchNorm28 <- Convolution28
I0929 09:26:45.785691  1584 net.cpp:367] BatchNorm28 -> Convolution28 (in-place)
I0929 09:26:45.785827  1584 net.cpp:122] Setting up BatchNorm28
I0929 09:26:45.785831  1584 net.cpp:129] Top shape: 100 32 14 14 (627200)
I0929 09:26:45.785833  1584 net.cpp:137] Memory required for data: 633158800
I0929 09:26:45.785838  1584 layer_factory.hpp:77] Creating layer Scale28
I0929 09:26:45.785842  1584 net.cpp:84] Creating Layer Scale28
I0929 09:26:45.785845  1584 net.cpp:406] Scale28 <- Convolution28
I0929 09:26:45.785847  1584 net.cpp:367] Scale28 -> Convolution28 (in-place)
I0929 09:26:45.785873  1584 layer_factory.hpp:77] Creating layer Scale28
I0929 09:26:45.785951  1584 net.cpp:122] Setting up Scale28
I0929 09:26:45.785955  1584 net.cpp:129] Top shape: 100 32 14 14 (627200)
I0929 09:26:45.785957  1584 net.cpp:137] Memory required for data: 635667600
I0929 09:26:45.785961  1584 layer_factory.hpp:77] Creating layer Eltwise13
I0929 09:26:45.785965  1584 net.cpp:84] Creating Layer Eltwise13
I0929 09:26:45.785967  1584 net.cpp:406] Eltwise13 <- Eltwise12_M2PELU25_0_split_1
I0929 09:26:45.785970  1584 net.cpp:406] Eltwise13 <- Convolution28
I0929 09:26:45.785974  1584 net.cpp:380] Eltwise13 -> Eltwise13
I0929 09:26:45.785989  1584 net.cpp:122] Setting up Eltwise13
I0929 09:26:45.785993  1584 net.cpp:129] Top shape: 100 32 14 14 (627200)
I0929 09:26:45.785995  1584 net.cpp:137] Memory required for data: 638176400
I0929 09:26:45.785997  1584 layer_factory.hpp:77] Creating layer M2PELU27
I0929 09:26:45.786002  1584 net.cpp:84] Creating Layer M2PELU27
I0929 09:26:45.786005  1584 net.cpp:406] M2PELU27 <- Eltwise13
I0929 09:26:45.786008  1584 net.cpp:367] M2PELU27 -> Eltwise13 (in-place)
I0929 09:26:45.786092  1584 net.cpp:122] Setting up M2PELU27
I0929 09:26:45.786095  1584 net.cpp:129] Top shape: 100 32 14 14 (627200)
I0929 09:26:45.786098  1584 net.cpp:137] Memory required for data: 640685200
I0929 09:26:45.786101  1584 layer_factory.hpp:77] Creating layer Eltwise13_M2PELU27_0_split
I0929 09:26:45.786105  1584 net.cpp:84] Creating Layer Eltwise13_M2PELU27_0_split
I0929 09:26:45.786108  1584 net.cpp:406] Eltwise13_M2PELU27_0_split <- Eltwise13
I0929 09:26:45.786111  1584 net.cpp:380] Eltwise13_M2PELU27_0_split -> Eltwise13_M2PELU27_0_split_0
I0929 09:26:45.786115  1584 net.cpp:380] Eltwise13_M2PELU27_0_split -> Eltwise13_M2PELU27_0_split_1
I0929 09:26:45.786139  1584 net.cpp:122] Setting up Eltwise13_M2PELU27_0_split
I0929 09:26:45.786142  1584 net.cpp:129] Top shape: 100 32 14 14 (627200)
I0929 09:26:45.786144  1584 net.cpp:129] Top shape: 100 32 14 14 (627200)
I0929 09:26:45.786146  1584 net.cpp:137] Memory required for data: 645702800
I0929 09:26:45.786149  1584 layer_factory.hpp:77] Creating layer Convolution29
I0929 09:26:45.786154  1584 net.cpp:84] Creating Layer Convolution29
I0929 09:26:45.786157  1584 net.cpp:406] Convolution29 <- Eltwise13_M2PELU27_0_split_0
I0929 09:26:45.786160  1584 net.cpp:380] Convolution29 -> Convolution29
I0929 09:26:45.786240  1584 filler.hpp:251] The std of weights in this layer is: 0.0808452
I0929 09:26:45.787215  1584 net.cpp:122] Setting up Convolution29
I0929 09:26:45.787225  1584 net.cpp:129] Top shape: 100 32 14 14 (627200)
I0929 09:26:45.787232  1584 net.cpp:137] Memory required for data: 648211600
I0929 09:26:45.787237  1584 layer_factory.hpp:77] Creating layer BatchNorm29
I0929 09:26:45.787243  1584 net.cpp:84] Creating Layer BatchNorm29
I0929 09:26:45.787246  1584 net.cpp:406] BatchNorm29 <- Convolution29
I0929 09:26:45.787250  1584 net.cpp:367] BatchNorm29 -> Convolution29 (in-place)
I0929 09:26:45.787384  1584 net.cpp:122] Setting up BatchNorm29
I0929 09:26:45.787389  1584 net.cpp:129] Top shape: 100 32 14 14 (627200)
I0929 09:26:45.787391  1584 net.cpp:137] Memory required for data: 650720400
I0929 09:26:45.787395  1584 layer_factory.hpp:77] Creating layer Scale29
I0929 09:26:45.787400  1584 net.cpp:84] Creating Layer Scale29
I0929 09:26:45.787403  1584 net.cpp:406] Scale29 <- Convolution29
I0929 09:26:45.787406  1584 net.cpp:367] Scale29 -> Convolution29 (in-place)
I0929 09:26:45.787432  1584 layer_factory.hpp:77] Creating layer Scale29
I0929 09:26:45.787511  1584 net.cpp:122] Setting up Scale29
I0929 09:26:45.787515  1584 net.cpp:129] Top shape: 100 32 14 14 (627200)
I0929 09:26:45.787518  1584 net.cpp:137] Memory required for data: 653229200
I0929 09:26:45.787536  1584 layer_factory.hpp:77] Creating layer M2PELU28
I0929 09:26:45.787542  1584 net.cpp:84] Creating Layer M2PELU28
I0929 09:26:45.787545  1584 net.cpp:406] M2PELU28 <- Convolution29
I0929 09:26:45.787549  1584 net.cpp:367] M2PELU28 -> Convolution29 (in-place)
I0929 09:26:45.787633  1584 net.cpp:122] Setting up M2PELU28
I0929 09:26:45.787638  1584 net.cpp:129] Top shape: 100 32 14 14 (627200)
I0929 09:26:45.787641  1584 net.cpp:137] Memory required for data: 655738000
I0929 09:26:45.787643  1584 layer_factory.hpp:77] Creating layer Convolution30
I0929 09:26:45.787650  1584 net.cpp:84] Creating Layer Convolution30
I0929 09:26:45.787653  1584 net.cpp:406] Convolution30 <- Convolution29
I0929 09:26:45.787657  1584 net.cpp:380] Convolution30 -> Convolution30
I0929 09:26:45.787739  1584 filler.hpp:251] The std of weights in this layer is: 0.0808452
I0929 09:26:45.788693  1584 net.cpp:122] Setting up Convolution30
I0929 09:26:45.788702  1584 net.cpp:129] Top shape: 100 32 14 14 (627200)
I0929 09:26:45.788704  1584 net.cpp:137] Memory required for data: 658246800
I0929 09:26:45.788708  1584 layer_factory.hpp:77] Creating layer BatchNorm30
I0929 09:26:45.788714  1584 net.cpp:84] Creating Layer BatchNorm30
I0929 09:26:45.788717  1584 net.cpp:406] BatchNorm30 <- Convolution30
I0929 09:26:45.788722  1584 net.cpp:367] BatchNorm30 -> Convolution30 (in-place)
I0929 09:26:45.788856  1584 net.cpp:122] Setting up BatchNorm30
I0929 09:26:45.788859  1584 net.cpp:129] Top shape: 100 32 14 14 (627200)
I0929 09:26:45.788861  1584 net.cpp:137] Memory required for data: 660755600
I0929 09:26:45.788866  1584 layer_factory.hpp:77] Creating layer Scale30
I0929 09:26:45.788871  1584 net.cpp:84] Creating Layer Scale30
I0929 09:26:45.788873  1584 net.cpp:406] Scale30 <- Convolution30
I0929 09:26:45.788877  1584 net.cpp:367] Scale30 -> Convolution30 (in-place)
I0929 09:26:45.788902  1584 layer_factory.hpp:77] Creating layer Scale30
I0929 09:26:45.788980  1584 net.cpp:122] Setting up Scale30
I0929 09:26:45.788983  1584 net.cpp:129] Top shape: 100 32 14 14 (627200)
I0929 09:26:45.788985  1584 net.cpp:137] Memory required for data: 663264400
I0929 09:26:45.788988  1584 layer_factory.hpp:77] Creating layer Eltwise14
I0929 09:26:45.788995  1584 net.cpp:84] Creating Layer Eltwise14
I0929 09:26:45.788997  1584 net.cpp:406] Eltwise14 <- Eltwise13_M2PELU27_0_split_1
I0929 09:26:45.789000  1584 net.cpp:406] Eltwise14 <- Convolution30
I0929 09:26:45.789003  1584 net.cpp:380] Eltwise14 -> Eltwise14
I0929 09:26:45.789018  1584 net.cpp:122] Setting up Eltwise14
I0929 09:26:45.789022  1584 net.cpp:129] Top shape: 100 32 14 14 (627200)
I0929 09:26:45.789024  1584 net.cpp:137] Memory required for data: 665773200
I0929 09:26:45.789026  1584 layer_factory.hpp:77] Creating layer M2PELU29
I0929 09:26:45.789031  1584 net.cpp:84] Creating Layer M2PELU29
I0929 09:26:45.789033  1584 net.cpp:406] M2PELU29 <- Eltwise14
I0929 09:26:45.789042  1584 net.cpp:367] M2PELU29 -> Eltwise14 (in-place)
I0929 09:26:45.789129  1584 net.cpp:122] Setting up M2PELU29
I0929 09:26:45.789132  1584 net.cpp:129] Top shape: 100 32 14 14 (627200)
I0929 09:26:45.789134  1584 net.cpp:137] Memory required for data: 668282000
I0929 09:26:45.789139  1584 layer_factory.hpp:77] Creating layer Eltwise14_M2PELU29_0_split
I0929 09:26:45.789141  1584 net.cpp:84] Creating Layer Eltwise14_M2PELU29_0_split
I0929 09:26:45.789144  1584 net.cpp:406] Eltwise14_M2PELU29_0_split <- Eltwise14
I0929 09:26:45.789147  1584 net.cpp:380] Eltwise14_M2PELU29_0_split -> Eltwise14_M2PELU29_0_split_0
I0929 09:26:45.789151  1584 net.cpp:380] Eltwise14_M2PELU29_0_split -> Eltwise14_M2PELU29_0_split_1
I0929 09:26:45.789175  1584 net.cpp:122] Setting up Eltwise14_M2PELU29_0_split
I0929 09:26:45.789177  1584 net.cpp:129] Top shape: 100 32 14 14 (627200)
I0929 09:26:45.789180  1584 net.cpp:129] Top shape: 100 32 14 14 (627200)
I0929 09:26:45.789182  1584 net.cpp:137] Memory required for data: 673299600
I0929 09:26:45.789185  1584 layer_factory.hpp:77] Creating layer Convolution31
I0929 09:26:45.789191  1584 net.cpp:84] Creating Layer Convolution31
I0929 09:26:45.789192  1584 net.cpp:406] Convolution31 <- Eltwise14_M2PELU29_0_split_0
I0929 09:26:45.789196  1584 net.cpp:380] Convolution31 -> Convolution31
I0929 09:26:45.789276  1584 filler.hpp:251] The std of weights in this layer is: 0.0808452
I0929 09:26:45.790233  1584 net.cpp:122] Setting up Convolution31
I0929 09:26:45.790241  1584 net.cpp:129] Top shape: 100 32 14 14 (627200)
I0929 09:26:45.790244  1584 net.cpp:137] Memory required for data: 675808400
I0929 09:26:45.790248  1584 layer_factory.hpp:77] Creating layer BatchNorm31
I0929 09:26:45.790253  1584 net.cpp:84] Creating Layer BatchNorm31
I0929 09:26:45.790256  1584 net.cpp:406] BatchNorm31 <- Convolution31
I0929 09:26:45.790261  1584 net.cpp:367] BatchNorm31 -> Convolution31 (in-place)
I0929 09:26:45.790395  1584 net.cpp:122] Setting up BatchNorm31
I0929 09:26:45.790398  1584 net.cpp:129] Top shape: 100 32 14 14 (627200)
I0929 09:26:45.790400  1584 net.cpp:137] Memory required for data: 678317200
I0929 09:26:45.790405  1584 layer_factory.hpp:77] Creating layer Scale31
I0929 09:26:45.790410  1584 net.cpp:84] Creating Layer Scale31
I0929 09:26:45.790411  1584 net.cpp:406] Scale31 <- Convolution31
I0929 09:26:45.790416  1584 net.cpp:367] Scale31 -> Convolution31 (in-place)
I0929 09:26:45.790441  1584 layer_factory.hpp:77] Creating layer Scale31
I0929 09:26:45.790518  1584 net.cpp:122] Setting up Scale31
I0929 09:26:45.790537  1584 net.cpp:129] Top shape: 100 32 14 14 (627200)
I0929 09:26:45.790539  1584 net.cpp:137] Memory required for data: 680826000
I0929 09:26:45.790544  1584 layer_factory.hpp:77] Creating layer M2PELU30
I0929 09:26:45.790549  1584 net.cpp:84] Creating Layer M2PELU30
I0929 09:26:45.790551  1584 net.cpp:406] M2PELU30 <- Convolution31
I0929 09:26:45.790563  1584 net.cpp:367] M2PELU30 -> Convolution31 (in-place)
I0929 09:26:45.790650  1584 net.cpp:122] Setting up M2PELU30
I0929 09:26:45.790654  1584 net.cpp:129] Top shape: 100 32 14 14 (627200)
I0929 09:26:45.790657  1584 net.cpp:137] Memory required for data: 683334800
I0929 09:26:45.790659  1584 layer_factory.hpp:77] Creating layer Convolution32
I0929 09:26:45.790668  1584 net.cpp:84] Creating Layer Convolution32
I0929 09:26:45.790669  1584 net.cpp:406] Convolution32 <- Convolution31
I0929 09:26:45.790673  1584 net.cpp:380] Convolution32 -> Convolution32
I0929 09:26:45.790755  1584 filler.hpp:251] The std of weights in this layer is: 0.0808452
I0929 09:26:45.791710  1584 net.cpp:122] Setting up Convolution32
I0929 09:26:45.791719  1584 net.cpp:129] Top shape: 100 32 14 14 (627200)
I0929 09:26:45.791721  1584 net.cpp:137] Memory required for data: 685843600
I0929 09:26:45.791726  1584 layer_factory.hpp:77] Creating layer BatchNorm32
I0929 09:26:45.791731  1584 net.cpp:84] Creating Layer BatchNorm32
I0929 09:26:45.791734  1584 net.cpp:406] BatchNorm32 <- Convolution32
I0929 09:26:45.791738  1584 net.cpp:367] BatchNorm32 -> Convolution32 (in-place)
I0929 09:26:45.791877  1584 net.cpp:122] Setting up BatchNorm32
I0929 09:26:45.791882  1584 net.cpp:129] Top shape: 100 32 14 14 (627200)
I0929 09:26:45.791883  1584 net.cpp:137] Memory required for data: 688352400
I0929 09:26:45.791889  1584 layer_factory.hpp:77] Creating layer Scale32
I0929 09:26:45.791893  1584 net.cpp:84] Creating Layer Scale32
I0929 09:26:45.791895  1584 net.cpp:406] Scale32 <- Convolution32
I0929 09:26:45.791898  1584 net.cpp:367] Scale32 -> Convolution32 (in-place)
I0929 09:26:45.791925  1584 layer_factory.hpp:77] Creating layer Scale32
I0929 09:26:45.792001  1584 net.cpp:122] Setting up Scale32
I0929 09:26:45.792004  1584 net.cpp:129] Top shape: 100 32 14 14 (627200)
I0929 09:26:45.792006  1584 net.cpp:137] Memory required for data: 690861200
I0929 09:26:45.792011  1584 layer_factory.hpp:77] Creating layer Eltwise15
I0929 09:26:45.792014  1584 net.cpp:84] Creating Layer Eltwise15
I0929 09:26:45.792017  1584 net.cpp:406] Eltwise15 <- Eltwise14_M2PELU29_0_split_1
I0929 09:26:45.792019  1584 net.cpp:406] Eltwise15 <- Convolution32
I0929 09:26:45.792023  1584 net.cpp:380] Eltwise15 -> Eltwise15
I0929 09:26:45.792038  1584 net.cpp:122] Setting up Eltwise15
I0929 09:26:45.792042  1584 net.cpp:129] Top shape: 100 32 14 14 (627200)
I0929 09:26:45.792043  1584 net.cpp:137] Memory required for data: 693370000
I0929 09:26:45.792047  1584 layer_factory.hpp:77] Creating layer M2PELU31
I0929 09:26:45.792050  1584 net.cpp:84] Creating Layer M2PELU31
I0929 09:26:45.792053  1584 net.cpp:406] M2PELU31 <- Eltwise15
I0929 09:26:45.792057  1584 net.cpp:367] M2PELU31 -> Eltwise15 (in-place)
I0929 09:26:45.792140  1584 net.cpp:122] Setting up M2PELU31
I0929 09:26:45.792143  1584 net.cpp:129] Top shape: 100 32 14 14 (627200)
I0929 09:26:45.792145  1584 net.cpp:137] Memory required for data: 695878800
I0929 09:26:45.792148  1584 layer_factory.hpp:77] Creating layer Eltwise15_M2PELU31_0_split
I0929 09:26:45.792153  1584 net.cpp:84] Creating Layer Eltwise15_M2PELU31_0_split
I0929 09:26:45.792155  1584 net.cpp:406] Eltwise15_M2PELU31_0_split <- Eltwise15
I0929 09:26:45.792158  1584 net.cpp:380] Eltwise15_M2PELU31_0_split -> Eltwise15_M2PELU31_0_split_0
I0929 09:26:45.792162  1584 net.cpp:380] Eltwise15_M2PELU31_0_split -> Eltwise15_M2PELU31_0_split_1
I0929 09:26:45.792186  1584 net.cpp:122] Setting up Eltwise15_M2PELU31_0_split
I0929 09:26:45.792189  1584 net.cpp:129] Top shape: 100 32 14 14 (627200)
I0929 09:26:45.792191  1584 net.cpp:129] Top shape: 100 32 14 14 (627200)
I0929 09:26:45.792193  1584 net.cpp:137] Memory required for data: 700896400
I0929 09:26:45.792196  1584 layer_factory.hpp:77] Creating layer Convolution33
I0929 09:26:45.792202  1584 net.cpp:84] Creating Layer Convolution33
I0929 09:26:45.792204  1584 net.cpp:406] Convolution33 <- Eltwise15_M2PELU31_0_split_0
I0929 09:26:45.792208  1584 net.cpp:380] Convolution33 -> Convolution33
I0929 09:26:45.792289  1584 filler.hpp:251] The std of weights in this layer is: 0.0808452
I0929 09:26:45.793560  1584 net.cpp:122] Setting up Convolution33
I0929 09:26:45.793567  1584 net.cpp:129] Top shape: 100 32 14 14 (627200)
I0929 09:26:45.793570  1584 net.cpp:137] Memory required for data: 703405200
I0929 09:26:45.793575  1584 layer_factory.hpp:77] Creating layer BatchNorm33
I0929 09:26:45.793581  1584 net.cpp:84] Creating Layer BatchNorm33
I0929 09:26:45.793582  1584 net.cpp:406] BatchNorm33 <- Convolution33
I0929 09:26:45.793586  1584 net.cpp:367] BatchNorm33 -> Convolution33 (in-place)
I0929 09:26:45.793727  1584 net.cpp:122] Setting up BatchNorm33
I0929 09:26:45.793732  1584 net.cpp:129] Top shape: 100 32 14 14 (627200)
I0929 09:26:45.793735  1584 net.cpp:137] Memory required for data: 705914000
I0929 09:26:45.793740  1584 layer_factory.hpp:77] Creating layer Scale33
I0929 09:26:45.793743  1584 net.cpp:84] Creating Layer Scale33
I0929 09:26:45.793745  1584 net.cpp:406] Scale33 <- Convolution33
I0929 09:26:45.793748  1584 net.cpp:367] Scale33 -> Convolution33 (in-place)
I0929 09:26:45.793776  1584 layer_factory.hpp:77] Creating layer Scale33
I0929 09:26:45.793861  1584 net.cpp:122] Setting up Scale33
I0929 09:26:45.793866  1584 net.cpp:129] Top shape: 100 32 14 14 (627200)
I0929 09:26:45.793869  1584 net.cpp:137] Memory required for data: 708422800
I0929 09:26:45.793872  1584 layer_factory.hpp:77] Creating layer M2PELU32
I0929 09:26:45.793877  1584 net.cpp:84] Creating Layer M2PELU32
I0929 09:26:45.793880  1584 net.cpp:406] M2PELU32 <- Convolution33
I0929 09:26:45.793884  1584 net.cpp:367] M2PELU32 -> Convolution33 (in-place)
I0929 09:26:45.793967  1584 net.cpp:122] Setting up M2PELU32
I0929 09:26:45.793970  1584 net.cpp:129] Top shape: 100 32 14 14 (627200)
I0929 09:26:45.793972  1584 net.cpp:137] Memory required for data: 710931600
I0929 09:26:45.793975  1584 layer_factory.hpp:77] Creating layer Convolution34
I0929 09:26:45.793982  1584 net.cpp:84] Creating Layer Convolution34
I0929 09:26:45.793984  1584 net.cpp:406] Convolution34 <- Convolution33
I0929 09:26:45.793989  1584 net.cpp:380] Convolution34 -> Convolution34
I0929 09:26:45.794070  1584 filler.hpp:251] The std of weights in this layer is: 0.0808452
I0929 09:26:45.795063  1584 net.cpp:122] Setting up Convolution34
I0929 09:26:45.795071  1584 net.cpp:129] Top shape: 100 32 14 14 (627200)
I0929 09:26:45.795074  1584 net.cpp:137] Memory required for data: 713440400
I0929 09:26:45.795078  1584 layer_factory.hpp:77] Creating layer BatchNorm34
I0929 09:26:45.795084  1584 net.cpp:84] Creating Layer BatchNorm34
I0929 09:26:45.795087  1584 net.cpp:406] BatchNorm34 <- Convolution34
I0929 09:26:45.795090  1584 net.cpp:367] BatchNorm34 -> Convolution34 (in-place)
I0929 09:26:45.795228  1584 net.cpp:122] Setting up BatchNorm34
I0929 09:26:45.795231  1584 net.cpp:129] Top shape: 100 32 14 14 (627200)
I0929 09:26:45.795233  1584 net.cpp:137] Memory required for data: 715949200
I0929 09:26:45.795238  1584 layer_factory.hpp:77] Creating layer Scale34
I0929 09:26:45.795241  1584 net.cpp:84] Creating Layer Scale34
I0929 09:26:45.795244  1584 net.cpp:406] Scale34 <- Convolution34
I0929 09:26:45.795248  1584 net.cpp:367] Scale34 -> Convolution34 (in-place)
I0929 09:26:45.795274  1584 layer_factory.hpp:77] Creating layer Scale34
I0929 09:26:45.795349  1584 net.cpp:122] Setting up Scale34
I0929 09:26:45.795353  1584 net.cpp:129] Top shape: 100 32 14 14 (627200)
I0929 09:26:45.795356  1584 net.cpp:137] Memory required for data: 718458000
I0929 09:26:45.795359  1584 layer_factory.hpp:77] Creating layer Eltwise16
I0929 09:26:45.795363  1584 net.cpp:84] Creating Layer Eltwise16
I0929 09:26:45.795366  1584 net.cpp:406] Eltwise16 <- Eltwise15_M2PELU31_0_split_1
I0929 09:26:45.795368  1584 net.cpp:406] Eltwise16 <- Convolution34
I0929 09:26:45.795373  1584 net.cpp:380] Eltwise16 -> Eltwise16
I0929 09:26:45.795390  1584 net.cpp:122] Setting up Eltwise16
I0929 09:26:45.795393  1584 net.cpp:129] Top shape: 100 32 14 14 (627200)
I0929 09:26:45.795395  1584 net.cpp:137] Memory required for data: 720966800
I0929 09:26:45.795397  1584 layer_factory.hpp:77] Creating layer M2PELU33
I0929 09:26:45.795403  1584 net.cpp:84] Creating Layer M2PELU33
I0929 09:26:45.795404  1584 net.cpp:406] M2PELU33 <- Eltwise16
I0929 09:26:45.795408  1584 net.cpp:367] M2PELU33 -> Eltwise16 (in-place)
I0929 09:26:45.795491  1584 net.cpp:122] Setting up M2PELU33
I0929 09:26:45.795495  1584 net.cpp:129] Top shape: 100 32 14 14 (627200)
I0929 09:26:45.795497  1584 net.cpp:137] Memory required for data: 723475600
I0929 09:26:45.795501  1584 layer_factory.hpp:77] Creating layer Eltwise16_M2PELU33_0_split
I0929 09:26:45.795506  1584 net.cpp:84] Creating Layer Eltwise16_M2PELU33_0_split
I0929 09:26:45.795507  1584 net.cpp:406] Eltwise16_M2PELU33_0_split <- Eltwise16
I0929 09:26:45.795511  1584 net.cpp:380] Eltwise16_M2PELU33_0_split -> Eltwise16_M2PELU33_0_split_0
I0929 09:26:45.795514  1584 net.cpp:380] Eltwise16_M2PELU33_0_split -> Eltwise16_M2PELU33_0_split_1
I0929 09:26:45.795537  1584 net.cpp:122] Setting up Eltwise16_M2PELU33_0_split
I0929 09:26:45.795542  1584 net.cpp:129] Top shape: 100 32 14 14 (627200)
I0929 09:26:45.795544  1584 net.cpp:129] Top shape: 100 32 14 14 (627200)
I0929 09:26:45.795552  1584 net.cpp:137] Memory required for data: 728493200
I0929 09:26:45.795554  1584 layer_factory.hpp:77] Creating layer Convolution35
I0929 09:26:45.795560  1584 net.cpp:84] Creating Layer Convolution35
I0929 09:26:45.795562  1584 net.cpp:406] Convolution35 <- Eltwise16_M2PELU33_0_split_0
I0929 09:26:45.795567  1584 net.cpp:380] Convolution35 -> Convolution35
I0929 09:26:45.795647  1584 filler.hpp:251] The std of weights in this layer is: 0.0808452
I0929 09:26:45.796608  1584 net.cpp:122] Setting up Convolution35
I0929 09:26:45.796617  1584 net.cpp:129] Top shape: 100 32 14 14 (627200)
I0929 09:26:45.796618  1584 net.cpp:137] Memory required for data: 731002000
I0929 09:26:45.796623  1584 layer_factory.hpp:77] Creating layer BatchNorm35
I0929 09:26:45.796628  1584 net.cpp:84] Creating Layer BatchNorm35
I0929 09:26:45.796630  1584 net.cpp:406] BatchNorm35 <- Convolution35
I0929 09:26:45.796634  1584 net.cpp:367] BatchNorm35 -> Convolution35 (in-place)
I0929 09:26:45.796771  1584 net.cpp:122] Setting up BatchNorm35
I0929 09:26:45.796774  1584 net.cpp:129] Top shape: 100 32 14 14 (627200)
I0929 09:26:45.796777  1584 net.cpp:137] Memory required for data: 733510800
I0929 09:26:45.796780  1584 layer_factory.hpp:77] Creating layer Scale35
I0929 09:26:45.796784  1584 net.cpp:84] Creating Layer Scale35
I0929 09:26:45.796787  1584 net.cpp:406] Scale35 <- Convolution35
I0929 09:26:45.796790  1584 net.cpp:367] Scale35 -> Convolution35 (in-place)
I0929 09:26:45.796818  1584 layer_factory.hpp:77] Creating layer Scale35
I0929 09:26:45.796893  1584 net.cpp:122] Setting up Scale35
I0929 09:26:45.796898  1584 net.cpp:129] Top shape: 100 32 14 14 (627200)
I0929 09:26:45.796900  1584 net.cpp:137] Memory required for data: 736019600
I0929 09:26:45.796905  1584 layer_factory.hpp:77] Creating layer M2PELU34
I0929 09:26:45.796908  1584 net.cpp:84] Creating Layer M2PELU34
I0929 09:26:45.796911  1584 net.cpp:406] M2PELU34 <- Convolution35
I0929 09:26:45.796916  1584 net.cpp:367] M2PELU34 -> Convolution35 (in-place)
I0929 09:26:45.797000  1584 net.cpp:122] Setting up M2PELU34
I0929 09:26:45.797004  1584 net.cpp:129] Top shape: 100 32 14 14 (627200)
I0929 09:26:45.797006  1584 net.cpp:137] Memory required for data: 738528400
I0929 09:26:45.797010  1584 layer_factory.hpp:77] Creating layer Convolution36
I0929 09:26:45.797016  1584 net.cpp:84] Creating Layer Convolution36
I0929 09:26:45.797019  1584 net.cpp:406] Convolution36 <- Convolution35
I0929 09:26:45.797024  1584 net.cpp:380] Convolution36 -> Convolution36
I0929 09:26:45.797103  1584 filler.hpp:251] The std of weights in this layer is: 0.0808452
I0929 09:26:45.798064  1584 net.cpp:122] Setting up Convolution36
I0929 09:26:45.798072  1584 net.cpp:129] Top shape: 100 32 14 14 (627200)
I0929 09:26:45.798074  1584 net.cpp:137] Memory required for data: 741037200
I0929 09:26:45.798079  1584 layer_factory.hpp:77] Creating layer BatchNorm36
I0929 09:26:45.798084  1584 net.cpp:84] Creating Layer BatchNorm36
I0929 09:26:45.798087  1584 net.cpp:406] BatchNorm36 <- Convolution36
I0929 09:26:45.798090  1584 net.cpp:367] BatchNorm36 -> Convolution36 (in-place)
I0929 09:26:45.798226  1584 net.cpp:122] Setting up BatchNorm36
I0929 09:26:45.798231  1584 net.cpp:129] Top shape: 100 32 14 14 (627200)
I0929 09:26:45.798233  1584 net.cpp:137] Memory required for data: 743546000
I0929 09:26:45.798238  1584 layer_factory.hpp:77] Creating layer Scale36
I0929 09:26:45.798241  1584 net.cpp:84] Creating Layer Scale36
I0929 09:26:45.798244  1584 net.cpp:406] Scale36 <- Convolution36
I0929 09:26:45.798247  1584 net.cpp:367] Scale36 -> Convolution36 (in-place)
I0929 09:26:45.798274  1584 layer_factory.hpp:77] Creating layer Scale36
I0929 09:26:45.798351  1584 net.cpp:122] Setting up Scale36
I0929 09:26:45.798354  1584 net.cpp:129] Top shape: 100 32 14 14 (627200)
I0929 09:26:45.798357  1584 net.cpp:137] Memory required for data: 746054800
I0929 09:26:45.798359  1584 layer_factory.hpp:77] Creating layer Eltwise17
I0929 09:26:45.798363  1584 net.cpp:84] Creating Layer Eltwise17
I0929 09:26:45.798372  1584 net.cpp:406] Eltwise17 <- Eltwise16_M2PELU33_0_split_1
I0929 09:26:45.798375  1584 net.cpp:406] Eltwise17 <- Convolution36
I0929 09:26:45.798379  1584 net.cpp:380] Eltwise17 -> Eltwise17
I0929 09:26:45.798398  1584 net.cpp:122] Setting up Eltwise17
I0929 09:26:45.798400  1584 net.cpp:129] Top shape: 100 32 14 14 (627200)
I0929 09:26:45.798403  1584 net.cpp:137] Memory required for data: 748563600
I0929 09:26:45.798404  1584 layer_factory.hpp:77] Creating layer M2PELU35
I0929 09:26:45.798409  1584 net.cpp:84] Creating Layer M2PELU35
I0929 09:26:45.798411  1584 net.cpp:406] M2PELU35 <- Eltwise17
I0929 09:26:45.798415  1584 net.cpp:367] M2PELU35 -> Eltwise17 (in-place)
I0929 09:26:45.798501  1584 net.cpp:122] Setting up M2PELU35
I0929 09:26:45.798504  1584 net.cpp:129] Top shape: 100 32 14 14 (627200)
I0929 09:26:45.798506  1584 net.cpp:137] Memory required for data: 751072400
I0929 09:26:45.798511  1584 layer_factory.hpp:77] Creating layer Eltwise17_M2PELU35_0_split
I0929 09:26:45.798514  1584 net.cpp:84] Creating Layer Eltwise17_M2PELU35_0_split
I0929 09:26:45.798517  1584 net.cpp:406] Eltwise17_M2PELU35_0_split <- Eltwise17
I0929 09:26:45.798535  1584 net.cpp:380] Eltwise17_M2PELU35_0_split -> Eltwise17_M2PELU35_0_split_0
I0929 09:26:45.798540  1584 net.cpp:380] Eltwise17_M2PELU35_0_split -> Eltwise17_M2PELU35_0_split_1
I0929 09:26:45.798576  1584 net.cpp:122] Setting up Eltwise17_M2PELU35_0_split
I0929 09:26:45.798580  1584 net.cpp:129] Top shape: 100 32 14 14 (627200)
I0929 09:26:45.798583  1584 net.cpp:129] Top shape: 100 32 14 14 (627200)
I0929 09:26:45.798585  1584 net.cpp:137] Memory required for data: 756090000
I0929 09:26:45.798588  1584 layer_factory.hpp:77] Creating layer Convolution37
I0929 09:26:45.798593  1584 net.cpp:84] Creating Layer Convolution37
I0929 09:26:45.798595  1584 net.cpp:406] Convolution37 <- Eltwise17_M2PELU35_0_split_0
I0929 09:26:45.798599  1584 net.cpp:380] Convolution37 -> Convolution37
I0929 09:26:45.798678  1584 filler.hpp:251] The std of weights in this layer is: 0.0808452
I0929 09:26:45.799314  1584 net.cpp:122] Setting up Convolution37
I0929 09:26:45.799321  1584 net.cpp:129] Top shape: 100 32 14 14 (627200)
I0929 09:26:45.799324  1584 net.cpp:137] Memory required for data: 758598800
I0929 09:26:45.799329  1584 layer_factory.hpp:77] Creating layer BatchNorm37
I0929 09:26:45.799334  1584 net.cpp:84] Creating Layer BatchNorm37
I0929 09:26:45.799336  1584 net.cpp:406] BatchNorm37 <- Convolution37
I0929 09:26:45.799340  1584 net.cpp:367] BatchNorm37 -> Convolution37 (in-place)
I0929 09:26:45.799474  1584 net.cpp:122] Setting up BatchNorm37
I0929 09:26:45.799477  1584 net.cpp:129] Top shape: 100 32 14 14 (627200)
I0929 09:26:45.799479  1584 net.cpp:137] Memory required for data: 761107600
I0929 09:26:45.799484  1584 layer_factory.hpp:77] Creating layer Scale37
I0929 09:26:45.799489  1584 net.cpp:84] Creating Layer Scale37
I0929 09:26:45.799491  1584 net.cpp:406] Scale37 <- Convolution37
I0929 09:26:45.799494  1584 net.cpp:367] Scale37 -> Convolution37 (in-place)
I0929 09:26:45.799520  1584 layer_factory.hpp:77] Creating layer Scale37
I0929 09:26:45.799597  1584 net.cpp:122] Setting up Scale37
I0929 09:26:45.799602  1584 net.cpp:129] Top shape: 100 32 14 14 (627200)
I0929 09:26:45.799603  1584 net.cpp:137] Memory required for data: 763616400
I0929 09:26:45.799607  1584 layer_factory.hpp:77] Creating layer M2PELU36
I0929 09:26:45.799612  1584 net.cpp:84] Creating Layer M2PELU36
I0929 09:26:45.799614  1584 net.cpp:406] M2PELU36 <- Convolution37
I0929 09:26:45.799618  1584 net.cpp:367] M2PELU36 -> Convolution37 (in-place)
I0929 09:26:45.799700  1584 net.cpp:122] Setting up M2PELU36
I0929 09:26:45.799705  1584 net.cpp:129] Top shape: 100 32 14 14 (627200)
I0929 09:26:45.799706  1584 net.cpp:137] Memory required for data: 766125200
I0929 09:26:45.799710  1584 layer_factory.hpp:77] Creating layer Convolution38
I0929 09:26:45.799716  1584 net.cpp:84] Creating Layer Convolution38
I0929 09:26:45.799720  1584 net.cpp:406] Convolution38 <- Convolution37
I0929 09:26:45.799724  1584 net.cpp:380] Convolution38 -> Convolution38
I0929 09:26:45.799814  1584 filler.hpp:251] The std of weights in this layer is: 0.0808452
I0929 09:26:45.800791  1584 net.cpp:122] Setting up Convolution38
I0929 09:26:45.800799  1584 net.cpp:129] Top shape: 100 32 14 14 (627200)
I0929 09:26:45.800801  1584 net.cpp:137] Memory required for data: 768634000
I0929 09:26:45.800806  1584 layer_factory.hpp:77] Creating layer BatchNorm38
I0929 09:26:45.800812  1584 net.cpp:84] Creating Layer BatchNorm38
I0929 09:26:45.800814  1584 net.cpp:406] BatchNorm38 <- Convolution38
I0929 09:26:45.800817  1584 net.cpp:367] BatchNorm38 -> Convolution38 (in-place)
I0929 09:26:45.800952  1584 net.cpp:122] Setting up BatchNorm38
I0929 09:26:45.800956  1584 net.cpp:129] Top shape: 100 32 14 14 (627200)
I0929 09:26:45.800958  1584 net.cpp:137] Memory required for data: 771142800
I0929 09:26:45.800963  1584 layer_factory.hpp:77] Creating layer Scale38
I0929 09:26:45.800967  1584 net.cpp:84] Creating Layer Scale38
I0929 09:26:45.800969  1584 net.cpp:406] Scale38 <- Convolution38
I0929 09:26:45.800972  1584 net.cpp:367] Scale38 -> Convolution38 (in-place)
I0929 09:26:45.800999  1584 layer_factory.hpp:77] Creating layer Scale38
I0929 09:26:45.801074  1584 net.cpp:122] Setting up Scale38
I0929 09:26:45.801079  1584 net.cpp:129] Top shape: 100 32 14 14 (627200)
I0929 09:26:45.801080  1584 net.cpp:137] Memory required for data: 773651600
I0929 09:26:45.801084  1584 layer_factory.hpp:77] Creating layer Eltwise18
I0929 09:26:45.801089  1584 net.cpp:84] Creating Layer Eltwise18
I0929 09:26:45.801091  1584 net.cpp:406] Eltwise18 <- Eltwise17_M2PELU35_0_split_1
I0929 09:26:45.801095  1584 net.cpp:406] Eltwise18 <- Convolution38
I0929 09:26:45.801097  1584 net.cpp:380] Eltwise18 -> Eltwise18
I0929 09:26:45.801112  1584 net.cpp:122] Setting up Eltwise18
I0929 09:26:45.801116  1584 net.cpp:129] Top shape: 100 32 14 14 (627200)
I0929 09:26:45.801118  1584 net.cpp:137] Memory required for data: 776160400
I0929 09:26:45.801120  1584 layer_factory.hpp:77] Creating layer M2PELU37
I0929 09:26:45.801125  1584 net.cpp:84] Creating Layer M2PELU37
I0929 09:26:45.801127  1584 net.cpp:406] M2PELU37 <- Eltwise18
I0929 09:26:45.801131  1584 net.cpp:367] M2PELU37 -> Eltwise18 (in-place)
I0929 09:26:45.801214  1584 net.cpp:122] Setting up M2PELU37
I0929 09:26:45.801219  1584 net.cpp:129] Top shape: 100 32 14 14 (627200)
I0929 09:26:45.801221  1584 net.cpp:137] Memory required for data: 778669200
I0929 09:26:45.801224  1584 layer_factory.hpp:77] Creating layer Eltwise18_M2PELU37_0_split
I0929 09:26:45.801229  1584 net.cpp:84] Creating Layer Eltwise18_M2PELU37_0_split
I0929 09:26:45.801230  1584 net.cpp:406] Eltwise18_M2PELU37_0_split <- Eltwise18
I0929 09:26:45.801234  1584 net.cpp:380] Eltwise18_M2PELU37_0_split -> Eltwise18_M2PELU37_0_split_0
I0929 09:26:45.801237  1584 net.cpp:380] Eltwise18_M2PELU37_0_split -> Eltwise18_M2PELU37_0_split_1
I0929 09:26:45.801261  1584 net.cpp:122] Setting up Eltwise18_M2PELU37_0_split
I0929 09:26:45.801265  1584 net.cpp:129] Top shape: 100 32 14 14 (627200)
I0929 09:26:45.801267  1584 net.cpp:129] Top shape: 100 32 14 14 (627200)
I0929 09:26:45.801270  1584 net.cpp:137] Memory required for data: 783686800
I0929 09:26:45.801271  1584 layer_factory.hpp:77] Creating layer Convolution39
I0929 09:26:45.801277  1584 net.cpp:84] Creating Layer Convolution39
I0929 09:26:45.801280  1584 net.cpp:406] Convolution39 <- Eltwise18_M2PELU37_0_split_0
I0929 09:26:45.801283  1584 net.cpp:380] Convolution39 -> Convolution39
I0929 09:26:45.801364  1584 filler.hpp:251] The std of weights in this layer is: 0.242536
I0929 09:26:45.802178  1584 net.cpp:122] Setting up Convolution39
I0929 09:26:45.802187  1584 net.cpp:129] Top shape: 100 64 7 7 (313600)
I0929 09:26:45.802189  1584 net.cpp:137] Memory required for data: 784941200
I0929 09:26:45.802193  1584 layer_factory.hpp:77] Creating layer BatchNorm39
I0929 09:26:45.802201  1584 net.cpp:84] Creating Layer BatchNorm39
I0929 09:26:45.802203  1584 net.cpp:406] BatchNorm39 <- Convolution39
I0929 09:26:45.802206  1584 net.cpp:367] BatchNorm39 -> Convolution39 (in-place)
I0929 09:26:45.802347  1584 net.cpp:122] Setting up BatchNorm39
I0929 09:26:45.802352  1584 net.cpp:129] Top shape: 100 64 7 7 (313600)
I0929 09:26:45.802354  1584 net.cpp:137] Memory required for data: 786195600
I0929 09:26:45.802359  1584 layer_factory.hpp:77] Creating layer Scale39
I0929 09:26:45.802364  1584 net.cpp:84] Creating Layer Scale39
I0929 09:26:45.802366  1584 net.cpp:406] Scale39 <- Convolution39
I0929 09:26:45.802369  1584 net.cpp:367] Scale39 -> Convolution39 (in-place)
I0929 09:26:45.802395  1584 layer_factory.hpp:77] Creating layer Scale39
I0929 09:26:45.802472  1584 net.cpp:122] Setting up Scale39
I0929 09:26:45.802476  1584 net.cpp:129] Top shape: 100 64 7 7 (313600)
I0929 09:26:45.802479  1584 net.cpp:137] Memory required for data: 787450000
I0929 09:26:45.802482  1584 layer_factory.hpp:77] Creating layer Convolution40
I0929 09:26:45.802489  1584 net.cpp:84] Creating Layer Convolution40
I0929 09:26:45.802492  1584 net.cpp:406] Convolution40 <- Eltwise18_M2PELU37_0_split_1
I0929 09:26:45.802496  1584 net.cpp:380] Convolution40 -> Convolution40
I0929 09:26:45.802598  1584 filler.hpp:251] The std of weights in this layer is: 0.0808452
I0929 09:26:45.804268  1584 net.cpp:122] Setting up Convolution40
I0929 09:26:45.804277  1584 net.cpp:129] Top shape: 100 64 7 7 (313600)
I0929 09:26:45.804280  1584 net.cpp:137] Memory required for data: 788704400
I0929 09:26:45.804285  1584 layer_factory.hpp:77] Creating layer BatchNorm40
I0929 09:26:45.804289  1584 net.cpp:84] Creating Layer BatchNorm40
I0929 09:26:45.804292  1584 net.cpp:406] BatchNorm40 <- Convolution40
I0929 09:26:45.804307  1584 net.cpp:367] BatchNorm40 -> Convolution40 (in-place)
I0929 09:26:45.804493  1584 net.cpp:122] Setting up BatchNorm40
I0929 09:26:45.804497  1584 net.cpp:129] Top shape: 100 64 7 7 (313600)
I0929 09:26:45.804499  1584 net.cpp:137] Memory required for data: 789958800
I0929 09:26:45.804504  1584 layer_factory.hpp:77] Creating layer Scale40
I0929 09:26:45.804508  1584 net.cpp:84] Creating Layer Scale40
I0929 09:26:45.804512  1584 net.cpp:406] Scale40 <- Convolution40
I0929 09:26:45.804514  1584 net.cpp:367] Scale40 -> Convolution40 (in-place)
I0929 09:26:45.804540  1584 layer_factory.hpp:77] Creating layer Scale40
I0929 09:26:45.804617  1584 net.cpp:122] Setting up Scale40
I0929 09:26:45.804621  1584 net.cpp:129] Top shape: 100 64 7 7 (313600)
I0929 09:26:45.804623  1584 net.cpp:137] Memory required for data: 791213200
I0929 09:26:45.804627  1584 layer_factory.hpp:77] Creating layer M2PELU38
I0929 09:26:45.804633  1584 net.cpp:84] Creating Layer M2PELU38
I0929 09:26:45.804636  1584 net.cpp:406] M2PELU38 <- Convolution40
I0929 09:26:45.804639  1584 net.cpp:367] M2PELU38 -> Convolution40 (in-place)
I0929 09:26:45.804723  1584 net.cpp:122] Setting up M2PELU38
I0929 09:26:45.804726  1584 net.cpp:129] Top shape: 100 64 7 7 (313600)
I0929 09:26:45.804728  1584 net.cpp:137] Memory required for data: 792467600
I0929 09:26:45.804733  1584 layer_factory.hpp:77] Creating layer Convolution41
I0929 09:26:45.804738  1584 net.cpp:84] Creating Layer Convolution41
I0929 09:26:45.804741  1584 net.cpp:406] Convolution41 <- Convolution40
I0929 09:26:45.804746  1584 net.cpp:380] Convolution41 -> Convolution41
I0929 09:26:45.804827  1584 filler.hpp:251] The std of weights in this layer is: 0.0571662
I0929 09:26:45.807312  1584 net.cpp:122] Setting up Convolution41
I0929 09:26:45.807322  1584 net.cpp:129] Top shape: 100 64 7 7 (313600)
I0929 09:26:45.807325  1584 net.cpp:137] Memory required for data: 793722000
I0929 09:26:45.807329  1584 layer_factory.hpp:77] Creating layer BatchNorm41
I0929 09:26:45.807335  1584 net.cpp:84] Creating Layer BatchNorm41
I0929 09:26:45.807338  1584 net.cpp:406] BatchNorm41 <- Convolution41
I0929 09:26:45.807343  1584 net.cpp:367] BatchNorm41 -> Convolution41 (in-place)
I0929 09:26:45.807484  1584 net.cpp:122] Setting up BatchNorm41
I0929 09:26:45.807488  1584 net.cpp:129] Top shape: 100 64 7 7 (313600)
I0929 09:26:45.807492  1584 net.cpp:137] Memory required for data: 794976400
I0929 09:26:45.807502  1584 layer_factory.hpp:77] Creating layer Scale41
I0929 09:26:45.807508  1584 net.cpp:84] Creating Layer Scale41
I0929 09:26:45.807510  1584 net.cpp:406] Scale41 <- Convolution41
I0929 09:26:45.807514  1584 net.cpp:367] Scale41 -> Convolution41 (in-place)
I0929 09:26:45.807543  1584 layer_factory.hpp:77] Creating layer Scale41
I0929 09:26:45.807623  1584 net.cpp:122] Setting up Scale41
I0929 09:26:45.807627  1584 net.cpp:129] Top shape: 100 64 7 7 (313600)
I0929 09:26:45.807629  1584 net.cpp:137] Memory required for data: 796230800
I0929 09:26:45.807633  1584 layer_factory.hpp:77] Creating layer Eltwise19
I0929 09:26:45.807638  1584 net.cpp:84] Creating Layer Eltwise19
I0929 09:26:45.807641  1584 net.cpp:406] Eltwise19 <- Convolution39
I0929 09:26:45.807643  1584 net.cpp:406] Eltwise19 <- Convolution41
I0929 09:26:45.807647  1584 net.cpp:380] Eltwise19 -> Eltwise19
I0929 09:26:45.807664  1584 net.cpp:122] Setting up Eltwise19
I0929 09:26:45.807668  1584 net.cpp:129] Top shape: 100 64 7 7 (313600)
I0929 09:26:45.807670  1584 net.cpp:137] Memory required for data: 797485200
I0929 09:26:45.807672  1584 layer_factory.hpp:77] Creating layer M2PELU39
I0929 09:26:45.807677  1584 net.cpp:84] Creating Layer M2PELU39
I0929 09:26:45.807680  1584 net.cpp:406] M2PELU39 <- Eltwise19
I0929 09:26:45.807683  1584 net.cpp:367] M2PELU39 -> Eltwise19 (in-place)
I0929 09:26:45.807770  1584 net.cpp:122] Setting up M2PELU39
I0929 09:26:45.807773  1584 net.cpp:129] Top shape: 100 64 7 7 (313600)
I0929 09:26:45.807775  1584 net.cpp:137] Memory required for data: 798739600
I0929 09:26:45.807780  1584 layer_factory.hpp:77] Creating layer Eltwise19_M2PELU39_0_split
I0929 09:26:45.807782  1584 net.cpp:84] Creating Layer Eltwise19_M2PELU39_0_split
I0929 09:26:45.807785  1584 net.cpp:406] Eltwise19_M2PELU39_0_split <- Eltwise19
I0929 09:26:45.807790  1584 net.cpp:380] Eltwise19_M2PELU39_0_split -> Eltwise19_M2PELU39_0_split_0
I0929 09:26:45.807793  1584 net.cpp:380] Eltwise19_M2PELU39_0_split -> Eltwise19_M2PELU39_0_split_1
I0929 09:26:45.807816  1584 net.cpp:122] Setting up Eltwise19_M2PELU39_0_split
I0929 09:26:45.807821  1584 net.cpp:129] Top shape: 100 64 7 7 (313600)
I0929 09:26:45.807822  1584 net.cpp:129] Top shape: 100 64 7 7 (313600)
I0929 09:26:45.807824  1584 net.cpp:137] Memory required for data: 801248400
I0929 09:26:45.807827  1584 layer_factory.hpp:77] Creating layer Convolution42
I0929 09:26:45.807833  1584 net.cpp:84] Creating Layer Convolution42
I0929 09:26:45.807837  1584 net.cpp:406] Convolution42 <- Eltwise19_M2PELU39_0_split_0
I0929 09:26:45.807839  1584 net.cpp:380] Convolution42 -> Convolution42
I0929 09:26:45.807950  1584 filler.hpp:251] The std of weights in this layer is: 0.0571662
I0929 09:26:45.809669  1584 net.cpp:122] Setting up Convolution42
I0929 09:26:45.809677  1584 net.cpp:129] Top shape: 100 64 7 7 (313600)
I0929 09:26:45.809681  1584 net.cpp:137] Memory required for data: 802502800
I0929 09:26:45.809685  1584 layer_factory.hpp:77] Creating layer BatchNorm42
I0929 09:26:45.809690  1584 net.cpp:84] Creating Layer BatchNorm42
I0929 09:26:45.809692  1584 net.cpp:406] BatchNorm42 <- Convolution42
I0929 09:26:45.809698  1584 net.cpp:367] BatchNorm42 -> Convolution42 (in-place)
I0929 09:26:45.809835  1584 net.cpp:122] Setting up BatchNorm42
I0929 09:26:45.809839  1584 net.cpp:129] Top shape: 100 64 7 7 (313600)
I0929 09:26:45.809841  1584 net.cpp:137] Memory required for data: 803757200
I0929 09:26:45.809846  1584 layer_factory.hpp:77] Creating layer Scale42
I0929 09:26:45.809850  1584 net.cpp:84] Creating Layer Scale42
I0929 09:26:45.809854  1584 net.cpp:406] Scale42 <- Convolution42
I0929 09:26:45.809855  1584 net.cpp:367] Scale42 -> Convolution42 (in-place)
I0929 09:26:45.809882  1584 layer_factory.hpp:77] Creating layer Scale42
I0929 09:26:45.809962  1584 net.cpp:122] Setting up Scale42
I0929 09:26:45.809965  1584 net.cpp:129] Top shape: 100 64 7 7 (313600)
I0929 09:26:45.809967  1584 net.cpp:137] Memory required for data: 805011600
I0929 09:26:45.809972  1584 layer_factory.hpp:77] Creating layer M2PELU40
I0929 09:26:45.809983  1584 net.cpp:84] Creating Layer M2PELU40
I0929 09:26:45.809984  1584 net.cpp:406] M2PELU40 <- Convolution42
I0929 09:26:45.809989  1584 net.cpp:367] M2PELU40 -> Convolution42 (in-place)
I0929 09:26:45.810075  1584 net.cpp:122] Setting up M2PELU40
I0929 09:26:45.810079  1584 net.cpp:129] Top shape: 100 64 7 7 (313600)
I0929 09:26:45.810081  1584 net.cpp:137] Memory required for data: 806266000
I0929 09:26:45.810086  1584 layer_factory.hpp:77] Creating layer Convolution43
I0929 09:26:45.810092  1584 net.cpp:84] Creating Layer Convolution43
I0929 09:26:45.810096  1584 net.cpp:406] Convolution43 <- Convolution42
I0929 09:26:45.810098  1584 net.cpp:380] Convolution43 -> Convolution43
I0929 09:26:45.810180  1584 filler.hpp:251] The std of weights in this layer is: 0.0571662
I0929 09:26:45.812430  1584 net.cpp:122] Setting up Convolution43
I0929 09:26:45.812438  1584 net.cpp:129] Top shape: 100 64 7 7 (313600)
I0929 09:26:45.812441  1584 net.cpp:137] Memory required for data: 807520400
I0929 09:26:45.812446  1584 layer_factory.hpp:77] Creating layer BatchNorm43
I0929 09:26:45.812451  1584 net.cpp:84] Creating Layer BatchNorm43
I0929 09:26:45.812454  1584 net.cpp:406] BatchNorm43 <- Convolution43
I0929 09:26:45.812458  1584 net.cpp:367] BatchNorm43 -> Convolution43 (in-place)
I0929 09:26:45.812599  1584 net.cpp:122] Setting up BatchNorm43
I0929 09:26:45.812604  1584 net.cpp:129] Top shape: 100 64 7 7 (313600)
I0929 09:26:45.812607  1584 net.cpp:137] Memory required for data: 808774800
I0929 09:26:45.812610  1584 layer_factory.hpp:77] Creating layer Scale43
I0929 09:26:45.812614  1584 net.cpp:84] Creating Layer Scale43
I0929 09:26:45.812618  1584 net.cpp:406] Scale43 <- Convolution43
I0929 09:26:45.812620  1584 net.cpp:367] Scale43 -> Convolution43 (in-place)
I0929 09:26:45.812649  1584 layer_factory.hpp:77] Creating layer Scale43
I0929 09:26:45.812726  1584 net.cpp:122] Setting up Scale43
I0929 09:26:45.812729  1584 net.cpp:129] Top shape: 100 64 7 7 (313600)
I0929 09:26:45.812731  1584 net.cpp:137] Memory required for data: 810029200
I0929 09:26:45.812736  1584 layer_factory.hpp:77] Creating layer Eltwise20
I0929 09:26:45.812739  1584 net.cpp:84] Creating Layer Eltwise20
I0929 09:26:45.812742  1584 net.cpp:406] Eltwise20 <- Eltwise19_M2PELU39_0_split_1
I0929 09:26:45.812746  1584 net.cpp:406] Eltwise20 <- Convolution43
I0929 09:26:45.812748  1584 net.cpp:380] Eltwise20 -> Eltwise20
I0929 09:26:45.812764  1584 net.cpp:122] Setting up Eltwise20
I0929 09:26:45.812768  1584 net.cpp:129] Top shape: 100 64 7 7 (313600)
I0929 09:26:45.812770  1584 net.cpp:137] Memory required for data: 811283600
I0929 09:26:45.812772  1584 layer_factory.hpp:77] Creating layer M2PELU41
I0929 09:26:45.812777  1584 net.cpp:84] Creating Layer M2PELU41
I0929 09:26:45.812779  1584 net.cpp:406] M2PELU41 <- Eltwise20
I0929 09:26:45.812783  1584 net.cpp:367] M2PELU41 -> Eltwise20 (in-place)
I0929 09:26:45.812868  1584 net.cpp:122] Setting up M2PELU41
I0929 09:26:45.812872  1584 net.cpp:129] Top shape: 100 64 7 7 (313600)
I0929 09:26:45.812875  1584 net.cpp:137] Memory required for data: 812538000
I0929 09:26:45.812877  1584 layer_factory.hpp:77] Creating layer Eltwise20_M2PELU41_0_split
I0929 09:26:45.812881  1584 net.cpp:84] Creating Layer Eltwise20_M2PELU41_0_split
I0929 09:26:45.812883  1584 net.cpp:406] Eltwise20_M2PELU41_0_split <- Eltwise20
I0929 09:26:45.812887  1584 net.cpp:380] Eltwise20_M2PELU41_0_split -> Eltwise20_M2PELU41_0_split_0
I0929 09:26:45.812891  1584 net.cpp:380] Eltwise20_M2PELU41_0_split -> Eltwise20_M2PELU41_0_split_1
I0929 09:26:45.812914  1584 net.cpp:122] Setting up Eltwise20_M2PELU41_0_split
…
I0929 09:26:46.181447  1584 net.cpp:84] Creating Layer Convolution41
I0929 09:26:46.181449  1584 net.cpp:406] Convolution41 <- Convolution40
I0929 09:26:46.181454  1584 net.cpp:380] Convolution41 -> Convolution41
I0929 09:26:46.181535  1584 filler.hpp:251] The std of weights in this layer is: 0.0571662
I0929 09:26:46.183184  1584 net.cpp:122] Setting up Convolution41
I0929 09:26:46.183193  1584 net.cpp:129] Top shape: 100 64 8 8 (409600)
I0929 09:26:46.183197  1584 net.cpp:137] Memory required for data: 1036698800
I0929 09:26:46.183200  1584 layer_factory.hpp:77] Creating layer BatchNorm41
I0929 09:26:46.183207  1584 net.cpp:84] Creating Layer BatchNorm41
I0929 09:26:46.183209  1584 net.cpp:406] BatchNorm41 <- Convolution41
I0929 09:26:46.183212  1584 net.cpp:367] BatchNorm41 -> Convolution41 (in-place)
I0929 09:26:46.183342  1584 net.cpp:122] Setting up BatchNorm41
I0929 09:26:46.183347  1584 net.cpp:129] Top shape: 100 64 8 8 (409600)
I0929 09:26:46.183349  1584 net.cpp:137] Memory required for data: 1038337200
I0929 09:26:46.183353  1584 layer_factory.hpp:77] Creating layer Scale41
I0929 09:26:46.183357  1584 net.cpp:84] Creating Layer Scale41
I0929 09:26:46.183360  1584 net.cpp:406] Scale41 <- Convolution41
I0929 09:26:46.183364  1584 net.cpp:367] Scale41 -> Convolution41 (in-place)
I0929 09:26:46.183390  1584 layer_factory.hpp:77] Creating layer Scale41
I0929 09:26:46.183465  1584 net.cpp:122] Setting up Scale41
I0929 09:26:46.183468  1584 net.cpp:129] Top shape: 100 64 8 8 (409600)
I0929 09:26:46.183470  1584 net.cpp:137] Memory required for data: 1039975600
I0929 09:26:46.183475  1584 layer_factory.hpp:77] Creating layer Eltwise19
I0929 09:26:46.183478  1584 net.cpp:84] Creating Layer Eltwise19
I0929 09:26:46.183480  1584 net.cpp:406] Eltwise19 <- Convolution39
I0929 09:26:46.183485  1584 net.cpp:406] Eltwise19 <- Convolution41
I0929 09:26:46.183488  1584 net.cpp:380] Eltwise19 -> Eltwise19
I0929 09:26:46.183504  1584 net.cpp:122] Setting up Eltwise19
I0929 09:26:46.183508  1584 net.cpp:129] Top shape: 100 64 8 8 (409600)
I0929 09:26:46.183511  1584 net.cpp:137] Memory required for data: 1041614000
I0929 09:26:46.183512  1584 layer_factory.hpp:77] Creating layer M2PELU39
I0929 09:26:46.203582  1584 net.cpp:84] Creating Layer M2PELU39
I0929 09:26:46.203589  1584 net.cpp:406] M2PELU39 <- Eltwise19
I0929 09:26:46.203598  1584 net.cpp:367] M2PELU39 -> Eltwise19 (in-place)
I0929 09:26:46.203711  1584 net.cpp:122] Setting up M2PELU39
I0929 09:26:46.203717  1584 net.cpp:129] Top shape: 100 64 8 8 (409600)
I0929 09:26:46.203719  1584 net.cpp:137] Memory required for data: 1043252400
I0929 09:26:46.203724  1584 layer_factory.hpp:77] Creating layer Eltwise19_M2PELU39_0_split
I0929 09:26:46.203729  1584 net.cpp:84] Creating Layer Eltwise19_M2PELU39_0_split
I0929 09:26:46.203732  1584 net.cpp:406] Eltwise19_M2PELU39_0_split <- Eltwise19
I0929 09:26:46.203737  1584 net.cpp:380] Eltwise19_M2PELU39_0_split -> Eltwise19_M2PELU39_0_split_0
I0929 09:26:46.203742  1584 net.cpp:380] Eltwise19_M2PELU39_0_split -> Eltwise19_M2PELU39_0_split_1
I0929 09:26:46.203778  1584 net.cpp:122] Setting up Eltwise19_M2PELU39_0_split
I0929 09:26:46.203783  1584 net.cpp:129] Top shape: 100 64 8 8 (409600)
I0929 09:26:46.203785  1584 net.cpp:129] Top shape: 100 64 8 8 (409600)
I0929 09:26:46.203788  1584 net.cpp:137] Memory required for data: 1046529200
I0929 09:26:46.203790  1584 layer_factory.hpp:77] Creating layer Convolution42
I0929 09:26:46.203796  1584 net.cpp:84] Creating Layer Convolution42
I0929 09:26:46.203799  1584 net.cpp:406] Convolution42 <- Eltwise19_M2PELU39_0_split_0
I0929 09:26:46.203804  1584 net.cpp:380] Convolution42 -> Convolution42
I0929 09:26:46.203893  1584 filler.hpp:251] The std of weights in this layer is: 0.0571662
I0929 09:26:46.206214  1584 net.cpp:122] Setting up Convolution42
I0929 09:26:46.206223  1584 net.cpp:129] Top shape: 100 64 8 8 (409600)
I0929 09:26:46.206226  1584 net.cpp:137] Memory required for data: 1048167600
I0929 09:26:46.206231  1584 layer_factory.hpp:77] Creating layer BatchNorm42
I0929 09:26:46.206238  1584 net.cpp:84] Creating Layer BatchNorm42
I0929 09:26:46.206240  1584 net.cpp:406] BatchNorm42 <- Convolution42
I0929 09:26:46.206244  1584 net.cpp:367] BatchNorm42 -> Convolution42 (in-place)
I0929 09:26:46.206378  1584 net.cpp:122] Setting up BatchNorm42
I0929 09:26:46.206382  1584 net.cpp:129] Top shape: 100 64 8 8 (409600)
I0929 09:26:46.206384  1584 net.cpp:137] Memory required for data: 1049806000
I0929 09:26:46.206389  1584 layer_factory.hpp:77] Creating layer Scale42
I0929 09:26:46.206393  1584 net.cpp:84] Creating Layer Scale42
I0929 09:26:46.206396  1584 net.cpp:406] Scale42 <- Convolution42
I0929 09:26:46.206399  1584 net.cpp:367] Scale42 -> Convolution42 (in-place)
I0929 09:26:46.206428  1584 layer_factory.hpp:77] Creating layer Scale42
I0929 09:26:46.206503  1584 net.cpp:122] Setting up Scale42
I0929 09:26:46.206507  1584 net.cpp:129] Top shape: 100 64 8 8 (409600)
I0929 09:26:46.206509  1584 net.cpp:137] Memory required for data: 1051444400
I0929 09:26:46.206513  1584 layer_factory.hpp:77] Creating layer M2PELU40
I0929 09:26:46.206518  1584 net.cpp:84] Creating Layer M2PELU40
I0929 09:26:46.206531  1584 net.cpp:406] M2PELU40 <- Convolution42
I0929 09:26:46.206544  1584 net.cpp:367] M2PELU40 -> Convolution42 (in-place)
I0929 09:26:46.206645  1584 net.cpp:122] Setting up M2PELU40
I0929 09:26:46.206650  1584 net.cpp:129] Top shape: 100 64 8 8 (409600)
I0929 09:26:46.206652  1584 net.cpp:137] Memory required for data: 1053082800
I0929 09:26:46.206656  1584 layer_factory.hpp:77] Creating layer Convolution43
I0929 09:26:46.206662  1584 net.cpp:84] Creating Layer Convolution43
I0929 09:26:46.206665  1584 net.cpp:406] Convolution43 <- Convolution42
I0929 09:26:46.206670  1584 net.cpp:380] Convolution43 -> Convolution43
I0929 09:26:46.206753  1584 filler.hpp:251] The std of weights in this layer is: 0.0571662
I0929 09:26:46.208549  1584 net.cpp:122] Setting up Convolution43
I0929 09:26:46.208557  1584 net.cpp:129] Top shape: 100 64 8 8 (409600)
I0929 09:26:46.208559  1584 net.cpp:137] Memory required for data: 1054721200
I0929 09:26:46.208564  1584 layer_factory.hpp:77] Creating layer BatchNorm43
I0929 09:26:46.208570  1584 net.cpp:84] Creating Layer BatchNorm43
I0929 09:26:46.208572  1584 net.cpp:406] BatchNorm43 <- Convolution43
I0929 09:26:46.208576  1584 net.cpp:367] BatchNorm43 -> Convolution43 (in-place)
I0929 09:26:46.208710  1584 net.cpp:122] Setting up BatchNorm43
I0929 09:26:46.208714  1584 net.cpp:129] Top shape: 100 64 8 8 (409600)
I0929 09:26:46.208716  1584 net.cpp:137] Memory required for data: 1056359600
I0929 09:26:46.208721  1584 layer_factory.hpp:77] Creating layer Scale43
I0929 09:26:46.208725  1584 net.cpp:84] Creating Layer Scale43
I0929 09:26:46.208727  1584 net.cpp:406] Scale43 <- Convolution43
I0929 09:26:46.208731  1584 net.cpp:367] Scale43 -> Convolution43 (in-place)
I0929 09:26:46.208757  1584 layer_factory.hpp:77] Creating layer Scale43
I0929 09:26:46.208832  1584 net.cpp:122] Setting up Scale43
I0929 09:26:46.208837  1584 net.cpp:129] Top shape: 100 64 8 8 (409600)
I0929 09:26:46.208838  1584 net.cpp:137] Memory required for data: 1057998000
I0929 09:26:46.208849  1584 layer_factory.hpp:77] Creating layer Eltwise20
I0929 09:26:46.208853  1584 net.cpp:84] Creating Layer Eltwise20
I0929 09:26:46.208856  1584 net.cpp:406] Eltwise20 <- Eltwise19_M2PELU39_0_split_1
I0929 09:26:46.208859  1584 net.cpp:406] Eltwise20 <- Convolution43
I0929 09:26:46.208864  1584 net.cpp:380] Eltwise20 -> Eltwise20
I0929 09:26:46.208881  1584 net.cpp:122] Setting up Eltwise20
I0929 09:26:46.208885  1584 net.cpp:129] Top shape: 100 64 8 8 (409600)
I0929 09:26:46.208887  1584 net.cpp:137] Memory required for data: 1059636400
I0929 09:26:46.208889  1584 layer_factory.hpp:77] Creating layer M2PELU41
I0929 09:26:46.208894  1584 net.cpp:84] Creating Layer M2PELU41
I0929 09:26:46.208896  1584 net.cpp:406] M2PELU41 <- Eltwise20
I0929 09:26:46.208900  1584 net.cpp:367] M2PELU41 -> Eltwise20 (in-place)
I0929 09:26:46.208988  1584 net.cpp:122] Setting up M2PELU41
I0929 09:26:46.208993  1584 net.cpp:129] Top shape: 100 64 8 8 (409600)
I0929 09:26:46.208995  1584 net.cpp:137] Memory required for data: 1061274800
I0929 09:26:46.208998  1584 layer_factory.hpp:77] Creating layer Eltwise20_M2PELU41_0_split
I0929 09:26:46.209003  1584 net.cpp:84] Creating Layer Eltwise20_M2PELU41_0_split
I0929 09:26:46.209005  1584 net.cpp:406] Eltwise20_M2PELU41_0_split <- Eltwise20
I0929 09:26:46.209008  1584 net.cpp:380] Eltwise20_M2PELU41_0_split -> Eltwise20_M2PELU41_0_split_0
I0929 09:26:46.209012  1584 net.cpp:380] Eltwise20_M2PELU41_0_split -> Eltwise20_M2PELU41_0_split_1
I0929 09:26:46.209038  1584 net.cpp:122] Setting up Eltwise20_M2PELU41_0_split
I0929 09:26:46.209040  1584 net.cpp:129] Top shape: 100 64 8 8 (409600)
I0929 09:26:46.209043  1584 net.cpp:129] Top shape: 100 64 8 8 (409600)
I0929 09:26:46.209045  1584 net.cpp:137] Memory required for data: 1064551600
I0929 09:26:46.209048  1584 layer_factory.hpp:77] Creating layer Convolution44
I0929 09:26:46.209053  1584 net.cpp:84] Creating Layer Convolution44
I0929 09:26:46.209055  1584 net.cpp:406] Convolution44 <- Eltwise20_M2PELU41_0_split_0
I0929 09:26:46.209060  1584 net.cpp:380] Convolution44 -> Convolution44
I0929 09:26:46.209139  1584 filler.hpp:251] The std of weights in this layer is: 0.0571662
I0929 09:26:46.211083  1584 net.cpp:122] Setting up Convolution44
I0929 09:26:46.211092  1584 net.cpp:129] Top shape: 100 64 8 8 (409600)
I0929 09:26:46.211094  1584 net.cpp:137] Memory required for data: 1066190000
I0929 09:26:46.211099  1584 layer_factory.hpp:77] Creating layer BatchNorm44
I0929 09:26:46.211104  1584 net.cpp:84] Creating Layer BatchNorm44
I0929 09:26:46.211107  1584 net.cpp:406] BatchNorm44 <- Convolution44
I0929 09:26:46.211112  1584 net.cpp:367] BatchNorm44 -> Convolution44 (in-place)
I0929 09:26:46.211248  1584 net.cpp:122] Setting up BatchNorm44
I0929 09:26:46.211252  1584 net.cpp:129] Top shape: 100 64 8 8 (409600)
I0929 09:26:46.211254  1584 net.cpp:137] Memory required for data: 1067828400
I0929 09:26:46.211259  1584 layer_factory.hpp:77] Creating layer Scale44
I0929 09:26:46.211263  1584 net.cpp:84] Creating Layer Scale44
I0929 09:26:46.211266  1584 net.cpp:406] Scale44 <- Convolution44
I0929 09:26:46.211269  1584 net.cpp:367] Scale44 -> Convolution44 (in-place)
I0929 09:26:46.211297  1584 layer_factory.hpp:77] Creating layer Scale44
I0929 09:26:46.211371  1584 net.cpp:122] Setting up Scale44
I0929 09:26:46.211375  1584 net.cpp:129] Top shape: 100 64 8 8 (409600)
I0929 09:26:46.211377  1584 net.cpp:137] Memory required for data: 1069466800
I0929 09:26:46.211381  1584 layer_factory.hpp:77] Creating layer M2PELU42
I0929 09:26:46.211386  1584 net.cpp:84] Creating Layer M2PELU42
I0929 09:26:46.211390  1584 net.cpp:406] M2PELU42 <- Convolution44
I0929 09:26:46.211392  1584 net.cpp:367] M2PELU42 -> Convolution44 (in-place)
I0929 09:26:46.211479  1584 net.cpp:122] Setting up M2PELU42
I0929 09:26:46.211484  1584 net.cpp:129] Top shape: 100 64 8 8 (409600)
I0929 09:26:46.211486  1584 net.cpp:137] Memory required for data: 1071105200
I0929 09:26:46.211489  1584 layer_factory.hpp:77] Creating layer Convolution45
I0929 09:26:46.211503  1584 net.cpp:84] Creating Layer Convolution45
I0929 09:26:46.211506  1584 net.cpp:406] Convolution45 <- Convolution44
I0929 09:26:46.211510  1584 net.cpp:380] Convolution45 -> Convolution45
I0929 09:26:46.211592  1584 filler.hpp:251] The std of weights in this layer is: 0.0571662
I0929 09:26:46.213203  1584 net.cpp:122] Setting up Convolution45
I0929 09:26:46.213212  1584 net.cpp:129] Top shape: 100 64 8 8 (409600)
I0929 09:26:46.213214  1584 net.cpp:137] Memory required for data: 1072743600
I0929 09:26:46.213219  1584 layer_factory.hpp:77] Creating layer BatchNorm45
I0929 09:26:46.213224  1584 net.cpp:84] Creating Layer BatchNorm45
I0929 09:26:46.213227  1584 net.cpp:406] BatchNorm45 <- Convolution45
I0929 09:26:46.213230  1584 net.cpp:367] BatchNorm45 -> Convolution45 (in-place)
I0929 09:26:46.213384  1584 net.cpp:122] Setting up BatchNorm45
I0929 09:26:46.213388  1584 net.cpp:129] Top shape: 100 64 8 8 (409600)
I0929 09:26:46.213390  1584 net.cpp:137] Memory required for data: 1074382000
I0929 09:26:46.213395  1584 layer_factory.hpp:77] Creating layer Scale45
I0929 09:26:46.213398  1584 net.cpp:84] Creating Layer Scale45
I0929 09:26:46.213402  1584 net.cpp:406] Scale45 <- Convolution45
I0929 09:26:46.213404  1584 net.cpp:367] Scale45 -> Convolution45 (in-place)
I0929 09:26:46.213430  1584 layer_factory.hpp:77] Creating layer Scale45
I0929 09:26:46.213506  1584 net.cpp:122] Setting up Scale45
I0929 09:26:46.213510  1584 net.cpp:129] Top shape: 100 64 8 8 (409600)
I0929 09:26:46.213512  1584 net.cpp:137] Memory required for data: 1076020400
I0929 09:26:46.213516  1584 layer_factory.hpp:77] Creating layer Eltwise21
I0929 09:26:46.213521  1584 net.cpp:84] Creating Layer Eltwise21
I0929 09:26:46.213523  1584 net.cpp:406] Eltwise21 <- Eltwise20_M2PELU41_0_split_1
I0929 09:26:46.213526  1584 net.cpp:406] Eltwise21 <- Convolution45
I0929 09:26:46.213529  1584 net.cpp:380] Eltwise21 -> Eltwise21
I0929 09:26:46.213546  1584 net.cpp:122] Setting up Eltwise21
I0929 09:26:46.213549  1584 net.cpp:129] Top shape: 100 64 8 8 (409600)
I0929 09:26:46.213551  1584 net.cpp:137] Memory required for data: 1077658800
I0929 09:26:46.213552  1584 layer_factory.hpp:77] Creating layer M2PELU43
I0929 09:26:46.213558  1584 net.cpp:84] Creating Layer M2PELU43
I0929 09:26:46.213560  1584 net.cpp:406] M2PELU43 <- Eltwise21
I0929 09:26:46.213563  1584 net.cpp:367] M2PELU43 -> Eltwise21 (in-place)
I0929 09:26:46.213650  1584 net.cpp:122] Setting up M2PELU43
I0929 09:26:46.213654  1584 net.cpp:129] Top shape: 100 64 8 8 (409600)
I0929 09:26:46.213656  1584 net.cpp:137] Memory required for data: 1079297200
I0929 09:26:46.213660  1584 layer_factory.hpp:77] Creating layer Eltwise21_M2PELU43_0_split
I0929 09:26:46.213663  1584 net.cpp:84] Creating Layer Eltwise21_M2PELU43_0_split
I0929 09:26:46.213665  1584 net.cpp:406] Eltwise21_M2PELU43_0_split <- Eltwise21
I0929 09:26:46.213668  1584 net.cpp:380] Eltwise21_M2PELU43_0_split -> Eltwise21_M2PELU43_0_split_0
I0929 09:26:46.213673  1584 net.cpp:380] Eltwise21_M2PELU43_0_split -> Eltwise21_M2PELU43_0_split_1
I0929 09:26:46.213697  1584 net.cpp:122] Setting up Eltwise21_M2PELU43_0_split
I0929 09:26:46.213701  1584 net.cpp:129] Top shape: 100 64 8 8 (409600)
I0929 09:26:46.213703  1584 net.cpp:129] Top shape: 100 64 8 8 (409600)
I0929 09:26:46.213706  1584 net.cpp:137] Memory required for data: 1082574000
I0929 09:26:46.213707  1584 layer_factory.hpp:77] Creating layer Convolution46
I0929 09:26:46.213714  1584 net.cpp:84] Creating Layer Convolution46
I0929 09:26:46.213716  1584 net.cpp:406] Convolution46 <- Eltwise21_M2PELU43_0_split_0
I0929 09:26:46.213721  1584 net.cpp:380] Convolution46 -> Convolution46
I0929 09:26:46.213800  1584 filler.hpp:251] The std of weights in this layer is: 0.0571662
I0929 09:26:46.215437  1584 net.cpp:122] Setting up Convolution46
I0929 09:26:46.215446  1584 net.cpp:129] Top shape: 100 64 8 8 (409600)
I0929 09:26:46.215448  1584 net.cpp:137] Memory required for data: 1084212400
I0929 09:26:46.215453  1584 layer_factory.hpp:77] Creating layer BatchNorm46
I0929 09:26:46.215466  1584 net.cpp:84] Creating Layer BatchNorm46
I0929 09:26:46.215468  1584 net.cpp:406] BatchNorm46 <- Convolution46
I0929 09:26:46.215472  1584 net.cpp:367] BatchNorm46 -> Convolution46 (in-place)
I0929 09:26:46.215610  1584 net.cpp:122] Setting up BatchNorm46
I0929 09:26:46.215615  1584 net.cpp:129] Top shape: 100 64 8 8 (409600)
I0929 09:26:46.215616  1584 net.cpp:137] Memory required for data: 1085850800
I0929 09:26:46.215620  1584 layer_factory.hpp:77] Creating layer Scale46
I0929 09:26:46.215626  1584 net.cpp:84] Creating Layer Scale46
I0929 09:26:46.215628  1584 net.cpp:406] Scale46 <- Convolution46
I0929 09:26:46.215631  1584 net.cpp:367] Scale46 -> Convolution46 (in-place)
I0929 09:26:46.215657  1584 layer_factory.hpp:77] Creating layer Scale46
I0929 09:26:46.215736  1584 net.cpp:122] Setting up Scale46
I0929 09:26:46.215741  1584 net.cpp:129] Top shape: 100 64 8 8 (409600)
I0929 09:26:46.215744  1584 net.cpp:137] Memory required for data: 1087489200
I0929 09:26:46.215747  1584 layer_factory.hpp:77] Creating layer M2PELU44
I0929 09:26:46.215752  1584 net.cpp:84] Creating Layer M2PELU44
I0929 09:26:46.215754  1584 net.cpp:406] M2PELU44 <- Convolution46
I0929 09:26:46.215759  1584 net.cpp:367] M2PELU44 -> Convolution46 (in-place)
I0929 09:26:46.215843  1584 net.cpp:122] Setting up M2PELU44
I0929 09:26:46.215848  1584 net.cpp:129] Top shape: 100 64 8 8 (409600)
I0929 09:26:46.215850  1584 net.cpp:137] Memory required for data: 1089127600
I0929 09:26:46.215854  1584 layer_factory.hpp:77] Creating layer Convolution47
I0929 09:26:46.215859  1584 net.cpp:84] Creating Layer Convolution47
I0929 09:26:46.215862  1584 net.cpp:406] Convolution47 <- Convolution46
I0929 09:26:46.215867  1584 net.cpp:380] Convolution47 -> Convolution47
I0929 09:26:46.215946  1584 filler.hpp:251] The std of weights in this layer is: 0.0571662
I0929 09:26:46.217551  1584 net.cpp:122] Setting up Convolution47
I0929 09:26:46.217561  1584 net.cpp:129] Top shape: 100 64 8 8 (409600)
I0929 09:26:46.217564  1584 net.cpp:137] Memory required for data: 1090766000
I0929 09:26:46.217568  1584 layer_factory.hpp:77] Creating layer BatchNorm47
I0929 09:26:46.217573  1584 net.cpp:84] Creating Layer BatchNorm47
I0929 09:26:46.217576  1584 net.cpp:406] BatchNorm47 <- Convolution47
I0929 09:26:46.217581  1584 net.cpp:367] BatchNorm47 -> Convolution47 (in-place)
I0929 09:26:46.217710  1584 net.cpp:122] Setting up BatchNorm47
I0929 09:26:46.217715  1584 net.cpp:129] Top shape: 100 64 8 8 (409600)
I0929 09:26:46.217716  1584 net.cpp:137] Memory required for data: 1092404400
I0929 09:26:46.217721  1584 layer_factory.hpp:77] Creating layer Scale47
I0929 09:26:46.217725  1584 net.cpp:84] Creating Layer Scale47
I0929 09:26:46.217727  1584 net.cpp:406] Scale47 <- Convolution47
I0929 09:26:46.217731  1584 net.cpp:367] Scale47 -> Convolution47 (in-place)
I0929 09:26:46.217757  1584 layer_factory.hpp:77] Creating layer Scale47
I0929 09:26:46.217831  1584 net.cpp:122] Setting up Scale47
I0929 09:26:46.234325  1584 net.cpp:129] Top shape: 100 64 8 8 (409600)
I0929 09:26:46.234333  1584 net.cpp:137] Memory required for data: 1094042800
I0929 09:26:46.234338  1584 layer_factory.hpp:77] Creating layer Eltwise22
I0929 09:26:46.234342  1584 net.cpp:84] Creating Layer Eltwise22
I0929 09:26:46.234345  1584 net.cpp:406] Eltwise22 <- Eltwise21_M2PELU43_0_split_1
I0929 09:26:46.234349  1584 net.cpp:406] Eltwise22 <- Convolution47
I0929 09:26:46.234355  1584 net.cpp:380] Eltwise22 -> Eltwise22
I0929 09:26:46.234380  1584 net.cpp:122] Setting up Eltwise22
I0929 09:26:46.234386  1584 net.cpp:129] Top shape: 100 64 8 8 (409600)
I0929 09:26:46.234388  1584 net.cpp:137] Memory required for data: 1095681200
I0929 09:26:46.234390  1584 layer_factory.hpp:77] Creating layer M2PELU45
I0929 09:26:46.234395  1584 net.cpp:84] Creating Layer M2PELU45
I0929 09:26:46.234398  1584 net.cpp:406] M2PELU45 <- Eltwise22
I0929 09:26:46.234402  1584 net.cpp:367] M2PELU45 -> Eltwise22 (in-place)
I0929 09:26:46.234508  1584 net.cpp:122] Setting up M2PELU45
I0929 09:26:46.234513  1584 net.cpp:129] Top shape: 100 64 8 8 (409600)
I0929 09:26:46.234529  1584 net.cpp:137] Memory required for data: 1097319600
I0929 09:26:46.234534  1584 layer_factory.hpp:77] Creating layer Eltwise22_M2PELU45_0_split
I0929 09:26:46.234539  1584 net.cpp:84] Creating Layer Eltwise22_M2PELU45_0_split
I0929 09:26:46.234540  1584 net.cpp:406] Eltwise22_M2PELU45_0_split <- Eltwise22
I0929 09:26:46.234545  1584 net.cpp:380] Eltwise22_M2PELU45_0_split -> Eltwise22_M2PELU45_0_split_0
I0929 09:26:46.234550  1584 net.cpp:380] Eltwise22_M2PELU45_0_split -> Eltwise22_M2PELU45_0_split_1
I0929 09:26:46.234578  1584 net.cpp:122] Setting up Eltwise22_M2PELU45_0_split
I0929 09:26:46.234582  1584 net.cpp:129] Top shape: 100 64 8 8 (409600)
I0929 09:26:46.234586  1584 net.cpp:129] Top shape: 100 64 8 8 (409600)
I0929 09:26:46.234588  1584 net.cpp:137] Memory required for data: 1100596400
I0929 09:26:46.234591  1584 layer_factory.hpp:77] Creating layer Convolution48
I0929 09:26:46.234598  1584 net.cpp:84] Creating Layer Convolution48
I0929 09:26:46.234601  1584 net.cpp:406] Convolution48 <- Eltwise22_M2PELU45_0_split_0
I0929 09:26:46.234606  1584 net.cpp:380] Convolution48 -> Convolution48
I0929 09:26:46.234695  1584 filler.hpp:251] The std of weights in this layer is: 0.0571662
I0929 09:26:46.237398  1584 net.cpp:122] Setting up Convolution48
I0929 09:26:46.237407  1584 net.cpp:129] Top shape: 100 64 8 8 (409600)
I0929 09:26:46.237411  1584 net.cpp:137] Memory required for data: 1102234800
I0929 09:26:46.237416  1584 layer_factory.hpp:77] Creating layer BatchNorm48
I0929 09:26:46.237421  1584 net.cpp:84] Creating Layer BatchNorm48
I0929 09:26:46.237423  1584 net.cpp:406] BatchNorm48 <- Convolution48
I0929 09:26:46.237428  1584 net.cpp:367] BatchNorm48 -> Convolution48 (in-place)
I0929 09:26:46.237571  1584 net.cpp:122] Setting up BatchNorm48
I0929 09:26:46.237574  1584 net.cpp:129] Top shape: 100 64 8 8 (409600)
I0929 09:26:46.237577  1584 net.cpp:137] Memory required for data: 1103873200
I0929 09:26:46.237581  1584 layer_factory.hpp:77] Creating layer Scale48
I0929 09:26:46.237586  1584 net.cpp:84] Creating Layer Scale48
I0929 09:26:46.237588  1584 net.cpp:406] Scale48 <- Convolution48
I0929 09:26:46.237591  1584 net.cpp:367] Scale48 -> Convolution48 (in-place)
I0929 09:26:46.237619  1584 layer_factory.hpp:77] Creating layer Scale48
I0929 09:26:46.237699  1584 net.cpp:122] Setting up Scale48
I0929 09:26:46.237702  1584 net.cpp:129] Top shape: 100 64 8 8 (409600)
I0929 09:26:46.237704  1584 net.cpp:137] Memory required for data: 1105511600
I0929 09:26:46.237709  1584 layer_factory.hpp:77] Creating layer M2PELU46
I0929 09:26:46.237713  1584 net.cpp:84] Creating Layer M2PELU46
I0929 09:26:46.237715  1584 net.cpp:406] M2PELU46 <- Convolution48
I0929 09:26:46.237720  1584 net.cpp:367] M2PELU46 -> Convolution48 (in-place)
I0929 09:26:46.237810  1584 net.cpp:122] Setting up M2PELU46
I0929 09:26:46.237814  1584 net.cpp:129] Top shape: 100 64 8 8 (409600)
I0929 09:26:46.237817  1584 net.cpp:137] Memory required for data: 1107150000
I0929 09:26:46.237820  1584 layer_factory.hpp:77] Creating layer Convolution49
I0929 09:26:46.237829  1584 net.cpp:84] Creating Layer Convolution49
I0929 09:26:46.237831  1584 net.cpp:406] Convolution49 <- Convolution48
I0929 09:26:46.237835  1584 net.cpp:380] Convolution49 -> Convolution49
I0929 09:26:46.237931  1584 filler.hpp:251] The std of weights in this layer is: 0.0571662
I0929 09:26:46.240048  1584 net.cpp:122] Setting up Convolution49
I0929 09:26:46.240058  1584 net.cpp:129] Top shape: 100 64 8 8 (409600)
I0929 09:26:46.240061  1584 net.cpp:137] Memory required for data: 1108788400
I0929 09:26:46.240065  1584 layer_factory.hpp:77] Creating layer BatchNorm49
I0929 09:26:46.240069  1584 net.cpp:84] Creating Layer BatchNorm49
I0929 09:26:46.240072  1584 net.cpp:406] BatchNorm49 <- Convolution49
I0929 09:26:46.240077  1584 net.cpp:367] BatchNorm49 -> Convolution49 (in-place)
I0929 09:26:46.240211  1584 net.cpp:122] Setting up BatchNorm49
I0929 09:26:46.240216  1584 net.cpp:129] Top shape: 100 64 8 8 (409600)
I0929 09:26:46.240224  1584 net.cpp:137] Memory required for data: 1110426800
I0929 09:26:46.240231  1584 layer_factory.hpp:77] Creating layer Scale49
I0929 09:26:46.240234  1584 net.cpp:84] Creating Layer Scale49
I0929 09:26:46.240236  1584 net.cpp:406] Scale49 <- Convolution49
I0929 09:26:46.240241  1584 net.cpp:367] Scale49 -> Convolution49 (in-place)
I0929 09:26:46.240268  1584 layer_factory.hpp:77] Creating layer Scale49
I0929 09:26:46.240348  1584 net.cpp:122] Setting up Scale49
I0929 09:26:46.240352  1584 net.cpp:129] Top shape: 100 64 8 8 (409600)
I0929 09:26:46.240355  1584 net.cpp:137] Memory required for data: 1112065200
I0929 09:26:46.240358  1584 layer_factory.hpp:77] Creating layer Eltwise23
I0929 09:26:46.240362  1584 net.cpp:84] Creating Layer Eltwise23
I0929 09:26:46.240365  1584 net.cpp:406] Eltwise23 <- Eltwise22_M2PELU45_0_split_1
I0929 09:26:46.240368  1584 net.cpp:406] Eltwise23 <- Convolution49
I0929 09:26:46.240371  1584 net.cpp:380] Eltwise23 -> Eltwise23
I0929 09:26:46.240388  1584 net.cpp:122] Setting up Eltwise23
I0929 09:26:46.240392  1584 net.cpp:129] Top shape: 100 64 8 8 (409600)
I0929 09:26:46.240394  1584 net.cpp:137] Memory required for data: 1113703600
I0929 09:26:46.240396  1584 layer_factory.hpp:77] Creating layer M2PELU47
I0929 09:26:46.240401  1584 net.cpp:84] Creating Layer M2PELU47
I0929 09:26:46.240403  1584 net.cpp:406] M2PELU47 <- Eltwise23
I0929 09:26:46.240406  1584 net.cpp:367] M2PELU47 -> Eltwise23 (in-place)
I0929 09:26:46.240499  1584 net.cpp:122] Setting up M2PELU47
I0929 09:26:46.240504  1584 net.cpp:129] Top shape: 100 64 8 8 (409600)
I0929 09:26:46.240505  1584 net.cpp:137] Memory required for data: 1115342000
I0929 09:26:46.240509  1584 layer_factory.hpp:77] Creating layer Eltwise23_M2PELU47_0_split
I0929 09:26:46.240512  1584 net.cpp:84] Creating Layer Eltwise23_M2PELU47_0_split
I0929 09:26:46.240515  1584 net.cpp:406] Eltwise23_M2PELU47_0_split <- Eltwise23
I0929 09:26:46.240519  1584 net.cpp:380] Eltwise23_M2PELU47_0_split -> Eltwise23_M2PELU47_0_split_0
I0929 09:26:46.240522  1584 net.cpp:380] Eltwise23_M2PELU47_0_split -> Eltwise23_M2PELU47_0_split_1
I0929 09:26:46.240546  1584 net.cpp:122] Setting up Eltwise23_M2PELU47_0_split
I0929 09:26:46.240550  1584 net.cpp:129] Top shape: 100 64 8 8 (409600)
I0929 09:26:46.240552  1584 net.cpp:129] Top shape: 100 64 8 8 (409600)
I0929 09:26:46.240555  1584 net.cpp:137] Memory required for data: 1118618800
I0929 09:26:46.240556  1584 layer_factory.hpp:77] Creating layer Convolution50
I0929 09:26:46.240563  1584 net.cpp:84] Creating Layer Convolution50
I0929 09:26:46.240566  1584 net.cpp:406] Convolution50 <- Eltwise23_M2PELU47_0_split_0
I0929 09:26:46.240569  1584 net.cpp:380] Convolution50 -> Convolution50
I0929 09:26:46.240651  1584 filler.hpp:251] The std of weights in this layer is: 0.0571662
I0929 09:26:46.243116  1584 net.cpp:122] Setting up Convolution50
I0929 09:26:46.243125  1584 net.cpp:129] Top shape: 100 64 8 8 (409600)
I0929 09:26:46.243129  1584 net.cpp:137] Memory required for data: 1120257200
I0929 09:26:46.243134  1584 layer_factory.hpp:77] Creating layer BatchNorm50
I0929 09:26:46.243139  1584 net.cpp:84] Creating Layer BatchNorm50
I0929 09:26:46.243141  1584 net.cpp:406] BatchNorm50 <- Convolution50
I0929 09:26:46.243145  1584 net.cpp:367] BatchNorm50 -> Convolution50 (in-place)
I0929 09:26:46.243284  1584 net.cpp:122] Setting up BatchNorm50
I0929 09:26:46.243288  1584 net.cpp:129] Top shape: 100 64 8 8 (409600)
I0929 09:26:46.243290  1584 net.cpp:137] Memory required for data: 1121895600
I0929 09:26:46.243295  1584 layer_factory.hpp:77] Creating layer Scale50
I0929 09:26:46.243299  1584 net.cpp:84] Creating Layer Scale50
I0929 09:26:46.243301  1584 net.cpp:406] Scale50 <- Convolution50
I0929 09:26:46.243304  1584 net.cpp:367] Scale50 -> Convolution50 (in-place)
I0929 09:26:46.243333  1584 layer_factory.hpp:77] Creating layer Scale50
I0929 09:26:46.243410  1584 net.cpp:122] Setting up Scale50
I0929 09:26:46.243414  1584 net.cpp:129] Top shape: 100 64 8 8 (409600)
I0929 09:26:46.243417  1584 net.cpp:137] Memory required for data: 1123534000
I0929 09:26:46.243427  1584 layer_factory.hpp:77] Creating layer M2PELU48
I0929 09:26:46.243433  1584 net.cpp:84] Creating Layer M2PELU48
I0929 09:26:46.243436  1584 net.cpp:406] M2PELU48 <- Convolution50
I0929 09:26:46.243439  1584 net.cpp:367] M2PELU48 -> Convolution50 (in-place)
I0929 09:26:46.243531  1584 net.cpp:122] Setting up M2PELU48
I0929 09:26:46.243535  1584 net.cpp:129] Top shape: 100 64 8 8 (409600)
I0929 09:26:46.243537  1584 net.cpp:137] Memory required for data: 1125172400
I0929 09:26:46.243541  1584 layer_factory.hpp:77] Creating layer Convolution51
I0929 09:26:46.243548  1584 net.cpp:84] Creating Layer Convolution51
I0929 09:26:46.243551  1584 net.cpp:406] Convolution51 <- Convolution50
I0929 09:26:46.243556  1584 net.cpp:380] Convolution51 -> Convolution51
I0929 09:26:46.243638  1584 filler.hpp:251] The std of weights in this layer is: 0.0571662
I0929 09:26:46.245251  1584 net.cpp:122] Setting up Convolution51
I0929 09:26:46.245260  1584 net.cpp:129] Top shape: 100 64 8 8 (409600)
I0929 09:26:46.245262  1584 net.cpp:137] Memory required for data: 1126810800
I0929 09:26:46.245266  1584 layer_factory.hpp:77] Creating layer BatchNorm51
I0929 09:26:46.245273  1584 net.cpp:84] Creating Layer BatchNorm51
I0929 09:26:46.245276  1584 net.cpp:406] BatchNorm51 <- Convolution51
I0929 09:26:46.245280  1584 net.cpp:367] BatchNorm51 -> Convolution51 (in-place)
I0929 09:26:46.245416  1584 net.cpp:122] Setting up BatchNorm51
I0929 09:26:46.245420  1584 net.cpp:129] Top shape: 100 64 8 8 (409600)
I0929 09:26:46.245422  1584 net.cpp:137] Memory required for data: 1128449200
I0929 09:26:46.245427  1584 layer_factory.hpp:77] Creating layer Scale51
I0929 09:26:46.245432  1584 net.cpp:84] Creating Layer Scale51
I0929 09:26:46.245434  1584 net.cpp:406] Scale51 <- Convolution51
I0929 09:26:46.245437  1584 net.cpp:367] Scale51 -> Convolution51 (in-place)
I0929 09:26:46.245465  1584 layer_factory.hpp:77] Creating layer Scale51
I0929 09:26:46.245543  1584 net.cpp:122] Setting up Scale51
I0929 09:26:46.245548  1584 net.cpp:129] Top shape: 100 64 8 8 (409600)
I0929 09:26:46.245548  1584 net.cpp:137] Memory required for data: 1130087600
I0929 09:26:46.245553  1584 layer_factory.hpp:77] Creating layer Eltwise24
I0929 09:26:46.245558  1584 net.cpp:84] Creating Layer Eltwise24
I0929 09:26:46.245560  1584 net.cpp:406] Eltwise24 <- Eltwise23_M2PELU47_0_split_1
I0929 09:26:46.245563  1584 net.cpp:406] Eltwise24 <- Convolution51
I0929 09:26:46.245566  1584 net.cpp:380] Eltwise24 -> Eltwise24
I0929 09:26:46.245582  1584 net.cpp:122] Setting up Eltwise24
I0929 09:26:46.245586  1584 net.cpp:129] Top shape: 100 64 8 8 (409600)
I0929 09:26:46.245589  1584 net.cpp:137] Memory required for data: 1131726000
I0929 09:26:46.245590  1584 layer_factory.hpp:77] Creating layer M2PELU49
I0929 09:26:46.245594  1584 net.cpp:84] Creating Layer M2PELU49
I0929 09:26:46.245596  1584 net.cpp:406] M2PELU49 <- Eltwise24
I0929 09:26:46.245600  1584 net.cpp:367] M2PELU49 -> Eltwise24 (in-place)
I0929 09:26:46.245690  1584 net.cpp:122] Setting up M2PELU49
I0929 09:26:46.245694  1584 net.cpp:129] Top shape: 100 64 8 8 (409600)
I0929 09:26:46.245697  1584 net.cpp:137] Memory required for data: 1133364400
I0929 09:26:46.245700  1584 layer_factory.hpp:77] Creating layer Eltwise24_M2PELU49_0_split
I0929 09:26:46.245704  1584 net.cpp:84] Creating Layer Eltwise24_M2PELU49_0_split
I0929 09:26:46.245707  1584 net.cpp:406] Eltwise24_M2PELU49_0_split <- Eltwise24
I0929 09:26:46.245710  1584 net.cpp:380] Eltwise24_M2PELU49_0_split -> Eltwise24_M2PELU49_0_split_0
I0929 09:26:46.245714  1584 net.cpp:380] Eltwise24_M2PELU49_0_split -> Eltwise24_M2PELU49_0_split_1
I0929 09:26:46.245750  1584 net.cpp:122] Setting up Eltwise24_M2PELU49_0_split
I0929 09:26:46.245754  1584 net.cpp:129] Top shape: 100 64 8 8 (409600)
I0929 09:26:46.245759  1584 net.cpp:129] Top shape: 100 64 8 8 (409600)
I0929 09:26:46.245760  1584 net.cpp:137] Memory required for data: 1136641200
I0929 09:26:46.245764  1584 layer_factory.hpp:77] Creating layer Convolution52
I0929 09:26:46.245774  1584 net.cpp:84] Creating Layer Convolution52
I0929 09:26:46.245777  1584 net.cpp:406] Convolution52 <- Eltwise24_M2PELU49_0_split_0
I0929 09:26:46.245782  1584 net.cpp:380] Convolution52 -> Convolution52
I0929 09:26:46.245867  1584 filler.hpp:251] The std of weights in this layer is: 0.0571662
I0929 09:26:46.247815  1584 net.cpp:122] Setting up Convolution52
I0929 09:26:46.247824  1584 net.cpp:129] Top shape: 100 64 8 8 (409600)
I0929 09:26:46.247826  1584 net.cpp:137] Memory required for data: 1138279600
I0929 09:26:46.247831  1584 layer_factory.hpp:77] Creating layer BatchNorm52
I0929 09:26:46.247836  1584 net.cpp:84] Creating Layer BatchNorm52
I0929 09:26:46.247839  1584 net.cpp:406] BatchNorm52 <- Convolution52
I0929 09:26:46.247843  1584 net.cpp:367] BatchNorm52 -> Convolution52 (in-place)
I0929 09:26:46.247987  1584 net.cpp:122] Setting up BatchNorm52
I0929 09:26:46.247990  1584 net.cpp:129] Top shape: 100 64 8 8 (409600)
I0929 09:26:46.247992  1584 net.cpp:137] Memory required for data: 1139918000
I0929 09:26:46.247997  1584 layer_factory.hpp:77] Creating layer Scale52
I0929 09:26:46.248001  1584 net.cpp:84] Creating Layer Scale52
I0929 09:26:46.248004  1584 net.cpp:406] Scale52 <- Convolution52
I0929 09:26:46.248008  1584 net.cpp:367] Scale52 -> Convolution52 (in-place)
I0929 09:26:46.248034  1584 layer_factory.hpp:77] Creating layer Scale52
I0929 09:26:46.248114  1584 net.cpp:122] Setting up Scale52
I0929 09:26:46.248119  1584 net.cpp:129] Top shape: 100 64 8 8 (409600)
I0929 09:26:46.248121  1584 net.cpp:137] Memory required for data: 1141556400
I0929 09:26:46.248126  1584 layer_factory.hpp:77] Creating layer M2PELU50
I0929 09:26:46.248153  1584 net.cpp:84] Creating Layer M2PELU50
I0929 09:26:46.248157  1584 net.cpp:406] M2PELU50 <- Convolution52
I0929 09:26:46.248160  1584 net.cpp:367] M2PELU50 -> Convolution52 (in-place)
I0929 09:26:46.248255  1584 net.cpp:122] Setting up M2PELU50
I0929 09:26:46.248258  1584 net.cpp:129] Top shape: 100 64 8 8 (409600)
I0929 09:26:46.248260  1584 net.cpp:137] Memory required for data: 1143194800
I0929 09:26:46.248265  1584 layer_factory.hpp:77] Creating layer Convolution53
I0929 09:26:46.248270  1584 net.cpp:84] Creating Layer Convolution53
I0929 09:26:46.248273  1584 net.cpp:406] Convolution53 <- Convolution52
I0929 09:26:46.248277  1584 net.cpp:380] Convolution53 -> Convolution53
I0929 09:26:46.248365  1584 filler.hpp:251] The std of weights in this layer is: 0.0571662
I0929 09:26:46.249994  1584 net.cpp:122] Setting up Convolution53
I0929 09:26:46.250002  1584 net.cpp:129] Top shape: 100 64 8 8 (409600)
I0929 09:26:46.250005  1584 net.cpp:137] Memory required for data: 1144833200
I0929 09:26:46.250010  1584 layer_factory.hpp:77] Creating layer BatchNorm53
I0929 09:26:46.250015  1584 net.cpp:84] Creating Layer BatchNorm53
I0929 09:26:46.250018  1584 net.cpp:406] BatchNorm53 <- Convolution53
I0929 09:26:46.250022  1584 net.cpp:367] BatchNorm53 -> Convolution53 (in-place)
I0929 09:26:46.265321  1584 net.cpp:122] Setting up BatchNorm53
I0929 09:26:46.265329  1584 net.cpp:129] Top shape: 100 64 8 8 (409600)
I0929 09:26:46.265332  1584 net.cpp:137] Memory required for data: 1146471600
I0929 09:26:46.265338  1584 layer_factory.hpp:77] Creating layer Scale53
I0929 09:26:46.265344  1584 net.cpp:84] Creating Layer Scale53
I0929 09:26:46.265347  1584 net.cpp:406] Scale53 <- Convolution53
I0929 09:26:46.265352  1584 net.cpp:367] Scale53 -> Convolution53 (in-place)
I0929 09:26:46.265383  1584 layer_factory.hpp:77] Creating layer Scale53
I0929 09:26:46.265470  1584 net.cpp:122] Setting up Scale53
I0929 09:26:46.265475  1584 net.cpp:129] Top shape: 100 64 8 8 (409600)
I0929 09:26:46.265477  1584 net.cpp:137] Memory required for data: 1148110000
I0929 09:26:46.265481  1584 layer_factory.hpp:77] Creating layer Eltwise25
I0929 09:26:46.265486  1584 net.cpp:84] Creating Layer Eltwise25
I0929 09:26:46.265489  1584 net.cpp:406] Eltwise25 <- Eltwise24_M2PELU49_0_split_1
I0929 09:26:46.265493  1584 net.cpp:406] Eltwise25 <- Convolution53
I0929 09:26:46.265496  1584 net.cpp:380] Eltwise25 -> Eltwise25
I0929 09:26:46.265524  1584 net.cpp:122] Setting up Eltwise25
I0929 09:26:46.265529  1584 net.cpp:129] Top shape: 100 64 8 8 (409600)
I0929 09:26:46.265532  1584 net.cpp:137] Memory required for data: 1149748400
I0929 09:26:46.265533  1584 layer_factory.hpp:77] Creating layer M2PELU51
I0929 09:26:46.265538  1584 net.cpp:84] Creating Layer M2PELU51
I0929 09:26:46.265542  1584 net.cpp:406] M2PELU51 <- Eltwise25
I0929 09:26:46.265545  1584 net.cpp:367] M2PELU51 -> Eltwise25 (in-place)
I0929 09:26:46.265647  1584 net.cpp:122] Setting up M2PELU51
I0929 09:26:46.265652  1584 net.cpp:129] Top shape: 100 64 8 8 (409600)
I0929 09:26:46.265655  1584 net.cpp:137] Memory required for data: 1151386800
I0929 09:26:46.265658  1584 layer_factory.hpp:77] Creating layer Eltwise25_M2PELU51_0_split
I0929 09:26:46.265663  1584 net.cpp:84] Creating Layer Eltwise25_M2PELU51_0_split
I0929 09:26:46.265666  1584 net.cpp:406] Eltwise25_M2PELU51_0_split <- Eltwise25
I0929 09:26:46.265669  1584 net.cpp:380] Eltwise25_M2PELU51_0_split -> Eltwise25_M2PELU51_0_split_0
I0929 09:26:46.265673  1584 net.cpp:380] Eltwise25_M2PELU51_0_split -> Eltwise25_M2PELU51_0_split_1
I0929 09:26:46.265700  1584 net.cpp:122] Setting up Eltwise25_M2PELU51_0_split
I0929 09:26:46.265704  1584 net.cpp:129] Top shape: 100 64 8 8 (409600)
I0929 09:26:46.265707  1584 net.cpp:129] Top shape: 100 64 8 8 (409600)
I0929 09:26:46.265709  1584 net.cpp:137] Memory required for data: 1154663600
I0929 09:26:46.265712  1584 layer_factory.hpp:77] Creating layer Convolution54
I0929 09:26:46.265718  1584 net.cpp:84] Creating Layer Convolution54
I0929 09:26:46.265720  1584 net.cpp:406] Convolution54 <- Eltwise25_M2PELU51_0_split_0
I0929 09:26:46.265727  1584 net.cpp:380] Convolution54 -> Convolution54
I0929 09:26:46.265820  1584 filler.hpp:251] The std of weights in this layer is: 0.0571662
I0929 09:26:46.268250  1584 net.cpp:122] Setting up Convolution54
I0929 09:26:46.268260  1584 net.cpp:129] Top shape: 100 64 8 8 (409600)
I0929 09:26:46.268262  1584 net.cpp:137] Memory required for data: 1156302000
I0929 09:26:46.268267  1584 layer_factory.hpp:77] Creating layer BatchNorm54
I0929 09:26:46.268273  1584 net.cpp:84] Creating Layer BatchNorm54
I0929 09:26:46.268276  1584 net.cpp:406] BatchNorm54 <- Convolution54
I0929 09:26:46.268280  1584 net.cpp:367] BatchNorm54 -> Convolution54 (in-place)
I0929 09:26:46.268429  1584 net.cpp:122] Setting up BatchNorm54
I0929 09:26:46.268434  1584 net.cpp:129] Top shape: 100 64 8 8 (409600)
I0929 09:26:46.268435  1584 net.cpp:137] Memory required for data: 1157940400
I0929 09:26:46.268440  1584 layer_factory.hpp:77] Creating layer Scale54
I0929 09:26:46.268445  1584 net.cpp:84] Creating Layer Scale54
I0929 09:26:46.268448  1584 net.cpp:406] Scale54 <- Convolution54
I0929 09:26:46.268451  1584 net.cpp:367] Scale54 -> Convolution54 (in-place)
I0929 09:26:46.268481  1584 layer_factory.hpp:77] Creating layer Scale54
I0929 09:26:46.268563  1584 net.cpp:122] Setting up Scale54
I0929 09:26:46.268568  1584 net.cpp:129] Top shape: 100 64 8 8 (409600)
I0929 09:26:46.268569  1584 net.cpp:137] Memory required for data: 1159578800
I0929 09:26:46.268573  1584 layer_factory.hpp:77] Creating layer M2PELU52
I0929 09:26:46.268579  1584 net.cpp:84] Creating Layer M2PELU52
I0929 09:26:46.268580  1584 net.cpp:406] M2PELU52 <- Convolution54
I0929 09:26:46.268584  1584 net.cpp:367] M2PELU52 -> Convolution54 (in-place)
I0929 09:26:46.268676  1584 net.cpp:122] Setting up M2PELU52
I0929 09:26:46.268682  1584 net.cpp:129] Top shape: 100 64 8 8 (409600)
I0929 09:26:46.268683  1584 net.cpp:137] Memory required for data: 1161217200
I0929 09:26:46.268687  1584 layer_factory.hpp:77] Creating layer Convolution55
I0929 09:26:46.268693  1584 net.cpp:84] Creating Layer Convolution55
I0929 09:26:46.268697  1584 net.cpp:406] Convolution55 <- Convolution54
I0929 09:26:46.268700  1584 net.cpp:380] Convolution55 -> Convolution55
I0929 09:26:46.268815  1584 filler.hpp:251] The std of weights in this layer is: 0.0571662
I0929 09:26:46.270606  1584 net.cpp:122] Setting up Convolution55
I0929 09:26:46.270623  1584 net.cpp:129] Top shape: 100 64 8 8 (409600)
I0929 09:26:46.270627  1584 net.cpp:137] Memory required for data: 1162855600
I0929 09:26:46.270632  1584 layer_factory.hpp:77] Creating layer BatchNorm55
I0929 09:26:46.270637  1584 net.cpp:84] Creating Layer BatchNorm55
I0929 09:26:46.270639  1584 net.cpp:406] BatchNorm55 <- Convolution55
I0929 09:26:46.270643  1584 net.cpp:367] BatchNorm55 -> Convolution55 (in-place)
I0929 09:26:46.270787  1584 net.cpp:122] Setting up BatchNorm55
I0929 09:26:46.270792  1584 net.cpp:129] Top shape: 100 64 8 8 (409600)
I0929 09:26:46.270794  1584 net.cpp:137] Memory required for data: 1164494000
I0929 09:26:46.270798  1584 layer_factory.hpp:77] Creating layer Scale55
I0929 09:26:46.270802  1584 net.cpp:84] Creating Layer Scale55
I0929 09:26:46.270805  1584 net.cpp:406] Scale55 <- Convolution55
I0929 09:26:46.270808  1584 net.cpp:367] Scale55 -> Convolution55 (in-place)
I0929 09:26:46.270838  1584 layer_factory.hpp:77] Creating layer Scale55
I0929 09:26:46.270927  1584 net.cpp:122] Setting up Scale55
I0929 09:26:46.270931  1584 net.cpp:129] Top shape: 100 64 8 8 (409600)
I0929 09:26:46.270933  1584 net.cpp:137] Memory required for data: 1166132400
I0929 09:26:46.270937  1584 layer_factory.hpp:77] Creating layer Eltwise26
I0929 09:26:46.270941  1584 net.cpp:84] Creating Layer Eltwise26
I0929 09:26:46.270944  1584 net.cpp:406] Eltwise26 <- Eltwise25_M2PELU51_0_split_1
I0929 09:26:46.270947  1584 net.cpp:406] Eltwise26 <- Convolution55
I0929 09:26:46.270951  1584 net.cpp:380] Eltwise26 -> Eltwise26
I0929 09:26:46.270967  1584 net.cpp:122] Setting up Eltwise26
I0929 09:26:46.270972  1584 net.cpp:129] Top shape: 100 64 8 8 (409600)
I0929 09:26:46.270973  1584 net.cpp:137] Memory required for data: 1167770800
I0929 09:26:46.270975  1584 layer_factory.hpp:77] Creating layer M2PELU53
I0929 09:26:46.270980  1584 net.cpp:84] Creating Layer M2PELU53
I0929 09:26:46.270982  1584 net.cpp:406] M2PELU53 <- Eltwise26
I0929 09:26:46.270987  1584 net.cpp:367] M2PELU53 -> Eltwise26 (in-place)
I0929 09:26:46.271078  1584 net.cpp:122] Setting up M2PELU53
I0929 09:26:46.271083  1584 net.cpp:129] Top shape: 100 64 8 8 (409600)
I0929 09:26:46.271085  1584 net.cpp:137] Memory required for data: 1169409200
I0929 09:26:46.271088  1584 layer_factory.hpp:77] Creating layer Eltwise26_M2PELU53_0_split
I0929 09:26:46.271092  1584 net.cpp:84] Creating Layer Eltwise26_M2PELU53_0_split
I0929 09:26:46.271095  1584 net.cpp:406] Eltwise26_M2PELU53_0_split <- Eltwise26
I0929 09:26:46.271098  1584 net.cpp:380] Eltwise26_M2PELU53_0_split -> Eltwise26_M2PELU53_0_split_0
I0929 09:26:46.271102  1584 net.cpp:380] Eltwise26_M2PELU53_0_split -> Eltwise26_M2PELU53_0_split_1
I0929 09:26:46.271126  1584 net.cpp:122] Setting up Eltwise26_M2PELU53_0_split
I0929 09:26:46.271129  1584 net.cpp:129] Top shape: 100 64 8 8 (409600)
I0929 09:26:46.271132  1584 net.cpp:129] Top shape: 100 64 8 8 (409600)
I0929 09:26:46.271134  1584 net.cpp:137] Memory required for data: 1172686000
I0929 09:26:46.271136  1584 layer_factory.hpp:77] Creating layer Convolution56
I0929 09:26:46.271143  1584 net.cpp:84] Creating Layer Convolution56
I0929 09:26:46.271145  1584 net.cpp:406] Convolution56 <- Eltwise26_M2PELU53_0_split_0
I0929 09:26:46.271149  1584 net.cpp:380] Convolution56 -> Convolution56
I0929 09:26:46.271232  1584 filler.hpp:251] The std of weights in this layer is: 0.0571662
I0929 09:26:46.272835  1584 net.cpp:122] Setting up Convolution56
I0929 09:26:46.272843  1584 net.cpp:129] Top shape: 100 64 8 8 (409600)
I0929 09:26:46.272846  1584 net.cpp:137] Memory required for data: 1174324400
I0929 09:26:46.272851  1584 layer_factory.hpp:77] Creating layer BatchNorm56
I0929 09:26:46.272856  1584 net.cpp:84] Creating Layer BatchNorm56
I0929 09:26:46.272860  1584 net.cpp:406] BatchNorm56 <- Convolution56
I0929 09:26:46.272863  1584 net.cpp:367] BatchNorm56 -> Convolution56 (in-place)
I0929 09:26:46.273010  1584 net.cpp:122] Setting up BatchNorm56
I0929 09:26:46.273015  1584 net.cpp:129] Top shape: 100 64 8 8 (409600)
I0929 09:26:46.273022  1584 net.cpp:137] Memory required for data: 1175962800
I0929 09:26:46.273027  1584 layer_factory.hpp:77] Creating layer Scale56
I0929 09:26:46.273032  1584 net.cpp:84] Creating Layer Scale56
I0929 09:26:46.273035  1584 net.cpp:406] Scale56 <- Convolution56
I0929 09:26:46.273037  1584 net.cpp:367] Scale56 -> Convolution56 (in-place)
I0929 09:26:46.273066  1584 layer_factory.hpp:77] Creating layer Scale56
I0929 09:26:46.273149  1584 net.cpp:122] Setting up Scale56
I0929 09:26:46.273152  1584 net.cpp:129] Top shape: 100 64 8 8 (409600)
I0929 09:26:46.273154  1584 net.cpp:137] Memory required for data: 1177601200
I0929 09:26:46.273157  1584 layer_factory.hpp:77] Creating layer M2PELU54
I0929 09:26:46.273164  1584 net.cpp:84] Creating Layer M2PELU54
I0929 09:26:46.273165  1584 net.cpp:406] M2PELU54 <- Convolution56
I0929 09:26:46.273169  1584 net.cpp:367] M2PELU54 -> Convolution56 (in-place)
I0929 09:26:46.273259  1584 net.cpp:122] Setting up M2PELU54
I0929 09:26:46.273263  1584 net.cpp:129] Top shape: 100 64 8 8 (409600)
I0929 09:26:46.273265  1584 net.cpp:137] Memory required for data: 1179239600
I0929 09:26:46.273269  1584 layer_factory.hpp:77] Creating layer Convolution57
I0929 09:26:46.273275  1584 net.cpp:84] Creating Layer Convolution57
I0929 09:26:46.273278  1584 net.cpp:406] Convolution57 <- Convolution56
I0929 09:26:46.273281  1584 net.cpp:380] Convolution57 -> Convolution57
I0929 09:26:46.273368  1584 filler.hpp:251] The std of weights in this layer is: 0.0571662
I0929 09:26:46.274977  1584 net.cpp:122] Setting up Convolution57
I0929 09:26:46.274986  1584 net.cpp:129] Top shape: 100 64 8 8 (409600)
I0929 09:26:46.274989  1584 net.cpp:137] Memory required for data: 1180878000
I0929 09:26:46.274993  1584 layer_factory.hpp:77] Creating layer BatchNorm57
I0929 09:26:46.274998  1584 net.cpp:84] Creating Layer BatchNorm57
I0929 09:26:46.275001  1584 net.cpp:406] BatchNorm57 <- Convolution57
I0929 09:26:46.275007  1584 net.cpp:367] BatchNorm57 -> Convolution57 (in-place)
I0929 09:26:46.275147  1584 net.cpp:122] Setting up BatchNorm57
I0929 09:26:46.275151  1584 net.cpp:129] Top shape: 100 64 8 8 (409600)
I0929 09:26:46.275153  1584 net.cpp:137] Memory required for data: 1182516400
I0929 09:26:46.275158  1584 layer_factory.hpp:77] Creating layer Scale57
I0929 09:26:46.275162  1584 net.cpp:84] Creating Layer Scale57
I0929 09:26:46.275164  1584 net.cpp:406] Scale57 <- Convolution57
I0929 09:26:46.275168  1584 net.cpp:367] Scale57 -> Convolution57 (in-place)
I0929 09:26:46.275195  1584 layer_factory.hpp:77] Creating layer Scale57
I0929 09:26:46.275276  1584 net.cpp:122] Setting up Scale57
I0929 09:26:46.275280  1584 net.cpp:129] Top shape: 100 64 8 8 (409600)
I0929 09:26:46.275282  1584 net.cpp:137] Memory required for data: 1184154800
I0929 09:26:46.275285  1584 layer_factory.hpp:77] Creating layer Eltwise27
I0929 09:26:46.275290  1584 net.cpp:84] Creating Layer Eltwise27
I0929 09:26:46.275292  1584 net.cpp:406] Eltwise27 <- Eltwise26_M2PELU53_0_split_1
I0929 09:26:46.275295  1584 net.cpp:406] Eltwise27 <- Convolution57
I0929 09:26:46.275300  1584 net.cpp:380] Eltwise27 -> Eltwise27
I0929 09:26:46.275315  1584 net.cpp:122] Setting up Eltwise27
I0929 09:26:46.275319  1584 net.cpp:129] Top shape: 100 64 8 8 (409600)
I0929 09:26:46.275321  1584 net.cpp:137] Memory required for data: 1185793200
I0929 09:26:46.275323  1584 layer_factory.hpp:77] Creating layer M2PELU55
I0929 09:26:46.275328  1584 net.cpp:84] Creating Layer M2PELU55
I0929 09:26:46.275331  1584 net.cpp:406] M2PELU55 <- Eltwise27
I0929 09:26:46.275334  1584 net.cpp:367] M2PELU55 -> Eltwise27 (in-place)
I0929 09:26:46.275426  1584 net.cpp:122] Setting up M2PELU55
I0929 09:26:46.275430  1584 net.cpp:129] Top shape: 100 64 8 8 (409600)
I0929 09:26:46.275432  1584 net.cpp:137] Memory required for data: 1187431600
I0929 09:26:46.275435  1584 layer_factory.hpp:77] Creating layer Pooling1
I0929 09:26:46.275440  1584 net.cpp:84] Creating Layer Pooling1
I0929 09:26:46.275444  1584 net.cpp:406] Pooling1 <- Eltwise27
I0929 09:26:46.275446  1584 net.cpp:380] Pooling1 -> Pooling1
I0929 09:26:46.275928  1584 net.cpp:122] Setting up Pooling1
I0929 09:26:46.275935  1584 net.cpp:129] Top shape: 100 64 1 1 (6400)
I0929 09:26:46.275938  1584 net.cpp:137] Memory required for data: 1187457200
I0929 09:26:46.275940  1584 layer_factory.hpp:77] Creating layer InnerProduct1
I0929 09:26:46.275946  1584 net.cpp:84] Creating Layer InnerProduct1
I0929 09:26:46.275949  1584 net.cpp:406] InnerProduct1 <- Pooling1
I0929 09:26:46.275954  1584 net.cpp:380] InnerProduct1 -> InnerProduct1
I0929 09:26:46.276059  1584 net.cpp:122] Setting up InnerProduct1
I0929 09:26:46.276064  1584 net.cpp:129] Top shape: 100 10 (1000)
I0929 09:26:46.276067  1584 net.cpp:137] Memory required for data: 1187461200
I0929 09:26:46.276070  1584 layer_factory.hpp:77] Creating layer InnerProduct1_InnerProduct1_0_split
I0929 09:26:46.276074  1584 net.cpp:84] Creating Layer InnerProduct1_InnerProduct1_0_split
I0929 09:26:46.276077  1584 net.cpp:406] InnerProduct1_InnerProduct1_0_split <- InnerProduct1
I0929 09:26:46.276080  1584 net.cpp:380] InnerProduct1_InnerProduct1_0_split -> InnerProduct1_InnerProduct1_0_split_0
I0929 09:26:46.276085  1584 net.cpp:380] InnerProduct1_InnerProduct1_0_split -> InnerProduct1_InnerProduct1_0_split_1
I0929 09:26:46.276110  1584 net.cpp:122] Setting up InnerProduct1_InnerProduct1_0_split
I0929 09:26:46.276114  1584 net.cpp:129] Top shape: 100 10 (1000)
I0929 09:26:46.276116  1584 net.cpp:129] Top shape: 100 10 (1000)
I0929 09:26:46.276118  1584 net.cpp:137] Memory required for data: 1187469200
I0929 09:26:46.276120  1584 layer_factory.hpp:77] Creating layer SoftmaxWithLoss1
I0929 09:26:46.276124  1584 net.cpp:84] Creating Layer SoftmaxWithLoss1
I0929 09:26:46.276126  1584 net.cpp:406] SoftmaxWithLoss1 <- InnerProduct1_InnerProduct1_0_split_0
I0929 09:26:46.276129  1584 net.cpp:406] SoftmaxWithLoss1 <- Data2_Data1_1_split_0
…
