…
I0925 19:59:02.494807  3461 net.cpp:294] The NetState phase (0) differed from the phase (1) specified by a rule in layer Accuracy1
I0925 19:59:02.495996  3461 net.cpp:51] Initializing net from parameters: 
name: "resnet_cifar10"
state {
  phase: TRAIN
  level: 0
  stage: ""
}
layer {
  name: "Data1"
  type: "Data"
  top: "Data1"
  top: "Data2"
  include {
    phase: TRAIN
  }
  transform_param {
    mirror: true
    crop_size: 28
    mean_file: "/home/x306/caffe/xn/PENLU/data/cifar10/mean.binaryproto"
  }
  data_param {
    source: "/home/x306/caffe/xn/PENLU/data/cifar10/cifar10_train_lmdb"
    batch_size: 100
    backend: LMDB
  }
}
layer {
  name: "Convolution1"
  type: "Convolution"
  bottom: "Data1"
  top: "Convolution1"
  param {
    lr_mult: 1
    decay_mult: 1
  }
  param {
    lr_mult: 2
    decay_mult: 0
  }
  convolution_param {
    num_output: 16
    pad: 1
    kernel_size: 3
    stride: 1
    weight_filler {
      type: "gaussian"
      std: 0.118
    }
    bias_filler {
      type: "constant"
      value: 0
    }
  }
}
layer {
  name: "BatchNorm1"
  type: "BatchNorm"
  bottom: "Convolution1"
  top: "Convolution1"
  param {
    lr_mult: 0
    decay_mult: 0
  }
  param {
    lr_mult: 0
    decay_mult: 0
  }
  param {
    lr_mult: 0
    decay_mult: 0
  }
}
layer {
  name: "Scale1"
  type: "Scale"
  bottom: "Convolution1"
  top: "Convolution1"
  scale_param {
    bias_term: true
  }
}
layer {
  name: "penlu1"
  type: "PENLU"
  bottom: "Convolution1"
  top: "Convolution1"
  param {
    lr_mult: 1
    decay_mult: 1
  }
  param {
    lr_mult: 1
    decay_mult: 1
  }
  param {
    lr_mult: 1
    decay_mult: 1
  }
  penlu_param {
    alpha_filler {
      type: "constant"
      value: 2
    }
    beta_filler {
      type: "constant"
      value: 1
    }
    eta_filler {
      type: "constant"
      value: 1
    }
  }
}
layer {
  name: "Convolution2"
  type: "Convolution"
  bottom: "Convolution1"
  top: "Convolution2"
  param {
    lr_mult: 1
    decay_mult: 1
  }
  param {
    lr_mult: 2
    decay_mult: 0
  }
  convolution_param {
    num_output: 16
    pad: 1
    kernel_size: 3
    stride: 1
    weight_filler {
      type: "gaussian"
      std: 0.118
    }
    bias_filler {
      type: "constant"
      value: 0
    }
  }
}
layer {
  name: "BatchNorm2"
  type: "BatchNorm"
  bottom: "Convolution2"
  top: "Convolution2"
  param {
    lr_mult: 0
    decay_mult: 0
  }
  param {
    lr_mult: 0
    decay_mult: 0
  }
  param {
    lr_mult: 0
    decay_mult: 0
  }
}
layer {
  name: "Scale2"
  type: "Scale"
  bottom: "Convolution2"
  top: "Convolution2"
  scale_param {
    bias_term: true
  }
}
layer {
  name: "penlu2"
  type: "PENLU"
  bottom: "Convolution2"
  top: "Convolution2"
  param {
    lr_mult: 1
    decay_mult: 1
  }
  param {
    lr_mult: 1
    decay_mult: 1
  }
  param {
    lr_mult: 1
    decay_mult: 1
  }
  penlu_param {
    alpha_filler {
      type: "constant"
      value: 2
    }
    beta_filler {
      type: "constant"
      value: 1
    }
    eta_filler {
      type: "constant"
      value: 1
    }
  }
}
layer {
  name: "Convolution3"
  type: "Convolution"
  bottom: "Convolution2"
  top: "Convolution3"
  param {
    lr_mult: 1
    decay_mult: 1
  }
  param {
    lr_mult: 2
    decay_mult: 0
  }
  convolution_param {
    num_output: 16
    pad: 1
    kernel_size: 3
    stride: 1
    weight_filler {
      type: "gaussian"
      std: 0.118
    }
    bias_filler {
      type: "constant"
      value: 0
    }
  }
}
layer {
  name: "BatchNorm3"
  type: "BatchNorm"
  bottom: "Convolution3"
  top: "Convolution3"
  param {
    lr_mult: 0
    decay_mult: 0
  }
  param {
    lr_mult: 0
    decay_mult: 0
  }
  param {
    lr_mult: 0
    decay_mult: 0
  }
}
layer {
  name: "Scale3"
  type: "Scale"
  bottom: "Convolution3"
  top: "Convolution3"
  scale_param {
    bias_term: true
  }
}
layer {
  name: "Eltwise1"
  type: "Eltwise"
  bottom: "Convolution1"
  bottom: "Convolution3"
  top: "Eltwise1"
  eltwise_param {
    operation: SUM
  }
}
layer {
  name: "penlu3"
  type: "PENLU"
  bottom: "Eltwise1"
  top: "Eltwise1"
  param {
    lr_mult: 1
    decay_mult: 1
  }
  param {
    lr_mult: 1
    decay_mult: 1
  }
  param {
    lr_mult: 1
    decay_mult: 1
  }
  penlu_param {
    alpha_filler {
      type: "constant"
      value: 2
    }
    beta_filler {
      type: "constant"
      value: 1
    }
    eta_filler {
      type: "constant"
      value: 1
    }
  }
}
layer {
  name: "Convolution4"
  type: "Convolution"
  bottom: "Eltwise1"
  top: "Convolution4"
  param {
    lr_mult: 1
    decay_mult: 1
  }
  param {
    lr_mult: 2
    decay_mult: 0
  }
  convolution_param {
    num_output: 16
    pad: 1
    kernel_size: 3
    stride: 1
    weight_filler {
      type: "gaussian"
      std: 0.118
    }
    bias_filler {
      type: "constant"
      value: 0
    }
  }
}
layer {
  name: "BatchNorm4"
  type: "BatchNorm"
  bottom: "Convolution4"
  top: "Convolution4"
  param {
    lr_mult: 0
    decay_mult: 0
  }
  param {
    lr_mult: 0
    decay_mult: 0
  }
  param {
    lr_mult: 0
    decay_mult: 0
  }
}
layer {
  name: "Scale4"
  type: "Scale"
  bottom: "Convolution4"
  top: "Convolution4"
  scale_param {
    bias_term: true
  }
}
layer {
  name: "penlu4"
  type: "PENLU"
  bottom: "Convolution4"
  top: "Convolution4"
  param {
    lr_mult: 1
    decay_mult: 1
  }
  param {
    lr_mult: 1
    decay_mult: 1
  }
  param {
    lr_mult: 1
    decay_mult: 1
  }
  penlu_param {
    alpha_filler {
      type: "constant"
      value: 2
    }
    beta_filler {
      type: "constant"
      value: 1
    }
    eta_filler {
      type: "constant"
      value: 1
    }
  }
}
layer {
  name: "Convolution5"
  type: "Convolution"
  bottom: "Convolution4"
  top: "Convolution5"
  param {
    lr_mult: 1
    decay_mult: 1
  }
  param {
    lr_mult: 2
    decay_mult: 0
  }
  convolution_param {
    num_output: 16
    pad: 1
    kernel_size: 3
    stride: 1
    weight_filler {
      type: "gaussian"
      std: 0.118
    }
    bias_filler {
      type: "constant"
      value: 0
    }
  }
}
layer {
  name: "BatchNorm5"
  type: "BatchNorm"
  bottom: "Convolution5"
  top: "Convolution5"
  param {
    lr_mult: 0
    decay_mult: 0
  }
  param {
    lr_mult: 0
    decay_mult: 0
  }
  param {
    lr_mult: 0
    decay_mult: 0
  }
}
layer {
  name: "Scale5"
  type: "Scale"
  bottom: "Convolution5"
  top: "Convolution5"
  scale_param {
    bias_term: true
  }
}
layer {
  name: "Eltwise2"
  type: "Eltwise"
  bottom: "Eltwise1"
  bottom: "Convolution5"
  top: "Eltwise2"
  eltwise_param {
    operation: SUM
  }
}
layer {
  name: "penlu5"
  type: "PENLU"
  bottom: "Eltwise2"
  top: "Eltwise2"
  param {
    lr_mult: 1
    decay_mult: 1
  }
  param {
    lr_mult: 1
    decay_mult: 1
  }
  param {
    lr_mult: 1
    decay_mult: 1
  }
  penlu_param {
    alpha_filler {
      type: "constant"
      value: 2
    }
    beta_filler {
      type: "constant"
      value: 1
    }
    eta_filler {
      type: "constant"
      value: 1
    }
  }
}
layer {
  name: "Convolution6"
  type: "Convolution"
  bottom: "Eltwise2"
  top: "Convolution6"
  param {
    lr_mult: 1
    decay_mult: 1
  }
  param {
    lr_mult: 2
    decay_mult: 0
  }
  convolution_param {
    num_output: 16
    pad: 1
    kernel_size: 3
    stride: 1
    weight_filler {
      type: "gaussian"
      std: 0.118
    }
    bias_filler {
      type: "constant"
      value: 0
    }
  }
}
layer {
  name: "BatchNorm6"
  type: "BatchNorm"
  bottom: "Convolution6"
  top: "Convolution6"
  param {
    lr_mult: 0
    decay_mult: 0
  }
  param {
    lr_mult: 0
    decay_mult: 0
  }
  param {
    lr_mult: 0
    decay_mult: 0
  }
}
layer {
  name: "Scale6"
  type: "Scale"
  bottom: "Convolution6"
  top: "Convolution6"
  scale_param {
    bias_term: true
  }
}
layer {
  name: "penlu6"
  type: "PENLU"
  bottom: "Convolution6"
  top: "Convolution6"
  param {
    lr_mult: 1
    decay_mult: 1
  }
  param {
    lr_mult: 1
    decay_mult: 1
  }
  param {
    lr_mult: 1
    decay_mult: 1
  }
  penlu_param {
    alpha_filler {
      type: "constant"
      value: 2
    }
    beta_filler {
      type: "constant"
      value: 1
    }
    eta_filler {
      type: "constant"
      value: 1
    }
  }
}
layer {
  name: "Convolution7"
  type: "Convolution"
  bottom: "Convolution6"
  top: "Convolution7"
  param {
    lr_mult: 1
    decay_mult: 1
  }
  param {
    lr_mult: 2
    decay_mult: 0
  }
  convolution_param {
    num_output: 16
    pad: 1
    kernel_size: 3
    stride: 1
    weight_filler {
      type: "gaussian"
      std: 0.118
    }
    bias_filler {
      type: "constant"
      value: 0
    }
  }
}
layer {
  name: "BatchNorm7"
  type: "BatchNorm"
  bottom: "Convolution7"
  top: "Convolution7"
  param {
    lr_mult: 0
    decay_mult: 0
  }
  param {
    lr_mult: 0
    decay_mult: 0
  }
  param {
    lr_mult: 0
    decay_mult: 0
  }
}
layer {
  name: "Scale7"
  type: "Scale"
  bottom: "Convolution7"
  top: "Convolution7"
  scale_param {
    bias_term: true
  }
}
layer {
  name: "Eltwise3"
  type: "Eltwise"
  bottom: "Eltwise2"
  bottom: "Convolution7"
  top: "Eltwise3"
  eltwise_param {
    operation: SUM
  }
}
layer {
  name: "penlu7"
  type: "PENLU"
  bottom: "Eltwise3"
  top: "Eltwise3"
  param {
    lr_mult: 1
    decay_mult: 1
  }
  param {
    lr_mult: 1
    decay_mult: 1
  }
  param {
    lr_mult: 1
    decay_mult: 1
  }
  penlu_param {
    alpha_filler {
      type: "constant"
      value: 2
    }
    beta_filler {
      type: "constant"
      value: 1
    }
    eta_filler {
      type: "constant"
      value: 1
    }
  }
}
layer {
  name: "Convolution8"
  type: "Convolution"
  bottom: "Eltwise3"
  top: "Convolution8"
  param {
    lr_mult: 1
    decay_mult: 1
  }
  param {
    lr_mult: 2
    decay_mult: 0
  }
  convolution_param {
    num_output: 16
    pad: 1
    kernel_size: 3
    stride: 1
    weight_filler {
      type: "gaussian"
      std: 0.118
    }
    bias_filler {
      type: "constant"
      value: 0
    }
  }
}
layer {
  name: "BatchNorm8"
  type: "BatchNorm"
  bottom: "Convolution8"
  top: "Convolution8"
  param {
    lr_mult: 0
    decay_mult: 0
  }
  param {
    lr_mult: 0
    decay_mult: 0
  }
  param {
    lr_mult: 0
    decay_mult: 0
  }
}
layer {
  name: "Scale8"
  type: "Scale"
  bottom: "Convolution8"
  top: "Convolution8"
  scale_param {
    bias_term: true
  }
}
layer {
  name: "penlu8"
  type: "PENLU"
  bottom: "Convolution8"
  top: "Convolution8"
  param {
    lr_mult: 1
    decay_mult: 1
  }
  param {
    lr_mult: 1
    decay_mult: 1
  }
  param {
    lr_mult: 1
    decay_mult: 1
  }
  penlu_param {
    alpha_filler {
      type: "constant"
      value: 2
    }
    beta_filler {
      type: "constant"
      value: 1
    }
    eta_filler {
      type: "constant"
      value: 1
    }
  }
}
layer {
  name: "Convolution9"
  type: "Convolution"
  bottom: "Convolution8"
  top: "Convolution9"
  param {
    lr_mult: 1
    decay_mult: 1
  }
  param {
    lr_mult: 2
    decay_mult: 0
  }
  convolution_param {
    num_output: 16
    pad: 1
    kernel_size: 3
    stride: 1
    weight_filler {
      type: "gaussian"
      std: 0.118
    }
    bias_filler {
      type: "constant"
      value: 0
    }
  }
}
layer {
  name: "BatchNorm9"
  type: "BatchNorm"
  bottom: "Convolution9"
  top: "Convolution9"
  param {
    lr_mult: 0
    decay_mult: 0
  }
  param {
    lr_mult: 0
    decay_mult: 0
  }
  param {
    lr_mult: 0
    decay_mult: 0
  }
}
layer {
  name: "Scale9"
  type: "Scale"
  bottom: "Convolution9"
  top: "Convolution9"
  scale_param {
    bias_term: true
  }
}
layer {
  name: "Eltwise4"
  type: "Eltwise"
  bottom: "Eltwise3"
  bottom: "Convolution9"
  top: "Eltwise4"
  eltwise_param {
    operation: SUM
  }
}
layer {
  name: "penlu9"
  type: "PENLU"
  bottom: "Eltwise4"
  top: "Eltwise4"
  param {
    lr_mult: 1
    decay_mult: 1
  }
  param {
    lr_mult: 1
    decay_mult: 1
  }
  param {
    lr_mult: 1
    decay_mult: 1
  }
  penlu_param {
    alpha_filler {
      type: "constant"
      value: 2
    }
    beta_filler {
      type: "constant"
      value: 1
    }
    eta_filler {
      type: "constant"
      value: 1
    }
  }
}
layer {
  name: "Convolution10"
  type: "Convolution"
  bottom: "Eltwise4"
  top: "Convolution10"
  param {
    lr_mult: 1
    decay_mult: 1
  }
  param {
    lr_mult: 2
    decay_mult: 0
  }
  convolution_param {
    num_output: 16
    pad: 1
    kernel_size: 3
    stride: 1
    weight_filler {
      type: "gaussian"
      std: 0.118
    }
    bias_filler {
      type: "constant"
      value: 0
    }
  }
}
layer {
  name: "BatchNorm10"
  type: "BatchNorm"
  bottom: "Convolution10"
  top: "Convolution10"
  param {
    lr_mult: 0
    decay_mult: 0
  }
  param {
    lr_mult: 0
    decay_mult: 0
  }
  param {
    lr_mult: 0
    decay_mult: 0
  }
}
layer {
  name: "Scale10"
  type: "Scale"
  bottom: "Convolution10"
  top: "Convolution10"
  scale_param {
    bias_term: true
  }
}
layer {
  name: "penlu10"
  type: "PENLU"
  bottom: "Convolution10"
  top: "Convolution10"
  param {
    lr_mult: 1
    decay_mult: 1
  }
  param {
    lr_mult: 1
    decay_mult: 1
  }
  param {
    lr_mult: 1
    decay_mult: 1
  }
  penlu_param {
    alpha_filler {
      type: "constant"
      value: 2
    }
    beta_filler {
      type: "constant"
      value: 1
    }
    eta_filler {
      type: "constant"
      value: 1
    }
  }
}
layer {
  name: "Convolution11"
  type: "Convolution"
  bottom: "Convolution10"
  top: "Convolution11"
  param {
    lr_mult: 1
    decay_mult: 1
  }
  param {
    lr_mult: 2
    decay_mult: 0
  }
  convolution_param {
    num_output: 16
    pad: 1
    kernel_size: 3
    stride: 1
    weight_filler {
      type: "gaussian"
      std: 0.118
    }
    bias_filler {
      type: "constant"
      value: 0
    }
  }
}
layer {
  name: "BatchNorm11"
  type: "BatchNorm"
  bottom: "Convolution11"
  top: "Convolution11"
  param {
    lr_mult: 0
    decay_mult: 0
  }
  param {
    lr_mult: 0
    decay_mult: 0
  }
  param {
    lr_mult: 0
    decay_mult: 0
  }
}
layer {
  name: "Scale11"
  type: "Scale"
  bottom: "Convolution11"
  top: "Convolution11"
  scale_param {
    bias_term: true
  }
}
layer {
  name: "Eltwise5"
  type: "Eltwise"
  bottom: "Eltwise4"
  bottom: "Convolution11"
  top: "Eltwise5"
  eltwise_param {
    operation: SUM
  }
}
layer {
  name: "penlu11"
  type: "PENLU"
  bottom: "Eltwise5"
  top: "Eltwise5"
  param {
    lr_mult: 1
    decay_mult: 1
  }
  param {
    lr_mult: 1
    decay_mult: 1
  }
  param {
    lr_mult: 1
    decay_mult: 1
  }
  penlu_param {
    alpha_filler {
      type: "constant"
      value: 2
    }
    beta_filler {
      type: "constant"
      value: 1
    }
    eta_filler {
      type: "constant"
      value: 1
    }
  }
}
layer {
  name: "Convolution12"
  type: "Convolution"
  bottom: "Eltwise5"
  top: "Convolution12"
  param {
    lr_mult: 1
    decay_mult: 1
  }
  param {
    lr_mult: 2
    decay_mult: 0
  }
  convolution_param {
    num_output: 16
    pad: 1
    kernel_size: 3
    stride: 1
    weight_filler {
      type: "gaussian"
      std: 0.118
    }
    bias_filler {
      type: "constant"
      value: 0
    }
  }
}
layer {
  name: "BatchNorm12"
  type: "BatchNorm"
  bottom: "Convolution12"
  top: "Convolution12"
  param {
    lr_mult: 0
    decay_mult: 0
  }
  param {
    lr_mult: 0
    decay_mult: 0
  }
  param {
    lr_mult: 0
    decay_mult: 0
  }
}
layer {
  name: "Scale12"
  type: "Scale"
  bottom: "Convolution12"
  top: "Convolution12"
  scale_param {
    bias_term: true
  }
}
layer {
  name: "penlu12"
  type: "PENLU"
  bottom: "Convolution12"
  top: "Convolution12"
  param {
    lr_mult: 1
    decay_mult: 1
  }
  param {
    lr_mult: 1
    decay_mult: 1
  }
  param {
    lr_mult: 1
    decay_mult: 1
  }
  penlu_param {
    alpha_filler {
      type: "constant"
      value: 2
    }
    beta_filler {
      type: "constant"
      value: 1
    }
    eta_filler {
      type: "constant"
      value: 1
    }
  }
}
layer {
  name: "Convolution13"
  type: "Convolution"
  bottom: "Convolution12"
  top: "Convolution13"
  param {
    lr_mult: 1
    decay_mult: 1
  }
  param {
    lr_mult: 2
    decay_mult: 0
  }
  convolution_param {
    num_output: 16
    pad: 1
    kernel_size: 3
    stride: 1
    weight_filler {
      type: "gaussian"
      std: 0.118
    }
    bias_filler {
      type: "constant"
      value: 0
    }
  }
}
layer {
  name: "BatchNorm13"
  type: "BatchNorm"
  bottom: "Convolution13"
  top: "Convolution13"
  param {
    lr_mult: 0
    decay_mult: 0
  }
  param {
    lr_mult: 0
    decay_mult: 0
  }
  param {
    lr_mult: 0
    decay_mult: 0
  }
}
layer {
  name: "Scale13"
  type: "Scale"
  bottom: "Convolution13"
  top: "Convolution13"
  scale_param {
    bias_term: true
  }
}
layer {
  name: "Eltwise6"
  type: "Eltwise"
  bottom: "Eltwise5"
  bottom: "Convolution13"
  top: "Eltwise6"
  eltwise_param {
    operation: SUM
  }
}
layer {
  name: "penlu13"
  type: "PENLU"
  bottom: "Eltwise6"
  top: "Eltwise6"
  param {
    lr_mult: 1
    decay_mult: 1
  }
  param {
    lr_mult: 1
    decay_mult: 1
  }
  param {
    lr_mult: 1
    decay_mult: 1
  }
  penlu_param {
    alpha_filler {
      type: "constant"
      value: 2
    }
    beta_filler {
      type: "constant"
      value: 1
    }
    eta_filler {
      type: "constant"
      value: 1
    }
  }
}
layer {
  name: "Convolution14"
  type: "Convolution"
  bottom: "Eltwise6"
  top: "Convolution14"
  param {
    lr_mult: 1
    decay_mult: 1
  }
  param {
    lr_mult: 2
    decay_mult: 0
  }
  convolution_param {
    num_output: 16
    pad: 1
    kernel_size: 3
    stride: 1
    weight_filler {
      type: "gaussian"
      std: 0.118
    }
    bias_filler {
      type: "constant"
      value: 0
    }
  }
}
layer {
  name: "BatchNorm14"
  type: "BatchNorm"
  bottom: "Convolution14"
  top: "Convolution14"
  param {
    lr_mult: 0
    decay_mult: 0
  }
  param {
    lr_mult: 0
    decay_mult: 0
  }
  param {
    lr_mult: 0
    decay_mult: 0
  }
}
layer {
  name: "Scale14"
  type: "Scale"
  bottom: "Convolution14"
  top: "Convolution14"
  scale_param {
    bias_term: true
  }
}
layer {
  name: "penlu14"
  type: "PENLU"
  bottom: "Convolution14"
  top: "Convolution14"
  param {
    lr_mult: 1
    decay_mult: 1
  }
  param {
    lr_mult: 1
    decay_mult: 1
  }
  param {
    lr_mult: 1
    decay_mult: 1
  }
  penlu_param {
    alpha_filler {
      type: "constant"
      value: 2
    }
    beta_filler {
      type: "constant"
      value: 1
    }
    eta_filler {
      type: "constant"
      value: 1
    }
  }
}
layer {
  name: "Convolution15"
  type: "Convolution"
  bottom: "Convolution14"
  top: "Convolution15"
  param {
    lr_mult: 1
    decay_mult: 1
  }
  param {
    lr_mult: 2
    decay_mult: 0
  }
  convolution_param {
    num_output: 16
    pad: 1
    kernel_size: 3
    stride: 1
    weight_filler {
      type: "gaussian"
      std: 0.118
    }
    bias_filler {
      type: "constant"
      value: 0
    }
  }
}
layer {
  name: "BatchNorm15"
  type: "BatchNorm"
  bottom: "Convolution15"
  top: "Convolution15"
  param {
    lr_mult: 0
    decay_mult: 0
  }
  param {
    lr_mult: 0
    decay_mult: 0
  }
  param {
    lr_mult: 0
    decay_mult: 0
  }
}
layer {
  name: "Scale15"
  type: "Scale"
  bottom: "Convolution15"
  top: "Convolution15"
  scale_param {
    bias_term: true
  }
}
layer {
  name: "Eltwise7"
  type: "Eltwise"
  bottom: "Eltwise6"
  bottom: "Convolution15"
  top: "Eltwise7"
  eltwise_param {
    operation: SUM
  }
}
layer {
  name: "penlu15"
  type: "PENLU"
  bottom: "Eltwise7"
  top: "Eltwise7"
  param {
    lr_mult: 1
    decay_mult: 1
  }
  param {
    lr_mult: 1
    decay_mult: 1
  }
  param {
    lr_mult: 1
    decay_mult: 1
  }
  penlu_param {
    alpha_filler {
      type: "constant"
      value: 2
    }
    beta_filler {
      type: "constant"
      value: 1
    }
    eta_filler {
      type: "constant"
      value: 1
    }
  }
}
layer {
  name: "Convolution16"
  type: "Convolution"
  bottom: "Eltwise7"
  top: "Convolution16"
  param {
    lr_mult: 1
    decay_mult: 1
  }
  param {
    lr_mult: 2
    decay_mult: 0
  }
  convolution_param {
    num_output: 16
    pad: 1
    kernel_size: 3
    stride: 1
    weight_filler {
      type: "gaussian"
      std: 0.118
    }
    bias_filler {
      type: "constant"
      value: 0
    }
  }
}
layer {
  name: "BatchNorm16"
  type: "BatchNorm"
  bottom: "Convolution16"
  top: "Convolution16"
  param {
    lr_mult: 0
    decay_mult: 0
  }
  param {
    lr_mult: 0
    decay_mult: 0
  }
  param {
    lr_mult: 0
    decay_mult: 0
  }
}
layer {
  name: "Scale16"
  type: "Scale"
  bottom: "Convolution16"
  top: "Convolution16"
  scale_param {
    bias_term: true
  }
}
layer {
  name: "penlu16"
  type: "PENLU"
  bottom: "Convolution16"
  top: "Convolution16"
  param {
    lr_mult: 1
    decay_mult: 1
  }
  param {
    lr_mult: 1
    decay_mult: 1
  }
  param {
    lr_mult: 1
    decay_mult: 1
  }
  penlu_param {
    alpha_filler {
      type: "constant"
      value: 2
    }
    beta_filler {
      type: "constant"
      value: 1
    }
    eta_filler {
      type: "constant"
      value: 1
    }
  }
}
layer {
  name: "Convolution17"
  type: "Convolution"
  bottom: "Convolution16"
  top: "Convolution17"
  param {
    lr_mult: 1
    decay_mult: 1
  }
  param {
    lr_mult: 2
    decay_mult: 0
  }
  convolution_param {
    num_output: 16
    pad: 1
    kernel_size: 3
    stride: 1
    weight_filler {
      type: "gaussian"
      std: 0.118
    }
    bias_filler {
      type: "constant"
      value: 0
    }
  }
}
layer {
  name: "BatchNorm17"
  type: "BatchNorm"
  bottom: "Convolution17"
  top: "Convolution17"
  param {
    lr_mult: 0
    decay_mult: 0
  }
  param {
    lr_mult: 0
    decay_mult: 0
  }
  param {
    lr_mult: 0
    decay_mult: 0
  }
}
layer {
  name: "Scale17"
  type: "Scale"
  bottom: "Convolution17"
  top: "Convolution17"
  scale_param {
    bias_term: true
  }
}
layer {
  name: "Eltwise8"
  type: "Eltwise"
  bottom: "Eltwise7"
  bottom: "Convolution17"
  top: "Eltwise8"
  eltwise_param {
    operation: SUM
  }
}
layer {
  name: "penlu17"
  type: "PENLU"
  bottom: "Eltwise8"
  top: "Eltwise8"
  param {
    lr_mult: 1
    decay_mult: 1
  }
  param {
    lr_mult: 1
    decay_mult: 1
  }
  param {
    lr_mult: 1
    decay_mult: 1
  }
  penlu_param {
    alpha_filler {
      type: "constant"
      value: 2
    }
    beta_filler {
      type: "constant"
      value: 1
    }
    eta_filler {
      type: "constant"
      value: 1
    }
  }
}
layer {
  name: "Convolution18"
  type: "Convolution"
  bottom: "Eltwise8"
  top: "Convolution18"
  param {
    lr_mult: 1
    decay_mult: 1
  }
  param {
    lr_mult: 2
    decay_mult: 0
  }
  convolution_param {
    num_output: 16
    pad: 1
    kernel_size: 3
    stride: 1
    weight_filler {
      type: "gaussian"
      std: 0.118
    }
    bias_filler {
      type: "constant"
      value: 0
    }
  }
}
layer {
  name: "BatchNorm18"
  type: "BatchNorm"
  bottom: "Convolution18"
  top: "Convolution18"
  param {
    lr_mult: 0
    decay_mult: 0
  }
  param {
    lr_mult: 0
    decay_mult: 0
  }
  param {
    lr_mult: 0
    decay_mult: 0
  }
}
layer {
  name: "Scale18"
  type: "Scale"
  bottom: "Convolution18"
  top: "Convolution18"
  scale_param {
    bias_term: true
  }
}
layer {
  name: "penlu18"
  type: "PENLU"
  bottom: "Convolution18"
  top: "Convolution18"
  param {
    lr_mult: 1
    decay_mult: 1
  }
  param {
    lr_mult: 1
    decay_mult: 1
  }
  param {
    lr_mult: 1
    decay_mult: 1
  }
  penlu_param {
    alpha_filler {
      type: "constant"
      value: 2
    }
    beta_filler {
      type: "constant"
      value: 1
    }
    eta_filler {
      type: "constant"
      value: 1
    }
  }
}
layer {
  name: "Convolution19"
  type: "Convolution"
  bottom: "Convolution18"
  top: "Convolution19"
  param {
    lr_mult: 1
    decay_mult: 1
  }
  param {
    lr_mult: 2
    decay_mult: 0
  }
  convolution_param {
    num_output: 16
    pad: 1
    kernel_size: 3
    stride: 1
    weight_filler {
      type: "gaussian"
      std: 0.118
    }
    bias_filler {
      type: "constant"
      value: 0
    }
  }
}
layer {
  name: "BatchNorm19"
  type: "BatchNorm"
  bottom: "Convolution19"
  top: "Convolution19"
  param {
    lr_mult: 0
    decay_mult: 0
  }
  param {
    lr_mult: 0
    decay_mult: 0
  }
  param {
    lr_mult: 0
    decay_mult: 0
  }
}
layer {
  name: "Scale19"
  type: "Scale"
  bottom: "Convolution19"
  top: "Convolution19"
  scale_param {
    bias_term: true
  }
}
layer {
  name: "Eltwise9"
  type: "Eltwise"
  bottom: "Eltwise8"
  bottom: "Convolution19"
  top: "Eltwise9"
  eltwise_param {
    operation: SUM
  }
}
layer {
  name: "penlu19"
  type: "PENLU"
  bottom: "Eltwise9"
  top: "Eltwise9"
  param {
    lr_mult: 1
    decay_mult: 1
  }
  param {
    lr_mult: 1
    decay_mult: 1
  }
  param {
    lr_mult: 1
    decay_mult: 1
  }
  penlu_param {
    alpha_filler {
      type: "constant"
      value: 2
    }
    beta_filler {
      type: "constant"
      value: 1
    }
    eta_filler {
      type: "constant"
      value: 1
    }
  }
}
layer {
  name: "Convolution20"
  type: "Convolution"
  bottom: "Eltwise9"
  top: "Convolution20"
  param {
    lr_mult: 1
    decay_mult: 1
  }
  param {
    lr_mult: 2
    decay_mult: 0
  }
  convolution_param {
    num_output: 32
    pad: 0
    kernel_size: 1
    stride: 2
    weight_filler {
      type: "gaussian"
      std: 0.25
    }
    bias_filler {
      type: "constant"
      value: 0
    }
  }
}
layer {
  name: "BatchNorm20"
  type: "BatchNorm"
  bottom: "Convolution20"
  top: "Convolution20"
  param {
    lr_mult: 0
    decay_mult: 0
  }
  param {
    lr_mult: 0
    decay_mult: 0
  }
  param {
    lr_mult: 0
    decay_mult: 0
  }
}
layer {
  name: "Scale20"
  type: "Scale"
  bottom: "Convolution20"
  top: "Convolution20"
  scale_param {
    bias_term: true
  }
}
layer {
  name: "Convolution21"
  type: "Convolution"
  bottom: "Eltwise9"
  top: "Convolution21"
  param {
    lr_mult: 1
    decay_mult: 1
  }
  param {
    lr_mult: 2
    decay_mult: 0
  }
  convolution_param {
    num_output: 32
    pad: 1
    kernel_size: 3
    stride: 2
    weight_filler {
      type: "gaussian"
      std: 0.083
    }
    bias_filler {
      type: "constant"
      value: 0
    }
  }
}
layer {
  name: "BatchNorm21"
  type: "BatchNorm"
  bottom: "Convolution21"
  top: "Convolution21"
  param {
    lr_mult: 0
    decay_mult: 0
  }
  param {
    lr_mult: 0
    decay_mult: 0
  }
  param {
    lr_mult: 0
    decay_mult: 0
  }
}
layer {
  name: "Scale21"
  type: "Scale"
  bottom: "Convolution21"
  top: "Convolution21"
  scale_param {
    bias_term: true
  }
}
layer {
  name: "penlu20"
  type: "PENLU"
  bottom: "Convolution21"
  top: "Convolution21"
  param {
    lr_mult: 1
    decay_mult: 1
  }
  param {
    lr_mult: 1
    decay_mult: 1
  }
  param {
    lr_mult: 1
    decay_mult: 1
  }
  penlu_param {
    alpha_filler {
      type: "constant"
      value: 2
    }
    beta_filler {
      type: "constant"
      value: 1
    }
    eta_filler {
      type: "constant"
      value: 1
    }
  }
}
layer {
  name: "Convolution22"
  type: "Convolution"
  bottom: "Convolution21"
  top: "Convolution22"
  param {
    lr_mult: 1
    decay_mult: 1
  }
  param {
    lr_mult: 2
    decay_mult: 0
  }
  convolution_param {
    num_output: 32
    pad: 1
    kernel_size: 3
    stride: 1
    weight_filler {
      type: "gaussian"
      std: 0.083
    }
    bias_filler {
      type: "constant"
      value: 0
    }
  }
}
layer {
  name: "BatchNorm22"
  type: "BatchNorm"
  bottom: "Convolution22"
  top: "Convolution22"
  param {
    lr_mult: 0
    decay_mult: 0
  }
  param {
    lr_mult: 0
    decay_mult: 0
  }
  param {
    lr_mult: 0
    decay_mult: 0
  }
}
layer {
  name: "Scale22"
  type: "Scale"
  bottom: "Convolution22"
  top: "Convolution22"
  scale_param {
    bias_term: true
  }
}
layer {
  name: "Eltwise10"
  type: "Eltwise"
  bottom: "Convolution20"
  bottom: "Convolution22"
  top: "Eltwise10"
  eltwise_param {
    operation: SUM
  }
}
layer {
  name: "penlu21"
  type: "PENLU"
  bottom: "Eltwise10"
  top: "Eltwise10"
  param {
    lr_mult: 1
    decay_mult: 1
  }
  param {
    lr_mult: 1
    decay_mult: 1
  }
  param {
    lr_mult: 1
    decay_mult: 1
  }
  penlu_param {
    alpha_filler {
      type: "constant"
      value: 2
    }
    beta_filler {
      type: "constant"
      value: 1
    }
    eta_filler {
      type: "constant"
      value: 1
    }
  }
}
layer {
  name: "Convolution23"
  type: "Convolution"
  bottom: "Eltwise10"
  top: "Convolution23"
  param {
    lr_mult: 1
    decay_mult: 1
  }
  param {
    lr_mult: 2
    decay_mult: 0
  }
  convolution_param {
    num_output: 32
    pad: 1
    kernel_size: 3
    stride: 1
    weight_filler {
      type: "gaussian"
      std: 0.083
    }
    bias_filler {
      type: "constant"
      value: 0
    }
  }
}
layer {
  name: "BatchNorm23"
  type: "BatchNorm"
  bottom: "Convolution23"
  top: "Convolution23"
  param {
    lr_mult: 0
    decay_mult: 0
  }
  param {
    lr_mult: 0
    decay_mult: 0
  }
  param {
    lr_mult: 0
    decay_mult: 0
  }
}
layer {
  name: "Scale23"
  type: "Scale"
  bottom: "Convolution23"
  top: "Convolution23"
  scale_param {
    bias_term: true
  }
}
layer {
  name: "penlu22"
  type: "PENLU"
  bottom: "Convolution23"
  top: "Convolution23"
  param {
    lr_mult: 1
    decay_mult: 1
  }
  param {
    lr_mult: 1
    decay_mult: 1
  }
  param {
    lr_mult: 1
    decay_mult: 1
  }
  penlu_param {
    alpha_filler {
      type: "constant"
      value: 2
    }
    beta_filler {
      type: "constant"
      value: 1
    }
    eta_filler {
      type: "constant"
      value: 1
    }
  }
}
layer {
  name: "Convolution24"
  type: "Convolution"
  bottom: "Convolution23"
  top: "Convolution24"
  param {
    lr_mult: 1
    decay_mult: 1
  }
  param {
    lr_mult: 2
    decay_mult: 0
  }
  convolution_param {
    num_output: 32
    pad: 1
    kernel_size: 3
    stride: 1
    weight_filler {
      type: "gaussian"
      std
I0925 19:59:02.496969  3461 layer_factory.hpp:77] Creating layer Data1
I0925 19:59:02.497043  3461 db_lmdb.cpp:35] Opened lmdb /home/x306/caffe/xn/PENLU/data/cifar10/cifar10_train_lmdb
I0925 19:59:02.497062  3461 net.cpp:84] Creating Layer Data1
I0925 19:59:02.497067  3461 net.cpp:380] Data1 -> Data1
I0925 19:59:02.497084  3461 net.cpp:380] Data1 -> Data2
I0925 19:59:02.497092  3461 data_transformer.cpp:25] Loading mean file from: /home/x306/caffe/xn/PENLU/data/cifar10/mean.binaryproto
I0925 19:59:02.498466  3461 data_layer.cpp:45] output data size: 100,3,28,28
I0925 19:59:02.500749  3461 net.cpp:122] Setting up Data1
I0925 19:59:02.500763  3461 net.cpp:129] Top shape: 100 3 28 28 (235200)
I0925 19:59:02.500767  3461 net.cpp:129] Top shape: 100 (100)
I0925 19:59:02.500769  3461 net.cpp:137] Memory required for data: 941200
I0925 19:59:02.500775  3461 layer_factory.hpp:77] Creating layer Convolution1
I0925 19:59:02.500794  3461 net.cpp:84] Creating Layer Convolution1
I0925 19:59:02.500799  3461 net.cpp:406] Convolution1 <- Data1
I0925 19:59:02.500808  3461 net.cpp:380] Convolution1 -> Convolution1
I0925 19:59:02.646762  3461 net.cpp:122] Setting up Convolution1
I0925 19:59:02.646787  3461 net.cpp:129] Top shape: 100 16 28 28 (1254400)
I0925 19:59:02.646791  3461 net.cpp:137] Memory required for data: 5958800
I0925 19:59:02.646806  3461 layer_factory.hpp:77] Creating layer BatchNorm1
I0925 19:59:02.646826  3461 net.cpp:84] Creating Layer BatchNorm1
I0925 19:59:02.646831  3461 net.cpp:406] BatchNorm1 <- Convolution1
I0925 19:59:02.646857  3461 net.cpp:367] BatchNorm1 -> Convolution1 (in-place)
I0925 19:59:02.647002  3461 net.cpp:122] Setting up BatchNorm1
I0925 19:59:02.647008  3461 net.cpp:129] Top shape: 100 16 28 28 (1254400)
I0925 19:59:02.647011  3461 net.cpp:137] Memory required for data: 10976400
I0925 19:59:02.647018  3461 layer_factory.hpp:77] Creating layer Scale1
I0925 19:59:02.647027  3461 net.cpp:84] Creating Layer Scale1
I0925 19:59:02.647039  3461 net.cpp:406] Scale1 <- Convolution1
I0925 19:59:02.647042  3461 net.cpp:367] Scale1 -> Convolution1 (in-place)
I0925 19:59:02.647104  3461 layer_factory.hpp:77] Creating layer Scale1
I0925 19:59:02.647243  3461 net.cpp:122] Setting up Scale1
I0925 19:59:02.647248  3461 net.cpp:129] Top shape: 100 16 28 28 (1254400)
I0925 19:59:02.647250  3461 net.cpp:137] Memory required for data: 15994000
I0925 19:59:02.647254  3461 layer_factory.hpp:77] Creating layer penlu1
I0925 19:59:02.647261  3461 net.cpp:84] Creating Layer penlu1
I0925 19:59:02.647264  3461 net.cpp:406] penlu1 <- Convolution1
I0925 19:59:02.647277  3461 net.cpp:367] penlu1 -> Convolution1 (in-place)
I0925 19:59:02.647891  3461 net.cpp:122] Setting up penlu1
I0925 19:59:02.647902  3461 net.cpp:129] Top shape: 100 16 28 28 (1254400)
I0925 19:59:02.647904  3461 net.cpp:137] Memory required for data: 21011600
I0925 19:59:02.647912  3461 layer_factory.hpp:77] Creating layer Convolution1_penlu1_0_split
I0925 19:59:02.647919  3461 net.cpp:84] Creating Layer Convolution1_penlu1_0_split
I0925 19:59:02.647933  3461 net.cpp:406] Convolution1_penlu1_0_split <- Convolution1
I0925 19:59:02.647936  3461 net.cpp:380] Convolution1_penlu1_0_split -> Convolution1_penlu1_0_split_0
I0925 19:59:02.647953  3461 net.cpp:380] Convolution1_penlu1_0_split -> Convolution1_penlu1_0_split_1
I0925 19:59:02.647977  3461 net.cpp:122] Setting up Convolution1_penlu1_0_split
I0925 19:59:02.647991  3461 net.cpp:129] Top shape: 100 16 28 28 (1254400)
I0925 19:59:02.647994  3461 net.cpp:129] Top shape: 100 16 28 28 (1254400)
I0925 19:59:02.647996  3461 net.cpp:137] Memory required for data: 31046800
I0925 19:59:02.648000  3461 layer_factory.hpp:77] Creating layer Convolution2
I0925 19:59:02.648020  3461 net.cpp:84] Creating Layer Convolution2
I0925 19:59:02.648025  3461 net.cpp:406] Convolution2 <- Convolution1_penlu1_0_split_0
I0925 19:59:02.648038  3461 net.cpp:380] Convolution2 -> Convolution2
I0925 19:59:02.648953  3461 net.cpp:122] Setting up Convolution2
I0925 19:59:02.648963  3461 net.cpp:129] Top shape: 100 16 28 28 (1254400)
I0925 19:59:02.648967  3461 net.cpp:137] Memory required for data: 36064400
I0925 19:59:02.648970  3461 layer_factory.hpp:77] Creating layer BatchNorm2
I0925 19:59:02.648974  3461 net.cpp:84] Creating Layer BatchNorm2
I0925 19:59:02.648977  3461 net.cpp:406] BatchNorm2 <- Convolution2
I0925 19:59:02.648991  3461 net.cpp:367] BatchNorm2 -> Convolution2 (in-place)
I0925 19:59:02.649137  3461 net.cpp:122] Setting up BatchNorm2
I0925 19:59:02.649143  3461 net.cpp:129] Top shape: 100 16 28 28 (1254400)
I0925 19:59:02.649145  3461 net.cpp:137] Memory required for data: 41082000
I0925 19:59:02.649150  3461 layer_factory.hpp:77] Creating layer Scale2
I0925 19:59:02.649154  3461 net.cpp:84] Creating Layer Scale2
I0925 19:59:02.649158  3461 net.cpp:406] Scale2 <- Convolution2
I0925 19:59:02.649161  3461 net.cpp:367] Scale2 -> Convolution2 (in-place)
I0925 19:59:02.649220  3461 layer_factory.hpp:77] Creating layer Scale2
I0925 19:59:02.649343  3461 net.cpp:122] Setting up Scale2
I0925 19:59:02.649349  3461 net.cpp:129] Top shape: 100 16 28 28 (1254400)
I0925 19:59:02.649351  3461 net.cpp:137] Memory required for data: 46099600
I0925 19:59:02.649358  3461 layer_factory.hpp:77] Creating layer penlu2
I0925 19:59:02.649363  3461 net.cpp:84] Creating Layer penlu2
I0925 19:59:02.649365  3461 net.cpp:406] penlu2 <- Convolution2
I0925 19:59:02.649379  3461 net.cpp:367] penlu2 -> Convolution2 (in-place)
I0925 19:59:02.649499  3461 net.cpp:122] Setting up penlu2
I0925 19:59:02.649504  3461 net.cpp:129] Top shape: 100 16 28 28 (1254400)
I0925 19:59:02.649513  3461 net.cpp:137] Memory required for data: 51117200
I0925 19:59:02.649518  3461 layer_factory.hpp:77] Creating layer Convolution3
I0925 19:59:02.649536  3461 net.cpp:84] Creating Layer Convolution3
I0925 19:59:02.649539  3461 net.cpp:406] Convolution3 <- Convolution2
I0925 19:59:02.649544  3461 net.cpp:380] Convolution3 -> Convolution3
I0925 19:59:02.650410  3461 net.cpp:122] Setting up Convolution3
I0925 19:59:02.650421  3461 net.cpp:129] Top shape: 100 16 28 28 (1254400)
I0925 19:59:02.650424  3461 net.cpp:137] Memory required for data: 56134800
I0925 19:59:02.650429  3461 layer_factory.hpp:77] Creating layer BatchNorm3
I0925 19:59:02.650434  3461 net.cpp:84] Creating Layer BatchNorm3
I0925 19:59:02.650436  3461 net.cpp:406] BatchNorm3 <- Convolution3
I0925 19:59:02.650449  3461 net.cpp:367] BatchNorm3 -> Convolution3 (in-place)
I0925 19:59:02.650579  3461 net.cpp:122] Setting up BatchNorm3
I0925 19:59:02.650584  3461 net.cpp:129] Top shape: 100 16 28 28 (1254400)
I0925 19:59:02.650588  3461 net.cpp:137] Memory required for data: 61152400
I0925 19:59:02.650591  3461 layer_factory.hpp:77] Creating layer Scale3
I0925 19:59:02.650595  3461 net.cpp:84] Creating Layer Scale3
I0925 19:59:02.650599  3461 net.cpp:406] Scale3 <- Convolution3
I0925 19:59:02.650601  3461 net.cpp:367] Scale3 -> Convolution3 (in-place)
I0925 19:59:02.650645  3461 layer_factory.hpp:77] Creating layer Scale3
I0925 19:59:02.650737  3461 net.cpp:122] Setting up Scale3
I0925 19:59:02.650741  3461 net.cpp:129] Top shape: 100 16 28 28 (1254400)
I0925 19:59:02.650743  3461 net.cpp:137] Memory required for data: 66170000
I0925 19:59:02.650748  3461 layer_factory.hpp:77] Creating layer Eltwise1
I0925 19:59:02.650753  3461 net.cpp:84] Creating Layer Eltwise1
I0925 19:59:02.650754  3461 net.cpp:406] Eltwise1 <- Convolution1_penlu1_0_split_1
I0925 19:59:02.650758  3461 net.cpp:406] Eltwise1 <- Convolution3
I0925 19:59:02.650771  3461 net.cpp:380] Eltwise1 -> Eltwise1
I0925 19:59:02.650797  3461 net.cpp:122] Setting up Eltwise1
I0925 19:59:02.650802  3461 net.cpp:129] Top shape: 100 16 28 28 (1254400)
I0925 19:59:02.650804  3461 net.cpp:137] Memory required for data: 71187600
I0925 19:59:02.650806  3461 layer_factory.hpp:77] Creating layer penlu3
I0925 19:59:02.650811  3461 net.cpp:84] Creating Layer penlu3
I0925 19:59:02.650815  3461 net.cpp:406] penlu3 <- Eltwise1
I0925 19:59:02.650817  3461 net.cpp:367] penlu3 -> Eltwise1 (in-place)
I0925 19:59:02.650935  3461 net.cpp:122] Setting up penlu3
I0925 19:59:02.650940  3461 net.cpp:129] Top shape: 100 16 28 28 (1254400)
I0925 19:59:02.650943  3461 net.cpp:137] Memory required for data: 76205200
I0925 19:59:02.650946  3461 layer_factory.hpp:77] Creating layer Eltwise1_penlu3_0_split
I0925 19:59:02.650950  3461 net.cpp:84] Creating Layer Eltwise1_penlu3_0_split
I0925 19:59:02.650952  3461 net.cpp:406] Eltwise1_penlu3_0_split <- Eltwise1
I0925 19:59:02.650956  3461 net.cpp:380] Eltwise1_penlu3_0_split -> Eltwise1_penlu3_0_split_0
I0925 19:59:02.650971  3461 net.cpp:380] Eltwise1_penlu3_0_split -> Eltwise1_penlu3_0_split_1
I0925 19:59:02.651001  3461 net.cpp:122] Setting up Eltwise1_penlu3_0_split
I0925 19:59:02.651007  3461 net.cpp:129] Top shape: 100 16 28 28 (1254400)
I0925 19:59:02.651010  3461 net.cpp:129] Top shape: 100 16 28 28 (1254400)
I0925 19:59:02.651012  3461 net.cpp:137] Memory required for data: 86240400
I0925 19:59:02.651015  3461 layer_factory.hpp:77] Creating layer Convolution4
I0925 19:59:02.651021  3461 net.cpp:84] Creating Layer Convolution4
I0925 19:59:02.651023  3461 net.cpp:406] Convolution4 <- Eltwise1_penlu3_0_split_0
I0925 19:59:02.651037  3461 net.cpp:380] Convolution4 -> Convolution4
I0925 19:59:02.651921  3461 net.cpp:122] Setting up Convolution4
I0925 19:59:02.651932  3461 net.cpp:129] Top shape: 100 16 28 28 (1254400)
I0925 19:59:02.651934  3461 net.cpp:137] Memory required for data: 91258000
I0925 19:59:02.651938  3461 layer_factory.hpp:77] Creating layer BatchNorm4
I0925 19:59:02.651955  3461 net.cpp:84] Creating Layer BatchNorm4
I0925 19:59:02.651965  3461 net.cpp:406] BatchNorm4 <- Convolution4
I0925 19:59:02.651979  3461 net.cpp:367] BatchNorm4 -> Convolution4 (in-place)
I0925 19:59:02.652117  3461 net.cpp:122] Setting up BatchNorm4
I0925 19:59:02.652123  3461 net.cpp:129] Top shape: 100 16 28 28 (1254400)
I0925 19:59:02.652125  3461 net.cpp:137] Memory required for data: 96275600
I0925 19:59:02.652133  3461 layer_factory.hpp:77] Creating layer Scale4
I0925 19:59:02.652148  3461 net.cpp:84] Creating Layer Scale4
I0925 19:59:02.652151  3461 net.cpp:406] Scale4 <- Convolution4
I0925 19:59:02.652155  3461 net.cpp:367] Scale4 -> Convolution4 (in-place)
I0925 19:59:02.652190  3461 layer_factory.hpp:77] Creating layer Scale4
I0925 19:59:02.652288  3461 net.cpp:122] Setting up Scale4
I0925 19:59:02.652293  3461 net.cpp:129] Top shape: 100 16 28 28 (1254400)
I0925 19:59:02.652295  3461 net.cpp:137] Memory required for data: 101293200
I0925 19:59:02.652299  3461 layer_factory.hpp:77] Creating layer penlu4
I0925 19:59:02.652304  3461 net.cpp:84] Creating Layer penlu4
I0925 19:59:02.652318  3461 net.cpp:406] penlu4 <- Convolution4
I0925 19:59:02.652323  3461 net.cpp:367] penlu4 -> Convolution4 (in-place)
I0925 19:59:02.652427  3461 net.cpp:122] Setting up penlu4
I0925 19:59:02.652432  3461 net.cpp:129] Top shape: 100 16 28 28 (1254400)
I0925 19:59:02.652434  3461 net.cpp:137] Memory required for data: 106310800
I0925 19:59:02.652438  3461 layer_factory.hpp:77] Creating layer Convolution5
I0925 19:59:02.652460  3461 net.cpp:84] Creating Layer Convolution5
I0925 19:59:02.652463  3461 net.cpp:406] Convolution5 <- Convolution4
I0925 19:59:02.652468  3461 net.cpp:380] Convolution5 -> Convolution5
I0925 19:59:02.653365  3461 net.cpp:122] Setting up Convolution5
I0925 19:59:02.653376  3461 net.cpp:129] Top shape: 100 16 28 28 (1254400)
I0925 19:59:02.653378  3461 net.cpp:137] Memory required for data: 111328400
I0925 19:59:02.653383  3461 layer_factory.hpp:77] Creating layer BatchNorm5
I0925 19:59:02.653388  3461 net.cpp:84] Creating Layer BatchNorm5
I0925 19:59:02.653401  3461 net.cpp:406] BatchNorm5 <- Convolution5
I0925 19:59:02.653408  3461 net.cpp:367] BatchNorm5 -> Convolution5 (in-place)
I0925 19:59:02.653563  3461 net.cpp:122] Setting up BatchNorm5
I0925 19:59:02.653569  3461 net.cpp:129] Top shape: 100 16 28 28 (1254400)
I0925 19:59:02.653571  3461 net.cpp:137] Memory required for data: 116346000
I0925 19:59:02.653575  3461 layer_factory.hpp:77] Creating layer Scale5
I0925 19:59:02.653579  3461 net.cpp:84] Creating Layer Scale5
I0925 19:59:02.653583  3461 net.cpp:406] Scale5 <- Convolution5
I0925 19:59:02.653599  3461 net.cpp:367] Scale5 -> Convolution5 (in-place)
I0925 19:59:02.653658  3461 layer_factory.hpp:77] Creating layer Scale5
I0925 19:59:02.653755  3461 net.cpp:122] Setting up Scale5
I0925 19:59:02.653760  3461 net.cpp:129] Top shape: 100 16 28 28 (1254400)
I0925 19:59:02.653762  3461 net.cpp:137] Memory required for data: 121363600
I0925 19:59:02.653766  3461 layer_factory.hpp:77] Creating layer Eltwise2
I0925 19:59:02.653770  3461 net.cpp:84] Creating Layer Eltwise2
I0925 19:59:02.653772  3461 net.cpp:406] Eltwise2 <- Eltwise1_penlu3_0_split_1
I0925 19:59:02.653785  3461 net.cpp:406] Eltwise2 <- Convolution5
I0925 19:59:02.653790  3461 net.cpp:380] Eltwise2 -> Eltwise2
I0925 19:59:02.653806  3461 net.cpp:122] Setting up Eltwise2
I0925 19:59:02.653811  3461 net.cpp:129] Top shape: 100 16 28 28 (1254400)
I0925 19:59:02.653815  3461 net.cpp:137] Memory required for data: 126381200
I0925 19:59:02.653816  3461 layer_factory.hpp:77] Creating layer penlu5
I0925 19:59:02.653822  3461 net.cpp:84] Creating Layer penlu5
I0925 19:59:02.653825  3461 net.cpp:406] penlu5 <- Eltwise2
I0925 19:59:02.653829  3461 net.cpp:367] penlu5 -> Eltwise2 (in-place)
I0925 19:59:02.653931  3461 net.cpp:122] Setting up penlu5
I0925 19:59:02.653937  3461 net.cpp:129] Top shape: 100 16 28 28 (1254400)
I0925 19:59:02.653940  3461 net.cpp:137] Memory required for data: 131398800
I0925 19:59:02.653944  3461 layer_factory.hpp:77] Creating layer Eltwise2_penlu5_0_split
I0925 19:59:02.653949  3461 net.cpp:84] Creating Layer Eltwise2_penlu5_0_split
I0925 19:59:02.653959  3461 net.cpp:406] Eltwise2_penlu5_0_split <- Eltwise2
I0925 19:59:02.653962  3461 net.cpp:380] Eltwise2_penlu5_0_split -> Eltwise2_penlu5_0_split_0
I0925 19:59:02.653967  3461 net.cpp:380] Eltwise2_penlu5_0_split -> Eltwise2_penlu5_0_split_1
I0925 19:59:02.653991  3461 net.cpp:122] Setting up Eltwise2_penlu5_0_split
I0925 19:59:02.653996  3461 net.cpp:129] Top shape: 100 16 28 28 (1254400)
I0925 19:59:02.654000  3461 net.cpp:129] Top shape: 100 16 28 28 (1254400)
I0925 19:59:02.654003  3461 net.cpp:137] Memory required for data: 141434000
I0925 19:59:02.654006  3461 layer_factory.hpp:77] Creating layer Convolution6
I0925 19:59:02.654012  3461 net.cpp:84] Creating Layer Convolution6
I0925 19:59:02.654016  3461 net.cpp:406] Convolution6 <- Eltwise2_penlu5_0_split_0
I0925 19:59:02.654019  3461 net.cpp:380] Convolution6 -> Convolution6
I0925 19:59:02.654898  3461 net.cpp:122] Setting up Convolution6
I0925 19:59:02.654908  3461 net.cpp:129] Top shape: 100 16 28 28 (1254400)
I0925 19:59:02.654912  3461 net.cpp:137] Memory required for data: 146451600
I0925 19:59:02.654917  3461 layer_factory.hpp:77] Creating layer BatchNorm6
I0925 19:59:02.654923  3461 net.cpp:84] Creating Layer BatchNorm6
I0925 19:59:02.654927  3461 net.cpp:406] BatchNorm6 <- Convolution6
I0925 19:59:02.654930  3461 net.cpp:367] BatchNorm6 -> Convolution6 (in-place)
I0925 19:59:02.655059  3461 net.cpp:122] Setting up BatchNorm6
I0925 19:59:02.655066  3461 net.cpp:129] Top shape: 100 16 28 28 (1254400)
I0925 19:59:02.655068  3461 net.cpp:137] Memory required for data: 151469200
I0925 19:59:02.655073  3461 layer_factory.hpp:77] Creating layer Scale6
I0925 19:59:02.655077  3461 net.cpp:84] Creating Layer Scale6
I0925 19:59:02.655081  3461 net.cpp:406] Scale6 <- Convolution6
I0925 19:59:02.655084  3461 net.cpp:367] Scale6 -> Convolution6 (in-place)
I0925 19:59:02.655110  3461 layer_factory.hpp:77] Creating layer Scale6
I0925 19:59:02.655186  3461 net.cpp:122] Setting up Scale6
I0925 19:59:02.655191  3461 net.cpp:129] Top shape: 100 16 28 28 (1254400)
I0925 19:59:02.655194  3461 net.cpp:137] Memory required for data: 156486800
I0925 19:59:02.655199  3461 layer_factory.hpp:77] Creating layer penlu6
I0925 19:59:02.655205  3461 net.cpp:84] Creating Layer penlu6
I0925 19:59:02.655207  3461 net.cpp:406] penlu6 <- Convolution6
I0925 19:59:02.655211  3461 net.cpp:367] penlu6 -> Convolution6 (in-place)
I0925 19:59:02.655315  3461 net.cpp:122] Setting up penlu6
I0925 19:59:02.655320  3461 net.cpp:129] Top shape: 100 16 28 28 (1254400)
I0925 19:59:02.655323  3461 net.cpp:137] Memory required for data: 161504400
I0925 19:59:02.655328  3461 layer_factory.hpp:77] Creating layer Convolution7
I0925 19:59:02.655335  3461 net.cpp:84] Creating Layer Convolution7
I0925 19:59:02.655339  3461 net.cpp:406] Convolution7 <- Convolution6
I0925 19:59:02.655344  3461 net.cpp:380] Convolution7 -> Convolution7
I0925 19:59:02.655905  3461 net.cpp:122] Setting up Convolution7
I0925 19:59:02.655913  3461 net.cpp:129] Top shape: 100 16 28 28 (1254400)
I0925 19:59:02.655917  3461 net.cpp:137] Memory required for data: 166522000
I0925 19:59:02.655921  3461 layer_factory.hpp:77] Creating layer BatchNorm7
I0925 19:59:02.655927  3461 net.cpp:84] Creating Layer BatchNorm7
I0925 19:59:02.655931  3461 net.cpp:406] BatchNorm7 <- Convolution7
I0925 19:59:02.655936  3461 net.cpp:367] BatchNorm7 -> Convolution7 (in-place)
I0925 19:59:02.656064  3461 net.cpp:122] Setting up BatchNorm7
I0925 19:59:02.656069  3461 net.cpp:129] Top shape: 100 16 28 28 (1254400)
I0925 19:59:02.656072  3461 net.cpp:137] Memory required for data: 171539600
I0925 19:59:02.656082  3461 layer_factory.hpp:77] Creating layer Scale7
I0925 19:59:02.656090  3461 net.cpp:84] Creating Layer Scale7
I0925 19:59:02.656093  3461 net.cpp:406] Scale7 <- Convolution7
I0925 19:59:02.656097  3461 net.cpp:367] Scale7 -> Convolution7 (in-place)
I0925 19:59:02.656124  3461 layer_factory.hpp:77] Creating layer Scale7
I0925 19:59:02.656200  3461 net.cpp:122] Setting up Scale7
I0925 19:59:02.656213  3461 net.cpp:129] Top shape: 100 16 28 28 (1254400)
I0925 19:59:02.656215  3461 net.cpp:137] Memory required for data: 176557200
I0925 19:59:02.656219  3461 layer_factory.hpp:77] Creating layer Eltwise3
I0925 19:59:02.656224  3461 net.cpp:84] Creating Layer Eltwise3
I0925 19:59:02.656227  3461 net.cpp:406] Eltwise3 <- Eltwise2_penlu5_0_split_1
I0925 19:59:02.656230  3461 net.cpp:406] Eltwise3 <- Convolution7
I0925 19:59:02.656234  3461 net.cpp:380] Eltwise3 -> Eltwise3
I0925 19:59:02.656250  3461 net.cpp:122] Setting up Eltwise3
I0925 19:59:02.656255  3461 net.cpp:129] Top shape: 100 16 28 28 (1254400)
I0925 19:59:02.656258  3461 net.cpp:137] Memory required for data: 181574800
I0925 19:59:02.656260  3461 layer_factory.hpp:77] Creating layer penlu7
I0925 19:59:02.656266  3461 net.cpp:84] Creating Layer penlu7
I0925 19:59:02.656270  3461 net.cpp:406] penlu7 <- Eltwise3
I0925 19:59:02.656273  3461 net.cpp:367] penlu7 -> Eltwise3 (in-place)
I0925 19:59:02.656378  3461 net.cpp:122] Setting up penlu7
I0925 19:59:02.656384  3461 net.cpp:129] Top shape: 100 16 28 28 (1254400)
I0925 19:59:02.656388  3461 net.cpp:137] Memory required for data: 186592400
I0925 19:59:02.656391  3461 layer_factory.hpp:77] Creating layer Eltwise3_penlu7_0_split
I0925 19:59:02.656396  3461 net.cpp:84] Creating Layer Eltwise3_penlu7_0_split
I0925 19:59:02.656399  3461 net.cpp:406] Eltwise3_penlu7_0_split <- Eltwise3
I0925 19:59:02.656402  3461 net.cpp:380] Eltwise3_penlu7_0_split -> Eltwise3_penlu7_0_split_0
I0925 19:59:02.656409  3461 net.cpp:380] Eltwise3_penlu7_0_split -> Eltwise3_penlu7_0_split_1
I0925 19:59:02.656430  3461 net.cpp:122] Setting up Eltwise3_penlu7_0_split
I0925 19:59:02.656435  3461 net.cpp:129] Top shape: 100 16 28 28 (1254400)
I0925 19:59:02.656438  3461 net.cpp:129] Top shape: 100 16 28 28 (1254400)
I0925 19:59:02.656441  3461 net.cpp:137] Memory required for data: 196627600
I0925 19:59:02.656443  3461 layer_factory.hpp:77] Creating layer Convolution8
I0925 19:59:02.656450  3461 net.cpp:84] Creating Layer Convolution8
I0925 19:59:02.656453  3461 net.cpp:406] Convolution8 <- Eltwise3_penlu7_0_split_0
I0925 19:59:02.656457  3461 net.cpp:380] Convolution8 -> Convolution8
I0925 19:59:02.657335  3461 net.cpp:122] Setting up Convolution8
I0925 19:59:02.657346  3461 net.cpp:129] Top shape: 100 16 28 28 (1254400)
I0925 19:59:02.657349  3461 net.cpp:137] Memory required for data: 201645200
I0925 19:59:02.657354  3461 layer_factory.hpp:77] Creating layer BatchNorm8
I0925 19:59:02.657361  3461 net.cpp:84] Creating Layer BatchNorm8
I0925 19:59:02.657364  3461 net.cpp:406] BatchNorm8 <- Convolution8
I0925 19:59:02.657368  3461 net.cpp:367] BatchNorm8 -> Convolution8 (in-place)
I0925 19:59:02.657505  3461 net.cpp:122] Setting up BatchNorm8
I0925 19:59:02.657511  3461 net.cpp:129] Top shape: 100 16 28 28 (1254400)
I0925 19:59:02.657515  3461 net.cpp:137] Memory required for data: 206662800
I0925 19:59:02.657519  3461 layer_factory.hpp:77] Creating layer Scale8
I0925 19:59:02.657526  3461 net.cpp:84] Creating Layer Scale8
I0925 19:59:02.657529  3461 net.cpp:406] Scale8 <- Convolution8
I0925 19:59:02.657533  3461 net.cpp:367] Scale8 -> Convolution8 (in-place)
I0925 19:59:02.657562  3461 layer_factory.hpp:77] Creating layer Scale8
I0925 19:59:02.657640  3461 net.cpp:122] Setting up Scale8
I0925 19:59:02.657646  3461 net.cpp:129] Top shape: 100 16 28 28 (1254400)
I0925 19:59:02.657649  3461 net.cpp:137] Memory required for data: 211680400
I0925 19:59:02.657654  3461 layer_factory.hpp:77] Creating layer penlu8
I0925 19:59:02.657660  3461 net.cpp:84] Creating Layer penlu8
I0925 19:59:02.657663  3461 net.cpp:406] penlu8 <- Convolution8
I0925 19:59:02.657666  3461 net.cpp:367] penlu8 -> Convolution8 (in-place)
I0925 19:59:02.657770  3461 net.cpp:122] Setting up penlu8
I0925 19:59:02.657776  3461 net.cpp:129] Top shape: 100 16 28 28 (1254400)
I0925 19:59:02.657779  3461 net.cpp:137] Memory required for data: 216698000
I0925 19:59:02.657784  3461 layer_factory.hpp:77] Creating layer Convolution9
I0925 19:59:02.657791  3461 net.cpp:84] Creating Layer Convolution9
I0925 19:59:02.657801  3461 net.cpp:406] Convolution9 <- Convolution8
I0925 19:59:02.657806  3461 net.cpp:380] Convolution9 -> Convolution9
I0925 19:59:02.658733  3461 net.cpp:122] Setting up Convolution9
I0925 19:59:02.658746  3461 net.cpp:129] Top shape: 100 16 28 28 (1254400)
I0925 19:59:02.658751  3461 net.cpp:137] Memory required for data: 221715600
I0925 19:59:02.658758  3461 layer_factory.hpp:77] Creating layer BatchNorm9
I0925 19:59:02.658778  3461 net.cpp:84] Creating Layer BatchNorm9
I0925 19:59:02.658785  3461 net.cpp:406] BatchNorm9 <- Convolution9
I0925 19:59:02.658792  3461 net.cpp:367] BatchNorm9 -> Convolution9 (in-place)
I0925 19:59:02.658959  3461 net.cpp:122] Setting up BatchNorm9
I0925 19:59:02.658967  3461 net.cpp:129] Top shape: 100 16 28 28 (1254400)
I0925 19:59:02.658979  3461 net.cpp:137] Memory required for data: 226733200
I0925 19:59:02.658984  3461 layer_factory.hpp:77] Creating layer Scale9
I0925 19:59:02.659000  3461 net.cpp:84] Creating Layer Scale9
I0925 19:59:02.659004  3461 net.cpp:406] Scale9 <- Convolution9
I0925 19:59:02.659008  3461 net.cpp:367] Scale9 -> Convolution9 (in-place)
I0925 19:59:02.659063  3461 layer_factory.hpp:77] Creating layer Scale9
I0925 19:59:02.659163  3461 net.cpp:122] Setting up Scale9
I0925 19:59:02.659169  3461 net.cpp:129] Top shape: 100 16 28 28 (1254400)
I0925 19:59:02.659171  3461 net.cpp:137] Memory required for data: 231750800
I0925 19:59:02.659185  3461 layer_factory.hpp:77] Creating layer Eltwise4
I0925 19:59:02.659190  3461 net.cpp:84] Creating Layer Eltwise4
I0925 19:59:02.659193  3461 net.cpp:406] Eltwise4 <- Eltwise3_penlu7_0_split_1
I0925 19:59:02.659196  3461 net.cpp:406] Eltwise4 <- Convolution9
I0925 19:59:02.659199  3461 net.cpp:380] Eltwise4 -> Eltwise4
I0925 19:59:02.659216  3461 net.cpp:122] Setting up Eltwise4
I0925 19:59:02.659230  3461 net.cpp:129] Top shape: 100 16 28 28 (1254400)
I0925 19:59:02.659232  3461 net.cpp:137] Memory required for data: 236768400
I0925 19:59:02.659235  3461 layer_factory.hpp:77] Creating layer penlu9
I0925 19:59:02.659250  3461 net.cpp:84] Creating Layer penlu9
I0925 19:59:02.659252  3461 net.cpp:406] penlu9 <- Eltwise4
I0925 19:59:02.659256  3461 net.cpp:367] penlu9 -> Eltwise4 (in-place)
I0925 19:59:02.659373  3461 net.cpp:122] Setting up penlu9
I0925 19:59:02.659379  3461 net.cpp:129] Top shape: 100 16 28 28 (1254400)
I0925 19:59:02.659391  3461 net.cpp:137] Memory required for data: 241786000
I0925 19:59:02.659395  3461 layer_factory.hpp:77] Creating layer Eltwise4_penlu9_0_split
I0925 19:59:02.659399  3461 net.cpp:84] Creating Layer Eltwise4_penlu9_0_split
I0925 19:59:02.659404  3461 net.cpp:406] Eltwise4_penlu9_0_split <- Eltwise4
I0925 19:59:02.659407  3461 net.cpp:380] Eltwise4_penlu9_0_split -> Eltwise4_penlu9_0_split_0
I0925 19:59:02.659412  3461 net.cpp:380] Eltwise4_penlu9_0_split -> Eltwise4_penlu9_0_split_1
I0925 19:59:02.659435  3461 net.cpp:122] Setting up Eltwise4_penlu9_0_split
I0925 19:59:02.659441  3461 net.cpp:129] Top shape: 100 16 28 28 (1254400)
I0925 19:59:02.659445  3461 net.cpp:129] Top shape: 100 16 28 28 (1254400)
I0925 19:59:02.659448  3461 net.cpp:137] Memory required for data: 251821200
I0925 19:59:02.659451  3461 layer_factory.hpp:77] Creating layer Convolution10
I0925 19:59:02.659457  3461 net.cpp:84] Creating Layer Convolution10
I0925 19:59:02.659461  3461 net.cpp:406] Convolution10 <- Eltwise4_penlu9_0_split_0
I0925 19:59:02.659464  3461 net.cpp:380] Convolution10 -> Convolution10
I0925 19:59:02.660617  3461 net.cpp:122] Setting up Convolution10
I0925 19:59:02.660631  3461 net.cpp:129] Top shape: 100 16 28 28 (1254400)
I0925 19:59:02.660637  3461 net.cpp:137] Memory required for data: 256838800
I0925 19:59:02.660645  3461 layer_factory.hpp:77] Creating layer BatchNorm10
I0925 19:59:02.660655  3461 net.cpp:84] Creating Layer BatchNorm10
I0925 19:59:02.660658  3461 net.cpp:406] BatchNorm10 <- Convolution10
I0925 19:59:02.660665  3461 net.cpp:367] BatchNorm10 -> Convolution10 (in-place)
I0925 19:59:02.660835  3461 net.cpp:122] Setting up BatchNorm10
I0925 19:59:02.660851  3461 net.cpp:129] Top shape: 100 16 28 28 (1254400)
I0925 19:59:02.660863  3461 net.cpp:137] Memory required for data: 261856400
I0925 19:59:02.660869  3461 layer_factory.hpp:77] Creating layer Scale10
I0925 19:59:02.660876  3461 net.cpp:84] Creating Layer Scale10
I0925 19:59:02.660878  3461 net.cpp:406] Scale10 <- Convolution10
I0925 19:59:02.660882  3461 net.cpp:367] Scale10 -> Convolution10 (in-place)
I0925 19:59:02.660920  3461 layer_factory.hpp:77] Creating layer Scale10
I0925 19:59:02.661008  3461 net.cpp:122] Setting up Scale10
I0925 19:59:02.661015  3461 net.cpp:129] Top shape: 100 16 28 28 (1254400)
I0925 19:59:02.661017  3461 net.cpp:137] Memory required for data: 266874000
I0925 19:59:02.661021  3461 layer_factory.hpp:77] Creating layer penlu10
I0925 19:59:02.661027  3461 net.cpp:84] Creating Layer penlu10
I0925 19:59:02.661031  3461 net.cpp:406] penlu10 <- Convolution10
I0925 19:59:02.661036  3461 net.cpp:367] penlu10 -> Convolution10 (in-place)
I0925 19:59:02.661145  3461 net.cpp:122] Setting up penlu10
I0925 19:59:02.661151  3461 net.cpp:129] Top shape: 100 16 28 28 (1254400)
I0925 19:59:02.661154  3461 net.cpp:137] Memory required for data: 271891600
I0925 19:59:02.661159  3461 layer_factory.hpp:77] Creating layer Convolution11
I0925 19:59:02.661166  3461 net.cpp:84] Creating Layer Convolution11
I0925 19:59:02.661170  3461 net.cpp:406] Convolution11 <- Convolution10
I0925 19:59:02.661175  3461 net.cpp:380] Convolution11 -> Convolution11
I0925 19:59:02.662099  3461 net.cpp:122] Setting up Convolution11
I0925 19:59:02.662111  3461 net.cpp:129] Top shape: 100 16 28 28 (1254400)
I0925 19:59:02.662114  3461 net.cpp:137] Memory required for data: 276909200
I0925 19:59:02.662118  3461 layer_factory.hpp:77] Creating layer BatchNorm11
I0925 19:59:02.662125  3461 net.cpp:84] Creating Layer BatchNorm11
I0925 19:59:02.662128  3461 net.cpp:406] BatchNorm11 <- Convolution11
I0925 19:59:02.662132  3461 net.cpp:367] BatchNorm11 -> Convolution11 (in-place)
I0925 19:59:02.662271  3461 net.cpp:122] Setting up BatchNorm11
I0925 19:59:02.662276  3461 net.cpp:129] Top shape: 100 16 28 28 (1254400)
I0925 19:59:02.662279  3461 net.cpp:137] Memory required for data: 281926800
I0925 19:59:02.662284  3461 layer_factory.hpp:77] Creating layer Scale11
I0925 19:59:02.662289  3461 net.cpp:84] Creating Layer Scale11
I0925 19:59:02.662292  3461 net.cpp:406] Scale11 <- Convolution11
I0925 19:59:02.662297  3461 net.cpp:367] Scale11 -> Convolution11 (in-place)
I0925 19:59:02.662324  3461 layer_factory.hpp:77] Creating layer Scale11
I0925 19:59:02.662405  3461 net.cpp:122] Setting up Scale11
I0925 19:59:02.662410  3461 net.cpp:129] Top shape: 100 16 28 28 (1254400)
I0925 19:59:02.662413  3461 net.cpp:137] Memory required for data: 286944400
I0925 19:59:02.662417  3461 layer_factory.hpp:77] Creating layer Eltwise5
I0925 19:59:02.662422  3461 net.cpp:84] Creating Layer Eltwise5
I0925 19:59:02.662425  3461 net.cpp:406] Eltwise5 <- Eltwise4_penlu9_0_split_1
I0925 19:59:02.662430  3461 net.cpp:406] Eltwise5 <- Convolution11
I0925 19:59:02.662434  3461 net.cpp:380] Eltwise5 -> Eltwise5
I0925 19:59:02.662451  3461 net.cpp:122] Setting up Eltwise5
I0925 19:59:02.662456  3461 net.cpp:129] Top shape: 100 16 28 28 (1254400)
I0925 19:59:02.662459  3461 net.cpp:137] Memory required for data: 291962000
I0925 19:59:02.662462  3461 layer_factory.hpp:77] Creating layer penlu11
I0925 19:59:02.662467  3461 net.cpp:84] Creating Layer penlu11
I0925 19:59:02.662469  3461 net.cpp:406] penlu11 <- Eltwise5
I0925 19:59:02.662474  3461 net.cpp:367] penlu11 -> Eltwise5 (in-place)
I0925 19:59:02.662585  3461 net.cpp:122] Setting up penlu11
I0925 19:59:02.662591  3461 net.cpp:129] Top shape: 100 16 28 28 (1254400)
I0925 19:59:02.662595  3461 net.cpp:137] Memory required for data: 296979600
I0925 19:59:02.662600  3461 layer_factory.hpp:77] Creating layer Eltwise5_penlu11_0_split
I0925 19:59:02.662603  3461 net.cpp:84] Creating Layer Eltwise5_penlu11_0_split
I0925 19:59:02.662606  3461 net.cpp:406] Eltwise5_penlu11_0_split <- Eltwise5
I0925 19:59:02.662617  3461 net.cpp:380] Eltwise5_penlu11_0_split -> Eltwise5_penlu11_0_split_0
I0925 19:59:02.662622  3461 net.cpp:380] Eltwise5_penlu11_0_split -> Eltwise5_penlu11_0_split_1
I0925 19:59:02.662647  3461 net.cpp:122] Setting up Eltwise5_penlu11_0_split
I0925 19:59:02.662652  3461 net.cpp:129] Top shape: 100 16 28 28 (1254400)
I0925 19:59:02.662657  3461 net.cpp:129] Top shape: 100 16 28 28 (1254400)
I0925 19:59:02.662658  3461 net.cpp:137] Memory required for data: 307014800
I0925 19:59:02.662662  3461 layer_factory.hpp:77] Creating layer Convolution12
I0925 19:59:02.662669  3461 net.cpp:84] Creating Layer Convolution12
I0925 19:59:02.662673  3461 net.cpp:406] Convolution12 <- Eltwise5_penlu11_0_split_0
I0925 19:59:02.662678  3461 net.cpp:380] Convolution12 -> Convolution12
I0925 19:59:02.663594  3461 net.cpp:122] Setting up Convolution12
I0925 19:59:02.663605  3461 net.cpp:129] Top shape: 100 16 28 28 (1254400)
I0925 19:59:02.663609  3461 net.cpp:137] Memory required for data: 312032400
I0925 19:59:02.663614  3461 layer_factory.hpp:77] Creating layer BatchNorm12
I0925 19:59:02.663619  3461 net.cpp:84] Creating Layer BatchNorm12
I0925 19:59:02.663624  3461 net.cpp:406] BatchNorm12 <- Convolution12
I0925 19:59:02.663628  3461 net.cpp:367] BatchNorm12 -> Convolution12 (in-place)
I0925 19:59:02.663763  3461 net.cpp:122] Setting up BatchNorm12
I0925 19:59:02.663769  3461 net.cpp:129] Top shape: 100 16 28 28 (1254400)
I0925 19:59:02.663772  3461 net.cpp:137] Memory required for data: 317050000
I0925 19:59:02.663777  3461 layer_factory.hpp:77] Creating layer Scale12
I0925 19:59:02.663782  3461 net.cpp:84] Creating Layer Scale12
I0925 19:59:02.663785  3461 net.cpp:406] Scale12 <- Convolution12
I0925 19:59:02.663789  3461 net.cpp:367] Scale12 -> Convolution12 (in-place)
I0925 19:59:02.663816  3461 layer_factory.hpp:77] Creating layer Scale12
I0925 19:59:02.663895  3461 net.cpp:122] Setting up Scale12
I0925 19:59:02.663902  3461 net.cpp:129] Top shape: 100 16 28 28 (1254400)
I0925 19:59:02.663903  3461 net.cpp:137] Memory required for data: 322067600
I0925 19:59:02.663908  3461 layer_factory.hpp:77] Creating layer penlu12
I0925 19:59:02.663913  3461 net.cpp:84] Creating Layer penlu12
I0925 19:59:02.663916  3461 net.cpp:406] penlu12 <- Convolution12
I0925 19:59:02.663929  3461 net.cpp:367] penlu12 -> Convolution12 (in-place)
I0925 19:59:02.664037  3461 net.cpp:122] Setting up penlu12
I0925 19:59:02.664043  3461 net.cpp:129] Top shape: 100 16 28 28 (1254400)
I0925 19:59:02.664047  3461 net.cpp:137] Memory required for data: 327085200
I0925 19:59:02.664052  3461 layer_factory.hpp:77] Creating layer Convolution13
I0925 19:59:02.664058  3461 net.cpp:84] Creating Layer Convolution13
I0925 19:59:02.664062  3461 net.cpp:406] Convolution13 <- Convolution12
I0925 19:59:02.664067  3461 net.cpp:380] Convolution13 -> Convolution13
I0925 19:59:02.664966  3461 net.cpp:122] Setting up Convolution13
I0925 19:59:02.664978  3461 net.cpp:129] Top shape: 100 16 28 28 (1254400)
I0925 19:59:02.664981  3461 net.cpp:137] Memory required for data: 332102800
I0925 19:59:02.664986  3461 layer_factory.hpp:77] Creating layer BatchNorm13
I0925 19:59:02.664991  3461 net.cpp:84] Creating Layer BatchNorm13
I0925 19:59:02.664994  3461 net.cpp:406] BatchNorm13 <- Convolution13
I0925 19:59:02.664999  3461 net.cpp:367] BatchNorm13 -> Convolution13 (in-place)
I0925 19:59:02.665134  3461 net.cpp:122] Setting up BatchNorm13
I0925 19:59:02.665139  3461 net.cpp:129] Top shape: 100 16 28 28 (1254400)
I0925 19:59:02.665143  3461 net.cpp:137] Memory required for data: 337120400
I0925 19:59:02.665148  3461 layer_factory.hpp:77] Creating layer Scale13
I0925 19:59:02.665153  3461 net.cpp:84] Creating Layer Scale13
I0925 19:59:02.665154  3461 net.cpp:406] Scale13 <- Convolution13
I0925 19:59:02.665158  3461 net.cpp:367] Scale13 -> Convolution13 (in-place)
I0925 19:59:02.665184  3461 layer_factory.hpp:77] Creating layer Scale13
I0925 19:59:02.665263  3461 net.cpp:122] Setting up Scale13
I0925 19:59:02.665269  3461 net.cpp:129] Top shape: 100 16 28 28 (1254400)
I0925 19:59:02.665278  3461 net.cpp:137] Memory required for data: 342138000
I0925 19:59:02.665282  3461 layer_factory.hpp:77] Creating layer Eltwise6
I0925 19:59:02.665287  3461 net.cpp:84] Creating Layer Eltwise6
I0925 19:59:02.665290  3461 net.cpp:406] Eltwise6 <- Eltwise5_penlu11_0_split_1
I0925 19:59:02.665294  3461 net.cpp:406] Eltwise6 <- Convolution13
I0925 19:59:02.665297  3461 net.cpp:380] Eltwise6 -> Eltwise6
I0925 19:59:02.665318  3461 net.cpp:122] Setting up Eltwise6
I0925 19:59:02.665323  3461 net.cpp:129] Top shape: 100 16 28 28 (1254400)
I0925 19:59:02.665325  3461 net.cpp:137] Memory required for data: 347155600
I0925 19:59:02.665328  3461 layer_factory.hpp:77] Creating layer penlu13
I0925 19:59:02.665336  3461 net.cpp:84] Creating Layer penlu13
I0925 19:59:02.665339  3461 net.cpp:406] penlu13 <- Eltwise6
I0925 19:59:02.665343  3461 net.cpp:367] penlu13 -> Eltwise6 (in-place)
I0925 19:59:02.665453  3461 net.cpp:122] Setting up penlu13
I0925 19:59:02.665459  3461 net.cpp:129] Top shape: 100 16 28 28 (1254400)
I0925 19:59:02.665462  3461 net.cpp:137] Memory required for data: 352173200
I0925 19:59:02.665475  3461 layer_factory.hpp:77] Creating layer Eltwise6_penlu13_0_split
I0925 19:59:02.665482  3461 net.cpp:84] Creating Layer Eltwise6_penlu13_0_split
I0925 19:59:02.665484  3461 net.cpp:406] Eltwise6_penlu13_0_split <- Eltwise6
I0925 19:59:02.665488  3461 net.cpp:380] Eltwise6_penlu13_0_split -> Eltwise6_penlu13_0_split_0
I0925 19:59:02.665493  3461 net.cpp:380] Eltwise6_penlu13_0_split -> Eltwise6_penlu13_0_split_1
I0925 19:59:02.665518  3461 net.cpp:122] Setting up Eltwise6_penlu13_0_split
I0925 19:59:02.665524  3461 net.cpp:129] Top shape: 100 16 28 28 (1254400)
I0925 19:59:02.665526  3461 net.cpp:129] Top shape: 100 16 28 28 (1254400)
I0925 19:59:02.665529  3461 net.cpp:137] Memory required for data: 362208400
I0925 19:59:02.665531  3461 layer_factory.hpp:77] Creating layer Convolution14
I0925 19:59:02.665539  3461 net.cpp:84] Creating Layer Convolution14
I0925 19:59:02.665540  3461 net.cpp:406] Convolution14 <- Eltwise6_penlu13_0_split_0
I0925 19:59:02.665545  3461 net.cpp:380] Convolution14 -> Convolution14
I0925 19:59:02.666440  3461 net.cpp:122] Setting up Convolution14
I0925 19:59:02.666450  3461 net.cpp:129] Top shape: 100 16 28 28 (1254400)
I0925 19:59:02.666452  3461 net.cpp:137] Memory required for data: 367226000
I0925 19:59:02.666456  3461 layer_factory.hpp:77] Creating layer BatchNorm14
I0925 19:59:02.666460  3461 net.cpp:84] Creating Layer BatchNorm14
I0925 19:59:02.666463  3461 net.cpp:406] BatchNorm14 <- Convolution14
I0925 19:59:02.666468  3461 net.cpp:367] BatchNorm14 -> Convolution14 (in-place)
I0925 19:59:02.666605  3461 net.cpp:122] Setting up BatchNorm14
I0925 19:59:02.666610  3461 net.cpp:129] Top shape: 100 16 28 28 (1254400)
I0925 19:59:02.666612  3461 net.cpp:137] Memory required for data: 372243600
I0925 19:59:02.666617  3461 layer_factory.hpp:77] Creating layer Scale14
I0925 19:59:02.666621  3461 net.cpp:84] Creating Layer Scale14
I0925 19:59:02.666623  3461 net.cpp:406] Scale14 <- Convolution14
I0925 19:59:02.666627  3461 net.cpp:367] Scale14 -> Convolution14 (in-place)
I0925 19:59:02.666653  3461 layer_factory.hpp:77] Creating layer Scale14
I0925 19:59:02.666731  3461 net.cpp:122] Setting up Scale14
I0925 19:59:02.666735  3461 net.cpp:129] Top shape: 100 16 28 28 (1254400)
I0925 19:59:02.666738  3461 net.cpp:137] Memory required for data: 377261200
I0925 19:59:02.666741  3461 layer_factory.hpp:77] Creating layer penlu14
I0925 19:59:02.666749  3461 net.cpp:84] Creating Layer penlu14
I0925 19:59:02.666750  3461 net.cpp:406] penlu14 <- Convolution14
I0925 19:59:02.666754  3461 net.cpp:367] penlu14 -> Convolution14 (in-place)
I0925 19:59:02.666863  3461 net.cpp:122] Setting up penlu14
I0925 19:59:02.666868  3461 net.cpp:129] Top shape: 100 16 28 28 (1254400)
I0925 19:59:02.666870  3461 net.cpp:137] Memory required for data: 382278800
I0925 19:59:02.666874  3461 layer_factory.hpp:77] Creating layer Convolution15
I0925 19:59:02.666882  3461 net.cpp:84] Creating Layer Convolution15
I0925 19:59:02.666889  3461 net.cpp:406] Convolution15 <- Convolution14
I0925 19:59:02.666894  3461 net.cpp:380] Convolution15 -> Convolution15
I0925 19:59:02.667806  3461 net.cpp:122] Setting up Convolution15
I0925 19:59:02.667814  3461 net.cpp:129] Top shape: 100 16 28 28 (1254400)
I0925 19:59:02.667817  3461 net.cpp:137] Memory required for data: 387296400
I0925 19:59:02.667821  3461 layer_factory.hpp:77] Creating layer BatchNorm15
I0925 19:59:02.667826  3461 net.cpp:84] Creating Layer BatchNorm15
I0925 19:59:02.667829  3461 net.cpp:406] BatchNorm15 <- Convolution15
I0925 19:59:02.667834  3461 net.cpp:367] BatchNorm15 -> Convolution15 (in-place)
I0925 19:59:02.667964  3461 net.cpp:122] Setting up BatchNorm15
I0925 19:59:02.667969  3461 net.cpp:129] Top shape: 100 16 28 28 (1254400)
I0925 19:59:02.667971  3461 net.cpp:137] Memory required for data: 392314000
I0925 19:59:02.667976  3461 layer_factory.hpp:77] Creating layer Scale15
I0925 19:59:02.667980  3461 net.cpp:84] Creating Layer Scale15
I0925 19:59:02.667982  3461 net.cpp:406] Scale15 <- Convolution15
I0925 19:59:02.667986  3461 net.cpp:367] Scale15 -> Convolution15 (in-place)
I0925 19:59:02.668011  3461 layer_factory.hpp:77] Creating layer Scale15
I0925 19:59:02.668090  3461 net.cpp:122] Setting up Scale15
I0925 19:59:02.668094  3461 net.cpp:129] Top shape: 100 16 28 28 (1254400)
I0925 19:59:02.668097  3461 net.cpp:137] Memory required for data: 397331600
I0925 19:59:02.668100  3461 layer_factory.hpp:77] Creating layer Eltwise7
I0925 19:59:02.668104  3461 net.cpp:84] Creating Layer Eltwise7
I0925 19:59:02.668107  3461 net.cpp:406] Eltwise7 <- Eltwise6_penlu13_0_split_1
I0925 19:59:02.668109  3461 net.cpp:406] Eltwise7 <- Convolution15
I0925 19:59:02.668113  3461 net.cpp:380] Eltwise7 -> Eltwise7
I0925 19:59:02.668128  3461 net.cpp:122] Setting up Eltwise7
I0925 19:59:02.668133  3461 net.cpp:129] Top shape: 100 16 28 28 (1254400)
I0925 19:59:02.668135  3461 net.cpp:137] Memory required for data: 402349200
I0925 19:59:02.668138  3461 layer_factory.hpp:77] Creating layer penlu15
I0925 19:59:02.668143  3461 net.cpp:84] Creating Layer penlu15
I0925 19:59:02.668144  3461 net.cpp:406] penlu15 <- Eltwise7
I0925 19:59:02.668149  3461 net.cpp:367] penlu15 -> Eltwise7 (in-place)
I0925 19:59:02.668257  3461 net.cpp:122] Setting up penlu15
I0925 19:59:02.668262  3461 net.cpp:129] Top shape: 100 16 28 28 (1254400)
I0925 19:59:02.668264  3461 net.cpp:137] Memory required for data: 407366800
I0925 19:59:02.668269  3461 layer_factory.hpp:77] Creating layer Eltwise7_penlu15_0_split
I0925 19:59:02.668272  3461 net.cpp:84] Creating Layer Eltwise7_penlu15_0_split
I0925 19:59:02.668274  3461 net.cpp:406] Eltwise7_penlu15_0_split <- Eltwise7
I0925 19:59:02.668278  3461 net.cpp:380] Eltwise7_penlu15_0_split -> Eltwise7_penlu15_0_split_0
I0925 19:59:02.668282  3461 net.cpp:380] Eltwise7_penlu15_0_split -> Eltwise7_penlu15_0_split_1
I0925 19:59:02.668304  3461 net.cpp:122] Setting up Eltwise7_penlu15_0_split
I0925 19:59:02.668308  3461 net.cpp:129] Top shape: 100 16 28 28 (1254400)
I0925 19:59:02.668311  3461 net.cpp:129] Top shape: 100 16 28 28 (1254400)
I0925 19:59:02.668313  3461 net.cpp:137] Memory required for data: 417402000
I0925 19:59:02.668315  3461 layer_factory.hpp:77] Creating layer Convolution16
I0925 19:59:02.668321  3461 net.cpp:84] Creating Layer Convolution16
I0925 19:59:02.668324  3461 net.cpp:406] Convolution16 <- Eltwise7_penlu15_0_split_0
I0925 19:59:02.668329  3461 net.cpp:380] Convolution16 -> Convolution16
I0925 19:59:02.669222  3461 net.cpp:122] Setting up Convolution16
I0925 19:59:02.669231  3461 net.cpp:129] Top shape: 100 16 28 28 (1254400)
I0925 19:59:02.669234  3461 net.cpp:137] Memory required for data: 422419600
I0925 19:59:02.669239  3461 layer_factory.hpp:77] Creating layer BatchNorm16
I0925 19:59:02.669242  3461 net.cpp:84] Creating Layer BatchNorm16
I0925 19:59:02.669245  3461 net.cpp:406] BatchNorm16 <- Convolution16
I0925 19:59:02.669250  3461 net.cpp:367] BatchNorm16 -> Convolution16 (in-place)
I0925 19:59:02.669383  3461 net.cpp:122] Setting up BatchNorm16
I0925 19:59:02.669394  3461 net.cpp:129] Top shape: 100 16 28 28 (1254400)
I0925 19:59:02.669395  3461 net.cpp:137] Memory required for data: 427437200
I0925 19:59:02.669400  3461 layer_factory.hpp:77] Creating layer Scale16
I0925 19:59:02.669404  3461 net.cpp:84] Creating Layer Scale16
I0925 19:59:02.669407  3461 net.cpp:406] Scale16 <- Convolution16
I0925 19:59:02.669411  3461 net.cpp:367] Scale16 -> Convolution16 (in-place)
I0925 19:59:02.669437  3461 layer_factory.hpp:77] Creating layer Scale16
I0925 19:59:02.669517  3461 net.cpp:122] Setting up Scale16
I0925 19:59:02.669522  3461 net.cpp:129] Top shape: 100 16 28 28 (1254400)
I0925 19:59:02.669523  3461 net.cpp:137] Memory required for data: 432454800
I0925 19:59:02.669526  3461 layer_factory.hpp:77] Creating layer penlu16
I0925 19:59:02.669533  3461 net.cpp:84] Creating Layer penlu16
I0925 19:59:02.669535  3461 net.cpp:406] penlu16 <- Convolution16
I0925 19:59:02.669539  3461 net.cpp:367] penlu16 -> Convolution16 (in-place)
I0925 19:59:02.669647  3461 net.cpp:122] Setting up penlu16
I0925 19:59:02.669652  3461 net.cpp:129] Top shape: 100 16 28 28 (1254400)
I0925 19:59:02.669654  3461 net.cpp:137] Memory required for data: 437472400
I0925 19:59:02.669659  3461 layer_factory.hpp:77] Creating layer Convolution17
I0925 19:59:02.669665  3461 net.cpp:84] Creating Layer Convolution17
I0925 19:59:02.669667  3461 net.cpp:406] Convolution17 <- Convolution16
I0925 19:59:02.669672  3461 net.cpp:380] Convolution17 -> Convolution17
I0925 19:59:02.670241  3461 net.cpp:122] Setting up Convolution17
I0925 19:59:02.670249  3461 net.cpp:129] Top shape: 100 16 28 28 (1254400)
I0925 19:59:02.670251  3461 net.cpp:137] Memory required for data: 442490000
I0925 19:59:02.670255  3461 layer_factory.hpp:77] Creating layer BatchNorm17
I0925 19:59:02.670260  3461 net.cpp:84] Creating Layer BatchNorm17
I0925 19:59:02.670264  3461 net.cpp:406] BatchNorm17 <- Convolution17
I0925 19:59:02.670267  3461 net.cpp:367] BatchNorm17 -> Convolution17 (in-place)
I0925 19:59:02.670399  3461 net.cpp:122] Setting up BatchNorm17
I0925 19:59:02.670404  3461 net.cpp:129] Top shape: 100 16 28 28 (1254400)
I0925 19:59:02.670406  3461 net.cpp:137] Memory required for data: 447507600
I0925 19:59:02.670410  3461 layer_factory.hpp:77] Creating layer Scale17
I0925 19:59:02.670415  3461 net.cpp:84] Creating Layer Scale17
I0925 19:59:02.670418  3461 net.cpp:406] Scale17 <- Convolution17
I0925 19:59:02.670421  3461 net.cpp:367] Scale17 -> Convolution17 (in-place)
I0925 19:59:02.670446  3461 layer_factory.hpp:77] Creating layer Scale17
I0925 19:59:02.670524  3461 net.cpp:122] Setting up Scale17
I0925 19:59:02.670529  3461 net.cpp:129] Top shape: 100 16 28 28 (1254400)
I0925 19:59:02.670531  3461 net.cpp:137] Memory required for data: 452525200
I0925 19:59:02.670536  3461 layer_factory.hpp:77] Creating layer Eltwise8
I0925 19:59:02.670539  3461 net.cpp:84] Creating Layer Eltwise8
I0925 19:59:02.670542  3461 net.cpp:406] Eltwise8 <- Eltwise7_penlu15_0_split_1
I0925 19:59:02.670545  3461 net.cpp:406] Eltwise8 <- Convolution17
I0925 19:59:02.670548  3461 net.cpp:380] Eltwise8 -> Eltwise8
I0925 19:59:02.670564  3461 net.cpp:122] Setting up Eltwise8
I0925 19:59:02.670568  3461 net.cpp:129] Top shape: 100 16 28 28 (1254400)
I0925 19:59:02.670570  3461 net.cpp:137] Memory required for data: 457542800
I0925 19:59:02.670573  3461 layer_factory.hpp:77] Creating layer penlu17
I0925 19:59:02.670578  3461 net.cpp:84] Creating Layer penlu17
I0925 19:59:02.670580  3461 net.cpp:406] penlu17 <- Eltwise8
I0925 19:59:02.670584  3461 net.cpp:367] penlu17 -> Eltwise8 (in-place)
I0925 19:59:02.670692  3461 net.cpp:122] Setting up penlu17
I0925 19:59:02.670697  3461 net.cpp:129] Top shape: 100 16 28 28 (1254400)
I0925 19:59:02.670699  3461 net.cpp:137] Memory required for data: 462560400
I0925 19:59:02.670703  3461 layer_factory.hpp:77] Creating layer Eltwise8_penlu17_0_split
I0925 19:59:02.670707  3461 net.cpp:84] Creating Layer Eltwise8_penlu17_0_split
I0925 19:59:02.670709  3461 net.cpp:406] Eltwise8_penlu17_0_split <- Eltwise8
I0925 19:59:02.670718  3461 net.cpp:380] Eltwise8_penlu17_0_split -> Eltwise8_penlu17_0_split_0
I0925 19:59:02.670723  3461 net.cpp:380] Eltwise8_penlu17_0_split -> Eltwise8_penlu17_0_split_1
I0925 19:59:02.670747  3461 net.cpp:122] Setting up Eltwise8_penlu17_0_split
I0925 19:59:02.670750  3461 net.cpp:129] Top shape: 100 16 28 28 (1254400)
I0925 19:59:02.670753  3461 net.cpp:129] Top shape: 100 16 28 28 (1254400)
I0925 19:59:02.670755  3461 net.cpp:137] Memory required for data: 472595600
I0925 19:59:02.670758  3461 layer_factory.hpp:77] Creating layer Convolution18
I0925 19:59:02.670764  3461 net.cpp:84] Creating Layer Convolution18
I0925 19:59:02.670766  3461 net.cpp:406] Convolution18 <- Eltwise8_penlu17_0_split_0
I0925 19:59:02.670770  3461 net.cpp:380] Convolution18 -> Convolution18
I0925 19:59:02.671660  3461 net.cpp:122] Setting up Convolution18
I0925 19:59:02.671669  3461 net.cpp:129] Top shape: 100 16 28 28 (1254400)
I0925 19:59:02.671671  3461 net.cpp:137] Memory required for data: 477613200
I0925 19:59:02.671675  3461 layer_factory.hpp:77] Creating layer BatchNorm18
I0925 19:59:02.671680  3461 net.cpp:84] Creating Layer BatchNorm18
I0925 19:59:02.671684  3461 net.cpp:406] BatchNorm18 <- Convolution18
I0925 19:59:02.671689  3461 net.cpp:367] BatchNorm18 -> Convolution18 (in-place)
I0925 19:59:02.671820  3461 net.cpp:122] Setting up BatchNorm18
I0925 19:59:02.671825  3461 net.cpp:129] Top shape: 100 16 28 28 (1254400)
I0925 19:59:02.671828  3461 net.cpp:137] Memory required for data: 482630800
I0925 19:59:02.671831  3461 layer_factory.hpp:77] Creating layer Scale18
I0925 19:59:02.671836  3461 net.cpp:84] Creating Layer Scale18
I0925 19:59:02.671839  3461 net.cpp:406] Scale18 <- Convolution18
I0925 19:59:02.671842  3461 net.cpp:367] Scale18 -> Convolution18 (in-place)
I0925 19:59:02.671869  3461 layer_factory.hpp:77] Creating layer Scale18
I0925 19:59:02.671947  3461 net.cpp:122] Setting up Scale18
I0925 19:59:02.671952  3461 net.cpp:129] Top shape: 100 16 28 28 (1254400)
I0925 19:59:02.671954  3461 net.cpp:137] Memory required for data: 487648400
I0925 19:59:02.671958  3461 layer_factory.hpp:77] Creating layer penlu18
I0925 19:59:02.671963  3461 net.cpp:84] Creating Layer penlu18
I0925 19:59:02.671965  3461 net.cpp:406] penlu18 <- Convolution18
I0925 19:59:02.671969  3461 net.cpp:367] penlu18 -> Convolution18 (in-place)
I0925 19:59:02.672080  3461 net.cpp:122] Setting up penlu18
I0925 19:59:02.672083  3461 net.cpp:129] Top shape: 100 16 28 28 (1254400)
I0925 19:59:02.672086  3461 net.cpp:137] Memory required for data: 492666000
I0925 19:59:02.672089  3461 layer_factory.hpp:77] Creating layer Convolution19
I0925 19:59:02.672096  3461 net.cpp:84] Creating Layer Convolution19
I0925 19:59:02.672099  3461 net.cpp:406] Convolution19 <- Convolution18
I0925 19:59:02.672102  3461 net.cpp:380] Convolution19 -> Convolution19
I0925 19:59:02.673056  3461 net.cpp:122] Setting up Convolution19
I0925 19:59:02.673065  3461 net.cpp:129] Top shape: 100 16 28 28 (1254400)
I0925 19:59:02.673068  3461 net.cpp:137] Memory required for data: 497683600
I0925 19:59:02.673072  3461 layer_factory.hpp:77] Creating layer BatchNorm19
I0925 19:59:02.673077  3461 net.cpp:84] Creating Layer BatchNorm19
I0925 19:59:02.673080  3461 net.cpp:406] BatchNorm19 <- Convolution19
I0925 19:59:02.673084  3461 net.cpp:367] BatchNorm19 -> Convolution19 (in-place)
I0925 19:59:02.673218  3461 net.cpp:122] Setting up BatchNorm19
I0925 19:59:02.673223  3461 net.cpp:129] Top shape: 100 16 28 28 (1254400)
I0925 19:59:02.673225  3461 net.cpp:137] Memory required for data: 502701200
I0925 19:59:02.673230  3461 layer_factory.hpp:77] Creating layer Scale19
I0925 19:59:02.673235  3461 net.cpp:84] Creating Layer Scale19
I0925 19:59:02.673238  3461 net.cpp:406] Scale19 <- Convolution19
I0925 19:59:02.673241  3461 net.cpp:367] Scale19 -> Convolution19 (in-place)
I0925 19:59:02.673267  3461 layer_factory.hpp:77] Creating layer Scale19
I0925 19:59:02.673346  3461 net.cpp:122] Setting up Scale19
I0925 19:59:02.673351  3461 net.cpp:129] Top shape: 100 16 28 28 (1254400)
I0925 19:59:02.673352  3461 net.cpp:137] Memory required for data: 507718800
I0925 19:59:02.673362  3461 layer_factory.hpp:77] Creating layer Eltwise9
I0925 19:59:02.673368  3461 net.cpp:84] Creating Layer Eltwise9
I0925 19:59:02.673370  3461 net.cpp:406] Eltwise9 <- Eltwise8_penlu17_0_split_1
I0925 19:59:02.673373  3461 net.cpp:406] Eltwise9 <- Convolution19
I0925 19:59:02.673377  3461 net.cpp:380] Eltwise9 -> Eltwise9
I0925 19:59:02.673394  3461 net.cpp:122] Setting up Eltwise9
I0925 19:59:02.673398  3461 net.cpp:129] Top shape: 100 16 28 28 (1254400)
I0925 19:59:02.673400  3461 net.cpp:137] Memory required for data: 512736400
I0925 19:59:02.673403  3461 layer_factory.hpp:77] Creating layer penlu19
I0925 19:59:02.673408  3461 net.cpp:84] Creating Layer penlu19
I0925 19:59:02.673410  3461 net.cpp:406] penlu19 <- Eltwise9
I0925 19:59:02.673413  3461 net.cpp:367] penlu19 -> Eltwise9 (in-place)
I0925 19:59:02.673522  3461 net.cpp:122] Setting up penlu19
I0925 19:59:02.673527  3461 net.cpp:129] Top shape: 100 16 28 28 (1254400)
I0925 19:59:02.673529  3461 net.cpp:137] Memory required for data: 517754000
I0925 19:59:02.673533  3461 layer_factory.hpp:77] Creating layer Eltwise9_penlu19_0_split
I0925 19:59:02.673537  3461 net.cpp:84] Creating Layer Eltwise9_penlu19_0_split
I0925 19:59:02.673539  3461 net.cpp:406] Eltwise9_penlu19_0_split <- Eltwise9
I0925 19:59:02.673542  3461 net.cpp:380] Eltwise9_penlu19_0_split -> Eltwise9_penlu19_0_split_0
I0925 19:59:02.673547  3461 net.cpp:380] Eltwise9_penlu19_0_split -> Eltwise9_penlu19_0_split_1
I0925 19:59:02.673569  3461 net.cpp:122] Setting up Eltwise9_penlu19_0_split
I0925 19:59:02.673573  3461 net.cpp:129] Top shape: 100 16 28 28 (1254400)
I0925 19:59:02.673576  3461 net.cpp:129] Top shape: 100 16 28 28 (1254400)
I0925 19:59:02.673578  3461 net.cpp:137] Memory required for data: 527789200
I0925 19:59:02.673580  3461 layer_factory.hpp:77] Creating layer Convolution20
I0925 19:59:02.673588  3461 net.cpp:84] Creating Layer Convolution20
I0925 19:59:02.673589  3461 net.cpp:406] Convolution20 <- Eltwise9_penlu19_0_split_0
I0925 19:59:02.673593  3461 net.cpp:380] Convolution20 -> Convolution20
I0925 19:59:02.674852  3461 net.cpp:122] Setting up Convolution20
I0925 19:59:02.674861  3461 net.cpp:129] Top shape: 100 32 14 14 (627200)
I0925 19:59:02.674865  3461 net.cpp:137] Memory required for data: 530298000
I0925 19:59:02.674868  3461 layer_factory.hpp:77] Creating layer BatchNorm20
I0925 19:59:02.674875  3461 net.cpp:84] Creating Layer BatchNorm20
I0925 19:59:02.674877  3461 net.cpp:406] BatchNorm20 <- Convolution20
I0925 19:59:02.674880  3461 net.cpp:367] BatchNorm20 -> Convolution20 (in-place)
I0925 19:59:02.675065  3461 net.cpp:122] Setting up BatchNorm20
I0925 19:59:02.675071  3461 net.cpp:129] Top shape: 100 32 14 14 (627200)
I0925 19:59:02.675073  3461 net.cpp:137] Memory required for data: 532806800
I0925 19:59:02.675079  3461 layer_factory.hpp:77] Creating layer Scale20
I0925 19:59:02.675083  3461 net.cpp:84] Creating Layer Scale20
I0925 19:59:02.675086  3461 net.cpp:406] Scale20 <- Convolution20
I0925 19:59:02.675089  3461 net.cpp:367] Scale20 -> Convolution20 (in-place)
I0925 19:59:02.675118  3461 layer_factory.hpp:77] Creating layer Scale20
I0925 19:59:02.675194  3461 net.cpp:122] Setting up Scale20
I0925 19:59:02.675199  3461 net.cpp:129] Top shape: 100 32 14 14 (627200)
I0925 19:59:02.675201  3461 net.cpp:137] Memory required for data: 535315600
I0925 19:59:02.675205  3461 layer_factory.hpp:77] Creating layer Convolution21
I0925 19:59:02.675212  3461 net.cpp:84] Creating Layer Convolution21
I0925 19:59:02.675215  3461 net.cpp:406] Convolution21 <- Eltwise9_penlu19_0_split_1
I0925 19:59:02.675220  3461 net.cpp:380] Convolution21 -> Convolution21
I0925 19:59:02.677088  3461 net.cpp:122] Setting up Convolution21
I0925 19:59:02.677098  3461 net.cpp:129] Top shape: 100 32 14 14 (627200)
I0925 19:59:02.677100  3461 net.cpp:137] Memory required for data: 537824400
I0925 19:59:02.677114  3461 layer_factory.hpp:77] Creating layer BatchNorm21
I0925 19:59:02.677119  3461 net.cpp:84] Creating Layer BatchNorm21
I0925 19:59:02.677127  3461 net.cpp:406] BatchNorm21 <- Convolution21
I0925 19:59:02.677132  3461 net.cpp:367] BatchNorm21 -> Convolution21 (in-place)
I0925 19:59:02.677268  3461 net.cpp:122] Setting up BatchNorm21
I0925 19:59:02.677273  3461 net.cpp:129] Top shape: 100 32 14 14 (627200)
I0925 19:59:02.677275  3461 net.cpp:137] Memory required for data: 540333200
I0925 19:59:02.677280  3461 layer_factory.hpp:77] Creating layer Scale21
I0925 19:59:02.677284  3461 net.cpp:84] Creating Layer Scale21
I0925 19:59:02.677286  3461 net.cpp:406] Scale21 <- Convolution21
I0925 19:59:02.677290  3461 net.cpp:367] Scale21 -> Convolution21 (in-place)
I0925 19:59:02.677316  3461 layer_factory.hpp:77] Creating layer Scale21
I0925 19:59:02.677394  3461 net.cpp:122] Setting up Scale21
I0925 19:59:02.677398  3461 net.cpp:129] Top shape: 100 32 14 14 (627200)
I0925 19:59:02.677400  3461 net.cpp:137] Memory required for data: 542842000
I0925 19:59:02.677404  3461 layer_factory.hpp:77] Creating layer penlu20
I0925 19:59:02.677409  3461 net.cpp:84] Creating Layer penlu20
I0925 19:59:02.677412  3461 net.cpp:406] penlu20 <- Convolution21
I0925 19:59:02.677417  3461 net.cpp:367] penlu20 -> Convolution21 (in-place)
I0925 19:59:02.677521  3461 net.cpp:122] Setting up penlu20
I0925 19:59:02.677526  3461 net.cpp:129] Top shape: 100 32 14 14 (627200)
I0925 19:59:02.677528  3461 net.cpp:137] Memory required for data: 545350800
I0925 19:59:02.677532  3461 layer_factory.hpp:77] Creating layer Convolution22
I0925 19:59:02.677538  3461 net.cpp:84] Creating Layer Convolution22
I0925 19:59:02.677541  3461 net.cpp:406] Convolution22 <- Convolution21
I0925 19:59:02.677546  3461 net.cpp:380] Convolution22 -> Convolution22
I0925 19:59:02.678611  3461 net.cpp:122] Setting up Convolution22
I0925 19:59:02.678620  3461 net.cpp:129] Top shape: 100 32 14 14 (627200)
I0925 19:59:02.678623  3461 net.cpp:137] Memory required for data: 547859600
I0925 19:59:02.678627  3461 layer_factory.hpp:77] Creating layer BatchNorm22
I0925 19:59:02.678632  3461 net.cpp:84] Creating Layer BatchNorm22
I0925 19:59:02.678635  3461 net.cpp:406] BatchNorm22 <- Convolution22
I0925 19:59:02.678639  3461 net.cpp:367] BatchNorm22 -> Convolution22 (in-place)
I0925 19:59:02.678771  3461 net.cpp:122] Setting up BatchNorm22
I0925 19:59:02.678776  3461 net.cpp:129] Top shape: 100 32 14 14 (627200)
I0925 19:59:02.678777  3461 net.cpp:137] Memory required for data: 550368400
I0925 19:59:02.678782  3461 layer_factory.hpp:77] Creating layer Scale22
I0925 19:59:02.678786  3461 net.cpp:84] Creating Layer Scale22
I0925 19:59:02.678788  3461 net.cpp:406] Scale22 <- Convolution22
I0925 19:59:02.678791  3461 net.cpp:367] Scale22 -> Convolution22 (in-place)
I0925 19:59:02.678818  3461 layer_factory.hpp:77] Creating layer Scale22
I0925 19:59:02.678892  3461 net.cpp:122] Setting up Scale22
I0925 19:59:02.678897  3461 net.cpp:129] Top shape: 100 32 14 14 (627200)
I0925 19:59:02.678900  3461 net.cpp:137] Memory required for data: 552877200
I0925 19:59:02.678903  3461 layer_factory.hpp:77] Creating layer Eltwise10
I0925 19:59:02.678907  3461 net.cpp:84] Creating Layer Eltwise10
I0925 19:59:02.678910  3461 net.cpp:406] Eltwise10 <- Convolution20
I0925 19:59:02.678912  3461 net.cpp:406] Eltwise10 <- Convolution22
I0925 19:59:02.678915  3461 net.cpp:380] Eltwise10 -> Eltwise10
I0925 19:59:02.678931  3461 net.cpp:122] Setting up Eltwise10
I0925 19:59:02.678936  3461 net.cpp:129] Top shape: 100 32 14 14 (627200)
I0925 19:59:02.678937  3461 net.cpp:137] Memory required for data: 555386000
I0925 19:59:02.678939  3461 layer_factory.hpp:77] Creating layer penlu21
I0925 19:59:02.678946  3461 net.cpp:84] Creating Layer penlu21
I0925 19:59:02.678948  3461 net.cpp:406] penlu21 <- Eltwise10
I0925 19:59:02.678952  3461 net.cpp:367] penlu21 -> Eltwise10 (in-place)
I0925 19:59:02.679057  3461 net.cpp:122] Setting up penlu21
I0925 19:59:02.679061  3461 net.cpp:129] Top shape: 100 32 14 14 (627200)
I0925 19:59:02.679064  3461 net.cpp:137] Memory required for data: 557894800
I0925 19:59:02.679067  3461 layer_factory.hpp:77] Creating layer Eltwise10_penlu21_0_split
I0925 19:59:02.679077  3461 net.cpp:84] Creating Layer Eltwise10_penlu21_0_split
I0925 19:59:02.679080  3461 net.cpp:406] Eltwise10_penlu21_0_split <- Eltwise10
I0925 19:59:02.679083  3461 net.cpp:380] Eltwise10_penlu21_0_split -> Eltwise10_penlu21_0_split_0
I0925 19:59:02.679087  3461 net.cpp:380] Eltwise10_penlu21_0_split -> Eltwise10_penlu21_0_split_1
I0925 19:59:02.679111  3461 net.cpp:122] Setting up Eltwise10_penlu21_0_split
I0925 19:59:02.679116  3461 net.cpp:129] Top shape: 100 32 14 14 (627200)
I0925 19:59:02.679117  3461 net.cpp:129] Top shape: 100 32 14 14 (627200)
I0925 19:59:02.679119  3461 net.cpp:137] Memory required for data: 562912400
I0925 19:59:02.679121  3461 layer_factory.hpp:77] Creating layer Convolution23
I0925 19:59:02.679127  3461 net.cpp:84] Creating Layer Convolution23
I0925 19:59:02.679129  3461 net.cpp:406] Convolution23 <- Eltwise10_penlu21_0_split_0
I0925 19:59:02.679134  3461 net.cpp:380] Convolution23 -> Convolution23
I0925 19:59:02.680485  3461 net.cpp:122] Setting up Convolution23
I0925 19:59:02.680493  3461 net.cpp:129] Top shape: 100 32 14 14 (627200)
I0925 19:59:02.680518  3461 net.cpp:137] Memory required for data: 565421200
I0925 19:59:02.680523  3461 layer_factory.hpp:77] Creating layer BatchNorm23
I0925 19:59:02.680529  3461 net.cpp:84] Creating Layer BatchNorm23
I0925 19:59:02.680541  3461 net.cpp:406] BatchNorm23 <- Convolution23
I0925 19:59:02.680544  3461 net.cpp:367] BatchNorm23 -> Convolution23 (in-place)
I0925 19:59:02.680680  3461 net.cpp:122] Setting up BatchNorm23
I0925 19:59:02.680685  3461 net.cpp:129] Top shape: 100 32 14 14 (627200)
I0925 19:59:02.680686  3461 net.cpp:137] Memory required for data: 567930000
I0925 19:59:02.680691  3461 layer_factory.hpp:77] Creating layer Scale23
I0925 19:59:02.680696  3461 net.cpp:84] Creating Layer Scale23
I0925 19:59:02.680698  3461 net.cpp:406] Scale23 <- Convolution23
I0925 19:59:02.680701  3461 net.cpp:367] Scale23 -> Convolution23 (in-place)
I0925 19:59:02.680730  3461 layer_factory.hpp:77] Creating layer Scale23
I0925 19:59:02.680806  3461 net.cpp:122] Setting up Scale23
I0925 19:59:02.680810  3461 net.cpp:129] Top shape: 100 32 14 14 (627200)
I0925 19:59:02.680812  3461 net.cpp:137] Memory required for data: 570438800
I0925 19:59:02.680816  3461 layer_factory.hpp:77] Creating layer penlu22
I0925 19:59:02.680822  3461 net.cpp:84] Creating Layer penlu22
I0925 19:59:02.680825  3461 net.cpp:406] penlu22 <- Convolution23
I0925 19:59:02.680829  3461 net.cpp:367] penlu22 -> Convolution23 (in-place)
I0925 19:59:02.680933  3461 net.cpp:122] Setting up penlu22
I0925 19:59:02.680938  3461 net.cpp:129] Top shape: 100 32 14 14 (627200)
I0925 19:59:02.680939  3461 net.cpp:137] Memory required for data: 572947600
I0925 19:59:02.680944  3461 layer_factory.hpp:77] Creating layer Convolution24
I0925 19:59:02.680950  3461 net.cpp:84] Creating Layer Convolution24
I0925 19:59:02.680953  3461 net.cpp:406] Convolution24 <- Convolution23
I0925 19:59:02.680956  3461 net.cpp:380] Convolution24 -> Convolution24
I0925 19:59:02.682015  3461 net.cpp:122] Setting up Convolution24
I0925 19:59:02.682024  3461 net.cpp:129] Top shape: 100 32 14 14 (627200)
I0925 19:59:02.682027  3461 net.cpp:137] Memory required for data: 575456400
I0925 19:59:02.682031  3461 layer_factory.hpp:77] Creating layer BatchNorm24
I0925 19:59:02.682037  3461 net.cpp:84] Creating Layer BatchNorm24
I0925 19:59:02.682040  3461 net.cpp:406] BatchNorm24 <- Convolution24
I0925 19:59:02.682044  3461 net.cpp:367] BatchNorm24 -> Convolution24 (in-place)
I0925 19:59:02.682175  3461 net.cpp:122] Setting up BatchNorm24
I0925 19:59:02.682180  3461 net.cpp:129] Top shape: 100 32 14 14 (627200)
I0925 19:59:02.682183  3461 net.cpp:137] Memory required for data: 577965200
I0925 19:59:02.682188  3461 layer_factory.hpp:77] Creating layer Scale24
I0925 19:59:02.682193  3461 net.cpp:84] Creating Layer Scale24
I0925 19:59:02.682194  3461 net.cpp:406] Scale24 <- Convolution24
I0925 19:59:02.682198  3461 net.cpp:367] Scale24 -> Convolution24 (in-place)
I0925 19:59:02.682231  3461 layer_factory.hpp:77] Creating layer Scale24
I0925 19:59:02.682307  3461 net.cpp:122] Setting up Scale24
I0925 19:59:02.682312  3461 net.cpp:129] Top shape: 100 32 14 14 (627200)
I0925 19:59:02.682313  3461 net.cpp:137] Memory required for data: 580474000
I0925 19:59:02.682317  3461 layer_factory.hpp:77] Creating layer Eltwise11
I0925 19:59:02.682322  3461 net.cpp:84] Creating Layer Eltwise11
I0925 19:59:02.682324  3461 net.cpp:406] Eltwise11 <- Eltwise10_penlu21_0_split_1
I0925 19:59:02.682327  3461 net.cpp:406] Eltwise11 <- Convolution24
I0925 19:59:02.682330  3461 net.cpp:380] Eltwise11 -> Eltwise11
I0925 19:59:02.682346  3461 net.cpp:122] Setting up Eltwise11
I0925 19:59:02.682350  3461 net.cpp:129] Top shape: 100 32 14 14 (627200)
I0925 19:59:02.682353  3461 net.cpp:137] Memory required for data: 582982800
I0925 19:59:02.682355  3461 layer_factory.hpp:77] Creating layer penlu23
I0925 19:59:02.682360  3461 net.cpp:84] Creating Layer penlu23
I0925 19:59:02.682363  3461 net.cpp:406] penlu23 <- Eltwise11
I0925 19:59:02.682365  3461 net.cpp:367] penlu23 -> Eltwise11 (in-place)
I0925 19:59:02.682469  3461 net.cpp:122] Setting up penlu23
I0925 19:59:02.682473  3461 net.cpp:129] Top shape: 100 32 14 14 (627200)
I0925 19:59:02.682476  3461 net.cpp:137] Memory required for data: 585491600
I0925 19:59:02.682479  3461 layer_factory.hpp:77] Creating layer Eltwise11_penlu23_0_split
I0925 19:59:02.682483  3461 net.cpp:84] Creating Layer Eltwise11_penlu23_0_split
I0925 19:59:02.682485  3461 net.cpp:406] Eltwise11_penlu23_0_split <- Eltwise11
I0925 19:59:02.682488  3461 net.cpp:380] Eltwise11_penlu23_0_split -> Eltwise11_penlu23_0_split_0
I0925 19:59:02.682493  3461 net.cpp:380] Eltwise11_penlu23_0_split -> Eltwise11_penlu23_0_split_1
I0925 19:59:02.682518  3461 net.cpp:122] Setting up Eltwise11_penlu23_0_split
I0925 19:59:02.682521  3461 net.cpp:129] Top shape: 100 32 14 14 (627200)
I0925 19:59:02.682524  3461 net.cpp:129] Top shape: 100 32 14 14 (627200)
I0925 19:59:02.682526  3461 net.cpp:137] Memory required for data: 590509200
I0925 19:59:02.682528  3461 layer_factory.hpp:77] Creating layer Convolution25
I0925 19:59:02.682534  3461 net.cpp:84] Creating Layer Convolution25
I0925 19:59:02.682538  3461 net.cpp:406] Convolution25 <- Eltwise11_penlu23_0_split_0
I0925 19:59:02.682541  3461 net.cpp:380] Convolution25 -> Convolution25
I0925 19:59:02.683593  3461 net.cpp:122] Setting up Convolution25
I0925 19:59:02.683601  3461 net.cpp:129] Top shape: 100 32 14 14 (627200)
I0925 19:59:02.683604  3461 net.cpp:137] Memory required for data: 593018000
I0925 19:59:02.683609  3461 layer_factory.hpp:77] Creating layer BatchNorm25
I0925 19:59:02.683614  3461 net.cpp:84] Creating Layer BatchNorm25
I0925 19:59:02.683616  3461 net.cpp:406] BatchNorm25 <- Convolution25
I0925 19:59:02.683619  3461 net.cpp:367] BatchNorm25 -> Convolution25 (in-place)
I0925 19:59:02.683753  3461 net.cpp:122] Setting up BatchNorm25
I0925 19:59:02.683758  3461 net.cpp:129] Top shape: 100 32 14 14 (627200)
I0925 19:59:02.683759  3461 net.cpp:137] Memory required for data: 595526800
I0925 19:59:02.683764  3461 layer_factory.hpp:77] Creating layer Scale25
I0925 19:59:02.683768  3461 net.cpp:84] Creating Layer Scale25
I0925 19:59:02.683770  3461 net.cpp:406] Scale25 <- Convolution25
I0925 19:59:02.683774  3461 net.cpp:367] Scale25 -> Convolution25 (in-place)
I0925 19:59:02.683801  3461 layer_factory.hpp:77] Creating layer Scale25
I0925 19:59:02.683876  3461 net.cpp:122] Setting up Scale25
I0925 19:59:02.683881  3461 net.cpp:129] Top shape: 100 32 14 14 (627200)
I0925 19:59:02.683883  3461 net.cpp:137] Memory required for data: 598035600
I0925 19:59:02.683887  3461 layer_factory.hpp:77] Creating layer penlu24
I0925 19:59:02.683892  3461 net.cpp:84] Creating Layer penlu24
I0925 19:59:02.683895  3461 net.cpp:406] penlu24 <- Convolution25
I0925 19:59:02.683899  3461 net.cpp:367] penlu24 -> Convolution25 (in-place)
I0925 19:59:02.684002  3461 net.cpp:122] Setting up penlu24
I0925 19:59:02.684007  3461 net.cpp:129] Top shape: 100 32 14 14 (627200)
I0925 19:59:02.684015  3461 net.cpp:137] Memory required for data: 600544400
I0925 19:59:02.684020  3461 layer_factory.hpp:77] Creating layer Convolution26
I0925 19:59:02.684026  3461 net.cpp:84] Creating Layer Convolution26
I0925 19:59:02.684029  3461 net.cpp:406] Convolution26 <- Convolution25
I0925 19:59:02.684033  3461 net.cpp:380] Convolution26 -> Convolution26
I0925 19:59:02.685115  3461 net.cpp:122] Setting up Convolution26
I0925 19:59:02.685124  3461 net.cpp:129] Top shape: 100 32 14 14 (627200)
I0925 19:59:02.685127  3461 net.cpp:137] Memory required for data: 603053200
I0925 19:59:02.685130  3461 layer_factory.hpp:77] Creating layer BatchNorm26
I0925 19:59:02.685135  3461 net.cpp:84] Creating Layer BatchNorm26
I0925 19:59:02.685137  3461 net.cpp:406] BatchNorm26 <- Convolution26
I0925 19:59:02.685142  3461 net.cpp:367] BatchNorm26 -> Convolution26 (in-place)
I0925 19:59:02.685278  3461 net.cpp:122] Setting up BatchNorm26
I0925 19:59:02.685282  3461 net.cpp:129] Top shape: 100 32 14 14 (627200)
I0925 19:59:02.685284  3461 net.cpp:137] Memory required for data: 605562000
I0925 19:59:02.685289  3461 layer_factory.hpp:77] Creating layer Scale26
I0925 19:59:02.685293  3461 net.cpp:84] Creating Layer Scale26
I0925 19:59:02.685297  3461 net.cpp:406] Scale26 <- Convolution26
I0925 19:59:02.685299  3461 net.cpp:367] Scale26 -> Convolution26 (in-place)
I0925 19:59:02.685325  3461 layer_factory.hpp:77] Creating layer Scale26
I0925 19:59:02.685405  3461 net.cpp:122] Setting up Scale26
I0925 19:59:02.685410  3461 net.cpp:129] Top shape: 100 32 14 14 (627200)
I0925 19:59:02.685412  3461 net.cpp:137] Memory required for data: 608070800
I0925 19:59:02.685416  3461 layer_factory.hpp:77] Creating layer Eltwise12
I0925 19:59:02.685420  3461 net.cpp:84] Creating Layer Eltwise12
I0925 19:59:02.685422  3461 net.cpp:406] Eltwise12 <- Eltwise11_penlu23_0_split_1
I0925 19:59:02.685425  3461 net.cpp:406] Eltwise12 <- Convolution26
I0925 19:59:02.685430  3461 net.cpp:380] Eltwise12 -> Eltwise12
I0925 19:59:02.685446  3461 net.cpp:122] Setting up Eltwise12
I0925 19:59:02.685451  3461 net.cpp:129] Top shape: 100 32 14 14 (627200)
I0925 19:59:02.685452  3461 net.cpp:137] Memory required for data: 610579600
I0925 19:59:02.685454  3461 layer_factory.hpp:77] Creating layer penlu25
I0925 19:59:02.685458  3461 net.cpp:84] Creating Layer penlu25
I0925 19:59:02.685461  3461 net.cpp:406] penlu25 <- Eltwise12
I0925 19:59:02.685464  3461 net.cpp:367] penlu25 -> Eltwise12 (in-place)
I0925 19:59:02.685572  3461 net.cpp:122] Setting up penlu25
I0925 19:59:02.685577  3461 net.cpp:129] Top shape: 100 32 14 14 (627200)
I0925 19:59:02.685580  3461 net.cpp:137] Memory required for data: 613088400
I0925 19:59:02.685601  3461 layer_factory.hpp:77] Creating layer Eltwise12_penlu25_0_split
I0925 19:59:02.685611  3461 net.cpp:84] Creating Layer Eltwise12_penlu25_0_split
I0925 19:59:02.685614  3461 net.cpp:406] Eltwise12_penlu25_0_split <- Eltwise12
I0925 19:59:02.685617  3461 net.cpp:380] Eltwise12_penlu25_0_split -> Eltwise12_penlu25_0_split_0
I0925 19:59:02.685626  3461 net.cpp:380] Eltwise12_penlu25_0_split -> Eltwise12_penlu25_0_split_1
I0925 19:59:02.685652  3461 net.cpp:122] Setting up Eltwise12_penlu25_0_split
I0925 19:59:02.685655  3461 net.cpp:129] Top shape: 100 32 14 14 (627200)
I0925 19:59:02.685658  3461 net.cpp:129] Top shape: 100 32 14 14 (627200)
I0925 19:59:02.685660  3461 net.cpp:137] Memory required for data: 618106000
I0925 19:59:02.685663  3461 layer_factory.hpp:77] Creating layer Convolution27
I0925 19:59:02.685669  3461 net.cpp:84] Creating Layer Convolution27
I0925 19:59:02.685672  3461 net.cpp:406] Convolution27 <- Eltwise12_penlu25_0_split_0
I0925 19:59:02.685676  3461 net.cpp:380] Convolution27 -> Convolution27
I0925 19:59:02.686414  3461 net.cpp:122] Setting up Convolution27
I0925 19:59:02.686420  3461 net.cpp:129] Top shape: 100 32 14 14 (627200)
I0925 19:59:02.686424  3461 net.cpp:137] Memory required for data: 620614800
I0925 19:59:02.686427  3461 layer_factory.hpp:77] Creating layer BatchNorm27
I0925 19:59:02.686432  3461 net.cpp:84] Creating Layer BatchNorm27
I0925 19:59:02.686441  3461 net.cpp:406] BatchNorm27 <- Convolution27
I0925 19:59:02.686446  3461 net.cpp:367] BatchNorm27 -> Convolution27 (in-place)
I0925 19:59:02.686580  3461 net.cpp:122] Setting up BatchNorm27
I0925 19:59:02.686585  3461 net.cpp:129] Top shape: 100 32 14 14 (627200)
I0925 19:59:02.686588  3461 net.cpp:137] Memory required for data: 623123600
I0925 19:59:02.686592  3461 layer_factory.hpp:77] Creating layer Scale27
I0925 19:59:02.686596  3461 net.cpp:84] Creating Layer Scale27
I0925 19:59:02.686599  3461 net.cpp:406] Scale27 <- Convolution27
I0925 19:59:02.686602  3461 net.cpp:367] Scale27 -> Convolution27 (in-place)
I0925 19:59:02.686630  3461 layer_factory.hpp:77] Creating layer Scale27
I0925 19:59:02.686705  3461 net.cpp:122] Setting up Scale27
I0925 19:59:02.686709  3461 net.cpp:129] Top shape: 100 32 14 14 (627200)
I0925 19:59:02.686712  3461 net.cpp:137] Memory required for data: 625632400
I0925 19:59:02.686715  3461 layer_factory.hpp:77] Creating layer penlu26
I0925 19:59:02.686722  3461 net.cpp:84] Creating Layer penlu26
I0925 19:59:02.686723  3461 net.cpp:406] penlu26 <- Convolution27
I0925 19:59:02.686728  3461 net.cpp:367] penlu26 -> Convolution27 (in-place)
I0925 19:59:02.686836  3461 net.cpp:122] Setting up penlu26
I0925 19:59:02.686839  3461 net.cpp:129] Top shape: 100 32 14 14 (627200)
I0925 19:59:02.686841  3461 net.cpp:137] Memory required for data: 628141200
I0925 19:59:02.686846  3461 layer_factory.hpp:77] Creating layer Convolution28
I0925 19:59:02.686852  3461 net.cpp:84] Creating Layer Convolution28
I0925 19:59:02.686856  3461 net.cpp:406] Convolution28 <- Convolution27
I0925 19:59:02.686859  3461 net.cpp:380] Convolution28 -> Convolution28
I0925 19:59:02.687904  3461 net.cpp:122] Setting up Convolution28
I0925 19:59:02.687912  3461 net.cpp:129] Top shape: 100 32 14 14 (627200)
I0925 19:59:02.687916  3461 net.cpp:137] Memory required for data: 630650000
I0925 19:59:02.687919  3461 layer_factory.hpp:77] Creating layer BatchNorm28
I0925 19:59:02.687924  3461 net.cpp:84] Creating Layer BatchNorm28
I0925 19:59:02.687927  3461 net.cpp:406] BatchNorm28 <- Convolution28
I0925 19:59:02.687932  3461 net.cpp:367] BatchNorm28 -> Convolution28 (in-place)
I0925 19:59:02.688064  3461 net.cpp:122] Setting up BatchNorm28
I0925 19:59:02.688069  3461 net.cpp:129] Top shape: 100 32 14 14 (627200)
I0925 19:59:02.688071  3461 net.cpp:137] Memory required for data: 633158800
I0925 19:59:02.688076  3461 layer_factory.hpp:77] Creating layer Scale28
I0925 19:59:02.688081  3461 net.cpp:84] Creating Layer Scale28
I0925 19:59:02.688082  3461 net.cpp:406] Scale28 <- Convolution28
I0925 19:59:02.688086  3461 net.cpp:367] Scale28 -> Convolution28 (in-place)
I0925 19:59:02.688112  3461 layer_factory.hpp:77] Creating layer Scale28
I0925 19:59:02.688190  3461 net.cpp:122] Setting up Scale28
I0925 19:59:02.688195  3461 net.cpp:129] Top shape: 100 32 14 14 (627200)
I0925 19:59:02.688197  3461 net.cpp:137] Memory required for data: 635667600
I0925 19:59:02.688201  3461 layer_factory.hpp:77] Creating layer Eltwise13
I0925 19:59:02.688205  3461 net.cpp:84] Creating Layer Eltwise13
I0925 19:59:02.688207  3461 net.cpp:406] Eltwise13 <- Eltwise12_penlu25_0_split_1
I0925 19:59:02.688210  3461 net.cpp:406] Eltwise13 <- Convolution28
I0925 19:59:02.688215  3461 net.cpp:380] Eltwise13 -> Eltwise13
I0925 19:59:02.688230  3461 net.cpp:122] Setting up Eltwise13
I0925 19:59:02.688235  3461 net.cpp:129] Top shape: 100 32 14 14 (627200)
I0925 19:59:02.688236  3461 net.cpp:137] Memory required for data: 638176400
I0925 19:59:02.688238  3461 layer_factory.hpp:77] Creating layer penlu27
I0925 19:59:02.688242  3461 net.cpp:84] Creating Layer penlu27
I0925 19:59:02.688246  3461 net.cpp:406] penlu27 <- Eltwise13
I0925 19:59:02.688249  3461 net.cpp:367] penlu27 -> Eltwise13 (in-place)
I0925 19:59:02.688356  3461 net.cpp:122] Setting up penlu27
I0925 19:59:02.688360  3461 net.cpp:129] Top shape: 100 32 14 14 (627200)
I0925 19:59:02.688362  3461 net.cpp:137] Memory required for data: 640685200
I0925 19:59:02.688366  3461 layer_factory.hpp:77] Creating layer Eltwise13_penlu27_0_split
I0925 19:59:02.688376  3461 net.cpp:84] Creating Layer Eltwise13_penlu27_0_split
I0925 19:59:02.688379  3461 net.cpp:406] Eltwise13_penlu27_0_split <- Eltwise13
I0925 19:59:02.688382  3461 net.cpp:380] Eltwise13_penlu27_0_split -> Eltwise13_penlu27_0_split_0
I0925 19:59:02.688386  3461 net.cpp:380] Eltwise13_penlu27_0_split -> Eltwise13_penlu27_0_split_1
I0925 19:59:02.688410  3461 net.cpp:122] Setting up Eltwise13_penlu27_0_split
I0925 19:59:02.688413  3461 net.cpp:129] Top shape: 100 32 14 14 (627200)
I0925 19:59:02.688416  3461 net.cpp:129] Top shape: 100 32 14 14 (627200)
I0925 19:59:02.688418  3461 net.cpp:137] Memory required for data: 645702800
I0925 19:59:02.688421  3461 layer_factory.hpp:77] Creating layer Convolution29
I0925 19:59:02.688427  3461 net.cpp:84] Creating Layer Convolution29
I0925 19:59:02.688429  3461 net.cpp:406] Convolution29 <- Eltwise13_penlu27_0_split_0
I0925 19:59:02.688433  3461 net.cpp:380] Convolution29 -> Convolution29
I0925 19:59:02.689519  3461 net.cpp:122] Setting up Convolution29
I0925 19:59:02.689527  3461 net.cpp:129] Top shape: 100 32 14 14 (627200)
I0925 19:59:02.689530  3461 net.cpp:137] Memory required for data: 648211600
I0925 19:59:02.689534  3461 layer_factory.hpp:77] Creating layer BatchNorm29
I0925 19:59:02.689538  3461 net.cpp:84] Creating Layer BatchNorm29
I0925 19:59:02.689541  3461 net.cpp:406] BatchNorm29 <- Convolution29
I0925 19:59:02.689545  3461 net.cpp:367] BatchNorm29 -> Convolution29 (in-place)
I0925 19:59:02.689679  3461 net.cpp:122] Setting up BatchNorm29
I0925 19:59:02.689684  3461 net.cpp:129] Top shape: 100 32 14 14 (627200)
I0925 19:59:02.689687  3461 net.cpp:137] Memory required for data: 650720400
I0925 19:59:02.689690  3461 layer_factory.hpp:77] Creating layer Scale29
I0925 19:59:02.689694  3461 net.cpp:84] Creating Layer Scale29
I0925 19:59:02.689697  3461 net.cpp:406] Scale29 <- Convolution29
I0925 19:59:02.689702  3461 net.cpp:367] Scale29 -> Convolution29 (in-place)
I0925 19:59:02.689726  3461 layer_factory.hpp:77] Creating layer Scale29
I0925 19:59:02.689805  3461 net.cpp:122] Setting up Scale29
I0925 19:59:02.689810  3461 net.cpp:129] Top shape: 100 32 14 14 (627200)
I0925 19:59:02.689811  3461 net.cpp:137] Memory required for data: 653229200
I0925 19:59:02.689815  3461 layer_factory.hpp:77] Creating layer penlu28
I0925 19:59:02.689822  3461 net.cpp:84] Creating Layer penlu28
I0925 19:59:02.689824  3461 net.cpp:406] penlu28 <- Convolution29
I0925 19:59:02.689828  3461 net.cpp:367] penlu28 -> Convolution29 (in-place)
I0925 19:59:02.689935  3461 net.cpp:122] Setting up penlu28
I0925 19:59:02.689940  3461 net.cpp:129] Top shape: 100 32 14 14 (627200)
I0925 19:59:02.689944  3461 net.cpp:137] Memory required for data: 655738000
I0925 19:59:02.689947  3461 layer_factory.hpp:77] Creating layer Convolution30
I0925 19:59:02.689954  3461 net.cpp:84] Creating Layer Convolution30
I0925 19:59:02.689955  3461 net.cpp:406] Convolution30 <- Convolution29
I0925 19:59:02.689960  3461 net.cpp:380] Convolution30 -> Convolution30
I0925 19:59:02.691012  3461 net.cpp:122] Setting up Convolution30
I0925 19:59:02.691020  3461 net.cpp:129] Top shape: 100 32 14 14 (627200)
I0925 19:59:02.691023  3461 net.cpp:137] Memory required for data: 658246800
I0925 19:59:02.691027  3461 layer_factory.hpp:77] Creating layer BatchNorm30
I0925 19:59:02.691033  3461 net.cpp:84] Creating Layer BatchNorm30
I0925 19:59:02.691036  3461 net.cpp:406] BatchNorm30 <- Convolution30
I0925 19:59:02.691040  3461 net.cpp:367] BatchNorm30 -> Convolution30 (in-place)
I0925 19:59:02.691174  3461 net.cpp:122] Setting up BatchNorm30
I0925 19:59:02.691177  3461 net.cpp:129] Top shape: 100 32 14 14 (627200)
I0925 19:59:02.691180  3461 net.cpp:137] Memory required for data: 660755600
I0925 19:59:02.691184  3461 layer_factory.hpp:77] Creating layer Scale30
I0925 19:59:02.691189  3461 net.cpp:84] Creating Layer Scale30
I0925 19:59:02.691190  3461 net.cpp:406] Scale30 <- Convolution30
I0925 19:59:02.691193  3461 net.cpp:367] Scale30 -> Convolution30 (in-place)
I0925 19:59:02.691229  3461 layer_factory.hpp:77] Creating layer Scale30
I0925 19:59:02.691306  3461 net.cpp:122] Setting up Scale30
I0925 19:59:02.691313  3461 net.cpp:129] Top shape: 100 32 14 14 (627200)
I0925 19:59:02.691314  3461 net.cpp:137] Memory required for data: 663264400
I0925 19:59:02.691318  3461 layer_factory.hpp:77] Creating layer Eltwise14
I0925 19:59:02.691323  3461 net.cpp:84] Creating Layer Eltwise14
I0925 19:59:02.691324  3461 net.cpp:406] Eltwise14 <- Eltwise13_penlu27_0_split_1
I0925 19:59:02.691328  3461 net.cpp:406] Eltwise14 <- Convolution30
I0925 19:59:02.691330  3461 net.cpp:380] Eltwise14 -> Eltwise14
I0925 19:59:02.691346  3461 net.cpp:122] Setting up Eltwise14
I0925 19:59:02.691351  3461 net.cpp:129] Top shape: 100 32 14 14 (627200)
I0925 19:59:02.691354  3461 net.cpp:137] Memory required for data: 665773200
I0925 19:59:02.691355  3461 layer_factory.hpp:77] Creating layer penlu29
I0925 19:59:02.691360  3461 net.cpp:84] Creating Layer penlu29
I0925 19:59:02.691362  3461 net.cpp:406] penlu29 <- Eltwise14
I0925 19:59:02.691366  3461 net.cpp:367] penlu29 -> Eltwise14 (in-place)
I0925 19:59:02.691475  3461 net.cpp:122] Setting up penlu29
I0925 19:59:02.691480  3461 net.cpp:129] Top shape: 100 32 14 14 (627200)
I0925 19:59:02.691483  3461 net.cpp:137] Memory required for data: 668282000
I0925 19:59:02.691486  3461 layer_factory.hpp:77] Creating layer Eltwise14_penlu29_0_split
I0925 19:59:02.691490  3461 net.cpp:84] Creating Layer Eltwise14_penlu29_0_split
I0925 19:59:02.691493  3461 net.cpp:406] Eltwise14_penlu29_0_split <- Eltwise14
I0925 19:59:02.691496  3461 net.cpp:380] Eltwise14_penlu29_0_split -> Eltwise14_penlu29_0_split_0
I0925 19:59:02.691500  3461 net.cpp:380] Eltwise14_penlu29_0_split -> Eltwise14_penlu29_0_split_1
I0925 19:59:02.691524  3461 net.cpp:122] Setting up Eltwise14_penlu29_0_split
I0925 19:59:02.691527  3461 net.cpp:129] Top shape: 100 32 14 14 (627200)
I0925 19:59:02.691530  3461 net.cpp:129] Top shape: 100 32 14 14 (627200)
I0925 19:59:02.691532  3461 net.cpp:137] Memory required for data: 673299600
I0925 19:59:02.691534  3461 layer_factory.hpp:77] Creating layer Convolution31
I0925 19:59:02.691540  3461 net.cpp:84] Creating Layer Convolution31
I0925 19:59:02.691542  3461 net.cpp:406] Convolution31 <- Eltwise14_penlu29_0_split_0
I0925 19:59:02.691547  3461 net.cpp:380] Convolution31 -> Convolution31
I0925 19:59:02.692618  3461 net.cpp:122] Setting up Convolution31
I0925 19:59:02.692627  3461 net.cpp:129] Top shape: 100 32 14 14 (627200)
I0925 19:59:02.692631  3461 net.cpp:137] Memory required for data: 675808400
I0925 19:59:02.692634  3461 layer_factory.hpp:77] Creating layer BatchNorm31
I0925 19:59:02.692639  3461 net.cpp:84] Creating Layer BatchNorm31
I0925 19:59:02.692642  3461 net.cpp:406] BatchNorm31 <- Convolution31
I0925 19:59:02.692646  3461 net.cpp:367] BatchNorm31 -> Convolution31 (in-place)
I0925 19:59:02.692783  3461 net.cpp:122] Setting up BatchNorm31
I0925 19:59:02.692788  3461 net.cpp:129] Top shape: 100 32 14 14 (627200)
I0925 19:59:02.692790  3461 net.cpp:137] Memory required for data: 678317200
I0925 19:59:02.692795  3461 layer_factory.hpp:77] Creating layer Scale31
I0925 19:59:02.692798  3461 net.cpp:84] Creating Layer Scale31
I0925 19:59:02.692801  3461 net.cpp:406] Scale31 <- Convolution31
I0925 19:59:02.692804  3461 net.cpp:367] Scale31 -> Convolution31 (in-place)
I0925 19:59:02.692832  3461 layer_factory.hpp:77] Creating layer Scale31
I0925 19:59:02.692909  3461 net.cpp:122] Setting up Scale31
I0925 19:59:02.692914  3461 net.cpp:129] Top shape: 100 32 14 14 (627200)
I0925 19:59:02.692916  3461 net.cpp:137] Memory required for data: 680826000
I0925 19:59:02.692920  3461 layer_factory.hpp:77] Creating layer penlu30
I0925 19:59:02.692924  3461 net.cpp:84] Creating Layer penlu30
I0925 19:59:02.692926  3461 net.cpp:406] penlu30 <- Convolution31
I0925 19:59:02.692931  3461 net.cpp:367] penlu30 -> Convolution31 (in-place)
I0925 19:59:02.693039  3461 net.cpp:122] Setting up penlu30
I0925 19:59:02.693044  3461 net.cpp:129] Top shape: 100 32 14 14 (627200)
I0925 19:59:02.693053  3461 net.cpp:137] Memory required for data: 683334800
I0925 19:59:02.693058  3461 layer_factory.hpp:77] Creating layer Convolution32
I0925 19:59:02.693065  3461 net.cpp:84] Creating Layer Convolution32
I0925 19:59:02.693068  3461 net.cpp:406] Convolution32 <- Convolution31
I0925 19:59:02.693073  3461 net.cpp:380] Convolution32 -> Convolution32
I0925 19:59:02.694133  3461 net.cpp:122] Setting up Convolution32
I0925 19:59:02.694141  3461 net.cpp:129] Top shape: 100 32 14 14 (627200)
I0925 19:59:02.694144  3461 net.cpp:137] Memory required for data: 685843600
I0925 19:59:02.694149  3461 layer_factory.hpp:77] Creating layer BatchNorm32
I0925 19:59:02.694154  3461 net.cpp:84] Creating Layer BatchNorm32
I0925 19:59:02.694157  3461 net.cpp:406] BatchNorm32 <- Convolution32
I0925 19:59:02.694161  3461 net.cpp:367] BatchNorm32 -> Convolution32 (in-place)
I0925 19:59:02.694295  3461 net.cpp:122] Setting up BatchNorm32
I0925 19:59:02.694300  3461 net.cpp:129] Top shape: 100 32 14 14 (627200)
I0925 19:59:02.694303  3461 net.cpp:137] Memory required for data: 688352400
I0925 19:59:02.694308  3461 layer_factory.hpp:77] Creating layer Scale32
I0925 19:59:02.694311  3461 net.cpp:84] Creating Layer Scale32
I0925 19:59:02.694314  3461 net.cpp:406] Scale32 <- Convolution32
I0925 19:59:02.694316  3461 net.cpp:367] Scale32 -> Convolution32 (in-place)
I0925 19:59:02.694344  3461 layer_factory.hpp:77] Creating layer Scale32
I0925 19:59:02.694423  3461 net.cpp:122] Setting up Scale32
I0925 19:59:02.694427  3461 net.cpp:129] Top shape: 100 32 14 14 (627200)
I0925 19:59:02.694429  3461 net.cpp:137] Memory required for data: 690861200
I0925 19:59:02.694433  3461 layer_factory.hpp:77] Creating layer Eltwise15
I0925 19:59:02.694438  3461 net.cpp:84] Creating Layer Eltwise15
I0925 19:59:02.694442  3461 net.cpp:406] Eltwise15 <- Eltwise14_penlu29_0_split_1
I0925 19:59:02.694443  3461 net.cpp:406] Eltwise15 <- Convolution32
I0925 19:59:02.694447  3461 net.cpp:380] Eltwise15 -> Eltwise15
I0925 19:59:02.694464  3461 net.cpp:122] Setting up Eltwise15
I0925 19:59:02.694468  3461 net.cpp:129] Top shape: 100 32 14 14 (627200)
I0925 19:59:02.694470  3461 net.cpp:137] Memory required for data: 693370000
I0925 19:59:02.694473  3461 layer_factory.hpp:77] Creating layer penlu31
I0925 19:59:02.694478  3461 net.cpp:84] Creating Layer penlu31
I0925 19:59:02.694480  3461 net.cpp:406] penlu31 <- Eltwise15
I0925 19:59:02.694483  3461 net.cpp:367] penlu31 -> Eltwise15 (in-place)
I0925 19:59:02.694591  3461 net.cpp:122] Setting up penlu31
I0925 19:59:02.694595  3461 net.cpp:129] Top shape: 100 32 14 14 (627200)
I0925 19:59:02.694597  3461 net.cpp:137] Memory required for data: 695878800
I0925 19:59:02.694602  3461 layer_factory.hpp:77] Creating layer Eltwise15_penlu31_0_split
I0925 19:59:02.694607  3461 net.cpp:84] Creating Layer Eltwise15_penlu31_0_split
I0925 19:59:02.694608  3461 net.cpp:406] Eltwise15_penlu31_0_split <- Eltwise15
I0925 19:59:02.694612  3461 net.cpp:380] Eltwise15_penlu31_0_split -> Eltwise15_penlu31_0_split_0
I0925 19:59:02.694615  3461 net.cpp:380] Eltwise15_penlu31_0_split -> Eltwise15_penlu31_0_split_1
I0925 19:59:02.694639  3461 net.cpp:122] Setting up Eltwise15_penlu31_0_split
I0925 19:59:02.694643  3461 net.cpp:129] Top shape: 100 32 14 14 (627200)
I0925 19:59:02.694646  3461 net.cpp:129] Top shape: 100 32 14 14 (627200)
I0925 19:59:02.694648  3461 net.cpp:137] Memory required for data: 700896400
I0925 19:59:02.694650  3461 layer_factory.hpp:77] Creating layer Convolution33
I0925 19:59:02.694655  3461 net.cpp:84] Creating Layer Convolution33
I0925 19:59:02.694658  3461 net.cpp:406] Convolution33 <- Eltwise15_penlu31_0_split_0
I0925 19:59:02.694663  3461 net.cpp:380] Convolution33 -> Convolution33
I0925 19:59:02.696032  3461 net.cpp:122] Setting up Convolution33
I0925 19:59:02.696039  3461 net.cpp:129] Top shape: 100 32 14 14 (627200)
I0925 19:59:02.696043  3461 net.cpp:137] Memory required for data: 703405200
I0925 19:59:02.696048  3461 layer_factory.hpp:77] Creating layer BatchNorm33
I0925 19:59:02.696053  3461 net.cpp:84] Creating Layer BatchNorm33
I0925 19:59:02.696061  3461 net.cpp:406] BatchNorm33 <- Convolution33
I0925 19:59:02.696065  3461 net.cpp:367] BatchNorm33 -> Convolution33 (in-place)
I0925 19:59:02.696207  3461 net.cpp:122] Setting up BatchNorm33
I0925 19:59:02.696211  3461 net.cpp:129] Top shape: 100 32 14 14 (627200)
I0925 19:59:02.696213  3461 net.cpp:137] Memory required for data: 705914000
I0925 19:59:02.696218  3461 layer_factory.hpp:77] Creating layer Scale33
I0925 19:59:02.696221  3461 net.cpp:84] Creating Layer Scale33
I0925 19:59:02.696224  3461 net.cpp:406] Scale33 <- Convolution33
I0925 19:59:02.696228  3461 net.cpp:367] Scale33 -> Convolution33 (in-place)
I0925 19:59:02.696255  3461 layer_factory.hpp:77] Creating layer Scale33
I0925 19:59:02.696334  3461 net.cpp:122] Setting up Scale33
I0925 19:59:02.696339  3461 net.cpp:129] Top shape: 100 32 14 14 (627200)
I0925 19:59:02.696341  3461 net.cpp:137] Memory required for data: 708422800
I0925 19:59:02.696346  3461 layer_factory.hpp:77] Creating layer penlu32
I0925 19:59:02.696350  3461 net.cpp:84] Creating Layer penlu32
I0925 19:59:02.696352  3461 net.cpp:406] penlu32 <- Convolution33
I0925 19:59:02.696357  3461 net.cpp:367] penlu32 -> Convolution33 (in-place)
I0925 19:59:02.696463  3461 net.cpp:122] Setting up penlu32
I0925 19:59:02.696468  3461 net.cpp:129] Top shape: 100 32 14 14 (627200)
I0925 19:59:02.696470  3461 net.cpp:137] Memory required for data: 710931600
I0925 19:59:02.696475  3461 layer_factory.hpp:77] Creating layer Convolution34
I0925 19:59:02.696481  3461 net.cpp:84] Creating Layer Convolution34
I0925 19:59:02.696483  3461 net.cpp:406] Convolution34 <- Convolution33
I0925 19:59:02.696487  3461 net.cpp:380] Convolution34 -> Convolution34
I0925 19:59:02.697566  3461 net.cpp:122] Setting up Convolution34
I0925 19:59:02.697574  3461 net.cpp:129] Top shape: 100 32 14 14 (627200)
I0925 19:59:02.697577  3461 net.cpp:137] Memory required for data: 713440400
I0925 19:59:02.697582  3461 layer_factory.hpp:77] Creating layer BatchNorm34
I0925 19:59:02.697587  3461 net.cpp:84] Creating Layer BatchNorm34
I0925 19:59:02.697588  3461 net.cpp:406] BatchNorm34 <- Convolution34
I0925 19:59:02.697593  3461 net.cpp:367] BatchNorm34 -> Convolution34 (in-place)
I0925 19:59:02.697729  3461 net.cpp:122] Setting up BatchNorm34
I0925 19:59:02.697734  3461 net.cpp:129] Top shape: 100 32 14 14 (627200)
I0925 19:59:02.697736  3461 net.cpp:137] Memory required for data: 715949200
I0925 19:59:02.697741  3461 layer_factory.hpp:77] Creating layer Scale34
I0925 19:59:02.697744  3461 net.cpp:84] Creating Layer Scale34
I0925 19:59:02.697747  3461 net.cpp:406] Scale34 <- Convolution34
I0925 19:59:02.697751  3461 net.cpp:367] Scale34 -> Convolution34 (in-place)
I0925 19:59:02.697777  3461 layer_factory.hpp:77] Creating layer Scale34
I0925 19:59:02.697854  3461 net.cpp:122] Setting up Scale34
I0925 19:59:02.697859  3461 net.cpp:129] Top shape: 100 32 14 14 (627200)
I0925 19:59:02.697861  3461 net.cpp:137] Memory required for data: 718458000
I0925 19:59:02.697865  3461 layer_factory.hpp:77] Creating layer Eltwise16
I0925 19:59:02.697868  3461 net.cpp:84] Creating Layer Eltwise16
I0925 19:59:02.697871  3461 net.cpp:406] Eltwise16 <- Eltwise15_penlu31_0_split_1
I0925 19:59:02.697875  3461 net.cpp:406] Eltwise16 <- Convolution34
I0925 19:59:02.697878  3461 net.cpp:380] Eltwise16 -> Eltwise16
I0925 19:59:02.697896  3461 net.cpp:122] Setting up Eltwise16
I0925 19:59:02.697899  3461 net.cpp:129] Top shape: 100 32 14 14 (627200)
I0925 19:59:02.697901  3461 net.cpp:137] Memory required for data: 720966800
I0925 19:59:02.697903  3461 layer_factory.hpp:77] Creating layer penlu33
I0925 19:59:02.697907  3461 net.cpp:84] Creating Layer penlu33
I0925 19:59:02.697911  3461 net.cpp:406] penlu33 <- Eltwise16
I0925 19:59:02.697914  3461 net.cpp:367] penlu33 -> Eltwise16 (in-place)
I0925 19:59:02.698020  3461 net.cpp:122] Setting up penlu33
I0925 19:59:02.698025  3461 net.cpp:129] Top shape: 100 32 14 14 (627200)
I0925 19:59:02.698027  3461 net.cpp:137] Memory required for data: 723475600
I0925 19:59:02.698038  3461 layer_factory.hpp:77] Creating layer Eltwise16_penlu33_0_split
I0925 19:59:02.698042  3461 net.cpp:84] Creating Layer Eltwise16_penlu33_0_split
I0925 19:59:02.698045  3461 net.cpp:406] Eltwise16_penlu33_0_split <- Eltwise16
I0925 19:59:02.698048  3461 net.cpp:380] Eltwise16_penlu33_0_split -> Eltwise16_penlu33_0_split_0
I0925 19:59:02.698052  3461 net.cpp:380] Eltwise16_penlu33_0_split -> Eltwise16_penlu33_0_split_1
I0925 19:59:02.698076  3461 net.cpp:122] Setting up Eltwise16_penlu33_0_split
I0925 19:59:02.698081  3461 net.cpp:129] Top shape: 100 32 14 14 (627200)
I0925 19:59:02.698083  3461 net.cpp:129] Top shape: 100 32 14 14 (627200)
I0925 19:59:02.698086  3461 net.cpp:137] Memory required for data: 728493200
I0925 19:59:02.698087  3461 layer_factory.hpp:77] Creating layer Convolution35
I0925 19:59:02.698093  3461 net.cpp:84] Creating Layer Convolution35
I0925 19:59:02.698096  3461 net.cpp:406] Convolution35 <- Eltwise16_penlu33_0_split_0
I0925 19:59:02.698099  3461 net.cpp:380] Convolution35 -> Convolution35
I0925 19:59:02.699169  3461 net.cpp:122] Setting up Convolution35
I0925 19:59:02.699177  3461 net.cpp:129] Top shape: 100 32 14 14 (627200)
I0925 19:59:02.699180  3461 net.cpp:137] Memory required for data: 731002000
I0925 19:59:02.699184  3461 layer_factory.hpp:77] Creating layer BatchNorm35
I0925 19:59:02.699188  3461 net.cpp:84] Creating Layer BatchNorm35
I0925 19:59:02.699192  3461 net.cpp:406] BatchNorm35 <- Convolution35
I0925 19:59:02.699196  3461 net.cpp:367] BatchNorm35 -> Convolution35 (in-place)
I0925 19:59:02.699333  3461 net.cpp:122] Setting up BatchNorm35
I0925 19:59:02.699337  3461 net.cpp:129] Top shape: 100 32 14 14 (627200)
I0925 19:59:02.699340  3461 net.cpp:137] Memory required for data: 733510800
I0925 19:59:02.699344  3461 layer_factory.hpp:77] Creating layer Scale35
I0925 19:59:02.699348  3461 net.cpp:84] Creating Layer Scale35
I0925 19:59:02.699352  3461 net.cpp:406] Scale35 <- Convolution35
I0925 19:59:02.699355  3461 net.cpp:367] Scale35 -> Convolution35 (in-place)
I0925 19:59:02.699381  3461 layer_factory.hpp:77] Creating layer Scale35
I0925 19:59:02.699460  3461 net.cpp:122] Setting up Scale35
I0925 19:59:02.699465  3461 net.cpp:129] Top shape: 100 32 14 14 (627200)
I0925 19:59:02.699467  3461 net.cpp:137] Memory required for data: 736019600
I0925 19:59:02.699471  3461 layer_factory.hpp:77] Creating layer penlu34
I0925 19:59:02.699476  3461 net.cpp:84] Creating Layer penlu34
I0925 19:59:02.699479  3461 net.cpp:406] penlu34 <- Convolution35
I0925 19:59:02.699483  3461 net.cpp:367] penlu34 -> Convolution35 (in-place)
I0925 19:59:02.699590  3461 net.cpp:122] Setting up penlu34
I0925 19:59:02.699595  3461 net.cpp:129] Top shape: 100 32 14 14 (627200)
I0925 19:59:02.699597  3461 net.cpp:137] Memory required for data: 738528400
I0925 19:59:02.699601  3461 layer_factory.hpp:77] Creating layer Convolution36
I0925 19:59:02.699607  3461 net.cpp:84] Creating Layer Convolution36
I0925 19:59:02.699610  3461 net.cpp:406] Convolution36 <- Convolution35
I0925 19:59:02.699615  3461 net.cpp:380] Convolution36 -> Convolution36
I0925 19:59:02.700687  3461 net.cpp:122] Setting up Convolution36
I0925 19:59:02.700696  3461 net.cpp:129] Top shape: 100 32 14 14 (627200)
I0925 19:59:02.700698  3461 net.cpp:137] Memory required for data: 741037200
I0925 19:59:02.700702  3461 layer_factory.hpp:77] Creating layer BatchNorm36
I0925 19:59:02.700708  3461 net.cpp:84] Creating Layer BatchNorm36
I0925 19:59:02.700711  3461 net.cpp:406] BatchNorm36 <- Convolution36
I0925 19:59:02.700714  3461 net.cpp:367] BatchNorm36 -> Convolution36 (in-place)
I0925 19:59:02.700850  3461 net.cpp:122] Setting up BatchNorm36
I0925 19:59:02.700855  3461 net.cpp:129] Top shape: 100 32 14 14 (627200)
I0925 19:59:02.700856  3461 net.cpp:137] Memory required for data: 743546000
I0925 19:59:02.700861  3461 layer_factory.hpp:77] Creating layer Scale36
I0925 19:59:02.700865  3461 net.cpp:84] Creating Layer Scale36
I0925 19:59:02.700867  3461 net.cpp:406] Scale36 <- Convolution36
I0925 19:59:02.700870  3461 net.cpp:367] Scale36 -> Convolution36 (in-place)
I0925 19:59:02.700906  3461 layer_factory.hpp:77] Creating layer Scale36
I0925 19:59:02.700984  3461 net.cpp:122] Setting up Scale36
I0925 19:59:02.700989  3461 net.cpp:129] Top shape: 100 32 14 14 (627200)
I0925 19:59:02.700991  3461 net.cpp:137] Memory required for data: 746054800
I0925 19:59:02.700995  3461 layer_factory.hpp:77] Creating layer Eltwise17
I0925 19:59:02.700999  3461 net.cpp:84] Creating Layer Eltwise17
I0925 19:59:02.701002  3461 net.cpp:406] Eltwise17 <- Eltwise16_penlu33_0_split_1
I0925 19:59:02.701004  3461 net.cpp:406] Eltwise17 <- Convolution36
I0925 19:59:02.701009  3461 net.cpp:380] Eltwise17 -> Eltwise17
I0925 19:59:02.701025  3461 net.cpp:122] Setting up Eltwise17
I0925 19:59:02.701028  3461 net.cpp:129] Top shape: 100 32 14 14 (627200)
I0925 19:59:02.701030  3461 net.cpp:137] Memory required for data: 748563600
I0925 19:59:02.701032  3461 layer_factory.hpp:77] Creating layer penlu35
I0925 19:59:02.701038  3461 net.cpp:84] Creating Layer penlu35
I0925 19:59:02.701040  3461 net.cpp:406] penlu35 <- Eltwise17
I0925 19:59:02.701045  3461 net.cpp:367] penlu35 -> Eltwise17 (in-place)
I0925 19:59:02.701154  3461 net.cpp:122] Setting up penlu35
I0925 19:59:02.701159  3461 net.cpp:129] Top shape: 100 32 14 14 (627200)
I0925 19:59:02.701161  3461 net.cpp:137] Memory required for data: 751072400
I0925 19:59:02.701165  3461 layer_factory.hpp:77] Creating layer Eltwise17_penlu35_0_split
I0925 19:59:02.701170  3461 net.cpp:84] Creating Layer Eltwise17_penlu35_0_split
I0925 19:59:02.701172  3461 net.cpp:406] Eltwise17_penlu35_0_split <- Eltwise17
I0925 19:59:02.701175  3461 net.cpp:380] Eltwise17_penlu35_0_split -> Eltwise17_penlu35_0_split_0
I0925 19:59:02.701179  3461 net.cpp:380] Eltwise17_penlu35_0_split -> Eltwise17_penlu35_0_split_1
I0925 19:59:02.701203  3461 net.cpp:122] Setting up Eltwise17_penlu35_0_split
I0925 19:59:02.701206  3461 net.cpp:129] Top shape: 100 32 14 14 (627200)
I0925 19:59:02.701210  3461 net.cpp:129] Top shape: 100 32 14 14 (627200)
I0925 19:59:02.701211  3461 net.cpp:137] Memory required for data: 756090000
I0925 19:59:02.701213  3461 layer_factory.hpp:77] Creating layer Convolution37
I0925 19:59:02.701220  3461 net.cpp:84] Creating Layer Convolution37
I0925 19:59:02.701221  3461 net.cpp:406] Convolution37 <- Eltwise17_penlu35_0_split_0
I0925 19:59:02.701226  3461 net.cpp:380] Convolution37 -> Convolution37
I0925 19:59:02.701972  3461 net.cpp:122] Setting up Convolution37
I0925 19:59:02.701978  3461 net.cpp:129] Top shape: 100 32 14 14 (627200)
I0925 19:59:02.701982  3461 net.cpp:137] Memory required for data: 758598800
I0925 19:59:02.701985  3461 layer_factory.hpp:77] Creating layer BatchNorm37
I0925 19:59:02.701990  3461 net.cpp:84] Creating Layer BatchNorm37
I0925 19:59:02.701992  3461 net.cpp:406] BatchNorm37 <- Convolution37
I0925 19:59:02.701997  3461 net.cpp:367] BatchNorm37 -> Convolution37 (in-place)
I0925 19:59:02.702134  3461 net.cpp:122] Setting up BatchNorm37
I0925 19:59:02.702139  3461 net.cpp:129] Top shape: 100 32 14 14 (627200)
I0925 19:59:02.702142  3461 net.cpp:137] Memory required for data: 761107600
I0925 19:59:02.702145  3461 layer_factory.hpp:77] Creating layer Scale37
I0925 19:59:02.702150  3461 net.cpp:84] Creating Layer Scale37
I0925 19:59:02.702152  3461 net.cpp:406] Scale37 <- Convolution37
I0925 19:59:02.702155  3461 net.cpp:367] Scale37 -> Convolution37 (in-place)
I0925 19:59:02.702183  3461 layer_factory.hpp:77] Creating layer Scale37
I0925 19:59:02.702260  3461 net.cpp:122] Setting up Scale37
I0925 19:59:02.702265  3461 net.cpp:129] Top shape: 100 32 14 14 (627200)
I0925 19:59:02.702266  3461 net.cpp:137] Memory required for data: 763616400
I0925 19:59:02.702270  3461 layer_factory.hpp:77] Creating layer penlu36
I0925 19:59:02.702275  3461 net.cpp:84] Creating Layer penlu36
I0925 19:59:02.702277  3461 net.cpp:406] penlu36 <- Convolution37
I0925 19:59:02.702281  3461 net.cpp:367] penlu36 -> Convolution37 (in-place)
I0925 19:59:02.702389  3461 net.cpp:122] Setting up penlu36
I0925 19:59:02.702394  3461 net.cpp:129] Top shape: 100 32 14 14 (627200)
I0925 19:59:02.702400  3461 net.cpp:137] Memory required for data: 766125200
I0925 19:59:02.702405  3461 layer_factory.hpp:77] Creating layer Convolution38
I0925 19:59:02.702412  3461 net.cpp:84] Creating Layer Convolution38
I0925 19:59:02.702414  3461 net.cpp:406] Convolution38 <- Convolution37
I0925 19:59:02.702419  3461 net.cpp:380] Convolution38 -> Convolution38
I0925 19:59:02.703495  3461 net.cpp:122] Setting up Convolution38
I0925 19:59:02.703505  3461 net.cpp:129] Top shape: 100 32 14 14 (627200)
I0925 19:59:02.703506  3461 net.cpp:137] Memory required for data: 768634000
I0925 19:59:02.703511  3461 layer_factory.hpp:77] Creating layer BatchNorm38
I0925 19:59:02.703516  3461 net.cpp:84] Creating Layer BatchNorm38
I0925 19:59:02.703518  3461 net.cpp:406] BatchNorm38 <- Convolution38
I0925 19:59:02.703522  3461 net.cpp:367] BatchNorm38 -> Convolution38 (in-place)
I0925 19:59:02.703662  3461 net.cpp:122] Setting up BatchNorm38
I0925 19:59:02.703667  3461 net.cpp:129] Top shape: 100 32 14 14 (627200)
I0925 19:59:02.703670  3461 net.cpp:137] Memory required for data: 771142800
I0925 19:59:02.703675  3461 layer_factory.hpp:77] Creating layer Scale38
I0925 19:59:02.703678  3461 net.cpp:84] Creating Layer Scale38
I0925 19:59:02.703680  3461 net.cpp:406] Scale38 <- Convolution38
I0925 19:59:02.703685  3461 net.cpp:367] Scale38 -> Convolution38 (in-place)
I0925 19:59:02.703712  3461 layer_factory.hpp:77] Creating layer Scale38
I0925 19:59:02.703790  3461 net.cpp:122] Setting up Scale38
I0925 19:59:02.703795  3461 net.cpp:129] Top shape: 100 32 14 14 (627200)
I0925 19:59:02.703797  3461 net.cpp:137] Memory required for data: 773651600
I0925 19:59:02.703801  3461 layer_factory.hpp:77] Creating layer Eltwise18
I0925 19:59:02.703804  3461 net.cpp:84] Creating Layer Eltwise18
I0925 19:59:02.703807  3461 net.cpp:406] Eltwise18 <- Eltwise17_penlu35_0_split_1
I0925 19:59:02.703810  3461 net.cpp:406] Eltwise18 <- Convolution38
I0925 19:59:02.703814  3461 net.cpp:380] Eltwise18 -> Eltwise18
I0925 19:59:02.703830  3461 net.cpp:122] Setting up Eltwise18
I0925 19:59:02.703835  3461 net.cpp:129] Top shape: 100 32 14 14 (627200)
I0925 19:59:02.703837  3461 net.cpp:137] Memory required for data: 776160400
I0925 19:59:02.703840  3461 layer_factory.hpp:77] Creating layer penlu37
I0925 19:59:02.703843  3461 net.cpp:84] Creating Layer penlu37
I0925 19:59:02.703845  3461 net.cpp:406] penlu37 <- Eltwise18
I0925 19:59:02.703850  3461 net.cpp:367] penlu37 -> Eltwise18 (in-place)
I0925 19:59:02.703960  3461 net.cpp:122] Setting up penlu37
I0925 19:59:02.703965  3461 net.cpp:129] Top shape: 100 32 14 14 (627200)
I0925 19:59:02.703968  3461 net.cpp:137] Memory required for data: 778669200
I0925 19:59:02.703971  3461 layer_factory.hpp:77] Creating layer Eltwise18_penlu37_0_split
I0925 19:59:02.703974  3461 net.cpp:84] Creating Layer Eltwise18_penlu37_0_split
I0925 19:59:02.703976  3461 net.cpp:406] Eltwise18_penlu37_0_split <- Eltwise18
I0925 19:59:02.703980  3461 net.cpp:380] Eltwise18_penlu37_0_split -> Eltwise18_penlu37_0_split_0
I0925 19:59:02.703984  3461 net.cpp:380] Eltwise18_penlu37_0_split -> Eltwise18_penlu37_0_split_1
I0925 19:59:02.704008  3461 net.cpp:122] Setting up Eltwise18_penlu37_0_split
I0925 19:59:02.704012  3461 net.cpp:129] Top shape: 100 32 14 14 (627200)
I0925 19:59:02.704015  3461 net.cpp:129] Top shape: 100 32 14 14 (627200)
I0925 19:59:02.704017  3461 net.cpp:137] Memory required for data: 783686800
I0925 19:59:02.704020  3461 layer_factory.hpp:77] Creating layer Convolution39
I0925 19:59:02.704025  3461 net.cpp:84] Creating Layer Convolution39
I0925 19:59:02.704028  3461 net.cpp:406] Convolution39 <- Eltwise18_penlu37_0_split_0
I0925 19:59:02.704032  3461 net.cpp:380] Convolution39 -> Convolution39
I0925 19:59:02.704927  3461 net.cpp:122] Setting up Convolution39
I0925 19:59:02.704936  3461 net.cpp:129] Top shape: 100 64 7 7 (313600)
I0925 19:59:02.704939  3461 net.cpp:137] Memory required for data: 784941200
I0925 19:59:02.704943  3461 layer_factory.hpp:77] Creating layer BatchNorm39
I0925 19:59:02.704954  3461 net.cpp:84] Creating Layer BatchNorm39
I0925 19:59:02.704957  3461 net.cpp:406] BatchNorm39 <- Convolution39
I0925 19:59:02.704962  3461 net.cpp:367] BatchNorm39 -> Convolution39 (in-place)
I0925 19:59:02.705108  3461 net.cpp:122] Setting up BatchNorm39
I0925 19:59:02.705122  3461 net.cpp:129] Top shape: 100 64 7 7 (313600)
I0925 19:59:02.705124  3461 net.cpp:137] Memory required for data: 786195600
I0925 19:59:02.705139  3461 layer_factory.hpp:77] Creating layer Scale39
I0925 19:59:02.705143  3461 net.cpp:84] Creating Layer Scale39
I0925 19:59:02.705145  3461 net.cpp:406] Scale39 <- Convolution39
I0925 19:59:02.705158  3461 net.cpp:367] Scale39 -> Convolution39 (in-place)
I0925 19:59:02.705206  3461 layer_factory.hpp:77] Creating layer Scale39
I0925 19:59:02.705338  3461 net.cpp:122] Setting up Scale39
I0925 19:59:02.705341  3461 net.cpp:129] Top shape: 100 64 7 7 (313600)
I0925 19:59:02.705353  3461 net.cpp:137] Memory required for data: 787450000
I0925 19:59:02.705356  3461 layer_factory.hpp:77] Creating layer Convolution40
I0925 19:59:02.705363  3461 net.cpp:84] Creating Layer Convolution40
I0925 19:59:02.705365  3461 net.cpp:406] Convolution40 <- Eltwise18_penlu37_0_split_1
I0925 19:59:02.705370  3461 net.cpp:380] Convolution40 -> Convolution40
I0925 19:59:02.707751  3461 net.cpp:122] Setting up Convolution40
I0925 19:59:02.707762  3461 net.cpp:129] Top shape: 100 64 7 7 (313600)
I0925 19:59:02.707764  3461 net.cpp:137] Memory required for data: 788704400
I0925 19:59:02.707769  3461 layer_factory.hpp:77] Creating layer BatchNorm40
I0925 19:59:02.707775  3461 net.cpp:84] Creating Layer BatchNorm40
I0925 19:59:02.707778  3461 net.cpp:406] BatchNorm40 <- Convolution40
I0925 19:59:02.707782  3461 net.cpp:367] BatchNorm40 -> Convolution40 (in-place)
I0925 19:59:02.707922  3461 net.cpp:122] Setting up BatchNorm40
I0925 19:59:02.707926  3461 net.cpp:129] Top shape: 100 64 7 7 (313600)
I0925 19:59:02.707929  3461 net.cpp:137] Memory required for data: 789958800
I0925 19:59:02.707933  3461 layer_factory.hpp:77] Creating layer Scale40
I0925 19:59:02.707937  3461 net.cpp:84] Creating Layer Scale40
I0925 19:59:02.707940  3461 net.cpp:406] Scale40 <- Convolution40
I0925 19:59:02.707944  3461 net.cpp:367] Scale40 -> Convolution40 (in-place)
I0925 19:59:02.707972  3461 layer_factory.hpp:77] Creating layer Scale40
I0925 19:59:02.708051  3461 net.cpp:122] Setting up Scale40
I0925 19:59:02.708056  3461 net.cpp:129] Top shape: 100 64 7 7 (313600)
I0925 19:59:02.708058  3461 net.cpp:137] Memory required for data: 791213200
I0925 19:59:02.708062  3461 layer_factory.hpp:77] Creating layer penlu38
I0925 19:59:02.708068  3461 net.cpp:84] Creating Layer penlu38
I0925 19:59:02.708071  3461 net.cpp:406] penlu38 <- Convolution40
I0925 19:59:02.708076  3461 net.cpp:367] penlu38 -> Convolution40 (in-place)
I0925 19:59:02.708184  3461 net.cpp:122] Setting up penlu38
I0925 19:59:02.708189  3461 net.cpp:129] Top shape: 100 64 7 7 (313600)
I0925 19:59:02.708190  3461 net.cpp:137] Memory required for data: 792467600
I0925 19:59:02.708195  3461 layer_factory.hpp:77] Creating layer Convolution41
I0925 19:59:02.708201  3461 net.cpp:84] Creating Layer Convolution41
I0925 19:59:02.708204  3461 net.cpp:406] Convolution41 <- Convolution40
I0925 19:59:02.708209  3461 net.cpp:380] Convolution41 -> Convolution41
I0925 19:59:02.710427  3461 net.cpp:122] Setting up Convolution41
I0925 19:59:02.710436  3461 net.cpp:129] Top shape: 100 64 7 7 (313600)
I0925 19:59:02.710439  3461 net.cpp:137] Memory required for data: 793722000
I0925 19:59:02.710443  3461 layer_factory.hpp:77] Creating layer BatchNorm41
I0925 19:59:02.710449  3461 net.cpp:84] Creating Layer BatchNorm41
I0925 19:59:02.710453  3461 net.cpp:406] BatchNorm41 <- Convolution41
I0925 19:59:02.710456  3461 net.cpp:367] BatchNorm41 -> Convolution41 (in-place)
I0925 19:59:02.710597  3461 net.cpp:122] Setting up BatchNorm41
I0925 19:59:02.710602  3461 net.cpp:129] Top shape: 100 64 7 7 (313600)
I0925 19:59:02.710604  3461 net.cpp:137] Memory required for data: 794976400
I0925 19:59:02.710608  3461 layer_factory.hpp:77] Creating layer Scale41
I0925 19:59:02.710621  3461 net.cpp:84] Creating Layer Scale41
I0925 19:59:02.710624  3461 net.cpp:406] Scale41 <- Convolution41
I0925 19:59:02.710628  3461 net.cpp:367] Scale41 -> Convolution41 (in-place)
I0925 19:59:02.710657  3461 layer_factory.hpp:77] Creating layer Scale41
I0925 19:59:02.710739  3461 net.cpp:122] Setting up Scale41
I0925 19:59:02.710744  3461 net.cpp:129] Top shape: 100 64 7 7 (313600)
I0925 19:59:02.710747  3461 net.cpp:137] Memory required for data: 796230800
I0925 19:59:02.710750  3461 layer_factory.hpp:77] Creating layer Eltwise19
I0925 19:59:02.710754  3461 net.cpp:84] Creating Layer Eltwise19
I0925 19:59:02.710757  3461 net.cpp:406] Eltwise19 <- Convolution39
I0925 19:59:02.710760  3461 net.cpp:406] Eltwise19 <- Convolution41
I0925 19:59:02.710765  3461 net.cpp:380] Eltwise19 -> Eltwise19
I0925 19:59:02.710783  3461 net.cpp:122] Setting up Eltwise19
I0925 19:59:02.710786  3461 net.cpp:129] Top shape: 100 64 7 7 (313600)
I0925 19:59:02.710788  3461 net.cpp:137] Memory required for data: 797485200
I0925 19:59:02.710790  3461 layer_factory.hpp:77] Creating layer penlu39
I0925 19:59:02.710796  3461 net.cpp:84] Creating Layer penlu39
I0925 19:59:02.710799  3461 net.cpp:406] penlu39 <- Eltwise19
I0925 19:59:02.710803  3461 net.cpp:367] penlu39 -> Eltwise19 (in-place)
I0925 19:59:02.710913  3461 net.cpp:122] Setting up penlu39
I0925 19:59:02.710918  3461 net.cpp:129] Top shape: 100 64 7 7 (313600)
I0925 19:59:02.710921  3461 net.cpp:137] Memory required for data: 798739600
I0925 19:59:02.710924  3461 layer_factory.hpp:77] Creating layer Eltwise19_penlu39_0_split
I0925 19:59:02.710928  3461 net.cpp:84] Creating Layer Eltwise19_penlu39_0_split
I0925 19:59:02.710930  3461 net.cpp:406] Eltwise19_penlu39_0_split <- Eltwise19
I0925 19:59:02.710934  3461 net.cpp:380] Eltwise19_penlu39_0_split -> Eltwise19_penlu39_0_split_0
I0925 19:59:02.710939  3461 net.cpp:380] Eltwise19_penlu39_0_split -> Eltwise19_penlu39_0_split_1
I0925 19:59:02.710961  3461 net.cpp:122] Setting up Eltwise19_penlu39_0_split
I0925 19:59:02.710965  3461 net.cpp:129] Top shape: 100 64 7 7 (313600)
I0925 19:59:02.710968  3461 net.cpp:129] Top shape: 100 64 7 7 (313600)
I0925 19:59:02.710970  3461 net.cpp:137] Memory required for data: 801248400
I0925 19:59:02.710973  3461 layer_factory.hpp:77] Creating layer Convolution42
I0925 19:59:02.710978  3461 net.cpp:84] Creating Layer Convolution42
I0925 19:59:02.710981  3461 net.cpp:406] Convolution42 <- Eltwise19_penlu39_0_split_0
I0925 19:59:02.710985  3461 net.cpp:380] Convolution42 -> Convolution42
I0925 19:59:02.712774  3461 net.cpp:122] Setting up Convolution42
I0925 19:59:02.712782  3461 net.cpp:129] Top shape: 100 64 7 7 (313600)
I0925 19:59:02.712785  3461 net.cpp:137] Memory required for data: 802502800
I0925 19:59:02.712790  3461 layer_factory.hpp:77] Creating layer BatchNorm42
I0925 19:59:02.712795  3461 net.cpp:84] Creating Layer BatchNorm42
I0925 19:59:02.712797  3461 net.cpp:406] BatchNorm42 <- Convolution42
I0925 19:59:02.712801  3461 net.cpp:367] BatchNorm42 -> Convolution42 (in-place)
I0925 19:59:02.712939  3461 net.cpp:122] Setting up BatchNorm42
I0925 19:59:02.712942  3461 net.cpp:129] Top shape: 100 64 7 7 (313600)
I0925 19:59:02.712945  3461 net.cpp:137] Memory required for data: 803757200
I0925 19:59:02.712949  3461 layer_factory.hpp:77] Creating layer Scale42
I0925 19:59:02.712954  3461 net.cpp:84] Creating Layer Scale42
I0925 19:59:02.712956  3461 net.cpp:406] Scale42 <- Convolution42
I0925 19:59:02.712960  3461 net.cpp:367] Scale42 -> Convolution42 (in-place)
I0925 19:59:02.712987  3461 layer_factory.hpp:77] Creating layer Scale42
I0925 19:59:02.713066  3461 net.cpp:122] Setting up Scale42
I0925 19:59:02.713070  3461 net.cpp:129] Top shape: 100 64 7 7 (313600)
I0925 19:59:02.713073  3461 net.cpp:137] Memory required for data: 805011600
I0925 19:59:02.713076  3461 layer_factory.hpp:77] Creating layer penlu40
I0925 19:59:02.713083  3461 net.cpp:84] Creating Layer penlu40
I0925 19:59:02.713084  3461 net.cpp:406] penlu40 <- Convolution42
I0925 19:59:02.713094  3461 net.cpp:367] penlu40 -> Convolution42 (in-place)
I0925 19:59:02.713207  3461 net.cpp:122] Setting up penlu40
I0925 19:59:02.713210  3461 net.cpp:129] Top shape: 100 64 7 7 (313600)
I0925 19:59:02.713212  3461 net.cpp:137] Memory required for data: 806266000
I0925 19:59:02.713217  3461 layer_factory.hpp:77] Creating layer Convolution43
I0925 19:59:02.713225  3461 net.cpp:84] Creating Layer Convolution43
I0925 19:59:02.713228  3461 net.cpp:406] Convolution43 <- Convolution42
I0925 19:59:02.713232  3461 net.cpp:380] Convolution43 -> Convolution43
I0925 19:59:02.715618  3461 net.cpp:122] Setting up Convolution43
I0925 19:59:02.715627  3461 net.cpp:129] Top shape: 100 64 7 7 (313600)
I0925 19:59:02.715631  3461 net.cpp:137] Memory required for data: 807520400
I0925 19:59:02.715634  3461 layer_factory.hpp:77] Creating layer BatchNorm43
I0925 19:59:02.715641  3461 net.cpp:84] Creating Layer BatchNorm43
I0925 19:59:02.715642  3461 net.cpp:406] BatchNorm43 <- Convolution43
I0925 19:59:02.715646  3461 net.cpp:367] BatchNorm43 -> Convolution43 (in-place)
I0925 19:59:02.715790  3461 net.cpp:122] Setting up BatchNorm43
I0925 19:59:02.715795  3461 net.cpp:129] Top shape: 100 64 7 7 (313600)
I0925 19:59:02.715797  3461 net.cpp:137] Memory required for data: 808774800
I0925 19:59:02.715802  3461 layer_factory.hpp:77] Creating layer Scale43
I0925 19:59:02.715806  3461 net.cpp:84] Creating Layer Scale43
I0925 19:59:02.715808  3461 net.cpp:406] Scale43 <- Convolution43
I0925 19:59:02.715811  3461 net.cpp:367] Scale43 -> Convolution43 (in-place)
I0925 19:59:02.715842  3461 layer_factory.hpp:77] Creating layer Scale43
I0925 19:59:02.715922  3461 net.cpp:122] Setting up Scale43
I0925 19:59:02.715926  3461 net.cpp:129] Top shape: 100 64 7 7 (313600)
I0925 19:59:02.715929  3461 net.cpp:137] Memory required for data: 810029200
I0925 19:59:02.715932  3461 layer_factory.hpp:77] Creating layer Eltwise20
I0925 19:59:02.715937  3461 net.cpp:84] Creating Layer Eltwise20
I0925 19:59:02.715940  3461 net.cpp:406] Eltwise20 <- Eltwise19_penlu39_0_split_1
I0925 19:59:02.715943  3461 net.cpp:406] Eltwise20 <- Convolution43
I0925 19:59:02.715946  3461 net.cpp:380] Eltwise20 -> Eltwise20
I0925 19:59:02.715963  3461 net.cpp:122] Setting up Eltwise20
I0925 19:59:02.715967  3461 net.cpp:129] Top shape: 100 64 7 7 (313600)
I0925 19:59:02.715970  3461 net.cpp:137] Memory required for data: 811283600
I0925 19:59:02.715971  3461 layer_factory.hpp:77] Creating layer penlu41
I0925 19:59:02.715977  3461 net.cpp:84] Creating Layer penlu41
I0925 19:59:02.715979  3461 net.cpp:406] penlu41 <- Eltwise20
I0925 19:59:02.715983  3461 net.cpp:367] penlu41 -> Eltwise20 (in-place)
I0925 19:59:02.716097  3461 net.cpp:122] Setting up penlu41
I0925 19:59:02.716101  3461 net.cpp:129] Top shape: 100 64 7 7 (313600)
I0925 19:59:02.716104  3461 net.cpp:137] Memory required for data: 812538000
I0925 19:59:02.716107  3461 layer_factory.hpp:77] Creating layer Eltwise20_penlu41_0_split
I0925 19:59:02.716111  3461 net.cpp:84] Creating Layer Eltwise20_penlu41_0_split
I0925 19:59:02.716114  3461 net.cpp:406] Eltwise20_penlu41_0_split <- Eltwise20
I0925 19:59:02.716116  3461 net.cpp:380] Eltwise20_penlu41_0_split -> Eltwise20_penlu41_0_split_0
I0925 19:59:02.716121  3461 net.cpp:380] Eltwise20_penlu41_0_split -> Eltwise20_penlu41_0_split_1
I0925 19:59:02.716145  3461 net.cpp:122] Setting up Eltwise20_penlu41_0_split
I0925 19:59:02.716150  3461 net.cpp:129] Top shape: 100 64 7 7 (313600)
I0925 19:59:02.716152  3461 net.cpp:129] Top shape: 100 64 7 7 (313600)
I0925 19:59:02.716154  3461 net.cpp:137] Memory required for data: 815046800
I0925 19:59:02.716156  3461 layer_factory.hpp:77] Creating layer Convolution44
I0925 19:59:02.716161  3461 net.cpp:84] Creating Layer Convolution44
I0925 19:59:02.716164  3461 net.cpp:406] Convolution44 <- Eltwise20_penlu41_0_split_0
I0925 19:59:02.716168  3461 net.cpp:380] Convolution44 -> Convolution44
I0925 19:59:02.717957  3461 net.cpp:122] Setting up Convolution44
I0925 19:59:02.717965  3461 net.cpp:129] Top shape: 100 64 7 7 (313600)
I0925 19:59:02.717974  3461 net.cpp:137] Memory required for data: 816301200
I0925 19:59:02.717978  3461 layer_factory.hpp:77] Creating layer BatchNorm44
I0925 19:59:02.717984  3461 net.cpp:84] Creating Layer BatchNorm44
I0925 19:59:02.717988  3461 net.cpp:406] BatchNorm44 <- Convolution44
I0925 19:59:02.717991  3461 net.cpp:367] BatchNorm44 -> Convolution44 (in-place)
I0925 19:59:02.718132  3461 net.cpp:122] Setting up BatchNorm44
I0925 19:59:02.718137  3461 net.cpp:129] Top shape: 100 64 7 7 (313600)
I0925 19:59:02.718139  3461 net.cpp:137] Memory required for data: 817555600
I0925 19:59:02.718143  3461 layer_factory.hpp:77] Creating layer Scale44
I0925 19:59:02.718147  3461 net.cpp:84] Creating Layer Scale44
I0925 19:59:02.718150  3461 net.cpp:406] Scale44 <- Convolution44
I0925 19:59:02.718153  3461 net.cpp:367] Scale44 -> Convolution44 (in-place)
I0925 19:59:02.718184  3461 layer_factory.hpp:77] Creating layer Scale44
I0925 19:59:02.718264  3461 net.cpp:122] Setting up Scale44
I0925 19:59:02.718269  3461 net.cpp:129] Top shape: 100 64 7 7 (313600)
I0925 19:59:02.718271  3461 net.cpp:137] Memory required for data: 818810000
I0925 19:59:02.718276  3461 layer_factory.hpp:77] Creating layer penlu42
I0925 19:59:02.718281  3461 net.cpp:84] Creating Layer penlu42
I0925 19:59:02.718284  3461 net.cpp:406] penlu42 <- Convolution44
I0925 19:59:02.718288  3461 net.cpp:367] penlu42 -> Convolution44 (in-place)
I0925 19:59:02.718400  3461 net.cpp:122] Setting up penlu42
I0925 19:59:02.718405  3461 net.cpp:129] Top shape: 100 64 7 7 (313600)
I0925 19:59:02.718406  3461 net.cpp:137] Memory required for data: 820064400
I0925 19:59:02.718410  3461 layer_factory.hpp:77] Creating layer Convolution45
I0925 19:59:02.718417  3461 net.cpp:84] Creating Layer Convolution45
I0925 19:59:02.718420  3461 net.cpp:406] Convolution45 <- Convolution44
I0925 19:59:02.718425  3461 net.cpp:380] Convolution45 -> Convolution45
I0925 19:59:02.720510  3461 net.cpp:122] Setting up Convolution45
I0925 19:59:02.720518  3461 net.cpp:129] Top shape: 100 64 7 7 (313600)
I0925 19:59:02.720521  3461 net.cpp:137] Memory required for data: 821318800
I0925 19:59:02.720526  3461 layer_factory.hpp:77] Creating layer BatchNorm45
I0925 19:59:02.720531  3461 net.cpp:84] Creating Layer BatchNorm45
I0925 19:59:02.720535  3461 net.cpp:406] BatchNorm45 <- Convolution45
I0925 19:59:02.720538  3461 net.cpp:367] BatchNorm45 -> Convolution45 (in-place)
I0925 19:59:02.720683  3461 net.cpp:122] Setting up BatchNorm45
I0925 19:59:02.720688  3461 net.cpp:129] Top shape: 100 64 7 7 (313600)
I0925 19:59:02.720690  3461 net.cpp:137] Memory required for data: 822573200
I0925 19:59:02.720695  3461 layer_factory.hpp:77] Creating layer Scale45
I0925 19:59:02.720700  3461 net.cpp:84] Creating Layer Scale45
I0925 19:59:02.720702  3461 net.cpp:406] Scale45 <- Convolution45
I0925 19:59:02.720706  3461 net.cpp:367] Scale45 -> Convolution45 (in-place)
I0925 19:59:02.720736  3461 layer_factory.hpp:77] Creating layer Scale45
I0925 19:59:02.720818  3461 net.cpp:122] Setting up Scale45
I0925 19:59:02.720821  3461 net.cpp:129] Top shape: 100 64 7 7 (313600)
I0925 19:59:02.720824  3461 net.cpp:137] Memory required for data: 823827600
I0925 19:59:02.720827  3461 layer_factory.hpp:77] Creating layer Eltwise21
I0925 19:59:02.720832  3461 net.cpp:84] Creating Layer Eltwise21
I0925 19:59:02.720834  3461 net.cpp:406] Eltwise21 <- Eltwise20_penlu41_0_split_1
I0925 19:59:02.720837  3461 net.cpp:406] Eltwise21 <- Convolution45
I0925 19:59:02.720841  3461 net.cpp:380] Eltwise21 -> Eltwise21
I0925 19:59:02.720859  3461 net.cpp:122] Setting up Eltwise21
…
I0925 19:59:03.074061  3461 net.cpp:137] Memory required for data: 1030145200
I0925 19:59:03.074066  3461 layer_factory.hpp:77] Creating layer BatchNorm40
I0925 19:59:03.074071  3461 net.cpp:84] Creating Layer BatchNorm40
I0925 19:59:03.074074  3461 net.cpp:406] BatchNorm40 <- Convolution40
I0925 19:59:03.074079  3461 net.cpp:367] BatchNorm40 -> Convolution40 (in-place)
I0925 19:59:03.074221  3461 net.cpp:122] Setting up BatchNorm40
I0925 19:59:03.074226  3461 net.cpp:129] Top shape: 100 64 8 8 (409600)
I0925 19:59:03.074229  3461 net.cpp:137] Memory required for data: 1031783600
I0925 19:59:03.074234  3461 layer_factory.hpp:77] Creating layer Scale40
I0925 19:59:03.074239  3461 net.cpp:84] Creating Layer Scale40
I0925 19:59:03.074241  3461 net.cpp:406] Scale40 <- Convolution40
I0925 19:59:03.074245  3461 net.cpp:367] Scale40 -> Convolution40 (in-place)
I0925 19:59:03.074273  3461 layer_factory.hpp:77] Creating layer Scale40
I0925 19:59:03.074383  3461 net.cpp:122] Setting up Scale40
I0925 19:59:03.074389  3461 net.cpp:129] Top shape: 100 64 8 8 (409600)
I0925 19:59:03.074391  3461 net.cpp:137] Memory required for data: 1033422000
I0925 19:59:03.074395  3461 layer_factory.hpp:77] Creating layer penlu38
I0925 19:59:03.074401  3461 net.cpp:84] Creating Layer penlu38
I0925 19:59:03.074404  3461 net.cpp:406] penlu38 <- Convolution40
I0925 19:59:03.074409  3461 net.cpp:367] penlu38 -> Convolution40 (in-place)
I0925 19:59:03.074527  3461 net.cpp:122] Setting up penlu38
I0925 19:59:03.074533  3461 net.cpp:129] Top shape: 100 64 8 8 (409600)
I0925 19:59:03.074537  3461 net.cpp:137] Memory required for data: 1035060400
I0925 19:59:03.074540  3461 layer_factory.hpp:77] Creating layer Convolution41
I0925 19:59:03.074546  3461 net.cpp:84] Creating Layer Convolution41
I0925 19:59:03.074548  3461 net.cpp:406] Convolution41 <- Convolution40
I0925 19:59:03.074553  3461 net.cpp:380] Convolution41 -> Convolution41
I0925 19:59:03.076283  3461 net.cpp:122] Setting up Convolution41
I0925 19:59:03.076293  3461 net.cpp:129] Top shape: 100 64 8 8 (409600)
I0925 19:59:03.076295  3461 net.cpp:137] Memory required for data: 1036698800
I0925 19:59:03.076300  3461 layer_factory.hpp:77] Creating layer BatchNorm41
I0925 19:59:03.076305  3461 net.cpp:84] Creating Layer BatchNorm41
I0925 19:59:03.076308  3461 net.cpp:406] BatchNorm41 <- Convolution41
I0925 19:59:03.076320  3461 net.cpp:367] BatchNorm41 -> Convolution41 (in-place)
I0925 19:59:03.076459  3461 net.cpp:122] Setting up BatchNorm41
I0925 19:59:03.076464  3461 net.cpp:129] Top shape: 100 64 8 8 (409600)
I0925 19:59:03.076467  3461 net.cpp:137] Memory required for data: 1038337200
I0925 19:59:03.076472  3461 layer_factory.hpp:77] Creating layer Scale41
I0925 19:59:03.076475  3461 net.cpp:84] Creating Layer Scale41
I0925 19:59:03.076478  3461 net.cpp:406] Scale41 <- Convolution41
I0925 19:59:03.076481  3461 net.cpp:367] Scale41 -> Convolution41 (in-place)
I0925 19:59:03.076515  3461 layer_factory.hpp:77] Creating layer Scale41
I0925 19:59:03.076596  3461 net.cpp:122] Setting up Scale41
I0925 19:59:03.076601  3461 net.cpp:129] Top shape: 100 64 8 8 (409600)
I0925 19:59:03.076603  3461 net.cpp:137] Memory required for data: 1039975600
I0925 19:59:03.076607  3461 layer_factory.hpp:77] Creating layer Eltwise19
I0925 19:59:03.076611  3461 net.cpp:84] Creating Layer Eltwise19
I0925 19:59:03.076614  3461 net.cpp:406] Eltwise19 <- Convolution39
I0925 19:59:03.076617  3461 net.cpp:406] Eltwise19 <- Convolution41
I0925 19:59:03.076622  3461 net.cpp:380] Eltwise19 -> Eltwise19
I0925 19:59:03.076638  3461 net.cpp:122] Setting up Eltwise19
I0925 19:59:03.076643  3461 net.cpp:129] Top shape: 100 64 8 8 (409600)
I0925 19:59:03.076645  3461 net.cpp:137] Memory required for data: 1041614000
I0925 19:59:03.076647  3461 layer_factory.hpp:77] Creating layer penlu39
I0925 19:59:03.076653  3461 net.cpp:84] Creating Layer penlu39
I0925 19:59:03.076654  3461 net.cpp:406] penlu39 <- Eltwise19
I0925 19:59:03.076658  3461 net.cpp:367] penlu39 -> Eltwise19 (in-place)
I0925 19:59:03.076776  3461 net.cpp:122] Setting up penlu39
I0925 19:59:03.076781  3461 net.cpp:129] Top shape: 100 64 8 8 (409600)
I0925 19:59:03.076783  3461 net.cpp:137] Memory required for data: 1043252400
I0925 19:59:03.076788  3461 layer_factory.hpp:77] Creating layer Eltwise19_penlu39_0_split
I0925 19:59:03.076792  3461 net.cpp:84] Creating Layer Eltwise19_penlu39_0_split
I0925 19:59:03.076794  3461 net.cpp:406] Eltwise19_penlu39_0_split <- Eltwise19
I0925 19:59:03.076797  3461 net.cpp:380] Eltwise19_penlu39_0_split -> Eltwise19_penlu39_0_split_0
I0925 19:59:03.076802  3461 net.cpp:380] Eltwise19_penlu39_0_split -> Eltwise19_penlu39_0_split_1
I0925 19:59:03.076827  3461 net.cpp:122] Setting up Eltwise19_penlu39_0_split
I0925 19:59:03.076831  3461 net.cpp:129] Top shape: 100 64 8 8 (409600)
I0925 19:59:03.076834  3461 net.cpp:129] Top shape: 100 64 8 8 (409600)
I0925 19:59:03.076836  3461 net.cpp:137] Memory required for data: 1046529200
I0925 19:59:03.076838  3461 layer_factory.hpp:77] Creating layer Convolution42
I0925 19:59:03.076843  3461 net.cpp:84] Creating Layer Convolution42
I0925 19:59:03.076846  3461 net.cpp:406] Convolution42 <- Eltwise19_penlu39_0_split_0
I0925 19:59:03.076851  3461 net.cpp:380] Convolution42 -> Convolution42
I0925 19:59:03.078577  3461 net.cpp:122] Setting up Convolution42
I0925 19:59:03.078585  3461 net.cpp:129] Top shape: 100 64 8 8 (409600)
I0925 19:59:03.078588  3461 net.cpp:137] Memory required for data: 1048167600
I0925 19:59:03.078593  3461 layer_factory.hpp:77] Creating layer BatchNorm42
I0925 19:59:03.078598  3461 net.cpp:84] Creating Layer BatchNorm42
I0925 19:59:03.078600  3461 net.cpp:406] BatchNorm42 <- Convolution42
I0925 19:59:03.078604  3461 net.cpp:367] BatchNorm42 -> Convolution42 (in-place)
I0925 19:59:03.078742  3461 net.cpp:122] Setting up BatchNorm42
I0925 19:59:03.078747  3461 net.cpp:129] Top shape: 100 64 8 8 (409600)
I0925 19:59:03.078749  3461 net.cpp:137] Memory required for data: 1049806000
I0925 19:59:03.078754  3461 layer_factory.hpp:77] Creating layer Scale42
I0925 19:59:03.078759  3461 net.cpp:84] Creating Layer Scale42
I0925 19:59:03.078761  3461 net.cpp:406] Scale42 <- Convolution42
I0925 19:59:03.078765  3461 net.cpp:367] Scale42 -> Convolution42 (in-place)
I0925 19:59:03.078794  3461 layer_factory.hpp:77] Creating layer Scale42
I0925 19:59:03.078874  3461 net.cpp:122] Setting up Scale42
I0925 19:59:03.078881  3461 net.cpp:129] Top shape: 100 64 8 8 (409600)
I0925 19:59:03.078888  3461 net.cpp:137] Memory required for data: 1051444400
I0925 19:59:03.078893  3461 layer_factory.hpp:77] Creating layer penlu40
I0925 19:59:03.078897  3461 net.cpp:84] Creating Layer penlu40
I0925 19:59:03.078900  3461 net.cpp:406] penlu40 <- Convolution42
I0925 19:59:03.078904  3461 net.cpp:367] penlu40 -> Convolution42 (in-place)
I0925 19:59:03.079022  3461 net.cpp:122] Setting up penlu40
I0925 19:59:03.079027  3461 net.cpp:129] Top shape: 100 64 8 8 (409600)
I0925 19:59:03.079030  3461 net.cpp:137] Memory required for data: 1053082800
I0925 19:59:03.079035  3461 layer_factory.hpp:77] Creating layer Convolution43
I0925 19:59:03.079041  3461 net.cpp:84] Creating Layer Convolution43
I0925 19:59:03.079043  3461 net.cpp:406] Convolution43 <- Convolution42
I0925 19:59:03.079047  3461 net.cpp:380] Convolution43 -> Convolution43
I0925 19:59:03.080793  3461 net.cpp:122] Setting up Convolution43
I0925 19:59:03.080802  3461 net.cpp:129] Top shape: 100 64 8 8 (409600)
I0925 19:59:03.080806  3461 net.cpp:137] Memory required for data: 1054721200
I0925 19:59:03.080811  3461 layer_factory.hpp:77] Creating layer BatchNorm43
I0925 19:59:03.080816  3461 net.cpp:84] Creating Layer BatchNorm43
I0925 19:59:03.080818  3461 net.cpp:406] BatchNorm43 <- Convolution43
I0925 19:59:03.080822  3461 net.cpp:367] BatchNorm43 -> Convolution43 (in-place)
I0925 19:59:03.080961  3461 net.cpp:122] Setting up BatchNorm43
I0925 19:59:03.080966  3461 net.cpp:129] Top shape: 100 64 8 8 (409600)
I0925 19:59:03.080968  3461 net.cpp:137] Memory required for data: 1056359600
I0925 19:59:03.080973  3461 layer_factory.hpp:77] Creating layer Scale43
I0925 19:59:03.080977  3461 net.cpp:84] Creating Layer Scale43
I0925 19:59:03.080979  3461 net.cpp:406] Scale43 <- Convolution43
I0925 19:59:03.080983  3461 net.cpp:367] Scale43 -> Convolution43 (in-place)
I0925 19:59:03.081012  3461 layer_factory.hpp:77] Creating layer Scale43
I0925 19:59:03.081091  3461 net.cpp:122] Setting up Scale43
I0925 19:59:03.081096  3461 net.cpp:129] Top shape: 100 64 8 8 (409600)
I0925 19:59:03.081099  3461 net.cpp:137] Memory required for data: 1057998000
I0925 19:59:03.081102  3461 layer_factory.hpp:77] Creating layer Eltwise20
I0925 19:59:03.081106  3461 net.cpp:84] Creating Layer Eltwise20
I0925 19:59:03.081110  3461 net.cpp:406] Eltwise20 <- Eltwise19_penlu39_0_split_1
I0925 19:59:03.081112  3461 net.cpp:406] Eltwise20 <- Convolution43
I0925 19:59:03.081115  3461 net.cpp:380] Eltwise20 -> Eltwise20
I0925 19:59:03.081133  3461 net.cpp:122] Setting up Eltwise20
I0925 19:59:03.081137  3461 net.cpp:129] Top shape: 100 64 8 8 (409600)
I0925 19:59:03.081140  3461 net.cpp:137] Memory required for data: 1059636400
I0925 19:59:03.081142  3461 layer_factory.hpp:77] Creating layer penlu41
I0925 19:59:03.081147  3461 net.cpp:84] Creating Layer penlu41
I0925 19:59:03.081149  3461 net.cpp:406] penlu41 <- Eltwise20
I0925 19:59:03.081153  3461 net.cpp:367] penlu41 -> Eltwise20 (in-place)
I0925 19:59:03.081269  3461 net.cpp:122] Setting up penlu41
I0925 19:59:03.081274  3461 net.cpp:129] Top shape: 100 64 8 8 (409600)
I0925 19:59:03.081275  3461 net.cpp:137] Memory required for data: 1061274800
I0925 19:59:03.081280  3461 layer_factory.hpp:77] Creating layer Eltwise20_penlu41_0_split
I0925 19:59:03.081284  3461 net.cpp:84] Creating Layer Eltwise20_penlu41_0_split
I0925 19:59:03.081287  3461 net.cpp:406] Eltwise20_penlu41_0_split <- Eltwise20
I0925 19:59:03.081290  3461 net.cpp:380] Eltwise20_penlu41_0_split -> Eltwise20_penlu41_0_split_0
I0925 19:59:03.081295  3461 net.cpp:380] Eltwise20_penlu41_0_split -> Eltwise20_penlu41_0_split_1
I0925 19:59:03.081318  3461 net.cpp:122] Setting up Eltwise20_penlu41_0_split
I0925 19:59:03.081322  3461 net.cpp:129] Top shape: 100 64 8 8 (409600)
I0925 19:59:03.081326  3461 net.cpp:129] Top shape: 100 64 8 8 (409600)
I0925 19:59:03.081327  3461 net.cpp:137] Memory required for data: 1064551600
I0925 19:59:03.081331  3461 layer_factory.hpp:77] Creating layer Convolution44
I0925 19:59:03.081336  3461 net.cpp:84] Creating Layer Convolution44
I0925 19:59:03.081344  3461 net.cpp:406] Convolution44 <- Eltwise20_penlu41_0_split_0
I0925 19:59:03.081351  3461 net.cpp:380] Convolution44 -> Convolution44
I0925 19:59:03.083396  3461 net.cpp:122] Setting up Convolution44
I0925 19:59:03.083405  3461 net.cpp:129] Top shape: 100 64 8 8 (409600)
I0925 19:59:03.083407  3461 net.cpp:137] Memory required for data: 1066190000
I0925 19:59:03.083412  3461 layer_factory.hpp:77] Creating layer BatchNorm44
I0925 19:59:03.083417  3461 net.cpp:84] Creating Layer BatchNorm44
I0925 19:59:03.083420  3461 net.cpp:406] BatchNorm44 <- Convolution44
I0925 19:59:03.083425  3461 net.cpp:367] BatchNorm44 -> Convolution44 (in-place)
I0925 19:59:03.083567  3461 net.cpp:122] Setting up BatchNorm44
I0925 19:59:03.083572  3461 net.cpp:129] Top shape: 100 64 8 8 (409600)
I0925 19:59:03.083575  3461 net.cpp:137] Memory required for data: 1067828400
I0925 19:59:03.083580  3461 layer_factory.hpp:77] Creating layer Scale44
I0925 19:59:03.083585  3461 net.cpp:84] Creating Layer Scale44
I0925 19:59:03.083587  3461 net.cpp:406] Scale44 <- Convolution44
I0925 19:59:03.083590  3461 net.cpp:367] Scale44 -> Convolution44 (in-place)
I0925 19:59:03.083621  3461 layer_factory.hpp:77] Creating layer Scale44
I0925 19:59:03.083701  3461 net.cpp:122] Setting up Scale44
I0925 19:59:03.083705  3461 net.cpp:129] Top shape: 100 64 8 8 (409600)
I0925 19:59:03.083709  3461 net.cpp:137] Memory required for data: 1069466800
I0925 19:59:03.083712  3461 layer_factory.hpp:77] Creating layer penlu42
I0925 19:59:03.083717  3461 net.cpp:84] Creating Layer penlu42
I0925 19:59:03.083720  3461 net.cpp:406] penlu42 <- Convolution44
I0925 19:59:03.083724  3461 net.cpp:367] penlu42 -> Convolution44 (in-place)
I0925 19:59:03.083838  3461 net.cpp:122] Setting up penlu42
I0925 19:59:03.083843  3461 net.cpp:129] Top shape: 100 64 8 8 (409600)
I0925 19:59:03.083845  3461 net.cpp:137] Memory required for data: 1071105200
I0925 19:59:03.083850  3461 layer_factory.hpp:77] Creating layer Convolution45
I0925 19:59:03.083856  3461 net.cpp:84] Creating Layer Convolution45
I0925 19:59:03.083859  3461 net.cpp:406] Convolution45 <- Convolution44
I0925 19:59:03.083863  3461 net.cpp:380] Convolution45 -> Convolution45
I0925 19:59:03.085608  3461 net.cpp:122] Setting up Convolution45
I0925 19:59:03.085618  3461 net.cpp:129] Top shape: 100 64 8 8 (409600)
I0925 19:59:03.085620  3461 net.cpp:137] Memory required for data: 1072743600
I0925 19:59:03.085624  3461 layer_factory.hpp:77] Creating layer BatchNorm45
I0925 19:59:03.085628  3461 net.cpp:84] Creating Layer BatchNorm45
I0925 19:59:03.085631  3461 net.cpp:406] BatchNorm45 <- Convolution45
I0925 19:59:03.085636  3461 net.cpp:367] BatchNorm45 -> Convolution45 (in-place)
I0925 19:59:03.085775  3461 net.cpp:122] Setting up BatchNorm45
I0925 19:59:03.085780  3461 net.cpp:129] Top shape: 100 64 8 8 (409600)
I0925 19:59:03.085783  3461 net.cpp:137] Memory required for data: 1074382000
I0925 19:59:03.085788  3461 layer_factory.hpp:77] Creating layer Scale45
I0925 19:59:03.085791  3461 net.cpp:84] Creating Layer Scale45
I0925 19:59:03.085794  3461 net.cpp:406] Scale45 <- Convolution45
I0925 19:59:03.085798  3461 net.cpp:367] Scale45 -> Convolution45 (in-place)
I0925 19:59:03.085826  3461 layer_factory.hpp:77] Creating layer Scale45
I0925 19:59:03.085906  3461 net.cpp:122] Setting up Scale45
I0925 19:59:03.085909  3461 net.cpp:129] Top shape: 100 64 8 8 (409600)
I0925 19:59:03.085911  3461 net.cpp:137] Memory required for data: 1076020400
I0925 19:59:03.085916  3461 layer_factory.hpp:77] Creating layer Eltwise21
I0925 19:59:03.085919  3461 net.cpp:84] Creating Layer Eltwise21
I0925 19:59:03.085922  3461 net.cpp:406] Eltwise21 <- Eltwise20_penlu41_0_split_1
I0925 19:59:03.085925  3461 net.cpp:406] Eltwise21 <- Convolution45
I0925 19:59:03.085929  3461 net.cpp:380] Eltwise21 -> Eltwise21
I0925 19:59:03.085947  3461 net.cpp:122] Setting up Eltwise21
I0925 19:59:03.085952  3461 net.cpp:129] Top shape: 100 64 8 8 (409600)
I0925 19:59:03.085954  3461 net.cpp:137] Memory required for data: 1077658800
I0925 19:59:03.085963  3461 layer_factory.hpp:77] Creating layer penlu43
I0925 19:59:03.085968  3461 net.cpp:84] Creating Layer penlu43
I0925 19:59:03.085970  3461 net.cpp:406] penlu43 <- Eltwise21
I0925 19:59:03.085974  3461 net.cpp:367] penlu43 -> Eltwise21 (in-place)
I0925 19:59:03.086092  3461 net.cpp:122] Setting up penlu43
I0925 19:59:03.086097  3461 net.cpp:129] Top shape: 100 64 8 8 (409600)
I0925 19:59:03.086099  3461 net.cpp:137] Memory required for data: 1079297200
I0925 19:59:03.086103  3461 layer_factory.hpp:77] Creating layer Eltwise21_penlu43_0_split
I0925 19:59:03.086107  3461 net.cpp:84] Creating Layer Eltwise21_penlu43_0_split
I0925 19:59:03.086109  3461 net.cpp:406] Eltwise21_penlu43_0_split <- Eltwise21
I0925 19:59:03.086112  3461 net.cpp:380] Eltwise21_penlu43_0_split -> Eltwise21_penlu43_0_split_0
I0925 19:59:03.086117  3461 net.cpp:380] Eltwise21_penlu43_0_split -> Eltwise21_penlu43_0_split_1
I0925 19:59:03.086141  3461 net.cpp:122] Setting up Eltwise21_penlu43_0_split
I0925 19:59:03.086145  3461 net.cpp:129] Top shape: 100 64 8 8 (409600)
I0925 19:59:03.086148  3461 net.cpp:129] Top shape: 100 64 8 8 (409600)
I0925 19:59:03.100931  3461 net.cpp:137] Memory required for data: 1082574000
I0925 19:59:03.100939  3461 layer_factory.hpp:77] Creating layer Convolution46
I0925 19:59:03.100950  3461 net.cpp:84] Creating Layer Convolution46
I0925 19:59:03.100952  3461 net.cpp:406] Convolution46 <- Eltwise21_penlu43_0_split_0
I0925 19:59:03.100958  3461 net.cpp:380] Convolution46 -> Convolution46
I0925 19:59:03.102917  3461 net.cpp:122] Setting up Convolution46
I0925 19:59:03.102926  3461 net.cpp:129] Top shape: 100 64 8 8 (409600)
I0925 19:59:03.102938  3461 net.cpp:137] Memory required for data: 1084212400
I0925 19:59:03.102943  3461 layer_factory.hpp:77] Creating layer BatchNorm46
I0925 19:59:03.102959  3461 net.cpp:84] Creating Layer BatchNorm46
I0925 19:59:03.102963  3461 net.cpp:406] BatchNorm46 <- Convolution46
I0925 19:59:03.102967  3461 net.cpp:367] BatchNorm46 -> Convolution46 (in-place)
I0925 19:59:03.103138  3461 net.cpp:122] Setting up BatchNorm46
I0925 19:59:03.103143  3461 net.cpp:129] Top shape: 100 64 8 8 (409600)
I0925 19:59:03.103145  3461 net.cpp:137] Memory required for data: 1085850800
I0925 19:59:03.103150  3461 layer_factory.hpp:77] Creating layer Scale46
I0925 19:59:03.103154  3461 net.cpp:84] Creating Layer Scale46
I0925 19:59:03.103157  3461 net.cpp:406] Scale46 <- Convolution46
I0925 19:59:03.103162  3461 net.cpp:367] Scale46 -> Convolution46 (in-place)
I0925 19:59:03.103193  3461 layer_factory.hpp:77] Creating layer Scale46
I0925 19:59:03.103273  3461 net.cpp:122] Setting up Scale46
I0925 19:59:03.103278  3461 net.cpp:129] Top shape: 100 64 8 8 (409600)
I0925 19:59:03.103281  3461 net.cpp:137] Memory required for data: 1087489200
I0925 19:59:03.103284  3461 layer_factory.hpp:77] Creating layer penlu44
I0925 19:59:03.103289  3461 net.cpp:84] Creating Layer penlu44
I0925 19:59:03.103292  3461 net.cpp:406] penlu44 <- Convolution46
I0925 19:59:03.103296  3461 net.cpp:367] penlu44 -> Convolution46 (in-place)
I0925 19:59:03.103415  3461 net.cpp:122] Setting up penlu44
I0925 19:59:03.103420  3461 net.cpp:129] Top shape: 100 64 8 8 (409600)
I0925 19:59:03.103422  3461 net.cpp:137] Memory required for data: 1089127600
I0925 19:59:03.103426  3461 layer_factory.hpp:77] Creating layer Convolution47
I0925 19:59:03.103433  3461 net.cpp:84] Creating Layer Convolution47
I0925 19:59:03.103436  3461 net.cpp:406] Convolution47 <- Convolution46
I0925 19:59:03.103440  3461 net.cpp:380] Convolution47 -> Convolution47
I0925 19:59:03.105319  3461 net.cpp:122] Setting up Convolution47
I0925 19:59:03.105329  3461 net.cpp:129] Top shape: 100 64 8 8 (409600)
I0925 19:59:03.105331  3461 net.cpp:137] Memory required for data: 1090766000
I0925 19:59:03.105336  3461 layer_factory.hpp:77] Creating layer BatchNorm47
I0925 19:59:03.105340  3461 net.cpp:84] Creating Layer BatchNorm47
I0925 19:59:03.105343  3461 net.cpp:406] BatchNorm47 <- Convolution47
I0925 19:59:03.105348  3461 net.cpp:367] BatchNorm47 -> Convolution47 (in-place)
I0925 19:59:03.105497  3461 net.cpp:122] Setting up BatchNorm47
I0925 19:59:03.105502  3461 net.cpp:129] Top shape: 100 64 8 8 (409600)
I0925 19:59:03.105504  3461 net.cpp:137] Memory required for data: 1092404400
I0925 19:59:03.105509  3461 layer_factory.hpp:77] Creating layer Scale47
I0925 19:59:03.105515  3461 net.cpp:84] Creating Layer Scale47
I0925 19:59:03.105516  3461 net.cpp:406] Scale47 <- Convolution47
I0925 19:59:03.105520  3461 net.cpp:367] Scale47 -> Convolution47 (in-place)
I0925 19:59:03.105548  3461 layer_factory.hpp:77] Creating layer Scale47
I0925 19:59:03.105629  3461 net.cpp:122] Setting up Scale47
I0925 19:59:03.105634  3461 net.cpp:129] Top shape: 100 64 8 8 (409600)
I0925 19:59:03.105636  3461 net.cpp:137] Memory required for data: 1094042800
I0925 19:59:03.105640  3461 layer_factory.hpp:77] Creating layer Eltwise22
I0925 19:59:03.105644  3461 net.cpp:84] Creating Layer Eltwise22
I0925 19:59:03.105648  3461 net.cpp:406] Eltwise22 <- Eltwise21_penlu43_0_split_1
I0925 19:59:03.105650  3461 net.cpp:406] Eltwise22 <- Convolution47
I0925 19:59:03.105655  3461 net.cpp:380] Eltwise22 -> Eltwise22
I0925 19:59:03.105674  3461 net.cpp:122] Setting up Eltwise22
I0925 19:59:03.105677  3461 net.cpp:129] Top shape: 100 64 8 8 (409600)
I0925 19:59:03.105679  3461 net.cpp:137] Memory required for data: 1095681200
I0925 19:59:03.105681  3461 layer_factory.hpp:77] Creating layer penlu45
I0925 19:59:03.105686  3461 net.cpp:84] Creating Layer penlu45
I0925 19:59:03.105689  3461 net.cpp:406] penlu45 <- Eltwise22
I0925 19:59:03.105692  3461 net.cpp:367] penlu45 -> Eltwise22 (in-place)
I0925 19:59:03.105810  3461 net.cpp:122] Setting up penlu45
I0925 19:59:03.105815  3461 net.cpp:129] Top shape: 100 64 8 8 (409600)
I0925 19:59:03.105818  3461 net.cpp:137] Memory required for data: 1097319600
I0925 19:59:03.105821  3461 layer_factory.hpp:77] Creating layer Eltwise22_penlu45_0_split
I0925 19:59:03.105825  3461 net.cpp:84] Creating Layer Eltwise22_penlu45_0_split
I0925 19:59:03.105828  3461 net.cpp:406] Eltwise22_penlu45_0_split <- Eltwise22
I0925 19:59:03.105831  3461 net.cpp:380] Eltwise22_penlu45_0_split -> Eltwise22_penlu45_0_split_0
I0925 19:59:03.105835  3461 net.cpp:380] Eltwise22_penlu45_0_split -> Eltwise22_penlu45_0_split_1
I0925 19:59:03.105862  3461 net.cpp:122] Setting up Eltwise22_penlu45_0_split
I0925 19:59:03.105866  3461 net.cpp:129] Top shape: 100 64 8 8 (409600)
I0925 19:59:03.105870  3461 net.cpp:129] Top shape: 100 64 8 8 (409600)
I0925 19:59:03.105871  3461 net.cpp:137] Memory required for data: 1100596400
I0925 19:59:03.105875  3461 layer_factory.hpp:77] Creating layer Convolution48
I0925 19:59:03.105880  3461 net.cpp:84] Creating Layer Convolution48
I0925 19:59:03.105883  3461 net.cpp:406] Convolution48 <- Eltwise22_penlu45_0_split_0
I0925 19:59:03.105887  3461 net.cpp:380] Convolution48 -> Convolution48
I0925 19:59:03.107933  3461 net.cpp:122] Setting up Convolution48
I0925 19:59:03.107940  3461 net.cpp:129] Top shape: 100 64 8 8 (409600)
I0925 19:59:03.107944  3461 net.cpp:137] Memory required for data: 1102234800
I0925 19:59:03.107949  3461 layer_factory.hpp:77] Creating layer BatchNorm48
I0925 19:59:03.107954  3461 net.cpp:84] Creating Layer BatchNorm48
I0925 19:59:03.107956  3461 net.cpp:406] BatchNorm48 <- Convolution48
I0925 19:59:03.107961  3461 net.cpp:367] BatchNorm48 -> Convolution48 (in-place)
I0925 19:59:03.108106  3461 net.cpp:122] Setting up BatchNorm48
I0925 19:59:03.108111  3461 net.cpp:129] Top shape: 100 64 8 8 (409600)
I0925 19:59:03.108114  3461 net.cpp:137] Memory required for data: 1103873200
I0925 19:59:03.108119  3461 layer_factory.hpp:77] Creating layer Scale48
I0925 19:59:03.108124  3461 net.cpp:84] Creating Layer Scale48
I0925 19:59:03.108126  3461 net.cpp:406] Scale48 <- Convolution48
I0925 19:59:03.108129  3461 net.cpp:367] Scale48 -> Convolution48 (in-place)
I0925 19:59:03.108158  3461 layer_factory.hpp:77] Creating layer Scale48
I0925 19:59:03.108242  3461 net.cpp:122] Setting up Scale48
I0925 19:59:03.108247  3461 net.cpp:129] Top shape: 100 64 8 8 (409600)
I0925 19:59:03.108254  3461 net.cpp:137] Memory required for data: 1105511600
I0925 19:59:03.108258  3461 layer_factory.hpp:77] Creating layer penlu46
I0925 19:59:03.108265  3461 net.cpp:84] Creating Layer penlu46
I0925 19:59:03.108268  3461 net.cpp:406] penlu46 <- Convolution48
I0925 19:59:03.108273  3461 net.cpp:367] penlu46 -> Convolution48 (in-place)
I0925 19:59:03.108391  3461 net.cpp:122] Setting up penlu46
I0925 19:59:03.108395  3461 net.cpp:129] Top shape: 100 64 8 8 (409600)
I0925 19:59:03.108397  3461 net.cpp:137] Memory required for data: 1107150000
I0925 19:59:03.108402  3461 layer_factory.hpp:77] Creating layer Convolution49
I0925 19:59:03.108408  3461 net.cpp:84] Creating Layer Convolution49
I0925 19:59:03.108412  3461 net.cpp:406] Convolution49 <- Convolution48
I0925 19:59:03.108415  3461 net.cpp:380] Convolution49 -> Convolution49
I0925 19:59:03.110481  3461 net.cpp:122] Setting up Convolution49
I0925 19:59:03.110489  3461 net.cpp:129] Top shape: 100 64 8 8 (409600)
I0925 19:59:03.110492  3461 net.cpp:137] Memory required for data: 1108788400
I0925 19:59:03.110497  3461 layer_factory.hpp:77] Creating layer BatchNorm49
I0925 19:59:03.110502  3461 net.cpp:84] Creating Layer BatchNorm49
I0925 19:59:03.110505  3461 net.cpp:406] BatchNorm49 <- Convolution49
I0925 19:59:03.110509  3461 net.cpp:367] BatchNorm49 -> Convolution49 (in-place)
I0925 19:59:03.110653  3461 net.cpp:122] Setting up BatchNorm49
I0925 19:59:03.110658  3461 net.cpp:129] Top shape: 100 64 8 8 (409600)
I0925 19:59:03.110661  3461 net.cpp:137] Memory required for data: 1110426800
I0925 19:59:03.110664  3461 layer_factory.hpp:77] Creating layer Scale49
I0925 19:59:03.110669  3461 net.cpp:84] Creating Layer Scale49
I0925 19:59:03.110671  3461 net.cpp:406] Scale49 <- Convolution49
I0925 19:59:03.110674  3461 net.cpp:367] Scale49 -> Convolution49 (in-place)
I0925 19:59:03.110703  3461 layer_factory.hpp:77] Creating layer Scale49
I0925 19:59:03.110785  3461 net.cpp:122] Setting up Scale49
I0925 19:59:03.110790  3461 net.cpp:129] Top shape: 100 64 8 8 (409600)
I0925 19:59:03.110791  3461 net.cpp:137] Memory required for data: 1112065200
I0925 19:59:03.110795  3461 layer_factory.hpp:77] Creating layer Eltwise23
I0925 19:59:03.110800  3461 net.cpp:84] Creating Layer Eltwise23
I0925 19:59:03.110802  3461 net.cpp:406] Eltwise23 <- Eltwise22_penlu45_0_split_1
I0925 19:59:03.110805  3461 net.cpp:406] Eltwise23 <- Convolution49
I0925 19:59:03.110810  3461 net.cpp:380] Eltwise23 -> Eltwise23
I0925 19:59:03.110826  3461 net.cpp:122] Setting up Eltwise23
I0925 19:59:03.110831  3461 net.cpp:129] Top shape: 100 64 8 8 (409600)
I0925 19:59:03.110833  3461 net.cpp:137] Memory required for data: 1113703600
I0925 19:59:03.110836  3461 layer_factory.hpp:77] Creating layer penlu47
I0925 19:59:03.110841  3461 net.cpp:84] Creating Layer penlu47
I0925 19:59:03.110843  3461 net.cpp:406] penlu47 <- Eltwise23
I0925 19:59:03.110847  3461 net.cpp:367] penlu47 -> Eltwise23 (in-place)
I0925 19:59:03.110967  3461 net.cpp:122] Setting up penlu47
I0925 19:59:03.110972  3461 net.cpp:129] Top shape: 100 64 8 8 (409600)
I0925 19:59:03.110975  3461 net.cpp:137] Memory required for data: 1115342000
I0925 19:59:03.110978  3461 layer_factory.hpp:77] Creating layer Eltwise23_penlu47_0_split
I0925 19:59:03.110982  3461 net.cpp:84] Creating Layer Eltwise23_penlu47_0_split
I0925 19:59:03.110996  3461 net.cpp:406] Eltwise23_penlu47_0_split <- Eltwise23
I0925 19:59:03.110998  3461 net.cpp:380] Eltwise23_penlu47_0_split -> Eltwise23_penlu47_0_split_0
I0925 19:59:03.111003  3461 net.cpp:380] Eltwise23_penlu47_0_split -> Eltwise23_penlu47_0_split_1
I0925 19:59:03.111028  3461 net.cpp:122] Setting up Eltwise23_penlu47_0_split
I0925 19:59:03.111033  3461 net.cpp:129] Top shape: 100 64 8 8 (409600)
I0925 19:59:03.111045  3461 net.cpp:129] Top shape: 100 64 8 8 (409600)
I0925 19:59:03.111047  3461 net.cpp:137] Memory required for data: 1118618800
I0925 19:59:03.111049  3461 layer_factory.hpp:77] Creating layer Convolution50
I0925 19:59:03.111055  3461 net.cpp:84] Creating Layer Convolution50
I0925 19:59:03.111064  3461 net.cpp:406] Convolution50 <- Eltwise23_penlu47_0_split_0
I0925 19:59:03.111070  3461 net.cpp:380] Convolution50 -> Convolution50
I0925 19:59:03.113654  3461 net.cpp:122] Setting up Convolution50
I0925 19:59:03.113664  3461 net.cpp:129] Top shape: 100 64 8 8 (409600)
I0925 19:59:03.113667  3461 net.cpp:137] Memory required for data: 1120257200
I0925 19:59:03.113672  3461 layer_factory.hpp:77] Creating layer BatchNorm50
I0925 19:59:03.113677  3461 net.cpp:84] Creating Layer BatchNorm50
I0925 19:59:03.113679  3461 net.cpp:406] BatchNorm50 <- Convolution50
I0925 19:59:03.113684  3461 net.cpp:367] BatchNorm50 -> Convolution50 (in-place)
I0925 19:59:03.113831  3461 net.cpp:122] Setting up BatchNorm50
I0925 19:59:03.113837  3461 net.cpp:129] Top shape: 100 64 8 8 (409600)
I0925 19:59:03.113838  3461 net.cpp:137] Memory required for data: 1121895600
I0925 19:59:03.113843  3461 layer_factory.hpp:77] Creating layer Scale50
I0925 19:59:03.113847  3461 net.cpp:84] Creating Layer Scale50
I0925 19:59:03.113852  3461 net.cpp:406] Scale50 <- Convolution50
I0925 19:59:03.113855  3461 net.cpp:367] Scale50 -> Convolution50 (in-place)
I0925 19:59:03.113884  3461 layer_factory.hpp:77] Creating layer Scale50
I0925 19:59:03.113978  3461 net.cpp:122] Setting up Scale50
I0925 19:59:03.113983  3461 net.cpp:129] Top shape: 100 64 8 8 (409600)
I0925 19:59:03.113986  3461 net.cpp:137] Memory required for data: 1123534000
I0925 19:59:03.113989  3461 layer_factory.hpp:77] Creating layer penlu48
I0925 19:59:03.113996  3461 net.cpp:84] Creating Layer penlu48
I0925 19:59:03.113998  3461 net.cpp:406] penlu48 <- Convolution50
I0925 19:59:03.114001  3461 net.cpp:367] penlu48 -> Convolution50 (in-place)
I0925 19:59:03.114130  3461 net.cpp:122] Setting up penlu48
I0925 19:59:03.114135  3461 net.cpp:129] Top shape: 100 64 8 8 (409600)
I0925 19:59:03.114136  3461 net.cpp:137] Memory required for data: 1125172400
I0925 19:59:03.114141  3461 layer_factory.hpp:77] Creating layer Convolution51
I0925 19:59:03.114147  3461 net.cpp:84] Creating Layer Convolution51
I0925 19:59:03.114151  3461 net.cpp:406] Convolution51 <- Convolution50
I0925 19:59:03.114156  3461 net.cpp:380] Convolution51 -> Convolution51
I0925 19:59:03.115875  3461 net.cpp:122] Setting up Convolution51
I0925 19:59:03.115885  3461 net.cpp:129] Top shape: 100 64 8 8 (409600)
I0925 19:59:03.115887  3461 net.cpp:137] Memory required for data: 1126810800
I0925 19:59:03.115892  3461 layer_factory.hpp:77] Creating layer BatchNorm51
I0925 19:59:03.115897  3461 net.cpp:84] Creating Layer BatchNorm51
I0925 19:59:03.115900  3461 net.cpp:406] BatchNorm51 <- Convolution51
I0925 19:59:03.115905  3461 net.cpp:367] BatchNorm51 -> Convolution51 (in-place)
I0925 19:59:03.116044  3461 net.cpp:122] Setting up BatchNorm51
I0925 19:59:03.116050  3461 net.cpp:129] Top shape: 100 64 8 8 (409600)
I0925 19:59:03.116051  3461 net.cpp:137] Memory required for data: 1128449200
I0925 19:59:03.116056  3461 layer_factory.hpp:77] Creating layer Scale51
I0925 19:59:03.116060  3461 net.cpp:84] Creating Layer Scale51
I0925 19:59:03.116062  3461 net.cpp:406] Scale51 <- Convolution51
I0925 19:59:03.116066  3461 net.cpp:367] Scale51 -> Convolution51 (in-place)
I0925 19:59:03.116094  3461 layer_factory.hpp:77] Creating layer Scale51
I0925 19:59:03.116176  3461 net.cpp:122] Setting up Scale51
I0925 19:59:03.116180  3461 net.cpp:129] Top shape: 100 64 8 8 (409600)
I0925 19:59:03.116183  3461 net.cpp:137] Memory required for data: 1130087600
I0925 19:59:03.116186  3461 layer_factory.hpp:77] Creating layer Eltwise24
I0925 19:59:03.116190  3461 net.cpp:84] Creating Layer Eltwise24
I0925 19:59:03.116194  3461 net.cpp:406] Eltwise24 <- Eltwise23_penlu47_0_split_1
I0925 19:59:03.116196  3461 net.cpp:406] Eltwise24 <- Convolution51
I0925 19:59:03.116199  3461 net.cpp:380] Eltwise24 -> Eltwise24
I0925 19:59:03.116217  3461 net.cpp:122] Setting up Eltwise24
I0925 19:59:03.116222  3461 net.cpp:129] Top shape: 100 64 8 8 (409600)
I0925 19:59:03.116225  3461 net.cpp:137] Memory required for data: 1131726000
I0925 19:59:03.116233  3461 layer_factory.hpp:77] Creating layer penlu49
I0925 19:59:03.116240  3461 net.cpp:84] Creating Layer penlu49
I0925 19:59:03.116241  3461 net.cpp:406] penlu49 <- Eltwise24
I0925 19:59:03.116245  3461 net.cpp:367] penlu49 -> Eltwise24 (in-place)
I0925 19:59:03.116364  3461 net.cpp:122] Setting up penlu49
I0925 19:59:03.116369  3461 net.cpp:129] Top shape: 100 64 8 8 (409600)
I0925 19:59:03.116371  3461 net.cpp:137] Memory required for data: 1133364400
I0925 19:59:03.116376  3461 layer_factory.hpp:77] Creating layer Eltwise24_penlu49_0_split
I0925 19:59:03.116380  3461 net.cpp:84] Creating Layer Eltwise24_penlu49_0_split
I0925 19:59:03.116382  3461 net.cpp:406] Eltwise24_penlu49_0_split <- Eltwise24
I0925 19:59:03.116385  3461 net.cpp:380] Eltwise24_penlu49_0_split -> Eltwise24_penlu49_0_split_0
I0925 19:59:03.116390  3461 net.cpp:380] Eltwise24_penlu49_0_split -> Eltwise24_penlu49_0_split_1
I0925 19:59:03.116426  3461 net.cpp:122] Setting up Eltwise24_penlu49_0_split
I0925 19:59:03.131250  3461 net.cpp:129] Top shape: 100 64 8 8 (409600)
I0925 19:59:03.131261  3461 net.cpp:129] Top shape: 100 64 8 8 (409600)
I0925 19:59:03.131264  3461 net.cpp:137] Memory required for data: 1136641200
I0925 19:59:03.131268  3461 layer_factory.hpp:77] Creating layer Convolution52
I0925 19:59:03.131274  3461 net.cpp:84] Creating Layer Convolution52
I0925 19:59:03.131278  3461 net.cpp:406] Convolution52 <- Eltwise24_penlu49_0_split_0
I0925 19:59:03.131283  3461 net.cpp:380] Convolution52 -> Convolution52
I0925 19:59:03.133888  3461 net.cpp:122] Setting up Convolution52
I0925 19:59:03.133898  3461 net.cpp:129] Top shape: 100 64 8 8 (409600)
I0925 19:59:03.133899  3461 net.cpp:137] Memory required for data: 1138279600
I0925 19:59:03.133904  3461 layer_factory.hpp:77] Creating layer BatchNorm52
I0925 19:59:03.133910  3461 net.cpp:84] Creating Layer BatchNorm52
I0925 19:59:03.133913  3461 net.cpp:406] BatchNorm52 <- Convolution52
I0925 19:59:03.133919  3461 net.cpp:367] BatchNorm52 -> Convolution52 (in-place)
I0925 19:59:03.134063  3461 net.cpp:122] Setting up BatchNorm52
I0925 19:59:03.134068  3461 net.cpp:129] Top shape: 100 64 8 8 (409600)
I0925 19:59:03.134071  3461 net.cpp:137] Memory required for data: 1139918000
I0925 19:59:03.134075  3461 layer_factory.hpp:77] Creating layer Scale52
I0925 19:59:03.134083  3461 net.cpp:84] Creating Layer Scale52
I0925 19:59:03.134085  3461 net.cpp:406] Scale52 <- Convolution52
I0925 19:59:03.134088  3461 net.cpp:367] Scale52 -> Convolution52 (in-place)
I0925 19:59:03.134119  3461 layer_factory.hpp:77] Creating layer Scale52
I0925 19:59:03.134202  3461 net.cpp:122] Setting up Scale52
I0925 19:59:03.134207  3461 net.cpp:129] Top shape: 100 64 8 8 (409600)
I0925 19:59:03.134208  3461 net.cpp:137] Memory required for data: 1141556400
I0925 19:59:03.134212  3461 layer_factory.hpp:77] Creating layer penlu50
I0925 19:59:03.134234  3461 net.cpp:84] Creating Layer penlu50
I0925 19:59:03.134238  3461 net.cpp:406] penlu50 <- Convolution52
I0925 19:59:03.134241  3461 net.cpp:367] penlu50 -> Convolution52 (in-place)
I0925 19:59:03.134361  3461 net.cpp:122] Setting up penlu50
I0925 19:59:03.134366  3461 net.cpp:129] Top shape: 100 64 8 8 (409600)
I0925 19:59:03.134368  3461 net.cpp:137] Memory required for data: 1143194800
I0925 19:59:03.134412  3461 layer_factory.hpp:77] Creating layer Convolution53
I0925 19:59:03.134418  3461 net.cpp:84] Creating Layer Convolution53
I0925 19:59:03.134421  3461 net.cpp:406] Convolution53 <- Convolution52
I0925 19:59:03.134425  3461 net.cpp:380] Convolution53 -> Convolution53
I0925 19:59:03.136214  3461 net.cpp:122] Setting up Convolution53
I0925 19:59:03.136224  3461 net.cpp:129] Top shape: 100 64 8 8 (409600)
I0925 19:59:03.136225  3461 net.cpp:137] Memory required for data: 1144833200
I0925 19:59:03.136230  3461 layer_factory.hpp:77] Creating layer BatchNorm53
I0925 19:59:03.136236  3461 net.cpp:84] Creating Layer BatchNorm53
I0925 19:59:03.136240  3461 net.cpp:406] BatchNorm53 <- Convolution53
I0925 19:59:03.136243  3461 net.cpp:367] BatchNorm53 -> Convolution53 (in-place)
I0925 19:59:03.136389  3461 net.cpp:122] Setting up BatchNorm53
I0925 19:59:03.136394  3461 net.cpp:129] Top shape: 100 64 8 8 (409600)
I0925 19:59:03.136396  3461 net.cpp:137] Memory required for data: 1146471600
I0925 19:59:03.136400  3461 layer_factory.hpp:77] Creating layer Scale53
I0925 19:59:03.136404  3461 net.cpp:84] Creating Layer Scale53
I0925 19:59:03.136407  3461 net.cpp:406] Scale53 <- Convolution53
I0925 19:59:03.136410  3461 net.cpp:367] Scale53 -> Convolution53 (in-place)
I0925 19:59:03.136440  3461 layer_factory.hpp:77] Creating layer Scale53
I0925 19:59:03.136546  3461 net.cpp:122] Setting up Scale53
I0925 19:59:03.136553  3461 net.cpp:129] Top shape: 100 64 8 8 (409600)
I0925 19:59:03.136554  3461 net.cpp:137] Memory required for data: 1148110000
I0925 19:59:03.136559  3461 layer_factory.hpp:77] Creating layer Eltwise25
I0925 19:59:03.136564  3461 net.cpp:84] Creating Layer Eltwise25
I0925 19:59:03.136569  3461 net.cpp:406] Eltwise25 <- Eltwise24_penlu49_0_split_1
I0925 19:59:03.136571  3461 net.cpp:406] Eltwise25 <- Convolution53
I0925 19:59:03.136574  3461 net.cpp:380] Eltwise25 -> Eltwise25
I0925 19:59:03.136592  3461 net.cpp:122] Setting up Eltwise25
I0925 19:59:03.136596  3461 net.cpp:129] Top shape: 100 64 8 8 (409600)
I0925 19:59:03.136598  3461 net.cpp:137] Memory required for data: 1149748400
I0925 19:59:03.136600  3461 layer_factory.hpp:77] Creating layer penlu51
I0925 19:59:03.136606  3461 net.cpp:84] Creating Layer penlu51
I0925 19:59:03.136610  3461 net.cpp:406] penlu51 <- Eltwise25
I0925 19:59:03.136612  3461 net.cpp:367] penlu51 -> Eltwise25 (in-place)
I0925 19:59:03.136729  3461 net.cpp:122] Setting up penlu51
I0925 19:59:03.136734  3461 net.cpp:129] Top shape: 100 64 8 8 (409600)
I0925 19:59:03.136735  3461 net.cpp:137] Memory required for data: 1151386800
I0925 19:59:03.136740  3461 layer_factory.hpp:77] Creating layer Eltwise25_penlu51_0_split
I0925 19:59:03.136744  3461 net.cpp:84] Creating Layer Eltwise25_penlu51_0_split
I0925 19:59:03.136746  3461 net.cpp:406] Eltwise25_penlu51_0_split <- Eltwise25
I0925 19:59:03.136750  3461 net.cpp:380] Eltwise25_penlu51_0_split -> Eltwise25_penlu51_0_split_0
I0925 19:59:03.136754  3461 net.cpp:380] Eltwise25_penlu51_0_split -> Eltwise25_penlu51_0_split_1
I0925 19:59:03.136777  3461 net.cpp:122] Setting up Eltwise25_penlu51_0_split
I0925 19:59:03.136781  3461 net.cpp:129] Top shape: 100 64 8 8 (409600)
I0925 19:59:03.136783  3461 net.cpp:129] Top shape: 100 64 8 8 (409600)
I0925 19:59:03.136786  3461 net.cpp:137] Memory required for data: 1154663600
I0925 19:59:03.136788  3461 layer_factory.hpp:77] Creating layer Convolution54
I0925 19:59:03.136795  3461 net.cpp:84] Creating Layer Convolution54
I0925 19:59:03.136797  3461 net.cpp:406] Convolution54 <- Eltwise25_penlu51_0_split_0
I0925 19:59:03.136801  3461 net.cpp:380] Convolution54 -> Convolution54
I0925 19:59:03.138803  3461 net.cpp:122] Setting up Convolution54
I0925 19:59:03.138813  3461 net.cpp:129] Top shape: 100 64 8 8 (409600)
I0925 19:59:03.138814  3461 net.cpp:137] Memory required for data: 1156302000
I0925 19:59:03.138819  3461 layer_factory.hpp:77] Creating layer BatchNorm54
I0925 19:59:03.138824  3461 net.cpp:84] Creating Layer BatchNorm54
I0925 19:59:03.138828  3461 net.cpp:406] BatchNorm54 <- Convolution54
I0925 19:59:03.138830  3461 net.cpp:367] BatchNorm54 -> Convolution54 (in-place)
I0925 19:59:03.138978  3461 net.cpp:122] Setting up BatchNorm54
I0925 19:59:03.138983  3461 net.cpp:129] Top shape: 100 64 8 8 (409600)
I0925 19:59:03.138985  3461 net.cpp:137] Memory required for data: 1157940400
I0925 19:59:03.138989  3461 layer_factory.hpp:77] Creating layer Scale54
I0925 19:59:03.138994  3461 net.cpp:84] Creating Layer Scale54
I0925 19:59:03.138996  3461 net.cpp:406] Scale54 <- Convolution54
I0925 19:59:03.139000  3461 net.cpp:367] Scale54 -> Convolution54 (in-place)
I0925 19:59:03.139029  3461 layer_factory.hpp:77] Creating layer Scale54
I0925 19:59:03.139111  3461 net.cpp:122] Setting up Scale54
I0925 19:59:03.139116  3461 net.cpp:129] Top shape: 100 64 8 8 (409600)
I0925 19:59:03.139123  3461 net.cpp:137] Memory required for data: 1159578800
I0925 19:59:03.139128  3461 layer_factory.hpp:77] Creating layer penlu52
I0925 19:59:03.139134  3461 net.cpp:84] Creating Layer penlu52
I0925 19:59:03.139137  3461 net.cpp:406] penlu52 <- Convolution54
I0925 19:59:03.139140  3461 net.cpp:367] penlu52 -> Convolution54 (in-place)
I0925 19:59:03.139259  3461 net.cpp:122] Setting up penlu52
I0925 19:59:03.139264  3461 net.cpp:129] Top shape: 100 64 8 8 (409600)
I0925 19:59:03.139266  3461 net.cpp:137] Memory required for data: 1161217200
I0925 19:59:03.139271  3461 layer_factory.hpp:77] Creating layer Convolution55
I0925 19:59:03.139277  3461 net.cpp:84] Creating Layer Convolution55
I0925 19:59:03.139281  3461 net.cpp:406] Convolution55 <- Convolution54
I0925 19:59:03.139284  3461 net.cpp:380] Convolution55 -> Convolution55
I0925 19:59:03.141002  3461 net.cpp:122] Setting up Convolution55
I0925 19:59:03.141011  3461 net.cpp:129] Top shape: 100 64 8 8 (409600)
I0925 19:59:03.141014  3461 net.cpp:137] Memory required for data: 1162855600
I0925 19:59:03.141019  3461 layer_factory.hpp:77] Creating layer BatchNorm55
I0925 19:59:03.141024  3461 net.cpp:84] Creating Layer BatchNorm55
I0925 19:59:03.141027  3461 net.cpp:406] BatchNorm55 <- Convolution55
I0925 19:59:03.141031  3461 net.cpp:367] BatchNorm55 -> Convolution55 (in-place)
I0925 19:59:03.141170  3461 net.cpp:122] Setting up BatchNorm55
I0925 19:59:03.141175  3461 net.cpp:129] Top shape: 100 64 8 8 (409600)
I0925 19:59:03.141177  3461 net.cpp:137] Memory required for data: 1164494000
I0925 19:59:03.141182  3461 layer_factory.hpp:77] Creating layer Scale55
I0925 19:59:03.141194  3461 net.cpp:84] Creating Layer Scale55
I0925 19:59:03.141197  3461 net.cpp:406] Scale55 <- Convolution55
I0925 19:59:03.141201  3461 net.cpp:367] Scale55 -> Convolution55 (in-place)
I0925 19:59:03.141229  3461 layer_factory.hpp:77] Creating layer Scale55
I0925 19:59:03.141314  3461 net.cpp:122] Setting up Scale55
I0925 19:59:03.141317  3461 net.cpp:129] Top shape: 100 64 8 8 (409600)
I0925 19:59:03.141319  3461 net.cpp:137] Memory required for data: 1166132400
I0925 19:59:03.141324  3461 layer_factory.hpp:77] Creating layer Eltwise26
I0925 19:59:03.141327  3461 net.cpp:84] Creating Layer Eltwise26
I0925 19:59:03.141330  3461 net.cpp:406] Eltwise26 <- Eltwise25_penlu51_0_split_1
I0925 19:59:03.141335  3461 net.cpp:406] Eltwise26 <- Convolution55
I0925 19:59:03.141337  3461 net.cpp:380] Eltwise26 -> Eltwise26
I0925 19:59:03.141355  3461 net.cpp:122] Setting up Eltwise26
I0925 19:59:03.141360  3461 net.cpp:129] Top shape: 100 64 8 8 (409600)
I0925 19:59:03.141361  3461 net.cpp:137] Memory required for data: 1167770800
I0925 19:59:03.141363  3461 layer_factory.hpp:77] Creating layer penlu53
I0925 19:59:03.141369  3461 net.cpp:84] Creating Layer penlu53
I0925 19:59:03.141371  3461 net.cpp:406] penlu53 <- Eltwise26
I0925 19:59:03.141376  3461 net.cpp:367] penlu53 -> Eltwise26 (in-place)
I0925 19:59:03.141494  3461 net.cpp:122] Setting up penlu53
I0925 19:59:03.141499  3461 net.cpp:129] Top shape: 100 64 8 8 (409600)
I0925 19:59:03.141501  3461 net.cpp:137] Memory required for data: 1169409200
I0925 19:59:03.141506  3461 layer_factory.hpp:77] Creating layer Eltwise26_penlu53_0_split
I0925 19:59:03.141510  3461 net.cpp:84] Creating Layer Eltwise26_penlu53_0_split
I0925 19:59:03.141511  3461 net.cpp:406] Eltwise26_penlu53_0_split <- Eltwise26
I0925 19:59:03.141515  3461 net.cpp:380] Eltwise26_penlu53_0_split -> Eltwise26_penlu53_0_split_0
I0925 19:59:03.141520  3461 net.cpp:380] Eltwise26_penlu53_0_split -> Eltwise26_penlu53_0_split_1
I0925 19:59:03.141543  3461 net.cpp:122] Setting up Eltwise26_penlu53_0_split
I0925 19:59:03.141547  3461 net.cpp:129] Top shape: 100 64 8 8 (409600)
I0925 19:59:03.141551  3461 net.cpp:129] Top shape: 100 64 8 8 (409600)
I0925 19:59:03.141552  3461 net.cpp:137] Memory required for data: 1172686000
I0925 19:59:03.141554  3461 layer_factory.hpp:77] Creating layer Convolution56
I0925 19:59:03.141561  3461 net.cpp:84] Creating Layer Convolution56
I0925 19:59:03.141571  3461 net.cpp:406] Convolution56 <- Eltwise26_penlu53_0_split_0
I0925 19:59:03.141575  3461 net.cpp:380] Convolution56 -> Convolution56
I0925 19:59:03.143268  3461 net.cpp:122] Setting up Convolution56
I0925 19:59:03.143277  3461 net.cpp:129] Top shape: 100 64 8 8 (409600)
I0925 19:59:03.143280  3461 net.cpp:137] Memory required for data: 1174324400
I0925 19:59:03.143285  3461 layer_factory.hpp:77] Creating layer BatchNorm56
I0925 19:59:03.143290  3461 net.cpp:84] Creating Layer BatchNorm56
I0925 19:59:03.143291  3461 net.cpp:406] BatchNorm56 <- Convolution56
I0925 19:59:03.143296  3461 net.cpp:367] BatchNorm56 -> Convolution56 (in-place)
I0925 19:59:03.143441  3461 net.cpp:122] Setting up BatchNorm56
I0925 19:59:03.143446  3461 net.cpp:129] Top shape: 100 64 8 8 (409600)
I0925 19:59:03.143448  3461 net.cpp:137] Memory required for data: 1175962800
I0925 19:59:03.143453  3461 layer_factory.hpp:77] Creating layer Scale56
I0925 19:59:03.143457  3461 net.cpp:84] Creating Layer Scale56
I0925 19:59:03.143460  3461 net.cpp:406] Scale56 <- Convolution56
I0925 19:59:03.143465  3461 net.cpp:367] Scale56 -> Convolution56 (in-place)
I0925 19:59:03.143493  3461 layer_factory.hpp:77] Creating layer Scale56
I0925 19:59:03.143574  3461 net.cpp:122] Setting up Scale56
I0925 19:59:03.143579  3461 net.cpp:129] Top shape: 100 64 8 8 (409600)
I0925 19:59:03.143581  3461 net.cpp:137] Memory required for data: 1177601200
I0925 19:59:03.143585  3461 layer_factory.hpp:77] Creating layer penlu54
I0925 19:59:03.143591  3461 net.cpp:84] Creating Layer penlu54
I0925 19:59:03.143594  3461 net.cpp:406] penlu54 <- Convolution56
I0925 19:59:03.143599  3461 net.cpp:367] penlu54 -> Convolution56 (in-place)
I0925 19:59:03.143718  3461 net.cpp:122] Setting up penlu54
I0925 19:59:03.143721  3461 net.cpp:129] Top shape: 100 64 8 8 (409600)
I0925 19:59:03.143723  3461 net.cpp:137] Memory required for data: 1179239600
I0925 19:59:03.143728  3461 layer_factory.hpp:77] Creating layer Convolution57
I0925 19:59:03.143734  3461 net.cpp:84] Creating Layer Convolution57
I0925 19:59:03.143738  3461 net.cpp:406] Convolution57 <- Convolution56
I0925 19:59:03.143741  3461 net.cpp:380] Convolution57 -> Convolution57
I0925 19:59:03.145465  3461 net.cpp:122] Setting up Convolution57
I0925 19:59:03.145474  3461 net.cpp:129] Top shape: 100 64 8 8 (409600)
I0925 19:59:03.145476  3461 net.cpp:137] Memory required for data: 1180878000
I0925 19:59:03.145481  3461 layer_factory.hpp:77] Creating layer BatchNorm57
I0925 19:59:03.145485  3461 net.cpp:84] Creating Layer BatchNorm57
I0925 19:59:03.145488  3461 net.cpp:406] BatchNorm57 <- Convolution57
I0925 19:59:03.145493  3461 net.cpp:367] BatchNorm57 -> Convolution57 (in-place)
I0925 19:59:03.145639  3461 net.cpp:122] Setting up BatchNorm57
I0925 19:59:03.145644  3461 net.cpp:129] Top shape: 100 64 8 8 (409600)
I0925 19:59:03.145647  3461 net.cpp:137] Memory required for data: 1182516400
I0925 19:59:03.145651  3461 layer_factory.hpp:77] Creating layer Scale57
I0925 19:59:03.145655  3461 net.cpp:84] Creating Layer Scale57
I0925 19:59:03.145658  3461 net.cpp:406] Scale57 <- Convolution57
I0925 19:59:03.145663  3461 net.cpp:367] Scale57 -> Convolution57 (in-place)
I0925 19:59:03.145691  3461 layer_factory.hpp:77] Creating layer Scale57
I0925 19:59:03.145776  3461 net.cpp:122] Setting up Scale57
I0925 19:59:03.145779  3461 net.cpp:129] Top shape: 100 64 8 8 (409600)
I0925 19:59:03.145781  3461 net.cpp:137] Memory required for data: 1184154800
I0925 19:59:03.145786  3461 layer_factory.hpp:77] Creating layer Eltwise27
I0925 19:59:03.145789  3461 net.cpp:84] Creating Layer Eltwise27
I0925 19:59:03.145792  3461 net.cpp:406] Eltwise27 <- Eltwise26_penlu53_0_split_1
I0925 19:59:03.145795  3461 net.cpp:406] Eltwise27 <- Convolution57
I0925 19:59:03.145799  3461 net.cpp:380] Eltwise27 -> Eltwise27
I0925 19:59:03.145817  3461 net.cpp:122] Setting up Eltwise27
I0925 19:59:03.145823  3461 net.cpp:129] Top shape: 100 64 8 8 (409600)
I0925 19:59:03.145824  3461 net.cpp:137] Memory required for data: 1185793200
I0925 19:59:03.145833  3461 layer_factory.hpp:77] Creating layer penlu55
I0925 19:59:03.145838  3461 net.cpp:84] Creating Layer penlu55
I0925 19:59:03.145840  3461 net.cpp:406] penlu55 <- Eltwise27
I0925 19:59:03.145845  3461 net.cpp:367] penlu55 -> Eltwise27 (in-place)
I0925 19:59:03.145970  3461 net.cpp:122] Setting up penlu55
I0925 19:59:03.145975  3461 net.cpp:129] Top shape: 100 64 8 8 (409600)
I0925 19:59:03.145977  3461 net.cpp:137] Memory required for data: 1187431600
I0925 19:59:03.145982  3461 layer_factory.hpp:77] Creating layer Pooling1
I0925 19:59:03.145987  3461 net.cpp:84] Creating Layer Pooling1
I0925 19:59:03.145988  3461 net.cpp:406] Pooling1 <- Eltwise27
I0925 19:59:03.145992  3461 net.cpp:380] Pooling1 -> Pooling1
I0925 19:59:03.146476  3461 net.cpp:122] Setting up Pooling1
I0925 19:59:03.146484  3461 net.cpp:129] Top shape: 100 64 1 1 (6400)
I0925 19:59:03.161619  3461 net.cpp:137] Memory required for data: 1187457200
I0925 19:59:03.161628  3461 layer_factory.hpp:77] Creating layer InnerProduct1
I0925 19:59:03.161635  3461 net.cpp:84] Creating Layer InnerProduct1
I0925 19:59:03.161638  3461 net.cpp:406] InnerProduct1 <- Pooling1
I0925 19:59:03.161643  3461 net.cpp:380] InnerProduct1 -> InnerProduct1
I0925 19:59:03.161773  3461 net.cpp:122] Setting up InnerProduct1
I0925 19:59:03.161780  3461 net.cpp:129] Top shape: 100 10 (1000)
I0925 19:59:03.161782  3461 net.cpp:137] Memory required for data: 1187461200
I0925 19:59:03.161787  3461 layer_factory.hpp:77] Creating layer InnerProduct1_InnerProduct1_0_split
I0925 19:59:03.161792  3461 net.cpp:84] Creating Layer InnerProduct1_InnerProduct1_0_split
I0925 19:59:03.161794  3461 net.cpp:406] InnerProduct1_InnerProduct1_0_split <- InnerProduct1
I0925 19:59:03.161799  3461 net.cpp:380] InnerProduct1_InnerProduct1_0_split -> InnerProduct1_InnerProduct1_0_split_0
I0925 19:59:03.161804  3461 net.cpp:380] InnerProduct1_InnerProduct1_0_split -> InnerProduct1_InnerProduct1_0_split_1
I0925 19:59:03.161834  3461 net.cpp:122] Setting up InnerProduct1_InnerProduct1_0_split
I0925 19:59:03.161837  3461 net.cpp:129] Top shape: 100 10 (1000)
I0925 19:59:03.161840  3461 net.cpp:129] Top shape: 100 10 (1000)
I0925 19:59:03.161844  3461 net.cpp:137] Memory required for data: 1187469200
I0925 19:59:03.161845  3461 layer_factory.hpp:77] Creating layer SoftmaxWithLoss1
I0925 19:59:03.161850  3461 net.cpp:84] Creating Layer SoftmaxWithLoss1
I0925 19:59:03.161854  3461 net.cpp:406] SoftmaxWithLoss1 <- InnerProduct1_InnerProduct1_0_split_0
I0925 19:59:03.161856  3461 net.cpp:406] SoftmaxWithLoss1 <- Data2_Data1_1_split_0
…
