…
I1003 09:37:44.991128  7223 net.cpp:294] The NetState phase (0) differed from the phase (1) specified by a rule in layer Accuracy1
I1003 09:37:44.992193  7223 net.cpp:51] Initializing net from parameters: 
name: "resnet_cifar10"
state {
  phase: TRAIN
  level: 0
  stage: ""
}
layer {
  name: "Data1"
  type: "Data"
  top: "Data1"
  top: "Data2"
  include {
    phase: TRAIN
  }
  transform_param {
    mirror: true
    crop_size: 28
    mean_file: "/home/x306/caffe/xn/PENLU/data/cifar10/mean.binaryproto"
  }
  data_param {
    source: "/home/x306/caffe/xn/PENLU/data/cifar10/cifar10_train_lmdb"
    batch_size: 100
    backend: LMDB
  }
}
layer {
  name: "Convolution1"
  type: "Convolution"
  bottom: "Data1"
  top: "Convolution1"
  param {
    lr_mult: 1
    decay_mult: 1
  }
  param {
    lr_mult: 2
    decay_mult: 0
  }
  convolution_param {
    num_output: 16
    pad: 1
    kernel_size: 3
    stride: 1
    weight_filler {
      type: "gaussian"
      std: 0.118
    }
    bias_filler {
      type: "constant"
      value: 0
    }
  }
}
layer {
  name: "BatchNorm1"
  type: "BatchNorm"
  bottom: "Convolution1"
  top: "Convolution1"
  param {
    lr_mult: 0
    decay_mult: 0
  }
  param {
    lr_mult: 0
    decay_mult: 0
  }
  param {
    lr_mult: 0
    decay_mult: 0
  }
}
layer {
  name: "Scale1"
  type: "Scale"
  bottom: "Convolution1"
  top: "Convolution1"
  scale_param {
    bias_term: true
  }
}
layer {
  name: "M2PELU1"
  type: "M2PELU"
  bottom: "Convolution1"
  top: "Convolution1"
  param {
    lr_mult: 2
    decay_mult: 0
  }
  param {
    lr_mult: 2
    decay_mult: 0
  }
  m2pelu_param {
    alpha_filler {
      type: "constant"
      value: 2
    }
    beta_filler {
      type: "constant"
      value: 1
    }
  }
}
layer {
  name: "Convolution2"
  type: "Convolution"
  bottom: "Convolution1"
  top: "Convolution2"
  param {
    lr_mult: 1
    decay_mult: 1
  }
  param {
    lr_mult: 2
    decay_mult: 0
  }
  convolution_param {
    num_output: 16
    pad: 1
    kernel_size: 3
    stride: 1
    weight_filler {
      type: "gaussian"
      std: 0.118
    }
    bias_filler {
      type: "constant"
      value: 0
    }
  }
}
layer {
  name: "BatchNorm2"
  type: "BatchNorm"
  bottom: "Convolution2"
  top: "Convolution2"
  param {
    lr_mult: 0
    decay_mult: 0
  }
  param {
    lr_mult: 0
    decay_mult: 0
  }
  param {
    lr_mult: 0
    decay_mult: 0
  }
}
layer {
  name: "Scale2"
  type: "Scale"
  bottom: "Convolution2"
  top: "Convolution2"
  scale_param {
    bias_term: true
  }
}
layer {
  name: "M2PELU2"
  type: "M2PELU"
  bottom: "Convolution2"
  top: "Convolution2"
  param {
    lr_mult: 2
    decay_mult: 0
  }
  param {
    lr_mult: 2
    decay_mult: 0
  }
  m2pelu_param {
    alpha_filler {
      type: "constant"
      value: 2
    }
    beta_filler {
      type: "constant"
      value: 1
    }
  }
}
layer {
  name: "Convolution3"
  type: "Convolution"
  bottom: "Convolution2"
  top: "Convolution3"
  param {
    lr_mult: 1
    decay_mult: 1
  }
  param {
    lr_mult: 2
    decay_mult: 0
  }
  convolution_param {
    num_output: 16
    pad: 1
    kernel_size: 3
    stride: 1
    weight_filler {
      type: "gaussian"
      std: 0.118
    }
    bias_filler {
      type: "constant"
      value: 0
    }
  }
}
layer {
  name: "BatchNorm3"
  type: "BatchNorm"
  bottom: "Convolution3"
  top: "Convolution3"
  param {
    lr_mult: 0
    decay_mult: 0
  }
  param {
    lr_mult: 0
    decay_mult: 0
  }
  param {
    lr_mult: 0
    decay_mult: 0
  }
}
layer {
  name: "Scale3"
  type: "Scale"
  bottom: "Convolution3"
  top: "Convolution3"
  scale_param {
    bias_term: true
  }
}
layer {
  name: "Eltwise1"
  type: "Eltwise"
  bottom: "Convolution1"
  bottom: "Convolution3"
  top: "Eltwise1"
  eltwise_param {
    operation: SUM
  }
}
layer {
  name: "M2PELU3"
  type: "M2PELU"
  bottom: "Eltwise1"
  top: "Eltwise1"
  param {
    lr_mult: 2
    decay_mult: 0
  }
  param {
    lr_mult: 2
    decay_mult: 0
  }
  m2pelu_param {
    alpha_filler {
      type: "constant"
      value: 2
    }
    beta_filler {
      type: "constant"
      value: 1
    }
  }
}
layer {
  name: "Convolution4"
  type: "Convolution"
  bottom: "Eltwise1"
  top: "Convolution4"
  param {
    lr_mult: 1
    decay_mult: 1
  }
  param {
    lr_mult: 2
    decay_mult: 0
  }
  convolution_param {
    num_output: 16
    pad: 1
    kernel_size: 3
    stride: 1
    weight_filler {
      type: "gaussian"
      std: 0.118
    }
    bias_filler {
      type: "constant"
      value: 0
    }
  }
}
layer {
  name: "BatchNorm4"
  type: "BatchNorm"
  bottom: "Convolution4"
  top: "Convolution4"
  param {
    lr_mult: 0
    decay_mult: 0
  }
  param {
    lr_mult: 0
    decay_mult: 0
  }
  param {
    lr_mult: 0
    decay_mult: 0
  }
}
layer {
  name: "Scale4"
  type: "Scale"
  bottom: "Convolution4"
  top: "Convolution4"
  scale_param {
    bias_term: true
  }
}
layer {
  name: "M2PELU4"
  type: "M2PELU"
  bottom: "Convolution4"
  top: "Convolution4"
  param {
    lr_mult: 2
    decay_mult: 0
  }
  param {
    lr_mult: 2
    decay_mult: 0
  }
  m2pelu_param {
    alpha_filler {
      type: "constant"
      value: 2
    }
    beta_filler {
      type: "constant"
      value: 1
    }
  }
}
layer {
  name: "Convolution5"
  type: "Convolution"
  bottom: "Convolution4"
  top: "Convolution5"
  param {
    lr_mult: 1
    decay_mult: 1
  }
  param {
    lr_mult: 2
    decay_mult: 0
  }
  convolution_param {
    num_output: 16
    pad: 1
    kernel_size: 3
    stride: 1
    weight_filler {
      type: "gaussian"
      std: 0.118
    }
    bias_filler {
      type: "constant"
      value: 0
    }
  }
}
layer {
  name: "BatchNorm5"
  type: "BatchNorm"
  bottom: "Convolution5"
  top: "Convolution5"
  param {
    lr_mult: 0
    decay_mult: 0
  }
  param {
    lr_mult: 0
    decay_mult: 0
  }
  param {
    lr_mult: 0
    decay_mult: 0
  }
}
layer {
  name: "Scale5"
  type: "Scale"
  bottom: "Convolution5"
  top: "Convolution5"
  scale_param {
    bias_term: true
  }
}
layer {
  name: "Eltwise2"
  type: "Eltwise"
  bottom: "Eltwise1"
  bottom: "Convolution5"
  top: "Eltwise2"
  eltwise_param {
    operation: SUM
  }
}
layer {
  name: "M2PELU5"
  type: "M2PELU"
  bottom: "Eltwise2"
  top: "Eltwise2"
  param {
    lr_mult: 2
    decay_mult: 0
  }
  param {
    lr_mult: 2
    decay_mult: 0
  }
  m2pelu_param {
    alpha_filler {
      type: "constant"
      value: 2
    }
    beta_filler {
      type: "constant"
      value: 1
    }
  }
}
layer {
  name: "Convolution6"
  type: "Convolution"
  bottom: "Eltwise2"
  top: "Convolution6"
  param {
    lr_mult: 1
    decay_mult: 1
  }
  param {
    lr_mult: 2
    decay_mult: 0
  }
  convolution_param {
    num_output: 16
    pad: 1
    kernel_size: 3
    stride: 1
    weight_filler {
      type: "gaussian"
      std: 0.118
    }
    bias_filler {
      type: "constant"
      value: 0
    }
  }
}
layer {
  name: "BatchNorm6"
  type: "BatchNorm"
  bottom: "Convolution6"
  top: "Convolution6"
  param {
    lr_mult: 0
    decay_mult: 0
  }
  param {
    lr_mult: 0
    decay_mult: 0
  }
  param {
    lr_mult: 0
    decay_mult: 0
  }
}
layer {
  name: "Scale6"
  type: "Scale"
  bottom: "Convolution6"
  top: "Convolution6"
  scale_param {
    bias_term: true
  }
}
layer {
  name: "M2PELU6"
  type: "M2PELU"
  bottom: "Convolution6"
  top: "Convolution6"
  param {
    lr_mult: 2
    decay_mult: 0
  }
  param {
    lr_mult: 2
    decay_mult: 0
  }
  m2pelu_param {
    alpha_filler {
      type: "constant"
      value: 2
    }
    beta_filler {
      type: "constant"
      value: 1
    }
  }
}
layer {
  name: "Convolution7"
  type: "Convolution"
  bottom: "Convolution6"
  top: "Convolution7"
  param {
    lr_mult: 1
    decay_mult: 1
  }
  param {
    lr_mult: 2
    decay_mult: 0
  }
  convolution_param {
    num_output: 16
    pad: 1
    kernel_size: 3
    stride: 1
    weight_filler {
      type: "gaussian"
      std: 0.118
    }
    bias_filler {
      type: "constant"
      value: 0
    }
  }
}
layer {
  name: "BatchNorm7"
  type: "BatchNorm"
  bottom: "Convolution7"
  top: "Convolution7"
  param {
    lr_mult: 0
    decay_mult: 0
  }
  param {
    lr_mult: 0
    decay_mult: 0
  }
  param {
    lr_mult: 0
    decay_mult: 0
  }
}
layer {
  name: "Scale7"
  type: "Scale"
  bottom: "Convolution7"
  top: "Convolution7"
  scale_param {
    bias_term: true
  }
}
layer {
  name: "Eltwise3"
  type: "Eltwise"
  bottom: "Eltwise2"
  bottom: "Convolution7"
  top: "Eltwise3"
  eltwise_param {
    operation: SUM
  }
}
layer {
  name: "M2PELU7"
  type: "M2PELU"
  bottom: "Eltwise3"
  top: "Eltwise3"
  param {
    lr_mult: 2
    decay_mult: 0
  }
  param {
    lr_mult: 2
    decay_mult: 0
  }
  m2pelu_param {
    alpha_filler {
      type: "constant"
      value: 2
    }
    beta_filler {
      type: "constant"
      value: 1
    }
  }
}
layer {
  name: "Convolution8"
  type: "Convolution"
  bottom: "Eltwise3"
  top: "Convolution8"
  param {
    lr_mult: 1
    decay_mult: 1
  }
  param {
    lr_mult: 2
    decay_mult: 0
  }
  convolution_param {
    num_output: 16
    pad: 1
    kernel_size: 3
    stride: 1
    weight_filler {
      type: "gaussian"
      std: 0.118
    }
    bias_filler {
      type: "constant"
      value: 0
    }
  }
}
layer {
  name: "BatchNorm8"
  type: "BatchNorm"
  bottom: "Convolution8"
  top: "Convolution8"
  param {
    lr_mult: 0
    decay_mult: 0
  }
  param {
    lr_mult: 0
    decay_mult: 0
  }
  param {
    lr_mult: 0
    decay_mult: 0
  }
}
layer {
  name: "Scale8"
  type: "Scale"
  bottom: "Convolution8"
  top: "Convolution8"
  scale_param {
    bias_term: true
  }
}
layer {
  name: "M2PELU8"
  type: "M2PELU"
  bottom: "Convolution8"
  top: "Convolution8"
  param {
    lr_mult: 2
    decay_mult: 0
  }
  param {
    lr_mult: 2
    decay_mult: 0
  }
  m2pelu_param {
    alpha_filler {
      type: "constant"
      value: 2
    }
    beta_filler {
      type: "constant"
      value: 1
    }
  }
}
layer {
  name: "Convolution9"
  type: "Convolution"
  bottom: "Convolution8"
  top: "Convolution9"
  param {
    lr_mult: 1
    decay_mult: 1
  }
  param {
    lr_mult: 2
    decay_mult: 0
  }
  convolution_param {
    num_output: 16
    pad: 1
    kernel_size: 3
    stride: 1
    weight_filler {
      type: "gaussian"
      std: 0.118
    }
    bias_filler {
      type: "constant"
      value: 0
    }
  }
}
layer {
  name: "BatchNorm9"
  type: "BatchNorm"
  bottom: "Convolution9"
  top: "Convolution9"
  param {
    lr_mult: 0
    decay_mult: 0
  }
  param {
    lr_mult: 0
    decay_mult: 0
  }
  param {
    lr_mult: 0
    decay_mult: 0
  }
}
layer {
  name: "Scale9"
  type: "Scale"
  bottom: "Convolution9"
  top: "Convolution9"
  scale_param {
    bias_term: true
  }
}
layer {
  name: "Eltwise4"
  type: "Eltwise"
  bottom: "Eltwise3"
  bottom: "Convolution9"
  top: "Eltwise4"
  eltwise_param {
    operation: SUM
  }
}
layer {
  name: "M2PELU9"
  type: "M2PELU"
  bottom: "Eltwise4"
  top: "Eltwise4"
  param {
    lr_mult: 2
    decay_mult: 0
  }
  param {
    lr_mult: 2
    decay_mult: 0
  }
  m2pelu_param {
    alpha_filler {
      type: "constant"
      value: 2
    }
    beta_filler {
      type: "constant"
      value: 1
    }
  }
}
layer {
  name: "Convolution10"
  type: "Convolution"
  bottom: "Eltwise4"
  top: "Convolution10"
  param {
    lr_mult: 1
    decay_mult: 1
  }
  param {
    lr_mult: 2
    decay_mult: 0
  }
  convolution_param {
    num_output: 16
    pad: 1
    kernel_size: 3
    stride: 1
    weight_filler {
      type: "gaussian"
      std: 0.118
    }
    bias_filler {
      type: "constant"
      value: 0
    }
  }
}
layer {
  name: "BatchNorm10"
  type: "BatchNorm"
  bottom: "Convolution10"
  top: "Convolution10"
  param {
    lr_mult: 0
    decay_mult: 0
  }
  param {
    lr_mult: 0
    decay_mult: 0
  }
  param {
    lr_mult: 0
    decay_mult: 0
  }
}
layer {
  name: "Scale10"
  type: "Scale"
  bottom: "Convolution10"
  top: "Convolution10"
  scale_param {
    bias_term: true
  }
}
layer {
  name: "M2PELU10"
  type: "M2PELU"
  bottom: "Convolution10"
  top: "Convolution10"
  param {
    lr_mult: 2
    decay_mult: 0
  }
  param {
    lr_mult: 2
    decay_mult: 0
  }
  m2pelu_param {
    alpha_filler {
      type: "constant"
      value: 2
    }
    beta_filler {
      type: "constant"
      value: 1
    }
  }
}
layer {
  name: "Convolution11"
  type: "Convolution"
  bottom: "Convolution10"
  top: "Convolution11"
  param {
    lr_mult: 1
    decay_mult: 1
  }
  param {
    lr_mult: 2
    decay_mult: 0
  }
  convolution_param {
    num_output: 16
    pad: 1
    kernel_size: 3
    stride: 1
    weight_filler {
      type: "gaussian"
      std: 0.118
    }
    bias_filler {
      type: "constant"
      value: 0
    }
  }
}
layer {
  name: "BatchNorm11"
  type: "BatchNorm"
  bottom: "Convolution11"
  top: "Convolution11"
  param {
    lr_mult: 0
    decay_mult: 0
  }
  param {
    lr_mult: 0
    decay_mult: 0
  }
  param {
    lr_mult: 0
    decay_mult: 0
  }
}
layer {
  name: "Scale11"
  type: "Scale"
  bottom: "Convolution11"
  top: "Convolution11"
  scale_param {
    bias_term: true
  }
}
layer {
  name: "Eltwise5"
  type: "Eltwise"
  bottom: "Eltwise4"
  bottom: "Convolution11"
  top: "Eltwise5"
  eltwise_param {
    operation: SUM
  }
}
layer {
  name: "M2PELU11"
  type: "M2PELU"
  bottom: "Eltwise5"
  top: "Eltwise5"
  param {
    lr_mult: 2
    decay_mult: 0
  }
  param {
    lr_mult: 2
    decay_mult: 0
  }
  m2pelu_param {
    alpha_filler {
      type: "constant"
      value: 2
    }
    beta_filler {
      type: "constant"
      value: 1
    }
  }
}
layer {
  name: "Convolution12"
  type: "Convolution"
  bottom: "Eltwise5"
  top: "Convolution12"
  param {
    lr_mult: 1
    decay_mult: 1
  }
  param {
    lr_mult: 2
    decay_mult: 0
  }
  convolution_param {
    num_output: 16
    pad: 1
    kernel_size: 3
    stride: 1
    weight_filler {
      type: "gaussian"
      std: 0.118
    }
    bias_filler {
      type: "constant"
      value: 0
    }
  }
}
layer {
  name: "BatchNorm12"
  type: "BatchNorm"
  bottom: "Convolution12"
  top: "Convolution12"
  param {
    lr_mult: 0
    decay_mult: 0
  }
  param {
    lr_mult: 0
    decay_mult: 0
  }
  param {
    lr_mult: 0
    decay_mult: 0
  }
}
layer {
  name: "Scale12"
  type: "Scale"
  bottom: "Convolution12"
  top: "Convolution12"
  scale_param {
    bias_term: true
  }
}
layer {
  name: "M2PELU12"
  type: "M2PELU"
  bottom: "Convolution12"
  top: "Convolution12"
  param {
    lr_mult: 2
    decay_mult: 0
  }
  param {
    lr_mult: 2
    decay_mult: 0
  }
  m2pelu_param {
    alpha_filler {
      type: "constant"
      value: 2
    }
    beta_filler {
      type: "constant"
      value: 1
    }
  }
}
layer {
  name: "Convolution13"
  type: "Convolution"
  bottom: "Convolution12"
  top: "Convolution13"
  param {
    lr_mult: 1
    decay_mult: 1
  }
  param {
    lr_mult: 2
    decay_mult: 0
  }
  convolution_param {
    num_output: 16
    pad: 1
    kernel_size: 3
    stride: 1
    weight_filler {
      type: "gaussian"
      std: 0.118
    }
    bias_filler {
      type: "constant"
      value: 0
    }
  }
}
layer {
  name: "BatchNorm13"
  type: "BatchNorm"
  bottom: "Convolution13"
  top: "Convolution13"
  param {
    lr_mult: 0
    decay_mult: 0
  }
  param {
    lr_mult: 0
    decay_mult: 0
  }
  param {
    lr_mult: 0
    decay_mult: 0
  }
}
layer {
  name: "Scale13"
  type: "Scale"
  bottom: "Convolution13"
  top: "Convolution13"
  scale_param {
    bias_term: true
  }
}
layer {
  name: "Eltwise6"
  type: "Eltwise"
  bottom: "Eltwise5"
  bottom: "Convolution13"
  top: "Eltwise6"
  eltwise_param {
    operation: SUM
  }
}
layer {
  name: "M2PELU13"
  type: "M2PELU"
  bottom: "Eltwise6"
  top: "Eltwise6"
  param {
    lr_mult: 2
    decay_mult: 0
  }
  param {
    lr_mult: 2
    decay_mult: 0
  }
  m2pelu_param {
    alpha_filler {
      type: "constant"
      value: 2
    }
    beta_filler {
      type: "constant"
      value: 1
    }
  }
}
layer {
  name: "Convolution14"
  type: "Convolution"
  bottom: "Eltwise6"
  top: "Convolution14"
  param {
    lr_mult: 1
    decay_mult: 1
  }
  param {
    lr_mult: 2
    decay_mult: 0
  }
  convolution_param {
    num_output: 16
    pad: 1
    kernel_size: 3
    stride: 1
    weight_filler {
      type: "gaussian"
      std: 0.118
    }
    bias_filler {
      type: "constant"
      value: 0
    }
  }
}
layer {
  name: "BatchNorm14"
  type: "BatchNorm"
  bottom: "Convolution14"
  top: "Convolution14"
  param {
    lr_mult: 0
    decay_mult: 0
  }
  param {
    lr_mult: 0
    decay_mult: 0
  }
  param {
    lr_mult: 0
    decay_mult: 0
  }
}
layer {
  name: "Scale14"
  type: "Scale"
  bottom: "Convolution14"
  top: "Convolution14"
  scale_param {
    bias_term: true
  }
}
layer {
  name: "M2PELU14"
  type: "M2PELU"
  bottom: "Convolution14"
  top: "Convolution14"
  param {
    lr_mult: 2
    decay_mult: 0
  }
  param {
    lr_mult: 2
    decay_mult: 0
  }
  m2pelu_param {
    alpha_filler {
      type: "constant"
      value: 2
    }
    beta_filler {
      type: "constant"
      value: 1
    }
  }
}
layer {
  name: "Convolution15"
  type: "Convolution"
  bottom: "Convolution14"
  top: "Convolution15"
  param {
    lr_mult: 1
    decay_mult: 1
  }
  param {
    lr_mult: 2
    decay_mult: 0
  }
  convolution_param {
    num_output: 16
    pad: 1
    kernel_size: 3
    stride: 1
    weight_filler {
      type: "gaussian"
      std: 0.118
    }
    bias_filler {
      type: "constant"
      value: 0
    }
  }
}
layer {
  name: "BatchNorm15"
  type: "BatchNorm"
  bottom: "Convolution15"
  top: "Convolution15"
  param {
    lr_mult: 0
    decay_mult: 0
  }
  param {
    lr_mult: 0
    decay_mult: 0
  }
  param {
    lr_mult: 0
    decay_mult: 0
  }
}
layer {
  name: "Scale15"
  type: "Scale"
  bottom: "Convolution15"
  top: "Convolution15"
  scale_param {
    bias_term: true
  }
}
layer {
  name: "Eltwise7"
  type: "Eltwise"
  bottom: "Eltwise6"
  bottom: "Convolution15"
  top: "Eltwise7"
  eltwise_param {
    operation: SUM
  }
}
layer {
  name: "M2PELU15"
  type: "M2PELU"
  bottom: "Eltwise7"
  top: "Eltwise7"
  param {
    lr_mult: 2
    decay_mult: 0
  }
  param {
    lr_mult: 2
    decay_mult: 0
  }
  m2pelu_param {
    alpha_filler {
      type: "constant"
      value: 2
    }
    beta_filler {
      type: "constant"
      value: 1
    }
  }
}
layer {
  name: "Convolution16"
  type: "Convolution"
  bottom: "Eltwise7"
  top: "Convolution16"
  param {
    lr_mult: 1
    decay_mult: 1
  }
  param {
    lr_mult: 2
    decay_mult: 0
  }
  convolution_param {
    num_output: 16
    pad: 1
    kernel_size: 3
    stride: 1
    weight_filler {
      type: "gaussian"
      std: 0.118
    }
    bias_filler {
      type: "constant"
      value: 0
    }
  }
}
layer {
  name: "BatchNorm16"
  type: "BatchNorm"
  bottom: "Convolution16"
  top: "Convolution16"
  param {
    lr_mult: 0
    decay_mult: 0
  }
  param {
    lr_mult: 0
    decay_mult: 0
  }
  param {
    lr_mult: 0
    decay_mult: 0
  }
}
layer {
  name: "Scale16"
  type: "Scale"
  bottom: "Convolution16"
  top: "Convolution16"
  scale_param {
    bias_term: true
  }
}
layer {
  name: "M2PELU16"
  type: "M2PELU"
  bottom: "Convolution16"
  top: "Convolution16"
  param {
    lr_mult: 2
    decay_mult: 0
  }
  param {
    lr_mult: 2
    decay_mult: 0
  }
  m2pelu_param {
    alpha_filler {
      type: "constant"
      value: 2
    }
    beta_filler {
      type: "constant"
      value: 1
    }
  }
}
layer {
  name: "Convolution17"
  type: "Convolution"
  bottom: "Convolution16"
  top: "Convolution17"
  param {
    lr_mult: 1
    decay_mult: 1
  }
  param {
    lr_mult: 2
    decay_mult: 0
  }
  convolution_param {
    num_output: 16
    pad: 1
    kernel_size: 3
    stride: 1
    weight_filler {
      type: "gaussian"
      std: 0.118
    }
    bias_filler {
      type: "constant"
      value: 0
    }
  }
}
layer {
  name: "BatchNorm17"
  type: "BatchNorm"
  bottom: "Convolution17"
  top: "Convolution17"
  param {
    lr_mult: 0
    decay_mult: 0
  }
  param {
    lr_mult: 0
    decay_mult: 0
  }
  param {
    lr_mult: 0
    decay_mult: 0
  }
}
layer {
  name: "Scale17"
  type: "Scale"
  bottom: "Convolution17"
  top: "Convolution17"
  scale_param {
    bias_term: true
  }
}
layer {
  name: "Eltwise8"
  type: "Eltwise"
  bottom: "Eltwise7"
  bottom: "Convolution17"
  top: "Eltwise8"
  eltwise_param {
    operation: SUM
  }
}
layer {
  name: "M2PELU17"
  type: "M2PELU"
  bottom: "Eltwise8"
  top: "Eltwise8"
  param {
    lr_mult: 2
    decay_mult: 0
  }
  param {
    lr_mult: 2
    decay_mult: 0
  }
  m2pelu_param {
    alpha_filler {
      type: "constant"
      value: 2
    }
    beta_filler {
      type: "constant"
      value: 1
    }
  }
}
layer {
  name: "Convolution18"
  type: "Convolution"
  bottom: "Eltwise8"
  top: "Convolution18"
  param {
    lr_mult: 1
    decay_mult: 1
  }
  param {
    lr_mult: 2
    decay_mult: 0
  }
  convolution_param {
    num_output: 16
    pad: 1
    kernel_size: 3
    stride: 1
    weight_filler {
      type: "gaussian"
      std: 0.118
    }
    bias_filler {
      type: "constant"
      value: 0
    }
  }
}
layer {
  name: "BatchNorm18"
  type: "BatchNorm"
  bottom: "Convolution18"
  top: "Convolution18"
  param {
    lr_mult: 0
    decay_mult: 0
  }
  param {
    lr_mult: 0
    decay_mult: 0
  }
  param {
    lr_mult: 0
    decay_mult: 0
  }
}
layer {
  name: "Scale18"
  type: "Scale"
  bottom: "Convolution18"
  top: "Convolution18"
  scale_param {
    bias_term: true
  }
}
layer {
  name: "M2PELU18"
  type: "M2PELU"
  bottom: "Convolution18"
  top: "Convolution18"
  param {
    lr_mult: 2
    decay_mult: 0
  }
  param {
    lr_mult: 2
    decay_mult: 0
  }
  m2pelu_param {
    alpha_filler {
      type: "constant"
      value: 2
    }
    beta_filler {
      type: "constant"
      value: 1
    }
  }
}
layer {
  name: "Convolution19"
  type: "Convolution"
  bottom: "Convolution18"
  top: "Convolution19"
  param {
    lr_mult: 1
    decay_mult: 1
  }
  param {
    lr_mult: 2
    decay_mult: 0
  }
  convolution_param {
    num_output: 16
    pad: 1
    kernel_size: 3
    stride: 1
    weight_filler {
      type: "gaussian"
      std: 0.118
    }
    bias_filler {
      type: "constant"
      value: 0
    }
  }
}
layer {
  name: "BatchNorm19"
  type: "BatchNorm"
  bottom: "Convolution19"
  top: "Convolution19"
  param {
    lr_mult: 0
    decay_mult: 0
  }
  param {
    lr_mult: 0
    decay_mult: 0
  }
  param {
    lr_mult: 0
    decay_mult: 0
  }
}
layer {
  name: "Scale19"
  type: "Scale"
  bottom: "Convolution19"
  top: "Convolution19"
  scale_param {
    bias_term: true
  }
}
layer {
  name: "Eltwise9"
  type: "Eltwise"
  bottom: "Eltwise8"
  bottom: "Convolution19"
  top: "Eltwise9"
  eltwise_param {
    operation: SUM
  }
}
layer {
  name: "M2PELU19"
  type: "M2PELU"
  bottom: "Eltwise9"
  top: "Eltwise9"
  param {
    lr_mult: 2
    decay_mult: 0
  }
  param {
    lr_mult: 2
    decay_mult: 0
  }
  m2pelu_param {
    alpha_filler {
      type: "constant"
      value: 2
    }
    beta_filler {
      type: "constant"
      value: 1
    }
  }
}
layer {
  name: "Convolution20"
  type: "Convolution"
  bottom: "Eltwise9"
  top: "Convolution20"
  param {
    lr_mult: 1
    decay_mult: 1
  }
  param {
    lr_mult: 2
    decay_mult: 0
  }
  convolution_param {
    num_output: 32
    pad: 0
    kernel_size: 1
    stride: 2
    weight_filler {
      type: "gaussian"
      std: 0.25
    }
    bias_filler {
      type: "constant"
      value: 0
    }
  }
}
layer {
  name: "BatchNorm20"
  type: "BatchNorm"
  bottom: "Convolution20"
  top: "Convolution20"
  param {
    lr_mult: 0
    decay_mult: 0
  }
  param {
    lr_mult: 0
    decay_mult: 0
  }
  param {
    lr_mult: 0
    decay_mult: 0
  }
}
layer {
  name: "Scale20"
  type: "Scale"
  bottom: "Convolution20"
  top: "Convolution20"
  scale_param {
    bias_term: true
  }
}
layer {
  name: "Convolution21"
  type: "Convolution"
  bottom: "Eltwise9"
  top: "Convolution21"
  param {
    lr_mult: 1
    decay_mult: 1
  }
  param {
    lr_mult: 2
    decay_mult: 0
  }
  convolution_param {
    num_output: 32
    pad: 1
    kernel_size: 3
    stride: 2
    weight_filler {
      type: "gaussian"
      std: 0.083
    }
    bias_filler {
      type: "constant"
      value: 0
    }
  }
}
layer {
  name: "BatchNorm21"
  type: "BatchNorm"
  bottom: "Convolution21"
  top: "Convolution21"
  param {
    lr_mult: 0
    decay_mult: 0
  }
  param {
    lr_mult: 0
    decay_mult: 0
  }
  param {
    lr_mult: 0
    decay_mult: 0
  }
}
layer {
  name: "Scale21"
  type: "Scale"
  bottom: "Convolution21"
  top: "Convolution21"
  scale_param {
    bias_term: true
  }
}
layer {
  name: "M2PELU20"
  type: "M2PELU"
  bottom: "Convolution21"
  top: "Convolution21"
  param {
    lr_mult: 2
    decay_mult: 0
  }
  param {
    lr_mult: 2
    decay_mult: 0
  }
  m2pelu_param {
    alpha_filler {
      type: "constant"
      value: 2
    }
    beta_filler {
      type: "constant"
      value: 1
    }
  }
}
layer {
  name: "Convolution22"
  type: "Convolution"
  bottom: "Convolution21"
  top: "Convolution22"
  param {
    lr_mult: 1
    decay_mult: 1
  }
  param {
    lr_mult: 2
    decay_mult: 0
  }
  convolution_param {
    num_output: 32
    pad: 1
    kernel_size: 3
    stride: 1
    weight_filler {
      type: "gaussian"
      std: 0.083
    }
    bias_filler {
      type: "constant"
      value: 0
    }
  }
}
layer {
  name: "BatchNorm22"
  type: "BatchNorm"
  bottom: "Convolution22"
  top: "Convolution22"
  param {
    lr_mult: 0
    decay_mult: 0
  }
  param {
    lr_mult: 0
    decay_mult: 0
  }
  param {
    lr_mult: 0
    decay_mult: 0
  }
}
layer {
  name: "Scale22"
  type: "Scale"
  bottom: "Convolution22"
  top: "Convolution22"
  scale_param {
    bias_term: true
  }
}
layer {
  name: "Eltwise10"
  type: "Eltwise"
  bottom: "Convolution20"
  bottom: "Convolution22"
  top: "Eltwise10"
  eltwise_param {
    operation: SUM
  }
}
layer {
  name: "M2PELU21"
  type: "M2PELU"
  bottom: "Eltwise10"
  top: "Eltwise10"
  param {
    lr_mult: 2
    decay_mult: 0
  }
  param {
    lr_mult: 2
    decay_mult: 0
  }
  m2pelu_param {
    alpha_filler {
      type: "constant"
      value: 2
    }
    beta_filler {
      type: "constant"
      value: 1
    }
  }
}
layer {
  name: "Convolution23"
  type: "Convolution"
  bottom: "Eltwise10"
  top: "Convolution23"
  param {
    lr_mult: 1
    decay_mult: 1
  }
  param {
    lr_mult: 2
    decay_mult: 0
  }
  convolution_param {
    num_output: 32
    pad: 1
    kernel_size: 3
    stride: 1
    weight_filler {
      type: "gaussian"
      std: 0.083
    }
    bias_filler {
      type: "constant"
      value: 0
    }
  }
}
layer {
  name: "BatchNorm23"
  type: "BatchNorm"
  bottom: "Convolution23"
  top: "Convolution23"
  param {
    lr_mult: 0
    decay_mult: 0
  }
  param {
    lr_mult: 0
    decay_mult: 0
  }
  param {
    lr_mult: 0
    decay_mult: 0
  }
}
layer {
  name: "Scale23"
  type: "Scale"
  bottom: "Convolution23"
  top: "Convolution23"
  scale_param {
    bias_term: true
  }
}
layer {
  name: "M2PELU22"
  type: "M2PELU"
  bottom: "Convolution23"
  top: "Convolution23"
  param {
    lr_mult: 2
    decay_mult: 0
  }
  param {
    lr_mult: 2
    decay_mult: 0
  }
  m2pelu_param {
    alpha_filler {
      type: "constant"
      value: 2
    }
    beta_filler {
      type: "constant"
      value: 1
    }
  }
}
layer {
  name: "Convolution24"
  type: "Convolution"
  bottom: "Convolution23"
  top: "Convolution24"
  param {
    lr_mult: 1
    decay_mult: 1
  }
  param {
    lr_mult: 2
    decay_mult: 0
  }
  convolution_param {
    num_output: 32
    pad: 1
    kernel_size: 3
    stride: 1
    weight_filler {
      type: "gaussian"
      std: 0.083
    }
    bias_filler {
      type: "constant"
      value: 0
    }
  }
}
layer {
  name: "BatchNorm24"
  type: "BatchNorm"
  bottom: "Convolution24"
  top: "Convolution24"
  param {
    lr_mult: 0
    decay_mult: 0
  }
  param {
    lr_mult: 0
    decay_mult: 0
  }
  param {
    lr_mult: 0
    decay_mult: 0
  }
}
layer {
  name: "Scale24"
  type: "Scale"
  bottom: "Convolution24"
  top: "Convolution24"
  scale_param {
    bias_term: true
  }
}
layer {
  name: "Eltwise11"
  type: "Eltwise"
  bottom: "Eltwise10"
  bottom: "Convolution24"
  top: "Eltwise11"
  eltwise_param {
    operation: SUM
  }
}
layer {
  name: "M2PELU23"
  type: "M2PELU"
  bottom: "Eltwise11"
  top: "Eltwise11"
  param {
    lr_mult: 2
    decay_mult: 0
  }
  param {
    lr_mult: 2
    decay_mult: 0
  }
  m2pelu_param {
    alpha_filler {
      type: "constant"
      value: 2
    }
    beta_filler {
      type: "constant"
      value: 1
    }
  }
}
layer {
  name: "Convolution25"
  type: "Convolution"
  bottom: "Eltwise11"
  top: "Convolution25"
  param {
    lr_mult: 1
    decay_mult: 1
  }
  param {
    lr_mult: 2
    decay_mult: 0
  }
  convolution_param {
    num_output: 32
    pad: 1
    kernel_size: 3
    stride: 1
    weight_filler {
      type: "gaussian"
      std: 0.083
    }
    bias_filler {
      type: "constant"
      value: 0
    }
  }
}
layer {
  name: "BatchNorm25"
  type: "BatchNorm"
  bottom: "Convolution25"
  top: "Convolution25"
  param {
    lr_mult: 0
    decay_mult: 0
  }
  param {
    lr_mult: 0
    decay_mult: 0
  }
  param {
    lr_mult: 0
    decay_mult: 0
  }
}
layer {
  name: "Scale25"
  type: "Scale"
  bottom: "Convolution25"
  top: "Convolution25"
  scale_param {
    bias_term: true
  }
}
layer {
  name: "M2PELU24"
  type: "M2PELU"
  bottom: "Convolution25"
  top: "Convolution25"
  param {
    lr_mult: 2
    decay_mult: 0
  }
  param {
    lr_mult: 2
    decay_mult: 0
  }
  m2pelu_param {
    alpha_filler {
      type: "constant"
      value: 2
    }
    beta_filler {
      type: "constant"
      value: 1
    }
  }
}
layer {
  name: "Convolution26"
  type: "Convolution"
  bottom: "Convolution25"
  top: "Convolution26"
  param {
    lr_mult: 1
    decay_mult: 1
  }
  param {
    lr_mult: 2
    decay_mult: 0
  }
  convolution_param {
    num_output: 32
    pad: 1
I1003 09:37:44.992919  7223 layer_factory.hpp:77] Creating layer Data1
I1003 09:37:44.993000  7223 db_lmdb.cpp:35] Opened lmdb /home/x306/caffe/xn/PENLU/data/cifar10/cifar10_train_lmdb
I1003 09:37:44.993021  7223 net.cpp:84] Creating Layer Data1
I1003 09:37:44.993026  7223 net.cpp:380] Data1 -> Data1
I1003 09:37:44.993044  7223 net.cpp:380] Data1 -> Data2
I1003 09:37:44.993052  7223 data_transformer.cpp:25] Loading mean file from: /home/x306/caffe/xn/PENLU/data/cifar10/mean.binaryproto
I1003 09:37:44.994518  7223 data_layer.cpp:45] output data size: 100,3,28,28
I1003 09:37:44.997054  7223 net.cpp:122] Setting up Data1
I1003 09:37:44.997076  7223 net.cpp:129] Top shape: 100 3 28 28 (235200)
I1003 09:37:44.997081  7223 net.cpp:129] Top shape: 100 (100)
I1003 09:37:44.997082  7223 net.cpp:137] Memory required for data: 941200
I1003 09:37:44.997087  7223 layer_factory.hpp:77] Creating layer Convolution1
I1003 09:37:44.997102  7223 net.cpp:84] Creating Layer Convolution1
I1003 09:37:44.997107  7223 net.cpp:406] Convolution1 <- Data1
I1003 09:37:44.997114  7223 net.cpp:380] Convolution1 -> Convolution1
I1003 09:37:45.144860  7223 net.cpp:122] Setting up Convolution1
I1003 09:37:45.144883  7223 net.cpp:129] Top shape: 100 16 28 28 (1254400)
I1003 09:37:45.144886  7223 net.cpp:137] Memory required for data: 5958800
I1003 09:37:45.144912  7223 layer_factory.hpp:77] Creating layer BatchNorm1
I1003 09:37:45.144938  7223 net.cpp:84] Creating Layer BatchNorm1
I1003 09:37:45.144961  7223 net.cpp:406] BatchNorm1 <- Convolution1
I1003 09:37:45.144966  7223 net.cpp:367] BatchNorm1 -> Convolution1 (in-place)
I1003 09:37:45.145104  7223 net.cpp:122] Setting up BatchNorm1
I1003 09:37:45.145109  7223 net.cpp:129] Top shape: 100 16 28 28 (1254400)
I1003 09:37:45.145112  7223 net.cpp:137] Memory required for data: 10976400
I1003 09:37:45.145130  7223 layer_factory.hpp:77] Creating layer Scale1
I1003 09:37:45.145139  7223 net.cpp:84] Creating Layer Scale1
I1003 09:37:45.145143  7223 net.cpp:406] Scale1 <- Convolution1
I1003 09:37:45.145146  7223 net.cpp:367] Scale1 -> Convolution1 (in-place)
I1003 09:37:45.145196  7223 layer_factory.hpp:77] Creating layer Scale1
I1003 09:37:45.145311  7223 net.cpp:122] Setting up Scale1
I1003 09:37:45.145316  7223 net.cpp:129] Top shape: 100 16 28 28 (1254400)
I1003 09:37:45.145318  7223 net.cpp:137] Memory required for data: 15994000
I1003 09:37:45.145323  7223 layer_factory.hpp:77] Creating layer M2PELU1
I1003 09:37:45.145334  7223 net.cpp:84] Creating Layer M2PELU1
I1003 09:37:45.145336  7223 net.cpp:406] M2PELU1 <- Convolution1
I1003 09:37:45.145341  7223 net.cpp:367] M2PELU1 -> Convolution1 (in-place)
I1003 09:37:45.145953  7223 net.cpp:122] Setting up M2PELU1
I1003 09:37:45.145964  7223 net.cpp:129] Top shape: 100 16 28 28 (1254400)
I1003 09:37:45.145967  7223 net.cpp:137] Memory required for data: 21011600
I1003 09:37:45.145984  7223 layer_factory.hpp:77] Creating layer Convolution1_M2PELU1_0_split
I1003 09:37:45.145992  7223 net.cpp:84] Creating Layer Convolution1_M2PELU1_0_split
I1003 09:37:45.145994  7223 net.cpp:406] Convolution1_M2PELU1_0_split <- Convolution1
I1003 09:37:45.145998  7223 net.cpp:380] Convolution1_M2PELU1_0_split -> Convolution1_M2PELU1_0_split_0
I1003 09:37:45.146003  7223 net.cpp:380] Convolution1_M2PELU1_0_split -> Convolution1_M2PELU1_0_split_1
I1003 09:37:45.146028  7223 net.cpp:122] Setting up Convolution1_M2PELU1_0_split
I1003 09:37:45.146034  7223 net.cpp:129] Top shape: 100 16 28 28 (1254400)
I1003 09:37:45.146037  7223 net.cpp:129] Top shape: 100 16 28 28 (1254400)
I1003 09:37:45.146040  7223 net.cpp:137] Memory required for data: 31046800
I1003 09:37:45.146044  7223 layer_factory.hpp:77] Creating layer Convolution2
I1003 09:37:45.146050  7223 net.cpp:84] Creating Layer Convolution2
I1003 09:37:45.146054  7223 net.cpp:406] Convolution2 <- Convolution1_M2PELU1_0_split_0
I1003 09:37:45.146059  7223 net.cpp:380] Convolution2 -> Convolution2
I1003 09:37:45.146971  7223 net.cpp:122] Setting up Convolution2
I1003 09:37:45.146982  7223 net.cpp:129] Top shape: 100 16 28 28 (1254400)
I1003 09:37:45.146986  7223 net.cpp:137] Memory required for data: 36064400
I1003 09:37:45.146991  7223 layer_factory.hpp:77] Creating layer BatchNorm2
I1003 09:37:45.146997  7223 net.cpp:84] Creating Layer BatchNorm2
I1003 09:37:45.147001  7223 net.cpp:406] BatchNorm2 <- Convolution2
I1003 09:37:45.147004  7223 net.cpp:367] BatchNorm2 -> Convolution2 (in-place)
I1003 09:37:45.147131  7223 net.cpp:122] Setting up BatchNorm2
I1003 09:37:45.147136  7223 net.cpp:129] Top shape: 100 16 28 28 (1254400)
I1003 09:37:45.147140  7223 net.cpp:137] Memory required for data: 41082000
I1003 09:37:45.147145  7223 layer_factory.hpp:77] Creating layer Scale2
I1003 09:37:45.147150  7223 net.cpp:84] Creating Layer Scale2
I1003 09:37:45.147153  7223 net.cpp:406] Scale2 <- Convolution2
I1003 09:37:45.147156  7223 net.cpp:367] Scale2 -> Convolution2 (in-place)
I1003 09:37:45.147186  7223 layer_factory.hpp:77] Creating layer Scale2
I1003 09:37:45.147270  7223 net.cpp:122] Setting up Scale2
I1003 09:37:45.147275  7223 net.cpp:129] Top shape: 100 16 28 28 (1254400)
I1003 09:37:45.147279  7223 net.cpp:137] Memory required for data: 46099600
I1003 09:37:45.147294  7223 layer_factory.hpp:77] Creating layer M2PELU2
I1003 09:37:45.147298  7223 net.cpp:84] Creating Layer M2PELU2
I1003 09:37:45.147301  7223 net.cpp:406] M2PELU2 <- Convolution2
I1003 09:37:45.147305  7223 net.cpp:367] M2PELU2 -> Convolution2 (in-place)
I1003 09:37:45.147385  7223 net.cpp:122] Setting up M2PELU2
I1003 09:37:45.147398  7223 net.cpp:129] Top shape: 100 16 28 28 (1254400)
I1003 09:37:45.147402  7223 net.cpp:137] Memory required for data: 51117200
I1003 09:37:45.147409  7223 layer_factory.hpp:77] Creating layer Convolution3
I1003 09:37:45.147418  7223 net.cpp:84] Creating Layer Convolution3
I1003 09:37:45.147420  7223 net.cpp:406] Convolution3 <- Convolution2
I1003 09:37:45.147424  7223 net.cpp:380] Convolution3 -> Convolution3
I1003 09:37:45.148316  7223 net.cpp:122] Setting up Convolution3
I1003 09:37:45.148326  7223 net.cpp:129] Top shape: 100 16 28 28 (1254400)
I1003 09:37:45.148329  7223 net.cpp:137] Memory required for data: 56134800
I1003 09:37:45.148334  7223 layer_factory.hpp:77] Creating layer BatchNorm3
I1003 09:37:45.148339  7223 net.cpp:84] Creating Layer BatchNorm3
I1003 09:37:45.148342  7223 net.cpp:406] BatchNorm3 <- Convolution3
I1003 09:37:45.148347  7223 net.cpp:367] BatchNorm3 -> Convolution3 (in-place)
I1003 09:37:45.148473  7223 net.cpp:122] Setting up BatchNorm3
I1003 09:37:45.148478  7223 net.cpp:129] Top shape: 100 16 28 28 (1254400)
I1003 09:37:45.148480  7223 net.cpp:137] Memory required for data: 61152400
I1003 09:37:45.148485  7223 layer_factory.hpp:77] Creating layer Scale3
I1003 09:37:45.148490  7223 net.cpp:84] Creating Layer Scale3
I1003 09:37:45.148494  7223 net.cpp:406] Scale3 <- Convolution3
I1003 09:37:45.148497  7223 net.cpp:367] Scale3 -> Convolution3 (in-place)
I1003 09:37:45.148522  7223 layer_factory.hpp:77] Creating layer Scale3
I1003 09:37:45.148598  7223 net.cpp:122] Setting up Scale3
I1003 09:37:45.148604  7223 net.cpp:129] Top shape: 100 16 28 28 (1254400)
I1003 09:37:45.148607  7223 net.cpp:137] Memory required for data: 66170000
I1003 09:37:45.148612  7223 layer_factory.hpp:77] Creating layer Eltwise1
I1003 09:37:45.148617  7223 net.cpp:84] Creating Layer Eltwise1
I1003 09:37:45.148619  7223 net.cpp:406] Eltwise1 <- Convolution1_M2PELU1_0_split_1
I1003 09:37:45.148622  7223 net.cpp:406] Eltwise1 <- Convolution3
I1003 09:37:45.148627  7223 net.cpp:380] Eltwise1 -> Eltwise1
I1003 09:37:45.148645  7223 net.cpp:122] Setting up Eltwise1
I1003 09:37:45.148650  7223 net.cpp:129] Top shape: 100 16 28 28 (1254400)
I1003 09:37:45.148653  7223 net.cpp:137] Memory required for data: 71187600
I1003 09:37:45.148655  7223 layer_factory.hpp:77] Creating layer M2PELU3
I1003 09:37:45.148660  7223 net.cpp:84] Creating Layer M2PELU3
I1003 09:37:45.148663  7223 net.cpp:406] M2PELU3 <- Eltwise1
I1003 09:37:45.148668  7223 net.cpp:367] M2PELU3 -> Eltwise1 (in-place)
I1003 09:37:45.148749  7223 net.cpp:122] Setting up M2PELU3
I1003 09:37:45.148754  7223 net.cpp:129] Top shape: 100 16 28 28 (1254400)
I1003 09:37:45.148757  7223 net.cpp:137] Memory required for data: 76205200
I1003 09:37:45.148761  7223 layer_factory.hpp:77] Creating layer Eltwise1_M2PELU3_0_split
I1003 09:37:45.148766  7223 net.cpp:84] Creating Layer Eltwise1_M2PELU3_0_split
I1003 09:37:45.148769  7223 net.cpp:406] Eltwise1_M2PELU3_0_split <- Eltwise1
I1003 09:37:45.148773  7223 net.cpp:380] Eltwise1_M2PELU3_0_split -> Eltwise1_M2PELU3_0_split_0
I1003 09:37:45.148778  7223 net.cpp:380] Eltwise1_M2PELU3_0_split -> Eltwise1_M2PELU3_0_split_1
I1003 09:37:45.148802  7223 net.cpp:122] Setting up Eltwise1_M2PELU3_0_split
I1003 09:37:45.148807  7223 net.cpp:129] Top shape: 100 16 28 28 (1254400)
I1003 09:37:45.148809  7223 net.cpp:129] Top shape: 100 16 28 28 (1254400)
I1003 09:37:45.148811  7223 net.cpp:137] Memory required for data: 86240400
I1003 09:37:45.148814  7223 layer_factory.hpp:77] Creating layer Convolution4
I1003 09:37:45.148821  7223 net.cpp:84] Creating Layer Convolution4
I1003 09:37:45.148824  7223 net.cpp:406] Convolution4 <- Eltwise1_M2PELU3_0_split_0
I1003 09:37:45.148830  7223 net.cpp:380] Convolution4 -> Convolution4
I1003 09:37:45.149709  7223 net.cpp:122] Setting up Convolution4
I1003 09:37:45.149718  7223 net.cpp:129] Top shape: 100 16 28 28 (1254400)
I1003 09:37:45.149722  7223 net.cpp:137] Memory required for data: 91258000
I1003 09:37:45.149727  7223 layer_factory.hpp:77] Creating layer BatchNorm4
I1003 09:37:45.149739  7223 net.cpp:84] Creating Layer BatchNorm4
I1003 09:37:45.149744  7223 net.cpp:406] BatchNorm4 <- Convolution4
I1003 09:37:45.149747  7223 net.cpp:367] BatchNorm4 -> Convolution4 (in-place)
I1003 09:37:45.149873  7223 net.cpp:122] Setting up BatchNorm4
I1003 09:37:45.149878  7223 net.cpp:129] Top shape: 100 16 28 28 (1254400)
I1003 09:37:45.149880  7223 net.cpp:137] Memory required for data: 96275600
I1003 09:37:45.149885  7223 layer_factory.hpp:77] Creating layer Scale4
I1003 09:37:45.149890  7223 net.cpp:84] Creating Layer Scale4
I1003 09:37:45.149893  7223 net.cpp:406] Scale4 <- Convolution4
I1003 09:37:45.149896  7223 net.cpp:367] Scale4 -> Convolution4 (in-place)
I1003 09:37:45.149922  7223 layer_factory.hpp:77] Creating layer Scale4
I1003 09:37:45.149996  7223 net.cpp:122] Setting up Scale4
I1003 09:37:45.149999  7223 net.cpp:129] Top shape: 100 16 28 28 (1254400)
I1003 09:37:45.150002  7223 net.cpp:137] Memory required for data: 101293200
I1003 09:37:45.150012  7223 layer_factory.hpp:77] Creating layer M2PELU4
I1003 09:37:45.150017  7223 net.cpp:84] Creating Layer M2PELU4
I1003 09:37:45.150020  7223 net.cpp:406] M2PELU4 <- Convolution4
I1003 09:37:45.150024  7223 net.cpp:367] M2PELU4 -> Convolution4 (in-place)
I1003 09:37:45.150104  7223 net.cpp:122] Setting up M2PELU4
I1003 09:37:45.150110  7223 net.cpp:129] Top shape: 100 16 28 28 (1254400)
I1003 09:37:45.150112  7223 net.cpp:137] Memory required for data: 106310800
I1003 09:37:45.150116  7223 layer_factory.hpp:77] Creating layer Convolution5
I1003 09:37:45.150123  7223 net.cpp:84] Creating Layer Convolution5
I1003 09:37:45.150126  7223 net.cpp:406] Convolution5 <- Convolution4
I1003 09:37:45.150130  7223 net.cpp:380] Convolution5 -> Convolution5
I1003 09:37:45.151022  7223 net.cpp:122] Setting up Convolution5
I1003 09:37:45.151032  7223 net.cpp:129] Top shape: 100 16 28 28 (1254400)
I1003 09:37:45.151036  7223 net.cpp:137] Memory required for data: 111328400
I1003 09:37:45.151041  7223 layer_factory.hpp:77] Creating layer BatchNorm5
I1003 09:37:45.151046  7223 net.cpp:84] Creating Layer BatchNorm5
I1003 09:37:45.151051  7223 net.cpp:406] BatchNorm5 <- Convolution5
I1003 09:37:45.151054  7223 net.cpp:367] BatchNorm5 -> Convolution5 (in-place)
I1003 09:37:45.151177  7223 net.cpp:122] Setting up BatchNorm5
I1003 09:37:45.151183  7223 net.cpp:129] Top shape: 100 16 28 28 (1254400)
I1003 09:37:45.151186  7223 net.cpp:137] Memory required for data: 116346000
I1003 09:37:45.151191  7223 layer_factory.hpp:77] Creating layer Scale5
I1003 09:37:45.151196  7223 net.cpp:84] Creating Layer Scale5
I1003 09:37:45.151199  7223 net.cpp:406] Scale5 <- Convolution5
I1003 09:37:45.151202  7223 net.cpp:367] Scale5 -> Convolution5 (in-place)
I1003 09:37:45.151229  7223 layer_factory.hpp:77] Creating layer Scale5
I1003 09:37:45.151304  7223 net.cpp:122] Setting up Scale5
I1003 09:37:45.151309  7223 net.cpp:129] Top shape: 100 16 28 28 (1254400)
I1003 09:37:45.151311  7223 net.cpp:137] Memory required for data: 121363600
I1003 09:37:45.151315  7223 layer_factory.hpp:77] Creating layer Eltwise2
I1003 09:37:45.151321  7223 net.cpp:84] Creating Layer Eltwise2
I1003 09:37:45.151324  7223 net.cpp:406] Eltwise2 <- Eltwise1_M2PELU3_0_split_1
I1003 09:37:45.151327  7223 net.cpp:406] Eltwise2 <- Convolution5
I1003 09:37:45.151331  7223 net.cpp:380] Eltwise2 -> Eltwise2
I1003 09:37:45.151346  7223 net.cpp:122] Setting up Eltwise2
I1003 09:37:45.151351  7223 net.cpp:129] Top shape: 100 16 28 28 (1254400)
I1003 09:37:45.151355  7223 net.cpp:137] Memory required for data: 126381200
I1003 09:37:45.151356  7223 layer_factory.hpp:77] Creating layer M2PELU5
I1003 09:37:45.151362  7223 net.cpp:84] Creating Layer M2PELU5
I1003 09:37:45.151365  7223 net.cpp:406] M2PELU5 <- Eltwise2
I1003 09:37:45.151368  7223 net.cpp:367] M2PELU5 -> Eltwise2 (in-place)
I1003 09:37:45.151450  7223 net.cpp:122] Setting up M2PELU5
I1003 09:37:45.151455  7223 net.cpp:129] Top shape: 100 16 28 28 (1254400)
I1003 09:37:45.151458  7223 net.cpp:137] Memory required for data: 131398800
I1003 09:37:45.151463  7223 layer_factory.hpp:77] Creating layer Eltwise2_M2PELU5_0_split
I1003 09:37:45.151474  7223 net.cpp:84] Creating Layer Eltwise2_M2PELU5_0_split
I1003 09:37:45.151477  7223 net.cpp:406] Eltwise2_M2PELU5_0_split <- Eltwise2
I1003 09:37:45.151481  7223 net.cpp:380] Eltwise2_M2PELU5_0_split -> Eltwise2_M2PELU5_0_split_0
I1003 09:37:45.151485  7223 net.cpp:380] Eltwise2_M2PELU5_0_split -> Eltwise2_M2PELU5_0_split_1
I1003 09:37:45.151510  7223 net.cpp:122] Setting up Eltwise2_M2PELU5_0_split
I1003 09:37:45.151515  7223 net.cpp:129] Top shape: 100 16 28 28 (1254400)
I1003 09:37:45.151518  7223 net.cpp:129] Top shape: 100 16 28 28 (1254400)
I1003 09:37:45.151521  7223 net.cpp:137] Memory required for data: 141434000
I1003 09:37:45.151523  7223 layer_factory.hpp:77] Creating layer Convolution6
I1003 09:37:45.151530  7223 net.cpp:84] Creating Layer Convolution6
I1003 09:37:45.151533  7223 net.cpp:406] Convolution6 <- Eltwise2_M2PELU5_0_split_0
I1003 09:37:45.151537  7223 net.cpp:380] Convolution6 -> Convolution6
I1003 09:37:45.152426  7223 net.cpp:122] Setting up Convolution6
I1003 09:37:45.152436  7223 net.cpp:129] Top shape: 100 16 28 28 (1254400)
I1003 09:37:45.152438  7223 net.cpp:137] Memory required for data: 146451600
I1003 09:37:45.152443  7223 layer_factory.hpp:77] Creating layer BatchNorm6
I1003 09:37:45.152449  7223 net.cpp:84] Creating Layer BatchNorm6
I1003 09:37:45.152452  7223 net.cpp:406] BatchNorm6 <- Convolution6
I1003 09:37:45.152456  7223 net.cpp:367] BatchNorm6 -> Convolution6 (in-place)
I1003 09:37:45.152590  7223 net.cpp:122] Setting up BatchNorm6
I1003 09:37:45.152595  7223 net.cpp:129] Top shape: 100 16 28 28 (1254400)
I1003 09:37:45.152597  7223 net.cpp:137] Memory required for data: 151469200
I1003 09:37:45.152602  7223 layer_factory.hpp:77] Creating layer Scale6
I1003 09:37:45.152607  7223 net.cpp:84] Creating Layer Scale6
I1003 09:37:45.152611  7223 net.cpp:406] Scale6 <- Convolution6
I1003 09:37:45.152614  7223 net.cpp:367] Scale6 -> Convolution6 (in-place)
I1003 09:37:45.152639  7223 layer_factory.hpp:77] Creating layer Scale6
I1003 09:37:45.152719  7223 net.cpp:122] Setting up Scale6
I1003 09:37:45.152724  7223 net.cpp:129] Top shape: 100 16 28 28 (1254400)
I1003 09:37:45.152726  7223 net.cpp:137] Memory required for data: 156486800
I1003 09:37:45.152730  7223 layer_factory.hpp:77] Creating layer M2PELU6
I1003 09:37:45.152735  7223 net.cpp:84] Creating Layer M2PELU6
I1003 09:37:45.152739  7223 net.cpp:406] M2PELU6 <- Convolution6
I1003 09:37:45.152743  7223 net.cpp:367] M2PELU6 -> Convolution6 (in-place)
I1003 09:37:45.152827  7223 net.cpp:122] Setting up M2PELU6
I1003 09:37:45.152832  7223 net.cpp:129] Top shape: 100 16 28 28 (1254400)
I1003 09:37:45.152835  7223 net.cpp:137] Memory required for data: 161504400
I1003 09:37:45.152838  7223 layer_factory.hpp:77] Creating layer Convolution7
I1003 09:37:45.152846  7223 net.cpp:84] Creating Layer Convolution7
I1003 09:37:45.152849  7223 net.cpp:406] Convolution7 <- Convolution6
I1003 09:37:45.152853  7223 net.cpp:380] Convolution7 -> Convolution7
I1003 09:37:45.153409  7223 net.cpp:122] Setting up Convolution7
I1003 09:37:45.153417  7223 net.cpp:129] Top shape: 100 16 28 28 (1254400)
I1003 09:37:45.153420  7223 net.cpp:137] Memory required for data: 166522000
I1003 09:37:45.153425  7223 layer_factory.hpp:77] Creating layer BatchNorm7
I1003 09:37:45.153430  7223 net.cpp:84] Creating Layer BatchNorm7
I1003 09:37:45.153434  7223 net.cpp:406] BatchNorm7 <- Convolution7
I1003 09:37:45.153439  7223 net.cpp:367] BatchNorm7 -> Convolution7 (in-place)
I1003 09:37:45.153566  7223 net.cpp:122] Setting up BatchNorm7
I1003 09:37:45.153573  7223 net.cpp:129] Top shape: 100 16 28 28 (1254400)
I1003 09:37:45.153574  7223 net.cpp:137] Memory required for data: 171539600
I1003 09:37:45.153579  7223 layer_factory.hpp:77] Creating layer Scale7
I1003 09:37:45.153586  7223 net.cpp:84] Creating Layer Scale7
I1003 09:37:45.153590  7223 net.cpp:406] Scale7 <- Convolution7
I1003 09:37:45.153594  7223 net.cpp:367] Scale7 -> Convolution7 (in-place)
I1003 09:37:45.153620  7223 layer_factory.hpp:77] Creating layer Scale7
I1003 09:37:45.153707  7223 net.cpp:122] Setting up Scale7
I1003 09:37:45.153712  7223 net.cpp:129] Top shape: 100 16 28 28 (1254400)
I1003 09:37:45.153715  7223 net.cpp:137] Memory required for data: 176557200
I1003 09:37:45.153719  7223 layer_factory.hpp:77] Creating layer Eltwise3
I1003 09:37:45.153724  7223 net.cpp:84] Creating Layer Eltwise3
I1003 09:37:45.153728  7223 net.cpp:406] Eltwise3 <- Eltwise2_M2PELU5_0_split_1
I1003 09:37:45.153730  7223 net.cpp:406] Eltwise3 <- Convolution7
I1003 09:37:45.153735  7223 net.cpp:380] Eltwise3 -> Eltwise3
I1003 09:37:45.153750  7223 net.cpp:122] Setting up Eltwise3
I1003 09:37:45.153755  7223 net.cpp:129] Top shape: 100 16 28 28 (1254400)
I1003 09:37:45.153759  7223 net.cpp:137] Memory required for data: 181574800
I1003 09:37:45.153760  7223 layer_factory.hpp:77] Creating layer M2PELU7
I1003 09:37:45.153765  7223 net.cpp:84] Creating Layer M2PELU7
I1003 09:37:45.153769  7223 net.cpp:406] M2PELU7 <- Eltwise3
I1003 09:37:45.153772  7223 net.cpp:367] M2PELU7 -> Eltwise3 (in-place)
I1003 09:37:45.153856  7223 net.cpp:122] Setting up M2PELU7
I1003 09:37:45.153861  7223 net.cpp:129] Top shape: 100 16 28 28 (1254400)
I1003 09:37:45.153863  7223 net.cpp:137] Memory required for data: 186592400
I1003 09:37:45.153867  7223 layer_factory.hpp:77] Creating layer Eltwise3_M2PELU7_0_split
I1003 09:37:45.153872  7223 net.cpp:84] Creating Layer Eltwise3_M2PELU7_0_split
I1003 09:37:45.153877  7223 net.cpp:406] Eltwise3_M2PELU7_0_split <- Eltwise3
I1003 09:37:45.153879  7223 net.cpp:380] Eltwise3_M2PELU7_0_split -> Eltwise3_M2PELU7_0_split_0
I1003 09:37:45.153884  7223 net.cpp:380] Eltwise3_M2PELU7_0_split -> Eltwise3_M2PELU7_0_split_1
I1003 09:37:45.153906  7223 net.cpp:122] Setting up Eltwise3_M2PELU7_0_split
I1003 09:37:45.153911  7223 net.cpp:129] Top shape: 100 16 28 28 (1254400)
I1003 09:37:45.153915  7223 net.cpp:129] Top shape: 100 16 28 28 (1254400)
I1003 09:37:45.153918  7223 net.cpp:137] Memory required for data: 196627600
I1003 09:37:45.153920  7223 layer_factory.hpp:77] Creating layer Convolution8
I1003 09:37:45.153926  7223 net.cpp:84] Creating Layer Convolution8
I1003 09:37:45.153929  7223 net.cpp:406] Convolution8 <- Eltwise3_M2PELU7_0_split_0
I1003 09:37:45.153934  7223 net.cpp:380] Convolution8 -> Convolution8
I1003 09:37:45.154821  7223 net.cpp:122] Setting up Convolution8
I1003 09:37:45.154831  7223 net.cpp:129] Top shape: 100 16 28 28 (1254400)
I1003 09:37:45.154834  7223 net.cpp:137] Memory required for data: 201645200
I1003 09:37:45.154845  7223 layer_factory.hpp:77] Creating layer BatchNorm8
I1003 09:37:45.154851  7223 net.cpp:84] Creating Layer BatchNorm8
I1003 09:37:45.154865  7223 net.cpp:406] BatchNorm8 <- Convolution8
I1003 09:37:45.154880  7223 net.cpp:367] BatchNorm8 -> Convolution8 (in-place)
I1003 09:37:45.155016  7223 net.cpp:122] Setting up BatchNorm8
I1003 09:37:45.155021  7223 net.cpp:129] Top shape: 100 16 28 28 (1254400)
I1003 09:37:45.155025  7223 net.cpp:137] Memory required for data: 206662800
I1003 09:37:45.155040  7223 layer_factory.hpp:77] Creating layer Scale8
I1003 09:37:45.155045  7223 net.cpp:84] Creating Layer Scale8
I1003 09:37:45.155057  7223 net.cpp:406] Scale8 <- Convolution8
I1003 09:37:45.155062  7223 net.cpp:367] Scale8 -> Convolution8 (in-place)
I1003 09:37:45.155115  7223 layer_factory.hpp:77] Creating layer Scale8
I1003 09:37:45.155210  7223 net.cpp:122] Setting up Scale8
I1003 09:37:45.155215  7223 net.cpp:129] Top shape: 100 16 28 28 (1254400)
I1003 09:37:45.155217  7223 net.cpp:137] Memory required for data: 211680400
I1003 09:37:45.155231  7223 layer_factory.hpp:77] Creating layer M2PELU8
I1003 09:37:45.155236  7223 net.cpp:84] Creating Layer M2PELU8
I1003 09:37:45.155239  7223 net.cpp:406] M2PELU8 <- Convolution8
I1003 09:37:45.155243  7223 net.cpp:367] M2PELU8 -> Convolution8 (in-place)
I1003 09:37:45.155326  7223 net.cpp:122] Setting up M2PELU8
I1003 09:37:45.155331  7223 net.cpp:129] Top shape: 100 16 28 28 (1254400)
I1003 09:37:45.155334  7223 net.cpp:137] Memory required for data: 216698000
I1003 09:37:45.155345  7223 layer_factory.hpp:77] Creating layer Convolution9
I1003 09:37:45.155354  7223 net.cpp:84] Creating Layer Convolution9
I1003 09:37:45.155356  7223 net.cpp:406] Convolution9 <- Convolution8
I1003 09:37:45.155360  7223 net.cpp:380] Convolution9 -> Convolution9
I1003 09:37:45.156297  7223 net.cpp:122] Setting up Convolution9
I1003 09:37:45.156308  7223 net.cpp:129] Top shape: 100 16 28 28 (1254400)
I1003 09:37:45.156311  7223 net.cpp:137] Memory required for data: 221715600
I1003 09:37:45.156316  7223 layer_factory.hpp:77] Creating layer BatchNorm9
I1003 09:37:45.156322  7223 net.cpp:84] Creating Layer BatchNorm9
I1003 09:37:45.156327  7223 net.cpp:406] BatchNorm9 <- Convolution9
I1003 09:37:45.156332  7223 net.cpp:367] BatchNorm9 -> Convolution9 (in-place)
I1003 09:37:45.156481  7223 net.cpp:122] Setting up BatchNorm9
I1003 09:37:45.156493  7223 net.cpp:129] Top shape: 100 16 28 28 (1254400)
I1003 09:37:45.156497  7223 net.cpp:137] Memory required for data: 226733200
I1003 09:37:45.156502  7223 layer_factory.hpp:77] Creating layer Scale9
I1003 09:37:45.156507  7223 net.cpp:84] Creating Layer Scale9
I1003 09:37:45.156514  7223 net.cpp:406] Scale9 <- Convolution9
I1003 09:37:45.156518  7223 net.cpp:367] Scale9 -> Convolution9 (in-place)
I1003 09:37:45.156549  7223 layer_factory.hpp:77] Creating layer Scale9
I1003 09:37:45.156631  7223 net.cpp:122] Setting up Scale9
I1003 09:37:45.156637  7223 net.cpp:129] Top shape: 100 16 28 28 (1254400)
I1003 09:37:45.156639  7223 net.cpp:137] Memory required for data: 231750800
I1003 09:37:45.156643  7223 layer_factory.hpp:77] Creating layer Eltwise4
I1003 09:37:45.156649  7223 net.cpp:84] Creating Layer Eltwise4
I1003 09:37:45.156653  7223 net.cpp:406] Eltwise4 <- Eltwise3_M2PELU7_0_split_1
I1003 09:37:45.156656  7223 net.cpp:406] Eltwise4 <- Convolution9
I1003 09:37:45.156659  7223 net.cpp:380] Eltwise4 -> Eltwise4
I1003 09:37:45.156677  7223 net.cpp:122] Setting up Eltwise4
I1003 09:37:45.156682  7223 net.cpp:129] Top shape: 100 16 28 28 (1254400)
I1003 09:37:45.156693  7223 net.cpp:137] Memory required for data: 236768400
I1003 09:37:45.156697  7223 layer_factory.hpp:77] Creating layer M2PELU9
I1003 09:37:45.156713  7223 net.cpp:84] Creating Layer M2PELU9
I1003 09:37:45.156716  7223 net.cpp:406] M2PELU9 <- Eltwise4
I1003 09:37:45.156719  7223 net.cpp:367] M2PELU9 -> Eltwise4 (in-place)
I1003 09:37:45.156812  7223 net.cpp:122] Setting up M2PELU9
I1003 09:37:45.156817  7223 net.cpp:129] Top shape: 100 16 28 28 (1254400)
I1003 09:37:45.156821  7223 net.cpp:137] Memory required for data: 241786000
I1003 09:37:45.156836  7223 layer_factory.hpp:77] Creating layer Eltwise4_M2PELU9_0_split
I1003 09:37:45.156839  7223 net.cpp:84] Creating Layer Eltwise4_M2PELU9_0_split
I1003 09:37:45.156842  7223 net.cpp:406] Eltwise4_M2PELU9_0_split <- Eltwise4
I1003 09:37:45.156847  7223 net.cpp:380] Eltwise4_M2PELU9_0_split -> Eltwise4_M2PELU9_0_split_0
I1003 09:37:45.156852  7223 net.cpp:380] Eltwise4_M2PELU9_0_split -> Eltwise4_M2PELU9_0_split_1
I1003 09:37:45.156875  7223 net.cpp:122] Setting up Eltwise4_M2PELU9_0_split
I1003 09:37:45.156880  7223 net.cpp:129] Top shape: 100 16 28 28 (1254400)
I1003 09:37:45.156884  7223 net.cpp:129] Top shape: 100 16 28 28 (1254400)
I1003 09:37:45.156888  7223 net.cpp:137] Memory required for data: 251821200
I1003 09:37:45.156889  7223 layer_factory.hpp:77] Creating layer Convolution10
I1003 09:37:45.156895  7223 net.cpp:84] Creating Layer Convolution10
I1003 09:37:45.156898  7223 net.cpp:406] Convolution10 <- Eltwise4_M2PELU9_0_split_0
I1003 09:37:45.156903  7223 net.cpp:380] Convolution10 -> Convolution10
I1003 09:37:45.157804  7223 net.cpp:122] Setting up Convolution10
I1003 09:37:45.157814  7223 net.cpp:129] Top shape: 100 16 28 28 (1254400)
I1003 09:37:45.157817  7223 net.cpp:137] Memory required for data: 256838800
I1003 09:37:45.157822  7223 layer_factory.hpp:77] Creating layer BatchNorm10
I1003 09:37:45.157827  7223 net.cpp:84] Creating Layer BatchNorm10
I1003 09:37:45.157831  7223 net.cpp:406] BatchNorm10 <- Convolution10
I1003 09:37:45.157843  7223 net.cpp:367] BatchNorm10 -> Convolution10 (in-place)
I1003 09:37:45.157975  7223 net.cpp:122] Setting up BatchNorm10
I1003 09:37:45.157980  7223 net.cpp:129] Top shape: 100 16 28 28 (1254400)
I1003 09:37:45.157984  7223 net.cpp:137] Memory required for data: 261856400
I1003 09:37:45.157989  7223 layer_factory.hpp:77] Creating layer Scale10
I1003 09:37:45.157994  7223 net.cpp:84] Creating Layer Scale10
I1003 09:37:45.157996  7223 net.cpp:406] Scale10 <- Convolution10
I1003 09:37:45.158000  7223 net.cpp:367] Scale10 -> Convolution10 (in-place)
I1003 09:37:45.158026  7223 layer_factory.hpp:77] Creating layer Scale10
I1003 09:37:45.158103  7223 net.cpp:122] Setting up Scale10
I1003 09:37:45.158108  7223 net.cpp:129] Top shape: 100 16 28 28 (1254400)
I1003 09:37:45.158112  7223 net.cpp:137] Memory required for data: 266874000
I1003 09:37:45.158115  7223 layer_factory.hpp:77] Creating layer M2PELU10
I1003 09:37:45.158121  7223 net.cpp:84] Creating Layer M2PELU10
I1003 09:37:45.158124  7223 net.cpp:406] M2PELU10 <- Convolution10
I1003 09:37:45.158128  7223 net.cpp:367] M2PELU10 -> Convolution10 (in-place)
I1003 09:37:45.158213  7223 net.cpp:122] Setting up M2PELU10
I1003 09:37:45.158218  7223 net.cpp:129] Top shape: 100 16 28 28 (1254400)
I1003 09:37:45.158221  7223 net.cpp:137] Memory required for data: 271891600
I1003 09:37:45.158226  7223 layer_factory.hpp:77] Creating layer Convolution11
I1003 09:37:45.158233  7223 net.cpp:84] Creating Layer Convolution11
I1003 09:37:45.158236  7223 net.cpp:406] Convolution11 <- Convolution10
I1003 09:37:45.158241  7223 net.cpp:380] Convolution11 -> Convolution11
I1003 09:37:45.159147  7223 net.cpp:122] Setting up Convolution11
I1003 09:37:45.159157  7223 net.cpp:129] Top shape: 100 16 28 28 (1254400)
I1003 09:37:45.159168  7223 net.cpp:137] Memory required for data: 276909200
I1003 09:37:45.159173  7223 layer_factory.hpp:77] Creating layer BatchNorm11
I1003 09:37:45.159179  7223 net.cpp:84] Creating Layer BatchNorm11
I1003 09:37:45.159183  7223 net.cpp:406] BatchNorm11 <- Convolution11
I1003 09:37:45.159188  7223 net.cpp:367] BatchNorm11 -> Convolution11 (in-place)
I1003 09:37:45.159327  7223 net.cpp:122] Setting up BatchNorm11
I1003 09:37:45.159332  7223 net.cpp:129] Top shape: 100 16 28 28 (1254400)
I1003 09:37:45.159344  7223 net.cpp:137] Memory required for data: 281926800
I1003 09:37:45.159349  7223 layer_factory.hpp:77] Creating layer Scale11
I1003 09:37:45.159354  7223 net.cpp:84] Creating Layer Scale11
I1003 09:37:45.159358  7223 net.cpp:406] Scale11 <- Convolution11
I1003 09:37:45.159360  7223 net.cpp:367] Scale11 -> Convolution11 (in-place)
I1003 09:37:45.159396  7223 layer_factory.hpp:77] Creating layer Scale11
I1003 09:37:45.159493  7223 net.cpp:122] Setting up Scale11
I1003 09:37:45.159498  7223 net.cpp:129] Top shape: 100 16 28 28 (1254400)
I1003 09:37:45.159500  7223 net.cpp:137] Memory required for data: 286944400
I1003 09:37:45.159513  7223 layer_factory.hpp:77] Creating layer Eltwise5
I1003 09:37:45.159518  7223 net.cpp:84] Creating Layer Eltwise5
I1003 09:37:45.159521  7223 net.cpp:406] Eltwise5 <- Eltwise4_M2PELU9_0_split_1
I1003 09:37:45.159525  7223 net.cpp:406] Eltwise5 <- Convolution11
I1003 09:37:45.159530  7223 net.cpp:380] Eltwise5 -> Eltwise5
I1003 09:37:45.159546  7223 net.cpp:122] Setting up Eltwise5
I1003 09:37:45.159550  7223 net.cpp:129] Top shape: 100 16 28 28 (1254400)
I1003 09:37:45.159554  7223 net.cpp:137] Memory required for data: 291962000
I1003 09:37:45.159555  7223 layer_factory.hpp:77] Creating layer M2PELU11
I1003 09:37:45.159561  7223 net.cpp:84] Creating Layer M2PELU11
I1003 09:37:45.159564  7223 net.cpp:406] M2PELU11 <- Eltwise5
I1003 09:37:45.159567  7223 net.cpp:367] M2PELU11 -> Eltwise5 (in-place)
I1003 09:37:45.159653  7223 net.cpp:122] Setting up M2PELU11
I1003 09:37:45.159658  7223 net.cpp:129] Top shape: 100 16 28 28 (1254400)
I1003 09:37:45.159662  7223 net.cpp:137] Memory required for data: 296979600
I1003 09:37:45.159665  7223 layer_factory.hpp:77] Creating layer Eltwise5_M2PELU11_0_split
I1003 09:37:45.159669  7223 net.cpp:84] Creating Layer Eltwise5_M2PELU11_0_split
I1003 09:37:45.159680  7223 net.cpp:406] Eltwise5_M2PELU11_0_split <- Eltwise5
I1003 09:37:45.159685  7223 net.cpp:380] Eltwise5_M2PELU11_0_split -> Eltwise5_M2PELU11_0_split_0
I1003 09:37:45.159690  7223 net.cpp:380] Eltwise5_M2PELU11_0_split -> Eltwise5_M2PELU11_0_split_1
I1003 09:37:45.159715  7223 net.cpp:122] Setting up Eltwise5_M2PELU11_0_split
I1003 09:37:45.159719  7223 net.cpp:129] Top shape: 100 16 28 28 (1254400)
I1003 09:37:45.159723  7223 net.cpp:129] Top shape: 100 16 28 28 (1254400)
I1003 09:37:45.159726  7223 net.cpp:137] Memory required for data: 307014800
I1003 09:37:45.159729  7223 layer_factory.hpp:77] Creating layer Convolution12
I1003 09:37:45.159735  7223 net.cpp:84] Creating Layer Convolution12
I1003 09:37:45.159739  7223 net.cpp:406] Convolution12 <- Eltwise5_M2PELU11_0_split_0
I1003 09:37:45.159744  7223 net.cpp:380] Convolution12 -> Convolution12
I1003 09:37:45.160645  7223 net.cpp:122] Setting up Convolution12
I1003 09:37:45.160655  7223 net.cpp:129] Top shape: 100 16 28 28 (1254400)
I1003 09:37:45.160660  7223 net.cpp:137] Memory required for data: 312032400
I1003 09:37:45.160663  7223 layer_factory.hpp:77] Creating layer BatchNorm12
I1003 09:37:45.160668  7223 net.cpp:84] Creating Layer BatchNorm12
I1003 09:37:45.160672  7223 net.cpp:406] BatchNorm12 <- Convolution12
I1003 09:37:45.160677  7223 net.cpp:367] BatchNorm12 -> Convolution12 (in-place)
I1003 09:37:45.160815  7223 net.cpp:122] Setting up BatchNorm12
I1003 09:37:45.160820  7223 net.cpp:129] Top shape: 100 16 28 28 (1254400)
I1003 09:37:45.160822  7223 net.cpp:137] Memory required for data: 317050000
I1003 09:37:45.160827  7223 layer_factory.hpp:77] Creating layer Scale12
I1003 09:37:45.160832  7223 net.cpp:84] Creating Layer Scale12
I1003 09:37:45.160835  7223 net.cpp:406] Scale12 <- Convolution12
I1003 09:37:45.160840  7223 net.cpp:367] Scale12 -> Convolution12 (in-place)
I1003 09:37:45.160866  7223 layer_factory.hpp:77] Creating layer Scale12
I1003 09:37:45.160948  7223 net.cpp:122] Setting up Scale12
I1003 09:37:45.160953  7223 net.cpp:129] Top shape: 100 16 28 28 (1254400)
I1003 09:37:45.160955  7223 net.cpp:137] Memory required for data: 322067600
I1003 09:37:45.160959  7223 layer_factory.hpp:77] Creating layer M2PELU12
I1003 09:37:45.160964  7223 net.cpp:84] Creating Layer M2PELU12
I1003 09:37:45.160967  7223 net.cpp:406] M2PELU12 <- Convolution12
I1003 09:37:45.160972  7223 net.cpp:367] M2PELU12 -> Convolution12 (in-place)
I1003 09:37:45.161058  7223 net.cpp:122] Setting up M2PELU12
I1003 09:37:45.161063  7223 net.cpp:129] Top shape: 100 16 28 28 (1254400)
I1003 09:37:45.161067  7223 net.cpp:137] Memory required for data: 327085200
I1003 09:37:45.161070  7223 layer_factory.hpp:77] Creating layer Convolution13
I1003 09:37:45.161078  7223 net.cpp:84] Creating Layer Convolution13
I1003 09:37:45.161082  7223 net.cpp:406] Convolution13 <- Convolution12
I1003 09:37:45.161085  7223 net.cpp:380] Convolution13 -> Convolution13
I1003 09:37:45.161988  7223 net.cpp:122] Setting up Convolution13
I1003 09:37:45.161998  7223 net.cpp:129] Top shape: 100 16 28 28 (1254400)
I1003 09:37:45.162001  7223 net.cpp:137] Memory required for data: 332102800
I1003 09:37:45.162006  7223 layer_factory.hpp:77] Creating layer BatchNorm13
I1003 09:37:45.162012  7223 net.cpp:84] Creating Layer BatchNorm13
I1003 09:37:45.162015  7223 net.cpp:406] BatchNorm13 <- Convolution13
I1003 09:37:45.162021  7223 net.cpp:367] BatchNorm13 -> Convolution13 (in-place)
I1003 09:37:45.162154  7223 net.cpp:122] Setting up BatchNorm13
I1003 09:37:45.162160  7223 net.cpp:129] Top shape: 100 16 28 28 (1254400)
I1003 09:37:45.162163  7223 net.cpp:137] Memory required for data: 337120400
I1003 09:37:45.162168  7223 layer_factory.hpp:77] Creating layer Scale13
I1003 09:37:45.162173  7223 net.cpp:84] Creating Layer Scale13
I1003 09:37:45.162176  7223 net.cpp:406] Scale13 <- Convolution13
I1003 09:37:45.162180  7223 net.cpp:367] Scale13 -> Convolution13 (in-place)
I1003 09:37:45.162207  7223 layer_factory.hpp:77] Creating layer Scale13
I1003 09:37:45.162297  7223 net.cpp:122] Setting up Scale13
I1003 09:37:45.162303  7223 net.cpp:129] Top shape: 100 16 28 28 (1254400)
I1003 09:37:45.162307  7223 net.cpp:137] Memory required for data: 342138000
I1003 09:37:45.162310  7223 layer_factory.hpp:77] Creating layer Eltwise6
I1003 09:37:45.162314  7223 net.cpp:84] Creating Layer Eltwise6
I1003 09:37:45.162318  7223 net.cpp:406] Eltwise6 <- Eltwise5_M2PELU11_0_split_1
I1003 09:37:45.162322  7223 net.cpp:406] Eltwise6 <- Convolution13
I1003 09:37:45.162326  7223 net.cpp:380] Eltwise6 -> Eltwise6
I1003 09:37:45.162345  7223 net.cpp:122] Setting up Eltwise6
I1003 09:37:45.162350  7223 net.cpp:129] Top shape: 100 16 28 28 (1254400)
I1003 09:37:45.162353  7223 net.cpp:137] Memory required for data: 347155600
I1003 09:37:45.162355  7223 layer_factory.hpp:77] Creating layer M2PELU13
I1003 09:37:45.162364  7223 net.cpp:84] Creating Layer M2PELU13
I1003 09:37:45.162367  7223 net.cpp:406] M2PELU13 <- Eltwise6
I1003 09:37:45.162372  7223 net.cpp:367] M2PELU13 -> Eltwise6 (in-place)
I1003 09:37:45.162461  7223 net.cpp:122] Setting up M2PELU13
I1003 09:37:45.162466  7223 net.cpp:129] Top shape: 100 16 28 28 (1254400)
I1003 09:37:45.162468  7223 net.cpp:137] Memory required for data: 352173200
I1003 09:37:45.162472  7223 layer_factory.hpp:77] Creating layer Eltwise6_M2PELU13_0_split
I1003 09:37:45.162477  7223 net.cpp:84] Creating Layer Eltwise6_M2PELU13_0_split
I1003 09:37:45.162480  7223 net.cpp:406] Eltwise6_M2PELU13_0_split <- Eltwise6
I1003 09:37:45.162484  7223 net.cpp:380] Eltwise6_M2PELU13_0_split -> Eltwise6_M2PELU13_0_split_0
I1003 09:37:45.162489  7223 net.cpp:380] Eltwise6_M2PELU13_0_split -> Eltwise6_M2PELU13_0_split_1
I1003 09:37:45.162513  7223 net.cpp:122] Setting up Eltwise6_M2PELU13_0_split
I1003 09:37:45.162518  7223 net.cpp:129] Top shape: 100 16 28 28 (1254400)
I1003 09:37:45.162528  7223 net.cpp:129] Top shape: 100 16 28 28 (1254400)
I1003 09:37:45.162530  7223 net.cpp:137] Memory required for data: 362208400
I1003 09:37:45.162533  7223 layer_factory.hpp:77] Creating layer Convolution14
I1003 09:37:45.162539  7223 net.cpp:84] Creating Layer Convolution14
I1003 09:37:45.162540  7223 net.cpp:406] Convolution14 <- Eltwise6_M2PELU13_0_split_0
I1003 09:37:45.162546  7223 net.cpp:380] Convolution14 -> Convolution14
I1003 09:37:45.163450  7223 net.cpp:122] Setting up Convolution14
I1003 09:37:45.163458  7223 net.cpp:129] Top shape: 100 16 28 28 (1254400)
I1003 09:37:45.163461  7223 net.cpp:137] Memory required for data: 367226000
I1003 09:37:45.163465  7223 layer_factory.hpp:77] Creating layer BatchNorm14
I1003 09:37:45.163473  7223 net.cpp:84] Creating Layer BatchNorm14
I1003 09:37:45.163476  7223 net.cpp:406] BatchNorm14 <- Convolution14
I1003 09:37:45.163480  7223 net.cpp:367] BatchNorm14 -> Convolution14 (in-place)
I1003 09:37:45.163615  7223 net.cpp:122] Setting up BatchNorm14
I1003 09:37:45.163620  7223 net.cpp:129] Top shape: 100 16 28 28 (1254400)
I1003 09:37:45.163622  7223 net.cpp:137] Memory required for data: 372243600
I1003 09:37:45.163628  7223 layer_factory.hpp:77] Creating layer Scale14
I1003 09:37:45.163632  7223 net.cpp:84] Creating Layer Scale14
I1003 09:37:45.163635  7223 net.cpp:406] Scale14 <- Convolution14
I1003 09:37:45.163638  7223 net.cpp:367] Scale14 -> Convolution14 (in-place)
I1003 09:37:45.163664  7223 layer_factory.hpp:77] Creating layer Scale14
I1003 09:37:45.163743  7223 net.cpp:122] Setting up Scale14
I1003 09:37:45.163748  7223 net.cpp:129] Top shape: 100 16 28 28 (1254400)
I1003 09:37:45.163750  7223 net.cpp:137] Memory required for data: 377261200
I1003 09:37:45.163754  7223 layer_factory.hpp:77] Creating layer M2PELU14
I1003 09:37:45.163760  7223 net.cpp:84] Creating Layer M2PELU14
I1003 09:37:45.163763  7223 net.cpp:406] M2PELU14 <- Convolution14
I1003 09:37:45.163766  7223 net.cpp:367] M2PELU14 -> Convolution14 (in-place)
I1003 09:37:45.163852  7223 net.cpp:122] Setting up M2PELU14
I1003 09:37:45.163856  7223 net.cpp:129] Top shape: 100 16 28 28 (1254400)
I1003 09:37:45.163858  7223 net.cpp:137] Memory required for data: 382278800
I1003 09:37:45.163869  7223 layer_factory.hpp:77] Creating layer Convolution15
I1003 09:37:45.163877  7223 net.cpp:84] Creating Layer Convolution15
I1003 09:37:45.163879  7223 net.cpp:406] Convolution15 <- Convolution14
I1003 09:37:45.163883  7223 net.cpp:380] Convolution15 -> Convolution15
I1003 09:37:45.164793  7223 net.cpp:122] Setting up Convolution15
I1003 09:37:45.164803  7223 net.cpp:129] Top shape: 100 16 28 28 (1254400)
I1003 09:37:45.164804  7223 net.cpp:137] Memory required for data: 387296400
I1003 09:37:45.164809  7223 layer_factory.hpp:77] Creating layer BatchNorm15
I1003 09:37:45.164813  7223 net.cpp:84] Creating Layer BatchNorm15
I1003 09:37:45.164816  7223 net.cpp:406] BatchNorm15 <- Convolution15
I1003 09:37:45.164821  7223 net.cpp:367] BatchNorm15 -> Convolution15 (in-place)
I1003 09:37:45.164958  7223 net.cpp:122] Setting up BatchNorm15
I1003 09:37:45.164961  7223 net.cpp:129] Top shape: 100 16 28 28 (1254400)
I1003 09:37:45.164963  7223 net.cpp:137] Memory required for data: 392314000
I1003 09:37:45.164978  7223 layer_factory.hpp:77] Creating layer Scale15
I1003 09:37:45.164984  7223 net.cpp:84] Creating Layer Scale15
I1003 09:37:45.164986  7223 net.cpp:406] Scale15 <- Convolution15
I1003 09:37:45.164989  7223 net.cpp:367] Scale15 -> Convolution15 (in-place)
I1003 09:37:45.165017  7223 layer_factory.hpp:77] Creating layer Scale15
I1003 09:37:45.165097  7223 net.cpp:122] Setting up Scale15
I1003 09:37:45.165102  7223 net.cpp:129] Top shape: 100 16 28 28 (1254400)
I1003 09:37:45.165103  7223 net.cpp:137] Memory required for data: 397331600
I1003 09:37:45.165107  7223 layer_factory.hpp:77] Creating layer Eltwise7
I1003 09:37:45.165112  7223 net.cpp:84] Creating Layer Eltwise7
I1003 09:37:45.165114  7223 net.cpp:406] Eltwise7 <- Eltwise6_M2PELU13_0_split_1
I1003 09:37:45.165117  7223 net.cpp:406] Eltwise7 <- Convolution15
I1003 09:37:45.165120  7223 net.cpp:380] Eltwise7 -> Eltwise7
I1003 09:37:45.165138  7223 net.cpp:122] Setting up Eltwise7
I1003 09:37:45.165141  7223 net.cpp:129] Top shape: 100 16 28 28 (1254400)
I1003 09:37:45.165143  7223 net.cpp:137] Memory required for data: 402349200
I1003 09:37:45.165145  7223 layer_factory.hpp:77] Creating layer M2PELU15
I1003 09:37:45.165151  7223 net.cpp:84] Creating Layer M2PELU15
I1003 09:37:45.165153  7223 net.cpp:406] M2PELU15 <- Eltwise7
I1003 09:37:45.165156  7223 net.cpp:367] M2PELU15 -> Eltwise7 (in-place)
I1003 09:37:45.165243  7223 net.cpp:122] Setting up M2PELU15
I1003 09:37:45.165247  7223 net.cpp:129] Top shape: 100 16 28 28 (1254400)
I1003 09:37:45.165249  7223 net.cpp:137] Memory required for data: 407366800
I1003 09:37:45.165253  7223 layer_factory.hpp:77] Creating layer Eltwise7_M2PELU15_0_split
I1003 09:37:45.165256  7223 net.cpp:84] Creating Layer Eltwise7_M2PELU15_0_split
I1003 09:37:45.165259  7223 net.cpp:406] Eltwise7_M2PELU15_0_split <- Eltwise7
I1003 09:37:45.165262  7223 net.cpp:380] Eltwise7_M2PELU15_0_split -> Eltwise7_M2PELU15_0_split_0
I1003 09:37:45.165267  7223 net.cpp:380] Eltwise7_M2PELU15_0_split -> Eltwise7_M2PELU15_0_split_1
I1003 09:37:45.165289  7223 net.cpp:122] Setting up Eltwise7_M2PELU15_0_split
I1003 09:37:45.165293  7223 net.cpp:129] Top shape: 100 16 28 28 (1254400)
I1003 09:37:45.165297  7223 net.cpp:129] Top shape: 100 16 28 28 (1254400)
I1003 09:37:45.165298  7223 net.cpp:137] Memory required for data: 417402000
I1003 09:37:45.165300  7223 layer_factory.hpp:77] Creating layer Convolution16
I1003 09:37:45.165307  7223 net.cpp:84] Creating Layer Convolution16
I1003 09:37:45.165309  7223 net.cpp:406] Convolution16 <- Eltwise7_M2PELU15_0_split_0
I1003 09:37:45.165313  7223 net.cpp:380] Convolution16 -> Convolution16
I1003 09:37:45.166214  7223 net.cpp:122] Setting up Convolution16
I1003 09:37:45.166223  7223 net.cpp:129] Top shape: 100 16 28 28 (1254400)
I1003 09:37:45.166225  7223 net.cpp:137] Memory required for data: 422419600
I1003 09:37:45.166230  7223 layer_factory.hpp:77] Creating layer BatchNorm16
I1003 09:37:45.166235  7223 net.cpp:84] Creating Layer BatchNorm16
I1003 09:37:45.166239  7223 net.cpp:406] BatchNorm16 <- Convolution16
I1003 09:37:45.166250  7223 net.cpp:367] BatchNorm16 -> Convolution16 (in-place)
I1003 09:37:45.166386  7223 net.cpp:122] Setting up BatchNorm16
I1003 09:37:45.166390  7223 net.cpp:129] Top shape: 100 16 28 28 (1254400)
I1003 09:37:45.166393  7223 net.cpp:137] Memory required for data: 427437200
I1003 09:37:45.166398  7223 layer_factory.hpp:77] Creating layer Scale16
I1003 09:37:45.166402  7223 net.cpp:84] Creating Layer Scale16
I1003 09:37:45.166405  7223 net.cpp:406] Scale16 <- Convolution16
I1003 09:37:45.166409  7223 net.cpp:367] Scale16 -> Convolution16 (in-place)
I1003 09:37:45.166435  7223 layer_factory.hpp:77] Creating layer Scale16
I1003 09:37:45.166512  7223 net.cpp:122] Setting up Scale16
I1003 09:37:45.166517  7223 net.cpp:129] Top shape: 100 16 28 28 (1254400)
I1003 09:37:45.166519  7223 net.cpp:137] Memory required for data: 432454800
I1003 09:37:45.166529  7223 layer_factory.hpp:77] Creating layer M2PELU16
I1003 09:37:45.166535  7223 net.cpp:84] Creating Layer M2PELU16
I1003 09:37:45.166538  7223 net.cpp:406] M2PELU16 <- Convolution16
I1003 09:37:45.166543  7223 net.cpp:367] M2PELU16 -> Convolution16 (in-place)
I1003 09:37:45.166627  7223 net.cpp:122] Setting up M2PELU16
I1003 09:37:45.166633  7223 net.cpp:129] Top shape: 100 16 28 28 (1254400)
I1003 09:37:45.166635  7223 net.cpp:137] Memory required for data: 437472400
I1003 09:37:45.166640  7223 layer_factory.hpp:77] Creating layer Convolution17
I1003 09:37:45.166646  7223 net.cpp:84] Creating Layer Convolution17
I1003 09:37:45.166647  7223 net.cpp:406] Convolution17 <- Convolution16
I1003 09:37:45.166652  7223 net.cpp:380] Convolution17 -> Convolution17
I1003 09:37:45.167227  7223 net.cpp:122] Setting up Convolution17
I1003 09:37:45.167234  7223 net.cpp:129] Top shape: 100 16 28 28 (1254400)
I1003 09:37:45.167237  7223 net.cpp:137] Memory required for data: 442490000
I1003 09:37:45.167242  7223 layer_factory.hpp:77] Creating layer BatchNorm17
I1003 09:37:45.167246  7223 net.cpp:84] Creating Layer BatchNorm17
I1003 09:37:45.167249  7223 net.cpp:406] BatchNorm17 <- Convolution17
I1003 09:37:45.167253  7223 net.cpp:367] BatchNorm17 -> Convolution17 (in-place)
I1003 09:37:45.167388  7223 net.cpp:122] Setting up BatchNorm17
I1003 09:37:45.167393  7223 net.cpp:129] Top shape: 100 16 28 28 (1254400)
I1003 09:37:45.167395  7223 net.cpp:137] Memory required for data: 447507600
I1003 09:37:45.167400  7223 layer_factory.hpp:77] Creating layer Scale17
I1003 09:37:45.167407  7223 net.cpp:84] Creating Layer Scale17
I1003 09:37:45.167408  7223 net.cpp:406] Scale17 <- Convolution17
I1003 09:37:45.167412  7223 net.cpp:367] Scale17 -> Convolution17 (in-place)
I1003 09:37:45.167438  7223 layer_factory.hpp:77] Creating layer Scale17
I1003 09:37:45.167516  7223 net.cpp:122] Setting up Scale17
I1003 09:37:45.167520  7223 net.cpp:129] Top shape: 100 16 28 28 (1254400)
I1003 09:37:45.167522  7223 net.cpp:137] Memory required for data: 452525200
I1003 09:37:45.167526  7223 layer_factory.hpp:77] Creating layer Eltwise8
I1003 09:37:45.167531  7223 net.cpp:84] Creating Layer Eltwise8
I1003 09:37:45.167534  7223 net.cpp:406] Eltwise8 <- Eltwise7_M2PELU15_0_split_1
I1003 09:37:45.167536  7223 net.cpp:406] Eltwise8 <- Convolution17
I1003 09:37:45.167541  7223 net.cpp:380] Eltwise8 -> Eltwise8
I1003 09:37:45.167556  7223 net.cpp:122] Setting up Eltwise8
I1003 09:37:45.167559  7223 net.cpp:129] Top shape: 100 16 28 28 (1254400)
I1003 09:37:45.167562  7223 net.cpp:137] Memory required for data: 457542800
I1003 09:37:45.167563  7223 layer_factory.hpp:77] Creating layer M2PELU17
I1003 09:37:45.167568  7223 net.cpp:84] Creating Layer M2PELU17
I1003 09:37:45.167572  7223 net.cpp:406] M2PELU17 <- Eltwise8
I1003 09:37:45.167574  7223 net.cpp:367] M2PELU17 -> Eltwise8 (in-place)
I1003 09:37:45.167662  7223 net.cpp:122] Setting up M2PELU17
I1003 09:37:45.167666  7223 net.cpp:129] Top shape: 100 16 28 28 (1254400)
I1003 09:37:45.167668  7223 net.cpp:137] Memory required for data: 462560400
I1003 09:37:45.167672  7223 layer_factory.hpp:77] Creating layer Eltwise8_M2PELU17_0_split
I1003 09:37:45.167682  7223 net.cpp:84] Creating Layer Eltwise8_M2PELU17_0_split
I1003 09:37:45.167685  7223 net.cpp:406] Eltwise8_M2PELU17_0_split <- Eltwise8
I1003 09:37:45.167690  7223 net.cpp:380] Eltwise8_M2PELU17_0_split -> Eltwise8_M2PELU17_0_split_0
I1003 09:37:45.167693  7223 net.cpp:380] Eltwise8_M2PELU17_0_split -> Eltwise8_M2PELU17_0_split_1
I1003 09:37:45.167717  7223 net.cpp:122] Setting up Eltwise8_M2PELU17_0_split
I1003 09:37:45.167721  7223 net.cpp:129] Top shape: 100 16 28 28 (1254400)
I1003 09:37:45.167724  7223 net.cpp:129] Top shape: 100 16 28 28 (1254400)
I1003 09:37:45.167726  7223 net.cpp:137] Memory required for data: 472595600
I1003 09:37:45.167729  7223 layer_factory.hpp:77] Creating layer Convolution18
I1003 09:37:45.167734  7223 net.cpp:84] Creating Layer Convolution18
I1003 09:37:45.167737  7223 net.cpp:406] Convolution18 <- Eltwise8_M2PELU17_0_split_0
I1003 09:37:45.167742  7223 net.cpp:380] Convolution18 -> Convolution18
I1003 09:37:45.168645  7223 net.cpp:122] Setting up Convolution18
I1003 09:37:45.168655  7223 net.cpp:129] Top shape: 100 16 28 28 (1254400)
I1003 09:37:45.168658  7223 net.cpp:137] Memory required for data: 477613200
I1003 09:37:45.168663  7223 layer_factory.hpp:77] Creating layer BatchNorm18
I1003 09:37:45.168666  7223 net.cpp:84] Creating Layer BatchNorm18
I1003 09:37:45.168669  7223 net.cpp:406] BatchNorm18 <- Convolution18
I1003 09:37:45.168673  7223 net.cpp:367] BatchNorm18 -> Convolution18 (in-place)
I1003 09:37:45.168809  7223 net.cpp:122] Setting up BatchNorm18
I1003 09:37:45.168813  7223 net.cpp:129] Top shape: 100 16 28 28 (1254400)
I1003 09:37:45.168815  7223 net.cpp:137] Memory required for data: 482630800
I1003 09:37:45.168820  7223 layer_factory.hpp:77] Creating layer Scale18
I1003 09:37:45.168825  7223 net.cpp:84] Creating Layer Scale18
I1003 09:37:45.168828  7223 net.cpp:406] Scale18 <- Convolution18
I1003 09:37:45.168830  7223 net.cpp:367] Scale18 -> Convolution18 (in-place)
I1003 09:37:45.168857  7223 layer_factory.hpp:77] Creating layer Scale18
I1003 09:37:45.168938  7223 net.cpp:122] Setting up Scale18
I1003 09:37:45.168942  7223 net.cpp:129] Top shape: 100 16 28 28 (1254400)
I1003 09:37:45.168946  7223 net.cpp:137] Memory required for data: 487648400
I1003 09:37:45.168948  7223 layer_factory.hpp:77] Creating layer M2PELU18
I1003 09:37:45.168953  7223 net.cpp:84] Creating Layer M2PELU18
I1003 09:37:45.168956  7223 net.cpp:406] M2PELU18 <- Convolution18
I1003 09:37:45.168959  7223 net.cpp:367] M2PELU18 -> Convolution18 (in-place)
I1003 09:37:45.169047  7223 net.cpp:122] Setting up M2PELU18
I1003 09:37:45.169051  7223 net.cpp:129] Top shape: 100 16 28 28 (1254400)
I1003 09:37:45.169054  7223 net.cpp:137] Memory required for data: 492666000
I1003 09:37:45.169057  7223 layer_factory.hpp:77] Creating layer Convolution19
I1003 09:37:45.169066  7223 net.cpp:84] Creating Layer Convolution19
I1003 09:37:45.169068  7223 net.cpp:406] Convolution19 <- Convolution18
I1003 09:37:45.169072  7223 net.cpp:380] Convolution19 -> Convolution19
I1003 09:37:45.169982  7223 net.cpp:122] Setting up Convolution19
I1003 09:37:45.169991  7223 net.cpp:129] Top shape: 100 16 28 28 (1254400)
I1003 09:37:45.169994  7223 net.cpp:137] Memory required for data: 497683600
I1003 09:37:45.169998  7223 layer_factory.hpp:77] Creating layer BatchNorm19
I1003 09:37:45.170004  7223 net.cpp:84] Creating Layer BatchNorm19
I1003 09:37:45.170007  7223 net.cpp:406] BatchNorm19 <- Convolution19
I1003 09:37:45.170011  7223 net.cpp:367] BatchNorm19 -> Convolution19 (in-place)
I1003 09:37:45.170145  7223 net.cpp:122] Setting up BatchNorm19
I1003 09:37:45.170150  7223 net.cpp:129] Top shape: 100 16 28 28 (1254400)
I1003 09:37:45.170152  7223 net.cpp:137] Memory required for data: 502701200
I1003 09:37:45.170157  7223 layer_factory.hpp:77] Creating layer Scale19
I1003 09:37:45.170161  7223 net.cpp:84] Creating Layer Scale19
I1003 09:37:45.170164  7223 net.cpp:406] Scale19 <- Convolution19
I1003 09:37:45.170167  7223 net.cpp:367] Scale19 -> Convolution19 (in-place)
I1003 09:37:45.170202  7223 layer_factory.hpp:77] Creating layer Scale19
I1003 09:37:45.170281  7223 net.cpp:122] Setting up Scale19
I1003 09:37:45.170286  7223 net.cpp:129] Top shape: 100 16 28 28 (1254400)
I1003 09:37:45.170289  7223 net.cpp:137] Memory required for data: 507718800
I1003 09:37:45.170292  7223 layer_factory.hpp:77] Creating layer Eltwise9
I1003 09:37:45.170296  7223 net.cpp:84] Creating Layer Eltwise9
I1003 09:37:45.170298  7223 net.cpp:406] Eltwise9 <- Eltwise8_M2PELU17_0_split_1
I1003 09:37:45.170301  7223 net.cpp:406] Eltwise9 <- Convolution19
I1003 09:37:45.170305  7223 net.cpp:380] Eltwise9 -> Eltwise9
I1003 09:37:45.170321  7223 net.cpp:122] Setting up Eltwise9
I1003 09:37:45.170325  7223 net.cpp:129] Top shape: 100 16 28 28 (1254400)
I1003 09:37:45.170326  7223 net.cpp:137] Memory required for data: 512736400
I1003 09:37:45.170330  7223 layer_factory.hpp:77] Creating layer M2PELU19
I1003 09:37:45.170336  7223 net.cpp:84] Creating Layer M2PELU19
I1003 09:37:45.170338  7223 net.cpp:406] M2PELU19 <- Eltwise9
I1003 09:37:45.170341  7223 net.cpp:367] M2PELU19 -> Eltwise9 (in-place)
I1003 09:37:45.170428  7223 net.cpp:122] Setting up M2PELU19
I1003 09:37:45.170433  7223 net.cpp:129] Top shape: 100 16 28 28 (1254400)
I1003 09:37:45.170434  7223 net.cpp:137] Memory required for data: 517754000
I1003 09:37:45.170439  7223 layer_factory.hpp:77] Creating layer Eltwise9_M2PELU19_0_split
I1003 09:37:45.170441  7223 net.cpp:84] Creating Layer Eltwise9_M2PELU19_0_split
I1003 09:37:45.170444  7223 net.cpp:406] Eltwise9_M2PELU19_0_split <- Eltwise9
I1003 09:37:45.170449  7223 net.cpp:380] Eltwise9_M2PELU19_0_split -> Eltwise9_M2PELU19_0_split_0
I1003 09:37:45.170452  7223 net.cpp:380] Eltwise9_M2PELU19_0_split -> Eltwise9_M2PELU19_0_split_1
I1003 09:37:45.170475  7223 net.cpp:122] Setting up Eltwise9_M2PELU19_0_split
I1003 09:37:45.170480  7223 net.cpp:129] Top shape: 100 16 28 28 (1254400)
I1003 09:37:45.170482  7223 net.cpp:129] Top shape: 100 16 28 28 (1254400)
I1003 09:37:45.170485  7223 net.cpp:137] Memory required for data: 527789200
I1003 09:37:45.170486  7223 layer_factory.hpp:77] Creating layer Convolution20
I1003 09:37:45.170493  7223 net.cpp:84] Creating Layer Convolution20
I1003 09:37:45.170496  7223 net.cpp:406] Convolution20 <- Eltwise9_M2PELU19_0_split_0
I1003 09:37:45.170500  7223 net.cpp:380] Convolution20 -> Convolution20
I1003 09:37:45.171717  7223 net.cpp:122] Setting up Convolution20
I1003 09:37:45.171725  7223 net.cpp:129] Top shape: 100 32 14 14 (627200)
I1003 09:37:45.171728  7223 net.cpp:137] Memory required for data: 530298000
I1003 09:37:45.171733  7223 layer_factory.hpp:77] Creating layer BatchNorm20
I1003 09:37:45.171738  7223 net.cpp:84] Creating Layer BatchNorm20
I1003 09:37:45.171741  7223 net.cpp:406] BatchNorm20 <- Convolution20
I1003 09:37:45.171746  7223 net.cpp:367] BatchNorm20 -> Convolution20 (in-place)
I1003 09:37:45.171890  7223 net.cpp:122] Setting up BatchNorm20
I1003 09:37:45.171895  7223 net.cpp:129] Top shape: 100 32 14 14 (627200)
I1003 09:37:45.171896  7223 net.cpp:137] Memory required for data: 532806800
I1003 09:37:45.171901  7223 layer_factory.hpp:77] Creating layer Scale20
I1003 09:37:45.171905  7223 net.cpp:84] Creating Layer Scale20
I1003 09:37:45.171907  7223 net.cpp:406] Scale20 <- Convolution20
I1003 09:37:45.171911  7223 net.cpp:367] Scale20 -> Convolution20 (in-place)
I1003 09:37:45.171938  7223 layer_factory.hpp:77] Creating layer Scale20
I1003 09:37:45.172029  7223 net.cpp:122] Setting up Scale20
I1003 09:37:45.172036  7223 net.cpp:129] Top shape: 100 32 14 14 (627200)
I1003 09:37:45.172039  7223 net.cpp:137] Memory required for data: 535315600
I1003 09:37:45.172042  7223 layer_factory.hpp:77] Creating layer Convolution21
I1003 09:37:45.172049  7223 net.cpp:84] Creating Layer Convolution21
I1003 09:37:45.172052  7223 net.cpp:406] Convolution21 <- Eltwise9_M2PELU19_0_split_1
I1003 09:37:45.172057  7223 net.cpp:380] Convolution21 -> Convolution21
I1003 09:37:45.173738  7223 net.cpp:122] Setting up Convolution21
I1003 09:37:45.173746  7223 net.cpp:129] Top shape: 100 32 14 14 (627200)
I1003 09:37:45.173756  7223 net.cpp:137] Memory required for data: 537824400
I1003 09:37:45.173761  7223 layer_factory.hpp:77] Creating layer BatchNorm21
I1003 09:37:45.173766  7223 net.cpp:84] Creating Layer BatchNorm21
I1003 09:37:45.173769  7223 net.cpp:406] BatchNorm21 <- Convolution21
I1003 09:37:45.173774  7223 net.cpp:367] BatchNorm21 -> Convolution21 (in-place)
I1003 09:37:45.173913  7223 net.cpp:122] Setting up BatchNorm21
I1003 09:37:45.173918  7223 net.cpp:129] Top shape: 100 32 14 14 (627200)
I1003 09:37:45.173919  7223 net.cpp:137] Memory required for data: 540333200
I1003 09:37:45.173924  7223 layer_factory.hpp:77] Creating layer Scale21
I1003 09:37:45.173928  7223 net.cpp:84] Creating Layer Scale21
I1003 09:37:45.173930  7223 net.cpp:406] Scale21 <- Convolution21
I1003 09:37:45.173933  7223 net.cpp:367] Scale21 -> Convolution21 (in-place)
I1003 09:37:45.173961  7223 layer_factory.hpp:77] Creating layer Scale21
I1003 09:37:45.174038  7223 net.cpp:122] Setting up Scale21
I1003 09:37:45.174042  7223 net.cpp:129] Top shape: 100 32 14 14 (627200)
I1003 09:37:45.174044  7223 net.cpp:137] Memory required for data: 542842000
I1003 09:37:45.174048  7223 layer_factory.hpp:77] Creating layer M2PELU20
I1003 09:37:45.174053  7223 net.cpp:84] Creating Layer M2PELU20
I1003 09:37:45.174055  7223 net.cpp:406] M2PELU20 <- Convolution21
I1003 09:37:45.174059  7223 net.cpp:367] M2PELU20 -> Convolution21 (in-place)
I1003 09:37:45.174144  7223 net.cpp:122] Setting up M2PELU20
I1003 09:37:45.174149  7223 net.cpp:129] Top shape: 100 32 14 14 (627200)
I1003 09:37:45.174150  7223 net.cpp:137] Memory required for data: 545350800
I1003 09:37:45.174154  7223 layer_factory.hpp:77] Creating layer Convolution22
I1003 09:37:45.174161  7223 net.cpp:84] Creating Layer Convolution22
I1003 09:37:45.174165  7223 net.cpp:406] Convolution22 <- Convolution21
I1003 09:37:45.174167  7223 net.cpp:380] Convolution22 -> Convolution22
I1003 09:37:45.175247  7223 net.cpp:122] Setting up Convolution22
I1003 09:37:45.175256  7223 net.cpp:129] Top shape: 100 32 14 14 (627200)
I1003 09:37:45.175258  7223 net.cpp:137] Memory required for data: 547859600
I1003 09:37:45.175262  7223 layer_factory.hpp:77] Creating layer BatchNorm22
I1003 09:37:45.175268  7223 net.cpp:84] Creating Layer BatchNorm22
I1003 09:37:45.175271  7223 net.cpp:406] BatchNorm22 <- Convolution22
I1003 09:37:45.175274  7223 net.cpp:367] BatchNorm22 -> Convolution22 (in-place)
I1003 09:37:45.175407  7223 net.cpp:122] Setting up BatchNorm22
I1003 09:37:45.175411  7223 net.cpp:129] Top shape: 100 32 14 14 (627200)
I1003 09:37:45.175413  7223 net.cpp:137] Memory required for data: 550368400
I1003 09:37:45.175418  7223 layer_factory.hpp:77] Creating layer Scale22
I1003 09:37:45.175423  7223 net.cpp:84] Creating Layer Scale22
I1003 09:37:45.175426  7223 net.cpp:406] Scale22 <- Convolution22
I1003 09:37:45.175428  7223 net.cpp:367] Scale22 -> Convolution22 (in-place)
I1003 09:37:45.175456  7223 layer_factory.hpp:77] Creating layer Scale22
I1003 09:37:45.175529  7223 net.cpp:122] Setting up Scale22
I1003 09:37:45.175534  7223 net.cpp:129] Top shape: 100 32 14 14 (627200)
I1003 09:37:45.175536  7223 net.cpp:137] Memory required for data: 552877200
I1003 09:37:45.175540  7223 layer_factory.hpp:77] Creating layer Eltwise10
I1003 09:37:45.175544  7223 net.cpp:84] Creating Layer Eltwise10
I1003 09:37:45.175547  7223 net.cpp:406] Eltwise10 <- Convolution20
I1003 09:37:45.175549  7223 net.cpp:406] Eltwise10 <- Convolution22
I1003 09:37:45.175554  7223 net.cpp:380] Eltwise10 -> Eltwise10
I1003 09:37:45.175570  7223 net.cpp:122] Setting up Eltwise10
I1003 09:37:45.175573  7223 net.cpp:129] Top shape: 100 32 14 14 (627200)
I1003 09:37:45.175575  7223 net.cpp:137] Memory required for data: 555386000
I1003 09:37:45.175577  7223 layer_factory.hpp:77] Creating layer M2PELU21
I1003 09:37:45.175582  7223 net.cpp:84] Creating Layer M2PELU21
I1003 09:37:45.175585  7223 net.cpp:406] M2PELU21 <- Eltwise10
I1003 09:37:45.175587  7223 net.cpp:367] M2PELU21 -> Eltwise10 (in-place)
I1003 09:37:45.175669  7223 net.cpp:122] Setting up M2PELU21
I1003 09:37:45.175680  7223 net.cpp:129] Top shape: 100 32 14 14 (627200)
I1003 09:37:45.175683  7223 net.cpp:137] Memory required for data: 557894800
I1003 09:37:45.175686  7223 layer_factory.hpp:77] Creating layer Eltwise10_M2PELU21_0_split
I1003 09:37:45.175690  7223 net.cpp:84] Creating Layer Eltwise10_M2PELU21_0_split
I1003 09:37:45.175693  7223 net.cpp:406] Eltwise10_M2PELU21_0_split <- Eltwise10
I1003 09:37:45.175696  7223 net.cpp:380] Eltwise10_M2PELU21_0_split -> Eltwise10_M2PELU21_0_split_0
I1003 09:37:45.175701  7223 net.cpp:380] Eltwise10_M2PELU21_0_split -> Eltwise10_M2PELU21_0_split_1
I1003 09:37:45.175724  7223 net.cpp:122] Setting up Eltwise10_M2PELU21_0_split
I1003 09:37:45.175729  7223 net.cpp:129] Top shape: 100 32 14 14 (627200)
I1003 09:37:45.175730  7223 net.cpp:129] Top shape: 100 32 14 14 (627200)
I1003 09:37:45.175732  7223 net.cpp:137] Memory required for data: 562912400
I1003 09:37:45.175735  7223 layer_factory.hpp:77] Creating layer Convolution23
I1003 09:37:45.175740  7223 net.cpp:84] Creating Layer Convolution23
I1003 09:37:45.175743  7223 net.cpp:406] Convolution23 <- Eltwise10_M2PELU21_0_split_0
I1003 09:37:45.175747  7223 net.cpp:380] Convolution23 -> Convolution23
I1003 09:37:45.177069  7223 net.cpp:122] Setting up Convolution23
I1003 09:37:45.177078  7223 net.cpp:129] Top shape: 100 32 14 14 (627200)
I1003 09:37:45.177080  7223 net.cpp:137] Memory required for data: 565421200
I1003 09:37:45.177084  7223 layer_factory.hpp:77] Creating layer BatchNorm23
I1003 09:37:45.177090  7223 net.cpp:84] Creating Layer BatchNorm23
I1003 09:37:45.177093  7223 net.cpp:406] BatchNorm23 <- Convolution23
I1003 09:37:45.177098  7223 net.cpp:367] BatchNorm23 -> Convolution23 (in-place)
I1003 09:37:45.177232  7223 net.cpp:122] Setting up BatchNorm23
I1003 09:37:45.177237  7223 net.cpp:129] Top shape: 100 32 14 14 (627200)
I1003 09:37:45.177238  7223 net.cpp:137] Memory required for data: 567930000
I1003 09:37:45.177242  7223 layer_factory.hpp:77] Creating layer Scale23
I1003 09:37:45.177248  7223 net.cpp:84] Creating Layer Scale23
I1003 09:37:45.177249  7223 net.cpp:406] Scale23 <- Convolution23
I1003 09:37:45.177253  7223 net.cpp:367] Scale23 -> Convolution23 (in-place)
I1003 09:37:45.177278  7223 layer_factory.hpp:77] Creating layer Scale23
I1003 09:37:45.177356  7223 net.cpp:122] Setting up Scale23
I1003 09:37:45.177361  7223 net.cpp:129] Top shape: 100 32 14 14 (627200)
I1003 09:37:45.177362  7223 net.cpp:137] Memory required for data: 570438800
I1003 09:37:45.177366  7223 layer_factory.hpp:77] Creating layer M2PELU22
I1003 09:37:45.177371  7223 net.cpp:84] Creating Layer M2PELU22
I1003 09:37:45.177373  7223 net.cpp:406] M2PELU22 <- Convolution23
I1003 09:37:45.177376  7223 net.cpp:367] M2PELU22 -> Convolution23 (in-place)
I1003 09:37:45.177456  7223 net.cpp:122] Setting up M2PELU22
I1003 09:37:45.177461  7223 net.cpp:129] Top shape: 100 32 14 14 (627200)
I1003 09:37:45.177464  7223 net.cpp:137] Memory required for data: 572947600
I1003 09:37:45.177466  7223 layer_factory.hpp:77] Creating layer Convolution24
I1003 09:37:45.177474  7223 net.cpp:84] Creating Layer Convolution24
I1003 09:37:45.177475  7223 net.cpp:406] Convolution24 <- Convolution23
I1003 09:37:45.177479  7223 net.cpp:380] Convolution24 -> Convolution24
I1003 09:37:45.178514  7223 net.cpp:122] Setting up Convolution24
I1003 09:37:45.178526  7223 net.cpp:129] Top shape: 100 32 14 14 (627200)
I1003 09:37:45.178529  7223 net.cpp:137] Memory required for data: 575456400
I1003 09:37:45.178534  7223 layer_factory.hpp:77] Creating layer BatchNorm24
I1003 09:37:45.178547  7223 net.cpp:84] Creating Layer BatchNorm24
I1003 09:37:45.178550  7223 net.cpp:406] BatchNorm24 <- Convolution24
I1003 09:37:45.178555  7223 net.cpp:367] BatchNorm24 -> Convolution24 (in-place)
I1003 09:37:45.178688  7223 net.cpp:122] Setting up BatchNorm24
I1003 09:37:45.178691  7223 net.cpp:129] Top shape: 100 32 14 14 (627200)
I1003 09:37:45.178694  7223 net.cpp:137] Memory required for data: 577965200
I1003 09:37:45.178699  7223 layer_factory.hpp:77] Creating layer Scale24
I1003 09:37:45.178709  7223 net.cpp:84] Creating Layer Scale24
I1003 09:37:45.178711  7223 net.cpp:406] Scale24 <- Convolution24
I1003 09:37:45.178715  7223 net.cpp:367] Scale24 -> Convolution24 (in-place)
I1003 09:37:45.178742  7223 layer_factory.hpp:77] Creating layer Scale24
I1003 09:37:45.178818  7223 net.cpp:122] Setting up Scale24
I1003 09:37:45.178823  7223 net.cpp:129] Top shape: 100 32 14 14 (627200)
I1003 09:37:45.178825  7223 net.cpp:137] Memory required for data: 580474000
I1003 09:37:45.178829  7223 layer_factory.hpp:77] Creating layer Eltwise11
I1003 09:37:45.178833  7223 net.cpp:84] Creating Layer Eltwise11
I1003 09:37:45.178835  7223 net.cpp:406] Eltwise11 <- Eltwise10_M2PELU21_0_split_1
I1003 09:37:45.178838  7223 net.cpp:406] Eltwise11 <- Convolution24
I1003 09:37:45.178843  7223 net.cpp:380] Eltwise11 -> Eltwise11
I1003 09:37:45.178858  7223 net.cpp:122] Setting up Eltwise11
I1003 09:37:45.178861  7223 net.cpp:129] Top shape: 100 32 14 14 (627200)
I1003 09:37:45.178864  7223 net.cpp:137] Memory required for data: 582982800
I1003 09:37:45.178866  7223 layer_factory.hpp:77] Creating layer M2PELU23
I1003 09:37:45.178870  7223 net.cpp:84] Creating Layer M2PELU23
I1003 09:37:45.178872  7223 net.cpp:406] M2PELU23 <- Eltwise11
I1003 09:37:45.178876  7223 net.cpp:367] M2PELU23 -> Eltwise11 (in-place)
I1003 09:37:45.178959  7223 net.cpp:122] Setting up M2PELU23
I1003 09:37:45.178963  7223 net.cpp:129] Top shape: 100 32 14 14 (627200)
I1003 09:37:45.178966  7223 net.cpp:137] Memory required for data: 585491600
I1003 09:37:45.178968  7223 layer_factory.hpp:77] Creating layer Eltwise11_M2PELU23_0_split
I1003 09:37:45.178972  7223 net.cpp:84] Creating Layer Eltwise11_M2PELU23_0_split
I1003 09:37:45.178974  7223 net.cpp:406] Eltwise11_M2PELU23_0_split <- Eltwise11
I1003 09:37:45.178978  7223 net.cpp:380] Eltwise11_M2PELU23_0_split -> Eltwise11_M2PELU23_0_split_0
I1003 09:37:45.178982  7223 net.cpp:380] Eltwise11_M2PELU23_0_split -> Eltwise11_M2PELU23_0_split_1
I1003 09:37:45.179008  7223 net.cpp:122] Setting up Eltwise11_M2PELU23_0_split
I1003 09:37:45.179010  7223 net.cpp:129] Top shape: 100 32 14 14 (627200)
I1003 09:37:45.179013  7223 net.cpp:129] Top shape: 100 32 14 14 (627200)
I1003 09:37:45.179015  7223 net.cpp:137] Memory required for data: 590509200
I1003 09:37:45.179018  7223 layer_factory.hpp:77] Creating layer Convolution25
I1003 09:37:45.179023  7223 net.cpp:84] Creating Layer Convolution25
I1003 09:37:45.179026  7223 net.cpp:406] Convolution25 <- Eltwise11_M2PELU23_0_split_0
I1003 09:37:45.179029  7223 net.cpp:380] Convolution25 -> Convolution25
I1003 09:37:45.180052  7223 net.cpp:122] Setting up Convolution25
I1003 09:37:45.180059  7223 net.cpp:129] Top shape: 100 32 14 14 (627200)
I1003 09:37:45.180063  7223 net.cpp:137] Memory required for data: 593018000
I1003 09:37:45.180066  7223 layer_factory.hpp:77] Creating layer BatchNorm25
I1003 09:37:45.180071  7223 net.cpp:84] Creating Layer BatchNorm25
I1003 09:37:45.180074  7223 net.cpp:406] BatchNorm25 <- Convolution25
I1003 09:37:45.180078  7223 net.cpp:367] BatchNorm25 -> Convolution25 (in-place)
I1003 09:37:45.180212  7223 net.cpp:122] Setting up BatchNorm25
I1003 09:37:45.180215  7223 net.cpp:129] Top shape: 100 32 14 14 (627200)
I1003 09:37:45.180217  7223 net.cpp:137] Memory required for data: 595526800
I1003 09:37:45.180222  7223 layer_factory.hpp:77] Creating layer Scale25
I1003 09:37:45.180227  7223 net.cpp:84] Creating Layer Scale25
I1003 09:37:45.180229  7223 net.cpp:406] Scale25 <- Convolution25
I1003 09:37:45.180233  7223 net.cpp:367] Scale25 -> Convolution25 (in-place)
I1003 09:37:45.180258  7223 layer_factory.hpp:77] Creating layer Scale25
I1003 09:37:45.180336  7223 net.cpp:122] Setting up Scale25
I1003 09:37:45.180341  7223 net.cpp:129] Top shape: 100 32 14 14 (627200)
I1003 09:37:45.180342  7223 net.cpp:137] Memory required for data: 598035600
I1003 09:37:45.180346  7223 layer_factory.hpp:77] Creating layer M2PELU24
I1003 09:37:45.180352  7223 net.cpp:84] Creating Layer M2PELU24
I1003 09:37:45.180354  7223 net.cpp:406] M2PELU24 <- Convolution25
I1003 09:37:45.180363  7223 net.cpp:367] M2PELU24 -> Convolution25 (in-place)
I1003 09:37:45.180446  7223 net.cpp:122] Setting up M2PELU24
I1003 09:37:45.180451  7223 net.cpp:129] Top shape: 100 32 14 14 (627200)
I1003 09:37:45.180454  7223 net.cpp:137] Memory required for data: 600544400
I1003 09:37:45.180457  7223 layer_factory.hpp:77] Creating layer Convolution26
I1003 09:37:45.180464  7223 net.cpp:84] Creating Layer Convolution26
I1003 09:37:45.180466  7223 net.cpp:406] Convolution26 <- Convolution25
I1003 09:37:45.180470  7223 net.cpp:380] Convolution26 -> Convolution26
I1003 09:37:45.181493  7223 net.cpp:122] Setting up Convolution26
I1003 09:37:45.181501  7223 net.cpp:129] Top shape: 100 32 14 14 (627200)
I1003 09:37:45.181504  7223 net.cpp:137] Memory required for data: 603053200
I1003 09:37:45.181509  7223 layer_factory.hpp:77] Creating layer BatchNorm26
I1003 09:37:45.181514  7223 net.cpp:84] Creating Layer BatchNorm26
I1003 09:37:45.181515  7223 net.cpp:406] BatchNorm26 <- Convolution26
I1003 09:37:45.181519  7223 net.cpp:367] BatchNorm26 -> Convolution26 (in-place)
I1003 09:37:45.181655  7223 net.cpp:122] Setting up BatchNorm26
I1003 09:37:45.181660  7223 net.cpp:129] Top shape: 100 32 14 14 (627200)
I1003 09:37:45.181663  7223 net.cpp:137] Memory required for data: 605562000
I1003 09:37:45.181666  7223 layer_factory.hpp:77] Creating layer Scale26
I1003 09:37:45.181670  7223 net.cpp:84] Creating Layer Scale26
I1003 09:37:45.181674  7223 net.cpp:406] Scale26 <- Convolution26
I1003 09:37:45.181677  7223 net.cpp:367] Scale26 -> Convolution26 (in-place)
I1003 09:37:45.181702  7223 layer_factory.hpp:77] Creating layer Scale26
I1003 09:37:45.181779  7223 net.cpp:122] Setting up Scale26
I1003 09:37:45.181783  7223 net.cpp:129] Top shape: 100 32 14 14 (627200)
I1003 09:37:45.181785  7223 net.cpp:137] Memory required for data: 608070800
I1003 09:37:45.181789  7223 layer_factory.hpp:77] Creating layer Eltwise12
I1003 09:37:45.181793  7223 net.cpp:84] Creating Layer Eltwise12
I1003 09:37:45.181795  7223 net.cpp:406] Eltwise12 <- Eltwise11_M2PELU23_0_split_1
I1003 09:37:45.181798  7223 net.cpp:406] Eltwise12 <- Convolution26
I1003 09:37:45.181802  7223 net.cpp:380] Eltwise12 -> Eltwise12
I1003 09:37:45.181818  7223 net.cpp:122] Setting up Eltwise12
I1003 09:37:45.181821  7223 net.cpp:129] Top shape: 100 32 14 14 (627200)
I1003 09:37:45.181823  7223 net.cpp:137] Memory required for data: 610579600
I1003 09:37:45.181825  7223 layer_factory.hpp:77] Creating layer M2PELU25
I1003 09:37:45.181829  7223 net.cpp:84] Creating Layer M2PELU25
I1003 09:37:45.181831  7223 net.cpp:406] M2PELU25 <- Eltwise12
I1003 09:37:45.181835  7223 net.cpp:367] M2PELU25 -> Eltwise12 (in-place)
I1003 09:37:45.181919  7223 net.cpp:122] Setting up M2PELU25
I1003 09:37:45.181923  7223 net.cpp:129] Top shape: 100 32 14 14 (627200)
I1003 09:37:45.181926  7223 net.cpp:137] Memory required for data: 613088400
I1003 09:37:45.181928  7223 layer_factory.hpp:77] Creating layer Eltwise12_M2PELU25_0_split
I1003 09:37:45.181941  7223 net.cpp:84] Creating Layer Eltwise12_M2PELU25_0_split
I1003 09:37:45.181943  7223 net.cpp:406] Eltwise12_M2PELU25_0_split <- Eltwise12
I1003 09:37:45.181946  7223 net.cpp:380] Eltwise12_M2PELU25_0_split -> Eltwise12_M2PELU25_0_split_0
I1003 09:37:45.181954  7223 net.cpp:380] Eltwise12_M2PELU25_0_split -> Eltwise12_M2PELU25_0_split_1
I1003 09:37:45.181978  7223 net.cpp:122] Setting up Eltwise12_M2PELU25_0_split
I1003 09:37:45.181983  7223 net.cpp:129] Top shape: 100 32 14 14 (627200)
I1003 09:37:45.181985  7223 net.cpp:129] Top shape: 100 32 14 14 (627200)
I1003 09:37:45.181988  7223 net.cpp:137] Memory required for data: 618106000
I1003 09:37:45.181990  7223 layer_factory.hpp:77] Creating layer Convolution27
I1003 09:37:45.181995  7223 net.cpp:84] Creating Layer Convolution27
I1003 09:37:45.181998  7223 net.cpp:406] Convolution27 <- Eltwise12_M2PELU25_0_split_0
I1003 09:37:45.182003  7223 net.cpp:380] Convolution27 -> Convolution27
I1003 09:37:45.182732  7223 net.cpp:122] Setting up Convolution27
I1003 09:37:45.182745  7223 net.cpp:129] Top shape: 100 32 14 14 (627200)
I1003 09:37:45.182749  7223 net.cpp:137] Memory required for data: 620614800
I1003 09:37:45.182752  7223 layer_factory.hpp:77] Creating layer BatchNorm27
I1003 09:37:45.182759  7223 net.cpp:84] Creating Layer BatchNorm27
I1003 09:37:45.182761  7223 net.cpp:406] BatchNorm27 <- Convolution27
I1003 09:37:45.182765  7223 net.cpp:367] BatchNorm27 -> Convolution27 (in-place)
I1003 09:37:45.182899  7223 net.cpp:122] Setting up BatchNorm27
I1003 09:37:45.182904  7223 net.cpp:129] Top shape: 100 32 14 14 (627200)
I1003 09:37:45.182905  7223 net.cpp:137] Memory required for data: 623123600
I1003 09:37:45.182910  7223 layer_factory.hpp:77] Creating layer Scale27
I1003 09:37:45.182915  7223 net.cpp:84] Creating Layer Scale27
I1003 09:37:45.182919  7223 net.cpp:406] Scale27 <- Convolution27
I1003 09:37:45.182921  7223 net.cpp:367] Scale27 -> Convolution27 (in-place)
I1003 09:37:45.182947  7223 layer_factory.hpp:77] Creating layer Scale27
I1003 09:37:45.183022  7223 net.cpp:122] Setting up Scale27
I1003 09:37:45.183025  7223 net.cpp:129] Top shape: 100 32 14 14 (627200)
I1003 09:37:45.183027  7223 net.cpp:137] Memory required for data: 625632400
I1003 09:37:45.183032  7223 layer_factory.hpp:77] Creating layer M2PELU26
I1003 09:37:45.183037  7223 net.cpp:84] Creating Layer M2PELU26
I1003 09:37:45.183038  7223 net.cpp:406] M2PELU26 <- Convolution27
I1003 09:37:45.183043  7223 net.cpp:367] M2PELU26 -> Convolution27 (in-place)
I1003 09:37:45.183123  7223 net.cpp:122] Setting up M2PELU26
I1003 09:37:45.183127  7223 net.cpp:129] Top shape: 100 32 14 14 (627200)
I1003 09:37:45.183130  7223 net.cpp:137] Memory required for data: 628141200
I1003 09:37:45.183133  7223 layer_factory.hpp:77] Creating layer Convolution28
I1003 09:37:45.183140  7223 net.cpp:84] Creating Layer Convolution28
I1003 09:37:45.183142  7223 net.cpp:406] Convolution28 <- Convolution27
I1003 09:37:45.183147  7223 net.cpp:380] Convolution28 -> Convolution28
I1003 09:37:45.184166  7223 net.cpp:122] Setting up Convolution28
I1003 09:37:45.184175  7223 net.cpp:129] Top shape: 100 32 14 14 (627200)
I1003 09:37:45.184177  7223 net.cpp:137] Memory required for data: 630650000
I1003 09:37:45.184181  7223 layer_factory.hpp:77] Creating layer BatchNorm28
I1003 09:37:45.184186  7223 net.cpp:84] Creating Layer BatchNorm28
I1003 09:37:45.184190  7223 net.cpp:406] BatchNorm28 <- Convolution28
I1003 09:37:45.184192  7223 net.cpp:367] BatchNorm28 -> Convolution28 (in-place)
I1003 09:37:45.184327  7223 net.cpp:122] Setting up BatchNorm28
I1003 09:37:45.184332  7223 net.cpp:129] Top shape: 100 32 14 14 (627200)
I1003 09:37:45.184334  7223 net.cpp:137] Memory required for data: 633158800
I1003 09:37:45.184339  7223 layer_factory.hpp:77] Creating layer Scale28
I1003 09:37:45.184342  7223 net.cpp:84] Creating Layer Scale28
I1003 09:37:45.184345  7223 net.cpp:406] Scale28 <- Convolution28
I1003 09:37:45.184347  7223 net.cpp:367] Scale28 -> Convolution28 (in-place)
I1003 09:37:45.184375  7223 layer_factory.hpp:77] Creating layer Scale28
I1003 09:37:45.184451  7223 net.cpp:122] Setting up Scale28
I1003 09:37:45.184455  7223 net.cpp:129] Top shape: 100 32 14 14 (627200)
I1003 09:37:45.184458  7223 net.cpp:137] Memory required for data: 635667600
I1003 09:37:45.184461  7223 layer_factory.hpp:77] Creating layer Eltwise13
I1003 09:37:45.184466  7223 net.cpp:84] Creating Layer Eltwise13
I1003 09:37:45.184468  7223 net.cpp:406] Eltwise13 <- Eltwise12_M2PELU25_0_split_1
I1003 09:37:45.184471  7223 net.cpp:406] Eltwise13 <- Convolution28
I1003 09:37:45.184474  7223 net.cpp:380] Eltwise13 -> Eltwise13
I1003 09:37:45.184490  7223 net.cpp:122] Setting up Eltwise13
I1003 09:37:45.184494  7223 net.cpp:129] Top shape: 100 32 14 14 (627200)
I1003 09:37:45.184496  7223 net.cpp:137] Memory required for data: 638176400
I1003 09:37:45.184499  7223 layer_factory.hpp:77] Creating layer M2PELU27
I1003 09:37:45.184504  7223 net.cpp:84] Creating Layer M2PELU27
I1003 09:37:45.184506  7223 net.cpp:406] M2PELU27 <- Eltwise13
I1003 09:37:45.184510  7223 net.cpp:367] M2PELU27 -> Eltwise13 (in-place)
I1003 09:37:45.184602  7223 net.cpp:122] Setting up M2PELU27
I1003 09:37:45.184607  7223 net.cpp:129] Top shape: 100 32 14 14 (627200)
I1003 09:37:45.184608  7223 net.cpp:137] Memory required for data: 640685200
I1003 09:37:45.184612  7223 layer_factory.hpp:77] Creating layer Eltwise13_M2PELU27_0_split
I1003 09:37:45.184615  7223 net.cpp:84] Creating Layer Eltwise13_M2PELU27_0_split
I1003 09:37:45.184617  7223 net.cpp:406] Eltwise13_M2PELU27_0_split <- Eltwise13
I1003 09:37:45.184622  7223 net.cpp:380] Eltwise13_M2PELU27_0_split -> Eltwise13_M2PELU27_0_split_0
I1003 09:37:45.184625  7223 net.cpp:380] Eltwise13_M2PELU27_0_split -> Eltwise13_M2PELU27_0_split_1
I1003 09:37:45.184649  7223 net.cpp:122] Setting up Eltwise13_M2PELU27_0_split
I1003 09:37:45.184653  7223 net.cpp:129] Top shape: 100 32 14 14 (627200)
I1003 09:37:45.184655  7223 net.cpp:129] Top shape: 100 32 14 14 (627200)
I1003 09:37:45.184659  7223 net.cpp:137] Memory required for data: 645702800
I1003 09:37:45.184660  7223 layer_factory.hpp:77] Creating layer Convolution29
I1003 09:37:45.184666  7223 net.cpp:84] Creating Layer Convolution29
I1003 09:37:45.184669  7223 net.cpp:406] Convolution29 <- Eltwise13_M2PELU27_0_split_0
I1003 09:37:45.184674  7223 net.cpp:380] Convolution29 -> Convolution29
I1003 09:37:45.185700  7223 net.cpp:122] Setting up Convolution29
I1003 09:37:45.185709  7223 net.cpp:129] Top shape: 100 32 14 14 (627200)
I1003 09:37:45.185711  7223 net.cpp:137] Memory required for data: 648211600
I1003 09:37:45.185716  7223 layer_factory.hpp:77] Creating layer BatchNorm29
I1003 09:37:45.185721  7223 net.cpp:84] Creating Layer BatchNorm29
I1003 09:37:45.185724  7223 net.cpp:406] BatchNorm29 <- Convolution29
I1003 09:37:45.185729  7223 net.cpp:367] BatchNorm29 -> Convolution29 (in-place)
I1003 09:37:45.185863  7223 net.cpp:122] Setting up BatchNorm29
I1003 09:37:45.185868  7223 net.cpp:129] Top shape: 100 32 14 14 (627200)
I1003 09:37:45.185869  7223 net.cpp:137] Memory required for data: 650720400
I1003 09:37:45.185873  7223 layer_factory.hpp:77] Creating layer Scale29
I1003 09:37:45.185878  7223 net.cpp:84] Creating Layer Scale29
I1003 09:37:45.185880  7223 net.cpp:406] Scale29 <- Convolution29
I1003 09:37:45.185883  7223 net.cpp:367] Scale29 -> Convolution29 (in-place)
I1003 09:37:45.185910  7223 layer_factory.hpp:77] Creating layer Scale29
I1003 09:37:45.185987  7223 net.cpp:122] Setting up Scale29
I1003 09:37:45.185992  7223 net.cpp:129] Top shape: 100 32 14 14 (627200)
I1003 09:37:45.185994  7223 net.cpp:137] Memory required for data: 653229200
I1003 09:37:45.186014  7223 layer_factory.hpp:77] Creating layer M2PELU28
I1003 09:37:45.186020  7223 net.cpp:84] Creating Layer M2PELU28
I1003 09:37:45.186023  7223 net.cpp:406] M2PELU28 <- Convolution29
I1003 09:37:45.186027  7223 net.cpp:367] M2PELU28 -> Convolution29 (in-place)
I1003 09:37:45.186115  7223 net.cpp:122] Setting up M2PELU28
I1003 09:37:45.186118  7223 net.cpp:129] Top shape: 100 32 14 14 (627200)
I1003 09:37:45.186120  7223 net.cpp:137] Memory required for data: 655738000
I1003 09:37:45.186125  7223 layer_factory.hpp:77] Creating layer Convolution30
I1003 09:37:45.186131  7223 net.cpp:84] Creating Layer Convolution30
I1003 09:37:45.186133  7223 net.cpp:406] Convolution30 <- Convolution29
I1003 09:37:45.186138  7223 net.cpp:380] Convolution30 -> Convolution30
I1003 09:37:45.187189  7223 net.cpp:122] Setting up Convolution30
I1003 09:37:45.187197  7223 net.cpp:129] Top shape: 100 32 14 14 (627200)
I1003 09:37:45.187201  7223 net.cpp:137] Memory required for data: 658246800
I1003 09:37:45.187204  7223 layer_factory.hpp:77] Creating layer BatchNorm30
I1003 09:37:45.187211  7223 net.cpp:84] Creating Layer BatchNorm30
I1003 09:37:45.187212  7223 net.cpp:406] BatchNorm30 <- Convolution30
I1003 09:37:45.187216  7223 net.cpp:367] BatchNorm30 -> Convolution30 (in-place)
I1003 09:37:45.187350  7223 net.cpp:122] Setting up BatchNorm30
I1003 09:37:45.187355  7223 net.cpp:129] Top shape: 100 32 14 14 (627200)
I1003 09:37:45.187356  7223 net.cpp:137] Memory required for data: 660755600
I1003 09:37:45.187367  7223 layer_factory.hpp:77] Creating layer Scale30
I1003 09:37:45.187372  7223 net.cpp:84] Creating Layer Scale30
I1003 09:37:45.187376  7223 net.cpp:406] Scale30 <- Convolution30
I1003 09:37:45.187378  7223 net.cpp:367] Scale30 -> Convolution30 (in-place)
I1003 09:37:45.187407  7223 layer_factory.hpp:77] Creating layer Scale30
I1003 09:37:45.187482  7223 net.cpp:122] Setting up Scale30
I1003 09:37:45.187486  7223 net.cpp:129] Top shape: 100 32 14 14 (627200)
I1003 09:37:45.187489  7223 net.cpp:137] Memory required for data: 663264400
I1003 09:37:45.187492  7223 layer_factory.hpp:77] Creating layer Eltwise14
I1003 09:37:45.187497  7223 net.cpp:84] Creating Layer Eltwise14
I1003 09:37:45.187500  7223 net.cpp:406] Eltwise14 <- Eltwise13_M2PELU27_0_split_1
I1003 09:37:45.187502  7223 net.cpp:406] Eltwise14 <- Convolution30
I1003 09:37:45.187505  7223 net.cpp:380] Eltwise14 -> Eltwise14
I1003 09:37:45.187521  7223 net.cpp:122] Setting up Eltwise14
I1003 09:37:45.187525  7223 net.cpp:129] Top shape: 100 32 14 14 (627200)
I1003 09:37:45.187527  7223 net.cpp:137] Memory required for data: 665773200
I1003 09:37:45.187530  7223 layer_factory.hpp:77] Creating layer M2PELU29
I1003 09:37:45.187533  7223 net.cpp:84] Creating Layer M2PELU29
I1003 09:37:45.187536  7223 net.cpp:406] M2PELU29 <- Eltwise14
I1003 09:37:45.187539  7223 net.cpp:367] M2PELU29 -> Eltwise14 (in-place)
I1003 09:37:45.187623  7223 net.cpp:122] Setting up M2PELU29
I1003 09:37:45.187626  7223 net.cpp:129] Top shape: 100 32 14 14 (627200)
I1003 09:37:45.187628  7223 net.cpp:137] Memory required for data: 668282000
I1003 09:37:45.187631  7223 layer_factory.hpp:77] Creating layer Eltwise14_M2PELU29_0_split
I1003 09:37:45.187636  7223 net.cpp:84] Creating Layer Eltwise14_M2PELU29_0_split
I1003 09:37:45.187638  7223 net.cpp:406] Eltwise14_M2PELU29_0_split <- Eltwise14
I1003 09:37:45.187641  7223 net.cpp:380] Eltwise14_M2PELU29_0_split -> Eltwise14_M2PELU29_0_split_0
I1003 09:37:45.187645  7223 net.cpp:380] Eltwise14_M2PELU29_0_split -> Eltwise14_M2PELU29_0_split_1
I1003 09:37:45.187669  7223 net.cpp:122] Setting up Eltwise14_M2PELU29_0_split
I1003 09:37:45.187672  7223 net.cpp:129] Top shape: 100 32 14 14 (627200)
I1003 09:37:45.187675  7223 net.cpp:129] Top shape: 100 32 14 14 (627200)
I1003 09:37:45.187677  7223 net.cpp:137] Memory required for data: 673299600
I1003 09:37:45.187680  7223 layer_factory.hpp:77] Creating layer Convolution31
I1003 09:37:45.187685  7223 net.cpp:84] Creating Layer Convolution31
I1003 09:37:45.187687  7223 net.cpp:406] Convolution31 <- Eltwise14_M2PELU29_0_split_0
I1003 09:37:45.187691  7223 net.cpp:380] Convolution31 -> Convolution31
I1003 09:37:45.188719  7223 net.cpp:122] Setting up Convolution31
I1003 09:37:45.188727  7223 net.cpp:129] Top shape: 100 32 14 14 (627200)
I1003 09:37:45.188730  7223 net.cpp:137] Memory required for data: 675808400
I1003 09:37:45.188735  7223 layer_factory.hpp:77] Creating layer BatchNorm31
I1003 09:37:45.188740  7223 net.cpp:84] Creating Layer BatchNorm31
I1003 09:37:45.188743  7223 net.cpp:406] BatchNorm31 <- Convolution31
I1003 09:37:45.188747  7223 net.cpp:367] BatchNorm31 -> Convolution31 (in-place)
I1003 09:37:45.188882  7223 net.cpp:122] Setting up BatchNorm31
I1003 09:37:45.188887  7223 net.cpp:129] Top shape: 100 32 14 14 (627200)
I1003 09:37:45.188889  7223 net.cpp:137] Memory required for data: 678317200
I1003 09:37:45.188894  7223 layer_factory.hpp:77] Creating layer Scale31
I1003 09:37:45.188897  7223 net.cpp:84] Creating Layer Scale31
I1003 09:37:45.188900  7223 net.cpp:406] Scale31 <- Convolution31
I1003 09:37:45.188904  7223 net.cpp:367] Scale31 -> Convolution31 (in-place)
I1003 09:37:45.188930  7223 layer_factory.hpp:77] Creating layer Scale31
I1003 09:37:45.189007  7223 net.cpp:122] Setting up Scale31
I1003 09:37:45.189013  7223 net.cpp:129] Top shape: 100 32 14 14 (627200)
I1003 09:37:45.189014  7223 net.cpp:137] Memory required for data: 680826000
I1003 09:37:45.189018  7223 layer_factory.hpp:77] Creating layer M2PELU30
I1003 09:37:45.189028  7223 net.cpp:84] Creating Layer M2PELU30
I1003 09:37:45.189031  7223 net.cpp:406] M2PELU30 <- Convolution31
I1003 09:37:45.189035  7223 net.cpp:367] M2PELU30 -> Convolution31 (in-place)
I1003 09:37:45.189121  7223 net.cpp:122] Setting up M2PELU30
I1003 09:37:45.189126  7223 net.cpp:129] Top shape: 100 32 14 14 (627200)
I1003 09:37:45.189127  7223 net.cpp:137] Memory required for data: 683334800
I1003 09:37:45.189131  7223 layer_factory.hpp:77] Creating layer Convolution32
I1003 09:37:45.189138  7223 net.cpp:84] Creating Layer Convolution32
I1003 09:37:45.189141  7223 net.cpp:406] Convolution32 <- Convolution31
I1003 09:37:45.189146  7223 net.cpp:380] Convolution32 -> Convolution32
I1003 09:37:45.190171  7223 net.cpp:122] Setting up Convolution32
I1003 09:37:45.190179  7223 net.cpp:129] Top shape: 100 32 14 14 (627200)
I1003 09:37:45.190182  7223 net.cpp:137] Memory required for data: 685843600
I1003 09:37:45.190186  7223 layer_factory.hpp:77] Creating layer BatchNorm32
I1003 09:37:45.190191  7223 net.cpp:84] Creating Layer BatchNorm32
I1003 09:37:45.190194  7223 net.cpp:406] BatchNorm32 <- Convolution32
I1003 09:37:45.190198  7223 net.cpp:367] BatchNorm32 -> Convolution32 (in-place)
I1003 09:37:45.190333  7223 net.cpp:122] Setting up BatchNorm32
I1003 09:37:45.190337  7223 net.cpp:129] Top shape: 100 32 14 14 (627200)
I1003 09:37:45.190340  7223 net.cpp:137] Memory required for data: 688352400
I1003 09:37:45.190345  7223 layer_factory.hpp:77] Creating layer Scale32
I1003 09:37:45.190349  7223 net.cpp:84] Creating Layer Scale32
I1003 09:37:45.190352  7223 net.cpp:406] Scale32 <- Convolution32
I1003 09:37:45.190356  7223 net.cpp:367] Scale32 -> Convolution32 (in-place)
I1003 09:37:45.190382  7223 layer_factory.hpp:77] Creating layer Scale32
I1003 09:37:45.190459  7223 net.cpp:122] Setting up Scale32
I1003 09:37:45.190464  7223 net.cpp:129] Top shape: 100 32 14 14 (627200)
I1003 09:37:45.190465  7223 net.cpp:137] Memory required for data: 690861200
I1003 09:37:45.190469  7223 layer_factory.hpp:77] Creating layer Eltwise15
I1003 09:37:45.190474  7223 net.cpp:84] Creating Layer Eltwise15
I1003 09:37:45.190476  7223 net.cpp:406] Eltwise15 <- Eltwise14_M2PELU29_0_split_1
I1003 09:37:45.190479  7223 net.cpp:406] Eltwise15 <- Convolution32
I1003 09:37:45.190481  7223 net.cpp:380] Eltwise15 -> Eltwise15
I1003 09:37:45.190498  7223 net.cpp:122] Setting up Eltwise15
I1003 09:37:45.190501  7223 net.cpp:129] Top shape: 100 32 14 14 (627200)
I1003 09:37:45.190503  7223 net.cpp:137] Memory required for data: 693370000
I1003 09:37:45.190505  7223 layer_factory.hpp:77] Creating layer M2PELU31
I1003 09:37:45.190510  7223 net.cpp:84] Creating Layer M2PELU31
I1003 09:37:45.190513  7223 net.cpp:406] M2PELU31 <- Eltwise15
I1003 09:37:45.190516  7223 net.cpp:367] M2PELU31 -> Eltwise15 (in-place)
I1003 09:37:45.190626  7223 net.cpp:122] Setting up M2PELU31
I1003 09:37:45.190631  7223 net.cpp:129] Top shape: 100 32 14 14 (627200)
I1003 09:37:45.190634  7223 net.cpp:137] Memory required for data: 695878800
I1003 09:37:45.190637  7223 layer_factory.hpp:77] Creating layer Eltwise15_M2PELU31_0_split
I1003 09:37:45.190640  7223 net.cpp:84] Creating Layer Eltwise15_M2PELU31_0_split
I1003 09:37:45.190644  7223 net.cpp:406] Eltwise15_M2PELU31_0_split <- Eltwise15
I1003 09:37:45.190647  7223 net.cpp:380] Eltwise15_M2PELU31_0_split -> Eltwise15_M2PELU31_0_split_0
I1003 09:37:45.190651  7223 net.cpp:380] Eltwise15_M2PELU31_0_split -> Eltwise15_M2PELU31_0_split_1
I1003 09:37:45.190675  7223 net.cpp:122] Setting up Eltwise15_M2PELU31_0_split
I1003 09:37:45.190678  7223 net.cpp:129] Top shape: 100 32 14 14 (627200)
I1003 09:37:45.190681  7223 net.cpp:129] Top shape: 100 32 14 14 (627200)
I1003 09:37:45.190683  7223 net.cpp:137] Memory required for data: 700896400
I1003 09:37:45.190685  7223 layer_factory.hpp:77] Creating layer Convolution33
I1003 09:37:45.190690  7223 net.cpp:84] Creating Layer Convolution33
I1003 09:37:45.190693  7223 net.cpp:406] Convolution33 <- Eltwise15_M2PELU31_0_split_0
I1003 09:37:45.190697  7223 net.cpp:380] Convolution33 -> Convolution33
I1003 09:37:45.192046  7223 net.cpp:122] Setting up Convolution33
I1003 09:37:45.192054  7223 net.cpp:129] Top shape: 100 32 14 14 (627200)
I1003 09:37:45.192056  7223 net.cpp:137] Memory required for data: 703405200
I1003 09:37:45.192061  7223 layer_factory.hpp:77] Creating layer BatchNorm33
I1003 09:37:45.192067  7223 net.cpp:84] Creating Layer BatchNorm33
I1003 09:37:45.192070  7223 net.cpp:406] BatchNorm33 <- Convolution33
I1003 09:37:45.192075  7223 net.cpp:367] BatchNorm33 -> Convolution33 (in-place)
I1003 09:37:45.192214  7223 net.cpp:122] Setting up BatchNorm33
I1003 09:37:45.192219  7223 net.cpp:129] Top shape: 100 32 14 14 (627200)
I1003 09:37:45.192221  7223 net.cpp:137] Memory required for data: 705914000
I1003 09:37:45.192225  7223 layer_factory.hpp:77] Creating layer Scale33
I1003 09:37:45.192230  7223 net.cpp:84] Creating Layer Scale33
I1003 09:37:45.192232  7223 net.cpp:406] Scale33 <- Convolution33
I1003 09:37:45.192235  7223 net.cpp:367] Scale33 -> Convolution33 (in-place)
I1003 09:37:45.192262  7223 layer_factory.hpp:77] Creating layer Scale33
I1003 09:37:45.192342  7223 net.cpp:122] Setting up Scale33
I1003 09:37:45.192347  7223 net.cpp:129] Top shape: 100 32 14 14 (627200)
I1003 09:37:45.192348  7223 net.cpp:137] Memory required for data: 708422800
I1003 09:37:45.192353  7223 layer_factory.hpp:77] Creating layer M2PELU32
I1003 09:37:45.192358  7223 net.cpp:84] Creating Layer M2PELU32
I1003 09:37:45.192359  7223 net.cpp:406] M2PELU32 <- Convolution33
I1003 09:37:45.192363  7223 net.cpp:367] M2PELU32 -> Convolution33 (in-place)
I1003 09:37:45.192447  7223 net.cpp:122] Setting up M2PELU32
I1003 09:37:45.192451  7223 net.cpp:129] Top shape: 100 32 14 14 (627200)
I1003 09:37:45.192453  7223 net.cpp:137] Memory required for data: 710931600
I1003 09:37:45.192457  7223 layer_factory.hpp:77] Creating layer Convolution34
I1003 09:37:45.192463  7223 net.cpp:84] Creating Layer Convolution34
I1003 09:37:45.192466  7223 net.cpp:406] Convolution34 <- Convolution33
I1003 09:37:45.192471  7223 net.cpp:380] Convolution34 -> Convolution34
I1003 09:37:45.193505  7223 net.cpp:122] Setting up Convolution34
I1003 09:37:45.193513  7223 net.cpp:129] Top shape: 100 32 14 14 (627200)
I1003 09:37:45.193516  7223 net.cpp:137] Memory required for data: 713440400
I1003 09:37:45.193521  7223 layer_factory.hpp:77] Creating layer BatchNorm34
I1003 09:37:45.193526  7223 net.cpp:84] Creating Layer BatchNorm34
I1003 09:37:45.193527  7223 net.cpp:406] BatchNorm34 <- Convolution34
I1003 09:37:45.193532  7223 net.cpp:367] BatchNorm34 -> Convolution34 (in-place)
I1003 09:37:45.193670  7223 net.cpp:122] Setting up BatchNorm34
I1003 09:37:45.193675  7223 net.cpp:129] Top shape: 100 32 14 14 (627200)
I1003 09:37:45.193676  7223 net.cpp:137] Memory required for data: 715949200
I1003 09:37:45.193681  7223 layer_factory.hpp:77] Creating layer Scale34
I1003 09:37:45.193686  7223 net.cpp:84] Creating Layer Scale34
I1003 09:37:45.193687  7223 net.cpp:406] Scale34 <- Convolution34
I1003 09:37:45.193691  7223 net.cpp:367] Scale34 -> Convolution34 (in-place)
I1003 09:37:45.193717  7223 layer_factory.hpp:77] Creating layer Scale34
I1003 09:37:45.193794  7223 net.cpp:122] Setting up Scale34
I1003 09:37:45.193797  7223 net.cpp:129] Top shape: 100 32 14 14 (627200)
I1003 09:37:45.193799  7223 net.cpp:137] Memory required for data: 718458000
I1003 09:37:45.193804  7223 layer_factory.hpp:77] Creating layer Eltwise16
I1003 09:37:45.193807  7223 net.cpp:84] Creating Layer Eltwise16
I1003 09:37:45.193809  7223 net.cpp:406] Eltwise16 <- Eltwise15_M2PELU31_0_split_1
I1003 09:37:45.193812  7223 net.cpp:406] Eltwise16 <- Convolution34
I1003 09:37:45.193815  7223 net.cpp:380] Eltwise16 -> Eltwise16
I1003 09:37:45.193833  7223 net.cpp:122] Setting up Eltwise16
I1003 09:37:45.193837  7223 net.cpp:129] Top shape: 100 32 14 14 (627200)
I1003 09:37:45.193840  7223 net.cpp:137] Memory required for data: 720966800
I1003 09:37:45.193841  7223 layer_factory.hpp:77] Creating layer M2PELU33
I1003 09:37:45.193846  7223 net.cpp:84] Creating Layer M2PELU33
I1003 09:37:45.193856  7223 net.cpp:406] M2PELU33 <- Eltwise16
I1003 09:37:45.193859  7223 net.cpp:367] M2PELU33 -> Eltwise16 (in-place)
I1003 09:37:45.193948  7223 net.cpp:122] Setting up M2PELU33
I1003 09:37:45.193951  7223 net.cpp:129] Top shape: 100 32 14 14 (627200)
I1003 09:37:45.193953  7223 net.cpp:137] Memory required for data: 723475600
I1003 09:37:45.193958  7223 layer_factory.hpp:77] Creating layer Eltwise16_M2PELU33_0_split
I1003 09:37:45.193960  7223 net.cpp:84] Creating Layer Eltwise16_M2PELU33_0_split
I1003 09:37:45.193963  7223 net.cpp:406] Eltwise16_M2PELU33_0_split <- Eltwise16
I1003 09:37:45.193966  7223 net.cpp:380] Eltwise16_M2PELU33_0_split -> Eltwise16_M2PELU33_0_split_0
I1003 09:37:45.193970  7223 net.cpp:380] Eltwise16_M2PELU33_0_split -> Eltwise16_M2PELU33_0_split_1
I1003 09:37:45.193994  7223 net.cpp:122] Setting up Eltwise16_M2PELU33_0_split
I1003 09:37:45.193997  7223 net.cpp:129] Top shape: 100 32 14 14 (627200)
I1003 09:37:45.194000  7223 net.cpp:129] Top shape: 100 32 14 14 (627200)
I1003 09:37:45.194001  7223 net.cpp:137] Memory required for data: 728493200
I1003 09:37:45.194003  7223 layer_factory.hpp:77] Creating layer Convolution35
I1003 09:37:45.194010  7223 net.cpp:84] Creating Layer Convolution35
I1003 09:37:45.194012  7223 net.cpp:406] Convolution35 <- Eltwise16_M2PELU33_0_split_0
I1003 09:37:45.194016  7223 net.cpp:380] Convolution35 -> Convolution35
I1003 09:37:45.195081  7223 net.cpp:122] Setting up Convolution35
I1003 09:37:45.195089  7223 net.cpp:129] Top shape: 100 32 14 14 (627200)
I1003 09:37:45.195092  7223 net.cpp:137] Memory required for data: 731002000
I1003 09:37:45.195096  7223 layer_factory.hpp:77] Creating layer BatchNorm35
I1003 09:37:45.195102  7223 net.cpp:84] Creating Layer BatchNorm35
I1003 09:37:45.195106  7223 net.cpp:406] BatchNorm35 <- Convolution35
I1003 09:37:45.195108  7223 net.cpp:367] BatchNorm35 -> Convolution35 (in-place)
I1003 09:37:45.195243  7223 net.cpp:122] Setting up BatchNorm35
I1003 09:37:45.195248  7223 net.cpp:129] Top shape: 100 32 14 14 (627200)
I1003 09:37:45.195250  7223 net.cpp:137] Memory required for data: 733510800
I1003 09:37:45.195255  7223 layer_factory.hpp:77] Creating layer Scale35
I1003 09:37:45.195260  7223 net.cpp:84] Creating Layer Scale35
I1003 09:37:45.195261  7223 net.cpp:406] Scale35 <- Convolution35
I1003 09:37:45.195264  7223 net.cpp:367] Scale35 -> Convolution35 (in-place)
I1003 09:37:45.195291  7223 layer_factory.hpp:77] Creating layer Scale35
I1003 09:37:45.195369  7223 net.cpp:122] Setting up Scale35
I1003 09:37:45.195372  7223 net.cpp:129] Top shape: 100 32 14 14 (627200)
I1003 09:37:45.195374  7223 net.cpp:137] Memory required for data: 736019600
I1003 09:37:45.195379  7223 layer_factory.hpp:77] Creating layer M2PELU34
I1003 09:37:45.195384  7223 net.cpp:84] Creating Layer M2PELU34
I1003 09:37:45.195385  7223 net.cpp:406] M2PELU34 <- Convolution35
I1003 09:37:45.195389  7223 net.cpp:367] M2PELU34 -> Convolution35 (in-place)
I1003 09:37:45.195472  7223 net.cpp:122] Setting up M2PELU34
I1003 09:37:45.195477  7223 net.cpp:129] Top shape: 100 32 14 14 (627200)
I1003 09:37:45.195478  7223 net.cpp:137] Memory required for data: 738528400
I1003 09:37:45.195482  7223 layer_factory.hpp:77] Creating layer Convolution36
I1003 09:37:45.195488  7223 net.cpp:84] Creating Layer Convolution36
I1003 09:37:45.195492  7223 net.cpp:406] Convolution36 <- Convolution35
I1003 09:37:45.195495  7223 net.cpp:380] Convolution36 -> Convolution36
I1003 09:37:45.196530  7223 net.cpp:122] Setting up Convolution36
I1003 09:37:45.196538  7223 net.cpp:129] Top shape: 100 32 14 14 (627200)
I1003 09:37:45.196542  7223 net.cpp:137] Memory required for data: 741037200
I1003 09:37:45.196547  7223 layer_factory.hpp:77] Creating layer BatchNorm36
I1003 09:37:45.196550  7223 net.cpp:84] Creating Layer BatchNorm36
I1003 09:37:45.196553  7223 net.cpp:406] BatchNorm36 <- Convolution36
I1003 09:37:45.196557  7223 net.cpp:367] BatchNorm36 -> Convolution36 (in-place)
I1003 09:37:45.196694  7223 net.cpp:122] Setting up BatchNorm36
I1003 09:37:45.196699  7223 net.cpp:129] Top shape: 100 32 14 14 (627200)
I1003 09:37:45.196707  7223 net.cpp:137] Memory required for data: 743546000
I1003 09:37:45.196712  7223 layer_factory.hpp:77] Creating layer Scale36
I1003 09:37:45.196717  7223 net.cpp:84] Creating Layer Scale36
I1003 09:37:45.196719  7223 net.cpp:406] Scale36 <- Convolution36
I1003 09:37:45.196722  7223 net.cpp:367] Scale36 -> Convolution36 (in-place)
I1003 09:37:45.196750  7223 layer_factory.hpp:77] Creating layer Scale36
I1003 09:37:45.196828  7223 net.cpp:122] Setting up Scale36
I1003 09:37:45.196832  7223 net.cpp:129] Top shape: 100 32 14 14 (627200)
I1003 09:37:45.196835  7223 net.cpp:137] Memory required for data: 746054800
I1003 09:37:45.196838  7223 layer_factory.hpp:77] Creating layer Eltwise17
I1003 09:37:45.196842  7223 net.cpp:84] Creating Layer Eltwise17
I1003 09:37:45.196844  7223 net.cpp:406] Eltwise17 <- Eltwise16_M2PELU33_0_split_1
I1003 09:37:45.196847  7223 net.cpp:406] Eltwise17 <- Convolution36
I1003 09:37:45.196851  7223 net.cpp:380] Eltwise17 -> Eltwise17
I1003 09:37:45.196867  7223 net.cpp:122] Setting up Eltwise17
I1003 09:37:45.196871  7223 net.cpp:129] Top shape: 100 32 14 14 (627200)
I1003 09:37:45.196873  7223 net.cpp:137] Memory required for data: 748563600
I1003 09:37:45.196876  7223 layer_factory.hpp:77] Creating layer M2PELU35
I1003 09:37:45.196880  7223 net.cpp:84] Creating Layer M2PELU35
I1003 09:37:45.196882  7223 net.cpp:406] M2PELU35 <- Eltwise17
I1003 09:37:45.196887  7223 net.cpp:367] M2PELU35 -> Eltwise17 (in-place)
I1003 09:37:45.196971  7223 net.cpp:122] Setting up M2PELU35
I1003 09:37:45.196975  7223 net.cpp:129] Top shape: 100 32 14 14 (627200)
I1003 09:37:45.196977  7223 net.cpp:137] Memory required for data: 751072400
I1003 09:37:45.196980  7223 layer_factory.hpp:77] Creating layer Eltwise17_M2PELU35_0_split
I1003 09:37:45.196985  7223 net.cpp:84] Creating Layer Eltwise17_M2PELU35_0_split
I1003 09:37:45.196986  7223 net.cpp:406] Eltwise17_M2PELU35_0_split <- Eltwise17
I1003 09:37:45.196990  7223 net.cpp:380] Eltwise17_M2PELU35_0_split -> Eltwise17_M2PELU35_0_split_0
I1003 09:37:45.196995  7223 net.cpp:380] Eltwise17_M2PELU35_0_split -> Eltwise17_M2PELU35_0_split_1
I1003 09:37:45.197018  7223 net.cpp:122] Setting up Eltwise17_M2PELU35_0_split
I1003 09:37:45.197021  7223 net.cpp:129] Top shape: 100 32 14 14 (627200)
I1003 09:37:45.197024  7223 net.cpp:129] Top shape: 100 32 14 14 (627200)
I1003 09:37:45.197026  7223 net.cpp:137] Memory required for data: 756090000
I1003 09:37:45.197028  7223 layer_factory.hpp:77] Creating layer Convolution37
I1003 09:37:45.197034  7223 net.cpp:84] Creating Layer Convolution37
I1003 09:37:45.197037  7223 net.cpp:406] Convolution37 <- Eltwise17_M2PELU35_0_split_0
I1003 09:37:45.197041  7223 net.cpp:380] Convolution37 -> Convolution37
I1003 09:37:45.197752  7223 net.cpp:122] Setting up Convolution37
I1003 09:37:45.197759  7223 net.cpp:129] Top shape: 100 32 14 14 (627200)
I1003 09:37:45.197762  7223 net.cpp:137] Memory required for data: 758598800
I1003 09:37:45.197765  7223 layer_factory.hpp:77] Creating layer BatchNorm37
I1003 09:37:45.197769  7223 net.cpp:84] Creating Layer BatchNorm37
I1003 09:37:45.197772  7223 net.cpp:406] BatchNorm37 <- Convolution37
I1003 09:37:45.197777  7223 net.cpp:367] BatchNorm37 -> Convolution37 (in-place)
I1003 09:37:45.197912  7223 net.cpp:122] Setting up BatchNorm37
I1003 09:37:45.197916  7223 net.cpp:129] Top shape: 100 32 14 14 (627200)
I1003 09:37:45.197918  7223 net.cpp:137] Memory required for data: 761107600
I1003 09:37:45.197922  7223 layer_factory.hpp:77] Creating layer Scale37
I1003 09:37:45.197926  7223 net.cpp:84] Creating Layer Scale37
I1003 09:37:45.197929  7223 net.cpp:406] Scale37 <- Convolution37
I1003 09:37:45.197932  7223 net.cpp:367] Scale37 -> Convolution37 (in-place)
I1003 09:37:45.197957  7223 layer_factory.hpp:77] Creating layer Scale37
I1003 09:37:45.198035  7223 net.cpp:122] Setting up Scale37
I1003 09:37:45.198038  7223 net.cpp:129] Top shape: 100 32 14 14 (627200)
I1003 09:37:45.198040  7223 net.cpp:137] Memory required for data: 763616400
I1003 09:37:45.198050  7223 layer_factory.hpp:77] Creating layer M2PELU36
I1003 09:37:45.198055  7223 net.cpp:84] Creating Layer M2PELU36
I1003 09:37:45.198057  7223 net.cpp:406] M2PELU36 <- Convolution37
I1003 09:37:45.198061  7223 net.cpp:367] M2PELU36 -> Convolution37 (in-place)
I1003 09:37:45.198148  7223 net.cpp:122] Setting up M2PELU36
I1003 09:37:45.198153  7223 net.cpp:129] Top shape: 100 32 14 14 (627200)
I1003 09:37:45.198154  7223 net.cpp:137] Memory required for data: 766125200
I1003 09:37:45.198158  7223 layer_factory.hpp:77] Creating layer Convolution38
I1003 09:37:45.198164  7223 net.cpp:84] Creating Layer Convolution38
I1003 09:37:45.198166  7223 net.cpp:406] Convolution38 <- Convolution37
I1003 09:37:45.198170  7223 net.cpp:380] Convolution38 -> Convolution38
I1003 09:37:45.199221  7223 net.cpp:122] Setting up Convolution38
I1003 09:37:45.199229  7223 net.cpp:129] Top shape: 100 32 14 14 (627200)
I1003 09:37:45.199232  7223 net.cpp:137] Memory required for data: 768634000
I1003 09:37:45.199236  7223 layer_factory.hpp:77] Creating layer BatchNorm38
I1003 09:37:45.199241  7223 net.cpp:84] Creating Layer BatchNorm38
I1003 09:37:45.199244  7223 net.cpp:406] BatchNorm38 <- Convolution38
I1003 09:37:45.199249  7223 net.cpp:367] BatchNorm38 -> Convolution38 (in-place)
I1003 09:37:45.199385  7223 net.cpp:122] Setting up BatchNorm38
I1003 09:37:45.199390  7223 net.cpp:129] Top shape: 100 32 14 14 (627200)
I1003 09:37:45.199393  7223 net.cpp:137] Memory required for data: 771142800
I1003 09:37:45.199398  7223 layer_factory.hpp:77] Creating layer Scale38
I1003 09:37:45.199401  7223 net.cpp:84] Creating Layer Scale38
I1003 09:37:45.199404  7223 net.cpp:406] Scale38 <- Convolution38
I1003 09:37:45.199407  7223 net.cpp:367] Scale38 -> Convolution38 (in-place)
I1003 09:37:45.199434  7223 layer_factory.hpp:77] Creating layer Scale38
I1003 09:37:45.199510  7223 net.cpp:122] Setting up Scale38
I1003 09:37:45.199514  7223 net.cpp:129] Top shape: 100 32 14 14 (627200)
I1003 09:37:45.199517  7223 net.cpp:137] Memory required for data: 773651600
I1003 09:37:45.199520  7223 layer_factory.hpp:77] Creating layer Eltwise18
I1003 09:37:45.199524  7223 net.cpp:84] Creating Layer Eltwise18
I1003 09:37:45.199527  7223 net.cpp:406] Eltwise18 <- Eltwise17_M2PELU35_0_split_1
I1003 09:37:45.199530  7223 net.cpp:406] Eltwise18 <- Convolution38
I1003 09:37:45.199533  7223 net.cpp:380] Eltwise18 -> Eltwise18
I1003 09:37:45.199549  7223 net.cpp:122] Setting up Eltwise18
I1003 09:37:45.199553  7223 net.cpp:129] Top shape: 100 32 14 14 (627200)
I1003 09:37:45.199555  7223 net.cpp:137] Memory required for data: 776160400
I1003 09:37:45.199558  7223 layer_factory.hpp:77] Creating layer M2PELU37
I1003 09:37:45.199563  7223 net.cpp:84] Creating Layer M2PELU37
I1003 09:37:45.199565  7223 net.cpp:406] M2PELU37 <- Eltwise18
I1003 09:37:45.199568  7223 net.cpp:367] M2PELU37 -> Eltwise18 (in-place)
I1003 09:37:45.199652  7223 net.cpp:122] Setting up M2PELU37
I1003 09:37:45.199656  7223 net.cpp:129] Top shape: 100 32 14 14 (627200)
I1003 09:37:45.199658  7223 net.cpp:137] Memory required for data: 778669200
I1003 09:37:45.199662  7223 layer_factory.hpp:77] Creating layer Eltwise18_M2PELU37_0_split
I1003 09:37:45.199666  7223 net.cpp:84] Creating Layer Eltwise18_M2PELU37_0_split
I1003 09:37:45.199667  7223 net.cpp:406] Eltwise18_M2PELU37_0_split <- Eltwise18
I1003 09:37:45.199671  7223 net.cpp:380] Eltwise18_M2PELU37_0_split -> Eltwise18_M2PELU37_0_split_0
I1003 09:37:45.199676  7223 net.cpp:380] Eltwise18_M2PELU37_0_split -> Eltwise18_M2PELU37_0_split_1
I1003 09:37:45.199698  7223 net.cpp:122] Setting up Eltwise18_M2PELU37_0_split
I1003 09:37:45.199702  7223 net.cpp:129] Top shape: 100 32 14 14 (627200)
I1003 09:37:45.199704  7223 net.cpp:129] Top shape: 100 32 14 14 (627200)
I1003 09:37:45.199707  7223 net.cpp:137] Memory required for data: 783686800
I1003 09:37:45.199709  7223 layer_factory.hpp:77] Creating layer Convolution39
I1003 09:37:45.199715  7223 net.cpp:84] Creating Layer Convolution39
I1003 09:37:45.199717  7223 net.cpp:406] Convolution39 <- Eltwise18_M2PELU37_0_split_0
I1003 09:37:45.199728  7223 net.cpp:380] Convolution39 -> Convolution39
I1003 09:37:45.200613  7223 net.cpp:122] Setting up Convolution39
I1003 09:37:45.200621  7223 net.cpp:129] Top shape: 100 64 7 7 (313600)
I1003 09:37:45.200624  7223 net.cpp:137] Memory required for data: 784941200
I1003 09:37:45.200628  7223 layer_factory.hpp:77] Creating layer BatchNorm39
I1003 09:37:45.200634  7223 net.cpp:84] Creating Layer BatchNorm39
I1003 09:37:45.200635  7223 net.cpp:406] BatchNorm39 <- Convolution39
I1003 09:37:45.200640  7223 net.cpp:367] BatchNorm39 -> Convolution39 (in-place)
I1003 09:37:45.200773  7223 net.cpp:122] Setting up BatchNorm39
I1003 09:37:45.200778  7223 net.cpp:129] Top shape: 100 64 7 7 (313600)
I1003 09:37:45.200779  7223 net.cpp:137] Memory required for data: 786195600
I1003 09:37:45.200784  7223 layer_factory.hpp:77] Creating layer Scale39
I1003 09:37:45.200788  7223 net.cpp:84] Creating Layer Scale39
I1003 09:37:45.200790  7223 net.cpp:406] Scale39 <- Convolution39
I1003 09:37:45.200794  7223 net.cpp:367] Scale39 -> Convolution39 (in-place)
I1003 09:37:45.200819  7223 layer_factory.hpp:77] Creating layer Scale39
I1003 09:37:45.200897  7223 net.cpp:122] Setting up Scale39
I1003 09:37:45.200902  7223 net.cpp:129] Top shape: 100 64 7 7 (313600)
I1003 09:37:45.200904  7223 net.cpp:137] Memory required for data: 787450000
I1003 09:37:45.200908  7223 layer_factory.hpp:77] Creating layer Convolution40
I1003 09:37:45.200914  7223 net.cpp:84] Creating Layer Convolution40
I1003 09:37:45.200917  7223 net.cpp:406] Convolution40 <- Eltwise18_M2PELU37_0_split_1
I1003 09:37:45.200922  7223 net.cpp:380] Convolution40 -> Convolution40
I1003 09:37:45.202666  7223 net.cpp:122] Setting up Convolution40
I1003 09:37:45.202674  7223 net.cpp:129] Top shape: 100 64 7 7 (313600)
I1003 09:37:45.202677  7223 net.cpp:137] Memory required for data: 788704400
I1003 09:37:45.202682  7223 layer_factory.hpp:77] Creating layer BatchNorm40
I1003 09:37:45.202687  7223 net.cpp:84] Creating Layer BatchNorm40
I1003 09:37:45.202688  7223 net.cpp:406] BatchNorm40 <- Convolution40
I1003 09:37:45.202693  7223 net.cpp:367] BatchNorm40 -> Convolution40 (in-place)
I1003 09:37:45.202828  7223 net.cpp:122] Setting up BatchNorm40
I1003 09:37:45.202833  7223 net.cpp:129] Top shape: 100 64 7 7 (313600)
I1003 09:37:45.202836  7223 net.cpp:137] Memory required for data: 789958800
I1003 09:37:45.202841  7223 layer_factory.hpp:77] Creating layer Scale40
I1003 09:37:45.202844  7223 net.cpp:84] Creating Layer Scale40
I1003 09:37:45.202847  7223 net.cpp:406] Scale40 <- Convolution40
I1003 09:37:45.202850  7223 net.cpp:367] Scale40 -> Convolution40 (in-place)
I1003 09:37:45.202877  7223 layer_factory.hpp:77] Creating layer Scale40
I1003 09:37:45.202955  7223 net.cpp:122] Setting up Scale40
I1003 09:37:45.202960  7223 net.cpp:129] Top shape: 100 64 7 7 (313600)
I1003 09:37:45.202961  7223 net.cpp:137] Memory required for data: 791213200
I1003 09:37:45.202965  7223 layer_factory.hpp:77] Creating layer M2PELU38
I1003 09:37:45.202970  7223 net.cpp:84] Creating Layer M2PELU38
I1003 09:37:45.202972  7223 net.cpp:406] M2PELU38 <- Convolution40
I1003 09:37:45.202976  7223 net.cpp:367] M2PELU38 -> Convolution40 (in-place)
I1003 09:37:45.203073  7223 net.cpp:122] Setting up M2PELU38
I1003 09:37:45.203076  7223 net.cpp:129] Top shape: 100 64 7 7 (313600)
I1003 09:37:45.203078  7223 net.cpp:137] Memory required for data: 792467600
I1003 09:37:45.203083  7223 layer_factory.hpp:77] Creating layer Convolution41
I1003 09:37:45.203099  7223 net.cpp:84] Creating Layer Convolution41
I1003 09:37:45.203101  7223 net.cpp:406] Convolution41 <- Convolution40
I1003 09:37:45.203115  7223 net.cpp:380] Convolution41 -> Convolution41
I1003 09:37:45.205260  7223 net.cpp:122] Setting up Convolution41
I1003 09:37:45.205268  7223 net.cpp:129] Top shape: 100 64 7 7 (313600)
I1003 09:37:45.205271  7223 net.cpp:137] Memory required for data: 793722000
I1003 09:37:45.205276  7223 layer_factory.hpp:77] Creating layer BatchNorm41
I1003 09:37:45.205281  7223 net.cpp:84] Creating Layer BatchNorm41
I1003 09:37:45.205291  7223 net.cpp:406] BatchNorm41 <- Convolution41
I1003 09:37:45.205296  7223 net.cpp:367] BatchNorm41 -> Convolution41 (in-place)
I1003 09:37:45.205473  7223 net.cpp:122] Setting up BatchNorm41
I1003 09:37:45.205478  7223 net.cpp:129] Top shape: 100 64 7 7 (313600)
I1003 09:37:45.205480  7223 net.cpp:137] Memory required for data: 794976400
I1003 09:37:45.205485  7223 layer_factory.hpp:77] Creating layer Scale41
I1003 09:37:45.205489  7223 net.cpp:84] Creating Layer Scale41
I1003 09:37:45.205492  7223 net.cpp:406] Scale41 <- Convolution41
I1003 09:37:45.205497  7223 net.cpp:367] Scale41 -> Convolution41 (in-place)
I1003 09:37:45.205544  7223 layer_factory.hpp:77] Creating layer Scale41
I1003 09:37:45.205646  7223 net.cpp:122] Setting up Scale41
I1003 09:37:45.205651  7223 net.cpp:129] Top shape: 100 64 7 7 (313600)
I1003 09:37:45.205652  7223 net.cpp:137] Memory required for data: 796230800
I1003 09:37:45.205657  7223 layer_factory.hpp:77] Creating layer Eltwise19
I1003 09:37:45.205660  7223 net.cpp:84] Creating Layer Eltwise19
I1003 09:37:45.205662  7223 net.cpp:406] Eltwise19 <- Convolution39
I1003 09:37:45.205665  7223 net.cpp:406] Eltwise19 <- Convolution41
I1003 09:37:45.205669  7223 net.cpp:380] Eltwise19 -> Eltwise19
I1003 09:37:45.205685  7223 net.cpp:122] Setting up Eltwise19
I1003 09:37:45.205690  7223 net.cpp:129] Top shape: 100 64 7 7 (313600)
I1003 09:37:45.205693  7223 net.cpp:137] Memory required for data: 797485200
I1003 09:37:45.205694  7223 layer_factory.hpp:77] Creating layer M2PELU39
I1003 09:37:45.205698  7223 net.cpp:84] Creating Layer M2PELU39
I1003 09:37:45.205700  7223 net.cpp:406] M2PELU39 <- Eltwise19
I1003 09:37:45.205704  7223 net.cpp:367] M2PELU39 -> Eltwise19 (in-place)
I1003 09:37:45.205790  7223 net.cpp:122] Setting up M2PELU39
I1003 09:37:45.205795  7223 net.cpp:129] Top shape: 100 64 7 7 (313600)
I1003 09:37:45.205796  7223 net.cpp:137] Memory required for data: 798739600
I1003 09:37:45.205801  7223 layer_factory.hpp:77] Creating layer Eltwise19_M2PELU39_0_split
I1003 09:37:45.205804  7223 net.cpp:84] Creating Layer Eltwise19_M2PELU39_0_split
I1003 09:37:45.205806  7223 net.cpp:406] Eltwise19_M2PELU39_0_split <- Eltwise19
I1003 09:37:45.205811  7223 net.cpp:380] Eltwise19_M2PELU39_0_split -> Eltwise19_M2PELU39_0_split_0
I1003 09:37:45.205814  7223 net.cpp:380] Eltwise19_M2PELU39_0_split -> Eltwise19_M2PELU39_0_split_1
I1003 09:37:45.205838  7223 net.cpp:122] Setting up Eltwise19_M2PELU39_0_split
I1003 09:37:45.205842  7223 net.cpp:129] Top shape: 100 64 7 7 (313600)
I1003 09:37:45.205844  7223 net.cpp:129] Top shape: 100 64 7 7 (313600)
I1003 09:37:45.205847  7223 net.cpp:137] Memory required for data: 801248400
I1003 09:37:45.205849  7223 layer_factory.hpp:77] Creating layer Convolution42
I1003 09:37:45.205854  7223 net.cpp:84] Creating Layer Convolution42
I1003 09:37:45.205857  7223 net.cpp:406] Convolution42 <- Eltwise19_M2PELU39_0_split_0
I1003 09:37:45.205862  7223 net.cpp:380] Convolution42 -> Convolution42
I1003 09:37:45.207574  7223 net.cpp:122] Setting up Convolution42
I1003 09:37:45.207583  7223 net.cpp:129] Top shape: 100 64 7 7 (313600)
I1003 09:37:45.207587  7223 net.cpp:137] Memory required for data: 802502800
I1003 09:37:45.207590  7223 layer_factory.hpp:77] Creating layer BatchNorm42
I1003 09:37:45.207595  7223 net.cpp:84] Creating Layer BatchNorm42
I1003 09:37:45.207598  7223 net.cpp:406] BatchNorm42 <- Convolution42
I1003 09:37:45.207602  7223 net.cpp:367] BatchNorm42 -> Convolution42 (in-place)
I1003 09:37:45.207741  7223 net.cpp:122] Setting up BatchNorm42
I1003 09:37:45.207744  7223 net.cpp:129] Top shape: 100 64 7 7 (313600)
I1003 09:37:45.207746  7223 net.cpp:137] Memory required for data: 803757200
I1003 09:37:45.207751  7223 layer_factory.hpp:77] Creating layer Scale42
I1003 09:37:45.207756  7223 net.cpp:84] Creating Layer Scale42
I1003 09:37:45.207757  7223 net.cpp:406] Scale42 <- Convolution42
I1003 09:37:45.207761  7223 net.cpp:367] Scale42 -> Convolution42 (in-place)
I1003 09:37:45.207788  7223 layer_factory.hpp:77] Creating layer Scale42
I1003 09:37:45.207877  7223 net.cpp:122] Setting up Scale42
I1003 09:37:45.207882  7223 net.cpp:129] Top shape: 100 64 7 7 (313600)
I1003 09:37:45.207885  7223 net.cpp:137] Memory required for data: 805011600
I1003 09:37:45.207888  7223 layer_factory.hpp:77] Creating layer M2PELU40
I1003 09:37:45.207893  7223 net.cpp:84] Creating Layer M2PELU40
I1003 09:37:45.207896  7223 net.cpp:406] M2PELU40 <- Convolution42
I1003 09:37:45.207900  7223 net.cpp:367] M2PELU40 -> Convolution42 (in-place)
I1003 09:37:45.207988  7223 net.cpp:122] Setting up M2PELU40
I1003 09:37:45.207993  7223 net.cpp:129] Top shape: 100 64 7 7 (313600)
I1003 09:37:45.207994  7223 net.cpp:137] Memory required for data: 806266000
I1003 09:37:45.207998  7223 layer_factory.hpp:77] Creating layer Convolution43
I1003 09:37:45.208004  7223 net.cpp:84] Creating Layer Convolution43
I1003 09:37:45.208008  7223 net.cpp:406] Convolution43 <- Convolution42
I1003 09:37:45.208011  7223 net.cpp:380] Convolution43 -> Convolution43
I1003 09:37:45.210260  7223 net.cpp:122] Setting up Convolution43
I1003 09:37:45.210268  7223 net.cpp:129] Top shape: 100 64 7 7 (313600)
I1003 09:37:45.210271  7223 net.cpp:137] Memory required for data: 807520400
I1003 09:37:45.210276  7223 layer_factory.hpp:77] Creating layer BatchNorm43
I1003 09:37:45.210281  7223 net.cpp:84] Creating Layer BatchNorm43
I1003 09:37:45.210284  7223 net.cpp:406] BatchNorm43 <- Convolution43
I1003 09:37:45.210289  7223 net.cpp:367] BatchNorm43 -> Convolution43 (in-place)
I1003 09:37:45.210428  7223 net.cpp:122] Setting up BatchNorm43
I1003 09:37:45.210433  7223 net.cpp:129] Top shape: 100 64 7 7 (313600)
I1003 09:37:45.210434  7223 net.cpp:137] Memory required for data: 808774800
I1003 09:37:45.210439  7223 layer_factory.hpp:77] Creating layer Scale43
I1003 09:37:45.210444  7223 net.cpp:84] Creating Layer Scale43
I1003 09:37:45.210446  7223 net.cpp:406] Scale43 <- Convolution43
I1003 09:37:45.210449  7223 net.cpp:367] Scale43 -> Convolution43 (in-place)
I1003 09:37:45.210476  7223 layer_factory.hpp:77] Creating layer Scale43
I1003 09:37:45.210562  7223 net.cpp:122] Setting up Scale43
I1003 09:37:45.210567  7223 net.cpp:129] Top shape: 100 64 7 7 (313600)
I1003 09:37:45.210569  7223 net.cpp:137] Memory required for data: 810029200
I1003 09:37:45.210573  7223 layer_factory.hpp:77] Creating layer Eltwise20
I1003 09:37:45.210577  7223 net.cpp:84] Creating Layer Eltwise20
I1003 09:37:45.210579  7223 net.cpp:406] Eltwise20 <- Eltwise19_M2PELU39_0_split_1
I1003 09:37:45.210582  7223 net.cpp:406] Eltwise20 <- Convolution43
I1003 09:37:45.210587  7223 net.cpp:380] Eltwise20 -> Eltwise20
I1003 09:37:45.210602  7223 net.cpp:122] Setting up Eltwise20
I1003 09:37:45.210606  7223 net.cpp:129] Top shape: 100 64 7 7 (313600)
I1003 09:37:45.210608  7223 net.cpp:137] Memory required for data: 811283600
I1003 09:37:45.210610  7223 layer_factory.hpp:77] Creating layer M2PELU41
I1003 09:37:45.210615  7223 net.cpp:84] Creating Layer M2PELU41
I1003 09:37:45.210618  7223 net.cpp:406] M2PELU41 <- Eltwise20
I1003 09:37:45.210621  7223 net.cpp:367] M2PELU41 -> Eltwise20 (in-place)
I1003 09:37:45.210708  7223 net.cpp:122] Setting up M2PELU41
I1003 09:37:45.210712  7223 net.cpp:129] Top shape: 100 64 7 7 (313600)
I1003 09:37:45.210714  7223 net.cpp:137] Memory required for data: 812538000
I1003 09:37:45.210718  7223 layer_factory.hpp:77] Creating layer Eltwise20_M2PELU41_0_split
I1003 09:37:45.210722  7223 net.cpp:84] Creating Layer Eltwise20_M2PELU41_0_split
I1003 09:37:45.210724  7223 net.cpp:406] Eltwise20_M2PELU41_0_split <- Eltwise20
I1003 09:37:45.210727  7223 net.cpp:380] Eltwise20_M2PELU41_0_split -> Eltwise20_M2PELU41_0_split_0
I1003 09:37:45.210731  7223 net.cpp:380] Eltwise20_M2PELU41_0_split -> Eltwise20_M2PELU41_0_split_1
I1003 09:37:45.210755  7223 net.cpp:122] Setting up Eltwise20_M2PELU41_0_split
I1003 09:37:45.210758  7223 net.cpp:129] Top shape: 100 64 7 7 (313600)
I1003 09:37:45.210762  7223 net.cpp:129] Top shape: 100 64 7 7 (313600)
I1003 09:37:45.210763  7223 net.cpp:137] Memory required for data: 815046800
I1003 09:37:45.210772  7223 layer_factory.hpp:77] Creating layer Convolution44
I1003 09:37:45.210778  7223 net.cpp:84] Creating Layer Convolution44
I1003 09:37:45.210781  7223 net.cpp:406] Convolution44 <- Eltwise20_M2PELU41_0_split_0
I1003 09:37:45.210785  7223 net.cpp:380] Convolution44 -> Convolution44
I1003 09:37:45.212455  7223 net.cpp:122] Setting up Convolution44
I1003 09:37:45.212462  7223 net.cpp:129] Top shape: 100 64 7 7 (313600)
I1003 09:37:45.212466  7223 net.cpp:137] Memory required for data: 816301200
I1003 09:37:45.212469  7223 layer_factory.hpp:77] Creating layer BatchNorm44
I1003 09:37:45.212473  7223 net.cpp:84] Creating Layer BatchNorm44
I1003 09:37:45.212476  7223 net.cpp:406] BatchNorm44 <- Convolution44
I1003 09:37:45.212481  7223 net.cpp:367] BatchNorm44 -> Convolution44 (in-place)
I1003 09:37:45.212620  7223 net.cpp:122] Setting up BatchNorm44
I1003 09:37:45.212625  7223 net.cpp:129] Top shape: 100 64 7 7 (313600)
I1003 09:37:45.212627  7223 net.cpp:137] Memory required for data: 817555600
I1003 09:37:45.212631  7223 layer_factory.hpp:77] Creating layer Scale44
I1003 09:37:45.212635  7223 net.cpp:84] Creating Layer Scale44
I1003 09:37:45.212638  7223 net.cpp:406] Scale44 <- Convolution44
I1003 09:37:45.212642  7223 net.cpp:367] Scale44 -> Convolution44 (in-place)
I1003 09:37:45.212668  7223 layer_factory.hpp:77] Creating layer Scale44
I1003 09:37:45.212748  7223 net.cpp:122] Setting up Scale44
I1003 09:37:45.212752  7223 net.cpp:129] Top shape: 100 64 7 7 (313600)
I1003 09:37:45.212754  7223 net.cpp:137] Memory required for data: 818810000
I1003 09:37:45.212757  7223 layer_factory.hpp:77] Creating layer M2PELU42
I1003 09:37:45.212764  7223 net.cpp:84] Creating Layer M2PELU42
I1003 09:37:45.212765  7223 net.cpp:406] M2PELU42 <- Convolution44
I1003 09:37:45.212769  7223 net.cpp:367] M2PELU42 -> Convolution44 (in-place)
I1003 09:37:45.212857  7223 net.cpp:122] Setting up M2PELU42
I1003 09:37:45.212860  7223 net.cpp:129] Top shape: 100 64 7 7 (313600)
I1003 09:37:45.212862  7223 net.cpp:137] Memory required for data: 820064400
I1003 09:37:45.212865  7223 layer_factory.hpp:77] Creating layer Convolution45
I1003 09:37:45.212872  7223 net.cpp:84] Creating Layer Convolution45
I1003 09:37:45.212875  7223 net.cpp:406] Convolution45 <- Convolution44
I1003 09:37:45.212879  7223 net.cpp:380] Convolution45 -> Convolution45
I1003 09:37:45.214845  7223 net.cpp:122] Setting up Convolution45
I1003 09:37:45.214854  7223 net.cpp:129] Top shape: 100 64 7 7 (313600)
I1003 09:37:45.214857  7223 net.cpp:137] Memory required for data: 821318800
I1003 09:37:45.214861  7223 layer_factory.hpp:77] Creating layer BatchNorm45
I1003 09:37:45.214866  7223 net.cpp:84] Creating Layer BatchNorm45
I1003 09:37:45.214869  7223 net.cpp:406] BatchNorm45 <- Convolution45
I1003 09:37:45.214874  7223 net.cpp:367] BatchNorm45 -> Convolution45 (in-place)
I1003 09:37:45.215018  7223 net.cpp:122] Setting up BatchNorm45
I1003 09:37:45.215021  7223 net.cpp:129] Top shape: 100 64 7 7 (313600)
I1003 09:37:45.215023  7223 net.cpp:137] Memory required for data: 822573200
I1003 09:37:45.215029  7223 layer_factory.hpp:77] Creating layer Scale45
I1003 09:37:45.215034  7223 net.cpp:84] Creating Layer Scale45
I1003 09:37:45.215035  7223 net.cpp:406] Scale45 <- Convolution45
I1003 09:37:45.215039  7223 net.cpp:367] Scale45 -> Convolution45 (in-place)
I1003 09:37:45.215066  7223 layer_factory.hpp:77] Creating layer Scale45
I1003 09:37:45.215148  7223 net.cpp:122] Setting up Scale45
I1003 09:37:45.215153  7223 net.cpp:129] Top shape: 100 64 7 7 (313600)
I1003 09:37:45.215155  7223 net.cpp:137] Memory required for data: 823827600
…
I1003 09:37:45.578373  7223 net.cpp:84] Creating Layer BatchNorm40
I1003 09:37:45.578377  7223 net.cpp:406] BatchNorm40 <- Convolution40
I1003 09:37:45.578380  7223 net.cpp:367] BatchNorm40 -> Convolution40 (in-place)
I1003 09:37:45.578542  7223 net.cpp:122] Setting up BatchNorm40
I1003 09:37:45.578547  7223 net.cpp:129] Top shape: 100 64 8 8 (409600)
I1003 09:37:45.578560  7223 net.cpp:137] Memory required for data: 1031783600
I1003 09:37:45.578565  7223 layer_factory.hpp:77] Creating layer Scale40
I1003 09:37:45.578582  7223 net.cpp:84] Creating Layer Scale40
I1003 09:37:45.578584  7223 net.cpp:406] Scale40 <- Convolution40
I1003 09:37:45.578588  7223 net.cpp:367] Scale40 -> Convolution40 (in-place)
I1003 09:37:45.578614  7223 layer_factory.hpp:77] Creating layer Scale40
I1003 09:37:45.578689  7223 net.cpp:122] Setting up Scale40
I1003 09:37:45.578694  7223 net.cpp:129] Top shape: 100 64 8 8 (409600)
I1003 09:37:45.578696  7223 net.cpp:137] Memory required for data: 1033422000
I1003 09:37:45.578701  7223 layer_factory.hpp:77] Creating layer M2PELU38
I1003 09:37:45.578706  7223 net.cpp:84] Creating Layer M2PELU38
I1003 09:37:45.578707  7223 net.cpp:406] M2PELU38 <- Convolution40
I1003 09:37:45.578718  7223 net.cpp:367] M2PELU38 -> Convolution40 (in-place)
I1003 09:37:45.578809  7223 net.cpp:122] Setting up M2PELU38
I1003 09:37:45.578814  7223 net.cpp:129] Top shape: 100 64 8 8 (409600)
I1003 09:37:45.578816  7223 net.cpp:137] Memory required for data: 1035060400
I1003 09:37:45.578820  7223 layer_factory.hpp:77] Creating layer Convolution41
I1003 09:37:45.578826  7223 net.cpp:84] Creating Layer Convolution41
I1003 09:37:45.578830  7223 net.cpp:406] Convolution41 <- Convolution40
I1003 09:37:45.578835  7223 net.cpp:380] Convolution41 -> Convolution41
I1003 09:37:45.580516  7223 net.cpp:122] Setting up Convolution41
I1003 09:37:45.580524  7223 net.cpp:129] Top shape: 100 64 8 8 (409600)
I1003 09:37:45.580528  7223 net.cpp:137] Memory required for data: 1036698800
I1003 09:37:45.580531  7223 layer_factory.hpp:77] Creating layer BatchNorm41
I1003 09:37:45.580536  7223 net.cpp:84] Creating Layer BatchNorm41
I1003 09:37:45.580539  7223 net.cpp:406] BatchNorm41 <- Convolution41
I1003 09:37:45.580543  7223 net.cpp:367] BatchNorm41 -> Convolution41 (in-place)
I1003 09:37:45.580673  7223 net.cpp:122] Setting up BatchNorm41
I1003 09:37:45.580678  7223 net.cpp:129] Top shape: 100 64 8 8 (409600)
I1003 09:37:45.580680  7223 net.cpp:137] Memory required for data: 1038337200
I1003 09:37:45.580684  7223 layer_factory.hpp:77] Creating layer Scale41
I1003 09:37:45.580688  7223 net.cpp:84] Creating Layer Scale41
I1003 09:37:45.580690  7223 net.cpp:406] Scale41 <- Convolution41
I1003 09:37:45.580693  7223 net.cpp:367] Scale41 -> Convolution41 (in-place)
I1003 09:37:45.580721  7223 layer_factory.hpp:77] Creating layer Scale41
I1003 09:37:45.580796  7223 net.cpp:122] Setting up Scale41
I1003 09:37:45.580799  7223 net.cpp:129] Top shape: 100 64 8 8 (409600)
I1003 09:37:45.580801  7223 net.cpp:137] Memory required for data: 1039975600
I1003 09:37:45.580806  7223 layer_factory.hpp:77] Creating layer Eltwise19
I1003 09:37:45.580809  7223 net.cpp:84] Creating Layer Eltwise19
I1003 09:37:45.580812  7223 net.cpp:406] Eltwise19 <- Convolution39
I1003 09:37:45.580816  7223 net.cpp:406] Eltwise19 <- Convolution41
I1003 09:37:45.580819  7223 net.cpp:380] Eltwise19 -> Eltwise19
I1003 09:37:45.580834  7223 net.cpp:122] Setting up Eltwise19
I1003 09:37:45.580838  7223 net.cpp:129] Top shape: 100 64 8 8 (409600)
I1003 09:37:45.580840  7223 net.cpp:137] Memory required for data: 1041614000
I1003 09:37:45.580842  7223 layer_factory.hpp:77] Creating layer M2PELU39
I1003 09:37:45.580847  7223 net.cpp:84] Creating Layer M2PELU39
I1003 09:37:45.580850  7223 net.cpp:406] M2PELU39 <- Eltwise19
I1003 09:37:45.580853  7223 net.cpp:367] M2PELU39 -> Eltwise19 (in-place)
I1003 09:37:45.580942  7223 net.cpp:122] Setting up M2PELU39
I1003 09:37:45.580946  7223 net.cpp:129] Top shape: 100 64 8 8 (409600)
I1003 09:37:45.580948  7223 net.cpp:137] Memory required for data: 1043252400
I1003 09:37:45.580952  7223 layer_factory.hpp:77] Creating layer Eltwise19_M2PELU39_0_split
I1003 09:37:45.580956  7223 net.cpp:84] Creating Layer Eltwise19_M2PELU39_0_split
I1003 09:37:45.580958  7223 net.cpp:406] Eltwise19_M2PELU39_0_split <- Eltwise19
I1003 09:37:45.580961  7223 net.cpp:380] Eltwise19_M2PELU39_0_split -> Eltwise19_M2PELU39_0_split_0
I1003 09:37:45.580965  7223 net.cpp:380] Eltwise19_M2PELU39_0_split -> Eltwise19_M2PELU39_0_split_1
I1003 09:37:45.580988  7223 net.cpp:122] Setting up Eltwise19_M2PELU39_0_split
I1003 09:37:45.580992  7223 net.cpp:129] Top shape: 100 64 8 8 (409600)
I1003 09:37:45.580996  7223 net.cpp:129] Top shape: 100 64 8 8 (409600)
I1003 09:37:45.580997  7223 net.cpp:137] Memory required for data: 1046529200
I1003 09:37:45.580999  7223 layer_factory.hpp:77] Creating layer Convolution42
I1003 09:37:45.581007  7223 net.cpp:84] Creating Layer Convolution42
I1003 09:37:45.581010  7223 net.cpp:406] Convolution42 <- Eltwise19_M2PELU39_0_split_0
I1003 09:37:45.581014  7223 net.cpp:380] Convolution42 -> Convolution42
I1003 09:37:45.582722  7223 net.cpp:122] Setting up Convolution42
I1003 09:37:45.582731  7223 net.cpp:129] Top shape: 100 64 8 8 (409600)
I1003 09:37:45.582741  7223 net.cpp:137] Memory required for data: 1048167600
I1003 09:37:45.582744  7223 layer_factory.hpp:77] Creating layer BatchNorm42
I1003 09:37:45.582751  7223 net.cpp:84] Creating Layer BatchNorm42
I1003 09:37:45.582753  7223 net.cpp:406] BatchNorm42 <- Convolution42
I1003 09:37:45.582756  7223 net.cpp:367] BatchNorm42 -> Convolution42 (in-place)
I1003 09:37:45.582887  7223 net.cpp:122] Setting up BatchNorm42
I1003 09:37:45.582891  7223 net.cpp:129] Top shape: 100 64 8 8 (409600)
I1003 09:37:45.582893  7223 net.cpp:137] Memory required for data: 1049806000
I1003 09:37:45.582898  7223 layer_factory.hpp:77] Creating layer Scale42
I1003 09:37:45.582901  7223 net.cpp:84] Creating Layer Scale42
I1003 09:37:45.582904  7223 net.cpp:406] Scale42 <- Convolution42
I1003 09:37:45.582908  7223 net.cpp:367] Scale42 -> Convolution42 (in-place)
I1003 09:37:45.582934  7223 layer_factory.hpp:77] Creating layer Scale42
I1003 09:37:45.583009  7223 net.cpp:122] Setting up Scale42
I1003 09:37:45.583012  7223 net.cpp:129] Top shape: 100 64 8 8 (409600)
I1003 09:37:45.583014  7223 net.cpp:137] Memory required for data: 1051444400
I1003 09:37:45.583019  7223 layer_factory.hpp:77] Creating layer M2PELU40
I1003 09:37:45.583024  7223 net.cpp:84] Creating Layer M2PELU40
I1003 09:37:45.583026  7223 net.cpp:406] M2PELU40 <- Convolution42
I1003 09:37:45.583030  7223 net.cpp:367] M2PELU40 -> Convolution42 (in-place)
I1003 09:37:45.583117  7223 net.cpp:122] Setting up M2PELU40
I1003 09:37:45.583120  7223 net.cpp:129] Top shape: 100 64 8 8 (409600)
I1003 09:37:45.583122  7223 net.cpp:137] Memory required for data: 1053082800
I1003 09:37:45.583127  7223 layer_factory.hpp:77] Creating layer Convolution43
I1003 09:37:45.583132  7223 net.cpp:84] Creating Layer Convolution43
I1003 09:37:45.583135  7223 net.cpp:406] Convolution43 <- Convolution42
I1003 09:37:45.583139  7223 net.cpp:380] Convolution43 -> Convolution43
I1003 09:37:45.584815  7223 net.cpp:122] Setting up Convolution43
I1003 09:37:45.584823  7223 net.cpp:129] Top shape: 100 64 8 8 (409600)
I1003 09:37:45.584825  7223 net.cpp:137] Memory required for data: 1054721200
I1003 09:37:45.584830  7223 layer_factory.hpp:77] Creating layer BatchNorm43
I1003 09:37:45.584836  7223 net.cpp:84] Creating Layer BatchNorm43
I1003 09:37:45.584838  7223 net.cpp:406] BatchNorm43 <- Convolution43
I1003 09:37:45.584841  7223 net.cpp:367] BatchNorm43 -> Convolution43 (in-place)
I1003 09:37:45.584975  7223 net.cpp:122] Setting up BatchNorm43
I1003 09:37:45.584978  7223 net.cpp:129] Top shape: 100 64 8 8 (409600)
I1003 09:37:45.584980  7223 net.cpp:137] Memory required for data: 1056359600
I1003 09:37:45.584985  7223 layer_factory.hpp:77] Creating layer Scale43
I1003 09:37:45.584988  7223 net.cpp:84] Creating Layer Scale43
I1003 09:37:45.584991  7223 net.cpp:406] Scale43 <- Convolution43
I1003 09:37:45.584995  7223 net.cpp:367] Scale43 -> Convolution43 (in-place)
I1003 09:37:45.585021  7223 layer_factory.hpp:77] Creating layer Scale43
I1003 09:37:45.585096  7223 net.cpp:122] Setting up Scale43
I1003 09:37:45.585100  7223 net.cpp:129] Top shape: 100 64 8 8 (409600)
I1003 09:37:45.585103  7223 net.cpp:137] Memory required for data: 1057998000
I1003 09:37:45.585106  7223 layer_factory.hpp:77] Creating layer Eltwise20
I1003 09:37:45.585111  7223 net.cpp:84] Creating Layer Eltwise20
I1003 09:37:45.585114  7223 net.cpp:406] Eltwise20 <- Eltwise19_M2PELU39_0_split_1
I1003 09:37:45.585116  7223 net.cpp:406] Eltwise20 <- Convolution43
I1003 09:37:45.585120  7223 net.cpp:380] Eltwise20 -> Eltwise20
I1003 09:37:45.585136  7223 net.cpp:122] Setting up Eltwise20
I1003 09:37:45.585140  7223 net.cpp:129] Top shape: 100 64 8 8 (409600)
I1003 09:37:45.585142  7223 net.cpp:137] Memory required for data: 1059636400
I1003 09:37:45.585144  7223 layer_factory.hpp:77] Creating layer M2PELU41
I1003 09:37:45.585150  7223 net.cpp:84] Creating Layer M2PELU41
I1003 09:37:45.585151  7223 net.cpp:406] M2PELU41 <- Eltwise20
I1003 09:37:45.585155  7223 net.cpp:367] M2PELU41 -> Eltwise20 (in-place)
I1003 09:37:45.585252  7223 net.cpp:122] Setting up M2PELU41
I1003 09:37:45.585256  7223 net.cpp:129] Top shape: 100 64 8 8 (409600)
I1003 09:37:45.585258  7223 net.cpp:137] Memory required for data: 1061274800
I1003 09:37:45.585261  7223 layer_factory.hpp:77] Creating layer Eltwise20_M2PELU41_0_split
I1003 09:37:45.585265  7223 net.cpp:84] Creating Layer Eltwise20_M2PELU41_0_split
I1003 09:37:45.585268  7223 net.cpp:406] Eltwise20_M2PELU41_0_split <- Eltwise20
I1003 09:37:45.585270  7223 net.cpp:380] Eltwise20_M2PELU41_0_split -> Eltwise20_M2PELU41_0_split_0
I1003 09:37:45.585274  7223 net.cpp:380] Eltwise20_M2PELU41_0_split -> Eltwise20_M2PELU41_0_split_1
I1003 09:37:45.585299  7223 net.cpp:122] Setting up Eltwise20_M2PELU41_0_split
I1003 09:37:45.585302  7223 net.cpp:129] Top shape: 100 64 8 8 (409600)
I1003 09:37:45.585305  7223 net.cpp:129] Top shape: 100 64 8 8 (409600)
I1003 09:37:45.585307  7223 net.cpp:137] Memory required for data: 1064551600
I1003 09:37:45.585309  7223 layer_factory.hpp:77] Creating layer Convolution44
I1003 09:37:45.585315  7223 net.cpp:84] Creating Layer Convolution44
I1003 09:37:45.585317  7223 net.cpp:406] Convolution44 <- Eltwise20_M2PELU41_0_split_0
I1003 09:37:45.585321  7223 net.cpp:380] Convolution44 -> Convolution44
I1003 09:37:45.587334  7223 net.cpp:122] Setting up Convolution44
I1003 09:37:45.587342  7223 net.cpp:129] Top shape: 100 64 8 8 (409600)
I1003 09:37:45.587345  7223 net.cpp:137] Memory required for data: 1066190000
I1003 09:37:45.587350  7223 layer_factory.hpp:77] Creating layer BatchNorm44
I1003 09:37:45.587355  7223 net.cpp:84] Creating Layer BatchNorm44
I1003 09:37:45.587357  7223 net.cpp:406] BatchNorm44 <- Convolution44
I1003 09:37:45.587363  7223 net.cpp:367] BatchNorm44 -> Convolution44 (in-place)
I1003 09:37:45.587501  7223 net.cpp:122] Setting up BatchNorm44
I1003 09:37:45.587504  7223 net.cpp:129] Top shape: 100 64 8 8 (409600)
I1003 09:37:45.587507  7223 net.cpp:137] Memory required for data: 1067828400
I1003 09:37:45.599545  7223 layer_factory.hpp:77] Creating layer Scale44
I1003 09:37:45.599555  7223 net.cpp:84] Creating Layer Scale44
I1003 09:37:45.599560  7223 net.cpp:406] Scale44 <- Convolution44
I1003 09:37:45.599563  7223 net.cpp:367] Scale44 -> Convolution44 (in-place)
I1003 09:37:45.599606  7223 layer_factory.hpp:77] Creating layer Scale44
I1003 09:37:45.599701  7223 net.cpp:122] Setting up Scale44
I1003 09:37:45.599706  7223 net.cpp:129] Top shape: 100 64 8 8 (409600)
I1003 09:37:45.599709  7223 net.cpp:137] Memory required for data: 1069466800
I1003 09:37:45.599714  7223 layer_factory.hpp:77] Creating layer M2PELU42
I1003 09:37:45.599719  7223 net.cpp:84] Creating Layer M2PELU42
I1003 09:37:45.599721  7223 net.cpp:406] M2PELU42 <- Convolution44
I1003 09:37:45.599725  7223 net.cpp:367] M2PELU42 -> Convolution44 (in-place)
I1003 09:37:45.599826  7223 net.cpp:122] Setting up M2PELU42
I1003 09:37:45.599831  7223 net.cpp:129] Top shape: 100 64 8 8 (409600)
I1003 09:37:45.599834  7223 net.cpp:137] Memory required for data: 1071105200
I1003 09:37:45.599838  7223 layer_factory.hpp:77] Creating layer Convolution45
I1003 09:37:45.599846  7223 net.cpp:84] Creating Layer Convolution45
I1003 09:37:45.599848  7223 net.cpp:406] Convolution45 <- Convolution44
I1003 09:37:45.599853  7223 net.cpp:380] Convolution45 -> Convolution45
I1003 09:37:45.601924  7223 net.cpp:122] Setting up Convolution45
I1003 09:37:45.601933  7223 net.cpp:129] Top shape: 100 64 8 8 (409600)
I1003 09:37:45.601936  7223 net.cpp:137] Memory required for data: 1072743600
I1003 09:37:45.601940  7223 layer_factory.hpp:77] Creating layer BatchNorm45
I1003 09:37:45.601948  7223 net.cpp:84] Creating Layer BatchNorm45
I1003 09:37:45.601951  7223 net.cpp:406] BatchNorm45 <- Convolution45
I1003 09:37:45.601955  7223 net.cpp:367] BatchNorm45 -> Convolution45 (in-place)
I1003 09:37:45.602092  7223 net.cpp:122] Setting up BatchNorm45
I1003 09:37:45.602097  7223 net.cpp:129] Top shape: 100 64 8 8 (409600)
I1003 09:37:45.602098  7223 net.cpp:137] Memory required for data: 1074382000
I1003 09:37:45.602113  7223 layer_factory.hpp:77] Creating layer Scale45
I1003 09:37:45.602118  7223 net.cpp:84] Creating Layer Scale45
I1003 09:37:45.602120  7223 net.cpp:406] Scale45 <- Convolution45
I1003 09:37:45.602124  7223 net.cpp:367] Scale45 -> Convolution45 (in-place)
I1003 09:37:45.602154  7223 layer_factory.hpp:77] Creating layer Scale45
I1003 09:37:45.602231  7223 net.cpp:122] Setting up Scale45
I1003 09:37:45.602236  7223 net.cpp:129] Top shape: 100 64 8 8 (409600)
I1003 09:37:45.602237  7223 net.cpp:137] Memory required for data: 1076020400
I1003 09:37:45.602241  7223 layer_factory.hpp:77] Creating layer Eltwise21
I1003 09:37:45.602246  7223 net.cpp:84] Creating Layer Eltwise21
I1003 09:37:45.602248  7223 net.cpp:406] Eltwise21 <- Eltwise20_M2PELU41_0_split_1
I1003 09:37:45.602252  7223 net.cpp:406] Eltwise21 <- Convolution45
I1003 09:37:45.602254  7223 net.cpp:380] Eltwise21 -> Eltwise21
I1003 09:37:45.602272  7223 net.cpp:122] Setting up Eltwise21
I1003 09:37:45.602275  7223 net.cpp:129] Top shape: 100 64 8 8 (409600)
I1003 09:37:45.602277  7223 net.cpp:137] Memory required for data: 1077658800
I1003 09:37:45.602279  7223 layer_factory.hpp:77] Creating layer M2PELU43
I1003 09:37:45.602285  7223 net.cpp:84] Creating Layer M2PELU43
I1003 09:37:45.602288  7223 net.cpp:406] M2PELU43 <- Eltwise21
I1003 09:37:45.602290  7223 net.cpp:367] M2PELU43 -> Eltwise21 (in-place)
I1003 09:37:45.602381  7223 net.cpp:122] Setting up M2PELU43
I1003 09:37:45.602385  7223 net.cpp:129] Top shape: 100 64 8 8 (409600)
I1003 09:37:45.602387  7223 net.cpp:137] Memory required for data: 1079297200
I1003 09:37:45.602391  7223 layer_factory.hpp:77] Creating layer Eltwise21_M2PELU43_0_split
I1003 09:37:45.602396  7223 net.cpp:84] Creating Layer Eltwise21_M2PELU43_0_split
I1003 09:37:45.602397  7223 net.cpp:406] Eltwise21_M2PELU43_0_split <- Eltwise21
I1003 09:37:45.602401  7223 net.cpp:380] Eltwise21_M2PELU43_0_split -> Eltwise21_M2PELU43_0_split_0
I1003 09:37:45.602406  7223 net.cpp:380] Eltwise21_M2PELU43_0_split -> Eltwise21_M2PELU43_0_split_1
I1003 09:37:45.602429  7223 net.cpp:122] Setting up Eltwise21_M2PELU43_0_split
I1003 09:37:45.602432  7223 net.cpp:129] Top shape: 100 64 8 8 (409600)
I1003 09:37:45.602435  7223 net.cpp:129] Top shape: 100 64 8 8 (409600)
I1003 09:37:45.602437  7223 net.cpp:137] Memory required for data: 1082574000
I1003 09:37:45.602439  7223 layer_factory.hpp:77] Creating layer Convolution46
I1003 09:37:45.602445  7223 net.cpp:84] Creating Layer Convolution46
I1003 09:37:45.602447  7223 net.cpp:406] Convolution46 <- Eltwise21_M2PELU43_0_split_0
I1003 09:37:45.602452  7223 net.cpp:380] Convolution46 -> Convolution46
I1003 09:37:45.604287  7223 net.cpp:122] Setting up Convolution46
I1003 09:37:45.604296  7223 net.cpp:129] Top shape: 100 64 8 8 (409600)
I1003 09:37:45.604300  7223 net.cpp:137] Memory required for data: 1084212400
I1003 09:37:45.604305  7223 layer_factory.hpp:77] Creating layer BatchNorm46
I1003 09:37:45.604308  7223 net.cpp:84] Creating Layer BatchNorm46
I1003 09:37:45.604311  7223 net.cpp:406] BatchNorm46 <- Convolution46
I1003 09:37:45.604315  7223 net.cpp:367] BatchNorm46 -> Convolution46 (in-place)
I1003 09:37:45.604455  7223 net.cpp:122] Setting up BatchNorm46
I1003 09:37:45.604460  7223 net.cpp:129] Top shape: 100 64 8 8 (409600)
I1003 09:37:45.604462  7223 net.cpp:137] Memory required for data: 1085850800
I1003 09:37:45.604466  7223 layer_factory.hpp:77] Creating layer Scale46
I1003 09:37:45.604470  7223 net.cpp:84] Creating Layer Scale46
I1003 09:37:45.604473  7223 net.cpp:406] Scale46 <- Convolution46
I1003 09:37:45.604477  7223 net.cpp:367] Scale46 -> Convolution46 (in-place)
I1003 09:37:45.604503  7223 layer_factory.hpp:77] Creating layer Scale46
I1003 09:37:45.604583  7223 net.cpp:122] Setting up Scale46
I1003 09:37:45.604586  7223 net.cpp:129] Top shape: 100 64 8 8 (409600)
I1003 09:37:45.604589  7223 net.cpp:137] Memory required for data: 1087489200
I1003 09:37:45.604593  7223 layer_factory.hpp:77] Creating layer M2PELU44
I1003 09:37:45.604598  7223 net.cpp:84] Creating Layer M2PELU44
I1003 09:37:45.604607  7223 net.cpp:406] M2PELU44 <- Convolution46
I1003 09:37:45.604612  7223 net.cpp:367] M2PELU44 -> Convolution46 (in-place)
I1003 09:37:45.604704  7223 net.cpp:122] Setting up M2PELU44
I1003 09:37:45.604708  7223 net.cpp:129] Top shape: 100 64 8 8 (409600)
I1003 09:37:45.604710  7223 net.cpp:137] Memory required for data: 1089127600
I1003 09:37:45.604714  7223 layer_factory.hpp:77] Creating layer Convolution47
I1003 09:37:45.604722  7223 net.cpp:84] Creating Layer Convolution47
I1003 09:37:45.604724  7223 net.cpp:406] Convolution47 <- Convolution46
I1003 09:37:45.604728  7223 net.cpp:380] Convolution47 -> Convolution47
I1003 09:37:45.606413  7223 net.cpp:122] Setting up Convolution47
I1003 09:37:45.606421  7223 net.cpp:129] Top shape: 100 64 8 8 (409600)
I1003 09:37:45.606425  7223 net.cpp:137] Memory required for data: 1090766000
I1003 09:37:45.606428  7223 layer_factory.hpp:77] Creating layer BatchNorm47
I1003 09:37:45.606433  7223 net.cpp:84] Creating Layer BatchNorm47
I1003 09:37:45.606437  7223 net.cpp:406] BatchNorm47 <- Convolution47
I1003 09:37:45.606441  7223 net.cpp:367] BatchNorm47 -> Convolution47 (in-place)
I1003 09:37:45.606578  7223 net.cpp:122] Setting up BatchNorm47
I1003 09:37:45.606582  7223 net.cpp:129] Top shape: 100 64 8 8 (409600)
I1003 09:37:45.606585  7223 net.cpp:137] Memory required for data: 1092404400
I1003 09:37:45.606590  7223 layer_factory.hpp:77] Creating layer Scale47
I1003 09:37:45.606595  7223 net.cpp:84] Creating Layer Scale47
I1003 09:37:45.606596  7223 net.cpp:406] Scale47 <- Convolution47
I1003 09:37:45.606600  7223 net.cpp:367] Scale47 -> Convolution47 (in-place)
I1003 09:37:45.606626  7223 layer_factory.hpp:77] Creating layer Scale47
I1003 09:37:45.606703  7223 net.cpp:122] Setting up Scale47
I1003 09:37:45.606709  7223 net.cpp:129] Top shape: 100 64 8 8 (409600)
I1003 09:37:45.606710  7223 net.cpp:137] Memory required for data: 1094042800
I1003 09:37:45.606714  7223 layer_factory.hpp:77] Creating layer Eltwise22
I1003 09:37:45.606719  7223 net.cpp:84] Creating Layer Eltwise22
I1003 09:37:45.606720  7223 net.cpp:406] Eltwise22 <- Eltwise21_M2PELU43_0_split_1
I1003 09:37:45.606724  7223 net.cpp:406] Eltwise22 <- Convolution47
I1003 09:37:45.606729  7223 net.cpp:380] Eltwise22 -> Eltwise22
I1003 09:37:45.606744  7223 net.cpp:122] Setting up Eltwise22
I1003 09:37:45.606747  7223 net.cpp:129] Top shape: 100 64 8 8 (409600)
I1003 09:37:45.606750  7223 net.cpp:137] Memory required for data: 1095681200
I1003 09:37:45.606751  7223 layer_factory.hpp:77] Creating layer M2PELU45
I1003 09:37:45.606756  7223 net.cpp:84] Creating Layer M2PELU45
I1003 09:37:45.606760  7223 net.cpp:406] M2PELU45 <- Eltwise22
I1003 09:37:45.606762  7223 net.cpp:367] M2PELU45 -> Eltwise22 (in-place)
I1003 09:37:45.606853  7223 net.cpp:122] Setting up M2PELU45
I1003 09:37:45.606856  7223 net.cpp:129] Top shape: 100 64 8 8 (409600)
I1003 09:37:45.606858  7223 net.cpp:137] Memory required for data: 1097319600
I1003 09:37:45.606861  7223 layer_factory.hpp:77] Creating layer Eltwise22_M2PELU45_0_split
I1003 09:37:45.606866  7223 net.cpp:84] Creating Layer Eltwise22_M2PELU45_0_split
I1003 09:37:45.606868  7223 net.cpp:406] Eltwise22_M2PELU45_0_split <- Eltwise22
I1003 09:37:45.606871  7223 net.cpp:380] Eltwise22_M2PELU45_0_split -> Eltwise22_M2PELU45_0_split_0
I1003 09:37:45.606876  7223 net.cpp:380] Eltwise22_M2PELU45_0_split -> Eltwise22_M2PELU45_0_split_1
I1003 09:37:45.606899  7223 net.cpp:122] Setting up Eltwise22_M2PELU45_0_split
I1003 09:37:45.606902  7223 net.cpp:129] Top shape: 100 64 8 8 (409600)
I1003 09:37:45.606905  7223 net.cpp:129] Top shape: 100 64 8 8 (409600)
I1003 09:37:45.606907  7223 net.cpp:137] Memory required for data: 1100596400
I1003 09:37:45.606909  7223 layer_factory.hpp:77] Creating layer Convolution48
I1003 09:37:45.606915  7223 net.cpp:84] Creating Layer Convolution48
I1003 09:37:45.606917  7223 net.cpp:406] Convolution48 <- Eltwise22_M2PELU45_0_split_0
I1003 09:37:45.606921  7223 net.cpp:380] Convolution48 -> Convolution48
I1003 09:37:45.608948  7223 net.cpp:122] Setting up Convolution48
I1003 09:37:45.608963  7223 net.cpp:129] Top shape: 100 64 8 8 (409600)
I1003 09:37:45.608968  7223 net.cpp:137] Memory required for data: 1102234800
I1003 09:37:45.608971  7223 layer_factory.hpp:77] Creating layer BatchNorm48
I1003 09:37:45.608978  7223 net.cpp:84] Creating Layer BatchNorm48
I1003 09:37:45.608981  7223 net.cpp:406] BatchNorm48 <- Convolution48
I1003 09:37:45.608985  7223 net.cpp:367] BatchNorm48 -> Convolution48 (in-place)
I1003 09:37:45.609125  7223 net.cpp:122] Setting up BatchNorm48
I1003 09:37:45.609130  7223 net.cpp:129] Top shape: 100 64 8 8 (409600)
I1003 09:37:45.609133  7223 net.cpp:137] Memory required for data: 1103873200
I1003 09:37:45.609138  7223 layer_factory.hpp:77] Creating layer Scale48
I1003 09:37:45.609141  7223 net.cpp:84] Creating Layer Scale48
I1003 09:37:45.609144  7223 net.cpp:406] Scale48 <- Convolution48
I1003 09:37:45.609148  7223 net.cpp:367] Scale48 -> Convolution48 (in-place)
I1003 09:37:45.609175  7223 layer_factory.hpp:77] Creating layer Scale48
I1003 09:37:45.609253  7223 net.cpp:122] Setting up Scale48
I1003 09:37:45.609258  7223 net.cpp:129] Top shape: 100 64 8 8 (409600)
I1003 09:37:45.609261  7223 net.cpp:137] Memory required for data: 1105511600
I1003 09:37:45.609263  7223 layer_factory.hpp:77] Creating layer M2PELU46
I1003 09:37:45.609268  7223 net.cpp:84] Creating Layer M2PELU46
I1003 09:37:45.609272  7223 net.cpp:406] M2PELU46 <- Convolution48
I1003 09:37:45.609274  7223 net.cpp:367] M2PELU46 -> Convolution48 (in-place)
I1003 09:37:45.609364  7223 net.cpp:122] Setting up M2PELU46
I1003 09:37:45.609369  7223 net.cpp:129] Top shape: 100 64 8 8 (409600)
I1003 09:37:45.609370  7223 net.cpp:137] Memory required for data: 1107150000
I1003 09:37:45.609374  7223 layer_factory.hpp:77] Creating layer Convolution49
I1003 09:37:45.609380  7223 net.cpp:84] Creating Layer Convolution49
I1003 09:37:45.609382  7223 net.cpp:406] Convolution49 <- Convolution48
I1003 09:37:45.609386  7223 net.cpp:380] Convolution49 -> Convolution49
I1003 09:37:45.611405  7223 net.cpp:122] Setting up Convolution49
I1003 09:37:45.611414  7223 net.cpp:129] Top shape: 100 64 8 8 (409600)
I1003 09:37:45.611416  7223 net.cpp:137] Memory required for data: 1108788400
I1003 09:37:45.611420  7223 layer_factory.hpp:77] Creating layer BatchNorm49
I1003 09:37:45.611426  7223 net.cpp:84] Creating Layer BatchNorm49
I1003 09:37:45.611429  7223 net.cpp:406] BatchNorm49 <- Convolution49
I1003 09:37:45.611433  7223 net.cpp:367] BatchNorm49 -> Convolution49 (in-place)
I1003 09:37:45.611568  7223 net.cpp:122] Setting up BatchNorm49
I1003 09:37:45.611572  7223 net.cpp:129] Top shape: 100 64 8 8 (409600)
I1003 09:37:45.611574  7223 net.cpp:137] Memory required for data: 1110426800
I1003 09:37:45.611580  7223 layer_factory.hpp:77] Creating layer Scale49
I1003 09:37:45.611584  7223 net.cpp:84] Creating Layer Scale49
I1003 09:37:45.611587  7223 net.cpp:406] Scale49 <- Convolution49
I1003 09:37:45.611589  7223 net.cpp:367] Scale49 -> Convolution49 (in-place)
I1003 09:37:45.611616  7223 layer_factory.hpp:77] Creating layer Scale49
I1003 09:37:45.611711  7223 net.cpp:122] Setting up Scale49
I1003 09:37:45.611724  7223 net.cpp:129] Top shape: 100 64 8 8 (409600)
I1003 09:37:45.611726  7223 net.cpp:137] Memory required for data: 1112065200
I1003 09:37:45.611730  7223 layer_factory.hpp:77] Creating layer Eltwise23
I1003 09:37:45.611734  7223 net.cpp:84] Creating Layer Eltwise23
I1003 09:37:45.611737  7223 net.cpp:406] Eltwise23 <- Eltwise22_M2PELU45_0_split_1
I1003 09:37:45.611739  7223 net.cpp:406] Eltwise23 <- Convolution49
I1003 09:37:45.611743  7223 net.cpp:380] Eltwise23 -> Eltwise23
I1003 09:37:45.611760  7223 net.cpp:122] Setting up Eltwise23
I1003 09:37:45.611763  7223 net.cpp:129] Top shape: 100 64 8 8 (409600)
I1003 09:37:45.611765  7223 net.cpp:137] Memory required for data: 1113703600
I1003 09:37:45.611768  7223 layer_factory.hpp:77] Creating layer M2PELU47
I1003 09:37:45.611773  7223 net.cpp:84] Creating Layer M2PELU47
I1003 09:37:45.611775  7223 net.cpp:406] M2PELU47 <- Eltwise23
I1003 09:37:45.611778  7223 net.cpp:367] M2PELU47 -> Eltwise23 (in-place)
I1003 09:37:45.611878  7223 net.cpp:122] Setting up M2PELU47
I1003 09:37:45.611883  7223 net.cpp:129] Top shape: 100 64 8 8 (409600)
I1003 09:37:45.611886  7223 net.cpp:137] Memory required for data: 1115342000
I1003 09:37:45.611889  7223 layer_factory.hpp:77] Creating layer Eltwise23_M2PELU47_0_split
I1003 09:37:45.611893  7223 net.cpp:84] Creating Layer Eltwise23_M2PELU47_0_split
I1003 09:37:45.611896  7223 net.cpp:406] Eltwise23_M2PELU47_0_split <- Eltwise23
I1003 09:37:45.611899  7223 net.cpp:380] Eltwise23_M2PELU47_0_split -> Eltwise23_M2PELU47_0_split_0
I1003 09:37:45.611903  7223 net.cpp:380] Eltwise23_M2PELU47_0_split -> Eltwise23_M2PELU47_0_split_1
I1003 09:37:45.611927  7223 net.cpp:122] Setting up Eltwise23_M2PELU47_0_split
I1003 09:37:45.611932  7223 net.cpp:129] Top shape: 100 64 8 8 (409600)
I1003 09:37:45.611934  7223 net.cpp:129] Top shape: 100 64 8 8 (409600)
I1003 09:37:45.611937  7223 net.cpp:137] Memory required for data: 1118618800
I1003 09:37:45.611938  7223 layer_factory.hpp:77] Creating layer Convolution50
I1003 09:37:45.611944  7223 net.cpp:84] Creating Layer Convolution50
I1003 09:37:45.611948  7223 net.cpp:406] Convolution50 <- Eltwise23_M2PELU47_0_split_0
I1003 09:37:45.611951  7223 net.cpp:380] Convolution50 -> Convolution50
I1003 09:37:45.614490  7223 net.cpp:122] Setting up Convolution50
I1003 09:37:45.614498  7223 net.cpp:129] Top shape: 100 64 8 8 (409600)
I1003 09:37:45.614500  7223 net.cpp:137] Memory required for data: 1120257200
I1003 09:37:45.614506  7223 layer_factory.hpp:77] Creating layer BatchNorm50
I1003 09:37:45.614511  7223 net.cpp:84] Creating Layer BatchNorm50
I1003 09:37:45.614513  7223 net.cpp:406] BatchNorm50 <- Convolution50
I1003 09:37:45.614517  7223 net.cpp:367] BatchNorm50 -> Convolution50 (in-place)
I1003 09:37:45.630151  7223 net.cpp:122] Setting up BatchNorm50
I1003 09:37:45.630162  7223 net.cpp:129] Top shape: 100 64 8 8 (409600)
I1003 09:37:45.630163  7223 net.cpp:137] Memory required for data: 1121895600
I1003 09:37:45.630170  7223 layer_factory.hpp:77] Creating layer Scale50
I1003 09:37:45.630175  7223 net.cpp:84] Creating Layer Scale50
I1003 09:37:45.630178  7223 net.cpp:406] Scale50 <- Convolution50
I1003 09:37:45.630183  7223 net.cpp:367] Scale50 -> Convolution50 (in-place)
I1003 09:37:45.630215  7223 layer_factory.hpp:77] Creating layer Scale50
I1003 09:37:45.630303  7223 net.cpp:122] Setting up Scale50
I1003 09:37:45.630308  7223 net.cpp:129] Top shape: 100 64 8 8 (409600)
I1003 09:37:45.630311  7223 net.cpp:137] Memory required for data: 1123534000
I1003 09:37:45.630316  7223 layer_factory.hpp:77] Creating layer M2PELU48
I1003 09:37:45.630321  7223 net.cpp:84] Creating Layer M2PELU48
I1003 09:37:45.630323  7223 net.cpp:406] M2PELU48 <- Convolution50
I1003 09:37:45.630328  7223 net.cpp:367] M2PELU48 -> Convolution50 (in-place)
I1003 09:37:45.630429  7223 net.cpp:122] Setting up M2PELU48
I1003 09:37:45.630434  7223 net.cpp:129] Top shape: 100 64 8 8 (409600)
I1003 09:37:45.630436  7223 net.cpp:137] Memory required for data: 1125172400
I1003 09:37:45.630440  7223 layer_factory.hpp:77] Creating layer Convolution51
I1003 09:37:45.630447  7223 net.cpp:84] Creating Layer Convolution51
I1003 09:37:45.630450  7223 net.cpp:406] Convolution51 <- Convolution50
I1003 09:37:45.630455  7223 net.cpp:380] Convolution51 -> Convolution51
I1003 09:37:45.632475  7223 net.cpp:122] Setting up Convolution51
I1003 09:37:45.632484  7223 net.cpp:129] Top shape: 100 64 8 8 (409600)
I1003 09:37:45.632486  7223 net.cpp:137] Memory required for data: 1126810800
I1003 09:37:45.632491  7223 layer_factory.hpp:77] Creating layer BatchNorm51
I1003 09:37:45.632496  7223 net.cpp:84] Creating Layer BatchNorm51
I1003 09:37:45.632499  7223 net.cpp:406] BatchNorm51 <- Convolution51
I1003 09:37:45.632503  7223 net.cpp:367] BatchNorm51 -> Convolution51 (in-place)
I1003 09:37:45.632642  7223 net.cpp:122] Setting up BatchNorm51
I1003 09:37:45.632647  7223 net.cpp:129] Top shape: 100 64 8 8 (409600)
I1003 09:37:45.632648  7223 net.cpp:137] Memory required for data: 1128449200
I1003 09:37:45.632661  7223 layer_factory.hpp:77] Creating layer Scale51
I1003 09:37:45.632665  7223 net.cpp:84] Creating Layer Scale51
I1003 09:37:45.632668  7223 net.cpp:406] Scale51 <- Convolution51
I1003 09:37:45.632671  7223 net.cpp:367] Scale51 -> Convolution51 (in-place)
I1003 09:37:45.632701  7223 layer_factory.hpp:77] Creating layer Scale51
I1003 09:37:45.632781  7223 net.cpp:122] Setting up Scale51
I1003 09:37:45.632786  7223 net.cpp:129] Top shape: 100 64 8 8 (409600)
I1003 09:37:45.632788  7223 net.cpp:137] Memory required for data: 1130087600
I1003 09:37:45.632791  7223 layer_factory.hpp:77] Creating layer Eltwise24
I1003 09:37:45.632797  7223 net.cpp:84] Creating Layer Eltwise24
I1003 09:37:45.632800  7223 net.cpp:406] Eltwise24 <- Eltwise23_M2PELU47_0_split_1
I1003 09:37:45.632803  7223 net.cpp:406] Eltwise24 <- Convolution51
I1003 09:37:45.632807  7223 net.cpp:380] Eltwise24 -> Eltwise24
I1003 09:37:45.632823  7223 net.cpp:122] Setting up Eltwise24
I1003 09:37:45.632827  7223 net.cpp:129] Top shape: 100 64 8 8 (409600)
I1003 09:37:45.632828  7223 net.cpp:137] Memory required for data: 1131726000
I1003 09:37:45.632830  7223 layer_factory.hpp:77] Creating layer M2PELU49
I1003 09:37:45.632836  7223 net.cpp:84] Creating Layer M2PELU49
I1003 09:37:45.632839  7223 net.cpp:406] M2PELU49 <- Eltwise24
I1003 09:37:45.632843  7223 net.cpp:367] M2PELU49 -> Eltwise24 (in-place)
I1003 09:37:45.632936  7223 net.cpp:122] Setting up M2PELU49
I1003 09:37:45.632941  7223 net.cpp:129] Top shape: 100 64 8 8 (409600)
I1003 09:37:45.632942  7223 net.cpp:137] Memory required for data: 1133364400
I1003 09:37:45.632946  7223 layer_factory.hpp:77] Creating layer Eltwise24_M2PELU49_0_split
I1003 09:37:45.632951  7223 net.cpp:84] Creating Layer Eltwise24_M2PELU49_0_split
I1003 09:37:45.632952  7223 net.cpp:406] Eltwise24_M2PELU49_0_split <- Eltwise24
I1003 09:37:45.632956  7223 net.cpp:380] Eltwise24_M2PELU49_0_split -> Eltwise24_M2PELU49_0_split_0
I1003 09:37:45.632961  7223 net.cpp:380] Eltwise24_M2PELU49_0_split -> Eltwise24_M2PELU49_0_split_1
I1003 09:37:45.632994  7223 net.cpp:122] Setting up Eltwise24_M2PELU49_0_split
I1003 09:37:45.632999  7223 net.cpp:129] Top shape: 100 64 8 8 (409600)
I1003 09:37:45.633002  7223 net.cpp:129] Top shape: 100 64 8 8 (409600)
I1003 09:37:45.633004  7223 net.cpp:137] Memory required for data: 1136641200
I1003 09:37:45.633007  7223 layer_factory.hpp:77] Creating layer Convolution52
I1003 09:37:45.633013  7223 net.cpp:84] Creating Layer Convolution52
I1003 09:37:45.633016  7223 net.cpp:406] Convolution52 <- Eltwise24_M2PELU49_0_split_0
I1003 09:37:45.633020  7223 net.cpp:380] Convolution52 -> Convolution52
I1003 09:37:45.635179  7223 net.cpp:122] Setting up Convolution52
I1003 09:37:45.635188  7223 net.cpp:129] Top shape: 100 64 8 8 (409600)
I1003 09:37:45.635191  7223 net.cpp:137] Memory required for data: 1138279600
I1003 09:37:45.635197  7223 layer_factory.hpp:77] Creating layer BatchNorm52
I1003 09:37:45.635202  7223 net.cpp:84] Creating Layer BatchNorm52
I1003 09:37:45.635205  7223 net.cpp:406] BatchNorm52 <- Convolution52
I1003 09:37:45.635210  7223 net.cpp:367] BatchNorm52 -> Convolution52 (in-place)
I1003 09:37:45.635355  7223 net.cpp:122] Setting up BatchNorm52
I1003 09:37:45.635360  7223 net.cpp:129] Top shape: 100 64 8 8 (409600)
I1003 09:37:45.635362  7223 net.cpp:137] Memory required for data: 1139918000
I1003 09:37:45.635367  7223 layer_factory.hpp:77] Creating layer Scale52
I1003 09:37:45.635371  7223 net.cpp:84] Creating Layer Scale52
I1003 09:37:45.635373  7223 net.cpp:406] Scale52 <- Convolution52
I1003 09:37:45.635377  7223 net.cpp:367] Scale52 -> Convolution52 (in-place)
I1003 09:37:45.635406  7223 layer_factory.hpp:77] Creating layer Scale52
I1003 09:37:45.635488  7223 net.cpp:122] Setting up Scale52
I1003 09:37:45.635493  7223 net.cpp:129] Top shape: 100 64 8 8 (409600)
I1003 09:37:45.635495  7223 net.cpp:137] Memory required for data: 1141556400
I1003 09:37:45.635499  7223 layer_factory.hpp:77] Creating layer M2PELU50
I1003 09:37:45.635521  7223 net.cpp:84] Creating Layer M2PELU50
I1003 09:37:45.635531  7223 net.cpp:406] M2PELU50 <- Convolution52
I1003 09:37:45.635535  7223 net.cpp:367] M2PELU50 -> Convolution52 (in-place)
I1003 09:37:45.635635  7223 net.cpp:122] Setting up M2PELU50
I1003 09:37:45.635640  7223 net.cpp:129] Top shape: 100 64 8 8 (409600)
I1003 09:37:45.635643  7223 net.cpp:137] Memory required for data: 1143194800
I1003 09:37:45.635646  7223 layer_factory.hpp:77] Creating layer Convolution53
I1003 09:37:45.635653  7223 net.cpp:84] Creating Layer Convolution53
I1003 09:37:45.635656  7223 net.cpp:406] Convolution53 <- Convolution52
I1003 09:37:45.635660  7223 net.cpp:380] Convolution53 -> Convolution53
I1003 09:37:45.637370  7223 net.cpp:122] Setting up Convolution53
I1003 09:37:45.637379  7223 net.cpp:129] Top shape: 100 64 8 8 (409600)
I1003 09:37:45.637382  7223 net.cpp:137] Memory required for data: 1144833200
I1003 09:37:45.637387  7223 layer_factory.hpp:77] Creating layer BatchNorm53
I1003 09:37:45.637392  7223 net.cpp:84] Creating Layer BatchNorm53
I1003 09:37:45.637394  7223 net.cpp:406] BatchNorm53 <- Convolution53
I1003 09:37:45.637398  7223 net.cpp:367] BatchNorm53 -> Convolution53 (in-place)
I1003 09:37:45.637539  7223 net.cpp:122] Setting up BatchNorm53
I1003 09:37:45.637543  7223 net.cpp:129] Top shape: 100 64 8 8 (409600)
I1003 09:37:45.637545  7223 net.cpp:137] Memory required for data: 1146471600
I1003 09:37:45.637550  7223 layer_factory.hpp:77] Creating layer Scale53
I1003 09:37:45.637554  7223 net.cpp:84] Creating Layer Scale53
I1003 09:37:45.637557  7223 net.cpp:406] Scale53 <- Convolution53
I1003 09:37:45.637559  7223 net.cpp:367] Scale53 -> Convolution53 (in-place)
I1003 09:37:45.637588  7223 layer_factory.hpp:77] Creating layer Scale53
I1003 09:37:45.637667  7223 net.cpp:122] Setting up Scale53
I1003 09:37:45.637671  7223 net.cpp:129] Top shape: 100 64 8 8 (409600)
I1003 09:37:45.637673  7223 net.cpp:137] Memory required for data: 1148110000
I1003 09:37:45.637677  7223 layer_factory.hpp:77] Creating layer Eltwise25
I1003 09:37:45.637682  7223 net.cpp:84] Creating Layer Eltwise25
I1003 09:37:45.637684  7223 net.cpp:406] Eltwise25 <- Eltwise24_M2PELU49_0_split_1
I1003 09:37:45.637687  7223 net.cpp:406] Eltwise25 <- Convolution53
I1003 09:37:45.637691  7223 net.cpp:380] Eltwise25 -> Eltwise25
I1003 09:37:45.637708  7223 net.cpp:122] Setting up Eltwise25
I1003 09:37:45.637712  7223 net.cpp:129] Top shape: 100 64 8 8 (409600)
I1003 09:37:45.637714  7223 net.cpp:137] Memory required for data: 1149748400
I1003 09:37:45.637717  7223 layer_factory.hpp:77] Creating layer M2PELU51
I1003 09:37:45.637722  7223 net.cpp:84] Creating Layer M2PELU51
I1003 09:37:45.637723  7223 net.cpp:406] M2PELU51 <- Eltwise25
I1003 09:37:45.637727  7223 net.cpp:367] M2PELU51 -> Eltwise25 (in-place)
I1003 09:37:45.637818  7223 net.cpp:122] Setting up M2PELU51
I1003 09:37:45.637822  7223 net.cpp:129] Top shape: 100 64 8 8 (409600)
I1003 09:37:45.637825  7223 net.cpp:137] Memory required for data: 1151386800
I1003 09:37:45.637828  7223 layer_factory.hpp:77] Creating layer Eltwise25_M2PELU51_0_split
I1003 09:37:45.637831  7223 net.cpp:84] Creating Layer Eltwise25_M2PELU51_0_split
I1003 09:37:45.637835  7223 net.cpp:406] Eltwise25_M2PELU51_0_split <- Eltwise25
I1003 09:37:45.637837  7223 net.cpp:380] Eltwise25_M2PELU51_0_split -> Eltwise25_M2PELU51_0_split_0
I1003 09:37:45.637841  7223 net.cpp:380] Eltwise25_M2PELU51_0_split -> Eltwise25_M2PELU51_0_split_1
I1003 09:37:45.637866  7223 net.cpp:122] Setting up Eltwise25_M2PELU51_0_split
I1003 09:37:45.637871  7223 net.cpp:129] Top shape: 100 64 8 8 (409600)
I1003 09:37:45.637872  7223 net.cpp:129] Top shape: 100 64 8 8 (409600)
I1003 09:37:45.637876  7223 net.cpp:137] Memory required for data: 1154663600
I1003 09:37:45.637877  7223 layer_factory.hpp:77] Creating layer Convolution54
I1003 09:37:45.637883  7223 net.cpp:84] Creating Layer Convolution54
I1003 09:37:45.637887  7223 net.cpp:406] Convolution54 <- Eltwise25_M2PELU51_0_split_0
I1003 09:37:45.637890  7223 net.cpp:380] Convolution54 -> Convolution54
I1003 09:37:45.639935  7223 net.cpp:122] Setting up Convolution54
I1003 09:37:45.639945  7223 net.cpp:129] Top shape: 100 64 8 8 (409600)
I1003 09:37:45.639947  7223 net.cpp:137] Memory required for data: 1156302000
I1003 09:37:45.639952  7223 layer_factory.hpp:77] Creating layer BatchNorm54
I1003 09:37:45.639956  7223 net.cpp:84] Creating Layer BatchNorm54
I1003 09:37:45.639960  7223 net.cpp:406] BatchNorm54 <- Convolution54
I1003 09:37:45.639963  7223 net.cpp:367] BatchNorm54 -> Convolution54 (in-place)
I1003 09:37:45.640110  7223 net.cpp:122] Setting up BatchNorm54
I1003 09:37:45.640113  7223 net.cpp:129] Top shape: 100 64 8 8 (409600)
I1003 09:37:45.640115  7223 net.cpp:137] Memory required for data: 1157940400
I1003 09:37:45.640120  7223 layer_factory.hpp:77] Creating layer Scale54
I1003 09:37:45.640125  7223 net.cpp:84] Creating Layer Scale54
I1003 09:37:45.640127  7223 net.cpp:406] Scale54 <- Convolution54
I1003 09:37:45.640130  7223 net.cpp:367] Scale54 -> Convolution54 (in-place)
I1003 09:37:45.640158  7223 layer_factory.hpp:77] Creating layer Scale54
I1003 09:37:45.640241  7223 net.cpp:122] Setting up Scale54
I1003 09:37:45.640245  7223 net.cpp:129] Top shape: 100 64 8 8 (409600)
I1003 09:37:45.640249  7223 net.cpp:137] Memory required for data: 1159578800
I1003 09:37:45.640251  7223 layer_factory.hpp:77] Creating layer M2PELU52
I1003 09:37:45.640256  7223 net.cpp:84] Creating Layer M2PELU52
I1003 09:37:45.640259  7223 net.cpp:406] M2PELU52 <- Convolution54
I1003 09:37:45.640262  7223 net.cpp:367] M2PELU52 -> Convolution54 (in-place)
I1003 09:37:45.640357  7223 net.cpp:122] Setting up M2PELU52
I1003 09:37:45.640360  7223 net.cpp:129] Top shape: 100 64 8 8 (409600)
I1003 09:37:45.640363  7223 net.cpp:137] Memory required for data: 1161217200
I1003 09:37:45.640367  7223 layer_factory.hpp:77] Creating layer Convolution55
I1003 09:37:45.640374  7223 net.cpp:84] Creating Layer Convolution55
I1003 09:37:45.640377  7223 net.cpp:406] Convolution55 <- Convolution54
I1003 09:37:45.640380  7223 net.cpp:380] Convolution55 -> Convolution55
I1003 09:37:45.642088  7223 net.cpp:122] Setting up Convolution55
I1003 09:37:45.642097  7223 net.cpp:129] Top shape: 100 64 8 8 (409600)
I1003 09:37:45.642099  7223 net.cpp:137] Memory required for data: 1162855600
I1003 09:37:45.642104  7223 layer_factory.hpp:77] Creating layer BatchNorm55
I1003 09:37:45.642109  7223 net.cpp:84] Creating Layer BatchNorm55
I1003 09:37:45.642112  7223 net.cpp:406] BatchNorm55 <- Convolution55
I1003 09:37:45.642117  7223 net.cpp:367] BatchNorm55 -> Convolution55 (in-place)
I1003 09:37:45.642256  7223 net.cpp:122] Setting up BatchNorm55
I1003 09:37:45.642261  7223 net.cpp:129] Top shape: 100 64 8 8 (409600)
I1003 09:37:45.642263  7223 net.cpp:137] Memory required for data: 1164494000
I1003 09:37:45.642268  7223 layer_factory.hpp:77] Creating layer Scale55
I1003 09:37:45.642272  7223 net.cpp:84] Creating Layer Scale55
I1003 09:37:45.642276  7223 net.cpp:406] Scale55 <- Convolution55
I1003 09:37:45.642278  7223 net.cpp:367] Scale55 -> Convolution55 (in-place)
I1003 09:37:45.642307  7223 layer_factory.hpp:77] Creating layer Scale55
I1003 09:37:45.642390  7223 net.cpp:122] Setting up Scale55
I1003 09:37:45.642393  7223 net.cpp:129] Top shape: 100 64 8 8 (409600)
I1003 09:37:45.642395  7223 net.cpp:137] Memory required for data: 1166132400
I1003 09:37:45.642400  7223 layer_factory.hpp:77] Creating layer Eltwise26
I1003 09:37:45.642403  7223 net.cpp:84] Creating Layer Eltwise26
I1003 09:37:45.642406  7223 net.cpp:406] Eltwise26 <- Eltwise25_M2PELU51_0_split_1
I1003 09:37:45.642410  7223 net.cpp:406] Eltwise26 <- Convolution55
I1003 09:37:45.642413  7223 net.cpp:380] Eltwise26 -> Eltwise26
I1003 09:37:45.642429  7223 net.cpp:122] Setting up Eltwise26
I1003 09:37:45.642433  7223 net.cpp:129] Top shape: 100 64 8 8 (409600)
I1003 09:37:45.642436  7223 net.cpp:137] Memory required for data: 1167770800
I1003 09:37:45.642437  7223 layer_factory.hpp:77] Creating layer M2PELU53
I1003 09:37:45.642442  7223 net.cpp:84] Creating Layer M2PELU53
I1003 09:37:45.642444  7223 net.cpp:406] M2PELU53 <- Eltwise26
I1003 09:37:45.642455  7223 net.cpp:367] M2PELU53 -> Eltwise26 (in-place)
I1003 09:37:45.642578  7223 net.cpp:122] Setting up M2PELU53
I1003 09:37:45.642583  7223 net.cpp:129] Top shape: 100 64 8 8 (409600)
I1003 09:37:45.642585  7223 net.cpp:137] Memory required for data: 1169409200
I1003 09:37:45.642590  7223 layer_factory.hpp:77] Creating layer Eltwise26_M2PELU53_0_split
I1003 09:37:45.642593  7223 net.cpp:84] Creating Layer Eltwise26_M2PELU53_0_split
I1003 09:37:45.642596  7223 net.cpp:406] Eltwise26_M2PELU53_0_split <- Eltwise26
I1003 09:37:45.642601  7223 net.cpp:380] Eltwise26_M2PELU53_0_split -> Eltwise26_M2PELU53_0_split_0
I1003 09:37:45.642606  7223 net.cpp:380] Eltwise26_M2PELU53_0_split -> Eltwise26_M2PELU53_0_split_1
I1003 09:37:45.642630  7223 net.cpp:122] Setting up Eltwise26_M2PELU53_0_split
I1003 09:37:45.642633  7223 net.cpp:129] Top shape: 100 64 8 8 (409600)
I1003 09:37:45.642637  7223 net.cpp:129] Top shape: 100 64 8 8 (409600)
I1003 09:37:45.642638  7223 net.cpp:137] Memory required for data: 1172686000
I1003 09:37:45.642640  7223 layer_factory.hpp:77] Creating layer Convolution56
I1003 09:37:45.642647  7223 net.cpp:84] Creating Layer Convolution56
I1003 09:37:45.642649  7223 net.cpp:406] Convolution56 <- Eltwise26_M2PELU53_0_split_0
I1003 09:37:45.642653  7223 net.cpp:380] Convolution56 -> Convolution56
I1003 09:37:45.644335  7223 net.cpp:122] Setting up Convolution56
I1003 09:37:45.644342  7223 net.cpp:129] Top shape: 100 64 8 8 (409600)
I1003 09:37:45.644345  7223 net.cpp:137] Memory required for data: 1174324400
I1003 09:37:45.644349  7223 layer_factory.hpp:77] Creating layer BatchNorm56
I1003 09:37:45.662544  7223 net.cpp:84] Creating Layer BatchNorm56
I1003 09:37:45.662564  7223 net.cpp:406] BatchNorm56 <- Convolution56
I1003 09:37:45.662573  7223 net.cpp:367] BatchNorm56 -> Convolution56 (in-place)
I1003 09:37:45.662760  7223 net.cpp:122] Setting up BatchNorm56
I1003 09:37:45.662766  7223 net.cpp:129] Top shape: 100 64 8 8 (409600)
I1003 09:37:45.662768  7223 net.cpp:137] Memory required for data: 1175962800
I1003 09:37:45.662775  7223 layer_factory.hpp:77] Creating layer Scale56
I1003 09:37:45.662780  7223 net.cpp:84] Creating Layer Scale56
I1003 09:37:45.662781  7223 net.cpp:406] Scale56 <- Convolution56
I1003 09:37:45.662786  7223 net.cpp:367] Scale56 -> Convolution56 (in-place)
I1003 09:37:45.662817  7223 layer_factory.hpp:77] Creating layer Scale56
I1003 09:37:45.662905  7223 net.cpp:122] Setting up Scale56
I1003 09:37:45.662910  7223 net.cpp:129] Top shape: 100 64 8 8 (409600)
I1003 09:37:45.662912  7223 net.cpp:137] Memory required for data: 1177601200
I1003 09:37:45.662916  7223 layer_factory.hpp:77] Creating layer M2PELU54
I1003 09:37:45.662922  7223 net.cpp:84] Creating Layer M2PELU54
I1003 09:37:45.662925  7223 net.cpp:406] M2PELU54 <- Convolution56
I1003 09:37:45.662928  7223 net.cpp:367] M2PELU54 -> Convolution56 (in-place)
I1003 09:37:45.663030  7223 net.cpp:122] Setting up M2PELU54
I1003 09:37:45.663035  7223 net.cpp:129] Top shape: 100 64 8 8 (409600)
I1003 09:37:45.663038  7223 net.cpp:137] Memory required for data: 1179239600
I1003 09:37:45.663041  7223 layer_factory.hpp:77] Creating layer Convolution57
I1003 09:37:45.663048  7223 net.cpp:84] Creating Layer Convolution57
I1003 09:37:45.663051  7223 net.cpp:406] Convolution57 <- Convolution56
I1003 09:37:45.663056  7223 net.cpp:380] Convolution57 -> Convolution57
I1003 09:37:45.664904  7223 net.cpp:122] Setting up Convolution57
I1003 09:37:45.664913  7223 net.cpp:129] Top shape: 100 64 8 8 (409600)
I1003 09:37:45.664916  7223 net.cpp:137] Memory required for data: 1180878000
I1003 09:37:45.664921  7223 layer_factory.hpp:77] Creating layer BatchNorm57
I1003 09:37:45.664927  7223 net.cpp:84] Creating Layer BatchNorm57
I1003 09:37:45.664929  7223 net.cpp:406] BatchNorm57 <- Convolution57
I1003 09:37:45.664932  7223 net.cpp:367] BatchNorm57 -> Convolution57 (in-place)
I1003 09:37:45.665076  7223 net.cpp:122] Setting up BatchNorm57
I1003 09:37:45.665081  7223 net.cpp:129] Top shape: 100 64 8 8 (409600)
I1003 09:37:45.665091  7223 net.cpp:137] Memory required for data: 1182516400
I1003 09:37:45.665096  7223 layer_factory.hpp:77] Creating layer Scale57
I1003 09:37:45.665100  7223 net.cpp:84] Creating Layer Scale57
I1003 09:37:45.665103  7223 net.cpp:406] Scale57 <- Convolution57
I1003 09:37:45.665107  7223 net.cpp:367] Scale57 -> Convolution57 (in-place)
I1003 09:37:45.665136  7223 layer_factory.hpp:77] Creating layer Scale57
I1003 09:37:45.665218  7223 net.cpp:122] Setting up Scale57
I1003 09:37:45.665222  7223 net.cpp:129] Top shape: 100 64 8 8 (409600)
I1003 09:37:45.665225  7223 net.cpp:137] Memory required for data: 1184154800
I1003 09:37:45.665228  7223 layer_factory.hpp:77] Creating layer Eltwise27
I1003 09:37:45.665232  7223 net.cpp:84] Creating Layer Eltwise27
I1003 09:37:45.665235  7223 net.cpp:406] Eltwise27 <- Eltwise26_M2PELU53_0_split_1
I1003 09:37:45.665238  7223 net.cpp:406] Eltwise27 <- Convolution57
I1003 09:37:45.665242  7223 net.cpp:380] Eltwise27 -> Eltwise27
I1003 09:37:45.665259  7223 net.cpp:122] Setting up Eltwise27
I1003 09:37:45.665262  7223 net.cpp:129] Top shape: 100 64 8 8 (409600)
I1003 09:37:45.665264  7223 net.cpp:137] Memory required for data: 1185793200
I1003 09:37:45.665266  7223 layer_factory.hpp:77] Creating layer M2PELU55
I1003 09:37:45.665271  7223 net.cpp:84] Creating Layer M2PELU55
I1003 09:37:45.665274  7223 net.cpp:406] M2PELU55 <- Eltwise27
I1003 09:37:45.665277  7223 net.cpp:367] M2PELU55 -> Eltwise27 (in-place)
I1003 09:37:45.665371  7223 net.cpp:122] Setting up M2PELU55
I1003 09:37:45.665375  7223 net.cpp:129] Top shape: 100 64 8 8 (409600)
I1003 09:37:45.665379  7223 net.cpp:137] Memory required for data: 1187431600
I1003 09:37:45.665381  7223 layer_factory.hpp:77] Creating layer Pooling1
I1003 09:37:45.665386  7223 net.cpp:84] Creating Layer Pooling1
I1003 09:37:45.665388  7223 net.cpp:406] Pooling1 <- Eltwise27
I1003 09:37:45.665392  7223 net.cpp:380] Pooling1 -> Pooling1
I1003 09:37:45.665877  7223 net.cpp:122] Setting up Pooling1
I1003 09:37:45.665886  7223 net.cpp:129] Top shape: 100 64 1 1 (6400)
I1003 09:37:45.665889  7223 net.cpp:137] Memory required for data: 1187457200
I1003 09:37:45.665891  7223 layer_factory.hpp:77] Creating layer InnerProduct1
I1003 09:37:45.665896  7223 net.cpp:84] Creating Layer InnerProduct1
I1003 09:37:45.665899  7223 net.cpp:406] InnerProduct1 <- Pooling1
I1003 09:37:45.665904  7223 net.cpp:380] InnerProduct1 -> InnerProduct1
I1003 09:37:45.666013  7223 net.cpp:122] Setting up InnerProduct1
I1003 09:37:45.666016  7223 net.cpp:129] Top shape: 100 10 (1000)
I1003 09:37:45.666018  7223 net.cpp:137] Memory required for data: 1187461200
I1003 09:37:45.666023  7223 layer_factory.hpp:77] Creating layer InnerProduct1_InnerProduct1_0_split
I1003 09:37:45.666028  7223 net.cpp:84] Creating Layer InnerProduct1_InnerProduct1_0_split
I1003 09:37:45.666030  7223 net.cpp:406] InnerProduct1_InnerProduct1_0_split <- InnerProduct1
I1003 09:37:45.666034  7223 net.cpp:380] InnerProduct1_InnerProduct1_0_split -> InnerProduct1_InnerProduct1_0_split_0
I1003 09:37:45.666038  7223 net.cpp:380] InnerProduct1_InnerProduct1_0_split -> InnerProduct1_InnerProduct1_0_split_1
I1003 09:37:45.666065  7223 net.cpp:122] Setting up InnerProduct1_InnerProduct1_0_split
I1003 09:37:45.666069  7223 net.cpp:129] Top shape: 100 10 (1000)
I1003 09:37:45.666071  7223 net.cpp:129] Top shape: 100 10 (1000)
I1003 09:37:45.666074  7223 net.cpp:137] Memory required for data: 1187469200
I1003 09:37:45.666075  7223 layer_factory.hpp:77] Creating layer SoftmaxWithLoss1
I1003 09:37:45.666079  7223 net.cpp:84] Creating Layer SoftmaxWithLoss1
I1003 09:37:45.666081  7223 net.cpp:406] SoftmaxWithLoss1 <- InnerProduct1_InnerProduct1_0_split_0
I1003 09:37:45.666085  7223 net.cpp:406] SoftmaxWithLoss1 <- Data2_Data1_1_split_0
…
