…
I0929 14:31:54.162909  2305 net.cpp:294] The NetState phase (0) differed from the phase (1) specified by a rule in layer Accuracy1
I0929 14:31:54.163946  2305 net.cpp:51] Initializing net from parameters: 
name: "resnet_cifar10"
state {
  phase: TRAIN
  level: 0
  stage: ""
}
layer {
  name: "Data1"
  type: "Data"
  top: "Data1"
  top: "Data2"
  include {
    phase: TRAIN
  }
  transform_param {
    mirror: true
    crop_size: 28
    mean_file: "/home/x306/caffe/xn/PENLU/data/cifar10/mean.binaryproto"
  }
  data_param {
    source: "/home/x306/caffe/xn/PENLU/data/cifar10/cifar10_train_lmdb"
    batch_size: 100
    backend: LMDB
  }
}
layer {
  name: "Convolution1"
  type: "Convolution"
  bottom: "Data1"
  top: "Convolution1"
  param {
    lr_mult: 1
    decay_mult: 1
  }
  param {
    lr_mult: 2
    decay_mult: 0
  }
  convolution_param {
    num_output: 16
    pad: 1
    kernel_size: 3
    stride: 1
    weight_filler {
      type: "msra"
    }
    bias_filler {
      type: "constant"
      value: 0
    }
  }
}
layer {
  name: "BatchNorm1"
  type: "BatchNorm"
  bottom: "Convolution1"
  top: "Convolution1"
  param {
    lr_mult: 0
    decay_mult: 0
  }
  param {
    lr_mult: 0
    decay_mult: 0
  }
  param {
    lr_mult: 0
    decay_mult: 0
  }
}
layer {
  name: "Scale1"
  type: "Scale"
  bottom: "Convolution1"
  top: "Convolution1"
  scale_param {
    bias_term: true
  }
}
layer {
  name: "M2PELU1"
  type: "M2PELU"
  bottom: "Convolution1"
  top: "Convolution1"
  param {
    lr_mult: 2
    decay_mult: 2
  }
  param {
    lr_mult: 2
    decay_mult: 2
  }
  m2pelu_param {
    alpha_filler {
      type: "constant"
      value: 0.25
    }
    beta_filler {
      type: "constant"
      value: 1
    }
  }
}
layer {
  name: "Convolution2"
  type: "Convolution"
  bottom: "Convolution1"
  top: "Convolution2"
  param {
    lr_mult: 1
    decay_mult: 1
  }
  param {
    lr_mult: 2
    decay_mult: 0
  }
  convolution_param {
    num_output: 16
    pad: 1
    kernel_size: 3
    stride: 1
    weight_filler {
      type: "msra"
    }
    bias_filler {
      type: "constant"
      value: 0
    }
  }
}
layer {
  name: "BatchNorm2"
  type: "BatchNorm"
  bottom: "Convolution2"
  top: "Convolution2"
  param {
    lr_mult: 0
    decay_mult: 0
  }
  param {
    lr_mult: 0
    decay_mult: 0
  }
  param {
    lr_mult: 0
    decay_mult: 0
  }
}
layer {
  name: "Scale2"
  type: "Scale"
  bottom: "Convolution2"
  top: "Convolution2"
  scale_param {
    bias_term: true
  }
}
layer {
  name: "M2PELU2"
  type: "M2PELU"
  bottom: "Convolution2"
  top: "Convolution2"
  param {
    lr_mult: 2
    decay_mult: 2
  }
  param {
    lr_mult: 2
    decay_mult: 2
  }
  m2pelu_param {
    alpha_filler {
      type: "constant"
      value: 0.25
    }
    beta_filler {
      type: "constant"
      value: 1
    }
  }
}
layer {
  name: "Convolution3"
  type: "Convolution"
  bottom: "Convolution2"
  top: "Convolution3"
  param {
    lr_mult: 1
    decay_mult: 1
  }
  param {
    lr_mult: 2
    decay_mult: 0
  }
  convolution_param {
    num_output: 16
    pad: 1
    kernel_size: 3
    stride: 1
    weight_filler {
      type: "msra"
    }
    bias_filler {
      type: "constant"
      value: 0
    }
  }
}
layer {
  name: "BatchNorm3"
  type: "BatchNorm"
  bottom: "Convolution3"
  top: "Convolution3"
  param {
    lr_mult: 0
    decay_mult: 0
  }
  param {
    lr_mult: 0
    decay_mult: 0
  }
  param {
    lr_mult: 0
    decay_mult: 0
  }
}
layer {
  name: "Scale3"
  type: "Scale"
  bottom: "Convolution3"
  top: "Convolution3"
  scale_param {
    bias_term: true
  }
}
layer {
  name: "Eltwise1"
  type: "Eltwise"
  bottom: "Convolution1"
  bottom: "Convolution3"
  top: "Eltwise1"
  eltwise_param {
    operation: SUM
  }
}
layer {
  name: "M2PELU3"
  type: "M2PELU"
  bottom: "Eltwise1"
  top: "Eltwise1"
  param {
    lr_mult: 2
    decay_mult: 2
  }
  param {
    lr_mult: 2
    decay_mult: 2
  }
  m2pelu_param {
    alpha_filler {
      type: "constant"
      value: 0.25
    }
    beta_filler {
      type: "constant"
      value: 1
    }
  }
}
layer {
  name: "Convolution4"
  type: "Convolution"
  bottom: "Eltwise1"
  top: "Convolution4"
  param {
    lr_mult: 1
    decay_mult: 1
  }
  param {
    lr_mult: 2
    decay_mult: 0
  }
  convolution_param {
    num_output: 16
    pad: 1
    kernel_size: 3
    stride: 1
    weight_filler {
      type: "msra"
    }
    bias_filler {
      type: "constant"
      value: 0
    }
  }
}
layer {
  name: "BatchNorm4"
  type: "BatchNorm"
  bottom: "Convolution4"
  top: "Convolution4"
  param {
    lr_mult: 0
    decay_mult: 0
  }
  param {
    lr_mult: 0
    decay_mult: 0
  }
  param {
    lr_mult: 0
    decay_mult: 0
  }
}
layer {
  name: "Scale4"
  type: "Scale"
  bottom: "Convolution4"
  top: "Convolution4"
  scale_param {
    bias_term: true
  }
}
layer {
  name: "M2PELU4"
  type: "M2PELU"
  bottom: "Convolution4"
  top: "Convolution4"
  param {
    lr_mult: 2
    decay_mult: 2
  }
  param {
    lr_mult: 2
    decay_mult: 2
  }
  m2pelu_param {
    alpha_filler {
      type: "constant"
      value: 0.25
    }
    beta_filler {
      type: "constant"
      value: 1
    }
  }
}
layer {
  name: "Convolution5"
  type: "Convolution"
  bottom: "Convolution4"
  top: "Convolution5"
  param {
    lr_mult: 1
    decay_mult: 1
  }
  param {
    lr_mult: 2
    decay_mult: 0
  }
  convolution_param {
    num_output: 16
    pad: 1
    kernel_size: 3
    stride: 1
    weight_filler {
      type: "msra"
    }
    bias_filler {
      type: "constant"
      value: 0
    }
  }
}
layer {
  name: "BatchNorm5"
  type: "BatchNorm"
  bottom: "Convolution5"
  top: "Convolution5"
  param {
    lr_mult: 0
    decay_mult: 0
  }
  param {
    lr_mult: 0
    decay_mult: 0
  }
  param {
    lr_mult: 0
    decay_mult: 0
  }
}
layer {
  name: "Scale5"
  type: "Scale"
  bottom: "Convolution5"
  top: "Convolution5"
  scale_param {
    bias_term: true
  }
}
layer {
  name: "Eltwise2"
  type: "Eltwise"
  bottom: "Eltwise1"
  bottom: "Convolution5"
  top: "Eltwise2"
  eltwise_param {
    operation: SUM
  }
}
layer {
  name: "M2PELU5"
  type: "M2PELU"
  bottom: "Eltwise2"
  top: "Eltwise2"
  param {
    lr_mult: 2
    decay_mult: 2
  }
  param {
    lr_mult: 2
    decay_mult: 2
  }
  m2pelu_param {
    alpha_filler {
      type: "constant"
      value: 0.25
    }
    beta_filler {
      type: "constant"
      value: 1
    }
  }
}
layer {
  name: "Convolution6"
  type: "Convolution"
  bottom: "Eltwise2"
  top: "Convolution6"
  param {
    lr_mult: 1
    decay_mult: 1
  }
  param {
    lr_mult: 2
    decay_mult: 0
  }
  convolution_param {
    num_output: 16
    pad: 1
    kernel_size: 3
    stride: 1
    weight_filler {
      type: "msra"
    }
    bias_filler {
      type: "constant"
      value: 0
    }
  }
}
layer {
  name: "BatchNorm6"
  type: "BatchNorm"
  bottom: "Convolution6"
  top: "Convolution6"
  param {
    lr_mult: 0
    decay_mult: 0
  }
  param {
    lr_mult: 0
    decay_mult: 0
  }
  param {
    lr_mult: 0
    decay_mult: 0
  }
}
layer {
  name: "Scale6"
  type: "Scale"
  bottom: "Convolution6"
  top: "Convolution6"
  scale_param {
    bias_term: true
  }
}
layer {
  name: "M2PELU6"
  type: "M2PELU"
  bottom: "Convolution6"
  top: "Convolution6"
  param {
    lr_mult: 2
    decay_mult: 2
  }
  param {
    lr_mult: 2
    decay_mult: 2
  }
  m2pelu_param {
    alpha_filler {
      type: "constant"
      value: 0.25
    }
    beta_filler {
      type: "constant"
      value: 1
    }
  }
}
layer {
  name: "Convolution7"
  type: "Convolution"
  bottom: "Convolution6"
  top: "Convolution7"
  param {
    lr_mult: 1
    decay_mult: 1
  }
  param {
    lr_mult: 2
    decay_mult: 0
  }
  convolution_param {
    num_output: 16
    pad: 1
    kernel_size: 3
    stride: 1
    weight_filler {
      type: "msra"
    }
    bias_filler {
      type: "constant"
      value: 0
    }
  }
}
layer {
  name: "BatchNorm7"
  type: "BatchNorm"
  bottom: "Convolution7"
  top: "Convolution7"
  param {
    lr_mult: 0
    decay_mult: 0
  }
  param {
    lr_mult: 0
    decay_mult: 0
  }
  param {
    lr_mult: 0
    decay_mult: 0
  }
}
layer {
  name: "Scale7"
  type: "Scale"
  bottom: "Convolution7"
  top: "Convolution7"
  scale_param {
    bias_term: true
  }
}
layer {
  name: "Eltwise3"
  type: "Eltwise"
  bottom: "Eltwise2"
  bottom: "Convolution7"
  top: "Eltwise3"
  eltwise_param {
    operation: SUM
  }
}
layer {
  name: "M2PELU7"
  type: "M2PELU"
  bottom: "Eltwise3"
  top: "Eltwise3"
  param {
    lr_mult: 2
    decay_mult: 2
  }
  param {
    lr_mult: 2
    decay_mult: 2
  }
  m2pelu_param {
    alpha_filler {
      type: "constant"
      value: 0.25
    }
    beta_filler {
      type: "constant"
      value: 1
    }
  }
}
layer {
  name: "Convolution8"
  type: "Convolution"
  bottom: "Eltwise3"
  top: "Convolution8"
  param {
    lr_mult: 1
    decay_mult: 1
  }
  param {
    lr_mult: 2
    decay_mult: 0
  }
  convolution_param {
    num_output: 16
    pad: 1
    kernel_size: 3
    stride: 1
    weight_filler {
      type: "msra"
    }
    bias_filler {
      type: "constant"
      value: 0
    }
  }
}
layer {
  name: "BatchNorm8"
  type: "BatchNorm"
  bottom: "Convolution8"
  top: "Convolution8"
  param {
    lr_mult: 0
    decay_mult: 0
  }
  param {
    lr_mult: 0
    decay_mult: 0
  }
  param {
    lr_mult: 0
    decay_mult: 0
  }
}
layer {
  name: "Scale8"
  type: "Scale"
  bottom: "Convolution8"
  top: "Convolution8"
  scale_param {
    bias_term: true
  }
}
layer {
  name: "M2PELU8"
  type: "M2PELU"
  bottom: "Convolution8"
  top: "Convolution8"
  param {
    lr_mult: 2
    decay_mult: 2
  }
  param {
    lr_mult: 2
    decay_mult: 2
  }
  m2pelu_param {
    alpha_filler {
      type: "constant"
      value: 0.25
    }
    beta_filler {
      type: "constant"
      value: 1
    }
  }
}
layer {
  name: "Convolution9"
  type: "Convolution"
  bottom: "Convolution8"
  top: "Convolution9"
  param {
    lr_mult: 1
    decay_mult: 1
  }
  param {
    lr_mult: 2
    decay_mult: 0
  }
  convolution_param {
    num_output: 16
    pad: 1
    kernel_size: 3
    stride: 1
    weight_filler {
      type: "msra"
    }
    bias_filler {
      type: "constant"
      value: 0
    }
  }
}
layer {
  name: "BatchNorm9"
  type: "BatchNorm"
  bottom: "Convolution9"
  top: "Convolution9"
  param {
    lr_mult: 0
    decay_mult: 0
  }
  param {
    lr_mult: 0
    decay_mult: 0
  }
  param {
    lr_mult: 0
    decay_mult: 0
  }
}
layer {
  name: "Scale9"
  type: "Scale"
  bottom: "Convolution9"
  top: "Convolution9"
  scale_param {
    bias_term: true
  }
}
layer {
  name: "Eltwise4"
  type: "Eltwise"
  bottom: "Eltwise3"
  bottom: "Convolution9"
  top: "Eltwise4"
  eltwise_param {
    operation: SUM
  }
}
layer {
  name: "M2PELU9"
  type: "M2PELU"
  bottom: "Eltwise4"
  top: "Eltwise4"
  param {
    lr_mult: 2
    decay_mult: 2
  }
  param {
    lr_mult: 2
    decay_mult: 2
  }
  m2pelu_param {
    alpha_filler {
      type: "constant"
      value: 0.25
    }
    beta_filler {
      type: "constant"
      value: 1
    }
  }
}
layer {
  name: "Convolution10"
  type: "Convolution"
  bottom: "Eltwise4"
  top: "Convolution10"
  param {
    lr_mult: 1
    decay_mult: 1
  }
  param {
    lr_mult: 2
    decay_mult: 0
  }
  convolution_param {
    num_output: 16
    pad: 1
    kernel_size: 3
    stride: 1
    weight_filler {
      type: "msra"
    }
    bias_filler {
      type: "constant"
      value: 0
    }
  }
}
layer {
  name: "BatchNorm10"
  type: "BatchNorm"
  bottom: "Convolution10"
  top: "Convolution10"
  param {
    lr_mult: 0
    decay_mult: 0
  }
  param {
    lr_mult: 0
    decay_mult: 0
  }
  param {
    lr_mult: 0
    decay_mult: 0
  }
}
layer {
  name: "Scale10"
  type: "Scale"
  bottom: "Convolution10"
  top: "Convolution10"
  scale_param {
    bias_term: true
  }
}
layer {
  name: "M2PELU10"
  type: "M2PELU"
  bottom: "Convolution10"
  top: "Convolution10"
  param {
    lr_mult: 2
    decay_mult: 2
  }
  param {
    lr_mult: 2
    decay_mult: 2
  }
  m2pelu_param {
    alpha_filler {
      type: "constant"
      value: 0.25
    }
    beta_filler {
      type: "constant"
      value: 1
    }
  }
}
layer {
  name: "Convolution11"
  type: "Convolution"
  bottom: "Convolution10"
  top: "Convolution11"
  param {
    lr_mult: 1
    decay_mult: 1
  }
  param {
    lr_mult: 2
    decay_mult: 0
  }
  convolution_param {
    num_output: 16
    pad: 1
    kernel_size: 3
    stride: 1
    weight_filler {
      type: "msra"
    }
    bias_filler {
      type: "constant"
      value: 0
    }
  }
}
layer {
  name: "BatchNorm11"
  type: "BatchNorm"
  bottom: "Convolution11"
  top: "Convolution11"
  param {
    lr_mult: 0
    decay_mult: 0
  }
  param {
    lr_mult: 0
    decay_mult: 0
  }
  param {
    lr_mult: 0
    decay_mult: 0
  }
}
layer {
  name: "Scale11"
  type: "Scale"
  bottom: "Convolution11"
  top: "Convolution11"
  scale_param {
    bias_term: true
  }
}
layer {
  name: "Eltwise5"
  type: "Eltwise"
  bottom: "Eltwise4"
  bottom: "Convolution11"
  top: "Eltwise5"
  eltwise_param {
    operation: SUM
  }
}
layer {
  name: "M2PELU11"
  type: "M2PELU"
  bottom: "Eltwise5"
  top: "Eltwise5"
  param {
    lr_mult: 2
    decay_mult: 2
  }
  param {
    lr_mult: 2
    decay_mult: 2
  }
  m2pelu_param {
    alpha_filler {
      type: "constant"
      value: 0.25
    }
    beta_filler {
      type: "constant"
      value: 1
    }
  }
}
layer {
  name: "Convolution12"
  type: "Convolution"
  bottom: "Eltwise5"
  top: "Convolution12"
  param {
    lr_mult: 1
    decay_mult: 1
  }
  param {
    lr_mult: 2
    decay_mult: 0
  }
  convolution_param {
    num_output: 16
    pad: 1
    kernel_size: 3
    stride: 1
    weight_filler {
      type: "msra"
    }
    bias_filler {
      type: "constant"
      value: 0
    }
  }
}
layer {
  name: "BatchNorm12"
  type: "BatchNorm"
  bottom: "Convolution12"
  top: "Convolution12"
  param {
    lr_mult: 0
    decay_mult: 0
  }
  param {
    lr_mult: 0
    decay_mult: 0
  }
  param {
    lr_mult: 0
    decay_mult: 0
  }
}
layer {
  name: "Scale12"
  type: "Scale"
  bottom: "Convolution12"
  top: "Convolution12"
  scale_param {
    bias_term: true
  }
}
layer {
  name: "M2PELU12"
  type: "M2PELU"
  bottom: "Convolution12"
  top: "Convolution12"
  param {
    lr_mult: 2
    decay_mult: 2
  }
  param {
    lr_mult: 2
    decay_mult: 2
  }
  m2pelu_param {
    alpha_filler {
      type: "constant"
      value: 0.25
    }
    beta_filler {
      type: "constant"
      value: 1
    }
  }
}
layer {
  name: "Convolution13"
  type: "Convolution"
  bottom: "Convolution12"
  top: "Convolution13"
  param {
    lr_mult: 1
    decay_mult: 1
  }
  param {
    lr_mult: 2
    decay_mult: 0
  }
  convolution_param {
    num_output: 16
    pad: 1
    kernel_size: 3
    stride: 1
    weight_filler {
      type: "msra"
    }
    bias_filler {
      type: "constant"
      value: 0
    }
  }
}
layer {
  name: "BatchNorm13"
  type: "BatchNorm"
  bottom: "Convolution13"
  top: "Convolution13"
  param {
    lr_mult: 0
    decay_mult: 0
  }
  param {
    lr_mult: 0
    decay_mult: 0
  }
  param {
    lr_mult: 0
    decay_mult: 0
  }
}
layer {
  name: "Scale13"
  type: "Scale"
  bottom: "Convolution13"
  top: "Convolution13"
  scale_param {
    bias_term: true
  }
}
layer {
  name: "Eltwise6"
  type: "Eltwise"
  bottom: "Eltwise5"
  bottom: "Convolution13"
  top: "Eltwise6"
  eltwise_param {
    operation: SUM
  }
}
layer {
  name: "M2PELU13"
  type: "M2PELU"
  bottom: "Eltwise6"
  top: "Eltwise6"
  param {
    lr_mult: 2
    decay_mult: 2
  }
  param {
    lr_mult: 2
    decay_mult: 2
  }
  m2pelu_param {
    alpha_filler {
      type: "constant"
      value: 0.25
    }
    beta_filler {
      type: "constant"
      value: 1
    }
  }
}
layer {
  name: "Convolution14"
  type: "Convolution"
  bottom: "Eltwise6"
  top: "Convolution14"
  param {
    lr_mult: 1
    decay_mult: 1
  }
  param {
    lr_mult: 2
    decay_mult: 0
  }
  convolution_param {
    num_output: 16
    pad: 1
    kernel_size: 3
    stride: 1
    weight_filler {
      type: "msra"
    }
    bias_filler {
      type: "constant"
      value: 0
    }
  }
}
layer {
  name: "BatchNorm14"
  type: "BatchNorm"
  bottom: "Convolution14"
  top: "Convolution14"
  param {
    lr_mult: 0
    decay_mult: 0
  }
  param {
    lr_mult: 0
    decay_mult: 0
  }
  param {
    lr_mult: 0
    decay_mult: 0
  }
}
layer {
  name: "Scale14"
  type: "Scale"
  bottom: "Convolution14"
  top: "Convolution14"
  scale_param {
    bias_term: true
  }
}
layer {
  name: "M2PELU14"
  type: "M2PELU"
  bottom: "Convolution14"
  top: "Convolution14"
  param {
    lr_mult: 2
    decay_mult: 2
  }
  param {
    lr_mult: 2
    decay_mult: 2
  }
  m2pelu_param {
    alpha_filler {
      type: "constant"
      value: 0.25
    }
    beta_filler {
      type: "constant"
      value: 1
    }
  }
}
layer {
  name: "Convolution15"
  type: "Convolution"
  bottom: "Convolution14"
  top: "Convolution15"
  param {
    lr_mult: 1
    decay_mult: 1
  }
  param {
    lr_mult: 2
    decay_mult: 0
  }
  convolution_param {
    num_output: 16
    pad: 1
    kernel_size: 3
    stride: 1
    weight_filler {
      type: "msra"
    }
    bias_filler {
      type: "constant"
      value: 0
    }
  }
}
layer {
  name: "BatchNorm15"
  type: "BatchNorm"
  bottom: "Convolution15"
  top: "Convolution15"
  param {
    lr_mult: 0
    decay_mult: 0
  }
  param {
    lr_mult: 0
    decay_mult: 0
  }
  param {
    lr_mult: 0
    decay_mult: 0
  }
}
layer {
  name: "Scale15"
  type: "Scale"
  bottom: "Convolution15"
  top: "Convolution15"
  scale_param {
    bias_term: true
  }
}
layer {
  name: "Eltwise7"
  type: "Eltwise"
  bottom: "Eltwise6"
  bottom: "Convolution15"
  top: "Eltwise7"
  eltwise_param {
    operation: SUM
  }
}
layer {
  name: "M2PELU15"
  type: "M2PELU"
  bottom: "Eltwise7"
  top: "Eltwise7"
  param {
    lr_mult: 2
    decay_mult: 2
  }
  param {
    lr_mult: 2
    decay_mult: 2
  }
  m2pelu_param {
    alpha_filler {
      type: "constant"
      value: 0.25
    }
    beta_filler {
      type: "constant"
      value: 1
    }
  }
}
layer {
  name: "Convolution16"
  type: "Convolution"
  bottom: "Eltwise7"
  top: "Convolution16"
  param {
    lr_mult: 1
    decay_mult: 1
  }
  param {
    lr_mult: 2
    decay_mult: 0
  }
  convolution_param {
    num_output: 16
    pad: 1
    kernel_size: 3
    stride: 1
    weight_filler {
      type: "msra"
    }
    bias_filler {
      type: "constant"
      value: 0
    }
  }
}
layer {
  name: "BatchNorm16"
  type: "BatchNorm"
  bottom: "Convolution16"
  top: "Convolution16"
  param {
    lr_mult: 0
    decay_mult: 0
  }
  param {
    lr_mult: 0
    decay_mult: 0
  }
  param {
    lr_mult: 0
    decay_mult: 0
  }
}
layer {
  name: "Scale16"
  type: "Scale"
  bottom: "Convolution16"
  top: "Convolution16"
  scale_param {
    bias_term: true
  }
}
layer {
  name: "M2PELU16"
  type: "M2PELU"
  bottom: "Convolution16"
  top: "Convolution16"
  param {
    lr_mult: 2
    decay_mult: 2
  }
  param {
    lr_mult: 2
    decay_mult: 2
  }
  m2pelu_param {
    alpha_filler {
      type: "constant"
      value: 0.25
    }
    beta_filler {
      type: "constant"
      value: 1
    }
  }
}
layer {
  name: "Convolution17"
  type: "Convolution"
  bottom: "Convolution16"
  top: "Convolution17"
  param {
    lr_mult: 1
    decay_mult: 1
  }
  param {
    lr_mult: 2
    decay_mult: 0
  }
  convolution_param {
    num_output: 16
    pad: 1
    kernel_size: 3
    stride: 1
    weight_filler {
      type: "msra"
    }
    bias_filler {
      type: "constant"
      value: 0
    }
  }
}
layer {
  name: "BatchNorm17"
  type: "BatchNorm"
  bottom: "Convolution17"
  top: "Convolution17"
  param {
    lr_mult: 0
    decay_mult: 0
  }
  param {
    lr_mult: 0
    decay_mult: 0
  }
  param {
    lr_mult: 0
    decay_mult: 0
  }
}
layer {
  name: "Scale17"
  type: "Scale"
  bottom: "Convolution17"
  top: "Convolution17"
  scale_param {
    bias_term: true
  }
}
layer {
  name: "Eltwise8"
  type: "Eltwise"
  bottom: "Eltwise7"
  bottom: "Convolution17"
  top: "Eltwise8"
  eltwise_param {
    operation: SUM
  }
}
layer {
  name: "M2PELU17"
  type: "M2PELU"
  bottom: "Eltwise8"
  top: "Eltwise8"
  param {
    lr_mult: 2
    decay_mult: 2
  }
  param {
    lr_mult: 2
    decay_mult: 2
  }
  m2pelu_param {
    alpha_filler {
      type: "constant"
      value: 0.25
    }
    beta_filler {
      type: "constant"
      value: 1
    }
  }
}
layer {
  name: "Convolution18"
  type: "Convolution"
  bottom: "Eltwise8"
  top: "Convolution18"
  param {
    lr_mult: 1
    decay_mult: 1
  }
  param {
    lr_mult: 2
    decay_mult: 0
  }
  convolution_param {
    num_output: 16
    pad: 1
    kernel_size: 3
    stride: 1
    weight_filler {
      type: "msra"
    }
    bias_filler {
      type: "constant"
      value: 0
    }
  }
}
layer {
  name: "BatchNorm18"
  type: "BatchNorm"
  bottom: "Convolution18"
  top: "Convolution18"
  param {
    lr_mult: 0
    decay_mult: 0
  }
  param {
    lr_mult: 0
    decay_mult: 0
  }
  param {
    lr_mult: 0
    decay_mult: 0
  }
}
layer {
  name: "Scale18"
  type: "Scale"
  bottom: "Convolution18"
  top: "Convolution18"
  scale_param {
    bias_term: true
  }
}
layer {
  name: "M2PELU18"
  type: "M2PELU"
  bottom: "Convolution18"
  top: "Convolution18"
  param {
    lr_mult: 2
    decay_mult: 2
  }
  param {
    lr_mult: 2
    decay_mult: 2
  }
  m2pelu_param {
    alpha_filler {
      type: "constant"
      value: 0.25
    }
    beta_filler {
      type: "constant"
      value: 1
    }
  }
}
layer {
  name: "Convolution19"
  type: "Convolution"
  bottom: "Convolution18"
  top: "Convolution19"
  param {
    lr_mult: 1
    decay_mult: 1
  }
  param {
    lr_mult: 2
    decay_mult: 0
  }
  convolution_param {
    num_output: 16
    pad: 1
    kernel_size: 3
    stride: 1
    weight_filler {
      type: "msra"
    }
    bias_filler {
      type: "constant"
      value: 0
    }
  }
}
layer {
  name: "BatchNorm19"
  type: "BatchNorm"
  bottom: "Convolution19"
  top: "Convolution19"
  param {
    lr_mult: 0
    decay_mult: 0
  }
  param {
    lr_mult: 0
    decay_mult: 0
  }
  param {
    lr_mult: 0
    decay_mult: 0
  }
}
layer {
  name: "Scale19"
  type: "Scale"
  bottom: "Convolution19"
  top: "Convolution19"
  scale_param {
    bias_term: true
  }
}
layer {
  name: "Eltwise9"
  type: "Eltwise"
  bottom: "Eltwise8"
  bottom: "Convolution19"
  top: "Eltwise9"
  eltwise_param {
    operation: SUM
  }
}
layer {
  name: "M2PELU19"
  type: "M2PELU"
  bottom: "Eltwise9"
  top: "Eltwise9"
  param {
    lr_mult: 2
    decay_mult: 2
  }
  param {
    lr_mult: 2
    decay_mult: 2
  }
  m2pelu_param {
    alpha_filler {
      type: "constant"
      value: 0.25
    }
    beta_filler {
      type: "constant"
      value: 1
    }
  }
}
layer {
  name: "Convolution20"
  type: "Convolution"
  bottom: "Eltwise9"
  top: "Convolution20"
  param {
    lr_mult: 1
    decay_mult: 1
  }
  param {
    lr_mult: 2
    decay_mult: 0
  }
  convolution_param {
    num_output: 32
    pad: 0
    kernel_size: 1
    stride: 2
    weight_filler {
      type: "msra"
    }
    bias_filler {
      type: "constant"
      value: 0
    }
  }
}
layer {
  name: "BatchNorm20"
  type: "BatchNorm"
  bottom: "Convolution20"
  top: "Convolution20"
  param {
    lr_mult: 0
    decay_mult: 0
  }
  param {
    lr_mult: 0
    decay_mult: 0
  }
  param {
    lr_mult: 0
    decay_mult: 0
  }
}
layer {
  name: "Scale20"
  type: "Scale"
  bottom: "Convolution20"
  top: "Convolution20"
  scale_param {
    bias_term: true
  }
}
layer {
  name: "Convolution21"
  type: "Convolution"
  bottom: "Eltwise9"
  top: "Convolution21"
  param {
    lr_mult: 1
    decay_mult: 1
  }
  param {
    lr_mult: 2
    decay_mult: 0
  }
  convolution_param {
    num_output: 32
    pad: 1
    kernel_size: 3
    stride: 2
    weight_filler {
      type: "msra"
    }
    bias_filler {
      type: "constant"
      value: 0
    }
  }
}
layer {
  name: "BatchNorm21"
  type: "BatchNorm"
  bottom: "Convolution21"
  top: "Convolution21"
  param {
    lr_mult: 0
    decay_mult: 0
  }
  param {
    lr_mult: 0
    decay_mult: 0
  }
  param {
    lr_mult: 0
    decay_mult: 0
  }
}
layer {
  name: "Scale21"
  type: "Scale"
  bottom: "Convolution21"
  top: "Convolution21"
  scale_param {
    bias_term: true
  }
}
layer {
  name: "M2PELU20"
  type: "M2PELU"
  bottom: "Convolution21"
  top: "Convolution21"
  param {
    lr_mult: 2
    decay_mult: 0
  }
  param {
    lr_mult: 2
    decay_mult: 0
  }
  m2pelu_param {
    alpha_filler {
      type: "constant"
      value: 0.25
    }
    beta_filler {
      type: "constant"
      value: 1
    }
  }
}
layer {
  name: "Convolution22"
  type: "Convolution"
  bottom: "Convolution21"
  top: "Convolution22"
  param {
    lr_mult: 1
    decay_mult: 1
  }
  param {
    lr_mult: 2
    decay_mult: 0
  }
  convolution_param {
    num_output: 32
    pad: 1
    kernel_size: 3
    stride: 1
    weight_filler {
      type: "msra"
    }
    bias_filler {
      type: "constant"
      value: 0
    }
  }
}
layer {
  name: "BatchNorm22"
  type: "BatchNorm"
  bottom: "Convolution22"
  top: "Convolution22"
  param {
    lr_mult: 0
    decay_mult: 0
  }
  param {
    lr_mult: 0
    decay_mult: 0
  }
  param {
    lr_mult: 0
    decay_mult: 0
  }
}
layer {
  name: "Scale22"
  type: "Scale"
  bottom: "Convolution22"
  top: "Convolution22"
  scale_param {
    bias_term: true
  }
}
layer {
  name: "Eltwise10"
  type: "Eltwise"
  bottom: "Convolution20"
  bottom: "Convolution22"
  top: "Eltwise10"
  eltwise_param {
    operation: SUM
  }
}
layer {
  name: "M2PELU21"
  type: "M2PELU"
  bottom: "Eltwise10"
  top: "Eltwise10"
  param {
    lr_mult: 2
    decay_mult: 2
  }
  param {
    lr_mult: 2
    decay_mult: 2
  }
  m2pelu_param {
    alpha_filler {
      type: "constant"
      value: 0.25
    }
    beta_filler {
      type: "constant"
      value: 1
    }
  }
}
layer {
  name: "Convolution23"
  type: "Convolution"
  bottom: "Eltwise10"
  top: "Convolution23"
  param {
    lr_mult: 1
    decay_mult: 1
  }
  param {
    lr_mult: 2
    decay_mult: 0
  }
  convolution_param {
    num_output: 32
    pad: 1
    kernel_size: 3
    stride: 1
    weight_filler {
      type: "msra"
    }
    bias_filler {
      type: "constant"
      value: 0
    }
  }
}
layer {
  name: "BatchNorm23"
  type: "BatchNorm"
  bottom: "Convolution23"
  top: "Convolution23"
  param {
    lr_mult: 0
    decay_mult: 0
  }
  param {
    lr_mult: 0
    decay_mult: 0
  }
  param {
    lr_mult: 0
    decay_mult: 0
  }
}
layer {
  name: "Scale23"
  type: "Scale"
  bottom: "Convolution23"
  top: "Convolution23"
  scale_param {
    bias_term: true
  }
}
layer {
  name: "M2PELU22"
  type: "M2PELU"
  bottom: "Convolution23"
  top: "Convolution23"
  param {
    lr_mult: 2
    decay_mult: 2
  }
  param {
    lr_mult: 2
    decay_mult: 2
  }
  m2pelu_param {
    alpha_filler {
      type: "constant"
      value: 0.25
    }
    beta_filler {
      type: "constant"
      value: 1
    }
  }
}
layer {
  name: "Convolution24"
  type: "Convolution"
  bottom: "Convolution23"
  top: "Convolution24"
  param {
    lr_mult: 1
    decay_mult: 1
  }
  param {
    lr_mult: 2
    decay_mult: 0
  }
  convolution_param {
    num_output: 32
    pad: 1
    kernel_size: 3
    stride: 1
    weight_filler {
      type: "msra"
    }
    bias_filler {
      type: "constant"
      value: 0
    }
  }
}
layer {
  name: "BatchNorm24"
  type: "BatchNorm"
  bottom: "Convolution24"
  top: "Convolution24"
  param {
    lr_mult: 0
    decay_mult: 0
  }
  param {
    lr_mult: 0
    decay_mult: 0
  }
  param {
    lr_mult: 0
    decay_mult: 0
  }
}
layer {
  name: "Scale24"
  type: "Scale"
  bottom: "Convolution24"
  top: "Convolution24"
  scale_param {
    bias_term: true
  }
}
layer {
  name: "Eltwise11"
  type: "Eltwise"
  bottom: "Eltwise10"
  bottom: "Convolution24"
  top: "Eltwise11"
  eltwise_param {
    operation: SUM
  }
}
layer {
  name: "M2PELU23"
  type: "M2PELU"
  bottom: "Eltwise11"
  top: "Eltwise11"
  param {
    lr_mult: 2
    decay_mult: 2
  }
  param {
    lr_mult: 2
    decay_mult: 2
  }
  m2pelu_param {
    alpha_filler {
      type: "constant"
      value: 0.25
    }
    beta_filler {
      type: "constant"
      value: 1
    }
  }
}
layer {
  name: "Convolution25"
  type: "Convolution"
  bottom: "Eltwise11"
  top: "Convolution25"
  param {
    lr_mult: 1
    decay_mult: 1
  }
  param {
    lr_mult: 2
    decay_mult: 0
  }
  convolution_param {
    num_output: 32
    pad: 1
    kernel_size: 3
    stride: 1
    weight_filler {
      type: "msra"
    }
    bias_filler {
      type: "constant"
      value: 0
    }
  }
}
layer {
  name: "BatchNorm25"
  type: "BatchNorm"
  bottom: "Convolution25"
  top: "Convolution25"
  param {
    lr_mult: 0
    decay_mult: 0
  }
  param {
    lr_mult: 0
    decay_mult: 0
  }
  param {
    lr_mult: 0
    decay_mult: 0
  }
}
layer {
  name: "Scale25"
  type: "Scale"
  bottom: "Convolution25"
  top: "Convolution25"
  scale_param {
    bias_term: true
  }
}
layer {
  name: "M2PELU24"
  type: "M2PELU"
  bottom: "Convolution25"
  top: "Convolution25"
  param {
    lr_mult: 2
    decay_mult: 2
  }
  param {
    lr_mult: 2
    decay_mult: 2
  }
  m2pelu_param {
    alpha_filler {
      type: "constant"
      value: 0.25
    }
    beta_filler {
      type: "constant"
      value: 1
    }
  }
}
layer {
  name: "Convolution26"
  type: "Convolution"
  bottom: "Convolution25"
  top: "Convolution26"
  param {
    lr_mult: 1
    decay_mult: 1
  }
  param {
    lr_mult: 2
    decay_mult: 0
  }
  convolution_param {
    num_output: 32
    pad: 1
    kernel_size: 3
    stride: 1
    weight_filler {
      type: "msra"
    }
    bias_filler {
      type: "constant"
      value: 0
    }
  }
}
layer {
  name: "BatchNorm26"
  type: "BatchNorm"
  bottom: "Convolution26"
  top: "Convolution26"
  param {
    lr_mult: 0
    decay_mult: 0
  }
  param {
    lr_mult: 0
    decay_mult: 0
  }
  param {
    lr_mult: 0
    decay_mult: 0
  }
}
layer {
  name: "Scale26"
  type: "Scale"
  bottom: "Convolutio
I0929 14:31:54.164665  2305 layer_factory.hpp:77] Creating layer Data1
I0929 14:31:54.164742  2305 db_lmdb.cpp:35] Opened lmdb /home/x306/caffe/xn/PENLU/data/cifar10/cifar10_train_lmdb
I0929 14:31:54.164762  2305 net.cpp:84] Creating Layer Data1
I0929 14:31:54.164777  2305 net.cpp:380] Data1 -> Data1
I0929 14:31:54.164794  2305 net.cpp:380] Data1 -> Data2
I0929 14:31:54.164803  2305 data_transformer.cpp:25] Loading mean file from: /home/x306/caffe/xn/PENLU/data/cifar10/mean.binaryproto
I0929 14:31:54.166210  2305 data_layer.cpp:45] output data size: 100,3,28,28
I0929 14:31:54.168493  2305 net.cpp:122] Setting up Data1
I0929 14:31:54.168516  2305 net.cpp:129] Top shape: 100 3 28 28 (235200)
I0929 14:31:54.168521  2305 net.cpp:129] Top shape: 100 (100)
I0929 14:31:54.168524  2305 net.cpp:137] Memory required for data: 941200
I0929 14:31:54.168530  2305 layer_factory.hpp:77] Creating layer Convolution1
I0929 14:31:54.168548  2305 net.cpp:84] Creating Layer Convolution1
I0929 14:31:54.168552  2305 net.cpp:406] Convolution1 <- Data1
I0929 14:31:54.168561  2305 net.cpp:380] Convolution1 -> Convolution1
I0929 14:31:54.315480  2305 net.cpp:122] Setting up Convolution1
I0929 14:31:54.315506  2305 net.cpp:129] Top shape: 100 16 28 28 (1254400)
I0929 14:31:54.315510  2305 net.cpp:137] Memory required for data: 5958800
I0929 14:31:54.315524  2305 layer_factory.hpp:77] Creating layer BatchNorm1
I0929 14:31:54.315549  2305 net.cpp:84] Creating Layer BatchNorm1
I0929 14:31:54.315577  2305 net.cpp:406] BatchNorm1 <- Convolution1
I0929 14:31:54.315592  2305 net.cpp:367] BatchNorm1 -> Convolution1 (in-place)
I0929 14:31:54.315721  2305 net.cpp:122] Setting up BatchNorm1
I0929 14:31:54.315726  2305 net.cpp:129] Top shape: 100 16 28 28 (1254400)
I0929 14:31:54.315728  2305 net.cpp:137] Memory required for data: 10976400
I0929 14:31:54.315737  2305 layer_factory.hpp:77] Creating layer Scale1
I0929 14:31:54.315755  2305 net.cpp:84] Creating Layer Scale1
I0929 14:31:54.315759  2305 net.cpp:406] Scale1 <- Convolution1
I0929 14:31:54.315762  2305 net.cpp:367] Scale1 -> Convolution1 (in-place)
I0929 14:31:54.315824  2305 layer_factory.hpp:77] Creating layer Scale1
I0929 14:31:54.315932  2305 net.cpp:122] Setting up Scale1
I0929 14:31:54.315937  2305 net.cpp:129] Top shape: 100 16 28 28 (1254400)
I0929 14:31:54.315939  2305 net.cpp:137] Memory required for data: 15994000
I0929 14:31:54.315944  2305 layer_factory.hpp:77] Creating layer M2PELU1
I0929 14:31:54.315953  2305 net.cpp:84] Creating Layer M2PELU1
I0929 14:31:54.315955  2305 net.cpp:406] M2PELU1 <- Convolution1
I0929 14:31:54.315968  2305 net.cpp:367] M2PELU1 -> Convolution1 (in-place)
I0929 14:31:54.316570  2305 net.cpp:122] Setting up M2PELU1
I0929 14:31:54.316579  2305 net.cpp:129] Top shape: 100 16 28 28 (1254400)
I0929 14:31:54.316582  2305 net.cpp:137] Memory required for data: 21011600
I0929 14:31:54.316588  2305 layer_factory.hpp:77] Creating layer Convolution1_M2PELU1_0_split
I0929 14:31:54.316593  2305 net.cpp:84] Creating Layer Convolution1_M2PELU1_0_split
I0929 14:31:54.316596  2305 net.cpp:406] Convolution1_M2PELU1_0_split <- Convolution1
I0929 14:31:54.316610  2305 net.cpp:380] Convolution1_M2PELU1_0_split -> Convolution1_M2PELU1_0_split_0
I0929 14:31:54.316617  2305 net.cpp:380] Convolution1_M2PELU1_0_split -> Convolution1_M2PELU1_0_split_1
I0929 14:31:54.316664  2305 net.cpp:122] Setting up Convolution1_M2PELU1_0_split
I0929 14:31:54.316669  2305 net.cpp:129] Top shape: 100 16 28 28 (1254400)
I0929 14:31:54.316681  2305 net.cpp:129] Top shape: 100 16 28 28 (1254400)
I0929 14:31:54.316684  2305 net.cpp:137] Memory required for data: 31046800
I0929 14:31:54.316686  2305 layer_factory.hpp:77] Creating layer Convolution2
I0929 14:31:54.316694  2305 net.cpp:84] Creating Layer Convolution2
I0929 14:31:54.316696  2305 net.cpp:406] Convolution2 <- Convolution1_M2PELU1_0_split_0
I0929 14:31:54.316700  2305 net.cpp:380] Convolution2 -> Convolution2
I0929 14:31:54.317560  2305 net.cpp:122] Setting up Convolution2
I0929 14:31:54.317570  2305 net.cpp:129] Top shape: 100 16 28 28 (1254400)
I0929 14:31:54.317574  2305 net.cpp:137] Memory required for data: 36064400
I0929 14:31:54.317579  2305 layer_factory.hpp:77] Creating layer BatchNorm2
I0929 14:31:54.317582  2305 net.cpp:84] Creating Layer BatchNorm2
I0929 14:31:54.317585  2305 net.cpp:406] BatchNorm2 <- Convolution2
I0929 14:31:54.317600  2305 net.cpp:367] BatchNorm2 -> Convolution2 (in-place)
I0929 14:31:54.317737  2305 net.cpp:122] Setting up BatchNorm2
I0929 14:31:54.317742  2305 net.cpp:129] Top shape: 100 16 28 28 (1254400)
I0929 14:31:54.317745  2305 net.cpp:137] Memory required for data: 41082000
I0929 14:31:54.317750  2305 layer_factory.hpp:77] Creating layer Scale2
I0929 14:31:54.317755  2305 net.cpp:84] Creating Layer Scale2
I0929 14:31:54.317757  2305 net.cpp:406] Scale2 <- Convolution2
I0929 14:31:54.317760  2305 net.cpp:367] Scale2 -> Convolution2 (in-place)
I0929 14:31:54.317802  2305 layer_factory.hpp:77] Creating layer Scale2
I0929 14:31:54.317910  2305 net.cpp:122] Setting up Scale2
I0929 14:31:54.317915  2305 net.cpp:129] Top shape: 100 16 28 28 (1254400)
I0929 14:31:54.317917  2305 net.cpp:137] Memory required for data: 46099600
I0929 14:31:54.317921  2305 layer_factory.hpp:77] Creating layer M2PELU2
I0929 14:31:54.317926  2305 net.cpp:84] Creating Layer M2PELU2
I0929 14:31:54.317929  2305 net.cpp:406] M2PELU2 <- Convolution2
I0929 14:31:54.317932  2305 net.cpp:367] M2PELU2 -> Convolution2 (in-place)
I0929 14:31:54.318023  2305 net.cpp:122] Setting up M2PELU2
I0929 14:31:54.318035  2305 net.cpp:129] Top shape: 100 16 28 28 (1254400)
I0929 14:31:54.318038  2305 net.cpp:137] Memory required for data: 51117200
I0929 14:31:54.318044  2305 layer_factory.hpp:77] Creating layer Convolution3
I0929 14:31:54.318051  2305 net.cpp:84] Creating Layer Convolution3
I0929 14:31:54.318053  2305 net.cpp:406] Convolution3 <- Convolution2
I0929 14:31:54.318068  2305 net.cpp:380] Convolution3 -> Convolution3
I0929 14:31:54.318904  2305 net.cpp:122] Setting up Convolution3
I0929 14:31:54.318914  2305 net.cpp:129] Top shape: 100 16 28 28 (1254400)
I0929 14:31:54.318917  2305 net.cpp:137] Memory required for data: 56134800
I0929 14:31:54.318922  2305 layer_factory.hpp:77] Creating layer BatchNorm3
I0929 14:31:54.318927  2305 net.cpp:84] Creating Layer BatchNorm3
I0929 14:31:54.318929  2305 net.cpp:406] BatchNorm3 <- Convolution3
I0929 14:31:54.318943  2305 net.cpp:367] BatchNorm3 -> Convolution3 (in-place)
I0929 14:31:54.319068  2305 net.cpp:122] Setting up BatchNorm3
I0929 14:31:54.319073  2305 net.cpp:129] Top shape: 100 16 28 28 (1254400)
I0929 14:31:54.319077  2305 net.cpp:137] Memory required for data: 61152400
I0929 14:31:54.319082  2305 layer_factory.hpp:77] Creating layer Scale3
I0929 14:31:54.319085  2305 net.cpp:84] Creating Layer Scale3
I0929 14:31:54.319087  2305 net.cpp:406] Scale3 <- Convolution3
I0929 14:31:54.319090  2305 net.cpp:367] Scale3 -> Convolution3 (in-place)
I0929 14:31:54.319133  2305 layer_factory.hpp:77] Creating layer Scale3
I0929 14:31:54.319222  2305 net.cpp:122] Setting up Scale3
I0929 14:31:54.319227  2305 net.cpp:129] Top shape: 100 16 28 28 (1254400)
I0929 14:31:54.319229  2305 net.cpp:137] Memory required for data: 66170000
I0929 14:31:54.319233  2305 layer_factory.hpp:77] Creating layer Eltwise1
I0929 14:31:54.319238  2305 net.cpp:84] Creating Layer Eltwise1
I0929 14:31:54.319241  2305 net.cpp:406] Eltwise1 <- Convolution1_M2PELU1_0_split_1
I0929 14:31:54.319243  2305 net.cpp:406] Eltwise1 <- Convolution3
I0929 14:31:54.319257  2305 net.cpp:380] Eltwise1 -> Eltwise1
I0929 14:31:54.319283  2305 net.cpp:122] Setting up Eltwise1
I0929 14:31:54.319286  2305 net.cpp:129] Top shape: 100 16 28 28 (1254400)
I0929 14:31:54.319289  2305 net.cpp:137] Memory required for data: 71187600
I0929 14:31:54.319291  2305 layer_factory.hpp:77] Creating layer M2PELU3
I0929 14:31:54.319295  2305 net.cpp:84] Creating Layer M2PELU3
I0929 14:31:54.319298  2305 net.cpp:406] M2PELU3 <- Eltwise1
I0929 14:31:54.319301  2305 net.cpp:367] M2PELU3 -> Eltwise1 (in-place)
I0929 14:31:54.319394  2305 net.cpp:122] Setting up M2PELU3
I0929 14:31:54.319399  2305 net.cpp:129] Top shape: 100 16 28 28 (1254400)
I0929 14:31:54.319402  2305 net.cpp:137] Memory required for data: 76205200
I0929 14:31:54.319406  2305 layer_factory.hpp:77] Creating layer Eltwise1_M2PELU3_0_split
I0929 14:31:54.319411  2305 net.cpp:84] Creating Layer Eltwise1_M2PELU3_0_split
I0929 14:31:54.319412  2305 net.cpp:406] Eltwise1_M2PELU3_0_split <- Eltwise1
I0929 14:31:54.319416  2305 net.cpp:380] Eltwise1_M2PELU3_0_split -> Eltwise1_M2PELU3_0_split_0
I0929 14:31:54.319430  2305 net.cpp:380] Eltwise1_M2PELU3_0_split -> Eltwise1_M2PELU3_0_split_1
I0929 14:31:54.319478  2305 net.cpp:122] Setting up Eltwise1_M2PELU3_0_split
I0929 14:31:54.319483  2305 net.cpp:129] Top shape: 100 16 28 28 (1254400)
I0929 14:31:54.319485  2305 net.cpp:129] Top shape: 100 16 28 28 (1254400)
I0929 14:31:54.319488  2305 net.cpp:137] Memory required for data: 86240400
I0929 14:31:54.319489  2305 layer_factory.hpp:77] Creating layer Convolution4
I0929 14:31:54.319496  2305 net.cpp:84] Creating Layer Convolution4
I0929 14:31:54.319499  2305 net.cpp:406] Convolution4 <- Eltwise1_M2PELU3_0_split_0
I0929 14:31:54.319512  2305 net.cpp:380] Convolution4 -> Convolution4
I0929 14:31:54.320336  2305 net.cpp:122] Setting up Convolution4
I0929 14:31:54.320346  2305 net.cpp:129] Top shape: 100 16 28 28 (1254400)
I0929 14:31:54.320349  2305 net.cpp:137] Memory required for data: 91258000
I0929 14:31:54.320353  2305 layer_factory.hpp:77] Creating layer BatchNorm4
I0929 14:31:54.320380  2305 net.cpp:84] Creating Layer BatchNorm4
I0929 14:31:54.320397  2305 net.cpp:406] BatchNorm4 <- Convolution4
I0929 14:31:54.320400  2305 net.cpp:367] BatchNorm4 -> Convolution4 (in-place)
I0929 14:31:54.320538  2305 net.cpp:122] Setting up BatchNorm4
I0929 14:31:54.320543  2305 net.cpp:129] Top shape: 100 16 28 28 (1254400)
I0929 14:31:54.320545  2305 net.cpp:137] Memory required for data: 96275600
I0929 14:31:54.320550  2305 layer_factory.hpp:77] Creating layer Scale4
I0929 14:31:54.320554  2305 net.cpp:84] Creating Layer Scale4
I0929 14:31:54.320567  2305 net.cpp:406] Scale4 <- Convolution4
I0929 14:31:54.320571  2305 net.cpp:367] Scale4 -> Convolution4 (in-place)
I0929 14:31:54.320605  2305 layer_factory.hpp:77] Creating layer Scale4
I0929 14:31:54.320701  2305 net.cpp:122] Setting up Scale4
I0929 14:31:54.320706  2305 net.cpp:129] Top shape: 100 16 28 28 (1254400)
I0929 14:31:54.320708  2305 net.cpp:137] Memory required for data: 101293200
I0929 14:31:54.320715  2305 layer_factory.hpp:77] Creating layer M2PELU4
I0929 14:31:54.320732  2305 net.cpp:84] Creating Layer M2PELU4
I0929 14:31:54.320735  2305 net.cpp:406] M2PELU4 <- Convolution4
I0929 14:31:54.320739  2305 net.cpp:367] M2PELU4 -> Convolution4 (in-place)
I0929 14:31:54.320824  2305 net.cpp:122] Setting up M2PELU4
I0929 14:31:54.320829  2305 net.cpp:129] Top shape: 100 16 28 28 (1254400)
I0929 14:31:54.320832  2305 net.cpp:137] Memory required for data: 106310800
I0929 14:31:54.320835  2305 layer_factory.hpp:77] Creating layer Convolution5
I0929 14:31:54.320842  2305 net.cpp:84] Creating Layer Convolution5
I0929 14:31:54.320859  2305 net.cpp:406] Convolution5 <- Convolution4
I0929 14:31:54.320863  2305 net.cpp:380] Convolution5 -> Convolution5
I0929 14:31:54.321744  2305 net.cpp:122] Setting up Convolution5
I0929 14:31:54.321754  2305 net.cpp:129] Top shape: 100 16 28 28 (1254400)
I0929 14:31:54.321771  2305 net.cpp:137] Memory required for data: 111328400
I0929 14:31:54.321776  2305 layer_factory.hpp:77] Creating layer BatchNorm5
I0929 14:31:54.321782  2305 net.cpp:84] Creating Layer BatchNorm5
I0929 14:31:54.321797  2305 net.cpp:406] BatchNorm5 <- Convolution5
I0929 14:31:54.321802  2305 net.cpp:367] BatchNorm5 -> Convolution5 (in-place)
I0929 14:31:54.321950  2305 net.cpp:122] Setting up BatchNorm5
I0929 14:31:54.321955  2305 net.cpp:129] Top shape: 100 16 28 28 (1254400)
I0929 14:31:54.321959  2305 net.cpp:137] Memory required for data: 116346000
I0929 14:31:54.321974  2305 layer_factory.hpp:77] Creating layer Scale5
I0929 14:31:54.321977  2305 net.cpp:84] Creating Layer Scale5
I0929 14:31:54.321991  2305 net.cpp:406] Scale5 <- Convolution5
I0929 14:31:54.321995  2305 net.cpp:367] Scale5 -> Convolution5 (in-place)
I0929 14:31:54.322051  2305 layer_factory.hpp:77] Creating layer Scale5
I0929 14:31:54.322152  2305 net.cpp:122] Setting up Scale5
I0929 14:31:54.322157  2305 net.cpp:129] Top shape: 100 16 28 28 (1254400)
I0929 14:31:54.322160  2305 net.cpp:137] Memory required for data: 121363600
I0929 14:31:54.322173  2305 layer_factory.hpp:77] Creating layer Eltwise2
I0929 14:31:54.322180  2305 net.cpp:84] Creating Layer Eltwise2
I0929 14:31:54.322182  2305 net.cpp:406] Eltwise2 <- Eltwise1_M2PELU3_0_split_1
I0929 14:31:54.322185  2305 net.cpp:406] Eltwise2 <- Convolution5
I0929 14:31:54.322188  2305 net.cpp:380] Eltwise2 -> Eltwise2
I0929 14:31:54.322202  2305 net.cpp:122] Setting up Eltwise2
I0929 14:31:54.322207  2305 net.cpp:129] Top shape: 100 16 28 28 (1254400)
I0929 14:31:54.322209  2305 net.cpp:137] Memory required for data: 126381200
I0929 14:31:54.322212  2305 layer_factory.hpp:77] Creating layer M2PELU5
I0929 14:31:54.322217  2305 net.cpp:84] Creating Layer M2PELU5
I0929 14:31:54.322221  2305 net.cpp:406] M2PELU5 <- Eltwise2
I0929 14:31:54.322223  2305 net.cpp:367] M2PELU5 -> Eltwise2 (in-place)
I0929 14:31:54.322301  2305 net.cpp:122] Setting up M2PELU5
I0929 14:31:54.322307  2305 net.cpp:129] Top shape: 100 16 28 28 (1254400)
I0929 14:31:54.322310  2305 net.cpp:137] Memory required for data: 131398800
I0929 14:31:54.322314  2305 layer_factory.hpp:77] Creating layer Eltwise2_M2PELU5_0_split
I0929 14:31:54.322325  2305 net.cpp:84] Creating Layer Eltwise2_M2PELU5_0_split
I0929 14:31:54.322329  2305 net.cpp:406] Eltwise2_M2PELU5_0_split <- Eltwise2
I0929 14:31:54.322332  2305 net.cpp:380] Eltwise2_M2PELU5_0_split -> Eltwise2_M2PELU5_0_split_0
I0929 14:31:54.322337  2305 net.cpp:380] Eltwise2_M2PELU5_0_split -> Eltwise2_M2PELU5_0_split_1
I0929 14:31:54.322360  2305 net.cpp:122] Setting up Eltwise2_M2PELU5_0_split
I0929 14:31:54.322365  2305 net.cpp:129] Top shape: 100 16 28 28 (1254400)
I0929 14:31:54.322368  2305 net.cpp:129] Top shape: 100 16 28 28 (1254400)
I0929 14:31:54.322371  2305 net.cpp:137] Memory required for data: 141434000
I0929 14:31:54.322373  2305 layer_factory.hpp:77] Creating layer Convolution6
I0929 14:31:54.322379  2305 net.cpp:84] Creating Layer Convolution6
I0929 14:31:54.322382  2305 net.cpp:406] Convolution6 <- Eltwise2_M2PELU5_0_split_0
I0929 14:31:54.322386  2305 net.cpp:380] Convolution6 -> Convolution6
I0929 14:31:54.323261  2305 net.cpp:122] Setting up Convolution6
I0929 14:31:54.323271  2305 net.cpp:129] Top shape: 100 16 28 28 (1254400)
I0929 14:31:54.323273  2305 net.cpp:137] Memory required for data: 146451600
I0929 14:31:54.323278  2305 layer_factory.hpp:77] Creating layer BatchNorm6
I0929 14:31:54.323283  2305 net.cpp:84] Creating Layer BatchNorm6
I0929 14:31:54.323287  2305 net.cpp:406] BatchNorm6 <- Convolution6
I0929 14:31:54.323292  2305 net.cpp:367] BatchNorm6 -> Convolution6 (in-place)
I0929 14:31:54.323417  2305 net.cpp:122] Setting up BatchNorm6
I0929 14:31:54.323422  2305 net.cpp:129] Top shape: 100 16 28 28 (1254400)
I0929 14:31:54.323426  2305 net.cpp:137] Memory required for data: 151469200
I0929 14:31:54.323431  2305 layer_factory.hpp:77] Creating layer Scale6
I0929 14:31:54.323434  2305 net.cpp:84] Creating Layer Scale6
I0929 14:31:54.323437  2305 net.cpp:406] Scale6 <- Convolution6
I0929 14:31:54.323441  2305 net.cpp:367] Scale6 -> Convolution6 (in-place)
I0929 14:31:54.323467  2305 layer_factory.hpp:77] Creating layer Scale6
I0929 14:31:54.323541  2305 net.cpp:122] Setting up Scale6
I0929 14:31:54.323547  2305 net.cpp:129] Top shape: 100 16 28 28 (1254400)
I0929 14:31:54.323550  2305 net.cpp:137] Memory required for data: 156486800
I0929 14:31:54.323554  2305 layer_factory.hpp:77] Creating layer M2PELU6
I0929 14:31:54.323560  2305 net.cpp:84] Creating Layer M2PELU6
I0929 14:31:54.323563  2305 net.cpp:406] M2PELU6 <- Convolution6
I0929 14:31:54.323566  2305 net.cpp:367] M2PELU6 -> Convolution6 (in-place)
I0929 14:31:54.323649  2305 net.cpp:122] Setting up M2PELU6
I0929 14:31:54.323654  2305 net.cpp:129] Top shape: 100 16 28 28 (1254400)
I0929 14:31:54.323657  2305 net.cpp:137] Memory required for data: 161504400
I0929 14:31:54.323662  2305 layer_factory.hpp:77] Creating layer Convolution7
I0929 14:31:54.323669  2305 net.cpp:84] Creating Layer Convolution7
I0929 14:31:54.323673  2305 net.cpp:406] Convolution7 <- Convolution6
I0929 14:31:54.323676  2305 net.cpp:380] Convolution7 -> Convolution7
I0929 14:31:54.324223  2305 net.cpp:122] Setting up Convolution7
I0929 14:31:54.324231  2305 net.cpp:129] Top shape: 100 16 28 28 (1254400)
I0929 14:31:54.324234  2305 net.cpp:137] Memory required for data: 166522000
I0929 14:31:54.324239  2305 layer_factory.hpp:77] Creating layer BatchNorm7
I0929 14:31:54.324244  2305 net.cpp:84] Creating Layer BatchNorm7
I0929 14:31:54.324247  2305 net.cpp:406] BatchNorm7 <- Convolution7
I0929 14:31:54.324251  2305 net.cpp:367] BatchNorm7 -> Convolution7 (in-place)
I0929 14:31:54.324376  2305 net.cpp:122] Setting up BatchNorm7
I0929 14:31:54.324381  2305 net.cpp:129] Top shape: 100 16 28 28 (1254400)
I0929 14:31:54.324384  2305 net.cpp:137] Memory required for data: 171539600
I0929 14:31:54.324388  2305 layer_factory.hpp:77] Creating layer Scale7
I0929 14:31:54.324395  2305 net.cpp:84] Creating Layer Scale7
I0929 14:31:54.324398  2305 net.cpp:406] Scale7 <- Convolution7
I0929 14:31:54.324401  2305 net.cpp:367] Scale7 -> Convolution7 (in-place)
I0929 14:31:54.324427  2305 layer_factory.hpp:77] Creating layer Scale7
I0929 14:31:54.324512  2305 net.cpp:122] Setting up Scale7
I0929 14:31:54.324517  2305 net.cpp:129] Top shape: 100 16 28 28 (1254400)
I0929 14:31:54.324520  2305 net.cpp:137] Memory required for data: 176557200
I0929 14:31:54.324524  2305 layer_factory.hpp:77] Creating layer Eltwise3
I0929 14:31:54.324529  2305 net.cpp:84] Creating Layer Eltwise3
I0929 14:31:54.324532  2305 net.cpp:406] Eltwise3 <- Eltwise2_M2PELU5_0_split_1
I0929 14:31:54.324535  2305 net.cpp:406] Eltwise3 <- Convolution7
I0929 14:31:54.324540  2305 net.cpp:380] Eltwise3 -> Eltwise3
I0929 14:31:54.324555  2305 net.cpp:122] Setting up Eltwise3
I0929 14:31:54.324559  2305 net.cpp:129] Top shape: 100 16 28 28 (1254400)
I0929 14:31:54.324563  2305 net.cpp:137] Memory required for data: 181574800
I0929 14:31:54.324564  2305 layer_factory.hpp:77] Creating layer M2PELU7
I0929 14:31:54.324569  2305 net.cpp:84] Creating Layer M2PELU7
I0929 14:31:54.324573  2305 net.cpp:406] M2PELU7 <- Eltwise3
I0929 14:31:54.324576  2305 net.cpp:367] M2PELU7 -> Eltwise3 (in-place)
I0929 14:31:54.324656  2305 net.cpp:122] Setting up M2PELU7
I0929 14:31:54.324661  2305 net.cpp:129] Top shape: 100 16 28 28 (1254400)
I0929 14:31:54.324664  2305 net.cpp:137] Memory required for data: 186592400
I0929 14:31:54.324668  2305 layer_factory.hpp:77] Creating layer Eltwise3_M2PELU7_0_split
I0929 14:31:54.324672  2305 net.cpp:84] Creating Layer Eltwise3_M2PELU7_0_split
I0929 14:31:54.324676  2305 net.cpp:406] Eltwise3_M2PELU7_0_split <- Eltwise3
I0929 14:31:54.324679  2305 net.cpp:380] Eltwise3_M2PELU7_0_split -> Eltwise3_M2PELU7_0_split_0
I0929 14:31:54.324684  2305 net.cpp:380] Eltwise3_M2PELU7_0_split -> Eltwise3_M2PELU7_0_split_1
I0929 14:31:54.324707  2305 net.cpp:122] Setting up Eltwise3_M2PELU7_0_split
I0929 14:31:54.324712  2305 net.cpp:129] Top shape: 100 16 28 28 (1254400)
I0929 14:31:54.324714  2305 net.cpp:129] Top shape: 100 16 28 28 (1254400)
I0929 14:31:54.324726  2305 net.cpp:137] Memory required for data: 196627600
I0929 14:31:54.324728  2305 layer_factory.hpp:77] Creating layer Convolution8
I0929 14:31:54.324735  2305 net.cpp:84] Creating Layer Convolution8
I0929 14:31:54.324738  2305 net.cpp:406] Convolution8 <- Eltwise3_M2PELU7_0_split_0
I0929 14:31:54.324743  2305 net.cpp:380] Convolution8 -> Convolution8
I0929 14:31:54.325613  2305 net.cpp:122] Setting up Convolution8
I0929 14:31:54.325623  2305 net.cpp:129] Top shape: 100 16 28 28 (1254400)
I0929 14:31:54.325625  2305 net.cpp:137] Memory required for data: 201645200
I0929 14:31:54.325636  2305 layer_factory.hpp:77] Creating layer BatchNorm8
I0929 14:31:54.325641  2305 net.cpp:84] Creating Layer BatchNorm8
I0929 14:31:54.325644  2305 net.cpp:406] BatchNorm8 <- Convolution8
I0929 14:31:54.325650  2305 net.cpp:367] BatchNorm8 -> Convolution8 (in-place)
I0929 14:31:54.325775  2305 net.cpp:122] Setting up BatchNorm8
I0929 14:31:54.325781  2305 net.cpp:129] Top shape: 100 16 28 28 (1254400)
I0929 14:31:54.325783  2305 net.cpp:137] Memory required for data: 206662800
I0929 14:31:54.325789  2305 layer_factory.hpp:77] Creating layer Scale8
I0929 14:31:54.325793  2305 net.cpp:84] Creating Layer Scale8
I0929 14:31:54.325796  2305 net.cpp:406] Scale8 <- Convolution8
I0929 14:31:54.325799  2305 net.cpp:367] Scale8 -> Convolution8 (in-place)
I0929 14:31:54.325826  2305 layer_factory.hpp:77] Creating layer Scale8
I0929 14:31:54.325901  2305 net.cpp:122] Setting up Scale8
I0929 14:31:54.325906  2305 net.cpp:129] Top shape: 100 16 28 28 (1254400)
I0929 14:31:54.325909  2305 net.cpp:137] Memory required for data: 211680400
I0929 14:31:54.325913  2305 layer_factory.hpp:77] Creating layer M2PELU8
I0929 14:31:54.325919  2305 net.cpp:84] Creating Layer M2PELU8
I0929 14:31:54.325922  2305 net.cpp:406] M2PELU8 <- Convolution8
I0929 14:31:54.325925  2305 net.cpp:367] M2PELU8 -> Convolution8 (in-place)
I0929 14:31:54.326006  2305 net.cpp:122] Setting up M2PELU8
I0929 14:31:54.326011  2305 net.cpp:129] Top shape: 100 16 28 28 (1254400)
I0929 14:31:54.326014  2305 net.cpp:137] Memory required for data: 216698000
I0929 14:31:54.326025  2305 layer_factory.hpp:77] Creating layer Convolution9
I0929 14:31:54.326033  2305 net.cpp:84] Creating Layer Convolution9
I0929 14:31:54.326047  2305 net.cpp:406] Convolution9 <- Convolution8
I0929 14:31:54.326051  2305 net.cpp:380] Convolution9 -> Convolution9
I0929 14:31:54.326969  2305 net.cpp:122] Setting up Convolution9
I0929 14:31:54.326982  2305 net.cpp:129] Top shape: 100 16 28 28 (1254400)
I0929 14:31:54.326984  2305 net.cpp:137] Memory required for data: 221715600
I0929 14:31:54.326989  2305 layer_factory.hpp:77] Creating layer BatchNorm9
I0929 14:31:54.326995  2305 net.cpp:84] Creating Layer BatchNorm9
I0929 14:31:54.326999  2305 net.cpp:406] BatchNorm9 <- Convolution9
I0929 14:31:54.327004  2305 net.cpp:367] BatchNorm9 -> Convolution9 (in-place)
I0929 14:31:54.327136  2305 net.cpp:122] Setting up BatchNorm9
I0929 14:31:54.327142  2305 net.cpp:129] Top shape: 100 16 28 28 (1254400)
I0929 14:31:54.327144  2305 net.cpp:137] Memory required for data: 226733200
I0929 14:31:54.327149  2305 layer_factory.hpp:77] Creating layer Scale9
I0929 14:31:54.327153  2305 net.cpp:84] Creating Layer Scale9
I0929 14:31:54.327157  2305 net.cpp:406] Scale9 <- Convolution9
I0929 14:31:54.327159  2305 net.cpp:367] Scale9 -> Convolution9 (in-place)
I0929 14:31:54.327185  2305 layer_factory.hpp:77] Creating layer Scale9
I0929 14:31:54.327273  2305 net.cpp:122] Setting up Scale9
I0929 14:31:54.327282  2305 net.cpp:129] Top shape: 100 16 28 28 (1254400)
I0929 14:31:54.327287  2305 net.cpp:137] Memory required for data: 231750800
I0929 14:31:54.327294  2305 layer_factory.hpp:77] Creating layer Eltwise4
I0929 14:31:54.327306  2305 net.cpp:84] Creating Layer Eltwise4
I0929 14:31:54.327311  2305 net.cpp:406] Eltwise4 <- Eltwise3_M2PELU7_0_split_1
I0929 14:31:54.327316  2305 net.cpp:406] Eltwise4 <- Convolution9
I0929 14:31:54.327322  2305 net.cpp:380] Eltwise4 -> Eltwise4
I0929 14:31:54.327358  2305 net.cpp:122] Setting up Eltwise4
I0929 14:31:54.327378  2305 net.cpp:129] Top shape: 100 16 28 28 (1254400)
I0929 14:31:54.327383  2305 net.cpp:137] Memory required for data: 236768400
I0929 14:31:54.327388  2305 layer_factory.hpp:77] Creating layer M2PELU9
I0929 14:31:54.327394  2305 net.cpp:84] Creating Layer M2PELU9
I0929 14:31:54.327397  2305 net.cpp:406] M2PELU9 <- Eltwise4
I0929 14:31:54.327401  2305 net.cpp:367] M2PELU9 -> Eltwise4 (in-place)
I0929 14:31:54.327508  2305 net.cpp:122] Setting up M2PELU9
I0929 14:31:54.327515  2305 net.cpp:129] Top shape: 100 16 28 28 (1254400)
I0929 14:31:54.327518  2305 net.cpp:137] Memory required for data: 241786000
I0929 14:31:54.327522  2305 layer_factory.hpp:77] Creating layer Eltwise4_M2PELU9_0_split
I0929 14:31:54.327527  2305 net.cpp:84] Creating Layer Eltwise4_M2PELU9_0_split
I0929 14:31:54.327530  2305 net.cpp:406] Eltwise4_M2PELU9_0_split <- Eltwise4
I0929 14:31:54.327533  2305 net.cpp:380] Eltwise4_M2PELU9_0_split -> Eltwise4_M2PELU9_0_split_0
I0929 14:31:54.327539  2305 net.cpp:380] Eltwise4_M2PELU9_0_split -> Eltwise4_M2PELU9_0_split_1
I0929 14:31:54.327564  2305 net.cpp:122] Setting up Eltwise4_M2PELU9_0_split
I0929 14:31:54.327567  2305 net.cpp:129] Top shape: 100 16 28 28 (1254400)
I0929 14:31:54.327571  2305 net.cpp:129] Top shape: 100 16 28 28 (1254400)
I0929 14:31:54.327574  2305 net.cpp:137] Memory required for data: 251821200
I0929 14:31:54.327576  2305 layer_factory.hpp:77] Creating layer Convolution10
I0929 14:31:54.327581  2305 net.cpp:84] Creating Layer Convolution10
I0929 14:31:54.327584  2305 net.cpp:406] Convolution10 <- Eltwise4_M2PELU9_0_split_0
I0929 14:31:54.327589  2305 net.cpp:380] Convolution10 -> Convolution10
I0929 14:31:54.328488  2305 net.cpp:122] Setting up Convolution10
I0929 14:31:54.328498  2305 net.cpp:129] Top shape: 100 16 28 28 (1254400)
I0929 14:31:54.328502  2305 net.cpp:137] Memory required for data: 256838800
I0929 14:31:54.328517  2305 layer_factory.hpp:77] Creating layer BatchNorm10
I0929 14:31:54.328523  2305 net.cpp:84] Creating Layer BatchNorm10
I0929 14:31:54.328526  2305 net.cpp:406] BatchNorm10 <- Convolution10
I0929 14:31:54.328539  2305 net.cpp:367] BatchNorm10 -> Convolution10 (in-place)
I0929 14:31:54.328680  2305 net.cpp:122] Setting up BatchNorm10
I0929 14:31:54.328685  2305 net.cpp:129] Top shape: 100 16 28 28 (1254400)
I0929 14:31:54.328687  2305 net.cpp:137] Memory required for data: 261856400
I0929 14:31:54.328692  2305 layer_factory.hpp:77] Creating layer Scale10
I0929 14:31:54.328697  2305 net.cpp:84] Creating Layer Scale10
I0929 14:31:54.328701  2305 net.cpp:406] Scale10 <- Convolution10
I0929 14:31:54.328704  2305 net.cpp:367] Scale10 -> Convolution10 (in-place)
I0929 14:31:54.328730  2305 layer_factory.hpp:77] Creating layer Scale10
I0929 14:31:54.328807  2305 net.cpp:122] Setting up Scale10
I0929 14:31:54.328812  2305 net.cpp:129] Top shape: 100 16 28 28 (1254400)
I0929 14:31:54.328815  2305 net.cpp:137] Memory required for data: 266874000
I0929 14:31:54.328819  2305 layer_factory.hpp:77] Creating layer M2PELU10
I0929 14:31:54.328824  2305 net.cpp:84] Creating Layer M2PELU10
I0929 14:31:54.328827  2305 net.cpp:406] M2PELU10 <- Convolution10
I0929 14:31:54.328831  2305 net.cpp:367] M2PELU10 -> Convolution10 (in-place)
I0929 14:31:54.328918  2305 net.cpp:122] Setting up M2PELU10
I0929 14:31:54.328923  2305 net.cpp:129] Top shape: 100 16 28 28 (1254400)
I0929 14:31:54.328925  2305 net.cpp:137] Memory required for data: 271891600
I0929 14:31:54.328929  2305 layer_factory.hpp:77] Creating layer Convolution11
I0929 14:31:54.328936  2305 net.cpp:84] Creating Layer Convolution11
I0929 14:31:54.328939  2305 net.cpp:406] Convolution11 <- Convolution10
I0929 14:31:54.328943  2305 net.cpp:380] Convolution11 -> Convolution11
I0929 14:31:54.329851  2305 net.cpp:122] Setting up Convolution11
I0929 14:31:54.329861  2305 net.cpp:129] Top shape: 100 16 28 28 (1254400)
I0929 14:31:54.329864  2305 net.cpp:137] Memory required for data: 276909200
I0929 14:31:54.329869  2305 layer_factory.hpp:77] Creating layer BatchNorm11
I0929 14:31:54.329875  2305 net.cpp:84] Creating Layer BatchNorm11
I0929 14:31:54.329879  2305 net.cpp:406] BatchNorm11 <- Convolution11
I0929 14:31:54.329883  2305 net.cpp:367] BatchNorm11 -> Convolution11 (in-place)
I0929 14:31:54.330011  2305 net.cpp:122] Setting up BatchNorm11
I0929 14:31:54.330016  2305 net.cpp:129] Top shape: 100 16 28 28 (1254400)
I0929 14:31:54.330019  2305 net.cpp:137] Memory required for data: 281926800
I0929 14:31:54.330024  2305 layer_factory.hpp:77] Creating layer Scale11
I0929 14:31:54.330029  2305 net.cpp:84] Creating Layer Scale11
I0929 14:31:54.330032  2305 net.cpp:406] Scale11 <- Convolution11
I0929 14:31:54.330035  2305 net.cpp:367] Scale11 -> Convolution11 (in-place)
I0929 14:31:54.330062  2305 layer_factory.hpp:77] Creating layer Scale11
I0929 14:31:54.330140  2305 net.cpp:122] Setting up Scale11
I0929 14:31:54.330145  2305 net.cpp:129] Top shape: 100 16 28 28 (1254400)
I0929 14:31:54.330148  2305 net.cpp:137] Memory required for data: 286944400
I0929 14:31:54.330152  2305 layer_factory.hpp:77] Creating layer Eltwise5
I0929 14:31:54.330157  2305 net.cpp:84] Creating Layer Eltwise5
I0929 14:31:54.330160  2305 net.cpp:406] Eltwise5 <- Eltwise4_M2PELU9_0_split_1
I0929 14:31:54.330163  2305 net.cpp:406] Eltwise5 <- Convolution11
I0929 14:31:54.330169  2305 net.cpp:380] Eltwise5 -> Eltwise5
I0929 14:31:54.330184  2305 net.cpp:122] Setting up Eltwise5
I0929 14:31:54.330188  2305 net.cpp:129] Top shape: 100 16 28 28 (1254400)
I0929 14:31:54.330191  2305 net.cpp:137] Memory required for data: 291962000
I0929 14:31:54.330193  2305 layer_factory.hpp:77] Creating layer M2PELU11
I0929 14:31:54.330199  2305 net.cpp:84] Creating Layer M2PELU11
I0929 14:31:54.330201  2305 net.cpp:406] M2PELU11 <- Eltwise5
I0929 14:31:54.330205  2305 net.cpp:367] M2PELU11 -> Eltwise5 (in-place)
I0929 14:31:54.330291  2305 net.cpp:122] Setting up M2PELU11
I0929 14:31:54.330296  2305 net.cpp:129] Top shape: 100 16 28 28 (1254400)
I0929 14:31:54.330298  2305 net.cpp:137] Memory required for data: 296979600
I0929 14:31:54.330302  2305 layer_factory.hpp:77] Creating layer Eltwise5_M2PELU11_0_split
I0929 14:31:54.330307  2305 net.cpp:84] Creating Layer Eltwise5_M2PELU11_0_split
I0929 14:31:54.330317  2305 net.cpp:406] Eltwise5_M2PELU11_0_split <- Eltwise5
I0929 14:31:54.330322  2305 net.cpp:380] Eltwise5_M2PELU11_0_split -> Eltwise5_M2PELU11_0_split_0
I0929 14:31:54.330327  2305 net.cpp:380] Eltwise5_M2PELU11_0_split -> Eltwise5_M2PELU11_0_split_1
I0929 14:31:54.330350  2305 net.cpp:122] Setting up Eltwise5_M2PELU11_0_split
I0929 14:31:54.330355  2305 net.cpp:129] Top shape: 100 16 28 28 (1254400)
I0929 14:31:54.330358  2305 net.cpp:129] Top shape: 100 16 28 28 (1254400)
I0929 14:31:54.330361  2305 net.cpp:137] Memory required for data: 307014800
I0929 14:31:54.330363  2305 layer_factory.hpp:77] Creating layer Convolution12
I0929 14:31:54.330370  2305 net.cpp:84] Creating Layer Convolution12
I0929 14:31:54.330374  2305 net.cpp:406] Convolution12 <- Eltwise5_M2PELU11_0_split_0
I0929 14:31:54.330377  2305 net.cpp:380] Convolution12 -> Convolution12
I0929 14:31:54.331292  2305 net.cpp:122] Setting up Convolution12
I0929 14:31:54.331302  2305 net.cpp:129] Top shape: 100 16 28 28 (1254400)
I0929 14:31:54.331305  2305 net.cpp:137] Memory required for data: 312032400
I0929 14:31:54.331310  2305 layer_factory.hpp:77] Creating layer BatchNorm12
I0929 14:31:54.331316  2305 net.cpp:84] Creating Layer BatchNorm12
I0929 14:31:54.331320  2305 net.cpp:406] BatchNorm12 <- Convolution12
I0929 14:31:54.331324  2305 net.cpp:367] BatchNorm12 -> Convolution12 (in-place)
I0929 14:31:54.331456  2305 net.cpp:122] Setting up BatchNorm12
I0929 14:31:54.331461  2305 net.cpp:129] Top shape: 100 16 28 28 (1254400)
I0929 14:31:54.331463  2305 net.cpp:137] Memory required for data: 317050000
I0929 14:31:54.331470  2305 layer_factory.hpp:77] Creating layer Scale12
I0929 14:31:54.331475  2305 net.cpp:84] Creating Layer Scale12
I0929 14:31:54.331477  2305 net.cpp:406] Scale12 <- Convolution12
I0929 14:31:54.331480  2305 net.cpp:367] Scale12 -> Convolution12 (in-place)
I0929 14:31:54.331506  2305 layer_factory.hpp:77] Creating layer Scale12
I0929 14:31:54.331586  2305 net.cpp:122] Setting up Scale12
I0929 14:31:54.331593  2305 net.cpp:129] Top shape: 100 16 28 28 (1254400)
I0929 14:31:54.331595  2305 net.cpp:137] Memory required for data: 322067600
I0929 14:31:54.331599  2305 layer_factory.hpp:77] Creating layer M2PELU12
I0929 14:31:54.331604  2305 net.cpp:84] Creating Layer M2PELU12
I0929 14:31:54.331607  2305 net.cpp:406] M2PELU12 <- Convolution12
I0929 14:31:54.331611  2305 net.cpp:367] M2PELU12 -> Convolution12 (in-place)
I0929 14:31:54.331698  2305 net.cpp:122] Setting up M2PELU12
I0929 14:31:54.331703  2305 net.cpp:129] Top shape: 100 16 28 28 (1254400)
I0929 14:31:54.331707  2305 net.cpp:137] Memory required for data: 327085200
I0929 14:31:54.331710  2305 layer_factory.hpp:77] Creating layer Convolution13
I0929 14:31:54.331717  2305 net.cpp:84] Creating Layer Convolution13
I0929 14:31:54.331722  2305 net.cpp:406] Convolution13 <- Convolution12
I0929 14:31:54.331725  2305 net.cpp:380] Convolution13 -> Convolution13
I0929 14:31:54.332617  2305 net.cpp:122] Setting up Convolution13
I0929 14:31:54.332626  2305 net.cpp:129] Top shape: 100 16 28 28 (1254400)
I0929 14:31:54.332629  2305 net.cpp:137] Memory required for data: 332102800
I0929 14:31:54.332634  2305 layer_factory.hpp:77] Creating layer BatchNorm13
I0929 14:31:54.332639  2305 net.cpp:84] Creating Layer BatchNorm13
I0929 14:31:54.332643  2305 net.cpp:406] BatchNorm13 <- Convolution13
I0929 14:31:54.332648  2305 net.cpp:367] BatchNorm13 -> Convolution13 (in-place)
I0929 14:31:54.332779  2305 net.cpp:122] Setting up BatchNorm13
I0929 14:31:54.332784  2305 net.cpp:129] Top shape: 100 16 28 28 (1254400)
I0929 14:31:54.332787  2305 net.cpp:137] Memory required for data: 337120400
I0929 14:31:54.332792  2305 layer_factory.hpp:77] Creating layer Scale13
I0929 14:31:54.332798  2305 net.cpp:84] Creating Layer Scale13
I0929 14:31:54.332801  2305 net.cpp:406] Scale13 <- Convolution13
I0929 14:31:54.332804  2305 net.cpp:367] Scale13 -> Convolution13 (in-place)
I0929 14:31:54.332830  2305 layer_factory.hpp:77] Creating layer Scale13
I0929 14:31:54.332918  2305 net.cpp:122] Setting up Scale13
I0929 14:31:54.332924  2305 net.cpp:129] Top shape: 100 16 28 28 (1254400)
I0929 14:31:54.332927  2305 net.cpp:137] Memory required for data: 342138000
I0929 14:31:54.332931  2305 layer_factory.hpp:77] Creating layer Eltwise6
I0929 14:31:54.332937  2305 net.cpp:84] Creating Layer Eltwise6
I0929 14:31:54.332939  2305 net.cpp:406] Eltwise6 <- Eltwise5_M2PELU11_0_split_1
I0929 14:31:54.332942  2305 net.cpp:406] Eltwise6 <- Convolution13
I0929 14:31:54.332947  2305 net.cpp:380] Eltwise6 -> Eltwise6
I0929 14:31:54.332964  2305 net.cpp:122] Setting up Eltwise6
I0929 14:31:54.332970  2305 net.cpp:129] Top shape: 100 16 28 28 (1254400)
I0929 14:31:54.332973  2305 net.cpp:137] Memory required for data: 347155600
I0929 14:31:54.332975  2305 layer_factory.hpp:77] Creating layer M2PELU13
I0929 14:31:54.332983  2305 net.cpp:84] Creating Layer M2PELU13
I0929 14:31:54.332986  2305 net.cpp:406] M2PELU13 <- Eltwise6
I0929 14:31:54.332990  2305 net.cpp:367] M2PELU13 -> Eltwise6 (in-place)
I0929 14:31:54.333077  2305 net.cpp:122] Setting up M2PELU13
I0929 14:31:54.333082  2305 net.cpp:129] Top shape: 100 16 28 28 (1254400)
I0929 14:31:54.333086  2305 net.cpp:137] Memory required for data: 352173200
I0929 14:31:54.333089  2305 layer_factory.hpp:77] Creating layer Eltwise6_M2PELU13_0_split
I0929 14:31:54.333093  2305 net.cpp:84] Creating Layer Eltwise6_M2PELU13_0_split
I0929 14:31:54.333096  2305 net.cpp:406] Eltwise6_M2PELU13_0_split <- Eltwise6
I0929 14:31:54.333101  2305 net.cpp:380] Eltwise6_M2PELU13_0_split -> Eltwise6_M2PELU13_0_split_0
I0929 14:31:54.333106  2305 net.cpp:380] Eltwise6_M2PELU13_0_split -> Eltwise6_M2PELU13_0_split_1
I0929 14:31:54.333127  2305 net.cpp:122] Setting up Eltwise6_M2PELU13_0_split
I0929 14:31:54.333132  2305 net.cpp:129] Top shape: 100 16 28 28 (1254400)
I0929 14:31:54.333135  2305 net.cpp:129] Top shape: 100 16 28 28 (1254400)
I0929 14:31:54.333137  2305 net.cpp:137] Memory required for data: 362208400
I0929 14:31:54.333139  2305 layer_factory.hpp:77] Creating layer Convolution14
I0929 14:31:54.333147  2305 net.cpp:84] Creating Layer Convolution14
I0929 14:31:54.333149  2305 net.cpp:406] Convolution14 <- Eltwise6_M2PELU13_0_split_0
I0929 14:31:54.333153  2305 net.cpp:380] Convolution14 -> Convolution14
I0929 14:31:54.334040  2305 net.cpp:122] Setting up Convolution14
I0929 14:31:54.334049  2305 net.cpp:129] Top shape: 100 16 28 28 (1254400)
I0929 14:31:54.334053  2305 net.cpp:137] Memory required for data: 367226000
I0929 14:31:54.334056  2305 layer_factory.hpp:77] Creating layer BatchNorm14
I0929 14:31:54.334062  2305 net.cpp:84] Creating Layer BatchNorm14
I0929 14:31:54.334065  2305 net.cpp:406] BatchNorm14 <- Convolution14
I0929 14:31:54.334070  2305 net.cpp:367] BatchNorm14 -> Convolution14 (in-place)
I0929 14:31:54.334204  2305 net.cpp:122] Setting up BatchNorm14
I0929 14:31:54.334208  2305 net.cpp:129] Top shape: 100 16 28 28 (1254400)
I0929 14:31:54.334210  2305 net.cpp:137] Memory required for data: 372243600
I0929 14:31:54.334215  2305 layer_factory.hpp:77] Creating layer Scale14
I0929 14:31:54.334220  2305 net.cpp:84] Creating Layer Scale14
I0929 14:31:54.334223  2305 net.cpp:406] Scale14 <- Convolution14
I0929 14:31:54.334226  2305 net.cpp:367] Scale14 -> Convolution14 (in-place)
I0929 14:31:54.334251  2305 layer_factory.hpp:77] Creating layer Scale14
I0929 14:31:54.334331  2305 net.cpp:122] Setting up Scale14
I0929 14:31:54.334336  2305 net.cpp:129] Top shape: 100 16 28 28 (1254400)
I0929 14:31:54.334337  2305 net.cpp:137] Memory required for data: 377261200
I0929 14:31:54.334342  2305 layer_factory.hpp:77] Creating layer M2PELU14
I0929 14:31:54.334347  2305 net.cpp:84] Creating Layer M2PELU14
I0929 14:31:54.334349  2305 net.cpp:406] M2PELU14 <- Convolution14
I0929 14:31:54.334352  2305 net.cpp:367] M2PELU14 -> Convolution14 (in-place)
I0929 14:31:54.334435  2305 net.cpp:122] Setting up M2PELU14
I0929 14:31:54.334441  2305 net.cpp:129] Top shape: 100 16 28 28 (1254400)
I0929 14:31:54.334444  2305 net.cpp:137] Memory required for data: 382278800
I0929 14:31:54.334453  2305 layer_factory.hpp:77] Creating layer Convolution15
I0929 14:31:54.334460  2305 net.cpp:84] Creating Layer Convolution15
I0929 14:31:54.334462  2305 net.cpp:406] Convolution15 <- Convolution14
I0929 14:31:54.334467  2305 net.cpp:380] Convolution15 -> Convolution15
I0929 14:31:54.335381  2305 net.cpp:122] Setting up Convolution15
I0929 14:31:54.335389  2305 net.cpp:129] Top shape: 100 16 28 28 (1254400)
I0929 14:31:54.335392  2305 net.cpp:137] Memory required for data: 387296400
I0929 14:31:54.335397  2305 layer_factory.hpp:77] Creating layer BatchNorm15
I0929 14:31:54.335402  2305 net.cpp:84] Creating Layer BatchNorm15
I0929 14:31:54.335403  2305 net.cpp:406] BatchNorm15 <- Convolution15
I0929 14:31:54.335408  2305 net.cpp:367] BatchNorm15 -> Convolution15 (in-place)
I0929 14:31:54.335541  2305 net.cpp:122] Setting up BatchNorm15
I0929 14:31:54.335544  2305 net.cpp:129] Top shape: 100 16 28 28 (1254400)
I0929 14:31:54.335546  2305 net.cpp:137] Memory required for data: 392314000
I0929 14:31:54.335562  2305 layer_factory.hpp:77] Creating layer Scale15
I0929 14:31:54.335567  2305 net.cpp:84] Creating Layer Scale15
I0929 14:31:54.335569  2305 net.cpp:406] Scale15 <- Convolution15
I0929 14:31:54.335573  2305 net.cpp:367] Scale15 -> Convolution15 (in-place)
I0929 14:31:54.335600  2305 layer_factory.hpp:77] Creating layer Scale15
I0929 14:31:54.335680  2305 net.cpp:122] Setting up Scale15
I0929 14:31:54.335683  2305 net.cpp:129] Top shape: 100 16 28 28 (1254400)
I0929 14:31:54.335686  2305 net.cpp:137] Memory required for data: 397331600
I0929 14:31:54.335690  2305 layer_factory.hpp:77] Creating layer Eltwise7
I0929 14:31:54.335695  2305 net.cpp:84] Creating Layer Eltwise7
I0929 14:31:54.335696  2305 net.cpp:406] Eltwise7 <- Eltwise6_M2PELU13_0_split_1
I0929 14:31:54.335700  2305 net.cpp:406] Eltwise7 <- Convolution15
I0929 14:31:54.335703  2305 net.cpp:380] Eltwise7 -> Eltwise7
I0929 14:31:54.335719  2305 net.cpp:122] Setting up Eltwise7
I0929 14:31:54.335723  2305 net.cpp:129] Top shape: 100 16 28 28 (1254400)
I0929 14:31:54.335726  2305 net.cpp:137] Memory required for data: 402349200
I0929 14:31:54.335727  2305 layer_factory.hpp:77] Creating layer M2PELU15
I0929 14:31:54.335733  2305 net.cpp:84] Creating Layer M2PELU15
I0929 14:31:54.335736  2305 net.cpp:406] M2PELU15 <- Eltwise7
I0929 14:31:54.335738  2305 net.cpp:367] M2PELU15 -> Eltwise7 (in-place)
I0929 14:31:54.335824  2305 net.cpp:122] Setting up M2PELU15
I0929 14:31:54.335829  2305 net.cpp:129] Top shape: 100 16 28 28 (1254400)
I0929 14:31:54.335831  2305 net.cpp:137] Memory required for data: 407366800
I0929 14:31:54.335834  2305 layer_factory.hpp:77] Creating layer Eltwise7_M2PELU15_0_split
I0929 14:31:54.335839  2305 net.cpp:84] Creating Layer Eltwise7_M2PELU15_0_split
I0929 14:31:54.335840  2305 net.cpp:406] Eltwise7_M2PELU15_0_split <- Eltwise7
I0929 14:31:54.335844  2305 net.cpp:380] Eltwise7_M2PELU15_0_split -> Eltwise7_M2PELU15_0_split_0
I0929 14:31:54.335847  2305 net.cpp:380] Eltwise7_M2PELU15_0_split -> Eltwise7_M2PELU15_0_split_1
I0929 14:31:54.335870  2305 net.cpp:122] Setting up Eltwise7_M2PELU15_0_split
I0929 14:31:54.335875  2305 net.cpp:129] Top shape: 100 16 28 28 (1254400)
I0929 14:31:54.335876  2305 net.cpp:129] Top shape: 100 16 28 28 (1254400)
I0929 14:31:54.335880  2305 net.cpp:137] Memory required for data: 417402000
I0929 14:31:54.335881  2305 layer_factory.hpp:77] Creating layer Convolution16
I0929 14:31:54.335887  2305 net.cpp:84] Creating Layer Convolution16
I0929 14:31:54.335889  2305 net.cpp:406] Convolution16 <- Eltwise7_M2PELU15_0_split_0
I0929 14:31:54.335893  2305 net.cpp:380] Convolution16 -> Convolution16
I0929 14:31:54.336773  2305 net.cpp:122] Setting up Convolution16
I0929 14:31:54.336781  2305 net.cpp:129] Top shape: 100 16 28 28 (1254400)
I0929 14:31:54.336784  2305 net.cpp:137] Memory required for data: 422419600
I0929 14:31:54.336788  2305 layer_factory.hpp:77] Creating layer BatchNorm16
I0929 14:31:54.336794  2305 net.cpp:84] Creating Layer BatchNorm16
I0929 14:31:54.336796  2305 net.cpp:406] BatchNorm16 <- Convolution16
I0929 14:31:54.336808  2305 net.cpp:367] BatchNorm16 -> Convolution16 (in-place)
I0929 14:31:54.336941  2305 net.cpp:122] Setting up BatchNorm16
I0929 14:31:54.336946  2305 net.cpp:129] Top shape: 100 16 28 28 (1254400)
I0929 14:31:54.336947  2305 net.cpp:137] Memory required for data: 427437200
I0929 14:31:54.336952  2305 layer_factory.hpp:77] Creating layer Scale16
I0929 14:31:54.336957  2305 net.cpp:84] Creating Layer Scale16
I0929 14:31:54.336959  2305 net.cpp:406] Scale16 <- Convolution16
I0929 14:31:54.336962  2305 net.cpp:367] Scale16 -> Convolution16 (in-place)
I0929 14:31:54.336988  2305 layer_factory.hpp:77] Creating layer Scale16
I0929 14:31:54.337066  2305 net.cpp:122] Setting up Scale16
I0929 14:31:54.337070  2305 net.cpp:129] Top shape: 100 16 28 28 (1254400)
I0929 14:31:54.337074  2305 net.cpp:137] Memory required for data: 432454800
I0929 14:31:54.337076  2305 layer_factory.hpp:77] Creating layer M2PELU16
I0929 14:31:54.337082  2305 net.cpp:84] Creating Layer M2PELU16
I0929 14:31:54.337085  2305 net.cpp:406] M2PELU16 <- Convolution16
I0929 14:31:54.337088  2305 net.cpp:367] M2PELU16 -> Convolution16 (in-place)
I0929 14:31:54.337174  2305 net.cpp:122] Setting up M2PELU16
I0929 14:31:54.337178  2305 net.cpp:129] Top shape: 100 16 28 28 (1254400)
I0929 14:31:54.337180  2305 net.cpp:137] Memory required for data: 437472400
I0929 14:31:54.337184  2305 layer_factory.hpp:77] Creating layer Convolution17
I0929 14:31:54.337191  2305 net.cpp:84] Creating Layer Convolution17
I0929 14:31:54.337194  2305 net.cpp:406] Convolution17 <- Convolution16
I0929 14:31:54.337198  2305 net.cpp:380] Convolution17 -> Convolution17
I0929 14:31:54.337759  2305 net.cpp:122] Setting up Convolution17
I0929 14:31:54.337766  2305 net.cpp:129] Top shape: 100 16 28 28 (1254400)
I0929 14:31:54.337769  2305 net.cpp:137] Memory required for data: 442490000
I0929 14:31:54.337774  2305 layer_factory.hpp:77] Creating layer BatchNorm17
I0929 14:31:54.337779  2305 net.cpp:84] Creating Layer BatchNorm17
I0929 14:31:54.337780  2305 net.cpp:406] BatchNorm17 <- Convolution17
I0929 14:31:54.337785  2305 net.cpp:367] BatchNorm17 -> Convolution17 (in-place)
I0929 14:31:54.337915  2305 net.cpp:122] Setting up BatchNorm17
I0929 14:31:54.337920  2305 net.cpp:129] Top shape: 100 16 28 28 (1254400)
I0929 14:31:54.337923  2305 net.cpp:137] Memory required for data: 447507600
I0929 14:31:54.337926  2305 layer_factory.hpp:77] Creating layer Scale17
I0929 14:31:54.337932  2305 net.cpp:84] Creating Layer Scale17
I0929 14:31:54.337934  2305 net.cpp:406] Scale17 <- Convolution17
I0929 14:31:54.337937  2305 net.cpp:367] Scale17 -> Convolution17 (in-place)
I0929 14:31:54.337963  2305 layer_factory.hpp:77] Creating layer Scale17
I0929 14:31:54.338039  2305 net.cpp:122] Setting up Scale17
I0929 14:31:54.338043  2305 net.cpp:129] Top shape: 100 16 28 28 (1254400)
I0929 14:31:54.338047  2305 net.cpp:137] Memory required for data: 452525200
I0929 14:31:54.338049  2305 layer_factory.hpp:77] Creating layer Eltwise8
I0929 14:31:54.338054  2305 net.cpp:84] Creating Layer Eltwise8
I0929 14:31:54.338057  2305 net.cpp:406] Eltwise8 <- Eltwise7_M2PELU15_0_split_1
I0929 14:31:54.338059  2305 net.cpp:406] Eltwise8 <- Convolution17
I0929 14:31:54.338063  2305 net.cpp:380] Eltwise8 -> Eltwise8
I0929 14:31:54.338078  2305 net.cpp:122] Setting up Eltwise8
I0929 14:31:54.338081  2305 net.cpp:129] Top shape: 100 16 28 28 (1254400)
I0929 14:31:54.338083  2305 net.cpp:137] Memory required for data: 457542800
I0929 14:31:54.338085  2305 layer_factory.hpp:77] Creating layer M2PELU17
I0929 14:31:54.338090  2305 net.cpp:84] Creating Layer M2PELU17
I0929 14:31:54.338093  2305 net.cpp:406] M2PELU17 <- Eltwise8
I0929 14:31:54.338096  2305 net.cpp:367] M2PELU17 -> Eltwise8 (in-place)
I0929 14:31:54.338181  2305 net.cpp:122] Setting up M2PELU17
I0929 14:31:54.338186  2305 net.cpp:129] Top shape: 100 16 28 28 (1254400)
I0929 14:31:54.338187  2305 net.cpp:137] Memory required for data: 462560400
I0929 14:31:54.338191  2305 layer_factory.hpp:77] Creating layer Eltwise8_M2PELU17_0_split
I0929 14:31:54.338203  2305 net.cpp:84] Creating Layer Eltwise8_M2PELU17_0_split
I0929 14:31:54.338207  2305 net.cpp:406] Eltwise8_M2PELU17_0_split <- Eltwise8
I0929 14:31:54.338209  2305 net.cpp:380] Eltwise8_M2PELU17_0_split -> Eltwise8_M2PELU17_0_split_0
I0929 14:31:54.338214  2305 net.cpp:380] Eltwise8_M2PELU17_0_split -> Eltwise8_M2PELU17_0_split_1
I0929 14:31:54.338238  2305 net.cpp:122] Setting up Eltwise8_M2PELU17_0_split
I0929 14:31:54.338243  2305 net.cpp:129] Top shape: 100 16 28 28 (1254400)
I0929 14:31:54.338245  2305 net.cpp:129] Top shape: 100 16 28 28 (1254400)
I0929 14:31:54.338248  2305 net.cpp:137] Memory required for data: 472595600
I0929 14:31:54.338249  2305 layer_factory.hpp:77] Creating layer Convolution18
I0929 14:31:54.338254  2305 net.cpp:84] Creating Layer Convolution18
I0929 14:31:54.338258  2305 net.cpp:406] Convolution18 <- Eltwise8_M2PELU17_0_split_0
I0929 14:31:54.338261  2305 net.cpp:380] Convolution18 -> Convolution18
I0929 14:31:54.339164  2305 net.cpp:122] Setting up Convolution18
I0929 14:31:54.339172  2305 net.cpp:129] Top shape: 100 16 28 28 (1254400)
I0929 14:31:54.339175  2305 net.cpp:137] Memory required for data: 477613200
I0929 14:31:54.339179  2305 layer_factory.hpp:77] Creating layer BatchNorm18
I0929 14:31:54.339185  2305 net.cpp:84] Creating Layer BatchNorm18
I0929 14:31:54.339187  2305 net.cpp:406] BatchNorm18 <- Convolution18
I0929 14:31:54.339191  2305 net.cpp:367] BatchNorm18 -> Convolution18 (in-place)
I0929 14:31:54.339323  2305 net.cpp:122] Setting up BatchNorm18
I0929 14:31:54.339328  2305 net.cpp:129] Top shape: 100 16 28 28 (1254400)
I0929 14:31:54.339330  2305 net.cpp:137] Memory required for data: 482630800
I0929 14:31:54.339334  2305 layer_factory.hpp:77] Creating layer Scale18
I0929 14:31:54.339339  2305 net.cpp:84] Creating Layer Scale18
I0929 14:31:54.339341  2305 net.cpp:406] Scale18 <- Convolution18
I0929 14:31:54.339344  2305 net.cpp:367] Scale18 -> Convolution18 (in-place)
I0929 14:31:54.339371  2305 layer_factory.hpp:77] Creating layer Scale18
I0929 14:31:54.339449  2305 net.cpp:122] Setting up Scale18
I0929 14:31:54.339453  2305 net.cpp:129] Top shape: 100 16 28 28 (1254400)
I0929 14:31:54.339457  2305 net.cpp:137] Memory required for data: 487648400
I0929 14:31:54.339459  2305 layer_factory.hpp:77] Creating layer M2PELU18
I0929 14:31:54.339464  2305 net.cpp:84] Creating Layer M2PELU18
I0929 14:31:54.339467  2305 net.cpp:406] M2PELU18 <- Convolution18
I0929 14:31:54.339470  2305 net.cpp:367] M2PELU18 -> Convolution18 (in-place)
I0929 14:31:54.339556  2305 net.cpp:122] Setting up M2PELU18
I0929 14:31:54.339560  2305 net.cpp:129] Top shape: 100 16 28 28 (1254400)
I0929 14:31:54.339562  2305 net.cpp:137] Memory required for data: 492666000
I0929 14:31:54.339566  2305 layer_factory.hpp:77] Creating layer Convolution19
I0929 14:31:54.339574  2305 net.cpp:84] Creating Layer Convolution19
I0929 14:31:54.339576  2305 net.cpp:406] Convolution19 <- Convolution18
I0929 14:31:54.339581  2305 net.cpp:380] Convolution19 -> Convolution19
I0929 14:31:54.340476  2305 net.cpp:122] Setting up Convolution19
I0929 14:31:54.340484  2305 net.cpp:129] Top shape: 100 16 28 28 (1254400)
I0929 14:31:54.340487  2305 net.cpp:137] Memory required for data: 497683600
I0929 14:31:54.340492  2305 layer_factory.hpp:77] Creating layer BatchNorm19
I0929 14:31:54.340497  2305 net.cpp:84] Creating Layer BatchNorm19
I0929 14:31:54.340500  2305 net.cpp:406] BatchNorm19 <- Convolution19
I0929 14:31:54.340504  2305 net.cpp:367] BatchNorm19 -> Convolution19 (in-place)
I0929 14:31:54.340636  2305 net.cpp:122] Setting up BatchNorm19
I0929 14:31:54.340641  2305 net.cpp:129] Top shape: 100 16 28 28 (1254400)
I0929 14:31:54.340642  2305 net.cpp:137] Memory required for data: 502701200
I0929 14:31:54.340647  2305 layer_factory.hpp:77] Creating layer Scale19
I0929 14:31:54.340652  2305 net.cpp:84] Creating Layer Scale19
I0929 14:31:54.340654  2305 net.cpp:406] Scale19 <- Convolution19
I0929 14:31:54.340657  2305 net.cpp:367] Scale19 -> Convolution19 (in-place)
I0929 14:31:54.340692  2305 layer_factory.hpp:77] Creating layer Scale19
I0929 14:31:54.340771  2305 net.cpp:122] Setting up Scale19
I0929 14:31:54.340775  2305 net.cpp:129] Top shape: 100 16 28 28 (1254400)
I0929 14:31:54.340777  2305 net.cpp:137] Memory required for data: 507718800
I0929 14:31:54.340781  2305 layer_factory.hpp:77] Creating layer Eltwise9
I0929 14:31:54.340786  2305 net.cpp:84] Creating Layer Eltwise9
I0929 14:31:54.340788  2305 net.cpp:406] Eltwise9 <- Eltwise8_M2PELU17_0_split_1
I0929 14:31:54.340791  2305 net.cpp:406] Eltwise9 <- Convolution19
I0929 14:31:54.340795  2305 net.cpp:380] Eltwise9 -> Eltwise9
I0929 14:31:54.340821  2305 net.cpp:122] Setting up Eltwise9
I0929 14:31:54.340824  2305 net.cpp:129] Top shape: 100 16 28 28 (1254400)
I0929 14:31:54.340826  2305 net.cpp:137] Memory required for data: 512736400
I0929 14:31:54.340829  2305 layer_factory.hpp:77] Creating layer M2PELU19
I0929 14:31:54.340843  2305 net.cpp:84] Creating Layer M2PELU19
I0929 14:31:54.340847  2305 net.cpp:406] M2PELU19 <- Eltwise9
I0929 14:31:54.340849  2305 net.cpp:367] M2PELU19 -> Eltwise9 (in-place)
I0929 14:31:54.340934  2305 net.cpp:122] Setting up M2PELU19
I0929 14:31:54.340939  2305 net.cpp:129] Top shape: 100 16 28 28 (1254400)
I0929 14:31:54.340941  2305 net.cpp:137] Memory required for data: 517754000
I0929 14:31:54.340945  2305 layer_factory.hpp:77] Creating layer Eltwise9_M2PELU19_0_split
I0929 14:31:54.340948  2305 net.cpp:84] Creating Layer Eltwise9_M2PELU19_0_split
I0929 14:31:54.340950  2305 net.cpp:406] Eltwise9_M2PELU19_0_split <- Eltwise9
I0929 14:31:54.340955  2305 net.cpp:380] Eltwise9_M2PELU19_0_split -> Eltwise9_M2PELU19_0_split_0
I0929 14:31:54.340958  2305 net.cpp:380] Eltwise9_M2PELU19_0_split -> Eltwise9_M2PELU19_0_split_1
I0929 14:31:54.340982  2305 net.cpp:122] Setting up Eltwise9_M2PELU19_0_split
I0929 14:31:54.340986  2305 net.cpp:129] Top shape: 100 16 28 28 (1254400)
I0929 14:31:54.340988  2305 net.cpp:129] Top shape: 100 16 28 28 (1254400)
I0929 14:31:54.340991  2305 net.cpp:137] Memory required for data: 527789200
I0929 14:31:54.340992  2305 layer_factory.hpp:77] Creating layer Convolution20
I0929 14:31:54.341001  2305 net.cpp:84] Creating Layer Convolution20
I0929 14:31:54.341002  2305 net.cpp:406] Convolution20 <- Eltwise9_M2PELU19_0_split_0
I0929 14:31:54.341006  2305 net.cpp:380] Convolution20 -> Convolution20
I0929 14:31:54.342205  2305 net.cpp:122] Setting up Convolution20
I0929 14:31:54.342213  2305 net.cpp:129] Top shape: 100 32 14 14 (627200)
I0929 14:31:54.342216  2305 net.cpp:137] Memory required for data: 530298000
I0929 14:31:54.342222  2305 layer_factory.hpp:77] Creating layer BatchNorm20
I0929 14:31:54.342227  2305 net.cpp:84] Creating Layer BatchNorm20
I0929 14:31:54.342231  2305 net.cpp:406] BatchNorm20 <- Convolution20
I0929 14:31:54.342234  2305 net.cpp:367] BatchNorm20 -> Convolution20 (in-place)
I0929 14:31:54.342381  2305 net.cpp:122] Setting up BatchNorm20
I0929 14:31:54.342386  2305 net.cpp:129] Top shape: 100 32 14 14 (627200)
I0929 14:31:54.342387  2305 net.cpp:137] Memory required for data: 532806800
I0929 14:31:54.342392  2305 layer_factory.hpp:77] Creating layer Scale20
I0929 14:31:54.342397  2305 net.cpp:84] Creating Layer Scale20
I0929 14:31:54.342399  2305 net.cpp:406] Scale20 <- Convolution20
I0929 14:31:54.342403  2305 net.cpp:367] Scale20 -> Convolution20 (in-place)
I0929 14:31:54.342430  2305 layer_factory.hpp:77] Creating layer Scale20
I0929 14:31:54.342511  2305 net.cpp:122] Setting up Scale20
I0929 14:31:54.342516  2305 net.cpp:129] Top shape: 100 32 14 14 (627200)
I0929 14:31:54.342519  2305 net.cpp:137] Memory required for data: 535315600
I0929 14:31:54.342526  2305 layer_factory.hpp:77] Creating layer Convolution21
I0929 14:31:54.342533  2305 net.cpp:84] Creating Layer Convolution21
I0929 14:31:54.342536  2305 net.cpp:406] Convolution21 <- Eltwise9_M2PELU19_0_split_1
I0929 14:31:54.342541  2305 net.cpp:380] Convolution21 -> Convolution21
I0929 14:31:54.344668  2305 net.cpp:122] Setting up Convolution21
I0929 14:31:54.344678  2305 net.cpp:129] Top shape: 100 32 14 14 (627200)
I0929 14:31:54.344689  2305 net.cpp:137] Memory required for data: 537824400
I0929 14:31:54.344696  2305 layer_factory.hpp:77] Creating layer BatchNorm21
I0929 14:31:54.344702  2305 net.cpp:84] Creating Layer BatchNorm21
I0929 14:31:54.344704  2305 net.cpp:406] BatchNorm21 <- Convolution21
I0929 14:31:54.344708  2305 net.cpp:367] BatchNorm21 -> Convolution21 (in-place)
I0929 14:31:54.344848  2305 net.cpp:122] Setting up BatchNorm21
I0929 14:31:54.344853  2305 net.cpp:129] Top shape: 100 32 14 14 (627200)
I0929 14:31:54.344856  2305 net.cpp:137] Memory required for data: 540333200
I0929 14:31:54.344861  2305 layer_factory.hpp:77] Creating layer Scale21
I0929 14:31:54.344866  2305 net.cpp:84] Creating Layer Scale21
I0929 14:31:54.344867  2305 net.cpp:406] Scale21 <- Convolution21
I0929 14:31:54.344871  2305 net.cpp:367] Scale21 -> Convolution21 (in-place)
I0929 14:31:54.344899  2305 layer_factory.hpp:77] Creating layer Scale21
I0929 14:31:54.344976  2305 net.cpp:122] Setting up Scale21
I0929 14:31:54.344981  2305 net.cpp:129] Top shape: 100 32 14 14 (627200)
I0929 14:31:54.344983  2305 net.cpp:137] Memory required for data: 542842000
I0929 14:31:54.344987  2305 layer_factory.hpp:77] Creating layer M2PELU20
I0929 14:31:54.344992  2305 net.cpp:84] Creating Layer M2PELU20
I0929 14:31:54.344995  2305 net.cpp:406] M2PELU20 <- Convolution21
I0929 14:31:54.345000  2305 net.cpp:367] M2PELU20 -> Convolution21 (in-place)
I0929 14:31:54.345105  2305 net.cpp:122] Setting up M2PELU20
I0929 14:31:54.345109  2305 net.cpp:129] Top shape: 100 32 14 14 (627200)
I0929 14:31:54.345111  2305 net.cpp:137] Memory required for data: 545350800
I0929 14:31:54.345115  2305 layer_factory.hpp:77] Creating layer Convolution22
I0929 14:31:54.345124  2305 net.cpp:84] Creating Layer Convolution22
I0929 14:31:54.345125  2305 net.cpp:406] Convolution22 <- Convolution21
I0929 14:31:54.345130  2305 net.cpp:380] Convolution22 -> Convolution22
I0929 14:31:54.346221  2305 net.cpp:122] Setting up Convolution22
I0929 14:31:54.346230  2305 net.cpp:129] Top shape: 100 32 14 14 (627200)
I0929 14:31:54.346232  2305 net.cpp:137] Memory required for data: 547859600
I0929 14:31:54.346237  2305 layer_factory.hpp:77] Creating layer BatchNorm22
I0929 14:31:54.346245  2305 net.cpp:84] Creating Layer BatchNorm22
I0929 14:31:54.346247  2305 net.cpp:406] BatchNorm22 <- Convolution22
I0929 14:31:54.346251  2305 net.cpp:367] BatchNorm22 -> Convolution22 (in-place)
I0929 14:31:54.346385  2305 net.cpp:122] Setting up BatchNorm22
I0929 14:31:54.346390  2305 net.cpp:129] Top shape: 100 32 14 14 (627200)
I0929 14:31:54.346392  2305 net.cpp:137] Memory required for data: 550368400
I0929 14:31:54.346397  2305 layer_factory.hpp:77] Creating layer Scale22
I0929 14:31:54.346402  2305 net.cpp:84] Creating Layer Scale22
I0929 14:31:54.346405  2305 net.cpp:406] Scale22 <- Convolution22
I0929 14:31:54.346408  2305 net.cpp:367] Scale22 -> Convolution22 (in-place)
I0929 14:31:54.346434  2305 layer_factory.hpp:77] Creating layer Scale22
I0929 14:31:54.346511  2305 net.cpp:122] Setting up Scale22
I0929 14:31:54.346515  2305 net.cpp:129] Top shape: 100 32 14 14 (627200)
I0929 14:31:54.346518  2305 net.cpp:137] Memory required for data: 552877200
I0929 14:31:54.346537  2305 layer_factory.hpp:77] Creating layer Eltwise10
I0929 14:31:54.346544  2305 net.cpp:84] Creating Layer Eltwise10
I0929 14:31:54.346546  2305 net.cpp:406] Eltwise10 <- Convolution20
I0929 14:31:54.346549  2305 net.cpp:406] Eltwise10 <- Convolution22
I0929 14:31:54.346552  2305 net.cpp:380] Eltwise10 -> Eltwise10
I0929 14:31:54.346580  2305 net.cpp:122] Setting up Eltwise10
I0929 14:31:54.346583  2305 net.cpp:129] Top shape: 100 32 14 14 (627200)
I0929 14:31:54.346585  2305 net.cpp:137] Memory required for data: 555386000
I0929 14:31:54.346587  2305 layer_factory.hpp:77] Creating layer M2PELU21
I0929 14:31:54.346592  2305 net.cpp:84] Creating Layer M2PELU21
I0929 14:31:54.346595  2305 net.cpp:406] M2PELU21 <- Eltwise10
I0929 14:31:54.346598  2305 net.cpp:367] M2PELU21 -> Eltwise10 (in-place)
I0929 14:31:54.346681  2305 net.cpp:122] Setting up M2PELU21
I0929 14:31:54.346693  2305 net.cpp:129] Top shape: 100 32 14 14 (627200)
I0929 14:31:54.346696  2305 net.cpp:137] Memory required for data: 557894800
I0929 14:31:54.346700  2305 layer_factory.hpp:77] Creating layer Eltwise10_M2PELU21_0_split
I0929 14:31:54.346705  2305 net.cpp:84] Creating Layer Eltwise10_M2PELU21_0_split
I0929 14:31:54.346709  2305 net.cpp:406] Eltwise10_M2PELU21_0_split <- Eltwise10
I0929 14:31:54.346711  2305 net.cpp:380] Eltwise10_M2PELU21_0_split -> Eltwise10_M2PELU21_0_split_0
I0929 14:31:54.346715  2305 net.cpp:380] Eltwise10_M2PELU21_0_split -> Eltwise10_M2PELU21_0_split_1
I0929 14:31:54.346741  2305 net.cpp:122] Setting up Eltwise10_M2PELU21_0_split
I0929 14:31:54.346745  2305 net.cpp:129] Top shape: 100 32 14 14 (627200)
I0929 14:31:54.346747  2305 net.cpp:129] Top shape: 100 32 14 14 (627200)
I0929 14:31:54.346750  2305 net.cpp:137] Memory required for data: 562912400
I0929 14:31:54.346752  2305 layer_factory.hpp:77] Creating layer Convolution23
I0929 14:31:54.346757  2305 net.cpp:84] Creating Layer Convolution23
I0929 14:31:54.346760  2305 net.cpp:406] Convolution23 <- Eltwise10_M2PELU21_0_split_0
I0929 14:31:54.346765  2305 net.cpp:380] Convolution23 -> Convolution23
I0929 14:31:54.348121  2305 net.cpp:122] Setting up Convolution23
I0929 14:31:54.348130  2305 net.cpp:129] Top shape: 100 32 14 14 (627200)
I0929 14:31:54.348132  2305 net.cpp:137] Memory required for data: 565421200
I0929 14:31:54.348137  2305 layer_factory.hpp:77] Creating layer BatchNorm23
I0929 14:31:54.348142  2305 net.cpp:84] Creating Layer BatchNorm23
I0929 14:31:54.348145  2305 net.cpp:406] BatchNorm23 <- Convolution23
I0929 14:31:54.348150  2305 net.cpp:367] BatchNorm23 -> Convolution23 (in-place)
I0929 14:31:54.348289  2305 net.cpp:122] Setting up BatchNorm23
I0929 14:31:54.348294  2305 net.cpp:129] Top shape: 100 32 14 14 (627200)
I0929 14:31:54.348295  2305 net.cpp:137] Memory required for data: 567930000
I0929 14:31:54.348300  2305 layer_factory.hpp:77] Creating layer Scale23
I0929 14:31:54.348305  2305 net.cpp:84] Creating Layer Scale23
I0929 14:31:54.348309  2305 net.cpp:406] Scale23 <- Convolution23
I0929 14:31:54.348311  2305 net.cpp:367] Scale23 -> Convolution23 (in-place)
I0929 14:31:54.348338  2305 layer_factory.hpp:77] Creating layer Scale23
I0929 14:31:54.348417  2305 net.cpp:122] Setting up Scale23
I0929 14:31:54.348422  2305 net.cpp:129] Top shape: 100 32 14 14 (627200)
I0929 14:31:54.348424  2305 net.cpp:137] Memory required for data: 570438800
I0929 14:31:54.348428  2305 layer_factory.hpp:77] Creating layer M2PELU22
I0929 14:31:54.348433  2305 net.cpp:84] Creating Layer M2PELU22
I0929 14:31:54.348435  2305 net.cpp:406] M2PELU22 <- Convolution23
I0929 14:31:54.348439  2305 net.cpp:367] M2PELU22 -> Convolution23 (in-place)
I0929 14:31:54.348521  2305 net.cpp:122] Setting up M2PELU22
I0929 14:31:54.348526  2305 net.cpp:129] Top shape: 100 32 14 14 (627200)
I0929 14:31:54.348528  2305 net.cpp:137] Memory required for data: 572947600
I0929 14:31:54.348532  2305 layer_factory.hpp:77] Creating layer Convolution24
I0929 14:31:54.348538  2305 net.cpp:84] Creating Layer Convolution24
I0929 14:31:54.348541  2305 net.cpp:406] Convolution24 <- Convolution23
I0929 14:31:54.348546  2305 net.cpp:380] Convolution24 -> Convolution24
I0929 14:31:54.349596  2305 net.cpp:122] Setting up Convolution24
I0929 14:31:54.349604  2305 net.cpp:129] Top shape: 100 32 14 14 (627200)
I0929 14:31:54.349607  2305 net.cpp:137] Memory required for data: 575456400
I0929 14:31:54.349611  2305 layer_factory.hpp:77] Creating layer BatchNorm24
I0929 14:31:54.349617  2305 net.cpp:84] Creating Layer BatchNorm24
I0929 14:31:54.349619  2305 net.cpp:406] BatchNorm24 <- Convolution24
I0929 14:31:54.349624  2305 net.cpp:367] BatchNorm24 -> Convolution24 (in-place)
I0929 14:31:54.349759  2305 net.cpp:122] Setting up BatchNorm24
I0929 14:31:54.349764  2305 net.cpp:129] Top shape: 100 32 14 14 (627200)
I0929 14:31:54.349766  2305 net.cpp:137] Memory required for data: 577965200
I0929 14:31:54.349771  2305 layer_factory.hpp:77] Creating layer Scale24
I0929 14:31:54.349781  2305 net.cpp:84] Creating Layer Scale24
I0929 14:31:54.349784  2305 net.cpp:406] Scale24 <- Convolution24
I0929 14:31:54.349788  2305 net.cpp:367] Scale24 -> Convolution24 (in-place)
I0929 14:31:54.349817  2305 layer_factory.hpp:77] Creating layer Scale24
I0929 14:31:54.349895  2305 net.cpp:122] Setting up Scale24
I0929 14:31:54.349900  2305 net.cpp:129] Top shape: 100 32 14 14 (627200)
I0929 14:31:54.349902  2305 net.cpp:137] Memory required for data: 580474000
I0929 14:31:54.349906  2305 layer_factory.hpp:77] Creating layer Eltwise11
I0929 14:31:54.349910  2305 net.cpp:84] Creating Layer Eltwise11
I0929 14:31:54.349912  2305 net.cpp:406] Eltwise11 <- Eltwise10_M2PELU21_0_split_1
I0929 14:31:54.349915  2305 net.cpp:406] Eltwise11 <- Convolution24
I0929 14:31:54.349918  2305 net.cpp:380] Eltwise11 -> Eltwise11
I0929 14:31:54.349936  2305 net.cpp:122] Setting up Eltwise11
I0929 14:31:54.349938  2305 net.cpp:129] Top shape: 100 32 14 14 (627200)
I0929 14:31:54.349941  2305 net.cpp:137] Memory required for data: 582982800
I0929 14:31:54.349942  2305 layer_factory.hpp:77] Creating layer M2PELU23
I0929 14:31:54.349948  2305 net.cpp:84] Creating Layer M2PELU23
I0929 14:31:54.349951  2305 net.cpp:406] M2PELU23 <- Eltwise11
I0929 14:31:54.349954  2305 net.cpp:367] M2PELU23 -> Eltwise11 (in-place)
I0929 14:31:54.350039  2305 net.cpp:122] Setting up M2PELU23
I0929 14:31:54.350042  2305 net.cpp:129] Top shape: 100 32 14 14 (627200)
I0929 14:31:54.350044  2305 net.cpp:137] Memory required for data: 585491600
I0929 14:31:54.350049  2305 layer_factory.hpp:77] Creating layer Eltwise11_M2PELU23_0_split
I0929 14:31:54.350052  2305 net.cpp:84] Creating Layer Eltwise11_M2PELU23_0_split
I0929 14:31:54.350054  2305 net.cpp:406] Eltwise11_M2PELU23_0_split <- Eltwise11
I0929 14:31:54.350059  2305 net.cpp:380] Eltwise11_M2PELU23_0_split -> Eltwise11_M2PELU23_0_split_0
I0929 14:31:54.350062  2305 net.cpp:380] Eltwise11_M2PELU23_0_split -> Eltwise11_M2PELU23_0_split_1
I0929 14:31:54.350086  2305 net.cpp:122] Setting up Eltwise11_M2PELU23_0_split
I0929 14:31:54.350090  2305 net.cpp:129] Top shape: 100 32 14 14 (627200)
I0929 14:31:54.350092  2305 net.cpp:129] Top shape: 100 32 14 14 (627200)
I0929 14:31:54.350095  2305 net.cpp:137] Memory required for data: 590509200
I0929 14:31:54.350096  2305 layer_factory.hpp:77] Creating layer Convolution25
I0929 14:31:54.350102  2305 net.cpp:84] Creating Layer Convolution25
I0929 14:31:54.350106  2305 net.cpp:406] Convolution25 <- Eltwise11_M2PELU23_0_split_0
I0929 14:31:54.350109  2305 net.cpp:380] Convolution25 -> Convolution25
I0929 14:31:54.351189  2305 net.cpp:122] Setting up Convolution25
I0929 14:31:54.351198  2305 net.cpp:129] Top shape: 100 32 14 14 (627200)
I0929 14:31:54.351200  2305 net.cpp:137] Memory required for data: 593018000
I0929 14:31:54.351205  2305 layer_factory.hpp:77] Creating layer BatchNorm25
I0929 14:31:54.351212  2305 net.cpp:84] Creating Layer BatchNorm25
I0929 14:31:54.351214  2305 net.cpp:406] BatchNorm25 <- Convolution25
I0929 14:31:54.351218  2305 net.cpp:367] BatchNorm25 -> Convolution25 (in-place)
I0929 14:31:54.351351  2305 net.cpp:122] Setting up BatchNorm25
I0929 14:31:54.351354  2305 net.cpp:129] Top shape: 100 32 14 14 (627200)
I0929 14:31:54.351356  2305 net.cpp:137] Memory required for data: 595526800
I0929 14:31:54.351361  2305 layer_factory.hpp:77] Creating layer Scale25
I0929 14:31:54.351366  2305 net.cpp:84] Creating Layer Scale25
I0929 14:31:54.351368  2305 net.cpp:406] Scale25 <- Convolution25
I0929 14:31:54.351372  2305 net.cpp:367] Scale25 -> Convolution25 (in-place)
I0929 14:31:54.351397  2305 layer_factory.hpp:77] Creating layer Scale25
I0929 14:31:54.351472  2305 net.cpp:122] Setting up Scale25
I0929 14:31:54.351476  2305 net.cpp:129] Top shape: 100 32 14 14 (627200)
I0929 14:31:54.351478  2305 net.cpp:137] Memory required for data: 598035600
I0929 14:31:54.351482  2305 layer_factory.hpp:77] Creating layer M2PELU24
I0929 14:31:54.351487  2305 net.cpp:84] Creating Layer M2PELU24
I0929 14:31:54.351490  2305 net.cpp:406] M2PELU24 <- Convolution25
I0929 14:31:54.351502  2305 net.cpp:367] M2PELU24 -> Convolution25 (in-place)
I0929 14:31:54.351585  2305 net.cpp:122] Setting up M2PELU24
I0929 14:31:54.351590  2305 net.cpp:129] Top shape: 100 32 14 14 (627200)
I0929 14:31:54.351593  2305 net.cpp:137] Memory required for data: 600544400
I0929 14:31:54.351596  2305 layer_factory.hpp:77] Creating layer Convolution26
I0929 14:31:54.351603  2305 net.cpp:84] Creating Layer Convolution26
I0929 14:31:54.351605  2305 net.cpp:406] Convolution26 <- Convolution25
I0929 14:31:54.351609  2305 net.cpp:380] Convolution26 -> Convolution26
I0929 14:31:54.352634  2305 net.cpp:122] Setting up Convolution26
I0929 14:31:54.352643  2305 net.cpp:129] Top shape: 100 32 14 14 (627200)
I0929 14:31:54.352646  2305 net.cpp:137] Memory required for data: 603053200
I0929 14:31:54.352650  2305 layer_factory.hpp:77] Creating layer BatchNorm26
I0929 14:31:54.352654  2305 net.cpp:84] Creating Layer BatchNorm26
I0929 14:31:54.352658  2305 net.cpp:406] BatchNorm26 <- Convolution26
I0929 14:31:54.352661  2305 net.cpp:367] BatchNorm26 -> Convolution26 (in-place)
I0929 14:31:54.352794  2305 net.cpp:122] Setting up BatchNorm26
I0929 14:31:54.352798  2305 net.cpp:129] Top shape: 100 32 14 14 (627200)
I0929 14:31:54.352800  2305 net.cpp:137] Memory required for data: 605562000
I0929 14:31:54.352804  2305 layer_factory.hpp:77] Creating layer Scale26
I0929 14:31:54.352808  2305 net.cpp:84] Creating Layer Scale26
I0929 14:31:54.352811  2305 net.cpp:406] Scale26 <- Convolution26
I0929 14:31:54.352814  2305 net.cpp:367] Scale26 -> Convolution26 (in-place)
I0929 14:31:54.352840  2305 layer_factory.hpp:77] Creating layer Scale26
I0929 14:31:54.352917  2305 net.cpp:122] Setting up Scale26
I0929 14:31:54.352921  2305 net.cpp:129] Top shape: 100 32 14 14 (627200)
I0929 14:31:54.352923  2305 net.cpp:137] Memory required for data: 608070800
I0929 14:31:54.352927  2305 layer_factory.hpp:77] Creating layer Eltwise12
I0929 14:31:54.352931  2305 net.cpp:84] Creating Layer Eltwise12
I0929 14:31:54.352933  2305 net.cpp:406] Eltwise12 <- Eltwise11_M2PELU23_0_split_1
I0929 14:31:54.352936  2305 net.cpp:406] Eltwise12 <- Convolution26
I0929 14:31:54.352939  2305 net.cpp:380] Eltwise12 -> Eltwise12
I0929 14:31:54.352957  2305 net.cpp:122] Setting up Eltwise12
I0929 14:31:54.352960  2305 net.cpp:129] Top shape: 100 32 14 14 (627200)
I0929 14:31:54.352962  2305 net.cpp:137] Memory required for data: 610579600
I0929 14:31:54.352964  2305 layer_factory.hpp:77] Creating layer M2PELU25
I0929 14:31:54.352969  2305 net.cpp:84] Creating Layer M2PELU25
I0929 14:31:54.352972  2305 net.cpp:406] M2PELU25 <- Eltwise12
I0929 14:31:54.352975  2305 net.cpp:367] M2PELU25 -> Eltwise12 (in-place)
I0929 14:31:54.353058  2305 net.cpp:122] Setting up M2PELU25
I0929 14:31:54.353063  2305 net.cpp:129] Top shape: 100 32 14 14 (627200)
I0929 14:31:54.353065  2305 net.cpp:137] Memory required for data: 613088400
I0929 14:31:54.353068  2305 layer_factory.hpp:77] Creating layer Eltwise12_M2PELU25_0_split
I0929 14:31:54.353080  2305 net.cpp:84] Creating Layer Eltwise12_M2PELU25_0_split
I0929 14:31:54.353083  2305 net.cpp:406] Eltwise12_M2PELU25_0_split <- Eltwise12
I0929 14:31:54.353086  2305 net.cpp:380] Eltwise12_M2PELU25_0_split -> Eltwise12_M2PELU25_0_split_0
I0929 14:31:54.353096  2305 net.cpp:380] Eltwise12_M2PELU25_0_split -> Eltwise12_M2PELU25_0_split_1
I0929 14:31:54.353119  2305 net.cpp:122] Setting up Eltwise12_M2PELU25_0_split
I0929 14:31:54.353123  2305 net.cpp:129] Top shape: 100 32 14 14 (627200)
I0929 14:31:54.353127  2305 net.cpp:129] Top shape: 100 32 14 14 (627200)
I0929 14:31:54.353128  2305 net.cpp:137] Memory required for data: 618106000
I0929 14:31:54.353132  2305 layer_factory.hpp:77] Creating layer Convolution27
I0929 14:31:54.353137  2305 net.cpp:84] Creating Layer Convolution27
I0929 14:31:54.353139  2305 net.cpp:406] Convolution27 <- Eltwise12_M2PELU25_0_split_0
I0929 14:31:54.353145  2305 net.cpp:380] Convolution27 -> Convolution27
I0929 14:31:54.353847  2305 net.cpp:122] Setting up Convolution27
I0929 14:31:54.353860  2305 net.cpp:129] Top shape: 100 32 14 14 (627200)
I0929 14:31:54.353863  2305 net.cpp:137] Memory required for data: 620614800
I0929 14:31:54.353868  2305 layer_factory.hpp:77] Creating layer BatchNorm27
I0929 14:31:54.353873  2305 net.cpp:84] Creating Layer BatchNorm27
I0929 14:31:54.353874  2305 net.cpp:406] BatchNorm27 <- Convolution27
I0929 14:31:54.353878  2305 net.cpp:367] BatchNorm27 -> Convolution27 (in-place)
I0929 14:31:54.354012  2305 net.cpp:122] Setting up BatchNorm27
I0929 14:31:54.354017  2305 net.cpp:129] Top shape: 100 32 14 14 (627200)
I0929 14:31:54.354018  2305 net.cpp:137] Memory required for data: 623123600
I0929 14:31:54.354022  2305 layer_factory.hpp:77] Creating layer Scale27
I0929 14:31:54.354027  2305 net.cpp:84] Creating Layer Scale27
I0929 14:31:54.354029  2305 net.cpp:406] Scale27 <- Convolution27
I0929 14:31:54.354032  2305 net.cpp:367] Scale27 -> Convolution27 (in-place)
I0929 14:31:54.354058  2305 layer_factory.hpp:77] Creating layer Scale27
I0929 14:31:54.354133  2305 net.cpp:122] Setting up Scale27
I0929 14:31:54.354137  2305 net.cpp:129] Top shape: 100 32 14 14 (627200)
I0929 14:31:54.354140  2305 net.cpp:137] Memory required for data: 625632400
I0929 14:31:54.354143  2305 layer_factory.hpp:77] Creating layer M2PELU26
I0929 14:31:54.354148  2305 net.cpp:84] Creating Layer M2PELU26
I0929 14:31:54.354151  2305 net.cpp:406] M2PELU26 <- Convolution27
I0929 14:31:54.354154  2305 net.cpp:367] M2PELU26 -> Convolution27 (in-place)
I0929 14:31:54.354259  2305 net.cpp:122] Setting up M2PELU26
I0929 14:31:54.354264  2305 net.cpp:129] Top shape: 100 32 14 14 (627200)
I0929 14:31:54.354265  2305 net.cpp:137] Memory required for data: 628141200
I0929 14:31:54.354269  2305 layer_factory.hpp:77] Creating layer Convolution28
I0929 14:31:54.354275  2305 net.cpp:84] Creating Layer Convolution28
I0929 14:31:54.354279  2305 net.cpp:406] Convolution28 <- Convolution27
I0929 14:31:54.354282  2305 net.cpp:380] Convolution28 -> Convolution28
I0929 14:31:54.355309  2305 net.cpp:122] Setting up Convolution28
I0929 14:31:54.355319  2305 net.cpp:129] Top shape: 100 32 14 14 (627200)
I0929 14:31:54.355320  2305 net.cpp:137] Memory required for data: 630650000
I0929 14:31:54.355325  2305 layer_factory.hpp:77] Creating layer BatchNorm28
I0929 14:31:54.355330  2305 net.cpp:84] Creating Layer BatchNorm28
I0929 14:31:54.355332  2305 net.cpp:406] BatchNorm28 <- Convolution28
I0929 14:31:54.355336  2305 net.cpp:367] BatchNorm28 -> Convolution28 (in-place)
I0929 14:31:54.355473  2305 net.cpp:122] Setting up BatchNorm28
I0929 14:31:54.355478  2305 net.cpp:129] Top shape: 100 32 14 14 (627200)
I0929 14:31:54.355479  2305 net.cpp:137] Memory required for data: 633158800
I0929 14:31:54.355484  2305 layer_factory.hpp:77] Creating layer Scale28
I0929 14:31:54.355487  2305 net.cpp:84] Creating Layer Scale28
I0929 14:31:54.355490  2305 net.cpp:406] Scale28 <- Convolution28
I0929 14:31:54.355494  2305 net.cpp:367] Scale28 -> Convolution28 (in-place)
I0929 14:31:54.355520  2305 layer_factory.hpp:77] Creating layer Scale28
I0929 14:31:54.355595  2305 net.cpp:122] Setting up Scale28
I0929 14:31:54.355599  2305 net.cpp:129] Top shape: 100 32 14 14 (627200)
I0929 14:31:54.355602  2305 net.cpp:137] Memory required for data: 635667600
I0929 14:31:54.355605  2305 layer_factory.hpp:77] Creating layer Eltwise13
I0929 14:31:54.355609  2305 net.cpp:84] Creating Layer Eltwise13
I0929 14:31:54.355612  2305 net.cpp:406] Eltwise13 <- Eltwise12_M2PELU25_0_split_1
I0929 14:31:54.355615  2305 net.cpp:406] Eltwise13 <- Convolution28
I0929 14:31:54.355618  2305 net.cpp:380] Eltwise13 -> Eltwise13
I0929 14:31:54.355633  2305 net.cpp:122] Setting up Eltwise13
I0929 14:31:54.355636  2305 net.cpp:129] Top shape: 100 32 14 14 (627200)
I0929 14:31:54.355638  2305 net.cpp:137] Memory required for data: 638176400
I0929 14:31:54.355640  2305 layer_factory.hpp:77] Creating layer M2PELU27
I0929 14:31:54.355645  2305 net.cpp:84] Creating Layer M2PELU27
I0929 14:31:54.355648  2305 net.cpp:406] M2PELU27 <- Eltwise13
I0929 14:31:54.355651  2305 net.cpp:367] M2PELU27 -> Eltwise13 (in-place)
I0929 14:31:54.355742  2305 net.cpp:122] Setting up M2PELU27
I0929 14:31:54.355748  2305 net.cpp:129] Top shape: 100 32 14 14 (627200)
I0929 14:31:54.355751  2305 net.cpp:137] Memory required for data: 640685200
I0929 14:31:54.355754  2305 layer_factory.hpp:77] Creating layer Eltwise13_M2PELU27_0_split
I0929 14:31:54.355757  2305 net.cpp:84] Creating Layer Eltwise13_M2PELU27_0_split
I0929 14:31:54.355760  2305 net.cpp:406] Eltwise13_M2PELU27_0_split <- Eltwise13
I0929 14:31:54.355763  2305 net.cpp:380] Eltwise13_M2PELU27_0_split -> Eltwise13_M2PELU27_0_split_0
I0929 14:31:54.355767  2305 net.cpp:380] Eltwise13_M2PELU27_0_split -> Eltwise13_M2PELU27_0_split_1
I0929 14:31:54.355792  2305 net.cpp:122] Setting up Eltwise13_M2PELU27_0_split
I0929 14:31:54.355795  2305 net.cpp:129] Top shape: 100 32 14 14 (627200)
I0929 14:31:54.355798  2305 net.cpp:129] Top shape: 100 32 14 14 (627200)
I0929 14:31:54.355800  2305 net.cpp:137] Memory required for data: 645702800
I0929 14:31:54.355803  2305 layer_factory.hpp:77] Creating layer Convolution29
I0929 14:31:54.355808  2305 net.cpp:84] Creating Layer Convolution29
I0929 14:31:54.355810  2305 net.cpp:406] Convolution29 <- Eltwise13_M2PELU27_0_split_0
I0929 14:31:54.355814  2305 net.cpp:380] Convolution29 -> Convolution29
I0929 14:31:54.356839  2305 net.cpp:122] Setting up Convolution29
I0929 14:31:54.356848  2305 net.cpp:129] Top shape: 100 32 14 14 (627200)
I0929 14:31:54.356850  2305 net.cpp:137] Memory required for data: 648211600
I0929 14:31:54.356855  2305 layer_factory.hpp:77] Creating layer BatchNorm29
I0929 14:31:54.356860  2305 net.cpp:84] Creating Layer BatchNorm29
I0929 14:31:54.356863  2305 net.cpp:406] BatchNorm29 <- Convolution29
I0929 14:31:54.356866  2305 net.cpp:367] BatchNorm29 -> Convolution29 (in-place)
I0929 14:31:54.357002  2305 net.cpp:122] Setting up BatchNorm29
I0929 14:31:54.357005  2305 net.cpp:129] Top shape: 100 32 14 14 (627200)
I0929 14:31:54.357007  2305 net.cpp:137] Memory required for data: 650720400
I0929 14:31:54.357012  2305 layer_factory.hpp:77] Creating layer Scale29
I0929 14:31:54.357017  2305 net.cpp:84] Creating Layer Scale29
I0929 14:31:54.357019  2305 net.cpp:406] Scale29 <- Convolution29
I0929 14:31:54.357023  2305 net.cpp:367] Scale29 -> Convolution29 (in-place)
I0929 14:31:54.357048  2305 layer_factory.hpp:77] Creating layer Scale29
I0929 14:31:54.357127  2305 net.cpp:122] Setting up Scale29
I0929 14:31:54.357131  2305 net.cpp:129] Top shape: 100 32 14 14 (627200)
I0929 14:31:54.357133  2305 net.cpp:137] Memory required for data: 653229200
I0929 14:31:54.357154  2305 layer_factory.hpp:77] Creating layer M2PELU28
I0929 14:31:54.357161  2305 net.cpp:84] Creating Layer M2PELU28
I0929 14:31:54.357164  2305 net.cpp:406] M2PELU28 <- Convolution29
I0929 14:31:54.357167  2305 net.cpp:367] M2PELU28 -> Convolution29 (in-place)
I0929 14:31:54.357254  2305 net.cpp:122] Setting up M2PELU28
I0929 14:31:54.357259  2305 net.cpp:129] Top shape: 100 32 14 14 (627200)
I0929 14:31:54.357261  2305 net.cpp:137] Memory required for data: 655738000
I0929 14:31:54.357264  2305 layer_factory.hpp:77] Creating layer Convolution30
I0929 14:31:54.357271  2305 net.cpp:84] Creating Layer Convolution30
I0929 14:31:54.357273  2305 net.cpp:406] Convolution30 <- Convolution29
I0929 14:31:54.357277  2305 net.cpp:380] Convolution30 -> Convolution30
I0929 14:31:54.358342  2305 net.cpp:122] Setting up Convolution30
I0929 14:31:54.358351  2305 net.cpp:129] Top shape: 100 32 14 14 (627200)
I0929 14:31:54.358355  2305 net.cpp:137] Memory required for data: 658246800
I0929 14:31:54.358358  2305 layer_factory.hpp:77] Creating layer BatchNorm30
I0929 14:31:54.358363  2305 net.cpp:84] Creating Layer BatchNorm30
I0929 14:31:54.358366  2305 net.cpp:406] BatchNorm30 <- Convolution30
I0929 14:31:54.358371  2305 net.cpp:367] BatchNorm30 -> Convolution30 (in-place)
I0929 14:31:54.358543  2305 net.cpp:122] Setting up BatchNorm30
I0929 14:31:54.358548  2305 net.cpp:129] Top shape: 100 32 14 14 (627200)
I0929 14:31:54.358551  2305 net.cpp:137] Memory required for data: 660755600
I0929 14:31:54.358562  2305 layer_factory.hpp:77] Creating layer Scale30
I0929 14:31:54.358567  2305 net.cpp:84] Creating Layer Scale30
I0929 14:31:54.358570  2305 net.cpp:406] Scale30 <- Convolution30
I0929 14:31:54.358574  2305 net.cpp:367] Scale30 -> Convolution30 (in-place)
I0929 14:31:54.358602  2305 layer_factory.hpp:77] Creating layer Scale30
I0929 14:31:54.358680  2305 net.cpp:122] Setting up Scale30
I0929 14:31:54.358685  2305 net.cpp:129] Top shape: 100 32 14 14 (627200)
I0929 14:31:54.358686  2305 net.cpp:137] Memory required for data: 663264400
I0929 14:31:54.358690  2305 layer_factory.hpp:77] Creating layer Eltwise14
I0929 14:31:54.358695  2305 net.cpp:84] Creating Layer Eltwise14
I0929 14:31:54.358696  2305 net.cpp:406] Eltwise14 <- Eltwise13_M2PELU27_0_split_1
I0929 14:31:54.358700  2305 net.cpp:406] Eltwise14 <- Convolution30
I0929 14:31:54.358705  2305 net.cpp:380] Eltwise14 -> Eltwise14
I0929 14:31:54.358721  2305 net.cpp:122] Setting up Eltwise14
I0929 14:31:54.358724  2305 net.cpp:129] Top shape: 100 32 14 14 (627200)
I0929 14:31:54.358726  2305 net.cpp:137] Memory required for data: 665773200
I0929 14:31:54.358729  2305 layer_factory.hpp:77] Creating layer M2PELU29
I0929 14:31:54.358733  2305 net.cpp:84] Creating Layer M2PELU29
I0929 14:31:54.358736  2305 net.cpp:406] M2PELU29 <- Eltwise14
I0929 14:31:54.358739  2305 net.cpp:367] M2PELU29 -> Eltwise14 (in-place)
I0929 14:31:54.358824  2305 net.cpp:122] Setting up M2PELU29
I0929 14:31:54.358829  2305 net.cpp:129] Top shape: 100 32 14 14 (627200)
I0929 14:31:54.358831  2305 net.cpp:137] Memory required for data: 668282000
I0929 14:31:54.358834  2305 layer_factory.hpp:77] Creating layer Eltwise14_M2PELU29_0_split
I0929 14:31:54.358839  2305 net.cpp:84] Creating Layer Eltwise14_M2PELU29_0_split
I0929 14:31:54.358841  2305 net.cpp:406] Eltwise14_M2PELU29_0_split <- Eltwise14
I0929 14:31:54.358844  2305 net.cpp:380] Eltwise14_M2PELU29_0_split -> Eltwise14_M2PELU29_0_split_0
I0929 14:31:54.358849  2305 net.cpp:380] Eltwise14_M2PELU29_0_split -> Eltwise14_M2PELU29_0_split_1
I0929 14:31:54.358872  2305 net.cpp:122] Setting up Eltwise14_M2PELU29_0_split
I0929 14:31:54.358875  2305 net.cpp:129] Top shape: 100 32 14 14 (627200)
I0929 14:31:54.358878  2305 net.cpp:129] Top shape: 100 32 14 14 (627200)
I0929 14:31:54.358880  2305 net.cpp:137] Memory required for data: 673299600
I0929 14:31:54.358882  2305 layer_factory.hpp:77] Creating layer Convolution31
I0929 14:31:54.358888  2305 net.cpp:84] Creating Layer Convolution31
I0929 14:31:54.358891  2305 net.cpp:406] Convolution31 <- Eltwise14_M2PELU29_0_split_0
I0929 14:31:54.358896  2305 net.cpp:380] Convolution31 -> Convolution31
I0929 14:31:54.359933  2305 net.cpp:122] Setting up Convolution31
I0929 14:31:54.359942  2305 net.cpp:129] Top shape: 100 32 14 14 (627200)
I0929 14:31:54.359946  2305 net.cpp:137] Memory required for data: 675808400
I0929 14:31:54.359949  2305 layer_factory.hpp:77] Creating layer BatchNorm31
I0929 14:31:54.359956  2305 net.cpp:84] Creating Layer BatchNorm31
I0929 14:31:54.359958  2305 net.cpp:406] BatchNorm31 <- Convolution31
I0929 14:31:54.359961  2305 net.cpp:367] BatchNorm31 -> Convolution31 (in-place)
I0929 14:31:54.360098  2305 net.cpp:122] Setting up BatchNorm31
I0929 14:31:54.360102  2305 net.cpp:129] Top shape: 100 32 14 14 (627200)
I0929 14:31:54.360105  2305 net.cpp:137] Memory required for data: 678317200
I0929 14:31:54.360110  2305 layer_factory.hpp:77] Creating layer Scale31
I0929 14:31:54.360113  2305 net.cpp:84] Creating Layer Scale31
I0929 14:31:54.360116  2305 net.cpp:406] Scale31 <- Convolution31
I0929 14:31:54.360118  2305 net.cpp:367] Scale31 -> Convolution31 (in-place)
I0929 14:31:54.360147  2305 layer_factory.hpp:77] Creating layer Scale31
I0929 14:31:54.360224  2305 net.cpp:122] Setting up Scale31
I0929 14:31:54.360227  2305 net.cpp:129] Top shape: 100 32 14 14 (627200)
I0929 14:31:54.360229  2305 net.cpp:137] Memory required for data: 680826000
I0929 14:31:54.360234  2305 layer_factory.hpp:77] Creating layer M2PELU30
I0929 14:31:54.360246  2305 net.cpp:84] Creating Layer M2PELU30
I0929 14:31:54.360249  2305 net.cpp:406] M2PELU30 <- Convolution31
I0929 14:31:54.360254  2305 net.cpp:367] M2PELU30 -> Convolution31 (in-place)
I0929 14:31:54.360371  2305 net.cpp:122] Setting up M2PELU30
I0929 14:31:54.360385  2305 net.cpp:129] Top shape: 100 32 14 14 (627200)
I0929 14:31:54.360388  2305 net.cpp:137] Memory required for data: 683334800
I0929 14:31:54.360390  2305 layer_factory.hpp:77] Creating layer Convolution32
I0929 14:31:54.360397  2305 net.cpp:84] Creating Layer Convolution32
I0929 14:31:54.360400  2305 net.cpp:406] Convolution32 <- Convolution31
I0929 14:31:54.360405  2305 net.cpp:380] Convolution32 -> Convolution32
I0929 14:31:54.361440  2305 net.cpp:122] Setting up Convolution32
I0929 14:31:54.361449  2305 net.cpp:129] Top shape: 100 32 14 14 (627200)
I0929 14:31:54.361451  2305 net.cpp:137] Memory required for data: 685843600
I0929 14:31:54.361455  2305 layer_factory.hpp:77] Creating layer BatchNorm32
I0929 14:31:54.361460  2305 net.cpp:84] Creating Layer BatchNorm32
I0929 14:31:54.361464  2305 net.cpp:406] BatchNorm32 <- Convolution32
I0929 14:31:54.361466  2305 net.cpp:367] BatchNorm32 -> Convolution32 (in-place)
I0929 14:31:54.361637  2305 net.cpp:122] Setting up BatchNorm32
I0929 14:31:54.361642  2305 net.cpp:129] Top shape: 100 32 14 14 (627200)
I0929 14:31:54.361644  2305 net.cpp:137] Memory required for data: 688352400
I0929 14:31:54.361649  2305 layer_factory.hpp:77] Creating layer Scale32
I0929 14:31:54.361665  2305 net.cpp:84] Creating Layer Scale32
I0929 14:31:54.361667  2305 net.cpp:406] Scale32 <- Convolution32
I0929 14:31:54.361670  2305 net.cpp:367] Scale32 -> Convolution32 (in-place)
I0929 14:31:54.361708  2305 layer_factory.hpp:77] Creating layer Scale32
I0929 14:31:54.361795  2305 net.cpp:122] Setting up Scale32
I0929 14:31:54.361799  2305 net.cpp:129] Top shape: 100 32 14 14 (627200)
I0929 14:31:54.361801  2305 net.cpp:137] Memory required for data: 690861200
I0929 14:31:54.361805  2305 layer_factory.hpp:77] Creating layer Eltwise15
I0929 14:31:54.361810  2305 net.cpp:84] Creating Layer Eltwise15
I0929 14:31:54.361814  2305 net.cpp:406] Eltwise15 <- Eltwise14_M2PELU29_0_split_1
I0929 14:31:54.361816  2305 net.cpp:406] Eltwise15 <- Convolution32
I0929 14:31:54.361819  2305 net.cpp:380] Eltwise15 -> Eltwise15
I0929 14:31:54.361835  2305 net.cpp:122] Setting up Eltwise15
I0929 14:31:54.361840  2305 net.cpp:129] Top shape: 100 32 14 14 (627200)
I0929 14:31:54.361841  2305 net.cpp:137] Memory required for data: 693370000
I0929 14:31:54.361843  2305 layer_factory.hpp:77] Creating layer M2PELU31
I0929 14:31:54.361848  2305 net.cpp:84] Creating Layer M2PELU31
I0929 14:31:54.361850  2305 net.cpp:406] M2PELU31 <- Eltwise15
I0929 14:31:54.361853  2305 net.cpp:367] M2PELU31 -> Eltwise15 (in-place)
I0929 14:31:54.361937  2305 net.cpp:122] Setting up M2PELU31
I0929 14:31:54.361940  2305 net.cpp:129] Top shape: 100 32 14 14 (627200)
I0929 14:31:54.361943  2305 net.cpp:137] Memory required for data: 695878800
I0929 14:31:54.361946  2305 layer_factory.hpp:77] Creating layer Eltwise15_M2PELU31_0_split
I0929 14:31:54.361950  2305 net.cpp:84] Creating Layer Eltwise15_M2PELU31_0_split
I0929 14:31:54.361953  2305 net.cpp:406] Eltwise15_M2PELU31_0_split <- Eltwise15
I0929 14:31:54.361956  2305 net.cpp:380] Eltwise15_M2PELU31_0_split -> Eltwise15_M2PELU31_0_split_0
I0929 14:31:54.361961  2305 net.cpp:380] Eltwise15_M2PELU31_0_split -> Eltwise15_M2PELU31_0_split_1
I0929 14:31:54.361984  2305 net.cpp:122] Setting up Eltwise15_M2PELU31_0_split
I0929 14:31:54.361989  2305 net.cpp:129] Top shape: 100 32 14 14 (627200)
I0929 14:31:54.361991  2305 net.cpp:129] Top shape: 100 32 14 14 (627200)
I0929 14:31:54.361994  2305 net.cpp:137] Memory required for data: 700896400
I0929 14:31:54.361995  2305 layer_factory.hpp:77] Creating layer Convolution33
I0929 14:31:54.362000  2305 net.cpp:84] Creating Layer Convolution33
I0929 14:31:54.362004  2305 net.cpp:406] Convolution33 <- Eltwise15_M2PELU31_0_split_0
I0929 14:31:54.362010  2305 net.cpp:380] Convolution33 -> Convolution33
I0929 14:31:54.363451  2305 net.cpp:122] Setting up Convolution33
I0929 14:31:54.363461  2305 net.cpp:129] Top shape: 100 32 14 14 (627200)
I0929 14:31:54.363463  2305 net.cpp:137] Memory required for data: 703405200
I0929 14:31:54.363467  2305 layer_factory.hpp:77] Creating layer BatchNorm33
I0929 14:31:54.363472  2305 net.cpp:84] Creating Layer BatchNorm33
I0929 14:31:54.363476  2305 net.cpp:406] BatchNorm33 <- Convolution33
I0929 14:31:54.363481  2305 net.cpp:367] BatchNorm33 -> Convolution33 (in-place)
I0929 14:31:54.363620  2305 net.cpp:122] Setting up BatchNorm33
I0929 14:31:54.363625  2305 net.cpp:129] Top shape: 100 32 14 14 (627200)
I0929 14:31:54.363626  2305 net.cpp:137] Memory required for data: 705914000
I0929 14:31:54.363631  2305 layer_factory.hpp:77] Creating layer Scale33
I0929 14:31:54.363636  2305 net.cpp:84] Creating Layer Scale33
I0929 14:31:54.363638  2305 net.cpp:406] Scale33 <- Convolution33
I0929 14:31:54.363641  2305 net.cpp:367] Scale33 -> Convolution33 (in-place)
I0929 14:31:54.363668  2305 layer_factory.hpp:77] Creating layer Scale33
I0929 14:31:54.363746  2305 net.cpp:122] Setting up Scale33
I0929 14:31:54.363750  2305 net.cpp:129] Top shape: 100 32 14 14 (627200)
I0929 14:31:54.363752  2305 net.cpp:137] Memory required for data: 708422800
I0929 14:31:54.363756  2305 layer_factory.hpp:77] Creating layer M2PELU32
I0929 14:31:54.363761  2305 net.cpp:84] Creating Layer M2PELU32
I0929 14:31:54.363765  2305 net.cpp:406] M2PELU32 <- Convolution33
I0929 14:31:54.363768  2305 net.cpp:367] M2PELU32 -> Convolution33 (in-place)
I0929 14:31:54.363852  2305 net.cpp:122] Setting up M2PELU32
I0929 14:31:54.363857  2305 net.cpp:129] Top shape: 100 32 14 14 (627200)
I0929 14:31:54.363858  2305 net.cpp:137] Memory required for data: 710931600
I0929 14:31:54.363862  2305 layer_factory.hpp:77] Creating layer Convolution34
I0929 14:31:54.363867  2305 net.cpp:84] Creating Layer Convolution34
I0929 14:31:54.363870  2305 net.cpp:406] Convolution34 <- Convolution33
I0929 14:31:54.363874  2305 net.cpp:380] Convolution34 -> Convolution34
I0929 14:31:54.364912  2305 net.cpp:122] Setting up Convolution34
I0929 14:31:54.364922  2305 net.cpp:129] Top shape: 100 32 14 14 (627200)
I0929 14:31:54.364923  2305 net.cpp:137] Memory required for data: 713440400
I0929 14:31:54.364928  2305 layer_factory.hpp:77] Creating layer BatchNorm34
I0929 14:31:54.364933  2305 net.cpp:84] Creating Layer BatchNorm34
I0929 14:31:54.364936  2305 net.cpp:406] BatchNorm34 <- Convolution34
I0929 14:31:54.364939  2305 net.cpp:367] BatchNorm34 -> Convolution34 (in-place)
I0929 14:31:54.365077  2305 net.cpp:122] Setting up BatchNorm34
I0929 14:31:54.365082  2305 net.cpp:129] Top shape: 100 32 14 14 (627200)
I0929 14:31:54.365083  2305 net.cpp:137] Memory required for data: 715949200
I0929 14:31:54.365087  2305 layer_factory.hpp:77] Creating layer Scale34
I0929 14:31:54.365092  2305 net.cpp:84] Creating Layer Scale34
I0929 14:31:54.365094  2305 net.cpp:406] Scale34 <- Convolution34
I0929 14:31:54.365097  2305 net.cpp:367] Scale34 -> Convolution34 (in-place)
I0929 14:31:54.365124  2305 layer_factory.hpp:77] Creating layer Scale34
I0929 14:31:54.365203  2305 net.cpp:122] Setting up Scale34
I0929 14:31:54.365208  2305 net.cpp:129] Top shape: 100 32 14 14 (627200)
I0929 14:31:54.365211  2305 net.cpp:137] Memory required for data: 718458000
I0929 14:31:54.365214  2305 layer_factory.hpp:77] Creating layer Eltwise16
I0929 14:31:54.365218  2305 net.cpp:84] Creating Layer Eltwise16
I0929 14:31:54.365221  2305 net.cpp:406] Eltwise16 <- Eltwise15_M2PELU31_0_split_1
I0929 14:31:54.365223  2305 net.cpp:406] Eltwise16 <- Convolution34
I0929 14:31:54.365226  2305 net.cpp:380] Eltwise16 -> Eltwise16
I0929 14:31:54.365243  2305 net.cpp:122] Setting up Eltwise16
I0929 14:31:54.365247  2305 net.cpp:129] Top shape: 100 32 14 14 (627200)
I0929 14:31:54.365249  2305 net.cpp:137] Memory required for data: 720966800
I0929 14:31:54.365252  2305 layer_factory.hpp:77] Creating layer M2PELU33
I0929 14:31:54.365257  2305 net.cpp:84] Creating Layer M2PELU33
I0929 14:31:54.365265  2305 net.cpp:406] M2PELU33 <- Eltwise16
I0929 14:31:54.365269  2305 net.cpp:367] M2PELU33 -> Eltwise16 (in-place)
I0929 14:31:54.365355  2305 net.cpp:122] Setting up M2PELU33
I0929 14:31:54.365360  2305 net.cpp:129] Top shape: 100 32 14 14 (627200)
I0929 14:31:54.365361  2305 net.cpp:137] Memory required for data: 723475600
I0929 14:31:54.365365  2305 layer_factory.hpp:77] Creating layer Eltwise16_M2PELU33_0_split
I0929 14:31:54.365368  2305 net.cpp:84] Creating Layer Eltwise16_M2PELU33_0_split
I0929 14:31:54.365370  2305 net.cpp:406] Eltwise16_M2PELU33_0_split <- Eltwise16
I0929 14:31:54.365373  2305 net.cpp:380] Eltwise16_M2PELU33_0_split -> Eltwise16_M2PELU33_0_split_0
I0929 14:31:54.365378  2305 net.cpp:380] Eltwise16_M2PELU33_0_split -> Eltwise16_M2PELU33_0_split_1
I0929 14:31:54.365401  2305 net.cpp:122] Setting up Eltwise16_M2PELU33_0_split
I0929 14:31:54.365406  2305 net.cpp:129] Top shape: 100 32 14 14 (627200)
I0929 14:31:54.365408  2305 net.cpp:129] Top shape: 100 32 14 14 (627200)
I0929 14:31:54.365411  2305 net.cpp:137] Memory required for data: 728493200
I0929 14:31:54.365412  2305 layer_factory.hpp:77] Creating layer Convolution35
I0929 14:31:54.365418  2305 net.cpp:84] Creating Layer Convolution35
I0929 14:31:54.365420  2305 net.cpp:406] Convolution35 <- Eltwise16_M2PELU33_0_split_0
I0929 14:31:54.365424  2305 net.cpp:380] Convolution35 -> Convolution35
I0929 14:31:54.366459  2305 net.cpp:122] Setting up Convolution35
I0929 14:31:54.366468  2305 net.cpp:129] Top shape: 100 32 14 14 (627200)
I0929 14:31:54.366470  2305 net.cpp:137] Memory required for data: 731002000
I0929 14:31:54.366475  2305 layer_factory.hpp:77] Creating layer BatchNorm35
I0929 14:31:54.366480  2305 net.cpp:84] Creating Layer BatchNorm35
I0929 14:31:54.366483  2305 net.cpp:406] BatchNorm35 <- Convolution35
I0929 14:31:54.366487  2305 net.cpp:367] BatchNorm35 -> Convolution35 (in-place)
I0929 14:31:54.366647  2305 net.cpp:122] Setting up BatchNorm35
I0929 14:31:54.366652  2305 net.cpp:129] Top shape: 100 32 14 14 (627200)
I0929 14:31:54.366653  2305 net.cpp:137] Memory required for data: 733510800
I0929 14:31:54.366658  2305 layer_factory.hpp:77] Creating layer Scale35
I0929 14:31:54.366663  2305 net.cpp:84] Creating Layer Scale35
I0929 14:31:54.366665  2305 net.cpp:406] Scale35 <- Convolution35
I0929 14:31:54.366668  2305 net.cpp:367] Scale35 -> Convolution35 (in-place)
I0929 14:31:54.366695  2305 layer_factory.hpp:77] Creating layer Scale35
I0929 14:31:54.366775  2305 net.cpp:122] Setting up Scale35
I0929 14:31:54.366778  2305 net.cpp:129] Top shape: 100 32 14 14 (627200)
I0929 14:31:54.366780  2305 net.cpp:137] Memory required for data: 736019600
I0929 14:31:54.366785  2305 layer_factory.hpp:77] Creating layer M2PELU34
I0929 14:31:54.366788  2305 net.cpp:84] Creating Layer M2PELU34
I0929 14:31:54.366792  2305 net.cpp:406] M2PELU34 <- Convolution35
I0929 14:31:54.366796  2305 net.cpp:367] M2PELU34 -> Convolution35 (in-place)
I0929 14:31:54.366878  2305 net.cpp:122] Setting up M2PELU34
I0929 14:31:54.366883  2305 net.cpp:129] Top shape: 100 32 14 14 (627200)
I0929 14:31:54.366885  2305 net.cpp:137] Memory required for data: 738528400
I0929 14:31:54.366889  2305 layer_factory.hpp:77] Creating layer Convolution36
I0929 14:31:54.366894  2305 net.cpp:84] Creating Layer Convolution36
I0929 14:31:54.366897  2305 net.cpp:406] Convolution36 <- Convolution35
I0929 14:31:54.366901  2305 net.cpp:380] Convolution36 -> Convolution36
I0929 14:31:54.367933  2305 net.cpp:122] Setting up Convolution36
I0929 14:31:54.367941  2305 net.cpp:129] Top shape: 100 32 14 14 (627200)
I0929 14:31:54.367944  2305 net.cpp:137] Memory required for data: 741037200
I0929 14:31:54.367949  2305 layer_factory.hpp:77] Creating layer BatchNorm36
I0929 14:31:54.367954  2305 net.cpp:84] Creating Layer BatchNorm36
I0929 14:31:54.367956  2305 net.cpp:406] BatchNorm36 <- Convolution36
I0929 14:31:54.367959  2305 net.cpp:367] BatchNorm36 -> Convolution36 (in-place)
I0929 14:31:54.368094  2305 net.cpp:122] Setting up BatchNorm36
I0929 14:31:54.368099  2305 net.cpp:129] Top shape: 100 32 14 14 (627200)
I0929 14:31:54.368108  2305 net.cpp:137] Memory required for data: 743546000
I0929 14:31:54.368113  2305 layer_factory.hpp:77] Creating layer Scale36
I0929 14:31:54.368118  2305 net.cpp:84] Creating Layer Scale36
I0929 14:31:54.368120  2305 net.cpp:406] Scale36 <- Convolution36
I0929 14:31:54.368124  2305 net.cpp:367] Scale36 -> Convolution36 (in-place)
I0929 14:31:54.368152  2305 layer_factory.hpp:77] Creating layer Scale36
I0929 14:31:54.368229  2305 net.cpp:122] Setting up Scale36
I0929 14:31:54.368234  2305 net.cpp:129] Top shape: 100 32 14 14 (627200)
I0929 14:31:54.368237  2305 net.cpp:137] Memory required for data: 746054800
I0929 14:31:54.368242  2305 layer_factory.hpp:77] Creating layer Eltwise17
I0929 14:31:54.368244  2305 net.cpp:84] Creating Layer Eltwise17
I0929 14:31:54.368247  2305 net.cpp:406] Eltwise17 <- Eltwise16_M2PELU33_0_split_1
I0929 14:31:54.368250  2305 net.cpp:406] Eltwise17 <- Convolution36
I0929 14:31:54.368253  2305 net.cpp:380] Eltwise17 -> Eltwise17
I0929 14:31:54.368270  2305 net.cpp:122] Setting up Eltwise17
I0929 14:31:54.368273  2305 net.cpp:129] Top shape: 100 32 14 14 (627200)
I0929 14:31:54.368275  2305 net.cpp:137] Memory required for data: 748563600
I0929 14:31:54.368278  2305 layer_factory.hpp:77] Creating layer M2PELU35
I0929 14:31:54.368283  2305 net.cpp:84] Creating Layer M2PELU35
I0929 14:31:54.368285  2305 net.cpp:406] M2PELU35 <- Eltwise17
I0929 14:31:54.368288  2305 net.cpp:367] M2PELU35 -> Eltwise17 (in-place)
I0929 14:31:54.368374  2305 net.cpp:122] Setting up M2PELU35
I0929 14:31:54.368379  2305 net.cpp:129] Top shape: 100 32 14 14 (627200)
I0929 14:31:54.368381  2305 net.cpp:137] Memory required for data: 751072400
I0929 14:31:54.368384  2305 layer_factory.hpp:77] Creating layer Eltwise17_M2PELU35_0_split
I0929 14:31:54.368388  2305 net.cpp:84] Creating Layer Eltwise17_M2PELU35_0_split
I0929 14:31:54.368391  2305 net.cpp:406] Eltwise17_M2PELU35_0_split <- Eltwise17
I0929 14:31:54.368393  2305 net.cpp:380] Eltwise17_M2PELU35_0_split -> Eltwise17_M2PELU35_0_split_0
I0929 14:31:54.368398  2305 net.cpp:380] Eltwise17_M2PELU35_0_split -> Eltwise17_M2PELU35_0_split_1
I0929 14:31:54.368422  2305 net.cpp:122] Setting up Eltwise17_M2PELU35_0_split
I0929 14:31:54.368425  2305 net.cpp:129] Top shape: 100 32 14 14 (627200)
I0929 14:31:54.368428  2305 net.cpp:129] Top shape: 100 32 14 14 (627200)
I0929 14:31:54.368430  2305 net.cpp:137] Memory required for data: 756090000
I0929 14:31:54.368432  2305 layer_factory.hpp:77] Creating layer Convolution37
I0929 14:31:54.368439  2305 net.cpp:84] Creating Layer Convolution37
I0929 14:31:54.368443  2305 net.cpp:406] Convolution37 <- Eltwise17_M2PELU35_0_split_0
I0929 14:31:54.368445  2305 net.cpp:380] Convolution37 -> Convolution37
I0929 14:31:54.369156  2305 net.cpp:122] Setting up Convolution37
I0929 14:31:54.369164  2305 net.cpp:129] Top shape: 100 32 14 14 (627200)
I0929 14:31:54.369166  2305 net.cpp:137] Memory required for data: 758598800
I0929 14:31:54.369170  2305 layer_factory.hpp:77] Creating layer BatchNorm37
I0929 14:31:54.369174  2305 net.cpp:84] Creating Layer BatchNorm37
I0929 14:31:54.369177  2305 net.cpp:406] BatchNorm37 <- Convolution37
I0929 14:31:54.369181  2305 net.cpp:367] BatchNorm37 -> Convolution37 (in-place)
I0929 14:31:54.369316  2305 net.cpp:122] Setting up BatchNorm37
I0929 14:31:54.369320  2305 net.cpp:129] Top shape: 100 32 14 14 (627200)
I0929 14:31:54.369323  2305 net.cpp:137] Memory required for data: 761107600
I0929 14:31:54.369328  2305 layer_factory.hpp:77] Creating layer Scale37
I0929 14:31:54.369330  2305 net.cpp:84] Creating Layer Scale37
I0929 14:31:54.369333  2305 net.cpp:406] Scale37 <- Convolution37
I0929 14:31:54.369336  2305 net.cpp:367] Scale37 -> Convolution37 (in-place)
I0929 14:31:54.369362  2305 layer_factory.hpp:77] Creating layer Scale37
I0929 14:31:54.369439  2305 net.cpp:122] Setting up Scale37
I0929 14:31:54.369443  2305 net.cpp:129] Top shape: 100 32 14 14 (627200)
I0929 14:31:54.369446  2305 net.cpp:137] Memory required for data: 763616400
I0929 14:31:54.369455  2305 layer_factory.hpp:77] Creating layer M2PELU36
I0929 14:31:54.369460  2305 net.cpp:84] Creating Layer M2PELU36
I0929 14:31:54.369462  2305 net.cpp:406] M2PELU36 <- Convolution37
I0929 14:31:54.369467  2305 net.cpp:367] M2PELU36 -> Convolution37 (in-place)
I0929 14:31:54.369552  2305 net.cpp:122] Setting up M2PELU36
I0929 14:31:54.369557  2305 net.cpp:129] Top shape: 100 32 14 14 (627200)
I0929 14:31:54.369560  2305 net.cpp:137] Memory required for data: 766125200
I0929 14:31:54.369562  2305 layer_factory.hpp:77] Creating layer Convolution38
I0929 14:31:54.369570  2305 net.cpp:84] Creating Layer Convolution38
I0929 14:31:54.369572  2305 net.cpp:406] Convolution38 <- Convolution37
I0929 14:31:54.369575  2305 net.cpp:380] Convolution38 -> Convolution38
I0929 14:31:54.370652  2305 net.cpp:122] Setting up Convolution38
I0929 14:31:54.370661  2305 net.cpp:129] Top shape: 100 32 14 14 (627200)
I0929 14:31:54.370663  2305 net.cpp:137] Memory required for data: 768634000
I0929 14:31:54.370668  2305 layer_factory.hpp:77] Creating layer BatchNorm38
I0929 14:31:54.370673  2305 net.cpp:84] Creating Layer BatchNorm38
I0929 14:31:54.370676  2305 net.cpp:406] BatchNorm38 <- Convolution38
I0929 14:31:54.370681  2305 net.cpp:367] BatchNorm38 -> Convolution38 (in-place)
I0929 14:31:54.370815  2305 net.cpp:122] Setting up BatchNorm38
I0929 14:31:54.370820  2305 net.cpp:129] Top shape: 100 32 14 14 (627200)
I0929 14:31:54.370822  2305 net.cpp:137] Memory required for data: 771142800
I0929 14:31:54.370827  2305 layer_factory.hpp:77] Creating layer Scale38
I0929 14:31:54.370832  2305 net.cpp:84] Creating Layer Scale38
I0929 14:31:54.370834  2305 net.cpp:406] Scale38 <- Convolution38
I0929 14:31:54.370837  2305 net.cpp:367] Scale38 -> Convolution38 (in-place)
I0929 14:31:54.370864  2305 layer_factory.hpp:77] Creating layer Scale38
I0929 14:31:54.370941  2305 net.cpp:122] Setting up Scale38
I0929 14:31:54.370945  2305 net.cpp:129] Top shape: 100 32 14 14 (627200)
I0929 14:31:54.370947  2305 net.cpp:137] Memory required for data: 773651600
I0929 14:31:54.370951  2305 layer_factory.hpp:77] Creating layer Eltwise18
I0929 14:31:54.370955  2305 net.cpp:84] Creating Layer Eltwise18
I0929 14:31:54.370959  2305 net.cpp:406] Eltwise18 <- Eltwise17_M2PELU35_0_split_1
I0929 14:31:54.370961  2305 net.cpp:406] Eltwise18 <- Convolution38
I0929 14:31:54.370965  2305 net.cpp:380] Eltwise18 -> Eltwise18
I0929 14:31:54.370980  2305 net.cpp:122] Setting up Eltwise18
I0929 14:31:54.370985  2305 net.cpp:129] Top shape: 100 32 14 14 (627200)
I0929 14:31:54.370986  2305 net.cpp:137] Memory required for data: 776160400
I0929 14:31:54.370988  2305 layer_factory.hpp:77] Creating layer M2PELU37
I0929 14:31:54.370995  2305 net.cpp:84] Creating Layer M2PELU37
I0929 14:31:54.370996  2305 net.cpp:406] M2PELU37 <- Eltwise18
I0929 14:31:54.370999  2305 net.cpp:367] M2PELU37 -> Eltwise18 (in-place)
I0929 14:31:54.371084  2305 net.cpp:122] Setting up M2PELU37
I0929 14:31:54.371088  2305 net.cpp:129] Top shape: 100 32 14 14 (627200)
I0929 14:31:54.371090  2305 net.cpp:137] Memory required for data: 778669200
I0929 14:31:54.371094  2305 layer_factory.hpp:77] Creating layer Eltwise18_M2PELU37_0_split
I0929 14:31:54.371098  2305 net.cpp:84] Creating Layer Eltwise18_M2PELU37_0_split
I0929 14:31:54.371099  2305 net.cpp:406] Eltwise18_M2PELU37_0_split <- Eltwise18
I0929 14:31:54.371104  2305 net.cpp:380] Eltwise18_M2PELU37_0_split -> Eltwise18_M2PELU37_0_split_0
I0929 14:31:54.371107  2305 net.cpp:380] Eltwise18_M2PELU37_0_split -> Eltwise18_M2PELU37_0_split_1
I0929 14:31:54.371130  2305 net.cpp:122] Setting up Eltwise18_M2PELU37_0_split
I0929 14:31:54.371134  2305 net.cpp:129] Top shape: 100 32 14 14 (627200)
I0929 14:31:54.371137  2305 net.cpp:129] Top shape: 100 32 14 14 (627200)
I0929 14:31:54.371140  2305 net.cpp:137] Memory required for data: 783686800
I0929 14:31:54.371141  2305 layer_factory.hpp:77] Creating layer Convolution39
I0929 14:31:54.371146  2305 net.cpp:84] Creating Layer Convolution39
I0929 14:31:54.371150  2305 net.cpp:406] Convolution39 <- Eltwise18_M2PELU37_0_split_0
I0929 14:31:54.371160  2305 net.cpp:380] Convolution39 -> Convolution39
I0929 14:31:54.372046  2305 net.cpp:122] Setting up Convolution39
I0929 14:31:54.372056  2305 net.cpp:129] Top shape: 100 64 7 7 (313600)
I0929 14:31:54.372058  2305 net.cpp:137] Memory required for data: 784941200
I0929 14:31:54.372063  2305 layer_factory.hpp:77] Creating layer BatchNorm39
I0929 14:31:54.372067  2305 net.cpp:84] Creating Layer BatchNorm39
I0929 14:31:54.372071  2305 net.cpp:406] BatchNorm39 <- Convolution39
I0929 14:31:54.372074  2305 net.cpp:367] BatchNorm39 -> Convolution39 (in-place)
I0929 14:31:54.372210  2305 net.cpp:122] Setting up BatchNorm39
I0929 14:31:54.372215  2305 net.cpp:129] Top shape: 100 64 7 7 (313600)
I0929 14:31:54.372216  2305 net.cpp:137] Memory required for data: 786195600
I0929 14:31:54.372220  2305 layer_factory.hpp:77] Creating layer Scale39
I0929 14:31:54.372225  2305 net.cpp:84] Creating Layer Scale39
I0929 14:31:54.372227  2305 net.cpp:406] Scale39 <- Convolution39
I0929 14:31:54.372231  2305 net.cpp:367] Scale39 -> Convolution39 (in-place)
I0929 14:31:54.372256  2305 layer_factory.hpp:77] Creating layer Scale39
I0929 14:31:54.372334  2305 net.cpp:122] Setting up Scale39
I0929 14:31:54.372337  2305 net.cpp:129] Top shape: 100 64 7 7 (313600)
I0929 14:31:54.372340  2305 net.cpp:137] Memory required for data: 787450000
I0929 14:31:54.372344  2305 layer_factory.hpp:77] Creating layer Convolution40
I0929 14:31:54.372350  2305 net.cpp:84] Creating Layer Convolution40
I0929 14:31:54.372354  2305 net.cpp:406] Convolution40 <- Eltwise18_M2PELU37_0_split_1
I0929 14:31:54.372359  2305 net.cpp:380] Convolution40 -> Convolution40
I0929 14:31:54.374140  2305 net.cpp:122] Setting up Convolution40
I0929 14:31:54.374150  2305 net.cpp:129] Top shape: 100 64 7 7 (313600)
I0929 14:31:54.374152  2305 net.cpp:137] Memory required for data: 788704400
I0929 14:31:54.374157  2305 layer_factory.hpp:77] Creating layer BatchNorm40
I0929 14:31:54.374162  2305 net.cpp:84] Creating Layer BatchNorm40
I0929 14:31:54.374166  2305 net.cpp:406] BatchNorm40 <- Convolution40
I0929 14:31:54.374171  2305 net.cpp:367] BatchNorm40 -> Convolution40 (in-place)
I0929 14:31:54.374339  2305 net.cpp:122] Setting up BatchNorm40
I0929 14:31:54.374344  2305 net.cpp:129] Top shape: 100 64 7 7 (313600)
I0929 14:31:54.374346  2305 net.cpp:137] Memory required for data: 789958800
I0929 14:31:54.374351  2305 layer_factory.hpp:77] Creating layer Scale40
I0929 14:31:54.374356  2305 net.cpp:84] Creating Layer Scale40
I0929 14:31:54.374358  2305 net.cpp:406] Scale40 <- Convolution40
I0929 14:31:54.374362  2305 net.cpp:367] Scale40 -> Convolution40 (in-place)
I0929 14:31:54.374389  2305 layer_factory.hpp:77] Creating layer Scale40
I0929 14:31:54.374469  2305 net.cpp:122] Setting up Scale40
I0929 14:31:54.374475  2305 net.cpp:129] Top shape: 100 64 7 7 (313600)
I0929 14:31:54.374476  2305 net.cpp:137] Memory required for data: 791213200
I0929 14:31:54.374480  2305 layer_factory.hpp:77] Creating layer M2PELU38
I0929 14:31:54.374485  2305 net.cpp:84] Creating Layer M2PELU38
I0929 14:31:54.374487  2305 net.cpp:406] M2PELU38 <- Convolution40
I0929 14:31:54.374491  2305 net.cpp:367] M2PELU38 -> Convolution40 (in-place)
I0929 14:31:54.374590  2305 net.cpp:122] Setting up M2PELU38
I0929 14:31:54.374595  2305 net.cpp:129] Top shape: 100 64 7 7 (313600)
I0929 14:31:54.374598  2305 net.cpp:137] Memory required for data: 792467600
I0929 14:31:54.374601  2305 layer_factory.hpp:77] Creating layer Convolution41
I0929 14:31:54.374609  2305 net.cpp:84] Creating Layer Convolution41
I0929 14:31:54.374611  2305 net.cpp:406] Convolution41 <- Convolution40
I0929 14:31:54.374615  2305 net.cpp:380] Convolution41 -> Convolution41
I0929 14:31:54.377133  2305 net.cpp:122] Setting up Convolution41
I0929 14:31:54.377146  2305 net.cpp:129] Top shape: 100 64 7 7 (313600)
I0929 14:31:54.377148  2305 net.cpp:137] Memory required for data: 793722000
I0929 14:31:54.377153  2305 layer_factory.hpp:77] Creating layer BatchNorm41
I0929 14:31:54.377159  2305 net.cpp:84] Creating Layer BatchNorm41
I0929 14:31:54.377171  2305 net.cpp:406] BatchNorm41 <- Convolution41
I0929 14:31:54.377177  2305 net.cpp:367] BatchNorm41 -> Convolution41 (in-place)
I0929 14:31:54.377322  2305 net.cpp:122] Setting up BatchNorm41
I0929 14:31:54.377328  2305 net.cpp:129] Top shape: 100 64 7 7 (313600)
I0929 14:31:54.377331  2305 net.cpp:137] Memory required for data: 794976400
I0929 14:31:54.377336  2305 layer_factory.hpp:77] Creating layer Scale41
I0929 14:31:54.377339  2305 net.cpp:84] Creating Layer Scale41
I0929 14:31:54.377342  2305 net.cpp:406] Scale41 <- Convolution41
I0929 14:31:54.377346  2305 net.cpp:367] Scale41 -> Convolution41 (in-place)
I0929 14:31:54.377375  2305 layer_factory.hpp:77] Creating layer Scale41
I0929 14:31:54.377457  2305 net.cpp:122] Setting up Scale41
I0929 14:31:54.377462  2305 net.cpp:129] Top shape: 100 64 7 7 (313600)
I0929 14:31:54.377465  2305 net.cpp:137] Memory required for data: 796230800
I0929 14:31:54.377468  2305 layer_factory.hpp:77] Creating layer Eltwise19
I0929 14:31:54.377473  2305 net.cpp:84] Creating Layer Eltwise19
I0929 14:31:54.377476  2305 net.cpp:406] Eltwise19 <- Convolution39
I0929 14:31:54.377478  2305 net.cpp:406] Eltwise19 <- Convolution41
I0929 14:31:54.377483  2305 net.cpp:380] Eltwise19 -> Eltwise19
I0929 14:31:54.377501  2305 net.cpp:122] Setting up Eltwise19
I0929 14:31:54.377504  2305 net.cpp:129] Top shape: 100 64 7 7 (313600)
I0929 14:31:54.377506  2305 net.cpp:137] Memory required for data: 797485200
I0929 14:31:54.377508  2305 layer_factory.hpp:77] Creating layer M2PELU39
I0929 14:31:54.377513  2305 net.cpp:84] Creating Layer M2PELU39
I0929 14:31:54.377516  2305 net.cpp:406] M2PELU39 <- Eltwise19
I0929 14:31:54.377521  2305 net.cpp:367] M2PELU39 -> Eltwise19 (in-place)
I0929 14:31:54.377609  2305 net.cpp:122] Setting up M2PELU39
I0929 14:31:54.377614  2305 net.cpp:129] Top shape: 100 64 7 7 (313600)
I0929 14:31:54.377616  2305 net.cpp:137] Memory required for data: 798739600
I0929 14:31:54.377619  2305 layer_factory.hpp:77] Creating layer Eltwise19_M2PELU39_0_split
I0929 14:31:54.377624  2305 net.cpp:84] Creating Layer Eltwise19_M2PELU39_0_split
I0929 14:31:54.377625  2305 net.cpp:406] Eltwise19_M2PELU39_0_split <- Eltwise19
I0929 14:31:54.377629  2305 net.cpp:380] Eltwise19_M2PELU39_0_split -> Eltwise19_M2PELU39_0_split_0
I0929 14:31:54.377635  2305 net.cpp:380] Eltwise19_M2PELU39_0_split -> Eltwise19_M2PELU39_0_split_1
I0929 14:31:54.377660  2305 net.cpp:122] Setting up Eltwise19_M2PELU39_0_split
I0929 14:31:54.377662  2305 net.cpp:129] Top shape: 100 64 7 7 (313600)
I0929 14:31:54.377665  2305 net.cpp:129] Top shape: 100 64 7 7 (313600)
I0929 14:31:54.377667  2305 net.cpp:137] Memory required for data: 801248400
I0929 14:31:54.377671  2305 layer_factory.hpp:77] Creating layer Convolution42
I0929 14:31:54.377676  2305 net.cpp:84] Creating Layer Convolution42
I0929 14:31:54.377678  2305 net.cpp:406] Convolution42 <- Eltwise19_M2PELU39_0_split_0
I0929 14:31:54.377683  2305 net.cpp:380] Convolution42 -> Convolution42
I0929 14:31:54.379506  2305 net.cpp:122] Setting up Convolution42
I0929 14:31:54.379515  2305 net.cpp:129] Top shape: 100 64 7 7 (313600)
I0929 14:31:54.379518  2305 net.cpp:137] Memory required for data: 802502800
I0929 14:31:54.379523  2305 layer_factory.hpp:77] Creating layer BatchNorm42
I0929 14:31:54.379529  2305 net.cpp:84] Creating Layer BatchNorm42
I0929 14:31:54.379531  2305 net.cpp:406] BatchNorm42 <- Convolution42
I0929 14:31:54.379535  2305 net.cpp:367] BatchNorm42 -> Convolution42 (in-place)
I0929 14:31:54.379683  2305 net.cpp:122] Setting up BatchNorm42
I0929 14:31:54.379686  2305 net.cpp:129] Top shape: 100 64 7 7 (313600)
I0929 14:31:54.379689  2305 net.cpp:137] Memory required for data: 803757200
I0929 14:31:54.379693  2305 layer_factory.hpp:77] Creating layer Scale42
I0929 14:31:54.379698  2305 net.cpp:84] Creating Layer Scale42
I0929 14:31:54.379700  2305 net.cpp:406] Scale42 <- Convolution42
I0929 14:31:54.379703  2305 net.cpp:367] Scale42 -> Convolution42 (in-place)
I0929 14:31:54.379730  2305 layer_factory.hpp:77] Creating layer Scale42
I0929 14:31:54.379822  2305 net.cpp:122] Setting up Scale42
I0929 14:31:54.379827  2305 net.cpp:129] Top shape: 100 64 7 7 (313600)
I0929 14:31:54.379829  2305 net.cpp:137] Memory required for data: 805011600
I0929 14:31:54.379833  2305 layer_factory.hpp:77] Creating layer M2PELU40
I0929 14:31:54.379839  2305 net.cpp:84] Creating Layer M2PELU40
I0929 14:31:54.379842  2305 net.cpp:406] M2PELU40 <- Convolution42
I0929 14:31:54.379844  2305 net.cpp:367] M2PELU40 -> Convolution42 (in-place)
I0929 14:31:54.379932  2305 net.cpp:122] Setting up M2PELU40
I0929 14:31:54.379936  2305 net.cpp:129] Top shape: 100 64 7 7 (313600)
I0929 14:31:54.379938  2305 net.cpp:137] Memory required for data: 806266000
I0929 14:31:54.379942  2305 layer_factory.hpp:77] Creating layer Convolution43
I0929 14:31:54.379948  2305 net.cpp:84] Creating Layer Convolution43
I0929 14:31:54.379951  2305 net.cpp:406] Convolution43 <- Convolution42
I0929 14:31:54.379956  2305 net.cpp:380] Convolution43 -> Convolution43
I0929 14:31:54.382230  2305 net.cpp:122] Setting up Convolution43
I0929 14:31:54.382238  2305 net.cpp:129] Top shape: 100 64 7 7 (313600)
I0929 14:31:54.382241  2305 net.cpp:137] Memory required for data: 807520400
I0929 14:31:54.382246  2305 layer_factory.hpp:77] Creating layer BatchNorm43
I0929 14:31:54.382251  2305 net.cpp:84] Creating Layer BatchNorm43
I0929 14:31:54.382254  2305 net.cpp:406] BatchNorm43 <- Convolution43
I0929 14:31:54.382258  2305 net.cpp:367] BatchNorm43 -> Convolution43 (in-place)
I0929 14:31:54.382398  2305 net.cpp:122] Setting up BatchNorm43
I0929 14:31:54.382402  2305 net.cpp:129] Top shape: 100 64 7 7 (313600)
I0929 14:31:54.382405  2305 net.cpp:137] Memory required for data: 808774800
I0929 14:31:54.382410  2305 layer_factory.hpp:77] Creating layer Scale43
I0929 14:31:54.382414  2305 net.cpp:84] Creating Layer Scale43
I0929 14:31:54.382417  2305 net.cpp:406] Scale43 <- Convolution43
I0929 14:31:54.382421  2305 net.cpp:367] Scale43 -> Convolution43 (in-place)
I0929 14:31:54.382448  2305 layer_factory.hpp:77] Creating layer Scale43
I0929 14:31:54.382544  2305 net.cpp:122] Setting up Scale43
I0929 14:31:54.382550  2305 net.cpp:129] Top shape: 100 64 7 7 (313600)
I0929 14:31:54.382551  2305 net.cpp:137] Memory required for data: 810029200
I0929 14:31:54.382555  2305 layer_factory.hpp:77] Creating layer Eltwise20
I0929 14:31:54.382560  2305 net.cpp:84] Creating Layer Eltwise20
I0929 14:31:54.382571  2305 net.cpp:406] Eltwise20 <- Eltwise19_M2PELU39_0_split_1
I0929 14:31:54.382575  2305 net.cpp:406] Eltwise20 <- Convolution43
I0929 14:31:54.382580  2305 net.cpp:380] Eltwise20 -> Eltwise20
I0929 14:31:54.382596  2305 net.cpp:122] Setting up Eltwise20
I0929 14:31:54.382601  2305 net.cpp:129] Top shape: 100 64 7 7 (313600)
I0929 14:31:54.382602  2305 net.cpp:137] Memory required for data: 811283600
I0929 14:31:54.382604  2305 layer_factory.hpp:77] Creating layer M2PELU41
I0929 14:31:54.382609  2305 net.cpp:84] Creating Layer M2PELU41
I0929 14:31:54.382612  2305 net.cpp:406] M2PELU41 <- Eltwise20
I0929 14:31:54.382616  2305 net.cpp:367] M2PELU41 -> Eltwise20 (in-place)
I0929 14:31:54.382701  2305 net.cpp:122] Setting up M2PELU41
I0929 14:31:54.382705  2305 net.cpp:129] Top shape: 100 64 7 7 (313600)
I0929 14:31:54.382707  2305 net.cpp:137] Memory required for data: 812538000
I0929 14:31:54.382711  2305 layer_factory.hpp:77] Creating layer Eltwise20_M2PELU41_0_split
I0929 14:31:54.382715  2305 net.cpp:84] Creating Layer Eltwise20_M2PELU41_0_split
I0929 14:31:54.382719  2305 net.cpp:406] Eltwise20_M2PELU41_0_split <- Eltwise20
I0929 14:31:54.382721  2305 net.cpp:380] Eltwise20_M2PELU41_0_split -> Eltwise20_M2PELU41_0_split_0
I0929 14:31:54.382725  2305 net.cpp:380] Eltwise20_M2PELU41_0_split -> Eltwise20_M2PELU41_0_split_1
I0929 14:31:54.382748  2305 net.cpp:122] Setting up Eltwise20_M2PELU41_0_split
I0929 14:31:54.382752  2305 net.cpp:129] Top shape: 100 64 7 7 (313600)
I0929 14:31:54.382755  2305 net.cpp:129] Top shape: 100 64 7 7 (313600)
I0929 14:31:54.382757  2305 net.cpp:137] Memory required for data: 815046800
I0929 14:31:54.382766  2305 layer_factory.hpp:77] Creating layer Convolution44
I0929 14:31:54.382772  2305 net.cpp:84] Creating Layer Convolution44
I0929 14:31:54.382776  2305 net.cpp:406] Convolution44 <- Eltwise20_M2PELU41_0_split_0
I0929 14:31:54.382779  2305 net.cpp:380] Convolution44 -> Convolution44
I0929 14:31:54.384428  2305 net.cpp:122] Setting up Convolution44
I0929 14:31:54.384435  2305 net.cpp:129] Top shape: 100 64 7 7 (313600)
I0929 14:31:54.384438  2305 net.cpp:137] Memory required for data: 816301200
I0929 14:31:54.384443  2305 layer_factory.hpp:77] Creating layer BatchNorm44
I0929 14:31:54.384446  2305 net.cpp:84] Creating Layer BatchNorm44
I0929 14:31:54.384449  2305 net.cpp:406] BatchNorm44 <- Convolution44
I0929 14:31:54.384454  2305 net.cpp:367] BatchNorm44 -> Convolution44 (in-place)
I0929 14:31:54.384594  2305 net.cpp:122] Setting up BatchNorm44
I0929 14:31:54.384598  2305 net.cpp:129] Top shape: 100 64 7 7 (313600)
I0929 14:31:54.384600  2305 net.cpp:137] Memory required for data: 817555600
I0929 14:31:54.384605  2305 layer_factory.hpp:77] Creating layer Scale44
I0929 14:31:54.384609  2305 net.cpp:84] Creating Layer Scale44
I0929 14:31:54.384613  2305 net.cpp:406] Scale44 <- Convolution44
I0929 14:31:54.384616  2305 net.cpp:367] Scale44 -> Convolution44 (in-place)
I0929 14:31:54.384644  2305 layer_factory.hpp:77] Creating layer Scale44
I0929 14:31:54.384723  2305 net.cpp:122] Setting up Scale44
I0929 14:31:54.384727  2305 net.cpp:129] Top shape: 100 64 7 7 (313600)
I0929 14:31:54.384729  2305 net.cpp:137] Memory required for data: 818810000
I0929 14:31:54.384733  2305 layer_factory.hpp:77] Creating layer M2PELU42
I0929 14:31:54.384737  2305 net.cpp:84] Creating Layer M2PELU42
I0929 14:31:54.384740  2305 net.cpp:406] M2PELU42 <- Convolution44
I0929 14:31:54.384744  2305 net.cpp:367] M2PELU42 -> Convolution44 (in-place)
I0929 14:31:54.384833  2305 net.cpp:122] Setting up M2PELU42
I0929 14:31:54.384837  2305 net.cpp:129] Top shape: 100 64 7 7 (313600)
I0929 14:31:54.384840  2305 net.cpp:137] Memory required for data: 820064400
I0929 14:31:54.384843  2305 layer_factory.hpp:77] Creating layer Convolution45
I0929 14:31:54.384850  2305 net.cpp:84] Creating Layer Convolution45
I0929 14:31:54.384852  2305 net.cpp:406] Convolution45 <- Convolution44
I0929 14:31:54.384856  2305 net.cpp:380] Convolution45 -> Convolution45
I0929 14:31:54.386823  2305 net.cpp:122] Setting up Convolution45
I0929 14:31:54.386832  2305 net.cpp:129] Top shape: 100 64 7 7 (313600)
I0929 14:31:54.386834  2305 net.cpp:137] Memory required for data: 821318800
I0929 14:31:54.386839  2305 layer_factory.hpp:77] Creating layer BatchNorm45
I0929 14:31:54.386844  2305 net.cpp:84] Creating Layer BatchNorm45
I0929 14:31:54.386847  2305 net.cpp:406] BatchNorm45 <- Convolution45
I0929 14:31:54.386852  2305 net.cpp:367] BatchNorm45 -> Convolution45 (in-place)
I0929 14:31:54.387004  2305 net.cpp:122] Setting up BatchNorm45
I0929 14:31:54.387009  2305 net.cpp:129] Top shape: 100 64 7 7 (313600)
I0929 14:31:54.387012  2305 net.cpp:137] Memory required for data: 822573200
I0929 14:31:54.387017  2305 layer_factory.hpp:77] Creating layer Scale45
I0929 14:31:54.387022  2305 net.cpp:84] Creating Layer Scale45
I0929 14:31:54.387023  2305 net.cpp:406] Scale45 <- Convolution45
I0929 14:31:54.387027  2305 net.cpp:367] Scale45 -> Convolution45 (in-place)
I0929 14:31:54.387064  2305 layer_factory.hpp:77] Creating layer Scale45
I0929 14:31:54.387146  2305 net.cpp:122] Setting up Scale45
I0929 14:31:54.387151  2305 net.cpp:129] Top shape: 100 64 7 7 (313600)
I0929 14:31:54.387153  2305 net.cpp:137] Memory required for data: 823827600
…
I0929 14:31:54.746327  2305 net.cpp:84] Creating Layer BatchNorm40
I0929 14:31:54.746330  2305 net.cpp:406] BatchNorm40 <- Convolution40
I0929 14:31:54.746333  2305 net.cpp:367] BatchNorm40 -> Convolution40 (in-place)
I0929 14:31:54.746469  2305 net.cpp:122] Setting up BatchNorm40
I0929 14:31:54.746474  2305 net.cpp:129] Top shape: 100 64 8 8 (409600)
I0929 14:31:54.746476  2305 net.cpp:137] Memory required for data: 1031783600
I0929 14:31:54.746481  2305 layer_factory.hpp:77] Creating layer Scale40
I0929 14:31:54.746485  2305 net.cpp:84] Creating Layer Scale40
I0929 14:31:54.746487  2305 net.cpp:406] Scale40 <- Convolution40
I0929 14:31:54.746491  2305 net.cpp:367] Scale40 -> Convolution40 (in-place)
I0929 14:31:54.746518  2305 layer_factory.hpp:77] Creating layer Scale40
I0929 14:31:54.746649  2305 net.cpp:122] Setting up Scale40
I0929 14:31:54.746654  2305 net.cpp:129] Top shape: 100 64 8 8 (409600)
I0929 14:31:54.746656  2305 net.cpp:137] Memory required for data: 1033422000
I0929 14:31:54.746660  2305 layer_factory.hpp:77] Creating layer M2PELU38
I0929 14:31:54.746665  2305 net.cpp:84] Creating Layer M2PELU38
I0929 14:31:54.746668  2305 net.cpp:406] M2PELU38 <- Convolution40
I0929 14:31:54.746681  2305 net.cpp:367] M2PELU38 -> Convolution40 (in-place)
I0929 14:31:54.746779  2305 net.cpp:122] Setting up M2PELU38
I0929 14:31:54.746784  2305 net.cpp:129] Top shape: 100 64 8 8 (409600)
I0929 14:31:54.746786  2305 net.cpp:137] Memory required for data: 1035060400
I0929 14:31:54.746790  2305 layer_factory.hpp:77] Creating layer Convolution41
I0929 14:31:54.746799  2305 net.cpp:84] Creating Layer Convolution41
I0929 14:31:54.746801  2305 net.cpp:406] Convolution41 <- Convolution40
I0929 14:31:54.746805  2305 net.cpp:380] Convolution41 -> Convolution41
I0929 14:31:54.748510  2305 net.cpp:122] Setting up Convolution41
I0929 14:31:54.748519  2305 net.cpp:129] Top shape: 100 64 8 8 (409600)
I0929 14:31:54.748522  2305 net.cpp:137] Memory required for data: 1036698800
I0929 14:31:54.748527  2305 layer_factory.hpp:77] Creating layer BatchNorm41
I0929 14:31:54.748531  2305 net.cpp:84] Creating Layer BatchNorm41
I0929 14:31:54.748534  2305 net.cpp:406] BatchNorm41 <- Convolution41
I0929 14:31:54.748538  2305 net.cpp:367] BatchNorm41 -> Convolution41 (in-place)
I0929 14:31:54.748668  2305 net.cpp:122] Setting up BatchNorm41
I0929 14:31:54.748672  2305 net.cpp:129] Top shape: 100 64 8 8 (409600)
I0929 14:31:54.748674  2305 net.cpp:137] Memory required for data: 1038337200
I0929 14:31:54.748679  2305 layer_factory.hpp:77] Creating layer Scale41
I0929 14:31:54.748682  2305 net.cpp:84] Creating Layer Scale41
I0929 14:31:54.748685  2305 net.cpp:406] Scale41 <- Convolution41
I0929 14:31:54.748688  2305 net.cpp:367] Scale41 -> Convolution41 (in-place)
I0929 14:31:54.748716  2305 layer_factory.hpp:77] Creating layer Scale41
I0929 14:31:54.748791  2305 net.cpp:122] Setting up Scale41
I0929 14:31:54.748796  2305 net.cpp:129] Top shape: 100 64 8 8 (409600)
I0929 14:31:54.748798  2305 net.cpp:137] Memory required for data: 1039975600
I0929 14:31:54.748801  2305 layer_factory.hpp:77] Creating layer Eltwise19
I0929 14:31:54.748806  2305 net.cpp:84] Creating Layer Eltwise19
I0929 14:31:54.748809  2305 net.cpp:406] Eltwise19 <- Convolution39
I0929 14:31:54.748812  2305 net.cpp:406] Eltwise19 <- Convolution41
I0929 14:31:54.748816  2305 net.cpp:380] Eltwise19 -> Eltwise19
I0929 14:31:54.748832  2305 net.cpp:122] Setting up Eltwise19
I0929 14:31:54.748836  2305 net.cpp:129] Top shape: 100 64 8 8 (409600)
I0929 14:31:54.748837  2305 net.cpp:137] Memory required for data: 1041614000
I0929 14:31:54.748841  2305 layer_factory.hpp:77] Creating layer M2PELU39
I0929 14:31:54.748844  2305 net.cpp:84] Creating Layer M2PELU39
I0929 14:31:54.748847  2305 net.cpp:406] M2PELU39 <- Eltwise19
I0929 14:31:54.748850  2305 net.cpp:367] M2PELU39 -> Eltwise19 (in-place)
I0929 14:31:54.748936  2305 net.cpp:122] Setting up M2PELU39
I0929 14:31:54.748941  2305 net.cpp:129] Top shape: 100 64 8 8 (409600)
I0929 14:31:54.748944  2305 net.cpp:137] Memory required for data: 1043252400
I0929 14:31:54.748947  2305 layer_factory.hpp:77] Creating layer Eltwise19_M2PELU39_0_split
I0929 14:31:54.748951  2305 net.cpp:84] Creating Layer Eltwise19_M2PELU39_0_split
I0929 14:31:54.748953  2305 net.cpp:406] Eltwise19_M2PELU39_0_split <- Eltwise19
I0929 14:31:54.748957  2305 net.cpp:380] Eltwise19_M2PELU39_0_split -> Eltwise19_M2PELU39_0_split_0
I0929 14:31:54.748961  2305 net.cpp:380] Eltwise19_M2PELU39_0_split -> Eltwise19_M2PELU39_0_split_1
I0929 14:31:54.748984  2305 net.cpp:122] Setting up Eltwise19_M2PELU39_0_split
I0929 14:31:54.748988  2305 net.cpp:129] Top shape: 100 64 8 8 (409600)
I0929 14:31:54.748991  2305 net.cpp:129] Top shape: 100 64 8 8 (409600)
I0929 14:31:54.748993  2305 net.cpp:137] Memory required for data: 1046529200
I0929 14:31:54.748996  2305 layer_factory.hpp:77] Creating layer Convolution42
I0929 14:31:54.749002  2305 net.cpp:84] Creating Layer Convolution42
I0929 14:31:54.749006  2305 net.cpp:406] Convolution42 <- Eltwise19_M2PELU39_0_split_0
I0929 14:31:54.749009  2305 net.cpp:380] Convolution42 -> Convolution42
I0929 14:31:54.750701  2305 net.cpp:122] Setting up Convolution42
I0929 14:31:54.750710  2305 net.cpp:129] Top shape: 100 64 8 8 (409600)
I0929 14:31:54.750720  2305 net.cpp:137] Memory required for data: 1048167600
I0929 14:31:54.750725  2305 layer_factory.hpp:77] Creating layer BatchNorm42
I0929 14:31:54.750730  2305 net.cpp:84] Creating Layer BatchNorm42
I0929 14:31:54.750732  2305 net.cpp:406] BatchNorm42 <- Convolution42
I0929 14:31:54.750736  2305 net.cpp:367] BatchNorm42 -> Convolution42 (in-place)
I0929 14:31:54.750869  2305 net.cpp:122] Setting up BatchNorm42
I0929 14:31:54.750874  2305 net.cpp:129] Top shape: 100 64 8 8 (409600)
I0929 14:31:54.750876  2305 net.cpp:137] Memory required for data: 1049806000
I0929 14:31:54.750881  2305 layer_factory.hpp:77] Creating layer Scale42
I0929 14:31:54.750885  2305 net.cpp:84] Creating Layer Scale42
I0929 14:31:54.750887  2305 net.cpp:406] Scale42 <- Convolution42
I0929 14:31:54.750892  2305 net.cpp:367] Scale42 -> Convolution42 (in-place)
I0929 14:31:54.750918  2305 layer_factory.hpp:77] Creating layer Scale42
I0929 14:31:54.750995  2305 net.cpp:122] Setting up Scale42
I0929 14:31:54.750999  2305 net.cpp:129] Top shape: 100 64 8 8 (409600)
I0929 14:31:54.751001  2305 net.cpp:137] Memory required for data: 1051444400
I0929 14:31:54.751005  2305 layer_factory.hpp:77] Creating layer M2PELU40
I0929 14:31:54.751010  2305 net.cpp:84] Creating Layer M2PELU40
I0929 14:31:54.751013  2305 net.cpp:406] M2PELU40 <- Convolution42
I0929 14:31:54.751016  2305 net.cpp:367] M2PELU40 -> Convolution42 (in-place)
I0929 14:31:54.751106  2305 net.cpp:122] Setting up M2PELU40
I0929 14:31:54.751109  2305 net.cpp:129] Top shape: 100 64 8 8 (409600)
I0929 14:31:54.751111  2305 net.cpp:137] Memory required for data: 1053082800
I0929 14:31:54.751116  2305 layer_factory.hpp:77] Creating layer Convolution43
I0929 14:31:54.751122  2305 net.cpp:84] Creating Layer Convolution43
I0929 14:31:54.751124  2305 net.cpp:406] Convolution43 <- Convolution42
I0929 14:31:54.751128  2305 net.cpp:380] Convolution43 -> Convolution43
I0929 14:31:54.752813  2305 net.cpp:122] Setting up Convolution43
I0929 14:31:54.752822  2305 net.cpp:129] Top shape: 100 64 8 8 (409600)
I0929 14:31:54.752825  2305 net.cpp:137] Memory required for data: 1054721200
I0929 14:31:54.752830  2305 layer_factory.hpp:77] Creating layer BatchNorm43
I0929 14:31:54.752835  2305 net.cpp:84] Creating Layer BatchNorm43
I0929 14:31:54.752838  2305 net.cpp:406] BatchNorm43 <- Convolution43
I0929 14:31:54.752841  2305 net.cpp:367] BatchNorm43 -> Convolution43 (in-place)
I0929 14:31:54.752974  2305 net.cpp:122] Setting up BatchNorm43
I0929 14:31:54.752979  2305 net.cpp:129] Top shape: 100 64 8 8 (409600)
I0929 14:31:54.752980  2305 net.cpp:137] Memory required for data: 1056359600
I0929 14:31:54.752985  2305 layer_factory.hpp:77] Creating layer Scale43
I0929 14:31:54.752988  2305 net.cpp:84] Creating Layer Scale43
I0929 14:31:54.752991  2305 net.cpp:406] Scale43 <- Convolution43
I0929 14:31:54.752995  2305 net.cpp:367] Scale43 -> Convolution43 (in-place)
I0929 14:31:54.753021  2305 layer_factory.hpp:77] Creating layer Scale43
I0929 14:31:54.753099  2305 net.cpp:122] Setting up Scale43
I0929 14:31:54.753104  2305 net.cpp:129] Top shape: 100 64 8 8 (409600)
I0929 14:31:54.753106  2305 net.cpp:137] Memory required for data: 1057998000
I0929 14:31:54.753110  2305 layer_factory.hpp:77] Creating layer Eltwise20
I0929 14:31:54.753114  2305 net.cpp:84] Creating Layer Eltwise20
I0929 14:31:54.753118  2305 net.cpp:406] Eltwise20 <- Eltwise19_M2PELU39_0_split_1
I0929 14:31:54.753120  2305 net.cpp:406] Eltwise20 <- Convolution43
I0929 14:31:54.753123  2305 net.cpp:380] Eltwise20 -> Eltwise20
I0929 14:31:54.753140  2305 net.cpp:122] Setting up Eltwise20
I0929 14:31:54.753144  2305 net.cpp:129] Top shape: 100 64 8 8 (409600)
I0929 14:31:54.753146  2305 net.cpp:137] Memory required for data: 1059636400
I0929 14:31:54.753149  2305 layer_factory.hpp:77] Creating layer M2PELU41
I0929 14:31:54.753154  2305 net.cpp:84] Creating Layer M2PELU41
I0929 14:31:54.753155  2305 net.cpp:406] M2PELU41 <- Eltwise20
I0929 14:31:54.753159  2305 net.cpp:367] M2PELU41 -> Eltwise20 (in-place)
I0929 14:31:54.753255  2305 net.cpp:122] Setting up M2PELU41
I0929 14:31:54.753262  2305 net.cpp:129] Top shape: 100 64 8 8 (409600)
I0929 14:31:54.753263  2305 net.cpp:137] Memory required for data: 1061274800
I0929 14:31:54.753268  2305 layer_factory.hpp:77] Creating layer Eltwise20_M2PELU41_0_split
I0929 14:31:54.753270  2305 net.cpp:84] Creating Layer Eltwise20_M2PELU41_0_split
I0929 14:31:54.753273  2305 net.cpp:406] Eltwise20_M2PELU41_0_split <- Eltwise20
I0929 14:31:54.753276  2305 net.cpp:380] Eltwise20_M2PELU41_0_split -> Eltwise20_M2PELU41_0_split_0
I0929 14:31:54.753280  2305 net.cpp:380] Eltwise20_M2PELU41_0_split -> Eltwise20_M2PELU41_0_split_1
I0929 14:31:54.753305  2305 net.cpp:122] Setting up Eltwise20_M2PELU41_0_split
I0929 14:31:54.753309  2305 net.cpp:129] Top shape: 100 64 8 8 (409600)
I0929 14:31:54.753311  2305 net.cpp:129] Top shape: 100 64 8 8 (409600)
I0929 14:31:54.753314  2305 net.cpp:137] Memory required for data: 1064551600
I0929 14:31:54.753316  2305 layer_factory.hpp:77] Creating layer Convolution44
I0929 14:31:54.753322  2305 net.cpp:84] Creating Layer Convolution44
I0929 14:31:54.753324  2305 net.cpp:406] Convolution44 <- Eltwise20_M2PELU41_0_split_0
I0929 14:31:54.753329  2305 net.cpp:380] Convolution44 -> Convolution44
I0929 14:31:54.755329  2305 net.cpp:122] Setting up Convolution44
I0929 14:31:54.755338  2305 net.cpp:129] Top shape: 100 64 8 8 (409600)
I0929 14:31:54.755340  2305 net.cpp:137] Memory required for data: 1066190000
I0929 14:31:54.755347  2305 layer_factory.hpp:77] Creating layer BatchNorm44
I0929 14:31:54.755350  2305 net.cpp:84] Creating Layer BatchNorm44
I0929 14:31:54.755353  2305 net.cpp:406] BatchNorm44 <- Convolution44
I0929 14:31:54.755357  2305 net.cpp:367] BatchNorm44 -> Convolution44 (in-place)
I0929 14:31:54.755496  2305 net.cpp:122] Setting up BatchNorm44
I0929 14:31:54.755501  2305 net.cpp:129] Top shape: 100 64 8 8 (409600)
I0929 14:31:54.755503  2305 net.cpp:137] Memory required for data: 1067828400
I0929 14:31:54.773381  2305 layer_factory.hpp:77] Creating layer Scale44
I0929 14:31:54.773389  2305 net.cpp:84] Creating Layer Scale44
I0929 14:31:54.773393  2305 net.cpp:406] Scale44 <- Convolution44
I0929 14:31:54.773396  2305 net.cpp:367] Scale44 -> Convolution44 (in-place)
I0929 14:31:54.773435  2305 layer_factory.hpp:77] Creating layer Scale44
I0929 14:31:54.773524  2305 net.cpp:122] Setting up Scale44
I0929 14:31:54.773528  2305 net.cpp:129] Top shape: 100 64 8 8 (409600)
I0929 14:31:54.773530  2305 net.cpp:137] Memory required for data: 1069466800
I0929 14:31:54.773535  2305 layer_factory.hpp:77] Creating layer M2PELU42
I0929 14:31:54.773540  2305 net.cpp:84] Creating Layer M2PELU42
I0929 14:31:54.773542  2305 net.cpp:406] M2PELU42 <- Convolution44
I0929 14:31:54.773548  2305 net.cpp:367] M2PELU42 -> Convolution44 (in-place)
I0929 14:31:54.773649  2305 net.cpp:122] Setting up M2PELU42
I0929 14:31:54.773654  2305 net.cpp:129] Top shape: 100 64 8 8 (409600)
I0929 14:31:54.773656  2305 net.cpp:137] Memory required for data: 1071105200
I0929 14:31:54.773660  2305 layer_factory.hpp:77] Creating layer Convolution45
I0929 14:31:54.773669  2305 net.cpp:84] Creating Layer Convolution45
I0929 14:31:54.773671  2305 net.cpp:406] Convolution45 <- Convolution44
I0929 14:31:54.773676  2305 net.cpp:380] Convolution45 -> Convolution45
I0929 14:31:54.775750  2305 net.cpp:122] Setting up Convolution45
I0929 14:31:54.775761  2305 net.cpp:129] Top shape: 100 64 8 8 (409600)
I0929 14:31:54.775763  2305 net.cpp:137] Memory required for data: 1072743600
I0929 14:31:54.775768  2305 layer_factory.hpp:77] Creating layer BatchNorm45
I0929 14:31:54.775777  2305 net.cpp:84] Creating Layer BatchNorm45
I0929 14:31:54.775780  2305 net.cpp:406] BatchNorm45 <- Convolution45
I0929 14:31:54.775784  2305 net.cpp:367] BatchNorm45 -> Convolution45 (in-place)
I0929 14:31:54.776006  2305 net.cpp:122] Setting up BatchNorm45
I0929 14:31:54.776011  2305 net.cpp:129] Top shape: 100 64 8 8 (409600)
I0929 14:31:54.776013  2305 net.cpp:137] Memory required for data: 1074382000
I0929 14:31:54.776027  2305 layer_factory.hpp:77] Creating layer Scale45
I0929 14:31:54.776033  2305 net.cpp:84] Creating Layer Scale45
I0929 14:31:54.776036  2305 net.cpp:406] Scale45 <- Convolution45
I0929 14:31:54.776039  2305 net.cpp:367] Scale45 -> Convolution45 (in-place)
I0929 14:31:54.776070  2305 layer_factory.hpp:77] Creating layer Scale45
I0929 14:31:54.776150  2305 net.cpp:122] Setting up Scale45
I0929 14:31:54.776155  2305 net.cpp:129] Top shape: 100 64 8 8 (409600)
I0929 14:31:54.776157  2305 net.cpp:137] Memory required for data: 1076020400
I0929 14:31:54.776161  2305 layer_factory.hpp:77] Creating layer Eltwise21
I0929 14:31:54.776166  2305 net.cpp:84] Creating Layer Eltwise21
I0929 14:31:54.776170  2305 net.cpp:406] Eltwise21 <- Eltwise20_M2PELU41_0_split_1
I0929 14:31:54.776173  2305 net.cpp:406] Eltwise21 <- Convolution45
I0929 14:31:54.776176  2305 net.cpp:380] Eltwise21 -> Eltwise21
I0929 14:31:54.776193  2305 net.cpp:122] Setting up Eltwise21
I0929 14:31:54.776197  2305 net.cpp:129] Top shape: 100 64 8 8 (409600)
I0929 14:31:54.776199  2305 net.cpp:137] Memory required for data: 1077658800
I0929 14:31:54.776201  2305 layer_factory.hpp:77] Creating layer M2PELU43
I0929 14:31:54.776207  2305 net.cpp:84] Creating Layer M2PELU43
I0929 14:31:54.776209  2305 net.cpp:406] M2PELU43 <- Eltwise21
I0929 14:31:54.776212  2305 net.cpp:367] M2PELU43 -> Eltwise21 (in-place)
I0929 14:31:54.776307  2305 net.cpp:122] Setting up M2PELU43
I0929 14:31:54.776311  2305 net.cpp:129] Top shape: 100 64 8 8 (409600)
I0929 14:31:54.776314  2305 net.cpp:137] Memory required for data: 1079297200
I0929 14:31:54.776317  2305 layer_factory.hpp:77] Creating layer Eltwise21_M2PELU43_0_split
I0929 14:31:54.776322  2305 net.cpp:84] Creating Layer Eltwise21_M2PELU43_0_split
I0929 14:31:54.776324  2305 net.cpp:406] Eltwise21_M2PELU43_0_split <- Eltwise21
I0929 14:31:54.776329  2305 net.cpp:380] Eltwise21_M2PELU43_0_split -> Eltwise21_M2PELU43_0_split_0
I0929 14:31:54.776335  2305 net.cpp:380] Eltwise21_M2PELU43_0_split -> Eltwise21_M2PELU43_0_split_1
I0929 14:31:54.776360  2305 net.cpp:122] Setting up Eltwise21_M2PELU43_0_split
I0929 14:31:54.776362  2305 net.cpp:129] Top shape: 100 64 8 8 (409600)
I0929 14:31:54.776365  2305 net.cpp:129] Top shape: 100 64 8 8 (409600)
I0929 14:31:54.776367  2305 net.cpp:137] Memory required for data: 1082574000
I0929 14:31:54.776370  2305 layer_factory.hpp:77] Creating layer Convolution46
I0929 14:31:54.776376  2305 net.cpp:84] Creating Layer Convolution46
I0929 14:31:54.776378  2305 net.cpp:406] Convolution46 <- Eltwise21_M2PELU43_0_split_0
I0929 14:31:54.776383  2305 net.cpp:380] Convolution46 -> Convolution46
I0929 14:31:54.778167  2305 net.cpp:122] Setting up Convolution46
I0929 14:31:54.778177  2305 net.cpp:129] Top shape: 100 64 8 8 (409600)
I0929 14:31:54.778179  2305 net.cpp:137] Memory required for data: 1084212400
I0929 14:31:54.778183  2305 layer_factory.hpp:77] Creating layer BatchNorm46
I0929 14:31:54.778188  2305 net.cpp:84] Creating Layer BatchNorm46
I0929 14:31:54.778192  2305 net.cpp:406] BatchNorm46 <- Convolution46
I0929 14:31:54.778195  2305 net.cpp:367] BatchNorm46 -> Convolution46 (in-place)
I0929 14:31:54.778338  2305 net.cpp:122] Setting up BatchNorm46
I0929 14:31:54.778343  2305 net.cpp:129] Top shape: 100 64 8 8 (409600)
I0929 14:31:54.778345  2305 net.cpp:137] Memory required for data: 1085850800
I0929 14:31:54.778350  2305 layer_factory.hpp:77] Creating layer Scale46
I0929 14:31:54.778354  2305 net.cpp:84] Creating Layer Scale46
I0929 14:31:54.778357  2305 net.cpp:406] Scale46 <- Convolution46
I0929 14:31:54.778360  2305 net.cpp:367] Scale46 -> Convolution46 (in-place)
I0929 14:31:54.778388  2305 layer_factory.hpp:77] Creating layer Scale46
I0929 14:31:54.778470  2305 net.cpp:122] Setting up Scale46
I0929 14:31:54.778475  2305 net.cpp:129] Top shape: 100 64 8 8 (409600)
I0929 14:31:54.778476  2305 net.cpp:137] Memory required for data: 1087489200
I0929 14:31:54.778481  2305 layer_factory.hpp:77] Creating layer M2PELU44
I0929 14:31:54.778486  2305 net.cpp:84] Creating Layer M2PELU44
I0929 14:31:54.778494  2305 net.cpp:406] M2PELU44 <- Convolution46
I0929 14:31:54.778499  2305 net.cpp:367] M2PELU44 -> Convolution46 (in-place)
I0929 14:31:54.778604  2305 net.cpp:122] Setting up M2PELU44
I0929 14:31:54.778609  2305 net.cpp:129] Top shape: 100 64 8 8 (409600)
I0929 14:31:54.778612  2305 net.cpp:137] Memory required for data: 1089127600
I0929 14:31:54.778616  2305 layer_factory.hpp:77] Creating layer Convolution47
I0929 14:31:54.778623  2305 net.cpp:84] Creating Layer Convolution47
I0929 14:31:54.778626  2305 net.cpp:406] Convolution47 <- Convolution46
I0929 14:31:54.778630  2305 net.cpp:380] Convolution47 -> Convolution47
I0929 14:31:54.780365  2305 net.cpp:122] Setting up Convolution47
I0929 14:31:54.780375  2305 net.cpp:129] Top shape: 100 64 8 8 (409600)
I0929 14:31:54.780377  2305 net.cpp:137] Memory required for data: 1090766000
I0929 14:31:54.780381  2305 layer_factory.hpp:77] Creating layer BatchNorm47
I0929 14:31:54.780387  2305 net.cpp:84] Creating Layer BatchNorm47
I0929 14:31:54.780390  2305 net.cpp:406] BatchNorm47 <- Convolution47
I0929 14:31:54.780395  2305 net.cpp:367] BatchNorm47 -> Convolution47 (in-place)
I0929 14:31:54.780531  2305 net.cpp:122] Setting up BatchNorm47
I0929 14:31:54.780536  2305 net.cpp:129] Top shape: 100 64 8 8 (409600)
I0929 14:31:54.780539  2305 net.cpp:137] Memory required for data: 1092404400
I0929 14:31:54.780544  2305 layer_factory.hpp:77] Creating layer Scale47
I0929 14:31:54.780547  2305 net.cpp:84] Creating Layer Scale47
I0929 14:31:54.780550  2305 net.cpp:406] Scale47 <- Convolution47
I0929 14:31:54.780553  2305 net.cpp:367] Scale47 -> Convolution47 (in-place)
I0929 14:31:54.780581  2305 layer_factory.hpp:77] Creating layer Scale47
I0929 14:31:54.780660  2305 net.cpp:122] Setting up Scale47
I0929 14:31:54.780665  2305 net.cpp:129] Top shape: 100 64 8 8 (409600)
I0929 14:31:54.780668  2305 net.cpp:137] Memory required for data: 1094042800
I0929 14:31:54.780671  2305 layer_factory.hpp:77] Creating layer Eltwise22
I0929 14:31:54.780675  2305 net.cpp:84] Creating Layer Eltwise22
I0929 14:31:54.780678  2305 net.cpp:406] Eltwise22 <- Eltwise21_M2PELU43_0_split_1
I0929 14:31:54.780681  2305 net.cpp:406] Eltwise22 <- Convolution47
I0929 14:31:54.780685  2305 net.cpp:380] Eltwise22 -> Eltwise22
I0929 14:31:54.780701  2305 net.cpp:122] Setting up Eltwise22
I0929 14:31:54.780705  2305 net.cpp:129] Top shape: 100 64 8 8 (409600)
I0929 14:31:54.780707  2305 net.cpp:137] Memory required for data: 1095681200
I0929 14:31:54.780710  2305 layer_factory.hpp:77] Creating layer M2PELU45
I0929 14:31:54.780715  2305 net.cpp:84] Creating Layer M2PELU45
I0929 14:31:54.780717  2305 net.cpp:406] M2PELU45 <- Eltwise22
I0929 14:31:54.780720  2305 net.cpp:367] M2PELU45 -> Eltwise22 (in-place)
I0929 14:31:54.780812  2305 net.cpp:122] Setting up M2PELU45
I0929 14:31:54.780817  2305 net.cpp:129] Top shape: 100 64 8 8 (409600)
I0929 14:31:54.780819  2305 net.cpp:137] Memory required for data: 1097319600
I0929 14:31:54.780823  2305 layer_factory.hpp:77] Creating layer Eltwise22_M2PELU45_0_split
I0929 14:31:54.780827  2305 net.cpp:84] Creating Layer Eltwise22_M2PELU45_0_split
I0929 14:31:54.780830  2305 net.cpp:406] Eltwise22_M2PELU45_0_split <- Eltwise22
I0929 14:31:54.780833  2305 net.cpp:380] Eltwise22_M2PELU45_0_split -> Eltwise22_M2PELU45_0_split_0
I0929 14:31:54.780838  2305 net.cpp:380] Eltwise22_M2PELU45_0_split -> Eltwise22_M2PELU45_0_split_1
I0929 14:31:54.780861  2305 net.cpp:122] Setting up Eltwise22_M2PELU45_0_split
I0929 14:31:54.780865  2305 net.cpp:129] Top shape: 100 64 8 8 (409600)
I0929 14:31:54.780869  2305 net.cpp:129] Top shape: 100 64 8 8 (409600)
I0929 14:31:54.780870  2305 net.cpp:137] Memory required for data: 1100596400
I0929 14:31:54.780872  2305 layer_factory.hpp:77] Creating layer Convolution48
I0929 14:31:54.780879  2305 net.cpp:84] Creating Layer Convolution48
I0929 14:31:54.780881  2305 net.cpp:406] Convolution48 <- Eltwise22_M2PELU45_0_split_0
I0929 14:31:54.780885  2305 net.cpp:380] Convolution48 -> Convolution48
I0929 14:31:54.782941  2305 net.cpp:122] Setting up Convolution48
I0929 14:31:54.782956  2305 net.cpp:129] Top shape: 100 64 8 8 (409600)
I0929 14:31:54.782959  2305 net.cpp:137] Memory required for data: 1102234800
I0929 14:31:54.782964  2305 layer_factory.hpp:77] Creating layer BatchNorm48
I0929 14:31:54.782971  2305 net.cpp:84] Creating Layer BatchNorm48
I0929 14:31:54.782974  2305 net.cpp:406] BatchNorm48 <- Convolution48
I0929 14:31:54.782979  2305 net.cpp:367] BatchNorm48 -> Convolution48 (in-place)
I0929 14:31:54.783123  2305 net.cpp:122] Setting up BatchNorm48
I0929 14:31:54.783128  2305 net.cpp:129] Top shape: 100 64 8 8 (409600)
I0929 14:31:54.783130  2305 net.cpp:137] Memory required for data: 1103873200
I0929 14:31:54.783134  2305 layer_factory.hpp:77] Creating layer Scale48
I0929 14:31:54.783140  2305 net.cpp:84] Creating Layer Scale48
I0929 14:31:54.783143  2305 net.cpp:406] Scale48 <- Convolution48
I0929 14:31:54.783146  2305 net.cpp:367] Scale48 -> Convolution48 (in-place)
I0929 14:31:54.783175  2305 layer_factory.hpp:77] Creating layer Scale48
I0929 14:31:54.783257  2305 net.cpp:122] Setting up Scale48
I0929 14:31:54.783262  2305 net.cpp:129] Top shape: 100 64 8 8 (409600)
I0929 14:31:54.783263  2305 net.cpp:137] Memory required for data: 1105511600
I0929 14:31:54.783267  2305 layer_factory.hpp:77] Creating layer M2PELU46
I0929 14:31:54.783273  2305 net.cpp:84] Creating Layer M2PELU46
I0929 14:31:54.783277  2305 net.cpp:406] M2PELU46 <- Convolution48
I0929 14:31:54.783279  2305 net.cpp:367] M2PELU46 -> Convolution48 (in-place)
I0929 14:31:54.783370  2305 net.cpp:122] Setting up M2PELU46
I0929 14:31:54.783375  2305 net.cpp:129] Top shape: 100 64 8 8 (409600)
I0929 14:31:54.783377  2305 net.cpp:137] Memory required for data: 1107150000
I0929 14:31:54.783381  2305 layer_factory.hpp:77] Creating layer Convolution49
I0929 14:31:54.783387  2305 net.cpp:84] Creating Layer Convolution49
I0929 14:31:54.783390  2305 net.cpp:406] Convolution49 <- Convolution48
I0929 14:31:54.783396  2305 net.cpp:380] Convolution49 -> Convolution49
I0929 14:31:54.785465  2305 net.cpp:122] Setting up Convolution49
I0929 14:31:54.785473  2305 net.cpp:129] Top shape: 100 64 8 8 (409600)
I0929 14:31:54.785476  2305 net.cpp:137] Memory required for data: 1108788400
I0929 14:31:54.785481  2305 layer_factory.hpp:77] Creating layer BatchNorm49
I0929 14:31:54.785486  2305 net.cpp:84] Creating Layer BatchNorm49
I0929 14:31:54.785490  2305 net.cpp:406] BatchNorm49 <- Convolution49
I0929 14:31:54.785493  2305 net.cpp:367] BatchNorm49 -> Convolution49 (in-place)
I0929 14:31:54.785632  2305 net.cpp:122] Setting up BatchNorm49
I0929 14:31:54.785636  2305 net.cpp:129] Top shape: 100 64 8 8 (409600)
I0929 14:31:54.785639  2305 net.cpp:137] Memory required for data: 1110426800
I0929 14:31:54.785643  2305 layer_factory.hpp:77] Creating layer Scale49
I0929 14:31:54.785648  2305 net.cpp:84] Creating Layer Scale49
I0929 14:31:54.785651  2305 net.cpp:406] Scale49 <- Convolution49
I0929 14:31:54.785655  2305 net.cpp:367] Scale49 -> Convolution49 (in-place)
I0929 14:31:54.785682  2305 layer_factory.hpp:77] Creating layer Scale49
I0929 14:31:54.785766  2305 net.cpp:122] Setting up Scale49
I0929 14:31:54.785771  2305 net.cpp:129] Top shape: 100 64 8 8 (409600)
I0929 14:31:54.785773  2305 net.cpp:137] Memory required for data: 1112065200
I0929 14:31:54.785778  2305 layer_factory.hpp:77] Creating layer Eltwise23
I0929 14:31:54.785781  2305 net.cpp:84] Creating Layer Eltwise23
I0929 14:31:54.785784  2305 net.cpp:406] Eltwise23 <- Eltwise22_M2PELU45_0_split_1
I0929 14:31:54.785787  2305 net.cpp:406] Eltwise23 <- Convolution49
I0929 14:31:54.785792  2305 net.cpp:380] Eltwise23 -> Eltwise23
I0929 14:31:54.785809  2305 net.cpp:122] Setting up Eltwise23
I0929 14:31:54.785812  2305 net.cpp:129] Top shape: 100 64 8 8 (409600)
I0929 14:31:54.785815  2305 net.cpp:137] Memory required for data: 1113703600
I0929 14:31:54.785816  2305 layer_factory.hpp:77] Creating layer M2PELU47
I0929 14:31:54.785822  2305 net.cpp:84] Creating Layer M2PELU47
I0929 14:31:54.785825  2305 net.cpp:406] M2PELU47 <- Eltwise23
I0929 14:31:54.785827  2305 net.cpp:367] M2PELU47 -> Eltwise23 (in-place)
I0929 14:31:54.785930  2305 net.cpp:122] Setting up M2PELU47
I0929 14:31:54.785935  2305 net.cpp:129] Top shape: 100 64 8 8 (409600)
I0929 14:31:54.785938  2305 net.cpp:137] Memory required for data: 1115342000
I0929 14:31:54.785941  2305 layer_factory.hpp:77] Creating layer Eltwise23_M2PELU47_0_split
I0929 14:31:54.785946  2305 net.cpp:84] Creating Layer Eltwise23_M2PELU47_0_split
I0929 14:31:54.785948  2305 net.cpp:406] Eltwise23_M2PELU47_0_split <- Eltwise23
I0929 14:31:54.785953  2305 net.cpp:380] Eltwise23_M2PELU47_0_split -> Eltwise23_M2PELU47_0_split_0
I0929 14:31:54.785956  2305 net.cpp:380] Eltwise23_M2PELU47_0_split -> Eltwise23_M2PELU47_0_split_1
I0929 14:31:54.785981  2305 net.cpp:122] Setting up Eltwise23_M2PELU47_0_split
I0929 14:31:54.785985  2305 net.cpp:129] Top shape: 100 64 8 8 (409600)
I0929 14:31:54.785989  2305 net.cpp:129] Top shape: 100 64 8 8 (409600)
I0929 14:31:54.785990  2305 net.cpp:137] Memory required for data: 1118618800
I0929 14:31:54.785992  2305 layer_factory.hpp:77] Creating layer Convolution50
I0929 14:31:54.786000  2305 net.cpp:84] Creating Layer Convolution50
I0929 14:31:54.786001  2305 net.cpp:406] Convolution50 <- Eltwise23_M2PELU47_0_split_0
I0929 14:31:54.786005  2305 net.cpp:380] Convolution50 -> Convolution50
I0929 14:31:54.788601  2305 net.cpp:122] Setting up Convolution50
I0929 14:31:54.788610  2305 net.cpp:129] Top shape: 100 64 8 8 (409600)
I0929 14:31:54.788614  2305 net.cpp:137] Memory required for data: 1120257200
I0929 14:31:54.788617  2305 layer_factory.hpp:77] Creating layer BatchNorm50
I0929 14:31:54.788624  2305 net.cpp:84] Creating Layer BatchNorm50
I0929 14:31:54.788626  2305 net.cpp:406] BatchNorm50 <- Convolution50
I0929 14:31:54.788630  2305 net.cpp:367] BatchNorm50 -> Convolution50 (in-place)
I0929 14:31:54.804328  2305 net.cpp:122] Setting up BatchNorm50
I0929 14:31:54.804337  2305 net.cpp:129] Top shape: 100 64 8 8 (409600)
I0929 14:31:54.804340  2305 net.cpp:137] Memory required for data: 1121895600
I0929 14:31:54.804347  2305 layer_factory.hpp:77] Creating layer Scale50
I0929 14:31:54.804353  2305 net.cpp:84] Creating Layer Scale50
I0929 14:31:54.804356  2305 net.cpp:406] Scale50 <- Convolution50
I0929 14:31:54.804360  2305 net.cpp:367] Scale50 -> Convolution50 (in-place)
I0929 14:31:54.804394  2305 layer_factory.hpp:77] Creating layer Scale50
I0929 14:31:54.804482  2305 net.cpp:122] Setting up Scale50
I0929 14:31:54.804488  2305 net.cpp:129] Top shape: 100 64 8 8 (409600)
I0929 14:31:54.804491  2305 net.cpp:137] Memory required for data: 1123534000
I0929 14:31:54.804494  2305 layer_factory.hpp:77] Creating layer M2PELU48
I0929 14:31:54.804500  2305 net.cpp:84] Creating Layer M2PELU48
I0929 14:31:54.804503  2305 net.cpp:406] M2PELU48 <- Convolution50
I0929 14:31:54.804507  2305 net.cpp:367] M2PELU48 -> Convolution50 (in-place)
I0929 14:31:54.804610  2305 net.cpp:122] Setting up M2PELU48
I0929 14:31:54.804615  2305 net.cpp:129] Top shape: 100 64 8 8 (409600)
I0929 14:31:54.804616  2305 net.cpp:137] Memory required for data: 1125172400
I0929 14:31:54.804620  2305 layer_factory.hpp:77] Creating layer Convolution51
I0929 14:31:54.804628  2305 net.cpp:84] Creating Layer Convolution51
I0929 14:31:54.804631  2305 net.cpp:406] Convolution51 <- Convolution50
I0929 14:31:54.804636  2305 net.cpp:380] Convolution51 -> Convolution51
I0929 14:31:54.806777  2305 net.cpp:122] Setting up Convolution51
I0929 14:31:54.806787  2305 net.cpp:129] Top shape: 100 64 8 8 (409600)
I0929 14:31:54.806789  2305 net.cpp:137] Memory required for data: 1126810800
I0929 14:31:54.806794  2305 layer_factory.hpp:77] Creating layer BatchNorm51
I0929 14:31:54.806800  2305 net.cpp:84] Creating Layer BatchNorm51
I0929 14:31:54.806803  2305 net.cpp:406] BatchNorm51 <- Convolution51
I0929 14:31:54.806807  2305 net.cpp:367] BatchNorm51 -> Convolution51 (in-place)
I0929 14:31:54.806951  2305 net.cpp:122] Setting up BatchNorm51
I0929 14:31:54.806954  2305 net.cpp:129] Top shape: 100 64 8 8 (409600)
I0929 14:31:54.806957  2305 net.cpp:137] Memory required for data: 1128449200
I0929 14:31:54.806970  2305 layer_factory.hpp:77] Creating layer Scale51
I0929 14:31:54.806975  2305 net.cpp:84] Creating Layer Scale51
I0929 14:31:54.806978  2305 net.cpp:406] Scale51 <- Convolution51
I0929 14:31:54.806982  2305 net.cpp:367] Scale51 -> Convolution51 (in-place)
I0929 14:31:54.807013  2305 layer_factory.hpp:77] Creating layer Scale51
I0929 14:31:54.807097  2305 net.cpp:122] Setting up Scale51
I0929 14:31:54.807101  2305 net.cpp:129] Top shape: 100 64 8 8 (409600)
I0929 14:31:54.807104  2305 net.cpp:137] Memory required for data: 1130087600
I0929 14:31:54.807107  2305 layer_factory.hpp:77] Creating layer Eltwise24
I0929 14:31:54.807113  2305 net.cpp:84] Creating Layer Eltwise24
I0929 14:31:54.807117  2305 net.cpp:406] Eltwise24 <- Eltwise23_M2PELU47_0_split_1
I0929 14:31:54.807121  2305 net.cpp:406] Eltwise24 <- Convolution51
I0929 14:31:54.807123  2305 net.cpp:380] Eltwise24 -> Eltwise24
I0929 14:31:54.807142  2305 net.cpp:122] Setting up Eltwise24
I0929 14:31:54.807145  2305 net.cpp:129] Top shape: 100 64 8 8 (409600)
I0929 14:31:54.807147  2305 net.cpp:137] Memory required for data: 1131726000
I0929 14:31:54.807149  2305 layer_factory.hpp:77] Creating layer M2PELU49
I0929 14:31:54.807155  2305 net.cpp:84] Creating Layer M2PELU49
I0929 14:31:54.807157  2305 net.cpp:406] M2PELU49 <- Eltwise24
I0929 14:31:54.807160  2305 net.cpp:367] M2PELU49 -> Eltwise24 (in-place)
I0929 14:31:54.807260  2305 net.cpp:122] Setting up M2PELU49
I0929 14:31:54.807265  2305 net.cpp:129] Top shape: 100 64 8 8 (409600)
I0929 14:31:54.807266  2305 net.cpp:137] Memory required for data: 1133364400
I0929 14:31:54.807271  2305 layer_factory.hpp:77] Creating layer Eltwise24_M2PELU49_0_split
I0929 14:31:54.807274  2305 net.cpp:84] Creating Layer Eltwise24_M2PELU49_0_split
I0929 14:31:54.807276  2305 net.cpp:406] Eltwise24_M2PELU49_0_split <- Eltwise24
I0929 14:31:54.807281  2305 net.cpp:380] Eltwise24_M2PELU49_0_split -> Eltwise24_M2PELU49_0_split_0
I0929 14:31:54.807284  2305 net.cpp:380] Eltwise24_M2PELU49_0_split -> Eltwise24_M2PELU49_0_split_1
I0929 14:31:54.807322  2305 net.cpp:122] Setting up Eltwise24_M2PELU49_0_split
I0929 14:31:54.807327  2305 net.cpp:129] Top shape: 100 64 8 8 (409600)
I0929 14:31:54.807330  2305 net.cpp:129] Top shape: 100 64 8 8 (409600)
I0929 14:31:54.807332  2305 net.cpp:137] Memory required for data: 1136641200
I0929 14:31:54.807334  2305 layer_factory.hpp:77] Creating layer Convolution52
I0929 14:31:54.807341  2305 net.cpp:84] Creating Layer Convolution52
I0929 14:31:54.807344  2305 net.cpp:406] Convolution52 <- Eltwise24_M2PELU49_0_split_0
I0929 14:31:54.807348  2305 net.cpp:380] Convolution52 -> Convolution52
I0929 14:31:54.809482  2305 net.cpp:122] Setting up Convolution52
I0929 14:31:54.809491  2305 net.cpp:129] Top shape: 100 64 8 8 (409600)
I0929 14:31:54.809494  2305 net.cpp:137] Memory required for data: 1138279600
I0929 14:31:54.809500  2305 layer_factory.hpp:77] Creating layer BatchNorm52
I0929 14:31:54.809506  2305 net.cpp:84] Creating Layer BatchNorm52
I0929 14:31:54.809509  2305 net.cpp:406] BatchNorm52 <- Convolution52
I0929 14:31:54.809514  2305 net.cpp:367] BatchNorm52 -> Convolution52 (in-place)
I0929 14:31:54.809664  2305 net.cpp:122] Setting up BatchNorm52
I0929 14:31:54.809669  2305 net.cpp:129] Top shape: 100 64 8 8 (409600)
I0929 14:31:54.809671  2305 net.cpp:137] Memory required for data: 1139918000
I0929 14:31:54.809676  2305 layer_factory.hpp:77] Creating layer Scale52
I0929 14:31:54.809681  2305 net.cpp:84] Creating Layer Scale52
I0929 14:31:54.809684  2305 net.cpp:406] Scale52 <- Convolution52
I0929 14:31:54.809686  2305 net.cpp:367] Scale52 -> Convolution52 (in-place)
I0929 14:31:54.809718  2305 layer_factory.hpp:77] Creating layer Scale52
I0929 14:31:54.809803  2305 net.cpp:122] Setting up Scale52
I0929 14:31:54.809809  2305 net.cpp:129] Top shape: 100 64 8 8 (409600)
I0929 14:31:54.809811  2305 net.cpp:137] Memory required for data: 1141556400
I0929 14:31:54.809815  2305 layer_factory.hpp:77] Creating layer M2PELU50
I0929 14:31:54.809847  2305 net.cpp:84] Creating Layer M2PELU50
I0929 14:31:54.809870  2305 net.cpp:406] M2PELU50 <- Convolution52
I0929 14:31:54.809875  2305 net.cpp:367] M2PELU50 -> Convolution52 (in-place)
I0929 14:31:54.809989  2305 net.cpp:122] Setting up M2PELU50
I0929 14:31:54.809994  2305 net.cpp:129] Top shape: 100 64 8 8 (409600)
I0929 14:31:54.809996  2305 net.cpp:137] Memory required for data: 1143194800
I0929 14:31:54.810001  2305 layer_factory.hpp:77] Creating layer Convolution53
I0929 14:31:54.810009  2305 net.cpp:84] Creating Layer Convolution53
I0929 14:31:54.810011  2305 net.cpp:406] Convolution53 <- Convolution52
I0929 14:31:54.810015  2305 net.cpp:380] Convolution53 -> Convolution53
I0929 14:31:54.811785  2305 net.cpp:122] Setting up Convolution53
I0929 14:31:54.811794  2305 net.cpp:129] Top shape: 100 64 8 8 (409600)
I0929 14:31:54.811797  2305 net.cpp:137] Memory required for data: 1144833200
I0929 14:31:54.811801  2305 layer_factory.hpp:77] Creating layer BatchNorm53
I0929 14:31:54.811807  2305 net.cpp:84] Creating Layer BatchNorm53
I0929 14:31:54.811810  2305 net.cpp:406] BatchNorm53 <- Convolution53
I0929 14:31:54.811813  2305 net.cpp:367] BatchNorm53 -> Convolution53 (in-place)
I0929 14:31:54.811959  2305 net.cpp:122] Setting up BatchNorm53
I0929 14:31:54.811962  2305 net.cpp:129] Top shape: 100 64 8 8 (409600)
I0929 14:31:54.811964  2305 net.cpp:137] Memory required for data: 1146471600
I0929 14:31:54.811969  2305 layer_factory.hpp:77] Creating layer Scale53
I0929 14:31:54.811974  2305 net.cpp:84] Creating Layer Scale53
I0929 14:31:54.811976  2305 net.cpp:406] Scale53 <- Convolution53
I0929 14:31:54.811980  2305 net.cpp:367] Scale53 -> Convolution53 (in-place)
I0929 14:31:54.812008  2305 layer_factory.hpp:77] Creating layer Scale53
I0929 14:31:54.812091  2305 net.cpp:122] Setting up Scale53
I0929 14:31:54.812095  2305 net.cpp:129] Top shape: 100 64 8 8 (409600)
I0929 14:31:54.812098  2305 net.cpp:137] Memory required for data: 1148110000
I0929 14:31:54.812101  2305 layer_factory.hpp:77] Creating layer Eltwise25
I0929 14:31:54.812106  2305 net.cpp:84] Creating Layer Eltwise25
I0929 14:31:54.812110  2305 net.cpp:406] Eltwise25 <- Eltwise24_M2PELU49_0_split_1
I0929 14:31:54.812114  2305 net.cpp:406] Eltwise25 <- Convolution53
I0929 14:31:54.812116  2305 net.cpp:380] Eltwise25 -> Eltwise25
I0929 14:31:54.812135  2305 net.cpp:122] Setting up Eltwise25
I0929 14:31:54.812139  2305 net.cpp:129] Top shape: 100 64 8 8 (409600)
I0929 14:31:54.812141  2305 net.cpp:137] Memory required for data: 1149748400
I0929 14:31:54.812144  2305 layer_factory.hpp:77] Creating layer M2PELU51
I0929 14:31:54.812149  2305 net.cpp:84] Creating Layer M2PELU51
I0929 14:31:54.812151  2305 net.cpp:406] M2PELU51 <- Eltwise25
I0929 14:31:54.812155  2305 net.cpp:367] M2PELU51 -> Eltwise25 (in-place)
I0929 14:31:54.812249  2305 net.cpp:122] Setting up M2PELU51
I0929 14:31:54.812254  2305 net.cpp:129] Top shape: 100 64 8 8 (409600)
I0929 14:31:54.812256  2305 net.cpp:137] Memory required for data: 1151386800
I0929 14:31:54.812260  2305 layer_factory.hpp:77] Creating layer Eltwise25_M2PELU51_0_split
I0929 14:31:54.812264  2305 net.cpp:84] Creating Layer Eltwise25_M2PELU51_0_split
I0929 14:31:54.812266  2305 net.cpp:406] Eltwise25_M2PELU51_0_split <- Eltwise25
I0929 14:31:54.812269  2305 net.cpp:380] Eltwise25_M2PELU51_0_split -> Eltwise25_M2PELU51_0_split_0
I0929 14:31:54.812273  2305 net.cpp:380] Eltwise25_M2PELU51_0_split -> Eltwise25_M2PELU51_0_split_1
I0929 14:31:54.812300  2305 net.cpp:122] Setting up Eltwise25_M2PELU51_0_split
I0929 14:31:54.812304  2305 net.cpp:129] Top shape: 100 64 8 8 (409600)
I0929 14:31:54.812306  2305 net.cpp:129] Top shape: 100 64 8 8 (409600)
I0929 14:31:54.812309  2305 net.cpp:137] Memory required for data: 1154663600
I0929 14:31:54.812311  2305 layer_factory.hpp:77] Creating layer Convolution54
I0929 14:31:54.812317  2305 net.cpp:84] Creating Layer Convolution54
I0929 14:31:54.812319  2305 net.cpp:406] Convolution54 <- Eltwise25_M2PELU51_0_split_0
I0929 14:31:54.812324  2305 net.cpp:380] Convolution54 -> Convolution54
I0929 14:31:54.814398  2305 net.cpp:122] Setting up Convolution54
I0929 14:31:54.814405  2305 net.cpp:129] Top shape: 100 64 8 8 (409600)
I0929 14:31:54.814409  2305 net.cpp:137] Memory required for data: 1156302000
I0929 14:31:54.814414  2305 layer_factory.hpp:77] Creating layer BatchNorm54
I0929 14:31:54.814419  2305 net.cpp:84] Creating Layer BatchNorm54
I0929 14:31:54.814421  2305 net.cpp:406] BatchNorm54 <- Convolution54
I0929 14:31:54.814426  2305 net.cpp:367] BatchNorm54 -> Convolution54 (in-place)
I0929 14:31:54.814584  2305 net.cpp:122] Setting up BatchNorm54
I0929 14:31:54.814589  2305 net.cpp:129] Top shape: 100 64 8 8 (409600)
I0929 14:31:54.814592  2305 net.cpp:137] Memory required for data: 1157940400
I0929 14:31:54.814597  2305 layer_factory.hpp:77] Creating layer Scale54
I0929 14:31:54.814601  2305 net.cpp:84] Creating Layer Scale54
I0929 14:31:54.814604  2305 net.cpp:406] Scale54 <- Convolution54
I0929 14:31:54.814606  2305 net.cpp:367] Scale54 -> Convolution54 (in-place)
I0929 14:31:54.814636  2305 layer_factory.hpp:77] Creating layer Scale54
I0929 14:31:54.814721  2305 net.cpp:122] Setting up Scale54
I0929 14:31:54.814725  2305 net.cpp:129] Top shape: 100 64 8 8 (409600)
I0929 14:31:54.814728  2305 net.cpp:137] Memory required for data: 1159578800
I0929 14:31:54.814731  2305 layer_factory.hpp:77] Creating layer M2PELU52
I0929 14:31:54.814736  2305 net.cpp:84] Creating Layer M2PELU52
I0929 14:31:54.814738  2305 net.cpp:406] M2PELU52 <- Convolution54
I0929 14:31:54.814743  2305 net.cpp:367] M2PELU52 -> Convolution54 (in-place)
I0929 14:31:54.814838  2305 net.cpp:122] Setting up M2PELU52
I0929 14:31:54.814843  2305 net.cpp:129] Top shape: 100 64 8 8 (409600)
I0929 14:31:54.814846  2305 net.cpp:137] Memory required for data: 1161217200
I0929 14:31:54.814849  2305 layer_factory.hpp:77] Creating layer Convolution55
I0929 14:31:54.814857  2305 net.cpp:84] Creating Layer Convolution55
I0929 14:31:54.814859  2305 net.cpp:406] Convolution55 <- Convolution54
I0929 14:31:54.814862  2305 net.cpp:380] Convolution55 -> Convolution55
I0929 14:31:54.816615  2305 net.cpp:122] Setting up Convolution55
I0929 14:31:54.816624  2305 net.cpp:129] Top shape: 100 64 8 8 (409600)
I0929 14:31:54.816627  2305 net.cpp:137] Memory required for data: 1162855600
I0929 14:31:54.816632  2305 layer_factory.hpp:77] Creating layer BatchNorm55
I0929 14:31:54.816637  2305 net.cpp:84] Creating Layer BatchNorm55
I0929 14:31:54.816640  2305 net.cpp:406] BatchNorm55 <- Convolution55
I0929 14:31:54.816644  2305 net.cpp:367] BatchNorm55 -> Convolution55 (in-place)
I0929 14:31:54.816789  2305 net.cpp:122] Setting up BatchNorm55
I0929 14:31:54.816794  2305 net.cpp:129] Top shape: 100 64 8 8 (409600)
I0929 14:31:54.816797  2305 net.cpp:137] Memory required for data: 1164494000
I0929 14:31:54.816802  2305 layer_factory.hpp:77] Creating layer Scale55
I0929 14:31:54.816805  2305 net.cpp:84] Creating Layer Scale55
I0929 14:31:54.816808  2305 net.cpp:406] Scale55 <- Convolution55
I0929 14:31:54.816812  2305 net.cpp:367] Scale55 -> Convolution55 (in-place)
I0929 14:31:54.816841  2305 layer_factory.hpp:77] Creating layer Scale55
I0929 14:31:54.816925  2305 net.cpp:122] Setting up Scale55
I0929 14:31:54.816929  2305 net.cpp:129] Top shape: 100 64 8 8 (409600)
I0929 14:31:54.816931  2305 net.cpp:137] Memory required for data: 1166132400
I0929 14:31:54.816936  2305 layer_factory.hpp:77] Creating layer Eltwise26
I0929 14:31:54.816941  2305 net.cpp:84] Creating Layer Eltwise26
I0929 14:31:54.816943  2305 net.cpp:406] Eltwise26 <- Eltwise25_M2PELU51_0_split_1
I0929 14:31:54.816947  2305 net.cpp:406] Eltwise26 <- Convolution55
I0929 14:31:54.816951  2305 net.cpp:380] Eltwise26 -> Eltwise26
I0929 14:31:54.816967  2305 net.cpp:122] Setting up Eltwise26
I0929 14:31:54.816972  2305 net.cpp:129] Top shape: 100 64 8 8 (409600)
I0929 14:31:54.816973  2305 net.cpp:137] Memory required for data: 1167770800
I0929 14:31:54.816975  2305 layer_factory.hpp:77] Creating layer M2PELU53
I0929 14:31:54.816980  2305 net.cpp:84] Creating Layer M2PELU53
I0929 14:31:54.816983  2305 net.cpp:406] M2PELU53 <- Eltwise26
I0929 14:31:54.816993  2305 net.cpp:367] M2PELU53 -> Eltwise26 (in-place)
I0929 14:31:54.817092  2305 net.cpp:122] Setting up M2PELU53
I0929 14:31:54.817097  2305 net.cpp:129] Top shape: 100 64 8 8 (409600)
I0929 14:31:54.817100  2305 net.cpp:137] Memory required for data: 1169409200
I0929 14:31:54.817103  2305 layer_factory.hpp:77] Creating layer Eltwise26_M2PELU53_0_split
I0929 14:31:54.817107  2305 net.cpp:84] Creating Layer Eltwise26_M2PELU53_0_split
I0929 14:31:54.817109  2305 net.cpp:406] Eltwise26_M2PELU53_0_split <- Eltwise26
I0929 14:31:54.817113  2305 net.cpp:380] Eltwise26_M2PELU53_0_split -> Eltwise26_M2PELU53_0_split_0
I0929 14:31:54.817117  2305 net.cpp:380] Eltwise26_M2PELU53_0_split -> Eltwise26_M2PELU53_0_split_1
I0929 14:31:54.817143  2305 net.cpp:122] Setting up Eltwise26_M2PELU53_0_split
I0929 14:31:54.817147  2305 net.cpp:129] Top shape: 100 64 8 8 (409600)
I0929 14:31:54.817149  2305 net.cpp:129] Top shape: 100 64 8 8 (409600)
I0929 14:31:54.817152  2305 net.cpp:137] Memory required for data: 1172686000
I0929 14:31:54.817154  2305 layer_factory.hpp:77] Creating layer Convolution56
I0929 14:31:54.817160  2305 net.cpp:84] Creating Layer Convolution56
I0929 14:31:54.817162  2305 net.cpp:406] Convolution56 <- Eltwise26_M2PELU53_0_split_0
I0929 14:31:54.817167  2305 net.cpp:380] Convolution56 -> Convolution56
I0929 14:31:54.818902  2305 net.cpp:122] Setting up Convolution56
I0929 14:31:54.818910  2305 net.cpp:129] Top shape: 100 64 8 8 (409600)
I0929 14:31:54.818913  2305 net.cpp:137] Memory required for data: 1174324400
I0929 14:31:54.818918  2305 layer_factory.hpp:77] Creating layer BatchNorm56
I0929 14:31:54.834954  2305 net.cpp:84] Creating Layer BatchNorm56
I0929 14:31:54.834962  2305 net.cpp:406] BatchNorm56 <- Convolution56
I0929 14:31:54.834969  2305 net.cpp:367] BatchNorm56 -> Convolution56 (in-place)
I0929 14:31:54.835144  2305 net.cpp:122] Setting up BatchNorm56
I0929 14:31:54.835150  2305 net.cpp:129] Top shape: 100 64 8 8 (409600)
I0929 14:31:54.835152  2305 net.cpp:137] Memory required for data: 1175962800
I0929 14:31:54.835158  2305 layer_factory.hpp:77] Creating layer Scale56
I0929 14:31:54.835162  2305 net.cpp:84] Creating Layer Scale56
I0929 14:31:54.835165  2305 net.cpp:406] Scale56 <- Convolution56
I0929 14:31:54.835170  2305 net.cpp:367] Scale56 -> Convolution56 (in-place)
I0929 14:31:54.835201  2305 layer_factory.hpp:77] Creating layer Scale56
I0929 14:31:54.835292  2305 net.cpp:122] Setting up Scale56
I0929 14:31:54.835297  2305 net.cpp:129] Top shape: 100 64 8 8 (409600)
I0929 14:31:54.835299  2305 net.cpp:137] Memory required for data: 1177601200
I0929 14:31:54.835304  2305 layer_factory.hpp:77] Creating layer M2PELU54
I0929 14:31:54.835309  2305 net.cpp:84] Creating Layer M2PELU54
I0929 14:31:54.835311  2305 net.cpp:406] M2PELU54 <- Convolution56
I0929 14:31:54.835315  2305 net.cpp:367] M2PELU54 -> Convolution56 (in-place)
I0929 14:31:54.835420  2305 net.cpp:122] Setting up M2PELU54
I0929 14:31:54.835425  2305 net.cpp:129] Top shape: 100 64 8 8 (409600)
I0929 14:31:54.835427  2305 net.cpp:137] Memory required for data: 1179239600
I0929 14:31:54.835431  2305 layer_factory.hpp:77] Creating layer Convolution57
I0929 14:31:54.835439  2305 net.cpp:84] Creating Layer Convolution57
I0929 14:31:54.835443  2305 net.cpp:406] Convolution57 <- Convolution56
I0929 14:31:54.835446  2305 net.cpp:380] Convolution57 -> Convolution57
I0929 14:31:54.837726  2305 net.cpp:122] Setting up Convolution57
I0929 14:31:54.837736  2305 net.cpp:129] Top shape: 100 64 8 8 (409600)
I0929 14:31:54.837739  2305 net.cpp:137] Memory required for data: 1180878000
I0929 14:31:54.837743  2305 layer_factory.hpp:77] Creating layer BatchNorm57
I0929 14:31:54.837749  2305 net.cpp:84] Creating Layer BatchNorm57
I0929 14:31:54.837754  2305 net.cpp:406] BatchNorm57 <- Convolution57
I0929 14:31:54.837756  2305 net.cpp:367] BatchNorm57 -> Convolution57 (in-place)
I0929 14:31:54.837900  2305 net.cpp:122] Setting up BatchNorm57
I0929 14:31:54.837905  2305 net.cpp:129] Top shape: 100 64 8 8 (409600)
I0929 14:31:54.837915  2305 net.cpp:137] Memory required for data: 1182516400
I0929 14:31:54.837921  2305 layer_factory.hpp:77] Creating layer Scale57
I0929 14:31:54.837926  2305 net.cpp:84] Creating Layer Scale57
I0929 14:31:54.837929  2305 net.cpp:406] Scale57 <- Convolution57
I0929 14:31:54.837932  2305 net.cpp:367] Scale57 -> Convolution57 (in-place)
I0929 14:31:54.837963  2305 layer_factory.hpp:77] Creating layer Scale57
I0929 14:31:54.838047  2305 net.cpp:122] Setting up Scale57
I0929 14:31:54.838052  2305 net.cpp:129] Top shape: 100 64 8 8 (409600)
I0929 14:31:54.838054  2305 net.cpp:137] Memory required for data: 1184154800
I0929 14:31:54.838057  2305 layer_factory.hpp:77] Creating layer Eltwise27
I0929 14:31:54.838063  2305 net.cpp:84] Creating Layer Eltwise27
I0929 14:31:54.838065  2305 net.cpp:406] Eltwise27 <- Eltwise26_M2PELU53_0_split_1
I0929 14:31:54.838068  2305 net.cpp:406] Eltwise27 <- Convolution57
I0929 14:31:54.838073  2305 net.cpp:380] Eltwise27 -> Eltwise27
I0929 14:31:54.838089  2305 net.cpp:122] Setting up Eltwise27
I0929 14:31:54.838093  2305 net.cpp:129] Top shape: 100 64 8 8 (409600)
I0929 14:31:54.838094  2305 net.cpp:137] Memory required for data: 1185793200
I0929 14:31:54.838098  2305 layer_factory.hpp:77] Creating layer M2PELU55
I0929 14:31:54.838102  2305 net.cpp:84] Creating Layer M2PELU55
I0929 14:31:54.838104  2305 net.cpp:406] M2PELU55 <- Eltwise27
I0929 14:31:54.838107  2305 net.cpp:367] M2PELU55 -> Eltwise27 (in-place)
I0929 14:31:54.838204  2305 net.cpp:122] Setting up M2PELU55
I0929 14:31:54.838208  2305 net.cpp:129] Top shape: 100 64 8 8 (409600)
I0929 14:31:54.838210  2305 net.cpp:137] Memory required for data: 1187431600
I0929 14:31:54.838214  2305 layer_factory.hpp:77] Creating layer Pooling1
I0929 14:31:54.838219  2305 net.cpp:84] Creating Layer Pooling1
I0929 14:31:54.838222  2305 net.cpp:406] Pooling1 <- Eltwise27
I0929 14:31:54.838225  2305 net.cpp:380] Pooling1 -> Pooling1
I0929 14:31:54.839071  2305 net.cpp:122] Setting up Pooling1
I0929 14:31:54.839081  2305 net.cpp:129] Top shape: 100 64 1 1 (6400)
I0929 14:31:54.839084  2305 net.cpp:137] Memory required for data: 1187457200
I0929 14:31:54.839087  2305 layer_factory.hpp:77] Creating layer InnerProduct1
I0929 14:31:54.839092  2305 net.cpp:84] Creating Layer InnerProduct1
I0929 14:31:54.839095  2305 net.cpp:406] InnerProduct1 <- Pooling1
I0929 14:31:54.839100  2305 net.cpp:380] InnerProduct1 -> InnerProduct1
I0929 14:31:54.839215  2305 net.cpp:122] Setting up InnerProduct1
I0929 14:31:54.839220  2305 net.cpp:129] Top shape: 100 10 (1000)
I0929 14:31:54.839221  2305 net.cpp:137] Memory required for data: 1187461200
I0929 14:31:54.839226  2305 layer_factory.hpp:77] Creating layer InnerProduct1_InnerProduct1_0_split
I0929 14:31:54.839229  2305 net.cpp:84] Creating Layer InnerProduct1_InnerProduct1_0_split
I0929 14:31:54.839232  2305 net.cpp:406] InnerProduct1_InnerProduct1_0_split <- InnerProduct1
I0929 14:31:54.839236  2305 net.cpp:380] InnerProduct1_InnerProduct1_0_split -> InnerProduct1_InnerProduct1_0_split_0
I0929 14:31:54.839241  2305 net.cpp:380] InnerProduct1_InnerProduct1_0_split -> InnerProduct1_InnerProduct1_0_split_1
I0929 14:31:54.839277  2305 net.cpp:122] Setting up InnerProduct1_InnerProduct1_0_split
I0929 14:31:54.839282  2305 net.cpp:129] Top shape: 100 10 (1000)
I0929 14:31:54.839284  2305 net.cpp:129] Top shape: 100 10 (1000)
I0929 14:31:54.839295  2305 net.cpp:137] Memory required for data: 1187469200
I0929 14:31:54.839298  2305 layer_factory.hpp:77] Creating layer SoftmaxWithLoss1
I0929 14:31:54.839303  2305 net.cpp:84] Creating Layer SoftmaxWithLoss1
I0929 14:31:54.839305  2305 net.cpp:406] SoftmaxWithLoss1 <- InnerProduct1_InnerProduct1_0_split_0
I0929 14:31:54.839308  2305 net.cpp:406] SoftmaxWithLoss1 <- Data2_Data1_1_split_0
…
