…
I0929 19:16:17.652688  2630 net.cpp:294] The NetState phase (0) differed from the phase (1) specified by a rule in layer Accuracy1
I0929 19:16:17.653501  2630 net.cpp:51] Initializing net from parameters: 
name: "resnet_cifar10"
state {
  phase: TRAIN
  level: 0
  stage: ""
}
layer {
  name: "Data1"
  type: "Data"
  top: "Data1"
  top: "Data2"
  include {
    phase: TRAIN
  }
  transform_param {
    mirror: true
    crop_size: 28
    mean_file: "/home/x306/caffe/xn/PENLU/data/cifar10/mean.binaryproto"
  }
  data_param {
    source: "/home/x306/caffe/xn/PENLU/data/cifar10/cifar10_train_lmdb"
    batch_size: 100
    backend: LMDB
  }
}
layer {
  name: "Convolution1"
  type: "Convolution"
  bottom: "Data1"
  top: "Convolution1"
  param {
    lr_mult: 1
    decay_mult: 1
  }
  param {
    lr_mult: 2
    decay_mult: 0
  }
  convolution_param {
    num_output: 16
    pad: 1
    kernel_size: 3
    stride: 1
    weight_filler {
      type: "gaussian"
      std: 0.118
    }
    bias_filler {
      type: "constant"
      value: 0
    }
  }
}
layer {
  name: "BatchNorm1"
  type: "BatchNorm"
  bottom: "Convolution1"
  top: "Convolution1"
  param {
    lr_mult: 0
    decay_mult: 0
  }
  param {
    lr_mult: 0
    decay_mult: 0
  }
  param {
    lr_mult: 0
    decay_mult: 0
  }
}
layer {
  name: "Scale1"
  type: "Scale"
  bottom: "Convolution1"
  top: "Convolution1"
  scale_param {
    bias_term: true
  }
}
layer {
  name: "ReLU1"
  type: "ReLU"
  bottom: "Convolution1"
  top: "Convolution1"
}
layer {
  name: "Convolution2"
  type: "Convolution"
  bottom: "Convolution1"
  top: "Convolution2"
  param {
    lr_mult: 1
    decay_mult: 1
  }
  param {
    lr_mult: 2
    decay_mult: 0
  }
  convolution_param {
    num_output: 16
    pad: 1
    kernel_size: 3
    stride: 1
    weight_filler {
      type: "msra"
    }
    bias_filler {
      type: "constant"
      value: 0
    }
  }
}
layer {
  name: "BatchNorm2"
  type: "BatchNorm"
  bottom: "Convolution2"
  top: "Convolution2"
  param {
    lr_mult: 0
    decay_mult: 0
  }
  param {
    lr_mult: 0
    decay_mult: 0
  }
  param {
    lr_mult: 0
    decay_mult: 0
  }
}
layer {
  name: "Scale2"
  type: "Scale"
  bottom: "Convolution2"
  top: "Convolution2"
  scale_param {
    bias_term: true
  }
}
layer {
  name: "ReLU2"
  type: "ReLU"
  bottom: "Convolution2"
  top: "Convolution2"
}
layer {
  name: "Convolution3"
  type: "Convolution"
  bottom: "Convolution2"
  top: "Convolution3"
  param {
    lr_mult: 1
    decay_mult: 1
  }
  param {
    lr_mult: 2
    decay_mult: 0
  }
  convolution_param {
    num_output: 16
    pad: 1
    kernel_size: 3
    stride: 1
    weight_filler {
      type: "msra"
    }
    bias_filler {
      type: "constant"
      value: 0
    }
  }
}
layer {
  name: "BatchNorm3"
  type: "BatchNorm"
  bottom: "Convolution3"
  top: "Convolution3"
  param {
    lr_mult: 0
    decay_mult: 0
  }
  param {
    lr_mult: 0
    decay_mult: 0
  }
  param {
    lr_mult: 0
    decay_mult: 0
  }
}
layer {
  name: "Scale3"
  type: "Scale"
  bottom: "Convolution3"
  top: "Convolution3"
  scale_param {
    bias_term: true
  }
}
layer {
  name: "Eltwise1"
  type: "Eltwise"
  bottom: "Convolution1"
  bottom: "Convolution3"
  top: "Eltwise1"
  eltwise_param {
    operation: SUM
  }
}
layer {
  name: "ReLU3"
  type: "ReLU"
  bottom: "Eltwise1"
  top: "Eltwise1"
}
layer {
  name: "Convolution4"
  type: "Convolution"
  bottom: "Eltwise1"
  top: "Convolution4"
  param {
    lr_mult: 1
    decay_mult: 1
  }
  param {
    lr_mult: 2
    decay_mult: 0
  }
  convolution_param {
    num_output: 16
    pad: 1
    kernel_size: 3
    stride: 1
    weight_filler {
      type: "msra"
    }
    bias_filler {
      type: "constant"
      value: 0
    }
  }
}
layer {
  name: "BatchNorm4"
  type: "BatchNorm"
  bottom: "Convolution4"
  top: "Convolution4"
  param {
    lr_mult: 0
    decay_mult: 0
  }
  param {
    lr_mult: 0
    decay_mult: 0
  }
  param {
    lr_mult: 0
    decay_mult: 0
  }
}
layer {
  name: "Scale4"
  type: "Scale"
  bottom: "Convolution4"
  top: "Convolution4"
  scale_param {
    bias_term: true
  }
}
layer {
  name: "ReLU4"
  type: "ReLU"
  bottom: "Convolution4"
  top: "Convolution4"
}
layer {
  name: "Convolution5"
  type: "Convolution"
  bottom: "Convolution4"
  top: "Convolution5"
  param {
    lr_mult: 1
    decay_mult: 1
  }
  param {
    lr_mult: 2
    decay_mult: 0
  }
  convolution_param {
    num_output: 16
    pad: 1
    kernel_size: 3
    stride: 1
    weight_filler {
      type: "msra"
    }
    bias_filler {
      type: "constant"
      value: 0
    }
  }
}
layer {
  name: "BatchNorm5"
  type: "BatchNorm"
  bottom: "Convolution5"
  top: "Convolution5"
  param {
    lr_mult: 0
    decay_mult: 0
  }
  param {
    lr_mult: 0
    decay_mult: 0
  }
  param {
    lr_mult: 0
    decay_mult: 0
  }
}
layer {
  name: "Scale5"
  type: "Scale"
  bottom: "Convolution5"
  top: "Convolution5"
  scale_param {
    bias_term: true
  }
}
layer {
  name: "Eltwise2"
  type: "Eltwise"
  bottom: "Eltwise1"
  bottom: "Convolution5"
  top: "Eltwise2"
  eltwise_param {
    operation: SUM
  }
}
layer {
  name: "ReLU5"
  type: "ReLU"
  bottom: "Eltwise2"
  top: "Eltwise2"
}
layer {
  name: "Convolution6"
  type: "Convolution"
  bottom: "Eltwise2"
  top: "Convolution6"
  param {
    lr_mult: 1
    decay_mult: 1
  }
  param {
    lr_mult: 2
    decay_mult: 0
  }
  convolution_param {
    num_output: 16
    pad: 1
    kernel_size: 3
    stride: 1
    weight_filler {
      type: "msra"
    }
    bias_filler {
      type: "constant"
      value: 0
    }
  }
}
layer {
  name: "BatchNorm6"
  type: "BatchNorm"
  bottom: "Convolution6"
  top: "Convolution6"
  param {
    lr_mult: 0
    decay_mult: 0
  }
  param {
    lr_mult: 0
    decay_mult: 0
  }
  param {
    lr_mult: 0
    decay_mult: 0
  }
}
layer {
  name: "Scale6"
  type: "Scale"
  bottom: "Convolution6"
  top: "Convolution6"
  scale_param {
    bias_term: true
  }
}
layer {
  name: "ReLU6"
  type: "ReLU"
  bottom: "Convolution6"
  top: "Convolution6"
}
layer {
  name: "Convolution7"
  type: "Convolution"
  bottom: "Convolution6"
  top: "Convolution7"
  param {
    lr_mult: 1
    decay_mult: 1
  }
  param {
    lr_mult: 2
    decay_mult: 0
  }
  convolution_param {
    num_output: 16
    pad: 1
    kernel_size: 3
    stride: 1
    weight_filler {
      type: "msra"
    }
    bias_filler {
      type: "constant"
      value: 0
    }
  }
}
layer {
  name: "BatchNorm7"
  type: "BatchNorm"
  bottom: "Convolution7"
  top: "Convolution7"
  param {
    lr_mult: 0
    decay_mult: 0
  }
  param {
    lr_mult: 0
    decay_mult: 0
  }
  param {
    lr_mult: 0
    decay_mult: 0
  }
}
layer {
  name: "Scale7"
  type: "Scale"
  bottom: "Convolution7"
  top: "Convolution7"
  scale_param {
    bias_term: true
  }
}
layer {
  name: "Eltwise3"
  type: "Eltwise"
  bottom: "Eltwise2"
  bottom: "Convolution7"
  top: "Eltwise3"
  eltwise_param {
    operation: SUM
  }
}
layer {
  name: "ReLU7"
  type: "ReLU"
  bottom: "Eltwise3"
  top: "Eltwise3"
}
layer {
  name: "Convolution8"
  type: "Convolution"
  bottom: "Eltwise3"
  top: "Convolution8"
  param {
    lr_mult: 1
    decay_mult: 1
  }
  param {
    lr_mult: 2
    decay_mult: 0
  }
  convolution_param {
    num_output: 16
    pad: 1
    kernel_size: 3
    stride: 1
    weight_filler {
      type: "msra"
    }
    bias_filler {
      type: "constant"
      value: 0
    }
  }
}
layer {
  name: "BatchNorm8"
  type: "BatchNorm"
  bottom: "Convolution8"
  top: "Convolution8"
  param {
    lr_mult: 0
    decay_mult: 0
  }
  param {
    lr_mult: 0
    decay_mult: 0
  }
  param {
    lr_mult: 0
    decay_mult: 0
  }
}
layer {
  name: "Scale8"
  type: "Scale"
  bottom: "Convolution8"
  top: "Convolution8"
  scale_param {
    bias_term: true
  }
}
layer {
  name: "ReLU8"
  type: "ReLU"
  bottom: "Convolution8"
  top: "Convolution8"
}
layer {
  name: "Convolution9"
  type: "Convolution"
  bottom: "Convolution8"
  top: "Convolution9"
  param {
    lr_mult: 1
    decay_mult: 1
  }
  param {
    lr_mult: 2
    decay_mult: 0
  }
  convolution_param {
    num_output: 16
    pad: 1
    kernel_size: 3
    stride: 1
    weight_filler {
      type: "msra"
    }
    bias_filler {
      type: "constant"
      value: 0
    }
  }
}
layer {
  name: "BatchNorm9"
  type: "BatchNorm"
  bottom: "Convolution9"
  top: "Convolution9"
  param {
    lr_mult: 0
    decay_mult: 0
  }
  param {
    lr_mult: 0
    decay_mult: 0
  }
  param {
    lr_mult: 0
    decay_mult: 0
  }
}
layer {
  name: "Scale9"
  type: "Scale"
  bottom: "Convolution9"
  top: "Convolution9"
  scale_param {
    bias_term: true
  }
}
layer {
  name: "Eltwise4"
  type: "Eltwise"
  bottom: "Eltwise3"
  bottom: "Convolution9"
  top: "Eltwise4"
  eltwise_param {
    operation: SUM
  }
}
layer {
  name: "ReLU9"
  type: "ReLU"
  bottom: "Eltwise4"
  top: "Eltwise4"
}
layer {
  name: "Convolution10"
  type: "Convolution"
  bottom: "Eltwise4"
  top: "Convolution10"
  param {
    lr_mult: 1
    decay_mult: 1
  }
  param {
    lr_mult: 2
    decay_mult: 0
  }
  convolution_param {
    num_output: 16
    pad: 1
    kernel_size: 3
    stride: 1
    weight_filler {
      type: "msra"
    }
    bias_filler {
      type: "constant"
      value: 0
    }
  }
}
layer {
  name: "BatchNorm10"
  type: "BatchNorm"
  bottom: "Convolution10"
  top: "Convolution10"
  param {
    lr_mult: 0
    decay_mult: 0
  }
  param {
    lr_mult: 0
    decay_mult: 0
  }
  param {
    lr_mult: 0
    decay_mult: 0
  }
}
layer {
  name: "Scale10"
  type: "Scale"
  bottom: "Convolution10"
  top: "Convolution10"
  scale_param {
    bias_term: true
  }
}
layer {
  name: "ReLU10"
  type: "ReLU"
  bottom: "Convolution10"
  top: "Convolution10"
}
layer {
  name: "Convolution11"
  type: "Convolution"
  bottom: "Convolution10"
  top: "Convolution11"
  param {
    lr_mult: 1
    decay_mult: 1
  }
  param {
    lr_mult: 2
    decay_mult: 0
  }
  convolution_param {
    num_output: 16
    pad: 1
    kernel_size: 3
    stride: 1
    weight_filler {
      type: "msra"
    }
    bias_filler {
      type: "constant"
      value: 0
    }
  }
}
layer {
  name: "BatchNorm11"
  type: "BatchNorm"
  bottom: "Convolution11"
  top: "Convolution11"
  param {
    lr_mult: 0
    decay_mult: 0
  }
  param {
    lr_mult: 0
    decay_mult: 0
  }
  param {
    lr_mult: 0
    decay_mult: 0
  }
}
layer {
  name: "Scale11"
  type: "Scale"
  bottom: "Convolution11"
  top: "Convolution11"
  scale_param {
    bias_term: true
  }
}
layer {
  name: "Eltwise5"
  type: "Eltwise"
  bottom: "Eltwise4"
  bottom: "Convolution11"
  top: "Eltwise5"
  eltwise_param {
    operation: SUM
  }
}
layer {
  name: "ReLU11"
  type: "ReLU"
  bottom: "Eltwise5"
  top: "Eltwise5"
}
layer {
  name: "Convolution12"
  type: "Convolution"
  bottom: "Eltwise5"
  top: "Convolution12"
  param {
    lr_mult: 1
    decay_mult: 1
  }
  param {
    lr_mult: 2
    decay_mult: 0
  }
  convolution_param {
    num_output: 16
    pad: 1
    kernel_size: 3
    stride: 1
    weight_filler {
      type: "msra"
    }
    bias_filler {
      type: "constant"
      value: 0
    }
  }
}
layer {
  name: "BatchNorm12"
  type: "BatchNorm"
  bottom: "Convolution12"
  top: "Convolution12"
  param {
    lr_mult: 0
    decay_mult: 0
  }
  param {
    lr_mult: 0
    decay_mult: 0
  }
  param {
    lr_mult: 0
    decay_mult: 0
  }
}
layer {
  name: "Scale12"
  type: "Scale"
  bottom: "Convolution12"
  top: "Convolution12"
  scale_param {
    bias_term: true
  }
}
layer {
  name: "ReLU12"
  type: "ReLU"
  bottom: "Convolution12"
  top: "Convolution12"
}
layer {
  name: "Convolution13"
  type: "Convolution"
  bottom: "Convolution12"
  top: "Convolution13"
  param {
    lr_mult: 1
    decay_mult: 1
  }
  param {
    lr_mult: 2
    decay_mult: 0
  }
  convolution_param {
    num_output: 16
    pad: 1
    kernel_size: 3
    stride: 1
    weight_filler {
      type: "msra"
    }
    bias_filler {
      type: "constant"
      value: 0
    }
  }
}
layer {
  name: "BatchNorm13"
  type: "BatchNorm"
  bottom: "Convolution13"
  top: "Convolution13"
  param {
    lr_mult: 0
    decay_mult: 0
  }
  param {
    lr_mult: 0
    decay_mult: 0
  }
  param {
    lr_mult: 0
    decay_mult: 0
  }
}
layer {
  name: "Scale13"
  type: "Scale"
  bottom: "Convolution13"
  top: "Convolution13"
  scale_param {
    bias_term: true
  }
}
layer {
  name: "Eltwise6"
  type: "Eltwise"
  bottom: "Eltwise5"
  bottom: "Convolution13"
  top: "Eltwise6"
  eltwise_param {
    operation: SUM
  }
}
layer {
  name: "ReLU13"
  type: "ReLU"
  bottom: "Eltwise6"
  top: "Eltwise6"
}
layer {
  name: "Convolution14"
  type: "Convolution"
  bottom: "Eltwise6"
  top: "Convolution14"
  param {
    lr_mult: 1
    decay_mult: 1
  }
  param {
    lr_mult: 2
    decay_mult: 0
  }
  convolution_param {
    num_output: 16
    pad: 1
    kernel_size: 3
    stride: 1
    weight_filler {
      type: "msra"
    }
    bias_filler {
      type: "constant"
      value: 0
    }
  }
}
layer {
  name: "BatchNorm14"
  type: "BatchNorm"
  bottom: "Convolution14"
  top: "Convolution14"
  param {
    lr_mult: 0
    decay_mult: 0
  }
  param {
    lr_mult: 0
    decay_mult: 0
  }
  param {
    lr_mult: 0
    decay_mult: 0
  }
}
layer {
  name: "Scale14"
  type: "Scale"
  bottom: "Convolution14"
  top: "Convolution14"
  scale_param {
    bias_term: true
  }
}
layer {
  name: "ReLU14"
  type: "ReLU"
  bottom: "Convolution14"
  top: "Convolution14"
}
layer {
  name: "Convolution15"
  type: "Convolution"
  bottom: "Convolution14"
  top: "Convolution15"
  param {
    lr_mult: 1
    decay_mult: 1
  }
  param {
    lr_mult: 2
    decay_mult: 0
  }
  convolution_param {
    num_output: 16
    pad: 1
    kernel_size: 3
    stride: 1
    weight_filler {
      type: "msra"
    }
    bias_filler {
      type: "constant"
      value: 0
    }
  }
}
layer {
  name: "BatchNorm15"
  type: "BatchNorm"
  bottom: "Convolution15"
  top: "Convolution15"
  param {
    lr_mult: 0
    decay_mult: 0
  }
  param {
    lr_mult: 0
    decay_mult: 0
  }
  param {
    lr_mult: 0
    decay_mult: 0
  }
}
layer {
  name: "Scale15"
  type: "Scale"
  bottom: "Convolution15"
  top: "Convolution15"
  scale_param {
    bias_term: true
  }
}
layer {
  name: "Eltwise7"
  type: "Eltwise"
  bottom: "Eltwise6"
  bottom: "Convolution15"
  top: "Eltwise7"
  eltwise_param {
    operation: SUM
  }
}
layer {
  name: "ReLU15"
  type: "ReLU"
  bottom: "Eltwise7"
  top: "Eltwise7"
}
layer {
  name: "Convolution16"
  type: "Convolution"
  bottom: "Eltwise7"
  top: "Convolution16"
  param {
    lr_mult: 1
    decay_mult: 1
  }
  param {
    lr_mult: 2
    decay_mult: 0
  }
  convolution_param {
    num_output: 16
    pad: 1
    kernel_size: 3
    stride: 1
    weight_filler {
      type: "msra"
    }
    bias_filler {
      type: "constant"
      value: 0
    }
  }
}
layer {
  name: "BatchNorm16"
  type: "BatchNorm"
  bottom: "Convolution16"
  top: "Convolution16"
  param {
    lr_mult: 0
    decay_mult: 0
  }
  param {
    lr_mult: 0
    decay_mult: 0
  }
  param {
    lr_mult: 0
    decay_mult: 0
  }
}
layer {
  name: "Scale16"
  type: "Scale"
  bottom: "Convolution16"
  top: "Convolution16"
  scale_param {
    bias_term: true
  }
}
layer {
  name: "ReLU16"
  type: "ReLU"
  bottom: "Convolution16"
  top: "Convolution16"
}
layer {
  name: "Convolution17"
  type: "Convolution"
  bottom: "Convolution16"
  top: "Convolution17"
  param {
    lr_mult: 1
    decay_mult: 1
  }
  param {
    lr_mult: 2
    decay_mult: 0
  }
  convolution_param {
    num_output: 16
    pad: 1
    kernel_size: 3
    stride: 1
    weight_filler {
      type: "msra"
    }
    bias_filler {
      type: "constant"
      value: 0
    }
  }
}
layer {
  name: "BatchNorm17"
  type: "BatchNorm"
  bottom: "Convolution17"
  top: "Convolution17"
  param {
    lr_mult: 0
    decay_mult: 0
  }
  param {
    lr_mult: 0
    decay_mult: 0
  }
  param {
    lr_mult: 0
    decay_mult: 0
  }
}
layer {
  name: "Scale17"
  type: "Scale"
  bottom: "Convolution17"
  top: "Convolution17"
  scale_param {
    bias_term: true
  }
}
layer {
  name: "Eltwise8"
  type: "Eltwise"
  bottom: "Eltwise7"
  bottom: "Convolution17"
  top: "Eltwise8"
  eltwise_param {
    operation: SUM
  }
}
layer {
  name: "ReLU17"
  type: "ReLU"
  bottom: "Eltwise8"
  top: "Eltwise8"
}
layer {
  name: "Convolution18"
  type: "Convolution"
  bottom: "Eltwise8"
  top: "Convolution18"
  param {
    lr_mult: 1
    decay_mult: 1
  }
  param {
    lr_mult: 2
    decay_mult: 0
  }
  convolution_param {
    num_output: 16
    pad: 1
    kernel_size: 3
    stride: 1
    weight_filler {
      type: "msra"
    }
    bias_filler {
      type: "constant"
      value: 0
    }
  }
}
layer {
  name: "BatchNorm18"
  type: "BatchNorm"
  bottom: "Convolution18"
  top: "Convolution18"
  param {
    lr_mult: 0
    decay_mult: 0
  }
  param {
    lr_mult: 0
    decay_mult: 0
  }
  param {
    lr_mult: 0
    decay_mult: 0
  }
}
layer {
  name: "Scale18"
  type: "Scale"
  bottom: "Convolution18"
  top: "Convolution18"
  scale_param {
    bias_term: true
  }
}
layer {
  name: "ReLU18"
  type: "ReLU"
  bottom: "Convolution18"
  top: "Convolution18"
}
layer {
  name: "Convolution19"
  type: "Convolution"
  bottom: "Convolution18"
  top: "Convolution19"
  param {
    lr_mult: 1
    decay_mult: 1
  }
  param {
    lr_mult: 2
    decay_mult: 0
  }
  convolution_param {
    num_output: 16
    pad: 1
    kernel_size: 3
    stride: 1
    weight_filler {
      type: "msra"
    }
    bias_filler {
      type: "constant"
      value: 0
    }
  }
}
layer {
  name: "BatchNorm19"
  type: "BatchNorm"
  bottom: "Convolution19"
  top: "Convolution19"
  param {
    lr_mult: 0
    decay_mult: 0
  }
  param {
    lr_mult: 0
    decay_mult: 0
  }
  param {
    lr_mult: 0
    decay_mult: 0
  }
}
layer {
  name: "Scale19"
  type: "Scale"
  bottom: "Convolution19"
  top: "Convolution19"
  scale_param {
    bias_term: true
  }
}
layer {
  name: "Eltwise9"
  type: "Eltwise"
  bottom: "Eltwise8"
  bottom: "Convolution19"
  top: "Eltwise9"
  eltwise_param {
    operation: SUM
  }
}
layer {
  name: "ReLU19"
  type: "ReLU"
  bottom: "Eltwise9"
  top: "Eltwise9"
}
layer {
  name: "Convolution20"
  type: "Convolution"
  bottom: "Eltwise9"
  top: "Convolution20"
  param {
    lr_mult: 1
    decay_mult: 1
  }
  param {
    lr_mult: 2
    decay_mult: 0
  }
  convolution_param {
    num_output: 32
    pad: 0
    kernel_size: 1
    stride: 2
    weight_filler {
      type: "msra"
    }
    bias_filler {
      type: "constant"
      value: 0
    }
  }
}
layer {
  name: "BatchNorm20"
  type: "BatchNorm"
  bottom: "Convolution20"
  top: "Convolution20"
  param {
    lr_mult: 0
    decay_mult: 0
  }
  param {
    lr_mult: 0
    decay_mult: 0
  }
  param {
    lr_mult: 0
    decay_mult: 0
  }
}
layer {
  name: "Scale20"
  type: "Scale"
  bottom: "Convolution20"
  top: "Convolution20"
  scale_param {
    bias_term: true
  }
}
layer {
  name: "Convolution21"
  type: "Convolution"
  bottom: "Eltwise9"
  top: "Convolution21"
  param {
    lr_mult: 1
    decay_mult: 1
  }
  param {
    lr_mult: 2
    decay_mult: 0
  }
  convolution_param {
    num_output: 32
    pad: 1
    kernel_size: 3
    stride: 2
    weight_filler {
      type: "msra"
    }
    bias_filler {
      type: "constant"
      value: 0
    }
  }
}
layer {
  name: "BatchNorm21"
  type: "BatchNorm"
  bottom: "Convolution21"
  top: "Convolution21"
  param {
    lr_mult: 0
    decay_mult: 0
  }
  param {
    lr_mult: 0
    decay_mult: 0
  }
  param {
    lr_mult: 0
    decay_mult: 0
  }
}
layer {
  name: "Scale21"
  type: "Scale"
  bottom: "Convolution21"
  top: "Convolution21"
  scale_param {
    bias_term: true
  }
}
layer {
  name: "ReLU20"
  type: "ReLU"
  bottom: "Convolution21"
  top: "Convolution21"
}
layer {
  name: "Convolution22"
  type: "Convolution"
  bottom: "Convolution21"
  top: "Convolution22"
  param {
    lr_mult: 1
    decay_mult: 1
  }
  param {
    lr_mult: 2
    decay_mult: 0
  }
  convolution_param {
    num_output: 32
    pad: 1
    kernel_size: 3
    stride: 1
    weight_filler {
      type: "msra"
    }
    bias_filler {
      type: "constant"
      value: 0
    }
  }
}
layer {
  name: "BatchNorm22"
  type: "BatchNorm"
  bottom: "Convolution22"
  top: "Convolution22"
  param {
    lr_mult: 0
    decay_mult: 0
  }
  param {
    lr_mult: 0
    decay_mult: 0
  }
  param {
    lr_mult: 0
    decay_mult: 0
  }
}
layer {
  name: "Scale22"
  type: "Scale"
  bottom: "Convolution22"
  top: "Convolution22"
  scale_param {
    bias_term: true
  }
}
layer {
  name: "Eltwise10"
  type: "Eltwise"
  bottom: "Convolution20"
  bottom: "Convolution22"
  top: "Eltwise10"
  eltwise_param {
    operation: SUM
  }
}
layer {
  name: "ReLU21"
  type: "ReLU"
  bottom: "Eltwise10"
  top: "Eltwise10"
}
layer {
  name: "Convolution23"
  type: "Convolution"
  bottom: "Eltwise10"
  top: "Convolution23"
  param {
    lr_mult: 1
    decay_mult: 1
  }
  param {
    lr_mult: 2
    decay_mult: 0
  }
  convolution_param {
    num_output: 32
    pad: 1
    kernel_size: 3
    stride: 1
    weight_filler {
      type: "msra"
    }
    bias_filler {
      type: "constant"
      value: 0
    }
  }
}
layer {
  name: "BatchNorm23"
  type: "BatchNorm"
  bottom: "Convolution23"
  top: "Convolution23"
  param {
    lr_mult: 0
    decay_mult: 0
  }
  param {
    lr_mult: 0
    decay_mult: 0
  }
  param {
    lr_mult: 0
    decay_mult: 0
  }
}
layer {
  name: "Scale23"
  type: "Scale"
  bottom: "Convolution23"
  top: "Convolution23"
  scale_param {
    bias_term: true
  }
}
layer {
  name: "ReLU22"
  type: "ReLU"
  bottom: "Convolution23"
  top: "Convolution23"
}
layer {
  name: "Convolution24"
  type: "Convolution"
  bottom: "Convolution23"
  top: "Convolution24"
  param {
    lr_mult: 1
    decay_mult: 1
  }
  param {
    lr_mult: 2
    decay_mult: 0
  }
  convolution_param {
    num_output: 32
    pad: 1
    kernel_size: 3
    stride: 1
    weight_filler {
      type: "msra"
    }
    bias_filler {
      type: "constant"
      value: 0
    }
  }
}
layer {
  name: "BatchNorm24"
  type: "BatchNorm"
  bottom: "Convolution24"
  top: "Convolution24"
  param {
    lr_mult: 0
    decay_mult: 0
  }
  param {
    lr_mult: 0
    decay_mult: 0
  }
  param {
    lr_mult: 0
    decay_mult: 0
  }
}
layer {
  name: "Scale24"
  type: "Scale"
  bottom: "Convolution24"
  top: "Convolution24"
  scale_param {
    bias_term: true
  }
}
layer {
  name: "Eltwise11"
  type: "Eltwise"
  bottom: "Eltwise10"
  bottom: "Convolution24"
  top: "Eltwise11"
  eltwise_param {
    operation: SUM
  }
}
layer {
  name: "ReLU23"
  type: "ReLU"
  bottom: "Eltwise11"
  top: "Eltwise11"
}
layer {
  name: "Convolution25"
  type: "Convolution"
  bottom: "Eltwise11"
  top: "Convolution25"
  param {
    lr_mult: 1
    decay_mult: 1
  }
  param {
    lr_mult: 2
    decay_mult: 0
  }
  convolution_param {
    num_output: 32
    pad: 1
    kernel_size: 3
    stride: 1
    weight_filler {
      type: "msra"
    }
    bias_filler {
      type: "constant"
      value: 0
    }
  }
}
layer {
  name: "BatchNorm25"
  type: "BatchNorm"
  bottom: "Convolution25"
  top: "Convolution25"
  param {
    lr_mult: 0
    decay_mult: 0
  }
  param {
    lr_mult: 0
    decay_mult: 0
  }
  param {
    lr_mult: 0
    decay_mult: 0
  }
}
layer {
  name: "Scale25"
  type: "Scale"
  bottom: "Convolution25"
  top: "Convolution25"
  scale_param {
    bias_term: true
  }
}
layer {
  name: "ReLU24"
  type: "ReLU"
  bottom: "Convolution25"
  top: "Convolution25"
}
layer {
  name: "Convolution26"
  type: "Convolution"
  bottom: "Convolution25"
  top: "Convolution26"
  param {
    lr_mult: 1
    decay_mult: 1
  }
  param {
    lr_mult: 2
    decay_mult: 0
  }
  convolution_param {
    num_output: 32
    pad: 1
    kernel_size: 3
    stride: 1
    weight_filler {
      type: "msra"
    }
    bias_filler {
      type: "constant"
      value: 0
    }
  }
}
layer {
  name: "BatchNorm26"
  type: "BatchNorm"
  bottom: "Convolution26"
  top: "Convolution26"
  param {
    lr_mult: 0
    decay_mult: 0
  }
  param {
    lr_mult: 0
    decay_mult: 0
  }
  param {
    lr_mult: 0
    decay_mult: 0
  }
}
layer {
  name: "Scale26"
  type: "Scale"
  bottom: "Convolution26"
  top: "Convolution26"
  scale_param {
    bias_term: true
  }
}
layer {
  name: "Eltwise12"
  type: "Eltwise"
  bottom: "Eltwise11"
  bottom: "Convolution26"
  top: "Eltwise12"
  eltwise_param {
    operation: SUM
  }
}
layer {
  name: "ReLU25"
  type: "ReLU"
  bottom: "Eltwise12"
  top: "Eltwise12"
}
layer {
  name: "Convolution27"
  type: "Convolution"
  bottom: "Eltwise12"
  top: "Convolution27"
  param {
    lr_mult: 1
    decay_mult: 1
  }
  param {
    lr_mult: 2
    decay_mult: 0
  }
  convolution_param {
    num_output: 32
    pad: 1
    kernel_size: 3
    stride: 1
    weight_filler {
      type: "msra"
    }
    bias_filler {
      type: "constant"
      value: 0
    }
  }
}
layer {
  name: "BatchNorm27"
  type: "BatchNorm"
  bottom: "Convolution27"
  top: "Convolution27"
  param {
    lr_mult: 0
    decay_mult: 0
  }
  param {
    lr_mult: 0
    decay_mult: 0
  }
  param {
    lr_mult: 0
    decay_mult: 0
  }
}
layer {
  name: "Scale27"
  type: "Scale"
  bottom: "Convolution27"
  top: "Convolution27"
  scale_param {
    bias_term: true
  }
}
layer {
  name: "ReLU26"
  type: "ReLU"
  bottom: "Convolution27"
  top: "Convolution27"
}
layer {
  name: "Convolution28"
  type: "Convolution"
  bottom: "Convolution27"
  top: "Convolution28"
  param {
    lr_mult: 1
    decay_mult: 1
  }
  param {
    lr_mult: 2
    decay_mult: 0
  }
  convolution_param {
    num_output: 32
    pad: 1
    kernel_size: 3
    stride: 1
    weight_filler {
      type: "msra"
    }
    bias_filler {
      type: "constant"
      value: 0
    }
  }
}
layer {
  name: "BatchNorm28"
  type: "BatchNorm"
  bottom: "Convolution28"
  top: "Convolution28"
  param {
    lr_mult: 0
    decay_mult: 0
  }
  param {
    lr_mult: 0
    decay_mult: 0
  }
  param {
    lr_mult: 0
    decay_mult: 0
  }
}
layer {
  name: "Scale28"
  type: "Scale"
  bottom: "Convolution28"
  top: "Convolution28"
  scale_param {
    bias_term: true
  }
}
layer {
  name: "Eltwise13"
  type: "Eltwise"
  bottom: "Eltwise12"
  bottom: "Convolution28"
  top: "Eltwise13"
  eltwise_param {
    operation: SUM
  }
}
layer {
  name: "ReLU27"
  type: "ReLU"
  bottom: "Eltwise13"
  top: "Eltwise13"
}
layer {
  name: "Convolution29"
  type: "Convolution"
  bottom: "Eltwise13"
  top: "Convolution29"
  param {
    lr_mult: 1
    decay_mult: 1
  }
  param {
    lr_mult: 2
    decay_mult: 0
  }
  convolution_param {
    num_output: 32
    pad: 1
    kernel_size: 3
    stride: 1
    weight_filler {
      type: "msra"
    }
    bias_filler {
      type: "constant"
      value: 0
    }
  }
}
layer {
  name: "BatchNorm29"
  type: "BatchNorm"
  bottom: "Convolution29"
  top: "Convolution29"
  param {
    lr_mult: 0
    decay_mult: 0
  }
  param {
    lr_mult: 0
    decay_mult: 0
  }
  param {
    lr_mult: 0
    decay_mult: 0
  }
}
layer {
  name: "Scale29"
  type: "Scale"
  bottom: "Convolution29"
  top: "Convolution29"
  scale_param {
    bias_term: true
  }
}
layer {
  name: "ReLU28"
  type: "ReLU"
  bottom: "Convolution29"
  top: "Convolution29"
}
layer {
  name: "Convolution30"
  type: "Convolution"
  bottom: "Convolution29"
  top: "Convolution30"
  param {
    lr_mult: 1
    decay_mult: 1
  }
  param {
    lr_mult: 2
    decay_mult: 0
  }
  convolution_param {
    num_output: 32
    pad: 1
    kernel_size: 3
    stride: 1
    weight_filler {
      type: "msra"
    }
    bias_filler {
      type: "constant"
      value: 0
    }
  }
}
layer {
  name: "BatchNorm30"
  type: "BatchNorm"
  bottom: "Convolution30"
  top: "Convolution30"
  param {
    lr_mult: 0
    decay_mult: 0
  }
  param {
    lr_mult: 0
    decay_mult: 0
  }
  param {
    lr_mult: 0
    decay_mult: 0
  }
}
layer {
  name: "Scale30"
  type: "Scale"
  bottom: "Convolution30"
  top: "Convolution30"
  scale_param {
    bias_term: true
  }
}
layer {
  name: "Eltwise14"
  type: "Eltwise"
  bottom: "Eltwise13"
  bottom: "Convolution30"
  top: "Eltwise14"
  eltwise_param {
    operation: SUM
  }
}
layer {
  name: "ReLU29"
  type: "ReLU"
  bottom: "Eltwise14"
  top: "Eltwise14"
}
layer {
  name: "Convolution31"
  type: "Convolution"
  bottom: "Eltwise14"
  top: "Convolution31"
  param {
    lr_mult: 1
    decay_mult: 1
  }
  param {
    lr_mult: 2
    decay_mult: 0
  }
  convolution_param {
    num_output: 32
    pad: 1
    kernel_size: 3
    stride: 1
    weight_filler {
      type: "msra"
    }
    bias_filler {
      type: "constant"
      value: 0
    }
  }
}
layer {
  name: "BatchNorm31"
  type: "BatchNorm"
  bottom: "Convolution31"
  top: "Convolution31"
  param {
    lr_mult: 0
    decay_mult: 0
  }
  param {
    lr_mult: 0
    decay_mult: 0
  }
  param {
    lr_mult: 0
    decay_mult: 0
  }
}
layer {
  name: "Scale31"
  type: "Scale"
  bottom: "Convolution31"
  top: "Convolution31"
  scale_param {
    bias_term: true
  }
}
layer {
  name: "ReLU30"
  type: "ReLU"
  bottom: "Convolution31"
  top: "Convolution31"
}
layer {
  name: "Convolution32"
  type: "Convolution"
  bottom: "Convolution31"
  top: "Convolution32"
  param {
    lr_mult: 1
    decay_mult: 1
  }
  param {
    lr_mult: 2
    decay_mult: 0
  }
  convolution_param {
    num_output: 32
    pad: 1
    kernel_size: 3
    stride: 1
    weight_filler {
      type: "msra"
    }
    bias_filler {
      type: "constant"
      value: 0
    }
  }
}
layer {
  name: "BatchNorm32"
  type: "BatchNorm"
  bottom: "Convolution32"
  top: "Convolution32"
  param {
    lr_mult: 0
    decay_mult: 0
  }
  param {
    lr_mult: 0
    decay_mult: 0
  }
  param {
    lr_mult: 0
    decay_mult: 0
  }
}
layer {
  name: "Scale32"
  type: "Scale"
  bottom: "Convolution32"
  top: "Convolution32"
  scale_param {
    bias_term: true
  }
}
layer {
  name: "Eltwise15"
  type: "Eltwise"
  bottom: "Eltwise14"
  bottom: "Convolution32"
  top: "Eltwise15"
  eltwise_param {
    operation: SUM
  }
}
layer {
  name: "ReLU31"
  type: "ReLU"
  bottom: "Eltwise15"
  top: "Eltwise15"
}
I0929 19:16:17.654580  2630 layer_factory.hpp:77] Creating layer Data1
I0929 19:16:17.654677  2630 db_lmdb.cpp:35] Opened lmdb /home/x306/caffe/xn/PENLU/data/cifar10/cifar10_train_lmdb
I0929 19:16:17.654703  2630 net.cpp:84] Creating Layer Data1
I0929 19:16:17.654709  2630 net.cpp:380] Data1 -> Data1
I0929 19:16:17.654726  2630 net.cpp:380] Data1 -> Data2
I0929 19:16:17.654736  2630 data_transformer.cpp:25] Loading mean file from: /home/x306/caffe/xn/PENLU/data/cifar10/mean.binaryproto
I0929 19:16:17.656172  2630 data_layer.cpp:45] output data size: 100,3,28,28
I0929 19:16:17.658493  2630 net.cpp:122] Setting up Data1
I0929 19:16:17.658506  2630 net.cpp:129] Top shape: 100 3 28 28 (235200)
I0929 19:16:17.658510  2630 net.cpp:129] Top shape: 100 (100)
I0929 19:16:17.658514  2630 net.cpp:137] Memory required for data: 941200
I0929 19:16:17.658524  2630 layer_factory.hpp:77] Creating layer Convolution1
I0929 19:16:17.658545  2630 net.cpp:84] Creating Layer Convolution1
I0929 19:16:17.658550  2630 net.cpp:406] Convolution1 <- Data1
I0929 19:16:17.658560  2630 net.cpp:380] Convolution1 -> Convolution1
I0929 19:16:17.805140  2630 net.cpp:122] Setting up Convolution1
I0929 19:16:17.805164  2630 net.cpp:129] Top shape: 100 16 28 28 (1254400)
I0929 19:16:17.805168  2630 net.cpp:137] Memory required for data: 5958800
I0929 19:16:17.805199  2630 layer_factory.hpp:77] Creating layer BatchNorm1
I0929 19:16:17.805214  2630 net.cpp:84] Creating Layer BatchNorm1
I0929 19:16:17.805219  2630 net.cpp:406] BatchNorm1 <- Convolution1
I0929 19:16:17.805239  2630 net.cpp:367] BatchNorm1 -> Convolution1 (in-place)
I0929 19:16:17.805379  2630 net.cpp:122] Setting up BatchNorm1
I0929 19:16:17.805387  2630 net.cpp:129] Top shape: 100 16 28 28 (1254400)
I0929 19:16:17.805392  2630 net.cpp:137] Memory required for data: 10976400
I0929 19:16:17.805414  2630 layer_factory.hpp:77] Creating layer Scale1
I0929 19:16:17.805438  2630 net.cpp:84] Creating Layer Scale1
I0929 19:16:17.805443  2630 net.cpp:406] Scale1 <- Convolution1
I0929 19:16:17.805447  2630 net.cpp:367] Scale1 -> Convolution1 (in-place)
I0929 19:16:17.805506  2630 layer_factory.hpp:77] Creating layer Scale1
I0929 19:16:17.805631  2630 net.cpp:122] Setting up Scale1
I0929 19:16:17.805639  2630 net.cpp:129] Top shape: 100 16 28 28 (1254400)
I0929 19:16:17.805655  2630 net.cpp:137] Memory required for data: 15994000
I0929 19:16:17.805662  2630 layer_factory.hpp:77] Creating layer ReLU1
I0929 19:16:17.805681  2630 net.cpp:84] Creating Layer ReLU1
I0929 19:16:17.805686  2630 net.cpp:406] ReLU1 <- Convolution1
I0929 19:16:17.805693  2630 net.cpp:367] ReLU1 -> Convolution1 (in-place)
I0929 19:16:17.805830  2630 net.cpp:122] Setting up ReLU1
I0929 19:16:17.805837  2630 net.cpp:129] Top shape: 100 16 28 28 (1254400)
I0929 19:16:17.805852  2630 net.cpp:137] Memory required for data: 21011600
I0929 19:16:17.805857  2630 layer_factory.hpp:77] Creating layer Convolution1_ReLU1_0_split
I0929 19:16:17.805879  2630 net.cpp:84] Creating Layer Convolution1_ReLU1_0_split
I0929 19:16:17.805883  2630 net.cpp:406] Convolution1_ReLU1_0_split <- Convolution1
I0929 19:16:17.805898  2630 net.cpp:380] Convolution1_ReLU1_0_split -> Convolution1_ReLU1_0_split_0
I0929 19:16:17.805917  2630 net.cpp:380] Convolution1_ReLU1_0_split -> Convolution1_ReLU1_0_split_1
I0929 19:16:17.805955  2630 net.cpp:122] Setting up Convolution1_ReLU1_0_split
I0929 19:16:17.805971  2630 net.cpp:129] Top shape: 100 16 28 28 (1254400)
I0929 19:16:17.805979  2630 net.cpp:129] Top shape: 100 16 28 28 (1254400)
I0929 19:16:17.805992  2630 net.cpp:137] Memory required for data: 31046800
I0929 19:16:17.805999  2630 layer_factory.hpp:77] Creating layer Convolution2
I0929 19:16:17.806020  2630 net.cpp:84] Creating Layer Convolution2
I0929 19:16:17.806025  2630 net.cpp:406] Convolution2 <- Convolution1_ReLU1_0_split_0
I0929 19:16:17.806040  2630 net.cpp:380] Convolution2 -> Convolution2
I0929 19:16:17.806938  2630 net.cpp:122] Setting up Convolution2
I0929 19:16:17.806951  2630 net.cpp:129] Top shape: 100 16 28 28 (1254400)
I0929 19:16:17.806955  2630 net.cpp:137] Memory required for data: 36064400
I0929 19:16:17.806965  2630 layer_factory.hpp:77] Creating layer BatchNorm2
I0929 19:16:17.806973  2630 net.cpp:84] Creating Layer BatchNorm2
I0929 19:16:17.806979  2630 net.cpp:406] BatchNorm2 <- Convolution2
I0929 19:16:17.806985  2630 net.cpp:367] BatchNorm2 -> Convolution2 (in-place)
I0929 19:16:17.807111  2630 net.cpp:122] Setting up BatchNorm2
I0929 19:16:17.807118  2630 net.cpp:129] Top shape: 100 16 28 28 (1254400)
I0929 19:16:17.807123  2630 net.cpp:137] Memory required for data: 41082000
I0929 19:16:17.807132  2630 layer_factory.hpp:77] Creating layer Scale2
I0929 19:16:17.807142  2630 net.cpp:84] Creating Layer Scale2
I0929 19:16:17.807145  2630 net.cpp:406] Scale2 <- Convolution2
I0929 19:16:17.807152  2630 net.cpp:367] Scale2 -> Convolution2 (in-place)
I0929 19:16:17.807190  2630 layer_factory.hpp:77] Creating layer Scale2
I0929 19:16:17.807276  2630 net.cpp:122] Setting up Scale2
I0929 19:16:17.807283  2630 net.cpp:129] Top shape: 100 16 28 28 (1254400)
I0929 19:16:17.807288  2630 net.cpp:137] Memory required for data: 46099600
I0929 19:16:17.807296  2630 layer_factory.hpp:77] Creating layer ReLU2
I0929 19:16:17.807303  2630 net.cpp:84] Creating Layer ReLU2
I0929 19:16:17.807309  2630 net.cpp:406] ReLU2 <- Convolution2
I0929 19:16:17.807315  2630 net.cpp:367] ReLU2 -> Convolution2 (in-place)
I0929 19:16:17.807756  2630 net.cpp:122] Setting up ReLU2
I0929 19:16:17.807767  2630 net.cpp:129] Top shape: 100 16 28 28 (1254400)
I0929 19:16:17.807781  2630 net.cpp:137] Memory required for data: 51117200
I0929 19:16:17.807787  2630 layer_factory.hpp:77] Creating layer Convolution3
I0929 19:16:17.807797  2630 net.cpp:84] Creating Layer Convolution3
I0929 19:16:17.807802  2630 net.cpp:406] Convolution3 <- Convolution2
I0929 19:16:17.807811  2630 net.cpp:380] Convolution3 -> Convolution3
I0929 19:16:17.808334  2630 net.cpp:122] Setting up Convolution3
I0929 19:16:17.808346  2630 net.cpp:129] Top shape: 100 16 28 28 (1254400)
I0929 19:16:17.808349  2630 net.cpp:137] Memory required for data: 56134800
I0929 19:16:17.808359  2630 layer_factory.hpp:77] Creating layer BatchNorm3
I0929 19:16:17.808367  2630 net.cpp:84] Creating Layer BatchNorm3
I0929 19:16:17.808372  2630 net.cpp:406] BatchNorm3 <- Convolution3
I0929 19:16:17.808380  2630 net.cpp:367] BatchNorm3 -> Convolution3 (in-place)
I0929 19:16:17.808504  2630 net.cpp:122] Setting up BatchNorm3
I0929 19:16:17.808511  2630 net.cpp:129] Top shape: 100 16 28 28 (1254400)
I0929 19:16:17.808517  2630 net.cpp:137] Memory required for data: 61152400
I0929 19:16:17.808528  2630 layer_factory.hpp:77] Creating layer Scale3
I0929 19:16:17.808535  2630 net.cpp:84] Creating Layer Scale3
I0929 19:16:17.808542  2630 net.cpp:406] Scale3 <- Convolution3
I0929 19:16:17.808548  2630 net.cpp:367] Scale3 -> Convolution3 (in-place)
I0929 19:16:17.808578  2630 layer_factory.hpp:77] Creating layer Scale3
I0929 19:16:17.808656  2630 net.cpp:122] Setting up Scale3
I0929 19:16:17.808665  2630 net.cpp:129] Top shape: 100 16 28 28 (1254400)
I0929 19:16:17.808670  2630 net.cpp:137] Memory required for data: 66170000
I0929 19:16:17.808676  2630 layer_factory.hpp:77] Creating layer Eltwise1
I0929 19:16:17.808684  2630 net.cpp:84] Creating Layer Eltwise1
I0929 19:16:17.808689  2630 net.cpp:406] Eltwise1 <- Convolution1_ReLU1_0_split_1
I0929 19:16:17.808696  2630 net.cpp:406] Eltwise1 <- Convolution3
I0929 19:16:17.808702  2630 net.cpp:380] Eltwise1 -> Eltwise1
I0929 19:16:17.808724  2630 net.cpp:122] Setting up Eltwise1
I0929 19:16:17.808732  2630 net.cpp:129] Top shape: 100 16 28 28 (1254400)
I0929 19:16:17.808737  2630 net.cpp:137] Memory required for data: 71187600
I0929 19:16:17.808742  2630 layer_factory.hpp:77] Creating layer ReLU3
I0929 19:16:17.808748  2630 net.cpp:84] Creating Layer ReLU3
I0929 19:16:17.808753  2630 net.cpp:406] ReLU3 <- Eltwise1
I0929 19:16:17.808759  2630 net.cpp:367] ReLU3 -> Eltwise1 (in-place)
I0929 19:16:17.809201  2630 net.cpp:122] Setting up ReLU3
I0929 19:16:17.809212  2630 net.cpp:129] Top shape: 100 16 28 28 (1254400)
I0929 19:16:17.809217  2630 net.cpp:137] Memory required for data: 76205200
I0929 19:16:17.809221  2630 layer_factory.hpp:77] Creating layer Eltwise1_ReLU3_0_split
I0929 19:16:17.809229  2630 net.cpp:84] Creating Layer Eltwise1_ReLU3_0_split
I0929 19:16:17.809236  2630 net.cpp:406] Eltwise1_ReLU3_0_split <- Eltwise1
I0929 19:16:17.809242  2630 net.cpp:380] Eltwise1_ReLU3_0_split -> Eltwise1_ReLU3_0_split_0
I0929 19:16:17.809252  2630 net.cpp:380] Eltwise1_ReLU3_0_split -> Eltwise1_ReLU3_0_split_1
I0929 19:16:17.809283  2630 net.cpp:122] Setting up Eltwise1_ReLU3_0_split
I0929 19:16:17.809289  2630 net.cpp:129] Top shape: 100 16 28 28 (1254400)
I0929 19:16:17.809296  2630 net.cpp:129] Top shape: 100 16 28 28 (1254400)
I0929 19:16:17.809301  2630 net.cpp:137] Memory required for data: 86240400
I0929 19:16:17.809305  2630 layer_factory.hpp:77] Creating layer Convolution4
I0929 19:16:17.809317  2630 net.cpp:84] Creating Layer Convolution4
I0929 19:16:17.809321  2630 net.cpp:406] Convolution4 <- Eltwise1_ReLU3_0_split_0
I0929 19:16:17.809329  2630 net.cpp:380] Convolution4 -> Convolution4
I0929 19:16:17.810205  2630 net.cpp:122] Setting up Convolution4
I0929 19:16:17.810216  2630 net.cpp:129] Top shape: 100 16 28 28 (1254400)
I0929 19:16:17.810221  2630 net.cpp:137] Memory required for data: 91258000
I0929 19:16:17.810230  2630 layer_factory.hpp:77] Creating layer BatchNorm4
I0929 19:16:17.810237  2630 net.cpp:84] Creating Layer BatchNorm4
I0929 19:16:17.810243  2630 net.cpp:406] BatchNorm4 <- Convolution4
I0929 19:16:17.810257  2630 net.cpp:367] BatchNorm4 -> Convolution4 (in-place)
I0929 19:16:17.810382  2630 net.cpp:122] Setting up BatchNorm4
I0929 19:16:17.810390  2630 net.cpp:129] Top shape: 100 16 28 28 (1254400)
I0929 19:16:17.810395  2630 net.cpp:137] Memory required for data: 96275600
I0929 19:16:17.810405  2630 layer_factory.hpp:77] Creating layer Scale4
I0929 19:16:17.810411  2630 net.cpp:84] Creating Layer Scale4
I0929 19:16:17.810416  2630 net.cpp:406] Scale4 <- Convolution4
I0929 19:16:17.810422  2630 net.cpp:367] Scale4 -> Convolution4 (in-place)
I0929 19:16:17.810452  2630 layer_factory.hpp:77] Creating layer Scale4
I0929 19:16:17.810551  2630 net.cpp:122] Setting up Scale4
I0929 19:16:17.810559  2630 net.cpp:129] Top shape: 100 16 28 28 (1254400)
I0929 19:16:17.810564  2630 net.cpp:137] Memory required for data: 101293200
I0929 19:16:17.810570  2630 layer_factory.hpp:77] Creating layer ReLU4
I0929 19:16:17.810577  2630 net.cpp:84] Creating Layer ReLU4
I0929 19:16:17.810582  2630 net.cpp:406] ReLU4 <- Convolution4
I0929 19:16:17.810590  2630 net.cpp:367] ReLU4 -> Convolution4 (in-place)
I0929 19:16:17.810710  2630 net.cpp:122] Setting up ReLU4
I0929 19:16:17.810719  2630 net.cpp:129] Top shape: 100 16 28 28 (1254400)
I0929 19:16:17.810724  2630 net.cpp:137] Memory required for data: 106310800
I0929 19:16:17.810729  2630 layer_factory.hpp:77] Creating layer Convolution5
I0929 19:16:17.810739  2630 net.cpp:84] Creating Layer Convolution5
I0929 19:16:17.810745  2630 net.cpp:406] Convolution5 <- Convolution4
I0929 19:16:17.810752  2630 net.cpp:380] Convolution5 -> Convolution5
I0929 19:16:17.811625  2630 net.cpp:122] Setting up Convolution5
I0929 19:16:17.811635  2630 net.cpp:129] Top shape: 100 16 28 28 (1254400)
I0929 19:16:17.811640  2630 net.cpp:137] Memory required for data: 111328400
I0929 19:16:17.811647  2630 layer_factory.hpp:77] Creating layer BatchNorm5
I0929 19:16:17.811656  2630 net.cpp:84] Creating Layer BatchNorm5
I0929 19:16:17.811662  2630 net.cpp:406] BatchNorm5 <- Convolution5
I0929 19:16:17.811669  2630 net.cpp:367] BatchNorm5 -> Convolution5 (in-place)
I0929 19:16:17.811802  2630 net.cpp:122] Setting up BatchNorm5
I0929 19:16:17.811810  2630 net.cpp:129] Top shape: 100 16 28 28 (1254400)
I0929 19:16:17.811813  2630 net.cpp:137] Memory required for data: 116346000
I0929 19:16:17.811826  2630 layer_factory.hpp:77] Creating layer Scale5
I0929 19:16:17.811833  2630 net.cpp:84] Creating Layer Scale5
I0929 19:16:17.811839  2630 net.cpp:406] Scale5 <- Convolution5
I0929 19:16:17.811846  2630 net.cpp:367] Scale5 -> Convolution5 (in-place)
I0929 19:16:17.811878  2630 layer_factory.hpp:77] Creating layer Scale5
I0929 19:16:17.811960  2630 net.cpp:122] Setting up Scale5
I0929 19:16:17.811967  2630 net.cpp:129] Top shape: 100 16 28 28 (1254400)
I0929 19:16:17.811971  2630 net.cpp:137] Memory required for data: 121363600
I0929 19:16:17.811980  2630 layer_factory.hpp:77] Creating layer Eltwise2
I0929 19:16:17.811988  2630 net.cpp:84] Creating Layer Eltwise2
I0929 19:16:17.811993  2630 net.cpp:406] Eltwise2 <- Eltwise1_ReLU3_0_split_1
I0929 19:16:17.811998  2630 net.cpp:406] Eltwise2 <- Convolution5
I0929 19:16:17.812005  2630 net.cpp:380] Eltwise2 -> Eltwise2
I0929 19:16:17.812026  2630 net.cpp:122] Setting up Eltwise2
I0929 19:16:17.812032  2630 net.cpp:129] Top shape: 100 16 28 28 (1254400)
I0929 19:16:17.812036  2630 net.cpp:137] Memory required for data: 126381200
I0929 19:16:17.812042  2630 layer_factory.hpp:77] Creating layer ReLU5
I0929 19:16:17.812048  2630 net.cpp:84] Creating Layer ReLU5
I0929 19:16:17.812053  2630 net.cpp:406] ReLU5 <- Eltwise2
I0929 19:16:17.812059  2630 net.cpp:367] ReLU5 -> Eltwise2 (in-place)
I0929 19:16:17.812175  2630 net.cpp:122] Setting up ReLU5
I0929 19:16:17.812185  2630 net.cpp:129] Top shape: 100 16 28 28 (1254400)
I0929 19:16:17.812188  2630 net.cpp:137] Memory required for data: 131398800
I0929 19:16:17.812193  2630 layer_factory.hpp:77] Creating layer Eltwise2_ReLU5_0_split
I0929 19:16:17.812201  2630 net.cpp:84] Creating Layer Eltwise2_ReLU5_0_split
I0929 19:16:17.812211  2630 net.cpp:406] Eltwise2_ReLU5_0_split <- Eltwise2
I0929 19:16:17.812219  2630 net.cpp:380] Eltwise2_ReLU5_0_split -> Eltwise2_ReLU5_0_split_0
I0929 19:16:17.812227  2630 net.cpp:380] Eltwise2_ReLU5_0_split -> Eltwise2_ReLU5_0_split_1
I0929 19:16:17.812259  2630 net.cpp:122] Setting up Eltwise2_ReLU5_0_split
I0929 19:16:17.812266  2630 net.cpp:129] Top shape: 100 16 28 28 (1254400)
I0929 19:16:17.812273  2630 net.cpp:129] Top shape: 100 16 28 28 (1254400)
I0929 19:16:17.812278  2630 net.cpp:137] Memory required for data: 141434000
I0929 19:16:17.812283  2630 layer_factory.hpp:77] Creating layer Convolution6
I0929 19:16:17.812294  2630 net.cpp:84] Creating Layer Convolution6
I0929 19:16:17.812299  2630 net.cpp:406] Convolution6 <- Eltwise2_ReLU5_0_split_0
I0929 19:16:17.812305  2630 net.cpp:380] Convolution6 -> Convolution6
I0929 19:16:17.813181  2630 net.cpp:122] Setting up Convolution6
I0929 19:16:17.813194  2630 net.cpp:129] Top shape: 100 16 28 28 (1254400)
I0929 19:16:17.813199  2630 net.cpp:137] Memory required for data: 146451600
I0929 19:16:17.813206  2630 layer_factory.hpp:77] Creating layer BatchNorm6
I0929 19:16:17.813215  2630 net.cpp:84] Creating Layer BatchNorm6
I0929 19:16:17.813220  2630 net.cpp:406] BatchNorm6 <- Convolution6
I0929 19:16:17.813238  2630 net.cpp:367] BatchNorm6 -> Convolution6 (in-place)
I0929 19:16:17.813382  2630 net.cpp:122] Setting up BatchNorm6
I0929 19:16:17.813390  2630 net.cpp:129] Top shape: 100 16 28 28 (1254400)
I0929 19:16:17.813393  2630 net.cpp:137] Memory required for data: 151469200
I0929 19:16:17.813402  2630 layer_factory.hpp:77] Creating layer Scale6
I0929 19:16:17.813410  2630 net.cpp:84] Creating Layer Scale6
I0929 19:16:17.813415  2630 net.cpp:406] Scale6 <- Convolution6
I0929 19:16:17.813421  2630 net.cpp:367] Scale6 -> Convolution6 (in-place)
I0929 19:16:17.813454  2630 layer_factory.hpp:77] Creating layer Scale6
I0929 19:16:17.813536  2630 net.cpp:122] Setting up Scale6
I0929 19:16:17.813544  2630 net.cpp:129] Top shape: 100 16 28 28 (1254400)
I0929 19:16:17.813549  2630 net.cpp:137] Memory required for data: 156486800
I0929 19:16:17.813555  2630 layer_factory.hpp:77] Creating layer ReLU6
I0929 19:16:17.813562  2630 net.cpp:84] Creating Layer ReLU6
I0929 19:16:17.813567  2630 net.cpp:406] ReLU6 <- Convolution6
I0929 19:16:17.813573  2630 net.cpp:367] ReLU6 -> Convolution6 (in-place)
I0929 19:16:17.813693  2630 net.cpp:122] Setting up ReLU6
I0929 19:16:17.813701  2630 net.cpp:129] Top shape: 100 16 28 28 (1254400)
I0929 19:16:17.813705  2630 net.cpp:137] Memory required for data: 161504400
I0929 19:16:17.813709  2630 layer_factory.hpp:77] Creating layer Convolution7
I0929 19:16:17.813720  2630 net.cpp:84] Creating Layer Convolution7
I0929 19:16:17.813725  2630 net.cpp:406] Convolution7 <- Convolution6
I0929 19:16:17.813735  2630 net.cpp:380] Convolution7 -> Convolution7
I0929 19:16:17.814620  2630 net.cpp:122] Setting up Convolution7
I0929 19:16:17.814631  2630 net.cpp:129] Top shape: 100 16 28 28 (1254400)
I0929 19:16:17.814636  2630 net.cpp:137] Memory required for data: 166522000
I0929 19:16:17.814644  2630 layer_factory.hpp:77] Creating layer BatchNorm7
I0929 19:16:17.814653  2630 net.cpp:84] Creating Layer BatchNorm7
I0929 19:16:17.814659  2630 net.cpp:406] BatchNorm7 <- Convolution7
I0929 19:16:17.814667  2630 net.cpp:367] BatchNorm7 -> Convolution7 (in-place)
I0929 19:16:17.814800  2630 net.cpp:122] Setting up BatchNorm7
I0929 19:16:17.814807  2630 net.cpp:129] Top shape: 100 16 28 28 (1254400)
I0929 19:16:17.814811  2630 net.cpp:137] Memory required for data: 171539600
I0929 19:16:17.814821  2630 layer_factory.hpp:77] Creating layer Scale7
I0929 19:16:17.814831  2630 net.cpp:84] Creating Layer Scale7
I0929 19:16:17.814836  2630 net.cpp:406] Scale7 <- Convolution7
I0929 19:16:17.814841  2630 net.cpp:367] Scale7 -> Convolution7 (in-place)
I0929 19:16:17.814872  2630 layer_factory.hpp:77] Creating layer Scale7
I0929 19:16:17.814955  2630 net.cpp:122] Setting up Scale7
I0929 19:16:17.814963  2630 net.cpp:129] Top shape: 100 16 28 28 (1254400)
I0929 19:16:17.814975  2630 net.cpp:137] Memory required for data: 176557200
I0929 19:16:17.814982  2630 layer_factory.hpp:77] Creating layer Eltwise3
I0929 19:16:17.814990  2630 net.cpp:84] Creating Layer Eltwise3
I0929 19:16:17.814996  2630 net.cpp:406] Eltwise3 <- Eltwise2_ReLU5_0_split_1
I0929 19:16:17.815001  2630 net.cpp:406] Eltwise3 <- Convolution7
I0929 19:16:17.815009  2630 net.cpp:380] Eltwise3 -> Eltwise3
I0929 19:16:17.815029  2630 net.cpp:122] Setting up Eltwise3
I0929 19:16:17.815037  2630 net.cpp:129] Top shape: 100 16 28 28 (1254400)
I0929 19:16:17.815042  2630 net.cpp:137] Memory required for data: 181574800
I0929 19:16:17.815047  2630 layer_factory.hpp:77] Creating layer ReLU7
I0929 19:16:17.815054  2630 net.cpp:84] Creating Layer ReLU7
I0929 19:16:17.815058  2630 net.cpp:406] ReLU7 <- Eltwise3
I0929 19:16:17.815064  2630 net.cpp:367] ReLU7 -> Eltwise3 (in-place)
I0929 19:16:17.815181  2630 net.cpp:122] Setting up ReLU7
I0929 19:16:17.815189  2630 net.cpp:129] Top shape: 100 16 28 28 (1254400)
I0929 19:16:17.815193  2630 net.cpp:137] Memory required for data: 186592400
I0929 19:16:17.815197  2630 layer_factory.hpp:77] Creating layer Eltwise3_ReLU7_0_split
I0929 19:16:17.815206  2630 net.cpp:84] Creating Layer Eltwise3_ReLU7_0_split
I0929 19:16:17.815210  2630 net.cpp:406] Eltwise3_ReLU7_0_split <- Eltwise3
I0929 19:16:17.815217  2630 net.cpp:380] Eltwise3_ReLU7_0_split -> Eltwise3_ReLU7_0_split_0
I0929 19:16:17.815224  2630 net.cpp:380] Eltwise3_ReLU7_0_split -> Eltwise3_ReLU7_0_split_1
I0929 19:16:17.815254  2630 net.cpp:122] Setting up Eltwise3_ReLU7_0_split
I0929 19:16:17.815261  2630 net.cpp:129] Top shape: 100 16 28 28 (1254400)
I0929 19:16:17.815268  2630 net.cpp:129] Top shape: 100 16 28 28 (1254400)
I0929 19:16:17.815273  2630 net.cpp:137] Memory required for data: 196627600
I0929 19:16:17.815277  2630 layer_factory.hpp:77] Creating layer Convolution8
I0929 19:16:17.815289  2630 net.cpp:84] Creating Layer Convolution8
I0929 19:16:17.815292  2630 net.cpp:406] Convolution8 <- Eltwise3_ReLU7_0_split_0
I0929 19:16:17.815301  2630 net.cpp:380] Convolution8 -> Convolution8
I0929 19:16:17.816227  2630 net.cpp:122] Setting up Convolution8
I0929 19:16:17.816239  2630 net.cpp:129] Top shape: 100 16 28 28 (1254400)
I0929 19:16:17.816246  2630 net.cpp:137] Memory required for data: 201645200
I0929 19:16:17.816252  2630 layer_factory.hpp:77] Creating layer BatchNorm8
I0929 19:16:17.816260  2630 net.cpp:84] Creating Layer BatchNorm8
I0929 19:16:17.816267  2630 net.cpp:406] BatchNorm8 <- Convolution8
I0929 19:16:17.816274  2630 net.cpp:367] BatchNorm8 -> Convolution8 (in-place)
I0929 19:16:17.816429  2630 net.cpp:122] Setting up BatchNorm8
I0929 19:16:17.816437  2630 net.cpp:129] Top shape: 100 16 28 28 (1254400)
I0929 19:16:17.816442  2630 net.cpp:137] Memory required for data: 206662800
I0929 19:16:17.816449  2630 layer_factory.hpp:77] Creating layer Scale8
I0929 19:16:17.816457  2630 net.cpp:84] Creating Layer Scale8
I0929 19:16:17.816462  2630 net.cpp:406] Scale8 <- Convolution8
I0929 19:16:17.816468  2630 net.cpp:367] Scale8 -> Convolution8 (in-place)
I0929 19:16:17.816499  2630 layer_factory.hpp:77] Creating layer Scale8
I0929 19:16:17.816586  2630 net.cpp:122] Setting up Scale8
I0929 19:16:17.816592  2630 net.cpp:129] Top shape: 100 16 28 28 (1254400)
I0929 19:16:17.816596  2630 net.cpp:137] Memory required for data: 211680400
I0929 19:16:17.816604  2630 layer_factory.hpp:77] Creating layer ReLU8
I0929 19:16:17.816610  2630 net.cpp:84] Creating Layer ReLU8
I0929 19:16:17.816617  2630 net.cpp:406] ReLU8 <- Convolution8
I0929 19:16:17.816622  2630 net.cpp:367] ReLU8 -> Convolution8 (in-place)
I0929 19:16:17.817098  2630 net.cpp:122] Setting up ReLU8
I0929 19:16:17.817109  2630 net.cpp:129] Top shape: 100 16 28 28 (1254400)
I0929 19:16:17.817114  2630 net.cpp:137] Memory required for data: 216698000
I0929 19:16:17.817118  2630 layer_factory.hpp:77] Creating layer Convolution9
I0929 19:16:17.817131  2630 net.cpp:84] Creating Layer Convolution9
I0929 19:16:17.817136  2630 net.cpp:406] Convolution9 <- Convolution8
I0929 19:16:17.817150  2630 net.cpp:380] Convolution9 -> Convolution9
I0929 19:16:17.817713  2630 net.cpp:122] Setting up Convolution9
I0929 19:16:17.817723  2630 net.cpp:129] Top shape: 100 16 28 28 (1254400)
I0929 19:16:17.817728  2630 net.cpp:137] Memory required for data: 221715600
I0929 19:16:17.817735  2630 layer_factory.hpp:77] Creating layer BatchNorm9
I0929 19:16:17.817744  2630 net.cpp:84] Creating Layer BatchNorm9
I0929 19:16:17.817759  2630 net.cpp:406] BatchNorm9 <- Convolution9
I0929 19:16:17.817767  2630 net.cpp:367] BatchNorm9 -> Convolution9 (in-place)
I0929 19:16:17.817903  2630 net.cpp:122] Setting up BatchNorm9
I0929 19:16:17.817911  2630 net.cpp:129] Top shape: 100 16 28 28 (1254400)
I0929 19:16:17.817916  2630 net.cpp:137] Memory required for data: 226733200
I0929 19:16:17.817926  2630 layer_factory.hpp:77] Creating layer Scale9
I0929 19:16:17.817934  2630 net.cpp:84] Creating Layer Scale9
I0929 19:16:17.817939  2630 net.cpp:406] Scale9 <- Convolution9
I0929 19:16:17.817946  2630 net.cpp:367] Scale9 -> Convolution9 (in-place)
I0929 19:16:17.817978  2630 layer_factory.hpp:77] Creating layer Scale9
I0929 19:16:17.818066  2630 net.cpp:122] Setting up Scale9
I0929 19:16:17.818074  2630 net.cpp:129] Top shape: 100 16 28 28 (1254400)
I0929 19:16:17.818078  2630 net.cpp:137] Memory required for data: 231750800
I0929 19:16:17.818086  2630 layer_factory.hpp:77] Creating layer Eltwise4
I0929 19:16:17.818094  2630 net.cpp:84] Creating Layer Eltwise4
I0929 19:16:17.818099  2630 net.cpp:406] Eltwise4 <- Eltwise3_ReLU7_0_split_1
I0929 19:16:17.818104  2630 net.cpp:406] Eltwise4 <- Convolution9
I0929 19:16:17.818112  2630 net.cpp:380] Eltwise4 -> Eltwise4
I0929 19:16:17.818132  2630 net.cpp:122] Setting up Eltwise4
I0929 19:16:17.818140  2630 net.cpp:129] Top shape: 100 16 28 28 (1254400)
I0929 19:16:17.818145  2630 net.cpp:137] Memory required for data: 236768400
I0929 19:16:17.818150  2630 layer_factory.hpp:77] Creating layer ReLU9
I0929 19:16:17.818157  2630 net.cpp:84] Creating Layer ReLU9
I0929 19:16:17.818162  2630 net.cpp:406] ReLU9 <- Eltwise4
I0929 19:16:17.818167  2630 net.cpp:367] ReLU9 -> Eltwise4 (in-place)
I0929 19:16:17.818636  2630 net.cpp:122] Setting up ReLU9
I0929 19:16:17.818647  2630 net.cpp:129] Top shape: 100 16 28 28 (1254400)
I0929 19:16:17.818652  2630 net.cpp:137] Memory required for data: 241786000
I0929 19:16:17.818656  2630 layer_factory.hpp:77] Creating layer Eltwise4_ReLU9_0_split
I0929 19:16:17.818665  2630 net.cpp:84] Creating Layer Eltwise4_ReLU9_0_split
I0929 19:16:17.818670  2630 net.cpp:406] Eltwise4_ReLU9_0_split <- Eltwise4
I0929 19:16:17.818675  2630 net.cpp:380] Eltwise4_ReLU9_0_split -> Eltwise4_ReLU9_0_split_0
I0929 19:16:17.818684  2630 net.cpp:380] Eltwise4_ReLU9_0_split -> Eltwise4_ReLU9_0_split_1
I0929 19:16:17.818717  2630 net.cpp:122] Setting up Eltwise4_ReLU9_0_split
I0929 19:16:17.818723  2630 net.cpp:129] Top shape: 100 16 28 28 (1254400)
I0929 19:16:17.818730  2630 net.cpp:129] Top shape: 100 16 28 28 (1254400)
I0929 19:16:17.818734  2630 net.cpp:137] Memory required for data: 251821200
I0929 19:16:17.818739  2630 layer_factory.hpp:77] Creating layer Convolution10
I0929 19:16:17.818749  2630 net.cpp:84] Creating Layer Convolution10
I0929 19:16:17.818754  2630 net.cpp:406] Convolution10 <- Eltwise4_ReLU9_0_split_0
I0929 19:16:17.818763  2630 net.cpp:380] Convolution10 -> Convolution10
I0929 19:16:17.819644  2630 net.cpp:122] Setting up Convolution10
I0929 19:16:17.819655  2630 net.cpp:129] Top shape: 100 16 28 28 (1254400)
I0929 19:16:17.819661  2630 net.cpp:137] Memory required for data: 256838800
I0929 19:16:17.819679  2630 layer_factory.hpp:77] Creating layer BatchNorm10
I0929 19:16:17.819687  2630 net.cpp:84] Creating Layer BatchNorm10
I0929 19:16:17.819692  2630 net.cpp:406] BatchNorm10 <- Convolution10
I0929 19:16:17.819700  2630 net.cpp:367] BatchNorm10 -> Convolution10 (in-place)
I0929 19:16:17.819833  2630 net.cpp:122] Setting up BatchNorm10
I0929 19:16:17.819840  2630 net.cpp:129] Top shape: 100 16 28 28 (1254400)
I0929 19:16:17.819844  2630 net.cpp:137] Memory required for data: 261856400
I0929 19:16:17.819861  2630 layer_factory.hpp:77] Creating layer Scale10
I0929 19:16:17.819869  2630 net.cpp:84] Creating Layer Scale10
I0929 19:16:17.819874  2630 net.cpp:406] Scale10 <- Convolution10
I0929 19:16:17.819880  2630 net.cpp:367] Scale10 -> Convolution10 (in-place)
I0929 19:16:17.819913  2630 layer_factory.hpp:77] Creating layer Scale10
I0929 19:16:17.819996  2630 net.cpp:122] Setting up Scale10
I0929 19:16:17.820004  2630 net.cpp:129] Top shape: 100 16 28 28 (1254400)
I0929 19:16:17.820009  2630 net.cpp:137] Memory required for data: 266874000
I0929 19:16:17.820016  2630 layer_factory.hpp:77] Creating layer ReLU10
I0929 19:16:17.820024  2630 net.cpp:84] Creating Layer ReLU10
I0929 19:16:17.820027  2630 net.cpp:406] ReLU10 <- Convolution10
I0929 19:16:17.820034  2630 net.cpp:367] ReLU10 -> Convolution10 (in-place)
I0929 19:16:17.820155  2630 net.cpp:122] Setting up ReLU10
I0929 19:16:17.820165  2630 net.cpp:129] Top shape: 100 16 28 28 (1254400)
I0929 19:16:17.820170  2630 net.cpp:137] Memory required for data: 271891600
I0929 19:16:17.820175  2630 layer_factory.hpp:77] Creating layer Convolution11
I0929 19:16:17.820186  2630 net.cpp:84] Creating Layer Convolution11
I0929 19:16:17.820191  2630 net.cpp:406] Convolution11 <- Convolution10
I0929 19:16:17.820199  2630 net.cpp:380] Convolution11 -> Convolution11
I0929 19:16:17.821094  2630 net.cpp:122] Setting up Convolution11
I0929 19:16:17.821105  2630 net.cpp:129] Top shape: 100 16 28 28 (1254400)
I0929 19:16:17.821108  2630 net.cpp:137] Memory required for data: 276909200
I0929 19:16:17.821116  2630 layer_factory.hpp:77] Creating layer BatchNorm11
I0929 19:16:17.821125  2630 net.cpp:84] Creating Layer BatchNorm11
I0929 19:16:17.821130  2630 net.cpp:406] BatchNorm11 <- Convolution11
I0929 19:16:17.821138  2630 net.cpp:367] BatchNorm11 -> Convolution11 (in-place)
I0929 19:16:17.821274  2630 net.cpp:122] Setting up BatchNorm11
I0929 19:16:17.821281  2630 net.cpp:129] Top shape: 100 16 28 28 (1254400)
I0929 19:16:17.821286  2630 net.cpp:137] Memory required for data: 281926800
I0929 19:16:17.821305  2630 layer_factory.hpp:77] Creating layer Scale11
I0929 19:16:17.821312  2630 net.cpp:84] Creating Layer Scale11
I0929 19:16:17.821326  2630 net.cpp:406] Scale11 <- Convolution11
I0929 19:16:17.821343  2630 net.cpp:367] Scale11 -> Convolution11 (in-place)
I0929 19:16:17.821383  2630 layer_factory.hpp:77] Creating layer Scale11
I0929 19:16:17.821485  2630 net.cpp:122] Setting up Scale11
I0929 19:16:17.821493  2630 net.cpp:129] Top shape: 100 16 28 28 (1254400)
I0929 19:16:17.821497  2630 net.cpp:137] Memory required for data: 286944400
I0929 19:16:17.821514  2630 layer_factory.hpp:77] Creating layer Eltwise5
I0929 19:16:17.821521  2630 net.cpp:84] Creating Layer Eltwise5
I0929 19:16:17.821527  2630 net.cpp:406] Eltwise5 <- Eltwise4_ReLU9_0_split_1
I0929 19:16:17.821532  2630 net.cpp:406] Eltwise5 <- Convolution11
I0929 19:16:17.821540  2630 net.cpp:380] Eltwise5 -> Eltwise5
I0929 19:16:17.821563  2630 net.cpp:122] Setting up Eltwise5
I0929 19:16:17.821570  2630 net.cpp:129] Top shape: 100 16 28 28 (1254400)
I0929 19:16:17.821574  2630 net.cpp:137] Memory required for data: 291962000
I0929 19:16:17.821579  2630 layer_factory.hpp:77] Creating layer ReLU11
I0929 19:16:17.821586  2630 net.cpp:84] Creating Layer ReLU11
I0929 19:16:17.821591  2630 net.cpp:406] ReLU11 <- Eltwise5
I0929 19:16:17.821596  2630 net.cpp:367] ReLU11 -> Eltwise5 (in-place)
I0929 19:16:17.821719  2630 net.cpp:122] Setting up ReLU11
I0929 19:16:17.821727  2630 net.cpp:129] Top shape: 100 16 28 28 (1254400)
I0929 19:16:17.821732  2630 net.cpp:137] Memory required for data: 296979600
I0929 19:16:17.821738  2630 layer_factory.hpp:77] Creating layer Eltwise5_ReLU11_0_split
I0929 19:16:17.821744  2630 net.cpp:84] Creating Layer Eltwise5_ReLU11_0_split
I0929 19:16:17.821749  2630 net.cpp:406] Eltwise5_ReLU11_0_split <- Eltwise5
I0929 19:16:17.821755  2630 net.cpp:380] Eltwise5_ReLU11_0_split -> Eltwise5_ReLU11_0_split_0
I0929 19:16:17.821764  2630 net.cpp:380] Eltwise5_ReLU11_0_split -> Eltwise5_ReLU11_0_split_1
I0929 19:16:17.821805  2630 net.cpp:122] Setting up Eltwise5_ReLU11_0_split
I0929 19:16:17.821811  2630 net.cpp:129] Top shape: 100 16 28 28 (1254400)
I0929 19:16:17.821818  2630 net.cpp:129] Top shape: 100 16 28 28 (1254400)
I0929 19:16:17.821822  2630 net.cpp:137] Memory required for data: 307014800
I0929 19:16:17.821827  2630 layer_factory.hpp:77] Creating layer Convolution12
I0929 19:16:17.821840  2630 net.cpp:84] Creating Layer Convolution12
I0929 19:16:17.821843  2630 net.cpp:406] Convolution12 <- Eltwise5_ReLU11_0_split_0
I0929 19:16:17.821851  2630 net.cpp:380] Convolution12 -> Convolution12
I0929 19:16:17.822777  2630 net.cpp:122] Setting up Convolution12
I0929 19:16:17.822788  2630 net.cpp:129] Top shape: 100 16 28 28 (1254400)
I0929 19:16:17.822793  2630 net.cpp:137] Memory required for data: 312032400
I0929 19:16:17.822800  2630 layer_factory.hpp:77] Creating layer BatchNorm12
I0929 19:16:17.822809  2630 net.cpp:84] Creating Layer BatchNorm12
I0929 19:16:17.822815  2630 net.cpp:406] BatchNorm12 <- Convolution12
I0929 19:16:17.822824  2630 net.cpp:367] BatchNorm12 -> Convolution12 (in-place)
I0929 19:16:17.822960  2630 net.cpp:122] Setting up BatchNorm12
I0929 19:16:17.822968  2630 net.cpp:129] Top shape: 100 16 28 28 (1254400)
I0929 19:16:17.822973  2630 net.cpp:137] Memory required for data: 317050000
I0929 19:16:17.822981  2630 layer_factory.hpp:77] Creating layer Scale12
I0929 19:16:17.822990  2630 net.cpp:84] Creating Layer Scale12
I0929 19:16:17.822995  2630 net.cpp:406] Scale12 <- Convolution12
I0929 19:16:17.823002  2630 net.cpp:367] Scale12 -> Convolution12 (in-place)
I0929 19:16:17.823035  2630 layer_factory.hpp:77] Creating layer Scale12
I0929 19:16:17.823117  2630 net.cpp:122] Setting up Scale12
I0929 19:16:17.823125  2630 net.cpp:129] Top shape: 100 16 28 28 (1254400)
I0929 19:16:17.823130  2630 net.cpp:137] Memory required for data: 322067600
I0929 19:16:17.823138  2630 layer_factory.hpp:77] Creating layer ReLU12
I0929 19:16:17.823148  2630 net.cpp:84] Creating Layer ReLU12
I0929 19:16:17.823153  2630 net.cpp:406] ReLU12 <- Convolution12
I0929 19:16:17.823158  2630 net.cpp:367] ReLU12 -> Convolution12 (in-place)
I0929 19:16:17.823277  2630 net.cpp:122] Setting up ReLU12
I0929 19:16:17.823287  2630 net.cpp:129] Top shape: 100 16 28 28 (1254400)
I0929 19:16:17.823290  2630 net.cpp:137] Memory required for data: 327085200
I0929 19:16:17.823295  2630 layer_factory.hpp:77] Creating layer Convolution13
I0929 19:16:17.823307  2630 net.cpp:84] Creating Layer Convolution13
I0929 19:16:17.823312  2630 net.cpp:406] Convolution13 <- Convolution12
I0929 19:16:17.823319  2630 net.cpp:380] Convolution13 -> Convolution13
I0929 19:16:17.824213  2630 net.cpp:122] Setting up Convolution13
I0929 19:16:17.824224  2630 net.cpp:129] Top shape: 100 16 28 28 (1254400)
I0929 19:16:17.824229  2630 net.cpp:137] Memory required for data: 332102800
I0929 19:16:17.824237  2630 layer_factory.hpp:77] Creating layer BatchNorm13
I0929 19:16:17.824247  2630 net.cpp:84] Creating Layer BatchNorm13
I0929 19:16:17.824252  2630 net.cpp:406] BatchNorm13 <- Convolution13
I0929 19:16:17.824260  2630 net.cpp:367] BatchNorm13 -> Convolution13 (in-place)
I0929 19:16:17.824398  2630 net.cpp:122] Setting up BatchNorm13
I0929 19:16:17.824406  2630 net.cpp:129] Top shape: 100 16 28 28 (1254400)
I0929 19:16:17.824410  2630 net.cpp:137] Memory required for data: 337120400
I0929 19:16:17.824419  2630 layer_factory.hpp:77] Creating layer Scale13
I0929 19:16:17.824426  2630 net.cpp:84] Creating Layer Scale13
I0929 19:16:17.824431  2630 net.cpp:406] Scale13 <- Convolution13
I0929 19:16:17.824439  2630 net.cpp:367] Scale13 -> Convolution13 (in-place)
I0929 19:16:17.824470  2630 layer_factory.hpp:77] Creating layer Scale13
I0929 19:16:17.824556  2630 net.cpp:122] Setting up Scale13
I0929 19:16:17.824563  2630 net.cpp:129] Top shape: 100 16 28 28 (1254400)
I0929 19:16:17.824568  2630 net.cpp:137] Memory required for data: 342138000
I0929 19:16:17.824575  2630 layer_factory.hpp:77] Creating layer Eltwise6
I0929 19:16:17.824589  2630 net.cpp:84] Creating Layer Eltwise6
I0929 19:16:17.824595  2630 net.cpp:406] Eltwise6 <- Eltwise5_ReLU11_0_split_1
I0929 19:16:17.824601  2630 net.cpp:406] Eltwise6 <- Convolution13
I0929 19:16:17.824609  2630 net.cpp:380] Eltwise6 -> Eltwise6
I0929 19:16:17.824633  2630 net.cpp:122] Setting up Eltwise6
I0929 19:16:17.824640  2630 net.cpp:129] Top shape: 100 16 28 28 (1254400)
I0929 19:16:17.824645  2630 net.cpp:137] Memory required for data: 347155600
I0929 19:16:17.824651  2630 layer_factory.hpp:77] Creating layer ReLU13
I0929 19:16:17.824661  2630 net.cpp:84] Creating Layer ReLU13
I0929 19:16:17.824666  2630 net.cpp:406] ReLU13 <- Eltwise6
I0929 19:16:17.824673  2630 net.cpp:367] ReLU13 -> Eltwise6 (in-place)
I0929 19:16:17.824797  2630 net.cpp:122] Setting up ReLU13
I0929 19:16:17.824805  2630 net.cpp:129] Top shape: 100 16 28 28 (1254400)
I0929 19:16:17.824810  2630 net.cpp:137] Memory required for data: 352173200
I0929 19:16:17.824816  2630 layer_factory.hpp:77] Creating layer Eltwise6_ReLU13_0_split
I0929 19:16:17.824822  2630 net.cpp:84] Creating Layer Eltwise6_ReLU13_0_split
I0929 19:16:17.824827  2630 net.cpp:406] Eltwise6_ReLU13_0_split <- Eltwise6
I0929 19:16:17.824836  2630 net.cpp:380] Eltwise6_ReLU13_0_split -> Eltwise6_ReLU13_0_split_0
I0929 19:16:17.824842  2630 net.cpp:380] Eltwise6_ReLU13_0_split -> Eltwise6_ReLU13_0_split_1
I0929 19:16:17.824873  2630 net.cpp:122] Setting up Eltwise6_ReLU13_0_split
I0929 19:16:17.824880  2630 net.cpp:129] Top shape: 100 16 28 28 (1254400)
I0929 19:16:17.824887  2630 net.cpp:129] Top shape: 100 16 28 28 (1254400)
I0929 19:16:17.824892  2630 net.cpp:137] Memory required for data: 362208400
I0929 19:16:17.824895  2630 layer_factory.hpp:77] Creating layer Convolution14
I0929 19:16:17.824908  2630 net.cpp:84] Creating Layer Convolution14
I0929 19:16:17.824911  2630 net.cpp:406] Convolution14 <- Eltwise6_ReLU13_0_split_0
I0929 19:16:17.824918  2630 net.cpp:380] Convolution14 -> Convolution14
I0929 19:16:17.825814  2630 net.cpp:122] Setting up Convolution14
I0929 19:16:17.825821  2630 net.cpp:129] Top shape: 100 16 28 28 (1254400)
I0929 19:16:17.825824  2630 net.cpp:137] Memory required for data: 367226000
I0929 19:16:17.825829  2630 layer_factory.hpp:77] Creating layer BatchNorm14
I0929 19:16:17.825834  2630 net.cpp:84] Creating Layer BatchNorm14
I0929 19:16:17.825836  2630 net.cpp:406] BatchNorm14 <- Convolution14
I0929 19:16:17.825841  2630 net.cpp:367] BatchNorm14 -> Convolution14 (in-place)
I0929 19:16:17.825973  2630 net.cpp:122] Setting up BatchNorm14
I0929 19:16:17.825976  2630 net.cpp:129] Top shape: 100 16 28 28 (1254400)
I0929 19:16:17.825978  2630 net.cpp:137] Memory required for data: 372243600
I0929 19:16:17.825984  2630 layer_factory.hpp:77] Creating layer Scale14
I0929 19:16:17.825989  2630 net.cpp:84] Creating Layer Scale14
I0929 19:16:17.825990  2630 net.cpp:406] Scale14 <- Convolution14
I0929 19:16:17.825994  2630 net.cpp:367] Scale14 -> Convolution14 (in-place)
I0929 19:16:17.826020  2630 layer_factory.hpp:77] Creating layer Scale14
I0929 19:16:17.826097  2630 net.cpp:122] Setting up Scale14
I0929 19:16:17.826102  2630 net.cpp:129] Top shape: 100 16 28 28 (1254400)
I0929 19:16:17.826103  2630 net.cpp:137] Memory required for data: 377261200
I0929 19:16:17.826107  2630 layer_factory.hpp:77] Creating layer ReLU14
I0929 19:16:17.826112  2630 net.cpp:84] Creating Layer ReLU14
I0929 19:16:17.826114  2630 net.cpp:406] ReLU14 <- Convolution14
I0929 19:16:17.826117  2630 net.cpp:367] ReLU14 -> Convolution14 (in-place)
I0929 19:16:17.826578  2630 net.cpp:122] Setting up ReLU14
I0929 19:16:17.826586  2630 net.cpp:129] Top shape: 100 16 28 28 (1254400)
I0929 19:16:17.826588  2630 net.cpp:137] Memory required for data: 382278800
I0929 19:16:17.826591  2630 layer_factory.hpp:77] Creating layer Convolution15
I0929 19:16:17.826598  2630 net.cpp:84] Creating Layer Convolution15
I0929 19:16:17.826601  2630 net.cpp:406] Convolution15 <- Convolution14
I0929 19:16:17.826606  2630 net.cpp:380] Convolution15 -> Convolution15
I0929 19:16:17.827189  2630 net.cpp:122] Setting up Convolution15
I0929 19:16:17.827203  2630 net.cpp:129] Top shape: 100 16 28 28 (1254400)
I0929 19:16:17.827206  2630 net.cpp:137] Memory required for data: 387296400
I0929 19:16:17.827210  2630 layer_factory.hpp:77] Creating layer BatchNorm15
I0929 19:16:17.827215  2630 net.cpp:84] Creating Layer BatchNorm15
I0929 19:16:17.827219  2630 net.cpp:406] BatchNorm15 <- Convolution15
I0929 19:16:17.827221  2630 net.cpp:367] BatchNorm15 -> Convolution15 (in-place)
I0929 19:16:17.827354  2630 net.cpp:122] Setting up BatchNorm15
I0929 19:16:17.827358  2630 net.cpp:129] Top shape: 100 16 28 28 (1254400)
I0929 19:16:17.827360  2630 net.cpp:137] Memory required for data: 392314000
I0929 19:16:17.827365  2630 layer_factory.hpp:77] Creating layer Scale15
I0929 19:16:17.827369  2630 net.cpp:84] Creating Layer Scale15
I0929 19:16:17.827371  2630 net.cpp:406] Scale15 <- Convolution15
I0929 19:16:17.827374  2630 net.cpp:367] Scale15 -> Convolution15 (in-place)
I0929 19:16:17.827400  2630 layer_factory.hpp:77] Creating layer Scale15
I0929 19:16:17.827477  2630 net.cpp:122] Setting up Scale15
I0929 19:16:17.827482  2630 net.cpp:129] Top shape: 100 16 28 28 (1254400)
I0929 19:16:17.827484  2630 net.cpp:137] Memory required for data: 397331600
I0929 19:16:17.827487  2630 layer_factory.hpp:77] Creating layer Eltwise7
I0929 19:16:17.827492  2630 net.cpp:84] Creating Layer Eltwise7
I0929 19:16:17.827494  2630 net.cpp:406] Eltwise7 <- Eltwise6_ReLU13_0_split_1
I0929 19:16:17.827497  2630 net.cpp:406] Eltwise7 <- Convolution15
I0929 19:16:17.827500  2630 net.cpp:380] Eltwise7 -> Eltwise7
I0929 19:16:17.827517  2630 net.cpp:122] Setting up Eltwise7
I0929 19:16:17.827519  2630 net.cpp:129] Top shape: 100 16 28 28 (1254400)
I0929 19:16:17.827522  2630 net.cpp:137] Memory required for data: 402349200
I0929 19:16:17.827523  2630 layer_factory.hpp:77] Creating layer ReLU15
I0929 19:16:17.827527  2630 net.cpp:84] Creating Layer ReLU15
I0929 19:16:17.827529  2630 net.cpp:406] ReLU15 <- Eltwise7
I0929 19:16:17.827533  2630 net.cpp:367] ReLU15 -> Eltwise7 (in-place)
I0929 19:16:17.827970  2630 net.cpp:122] Setting up ReLU15
I0929 19:16:17.827978  2630 net.cpp:129] Top shape: 100 16 28 28 (1254400)
I0929 19:16:17.827981  2630 net.cpp:137] Memory required for data: 407366800
I0929 19:16:17.827983  2630 layer_factory.hpp:77] Creating layer Eltwise7_ReLU15_0_split
I0929 19:16:17.827988  2630 net.cpp:84] Creating Layer Eltwise7_ReLU15_0_split
I0929 19:16:17.827991  2630 net.cpp:406] Eltwise7_ReLU15_0_split <- Eltwise7
I0929 19:16:17.827994  2630 net.cpp:380] Eltwise7_ReLU15_0_split -> Eltwise7_ReLU15_0_split_0
I0929 19:16:17.827999  2630 net.cpp:380] Eltwise7_ReLU15_0_split -> Eltwise7_ReLU15_0_split_1
I0929 19:16:17.828027  2630 net.cpp:122] Setting up Eltwise7_ReLU15_0_split
I0929 19:16:17.828030  2630 net.cpp:129] Top shape: 100 16 28 28 (1254400)
I0929 19:16:17.828033  2630 net.cpp:129] Top shape: 100 16 28 28 (1254400)
I0929 19:16:17.828035  2630 net.cpp:137] Memory required for data: 417402000
I0929 19:16:17.828037  2630 layer_factory.hpp:77] Creating layer Convolution16
I0929 19:16:17.828044  2630 net.cpp:84] Creating Layer Convolution16
I0929 19:16:17.828047  2630 net.cpp:406] Convolution16 <- Eltwise7_ReLU15_0_split_0
I0929 19:16:17.828052  2630 net.cpp:380] Convolution16 -> Convolution16
I0929 19:16:17.829249  2630 net.cpp:122] Setting up Convolution16
I0929 19:16:17.829259  2630 net.cpp:129] Top shape: 100 16 28 28 (1254400)
I0929 19:16:17.829262  2630 net.cpp:137] Memory required for data: 422419600
I0929 19:16:17.829267  2630 layer_factory.hpp:77] Creating layer BatchNorm16
I0929 19:16:17.829270  2630 net.cpp:84] Creating Layer BatchNorm16
I0929 19:16:17.829273  2630 net.cpp:406] BatchNorm16 <- Convolution16
I0929 19:16:17.829277  2630 net.cpp:367] BatchNorm16 -> Convolution16 (in-place)
I0929 19:16:17.829411  2630 net.cpp:122] Setting up BatchNorm16
I0929 19:16:17.829416  2630 net.cpp:129] Top shape: 100 16 28 28 (1254400)
I0929 19:16:17.829417  2630 net.cpp:137] Memory required for data: 427437200
I0929 19:16:17.829422  2630 layer_factory.hpp:77] Creating layer Scale16
I0929 19:16:17.829433  2630 net.cpp:84] Creating Layer Scale16
I0929 19:16:17.829437  2630 net.cpp:406] Scale16 <- Convolution16
I0929 19:16:17.829440  2630 net.cpp:367] Scale16 -> Convolution16 (in-place)
I0929 19:16:17.829466  2630 layer_factory.hpp:77] Creating layer Scale16
I0929 19:16:17.829545  2630 net.cpp:122] Setting up Scale16
I0929 19:16:17.829548  2630 net.cpp:129] Top shape: 100 16 28 28 (1254400)
I0929 19:16:17.829550  2630 net.cpp:137] Memory required for data: 432454800
I0929 19:16:17.829555  2630 layer_factory.hpp:77] Creating layer ReLU16
I0929 19:16:17.829558  2630 net.cpp:84] Creating Layer ReLU16
I0929 19:16:17.829560  2630 net.cpp:406] ReLU16 <- Convolution16
I0929 19:16:17.829563  2630 net.cpp:367] ReLU16 -> Convolution16 (in-place)
I0929 19:16:17.829682  2630 net.cpp:122] Setting up ReLU16
I0929 19:16:17.829689  2630 net.cpp:129] Top shape: 100 16 28 28 (1254400)
I0929 19:16:17.829690  2630 net.cpp:137] Memory required for data: 437472400
I0929 19:16:17.829694  2630 layer_factory.hpp:77] Creating layer Convolution17
I0929 19:16:17.829700  2630 net.cpp:84] Creating Layer Convolution17
I0929 19:16:17.829704  2630 net.cpp:406] Convolution17 <- Convolution16
I0929 19:16:17.829707  2630 net.cpp:380] Convolution17 -> Convolution17
I0929 19:16:17.830639  2630 net.cpp:122] Setting up Convolution17
I0929 19:16:17.830648  2630 net.cpp:129] Top shape: 100 16 28 28 (1254400)
I0929 19:16:17.830651  2630 net.cpp:137] Memory required for data: 442490000
I0929 19:16:17.830655  2630 layer_factory.hpp:77] Creating layer BatchNorm17
I0929 19:16:17.830660  2630 net.cpp:84] Creating Layer BatchNorm17
I0929 19:16:17.830663  2630 net.cpp:406] BatchNorm17 <- Convolution17
I0929 19:16:17.830667  2630 net.cpp:367] BatchNorm17 -> Convolution17 (in-place)
I0929 19:16:17.830868  2630 net.cpp:122] Setting up BatchNorm17
I0929 19:16:17.830876  2630 net.cpp:129] Top shape: 100 16 28 28 (1254400)
I0929 19:16:17.830880  2630 net.cpp:137] Memory required for data: 447507600
I0929 19:16:17.830888  2630 layer_factory.hpp:77] Creating layer Scale17
I0929 19:16:17.830894  2630 net.cpp:84] Creating Layer Scale17
I0929 19:16:17.830899  2630 net.cpp:406] Scale17 <- Convolution17
I0929 19:16:17.830904  2630 net.cpp:367] Scale17 -> Convolution17 (in-place)
I0929 19:16:17.830940  2630 layer_factory.hpp:77] Creating layer Scale17
I0929 19:16:17.831027  2630 net.cpp:122] Setting up Scale17
I0929 19:16:17.831032  2630 net.cpp:129] Top shape: 100 16 28 28 (1254400)
I0929 19:16:17.831033  2630 net.cpp:137] Memory required for data: 452525200
I0929 19:16:17.831037  2630 layer_factory.hpp:77] Creating layer Eltwise8
I0929 19:16:17.831041  2630 net.cpp:84] Creating Layer Eltwise8
I0929 19:16:17.831043  2630 net.cpp:406] Eltwise8 <- Eltwise7_ReLU15_0_split_1
I0929 19:16:17.831046  2630 net.cpp:406] Eltwise8 <- Convolution17
I0929 19:16:17.831050  2630 net.cpp:380] Eltwise8 -> Eltwise8
I0929 19:16:17.831068  2630 net.cpp:122] Setting up Eltwise8
I0929 19:16:17.831071  2630 net.cpp:129] Top shape: 100 16 28 28 (1254400)
I0929 19:16:17.831073  2630 net.cpp:137] Memory required for data: 457542800
I0929 19:16:17.831075  2630 layer_factory.hpp:77] Creating layer ReLU17
I0929 19:16:17.831079  2630 net.cpp:84] Creating Layer ReLU17
I0929 19:16:17.831081  2630 net.cpp:406] ReLU17 <- Eltwise8
I0929 19:16:17.831084  2630 net.cpp:367] ReLU17 -> Eltwise8 (in-place)
I0929 19:16:17.831205  2630 net.cpp:122] Setting up ReLU17
I0929 19:16:17.831212  2630 net.cpp:129] Top shape: 100 16 28 28 (1254400)
I0929 19:16:17.831213  2630 net.cpp:137] Memory required for data: 462560400
I0929 19:16:17.831215  2630 layer_factory.hpp:77] Creating layer Eltwise8_ReLU17_0_split
I0929 19:16:17.831219  2630 net.cpp:84] Creating Layer Eltwise8_ReLU17_0_split
I0929 19:16:17.831221  2630 net.cpp:406] Eltwise8_ReLU17_0_split <- Eltwise8
I0929 19:16:17.831225  2630 net.cpp:380] Eltwise8_ReLU17_0_split -> Eltwise8_ReLU17_0_split_0
I0929 19:16:17.831230  2630 net.cpp:380] Eltwise8_ReLU17_0_split -> Eltwise8_ReLU17_0_split_1
I0929 19:16:17.831264  2630 net.cpp:122] Setting up Eltwise8_ReLU17_0_split
I0929 19:16:17.831269  2630 net.cpp:129] Top shape: 100 16 28 28 (1254400)
I0929 19:16:17.831271  2630 net.cpp:129] Top shape: 100 16 28 28 (1254400)
I0929 19:16:17.831274  2630 net.cpp:137] Memory required for data: 472595600
I0929 19:16:17.831275  2630 layer_factory.hpp:77] Creating layer Convolution18
I0929 19:16:17.831284  2630 net.cpp:84] Creating Layer Convolution18
I0929 19:16:17.831285  2630 net.cpp:406] Convolution18 <- Eltwise8_ReLU17_0_split_0
I0929 19:16:17.831290  2630 net.cpp:380] Convolution18 -> Convolution18
I0929 19:16:17.832228  2630 net.cpp:122] Setting up Convolution18
I0929 19:16:17.832237  2630 net.cpp:129] Top shape: 100 16 28 28 (1254400)
I0929 19:16:17.832239  2630 net.cpp:137] Memory required for data: 477613200
I0929 19:16:17.832244  2630 layer_factory.hpp:77] Creating layer BatchNorm18
I0929 19:16:17.832249  2630 net.cpp:84] Creating Layer BatchNorm18
I0929 19:16:17.832252  2630 net.cpp:406] BatchNorm18 <- Convolution18
I0929 19:16:17.832257  2630 net.cpp:367] BatchNorm18 -> Convolution18 (in-place)
I0929 19:16:17.832396  2630 net.cpp:122] Setting up BatchNorm18
I0929 19:16:17.832401  2630 net.cpp:129] Top shape: 100 16 28 28 (1254400)
I0929 19:16:17.832403  2630 net.cpp:137] Memory required for data: 482630800
I0929 19:16:17.832408  2630 layer_factory.hpp:77] Creating layer Scale18
I0929 19:16:17.832413  2630 net.cpp:84] Creating Layer Scale18
I0929 19:16:17.832415  2630 net.cpp:406] Scale18 <- Convolution18
I0929 19:16:17.832418  2630 net.cpp:367] Scale18 -> Convolution18 (in-place)
I0929 19:16:17.832446  2630 layer_factory.hpp:77] Creating layer Scale18
I0929 19:16:17.832559  2630 net.cpp:122] Setting up Scale18
I0929 19:16:17.832567  2630 net.cpp:129] Top shape: 100 16 28 28 (1254400)
I0929 19:16:17.832569  2630 net.cpp:137] Memory required for data: 487648400
I0929 19:16:17.832583  2630 layer_factory.hpp:77] Creating layer ReLU18
I0929 19:16:17.832588  2630 net.cpp:84] Creating Layer ReLU18
I0929 19:16:17.832590  2630 net.cpp:406] ReLU18 <- Convolution18
I0929 19:16:17.832594  2630 net.cpp:367] ReLU18 -> Convolution18 (in-place)
I0929 19:16:17.832712  2630 net.cpp:122] Setting up ReLU18
I0929 19:16:17.832718  2630 net.cpp:129] Top shape: 100 16 28 28 (1254400)
I0929 19:16:17.832720  2630 net.cpp:137] Memory required for data: 492666000
I0929 19:16:17.832723  2630 layer_factory.hpp:77] Creating layer Convolution19
I0929 19:16:17.832731  2630 net.cpp:84] Creating Layer Convolution19
I0929 19:16:17.832733  2630 net.cpp:406] Convolution19 <- Convolution18
I0929 19:16:17.832738  2630 net.cpp:380] Convolution19 -> Convolution19
I0929 19:16:17.833932  2630 net.cpp:122] Setting up Convolution19
I0929 19:16:17.833943  2630 net.cpp:129] Top shape: 100 16 28 28 (1254400)
I0929 19:16:17.833948  2630 net.cpp:137] Memory required for data: 497683600
I0929 19:16:17.833956  2630 layer_factory.hpp:77] Creating layer BatchNorm19
I0929 19:16:17.833966  2630 net.cpp:84] Creating Layer BatchNorm19
I0929 19:16:17.833971  2630 net.cpp:406] BatchNorm19 <- Convolution19
I0929 19:16:17.833978  2630 net.cpp:367] BatchNorm19 -> Convolution19 (in-place)
I0929 19:16:17.834125  2630 net.cpp:122] Setting up BatchNorm19
I0929 19:16:17.834131  2630 net.cpp:129] Top shape: 100 16 28 28 (1254400)
I0929 19:16:17.834136  2630 net.cpp:137] Memory required for data: 502701200
I0929 19:16:17.834156  2630 layer_factory.hpp:77] Creating layer Scale19
I0929 19:16:17.834163  2630 net.cpp:84] Creating Layer Scale19
I0929 19:16:17.834168  2630 net.cpp:406] Scale19 <- Convolution19
I0929 19:16:17.834175  2630 net.cpp:367] Scale19 -> Convolution19 (in-place)
I0929 19:16:17.834211  2630 layer_factory.hpp:77] Creating layer Scale19
I0929 19:16:17.834311  2630 net.cpp:122] Setting up Scale19
I0929 19:16:17.834318  2630 net.cpp:129] Top shape: 100 16 28 28 (1254400)
I0929 19:16:17.834323  2630 net.cpp:137] Memory required for data: 507718800
I0929 19:16:17.834331  2630 layer_factory.hpp:77] Creating layer Eltwise9
I0929 19:16:17.834338  2630 net.cpp:84] Creating Layer Eltwise9
I0929 19:16:17.834350  2630 net.cpp:406] Eltwise9 <- Eltwise8_ReLU17_0_split_1
I0929 19:16:17.834357  2630 net.cpp:406] Eltwise9 <- Convolution19
I0929 19:16:17.834364  2630 net.cpp:380] Eltwise9 -> Eltwise9
I0929 19:16:17.834386  2630 net.cpp:122] Setting up Eltwise9
I0929 19:16:17.834403  2630 net.cpp:129] Top shape: 100 16 28 28 (1254400)
I0929 19:16:17.834408  2630 net.cpp:137] Memory required for data: 512736400
I0929 19:16:17.834424  2630 layer_factory.hpp:77] Creating layer ReLU19
I0929 19:16:17.834431  2630 net.cpp:84] Creating Layer ReLU19
I0929 19:16:17.834436  2630 net.cpp:406] ReLU19 <- Eltwise9
I0929 19:16:17.834442  2630 net.cpp:367] ReLU19 -> Eltwise9 (in-place)
I0929 19:16:17.834578  2630 net.cpp:122] Setting up ReLU19
I0929 19:16:17.834586  2630 net.cpp:129] Top shape: 100 16 28 28 (1254400)
I0929 19:16:17.834591  2630 net.cpp:137] Memory required for data: 517754000
I0929 19:16:17.834595  2630 layer_factory.hpp:77] Creating layer Eltwise9_ReLU19_0_split
I0929 19:16:17.834604  2630 net.cpp:84] Creating Layer Eltwise9_ReLU19_0_split
I0929 19:16:17.834609  2630 net.cpp:406] Eltwise9_ReLU19_0_split <- Eltwise9
I0929 19:16:17.834615  2630 net.cpp:380] Eltwise9_ReLU19_0_split -> Eltwise9_ReLU19_0_split_0
I0929 19:16:17.834625  2630 net.cpp:380] Eltwise9_ReLU19_0_split -> Eltwise9_ReLU19_0_split_1
I0929 19:16:17.834657  2630 net.cpp:122] Setting up Eltwise9_ReLU19_0_split
I0929 19:16:17.834664  2630 net.cpp:129] Top shape: 100 16 28 28 (1254400)
I0929 19:16:17.834669  2630 net.cpp:129] Top shape: 100 16 28 28 (1254400)
I0929 19:16:17.834671  2630 net.cpp:137] Memory required for data: 527789200
I0929 19:16:17.834674  2630 layer_factory.hpp:77] Creating layer Convolution20
I0929 19:16:17.834681  2630 net.cpp:84] Creating Layer Convolution20
I0929 19:16:17.834692  2630 net.cpp:406] Convolution20 <- Eltwise9_ReLU19_0_split_0
I0929 19:16:17.834697  2630 net.cpp:380] Convolution20 -> Convolution20
I0929 19:16:17.835942  2630 net.cpp:122] Setting up Convolution20
I0929 19:16:17.835950  2630 net.cpp:129] Top shape: 100 32 14 14 (627200)
I0929 19:16:17.835953  2630 net.cpp:137] Memory required for data: 530298000
I0929 19:16:17.835958  2630 layer_factory.hpp:77] Creating layer BatchNorm20
I0929 19:16:17.835963  2630 net.cpp:84] Creating Layer BatchNorm20
I0929 19:16:17.835966  2630 net.cpp:406] BatchNorm20 <- Convolution20
I0929 19:16:17.835970  2630 net.cpp:367] BatchNorm20 -> Convolution20 (in-place)
I0929 19:16:17.836113  2630 net.cpp:122] Setting up BatchNorm20
I0929 19:16:17.836118  2630 net.cpp:129] Top shape: 100 32 14 14 (627200)
I0929 19:16:17.836120  2630 net.cpp:137] Memory required for data: 532806800
I0929 19:16:17.836125  2630 layer_factory.hpp:77] Creating layer Scale20
I0929 19:16:17.836129  2630 net.cpp:84] Creating Layer Scale20
I0929 19:16:17.836133  2630 net.cpp:406] Scale20 <- Convolution20
I0929 19:16:17.836135  2630 net.cpp:367] Scale20 -> Convolution20 (in-place)
I0929 19:16:17.836161  2630 layer_factory.hpp:77] Creating layer Scale20
I0929 19:16:17.836238  2630 net.cpp:122] Setting up Scale20
I0929 19:16:17.836243  2630 net.cpp:129] Top shape: 100 32 14 14 (627200)
I0929 19:16:17.836246  2630 net.cpp:137] Memory required for data: 535315600
I0929 19:16:17.836249  2630 layer_factory.hpp:77] Creating layer Convolution21
I0929 19:16:17.836256  2630 net.cpp:84] Creating Layer Convolution21
I0929 19:16:17.836258  2630 net.cpp:406] Convolution21 <- Eltwise9_ReLU19_0_split_1
I0929 19:16:17.836262  2630 net.cpp:380] Convolution21 -> Convolution21
I0929 19:16:17.838028  2630 net.cpp:122] Setting up Convolution21
I0929 19:16:17.838037  2630 net.cpp:129] Top shape: 100 32 14 14 (627200)
I0929 19:16:17.838040  2630 net.cpp:137] Memory required for data: 537824400
I0929 19:16:17.838045  2630 layer_factory.hpp:77] Creating layer BatchNorm21
I0929 19:16:17.838049  2630 net.cpp:84] Creating Layer BatchNorm21
I0929 19:16:17.838052  2630 net.cpp:406] BatchNorm21 <- Convolution21
I0929 19:16:17.838057  2630 net.cpp:367] BatchNorm21 -> Convolution21 (in-place)
I0929 19:16:17.838196  2630 net.cpp:122] Setting up BatchNorm21
I0929 19:16:17.838208  2630 net.cpp:129] Top shape: 100 32 14 14 (627200)
I0929 19:16:17.838210  2630 net.cpp:137] Memory required for data: 540333200
I0929 19:16:17.838215  2630 layer_factory.hpp:77] Creating layer Scale21
I0929 19:16:17.838220  2630 net.cpp:84] Creating Layer Scale21
I0929 19:16:17.838222  2630 net.cpp:406] Scale21 <- Convolution21
I0929 19:16:17.838225  2630 net.cpp:367] Scale21 -> Convolution21 (in-place)
I0929 19:16:17.838255  2630 layer_factory.hpp:77] Creating layer Scale21
I0929 19:16:17.838335  2630 net.cpp:122] Setting up Scale21
I0929 19:16:17.838338  2630 net.cpp:129] Top shape: 100 32 14 14 (627200)
I0929 19:16:17.838340  2630 net.cpp:137] Memory required for data: 542842000
I0929 19:16:17.838345  2630 layer_factory.hpp:77] Creating layer ReLU20
I0929 19:16:17.838348  2630 net.cpp:84] Creating Layer ReLU20
I0929 19:16:17.838351  2630 net.cpp:406] ReLU20 <- Convolution21
I0929 19:16:17.838353  2630 net.cpp:367] ReLU20 -> Convolution21 (in-place)
I0929 19:16:17.838482  2630 net.cpp:122] Setting up ReLU20
I0929 19:16:17.838488  2630 net.cpp:129] Top shape: 100 32 14 14 (627200)
I0929 19:16:17.838490  2630 net.cpp:137] Memory required for data: 545350800
I0929 19:16:17.838493  2630 layer_factory.hpp:77] Creating layer Convolution22
I0929 19:16:17.838500  2630 net.cpp:84] Creating Layer Convolution22
I0929 19:16:17.838502  2630 net.cpp:406] Convolution22 <- Convolution21
I0929 19:16:17.838507  2630 net.cpp:380] Convolution22 -> Convolution22
I0929 19:16:17.839553  2630 net.cpp:122] Setting up Convolution22
I0929 19:16:17.839561  2630 net.cpp:129] Top shape: 100 32 14 14 (627200)
I0929 19:16:17.839565  2630 net.cpp:137] Memory required for data: 547859600
I0929 19:16:17.839568  2630 layer_factory.hpp:77] Creating layer BatchNorm22
I0929 19:16:17.839573  2630 net.cpp:84] Creating Layer BatchNorm22
I0929 19:16:17.839576  2630 net.cpp:406] BatchNorm22 <- Convolution22
I0929 19:16:17.839581  2630 net.cpp:367] BatchNorm22 -> Convolution22 (in-place)
I0929 19:16:17.839712  2630 net.cpp:122] Setting up BatchNorm22
I0929 19:16:17.839716  2630 net.cpp:129] Top shape: 100 32 14 14 (627200)
I0929 19:16:17.839718  2630 net.cpp:137] Memory required for data: 550368400
I0929 19:16:17.839723  2630 layer_factory.hpp:77] Creating layer Scale22
I0929 19:16:17.839727  2630 net.cpp:84] Creating Layer Scale22
I0929 19:16:17.839730  2630 net.cpp:406] Scale22 <- Convolution22
I0929 19:16:17.839733  2630 net.cpp:367] Scale22 -> Convolution22 (in-place)
I0929 19:16:17.839757  2630 layer_factory.hpp:77] Creating layer Scale22
I0929 19:16:17.839833  2630 net.cpp:122] Setting up Scale22
I0929 19:16:17.839838  2630 net.cpp:129] Top shape: 100 32 14 14 (627200)
I0929 19:16:17.839839  2630 net.cpp:137] Memory required for data: 552877200
I0929 19:16:17.839843  2630 layer_factory.hpp:77] Creating layer Eltwise10
I0929 19:16:17.839848  2630 net.cpp:84] Creating Layer Eltwise10
I0929 19:16:17.839849  2630 net.cpp:406] Eltwise10 <- Convolution20
I0929 19:16:17.839853  2630 net.cpp:406] Eltwise10 <- Convolution22
I0929 19:16:17.839856  2630 net.cpp:380] Eltwise10 -> Eltwise10
I0929 19:16:17.839871  2630 net.cpp:122] Setting up Eltwise10
I0929 19:16:17.839875  2630 net.cpp:129] Top shape: 100 32 14 14 (627200)
I0929 19:16:17.839877  2630 net.cpp:137] Memory required for data: 555386000
I0929 19:16:17.839879  2630 layer_factory.hpp:77] Creating layer ReLU21
I0929 19:16:17.839882  2630 net.cpp:84] Creating Layer ReLU21
I0929 19:16:17.839884  2630 net.cpp:406] ReLU21 <- Eltwise10
I0929 19:16:17.839887  2630 net.cpp:367] ReLU21 -> Eltwise10 (in-place)
I0929 19:16:17.840317  2630 net.cpp:122] Setting up ReLU21
I0929 19:16:17.840324  2630 net.cpp:129] Top shape: 100 32 14 14 (627200)
I0929 19:16:17.840327  2630 net.cpp:137] Memory required for data: 557894800
I0929 19:16:17.840329  2630 layer_factory.hpp:77] Creating layer Eltwise10_ReLU21_0_split
I0929 19:16:17.840333  2630 net.cpp:84] Creating Layer Eltwise10_ReLU21_0_split
I0929 19:16:17.840337  2630 net.cpp:406] Eltwise10_ReLU21_0_split <- Eltwise10
I0929 19:16:17.840339  2630 net.cpp:380] Eltwise10_ReLU21_0_split -> Eltwise10_ReLU21_0_split_0
I0929 19:16:17.840351  2630 net.cpp:380] Eltwise10_ReLU21_0_split -> Eltwise10_ReLU21_0_split_1
I0929 19:16:17.840379  2630 net.cpp:122] Setting up Eltwise10_ReLU21_0_split
I0929 19:16:17.840384  2630 net.cpp:129] Top shape: 100 32 14 14 (627200)
I0929 19:16:17.840386  2630 net.cpp:129] Top shape: 100 32 14 14 (627200)
I0929 19:16:17.840389  2630 net.cpp:137] Memory required for data: 562912400
I0929 19:16:17.840391  2630 layer_factory.hpp:77] Creating layer Convolution23
I0929 19:16:17.840397  2630 net.cpp:84] Creating Layer Convolution23
I0929 19:16:17.840400  2630 net.cpp:406] Convolution23 <- Eltwise10_ReLU21_0_split_0
I0929 19:16:17.840404  2630 net.cpp:380] Convolution23 -> Convolution23
I0929 19:16:17.841441  2630 net.cpp:122] Setting up Convolution23
I0929 19:16:17.841449  2630 net.cpp:129] Top shape: 100 32 14 14 (627200)
I0929 19:16:17.841452  2630 net.cpp:137] Memory required for data: 565421200
I0929 19:16:17.841456  2630 layer_factory.hpp:77] Creating layer BatchNorm23
I0929 19:16:17.841461  2630 net.cpp:84] Creating Layer BatchNorm23
I0929 19:16:17.841464  2630 net.cpp:406] BatchNorm23 <- Convolution23
I0929 19:16:17.841467  2630 net.cpp:367] BatchNorm23 -> Convolution23 (in-place)
I0929 19:16:17.841603  2630 net.cpp:122] Setting up BatchNorm23
I0929 19:16:17.841609  2630 net.cpp:129] Top shape: 100 32 14 14 (627200)
I0929 19:16:17.841611  2630 net.cpp:137] Memory required for data: 567930000
I0929 19:16:17.841615  2630 layer_factory.hpp:77] Creating layer Scale23
I0929 19:16:17.841619  2630 net.cpp:84] Creating Layer Scale23
I0929 19:16:17.841622  2630 net.cpp:406] Scale23 <- Convolution23
I0929 19:16:17.841626  2630 net.cpp:367] Scale23 -> Convolution23 (in-place)
I0929 19:16:17.841651  2630 layer_factory.hpp:77] Creating layer Scale23
I0929 19:16:17.841727  2630 net.cpp:122] Setting up Scale23
I0929 19:16:17.841732  2630 net.cpp:129] Top shape: 100 32 14 14 (627200)
I0929 19:16:17.841733  2630 net.cpp:137] Memory required for data: 570438800
I0929 19:16:17.841737  2630 layer_factory.hpp:77] Creating layer ReLU22
I0929 19:16:17.841740  2630 net.cpp:84] Creating Layer ReLU22
I0929 19:16:17.841742  2630 net.cpp:406] ReLU22 <- Convolution23
I0929 19:16:17.841747  2630 net.cpp:367] ReLU22 -> Convolution23 (in-place)
I0929 19:16:17.842170  2630 net.cpp:122] Setting up ReLU22
I0929 19:16:17.842177  2630 net.cpp:129] Top shape: 100 32 14 14 (627200)
I0929 19:16:17.842180  2630 net.cpp:137] Memory required for data: 572947600
I0929 19:16:17.842182  2630 layer_factory.hpp:77] Creating layer Convolution24
I0929 19:16:17.842190  2630 net.cpp:84] Creating Layer Convolution24
I0929 19:16:17.842191  2630 net.cpp:406] Convolution24 <- Convolution23
I0929 19:16:17.842196  2630 net.cpp:380] Convolution24 -> Convolution24
I0929 19:16:17.843235  2630 net.cpp:122] Setting up Convolution24
I0929 19:16:17.843243  2630 net.cpp:129] Top shape: 100 32 14 14 (627200)
I0929 19:16:17.843245  2630 net.cpp:137] Memory required for data: 575456400
I0929 19:16:17.843250  2630 layer_factory.hpp:77] Creating layer BatchNorm24
I0929 19:16:17.843255  2630 net.cpp:84] Creating Layer BatchNorm24
I0929 19:16:17.843258  2630 net.cpp:406] BatchNorm24 <- Convolution24
I0929 19:16:17.843261  2630 net.cpp:367] BatchNorm24 -> Convolution24 (in-place)
I0929 19:16:17.843396  2630 net.cpp:122] Setting up BatchNorm24
I0929 19:16:17.843400  2630 net.cpp:129] Top shape: 100 32 14 14 (627200)
I0929 19:16:17.843403  2630 net.cpp:137] Memory required for data: 577965200
I0929 19:16:17.843407  2630 layer_factory.hpp:77] Creating layer Scale24
I0929 19:16:17.843411  2630 net.cpp:84] Creating Layer Scale24
I0929 19:16:17.843413  2630 net.cpp:406] Scale24 <- Convolution24
I0929 19:16:17.843416  2630 net.cpp:367] Scale24 -> Convolution24 (in-place)
I0929 19:16:17.843443  2630 layer_factory.hpp:77] Creating layer Scale24
I0929 19:16:17.843518  2630 net.cpp:122] Setting up Scale24
I0929 19:16:17.843523  2630 net.cpp:129] Top shape: 100 32 14 14 (627200)
I0929 19:16:17.843524  2630 net.cpp:137] Memory required for data: 580474000
I0929 19:16:17.843534  2630 layer_factory.hpp:77] Creating layer Eltwise11
I0929 19:16:17.843539  2630 net.cpp:84] Creating Layer Eltwise11
I0929 19:16:17.843541  2630 net.cpp:406] Eltwise11 <- Eltwise10_ReLU21_0_split_1
I0929 19:16:17.843544  2630 net.cpp:406] Eltwise11 <- Convolution24
I0929 19:16:17.843547  2630 net.cpp:380] Eltwise11 -> Eltwise11
I0929 19:16:17.843564  2630 net.cpp:122] Setting up Eltwise11
I0929 19:16:17.843569  2630 net.cpp:129] Top shape: 100 32 14 14 (627200)
I0929 19:16:17.843570  2630 net.cpp:137] Memory required for data: 582982800
I0929 19:16:17.843572  2630 layer_factory.hpp:77] Creating layer ReLU23
I0929 19:16:17.843575  2630 net.cpp:84] Creating Layer ReLU23
I0929 19:16:17.843577  2630 net.cpp:406] ReLU23 <- Eltwise11
I0929 19:16:17.843581  2630 net.cpp:367] ReLU23 -> Eltwise11 (in-place)
I0929 19:16:17.843696  2630 net.cpp:122] Setting up ReLU23
I0929 19:16:17.843703  2630 net.cpp:129] Top shape: 100 32 14 14 (627200)
I0929 19:16:17.843704  2630 net.cpp:137] Memory required for data: 585491600
I0929 19:16:17.843706  2630 layer_factory.hpp:77] Creating layer Eltwise11_ReLU23_0_split
I0929 19:16:17.843710  2630 net.cpp:84] Creating Layer Eltwise11_ReLU23_0_split
I0929 19:16:17.843713  2630 net.cpp:406] Eltwise11_ReLU23_0_split <- Eltwise11
I0929 19:16:17.843716  2630 net.cpp:380] Eltwise11_ReLU23_0_split -> Eltwise11_ReLU23_0_split_0
I0929 19:16:17.843720  2630 net.cpp:380] Eltwise11_ReLU23_0_split -> Eltwise11_ReLU23_0_split_1
I0929 19:16:17.843747  2630 net.cpp:122] Setting up Eltwise11_ReLU23_0_split
I0929 19:16:17.843751  2630 net.cpp:129] Top shape: 100 32 14 14 (627200)
I0929 19:16:17.843753  2630 net.cpp:129] Top shape: 100 32 14 14 (627200)
I0929 19:16:17.843755  2630 net.cpp:137] Memory required for data: 590509200
I0929 19:16:17.843757  2630 layer_factory.hpp:77] Creating layer Convolution25
I0929 19:16:17.843765  2630 net.cpp:84] Creating Layer Convolution25
I0929 19:16:17.843766  2630 net.cpp:406] Convolution25 <- Eltwise11_ReLU23_0_split_0
I0929 19:16:17.843771  2630 net.cpp:380] Convolution25 -> Convolution25
I0929 19:16:17.844799  2630 net.cpp:122] Setting up Convolution25
I0929 19:16:17.844806  2630 net.cpp:129] Top shape: 100 32 14 14 (627200)
I0929 19:16:17.844808  2630 net.cpp:137] Memory required for data: 593018000
I0929 19:16:17.844813  2630 layer_factory.hpp:77] Creating layer BatchNorm25
I0929 19:16:17.844817  2630 net.cpp:84] Creating Layer BatchNorm25
I0929 19:16:17.844820  2630 net.cpp:406] BatchNorm25 <- Convolution25
I0929 19:16:17.844825  2630 net.cpp:367] BatchNorm25 -> Convolution25 (in-place)
I0929 19:16:17.844962  2630 net.cpp:122] Setting up BatchNorm25
I0929 19:16:17.844967  2630 net.cpp:129] Top shape: 100 32 14 14 (627200)
I0929 19:16:17.844969  2630 net.cpp:137] Memory required for data: 595526800
I0929 19:16:17.844974  2630 layer_factory.hpp:77] Creating layer Scale25
I0929 19:16:17.844979  2630 net.cpp:84] Creating Layer Scale25
I0929 19:16:17.844980  2630 net.cpp:406] Scale25 <- Convolution25
I0929 19:16:17.844985  2630 net.cpp:367] Scale25 -> Convolution25 (in-place)
I0929 19:16:17.845010  2630 layer_factory.hpp:77] Creating layer Scale25
I0929 19:16:17.845086  2630 net.cpp:122] Setting up Scale25
I0929 19:16:17.845090  2630 net.cpp:129] Top shape: 100 32 14 14 (627200)
I0929 19:16:17.845093  2630 net.cpp:137] Memory required for data: 598035600
I0929 19:16:17.845096  2630 layer_factory.hpp:77] Creating layer ReLU24
I0929 19:16:17.845099  2630 net.cpp:84] Creating Layer ReLU24
I0929 19:16:17.845101  2630 net.cpp:406] ReLU24 <- Convolution25
I0929 19:16:17.845105  2630 net.cpp:367] ReLU24 -> Convolution25 (in-place)
I0929 19:16:17.845218  2630 net.cpp:122] Setting up ReLU24
I0929 19:16:17.845224  2630 net.cpp:129] Top shape: 100 32 14 14 (627200)
I0929 19:16:17.845227  2630 net.cpp:137] Memory required for data: 600544400
I0929 19:16:17.845229  2630 layer_factory.hpp:77] Creating layer Convolution26
I0929 19:16:17.845237  2630 net.cpp:84] Creating Layer Convolution26
I0929 19:16:17.845239  2630 net.cpp:406] Convolution26 <- Convolution25
I0929 19:16:17.845249  2630 net.cpp:380] Convolution26 -> Convolution26
I0929 19:16:17.846287  2630 net.cpp:122] Setting up Convolution26
I0929 19:16:17.846294  2630 net.cpp:129] Top shape: 100 32 14 14 (627200)
I0929 19:16:17.846297  2630 net.cpp:137] Memory required for data: 603053200
I0929 19:16:17.846302  2630 layer_factory.hpp:77] Creating layer BatchNorm26
I0929 19:16:17.846307  2630 net.cpp:84] Creating Layer BatchNorm26
I0929 19:16:17.846309  2630 net.cpp:406] BatchNorm26 <- Convolution26
I0929 19:16:17.846313  2630 net.cpp:367] BatchNorm26 -> Convolution26 (in-place)
I0929 19:16:17.846448  2630 net.cpp:122] Setting up BatchNorm26
I0929 19:16:17.846452  2630 net.cpp:129] Top shape: 100 32 14 14 (627200)
I0929 19:16:17.846454  2630 net.cpp:137] Memory required for data: 605562000
I0929 19:16:17.846459  2630 layer_factory.hpp:77] Creating layer Scale26
I0929 19:16:17.846463  2630 net.cpp:84] Creating Layer Scale26
I0929 19:16:17.846467  2630 net.cpp:406] Scale26 <- Convolution26
I0929 19:16:17.846469  2630 net.cpp:367] Scale26 -> Convolution26 (in-place)
I0929 19:16:17.846495  2630 layer_factory.hpp:77] Creating layer Scale26
I0929 19:16:17.846580  2630 net.cpp:122] Setting up Scale26
I0929 19:16:17.846585  2630 net.cpp:129] Top shape: 100 32 14 14 (627200)
I0929 19:16:17.846587  2630 net.cpp:137] Memory required for data: 608070800
I0929 19:16:17.846591  2630 layer_factory.hpp:77] Creating layer Eltwise12
I0929 19:16:17.846596  2630 net.cpp:84] Creating Layer Eltwise12
I0929 19:16:17.846598  2630 net.cpp:406] Eltwise12 <- Eltwise11_ReLU23_0_split_1
I0929 19:16:17.846601  2630 net.cpp:406] Eltwise12 <- Convolution26
I0929 19:16:17.846604  2630 net.cpp:380] Eltwise12 -> Eltwise12
I0929 19:16:17.846621  2630 net.cpp:122] Setting up Eltwise12
I0929 19:16:17.846623  2630 net.cpp:129] Top shape: 100 32 14 14 (627200)
I0929 19:16:17.846626  2630 net.cpp:137] Memory required for data: 610579600
I0929 19:16:17.846627  2630 layer_factory.hpp:77] Creating layer ReLU25
I0929 19:16:17.846632  2630 net.cpp:84] Creating Layer ReLU25
I0929 19:16:17.846633  2630 net.cpp:406] ReLU25 <- Eltwise12
I0929 19:16:17.846637  2630 net.cpp:367] ReLU25 -> Eltwise12 (in-place)
I0929 19:16:17.846752  2630 net.cpp:122] Setting up ReLU25
I0929 19:16:17.846758  2630 net.cpp:129] Top shape: 100 32 14 14 (627200)
I0929 19:16:17.846760  2630 net.cpp:137] Memory required for data: 613088400
I0929 19:16:17.846763  2630 layer_factory.hpp:77] Creating layer Eltwise12_ReLU25_0_split
I0929 19:16:17.846776  2630 net.cpp:84] Creating Layer Eltwise12_ReLU25_0_split
I0929 19:16:17.846777  2630 net.cpp:406] Eltwise12_ReLU25_0_split <- Eltwise12
I0929 19:16:17.846781  2630 net.cpp:380] Eltwise12_ReLU25_0_split -> Eltwise12_ReLU25_0_split_0
I0929 19:16:17.846791  2630 net.cpp:380] Eltwise12_ReLU25_0_split -> Eltwise12_ReLU25_0_split_1
I0929 19:16:17.846818  2630 net.cpp:122] Setting up Eltwise12_ReLU25_0_split
I0929 19:16:17.846823  2630 net.cpp:129] Top shape: 100 32 14 14 (627200)
I0929 19:16:17.846827  2630 net.cpp:129] Top shape: 100 32 14 14 (627200)
I0929 19:16:17.846828  2630 net.cpp:137] Memory required for data: 618106000
I0929 19:16:17.846830  2630 layer_factory.hpp:77] Creating layer Convolution27
I0929 19:16:17.846837  2630 net.cpp:84] Creating Layer Convolution27
I0929 19:16:17.846839  2630 net.cpp:406] Convolution27 <- Eltwise12_ReLU25_0_split_0
I0929 19:16:17.846843  2630 net.cpp:380] Convolution27 -> Convolution27
I0929 19:16:17.847867  2630 net.cpp:122] Setting up Convolution27
I0929 19:16:17.847877  2630 net.cpp:129] Top shape: 100 32 14 14 (627200)
I0929 19:16:17.847878  2630 net.cpp:137] Memory required for data: 620614800
I0929 19:16:17.847882  2630 layer_factory.hpp:77] Creating layer BatchNorm27
I0929 19:16:17.847887  2630 net.cpp:84] Creating Layer BatchNorm27
I0929 19:16:17.847890  2630 net.cpp:406] BatchNorm27 <- Convolution27
I0929 19:16:17.847895  2630 net.cpp:367] BatchNorm27 -> Convolution27 (in-place)
I0929 19:16:17.848029  2630 net.cpp:122] Setting up BatchNorm27
I0929 19:16:17.848034  2630 net.cpp:129] Top shape: 100 32 14 14 (627200)
I0929 19:16:17.848042  2630 net.cpp:137] Memory required for data: 623123600
I0929 19:16:17.848047  2630 layer_factory.hpp:77] Creating layer Scale27
I0929 19:16:17.848052  2630 net.cpp:84] Creating Layer Scale27
I0929 19:16:17.848053  2630 net.cpp:406] Scale27 <- Convolution27
I0929 19:16:17.848057  2630 net.cpp:367] Scale27 -> Convolution27 (in-place)
I0929 19:16:17.848084  2630 layer_factory.hpp:77] Creating layer Scale27
I0929 19:16:17.848161  2630 net.cpp:122] Setting up Scale27
I0929 19:16:17.848165  2630 net.cpp:129] Top shape: 100 32 14 14 (627200)
I0929 19:16:17.848167  2630 net.cpp:137] Memory required for data: 625632400
I0929 19:16:17.848171  2630 layer_factory.hpp:77] Creating layer ReLU26
I0929 19:16:17.848176  2630 net.cpp:84] Creating Layer ReLU26
I0929 19:16:17.848177  2630 net.cpp:406] ReLU26 <- Convolution27
I0929 19:16:17.848181  2630 net.cpp:367] ReLU26 -> Convolution27 (in-place)
I0929 19:16:17.848297  2630 net.cpp:122] Setting up ReLU26
I0929 19:16:17.848304  2630 net.cpp:129] Top shape: 100 32 14 14 (627200)
I0929 19:16:17.848305  2630 net.cpp:137] Memory required for data: 628141200
I0929 19:16:17.848307  2630 layer_factory.hpp:77] Creating layer Convolution28
I0929 19:16:17.848315  2630 net.cpp:84] Creating Layer Convolution28
I0929 19:16:17.848316  2630 net.cpp:406] Convolution28 <- Convolution27
I0929 19:16:17.848321  2630 net.cpp:380] Convolution28 -> Convolution28
I0929 19:16:17.849352  2630 net.cpp:122] Setting up Convolution28
I0929 19:16:17.849361  2630 net.cpp:129] Top shape: 100 32 14 14 (627200)
I0929 19:16:17.849364  2630 net.cpp:137] Memory required for data: 630650000
I0929 19:16:17.849369  2630 layer_factory.hpp:77] Creating layer BatchNorm28
I0929 19:16:17.849372  2630 net.cpp:84] Creating Layer BatchNorm28
I0929 19:16:17.849375  2630 net.cpp:406] BatchNorm28 <- Convolution28
I0929 19:16:17.849380  2630 net.cpp:367] BatchNorm28 -> Convolution28 (in-place)
I0929 19:16:17.849514  2630 net.cpp:122] Setting up BatchNorm28
I0929 19:16:17.849519  2630 net.cpp:129] Top shape: 100 32 14 14 (627200)
I0929 19:16:17.849521  2630 net.cpp:137] Memory required for data: 633158800
I0929 19:16:17.849525  2630 layer_factory.hpp:77] Creating layer Scale28
I0929 19:16:17.849529  2630 net.cpp:84] Creating Layer Scale28
I0929 19:16:17.849531  2630 net.cpp:406] Scale28 <- Convolution28
I0929 19:16:17.849535  2630 net.cpp:367] Scale28 -> Convolution28 (in-place)
I0929 19:16:17.849560  2630 layer_factory.hpp:77] Creating layer Scale28
I0929 19:16:17.849637  2630 net.cpp:122] Setting up Scale28
I0929 19:16:17.849640  2630 net.cpp:129] Top shape: 100 32 14 14 (627200)
I0929 19:16:17.849643  2630 net.cpp:137] Memory required for data: 635667600
I0929 19:16:17.849647  2630 layer_factory.hpp:77] Creating layer Eltwise13
I0929 19:16:17.849650  2630 net.cpp:84] Creating Layer Eltwise13
I0929 19:16:17.849653  2630 net.cpp:406] Eltwise13 <- Eltwise12_ReLU25_0_split_1
I0929 19:16:17.849655  2630 net.cpp:406] Eltwise13 <- Convolution28
I0929 19:16:17.849659  2630 net.cpp:380] Eltwise13 -> Eltwise13
I0929 19:16:17.849674  2630 net.cpp:122] Setting up Eltwise13
I0929 19:16:17.849678  2630 net.cpp:129] Top shape: 100 32 14 14 (627200)
I0929 19:16:17.849680  2630 net.cpp:137] Memory required for data: 638176400
I0929 19:16:17.849683  2630 layer_factory.hpp:77] Creating layer ReLU27
I0929 19:16:17.849685  2630 net.cpp:84] Creating Layer ReLU27
I0929 19:16:17.849687  2630 net.cpp:406] ReLU27 <- Eltwise13
I0929 19:16:17.849690  2630 net.cpp:367] ReLU27 -> Eltwise13 (in-place)
I0929 19:16:17.850117  2630 net.cpp:122] Setting up ReLU27
I0929 19:16:17.850126  2630 net.cpp:129] Top shape: 100 32 14 14 (627200)
I0929 19:16:17.850128  2630 net.cpp:137] Memory required for data: 640685200
I0929 19:16:17.850131  2630 layer_factory.hpp:77] Creating layer Eltwise13_ReLU27_0_split
I0929 19:16:17.850134  2630 net.cpp:84] Creating Layer Eltwise13_ReLU27_0_split
I0929 19:16:17.850137  2630 net.cpp:406] Eltwise13_ReLU27_0_split <- Eltwise13
I0929 19:16:17.850141  2630 net.cpp:380] Eltwise13_ReLU27_0_split -> Eltwise13_ReLU27_0_split_0
I0929 19:16:17.850152  2630 net.cpp:380] Eltwise13_ReLU27_0_split -> Eltwise13_ReLU27_0_split_1
I0929 19:16:17.850181  2630 net.cpp:122] Setting up Eltwise13_ReLU27_0_split
I0929 19:16:17.850185  2630 net.cpp:129] Top shape: 100 32 14 14 (627200)
I0929 19:16:17.850188  2630 net.cpp:129] Top shape: 100 32 14 14 (627200)
I0929 19:16:17.850190  2630 net.cpp:137] Memory required for data: 645702800
I0929 19:16:17.850193  2630 layer_factory.hpp:77] Creating layer Convolution29
I0929 19:16:17.850199  2630 net.cpp:84] Creating Layer Convolution29
I0929 19:16:17.850203  2630 net.cpp:406] Convolution29 <- Eltwise13_ReLU27_0_split_0
I0929 19:16:17.850208  2630 net.cpp:380] Convolution29 -> Convolution29
I0929 19:16:17.850929  2630 net.cpp:122] Setting up Convolution29
I0929 19:16:17.850935  2630 net.cpp:129] Top shape: 100 32 14 14 (627200)
I0929 19:16:17.850939  2630 net.cpp:137] Memory required for data: 648211600
I0929 19:16:17.850942  2630 layer_factory.hpp:77] Creating layer BatchNorm29
I0929 19:16:17.850947  2630 net.cpp:84] Creating Layer BatchNorm29
I0929 19:16:17.850950  2630 net.cpp:406] BatchNorm29 <- Convolution29
I0929 19:16:17.850955  2630 net.cpp:367] BatchNorm29 -> Convolution29 (in-place)
I0929 19:16:17.851089  2630 net.cpp:122] Setting up BatchNorm29
I0929 19:16:17.851094  2630 net.cpp:129] Top shape: 100 32 14 14 (627200)
I0929 19:16:17.851095  2630 net.cpp:137] Memory required for data: 650720400
I0929 19:16:17.851100  2630 layer_factory.hpp:77] Creating layer Scale29
I0929 19:16:17.851104  2630 net.cpp:84] Creating Layer Scale29
I0929 19:16:17.851107  2630 net.cpp:406] Scale29 <- Convolution29
I0929 19:16:17.851110  2630 net.cpp:367] Scale29 -> Convolution29 (in-place)
I0929 19:16:17.851136  2630 layer_factory.hpp:77] Creating layer Scale29
I0929 19:16:17.851214  2630 net.cpp:122] Setting up Scale29
I0929 19:16:17.851218  2630 net.cpp:129] Top shape: 100 32 14 14 (627200)
I0929 19:16:17.851220  2630 net.cpp:137] Memory required for data: 653229200
I0929 19:16:17.851224  2630 layer_factory.hpp:77] Creating layer ReLU28
I0929 19:16:17.851228  2630 net.cpp:84] Creating Layer ReLU28
I0929 19:16:17.851230  2630 net.cpp:406] ReLU28 <- Convolution29
I0929 19:16:17.851233  2630 net.cpp:367] ReLU28 -> Convolution29 (in-place)
I0929 19:16:17.851658  2630 net.cpp:122] Setting up ReLU28
I0929 19:16:17.851666  2630 net.cpp:129] Top shape: 100 32 14 14 (627200)
I0929 19:16:17.851670  2630 net.cpp:137] Memory required for data: 655738000
I0929 19:16:17.851671  2630 layer_factory.hpp:77] Creating layer Convolution30
I0929 19:16:17.851678  2630 net.cpp:84] Creating Layer Convolution30
I0929 19:16:17.851681  2630 net.cpp:406] Convolution30 <- Convolution29
I0929 19:16:17.851686  2630 net.cpp:380] Convolution30 -> Convolution30
I0929 19:16:17.852748  2630 net.cpp:122] Setting up Convolution30
I0929 19:16:17.852757  2630 net.cpp:129] Top shape: 100 32 14 14 (627200)
I0929 19:16:17.852759  2630 net.cpp:137] Memory required for data: 658246800
I0929 19:16:17.852764  2630 layer_factory.hpp:77] Creating layer BatchNorm30
I0929 19:16:17.852768  2630 net.cpp:84] Creating Layer BatchNorm30
I0929 19:16:17.852771  2630 net.cpp:406] BatchNorm30 <- Convolution30
I0929 19:16:17.852776  2630 net.cpp:367] BatchNorm30 -> Convolution30 (in-place)
I0929 19:16:17.852911  2630 net.cpp:122] Setting up BatchNorm30
I0929 19:16:17.852916  2630 net.cpp:129] Top shape: 100 32 14 14 (627200)
I0929 19:16:17.852918  2630 net.cpp:137] Memory required for data: 660755600
I0929 19:16:17.852922  2630 layer_factory.hpp:77] Creating layer Scale30
I0929 19:16:17.852926  2630 net.cpp:84] Creating Layer Scale30
I0929 19:16:17.852928  2630 net.cpp:406] Scale30 <- Convolution30
I0929 19:16:17.852932  2630 net.cpp:367] Scale30 -> Convolution30 (in-place)
I0929 19:16:17.852958  2630 layer_factory.hpp:77] Creating layer Scale30
I0929 19:16:17.853035  2630 net.cpp:122] Setting up Scale30
I0929 19:16:17.853039  2630 net.cpp:129] Top shape: 100 32 14 14 (627200)
I0929 19:16:17.853041  2630 net.cpp:137] Memory required for data: 663264400
I0929 19:16:17.853051  2630 layer_factory.hpp:77] Creating layer Eltwise14
I0929 19:16:17.853055  2630 net.cpp:84] Creating Layer Eltwise14
I0929 19:16:17.853058  2630 net.cpp:406] Eltwise14 <- Eltwise13_ReLU27_0_split_1
I0929 19:16:17.853061  2630 net.cpp:406] Eltwise14 <- Convolution30
I0929 19:16:17.853066  2630 net.cpp:380] Eltwise14 -> Eltwise14
I0929 19:16:17.853083  2630 net.cpp:122] Setting up Eltwise14
I0929 19:16:17.853088  2630 net.cpp:129] Top shape: 100 32 14 14 (627200)
I0929 19:16:17.853091  2630 net.cpp:137] Memory required for data: 665773200
I0929 19:16:17.853092  2630 layer_factory.hpp:77] Creating layer ReLU29
I0929 19:16:17.853096  2630 net.cpp:84] Creating Layer ReLU29
I0929 19:16:17.853097  2630 net.cpp:406] ReLU29 <- Eltwise14
I0929 19:16:17.853101  2630 net.cpp:367] ReLU29 -> Eltwise14 (in-place)
I0929 19:16:17.853219  2630 net.cpp:122] Setting up ReLU29
I0929 19:16:17.853224  2630 net.cpp:129] Top shape: 100 32 14 14 (627200)
I0929 19:16:17.853226  2630 net.cpp:137] Memory required for data: 668282000
I0929 19:16:17.853229  2630 layer_factory.hpp:77] Creating layer Eltwise14_ReLU29_0_split
I0929 19:16:17.853232  2630 net.cpp:84] Creating Layer Eltwise14_ReLU29_0_split
I0929 19:16:17.853235  2630 net.cpp:406] Eltwise14_ReLU29_0_split <- Eltwise14
I0929 19:16:17.853238  2630 net.cpp:380] Eltwise14_ReLU29_0_split -> Eltwise14_ReLU29_0_split_0
I0929 19:16:17.853242  2630 net.cpp:380] Eltwise14_ReLU29_0_split -> Eltwise14_ReLU29_0_split_1
I0929 19:16:17.853271  2630 net.cpp:122] Setting up Eltwise14_ReLU29_0_split
I0929 19:16:17.853274  2630 net.cpp:129] Top shape: 100 32 14 14 (627200)
I0929 19:16:17.853276  2630 net.cpp:129] Top shape: 100 32 14 14 (627200)
I0929 19:16:17.853278  2630 net.cpp:137] Memory required for data: 673299600
I0929 19:16:17.853281  2630 layer_factory.hpp:77] Creating layer Convolution31
I0929 19:16:17.853287  2630 net.cpp:84] Creating Layer Convolution31
I0929 19:16:17.853289  2630 net.cpp:406] Convolution31 <- Eltwise14_ReLU29_0_split_0
I0929 19:16:17.853293  2630 net.cpp:380] Convolution31 -> Convolution31
I0929 19:16:17.854333  2630 net.cpp:122] Setting up Convolution31
I0929 19:16:17.854341  2630 net.cpp:129] Top shape: 100 32 14 14 (627200)
I0929 19:16:17.854344  2630 net.cpp:137] Memory required for data: 675808400
I0929 19:16:17.854348  2630 layer_factory.hpp:77] Creating layer BatchNorm31
I0929 19:16:17.854353  2630 net.cpp:84] Creating Layer BatchNorm31
I0929 19:16:17.854357  2630 net.cpp:406] BatchNorm31 <- Convolution31
I0929 19:16:17.854360  2630 net.cpp:367] BatchNorm31 -> Convolution31 (in-place)
I0929 19:16:17.854516  2630 net.cpp:122] Setting up BatchNorm31
I0929 19:16:17.854524  2630 net.cpp:129] Top shape: 100 32 14 14 (627200)
I0929 19:16:17.854526  2630 net.cpp:137] Memory required for data: 678317200
I0929 19:16:17.854532  2630 layer_factory.hpp:77] Creating layer Scale31
I0929 19:16:17.854537  2630 net.cpp:84] Creating Layer Scale31
I0929 19:16:17.854538  2630 net.cpp:406] Scale31 <- Convolution31
I0929 19:16:17.854542  2630 net.cpp:367] Scale31 -> Convolution31 (in-place)
I0929 19:16:17.854568  2630 layer_factory.hpp:77] Creating layer Scale31
I0929 19:16:17.854645  2630 net.cpp:122] Setting up Scale31
I0929 19:16:17.854650  2630 net.cpp:129] Top shape: 100 32 14 14 (627200)
I0929 19:16:17.854651  2630 net.cpp:137] Memory required for data: 680826000
I0929 19:16:17.854655  2630 layer_factory.hpp:77] Creating layer ReLU30
I0929 19:16:17.854660  2630 net.cpp:84] Creating Layer ReLU30
I0929 19:16:17.854661  2630 net.cpp:406] ReLU30 <- Convolution31
I0929 19:16:17.854665  2630 net.cpp:367] ReLU30 -> Convolution31 (in-place)
I0929 19:16:17.854781  2630 net.cpp:122] Setting up ReLU30
I0929 19:16:17.854786  2630 net.cpp:129] Top shape: 100 32 14 14 (627200)
I0929 19:16:17.854789  2630 net.cpp:137] Memory required for data: 683334800
I0929 19:16:17.854791  2630 layer_factory.hpp:77] Creating layer Convolution32
I0929 19:16:17.854799  2630 net.cpp:84] Creating Layer Convolution32
I0929 19:16:17.854802  2630 net.cpp:406] Convolution32 <- Convolution31
I0929 19:16:17.854812  2630 net.cpp:380] Convolution32 -> Convolution32
I0929 19:16:17.855860  2630 net.cpp:122] Setting up Convolution32
I0929 19:16:17.855870  2630 net.cpp:129] Top shape: 100 32 14 14 (627200)
I0929 19:16:17.855871  2630 net.cpp:137] Memory required for data: 685843600
I0929 19:16:17.855875  2630 layer_factory.hpp:77] Creating layer BatchNorm32
I0929 19:16:17.855881  2630 net.cpp:84] Creating Layer BatchNorm32
I0929 19:16:17.855883  2630 net.cpp:406] BatchNorm32 <- Convolution32
I0929 19:16:17.855888  2630 net.cpp:367] BatchNorm32 -> Convolution32 (in-place)
I0929 19:16:17.856024  2630 net.cpp:122] Setting up BatchNorm32
I0929 19:16:17.856029  2630 net.cpp:129] Top shape: 100 32 14 14 (627200)
I0929 19:16:17.856031  2630 net.cpp:137] Memory required for data: 688352400
I0929 19:16:17.856035  2630 layer_factory.hpp:77] Creating layer Scale32
I0929 19:16:17.856040  2630 net.cpp:84] Creating Layer Scale32
I0929 19:16:17.856043  2630 net.cpp:406] Scale32 <- Convolution32
I0929 19:16:17.856046  2630 net.cpp:367] Scale32 -> Convolution32 (in-place)
I0929 19:16:17.856072  2630 layer_factory.hpp:77] Creating layer Scale32
I0929 19:16:17.856150  2630 net.cpp:122] Setting up Scale32
I0929 19:16:17.856154  2630 net.cpp:129] Top shape: 100 32 14 14 (627200)
I0929 19:16:17.856156  2630 net.cpp:137] Memory required for data: 690861200
I0929 19:16:17.856160  2630 layer_factory.hpp:77] Creating layer Eltwise15
I0929 19:16:17.856164  2630 net.cpp:84] Creating Layer Eltwise15
I0929 19:16:17.856168  2630 net.cpp:406] Eltwise15 <- Eltwise14_ReLU29_0_split_1
I0929 19:16:17.856169  2630 net.cpp:406] Eltwise15 <- Convolution32
I0929 19:16:17.856173  2630 net.cpp:380] Eltwise15 -> Eltwise15
I0929 19:16:17.856189  2630 net.cpp:122] Setting up Eltwise15
I0929 19:16:17.856191  2630 net.cpp:129] Top shape: 100 32 14 14 (627200)
I0929 19:16:17.856194  2630 net.cpp:137] Memory required for data: 693370000
I0929 19:16:17.856195  2630 layer_factory.hpp:77] Creating layer ReLU31
I0929 19:16:17.856199  2630 net.cpp:84] Creating Layer ReLU31
I0929 19:16:17.856202  2630 net.cpp:406] ReLU31 <- Eltwise15
I0929 19:16:17.856204  2630 net.cpp:367] ReLU31 -> Eltwise15 (in-place)
I0929 19:16:17.856628  2630 net.cpp:122] Setting up ReLU31
I0929 19:16:17.856637  2630 net.cpp:129] Top shape: 100 32 14 14 (627200)
I0929 19:16:17.856638  2630 net.cpp:137] Memory required for data: 695878800
I0929 19:16:17.856642  2630 layer_factory.hpp:77] Creating layer Eltwise15_ReLU31_0_split
I0929 19:16:17.856644  2630 net.cpp:84] Creating Layer Eltwise15_ReLU31_0_split
I0929 19:16:17.856647  2630 net.cpp:406] Eltwise15_ReLU31_0_split <- Eltwise15
I0929 19:16:17.856650  2630 net.cpp:380] Eltwise15_ReLU31_0_split -> Eltwise15_ReLU31_0_split_0
I0929 19:16:17.856657  2630 net.cpp:380] Eltwise15_ReLU31_0_split -> Eltwise15_ReLU31_0_split_1
I0929 19:16:17.856685  2630 net.cpp:122] Setting up Eltwise15_ReLU31_0_split
I0929 19:16:17.856689  2630 net.cpp:129] Top shape: 100 32 14 14 (627200)
I0929 19:16:17.856691  2630 net.cpp:129] Top shape: 100 32 14 14 (627200)
I0929 19:16:17.856693  2630 net.cpp:137] Memory required for data: 700896400
I0929 19:16:17.856695  2630 layer_factory.hpp:77] Creating layer Convolution33
I0929 19:16:17.856703  2630 net.cpp:84] Creating Layer Convolution33
I0929 19:16:17.856706  2630 net.cpp:406] Convolution33 <- Eltwise15_ReLU31_0_split_0
I0929 19:16:17.856710  2630 net.cpp:380] Convolution33 -> Convolution33
I0929 19:16:17.858053  2630 net.cpp:122] Setting up Convolution33
I0929 19:16:17.858062  2630 net.cpp:129] Top shape: 100 32 14 14 (627200)
I0929 19:16:17.858064  2630 net.cpp:137] Memory required for data: 703405200
I0929 19:16:17.858068  2630 layer_factory.hpp:77] Creating layer BatchNorm33
I0929 19:16:17.858073  2630 net.cpp:84] Creating Layer BatchNorm33
I0929 19:16:17.858077  2630 net.cpp:406] BatchNorm33 <- Convolution33
I0929 19:16:17.858080  2630 net.cpp:367] BatchNorm33 -> Convolution33 (in-place)
I0929 19:16:17.858222  2630 net.cpp:122] Setting up BatchNorm33
I0929 19:16:17.858227  2630 net.cpp:129] Top shape: 100 32 14 14 (627200)
I0929 19:16:17.858235  2630 net.cpp:137] Memory required for data: 705914000
I0929 19:16:17.858240  2630 layer_factory.hpp:77] Creating layer Scale33
I0929 19:16:17.858244  2630 net.cpp:84] Creating Layer Scale33
I0929 19:16:17.858247  2630 net.cpp:406] Scale33 <- Convolution33
I0929 19:16:17.858250  2630 net.cpp:367] Scale33 -> Convolution33 (in-place)
I0929 19:16:17.858278  2630 layer_factory.hpp:77] Creating layer Scale33
I0929 19:16:17.858358  2630 net.cpp:122] Setting up Scale33
I0929 19:16:17.858362  2630 net.cpp:129] Top shape: 100 32 14 14 (627200)
I0929 19:16:17.858364  2630 net.cpp:137] Memory required for data: 708422800
I0929 19:16:17.858368  2630 layer_factory.hpp:77] Creating layer ReLU32
I0929 19:16:17.858371  2630 net.cpp:84] Creating Layer ReLU32
I0929 19:16:17.858374  2630 net.cpp:406] ReLU32 <- Convolution33
I0929 19:16:17.858376  2630 net.cpp:367] ReLU32 -> Convolution33 (in-place)
I0929 19:16:17.858495  2630 net.cpp:122] Setting up ReLU32
I0929 19:16:17.858500  2630 net.cpp:129] Top shape: 100 32 14 14 (627200)
I0929 19:16:17.858502  2630 net.cpp:137] Memory required for data: 710931600
I0929 19:16:17.858505  2630 layer_factory.hpp:77] Creating layer Convolution34
I0929 19:16:17.858511  2630 net.cpp:84] Creating Layer Convolution34
I0929 19:16:17.858515  2630 net.cpp:406] Convolution34 <- Convolution33
I0929 19:16:17.858520  2630 net.cpp:380] Convolution34 -> Convolution34
I0929 19:16:17.859575  2630 net.cpp:122] Setting up Convolution34
I0929 19:16:17.859582  2630 net.cpp:129] Top shape: 100 32 14 14 (627200)
I0929 19:16:17.859586  2630 net.cpp:137] Memory required for data: 713440400
I0929 19:16:17.859589  2630 layer_factory.hpp:77] Creating layer BatchNorm34
I0929 19:16:17.859596  2630 net.cpp:84] Creating Layer BatchNorm34
I0929 19:16:17.859597  2630 net.cpp:406] BatchNorm34 <- Convolution34
I0929 19:16:17.859601  2630 net.cpp:367] BatchNorm34 -> Convolution34 (in-place)
I0929 19:16:17.859740  2630 net.cpp:122] Setting up BatchNorm34
I0929 19:16:17.859745  2630 net.cpp:129] Top shape: 100 32 14 14 (627200)
I0929 19:16:17.859746  2630 net.cpp:137] Memory required for data: 715949200
I0929 19:16:17.859751  2630 layer_factory.hpp:77] Creating layer Scale34
I0929 19:16:17.859755  2630 net.cpp:84] Creating Layer Scale34
I0929 19:16:17.859758  2630 net.cpp:406] Scale34 <- Convolution34
I0929 19:16:17.859761  2630 net.cpp:367] Scale34 -> Convolution34 (in-place)
I0929 19:16:17.859788  2630 layer_factory.hpp:77] Creating layer Scale34
I0929 19:16:17.859866  2630 net.cpp:122] Setting up Scale34
I0929 19:16:17.859870  2630 net.cpp:129] Top shape: 100 32 14 14 (627200)
I0929 19:16:17.859872  2630 net.cpp:137] Memory required for data: 718458000
I0929 19:16:17.859876  2630 layer_factory.hpp:77] Creating layer Eltwise16
I0929 19:16:17.859880  2630 net.cpp:84] Creating Layer Eltwise16
I0929 19:16:17.859884  2630 net.cpp:406] Eltwise16 <- Eltwise15_ReLU31_0_split_1
I0929 19:16:17.859886  2630 net.cpp:406] Eltwise16 <- Convolution34
I0929 19:16:17.859889  2630 net.cpp:380] Eltwise16 -> Eltwise16
I0929 19:16:17.859905  2630 net.cpp:122] Setting up Eltwise16
I0929 19:16:17.859910  2630 net.cpp:129] Top shape: 100 32 14 14 (627200)
I0929 19:16:17.859911  2630 net.cpp:137] Memory required for data: 720966800
I0929 19:16:17.859913  2630 layer_factory.hpp:77] Creating layer ReLU33
I0929 19:16:17.859916  2630 net.cpp:84] Creating Layer ReLU33
I0929 19:16:17.859920  2630 net.cpp:406] ReLU33 <- Eltwise16
I0929 19:16:17.859922  2630 net.cpp:367] ReLU33 -> Eltwise16 (in-place)
I0929 19:16:17.860352  2630 net.cpp:122] Setting up ReLU33
I0929 19:16:17.860360  2630 net.cpp:129] Top shape: 100 32 14 14 (627200)
I0929 19:16:17.860363  2630 net.cpp:137] Memory required for data: 723475600
I0929 19:16:17.860364  2630 layer_factory.hpp:77] Creating layer Eltwise16_ReLU33_0_split
I0929 19:16:17.860368  2630 net.cpp:84] Creating Layer Eltwise16_ReLU33_0_split
I0929 19:16:17.860371  2630 net.cpp:406] Eltwise16_ReLU33_0_split <- Eltwise16
I0929 19:16:17.860375  2630 net.cpp:380] Eltwise16_ReLU33_0_split -> Eltwise16_ReLU33_0_split_0
I0929 19:16:17.860386  2630 net.cpp:380] Eltwise16_ReLU33_0_split -> Eltwise16_ReLU33_0_split_1
I0929 19:16:17.860415  2630 net.cpp:122] Setting up Eltwise16_ReLU33_0_split
I0929 19:16:17.860420  2630 net.cpp:129] Top shape: 100 32 14 14 (627200)
I0929 19:16:17.860424  2630 net.cpp:129] Top shape: 100 32 14 14 (627200)
I0929 19:16:17.860425  2630 net.cpp:137] Memory required for data: 728493200
I0929 19:16:17.860427  2630 layer_factory.hpp:77] Creating layer Convolution35
I0929 19:16:17.860435  2630 net.cpp:84] Creating Layer Convolution35
I0929 19:16:17.860438  2630 net.cpp:406] Convolution35 <- Eltwise16_ReLU33_0_split_0
I0929 19:16:17.860442  2630 net.cpp:380] Convolution35 -> Convolution35
I0929 19:16:17.861165  2630 net.cpp:122] Setting up Convolution35
I0929 19:16:17.861173  2630 net.cpp:129] Top shape: 100 32 14 14 (627200)
I0929 19:16:17.861176  2630 net.cpp:137] Memory required for data: 731002000
I0929 19:16:17.861179  2630 layer_factory.hpp:77] Creating layer BatchNorm35
I0929 19:16:17.861184  2630 net.cpp:84] Creating Layer BatchNorm35
I0929 19:16:17.861187  2630 net.cpp:406] BatchNorm35 <- Convolution35
I0929 19:16:17.861191  2630 net.cpp:367] BatchNorm35 -> Convolution35 (in-place)
I0929 19:16:17.861330  2630 net.cpp:122] Setting up BatchNorm35
I0929 19:16:17.861333  2630 net.cpp:129] Top shape: 100 32 14 14 (627200)
I0929 19:16:17.861335  2630 net.cpp:137] Memory required for data: 733510800
I0929 19:16:17.861340  2630 layer_factory.hpp:77] Creating layer Scale35
I0929 19:16:17.861344  2630 net.cpp:84] Creating Layer Scale35
I0929 19:16:17.861346  2630 net.cpp:406] Scale35 <- Convolution35
I0929 19:16:17.861349  2630 net.cpp:367] Scale35 -> Convolution35 (in-place)
I0929 19:16:17.861376  2630 layer_factory.hpp:77] Creating layer Scale35
I0929 19:16:17.861455  2630 net.cpp:122] Setting up Scale35
I0929 19:16:17.861459  2630 net.cpp:129] Top shape: 100 32 14 14 (627200)
I0929 19:16:17.861461  2630 net.cpp:137] Memory required for data: 736019600
I0929 19:16:17.861465  2630 layer_factory.hpp:77] Creating layer ReLU34
I0929 19:16:17.861469  2630 net.cpp:84] Creating Layer ReLU34
I0929 19:16:17.861471  2630 net.cpp:406] ReLU34 <- Convolution35
I0929 19:16:17.861474  2630 net.cpp:367] ReLU34 -> Convolution35 (in-place)
I0929 19:16:17.861907  2630 net.cpp:122] Setting up ReLU34
I0929 19:16:17.861915  2630 net.cpp:129] Top shape: 100 32 14 14 (627200)
I0929 19:16:17.861917  2630 net.cpp:137] Memory required for data: 738528400
I0929 19:16:17.861920  2630 layer_factory.hpp:77] Creating layer Convolution36
I0929 19:16:17.861927  2630 net.cpp:84] Creating Layer Convolution36
I0929 19:16:17.861929  2630 net.cpp:406] Convolution36 <- Convolution35
I0929 19:16:17.861934  2630 net.cpp:380] Convolution36 -> Convolution36
I0929 19:16:17.862985  2630 net.cpp:122] Setting up Convolution36
I0929 19:16:17.862994  2630 net.cpp:129] Top shape: 100 32 14 14 (627200)
I0929 19:16:17.862996  2630 net.cpp:137] Memory required for data: 741037200
I0929 19:16:17.863001  2630 layer_factory.hpp:77] Creating layer BatchNorm36
I0929 19:16:17.863006  2630 net.cpp:84] Creating Layer BatchNorm36
I0929 19:16:17.863009  2630 net.cpp:406] BatchNorm36 <- Convolution36
I0929 19:16:17.863013  2630 net.cpp:367] BatchNorm36 -> Convolution36 (in-place)
I0929 19:16:17.863154  2630 net.cpp:122] Setting up BatchNorm36
I0929 19:16:17.863159  2630 net.cpp:129] Top shape: 100 32 14 14 (627200)
I0929 19:16:17.863162  2630 net.cpp:137] Memory required for data: 743546000
I0929 19:16:17.863167  2630 layer_factory.hpp:77] Creating layer Scale36
I0929 19:16:17.863170  2630 net.cpp:84] Creating Layer Scale36
I0929 19:16:17.863173  2630 net.cpp:406] Scale36 <- Convolution36
I0929 19:16:17.863176  2630 net.cpp:367] Scale36 -> Convolution36 (in-place)
I0929 19:16:17.863203  2630 layer_factory.hpp:77] Creating layer Scale36
I0929 19:16:17.863281  2630 net.cpp:122] Setting up Scale36
I0929 19:16:17.863286  2630 net.cpp:129] Top shape: 100 32 14 14 (627200)
I0929 19:16:17.863287  2630 net.cpp:137] Memory required for data: 746054800
I0929 19:16:17.863291  2630 layer_factory.hpp:77] Creating layer Eltwise17
I0929 19:16:17.863302  2630 net.cpp:84] Creating Layer Eltwise17
I0929 19:16:17.863306  2630 net.cpp:406] Eltwise17 <- Eltwise16_ReLU33_0_split_1
I0929 19:16:17.863308  2630 net.cpp:406] Eltwise17 <- Convolution36
I0929 19:16:17.863312  2630 net.cpp:380] Eltwise17 -> Eltwise17
I0929 19:16:17.863342  2630 net.cpp:122] Setting up Eltwise17
I0929 19:16:17.863348  2630 net.cpp:129] Top shape: 100 32 14 14 (627200)
I0929 19:16:17.863349  2630 net.cpp:137] Memory required for data: 748563600
I0929 19:16:17.863361  2630 layer_factory.hpp:77] Creating layer ReLU35
I0929 19:16:17.863365  2630 net.cpp:84] Creating Layer ReLU35
I0929 19:16:17.863368  2630 net.cpp:406] ReLU35 <- Eltwise17
I0929 19:16:17.863381  2630 net.cpp:367] ReLU35 -> Eltwise17 (in-place)
I0929 19:16:17.863567  2630 net.cpp:122] Setting up ReLU35
I0929 19:16:17.863575  2630 net.cpp:129] Top shape: 100 32 14 14 (627200)
I0929 19:16:17.863577  2630 net.cpp:137] Memory required for data: 751072400
I0929 19:16:17.863579  2630 layer_factory.hpp:77] Creating layer Eltwise17_ReLU35_0_split
I0929 19:16:17.863584  2630 net.cpp:84] Creating Layer Eltwise17_ReLU35_0_split
I0929 19:16:17.863586  2630 net.cpp:406] Eltwise17_ReLU35_0_split <- Eltwise17
I0929 19:16:17.863590  2630 net.cpp:380] Eltwise17_ReLU35_0_split -> Eltwise17_ReLU35_0_split_0
I0929 19:16:17.863595  2630 net.cpp:380] Eltwise17_ReLU35_0_split -> Eltwise17_ReLU35_0_split_1
I0929 19:16:17.863625  2630 net.cpp:122] Setting up Eltwise17_ReLU35_0_split
I0929 19:16:17.863628  2630 net.cpp:129] Top shape: 100 32 14 14 (627200)
I0929 19:16:17.863631  2630 net.cpp:129] Top shape: 100 32 14 14 (627200)
I0929 19:16:17.863633  2630 net.cpp:137] Memory required for data: 756090000
I0929 19:16:17.863636  2630 layer_factory.hpp:77] Creating layer Convolution37
I0929 19:16:17.863642  2630 net.cpp:84] Creating Layer Convolution37
I0929 19:16:17.863646  2630 net.cpp:406] Convolution37 <- Eltwise17_ReLU35_0_split_0
I0929 19:16:17.863651  2630 net.cpp:380] Convolution37 -> Convolution37
I0929 19:16:17.864768  2630 net.cpp:122] Setting up Convolution37
I0929 19:16:17.864778  2630 net.cpp:129] Top shape: 100 32 14 14 (627200)
I0929 19:16:17.864779  2630 net.cpp:137] Memory required for data: 758598800
I0929 19:16:17.864786  2630 layer_factory.hpp:77] Creating layer BatchNorm37
I0929 19:16:17.864791  2630 net.cpp:84] Creating Layer BatchNorm37
I0929 19:16:17.864794  2630 net.cpp:406] BatchNorm37 <- Convolution37
I0929 19:16:17.864799  2630 net.cpp:367] BatchNorm37 -> Convolution37 (in-place)
I0929 19:16:17.864946  2630 net.cpp:122] Setting up BatchNorm37
I0929 19:16:17.864951  2630 net.cpp:129] Top shape: 100 32 14 14 (627200)
I0929 19:16:17.864953  2630 net.cpp:137] Memory required for data: 761107600
I0929 19:16:17.864979  2630 layer_factory.hpp:77] Creating layer Scale37
I0929 19:16:17.864984  2630 net.cpp:84] Creating Layer Scale37
I0929 19:16:17.864987  2630 net.cpp:406] Scale37 <- Convolution37
I0929 19:16:17.864991  2630 net.cpp:367] Scale37 -> Convolution37 (in-place)
I0929 19:16:17.865021  2630 layer_factory.hpp:77] Creating layer Scale37
I0929 19:16:17.865111  2630 net.cpp:122] Setting up Scale37
I0929 19:16:17.865119  2630 net.cpp:129] Top shape: 100 32 14 14 (627200)
I0929 19:16:17.865123  2630 net.cpp:137] Memory required for data: 763616400
I0929 19:16:17.865129  2630 layer_factory.hpp:77] Creating layer ReLU36
I0929 19:16:17.865136  2630 net.cpp:84] Creating Layer ReLU36
I0929 19:16:17.865140  2630 net.cpp:406] ReLU36 <- Convolution37
I0929 19:16:17.865147  2630 net.cpp:367] ReLU36 -> Convolution37 (in-place)
I0929 19:16:17.865289  2630 net.cpp:122] Setting up ReLU36
I0929 19:16:17.865296  2630 net.cpp:129] Top shape: 100 32 14 14 (627200)
I0929 19:16:17.865299  2630 net.cpp:137] Memory required for data: 766125200
I0929 19:16:17.865301  2630 layer_factory.hpp:77] Creating layer Convolution38
I0929 19:16:17.865309  2630 net.cpp:84] Creating Layer Convolution38
I0929 19:16:17.865311  2630 net.cpp:406] Convolution38 <- Convolution37
I0929 19:16:17.865316  2630 net.cpp:380] Convolution38 -> Convolution38
I0929 19:16:17.866655  2630 net.cpp:122] Setting up Convolution38
I0929 19:16:17.866664  2630 net.cpp:129] Top shape: 100 32 14 14 (627200)
I0929 19:16:17.866667  2630 net.cpp:137] Memory required for data: 768634000
I0929 19:16:17.866672  2630 layer_factory.hpp:77] Creating layer BatchNorm38
I0929 19:16:17.866677  2630 net.cpp:84] Creating Layer BatchNorm38
I0929 19:16:17.866680  2630 net.cpp:406] BatchNorm38 <- Convolution38
I0929 19:16:17.866683  2630 net.cpp:367] BatchNorm38 -> Convolution38 (in-place)
I0929 19:16:17.866828  2630 net.cpp:122] Setting up BatchNorm38
I0929 19:16:17.866833  2630 net.cpp:129] Top shape: 100 32 14 14 (627200)
I0929 19:16:17.866835  2630 net.cpp:137] Memory required for data: 771142800
I0929 19:16:17.866840  2630 layer_factory.hpp:77] Creating layer Scale38
I0929 19:16:17.866844  2630 net.cpp:84] Creating Layer Scale38
I0929 19:16:17.866847  2630 net.cpp:406] Scale38 <- Convolution38
I0929 19:16:17.866850  2630 net.cpp:367] Scale38 -> Convolution38 (in-place)
I0929 19:16:17.866878  2630 layer_factory.hpp:77] Creating layer Scale38
I0929 19:16:17.866976  2630 net.cpp:122] Setting up Scale38
I0929 19:16:17.866979  2630 net.cpp:129] Top shape: 100 32 14 14 (627200)
I0929 19:16:17.866981  2630 net.cpp:137] Memory required for data: 773651600
I0929 19:16:17.866986  2630 layer_factory.hpp:77] Creating layer Eltwise18
I0929 19:16:17.866991  2630 net.cpp:84] Creating Layer Eltwise18
I0929 19:16:17.866993  2630 net.cpp:406] Eltwise18 <- Eltwise17_ReLU35_0_split_1
I0929 19:16:17.866997  2630 net.cpp:406] Eltwise18 <- Convolution38
I0929 19:16:17.866999  2630 net.cpp:380] Eltwise18 -> Eltwise18
I0929 19:16:17.867017  2630 net.cpp:122] Setting up Eltwise18
I0929 19:16:17.867022  2630 net.cpp:129] Top shape: 100 32 14 14 (627200)
I0929 19:16:17.867023  2630 net.cpp:137] Memory required for data: 776160400
I0929 19:16:17.867025  2630 layer_factory.hpp:77] Creating layer ReLU37
I0929 19:16:17.867029  2630 net.cpp:84] Creating Layer ReLU37
I0929 19:16:17.867031  2630 net.cpp:406] ReLU37 <- Eltwise18
I0929 19:16:17.867044  2630 net.cpp:367] ReLU37 -> Eltwise18 (in-place)
I0929 19:16:17.867177  2630 net.cpp:122] Setting up ReLU37
I0929 19:16:17.867182  2630 net.cpp:129] Top shape: 100 32 14 14 (627200)
I0929 19:16:17.867185  2630 net.cpp:137] Memory required for data: 778669200
I0929 19:16:17.867187  2630 layer_factory.hpp:77] Creating layer Eltwise18_ReLU37_0_split
I0929 19:16:17.867192  2630 net.cpp:84] Creating Layer Eltwise18_ReLU37_0_split
I0929 19:16:17.867193  2630 net.cpp:406] Eltwise18_ReLU37_0_split <- Eltwise18
I0929 19:16:17.867197  2630 net.cpp:380] Eltwise18_ReLU37_0_split -> Eltwise18_ReLU37_0_split_0
I0929 19:16:17.867202  2630 net.cpp:380] Eltwise18_ReLU37_0_split -> Eltwise18_ReLU37_0_split_1
I0929 19:16:17.867231  2630 net.cpp:122] Setting up Eltwise18_ReLU37_0_split
I0929 19:16:17.867235  2630 net.cpp:129] Top shape: 100 32 14 14 (627200)
I0929 19:16:17.867238  2630 net.cpp:129] Top shape: 100 32 14 14 (627200)
I0929 19:16:17.867240  2630 net.cpp:137] Memory required for data: 783686800
I0929 19:16:17.867242  2630 layer_factory.hpp:77] Creating layer Convolution39
I0929 19:16:17.867250  2630 net.cpp:84] Creating Layer Convolution39
I0929 19:16:17.867254  2630 net.cpp:406] Convolution39 <- Eltwise18_ReLU37_0_split_0
I0929 19:16:17.867257  2630 net.cpp:380] Convolution39 -> Convolution39
I0929 19:16:17.868255  2630 net.cpp:122] Setting up Convolution39
I0929 19:16:17.868264  2630 net.cpp:129] Top shape: 100 64 7 7 (313600)
I0929 19:16:17.868268  2630 net.cpp:137] Memory required for data: 784941200
I0929 19:16:17.868271  2630 layer_factory.hpp:77] Creating layer BatchNorm39
I0929 19:16:17.868278  2630 net.cpp:84] Creating Layer BatchNorm39
I0929 19:16:17.868280  2630 net.cpp:406] BatchNorm39 <- Convolution39
I0929 19:16:17.868284  2630 net.cpp:367] BatchNorm39 -> Convolution39 (in-place)
I0929 19:16:17.868427  2630 net.cpp:122] Setting up BatchNorm39
I0929 19:16:17.868432  2630 net.cpp:129] Top shape: 100 64 7 7 (313600)
I0929 19:16:17.868434  2630 net.cpp:137] Memory required for data: 786195600
I0929 19:16:17.868446  2630 layer_factory.hpp:77] Creating layer Scale39
I0929 19:16:17.868450  2630 net.cpp:84] Creating Layer Scale39
I0929 19:16:17.868453  2630 net.cpp:406] Scale39 <- Convolution39
I0929 19:16:17.868456  2630 net.cpp:367] Scale39 -> Convolution39 (in-place)
I0929 19:16:17.868485  2630 layer_factory.hpp:77] Creating layer Scale39
I0929 19:16:17.868568  2630 net.cpp:122] Setting up Scale39
I0929 19:16:17.868572  2630 net.cpp:129] Top shape: 100 64 7 7 (313600)
I0929 19:16:17.868574  2630 net.cpp:137] Memory required for data: 787450000
I0929 19:16:17.868578  2630 layer_factory.hpp:77] Creating layer Convolution40
I0929 19:16:17.868585  2630 net.cpp:84] Creating Layer Convolution40
I0929 19:16:17.868588  2630 net.cpp:406] Convolution40 <- Eltwise18_ReLU37_0_split_1
I0929 19:16:17.868592  2630 net.cpp:380] Convolution40 -> Convolution40
I0929 19:16:17.870404  2630 net.cpp:122] Setting up Convolution40
I0929 19:16:17.870412  2630 net.cpp:129] Top shape: 100 64 7 7 (313600)
I0929 19:16:17.870415  2630 net.cpp:137] Memory required for data: 788704400
I0929 19:16:17.870420  2630 layer_factory.hpp:77] Creating layer BatchNorm40
I0929 19:16:17.870425  2630 net.cpp:84] Creating Layer BatchNorm40
I0929 19:16:17.870429  2630 net.cpp:406] BatchNorm40 <- Convolution40
I0929 19:16:17.870432  2630 net.cpp:367] BatchNorm40 -> Convolution40 (in-place)
I0929 19:16:17.870611  2630 net.cpp:122] Setting up BatchNorm40
I0929 19:16:17.870616  2630 net.cpp:129] Top shape: 100 64 7 7 (313600)
I0929 19:16:17.870620  2630 net.cpp:137] Memory required for data: 789958800
I0929 19:16:17.870625  2630 layer_factory.hpp:77] Creating layer Scale40
I0929 19:16:17.870628  2630 net.cpp:84] Creating Layer Scale40
I0929 19:16:17.870630  2630 net.cpp:406] Scale40 <- Convolution40
I0929 19:16:17.870633  2630 net.cpp:367] Scale40 -> Convolution40 (in-place)
I0929 19:16:17.870663  2630 layer_factory.hpp:77] Creating layer Scale40
I0929 19:16:17.870745  2630 net.cpp:122] Setting up Scale40
I0929 19:16:17.870749  2630 net.cpp:129] Top shape: 100 64 7 7 (313600)
I0929 19:16:17.870751  2630 net.cpp:137] Memory required for data: 791213200
I0929 19:16:17.870755  2630 layer_factory.hpp:77] Creating layer ReLU38
I0929 19:16:17.870759  2630 net.cpp:84] Creating Layer ReLU38
I0929 19:16:17.870762  2630 net.cpp:406] ReLU38 <- Convolution40
I0929 19:16:17.870764  2630 net.cpp:367] ReLU38 -> Convolution40 (in-place)
I0929 19:16:17.870887  2630 net.cpp:122] Setting up ReLU38
I0929 19:16:17.870893  2630 net.cpp:129] Top shape: 100 64 7 7 (313600)
I0929 19:16:17.870895  2630 net.cpp:137] Memory required for data: 792467600
I0929 19:16:17.870898  2630 layer_factory.hpp:77] Creating layer Convolution41
I0929 19:16:17.870904  2630 net.cpp:84] Creating Layer Convolution41
I0929 19:16:17.870906  2630 net.cpp:406] Convolution41 <- Convolution40
I0929 19:16:17.870911  2630 net.cpp:380] Convolution41 -> Convolution41
I0929 19:16:17.872896  2630 net.cpp:122] Setting up Convolution41
I0929 19:16:17.872905  2630 net.cpp:129] Top shape: 100 64 7 7 (313600)
I0929 19:16:17.872907  2630 net.cpp:137] Memory required for data: 793722000
I0929 19:16:17.872911  2630 layer_factory.hpp:77] Creating layer BatchNorm41
I0929 19:16:17.872917  2630 net.cpp:84] Creating Layer BatchNorm41
I0929 19:16:17.872920  2630 net.cpp:406] BatchNorm41 <- Convolution41
I0929 19:16:17.872923  2630 net.cpp:367] BatchNorm41 -> Convolution41 (in-place)
I0929 19:16:17.873070  2630 net.cpp:122] Setting up BatchNorm41
I0929 19:16:17.873073  2630 net.cpp:129] Top shape: 100 64 7 7 (313600)
I0929 19:16:17.873076  2630 net.cpp:137] Memory required for data: 794976400
I0929 19:16:17.873080  2630 layer_factory.hpp:77] Creating layer Scale41
I0929 19:16:17.873085  2630 net.cpp:84] Creating Layer Scale41
I0929 19:16:17.873087  2630 net.cpp:406] Scale41 <- Convolution41
I0929 19:16:17.873090  2630 net.cpp:367] Scale41 -> Convolution41 (in-place)
I0929 19:16:17.873119  2630 layer_factory.hpp:77] Creating layer Scale41
I0929 19:16:17.873203  2630 net.cpp:122] Setting up Scale41
I0929 19:16:17.873214  2630 net.cpp:129] Top shape: 100 64 7 7 (313600)
I0929 19:16:17.873215  2630 net.cpp:137] Memory required for data: 796230800
I0929 19:16:17.873219  2630 layer_factory.hpp:77] Creating layer Eltwise19
I0929 19:16:17.873224  2630 net.cpp:84] Creating Layer Eltwise19
I0929 19:16:17.873227  2630 net.cpp:406] Eltwise19 <- Convolution39
I0929 19:16:17.873229  2630 net.cpp:406] Eltwise19 <- Convolution41
I0929 19:16:17.873234  2630 net.cpp:380] Eltwise19 -> Eltwise19
I0929 19:16:17.873251  2630 net.cpp:122] Setting up Eltwise19
I0929 19:16:17.873255  2630 net.cpp:129] Top shape: 100 64 7 7 (313600)
I0929 19:16:17.873257  2630 net.cpp:137] Memory required for data: 797485200
I0929 19:16:17.873260  2630 layer_factory.hpp:77] Creating layer ReLU39
I0929 19:16:17.873262  2630 net.cpp:84] Creating Layer ReLU39
I0929 19:16:17.873265  2630 net.cpp:406] ReLU39 <- Eltwise19
I0929 19:16:17.873268  2630 net.cpp:367] ReLU39 -> Eltwise19 (in-place)
I0929 19:16:17.873389  2630 net.cpp:122] Setting up ReLU39
I0929 19:16:17.873394  2630 net.cpp:129] Top shape: 100 64 7 7 (313600)
I0929 19:16:17.873396  2630 net.cpp:137] Memory required for data: 798739600
I0929 19:16:17.873399  2630 layer_factory.hpp:77] Creating layer Eltwise19_ReLU39_0_split
I0929 19:16:17.873404  2630 net.cpp:84] Creating Layer Eltwise19_ReLU39_0_split
I0929 19:16:17.873405  2630 net.cpp:406] Eltwise19_ReLU39_0_split <- Eltwise19
I0929 19:16:17.873409  2630 net.cpp:380] Eltwise19_ReLU39_0_split -> Eltwise19_ReLU39_0_split_0
I0929 19:16:17.873414  2630 net.cpp:380] Eltwise19_ReLU39_0_split -> Eltwise19_ReLU39_0_split_1
I0929 19:16:17.873441  2630 net.cpp:122] Setting up Eltwise19_ReLU39_0_split
I0929 19:16:17.873445  2630 net.cpp:129] Top shape: 100 64 7 7 (313600)
I0929 19:16:17.873448  2630 net.cpp:129] Top shape: 100 64 7 7 (313600)
I0929 19:16:17.873450  2630 net.cpp:137] Memory required for data: 801248400
I0929 19:16:17.873452  2630 layer_factory.hpp:77] Creating layer Convolution42
I0929 19:16:17.873459  2630 net.cpp:84] Creating Layer Convolution42
I0929 19:16:17.873462  2630 net.cpp:406] Convolution42 <- Eltwise19_ReLU39_0_split_0
I0929 19:16:17.873466  2630 net.cpp:380] Convolution42 -> Convolution42
I0929 19:16:17.875129  2630 net.cpp:122] Setting up Convolution42
I0929 19:16:17.875138  2630 net.cpp:129] Top shape: 100 64 7 7 (313600)
I0929 19:16:17.875140  2630 net.cpp:137] Memory required for data: 802502800
I0929 19:16:17.875144  2630 layer_factory.hpp:77] Creating layer BatchNorm42
I0929 19:16:17.875149  2630 net.cpp:84] Creating Layer BatchNorm42
I0929 19:16:17.875152  2630 net.cpp:406] BatchNorm42 <- Convolution42
I0929 19:16:17.875156  2630 net.cpp:367] BatchNorm42 -> Convolution42 (in-place)
I0929 19:16:17.875298  2630 net.cpp:122] Setting up BatchNorm42
I0929 19:16:17.875303  2630 net.cpp:129] Top shape: 100 64 7 7 (313600)
I0929 19:16:17.875305  2630 net.cpp:137] Memory required for data: 803757200
I0929 19:16:17.875310  2630 layer_factory.hpp:77] Creating layer Scale42
I0929 19:16:17.875313  2630 net.cpp:84] Creating Layer Scale42
I0929 19:16:17.875316  2630 net.cpp:406] Scale42 <- Convolution42
I0929 19:16:17.875319  2630 net.cpp:367] Scale42 -> Convolution42 (in-place)
I0929 19:16:17.875347  2630 layer_factory.hpp:77] Creating layer Scale42
I0929 19:16:17.875430  2630 net.cpp:122] Setting up Scale42
I0929 19:16:17.875435  2630 net.cpp:129] Top shape: 100 64 7 7 (313600)
I0929 19:16:17.875437  2630 net.cpp:137] Memory required for data: 805011600
I0929 19:16:17.875442  2630 layer_factory.hpp:77] Creating layer ReLU40
I0929 19:16:17.875445  2630 net.cpp:84] Creating Layer ReLU40
I0929 19:16:17.875448  2630 net.cpp:406] ReLU40 <- Convolution42
I0929 19:16:17.875450  2630 net.cpp:367] ReLU40 -> Convolution42 (in-place)
I0929 19:16:17.875885  2630 net.cpp:122] Setting up ReLU40
I0929 19:16:17.875895  2630 net.cpp:129] Top shape: 100 64 7 7 (313600)
I0929 19:16:17.875896  2630 net.cpp:137] Memory required for data: 806266000
I0929 19:16:17.875900  2630 layer_factory.hpp:77] Creating layer Convolution43
I0929 19:16:17.875906  2630 net.cpp:84] Creating Layer Convolution43
I0929 19:16:17.875916  2630 net.cpp:406] Convolution43 <- Convolution42
I0929 19:16:17.875921  2630 net.cpp:380] Convolution43 -> Convolution43
I0929 19:16:17.877883  2630 net.cpp:122] Setting up Convolution43
I0929 19:16:17.877892  2630 net.cpp:129] Top shape: 100 64 7 7 (313600)
I0929 19:16:17.877893  2630 net.cpp:137] Memory required for data: 807520400
I0929 19:16:17.877898  2630 layer_factory.hpp:77] Creating layer BatchNorm43
I0929 19:16:17.877903  2630 net.cpp:84] Creating Layer BatchNorm43
I0929 19:16:17.877905  2630 net.cpp:406] BatchNorm43 <- Convolution43
I0929 19:16:17.877910  2630 net.cpp:367] BatchNorm43 -> Convolution43 (in-place)
I0929 19:16:17.878057  2630 net.cpp:122] Setting up BatchNorm43
I0929 19:16:17.878062  2630 net.cpp:129] Top shape: 100 64 7 7 (313600)
I0929 19:16:17.878063  2630 net.cpp:137] Memory required for data: 808774800
I0929 19:16:17.878068  2630 layer_factory.hpp:77] Creating layer Scale43
I0929 19:16:17.878072  2630 net.cpp:84] Creating Layer Scale43
I0929 19:16:17.878074  2630 net.cpp:406] Scale43 <- Convolution43
I0929 19:16:17.878078  2630 net.cpp:367] Scale43 -> Convolution43 (in-place)
I0929 19:16:17.878105  2630 layer_factory.hpp:77] Creating layer Scale43
I0929 19:16:17.878190  2630 net.cpp:122] Setting up Scale43
I0929 19:16:17.878196  2630 net.cpp:129] Top shape: 100 64 7 7 (313600)
I0929 19:16:17.878197  2630 net.cpp:137] Memory required for data: 810029200
I0929 19:16:17.878201  2630 layer_factory.hpp:77] Creating layer Eltwise20
I0929 19:16:17.878204  2630 net.cpp:84] Creating Layer Eltwise20
I0929 19:16:17.878207  2630 net.cpp:406] Eltwise20 <- Eltwise19_ReLU39_0_split_1
I0929 19:16:17.878209  2630 net.cpp:406] Eltwise20 <- Convolution43
I0929 19:16:17.878213  2630 net.cpp:380] Eltwise20 -> Eltwise20
I0929 19:16:17.878232  2630 net.cpp:122] Setting up Eltwise20
I0929 19:16:17.878234  2630 net.cpp:129] Top shape: 100 64 7 7 (313600)
I0929 19:16:17.878237  2630 net.cpp:137] Memory required for data: 811283600
I0929 19:16:17.878239  2630 layer_factory.hpp:77] Creating layer ReLU41
I0929 19:16:17.878242  2630 net.cpp:84] Creating Layer ReLU41
I0929 19:16:17.878244  2630 net.cpp:406] ReLU41 <- Eltwise20
I0929 19:16:17.878247  2630 net.cpp:367] ReLU41 -> Eltwise20 (in-place)
I0929 19:16:17.878376  2630 net.cpp:122] Setting up ReLU41
I0929 19:16:17.878381  2630 net.cpp:129] Top shape: 100 64 7 7 (313600)
I0929 19:16:17.878384  2630 net.cpp:137] Memory required for data: 812538000
I0929 19:16:17.878386  2630 layer_factory.hpp:77] Creating layer Eltwise20_ReLU41_0_split
I0929 19:16:17.878391  2630 net.cpp:84] Creating Layer Eltwise20_ReLU41_0_split
I0929 19:16:17.878392  2630 net.cpp:406] Eltwise20_ReLU41_0_split <- Eltwise20
I0929 19:16:17.878396  2630 net.cpp:380] Eltwise20_ReLU41_0_split -> Eltwise20_ReLU41_0_split_0
I0929 19:16:17.878401  2630 net.cpp:380] Eltwise20_ReLU41_0_split -> Eltwise20_ReLU41_0_split_1
I0929 19:16:17.878428  2630 net.cpp:122] Setting up Eltwise20_ReLU41_0_split
I0929 19:16:17.878432  2630 net.cpp:129] Top shape: 100 64 7 7 (313600)
I0929 19:16:17.878435  2630 net.cpp:129] Top shape: 100 64 7 7 (313600)
I0929 19:16:17.878437  2630 net.cpp:137] Memory required for data: 815046800
I0929 19:16:17.878439  2630 layer_factory.hpp:77] Creating layer Convolution44
I0929 19:16:17.878446  2630 net.cpp:84] Creating Layer Convolution44
I0929 19:16:17.878449  2630 net.cpp:406] Convolution44 <- Eltwise20_ReLU41_0_split_0
I0929 19:16:17.878453  2630 net.cpp:380] Convolution44 -> Convolution44
I0929 19:16:17.880141  2630 net.cpp:122] Setting up Convolution44
I0929 19:16:17.880149  2630 net.cpp:129] Top shape: 100 64 7 7 (313600)
I0929 19:16:17.880152  2630 net.cpp:137] Memory required for data: 816301200
I0929 19:16:17.880156  2630 layer_factory.hpp:77] Creating layer BatchNorm44
I0929 19:16:17.880162  2630 net.cpp:84] Creating Layer BatchNorm44
I0929 19:16:17.880164  2630 net.cpp:406] BatchNorm44 <- Convolution44
I0929 19:16:17.880168  2630 net.cpp:367] BatchNorm44 -> Convolution44 (in-place)
I0929 19:16:17.880314  2630 net.cpp:122] Setting up BatchNorm44
I0929 19:16:17.880326  2630 net.cpp:129] Top shape: 100 64 7 7 (313600)
I0929 19:16:17.880327  2630 net.cpp:137] Memory required for data: 817555600
I0929 19:16:17.880332  2630 layer_factory.hpp:77] Creating layer Scale44
I0929 19:16:17.880337  2630 net.cpp:84] Creating Layer Scale44
I0929 19:16:17.880339  2630 net.cpp:406] Scale44 <- Convolution44
I0929 19:16:17.880343  2630 net.cpp:367] Scale44 -> Convolution44 (in-place)
I0929 19:16:17.880373  2630 layer_factory.hpp:77] Creating layer Scale44
I0929 19:16:17.880456  2630 net.cpp:122] Setting up Scale44
I0929 19:16:17.880460  2630 net.cpp:129] Top shape: 100 64 7 7 (313600)
I0929 19:16:17.880462  2630 net.cpp:137] Memory required for data: 818810000
I0929 19:16:17.880466  2630 layer_factory.hpp:77] Creating layer ReLU42
I0929 19:16:17.880471  2630 net.cpp:84] Creating Layer ReLU42
I0929 19:16:17.880473  2630 net.cpp:406] ReLU42 <- Convolution44
I0929 19:16:17.880476  2630 net.cpp:367] ReLU42 -> Convolution44 (in-place)
I0929 19:16:17.880597  2630 net.cpp:122] Setting up ReLU42
I0929 19:16:17.880604  2630 net.cpp:129] Top shape: 100 64 7 7 (313600)
I0929 19:16:17.880605  2630 net.cpp:137] Memory required for data: 820064400
I0929 19:16:17.880607  2630 layer_factory.hpp:77] Creating layer Convolution45
I0929 19:16:17.880614  2630 net.cpp:84] Creating Layer Convolution45
I0929 19:16:17.880617  2630 net.cpp:406] Convolution45 <- Convolution44
I0929 19:16:17.880621  2630 net.cpp:380] Convolution45 -> Convolution45
I0929 19:16:17.882611  2630 net.cpp:122] Setting up Convolution45
I0929 19:16:17.882619  2630 net.cpp:129] Top shape: 100 64 7 7 (313600)
I0929 19:16:17.882622  2630 net.cpp:137] Memory required for data: 821318800
I0929 19:16:17.882627  2630 layer_factory.hpp:77] Creating layer BatchNorm45
I0929 19:16:17.882632  2630 net.cpp:84] Creating Layer BatchNorm45
I0929 19:16:17.882635  2630 net.cpp:406] BatchNorm45 <- Convolution45
I0929 19:16:17.882638  2630 net.cpp:367] BatchNorm45 -> Convolution45 (in-place)
I0929 19:16:17.882788  2630 net.cpp:122] Setting up BatchNorm45
I0929 19:16:17.882792  2630 net.cpp:129] Top shape: 100 64 7 7 (313600)
I0929 19:16:17.882796  2630 net.cpp:137] Memory required for data: 822573200
I0929 19:16:17.882799  2630 layer_factory.hpp:77] Creating layer Scale45
I0929 19:16:17.882804  2630 net.cpp:84] Creating Layer Scale45
I0929 19:16:17.882807  2630 net.cpp:406] Scale45 <- Convolution45
I0929 19:16:17.882809  2630 net.cpp:367] Scale45 -> Convolution45 (in-place)
I0929 19:16:17.882838  2630 layer_factory.hpp:77] Creating layer Scale45
I0929 19:16:17.882920  2630 net.cpp:122] Setting up Scale45
I0929 19:16:17.882925  2630 net.cpp:129] Top shape: 100 64 7 7 (313600)
I0929 19:16:17.882927  2630 net.cpp:137] Memory required for data: 823827600
I0929 19:16:17.882930  2630 layer_factory.hpp:77] Creating layer Eltwise21
I0929 19:16:17.882936  2630 net.cpp:84] Creating Layer Eltwise21
I0929 19:16:17.882939  2630 net.cpp:406] Eltwise21 <- Eltwise20_ReLU41_0_split_1
I0929 19:16:17.882942  2630 net.cpp:406] Eltwise21 <- Convolution45
I0929 19:16:17.882946  2630 net.cpp:380] Eltwise21 -> Eltwise21
I0929 19:16:17.882962  2630 net.cpp:122] Setting up Eltwise21
I0929 19:16:17.882966  2630 net.cpp:129] Top shape: 100 64 7 7 (313600)
I0929 19:16:17.882968  2630 net.cpp:137] Memory required for data: 825082000
I0929 19:16:17.882971  2630 layer_factory.hpp:77] Creating layer ReLU43
I0929 19:16:17.882973  2630 net.cpp:84] Creating Layer ReLU43
I0929 19:16:17.882975  2630 net.cpp:406] ReLU43 <- Eltwise21
I0929 19:16:17.882979  2630 net.cpp:367] ReLU43 -> Eltwise21 (in-place)
…
I0929 19:16:18.212482  2630 net.cpp:380] Convolution40 -> Convolution40
I0929 19:16:18.213853  2630 net.cpp:122] Setting up Convolution40
I0929 19:16:18.213862  2630 net.cpp:129] Top shape: 100 64 8 8 (409600)
I0929 19:16:18.213865  2630 net.cpp:137] Memory required for data: 1030145200
I0929 19:16:18.213870  2630 layer_factory.hpp:77] Creating layer BatchNorm40
I0929 19:16:18.233736  2630 net.cpp:84] Creating Layer BatchNorm40
I0929 19:16:18.233747  2630 net.cpp:406] BatchNorm40 <- Convolution40
I0929 19:16:18.233754  2630 net.cpp:367] BatchNorm40 -> Convolution40 (in-place)
I0929 19:16:18.233940  2630 net.cpp:122] Setting up BatchNorm40
I0929 19:16:18.233947  2630 net.cpp:129] Top shape: 100 64 8 8 (409600)
I0929 19:16:18.233949  2630 net.cpp:137] Memory required for data: 1031783600
I0929 19:16:18.233955  2630 layer_factory.hpp:77] Creating layer Scale40
I0929 19:16:18.233960  2630 net.cpp:84] Creating Layer Scale40
I0929 19:16:18.233963  2630 net.cpp:406] Scale40 <- Convolution40
I0929 19:16:18.233966  2630 net.cpp:367] Scale40 -> Convolution40 (in-place)
I0929 19:16:18.233995  2630 layer_factory.hpp:77] Creating layer Scale40
I0929 19:16:18.234072  2630 net.cpp:122] Setting up Scale40
I0929 19:16:18.234077  2630 net.cpp:129] Top shape: 100 64 8 8 (409600)
I0929 19:16:18.234079  2630 net.cpp:137] Memory required for data: 1033422000
I0929 19:16:18.234083  2630 layer_factory.hpp:77] Creating layer ReLU38
I0929 19:16:18.234087  2630 net.cpp:84] Creating Layer ReLU38
I0929 19:16:18.234091  2630 net.cpp:406] ReLU38 <- Convolution40
I0929 19:16:18.234092  2630 net.cpp:367] ReLU38 -> Convolution40 (in-place)
I0929 19:16:18.234236  2630 net.cpp:122] Setting up ReLU38
I0929 19:16:18.234242  2630 net.cpp:129] Top shape: 100 64 8 8 (409600)
I0929 19:16:18.234244  2630 net.cpp:137] Memory required for data: 1035060400
I0929 19:16:18.234247  2630 layer_factory.hpp:77] Creating layer Convolution41
I0929 19:16:18.234253  2630 net.cpp:84] Creating Layer Convolution41
I0929 19:16:18.234256  2630 net.cpp:406] Convolution41 <- Convolution40
I0929 19:16:18.234261  2630 net.cpp:380] Convolution41 -> Convolution41
I0929 19:16:18.236099  2630 net.cpp:122] Setting up Convolution41
I0929 19:16:18.236107  2630 net.cpp:129] Top shape: 100 64 8 8 (409600)
I0929 19:16:18.236110  2630 net.cpp:137] Memory required for data: 1036698800
I0929 19:16:18.236115  2630 layer_factory.hpp:77] Creating layer BatchNorm41
I0929 19:16:18.236120  2630 net.cpp:84] Creating Layer BatchNorm41
I0929 19:16:18.236124  2630 net.cpp:406] BatchNorm41 <- Convolution41
I0929 19:16:18.236127  2630 net.cpp:367] BatchNorm41 -> Convolution41 (in-place)
I0929 19:16:18.236261  2630 net.cpp:122] Setting up BatchNorm41
I0929 19:16:18.236266  2630 net.cpp:129] Top shape: 100 64 8 8 (409600)
I0929 19:16:18.236268  2630 net.cpp:137] Memory required for data: 1038337200
I0929 19:16:18.236274  2630 layer_factory.hpp:77] Creating layer Scale41
I0929 19:16:18.236277  2630 net.cpp:84] Creating Layer Scale41
I0929 19:16:18.236279  2630 net.cpp:406] Scale41 <- Convolution41
I0929 19:16:18.236282  2630 net.cpp:367] Scale41 -> Convolution41 (in-place)
I0929 19:16:18.236310  2630 layer_factory.hpp:77] Creating layer Scale41
I0929 19:16:18.236383  2630 net.cpp:122] Setting up Scale41
I0929 19:16:18.236387  2630 net.cpp:129] Top shape: 100 64 8 8 (409600)
I0929 19:16:18.236389  2630 net.cpp:137] Memory required for data: 1039975600
I0929 19:16:18.236393  2630 layer_factory.hpp:77] Creating layer Eltwise19
I0929 19:16:18.236398  2630 net.cpp:84] Creating Layer Eltwise19
I0929 19:16:18.236400  2630 net.cpp:406] Eltwise19 <- Convolution39
I0929 19:16:18.236412  2630 net.cpp:406] Eltwise19 <- Convolution41
I0929 19:16:18.236415  2630 net.cpp:380] Eltwise19 -> Eltwise19
I0929 19:16:18.236433  2630 net.cpp:122] Setting up Eltwise19
I0929 19:16:18.236436  2630 net.cpp:129] Top shape: 100 64 8 8 (409600)
I0929 19:16:18.236438  2630 net.cpp:137] Memory required for data: 1041614000
I0929 19:16:18.236440  2630 layer_factory.hpp:77] Creating layer ReLU39
I0929 19:16:18.236443  2630 net.cpp:84] Creating Layer ReLU39
I0929 19:16:18.236446  2630 net.cpp:406] ReLU39 <- Eltwise19
I0929 19:16:18.236449  2630 net.cpp:367] ReLU39 -> Eltwise19 (in-place)
I0929 19:16:18.236582  2630 net.cpp:122] Setting up ReLU39
I0929 19:16:18.236588  2630 net.cpp:129] Top shape: 100 64 8 8 (409600)
I0929 19:16:18.236590  2630 net.cpp:137] Memory required for data: 1043252400
I0929 19:16:18.236593  2630 layer_factory.hpp:77] Creating layer Eltwise19_ReLU39_0_split
I0929 19:16:18.236596  2630 net.cpp:84] Creating Layer Eltwise19_ReLU39_0_split
I0929 19:16:18.236599  2630 net.cpp:406] Eltwise19_ReLU39_0_split <- Eltwise19
I0929 19:16:18.236603  2630 net.cpp:380] Eltwise19_ReLU39_0_split -> Eltwise19_ReLU39_0_split_0
I0929 19:16:18.236608  2630 net.cpp:380] Eltwise19_ReLU39_0_split -> Eltwise19_ReLU39_0_split_1
I0929 19:16:18.236634  2630 net.cpp:122] Setting up Eltwise19_ReLU39_0_split
I0929 19:16:18.236639  2630 net.cpp:129] Top shape: 100 64 8 8 (409600)
I0929 19:16:18.236641  2630 net.cpp:129] Top shape: 100 64 8 8 (409600)
I0929 19:16:18.236644  2630 net.cpp:137] Memory required for data: 1046529200
I0929 19:16:18.236645  2630 layer_factory.hpp:77] Creating layer Convolution42
I0929 19:16:18.236652  2630 net.cpp:84] Creating Layer Convolution42
I0929 19:16:18.236655  2630 net.cpp:406] Convolution42 <- Eltwise19_ReLU39_0_split_0
I0929 19:16:18.236660  2630 net.cpp:380] Convolution42 -> Convolution42
I0929 19:16:18.238389  2630 net.cpp:122] Setting up Convolution42
I0929 19:16:18.238399  2630 net.cpp:129] Top shape: 100 64 8 8 (409600)
I0929 19:16:18.238400  2630 net.cpp:137] Memory required for data: 1048167600
I0929 19:16:18.238405  2630 layer_factory.hpp:77] Creating layer BatchNorm42
I0929 19:16:18.238409  2630 net.cpp:84] Creating Layer BatchNorm42
I0929 19:16:18.238412  2630 net.cpp:406] BatchNorm42 <- Convolution42
I0929 19:16:18.238417  2630 net.cpp:367] BatchNorm42 -> Convolution42 (in-place)
I0929 19:16:18.238554  2630 net.cpp:122] Setting up BatchNorm42
I0929 19:16:18.238559  2630 net.cpp:129] Top shape: 100 64 8 8 (409600)
I0929 19:16:18.238561  2630 net.cpp:137] Memory required for data: 1049806000
I0929 19:16:18.238565  2630 layer_factory.hpp:77] Creating layer Scale42
I0929 19:16:18.238570  2630 net.cpp:84] Creating Layer Scale42
I0929 19:16:18.238572  2630 net.cpp:406] Scale42 <- Convolution42
I0929 19:16:18.238575  2630 net.cpp:367] Scale42 -> Convolution42 (in-place)
I0929 19:16:18.238603  2630 layer_factory.hpp:77] Creating layer Scale42
I0929 19:16:18.238679  2630 net.cpp:122] Setting up Scale42
I0929 19:16:18.238684  2630 net.cpp:129] Top shape: 100 64 8 8 (409600)
I0929 19:16:18.238687  2630 net.cpp:137] Memory required for data: 1051444400
I0929 19:16:18.238690  2630 layer_factory.hpp:77] Creating layer ReLU40
I0929 19:16:18.238693  2630 net.cpp:84] Creating Layer ReLU40
I0929 19:16:18.238696  2630 net.cpp:406] ReLU40 <- Convolution42
I0929 19:16:18.238699  2630 net.cpp:367] ReLU40 -> Convolution42 (in-place)
I0929 19:16:18.238833  2630 net.cpp:122] Setting up ReLU40
I0929 19:16:18.238839  2630 net.cpp:129] Top shape: 100 64 8 8 (409600)
I0929 19:16:18.238842  2630 net.cpp:137] Memory required for data: 1053082800
I0929 19:16:18.238844  2630 layer_factory.hpp:77] Creating layer Convolution43
I0929 19:16:18.238850  2630 net.cpp:84] Creating Layer Convolution43
I0929 19:16:18.238853  2630 net.cpp:406] Convolution43 <- Convolution42
I0929 19:16:18.238858  2630 net.cpp:380] Convolution43 -> Convolution43
I0929 19:16:18.240587  2630 net.cpp:122] Setting up Convolution43
I0929 19:16:18.240595  2630 net.cpp:129] Top shape: 100 64 8 8 (409600)
I0929 19:16:18.240604  2630 net.cpp:137] Memory required for data: 1054721200
I0929 19:16:18.240609  2630 layer_factory.hpp:77] Creating layer BatchNorm43
I0929 19:16:18.240615  2630 net.cpp:84] Creating Layer BatchNorm43
I0929 19:16:18.240618  2630 net.cpp:406] BatchNorm43 <- Convolution43
I0929 19:16:18.240622  2630 net.cpp:367] BatchNorm43 -> Convolution43 (in-place)
I0929 19:16:18.240754  2630 net.cpp:122] Setting up BatchNorm43
I0929 19:16:18.240758  2630 net.cpp:129] Top shape: 100 64 8 8 (409600)
I0929 19:16:18.240761  2630 net.cpp:137] Memory required for data: 1056359600
I0929 19:16:18.240766  2630 layer_factory.hpp:77] Creating layer Scale43
I0929 19:16:18.240770  2630 net.cpp:84] Creating Layer Scale43
I0929 19:16:18.240772  2630 net.cpp:406] Scale43 <- Convolution43
I0929 19:16:18.240775  2630 net.cpp:367] Scale43 -> Convolution43 (in-place)
I0929 19:16:18.240803  2630 layer_factory.hpp:77] Creating layer Scale43
I0929 19:16:18.240876  2630 net.cpp:122] Setting up Scale43
I0929 19:16:18.240880  2630 net.cpp:129] Top shape: 100 64 8 8 (409600)
I0929 19:16:18.240882  2630 net.cpp:137] Memory required for data: 1057998000
I0929 19:16:18.240886  2630 layer_factory.hpp:77] Creating layer Eltwise20
I0929 19:16:18.240890  2630 net.cpp:84] Creating Layer Eltwise20
I0929 19:16:18.240893  2630 net.cpp:406] Eltwise20 <- Eltwise19_ReLU39_0_split_1
I0929 19:16:18.240896  2630 net.cpp:406] Eltwise20 <- Convolution43
I0929 19:16:18.240900  2630 net.cpp:380] Eltwise20 -> Eltwise20
I0929 19:16:18.240916  2630 net.cpp:122] Setting up Eltwise20
I0929 19:16:18.240919  2630 net.cpp:129] Top shape: 100 64 8 8 (409600)
I0929 19:16:18.240921  2630 net.cpp:137] Memory required for data: 1059636400
I0929 19:16:18.240923  2630 layer_factory.hpp:77] Creating layer ReLU41
I0929 19:16:18.240926  2630 net.cpp:84] Creating Layer ReLU41
I0929 19:16:18.240928  2630 net.cpp:406] ReLU41 <- Eltwise20
I0929 19:16:18.240932  2630 net.cpp:367] ReLU41 -> Eltwise20 (in-place)
I0929 19:16:18.241066  2630 net.cpp:122] Setting up ReLU41
I0929 19:16:18.241072  2630 net.cpp:129] Top shape: 100 64 8 8 (409600)
I0929 19:16:18.241075  2630 net.cpp:137] Memory required for data: 1061274800
I0929 19:16:18.241076  2630 layer_factory.hpp:77] Creating layer Eltwise20_ReLU41_0_split
I0929 19:16:18.241080  2630 net.cpp:84] Creating Layer Eltwise20_ReLU41_0_split
I0929 19:16:18.241082  2630 net.cpp:406] Eltwise20_ReLU41_0_split <- Eltwise20
I0929 19:16:18.241086  2630 net.cpp:380] Eltwise20_ReLU41_0_split -> Eltwise20_ReLU41_0_split_0
I0929 19:16:18.241091  2630 net.cpp:380] Eltwise20_ReLU41_0_split -> Eltwise20_ReLU41_0_split_1
I0929 19:16:18.241118  2630 net.cpp:122] Setting up Eltwise20_ReLU41_0_split
I0929 19:16:18.241123  2630 net.cpp:129] Top shape: 100 64 8 8 (409600)
I0929 19:16:18.241125  2630 net.cpp:129] Top shape: 100 64 8 8 (409600)
I0929 19:16:18.241127  2630 net.cpp:137] Memory required for data: 1064551600
I0929 19:16:18.241129  2630 layer_factory.hpp:77] Creating layer Convolution44
I0929 19:16:18.241137  2630 net.cpp:84] Creating Layer Convolution44
I0929 19:16:18.241139  2630 net.cpp:406] Convolution44 <- Eltwise20_ReLU41_0_split_0
I0929 19:16:18.241143  2630 net.cpp:380] Convolution44 -> Convolution44
I0929 19:16:18.243197  2630 net.cpp:122] Setting up Convolution44
I0929 19:16:18.243206  2630 net.cpp:129] Top shape: 100 64 8 8 (409600)
I0929 19:16:18.243208  2630 net.cpp:137] Memory required for data: 1066190000
I0929 19:16:18.243213  2630 layer_factory.hpp:77] Creating layer BatchNorm44
I0929 19:16:18.243218  2630 net.cpp:84] Creating Layer BatchNorm44
I0929 19:16:18.243221  2630 net.cpp:406] BatchNorm44 <- Convolution44
I0929 19:16:18.243225  2630 net.cpp:367] BatchNorm44 -> Convolution44 (in-place)
I0929 19:16:18.243362  2630 net.cpp:122] Setting up BatchNorm44
I0929 19:16:18.243366  2630 net.cpp:129] Top shape: 100 64 8 8 (409600)
I0929 19:16:18.243368  2630 net.cpp:137] Memory required for data: 1067828400
I0929 19:16:18.243373  2630 layer_factory.hpp:77] Creating layer Scale44
I0929 19:16:18.243377  2630 net.cpp:84] Creating Layer Scale44
I0929 19:16:18.243386  2630 net.cpp:406] Scale44 <- Convolution44
I0929 19:16:18.243391  2630 net.cpp:367] Scale44 -> Convolution44 (in-place)
I0929 19:16:18.243418  2630 layer_factory.hpp:77] Creating layer Scale44
I0929 19:16:18.243495  2630 net.cpp:122] Setting up Scale44
I0929 19:16:18.243499  2630 net.cpp:129] Top shape: 100 64 8 8 (409600)
I0929 19:16:18.243501  2630 net.cpp:137] Memory required for data: 1069466800
I0929 19:16:18.243505  2630 layer_factory.hpp:77] Creating layer ReLU42
I0929 19:16:18.243510  2630 net.cpp:84] Creating Layer ReLU42
I0929 19:16:18.243511  2630 net.cpp:406] ReLU42 <- Convolution44
I0929 19:16:18.243515  2630 net.cpp:367] ReLU42 -> Convolution44 (in-place)
I0929 19:16:18.243983  2630 net.cpp:122] Setting up ReLU42
I0929 19:16:18.243991  2630 net.cpp:129] Top shape: 100 64 8 8 (409600)
I0929 19:16:18.243993  2630 net.cpp:137] Memory required for data: 1071105200
I0929 19:16:18.243996  2630 layer_factory.hpp:77] Creating layer Convolution45
I0929 19:16:18.244004  2630 net.cpp:84] Creating Layer Convolution45
I0929 19:16:18.244006  2630 net.cpp:406] Convolution45 <- Convolution44
I0929 19:16:18.244011  2630 net.cpp:380] Convolution45 -> Convolution45
I0929 19:16:18.245400  2630 net.cpp:122] Setting up Convolution45
I0929 19:16:18.245409  2630 net.cpp:129] Top shape: 100 64 8 8 (409600)
I0929 19:16:18.245411  2630 net.cpp:137] Memory required for data: 1072743600
I0929 19:16:18.245415  2630 layer_factory.hpp:77] Creating layer BatchNorm45
I0929 19:16:18.245420  2630 net.cpp:84] Creating Layer BatchNorm45
I0929 19:16:18.245424  2630 net.cpp:406] BatchNorm45 <- Convolution45
I0929 19:16:18.245427  2630 net.cpp:367] BatchNorm45 -> Convolution45 (in-place)
I0929 19:16:18.245563  2630 net.cpp:122] Setting up BatchNorm45
I0929 19:16:18.245566  2630 net.cpp:129] Top shape: 100 64 8 8 (409600)
I0929 19:16:18.245569  2630 net.cpp:137] Memory required for data: 1074382000
I0929 19:16:18.245573  2630 layer_factory.hpp:77] Creating layer Scale45
I0929 19:16:18.245579  2630 net.cpp:84] Creating Layer Scale45
I0929 19:16:18.245581  2630 net.cpp:406] Scale45 <- Convolution45
I0929 19:16:18.245584  2630 net.cpp:367] Scale45 -> Convolution45 (in-place)
I0929 19:16:18.245610  2630 layer_factory.hpp:77] Creating layer Scale45
I0929 19:16:18.245687  2630 net.cpp:122] Setting up Scale45
I0929 19:16:18.245690  2630 net.cpp:129] Top shape: 100 64 8 8 (409600)
I0929 19:16:18.245692  2630 net.cpp:137] Memory required for data: 1076020400
I0929 19:16:18.245697  2630 layer_factory.hpp:77] Creating layer Eltwise21
I0929 19:16:18.245702  2630 net.cpp:84] Creating Layer Eltwise21
I0929 19:16:18.245703  2630 net.cpp:406] Eltwise21 <- Eltwise20_ReLU41_0_split_1
I0929 19:16:18.245707  2630 net.cpp:406] Eltwise21 <- Convolution45
I0929 19:16:18.245710  2630 net.cpp:380] Eltwise21 -> Eltwise21
I0929 19:16:18.245726  2630 net.cpp:122] Setting up Eltwise21
I0929 19:16:18.245730  2630 net.cpp:129] Top shape: 100 64 8 8 (409600)
I0929 19:16:18.245733  2630 net.cpp:137] Memory required for data: 1077658800
I0929 19:16:18.245734  2630 layer_factory.hpp:77] Creating layer ReLU43
I0929 19:16:18.245738  2630 net.cpp:84] Creating Layer ReLU43
I0929 19:16:18.245740  2630 net.cpp:406] ReLU43 <- Eltwise21
I0929 19:16:18.245743  2630 net.cpp:367] ReLU43 -> Eltwise21 (in-place)
I0929 19:16:18.246207  2630 net.cpp:122] Setting up ReLU43
I0929 19:16:18.246215  2630 net.cpp:129] Top shape: 100 64 8 8 (409600)
I0929 19:16:18.246218  2630 net.cpp:137] Memory required for data: 1079297200
I0929 19:16:18.246220  2630 layer_factory.hpp:77] Creating layer Eltwise21_ReLU43_0_split
I0929 19:16:18.246225  2630 net.cpp:84] Creating Layer Eltwise21_ReLU43_0_split
I0929 19:16:18.246228  2630 net.cpp:406] Eltwise21_ReLU43_0_split <- Eltwise21
I0929 19:16:18.246232  2630 net.cpp:380] Eltwise21_ReLU43_0_split -> Eltwise21_ReLU43_0_split_0
I0929 19:16:18.246237  2630 net.cpp:380] Eltwise21_ReLU43_0_split -> Eltwise21_ReLU43_0_split_1
I0929 19:16:18.246265  2630 net.cpp:122] Setting up Eltwise21_ReLU43_0_split
I0929 19:16:18.246270  2630 net.cpp:129] Top shape: 100 64 8 8 (409600)
I0929 19:16:18.246279  2630 net.cpp:129] Top shape: 100 64 8 8 (409600)
I0929 19:16:18.246281  2630 net.cpp:137] Memory required for data: 1082574000
I0929 19:16:18.246284  2630 layer_factory.hpp:77] Creating layer Convolution46
I0929 19:16:18.246291  2630 net.cpp:84] Creating Layer Convolution46
I0929 19:16:18.246294  2630 net.cpp:406] Convolution46 <- Eltwise21_ReLU43_0_split_0
I0929 19:16:18.246299  2630 net.cpp:380] Convolution46 -> Convolution46
I0929 19:16:18.248322  2630 net.cpp:122] Setting up Convolution46
I0929 19:16:18.248330  2630 net.cpp:129] Top shape: 100 64 8 8 (409600)
I0929 19:16:18.248333  2630 net.cpp:137] Memory required for data: 1084212400
I0929 19:16:18.248338  2630 layer_factory.hpp:77] Creating layer BatchNorm46
I0929 19:16:18.261904  2630 net.cpp:84] Creating Layer BatchNorm46
I0929 19:16:18.261914  2630 net.cpp:406] BatchNorm46 <- Convolution46
I0929 19:16:18.261919  2630 net.cpp:367] BatchNorm46 -> Convolution46 (in-place)
I0929 19:16:18.262079  2630 net.cpp:122] Setting up BatchNorm46
I0929 19:16:18.262085  2630 net.cpp:129] Top shape: 100 64 8 8 (409600)
I0929 19:16:18.262089  2630 net.cpp:137] Memory required for data: 1085850800
I0929 19:16:18.262094  2630 layer_factory.hpp:77] Creating layer Scale46
I0929 19:16:18.262099  2630 net.cpp:84] Creating Layer Scale46
I0929 19:16:18.262101  2630 net.cpp:406] Scale46 <- Convolution46
I0929 19:16:18.262104  2630 net.cpp:367] Scale46 -> Convolution46 (in-place)
I0929 19:16:18.262135  2630 layer_factory.hpp:77] Creating layer Scale46
I0929 19:16:18.262221  2630 net.cpp:122] Setting up Scale46
I0929 19:16:18.262228  2630 net.cpp:129] Top shape: 100 64 8 8 (409600)
I0929 19:16:18.262229  2630 net.cpp:137] Memory required for data: 1087489200
I0929 19:16:18.262233  2630 layer_factory.hpp:77] Creating layer ReLU44
I0929 19:16:18.262238  2630 net.cpp:84] Creating Layer ReLU44
I0929 19:16:18.262240  2630 net.cpp:406] ReLU44 <- Convolution46
I0929 19:16:18.262243  2630 net.cpp:367] ReLU44 -> Convolution46 (in-place)
I0929 19:16:18.262395  2630 net.cpp:122] Setting up ReLU44
I0929 19:16:18.262403  2630 net.cpp:129] Top shape: 100 64 8 8 (409600)
I0929 19:16:18.262405  2630 net.cpp:137] Memory required for data: 1089127600
I0929 19:16:18.262408  2630 layer_factory.hpp:77] Creating layer Convolution47
I0929 19:16:18.262415  2630 net.cpp:84] Creating Layer Convolution47
I0929 19:16:18.262418  2630 net.cpp:406] Convolution47 <- Convolution46
I0929 19:16:18.262423  2630 net.cpp:380] Convolution47 -> Convolution47
I0929 19:16:18.264652  2630 net.cpp:122] Setting up Convolution47
I0929 19:16:18.264662  2630 net.cpp:129] Top shape: 100 64 8 8 (409600)
I0929 19:16:18.264664  2630 net.cpp:137] Memory required for data: 1090766000
I0929 19:16:18.264668  2630 layer_factory.hpp:77] Creating layer BatchNorm47
I0929 19:16:18.264674  2630 net.cpp:84] Creating Layer BatchNorm47
I0929 19:16:18.264677  2630 net.cpp:406] BatchNorm47 <- Convolution47
I0929 19:16:18.264681  2630 net.cpp:367] BatchNorm47 -> Convolution47 (in-place)
I0929 19:16:18.264817  2630 net.cpp:122] Setting up BatchNorm47
I0929 19:16:18.264822  2630 net.cpp:129] Top shape: 100 64 8 8 (409600)
I0929 19:16:18.264823  2630 net.cpp:137] Memory required for data: 1092404400
I0929 19:16:18.264828  2630 layer_factory.hpp:77] Creating layer Scale47
I0929 19:16:18.264832  2630 net.cpp:84] Creating Layer Scale47
I0929 19:16:18.264835  2630 net.cpp:406] Scale47 <- Convolution47
I0929 19:16:18.264838  2630 net.cpp:367] Scale47 -> Convolution47 (in-place)
I0929 19:16:18.264865  2630 layer_factory.hpp:77] Creating layer Scale47
I0929 19:16:18.264942  2630 net.cpp:122] Setting up Scale47
I0929 19:16:18.264946  2630 net.cpp:129] Top shape: 100 64 8 8 (409600)
I0929 19:16:18.264948  2630 net.cpp:137] Memory required for data: 1094042800
I0929 19:16:18.264952  2630 layer_factory.hpp:77] Creating layer Eltwise22
I0929 19:16:18.264956  2630 net.cpp:84] Creating Layer Eltwise22
I0929 19:16:18.264960  2630 net.cpp:406] Eltwise22 <- Eltwise21_ReLU43_0_split_1
I0929 19:16:18.264962  2630 net.cpp:406] Eltwise22 <- Convolution47
I0929 19:16:18.264972  2630 net.cpp:380] Eltwise22 -> Eltwise22
I0929 19:16:18.264991  2630 net.cpp:122] Setting up Eltwise22
I0929 19:16:18.264994  2630 net.cpp:129] Top shape: 100 64 8 8 (409600)
I0929 19:16:18.264997  2630 net.cpp:137] Memory required for data: 1095681200
I0929 19:16:18.264998  2630 layer_factory.hpp:77] Creating layer ReLU45
I0929 19:16:18.265002  2630 net.cpp:84] Creating Layer ReLU45
I0929 19:16:18.265004  2630 net.cpp:406] ReLU45 <- Eltwise22
I0929 19:16:18.265007  2630 net.cpp:367] ReLU45 -> Eltwise22 (in-place)
I0929 19:16:18.265142  2630 net.cpp:122] Setting up ReLU45
I0929 19:16:18.265148  2630 net.cpp:129] Top shape: 100 64 8 8 (409600)
I0929 19:16:18.265151  2630 net.cpp:137] Memory required for data: 1097319600
I0929 19:16:18.265153  2630 layer_factory.hpp:77] Creating layer Eltwise22_ReLU45_0_split
I0929 19:16:18.265157  2630 net.cpp:84] Creating Layer Eltwise22_ReLU45_0_split
I0929 19:16:18.265161  2630 net.cpp:406] Eltwise22_ReLU45_0_split <- Eltwise22
I0929 19:16:18.265163  2630 net.cpp:380] Eltwise22_ReLU45_0_split -> Eltwise22_ReLU45_0_split_0
I0929 19:16:18.265168  2630 net.cpp:380] Eltwise22_ReLU45_0_split -> Eltwise22_ReLU45_0_split_1
I0929 19:16:18.265195  2630 net.cpp:122] Setting up Eltwise22_ReLU45_0_split
I0929 19:16:18.265199  2630 net.cpp:129] Top shape: 100 64 8 8 (409600)
I0929 19:16:18.265202  2630 net.cpp:129] Top shape: 100 64 8 8 (409600)
I0929 19:16:18.265204  2630 net.cpp:137] Memory required for data: 1100596400
I0929 19:16:18.265206  2630 layer_factory.hpp:77] Creating layer Convolution48
I0929 19:16:18.265213  2630 net.cpp:84] Creating Layer Convolution48
I0929 19:16:18.265216  2630 net.cpp:406] Convolution48 <- Eltwise22_ReLU45_0_split_0
I0929 19:16:18.265220  2630 net.cpp:380] Convolution48 -> Convolution48
I0929 19:16:18.267370  2630 net.cpp:122] Setting up Convolution48
I0929 19:16:18.267379  2630 net.cpp:129] Top shape: 100 64 8 8 (409600)
I0929 19:16:18.267381  2630 net.cpp:137] Memory required for data: 1102234800
I0929 19:16:18.267386  2630 layer_factory.hpp:77] Creating layer BatchNorm48
I0929 19:16:18.267391  2630 net.cpp:84] Creating Layer BatchNorm48
I0929 19:16:18.267395  2630 net.cpp:406] BatchNorm48 <- Convolution48
I0929 19:16:18.267398  2630 net.cpp:367] BatchNorm48 -> Convolution48 (in-place)
I0929 19:16:18.267535  2630 net.cpp:122] Setting up BatchNorm48
I0929 19:16:18.267539  2630 net.cpp:129] Top shape: 100 64 8 8 (409600)
I0929 19:16:18.267541  2630 net.cpp:137] Memory required for data: 1103873200
I0929 19:16:18.267546  2630 layer_factory.hpp:77] Creating layer Scale48
I0929 19:16:18.267550  2630 net.cpp:84] Creating Layer Scale48
I0929 19:16:18.267552  2630 net.cpp:406] Scale48 <- Convolution48
I0929 19:16:18.267555  2630 net.cpp:367] Scale48 -> Convolution48 (in-place)
I0929 19:16:18.267581  2630 layer_factory.hpp:77] Creating layer Scale48
I0929 19:16:18.267658  2630 net.cpp:122] Setting up Scale48
I0929 19:16:18.267663  2630 net.cpp:129] Top shape: 100 64 8 8 (409600)
I0929 19:16:18.267664  2630 net.cpp:137] Memory required for data: 1105511600
I0929 19:16:18.267668  2630 layer_factory.hpp:77] Creating layer ReLU46
I0929 19:16:18.267671  2630 net.cpp:84] Creating Layer ReLU46
I0929 19:16:18.267673  2630 net.cpp:406] ReLU46 <- Convolution48
I0929 19:16:18.267676  2630 net.cpp:367] ReLU46 -> Convolution48 (in-place)
I0929 19:16:18.267813  2630 net.cpp:122] Setting up ReLU46
I0929 19:16:18.267818  2630 net.cpp:129] Top shape: 100 64 8 8 (409600)
I0929 19:16:18.267820  2630 net.cpp:137] Memory required for data: 1107150000
I0929 19:16:18.267823  2630 layer_factory.hpp:77] Creating layer Convolution49
I0929 19:16:18.267829  2630 net.cpp:84] Creating Layer Convolution49
I0929 19:16:18.267832  2630 net.cpp:406] Convolution49 <- Convolution48
I0929 19:16:18.267838  2630 net.cpp:380] Convolution49 -> Convolution49
I0929 19:16:18.269528  2630 net.cpp:122] Setting up Convolution49
I0929 19:16:18.269537  2630 net.cpp:129] Top shape: 100 64 8 8 (409600)
I0929 19:16:18.269539  2630 net.cpp:137] Memory required for data: 1108788400
I0929 19:16:18.269551  2630 layer_factory.hpp:77] Creating layer BatchNorm49
I0929 19:16:18.269557  2630 net.cpp:84] Creating Layer BatchNorm49
I0929 19:16:18.269560  2630 net.cpp:406] BatchNorm49 <- Convolution49
I0929 19:16:18.269564  2630 net.cpp:367] BatchNorm49 -> Convolution49 (in-place)
I0929 19:16:18.269697  2630 net.cpp:122] Setting up BatchNorm49
I0929 19:16:18.269701  2630 net.cpp:129] Top shape: 100 64 8 8 (409600)
I0929 19:16:18.269703  2630 net.cpp:137] Memory required for data: 1110426800
I0929 19:16:18.269708  2630 layer_factory.hpp:77] Creating layer Scale49
I0929 19:16:18.269712  2630 net.cpp:84] Creating Layer Scale49
I0929 19:16:18.269716  2630 net.cpp:406] Scale49 <- Convolution49
I0929 19:16:18.269721  2630 net.cpp:367] Scale49 -> Convolution49 (in-place)
I0929 19:16:18.269747  2630 layer_factory.hpp:77] Creating layer Scale49
I0929 19:16:18.269821  2630 net.cpp:122] Setting up Scale49
I0929 19:16:18.269825  2630 net.cpp:129] Top shape: 100 64 8 8 (409600)
I0929 19:16:18.269827  2630 net.cpp:137] Memory required for data: 1112065200
I0929 19:16:18.269831  2630 layer_factory.hpp:77] Creating layer Eltwise23
I0929 19:16:18.269835  2630 net.cpp:84] Creating Layer Eltwise23
I0929 19:16:18.269837  2630 net.cpp:406] Eltwise23 <- Eltwise22_ReLU45_0_split_1
I0929 19:16:18.269840  2630 net.cpp:406] Eltwise23 <- Convolution49
I0929 19:16:18.269845  2630 net.cpp:380] Eltwise23 -> Eltwise23
I0929 19:16:18.269860  2630 net.cpp:122] Setting up Eltwise23
I0929 19:16:18.269865  2630 net.cpp:129] Top shape: 100 64 8 8 (409600)
I0929 19:16:18.269866  2630 net.cpp:137] Memory required for data: 1113703600
I0929 19:16:18.269868  2630 layer_factory.hpp:77] Creating layer ReLU47
I0929 19:16:18.269872  2630 net.cpp:84] Creating Layer ReLU47
I0929 19:16:18.269875  2630 net.cpp:406] ReLU47 <- Eltwise23
I0929 19:16:18.269877  2630 net.cpp:367] ReLU47 -> Eltwise23 (in-place)
I0929 19:16:18.270009  2630 net.cpp:122] Setting up ReLU47
I0929 19:16:18.270015  2630 net.cpp:129] Top shape: 100 64 8 8 (409600)
I0929 19:16:18.270016  2630 net.cpp:137] Memory required for data: 1115342000
I0929 19:16:18.270018  2630 layer_factory.hpp:77] Creating layer Eltwise23_ReLU47_0_split
I0929 19:16:18.270022  2630 net.cpp:84] Creating Layer Eltwise23_ReLU47_0_split
I0929 19:16:18.270025  2630 net.cpp:406] Eltwise23_ReLU47_0_split <- Eltwise23
I0929 19:16:18.270028  2630 net.cpp:380] Eltwise23_ReLU47_0_split -> Eltwise23_ReLU47_0_split_0
I0929 19:16:18.270033  2630 net.cpp:380] Eltwise23_ReLU47_0_split -> Eltwise23_ReLU47_0_split_1
I0929 19:16:18.270059  2630 net.cpp:122] Setting up Eltwise23_ReLU47_0_split
I0929 19:16:18.270063  2630 net.cpp:129] Top shape: 100 64 8 8 (409600)
I0929 19:16:18.270066  2630 net.cpp:129] Top shape: 100 64 8 8 (409600)
I0929 19:16:18.270068  2630 net.cpp:137] Memory required for data: 1118618800
I0929 19:16:18.270071  2630 layer_factory.hpp:77] Creating layer Convolution50
I0929 19:16:18.270077  2630 net.cpp:84] Creating Layer Convolution50
I0929 19:16:18.270079  2630 net.cpp:406] Convolution50 <- Eltwise23_ReLU47_0_split_0
I0929 19:16:18.270083  2630 net.cpp:380] Convolution50 -> Convolution50
I0929 19:16:18.272637  2630 net.cpp:122] Setting up Convolution50
I0929 19:16:18.272646  2630 net.cpp:129] Top shape: 100 64 8 8 (409600)
I0929 19:16:18.272650  2630 net.cpp:137] Memory required for data: 1120257200
I0929 19:16:18.272655  2630 layer_factory.hpp:77] Creating layer BatchNorm50
I0929 19:16:18.272660  2630 net.cpp:84] Creating Layer BatchNorm50
I0929 19:16:18.272662  2630 net.cpp:406] BatchNorm50 <- Convolution50
I0929 19:16:18.272666  2630 net.cpp:367] BatchNorm50 -> Convolution50 (in-place)
I0929 19:16:18.272802  2630 net.cpp:122] Setting up BatchNorm50
I0929 19:16:18.272806  2630 net.cpp:129] Top shape: 100 64 8 8 (409600)
I0929 19:16:18.272809  2630 net.cpp:137] Memory required for data: 1121895600
I0929 19:16:18.272814  2630 layer_factory.hpp:77] Creating layer Scale50
I0929 19:16:18.272817  2630 net.cpp:84] Creating Layer Scale50
I0929 19:16:18.272820  2630 net.cpp:406] Scale50 <- Convolution50
I0929 19:16:18.272830  2630 net.cpp:367] Scale50 -> Convolution50 (in-place)
I0929 19:16:18.272858  2630 layer_factory.hpp:77] Creating layer Scale50
I0929 19:16:18.272935  2630 net.cpp:122] Setting up Scale50
I0929 19:16:18.272939  2630 net.cpp:129] Top shape: 100 64 8 8 (409600)
I0929 19:16:18.272943  2630 net.cpp:137] Memory required for data: 1123534000
I0929 19:16:18.272945  2630 layer_factory.hpp:77] Creating layer ReLU48
I0929 19:16:18.272949  2630 net.cpp:84] Creating Layer ReLU48
I0929 19:16:18.272951  2630 net.cpp:406] ReLU48 <- Convolution50
I0929 19:16:18.272955  2630 net.cpp:367] ReLU48 -> Convolution50 (in-place)
I0929 19:16:18.273414  2630 net.cpp:122] Setting up ReLU48
I0929 19:16:18.273422  2630 net.cpp:129] Top shape: 100 64 8 8 (409600)
I0929 19:16:18.273424  2630 net.cpp:137] Memory required for data: 1125172400
I0929 19:16:18.273427  2630 layer_factory.hpp:77] Creating layer Convolution51
I0929 19:16:18.273434  2630 net.cpp:84] Creating Layer Convolution51
I0929 19:16:18.273437  2630 net.cpp:406] Convolution51 <- Convolution50
I0929 19:16:18.273442  2630 net.cpp:380] Convolution51 -> Convolution51
I0929 19:16:18.274821  2630 net.cpp:122] Setting up Convolution51
I0929 19:16:18.274828  2630 net.cpp:129] Top shape: 100 64 8 8 (409600)
I0929 19:16:18.274832  2630 net.cpp:137] Memory required for data: 1126810800
I0929 19:16:18.274835  2630 layer_factory.hpp:77] Creating layer BatchNorm51
I0929 19:16:18.274840  2630 net.cpp:84] Creating Layer BatchNorm51
I0929 19:16:18.274843  2630 net.cpp:406] BatchNorm51 <- Convolution51
I0929 19:16:18.274847  2630 net.cpp:367] BatchNorm51 -> Convolution51 (in-place)
I0929 19:16:18.274979  2630 net.cpp:122] Setting up BatchNorm51
I0929 19:16:18.274983  2630 net.cpp:129] Top shape: 100 64 8 8 (409600)
I0929 19:16:18.274986  2630 net.cpp:137] Memory required for data: 1128449200
I0929 19:16:18.274989  2630 layer_factory.hpp:77] Creating layer Scale51
I0929 19:16:18.274993  2630 net.cpp:84] Creating Layer Scale51
I0929 19:16:18.274996  2630 net.cpp:406] Scale51 <- Convolution51
I0929 19:16:18.274999  2630 net.cpp:367] Scale51 -> Convolution51 (in-place)
I0929 19:16:18.275025  2630 layer_factory.hpp:77] Creating layer Scale51
I0929 19:16:18.275100  2630 net.cpp:122] Setting up Scale51
I0929 19:16:18.275104  2630 net.cpp:129] Top shape: 100 64 8 8 (409600)
I0929 19:16:18.275106  2630 net.cpp:137] Memory required for data: 1130087600
I0929 19:16:18.275110  2630 layer_factory.hpp:77] Creating layer Eltwise24
I0929 19:16:18.275113  2630 net.cpp:84] Creating Layer Eltwise24
I0929 19:16:18.275116  2630 net.cpp:406] Eltwise24 <- Eltwise23_ReLU47_0_split_1
I0929 19:16:18.275120  2630 net.cpp:406] Eltwise24 <- Convolution51
I0929 19:16:18.275122  2630 net.cpp:380] Eltwise24 -> Eltwise24
I0929 19:16:18.275138  2630 net.cpp:122] Setting up Eltwise24
I0929 19:16:18.275141  2630 net.cpp:129] Top shape: 100 64 8 8 (409600)
I0929 19:16:18.275143  2630 net.cpp:137] Memory required for data: 1131726000
I0929 19:16:18.275146  2630 layer_factory.hpp:77] Creating layer ReLU49
I0929 19:16:18.275151  2630 net.cpp:84] Creating Layer ReLU49
I0929 19:16:18.275152  2630 net.cpp:406] ReLU49 <- Eltwise24
I0929 19:16:18.275156  2630 net.cpp:367] ReLU49 -> Eltwise24 (in-place)
I0929 19:16:18.275614  2630 net.cpp:122] Setting up ReLU49
I0929 19:16:18.275621  2630 net.cpp:129] Top shape: 100 64 8 8 (409600)
I0929 19:16:18.275624  2630 net.cpp:137] Memory required for data: 1133364400
I0929 19:16:18.275626  2630 layer_factory.hpp:77] Creating layer Eltwise24_ReLU49_0_split
I0929 19:16:18.275631  2630 net.cpp:84] Creating Layer Eltwise24_ReLU49_0_split
I0929 19:16:18.275635  2630 net.cpp:406] Eltwise24_ReLU49_0_split <- Eltwise24
I0929 19:16:18.275637  2630 net.cpp:380] Eltwise24_ReLU49_0_split -> Eltwise24_ReLU49_0_split_0
I0929 19:16:18.275642  2630 net.cpp:380] Eltwise24_ReLU49_0_split -> Eltwise24_ReLU49_0_split_1
I0929 19:16:18.275681  2630 net.cpp:122] Setting up Eltwise24_ReLU49_0_split
I0929 19:16:18.275686  2630 net.cpp:129] Top shape: 100 64 8 8 (409600)
I0929 19:16:18.275689  2630 net.cpp:129] Top shape: 100 64 8 8 (409600)
I0929 19:16:18.275698  2630 net.cpp:137] Memory required for data: 1136641200
I0929 19:16:18.275701  2630 layer_factory.hpp:77] Creating layer Convolution52
I0929 19:16:18.275707  2630 net.cpp:84] Creating Layer Convolution52
I0929 19:16:18.275710  2630 net.cpp:406] Convolution52 <- Eltwise24_ReLU49_0_split_0
I0929 19:16:18.275714  2630 net.cpp:380] Convolution52 -> Convolution52
I0929 19:16:18.277709  2630 net.cpp:122] Setting up Convolution52
I0929 19:16:18.277717  2630 net.cpp:129] Top shape: 100 64 8 8 (409600)
I0929 19:16:18.277720  2630 net.cpp:137] Memory required for data: 1138279600
I0929 19:16:18.292655  2630 layer_factory.hpp:77] Creating layer BatchNorm52
I0929 19:16:18.292670  2630 net.cpp:84] Creating Layer BatchNorm52
I0929 19:16:18.292675  2630 net.cpp:406] BatchNorm52 <- Convolution52
I0929 19:16:18.292678  2630 net.cpp:367] BatchNorm52 -> Convolution52 (in-place)
I0929 19:16:18.292834  2630 net.cpp:122] Setting up BatchNorm52
I0929 19:16:18.292840  2630 net.cpp:129] Top shape: 100 64 8 8 (409600)
I0929 19:16:18.292842  2630 net.cpp:137] Memory required for data: 1139918000
I0929 19:16:18.292847  2630 layer_factory.hpp:77] Creating layer Scale52
I0929 19:16:18.292853  2630 net.cpp:84] Creating Layer Scale52
I0929 19:16:18.292856  2630 net.cpp:406] Scale52 <- Convolution52
I0929 19:16:18.292860  2630 net.cpp:367] Scale52 -> Convolution52 (in-place)
I0929 19:16:18.292889  2630 layer_factory.hpp:77] Creating layer Scale52
I0929 19:16:18.292973  2630 net.cpp:122] Setting up Scale52
I0929 19:16:18.292979  2630 net.cpp:129] Top shape: 100 64 8 8 (409600)
I0929 19:16:18.292980  2630 net.cpp:137] Memory required for data: 1141556400
I0929 19:16:18.292984  2630 layer_factory.hpp:77] Creating layer ReLU50
I0929 19:16:18.293007  2630 net.cpp:84] Creating Layer ReLU50
I0929 19:16:18.293010  2630 net.cpp:406] ReLU50 <- Convolution52
I0929 19:16:18.293015  2630 net.cpp:367] ReLU50 -> Convolution52 (in-place)
I0929 19:16:18.293170  2630 net.cpp:122] Setting up ReLU50
I0929 19:16:18.293179  2630 net.cpp:129] Top shape: 100 64 8 8 (409600)
I0929 19:16:18.293181  2630 net.cpp:137] Memory required for data: 1143194800
I0929 19:16:18.293184  2630 layer_factory.hpp:77] Creating layer Convolution53
I0929 19:16:18.293191  2630 net.cpp:84] Creating Layer Convolution53
I0929 19:16:18.293195  2630 net.cpp:406] Convolution53 <- Convolution52
I0929 19:16:18.293200  2630 net.cpp:380] Convolution53 -> Convolution53
I0929 19:16:18.295416  2630 net.cpp:122] Setting up Convolution53
I0929 19:16:18.295426  2630 net.cpp:129] Top shape: 100 64 8 8 (409600)
I0929 19:16:18.295428  2630 net.cpp:137] Memory required for data: 1144833200
I0929 19:16:18.295433  2630 layer_factory.hpp:77] Creating layer BatchNorm53
I0929 19:16:18.295439  2630 net.cpp:84] Creating Layer BatchNorm53
I0929 19:16:18.295442  2630 net.cpp:406] BatchNorm53 <- Convolution53
I0929 19:16:18.295447  2630 net.cpp:367] BatchNorm53 -> Convolution53 (in-place)
I0929 19:16:18.295585  2630 net.cpp:122] Setting up BatchNorm53
I0929 19:16:18.295590  2630 net.cpp:129] Top shape: 100 64 8 8 (409600)
I0929 19:16:18.295593  2630 net.cpp:137] Memory required for data: 1146471600
I0929 19:16:18.295598  2630 layer_factory.hpp:77] Creating layer Scale53
I0929 19:16:18.295601  2630 net.cpp:84] Creating Layer Scale53
I0929 19:16:18.295604  2630 net.cpp:406] Scale53 <- Convolution53
I0929 19:16:18.295608  2630 net.cpp:367] Scale53 -> Convolution53 (in-place)
I0929 19:16:18.295635  2630 layer_factory.hpp:77] Creating layer Scale53
I0929 19:16:18.295714  2630 net.cpp:122] Setting up Scale53
I0929 19:16:18.295719  2630 net.cpp:129] Top shape: 100 64 8 8 (409600)
I0929 19:16:18.295722  2630 net.cpp:137] Memory required for data: 1148110000
I0929 19:16:18.295725  2630 layer_factory.hpp:77] Creating layer Eltwise25
I0929 19:16:18.295729  2630 net.cpp:84] Creating Layer Eltwise25
I0929 19:16:18.295732  2630 net.cpp:406] Eltwise25 <- Eltwise24_ReLU49_0_split_1
I0929 19:16:18.295735  2630 net.cpp:406] Eltwise25 <- Convolution53
I0929 19:16:18.295738  2630 net.cpp:380] Eltwise25 -> Eltwise25
I0929 19:16:18.295763  2630 net.cpp:122] Setting up Eltwise25
I0929 19:16:18.295768  2630 net.cpp:129] Top shape: 100 64 8 8 (409600)
I0929 19:16:18.295770  2630 net.cpp:137] Memory required for data: 1149748400
I0929 19:16:18.295773  2630 layer_factory.hpp:77] Creating layer ReLU51
I0929 19:16:18.295776  2630 net.cpp:84] Creating Layer ReLU51
I0929 19:16:18.295779  2630 net.cpp:406] ReLU51 <- Eltwise25
I0929 19:16:18.295783  2630 net.cpp:367] ReLU51 -> Eltwise25 (in-place)
I0929 19:16:18.295922  2630 net.cpp:122] Setting up ReLU51
I0929 19:16:18.295928  2630 net.cpp:129] Top shape: 100 64 8 8 (409600)
I0929 19:16:18.295930  2630 net.cpp:137] Memory required for data: 1151386800
I0929 19:16:18.295933  2630 layer_factory.hpp:77] Creating layer Eltwise25_ReLU51_0_split
I0929 19:16:18.295938  2630 net.cpp:84] Creating Layer Eltwise25_ReLU51_0_split
I0929 19:16:18.295940  2630 net.cpp:406] Eltwise25_ReLU51_0_split <- Eltwise25
I0929 19:16:18.295943  2630 net.cpp:380] Eltwise25_ReLU51_0_split -> Eltwise25_ReLU51_0_split_0
I0929 19:16:18.295948  2630 net.cpp:380] Eltwise25_ReLU51_0_split -> Eltwise25_ReLU51_0_split_1
I0929 19:16:18.295975  2630 net.cpp:122] Setting up Eltwise25_ReLU51_0_split
I0929 19:16:18.295980  2630 net.cpp:129] Top shape: 100 64 8 8 (409600)
I0929 19:16:18.295982  2630 net.cpp:129] Top shape: 100 64 8 8 (409600)
I0929 19:16:18.295984  2630 net.cpp:137] Memory required for data: 1154663600
I0929 19:16:18.295987  2630 layer_factory.hpp:77] Creating layer Convolution54
I0929 19:16:18.295994  2630 net.cpp:84] Creating Layer Convolution54
I0929 19:16:18.295996  2630 net.cpp:406] Convolution54 <- Eltwise25_ReLU51_0_split_0
I0929 19:16:18.296001  2630 net.cpp:380] Convolution54 -> Convolution54
I0929 19:16:18.298125  2630 net.cpp:122] Setting up Convolution54
I0929 19:16:18.298133  2630 net.cpp:129] Top shape: 100 64 8 8 (409600)
I0929 19:16:18.298135  2630 net.cpp:137] Memory required for data: 1156302000
I0929 19:16:18.298141  2630 layer_factory.hpp:77] Creating layer BatchNorm54
I0929 19:16:18.298146  2630 net.cpp:84] Creating Layer BatchNorm54
I0929 19:16:18.298149  2630 net.cpp:406] BatchNorm54 <- Convolution54
I0929 19:16:18.298152  2630 net.cpp:367] BatchNorm54 -> Convolution54 (in-place)
I0929 19:16:18.298298  2630 net.cpp:122] Setting up BatchNorm54
I0929 19:16:18.298303  2630 net.cpp:129] Top shape: 100 64 8 8 (409600)
I0929 19:16:18.298305  2630 net.cpp:137] Memory required for data: 1157940400
I0929 19:16:18.298310  2630 layer_factory.hpp:77] Creating layer Scale54
I0929 19:16:18.298316  2630 net.cpp:84] Creating Layer Scale54
I0929 19:16:18.298317  2630 net.cpp:406] Scale54 <- Convolution54
I0929 19:16:18.298321  2630 net.cpp:367] Scale54 -> Convolution54 (in-place)
I0929 19:16:18.298351  2630 layer_factory.hpp:77] Creating layer Scale54
I0929 19:16:18.298430  2630 net.cpp:122] Setting up Scale54
I0929 19:16:18.298435  2630 net.cpp:129] Top shape: 100 64 8 8 (409600)
I0929 19:16:18.298439  2630 net.cpp:137] Memory required for data: 1159578800
I0929 19:16:18.298442  2630 layer_factory.hpp:77] Creating layer ReLU52
I0929 19:16:18.298445  2630 net.cpp:84] Creating Layer ReLU52
I0929 19:16:18.298449  2630 net.cpp:406] ReLU52 <- Convolution54
I0929 19:16:18.298451  2630 net.cpp:367] ReLU52 -> Convolution54 (in-place)
I0929 19:16:18.298609  2630 net.cpp:122] Setting up ReLU52
I0929 19:16:18.298616  2630 net.cpp:129] Top shape: 100 64 8 8 (409600)
I0929 19:16:18.298619  2630 net.cpp:137] Memory required for data: 1161217200
I0929 19:16:18.298621  2630 layer_factory.hpp:77] Creating layer Convolution55
I0929 19:16:18.298629  2630 net.cpp:84] Creating Layer Convolution55
I0929 19:16:18.298631  2630 net.cpp:406] Convolution55 <- Convolution54
I0929 19:16:18.298636  2630 net.cpp:380] Convolution55 -> Convolution55
I0929 19:16:18.300376  2630 net.cpp:122] Setting up Convolution55
I0929 19:16:18.300385  2630 net.cpp:129] Top shape: 100 64 8 8 (409600)
I0929 19:16:18.300388  2630 net.cpp:137] Memory required for data: 1162855600
I0929 19:16:18.300392  2630 layer_factory.hpp:77] Creating layer BatchNorm55
I0929 19:16:18.300405  2630 net.cpp:84] Creating Layer BatchNorm55
I0929 19:16:18.300407  2630 net.cpp:406] BatchNorm55 <- Convolution55
I0929 19:16:18.300412  2630 net.cpp:367] BatchNorm55 -> Convolution55 (in-place)
I0929 19:16:18.300550  2630 net.cpp:122] Setting up BatchNorm55
I0929 19:16:18.300554  2630 net.cpp:129] Top shape: 100 64 8 8 (409600)
I0929 19:16:18.300557  2630 net.cpp:137] Memory required for data: 1164494000
I0929 19:16:18.300561  2630 layer_factory.hpp:77] Creating layer Scale55
I0929 19:16:18.300565  2630 net.cpp:84] Creating Layer Scale55
I0929 19:16:18.300568  2630 net.cpp:406] Scale55 <- Convolution55
I0929 19:16:18.300572  2630 net.cpp:367] Scale55 -> Convolution55 (in-place)
I0929 19:16:18.300598  2630 layer_factory.hpp:77] Creating layer Scale55
I0929 19:16:18.300675  2630 net.cpp:122] Setting up Scale55
I0929 19:16:18.300679  2630 net.cpp:129] Top shape: 100 64 8 8 (409600)
I0929 19:16:18.300681  2630 net.cpp:137] Memory required for data: 1166132400
I0929 19:16:18.300685  2630 layer_factory.hpp:77] Creating layer Eltwise26
I0929 19:16:18.300689  2630 net.cpp:84] Creating Layer Eltwise26
I0929 19:16:18.300693  2630 net.cpp:406] Eltwise26 <- Eltwise25_ReLU51_0_split_1
I0929 19:16:18.300695  2630 net.cpp:406] Eltwise26 <- Convolution55
I0929 19:16:18.300699  2630 net.cpp:380] Eltwise26 -> Eltwise26
I0929 19:16:18.300714  2630 net.cpp:122] Setting up Eltwise26
I0929 19:16:18.300719  2630 net.cpp:129] Top shape: 100 64 8 8 (409600)
I0929 19:16:18.300720  2630 net.cpp:137] Memory required for data: 1167770800
I0929 19:16:18.300722  2630 layer_factory.hpp:77] Creating layer ReLU53
I0929 19:16:18.300726  2630 net.cpp:84] Creating Layer ReLU53
I0929 19:16:18.300729  2630 net.cpp:406] ReLU53 <- Eltwise26
I0929 19:16:18.300731  2630 net.cpp:367] ReLU53 -> Eltwise26 (in-place)
I0929 19:16:18.301196  2630 net.cpp:122] Setting up ReLU53
I0929 19:16:18.301204  2630 net.cpp:129] Top shape: 100 64 8 8 (409600)
I0929 19:16:18.301208  2630 net.cpp:137] Memory required for data: 1169409200
I0929 19:16:18.301209  2630 layer_factory.hpp:77] Creating layer Eltwise26_ReLU53_0_split
I0929 19:16:18.301214  2630 net.cpp:84] Creating Layer Eltwise26_ReLU53_0_split
I0929 19:16:18.301218  2630 net.cpp:406] Eltwise26_ReLU53_0_split <- Eltwise26
I0929 19:16:18.301221  2630 net.cpp:380] Eltwise26_ReLU53_0_split -> Eltwise26_ReLU53_0_split_0
I0929 19:16:18.301226  2630 net.cpp:380] Eltwise26_ReLU53_0_split -> Eltwise26_ReLU53_0_split_1
I0929 19:16:18.301256  2630 net.cpp:122] Setting up Eltwise26_ReLU53_0_split
I0929 19:16:18.301260  2630 net.cpp:129] Top shape: 100 64 8 8 (409600)
I0929 19:16:18.301264  2630 net.cpp:129] Top shape: 100 64 8 8 (409600)
I0929 19:16:18.301265  2630 net.cpp:137] Memory required for data: 1172686000
I0929 19:16:18.301267  2630 layer_factory.hpp:77] Creating layer Convolution56
I0929 19:16:18.301273  2630 net.cpp:84] Creating Layer Convolution56
I0929 19:16:18.301276  2630 net.cpp:406] Convolution56 <- Eltwise26_ReLU53_0_split_0
I0929 19:16:18.301281  2630 net.cpp:380] Convolution56 -> Convolution56
I0929 19:16:18.303362  2630 net.cpp:122] Setting up Convolution56
I0929 19:16:18.303370  2630 net.cpp:129] Top shape: 100 64 8 8 (409600)
I0929 19:16:18.303373  2630 net.cpp:137] Memory required for data: 1174324400
I0929 19:16:18.303378  2630 layer_factory.hpp:77] Creating layer BatchNorm56
I0929 19:16:18.303383  2630 net.cpp:84] Creating Layer BatchNorm56
I0929 19:16:18.303386  2630 net.cpp:406] BatchNorm56 <- Convolution56
I0929 19:16:18.303390  2630 net.cpp:367] BatchNorm56 -> Convolution56 (in-place)
I0929 19:16:18.303531  2630 net.cpp:122] Setting up BatchNorm56
I0929 19:16:18.303536  2630 net.cpp:129] Top shape: 100 64 8 8 (409600)
I0929 19:16:18.303539  2630 net.cpp:137] Memory required for data: 1175962800
I0929 19:16:18.303544  2630 layer_factory.hpp:77] Creating layer Scale56
I0929 19:16:18.303548  2630 net.cpp:84] Creating Layer Scale56
I0929 19:16:18.303551  2630 net.cpp:406] Scale56 <- Convolution56
I0929 19:16:18.303555  2630 net.cpp:367] Scale56 -> Convolution56 (in-place)
I0929 19:16:18.303591  2630 layer_factory.hpp:77] Creating layer Scale56
I0929 19:16:18.303671  2630 net.cpp:122] Setting up Scale56
I0929 19:16:18.303675  2630 net.cpp:129] Top shape: 100 64 8 8 (409600)
I0929 19:16:18.303678  2630 net.cpp:137] Memory required for data: 1177601200
I0929 19:16:18.303681  2630 layer_factory.hpp:77] Creating layer ReLU54
I0929 19:16:18.303685  2630 net.cpp:84] Creating Layer ReLU54
I0929 19:16:18.303689  2630 net.cpp:406] ReLU54 <- Convolution56
I0929 19:16:18.303691  2630 net.cpp:367] ReLU54 -> Convolution56 (in-place)
I0929 19:16:18.304162  2630 net.cpp:122] Setting up ReLU54
I0929 19:16:18.304170  2630 net.cpp:129] Top shape: 100 64 8 8 (409600)
I0929 19:16:18.304172  2630 net.cpp:137] Memory required for data: 1179239600
I0929 19:16:18.304175  2630 layer_factory.hpp:77] Creating layer Convolution57
I0929 19:16:18.304183  2630 net.cpp:84] Creating Layer Convolution57
I0929 19:16:18.304185  2630 net.cpp:406] Convolution57 <- Convolution56
I0929 19:16:18.304191  2630 net.cpp:380] Convolution57 -> Convolution57
I0929 19:16:18.305614  2630 net.cpp:122] Setting up Convolution57
I0929 19:16:18.305622  2630 net.cpp:129] Top shape: 100 64 8 8 (409600)
I0929 19:16:18.305625  2630 net.cpp:137] Memory required for data: 1180878000
I0929 19:16:18.305629  2630 layer_factory.hpp:77] Creating layer BatchNorm57
I0929 19:16:18.305634  2630 net.cpp:84] Creating Layer BatchNorm57
I0929 19:16:18.305637  2630 net.cpp:406] BatchNorm57 <- Convolution57
I0929 19:16:18.305641  2630 net.cpp:367] BatchNorm57 -> Convolution57 (in-place)
I0929 19:16:18.305779  2630 net.cpp:122] Setting up BatchNorm57
I0929 19:16:18.305783  2630 net.cpp:129] Top shape: 100 64 8 8 (409600)
I0929 19:16:18.305785  2630 net.cpp:137] Memory required for data: 1182516400
I0929 19:16:18.305790  2630 layer_factory.hpp:77] Creating layer Scale57
I0929 19:16:18.305794  2630 net.cpp:84] Creating Layer Scale57
I0929 19:16:18.305797  2630 net.cpp:406] Scale57 <- Convolution57
I0929 19:16:18.305800  2630 net.cpp:367] Scale57 -> Convolution57 (in-place)
I0929 19:16:18.305827  2630 layer_factory.hpp:77] Creating layer Scale57
I0929 19:16:18.305905  2630 net.cpp:122] Setting up Scale57
I0929 19:16:18.305909  2630 net.cpp:129] Top shape: 100 64 8 8 (409600)
I0929 19:16:18.305912  2630 net.cpp:137] Memory required for data: 1184154800
I0929 19:16:18.305915  2630 layer_factory.hpp:77] Creating layer Eltwise27
I0929 19:16:18.305919  2630 net.cpp:84] Creating Layer Eltwise27
I0929 19:16:18.305922  2630 net.cpp:406] Eltwise27 <- Eltwise26_ReLU53_0_split_1
I0929 19:16:18.305925  2630 net.cpp:406] Eltwise27 <- Convolution57
I0929 19:16:18.305929  2630 net.cpp:380] Eltwise27 -> Eltwise27
I0929 19:16:18.305945  2630 net.cpp:122] Setting up Eltwise27
I0929 19:16:18.305949  2630 net.cpp:129] Top shape: 100 64 8 8 (409600)
I0929 19:16:18.305951  2630 net.cpp:137] Memory required for data: 1185793200
I0929 19:16:18.305953  2630 layer_factory.hpp:77] Creating layer ReLU55
I0929 19:16:18.305956  2630 net.cpp:84] Creating Layer ReLU55
I0929 19:16:18.305958  2630 net.cpp:406] ReLU55 <- Eltwise27
I0929 19:16:18.305963  2630 net.cpp:367] ReLU55 -> Eltwise27 (in-place)
I0929 19:16:18.306432  2630 net.cpp:122] Setting up ReLU55
I0929 19:16:18.306440  2630 net.cpp:129] Top shape: 100 64 8 8 (409600)
I0929 19:16:18.306442  2630 net.cpp:137] Memory required for data: 1187431600
I0929 19:16:18.306445  2630 layer_factory.hpp:77] Creating layer Pooling1
I0929 19:16:18.306449  2630 net.cpp:84] Creating Layer Pooling1
I0929 19:16:18.306452  2630 net.cpp:406] Pooling1 <- Eltwise27
I0929 19:16:18.306457  2630 net.cpp:380] Pooling1 -> Pooling1
I0929 19:16:18.306620  2630 net.cpp:122] Setting up Pooling1
I0929 19:16:18.306627  2630 net.cpp:129] Top shape: 100 64 1 1 (6400)
I0929 19:16:18.306629  2630 net.cpp:137] Memory required for data: 1187457200
I0929 19:16:18.306632  2630 layer_factory.hpp:77] Creating layer InnerProduct1
I0929 19:16:18.306638  2630 net.cpp:84] Creating Layer InnerProduct1
I0929 19:16:18.306640  2630 net.cpp:406] InnerProduct1 <- Pooling1
I0929 19:16:18.306644  2630 net.cpp:380] InnerProduct1 -> InnerProduct1
I0929 19:16:18.306759  2630 net.cpp:122] Setting up InnerProduct1
I0929 19:16:18.306766  2630 net.cpp:129] Top shape: 100 10 (1000)
I0929 19:16:18.306767  2630 net.cpp:137] Memory required for data: 1187461200
I0929 19:16:18.306771  2630 layer_factory.hpp:77] Creating layer InnerProduct1_InnerProduct1_0_split
I0929 19:16:18.306776  2630 net.cpp:84] Creating Layer InnerProduct1_InnerProduct1_0_split
I0929 19:16:18.326004  2630 net.cpp:406] InnerProduct1_InnerProduct1_0_split <- InnerProduct1
I0929 19:16:18.326019  2630 net.cpp:380] InnerProduct1_InnerProduct1_0_split -> InnerProduct1_InnerProduct1_0_split_0
I0929 19:16:18.326027  2630 net.cpp:380] InnerProduct1_InnerProduct1_0_split -> InnerProduct1_InnerProduct1_0_split_1
I0929 19:16:18.326083  2630 net.cpp:122] Setting up InnerProduct1_InnerProduct1_0_split
I0929 19:16:18.326090  2630 net.cpp:129] Top shape: 100 10 (1000)
I0929 19:16:18.326095  2630 net.cpp:129] Top shape: 100 10 (1000)
I0929 19:16:18.326098  2630 net.cpp:137] Memory required for data: 1187469200
I0929 19:16:18.326102  2630 layer_factory.hpp:77] Creating layer SoftmaxWithLoss1
I0929 19:16:18.326109  2630 net.cpp:84] Creating Layer SoftmaxWithLoss1
I0929 19:16:18.326114  2630 net.cpp:406] SoftmaxWithLoss1 <- InnerProduct1_InnerProduct1_0_split_0
I0929 19:16:18.326120  2630 net.cpp:406] SoftmaxWithLoss1 <- Data2_Data1_1_split_0
…
