…
I0926 08:53:08.030905  4406 net.cpp:294] The NetState phase (0) differed from the phase (1) specified by a rule in layer Accuracy1
I0926 08:53:08.032083  4406 net.cpp:51] Initializing net from parameters: 
name: "resnet_cifar10"
state {
  phase: TRAIN
  level: 0
  stage: ""
}
layer {
  name: "Data1"
  type: "Data"
  top: "Data1"
  top: "Data2"
  include {
    phase: TRAIN
  }
  transform_param {
    mirror: true
    crop_size: 28
    mean_file: "/home/x306/caffe/xn/PENLU/data/cifar10/mean.binaryproto"
  }
  data_param {
    source: "/home/x306/caffe/xn/PENLU/data/cifar10/cifar10_train_lmdb"
    batch_size: 100
    backend: LMDB
  }
}
layer {
  name: "Convolution1"
  type: "Convolution"
  bottom: "Data1"
  top: "Convolution1"
  param {
    lr_mult: 1
    decay_mult: 1
  }
  param {
    lr_mult: 2
    decay_mult: 0
  }
  convolution_param {
    num_output: 16
    pad: 1
    kernel_size: 3
    stride: 1
    weight_filler {
      type: "gaussian"
      std: 0.118
    }
    bias_filler {
      type: "constant"
      value: 0
    }
  }
}
layer {
  name: "BatchNorm1"
  type: "BatchNorm"
  bottom: "Convolution1"
  top: "Convolution1"
  param {
    lr_mult: 0
    decay_mult: 0
  }
  param {
    lr_mult: 0
    decay_mult: 0
  }
  param {
    lr_mult: 0
    decay_mult: 0
  }
}
layer {
  name: "Scale1"
  type: "Scale"
  bottom: "Convolution1"
  top: "Convolution1"
  scale_param {
    bias_term: true
  }
}
layer {
  name: "penlu1"
  type: "PENLU"
  bottom: "Convolution1"
  top: "Convolution1"
  param {
    lr_mult: 1
    decay_mult: 0
  }
  param {
    lr_mult: 1
    decay_mult: 0
  }
  param {
    lr_mult: 1
    decay_mult: 0
  }
  penlu_param {
    alpha_filler {
      type: "constant"
      value: 2
    }
    beta_filler {
      type: "constant"
      value: 1
    }
    eta_filler {
      type: "constant"
      value: 1
    }
  }
}
layer {
  name: "Convolution2"
  type: "Convolution"
  bottom: "Convolution1"
  top: "Convolution2"
  param {
    lr_mult: 1
    decay_mult: 1
  }
  param {
    lr_mult: 2
    decay_mult: 0
  }
  convolution_param {
    num_output: 16
    pad: 1
    kernel_size: 3
    stride: 1
    weight_filler {
      type: "gaussian"
      std: 0.118
    }
    bias_filler {
      type: "constant"
      value: 0
    }
  }
}
layer {
  name: "BatchNorm2"
  type: "BatchNorm"
  bottom: "Convolution2"
  top: "Convolution2"
  param {
    lr_mult: 0
    decay_mult: 0
  }
  param {
    lr_mult: 0
    decay_mult: 0
  }
  param {
    lr_mult: 0
    decay_mult: 0
  }
}
layer {
  name: "Scale2"
  type: "Scale"
  bottom: "Convolution2"
  top: "Convolution2"
  scale_param {
    bias_term: true
  }
}
layer {
  name: "penlu2"
  type: "PENLU"
  bottom: "Convolution2"
  top: "Convolution2"
  param {
    lr_mult: 1
    decay_mult: 0
  }
  param {
    lr_mult: 1
    decay_mult: 0
  }
  param {
    lr_mult: 1
    decay_mult: 0
  }
  penlu_param {
    alpha_filler {
      type: "constant"
      value: 2
    }
    beta_filler {
      type: "constant"
      value: 1
    }
    eta_filler {
      type: "constant"
      value: 1
    }
  }
}
layer {
  name: "Convolution3"
  type: "Convolution"
  bottom: "Convolution2"
  top: "Convolution3"
  param {
    lr_mult: 1
    decay_mult: 1
  }
  param {
    lr_mult: 2
    decay_mult: 0
  }
  convolution_param {
    num_output: 16
    pad: 1
    kernel_size: 3
    stride: 1
    weight_filler {
      type: "gaussian"
      std: 0.118
    }
    bias_filler {
      type: "constant"
      value: 0
    }
  }
}
layer {
  name: "BatchNorm3"
  type: "BatchNorm"
  bottom: "Convolution3"
  top: "Convolution3"
  param {
    lr_mult: 0
    decay_mult: 0
  }
  param {
    lr_mult: 0
    decay_mult: 0
  }
  param {
    lr_mult: 0
    decay_mult: 0
  }
}
layer {
  name: "Scale3"
  type: "Scale"
  bottom: "Convolution3"
  top: "Convolution3"
  scale_param {
    bias_term: true
  }
}
layer {
  name: "Eltwise1"
  type: "Eltwise"
  bottom: "Convolution1"
  bottom: "Convolution3"
  top: "Eltwise1"
  eltwise_param {
    operation: SUM
  }
}
layer {
  name: "penlu3"
  type: "PENLU"
  bottom: "Eltwise1"
  top: "Eltwise1"
  param {
    lr_mult: 1
    decay_mult: 0
  }
  param {
    lr_mult: 1
    decay_mult: 0
  }
  param {
    lr_mult: 1
    decay_mult: 0
  }
  penlu_param {
    alpha_filler {
      type: "constant"
      value: 2
    }
    beta_filler {
      type: "constant"
      value: 1
    }
    eta_filler {
      type: "constant"
      value: 1
    }
  }
}
layer {
  name: "Convolution4"
  type: "Convolution"
  bottom: "Eltwise1"
  top: "Convolution4"
  param {
    lr_mult: 1
    decay_mult: 1
  }
  param {
    lr_mult: 2
    decay_mult: 0
  }
  convolution_param {
    num_output: 16
    pad: 1
    kernel_size: 3
    stride: 1
    weight_filler {
      type: "gaussian"
      std: 0.118
    }
    bias_filler {
      type: "constant"
      value: 0
    }
  }
}
layer {
  name: "BatchNorm4"
  type: "BatchNorm"
  bottom: "Convolution4"
  top: "Convolution4"
  param {
    lr_mult: 0
    decay_mult: 0
  }
  param {
    lr_mult: 0
    decay_mult: 0
  }
  param {
    lr_mult: 0
    decay_mult: 0
  }
}
layer {
  name: "Scale4"
  type: "Scale"
  bottom: "Convolution4"
  top: "Convolution4"
  scale_param {
    bias_term: true
  }
}
layer {
  name: "penlu4"
  type: "PENLU"
  bottom: "Convolution4"
  top: "Convolution4"
  param {
    lr_mult: 1
    decay_mult: 0
  }
  param {
    lr_mult: 1
    decay_mult: 0
  }
  param {
    lr_mult: 1
    decay_mult: 0
  }
  penlu_param {
    alpha_filler {
      type: "constant"
      value: 2
    }
    beta_filler {
      type: "constant"
      value: 1
    }
    eta_filler {
      type: "constant"
      value: 1
    }
  }
}
layer {
  name: "Convolution5"
  type: "Convolution"
  bottom: "Convolution4"
  top: "Convolution5"
  param {
    lr_mult: 1
    decay_mult: 1
  }
  param {
    lr_mult: 2
    decay_mult: 0
  }
  convolution_param {
    num_output: 16
    pad: 1
    kernel_size: 3
    stride: 1
    weight_filler {
      type: "gaussian"
      std: 0.118
    }
    bias_filler {
      type: "constant"
      value: 0
    }
  }
}
layer {
  name: "BatchNorm5"
  type: "BatchNorm"
  bottom: "Convolution5"
  top: "Convolution5"
  param {
    lr_mult: 0
    decay_mult: 0
  }
  param {
    lr_mult: 0
    decay_mult: 0
  }
  param {
    lr_mult: 0
    decay_mult: 0
  }
}
layer {
  name: "Scale5"
  type: "Scale"
  bottom: "Convolution5"
  top: "Convolution5"
  scale_param {
    bias_term: true
  }
}
layer {
  name: "Eltwise2"
  type: "Eltwise"
  bottom: "Eltwise1"
  bottom: "Convolution5"
  top: "Eltwise2"
  eltwise_param {
    operation: SUM
  }
}
layer {
  name: "penlu5"
  type: "PENLU"
  bottom: "Eltwise2"
  top: "Eltwise2"
  param {
    lr_mult: 1
    decay_mult: 0
  }
  param {
    lr_mult: 1
    decay_mult: 0
  }
  param {
    lr_mult: 1
    decay_mult: 0
  }
  penlu_param {
    alpha_filler {
      type: "constant"
      value: 2
    }
    beta_filler {
      type: "constant"
      value: 1
    }
    eta_filler {
      type: "constant"
      value: 1
    }
  }
}
layer {
  name: "Convolution6"
  type: "Convolution"
  bottom: "Eltwise2"
  top: "Convolution6"
  param {
    lr_mult: 1
    decay_mult: 1
  }
  param {
    lr_mult: 2
    decay_mult: 0
  }
  convolution_param {
    num_output: 16
    pad: 1
    kernel_size: 3
    stride: 1
    weight_filler {
      type: "gaussian"
      std: 0.118
    }
    bias_filler {
      type: "constant"
      value: 0
    }
  }
}
layer {
  name: "BatchNorm6"
  type: "BatchNorm"
  bottom: "Convolution6"
  top: "Convolution6"
  param {
    lr_mult: 0
    decay_mult: 0
  }
  param {
    lr_mult: 0
    decay_mult: 0
  }
  param {
    lr_mult: 0
    decay_mult: 0
  }
}
layer {
  name: "Scale6"
  type: "Scale"
  bottom: "Convolution6"
  top: "Convolution6"
  scale_param {
    bias_term: true
  }
}
layer {
  name: "penlu6"
  type: "PENLU"
  bottom: "Convolution6"
  top: "Convolution6"
  param {
    lr_mult: 1
    decay_mult: 0
  }
  param {
    lr_mult: 1
    decay_mult: 0
  }
  param {
    lr_mult: 1
    decay_mult: 0
  }
  penlu_param {
    alpha_filler {
      type: "constant"
      value: 2
    }
    beta_filler {
      type: "constant"
      value: 1
    }
    eta_filler {
      type: "constant"
      value: 1
    }
  }
}
layer {
  name: "Convolution7"
  type: "Convolution"
  bottom: "Convolution6"
  top: "Convolution7"
  param {
    lr_mult: 1
    decay_mult: 1
  }
  param {
    lr_mult: 2
    decay_mult: 0
  }
  convolution_param {
    num_output: 16
    pad: 1
    kernel_size: 3
    stride: 1
    weight_filler {
      type: "gaussian"
      std: 0.118
    }
    bias_filler {
      type: "constant"
      value: 0
    }
  }
}
layer {
  name: "BatchNorm7"
  type: "BatchNorm"
  bottom: "Convolution7"
  top: "Convolution7"
  param {
    lr_mult: 0
    decay_mult: 0
  }
  param {
    lr_mult: 0
    decay_mult: 0
  }
  param {
    lr_mult: 0
    decay_mult: 0
  }
}
layer {
  name: "Scale7"
  type: "Scale"
  bottom: "Convolution7"
  top: "Convolution7"
  scale_param {
    bias_term: true
  }
}
layer {
  name: "Eltwise3"
  type: "Eltwise"
  bottom: "Eltwise2"
  bottom: "Convolution7"
  top: "Eltwise3"
  eltwise_param {
    operation: SUM
  }
}
layer {
  name: "penlu7"
  type: "PENLU"
  bottom: "Eltwise3"
  top: "Eltwise3"
  param {
    lr_mult: 1
    decay_mult: 0
  }
  param {
    lr_mult: 1
    decay_mult: 0
  }
  param {
    lr_mult: 1
    decay_mult: 0
  }
  penlu_param {
    alpha_filler {
      type: "constant"
      value: 2
    }
    beta_filler {
      type: "constant"
      value: 1
    }
    eta_filler {
      type: "constant"
      value: 1
    }
  }
}
layer {
  name: "Convolution8"
  type: "Convolution"
  bottom: "Eltwise3"
  top: "Convolution8"
  param {
    lr_mult: 1
    decay_mult: 1
  }
  param {
    lr_mult: 2
    decay_mult: 0
  }
  convolution_param {
    num_output: 16
    pad: 1
    kernel_size: 3
    stride: 1
    weight_filler {
      type: "gaussian"
      std: 0.118
    }
    bias_filler {
      type: "constant"
      value: 0
    }
  }
}
layer {
  name: "BatchNorm8"
  type: "BatchNorm"
  bottom: "Convolution8"
  top: "Convolution8"
  param {
    lr_mult: 0
    decay_mult: 0
  }
  param {
    lr_mult: 0
    decay_mult: 0
  }
  param {
    lr_mult: 0
    decay_mult: 0
  }
}
layer {
  name: "Scale8"
  type: "Scale"
  bottom: "Convolution8"
  top: "Convolution8"
  scale_param {
    bias_term: true
  }
}
layer {
  name: "penlu8"
  type: "PENLU"
  bottom: "Convolution8"
  top: "Convolution8"
  param {
    lr_mult: 1
    decay_mult: 0
  }
  param {
    lr_mult: 1
    decay_mult: 0
  }
  param {
    lr_mult: 1
    decay_mult: 0
  }
  penlu_param {
    alpha_filler {
      type: "constant"
      value: 2
    }
    beta_filler {
      type: "constant"
      value: 1
    }
    eta_filler {
      type: "constant"
      value: 1
    }
  }
}
layer {
  name: "Convolution9"
  type: "Convolution"
  bottom: "Convolution8"
  top: "Convolution9"
  param {
    lr_mult: 1
    decay_mult: 1
  }
  param {
    lr_mult: 2
    decay_mult: 0
  }
  convolution_param {
    num_output: 16
    pad: 1
    kernel_size: 3
    stride: 1
    weight_filler {
      type: "gaussian"
      std: 0.118
    }
    bias_filler {
      type: "constant"
      value: 0
    }
  }
}
layer {
  name: "BatchNorm9"
  type: "BatchNorm"
  bottom: "Convolution9"
  top: "Convolution9"
  param {
    lr_mult: 0
    decay_mult: 0
  }
  param {
    lr_mult: 0
    decay_mult: 0
  }
  param {
    lr_mult: 0
    decay_mult: 0
  }
}
layer {
  name: "Scale9"
  type: "Scale"
  bottom: "Convolution9"
  top: "Convolution9"
  scale_param {
    bias_term: true
  }
}
layer {
  name: "Eltwise4"
  type: "Eltwise"
  bottom: "Eltwise3"
  bottom: "Convolution9"
  top: "Eltwise4"
  eltwise_param {
    operation: SUM
  }
}
layer {
  name: "penlu9"
  type: "PENLU"
  bottom: "Eltwise4"
  top: "Eltwise4"
  param {
    lr_mult: 1
    decay_mult: 0
  }
  param {
    lr_mult: 1
    decay_mult: 0
  }
  param {
    lr_mult: 1
    decay_mult: 0
  }
  penlu_param {
    alpha_filler {
      type: "constant"
      value: 2
    }
    beta_filler {
      type: "constant"
      value: 1
    }
    eta_filler {
      type: "constant"
      value: 1
    }
  }
}
layer {
  name: "Convolution10"
  type: "Convolution"
  bottom: "Eltwise4"
  top: "Convolution10"
  param {
    lr_mult: 1
    decay_mult: 1
  }
  param {
    lr_mult: 2
    decay_mult: 0
  }
  convolution_param {
    num_output: 16
    pad: 1
    kernel_size: 3
    stride: 1
    weight_filler {
      type: "gaussian"
      std: 0.118
    }
    bias_filler {
      type: "constant"
      value: 0
    }
  }
}
layer {
  name: "BatchNorm10"
  type: "BatchNorm"
  bottom: "Convolution10"
  top: "Convolution10"
  param {
    lr_mult: 0
    decay_mult: 0
  }
  param {
    lr_mult: 0
    decay_mult: 0
  }
  param {
    lr_mult: 0
    decay_mult: 0
  }
}
layer {
  name: "Scale10"
  type: "Scale"
  bottom: "Convolution10"
  top: "Convolution10"
  scale_param {
    bias_term: true
  }
}
layer {
  name: "penlu10"
  type: "PENLU"
  bottom: "Convolution10"
  top: "Convolution10"
  param {
    lr_mult: 1
    decay_mult: 0
  }
  param {
    lr_mult: 1
    decay_mult: 0
  }
  param {
    lr_mult: 1
    decay_mult: 0
  }
  penlu_param {
    alpha_filler {
      type: "constant"
      value: 2
    }
    beta_filler {
      type: "constant"
      value: 1
    }
    eta_filler {
      type: "constant"
      value: 1
    }
  }
}
layer {
  name: "Convolution11"
  type: "Convolution"
  bottom: "Convolution10"
  top: "Convolution11"
  param {
    lr_mult: 1
    decay_mult: 1
  }
  param {
    lr_mult: 2
    decay_mult: 0
  }
  convolution_param {
    num_output: 16
    pad: 1
    kernel_size: 3
    stride: 1
    weight_filler {
      type: "gaussian"
      std: 0.118
    }
    bias_filler {
      type: "constant"
      value: 0
    }
  }
}
layer {
  name: "BatchNorm11"
  type: "BatchNorm"
  bottom: "Convolution11"
  top: "Convolution11"
  param {
    lr_mult: 0
    decay_mult: 0
  }
  param {
    lr_mult: 0
    decay_mult: 0
  }
  param {
    lr_mult: 0
    decay_mult: 0
  }
}
layer {
  name: "Scale11"
  type: "Scale"
  bottom: "Convolution11"
  top: "Convolution11"
  scale_param {
    bias_term: true
  }
}
layer {
  name: "Eltwise5"
  type: "Eltwise"
  bottom: "Eltwise4"
  bottom: "Convolution11"
  top: "Eltwise5"
  eltwise_param {
    operation: SUM
  }
}
layer {
  name: "penlu11"
  type: "PENLU"
  bottom: "Eltwise5"
  top: "Eltwise5"
  param {
    lr_mult: 1
    decay_mult: 0
  }
  param {
    lr_mult: 1
    decay_mult: 0
  }
  param {
    lr_mult: 1
    decay_mult: 0
  }
  penlu_param {
    alpha_filler {
      type: "constant"
      value: 2
    }
    beta_filler {
      type: "constant"
      value: 1
    }
    eta_filler {
      type: "constant"
      value: 1
    }
  }
}
layer {
  name: "Convolution12"
  type: "Convolution"
  bottom: "Eltwise5"
  top: "Convolution12"
  param {
    lr_mult: 1
    decay_mult: 1
  }
  param {
    lr_mult: 2
    decay_mult: 0
  }
  convolution_param {
    num_output: 16
    pad: 1
    kernel_size: 3
    stride: 1
    weight_filler {
      type: "gaussian"
      std: 0.118
    }
    bias_filler {
      type: "constant"
      value: 0
    }
  }
}
layer {
  name: "BatchNorm12"
  type: "BatchNorm"
  bottom: "Convolution12"
  top: "Convolution12"
  param {
    lr_mult: 0
    decay_mult: 0
  }
  param {
    lr_mult: 0
    decay_mult: 0
  }
  param {
    lr_mult: 0
    decay_mult: 0
  }
}
layer {
  name: "Scale12"
  type: "Scale"
  bottom: "Convolution12"
  top: "Convolution12"
  scale_param {
    bias_term: true
  }
}
layer {
  name: "penlu12"
  type: "PENLU"
  bottom: "Convolution12"
  top: "Convolution12"
  param {
    lr_mult: 1
    decay_mult: 0
  }
  param {
    lr_mult: 1
    decay_mult: 0
  }
  param {
    lr_mult: 1
    decay_mult: 0
  }
  penlu_param {
    alpha_filler {
      type: "constant"
      value: 2
    }
    beta_filler {
      type: "constant"
      value: 1
    }
    eta_filler {
      type: "constant"
      value: 1
    }
  }
}
layer {
  name: "Convolution13"
  type: "Convolution"
  bottom: "Convolution12"
  top: "Convolution13"
  param {
    lr_mult: 1
    decay_mult: 1
  }
  param {
    lr_mult: 2
    decay_mult: 0
  }
  convolution_param {
    num_output: 16
    pad: 1
    kernel_size: 3
    stride: 1
    weight_filler {
      type: "gaussian"
      std: 0.118
    }
    bias_filler {
      type: "constant"
      value: 0
    }
  }
}
layer {
  name: "BatchNorm13"
  type: "BatchNorm"
  bottom: "Convolution13"
  top: "Convolution13"
  param {
    lr_mult: 0
    decay_mult: 0
  }
  param {
    lr_mult: 0
    decay_mult: 0
  }
  param {
    lr_mult: 0
    decay_mult: 0
  }
}
layer {
  name: "Scale13"
  type: "Scale"
  bottom: "Convolution13"
  top: "Convolution13"
  scale_param {
    bias_term: true
  }
}
layer {
  name: "Eltwise6"
  type: "Eltwise"
  bottom: "Eltwise5"
  bottom: "Convolution13"
  top: "Eltwise6"
  eltwise_param {
    operation: SUM
  }
}
layer {
  name: "penlu13"
  type: "PENLU"
  bottom: "Eltwise6"
  top: "Eltwise6"
  param {
    lr_mult: 1
    decay_mult: 0
  }
  param {
    lr_mult: 1
    decay_mult: 0
  }
  param {
    lr_mult: 1
    decay_mult: 0
  }
  penlu_param {
    alpha_filler {
      type: "constant"
      value: 2
    }
    beta_filler {
      type: "constant"
      value: 1
    }
    eta_filler {
      type: "constant"
      value: 1
    }
  }
}
layer {
  name: "Convolution14"
  type: "Convolution"
  bottom: "Eltwise6"
  top: "Convolution14"
  param {
    lr_mult: 1
    decay_mult: 1
  }
  param {
    lr_mult: 2
    decay_mult: 0
  }
  convolution_param {
    num_output: 16
    pad: 1
    kernel_size: 3
    stride: 1
    weight_filler {
      type: "gaussian"
      std: 0.118
    }
    bias_filler {
      type: "constant"
      value: 0
    }
  }
}
layer {
  name: "BatchNorm14"
  type: "BatchNorm"
  bottom: "Convolution14"
  top: "Convolution14"
  param {
    lr_mult: 0
    decay_mult: 0
  }
  param {
    lr_mult: 0
    decay_mult: 0
  }
  param {
    lr_mult: 0
    decay_mult: 0
  }
}
layer {
  name: "Scale14"
  type: "Scale"
  bottom: "Convolution14"
  top: "Convolution14"
  scale_param {
    bias_term: true
  }
}
layer {
  name: "penlu14"
  type: "PENLU"
  bottom: "Convolution14"
  top: "Convolution14"
  param {
    lr_mult: 1
    decay_mult: 0
  }
  param {
    lr_mult: 1
    decay_mult: 0
  }
  param {
    lr_mult: 1
    decay_mult: 0
  }
  penlu_param {
    alpha_filler {
      type: "constant"
      value: 2
    }
    beta_filler {
      type: "constant"
      value: 1
    }
    eta_filler {
      type: "constant"
      value: 1
    }
  }
}
layer {
  name: "Convolution15"
  type: "Convolution"
  bottom: "Convolution14"
  top: "Convolution15"
  param {
    lr_mult: 1
    decay_mult: 1
  }
  param {
    lr_mult: 2
    decay_mult: 0
  }
  convolution_param {
    num_output: 16
    pad: 1
    kernel_size: 3
    stride: 1
    weight_filler {
      type: "gaussian"
      std: 0.118
    }
    bias_filler {
      type: "constant"
      value: 0
    }
  }
}
layer {
  name: "BatchNorm15"
  type: "BatchNorm"
  bottom: "Convolution15"
  top: "Convolution15"
  param {
    lr_mult: 0
    decay_mult: 0
  }
  param {
    lr_mult: 0
    decay_mult: 0
  }
  param {
    lr_mult: 0
    decay_mult: 0
  }
}
layer {
  name: "Scale15"
  type: "Scale"
  bottom: "Convolution15"
  top: "Convolution15"
  scale_param {
    bias_term: true
  }
}
layer {
  name: "Eltwise7"
  type: "Eltwise"
  bottom: "Eltwise6"
  bottom: "Convolution15"
  top: "Eltwise7"
  eltwise_param {
    operation: SUM
  }
}
layer {
  name: "penlu15"
  type: "PENLU"
  bottom: "Eltwise7"
  top: "Eltwise7"
  param {
    lr_mult: 1
    decay_mult: 0
  }
  param {
    lr_mult: 1
    decay_mult: 0
  }
  param {
    lr_mult: 1
    decay_mult: 0
  }
  penlu_param {
    alpha_filler {
      type: "constant"
      value: 2
    }
    beta_filler {
      type: "constant"
      value: 1
    }
    eta_filler {
      type: "constant"
      value: 1
    }
  }
}
layer {
  name: "Convolution16"
  type: "Convolution"
  bottom: "Eltwise7"
  top: "Convolution16"
  param {
    lr_mult: 1
    decay_mult: 1
  }
  param {
    lr_mult: 2
    decay_mult: 0
  }
  convolution_param {
    num_output: 16
    pad: 1
    kernel_size: 3
    stride: 1
    weight_filler {
      type: "gaussian"
      std: 0.118
    }
    bias_filler {
      type: "constant"
      value: 0
    }
  }
}
layer {
  name: "BatchNorm16"
  type: "BatchNorm"
  bottom: "Convolution16"
  top: "Convolution16"
  param {
    lr_mult: 0
    decay_mult: 0
  }
  param {
    lr_mult: 0
    decay_mult: 0
  }
  param {
    lr_mult: 0
    decay_mult: 0
  }
}
layer {
  name: "Scale16"
  type: "Scale"
  bottom: "Convolution16"
  top: "Convolution16"
  scale_param {
    bias_term: true
  }
}
layer {
  name: "penlu16"
  type: "PENLU"
  bottom: "Convolution16"
  top: "Convolution16"
  param {
    lr_mult: 1
    decay_mult: 0
  }
  param {
    lr_mult: 1
    decay_mult: 0
  }
  param {
    lr_mult: 1
    decay_mult: 0
  }
  penlu_param {
    alpha_filler {
      type: "constant"
      value: 2
    }
    beta_filler {
      type: "constant"
      value: 1
    }
    eta_filler {
      type: "constant"
      value: 1
    }
  }
}
layer {
  name: "Convolution17"
  type: "Convolution"
  bottom: "Convolution16"
  top: "Convolution17"
  param {
    lr_mult: 1
    decay_mult: 1
  }
  param {
    lr_mult: 2
    decay_mult: 0
  }
  convolution_param {
    num_output: 16
    pad: 1
    kernel_size: 3
    stride: 1
    weight_filler {
      type: "gaussian"
      std: 0.118
    }
    bias_filler {
      type: "constant"
      value: 0
    }
  }
}
layer {
  name: "BatchNorm17"
  type: "BatchNorm"
  bottom: "Convolution17"
  top: "Convolution17"
  param {
    lr_mult: 0
    decay_mult: 0
  }
  param {
    lr_mult: 0
    decay_mult: 0
  }
  param {
    lr_mult: 0
    decay_mult: 0
  }
}
layer {
  name: "Scale17"
  type: "Scale"
  bottom: "Convolution17"
  top: "Convolution17"
  scale_param {
    bias_term: true
  }
}
layer {
  name: "Eltwise8"
  type: "Eltwise"
  bottom: "Eltwise7"
  bottom: "Convolution17"
  top: "Eltwise8"
  eltwise_param {
    operation: SUM
  }
}
layer {
  name: "penlu17"
  type: "PENLU"
  bottom: "Eltwise8"
  top: "Eltwise8"
  param {
    lr_mult: 1
    decay_mult: 0
  }
  param {
    lr_mult: 1
    decay_mult: 0
  }
  param {
    lr_mult: 1
    decay_mult: 0
  }
  penlu_param {
    alpha_filler {
      type: "constant"
      value: 2
    }
    beta_filler {
      type: "constant"
      value: 1
    }
    eta_filler {
      type: "constant"
      value: 1
    }
  }
}
layer {
  name: "Convolution18"
  type: "Convolution"
  bottom: "Eltwise8"
  top: "Convolution18"
  param {
    lr_mult: 1
    decay_mult: 1
  }
  param {
    lr_mult: 2
    decay_mult: 0
  }
  convolution_param {
    num_output: 16
    pad: 1
    kernel_size: 3
    stride: 1
    weight_filler {
      type: "gaussian"
      std: 0.118
    }
    bias_filler {
      type: "constant"
      value: 0
    }
  }
}
layer {
  name: "BatchNorm18"
  type: "BatchNorm"
  bottom: "Convolution18"
  top: "Convolution18"
  param {
    lr_mult: 0
    decay_mult: 0
  }
  param {
    lr_mult: 0
    decay_mult: 0
  }
  param {
    lr_mult: 0
    decay_mult: 0
  }
}
layer {
  name: "Scale18"
  type: "Scale"
  bottom: "Convolution18"
  top: "Convolution18"
  scale_param {
    bias_term: true
  }
}
layer {
  name: "penlu18"
  type: "PENLU"
  bottom: "Convolution18"
  top: "Convolution18"
  param {
    lr_mult: 1
    decay_mult: 0
  }
  param {
    lr_mult: 1
    decay_mult: 0
  }
  param {
    lr_mult: 1
    decay_mult: 0
  }
  penlu_param {
    alpha_filler {
      type: "constant"
      value: 2
    }
    beta_filler {
      type: "constant"
      value: 1
    }
    eta_filler {
      type: "constant"
      value: 1
    }
  }
}
layer {
  name: "Convolution19"
  type: "Convolution"
  bottom: "Convolution18"
  top: "Convolution19"
  param {
    lr_mult: 1
    decay_mult: 1
  }
  param {
    lr_mult: 2
    decay_mult: 0
  }
  convolution_param {
    num_output: 16
    pad: 1
    kernel_size: 3
    stride: 1
    weight_filler {
      type: "gaussian"
      std: 0.118
    }
    bias_filler {
      type: "constant"
      value: 0
    }
  }
}
layer {
  name: "BatchNorm19"
  type: "BatchNorm"
  bottom: "Convolution19"
  top: "Convolution19"
  param {
    lr_mult: 0
    decay_mult: 0
  }
  param {
    lr_mult: 0
    decay_mult: 0
  }
  param {
    lr_mult: 0
    decay_mult: 0
  }
}
layer {
  name: "Scale19"
  type: "Scale"
  bottom: "Convolution19"
  top: "Convolution19"
  scale_param {
    bias_term: true
  }
}
layer {
  name: "Eltwise9"
  type: "Eltwise"
  bottom: "Eltwise8"
  bottom: "Convolution19"
  top: "Eltwise9"
  eltwise_param {
    operation: SUM
  }
}
layer {
  name: "penlu19"
  type: "PENLU"
  bottom: "Eltwise9"
  top: "Eltwise9"
  param {
    lr_mult: 1
    decay_mult: 0
  }
  param {
    lr_mult: 1
    decay_mult: 0
  }
  param {
    lr_mult: 1
    decay_mult: 0
  }
  penlu_param {
    alpha_filler {
      type: "constant"
      value: 2
    }
    beta_filler {
      type: "constant"
      value: 1
    }
    eta_filler {
      type: "constant"
      value: 1
    }
  }
}
layer {
  name: "Convolution20"
  type: "Convolution"
  bottom: "Eltwise9"
  top: "Convolution20"
  param {
    lr_mult: 1
    decay_mult: 1
  }
  param {
    lr_mult: 2
    decay_mult: 0
  }
  convolution_param {
    num_output: 32
    pad: 0
    kernel_size: 1
    stride: 2
    weight_filler {
      type: "gaussian"
      std: 0.25
    }
    bias_filler {
      type: "constant"
      value: 0
    }
  }
}
layer {
  name: "BatchNorm20"
  type: "BatchNorm"
  bottom: "Convolution20"
  top: "Convolution20"
  param {
    lr_mult: 0
    decay_mult: 0
  }
  param {
    lr_mult: 0
    decay_mult: 0
  }
  param {
    lr_mult: 0
    decay_mult: 0
  }
}
layer {
  name: "Scale20"
  type: "Scale"
  bottom: "Convolution20"
  top: "Convolution20"
  scale_param {
    bias_term: true
  }
}
layer {
  name: "Convolution21"
  type: "Convolution"
  bottom: "Eltwise9"
  top: "Convolution21"
  param {
    lr_mult: 1
    decay_mult: 1
  }
  param {
    lr_mult: 2
    decay_mult: 0
  }
  convolution_param {
    num_output: 32
    pad: 1
    kernel_size: 3
    stride: 2
    weight_filler {
      type: "gaussian"
      std: 0.083
    }
    bias_filler {
      type: "constant"
      value: 0
    }
  }
}
layer {
  name: "BatchNorm21"
  type: "BatchNorm"
  bottom: "Convolution21"
  top: "Convolution21"
  param {
    lr_mult: 0
    decay_mult: 0
  }
  param {
    lr_mult: 0
    decay_mult: 0
  }
  param {
    lr_mult: 0
    decay_mult: 0
  }
}
layer {
  name: "Scale21"
  type: "Scale"
  bottom: "Convolution21"
  top: "Convolution21"
  scale_param {
    bias_term: true
  }
}
layer {
  name: "penlu20"
  type: "PENLU"
  bottom: "Convolution21"
  top: "Convolution21"
  param {
    lr_mult: 1
    decay_mult: 0
  }
  param {
    lr_mult: 1
    decay_mult: 0
  }
  param {
    lr_mult: 1
    decay_mult: 0
  }
  penlu_param {
    alpha_filler {
      type: "constant"
      value: 2
    }
    beta_filler {
      type: "constant"
      value: 1
    }
    eta_filler {
      type: "constant"
      value: 1
    }
  }
}
layer {
  name: "Convolution22"
  type: "Convolution"
  bottom: "Convolution21"
  top: "Convolution22"
  param {
    lr_mult: 1
    decay_mult: 1
  }
  param {
    lr_mult: 2
    decay_mult: 0
  }
  convolution_param {
    num_output: 32
    pad: 1
    kernel_size: 3
    stride: 1
    weight_filler {
      type: "gaussian"
      std: 0.083
    }
    bias_filler {
      type: "constant"
      value: 0
    }
  }
}
layer {
  name: "BatchNorm22"
  type: "BatchNorm"
  bottom: "Convolution22"
  top: "Convolution22"
  param {
    lr_mult: 0
    decay_mult: 0
  }
  param {
    lr_mult: 0
    decay_mult: 0
  }
  param {
    lr_mult: 0
    decay_mult: 0
  }
}
layer {
  name: "Scale22"
  type: "Scale"
  bottom: "Convolution22"
  top: "Convolution22"
  scale_param {
    bias_term: true
  }
}
layer {
  name: "Eltwise10"
  type: "Eltwise"
  bottom: "Convolution20"
  bottom: "Convolution22"
  top: "Eltwise10"
  eltwise_param {
    operation: SUM
  }
}
layer {
  name: "penlu21"
  type: "PENLU"
  bottom: "Eltwise10"
  top: "Eltwise10"
  param {
    lr_mult: 1
    decay_mult: 0
  }
  param {
    lr_mult: 1
    decay_mult: 0
  }
  param {
    lr_mult: 1
    decay_mult: 0
  }
  penlu_param {
    alpha_filler {
      type: "constant"
      value: 2
    }
    beta_filler {
      type: "constant"
      value: 1
    }
    eta_filler {
      type: "constant"
      value: 1
    }
  }
}
layer {
  name: "Convolution23"
  type: "Convolution"
  bottom: "Eltwise10"
  top: "Convolution23"
  param {
    lr_mult: 1
    decay_mult: 1
  }
  param {
    lr_mult: 2
    decay_mult: 0
  }
  convolution_param {
    num_output: 32
    pad: 1
    kernel_size: 3
    stride: 1
    weight_filler {
      type: "gaussian"
      std: 0.083
    }
    bias_filler {
      type: "constant"
      value: 0
    }
  }
}
layer {
  name: "BatchNorm23"
  type: "BatchNorm"
  bottom: "Convolution23"
  top: "Convolution23"
  param {
    lr_mult: 0
    decay_mult: 0
  }
  param {
    lr_mult: 0
    decay_mult: 0
  }
  param {
    lr_mult: 0
    decay_mult: 0
  }
}
layer {
  name: "Scale23"
  type: "Scale"
  bottom: "Convolution23"
  top: "Convolution23"
  scale_param {
    bias_term: true
  }
}
layer {
  name: "penlu22"
  type: "PENLU"
  bottom: "Convolution23"
  top: "Convolution23"
  param {
    lr_mult: 1
    decay_mult: 0
  }
  param {
    lr_mult: 1
    decay_mult: 0
  }
  param {
    lr_mult: 1
    decay_mult: 0
  }
  penlu_param {
    alpha_filler {
      type: "constant"
      value: 2
    }
    beta_filler {
      type: "constant"
      value: 1
    }
    eta_filler {
      type: "constant"
      value: 1
    }
  }
}
layer {
  name: "Convolution24"
  type: "Convolution"
  bottom: "Convolution23"
  top: "Convolution24"
  param {
    lr_mult: 1
    decay_mult: 1
  }
  param {
    lr_mult: 2
    decay_mult: 0
  }
  convolution_param {
    num_output: 32
    pad: 1
    kernel_size: 3
    stride: 1
    weight_filler {
      type: "gaussian"
      std
I0926 08:53:08.033043  4406 layer_factory.hpp:77] Creating layer Data1
I0926 08:53:08.033118  4406 db_lmdb.cpp:35] Opened lmdb /home/x306/caffe/xn/PENLU/data/cifar10/cifar10_train_lmdb
I0926 08:53:08.033138  4406 net.cpp:84] Creating Layer Data1
I0926 08:53:08.033143  4406 net.cpp:380] Data1 -> Data1
I0926 08:53:08.033161  4406 net.cpp:380] Data1 -> Data2
I0926 08:53:08.033170  4406 data_transformer.cpp:25] Loading mean file from: /home/x306/caffe/xn/PENLU/data/cifar10/mean.binaryproto
I0926 08:53:08.034535  4406 data_layer.cpp:45] output data size: 100,3,28,28
I0926 08:53:08.036844  4406 net.cpp:122] Setting up Data1
I0926 08:53:08.036856  4406 net.cpp:129] Top shape: 100 3 28 28 (235200)
I0926 08:53:08.036860  4406 net.cpp:129] Top shape: 100 (100)
I0926 08:53:08.036862  4406 net.cpp:137] Memory required for data: 941200
I0926 08:53:08.036869  4406 layer_factory.hpp:77] Creating layer Convolution1
I0926 08:53:08.036888  4406 net.cpp:84] Creating Layer Convolution1
I0926 08:53:08.036892  4406 net.cpp:406] Convolution1 <- Data1
I0926 08:53:08.036901  4406 net.cpp:380] Convolution1 -> Convolution1
I0926 08:53:08.181820  4406 net.cpp:122] Setting up Convolution1
I0926 08:53:08.181846  4406 net.cpp:129] Top shape: 100 16 28 28 (1254400)
I0926 08:53:08.181849  4406 net.cpp:137] Memory required for data: 5958800
I0926 08:53:08.181865  4406 layer_factory.hpp:77] Creating layer BatchNorm1
I0926 08:53:08.181885  4406 net.cpp:84] Creating Layer BatchNorm1
I0926 08:53:08.181890  4406 net.cpp:406] BatchNorm1 <- Convolution1
I0926 08:53:08.181916  4406 net.cpp:367] BatchNorm1 -> Convolution1 (in-place)
I0926 08:53:08.182080  4406 net.cpp:122] Setting up BatchNorm1
I0926 08:53:08.182085  4406 net.cpp:129] Top shape: 100 16 28 28 (1254400)
I0926 08:53:08.182087  4406 net.cpp:137] Memory required for data: 10976400
I0926 08:53:08.182095  4406 layer_factory.hpp:77] Creating layer Scale1
I0926 08:53:08.182113  4406 net.cpp:84] Creating Layer Scale1
I0926 08:53:08.182116  4406 net.cpp:406] Scale1 <- Convolution1
I0926 08:53:08.182121  4406 net.cpp:367] Scale1 -> Convolution1 (in-place)
I0926 08:53:08.182179  4406 layer_factory.hpp:77] Creating layer Scale1
I0926 08:53:08.182317  4406 net.cpp:122] Setting up Scale1
I0926 08:53:08.182322  4406 net.cpp:129] Top shape: 100 16 28 28 (1254400)
I0926 08:53:08.182324  4406 net.cpp:137] Memory required for data: 15994000
I0926 08:53:08.182329  4406 layer_factory.hpp:77] Creating layer penlu1
I0926 08:53:08.182338  4406 net.cpp:84] Creating Layer penlu1
I0926 08:53:08.182341  4406 net.cpp:406] penlu1 <- Convolution1
I0926 08:53:08.182354  4406 net.cpp:367] penlu1 -> Convolution1 (in-place)
I0926 08:53:08.182970  4406 net.cpp:122] Setting up penlu1
I0926 08:53:08.182979  4406 net.cpp:129] Top shape: 100 16 28 28 (1254400)
I0926 08:53:08.182981  4406 net.cpp:137] Memory required for data: 21011600
I0926 08:53:08.182988  4406 layer_factory.hpp:77] Creating layer Convolution1_penlu1_0_split
I0926 08:53:08.182996  4406 net.cpp:84] Creating Layer Convolution1_penlu1_0_split
I0926 08:53:08.183008  4406 net.cpp:406] Convolution1_penlu1_0_split <- Convolution1
I0926 08:53:08.183012  4406 net.cpp:380] Convolution1_penlu1_0_split -> Convolution1_penlu1_0_split_0
I0926 08:53:08.183028  4406 net.cpp:380] Convolution1_penlu1_0_split -> Convolution1_penlu1_0_split_1
I0926 08:53:08.183074  4406 net.cpp:122] Setting up Convolution1_penlu1_0_split
I0926 08:53:08.183079  4406 net.cpp:129] Top shape: 100 16 28 28 (1254400)
I0926 08:53:08.183091  4406 net.cpp:129] Top shape: 100 16 28 28 (1254400)
I0926 08:53:08.183094  4406 net.cpp:137] Memory required for data: 31046800
I0926 08:53:08.183095  4406 layer_factory.hpp:77] Creating layer Convolution2
I0926 08:53:08.183113  4406 net.cpp:84] Creating Layer Convolution2
I0926 08:53:08.183116  4406 net.cpp:406] Convolution2 <- Convolution1_penlu1_0_split_0
I0926 08:53:08.183130  4406 net.cpp:380] Convolution2 -> Convolution2
I0926 08:53:08.183991  4406 net.cpp:122] Setting up Convolution2
I0926 08:53:08.184001  4406 net.cpp:129] Top shape: 100 16 28 28 (1254400)
I0926 08:53:08.184005  4406 net.cpp:137] Memory required for data: 36064400
I0926 08:53:08.184008  4406 layer_factory.hpp:77] Creating layer BatchNorm2
I0926 08:53:08.184013  4406 net.cpp:84] Creating Layer BatchNorm2
I0926 08:53:08.184015  4406 net.cpp:406] BatchNorm2 <- Convolution2
I0926 08:53:08.184029  4406 net.cpp:367] BatchNorm2 -> Convolution2 (in-place)
I0926 08:53:08.184165  4406 net.cpp:122] Setting up BatchNorm2
I0926 08:53:08.184170  4406 net.cpp:129] Top shape: 100 16 28 28 (1254400)
I0926 08:53:08.184173  4406 net.cpp:137] Memory required for data: 41082000
I0926 08:53:08.184178  4406 layer_factory.hpp:77] Creating layer Scale2
I0926 08:53:08.184183  4406 net.cpp:84] Creating Layer Scale2
I0926 08:53:08.184185  4406 net.cpp:406] Scale2 <- Convolution2
I0926 08:53:08.184188  4406 net.cpp:367] Scale2 -> Convolution2 (in-place)
I0926 08:53:08.184247  4406 layer_factory.hpp:77] Creating layer Scale2
I0926 08:53:08.184357  4406 net.cpp:122] Setting up Scale2
I0926 08:53:08.184362  4406 net.cpp:129] Top shape: 100 16 28 28 (1254400)
I0926 08:53:08.184365  4406 net.cpp:137] Memory required for data: 46099600
I0926 08:53:08.184370  4406 layer_factory.hpp:77] Creating layer penlu2
I0926 08:53:08.184376  4406 net.cpp:84] Creating Layer penlu2
I0926 08:53:08.184378  4406 net.cpp:406] penlu2 <- Convolution2
I0926 08:53:08.184391  4406 net.cpp:367] penlu2 -> Convolution2 (in-place)
I0926 08:53:08.184514  4406 net.cpp:122] Setting up penlu2
I0926 08:53:08.184520  4406 net.cpp:129] Top shape: 100 16 28 28 (1254400)
I0926 08:53:08.184540  4406 net.cpp:137] Memory required for data: 51117200
I0926 08:53:08.184553  4406 layer_factory.hpp:77] Creating layer Convolution3
I0926 08:53:08.184571  4406 net.cpp:84] Creating Layer Convolution3
I0926 08:53:08.184574  4406 net.cpp:406] Convolution3 <- Convolution2
I0926 08:53:08.184578  4406 net.cpp:380] Convolution3 -> Convolution3
I0926 08:53:08.185422  4406 net.cpp:122] Setting up Convolution3
I0926 08:53:08.185432  4406 net.cpp:129] Top shape: 100 16 28 28 (1254400)
I0926 08:53:08.185436  4406 net.cpp:137] Memory required for data: 56134800
I0926 08:53:08.185441  4406 layer_factory.hpp:77] Creating layer BatchNorm3
I0926 08:53:08.185446  4406 net.cpp:84] Creating Layer BatchNorm3
I0926 08:53:08.185448  4406 net.cpp:406] BatchNorm3 <- Convolution3
I0926 08:53:08.185462  4406 net.cpp:367] BatchNorm3 -> Convolution3 (in-place)
I0926 08:53:08.185595  4406 net.cpp:122] Setting up BatchNorm3
I0926 08:53:08.185600  4406 net.cpp:129] Top shape: 100 16 28 28 (1254400)
I0926 08:53:08.185602  4406 net.cpp:137] Memory required for data: 61152400
I0926 08:53:08.185607  4406 layer_factory.hpp:77] Creating layer Scale3
I0926 08:53:08.185612  4406 net.cpp:84] Creating Layer Scale3
I0926 08:53:08.185616  4406 net.cpp:406] Scale3 <- Convolution3
I0926 08:53:08.185618  4406 net.cpp:367] Scale3 -> Convolution3 (in-place)
I0926 08:53:08.185662  4406 layer_factory.hpp:77] Creating layer Scale3
I0926 08:53:08.185753  4406 net.cpp:122] Setting up Scale3
I0926 08:53:08.185760  4406 net.cpp:129] Top shape: 100 16 28 28 (1254400)
I0926 08:53:08.185761  4406 net.cpp:137] Memory required for data: 66170000
I0926 08:53:08.185765  4406 layer_factory.hpp:77] Creating layer Eltwise1
I0926 08:53:08.185770  4406 net.cpp:84] Creating Layer Eltwise1
I0926 08:53:08.185771  4406 net.cpp:406] Eltwise1 <- Convolution1_penlu1_0_split_1
I0926 08:53:08.185786  4406 net.cpp:406] Eltwise1 <- Convolution3
I0926 08:53:08.185791  4406 net.cpp:380] Eltwise1 -> Eltwise1
I0926 08:53:08.185817  4406 net.cpp:122] Setting up Eltwise1
I0926 08:53:08.185832  4406 net.cpp:129] Top shape: 100 16 28 28 (1254400)
I0926 08:53:08.185834  4406 net.cpp:137] Memory required for data: 71187600
I0926 08:53:08.185837  4406 layer_factory.hpp:77] Creating layer penlu3
I0926 08:53:08.185842  4406 net.cpp:84] Creating Layer penlu3
I0926 08:53:08.185847  4406 net.cpp:406] penlu3 <- Eltwise1
I0926 08:53:08.185849  4406 net.cpp:367] penlu3 -> Eltwise1 (in-place)
I0926 08:53:08.185956  4406 net.cpp:122] Setting up penlu3
I0926 08:53:08.185961  4406 net.cpp:129] Top shape: 100 16 28 28 (1254400)
I0926 08:53:08.185964  4406 net.cpp:137] Memory required for data: 76205200
I0926 08:53:08.185978  4406 layer_factory.hpp:77] Creating layer Eltwise1_penlu3_0_split
I0926 08:53:08.185982  4406 net.cpp:84] Creating Layer Eltwise1_penlu3_0_split
I0926 08:53:08.185986  4406 net.cpp:406] Eltwise1_penlu3_0_split <- Eltwise1
I0926 08:53:08.185989  4406 net.cpp:380] Eltwise1_penlu3_0_split -> Eltwise1_penlu3_0_split_0
I0926 08:53:08.185999  4406 net.cpp:380] Eltwise1_penlu3_0_split -> Eltwise1_penlu3_0_split_1
I0926 08:53:08.186024  4406 net.cpp:122] Setting up Eltwise1_penlu3_0_split
I0926 08:53:08.186030  4406 net.cpp:129] Top shape: 100 16 28 28 (1254400)
I0926 08:53:08.186036  4406 net.cpp:129] Top shape: 100 16 28 28 (1254400)
I0926 08:53:08.186041  4406 net.cpp:137] Memory required for data: 86240400
I0926 08:53:08.186046  4406 layer_factory.hpp:77] Creating layer Convolution4
I0926 08:53:08.186058  4406 net.cpp:84] Creating Layer Convolution4
I0926 08:53:08.186062  4406 net.cpp:406] Convolution4 <- Eltwise1_penlu3_0_split_0
I0926 08:53:08.186069  4406 net.cpp:380] Convolution4 -> Convolution4
I0926 08:53:08.186945  4406 net.cpp:122] Setting up Convolution4
I0926 08:53:08.186956  4406 net.cpp:129] Top shape: 100 16 28 28 (1254400)
I0926 08:53:08.186962  4406 net.cpp:137] Memory required for data: 91258000
I0926 08:53:08.186969  4406 layer_factory.hpp:77] Creating layer BatchNorm4
I0926 08:53:08.186977  4406 net.cpp:84] Creating Layer BatchNorm4
I0926 08:53:08.186988  4406 net.cpp:406] BatchNorm4 <- Convolution4
I0926 08:53:08.186996  4406 net.cpp:367] BatchNorm4 -> Convolution4 (in-place)
I0926 08:53:08.187122  4406 net.cpp:122] Setting up BatchNorm4
I0926 08:53:08.187129  4406 net.cpp:129] Top shape: 100 16 28 28 (1254400)
I0926 08:53:08.187132  4406 net.cpp:137] Memory required for data: 96275600
I0926 08:53:08.187144  4406 layer_factory.hpp:77] Creating layer Scale4
I0926 08:53:08.187151  4406 net.cpp:84] Creating Layer Scale4
I0926 08:53:08.187155  4406 net.cpp:406] Scale4 <- Convolution4
I0926 08:53:08.187160  4406 net.cpp:367] Scale4 -> Convolution4 (in-place)
I0926 08:53:08.187191  4406 layer_factory.hpp:77] Creating layer Scale4
I0926 08:53:08.187268  4406 net.cpp:122] Setting up Scale4
I0926 08:53:08.187274  4406 net.cpp:129] Top shape: 100 16 28 28 (1254400)
I0926 08:53:08.187278  4406 net.cpp:137] Memory required for data: 101293200
I0926 08:53:08.187284  4406 layer_factory.hpp:77] Creating layer penlu4
I0926 08:53:08.187291  4406 net.cpp:84] Creating Layer penlu4
I0926 08:53:08.187295  4406 net.cpp:406] penlu4 <- Convolution4
I0926 08:53:08.187301  4406 net.cpp:367] penlu4 -> Convolution4 (in-place)
I0926 08:53:08.187402  4406 net.cpp:122] Setting up penlu4
I0926 08:53:08.187408  4406 net.cpp:129] Top shape: 100 16 28 28 (1254400)
I0926 08:53:08.187413  4406 net.cpp:137] Memory required for data: 106310800
I0926 08:53:08.187419  4406 layer_factory.hpp:77] Creating layer Convolution5
I0926 08:53:08.187428  4406 net.cpp:84] Creating Layer Convolution5
I0926 08:53:08.187433  4406 net.cpp:406] Convolution5 <- Convolution4
I0926 08:53:08.187438  4406 net.cpp:380] Convolution5 -> Convolution5
I0926 08:53:08.188316  4406 net.cpp:122] Setting up Convolution5
I0926 08:53:08.188328  4406 net.cpp:129] Top shape: 100 16 28 28 (1254400)
I0926 08:53:08.188333  4406 net.cpp:137] Memory required for data: 111328400
I0926 08:53:08.188340  4406 layer_factory.hpp:77] Creating layer BatchNorm5
I0926 08:53:08.188349  4406 net.cpp:84] Creating Layer BatchNorm5
I0926 08:53:08.188352  4406 net.cpp:406] BatchNorm5 <- Convolution5
I0926 08:53:08.188359  4406 net.cpp:367] BatchNorm5 -> Convolution5 (in-place)
I0926 08:53:08.188488  4406 net.cpp:122] Setting up BatchNorm5
I0926 08:53:08.188498  4406 net.cpp:129] Top shape: 100 16 28 28 (1254400)
I0926 08:53:08.188501  4406 net.cpp:137] Memory required for data: 116346000
I0926 08:53:08.188506  4406 layer_factory.hpp:77] Creating layer Scale5
I0926 08:53:08.188511  4406 net.cpp:84] Creating Layer Scale5
I0926 08:53:08.188515  4406 net.cpp:406] Scale5 <- Convolution5
I0926 08:53:08.188521  4406 net.cpp:367] Scale5 -> Convolution5 (in-place)
I0926 08:53:08.188552  4406 layer_factory.hpp:77] Creating layer Scale5
I0926 08:53:08.188629  4406 net.cpp:122] Setting up Scale5
I0926 08:53:08.188637  4406 net.cpp:129] Top shape: 100 16 28 28 (1254400)
I0926 08:53:08.188642  4406 net.cpp:137] Memory required for data: 121363600
I0926 08:53:08.188647  4406 layer_factory.hpp:77] Creating layer Eltwise2
I0926 08:53:08.188653  4406 net.cpp:84] Creating Layer Eltwise2
I0926 08:53:08.188658  4406 net.cpp:406] Eltwise2 <- Eltwise1_penlu3_0_split_1
I0926 08:53:08.188663  4406 net.cpp:406] Eltwise2 <- Convolution5
I0926 08:53:08.188668  4406 net.cpp:380] Eltwise2 -> Eltwise2
I0926 08:53:08.188688  4406 net.cpp:122] Setting up Eltwise2
I0926 08:53:08.188693  4406 net.cpp:129] Top shape: 100 16 28 28 (1254400)
I0926 08:53:08.188697  4406 net.cpp:137] Memory required for data: 126381200
I0926 08:53:08.188700  4406 layer_factory.hpp:77] Creating layer penlu5
I0926 08:53:08.188709  4406 net.cpp:84] Creating Layer penlu5
I0926 08:53:08.188711  4406 net.cpp:406] penlu5 <- Eltwise2
I0926 08:53:08.188717  4406 net.cpp:367] penlu5 -> Eltwise2 (in-place)
I0926 08:53:08.188825  4406 net.cpp:122] Setting up penlu5
I0926 08:53:08.188832  4406 net.cpp:129] Top shape: 100 16 28 28 (1254400)
I0926 08:53:08.188836  4406 net.cpp:137] Memory required for data: 131398800
I0926 08:53:08.188843  4406 layer_factory.hpp:77] Creating layer Eltwise2_penlu5_0_split
I0926 08:53:08.188849  4406 net.cpp:84] Creating Layer Eltwise2_penlu5_0_split
I0926 08:53:08.188859  4406 net.cpp:406] Eltwise2_penlu5_0_split <- Eltwise2
I0926 08:53:08.188866  4406 net.cpp:380] Eltwise2_penlu5_0_split -> Eltwise2_penlu5_0_split_0
I0926 08:53:08.188874  4406 net.cpp:380] Eltwise2_penlu5_0_split -> Eltwise2_penlu5_0_split_1
I0926 08:53:08.188899  4406 net.cpp:122] Setting up Eltwise2_penlu5_0_split
I0926 08:53:08.188905  4406 net.cpp:129] Top shape: 100 16 28 28 (1254400)
I0926 08:53:08.188910  4406 net.cpp:129] Top shape: 100 16 28 28 (1254400)
I0926 08:53:08.188915  4406 net.cpp:137] Memory required for data: 141434000
I0926 08:53:08.188918  4406 layer_factory.hpp:77] Creating layer Convolution6
I0926 08:53:08.188927  4406 net.cpp:84] Creating Layer Convolution6
I0926 08:53:08.188931  4406 net.cpp:406] Convolution6 <- Eltwise2_penlu5_0_split_0
I0926 08:53:08.188937  4406 net.cpp:380] Convolution6 -> Convolution6
I0926 08:53:08.189815  4406 net.cpp:122] Setting up Convolution6
I0926 08:53:08.189826  4406 net.cpp:129] Top shape: 100 16 28 28 (1254400)
I0926 08:53:08.189831  4406 net.cpp:137] Memory required for data: 146451600
I0926 08:53:08.189839  4406 layer_factory.hpp:77] Creating layer BatchNorm6
I0926 08:53:08.189847  4406 net.cpp:84] Creating Layer BatchNorm6
I0926 08:53:08.189851  4406 net.cpp:406] BatchNorm6 <- Convolution6
I0926 08:53:08.189857  4406 net.cpp:367] BatchNorm6 -> Convolution6 (in-place)
I0926 08:53:08.189988  4406 net.cpp:122] Setting up BatchNorm6
I0926 08:53:08.189995  4406 net.cpp:129] Top shape: 100 16 28 28 (1254400)
I0926 08:53:08.189999  4406 net.cpp:137] Memory required for data: 151469200
I0926 08:53:08.190006  4406 layer_factory.hpp:77] Creating layer Scale6
I0926 08:53:08.190012  4406 net.cpp:84] Creating Layer Scale6
I0926 08:53:08.190016  4406 net.cpp:406] Scale6 <- Convolution6
I0926 08:53:08.190022  4406 net.cpp:367] Scale6 -> Convolution6 (in-place)
I0926 08:53:08.190052  4406 layer_factory.hpp:77] Creating layer Scale6
I0926 08:53:08.190130  4406 net.cpp:122] Setting up Scale6
I0926 08:53:08.190137  4406 net.cpp:129] Top shape: 100 16 28 28 (1254400)
I0926 08:53:08.190141  4406 net.cpp:137] Memory required for data: 156486800
I0926 08:53:08.190147  4406 layer_factory.hpp:77] Creating layer penlu6
I0926 08:53:08.190155  4406 net.cpp:84] Creating Layer penlu6
I0926 08:53:08.190158  4406 net.cpp:406] penlu6 <- Convolution6
I0926 08:53:08.190165  4406 net.cpp:367] penlu6 -> Convolution6 (in-place)
I0926 08:53:08.190273  4406 net.cpp:122] Setting up penlu6
I0926 08:53:08.190279  4406 net.cpp:129] Top shape: 100 16 28 28 (1254400)
I0926 08:53:08.190282  4406 net.cpp:137] Memory required for data: 161504400
I0926 08:53:08.190289  4406 layer_factory.hpp:77] Creating layer Convolution7
I0926 08:53:08.190299  4406 net.cpp:84] Creating Layer Convolution7
I0926 08:53:08.190301  4406 net.cpp:406] Convolution7 <- Convolution6
I0926 08:53:08.190307  4406 net.cpp:380] Convolution7 -> Convolution7
I0926 08:53:08.190861  4406 net.cpp:122] Setting up Convolution7
I0926 08:53:08.190871  4406 net.cpp:129] Top shape: 100 16 28 28 (1254400)
I0926 08:53:08.190876  4406 net.cpp:137] Memory required for data: 166522000
I0926 08:53:08.190884  4406 layer_factory.hpp:77] Creating layer BatchNorm7
I0926 08:53:08.190891  4406 net.cpp:84] Creating Layer BatchNorm7
I0926 08:53:08.190896  4406 net.cpp:406] BatchNorm7 <- Convolution7
I0926 08:53:08.190901  4406 net.cpp:367] BatchNorm7 -> Convolution7 (in-place)
I0926 08:53:08.191031  4406 net.cpp:122] Setting up BatchNorm7
I0926 08:53:08.191037  4406 net.cpp:129] Top shape: 100 16 28 28 (1254400)
I0926 08:53:08.191041  4406 net.cpp:137] Memory required for data: 171539600
I0926 08:53:08.191053  4406 layer_factory.hpp:77] Creating layer Scale7
I0926 08:53:08.191062  4406 net.cpp:84] Creating Layer Scale7
I0926 08:53:08.191066  4406 net.cpp:406] Scale7 <- Convolution7
I0926 08:53:08.191072  4406 net.cpp:367] Scale7 -> Convolution7 (in-place)
I0926 08:53:08.191102  4406 layer_factory.hpp:77] Creating layer Scale7
I0926 08:53:08.191179  4406 net.cpp:122] Setting up Scale7
I0926 08:53:08.191192  4406 net.cpp:129] Top shape: 100 16 28 28 (1254400)
I0926 08:53:08.191197  4406 net.cpp:137] Memory required for data: 176557200
I0926 08:53:08.191205  4406 layer_factory.hpp:77] Creating layer Eltwise3
I0926 08:53:08.191210  4406 net.cpp:84] Creating Layer Eltwise3
I0926 08:53:08.191215  4406 net.cpp:406] Eltwise3 <- Eltwise2_penlu5_0_split_1
I0926 08:53:08.191220  4406 net.cpp:406] Eltwise3 <- Convolution7
I0926 08:53:08.191226  4406 net.cpp:380] Eltwise3 -> Eltwise3
I0926 08:53:08.191246  4406 net.cpp:122] Setting up Eltwise3
I0926 08:53:08.191251  4406 net.cpp:129] Top shape: 100 16 28 28 (1254400)
I0926 08:53:08.191254  4406 net.cpp:137] Memory required for data: 181574800
I0926 08:53:08.191258  4406 layer_factory.hpp:77] Creating layer penlu7
I0926 08:53:08.191267  4406 net.cpp:84] Creating Layer penlu7
I0926 08:53:08.191270  4406 net.cpp:406] penlu7 <- Eltwise3
I0926 08:53:08.191275  4406 net.cpp:367] penlu7 -> Eltwise3 (in-place)
I0926 08:53:08.191382  4406 net.cpp:122] Setting up penlu7
I0926 08:53:08.191388  4406 net.cpp:129] Top shape: 100 16 28 28 (1254400)
I0926 08:53:08.191392  4406 net.cpp:137] Memory required for data: 186592400
I0926 08:53:08.191399  4406 layer_factory.hpp:77] Creating layer Eltwise3_penlu7_0_split
I0926 08:53:08.191404  4406 net.cpp:84] Creating Layer Eltwise3_penlu7_0_split
I0926 08:53:08.191408  4406 net.cpp:406] Eltwise3_penlu7_0_split <- Eltwise3
I0926 08:53:08.191413  4406 net.cpp:380] Eltwise3_penlu7_0_split -> Eltwise3_penlu7_0_split_0
I0926 08:53:08.191419  4406 net.cpp:380] Eltwise3_penlu7_0_split -> Eltwise3_penlu7_0_split_1
I0926 08:53:08.191444  4406 net.cpp:122] Setting up Eltwise3_penlu7_0_split
I0926 08:53:08.191450  4406 net.cpp:129] Top shape: 100 16 28 28 (1254400)
I0926 08:53:08.191455  4406 net.cpp:129] Top shape: 100 16 28 28 (1254400)
I0926 08:53:08.191459  4406 net.cpp:137] Memory required for data: 196627600
I0926 08:53:08.191463  4406 layer_factory.hpp:77] Creating layer Convolution8
I0926 08:53:08.191473  4406 net.cpp:84] Creating Layer Convolution8
I0926 08:53:08.191476  4406 net.cpp:406] Convolution8 <- Eltwise3_penlu7_0_split_0
I0926 08:53:08.191483  4406 net.cpp:380] Convolution8 -> Convolution8
I0926 08:53:08.192374  4406 net.cpp:122] Setting up Convolution8
I0926 08:53:08.192386  4406 net.cpp:129] Top shape: 100 16 28 28 (1254400)
I0926 08:53:08.192401  4406 net.cpp:137] Memory required for data: 201645200
I0926 08:53:08.192409  4406 layer_factory.hpp:77] Creating layer BatchNorm8
I0926 08:53:08.192417  4406 net.cpp:84] Creating Layer BatchNorm8
I0926 08:53:08.192421  4406 net.cpp:406] BatchNorm8 <- Convolution8
I0926 08:53:08.192438  4406 net.cpp:367] BatchNorm8 -> Convolution8 (in-place)
I0926 08:53:08.192587  4406 net.cpp:122] Setting up BatchNorm8
I0926 08:53:08.192595  4406 net.cpp:129] Top shape: 100 16 28 28 (1254400)
I0926 08:53:08.192600  4406 net.cpp:137] Memory required for data: 206662800
I0926 08:53:08.192606  4406 layer_factory.hpp:77] Creating layer Scale8
I0926 08:53:08.192613  4406 net.cpp:84] Creating Layer Scale8
I0926 08:53:08.192617  4406 net.cpp:406] Scale8 <- Convolution8
I0926 08:53:08.192623  4406 net.cpp:367] Scale8 -> Convolution8 (in-place)
I0926 08:53:08.192654  4406 layer_factory.hpp:77] Creating layer Scale8
I0926 08:53:08.192736  4406 net.cpp:122] Setting up Scale8
I0926 08:53:08.192742  4406 net.cpp:129] Top shape: 100 16 28 28 (1254400)
I0926 08:53:08.192747  4406 net.cpp:137] Memory required for data: 211680400
I0926 08:53:08.192754  4406 layer_factory.hpp:77] Creating layer penlu8
I0926 08:53:08.192761  4406 net.cpp:84] Creating Layer penlu8
I0926 08:53:08.192764  4406 net.cpp:406] penlu8 <- Convolution8
I0926 08:53:08.192770  4406 net.cpp:367] penlu8 -> Convolution8 (in-place)
I0926 08:53:08.192878  4406 net.cpp:122] Setting up penlu8
I0926 08:53:08.192884  4406 net.cpp:129] Top shape: 100 16 28 28 (1254400)
I0926 08:53:08.192888  4406 net.cpp:137] Memory required for data: 216698000
I0926 08:53:08.192895  4406 layer_factory.hpp:77] Creating layer Convolution9
I0926 08:53:08.192904  4406 net.cpp:84] Creating Layer Convolution9
I0926 08:53:08.192914  4406 net.cpp:406] Convolution9 <- Convolution8
I0926 08:53:08.192924  4406 net.cpp:380] Convolution9 -> Convolution9
I0926 08:53:08.193910  4406 net.cpp:122] Setting up Convolution9
I0926 08:53:08.193930  4406 net.cpp:129] Top shape: 100 16 28 28 (1254400)
I0926 08:53:08.193933  4406 net.cpp:137] Memory required for data: 221715600
I0926 08:53:08.193948  4406 layer_factory.hpp:77] Creating layer BatchNorm9
I0926 08:53:08.193964  4406 net.cpp:84] Creating Layer BatchNorm9
I0926 08:53:08.193966  4406 net.cpp:406] BatchNorm9 <- Convolution9
I0926 08:53:08.193971  4406 net.cpp:367] BatchNorm9 -> Convolution9 (in-place)
I0926 08:53:08.194103  4406 net.cpp:122] Setting up BatchNorm9
I0926 08:53:08.194108  4406 net.cpp:129] Top shape: 100 16 28 28 (1254400)
I0926 08:53:08.194111  4406 net.cpp:137] Memory required for data: 226733200
I0926 08:53:08.194116  4406 layer_factory.hpp:77] Creating layer Scale9
I0926 08:53:08.194120  4406 net.cpp:84] Creating Layer Scale9
I0926 08:53:08.194124  4406 net.cpp:406] Scale9 <- Convolution9
I0926 08:53:08.194128  4406 net.cpp:367] Scale9 -> Convolution9 (in-place)
I0926 08:53:08.194154  4406 layer_factory.hpp:77] Creating layer Scale9
I0926 08:53:08.194233  4406 net.cpp:122] Setting up Scale9
I0926 08:53:08.194238  4406 net.cpp:129] Top shape: 100 16 28 28 (1254400)
I0926 08:53:08.194242  4406 net.cpp:137] Memory required for data: 231750800
I0926 08:53:08.194245  4406 layer_factory.hpp:77] Creating layer Eltwise4
I0926 08:53:08.194250  4406 net.cpp:84] Creating Layer Eltwise4
I0926 08:53:08.194253  4406 net.cpp:406] Eltwise4 <- Eltwise3_penlu7_0_split_1
I0926 08:53:08.194257  4406 net.cpp:406] Eltwise4 <- Convolution9
I0926 08:53:08.194262  4406 net.cpp:380] Eltwise4 -> Eltwise4
I0926 08:53:08.194278  4406 net.cpp:122] Setting up Eltwise4
I0926 08:53:08.194283  4406 net.cpp:129] Top shape: 100 16 28 28 (1254400)
I0926 08:53:08.194285  4406 net.cpp:137] Memory required for data: 236768400
I0926 08:53:08.194288  4406 layer_factory.hpp:77] Creating layer penlu9
I0926 08:53:08.194293  4406 net.cpp:84] Creating Layer penlu9
I0926 08:53:08.194295  4406 net.cpp:406] penlu9 <- Eltwise4
I0926 08:53:08.194299  4406 net.cpp:367] penlu9 -> Eltwise4 (in-place)
I0926 08:53:08.194406  4406 net.cpp:122] Setting up penlu9
I0926 08:53:08.194412  4406 net.cpp:129] Top shape: 100 16 28 28 (1254400)
I0926 08:53:08.194414  4406 net.cpp:137] Memory required for data: 241786000
I0926 08:53:08.194419  4406 layer_factory.hpp:77] Creating layer Eltwise4_penlu9_0_split
I0926 08:53:08.194423  4406 net.cpp:84] Creating Layer Eltwise4_penlu9_0_split
I0926 08:53:08.194427  4406 net.cpp:406] Eltwise4_penlu9_0_split <- Eltwise4
I0926 08:53:08.194430  4406 net.cpp:380] Eltwise4_penlu9_0_split -> Eltwise4_penlu9_0_split_0
I0926 08:53:08.194435  4406 net.cpp:380] Eltwise4_penlu9_0_split -> Eltwise4_penlu9_0_split_1
I0926 08:53:08.194458  4406 net.cpp:122] Setting up Eltwise4_penlu9_0_split
I0926 08:53:08.194461  4406 net.cpp:129] Top shape: 100 16 28 28 (1254400)
I0926 08:53:08.194465  4406 net.cpp:129] Top shape: 100 16 28 28 (1254400)
I0926 08:53:08.194468  4406 net.cpp:137] Memory required for data: 251821200
I0926 08:53:08.194469  4406 layer_factory.hpp:77] Creating layer Convolution10
I0926 08:53:08.194478  4406 net.cpp:84] Creating Layer Convolution10
I0926 08:53:08.194480  4406 net.cpp:406] Convolution10 <- Eltwise4_penlu9_0_split_0
I0926 08:53:08.194484  4406 net.cpp:380] Convolution10 -> Convolution10
I0926 08:53:08.195420  4406 net.cpp:122] Setting up Convolution10
I0926 08:53:08.195430  4406 net.cpp:129] Top shape: 100 16 28 28 (1254400)
I0926 08:53:08.195443  4406 net.cpp:137] Memory required for data: 256838800
I0926 08:53:08.195448  4406 layer_factory.hpp:77] Creating layer BatchNorm10
I0926 08:53:08.195454  4406 net.cpp:84] Creating Layer BatchNorm10
I0926 08:53:08.195457  4406 net.cpp:406] BatchNorm10 <- Convolution10
I0926 08:53:08.195462  4406 net.cpp:367] BatchNorm10 -> Convolution10 (in-place)
I0926 08:53:08.195598  4406 net.cpp:122] Setting up BatchNorm10
I0926 08:53:08.195611  4406 net.cpp:129] Top shape: 100 16 28 28 (1254400)
I0926 08:53:08.195614  4406 net.cpp:137] Memory required for data: 261856400
I0926 08:53:08.195619  4406 layer_factory.hpp:77] Creating layer Scale10
I0926 08:53:08.195624  4406 net.cpp:84] Creating Layer Scale10
I0926 08:53:08.195628  4406 net.cpp:406] Scale10 <- Convolution10
I0926 08:53:08.195632  4406 net.cpp:367] Scale10 -> Convolution10 (in-place)
I0926 08:53:08.195660  4406 layer_factory.hpp:77] Creating layer Scale10
I0926 08:53:08.195740  4406 net.cpp:122] Setting up Scale10
I0926 08:53:08.195745  4406 net.cpp:129] Top shape: 100 16 28 28 (1254400)
I0926 08:53:08.195749  4406 net.cpp:137] Memory required for data: 266874000
I0926 08:53:08.195753  4406 layer_factory.hpp:77] Creating layer penlu10
I0926 08:53:08.195760  4406 net.cpp:84] Creating Layer penlu10
I0926 08:53:08.195762  4406 net.cpp:406] penlu10 <- Convolution10
I0926 08:53:08.195766  4406 net.cpp:367] penlu10 -> Convolution10 (in-place)
I0926 08:53:08.195875  4406 net.cpp:122] Setting up penlu10
I0926 08:53:08.195881  4406 net.cpp:129] Top shape: 100 16 28 28 (1254400)
I0926 08:53:08.195884  4406 net.cpp:137] Memory required for data: 271891600
I0926 08:53:08.195889  4406 layer_factory.hpp:77] Creating layer Convolution11
I0926 08:53:08.195895  4406 net.cpp:84] Creating Layer Convolution11
I0926 08:53:08.195899  4406 net.cpp:406] Convolution11 <- Convolution10
I0926 08:53:08.195904  4406 net.cpp:380] Convolution11 -> Convolution11
I0926 08:53:08.196825  4406 net.cpp:122] Setting up Convolution11
I0926 08:53:08.196837  4406 net.cpp:129] Top shape: 100 16 28 28 (1254400)
I0926 08:53:08.196841  4406 net.cpp:137] Memory required for data: 276909200
I0926 08:53:08.196846  4406 layer_factory.hpp:77] Creating layer BatchNorm11
I0926 08:53:08.196851  4406 net.cpp:84] Creating Layer BatchNorm11
I0926 08:53:08.196854  4406 net.cpp:406] BatchNorm11 <- Convolution11
I0926 08:53:08.196859  4406 net.cpp:367] BatchNorm11 -> Convolution11 (in-place)
I0926 08:53:08.196995  4406 net.cpp:122] Setting up BatchNorm11
I0926 08:53:08.197000  4406 net.cpp:129] Top shape: 100 16 28 28 (1254400)
I0926 08:53:08.197003  4406 net.cpp:137] Memory required for data: 281926800
I0926 08:53:08.197008  4406 layer_factory.hpp:77] Creating layer Scale11
I0926 08:53:08.197013  4406 net.cpp:84] Creating Layer Scale11
I0926 08:53:08.197016  4406 net.cpp:406] Scale11 <- Convolution11
I0926 08:53:08.197021  4406 net.cpp:367] Scale11 -> Convolution11 (in-place)
I0926 08:53:08.197047  4406 layer_factory.hpp:77] Creating layer Scale11
I0926 08:53:08.197129  4406 net.cpp:122] Setting up Scale11
I0926 08:53:08.197134  4406 net.cpp:129] Top shape: 100 16 28 28 (1254400)
I0926 08:53:08.197137  4406 net.cpp:137] Memory required for data: 286944400
I0926 08:53:08.197141  4406 layer_factory.hpp:77] Creating layer Eltwise5
I0926 08:53:08.197146  4406 net.cpp:84] Creating Layer Eltwise5
I0926 08:53:08.197149  4406 net.cpp:406] Eltwise5 <- Eltwise4_penlu9_0_split_1
I0926 08:53:08.197152  4406 net.cpp:406] Eltwise5 <- Convolution11
I0926 08:53:08.197157  4406 net.cpp:380] Eltwise5 -> Eltwise5
I0926 08:53:08.197173  4406 net.cpp:122] Setting up Eltwise5
I0926 08:53:08.197180  4406 net.cpp:129] Top shape: 100 16 28 28 (1254400)
I0926 08:53:08.197182  4406 net.cpp:137] Memory required for data: 291962000
I0926 08:53:08.197185  4406 layer_factory.hpp:77] Creating layer penlu11
I0926 08:53:08.197190  4406 net.cpp:84] Creating Layer penlu11
I0926 08:53:08.197192  4406 net.cpp:406] penlu11 <- Eltwise5
I0926 08:53:08.197196  4406 net.cpp:367] penlu11 -> Eltwise5 (in-place)
I0926 08:53:08.197309  4406 net.cpp:122] Setting up penlu11
I0926 08:53:08.197315  4406 net.cpp:129] Top shape: 100 16 28 28 (1254400)
I0926 08:53:08.197319  4406 net.cpp:137] Memory required for data: 296979600
I0926 08:53:08.197324  4406 layer_factory.hpp:77] Creating layer Eltwise5_penlu11_0_split
I0926 08:53:08.197327  4406 net.cpp:84] Creating Layer Eltwise5_penlu11_0_split
I0926 08:53:08.197331  4406 net.cpp:406] Eltwise5_penlu11_0_split <- Eltwise5
I0926 08:53:08.197342  4406 net.cpp:380] Eltwise5_penlu11_0_split -> Eltwise5_penlu11_0_split_0
I0926 08:53:08.197348  4406 net.cpp:380] Eltwise5_penlu11_0_split -> Eltwise5_penlu11_0_split_1
I0926 08:53:08.197373  4406 net.cpp:122] Setting up Eltwise5_penlu11_0_split
I0926 08:53:08.197378  4406 net.cpp:129] Top shape: 100 16 28 28 (1254400)
I0926 08:53:08.197382  4406 net.cpp:129] Top shape: 100 16 28 28 (1254400)
I0926 08:53:08.197384  4406 net.cpp:137] Memory required for data: 307014800
I0926 08:53:08.197387  4406 layer_factory.hpp:77] Creating layer Convolution12
I0926 08:53:08.197393  4406 net.cpp:84] Creating Layer Convolution12
I0926 08:53:08.197397  4406 net.cpp:406] Convolution12 <- Eltwise5_penlu11_0_split_0
I0926 08:53:08.197402  4406 net.cpp:380] Convolution12 -> Convolution12
I0926 08:53:08.198312  4406 net.cpp:122] Setting up Convolution12
I0926 08:53:08.198323  4406 net.cpp:129] Top shape: 100 16 28 28 (1254400)
I0926 08:53:08.198326  4406 net.cpp:137] Memory required for data: 312032400
I0926 08:53:08.198331  4406 layer_factory.hpp:77] Creating layer BatchNorm12
I0926 08:53:08.198338  4406 net.cpp:84] Creating Layer BatchNorm12
I0926 08:53:08.198340  4406 net.cpp:406] BatchNorm12 <- Convolution12
I0926 08:53:08.198344  4406 net.cpp:367] BatchNorm12 -> Convolution12 (in-place)
I0926 08:53:08.198482  4406 net.cpp:122] Setting up BatchNorm12
I0926 08:53:08.198487  4406 net.cpp:129] Top shape: 100 16 28 28 (1254400)
I0926 08:53:08.198490  4406 net.cpp:137] Memory required for data: 317050000
I0926 08:53:08.198495  4406 layer_factory.hpp:77] Creating layer Scale12
I0926 08:53:08.198500  4406 net.cpp:84] Creating Layer Scale12
I0926 08:53:08.198503  4406 net.cpp:406] Scale12 <- Convolution12
I0926 08:53:08.198508  4406 net.cpp:367] Scale12 -> Convolution12 (in-place)
I0926 08:53:08.198535  4406 layer_factory.hpp:77] Creating layer Scale12
I0926 08:53:08.198616  4406 net.cpp:122] Setting up Scale12
I0926 08:53:08.198621  4406 net.cpp:129] Top shape: 100 16 28 28 (1254400)
I0926 08:53:08.198624  4406 net.cpp:137] Memory required for data: 322067600
I0926 08:53:08.198628  4406 layer_factory.hpp:77] Creating layer penlu12
I0926 08:53:08.198633  4406 net.cpp:84] Creating Layer penlu12
I0926 08:53:08.198637  4406 net.cpp:406] penlu12 <- Convolution12
I0926 08:53:08.198642  4406 net.cpp:367] penlu12 -> Convolution12 (in-place)
I0926 08:53:08.198753  4406 net.cpp:122] Setting up penlu12
I0926 08:53:08.198760  4406 net.cpp:129] Top shape: 100 16 28 28 (1254400)
I0926 08:53:08.198761  4406 net.cpp:137] Memory required for data: 327085200
I0926 08:53:08.198766  4406 layer_factory.hpp:77] Creating layer Convolution13
I0926 08:53:08.198774  4406 net.cpp:84] Creating Layer Convolution13
I0926 08:53:08.198777  4406 net.cpp:406] Convolution13 <- Convolution12
I0926 08:53:08.198782  4406 net.cpp:380] Convolution13 -> Convolution13
I0926 08:53:08.199692  4406 net.cpp:122] Setting up Convolution13
I0926 08:53:08.199702  4406 net.cpp:129] Top shape: 100 16 28 28 (1254400)
I0926 08:53:08.199705  4406 net.cpp:137] Memory required for data: 332102800
I0926 08:53:08.199710  4406 layer_factory.hpp:77] Creating layer BatchNorm13
I0926 08:53:08.199717  4406 net.cpp:84] Creating Layer BatchNorm13
I0926 08:53:08.199720  4406 net.cpp:406] BatchNorm13 <- Convolution13
I0926 08:53:08.199724  4406 net.cpp:367] BatchNorm13 -> Convolution13 (in-place)
I0926 08:53:08.199861  4406 net.cpp:122] Setting up BatchNorm13
I0926 08:53:08.199867  4406 net.cpp:129] Top shape: 100 16 28 28 (1254400)
I0926 08:53:08.199869  4406 net.cpp:137] Memory required for data: 337120400
I0926 08:53:08.199874  4406 layer_factory.hpp:77] Creating layer Scale13
I0926 08:53:08.199879  4406 net.cpp:84] Creating Layer Scale13
I0926 08:53:08.199882  4406 net.cpp:406] Scale13 <- Convolution13
I0926 08:53:08.199887  4406 net.cpp:367] Scale13 -> Convolution13 (in-place)
I0926 08:53:08.199914  4406 layer_factory.hpp:77] Creating layer Scale13
I0926 08:53:08.199996  4406 net.cpp:122] Setting up Scale13
I0926 08:53:08.200002  4406 net.cpp:129] Top shape: 100 16 28 28 (1254400)
I0926 08:53:08.200012  4406 net.cpp:137] Memory required for data: 342138000
I0926 08:53:08.200016  4406 layer_factory.hpp:77] Creating layer Eltwise6
I0926 08:53:08.200022  4406 net.cpp:84] Creating Layer Eltwise6
I0926 08:53:08.200026  4406 net.cpp:406] Eltwise6 <- Eltwise5_penlu11_0_split_1
I0926 08:53:08.200028  4406 net.cpp:406] Eltwise6 <- Convolution13
I0926 08:53:08.200032  4406 net.cpp:380] Eltwise6 -> Eltwise6
I0926 08:53:08.200053  4406 net.cpp:122] Setting up Eltwise6
I0926 08:53:08.200059  4406 net.cpp:129] Top shape: 100 16 28 28 (1254400)
I0926 08:53:08.200062  4406 net.cpp:137] Memory required for data: 347155600
I0926 08:53:08.200064  4406 layer_factory.hpp:77] Creating layer penlu13
I0926 08:53:08.200073  4406 net.cpp:84] Creating Layer penlu13
I0926 08:53:08.200076  4406 net.cpp:406] penlu13 <- Eltwise6
I0926 08:53:08.200080  4406 net.cpp:367] penlu13 -> Eltwise6 (in-place)
I0926 08:53:08.200196  4406 net.cpp:122] Setting up penlu13
I0926 08:53:08.200201  4406 net.cpp:129] Top shape: 100 16 28 28 (1254400)
I0926 08:53:08.200204  4406 net.cpp:137] Memory required for data: 352173200
I0926 08:53:08.200218  4406 layer_factory.hpp:77] Creating layer Eltwise6_penlu13_0_split
I0926 08:53:08.200223  4406 net.cpp:84] Creating Layer Eltwise6_penlu13_0_split
I0926 08:53:08.200227  4406 net.cpp:406] Eltwise6_penlu13_0_split <- Eltwise6
I0926 08:53:08.200232  4406 net.cpp:380] Eltwise6_penlu13_0_split -> Eltwise6_penlu13_0_split_0
I0926 08:53:08.200237  4406 net.cpp:380] Eltwise6_penlu13_0_split -> Eltwise6_penlu13_0_split_1
I0926 08:53:08.200263  4406 net.cpp:122] Setting up Eltwise6_penlu13_0_split
I0926 08:53:08.200268  4406 net.cpp:129] Top shape: 100 16 28 28 (1254400)
I0926 08:53:08.200273  4406 net.cpp:129] Top shape: 100 16 28 28 (1254400)
I0926 08:53:08.200274  4406 net.cpp:137] Memory required for data: 362208400
I0926 08:53:08.200276  4406 layer_factory.hpp:77] Creating layer Convolution14
I0926 08:53:08.200284  4406 net.cpp:84] Creating Layer Convolution14
I0926 08:53:08.200286  4406 net.cpp:406] Convolution14 <- Eltwise6_penlu13_0_split_0
I0926 08:53:08.200290  4406 net.cpp:380] Convolution14 -> Convolution14
I0926 08:53:08.201205  4406 net.cpp:122] Setting up Convolution14
I0926 08:53:08.201215  4406 net.cpp:129] Top shape: 100 16 28 28 (1254400)
I0926 08:53:08.201218  4406 net.cpp:137] Memory required for data: 367226000
I0926 08:53:08.201223  4406 layer_factory.hpp:77] Creating layer BatchNorm14
I0926 08:53:08.201227  4406 net.cpp:84] Creating Layer BatchNorm14
I0926 08:53:08.201231  4406 net.cpp:406] BatchNorm14 <- Convolution14
I0926 08:53:08.201236  4406 net.cpp:367] BatchNorm14 -> Convolution14 (in-place)
I0926 08:53:08.201373  4406 net.cpp:122] Setting up BatchNorm14
I0926 08:53:08.201378  4406 net.cpp:129] Top shape: 100 16 28 28 (1254400)
I0926 08:53:08.201380  4406 net.cpp:137] Memory required for data: 372243600
I0926 08:53:08.201385  4406 layer_factory.hpp:77] Creating layer Scale14
I0926 08:53:08.201390  4406 net.cpp:84] Creating Layer Scale14
I0926 08:53:08.201392  4406 net.cpp:406] Scale14 <- Convolution14
I0926 08:53:08.201395  4406 net.cpp:367] Scale14 -> Convolution14 (in-place)
I0926 08:53:08.201421  4406 layer_factory.hpp:77] Creating layer Scale14
I0926 08:53:08.201503  4406 net.cpp:122] Setting up Scale14
I0926 08:53:08.201506  4406 net.cpp:129] Top shape: 100 16 28 28 (1254400)
I0926 08:53:08.201508  4406 net.cpp:137] Memory required for data: 377261200
I0926 08:53:08.201512  4406 layer_factory.hpp:77] Creating layer penlu14
I0926 08:53:08.201517  4406 net.cpp:84] Creating Layer penlu14
I0926 08:53:08.201519  4406 net.cpp:406] penlu14 <- Convolution14
I0926 08:53:08.201524  4406 net.cpp:367] penlu14 -> Convolution14 (in-place)
I0926 08:53:08.201638  4406 net.cpp:122] Setting up penlu14
I0926 08:53:08.201642  4406 net.cpp:129] Top shape: 100 16 28 28 (1254400)
I0926 08:53:08.201645  4406 net.cpp:137] Memory required for data: 382278800
I0926 08:53:08.201649  4406 layer_factory.hpp:77] Creating layer Convolution15
I0926 08:53:08.201656  4406 net.cpp:84] Creating Layer Convolution15
I0926 08:53:08.201666  4406 net.cpp:406] Convolution15 <- Convolution14
I0926 08:53:08.201671  4406 net.cpp:380] Convolution15 -> Convolution15
I0926 08:53:08.202586  4406 net.cpp:122] Setting up Convolution15
I0926 08:53:08.202595  4406 net.cpp:129] Top shape: 100 16 28 28 (1254400)
I0926 08:53:08.202597  4406 net.cpp:137] Memory required for data: 387296400
I0926 08:53:08.202602  4406 layer_factory.hpp:77] Creating layer BatchNorm15
I0926 08:53:08.202607  4406 net.cpp:84] Creating Layer BatchNorm15
I0926 08:53:08.202610  4406 net.cpp:406] BatchNorm15 <- Convolution15
I0926 08:53:08.202613  4406 net.cpp:367] BatchNorm15 -> Convolution15 (in-place)
I0926 08:53:08.202747  4406 net.cpp:122] Setting up BatchNorm15
I0926 08:53:08.202751  4406 net.cpp:129] Top shape: 100 16 28 28 (1254400)
I0926 08:53:08.202754  4406 net.cpp:137] Memory required for data: 392314000
I0926 08:53:08.202759  4406 layer_factory.hpp:77] Creating layer Scale15
I0926 08:53:08.202764  4406 net.cpp:84] Creating Layer Scale15
I0926 08:53:08.202765  4406 net.cpp:406] Scale15 <- Convolution15
I0926 08:53:08.202769  4406 net.cpp:367] Scale15 -> Convolution15 (in-place)
I0926 08:53:08.202795  4406 layer_factory.hpp:77] Creating layer Scale15
I0926 08:53:08.202872  4406 net.cpp:122] Setting up Scale15
I0926 08:53:08.202877  4406 net.cpp:129] Top shape: 100 16 28 28 (1254400)
I0926 08:53:08.202878  4406 net.cpp:137] Memory required for data: 397331600
I0926 08:53:08.202883  4406 layer_factory.hpp:77] Creating layer Eltwise7
I0926 08:53:08.202886  4406 net.cpp:84] Creating Layer Eltwise7
I0926 08:53:08.202889  4406 net.cpp:406] Eltwise7 <- Eltwise6_penlu13_0_split_1
I0926 08:53:08.202893  4406 net.cpp:406] Eltwise7 <- Convolution15
I0926 08:53:08.202895  4406 net.cpp:380] Eltwise7 -> Eltwise7
I0926 08:53:08.202910  4406 net.cpp:122] Setting up Eltwise7
I0926 08:53:08.202914  4406 net.cpp:129] Top shape: 100 16 28 28 (1254400)
I0926 08:53:08.202916  4406 net.cpp:137] Memory required for data: 402349200
I0926 08:53:08.202919  4406 layer_factory.hpp:77] Creating layer penlu15
I0926 08:53:08.202924  4406 net.cpp:84] Creating Layer penlu15
I0926 08:53:08.202926  4406 net.cpp:406] penlu15 <- Eltwise7
I0926 08:53:08.202930  4406 net.cpp:367] penlu15 -> Eltwise7 (in-place)
I0926 08:53:08.203038  4406 net.cpp:122] Setting up penlu15
I0926 08:53:08.203043  4406 net.cpp:129] Top shape: 100 16 28 28 (1254400)
I0926 08:53:08.203045  4406 net.cpp:137] Memory required for data: 407366800
I0926 08:53:08.203049  4406 layer_factory.hpp:77] Creating layer Eltwise7_penlu15_0_split
I0926 08:53:08.203053  4406 net.cpp:84] Creating Layer Eltwise7_penlu15_0_split
I0926 08:53:08.203057  4406 net.cpp:406] Eltwise7_penlu15_0_split <- Eltwise7
I0926 08:53:08.203059  4406 net.cpp:380] Eltwise7_penlu15_0_split -> Eltwise7_penlu15_0_split_0
I0926 08:53:08.203063  4406 net.cpp:380] Eltwise7_penlu15_0_split -> Eltwise7_penlu15_0_split_1
I0926 08:53:08.203084  4406 net.cpp:122] Setting up Eltwise7_penlu15_0_split
I0926 08:53:08.203088  4406 net.cpp:129] Top shape: 100 16 28 28 (1254400)
I0926 08:53:08.203091  4406 net.cpp:129] Top shape: 100 16 28 28 (1254400)
I0926 08:53:08.203094  4406 net.cpp:137] Memory required for data: 417402000
I0926 08:53:08.203095  4406 layer_factory.hpp:77] Creating layer Convolution16
I0926 08:53:08.203101  4406 net.cpp:84] Creating Layer Convolution16
I0926 08:53:08.203104  4406 net.cpp:406] Convolution16 <- Eltwise7_penlu15_0_split_0
I0926 08:53:08.203109  4406 net.cpp:380] Convolution16 -> Convolution16
I0926 08:53:08.203992  4406 net.cpp:122] Setting up Convolution16
I0926 08:53:08.204000  4406 net.cpp:129] Top shape: 100 16 28 28 (1254400)
I0926 08:53:08.204004  4406 net.cpp:137] Memory required for data: 422419600
I0926 08:53:08.204007  4406 layer_factory.hpp:77] Creating layer BatchNorm16
I0926 08:53:08.204012  4406 net.cpp:84] Creating Layer BatchNorm16
I0926 08:53:08.204015  4406 net.cpp:406] BatchNorm16 <- Convolution16
I0926 08:53:08.204020  4406 net.cpp:367] BatchNorm16 -> Convolution16 (in-place)
I0926 08:53:08.204154  4406 net.cpp:122] Setting up BatchNorm16
I0926 08:53:08.204164  4406 net.cpp:129] Top shape: 100 16 28 28 (1254400)
I0926 08:53:08.204167  4406 net.cpp:137] Memory required for data: 427437200
I0926 08:53:08.204172  4406 layer_factory.hpp:77] Creating layer Scale16
I0926 08:53:08.204176  4406 net.cpp:84] Creating Layer Scale16
I0926 08:53:08.204179  4406 net.cpp:406] Scale16 <- Convolution16
I0926 08:53:08.204182  4406 net.cpp:367] Scale16 -> Convolution16 (in-place)
I0926 08:53:08.204210  4406 layer_factory.hpp:77] Creating layer Scale16
I0926 08:53:08.204289  4406 net.cpp:122] Setting up Scale16
I0926 08:53:08.204295  4406 net.cpp:129] Top shape: 100 16 28 28 (1254400)
I0926 08:53:08.204298  4406 net.cpp:137] Memory required for data: 432454800
I0926 08:53:08.204301  4406 layer_factory.hpp:77] Creating layer penlu16
I0926 08:53:08.204305  4406 net.cpp:84] Creating Layer penlu16
I0926 08:53:08.204308  4406 net.cpp:406] penlu16 <- Convolution16
I0926 08:53:08.204313  4406 net.cpp:367] penlu16 -> Convolution16 (in-place)
I0926 08:53:08.204422  4406 net.cpp:122] Setting up penlu16
I0926 08:53:08.204427  4406 net.cpp:129] Top shape: 100 16 28 28 (1254400)
I0926 08:53:08.204429  4406 net.cpp:137] Memory required for data: 437472400
I0926 08:53:08.204433  4406 layer_factory.hpp:77] Creating layer Convolution17
I0926 08:53:08.204440  4406 net.cpp:84] Creating Layer Convolution17
I0926 08:53:08.204442  4406 net.cpp:406] Convolution17 <- Convolution16
I0926 08:53:08.204447  4406 net.cpp:380] Convolution17 -> Convolution17
I0926 08:53:08.205039  4406 net.cpp:122] Setting up Convolution17
I0926 08:53:08.205049  4406 net.cpp:129] Top shape: 100 16 28 28 (1254400)
I0926 08:53:08.205050  4406 net.cpp:137] Memory required for data: 442490000
I0926 08:53:08.205055  4406 layer_factory.hpp:77] Creating layer BatchNorm17
I0926 08:53:08.205060  4406 net.cpp:84] Creating Layer BatchNorm17
I0926 08:53:08.205062  4406 net.cpp:406] BatchNorm17 <- Convolution17
I0926 08:53:08.205066  4406 net.cpp:367] BatchNorm17 -> Convolution17 (in-place)
I0926 08:53:08.205199  4406 net.cpp:122] Setting up BatchNorm17
I0926 08:53:08.205204  4406 net.cpp:129] Top shape: 100 16 28 28 (1254400)
I0926 08:53:08.205205  4406 net.cpp:137] Memory required for data: 447507600
I0926 08:53:08.205209  4406 layer_factory.hpp:77] Creating layer Scale17
I0926 08:53:08.205214  4406 net.cpp:84] Creating Layer Scale17
I0926 08:53:08.205216  4406 net.cpp:406] Scale17 <- Convolution17
I0926 08:53:08.205220  4406 net.cpp:367] Scale17 -> Convolution17 (in-place)
I0926 08:53:08.205245  4406 layer_factory.hpp:77] Creating layer Scale17
I0926 08:53:08.205323  4406 net.cpp:122] Setting up Scale17
I0926 08:53:08.205327  4406 net.cpp:129] Top shape: 100 16 28 28 (1254400)
I0926 08:53:08.205330  4406 net.cpp:137] Memory required for data: 452525200
I0926 08:53:08.205334  4406 layer_factory.hpp:77] Creating layer Eltwise8
I0926 08:53:08.205338  4406 net.cpp:84] Creating Layer Eltwise8
I0926 08:53:08.205340  4406 net.cpp:406] Eltwise8 <- Eltwise7_penlu15_0_split_1
I0926 08:53:08.205343  4406 net.cpp:406] Eltwise8 <- Convolution17
I0926 08:53:08.205348  4406 net.cpp:380] Eltwise8 -> Eltwise8
I0926 08:53:08.205363  4406 net.cpp:122] Setting up Eltwise8
I0926 08:53:08.205366  4406 net.cpp:129] Top shape: 100 16 28 28 (1254400)
I0926 08:53:08.205368  4406 net.cpp:137] Memory required for data: 457542800
I0926 08:53:08.205370  4406 layer_factory.hpp:77] Creating layer penlu17
I0926 08:53:08.205375  4406 net.cpp:84] Creating Layer penlu17
I0926 08:53:08.205377  4406 net.cpp:406] penlu17 <- Eltwise8
I0926 08:53:08.205381  4406 net.cpp:367] penlu17 -> Eltwise8 (in-place)
I0926 08:53:08.205490  4406 net.cpp:122] Setting up penlu17
I0926 08:53:08.205495  4406 net.cpp:129] Top shape: 100 16 28 28 (1254400)
I0926 08:53:08.205497  4406 net.cpp:137] Memory required for data: 462560400
I0926 08:53:08.205502  4406 layer_factory.hpp:77] Creating layer Eltwise8_penlu17_0_split
I0926 08:53:08.205504  4406 net.cpp:84] Creating Layer Eltwise8_penlu17_0_split
I0926 08:53:08.205507  4406 net.cpp:406] Eltwise8_penlu17_0_split <- Eltwise8
I0926 08:53:08.205516  4406 net.cpp:380] Eltwise8_penlu17_0_split -> Eltwise8_penlu17_0_split_0
I0926 08:53:08.205521  4406 net.cpp:380] Eltwise8_penlu17_0_split -> Eltwise8_penlu17_0_split_1
I0926 08:53:08.205544  4406 net.cpp:122] Setting up Eltwise8_penlu17_0_split
I0926 08:53:08.205549  4406 net.cpp:129] Top shape: 100 16 28 28 (1254400)
I0926 08:53:08.205551  4406 net.cpp:129] Top shape: 100 16 28 28 (1254400)
I0926 08:53:08.205554  4406 net.cpp:137] Memory required for data: 472595600
I0926 08:53:08.205556  4406 layer_factory.hpp:77] Creating layer Convolution18
I0926 08:53:08.205562  4406 net.cpp:84] Creating Layer Convolution18
I0926 08:53:08.205564  4406 net.cpp:406] Convolution18 <- Eltwise8_penlu17_0_split_0
I0926 08:53:08.205569  4406 net.cpp:380] Convolution18 -> Convolution18
I0926 08:53:08.206455  4406 net.cpp:122] Setting up Convolution18
I0926 08:53:08.206465  4406 net.cpp:129] Top shape: 100 16 28 28 (1254400)
I0926 08:53:08.206466  4406 net.cpp:137] Memory required for data: 477613200
I0926 08:53:08.206471  4406 layer_factory.hpp:77] Creating layer BatchNorm18
I0926 08:53:08.206476  4406 net.cpp:84] Creating Layer BatchNorm18
I0926 08:53:08.206480  4406 net.cpp:406] BatchNorm18 <- Convolution18
I0926 08:53:08.206482  4406 net.cpp:367] BatchNorm18 -> Convolution18 (in-place)
I0926 08:53:08.206616  4406 net.cpp:122] Setting up BatchNorm18
I0926 08:53:08.206620  4406 net.cpp:129] Top shape: 100 16 28 28 (1254400)
I0926 08:53:08.206622  4406 net.cpp:137] Memory required for data: 482630800
I0926 08:53:08.206627  4406 layer_factory.hpp:77] Creating layer Scale18
I0926 08:53:08.206631  4406 net.cpp:84] Creating Layer Scale18
I0926 08:53:08.206634  4406 net.cpp:406] Scale18 <- Convolution18
I0926 08:53:08.206638  4406 net.cpp:367] Scale18 -> Convolution18 (in-place)
I0926 08:53:08.206663  4406 layer_factory.hpp:77] Creating layer Scale18
I0926 08:53:08.206743  4406 net.cpp:122] Setting up Scale18
I0926 08:53:08.206748  4406 net.cpp:129] Top shape: 100 16 28 28 (1254400)
I0926 08:53:08.206749  4406 net.cpp:137] Memory required for data: 487648400
I0926 08:53:08.206753  4406 layer_factory.hpp:77] Creating layer penlu18
I0926 08:53:08.206759  4406 net.cpp:84] Creating Layer penlu18
I0926 08:53:08.206761  4406 net.cpp:406] penlu18 <- Convolution18
I0926 08:53:08.206765  4406 net.cpp:367] penlu18 -> Convolution18 (in-place)
I0926 08:53:08.206874  4406 net.cpp:122] Setting up penlu18
I0926 08:53:08.206879  4406 net.cpp:129] Top shape: 100 16 28 28 (1254400)
I0926 08:53:08.206881  4406 net.cpp:137] Memory required for data: 492666000
I0926 08:53:08.206885  4406 layer_factory.hpp:77] Creating layer Convolution19
I0926 08:53:08.206892  4406 net.cpp:84] Creating Layer Convolution19
I0926 08:53:08.206894  4406 net.cpp:406] Convolution19 <- Convolution18
I0926 08:53:08.206898  4406 net.cpp:380] Convolution19 -> Convolution19
I0926 08:53:08.207808  4406 net.cpp:122] Setting up Convolution19
I0926 08:53:08.207818  4406 net.cpp:129] Top shape: 100 16 28 28 (1254400)
I0926 08:53:08.207820  4406 net.cpp:137] Memory required for data: 497683600
I0926 08:53:08.207824  4406 layer_factory.hpp:77] Creating layer BatchNorm19
I0926 08:53:08.207829  4406 net.cpp:84] Creating Layer BatchNorm19
I0926 08:53:08.207832  4406 net.cpp:406] BatchNorm19 <- Convolution19
I0926 08:53:08.207836  4406 net.cpp:367] BatchNorm19 -> Convolution19 (in-place)
I0926 08:53:08.207974  4406 net.cpp:122] Setting up BatchNorm19
I0926 08:53:08.207979  4406 net.cpp:129] Top shape: 100 16 28 28 (1254400)
I0926 08:53:08.207981  4406 net.cpp:137] Memory required for data: 502701200
I0926 08:53:08.207986  4406 layer_factory.hpp:77] Creating layer Scale19
I0926 08:53:08.207991  4406 net.cpp:84] Creating Layer Scale19
I0926 08:53:08.207993  4406 net.cpp:406] Scale19 <- Convolution19
I0926 08:53:08.207998  4406 net.cpp:367] Scale19 -> Convolution19 (in-place)
I0926 08:53:08.208024  4406 layer_factory.hpp:77] Creating layer Scale19
I0926 08:53:08.208106  4406 net.cpp:122] Setting up Scale19
I0926 08:53:08.208109  4406 net.cpp:129] Top shape: 100 16 28 28 (1254400)
I0926 08:53:08.208112  4406 net.cpp:137] Memory required for data: 507718800
I0926 08:53:08.208122  4406 layer_factory.hpp:77] Creating layer Eltwise9
I0926 08:53:08.208127  4406 net.cpp:84] Creating Layer Eltwise9
I0926 08:53:08.208130  4406 net.cpp:406] Eltwise9 <- Eltwise8_penlu17_0_split_1
I0926 08:53:08.208133  4406 net.cpp:406] Eltwise9 <- Convolution19
I0926 08:53:08.208138  4406 net.cpp:380] Eltwise9 -> Eltwise9
I0926 08:53:08.208154  4406 net.cpp:122] Setting up Eltwise9
I0926 08:53:08.208159  4406 net.cpp:129] Top shape: 100 16 28 28 (1254400)
I0926 08:53:08.208163  4406 net.cpp:137] Memory required for data: 512736400
I0926 08:53:08.208164  4406 layer_factory.hpp:77] Creating layer penlu19
I0926 08:53:08.208168  4406 net.cpp:84] Creating Layer penlu19
I0926 08:53:08.208171  4406 net.cpp:406] penlu19 <- Eltwise9
I0926 08:53:08.208175  4406 net.cpp:367] penlu19 -> Eltwise9 (in-place)
I0926 08:53:08.208287  4406 net.cpp:122] Setting up penlu19
I0926 08:53:08.208292  4406 net.cpp:129] Top shape: 100 16 28 28 (1254400)
I0926 08:53:08.208293  4406 net.cpp:137] Memory required for data: 517754000
I0926 08:53:08.208298  4406 layer_factory.hpp:77] Creating layer Eltwise9_penlu19_0_split
I0926 08:53:08.208302  4406 net.cpp:84] Creating Layer Eltwise9_penlu19_0_split
I0926 08:53:08.208304  4406 net.cpp:406] Eltwise9_penlu19_0_split <- Eltwise9
I0926 08:53:08.208307  4406 net.cpp:380] Eltwise9_penlu19_0_split -> Eltwise9_penlu19_0_split_0
I0926 08:53:08.208312  4406 net.cpp:380] Eltwise9_penlu19_0_split -> Eltwise9_penlu19_0_split_1
I0926 08:53:08.208335  4406 net.cpp:122] Setting up Eltwise9_penlu19_0_split
I0926 08:53:08.208339  4406 net.cpp:129] Top shape: 100 16 28 28 (1254400)
I0926 08:53:08.208343  4406 net.cpp:129] Top shape: 100 16 28 28 (1254400)
I0926 08:53:08.208344  4406 net.cpp:137] Memory required for data: 527789200
I0926 08:53:08.208346  4406 layer_factory.hpp:77] Creating layer Convolution20
I0926 08:53:08.208353  4406 net.cpp:84] Creating Layer Convolution20
I0926 08:53:08.208355  4406 net.cpp:406] Convolution20 <- Eltwise9_penlu19_0_split_0
I0926 08:53:08.208359  4406 net.cpp:380] Convolution20 -> Convolution20
I0926 08:53:08.209616  4406 net.cpp:122] Setting up Convolution20
I0926 08:53:08.209626  4406 net.cpp:129] Top shape: 100 32 14 14 (627200)
I0926 08:53:08.209630  4406 net.cpp:137] Memory required for data: 530298000
I0926 08:53:08.209635  4406 layer_factory.hpp:77] Creating layer BatchNorm20
I0926 08:53:08.209640  4406 net.cpp:84] Creating Layer BatchNorm20
I0926 08:53:08.209643  4406 net.cpp:406] BatchNorm20 <- Convolution20
I0926 08:53:08.209646  4406 net.cpp:367] BatchNorm20 -> Convolution20 (in-place)
I0926 08:53:08.209790  4406 net.cpp:122] Setting up BatchNorm20
I0926 08:53:08.209794  4406 net.cpp:129] Top shape: 100 32 14 14 (627200)
I0926 08:53:08.209797  4406 net.cpp:137] Memory required for data: 532806800
I0926 08:53:08.209802  4406 layer_factory.hpp:77] Creating layer Scale20
I0926 08:53:08.209806  4406 net.cpp:84] Creating Layer Scale20
I0926 08:53:08.209808  4406 net.cpp:406] Scale20 <- Convolution20
I0926 08:53:08.209812  4406 net.cpp:367] Scale20 -> Convolution20 (in-place)
I0926 08:53:08.209839  4406 layer_factory.hpp:77] Creating layer Scale20
I0926 08:53:08.209918  4406 net.cpp:122] Setting up Scale20
I0926 08:53:08.209923  4406 net.cpp:129] Top shape: 100 32 14 14 (627200)
I0926 08:53:08.209924  4406 net.cpp:137] Memory required for data: 535315600
I0926 08:53:08.209928  4406 layer_factory.hpp:77] Creating layer Convolution21
I0926 08:53:08.209935  4406 net.cpp:84] Creating Layer Convolution21
I0926 08:53:08.209939  4406 net.cpp:406] Convolution21 <- Eltwise9_penlu19_0_split_1
I0926 08:53:08.209944  4406 net.cpp:380] Convolution21 -> Convolution21
I0926 08:53:08.211586  4406 net.cpp:122] Setting up Convolution21
I0926 08:53:08.211596  4406 net.cpp:129] Top shape: 100 32 14 14 (627200)
I0926 08:53:08.211598  4406 net.cpp:137] Memory required for data: 537824400
I0926 08:53:08.211603  4406 layer_factory.hpp:77] Creating layer BatchNorm21
I0926 08:53:08.211608  4406 net.cpp:84] Creating Layer BatchNorm21
I0926 08:53:08.211618  4406 net.cpp:406] BatchNorm21 <- Convolution21
I0926 08:53:08.211623  4406 net.cpp:367] BatchNorm21 -> Convolution21 (in-place)
I0926 08:53:08.211763  4406 net.cpp:122] Setting up BatchNorm21
I0926 08:53:08.211767  4406 net.cpp:129] Top shape: 100 32 14 14 (627200)
I0926 08:53:08.211771  4406 net.cpp:137] Memory required for data: 540333200
I0926 08:53:08.211776  4406 layer_factory.hpp:77] Creating layer Scale21
I0926 08:53:08.211779  4406 net.cpp:84] Creating Layer Scale21
I0926 08:53:08.211782  4406 net.cpp:406] Scale21 <- Convolution21
I0926 08:53:08.211786  4406 net.cpp:367] Scale21 -> Convolution21 (in-place)
I0926 08:53:08.211812  4406 layer_factory.hpp:77] Creating layer Scale21
I0926 08:53:08.211890  4406 net.cpp:122] Setting up Scale21
I0926 08:53:08.211895  4406 net.cpp:129] Top shape: 100 32 14 14 (627200)
I0926 08:53:08.211897  4406 net.cpp:137] Memory required for data: 542842000
I0926 08:53:08.211901  4406 layer_factory.hpp:77] Creating layer penlu20
I0926 08:53:08.211906  4406 net.cpp:84] Creating Layer penlu20
I0926 08:53:08.211908  4406 net.cpp:406] penlu20 <- Convolution21
I0926 08:53:08.211912  4406 net.cpp:367] penlu20 -> Convolution21 (in-place)
I0926 08:53:08.212020  4406 net.cpp:122] Setting up penlu20
I0926 08:53:08.212025  4406 net.cpp:129] Top shape: 100 32 14 14 (627200)
I0926 08:53:08.212028  4406 net.cpp:137] Memory required for data: 545350800
I0926 08:53:08.212031  4406 layer_factory.hpp:77] Creating layer Convolution22
I0926 08:53:08.212038  4406 net.cpp:84] Creating Layer Convolution22
I0926 08:53:08.212040  4406 net.cpp:406] Convolution22 <- Convolution21
I0926 08:53:08.212045  4406 net.cpp:380] Convolution22 -> Convolution22
I0926 08:53:08.213114  4406 net.cpp:122] Setting up Convolution22
I0926 08:53:08.213122  4406 net.cpp:129] Top shape: 100 32 14 14 (627200)
I0926 08:53:08.213124  4406 net.cpp:137] Memory required for data: 547859600
I0926 08:53:08.213129  4406 layer_factory.hpp:77] Creating layer BatchNorm22
I0926 08:53:08.213135  4406 net.cpp:84] Creating Layer BatchNorm22
I0926 08:53:08.213136  4406 net.cpp:406] BatchNorm22 <- Convolution22
I0926 08:53:08.213140  4406 net.cpp:367] BatchNorm22 -> Convolution22 (in-place)
I0926 08:53:08.213273  4406 net.cpp:122] Setting up BatchNorm22
I0926 08:53:08.213277  4406 net.cpp:129] Top shape: 100 32 14 14 (627200)
I0926 08:53:08.213279  4406 net.cpp:137] Memory required for data: 550368400
I0926 08:53:08.213284  4406 layer_factory.hpp:77] Creating layer Scale22
I0926 08:53:08.213289  4406 net.cpp:84] Creating Layer Scale22
I0926 08:53:08.213290  4406 net.cpp:406] Scale22 <- Convolution22
I0926 08:53:08.213294  4406 net.cpp:367] Scale22 -> Convolution22 (in-place)
I0926 08:53:08.213320  4406 layer_factory.hpp:77] Creating layer Scale22
I0926 08:53:08.213395  4406 net.cpp:122] Setting up Scale22
I0926 08:53:08.213399  4406 net.cpp:129] Top shape: 100 32 14 14 (627200)
I0926 08:53:08.213402  4406 net.cpp:137] Memory required for data: 552877200
I0926 08:53:08.213405  4406 layer_factory.hpp:77] Creating layer Eltwise10
I0926 08:53:08.213410  4406 net.cpp:84] Creating Layer Eltwise10
I0926 08:53:08.213413  4406 net.cpp:406] Eltwise10 <- Convolution20
I0926 08:53:08.213415  4406 net.cpp:406] Eltwise10 <- Convolution22
I0926 08:53:08.213418  4406 net.cpp:380] Eltwise10 -> Eltwise10
I0926 08:53:08.213434  4406 net.cpp:122] Setting up Eltwise10
I0926 08:53:08.213438  4406 net.cpp:129] Top shape: 100 32 14 14 (627200)
I0926 08:53:08.213439  4406 net.cpp:137] Memory required for data: 555386000
I0926 08:53:08.213441  4406 layer_factory.hpp:77] Creating layer penlu21
I0926 08:53:08.213448  4406 net.cpp:84] Creating Layer penlu21
I0926 08:53:08.213449  4406 net.cpp:406] penlu21 <- Eltwise10
I0926 08:53:08.213452  4406 net.cpp:367] penlu21 -> Eltwise10 (in-place)
I0926 08:53:08.213558  4406 net.cpp:122] Setting up penlu21
I0926 08:53:08.213563  4406 net.cpp:129] Top shape: 100 32 14 14 (627200)
I0926 08:53:08.213565  4406 net.cpp:137] Memory required for data: 557894800
I0926 08:53:08.213569  4406 layer_factory.hpp:77] Creating layer Eltwise10_penlu21_0_split
I0926 08:53:08.213579  4406 net.cpp:84] Creating Layer Eltwise10_penlu21_0_split
I0926 08:53:08.213582  4406 net.cpp:406] Eltwise10_penlu21_0_split <- Eltwise10
I0926 08:53:08.213587  4406 net.cpp:380] Eltwise10_penlu21_0_split -> Eltwise10_penlu21_0_split_0
I0926 08:53:08.213591  4406 net.cpp:380] Eltwise10_penlu21_0_split -> Eltwise10_penlu21_0_split_1
I0926 08:53:08.213613  4406 net.cpp:122] Setting up Eltwise10_penlu21_0_split
I0926 08:53:08.213618  4406 net.cpp:129] Top shape: 100 32 14 14 (627200)
I0926 08:53:08.213620  4406 net.cpp:129] Top shape: 100 32 14 14 (627200)
I0926 08:53:08.213623  4406 net.cpp:137] Memory required for data: 562912400
I0926 08:53:08.213624  4406 layer_factory.hpp:77] Creating layer Convolution23
I0926 08:53:08.213630  4406 net.cpp:84] Creating Layer Convolution23
I0926 08:53:08.213634  4406 net.cpp:406] Convolution23 <- Eltwise10_penlu21_0_split_0
I0926 08:53:08.213637  4406 net.cpp:380] Convolution23 -> Convolution23
I0926 08:53:08.214962  4406 net.cpp:122] Setting up Convolution23
I0926 08:53:08.214970  4406 net.cpp:129] Top shape: 100 32 14 14 (627200)
I0926 08:53:08.214972  4406 net.cpp:137] Memory required for data: 565421200
I0926 08:53:08.214977  4406 layer_factory.hpp:77] Creating layer BatchNorm23
I0926 08:53:08.214982  4406 net.cpp:84] Creating Layer BatchNorm23
I0926 08:53:08.214985  4406 net.cpp:406] BatchNorm23 <- Convolution23
I0926 08:53:08.214988  4406 net.cpp:367] BatchNorm23 -> Convolution23 (in-place)
I0926 08:53:08.215124  4406 net.cpp:122] Setting up BatchNorm23
I0926 08:53:08.215129  4406 net.cpp:129] Top shape: 100 32 14 14 (627200)
I0926 08:53:08.215131  4406 net.cpp:137] Memory required for data: 567930000
I0926 08:53:08.215137  4406 layer_factory.hpp:77] Creating layer Scale23
I0926 08:53:08.215142  4406 net.cpp:84] Creating Layer Scale23
I0926 08:53:08.215143  4406 net.cpp:406] Scale23 <- Convolution23
I0926 08:53:08.215147  4406 net.cpp:367] Scale23 -> Convolution23 (in-place)
I0926 08:53:08.215173  4406 layer_factory.hpp:77] Creating layer Scale23
I0926 08:53:08.215248  4406 net.cpp:122] Setting up Scale23
I0926 08:53:08.215253  4406 net.cpp:129] Top shape: 100 32 14 14 (627200)
I0926 08:53:08.215255  4406 net.cpp:137] Memory required for data: 570438800
I0926 08:53:08.215260  4406 layer_factory.hpp:77] Creating layer penlu22
I0926 08:53:08.215265  4406 net.cpp:84] Creating Layer penlu22
I0926 08:53:08.215267  4406 net.cpp:406] penlu22 <- Convolution23
I0926 08:53:08.215271  4406 net.cpp:367] penlu22 -> Convolution23 (in-place)
I0926 08:53:08.215375  4406 net.cpp:122] Setting up penlu22
I0926 08:53:08.215380  4406 net.cpp:129] Top shape: 100 32 14 14 (627200)
I0926 08:53:08.215382  4406 net.cpp:137] Memory required for data: 572947600
I0926 08:53:08.215386  4406 layer_factory.hpp:77] Creating layer Convolution24
I0926 08:53:08.215392  4406 net.cpp:84] Creating Layer Convolution24
I0926 08:53:08.215394  4406 net.cpp:406] Convolution24 <- Convolution23
I0926 08:53:08.215399  4406 net.cpp:380] Convolution24 -> Convolution24
I0926 08:53:08.216431  4406 net.cpp:122] Setting up Convolution24
I0926 08:53:08.216440  4406 net.cpp:129] Top shape: 100 32 14 14 (627200)
I0926 08:53:08.216442  4406 net.cpp:137] Memory required for data: 575456400
I0926 08:53:08.216447  4406 layer_factory.hpp:77] Creating layer BatchNorm24
I0926 08:53:08.216454  4406 net.cpp:84] Creating Layer BatchNorm24
I0926 08:53:08.216455  4406 net.cpp:406] BatchNorm24 <- Convolution24
I0926 08:53:08.216459  4406 net.cpp:367] BatchNorm24 -> Convolution24 (in-place)
I0926 08:53:08.216621  4406 net.cpp:122] Setting up BatchNorm24
I0926 08:53:08.216626  4406 net.cpp:129] Top shape: 100 32 14 14 (627200)
I0926 08:53:08.216629  4406 net.cpp:137] Memory required for data: 577965200
I0926 08:53:08.216634  4406 layer_factory.hpp:77] Creating layer Scale24
I0926 08:53:08.216637  4406 net.cpp:84] Creating Layer Scale24
I0926 08:53:08.216639  4406 net.cpp:406] Scale24 <- Convolution24
I0926 08:53:08.216644  4406 net.cpp:367] Scale24 -> Convolution24 (in-place)
I0926 08:53:08.216677  4406 layer_factory.hpp:77] Creating layer Scale24
I0926 08:53:08.216755  4406 net.cpp:122] Setting up Scale24
I0926 08:53:08.216760  4406 net.cpp:129] Top shape: 100 32 14 14 (627200)
I0926 08:53:08.216763  4406 net.cpp:137] Memory required for data: 580474000
I0926 08:53:08.216766  4406 layer_factory.hpp:77] Creating layer Eltwise11
I0926 08:53:08.216770  4406 net.cpp:84] Creating Layer Eltwise11
I0926 08:53:08.216773  4406 net.cpp:406] Eltwise11 <- Eltwise10_penlu21_0_split_1
I0926 08:53:08.216775  4406 net.cpp:406] Eltwise11 <- Convolution24
I0926 08:53:08.216779  4406 net.cpp:380] Eltwise11 -> Eltwise11
I0926 08:53:08.216795  4406 net.cpp:122] Setting up Eltwise11
I0926 08:53:08.216799  4406 net.cpp:129] Top shape: 100 32 14 14 (627200)
I0926 08:53:08.216801  4406 net.cpp:137] Memory required for data: 582982800
I0926 08:53:08.216804  4406 layer_factory.hpp:77] Creating layer penlu23
I0926 08:53:08.216807  4406 net.cpp:84] Creating Layer penlu23
I0926 08:53:08.216810  4406 net.cpp:406] penlu23 <- Eltwise11
I0926 08:53:08.216814  4406 net.cpp:367] penlu23 -> Eltwise11 (in-place)
I0926 08:53:08.216920  4406 net.cpp:122] Setting up penlu23
I0926 08:53:08.216925  4406 net.cpp:129] Top shape: 100 32 14 14 (627200)
I0926 08:53:08.216928  4406 net.cpp:137] Memory required for data: 585491600
I0926 08:53:08.216931  4406 layer_factory.hpp:77] Creating layer Eltwise11_penlu23_0_split
I0926 08:53:08.216934  4406 net.cpp:84] Creating Layer Eltwise11_penlu23_0_split
I0926 08:53:08.216936  4406 net.cpp:406] Eltwise11_penlu23_0_split <- Eltwise11
I0926 08:53:08.216940  4406 net.cpp:380] Eltwise11_penlu23_0_split -> Eltwise11_penlu23_0_split_0
I0926 08:53:08.216944  4406 net.cpp:380] Eltwise11_penlu23_0_split -> Eltwise11_penlu23_0_split_1
I0926 08:53:08.216967  4406 net.cpp:122] Setting up Eltwise11_penlu23_0_split
I0926 08:53:08.216971  4406 net.cpp:129] Top shape: 100 32 14 14 (627200)
I0926 08:53:08.216974  4406 net.cpp:129] Top shape: 100 32 14 14 (627200)
I0926 08:53:08.216975  4406 net.cpp:137] Memory required for data: 590509200
I0926 08:53:08.216977  4406 layer_factory.hpp:77] Creating layer Convolution25
I0926 08:53:08.216984  4406 net.cpp:84] Creating Layer Convolution25
I0926 08:53:08.216986  4406 net.cpp:406] Convolution25 <- Eltwise11_penlu23_0_split_0
I0926 08:53:08.216990  4406 net.cpp:380] Convolution25 -> Convolution25
I0926 08:53:08.218021  4406 net.cpp:122] Setting up Convolution25
I0926 08:53:08.218031  4406 net.cpp:129] Top shape: 100 32 14 14 (627200)
I0926 08:53:08.218034  4406 net.cpp:137] Memory required for data: 593018000
I0926 08:53:08.218039  4406 layer_factory.hpp:77] Creating layer BatchNorm25
I0926 08:53:08.218042  4406 net.cpp:84] Creating Layer BatchNorm25
I0926 08:53:08.218045  4406 net.cpp:406] BatchNorm25 <- Convolution25
I0926 08:53:08.218050  4406 net.cpp:367] BatchNorm25 -> Convolution25 (in-place)
I0926 08:53:08.218185  4406 net.cpp:122] Setting up BatchNorm25
I0926 08:53:08.218189  4406 net.cpp:129] Top shape: 100 32 14 14 (627200)
I0926 08:53:08.218191  4406 net.cpp:137] Memory required for data: 595526800
I0926 08:53:08.218196  4406 layer_factory.hpp:77] Creating layer Scale25
I0926 08:53:08.218200  4406 net.cpp:84] Creating Layer Scale25
I0926 08:53:08.218202  4406 net.cpp:406] Scale25 <- Convolution25
I0926 08:53:08.218206  4406 net.cpp:367] Scale25 -> Convolution25 (in-place)
I0926 08:53:08.218233  4406 layer_factory.hpp:77] Creating layer Scale25
I0926 08:53:08.218309  4406 net.cpp:122] Setting up Scale25
I0926 08:53:08.218314  4406 net.cpp:129] Top shape: 100 32 14 14 (627200)
I0926 08:53:08.218317  4406 net.cpp:137] Memory required for data: 598035600
I0926 08:53:08.218320  4406 layer_factory.hpp:77] Creating layer penlu24
I0926 08:53:08.218324  4406 net.cpp:84] Creating Layer penlu24
I0926 08:53:08.218327  4406 net.cpp:406] penlu24 <- Convolution25
I0926 08:53:08.218330  4406 net.cpp:367] penlu24 -> Convolution25 (in-place)
I0926 08:53:08.218437  4406 net.cpp:122] Setting up penlu24
I0926 08:53:08.218441  4406 net.cpp:129] Top shape: 100 32 14 14 (627200)
I0926 08:53:08.218451  4406 net.cpp:137] Memory required for data: 600544400
I0926 08:53:08.218454  4406 layer_factory.hpp:77] Creating layer Convolution26
I0926 08:53:08.218461  4406 net.cpp:84] Creating Layer Convolution26
I0926 08:53:08.218464  4406 net.cpp:406] Convolution26 <- Convolution25
I0926 08:53:08.218468  4406 net.cpp:380] Convolution26 -> Convolution26
I0926 08:53:08.219501  4406 net.cpp:122] Setting up Convolution26
I0926 08:53:08.219509  4406 net.cpp:129] Top shape: 100 32 14 14 (627200)
I0926 08:53:08.219512  4406 net.cpp:137] Memory required for data: 603053200
I0926 08:53:08.219516  4406 layer_factory.hpp:77] Creating layer BatchNorm26
I0926 08:53:08.219521  4406 net.cpp:84] Creating Layer BatchNorm26
I0926 08:53:08.219524  4406 net.cpp:406] BatchNorm26 <- Convolution26
I0926 08:53:08.219528  4406 net.cpp:367] BatchNorm26 -> Convolution26 (in-place)
I0926 08:53:08.219666  4406 net.cpp:122] Setting up BatchNorm26
I0926 08:53:08.219669  4406 net.cpp:129] Top shape: 100 32 14 14 (627200)
I0926 08:53:08.219671  4406 net.cpp:137] Memory required for data: 605562000
I0926 08:53:08.219676  4406 layer_factory.hpp:77] Creating layer Scale26
I0926 08:53:08.219681  4406 net.cpp:84] Creating Layer Scale26
I0926 08:53:08.219682  4406 net.cpp:406] Scale26 <- Convolution26
I0926 08:53:08.219686  4406 net.cpp:367] Scale26 -> Convolution26 (in-place)
I0926 08:53:08.219712  4406 layer_factory.hpp:77] Creating layer Scale26
I0926 08:53:08.219790  4406 net.cpp:122] Setting up Scale26
I0926 08:53:08.219795  4406 net.cpp:129] Top shape: 100 32 14 14 (627200)
I0926 08:53:08.219797  4406 net.cpp:137] Memory required for data: 608070800
I0926 08:53:08.219801  4406 layer_factory.hpp:77] Creating layer Eltwise12
I0926 08:53:08.219805  4406 net.cpp:84] Creating Layer Eltwise12
I0926 08:53:08.219807  4406 net.cpp:406] Eltwise12 <- Eltwise11_penlu23_0_split_1
I0926 08:53:08.219810  4406 net.cpp:406] Eltwise12 <- Convolution26
I0926 08:53:08.219813  4406 net.cpp:380] Eltwise12 -> Eltwise12
I0926 08:53:08.219830  4406 net.cpp:122] Setting up Eltwise12
I0926 08:53:08.219833  4406 net.cpp:129] Top shape: 100 32 14 14 (627200)
I0926 08:53:08.219835  4406 net.cpp:137] Memory required for data: 610579600
I0926 08:53:08.219837  4406 layer_factory.hpp:77] Creating layer penlu25
I0926 08:53:08.219842  4406 net.cpp:84] Creating Layer penlu25
I0926 08:53:08.219846  4406 net.cpp:406] penlu25 <- Eltwise12
I0926 08:53:08.219848  4406 net.cpp:367] penlu25 -> Eltwise12 (in-place)
I0926 08:53:08.219959  4406 net.cpp:122] Setting up penlu25
I0926 08:53:08.219964  4406 net.cpp:129] Top shape: 100 32 14 14 (627200)
I0926 08:53:08.219966  4406 net.cpp:137] Memory required for data: 613088400
I0926 08:53:08.219990  4406 layer_factory.hpp:77] Creating layer Eltwise12_penlu25_0_split
I0926 08:53:08.220000  4406 net.cpp:84] Creating Layer Eltwise12_penlu25_0_split
I0926 08:53:08.220003  4406 net.cpp:406] Eltwise12_penlu25_0_split <- Eltwise12
I0926 08:53:08.220006  4406 net.cpp:380] Eltwise12_penlu25_0_split -> Eltwise12_penlu25_0_split_0
I0926 08:53:08.220015  4406 net.cpp:380] Eltwise12_penlu25_0_split -> Eltwise12_penlu25_0_split_1
I0926 08:53:08.220039  4406 net.cpp:122] Setting up Eltwise12_penlu25_0_split
I0926 08:53:08.220044  4406 net.cpp:129] Top shape: 100 32 14 14 (627200)
I0926 08:53:08.220046  4406 net.cpp:129] Top shape: 100 32 14 14 (627200)
I0926 08:53:08.220048  4406 net.cpp:137] Memory required for data: 618106000
I0926 08:53:08.220052  4406 layer_factory.hpp:77] Creating layer Convolution27
I0926 08:53:08.220057  4406 net.cpp:84] Creating Layer Convolution27
I0926 08:53:08.220060  4406 net.cpp:406] Convolution27 <- Eltwise12_penlu25_0_split_0
I0926 08:53:08.220064  4406 net.cpp:380] Convolution27 -> Convolution27
I0926 08:53:08.220780  4406 net.cpp:122] Setting up Convolution27
I0926 08:53:08.220788  4406 net.cpp:129] Top shape: 100 32 14 14 (627200)
I0926 08:53:08.220790  4406 net.cpp:137] Memory required for data: 620614800
I0926 08:53:08.220795  4406 layer_factory.hpp:77] Creating layer BatchNorm27
I0926 08:53:08.220799  4406 net.cpp:84] Creating Layer BatchNorm27
I0926 08:53:08.220808  4406 net.cpp:406] BatchNorm27 <- Convolution27
I0926 08:53:08.220813  4406 net.cpp:367] BatchNorm27 -> Convolution27 (in-place)
I0926 08:53:08.220950  4406 net.cpp:122] Setting up BatchNorm27
I0926 08:53:08.220955  4406 net.cpp:129] Top shape: 100 32 14 14 (627200)
I0926 08:53:08.220957  4406 net.cpp:137] Memory required for data: 623123600
I0926 08:53:08.220963  4406 layer_factory.hpp:77] Creating layer Scale27
I0926 08:53:08.220966  4406 net.cpp:84] Creating Layer Scale27
I0926 08:53:08.220968  4406 net.cpp:406] Scale27 <- Convolution27
I0926 08:53:08.220973  4406 net.cpp:367] Scale27 -> Convolution27 (in-place)
I0926 08:53:08.220999  4406 layer_factory.hpp:77] Creating layer Scale27
I0926 08:53:08.221076  4406 net.cpp:122] Setting up Scale27
I0926 08:53:08.221079  4406 net.cpp:129] Top shape: 100 32 14 14 (627200)
I0926 08:53:08.221082  4406 net.cpp:137] Memory required for data: 625632400
I0926 08:53:08.221086  4406 layer_factory.hpp:77] Creating layer penlu26
I0926 08:53:08.221091  4406 net.cpp:84] Creating Layer penlu26
I0926 08:53:08.221093  4406 net.cpp:406] penlu26 <- Convolution27
I0926 08:53:08.221097  4406 net.cpp:367] penlu26 -> Convolution27 (in-place)
I0926 08:53:08.221204  4406 net.cpp:122] Setting up penlu26
I0926 08:53:08.221210  4406 net.cpp:129] Top shape: 100 32 14 14 (627200)
I0926 08:53:08.221211  4406 net.cpp:137] Memory required for data: 628141200
I0926 08:53:08.221215  4406 layer_factory.hpp:77] Creating layer Convolution28
I0926 08:53:08.221221  4406 net.cpp:84] Creating Layer Convolution28
I0926 08:53:08.221225  4406 net.cpp:406] Convolution28 <- Convolution27
I0926 08:53:08.221228  4406 net.cpp:380] Convolution28 -> Convolution28
I0926 08:53:08.222249  4406 net.cpp:122] Setting up Convolution28
I0926 08:53:08.222259  4406 net.cpp:129] Top shape: 100 32 14 14 (627200)
I0926 08:53:08.222260  4406 net.cpp:137] Memory required for data: 630650000
I0926 08:53:08.222265  4406 layer_factory.hpp:77] Creating layer BatchNorm28
I0926 08:53:08.222270  4406 net.cpp:84] Creating Layer BatchNorm28
I0926 08:53:08.222272  4406 net.cpp:406] BatchNorm28 <- Convolution28
I0926 08:53:08.222276  4406 net.cpp:367] BatchNorm28 -> Convolution28 (in-place)
I0926 08:53:08.222414  4406 net.cpp:122] Setting up BatchNorm28
I0926 08:53:08.222419  4406 net.cpp:129] Top shape: 100 32 14 14 (627200)
I0926 08:53:08.222420  4406 net.cpp:137] Memory required for data: 633158800
I0926 08:53:08.222425  4406 layer_factory.hpp:77] Creating layer Scale28
I0926 08:53:08.222429  4406 net.cpp:84] Creating Layer Scale28
I0926 08:53:08.222431  4406 net.cpp:406] Scale28 <- Convolution28
I0926 08:53:08.222434  4406 net.cpp:367] Scale28 -> Convolution28 (in-place)
I0926 08:53:08.222462  4406 layer_factory.hpp:77] Creating layer Scale28
I0926 08:53:08.222540  4406 net.cpp:122] Setting up Scale28
I0926 08:53:08.222545  4406 net.cpp:129] Top shape: 100 32 14 14 (627200)
I0926 08:53:08.222548  4406 net.cpp:137] Memory required for data: 635667600
I0926 08:53:08.222551  4406 layer_factory.hpp:77] Creating layer Eltwise13
I0926 08:53:08.222555  4406 net.cpp:84] Creating Layer Eltwise13
I0926 08:53:08.222558  4406 net.cpp:406] Eltwise13 <- Eltwise12_penlu25_0_split_1
I0926 08:53:08.222560  4406 net.cpp:406] Eltwise13 <- Convolution28
I0926 08:53:08.222563  4406 net.cpp:380] Eltwise13 -> Eltwise13
I0926 08:53:08.222580  4406 net.cpp:122] Setting up Eltwise13
I0926 08:53:08.222584  4406 net.cpp:129] Top shape: 100 32 14 14 (627200)
I0926 08:53:08.222586  4406 net.cpp:137] Memory required for data: 638176400
I0926 08:53:08.222589  4406 layer_factory.hpp:77] Creating layer penlu27
I0926 08:53:08.222594  4406 net.cpp:84] Creating Layer penlu27
I0926 08:53:08.222595  4406 net.cpp:406] penlu27 <- Eltwise13
I0926 08:53:08.222599  4406 net.cpp:367] penlu27 -> Eltwise13 (in-place)
I0926 08:53:08.222708  4406 net.cpp:122] Setting up penlu27
I0926 08:53:08.222712  4406 net.cpp:129] Top shape: 100 32 14 14 (627200)
I0926 08:53:08.222714  4406 net.cpp:137] Memory required for data: 640685200
I0926 08:53:08.222718  4406 layer_factory.hpp:77] Creating layer Eltwise13_penlu27_0_split
I0926 08:53:08.222728  4406 net.cpp:84] Creating Layer Eltwise13_penlu27_0_split
I0926 08:53:08.222731  4406 net.cpp:406] Eltwise13_penlu27_0_split <- Eltwise13
I0926 08:53:08.222735  4406 net.cpp:380] Eltwise13_penlu27_0_split -> Eltwise13_penlu27_0_split_0
I0926 08:53:08.222739  4406 net.cpp:380] Eltwise13_penlu27_0_split -> Eltwise13_penlu27_0_split_1
I0926 08:53:08.222764  4406 net.cpp:122] Setting up Eltwise13_penlu27_0_split
I0926 08:53:08.222767  4406 net.cpp:129] Top shape: 100 32 14 14 (627200)
I0926 08:53:08.222769  4406 net.cpp:129] Top shape: 100 32 14 14 (627200)
I0926 08:53:08.222771  4406 net.cpp:137] Memory required for data: 645702800
I0926 08:53:08.222774  4406 layer_factory.hpp:77] Creating layer Convolution29
I0926 08:53:08.222779  4406 net.cpp:84] Creating Layer Convolution29
I0926 08:53:08.222781  4406 net.cpp:406] Convolution29 <- Eltwise13_penlu27_0_split_0
I0926 08:53:08.222786  4406 net.cpp:380] Convolution29 -> Convolution29
I0926 08:53:08.223819  4406 net.cpp:122] Setting up Convolution29
I0926 08:53:08.223826  4406 net.cpp:129] Top shape: 100 32 14 14 (627200)
I0926 08:53:08.223829  4406 net.cpp:137] Memory required for data: 648211600
I0926 08:53:08.223834  4406 layer_factory.hpp:77] Creating layer BatchNorm29
I0926 08:53:08.223839  4406 net.cpp:84] Creating Layer BatchNorm29
I0926 08:53:08.223841  4406 net.cpp:406] BatchNorm29 <- Convolution29
I0926 08:53:08.223845  4406 net.cpp:367] BatchNorm29 -> Convolution29 (in-place)
I0926 08:53:08.223981  4406 net.cpp:122] Setting up BatchNorm29
I0926 08:53:08.223985  4406 net.cpp:129] Top shape: 100 32 14 14 (627200)
I0926 08:53:08.223989  4406 net.cpp:137] Memory required for data: 650720400
I0926 08:53:08.223992  4406 layer_factory.hpp:77] Creating layer Scale29
I0926 08:53:08.223996  4406 net.cpp:84] Creating Layer Scale29
I0926 08:53:08.223999  4406 net.cpp:406] Scale29 <- Convolution29
I0926 08:53:08.224002  4406 net.cpp:367] Scale29 -> Convolution29 (in-place)
I0926 08:53:08.224030  4406 layer_factory.hpp:77] Creating layer Scale29
I0926 08:53:08.224107  4406 net.cpp:122] Setting up Scale29
I0926 08:53:08.224112  4406 net.cpp:129] Top shape: 100 32 14 14 (627200)
I0926 08:53:08.224114  4406 net.cpp:137] Memory required for data: 653229200
I0926 08:53:08.224117  4406 layer_factory.hpp:77] Creating layer penlu28
I0926 08:53:08.224123  4406 net.cpp:84] Creating Layer penlu28
I0926 08:53:08.224124  4406 net.cpp:406] penlu28 <- Convolution29
I0926 08:53:08.224128  4406 net.cpp:367] penlu28 -> Convolution29 (in-place)
I0926 08:53:08.224238  4406 net.cpp:122] Setting up penlu28
I0926 08:53:08.224242  4406 net.cpp:129] Top shape: 100 32 14 14 (627200)
I0926 08:53:08.224244  4406 net.cpp:137] Memory required for data: 655738000
I0926 08:53:08.224248  4406 layer_factory.hpp:77] Creating layer Convolution30
I0926 08:53:08.224256  4406 net.cpp:84] Creating Layer Convolution30
I0926 08:53:08.224257  4406 net.cpp:406] Convolution30 <- Convolution29
I0926 08:53:08.224262  4406 net.cpp:380] Convolution30 -> Convolution30
I0926 08:53:08.225298  4406 net.cpp:122] Setting up Convolution30
I0926 08:53:08.225307  4406 net.cpp:129] Top shape: 100 32 14 14 (627200)
I0926 08:53:08.225311  4406 net.cpp:137] Memory required for data: 658246800
I0926 08:53:08.225314  4406 layer_factory.hpp:77] Creating layer BatchNorm30
I0926 08:53:08.225319  4406 net.cpp:84] Creating Layer BatchNorm30
I0926 08:53:08.225322  4406 net.cpp:406] BatchNorm30 <- Convolution30
I0926 08:53:08.225327  4406 net.cpp:367] BatchNorm30 -> Convolution30 (in-place)
I0926 08:53:08.225461  4406 net.cpp:122] Setting up BatchNorm30
I0926 08:53:08.225466  4406 net.cpp:129] Top shape: 100 32 14 14 (627200)
I0926 08:53:08.225467  4406 net.cpp:137] Memory required for data: 660755600
I0926 08:53:08.225472  4406 layer_factory.hpp:77] Creating layer Scale30
I0926 08:53:08.225476  4406 net.cpp:84] Creating Layer Scale30
I0926 08:53:08.225478  4406 net.cpp:406] Scale30 <- Convolution30
I0926 08:53:08.225481  4406 net.cpp:367] Scale30 -> Convolution30 (in-place)
I0926 08:53:08.225518  4406 layer_factory.hpp:77] Creating layer Scale30
I0926 08:53:08.225596  4406 net.cpp:122] Setting up Scale30
I0926 08:53:08.225601  4406 net.cpp:129] Top shape: 100 32 14 14 (627200)
I0926 08:53:08.225603  4406 net.cpp:137] Memory required for data: 663264400
I0926 08:53:08.225607  4406 layer_factory.hpp:77] Creating layer Eltwise14
I0926 08:53:08.225611  4406 net.cpp:84] Creating Layer Eltwise14
I0926 08:53:08.225615  4406 net.cpp:406] Eltwise14 <- Eltwise13_penlu27_0_split_1
I0926 08:53:08.225617  4406 net.cpp:406] Eltwise14 <- Convolution30
I0926 08:53:08.225620  4406 net.cpp:380] Eltwise14 -> Eltwise14
I0926 08:53:08.225636  4406 net.cpp:122] Setting up Eltwise14
I0926 08:53:08.225639  4406 net.cpp:129] Top shape: 100 32 14 14 (627200)
I0926 08:53:08.225641  4406 net.cpp:137] Memory required for data: 665773200
I0926 08:53:08.225643  4406 layer_factory.hpp:77] Creating layer penlu29
I0926 08:53:08.225649  4406 net.cpp:84] Creating Layer penlu29
I0926 08:53:08.225651  4406 net.cpp:406] penlu29 <- Eltwise14
I0926 08:53:08.225654  4406 net.cpp:367] penlu29 -> Eltwise14 (in-place)
I0926 08:53:08.225764  4406 net.cpp:122] Setting up penlu29
I0926 08:53:08.225767  4406 net.cpp:129] Top shape: 100 32 14 14 (627200)
I0926 08:53:08.225769  4406 net.cpp:137] Memory required for data: 668282000
I0926 08:53:08.225774  4406 layer_factory.hpp:77] Creating layer Eltwise14_penlu29_0_split
I0926 08:53:08.225777  4406 net.cpp:84] Creating Layer Eltwise14_penlu29_0_split
I0926 08:53:08.225780  4406 net.cpp:406] Eltwise14_penlu29_0_split <- Eltwise14
I0926 08:53:08.225783  4406 net.cpp:380] Eltwise14_penlu29_0_split -> Eltwise14_penlu29_0_split_0
I0926 08:53:08.225787  4406 net.cpp:380] Eltwise14_penlu29_0_split -> Eltwise14_penlu29_0_split_1
I0926 08:53:08.225810  4406 net.cpp:122] Setting up Eltwise14_penlu29_0_split
I0926 08:53:08.225813  4406 net.cpp:129] Top shape: 100 32 14 14 (627200)
I0926 08:53:08.225816  4406 net.cpp:129] Top shape: 100 32 14 14 (627200)
I0926 08:53:08.225818  4406 net.cpp:137] Memory required for data: 673299600
I0926 08:53:08.225821  4406 layer_factory.hpp:77] Creating layer Convolution31
I0926 08:53:08.225826  4406 net.cpp:84] Creating Layer Convolution31
I0926 08:53:08.225829  4406 net.cpp:406] Convolution31 <- Eltwise14_penlu29_0_split_0
I0926 08:53:08.225833  4406 net.cpp:380] Convolution31 -> Convolution31
I0926 08:53:08.226868  4406 net.cpp:122] Setting up Convolution31
I0926 08:53:08.226876  4406 net.cpp:129] Top shape: 100 32 14 14 (627200)
I0926 08:53:08.226879  4406 net.cpp:137] Memory required for data: 675808400
I0926 08:53:08.226883  4406 layer_factory.hpp:77] Creating layer BatchNorm31
I0926 08:53:08.226888  4406 net.cpp:84] Creating Layer BatchNorm31
I0926 08:53:08.226891  4406 net.cpp:406] BatchNorm31 <- Convolution31
I0926 08:53:08.226896  4406 net.cpp:367] BatchNorm31 -> Convolution31 (in-place)
I0926 08:53:08.227032  4406 net.cpp:122] Setting up BatchNorm31
I0926 08:53:08.227036  4406 net.cpp:129] Top shape: 100 32 14 14 (627200)
I0926 08:53:08.227039  4406 net.cpp:137] Memory required for data: 678317200
I0926 08:53:08.227043  4406 layer_factory.hpp:77] Creating layer Scale31
I0926 08:53:08.227047  4406 net.cpp:84] Creating Layer Scale31
I0926 08:53:08.227051  4406 net.cpp:406] Scale31 <- Convolution31
I0926 08:53:08.227053  4406 net.cpp:367] Scale31 -> Convolution31 (in-place)
I0926 08:53:08.227080  4406 layer_factory.hpp:77] Creating layer Scale31
I0926 08:53:08.227159  4406 net.cpp:122] Setting up Scale31
I0926 08:53:08.227164  4406 net.cpp:129] Top shape: 100 32 14 14 (627200)
I0926 08:53:08.227166  4406 net.cpp:137] Memory required for data: 680826000
I0926 08:53:08.227170  4406 layer_factory.hpp:77] Creating layer penlu30
I0926 08:53:08.227175  4406 net.cpp:84] Creating Layer penlu30
I0926 08:53:08.227179  4406 net.cpp:406] penlu30 <- Convolution31
I0926 08:53:08.227181  4406 net.cpp:367] penlu30 -> Convolution31 (in-place)
I0926 08:53:08.227291  4406 net.cpp:122] Setting up penlu30
I0926 08:53:08.227295  4406 net.cpp:129] Top shape: 100 32 14 14 (627200)
I0926 08:53:08.227303  4406 net.cpp:137] Memory required for data: 683334800
I0926 08:53:08.227308  4406 layer_factory.hpp:77] Creating layer Convolution32
I0926 08:53:08.227316  4406 net.cpp:84] Creating Layer Convolution32
I0926 08:53:08.227319  4406 net.cpp:406] Convolution32 <- Convolution31
I0926 08:53:08.227322  4406 net.cpp:380] Convolution32 -> Convolution32
I0926 08:53:08.228361  4406 net.cpp:122] Setting up Convolution32
I0926 08:53:08.228370  4406 net.cpp:129] Top shape: 100 32 14 14 (627200)
I0926 08:53:08.228373  4406 net.cpp:137] Memory required for data: 685843600
I0926 08:53:08.228376  4406 layer_factory.hpp:77] Creating layer BatchNorm32
I0926 08:53:08.228381  4406 net.cpp:84] Creating Layer BatchNorm32
I0926 08:53:08.228385  4406 net.cpp:406] BatchNorm32 <- Convolution32
I0926 08:53:08.228389  4406 net.cpp:367] BatchNorm32 -> Convolution32 (in-place)
I0926 08:53:08.228530  4406 net.cpp:122] Setting up BatchNorm32
I0926 08:53:08.228535  4406 net.cpp:129] Top shape: 100 32 14 14 (627200)
I0926 08:53:08.228538  4406 net.cpp:137] Memory required for data: 688352400
I0926 08:53:08.228543  4406 layer_factory.hpp:77] Creating layer Scale32
I0926 08:53:08.228549  4406 net.cpp:84] Creating Layer Scale32
I0926 08:53:08.228550  4406 net.cpp:406] Scale32 <- Convolution32
I0926 08:53:08.228554  4406 net.cpp:367] Scale32 -> Convolution32 (in-place)
I0926 08:53:08.228580  4406 layer_factory.hpp:77] Creating layer Scale32
I0926 08:53:08.228660  4406 net.cpp:122] Setting up Scale32
I0926 08:53:08.228664  4406 net.cpp:129] Top shape: 100 32 14 14 (627200)
I0926 08:53:08.228667  4406 net.cpp:137] Memory required for data: 690861200
I0926 08:53:08.228670  4406 layer_factory.hpp:77] Creating layer Eltwise15
I0926 08:53:08.228674  4406 net.cpp:84] Creating Layer Eltwise15
I0926 08:53:08.228677  4406 net.cpp:406] Eltwise15 <- Eltwise14_penlu29_0_split_1
I0926 08:53:08.228679  4406 net.cpp:406] Eltwise15 <- Convolution32
I0926 08:53:08.228683  4406 net.cpp:380] Eltwise15 -> Eltwise15
I0926 08:53:08.228700  4406 net.cpp:122] Setting up Eltwise15
I0926 08:53:08.228703  4406 net.cpp:129] Top shape: 100 32 14 14 (627200)
I0926 08:53:08.228705  4406 net.cpp:137] Memory required for data: 693370000
I0926 08:53:08.228708  4406 layer_factory.hpp:77] Creating layer penlu31
I0926 08:53:08.228713  4406 net.cpp:84] Creating Layer penlu31
I0926 08:53:08.228715  4406 net.cpp:406] penlu31 <- Eltwise15
I0926 08:53:08.228718  4406 net.cpp:367] penlu31 -> Eltwise15 (in-place)
I0926 08:53:08.228828  4406 net.cpp:122] Setting up penlu31
I0926 08:53:08.228833  4406 net.cpp:129] Top shape: 100 32 14 14 (627200)
I0926 08:53:08.228835  4406 net.cpp:137] Memory required for data: 695878800
I0926 08:53:08.228839  4406 layer_factory.hpp:77] Creating layer Eltwise15_penlu31_0_split
I0926 08:53:08.228842  4406 net.cpp:84] Creating Layer Eltwise15_penlu31_0_split
I0926 08:53:08.228845  4406 net.cpp:406] Eltwise15_penlu31_0_split <- Eltwise15
I0926 08:53:08.228850  4406 net.cpp:380] Eltwise15_penlu31_0_split -> Eltwise15_penlu31_0_split_0
I0926 08:53:08.228854  4406 net.cpp:380] Eltwise15_penlu31_0_split -> Eltwise15_penlu31_0_split_1
I0926 08:53:08.228878  4406 net.cpp:122] Setting up Eltwise15_penlu31_0_split
I0926 08:53:08.228881  4406 net.cpp:129] Top shape: 100 32 14 14 (627200)
I0926 08:53:08.228883  4406 net.cpp:129] Top shape: 100 32 14 14 (627200)
I0926 08:53:08.228885  4406 net.cpp:137] Memory required for data: 700896400
I0926 08:53:08.228888  4406 layer_factory.hpp:77] Creating layer Convolution33
I0926 08:53:08.228894  4406 net.cpp:84] Creating Layer Convolution33
I0926 08:53:08.228898  4406 net.cpp:406] Convolution33 <- Eltwise15_penlu31_0_split_0
I0926 08:53:08.228901  4406 net.cpp:380] Convolution33 -> Convolution33
I0926 08:53:08.230247  4406 net.cpp:122] Setting up Convolution33
I0926 08:53:08.230255  4406 net.cpp:129] Top shape: 100 32 14 14 (627200)
I0926 08:53:08.230258  4406 net.cpp:137] Memory required for data: 703405200
I0926 08:53:08.230263  4406 layer_factory.hpp:77] Creating layer BatchNorm33
I0926 08:53:08.230268  4406 net.cpp:84] Creating Layer BatchNorm33
I0926 08:53:08.230276  4406 net.cpp:406] BatchNorm33 <- Convolution33
I0926 08:53:08.230281  4406 net.cpp:367] BatchNorm33 -> Convolution33 (in-place)
I0926 08:53:08.230424  4406 net.cpp:122] Setting up BatchNorm33
I0926 08:53:08.230429  4406 net.cpp:129] Top shape: 100 32 14 14 (627200)
I0926 08:53:08.230432  4406 net.cpp:137] Memory required for data: 705914000
I0926 08:53:08.230437  4406 layer_factory.hpp:77] Creating layer Scale33
I0926 08:53:08.230440  4406 net.cpp:84] Creating Layer Scale33
I0926 08:53:08.230443  4406 net.cpp:406] Scale33 <- Convolution33
I0926 08:53:08.230446  4406 net.cpp:367] Scale33 -> Convolution33 (in-place)
I0926 08:53:08.230473  4406 layer_factory.hpp:77] Creating layer Scale33
I0926 08:53:08.230553  4406 net.cpp:122] Setting up Scale33
I0926 08:53:08.230557  4406 net.cpp:129] Top shape: 100 32 14 14 (627200)
I0926 08:53:08.230559  4406 net.cpp:137] Memory required for data: 708422800
I0926 08:53:08.230563  4406 layer_factory.hpp:77] Creating layer penlu32
I0926 08:53:08.230568  4406 net.cpp:84] Creating Layer penlu32
I0926 08:53:08.230571  4406 net.cpp:406] penlu32 <- Convolution33
I0926 08:53:08.230574  4406 net.cpp:367] penlu32 -> Convolution33 (in-place)
I0926 08:53:08.230685  4406 net.cpp:122] Setting up penlu32
I0926 08:53:08.230690  4406 net.cpp:129] Top shape: 100 32 14 14 (627200)
I0926 08:53:08.230691  4406 net.cpp:137] Memory required for data: 710931600
I0926 08:53:08.230695  4406 layer_factory.hpp:77] Creating layer Convolution34
I0926 08:53:08.230702  4406 net.cpp:84] Creating Layer Convolution34
I0926 08:53:08.230705  4406 net.cpp:406] Convolution34 <- Convolution33
I0926 08:53:08.230710  4406 net.cpp:380] Convolution34 -> Convolution34
I0926 08:53:08.231755  4406 net.cpp:122] Setting up Convolution34
I0926 08:53:08.231762  4406 net.cpp:129] Top shape: 100 32 14 14 (627200)
I0926 08:53:08.231765  4406 net.cpp:137] Memory required for data: 713440400
I0926 08:53:08.231770  4406 layer_factory.hpp:77] Creating layer BatchNorm34
I0926 08:53:08.231775  4406 net.cpp:84] Creating Layer BatchNorm34
I0926 08:53:08.231777  4406 net.cpp:406] BatchNorm34 <- Convolution34
I0926 08:53:08.231782  4406 net.cpp:367] BatchNorm34 -> Convolution34 (in-place)
I0926 08:53:08.231920  4406 net.cpp:122] Setting up BatchNorm34
I0926 08:53:08.231925  4406 net.cpp:129] Top shape: 100 32 14 14 (627200)
I0926 08:53:08.231927  4406 net.cpp:137] Memory required for data: 715949200
I0926 08:53:08.231931  4406 layer_factory.hpp:77] Creating layer Scale34
I0926 08:53:08.231935  4406 net.cpp:84] Creating Layer Scale34
I0926 08:53:08.231938  4406 net.cpp:406] Scale34 <- Convolution34
I0926 08:53:08.231941  4406 net.cpp:367] Scale34 -> Convolution34 (in-place)
I0926 08:53:08.231967  4406 layer_factory.hpp:77] Creating layer Scale34
I0926 08:53:08.232048  4406 net.cpp:122] Setting up Scale34
I0926 08:53:08.232051  4406 net.cpp:129] Top shape: 100 32 14 14 (627200)
I0926 08:53:08.232053  4406 net.cpp:137] Memory required for data: 718458000
I0926 08:53:08.232058  4406 layer_factory.hpp:77] Creating layer Eltwise16
I0926 08:53:08.232061  4406 net.cpp:84] Creating Layer Eltwise16
I0926 08:53:08.232064  4406 net.cpp:406] Eltwise16 <- Eltwise15_penlu31_0_split_1
I0926 08:53:08.232066  4406 net.cpp:406] Eltwise16 <- Convolution34
I0926 08:53:08.232069  4406 net.cpp:380] Eltwise16 -> Eltwise16
I0926 08:53:08.232087  4406 net.cpp:122] Setting up Eltwise16
I0926 08:53:08.232090  4406 net.cpp:129] Top shape: 100 32 14 14 (627200)
I0926 08:53:08.232092  4406 net.cpp:137] Memory required for data: 720966800
I0926 08:53:08.232095  4406 layer_factory.hpp:77] Creating layer penlu33
I0926 08:53:08.232100  4406 net.cpp:84] Creating Layer penlu33
I0926 08:53:08.232102  4406 net.cpp:406] penlu33 <- Eltwise16
I0926 08:53:08.232106  4406 net.cpp:367] penlu33 -> Eltwise16 (in-place)
I0926 08:53:08.232215  4406 net.cpp:122] Setting up penlu33
I0926 08:53:08.232219  4406 net.cpp:129] Top shape: 100 32 14 14 (627200)
I0926 08:53:08.232221  4406 net.cpp:137] Memory required for data: 723475600
I0926 08:53:08.232234  4406 layer_factory.hpp:77] Creating layer Eltwise16_penlu33_0_split
I0926 08:53:08.232237  4406 net.cpp:84] Creating Layer Eltwise16_penlu33_0_split
I0926 08:53:08.232239  4406 net.cpp:406] Eltwise16_penlu33_0_split <- Eltwise16
I0926 08:53:08.232242  4406 net.cpp:380] Eltwise16_penlu33_0_split -> Eltwise16_penlu33_0_split_0
I0926 08:53:08.232246  4406 net.cpp:380] Eltwise16_penlu33_0_split -> Eltwise16_penlu33_0_split_1
I0926 08:53:08.232271  4406 net.cpp:122] Setting up Eltwise16_penlu33_0_split
I0926 08:53:08.232275  4406 net.cpp:129] Top shape: 100 32 14 14 (627200)
I0926 08:53:08.232278  4406 net.cpp:129] Top shape: 100 32 14 14 (627200)
I0926 08:53:08.232280  4406 net.cpp:137] Memory required for data: 728493200
I0926 08:53:08.232282  4406 layer_factory.hpp:77] Creating layer Convolution35
I0926 08:53:08.232287  4406 net.cpp:84] Creating Layer Convolution35
I0926 08:53:08.232290  4406 net.cpp:406] Convolution35 <- Eltwise16_penlu33_0_split_0
I0926 08:53:08.232295  4406 net.cpp:380] Convolution35 -> Convolution35
I0926 08:53:08.233338  4406 net.cpp:122] Setting up Convolution35
I0926 08:53:08.233347  4406 net.cpp:129] Top shape: 100 32 14 14 (627200)
I0926 08:53:08.233350  4406 net.cpp:137] Memory required for data: 731002000
I0926 08:53:08.233355  4406 layer_factory.hpp:77] Creating layer BatchNorm35
I0926 08:53:08.233359  4406 net.cpp:84] Creating Layer BatchNorm35
I0926 08:53:08.233362  4406 net.cpp:406] BatchNorm35 <- Convolution35
I0926 08:53:08.233366  4406 net.cpp:367] BatchNorm35 -> Convolution35 (in-place)
I0926 08:53:08.233506  4406 net.cpp:122] Setting up BatchNorm35
I0926 08:53:08.233511  4406 net.cpp:129] Top shape: 100 32 14 14 (627200)
I0926 08:53:08.233513  4406 net.cpp:137] Memory required for data: 733510800
I0926 08:53:08.233518  4406 layer_factory.hpp:77] Creating layer Scale35
I0926 08:53:08.233522  4406 net.cpp:84] Creating Layer Scale35
I0926 08:53:08.233525  4406 net.cpp:406] Scale35 <- Convolution35
I0926 08:53:08.233527  4406 net.cpp:367] Scale35 -> Convolution35 (in-place)
I0926 08:53:08.233554  4406 layer_factory.hpp:77] Creating layer Scale35
I0926 08:53:08.233633  4406 net.cpp:122] Setting up Scale35
I0926 08:53:08.233638  4406 net.cpp:129] Top shape: 100 32 14 14 (627200)
I0926 08:53:08.233639  4406 net.cpp:137] Memory required for data: 736019600
I0926 08:53:08.233644  4406 layer_factory.hpp:77] Creating layer penlu34
I0926 08:53:08.233649  4406 net.cpp:84] Creating Layer penlu34
I0926 08:53:08.233650  4406 net.cpp:406] penlu34 <- Convolution35
I0926 08:53:08.233654  4406 net.cpp:367] penlu34 -> Convolution35 (in-place)
I0926 08:53:08.233764  4406 net.cpp:122] Setting up penlu34
I0926 08:53:08.233768  4406 net.cpp:129] Top shape: 100 32 14 14 (627200)
I0926 08:53:08.233772  4406 net.cpp:137] Memory required for data: 738528400
I0926 08:53:08.233775  4406 layer_factory.hpp:77] Creating layer Convolution36
I0926 08:53:08.233781  4406 net.cpp:84] Creating Layer Convolution36
I0926 08:53:08.233783  4406 net.cpp:406] Convolution36 <- Convolution35
I0926 08:53:08.233788  4406 net.cpp:380] Convolution36 -> Convolution36
I0926 08:53:08.234828  4406 net.cpp:122] Setting up Convolution36
I0926 08:53:08.234836  4406 net.cpp:129] Top shape: 100 32 14 14 (627200)
I0926 08:53:08.234839  4406 net.cpp:137] Memory required for data: 741037200
I0926 08:53:08.234843  4406 layer_factory.hpp:77] Creating layer BatchNorm36
I0926 08:53:08.234848  4406 net.cpp:84] Creating Layer BatchNorm36
I0926 08:53:08.234851  4406 net.cpp:406] BatchNorm36 <- Convolution36
I0926 08:53:08.234854  4406 net.cpp:367] BatchNorm36 -> Convolution36 (in-place)
I0926 08:53:08.234993  4406 net.cpp:122] Setting up BatchNorm36
I0926 08:53:08.234998  4406 net.cpp:129] Top shape: 100 32 14 14 (627200)
I0926 08:53:08.235000  4406 net.cpp:137] Memory required for data: 743546000
I0926 08:53:08.235005  4406 layer_factory.hpp:77] Creating layer Scale36
I0926 08:53:08.235008  4406 net.cpp:84] Creating Layer Scale36
I0926 08:53:08.235011  4406 net.cpp:406] Scale36 <- Convolution36
I0926 08:53:08.235014  4406 net.cpp:367] Scale36 -> Convolution36 (in-place)
I0926 08:53:08.235050  4406 layer_factory.hpp:77] Creating layer Scale36
I0926 08:53:08.235129  4406 net.cpp:122] Setting up Scale36
I0926 08:53:08.235134  4406 net.cpp:129] Top shape: 100 32 14 14 (627200)
I0926 08:53:08.235136  4406 net.cpp:137] Memory required for data: 746054800
I0926 08:53:08.235139  4406 layer_factory.hpp:77] Creating layer Eltwise17
I0926 08:53:08.235144  4406 net.cpp:84] Creating Layer Eltwise17
I0926 08:53:08.235147  4406 net.cpp:406] Eltwise17 <- Eltwise16_penlu33_0_split_1
I0926 08:53:08.235150  4406 net.cpp:406] Eltwise17 <- Convolution36
I0926 08:53:08.235153  4406 net.cpp:380] Eltwise17 -> Eltwise17
I0926 08:53:08.235169  4406 net.cpp:122] Setting up Eltwise17
I0926 08:53:08.235173  4406 net.cpp:129] Top shape: 100 32 14 14 (627200)
I0926 08:53:08.235175  4406 net.cpp:137] Memory required for data: 748563600
I0926 08:53:08.235177  4406 layer_factory.hpp:77] Creating layer penlu35
I0926 08:53:08.235183  4406 net.cpp:84] Creating Layer penlu35
I0926 08:53:08.235184  4406 net.cpp:406] penlu35 <- Eltwise17
I0926 08:53:08.235188  4406 net.cpp:367] penlu35 -> Eltwise17 (in-place)
I0926 08:53:08.235297  4406 net.cpp:122] Setting up penlu35
I0926 08:53:08.235301  4406 net.cpp:129] Top shape: 100 32 14 14 (627200)
I0926 08:53:08.235303  4406 net.cpp:137] Memory required for data: 751072400
I0926 08:53:08.235308  4406 layer_factory.hpp:77] Creating layer Eltwise17_penlu35_0_split
I0926 08:53:08.235312  4406 net.cpp:84] Creating Layer Eltwise17_penlu35_0_split
I0926 08:53:08.235314  4406 net.cpp:406] Eltwise17_penlu35_0_split <- Eltwise17
I0926 08:53:08.235318  4406 net.cpp:380] Eltwise17_penlu35_0_split -> Eltwise17_penlu35_0_split_0
I0926 08:53:08.235322  4406 net.cpp:380] Eltwise17_penlu35_0_split -> Eltwise17_penlu35_0_split_1
I0926 08:53:08.235344  4406 net.cpp:122] Setting up Eltwise17_penlu35_0_split
I0926 08:53:08.235348  4406 net.cpp:129] Top shape: 100 32 14 14 (627200)
I0926 08:53:08.235352  4406 net.cpp:129] Top shape: 100 32 14 14 (627200)
I0926 08:53:08.235353  4406 net.cpp:137] Memory required for data: 756090000
I0926 08:53:08.235355  4406 layer_factory.hpp:77] Creating layer Convolution37
I0926 08:53:08.235361  4406 net.cpp:84] Creating Layer Convolution37
I0926 08:53:08.235364  4406 net.cpp:406] Convolution37 <- Eltwise17_penlu35_0_split_0
I0926 08:53:08.235368  4406 net.cpp:380] Convolution37 -> Convolution37
I0926 08:53:08.236086  4406 net.cpp:122] Setting up Convolution37
I0926 08:53:08.236094  4406 net.cpp:129] Top shape: 100 32 14 14 (627200)
I0926 08:53:08.236097  4406 net.cpp:137] Memory required for data: 758598800
I0926 08:53:08.236101  4406 layer_factory.hpp:77] Creating layer BatchNorm37
I0926 08:53:08.236105  4406 net.cpp:84] Creating Layer BatchNorm37
I0926 08:53:08.236109  4406 net.cpp:406] BatchNorm37 <- Convolution37
I0926 08:53:08.236111  4406 net.cpp:367] BatchNorm37 -> Convolution37 (in-place)
I0926 08:53:08.236250  4406 net.cpp:122] Setting up BatchNorm37
I0926 08:53:08.236254  4406 net.cpp:129] Top shape: 100 32 14 14 (627200)
I0926 08:53:08.236256  4406 net.cpp:137] Memory required for data: 761107600
I0926 08:53:08.236261  4406 layer_factory.hpp:77] Creating layer Scale37
I0926 08:53:08.236264  4406 net.cpp:84] Creating Layer Scale37
I0926 08:53:08.236268  4406 net.cpp:406] Scale37 <- Convolution37
I0926 08:53:08.236270  4406 net.cpp:367] Scale37 -> Convolution37 (in-place)
I0926 08:53:08.236296  4406 layer_factory.hpp:77] Creating layer Scale37
I0926 08:53:08.236377  4406 net.cpp:122] Setting up Scale37
I0926 08:53:08.236382  4406 net.cpp:129] Top shape: 100 32 14 14 (627200)
I0926 08:53:08.236383  4406 net.cpp:137] Memory required for data: 763616400
I0926 08:53:08.236387  4406 layer_factory.hpp:77] Creating layer penlu36
I0926 08:53:08.236392  4406 net.cpp:84] Creating Layer penlu36
I0926 08:53:08.236394  4406 net.cpp:406] penlu36 <- Convolution37
I0926 08:53:08.236398  4406 net.cpp:367] penlu36 -> Convolution37 (in-place)
I0926 08:53:08.236536  4406 net.cpp:122] Setting up penlu36
I0926 08:53:08.236552  4406 net.cpp:129] Top shape: 100 32 14 14 (627200)
I0926 08:53:08.236569  4406 net.cpp:137] Memory required for data: 766125200
I0926 08:53:08.236573  4406 layer_factory.hpp:77] Creating layer Convolution38
I0926 08:53:08.236582  4406 net.cpp:84] Creating Layer Convolution38
I0926 08:53:08.236583  4406 net.cpp:406] Convolution38 <- Convolution37
I0926 08:53:08.236588  4406 net.cpp:380] Convolution38 -> Convolution38
I0926 08:53:08.237637  4406 net.cpp:122] Setting up Convolution38
I0926 08:53:08.237646  4406 net.cpp:129] Top shape: 100 32 14 14 (627200)
I0926 08:53:08.237649  4406 net.cpp:137] Memory required for data: 768634000
I0926 08:53:08.237653  4406 layer_factory.hpp:77] Creating layer BatchNorm38
I0926 08:53:08.237658  4406 net.cpp:84] Creating Layer BatchNorm38
I0926 08:53:08.237660  4406 net.cpp:406] BatchNorm38 <- Convolution38
I0926 08:53:08.237664  4406 net.cpp:367] BatchNorm38 -> Convolution38 (in-place)
I0926 08:53:08.237804  4406 net.cpp:122] Setting up BatchNorm38
I0926 08:53:08.237809  4406 net.cpp:129] Top shape: 100 32 14 14 (627200)
I0926 08:53:08.237812  4406 net.cpp:137] Memory required for data: 771142800
I0926 08:53:08.237817  4406 layer_factory.hpp:77] Creating layer Scale38
I0926 08:53:08.237819  4406 net.cpp:84] Creating Layer Scale38
I0926 08:53:08.237823  4406 net.cpp:406] Scale38 <- Convolution38
I0926 08:53:08.237825  4406 net.cpp:367] Scale38 -> Convolution38 (in-place)
I0926 08:53:08.237854  4406 layer_factory.hpp:77] Creating layer Scale38
I0926 08:53:08.237932  4406 net.cpp:122] Setting up Scale38
I0926 08:53:08.237937  4406 net.cpp:129] Top shape: 100 32 14 14 (627200)
I0926 08:53:08.237939  4406 net.cpp:137] Memory required for data: 773651600
I0926 08:53:08.237943  4406 layer_factory.hpp:77] Creating layer Eltwise18
I0926 08:53:08.237947  4406 net.cpp:84] Creating Layer Eltwise18
I0926 08:53:08.237949  4406 net.cpp:406] Eltwise18 <- Eltwise17_penlu35_0_split_1
I0926 08:53:08.237952  4406 net.cpp:406] Eltwise18 <- Convolution38
I0926 08:53:08.237956  4406 net.cpp:380] Eltwise18 -> Eltwise18
I0926 08:53:08.237972  4406 net.cpp:122] Setting up Eltwise18
I0926 08:53:08.237977  4406 net.cpp:129] Top shape: 100 32 14 14 (627200)
I0926 08:53:08.237978  4406 net.cpp:137] Memory required for data: 776160400
I0926 08:53:08.237980  4406 layer_factory.hpp:77] Creating layer penlu37
I0926 08:53:08.237985  4406 net.cpp:84] Creating Layer penlu37
I0926 08:53:08.237987  4406 net.cpp:406] penlu37 <- Eltwise18
I0926 08:53:08.237992  4406 net.cpp:367] penlu37 -> Eltwise18 (in-place)
I0926 08:53:08.238103  4406 net.cpp:122] Setting up penlu37
I0926 08:53:08.238107  4406 net.cpp:129] Top shape: 100 32 14 14 (627200)
I0926 08:53:08.238109  4406 net.cpp:137] Memory required for data: 778669200
I0926 08:53:08.238113  4406 layer_factory.hpp:77] Creating layer Eltwise18_penlu37_0_split
I0926 08:53:08.238117  4406 net.cpp:84] Creating Layer Eltwise18_penlu37_0_split
I0926 08:53:08.238119  4406 net.cpp:406] Eltwise18_penlu37_0_split <- Eltwise18
I0926 08:53:08.238122  4406 net.cpp:380] Eltwise18_penlu37_0_split -> Eltwise18_penlu37_0_split_0
I0926 08:53:08.238127  4406 net.cpp:380] Eltwise18_penlu37_0_split -> Eltwise18_penlu37_0_split_1
I0926 08:53:08.238150  4406 net.cpp:122] Setting up Eltwise18_penlu37_0_split
I0926 08:53:08.238153  4406 net.cpp:129] Top shape: 100 32 14 14 (627200)
I0926 08:53:08.238157  4406 net.cpp:129] Top shape: 100 32 14 14 (627200)
I0926 08:53:08.238158  4406 net.cpp:137] Memory required for data: 783686800
I0926 08:53:08.238160  4406 layer_factory.hpp:77] Creating layer Convolution39
I0926 08:53:08.238167  4406 net.cpp:84] Creating Layer Convolution39
I0926 08:53:08.238168  4406 net.cpp:406] Convolution39 <- Eltwise18_penlu37_0_split_0
I0926 08:53:08.238173  4406 net.cpp:380] Convolution39 -> Convolution39
I0926 08:53:08.239061  4406 net.cpp:122] Setting up Convolution39
I0926 08:53:08.239070  4406 net.cpp:129] Top shape: 100 64 7 7 (313600)
I0926 08:53:08.239073  4406 net.cpp:137] Memory required for data: 784941200
I0926 08:53:08.239078  4406 layer_factory.hpp:77] Creating layer BatchNorm39
I0926 08:53:08.239089  4406 net.cpp:84] Creating Layer BatchNorm39
I0926 08:53:08.239091  4406 net.cpp:406] BatchNorm39 <- Convolution39
I0926 08:53:08.239096  4406 net.cpp:367] BatchNorm39 -> Convolution39 (in-place)
I0926 08:53:08.239233  4406 net.cpp:122] Setting up BatchNorm39
I0926 08:53:08.239238  4406 net.cpp:129] Top shape: 100 64 7 7 (313600)
I0926 08:53:08.239239  4406 net.cpp:137] Memory required for data: 786195600
I0926 08:53:08.239244  4406 layer_factory.hpp:77] Creating layer Scale39
I0926 08:53:08.239248  4406 net.cpp:84] Creating Layer Scale39
I0926 08:53:08.239250  4406 net.cpp:406] Scale39 <- Convolution39
I0926 08:53:08.239253  4406 net.cpp:367] Scale39 -> Convolution39 (in-place)
I0926 08:53:08.239280  4406 layer_factory.hpp:77] Creating layer Scale39
I0926 08:53:08.239362  4406 net.cpp:122] Setting up Scale39
I0926 08:53:08.239365  4406 net.cpp:129] Top shape: 100 64 7 7 (313600)
I0926 08:53:08.239367  4406 net.cpp:137] Memory required for data: 787450000
I0926 08:53:08.239372  4406 layer_factory.hpp:77] Creating layer Convolution40
I0926 08:53:08.239378  4406 net.cpp:84] Creating Layer Convolution40
I0926 08:53:08.239382  4406 net.cpp:406] Convolution40 <- Eltwise18_penlu37_0_split_1
I0926 08:53:08.239385  4406 net.cpp:380] Convolution40 -> Convolution40
I0926 08:53:08.241250  4406 net.cpp:122] Setting up Convolution40
I0926 08:53:08.241259  4406 net.cpp:129] Top shape: 100 64 7 7 (313600)
I0926 08:53:08.241261  4406 net.cpp:137] Memory required for data: 788704400
I0926 08:53:08.241266  4406 layer_factory.hpp:77] Creating layer BatchNorm40
I0926 08:53:08.241271  4406 net.cpp:84] Creating Layer BatchNorm40
I0926 08:53:08.241273  4406 net.cpp:406] BatchNorm40 <- Convolution40
I0926 08:53:08.241278  4406 net.cpp:367] BatchNorm40 -> Convolution40 (in-place)
I0926 08:53:08.241442  4406 net.cpp:122] Setting up BatchNorm40
I0926 08:53:08.241457  4406 net.cpp:129] Top shape: 100 64 7 7 (313600)
I0926 08:53:08.241459  4406 net.cpp:137] Memory required for data: 789958800
I0926 08:53:08.241464  4406 layer_factory.hpp:77] Creating layer Scale40
I0926 08:53:08.241468  4406 net.cpp:84] Creating Layer Scale40
I0926 08:53:08.241472  4406 net.cpp:406] Scale40 <- Convolution40
I0926 08:53:08.241484  4406 net.cpp:367] Scale40 -> Convolution40 (in-place)
I0926 08:53:08.241513  4406 layer_factory.hpp:77] Creating layer Scale40
I0926 08:53:08.241611  4406 net.cpp:122] Setting up Scale40
I0926 08:53:08.241617  4406 net.cpp:129] Top shape: 100 64 7 7 (313600)
I0926 08:53:08.241621  4406 net.cpp:137] Memory required for data: 791213200
I0926 08:53:08.241624  4406 layer_factory.hpp:77] Creating layer penlu38
I0926 08:53:08.241631  4406 net.cpp:84] Creating Layer penlu38
I0926 08:53:08.241633  4406 net.cpp:406] penlu38 <- Convolution40
I0926 08:53:08.241636  4406 net.cpp:367] penlu38 -> Convolution40 (in-place)
I0926 08:53:08.241780  4406 net.cpp:122] Setting up penlu38
I0926 08:53:08.241791  4406 net.cpp:129] Top shape: 100 64 7 7 (313600)
I0926 08:53:08.241794  4406 net.cpp:137] Memory required for data: 792467600
I0926 08:53:08.241802  4406 layer_factory.hpp:77] Creating layer Convolution41
I0926 08:53:08.241822  4406 net.cpp:84] Creating Layer Convolution41
I0926 08:53:08.241825  4406 net.cpp:406] Convolution41 <- Convolution40
I0926 08:53:08.241829  4406 net.cpp:380] Convolution41 -> Convolution41
I0926 08:53:08.243975  4406 net.cpp:122] Setting up Convolution41
I0926 08:53:08.243993  4406 net.cpp:129] Top shape: 100 64 7 7 (313600)
I0926 08:53:08.243996  4406 net.cpp:137] Memory required for data: 793722000
I0926 08:53:08.244010  4406 layer_factory.hpp:77] Creating layer BatchNorm41
I0926 08:53:08.244016  4406 net.cpp:84] Creating Layer BatchNorm41
I0926 08:53:08.244019  4406 net.cpp:406] BatchNorm41 <- Convolution41
I0926 08:53:08.244024  4406 net.cpp:367] BatchNorm41 -> Convolution41 (in-place)
I0926 08:53:08.244226  4406 net.cpp:122] Setting up BatchNorm41
I0926 08:53:08.244231  4406 net.cpp:129] Top shape: 100 64 7 7 (313600)
I0926 08:53:08.244233  4406 net.cpp:137] Memory required for data: 794976400
I0926 08:53:08.244238  4406 layer_factory.hpp:77] Creating layer Scale41
I0926 08:53:08.244251  4406 net.cpp:84] Creating Layer Scale41
I0926 08:53:08.244254  4406 net.cpp:406] Scale41 <- Convolution41
I0926 08:53:08.244257  4406 net.cpp:367] Scale41 -> Convolution41 (in-place)
I0926 08:53:08.244287  4406 layer_factory.hpp:77] Creating layer Scale41
I0926 08:53:08.244369  4406 net.cpp:122] Setting up Scale41
I0926 08:53:08.244374  4406 net.cpp:129] Top shape: 100 64 7 7 (313600)
I0926 08:53:08.244375  4406 net.cpp:137] Memory required for data: 796230800
I0926 08:53:08.244379  4406 layer_factory.hpp:77] Creating layer Eltwise19
I0926 08:53:08.244385  4406 net.cpp:84] Creating Layer Eltwise19
I0926 08:53:08.244396  4406 net.cpp:406] Eltwise19 <- Convolution39
I0926 08:53:08.244400  4406 net.cpp:406] Eltwise19 <- Convolution41
I0926 08:53:08.244403  4406 net.cpp:380] Eltwise19 -> Eltwise19
I0926 08:53:08.244441  4406 net.cpp:122] Setting up Eltwise19
I0926 08:53:08.244446  4406 net.cpp:129] Top shape: 100 64 7 7 (313600)
I0926 08:53:08.244448  4406 net.cpp:137] Memory required for data: 797485200
I0926 08:53:08.244460  4406 layer_factory.hpp:77] Creating layer penlu39
I0926 08:53:08.244468  4406 net.cpp:84] Creating Layer penlu39
I0926 08:53:08.244472  4406 net.cpp:406] penlu39 <- Eltwise19
I0926 08:53:08.244475  4406 net.cpp:367] penlu39 -> Eltwise19 (in-place)
I0926 08:53:08.244613  4406 net.cpp:122] Setting up penlu39
I0926 08:53:08.244618  4406 net.cpp:129] Top shape: 100 64 7 7 (313600)
I0926 08:53:08.244621  4406 net.cpp:137] Memory required for data: 798739600
I0926 08:53:08.244626  4406 layer_factory.hpp:77] Creating layer Eltwise19_penlu39_0_split
I0926 08:53:08.244629  4406 net.cpp:84] Creating Layer Eltwise19_penlu39_0_split
I0926 08:53:08.244632  4406 net.cpp:406] Eltwise19_penlu39_0_split <- Eltwise19
I0926 08:53:08.244635  4406 net.cpp:380] Eltwise19_penlu39_0_split -> Eltwise19_penlu39_0_split_0
I0926 08:53:08.244640  4406 net.cpp:380] Eltwise19_penlu39_0_split -> Eltwise19_penlu39_0_split_1
I0926 08:53:08.244663  4406 net.cpp:122] Setting up Eltwise19_penlu39_0_split
I0926 08:53:08.244668  4406 net.cpp:129] Top shape: 100 64 7 7 (313600)
I0926 08:53:08.244670  4406 net.cpp:129] Top shape: 100 64 7 7 (313600)
I0926 08:53:08.244673  4406 net.cpp:137] Memory required for data: 801248400
I0926 08:53:08.244674  4406 layer_factory.hpp:77] Creating layer Convolution42
I0926 08:53:08.244681  4406 net.cpp:84] Creating Layer Convolution42
I0926 08:53:08.244683  4406 net.cpp:406] Convolution42 <- Eltwise19_penlu39_0_split_0
I0926 08:53:08.244688  4406 net.cpp:380] Convolution42 -> Convolution42
I0926 08:53:08.246336  4406 net.cpp:122] Setting up Convolution42
I0926 08:53:08.246345  4406 net.cpp:129] Top shape: 100 64 7 7 (313600)
I0926 08:53:08.246347  4406 net.cpp:137] Memory required for data: 802502800
I0926 08:53:08.246352  4406 layer_factory.hpp:77] Creating layer BatchNorm42
I0926 08:53:08.246357  4406 net.cpp:84] Creating Layer BatchNorm42
I0926 08:53:08.246359  4406 net.cpp:406] BatchNorm42 <- Convolution42
I0926 08:53:08.246364  4406 net.cpp:367] BatchNorm42 -> Convolution42 (in-place)
I0926 08:53:08.246505  4406 net.cpp:122] Setting up BatchNorm42
I0926 08:53:08.246510  4406 net.cpp:129] Top shape: 100 64 7 7 (313600)
I0926 08:53:08.246511  4406 net.cpp:137] Memory required for data: 803757200
I0926 08:53:08.246516  4406 layer_factory.hpp:77] Creating layer Scale42
I0926 08:53:08.246520  4406 net.cpp:84] Creating Layer Scale42
I0926 08:53:08.246523  4406 net.cpp:406] Scale42 <- Convolution42
I0926 08:53:08.246526  4406 net.cpp:367] Scale42 -> Convolution42 (in-place)
I0926 08:53:08.246556  4406 layer_factory.hpp:77] Creating layer Scale42
I0926 08:53:08.246636  4406 net.cpp:122] Setting up Scale42
I0926 08:53:08.246640  4406 net.cpp:129] Top shape: 100 64 7 7 (313600)
I0926 08:53:08.246642  4406 net.cpp:137] Memory required for data: 805011600
I0926 08:53:08.246646  4406 layer_factory.hpp:77] Creating layer penlu40
I0926 08:53:08.246651  4406 net.cpp:84] Creating Layer penlu40
I0926 08:53:08.246654  4406 net.cpp:406] penlu40 <- Convolution42
I0926 08:53:08.246665  4406 net.cpp:367] penlu40 -> Convolution42 (in-place)
I0926 08:53:08.246780  4406 net.cpp:122] Setting up penlu40
I0926 08:53:08.246785  4406 net.cpp:129] Top shape: 100 64 7 7 (313600)
I0926 08:53:08.246788  4406 net.cpp:137] Memory required for data: 806266000
I0926 08:53:08.246791  4406 layer_factory.hpp:77] Creating layer Convolution43
I0926 08:53:08.246798  4406 net.cpp:84] Creating Layer Convolution43
I0926 08:53:08.246801  4406 net.cpp:406] Convolution43 <- Convolution42
I0926 08:53:08.246804  4406 net.cpp:380] Convolution43 -> Convolution43
I0926 08:53:08.249086  4406 net.cpp:122] Setting up Convolution43
I0926 08:53:08.249094  4406 net.cpp:129] Top shape: 100 64 7 7 (313600)
I0926 08:53:08.249097  4406 net.cpp:137] Memory required for data: 807520400
I0926 08:53:08.249102  4406 layer_factory.hpp:77] Creating layer BatchNorm43
I0926 08:53:08.249109  4406 net.cpp:84] Creating Layer BatchNorm43
I0926 08:53:08.249111  4406 net.cpp:406] BatchNorm43 <- Convolution43
I0926 08:53:08.249114  4406 net.cpp:367] BatchNorm43 -> Convolution43 (in-place)
I0926 08:53:08.249260  4406 net.cpp:122] Setting up BatchNorm43
I0926 08:53:08.249265  4406 net.cpp:129] Top shape: 100 64 7 7 (313600)
I0926 08:53:08.249267  4406 net.cpp:137] Memory required for data: 808774800
I0926 08:53:08.249272  4406 layer_factory.hpp:77] Creating layer Scale43
I0926 08:53:08.249276  4406 net.cpp:84] Creating Layer Scale43
I0926 08:53:08.249279  4406 net.cpp:406] Scale43 <- Convolution43
I0926 08:53:08.249282  4406 net.cpp:367] Scale43 -> Convolution43 (in-place)
I0926 08:53:08.249310  4406 layer_factory.hpp:77] Creating layer Scale43
I0926 08:53:08.249393  4406 net.cpp:122] Setting up Scale43
I0926 08:53:08.249397  4406 net.cpp:129] Top shape: 100 64 7 7 (313600)
I0926 08:53:08.249399  4406 net.cpp:137] Memory required for data: 810029200
I0926 08:53:08.249403  4406 layer_factory.hpp:77] Creating layer Eltwise20
I0926 08:53:08.249408  4406 net.cpp:84] Creating Layer Eltwise20
I0926 08:53:08.249413  4406 net.cpp:406] Eltwise20 <- Eltwise19_penlu39_0_split_1
I0926 08:53:08.249415  4406 net.cpp:406] Eltwise20 <- Convolution43
I0926 08:53:08.249418  4406 net.cpp:380] Eltwise20 -> Eltwise20
I0926 08:53:08.249434  4406 net.cpp:122] Setting up Eltwise20
I0926 08:53:08.249439  4406 net.cpp:129] Top shape: 100 64 7 7 (313600)
I0926 08:53:08.249440  4406 net.cpp:137] Memory required for data: 811283600
I0926 08:53:08.249442  4406 layer_factory.hpp:77] Creating layer penlu41
I0926 08:53:08.249449  4406 net.cpp:84] Creating Layer penlu41
I0926 08:53:08.249450  4406 net.cpp:406] penlu41 <- Eltwise20
I0926 08:53:08.249454  4406 net.cpp:367] penlu41 -> Eltwise20 (in-place)
I0926 08:53:08.249570  4406 net.cpp:122] Setting up penlu41
I0926 08:53:08.249575  4406 net.cpp:129] Top shape: 100 64 7 7 (313600)
I0926 08:53:08.249577  4406 net.cpp:137] Memory required for data: 812538000
I0926 08:53:08.249581  4406 layer_factory.hpp:77] Creating layer Eltwise20_penlu41_0_split
I0926 08:53:08.249585  4406 net.cpp:84] Creating Layer Eltwise20_penlu41_0_split
I0926 08:53:08.249588  4406 net.cpp:406] Eltwise20_penlu41_0_split <- Eltwise20
I0926 08:53:08.249591  4406 net.cpp:380] Eltwise20_penlu41_0_split -> Eltwise20_penlu41_0_split_0
I0926 08:53:08.249595  4406 net.cpp:380] Eltwise20_penlu41_0_split -> Eltwise20_penlu41_0_split_1
I0926 08:53:08.249620  4406 net.cpp:122] Setting up Eltwise20_penlu41_0_split
I0926 08:53:08.249624  4406 net.cpp:129] Top shape: 100 64 7 7 (313600)
I0926 08:53:08.249627  4406 net.cpp:129] Top shape: 100 64 7 7 (313600)
I0926 08:53:08.249629  4406 net.cpp:137] Memory required for data: 815046800
I0926 08:53:08.249631  4406 layer_factory.hpp:77] Creating layer Convolution44
I0926 08:53:08.249636  4406 net.cpp:84] Creating Layer Convolution44
I0926 08:53:08.249639  4406 net.cpp:406] Convolution44 <- Eltwise20_penlu41_0_split_0
I0926 08:53:08.249644  4406 net.cpp:380] Convolution44 -> Convolution44
I0926 08:53:08.251299  4406 net.cpp:122] Setting up Convolution44
I0926 08:53:08.251308  4406 net.cpp:129] Top shape: 100 64 7 7 (313600)
I0926 08:53:08.251317  4406 net.cpp:137] Memory required for data: 816301200
I0926 08:53:08.251322  4406 layer_factory.hpp:77] Creating layer BatchNorm44
I0926 08:53:08.251327  4406 net.cpp:84] Creating Layer BatchNorm44
I0926 08:53:08.251330  4406 net.cpp:406] BatchNorm44 <- Convolution44
I0926 08:53:08.251334  4406 net.cpp:367] BatchNorm44 -> Convolution44 (in-place)
I0926 08:53:08.251477  4406 net.cpp:122] Setting up BatchNorm44
I0926 08:53:08.251482  4406 net.cpp:129] Top shape: 100 64 7 7 (313600)
I0926 08:53:08.251484  4406 net.cpp:137] Memory required for data: 817555600
I0926 08:53:08.251488  4406 layer_factory.hpp:77] Creating layer Scale44
I0926 08:53:08.251492  4406 net.cpp:84] Creating Layer Scale44
I0926 08:53:08.251495  4406 net.cpp:406] Scale44 <- Convolution44
I0926 08:53:08.251498  4406 net.cpp:367] Scale44 -> Convolution44 (in-place)
I0926 08:53:08.251526  4406 layer_factory.hpp:77] Creating layer Scale44
I0926 08:53:08.251608  4406 net.cpp:122] Setting up Scale44
I0926 08:53:08.251613  4406 net.cpp:129] Top shape: 100 64 7 7 (313600)
I0926 08:53:08.251616  4406 net.cpp:137] Memory required for data: 818810000
I0926 08:53:08.251619  4406 layer_factory.hpp:77] Creating layer penlu42
I0926 08:53:08.251624  4406 net.cpp:84] Creating Layer penlu42
I0926 08:53:08.251626  4406 net.cpp:406] penlu42 <- Convolution44
I0926 08:53:08.251631  4406 net.cpp:367] penlu42 -> Convolution44 (in-place)
I0926 08:53:08.251744  4406 net.cpp:122] Setting up penlu42
I0926 08:53:08.251749  4406 net.cpp:129] Top shape: 100 64 7 7 (313600)
I0926 08:53:08.251750  4406 net.cpp:137] Memory required for data: 820064400
I0926 08:53:08.251754  4406 layer_factory.hpp:77] Creating layer Convolution45
I0926 08:53:08.251761  4406 net.cpp:84] Creating Layer Convolution45
I0926 08:53:08.251763  4406 net.cpp:406] Convolution45 <- Convolution44
I0926 08:53:08.251767  4406 net.cpp:380] Convolution45 -> Convolution45
I0926 08:53:08.253749  4406 net.cpp:122] Setting up Convolution45
I0926 08:53:08.253757  4406 net.cpp:129] Top shape: 100 64 7 7 (313600)
I0926 08:53:08.253760  4406 net.cpp:137] Memory required for data: 821318800
I0926 08:53:08.253764  4406 layer_factory.hpp:77] Creating layer BatchNorm45
I0926 08:53:08.253770  4406 net.cpp:84] Creating Layer BatchNorm45
I0926 08:53:08.253772  4406 net.cpp:406] BatchNorm45 <- Convolution45
I0926 08:53:08.253777  4406 net.cpp:367] BatchNorm45 -> Convolution45 (in-place)
I0926 08:53:08.253923  4406 net.cpp:122] Setting up BatchNorm45
I0926 08:53:08.253928  4406 net.cpp:129] Top shape: 100 64 7 7 (313600)
I0926 08:53:08.253931  4406 net.cpp:137] Memory required for data: 822573200
I0926 08:53:08.253935  4406 layer_factory.hpp:77] Creating layer Scale45
I0926 08:53:08.253939  4406 net.cpp:84] Creating Layer Scale45
I0926 08:53:08.253942  4406 net.cpp:406] Scale45 <- Convolution45
I0926 08:53:08.253945  4406 net.cpp:367] Scale45 -> Convolution45 (in-place)
I0926 08:53:08.253973  4406 layer_factory.hpp:77] Creating layer Scale45
I0926 08:53:08.254057  4406 net.cpp:122] Setting up Scale45
I0926 08:53:08.254062  4406 net.cpp:129] Top shape: 100 64 7 7 (313600)
I0926 08:53:08.254065  4406 net.cpp:137] Memory required for data: 823827600
I0926 08:53:08.254068  4406 layer_factory.hpp:77] Creating layer Eltwise21
I0926 08:53:08.254073  4406 net.cpp:84] Creating Layer Eltwise21
I0926 08:53:08.254076  4406 net.cpp:406] Eltwise21 <- Eltwise20_penlu41_0_split_1
I0926 08:53:08.254078  4406 net.cpp:406] Eltwise21 <- Convolution45
I0926 08:53:08.254081  4406 net.cpp:380] Eltwise21 -> Eltwise21
I0926 08:53:08.254099  4406 net.cpp:122] Setting up Eltwise21
…
I0926 08:53:08.609525  4406 net.cpp:137] Memory required for data: 1030145200
I0926 08:53:08.609530  4406 layer_factory.hpp:77] Creating layer BatchNorm40
I0926 08:53:08.609534  4406 net.cpp:84] Creating Layer BatchNorm40
I0926 08:53:08.609537  4406 net.cpp:406] BatchNorm40 <- Convolution40
I0926 08:53:08.609542  4406 net.cpp:367] BatchNorm40 -> Convolution40 (in-place)
I0926 08:53:08.609691  4406 net.cpp:122] Setting up BatchNorm40
I0926 08:53:08.609696  4406 net.cpp:129] Top shape: 100 64 8 8 (409600)
I0926 08:53:08.609699  4406 net.cpp:137] Memory required for data: 1031783600
I0926 08:53:08.609704  4406 layer_factory.hpp:77] Creating layer Scale40
I0926 08:53:08.609707  4406 net.cpp:84] Creating Layer Scale40
I0926 08:53:08.609709  4406 net.cpp:406] Scale40 <- Convolution40
I0926 08:53:08.609714  4406 net.cpp:367] Scale40 -> Convolution40 (in-place)
I0926 08:53:08.609740  4406 layer_factory.hpp:77] Creating layer Scale40
I0926 08:53:08.609828  4406 net.cpp:122] Setting up Scale40
I0926 08:53:08.609833  4406 net.cpp:129] Top shape: 100 64 8 8 (409600)
I0926 08:53:08.609835  4406 net.cpp:137] Memory required for data: 1033422000
I0926 08:53:08.609839  4406 layer_factory.hpp:77] Creating layer penlu38
I0926 08:53:08.609844  4406 net.cpp:84] Creating Layer penlu38
I0926 08:53:08.609848  4406 net.cpp:406] penlu38 <- Convolution40
I0926 08:53:08.609860  4406 net.cpp:367] penlu38 -> Convolution40 (in-place)
I0926 08:53:08.609997  4406 net.cpp:122] Setting up penlu38
I0926 08:53:08.610002  4406 net.cpp:129] Top shape: 100 64 8 8 (409600)
I0926 08:53:08.610004  4406 net.cpp:137] Memory required for data: 1035060400
I0926 08:53:08.610008  4406 layer_factory.hpp:77] Creating layer Convolution41
I0926 08:53:08.610015  4406 net.cpp:84] Creating Layer Convolution41
I0926 08:53:08.610018  4406 net.cpp:406] Convolution41 <- Convolution40
I0926 08:53:08.610023  4406 net.cpp:380] Convolution41 -> Convolution41
I0926 08:53:08.611716  4406 net.cpp:122] Setting up Convolution41
I0926 08:53:08.611724  4406 net.cpp:129] Top shape: 100 64 8 8 (409600)
I0926 08:53:08.611726  4406 net.cpp:137] Memory required for data: 1036698800
I0926 08:53:08.611732  4406 layer_factory.hpp:77] Creating layer BatchNorm41
I0926 08:53:08.611737  4406 net.cpp:84] Creating Layer BatchNorm41
I0926 08:53:08.611739  4406 net.cpp:406] BatchNorm41 <- Convolution41
I0926 08:53:08.611749  4406 net.cpp:367] BatchNorm41 -> Convolution41 (in-place)
I0926 08:53:08.611886  4406 net.cpp:122] Setting up BatchNorm41
I0926 08:53:08.611891  4406 net.cpp:129] Top shape: 100 64 8 8 (409600)
I0926 08:53:08.611893  4406 net.cpp:137] Memory required for data: 1038337200
I0926 08:53:08.611898  4406 layer_factory.hpp:77] Creating layer Scale41
I0926 08:53:08.611902  4406 net.cpp:84] Creating Layer Scale41
I0926 08:53:08.611904  4406 net.cpp:406] Scale41 <- Convolution41
I0926 08:53:08.611907  4406 net.cpp:367] Scale41 -> Convolution41 (in-place)
I0926 08:53:08.611937  4406 layer_factory.hpp:77] Creating layer Scale41
I0926 08:53:08.612015  4406 net.cpp:122] Setting up Scale41
I0926 08:53:08.612020  4406 net.cpp:129] Top shape: 100 64 8 8 (409600)
I0926 08:53:08.612023  4406 net.cpp:137] Memory required for data: 1039975600
I0926 08:53:08.612026  4406 layer_factory.hpp:77] Creating layer Eltwise19
I0926 08:53:08.612030  4406 net.cpp:84] Creating Layer Eltwise19
I0926 08:53:08.612033  4406 net.cpp:406] Eltwise19 <- Convolution39
I0926 08:53:08.612036  4406 net.cpp:406] Eltwise19 <- Convolution41
I0926 08:53:08.612040  4406 net.cpp:380] Eltwise19 -> Eltwise19
I0926 08:53:08.612056  4406 net.cpp:122] Setting up Eltwise19
I0926 08:53:08.612059  4406 net.cpp:129] Top shape: 100 64 8 8 (409600)
I0926 08:53:08.612061  4406 net.cpp:137] Memory required for data: 1041614000
I0926 08:53:08.612064  4406 layer_factory.hpp:77] Creating layer penlu39
I0926 08:53:08.612069  4406 net.cpp:84] Creating Layer penlu39
I0926 08:53:08.612071  4406 net.cpp:406] penlu39 <- Eltwise19
I0926 08:53:08.612076  4406 net.cpp:367] penlu39 -> Eltwise19 (in-place)
I0926 08:53:08.612191  4406 net.cpp:122] Setting up penlu39
I0926 08:53:08.612196  4406 net.cpp:129] Top shape: 100 64 8 8 (409600)
I0926 08:53:08.612198  4406 net.cpp:137] Memory required for data: 1043252400
I0926 08:53:08.612202  4406 layer_factory.hpp:77] Creating layer Eltwise19_penlu39_0_split
I0926 08:53:08.612207  4406 net.cpp:84] Creating Layer Eltwise19_penlu39_0_split
I0926 08:53:08.612210  4406 net.cpp:406] Eltwise19_penlu39_0_split <- Eltwise19
I0926 08:53:08.612213  4406 net.cpp:380] Eltwise19_penlu39_0_split -> Eltwise19_penlu39_0_split_0
I0926 08:53:08.612217  4406 net.cpp:380] Eltwise19_penlu39_0_split -> Eltwise19_penlu39_0_split_1
I0926 08:53:08.612241  4406 net.cpp:122] Setting up Eltwise19_penlu39_0_split
I0926 08:53:08.612244  4406 net.cpp:129] Top shape: 100 64 8 8 (409600)
I0926 08:53:08.612247  4406 net.cpp:129] Top shape: 100 64 8 8 (409600)
I0926 08:53:08.612249  4406 net.cpp:137] Memory required for data: 1046529200
I0926 08:53:08.612251  4406 layer_factory.hpp:77] Creating layer Convolution42
I0926 08:53:08.612257  4406 net.cpp:84] Creating Layer Convolution42
I0926 08:53:08.612259  4406 net.cpp:406] Convolution42 <- Eltwise19_penlu39_0_split_0
I0926 08:53:08.612264  4406 net.cpp:380] Convolution42 -> Convolution42
I0926 08:53:08.613965  4406 net.cpp:122] Setting up Convolution42
I0926 08:53:08.613975  4406 net.cpp:129] Top shape: 100 64 8 8 (409600)
I0926 08:53:08.613976  4406 net.cpp:137] Memory required for data: 1048167600
I0926 08:53:08.613981  4406 layer_factory.hpp:77] Creating layer BatchNorm42
I0926 08:53:08.613986  4406 net.cpp:84] Creating Layer BatchNorm42
I0926 08:53:08.613989  4406 net.cpp:406] BatchNorm42 <- Convolution42
I0926 08:53:08.613992  4406 net.cpp:367] BatchNorm42 -> Convolution42 (in-place)
I0926 08:53:08.614128  4406 net.cpp:122] Setting up BatchNorm42
I0926 08:53:08.614133  4406 net.cpp:129] Top shape: 100 64 8 8 (409600)
I0926 08:53:08.614135  4406 net.cpp:137] Memory required for data: 1049806000
I0926 08:53:08.614140  4406 layer_factory.hpp:77] Creating layer Scale42
I0926 08:53:08.614143  4406 net.cpp:84] Creating Layer Scale42
I0926 08:53:08.614146  4406 net.cpp:406] Scale42 <- Convolution42
I0926 08:53:08.614150  4406 net.cpp:367] Scale42 -> Convolution42 (in-place)
I0926 08:53:08.614177  4406 layer_factory.hpp:77] Creating layer Scale42
I0926 08:53:08.614256  4406 net.cpp:122] Setting up Scale42
I0926 08:53:08.614260  4406 net.cpp:129] Top shape: 100 64 8 8 (409600)
I0926 08:53:08.614269  4406 net.cpp:137] Memory required for data: 1051444400
I0926 08:53:08.614274  4406 layer_factory.hpp:77] Creating layer penlu40
I0926 08:53:08.614279  4406 net.cpp:84] Creating Layer penlu40
I0926 08:53:08.614282  4406 net.cpp:406] penlu40 <- Convolution42
I0926 08:53:08.614286  4406 net.cpp:367] penlu40 -> Convolution42 (in-place)
I0926 08:53:08.614401  4406 net.cpp:122] Setting up penlu40
I0926 08:53:08.614406  4406 net.cpp:129] Top shape: 100 64 8 8 (409600)
I0926 08:53:08.614408  4406 net.cpp:137] Memory required for data: 1053082800
I0926 08:53:08.614413  4406 layer_factory.hpp:77] Creating layer Convolution43
I0926 08:53:08.614420  4406 net.cpp:84] Creating Layer Convolution43
I0926 08:53:08.614423  4406 net.cpp:406] Convolution43 <- Convolution42
I0926 08:53:08.614426  4406 net.cpp:380] Convolution43 -> Convolution43
I0926 08:53:08.616132  4406 net.cpp:122] Setting up Convolution43
I0926 08:53:08.616142  4406 net.cpp:129] Top shape: 100 64 8 8 (409600)
I0926 08:53:08.616143  4406 net.cpp:137] Memory required for data: 1054721200
I0926 08:53:08.616148  4406 layer_factory.hpp:77] Creating layer BatchNorm43
I0926 08:53:08.616154  4406 net.cpp:84] Creating Layer BatchNorm43
I0926 08:53:08.616158  4406 net.cpp:406] BatchNorm43 <- Convolution43
I0926 08:53:08.616161  4406 net.cpp:367] BatchNorm43 -> Convolution43 (in-place)
I0926 08:53:08.616309  4406 net.cpp:122] Setting up BatchNorm43
I0926 08:53:08.616315  4406 net.cpp:129] Top shape: 100 64 8 8 (409600)
I0926 08:53:08.616317  4406 net.cpp:137] Memory required for data: 1056359600
I0926 08:53:08.616323  4406 layer_factory.hpp:77] Creating layer Scale43
I0926 08:53:08.616328  4406 net.cpp:84] Creating Layer Scale43
I0926 08:53:08.616330  4406 net.cpp:406] Scale43 <- Convolution43
I0926 08:53:08.616334  4406 net.cpp:367] Scale43 -> Convolution43 (in-place)
I0926 08:53:08.616361  4406 layer_factory.hpp:77] Creating layer Scale43
I0926 08:53:08.616441  4406 net.cpp:122] Setting up Scale43
I0926 08:53:08.616444  4406 net.cpp:129] Top shape: 100 64 8 8 (409600)
I0926 08:53:08.616446  4406 net.cpp:137] Memory required for data: 1057998000
I0926 08:53:08.616451  4406 layer_factory.hpp:77] Creating layer Eltwise20
I0926 08:53:08.616454  4406 net.cpp:84] Creating Layer Eltwise20
I0926 08:53:08.616457  4406 net.cpp:406] Eltwise20 <- Eltwise19_penlu39_0_split_1
I0926 08:53:08.616461  4406 net.cpp:406] Eltwise20 <- Convolution43
I0926 08:53:08.616464  4406 net.cpp:380] Eltwise20 -> Eltwise20
I0926 08:53:08.616480  4406 net.cpp:122] Setting up Eltwise20
I0926 08:53:08.616484  4406 net.cpp:129] Top shape: 100 64 8 8 (409600)
I0926 08:53:08.616487  4406 net.cpp:137] Memory required for data: 1059636400
I0926 08:53:08.616488  4406 layer_factory.hpp:77] Creating layer penlu41
I0926 08:53:08.616494  4406 net.cpp:84] Creating Layer penlu41
I0926 08:53:08.616503  4406 net.cpp:406] penlu41 <- Eltwise20
I0926 08:53:08.616508  4406 net.cpp:367] penlu41 -> Eltwise20 (in-place)
I0926 08:53:08.616627  4406 net.cpp:122] Setting up penlu41
I0926 08:53:08.616632  4406 net.cpp:129] Top shape: 100 64 8 8 (409600)
I0926 08:53:08.616634  4406 net.cpp:137] Memory required for data: 1061274800
I0926 08:53:08.616639  4406 layer_factory.hpp:77] Creating layer Eltwise20_penlu41_0_split
I0926 08:53:08.616642  4406 net.cpp:84] Creating Layer Eltwise20_penlu41_0_split
I0926 08:53:08.616645  4406 net.cpp:406] Eltwise20_penlu41_0_split <- Eltwise20
I0926 08:53:08.616649  4406 net.cpp:380] Eltwise20_penlu41_0_split -> Eltwise20_penlu41_0_split_0
I0926 08:53:08.616653  4406 net.cpp:380] Eltwise20_penlu41_0_split -> Eltwise20_penlu41_0_split_1
I0926 08:53:08.616677  4406 net.cpp:122] Setting up Eltwise20_penlu41_0_split
I0926 08:53:08.616680  4406 net.cpp:129] Top shape: 100 64 8 8 (409600)
I0926 08:53:08.616683  4406 net.cpp:129] Top shape: 100 64 8 8 (409600)
I0926 08:53:08.616684  4406 net.cpp:137] Memory required for data: 1064551600
I0926 08:53:08.616688  4406 layer_factory.hpp:77] Creating layer Convolution44
I0926 08:53:08.616693  4406 net.cpp:84] Creating Layer Convolution44
I0926 08:53:08.616703  4406 net.cpp:406] Convolution44 <- Eltwise20_penlu41_0_split_0
I0926 08:53:08.616706  4406 net.cpp:380] Convolution44 -> Convolution44
I0926 08:53:08.618716  4406 net.cpp:122] Setting up Convolution44
I0926 08:53:08.618724  4406 net.cpp:129] Top shape: 100 64 8 8 (409600)
I0926 08:53:08.618727  4406 net.cpp:137] Memory required for data: 1066190000
I0926 08:53:08.618731  4406 layer_factory.hpp:77] Creating layer BatchNorm44
I0926 08:53:08.618736  4406 net.cpp:84] Creating Layer BatchNorm44
I0926 08:53:08.618739  4406 net.cpp:406] BatchNorm44 <- Convolution44
I0926 08:53:08.618743  4406 net.cpp:367] BatchNorm44 -> Convolution44 (in-place)
I0926 08:53:08.618885  4406 net.cpp:122] Setting up BatchNorm44
I0926 08:53:08.618890  4406 net.cpp:129] Top shape: 100 64 8 8 (409600)
I0926 08:53:08.618891  4406 net.cpp:137] Memory required for data: 1067828400
I0926 08:53:08.618896  4406 layer_factory.hpp:77] Creating layer Scale44
I0926 08:53:08.618901  4406 net.cpp:84] Creating Layer Scale44
I0926 08:53:08.618902  4406 net.cpp:406] Scale44 <- Convolution44
I0926 08:53:08.618906  4406 net.cpp:367] Scale44 -> Convolution44 (in-place)
I0926 08:53:08.618933  4406 layer_factory.hpp:77] Creating layer Scale44
I0926 08:53:08.619012  4406 net.cpp:122] Setting up Scale44
I0926 08:53:08.619017  4406 net.cpp:129] Top shape: 100 64 8 8 (409600)
I0926 08:53:08.619019  4406 net.cpp:137] Memory required for data: 1069466800
I0926 08:53:08.619024  4406 layer_factory.hpp:77] Creating layer penlu42
I0926 08:53:08.619029  4406 net.cpp:84] Creating Layer penlu42
I0926 08:53:08.619031  4406 net.cpp:406] penlu42 <- Convolution44
I0926 08:53:08.619035  4406 net.cpp:367] penlu42 -> Convolution44 (in-place)
I0926 08:53:08.619148  4406 net.cpp:122] Setting up penlu42
I0926 08:53:08.619153  4406 net.cpp:129] Top shape: 100 64 8 8 (409600)
I0926 08:53:08.619155  4406 net.cpp:137] Memory required for data: 1071105200
I0926 08:53:08.619159  4406 layer_factory.hpp:77] Creating layer Convolution45
I0926 08:53:08.619166  4406 net.cpp:84] Creating Layer Convolution45
I0926 08:53:08.619168  4406 net.cpp:406] Convolution45 <- Convolution44
I0926 08:53:08.619173  4406 net.cpp:380] Convolution45 -> Convolution45
I0926 08:53:08.620883  4406 net.cpp:122] Setting up Convolution45
I0926 08:53:08.620893  4406 net.cpp:129] Top shape: 100 64 8 8 (409600)
I0926 08:53:08.620896  4406 net.cpp:137] Memory required for data: 1072743600
I0926 08:53:08.620900  4406 layer_factory.hpp:77] Creating layer BatchNorm45
I0926 08:53:08.620904  4406 net.cpp:84] Creating Layer BatchNorm45
I0926 08:53:08.620908  4406 net.cpp:406] BatchNorm45 <- Convolution45
I0926 08:53:08.620911  4406 net.cpp:367] BatchNorm45 -> Convolution45 (in-place)
I0926 08:53:08.621049  4406 net.cpp:122] Setting up BatchNorm45
I0926 08:53:08.621053  4406 net.cpp:129] Top shape: 100 64 8 8 (409600)
I0926 08:53:08.621057  4406 net.cpp:137] Memory required for data: 1074382000
I0926 08:53:08.621060  4406 layer_factory.hpp:77] Creating layer Scale45
I0926 08:53:08.621064  4406 net.cpp:84] Creating Layer Scale45
I0926 08:53:08.621068  4406 net.cpp:406] Scale45 <- Convolution45
I0926 08:53:08.621070  4406 net.cpp:367] Scale45 -> Convolution45 (in-place)
I0926 08:53:08.621098  4406 layer_factory.hpp:77] Creating layer Scale45
I0926 08:53:08.621176  4406 net.cpp:122] Setting up Scale45
I0926 08:53:08.621181  4406 net.cpp:129] Top shape: 100 64 8 8 (409600)
I0926 08:53:08.621182  4406 net.cpp:137] Memory required for data: 1076020400
I0926 08:53:08.621186  4406 layer_factory.hpp:77] Creating layer Eltwise21
I0926 08:53:08.621189  4406 net.cpp:84] Creating Layer Eltwise21
I0926 08:53:08.621192  4406 net.cpp:406] Eltwise21 <- Eltwise20_penlu41_0_split_1
I0926 08:53:08.621196  4406 net.cpp:406] Eltwise21 <- Convolution45
I0926 08:53:08.621198  4406 net.cpp:380] Eltwise21 -> Eltwise21
I0926 08:53:08.621215  4406 net.cpp:122] Setting up Eltwise21
I0926 08:53:08.621219  4406 net.cpp:129] Top shape: 100 64 8 8 (409600)
I0926 08:53:08.621220  4406 net.cpp:137] Memory required for data: 1077658800
I0926 08:53:08.621229  4406 layer_factory.hpp:77] Creating layer penlu43
I0926 08:53:08.621235  4406 net.cpp:84] Creating Layer penlu43
I0926 08:53:08.621238  4406 net.cpp:406] penlu43 <- Eltwise21
I0926 08:53:08.621243  4406 net.cpp:367] penlu43 -> Eltwise21 (in-place)
I0926 08:53:08.621359  4406 net.cpp:122] Setting up penlu43
I0926 08:53:08.621363  4406 net.cpp:129] Top shape: 100 64 8 8 (409600)
I0926 08:53:08.621366  4406 net.cpp:137] Memory required for data: 1079297200
I0926 08:53:08.621371  4406 layer_factory.hpp:77] Creating layer Eltwise21_penlu43_0_split
I0926 08:53:08.621373  4406 net.cpp:84] Creating Layer Eltwise21_penlu43_0_split
I0926 08:53:08.621376  4406 net.cpp:406] Eltwise21_penlu43_0_split <- Eltwise21
I0926 08:53:08.621379  4406 net.cpp:380] Eltwise21_penlu43_0_split -> Eltwise21_penlu43_0_split_0
I0926 08:53:08.621383  4406 net.cpp:380] Eltwise21_penlu43_0_split -> Eltwise21_penlu43_0_split_1
I0926 08:53:08.621407  4406 net.cpp:122] Setting up Eltwise21_penlu43_0_split
I0926 08:53:08.621412  4406 net.cpp:129] Top shape: 100 64 8 8 (409600)
I0926 08:53:08.621414  4406 net.cpp:129] Top shape: 100 64 8 8 (409600)
I0926 08:53:08.638686  4406 net.cpp:137] Memory required for data: 1082574000
I0926 08:53:08.638695  4406 layer_factory.hpp:77] Creating layer Convolution46
I0926 08:53:08.638703  4406 net.cpp:84] Creating Layer Convolution46
I0926 08:53:08.638707  4406 net.cpp:406] Convolution46 <- Eltwise21_penlu43_0_split_0
I0926 08:53:08.638715  4406 net.cpp:380] Convolution46 -> Convolution46
I0926 08:53:08.640638  4406 net.cpp:122] Setting up Convolution46
I0926 08:53:08.640648  4406 net.cpp:129] Top shape: 100 64 8 8 (409600)
I0926 08:53:08.640651  4406 net.cpp:137] Memory required for data: 1084212400
I0926 08:53:08.640656  4406 layer_factory.hpp:77] Creating layer BatchNorm46
I0926 08:53:08.640661  4406 net.cpp:84] Creating Layer BatchNorm46
I0926 08:53:08.640663  4406 net.cpp:406] BatchNorm46 <- Convolution46
I0926 08:53:08.640668  4406 net.cpp:367] BatchNorm46 -> Convolution46 (in-place)
I0926 08:53:08.640811  4406 net.cpp:122] Setting up BatchNorm46
I0926 08:53:08.640815  4406 net.cpp:129] Top shape: 100 64 8 8 (409600)
I0926 08:53:08.640817  4406 net.cpp:137] Memory required for data: 1085850800
I0926 08:53:08.640822  4406 layer_factory.hpp:77] Creating layer Scale46
I0926 08:53:08.640826  4406 net.cpp:84] Creating Layer Scale46
I0926 08:53:08.640830  4406 net.cpp:406] Scale46 <- Convolution46
I0926 08:53:08.640833  4406 net.cpp:367] Scale46 -> Convolution46 (in-place)
I0926 08:53:08.640861  4406 layer_factory.hpp:77] Creating layer Scale46
I0926 08:53:08.640943  4406 net.cpp:122] Setting up Scale46
I0926 08:53:08.640946  4406 net.cpp:129] Top shape: 100 64 8 8 (409600)
I0926 08:53:08.640949  4406 net.cpp:137] Memory required for data: 1087489200
I0926 08:53:08.640954  4406 layer_factory.hpp:77] Creating layer penlu44
I0926 08:53:08.640959  4406 net.cpp:84] Creating Layer penlu44
I0926 08:53:08.640960  4406 net.cpp:406] penlu44 <- Convolution46
I0926 08:53:08.640964  4406 net.cpp:367] penlu44 -> Convolution46 (in-place)
I0926 08:53:08.641083  4406 net.cpp:122] Setting up penlu44
I0926 08:53:08.641088  4406 net.cpp:129] Top shape: 100 64 8 8 (409600)
I0926 08:53:08.641089  4406 net.cpp:137] Memory required for data: 1089127600
I0926 08:53:08.641093  4406 layer_factory.hpp:77] Creating layer Convolution47
I0926 08:53:08.641099  4406 net.cpp:84] Creating Layer Convolution47
I0926 08:53:08.641103  4406 net.cpp:406] Convolution47 <- Convolution46
I0926 08:53:08.641106  4406 net.cpp:380] Convolution47 -> Convolution47
I0926 08:53:08.642799  4406 net.cpp:122] Setting up Convolution47
I0926 08:53:08.642808  4406 net.cpp:129] Top shape: 100 64 8 8 (409600)
I0926 08:53:08.642812  4406 net.cpp:137] Memory required for data: 1090766000
I0926 08:53:08.642817  4406 layer_factory.hpp:77] Creating layer BatchNorm47
I0926 08:53:08.642820  4406 net.cpp:84] Creating Layer BatchNorm47
I0926 08:53:08.642823  4406 net.cpp:406] BatchNorm47 <- Convolution47
I0926 08:53:08.642827  4406 net.cpp:367] BatchNorm47 -> Convolution47 (in-place)
I0926 08:53:08.642974  4406 net.cpp:122] Setting up BatchNorm47
I0926 08:53:08.642979  4406 net.cpp:129] Top shape: 100 64 8 8 (409600)
I0926 08:53:08.642982  4406 net.cpp:137] Memory required for data: 1092404400
I0926 08:53:08.642987  4406 layer_factory.hpp:77] Creating layer Scale47
I0926 08:53:08.642990  4406 net.cpp:84] Creating Layer Scale47
I0926 08:53:08.642993  4406 net.cpp:406] Scale47 <- Convolution47
I0926 08:53:08.642997  4406 net.cpp:367] Scale47 -> Convolution47 (in-place)
I0926 08:53:08.643024  4406 layer_factory.hpp:77] Creating layer Scale47
I0926 08:53:08.643103  4406 net.cpp:122] Setting up Scale47
I0926 08:53:08.643107  4406 net.cpp:129] Top shape: 100 64 8 8 (409600)
I0926 08:53:08.643110  4406 net.cpp:137] Memory required for data: 1094042800
I0926 08:53:08.643113  4406 layer_factory.hpp:77] Creating layer Eltwise22
I0926 08:53:08.643117  4406 net.cpp:84] Creating Layer Eltwise22
I0926 08:53:08.643121  4406 net.cpp:406] Eltwise22 <- Eltwise21_penlu43_0_split_1
I0926 08:53:08.643123  4406 net.cpp:406] Eltwise22 <- Convolution47
I0926 08:53:08.643126  4406 net.cpp:380] Eltwise22 -> Eltwise22
I0926 08:53:08.643143  4406 net.cpp:122] Setting up Eltwise22
I0926 08:53:08.643147  4406 net.cpp:129] Top shape: 100 64 8 8 (409600)
I0926 08:53:08.643149  4406 net.cpp:137] Memory required for data: 1095681200
I0926 08:53:08.643151  4406 layer_factory.hpp:77] Creating layer penlu45
I0926 08:53:08.643157  4406 net.cpp:84] Creating Layer penlu45
I0926 08:53:08.643158  4406 net.cpp:406] penlu45 <- Eltwise22
I0926 08:53:08.643162  4406 net.cpp:367] penlu45 -> Eltwise22 (in-place)
I0926 08:53:08.643277  4406 net.cpp:122] Setting up penlu45
I0926 08:53:08.643282  4406 net.cpp:129] Top shape: 100 64 8 8 (409600)
I0926 08:53:08.643285  4406 net.cpp:137] Memory required for data: 1097319600
I0926 08:53:08.643288  4406 layer_factory.hpp:77] Creating layer Eltwise22_penlu45_0_split
I0926 08:53:08.643292  4406 net.cpp:84] Creating Layer Eltwise22_penlu45_0_split
I0926 08:53:08.643295  4406 net.cpp:406] Eltwise22_penlu45_0_split <- Eltwise22
I0926 08:53:08.643297  4406 net.cpp:380] Eltwise22_penlu45_0_split -> Eltwise22_penlu45_0_split_0
I0926 08:53:08.643302  4406 net.cpp:380] Eltwise22_penlu45_0_split -> Eltwise22_penlu45_0_split_1
I0926 08:53:08.643326  4406 net.cpp:122] Setting up Eltwise22_penlu45_0_split
I0926 08:53:08.643329  4406 net.cpp:129] Top shape: 100 64 8 8 (409600)
I0926 08:53:08.643332  4406 net.cpp:129] Top shape: 100 64 8 8 (409600)
I0926 08:53:08.643334  4406 net.cpp:137] Memory required for data: 1100596400
I0926 08:53:08.643337  4406 layer_factory.hpp:77] Creating layer Convolution48
I0926 08:53:08.643342  4406 net.cpp:84] Creating Layer Convolution48
I0926 08:53:08.643344  4406 net.cpp:406] Convolution48 <- Eltwise22_penlu45_0_split_0
I0926 08:53:08.643348  4406 net.cpp:380] Convolution48 -> Convolution48
I0926 08:53:08.645360  4406 net.cpp:122] Setting up Convolution48
I0926 08:53:08.645368  4406 net.cpp:129] Top shape: 100 64 8 8 (409600)
I0926 08:53:08.645371  4406 net.cpp:137] Memory required for data: 1102234800
I0926 08:53:08.645375  4406 layer_factory.hpp:77] Creating layer BatchNorm48
I0926 08:53:08.645381  4406 net.cpp:84] Creating Layer BatchNorm48
I0926 08:53:08.645385  4406 net.cpp:406] BatchNorm48 <- Convolution48
I0926 08:53:08.645387  4406 net.cpp:367] BatchNorm48 -> Convolution48 (in-place)
I0926 08:53:08.645530  4406 net.cpp:122] Setting up BatchNorm48
I0926 08:53:08.645534  4406 net.cpp:129] Top shape: 100 64 8 8 (409600)
I0926 08:53:08.645537  4406 net.cpp:137] Memory required for data: 1103873200
I0926 08:53:08.645541  4406 layer_factory.hpp:77] Creating layer Scale48
I0926 08:53:08.645546  4406 net.cpp:84] Creating Layer Scale48
I0926 08:53:08.645550  4406 net.cpp:406] Scale48 <- Convolution48
I0926 08:53:08.645552  4406 net.cpp:367] Scale48 -> Convolution48 (in-place)
I0926 08:53:08.645581  4406 layer_factory.hpp:77] Creating layer Scale48
I0926 08:53:08.645661  4406 net.cpp:122] Setting up Scale48
I0926 08:53:08.645666  4406 net.cpp:129] Top shape: 100 64 8 8 (409600)
I0926 08:53:08.645674  4406 net.cpp:137] Memory required for data: 1105511600
I0926 08:53:08.645679  4406 layer_factory.hpp:77] Creating layer penlu46
I0926 08:53:08.645685  4406 net.cpp:84] Creating Layer penlu46
I0926 08:53:08.645687  4406 net.cpp:406] penlu46 <- Convolution48
I0926 08:53:08.645691  4406 net.cpp:367] penlu46 -> Convolution48 (in-place)
I0926 08:53:08.645807  4406 net.cpp:122] Setting up penlu46
I0926 08:53:08.645812  4406 net.cpp:129] Top shape: 100 64 8 8 (409600)
I0926 08:53:08.645814  4406 net.cpp:137] Memory required for data: 1107150000
I0926 08:53:08.645818  4406 layer_factory.hpp:77] Creating layer Convolution49
I0926 08:53:08.645825  4406 net.cpp:84] Creating Layer Convolution49
I0926 08:53:08.645828  4406 net.cpp:406] Convolution49 <- Convolution48
I0926 08:53:08.645831  4406 net.cpp:380] Convolution49 -> Convolution49
I0926 08:53:08.647850  4406 net.cpp:122] Setting up Convolution49
I0926 08:53:08.647857  4406 net.cpp:129] Top shape: 100 64 8 8 (409600)
I0926 08:53:08.647861  4406 net.cpp:137] Memory required for data: 1108788400
I0926 08:53:08.647866  4406 layer_factory.hpp:77] Creating layer BatchNorm49
I0926 08:53:08.647871  4406 net.cpp:84] Creating Layer BatchNorm49
I0926 08:53:08.647873  4406 net.cpp:406] BatchNorm49 <- Convolution49
I0926 08:53:08.647876  4406 net.cpp:367] BatchNorm49 -> Convolution49 (in-place)
I0926 08:53:08.648016  4406 net.cpp:122] Setting up BatchNorm49
I0926 08:53:08.648020  4406 net.cpp:129] Top shape: 100 64 8 8 (409600)
I0926 08:53:08.648022  4406 net.cpp:137] Memory required for data: 1110426800
I0926 08:53:08.648027  4406 layer_factory.hpp:77] Creating layer Scale49
I0926 08:53:08.648031  4406 net.cpp:84] Creating Layer Scale49
I0926 08:53:08.648035  4406 net.cpp:406] Scale49 <- Convolution49
I0926 08:53:08.648037  4406 net.cpp:367] Scale49 -> Convolution49 (in-place)
I0926 08:53:08.648066  4406 layer_factory.hpp:77] Creating layer Scale49
I0926 08:53:08.648145  4406 net.cpp:122] Setting up Scale49
I0926 08:53:08.648149  4406 net.cpp:129] Top shape: 100 64 8 8 (409600)
I0926 08:53:08.648151  4406 net.cpp:137] Memory required for data: 1112065200
I0926 08:53:08.648155  4406 layer_factory.hpp:77] Creating layer Eltwise23
I0926 08:53:08.648160  4406 net.cpp:84] Creating Layer Eltwise23
I0926 08:53:08.648164  4406 net.cpp:406] Eltwise23 <- Eltwise22_penlu45_0_split_1
I0926 08:53:08.648166  4406 net.cpp:406] Eltwise23 <- Convolution49
I0926 08:53:08.648169  4406 net.cpp:380] Eltwise23 -> Eltwise23
I0926 08:53:08.648186  4406 net.cpp:122] Setting up Eltwise23
I0926 08:53:08.648190  4406 net.cpp:129] Top shape: 100 64 8 8 (409600)
I0926 08:53:08.648192  4406 net.cpp:137] Memory required for data: 1113703600
I0926 08:53:08.648195  4406 layer_factory.hpp:77] Creating layer penlu47
I0926 08:53:08.648200  4406 net.cpp:84] Creating Layer penlu47
I0926 08:53:08.648202  4406 net.cpp:406] penlu47 <- Eltwise23
I0926 08:53:08.648205  4406 net.cpp:367] penlu47 -> Eltwise23 (in-place)
I0926 08:53:08.648322  4406 net.cpp:122] Setting up penlu47
I0926 08:53:08.648327  4406 net.cpp:129] Top shape: 100 64 8 8 (409600)
I0926 08:53:08.648329  4406 net.cpp:137] Memory required for data: 1115342000
I0926 08:53:08.648334  4406 layer_factory.hpp:77] Creating layer Eltwise23_penlu47_0_split
I0926 08:53:08.648337  4406 net.cpp:84] Creating Layer Eltwise23_penlu47_0_split
I0926 08:53:08.648340  4406 net.cpp:406] Eltwise23_penlu47_0_split <- Eltwise23
I0926 08:53:08.648344  4406 net.cpp:380] Eltwise23_penlu47_0_split -> Eltwise23_penlu47_0_split_0
I0926 08:53:08.648347  4406 net.cpp:380] Eltwise23_penlu47_0_split -> Eltwise23_penlu47_0_split_1
I0926 08:53:08.648371  4406 net.cpp:122] Setting up Eltwise23_penlu47_0_split
I0926 08:53:08.648375  4406 net.cpp:129] Top shape: 100 64 8 8 (409600)
I0926 08:53:08.648378  4406 net.cpp:129] Top shape: 100 64 8 8 (409600)
I0926 08:53:08.648380  4406 net.cpp:137] Memory required for data: 1118618800
I0926 08:53:08.648382  4406 layer_factory.hpp:77] Creating layer Convolution50
I0926 08:53:08.648387  4406 net.cpp:84] Creating Layer Convolution50
I0926 08:53:08.648396  4406 net.cpp:406] Convolution50 <- Eltwise23_penlu47_0_split_0
I0926 08:53:08.648402  4406 net.cpp:380] Convolution50 -> Convolution50
I0926 08:53:08.650934  4406 net.cpp:122] Setting up Convolution50
I0926 08:53:08.650943  4406 net.cpp:129] Top shape: 100 64 8 8 (409600)
I0926 08:53:08.650946  4406 net.cpp:137] Memory required for data: 1120257200
I0926 08:53:08.650951  4406 layer_factory.hpp:77] Creating layer BatchNorm50
I0926 08:53:08.650956  4406 net.cpp:84] Creating Layer BatchNorm50
I0926 08:53:08.650959  4406 net.cpp:406] BatchNorm50 <- Convolution50
I0926 08:53:08.650962  4406 net.cpp:367] BatchNorm50 -> Convolution50 (in-place)
I0926 08:53:08.651108  4406 net.cpp:122] Setting up BatchNorm50
I0926 08:53:08.651113  4406 net.cpp:129] Top shape: 100 64 8 8 (409600)
I0926 08:53:08.651115  4406 net.cpp:137] Memory required for data: 1121895600
I0926 08:53:08.651119  4406 layer_factory.hpp:77] Creating layer Scale50
I0926 08:53:08.651124  4406 net.cpp:84] Creating Layer Scale50
I0926 08:53:08.651126  4406 net.cpp:406] Scale50 <- Convolution50
I0926 08:53:08.651129  4406 net.cpp:367] Scale50 -> Convolution50 (in-place)
I0926 08:53:08.651160  4406 layer_factory.hpp:77] Creating layer Scale50
I0926 08:53:08.651239  4406 net.cpp:122] Setting up Scale50
I0926 08:53:08.651244  4406 net.cpp:129] Top shape: 100 64 8 8 (409600)
I0926 08:53:08.651247  4406 net.cpp:137] Memory required for data: 1123534000
I0926 08:53:08.651250  4406 layer_factory.hpp:77] Creating layer penlu48
I0926 08:53:08.651255  4406 net.cpp:84] Creating Layer penlu48
I0926 08:53:08.651258  4406 net.cpp:406] penlu48 <- Convolution50
I0926 08:53:08.651262  4406 net.cpp:367] penlu48 -> Convolution50 (in-place)
I0926 08:53:08.651378  4406 net.cpp:122] Setting up penlu48
I0926 08:53:08.651382  4406 net.cpp:129] Top shape: 100 64 8 8 (409600)
I0926 08:53:08.651384  4406 net.cpp:137] Memory required for data: 1125172400
I0926 08:53:08.651389  4406 layer_factory.hpp:77] Creating layer Convolution51
I0926 08:53:08.651396  4406 net.cpp:84] Creating Layer Convolution51
I0926 08:53:08.651398  4406 net.cpp:406] Convolution51 <- Convolution50
I0926 08:53:08.651404  4406 net.cpp:380] Convolution51 -> Convolution51
I0926 08:53:08.653103  4406 net.cpp:122] Setting up Convolution51
I0926 08:53:08.653112  4406 net.cpp:129] Top shape: 100 64 8 8 (409600)
I0926 08:53:08.653115  4406 net.cpp:137] Memory required for data: 1126810800
I0926 08:53:08.653120  4406 layer_factory.hpp:77] Creating layer BatchNorm51
I0926 08:53:08.653126  4406 net.cpp:84] Creating Layer BatchNorm51
I0926 08:53:08.653127  4406 net.cpp:406] BatchNorm51 <- Convolution51
I0926 08:53:08.653131  4406 net.cpp:367] BatchNorm51 -> Convolution51 (in-place)
I0926 08:53:08.653268  4406 net.cpp:122] Setting up BatchNorm51
I0926 08:53:08.653273  4406 net.cpp:129] Top shape: 100 64 8 8 (409600)
I0926 08:53:08.653275  4406 net.cpp:137] Memory required for data: 1128449200
I0926 08:53:08.653280  4406 layer_factory.hpp:77] Creating layer Scale51
I0926 08:53:08.653285  4406 net.cpp:84] Creating Layer Scale51
I0926 08:53:08.653286  4406 net.cpp:406] Scale51 <- Convolution51
I0926 08:53:08.653290  4406 net.cpp:367] Scale51 -> Convolution51 (in-place)
I0926 08:53:08.653318  4406 layer_factory.hpp:77] Creating layer Scale51
I0926 08:53:08.653398  4406 net.cpp:122] Setting up Scale51
I0926 08:53:08.653401  4406 net.cpp:129] Top shape: 100 64 8 8 (409600)
I0926 08:53:08.653403  4406 net.cpp:137] Memory required for data: 1130087600
I0926 08:53:08.653408  4406 layer_factory.hpp:77] Creating layer Eltwise24
I0926 08:53:08.653412  4406 net.cpp:84] Creating Layer Eltwise24
I0926 08:53:08.653415  4406 net.cpp:406] Eltwise24 <- Eltwise23_penlu47_0_split_1
I0926 08:53:08.653419  4406 net.cpp:406] Eltwise24 <- Convolution51
I0926 08:53:08.653421  4406 net.cpp:380] Eltwise24 -> Eltwise24
I0926 08:53:08.653437  4406 net.cpp:122] Setting up Eltwise24
I0926 08:53:08.653441  4406 net.cpp:129] Top shape: 100 64 8 8 (409600)
I0926 08:53:08.653443  4406 net.cpp:137] Memory required for data: 1131726000
I0926 08:53:08.653452  4406 layer_factory.hpp:77] Creating layer penlu49
I0926 08:53:08.653458  4406 net.cpp:84] Creating Layer penlu49
I0926 08:53:08.653460  4406 net.cpp:406] penlu49 <- Eltwise24
I0926 08:53:08.653465  4406 net.cpp:367] penlu49 -> Eltwise24 (in-place)
I0926 08:53:08.653579  4406 net.cpp:122] Setting up penlu49
I0926 08:53:08.653584  4406 net.cpp:129] Top shape: 100 64 8 8 (409600)
I0926 08:53:08.653586  4406 net.cpp:137] Memory required for data: 1133364400
I0926 08:53:08.653591  4406 layer_factory.hpp:77] Creating layer Eltwise24_penlu49_0_split
I0926 08:53:08.653595  4406 net.cpp:84] Creating Layer Eltwise24_penlu49_0_split
I0926 08:53:08.653599  4406 net.cpp:406] Eltwise24_penlu49_0_split <- Eltwise24
I0926 08:53:08.653601  4406 net.cpp:380] Eltwise24_penlu49_0_split -> Eltwise24_penlu49_0_split_0
I0926 08:53:08.653605  4406 net.cpp:380] Eltwise24_penlu49_0_split -> Eltwise24_penlu49_0_split_1
I0926 08:53:08.653640  4406 net.cpp:122] Setting up Eltwise24_penlu49_0_split
I0926 08:53:08.666849  4406 net.cpp:129] Top shape: 100 64 8 8 (409600)
I0926 08:53:08.666860  4406 net.cpp:129] Top shape: 100 64 8 8 (409600)
I0926 08:53:08.666863  4406 net.cpp:137] Memory required for data: 1136641200
I0926 08:53:08.666867  4406 layer_factory.hpp:77] Creating layer Convolution52
I0926 08:53:08.666877  4406 net.cpp:84] Creating Layer Convolution52
I0926 08:53:08.666880  4406 net.cpp:406] Convolution52 <- Eltwise24_penlu49_0_split_0
I0926 08:53:08.666885  4406 net.cpp:380] Convolution52 -> Convolution52
I0926 08:53:08.669402  4406 net.cpp:122] Setting up Convolution52
I0926 08:53:08.669411  4406 net.cpp:129] Top shape: 100 64 8 8 (409600)
I0926 08:53:08.669414  4406 net.cpp:137] Memory required for data: 1138279600
I0926 08:53:08.669420  4406 layer_factory.hpp:77] Creating layer BatchNorm52
I0926 08:53:08.669425  4406 net.cpp:84] Creating Layer BatchNorm52
I0926 08:53:08.669427  4406 net.cpp:406] BatchNorm52 <- Convolution52
I0926 08:53:08.669431  4406 net.cpp:367] BatchNorm52 -> Convolution52 (in-place)
I0926 08:53:08.669577  4406 net.cpp:122] Setting up BatchNorm52
I0926 08:53:08.669582  4406 net.cpp:129] Top shape: 100 64 8 8 (409600)
I0926 08:53:08.669584  4406 net.cpp:137] Memory required for data: 1139918000
I0926 08:53:08.669589  4406 layer_factory.hpp:77] Creating layer Scale52
I0926 08:53:08.669596  4406 net.cpp:84] Creating Layer Scale52
I0926 08:53:08.669598  4406 net.cpp:406] Scale52 <- Convolution52
I0926 08:53:08.669602  4406 net.cpp:367] Scale52 -> Convolution52 (in-place)
I0926 08:53:08.669632  4406 layer_factory.hpp:77] Creating layer Scale52
I0926 08:53:08.669716  4406 net.cpp:122] Setting up Scale52
I0926 08:53:08.669720  4406 net.cpp:129] Top shape: 100 64 8 8 (409600)
I0926 08:53:08.669723  4406 net.cpp:137] Memory required for data: 1141556400
I0926 08:53:08.669726  4406 layer_factory.hpp:77] Creating layer penlu50
I0926 08:53:08.669746  4406 net.cpp:84] Creating Layer penlu50
I0926 08:53:08.669749  4406 net.cpp:406] penlu50 <- Convolution52
I0926 08:53:08.669754  4406 net.cpp:367] penlu50 -> Convolution52 (in-place)
I0926 08:53:08.669875  4406 net.cpp:122] Setting up penlu50
I0926 08:53:08.669880  4406 net.cpp:129] Top shape: 100 64 8 8 (409600)
I0926 08:53:08.669883  4406 net.cpp:137] Memory required for data: 1143194800
I0926 08:53:08.669924  4406 layer_factory.hpp:77] Creating layer Convolution53
I0926 08:53:08.669930  4406 net.cpp:84] Creating Layer Convolution53
I0926 08:53:08.669934  4406 net.cpp:406] Convolution53 <- Convolution52
I0926 08:53:08.669937  4406 net.cpp:380] Convolution53 -> Convolution53
I0926 08:53:08.671763  4406 net.cpp:122] Setting up Convolution53
I0926 08:53:08.671772  4406 net.cpp:129] Top shape: 100 64 8 8 (409600)
I0926 08:53:08.671774  4406 net.cpp:137] Memory required for data: 1144833200
I0926 08:53:08.671779  4406 layer_factory.hpp:77] Creating layer BatchNorm53
I0926 08:53:08.671784  4406 net.cpp:84] Creating Layer BatchNorm53
I0926 08:53:08.671787  4406 net.cpp:406] BatchNorm53 <- Convolution53
I0926 08:53:08.671792  4406 net.cpp:367] BatchNorm53 -> Convolution53 (in-place)
I0926 08:53:08.671941  4406 net.cpp:122] Setting up BatchNorm53
I0926 08:53:08.671946  4406 net.cpp:129] Top shape: 100 64 8 8 (409600)
I0926 08:53:08.671947  4406 net.cpp:137] Memory required for data: 1146471600
I0926 08:53:08.671952  4406 layer_factory.hpp:77] Creating layer Scale53
I0926 08:53:08.671957  4406 net.cpp:84] Creating Layer Scale53
I0926 08:53:08.671960  4406 net.cpp:406] Scale53 <- Convolution53
I0926 08:53:08.671963  4406 net.cpp:367] Scale53 -> Convolution53 (in-place)
I0926 08:53:08.671991  4406 layer_factory.hpp:77] Creating layer Scale53
I0926 08:53:08.672075  4406 net.cpp:122] Setting up Scale53
I0926 08:53:08.672080  4406 net.cpp:129] Top shape: 100 64 8 8 (409600)
I0926 08:53:08.672081  4406 net.cpp:137] Memory required for data: 1148110000
I0926 08:53:08.672086  4406 layer_factory.hpp:77] Creating layer Eltwise25
I0926 08:53:08.672089  4406 net.cpp:84] Creating Layer Eltwise25
I0926 08:53:08.672092  4406 net.cpp:406] Eltwise25 <- Eltwise24_penlu49_0_split_1
I0926 08:53:08.672096  4406 net.cpp:406] Eltwise25 <- Convolution53
I0926 08:53:08.672099  4406 net.cpp:380] Eltwise25 -> Eltwise25
I0926 08:53:08.672116  4406 net.cpp:122] Setting up Eltwise25
I0926 08:53:08.672119  4406 net.cpp:129] Top shape: 100 64 8 8 (409600)
I0926 08:53:08.672122  4406 net.cpp:137] Memory required for data: 1149748400
I0926 08:53:08.672123  4406 layer_factory.hpp:77] Creating layer penlu51
I0926 08:53:08.672129  4406 net.cpp:84] Creating Layer penlu51
I0926 08:53:08.672132  4406 net.cpp:406] penlu51 <- Eltwise25
I0926 08:53:08.672135  4406 net.cpp:367] penlu51 -> Eltwise25 (in-place)
I0926 08:53:08.672252  4406 net.cpp:122] Setting up penlu51
I0926 08:53:08.672256  4406 net.cpp:129] Top shape: 100 64 8 8 (409600)
I0926 08:53:08.672258  4406 net.cpp:137] Memory required for data: 1151386800
I0926 08:53:08.672263  4406 layer_factory.hpp:77] Creating layer Eltwise25_penlu51_0_split
I0926 08:53:08.672267  4406 net.cpp:84] Creating Layer Eltwise25_penlu51_0_split
I0926 08:53:08.672269  4406 net.cpp:406] Eltwise25_penlu51_0_split <- Eltwise25
I0926 08:53:08.672272  4406 net.cpp:380] Eltwise25_penlu51_0_split -> Eltwise25_penlu51_0_split_0
I0926 08:53:08.672277  4406 net.cpp:380] Eltwise25_penlu51_0_split -> Eltwise25_penlu51_0_split_1
I0926 08:53:08.672300  4406 net.cpp:122] Setting up Eltwise25_penlu51_0_split
I0926 08:53:08.672304  4406 net.cpp:129] Top shape: 100 64 8 8 (409600)
I0926 08:53:08.672307  4406 net.cpp:129] Top shape: 100 64 8 8 (409600)
I0926 08:53:08.672309  4406 net.cpp:137] Memory required for data: 1154663600
I0926 08:53:08.672312  4406 layer_factory.hpp:77] Creating layer Convolution54
I0926 08:53:08.672318  4406 net.cpp:84] Creating Layer Convolution54
I0926 08:53:08.672320  4406 net.cpp:406] Convolution54 <- Eltwise25_penlu51_0_split_0
I0926 08:53:08.672324  4406 net.cpp:380] Convolution54 -> Convolution54
I0926 08:53:08.674391  4406 net.cpp:122] Setting up Convolution54
I0926 08:53:08.674399  4406 net.cpp:129] Top shape: 100 64 8 8 (409600)
I0926 08:53:08.674402  4406 net.cpp:137] Memory required for data: 1156302000
I0926 08:53:08.674407  4406 layer_factory.hpp:77] Creating layer BatchNorm54
I0926 08:53:08.674412  4406 net.cpp:84] Creating Layer BatchNorm54
I0926 08:53:08.674414  4406 net.cpp:406] BatchNorm54 <- Convolution54
I0926 08:53:08.674418  4406 net.cpp:367] BatchNorm54 -> Convolution54 (in-place)
I0926 08:53:08.674576  4406 net.cpp:122] Setting up BatchNorm54
I0926 08:53:08.674581  4406 net.cpp:129] Top shape: 100 64 8 8 (409600)
I0926 08:53:08.674582  4406 net.cpp:137] Memory required for data: 1157940400
I0926 08:53:08.674587  4406 layer_factory.hpp:77] Creating layer Scale54
I0926 08:53:08.674592  4406 net.cpp:84] Creating Layer Scale54
I0926 08:53:08.674593  4406 net.cpp:406] Scale54 <- Convolution54
I0926 08:53:08.674597  4406 net.cpp:367] Scale54 -> Convolution54 (in-place)
I0926 08:53:08.674625  4406 layer_factory.hpp:77] Creating layer Scale54
I0926 08:53:08.674706  4406 net.cpp:122] Setting up Scale54
I0926 08:53:08.674711  4406 net.cpp:129] Top shape: 100 64 8 8 (409600)
I0926 08:53:08.674721  4406 net.cpp:137] Memory required for data: 1159578800
I0926 08:53:08.674724  4406 layer_factory.hpp:77] Creating layer penlu52
I0926 08:53:08.674731  4406 net.cpp:84] Creating Layer penlu52
I0926 08:53:08.674733  4406 net.cpp:406] penlu52 <- Convolution54
I0926 08:53:08.674737  4406 net.cpp:367] penlu52 -> Convolution54 (in-place)
I0926 08:53:08.674856  4406 net.cpp:122] Setting up penlu52
I0926 08:53:08.674861  4406 net.cpp:129] Top shape: 100 64 8 8 (409600)
I0926 08:53:08.674863  4406 net.cpp:137] Memory required for data: 1161217200
I0926 08:53:08.674868  4406 layer_factory.hpp:77] Creating layer Convolution55
I0926 08:53:08.674875  4406 net.cpp:84] Creating Layer Convolution55
I0926 08:53:08.674876  4406 net.cpp:406] Convolution55 <- Convolution54
I0926 08:53:08.674881  4406 net.cpp:380] Convolution55 -> Convolution55
I0926 08:53:08.676635  4406 net.cpp:122] Setting up Convolution55
I0926 08:53:08.676645  4406 net.cpp:129] Top shape: 100 64 8 8 (409600)
I0926 08:53:08.676647  4406 net.cpp:137] Memory required for data: 1162855600
I0926 08:53:08.676651  4406 layer_factory.hpp:77] Creating layer BatchNorm55
I0926 08:53:08.676656  4406 net.cpp:84] Creating Layer BatchNorm55
I0926 08:53:08.676659  4406 net.cpp:406] BatchNorm55 <- Convolution55
I0926 08:53:08.676664  4406 net.cpp:367] BatchNorm55 -> Convolution55 (in-place)
I0926 08:53:08.676810  4406 net.cpp:122] Setting up BatchNorm55
I0926 08:53:08.676815  4406 net.cpp:129] Top shape: 100 64 8 8 (409600)
I0926 08:53:08.676816  4406 net.cpp:137] Memory required for data: 1164494000
I0926 08:53:08.676821  4406 layer_factory.hpp:77] Creating layer Scale55
I0926 08:53:08.676826  4406 net.cpp:84] Creating Layer Scale55
I0926 08:53:08.676827  4406 net.cpp:406] Scale55 <- Convolution55
I0926 08:53:08.676831  4406 net.cpp:367] Scale55 -> Convolution55 (in-place)
I0926 08:53:08.676859  4406 layer_factory.hpp:77] Creating layer Scale55
I0926 08:53:08.676957  4406 net.cpp:122] Setting up Scale55
I0926 08:53:08.676964  4406 net.cpp:129] Top shape: 100 64 8 8 (409600)
I0926 08:53:08.676966  4406 net.cpp:137] Memory required for data: 1166132400
I0926 08:53:08.676970  4406 layer_factory.hpp:77] Creating layer Eltwise26
I0926 08:53:08.676975  4406 net.cpp:84] Creating Layer Eltwise26
I0926 08:53:08.676977  4406 net.cpp:406] Eltwise26 <- Eltwise25_penlu51_0_split_1
I0926 08:53:08.676980  4406 net.cpp:406] Eltwise26 <- Convolution55
I0926 08:53:08.676985  4406 net.cpp:380] Eltwise26 -> Eltwise26
I0926 08:53:08.677001  4406 net.cpp:122] Setting up Eltwise26
I0926 08:53:08.677006  4406 net.cpp:129] Top shape: 100 64 8 8 (409600)
I0926 08:53:08.677008  4406 net.cpp:137] Memory required for data: 1167770800
I0926 08:53:08.677011  4406 layer_factory.hpp:77] Creating layer penlu53
I0926 08:53:08.677016  4406 net.cpp:84] Creating Layer penlu53
I0926 08:53:08.677017  4406 net.cpp:406] penlu53 <- Eltwise26
I0926 08:53:08.677021  4406 net.cpp:367] penlu53 -> Eltwise26 (in-place)
I0926 08:53:08.677145  4406 net.cpp:122] Setting up penlu53
I0926 08:53:08.677150  4406 net.cpp:129] Top shape: 100 64 8 8 (409600)
I0926 08:53:08.677151  4406 net.cpp:137] Memory required for data: 1169409200
I0926 08:53:08.677155  4406 layer_factory.hpp:77] Creating layer Eltwise26_penlu53_0_split
I0926 08:53:08.677160  4406 net.cpp:84] Creating Layer Eltwise26_penlu53_0_split
I0926 08:53:08.677161  4406 net.cpp:406] Eltwise26_penlu53_0_split <- Eltwise26
I0926 08:53:08.677165  4406 net.cpp:380] Eltwise26_penlu53_0_split -> Eltwise26_penlu53_0_split_0
I0926 08:53:08.677170  4406 net.cpp:380] Eltwise26_penlu53_0_split -> Eltwise26_penlu53_0_split_1
I0926 08:53:08.677193  4406 net.cpp:122] Setting up Eltwise26_penlu53_0_split
I0926 08:53:08.677197  4406 net.cpp:129] Top shape: 100 64 8 8 (409600)
I0926 08:53:08.677201  4406 net.cpp:129] Top shape: 100 64 8 8 (409600)
I0926 08:53:08.677202  4406 net.cpp:137] Memory required for data: 1172686000
I0926 08:53:08.677204  4406 layer_factory.hpp:77] Creating layer Convolution56
I0926 08:53:08.677209  4406 net.cpp:84] Creating Layer Convolution56
I0926 08:53:08.677219  4406 net.cpp:406] Convolution56 <- Eltwise26_penlu53_0_split_0
I0926 08:53:08.677224  4406 net.cpp:380] Convolution56 -> Convolution56
I0926 08:53:08.678922  4406 net.cpp:122] Setting up Convolution56
I0926 08:53:08.678931  4406 net.cpp:129] Top shape: 100 64 8 8 (409600)
I0926 08:53:08.678935  4406 net.cpp:137] Memory required for data: 1174324400
I0926 08:53:08.678938  4406 layer_factory.hpp:77] Creating layer BatchNorm56
I0926 08:53:08.678943  4406 net.cpp:84] Creating Layer BatchNorm56
I0926 08:53:08.678946  4406 net.cpp:406] BatchNorm56 <- Convolution56
I0926 08:53:08.678951  4406 net.cpp:367] BatchNorm56 -> Convolution56 (in-place)
I0926 08:53:08.679096  4406 net.cpp:122] Setting up BatchNorm56
I0926 08:53:08.679101  4406 net.cpp:129] Top shape: 100 64 8 8 (409600)
I0926 08:53:08.679103  4406 net.cpp:137] Memory required for data: 1175962800
I0926 08:53:08.679108  4406 layer_factory.hpp:77] Creating layer Scale56
I0926 08:53:08.679112  4406 net.cpp:84] Creating Layer Scale56
I0926 08:53:08.679114  4406 net.cpp:406] Scale56 <- Convolution56
I0926 08:53:08.679117  4406 net.cpp:367] Scale56 -> Convolution56 (in-place)
I0926 08:53:08.679147  4406 layer_factory.hpp:77] Creating layer Scale56
I0926 08:53:08.679229  4406 net.cpp:122] Setting up Scale56
I0926 08:53:08.679234  4406 net.cpp:129] Top shape: 100 64 8 8 (409600)
I0926 08:53:08.679235  4406 net.cpp:137] Memory required for data: 1177601200
I0926 08:53:08.679239  4406 layer_factory.hpp:77] Creating layer penlu54
I0926 08:53:08.679244  4406 net.cpp:84] Creating Layer penlu54
I0926 08:53:08.679247  4406 net.cpp:406] penlu54 <- Convolution56
I0926 08:53:08.679251  4406 net.cpp:367] penlu54 -> Convolution56 (in-place)
I0926 08:53:08.679373  4406 net.cpp:122] Setting up penlu54
I0926 08:53:08.679376  4406 net.cpp:129] Top shape: 100 64 8 8 (409600)
I0926 08:53:08.679378  4406 net.cpp:137] Memory required for data: 1179239600
I0926 08:53:08.679383  4406 layer_factory.hpp:77] Creating layer Convolution57
I0926 08:53:08.679389  4406 net.cpp:84] Creating Layer Convolution57
I0926 08:53:08.679391  4406 net.cpp:406] Convolution57 <- Convolution56
I0926 08:53:08.679396  4406 net.cpp:380] Convolution57 -> Convolution57
I0926 08:53:08.681112  4406 net.cpp:122] Setting up Convolution57
I0926 08:53:08.681120  4406 net.cpp:129] Top shape: 100 64 8 8 (409600)
I0926 08:53:08.681123  4406 net.cpp:137] Memory required for data: 1180878000
I0926 08:53:08.681128  4406 layer_factory.hpp:77] Creating layer BatchNorm57
I0926 08:53:08.681133  4406 net.cpp:84] Creating Layer BatchNorm57
I0926 08:53:08.681136  4406 net.cpp:406] BatchNorm57 <- Convolution57
I0926 08:53:08.681139  4406 net.cpp:367] BatchNorm57 -> Convolution57 (in-place)
I0926 08:53:08.681282  4406 net.cpp:122] Setting up BatchNorm57
I0926 08:53:08.681287  4406 net.cpp:129] Top shape: 100 64 8 8 (409600)
I0926 08:53:08.681288  4406 net.cpp:137] Memory required for data: 1182516400
I0926 08:53:08.681293  4406 layer_factory.hpp:77] Creating layer Scale57
I0926 08:53:08.681298  4406 net.cpp:84] Creating Layer Scale57
I0926 08:53:08.681299  4406 net.cpp:406] Scale57 <- Convolution57
I0926 08:53:08.681303  4406 net.cpp:367] Scale57 -> Convolution57 (in-place)
I0926 08:53:08.681332  4406 layer_factory.hpp:77] Creating layer Scale57
I0926 08:53:08.681414  4406 net.cpp:122] Setting up Scale57
I0926 08:53:08.681419  4406 net.cpp:129] Top shape: 100 64 8 8 (409600)
I0926 08:53:08.681421  4406 net.cpp:137] Memory required for data: 1184154800
I0926 08:53:08.681426  4406 layer_factory.hpp:77] Creating layer Eltwise27
I0926 08:53:08.681428  4406 net.cpp:84] Creating Layer Eltwise27
I0926 08:53:08.681432  4406 net.cpp:406] Eltwise27 <- Eltwise26_penlu53_0_split_1
I0926 08:53:08.681434  4406 net.cpp:406] Eltwise27 <- Convolution57
I0926 08:53:08.681437  4406 net.cpp:380] Eltwise27 -> Eltwise27
I0926 08:53:08.681455  4406 net.cpp:122] Setting up Eltwise27
I0926 08:53:08.681458  4406 net.cpp:129] Top shape: 100 64 8 8 (409600)
I0926 08:53:08.681460  4406 net.cpp:137] Memory required for data: 1185793200
I0926 08:53:08.681469  4406 layer_factory.hpp:77] Creating layer penlu55
I0926 08:53:08.681475  4406 net.cpp:84] Creating Layer penlu55
I0926 08:53:08.681478  4406 net.cpp:406] penlu55 <- Eltwise27
I0926 08:53:08.681481  4406 net.cpp:367] penlu55 -> Eltwise27 (in-place)
I0926 08:53:08.681602  4406 net.cpp:122] Setting up penlu55
I0926 08:53:08.681607  4406 net.cpp:129] Top shape: 100 64 8 8 (409600)
I0926 08:53:08.681609  4406 net.cpp:137] Memory required for data: 1187431600
I0926 08:53:08.681613  4406 layer_factory.hpp:77] Creating layer Pooling1
I0926 08:53:08.681620  4406 net.cpp:84] Creating Layer Pooling1
I0926 08:53:08.681622  4406 net.cpp:406] Pooling1 <- Eltwise27
I0926 08:53:08.681627  4406 net.cpp:380] Pooling1 -> Pooling1
I0926 08:53:08.682103  4406 net.cpp:122] Setting up Pooling1
I0926 08:53:08.682112  4406 net.cpp:129] Top shape: 100 64 1 1 (6400)
I0926 08:53:08.699308  4406 net.cpp:137] Memory required for data: 1187457200
I0926 08:53:08.699318  4406 layer_factory.hpp:77] Creating layer InnerProduct1
I0926 08:53:08.699326  4406 net.cpp:84] Creating Layer InnerProduct1
I0926 08:53:08.699328  4406 net.cpp:406] InnerProduct1 <- Pooling1
I0926 08:53:08.699335  4406 net.cpp:380] InnerProduct1 -> InnerProduct1
I0926 08:53:08.699466  4406 net.cpp:122] Setting up InnerProduct1
I0926 08:53:08.699472  4406 net.cpp:129] Top shape: 100 10 (1000)
I0926 08:53:08.699475  4406 net.cpp:137] Memory required for data: 1187461200
I0926 08:53:08.699478  4406 layer_factory.hpp:77] Creating layer InnerProduct1_InnerProduct1_0_split
I0926 08:53:08.699482  4406 net.cpp:84] Creating Layer InnerProduct1_InnerProduct1_0_split
I0926 08:53:08.699484  4406 net.cpp:406] InnerProduct1_InnerProduct1_0_split <- InnerProduct1
I0926 08:53:08.699488  4406 net.cpp:380] InnerProduct1_InnerProduct1_0_split -> InnerProduct1_InnerProduct1_0_split_0
I0926 08:53:08.699492  4406 net.cpp:380] InnerProduct1_InnerProduct1_0_split -> InnerProduct1_InnerProduct1_0_split_1
I0926 08:53:08.699519  4406 net.cpp:122] Setting up InnerProduct1_InnerProduct1_0_split
I0926 08:53:08.699523  4406 net.cpp:129] Top shape: 100 10 (1000)
I0926 08:53:08.699525  4406 net.cpp:129] Top shape: 100 10 (1000)
I0926 08:53:08.699527  4406 net.cpp:137] Memory required for data: 1187469200
I0926 08:53:08.699529  4406 layer_factory.hpp:77] Creating layer SoftmaxWithLoss1
I0926 08:53:08.699533  4406 net.cpp:84] Creating Layer SoftmaxWithLoss1
I0926 08:53:08.699537  4406 net.cpp:406] SoftmaxWithLoss1 <- InnerProduct1_InnerProduct1_0_split_0
I0926 08:53:08.699539  4406 net.cpp:406] SoftmaxWithLoss1 <- Data2_Data1_1_split_0
…
