…
I0928 13:46:48.419432  4581 net.cpp:294] The NetState phase (0) differed from the phase (1) specified by a rule in layer Accuracy1
I0928 13:46:48.420498  4581 net.cpp:51] Initializing net from parameters: 
name: "resnet_cifar10"
state {
  phase: TRAIN
  level: 0
  stage: ""
}
layer {
  name: "Data1"
  type: "Data"
  top: "Data1"
  top: "Data2"
  include {
    phase: TRAIN
  }
  transform_param {
    mirror: true
    crop_size: 28
    mean_file: "/home/x306/caffe/xn/PENLU/data/cifar10/mean.binaryproto"
  }
  data_param {
    source: "/home/x306/caffe/xn/PENLU/data/cifar10/cifar10_train_lmdb"
    batch_size: 100
    backend: LMDB
  }
}
layer {
  name: "Convolution1"
  type: "Convolution"
  bottom: "Data1"
  top: "Convolution1"
  param {
    lr_mult: 1
    decay_mult: 1
  }
  param {
    lr_mult: 2
    decay_mult: 0
  }
  convolution_param {
    num_output: 16
    pad: 1
    kernel_size: 3
    stride: 1
    weight_filler {
      type: "gaussian"
      std: 0.118
    }
    bias_filler {
      type: "constant"
      value: 0
    }
  }
}
layer {
  name: "BatchNorm1"
  type: "BatchNorm"
  bottom: "Convolution1"
  top: "Convolution1"
  param {
    lr_mult: 0
    decay_mult: 0
  }
  param {
    lr_mult: 0
    decay_mult: 0
  }
  param {
    lr_mult: 0
    decay_mult: 0
  }
}
layer {
  name: "Scale1"
  type: "Scale"
  bottom: "Convolution1"
  top: "Convolution1"
  scale_param {
    bias_term: true
  }
}
layer {
  name: "M2PELU1"
  type: "M2PELU"
  bottom: "Convolution1"
  top: "Convolution1"
  param {
    lr_mult: 2
    decay_mult: 0
  }
  param {
    lr_mult: 2
    decay_mult: 0
  }
  m2pelu_param {
    alpha_filler {
      type: "constant"
      value: 0.25
    }
    beta_filler {
      type: "constant"
      value: 1
    }
  }
}
layer {
  name: "Convolution2"
  type: "Convolution"
  bottom: "Convolution1"
  top: "Convolution2"
  param {
    lr_mult: 1
    decay_mult: 1
  }
  param {
    lr_mult: 2
    decay_mult: 0
  }
  convolution_param {
    num_output: 16
    pad: 1
    kernel_size: 3
    stride: 1
    weight_filler {
      type: "gaussian"
      std: 0.118
    }
    bias_filler {
      type: "constant"
      value: 0
    }
  }
}
layer {
  name: "BatchNorm2"
  type: "BatchNorm"
  bottom: "Convolution2"
  top: "Convolution2"
  param {
    lr_mult: 0
    decay_mult: 0
  }
  param {
    lr_mult: 0
    decay_mult: 0
  }
  param {
    lr_mult: 0
    decay_mult: 0
  }
}
layer {
  name: "Scale2"
  type: "Scale"
  bottom: "Convolution2"
  top: "Convolution2"
  scale_param {
    bias_term: true
  }
}
layer {
  name: "M2PELU2"
  type: "M2PELU"
  bottom: "Convolution2"
  top: "Convolution2"
  param {
    lr_mult: 2
    decay_mult: 0
  }
  param {
    lr_mult: 2
    decay_mult: 0
  }
  m2pelu_param {
    alpha_filler {
      type: "constant"
      value: 0.25
    }
    beta_filler {
      type: "constant"
      value: 1
    }
  }
}
layer {
  name: "Convolution3"
  type: "Convolution"
  bottom: "Convolution2"
  top: "Convolution3"
  param {
    lr_mult: 1
    decay_mult: 1
  }
  param {
    lr_mult: 2
    decay_mult: 0
  }
  convolution_param {
    num_output: 16
    pad: 1
    kernel_size: 3
    stride: 1
    weight_filler {
      type: "gaussian"
      std: 0.118
    }
    bias_filler {
      type: "constant"
      value: 0
    }
  }
}
layer {
  name: "BatchNorm3"
  type: "BatchNorm"
  bottom: "Convolution3"
  top: "Convolution3"
  param {
    lr_mult: 0
    decay_mult: 0
  }
  param {
    lr_mult: 0
    decay_mult: 0
  }
  param {
    lr_mult: 0
    decay_mult: 0
  }
}
layer {
  name: "Scale3"
  type: "Scale"
  bottom: "Convolution3"
  top: "Convolution3"
  scale_param {
    bias_term: true
  }
}
layer {
  name: "Eltwise1"
  type: "Eltwise"
  bottom: "Convolution1"
  bottom: "Convolution3"
  top: "Eltwise1"
  eltwise_param {
    operation: SUM
  }
}
layer {
  name: "M2PELU3"
  type: "M2PELU"
  bottom: "Eltwise1"
  top: "Eltwise1"
  param {
    lr_mult: 2
    decay_mult: 0
  }
  param {
    lr_mult: 2
    decay_mult: 0
  }
  m2pelu_param {
    alpha_filler {
      type: "constant"
      value: 0.25
    }
    beta_filler {
      type: "constant"
      value: 1
    }
  }
}
layer {
  name: "Convolution4"
  type: "Convolution"
  bottom: "Eltwise1"
  top: "Convolution4"
  param {
    lr_mult: 1
    decay_mult: 1
  }
  param {
    lr_mult: 2
    decay_mult: 0
  }
  convolution_param {
    num_output: 16
    pad: 1
    kernel_size: 3
    stride: 1
    weight_filler {
      type: "gaussian"
      std: 0.118
    }
    bias_filler {
      type: "constant"
      value: 0
    }
  }
}
layer {
  name: "BatchNorm4"
  type: "BatchNorm"
  bottom: "Convolution4"
  top: "Convolution4"
  param {
    lr_mult: 0
    decay_mult: 0
  }
  param {
    lr_mult: 0
    decay_mult: 0
  }
  param {
    lr_mult: 0
    decay_mult: 0
  }
}
layer {
  name: "Scale4"
  type: "Scale"
  bottom: "Convolution4"
  top: "Convolution4"
  scale_param {
    bias_term: true
  }
}
layer {
  name: "M2PELU4"
  type: "M2PELU"
  bottom: "Convolution4"
  top: "Convolution4"
  param {
    lr_mult: 2
    decay_mult: 0
  }
  param {
    lr_mult: 2
    decay_mult: 0
  }
  m2pelu_param {
    alpha_filler {
      type: "constant"
      value: 0.25
    }
    beta_filler {
      type: "constant"
      value: 1
    }
  }
}
layer {
  name: "Convolution5"
  type: "Convolution"
  bottom: "Convolution4"
  top: "Convolution5"
  param {
    lr_mult: 1
    decay_mult: 1
  }
  param {
    lr_mult: 2
    decay_mult: 0
  }
  convolution_param {
    num_output: 16
    pad: 1
    kernel_size: 3
    stride: 1
    weight_filler {
      type: "gaussian"
      std: 0.118
    }
    bias_filler {
      type: "constant"
      value: 0
    }
  }
}
layer {
  name: "BatchNorm5"
  type: "BatchNorm"
  bottom: "Convolution5"
  top: "Convolution5"
  param {
    lr_mult: 0
    decay_mult: 0
  }
  param {
    lr_mult: 0
    decay_mult: 0
  }
  param {
    lr_mult: 0
    decay_mult: 0
  }
}
layer {
  name: "Scale5"
  type: "Scale"
  bottom: "Convolution5"
  top: "Convolution5"
  scale_param {
    bias_term: true
  }
}
layer {
  name: "Eltwise2"
  type: "Eltwise"
  bottom: "Eltwise1"
  bottom: "Convolution5"
  top: "Eltwise2"
  eltwise_param {
    operation: SUM
  }
}
layer {
  name: "M2PELU5"
  type: "M2PELU"
  bottom: "Eltwise2"
  top: "Eltwise2"
  param {
    lr_mult: 2
    decay_mult: 0
  }
  param {
    lr_mult: 2
    decay_mult: 0
  }
  m2pelu_param {
    alpha_filler {
      type: "constant"
      value: 0.25
    }
    beta_filler {
      type: "constant"
      value: 1
    }
  }
}
layer {
  name: "Convolution6"
  type: "Convolution"
  bottom: "Eltwise2"
  top: "Convolution6"
  param {
    lr_mult: 1
    decay_mult: 1
  }
  param {
    lr_mult: 2
    decay_mult: 0
  }
  convolution_param {
    num_output: 16
    pad: 1
    kernel_size: 3
    stride: 1
    weight_filler {
      type: "gaussian"
      std: 0.118
    }
    bias_filler {
      type: "constant"
      value: 0
    }
  }
}
layer {
  name: "BatchNorm6"
  type: "BatchNorm"
  bottom: "Convolution6"
  top: "Convolution6"
  param {
    lr_mult: 0
    decay_mult: 0
  }
  param {
    lr_mult: 0
    decay_mult: 0
  }
  param {
    lr_mult: 0
    decay_mult: 0
  }
}
layer {
  name: "Scale6"
  type: "Scale"
  bottom: "Convolution6"
  top: "Convolution6"
  scale_param {
    bias_term: true
  }
}
layer {
  name: "M2PELU6"
  type: "M2PELU"
  bottom: "Convolution6"
  top: "Convolution6"
  param {
    lr_mult: 2
    decay_mult: 0
  }
  param {
    lr_mult: 2
    decay_mult: 0
  }
  m2pelu_param {
    alpha_filler {
      type: "constant"
      value: 0.25
    }
    beta_filler {
      type: "constant"
      value: 1
    }
  }
}
layer {
  name: "Convolution7"
  type: "Convolution"
  bottom: "Convolution6"
  top: "Convolution7"
  param {
    lr_mult: 1
    decay_mult: 1
  }
  param {
    lr_mult: 2
    decay_mult: 0
  }
  convolution_param {
    num_output: 16
    pad: 1
    kernel_size: 3
    stride: 1
    weight_filler {
      type: "gaussian"
      std: 0.118
    }
    bias_filler {
      type: "constant"
      value: 0
    }
  }
}
layer {
  name: "BatchNorm7"
  type: "BatchNorm"
  bottom: "Convolution7"
  top: "Convolution7"
  param {
    lr_mult: 0
    decay_mult: 0
  }
  param {
    lr_mult: 0
    decay_mult: 0
  }
  param {
    lr_mult: 0
    decay_mult: 0
  }
}
layer {
  name: "Scale7"
  type: "Scale"
  bottom: "Convolution7"
  top: "Convolution7"
  scale_param {
    bias_term: true
  }
}
layer {
  name: "Eltwise3"
  type: "Eltwise"
  bottom: "Eltwise2"
  bottom: "Convolution7"
  top: "Eltwise3"
  eltwise_param {
    operation: SUM
  }
}
layer {
  name: "M2PELU7"
  type: "M2PELU"
  bottom: "Eltwise3"
  top: "Eltwise3"
  param {
    lr_mult: 2
    decay_mult: 0
  }
  param {
    lr_mult: 2
    decay_mult: 0
  }
  m2pelu_param {
    alpha_filler {
      type: "constant"
      value: 0.25
    }
    beta_filler {
      type: "constant"
      value: 1
    }
  }
}
layer {
  name: "Convolution8"
  type: "Convolution"
  bottom: "Eltwise3"
  top: "Convolution8"
  param {
    lr_mult: 1
    decay_mult: 1
  }
  param {
    lr_mult: 2
    decay_mult: 0
  }
  convolution_param {
    num_output: 16
    pad: 1
    kernel_size: 3
    stride: 1
    weight_filler {
      type: "gaussian"
      std: 0.118
    }
    bias_filler {
      type: "constant"
      value: 0
    }
  }
}
layer {
  name: "BatchNorm8"
  type: "BatchNorm"
  bottom: "Convolution8"
  top: "Convolution8"
  param {
    lr_mult: 0
    decay_mult: 0
  }
  param {
    lr_mult: 0
    decay_mult: 0
  }
  param {
    lr_mult: 0
    decay_mult: 0
  }
}
layer {
  name: "Scale8"
  type: "Scale"
  bottom: "Convolution8"
  top: "Convolution8"
  scale_param {
    bias_term: true
  }
}
layer {
  name: "M2PELU8"
  type: "M2PELU"
  bottom: "Convolution8"
  top: "Convolution8"
  param {
    lr_mult: 2
    decay_mult: 0
  }
  param {
    lr_mult: 2
    decay_mult: 0
  }
  m2pelu_param {
    alpha_filler {
      type: "constant"
      value: 0.25
    }
    beta_filler {
      type: "constant"
      value: 1
    }
  }
}
layer {
  name: "Convolution9"
  type: "Convolution"
  bottom: "Convolution8"
  top: "Convolution9"
  param {
    lr_mult: 1
    decay_mult: 1
  }
  param {
    lr_mult: 2
    decay_mult: 0
  }
  convolution_param {
    num_output: 16
    pad: 1
    kernel_size: 3
    stride: 1
    weight_filler {
      type: "gaussian"
      std: 0.118
    }
    bias_filler {
      type: "constant"
      value: 0
    }
  }
}
layer {
  name: "BatchNorm9"
  type: "BatchNorm"
  bottom: "Convolution9"
  top: "Convolution9"
  param {
    lr_mult: 0
    decay_mult: 0
  }
  param {
    lr_mult: 0
    decay_mult: 0
  }
  param {
    lr_mult: 0
    decay_mult: 0
  }
}
layer {
  name: "Scale9"
  type: "Scale"
  bottom: "Convolution9"
  top: "Convolution9"
  scale_param {
    bias_term: true
  }
}
layer {
  name: "Eltwise4"
  type: "Eltwise"
  bottom: "Eltwise3"
  bottom: "Convolution9"
  top: "Eltwise4"
  eltwise_param {
    operation: SUM
  }
}
layer {
  name: "M2PELU9"
  type: "M2PELU"
  bottom: "Eltwise4"
  top: "Eltwise4"
  param {
    lr_mult: 2
    decay_mult: 0
  }
  param {
    lr_mult: 2
    decay_mult: 0
  }
  m2pelu_param {
    alpha_filler {
      type: "constant"
      value: 0.25
    }
    beta_filler {
      type: "constant"
      value: 1
    }
  }
}
layer {
  name: "Convolution10"
  type: "Convolution"
  bottom: "Eltwise4"
  top: "Convolution10"
  param {
    lr_mult: 1
    decay_mult: 1
  }
  param {
    lr_mult: 2
    decay_mult: 0
  }
  convolution_param {
    num_output: 16
    pad: 1
    kernel_size: 3
    stride: 1
    weight_filler {
      type: "gaussian"
      std: 0.118
    }
    bias_filler {
      type: "constant"
      value: 0
    }
  }
}
layer {
  name: "BatchNorm10"
  type: "BatchNorm"
  bottom: "Convolution10"
  top: "Convolution10"
  param {
    lr_mult: 0
    decay_mult: 0
  }
  param {
    lr_mult: 0
    decay_mult: 0
  }
  param {
    lr_mult: 0
    decay_mult: 0
  }
}
layer {
  name: "Scale10"
  type: "Scale"
  bottom: "Convolution10"
  top: "Convolution10"
  scale_param {
    bias_term: true
  }
}
layer {
  name: "M2PELU10"
  type: "M2PELU"
  bottom: "Convolution10"
  top: "Convolution10"
  param {
    lr_mult: 2
    decay_mult: 0
  }
  param {
    lr_mult: 2
    decay_mult: 0
  }
  m2pelu_param {
    alpha_filler {
      type: "constant"
      value: 0.25
    }
    beta_filler {
      type: "constant"
      value: 1
    }
  }
}
layer {
  name: "Convolution11"
  type: "Convolution"
  bottom: "Convolution10"
  top: "Convolution11"
  param {
    lr_mult: 1
    decay_mult: 1
  }
  param {
    lr_mult: 2
    decay_mult: 0
  }
  convolution_param {
    num_output: 16
    pad: 1
    kernel_size: 3
    stride: 1
    weight_filler {
      type: "gaussian"
      std: 0.118
    }
    bias_filler {
      type: "constant"
      value: 0
    }
  }
}
layer {
  name: "BatchNorm11"
  type: "BatchNorm"
  bottom: "Convolution11"
  top: "Convolution11"
  param {
    lr_mult: 0
    decay_mult: 0
  }
  param {
    lr_mult: 0
    decay_mult: 0
  }
  param {
    lr_mult: 0
    decay_mult: 0
  }
}
layer {
  name: "Scale11"
  type: "Scale"
  bottom: "Convolution11"
  top: "Convolution11"
  scale_param {
    bias_term: true
  }
}
layer {
  name: "Eltwise5"
  type: "Eltwise"
  bottom: "Eltwise4"
  bottom: "Convolution11"
  top: "Eltwise5"
  eltwise_param {
    operation: SUM
  }
}
layer {
  name: "M2PELU11"
  type: "M2PELU"
  bottom: "Eltwise5"
  top: "Eltwise5"
  param {
    lr_mult: 2
    decay_mult: 0
  }
  param {
    lr_mult: 2
    decay_mult: 0
  }
  m2pelu_param {
    alpha_filler {
      type: "constant"
      value: 0.25
    }
    beta_filler {
      type: "constant"
      value: 1
    }
  }
}
layer {
  name: "Convolution12"
  type: "Convolution"
  bottom: "Eltwise5"
  top: "Convolution12"
  param {
    lr_mult: 1
    decay_mult: 1
  }
  param {
    lr_mult: 2
    decay_mult: 0
  }
  convolution_param {
    num_output: 16
    pad: 1
    kernel_size: 3
    stride: 1
    weight_filler {
      type: "gaussian"
      std: 0.118
    }
    bias_filler {
      type: "constant"
      value: 0
    }
  }
}
layer {
  name: "BatchNorm12"
  type: "BatchNorm"
  bottom: "Convolution12"
  top: "Convolution12"
  param {
    lr_mult: 0
    decay_mult: 0
  }
  param {
    lr_mult: 0
    decay_mult: 0
  }
  param {
    lr_mult: 0
    decay_mult: 0
  }
}
layer {
  name: "Scale12"
  type: "Scale"
  bottom: "Convolution12"
  top: "Convolution12"
  scale_param {
    bias_term: true
  }
}
layer {
  name: "M2PELU12"
  type: "M2PELU"
  bottom: "Convolution12"
  top: "Convolution12"
  param {
    lr_mult: 2
    decay_mult: 0
  }
  param {
    lr_mult: 2
    decay_mult: 0
  }
  m2pelu_param {
    alpha_filler {
      type: "constant"
      value: 0.25
    }
    beta_filler {
      type: "constant"
      value: 1
    }
  }
}
layer {
  name: "Convolution13"
  type: "Convolution"
  bottom: "Convolution12"
  top: "Convolution13"
  param {
    lr_mult: 1
    decay_mult: 1
  }
  param {
    lr_mult: 2
    decay_mult: 0
  }
  convolution_param {
    num_output: 16
    pad: 1
    kernel_size: 3
    stride: 1
    weight_filler {
      type: "gaussian"
      std: 0.118
    }
    bias_filler {
      type: "constant"
      value: 0
    }
  }
}
layer {
  name: "BatchNorm13"
  type: "BatchNorm"
  bottom: "Convolution13"
  top: "Convolution13"
  param {
    lr_mult: 0
    decay_mult: 0
  }
  param {
    lr_mult: 0
    decay_mult: 0
  }
  param {
    lr_mult: 0
    decay_mult: 0
  }
}
layer {
  name: "Scale13"
  type: "Scale"
  bottom: "Convolution13"
  top: "Convolution13"
  scale_param {
    bias_term: true
  }
}
layer {
  name: "Eltwise6"
  type: "Eltwise"
  bottom: "Eltwise5"
  bottom: "Convolution13"
  top: "Eltwise6"
  eltwise_param {
    operation: SUM
  }
}
layer {
  name: "M2PELU13"
  type: "M2PELU"
  bottom: "Eltwise6"
  top: "Eltwise6"
  param {
    lr_mult: 2
    decay_mult: 0
  }
  param {
    lr_mult: 2
    decay_mult: 0
  }
  m2pelu_param {
    alpha_filler {
      type: "constant"
      value: 0.25
    }
    beta_filler {
      type: "constant"
      value: 1
    }
  }
}
layer {
  name: "Convolution14"
  type: "Convolution"
  bottom: "Eltwise6"
  top: "Convolution14"
  param {
    lr_mult: 1
    decay_mult: 1
  }
  param {
    lr_mult: 2
    decay_mult: 0
  }
  convolution_param {
    num_output: 16
    pad: 1
    kernel_size: 3
    stride: 1
    weight_filler {
      type: "gaussian"
      std: 0.118
    }
    bias_filler {
      type: "constant"
      value: 0
    }
  }
}
layer {
  name: "BatchNorm14"
  type: "BatchNorm"
  bottom: "Convolution14"
  top: "Convolution14"
  param {
    lr_mult: 0
    decay_mult: 0
  }
  param {
    lr_mult: 0
    decay_mult: 0
  }
  param {
    lr_mult: 0
    decay_mult: 0
  }
}
layer {
  name: "Scale14"
  type: "Scale"
  bottom: "Convolution14"
  top: "Convolution14"
  scale_param {
    bias_term: true
  }
}
layer {
  name: "M2PELU14"
  type: "M2PELU"
  bottom: "Convolution14"
  top: "Convolution14"
  param {
    lr_mult: 2
    decay_mult: 0
  }
  param {
    lr_mult: 2
    decay_mult: 0
  }
  m2pelu_param {
    alpha_filler {
      type: "constant"
      value: 0.25
    }
    beta_filler {
      type: "constant"
      value: 1
    }
  }
}
layer {
  name: "Convolution15"
  type: "Convolution"
  bottom: "Convolution14"
  top: "Convolution15"
  param {
    lr_mult: 1
    decay_mult: 1
  }
  param {
    lr_mult: 2
    decay_mult: 0
  }
  convolution_param {
    num_output: 16
    pad: 1
    kernel_size: 3
    stride: 1
    weight_filler {
      type: "gaussian"
      std: 0.118
    }
    bias_filler {
      type: "constant"
      value: 0
    }
  }
}
layer {
  name: "BatchNorm15"
  type: "BatchNorm"
  bottom: "Convolution15"
  top: "Convolution15"
  param {
    lr_mult: 0
    decay_mult: 0
  }
  param {
    lr_mult: 0
    decay_mult: 0
  }
  param {
    lr_mult: 0
    decay_mult: 0
  }
}
layer {
  name: "Scale15"
  type: "Scale"
  bottom: "Convolution15"
  top: "Convolution15"
  scale_param {
    bias_term: true
  }
}
layer {
  name: "Eltwise7"
  type: "Eltwise"
  bottom: "Eltwise6"
  bottom: "Convolution15"
  top: "Eltwise7"
  eltwise_param {
    operation: SUM
  }
}
layer {
  name: "M2PELU15"
  type: "M2PELU"
  bottom: "Eltwise7"
  top: "Eltwise7"
  param {
    lr_mult: 2
    decay_mult: 0
  }
  param {
    lr_mult: 2
    decay_mult: 0
  }
  m2pelu_param {
    alpha_filler {
      type: "constant"
      value: 0.25
    }
    beta_filler {
      type: "constant"
      value: 1
    }
  }
}
layer {
  name: "Convolution16"
  type: "Convolution"
  bottom: "Eltwise7"
  top: "Convolution16"
  param {
    lr_mult: 1
    decay_mult: 1
  }
  param {
    lr_mult: 2
    decay_mult: 0
  }
  convolution_param {
    num_output: 16
    pad: 1
    kernel_size: 3
    stride: 1
    weight_filler {
      type: "gaussian"
      std: 0.118
    }
    bias_filler {
      type: "constant"
      value: 0
    }
  }
}
layer {
  name: "BatchNorm16"
  type: "BatchNorm"
  bottom: "Convolution16"
  top: "Convolution16"
  param {
    lr_mult: 0
    decay_mult: 0
  }
  param {
    lr_mult: 0
    decay_mult: 0
  }
  param {
    lr_mult: 0
    decay_mult: 0
  }
}
layer {
  name: "Scale16"
  type: "Scale"
  bottom: "Convolution16"
  top: "Convolution16"
  scale_param {
    bias_term: true
  }
}
layer {
  name: "M2PELU16"
  type: "M2PELU"
  bottom: "Convolution16"
  top: "Convolution16"
  param {
    lr_mult: 2
    decay_mult: 0
  }
  param {
    lr_mult: 2
    decay_mult: 0
  }
  m2pelu_param {
    alpha_filler {
      type: "constant"
      value: 0.25
    }
    beta_filler {
      type: "constant"
      value: 1
    }
  }
}
layer {
  name: "Convolution17"
  type: "Convolution"
  bottom: "Convolution16"
  top: "Convolution17"
  param {
    lr_mult: 1
    decay_mult: 1
  }
  param {
    lr_mult: 2
    decay_mult: 0
  }
  convolution_param {
    num_output: 16
    pad: 1
    kernel_size: 3
    stride: 1
    weight_filler {
      type: "gaussian"
      std: 0.118
    }
    bias_filler {
      type: "constant"
      value: 0
    }
  }
}
layer {
  name: "BatchNorm17"
  type: "BatchNorm"
  bottom: "Convolution17"
  top: "Convolution17"
  param {
    lr_mult: 0
    decay_mult: 0
  }
  param {
    lr_mult: 0
    decay_mult: 0
  }
  param {
    lr_mult: 0
    decay_mult: 0
  }
}
layer {
  name: "Scale17"
  type: "Scale"
  bottom: "Convolution17"
  top: "Convolution17"
  scale_param {
    bias_term: true
  }
}
layer {
  name: "Eltwise8"
  type: "Eltwise"
  bottom: "Eltwise7"
  bottom: "Convolution17"
  top: "Eltwise8"
  eltwise_param {
    operation: SUM
  }
}
layer {
  name: "M2PELU17"
  type: "M2PELU"
  bottom: "Eltwise8"
  top: "Eltwise8"
  param {
    lr_mult: 2
    decay_mult: 0
  }
  param {
    lr_mult: 2
    decay_mult: 0
  }
  m2pelu_param {
    alpha_filler {
      type: "constant"
      value: 0.25
    }
    beta_filler {
      type: "constant"
      value: 1
    }
  }
}
layer {
  name: "Convolution18"
  type: "Convolution"
  bottom: "Eltwise8"
  top: "Convolution18"
  param {
    lr_mult: 1
    decay_mult: 1
  }
  param {
    lr_mult: 2
    decay_mult: 0
  }
  convolution_param {
    num_output: 16
    pad: 1
    kernel_size: 3
    stride: 1
    weight_filler {
      type: "gaussian"
      std: 0.118
    }
    bias_filler {
      type: "constant"
      value: 0
    }
  }
}
layer {
  name: "BatchNorm18"
  type: "BatchNorm"
  bottom: "Convolution18"
  top: "Convolution18"
  param {
    lr_mult: 0
    decay_mult: 0
  }
  param {
    lr_mult: 0
    decay_mult: 0
  }
  param {
    lr_mult: 0
    decay_mult: 0
  }
}
layer {
  name: "Scale18"
  type: "Scale"
  bottom: "Convolution18"
  top: "Convolution18"
  scale_param {
    bias_term: true
  }
}
layer {
  name: "M2PELU18"
  type: "M2PELU"
  bottom: "Convolution18"
  top: "Convolution18"
  param {
    lr_mult: 2
    decay_mult: 0
  }
  param {
    lr_mult: 2
    decay_mult: 0
  }
  m2pelu_param {
    alpha_filler {
      type: "constant"
      value: 0.25
    }
    beta_filler {
      type: "constant"
      value: 1
    }
  }
}
layer {
  name: "Convolution19"
  type: "Convolution"
  bottom: "Convolution18"
  top: "Convolution19"
  param {
    lr_mult: 1
    decay_mult: 1
  }
  param {
    lr_mult: 2
    decay_mult: 0
  }
  convolution_param {
    num_output: 16
    pad: 1
    kernel_size: 3
    stride: 1
    weight_filler {
      type: "gaussian"
      std: 0.118
    }
    bias_filler {
      type: "constant"
      value: 0
    }
  }
}
layer {
  name: "BatchNorm19"
  type: "BatchNorm"
  bottom: "Convolution19"
  top: "Convolution19"
  param {
    lr_mult: 0
    decay_mult: 0
  }
  param {
    lr_mult: 0
    decay_mult: 0
  }
  param {
    lr_mult: 0
    decay_mult: 0
  }
}
layer {
  name: "Scale19"
  type: "Scale"
  bottom: "Convolution19"
  top: "Convolution19"
  scale_param {
    bias_term: true
  }
}
layer {
  name: "Eltwise9"
  type: "Eltwise"
  bottom: "Eltwise8"
  bottom: "Convolution19"
  top: "Eltwise9"
  eltwise_param {
    operation: SUM
  }
}
layer {
  name: "M2PELU19"
  type: "M2PELU"
  bottom: "Eltwise9"
  top: "Eltwise9"
  param {
    lr_mult: 2
    decay_mult: 0
  }
  param {
    lr_mult: 2
    decay_mult: 0
  }
  m2pelu_param {
    alpha_filler {
      type: "constant"
      value: 0.25
    }
    beta_filler {
      type: "constant"
      value: 1
    }
  }
}
layer {
  name: "Convolution20"
  type: "Convolution"
  bottom: "Eltwise9"
  top: "Convolution20"
  param {
    lr_mult: 1
    decay_mult: 1
  }
  param {
    lr_mult: 2
    decay_mult: 0
  }
  convolution_param {
    num_output: 32
    pad: 0
    kernel_size: 1
    stride: 2
    weight_filler {
      type: "gaussian"
      std: 0.25
    }
    bias_filler {
      type: "constant"
      value: 0
    }
  }
}
layer {
  name: "BatchNorm20"
  type: "BatchNorm"
  bottom: "Convolution20"
  top: "Convolution20"
  param {
    lr_mult: 0
    decay_mult: 0
  }
  param {
    lr_mult: 0
    decay_mult: 0
  }
  param {
    lr_mult: 0
    decay_mult: 0
  }
}
layer {
  name: "Scale20"
  type: "Scale"
  bottom: "Convolution20"
  top: "Convolution20"
  scale_param {
    bias_term: true
  }
}
layer {
  name: "Convolution21"
  type: "Convolution"
  bottom: "Eltwise9"
  top: "Convolution21"
  param {
    lr_mult: 1
    decay_mult: 1
  }
  param {
    lr_mult: 2
    decay_mult: 0
  }
  convolution_param {
    num_output: 32
    pad: 1
    kernel_size: 3
    stride: 2
    weight_filler {
      type: "gaussian"
      std: 0.083
    }
    bias_filler {
      type: "constant"
      value: 0
    }
  }
}
layer {
  name: "BatchNorm21"
  type: "BatchNorm"
  bottom: "Convolution21"
  top: "Convolution21"
  param {
    lr_mult: 0
    decay_mult: 0
  }
  param {
    lr_mult: 0
    decay_mult: 0
  }
  param {
    lr_mult: 0
    decay_mult: 0
  }
}
layer {
  name: "Scale21"
  type: "Scale"
  bottom: "Convolution21"
  top: "Convolution21"
  scale_param {
    bias_term: true
  }
}
layer {
  name: "M2PELU20"
  type: "M2PELU"
  bottom: "Convolution21"
  top: "Convolution21"
  param {
    lr_mult: 2
    decay_mult: 0
  }
  param {
    lr_mult: 2
    decay_mult: 0
  }
  m2pelu_param {
    alpha_filler {
      type: "constant"
      value: 0.25
    }
    beta_filler {
      type: "constant"
      value: 1
    }
  }
}
layer {
  name: "Convolution22"
  type: "Convolution"
  bottom: "Convolution21"
  top: "Convolution22"
  param {
    lr_mult: 1
    decay_mult: 1
  }
  param {
    lr_mult: 2
    decay_mult: 0
  }
  convolution_param {
    num_output: 32
    pad: 1
    kernel_size: 3
    stride: 1
    weight_filler {
      type: "gaussian"
      std: 0.083
    }
    bias_filler {
      type: "constant"
      value: 0
    }
  }
}
layer {
  name: "BatchNorm22"
  type: "BatchNorm"
  bottom: "Convolution22"
  top: "Convolution22"
  param {
    lr_mult: 0
    decay_mult: 0
  }
  param {
    lr_mult: 0
    decay_mult: 0
  }
  param {
    lr_mult: 0
    decay_mult: 0
  }
}
layer {
  name: "Scale22"
  type: "Scale"
  bottom: "Convolution22"
  top: "Convolution22"
  scale_param {
    bias_term: true
  }
}
layer {
  name: "Eltwise10"
  type: "Eltwise"
  bottom: "Convolution20"
  bottom: "Convolution22"
  top: "Eltwise10"
  eltwise_param {
    operation: SUM
  }
}
layer {
  name: "M2PELU21"
  type: "M2PELU"
  bottom: "Eltwise10"
  top: "Eltwise10"
  param {
    lr_mult: 2
    decay_mult: 0
  }
  param {
    lr_mult: 2
    decay_mult: 0
  }
  m2pelu_param {
    alpha_filler {
      type: "constant"
      value: 0.25
    }
    beta_filler {
      type: "constant"
      value: 1
    }
  }
}
layer {
  name: "Convolution23"
  type: "Convolution"
  bottom: "Eltwise10"
  top: "Convolution23"
  param {
    lr_mult: 1
    decay_mult: 1
  }
  param {
    lr_mult: 2
    decay_mult: 0
  }
  convolution_param {
    num_output: 32
    pad: 1
    kernel_size: 3
    stride: 1
    weight_filler {
      type: "gaussian"
      std: 0.083
    }
    bias_filler {
      type: "constant"
      value: 0
    }
  }
}
layer {
  name: "BatchNorm23"
  type: "BatchNorm"
  bottom: "Convolution23"
  top: "Convolution23"
  param {
    lr_mult: 0
    decay_mult: 0
  }
  param {
    lr_mult: 0
    decay_mult: 0
  }
  param {
    lr_mult: 0
    decay_mult: 0
  }
}
layer {
  name: "Scale23"
  type: "Scale"
  bottom: "Convolution23"
  top: "Convolution23"
  scale_param {
    bias_term: true
  }
}
layer {
  name: "M2PELU22"
  type: "M2PELU"
  bottom: "Convolution23"
  top: "Convolution23"
  param {
    lr_mult: 2
    decay_mult: 0
  }
  param {
    lr_mult: 2
    decay_mult: 0
  }
  m2pelu_param {
    alpha_filler {
      type: "constant"
      value: 0.25
    }
    beta_filler {
      type: "constant"
      value: 1
    }
  }
}
layer {
  name: "Convolution24"
  type: "Convolution"
  bottom: "Convolution23"
  top: "Convolution24"
  param {
    lr_mult: 1
    decay_mult: 1
  }
  param {
    lr_mult: 2
    decay_mult: 0
  }
  convolution_param {
    num_output: 32
    pad: 1
    kernel_size: 3
    stride: 1
    weight_filler {
      type: "gaussian"
      std: 0.083
    }
    bias_filler {
      type: "constant"
      value: 0
    }
  }
}
layer {
  name: "BatchNorm24"
  type: "BatchNorm"
  bottom: "Convolution24"
  top: "Convolution24"
  param {
    lr_mult: 0
    decay_mult: 0
  }
  param {
    lr_mult: 0
    decay_mult: 0
  }
  param {
    lr_mult: 0
    decay_mult: 0
  }
}
layer {
  name: "Scale24"
  type: "Scale"
  bottom: "Convolution24"
  top: "Convolution24"
  scale_param {
    bias_term: true
  }
}
layer {
  name: "Eltwise11"
  type: "Eltwise"
  bottom: "Eltwise10"
  bottom: "Convolution24"
  top: "Eltwise11"
  eltwise_param {
    operation: SUM
  }
}
layer {
  name: "M2PELU23"
  type: "M2PELU"
  bottom: "Eltwise11"
  top: "Eltwise11"
  param {
    lr_mult: 2
    decay_mult: 0
  }
  param {
    lr_mult: 2
    decay_mult: 0
  }
  m2pelu_param {
    alpha_filler {
      type: "constant"
      value: 0.25
    }
    beta_filler {
      type: "constant"
      value: 1
    }
  }
}
layer {
  name: "Convolution25"
  type: "Convolution"
  bottom: "Eltwise11"
  top: "Convolution25"
  param {
    lr_mult: 1
    decay_mult: 1
  }
  param {
    lr_mult: 2
    decay_mult: 0
  }
  convolution_param {
    num_output: 32
    pad: 1
    kernel_size: 3
    stride: 1
    weight_filler {
      type: "gaussian"
      std: 0.083
    }
    bias_filler {
      type: "constant"
      value: 0
    }
  }
}
layer {
  name: "BatchNorm25"
  type: "BatchNorm"
  bottom: "Convolution25"
  top: "Convolution25"
  param {
    lr_mult: 0
    decay_mult: 0
  }
  param {
    lr_mult: 0
    decay_mult: 0
  }
  param {
    lr_mult: 0
    decay_mult: 0
  }
}
layer {
  name: "Scale25"
  type: "Scale"
  bottom: "Convolution25"
  top: "Convolution25"
  scale_param {
    bias_term: true
  }
}
layer {
  name: "M2PELU24"
  type: "M2PELU"
  bottom: "Convolution25"
  top: "Convolution25"
  param {
    lr_mult: 2
    decay_mult: 0
  }
  param {
    lr_mult: 2
    decay_mult: 0
  }
  m2pelu_param {
    alpha_filler {
      type: "constant"
      value: 0.25
    }
    beta_filler {
      type: "constant"
      value: 1
    }
  }
}
layer {
  name: "Convolution26"
  type: "Convolution"
  bottom: "Convolution25"
  top: "Convolution26"
  param {
    lr_mult: 1
    decay_mult: 1
  }
  param {
    lr_mult: 2
 
I0928 13:46:48.421262  4581 layer_factory.hpp:77] Creating layer Data1
I0928 13:46:48.421342  4581 db_lmdb.cpp:35] Opened lmdb /home/x306/caffe/xn/PENLU/data/cifar10/cifar10_train_lmdb
I0928 13:46:48.421362  4581 net.cpp:84] Creating Layer Data1
I0928 13:46:48.421368  4581 net.cpp:380] Data1 -> Data1
I0928 13:46:48.421394  4581 net.cpp:380] Data1 -> Data2
I0928 13:46:48.421403  4581 data_transformer.cpp:25] Loading mean file from: /home/x306/caffe/xn/PENLU/data/cifar10/mean.binaryproto
I0928 13:46:48.422825  4581 data_layer.cpp:45] output data size: 100,3,28,28
I0928 13:46:48.425174  4581 net.cpp:122] Setting up Data1
I0928 13:46:48.425191  4581 net.cpp:129] Top shape: 100 3 28 28 (235200)
I0928 13:46:48.425195  4581 net.cpp:129] Top shape: 100 (100)
I0928 13:46:48.425197  4581 net.cpp:137] Memory required for data: 941200
I0928 13:46:48.425204  4581 layer_factory.hpp:77] Creating layer Convolution1
I0928 13:46:48.425225  4581 net.cpp:84] Creating Layer Convolution1
I0928 13:46:48.425230  4581 net.cpp:406] Convolution1 <- Data1
I0928 13:46:48.425238  4581 net.cpp:380] Convolution1 -> Convolution1
I0928 13:46:48.570149  4581 net.cpp:122] Setting up Convolution1
I0928 13:46:48.570174  4581 net.cpp:129] Top shape: 100 16 28 28 (1254400)
I0928 13:46:48.570179  4581 net.cpp:137] Memory required for data: 5958800
I0928 13:46:48.570199  4581 layer_factory.hpp:77] Creating layer BatchNorm1
I0928 13:46:48.570224  4581 net.cpp:84] Creating Layer BatchNorm1
I0928 13:46:48.570248  4581 net.cpp:406] BatchNorm1 <- Convolution1
I0928 13:46:48.570268  4581 net.cpp:367] BatchNorm1 -> Convolution1 (in-place)
I0928 13:46:48.570405  4581 net.cpp:122] Setting up BatchNorm1
I0928 13:46:48.570413  4581 net.cpp:129] Top shape: 100 16 28 28 (1254400)
I0928 13:46:48.570417  4581 net.cpp:137] Memory required for data: 10976400
I0928 13:46:48.570430  4581 layer_factory.hpp:77] Creating layer Scale1
I0928 13:46:48.570456  4581 net.cpp:84] Creating Layer Scale1
I0928 13:46:48.570468  4581 net.cpp:406] Scale1 <- Convolution1
I0928 13:46:48.570474  4581 net.cpp:367] Scale1 -> Convolution1 (in-place)
I0928 13:46:48.570569  4581 layer_factory.hpp:77] Creating layer Scale1
I0928 13:46:48.570700  4581 net.cpp:122] Setting up Scale1
I0928 13:46:48.570708  4581 net.cpp:129] Top shape: 100 16 28 28 (1254400)
I0928 13:46:48.570711  4581 net.cpp:137] Memory required for data: 15994000
I0928 13:46:48.570720  4581 layer_factory.hpp:77] Creating layer M2PELU1
I0928 13:46:48.570747  4581 net.cpp:84] Creating Layer M2PELU1
I0928 13:46:48.570751  4581 net.cpp:406] M2PELU1 <- Convolution1
I0928 13:46:48.570767  4581 net.cpp:367] M2PELU1 -> Convolution1 (in-place)
I0928 13:46:48.571389  4581 net.cpp:122] Setting up M2PELU1
I0928 13:46:48.571399  4581 net.cpp:129] Top shape: 100 16 28 28 (1254400)
I0928 13:46:48.571404  4581 net.cpp:137] Memory required for data: 21011600
I0928 13:46:48.571414  4581 layer_factory.hpp:77] Creating layer Convolution1_M2PELU1_0_split
I0928 13:46:48.571439  4581 net.cpp:84] Creating Layer Convolution1_M2PELU1_0_split
I0928 13:46:48.571452  4581 net.cpp:406] Convolution1_M2PELU1_0_split <- Convolution1
I0928 13:46:48.571458  4581 net.cpp:380] Convolution1_M2PELU1_0_split -> Convolution1_M2PELU1_0_split_0
I0928 13:46:48.571480  4581 net.cpp:380] Convolution1_M2PELU1_0_split -> Convolution1_M2PELU1_0_split_1
I0928 13:46:48.571535  4581 net.cpp:122] Setting up Convolution1_M2PELU1_0_split
I0928 13:46:48.571542  4581 net.cpp:129] Top shape: 100 16 28 28 (1254400)
I0928 13:46:48.571560  4581 net.cpp:129] Top shape: 100 16 28 28 (1254400)
I0928 13:46:48.571564  4581 net.cpp:137] Memory required for data: 31046800
I0928 13:46:48.571578  4581 layer_factory.hpp:77] Creating layer Convolution2
I0928 13:46:48.571599  4581 net.cpp:84] Creating Layer Convolution2
I0928 13:46:48.571602  4581 net.cpp:406] Convolution2 <- Convolution1_M2PELU1_0_split_0
I0928 13:46:48.571609  4581 net.cpp:380] Convolution2 -> Convolution2
I0928 13:46:48.572465  4581 net.cpp:122] Setting up Convolution2
I0928 13:46:48.572476  4581 net.cpp:129] Top shape: 100 16 28 28 (1254400)
I0928 13:46:48.572481  4581 net.cpp:137] Memory required for data: 36064400
I0928 13:46:48.572489  4581 layer_factory.hpp:77] Creating layer BatchNorm2
I0928 13:46:48.572499  4581 net.cpp:84] Creating Layer BatchNorm2
I0928 13:46:48.572504  4581 net.cpp:406] BatchNorm2 <- Convolution2
I0928 13:46:48.572510  4581 net.cpp:367] BatchNorm2 -> Convolution2 (in-place)
I0928 13:46:48.572639  4581 net.cpp:122] Setting up BatchNorm2
I0928 13:46:48.572646  4581 net.cpp:129] Top shape: 100 16 28 28 (1254400)
I0928 13:46:48.572650  4581 net.cpp:137] Memory required for data: 41082000
I0928 13:46:48.572670  4581 layer_factory.hpp:77] Creating layer Scale2
I0928 13:46:48.572677  4581 net.cpp:84] Creating Layer Scale2
I0928 13:46:48.572682  4581 net.cpp:406] Scale2 <- Convolution2
I0928 13:46:48.572688  4581 net.cpp:367] Scale2 -> Convolution2 (in-place)
I0928 13:46:48.572720  4581 layer_factory.hpp:77] Creating layer Scale2
I0928 13:46:48.572796  4581 net.cpp:122] Setting up Scale2
I0928 13:46:48.572803  4581 net.cpp:129] Top shape: 100 16 28 28 (1254400)
I0928 13:46:48.572808  4581 net.cpp:137] Memory required for data: 46099600
I0928 13:46:48.572815  4581 layer_factory.hpp:77] Creating layer M2PELU2
I0928 13:46:48.572824  4581 net.cpp:84] Creating Layer M2PELU2
I0928 13:46:48.572829  4581 net.cpp:406] M2PELU2 <- Convolution2
I0928 13:46:48.572835  4581 net.cpp:367] M2PELU2 -> Convolution2 (in-place)
I0928 13:46:48.572917  4581 net.cpp:122] Setting up M2PELU2
I0928 13:46:48.572932  4581 net.cpp:129] Top shape: 100 16 28 28 (1254400)
I0928 13:46:48.572937  4581 net.cpp:137] Memory required for data: 51117200
I0928 13:46:48.572948  4581 layer_factory.hpp:77] Creating layer Convolution3
I0928 13:46:48.572958  4581 net.cpp:84] Creating Layer Convolution3
I0928 13:46:48.572962  4581 net.cpp:406] Convolution3 <- Convolution2
I0928 13:46:48.572969  4581 net.cpp:380] Convolution3 -> Convolution3
I0928 13:46:48.573824  4581 net.cpp:122] Setting up Convolution3
I0928 13:46:48.573835  4581 net.cpp:129] Top shape: 100 16 28 28 (1254400)
I0928 13:46:48.573840  4581 net.cpp:137] Memory required for data: 56134800
I0928 13:46:48.573848  4581 layer_factory.hpp:77] Creating layer BatchNorm3
I0928 13:46:48.573858  4581 net.cpp:84] Creating Layer BatchNorm3
I0928 13:46:48.573863  4581 net.cpp:406] BatchNorm3 <- Convolution3
I0928 13:46:48.573870  4581 net.cpp:367] BatchNorm3 -> Convolution3 (in-place)
I0928 13:46:48.573997  4581 net.cpp:122] Setting up BatchNorm3
I0928 13:46:48.574004  4581 net.cpp:129] Top shape: 100 16 28 28 (1254400)
I0928 13:46:48.574008  4581 net.cpp:137] Memory required for data: 61152400
I0928 13:46:48.574018  4581 layer_factory.hpp:77] Creating layer Scale3
I0928 13:46:48.574026  4581 net.cpp:84] Creating Layer Scale3
I0928 13:46:48.574031  4581 net.cpp:406] Scale3 <- Convolution3
I0928 13:46:48.574038  4581 net.cpp:367] Scale3 -> Convolution3 (in-place)
I0928 13:46:48.574069  4581 layer_factory.hpp:77] Creating layer Scale3
I0928 13:46:48.574147  4581 net.cpp:122] Setting up Scale3
I0928 13:46:48.574154  4581 net.cpp:129] Top shape: 100 16 28 28 (1254400)
I0928 13:46:48.574158  4581 net.cpp:137] Memory required for data: 66170000
I0928 13:46:48.574167  4581 layer_factory.hpp:77] Creating layer Eltwise1
I0928 13:46:48.574175  4581 net.cpp:84] Creating Layer Eltwise1
I0928 13:46:48.574180  4581 net.cpp:406] Eltwise1 <- Convolution1_M2PELU1_0_split_1
I0928 13:46:48.574185  4581 net.cpp:406] Eltwise1 <- Convolution3
I0928 13:46:48.574193  4581 net.cpp:380] Eltwise1 -> Eltwise1
I0928 13:46:48.574214  4581 net.cpp:122] Setting up Eltwise1
I0928 13:46:48.574220  4581 net.cpp:129] Top shape: 100 16 28 28 (1254400)
I0928 13:46:48.574224  4581 net.cpp:137] Memory required for data: 71187600
I0928 13:46:48.574229  4581 layer_factory.hpp:77] Creating layer M2PELU3
I0928 13:46:48.574239  4581 net.cpp:84] Creating Layer M2PELU3
I0928 13:46:48.574242  4581 net.cpp:406] M2PELU3 <- Eltwise1
I0928 13:46:48.574249  4581 net.cpp:367] M2PELU3 -> Eltwise1 (in-place)
I0928 13:46:48.574332  4581 net.cpp:122] Setting up M2PELU3
I0928 13:46:48.574339  4581 net.cpp:129] Top shape: 100 16 28 28 (1254400)
I0928 13:46:48.574343  4581 net.cpp:137] Memory required for data: 76205200
I0928 13:46:48.574352  4581 layer_factory.hpp:77] Creating layer Eltwise1_M2PELU3_0_split
I0928 13:46:48.574357  4581 net.cpp:84] Creating Layer Eltwise1_M2PELU3_0_split
I0928 13:46:48.574362  4581 net.cpp:406] Eltwise1_M2PELU3_0_split <- Eltwise1
I0928 13:46:48.574370  4581 net.cpp:380] Eltwise1_M2PELU3_0_split -> Eltwise1_M2PELU3_0_split_0
I0928 13:46:48.574378  4581 net.cpp:380] Eltwise1_M2PELU3_0_split -> Eltwise1_M2PELU3_0_split_1
I0928 13:46:48.574405  4581 net.cpp:122] Setting up Eltwise1_M2PELU3_0_split
I0928 13:46:48.574412  4581 net.cpp:129] Top shape: 100 16 28 28 (1254400)
I0928 13:46:48.574419  4581 net.cpp:129] Top shape: 100 16 28 28 (1254400)
I0928 13:46:48.574424  4581 net.cpp:137] Memory required for data: 86240400
I0928 13:46:48.574427  4581 layer_factory.hpp:77] Creating layer Convolution4
I0928 13:46:48.574440  4581 net.cpp:84] Creating Layer Convolution4
I0928 13:46:48.574445  4581 net.cpp:406] Convolution4 <- Eltwise1_M2PELU3_0_split_0
I0928 13:46:48.574451  4581 net.cpp:380] Convolution4 -> Convolution4
I0928 13:46:48.575346  4581 net.cpp:122] Setting up Convolution4
I0928 13:46:48.575357  4581 net.cpp:129] Top shape: 100 16 28 28 (1254400)
I0928 13:46:48.575362  4581 net.cpp:137] Memory required for data: 91258000
I0928 13:46:48.575369  4581 layer_factory.hpp:77] Creating layer BatchNorm4
I0928 13:46:48.575386  4581 net.cpp:84] Creating Layer BatchNorm4
I0928 13:46:48.575392  4581 net.cpp:406] BatchNorm4 <- Convolution4
I0928 13:46:48.575400  4581 net.cpp:367] BatchNorm4 -> Convolution4 (in-place)
I0928 13:46:48.575529  4581 net.cpp:122] Setting up BatchNorm4
I0928 13:46:48.575536  4581 net.cpp:129] Top shape: 100 16 28 28 (1254400)
I0928 13:46:48.575541  4581 net.cpp:137] Memory required for data: 96275600
I0928 13:46:48.575551  4581 layer_factory.hpp:77] Creating layer Scale4
I0928 13:46:48.575556  4581 net.cpp:84] Creating Layer Scale4
I0928 13:46:48.575562  4581 net.cpp:406] Scale4 <- Convolution4
I0928 13:46:48.575570  4581 net.cpp:367] Scale4 -> Convolution4 (in-place)
I0928 13:46:48.575599  4581 layer_factory.hpp:77] Creating layer Scale4
I0928 13:46:48.575678  4581 net.cpp:122] Setting up Scale4
I0928 13:46:48.575685  4581 net.cpp:129] Top shape: 100 16 28 28 (1254400)
I0928 13:46:48.575690  4581 net.cpp:137] Memory required for data: 101293200
I0928 13:46:48.575701  4581 layer_factory.hpp:77] Creating layer M2PELU4
I0928 13:46:48.575711  4581 net.cpp:84] Creating Layer M2PELU4
I0928 13:46:48.575716  4581 net.cpp:406] M2PELU4 <- Convolution4
I0928 13:46:48.575721  4581 net.cpp:367] M2PELU4 -> Convolution4 (in-place)
I0928 13:46:48.575803  4581 net.cpp:122] Setting up M2PELU4
I0928 13:46:48.575811  4581 net.cpp:129] Top shape: 100 16 28 28 (1254400)
I0928 13:46:48.575815  4581 net.cpp:137] Memory required for data: 106310800
I0928 13:46:48.575822  4581 layer_factory.hpp:77] Creating layer Convolution5
I0928 13:46:48.575834  4581 net.cpp:84] Creating Layer Convolution5
I0928 13:46:48.575839  4581 net.cpp:406] Convolution5 <- Convolution4
I0928 13:46:48.575845  4581 net.cpp:380] Convolution5 -> Convolution5
I0928 13:46:48.576714  4581 net.cpp:122] Setting up Convolution5
I0928 13:46:48.576726  4581 net.cpp:129] Top shape: 100 16 28 28 (1254400)
I0928 13:46:48.576730  4581 net.cpp:137] Memory required for data: 111328400
I0928 13:46:48.576738  4581 layer_factory.hpp:77] Creating layer BatchNorm5
I0928 13:46:48.576746  4581 net.cpp:84] Creating Layer BatchNorm5
I0928 13:46:48.576751  4581 net.cpp:406] BatchNorm5 <- Convolution5
I0928 13:46:48.576761  4581 net.cpp:367] BatchNorm5 -> Convolution5 (in-place)
I0928 13:46:48.576889  4581 net.cpp:122] Setting up BatchNorm5
I0928 13:46:48.576895  4581 net.cpp:129] Top shape: 100 16 28 28 (1254400)
I0928 13:46:48.576900  4581 net.cpp:137] Memory required for data: 116346000
I0928 13:46:48.576910  4581 layer_factory.hpp:77] Creating layer Scale5
I0928 13:46:48.576916  4581 net.cpp:84] Creating Layer Scale5
I0928 13:46:48.576921  4581 net.cpp:406] Scale5 <- Convolution5
I0928 13:46:48.576928  4581 net.cpp:367] Scale5 -> Convolution5 (in-place)
I0928 13:46:48.576958  4581 layer_factory.hpp:77] Creating layer Scale5
I0928 13:46:48.577040  4581 net.cpp:122] Setting up Scale5
I0928 13:46:48.577049  4581 net.cpp:129] Top shape: 100 16 28 28 (1254400)
I0928 13:46:48.577052  4581 net.cpp:137] Memory required for data: 121363600
I0928 13:46:48.577060  4581 layer_factory.hpp:77] Creating layer Eltwise2
I0928 13:46:48.577067  4581 net.cpp:84] Creating Layer Eltwise2
I0928 13:46:48.577072  4581 net.cpp:406] Eltwise2 <- Eltwise1_M2PELU3_0_split_1
I0928 13:46:48.577078  4581 net.cpp:406] Eltwise2 <- Convolution5
I0928 13:46:48.577086  4581 net.cpp:380] Eltwise2 -> Eltwise2
I0928 13:46:48.577105  4581 net.cpp:122] Setting up Eltwise2
I0928 13:46:48.577113  4581 net.cpp:129] Top shape: 100 16 28 28 (1254400)
I0928 13:46:48.577118  4581 net.cpp:137] Memory required for data: 126381200
I0928 13:46:48.577122  4581 layer_factory.hpp:77] Creating layer M2PELU5
I0928 13:46:48.577131  4581 net.cpp:84] Creating Layer M2PELU5
I0928 13:46:48.577134  4581 net.cpp:406] M2PELU5 <- Eltwise2
I0928 13:46:48.577142  4581 net.cpp:367] M2PELU5 -> Eltwise2 (in-place)
I0928 13:46:48.577227  4581 net.cpp:122] Setting up M2PELU5
I0928 13:46:48.577234  4581 net.cpp:129] Top shape: 100 16 28 28 (1254400)
I0928 13:46:48.577239  4581 net.cpp:137] Memory required for data: 131398800
I0928 13:46:48.577246  4581 layer_factory.hpp:77] Creating layer Eltwise2_M2PELU5_0_split
I0928 13:46:48.577260  4581 net.cpp:84] Creating Layer Eltwise2_M2PELU5_0_split
I0928 13:46:48.577265  4581 net.cpp:406] Eltwise2_M2PELU5_0_split <- Eltwise2
I0928 13:46:48.577272  4581 net.cpp:380] Eltwise2_M2PELU5_0_split -> Eltwise2_M2PELU5_0_split_0
I0928 13:46:48.577280  4581 net.cpp:380] Eltwise2_M2PELU5_0_split -> Eltwise2_M2PELU5_0_split_1
I0928 13:46:48.577307  4581 net.cpp:122] Setting up Eltwise2_M2PELU5_0_split
I0928 13:46:48.577314  4581 net.cpp:129] Top shape: 100 16 28 28 (1254400)
I0928 13:46:48.577320  4581 net.cpp:129] Top shape: 100 16 28 28 (1254400)
I0928 13:46:48.577325  4581 net.cpp:137] Memory required for data: 141434000
I0928 13:46:48.577330  4581 layer_factory.hpp:77] Creating layer Convolution6
I0928 13:46:48.577340  4581 net.cpp:84] Creating Layer Convolution6
I0928 13:46:48.577345  4581 net.cpp:406] Convolution6 <- Eltwise2_M2PELU5_0_split_0
I0928 13:46:48.577353  4581 net.cpp:380] Convolution6 -> Convolution6
I0928 13:46:48.578227  4581 net.cpp:122] Setting up Convolution6
I0928 13:46:48.578238  4581 net.cpp:129] Top shape: 100 16 28 28 (1254400)
I0928 13:46:48.578243  4581 net.cpp:137] Memory required for data: 146451600
I0928 13:46:48.578250  4581 layer_factory.hpp:77] Creating layer BatchNorm6
I0928 13:46:48.578260  4581 net.cpp:84] Creating Layer BatchNorm6
I0928 13:46:48.578265  4581 net.cpp:406] BatchNorm6 <- Convolution6
I0928 13:46:48.578274  4581 net.cpp:367] BatchNorm6 -> Convolution6 (in-place)
I0928 13:46:48.578407  4581 net.cpp:122] Setting up BatchNorm6
I0928 13:46:48.578413  4581 net.cpp:129] Top shape: 100 16 28 28 (1254400)
I0928 13:46:48.578418  4581 net.cpp:137] Memory required for data: 151469200
I0928 13:46:48.578428  4581 layer_factory.hpp:77] Creating layer Scale6
I0928 13:46:48.578436  4581 net.cpp:84] Creating Layer Scale6
I0928 13:46:48.578441  4581 net.cpp:406] Scale6 <- Convolution6
I0928 13:46:48.578447  4581 net.cpp:367] Scale6 -> Convolution6 (in-place)
I0928 13:46:48.578478  4581 layer_factory.hpp:77] Creating layer Scale6
I0928 13:46:48.578588  4581 net.cpp:122] Setting up Scale6
I0928 13:46:48.578595  4581 net.cpp:129] Top shape: 100 16 28 28 (1254400)
I0928 13:46:48.578599  4581 net.cpp:137] Memory required for data: 156486800
I0928 13:46:48.578606  4581 layer_factory.hpp:77] Creating layer M2PELU6
I0928 13:46:48.578616  4581 net.cpp:84] Creating Layer M2PELU6
I0928 13:46:48.578620  4581 net.cpp:406] M2PELU6 <- Convolution6
I0928 13:46:48.578627  4581 net.cpp:367] M2PELU6 -> Convolution6 (in-place)
I0928 13:46:48.578712  4581 net.cpp:122] Setting up M2PELU6
I0928 13:46:48.578722  4581 net.cpp:129] Top shape: 100 16 28 28 (1254400)
I0928 13:46:48.578727  4581 net.cpp:137] Memory required for data: 161504400
I0928 13:46:48.578734  4581 layer_factory.hpp:77] Creating layer Convolution7
I0928 13:46:48.578743  4581 net.cpp:84] Creating Layer Convolution7
I0928 13:46:48.578747  4581 net.cpp:406] Convolution7 <- Convolution6
I0928 13:46:48.578755  4581 net.cpp:380] Convolution7 -> Convolution7
I0928 13:46:48.579310  4581 net.cpp:122] Setting up Convolution7
I0928 13:46:48.579321  4581 net.cpp:129] Top shape: 100 16 28 28 (1254400)
I0928 13:46:48.579327  4581 net.cpp:137] Memory required for data: 166522000
I0928 13:46:48.579336  4581 layer_factory.hpp:77] Creating layer BatchNorm7
I0928 13:46:48.579344  4581 net.cpp:84] Creating Layer BatchNorm7
I0928 13:46:48.579349  4581 net.cpp:406] BatchNorm7 <- Convolution7
I0928 13:46:48.579355  4581 net.cpp:367] BatchNorm7 -> Convolution7 (in-place)
I0928 13:46:48.579490  4581 net.cpp:122] Setting up BatchNorm7
I0928 13:46:48.579497  4581 net.cpp:129] Top shape: 100 16 28 28 (1254400)
I0928 13:46:48.579501  4581 net.cpp:137] Memory required for data: 171539600
I0928 13:46:48.579510  4581 layer_factory.hpp:77] Creating layer Scale7
I0928 13:46:48.579519  4581 net.cpp:84] Creating Layer Scale7
I0928 13:46:48.579524  4581 net.cpp:406] Scale7 <- Convolution7
I0928 13:46:48.579530  4581 net.cpp:367] Scale7 -> Convolution7 (in-place)
I0928 13:46:48.579563  4581 layer_factory.hpp:77] Creating layer Scale7
I0928 13:46:48.579653  4581 net.cpp:122] Setting up Scale7
I0928 13:46:48.579661  4581 net.cpp:129] Top shape: 100 16 28 28 (1254400)
I0928 13:46:48.579666  4581 net.cpp:137] Memory required for data: 176557200
I0928 13:46:48.579674  4581 layer_factory.hpp:77] Creating layer Eltwise3
I0928 13:46:48.579681  4581 net.cpp:84] Creating Layer Eltwise3
I0928 13:46:48.579686  4581 net.cpp:406] Eltwise3 <- Eltwise2_M2PELU5_0_split_1
I0928 13:46:48.579692  4581 net.cpp:406] Eltwise3 <- Convolution7
I0928 13:46:48.579699  4581 net.cpp:380] Eltwise3 -> Eltwise3
I0928 13:46:48.579721  4581 net.cpp:122] Setting up Eltwise3
I0928 13:46:48.579728  4581 net.cpp:129] Top shape: 100 16 28 28 (1254400)
I0928 13:46:48.579733  4581 net.cpp:137] Memory required for data: 181574800
I0928 13:46:48.579738  4581 layer_factory.hpp:77] Creating layer M2PELU7
I0928 13:46:48.579746  4581 net.cpp:84] Creating Layer M2PELU7
I0928 13:46:48.579751  4581 net.cpp:406] M2PELU7 <- Eltwise3
I0928 13:46:48.579757  4581 net.cpp:367] M2PELU7 -> Eltwise3 (in-place)
I0928 13:46:48.579843  4581 net.cpp:122] Setting up M2PELU7
I0928 13:46:48.579850  4581 net.cpp:129] Top shape: 100 16 28 28 (1254400)
I0928 13:46:48.579854  4581 net.cpp:137] Memory required for data: 186592400
I0928 13:46:48.579862  4581 layer_factory.hpp:77] Creating layer Eltwise3_M2PELU7_0_split
I0928 13:46:48.579869  4581 net.cpp:84] Creating Layer Eltwise3_M2PELU7_0_split
I0928 13:46:48.579874  4581 net.cpp:406] Eltwise3_M2PELU7_0_split <- Eltwise3
I0928 13:46:48.579880  4581 net.cpp:380] Eltwise3_M2PELU7_0_split -> Eltwise3_M2PELU7_0_split_0
I0928 13:46:48.579890  4581 net.cpp:380] Eltwise3_M2PELU7_0_split -> Eltwise3_M2PELU7_0_split_1
I0928 13:46:48.579916  4581 net.cpp:122] Setting up Eltwise3_M2PELU7_0_split
I0928 13:46:48.579923  4581 net.cpp:129] Top shape: 100 16 28 28 (1254400)
I0928 13:46:48.579929  4581 net.cpp:129] Top shape: 100 16 28 28 (1254400)
I0928 13:46:48.579934  4581 net.cpp:137] Memory required for data: 196627600
I0928 13:46:48.579938  4581 layer_factory.hpp:77] Creating layer Convolution8
I0928 13:46:48.579949  4581 net.cpp:84] Creating Layer Convolution8
I0928 13:46:48.579953  4581 net.cpp:406] Convolution8 <- Eltwise3_M2PELU7_0_split_0
I0928 13:46:48.579960  4581 net.cpp:380] Convolution8 -> Convolution8
I0928 13:46:48.580831  4581 net.cpp:122] Setting up Convolution8
I0928 13:46:48.580842  4581 net.cpp:129] Top shape: 100 16 28 28 (1254400)
I0928 13:46:48.580847  4581 net.cpp:137] Memory required for data: 201645200
I0928 13:46:48.580862  4581 layer_factory.hpp:77] Creating layer BatchNorm8
I0928 13:46:48.580870  4581 net.cpp:84] Creating Layer BatchNorm8
I0928 13:46:48.580876  4581 net.cpp:406] BatchNorm8 <- Convolution8
I0928 13:46:48.580893  4581 net.cpp:367] BatchNorm8 -> Convolution8 (in-place)
I0928 13:46:48.581035  4581 net.cpp:122] Setting up BatchNorm8
I0928 13:46:48.581043  4581 net.cpp:129] Top shape: 100 16 28 28 (1254400)
I0928 13:46:48.581048  4581 net.cpp:137] Memory required for data: 206662800
I0928 13:46:48.581068  4581 layer_factory.hpp:77] Creating layer Scale8
I0928 13:46:48.581075  4581 net.cpp:84] Creating Layer Scale8
I0928 13:46:48.581089  4581 net.cpp:406] Scale8 <- Convolution8
I0928 13:46:48.581105  4581 net.cpp:367] Scale8 -> Convolution8 (in-place)
I0928 13:46:48.581146  4581 layer_factory.hpp:77] Creating layer Scale8
I0928 13:46:48.581248  4581 net.cpp:122] Setting up Scale8
I0928 13:46:48.581255  4581 net.cpp:129] Top shape: 100 16 28 28 (1254400)
I0928 13:46:48.581259  4581 net.cpp:137] Memory required for data: 211680400
I0928 13:46:48.581277  4581 layer_factory.hpp:77] Creating layer M2PELU8
I0928 13:46:48.581287  4581 net.cpp:84] Creating Layer M2PELU8
I0928 13:46:48.581291  4581 net.cpp:406] M2PELU8 <- Convolution8
I0928 13:46:48.581300  4581 net.cpp:367] M2PELU8 -> Convolution8 (in-place)
I0928 13:46:48.581395  4581 net.cpp:122] Setting up M2PELU8
I0928 13:46:48.581403  4581 net.cpp:129] Top shape: 100 16 28 28 (1254400)
I0928 13:46:48.581408  4581 net.cpp:137] Memory required for data: 216698000
I0928 13:46:48.581439  4581 layer_factory.hpp:77] Creating layer Convolution9
I0928 13:46:48.581461  4581 net.cpp:84] Creating Layer Convolution9
I0928 13:46:48.581466  4581 net.cpp:406] Convolution9 <- Convolution8
I0928 13:46:48.581475  4581 net.cpp:380] Convolution9 -> Convolution9
I0928 13:46:48.582543  4581 net.cpp:122] Setting up Convolution9
I0928 13:46:48.582554  4581 net.cpp:129] Top shape: 100 16 28 28 (1254400)
I0928 13:46:48.582559  4581 net.cpp:137] Memory required for data: 221715600
I0928 13:46:48.582567  4581 layer_factory.hpp:77] Creating layer BatchNorm9
I0928 13:46:48.582577  4581 net.cpp:84] Creating Layer BatchNorm9
I0928 13:46:48.582592  4581 net.cpp:406] BatchNorm9 <- Convolution9
I0928 13:46:48.582599  4581 net.cpp:367] BatchNorm9 -> Convolution9 (in-place)
I0928 13:46:48.582744  4581 net.cpp:122] Setting up BatchNorm9
I0928 13:46:48.582751  4581 net.cpp:129] Top shape: 100 16 28 28 (1254400)
I0928 13:46:48.582756  4581 net.cpp:137] Memory required for data: 226733200
I0928 13:46:48.582765  4581 layer_factory.hpp:77] Creating layer Scale9
I0928 13:46:48.582772  4581 net.cpp:84] Creating Layer Scale9
I0928 13:46:48.582777  4581 net.cpp:406] Scale9 <- Convolution9
I0928 13:46:48.582784  4581 net.cpp:367] Scale9 -> Convolution9 (in-place)
I0928 13:46:48.582816  4581 layer_factory.hpp:77] Creating layer Scale9
I0928 13:46:48.582901  4581 net.cpp:122] Setting up Scale9
I0928 13:46:48.582908  4581 net.cpp:129] Top shape: 100 16 28 28 (1254400)
I0928 13:46:48.582913  4581 net.cpp:137] Memory required for data: 231750800
I0928 13:46:48.582921  4581 layer_factory.hpp:77] Creating layer Eltwise4
I0928 13:46:48.582929  4581 net.cpp:84] Creating Layer Eltwise4
I0928 13:46:48.582934  4581 net.cpp:406] Eltwise4 <- Eltwise3_M2PELU7_0_split_1
I0928 13:46:48.582940  4581 net.cpp:406] Eltwise4 <- Convolution9
I0928 13:46:48.582947  4581 net.cpp:380] Eltwise4 -> Eltwise4
I0928 13:46:48.582967  4581 net.cpp:122] Setting up Eltwise4
I0928 13:46:48.582974  4581 net.cpp:129] Top shape: 100 16 28 28 (1254400)
I0928 13:46:48.582979  4581 net.cpp:137] Memory required for data: 236768400
I0928 13:46:48.582984  4581 layer_factory.hpp:77] Creating layer M2PELU9
I0928 13:46:48.582994  4581 net.cpp:84] Creating Layer M2PELU9
I0928 13:46:48.582998  4581 net.cpp:406] M2PELU9 <- Eltwise4
I0928 13:46:48.583004  4581 net.cpp:367] M2PELU9 -> Eltwise4 (in-place)
I0928 13:46:48.583094  4581 net.cpp:122] Setting up M2PELU9
I0928 13:46:48.583101  4581 net.cpp:129] Top shape: 100 16 28 28 (1254400)
I0928 13:46:48.583106  4581 net.cpp:137] Memory required for data: 241786000
I0928 13:46:48.583112  4581 layer_factory.hpp:77] Creating layer Eltwise4_M2PELU9_0_split
I0928 13:46:48.583119  4581 net.cpp:84] Creating Layer Eltwise4_M2PELU9_0_split
I0928 13:46:48.583124  4581 net.cpp:406] Eltwise4_M2PELU9_0_split <- Eltwise4
I0928 13:46:48.583130  4581 net.cpp:380] Eltwise4_M2PELU9_0_split -> Eltwise4_M2PELU9_0_split_0
I0928 13:46:48.583138  4581 net.cpp:380] Eltwise4_M2PELU9_0_split -> Eltwise4_M2PELU9_0_split_1
I0928 13:46:48.583166  4581 net.cpp:122] Setting up Eltwise4_M2PELU9_0_split
I0928 13:46:48.583173  4581 net.cpp:129] Top shape: 100 16 28 28 (1254400)
I0928 13:46:48.583178  4581 net.cpp:129] Top shape: 100 16 28 28 (1254400)
I0928 13:46:48.583184  4581 net.cpp:137] Memory required for data: 251821200
I0928 13:46:48.583187  4581 layer_factory.hpp:77] Creating layer Convolution10
I0928 13:46:48.583199  4581 net.cpp:84] Creating Layer Convolution10
I0928 13:46:48.583202  4581 net.cpp:406] Convolution10 <- Eltwise4_M2PELU9_0_split_0
I0928 13:46:48.583210  4581 net.cpp:380] Convolution10 -> Convolution10
I0928 13:46:48.584167  4581 net.cpp:122] Setting up Convolution10
I0928 13:46:48.584187  4581 net.cpp:129] Top shape: 100 16 28 28 (1254400)
I0928 13:46:48.584190  4581 net.cpp:137] Memory required for data: 256838800
I0928 13:46:48.584198  4581 layer_factory.hpp:77] Creating layer BatchNorm10
I0928 13:46:48.584208  4581 net.cpp:84] Creating Layer BatchNorm10
I0928 13:46:48.584213  4581 net.cpp:406] BatchNorm10 <- Convolution10
I0928 13:46:48.584229  4581 net.cpp:367] BatchNorm10 -> Convolution10 (in-place)
I0928 13:46:48.584362  4581 net.cpp:122] Setting up BatchNorm10
I0928 13:46:48.584369  4581 net.cpp:129] Top shape: 100 16 28 28 (1254400)
I0928 13:46:48.584373  4581 net.cpp:137] Memory required for data: 261856400
I0928 13:46:48.584383  4581 layer_factory.hpp:77] Creating layer Scale10
I0928 13:46:48.584390  4581 net.cpp:84] Creating Layer Scale10
I0928 13:46:48.584395  4581 net.cpp:406] Scale10 <- Convolution10
I0928 13:46:48.584401  4581 net.cpp:367] Scale10 -> Convolution10 (in-place)
I0928 13:46:48.584434  4581 layer_factory.hpp:77] Creating layer Scale10
I0928 13:46:48.584514  4581 net.cpp:122] Setting up Scale10
I0928 13:46:48.584522  4581 net.cpp:129] Top shape: 100 16 28 28 (1254400)
I0928 13:46:48.584525  4581 net.cpp:137] Memory required for data: 266874000
I0928 13:46:48.584533  4581 layer_factory.hpp:77] Creating layer M2PELU10
I0928 13:46:48.584542  4581 net.cpp:84] Creating Layer M2PELU10
I0928 13:46:48.584547  4581 net.cpp:406] M2PELU10 <- Convolution10
I0928 13:46:48.584554  4581 net.cpp:367] M2PELU10 -> Convolution10 (in-place)
I0928 13:46:48.584640  4581 net.cpp:122] Setting up M2PELU10
I0928 13:46:48.584646  4581 net.cpp:129] Top shape: 100 16 28 28 (1254400)
I0928 13:46:48.584650  4581 net.cpp:137] Memory required for data: 271891600
I0928 13:46:48.584657  4581 layer_factory.hpp:77] Creating layer Convolution11
I0928 13:46:48.584668  4581 net.cpp:84] Creating Layer Convolution11
I0928 13:46:48.584672  4581 net.cpp:406] Convolution11 <- Convolution10
I0928 13:46:48.584681  4581 net.cpp:380] Convolution11 -> Convolution11
I0928 13:46:48.585551  4581 net.cpp:122] Setting up Convolution11
I0928 13:46:48.585562  4581 net.cpp:129] Top shape: 100 16 28 28 (1254400)
I0928 13:46:48.585567  4581 net.cpp:137] Memory required for data: 276909200
I0928 13:46:48.585574  4581 layer_factory.hpp:77] Creating layer BatchNorm11
I0928 13:46:48.585583  4581 net.cpp:84] Creating Layer BatchNorm11
I0928 13:46:48.585588  4581 net.cpp:406] BatchNorm11 <- Convolution11
I0928 13:46:48.585594  4581 net.cpp:367] BatchNorm11 -> Convolution11 (in-place)
I0928 13:46:48.585726  4581 net.cpp:122] Setting up BatchNorm11
I0928 13:46:48.585733  4581 net.cpp:129] Top shape: 100 16 28 28 (1254400)
I0928 13:46:48.585737  4581 net.cpp:137] Memory required for data: 281926800
I0928 13:46:48.585747  4581 layer_factory.hpp:77] Creating layer Scale11
I0928 13:46:48.585753  4581 net.cpp:84] Creating Layer Scale11
I0928 13:46:48.585758  4581 net.cpp:406] Scale11 <- Convolution11
I0928 13:46:48.585764  4581 net.cpp:367] Scale11 -> Convolution11 (in-place)
I0928 13:46:48.585798  4581 layer_factory.hpp:77] Creating layer Scale11
I0928 13:46:48.585880  4581 net.cpp:122] Setting up Scale11
I0928 13:46:48.585887  4581 net.cpp:129] Top shape: 100 16 28 28 (1254400)
I0928 13:46:48.585892  4581 net.cpp:137] Memory required for data: 286944400
I0928 13:46:48.585901  4581 layer_factory.hpp:77] Creating layer Eltwise5
I0928 13:46:48.585906  4581 net.cpp:84] Creating Layer Eltwise5
I0928 13:46:48.585911  4581 net.cpp:406] Eltwise5 <- Eltwise4_M2PELU9_0_split_1
I0928 13:46:48.585917  4581 net.cpp:406] Eltwise5 <- Convolution11
I0928 13:46:48.585923  4581 net.cpp:380] Eltwise5 -> Eltwise5
I0928 13:46:48.585944  4581 net.cpp:122] Setting up Eltwise5
I0928 13:46:48.585952  4581 net.cpp:129] Top shape: 100 16 28 28 (1254400)
I0928 13:46:48.585957  4581 net.cpp:137] Memory required for data: 291962000
I0928 13:46:48.585961  4581 layer_factory.hpp:77] Creating layer M2PELU11
I0928 13:46:48.585970  4581 net.cpp:84] Creating Layer M2PELU11
I0928 13:46:48.585975  4581 net.cpp:406] M2PELU11 <- Eltwise5
I0928 13:46:48.585981  4581 net.cpp:367] M2PELU11 -> Eltwise5 (in-place)
I0928 13:46:48.586071  4581 net.cpp:122] Setting up M2PELU11
I0928 13:46:48.586076  4581 net.cpp:129] Top shape: 100 16 28 28 (1254400)
I0928 13:46:48.586081  4581 net.cpp:137] Memory required for data: 296979600
I0928 13:46:48.586088  4581 layer_factory.hpp:77] Creating layer Eltwise5_M2PELU11_0_split
I0928 13:46:48.586096  4581 net.cpp:84] Creating Layer Eltwise5_M2PELU11_0_split
I0928 13:46:48.586107  4581 net.cpp:406] Eltwise5_M2PELU11_0_split <- Eltwise5
I0928 13:46:48.586114  4581 net.cpp:380] Eltwise5_M2PELU11_0_split -> Eltwise5_M2PELU11_0_split_0
I0928 13:46:48.586122  4581 net.cpp:380] Eltwise5_M2PELU11_0_split -> Eltwise5_M2PELU11_0_split_1
I0928 13:46:48.586151  4581 net.cpp:122] Setting up Eltwise5_M2PELU11_0_split
I0928 13:46:48.586158  4581 net.cpp:129] Top shape: 100 16 28 28 (1254400)
I0928 13:46:48.586164  4581 net.cpp:129] Top shape: 100 16 28 28 (1254400)
I0928 13:46:48.586169  4581 net.cpp:137] Memory required for data: 307014800
I0928 13:46:48.586174  4581 layer_factory.hpp:77] Creating layer Convolution12
I0928 13:46:48.586184  4581 net.cpp:84] Creating Layer Convolution12
I0928 13:46:48.586189  4581 net.cpp:406] Convolution12 <- Eltwise5_M2PELU11_0_split_0
I0928 13:46:48.586196  4581 net.cpp:380] Convolution12 -> Convolution12
I0928 13:46:48.587093  4581 net.cpp:122] Setting up Convolution12
I0928 13:46:48.587105  4581 net.cpp:129] Top shape: 100 16 28 28 (1254400)
I0928 13:46:48.587110  4581 net.cpp:137] Memory required for data: 312032400
I0928 13:46:48.587116  4581 layer_factory.hpp:77] Creating layer BatchNorm12
I0928 13:46:48.587126  4581 net.cpp:84] Creating Layer BatchNorm12
I0928 13:46:48.587131  4581 net.cpp:406] BatchNorm12 <- Convolution12
I0928 13:46:48.587139  4581 net.cpp:367] BatchNorm12 -> Convolution12 (in-place)
I0928 13:46:48.587275  4581 net.cpp:122] Setting up BatchNorm12
I0928 13:46:48.587281  4581 net.cpp:129] Top shape: 100 16 28 28 (1254400)
I0928 13:46:48.587285  4581 net.cpp:137] Memory required for data: 317050000
I0928 13:46:48.587294  4581 layer_factory.hpp:77] Creating layer Scale12
I0928 13:46:48.587302  4581 net.cpp:84] Creating Layer Scale12
I0928 13:46:48.587307  4581 net.cpp:406] Scale12 <- Convolution12
I0928 13:46:48.587312  4581 net.cpp:367] Scale12 -> Convolution12 (in-place)
I0928 13:46:48.587353  4581 layer_factory.hpp:77] Creating layer Scale12
I0928 13:46:48.587440  4581 net.cpp:122] Setting up Scale12
I0928 13:46:48.587446  4581 net.cpp:129] Top shape: 100 16 28 28 (1254400)
I0928 13:46:48.587450  4581 net.cpp:137] Memory required for data: 322067600
I0928 13:46:48.587458  4581 layer_factory.hpp:77] Creating layer M2PELU12
I0928 13:46:48.587467  4581 net.cpp:84] Creating Layer M2PELU12
I0928 13:46:48.587472  4581 net.cpp:406] M2PELU12 <- Convolution12
I0928 13:46:48.587479  4581 net.cpp:367] M2PELU12 -> Convolution12 (in-place)
I0928 13:46:48.587569  4581 net.cpp:122] Setting up M2PELU12
I0928 13:46:48.587576  4581 net.cpp:129] Top shape: 100 16 28 28 (1254400)
I0928 13:46:48.587580  4581 net.cpp:137] Memory required for data: 327085200
I0928 13:46:48.587589  4581 layer_factory.hpp:77] Creating layer Convolution13
I0928 13:46:48.587599  4581 net.cpp:84] Creating Layer Convolution13
I0928 13:46:48.587604  4581 net.cpp:406] Convolution13 <- Convolution12
I0928 13:46:48.587611  4581 net.cpp:380] Convolution13 -> Convolution13
I0928 13:46:48.588506  4581 net.cpp:122] Setting up Convolution13
I0928 13:46:48.588517  4581 net.cpp:129] Top shape: 100 16 28 28 (1254400)
I0928 13:46:48.588522  4581 net.cpp:137] Memory required for data: 332102800
I0928 13:46:48.588529  4581 layer_factory.hpp:77] Creating layer BatchNorm13
I0928 13:46:48.588538  4581 net.cpp:84] Creating Layer BatchNorm13
I0928 13:46:48.588543  4581 net.cpp:406] BatchNorm13 <- Convolution13
I0928 13:46:48.588549  4581 net.cpp:367] BatchNorm13 -> Convolution13 (in-place)
I0928 13:46:48.588683  4581 net.cpp:122] Setting up BatchNorm13
I0928 13:46:48.588690  4581 net.cpp:129] Top shape: 100 16 28 28 (1254400)
I0928 13:46:48.588695  4581 net.cpp:137] Memory required for data: 337120400
I0928 13:46:48.588703  4581 layer_factory.hpp:77] Creating layer Scale13
I0928 13:46:48.588711  4581 net.cpp:84] Creating Layer Scale13
I0928 13:46:48.588716  4581 net.cpp:406] Scale13 <- Convolution13
I0928 13:46:48.588721  4581 net.cpp:367] Scale13 -> Convolution13 (in-place)
I0928 13:46:48.588755  4581 layer_factory.hpp:77] Creating layer Scale13
I0928 13:46:48.588847  4581 net.cpp:122] Setting up Scale13
I0928 13:46:48.588856  4581 net.cpp:129] Top shape: 100 16 28 28 (1254400)
I0928 13:46:48.588861  4581 net.cpp:137] Memory required for data: 342138000
I0928 13:46:48.588870  4581 layer_factory.hpp:77] Creating layer Eltwise6
I0928 13:46:48.588876  4581 net.cpp:84] Creating Layer Eltwise6
I0928 13:46:48.588881  4581 net.cpp:406] Eltwise6 <- Eltwise5_M2PELU11_0_split_1
I0928 13:46:48.588887  4581 net.cpp:406] Eltwise6 <- Convolution13
I0928 13:46:48.588893  4581 net.cpp:380] Eltwise6 -> Eltwise6
I0928 13:46:48.588917  4581 net.cpp:122] Setting up Eltwise6
I0928 13:46:48.588925  4581 net.cpp:129] Top shape: 100 16 28 28 (1254400)
I0928 13:46:48.588930  4581 net.cpp:137] Memory required for data: 347155600
I0928 13:46:48.588934  4581 layer_factory.hpp:77] Creating layer M2PELU13
I0928 13:46:48.588946  4581 net.cpp:84] Creating Layer M2PELU13
I0928 13:46:48.588951  4581 net.cpp:406] M2PELU13 <- Eltwise6
I0928 13:46:48.588958  4581 net.cpp:367] M2PELU13 -> Eltwise6 (in-place)
I0928 13:46:48.589048  4581 net.cpp:122] Setting up M2PELU13
I0928 13:46:48.589056  4581 net.cpp:129] Top shape: 100 16 28 28 (1254400)
I0928 13:46:48.589059  4581 net.cpp:137] Memory required for data: 352173200
I0928 13:46:48.589067  4581 layer_factory.hpp:77] Creating layer Eltwise6_M2PELU13_0_split
I0928 13:46:48.589073  4581 net.cpp:84] Creating Layer Eltwise6_M2PELU13_0_split
I0928 13:46:48.589078  4581 net.cpp:406] Eltwise6_M2PELU13_0_split <- Eltwise6
I0928 13:46:48.589087  4581 net.cpp:380] Eltwise6_M2PELU13_0_split -> Eltwise6_M2PELU13_0_split_0
I0928 13:46:48.589093  4581 net.cpp:380] Eltwise6_M2PELU13_0_split -> Eltwise6_M2PELU13_0_split_1
I0928 13:46:48.589121  4581 net.cpp:122] Setting up Eltwise6_M2PELU13_0_split
I0928 13:46:48.589128  4581 net.cpp:129] Top shape: 100 16 28 28 (1254400)
I0928 13:46:48.589134  4581 net.cpp:129] Top shape: 100 16 28 28 (1254400)
I0928 13:46:48.589138  4581 net.cpp:137] Memory required for data: 362208400
I0928 13:46:48.589140  4581 layer_factory.hpp:77] Creating layer Convolution14
I0928 13:46:48.589148  4581 net.cpp:84] Creating Layer Convolution14
I0928 13:46:48.589149  4581 net.cpp:406] Convolution14 <- Eltwise6_M2PELU13_0_split_0
I0928 13:46:48.589154  4581 net.cpp:380] Convolution14 -> Convolution14
I0928 13:46:48.590020  4581 net.cpp:122] Setting up Convolution14
I0928 13:46:48.590029  4581 net.cpp:129] Top shape: 100 16 28 28 (1254400)
I0928 13:46:48.590031  4581 net.cpp:137] Memory required for data: 367226000
I0928 13:46:48.590035  4581 layer_factory.hpp:77] Creating layer BatchNorm14
I0928 13:46:48.590041  4581 net.cpp:84] Creating Layer BatchNorm14
I0928 13:46:48.590044  4581 net.cpp:406] BatchNorm14 <- Convolution14
I0928 13:46:48.590049  4581 net.cpp:367] BatchNorm14 -> Convolution14 (in-place)
I0928 13:46:48.590179  4581 net.cpp:122] Setting up BatchNorm14
I0928 13:46:48.590183  4581 net.cpp:129] Top shape: 100 16 28 28 (1254400)
I0928 13:46:48.590185  4581 net.cpp:137] Memory required for data: 372243600
I0928 13:46:48.590190  4581 layer_factory.hpp:77] Creating layer Scale14
I0928 13:46:48.590194  4581 net.cpp:84] Creating Layer Scale14
I0928 13:46:48.590196  4581 net.cpp:406] Scale14 <- Convolution14
I0928 13:46:48.590199  4581 net.cpp:367] Scale14 -> Convolution14 (in-place)
I0928 13:46:48.590225  4581 layer_factory.hpp:77] Creating layer Scale14
I0928 13:46:48.590301  4581 net.cpp:122] Setting up Scale14
I0928 13:46:48.590306  4581 net.cpp:129] Top shape: 100 16 28 28 (1254400)
I0928 13:46:48.590307  4581 net.cpp:137] Memory required for data: 377261200
I0928 13:46:48.590311  4581 layer_factory.hpp:77] Creating layer M2PELU14
I0928 13:46:48.590315  4581 net.cpp:84] Creating Layer M2PELU14
I0928 13:46:48.590317  4581 net.cpp:406] M2PELU14 <- Convolution14
I0928 13:46:48.590322  4581 net.cpp:367] M2PELU14 -> Convolution14 (in-place)
I0928 13:46:48.590405  4581 net.cpp:122] Setting up M2PELU14
I0928 13:46:48.590410  4581 net.cpp:129] Top shape: 100 16 28 28 (1254400)
I0928 13:46:48.590412  4581 net.cpp:137] Memory required for data: 382278800
I0928 13:46:48.590421  4581 layer_factory.hpp:77] Creating layer Convolution15
I0928 13:46:48.590428  4581 net.cpp:84] Creating Layer Convolution15
I0928 13:46:48.590431  4581 net.cpp:406] Convolution15 <- Convolution14
I0928 13:46:48.590435  4581 net.cpp:380] Convolution15 -> Convolution15
I0928 13:46:48.591346  4581 net.cpp:122] Setting up Convolution15
I0928 13:46:48.591354  4581 net.cpp:129] Top shape: 100 16 28 28 (1254400)
I0928 13:46:48.591356  4581 net.cpp:137] Memory required for data: 387296400
I0928 13:46:48.591361  4581 layer_factory.hpp:77] Creating layer BatchNorm15
I0928 13:46:48.591367  4581 net.cpp:84] Creating Layer BatchNorm15
I0928 13:46:48.591370  4581 net.cpp:406] BatchNorm15 <- Convolution15
I0928 13:46:48.591374  4581 net.cpp:367] BatchNorm15 -> Convolution15 (in-place)
I0928 13:46:48.591503  4581 net.cpp:122] Setting up BatchNorm15
I0928 13:46:48.591508  4581 net.cpp:129] Top shape: 100 16 28 28 (1254400)
I0928 13:46:48.591511  4581 net.cpp:137] Memory required for data: 392314000
I0928 13:46:48.591524  4581 layer_factory.hpp:77] Creating layer Scale15
I0928 13:46:48.591529  4581 net.cpp:84] Creating Layer Scale15
I0928 13:46:48.591531  4581 net.cpp:406] Scale15 <- Convolution15
I0928 13:46:48.591534  4581 net.cpp:367] Scale15 -> Convolution15 (in-place)
I0928 13:46:48.591560  4581 layer_factory.hpp:77] Creating layer Scale15
I0928 13:46:48.591634  4581 net.cpp:122] Setting up Scale15
I0928 13:46:48.591639  4581 net.cpp:129] Top shape: 100 16 28 28 (1254400)
I0928 13:46:48.591640  4581 net.cpp:137] Memory required for data: 397331600
I0928 13:46:48.591645  4581 layer_factory.hpp:77] Creating layer Eltwise7
I0928 13:46:48.591648  4581 net.cpp:84] Creating Layer Eltwise7
I0928 13:46:48.591650  4581 net.cpp:406] Eltwise7 <- Eltwise6_M2PELU13_0_split_1
I0928 13:46:48.591653  4581 net.cpp:406] Eltwise7 <- Convolution15
I0928 13:46:48.591657  4581 net.cpp:380] Eltwise7 -> Eltwise7
I0928 13:46:48.591673  4581 net.cpp:122] Setting up Eltwise7
I0928 13:46:48.591676  4581 net.cpp:129] Top shape: 100 16 28 28 (1254400)
I0928 13:46:48.591678  4581 net.cpp:137] Memory required for data: 402349200
I0928 13:46:48.591681  4581 layer_factory.hpp:77] Creating layer M2PELU15
I0928 13:46:48.591686  4581 net.cpp:84] Creating Layer M2PELU15
I0928 13:46:48.591687  4581 net.cpp:406] M2PELU15 <- Eltwise7
I0928 13:46:48.591691  4581 net.cpp:367] M2PELU15 -> Eltwise7 (in-place)
I0928 13:46:48.591774  4581 net.cpp:122] Setting up M2PELU15
I0928 13:46:48.591778  4581 net.cpp:129] Top shape: 100 16 28 28 (1254400)
I0928 13:46:48.591780  4581 net.cpp:137] Memory required for data: 407366800
I0928 13:46:48.591784  4581 layer_factory.hpp:77] Creating layer Eltwise7_M2PELU15_0_split
I0928 13:46:48.591789  4581 net.cpp:84] Creating Layer Eltwise7_M2PELU15_0_split
I0928 13:46:48.591790  4581 net.cpp:406] Eltwise7_M2PELU15_0_split <- Eltwise7
I0928 13:46:48.591794  4581 net.cpp:380] Eltwise7_M2PELU15_0_split -> Eltwise7_M2PELU15_0_split_0
I0928 13:46:48.591797  4581 net.cpp:380] Eltwise7_M2PELU15_0_split -> Eltwise7_M2PELU15_0_split_1
I0928 13:46:48.591820  4581 net.cpp:122] Setting up Eltwise7_M2PELU15_0_split
I0928 13:46:48.591822  4581 net.cpp:129] Top shape: 100 16 28 28 (1254400)
I0928 13:46:48.591825  4581 net.cpp:129] Top shape: 100 16 28 28 (1254400)
I0928 13:46:48.591827  4581 net.cpp:137] Memory required for data: 417402000
I0928 13:46:48.591830  4581 layer_factory.hpp:77] Creating layer Convolution16
I0928 13:46:48.591835  4581 net.cpp:84] Creating Layer Convolution16
I0928 13:46:48.591837  4581 net.cpp:406] Convolution16 <- Eltwise7_M2PELU15_0_split_0
I0928 13:46:48.591842  4581 net.cpp:380] Convolution16 -> Convolution16
I0928 13:46:48.592695  4581 net.cpp:122] Setting up Convolution16
I0928 13:46:48.592703  4581 net.cpp:129] Top shape: 100 16 28 28 (1254400)
I0928 13:46:48.592705  4581 net.cpp:137] Memory required for data: 422419600
I0928 13:46:48.592710  4581 layer_factory.hpp:77] Creating layer BatchNorm16
I0928 13:46:48.592715  4581 net.cpp:84] Creating Layer BatchNorm16
I0928 13:46:48.592717  4581 net.cpp:406] BatchNorm16 <- Convolution16
I0928 13:46:48.592727  4581 net.cpp:367] BatchNorm16 -> Convolution16 (in-place)
I0928 13:46:48.592857  4581 net.cpp:122] Setting up BatchNorm16
I0928 13:46:48.592862  4581 net.cpp:129] Top shape: 100 16 28 28 (1254400)
I0928 13:46:48.592864  4581 net.cpp:137] Memory required for data: 427437200
I0928 13:46:48.592869  4581 layer_factory.hpp:77] Creating layer Scale16
I0928 13:46:48.592874  4581 net.cpp:84] Creating Layer Scale16
I0928 13:46:48.592875  4581 net.cpp:406] Scale16 <- Convolution16
I0928 13:46:48.592878  4581 net.cpp:367] Scale16 -> Convolution16 (in-place)
I0928 13:46:48.592905  4581 layer_factory.hpp:77] Creating layer Scale16
I0928 13:46:48.592979  4581 net.cpp:122] Setting up Scale16
I0928 13:46:48.592984  4581 net.cpp:129] Top shape: 100 16 28 28 (1254400)
I0928 13:46:48.592986  4581 net.cpp:137] Memory required for data: 432454800
I0928 13:46:48.592990  4581 layer_factory.hpp:77] Creating layer M2PELU16
I0928 13:46:48.592994  4581 net.cpp:84] Creating Layer M2PELU16
I0928 13:46:48.592998  4581 net.cpp:406] M2PELU16 <- Convolution16
I0928 13:46:48.593000  4581 net.cpp:367] M2PELU16 -> Convolution16 (in-place)
I0928 13:46:48.593085  4581 net.cpp:122] Setting up M2PELU16
I0928 13:46:48.593088  4581 net.cpp:129] Top shape: 100 16 28 28 (1254400)
I0928 13:46:48.593091  4581 net.cpp:137] Memory required for data: 437472400
I0928 13:46:48.593093  4581 layer_factory.hpp:77] Creating layer Convolution17
I0928 13:46:48.593101  4581 net.cpp:84] Creating Layer Convolution17
I0928 13:46:48.593102  4581 net.cpp:406] Convolution17 <- Convolution16
I0928 13:46:48.593107  4581 net.cpp:380] Convolution17 -> Convolution17
I0928 13:46:48.593650  4581 net.cpp:122] Setting up Convolution17
I0928 13:46:48.593657  4581 net.cpp:129] Top shape: 100 16 28 28 (1254400)
I0928 13:46:48.593660  4581 net.cpp:137] Memory required for data: 442490000
I0928 13:46:48.593664  4581 layer_factory.hpp:77] Creating layer BatchNorm17
I0928 13:46:48.593669  4581 net.cpp:84] Creating Layer BatchNorm17
I0928 13:46:48.593672  4581 net.cpp:406] BatchNorm17 <- Convolution17
I0928 13:46:48.593675  4581 net.cpp:367] BatchNorm17 -> Convolution17 (in-place)
I0928 13:46:48.593804  4581 net.cpp:122] Setting up BatchNorm17
I0928 13:46:48.593808  4581 net.cpp:129] Top shape: 100 16 28 28 (1254400)
I0928 13:46:48.593811  4581 net.cpp:137] Memory required for data: 447507600
I0928 13:46:48.593816  4581 layer_factory.hpp:77] Creating layer Scale17
I0928 13:46:48.593819  4581 net.cpp:84] Creating Layer Scale17
I0928 13:46:48.593822  4581 net.cpp:406] Scale17 <- Convolution17
I0928 13:46:48.593824  4581 net.cpp:367] Scale17 -> Convolution17 (in-place)
I0928 13:46:48.593849  4581 layer_factory.hpp:77] Creating layer Scale17
I0928 13:46:48.593924  4581 net.cpp:122] Setting up Scale17
I0928 13:46:48.593927  4581 net.cpp:129] Top shape: 100 16 28 28 (1254400)
I0928 13:46:48.593930  4581 net.cpp:137] Memory required for data: 452525200
I0928 13:46:48.593933  4581 layer_factory.hpp:77] Creating layer Eltwise8
I0928 13:46:48.593937  4581 net.cpp:84] Creating Layer Eltwise8
I0928 13:46:48.593940  4581 net.cpp:406] Eltwise8 <- Eltwise7_M2PELU15_0_split_1
I0928 13:46:48.593943  4581 net.cpp:406] Eltwise8 <- Convolution17
I0928 13:46:48.593946  4581 net.cpp:380] Eltwise8 -> Eltwise8
I0928 13:46:48.593961  4581 net.cpp:122] Setting up Eltwise8
I0928 13:46:48.593964  4581 net.cpp:129] Top shape: 100 16 28 28 (1254400)
I0928 13:46:48.593966  4581 net.cpp:137] Memory required for data: 457542800
I0928 13:46:48.593968  4581 layer_factory.hpp:77] Creating layer M2PELU17
I0928 13:46:48.593973  4581 net.cpp:84] Creating Layer M2PELU17
I0928 13:46:48.593976  4581 net.cpp:406] M2PELU17 <- Eltwise8
I0928 13:46:48.593978  4581 net.cpp:367] M2PELU17 -> Eltwise8 (in-place)
I0928 13:46:48.594061  4581 net.cpp:122] Setting up M2PELU17
I0928 13:46:48.594066  4581 net.cpp:129] Top shape: 100 16 28 28 (1254400)
I0928 13:46:48.594069  4581 net.cpp:137] Memory required for data: 462560400
I0928 13:46:48.594071  4581 layer_factory.hpp:77] Creating layer Eltwise8_M2PELU17_0_split
I0928 13:46:48.594081  4581 net.cpp:84] Creating Layer Eltwise8_M2PELU17_0_split
I0928 13:46:48.594084  4581 net.cpp:406] Eltwise8_M2PELU17_0_split <- Eltwise8
I0928 13:46:48.594087  4581 net.cpp:380] Eltwise8_M2PELU17_0_split -> Eltwise8_M2PELU17_0_split_0
I0928 13:46:48.594090  4581 net.cpp:380] Eltwise8_M2PELU17_0_split -> Eltwise8_M2PELU17_0_split_1
I0928 13:46:48.594115  4581 net.cpp:122] Setting up Eltwise8_M2PELU17_0_split
I0928 13:46:48.594117  4581 net.cpp:129] Top shape: 100 16 28 28 (1254400)
I0928 13:46:48.594120  4581 net.cpp:129] Top shape: 100 16 28 28 (1254400)
I0928 13:46:48.594122  4581 net.cpp:137] Memory required for data: 472595600
I0928 13:46:48.594125  4581 layer_factory.hpp:77] Creating layer Convolution18
I0928 13:46:48.594131  4581 net.cpp:84] Creating Layer Convolution18
I0928 13:46:48.594133  4581 net.cpp:406] Convolution18 <- Eltwise8_M2PELU17_0_split_0
I0928 13:46:48.594137  4581 net.cpp:380] Convolution18 -> Convolution18
I0928 13:46:48.595016  4581 net.cpp:122] Setting up Convolution18
I0928 13:46:48.595026  4581 net.cpp:129] Top shape: 100 16 28 28 (1254400)
I0928 13:46:48.595027  4581 net.cpp:137] Memory required for data: 477613200
I0928 13:46:48.595031  4581 layer_factory.hpp:77] Creating layer BatchNorm18
I0928 13:46:48.595036  4581 net.cpp:84] Creating Layer BatchNorm18
I0928 13:46:48.595039  4581 net.cpp:406] BatchNorm18 <- Convolution18
I0928 13:46:48.595043  4581 net.cpp:367] BatchNorm18 -> Convolution18 (in-place)
I0928 13:46:48.595172  4581 net.cpp:122] Setting up BatchNorm18
I0928 13:46:48.595177  4581 net.cpp:129] Top shape: 100 16 28 28 (1254400)
I0928 13:46:48.595180  4581 net.cpp:137] Memory required for data: 482630800
I0928 13:46:48.595185  4581 layer_factory.hpp:77] Creating layer Scale18
I0928 13:46:48.595188  4581 net.cpp:84] Creating Layer Scale18
I0928 13:46:48.595191  4581 net.cpp:406] Scale18 <- Convolution18
I0928 13:46:48.595194  4581 net.cpp:367] Scale18 -> Convolution18 (in-place)
I0928 13:46:48.595219  4581 layer_factory.hpp:77] Creating layer Scale18
I0928 13:46:48.595296  4581 net.cpp:122] Setting up Scale18
I0928 13:46:48.595301  4581 net.cpp:129] Top shape: 100 16 28 28 (1254400)
I0928 13:46:48.595304  4581 net.cpp:137] Memory required for data: 487648400
I0928 13:46:48.595306  4581 layer_factory.hpp:77] Creating layer M2PELU18
I0928 13:46:48.595311  4581 net.cpp:84] Creating Layer M2PELU18
I0928 13:46:48.595314  4581 net.cpp:406] M2PELU18 <- Convolution18
I0928 13:46:48.595317  4581 net.cpp:367] M2PELU18 -> Convolution18 (in-place)
I0928 13:46:48.595399  4581 net.cpp:122] Setting up M2PELU18
I0928 13:46:48.595404  4581 net.cpp:129] Top shape: 100 16 28 28 (1254400)
I0928 13:46:48.595407  4581 net.cpp:137] Memory required for data: 492666000
I0928 13:46:48.595409  4581 layer_factory.hpp:77] Creating layer Convolution19
I0928 13:46:48.595417  4581 net.cpp:84] Creating Layer Convolution19
I0928 13:46:48.595418  4581 net.cpp:406] Convolution19 <- Convolution18
I0928 13:46:48.595422  4581 net.cpp:380] Convolution19 -> Convolution19
I0928 13:46:48.596297  4581 net.cpp:122] Setting up Convolution19
I0928 13:46:48.596307  4581 net.cpp:129] Top shape: 100 16 28 28 (1254400)
I0928 13:46:48.596308  4581 net.cpp:137] Memory required for data: 497683600
I0928 13:46:48.596312  4581 layer_factory.hpp:77] Creating layer BatchNorm19
I0928 13:46:48.596318  4581 net.cpp:84] Creating Layer BatchNorm19
I0928 13:46:48.596320  4581 net.cpp:406] BatchNorm19 <- Convolution19
I0928 13:46:48.596323  4581 net.cpp:367] BatchNorm19 -> Convolution19 (in-place)
I0928 13:46:48.596503  4581 net.cpp:122] Setting up BatchNorm19
I0928 13:46:48.596509  4581 net.cpp:129] Top shape: 100 16 28 28 (1254400)
I0928 13:46:48.596511  4581 net.cpp:137] Memory required for data: 502701200
I0928 13:46:48.596516  4581 layer_factory.hpp:77] Creating layer Scale19
I0928 13:46:48.596521  4581 net.cpp:84] Creating Layer Scale19
I0928 13:46:48.596524  4581 net.cpp:406] Scale19 <- Convolution19
I0928 13:46:48.596526  4581 net.cpp:367] Scale19 -> Convolution19 (in-place)
I0928 13:46:48.596562  4581 layer_factory.hpp:77] Creating layer Scale19
I0928 13:46:48.596642  4581 net.cpp:122] Setting up Scale19
I0928 13:46:48.596647  4581 net.cpp:129] Top shape: 100 16 28 28 (1254400)
I0928 13:46:48.596648  4581 net.cpp:137] Memory required for data: 507718800
I0928 13:46:48.596652  4581 layer_factory.hpp:77] Creating layer Eltwise9
I0928 13:46:48.596657  4581 net.cpp:84] Creating Layer Eltwise9
I0928 13:46:48.596659  4581 net.cpp:406] Eltwise9 <- Eltwise8_M2PELU17_0_split_1
I0928 13:46:48.596662  4581 net.cpp:406] Eltwise9 <- Convolution19
I0928 13:46:48.596665  4581 net.cpp:380] Eltwise9 -> Eltwise9
I0928 13:46:48.596681  4581 net.cpp:122] Setting up Eltwise9
I0928 13:46:48.596685  4581 net.cpp:129] Top shape: 100 16 28 28 (1254400)
I0928 13:46:48.596688  4581 net.cpp:137] Memory required for data: 512736400
I0928 13:46:48.596689  4581 layer_factory.hpp:77] Creating layer M2PELU19
I0928 13:46:48.596694  4581 net.cpp:84] Creating Layer M2PELU19
I0928 13:46:48.596696  4581 net.cpp:406] M2PELU19 <- Eltwise9
I0928 13:46:48.596699  4581 net.cpp:367] M2PELU19 -> Eltwise9 (in-place)
I0928 13:46:48.596786  4581 net.cpp:122] Setting up M2PELU19
I0928 13:46:48.596789  4581 net.cpp:129] Top shape: 100 16 28 28 (1254400)
I0928 13:46:48.596791  4581 net.cpp:137] Memory required for data: 517754000
I0928 13:46:48.596796  4581 layer_factory.hpp:77] Creating layer Eltwise9_M2PELU19_0_split
I0928 13:46:48.596799  4581 net.cpp:84] Creating Layer Eltwise9_M2PELU19_0_split
I0928 13:46:48.596801  4581 net.cpp:406] Eltwise9_M2PELU19_0_split <- Eltwise9
I0928 13:46:48.596804  4581 net.cpp:380] Eltwise9_M2PELU19_0_split -> Eltwise9_M2PELU19_0_split_0
I0928 13:46:48.596808  4581 net.cpp:380] Eltwise9_M2PELU19_0_split -> Eltwise9_M2PELU19_0_split_1
I0928 13:46:48.596832  4581 net.cpp:122] Setting up Eltwise9_M2PELU19_0_split
I0928 13:46:48.596835  4581 net.cpp:129] Top shape: 100 16 28 28 (1254400)
I0928 13:46:48.596838  4581 net.cpp:129] Top shape: 100 16 28 28 (1254400)
I0928 13:46:48.596840  4581 net.cpp:137] Memory required for data: 527789200
I0928 13:46:48.596843  4581 layer_factory.hpp:77] Creating layer Convolution20
I0928 13:46:48.596850  4581 net.cpp:84] Creating Layer Convolution20
I0928 13:46:48.596853  4581 net.cpp:406] Convolution20 <- Eltwise9_M2PELU19_0_split_0
I0928 13:46:48.596856  4581 net.cpp:380] Convolution20 -> Convolution20
I0928 13:46:48.598115  4581 net.cpp:122] Setting up Convolution20
I0928 13:46:48.598124  4581 net.cpp:129] Top shape: 100 32 14 14 (627200)
I0928 13:46:48.598127  4581 net.cpp:137] Memory required for data: 530298000
I0928 13:46:48.598132  4581 layer_factory.hpp:77] Creating layer BatchNorm20
I0928 13:46:48.598137  4581 net.cpp:84] Creating Layer BatchNorm20
I0928 13:46:48.598140  4581 net.cpp:406] BatchNorm20 <- Convolution20
I0928 13:46:48.598145  4581 net.cpp:367] BatchNorm20 -> Convolution20 (in-place)
I0928 13:46:48.598291  4581 net.cpp:122] Setting up BatchNorm20
I0928 13:46:48.598295  4581 net.cpp:129] Top shape: 100 32 14 14 (627200)
I0928 13:46:48.598297  4581 net.cpp:137] Memory required for data: 532806800
I0928 13:46:48.598302  4581 layer_factory.hpp:77] Creating layer Scale20
I0928 13:46:48.598307  4581 net.cpp:84] Creating Layer Scale20
I0928 13:46:48.598309  4581 net.cpp:406] Scale20 <- Convolution20
I0928 13:46:48.598314  4581 net.cpp:367] Scale20 -> Convolution20 (in-place)
I0928 13:46:48.598340  4581 layer_factory.hpp:77] Creating layer Scale20
I0928 13:46:48.598418  4581 net.cpp:122] Setting up Scale20
I0928 13:46:48.598423  4581 net.cpp:129] Top shape: 100 32 14 14 (627200)
I0928 13:46:48.598425  4581 net.cpp:137] Memory required for data: 535315600
I0928 13:46:48.598429  4581 layer_factory.hpp:77] Creating layer Convolution21
I0928 13:46:48.598436  4581 net.cpp:84] Creating Layer Convolution21
I0928 13:46:48.598439  4581 net.cpp:406] Convolution21 <- Eltwise9_M2PELU19_0_split_1
I0928 13:46:48.598443  4581 net.cpp:380] Convolution21 -> Convolution21
I0928 13:46:48.600162  4581 net.cpp:122] Setting up Convolution21
I0928 13:46:48.600170  4581 net.cpp:129] Top shape: 100 32 14 14 (627200)
I0928 13:46:48.600180  4581 net.cpp:137] Memory required for data: 537824400
I0928 13:46:48.600186  4581 layer_factory.hpp:77] Creating layer BatchNorm21
I0928 13:46:48.600193  4581 net.cpp:84] Creating Layer BatchNorm21
I0928 13:46:48.600195  4581 net.cpp:406] BatchNorm21 <- Convolution21
I0928 13:46:48.600198  4581 net.cpp:367] BatchNorm21 -> Convolution21 (in-place)
I0928 13:46:48.600342  4581 net.cpp:122] Setting up BatchNorm21
I0928 13:46:48.600345  4581 net.cpp:129] Top shape: 100 32 14 14 (627200)
I0928 13:46:48.600348  4581 net.cpp:137] Memory required for data: 540333200
I0928 13:46:48.600353  4581 layer_factory.hpp:77] Creating layer Scale21
I0928 13:46:48.600358  4581 net.cpp:84] Creating Layer Scale21
I0928 13:46:48.600360  4581 net.cpp:406] Scale21 <- Convolution21
I0928 13:46:48.600363  4581 net.cpp:367] Scale21 -> Convolution21 (in-place)
I0928 13:46:48.600391  4581 layer_factory.hpp:77] Creating layer Scale21
I0928 13:46:48.600471  4581 net.cpp:122] Setting up Scale21
I0928 13:46:48.600474  4581 net.cpp:129] Top shape: 100 32 14 14 (627200)
I0928 13:46:48.600477  4581 net.cpp:137] Memory required for data: 542842000
I0928 13:46:48.600481  4581 layer_factory.hpp:77] Creating layer M2PELU20
I0928 13:46:48.600486  4581 net.cpp:84] Creating Layer M2PELU20
I0928 13:46:48.600489  4581 net.cpp:406] M2PELU20 <- Convolution21
I0928 13:46:48.600492  4581 net.cpp:367] M2PELU20 -> Convolution21 (in-place)
I0928 13:46:48.600586  4581 net.cpp:122] Setting up M2PELU20
I0928 13:46:48.600591  4581 net.cpp:129] Top shape: 100 32 14 14 (627200)
I0928 13:46:48.600594  4581 net.cpp:137] Memory required for data: 545350800
I0928 13:46:48.600596  4581 layer_factory.hpp:77] Creating layer Convolution22
I0928 13:46:48.600603  4581 net.cpp:84] Creating Layer Convolution22
I0928 13:46:48.600605  4581 net.cpp:406] Convolution22 <- Convolution21
I0928 13:46:48.600610  4581 net.cpp:380] Convolution22 -> Convolution22
I0928 13:46:48.601670  4581 net.cpp:122] Setting up Convolution22
I0928 13:46:48.601678  4581 net.cpp:129] Top shape: 100 32 14 14 (627200)
I0928 13:46:48.601681  4581 net.cpp:137] Memory required for data: 547859600
I0928 13:46:48.601686  4581 layer_factory.hpp:77] Creating layer BatchNorm22
I0928 13:46:48.601691  4581 net.cpp:84] Creating Layer BatchNorm22
I0928 13:46:48.601693  4581 net.cpp:406] BatchNorm22 <- Convolution22
I0928 13:46:48.601697  4581 net.cpp:367] BatchNorm22 -> Convolution22 (in-place)
I0928 13:46:48.601833  4581 net.cpp:122] Setting up BatchNorm22
I0928 13:46:48.601837  4581 net.cpp:129] Top shape: 100 32 14 14 (627200)
I0928 13:46:48.601840  4581 net.cpp:137] Memory required for data: 550368400
I0928 13:46:48.601845  4581 layer_factory.hpp:77] Creating layer Scale22
I0928 13:46:48.601848  4581 net.cpp:84] Creating Layer Scale22
I0928 13:46:48.601851  4581 net.cpp:406] Scale22 <- Convolution22
I0928 13:46:48.601855  4581 net.cpp:367] Scale22 -> Convolution22 (in-place)
I0928 13:46:48.601881  4581 layer_factory.hpp:77] Creating layer Scale22
I0928 13:46:48.601956  4581 net.cpp:122] Setting up Scale22
I0928 13:46:48.601960  4581 net.cpp:129] Top shape: 100 32 14 14 (627200)
I0928 13:46:48.601963  4581 net.cpp:137] Memory required for data: 552877200
I0928 13:46:48.601966  4581 layer_factory.hpp:77] Creating layer Eltwise10
I0928 13:46:48.601971  4581 net.cpp:84] Creating Layer Eltwise10
I0928 13:46:48.601974  4581 net.cpp:406] Eltwise10 <- Convolution20
I0928 13:46:48.601976  4581 net.cpp:406] Eltwise10 <- Convolution22
I0928 13:46:48.601980  4581 net.cpp:380] Eltwise10 -> Eltwise10
I0928 13:46:48.601995  4581 net.cpp:122] Setting up Eltwise10
I0928 13:46:48.601999  4581 net.cpp:129] Top shape: 100 32 14 14 (627200)
I0928 13:46:48.602000  4581 net.cpp:137] Memory required for data: 555386000
I0928 13:46:48.602002  4581 layer_factory.hpp:77] Creating layer M2PELU21
I0928 13:46:48.602007  4581 net.cpp:84] Creating Layer M2PELU21
I0928 13:46:48.602010  4581 net.cpp:406] M2PELU21 <- Eltwise10
I0928 13:46:48.602013  4581 net.cpp:367] M2PELU21 -> Eltwise10 (in-place)
I0928 13:46:48.602097  4581 net.cpp:122] Setting up M2PELU21
I0928 13:46:48.602108  4581 net.cpp:129] Top shape: 100 32 14 14 (627200)
I0928 13:46:48.602109  4581 net.cpp:137] Memory required for data: 557894800
I0928 13:46:48.602113  4581 layer_factory.hpp:77] Creating layer Eltwise10_M2PELU21_0_split
I0928 13:46:48.602118  4581 net.cpp:84] Creating Layer Eltwise10_M2PELU21_0_split
I0928 13:46:48.602119  4581 net.cpp:406] Eltwise10_M2PELU21_0_split <- Eltwise10
I0928 13:46:48.602123  4581 net.cpp:380] Eltwise10_M2PELU21_0_split -> Eltwise10_M2PELU21_0_split_0
I0928 13:46:48.602126  4581 net.cpp:380] Eltwise10_M2PELU21_0_split -> Eltwise10_M2PELU21_0_split_1
I0928 13:46:48.602151  4581 net.cpp:122] Setting up Eltwise10_M2PELU21_0_split
I0928 13:46:48.602155  4581 net.cpp:129] Top shape: 100 32 14 14 (627200)
I0928 13:46:48.602157  4581 net.cpp:129] Top shape: 100 32 14 14 (627200)
I0928 13:46:48.602159  4581 net.cpp:137] Memory required for data: 562912400
I0928 13:46:48.602161  4581 layer_factory.hpp:77] Creating layer Convolution23
I0928 13:46:48.602169  4581 net.cpp:84] Creating Layer Convolution23
I0928 13:46:48.602170  4581 net.cpp:406] Convolution23 <- Eltwise10_M2PELU21_0_split_0
I0928 13:46:48.602174  4581 net.cpp:380] Convolution23 -> Convolution23
I0928 13:46:48.603544  4581 net.cpp:122] Setting up Convolution23
I0928 13:46:48.603554  4581 net.cpp:129] Top shape: 100 32 14 14 (627200)
I0928 13:46:48.603556  4581 net.cpp:137] Memory required for data: 565421200
I0928 13:46:48.603561  4581 layer_factory.hpp:77] Creating layer BatchNorm23
I0928 13:46:48.603566  4581 net.cpp:84] Creating Layer BatchNorm23
I0928 13:46:48.603569  4581 net.cpp:406] BatchNorm23 <- Convolution23
I0928 13:46:48.603574  4581 net.cpp:367] BatchNorm23 -> Convolution23 (in-place)
I0928 13:46:48.603713  4581 net.cpp:122] Setting up BatchNorm23
I0928 13:46:48.603716  4581 net.cpp:129] Top shape: 100 32 14 14 (627200)
I0928 13:46:48.603718  4581 net.cpp:137] Memory required for data: 567930000
I0928 13:46:48.603724  4581 layer_factory.hpp:77] Creating layer Scale23
I0928 13:46:48.603727  4581 net.cpp:84] Creating Layer Scale23
I0928 13:46:48.603730  4581 net.cpp:406] Scale23 <- Convolution23
I0928 13:46:48.603734  4581 net.cpp:367] Scale23 -> Convolution23 (in-place)
I0928 13:46:48.603761  4581 layer_factory.hpp:77] Creating layer Scale23
I0928 13:46:48.603840  4581 net.cpp:122] Setting up Scale23
I0928 13:46:48.603845  4581 net.cpp:129] Top shape: 100 32 14 14 (627200)
I0928 13:46:48.603847  4581 net.cpp:137] Memory required for data: 570438800
I0928 13:46:48.603852  4581 layer_factory.hpp:77] Creating layer M2PELU22
I0928 13:46:48.603857  4581 net.cpp:84] Creating Layer M2PELU22
I0928 13:46:48.603858  4581 net.cpp:406] M2PELU22 <- Convolution23
I0928 13:46:48.603863  4581 net.cpp:367] M2PELU22 -> Convolution23 (in-place)
I0928 13:46:48.603946  4581 net.cpp:122] Setting up M2PELU22
I0928 13:46:48.603950  4581 net.cpp:129] Top shape: 100 32 14 14 (627200)
I0928 13:46:48.603952  4581 net.cpp:137] Memory required for data: 572947600
I0928 13:46:48.603956  4581 layer_factory.hpp:77] Creating layer Convolution24
I0928 13:46:48.603963  4581 net.cpp:84] Creating Layer Convolution24
I0928 13:46:48.603965  4581 net.cpp:406] Convolution24 <- Convolution23
I0928 13:46:48.603970  4581 net.cpp:380] Convolution24 -> Convolution24
I0928 13:46:48.605027  4581 net.cpp:122] Setting up Convolution24
I0928 13:46:48.605036  4581 net.cpp:129] Top shape: 100 32 14 14 (627200)
I0928 13:46:48.605038  4581 net.cpp:137] Memory required for data: 575456400
I0928 13:46:48.605043  4581 layer_factory.hpp:77] Creating layer BatchNorm24
I0928 13:46:48.605049  4581 net.cpp:84] Creating Layer BatchNorm24
I0928 13:46:48.605051  4581 net.cpp:406] BatchNorm24 <- Convolution24
I0928 13:46:48.605056  4581 net.cpp:367] BatchNorm24 -> Convolution24 (in-place)
I0928 13:46:48.605193  4581 net.cpp:122] Setting up BatchNorm24
I0928 13:46:48.605197  4581 net.cpp:129] Top shape: 100 32 14 14 (627200)
I0928 13:46:48.605199  4581 net.cpp:137] Memory required for data: 577965200
I0928 13:46:48.605204  4581 layer_factory.hpp:77] Creating layer Scale24
I0928 13:46:48.605216  4581 net.cpp:84] Creating Layer Scale24
I0928 13:46:48.605218  4581 net.cpp:406] Scale24 <- Convolution24
I0928 13:46:48.605221  4581 net.cpp:367] Scale24 -> Convolution24 (in-place)
I0928 13:46:48.605249  4581 layer_factory.hpp:77] Creating layer Scale24
I0928 13:46:48.605327  4581 net.cpp:122] Setting up Scale24
I0928 13:46:48.605332  4581 net.cpp:129] Top shape: 100 32 14 14 (627200)
I0928 13:46:48.605334  4581 net.cpp:137] Memory required for data: 580474000
I0928 13:46:48.605339  4581 layer_factory.hpp:77] Creating layer Eltwise11
I0928 13:46:48.605342  4581 net.cpp:84] Creating Layer Eltwise11
I0928 13:46:48.605345  4581 net.cpp:406] Eltwise11 <- Eltwise10_M2PELU21_0_split_1
I0928 13:46:48.605347  4581 net.cpp:406] Eltwise11 <- Convolution24
I0928 13:46:48.605351  4581 net.cpp:380] Eltwise11 -> Eltwise11
I0928 13:46:48.605367  4581 net.cpp:122] Setting up Eltwise11
I0928 13:46:48.605370  4581 net.cpp:129] Top shape: 100 32 14 14 (627200)
I0928 13:46:48.605372  4581 net.cpp:137] Memory required for data: 582982800
I0928 13:46:48.605376  4581 layer_factory.hpp:77] Creating layer M2PELU23
I0928 13:46:48.605381  4581 net.cpp:84] Creating Layer M2PELU23
I0928 13:46:48.605382  4581 net.cpp:406] M2PELU23 <- Eltwise11
I0928 13:46:48.605386  4581 net.cpp:367] M2PELU23 -> Eltwise11 (in-place)
I0928 13:46:48.605471  4581 net.cpp:122] Setting up M2PELU23
I0928 13:46:48.605475  4581 net.cpp:129] Top shape: 100 32 14 14 (627200)
I0928 13:46:48.605478  4581 net.cpp:137] Memory required for data: 585491600
I0928 13:46:48.605481  4581 layer_factory.hpp:77] Creating layer Eltwise11_M2PELU23_0_split
I0928 13:46:48.605485  4581 net.cpp:84] Creating Layer Eltwise11_M2PELU23_0_split
I0928 13:46:48.605487  4581 net.cpp:406] Eltwise11_M2PELU23_0_split <- Eltwise11
I0928 13:46:48.605491  4581 net.cpp:380] Eltwise11_M2PELU23_0_split -> Eltwise11_M2PELU23_0_split_0
I0928 13:46:48.605495  4581 net.cpp:380] Eltwise11_M2PELU23_0_split -> Eltwise11_M2PELU23_0_split_1
I0928 13:46:48.605518  4581 net.cpp:122] Setting up Eltwise11_M2PELU23_0_split
I0928 13:46:48.605522  4581 net.cpp:129] Top shape: 100 32 14 14 (627200)
I0928 13:46:48.605525  4581 net.cpp:129] Top shape: 100 32 14 14 (627200)
I0928 13:46:48.605526  4581 net.cpp:137] Memory required for data: 590509200
I0928 13:46:48.605530  4581 layer_factory.hpp:77] Creating layer Convolution25
I0928 13:46:48.605535  4581 net.cpp:84] Creating Layer Convolution25
I0928 13:46:48.605537  4581 net.cpp:406] Convolution25 <- Eltwise11_M2PELU23_0_split_0
I0928 13:46:48.605541  4581 net.cpp:380] Convolution25 -> Convolution25
I0928 13:46:48.606606  4581 net.cpp:122] Setting up Convolution25
I0928 13:46:48.606614  4581 net.cpp:129] Top shape: 100 32 14 14 (627200)
I0928 13:46:48.606616  4581 net.cpp:137] Memory required for data: 593018000
I0928 13:46:48.606621  4581 layer_factory.hpp:77] Creating layer BatchNorm25
I0928 13:46:48.606626  4581 net.cpp:84] Creating Layer BatchNorm25
I0928 13:46:48.606628  4581 net.cpp:406] BatchNorm25 <- Convolution25
I0928 13:46:48.606632  4581 net.cpp:367] BatchNorm25 -> Convolution25 (in-place)
I0928 13:46:48.606767  4581 net.cpp:122] Setting up BatchNorm25
I0928 13:46:48.606772  4581 net.cpp:129] Top shape: 100 32 14 14 (627200)
I0928 13:46:48.606775  4581 net.cpp:137] Memory required for data: 595526800
I0928 13:46:48.606779  4581 layer_factory.hpp:77] Creating layer Scale25
I0928 13:46:48.606783  4581 net.cpp:84] Creating Layer Scale25
I0928 13:46:48.606786  4581 net.cpp:406] Scale25 <- Convolution25
I0928 13:46:48.606788  4581 net.cpp:367] Scale25 -> Convolution25 (in-place)
I0928 13:46:48.606815  4581 layer_factory.hpp:77] Creating layer Scale25
I0928 13:46:48.606891  4581 net.cpp:122] Setting up Scale25
I0928 13:46:48.606896  4581 net.cpp:129] Top shape: 100 32 14 14 (627200)
I0928 13:46:48.606899  4581 net.cpp:137] Memory required for data: 598035600
I0928 13:46:48.606902  4581 layer_factory.hpp:77] Creating layer M2PELU24
I0928 13:46:48.606906  4581 net.cpp:84] Creating Layer M2PELU24
I0928 13:46:48.606909  4581 net.cpp:406] M2PELU24 <- Convolution25
I0928 13:46:48.606920  4581 net.cpp:367] M2PELU24 -> Convolution25 (in-place)
I0928 13:46:48.607004  4581 net.cpp:122] Setting up M2PELU24
I0928 13:46:48.607008  4581 net.cpp:129] Top shape: 100 32 14 14 (627200)
I0928 13:46:48.607010  4581 net.cpp:137] Memory required for data: 600544400
I0928 13:46:48.607014  4581 layer_factory.hpp:77] Creating layer Convolution26
I0928 13:46:48.607020  4581 net.cpp:84] Creating Layer Convolution26
I0928 13:46:48.607023  4581 net.cpp:406] Convolution26 <- Convolution25
I0928 13:46:48.607028  4581 net.cpp:380] Convolution26 -> Convolution26
I0928 13:46:48.608054  4581 net.cpp:122] Setting up Convolution26
I0928 13:46:48.608063  4581 net.cpp:129] Top shape: 100 32 14 14 (627200)
I0928 13:46:48.608065  4581 net.cpp:137] Memory required for data: 603053200
I0928 13:46:48.608070  4581 layer_factory.hpp:77] Creating layer BatchNorm26
I0928 13:46:48.608075  4581 net.cpp:84] Creating Layer BatchNorm26
I0928 13:46:48.608078  4581 net.cpp:406] BatchNorm26 <- Convolution26
I0928 13:46:48.608083  4581 net.cpp:367] BatchNorm26 -> Convolution26 (in-place)
I0928 13:46:48.608217  4581 net.cpp:122] Setting up BatchNorm26
I0928 13:46:48.608222  4581 net.cpp:129] Top shape: 100 32 14 14 (627200)
I0928 13:46:48.608223  4581 net.cpp:137] Memory required for data: 605562000
I0928 13:46:48.608228  4581 layer_factory.hpp:77] Creating layer Scale26
I0928 13:46:48.608232  4581 net.cpp:84] Creating Layer Scale26
I0928 13:46:48.608235  4581 net.cpp:406] Scale26 <- Convolution26
I0928 13:46:48.608238  4581 net.cpp:367] Scale26 -> Convolution26 (in-place)
I0928 13:46:48.608264  4581 layer_factory.hpp:77] Creating layer Scale26
I0928 13:46:48.608340  4581 net.cpp:122] Setting up Scale26
I0928 13:46:48.608345  4581 net.cpp:129] Top shape: 100 32 14 14 (627200)
I0928 13:46:48.608347  4581 net.cpp:137] Memory required for data: 608070800
I0928 13:46:48.608350  4581 layer_factory.hpp:77] Creating layer Eltwise12
I0928 13:46:48.608355  4581 net.cpp:84] Creating Layer Eltwise12
I0928 13:46:48.608357  4581 net.cpp:406] Eltwise12 <- Eltwise11_M2PELU23_0_split_1
I0928 13:46:48.608361  4581 net.cpp:406] Eltwise12 <- Convolution26
I0928 13:46:48.608363  4581 net.cpp:380] Eltwise12 -> Eltwise12
I0928 13:46:48.608379  4581 net.cpp:122] Setting up Eltwise12
I0928 13:46:48.608383  4581 net.cpp:129] Top shape: 100 32 14 14 (627200)
I0928 13:46:48.608386  4581 net.cpp:137] Memory required for data: 610579600
I0928 13:46:48.608387  4581 layer_factory.hpp:77] Creating layer M2PELU25
I0928 13:46:48.608392  4581 net.cpp:84] Creating Layer M2PELU25
I0928 13:46:48.608394  4581 net.cpp:406] M2PELU25 <- Eltwise12
I0928 13:46:48.608397  4581 net.cpp:367] M2PELU25 -> Eltwise12 (in-place)
I0928 13:46:48.608480  4581 net.cpp:122] Setting up M2PELU25
I0928 13:46:48.608484  4581 net.cpp:129] Top shape: 100 32 14 14 (627200)
I0928 13:46:48.608486  4581 net.cpp:137] Memory required for data: 613088400
I0928 13:46:48.608490  4581 layer_factory.hpp:77] Creating layer Eltwise12_M2PELU25_0_split
I0928 13:46:48.608502  4581 net.cpp:84] Creating Layer Eltwise12_M2PELU25_0_split
I0928 13:46:48.608505  4581 net.cpp:406] Eltwise12_M2PELU25_0_split <- Eltwise12
I0928 13:46:48.608508  4581 net.cpp:380] Eltwise12_M2PELU25_0_split -> Eltwise12_M2PELU25_0_split_0
I0928 13:46:48.608516  4581 net.cpp:380] Eltwise12_M2PELU25_0_split -> Eltwise12_M2PELU25_0_split_1
I0928 13:46:48.608541  4581 net.cpp:122] Setting up Eltwise12_M2PELU25_0_split
I0928 13:46:48.608546  4581 net.cpp:129] Top shape: 100 32 14 14 (627200)
I0928 13:46:48.608548  4581 net.cpp:129] Top shape: 100 32 14 14 (627200)
I0928 13:46:48.608551  4581 net.cpp:137] Memory required for data: 618106000
I0928 13:46:48.608553  4581 layer_factory.hpp:77] Creating layer Convolution27
I0928 13:46:48.608559  4581 net.cpp:84] Creating Layer Convolution27
I0928 13:46:48.608562  4581 net.cpp:406] Convolution27 <- Eltwise12_M2PELU25_0_split_0
I0928 13:46:48.608566  4581 net.cpp:380] Convolution27 -> Convolution27
I0928 13:46:48.609267  4581 net.cpp:122] Setting up Convolution27
I0928 13:46:48.609280  4581 net.cpp:129] Top shape: 100 32 14 14 (627200)
I0928 13:46:48.609282  4581 net.cpp:137] Memory required for data: 620614800
I0928 13:46:48.609287  4581 layer_factory.hpp:77] Creating layer BatchNorm27
I0928 13:46:48.609292  4581 net.cpp:84] Creating Layer BatchNorm27
I0928 13:46:48.609294  4581 net.cpp:406] BatchNorm27 <- Convolution27
I0928 13:46:48.609298  4581 net.cpp:367] BatchNorm27 -> Convolution27 (in-place)
I0928 13:46:48.609433  4581 net.cpp:122] Setting up BatchNorm27
I0928 13:46:48.609437  4581 net.cpp:129] Top shape: 100 32 14 14 (627200)
I0928 13:46:48.609439  4581 net.cpp:137] Memory required for data: 623123600
I0928 13:46:48.609444  4581 layer_factory.hpp:77] Creating layer Scale27
I0928 13:46:48.609447  4581 net.cpp:84] Creating Layer Scale27
I0928 13:46:48.609449  4581 net.cpp:406] Scale27 <- Convolution27
I0928 13:46:48.609452  4581 net.cpp:367] Scale27 -> Convolution27 (in-place)
I0928 13:46:48.609479  4581 layer_factory.hpp:77] Creating layer Scale27
I0928 13:46:48.609555  4581 net.cpp:122] Setting up Scale27
I0928 13:46:48.609558  4581 net.cpp:129] Top shape: 100 32 14 14 (627200)
I0928 13:46:48.609560  4581 net.cpp:137] Memory required for data: 625632400
I0928 13:46:48.609563  4581 layer_factory.hpp:77] Creating layer M2PELU26
I0928 13:46:48.609568  4581 net.cpp:84] Creating Layer M2PELU26
I0928 13:46:48.609571  4581 net.cpp:406] M2PELU26 <- Convolution27
I0928 13:46:48.609575  4581 net.cpp:367] M2PELU26 -> Convolution27 (in-place)
I0928 13:46:48.609657  4581 net.cpp:122] Setting up M2PELU26
I0928 13:46:48.609660  4581 net.cpp:129] Top shape: 100 32 14 14 (627200)
I0928 13:46:48.609663  4581 net.cpp:137] Memory required for data: 628141200
I0928 13:46:48.609666  4581 layer_factory.hpp:77] Creating layer Convolution28
I0928 13:46:48.609673  4581 net.cpp:84] Creating Layer Convolution28
I0928 13:46:48.609675  4581 net.cpp:406] Convolution28 <- Convolution27
I0928 13:46:48.609679  4581 net.cpp:380] Convolution28 -> Convolution28
I0928 13:46:48.610725  4581 net.cpp:122] Setting up Convolution28
I0928 13:46:48.610733  4581 net.cpp:129] Top shape: 100 32 14 14 (627200)
I0928 13:46:48.610736  4581 net.cpp:137] Memory required for data: 630650000
I0928 13:46:48.610740  4581 layer_factory.hpp:77] Creating layer BatchNorm28
I0928 13:46:48.610745  4581 net.cpp:84] Creating Layer BatchNorm28
I0928 13:46:48.610747  4581 net.cpp:406] BatchNorm28 <- Convolution28
I0928 13:46:48.610752  4581 net.cpp:367] BatchNorm28 -> Convolution28 (in-place)
I0928 13:46:48.610887  4581 net.cpp:122] Setting up BatchNorm28
I0928 13:46:48.610890  4581 net.cpp:129] Top shape: 100 32 14 14 (627200)
I0928 13:46:48.610893  4581 net.cpp:137] Memory required for data: 633158800
I0928 13:46:48.610898  4581 layer_factory.hpp:77] Creating layer Scale28
I0928 13:46:48.610901  4581 net.cpp:84] Creating Layer Scale28
I0928 13:46:48.610903  4581 net.cpp:406] Scale28 <- Convolution28
I0928 13:46:48.610908  4581 net.cpp:367] Scale28 -> Convolution28 (in-place)
I0928 13:46:48.610934  4581 layer_factory.hpp:77] Creating layer Scale28
I0928 13:46:48.611012  4581 net.cpp:122] Setting up Scale28
I0928 13:46:48.611016  4581 net.cpp:129] Top shape: 100 32 14 14 (627200)
I0928 13:46:48.611018  4581 net.cpp:137] Memory required for data: 635667600
I0928 13:46:48.611022  4581 layer_factory.hpp:77] Creating layer Eltwise13
I0928 13:46:48.611027  4581 net.cpp:84] Creating Layer Eltwise13
I0928 13:46:48.611029  4581 net.cpp:406] Eltwise13 <- Eltwise12_M2PELU25_0_split_1
I0928 13:46:48.611032  4581 net.cpp:406] Eltwise13 <- Convolution28
I0928 13:46:48.611035  4581 net.cpp:380] Eltwise13 -> Eltwise13
I0928 13:46:48.611052  4581 net.cpp:122] Setting up Eltwise13
I0928 13:46:48.611055  4581 net.cpp:129] Top shape: 100 32 14 14 (627200)
I0928 13:46:48.611057  4581 net.cpp:137] Memory required for data: 638176400
I0928 13:46:48.611059  4581 layer_factory.hpp:77] Creating layer M2PELU27
I0928 13:46:48.611064  4581 net.cpp:84] Creating Layer M2PELU27
I0928 13:46:48.611066  4581 net.cpp:406] M2PELU27 <- Eltwise13
I0928 13:46:48.611069  4581 net.cpp:367] M2PELU27 -> Eltwise13 (in-place)
I0928 13:46:48.611161  4581 net.cpp:122] Setting up M2PELU27
I0928 13:46:48.611166  4581 net.cpp:129] Top shape: 100 32 14 14 (627200)
I0928 13:46:48.611168  4581 net.cpp:137] Memory required for data: 640685200
I0928 13:46:48.611171  4581 layer_factory.hpp:77] Creating layer Eltwise13_M2PELU27_0_split
I0928 13:46:48.611176  4581 net.cpp:84] Creating Layer Eltwise13_M2PELU27_0_split
I0928 13:46:48.611177  4581 net.cpp:406] Eltwise13_M2PELU27_0_split <- Eltwise13
I0928 13:46:48.611181  4581 net.cpp:380] Eltwise13_M2PELU27_0_split -> Eltwise13_M2PELU27_0_split_0
I0928 13:46:48.611186  4581 net.cpp:380] Eltwise13_M2PELU27_0_split -> Eltwise13_M2PELU27_0_split_1
I0928 13:46:48.611208  4581 net.cpp:122] Setting up Eltwise13_M2PELU27_0_split
I0928 13:46:48.611212  4581 net.cpp:129] Top shape: 100 32 14 14 (627200)
I0928 13:46:48.611214  4581 net.cpp:129] Top shape: 100 32 14 14 (627200)
I0928 13:46:48.611217  4581 net.cpp:137] Memory required for data: 645702800
I0928 13:46:48.611219  4581 layer_factory.hpp:77] Creating layer Convolution29
I0928 13:46:48.611225  4581 net.cpp:84] Creating Layer Convolution29
I0928 13:46:48.611227  4581 net.cpp:406] Convolution29 <- Eltwise13_M2PELU27_0_split_0
I0928 13:46:48.611232  4581 net.cpp:380] Convolution29 -> Convolution29
I0928 13:46:48.612251  4581 net.cpp:122] Setting up Convolution29
I0928 13:46:48.612260  4581 net.cpp:129] Top shape: 100 32 14 14 (627200)
I0928 13:46:48.612262  4581 net.cpp:137] Memory required for data: 648211600
I0928 13:46:48.612267  4581 layer_factory.hpp:77] Creating layer BatchNorm29
I0928 13:46:48.612272  4581 net.cpp:84] Creating Layer BatchNorm29
I0928 13:46:48.612275  4581 net.cpp:406] BatchNorm29 <- Convolution29
I0928 13:46:48.612278  4581 net.cpp:367] BatchNorm29 -> Convolution29 (in-place)
I0928 13:46:48.612412  4581 net.cpp:122] Setting up BatchNorm29
I0928 13:46:48.612416  4581 net.cpp:129] Top shape: 100 32 14 14 (627200)
I0928 13:46:48.612418  4581 net.cpp:137] Memory required for data: 650720400
I0928 13:46:48.612423  4581 layer_factory.hpp:77] Creating layer Scale29
I0928 13:46:48.612427  4581 net.cpp:84] Creating Layer Scale29
I0928 13:46:48.612431  4581 net.cpp:406] Scale29 <- Convolution29
I0928 13:46:48.612433  4581 net.cpp:367] Scale29 -> Convolution29 (in-place)
I0928 13:46:48.612460  4581 layer_factory.hpp:77] Creating layer Scale29
I0928 13:46:48.612536  4581 net.cpp:122] Setting up Scale29
I0928 13:46:48.612540  4581 net.cpp:129] Top shape: 100 32 14 14 (627200)
I0928 13:46:48.612542  4581 net.cpp:137] Memory required for data: 653229200
I0928 13:46:48.612562  4581 layer_factory.hpp:77] Creating layer M2PELU28
I0928 13:46:48.612568  4581 net.cpp:84] Creating Layer M2PELU28
I0928 13:46:48.612571  4581 net.cpp:406] M2PELU28 <- Convolution29
I0928 13:46:48.612574  4581 net.cpp:367] M2PELU28 -> Convolution29 (in-place)
I0928 13:46:48.612661  4581 net.cpp:122] Setting up M2PELU28
I0928 13:46:48.612665  4581 net.cpp:129] Top shape: 100 32 14 14 (627200)
I0928 13:46:48.612668  4581 net.cpp:137] Memory required for data: 655738000
I0928 13:46:48.612671  4581 layer_factory.hpp:77] Creating layer Convolution30
I0928 13:46:48.612679  4581 net.cpp:84] Creating Layer Convolution30
I0928 13:46:48.612680  4581 net.cpp:406] Convolution30 <- Convolution29
I0928 13:46:48.612684  4581 net.cpp:380] Convolution30 -> Convolution30
I0928 13:46:48.613715  4581 net.cpp:122] Setting up Convolution30
I0928 13:46:48.613723  4581 net.cpp:129] Top shape: 100 32 14 14 (627200)
I0928 13:46:48.613726  4581 net.cpp:137] Memory required for data: 658246800
I0928 13:46:48.613730  4581 layer_factory.hpp:77] Creating layer BatchNorm30
I0928 13:46:48.613735  4581 net.cpp:84] Creating Layer BatchNorm30
I0928 13:46:48.613739  4581 net.cpp:406] BatchNorm30 <- Convolution30
I0928 13:46:48.613742  4581 net.cpp:367] BatchNorm30 -> Convolution30 (in-place)
I0928 13:46:48.613878  4581 net.cpp:122] Setting up BatchNorm30
I0928 13:46:48.613881  4581 net.cpp:129] Top shape: 100 32 14 14 (627200)
I0928 13:46:48.613883  4581 net.cpp:137] Memory required for data: 660755600
I0928 13:46:48.613894  4581 layer_factory.hpp:77] Creating layer Scale30
I0928 13:46:48.613899  4581 net.cpp:84] Creating Layer Scale30
I0928 13:46:48.613901  4581 net.cpp:406] Scale30 <- Convolution30
I0928 13:46:48.613904  4581 net.cpp:367] Scale30 -> Convolution30 (in-place)
I0928 13:46:48.613932  4581 layer_factory.hpp:77] Creating layer Scale30
I0928 13:46:48.614011  4581 net.cpp:122] Setting up Scale30
I0928 13:46:48.614014  4581 net.cpp:129] Top shape: 100 32 14 14 (627200)
I0928 13:46:48.614017  4581 net.cpp:137] Memory required for data: 663264400
I0928 13:46:48.614020  4581 layer_factory.hpp:77] Creating layer Eltwise14
I0928 13:46:48.614023  4581 net.cpp:84] Creating Layer Eltwise14
I0928 13:46:48.614027  4581 net.cpp:406] Eltwise14 <- Eltwise13_M2PELU27_0_split_1
I0928 13:46:48.614029  4581 net.cpp:406] Eltwise14 <- Convolution30
I0928 13:46:48.614033  4581 net.cpp:380] Eltwise14 -> Eltwise14
I0928 13:46:48.614048  4581 net.cpp:122] Setting up Eltwise14
I0928 13:46:48.614051  4581 net.cpp:129] Top shape: 100 32 14 14 (627200)
I0928 13:46:48.614053  4581 net.cpp:137] Memory required for data: 665773200
I0928 13:46:48.614055  4581 layer_factory.hpp:77] Creating layer M2PELU29
I0928 13:46:48.614061  4581 net.cpp:84] Creating Layer M2PELU29
I0928 13:46:48.614063  4581 net.cpp:406] M2PELU29 <- Eltwise14
I0928 13:46:48.614066  4581 net.cpp:367] M2PELU29 -> Eltwise14 (in-place)
I0928 13:46:48.614150  4581 net.cpp:122] Setting up M2PELU29
I0928 13:46:48.614153  4581 net.cpp:129] Top shape: 100 32 14 14 (627200)
I0928 13:46:48.614156  4581 net.cpp:137] Memory required for data: 668282000
I0928 13:46:48.614159  4581 layer_factory.hpp:77] Creating layer Eltwise14_M2PELU29_0_split
I0928 13:46:48.614163  4581 net.cpp:84] Creating Layer Eltwise14_M2PELU29_0_split
I0928 13:46:48.614166  4581 net.cpp:406] Eltwise14_M2PELU29_0_split <- Eltwise14
I0928 13:46:48.614168  4581 net.cpp:380] Eltwise14_M2PELU29_0_split -> Eltwise14_M2PELU29_0_split_0
I0928 13:46:48.614173  4581 net.cpp:380] Eltwise14_M2PELU29_0_split -> Eltwise14_M2PELU29_0_split_1
I0928 13:46:48.614195  4581 net.cpp:122] Setting up Eltwise14_M2PELU29_0_split
I0928 13:46:48.614198  4581 net.cpp:129] Top shape: 100 32 14 14 (627200)
I0928 13:46:48.614202  4581 net.cpp:129] Top shape: 100 32 14 14 (627200)
I0928 13:46:48.614203  4581 net.cpp:137] Memory required for data: 673299600
I0928 13:46:48.614205  4581 layer_factory.hpp:77] Creating layer Convolution31
I0928 13:46:48.614212  4581 net.cpp:84] Creating Layer Convolution31
I0928 13:46:48.614215  4581 net.cpp:406] Convolution31 <- Eltwise14_M2PELU29_0_split_0
I0928 13:46:48.614219  4581 net.cpp:380] Convolution31 -> Convolution31
I0928 13:46:48.615252  4581 net.cpp:122] Setting up Convolution31
I0928 13:46:48.615260  4581 net.cpp:129] Top shape: 100 32 14 14 (627200)
I0928 13:46:48.615262  4581 net.cpp:137] Memory required for data: 675808400
I0928 13:46:48.615267  4581 layer_factory.hpp:77] Creating layer BatchNorm31
I0928 13:46:48.615272  4581 net.cpp:84] Creating Layer BatchNorm31
I0928 13:46:48.615274  4581 net.cpp:406] BatchNorm31 <- Convolution31
I0928 13:46:48.615278  4581 net.cpp:367] BatchNorm31 -> Convolution31 (in-place)
I0928 13:46:48.615413  4581 net.cpp:122] Setting up BatchNorm31
I0928 13:46:48.615418  4581 net.cpp:129] Top shape: 100 32 14 14 (627200)
I0928 13:46:48.615420  4581 net.cpp:137] Memory required for data: 678317200
I0928 13:46:48.615424  4581 layer_factory.hpp:77] Creating layer Scale31
I0928 13:46:48.615428  4581 net.cpp:84] Creating Layer Scale31
I0928 13:46:48.615432  4581 net.cpp:406] Scale31 <- Convolution31
I0928 13:46:48.615435  4581 net.cpp:367] Scale31 -> Convolution31 (in-place)
I0928 13:46:48.615461  4581 layer_factory.hpp:77] Creating layer Scale31
I0928 13:46:48.615540  4581 net.cpp:122] Setting up Scale31
I0928 13:46:48.615543  4581 net.cpp:129] Top shape: 100 32 14 14 (627200)
I0928 13:46:48.615545  4581 net.cpp:137] Memory required for data: 680826000
I0928 13:46:48.615550  4581 layer_factory.hpp:77] Creating layer M2PELU30
I0928 13:46:48.615561  4581 net.cpp:84] Creating Layer M2PELU30
I0928 13:46:48.615564  4581 net.cpp:406] M2PELU30 <- Convolution31
I0928 13:46:48.615568  4581 net.cpp:367] M2PELU30 -> Convolution31 (in-place)
I0928 13:46:48.615654  4581 net.cpp:122] Setting up M2PELU30
I0928 13:46:48.615659  4581 net.cpp:129] Top shape: 100 32 14 14 (627200)
I0928 13:46:48.615661  4581 net.cpp:137] Memory required for data: 683334800
I0928 13:46:48.615664  4581 layer_factory.hpp:77] Creating layer Convolution32
I0928 13:46:48.615671  4581 net.cpp:84] Creating Layer Convolution32
I0928 13:46:48.615674  4581 net.cpp:406] Convolution32 <- Convolution31
I0928 13:46:48.615677  4581 net.cpp:380] Convolution32 -> Convolution32
I0928 13:46:48.616708  4581 net.cpp:122] Setting up Convolution32
I0928 13:46:48.616716  4581 net.cpp:129] Top shape: 100 32 14 14 (627200)
I0928 13:46:48.616719  4581 net.cpp:137] Memory required for data: 685843600
I0928 13:46:48.616724  4581 layer_factory.hpp:77] Creating layer BatchNorm32
I0928 13:46:48.616729  4581 net.cpp:84] Creating Layer BatchNorm32
I0928 13:46:48.616731  4581 net.cpp:406] BatchNorm32 <- Convolution32
I0928 13:46:48.616734  4581 net.cpp:367] BatchNorm32 -> Convolution32 (in-place)
I0928 13:46:48.616869  4581 net.cpp:122] Setting up BatchNorm32
I0928 13:46:48.616873  4581 net.cpp:129] Top shape: 100 32 14 14 (627200)
I0928 13:46:48.616875  4581 net.cpp:137] Memory required for data: 688352400
I0928 13:46:48.616880  4581 layer_factory.hpp:77] Creating layer Scale32
I0928 13:46:48.616884  4581 net.cpp:84] Creating Layer Scale32
I0928 13:46:48.616888  4581 net.cpp:406] Scale32 <- Convolution32
I0928 13:46:48.616890  4581 net.cpp:367] Scale32 -> Convolution32 (in-place)
I0928 13:46:48.616919  4581 layer_factory.hpp:77] Creating layer Scale32
I0928 13:46:48.616996  4581 net.cpp:122] Setting up Scale32
I0928 13:46:48.616999  4581 net.cpp:129] Top shape: 100 32 14 14 (627200)
I0928 13:46:48.617002  4581 net.cpp:137] Memory required for data: 690861200
I0928 13:46:48.617005  4581 layer_factory.hpp:77] Creating layer Eltwise15
I0928 13:46:48.617009  4581 net.cpp:84] Creating Layer Eltwise15
I0928 13:46:48.617012  4581 net.cpp:406] Eltwise15 <- Eltwise14_M2PELU29_0_split_1
I0928 13:46:48.617014  4581 net.cpp:406] Eltwise15 <- Convolution32
I0928 13:46:48.617018  4581 net.cpp:380] Eltwise15 -> Eltwise15
I0928 13:46:48.617033  4581 net.cpp:122] Setting up Eltwise15
I0928 13:46:48.617038  4581 net.cpp:129] Top shape: 100 32 14 14 (627200)
I0928 13:46:48.617039  4581 net.cpp:137] Memory required for data: 693370000
I0928 13:46:48.617041  4581 layer_factory.hpp:77] Creating layer M2PELU31
I0928 13:46:48.617046  4581 net.cpp:84] Creating Layer M2PELU31
I0928 13:46:48.617049  4581 net.cpp:406] M2PELU31 <- Eltwise15
I0928 13:46:48.617053  4581 net.cpp:367] M2PELU31 -> Eltwise15 (in-place)
I0928 13:46:48.617136  4581 net.cpp:122] Setting up M2PELU31
I0928 13:46:48.617141  4581 net.cpp:129] Top shape: 100 32 14 14 (627200)
I0928 13:46:48.617142  4581 net.cpp:137] Memory required for data: 695878800
I0928 13:46:48.617146  4581 layer_factory.hpp:77] Creating layer Eltwise15_M2PELU31_0_split
I0928 13:46:48.617149  4581 net.cpp:84] Creating Layer Eltwise15_M2PELU31_0_split
I0928 13:46:48.617151  4581 net.cpp:406] Eltwise15_M2PELU31_0_split <- Eltwise15
I0928 13:46:48.617154  4581 net.cpp:380] Eltwise15_M2PELU31_0_split -> Eltwise15_M2PELU31_0_split_0
I0928 13:46:48.617158  4581 net.cpp:380] Eltwise15_M2PELU31_0_split -> Eltwise15_M2PELU31_0_split_1
I0928 13:46:48.617182  4581 net.cpp:122] Setting up Eltwise15_M2PELU31_0_split
I0928 13:46:48.617185  4581 net.cpp:129] Top shape: 100 32 14 14 (627200)
I0928 13:46:48.617188  4581 net.cpp:129] Top shape: 100 32 14 14 (627200)
I0928 13:46:48.617190  4581 net.cpp:137] Memory required for data: 700896400
I0928 13:46:48.617192  4581 layer_factory.hpp:77] Creating layer Convolution33
I0928 13:46:48.617198  4581 net.cpp:84] Creating Layer Convolution33
I0928 13:46:48.617202  4581 net.cpp:406] Convolution33 <- Eltwise15_M2PELU31_0_split_0
I0928 13:46:48.617204  4581 net.cpp:380] Convolution33 -> Convolution33
I0928 13:46:48.618578  4581 net.cpp:122] Setting up Convolution33
I0928 13:46:48.618587  4581 net.cpp:129] Top shape: 100 32 14 14 (627200)
I0928 13:46:48.618589  4581 net.cpp:137] Memory required for data: 703405200
I0928 13:46:48.618593  4581 layer_factory.hpp:77] Creating layer BatchNorm33
I0928 13:46:48.618599  4581 net.cpp:84] Creating Layer BatchNorm33
I0928 13:46:48.618602  4581 net.cpp:406] BatchNorm33 <- Convolution33
I0928 13:46:48.618605  4581 net.cpp:367] BatchNorm33 -> Convolution33 (in-place)
I0928 13:46:48.618746  4581 net.cpp:122] Setting up BatchNorm33
I0928 13:46:48.618749  4581 net.cpp:129] Top shape: 100 32 14 14 (627200)
I0928 13:46:48.618752  4581 net.cpp:137] Memory required for data: 705914000
I0928 13:46:48.618757  4581 layer_factory.hpp:77] Creating layer Scale33
I0928 13:46:48.618760  4581 net.cpp:84] Creating Layer Scale33
I0928 13:46:48.618763  4581 net.cpp:406] Scale33 <- Convolution33
I0928 13:46:48.618767  4581 net.cpp:367] Scale33 -> Convolution33 (in-place)
I0928 13:46:48.618794  4581 layer_factory.hpp:77] Creating layer Scale33
I0928 13:46:48.618871  4581 net.cpp:122] Setting up Scale33
I0928 13:46:48.618876  4581 net.cpp:129] Top shape: 100 32 14 14 (627200)
I0928 13:46:48.618878  4581 net.cpp:137] Memory required for data: 708422800
I0928 13:46:48.618881  4581 layer_factory.hpp:77] Creating layer M2PELU32
I0928 13:46:48.618886  4581 net.cpp:84] Creating Layer M2PELU32
I0928 13:46:48.618890  4581 net.cpp:406] M2PELU32 <- Convolution33
I0928 13:46:48.618893  4581 net.cpp:367] M2PELU32 -> Convolution33 (in-place)
I0928 13:46:48.618978  4581 net.cpp:122] Setting up M2PELU32
I0928 13:46:48.618983  4581 net.cpp:129] Top shape: 100 32 14 14 (627200)
I0928 13:46:48.618984  4581 net.cpp:137] Memory required for data: 710931600
I0928 13:46:48.618988  4581 layer_factory.hpp:77] Creating layer Convolution34
I0928 13:46:48.618994  4581 net.cpp:84] Creating Layer Convolution34
I0928 13:46:48.618996  4581 net.cpp:406] Convolution34 <- Convolution33
I0928 13:46:48.619001  4581 net.cpp:380] Convolution34 -> Convolution34
I0928 13:46:48.620038  4581 net.cpp:122] Setting up Convolution34
I0928 13:46:48.620046  4581 net.cpp:129] Top shape: 100 32 14 14 (627200)
I0928 13:46:48.620049  4581 net.cpp:137] Memory required for data: 713440400
I0928 13:46:48.620054  4581 layer_factory.hpp:77] Creating layer BatchNorm34
I0928 13:46:48.620059  4581 net.cpp:84] Creating Layer BatchNorm34
I0928 13:46:48.620062  4581 net.cpp:406] BatchNorm34 <- Convolution34
I0928 13:46:48.620065  4581 net.cpp:367] BatchNorm34 -> Convolution34 (in-place)
I0928 13:46:48.620203  4581 net.cpp:122] Setting up BatchNorm34
I0928 13:46:48.620206  4581 net.cpp:129] Top shape: 100 32 14 14 (627200)
I0928 13:46:48.620209  4581 net.cpp:137] Memory required for data: 715949200
I0928 13:46:48.620213  4581 layer_factory.hpp:77] Creating layer Scale34
I0928 13:46:48.620218  4581 net.cpp:84] Creating Layer Scale34
I0928 13:46:48.620220  4581 net.cpp:406] Scale34 <- Convolution34
I0928 13:46:48.620223  4581 net.cpp:367] Scale34 -> Convolution34 (in-place)
I0928 13:46:48.620249  4581 layer_factory.hpp:77] Creating layer Scale34
I0928 13:46:48.620326  4581 net.cpp:122] Setting up Scale34
I0928 13:46:48.620331  4581 net.cpp:129] Top shape: 100 32 14 14 (627200)
I0928 13:46:48.620332  4581 net.cpp:137] Memory required for data: 718458000
I0928 13:46:48.620337  4581 layer_factory.hpp:77] Creating layer Eltwise16
I0928 13:46:48.620342  4581 net.cpp:84] Creating Layer Eltwise16
I0928 13:46:48.620344  4581 net.cpp:406] Eltwise16 <- Eltwise15_M2PELU31_0_split_1
I0928 13:46:48.620347  4581 net.cpp:406] Eltwise16 <- Convolution34
I0928 13:46:48.620352  4581 net.cpp:380] Eltwise16 -> Eltwise16
I0928 13:46:48.620368  4581 net.cpp:122] Setting up Eltwise16
I0928 13:46:48.620371  4581 net.cpp:129] Top shape: 100 32 14 14 (627200)
I0928 13:46:48.620373  4581 net.cpp:137] Memory required for data: 720966800
I0928 13:46:48.620375  4581 layer_factory.hpp:77] Creating layer M2PELU33
I0928 13:46:48.620380  4581 net.cpp:84] Creating Layer M2PELU33
I0928 13:46:48.620390  4581 net.cpp:406] M2PELU33 <- Eltwise16
I0928 13:46:48.620393  4581 net.cpp:367] M2PELU33 -> Eltwise16 (in-place)
I0928 13:46:48.620478  4581 net.cpp:122] Setting up M2PELU33
I0928 13:46:48.620483  4581 net.cpp:129] Top shape: 100 32 14 14 (627200)
I0928 13:46:48.620486  4581 net.cpp:137] Memory required for data: 723475600
I0928 13:46:48.620488  4581 layer_factory.hpp:77] Creating layer Eltwise16_M2PELU33_0_split
I0928 13:46:48.620493  4581 net.cpp:84] Creating Layer Eltwise16_M2PELU33_0_split
I0928 13:46:48.620496  4581 net.cpp:406] Eltwise16_M2PELU33_0_split <- Eltwise16
I0928 13:46:48.620498  4581 net.cpp:380] Eltwise16_M2PELU33_0_split -> Eltwise16_M2PELU33_0_split_0
I0928 13:46:48.620503  4581 net.cpp:380] Eltwise16_M2PELU33_0_split -> Eltwise16_M2PELU33_0_split_1
I0928 13:46:48.620527  4581 net.cpp:122] Setting up Eltwise16_M2PELU33_0_split
I0928 13:46:48.620529  4581 net.cpp:129] Top shape: 100 32 14 14 (627200)
I0928 13:46:48.620532  4581 net.cpp:129] Top shape: 100 32 14 14 (627200)
I0928 13:46:48.620534  4581 net.cpp:137] Memory required for data: 728493200
I0928 13:46:48.620537  4581 layer_factory.hpp:77] Creating layer Convolution35
I0928 13:46:48.620543  4581 net.cpp:84] Creating Layer Convolution35
I0928 13:46:48.620544  4581 net.cpp:406] Convolution35 <- Eltwise16_M2PELU33_0_split_0
I0928 13:46:48.620548  4581 net.cpp:380] Convolution35 -> Convolution35
I0928 13:46:48.621583  4581 net.cpp:122] Setting up Convolution35
I0928 13:46:48.621592  4581 net.cpp:129] Top shape: 100 32 14 14 (627200)
I0928 13:46:48.621594  4581 net.cpp:137] Memory required for data: 731002000
I0928 13:46:48.621598  4581 layer_factory.hpp:77] Creating layer BatchNorm35
I0928 13:46:48.621603  4581 net.cpp:84] Creating Layer BatchNorm35
I0928 13:46:48.621606  4581 net.cpp:406] BatchNorm35 <- Convolution35
I0928 13:46:48.621610  4581 net.cpp:367] BatchNorm35 -> Convolution35 (in-place)
I0928 13:46:48.621747  4581 net.cpp:122] Setting up BatchNorm35
I0928 13:46:48.621750  4581 net.cpp:129] Top shape: 100 32 14 14 (627200)
I0928 13:46:48.621752  4581 net.cpp:137] Memory required for data: 733510800
I0928 13:46:48.621757  4581 layer_factory.hpp:77] Creating layer Scale35
I0928 13:46:48.621762  4581 net.cpp:84] Creating Layer Scale35
I0928 13:46:48.621763  4581 net.cpp:406] Scale35 <- Convolution35
I0928 13:46:48.621767  4581 net.cpp:367] Scale35 -> Convolution35 (in-place)
I0928 13:46:48.621793  4581 layer_factory.hpp:77] Creating layer Scale35
I0928 13:46:48.621870  4581 net.cpp:122] Setting up Scale35
I0928 13:46:48.621873  4581 net.cpp:129] Top shape: 100 32 14 14 (627200)
I0928 13:46:48.621876  4581 net.cpp:137] Memory required for data: 736019600
I0928 13:46:48.621879  4581 layer_factory.hpp:77] Creating layer M2PELU34
I0928 13:46:48.621883  4581 net.cpp:84] Creating Layer M2PELU34
I0928 13:46:48.621886  4581 net.cpp:406] M2PELU34 <- Convolution35
I0928 13:46:48.621891  4581 net.cpp:367] M2PELU34 -> Convolution35 (in-place)
I0928 13:46:48.621974  4581 net.cpp:122] Setting up M2PELU34
I0928 13:46:48.621978  4581 net.cpp:129] Top shape: 100 32 14 14 (627200)
I0928 13:46:48.621980  4581 net.cpp:137] Memory required for data: 738528400
I0928 13:46:48.621984  4581 layer_factory.hpp:77] Creating layer Convolution36
I0928 13:46:48.621990  4581 net.cpp:84] Creating Layer Convolution36
I0928 13:46:48.621994  4581 net.cpp:406] Convolution36 <- Convolution35
I0928 13:46:48.621997  4581 net.cpp:380] Convolution36 -> Convolution36
I0928 13:46:48.623036  4581 net.cpp:122] Setting up Convolution36
I0928 13:46:48.623045  4581 net.cpp:129] Top shape: 100 32 14 14 (627200)
I0928 13:46:48.623047  4581 net.cpp:137] Memory required for data: 741037200
I0928 13:46:48.623051  4581 layer_factory.hpp:77] Creating layer BatchNorm36
I0928 13:46:48.623057  4581 net.cpp:84] Creating Layer BatchNorm36
I0928 13:46:48.623059  4581 net.cpp:406] BatchNorm36 <- Convolution36
I0928 13:46:48.623064  4581 net.cpp:367] BatchNorm36 -> Convolution36 (in-place)
I0928 13:46:48.623200  4581 net.cpp:122] Setting up BatchNorm36
I0928 13:46:48.623205  4581 net.cpp:129] Top shape: 100 32 14 14 (627200)
I0928 13:46:48.623214  4581 net.cpp:137] Memory required for data: 743546000
I0928 13:46:48.623219  4581 layer_factory.hpp:77] Creating layer Scale36
I0928 13:46:48.623224  4581 net.cpp:84] Creating Layer Scale36
I0928 13:46:48.623225  4581 net.cpp:406] Scale36 <- Convolution36
I0928 13:46:48.623229  4581 net.cpp:367] Scale36 -> Convolution36 (in-place)
I0928 13:46:48.623257  4581 layer_factory.hpp:77] Creating layer Scale36
I0928 13:46:48.623334  4581 net.cpp:122] Setting up Scale36
I0928 13:46:48.623339  4581 net.cpp:129] Top shape: 100 32 14 14 (627200)
I0928 13:46:48.623342  4581 net.cpp:137] Memory required for data: 746054800
I0928 13:46:48.623345  4581 layer_factory.hpp:77] Creating layer Eltwise17
I0928 13:46:48.623349  4581 net.cpp:84] Creating Layer Eltwise17
I0928 13:46:48.623353  4581 net.cpp:406] Eltwise17 <- Eltwise16_M2PELU33_0_split_1
I0928 13:46:48.623355  4581 net.cpp:406] Eltwise17 <- Convolution36
I0928 13:46:48.623358  4581 net.cpp:380] Eltwise17 -> Eltwise17
I0928 13:46:48.623374  4581 net.cpp:122] Setting up Eltwise17
I0928 13:46:48.623378  4581 net.cpp:129] Top shape: 100 32 14 14 (627200)
I0928 13:46:48.623380  4581 net.cpp:137] Memory required for data: 748563600
I0928 13:46:48.623383  4581 layer_factory.hpp:77] Creating layer M2PELU35
I0928 13:46:48.623387  4581 net.cpp:84] Creating Layer M2PELU35
I0928 13:46:48.623390  4581 net.cpp:406] M2PELU35 <- Eltwise17
I0928 13:46:48.623394  4581 net.cpp:367] M2PELU35 -> Eltwise17 (in-place)
I0928 13:46:48.623477  4581 net.cpp:122] Setting up M2PELU35
I0928 13:46:48.623481  4581 net.cpp:129] Top shape: 100 32 14 14 (627200)
I0928 13:46:48.623483  4581 net.cpp:137] Memory required for data: 751072400
I0928 13:46:48.623487  4581 layer_factory.hpp:77] Creating layer Eltwise17_M2PELU35_0_split
I0928 13:46:48.623492  4581 net.cpp:84] Creating Layer Eltwise17_M2PELU35_0_split
I0928 13:46:48.623494  4581 net.cpp:406] Eltwise17_M2PELU35_0_split <- Eltwise17
I0928 13:46:48.623497  4581 net.cpp:380] Eltwise17_M2PELU35_0_split -> Eltwise17_M2PELU35_0_split_0
I0928 13:46:48.623502  4581 net.cpp:380] Eltwise17_M2PELU35_0_split -> Eltwise17_M2PELU35_0_split_1
I0928 13:46:48.623524  4581 net.cpp:122] Setting up Eltwise17_M2PELU35_0_split
I0928 13:46:48.623528  4581 net.cpp:129] Top shape: 100 32 14 14 (627200)
I0928 13:46:48.623530  4581 net.cpp:129] Top shape: 100 32 14 14 (627200)
I0928 13:46:48.623533  4581 net.cpp:137] Memory required for data: 756090000
I0928 13:46:48.623534  4581 layer_factory.hpp:77] Creating layer Convolution37
I0928 13:46:48.623540  4581 net.cpp:84] Creating Layer Convolution37
I0928 13:46:48.623543  4581 net.cpp:406] Convolution37 <- Eltwise17_M2PELU35_0_split_0
I0928 13:46:48.623548  4581 net.cpp:380] Convolution37 -> Convolution37
I0928 13:46:48.624258  4581 net.cpp:122] Setting up Convolution37
I0928 13:46:48.624265  4581 net.cpp:129] Top shape: 100 32 14 14 (627200)
I0928 13:46:48.624269  4581 net.cpp:137] Memory required for data: 758598800
I0928 13:46:48.624272  4581 layer_factory.hpp:77] Creating layer BatchNorm37
I0928 13:46:48.624277  4581 net.cpp:84] Creating Layer BatchNorm37
I0928 13:46:48.624279  4581 net.cpp:406] BatchNorm37 <- Convolution37
I0928 13:46:48.624284  4581 net.cpp:367] BatchNorm37 -> Convolution37 (in-place)
I0928 13:46:48.624418  4581 net.cpp:122] Setting up BatchNorm37
I0928 13:46:48.624423  4581 net.cpp:129] Top shape: 100 32 14 14 (627200)
I0928 13:46:48.624425  4581 net.cpp:137] Memory required for data: 761107600
I0928 13:46:48.624429  4581 layer_factory.hpp:77] Creating layer Scale37
I0928 13:46:48.624434  4581 net.cpp:84] Creating Layer Scale37
I0928 13:46:48.624436  4581 net.cpp:406] Scale37 <- Convolution37
I0928 13:46:48.624439  4581 net.cpp:367] Scale37 -> Convolution37 (in-place)
I0928 13:46:48.624466  4581 layer_factory.hpp:77] Creating layer Scale37
I0928 13:46:48.624542  4581 net.cpp:122] Setting up Scale37
I0928 13:46:48.624547  4581 net.cpp:129] Top shape: 100 32 14 14 (627200)
I0928 13:46:48.624548  4581 net.cpp:137] Memory required for data: 763616400
I0928 13:46:48.624557  4581 layer_factory.hpp:77] Creating layer M2PELU36
I0928 13:46:48.624562  4581 net.cpp:84] Creating Layer M2PELU36
I0928 13:46:48.624565  4581 net.cpp:406] M2PELU36 <- Convolution37
I0928 13:46:48.624569  4581 net.cpp:367] M2PELU36 -> Convolution37 (in-place)
I0928 13:46:48.624652  4581 net.cpp:122] Setting up M2PELU36
I0928 13:46:48.624656  4581 net.cpp:129] Top shape: 100 32 14 14 (627200)
I0928 13:46:48.624658  4581 net.cpp:137] Memory required for data: 766125200
I0928 13:46:48.624662  4581 layer_factory.hpp:77] Creating layer Convolution38
I0928 13:46:48.624668  4581 net.cpp:84] Creating Layer Convolution38
I0928 13:46:48.624671  4581 net.cpp:406] Convolution38 <- Convolution37
I0928 13:46:48.624677  4581 net.cpp:380] Convolution38 -> Convolution38
I0928 13:46:48.625722  4581 net.cpp:122] Setting up Convolution38
I0928 13:46:48.625730  4581 net.cpp:129] Top shape: 100 32 14 14 (627200)
I0928 13:46:48.625733  4581 net.cpp:137] Memory required for data: 768634000
I0928 13:46:48.625737  4581 layer_factory.hpp:77] Creating layer BatchNorm38
I0928 13:46:48.625742  4581 net.cpp:84] Creating Layer BatchNorm38
I0928 13:46:48.625746  4581 net.cpp:406] BatchNorm38 <- Convolution38
I0928 13:46:48.625748  4581 net.cpp:367] BatchNorm38 -> Convolution38 (in-place)
I0928 13:46:48.625886  4581 net.cpp:122] Setting up BatchNorm38
I0928 13:46:48.625890  4581 net.cpp:129] Top shape: 100 32 14 14 (627200)
I0928 13:46:48.625893  4581 net.cpp:137] Memory required for data: 771142800
I0928 13:46:48.625897  4581 layer_factory.hpp:77] Creating layer Scale38
I0928 13:46:48.625901  4581 net.cpp:84] Creating Layer Scale38
I0928 13:46:48.625903  4581 net.cpp:406] Scale38 <- Convolution38
I0928 13:46:48.625906  4581 net.cpp:367] Scale38 -> Convolution38 (in-place)
I0928 13:46:48.625934  4581 layer_factory.hpp:77] Creating layer Scale38
I0928 13:46:48.626010  4581 net.cpp:122] Setting up Scale38
I0928 13:46:48.626014  4581 net.cpp:129] Top shape: 100 32 14 14 (627200)
I0928 13:46:48.626016  4581 net.cpp:137] Memory required for data: 773651600
I0928 13:46:48.626020  4581 layer_factory.hpp:77] Creating layer Eltwise18
I0928 13:46:48.626025  4581 net.cpp:84] Creating Layer Eltwise18
I0928 13:46:48.626027  4581 net.cpp:406] Eltwise18 <- Eltwise17_M2PELU35_0_split_1
I0928 13:46:48.626030  4581 net.cpp:406] Eltwise18 <- Convolution38
I0928 13:46:48.626034  4581 net.cpp:380] Eltwise18 -> Eltwise18
I0928 13:46:48.626049  4581 net.cpp:122] Setting up Eltwise18
I0928 13:46:48.626054  4581 net.cpp:129] Top shape: 100 32 14 14 (627200)
I0928 13:46:48.626055  4581 net.cpp:137] Memory required for data: 776160400
I0928 13:46:48.626057  4581 layer_factory.hpp:77] Creating layer M2PELU37
I0928 13:46:48.626062  4581 net.cpp:84] Creating Layer M2PELU37
I0928 13:46:48.626065  4581 net.cpp:406] M2PELU37 <- Eltwise18
I0928 13:46:48.626067  4581 net.cpp:367] M2PELU37 -> Eltwise18 (in-place)
I0928 13:46:48.626152  4581 net.cpp:122] Setting up M2PELU37
I0928 13:46:48.626157  4581 net.cpp:129] Top shape: 100 32 14 14 (627200)
I0928 13:46:48.626158  4581 net.cpp:137] Memory required for data: 778669200
I0928 13:46:48.626161  4581 layer_factory.hpp:77] Creating layer Eltwise18_M2PELU37_0_split
I0928 13:46:48.626165  4581 net.cpp:84] Creating Layer Eltwise18_M2PELU37_0_split
I0928 13:46:48.626168  4581 net.cpp:406] Eltwise18_M2PELU37_0_split <- Eltwise18
I0928 13:46:48.626170  4581 net.cpp:380] Eltwise18_M2PELU37_0_split -> Eltwise18_M2PELU37_0_split_0
I0928 13:46:48.626175  4581 net.cpp:380] Eltwise18_M2PELU37_0_split -> Eltwise18_M2PELU37_0_split_1
I0928 13:46:48.626199  4581 net.cpp:122] Setting up Eltwise18_M2PELU37_0_split
I0928 13:46:48.626201  4581 net.cpp:129] Top shape: 100 32 14 14 (627200)
I0928 13:46:48.626204  4581 net.cpp:129] Top shape: 100 32 14 14 (627200)
I0928 13:46:48.626206  4581 net.cpp:137] Memory required for data: 783686800
I0928 13:46:48.626209  4581 layer_factory.hpp:77] Creating layer Convolution39
I0928 13:46:48.626214  4581 net.cpp:84] Creating Layer Convolution39
I0928 13:46:48.626217  4581 net.cpp:406] Convolution39 <- Eltwise18_M2PELU37_0_split_0
I0928 13:46:48.626227  4581 net.cpp:380] Convolution39 -> Convolution39
I0928 13:46:48.627120  4581 net.cpp:122] Setting up Convolution39
I0928 13:46:48.627130  4581 net.cpp:129] Top shape: 100 64 7 7 (313600)
I0928 13:46:48.627132  4581 net.cpp:137] Memory required for data: 784941200
I0928 13:46:48.627136  4581 layer_factory.hpp:77] Creating layer BatchNorm39
I0928 13:46:48.627141  4581 net.cpp:84] Creating Layer BatchNorm39
I0928 13:46:48.627144  4581 net.cpp:406] BatchNorm39 <- Convolution39
I0928 13:46:48.627148  4581 net.cpp:367] BatchNorm39 -> Convolution39 (in-place)
I0928 13:46:48.627281  4581 net.cpp:122] Setting up BatchNorm39
I0928 13:46:48.627285  4581 net.cpp:129] Top shape: 100 64 7 7 (313600)
I0928 13:46:48.627288  4581 net.cpp:137] Memory required for data: 786195600
I0928 13:46:48.627292  4581 layer_factory.hpp:77] Creating layer Scale39
I0928 13:46:48.627297  4581 net.cpp:84] Creating Layer Scale39
I0928 13:46:48.627300  4581 net.cpp:406] Scale39 <- Convolution39
I0928 13:46:48.627302  4581 net.cpp:367] Scale39 -> Convolution39 (in-place)
I0928 13:46:48.627331  4581 layer_factory.hpp:77] Creating layer Scale39
I0928 13:46:48.627408  4581 net.cpp:122] Setting up Scale39
I0928 13:46:48.627411  4581 net.cpp:129] Top shape: 100 64 7 7 (313600)
I0928 13:46:48.627413  4581 net.cpp:137] Memory required for data: 787450000
I0928 13:46:48.627418  4581 layer_factory.hpp:77] Creating layer Convolution40
I0928 13:46:48.627424  4581 net.cpp:84] Creating Layer Convolution40
I0928 13:46:48.627427  4581 net.cpp:406] Convolution40 <- Eltwise18_M2PELU37_0_split_1
I0928 13:46:48.627431  4581 net.cpp:380] Convolution40 -> Convolution40
I0928 13:46:48.629245  4581 net.cpp:122] Setting up Convolution40
I0928 13:46:48.629256  4581 net.cpp:129] Top shape: 100 64 7 7 (313600)
I0928 13:46:48.629257  4581 net.cpp:137] Memory required for data: 788704400
I0928 13:46:48.629262  4581 layer_factory.hpp:77] Creating layer BatchNorm40
I0928 13:46:48.629268  4581 net.cpp:84] Creating Layer BatchNorm40
I0928 13:46:48.629271  4581 net.cpp:406] BatchNorm40 <- Convolution40
I0928 13:46:48.629276  4581 net.cpp:367] BatchNorm40 -> Convolution40 (in-place)
I0928 13:46:48.629412  4581 net.cpp:122] Setting up BatchNorm40
I0928 13:46:48.629416  4581 net.cpp:129] Top shape: 100 64 7 7 (313600)
I0928 13:46:48.629418  4581 net.cpp:137] Memory required for data: 789958800
I0928 13:46:48.629423  4581 layer_factory.hpp:77] Creating layer Scale40
I0928 13:46:48.629428  4581 net.cpp:84] Creating Layer Scale40
I0928 13:46:48.629431  4581 net.cpp:406] Scale40 <- Convolution40
I0928 13:46:48.629434  4581 net.cpp:367] Scale40 -> Convolution40 (in-place)
I0928 13:46:48.629462  4581 layer_factory.hpp:77] Creating layer Scale40
I0928 13:46:48.629541  4581 net.cpp:122] Setting up Scale40
I0928 13:46:48.629546  4581 net.cpp:129] Top shape: 100 64 7 7 (313600)
I0928 13:46:48.629549  4581 net.cpp:137] Memory required for data: 791213200
I0928 13:46:48.629552  4581 layer_factory.hpp:77] Creating layer M2PELU38
I0928 13:46:48.629557  4581 net.cpp:84] Creating Layer M2PELU38
I0928 13:46:48.629559  4581 net.cpp:406] M2PELU38 <- Convolution40
I0928 13:46:48.629564  4581 net.cpp:367] M2PELU38 -> Convolution40 (in-place)
I0928 13:46:48.629649  4581 net.cpp:122] Setting up M2PELU38
I0928 13:46:48.629655  4581 net.cpp:129] Top shape: 100 64 7 7 (313600)
I0928 13:46:48.629657  4581 net.cpp:137] Memory required for data: 792467600
I0928 13:46:48.629660  4581 layer_factory.hpp:77] Creating layer Convolution41
I0928 13:46:48.629667  4581 net.cpp:84] Creating Layer Convolution41
I0928 13:46:48.629669  4581 net.cpp:406] Convolution41 <- Convolution40
I0928 13:46:48.629673  4581 net.cpp:380] Convolution41 -> Convolution41
I0928 13:46:48.631973  4581 net.cpp:122] Setting up Convolution41
I0928 13:46:48.631983  4581 net.cpp:129] Top shape: 100 64 7 7 (313600)
I0928 13:46:48.631984  4581 net.cpp:137] Memory required for data: 793722000
I0928 13:46:48.631989  4581 layer_factory.hpp:77] Creating layer BatchNorm41
I0928 13:46:48.631995  4581 net.cpp:84] Creating Layer BatchNorm41
I0928 13:46:48.632004  4581 net.cpp:406] BatchNorm41 <- Convolution41
I0928 13:46:48.632009  4581 net.cpp:367] BatchNorm41 -> Convolution41 (in-place)
I0928 13:46:48.632153  4581 net.cpp:122] Setting up BatchNorm41
I0928 13:46:48.632156  4581 net.cpp:129] Top shape: 100 64 7 7 (313600)
I0928 13:46:48.632159  4581 net.cpp:137] Memory required for data: 794976400
I0928 13:46:48.632164  4581 layer_factory.hpp:77] Creating layer Scale41
I0928 13:46:48.632169  4581 net.cpp:84] Creating Layer Scale41
I0928 13:46:48.632171  4581 net.cpp:406] Scale41 <- Convolution41
I0928 13:46:48.632174  4581 net.cpp:367] Scale41 -> Convolution41 (in-place)
I0928 13:46:48.632202  4581 layer_factory.hpp:77] Creating layer Scale41
I0928 13:46:48.632282  4581 net.cpp:122] Setting up Scale41
I0928 13:46:48.632287  4581 net.cpp:129] Top shape: 100 64 7 7 (313600)
I0928 13:46:48.632289  4581 net.cpp:137] Memory required for data: 796230800
I0928 13:46:48.632293  4581 layer_factory.hpp:77] Creating layer Eltwise19
I0928 13:46:48.632298  4581 net.cpp:84] Creating Layer Eltwise19
I0928 13:46:48.632300  4581 net.cpp:406] Eltwise19 <- Convolution39
I0928 13:46:48.632303  4581 net.cpp:406] Eltwise19 <- Convolution41
I0928 13:46:48.632308  4581 net.cpp:380] Eltwise19 -> Eltwise19
I0928 13:46:48.632324  4581 net.cpp:122] Setting up Eltwise19
I0928 13:46:48.632328  4581 net.cpp:129] Top shape: 100 64 7 7 (313600)
I0928 13:46:48.632329  4581 net.cpp:137] Memory required for data: 797485200
I0928 13:46:48.632333  4581 layer_factory.hpp:77] Creating layer M2PELU39
I0928 13:46:48.632338  4581 net.cpp:84] Creating Layer M2PELU39
I0928 13:46:48.632339  4581 net.cpp:406] M2PELU39 <- Eltwise19
I0928 13:46:48.632342  4581 net.cpp:367] M2PELU39 -> Eltwise19 (in-place)
I0928 13:46:48.632429  4581 net.cpp:122] Setting up M2PELU39
I0928 13:46:48.632433  4581 net.cpp:129] Top shape: 100 64 7 7 (313600)
I0928 13:46:48.632436  4581 net.cpp:137] Memory required for data: 798739600
I0928 13:46:48.632439  4581 layer_factory.hpp:77] Creating layer Eltwise19_M2PELU39_0_split
I0928 13:46:48.632444  4581 net.cpp:84] Creating Layer Eltwise19_M2PELU39_0_split
I0928 13:46:48.632447  4581 net.cpp:406] Eltwise19_M2PELU39_0_split <- Eltwise19
I0928 13:46:48.632449  4581 net.cpp:380] Eltwise19_M2PELU39_0_split -> Eltwise19_M2PELU39_0_split_0
I0928 13:46:48.632463  4581 net.cpp:380] Eltwise19_M2PELU39_0_split -> Eltwise19_M2PELU39_0_split_1
I0928 13:46:48.632488  4581 net.cpp:122] Setting up Eltwise19_M2PELU39_0_split
I0928 13:46:48.632491  4581 net.cpp:129] Top shape: 100 64 7 7 (313600)
I0928 13:46:48.632494  4581 net.cpp:129] Top shape: 100 64 7 7 (313600)
I0928 13:46:48.632496  4581 net.cpp:137] Memory required for data: 801248400
I0928 13:46:48.632498  4581 layer_factory.hpp:77] Creating layer Convolution42
I0928 13:46:48.632505  4581 net.cpp:84] Creating Layer Convolution42
I0928 13:46:48.632508  4581 net.cpp:406] Convolution42 <- Eltwise19_M2PELU39_0_split_0
I0928 13:46:48.632511  4581 net.cpp:380] Convolution42 -> Convolution42
I0928 13:46:48.634227  4581 net.cpp:122] Setting up Convolution42
I0928 13:46:48.634235  4581 net.cpp:129] Top shape: 100 64 7 7 (313600)
I0928 13:46:48.634238  4581 net.cpp:137] Memory required for data: 802502800
I0928 13:46:48.634243  4581 layer_factory.hpp:77] Creating layer BatchNorm42
I0928 13:46:48.634248  4581 net.cpp:84] Creating Layer BatchNorm42
I0928 13:46:48.634250  4581 net.cpp:406] BatchNorm42 <- Convolution42
I0928 13:46:48.634254  4581 net.cpp:367] BatchNorm42 -> Convolution42 (in-place)
I0928 13:46:48.634395  4581 net.cpp:122] Setting up BatchNorm42
I0928 13:46:48.634400  4581 net.cpp:129] Top shape: 100 64 7 7 (313600)
I0928 13:46:48.634402  4581 net.cpp:137] Memory required for data: 803757200
I0928 13:46:48.634407  4581 layer_factory.hpp:77] Creating layer Scale42
I0928 13:46:48.634412  4581 net.cpp:84] Creating Layer Scale42
I0928 13:46:48.634413  4581 net.cpp:406] Scale42 <- Convolution42
I0928 13:46:48.634418  4581 net.cpp:367] Scale42 -> Convolution42 (in-place)
I0928 13:46:48.634445  4581 layer_factory.hpp:77] Creating layer Scale42
I0928 13:46:48.634539  4581 net.cpp:122] Setting up Scale42
I0928 13:46:48.634553  4581 net.cpp:129] Top shape: 100 64 7 7 (313600)
I0928 13:46:48.634555  4581 net.cpp:137] Memory required for data: 805011600
I0928 13:46:48.634559  4581 layer_factory.hpp:77] Creating layer M2PELU40
I0928 13:46:48.634564  4581 net.cpp:84] Creating Layer M2PELU40
I0928 13:46:48.634567  4581 net.cpp:406] M2PELU40 <- Convolution42
I0928 13:46:48.634570  4581 net.cpp:367] M2PELU40 -> Convolution42 (in-place)
I0928 13:46:48.634658  4581 net.cpp:122] Setting up M2PELU40
I0928 13:46:48.634663  4581 net.cpp:129] Top shape: 100 64 7 7 (313600)
I0928 13:46:48.634665  4581 net.cpp:137] Memory required for data: 806266000
I0928 13:46:48.634668  4581 layer_factory.hpp:77] Creating layer Convolution43
I0928 13:46:48.634675  4581 net.cpp:84] Creating Layer Convolution43
I0928 13:46:48.634677  4581 net.cpp:406] Convolution43 <- Convolution42
I0928 13:46:48.634681  4581 net.cpp:380] Convolution43 -> Convolution43
I0928 13:46:48.636930  4581 net.cpp:122] Setting up Convolution43
I0928 13:46:48.636940  4581 net.cpp:129] Top shape: 100 64 7 7 (313600)
I0928 13:46:48.636941  4581 net.cpp:137] Memory required for data: 807520400
I0928 13:46:48.636947  4581 layer_factory.hpp:77] Creating layer BatchNorm43
I0928 13:46:48.636951  4581 net.cpp:84] Creating Layer BatchNorm43
I0928 13:46:48.636955  4581 net.cpp:406] BatchNorm43 <- Convolution43
I0928 13:46:48.636957  4581 net.cpp:367] BatchNorm43 -> Convolution43 (in-place)
I0928 13:46:48.637100  4581 net.cpp:122] Setting up BatchNorm43
I0928 13:46:48.637104  4581 net.cpp:129] Top shape: 100 64 7 7 (313600)
I0928 13:46:48.637106  4581 net.cpp:137] Memory required for data: 808774800
I0928 13:46:48.637111  4581 layer_factory.hpp:77] Creating layer Scale43
I0928 13:46:48.637115  4581 net.cpp:84] Creating Layer Scale43
I0928 13:46:48.637117  4581 net.cpp:406] Scale43 <- Convolution43
I0928 13:46:48.637120  4581 net.cpp:367] Scale43 -> Convolution43 (in-place)
I0928 13:46:48.637150  4581 layer_factory.hpp:77] Creating layer Scale43
I0928 13:46:48.637228  4581 net.cpp:122] Setting up Scale43
I0928 13:46:48.637233  4581 net.cpp:129] Top shape: 100 64 7 7 (313600)
I0928 13:46:48.637234  4581 net.cpp:137] Memory required for data: 810029200
I0928 13:46:48.637238  4581 layer_factory.hpp:77] Creating layer Eltwise20
I0928 13:46:48.637241  4581 net.cpp:84] Creating Layer Eltwise20
I0928 13:46:48.637244  4581 net.cpp:406] Eltwise20 <- Eltwise19_M2PELU39_0_split_1
I0928 13:46:48.637248  4581 net.cpp:406] Eltwise20 <- Convolution43
I0928 13:46:48.637250  4581 net.cpp:380] Eltwise20 -> Eltwise20
I0928 13:46:48.637267  4581 net.cpp:122] Setting up Eltwise20
I0928 13:46:48.637270  4581 net.cpp:129] Top shape: 100 64 7 7 (313600)
I0928 13:46:48.637272  4581 net.cpp:137] Memory required for data: 811283600
I0928 13:46:48.637274  4581 layer_factory.hpp:77] Creating layer M2PELU41
I0928 13:46:48.637279  4581 net.cpp:84] Creating Layer M2PELU41
I0928 13:46:48.637282  4581 net.cpp:406] M2PELU41 <- Eltwise20
I0928 13:46:48.637285  4581 net.cpp:367] M2PELU41 -> Eltwise20 (in-place)
I0928 13:46:48.637372  4581 net.cpp:122] Setting up M2PELU41
I0928 13:46:48.637375  4581 net.cpp:129] Top shape: 100 64 7 7 (313600)
I0928 13:46:48.637377  4581 net.cpp:137] Memory required for data: 812538000
I0928 13:46:48.637380  4581 layer_factory.hpp:77] Creating layer Eltwise20_M2PELU41_0_split
I0928 13:46:48.637384  4581 net.cpp:84] Creating Layer Eltwise20_M2PELU41_0_split
I0928 13:46:48.637387  4581 net.cpp:406] Eltwise20_M2PELU41_0_split <- Eltwise20
I0928 13:46:48.637390  4581 net.cpp:380] Eltwise20_M2PELU41_0_split -> Eltwise20_M2PELU41_0_split_0
I0928 13:46:48.637394  4581 net.cpp:380] Eltwise20_M2PELU41_0_split -> Eltwise20_M2PELU41_0_split_1
I0928 13:46:48.637418  4581 net.cpp:122] Setting up Eltwise20_M2PELU41_0_split
I0928 13:46:48.637423  4581 net.cpp:129] Top shape: 100 64 7 7 (313600)
I0928 13:46:48.637424  4581 net.cpp:129] Top shape: 100 64 7 7 (313600)
I0928 13:46:48.637426  4581 net.cpp:137] Memory required for data: 815046800
I0928 13:46:48.637434  4581 layer_factory.hpp:77] Creating layer Convolution44
I0928 13:46:48.637441  4581 net.cpp:84] Creating Layer Convolution44
I0928 13:46:48.637444  4581 net.cpp:406] Convolution44 <- Eltwise20_M2PELU41_0_split_0
I0928 13:46:48.637449  4581 net.cpp:380] Convolution44 -> Convolution44
I0928 13:46:48.639120  4581 net.cpp:122] Setting up Convolution44
I0928 13:46:48.639129  4581 net.cpp:129] Top shape: 100 64 7 7 (313600)
I0928 13:46:48.639132  4581 net.cpp:137] Memory required for data: 816301200
I0928 13:46:48.639137  4581 layer_factory.hpp:77] Creating layer BatchNorm44
I0928 13:46:48.639142  4581 net.cpp:84] Creating Layer BatchNorm44
I0928 13:46:48.639144  4581 net.cpp:406] BatchNorm44 <- Convolution44
I0928 13:46:48.639149  4581 net.cpp:367] BatchNorm44 -> Convolution44 (in-place)
I0928 13:46:48.639288  4581 net.cpp:122] Setting up BatchNorm44
I0928 13:46:48.639292  4581 net.cpp:129] Top shape: 100 64 7 7 (313600)
I0928 13:46:48.639294  4581 net.cpp:137] Memory required for data: 817555600
I0928 13:46:48.639299  4581 layer_factory.hpp:77] Creating layer Scale44
I0928 13:46:48.639304  4581 net.cpp:84] Creating Layer Scale44
I0928 13:46:48.639307  4581 net.cpp:406] Scale44 <- Convolution44
I0928 13:46:48.639310  4581 net.cpp:367] Scale44 -> Convolution44 (in-place)
I0928 13:46:48.639338  4581 layer_factory.hpp:77] Creating layer Scale44
I0928 13:46:48.639417  4581 net.cpp:122] Setting up Scale44
I0928 13:46:48.639421  4581 net.cpp:129] Top shape: 100 64 7 7 (313600)
I0928 13:46:48.639423  4581 net.cpp:137] Memory required for data: 818810000
I0928 13:46:48.639427  4581 layer_factory.hpp:77] Creating layer M2PELU42
I0928 13:46:48.639432  4581 net.cpp:84] Creating Layer M2PELU42
I0928 13:46:48.639434  4581 net.cpp:406] M2PELU42 <- Convolution44
I0928 13:46:48.639437  4581 net.cpp:367] M2PELU42 -> Convolution44 (in-place)
I0928 13:46:48.639524  4581 net.cpp:122] Setting up M2PELU42
I0928 13:46:48.639528  4581 net.cpp:129] Top shape: 100 64 7 7 (313600)
I0928 13:46:48.639530  4581 net.cpp:137] Memory required for data: 820064400
I0928 13:46:48.639534  4581 layer_factory.hpp:77] Creating layer Convolution45
I0928 13:46:48.639540  4581 net.cpp:84] Creating Layer Convolution45
I0928 13:46:48.639542  4581 net.cpp:406] Convolution45 <- Convolution44
I0928 13:46:48.639547  4581 net.cpp:380] Convolution45 -> Convolution45
I0928 13:46:48.641489  4581 net.cpp:122] Setting up Convolution45
I0928 13:46:48.641496  4581 net.cpp:129] Top shape: 100 64 7 7 (313600)
I0928 13:46:48.641499  4581 net.cpp:137] Memory required for data: 821318800
I0928 13:46:48.641504  4581 layer_factory.hpp:77] Creating layer BatchNorm45
I0928 13:46:48.641510  4581 net.cpp:84] Creating Layer BatchNorm45
I0928 13:46:48.641511  4581 net.cpp:406] BatchNorm45 <- Convolution45
I0928 13:46:48.641515  4581 net.cpp:367] BatchNorm45 -> Convolution45 (in-place)
I0928 13:46:48.641659  4581 net.cpp:122] Setting up BatchNorm45
I0928 13:46:48.641664  4581 net.cpp:129] Top shape: 100 64 7 7 (313600)
I0928 13:46:48.641665  4581 net.cpp:137] Memory required for data: 822573200
I0928 13:46:48.641670  4581 layer_factory.hpp:77] Creating layer Scale45
I0928 13:46:48.641674  4581 net.cpp:84] Creating Layer Scale45
I0928 13:46:48.641676  4581 net.cpp:406] Scale45 <- Convolution45
I0928 13:46:48.641680  4581 net.cpp:367] Scale45 -> Convolution45 (in-place)
I0928 13:46:48.641710  4581 layer_factory.hpp:77] Creating layer Scale45
I0928 13:46:48.641791  4581 net.cpp:122] Setting up Scale45
I0928 13:46:48.641796  4581 net.cpp:129] Top shape: 100 64 7 7 (313600)
I0928 13:46:48.641798  4581 net.cpp:137] Memory required for data: 823827600
…
I0928 13:46:49.000311  4581 net.cpp:84] Creating Layer BatchNorm40
I0928 13:46:49.000315  4581 net.cpp:406] BatchNorm40 <- Convolution40
I0928 13:46:49.000319  4581 net.cpp:367] BatchNorm40 -> Convolution40 (in-place)
I0928 13:46:49.000453  4581 net.cpp:122] Setting up BatchNorm40
I0928 13:46:49.000458  4581 net.cpp:129] Top shape: 100 64 8 8 (409600)
I0928 13:46:49.000460  4581 net.cpp:137] Memory required for data: 1031783600
I0928 13:46:49.000465  4581 layer_factory.hpp:77] Creating layer Scale40
I0928 13:46:49.000469  4581 net.cpp:84] Creating Layer Scale40
I0928 13:46:49.000473  4581 net.cpp:406] Scale40 <- Convolution40
I0928 13:46:49.000475  4581 net.cpp:367] Scale40 -> Convolution40 (in-place)
I0928 13:46:49.000502  4581 layer_factory.hpp:77] Creating layer Scale40
I0928 13:46:49.000581  4581 net.cpp:122] Setting up Scale40
I0928 13:46:49.000586  4581 net.cpp:129] Top shape: 100 64 8 8 (409600)
I0928 13:46:49.000587  4581 net.cpp:137] Memory required for data: 1033422000
I0928 13:46:49.000591  4581 layer_factory.hpp:77] Creating layer M2PELU38
I0928 13:46:49.000597  4581 net.cpp:84] Creating Layer M2PELU38
I0928 13:46:49.000598  4581 net.cpp:406] M2PELU38 <- Convolution40
I0928 13:46:49.000609  4581 net.cpp:367] M2PELU38 -> Convolution40 (in-place)
I0928 13:46:49.000704  4581 net.cpp:122] Setting up M2PELU38
I0928 13:46:49.000708  4581 net.cpp:129] Top shape: 100 64 8 8 (409600)
I0928 13:46:49.000710  4581 net.cpp:137] Memory required for data: 1035060400
I0928 13:46:49.000715  4581 layer_factory.hpp:77] Creating layer Convolution41
I0928 13:46:49.000721  4581 net.cpp:84] Creating Layer Convolution41
I0928 13:46:49.000725  4581 net.cpp:406] Convolution41 <- Convolution40
I0928 13:46:49.000728  4581 net.cpp:380] Convolution41 -> Convolution41
I0928 13:46:49.002466  4581 net.cpp:122] Setting up Convolution41
I0928 13:46:49.002475  4581 net.cpp:129] Top shape: 100 64 8 8 (409600)
I0928 13:46:49.002478  4581 net.cpp:137] Memory required for data: 1036698800
I0928 13:46:49.002482  4581 layer_factory.hpp:77] Creating layer BatchNorm41
I0928 13:46:49.002487  4581 net.cpp:84] Creating Layer BatchNorm41
I0928 13:46:49.002490  4581 net.cpp:406] BatchNorm41 <- Convolution41
I0928 13:46:49.002495  4581 net.cpp:367] BatchNorm41 -> Convolution41 (in-place)
I0928 13:46:49.002635  4581 net.cpp:122] Setting up BatchNorm41
I0928 13:46:49.002640  4581 net.cpp:129] Top shape: 100 64 8 8 (409600)
I0928 13:46:49.002642  4581 net.cpp:137] Memory required for data: 1038337200
I0928 13:46:49.002646  4581 layer_factory.hpp:77] Creating layer Scale41
I0928 13:46:49.002650  4581 net.cpp:84] Creating Layer Scale41
I0928 13:46:49.002653  4581 net.cpp:406] Scale41 <- Convolution41
I0928 13:46:49.002657  4581 net.cpp:367] Scale41 -> Convolution41 (in-place)
I0928 13:46:49.002686  4581 layer_factory.hpp:77] Creating layer Scale41
I0928 13:46:49.002763  4581 net.cpp:122] Setting up Scale41
I0928 13:46:49.002766  4581 net.cpp:129] Top shape: 100 64 8 8 (409600)
I0928 13:46:49.002768  4581 net.cpp:137] Memory required for data: 1039975600
I0928 13:46:49.002773  4581 layer_factory.hpp:77] Creating layer Eltwise19
I0928 13:46:49.002776  4581 net.cpp:84] Creating Layer Eltwise19
I0928 13:46:49.002779  4581 net.cpp:406] Eltwise19 <- Convolution39
I0928 13:46:49.002782  4581 net.cpp:406] Eltwise19 <- Convolution41
I0928 13:46:49.002787  4581 net.cpp:380] Eltwise19 -> Eltwise19
I0928 13:46:49.002804  4581 net.cpp:122] Setting up Eltwise19
I0928 13:46:49.002809  4581 net.cpp:129] Top shape: 100 64 8 8 (409600)
I0928 13:46:49.002810  4581 net.cpp:137] Memory required for data: 1041614000
I0928 13:46:49.002812  4581 layer_factory.hpp:77] Creating layer M2PELU39
I0928 13:46:49.002816  4581 net.cpp:84] Creating Layer M2PELU39
I0928 13:46:49.002820  4581 net.cpp:406] M2PELU39 <- Eltwise19
I0928 13:46:49.002823  4581 net.cpp:367] M2PELU39 -> Eltwise19 (in-place)
I0928 13:46:49.002914  4581 net.cpp:122] Setting up M2PELU39
I0928 13:46:49.002918  4581 net.cpp:129] Top shape: 100 64 8 8 (409600)
I0928 13:46:49.002920  4581 net.cpp:137] Memory required for data: 1043252400
I0928 13:46:49.002924  4581 layer_factory.hpp:77] Creating layer Eltwise19_M2PELU39_0_split
I0928 13:46:49.002928  4581 net.cpp:84] Creating Layer Eltwise19_M2PELU39_0_split
I0928 13:46:49.002930  4581 net.cpp:406] Eltwise19_M2PELU39_0_split <- Eltwise19
I0928 13:46:49.002934  4581 net.cpp:380] Eltwise19_M2PELU39_0_split -> Eltwise19_M2PELU39_0_split_0
I0928 13:46:49.002938  4581 net.cpp:380] Eltwise19_M2PELU39_0_split -> Eltwise19_M2PELU39_0_split_1
I0928 13:46:49.002962  4581 net.cpp:122] Setting up Eltwise19_M2PELU39_0_split
I0928 13:46:49.002965  4581 net.cpp:129] Top shape: 100 64 8 8 (409600)
I0928 13:46:49.002969  4581 net.cpp:129] Top shape: 100 64 8 8 (409600)
I0928 13:46:49.002970  4581 net.cpp:137] Memory required for data: 1046529200
I0928 13:46:49.002972  4581 layer_factory.hpp:77] Creating layer Convolution42
I0928 13:46:49.002979  4581 net.cpp:84] Creating Layer Convolution42
I0928 13:46:49.002982  4581 net.cpp:406] Convolution42 <- Eltwise19_M2PELU39_0_split_0
I0928 13:46:49.002986  4581 net.cpp:380] Convolution42 -> Convolution42
I0928 13:46:49.004715  4581 net.cpp:122] Setting up Convolution42
I0928 13:46:49.004724  4581 net.cpp:129] Top shape: 100 64 8 8 (409600)
I0928 13:46:49.004734  4581 net.cpp:137] Memory required for data: 1048167600
I0928 13:46:49.004739  4581 layer_factory.hpp:77] Creating layer BatchNorm42
I0928 13:46:49.004743  4581 net.cpp:84] Creating Layer BatchNorm42
I0928 13:46:49.004746  4581 net.cpp:406] BatchNorm42 <- Convolution42
I0928 13:46:49.004751  4581 net.cpp:367] BatchNorm42 -> Convolution42 (in-place)
I0928 13:46:49.004884  4581 net.cpp:122] Setting up BatchNorm42
I0928 13:46:49.004889  4581 net.cpp:129] Top shape: 100 64 8 8 (409600)
I0928 13:46:49.004891  4581 net.cpp:137] Memory required for data: 1049806000
I0928 13:46:49.004896  4581 layer_factory.hpp:77] Creating layer Scale42
I0928 13:46:49.004900  4581 net.cpp:84] Creating Layer Scale42
I0928 13:46:49.004904  4581 net.cpp:406] Scale42 <- Convolution42
I0928 13:46:49.004906  4581 net.cpp:367] Scale42 -> Convolution42 (in-place)
I0928 13:46:49.004933  4581 layer_factory.hpp:77] Creating layer Scale42
I0928 13:46:49.005012  4581 net.cpp:122] Setting up Scale42
I0928 13:46:49.005015  4581 net.cpp:129] Top shape: 100 64 8 8 (409600)
I0928 13:46:49.005017  4581 net.cpp:137] Memory required for data: 1051444400
I0928 13:46:49.005022  4581 layer_factory.hpp:77] Creating layer M2PELU40
I0928 13:46:49.005026  4581 net.cpp:84] Creating Layer M2PELU40
I0928 13:46:49.005029  4581 net.cpp:406] M2PELU40 <- Convolution42
I0928 13:46:49.005033  4581 net.cpp:367] M2PELU40 -> Convolution42 (in-place)
I0928 13:46:49.005120  4581 net.cpp:122] Setting up M2PELU40
I0928 13:46:49.005125  4581 net.cpp:129] Top shape: 100 64 8 8 (409600)
I0928 13:46:49.005127  4581 net.cpp:137] Memory required for data: 1053082800
I0928 13:46:49.005131  4581 layer_factory.hpp:77] Creating layer Convolution43
I0928 13:46:49.005137  4581 net.cpp:84] Creating Layer Convolution43
I0928 13:46:49.005141  4581 net.cpp:406] Convolution43 <- Convolution42
I0928 13:46:49.005144  4581 net.cpp:380] Convolution43 -> Convolution43
I0928 13:46:49.006860  4581 net.cpp:122] Setting up Convolution43
I0928 13:46:49.006870  4581 net.cpp:129] Top shape: 100 64 8 8 (409600)
I0928 13:46:49.006872  4581 net.cpp:137] Memory required for data: 1054721200
I0928 13:46:49.006877  4581 layer_factory.hpp:77] Creating layer BatchNorm43
I0928 13:46:49.006881  4581 net.cpp:84] Creating Layer BatchNorm43
I0928 13:46:49.006884  4581 net.cpp:406] BatchNorm43 <- Convolution43
I0928 13:46:49.006888  4581 net.cpp:367] BatchNorm43 -> Convolution43 (in-place)
I0928 13:46:49.007027  4581 net.cpp:122] Setting up BatchNorm43
I0928 13:46:49.007032  4581 net.cpp:129] Top shape: 100 64 8 8 (409600)
I0928 13:46:49.007035  4581 net.cpp:137] Memory required for data: 1056359600
I0928 13:46:49.007040  4581 layer_factory.hpp:77] Creating layer Scale43
I0928 13:46:49.007043  4581 net.cpp:84] Creating Layer Scale43
I0928 13:46:49.007045  4581 net.cpp:406] Scale43 <- Convolution43
I0928 13:46:49.007050  4581 net.cpp:367] Scale43 -> Convolution43 (in-place)
I0928 13:46:49.007077  4581 layer_factory.hpp:77] Creating layer Scale43
I0928 13:46:49.007154  4581 net.cpp:122] Setting up Scale43
I0928 13:46:49.007159  4581 net.cpp:129] Top shape: 100 64 8 8 (409600)
I0928 13:46:49.007161  4581 net.cpp:137] Memory required for data: 1057998000
I0928 13:46:49.007165  4581 layer_factory.hpp:77] Creating layer Eltwise20
I0928 13:46:49.007169  4581 net.cpp:84] Creating Layer Eltwise20
I0928 13:46:49.007171  4581 net.cpp:406] Eltwise20 <- Eltwise19_M2PELU39_0_split_1
I0928 13:46:49.007174  4581 net.cpp:406] Eltwise20 <- Convolution43
I0928 13:46:49.007179  4581 net.cpp:380] Eltwise20 -> Eltwise20
I0928 13:46:49.007194  4581 net.cpp:122] Setting up Eltwise20
I0928 13:46:49.007200  4581 net.cpp:129] Top shape: 100 64 8 8 (409600)
I0928 13:46:49.007201  4581 net.cpp:137] Memory required for data: 1059636400
I0928 13:46:49.007203  4581 layer_factory.hpp:77] Creating layer M2PELU41
I0928 13:46:49.007208  4581 net.cpp:84] Creating Layer M2PELU41
I0928 13:46:49.007210  4581 net.cpp:406] M2PELU41 <- Eltwise20
I0928 13:46:49.007215  4581 net.cpp:367] M2PELU41 -> Eltwise20 (in-place)
I0928 13:46:49.007313  4581 net.cpp:122] Setting up M2PELU41
I0928 13:46:49.007318  4581 net.cpp:129] Top shape: 100 64 8 8 (409600)
I0928 13:46:49.007320  4581 net.cpp:137] Memory required for data: 1061274800
I0928 13:46:49.007324  4581 layer_factory.hpp:77] Creating layer Eltwise20_M2PELU41_0_split
I0928 13:46:49.007328  4581 net.cpp:84] Creating Layer Eltwise20_M2PELU41_0_split
I0928 13:46:49.007330  4581 net.cpp:406] Eltwise20_M2PELU41_0_split <- Eltwise20
I0928 13:46:49.007334  4581 net.cpp:380] Eltwise20_M2PELU41_0_split -> Eltwise20_M2PELU41_0_split_0
I0928 13:46:49.007339  4581 net.cpp:380] Eltwise20_M2PELU41_0_split -> Eltwise20_M2PELU41_0_split_1
I0928 13:46:49.007364  4581 net.cpp:122] Setting up Eltwise20_M2PELU41_0_split
I0928 13:46:49.007367  4581 net.cpp:129] Top shape: 100 64 8 8 (409600)
I0928 13:46:49.007370  4581 net.cpp:129] Top shape: 100 64 8 8 (409600)
I0928 13:46:49.007372  4581 net.cpp:137] Memory required for data: 1064551600
I0928 13:46:49.007375  4581 layer_factory.hpp:77] Creating layer Convolution44
I0928 13:46:49.007380  4581 net.cpp:84] Creating Layer Convolution44
I0928 13:46:49.007383  4581 net.cpp:406] Convolution44 <- Eltwise20_M2PELU41_0_split_0
I0928 13:46:49.007387  4581 net.cpp:380] Convolution44 -> Convolution44
I0928 13:46:49.009425  4581 net.cpp:122] Setting up Convolution44
I0928 13:46:49.009433  4581 net.cpp:129] Top shape: 100 64 8 8 (409600)
I0928 13:46:49.009436  4581 net.cpp:137] Memory required for data: 1066190000
I0928 13:46:49.009440  4581 layer_factory.hpp:77] Creating layer BatchNorm44
I0928 13:46:49.009446  4581 net.cpp:84] Creating Layer BatchNorm44
I0928 13:46:49.009449  4581 net.cpp:406] BatchNorm44 <- Convolution44
I0928 13:46:49.009452  4581 net.cpp:367] BatchNorm44 -> Convolution44 (in-place)
I0928 13:46:49.009594  4581 net.cpp:122] Setting up BatchNorm44
I0928 13:46:49.009599  4581 net.cpp:129] Top shape: 100 64 8 8 (409600)
I0928 13:46:49.009601  4581 net.cpp:137] Memory required for data: 1067828400
I0928 13:46:49.029923  4581 layer_factory.hpp:77] Creating layer Scale44
I0928 13:46:49.029938  4581 net.cpp:84] Creating Layer Scale44
I0928 13:46:49.029944  4581 net.cpp:406] Scale44 <- Convolution44
I0928 13:46:49.029950  4581 net.cpp:367] Scale44 -> Convolution44 (in-place)
I0928 13:46:49.030004  4581 layer_factory.hpp:77] Creating layer Scale44
I0928 13:46:49.030112  4581 net.cpp:122] Setting up Scale44
I0928 13:46:49.030119  4581 net.cpp:129] Top shape: 100 64 8 8 (409600)
I0928 13:46:49.030122  4581 net.cpp:137] Memory required for data: 1069466800
I0928 13:46:49.030127  4581 layer_factory.hpp:77] Creating layer M2PELU42
I0928 13:46:49.030133  4581 net.cpp:84] Creating Layer M2PELU42
I0928 13:46:49.030135  4581 net.cpp:406] M2PELU42 <- Convolution44
I0928 13:46:49.030140  4581 net.cpp:367] M2PELU42 -> Convolution44 (in-place)
I0928 13:46:49.030242  4581 net.cpp:122] Setting up M2PELU42
I0928 13:46:49.030247  4581 net.cpp:129] Top shape: 100 64 8 8 (409600)
I0928 13:46:49.030251  4581 net.cpp:137] Memory required for data: 1071105200
I0928 13:46:49.030254  4581 layer_factory.hpp:77] Creating layer Convolution45
I0928 13:46:49.030261  4581 net.cpp:84] Creating Layer Convolution45
I0928 13:46:49.030264  4581 net.cpp:406] Convolution45 <- Convolution44
I0928 13:46:49.030269  4581 net.cpp:380] Convolution45 -> Convolution45
I0928 13:46:49.032151  4581 net.cpp:122] Setting up Convolution45
I0928 13:46:49.032160  4581 net.cpp:129] Top shape: 100 64 8 8 (409600)
I0928 13:46:49.032163  4581 net.cpp:137] Memory required for data: 1072743600
I0928 13:46:49.032168  4581 layer_factory.hpp:77] Creating layer BatchNorm45
I0928 13:46:49.032173  4581 net.cpp:84] Creating Layer BatchNorm45
I0928 13:46:49.032176  4581 net.cpp:406] BatchNorm45 <- Convolution45
I0928 13:46:49.032179  4581 net.cpp:367] BatchNorm45 -> Convolution45 (in-place)
I0928 13:46:49.032313  4581 net.cpp:122] Setting up BatchNorm45
I0928 13:46:49.032318  4581 net.cpp:129] Top shape: 100 64 8 8 (409600)
I0928 13:46:49.032320  4581 net.cpp:137] Memory required for data: 1074382000
I0928 13:46:49.032325  4581 layer_factory.hpp:77] Creating layer Scale45
I0928 13:46:49.032335  4581 net.cpp:84] Creating Layer Scale45
I0928 13:46:49.032340  4581 net.cpp:406] Scale45 <- Convolution45
I0928 13:46:49.032342  4581 net.cpp:367] Scale45 -> Convolution45 (in-place)
I0928 13:46:49.032371  4581 layer_factory.hpp:77] Creating layer Scale45
I0928 13:46:49.032449  4581 net.cpp:122] Setting up Scale45
I0928 13:46:49.032452  4581 net.cpp:129] Top shape: 100 64 8 8 (409600)
I0928 13:46:49.032454  4581 net.cpp:137] Memory required for data: 1076020400
I0928 13:46:49.032459  4581 layer_factory.hpp:77] Creating layer Eltwise21
I0928 13:46:49.032462  4581 net.cpp:84] Creating Layer Eltwise21
I0928 13:46:49.032466  4581 net.cpp:406] Eltwise21 <- Eltwise20_M2PELU41_0_split_1
I0928 13:46:49.032469  4581 net.cpp:406] Eltwise21 <- Convolution45
I0928 13:46:49.032472  4581 net.cpp:380] Eltwise21 -> Eltwise21
I0928 13:46:49.032488  4581 net.cpp:122] Setting up Eltwise21
I0928 13:46:49.032491  4581 net.cpp:129] Top shape: 100 64 8 8 (409600)
I0928 13:46:49.032493  4581 net.cpp:137] Memory required for data: 1077658800
I0928 13:46:49.032495  4581 layer_factory.hpp:77] Creating layer M2PELU43
I0928 13:46:49.032500  4581 net.cpp:84] Creating Layer M2PELU43
I0928 13:46:49.032503  4581 net.cpp:406] M2PELU43 <- Eltwise21
I0928 13:46:49.032506  4581 net.cpp:367] M2PELU43 -> Eltwise21 (in-place)
I0928 13:46:49.032594  4581 net.cpp:122] Setting up M2PELU43
I0928 13:46:49.032598  4581 net.cpp:129] Top shape: 100 64 8 8 (409600)
I0928 13:46:49.032600  4581 net.cpp:137] Memory required for data: 1079297200
I0928 13:46:49.032604  4581 layer_factory.hpp:77] Creating layer Eltwise21_M2PELU43_0_split
I0928 13:46:49.032609  4581 net.cpp:84] Creating Layer Eltwise21_M2PELU43_0_split
I0928 13:46:49.032611  4581 net.cpp:406] Eltwise21_M2PELU43_0_split <- Eltwise21
I0928 13:46:49.032615  4581 net.cpp:380] Eltwise21_M2PELU43_0_split -> Eltwise21_M2PELU43_0_split_0
I0928 13:46:49.032619  4581 net.cpp:380] Eltwise21_M2PELU43_0_split -> Eltwise21_M2PELU43_0_split_1
I0928 13:46:49.032644  4581 net.cpp:122] Setting up Eltwise21_M2PELU43_0_split
I0928 13:46:49.032647  4581 net.cpp:129] Top shape: 100 64 8 8 (409600)
I0928 13:46:49.032649  4581 net.cpp:129] Top shape: 100 64 8 8 (409600)
I0928 13:46:49.032651  4581 net.cpp:137] Memory required for data: 1082574000
I0928 13:46:49.032654  4581 layer_factory.hpp:77] Creating layer Convolution46
I0928 13:46:49.032660  4581 net.cpp:84] Creating Layer Convolution46
I0928 13:46:49.032662  4581 net.cpp:406] Convolution46 <- Eltwise21_M2PELU43_0_split_0
I0928 13:46:49.032666  4581 net.cpp:380] Convolution46 -> Convolution46
I0928 13:46:49.034345  4581 net.cpp:122] Setting up Convolution46
I0928 13:46:49.034353  4581 net.cpp:129] Top shape: 100 64 8 8 (409600)
I0928 13:46:49.034356  4581 net.cpp:137] Memory required for data: 1084212400
I0928 13:46:49.034360  4581 layer_factory.hpp:77] Creating layer BatchNorm46
I0928 13:46:49.034366  4581 net.cpp:84] Creating Layer BatchNorm46
I0928 13:46:49.034368  4581 net.cpp:406] BatchNorm46 <- Convolution46
I0928 13:46:49.034373  4581 net.cpp:367] BatchNorm46 -> Convolution46 (in-place)
I0928 13:46:49.034509  4581 net.cpp:122] Setting up BatchNorm46
I0928 13:46:49.034514  4581 net.cpp:129] Top shape: 100 64 8 8 (409600)
I0928 13:46:49.034517  4581 net.cpp:137] Memory required for data: 1085850800
I0928 13:46:49.034534  4581 layer_factory.hpp:77] Creating layer Scale46
I0928 13:46:49.034540  4581 net.cpp:84] Creating Layer Scale46
I0928 13:46:49.034543  4581 net.cpp:406] Scale46 <- Convolution46
I0928 13:46:49.034546  4581 net.cpp:367] Scale46 -> Convolution46 (in-place)
I0928 13:46:49.034584  4581 layer_factory.hpp:77] Creating layer Scale46
I0928 13:46:49.034662  4581 net.cpp:122] Setting up Scale46
I0928 13:46:49.034665  4581 net.cpp:129] Top shape: 100 64 8 8 (409600)
I0928 13:46:49.034668  4581 net.cpp:137] Memory required for data: 1087489200
I0928 13:46:49.034672  4581 layer_factory.hpp:77] Creating layer M2PELU44
I0928 13:46:49.034677  4581 net.cpp:84] Creating Layer M2PELU44
I0928 13:46:49.034679  4581 net.cpp:406] M2PELU44 <- Convolution46
I0928 13:46:49.034689  4581 net.cpp:367] M2PELU44 -> Convolution46 (in-place)
I0928 13:46:49.034777  4581 net.cpp:122] Setting up M2PELU44
I0928 13:46:49.034782  4581 net.cpp:129] Top shape: 100 64 8 8 (409600)
I0928 13:46:49.034785  4581 net.cpp:137] Memory required for data: 1089127600
I0928 13:46:49.034787  4581 layer_factory.hpp:77] Creating layer Convolution47
I0928 13:46:49.034795  4581 net.cpp:84] Creating Layer Convolution47
I0928 13:46:49.034797  4581 net.cpp:406] Convolution47 <- Convolution46
I0928 13:46:49.034802  4581 net.cpp:380] Convolution47 -> Convolution47
I0928 13:46:49.036525  4581 net.cpp:122] Setting up Convolution47
I0928 13:46:49.036533  4581 net.cpp:129] Top shape: 100 64 8 8 (409600)
I0928 13:46:49.036536  4581 net.cpp:137] Memory required for data: 1090766000
I0928 13:46:49.036540  4581 layer_factory.hpp:77] Creating layer BatchNorm47
I0928 13:46:49.036545  4581 net.cpp:84] Creating Layer BatchNorm47
I0928 13:46:49.036548  4581 net.cpp:406] BatchNorm47 <- Convolution47
I0928 13:46:49.036551  4581 net.cpp:367] BatchNorm47 -> Convolution47 (in-place)
I0928 13:46:49.036684  4581 net.cpp:122] Setting up BatchNorm47
I0928 13:46:49.036689  4581 net.cpp:129] Top shape: 100 64 8 8 (409600)
I0928 13:46:49.036690  4581 net.cpp:137] Memory required for data: 1092404400
I0928 13:46:49.036695  4581 layer_factory.hpp:77] Creating layer Scale47
I0928 13:46:49.036700  4581 net.cpp:84] Creating Layer Scale47
I0928 13:46:49.036701  4581 net.cpp:406] Scale47 <- Convolution47
I0928 13:46:49.036705  4581 net.cpp:367] Scale47 -> Convolution47 (in-place)
I0928 13:46:49.036732  4581 layer_factory.hpp:77] Creating layer Scale47
I0928 13:46:49.036808  4581 net.cpp:122] Setting up Scale47
I0928 13:46:49.036813  4581 net.cpp:129] Top shape: 100 64 8 8 (409600)
I0928 13:46:49.036814  4581 net.cpp:137] Memory required for data: 1094042800
I0928 13:46:49.036818  4581 layer_factory.hpp:77] Creating layer Eltwise22
I0928 13:46:49.036823  4581 net.cpp:84] Creating Layer Eltwise22
I0928 13:46:49.036824  4581 net.cpp:406] Eltwise22 <- Eltwise21_M2PELU43_0_split_1
I0928 13:46:49.036828  4581 net.cpp:406] Eltwise22 <- Convolution47
I0928 13:46:49.036831  4581 net.cpp:380] Eltwise22 -> Eltwise22
I0928 13:46:49.036847  4581 net.cpp:122] Setting up Eltwise22
I0928 13:46:49.036851  4581 net.cpp:129] Top shape: 100 64 8 8 (409600)
I0928 13:46:49.036854  4581 net.cpp:137] Memory required for data: 1095681200
I0928 13:46:49.036855  4581 layer_factory.hpp:77] Creating layer M2PELU45
I0928 13:46:49.036860  4581 net.cpp:84] Creating Layer M2PELU45
I0928 13:46:49.036862  4581 net.cpp:406] M2PELU45 <- Eltwise22
I0928 13:46:49.036865  4581 net.cpp:367] M2PELU45 -> Eltwise22 (in-place)
I0928 13:46:49.036954  4581 net.cpp:122] Setting up M2PELU45
I0928 13:46:49.036958  4581 net.cpp:129] Top shape: 100 64 8 8 (409600)
I0928 13:46:49.036960  4581 net.cpp:137] Memory required for data: 1097319600
I0928 13:46:49.036964  4581 layer_factory.hpp:77] Creating layer Eltwise22_M2PELU45_0_split
I0928 13:46:49.036967  4581 net.cpp:84] Creating Layer Eltwise22_M2PELU45_0_split
I0928 13:46:49.036970  4581 net.cpp:406] Eltwise22_M2PELU45_0_split <- Eltwise22
I0928 13:46:49.036973  4581 net.cpp:380] Eltwise22_M2PELU45_0_split -> Eltwise22_M2PELU45_0_split_0
I0928 13:46:49.036978  4581 net.cpp:380] Eltwise22_M2PELU45_0_split -> Eltwise22_M2PELU45_0_split_1
I0928 13:46:49.037001  4581 net.cpp:122] Setting up Eltwise22_M2PELU45_0_split
I0928 13:46:49.037005  4581 net.cpp:129] Top shape: 100 64 8 8 (409600)
I0928 13:46:49.037009  4581 net.cpp:129] Top shape: 100 64 8 8 (409600)
I0928 13:46:49.037010  4581 net.cpp:137] Memory required for data: 1100596400
I0928 13:46:49.037012  4581 layer_factory.hpp:77] Creating layer Convolution48
I0928 13:46:49.037019  4581 net.cpp:84] Creating Layer Convolution48
I0928 13:46:49.037020  4581 net.cpp:406] Convolution48 <- Eltwise22_M2PELU45_0_split_0
I0928 13:46:49.037024  4581 net.cpp:380] Convolution48 -> Convolution48
I0928 13:46:49.039165  4581 net.cpp:122] Setting up Convolution48
I0928 13:46:49.039180  4581 net.cpp:129] Top shape: 100 64 8 8 (409600)
I0928 13:46:49.039182  4581 net.cpp:137] Memory required for data: 1102234800
I0928 13:46:49.039187  4581 layer_factory.hpp:77] Creating layer BatchNorm48
I0928 13:46:49.039193  4581 net.cpp:84] Creating Layer BatchNorm48
I0928 13:46:49.039196  4581 net.cpp:406] BatchNorm48 <- Convolution48
I0928 13:46:49.039201  4581 net.cpp:367] BatchNorm48 -> Convolution48 (in-place)
I0928 13:46:49.039343  4581 net.cpp:122] Setting up BatchNorm48
I0928 13:46:49.039347  4581 net.cpp:129] Top shape: 100 64 8 8 (409600)
I0928 13:46:49.039350  4581 net.cpp:137] Memory required for data: 1103873200
I0928 13:46:49.039355  4581 layer_factory.hpp:77] Creating layer Scale48
I0928 13:46:49.039358  4581 net.cpp:84] Creating Layer Scale48
I0928 13:46:49.039361  4581 net.cpp:406] Scale48 <- Convolution48
I0928 13:46:49.039364  4581 net.cpp:367] Scale48 -> Convolution48 (in-place)
I0928 13:46:49.039402  4581 layer_factory.hpp:77] Creating layer Scale48
I0928 13:46:49.039479  4581 net.cpp:122] Setting up Scale48
I0928 13:46:49.039482  4581 net.cpp:129] Top shape: 100 64 8 8 (409600)
I0928 13:46:49.039484  4581 net.cpp:137] Memory required for data: 1105511600
I0928 13:46:49.039489  4581 layer_factory.hpp:77] Creating layer M2PELU46
I0928 13:46:49.039494  4581 net.cpp:84] Creating Layer M2PELU46
I0928 13:46:49.039495  4581 net.cpp:406] M2PELU46 <- Convolution48
I0928 13:46:49.039499  4581 net.cpp:367] M2PELU46 -> Convolution48 (in-place)
I0928 13:46:49.039589  4581 net.cpp:122] Setting up M2PELU46
I0928 13:46:49.039593  4581 net.cpp:129] Top shape: 100 64 8 8 (409600)
I0928 13:46:49.039595  4581 net.cpp:137] Memory required for data: 1107150000
I0928 13:46:49.039599  4581 layer_factory.hpp:77] Creating layer Convolution49
I0928 13:46:49.039605  4581 net.cpp:84] Creating Layer Convolution49
I0928 13:46:49.039608  4581 net.cpp:406] Convolution49 <- Convolution48
I0928 13:46:49.039613  4581 net.cpp:380] Convolution49 -> Convolution49
I0928 13:46:49.041666  4581 net.cpp:122] Setting up Convolution49
I0928 13:46:49.041674  4581 net.cpp:129] Top shape: 100 64 8 8 (409600)
I0928 13:46:49.041677  4581 net.cpp:137] Memory required for data: 1108788400
I0928 13:46:49.041682  4581 layer_factory.hpp:77] Creating layer BatchNorm49
I0928 13:46:49.041687  4581 net.cpp:84] Creating Layer BatchNorm49
I0928 13:46:49.041690  4581 net.cpp:406] BatchNorm49 <- Convolution49
I0928 13:46:49.041694  4581 net.cpp:367] BatchNorm49 -> Convolution49 (in-place)
I0928 13:46:49.041831  4581 net.cpp:122] Setting up BatchNorm49
I0928 13:46:49.041834  4581 net.cpp:129] Top shape: 100 64 8 8 (409600)
I0928 13:46:49.041836  4581 net.cpp:137] Memory required for data: 1110426800
I0928 13:46:49.041841  4581 layer_factory.hpp:77] Creating layer Scale49
I0928 13:46:49.041846  4581 net.cpp:84] Creating Layer Scale49
I0928 13:46:49.041848  4581 net.cpp:406] Scale49 <- Convolution49
I0928 13:46:49.041851  4581 net.cpp:367] Scale49 -> Convolution49 (in-place)
I0928 13:46:49.041878  4581 layer_factory.hpp:77] Creating layer Scale49
I0928 13:46:49.041957  4581 net.cpp:122] Setting up Scale49
I0928 13:46:49.041961  4581 net.cpp:129] Top shape: 100 64 8 8 (409600)
I0928 13:46:49.041963  4581 net.cpp:137] Memory required for data: 1112065200
I0928 13:46:49.041967  4581 layer_factory.hpp:77] Creating layer Eltwise23
I0928 13:46:49.041971  4581 net.cpp:84] Creating Layer Eltwise23
I0928 13:46:49.041975  4581 net.cpp:406] Eltwise23 <- Eltwise22_M2PELU45_0_split_1
I0928 13:46:49.041977  4581 net.cpp:406] Eltwise23 <- Convolution49
I0928 13:46:49.041980  4581 net.cpp:380] Eltwise23 -> Eltwise23
I0928 13:46:49.041997  4581 net.cpp:122] Setting up Eltwise23
I0928 13:46:49.042001  4581 net.cpp:129] Top shape: 100 64 8 8 (409600)
I0928 13:46:49.042003  4581 net.cpp:137] Memory required for data: 1113703600
I0928 13:46:49.042006  4581 layer_factory.hpp:77] Creating layer M2PELU47
I0928 13:46:49.042011  4581 net.cpp:84] Creating Layer M2PELU47
I0928 13:46:49.042012  4581 net.cpp:406] M2PELU47 <- Eltwise23
I0928 13:46:49.042016  4581 net.cpp:367] M2PELU47 -> Eltwise23 (in-place)
I0928 13:46:49.042114  4581 net.cpp:122] Setting up M2PELU47
I0928 13:46:49.042119  4581 net.cpp:129] Top shape: 100 64 8 8 (409600)
I0928 13:46:49.042120  4581 net.cpp:137] Memory required for data: 1115342000
I0928 13:46:49.042124  4581 layer_factory.hpp:77] Creating layer Eltwise23_M2PELU47_0_split
I0928 13:46:49.042129  4581 net.cpp:84] Creating Layer Eltwise23_M2PELU47_0_split
I0928 13:46:49.042130  4581 net.cpp:406] Eltwise23_M2PELU47_0_split <- Eltwise23
I0928 13:46:49.042134  4581 net.cpp:380] Eltwise23_M2PELU47_0_split -> Eltwise23_M2PELU47_0_split_0
I0928 13:46:49.042138  4581 net.cpp:380] Eltwise23_M2PELU47_0_split -> Eltwise23_M2PELU47_0_split_1
I0928 13:46:49.042162  4581 net.cpp:122] Setting up Eltwise23_M2PELU47_0_split
I0928 13:46:49.042166  4581 net.cpp:129] Top shape: 100 64 8 8 (409600)
I0928 13:46:49.042170  4581 net.cpp:129] Top shape: 100 64 8 8 (409600)
I0928 13:46:49.042171  4581 net.cpp:137] Memory required for data: 1118618800
I0928 13:46:49.042173  4581 layer_factory.hpp:77] Creating layer Convolution50
I0928 13:46:49.042179  4581 net.cpp:84] Creating Layer Convolution50
I0928 13:46:49.042182  4581 net.cpp:406] Convolution50 <- Eltwise23_M2PELU47_0_split_0
I0928 13:46:49.042186  4581 net.cpp:380] Convolution50 -> Convolution50
I0928 13:46:49.044831  4581 net.cpp:122] Setting up Convolution50
I0928 13:46:49.044840  4581 net.cpp:129] Top shape: 100 64 8 8 (409600)
I0928 13:46:49.044842  4581 net.cpp:137] Memory required for data: 1120257200
I0928 13:46:49.044848  4581 layer_factory.hpp:77] Creating layer BatchNorm50
I0928 13:46:49.044853  4581 net.cpp:84] Creating Layer BatchNorm50
I0928 13:46:49.044857  4581 net.cpp:406] BatchNorm50 <- Convolution50
I0928 13:46:49.044860  4581 net.cpp:367] BatchNorm50 -> Convolution50 (in-place)
I0928 13:46:49.058279  4581 net.cpp:122] Setting up BatchNorm50
I0928 13:46:49.058288  4581 net.cpp:129] Top shape: 100 64 8 8 (409600)
I0928 13:46:49.058291  4581 net.cpp:137] Memory required for data: 1121895600
I0928 13:46:49.058297  4581 layer_factory.hpp:77] Creating layer Scale50
I0928 13:46:49.058302  4581 net.cpp:84] Creating Layer Scale50
I0928 13:46:49.058305  4581 net.cpp:406] Scale50 <- Convolution50
I0928 13:46:49.058310  4581 net.cpp:367] Scale50 -> Convolution50 (in-place)
I0928 13:46:49.058341  4581 layer_factory.hpp:77] Creating layer Scale50
I0928 13:46:49.058429  4581 net.cpp:122] Setting up Scale50
I0928 13:46:49.058434  4581 net.cpp:129] Top shape: 100 64 8 8 (409600)
I0928 13:46:49.058437  4581 net.cpp:137] Memory required for data: 1123534000
I0928 13:46:49.058441  4581 layer_factory.hpp:77] Creating layer M2PELU48
I0928 13:46:49.058447  4581 net.cpp:84] Creating Layer M2PELU48
I0928 13:46:49.058449  4581 net.cpp:406] M2PELU48 <- Convolution50
I0928 13:46:49.058454  4581 net.cpp:367] M2PELU48 -> Convolution50 (in-place)
I0928 13:46:49.058560  4581 net.cpp:122] Setting up M2PELU48
I0928 13:46:49.058565  4581 net.cpp:129] Top shape: 100 64 8 8 (409600)
I0928 13:46:49.058568  4581 net.cpp:137] Memory required for data: 1125172400
I0928 13:46:49.058573  4581 layer_factory.hpp:77] Creating layer Convolution51
I0928 13:46:49.058579  4581 net.cpp:84] Creating Layer Convolution51
I0928 13:46:49.058583  4581 net.cpp:406] Convolution51 <- Convolution50
I0928 13:46:49.058588  4581 net.cpp:380] Convolution51 -> Convolution51
I0928 13:46:49.060760  4581 net.cpp:122] Setting up Convolution51
I0928 13:46:49.060772  4581 net.cpp:129] Top shape: 100 64 8 8 (409600)
I0928 13:46:49.060776  4581 net.cpp:137] Memory required for data: 1126810800
I0928 13:46:49.060783  4581 layer_factory.hpp:77] Creating layer BatchNorm51
I0928 13:46:49.060789  4581 net.cpp:84] Creating Layer BatchNorm51
I0928 13:46:49.060793  4581 net.cpp:406] BatchNorm51 <- Convolution51
I0928 13:46:49.060801  4581 net.cpp:367] BatchNorm51 -> Convolution51 (in-place)
I0928 13:46:49.060952  4581 net.cpp:122] Setting up BatchNorm51
I0928 13:46:49.060957  4581 net.cpp:129] Top shape: 100 64 8 8 (409600)
I0928 13:46:49.060959  4581 net.cpp:137] Memory required for data: 1128449200
I0928 13:46:49.060971  4581 layer_factory.hpp:77] Creating layer Scale51
I0928 13:46:49.060976  4581 net.cpp:84] Creating Layer Scale51
I0928 13:46:49.060978  4581 net.cpp:406] Scale51 <- Convolution51
I0928 13:46:49.060982  4581 net.cpp:367] Scale51 -> Convolution51 (in-place)
I0928 13:46:49.061012  4581 layer_factory.hpp:77] Creating layer Scale51
I0928 13:46:49.061091  4581 net.cpp:122] Setting up Scale51
I0928 13:46:49.061095  4581 net.cpp:129] Top shape: 100 64 8 8 (409600)
I0928 13:46:49.061097  4581 net.cpp:137] Memory required for data: 1130087600
I0928 13:46:49.061101  4581 layer_factory.hpp:77] Creating layer Eltwise24
I0928 13:46:49.061105  4581 net.cpp:84] Creating Layer Eltwise24
I0928 13:46:49.061108  4581 net.cpp:406] Eltwise24 <- Eltwise23_M2PELU47_0_split_1
I0928 13:46:49.061111  4581 net.cpp:406] Eltwise24 <- Convolution51
I0928 13:46:49.061115  4581 net.cpp:380] Eltwise24 -> Eltwise24
I0928 13:46:49.061132  4581 net.cpp:122] Setting up Eltwise24
I0928 13:46:49.061136  4581 net.cpp:129] Top shape: 100 64 8 8 (409600)
I0928 13:46:49.061138  4581 net.cpp:137] Memory required for data: 1131726000
I0928 13:46:49.061141  4581 layer_factory.hpp:77] Creating layer M2PELU49
I0928 13:46:49.061144  4581 net.cpp:84] Creating Layer M2PELU49
I0928 13:46:49.061146  4581 net.cpp:406] M2PELU49 <- Eltwise24
I0928 13:46:49.061151  4581 net.cpp:367] M2PELU49 -> Eltwise24 (in-place)
I0928 13:46:49.061264  4581 net.cpp:122] Setting up M2PELU49
I0928 13:46:49.061267  4581 net.cpp:129] Top shape: 100 64 8 8 (409600)
I0928 13:46:49.061269  4581 net.cpp:137] Memory required for data: 1133364400
I0928 13:46:49.061273  4581 layer_factory.hpp:77] Creating layer Eltwise24_M2PELU49_0_split
I0928 13:46:49.061276  4581 net.cpp:84] Creating Layer Eltwise24_M2PELU49_0_split
I0928 13:46:49.061280  4581 net.cpp:406] Eltwise24_M2PELU49_0_split <- Eltwise24
I0928 13:46:49.061283  4581 net.cpp:380] Eltwise24_M2PELU49_0_split -> Eltwise24_M2PELU49_0_split_0
I0928 13:46:49.061288  4581 net.cpp:380] Eltwise24_M2PELU49_0_split -> Eltwise24_M2PELU49_0_split_1
I0928 13:46:49.061324  4581 net.cpp:122] Setting up Eltwise24_M2PELU49_0_split
I0928 13:46:49.061328  4581 net.cpp:129] Top shape: 100 64 8 8 (409600)
I0928 13:46:49.061331  4581 net.cpp:129] Top shape: 100 64 8 8 (409600)
I0928 13:46:49.061333  4581 net.cpp:137] Memory required for data: 1136641200
I0928 13:46:49.061336  4581 layer_factory.hpp:77] Creating layer Convolution52
I0928 13:46:49.061342  4581 net.cpp:84] Creating Layer Convolution52
I0928 13:46:49.061344  4581 net.cpp:406] Convolution52 <- Eltwise24_M2PELU49_0_split_0
I0928 13:46:49.061348  4581 net.cpp:380] Convolution52 -> Convolution52
I0928 13:46:49.063477  4581 net.cpp:122] Setting up Convolution52
I0928 13:46:49.063488  4581 net.cpp:129] Top shape: 100 64 8 8 (409600)
I0928 13:46:49.063489  4581 net.cpp:137] Memory required for data: 1138279600
I0928 13:46:49.063494  4581 layer_factory.hpp:77] Creating layer BatchNorm52
I0928 13:46:49.063499  4581 net.cpp:84] Creating Layer BatchNorm52
I0928 13:46:49.063503  4581 net.cpp:406] BatchNorm52 <- Convolution52
I0928 13:46:49.063506  4581 net.cpp:367] BatchNorm52 -> Convolution52 (in-place)
I0928 13:46:49.063657  4581 net.cpp:122] Setting up BatchNorm52
I0928 13:46:49.063660  4581 net.cpp:129] Top shape: 100 64 8 8 (409600)
I0928 13:46:49.063663  4581 net.cpp:137] Memory required for data: 1139918000
I0928 13:46:49.063668  4581 layer_factory.hpp:77] Creating layer Scale52
I0928 13:46:49.063671  4581 net.cpp:84] Creating Layer Scale52
I0928 13:46:49.063674  4581 net.cpp:406] Scale52 <- Convolution52
I0928 13:46:49.063678  4581 net.cpp:367] Scale52 -> Convolution52 (in-place)
I0928 13:46:49.063709  4581 layer_factory.hpp:77] Creating layer Scale52
I0928 13:46:49.063792  4581 net.cpp:122] Setting up Scale52
I0928 13:46:49.063796  4581 net.cpp:129] Top shape: 100 64 8 8 (409600)
I0928 13:46:49.063798  4581 net.cpp:137] Memory required for data: 1141556400
I0928 13:46:49.063802  4581 layer_factory.hpp:77] Creating layer M2PELU50
I0928 13:46:49.063823  4581 net.cpp:84] Creating Layer M2PELU50
I0928 13:46:49.063833  4581 net.cpp:406] M2PELU50 <- Convolution52
I0928 13:46:49.063838  4581 net.cpp:367] M2PELU50 -> Convolution52 (in-place)
I0928 13:46:49.063937  4581 net.cpp:122] Setting up M2PELU50
I0928 13:46:49.063942  4581 net.cpp:129] Top shape: 100 64 8 8 (409600)
I0928 13:46:49.063944  4581 net.cpp:137] Memory required for data: 1143194800
I0928 13:46:49.063948  4581 layer_factory.hpp:77] Creating layer Convolution53
I0928 13:46:49.063954  4581 net.cpp:84] Creating Layer Convolution53
I0928 13:46:49.063957  4581 net.cpp:406] Convolution53 <- Convolution52
I0928 13:46:49.063961  4581 net.cpp:380] Convolution53 -> Convolution53
I0928 13:46:49.065681  4581 net.cpp:122] Setting up Convolution53
I0928 13:46:49.065690  4581 net.cpp:129] Top shape: 100 64 8 8 (409600)
I0928 13:46:49.065692  4581 net.cpp:137] Memory required for data: 1144833200
I0928 13:46:49.065696  4581 layer_factory.hpp:77] Creating layer BatchNorm53
I0928 13:46:49.065701  4581 net.cpp:84] Creating Layer BatchNorm53
I0928 13:46:49.065704  4581 net.cpp:406] BatchNorm53 <- Convolution53
I0928 13:46:49.065708  4581 net.cpp:367] BatchNorm53 -> Convolution53 (in-place)
I0928 13:46:49.065848  4581 net.cpp:122] Setting up BatchNorm53
I0928 13:46:49.065852  4581 net.cpp:129] Top shape: 100 64 8 8 (409600)
I0928 13:46:49.065855  4581 net.cpp:137] Memory required for data: 1146471600
I0928 13:46:49.065860  4581 layer_factory.hpp:77] Creating layer Scale53
I0928 13:46:49.065863  4581 net.cpp:84] Creating Layer Scale53
I0928 13:46:49.065865  4581 net.cpp:406] Scale53 <- Convolution53
I0928 13:46:49.065870  4581 net.cpp:367] Scale53 -> Convolution53 (in-place)
I0928 13:46:49.065896  4581 layer_factory.hpp:77] Creating layer Scale53
I0928 13:46:49.065975  4581 net.cpp:122] Setting up Scale53
I0928 13:46:49.065979  4581 net.cpp:129] Top shape: 100 64 8 8 (409600)
I0928 13:46:49.065981  4581 net.cpp:137] Memory required for data: 1148110000
I0928 13:46:49.065985  4581 layer_factory.hpp:77] Creating layer Eltwise25
I0928 13:46:49.065989  4581 net.cpp:84] Creating Layer Eltwise25
I0928 13:46:49.065991  4581 net.cpp:406] Eltwise25 <- Eltwise24_M2PELU49_0_split_1
I0928 13:46:49.065994  4581 net.cpp:406] Eltwise25 <- Convolution53
I0928 13:46:49.065999  4581 net.cpp:380] Eltwise25 -> Eltwise25
I0928 13:46:49.066016  4581 net.cpp:122] Setting up Eltwise25
I0928 13:46:49.066020  4581 net.cpp:129] Top shape: 100 64 8 8 (409600)
I0928 13:46:49.066021  4581 net.cpp:137] Memory required for data: 1149748400
I0928 13:46:49.066023  4581 layer_factory.hpp:77] Creating layer M2PELU51
I0928 13:46:49.066028  4581 net.cpp:84] Creating Layer M2PELU51
I0928 13:46:49.066030  4581 net.cpp:406] M2PELU51 <- Eltwise25
I0928 13:46:49.066035  4581 net.cpp:367] M2PELU51 -> Eltwise25 (in-place)
I0928 13:46:49.066125  4581 net.cpp:122] Setting up M2PELU51
I0928 13:46:49.066129  4581 net.cpp:129] Top shape: 100 64 8 8 (409600)
I0928 13:46:49.066133  4581 net.cpp:137] Memory required for data: 1151386800
I0928 13:46:49.066135  4581 layer_factory.hpp:77] Creating layer Eltwise25_M2PELU51_0_split
I0928 13:46:49.066139  4581 net.cpp:84] Creating Layer Eltwise25_M2PELU51_0_split
I0928 13:46:49.066141  4581 net.cpp:406] Eltwise25_M2PELU51_0_split <- Eltwise25
I0928 13:46:49.066145  4581 net.cpp:380] Eltwise25_M2PELU51_0_split -> Eltwise25_M2PELU51_0_split_0
I0928 13:46:49.066149  4581 net.cpp:380] Eltwise25_M2PELU51_0_split -> Eltwise25_M2PELU51_0_split_1
I0928 13:46:49.066174  4581 net.cpp:122] Setting up Eltwise25_M2PELU51_0_split
I0928 13:46:49.066179  4581 net.cpp:129] Top shape: 100 64 8 8 (409600)
I0928 13:46:49.066182  4581 net.cpp:129] Top shape: 100 64 8 8 (409600)
I0928 13:46:49.066184  4581 net.cpp:137] Memory required for data: 1154663600
I0928 13:46:49.066186  4581 layer_factory.hpp:77] Creating layer Convolution54
I0928 13:46:49.066192  4581 net.cpp:84] Creating Layer Convolution54
I0928 13:46:49.066195  4581 net.cpp:406] Convolution54 <- Eltwise25_M2PELU51_0_split_0
I0928 13:46:49.066198  4581 net.cpp:380] Convolution54 -> Convolution54
I0928 13:46:49.068228  4581 net.cpp:122] Setting up Convolution54
I0928 13:46:49.068243  4581 net.cpp:129] Top shape: 100 64 8 8 (409600)
I0928 13:46:49.068246  4581 net.cpp:137] Memory required for data: 1156302000
I0928 13:46:49.068251  4581 layer_factory.hpp:77] Creating layer BatchNorm54
I0928 13:46:49.068256  4581 net.cpp:84] Creating Layer BatchNorm54
I0928 13:46:49.068259  4581 net.cpp:406] BatchNorm54 <- Convolution54
I0928 13:46:49.068264  4581 net.cpp:367] BatchNorm54 -> Convolution54 (in-place)
I0928 13:46:49.068413  4581 net.cpp:122] Setting up BatchNorm54
I0928 13:46:49.068418  4581 net.cpp:129] Top shape: 100 64 8 8 (409600)
I0928 13:46:49.068419  4581 net.cpp:137] Memory required for data: 1157940400
I0928 13:46:49.068424  4581 layer_factory.hpp:77] Creating layer Scale54
I0928 13:46:49.068428  4581 net.cpp:84] Creating Layer Scale54
I0928 13:46:49.068431  4581 net.cpp:406] Scale54 <- Convolution54
I0928 13:46:49.068434  4581 net.cpp:367] Scale54 -> Convolution54 (in-place)
I0928 13:46:49.068471  4581 layer_factory.hpp:77] Creating layer Scale54
I0928 13:46:49.068552  4581 net.cpp:122] Setting up Scale54
I0928 13:46:49.068557  4581 net.cpp:129] Top shape: 100 64 8 8 (409600)
I0928 13:46:49.068558  4581 net.cpp:137] Memory required for data: 1159578800
I0928 13:46:49.068562  4581 layer_factory.hpp:77] Creating layer M2PELU52
I0928 13:46:49.068567  4581 net.cpp:84] Creating Layer M2PELU52
I0928 13:46:49.068569  4581 net.cpp:406] M2PELU52 <- Convolution54
I0928 13:46:49.068573  4581 net.cpp:367] M2PELU52 -> Convolution54 (in-place)
I0928 13:46:49.068665  4581 net.cpp:122] Setting up M2PELU52
I0928 13:46:49.068670  4581 net.cpp:129] Top shape: 100 64 8 8 (409600)
I0928 13:46:49.068672  4581 net.cpp:137] Memory required for data: 1161217200
I0928 13:46:49.068676  4581 layer_factory.hpp:77] Creating layer Convolution55
I0928 13:46:49.068682  4581 net.cpp:84] Creating Layer Convolution55
I0928 13:46:49.068686  4581 net.cpp:406] Convolution55 <- Convolution54
I0928 13:46:49.068689  4581 net.cpp:380] Convolution55 -> Convolution55
I0928 13:46:49.070394  4581 net.cpp:122] Setting up Convolution55
I0928 13:46:49.070402  4581 net.cpp:129] Top shape: 100 64 8 8 (409600)
I0928 13:46:49.070405  4581 net.cpp:137] Memory required for data: 1162855600
I0928 13:46:49.070410  4581 layer_factory.hpp:77] Creating layer BatchNorm55
I0928 13:46:49.070415  4581 net.cpp:84] Creating Layer BatchNorm55
I0928 13:46:49.070417  4581 net.cpp:406] BatchNorm55 <- Convolution55
I0928 13:46:49.070420  4581 net.cpp:367] BatchNorm55 -> Convolution55 (in-place)
I0928 13:46:49.070567  4581 net.cpp:122] Setting up BatchNorm55
I0928 13:46:49.070572  4581 net.cpp:129] Top shape: 100 64 8 8 (409600)
I0928 13:46:49.070575  4581 net.cpp:137] Memory required for data: 1164494000
I0928 13:46:49.070580  4581 layer_factory.hpp:77] Creating layer Scale55
I0928 13:46:49.070583  4581 net.cpp:84] Creating Layer Scale55
I0928 13:46:49.070586  4581 net.cpp:406] Scale55 <- Convolution55
I0928 13:46:49.070590  4581 net.cpp:367] Scale55 -> Convolution55 (in-place)
I0928 13:46:49.070618  4581 layer_factory.hpp:77] Creating layer Scale55
I0928 13:46:49.070700  4581 net.cpp:122] Setting up Scale55
I0928 13:46:49.070706  4581 net.cpp:129] Top shape: 100 64 8 8 (409600)
I0928 13:46:49.070708  4581 net.cpp:137] Memory required for data: 1166132400
I0928 13:46:49.070711  4581 layer_factory.hpp:77] Creating layer Eltwise26
I0928 13:46:49.070715  4581 net.cpp:84] Creating Layer Eltwise26
I0928 13:46:49.070719  4581 net.cpp:406] Eltwise26 <- Eltwise25_M2PELU51_0_split_1
I0928 13:46:49.070721  4581 net.cpp:406] Eltwise26 <- Convolution55
I0928 13:46:49.070724  4581 net.cpp:380] Eltwise26 -> Eltwise26
I0928 13:46:49.070741  4581 net.cpp:122] Setting up Eltwise26
I0928 13:46:49.070745  4581 net.cpp:129] Top shape: 100 64 8 8 (409600)
I0928 13:46:49.070747  4581 net.cpp:137] Memory required for data: 1167770800
I0928 13:46:49.070749  4581 layer_factory.hpp:77] Creating layer M2PELU53
I0928 13:46:49.070755  4581 net.cpp:84] Creating Layer M2PELU53
I0928 13:46:49.070756  4581 net.cpp:406] M2PELU53 <- Eltwise26
I0928 13:46:49.070766  4581 net.cpp:367] M2PELU53 -> Eltwise26 (in-place)
I0928 13:46:49.070863  4581 net.cpp:122] Setting up M2PELU53
I0928 13:46:49.070866  4581 net.cpp:129] Top shape: 100 64 8 8 (409600)
I0928 13:46:49.070868  4581 net.cpp:137] Memory required for data: 1169409200
I0928 13:46:49.070873  4581 layer_factory.hpp:77] Creating layer Eltwise26_M2PELU53_0_split
I0928 13:46:49.070876  4581 net.cpp:84] Creating Layer Eltwise26_M2PELU53_0_split
I0928 13:46:49.070878  4581 net.cpp:406] Eltwise26_M2PELU53_0_split <- Eltwise26
I0928 13:46:49.070881  4581 net.cpp:380] Eltwise26_M2PELU53_0_split -> Eltwise26_M2PELU53_0_split_0
I0928 13:46:49.070885  4581 net.cpp:380] Eltwise26_M2PELU53_0_split -> Eltwise26_M2PELU53_0_split_1
I0928 13:46:49.070911  4581 net.cpp:122] Setting up Eltwise26_M2PELU53_0_split
I0928 13:46:49.070914  4581 net.cpp:129] Top shape: 100 64 8 8 (409600)
I0928 13:46:49.070917  4581 net.cpp:129] Top shape: 100 64 8 8 (409600)
I0928 13:46:49.070919  4581 net.cpp:137] Memory required for data: 1172686000
I0928 13:46:49.070921  4581 layer_factory.hpp:77] Creating layer Convolution56
I0928 13:46:49.070927  4581 net.cpp:84] Creating Layer Convolution56
I0928 13:46:49.070930  4581 net.cpp:406] Convolution56 <- Eltwise26_M2PELU53_0_split_0
I0928 13:46:49.070933  4581 net.cpp:380] Convolution56 -> Convolution56
I0928 13:46:49.072614  4581 net.cpp:122] Setting up Convolution56
I0928 13:46:49.072623  4581 net.cpp:129] Top shape: 100 64 8 8 (409600)
I0928 13:46:49.072625  4581 net.cpp:137] Memory required for data: 1174324400
I0928 13:46:49.072629  4581 layer_factory.hpp:77] Creating layer BatchNorm56
I0928 13:46:49.091548  4581 net.cpp:84] Creating Layer BatchNorm56
I0928 13:46:49.091558  4581 net.cpp:406] BatchNorm56 <- Convolution56
I0928 13:46:49.091567  4581 net.cpp:367] BatchNorm56 -> Convolution56 (in-place)
I0928 13:46:49.091776  4581 net.cpp:122] Setting up BatchNorm56
I0928 13:46:49.091784  4581 net.cpp:129] Top shape: 100 64 8 8 (409600)
I0928 13:46:49.091786  4581 net.cpp:137] Memory required for data: 1175962800
I0928 13:46:49.091792  4581 layer_factory.hpp:77] Creating layer Scale56
I0928 13:46:49.091797  4581 net.cpp:84] Creating Layer Scale56
I0928 13:46:49.091800  4581 net.cpp:406] Scale56 <- Convolution56
I0928 13:46:49.091804  4581 net.cpp:367] Scale56 -> Convolution56 (in-place)
I0928 13:46:49.091837  4581 layer_factory.hpp:77] Creating layer Scale56
I0928 13:46:49.091928  4581 net.cpp:122] Setting up Scale56
I0928 13:46:49.091933  4581 net.cpp:129] Top shape: 100 64 8 8 (409600)
I0928 13:46:49.091936  4581 net.cpp:137] Memory required for data: 1177601200
I0928 13:46:49.091940  4581 layer_factory.hpp:77] Creating layer M2PELU54
I0928 13:46:49.091945  4581 net.cpp:84] Creating Layer M2PELU54
I0928 13:46:49.091948  4581 net.cpp:406] M2PELU54 <- Convolution56
I0928 13:46:49.091953  4581 net.cpp:367] M2PELU54 -> Convolution56 (in-place)
I0928 13:46:49.092056  4581 net.cpp:122] Setting up M2PELU54
I0928 13:46:49.092061  4581 net.cpp:129] Top shape: 100 64 8 8 (409600)
I0928 13:46:49.092063  4581 net.cpp:137] Memory required for data: 1179239600
I0928 13:46:49.092067  4581 layer_factory.hpp:77] Creating layer Convolution57
I0928 13:46:49.092074  4581 net.cpp:84] Creating Layer Convolution57
I0928 13:46:49.092077  4581 net.cpp:406] Convolution57 <- Convolution56
I0928 13:46:49.092082  4581 net.cpp:380] Convolution57 -> Convolution57
I0928 13:46:49.093945  4581 net.cpp:122] Setting up Convolution57
I0928 13:46:49.093953  4581 net.cpp:129] Top shape: 100 64 8 8 (409600)
I0928 13:46:49.093955  4581 net.cpp:137] Memory required for data: 1180878000
I0928 13:46:49.093961  4581 layer_factory.hpp:77] Creating layer BatchNorm57
I0928 13:46:49.093966  4581 net.cpp:84] Creating Layer BatchNorm57
I0928 13:46:49.093968  4581 net.cpp:406] BatchNorm57 <- Convolution57
I0928 13:46:49.093973  4581 net.cpp:367] BatchNorm57 -> Convolution57 (in-place)
I0928 13:46:49.094116  4581 net.cpp:122] Setting up BatchNorm57
I0928 13:46:49.094121  4581 net.cpp:129] Top shape: 100 64 8 8 (409600)
I0928 13:46:49.094130  4581 net.cpp:137] Memory required for data: 1182516400
I0928 13:46:49.094135  4581 layer_factory.hpp:77] Creating layer Scale57
I0928 13:46:49.094139  4581 net.cpp:84] Creating Layer Scale57
I0928 13:46:49.094142  4581 net.cpp:406] Scale57 <- Convolution57
I0928 13:46:49.094146  4581 net.cpp:367] Scale57 -> Convolution57 (in-place)
I0928 13:46:49.094174  4581 layer_factory.hpp:77] Creating layer Scale57
I0928 13:46:49.094255  4581 net.cpp:122] Setting up Scale57
I0928 13:46:49.094259  4581 net.cpp:129] Top shape: 100 64 8 8 (409600)
I0928 13:46:49.094261  4581 net.cpp:137] Memory required for data: 1184154800
I0928 13:46:49.094265  4581 layer_factory.hpp:77] Creating layer Eltwise27
I0928 13:46:49.094269  4581 net.cpp:84] Creating Layer Eltwise27
I0928 13:46:49.094272  4581 net.cpp:406] Eltwise27 <- Eltwise26_M2PELU53_0_split_1
I0928 13:46:49.094275  4581 net.cpp:406] Eltwise27 <- Convolution57
I0928 13:46:49.094279  4581 net.cpp:380] Eltwise27 -> Eltwise27
I0928 13:46:49.094295  4581 net.cpp:122] Setting up Eltwise27
I0928 13:46:49.094300  4581 net.cpp:129] Top shape: 100 64 8 8 (409600)
I0928 13:46:49.094301  4581 net.cpp:137] Memory required for data: 1185793200
I0928 13:46:49.094303  4581 layer_factory.hpp:77] Creating layer M2PELU55
I0928 13:46:49.094308  4581 net.cpp:84] Creating Layer M2PELU55
I0928 13:46:49.094311  4581 net.cpp:406] M2PELU55 <- Eltwise27
I0928 13:46:49.094314  4581 net.cpp:367] M2PELU55 -> Eltwise27 (in-place)
I0928 13:46:49.094408  4581 net.cpp:122] Setting up M2PELU55
I0928 13:46:49.094413  4581 net.cpp:129] Top shape: 100 64 8 8 (409600)
I0928 13:46:49.094415  4581 net.cpp:137] Memory required for data: 1187431600
I0928 13:46:49.094419  4581 layer_factory.hpp:77] Creating layer Pooling1
I0928 13:46:49.094424  4581 net.cpp:84] Creating Layer Pooling1
I0928 13:46:49.094425  4581 net.cpp:406] Pooling1 <- Eltwise27
I0928 13:46:49.094429  4581 net.cpp:380] Pooling1 -> Pooling1
I0928 13:46:49.094938  4581 net.cpp:122] Setting up Pooling1
I0928 13:46:49.094946  4581 net.cpp:129] Top shape: 100 64 1 1 (6400)
I0928 13:46:49.094949  4581 net.cpp:137] Memory required for data: 1187457200
I0928 13:46:49.094951  4581 layer_factory.hpp:77] Creating layer InnerProduct1
I0928 13:46:49.094957  4581 net.cpp:84] Creating Layer InnerProduct1
I0928 13:46:49.094960  4581 net.cpp:406] InnerProduct1 <- Pooling1
I0928 13:46:49.094964  4581 net.cpp:380] InnerProduct1 -> InnerProduct1
I0928 13:46:49.095073  4581 net.cpp:122] Setting up InnerProduct1
I0928 13:46:49.095077  4581 net.cpp:129] Top shape: 100 10 (1000)
I0928 13:46:49.095079  4581 net.cpp:137] Memory required for data: 1187461200
I0928 13:46:49.095083  4581 layer_factory.hpp:77] Creating layer InnerProduct1_InnerProduct1_0_split
I0928 13:46:49.095088  4581 net.cpp:84] Creating Layer InnerProduct1_InnerProduct1_0_split
I0928 13:46:49.095090  4581 net.cpp:406] InnerProduct1_InnerProduct1_0_split <- InnerProduct1
I0928 13:46:49.095094  4581 net.cpp:380] InnerProduct1_InnerProduct1_0_split -> InnerProduct1_InnerProduct1_0_split_0
I0928 13:46:49.095098  4581 net.cpp:380] InnerProduct1_InnerProduct1_0_split -> InnerProduct1_InnerProduct1_0_split_1
I0928 13:46:49.095124  4581 net.cpp:122] Setting up InnerProduct1_InnerProduct1_0_split
I0928 13:46:49.095129  4581 net.cpp:129] Top shape: 100 10 (1000)
I0928 13:46:49.095131  4581 net.cpp:129] Top shape: 100 10 (1000)
I0928 13:46:49.095134  4581 net.cpp:137] Memory required for data: 1187469200
I0928 13:46:49.095135  4581 layer_factory.hpp:77] Creating layer SoftmaxWithLoss1
I0928 13:46:49.095139  4581 net.cpp:84] Creating Layer SoftmaxWithLoss1
I0928 13:46:49.095141  4581 net.cpp:406] SoftmaxWithLoss1 <- InnerProduct1_InnerProduct1_0_split_0
I0928 13:46:49.095144  4581 net.cpp:406] SoftmaxWithLoss1 <- Data2_Data1_1_split_0
…
