…
I0928 19:39:41.673334  5057 net.cpp:294] The NetState phase (0) differed from the phase (1) specified by a rule in layer Accuracy1
I0928 19:39:41.674329  5057 net.cpp:51] Initializing net from parameters: 
name: "resnet_cifar10"
state {
  phase: TRAIN
  level: 0
  stage: ""
}
layer {
  name: "Data1"
  type: "Data"
  top: "Data1"
  top: "Data2"
  include {
    phase: TRAIN
  }
  transform_param {
    mirror: true
    crop_size: 28
    mean_file: "/home/x306/caffe/xn/PENLU/data/cifar10/mean.binaryproto"
  }
  data_param {
    source: "/home/x306/caffe/xn/PENLU/data/cifar10/cifar10_train_lmdb"
    batch_size: 100
    backend: LMDB
  }
}
layer {
  name: "Convolution1"
  type: "Convolution"
  bottom: "Data1"
  top: "Convolution1"
  param {
    lr_mult: 1
    decay_mult: 1
  }
  param {
    lr_mult: 2
    decay_mult: 0
  }
  convolution_param {
    num_output: 16
    pad: 1
    kernel_size: 3
    stride: 1
    weight_filler {
      type: "gaussian"
      std: 0.118
    }
    bias_filler {
      type: "constant"
      value: 0
    }
  }
}
layer {
  name: "M2PELU1"
  type: "M2PELU"
  bottom: "Convolution1"
  top: "Convolution1"
  param {
    lr_mult: 2
    decay_mult: 0
  }
  param {
    lr_mult: 2
    decay_mult: 0
  }
  m2pelu_param {
    alpha_filler {
      type: "constant"
      value: 0.25
    }
    beta_filler {
      type: "constant"
      value: 1
    }
  }
}
layer {
  name: "Convolution2"
  type: "Convolution"
  bottom: "Convolution1"
  top: "Convolution2"
  param {
    lr_mult: 1
    decay_mult: 1
  }
  param {
    lr_mult: 2
    decay_mult: 0
  }
  convolution_param {
    num_output: 16
    pad: 1
    kernel_size: 3
    stride: 1
    weight_filler {
      type: "gaussian"
      std: 0.118
    }
    bias_filler {
      type: "constant"
      value: 0
    }
  }
}
layer {
  name: "M2PELU2"
  type: "M2PELU"
  bottom: "Convolution2"
  top: "Convolution2"
  param {
    lr_mult: 2
    decay_mult: 0
  }
  param {
    lr_mult: 2
    decay_mult: 0
  }
  m2pelu_param {
    alpha_filler {
      type: "constant"
      value: 0.25
    }
    beta_filler {
      type: "constant"
      value: 1
    }
  }
}
layer {
  name: "Convolution3"
  type: "Convolution"
  bottom: "Convolution2"
  top: "Convolution3"
  param {
    lr_mult: 1
    decay_mult: 1
  }
  param {
    lr_mult: 2
    decay_mult: 0
  }
  convolution_param {
    num_output: 16
    pad: 1
    kernel_size: 3
    stride: 1
    weight_filler {
      type: "gaussian"
      std: 0.118
    }
    bias_filler {
      type: "constant"
      value: 0
    }
  }
}
layer {
  name: "Eltwise1"
  type: "Eltwise"
  bottom: "Convolution1"
  bottom: "Convolution3"
  top: "Eltwise1"
  eltwise_param {
    operation: SUM
  }
}
layer {
  name: "M2PELU3"
  type: "M2PELU"
  bottom: "Eltwise1"
  top: "Eltwise1"
  param {
    lr_mult: 2
    decay_mult: 0
  }
  param {
    lr_mult: 2
    decay_mult: 0
  }
  m2pelu_param {
    alpha_filler {
      type: "constant"
      value: 0.25
    }
    beta_filler {
      type: "constant"
      value: 1
    }
  }
}
layer {
  name: "Convolution4"
  type: "Convolution"
  bottom: "Eltwise1"
  top: "Convolution4"
  param {
    lr_mult: 1
    decay_mult: 1
  }
  param {
    lr_mult: 2
    decay_mult: 0
  }
  convolution_param {
    num_output: 16
    pad: 1
    kernel_size: 3
    stride: 1
    weight_filler {
      type: "gaussian"
      std: 0.118
    }
    bias_filler {
      type: "constant"
      value: 0
    }
  }
}
layer {
  name: "M2PELU4"
  type: "M2PELU"
  bottom: "Convolution4"
  top: "Convolution4"
  param {
    lr_mult: 2
    decay_mult: 0
  }
  param {
    lr_mult: 2
    decay_mult: 0
  }
  m2pelu_param {
    alpha_filler {
      type: "constant"
      value: 0.25
    }
    beta_filler {
      type: "constant"
      value: 1
    }
  }
}
layer {
  name: "Convolution5"
  type: "Convolution"
  bottom: "Convolution4"
  top: "Convolution5"
  param {
    lr_mult: 1
    decay_mult: 1
  }
  param {
    lr_mult: 2
    decay_mult: 0
  }
  convolution_param {
    num_output: 16
    pad: 1
    kernel_size: 3
    stride: 1
    weight_filler {
      type: "gaussian"
      std: 0.118
    }
    bias_filler {
      type: "constant"
      value: 0
    }
  }
}
layer {
  name: "Eltwise2"
  type: "Eltwise"
  bottom: "Eltwise1"
  bottom: "Convolution5"
  top: "Eltwise2"
  eltwise_param {
    operation: SUM
  }
}
layer {
  name: "M2PELU5"
  type: "M2PELU"
  bottom: "Eltwise2"
  top: "Eltwise2"
  param {
    lr_mult: 2
    decay_mult: 0
  }
  param {
    lr_mult: 2
    decay_mult: 0
  }
  m2pelu_param {
    alpha_filler {
      type: "constant"
      value: 0.25
    }
    beta_filler {
      type: "constant"
      value: 1
    }
  }
}
layer {
  name: "Convolution6"
  type: "Convolution"
  bottom: "Eltwise2"
  top: "Convolution6"
  param {
    lr_mult: 1
    decay_mult: 1
  }
  param {
    lr_mult: 2
    decay_mult: 0
  }
  convolution_param {
    num_output: 16
    pad: 1
    kernel_size: 3
    stride: 1
    weight_filler {
      type: "gaussian"
      std: 0.118
    }
    bias_filler {
      type: "constant"
      value: 0
    }
  }
}
layer {
  name: "M2PELU6"
  type: "M2PELU"
  bottom: "Convolution6"
  top: "Convolution6"
  param {
    lr_mult: 2
    decay_mult: 0
  }
  param {
    lr_mult: 2
    decay_mult: 0
  }
  m2pelu_param {
    alpha_filler {
      type: "constant"
      value: 0.25
    }
    beta_filler {
      type: "constant"
      value: 1
    }
  }
}
layer {
  name: "Convolution7"
  type: "Convolution"
  bottom: "Convolution6"
  top: "Convolution7"
  param {
    lr_mult: 1
    decay_mult: 1
  }
  param {
    lr_mult: 2
    decay_mult: 0
  }
  convolution_param {
    num_output: 16
    pad: 1
    kernel_size: 3
    stride: 1
    weight_filler {
      type: "gaussian"
      std: 0.118
    }
    bias_filler {
      type: "constant"
      value: 0
    }
  }
}
layer {
  name: "Eltwise3"
  type: "Eltwise"
  bottom: "Eltwise2"
  bottom: "Convolution7"
  top: "Eltwise3"
  eltwise_param {
    operation: SUM
  }
}
layer {
  name: "M2PELU7"
  type: "M2PELU"
  bottom: "Eltwise3"
  top: "Eltwise3"
  param {
    lr_mult: 2
    decay_mult: 0
  }
  param {
    lr_mult: 2
    decay_mult: 0
  }
  m2pelu_param {
    alpha_filler {
      type: "constant"
      value: 0.25
    }
    beta_filler {
      type: "constant"
      value: 1
    }
  }
}
layer {
  name: "Convolution8"
  type: "Convolution"
  bottom: "Eltwise3"
  top: "Convolution8"
  param {
    lr_mult: 1
    decay_mult: 1
  }
  param {
    lr_mult: 2
    decay_mult: 0
  }
  convolution_param {
    num_output: 16
    pad: 1
    kernel_size: 3
    stride: 1
    weight_filler {
      type: "gaussian"
      std: 0.118
    }
    bias_filler {
      type: "constant"
      value: 0
    }
  }
}
layer {
  name: "M2PELU8"
  type: "M2PELU"
  bottom: "Convolution8"
  top: "Convolution8"
  param {
    lr_mult: 2
    decay_mult: 0
  }
  param {
    lr_mult: 2
    decay_mult: 0
  }
  m2pelu_param {
    alpha_filler {
      type: "constant"
      value: 0.25
    }
    beta_filler {
      type: "constant"
      value: 1
    }
  }
}
layer {
  name: "Convolution9"
  type: "Convolution"
  bottom: "Convolution8"
  top: "Convolution9"
  param {
    lr_mult: 1
    decay_mult: 1
  }
  param {
    lr_mult: 2
    decay_mult: 0
  }
  convolution_param {
    num_output: 16
    pad: 1
    kernel_size: 3
    stride: 1
    weight_filler {
      type: "gaussian"
      std: 0.118
    }
    bias_filler {
      type: "constant"
      value: 0
    }
  }
}
layer {
  name: "Eltwise4"
  type: "Eltwise"
  bottom: "Eltwise3"
  bottom: "Convolution9"
  top: "Eltwise4"
  eltwise_param {
    operation: SUM
  }
}
layer {
  name: "M2PELU9"
  type: "M2PELU"
  bottom: "Eltwise4"
  top: "Eltwise4"
  param {
    lr_mult: 2
    decay_mult: 0
  }
  param {
    lr_mult: 2
    decay_mult: 0
  }
  m2pelu_param {
    alpha_filler {
      type: "constant"
      value: 0.25
    }
    beta_filler {
      type: "constant"
      value: 1
    }
  }
}
layer {
  name: "Convolution10"
  type: "Convolution"
  bottom: "Eltwise4"
  top: "Convolution10"
  param {
    lr_mult: 1
    decay_mult: 1
  }
  param {
    lr_mult: 2
    decay_mult: 0
  }
  convolution_param {
    num_output: 16
    pad: 1
    kernel_size: 3
    stride: 1
    weight_filler {
      type: "gaussian"
      std: 0.118
    }
    bias_filler {
      type: "constant"
      value: 0
    }
  }
}
layer {
  name: "M2PELU10"
  type: "M2PELU"
  bottom: "Convolution10"
  top: "Convolution10"
  param {
    lr_mult: 2
    decay_mult: 0
  }
  param {
    lr_mult: 2
    decay_mult: 0
  }
  m2pelu_param {
    alpha_filler {
      type: "constant"
      value: 0.25
    }
    beta_filler {
      type: "constant"
      value: 1
    }
  }
}
layer {
  name: "Convolution11"
  type: "Convolution"
  bottom: "Convolution10"
  top: "Convolution11"
  param {
    lr_mult: 1
    decay_mult: 1
  }
  param {
    lr_mult: 2
    decay_mult: 0
  }
  convolution_param {
    num_output: 16
    pad: 1
    kernel_size: 3
    stride: 1
    weight_filler {
      type: "gaussian"
      std: 0.118
    }
    bias_filler {
      type: "constant"
      value: 0
    }
  }
}
layer {
  name: "Eltwise5"
  type: "Eltwise"
  bottom: "Eltwise4"
  bottom: "Convolution11"
  top: "Eltwise5"
  eltwise_param {
    operation: SUM
  }
}
layer {
  name: "M2PELU11"
  type: "M2PELU"
  bottom: "Eltwise5"
  top: "Eltwise5"
  param {
    lr_mult: 2
    decay_mult: 0
  }
  param {
    lr_mult: 2
    decay_mult: 0
  }
  m2pelu_param {
    alpha_filler {
      type: "constant"
      value: 0.25
    }
    beta_filler {
      type: "constant"
      value: 1
    }
  }
}
layer {
  name: "Convolution12"
  type: "Convolution"
  bottom: "Eltwise5"
  top: "Convolution12"
  param {
    lr_mult: 1
    decay_mult: 1
  }
  param {
    lr_mult: 2
    decay_mult: 0
  }
  convolution_param {
    num_output: 16
    pad: 1
    kernel_size: 3
    stride: 1
    weight_filler {
      type: "gaussian"
      std: 0.118
    }
    bias_filler {
      type: "constant"
      value: 0
    }
  }
}
layer {
  name: "M2PELU12"
  type: "M2PELU"
  bottom: "Convolution12"
  top: "Convolution12"
  param {
    lr_mult: 2
    decay_mult: 0
  }
  param {
    lr_mult: 2
    decay_mult: 0
  }
  m2pelu_param {
    alpha_filler {
      type: "constant"
      value: 0.25
    }
    beta_filler {
      type: "constant"
      value: 1
    }
  }
}
layer {
  name: "Convolution13"
  type: "Convolution"
  bottom: "Convolution12"
  top: "Convolution13"
  param {
    lr_mult: 1
    decay_mult: 1
  }
  param {
    lr_mult: 2
    decay_mult: 0
  }
  convolution_param {
    num_output: 16
    pad: 1
    kernel_size: 3
    stride: 1
    weight_filler {
      type: "gaussian"
      std: 0.118
    }
    bias_filler {
      type: "constant"
      value: 0
    }
  }
}
layer {
  name: "BatchNorm13"
  type: "BatchNorm"
  bottom: "Convolution13"
  top: "Convolution13"
  param {
    lr_mult: 0
    decay_mult: 0
  }
  param {
    lr_mult: 0
    decay_mult: 0
  }
  param {
    lr_mult: 0
    decay_mult: 0
  }
}
layer {
  name: "Scale13"
  type: "Scale"
  bottom: "Convolution13"
  top: "Convolution13"
  scale_param {
    bias_term: true
  }
}
layer {
  name: "Eltwise6"
  type: "Eltwise"
  bottom: "Eltwise5"
  bottom: "Convolution13"
  top: "Eltwise6"
  eltwise_param {
    operation: SUM
  }
}
layer {
  name: "M2PELU13"
  type: "M2PELU"
  bottom: "Eltwise6"
  top: "Eltwise6"
  param {
    lr_mult: 2
    decay_mult: 0
  }
  param {
    lr_mult: 2
    decay_mult: 0
  }
  m2pelu_param {
    alpha_filler {
      type: "constant"
      value: 0.25
    }
    beta_filler {
      type: "constant"
      value: 1
    }
  }
}
layer {
  name: "Convolution14"
  type: "Convolution"
  bottom: "Eltwise6"
  top: "Convolution14"
  param {
    lr_mult: 1
    decay_mult: 1
  }
  param {
    lr_mult: 2
    decay_mult: 0
  }
  convolution_param {
    num_output: 16
    pad: 1
    kernel_size: 3
    stride: 1
    weight_filler {
      type: "gaussian"
      std: 0.118
    }
    bias_filler {
      type: "constant"
      value: 0
    }
  }
}
layer {
  name: "BatchNorm14"
  type: "BatchNorm"
  bottom: "Convolution14"
  top: "Convolution14"
  param {
    lr_mult: 0
    decay_mult: 0
  }
  param {
    lr_mult: 0
    decay_mult: 0
  }
  param {
    lr_mult: 0
    decay_mult: 0
  }
}
layer {
  name: "Scale14"
  type: "Scale"
  bottom: "Convolution14"
  top: "Convolution14"
  scale_param {
    bias_term: true
  }
}
layer {
  name: "M2PELU14"
  type: "M2PELU"
  bottom: "Convolution14"
  top: "Convolution14"
  param {
    lr_mult: 2
    decay_mult: 0
  }
  param {
    lr_mult: 2
    decay_mult: 0
  }
  m2pelu_param {
    alpha_filler {
      type: "constant"
      value: 0.25
    }
    beta_filler {
      type: "constant"
      value: 1
    }
  }
}
layer {
  name: "Convolution15"
  type: "Convolution"
  bottom: "Convolution14"
  top: "Convolution15"
  param {
    lr_mult: 1
    decay_mult: 1
  }
  param {
    lr_mult: 2
    decay_mult: 0
  }
  convolution_param {
    num_output: 16
    pad: 1
    kernel_size: 3
    stride: 1
    weight_filler {
      type: "gaussian"
      std: 0.118
    }
    bias_filler {
      type: "constant"
      value: 0
    }
  }
}
layer {
  name: "BatchNorm15"
  type: "BatchNorm"
  bottom: "Convolution15"
  top: "Convolution15"
  param {
    lr_mult: 0
    decay_mult: 0
  }
  param {
    lr_mult: 0
    decay_mult: 0
  }
  param {
    lr_mult: 0
    decay_mult: 0
  }
}
layer {
  name: "Scale15"
  type: "Scale"
  bottom: "Convolution15"
  top: "Convolution15"
  scale_param {
    bias_term: true
  }
}
layer {
  name: "Eltwise7"
  type: "Eltwise"
  bottom: "Eltwise6"
  bottom: "Convolution15"
  top: "Eltwise7"
  eltwise_param {
    operation: SUM
  }
}
layer {
  name: "M2PELU15"
  type: "M2PELU"
  bottom: "Eltwise7"
  top: "Eltwise7"
  param {
    lr_mult: 2
    decay_mult: 0
  }
  param {
    lr_mult: 2
    decay_mult: 0
  }
  m2pelu_param {
    alpha_filler {
      type: "constant"
      value: 0.25
    }
    beta_filler {
      type: "constant"
      value: 1
    }
  }
}
layer {
  name: "Convolution16"
  type: "Convolution"
  bottom: "Eltwise7"
  top: "Convolution16"
  param {
    lr_mult: 1
    decay_mult: 1
  }
  param {
    lr_mult: 2
    decay_mult: 0
  }
  convolution_param {
    num_output: 16
    pad: 1
    kernel_size: 3
    stride: 1
    weight_filler {
      type: "gaussian"
      std: 0.118
    }
    bias_filler {
      type: "constant"
      value: 0
    }
  }
}
layer {
  name: "BatchNorm16"
  type: "BatchNorm"
  bottom: "Convolution16"
  top: "Convolution16"
  param {
    lr_mult: 0
    decay_mult: 0
  }
  param {
    lr_mult: 0
    decay_mult: 0
  }
  param {
    lr_mult: 0
    decay_mult: 0
  }
}
layer {
  name: "Scale16"
  type: "Scale"
  bottom: "Convolution16"
  top: "Convolution16"
  scale_param {
    bias_term: true
  }
}
layer {
  name: "M2PELU16"
  type: "M2PELU"
  bottom: "Convolution16"
  top: "Convolution16"
  param {
    lr_mult: 2
    decay_mult: 0
  }
  param {
    lr_mult: 2
    decay_mult: 0
  }
  m2pelu_param {
    alpha_filler {
      type: "constant"
      value: 0.25
    }
    beta_filler {
      type: "constant"
      value: 1
    }
  }
}
layer {
  name: "Convolution17"
  type: "Convolution"
  bottom: "Convolution16"
  top: "Convolution17"
  param {
    lr_mult: 1
    decay_mult: 1
  }
  param {
    lr_mult: 2
    decay_mult: 0
  }
  convolution_param {
    num_output: 16
    pad: 1
    kernel_size: 3
    stride: 1
    weight_filler {
      type: "gaussian"
      std: 0.118
    }
    bias_filler {
      type: "constant"
      value: 0
    }
  }
}
layer {
  name: "BatchNorm17"
  type: "BatchNorm"
  bottom: "Convolution17"
  top: "Convolution17"
  param {
    lr_mult: 0
    decay_mult: 0
  }
  param {
    lr_mult: 0
    decay_mult: 0
  }
  param {
    lr_mult: 0
    decay_mult: 0
  }
}
layer {
  name: "Scale17"
  type: "Scale"
  bottom: "Convolution17"
  top: "Convolution17"
  scale_param {
    bias_term: true
  }
}
layer {
  name: "Eltwise8"
  type: "Eltwise"
  bottom: "Eltwise7"
  bottom: "Convolution17"
  top: "Eltwise8"
  eltwise_param {
    operation: SUM
  }
}
layer {
  name: "M2PELU17"
  type: "M2PELU"
  bottom: "Eltwise8"
  top: "Eltwise8"
  param {
    lr_mult: 2
    decay_mult: 0
  }
  param {
    lr_mult: 2
    decay_mult: 0
  }
  m2pelu_param {
    alpha_filler {
      type: "constant"
      value: 0.25
    }
    beta_filler {
      type: "constant"
      value: 1
    }
  }
}
layer {
  name: "Convolution18"
  type: "Convolution"
  bottom: "Eltwise8"
  top: "Convolution18"
  param {
    lr_mult: 1
    decay_mult: 1
  }
  param {
    lr_mult: 2
    decay_mult: 0
  }
  convolution_param {
    num_output: 16
    pad: 1
    kernel_size: 3
    stride: 1
    weight_filler {
      type: "gaussian"
      std: 0.118
    }
    bias_filler {
      type: "constant"
      value: 0
    }
  }
}
layer {
  name: "BatchNorm18"
  type: "BatchNorm"
  bottom: "Convolution18"
  top: "Convolution18"
  param {
    lr_mult: 0
    decay_mult: 0
  }
  param {
    lr_mult: 0
    decay_mult: 0
  }
  param {
    lr_mult: 0
    decay_mult: 0
  }
}
layer {
  name: "Scale18"
  type: "Scale"
  bottom: "Convolution18"
  top: "Convolution18"
  scale_param {
    bias_term: true
  }
}
layer {
  name: "M2PELU18"
  type: "M2PELU"
  bottom: "Convolution18"
  top: "Convolution18"
  param {
    lr_mult: 2
    decay_mult: 0
  }
  param {
    lr_mult: 2
    decay_mult: 0
  }
  m2pelu_param {
    alpha_filler {
      type: "constant"
      value: 0.25
    }
    beta_filler {
      type: "constant"
      value: 1
    }
  }
}
layer {
  name: "Convolution19"
  type: "Convolution"
  bottom: "Convolution18"
  top: "Convolution19"
  param {
    lr_mult: 1
    decay_mult: 1
  }
  param {
    lr_mult: 2
    decay_mult: 0
  }
  convolution_param {
    num_output: 16
    pad: 1
    kernel_size: 3
    stride: 1
    weight_filler {
      type: "gaussian"
      std: 0.118
    }
    bias_filler {
      type: "constant"
      value: 0
    }
  }
}
layer {
  name: "BatchNorm19"
  type: "BatchNorm"
  bottom: "Convolution19"
  top: "Convolution19"
  param {
    lr_mult: 0
    decay_mult: 0
  }
  param {
    lr_mult: 0
    decay_mult: 0
  }
  param {
    lr_mult: 0
    decay_mult: 0
  }
}
layer {
  name: "Scale19"
  type: "Scale"
  bottom: "Convolution19"
  top: "Convolution19"
  scale_param {
    bias_term: true
  }
}
layer {
  name: "Eltwise9"
  type: "Eltwise"
  bottom: "Eltwise8"
  bottom: "Convolution19"
  top: "Eltwise9"
  eltwise_param {
    operation: SUM
  }
}
layer {
  name: "M2PELU19"
  type: "M2PELU"
  bottom: "Eltwise9"
  top: "Eltwise9"
  param {
    lr_mult: 2
    decay_mult: 0
  }
  param {
    lr_mult: 2
    decay_mult: 0
  }
  m2pelu_param {
    alpha_filler {
      type: "constant"
      value: 0.25
    }
    beta_filler {
      type: "constant"
      value: 1
    }
  }
}
layer {
  name: "Convolution20"
  type: "Convolution"
  bottom: "Eltwise9"
  top: "Convolution20"
  param {
    lr_mult: 1
    decay_mult: 1
  }
  param {
    lr_mult: 2
    decay_mult: 0
  }
  convolution_param {
    num_output: 32
    pad: 0
    kernel_size: 1
    stride: 2
    weight_filler {
      type: "gaussian"
      std: 0.25
    }
    bias_filler {
      type: "constant"
      value: 0
    }
  }
}
layer {
  name: "BatchNorm20"
  type: "BatchNorm"
  bottom: "Convolution20"
  top: "Convolution20"
  param {
    lr_mult: 0
    decay_mult: 0
  }
  param {
    lr_mult: 0
    decay_mult: 0
  }
  param {
    lr_mult: 0
    decay_mult: 0
  }
}
layer {
  name: "Scale20"
  type: "Scale"
  bottom: "Convolution20"
  top: "Convolution20"
  scale_param {
    bias_term: true
  }
}
layer {
  name: "Convolution21"
  type: "Convolution"
  bottom: "Eltwise9"
  top: "Convolution21"
  param {
    lr_mult: 1
    decay_mult: 1
  }
  param {
    lr_mult: 2
    decay_mult: 0
  }
  convolution_param {
    num_output: 32
    pad: 1
    kernel_size: 3
    stride: 2
    weight_filler {
      type: "gaussian"
      std: 0.083
    }
    bias_filler {
      type: "constant"
      value: 0
    }
  }
}
layer {
  name: "BatchNorm21"
  type: "BatchNorm"
  bottom: "Convolution21"
  top: "Convolution21"
  param {
    lr_mult: 0
    decay_mult: 0
  }
  param {
    lr_mult: 0
    decay_mult: 0
  }
  param {
    lr_mult: 0
    decay_mult: 0
  }
}
layer {
  name: "Scale21"
  type: "Scale"
  bottom: "Convolution21"
  top: "Convolution21"
  scale_param {
    bias_term: true
  }
}
layer {
  name: "M2PELU20"
  type: "M2PELU"
  bottom: "Convolution21"
  top: "Convolution21"
  param {
    lr_mult: 2
    decay_mult: 0
  }
  param {
    lr_mult: 2
    decay_mult: 0
  }
  m2pelu_param {
    alpha_filler {
      type: "constant"
      value: 0.25
    }
    beta_filler {
      type: "constant"
      value: 1
    }
  }
}
layer {
  name: "Convolution22"
  type: "Convolution"
  bottom: "Convolution21"
  top: "Convolution22"
  param {
    lr_mult: 1
    decay_mult: 1
  }
  param {
    lr_mult: 2
    decay_mult: 0
  }
  convolution_param {
    num_output: 32
    pad: 1
    kernel_size: 3
    stride: 1
    weight_filler {
      type: "gaussian"
      std: 0.083
    }
    bias_filler {
      type: "constant"
      value: 0
    }
  }
}
layer {
  name: "BatchNorm22"
  type: "BatchNorm"
  bottom: "Convolution22"
  top: "Convolution22"
  param {
    lr_mult: 0
    decay_mult: 0
  }
  param {
    lr_mult: 0
    decay_mult: 0
  }
  param {
    lr_mult: 0
    decay_mult: 0
  }
}
layer {
  name: "Scale22"
  type: "Scale"
  bottom: "Convolution22"
  top: "Convolution22"
  scale_param {
    bias_term: true
  }
}
layer {
  name: "Eltwise10"
  type: "Eltwise"
  bottom: "Convolution20"
  bottom: "Convolution22"
  top: "Eltwise10"
  eltwise_param {
    operation: SUM
  }
}
layer {
  name: "M2PELU21"
  type: "M2PELU"
  bottom: "Eltwise10"
  top: "Eltwise10"
  param {
    lr_mult: 2
    decay_mult: 0
  }
  param {
    lr_mult: 2
    decay_mult: 0
  }
  m2pelu_param {
    alpha_filler {
      type: "constant"
      value: 0.25
    }
    beta_filler {
      type: "constant"
      value: 1
    }
  }
}
layer {
  name: "Convolution23"
  type: "Convolution"
  bottom: "Eltwise10"
  top: "Convolution23"
  param {
    lr_mult: 1
    decay_mult: 1
  }
  param {
    lr_mult: 2
    decay_mult: 0
  }
  convolution_param {
    num_output: 32
    pad: 1
    kernel_size: 3
    stride: 1
    weight_filler {
      type: "gaussian"
      std: 0.083
    }
    bias_filler {
      type: "constant"
      value: 0
    }
  }
}
layer {
  name: "BatchNorm23"
  type: "BatchNorm"
  bottom: "Convolution23"
  top: "Convolution23"
  param {
    lr_mult: 0
    decay_mult: 0
  }
  param {
    lr_mult: 0
    decay_mult: 0
  }
  param {
    lr_mult: 0
    decay_mult: 0
  }
}
layer {
  name: "Scale23"
  type: "Scale"
  bottom: "Convolution23"
  top: "Convolution23"
  scale_param {
    bias_term: true
  }
}
layer {
  name: "M2PELU22"
  type: "M2PELU"
  bottom: "Convolution23"
  top: "Convolution23"
  param {
    lr_mult: 2
    decay_mult: 0
  }
  param {
    lr_mult: 2
    decay_mult: 0
  }
  m2pelu_param {
    alpha_filler {
      type: "constant"
      value: 0.25
    }
    beta_filler {
      type: "constant"
      value: 1
    }
  }
}
layer {
  name: "Convolution24"
  type: "Convolution"
  bottom: "Convolution23"
  top: "Convolution24"
  param {
    lr_mult: 1
    decay_mult: 1
  }
  param {
    lr_mult: 2
    decay_mult: 0
  }
  convolution_param {
    num_output: 32
    pad: 1
    kernel_size: 3
    stride: 1
    weight_filler {
      type: "gaussian"
      std: 0.083
    }
    bias_filler {
      type: "constant"
      value: 0
    }
  }
}
layer {
  name: "BatchNorm24"
  type: "BatchNorm"
  bottom: "Convolution24"
  top: "Convolution24"
  param {
    lr_mult: 0
    decay_mult: 0
  }
  param {
    lr_mult: 0
    decay_mult: 0
  }
  param {
    lr_mult: 0
    decay_mult: 0
  }
}
layer {
  name: "Scale24"
  type: "Scale"
  bottom: "Convolution24"
  top: "Convolution24"
  scale_param {
    bias_term: true
  }
}
layer {
  name: "Eltwise11"
  type: "Eltwise"
  bottom: "Eltwise10"
  bottom: "Convolution24"
  top: "Eltwise11"
  eltwise_param {
    operation: SUM
  }
}
layer {
  name: "M2PELU23"
  type: "M2PELU"
  bottom: "Eltwise11"
  top: "Eltwise11"
  param {
    lr_mult: 2
    decay_mult: 0
  }
  param {
    lr_mult: 2
    decay_mult: 0
  }
  m2pelu_param {
    alpha_filler {
      type: "constant"
      value: 0.25
    }
    beta_filler {
      type: "constant"
      value: 1
    }
  }
}
layer {
  name: "Convolution25"
  type: "Convolution"
  bottom: "Eltwise11"
  top: "Convolution25"
  param {
    lr_mult: 1
    decay_mult: 1
  }
  param {
    lr_mult: 2
    decay_mult: 0
  }
  convolution_param {
    num_output: 32
    pad: 1
    kernel_size: 3
    stride: 1
    weight_filler {
      type: "gaussian"
      std: 0.083
    }
    bias_filler {
      type: "constant"
      value: 0
    }
  }
}
layer {
  name: "BatchNorm25"
  type: "BatchNorm"
  bottom: "Convolution25"
  top: "Convolution25"
  param {
    lr_mult: 0
    decay_mult: 0
  }
  param {
    lr_mult: 0
    decay_mult: 0
  }
  param {
    lr_mult: 0
    decay_mult: 0
  }
}
layer {
  name: "Scale25"
  type: "Scale"
  bottom: "Convolution25"
  top: "Convolution25"
  scale_param {
    bias_term: true
  }
}
layer {
  name: "M2PELU24"
  type: "M2PELU"
  bottom: "Convolution25"
  top: "Convolution25"
  param {
    lr_mult: 2
    decay_mult: 0
  }
  param {
    lr_mult: 2
    decay_mult: 0
  }
  m2pelu_param {
    alpha_filler {
      type: "constant"
      value: 0.25
    }
    beta_filler {
      type: "constant"
      value: 1
    }
  }
}
layer {
  name: "Convolution26"
  type: "Convolution"
  bottom: "Convolution25"
  top: "Convolution26"
  param {
    lr_mult: 1
    decay_mult: 1
  }
  param {
    lr_mult: 2
    decay_mult: 0
  }
  convolution_param {
    num_output: 32
    pad: 1
    kernel_size: 3
    stride: 1
    weight_filler {
      type: "gaussian"
      std: 0.083
    }
    bias_filler {
      type: "constant"
      value: 0
    }
  }
}
layer {
  name: "BatchNorm26"
  type: "BatchNorm"
  bottom: "Convolution26"
  top: "Convolution26"
  param {
    lr_mult: 0
    decay_mult: 0
  }
  param {
    lr_mult: 0
    decay_mult: 0
  }
  param {
    lr_mult: 0
    decay_mult: 0
  }
}
layer {
  name: "Scale26"
  type: "Scale"
  bottom: "Convolution26"
  top: "Convolution26"
  scale_param {
    bias_term: true
  }
}
layer {
  name: "Eltwise12"
  type: "Eltwise"
  bottom: "Eltwise11"
  bottom: "Convolution26"
  top: "Eltwise12"
  eltwise_param {
    operation: SUM
  }
}
layer {
  name: "M2PELU25"
  type: "M2PELU"
  bottom: "Eltwise12"
  top: "Eltwise12"
  param {
    lr_mult: 2
    decay_mult: 0
  }
  param {
    lr_mult: 2
    decay_mult: 0
  }
  m2pelu_param {
    alpha_filler {
      type: "constant"
      value: 0.25
    }
    beta_filler {
      type: "constant"
      value: 1
    }
  }
}
layer {
  name: "Convolution27"
  type: "Convolution"
  bottom: "Eltwise12"
  top: "Convolution27"
  param {
    lr_mult: 1
    decay_mult: 1
  }
  param {
    lr_mult: 2
    decay_mult: 0
  }
  convolution_param {
    num_output: 32
    pad: 1
    kernel_size: 3
    stride: 1
    weight_filler {
      type: "gaussian"
      std: 0.083
    }
    bias_filler {
      type: "constant"
      value: 0
    }
  }
}
layer {
  name: "BatchNorm27"
  type: "BatchNorm"
  bottom: "Convolution27"
  top: "Convolution27"
  param {
    lr_mult: 0
    decay_mult: 0
  }
  param {
    lr_mult: 0
    decay_mult: 0
  }
  param {
    lr_mult: 0
    decay_mult: 0
  }
}
layer {
  name: "Scale27"
  type: "Scale"
  bottom: "Convolution27"
  top: "Convolution27"
  scale_param {
    bias_term: true
  }
}
layer {
  name: "M2PELU26"
  type: "M2PELU"
  bottom: "Convolution27"
  top: "Convolution27"
  param {
    lr_mult: 2
    decay_mult: 0
  }
  param {
    lr_mult: 2
    decay_mult: 0
  }
  m2pelu_param {
    alpha_filler {
      type: "constant"
      value: 0.25
    }
    beta_filler {
      type: "constant"
      value: 1
    }
  }
}
layer {
  name: "Convolution28"
  type: "Convolution"
  bottom: "Convolution27"
  top: "Convolution28"
  param {
    lr_mult: 1
    decay_mult: 1
  }
  param {
    lr_mult: 2
    decay_mult: 0
  }
  convolution_param {
    num_output: 32
    pad: 1
    kernel_size: 3
    stride: 1
    weight_filler {
      type: "gaussian"
      std: 0.083
    }
    bias_filler {
      type: "constant"
      value: 0
    }
  }
}
layer {
  name: "BatchNorm28"
  type: "BatchNorm"
  bottom: "Convolution28"
  top: "Convolution28"
  param {
    lr_mult: 0
    decay_mult: 0
  }
  param {
    lr_mult: 0
    decay_mult: 0
  }
  param {
    lr_mult: 0
    decay_mult: 0
  }
}
layer {
  name: "Scale28"
  type: "Scale"
  bottom: "Convolution28"
  top: "Convolution28"
  scale_param {
    bias_term: true
  }
}
layer {
  name: "Eltwise13"
  type: "Eltwise"
  bottom: "Eltwise12"
  bottom: "Convolution28"
  top: "Eltwise13"
  eltwise_param {
    operation: SUM
  }
}
layer {
  name: "M2PELU27"
  type: "M2PELU"
  bottom: "Eltwise13"
  top: "Eltwise13"
  param {
    lr_mult: 2
    decay_mult: 0
  }
  param {
    lr_mult: 2
    decay_mult: 0
  }
  m2pelu_param {
    alpha_filler {
      type: "constant"
      value: 0.25
    }
    beta_filler {
      type: "constant"
      value: 1
    }
  }
}
layer {
  name: "Convolution29"
  type: "Convolution"
  bottom: "Eltwise13"
  top: "Convolution29"
  param {
    lr_mult: 1
    decay_mult: 1
  }
  param {
    lr_mult: 2
    decay_mult: 0
  }
  convolution_param {
    num_output: 32
    pad: 1
    kernel_size: 3
    stride: 1
    weight_filler {
      type: "gaussian"
      std: 0.083
    }
    bias_filler {
      type: "constant"
      value: 0
    }
  }
}
layer {
  name: "BatchNorm29"
  type: "BatchNorm"
  bottom: "Convolution29"
  top: "Convolution29"
  param {
    lr_mult: 0
    decay_mult: 0
  }
  param {
    lr_mult: 0
    decay_mult: 0
  }
  param {
    lr_mult: 0
    decay_mult: 0
  }
}
layer {
  name: "Scale29"
  type: "Scale"
  bottom: "Convolution29"
  top: "Convolution29"
  scale_param {
    bias_term: true
  }
}
layer {
  name: "M2PELU28"
  type: "M2PELU"
  bottom: "Convolution29"
  top: "Convolution29"
  param {
    lr_mult: 2
    decay_mult: 0
  }
  param {
    lr
I0928 19:39:41.675142  5057 layer_factory.hpp:77] Creating layer Data1
I0928 19:39:41.675220  5057 db_lmdb.cpp:35] Opened lmdb /home/x306/caffe/xn/PENLU/data/cifar10/cifar10_train_lmdb
I0928 19:39:41.675241  5057 net.cpp:84] Creating Layer Data1
I0928 19:39:41.675247  5057 net.cpp:380] Data1 -> Data1
I0928 19:39:41.675274  5057 net.cpp:380] Data1 -> Data2
I0928 19:39:41.675283  5057 data_transformer.cpp:25] Loading mean file from: /home/x306/caffe/xn/PENLU/data/cifar10/mean.binaryproto
I0928 19:39:41.676686  5057 data_layer.cpp:45] output data size: 100,3,28,28
I0928 19:39:41.678966  5057 net.cpp:122] Setting up Data1
I0928 19:39:41.678980  5057 net.cpp:129] Top shape: 100 3 28 28 (235200)
I0928 19:39:41.678984  5057 net.cpp:129] Top shape: 100 (100)
I0928 19:39:41.678987  5057 net.cpp:137] Memory required for data: 941200
I0928 19:39:41.678993  5057 layer_factory.hpp:77] Creating layer Convolution1
I0928 19:39:41.679013  5057 net.cpp:84] Creating Layer Convolution1
I0928 19:39:41.679018  5057 net.cpp:406] Convolution1 <- Data1
I0928 19:39:41.679026  5057 net.cpp:380] Convolution1 -> Convolution1
I0928 19:39:41.825444  5057 net.cpp:122] Setting up Convolution1
I0928 19:39:41.825467  5057 net.cpp:129] Top shape: 100 16 28 28 (1254400)
I0928 19:39:41.825471  5057 net.cpp:137] Memory required for data: 5958800
I0928 19:39:41.825486  5057 layer_factory.hpp:77] Creating layer M2PELU1
I0928 19:39:41.825522  5057 net.cpp:84] Creating Layer M2PELU1
I0928 19:39:41.825529  5057 net.cpp:406] M2PELU1 <- Convolution1
I0928 19:39:41.825546  5057 net.cpp:367] M2PELU1 -> Convolution1 (in-place)
I0928 19:39:41.826162  5057 net.cpp:122] Setting up M2PELU1
I0928 19:39:41.826172  5057 net.cpp:129] Top shape: 100 16 28 28 (1254400)
I0928 19:39:41.826174  5057 net.cpp:137] Memory required for data: 10976400
I0928 19:39:41.826180  5057 layer_factory.hpp:77] Creating layer Convolution1_M2PELU1_0_split
I0928 19:39:41.826189  5057 net.cpp:84] Creating Layer Convolution1_M2PELU1_0_split
I0928 19:39:41.826200  5057 net.cpp:406] Convolution1_M2PELU1_0_split <- Convolution1
I0928 19:39:41.826205  5057 net.cpp:380] Convolution1_M2PELU1_0_split -> Convolution1_M2PELU1_0_split_0
I0928 19:39:41.826222  5057 net.cpp:380] Convolution1_M2PELU1_0_split -> Convolution1_M2PELU1_0_split_1
I0928 19:39:41.826246  5057 net.cpp:122] Setting up Convolution1_M2PELU1_0_split
I0928 19:39:41.826261  5057 net.cpp:129] Top shape: 100 16 28 28 (1254400)
I0928 19:39:41.826263  5057 net.cpp:129] Top shape: 100 16 28 28 (1254400)
I0928 19:39:41.826267  5057 net.cpp:137] Memory required for data: 21011600
I0928 19:39:41.826278  5057 layer_factory.hpp:77] Creating layer Convolution2
I0928 19:39:41.826297  5057 net.cpp:84] Creating Layer Convolution2
I0928 19:39:41.826298  5057 net.cpp:406] Convolution2 <- Convolution1_M2PELU1_0_split_0
I0928 19:39:41.826303  5057 net.cpp:380] Convolution2 -> Convolution2
I0928 19:39:41.827203  5057 net.cpp:122] Setting up Convolution2
I0928 19:39:41.827214  5057 net.cpp:129] Top shape: 100 16 28 28 (1254400)
I0928 19:39:41.827227  5057 net.cpp:137] Memory required for data: 26029200
I0928 19:39:41.827234  5057 layer_factory.hpp:77] Creating layer M2PELU2
I0928 19:39:41.827250  5057 net.cpp:84] Creating Layer M2PELU2
I0928 19:39:41.827255  5057 net.cpp:406] M2PELU2 <- Convolution2
I0928 19:39:41.827260  5057 net.cpp:367] M2PELU2 -> Convolution2 (in-place)
I0928 19:39:41.827354  5057 net.cpp:122] Setting up M2PELU2
I0928 19:39:41.827359  5057 net.cpp:129] Top shape: 100 16 28 28 (1254400)
I0928 19:39:41.827363  5057 net.cpp:137] Memory required for data: 31046800
I0928 19:39:41.827379  5057 layer_factory.hpp:77] Creating layer Convolution3
I0928 19:39:41.827396  5057 net.cpp:84] Creating Layer Convolution3
I0928 19:39:41.827400  5057 net.cpp:406] Convolution3 <- Convolution2
I0928 19:39:41.827419  5057 net.cpp:380] Convolution3 -> Convolution3
I0928 19:39:41.828306  5057 net.cpp:122] Setting up Convolution3
I0928 19:39:41.828316  5057 net.cpp:129] Top shape: 100 16 28 28 (1254400)
I0928 19:39:41.828320  5057 net.cpp:137] Memory required for data: 36064400
I0928 19:39:41.828337  5057 layer_factory.hpp:77] Creating layer Eltwise1
I0928 19:39:41.828343  5057 net.cpp:84] Creating Layer Eltwise1
I0928 19:39:41.828347  5057 net.cpp:406] Eltwise1 <- Convolution1_M2PELU1_0_split_1
I0928 19:39:41.828351  5057 net.cpp:406] Eltwise1 <- Convolution3
I0928 19:39:41.828353  5057 net.cpp:380] Eltwise1 -> Eltwise1
I0928 19:39:41.828384  5057 net.cpp:122] Setting up Eltwise1
I0928 19:39:41.828402  5057 net.cpp:129] Top shape: 100 16 28 28 (1254400)
I0928 19:39:41.828403  5057 net.cpp:137] Memory required for data: 41082000
I0928 19:39:41.828407  5057 layer_factory.hpp:77] Creating layer M2PELU3
I0928 19:39:41.828421  5057 net.cpp:84] Creating Layer M2PELU3
I0928 19:39:41.828425  5057 net.cpp:406] M2PELU3 <- Eltwise1
I0928 19:39:41.828439  5057 net.cpp:367] M2PELU3 -> Eltwise1 (in-place)
I0928 19:39:41.828552  5057 net.cpp:122] Setting up M2PELU3
I0928 19:39:41.828558  5057 net.cpp:129] Top shape: 100 16 28 28 (1254400)
I0928 19:39:41.828560  5057 net.cpp:137] Memory required for data: 46099600
I0928 19:39:41.828574  5057 layer_factory.hpp:77] Creating layer Eltwise1_M2PELU3_0_split
I0928 19:39:41.828578  5057 net.cpp:84] Creating Layer Eltwise1_M2PELU3_0_split
I0928 19:39:41.828582  5057 net.cpp:406] Eltwise1_M2PELU3_0_split <- Eltwise1
I0928 19:39:41.828584  5057 net.cpp:380] Eltwise1_M2PELU3_0_split -> Eltwise1_M2PELU3_0_split_0
I0928 19:39:41.828591  5057 net.cpp:380] Eltwise1_M2PELU3_0_split -> Eltwise1_M2PELU3_0_split_1
I0928 19:39:41.828631  5057 net.cpp:122] Setting up Eltwise1_M2PELU3_0_split
I0928 19:39:41.828637  5057 net.cpp:129] Top shape: 100 16 28 28 (1254400)
I0928 19:39:41.828641  5057 net.cpp:129] Top shape: 100 16 28 28 (1254400)
I0928 19:39:41.828644  5057 net.cpp:137] Memory required for data: 56134800
I0928 19:39:41.828645  5057 layer_factory.hpp:77] Creating layer Convolution4
I0928 19:39:41.828652  5057 net.cpp:84] Creating Layer Convolution4
I0928 19:39:41.828655  5057 net.cpp:406] Convolution4 <- Eltwise1_M2PELU3_0_split_0
I0928 19:39:41.828660  5057 net.cpp:380] Convolution4 -> Convolution4
I0928 19:39:41.829505  5057 net.cpp:122] Setting up Convolution4
I0928 19:39:41.829514  5057 net.cpp:129] Top shape: 100 16 28 28 (1254400)
I0928 19:39:41.829517  5057 net.cpp:137] Memory required for data: 61152400
I0928 19:39:41.829522  5057 layer_factory.hpp:77] Creating layer M2PELU4
I0928 19:39:41.829530  5057 net.cpp:84] Creating Layer M2PELU4
I0928 19:39:41.829533  5057 net.cpp:406] M2PELU4 <- Convolution4
I0928 19:39:41.829537  5057 net.cpp:367] M2PELU4 -> Convolution4 (in-place)
I0928 19:39:41.829620  5057 net.cpp:122] Setting up M2PELU4
I0928 19:39:41.829625  5057 net.cpp:129] Top shape: 100 16 28 28 (1254400)
I0928 19:39:41.829628  5057 net.cpp:137] Memory required for data: 66170000
I0928 19:39:41.829632  5057 layer_factory.hpp:77] Creating layer Convolution5
I0928 19:39:41.829639  5057 net.cpp:84] Creating Layer Convolution5
I0928 19:39:41.829643  5057 net.cpp:406] Convolution5 <- Convolution4
I0928 19:39:41.829648  5057 net.cpp:380] Convolution5 -> Convolution5
I0928 19:39:41.830497  5057 net.cpp:122] Setting up Convolution5
I0928 19:39:41.830507  5057 net.cpp:129] Top shape: 100 16 28 28 (1254400)
I0928 19:39:41.830509  5057 net.cpp:137] Memory required for data: 71187600
I0928 19:39:41.830518  5057 layer_factory.hpp:77] Creating layer Eltwise2
I0928 19:39:41.830538  5057 net.cpp:84] Creating Layer Eltwise2
I0928 19:39:41.830544  5057 net.cpp:406] Eltwise2 <- Eltwise1_M2PELU3_0_split_1
I0928 19:39:41.830548  5057 net.cpp:406] Eltwise2 <- Convolution5
I0928 19:39:41.830552  5057 net.cpp:380] Eltwise2 -> Eltwise2
I0928 19:39:41.830580  5057 net.cpp:122] Setting up Eltwise2
I0928 19:39:41.830585  5057 net.cpp:129] Top shape: 100 16 28 28 (1254400)
I0928 19:39:41.830588  5057 net.cpp:137] Memory required for data: 76205200
I0928 19:39:41.830590  5057 layer_factory.hpp:77] Creating layer M2PELU5
I0928 19:39:41.830596  5057 net.cpp:84] Creating Layer M2PELU5
I0928 19:39:41.830600  5057 net.cpp:406] M2PELU5 <- Eltwise2
I0928 19:39:41.830602  5057 net.cpp:367] M2PELU5 -> Eltwise2 (in-place)
I0928 19:39:41.830685  5057 net.cpp:122] Setting up M2PELU5
I0928 19:39:41.830691  5057 net.cpp:129] Top shape: 100 16 28 28 (1254400)
I0928 19:39:41.830693  5057 net.cpp:137] Memory required for data: 81222800
I0928 19:39:41.830698  5057 layer_factory.hpp:77] Creating layer Eltwise2_M2PELU5_0_split
I0928 19:39:41.830701  5057 net.cpp:84] Creating Layer Eltwise2_M2PELU5_0_split
I0928 19:39:41.830704  5057 net.cpp:406] Eltwise2_M2PELU5_0_split <- Eltwise2
I0928 19:39:41.830708  5057 net.cpp:380] Eltwise2_M2PELU5_0_split -> Eltwise2_M2PELU5_0_split_0
I0928 19:39:41.830713  5057 net.cpp:380] Eltwise2_M2PELU5_0_split -> Eltwise2_M2PELU5_0_split_1
I0928 19:39:41.830735  5057 net.cpp:122] Setting up Eltwise2_M2PELU5_0_split
I0928 19:39:41.830740  5057 net.cpp:129] Top shape: 100 16 28 28 (1254400)
I0928 19:39:41.830744  5057 net.cpp:129] Top shape: 100 16 28 28 (1254400)
I0928 19:39:41.830746  5057 net.cpp:137] Memory required for data: 91258000
I0928 19:39:41.830749  5057 layer_factory.hpp:77] Creating layer Convolution6
I0928 19:39:41.830756  5057 net.cpp:84] Creating Layer Convolution6
I0928 19:39:41.830760  5057 net.cpp:406] Convolution6 <- Eltwise2_M2PELU5_0_split_0
I0928 19:39:41.830765  5057 net.cpp:380] Convolution6 -> Convolution6
I0928 19:39:41.831619  5057 net.cpp:122] Setting up Convolution6
I0928 19:39:41.831629  5057 net.cpp:129] Top shape: 100 16 28 28 (1254400)
I0928 19:39:41.831631  5057 net.cpp:137] Memory required for data: 96275600
I0928 19:39:41.831643  5057 layer_factory.hpp:77] Creating layer M2PELU6
I0928 19:39:41.831652  5057 net.cpp:84] Creating Layer M2PELU6
I0928 19:39:41.831656  5057 net.cpp:406] M2PELU6 <- Convolution6
I0928 19:39:41.831660  5057 net.cpp:367] M2PELU6 -> Convolution6 (in-place)
I0928 19:39:41.831744  5057 net.cpp:122] Setting up M2PELU6
I0928 19:39:41.831749  5057 net.cpp:129] Top shape: 100 16 28 28 (1254400)
I0928 19:39:41.831753  5057 net.cpp:137] Memory required for data: 101293200
I0928 19:39:41.831756  5057 layer_factory.hpp:77] Creating layer Convolution7
I0928 19:39:41.831763  5057 net.cpp:84] Creating Layer Convolution7
I0928 19:39:41.831766  5057 net.cpp:406] Convolution7 <- Convolution6
I0928 19:39:41.831771  5057 net.cpp:380] Convolution7 -> Convolution7
I0928 19:39:41.832301  5057 net.cpp:122] Setting up Convolution7
I0928 19:39:41.832310  5057 net.cpp:129] Top shape: 100 16 28 28 (1254400)
I0928 19:39:41.832314  5057 net.cpp:137] Memory required for data: 106310800
I0928 19:39:41.832317  5057 layer_factory.hpp:77] Creating layer Eltwise3
I0928 19:39:41.832324  5057 net.cpp:84] Creating Layer Eltwise3
I0928 19:39:41.832326  5057 net.cpp:406] Eltwise3 <- Eltwise2_M2PELU5_0_split_1
I0928 19:39:41.832329  5057 net.cpp:406] Eltwise3 <- Convolution7
I0928 19:39:41.832334  5057 net.cpp:380] Eltwise3 -> Eltwise3
I0928 19:39:41.832352  5057 net.cpp:122] Setting up Eltwise3
I0928 19:39:41.832357  5057 net.cpp:129] Top shape: 100 16 28 28 (1254400)
I0928 19:39:41.832360  5057 net.cpp:137] Memory required for data: 111328400
I0928 19:39:41.832362  5057 layer_factory.hpp:77] Creating layer M2PELU7
I0928 19:39:41.832367  5057 net.cpp:84] Creating Layer M2PELU7
I0928 19:39:41.832370  5057 net.cpp:406] M2PELU7 <- Eltwise3
I0928 19:39:41.832375  5057 net.cpp:367] M2PELU7 -> Eltwise3 (in-place)
I0928 19:39:41.832456  5057 net.cpp:122] Setting up M2PELU7
I0928 19:39:41.832463  5057 net.cpp:129] Top shape: 100 16 28 28 (1254400)
I0928 19:39:41.832464  5057 net.cpp:137] Memory required for data: 116346000
I0928 19:39:41.832468  5057 layer_factory.hpp:77] Creating layer Eltwise3_M2PELU7_0_split
I0928 19:39:41.832473  5057 net.cpp:84] Creating Layer Eltwise3_M2PELU7_0_split
I0928 19:39:41.832475  5057 net.cpp:406] Eltwise3_M2PELU7_0_split <- Eltwise3
I0928 19:39:41.832479  5057 net.cpp:380] Eltwise3_M2PELU7_0_split -> Eltwise3_M2PELU7_0_split_0
I0928 19:39:41.832484  5057 net.cpp:380] Eltwise3_M2PELU7_0_split -> Eltwise3_M2PELU7_0_split_1
I0928 19:39:41.832506  5057 net.cpp:122] Setting up Eltwise3_M2PELU7_0_split
I0928 19:39:41.832511  5057 net.cpp:129] Top shape: 100 16 28 28 (1254400)
I0928 19:39:41.832515  5057 net.cpp:129] Top shape: 100 16 28 28 (1254400)
I0928 19:39:41.832516  5057 net.cpp:137] Memory required for data: 126381200
I0928 19:39:41.832520  5057 layer_factory.hpp:77] Creating layer Convolution8
I0928 19:39:41.832525  5057 net.cpp:84] Creating Layer Convolution8
I0928 19:39:41.832527  5057 net.cpp:406] Convolution8 <- Eltwise3_M2PELU7_0_split_0
I0928 19:39:41.832532  5057 net.cpp:380] Convolution8 -> Convolution8
I0928 19:39:41.833376  5057 net.cpp:122] Setting up Convolution8
I0928 19:39:41.833386  5057 net.cpp:129] Top shape: 100 16 28 28 (1254400)
I0928 19:39:41.833390  5057 net.cpp:137] Memory required for data: 131398800
I0928 19:39:41.833395  5057 layer_factory.hpp:77] Creating layer M2PELU8
I0928 19:39:41.833400  5057 net.cpp:84] Creating Layer M2PELU8
I0928 19:39:41.833403  5057 net.cpp:406] M2PELU8 <- Convolution8
I0928 19:39:41.833408  5057 net.cpp:367] M2PELU8 -> Convolution8 (in-place)
I0928 19:39:41.833493  5057 net.cpp:122] Setting up M2PELU8
I0928 19:39:41.833498  5057 net.cpp:129] Top shape: 100 16 28 28 (1254400)
I0928 19:39:41.833501  5057 net.cpp:137] Memory required for data: 136416400
I0928 19:39:41.833505  5057 layer_factory.hpp:77] Creating layer Convolution9
I0928 19:39:41.833513  5057 net.cpp:84] Creating Layer Convolution9
I0928 19:39:41.833518  5057 net.cpp:406] Convolution9 <- Convolution8
I0928 19:39:41.833521  5057 net.cpp:380] Convolution9 -> Convolution9
I0928 19:39:41.834375  5057 net.cpp:122] Setting up Convolution9
I0928 19:39:41.834391  5057 net.cpp:129] Top shape: 100 16 28 28 (1254400)
I0928 19:39:41.834394  5057 net.cpp:137] Memory required for data: 141434000
I0928 19:39:41.834403  5057 layer_factory.hpp:77] Creating layer Eltwise4
I0928 19:39:41.834408  5057 net.cpp:84] Creating Layer Eltwise4
I0928 19:39:41.834412  5057 net.cpp:406] Eltwise4 <- Eltwise3_M2PELU7_0_split_1
I0928 19:39:41.834416  5057 net.cpp:406] Eltwise4 <- Convolution9
I0928 19:39:41.834421  5057 net.cpp:380] Eltwise4 -> Eltwise4
I0928 19:39:41.834439  5057 net.cpp:122] Setting up Eltwise4
I0928 19:39:41.834444  5057 net.cpp:129] Top shape: 100 16 28 28 (1254400)
I0928 19:39:41.834446  5057 net.cpp:137] Memory required for data: 146451600
I0928 19:39:41.834448  5057 layer_factory.hpp:77] Creating layer M2PELU9
I0928 19:39:41.834455  5057 net.cpp:84] Creating Layer M2PELU9
I0928 19:39:41.834457  5057 net.cpp:406] M2PELU9 <- Eltwise4
I0928 19:39:41.834461  5057 net.cpp:367] M2PELU9 -> Eltwise4 (in-place)
I0928 19:39:41.834556  5057 net.cpp:122] Setting up M2PELU9
I0928 19:39:41.834563  5057 net.cpp:129] Top shape: 100 16 28 28 (1254400)
I0928 19:39:41.834565  5057 net.cpp:137] Memory required for data: 151469200
I0928 19:39:41.834569  5057 layer_factory.hpp:77] Creating layer Eltwise4_M2PELU9_0_split
I0928 19:39:41.834575  5057 net.cpp:84] Creating Layer Eltwise4_M2PELU9_0_split
I0928 19:39:41.834578  5057 net.cpp:406] Eltwise4_M2PELU9_0_split <- Eltwise4
I0928 19:39:41.834581  5057 net.cpp:380] Eltwise4_M2PELU9_0_split -> Eltwise4_M2PELU9_0_split_0
I0928 19:39:41.834586  5057 net.cpp:380] Eltwise4_M2PELU9_0_split -> Eltwise4_M2PELU9_0_split_1
I0928 19:39:41.834609  5057 net.cpp:122] Setting up Eltwise4_M2PELU9_0_split
I0928 19:39:41.834614  5057 net.cpp:129] Top shape: 100 16 28 28 (1254400)
I0928 19:39:41.834619  5057 net.cpp:129] Top shape: 100 16 28 28 (1254400)
I0928 19:39:41.834620  5057 net.cpp:137] Memory required for data: 161504400
I0928 19:39:41.834622  5057 layer_factory.hpp:77] Creating layer Convolution10
I0928 19:39:41.834630  5057 net.cpp:84] Creating Layer Convolution10
I0928 19:39:41.834632  5057 net.cpp:406] Convolution10 <- Eltwise4_M2PELU9_0_split_0
I0928 19:39:41.834636  5057 net.cpp:380] Convolution10 -> Convolution10
I0928 19:39:41.835512  5057 net.cpp:122] Setting up Convolution10
I0928 19:39:41.835522  5057 net.cpp:129] Top shape: 100 16 28 28 (1254400)
I0928 19:39:41.835525  5057 net.cpp:137] Memory required for data: 166522000
I0928 19:39:41.835530  5057 layer_factory.hpp:77] Creating layer M2PELU10
I0928 19:39:41.835536  5057 net.cpp:84] Creating Layer M2PELU10
I0928 19:39:41.835539  5057 net.cpp:406] M2PELU10 <- Convolution10
I0928 19:39:41.835544  5057 net.cpp:367] M2PELU10 -> Convolution10 (in-place)
I0928 19:39:41.835630  5057 net.cpp:122] Setting up M2PELU10
I0928 19:39:41.835635  5057 net.cpp:129] Top shape: 100 16 28 28 (1254400)
I0928 19:39:41.835638  5057 net.cpp:137] Memory required for data: 171539600
I0928 19:39:41.835642  5057 layer_factory.hpp:77] Creating layer Convolution11
I0928 19:39:41.835650  5057 net.cpp:84] Creating Layer Convolution11
I0928 19:39:41.835664  5057 net.cpp:406] Convolution11 <- Convolution10
I0928 19:39:41.835667  5057 net.cpp:380] Convolution11 -> Convolution11
I0928 19:39:41.836598  5057 net.cpp:122] Setting up Convolution11
I0928 19:39:41.836608  5057 net.cpp:129] Top shape: 100 16 28 28 (1254400)
I0928 19:39:41.836611  5057 net.cpp:137] Memory required for data: 176557200
I0928 19:39:41.836627  5057 layer_factory.hpp:77] Creating layer Eltwise5
I0928 19:39:41.836634  5057 net.cpp:84] Creating Layer Eltwise5
I0928 19:39:41.836638  5057 net.cpp:406] Eltwise5 <- Eltwise4_M2PELU9_0_split_1
I0928 19:39:41.836642  5057 net.cpp:406] Eltwise5 <- Convolution11
I0928 19:39:41.836647  5057 net.cpp:380] Eltwise5 -> Eltwise5
I0928 19:39:41.836674  5057 net.cpp:122] Setting up Eltwise5
I0928 19:39:41.836679  5057 net.cpp:129] Top shape: 100 16 28 28 (1254400)
I0928 19:39:41.836683  5057 net.cpp:137] Memory required for data: 181574800
I0928 19:39:41.836694  5057 layer_factory.hpp:77] Creating layer M2PELU11
I0928 19:39:41.836709  5057 net.cpp:84] Creating Layer M2PELU11
I0928 19:39:41.836714  5057 net.cpp:406] M2PELU11 <- Eltwise5
I0928 19:39:41.836719  5057 net.cpp:367] M2PELU11 -> Eltwise5 (in-place)
I0928 19:39:41.836809  5057 net.cpp:122] Setting up M2PELU11
I0928 19:39:41.836817  5057 net.cpp:129] Top shape: 100 16 28 28 (1254400)
I0928 19:39:41.836818  5057 net.cpp:137] Memory required for data: 186592400
I0928 19:39:41.836822  5057 layer_factory.hpp:77] Creating layer Eltwise5_M2PELU11_0_split
I0928 19:39:41.836828  5057 net.cpp:84] Creating Layer Eltwise5_M2PELU11_0_split
I0928 19:39:41.836830  5057 net.cpp:406] Eltwise5_M2PELU11_0_split <- Eltwise5
I0928 19:39:41.836834  5057 net.cpp:380] Eltwise5_M2PELU11_0_split -> Eltwise5_M2PELU11_0_split_0
I0928 19:39:41.836838  5057 net.cpp:380] Eltwise5_M2PELU11_0_split -> Eltwise5_M2PELU11_0_split_1
I0928 19:39:41.836863  5057 net.cpp:122] Setting up Eltwise5_M2PELU11_0_split
I0928 19:39:41.836868  5057 net.cpp:129] Top shape: 100 16 28 28 (1254400)
I0928 19:39:41.836870  5057 net.cpp:129] Top shape: 100 16 28 28 (1254400)
I0928 19:39:41.836872  5057 net.cpp:137] Memory required for data: 196627600
I0928 19:39:41.836875  5057 layer_factory.hpp:77] Creating layer Convolution12
I0928 19:39:41.836884  5057 net.cpp:84] Creating Layer Convolution12
I0928 19:39:41.836889  5057 net.cpp:406] Convolution12 <- Eltwise5_M2PELU11_0_split_0
I0928 19:39:41.836897  5057 net.cpp:380] Convolution12 -> Convolution12
I0928 19:39:41.837893  5057 net.cpp:122] Setting up Convolution12
I0928 19:39:41.837903  5057 net.cpp:129] Top shape: 100 16 28 28 (1254400)
I0928 19:39:41.837905  5057 net.cpp:137] Memory required for data: 201645200
I0928 19:39:41.837920  5057 layer_factory.hpp:77] Creating layer M2PELU12
I0928 19:39:41.837927  5057 net.cpp:84] Creating Layer M2PELU12
I0928 19:39:41.837930  5057 net.cpp:406] M2PELU12 <- Convolution12
I0928 19:39:41.837936  5057 net.cpp:367] M2PELU12 -> Convolution12 (in-place)
I0928 19:39:41.838037  5057 net.cpp:122] Setting up M2PELU12
I0928 19:39:41.838043  5057 net.cpp:129] Top shape: 100 16 28 28 (1254400)
I0928 19:39:41.838047  5057 net.cpp:137] Memory required for data: 206662800
I0928 19:39:41.838050  5057 layer_factory.hpp:77] Creating layer Convolution13
I0928 19:39:41.838058  5057 net.cpp:84] Creating Layer Convolution13
I0928 19:39:41.838063  5057 net.cpp:406] Convolution13 <- Convolution12
I0928 19:39:41.838076  5057 net.cpp:380] Convolution13 -> Convolution13
I0928 19:39:41.839113  5057 net.cpp:122] Setting up Convolution13
I0928 19:39:41.839123  5057 net.cpp:129] Top shape: 100 16 28 28 (1254400)
I0928 19:39:41.839126  5057 net.cpp:137] Memory required for data: 211680400
I0928 19:39:41.839141  5057 layer_factory.hpp:77] Creating layer BatchNorm13
I0928 19:39:41.839150  5057 net.cpp:84] Creating Layer BatchNorm13
I0928 19:39:41.839154  5057 net.cpp:406] BatchNorm13 <- Convolution13
I0928 19:39:41.839167  5057 net.cpp:367] BatchNorm13 -> Convolution13 (in-place)
I0928 19:39:41.839319  5057 net.cpp:122] Setting up BatchNorm13
I0928 19:39:41.839325  5057 net.cpp:129] Top shape: 100 16 28 28 (1254400)
I0928 19:39:41.839328  5057 net.cpp:137] Memory required for data: 216698000
I0928 19:39:41.839344  5057 layer_factory.hpp:77] Creating layer Scale13
I0928 19:39:41.839349  5057 net.cpp:84] Creating Layer Scale13
I0928 19:39:41.839352  5057 net.cpp:406] Scale13 <- Convolution13
I0928 19:39:41.839355  5057 net.cpp:367] Scale13 -> Convolution13 (in-place)
I0928 19:39:41.839416  5057 layer_factory.hpp:77] Creating layer Scale13
I0928 19:39:41.839519  5057 net.cpp:122] Setting up Scale13
I0928 19:39:41.839524  5057 net.cpp:129] Top shape: 100 16 28 28 (1254400)
I0928 19:39:41.839527  5057 net.cpp:137] Memory required for data: 221715600
I0928 19:39:41.839541  5057 layer_factory.hpp:77] Creating layer Eltwise6
I0928 19:39:41.839546  5057 net.cpp:84] Creating Layer Eltwise6
I0928 19:39:41.839550  5057 net.cpp:406] Eltwise6 <- Eltwise5_M2PELU11_0_split_1
I0928 19:39:41.839552  5057 net.cpp:406] Eltwise6 <- Convolution13
I0928 19:39:41.839565  5057 net.cpp:380] Eltwise6 -> Eltwise6
I0928 19:39:41.839586  5057 net.cpp:122] Setting up Eltwise6
I0928 19:39:41.839591  5057 net.cpp:129] Top shape: 100 16 28 28 (1254400)
I0928 19:39:41.839593  5057 net.cpp:137] Memory required for data: 226733200
I0928 19:39:41.839596  5057 layer_factory.hpp:77] Creating layer M2PELU13
I0928 19:39:41.839601  5057 net.cpp:84] Creating Layer M2PELU13
I0928 19:39:41.839603  5057 net.cpp:406] M2PELU13 <- Eltwise6
I0928 19:39:41.839607  5057 net.cpp:367] M2PELU13 -> Eltwise6 (in-place)
I0928 19:39:41.839694  5057 net.cpp:122] Setting up M2PELU13
I0928 19:39:41.839699  5057 net.cpp:129] Top shape: 100 16 28 28 (1254400)
I0928 19:39:41.839701  5057 net.cpp:137] Memory required for data: 231750800
I0928 19:39:41.839705  5057 layer_factory.hpp:77] Creating layer Eltwise6_M2PELU13_0_split
I0928 19:39:41.839710  5057 net.cpp:84] Creating Layer Eltwise6_M2PELU13_0_split
I0928 19:39:41.839712  5057 net.cpp:406] Eltwise6_M2PELU13_0_split <- Eltwise6
I0928 19:39:41.839716  5057 net.cpp:380] Eltwise6_M2PELU13_0_split -> Eltwise6_M2PELU13_0_split_0
I0928 19:39:41.839721  5057 net.cpp:380] Eltwise6_M2PELU13_0_split -> Eltwise6_M2PELU13_0_split_1
I0928 19:39:41.839743  5057 net.cpp:122] Setting up Eltwise6_M2PELU13_0_split
I0928 19:39:41.839748  5057 net.cpp:129] Top shape: 100 16 28 28 (1254400)
I0928 19:39:41.839752  5057 net.cpp:129] Top shape: 100 16 28 28 (1254400)
I0928 19:39:41.839756  5057 net.cpp:137] Memory required for data: 241786000
I0928 19:39:41.839757  5057 layer_factory.hpp:77] Creating layer Convolution14
I0928 19:39:41.839763  5057 net.cpp:84] Creating Layer Convolution14
I0928 19:39:41.839767  5057 net.cpp:406] Convolution14 <- Eltwise6_M2PELU13_0_split_0
I0928 19:39:41.839771  5057 net.cpp:380] Convolution14 -> Convolution14
I0928 19:39:41.840652  5057 net.cpp:122] Setting up Convolution14
I0928 19:39:41.840663  5057 net.cpp:129] Top shape: 100 16 28 28 (1254400)
I0928 19:39:41.840667  5057 net.cpp:137] Memory required for data: 246803600
I0928 19:39:41.840670  5057 layer_factory.hpp:77] Creating layer BatchNorm14
I0928 19:39:41.840677  5057 net.cpp:84] Creating Layer BatchNorm14
I0928 19:39:41.840682  5057 net.cpp:406] BatchNorm14 <- Convolution14
I0928 19:39:41.840684  5057 net.cpp:367] BatchNorm14 -> Convolution14 (in-place)
I0928 19:39:41.840816  5057 net.cpp:122] Setting up BatchNorm14
I0928 19:39:41.840821  5057 net.cpp:129] Top shape: 100 16 28 28 (1254400)
I0928 19:39:41.840823  5057 net.cpp:137] Memory required for data: 251821200
I0928 19:39:41.840828  5057 layer_factory.hpp:77] Creating layer Scale14
I0928 19:39:41.840833  5057 net.cpp:84] Creating Layer Scale14
I0928 19:39:41.840837  5057 net.cpp:406] Scale14 <- Convolution14
I0928 19:39:41.840840  5057 net.cpp:367] Scale14 -> Convolution14 (in-place)
I0928 19:39:41.840869  5057 layer_factory.hpp:77] Creating layer Scale14
I0928 19:39:41.840950  5057 net.cpp:122] Setting up Scale14
I0928 19:39:41.840955  5057 net.cpp:129] Top shape: 100 16 28 28 (1254400)
I0928 19:39:41.840957  5057 net.cpp:137] Memory required for data: 256838800
I0928 19:39:41.840961  5057 layer_factory.hpp:77] Creating layer M2PELU14
I0928 19:39:41.840967  5057 net.cpp:84] Creating Layer M2PELU14
I0928 19:39:41.840970  5057 net.cpp:406] M2PELU14 <- Convolution14
I0928 19:39:41.840975  5057 net.cpp:367] M2PELU14 -> Convolution14 (in-place)
I0928 19:39:41.841058  5057 net.cpp:122] Setting up M2PELU14
I0928 19:39:41.841064  5057 net.cpp:129] Top shape: 100 16 28 28 (1254400)
I0928 19:39:41.841068  5057 net.cpp:137] Memory required for data: 261856400
I0928 19:39:41.841078  5057 layer_factory.hpp:77] Creating layer Convolution15
I0928 19:39:41.841085  5057 net.cpp:84] Creating Layer Convolution15
I0928 19:39:41.841089  5057 net.cpp:406] Convolution15 <- Convolution14
I0928 19:39:41.841094  5057 net.cpp:380] Convolution15 -> Convolution15
I0928 19:39:41.841976  5057 net.cpp:122] Setting up Convolution15
I0928 19:39:41.841986  5057 net.cpp:129] Top shape: 100 16 28 28 (1254400)
I0928 19:39:41.841989  5057 net.cpp:137] Memory required for data: 266874000
I0928 19:39:41.842000  5057 layer_factory.hpp:77] Creating layer BatchNorm15
I0928 19:39:41.842008  5057 net.cpp:84] Creating Layer BatchNorm15
I0928 19:39:41.842012  5057 net.cpp:406] BatchNorm15 <- Convolution15
I0928 19:39:41.842015  5057 net.cpp:367] BatchNorm15 -> Convolution15 (in-place)
I0928 19:39:41.842147  5057 net.cpp:122] Setting up BatchNorm15
I0928 19:39:41.842154  5057 net.cpp:129] Top shape: 100 16 28 28 (1254400)
I0928 19:39:41.842156  5057 net.cpp:137] Memory required for data: 271891600
I0928 19:39:41.842161  5057 layer_factory.hpp:77] Creating layer Scale15
I0928 19:39:41.842165  5057 net.cpp:84] Creating Layer Scale15
I0928 19:39:41.842169  5057 net.cpp:406] Scale15 <- Convolution15
I0928 19:39:41.842172  5057 net.cpp:367] Scale15 -> Convolution15 (in-place)
I0928 19:39:41.842198  5057 layer_factory.hpp:77] Creating layer Scale15
I0928 19:39:41.842277  5057 net.cpp:122] Setting up Scale15
I0928 19:39:41.842283  5057 net.cpp:129] Top shape: 100 16 28 28 (1254400)
I0928 19:39:41.842284  5057 net.cpp:137] Memory required for data: 276909200
I0928 19:39:41.842288  5057 layer_factory.hpp:77] Creating layer Eltwise7
I0928 19:39:41.842293  5057 net.cpp:84] Creating Layer Eltwise7
I0928 19:39:41.842296  5057 net.cpp:406] Eltwise7 <- Eltwise6_M2PELU13_0_split_1
I0928 19:39:41.842299  5057 net.cpp:406] Eltwise7 <- Convolution15
I0928 19:39:41.842306  5057 net.cpp:380] Eltwise7 -> Eltwise7
I0928 19:39:41.842324  5057 net.cpp:122] Setting up Eltwise7
I0928 19:39:41.842329  5057 net.cpp:129] Top shape: 100 16 28 28 (1254400)
I0928 19:39:41.842332  5057 net.cpp:137] Memory required for data: 281926800
I0928 19:39:41.842335  5057 layer_factory.hpp:77] Creating layer M2PELU15
I0928 19:39:41.842344  5057 net.cpp:84] Creating Layer M2PELU15
I0928 19:39:41.842347  5057 net.cpp:406] M2PELU15 <- Eltwise7
I0928 19:39:41.842350  5057 net.cpp:367] M2PELU15 -> Eltwise7 (in-place)
I0928 19:39:41.842439  5057 net.cpp:122] Setting up M2PELU15
I0928 19:39:41.842444  5057 net.cpp:129] Top shape: 100 16 28 28 (1254400)
I0928 19:39:41.842447  5057 net.cpp:137] Memory required for data: 286944400
I0928 19:39:41.842452  5057 layer_factory.hpp:77] Creating layer Eltwise7_M2PELU15_0_split
I0928 19:39:41.842456  5057 net.cpp:84] Creating Layer Eltwise7_M2PELU15_0_split
I0928 19:39:41.842459  5057 net.cpp:406] Eltwise7_M2PELU15_0_split <- Eltwise7
I0928 19:39:41.842463  5057 net.cpp:380] Eltwise7_M2PELU15_0_split -> Eltwise7_M2PELU15_0_split_0
I0928 19:39:41.842468  5057 net.cpp:380] Eltwise7_M2PELU15_0_split -> Eltwise7_M2PELU15_0_split_1
I0928 19:39:41.842494  5057 net.cpp:122] Setting up Eltwise7_M2PELU15_0_split
I0928 19:39:41.842499  5057 net.cpp:129] Top shape: 100 16 28 28 (1254400)
I0928 19:39:41.842502  5057 net.cpp:129] Top shape: 100 16 28 28 (1254400)
I0928 19:39:41.842505  5057 net.cpp:137] Memory required for data: 296979600
I0928 19:39:41.842507  5057 layer_factory.hpp:77] Creating layer Convolution16
I0928 19:39:41.842514  5057 net.cpp:84] Creating Layer Convolution16
I0928 19:39:41.842519  5057 net.cpp:406] Convolution16 <- Eltwise7_M2PELU15_0_split_0
I0928 19:39:41.842528  5057 net.cpp:380] Convolution16 -> Convolution16
I0928 19:39:41.843415  5057 net.cpp:122] Setting up Convolution16
I0928 19:39:41.843425  5057 net.cpp:129] Top shape: 100 16 28 28 (1254400)
I0928 19:39:41.843427  5057 net.cpp:137] Memory required for data: 301997200
I0928 19:39:41.843432  5057 layer_factory.hpp:77] Creating layer BatchNorm16
I0928 19:39:41.843438  5057 net.cpp:84] Creating Layer BatchNorm16
I0928 19:39:41.843442  5057 net.cpp:406] BatchNorm16 <- Convolution16
I0928 19:39:41.843446  5057 net.cpp:367] BatchNorm16 -> Convolution16 (in-place)
I0928 19:39:41.843576  5057 net.cpp:122] Setting up BatchNorm16
I0928 19:39:41.843582  5057 net.cpp:129] Top shape: 100 16 28 28 (1254400)
I0928 19:39:41.843585  5057 net.cpp:137] Memory required for data: 307014800
I0928 19:39:41.843590  5057 layer_factory.hpp:77] Creating layer Scale16
I0928 19:39:41.843595  5057 net.cpp:84] Creating Layer Scale16
I0928 19:39:41.843600  5057 net.cpp:406] Scale16 <- Convolution16
I0928 19:39:41.843611  5057 net.cpp:367] Scale16 -> Convolution16 (in-place)
I0928 19:39:41.843638  5057 layer_factory.hpp:77] Creating layer Scale16
I0928 19:39:41.843717  5057 net.cpp:122] Setting up Scale16
I0928 19:39:41.843722  5057 net.cpp:129] Top shape: 100 16 28 28 (1254400)
I0928 19:39:41.843725  5057 net.cpp:137] Memory required for data: 312032400
I0928 19:39:41.843729  5057 layer_factory.hpp:77] Creating layer M2PELU16
I0928 19:39:41.843735  5057 net.cpp:84] Creating Layer M2PELU16
I0928 19:39:41.843739  5057 net.cpp:406] M2PELU16 <- Convolution16
I0928 19:39:41.843744  5057 net.cpp:367] M2PELU16 -> Convolution16 (in-place)
I0928 19:39:41.843827  5057 net.cpp:122] Setting up M2PELU16
I0928 19:39:41.843832  5057 net.cpp:129] Top shape: 100 16 28 28 (1254400)
I0928 19:39:41.843835  5057 net.cpp:137] Memory required for data: 317050000
I0928 19:39:41.843839  5057 layer_factory.hpp:77] Creating layer Convolution17
I0928 19:39:41.843847  5057 net.cpp:84] Creating Layer Convolution17
I0928 19:39:41.843850  5057 net.cpp:406] Convolution17 <- Convolution16
I0928 19:39:41.843854  5057 net.cpp:380] Convolution17 -> Convolution17
I0928 19:39:41.844413  5057 net.cpp:122] Setting up Convolution17
I0928 19:39:41.844422  5057 net.cpp:129] Top shape: 100 16 28 28 (1254400)
I0928 19:39:41.844425  5057 net.cpp:137] Memory required for data: 322067600
I0928 19:39:41.844429  5057 layer_factory.hpp:77] Creating layer BatchNorm17
I0928 19:39:41.844434  5057 net.cpp:84] Creating Layer BatchNorm17
I0928 19:39:41.844437  5057 net.cpp:406] BatchNorm17 <- Convolution17
I0928 19:39:41.844442  5057 net.cpp:367] BatchNorm17 -> Convolution17 (in-place)
I0928 19:39:41.844573  5057 net.cpp:122] Setting up BatchNorm17
I0928 19:39:41.844578  5057 net.cpp:129] Top shape: 100 16 28 28 (1254400)
I0928 19:39:41.844581  5057 net.cpp:137] Memory required for data: 327085200
I0928 19:39:41.844586  5057 layer_factory.hpp:77] Creating layer Scale17
I0928 19:39:41.844590  5057 net.cpp:84] Creating Layer Scale17
I0928 19:39:41.844594  5057 net.cpp:406] Scale17 <- Convolution17
I0928 19:39:41.844599  5057 net.cpp:367] Scale17 -> Convolution17 (in-place)
I0928 19:39:41.844624  5057 layer_factory.hpp:77] Creating layer Scale17
I0928 19:39:41.844702  5057 net.cpp:122] Setting up Scale17
I0928 19:39:41.844708  5057 net.cpp:129] Top shape: 100 16 28 28 (1254400)
I0928 19:39:41.844712  5057 net.cpp:137] Memory required for data: 332102800
I0928 19:39:41.844714  5057 layer_factory.hpp:77] Creating layer Eltwise8
I0928 19:39:41.844719  5057 net.cpp:84] Creating Layer Eltwise8
I0928 19:39:41.844722  5057 net.cpp:406] Eltwise8 <- Eltwise7_M2PELU15_0_split_1
I0928 19:39:41.844725  5057 net.cpp:406] Eltwise8 <- Convolution17
I0928 19:39:41.844730  5057 net.cpp:380] Eltwise8 -> Eltwise8
I0928 19:39:41.844748  5057 net.cpp:122] Setting up Eltwise8
I0928 19:39:41.844753  5057 net.cpp:129] Top shape: 100 16 28 28 (1254400)
I0928 19:39:41.844755  5057 net.cpp:137] Memory required for data: 337120400
I0928 19:39:41.844758  5057 layer_factory.hpp:77] Creating layer M2PELU17
I0928 19:39:41.844763  5057 net.cpp:84] Creating Layer M2PELU17
I0928 19:39:41.844765  5057 net.cpp:406] M2PELU17 <- Eltwise8
I0928 19:39:41.844769  5057 net.cpp:367] M2PELU17 -> Eltwise8 (in-place)
I0928 19:39:41.844856  5057 net.cpp:122] Setting up M2PELU17
I0928 19:39:41.844861  5057 net.cpp:129] Top shape: 100 16 28 28 (1254400)
I0928 19:39:41.844864  5057 net.cpp:137] Memory required for data: 342138000
I0928 19:39:41.844867  5057 layer_factory.hpp:77] Creating layer Eltwise8_M2PELU17_0_split
I0928 19:39:41.844872  5057 net.cpp:84] Creating Layer Eltwise8_M2PELU17_0_split
I0928 19:39:41.844876  5057 net.cpp:406] Eltwise8_M2PELU17_0_split <- Eltwise8
I0928 19:39:41.844880  5057 net.cpp:380] Eltwise8_M2PELU17_0_split -> Eltwise8_M2PELU17_0_split_0
I0928 19:39:41.844885  5057 net.cpp:380] Eltwise8_M2PELU17_0_split -> Eltwise8_M2PELU17_0_split_1
I0928 19:39:41.844908  5057 net.cpp:122] Setting up Eltwise8_M2PELU17_0_split
I0928 19:39:41.844914  5057 net.cpp:129] Top shape: 100 16 28 28 (1254400)
I0928 19:39:41.844924  5057 net.cpp:129] Top shape: 100 16 28 28 (1254400)
I0928 19:39:41.844928  5057 net.cpp:137] Memory required for data: 352173200
I0928 19:39:41.844929  5057 layer_factory.hpp:77] Creating layer Convolution18
I0928 19:39:41.844935  5057 net.cpp:84] Creating Layer Convolution18
I0928 19:39:41.844938  5057 net.cpp:406] Convolution18 <- Eltwise8_M2PELU17_0_split_0
I0928 19:39:41.844944  5057 net.cpp:380] Convolution18 -> Convolution18
I0928 19:39:41.845816  5057 net.cpp:122] Setting up Convolution18
I0928 19:39:41.845826  5057 net.cpp:129] Top shape: 100 16 28 28 (1254400)
I0928 19:39:41.845829  5057 net.cpp:137] Memory required for data: 357190800
I0928 19:39:41.845834  5057 layer_factory.hpp:77] Creating layer BatchNorm18
I0928 19:39:41.845840  5057 net.cpp:84] Creating Layer BatchNorm18
I0928 19:39:41.845844  5057 net.cpp:406] BatchNorm18 <- Convolution18
I0928 19:39:41.845847  5057 net.cpp:367] BatchNorm18 -> Convolution18 (in-place)
I0928 19:39:41.845979  5057 net.cpp:122] Setting up BatchNorm18
I0928 19:39:41.845985  5057 net.cpp:129] Top shape: 100 16 28 28 (1254400)
I0928 19:39:41.845988  5057 net.cpp:137] Memory required for data: 362208400
I0928 19:39:41.845993  5057 layer_factory.hpp:77] Creating layer Scale18
I0928 19:39:41.846000  5057 net.cpp:84] Creating Layer Scale18
I0928 19:39:41.846004  5057 net.cpp:406] Scale18 <- Convolution18
I0928 19:39:41.846009  5057 net.cpp:367] Scale18 -> Convolution18 (in-place)
I0928 19:39:41.846035  5057 layer_factory.hpp:77] Creating layer Scale18
I0928 19:39:41.846114  5057 net.cpp:122] Setting up Scale18
I0928 19:39:41.846119  5057 net.cpp:129] Top shape: 100 16 28 28 (1254400)
I0928 19:39:41.846122  5057 net.cpp:137] Memory required for data: 367226000
I0928 19:39:41.846125  5057 layer_factory.hpp:77] Creating layer M2PELU18
I0928 19:39:41.846132  5057 net.cpp:84] Creating Layer M2PELU18
I0928 19:39:41.846134  5057 net.cpp:406] M2PELU18 <- Convolution18
I0928 19:39:41.846138  5057 net.cpp:367] M2PELU18 -> Convolution18 (in-place)
I0928 19:39:41.846221  5057 net.cpp:122] Setting up M2PELU18
I0928 19:39:41.846226  5057 net.cpp:129] Top shape: 100 16 28 28 (1254400)
I0928 19:39:41.846228  5057 net.cpp:137] Memory required for data: 372243600
I0928 19:39:41.846232  5057 layer_factory.hpp:77] Creating layer Convolution19
I0928 19:39:41.846240  5057 net.cpp:84] Creating Layer Convolution19
I0928 19:39:41.846242  5057 net.cpp:406] Convolution19 <- Convolution18
I0928 19:39:41.846246  5057 net.cpp:380] Convolution19 -> Convolution19
I0928 19:39:41.847146  5057 net.cpp:122] Setting up Convolution19
I0928 19:39:41.847156  5057 net.cpp:129] Top shape: 100 16 28 28 (1254400)
I0928 19:39:41.847158  5057 net.cpp:137] Memory required for data: 377261200
I0928 19:39:41.847162  5057 layer_factory.hpp:77] Creating layer BatchNorm19
I0928 19:39:41.847167  5057 net.cpp:84] Creating Layer BatchNorm19
I0928 19:39:41.847170  5057 net.cpp:406] BatchNorm19 <- Convolution19
I0928 19:39:41.847174  5057 net.cpp:367] BatchNorm19 -> Convolution19 (in-place)
I0928 19:39:41.847307  5057 net.cpp:122] Setting up BatchNorm19
I0928 19:39:41.847312  5057 net.cpp:129] Top shape: 100 16 28 28 (1254400)
I0928 19:39:41.847314  5057 net.cpp:137] Memory required for data: 382278800
I0928 19:39:41.847319  5057 layer_factory.hpp:77] Creating layer Scale19
I0928 19:39:41.847323  5057 net.cpp:84] Creating Layer Scale19
I0928 19:39:41.847326  5057 net.cpp:406] Scale19 <- Convolution19
I0928 19:39:41.847328  5057 net.cpp:367] Scale19 -> Convolution19 (in-place)
I0928 19:39:41.847355  5057 layer_factory.hpp:77] Creating layer Scale19
I0928 19:39:41.847434  5057 net.cpp:122] Setting up Scale19
I0928 19:39:41.847439  5057 net.cpp:129] Top shape: 100 16 28 28 (1254400)
I0928 19:39:41.847440  5057 net.cpp:137] Memory required for data: 387296400
I0928 19:39:41.847445  5057 layer_factory.hpp:77] Creating layer Eltwise9
I0928 19:39:41.847448  5057 net.cpp:84] Creating Layer Eltwise9
I0928 19:39:41.847452  5057 net.cpp:406] Eltwise9 <- Eltwise8_M2PELU17_0_split_1
I0928 19:39:41.847461  5057 net.cpp:406] Eltwise9 <- Convolution19
I0928 19:39:41.847465  5057 net.cpp:380] Eltwise9 -> Eltwise9
I0928 19:39:41.847481  5057 net.cpp:122] Setting up Eltwise9
I0928 19:39:41.847486  5057 net.cpp:129] Top shape: 100 16 28 28 (1254400)
I0928 19:39:41.847487  5057 net.cpp:137] Memory required for data: 392314000
I0928 19:39:41.847489  5057 layer_factory.hpp:77] Creating layer M2PELU19
I0928 19:39:41.847496  5057 net.cpp:84] Creating Layer M2PELU19
I0928 19:39:41.847498  5057 net.cpp:406] M2PELU19 <- Eltwise9
I0928 19:39:41.847501  5057 net.cpp:367] M2PELU19 -> Eltwise9 (in-place)
I0928 19:39:41.847587  5057 net.cpp:122] Setting up M2PELU19
I0928 19:39:41.847592  5057 net.cpp:129] Top shape: 100 16 28 28 (1254400)
I0928 19:39:41.847594  5057 net.cpp:137] Memory required for data: 397331600
I0928 19:39:41.847599  5057 layer_factory.hpp:77] Creating layer Eltwise9_M2PELU19_0_split
I0928 19:39:41.847602  5057 net.cpp:84] Creating Layer Eltwise9_M2PELU19_0_split
I0928 19:39:41.847605  5057 net.cpp:406] Eltwise9_M2PELU19_0_split <- Eltwise9
I0928 19:39:41.847609  5057 net.cpp:380] Eltwise9_M2PELU19_0_split -> Eltwise9_M2PELU19_0_split_0
I0928 19:39:41.847612  5057 net.cpp:380] Eltwise9_M2PELU19_0_split -> Eltwise9_M2PELU19_0_split_1
I0928 19:39:41.847635  5057 net.cpp:122] Setting up Eltwise9_M2PELU19_0_split
I0928 19:39:41.847640  5057 net.cpp:129] Top shape: 100 16 28 28 (1254400)
I0928 19:39:41.847642  5057 net.cpp:129] Top shape: 100 16 28 28 (1254400)
I0928 19:39:41.847645  5057 net.cpp:137] Memory required for data: 407366800
I0928 19:39:41.847646  5057 layer_factory.hpp:77] Creating layer Convolution20
I0928 19:39:41.847653  5057 net.cpp:84] Creating Layer Convolution20
I0928 19:39:41.847656  5057 net.cpp:406] Convolution20 <- Eltwise9_M2PELU19_0_split_0
I0928 19:39:41.847661  5057 net.cpp:380] Convolution20 -> Convolution20
I0928 19:39:41.848829  5057 net.cpp:122] Setting up Convolution20
I0928 19:39:41.848837  5057 net.cpp:129] Top shape: 100 32 14 14 (627200)
I0928 19:39:41.848840  5057 net.cpp:137] Memory required for data: 409875600
I0928 19:39:41.848845  5057 layer_factory.hpp:77] Creating layer BatchNorm20
I0928 19:39:41.848850  5057 net.cpp:84] Creating Layer BatchNorm20
I0928 19:39:41.848853  5057 net.cpp:406] BatchNorm20 <- Convolution20
I0928 19:39:41.848856  5057 net.cpp:367] BatchNorm20 -> Convolution20 (in-place)
I0928 19:39:41.848997  5057 net.cpp:122] Setting up BatchNorm20
I0928 19:39:41.849002  5057 net.cpp:129] Top shape: 100 32 14 14 (627200)
I0928 19:39:41.849004  5057 net.cpp:137] Memory required for data: 412384400
I0928 19:39:41.849009  5057 layer_factory.hpp:77] Creating layer Scale20
I0928 19:39:41.849014  5057 net.cpp:84] Creating Layer Scale20
I0928 19:39:41.849015  5057 net.cpp:406] Scale20 <- Convolution20
I0928 19:39:41.849019  5057 net.cpp:367] Scale20 -> Convolution20 (in-place)
I0928 19:39:41.849047  5057 layer_factory.hpp:77] Creating layer Scale20
I0928 19:39:41.849125  5057 net.cpp:122] Setting up Scale20
I0928 19:39:41.849131  5057 net.cpp:129] Top shape: 100 32 14 14 (627200)
I0928 19:39:41.849133  5057 net.cpp:137] Memory required for data: 414893200
I0928 19:39:41.849138  5057 layer_factory.hpp:77] Creating layer Convolution21
I0928 19:39:41.849144  5057 net.cpp:84] Creating Layer Convolution21
I0928 19:39:41.849148  5057 net.cpp:406] Convolution21 <- Eltwise9_M2PELU19_0_split_1
I0928 19:39:41.849151  5057 net.cpp:380] Convolution21 -> Convolution21
I0928 19:39:41.850742  5057 net.cpp:122] Setting up Convolution21
I0928 19:39:41.850751  5057 net.cpp:129] Top shape: 100 32 14 14 (627200)
I0928 19:39:41.850754  5057 net.cpp:137] Memory required for data: 417402000
I0928 19:39:41.850759  5057 layer_factory.hpp:77] Creating layer BatchNorm21
I0928 19:39:41.850764  5057 net.cpp:84] Creating Layer BatchNorm21
I0928 19:39:41.850766  5057 net.cpp:406] BatchNorm21 <- Convolution21
I0928 19:39:41.850770  5057 net.cpp:367] BatchNorm21 -> Convolution21 (in-place)
I0928 19:39:41.850908  5057 net.cpp:122] Setting up BatchNorm21
I0928 19:39:41.850914  5057 net.cpp:129] Top shape: 100 32 14 14 (627200)
I0928 19:39:41.850922  5057 net.cpp:137] Memory required for data: 419910800
I0928 19:39:41.850929  5057 layer_factory.hpp:77] Creating layer Scale21
I0928 19:39:41.850932  5057 net.cpp:84] Creating Layer Scale21
I0928 19:39:41.850934  5057 net.cpp:406] Scale21 <- Convolution21
I0928 19:39:41.850939  5057 net.cpp:367] Scale21 -> Convolution21 (in-place)
I0928 19:39:41.850966  5057 layer_factory.hpp:77] Creating layer Scale21
I0928 19:39:41.851043  5057 net.cpp:122] Setting up Scale21
I0928 19:39:41.851058  5057 net.cpp:129] Top shape: 100 32 14 14 (627200)
I0928 19:39:41.851061  5057 net.cpp:137] Memory required for data: 422419600
I0928 19:39:41.851065  5057 layer_factory.hpp:77] Creating layer M2PELU20
I0928 19:39:41.851070  5057 net.cpp:84] Creating Layer M2PELU20
I0928 19:39:41.851073  5057 net.cpp:406] M2PELU20 <- Convolution21
I0928 19:39:41.851076  5057 net.cpp:367] M2PELU20 -> Convolution21 (in-place)
I0928 19:39:41.851172  5057 net.cpp:122] Setting up M2PELU20
I0928 19:39:41.851178  5057 net.cpp:129] Top shape: 100 32 14 14 (627200)
I0928 19:39:41.851181  5057 net.cpp:137] Memory required for data: 424928400
I0928 19:39:41.851196  5057 layer_factory.hpp:77] Creating layer Convolution22
I0928 19:39:41.851203  5057 net.cpp:84] Creating Layer Convolution22
I0928 19:39:41.851207  5057 net.cpp:406] Convolution22 <- Convolution21
I0928 19:39:41.851212  5057 net.cpp:380] Convolution22 -> Convolution22
I0928 19:39:41.852325  5057 net.cpp:122] Setting up Convolution22
I0928 19:39:41.852336  5057 net.cpp:129] Top shape: 100 32 14 14 (627200)
I0928 19:39:41.852339  5057 net.cpp:137] Memory required for data: 427437200
I0928 19:39:41.852355  5057 layer_factory.hpp:77] Creating layer BatchNorm22
I0928 19:39:41.852362  5057 net.cpp:84] Creating Layer BatchNorm22
I0928 19:39:41.852365  5057 net.cpp:406] BatchNorm22 <- Convolution22
I0928 19:39:41.852370  5057 net.cpp:367] BatchNorm22 -> Convolution22 (in-place)
I0928 19:39:41.852509  5057 net.cpp:122] Setting up BatchNorm22
I0928 19:39:41.852514  5057 net.cpp:129] Top shape: 100 32 14 14 (627200)
I0928 19:39:41.852516  5057 net.cpp:137] Memory required for data: 429946000
I0928 19:39:41.852521  5057 layer_factory.hpp:77] Creating layer Scale22
I0928 19:39:41.852525  5057 net.cpp:84] Creating Layer Scale22
I0928 19:39:41.852529  5057 net.cpp:406] Scale22 <- Convolution22
I0928 19:39:41.852532  5057 net.cpp:367] Scale22 -> Convolution22 (in-place)
I0928 19:39:41.852560  5057 layer_factory.hpp:77] Creating layer Scale22
I0928 19:39:41.852661  5057 net.cpp:122] Setting up Scale22
I0928 19:39:41.852677  5057 net.cpp:129] Top shape: 100 32 14 14 (627200)
I0928 19:39:41.852681  5057 net.cpp:137] Memory required for data: 432454800
I0928 19:39:41.852702  5057 layer_factory.hpp:77] Creating layer Eltwise10
I0928 19:39:41.852720  5057 net.cpp:84] Creating Layer Eltwise10
I0928 19:39:41.852723  5057 net.cpp:406] Eltwise10 <- Convolution20
I0928 19:39:41.852728  5057 net.cpp:406] Eltwise10 <- Convolution22
I0928 19:39:41.852735  5057 net.cpp:380] Eltwise10 -> Eltwise10
I0928 19:39:41.852772  5057 net.cpp:122] Setting up Eltwise10
I0928 19:39:41.852779  5057 net.cpp:129] Top shape: 100 32 14 14 (627200)
I0928 19:39:41.852782  5057 net.cpp:137] Memory required for data: 434963600
I0928 19:39:41.852784  5057 layer_factory.hpp:77] Creating layer M2PELU21
I0928 19:39:41.852789  5057 net.cpp:84] Creating Layer M2PELU21
I0928 19:39:41.852792  5057 net.cpp:406] M2PELU21 <- Eltwise10
I0928 19:39:41.852797  5057 net.cpp:367] M2PELU21 -> Eltwise10 (in-place)
I0928 19:39:41.852942  5057 net.cpp:122] Setting up M2PELU21
I0928 19:39:41.852946  5057 net.cpp:129] Top shape: 100 32 14 14 (627200)
I0928 19:39:41.852948  5057 net.cpp:137] Memory required for data: 437472400
I0928 19:39:41.852952  5057 layer_factory.hpp:77] Creating layer Eltwise10_M2PELU21_0_split
I0928 19:39:41.852957  5057 net.cpp:84] Creating Layer Eltwise10_M2PELU21_0_split
I0928 19:39:41.852959  5057 net.cpp:406] Eltwise10_M2PELU21_0_split <- Eltwise10
I0928 19:39:41.852962  5057 net.cpp:380] Eltwise10_M2PELU21_0_split -> Eltwise10_M2PELU21_0_split_0
I0928 19:39:41.852973  5057 net.cpp:380] Eltwise10_M2PELU21_0_split -> Eltwise10_M2PELU21_0_split_1
I0928 19:39:41.852998  5057 net.cpp:122] Setting up Eltwise10_M2PELU21_0_split
I0928 19:39:41.853003  5057 net.cpp:129] Top shape: 100 32 14 14 (627200)
I0928 19:39:41.853005  5057 net.cpp:129] Top shape: 100 32 14 14 (627200)
I0928 19:39:41.853008  5057 net.cpp:137] Memory required for data: 442490000
I0928 19:39:41.853009  5057 layer_factory.hpp:77] Creating layer Convolution23
I0928 19:39:41.853014  5057 net.cpp:84] Creating Layer Convolution23
I0928 19:39:41.853018  5057 net.cpp:406] Convolution23 <- Eltwise10_M2PELU21_0_split_0
I0928 19:39:41.853022  5057 net.cpp:380] Convolution23 -> Convolution23
I0928 19:39:41.854485  5057 net.cpp:122] Setting up Convolution23
I0928 19:39:41.854495  5057 net.cpp:129] Top shape: 100 32 14 14 (627200)
I0928 19:39:41.854497  5057 net.cpp:137] Memory required for data: 444998800
I0928 19:39:41.854501  5057 layer_factory.hpp:77] Creating layer BatchNorm23
I0928 19:39:41.854507  5057 net.cpp:84] Creating Layer BatchNorm23
I0928 19:39:41.854526  5057 net.cpp:406] BatchNorm23 <- Convolution23
I0928 19:39:41.854547  5057 net.cpp:367] BatchNorm23 -> Convolution23 (in-place)
I0928 19:39:41.854749  5057 net.cpp:122] Setting up BatchNorm23
I0928 19:39:41.854756  5057 net.cpp:129] Top shape: 100 32 14 14 (627200)
I0928 19:39:41.854768  5057 net.cpp:137] Memory required for data: 447507600
I0928 19:39:41.854773  5057 layer_factory.hpp:77] Creating layer Scale23
I0928 19:39:41.854789  5057 net.cpp:84] Creating Layer Scale23
I0928 19:39:41.854791  5057 net.cpp:406] Scale23 <- Convolution23
I0928 19:39:41.854794  5057 net.cpp:367] Scale23 -> Convolution23 (in-place)
I0928 19:39:41.854832  5057 layer_factory.hpp:77] Creating layer Scale23
I0928 19:39:41.854933  5057 net.cpp:122] Setting up Scale23
I0928 19:39:41.854939  5057 net.cpp:129] Top shape: 100 32 14 14 (627200)
I0928 19:39:41.854951  5057 net.cpp:137] Memory required for data: 450016400
I0928 19:39:41.854956  5057 layer_factory.hpp:77] Creating layer M2PELU22
I0928 19:39:41.854962  5057 net.cpp:84] Creating Layer M2PELU22
I0928 19:39:41.854965  5057 net.cpp:406] M2PELU22 <- Convolution23
I0928 19:39:41.854969  5057 net.cpp:367] M2PELU22 -> Convolution23 (in-place)
I0928 19:39:41.855072  5057 net.cpp:122] Setting up M2PELU22
I0928 19:39:41.855077  5057 net.cpp:129] Top shape: 100 32 14 14 (627200)
I0928 19:39:41.855089  5057 net.cpp:137] Memory required for data: 452525200
I0928 19:39:41.855093  5057 layer_factory.hpp:77] Creating layer Convolution24
I0928 19:39:41.855100  5057 net.cpp:84] Creating Layer Convolution24
I0928 19:39:41.855113  5057 net.cpp:406] Convolution24 <- Convolution23
I0928 19:39:41.855118  5057 net.cpp:380] Convolution24 -> Convolution24
I0928 19:39:41.856194  5057 net.cpp:122] Setting up Convolution24
I0928 19:39:41.856215  5057 net.cpp:129] Top shape: 100 32 14 14 (627200)
I0928 19:39:41.856217  5057 net.cpp:137] Memory required for data: 455034000
I0928 19:39:41.856221  5057 layer_factory.hpp:77] Creating layer BatchNorm24
I0928 19:39:41.856226  5057 net.cpp:84] Creating Layer BatchNorm24
I0928 19:39:41.856230  5057 net.cpp:406] BatchNorm24 <- Convolution24
I0928 19:39:41.856235  5057 net.cpp:367] BatchNorm24 -> Convolution24 (in-place)
I0928 19:39:41.856377  5057 net.cpp:122] Setting up BatchNorm24
I0928 19:39:41.856384  5057 net.cpp:129] Top shape: 100 32 14 14 (627200)
I0928 19:39:41.856395  5057 net.cpp:137] Memory required for data: 457542800
I0928 19:39:41.856400  5057 layer_factory.hpp:77] Creating layer Scale24
I0928 19:39:41.856405  5057 net.cpp:84] Creating Layer Scale24
I0928 19:39:41.856407  5057 net.cpp:406] Scale24 <- Convolution24
I0928 19:39:41.856410  5057 net.cpp:367] Scale24 -> Convolution24 (in-place)
I0928 19:39:41.856438  5057 layer_factory.hpp:77] Creating layer Scale24
I0928 19:39:41.856519  5057 net.cpp:122] Setting up Scale24
I0928 19:39:41.856524  5057 net.cpp:129] Top shape: 100 32 14 14 (627200)
I0928 19:39:41.856526  5057 net.cpp:137] Memory required for data: 460051600
I0928 19:39:41.856539  5057 layer_factory.hpp:77] Creating layer Eltwise11
I0928 19:39:41.856544  5057 net.cpp:84] Creating Layer Eltwise11
I0928 19:39:41.856547  5057 net.cpp:406] Eltwise11 <- Eltwise10_M2PELU21_0_split_1
I0928 19:39:41.856550  5057 net.cpp:406] Eltwise11 <- Convolution24
I0928 19:39:41.856554  5057 net.cpp:380] Eltwise11 -> Eltwise11
I0928 19:39:41.856573  5057 net.cpp:122] Setting up Eltwise11
I0928 19:39:41.856577  5057 net.cpp:129] Top shape: 100 32 14 14 (627200)
I0928 19:39:41.856580  5057 net.cpp:137] Memory required for data: 462560400
I0928 19:39:41.856582  5057 layer_factory.hpp:77] Creating layer M2PELU23
I0928 19:39:41.856588  5057 net.cpp:84] Creating Layer M2PELU23
I0928 19:39:41.856591  5057 net.cpp:406] M2PELU23 <- Eltwise11
I0928 19:39:41.856595  5057 net.cpp:367] M2PELU23 -> Eltwise11 (in-place)
I0928 19:39:41.856683  5057 net.cpp:122] Setting up M2PELU23
I0928 19:39:41.856688  5057 net.cpp:129] Top shape: 100 32 14 14 (627200)
I0928 19:39:41.856691  5057 net.cpp:137] Memory required for data: 465069200
I0928 19:39:41.856695  5057 layer_factory.hpp:77] Creating layer Eltwise11_M2PELU23_0_split
I0928 19:39:41.856699  5057 net.cpp:84] Creating Layer Eltwise11_M2PELU23_0_split
I0928 19:39:41.856703  5057 net.cpp:406] Eltwise11_M2PELU23_0_split <- Eltwise11
I0928 19:39:41.856706  5057 net.cpp:380] Eltwise11_M2PELU23_0_split -> Eltwise11_M2PELU23_0_split_0
I0928 19:39:41.856711  5057 net.cpp:380] Eltwise11_M2PELU23_0_split -> Eltwise11_M2PELU23_0_split_1
I0928 19:39:41.856744  5057 net.cpp:122] Setting up Eltwise11_M2PELU23_0_split
I0928 19:39:41.856750  5057 net.cpp:129] Top shape: 100 32 14 14 (627200)
I0928 19:39:41.856753  5057 net.cpp:129] Top shape: 100 32 14 14 (627200)
I0928 19:39:41.856756  5057 net.cpp:137] Memory required for data: 470086800
I0928 19:39:41.856758  5057 layer_factory.hpp:77] Creating layer Convolution25
I0928 19:39:41.856765  5057 net.cpp:84] Creating Layer Convolution25
I0928 19:39:41.856768  5057 net.cpp:406] Convolution25 <- Eltwise11_M2PELU23_0_split_0
I0928 19:39:41.856772  5057 net.cpp:380] Convolution25 -> Convolution25
I0928 19:39:41.857825  5057 net.cpp:122] Setting up Convolution25
I0928 19:39:41.857833  5057 net.cpp:129] Top shape: 100 32 14 14 (627200)
I0928 19:39:41.857836  5057 net.cpp:137] Memory required for data: 472595600
I0928 19:39:41.857839  5057 layer_factory.hpp:77] Creating layer BatchNorm25
I0928 19:39:41.857846  5057 net.cpp:84] Creating Layer BatchNorm25
I0928 19:39:41.857849  5057 net.cpp:406] BatchNorm25 <- Convolution25
I0928 19:39:41.857854  5057 net.cpp:367] BatchNorm25 -> Convolution25 (in-place)
I0928 19:39:41.857992  5057 net.cpp:122] Setting up BatchNorm25
I0928 19:39:41.857997  5057 net.cpp:129] Top shape: 100 32 14 14 (627200)
I0928 19:39:41.858000  5057 net.cpp:137] Memory required for data: 475104400
I0928 19:39:41.858005  5057 layer_factory.hpp:77] Creating layer Scale25
I0928 19:39:41.858009  5057 net.cpp:84] Creating Layer Scale25
I0928 19:39:41.858011  5057 net.cpp:406] Scale25 <- Convolution25
I0928 19:39:41.858014  5057 net.cpp:367] Scale25 -> Convolution25 (in-place)
I0928 19:39:41.858042  5057 layer_factory.hpp:77] Creating layer Scale25
I0928 19:39:41.858119  5057 net.cpp:122] Setting up Scale25
I0928 19:39:41.858124  5057 net.cpp:129] Top shape: 100 32 14 14 (627200)
I0928 19:39:41.858125  5057 net.cpp:137] Memory required for data: 477613200
I0928 19:39:41.858129  5057 layer_factory.hpp:77] Creating layer M2PELU24
I0928 19:39:41.858135  5057 net.cpp:84] Creating Layer M2PELU24
I0928 19:39:41.858137  5057 net.cpp:406] M2PELU24 <- Convolution25
I0928 19:39:41.858142  5057 net.cpp:367] M2PELU24 -> Convolution25 (in-place)
I0928 19:39:41.858225  5057 net.cpp:122] Setting up M2PELU24
I0928 19:39:41.858230  5057 net.cpp:129] Top shape: 100 32 14 14 (627200)
I0928 19:39:41.858232  5057 net.cpp:137] Memory required for data: 480122000
I0928 19:39:41.858237  5057 layer_factory.hpp:77] Creating layer Convolution26
I0928 19:39:41.858242  5057 net.cpp:84] Creating Layer Convolution26
I0928 19:39:41.858245  5057 net.cpp:406] Convolution26 <- Convolution25
I0928 19:39:41.858256  5057 net.cpp:380] Convolution26 -> Convolution26
I0928 19:39:41.859318  5057 net.cpp:122] Setting up Convolution26
I0928 19:39:41.859328  5057 net.cpp:129] Top shape: 100 32 14 14 (627200)
I0928 19:39:41.859331  5057 net.cpp:137] Memory required for data: 482630800
I0928 19:39:41.859335  5057 layer_factory.hpp:77] Creating layer BatchNorm26
I0928 19:39:41.859340  5057 net.cpp:84] Creating Layer BatchNorm26
I0928 19:39:41.859344  5057 net.cpp:406] BatchNorm26 <- Convolution26
I0928 19:39:41.859347  5057 net.cpp:367] BatchNorm26 -> Convolution26 (in-place)
I0928 19:39:41.859484  5057 net.cpp:122] Setting up BatchNorm26
I0928 19:39:41.859489  5057 net.cpp:129] Top shape: 100 32 14 14 (627200)
I0928 19:39:41.859491  5057 net.cpp:137] Memory required for data: 485139600
I0928 19:39:41.859496  5057 layer_factory.hpp:77] Creating layer Scale26
I0928 19:39:41.859500  5057 net.cpp:84] Creating Layer Scale26
I0928 19:39:41.859503  5057 net.cpp:406] Scale26 <- Convolution26
I0928 19:39:41.859505  5057 net.cpp:367] Scale26 -> Convolution26 (in-place)
I0928 19:39:41.859532  5057 layer_factory.hpp:77] Creating layer Scale26
I0928 19:39:41.859609  5057 net.cpp:122] Setting up Scale26
I0928 19:39:41.859614  5057 net.cpp:129] Top shape: 100 32 14 14 (627200)
I0928 19:39:41.859616  5057 net.cpp:137] Memory required for data: 487648400
I0928 19:39:41.859621  5057 layer_factory.hpp:77] Creating layer Eltwise12
I0928 19:39:41.859624  5057 net.cpp:84] Creating Layer Eltwise12
I0928 19:39:41.859627  5057 net.cpp:406] Eltwise12 <- Eltwise11_M2PELU23_0_split_1
I0928 19:39:41.859630  5057 net.cpp:406] Eltwise12 <- Convolution26
I0928 19:39:41.859634  5057 net.cpp:380] Eltwise12 -> Eltwise12
I0928 19:39:41.859652  5057 net.cpp:122] Setting up Eltwise12
I0928 19:39:41.859657  5057 net.cpp:129] Top shape: 100 32 14 14 (627200)
I0928 19:39:41.859658  5057 net.cpp:137] Memory required for data: 490157200
I0928 19:39:41.859660  5057 layer_factory.hpp:77] Creating layer M2PELU25
I0928 19:39:41.859665  5057 net.cpp:84] Creating Layer M2PELU25
I0928 19:39:41.859668  5057 net.cpp:406] M2PELU25 <- Eltwise12
I0928 19:39:41.859673  5057 net.cpp:367] M2PELU25 -> Eltwise12 (in-place)
I0928 19:39:41.859760  5057 net.cpp:122] Setting up M2PELU25
I0928 19:39:41.859764  5057 net.cpp:129] Top shape: 100 32 14 14 (627200)
I0928 19:39:41.859766  5057 net.cpp:137] Memory required for data: 492666000
I0928 19:39:41.859771  5057 layer_factory.hpp:77] Creating layer Eltwise12_M2PELU25_0_split
I0928 19:39:41.859773  5057 net.cpp:84] Creating Layer Eltwise12_M2PELU25_0_split
I0928 19:39:41.859776  5057 net.cpp:406] Eltwise12_M2PELU25_0_split <- Eltwise12
I0928 19:39:41.859781  5057 net.cpp:380] Eltwise12_M2PELU25_0_split -> Eltwise12_M2PELU25_0_split_0
I0928 19:39:41.859789  5057 net.cpp:380] Eltwise12_M2PELU25_0_split -> Eltwise12_M2PELU25_0_split_1
I0928 19:39:41.859814  5057 net.cpp:122] Setting up Eltwise12_M2PELU25_0_split
I0928 19:39:41.859819  5057 net.cpp:129] Top shape: 100 32 14 14 (627200)
I0928 19:39:41.859822  5057 net.cpp:129] Top shape: 100 32 14 14 (627200)
I0928 19:39:41.859824  5057 net.cpp:137] Memory required for data: 497683600
I0928 19:39:41.859827  5057 layer_factory.hpp:77] Creating layer Convolution27
I0928 19:39:41.859832  5057 net.cpp:84] Creating Layer Convolution27
I0928 19:39:41.859834  5057 net.cpp:406] Convolution27 <- Eltwise12_M2PELU25_0_split_0
I0928 19:39:41.859839  5057 net.cpp:380] Convolution27 -> Convolution27
I0928 19:39:41.860560  5057 net.cpp:122] Setting up Convolution27
I0928 19:39:41.860568  5057 net.cpp:129] Top shape: 100 32 14 14 (627200)
I0928 19:39:41.860570  5057 net.cpp:137] Memory required for data: 500192400
I0928 19:39:41.860574  5057 layer_factory.hpp:77] Creating layer BatchNorm27
I0928 19:39:41.860580  5057 net.cpp:84] Creating Layer BatchNorm27
I0928 19:39:41.860584  5057 net.cpp:406] BatchNorm27 <- Convolution27
I0928 19:39:41.860589  5057 net.cpp:367] BatchNorm27 -> Convolution27 (in-place)
I0928 19:39:41.860723  5057 net.cpp:122] Setting up BatchNorm27
I0928 19:39:41.860734  5057 net.cpp:129] Top shape: 100 32 14 14 (627200)
I0928 19:39:41.860738  5057 net.cpp:137] Memory required for data: 502701200
I0928 19:39:41.860743  5057 layer_factory.hpp:77] Creating layer Scale27
I0928 19:39:41.860747  5057 net.cpp:84] Creating Layer Scale27
I0928 19:39:41.860750  5057 net.cpp:406] Scale27 <- Convolution27
I0928 19:39:41.860754  5057 net.cpp:367] Scale27 -> Convolution27 (in-place)
I0928 19:39:41.860781  5057 layer_factory.hpp:77] Creating layer Scale27
I0928 19:39:41.860858  5057 net.cpp:122] Setting up Scale27
I0928 19:39:41.860863  5057 net.cpp:129] Top shape: 100 32 14 14 (627200)
I0928 19:39:41.860865  5057 net.cpp:137] Memory required for data: 505210000
I0928 19:39:41.860869  5057 layer_factory.hpp:77] Creating layer M2PELU26
I0928 19:39:41.860873  5057 net.cpp:84] Creating Layer M2PELU26
I0928 19:39:41.860877  5057 net.cpp:406] M2PELU26 <- Convolution27
I0928 19:39:41.860880  5057 net.cpp:367] M2PELU26 -> Convolution27 (in-place)
I0928 19:39:41.860962  5057 net.cpp:122] Setting up M2PELU26
I0928 19:39:41.860968  5057 net.cpp:129] Top shape: 100 32 14 14 (627200)
I0928 19:39:41.860971  5057 net.cpp:137] Memory required for data: 507718800
I0928 19:39:41.860975  5057 layer_factory.hpp:77] Creating layer Convolution28
I0928 19:39:41.860980  5057 net.cpp:84] Creating Layer Convolution28
I0928 19:39:41.860982  5057 net.cpp:406] Convolution28 <- Convolution27
I0928 19:39:41.860987  5057 net.cpp:380] Convolution28 -> Convolution28
I0928 19:39:41.862036  5057 net.cpp:122] Setting up Convolution28
I0928 19:39:41.862046  5057 net.cpp:129] Top shape: 100 32 14 14 (627200)
I0928 19:39:41.862047  5057 net.cpp:137] Memory required for data: 510227600
I0928 19:39:41.862052  5057 layer_factory.hpp:77] Creating layer BatchNorm28
I0928 19:39:41.862057  5057 net.cpp:84] Creating Layer BatchNorm28
I0928 19:39:41.862061  5057 net.cpp:406] BatchNorm28 <- Convolution28
I0928 19:39:41.862064  5057 net.cpp:367] BatchNorm28 -> Convolution28 (in-place)
I0928 19:39:41.862201  5057 net.cpp:122] Setting up BatchNorm28
I0928 19:39:41.862206  5057 net.cpp:129] Top shape: 100 32 14 14 (627200)
I0928 19:39:41.862210  5057 net.cpp:137] Memory required for data: 512736400
I0928 19:39:41.862213  5057 layer_factory.hpp:77] Creating layer Scale28
I0928 19:39:41.862217  5057 net.cpp:84] Creating Layer Scale28
I0928 19:39:41.862221  5057 net.cpp:406] Scale28 <- Convolution28
I0928 19:39:41.862223  5057 net.cpp:367] Scale28 -> Convolution28 (in-place)
I0928 19:39:41.862251  5057 layer_factory.hpp:77] Creating layer Scale28
I0928 19:39:41.862329  5057 net.cpp:122] Setting up Scale28
I0928 19:39:41.862334  5057 net.cpp:129] Top shape: 100 32 14 14 (627200)
I0928 19:39:41.862336  5057 net.cpp:137] Memory required for data: 515245200
I0928 19:39:41.862340  5057 layer_factory.hpp:77] Creating layer Eltwise13
I0928 19:39:41.862344  5057 net.cpp:84] Creating Layer Eltwise13
I0928 19:39:41.862347  5057 net.cpp:406] Eltwise13 <- Eltwise12_M2PELU25_0_split_1
I0928 19:39:41.862349  5057 net.cpp:406] Eltwise13 <- Convolution28
I0928 19:39:41.862354  5057 net.cpp:380] Eltwise13 -> Eltwise13
I0928 19:39:41.862370  5057 net.cpp:122] Setting up Eltwise13
I0928 19:39:41.862375  5057 net.cpp:129] Top shape: 100 32 14 14 (627200)
I0928 19:39:41.862376  5057 net.cpp:137] Memory required for data: 517754000
I0928 19:39:41.862378  5057 layer_factory.hpp:77] Creating layer M2PELU27
I0928 19:39:41.862383  5057 net.cpp:84] Creating Layer M2PELU27
I0928 19:39:41.862386  5057 net.cpp:406] M2PELU27 <- Eltwise13
I0928 19:39:41.862390  5057 net.cpp:367] M2PELU27 -> Eltwise13 (in-place)
I0928 19:39:41.862473  5057 net.cpp:122] Setting up M2PELU27
I0928 19:39:41.862478  5057 net.cpp:129] Top shape: 100 32 14 14 (627200)
I0928 19:39:41.862480  5057 net.cpp:137] Memory required for data: 520262800
I0928 19:39:41.862483  5057 layer_factory.hpp:77] Creating layer Eltwise13_M2PELU27_0_split
I0928 19:39:41.862488  5057 net.cpp:84] Creating Layer Eltwise13_M2PELU27_0_split
I0928 19:39:41.862489  5057 net.cpp:406] Eltwise13_M2PELU27_0_split <- Eltwise13
I0928 19:39:41.862499  5057 net.cpp:380] Eltwise13_M2PELU27_0_split -> Eltwise13_M2PELU27_0_split_0
I0928 19:39:41.862505  5057 net.cpp:380] Eltwise13_M2PELU27_0_split -> Eltwise13_M2PELU27_0_split_1
I0928 19:39:41.862541  5057 net.cpp:122] Setting up Eltwise13_M2PELU27_0_split
I0928 19:39:41.862547  5057 net.cpp:129] Top shape: 100 32 14 14 (627200)
I0928 19:39:41.862550  5057 net.cpp:129] Top shape: 100 32 14 14 (627200)
I0928 19:39:41.862552  5057 net.cpp:137] Memory required for data: 525280400
I0928 19:39:41.862555  5057 layer_factory.hpp:77] Creating layer Convolution29
I0928 19:39:41.862561  5057 net.cpp:84] Creating Layer Convolution29
I0928 19:39:41.862565  5057 net.cpp:406] Convolution29 <- Eltwise13_M2PELU27_0_split_0
I0928 19:39:41.862568  5057 net.cpp:380] Convolution29 -> Convolution29
I0928 19:39:41.863618  5057 net.cpp:122] Setting up Convolution29
I0928 19:39:41.863627  5057 net.cpp:129] Top shape: 100 32 14 14 (627200)
I0928 19:39:41.863629  5057 net.cpp:137] Memory required for data: 527789200
I0928 19:39:41.863634  5057 layer_factory.hpp:77] Creating layer BatchNorm29
I0928 19:39:41.863639  5057 net.cpp:84] Creating Layer BatchNorm29
I0928 19:39:41.863642  5057 net.cpp:406] BatchNorm29 <- Convolution29
I0928 19:39:41.863647  5057 net.cpp:367] BatchNorm29 -> Convolution29 (in-place)
I0928 19:39:41.863783  5057 net.cpp:122] Setting up BatchNorm29
I0928 19:39:41.863787  5057 net.cpp:129] Top shape: 100 32 14 14 (627200)
I0928 19:39:41.863790  5057 net.cpp:137] Memory required for data: 530298000
I0928 19:39:41.863795  5057 layer_factory.hpp:77] Creating layer Scale29
I0928 19:39:41.863800  5057 net.cpp:84] Creating Layer Scale29
I0928 19:39:41.863802  5057 net.cpp:406] Scale29 <- Convolution29
I0928 19:39:41.863806  5057 net.cpp:367] Scale29 -> Convolution29 (in-place)
I0928 19:39:41.863833  5057 layer_factory.hpp:77] Creating layer Scale29
I0928 19:39:41.863912  5057 net.cpp:122] Setting up Scale29
I0928 19:39:41.863917  5057 net.cpp:129] Top shape: 100 32 14 14 (627200)
I0928 19:39:41.863919  5057 net.cpp:137] Memory required for data: 532806800
I0928 19:39:41.863924  5057 layer_factory.hpp:77] Creating layer M2PELU28
I0928 19:39:41.863929  5057 net.cpp:84] Creating Layer M2PELU28
I0928 19:39:41.863931  5057 net.cpp:406] M2PELU28 <- Convolution29
I0928 19:39:41.863935  5057 net.cpp:367] M2PELU28 -> Convolution29 (in-place)
I0928 19:39:41.864019  5057 net.cpp:122] Setting up M2PELU28
I0928 19:39:41.864024  5057 net.cpp:129] Top shape: 100 32 14 14 (627200)
I0928 19:39:41.864027  5057 net.cpp:137] Memory required for data: 535315600
I0928 19:39:41.864030  5057 layer_factory.hpp:77] Creating layer Convolution30
I0928 19:39:41.864037  5057 net.cpp:84] Creating Layer Convolution30
I0928 19:39:41.864038  5057 net.cpp:406] Convolution30 <- Convolution29
I0928 19:39:41.864044  5057 net.cpp:380] Convolution30 -> Convolution30
I0928 19:39:41.865093  5057 net.cpp:122] Setting up Convolution30
I0928 19:39:41.865103  5057 net.cpp:129] Top shape: 100 32 14 14 (627200)
I0928 19:39:41.865104  5057 net.cpp:137] Memory required for data: 537824400
I0928 19:39:41.865109  5057 layer_factory.hpp:77] Creating layer BatchNorm30
I0928 19:39:41.865114  5057 net.cpp:84] Creating Layer BatchNorm30
I0928 19:39:41.865118  5057 net.cpp:406] BatchNorm30 <- Convolution30
I0928 19:39:41.865121  5057 net.cpp:367] BatchNorm30 -> Convolution30 (in-place)
I0928 19:39:41.865260  5057 net.cpp:122] Setting up BatchNorm30
I0928 19:39:41.865265  5057 net.cpp:129] Top shape: 100 32 14 14 (627200)
I0928 19:39:41.865267  5057 net.cpp:137] Memory required for data: 540333200
I0928 19:39:41.865272  5057 layer_factory.hpp:77] Creating layer Scale30
I0928 19:39:41.865276  5057 net.cpp:84] Creating Layer Scale30
I0928 19:39:41.865278  5057 net.cpp:406] Scale30 <- Convolution30
I0928 19:39:41.865281  5057 net.cpp:367] Scale30 -> Convolution30 (in-place)
I0928 19:39:41.865309  5057 layer_factory.hpp:77] Creating layer Scale30
I0928 19:39:41.865387  5057 net.cpp:122] Setting up Scale30
I0928 19:39:41.865393  5057 net.cpp:129] Top shape: 100 32 14 14 (627200)
I0928 19:39:41.865402  5057 net.cpp:137] Memory required for data: 542842000
I0928 19:39:41.865407  5057 layer_factory.hpp:77] Creating layer Eltwise14
I0928 19:39:41.865411  5057 net.cpp:84] Creating Layer Eltwise14
I0928 19:39:41.865414  5057 net.cpp:406] Eltwise14 <- Eltwise13_M2PELU27_0_split_1
I0928 19:39:41.865417  5057 net.cpp:406] Eltwise14 <- Convolution30
I0928 19:39:41.865420  5057 net.cpp:380] Eltwise14 -> Eltwise14
I0928 19:39:41.865438  5057 net.cpp:122] Setting up Eltwise14
I0928 19:39:41.865442  5057 net.cpp:129] Top shape: 100 32 14 14 (627200)
I0928 19:39:41.865444  5057 net.cpp:137] Memory required for data: 545350800
I0928 19:39:41.865447  5057 layer_factory.hpp:77] Creating layer M2PELU29
I0928 19:39:41.865451  5057 net.cpp:84] Creating Layer M2PELU29
I0928 19:39:41.865454  5057 net.cpp:406] M2PELU29 <- Eltwise14
I0928 19:39:41.865458  5057 net.cpp:367] M2PELU29 -> Eltwise14 (in-place)
I0928 19:39:41.865545  5057 net.cpp:122] Setting up M2PELU29
I0928 19:39:41.865550  5057 net.cpp:129] Top shape: 100 32 14 14 (627200)
I0928 19:39:41.865551  5057 net.cpp:137] Memory required for data: 547859600
I0928 19:39:41.865555  5057 layer_factory.hpp:77] Creating layer Eltwise14_M2PELU29_0_split
I0928 19:39:41.865558  5057 net.cpp:84] Creating Layer Eltwise14_M2PELU29_0_split
I0928 19:39:41.865561  5057 net.cpp:406] Eltwise14_M2PELU29_0_split <- Eltwise14
I0928 19:39:41.865564  5057 net.cpp:380] Eltwise14_M2PELU29_0_split -> Eltwise14_M2PELU29_0_split_0
I0928 19:39:41.865569  5057 net.cpp:380] Eltwise14_M2PELU29_0_split -> Eltwise14_M2PELU29_0_split_1
I0928 19:39:41.865593  5057 net.cpp:122] Setting up Eltwise14_M2PELU29_0_split
I0928 19:39:41.865597  5057 net.cpp:129] Top shape: 100 32 14 14 (627200)
I0928 19:39:41.865600  5057 net.cpp:129] Top shape: 100 32 14 14 (627200)
I0928 19:39:41.865602  5057 net.cpp:137] Memory required for data: 552877200
I0928 19:39:41.865604  5057 layer_factory.hpp:77] Creating layer Convolution31
I0928 19:39:41.865610  5057 net.cpp:84] Creating Layer Convolution31
I0928 19:39:41.865613  5057 net.cpp:406] Convolution31 <- Eltwise14_M2PELU29_0_split_0
I0928 19:39:41.865617  5057 net.cpp:380] Convolution31 -> Convolution31
I0928 19:39:41.866686  5057 net.cpp:122] Setting up Convolution31
I0928 19:39:41.866695  5057 net.cpp:129] Top shape: 100 32 14 14 (627200)
I0928 19:39:41.866698  5057 net.cpp:137] Memory required for data: 555386000
I0928 19:39:41.866703  5057 layer_factory.hpp:77] Creating layer BatchNorm31
I0928 19:39:41.866708  5057 net.cpp:84] Creating Layer BatchNorm31
I0928 19:39:41.866710  5057 net.cpp:406] BatchNorm31 <- Convolution31
I0928 19:39:41.866714  5057 net.cpp:367] BatchNorm31 -> Convolution31 (in-place)
I0928 19:39:41.866854  5057 net.cpp:122] Setting up BatchNorm31
I0928 19:39:41.866859  5057 net.cpp:129] Top shape: 100 32 14 14 (627200)
I0928 19:39:41.866861  5057 net.cpp:137] Memory required for data: 557894800
I0928 19:39:41.866866  5057 layer_factory.hpp:77] Creating layer Scale31
I0928 19:39:41.866870  5057 net.cpp:84] Creating Layer Scale31
I0928 19:39:41.866873  5057 net.cpp:406] Scale31 <- Convolution31
I0928 19:39:41.866876  5057 net.cpp:367] Scale31 -> Convolution31 (in-place)
I0928 19:39:41.866904  5057 layer_factory.hpp:77] Creating layer Scale31
I0928 19:39:41.866986  5057 net.cpp:122] Setting up Scale31
I0928 19:39:41.866991  5057 net.cpp:129] Top shape: 100 32 14 14 (627200)
I0928 19:39:41.866992  5057 net.cpp:137] Memory required for data: 560403600
I0928 19:39:41.866997  5057 layer_factory.hpp:77] Creating layer M2PELU30
I0928 19:39:41.867008  5057 net.cpp:84] Creating Layer M2PELU30
I0928 19:39:41.867012  5057 net.cpp:406] M2PELU30 <- Convolution31
I0928 19:39:41.867015  5057 net.cpp:367] M2PELU30 -> Convolution31 (in-place)
I0928 19:39:41.867103  5057 net.cpp:122] Setting up M2PELU30
I0928 19:39:41.867108  5057 net.cpp:129] Top shape: 100 32 14 14 (627200)
I0928 19:39:41.867110  5057 net.cpp:137] Memory required for data: 562912400
I0928 19:39:41.867115  5057 layer_factory.hpp:77] Creating layer Convolution32
I0928 19:39:41.867128  5057 net.cpp:84] Creating Layer Convolution32
I0928 19:39:41.867131  5057 net.cpp:406] Convolution32 <- Convolution31
I0928 19:39:41.867136  5057 net.cpp:380] Convolution32 -> Convolution32
I0928 19:39:41.868196  5057 net.cpp:122] Setting up Convolution32
I0928 19:39:41.868204  5057 net.cpp:129] Top shape: 100 32 14 14 (627200)
I0928 19:39:41.868207  5057 net.cpp:137] Memory required for data: 565421200
I0928 19:39:41.868211  5057 layer_factory.hpp:77] Creating layer BatchNorm32
I0928 19:39:41.868217  5057 net.cpp:84] Creating Layer BatchNorm32
I0928 19:39:41.868221  5057 net.cpp:406] BatchNorm32 <- Convolution32
I0928 19:39:41.868224  5057 net.cpp:367] BatchNorm32 -> Convolution32 (in-place)
I0928 19:39:41.868362  5057 net.cpp:122] Setting up BatchNorm32
I0928 19:39:41.868367  5057 net.cpp:129] Top shape: 100 32 14 14 (627200)
I0928 19:39:41.868369  5057 net.cpp:137] Memory required for data: 567930000
I0928 19:39:41.868374  5057 layer_factory.hpp:77] Creating layer Scale32
I0928 19:39:41.868378  5057 net.cpp:84] Creating Layer Scale32
I0928 19:39:41.868381  5057 net.cpp:406] Scale32 <- Convolution32
I0928 19:39:41.868383  5057 net.cpp:367] Scale32 -> Convolution32 (in-place)
I0928 19:39:41.868412  5057 layer_factory.hpp:77] Creating layer Scale32
I0928 19:39:41.868490  5057 net.cpp:122] Setting up Scale32
I0928 19:39:41.868495  5057 net.cpp:129] Top shape: 100 32 14 14 (627200)
I0928 19:39:41.868497  5057 net.cpp:137] Memory required for data: 570438800
I0928 19:39:41.868501  5057 layer_factory.hpp:77] Creating layer Eltwise15
I0928 19:39:41.868506  5057 net.cpp:84] Creating Layer Eltwise15
I0928 19:39:41.868510  5057 net.cpp:406] Eltwise15 <- Eltwise14_M2PELU29_0_split_1
I0928 19:39:41.868512  5057 net.cpp:406] Eltwise15 <- Convolution32
I0928 19:39:41.868515  5057 net.cpp:380] Eltwise15 -> Eltwise15
I0928 19:39:41.868532  5057 net.cpp:122] Setting up Eltwise15
I0928 19:39:41.868537  5057 net.cpp:129] Top shape: 100 32 14 14 (627200)
I0928 19:39:41.868540  5057 net.cpp:137] Memory required for data: 572947600
I0928 19:39:41.868541  5057 layer_factory.hpp:77] Creating layer M2PELU31
I0928 19:39:41.868546  5057 net.cpp:84] Creating Layer M2PELU31
I0928 19:39:41.868549  5057 net.cpp:406] M2PELU31 <- Eltwise15
I0928 19:39:41.868552  5057 net.cpp:367] M2PELU31 -> Eltwise15 (in-place)
I0928 19:39:41.868638  5057 net.cpp:122] Setting up M2PELU31
I0928 19:39:41.868644  5057 net.cpp:129] Top shape: 100 32 14 14 (627200)
I0928 19:39:41.868646  5057 net.cpp:137] Memory required for data: 575456400
I0928 19:39:41.868650  5057 layer_factory.hpp:77] Creating layer Eltwise15_M2PELU31_0_split
I0928 19:39:41.868654  5057 net.cpp:84] Creating Layer Eltwise15_M2PELU31_0_split
I0928 19:39:41.868656  5057 net.cpp:406] Eltwise15_M2PELU31_0_split <- Eltwise15
I0928 19:39:41.868659  5057 net.cpp:380] Eltwise15_M2PELU31_0_split -> Eltwise15_M2PELU31_0_split_0
I0928 19:39:41.868664  5057 net.cpp:380] Eltwise15_M2PELU31_0_split -> Eltwise15_M2PELU31_0_split_1
I0928 19:39:41.868688  5057 net.cpp:122] Setting up Eltwise15_M2PELU31_0_split
I0928 19:39:41.868692  5057 net.cpp:129] Top shape: 100 32 14 14 (627200)
I0928 19:39:41.868695  5057 net.cpp:129] Top shape: 100 32 14 14 (627200)
I0928 19:39:41.868697  5057 net.cpp:137] Memory required for data: 580474000
I0928 19:39:41.868700  5057 layer_factory.hpp:77] Creating layer Convolution33
I0928 19:39:41.868706  5057 net.cpp:84] Creating Layer Convolution33
I0928 19:39:41.868710  5057 net.cpp:406] Convolution33 <- Eltwise15_M2PELU31_0_split_0
I0928 19:39:41.868713  5057 net.cpp:380] Convolution33 -> Convolution33
I0928 19:39:41.870086  5057 net.cpp:122] Setting up Convolution33
I0928 19:39:41.870095  5057 net.cpp:129] Top shape: 100 32 14 14 (627200)
I0928 19:39:41.870097  5057 net.cpp:137] Memory required for data: 582982800
I0928 19:39:41.870102  5057 layer_factory.hpp:77] Creating layer BatchNorm33
I0928 19:39:41.870107  5057 net.cpp:84] Creating Layer BatchNorm33
I0928 19:39:41.870110  5057 net.cpp:406] BatchNorm33 <- Convolution33
I0928 19:39:41.870115  5057 net.cpp:367] BatchNorm33 -> Convolution33 (in-place)
I0928 19:39:41.870266  5057 net.cpp:122] Setting up BatchNorm33
I0928 19:39:41.870271  5057 net.cpp:129] Top shape: 100 32 14 14 (627200)
I0928 19:39:41.870273  5057 net.cpp:137] Memory required for data: 585491600
I0928 19:39:41.870278  5057 layer_factory.hpp:77] Creating layer Scale33
I0928 19:39:41.870282  5057 net.cpp:84] Creating Layer Scale33
I0928 19:39:41.870285  5057 net.cpp:406] Scale33 <- Convolution33
I0928 19:39:41.870288  5057 net.cpp:367] Scale33 -> Convolution33 (in-place)
I0928 19:39:41.870317  5057 layer_factory.hpp:77] Creating layer Scale33
I0928 19:39:41.870396  5057 net.cpp:122] Setting up Scale33
I0928 19:39:41.870400  5057 net.cpp:129] Top shape: 100 32 14 14 (627200)
I0928 19:39:41.870402  5057 net.cpp:137] Memory required for data: 588000400
I0928 19:39:41.870406  5057 layer_factory.hpp:77] Creating layer M2PELU32
I0928 19:39:41.870412  5057 net.cpp:84] Creating Layer M2PELU32
I0928 19:39:41.870415  5057 net.cpp:406] M2PELU32 <- Convolution33
I0928 19:39:41.870419  5057 net.cpp:367] M2PELU32 -> Convolution33 (in-place)
I0928 19:39:41.870507  5057 net.cpp:122] Setting up M2PELU32
I0928 19:39:41.870510  5057 net.cpp:129] Top shape: 100 32 14 14 (627200)
I0928 19:39:41.870512  5057 net.cpp:137] Memory required for data: 590509200
I0928 19:39:41.870517  5057 layer_factory.hpp:77] Creating layer Convolution34
I0928 19:39:41.870532  5057 net.cpp:84] Creating Layer Convolution34
I0928 19:39:41.870537  5057 net.cpp:406] Convolution34 <- Convolution33
I0928 19:39:41.870542  5057 net.cpp:380] Convolution34 -> Convolution34
I0928 19:39:41.871634  5057 net.cpp:122] Setting up Convolution34
I0928 19:39:41.871642  5057 net.cpp:129] Top shape: 100 32 14 14 (627200)
I0928 19:39:41.871644  5057 net.cpp:137] Memory required for data: 593018000
I0928 19:39:41.871649  5057 layer_factory.hpp:77] Creating layer BatchNorm34
I0928 19:39:41.871654  5057 net.cpp:84] Creating Layer BatchNorm34
I0928 19:39:41.871657  5057 net.cpp:406] BatchNorm34 <- Convolution34
I0928 19:39:41.871661  5057 net.cpp:367] BatchNorm34 -> Convolution34 (in-place)
I0928 19:39:41.871801  5057 net.cpp:122] Setting up BatchNorm34
I0928 19:39:41.871806  5057 net.cpp:129] Top shape: 100 32 14 14 (627200)
I0928 19:39:41.871809  5057 net.cpp:137] Memory required for data: 595526800
I0928 19:39:41.871814  5057 layer_factory.hpp:77] Creating layer Scale34
I0928 19:39:41.871819  5057 net.cpp:84] Creating Layer Scale34
I0928 19:39:41.871820  5057 net.cpp:406] Scale34 <- Convolution34
I0928 19:39:41.871824  5057 net.cpp:367] Scale34 -> Convolution34 (in-place)
I0928 19:39:41.871851  5057 layer_factory.hpp:77] Creating layer Scale34
I0928 19:39:41.871934  5057 net.cpp:122] Setting up Scale34
I0928 19:39:41.871938  5057 net.cpp:129] Top shape: 100 32 14 14 (627200)
I0928 19:39:41.871940  5057 net.cpp:137] Memory required for data: 598035600
I0928 19:39:41.871944  5057 layer_factory.hpp:77] Creating layer Eltwise16
I0928 19:39:41.871950  5057 net.cpp:84] Creating Layer Eltwise16
I0928 19:39:41.871953  5057 net.cpp:406] Eltwise16 <- Eltwise15_M2PELU31_0_split_1
I0928 19:39:41.871956  5057 net.cpp:406] Eltwise16 <- Convolution34
I0928 19:39:41.871960  5057 net.cpp:380] Eltwise16 -> Eltwise16
I0928 19:39:41.871978  5057 net.cpp:122] Setting up Eltwise16
I0928 19:39:41.871981  5057 net.cpp:129] Top shape: 100 32 14 14 (627200)
I0928 19:39:41.871984  5057 net.cpp:137] Memory required for data: 600544400
I0928 19:39:41.871986  5057 layer_factory.hpp:77] Creating layer M2PELU33
I0928 19:39:41.871991  5057 net.cpp:84] Creating Layer M2PELU33
I0928 19:39:41.871994  5057 net.cpp:406] M2PELU33 <- Eltwise16
I0928 19:39:41.871997  5057 net.cpp:367] M2PELU33 -> Eltwise16 (in-place)
I0928 19:39:41.872086  5057 net.cpp:122] Setting up M2PELU33
I0928 19:39:41.872089  5057 net.cpp:129] Top shape: 100 32 14 14 (627200)
I0928 19:39:41.872092  5057 net.cpp:137] Memory required for data: 603053200
I0928 19:39:41.872095  5057 layer_factory.hpp:77] Creating layer Eltwise16_M2PELU33_0_split
I0928 19:39:41.872099  5057 net.cpp:84] Creating Layer Eltwise16_M2PELU33_0_split
I0928 19:39:41.872109  5057 net.cpp:406] Eltwise16_M2PELU33_0_split <- Eltwise16
I0928 19:39:41.872113  5057 net.cpp:380] Eltwise16_M2PELU33_0_split -> Eltwise16_M2PELU33_0_split_0
I0928 19:39:41.872118  5057 net.cpp:380] Eltwise16_M2PELU33_0_split -> Eltwise16_M2PELU33_0_split_1
I0928 19:39:41.872144  5057 net.cpp:122] Setting up Eltwise16_M2PELU33_0_split
I0928 19:39:41.872148  5057 net.cpp:129] Top shape: 100 32 14 14 (627200)
I0928 19:39:41.872151  5057 net.cpp:129] Top shape: 100 32 14 14 (627200)
I0928 19:39:41.872153  5057 net.cpp:137] Memory required for data: 608070800
I0928 19:39:41.872155  5057 layer_factory.hpp:77] Creating layer Convolution35
I0928 19:39:41.872160  5057 net.cpp:84] Creating Layer Convolution35
I0928 19:39:41.872164  5057 net.cpp:406] Convolution35 <- Eltwise16_M2PELU33_0_split_0
I0928 19:39:41.872169  5057 net.cpp:380] Convolution35 -> Convolution35
I0928 19:39:41.873234  5057 net.cpp:122] Setting up Convolution35
I0928 19:39:41.873242  5057 net.cpp:129] Top shape: 100 32 14 14 (627200)
I0928 19:39:41.873245  5057 net.cpp:137] Memory required for data: 610579600
I0928 19:39:41.873250  5057 layer_factory.hpp:77] Creating layer BatchNorm35
I0928 19:39:41.873255  5057 net.cpp:84] Creating Layer BatchNorm35
I0928 19:39:41.873258  5057 net.cpp:406] BatchNorm35 <- Convolution35
I0928 19:39:41.873263  5057 net.cpp:367] BatchNorm35 -> Convolution35 (in-place)
I0928 19:39:41.873404  5057 net.cpp:122] Setting up BatchNorm35
I0928 19:39:41.873409  5057 net.cpp:129] Top shape: 100 32 14 14 (627200)
I0928 19:39:41.873411  5057 net.cpp:137] Memory required for data: 613088400
I0928 19:39:41.873416  5057 layer_factory.hpp:77] Creating layer Scale35
I0928 19:39:41.873420  5057 net.cpp:84] Creating Layer Scale35
I0928 19:39:41.873422  5057 net.cpp:406] Scale35 <- Convolution35
I0928 19:39:41.873425  5057 net.cpp:367] Scale35 -> Convolution35 (in-place)
I0928 19:39:41.873453  5057 layer_factory.hpp:77] Creating layer Scale35
I0928 19:39:41.873533  5057 net.cpp:122] Setting up Scale35
I0928 19:39:41.873538  5057 net.cpp:129] Top shape: 100 32 14 14 (627200)
I0928 19:39:41.873540  5057 net.cpp:137] Memory required for data: 615597200
I0928 19:39:41.873543  5057 layer_factory.hpp:77] Creating layer M2PELU34
I0928 19:39:41.873548  5057 net.cpp:84] Creating Layer M2PELU34
I0928 19:39:41.873550  5057 net.cpp:406] M2PELU34 <- Convolution35
I0928 19:39:41.873554  5057 net.cpp:367] M2PELU34 -> Convolution35 (in-place)
I0928 19:39:41.873643  5057 net.cpp:122] Setting up M2PELU34
I0928 19:39:41.873647  5057 net.cpp:129] Top shape: 100 32 14 14 (627200)
I0928 19:39:41.873651  5057 net.cpp:137] Memory required for data: 618106000
I0928 19:39:41.873653  5057 layer_factory.hpp:77] Creating layer Convolution36
I0928 19:39:41.873661  5057 net.cpp:84] Creating Layer Convolution36
I0928 19:39:41.873666  5057 net.cpp:406] Convolution36 <- Convolution35
I0928 19:39:41.873669  5057 net.cpp:380] Convolution36 -> Convolution36
I0928 19:39:41.874742  5057 net.cpp:122] Setting up Convolution36
I0928 19:39:41.874752  5057 net.cpp:129] Top shape: 100 32 14 14 (627200)
I0928 19:39:41.874753  5057 net.cpp:137] Memory required for data: 620614800
I0928 19:39:41.874758  5057 layer_factory.hpp:77] Creating layer BatchNorm36
I0928 19:39:41.874763  5057 net.cpp:84] Creating Layer BatchNorm36
I0928 19:39:41.874766  5057 net.cpp:406] BatchNorm36 <- Convolution36
I0928 19:39:41.874770  5057 net.cpp:367] BatchNorm36 -> Convolution36 (in-place)
I0928 19:39:41.874917  5057 net.cpp:122] Setting up BatchNorm36
I0928 19:39:41.874922  5057 net.cpp:129] Top shape: 100 32 14 14 (627200)
I0928 19:39:41.874923  5057 net.cpp:137] Memory required for data: 623123600
I0928 19:39:41.874945  5057 layer_factory.hpp:77] Creating layer Scale36
I0928 19:39:41.874950  5057 net.cpp:84] Creating Layer Scale36
I0928 19:39:41.874953  5057 net.cpp:406] Scale36 <- Convolution36
I0928 19:39:41.874956  5057 net.cpp:367] Scale36 -> Convolution36 (in-place)
I0928 19:39:41.874987  5057 layer_factory.hpp:77] Creating layer Scale36
I0928 19:39:41.875068  5057 net.cpp:122] Setting up Scale36
I0928 19:39:41.875080  5057 net.cpp:129] Top shape: 100 32 14 14 (627200)
I0928 19:39:41.875083  5057 net.cpp:137] Memory required for data: 625632400
I0928 19:39:41.875087  5057 layer_factory.hpp:77] Creating layer Eltwise17
I0928 19:39:41.875092  5057 net.cpp:84] Creating Layer Eltwise17
I0928 19:39:41.875094  5057 net.cpp:406] Eltwise17 <- Eltwise16_M2PELU33_0_split_1
I0928 19:39:41.875097  5057 net.cpp:406] Eltwise17 <- Convolution36
I0928 19:39:41.875100  5057 net.cpp:380] Eltwise17 -> Eltwise17
I0928 19:39:41.875119  5057 net.cpp:122] Setting up Eltwise17
I0928 19:39:41.875123  5057 net.cpp:129] Top shape: 100 32 14 14 (627200)
I0928 19:39:41.875125  5057 net.cpp:137] Memory required for data: 628141200
I0928 19:39:41.875128  5057 layer_factory.hpp:77] Creating layer M2PELU35
I0928 19:39:41.875133  5057 net.cpp:84] Creating Layer M2PELU35
I0928 19:39:41.875136  5057 net.cpp:406] M2PELU35 <- Eltwise17
I0928 19:39:41.875139  5057 net.cpp:367] M2PELU35 -> Eltwise17 (in-place)
I0928 19:39:41.875231  5057 net.cpp:122] Setting up M2PELU35
I0928 19:39:41.875234  5057 net.cpp:129] Top shape: 100 32 14 14 (627200)
I0928 19:39:41.875236  5057 net.cpp:137] Memory required for data: 630650000
I0928 19:39:41.875241  5057 layer_factory.hpp:77] Creating layer Eltwise17_M2PELU35_0_split
I0928 19:39:41.875244  5057 net.cpp:84] Creating Layer Eltwise17_M2PELU35_0_split
I0928 19:39:41.875247  5057 net.cpp:406] Eltwise17_M2PELU35_0_split <- Eltwise17
I0928 19:39:41.875250  5057 net.cpp:380] Eltwise17_M2PELU35_0_split -> Eltwise17_M2PELU35_0_split_0
I0928 19:39:41.875254  5057 net.cpp:380] Eltwise17_M2PELU35_0_split -> Eltwise17_M2PELU35_0_split_1
I0928 19:39:41.875280  5057 net.cpp:122] Setting up Eltwise17_M2PELU35_0_split
I0928 19:39:41.875284  5057 net.cpp:129] Top shape: 100 32 14 14 (627200)
I0928 19:39:41.875288  5057 net.cpp:129] Top shape: 100 32 14 14 (627200)
I0928 19:39:41.875289  5057 net.cpp:137] Memory required for data: 635667600
I0928 19:39:41.875291  5057 layer_factory.hpp:77] Creating layer Convolution37
I0928 19:39:41.875298  5057 net.cpp:84] Creating Layer Convolution37
I0928 19:39:41.875301  5057 net.cpp:406] Convolution37 <- Eltwise17_M2PELU35_0_split_0
I0928 19:39:41.875305  5057 net.cpp:380] Convolution37 -> Convolution37
I0928 19:39:41.876046  5057 net.cpp:122] Setting up Convolution37
I0928 19:39:41.876055  5057 net.cpp:129] Top shape: 100 32 14 14 (627200)
I0928 19:39:41.876057  5057 net.cpp:137] Memory required for data: 638176400
I0928 19:39:41.876061  5057 layer_factory.hpp:77] Creating layer BatchNorm37
I0928 19:39:41.876066  5057 net.cpp:84] Creating Layer BatchNorm37
I0928 19:39:41.876068  5057 net.cpp:406] BatchNorm37 <- Convolution37
I0928 19:39:41.876073  5057 net.cpp:367] BatchNorm37 -> Convolution37 (in-place)
I0928 19:39:41.876216  5057 net.cpp:122] Setting up BatchNorm37
I0928 19:39:41.876221  5057 net.cpp:129] Top shape: 100 32 14 14 (627200)
I0928 19:39:41.876224  5057 net.cpp:137] Memory required for data: 640685200
I0928 19:39:41.876227  5057 layer_factory.hpp:77] Creating layer Scale37
I0928 19:39:41.876231  5057 net.cpp:84] Creating Layer Scale37
I0928 19:39:41.876235  5057 net.cpp:406] Scale37 <- Convolution37
I0928 19:39:41.876237  5057 net.cpp:367] Scale37 -> Convolution37 (in-place)
I0928 19:39:41.876265  5057 layer_factory.hpp:77] Creating layer Scale37
I0928 19:39:41.876346  5057 net.cpp:122] Setting up Scale37
I0928 19:39:41.876350  5057 net.cpp:129] Top shape: 100 32 14 14 (627200)
I0928 19:39:41.876353  5057 net.cpp:137] Memory required for data: 643194000
I0928 19:39:41.876356  5057 layer_factory.hpp:77] Creating layer M2PELU36
I0928 19:39:41.876361  5057 net.cpp:84] Creating Layer M2PELU36
I0928 19:39:41.876363  5057 net.cpp:406] M2PELU36 <- Convolution37
I0928 19:39:41.876368  5057 net.cpp:367] M2PELU36 -> Convolution37 (in-place)
I0928 19:39:41.876458  5057 net.cpp:122] Setting up M2PELU36
I0928 19:39:41.876463  5057 net.cpp:129] Top shape: 100 32 14 14 (627200)
I0928 19:39:41.876466  5057 net.cpp:137] Memory required for data: 645702800
I0928 19:39:41.876476  5057 layer_factory.hpp:77] Creating layer Convolution38
I0928 19:39:41.876483  5057 net.cpp:84] Creating Layer Convolution38
I0928 19:39:41.876485  5057 net.cpp:406] Convolution38 <- Convolution37
I0928 19:39:41.876489  5057 net.cpp:380] Convolution38 -> Convolution38
I0928 19:39:41.877595  5057 net.cpp:122] Setting up Convolution38
I0928 19:39:41.877604  5057 net.cpp:129] Top shape: 100 32 14 14 (627200)
I0928 19:39:41.877606  5057 net.cpp:137] Memory required for data: 648211600
I0928 19:39:41.877610  5057 layer_factory.hpp:77] Creating layer BatchNorm38
I0928 19:39:41.877616  5057 net.cpp:84] Creating Layer BatchNorm38
I0928 19:39:41.877619  5057 net.cpp:406] BatchNorm38 <- Convolution38
I0928 19:39:41.877622  5057 net.cpp:367] BatchNorm38 -> Convolution38 (in-place)
I0928 19:39:41.877765  5057 net.cpp:122] Setting up BatchNorm38
I0928 19:39:41.877769  5057 net.cpp:129] Top shape: 100 32 14 14 (627200)
I0928 19:39:41.877773  5057 net.cpp:137] Memory required for data: 650720400
I0928 19:39:41.877776  5057 layer_factory.hpp:77] Creating layer Scale38
I0928 19:39:41.877781  5057 net.cpp:84] Creating Layer Scale38
I0928 19:39:41.877784  5057 net.cpp:406] Scale38 <- Convolution38
I0928 19:39:41.877797  5057 net.cpp:367] Scale38 -> Convolution38 (in-place)
I0928 19:39:41.877835  5057 layer_factory.hpp:77] Creating layer Scale38
I0928 19:39:41.877916  5057 net.cpp:122] Setting up Scale38
I0928 19:39:41.877921  5057 net.cpp:129] Top shape: 100 32 14 14 (627200)
I0928 19:39:41.877923  5057 net.cpp:137] Memory required for data: 653229200
I0928 19:39:41.877926  5057 layer_factory.hpp:77] Creating layer Eltwise18
I0928 19:39:41.877931  5057 net.cpp:84] Creating Layer Eltwise18
I0928 19:39:41.877934  5057 net.cpp:406] Eltwise18 <- Eltwise17_M2PELU35_0_split_1
I0928 19:39:41.877938  5057 net.cpp:406] Eltwise18 <- Convolution38
I0928 19:39:41.877940  5057 net.cpp:380] Eltwise18 -> Eltwise18
I0928 19:39:41.877959  5057 net.cpp:122] Setting up Eltwise18
I0928 19:39:41.877962  5057 net.cpp:129] Top shape: 100 32 14 14 (627200)
I0928 19:39:41.877964  5057 net.cpp:137] Memory required for data: 655738000
I0928 19:39:41.877966  5057 layer_factory.hpp:77] Creating layer M2PELU37
I0928 19:39:41.877972  5057 net.cpp:84] Creating Layer M2PELU37
I0928 19:39:41.877974  5057 net.cpp:406] M2PELU37 <- Eltwise18
I0928 19:39:41.877979  5057 net.cpp:367] M2PELU37 -> Eltwise18 (in-place)
I0928 19:39:41.878068  5057 net.cpp:122] Setting up M2PELU37
I0928 19:39:41.878072  5057 net.cpp:129] Top shape: 100 32 14 14 (627200)
I0928 19:39:41.878074  5057 net.cpp:137] Memory required for data: 658246800
I0928 19:39:41.878078  5057 layer_factory.hpp:77] Creating layer Eltwise18_M2PELU37_0_split
I0928 19:39:41.878082  5057 net.cpp:84] Creating Layer Eltwise18_M2PELU37_0_split
I0928 19:39:41.878084  5057 net.cpp:406] Eltwise18_M2PELU37_0_split <- Eltwise18
I0928 19:39:41.878087  5057 net.cpp:380] Eltwise18_M2PELU37_0_split -> Eltwise18_M2PELU37_0_split_0
I0928 19:39:41.878093  5057 net.cpp:380] Eltwise18_M2PELU37_0_split -> Eltwise18_M2PELU37_0_split_1
I0928 19:39:41.878118  5057 net.cpp:122] Setting up Eltwise18_M2PELU37_0_split
I0928 19:39:41.878121  5057 net.cpp:129] Top shape: 100 32 14 14 (627200)
I0928 19:39:41.878124  5057 net.cpp:129] Top shape: 100 32 14 14 (627200)
I0928 19:39:41.878126  5057 net.cpp:137] Memory required for data: 663264400
I0928 19:39:41.878129  5057 layer_factory.hpp:77] Creating layer Convolution39
I0928 19:39:41.878134  5057 net.cpp:84] Creating Layer Convolution39
I0928 19:39:41.878136  5057 net.cpp:406] Convolution39 <- Eltwise18_M2PELU37_0_split_0
I0928 19:39:41.878141  5057 net.cpp:380] Convolution39 -> Convolution39
I0928 19:39:41.879065  5057 net.cpp:122] Setting up Convolution39
I0928 19:39:41.879075  5057 net.cpp:129] Top shape: 100 64 7 7 (313600)
I0928 19:39:41.879078  5057 net.cpp:137] Memory required for data: 664518800
I0928 19:39:41.879082  5057 layer_factory.hpp:77] Creating layer BatchNorm39
I0928 19:39:41.879087  5057 net.cpp:84] Creating Layer BatchNorm39
I0928 19:39:41.879089  5057 net.cpp:406] BatchNorm39 <- Convolution39
I0928 19:39:41.879101  5057 net.cpp:367] BatchNorm39 -> Convolution39 (in-place)
I0928 19:39:41.879242  5057 net.cpp:122] Setting up BatchNorm39
I0928 19:39:41.879247  5057 net.cpp:129] Top shape: 100 64 7 7 (313600)
I0928 19:39:41.879250  5057 net.cpp:137] Memory required for data: 665773200
I0928 19:39:41.879254  5057 layer_factory.hpp:77] Creating layer Scale39
I0928 19:39:41.879258  5057 net.cpp:84] Creating Layer Scale39
I0928 19:39:41.879261  5057 net.cpp:406] Scale39 <- Convolution39
I0928 19:39:41.879263  5057 net.cpp:367] Scale39 -> Convolution39 (in-place)
I0928 19:39:41.879292  5057 layer_factory.hpp:77] Creating layer Scale39
I0928 19:39:41.879371  5057 net.cpp:122] Setting up Scale39
I0928 19:39:41.879376  5057 net.cpp:129] Top shape: 100 64 7 7 (313600)
I0928 19:39:41.879379  5057 net.cpp:137] Memory required for data: 667027600
I0928 19:39:41.879382  5057 layer_factory.hpp:77] Creating layer Convolution40
I0928 19:39:41.879389  5057 net.cpp:84] Creating Layer Convolution40
I0928 19:39:41.879391  5057 net.cpp:406] Convolution40 <- Eltwise18_M2PELU37_0_split_1
I0928 19:39:41.879396  5057 net.cpp:380] Convolution40 -> Convolution40
I0928 19:39:41.881134  5057 net.cpp:122] Setting up Convolution40
I0928 19:39:41.881145  5057 net.cpp:129] Top shape: 100 64 7 7 (313600)
I0928 19:39:41.881147  5057 net.cpp:137] Memory required for data: 668282000
I0928 19:39:41.881152  5057 layer_factory.hpp:77] Creating layer BatchNorm40
I0928 19:39:41.881156  5057 net.cpp:84] Creating Layer BatchNorm40
I0928 19:39:41.881160  5057 net.cpp:406] BatchNorm40 <- Convolution40
I0928 19:39:41.881165  5057 net.cpp:367] BatchNorm40 -> Convolution40 (in-place)
I0928 19:39:41.881302  5057 net.cpp:122] Setting up BatchNorm40
I0928 19:39:41.881307  5057 net.cpp:129] Top shape: 100 64 7 7 (313600)
I0928 19:39:41.881309  5057 net.cpp:137] Memory required for data: 669536400
I0928 19:39:41.881314  5057 layer_factory.hpp:77] Creating layer Scale40
I0928 19:39:41.881317  5057 net.cpp:84] Creating Layer Scale40
I0928 19:39:41.881320  5057 net.cpp:406] Scale40 <- Convolution40
I0928 19:39:41.881323  5057 net.cpp:367] Scale40 -> Convolution40 (in-place)
I0928 19:39:41.881350  5057 layer_factory.hpp:77] Creating layer Scale40
I0928 19:39:41.881429  5057 net.cpp:122] Setting up Scale40
I0928 19:39:41.881434  5057 net.cpp:129] Top shape: 100 64 7 7 (313600)
I0928 19:39:41.881436  5057 net.cpp:137] Memory required for data: 670790800
I0928 19:39:41.881439  5057 layer_factory.hpp:77] Creating layer M2PELU38
I0928 19:39:41.881444  5057 net.cpp:84] Creating Layer M2PELU38
I0928 19:39:41.881446  5057 net.cpp:406] M2PELU38 <- Convolution40
I0928 19:39:41.881451  5057 net.cpp:367] M2PELU38 -> Convolution40 (in-place)
I0928 19:39:41.881536  5057 net.cpp:122] Setting up M2PELU38
I0928 19:39:41.881541  5057 net.cpp:129] Top shape: 100 64 7 7 (313600)
I0928 19:39:41.881543  5057 net.cpp:137] Memory required for data: 672045200
I0928 19:39:41.881547  5057 layer_factory.hpp:77] Creating layer Convolution41
I0928 19:39:41.881554  5057 net.cpp:84] Creating Layer Convolution41
I0928 19:39:41.881556  5057 net.cpp:406] Convolution41 <- Convolution40
I0928 19:39:41.881561  5057 net.cpp:380] Convolution41 -> Convolution41
I0928 19:39:41.883507  5057 net.cpp:122] Setting up Convolution41
I0928 19:39:41.883517  5057 net.cpp:129] Top shape: 100 64 7 7 (313600)
I0928 19:39:41.883519  5057 net.cpp:137] Memory required for data: 673299600
I0928 19:39:41.883524  5057 layer_factory.hpp:77] Creating layer BatchNorm41
I0928 19:39:41.883528  5057 net.cpp:84] Creating Layer BatchNorm41
I0928 19:39:41.883532  5057 net.cpp:406] BatchNorm41 <- Convolution41
I0928 19:39:41.883535  5057 net.cpp:367] BatchNorm41 -> Convolution41 (in-place)
I0928 19:39:41.883678  5057 net.cpp:122] Setting up BatchNorm41
I0928 19:39:41.883683  5057 net.cpp:129] Top shape: 100 64 7 7 (313600)
I0928 19:39:41.883685  5057 net.cpp:137] Memory required for data: 674554000
I0928 19:39:41.883690  5057 layer_factory.hpp:77] Creating layer Scale41
I0928 19:39:41.883694  5057 net.cpp:84] Creating Layer Scale41
I0928 19:39:41.883703  5057 net.cpp:406] Scale41 <- Convolution41
I0928 19:39:41.883708  5057 net.cpp:367] Scale41 -> Convolution41 (in-place)
I0928 19:39:41.883736  5057 layer_factory.hpp:77] Creating layer Scale41
I0928 19:39:41.883852  5057 net.cpp:122] Setting up Scale41
I0928 19:39:41.883857  5057 net.cpp:129] Top shape: 100 64 7 7 (313600)
I0928 19:39:41.883859  5057 net.cpp:137] Memory required for data: 675808400
I0928 19:39:41.883863  5057 layer_factory.hpp:77] Creating layer Eltwise19
I0928 19:39:41.883867  5057 net.cpp:84] Creating Layer Eltwise19
I0928 19:39:41.883880  5057 net.cpp:406] Eltwise19 <- Convolution39
I0928 19:39:41.883883  5057 net.cpp:406] Eltwise19 <- Convolution41
I0928 19:39:41.883886  5057 net.cpp:380] Eltwise19 -> Eltwise19
I0928 19:39:41.883906  5057 net.cpp:122] Setting up Eltwise19
I0928 19:39:41.883910  5057 net.cpp:129] Top shape: 100 64 7 7 (313600)
I0928 19:39:41.883913  5057 net.cpp:137] Memory required for data: 677062800
I0928 19:39:41.883915  5057 layer_factory.hpp:77] Creating layer M2PELU39
I0928 19:39:41.883920  5057 net.cpp:84] Creating Layer M2PELU39
I0928 19:39:41.883924  5057 net.cpp:406] M2PELU39 <- Eltwise19
I0928 19:39:41.883927  5057 net.cpp:367] M2PELU39 -> Eltwise19 (in-place)
I0928 19:39:41.884021  5057 net.cpp:122] Setting up M2PELU39
I0928 19:39:41.884024  5057 net.cpp:129] Top shape: 100 64 7 7 (313600)
I0928 19:39:41.884027  5057 net.cpp:137] Memory required for data: 678317200
I0928 19:39:41.884030  5057 layer_factory.hpp:77] Creating layer Eltwise19_M2PELU39_0_split
I0928 19:39:41.884034  5057 net.cpp:84] Creating Layer Eltwise19_M2PELU39_0_split
I0928 19:39:41.884037  5057 net.cpp:406] Eltwise19_M2PELU39_0_split <- Eltwise19
I0928 19:39:41.884042  5057 net.cpp:380] Eltwise19_M2PELU39_0_split -> Eltwise19_M2PELU39_0_split_0
I0928 19:39:41.884047  5057 net.cpp:380] Eltwise19_M2PELU39_0_split -> Eltwise19_M2PELU39_0_split_1
I0928 19:39:41.884073  5057 net.cpp:122] Setting up Eltwise19_M2PELU39_0_split
I0928 19:39:41.884078  5057 net.cpp:129] Top shape: 100 64 7 7 (313600)
I0928 19:39:41.884080  5057 net.cpp:129] Top shape: 100 64 7 7 (313600)
I0928 19:39:41.884083  5057 net.cpp:137] Memory required for data: 680826000
I0928 19:39:41.884084  5057 layer_factory.hpp:77] Creating layer Convolution42
I0928 19:39:41.884090  5057 net.cpp:84] Creating Layer Convolution42
I0928 19:39:41.884093  5057 net.cpp:406] Convolution42 <- Eltwise19_M2PELU39_0_split_0
I0928 19:39:41.884097  5057 net.cpp:380] Convolution42 -> Convolution42
I0928 19:39:41.885867  5057 net.cpp:122] Setting up Convolution42
I0928 19:39:41.885876  5057 net.cpp:129] Top shape: 100 64 7 7 (313600)
I0928 19:39:41.885879  5057 net.cpp:137] Memory required for data: 682080400
I0928 19:39:41.885884  5057 layer_factory.hpp:77] Creating layer BatchNorm42
I0928 19:39:41.885890  5057 net.cpp:84] Creating Layer BatchNorm42
I0928 19:39:41.885892  5057 net.cpp:406] BatchNorm42 <- Convolution42
I0928 19:39:41.885896  5057 net.cpp:367] BatchNorm42 -> Convolution42 (in-place)
I0928 19:39:41.886039  5057 net.cpp:122] Setting up BatchNorm42
I0928 19:39:41.886044  5057 net.cpp:129] Top shape: 100 64 7 7 (313600)
I0928 19:39:41.886046  5057 net.cpp:137] Memory required for data: 683334800
I0928 19:39:41.886052  5057 layer_factory.hpp:77] Creating layer Scale42
I0928 19:39:41.886056  5057 net.cpp:84] Creating Layer Scale42
I0928 19:39:41.886059  5057 net.cpp:406] Scale42 <- Convolution42
I0928 19:39:41.886062  5057 net.cpp:367] Scale42 -> Convolution42 (in-place)
I0928 19:39:41.886091  5057 layer_factory.hpp:77] Creating layer Scale42
I0928 19:39:41.886174  5057 net.cpp:122] Setting up Scale42
I0928 19:39:41.886179  5057 net.cpp:129] Top shape: 100 64 7 7 (313600)
I0928 19:39:41.886183  5057 net.cpp:137] Memory required for data: 684589200
I0928 19:39:41.886185  5057 layer_factory.hpp:77] Creating layer M2PELU40
I0928 19:39:41.886191  5057 net.cpp:84] Creating Layer M2PELU40
I0928 19:39:41.886194  5057 net.cpp:406] M2PELU40 <- Convolution42
I0928 19:39:41.886198  5057 net.cpp:367] M2PELU40 -> Convolution42 (in-place)
I0928 19:39:41.886325  5057 net.cpp:122] Setting up M2PELU40
I0928 19:39:41.886332  5057 net.cpp:129] Top shape: 100 64 7 7 (313600)
I0928 19:39:41.886333  5057 net.cpp:137] Memory required for data: 685843600
I0928 19:39:41.886337  5057 layer_factory.hpp:77] Creating layer Convolution43
I0928 19:39:41.886344  5057 net.cpp:84] Creating Layer Convolution43
I0928 19:39:41.886348  5057 net.cpp:406] Convolution43 <- Convolution42
I0928 19:39:41.886353  5057 net.cpp:380] Convolution43 -> Convolution43
I0928 19:39:41.888793  5057 net.cpp:122] Setting up Convolution43
I0928 19:39:41.888803  5057 net.cpp:129] Top shape: 100 64 7 7 (313600)
I0928 19:39:41.888805  5057 net.cpp:137] Memory required for data: 687098000
I0928 19:39:41.888809  5057 layer_factory.hpp:77] Creating layer BatchNorm43
I0928 19:39:41.888815  5057 net.cpp:84] Creating Layer BatchNorm43
I0928 19:39:41.888818  5057 net.cpp:406] BatchNorm43 <- Convolution43
I0928 19:39:41.888823  5057 net.cpp:367] BatchNorm43 -> Convolution43 (in-place)
I0928 19:39:41.888967  5057 net.cpp:122] Setting up BatchNorm43
I0928 19:39:41.888972  5057 net.cpp:129] Top shape: 100 64 7 7 (313600)
I0928 19:39:41.888974  5057 net.cpp:137] Memory required for data: 688352400
I0928 19:39:41.888979  5057 layer_factory.hpp:77] Creating layer Scale43
I0928 19:39:41.888984  5057 net.cpp:84] Creating Layer Scale43
I0928 19:39:41.888988  5057 net.cpp:406] Scale43 <- Convolution43
I0928 19:39:41.888990  5057 net.cpp:367] Scale43 -> Convolution43 (in-place)
I0928 19:39:41.889019  5057 layer_factory.hpp:77] Creating layer Scale43
I0928 19:39:41.889101  5057 net.cpp:122] Setting up Scale43
I0928 19:39:41.889106  5057 net.cpp:129] Top shape: 100 64 7 7 (313600)
I0928 19:39:41.889107  5057 net.cpp:137] Memory required for data: 689606800
I0928 19:39:41.889111  5057 layer_factory.hpp:77] Creating layer Eltwise20
I0928 19:39:41.889117  5057 net.cpp:84] Creating Layer Eltwise20
I0928 19:39:41.889119  5057 net.cpp:406] Eltwise20 <- Eltwise19_M2PELU39_0_split_1
I0928 19:39:41.889122  5057 net.cpp:406] Eltwise20 <- Convolution43
I0928 19:39:41.889127  5057 net.cpp:380] Eltwise20 -> Eltwise20
I0928 19:39:41.889144  5057 net.cpp:122] Setting up Eltwise20
I0928 19:39:41.889148  5057 net.cpp:129] Top shape: 100 64 7 7 (313600)
I0928 19:39:41.889150  5057 net.cpp:137] Memory required for data: 690861200
I0928 19:39:41.889153  5057 layer_factory.hpp:77] Creating layer M2PELU41
I0928 19:39:41.889158  5057 net.cpp:84] Creating Layer M2PELU41
I0928 19:39:41.889160  5057 net.cpp:406] M2PELU41 <- Eltwise20
I0928 19:39:41.889163  5057 net.cpp:367] M2PELU41 -> Eltwise20 (in-place)
I0928 19:39:41.889251  5057 net.cpp:122] Setting up M2PELU41
I0928 19:39:41.889256  5057 net.cpp:129] Top shape: 100 64 7 7 (313600)
I0928 19:39:41.889258  5057 net.cpp:137] Memory required for data: 692115600
I0928 19:39:41.889262  5057 layer_factory.hpp:77] Creating layer Eltwise20_M2PELU41_0_split
I0928 19:39:41.889266  5057 net.cpp:84] Creating Layer Eltwise20_M2PELU41_0_split
I0928 19:39:41.889269  5057 net.cpp:406] Eltwise20_M2PELU41_0_split <- Eltwise20
I0928 19:39:41.889272  5057 net.cpp:380] Eltwise20_M2PELU41_0_split -> Eltwise20_M2PELU41_0_split_0
I0928 19:39:41.889276  5057 net.cpp:380] Eltwise20_M2PELU41_0_split -> Eltwise20_M2PELU41_0_split_1
I0928 19:39:41.889302  5057 net.cpp:122] Setting up Eltwise20_M2PELU41_0_split
I0928 19:39:41.889305  5057 net.cpp:129] Top shape: 100 64 7 7 (313600)
I0928 19:39:41.889308  5057 net.cpp:129] Top shape: 100 64 7 7 (313600)
I0928 19:39:41.889309  5057 net.cpp:137] Memory required for data: 694624400
I0928 19:39:41.889312  5057 layer_factory.hpp:77] Creating layer Convolution44
I0928 19:39:41.889318  5057 net.cpp:84] Creating Layer Convolution44
I0928 19:39:41.889320  5057 net.cpp:406] Convolution44 <- Eltwise20_M2PELU41_0_split_0
I0928 19:39:41.889324  5057 net.cpp:380] Convolution44 -> Convolution44
I0928 19:39:41.890992  5057 net.cpp:122] Setting up Convolution44
I0928 19:39:41.891002  5057 net.cpp:129] Top shape: 100 64 7 7 (313600)
I0928 19:39:41.891005  5057 net.cpp:137] Memory required for data: 695878800
I0928 19:39:41.891016  5057 layer_factory.hpp:77] Creating layer BatchNorm44
I0928 19:39:41.891022  5057 net.cpp:84] Creating Layer BatchNorm44
I0928 19:39:41.891024  5057 net.cpp:406] BatchNorm44 <- Convolution44
I0928 19:39:41.891029  5057 net.cpp:367] BatchNorm44 -> Convolution44 (in-place)
I0928 19:39:41.891170  5057 net.cpp:122] Setting up BatchNorm44
I0928 19:39:41.891175  5057 net.cpp:129] Top shape: 100 64 7 7 (313600)
I0928 19:39:41.891177  5057 net.cpp:137] Memory required for data: 697133200
I0928 19:39:41.891182  5057 layer_factory.hpp:77] Creating layer Scale44
I0928 19:39:41.891186  5057 net.cpp:84] Creating Layer Scale44
I0928 19:39:41.891188  5057 net.cpp:406] Scale44 <- Convolution44
I0928 19:39:41.891192  5057 net.cpp:367] Scale44 -> Convolution44 (in-place)
I0928 19:39:41.891221  5057 layer_factory.hpp:77] Creating layer Scale44
I0928 19:39:41.891301  5057 net.cpp:122] Setting up Scale44
I0928 19:39:41.891306  5057 net.cpp:129] Top shape: 100 64 7 7 (313600)
I0928 19:39:41.891309  5057 net.cpp:137] Memory required for data: 698387600
I0928 19:39:41.891314  5057 layer_factory.hpp:77] Creating layer M2PELU42
I0928 19:39:41.891317  5057 net.cpp:84] Creating Layer M2PELU42
I0928 19:39:41.891320  5057 net.cpp:406] M2PELU42 <- Convolution44
I0928 19:39:41.891324  5057 net.cpp:367] M2PELU42 -> Convolution44 (in-place)
I0928 19:39:41.891414  5057 net.cpp:122] Setting up M2PELU42
I0928 19:39:41.891418  5057 net.cpp:129] Top shape: 100 64 7 7 (313600)
I0928 19:39:41.891420  5057 net.cpp:137] Memory required for data: 699642000
I0928 19:39:41.891424  5057 layer_factory.hpp:77] Creating layer Convolution45
I0928 19:39:41.891432  5057 net.cpp:84] Creating Layer Convolution45
I0928 19:39:41.891433  5057 net.cpp:406] Convolution45 <- Convolution44
I0928 19:39:41.891438  5057 net.cpp:380] Convolution45 -> Convolution45
I0928 19:39:41.893388  5057 net.cpp:122] Setting up Convolution45
I0928 19:39:41.893398  5057 net.cpp:129] Top shape: 100 64 7 7 (313600)
I0928 19:39:41.893399  5057 net.cpp:137] Memory required for data: 700896400
I0928 19:39:41.893404  5057 layer_factory.hpp:77] Creating layer BatchNorm45
I0928 19:39:41.893409  5057 net.cpp:84] Creating Layer BatchNorm45
I0928 19:39:41.893412  5057 net.cpp:406] BatchNorm45 <- Convolution45
I0928 19:39:41.893416  5057 net.cpp:367] BatchNorm45 -> Convolution45 (in-place)
I0928 19:39:41.893561  5057 net.cpp:122] Setting up BatchNorm45
I0928 19:39:41.893566  5057 net.cpp:129] Top shape: 100 64 7 7 (313600)
I0928 19:39:41.893568  5057 net.cpp:137] Memory required for data: 702150800
I0928 19:39:41.893573  5057 layer_factory.hpp:77] Creating layer Scale45
I0928 19:39:41.893577  5057 net.cpp:84] Creating Layer Scale45
I0928 19:39:41.893580  5057 net.cpp:406] Scale45 <- Convolution45
I0928 19:39:41.893584  5057 net.cpp:367] Scale45 -> Convolution45 (in-place)
I0928 19:39:41.893612  5057 layer_factory.hpp:77] Creating layer Scale45
I0928 19:39:41.893695  5057 net.cpp:122] Setting up Scale45
I0928 19:39:41.893700  5057 net.cpp:129] Top shape: 100 64 7 7 (313600)
I0928 19:39:41.893702  5057 net.cpp:137] Memory required for data: 703405200
I0928 19:39:41.893707  5057 layer_factory.hpp:77] Creating layer Eltwise21
I0928 19:39:41.893710  5057 net.cpp:84] Creating Layer Eltwise21
I0928 19:39:41.893713  5057 net.cpp:406] Eltwise21 <- Eltwise20_M2PELU41_0_split_1
I0928 19:39:41.893717  5057 net.cpp:406] Eltwise21 <- Convolution45
I0928 19:39:41.893719  5057 net.cpp:380] Eltwise21 -> Eltwise21
I0928 19:39:41.893738  5057 net.cpp:122] Setting up Eltwise21
I0928 19:39:41.893743  5057 net.cpp:129] Top shape: 100 64 7 7 (313600)
I0928 19:39:41.893744  5057 net.cpp:137] Memory required for data: 704659600
I0928 19:39:41.893746  5057 layer_factory.hpp:77] Creating layer M2PELU43
I0928 19:39:41.893751  5057 net.cpp:84] Creating Layer M2PELU43
I0928 19:39:41.893754  5057 net.cpp:406] M2PELU43 <- Eltwise21
I0928 19:39:41.893756  5057 net.cpp:367] M2PELU43 -> Eltwise21 (in-place)
I0928 19:39:41.893846  5057 net.cpp:122] Setting up M2PELU43
I0928 19:39:41.893851  5057 net.cpp:129] Top shape: 100 64 7 7 (313600)
I0928 19:39:41.893858  5057 net.cpp:137] Memory required for data: 705914000
I0928 19:39:41.893863  5057 layer_factory.hpp:77] Creating layer Eltwise21_M2PELU43_0_split
I0928 19:39:41.893867  5057 net.cpp:84] Creating Layer Eltwise21_M2PELU43_0_split
I0928 19:39:41.893869  5057 net.cpp:406] Eltwise21_M2PELU43_0_split <- Eltwise21
I0928 19:39:41.893873  5057 net.cpp:380] Eltwise21_M2PELU43_0_split -> Eltwise21_M2PELU43_0_split_0
I0928 19:39:41.893877  5057 net.cpp:380] Eltwise21_M2PELU43_0_split -> Eltwise21_M2PELU43_0_split_1
I0928 19:39:41.893904  5057 net.cpp:122] Setting up Eltwise21_M2PELU43_0_split
I0928 19:39:41.893908  5057 net.cpp:129] Top shape: 100 64 7 7 (313600)
I0928 19:39:41.893910  5057 net.cpp:129] Top shape: 100 64 7 7 (313600)
I0928 19:39:41.893913  5057 net.cpp:137] Memory required for data: 708422800
I0928 19:39:41.893915  5057 layer_factory.hpp:77] Creating layer Convolution46
I0928 19:39:41.893921  5057 net.cpp:84] Creating Layer Convolution46
I0928 19:39:41.893924  5057 net.cpp:406] Convolution46 <- Eltwise21_M2PELU43_0_split_0
I0928 19:39:41.893929  5057 net.cpp:380] Convolution46 -> Convolution46
I0928 19:39:41.895596  5057 net.cpp:122] Setting up Convolution46
I0928 19:39:41.895606  5057 net.cpp:129] Top shape: 100 64 7 7 (313600)
I0928 19:39:41.895608  5057 net.cpp:137] Memory required for data: 709677200
I0928 19:39:41.895612  5057 layer_factory.hpp:77] Creating layer BatchNorm46
I0928 19:39:41.895617  5057 net.cpp:84] Creating Layer BatchNorm46
I0928 19:39:41.895620  5057 net.cpp:406] BatchNorm46 <- Convolution46
I0928 19:39:41.895624  5057 net.cpp:367] BatchNorm46 -> Convolution46 (in-place)
I0928 19:39:41.895769  5057 net.cpp:122] Setting up BatchNorm46
I0928 19:39:41.895773  5057 net.cpp:129] Top shape: 100 64 7 7 (313600)
I0928 19:39:41.895776  5057 net.cpp:137] Memory required for data: 710931600
I0928 19:39:41.895781  5057 layer_factory.hpp:77] Creating layer Scale46
I0928 19:39:41.895784  5057 net.cpp:84] Creating Layer Scale46
I0928 19:39:41.895787  5057 net.cpp:406] Scale46 <- Convolution46
I0928 19:39:41.895789  5057 net.cpp:367] Scale46 -> Convolution46 (in-place)
I0928 19:39:41.895818  5057 layer_factory.hpp:77] Creating layer Scale46
I0928 19:39:41.895900  5057 net.cpp:122] Setting up Scale46
I0928 19:39:41.895905  5057 net.cpp:129] Top shape: 100 64 7 7 (313600)
I0928 19:39:41.895907  5057 net.cpp:137] Memory required for data: 712186000
I0928 19:39:41.895911  5057 layer_factory.hpp:77] Creating layer M2PELU44
I0928 19:39:41.895915  5057 net.cpp:84] Creating Layer M2PELU44
I0928 19:39:41.895917  5057 net.cpp:406] M2PELU44 <- Convolution46
I0928 19:39:41.895922  5057 net.cpp:367] M2PELU44 -> Convolution46 (in-place)
I0928 19:39:41.896013  5057 net.cpp:122] Setting up M2PELU44
I0928 19:39:41.896018  5057 net.cpp:129] Top shape: 100 64 7 7 (313600)
I0928 19:39:41.896019  5057 net.cpp:137] Memory required for data: 713440400
I0928 19:39:41.896023  5057 layer_factory.hpp:77] Creating layer Convolution47
I0928 19:39:41.896031  5057 net.cpp:84] Creating Layer Convolution47
I0928 19:39:41.896034  5057 net.cpp:406] Convolution47 <- Convolution46
I0928 19:39:41.896037  5057 net.cpp:380] Convolution47 -> Convolution47
I0928 19:39:41.897672  5057 net.cpp:122] Setting up Convolution47
I0928 19:39:41.897680  5057 net.cpp:129] Top shape: 100 64 7 7 (313600)
I0928 19:39:41.897683  5057 net.cpp:137] Memory required for data: 714694800
I0928 19:39:41.897687  5057 layer_factory.hpp:77] Creating layer BatchNorm47
I0928 19:39:41.897693  5057 net.cpp:84] Creating Layer BatchNorm47
I0928 19:39:41.897696  5057 net.cpp:406] BatchNorm47 <- Convolution47
I0928 19:39:41.897699  5057 net.cpp:367] BatchNorm47 -> Convolution47 (in-place)
I0928 19:39:41.897845  5057 net.cpp:122] Setting up BatchNorm47
I0928 19:39:41.897850  5057 net.cpp:129] Top shape: 100 64 7 7 (313600)
I0928 19:39:41.897852  5057 net.cpp:137] Memory required for data: 715949200
I0928 19:39:41.897857  5057 layer_factory.hpp:77] Creating layer Scale47
I0928 19:39:41.897861  5057 net.cpp:84] Creating Layer Scale47
I0928 19:39:41.897871  5057 net.cpp:406] Scale47 <- Convolution47
I0928 19:39:41.897876  5057 net.cpp:367] Scale47 -> Convolution47 (in-place)
I0928 19:39:41.897907  5057 layer_factory.hpp:77] Creating layer Scale47
I0928 19:39:41.897989  5057 net.cpp:122] Setting up Scale47
I0928 19:39:41.897994  5057 net.cpp:129] Top shape: 100 64 7 7 (313600)
I0928 19:39:41.897995  5057 net.cpp:137] Memory required for data: 717203600
I0928 19:39:41.898000  5057 layer_factory.hpp:77] Creating layer Eltwise22
I0928 19:39:41.898003  5057 net.cpp:84] Creating Layer Eltwise22
I0928 19:39:41.898006  5057 net.cpp:406] Eltwise22 <- Eltwise21_M2PELU43_0_split_1
I0928 19:39:41.898010  5057 net.cpp:406] Eltwise22 <- Convolution47
I0928 19:39:41.898012  5057 net.cpp:380] Eltwise22 -> Eltwise22
I0928 19:39:41.898030  5057 net.cpp:122] Setting up Eltwise22
I0928 19:39:41.898035  5057 net.cpp:129] Top shape: 100 64 7 7 (313600)
I0928 19:39:41.898036  5057 net.cpp:137] Memory required for data: 718458000
I0928 19:39:41.898038  5057 layer_factory.hpp:77] Creating layer M2PELU45
I0928 19:39:41.898043  5057 net.cpp:84] Creating Layer M2PELU45
I0928 19:39:41.898046  5057 net.cpp:406] M2PELU45 <- Eltwise22
I0928 19:39:41.898049  5057 net.cpp:367] M2PELU45 -> Eltwise22 (in-place)
I0928 19:39:41.898139  5057 net.cpp:122] Setting up M2PELU45
I0928 19:39:41.898144  5057 net.cpp:129] Top shape: 100 64 7 7 (313600)
I0928 19:39:41.898146  5057 net.cpp:137] Memory required for data: 719712400
I0928 19:39:41.898149  5057 layer_factory.hpp:77] Creating layer Eltwise22_M2PELU45_0_split
I0928 19:39:41.898154  5057 net.cpp:84] Creating Layer Eltwise22_M2PELU45_0_split
I0928 19:39:41.898155  5057 net.cpp:406] Eltwise22_M2PELU45_0_split <- Eltwise22
I0928 19:39:41.898159  5057 net.cpp:380] Eltwise22_M2PELU45_0_split -> Eltwise22_M2PELU45_0_split_0
I0928 19:39:41.898164  5057 net.cpp:380] Eltwise22_M2PELU45_0_split -> Eltwise22_M2PELU45_0_split_1
I0928 19:39:41.898190  5057 net.cpp:122] Setting up Eltwise22_M2PELU45_0_split
I0928 19:39:41.898192  5057 net.cpp:129] Top shape: 100 64 7 7 (313600)
I0928 19:39:41.898195  5057 net.cpp:129] Top shape: 100 64 7 7 (313600)
I0928 19:39:41.898197  5057 net.cpp:137] Memory required for data: 722221200
I0928 19:39:41.898200  5057 layer_factory.hpp:77] Creating layer Convolution48
I0928 19:39:41.898205  5057 net.cpp:84] Creating Layer Convolution48
I0928 19:39:41.898208  5057 net.cpp:406] Convolution48 <- Eltwise22_M2PELU45_0_split_0
I0928 19:39:41.898212  5057 net.cpp:380] Convolution48 -> Convolution48
I0928 19:39:41.899862  5057 net.cpp:122] Setting up Convolution48
I0928 19:39:41.899870  5057 net.cpp:129] Top shape: 100 64 7 7 (313600)
I0928 19:39:41.899873  5057 net.cpp:137] Memory required for data: 723475600
I0928 19:39:41.899878  5057 layer_factory.hpp:77] Creating layer BatchNorm48
I0928 19:39:41.899883  5057 net.cpp:84] Creating Layer BatchNorm48
I0928 19:39:41.899885  5057 net.cpp:406] BatchNorm48 <- Convolution48
I0928 19:39:41.899889  5057 net.cpp:367] BatchNorm48 -> Convolution48 (in-place)
I0928 19:39:41.900030  5057 net.cpp:122] Setting up BatchNorm48
I0928 19:39:41.900035  5057 net.cpp:129] Top shape: 100 64 7 7 (313600)
I0928 19:39:41.900038  5057 net.cpp:137] Memory required for data: 724730000
I0928 19:39:41.900043  5057 layer_factory.hpp:77] Creating layer Scale48
I0928 19:39:41.900048  5057 net.cpp:84] Creating Layer Scale48
I0928 19:39:41.900049  5057 net.cpp:406] Scale48 <- Convolution48
I0928 19:39:41.900053  5057 net.cpp:367] Scale48 -> Convolution48 (in-place)
I0928 19:39:41.900080  5057 layer_factory.hpp:77] Creating layer Scale48
I0928 19:39:41.900164  5057 net.cpp:122] Setting up Scale48
I0928 19:39:41.900168  5057 net.cpp:129] Top shape: 100 64 7 7 (313600)
I0928 19:39:41.900171  5057 net.cpp:137] Memory required for data: 725984400
I0928 19:39:41.900174  5057 layer_factory.hpp:77] Creating layer M2PELU46
I0928 19:39:41.900180  5057 net.cpp:84] Creating Layer M2PELU46
I0928 19:39:41.900183  5057 net.cpp:406] M2PELU46 <- Convolution48
I0928 19:39:41.900187  5057 net.cpp:367] M2PELU46 -> Convolution48 (in-place)
I0928 19:39:41.900285  5057 net.cpp:122] Setting up M2PELU46
I0928 19:39:41.900290  5057 net.cpp:129] Top shape: 100 64 7 7 (313600)
I0928 19:39:41.900292  5057 net.cpp:137] Memory required for data: 727238800
I0928 19:39:41.900296  5057 layer_factory.hpp:77] Creating layer Convolution49
I0928 19:39:41.900302  5057 net.cpp:84] Creating Layer Convolution49
I0928 19:39:41.900305  5057 net.cpp:406] Convolution49 <- Convolution48
I0928 19:39:41.900308  5057 net.cpp:380] Convolution49 -> Convolution49
I0928 19:39:41.902261  5057 net.cpp:122] Setting up Convolution49
I0928 19:39:41.902269  5057 net.cpp:129] Top shape: 100 64 7 7 (313600)
I0928 19:39:41.902271  5057 net.cpp:137] Memory required for data: 728493200
I0928 19:39:41.902276  5057 layer_factory.hpp:77] Creating layer BatchNorm49
I0928 19:39:41.902281  5057 net.cpp:84] Creating Layer BatchNorm49
I0928 19:39:41.902284  5057 net.cpp:406] BatchNorm49 <- Convolution49
I0928 19:39:41.902288  5057 net.cpp:367] BatchNorm49 -> Convolution49 (in-place)
I0928 19:39:41.902436  5057 net.cpp:122] Setting up BatchNorm49
I0928 19:39:41.902441  5057 net.cpp:129] Top shape: 100 64 7 7 (313600)
I0928 19:39:41.902442  5057 net.cpp:137] Memory required for data: 729747600
I0928 19:39:41.902447  5057 layer_factory.hpp:77] Creating layer Scale49
I0928 19:39:41.902452  5057 net.cpp:84] Creating Layer Scale49
I0928 19:39:41.902456  5057 net.cpp:406] Scale49 <- Convolution49
I0928 19:39:41.902458  5057 net.cpp:367] Scale49 -> Convolution49 (in-place)
I0928 19:39:41.902487  5057 layer_factory.hpp:77] Creating layer Scale49
I0928 19:39:41.902582  5057 net.cpp:122] Setting up Scale49
I0928 19:39:41.902590  5057 net.cpp:129] Top shape: 100 64 7 7 (313600)
I0928 19:39:41.902591  5057 net.cpp:137] Memory required for data: 731002000
I0928 19:39:41.902595  5057 layer_factory.hpp:77] Creating layer Eltwise23
I0928 19:39:41.902600  5057 net.cpp:84] Creating Layer Eltwise23
I0928 19:39:41.902601  5057 net.cpp:406] Eltwise23 <- Eltwise22_M2PELU45_0_split_1
I0928 19:39:41.902604  5057 net.cpp:406] Eltwise23 <- Convolution49
I0928 19:39:41.902608  5057 net.cpp:380] Eltwise23 -> Eltwise23
I0928 19:39:41.902626  5057 net.cpp:122] Setting up Eltwise23
I0928 19:39:41.902631  5057 net.cpp:129] Top shape: 100 64 7 7 (313600)
I0928 19:39:41.902632  5057 net.cpp:137] Memory required for data: 732256400
I0928 19:39:41.902634  5057 layer_factory.hpp:77] Creating layer M2PELU47
I0928 19:39:41.902640  5057 net.cpp:84] Creating Layer M2PELU47
I0928 19:39:41.902642  5057 net.cpp:406] M2PELU47 <- Eltwise23
I0928 19:39:41.902645  5057 net.cpp:367] M2PELU47 -> Eltwise23 (in-place)
I0928 19:39:41.902735  5057 net.cpp:122] Setting up M2PELU47
I0928 19:39:41.902740  5057 net.cpp:129] Top shape: 100 64 7 7 (313600)
I0928 19:39:41.902743  5057 net.cpp:137] Memory required for data: 733510800
I0928 19:39:41.902746  5057 layer_factory.hpp:77] Creating layer Eltwise23_M2PELU47_0_split
I0928 19:39:41.902750  5057 net.cpp:84] Creating Layer Eltwise23_M2PELU47_0_split
I0928 19:39:41.902752  5057 net.cpp:406] Eltwise23_M2PELU47_0_split <- Eltwise23
I0928 19:39:41.902756  5057 net.cpp:380] Eltwise23_M2PELU47_0_split -> Eltwise23_M2PELU47_0_split_0
I0928 19:39:41.902760  5057 net.cpp:380] Eltwise23_M2PELU47_0_split -> Eltwise23_M2PELU47_0_split_1
I0928 19:39:41.902786  5057 net.cpp:122] Setting up Eltwise23_M2PELU47_0_split
I0928 19:39:41.902789  5057 net.cpp:129] Top shape: 100 64 7 7 (313600)
I0928 19:39:41.902792  5057 net.cpp:129] Top shape: 100 64 7 7 (313600)
I0928 19:39:41.902794  5057 net.cpp:137] Memory required for data: 736019600
…
I0928 19:39:42.197087  5057 layer_factory.hpp:77] Creating layer BatchNorm40
I0928 19:39:42.197098  5057 net.cpp:84] Creating Layer BatchNorm40
I0928 19:39:42.197103  5057 net.cpp:406] BatchNorm40 <- Convolution40
I0928 19:39:42.197105  5057 net.cpp:367] BatchNorm40 -> Convolution40 (in-place)
I0928 19:39:42.197237  5057 net.cpp:122] Setting up BatchNorm40
I0928 19:39:42.197242  5057 net.cpp:129] Top shape: 100 64 8 8 (409600)
I0928 19:39:42.197244  5057 net.cpp:137] Memory required for data: 874497200
I0928 19:39:42.197249  5057 layer_factory.hpp:77] Creating layer Scale40
I0928 19:39:42.197253  5057 net.cpp:84] Creating Layer Scale40
I0928 19:39:42.197255  5057 net.cpp:406] Scale40 <- Convolution40
I0928 19:39:42.197258  5057 net.cpp:367] Scale40 -> Convolution40 (in-place)
I0928 19:39:42.197286  5057 layer_factory.hpp:77] Creating layer Scale40
I0928 19:39:42.197362  5057 net.cpp:122] Setting up Scale40
I0928 19:39:42.197367  5057 net.cpp:129] Top shape: 100 64 8 8 (409600)
I0928 19:39:42.197369  5057 net.cpp:137] Memory required for data: 876135600
I0928 19:39:42.197372  5057 layer_factory.hpp:77] Creating layer M2PELU38
I0928 19:39:42.197378  5057 net.cpp:84] Creating Layer M2PELU38
I0928 19:39:42.197381  5057 net.cpp:406] M2PELU38 <- Convolution40
I0928 19:39:42.197384  5057 net.cpp:367] M2PELU38 -> Convolution40 (in-place)
I0928 19:39:42.197474  5057 net.cpp:122] Setting up M2PELU38
I0928 19:39:42.197479  5057 net.cpp:129] Top shape: 100 64 8 8 (409600)
I0928 19:39:42.197481  5057 net.cpp:137] Memory required for data: 877774000
I0928 19:39:42.197485  5057 layer_factory.hpp:77] Creating layer Convolution41
I0928 19:39:42.197492  5057 net.cpp:84] Creating Layer Convolution41
I0928 19:39:42.197495  5057 net.cpp:406] Convolution41 <- Convolution40
I0928 19:39:42.197500  5057 net.cpp:380] Convolution41 -> Convolution41
I0928 19:39:42.199226  5057 net.cpp:122] Setting up Convolution41
I0928 19:39:42.199235  5057 net.cpp:129] Top shape: 100 64 8 8 (409600)
I0928 19:39:42.199237  5057 net.cpp:137] Memory required for data: 879412400
I0928 19:39:42.199242  5057 layer_factory.hpp:77] Creating layer BatchNorm41
I0928 19:39:42.199247  5057 net.cpp:84] Creating Layer BatchNorm41
I0928 19:39:42.199250  5057 net.cpp:406] BatchNorm41 <- Convolution41
I0928 19:39:42.199254  5057 net.cpp:367] BatchNorm41 -> Convolution41 (in-place)
I0928 19:39:42.199386  5057 net.cpp:122] Setting up BatchNorm41
I0928 19:39:42.199391  5057 net.cpp:129] Top shape: 100 64 8 8 (409600)
I0928 19:39:42.199393  5057 net.cpp:137] Memory required for data: 881050800
I0928 19:39:42.199398  5057 layer_factory.hpp:77] Creating layer Scale41
I0928 19:39:42.199404  5057 net.cpp:84] Creating Layer Scale41
I0928 19:39:42.199406  5057 net.cpp:406] Scale41 <- Convolution41
I0928 19:39:42.199409  5057 net.cpp:367] Scale41 -> Convolution41 (in-place)
I0928 19:39:42.199436  5057 layer_factory.hpp:77] Creating layer Scale41
I0928 19:39:42.199512  5057 net.cpp:122] Setting up Scale41
I0928 19:39:42.199517  5057 net.cpp:129] Top shape: 100 64 8 8 (409600)
I0928 19:39:42.199519  5057 net.cpp:137] Memory required for data: 882689200
I0928 19:39:42.199522  5057 layer_factory.hpp:77] Creating layer Eltwise19
I0928 19:39:42.199529  5057 net.cpp:84] Creating Layer Eltwise19
I0928 19:39:42.199532  5057 net.cpp:406] Eltwise19 <- Convolution39
I0928 19:39:42.199535  5057 net.cpp:406] Eltwise19 <- Convolution41
I0928 19:39:42.199538  5057 net.cpp:380] Eltwise19 -> Eltwise19
I0928 19:39:42.199555  5057 net.cpp:122] Setting up Eltwise19
I0928 19:39:42.199560  5057 net.cpp:129] Top shape: 100 64 8 8 (409600)
I0928 19:39:42.199563  5057 net.cpp:137] Memory required for data: 884327600
I0928 19:39:42.199564  5057 layer_factory.hpp:77] Creating layer M2PELU39
I0928 19:39:42.199569  5057 net.cpp:84] Creating Layer M2PELU39
I0928 19:39:42.199573  5057 net.cpp:406] M2PELU39 <- Eltwise19
I0928 19:39:42.199575  5057 net.cpp:367] M2PELU39 -> Eltwise19 (in-place)
I0928 19:39:42.199663  5057 net.cpp:122] Setting up M2PELU39
I0928 19:39:42.199668  5057 net.cpp:129] Top shape: 100 64 8 8 (409600)
I0928 19:39:42.199671  5057 net.cpp:137] Memory required for data: 885966000
I0928 19:39:42.199681  5057 layer_factory.hpp:77] Creating layer Eltwise19_M2PELU39_0_split
I0928 19:39:42.199687  5057 net.cpp:84] Creating Layer Eltwise19_M2PELU39_0_split
I0928 19:39:42.199689  5057 net.cpp:406] Eltwise19_M2PELU39_0_split <- Eltwise19
I0928 19:39:42.199692  5057 net.cpp:380] Eltwise19_M2PELU39_0_split -> Eltwise19_M2PELU39_0_split_0
I0928 19:39:42.199698  5057 net.cpp:380] Eltwise19_M2PELU39_0_split -> Eltwise19_M2PELU39_0_split_1
I0928 19:39:42.199723  5057 net.cpp:122] Setting up Eltwise19_M2PELU39_0_split
I0928 19:39:42.199726  5057 net.cpp:129] Top shape: 100 64 8 8 (409600)
I0928 19:39:42.199729  5057 net.cpp:129] Top shape: 100 64 8 8 (409600)
I0928 19:39:42.199731  5057 net.cpp:137] Memory required for data: 889242800
I0928 19:39:42.199733  5057 layer_factory.hpp:77] Creating layer Convolution42
I0928 19:39:42.199739  5057 net.cpp:84] Creating Layer Convolution42
I0928 19:39:42.199743  5057 net.cpp:406] Convolution42 <- Eltwise19_M2PELU39_0_split_0
I0928 19:39:42.199748  5057 net.cpp:380] Convolution42 -> Convolution42
I0928 19:39:42.201468  5057 net.cpp:122] Setting up Convolution42
I0928 19:39:42.201477  5057 net.cpp:129] Top shape: 100 64 8 8 (409600)
I0928 19:39:42.201479  5057 net.cpp:137] Memory required for data: 890881200
I0928 19:39:42.201483  5057 layer_factory.hpp:77] Creating layer BatchNorm42
I0928 19:39:42.201489  5057 net.cpp:84] Creating Layer BatchNorm42
I0928 19:39:42.201493  5057 net.cpp:406] BatchNorm42 <- Convolution42
I0928 19:39:42.201496  5057 net.cpp:367] BatchNorm42 -> Convolution42 (in-place)
I0928 19:39:42.201629  5057 net.cpp:122] Setting up BatchNorm42
I0928 19:39:42.201633  5057 net.cpp:129] Top shape: 100 64 8 8 (409600)
I0928 19:39:42.201637  5057 net.cpp:137] Memory required for data: 892519600
I0928 19:39:42.201640  5057 layer_factory.hpp:77] Creating layer Scale42
I0928 19:39:42.201644  5057 net.cpp:84] Creating Layer Scale42
I0928 19:39:42.201647  5057 net.cpp:406] Scale42 <- Convolution42
I0928 19:39:42.201650  5057 net.cpp:367] Scale42 -> Convolution42 (in-place)
I0928 19:39:42.201678  5057 layer_factory.hpp:77] Creating layer Scale42
I0928 19:39:42.201755  5057 net.cpp:122] Setting up Scale42
I0928 19:39:42.201759  5057 net.cpp:129] Top shape: 100 64 8 8 (409600)
I0928 19:39:42.201761  5057 net.cpp:137] Memory required for data: 894158000
I0928 19:39:42.201766  5057 layer_factory.hpp:77] Creating layer M2PELU40
I0928 19:39:42.201771  5057 net.cpp:84] Creating Layer M2PELU40
I0928 19:39:42.201773  5057 net.cpp:406] M2PELU40 <- Convolution42
I0928 19:39:42.201777  5057 net.cpp:367] M2PELU40 -> Convolution42 (in-place)
I0928 19:39:42.201866  5057 net.cpp:122] Setting up M2PELU40
I0928 19:39:42.201871  5057 net.cpp:129] Top shape: 100 64 8 8 (409600)
I0928 19:39:42.201874  5057 net.cpp:137] Memory required for data: 895796400
I0928 19:39:42.201877  5057 layer_factory.hpp:77] Creating layer Convolution43
I0928 19:39:42.201884  5057 net.cpp:84] Creating Layer Convolution43
I0928 19:39:42.201886  5057 net.cpp:406] Convolution43 <- Convolution42
I0928 19:39:42.201891  5057 net.cpp:380] Convolution43 -> Convolution43
I0928 19:39:42.203614  5057 net.cpp:122] Setting up Convolution43
I0928 19:39:42.203624  5057 net.cpp:129] Top shape: 100 64 8 8 (409600)
I0928 19:39:42.203626  5057 net.cpp:137] Memory required for data: 897434800
I0928 19:39:42.203630  5057 layer_factory.hpp:77] Creating layer BatchNorm43
I0928 19:39:42.203635  5057 net.cpp:84] Creating Layer BatchNorm43
I0928 19:39:42.203639  5057 net.cpp:406] BatchNorm43 <- Convolution43
I0928 19:39:42.203642  5057 net.cpp:367] BatchNorm43 -> Convolution43 (in-place)
I0928 19:39:42.203779  5057 net.cpp:122] Setting up BatchNorm43
I0928 19:39:42.221544  5057 net.cpp:129] Top shape: 100 64 8 8 (409600)
I0928 19:39:42.221551  5057 net.cpp:137] Memory required for data: 899073200
I0928 19:39:42.221557  5057 layer_factory.hpp:77] Creating layer Scale43
I0928 19:39:42.221565  5057 net.cpp:84] Creating Layer Scale43
I0928 19:39:42.221568  5057 net.cpp:406] Scale43 <- Convolution43
I0928 19:39:42.221580  5057 net.cpp:367] Scale43 -> Convolution43 (in-place)
I0928 19:39:42.221622  5057 layer_factory.hpp:77] Creating layer Scale43
I0928 19:39:42.221714  5057 net.cpp:122] Setting up Scale43
I0928 19:39:42.221719  5057 net.cpp:129] Top shape: 100 64 8 8 (409600)
I0928 19:39:42.221721  5057 net.cpp:137] Memory required for data: 900711600
I0928 19:39:42.221725  5057 layer_factory.hpp:77] Creating layer Eltwise20
I0928 19:39:42.221730  5057 net.cpp:84] Creating Layer Eltwise20
I0928 19:39:42.221734  5057 net.cpp:406] Eltwise20 <- Eltwise19_M2PELU39_0_split_1
I0928 19:39:42.221737  5057 net.cpp:406] Eltwise20 <- Convolution43
I0928 19:39:42.221741  5057 net.cpp:380] Eltwise20 -> Eltwise20
I0928 19:39:42.221760  5057 net.cpp:122] Setting up Eltwise20
I0928 19:39:42.221765  5057 net.cpp:129] Top shape: 100 64 8 8 (409600)
I0928 19:39:42.221766  5057 net.cpp:137] Memory required for data: 902350000
I0928 19:39:42.221768  5057 layer_factory.hpp:77] Creating layer M2PELU41
I0928 19:39:42.221774  5057 net.cpp:84] Creating Layer M2PELU41
I0928 19:39:42.221777  5057 net.cpp:406] M2PELU41 <- Eltwise20
I0928 19:39:42.221781  5057 net.cpp:367] M2PELU41 -> Eltwise20 (in-place)
I0928 19:39:42.221879  5057 net.cpp:122] Setting up M2PELU41
I0928 19:39:42.221885  5057 net.cpp:129] Top shape: 100 64 8 8 (409600)
I0928 19:39:42.221887  5057 net.cpp:137] Memory required for data: 903988400
I0928 19:39:42.221891  5057 layer_factory.hpp:77] Creating layer Eltwise20_M2PELU41_0_split
I0928 19:39:42.221896  5057 net.cpp:84] Creating Layer Eltwise20_M2PELU41_0_split
I0928 19:39:42.221899  5057 net.cpp:406] Eltwise20_M2PELU41_0_split <- Eltwise20
I0928 19:39:42.221904  5057 net.cpp:380] Eltwise20_M2PELU41_0_split -> Eltwise20_M2PELU41_0_split_0
I0928 19:39:42.221909  5057 net.cpp:380] Eltwise20_M2PELU41_0_split -> Eltwise20_M2PELU41_0_split_1
I0928 19:39:42.221935  5057 net.cpp:122] Setting up Eltwise20_M2PELU41_0_split
I0928 19:39:42.221938  5057 net.cpp:129] Top shape: 100 64 8 8 (409600)
I0928 19:39:42.221941  5057 net.cpp:129] Top shape: 100 64 8 8 (409600)
I0928 19:39:42.221945  5057 net.cpp:137] Memory required for data: 907265200
I0928 19:39:42.221946  5057 layer_factory.hpp:77] Creating layer Convolution44
I0928 19:39:42.221952  5057 net.cpp:84] Creating Layer Convolution44
I0928 19:39:42.221956  5057 net.cpp:406] Convolution44 <- Eltwise20_M2PELU41_0_split_0
I0928 19:39:42.221961  5057 net.cpp:380] Convolution44 -> Convolution44
I0928 19:39:42.224246  5057 net.cpp:122] Setting up Convolution44
I0928 19:39:42.224256  5057 net.cpp:129] Top shape: 100 64 8 8 (409600)
I0928 19:39:42.224258  5057 net.cpp:137] Memory required for data: 908903600
I0928 19:39:42.224262  5057 layer_factory.hpp:77] Creating layer BatchNorm44
I0928 19:39:42.224268  5057 net.cpp:84] Creating Layer BatchNorm44
I0928 19:39:42.224272  5057 net.cpp:406] BatchNorm44 <- Convolution44
I0928 19:39:42.224277  5057 net.cpp:367] BatchNorm44 -> Convolution44 (in-place)
I0928 19:39:42.224416  5057 net.cpp:122] Setting up BatchNorm44
I0928 19:39:42.224421  5057 net.cpp:129] Top shape: 100 64 8 8 (409600)
I0928 19:39:42.224422  5057 net.cpp:137] Memory required for data: 910542000
I0928 19:39:42.224427  5057 layer_factory.hpp:77] Creating layer Scale44
I0928 19:39:42.224432  5057 net.cpp:84] Creating Layer Scale44
I0928 19:39:42.224436  5057 net.cpp:406] Scale44 <- Convolution44
I0928 19:39:42.224438  5057 net.cpp:367] Scale44 -> Convolution44 (in-place)
I0928 19:39:42.224465  5057 layer_factory.hpp:77] Creating layer Scale44
I0928 19:39:42.224546  5057 net.cpp:122] Setting up Scale44
I0928 19:39:42.224550  5057 net.cpp:129] Top shape: 100 64 8 8 (409600)
I0928 19:39:42.224552  5057 net.cpp:137] Memory required for data: 912180400
I0928 19:39:42.224556  5057 layer_factory.hpp:77] Creating layer M2PELU42
I0928 19:39:42.224561  5057 net.cpp:84] Creating Layer M2PELU42
I0928 19:39:42.224565  5057 net.cpp:406] M2PELU42 <- Convolution44
I0928 19:39:42.224568  5057 net.cpp:367] M2PELU42 -> Convolution44 (in-place)
I0928 19:39:42.224658  5057 net.cpp:122] Setting up M2PELU42
I0928 19:39:42.224669  5057 net.cpp:129] Top shape: 100 64 8 8 (409600)
I0928 19:39:42.224673  5057 net.cpp:137] Memory required for data: 913818800
I0928 19:39:42.224676  5057 layer_factory.hpp:77] Creating layer Convolution45
I0928 19:39:42.224683  5057 net.cpp:84] Creating Layer Convolution45
I0928 19:39:42.224685  5057 net.cpp:406] Convolution45 <- Convolution44
I0928 19:39:42.224690  5057 net.cpp:380] Convolution45 -> Convolution45
I0928 19:39:42.226434  5057 net.cpp:122] Setting up Convolution45
I0928 19:39:42.226442  5057 net.cpp:129] Top shape: 100 64 8 8 (409600)
I0928 19:39:42.226445  5057 net.cpp:137] Memory required for data: 915457200
I0928 19:39:42.226449  5057 layer_factory.hpp:77] Creating layer BatchNorm45
I0928 19:39:42.226455  5057 net.cpp:84] Creating Layer BatchNorm45
I0928 19:39:42.226459  5057 net.cpp:406] BatchNorm45 <- Convolution45
I0928 19:39:42.226462  5057 net.cpp:367] BatchNorm45 -> Convolution45 (in-place)
I0928 19:39:42.226613  5057 net.cpp:122] Setting up BatchNorm45
I0928 19:39:42.226619  5057 net.cpp:129] Top shape: 100 64 8 8 (409600)
I0928 19:39:42.226621  5057 net.cpp:137] Memory required for data: 917095600
I0928 19:39:42.226626  5057 layer_factory.hpp:77] Creating layer Scale45
I0928 19:39:42.226630  5057 net.cpp:84] Creating Layer Scale45
I0928 19:39:42.226634  5057 net.cpp:406] Scale45 <- Convolution45
I0928 19:39:42.226636  5057 net.cpp:367] Scale45 -> Convolution45 (in-place)
I0928 19:39:42.226665  5057 layer_factory.hpp:77] Creating layer Scale45
I0928 19:39:42.226743  5057 net.cpp:122] Setting up Scale45
I0928 19:39:42.226749  5057 net.cpp:129] Top shape: 100 64 8 8 (409600)
I0928 19:39:42.226752  5057 net.cpp:137] Memory required for data: 918734000
I0928 19:39:42.226755  5057 layer_factory.hpp:77] Creating layer Eltwise21
I0928 19:39:42.226759  5057 net.cpp:84] Creating Layer Eltwise21
I0928 19:39:42.226763  5057 net.cpp:406] Eltwise21 <- Eltwise20_M2PELU41_0_split_1
I0928 19:39:42.226765  5057 net.cpp:406] Eltwise21 <- Convolution45
I0928 19:39:42.226769  5057 net.cpp:380] Eltwise21 -> Eltwise21
I0928 19:39:42.226786  5057 net.cpp:122] Setting up Eltwise21
I0928 19:39:42.226790  5057 net.cpp:129] Top shape: 100 64 8 8 (409600)
I0928 19:39:42.226793  5057 net.cpp:137] Memory required for data: 920372400
I0928 19:39:42.226794  5057 layer_factory.hpp:77] Creating layer M2PELU43
I0928 19:39:42.226800  5057 net.cpp:84] Creating Layer M2PELU43
I0928 19:39:42.226802  5057 net.cpp:406] M2PELU43 <- Eltwise21
I0928 19:39:42.226806  5057 net.cpp:367] M2PELU43 -> Eltwise21 (in-place)
I0928 19:39:42.226899  5057 net.cpp:122] Setting up M2PELU43
I0928 19:39:42.226904  5057 net.cpp:129] Top shape: 100 64 8 8 (409600)
I0928 19:39:42.226907  5057 net.cpp:137] Memory required for data: 922010800
I0928 19:39:42.226910  5057 layer_factory.hpp:77] Creating layer Eltwise21_M2PELU43_0_split
I0928 19:39:42.226914  5057 net.cpp:84] Creating Layer Eltwise21_M2PELU43_0_split
I0928 19:39:42.226917  5057 net.cpp:406] Eltwise21_M2PELU43_0_split <- Eltwise21
I0928 19:39:42.226920  5057 net.cpp:380] Eltwise21_M2PELU43_0_split -> Eltwise21_M2PELU43_0_split_0
I0928 19:39:42.226925  5057 net.cpp:380] Eltwise21_M2PELU43_0_split -> Eltwise21_M2PELU43_0_split_1
I0928 19:39:42.226951  5057 net.cpp:122] Setting up Eltwise21_M2PELU43_0_split
I0928 19:39:42.226955  5057 net.cpp:129] Top shape: 100 64 8 8 (409600)
I0928 19:39:42.226958  5057 net.cpp:129] Top shape: 100 64 8 8 (409600)
I0928 19:39:42.226960  5057 net.cpp:137] Memory required for data: 925287600
I0928 19:39:42.226963  5057 layer_factory.hpp:77] Creating layer Convolution46
I0928 19:39:42.226969  5057 net.cpp:84] Creating Layer Convolution46
I0928 19:39:42.226972  5057 net.cpp:406] Convolution46 <- Eltwise21_M2PELU43_0_split_0
I0928 19:39:42.226976  5057 net.cpp:380] Convolution46 -> Convolution46
I0928 19:39:42.228705  5057 net.cpp:122] Setting up Convolution46
I0928 19:39:42.228714  5057 net.cpp:129] Top shape: 100 64 8 8 (409600)
I0928 19:39:42.228718  5057 net.cpp:137] Memory required for data: 926926000
I0928 19:39:42.228723  5057 layer_factory.hpp:77] Creating layer BatchNorm46
I0928 19:39:42.228734  5057 net.cpp:84] Creating Layer BatchNorm46
I0928 19:39:42.228739  5057 net.cpp:406] BatchNorm46 <- Convolution46
I0928 19:39:42.228742  5057 net.cpp:367] BatchNorm46 -> Convolution46 (in-place)
I0928 19:39:42.228880  5057 net.cpp:122] Setting up BatchNorm46
I0928 19:39:42.228885  5057 net.cpp:129] Top shape: 100 64 8 8 (409600)
I0928 19:39:42.228888  5057 net.cpp:137] Memory required for data: 928564400
I0928 19:39:42.228893  5057 layer_factory.hpp:77] Creating layer Scale46
I0928 19:39:42.228898  5057 net.cpp:84] Creating Layer Scale46
I0928 19:39:42.228899  5057 net.cpp:406] Scale46 <- Convolution46
I0928 19:39:42.228904  5057 net.cpp:367] Scale46 -> Convolution46 (in-place)
I0928 19:39:42.228929  5057 layer_factory.hpp:77] Creating layer Scale46
I0928 19:39:42.229008  5057 net.cpp:122] Setting up Scale46
I0928 19:39:42.229012  5057 net.cpp:129] Top shape: 100 64 8 8 (409600)
I0928 19:39:42.229015  5057 net.cpp:137] Memory required for data: 930202800
I0928 19:39:42.229019  5057 layer_factory.hpp:77] Creating layer M2PELU44
I0928 19:39:42.229024  5057 net.cpp:84] Creating Layer M2PELU44
I0928 19:39:42.229027  5057 net.cpp:406] M2PELU44 <- Convolution46
I0928 19:39:42.229030  5057 net.cpp:367] M2PELU44 -> Convolution46 (in-place)
I0928 19:39:42.229120  5057 net.cpp:122] Setting up M2PELU44
I0928 19:39:42.229125  5057 net.cpp:129] Top shape: 100 64 8 8 (409600)
I0928 19:39:42.229127  5057 net.cpp:137] Memory required for data: 931841200
I0928 19:39:42.229131  5057 layer_factory.hpp:77] Creating layer Convolution47
I0928 19:39:42.229138  5057 net.cpp:84] Creating Layer Convolution47
I0928 19:39:42.229140  5057 net.cpp:406] Convolution47 <- Convolution46
I0928 19:39:42.229145  5057 net.cpp:380] Convolution47 -> Convolution47
I0928 19:39:42.230885  5057 net.cpp:122] Setting up Convolution47
I0928 19:39:42.230895  5057 net.cpp:129] Top shape: 100 64 8 8 (409600)
I0928 19:39:42.230897  5057 net.cpp:137] Memory required for data: 933479600
I0928 19:39:42.230902  5057 layer_factory.hpp:77] Creating layer BatchNorm47
I0928 19:39:42.230906  5057 net.cpp:84] Creating Layer BatchNorm47
I0928 19:39:42.230909  5057 net.cpp:406] BatchNorm47 <- Convolution47
I0928 19:39:42.230916  5057 net.cpp:367] BatchNorm47 -> Convolution47 (in-place)
I0928 19:39:42.231050  5057 net.cpp:122] Setting up BatchNorm47
I0928 19:39:42.231055  5057 net.cpp:129] Top shape: 100 64 8 8 (409600)
I0928 19:39:42.231057  5057 net.cpp:137] Memory required for data: 935118000
I0928 19:39:42.231062  5057 layer_factory.hpp:77] Creating layer Scale47
I0928 19:39:42.231066  5057 net.cpp:84] Creating Layer Scale47
I0928 19:39:42.231068  5057 net.cpp:406] Scale47 <- Convolution47
I0928 19:39:42.231073  5057 net.cpp:367] Scale47 -> Convolution47 (in-place)
I0928 19:39:42.231099  5057 layer_factory.hpp:77] Creating layer Scale47
I0928 19:39:42.231178  5057 net.cpp:122] Setting up Scale47
I0928 19:39:42.231181  5057 net.cpp:129] Top shape: 100 64 8 8 (409600)
I0928 19:39:42.231184  5057 net.cpp:137] Memory required for data: 936756400
I0928 19:39:42.231187  5057 layer_factory.hpp:77] Creating layer Eltwise22
I0928 19:39:42.231191  5057 net.cpp:84] Creating Layer Eltwise22
I0928 19:39:42.231194  5057 net.cpp:406] Eltwise22 <- Eltwise21_M2PELU43_0_split_1
I0928 19:39:42.231197  5057 net.cpp:406] Eltwise22 <- Convolution47
I0928 19:39:42.231201  5057 net.cpp:380] Eltwise22 -> Eltwise22
I0928 19:39:42.231220  5057 net.cpp:122] Setting up Eltwise22
I0928 19:39:42.231223  5057 net.cpp:129] Top shape: 100 64 8 8 (409600)
I0928 19:39:42.231225  5057 net.cpp:137] Memory required for data: 938394800
I0928 19:39:42.231227  5057 layer_factory.hpp:77] Creating layer M2PELU45
I0928 19:39:42.231232  5057 net.cpp:84] Creating Layer M2PELU45
I0928 19:39:42.231235  5057 net.cpp:406] M2PELU45 <- Eltwise22
I0928 19:39:42.231238  5057 net.cpp:367] M2PELU45 -> Eltwise22 (in-place)
I0928 19:39:42.231329  5057 net.cpp:122] Setting up M2PELU45
I0928 19:39:42.231334  5057 net.cpp:129] Top shape: 100 64 8 8 (409600)
I0928 19:39:42.231338  5057 net.cpp:137] Memory required for data: 940033200
I0928 19:39:42.231348  5057 layer_factory.hpp:77] Creating layer Eltwise22_M2PELU45_0_split
I0928 19:39:42.231353  5057 net.cpp:84] Creating Layer Eltwise22_M2PELU45_0_split
I0928 19:39:42.231355  5057 net.cpp:406] Eltwise22_M2PELU45_0_split <- Eltwise22
I0928 19:39:42.231359  5057 net.cpp:380] Eltwise22_M2PELU45_0_split -> Eltwise22_M2PELU45_0_split_0
I0928 19:39:42.231364  5057 net.cpp:380] Eltwise22_M2PELU45_0_split -> Eltwise22_M2PELU45_0_split_1
I0928 19:39:42.231389  5057 net.cpp:122] Setting up Eltwise22_M2PELU45_0_split
I0928 19:39:42.231395  5057 net.cpp:129] Top shape: 100 64 8 8 (409600)
I0928 19:39:42.231397  5057 net.cpp:129] Top shape: 100 64 8 8 (409600)
I0928 19:39:42.231400  5057 net.cpp:137] Memory required for data: 943310000
I0928 19:39:42.231401  5057 layer_factory.hpp:77] Creating layer Convolution48
I0928 19:39:42.231407  5057 net.cpp:84] Creating Layer Convolution48
I0928 19:39:42.231410  5057 net.cpp:406] Convolution48 <- Eltwise22_M2PELU45_0_split_0
I0928 19:39:42.231415  5057 net.cpp:380] Convolution48 -> Convolution48
I0928 19:39:42.233465  5057 net.cpp:122] Setting up Convolution48
I0928 19:39:42.233474  5057 net.cpp:129] Top shape: 100 64 8 8 (409600)
I0928 19:39:42.233477  5057 net.cpp:137] Memory required for data: 944948400
I0928 19:39:42.233482  5057 layer_factory.hpp:77] Creating layer BatchNorm48
I0928 19:39:42.233486  5057 net.cpp:84] Creating Layer BatchNorm48
I0928 19:39:42.233489  5057 net.cpp:406] BatchNorm48 <- Convolution48
I0928 19:39:42.233495  5057 net.cpp:367] BatchNorm48 -> Convolution48 (in-place)
I0928 19:39:42.233635  5057 net.cpp:122] Setting up BatchNorm48
I0928 19:39:42.233640  5057 net.cpp:129] Top shape: 100 64 8 8 (409600)
I0928 19:39:42.233642  5057 net.cpp:137] Memory required for data: 946586800
I0928 19:39:42.233647  5057 layer_factory.hpp:77] Creating layer Scale48
I0928 19:39:42.233651  5057 net.cpp:84] Creating Layer Scale48
I0928 19:39:42.233654  5057 net.cpp:406] Scale48 <- Convolution48
I0928 19:39:42.233659  5057 net.cpp:367] Scale48 -> Convolution48 (in-place)
I0928 19:39:42.233685  5057 layer_factory.hpp:77] Creating layer Scale48
I0928 19:39:42.233762  5057 net.cpp:122] Setting up Scale48
I0928 19:39:42.233767  5057 net.cpp:129] Top shape: 100 64 8 8 (409600)
I0928 19:39:42.233769  5057 net.cpp:137] Memory required for data: 948225200
I0928 19:39:42.233773  5057 layer_factory.hpp:77] Creating layer M2PELU46
I0928 19:39:42.233777  5057 net.cpp:84] Creating Layer M2PELU46
I0928 19:39:42.233779  5057 net.cpp:406] M2PELU46 <- Convolution48
I0928 19:39:42.233784  5057 net.cpp:367] M2PELU46 -> Convolution48 (in-place)
I0928 19:39:42.233875  5057 net.cpp:122] Setting up M2PELU46
I0928 19:39:42.233880  5057 net.cpp:129] Top shape: 100 64 8 8 (409600)
I0928 19:39:42.233881  5057 net.cpp:137] Memory required for data: 949863600
I0928 19:39:42.233886  5057 layer_factory.hpp:77] Creating layer Convolution49
I0928 19:39:42.233892  5057 net.cpp:84] Creating Layer Convolution49
I0928 19:39:42.233896  5057 net.cpp:406] Convolution49 <- Convolution48
I0928 19:39:42.233899  5057 net.cpp:380] Convolution49 -> Convolution49
I0928 19:39:42.235968  5057 net.cpp:122] Setting up Convolution49
I0928 19:39:42.235977  5057 net.cpp:129] Top shape: 100 64 8 8 (409600)
I0928 19:39:42.235980  5057 net.cpp:137] Memory required for data: 951502000
I0928 19:39:42.235985  5057 layer_factory.hpp:77] Creating layer BatchNorm49
I0928 19:39:42.235988  5057 net.cpp:84] Creating Layer BatchNorm49
I0928 19:39:42.235991  5057 net.cpp:406] BatchNorm49 <- Convolution49
I0928 19:39:42.254849  5057 net.cpp:367] BatchNorm49 -> Convolution49 (in-place)
I0928 19:39:42.255059  5057 net.cpp:122] Setting up BatchNorm49
I0928 19:39:42.255067  5057 net.cpp:129] Top shape: 100 64 8 8 (409600)
I0928 19:39:42.255069  5057 net.cpp:137] Memory required for data: 953140400
I0928 19:39:42.255075  5057 layer_factory.hpp:77] Creating layer Scale49
I0928 19:39:42.255080  5057 net.cpp:84] Creating Layer Scale49
I0928 19:39:42.255084  5057 net.cpp:406] Scale49 <- Convolution49
I0928 19:39:42.255095  5057 net.cpp:367] Scale49 -> Convolution49 (in-place)
I0928 19:39:42.255126  5057 layer_factory.hpp:77] Creating layer Scale49
I0928 19:39:42.255213  5057 net.cpp:122] Setting up Scale49
I0928 19:39:42.255218  5057 net.cpp:129] Top shape: 100 64 8 8 (409600)
I0928 19:39:42.255220  5057 net.cpp:137] Memory required for data: 954778800
I0928 19:39:42.255225  5057 layer_factory.hpp:77] Creating layer Eltwise23
I0928 19:39:42.255229  5057 net.cpp:84] Creating Layer Eltwise23
I0928 19:39:42.255233  5057 net.cpp:406] Eltwise23 <- Eltwise22_M2PELU45_0_split_1
I0928 19:39:42.255236  5057 net.cpp:406] Eltwise23 <- Convolution49
I0928 19:39:42.255244  5057 net.cpp:380] Eltwise23 -> Eltwise23
I0928 19:39:42.255262  5057 net.cpp:122] Setting up Eltwise23
I0928 19:39:42.255267  5057 net.cpp:129] Top shape: 100 64 8 8 (409600)
I0928 19:39:42.255270  5057 net.cpp:137] Memory required for data: 956417200
I0928 19:39:42.255272  5057 layer_factory.hpp:77] Creating layer M2PELU47
I0928 19:39:42.255276  5057 net.cpp:84] Creating Layer M2PELU47
I0928 19:39:42.255280  5057 net.cpp:406] M2PELU47 <- Eltwise23
I0928 19:39:42.255283  5057 net.cpp:367] M2PELU47 -> Eltwise23 (in-place)
I0928 19:39:42.255391  5057 net.cpp:122] Setting up M2PELU47
I0928 19:39:42.255398  5057 net.cpp:129] Top shape: 100 64 8 8 (409600)
I0928 19:39:42.255399  5057 net.cpp:137] Memory required for data: 958055600
I0928 19:39:42.255403  5057 layer_factory.hpp:77] Creating layer Eltwise23_M2PELU47_0_split
I0928 19:39:42.255408  5057 net.cpp:84] Creating Layer Eltwise23_M2PELU47_0_split
I0928 19:39:42.255410  5057 net.cpp:406] Eltwise23_M2PELU47_0_split <- Eltwise23
I0928 19:39:42.255414  5057 net.cpp:380] Eltwise23_M2PELU47_0_split -> Eltwise23_M2PELU47_0_split_0
I0928 19:39:42.255419  5057 net.cpp:380] Eltwise23_M2PELU47_0_split -> Eltwise23_M2PELU47_0_split_1
I0928 19:39:42.255444  5057 net.cpp:122] Setting up Eltwise23_M2PELU47_0_split
I0928 19:39:42.255447  5057 net.cpp:129] Top shape: 100 64 8 8 (409600)
I0928 19:39:42.255450  5057 net.cpp:129] Top shape: 100 64 8 8 (409600)
I0928 19:39:42.255452  5057 net.cpp:137] Memory required for data: 961332400
I0928 19:39:42.255455  5057 layer_factory.hpp:77] Creating layer Convolution50
I0928 19:39:42.255460  5057 net.cpp:84] Creating Layer Convolution50
I0928 19:39:42.255463  5057 net.cpp:406] Convolution50 <- Eltwise23_M2PELU47_0_split_0
I0928 19:39:42.255468  5057 net.cpp:380] Convolution50 -> Convolution50
I0928 19:39:42.258198  5057 net.cpp:122] Setting up Convolution50
I0928 19:39:42.258208  5057 net.cpp:129] Top shape: 100 64 8 8 (409600)
I0928 19:39:42.258209  5057 net.cpp:137] Memory required for data: 962970800
I0928 19:39:42.258214  5057 layer_factory.hpp:77] Creating layer BatchNorm50
I0928 19:39:42.258221  5057 net.cpp:84] Creating Layer BatchNorm50
I0928 19:39:42.258224  5057 net.cpp:406] BatchNorm50 <- Convolution50
I0928 19:39:42.258229  5057 net.cpp:367] BatchNorm50 -> Convolution50 (in-place)
I0928 19:39:42.258369  5057 net.cpp:122] Setting up BatchNorm50
I0928 19:39:42.258374  5057 net.cpp:129] Top shape: 100 64 8 8 (409600)
I0928 19:39:42.258376  5057 net.cpp:137] Memory required for data: 964609200
I0928 19:39:42.258381  5057 layer_factory.hpp:77] Creating layer Scale50
I0928 19:39:42.258385  5057 net.cpp:84] Creating Layer Scale50
I0928 19:39:42.258388  5057 net.cpp:406] Scale50 <- Convolution50
I0928 19:39:42.258391  5057 net.cpp:367] Scale50 -> Convolution50 (in-place)
I0928 19:39:42.258421  5057 layer_factory.hpp:77] Creating layer Scale50
I0928 19:39:42.258498  5057 net.cpp:122] Setting up Scale50
I0928 19:39:42.258504  5057 net.cpp:129] Top shape: 100 64 8 8 (409600)
I0928 19:39:42.258507  5057 net.cpp:137] Memory required for data: 966247600
I0928 19:39:42.258510  5057 layer_factory.hpp:77] Creating layer M2PELU48
I0928 19:39:42.258515  5057 net.cpp:84] Creating Layer M2PELU48
I0928 19:39:42.258517  5057 net.cpp:406] M2PELU48 <- Convolution50
I0928 19:39:42.258543  5057 net.cpp:367] M2PELU48 -> Convolution50 (in-place)
I0928 19:39:42.258651  5057 net.cpp:122] Setting up M2PELU48
I0928 19:39:42.258663  5057 net.cpp:129] Top shape: 100 64 8 8 (409600)
I0928 19:39:42.258666  5057 net.cpp:137] Memory required for data: 967886000
I0928 19:39:42.258671  5057 layer_factory.hpp:77] Creating layer Convolution51
I0928 19:39:42.258678  5057 net.cpp:84] Creating Layer Convolution51
I0928 19:39:42.258682  5057 net.cpp:406] Convolution51 <- Convolution50
I0928 19:39:42.258687  5057 net.cpp:380] Convolution51 -> Convolution51
I0928 19:39:42.260421  5057 net.cpp:122] Setting up Convolution51
I0928 19:39:42.260429  5057 net.cpp:129] Top shape: 100 64 8 8 (409600)
I0928 19:39:42.260432  5057 net.cpp:137] Memory required for data: 969524400
I0928 19:39:42.260437  5057 layer_factory.hpp:77] Creating layer BatchNorm51
I0928 19:39:42.260443  5057 net.cpp:84] Creating Layer BatchNorm51
I0928 19:39:42.260447  5057 net.cpp:406] BatchNorm51 <- Convolution51
I0928 19:39:42.260452  5057 net.cpp:367] BatchNorm51 -> Convolution51 (in-place)
I0928 19:39:42.260588  5057 net.cpp:122] Setting up BatchNorm51
I0928 19:39:42.260593  5057 net.cpp:129] Top shape: 100 64 8 8 (409600)
I0928 19:39:42.260596  5057 net.cpp:137] Memory required for data: 971162800
I0928 19:39:42.260601  5057 layer_factory.hpp:77] Creating layer Scale51
I0928 19:39:42.260604  5057 net.cpp:84] Creating Layer Scale51
I0928 19:39:42.260607  5057 net.cpp:406] Scale51 <- Convolution51
I0928 19:39:42.260610  5057 net.cpp:367] Scale51 -> Convolution51 (in-place)
I0928 19:39:42.260638  5057 layer_factory.hpp:77] Creating layer Scale51
I0928 19:39:42.260716  5057 net.cpp:122] Setting up Scale51
I0928 19:39:42.260720  5057 net.cpp:129] Top shape: 100 64 8 8 (409600)
I0928 19:39:42.260722  5057 net.cpp:137] Memory required for data: 972801200
I0928 19:39:42.260726  5057 layer_factory.hpp:77] Creating layer Eltwise24
I0928 19:39:42.260731  5057 net.cpp:84] Creating Layer Eltwise24
I0928 19:39:42.260735  5057 net.cpp:406] Eltwise24 <- Eltwise23_M2PELU47_0_split_1
I0928 19:39:42.260737  5057 net.cpp:406] Eltwise24 <- Convolution51
I0928 19:39:42.260740  5057 net.cpp:380] Eltwise24 -> Eltwise24
I0928 19:39:42.260758  5057 net.cpp:122] Setting up Eltwise24
I0928 19:39:42.260762  5057 net.cpp:129] Top shape: 100 64 8 8 (409600)
I0928 19:39:42.260764  5057 net.cpp:137] Memory required for data: 974439600
I0928 19:39:42.260766  5057 layer_factory.hpp:77] Creating layer M2PELU49
I0928 19:39:42.260771  5057 net.cpp:84] Creating Layer M2PELU49
I0928 19:39:42.260774  5057 net.cpp:406] M2PELU49 <- Eltwise24
I0928 19:39:42.260777  5057 net.cpp:367] M2PELU49 -> Eltwise24 (in-place)
I0928 19:39:42.260869  5057 net.cpp:122] Setting up M2PELU49
I0928 19:39:42.260874  5057 net.cpp:129] Top shape: 100 64 8 8 (409600)
I0928 19:39:42.260876  5057 net.cpp:137] Memory required for data: 976078000
I0928 19:39:42.260880  5057 layer_factory.hpp:77] Creating layer Eltwise24_M2PELU49_0_split
I0928 19:39:42.260885  5057 net.cpp:84] Creating Layer Eltwise24_M2PELU49_0_split
I0928 19:39:42.260886  5057 net.cpp:406] Eltwise24_M2PELU49_0_split <- Eltwise24
I0928 19:39:42.260891  5057 net.cpp:380] Eltwise24_M2PELU49_0_split -> Eltwise24_M2PELU49_0_split_0
I0928 19:39:42.260896  5057 net.cpp:380] Eltwise24_M2PELU49_0_split -> Eltwise24_M2PELU49_0_split_1
I0928 19:39:42.260931  5057 net.cpp:122] Setting up Eltwise24_M2PELU49_0_split
I0928 19:39:42.260936  5057 net.cpp:129] Top shape: 100 64 8 8 (409600)
I0928 19:39:42.260939  5057 net.cpp:129] Top shape: 100 64 8 8 (409600)
I0928 19:39:42.260941  5057 net.cpp:137] Memory required for data: 979354800
I0928 19:39:42.260944  5057 layer_factory.hpp:77] Creating layer Convolution52
I0928 19:39:42.260951  5057 net.cpp:84] Creating Layer Convolution52
I0928 19:39:42.260953  5057 net.cpp:406] Convolution52 <- Eltwise24_M2PELU49_0_split_0
I0928 19:39:42.260957  5057 net.cpp:380] Convolution52 -> Convolution52
I0928 19:39:42.263062  5057 net.cpp:122] Setting up Convolution52
I0928 19:39:42.263070  5057 net.cpp:129] Top shape: 100 64 8 8 (409600)
I0928 19:39:42.263072  5057 net.cpp:137] Memory required for data: 980993200
I0928 19:39:42.263077  5057 layer_factory.hpp:77] Creating layer BatchNorm52
I0928 19:39:42.263089  5057 net.cpp:84] Creating Layer BatchNorm52
I0928 19:39:42.263092  5057 net.cpp:406] BatchNorm52 <- Convolution52
I0928 19:39:42.263097  5057 net.cpp:367] BatchNorm52 -> Convolution52 (in-place)
I0928 19:39:42.263236  5057 net.cpp:122] Setting up BatchNorm52
I0928 19:39:42.263240  5057 net.cpp:129] Top shape: 100 64 8 8 (409600)
I0928 19:39:42.263242  5057 net.cpp:137] Memory required for data: 982631600
I0928 19:39:42.263247  5057 layer_factory.hpp:77] Creating layer Scale52
I0928 19:39:42.263252  5057 net.cpp:84] Creating Layer Scale52
I0928 19:39:42.263254  5057 net.cpp:406] Scale52 <- Convolution52
I0928 19:39:42.263258  5057 net.cpp:367] Scale52 -> Convolution52 (in-place)
I0928 19:39:42.263285  5057 layer_factory.hpp:77] Creating layer Scale52
I0928 19:39:42.263367  5057 net.cpp:122] Setting up Scale52
I0928 19:39:42.263371  5057 net.cpp:129] Top shape: 100 64 8 8 (409600)
I0928 19:39:42.263373  5057 net.cpp:137] Memory required for data: 984270000
I0928 19:39:42.263377  5057 layer_factory.hpp:77] Creating layer M2PELU50
I0928 19:39:42.263383  5057 net.cpp:84] Creating Layer M2PELU50
I0928 19:39:42.263386  5057 net.cpp:406] M2PELU50 <- Convolution52
I0928 19:39:42.263389  5057 net.cpp:367] M2PELU50 -> Convolution52 (in-place)
I0928 19:39:42.263478  5057 net.cpp:122] Setting up M2PELU50
I0928 19:39:42.263484  5057 net.cpp:129] Top shape: 100 64 8 8 (409600)
I0928 19:39:42.263485  5057 net.cpp:137] Memory required for data: 985908400
I0928 19:39:42.263489  5057 layer_factory.hpp:77] Creating layer Convolution53
I0928 19:39:42.263496  5057 net.cpp:84] Creating Layer Convolution53
I0928 19:39:42.263499  5057 net.cpp:406] Convolution53 <- Convolution52
I0928 19:39:42.263504  5057 net.cpp:380] Convolution53 -> Convolution53
I0928 19:39:42.265305  5057 net.cpp:122] Setting up Convolution53
I0928 19:39:42.265314  5057 net.cpp:129] Top shape: 100 64 8 8 (409600)
I0928 19:39:42.265317  5057 net.cpp:137] Memory required for data: 987546800
I0928 19:39:42.265321  5057 layer_factory.hpp:77] Creating layer BatchNorm53
I0928 19:39:42.265327  5057 net.cpp:84] Creating Layer BatchNorm53
I0928 19:39:42.265331  5057 net.cpp:406] BatchNorm53 <- Convolution53
I0928 19:39:42.265336  5057 net.cpp:367] BatchNorm53 -> Convolution53 (in-place)
I0928 19:39:42.265486  5057 net.cpp:122] Setting up BatchNorm53
I0928 19:39:42.265491  5057 net.cpp:129] Top shape: 100 64 8 8 (409600)
I0928 19:39:42.265493  5057 net.cpp:137] Memory required for data: 989185200
I0928 19:39:42.265498  5057 layer_factory.hpp:77] Creating layer Scale53
I0928 19:39:42.265502  5057 net.cpp:84] Creating Layer Scale53
I0928 19:39:42.265506  5057 net.cpp:406] Scale53 <- Convolution53
I0928 19:39:42.265508  5057 net.cpp:367] Scale53 -> Convolution53 (in-place)
I0928 19:39:42.265539  5057 layer_factory.hpp:77] Creating layer Scale53
I0928 19:39:42.265625  5057 net.cpp:122] Setting up Scale53
I0928 19:39:42.265628  5057 net.cpp:129] Top shape: 100 64 8 8 (409600)
I0928 19:39:42.265631  5057 net.cpp:137] Memory required for data: 990823600
I0928 19:39:42.265635  5057 layer_factory.hpp:77] Creating layer Eltwise25
I0928 19:39:42.265640  5057 net.cpp:84] Creating Layer Eltwise25
I0928 19:39:42.265643  5057 net.cpp:406] Eltwise25 <- Eltwise24_M2PELU49_0_split_1
I0928 19:39:42.265647  5057 net.cpp:406] Eltwise25 <- Convolution53
I0928 19:39:42.265650  5057 net.cpp:380] Eltwise25 -> Eltwise25
I0928 19:39:42.265669  5057 net.cpp:122] Setting up Eltwise25
I0928 19:39:42.265674  5057 net.cpp:129] Top shape: 100 64 8 8 (409600)
I0928 19:39:42.265676  5057 net.cpp:137] Memory required for data: 992462000
I0928 19:39:42.265678  5057 layer_factory.hpp:77] Creating layer M2PELU51
I0928 19:39:42.265692  5057 net.cpp:84] Creating Layer M2PELU51
I0928 19:39:42.265696  5057 net.cpp:406] M2PELU51 <- Eltwise25
I0928 19:39:42.265698  5057 net.cpp:367] M2PELU51 -> Eltwise25 (in-place)
I0928 19:39:42.265789  5057 net.cpp:122] Setting up M2PELU51
I0928 19:39:42.265794  5057 net.cpp:129] Top shape: 100 64 8 8 (409600)
I0928 19:39:42.265802  5057 net.cpp:137] Memory required for data: 994100400
I0928 19:39:42.265807  5057 layer_factory.hpp:77] Creating layer Eltwise25_M2PELU51_0_split
I0928 19:39:42.265810  5057 net.cpp:84] Creating Layer Eltwise25_M2PELU51_0_split
I0928 19:39:42.265813  5057 net.cpp:406] Eltwise25_M2PELU51_0_split <- Eltwise25
I0928 19:39:42.265816  5057 net.cpp:380] Eltwise25_M2PELU51_0_split -> Eltwise25_M2PELU51_0_split_0
I0928 19:39:42.265820  5057 net.cpp:380] Eltwise25_M2PELU51_0_split -> Eltwise25_M2PELU51_0_split_1
I0928 19:39:42.265846  5057 net.cpp:122] Setting up Eltwise25_M2PELU51_0_split
I0928 19:39:42.265851  5057 net.cpp:129] Top shape: 100 64 8 8 (409600)
I0928 19:39:42.265852  5057 net.cpp:129] Top shape: 100 64 8 8 (409600)
I0928 19:39:42.265854  5057 net.cpp:137] Memory required for data: 997377200
I0928 19:39:42.265856  5057 layer_factory.hpp:77] Creating layer Convolution54
I0928 19:39:42.265863  5057 net.cpp:84] Creating Layer Convolution54
I0928 19:39:42.265866  5057 net.cpp:406] Convolution54 <- Eltwise25_M2PELU51_0_split_0
I0928 19:39:42.265871  5057 net.cpp:380] Convolution54 -> Convolution54
I0928 19:39:42.267935  5057 net.cpp:122] Setting up Convolution54
I0928 19:39:42.267944  5057 net.cpp:129] Top shape: 100 64 8 8 (409600)
I0928 19:39:42.267947  5057 net.cpp:137] Memory required for data: 999015600
I0928 19:39:42.267952  5057 layer_factory.hpp:77] Creating layer BatchNorm54
I0928 19:39:42.267957  5057 net.cpp:84] Creating Layer BatchNorm54
I0928 19:39:42.267959  5057 net.cpp:406] BatchNorm54 <- Convolution54
I0928 19:39:42.267964  5057 net.cpp:367] BatchNorm54 -> Convolution54 (in-place)
I0928 19:39:42.268108  5057 net.cpp:122] Setting up BatchNorm54
I0928 19:39:42.268113  5057 net.cpp:129] Top shape: 100 64 8 8 (409600)
I0928 19:39:42.268115  5057 net.cpp:137] Memory required for data: 1000654000
I0928 19:39:42.268121  5057 layer_factory.hpp:77] Creating layer Scale54
I0928 19:39:42.268124  5057 net.cpp:84] Creating Layer Scale54
I0928 19:39:42.268126  5057 net.cpp:406] Scale54 <- Convolution54
I0928 19:39:42.268131  5057 net.cpp:367] Scale54 -> Convolution54 (in-place)
I0928 19:39:42.268158  5057 layer_factory.hpp:77] Creating layer Scale54
I0928 19:39:42.268239  5057 net.cpp:122] Setting up Scale54
I0928 19:39:42.268244  5057 net.cpp:129] Top shape: 100 64 8 8 (409600)
I0928 19:39:42.268245  5057 net.cpp:137] Memory required for data: 1002292400
I0928 19:39:42.268249  5057 layer_factory.hpp:77] Creating layer M2PELU52
I0928 19:39:42.268254  5057 net.cpp:84] Creating Layer M2PELU52
I0928 19:39:42.268256  5057 net.cpp:406] M2PELU52 <- Convolution54
I0928 19:39:42.268260  5057 net.cpp:367] M2PELU52 -> Convolution54 (in-place)
I0928 19:39:42.268354  5057 net.cpp:122] Setting up M2PELU52
I0928 19:39:42.268359  5057 net.cpp:129] Top shape: 100 64 8 8 (409600)
I0928 19:39:42.268362  5057 net.cpp:137] Memory required for data: 1003930800
I0928 19:39:42.268365  5057 layer_factory.hpp:77] Creating layer Convolution55
I0928 19:39:42.268373  5057 net.cpp:84] Creating Layer Convolution55
I0928 19:39:42.268375  5057 net.cpp:406] Convolution55 <- Convolution54
I0928 19:39:42.268379  5057 net.cpp:380] Convolution55 -> Convolution55
I0928 19:39:42.270095  5057 net.cpp:122] Setting up Convolution55
I0928 19:39:42.270104  5057 net.cpp:129] Top shape: 100 64 8 8 (409600)
I0928 19:39:42.270107  5057 net.cpp:137] Memory required for data: 1005569200
I0928 19:39:42.270110  5057 layer_factory.hpp:77] Creating layer BatchNorm55
I0928 19:39:42.283012  5057 net.cpp:84] Creating Layer BatchNorm55
I0928 19:39:42.283022  5057 net.cpp:406] BatchNorm55 <- Convolution55
I0928 19:39:42.283031  5057 net.cpp:367] BatchNorm55 -> Convolution55 (in-place)
I0928 19:39:42.283195  5057 net.cpp:122] Setting up BatchNorm55
I0928 19:39:42.283201  5057 net.cpp:129] Top shape: 100 64 8 8 (409600)
I0928 19:39:42.283203  5057 net.cpp:137] Memory required for data: 1007207600
I0928 19:39:42.283210  5057 layer_factory.hpp:77] Creating layer Scale55
I0928 19:39:42.283215  5057 net.cpp:84] Creating Layer Scale55
I0928 19:39:42.283218  5057 net.cpp:406] Scale55 <- Convolution55
I0928 19:39:42.283228  5057 net.cpp:367] Scale55 -> Convolution55 (in-place)
I0928 19:39:42.283262  5057 layer_factory.hpp:77] Creating layer Scale55
I0928 19:39:42.283351  5057 net.cpp:122] Setting up Scale55
I0928 19:39:42.283357  5057 net.cpp:129] Top shape: 100 64 8 8 (409600)
I0928 19:39:42.283360  5057 net.cpp:137] Memory required for data: 1008846000
I0928 19:39:42.283365  5057 layer_factory.hpp:77] Creating layer Eltwise26
I0928 19:39:42.283368  5057 net.cpp:84] Creating Layer Eltwise26
I0928 19:39:42.283371  5057 net.cpp:406] Eltwise26 <- Eltwise25_M2PELU51_0_split_1
I0928 19:39:42.283375  5057 net.cpp:406] Eltwise26 <- Convolution55
I0928 19:39:42.283380  5057 net.cpp:380] Eltwise26 -> Eltwise26
I0928 19:39:42.283398  5057 net.cpp:122] Setting up Eltwise26
I0928 19:39:42.283402  5057 net.cpp:129] Top shape: 100 64 8 8 (409600)
I0928 19:39:42.283404  5057 net.cpp:137] Memory required for data: 1010484400
I0928 19:39:42.283407  5057 layer_factory.hpp:77] Creating layer M2PELU53
I0928 19:39:42.283412  5057 net.cpp:84] Creating Layer M2PELU53
I0928 19:39:42.283416  5057 net.cpp:406] M2PELU53 <- Eltwise26
I0928 19:39:42.283419  5057 net.cpp:367] M2PELU53 -> Eltwise26 (in-place)
I0928 19:39:42.283522  5057 net.cpp:122] Setting up M2PELU53
I0928 19:39:42.283529  5057 net.cpp:129] Top shape: 100 64 8 8 (409600)
I0928 19:39:42.283530  5057 net.cpp:137] Memory required for data: 1012122800
I0928 19:39:42.283535  5057 layer_factory.hpp:77] Creating layer Eltwise26_M2PELU53_0_split
I0928 19:39:42.283538  5057 net.cpp:84] Creating Layer Eltwise26_M2PELU53_0_split
I0928 19:39:42.283542  5057 net.cpp:406] Eltwise26_M2PELU53_0_split <- Eltwise26
I0928 19:39:42.283545  5057 net.cpp:380] Eltwise26_M2PELU53_0_split -> Eltwise26_M2PELU53_0_split_0
I0928 19:39:42.283550  5057 net.cpp:380] Eltwise26_M2PELU53_0_split -> Eltwise26_M2PELU53_0_split_1
I0928 19:39:42.283577  5057 net.cpp:122] Setting up Eltwise26_M2PELU53_0_split
I0928 19:39:42.283581  5057 net.cpp:129] Top shape: 100 64 8 8 (409600)
I0928 19:39:42.283584  5057 net.cpp:129] Top shape: 100 64 8 8 (409600)
I0928 19:39:42.283586  5057 net.cpp:137] Memory required for data: 1015399600
I0928 19:39:42.283589  5057 layer_factory.hpp:77] Creating layer Convolution56
I0928 19:39:42.283596  5057 net.cpp:84] Creating Layer Convolution56
I0928 19:39:42.283598  5057 net.cpp:406] Convolution56 <- Eltwise26_M2PELU53_0_split_0
I0928 19:39:42.283603  5057 net.cpp:380] Convolution56 -> Convolution56
I0928 19:39:42.286147  5057 net.cpp:122] Setting up Convolution56
I0928 19:39:42.286156  5057 net.cpp:129] Top shape: 100 64 8 8 (409600)
I0928 19:39:42.286159  5057 net.cpp:137] Memory required for data: 1017038000
I0928 19:39:42.286164  5057 layer_factory.hpp:77] Creating layer BatchNorm56
I0928 19:39:42.286170  5057 net.cpp:84] Creating Layer BatchNorm56
I0928 19:39:42.286172  5057 net.cpp:406] BatchNorm56 <- Convolution56
I0928 19:39:42.286176  5057 net.cpp:367] BatchNorm56 -> Convolution56 (in-place)
I0928 19:39:42.286324  5057 net.cpp:122] Setting up BatchNorm56
I0928 19:39:42.286329  5057 net.cpp:129] Top shape: 100 64 8 8 (409600)
I0928 19:39:42.286331  5057 net.cpp:137] Memory required for data: 1018676400
I0928 19:39:42.286336  5057 layer_factory.hpp:77] Creating layer Scale56
I0928 19:39:42.286340  5057 net.cpp:84] Creating Layer Scale56
I0928 19:39:42.286343  5057 net.cpp:406] Scale56 <- Convolution56
I0928 19:39:42.286347  5057 net.cpp:367] Scale56 -> Convolution56 (in-place)
I0928 19:39:42.286375  5057 layer_factory.hpp:77] Creating layer Scale56
I0928 19:39:42.286458  5057 net.cpp:122] Setting up Scale56
I0928 19:39:42.286461  5057 net.cpp:129] Top shape: 100 64 8 8 (409600)
I0928 19:39:42.286463  5057 net.cpp:137] Memory required for data: 1020314800
I0928 19:39:42.286468  5057 layer_factory.hpp:77] Creating layer M2PELU54
I0928 19:39:42.286473  5057 net.cpp:84] Creating Layer M2PELU54
I0928 19:39:42.286476  5057 net.cpp:406] M2PELU54 <- Convolution56
I0928 19:39:42.286479  5057 net.cpp:367] M2PELU54 -> Convolution56 (in-place)
I0928 19:39:42.286614  5057 net.cpp:122] Setting up M2PELU54
I0928 19:39:42.286622  5057 net.cpp:129] Top shape: 100 64 8 8 (409600)
I0928 19:39:42.286625  5057 net.cpp:137] Memory required for data: 1021953200
I0928 19:39:42.286633  5057 layer_factory.hpp:77] Creating layer Convolution57
I0928 19:39:42.286643  5057 net.cpp:84] Creating Layer Convolution57
I0928 19:39:42.286649  5057 net.cpp:406] Convolution57 <- Convolution56
I0928 19:39:42.286653  5057 net.cpp:380] Convolution57 -> Convolution57
I0928 19:39:42.288466  5057 net.cpp:122] Setting up Convolution57
I0928 19:39:42.288476  5057 net.cpp:129] Top shape: 100 64 8 8 (409600)
I0928 19:39:42.288480  5057 net.cpp:137] Memory required for data: 1023591600
I0928 19:39:42.288483  5057 layer_factory.hpp:77] Creating layer BatchNorm57
I0928 19:39:42.288489  5057 net.cpp:84] Creating Layer BatchNorm57
I0928 19:39:42.288492  5057 net.cpp:406] BatchNorm57 <- Convolution57
I0928 19:39:42.288496  5057 net.cpp:367] BatchNorm57 -> Convolution57 (in-place)
I0928 19:39:42.288661  5057 net.cpp:122] Setting up BatchNorm57
I0928 19:39:42.288666  5057 net.cpp:129] Top shape: 100 64 8 8 (409600)
I0928 19:39:42.288667  5057 net.cpp:137] Memory required for data: 1025230000
I0928 19:39:42.288672  5057 layer_factory.hpp:77] Creating layer Scale57
I0928 19:39:42.288676  5057 net.cpp:84] Creating Layer Scale57
I0928 19:39:42.288678  5057 net.cpp:406] Scale57 <- Convolution57
I0928 19:39:42.288682  5057 net.cpp:367] Scale57 -> Convolution57 (in-place)
I0928 19:39:42.288712  5057 layer_factory.hpp:77] Creating layer Scale57
I0928 19:39:42.288800  5057 net.cpp:122] Setting up Scale57
I0928 19:39:42.288805  5057 net.cpp:129] Top shape: 100 64 8 8 (409600)
I0928 19:39:42.288807  5057 net.cpp:137] Memory required for data: 1026868400
I0928 19:39:42.288811  5057 layer_factory.hpp:77] Creating layer Eltwise27
I0928 19:39:42.288833  5057 net.cpp:84] Creating Layer Eltwise27
I0928 19:39:42.288837  5057 net.cpp:406] Eltwise27 <- Eltwise26_M2PELU53_0_split_1
I0928 19:39:42.288841  5057 net.cpp:406] Eltwise27 <- Convolution57
I0928 19:39:42.288844  5057 net.cpp:380] Eltwise27 -> Eltwise27
I0928 19:39:42.288862  5057 net.cpp:122] Setting up Eltwise27
I0928 19:39:42.288866  5057 net.cpp:129] Top shape: 100 64 8 8 (409600)
I0928 19:39:42.288868  5057 net.cpp:137] Memory required for data: 1028506800
I0928 19:39:42.288872  5057 layer_factory.hpp:77] Creating layer M2PELU55
I0928 19:39:42.288875  5057 net.cpp:84] Creating Layer M2PELU55
I0928 19:39:42.288877  5057 net.cpp:406] M2PELU55 <- Eltwise27
I0928 19:39:42.288882  5057 net.cpp:367] M2PELU55 -> Eltwise27 (in-place)
I0928 19:39:42.288976  5057 net.cpp:122] Setting up M2PELU55
I0928 19:39:42.288981  5057 net.cpp:129] Top shape: 100 64 8 8 (409600)
I0928 19:39:42.288983  5057 net.cpp:137] Memory required for data: 1030145200
I0928 19:39:42.288987  5057 layer_factory.hpp:77] Creating layer Pooling1
I0928 19:39:42.288992  5057 net.cpp:84] Creating Layer Pooling1
I0928 19:39:42.288995  5057 net.cpp:406] Pooling1 <- Eltwise27
I0928 19:39:42.288998  5057 net.cpp:380] Pooling1 -> Pooling1
I0928 19:39:42.289476  5057 net.cpp:122] Setting up Pooling1
I0928 19:39:42.289484  5057 net.cpp:129] Top shape: 100 64 1 1 (6400)
I0928 19:39:42.289487  5057 net.cpp:137] Memory required for data: 1030170800
I0928 19:39:42.289489  5057 layer_factory.hpp:77] Creating layer InnerProduct1
I0928 19:39:42.289496  5057 net.cpp:84] Creating Layer InnerProduct1
I0928 19:39:42.289499  5057 net.cpp:406] InnerProduct1 <- Pooling1
I0928 19:39:42.289503  5057 net.cpp:380] InnerProduct1 -> InnerProduct1
I0928 19:39:42.289611  5057 net.cpp:122] Setting up InnerProduct1
I0928 19:39:42.289616  5057 net.cpp:129] Top shape: 100 10 (1000)
I0928 19:39:42.289619  5057 net.cpp:137] Memory required for data: 1030174800
I0928 19:39:42.289623  5057 layer_factory.hpp:77] Creating layer InnerProduct1_InnerProduct1_0_split
I0928 19:39:42.289628  5057 net.cpp:84] Creating Layer InnerProduct1_InnerProduct1_0_split
I0928 19:39:42.289629  5057 net.cpp:406] InnerProduct1_InnerProduct1_0_split <- InnerProduct1
I0928 19:39:42.289640  5057 net.cpp:380] InnerProduct1_InnerProduct1_0_split -> InnerProduct1_InnerProduct1_0_split_0
I0928 19:39:42.289645  5057 net.cpp:380] InnerProduct1_InnerProduct1_0_split -> InnerProduct1_InnerProduct1_0_split_1
I0928 19:39:42.289672  5057 net.cpp:122] Setting up InnerProduct1_InnerProduct1_0_split
I0928 19:39:42.289676  5057 net.cpp:129] Top shape: 100 10 (1000)
I0928 19:39:42.289680  5057 net.cpp:129] Top shape: 100 10 (1000)
I0928 19:39:42.289681  5057 net.cpp:137] Memory required for data: 1030182800
I0928 19:39:42.289683  5057 layer_factory.hpp:77] Creating layer SoftmaxWithLoss1
I0928 19:39:42.289686  5057 net.cpp:84] Creating Layer SoftmaxWithLoss1
I0928 19:39:42.289690  5057 net.cpp:406] SoftmaxWithLoss1 <- InnerProduct1_InnerProduct1_0_split_0
I0928 19:39:42.289692  5057 net.cpp:406] SoftmaxWithLoss1 <- Data2_Data1_1_split_0
…
