…
I0926 22:37:46.587828  2459 net.cpp:294] The NetState phase (0) differed from the phase (1) specified by a rule in layer Accuracy1
I0926 22:37:46.589159  2459 net.cpp:51] Initializing net from parameters: 
name: "resnet_cifar10"
state {
  phase: TRAIN
  level: 0
  stage: ""
}
layer {
  name: "Data1"
  type: "Data"
  top: "Data1"
  top: "Data2"
  include {
    phase: TRAIN
  }
  transform_param {
    mirror: true
    crop_size: 28
    mean_file: "/home/x306/caffe/xn/PENLU/data/cifar10/mean.binaryproto"
  }
  data_param {
    source: "/home/x306/caffe/xn/PENLU/data/cifar10/cifar10_train_lmdb"
    batch_size: 100
    backend: LMDB
  }
}
layer {
  name: "Convolution1"
  type: "Convolution"
  bottom: "Data1"
  top: "Convolution1"
  param {
    lr_mult: 1
    decay_mult: 1
  }
  param {
    lr_mult: 2
    decay_mult: 0
  }
  convolution_param {
    num_output: 16
    pad: 1
    kernel_size: 3
    stride: 1
    weight_filler {
      type: "gaussian"
      std: 0.118
    }
    bias_filler {
      type: "constant"
      value: 0
    }
  }
}
layer {
  name: "BatchNorm1"
  type: "BatchNorm"
  bottom: "Convolution1"
  top: "Convolution1"
  param {
    lr_mult: 0
    decay_mult: 0
  }
  param {
    lr_mult: 0
    decay_mult: 0
  }
  param {
    lr_mult: 0
    decay_mult: 0
  }
}
layer {
  name: "Scale1"
  type: "Scale"
  bottom: "Convolution1"
  top: "Convolution1"
  scale_param {
    bias_term: true
  }
}
layer {
  name: "penlu1"
  type: "PENLU"
  bottom: "Convolution1"
  top: "Convolution1"
  param {
    lr_mult: 1
    decay_mult: 0
  }
  param {
    lr_mult: 0
    decay_mult: 0
  }
  param {
    lr_mult: 0
    decay_mult: 0
  }
  penlu_param {
    alpha_filler {
      type: "constant"
      value: 2
    }
    beta_filler {
      type: "constant"
      value: 1
    }
    eta_filler {
      type: "constant"
      value: 1
    }
  }
}
layer {
  name: "Convolution2"
  type: "Convolution"
  bottom: "Convolution1"
  top: "Convolution2"
  param {
    lr_mult: 1
    decay_mult: 1
  }
  param {
    lr_mult: 2
    decay_mult: 0
  }
  convolution_param {
    num_output: 16
    pad: 1
    kernel_size: 3
    stride: 1
    weight_filler {
      type: "gaussian"
      std: 0.118
    }
    bias_filler {
      type: "constant"
      value: 0
    }
  }
}
layer {
  name: "BatchNorm2"
  type: "BatchNorm"
  bottom: "Convolution2"
  top: "Convolution2"
  param {
    lr_mult: 0
    decay_mult: 0
  }
  param {
    lr_mult: 0
    decay_mult: 0
  }
  param {
    lr_mult: 0
    decay_mult: 0
  }
}
layer {
  name: "Scale2"
  type: "Scale"
  bottom: "Convolution2"
  top: "Convolution2"
  scale_param {
    bias_term: true
  }
}
layer {
  name: "penlu2"
  type: "PENLU"
  bottom: "Convolution2"
  top: "Convolution2"
  param {
    lr_mult: 1
    decay_mult: 0
  }
  param {
    lr_mult: 0
    decay_mult: 0
  }
  param {
    lr_mult: 0
    decay_mult: 0
  }
  penlu_param {
    alpha_filler {
      type: "constant"
      value: 2
    }
    beta_filler {
      type: "constant"
      value: 1
    }
    eta_filler {
      type: "constant"
      value: 1
    }
  }
}
layer {
  name: "Convolution3"
  type: "Convolution"
  bottom: "Convolution2"
  top: "Convolution3"
  param {
    lr_mult: 1
    decay_mult: 1
  }
  param {
    lr_mult: 2
    decay_mult: 0
  }
  convolution_param {
    num_output: 16
    pad: 1
    kernel_size: 3
    stride: 1
    weight_filler {
      type: "gaussian"
      std: 0.118
    }
    bias_filler {
      type: "constant"
      value: 0
    }
  }
}
layer {
  name: "BatchNorm3"
  type: "BatchNorm"
  bottom: "Convolution3"
  top: "Convolution3"
  param {
    lr_mult: 0
    decay_mult: 0
  }
  param {
    lr_mult: 0
    decay_mult: 0
  }
  param {
    lr_mult: 0
    decay_mult: 0
  }
}
layer {
  name: "Scale3"
  type: "Scale"
  bottom: "Convolution3"
  top: "Convolution3"
  scale_param {
    bias_term: true
  }
}
layer {
  name: "Eltwise1"
  type: "Eltwise"
  bottom: "Convolution1"
  bottom: "Convolution3"
  top: "Eltwise1"
  eltwise_param {
    operation: SUM
  }
}
layer {
  name: "penlu3"
  type: "PENLU"
  bottom: "Eltwise1"
  top: "Eltwise1"
  param {
    lr_mult: 1
    decay_mult: 0
  }
  param {
    lr_mult: 0
    decay_mult: 0
  }
  param {
    lr_mult: 0
    decay_mult: 0
  }
  penlu_param {
    alpha_filler {
      type: "constant"
      value: 2
    }
    beta_filler {
      type: "constant"
      value: 1
    }
    eta_filler {
      type: "constant"
      value: 1
    }
  }
}
layer {
  name: "Convolution4"
  type: "Convolution"
  bottom: "Eltwise1"
  top: "Convolution4"
  param {
    lr_mult: 1
    decay_mult: 1
  }
  param {
    lr_mult: 2
    decay_mult: 0
  }
  convolution_param {
    num_output: 16
    pad: 1
    kernel_size: 3
    stride: 1
    weight_filler {
      type: "gaussian"
      std: 0.118
    }
    bias_filler {
      type: "constant"
      value: 0
    }
  }
}
layer {
  name: "BatchNorm4"
  type: "BatchNorm"
  bottom: "Convolution4"
  top: "Convolution4"
  param {
    lr_mult: 0
    decay_mult: 0
  }
  param {
    lr_mult: 0
    decay_mult: 0
  }
  param {
    lr_mult: 0
    decay_mult: 0
  }
}
layer {
  name: "Scale4"
  type: "Scale"
  bottom: "Convolution4"
  top: "Convolution4"
  scale_param {
    bias_term: true
  }
}
layer {
  name: "penlu4"
  type: "PENLU"
  bottom: "Convolution4"
  top: "Convolution4"
  param {
    lr_mult: 1
    decay_mult: 0
  }
  param {
    lr_mult: 0
    decay_mult: 0
  }
  param {
    lr_mult: 0
    decay_mult: 0
  }
  penlu_param {
    alpha_filler {
      type: "constant"
      value: 2
    }
    beta_filler {
      type: "constant"
      value: 1
    }
    eta_filler {
      type: "constant"
      value: 1
    }
  }
}
layer {
  name: "Convolution5"
  type: "Convolution"
  bottom: "Convolution4"
  top: "Convolution5"
  param {
    lr_mult: 1
    decay_mult: 1
  }
  param {
    lr_mult: 2
    decay_mult: 0
  }
  convolution_param {
    num_output: 16
    pad: 1
    kernel_size: 3
    stride: 1
    weight_filler {
      type: "gaussian"
      std: 0.118
    }
    bias_filler {
      type: "constant"
      value: 0
    }
  }
}
layer {
  name: "BatchNorm5"
  type: "BatchNorm"
  bottom: "Convolution5"
  top: "Convolution5"
  param {
    lr_mult: 0
    decay_mult: 0
  }
  param {
    lr_mult: 0
    decay_mult: 0
  }
  param {
    lr_mult: 0
    decay_mult: 0
  }
}
layer {
  name: "Scale5"
  type: "Scale"
  bottom: "Convolution5"
  top: "Convolution5"
  scale_param {
    bias_term: true
  }
}
layer {
  name: "Eltwise2"
  type: "Eltwise"
  bottom: "Eltwise1"
  bottom: "Convolution5"
  top: "Eltwise2"
  eltwise_param {
    operation: SUM
  }
}
layer {
  name: "penlu5"
  type: "PENLU"
  bottom: "Eltwise2"
  top: "Eltwise2"
  param {
    lr_mult: 1
    decay_mult: 0
  }
  param {
    lr_mult: 0
    decay_mult: 0
  }
  param {
    lr_mult: 0
    decay_mult: 0
  }
  penlu_param {
    alpha_filler {
      type: "constant"
      value: 2
    }
    beta_filler {
      type: "constant"
      value: 1
    }
    eta_filler {
      type: "constant"
      value: 1
    }
  }
}
layer {
  name: "Convolution6"
  type: "Convolution"
  bottom: "Eltwise2"
  top: "Convolution6"
  param {
    lr_mult: 1
    decay_mult: 1
  }
  param {
    lr_mult: 2
    decay_mult: 0
  }
  convolution_param {
    num_output: 16
    pad: 1
    kernel_size: 3
    stride: 1
    weight_filler {
      type: "gaussian"
      std: 0.118
    }
    bias_filler {
      type: "constant"
      value: 0
    }
  }
}
layer {
  name: "BatchNorm6"
  type: "BatchNorm"
  bottom: "Convolution6"
  top: "Convolution6"
  param {
    lr_mult: 0
    decay_mult: 0
  }
  param {
    lr_mult: 0
    decay_mult: 0
  }
  param {
    lr_mult: 0
    decay_mult: 0
  }
}
layer {
  name: "Scale6"
  type: "Scale"
  bottom: "Convolution6"
  top: "Convolution6"
  scale_param {
    bias_term: true
  }
}
layer {
  name: "penlu6"
  type: "PENLU"
  bottom: "Convolution6"
  top: "Convolution6"
  param {
    lr_mult: 1
    decay_mult: 0
  }
  param {
    lr_mult: 0
    decay_mult: 0
  }
  param {
    lr_mult: 0
    decay_mult: 0
  }
  penlu_param {
    alpha_filler {
      type: "constant"
      value: 2
    }
    beta_filler {
      type: "constant"
      value: 1
    }
    eta_filler {
      type: "constant"
      value: 1
    }
  }
}
layer {
  name: "Convolution7"
  type: "Convolution"
  bottom: "Convolution6"
  top: "Convolution7"
  param {
    lr_mult: 1
    decay_mult: 1
  }
  param {
    lr_mult: 2
    decay_mult: 0
  }
  convolution_param {
    num_output: 16
    pad: 1
    kernel_size: 3
    stride: 1
    weight_filler {
      type: "gaussian"
      std: 0.118
    }
    bias_filler {
      type: "constant"
      value: 0
    }
  }
}
layer {
  name: "BatchNorm7"
  type: "BatchNorm"
  bottom: "Convolution7"
  top: "Convolution7"
  param {
    lr_mult: 0
    decay_mult: 0
  }
  param {
    lr_mult: 0
    decay_mult: 0
  }
  param {
    lr_mult: 0
    decay_mult: 0
  }
}
layer {
  name: "Scale7"
  type: "Scale"
  bottom: "Convolution7"
  top: "Convolution7"
  scale_param {
    bias_term: true
  }
}
layer {
  name: "Eltwise3"
  type: "Eltwise"
  bottom: "Eltwise2"
  bottom: "Convolution7"
  top: "Eltwise3"
  eltwise_param {
    operation: SUM
  }
}
layer {
  name: "penlu7"
  type: "PENLU"
  bottom: "Eltwise3"
  top: "Eltwise3"
  param {
    lr_mult: 1
    decay_mult: 0
  }
  param {
    lr_mult: 0
    decay_mult: 0
  }
  param {
    lr_mult: 0
    decay_mult: 0
  }
  penlu_param {
    alpha_filler {
      type: "constant"
      value: 2
    }
    beta_filler {
      type: "constant"
      value: 1
    }
    eta_filler {
      type: "constant"
      value: 1
    }
  }
}
layer {
  name: "Convolution8"
  type: "Convolution"
  bottom: "Eltwise3"
  top: "Convolution8"
  param {
    lr_mult: 1
    decay_mult: 1
  }
  param {
    lr_mult: 2
    decay_mult: 0
  }
  convolution_param {
    num_output: 16
    pad: 1
    kernel_size: 3
    stride: 1
    weight_filler {
      type: "gaussian"
      std: 0.118
    }
    bias_filler {
      type: "constant"
      value: 0
    }
  }
}
layer {
  name: "BatchNorm8"
  type: "BatchNorm"
  bottom: "Convolution8"
  top: "Convolution8"
  param {
    lr_mult: 0
    decay_mult: 0
  }
  param {
    lr_mult: 0
    decay_mult: 0
  }
  param {
    lr_mult: 0
    decay_mult: 0
  }
}
layer {
  name: "Scale8"
  type: "Scale"
  bottom: "Convolution8"
  top: "Convolution8"
  scale_param {
    bias_term: true
  }
}
layer {
  name: "penlu8"
  type: "PENLU"
  bottom: "Convolution8"
  top: "Convolution8"
  param {
    lr_mult: 1
    decay_mult: 0
  }
  param {
    lr_mult: 0
    decay_mult: 0
  }
  param {
    lr_mult: 0
    decay_mult: 0
  }
  penlu_param {
    alpha_filler {
      type: "constant"
      value: 2
    }
    beta_filler {
      type: "constant"
      value: 1
    }
    eta_filler {
      type: "constant"
      value: 1
    }
  }
}
layer {
  name: "Convolution9"
  type: "Convolution"
  bottom: "Convolution8"
  top: "Convolution9"
  param {
    lr_mult: 1
    decay_mult: 1
  }
  param {
    lr_mult: 2
    decay_mult: 0
  }
  convolution_param {
    num_output: 16
    pad: 1
    kernel_size: 3
    stride: 1
    weight_filler {
      type: "gaussian"
      std: 0.118
    }
    bias_filler {
      type: "constant"
      value: 0
    }
  }
}
layer {
  name: "BatchNorm9"
  type: "BatchNorm"
  bottom: "Convolution9"
  top: "Convolution9"
  param {
    lr_mult: 0
    decay_mult: 0
  }
  param {
    lr_mult: 0
    decay_mult: 0
  }
  param {
    lr_mult: 0
    decay_mult: 0
  }
}
layer {
  name: "Scale9"
  type: "Scale"
  bottom: "Convolution9"
  top: "Convolution9"
  scale_param {
    bias_term: true
  }
}
layer {
  name: "Eltwise4"
  type: "Eltwise"
  bottom: "Eltwise3"
  bottom: "Convolution9"
  top: "Eltwise4"
  eltwise_param {
    operation: SUM
  }
}
layer {
  name: "penlu9"
  type: "PENLU"
  bottom: "Eltwise4"
  top: "Eltwise4"
  param {
    lr_mult: 1
    decay_mult: 0
  }
  param {
    lr_mult: 0
    decay_mult: 0
  }
  param {
    lr_mult: 0
    decay_mult: 0
  }
  penlu_param {
    alpha_filler {
      type: "constant"
      value: 2
    }
    beta_filler {
      type: "constant"
      value: 1
    }
    eta_filler {
      type: "constant"
      value: 1
    }
  }
}
layer {
  name: "Convolution10"
  type: "Convolution"
  bottom: "Eltwise4"
  top: "Convolution10"
  param {
    lr_mult: 1
    decay_mult: 1
  }
  param {
    lr_mult: 2
    decay_mult: 0
  }
  convolution_param {
    num_output: 16
    pad: 1
    kernel_size: 3
    stride: 1
    weight_filler {
      type: "gaussian"
      std: 0.118
    }
    bias_filler {
      type: "constant"
      value: 0
    }
  }
}
layer {
  name: "BatchNorm10"
  type: "BatchNorm"
  bottom: "Convolution10"
  top: "Convolution10"
  param {
    lr_mult: 0
    decay_mult: 0
  }
  param {
    lr_mult: 0
    decay_mult: 0
  }
  param {
    lr_mult: 0
    decay_mult: 0
  }
}
layer {
  name: "Scale10"
  type: "Scale"
  bottom: "Convolution10"
  top: "Convolution10"
  scale_param {
    bias_term: true
  }
}
layer {
  name: "penlu10"
  type: "PENLU"
  bottom: "Convolution10"
  top: "Convolution10"
  param {
    lr_mult: 1
    decay_mult: 0
  }
  param {
    lr_mult: 0
    decay_mult: 0
  }
  param {
    lr_mult: 0
    decay_mult: 0
  }
  penlu_param {
    alpha_filler {
      type: "constant"
      value: 2
    }
    beta_filler {
      type: "constant"
      value: 1
    }
    eta_filler {
      type: "constant"
      value: 1
    }
  }
}
layer {
  name: "Convolution11"
  type: "Convolution"
  bottom: "Convolution10"
  top: "Convolution11"
  param {
    lr_mult: 1
    decay_mult: 1
  }
  param {
    lr_mult: 2
    decay_mult: 0
  }
  convolution_param {
    num_output: 16
    pad: 1
    kernel_size: 3
    stride: 1
    weight_filler {
      type: "gaussian"
      std: 0.118
    }
    bias_filler {
      type: "constant"
      value: 0
    }
  }
}
layer {
  name: "BatchNorm11"
  type: "BatchNorm"
  bottom: "Convolution11"
  top: "Convolution11"
  param {
    lr_mult: 0
    decay_mult: 0
  }
  param {
    lr_mult: 0
    decay_mult: 0
  }
  param {
    lr_mult: 0
    decay_mult: 0
  }
}
layer {
  name: "Scale11"
  type: "Scale"
  bottom: "Convolution11"
  top: "Convolution11"
  scale_param {
    bias_term: true
  }
}
layer {
  name: "Eltwise5"
  type: "Eltwise"
  bottom: "Eltwise4"
  bottom: "Convolution11"
  top: "Eltwise5"
  eltwise_param {
    operation: SUM
  }
}
layer {
  name: "penlu11"
  type: "PENLU"
  bottom: "Eltwise5"
  top: "Eltwise5"
  param {
    lr_mult: 1
    decay_mult: 0
  }
  param {
    lr_mult: 0
    decay_mult: 0
  }
  param {
    lr_mult: 0
    decay_mult: 0
  }
  penlu_param {
    alpha_filler {
      type: "constant"
      value: 2
    }
    beta_filler {
      type: "constant"
      value: 1
    }
    eta_filler {
      type: "constant"
      value: 1
    }
  }
}
layer {
  name: "Convolution12"
  type: "Convolution"
  bottom: "Eltwise5"
  top: "Convolution12"
  param {
    lr_mult: 1
    decay_mult: 1
  }
  param {
    lr_mult: 2
    decay_mult: 0
  }
  convolution_param {
    num_output: 16
    pad: 1
    kernel_size: 3
    stride: 1
    weight_filler {
      type: "gaussian"
      std: 0.118
    }
    bias_filler {
      type: "constant"
      value: 0
    }
  }
}
layer {
  name: "BatchNorm12"
  type: "BatchNorm"
  bottom: "Convolution12"
  top: "Convolution12"
  param {
    lr_mult: 0
    decay_mult: 0
  }
  param {
    lr_mult: 0
    decay_mult: 0
  }
  param {
    lr_mult: 0
    decay_mult: 0
  }
}
layer {
  name: "Scale12"
  type: "Scale"
  bottom: "Convolution12"
  top: "Convolution12"
  scale_param {
    bias_term: true
  }
}
layer {
  name: "penlu12"
  type: "PENLU"
  bottom: "Convolution12"
  top: "Convolution12"
  param {
    lr_mult: 1
    decay_mult: 0
  }
  param {
    lr_mult: 0
    decay_mult: 0
  }
  param {
    lr_mult: 0
    decay_mult: 0
  }
  penlu_param {
    alpha_filler {
      type: "constant"
      value: 2
    }
    beta_filler {
      type: "constant"
      value: 1
    }
    eta_filler {
      type: "constant"
      value: 1
    }
  }
}
layer {
  name: "Convolution13"
  type: "Convolution"
  bottom: "Convolution12"
  top: "Convolution13"
  param {
    lr_mult: 1
    decay_mult: 1
  }
  param {
    lr_mult: 2
    decay_mult: 0
  }
  convolution_param {
    num_output: 16
    pad: 1
    kernel_size: 3
    stride: 1
    weight_filler {
      type: "gaussian"
      std: 0.118
    }
    bias_filler {
      type: "constant"
      value: 0
    }
  }
}
layer {
  name: "BatchNorm13"
  type: "BatchNorm"
  bottom: "Convolution13"
  top: "Convolution13"
  param {
    lr_mult: 0
    decay_mult: 0
  }
  param {
    lr_mult: 0
    decay_mult: 0
  }
  param {
    lr_mult: 0
    decay_mult: 0
  }
}
layer {
  name: "Scale13"
  type: "Scale"
  bottom: "Convolution13"
  top: "Convolution13"
  scale_param {
    bias_term: true
  }
}
layer {
  name: "Eltwise6"
  type: "Eltwise"
  bottom: "Eltwise5"
  bottom: "Convolution13"
  top: "Eltwise6"
  eltwise_param {
    operation: SUM
  }
}
layer {
  name: "penlu13"
  type: "PENLU"
  bottom: "Eltwise6"
  top: "Eltwise6"
  param {
    lr_mult: 1
    decay_mult: 0
  }
  param {
    lr_mult: 0
    decay_mult: 0
  }
  param {
    lr_mult: 0
    decay_mult: 0
  }
  penlu_param {
    alpha_filler {
      type: "constant"
      value: 2
    }
    beta_filler {
      type: "constant"
      value: 1
    }
    eta_filler {
      type: "constant"
      value: 1
    }
  }
}
layer {
  name: "Convolution14"
  type: "Convolution"
  bottom: "Eltwise6"
  top: "Convolution14"
  param {
    lr_mult: 1
    decay_mult: 1
  }
  param {
    lr_mult: 2
    decay_mult: 0
  }
  convolution_param {
    num_output: 16
    pad: 1
    kernel_size: 3
    stride: 1
    weight_filler {
      type: "gaussian"
      std: 0.118
    }
    bias_filler {
      type: "constant"
      value: 0
    }
  }
}
layer {
  name: "BatchNorm14"
  type: "BatchNorm"
  bottom: "Convolution14"
  top: "Convolution14"
  param {
    lr_mult: 0
    decay_mult: 0
  }
  param {
    lr_mult: 0
    decay_mult: 0
  }
  param {
    lr_mult: 0
    decay_mult: 0
  }
}
layer {
  name: "Scale14"
  type: "Scale"
  bottom: "Convolution14"
  top: "Convolution14"
  scale_param {
    bias_term: true
  }
}
layer {
  name: "penlu14"
  type: "PENLU"
  bottom: "Convolution14"
  top: "Convolution14"
  param {
    lr_mult: 1
    decay_mult: 0
  }
  param {
    lr_mult: 0
    decay_mult: 0
  }
  param {
    lr_mult: 0
    decay_mult: 0
  }
  penlu_param {
    alpha_filler {
      type: "constant"
      value: 2
    }
    beta_filler {
      type: "constant"
      value: 1
    }
    eta_filler {
      type: "constant"
      value: 1
    }
  }
}
layer {
  name: "Convolution15"
  type: "Convolution"
  bottom: "Convolution14"
  top: "Convolution15"
  param {
    lr_mult: 1
    decay_mult: 1
  }
  param {
    lr_mult: 2
    decay_mult: 0
  }
  convolution_param {
    num_output: 16
    pad: 1
    kernel_size: 3
    stride: 1
    weight_filler {
      type: "gaussian"
      std: 0.118
    }
    bias_filler {
      type: "constant"
      value: 0
    }
  }
}
layer {
  name: "BatchNorm15"
  type: "BatchNorm"
  bottom: "Convolution15"
  top: "Convolution15"
  param {
    lr_mult: 0
    decay_mult: 0
  }
  param {
    lr_mult: 0
    decay_mult: 0
  }
  param {
    lr_mult: 0
    decay_mult: 0
  }
}
layer {
  name: "Scale15"
  type: "Scale"
  bottom: "Convolution15"
  top: "Convolution15"
  scale_param {
    bias_term: true
  }
}
layer {
  name: "Eltwise7"
  type: "Eltwise"
  bottom: "Eltwise6"
  bottom: "Convolution15"
  top: "Eltwise7"
  eltwise_param {
    operation: SUM
  }
}
layer {
  name: "penlu15"
  type: "PENLU"
  bottom: "Eltwise7"
  top: "Eltwise7"
  param {
    lr_mult: 1
    decay_mult: 0
  }
  param {
    lr_mult: 0
    decay_mult: 0
  }
  param {
    lr_mult: 0
    decay_mult: 0
  }
  penlu_param {
    alpha_filler {
      type: "constant"
      value: 2
    }
    beta_filler {
      type: "constant"
      value: 1
    }
    eta_filler {
      type: "constant"
      value: 1
    }
  }
}
layer {
  name: "Convolution16"
  type: "Convolution"
  bottom: "Eltwise7"
  top: "Convolution16"
  param {
    lr_mult: 1
    decay_mult: 1
  }
  param {
    lr_mult: 2
    decay_mult: 0
  }
  convolution_param {
    num_output: 16
    pad: 1
    kernel_size: 3
    stride: 1
    weight_filler {
      type: "gaussian"
      std: 0.118
    }
    bias_filler {
      type: "constant"
      value: 0
    }
  }
}
layer {
  name: "BatchNorm16"
  type: "BatchNorm"
  bottom: "Convolution16"
  top: "Convolution16"
  param {
    lr_mult: 0
    decay_mult: 0
  }
  param {
    lr_mult: 0
    decay_mult: 0
  }
  param {
    lr_mult: 0
    decay_mult: 0
  }
}
layer {
  name: "Scale16"
  type: "Scale"
  bottom: "Convolution16"
  top: "Convolution16"
  scale_param {
    bias_term: true
  }
}
layer {
  name: "penlu16"
  type: "PENLU"
  bottom: "Convolution16"
  top: "Convolution16"
  param {
    lr_mult: 1
    decay_mult: 0
  }
  param {
    lr_mult: 0
    decay_mult: 0
  }
  param {
    lr_mult: 0
    decay_mult: 0
  }
  penlu_param {
    alpha_filler {
      type: "constant"
      value: 2
    }
    beta_filler {
      type: "constant"
      value: 1
    }
    eta_filler {
      type: "constant"
      value: 1
    }
  }
}
layer {
  name: "Convolution17"
  type: "Convolution"
  bottom: "Convolution16"
  top: "Convolution17"
  param {
    lr_mult: 1
    decay_mult: 1
  }
  param {
    lr_mult: 2
    decay_mult: 0
  }
  convolution_param {
    num_output: 16
    pad: 1
    kernel_size: 3
    stride: 1
    weight_filler {
      type: "gaussian"
      std: 0.118
    }
    bias_filler {
      type: "constant"
      value: 0
    }
  }
}
layer {
  name: "BatchNorm17"
  type: "BatchNorm"
  bottom: "Convolution17"
  top: "Convolution17"
  param {
    lr_mult: 0
    decay_mult: 0
  }
  param {
    lr_mult: 0
    decay_mult: 0
  }
  param {
    lr_mult: 0
    decay_mult: 0
  }
}
layer {
  name: "Scale17"
  type: "Scale"
  bottom: "Convolution17"
  top: "Convolution17"
  scale_param {
    bias_term: true
  }
}
layer {
  name: "Eltwise8"
  type: "Eltwise"
  bottom: "Eltwise7"
  bottom: "Convolution17"
  top: "Eltwise8"
  eltwise_param {
    operation: SUM
  }
}
layer {
  name: "penlu17"
  type: "PENLU"
  bottom: "Eltwise8"
  top: "Eltwise8"
  param {
    lr_mult: 1
    decay_mult: 0
  }
  param {
    lr_mult: 0
    decay_mult: 0
  }
  param {
    lr_mult: 0
    decay_mult: 0
  }
  penlu_param {
    alpha_filler {
      type: "constant"
      value: 2
    }
    beta_filler {
      type: "constant"
      value: 1
    }
    eta_filler {
      type: "constant"
      value: 1
    }
  }
}
layer {
  name: "Convolution18"
  type: "Convolution"
  bottom: "Eltwise8"
  top: "Convolution18"
  param {
    lr_mult: 1
    decay_mult: 1
  }
  param {
    lr_mult: 2
    decay_mult: 0
  }
  convolution_param {
    num_output: 16
    pad: 1
    kernel_size: 3
    stride: 1
    weight_filler {
      type: "gaussian"
      std: 0.118
    }
    bias_filler {
      type: "constant"
      value: 0
    }
  }
}
layer {
  name: "BatchNorm18"
  type: "BatchNorm"
  bottom: "Convolution18"
  top: "Convolution18"
  param {
    lr_mult: 0
    decay_mult: 0
  }
  param {
    lr_mult: 0
    decay_mult: 0
  }
  param {
    lr_mult: 0
    decay_mult: 0
  }
}
layer {
  name: "Scale18"
  type: "Scale"
  bottom: "Convolution18"
  top: "Convolution18"
  scale_param {
    bias_term: true
  }
}
layer {
  name: "penlu18"
  type: "PENLU"
  bottom: "Convolution18"
  top: "Convolution18"
  param {
    lr_mult: 1
    decay_mult: 0
  }
  param {
    lr_mult: 0
    decay_mult: 0
  }
  param {
    lr_mult: 0
    decay_mult: 0
  }
  penlu_param {
    alpha_filler {
      type: "constant"
      value: 2
    }
    beta_filler {
      type: "constant"
      value: 1
    }
    eta_filler {
      type: "constant"
      value: 1
    }
  }
}
layer {
  name: "Convolution19"
  type: "Convolution"
  bottom: "Convolution18"
  top: "Convolution19"
  param {
    lr_mult: 1
    decay_mult: 1
  }
  param {
    lr_mult: 2
    decay_mult: 0
  }
  convolution_param {
    num_output: 16
    pad: 1
    kernel_size: 3
    stride: 1
    weight_filler {
      type: "gaussian"
      std: 0.118
    }
    bias_filler {
      type: "constant"
      value: 0
    }
  }
}
layer {
  name: "BatchNorm19"
  type: "BatchNorm"
  bottom: "Convolution19"
  top: "Convolution19"
  param {
    lr_mult: 0
    decay_mult: 0
  }
  param {
    lr_mult: 0
    decay_mult: 0
  }
  param {
    lr_mult: 0
    decay_mult: 0
  }
}
layer {
  name: "Scale19"
  type: "Scale"
  bottom: "Convolution19"
  top: "Convolution19"
  scale_param {
    bias_term: true
  }
}
layer {
  name: "Eltwise9"
  type: "Eltwise"
  bottom: "Eltwise8"
  bottom: "Convolution19"
  top: "Eltwise9"
  eltwise_param {
    operation: SUM
  }
}
layer {
  name: "penlu19"
  type: "PENLU"
  bottom: "Eltwise9"
  top: "Eltwise9"
  param {
    lr_mult: 1
    decay_mult: 0
  }
  param {
    lr_mult: 0
    decay_mult: 0
  }
  param {
    lr_mult: 0
    decay_mult: 0
  }
  penlu_param {
    alpha_filler {
      type: "constant"
      value: 2
    }
    beta_filler {
      type: "constant"
      value: 1
    }
    eta_filler {
      type: "constant"
      value: 1
    }
  }
}
layer {
  name: "Convolution20"
  type: "Convolution"
  bottom: "Eltwise9"
  top: "Convolution20"
  param {
    lr_mult: 1
    decay_mult: 1
  }
  param {
    lr_mult: 2
    decay_mult: 0
  }
  convolution_param {
    num_output: 32
    pad: 0
    kernel_size: 1
    stride: 2
    weight_filler {
      type: "gaussian"
      std: 0.25
    }
    bias_filler {
      type: "constant"
      value: 0
    }
  }
}
layer {
  name: "BatchNorm20"
  type: "BatchNorm"
  bottom: "Convolution20"
  top: "Convolution20"
  param {
    lr_mult: 0
    decay_mult: 0
  }
  param {
    lr_mult: 0
    decay_mult: 0
  }
  param {
    lr_mult: 0
    decay_mult: 0
  }
}
layer {
  name: "Scale20"
  type: "Scale"
  bottom: "Convolution20"
  top: "Convolution20"
  scale_param {
    bias_term: true
  }
}
layer {
  name: "Convolution21"
  type: "Convolution"
  bottom: "Eltwise9"
  top: "Convolution21"
  param {
    lr_mult: 1
    decay_mult: 1
  }
  param {
    lr_mult: 2
    decay_mult: 0
  }
  convolution_param {
    num_output: 32
    pad: 1
    kernel_size: 3
    stride: 2
    weight_filler {
      type: "gaussian"
      std: 0.083
    }
    bias_filler {
      type: "constant"
      value: 0
    }
  }
}
layer {
  name: "BatchNorm21"
  type: "BatchNorm"
  bottom: "Convolution21"
  top: "Convolution21"
  param {
    lr_mult: 0
    decay_mult: 0
  }
  param {
    lr_mult: 0
    decay_mult: 0
  }
  param {
    lr_mult: 0
    decay_mult: 0
  }
}
layer {
  name: "Scale21"
  type: "Scale"
  bottom: "Convolution21"
  top: "Convolution21"
  scale_param {
    bias_term: true
  }
}
layer {
  name: "penlu20"
  type: "PENLU"
  bottom: "Convolution21"
  top: "Convolution21"
  param {
    lr_mult: 1
    decay_mult: 0
  }
  param {
    lr_mult: 0
    decay_mult: 0
  }
  param {
    lr_mult: 0
    decay_mult: 0
  }
  penlu_param {
    alpha_filler {
      type: "constant"
      value: 2
    }
    beta_filler {
      type: "constant"
      value: 1
    }
    eta_filler {
      type: "constant"
      value: 1
    }
  }
}
layer {
  name: "Convolution22"
  type: "Convolution"
  bottom: "Convolution21"
  top: "Convolution22"
  param {
    lr_mult: 1
    decay_mult: 1
  }
  param {
    lr_mult: 2
    decay_mult: 0
  }
  convolution_param {
    num_output: 32
    pad: 1
    kernel_size: 3
    stride: 1
    weight_filler {
      type: "gaussian"
      std: 0.083
    }
    bias_filler {
      type: "constant"
      value: 0
    }
  }
}
layer {
  name: "BatchNorm22"
  type: "BatchNorm"
  bottom: "Convolution22"
  top: "Convolution22"
  param {
    lr_mult: 0
    decay_mult: 0
  }
  param {
    lr_mult: 0
    decay_mult: 0
  }
  param {
    lr_mult: 0
    decay_mult: 0
  }
}
layer {
  name: "Scale22"
  type: "Scale"
  bottom: "Convolution22"
  top: "Convolution22"
  scale_param {
    bias_term: true
  }
}
layer {
  name: "Eltwise10"
  type: "Eltwise"
  bottom: "Convolution20"
  bottom: "Convolution22"
  top: "Eltwise10"
  eltwise_param {
    operation: SUM
  }
}
layer {
  name: "penlu21"
  type: "PENLU"
  bottom: "Eltwise10"
  top: "Eltwise10"
  param {
    lr_mult: 1
    decay_mult: 0
  }
  param {
    lr_mult: 0
    decay_mult: 0
  }
  param {
    lr_mult: 0
    decay_mult: 0
  }
  penlu_param {
    alpha_filler {
      type: "constant"
      value: 2
    }
    beta_filler {
      type: "constant"
      value: 1
    }
    eta_filler {
      type: "constant"
      value: 1
    }
  }
}
layer {
  name: "Convolution23"
  type: "Convolution"
  bottom: "Eltwise10"
  top: "Convolution23"
  param {
    lr_mult: 1
    decay_mult: 1
  }
  param {
    lr_mult: 2
    decay_mult: 0
  }
  convolution_param {
    num_output: 32
    pad: 1
    kernel_size: 3
    stride: 1
    weight_filler {
      type: "gaussian"
      std: 0.083
    }
    bias_filler {
      type: "constant"
      value: 0
    }
  }
}
layer {
  name: "BatchNorm23"
  type: "BatchNorm"
  bottom: "Convolution23"
  top: "Convolution23"
  param {
    lr_mult: 0
    decay_mult: 0
  }
  param {
    lr_mult: 0
    decay_mult: 0
  }
  param {
    lr_mult: 0
    decay_mult: 0
  }
}
layer {
  name: "Scale23"
  type: "Scale"
  bottom: "Convolution23"
  top: "Convolution23"
  scale_param {
    bias_term: true
  }
}
layer {
  name: "penlu22"
  type: "PENLU"
  bottom: "Convolution23"
  top: "Convolution23"
  param {
    lr_mult: 1
    decay_mult: 0
  }
  param {
    lr_mult: 0
    decay_mult: 0
  }
  param {
    lr_mult: 0
    decay_mult: 0
  }
  penlu_param {
    alpha_filler {
      type: "constant"
      value: 2
    }
    beta_filler {
      type: "constant"
      value: 1
    }
    eta_filler {
      type: "constant"
      value: 1
    }
  }
}
layer {
  name: "Convolution24"
  type: "Convolution"
  bottom: "Convolution23"
  top: "Convolution24"
  param {
    lr_mult: 1
    decay_mult: 1
  }
  param {
    lr_mult: 2
    decay_mult: 0
  }
  convolution_param {
    num_output: 32
    pad: 1
    kernel_size: 3
    stride: 1
    weight_filler {
      type: "gaussian"
      std
I0926 22:37:46.590324  2459 layer_factory.hpp:77] Creating layer Data1
I0926 22:37:46.833302  2459 db_lmdb.cpp:35] Opened lmdb /home/x306/caffe/xn/PENLU/data/cifar10/cifar10_train_lmdb
I0926 22:37:46.921911  2459 net.cpp:84] Creating Layer Data1
I0926 22:37:46.921932  2459 net.cpp:380] Data1 -> Data1
I0926 22:37:46.957484  2459 net.cpp:380] Data1 -> Data2
I0926 22:37:46.957505  2459 data_transformer.cpp:25] Loading mean file from: /home/x306/caffe/xn/PENLU/data/cifar10/mean.binaryproto
I0926 22:37:47.033345  2459 data_layer.cpp:45] output data size: 100,3,28,28
I0926 22:37:47.037163  2459 net.cpp:122] Setting up Data1
I0926 22:37:47.037191  2459 net.cpp:129] Top shape: 100 3 28 28 (235200)
I0926 22:37:47.037204  2459 net.cpp:129] Top shape: 100 (100)
I0926 22:37:47.037212  2459 net.cpp:137] Memory required for data: 941200
I0926 22:37:47.037228  2459 layer_factory.hpp:77] Creating layer Convolution1
I0926 22:37:47.062036  2459 net.cpp:84] Creating Layer Convolution1
I0926 22:37:47.062048  2459 net.cpp:406] Convolution1 <- Data1
I0926 22:37:47.062063  2459 net.cpp:380] Convolution1 -> Convolution1
I0926 22:37:52.221974  2459 net.cpp:122] Setting up Convolution1
I0926 22:37:52.221997  2459 net.cpp:129] Top shape: 100 16 28 28 (1254400)
I0926 22:37:52.222000  2459 net.cpp:137] Memory required for data: 5958800
I0926 22:37:52.222015  2459 layer_factory.hpp:77] Creating layer BatchNorm1
I0926 22:37:52.222025  2459 net.cpp:84] Creating Layer BatchNorm1
I0926 22:37:52.222030  2459 net.cpp:406] BatchNorm1 <- Convolution1
I0926 22:37:52.222056  2459 net.cpp:367] BatchNorm1 -> Convolution1 (in-place)
I0926 22:37:52.222198  2459 net.cpp:122] Setting up BatchNorm1
I0926 22:37:52.222204  2459 net.cpp:129] Top shape: 100 16 28 28 (1254400)
I0926 22:37:52.222206  2459 net.cpp:137] Memory required for data: 10976400
I0926 22:37:52.222214  2459 layer_factory.hpp:77] Creating layer Scale1
I0926 22:37:52.222223  2459 net.cpp:84] Creating Layer Scale1
I0926 22:37:52.222225  2459 net.cpp:406] Scale1 <- Convolution1
I0926 22:37:52.222239  2459 net.cpp:367] Scale1 -> Convolution1 (in-place)
I0926 22:37:52.222278  2459 layer_factory.hpp:77] Creating layer Scale1
I0926 22:37:52.247417  2459 net.cpp:122] Setting up Scale1
I0926 22:37:52.247431  2459 net.cpp:129] Top shape: 100 16 28 28 (1254400)
I0926 22:37:52.247433  2459 net.cpp:137] Memory required for data: 15994000
I0926 22:37:52.247438  2459 layer_factory.hpp:77] Creating layer penlu1
I0926 22:37:52.247450  2459 net.cpp:84] Creating Layer penlu1
I0926 22:37:52.247453  2459 net.cpp:406] penlu1 <- Convolution1
I0926 22:37:52.247458  2459 net.cpp:367] penlu1 -> Convolution1 (in-place)
I0926 22:37:52.248189  2459 net.cpp:122] Setting up penlu1
I0926 22:37:52.248201  2459 net.cpp:129] Top shape: 100 16 28 28 (1254400)
I0926 22:37:52.248217  2459 net.cpp:137] Memory required for data: 21011600
I0926 22:37:52.248231  2459 layer_factory.hpp:77] Creating layer Convolution1_penlu1_0_split
I0926 22:37:52.284608  2459 net.cpp:84] Creating Layer Convolution1_penlu1_0_split
I0926 22:37:52.284620  2459 net.cpp:406] Convolution1_penlu1_0_split <- Convolution1
I0926 22:37:52.284626  2459 net.cpp:380] Convolution1_penlu1_0_split -> Convolution1_penlu1_0_split_0
I0926 22:37:52.284632  2459 net.cpp:380] Convolution1_penlu1_0_split -> Convolution1_penlu1_0_split_1
I0926 22:37:52.284667  2459 net.cpp:122] Setting up Convolution1_penlu1_0_split
I0926 22:37:52.284674  2459 net.cpp:129] Top shape: 100 16 28 28 (1254400)
I0926 22:37:52.284677  2459 net.cpp:129] Top shape: 100 16 28 28 (1254400)
I0926 22:37:52.284680  2459 net.cpp:137] Memory required for data: 31046800
I0926 22:37:52.284682  2459 layer_factory.hpp:77] Creating layer Convolution2
I0926 22:37:52.284692  2459 net.cpp:84] Creating Layer Convolution2
I0926 22:37:52.284694  2459 net.cpp:406] Convolution2 <- Convolution1_penlu1_0_split_0
I0926 22:37:52.284698  2459 net.cpp:380] Convolution2 -> Convolution2
I0926 22:37:52.312840  2459 net.cpp:122] Setting up Convolution2
I0926 22:37:52.312853  2459 net.cpp:129] Top shape: 100 16 28 28 (1254400)
I0926 22:37:52.312856  2459 net.cpp:137] Memory required for data: 36064400
I0926 22:37:52.312862  2459 layer_factory.hpp:77] Creating layer BatchNorm2
I0926 22:37:52.312870  2459 net.cpp:84] Creating Layer BatchNorm2
I0926 22:37:52.312872  2459 net.cpp:406] BatchNorm2 <- Convolution2
I0926 22:37:52.312876  2459 net.cpp:367] BatchNorm2 -> Convolution2 (in-place)
I0926 22:37:52.313017  2459 net.cpp:122] Setting up BatchNorm2
I0926 22:37:52.313024  2459 net.cpp:129] Top shape: 100 16 28 28 (1254400)
I0926 22:37:52.313026  2459 net.cpp:137] Memory required for data: 41082000
I0926 22:37:52.313031  2459 layer_factory.hpp:77] Creating layer Scale2
I0926 22:37:52.313038  2459 net.cpp:84] Creating Layer Scale2
I0926 22:37:52.313040  2459 net.cpp:406] Scale2 <- Convolution2
I0926 22:37:52.313045  2459 net.cpp:367] Scale2 -> Convolution2 (in-place)
I0926 22:37:52.313076  2459 layer_factory.hpp:77] Creating layer Scale2
I0926 22:37:52.313155  2459 net.cpp:122] Setting up Scale2
I0926 22:37:52.313161  2459 net.cpp:129] Top shape: 100 16 28 28 (1254400)
I0926 22:37:52.313163  2459 net.cpp:137] Memory required for data: 46099600
I0926 22:37:52.313170  2459 layer_factory.hpp:77] Creating layer penlu2
I0926 22:37:52.313176  2459 net.cpp:84] Creating Layer penlu2
I0926 22:37:52.313179  2459 net.cpp:406] penlu2 <- Convolution2
I0926 22:37:52.313184  2459 net.cpp:367] penlu2 -> Convolution2 (in-place)
I0926 22:37:52.313288  2459 net.cpp:122] Setting up penlu2
I0926 22:37:52.313294  2459 net.cpp:129] Top shape: 100 16 28 28 (1254400)
I0926 22:37:52.313308  2459 net.cpp:137] Memory required for data: 51117200
I0926 22:37:52.313313  2459 layer_factory.hpp:77] Creating layer Convolution3
I0926 22:37:52.313320  2459 net.cpp:84] Creating Layer Convolution3
I0926 22:37:52.313324  2459 net.cpp:406] Convolution3 <- Convolution2
I0926 22:37:52.313328  2459 net.cpp:380] Convolution3 -> Convolution3
I0926 22:37:52.314282  2459 net.cpp:122] Setting up Convolution3
I0926 22:37:52.314293  2459 net.cpp:129] Top shape: 100 16 28 28 (1254400)
I0926 22:37:52.314296  2459 net.cpp:137] Memory required for data: 56134800
I0926 22:37:52.314301  2459 layer_factory.hpp:77] Creating layer BatchNorm3
I0926 22:37:52.314306  2459 net.cpp:84] Creating Layer BatchNorm3
I0926 22:37:52.314308  2459 net.cpp:406] BatchNorm3 <- Convolution3
I0926 22:37:52.314322  2459 net.cpp:367] BatchNorm3 -> Convolution3 (in-place)
I0926 22:37:52.314469  2459 net.cpp:122] Setting up BatchNorm3
I0926 22:37:52.314474  2459 net.cpp:129] Top shape: 100 16 28 28 (1254400)
I0926 22:37:52.314477  2459 net.cpp:137] Memory required for data: 61152400
I0926 22:37:52.314481  2459 layer_factory.hpp:77] Creating layer Scale3
I0926 22:37:52.314486  2459 net.cpp:84] Creating Layer Scale3
I0926 22:37:52.314488  2459 net.cpp:406] Scale3 <- Convolution3
I0926 22:37:52.314491  2459 net.cpp:367] Scale3 -> Convolution3 (in-place)
I0926 22:37:52.314550  2459 layer_factory.hpp:77] Creating layer Scale3
I0926 22:37:52.314666  2459 net.cpp:122] Setting up Scale3
I0926 22:37:52.314671  2459 net.cpp:129] Top shape: 100 16 28 28 (1254400)
I0926 22:37:52.314673  2459 net.cpp:137] Memory required for data: 66170000
I0926 22:37:52.314677  2459 layer_factory.hpp:77] Creating layer Eltwise1
I0926 22:37:52.314682  2459 net.cpp:84] Creating Layer Eltwise1
I0926 22:37:52.314684  2459 net.cpp:406] Eltwise1 <- Convolution1_penlu1_0_split_1
I0926 22:37:52.314687  2459 net.cpp:406] Eltwise1 <- Convolution3
I0926 22:37:52.314690  2459 net.cpp:380] Eltwise1 -> Eltwise1
I0926 22:37:52.314731  2459 net.cpp:122] Setting up Eltwise1
I0926 22:37:52.314744  2459 net.cpp:129] Top shape: 100 16 28 28 (1254400)
I0926 22:37:52.314746  2459 net.cpp:137] Memory required for data: 71187600
I0926 22:37:52.314749  2459 layer_factory.hpp:77] Creating layer penlu3
I0926 22:37:52.314764  2459 net.cpp:84] Creating Layer penlu3
I0926 22:37:52.314766  2459 net.cpp:406] penlu3 <- Eltwise1
I0926 22:37:52.314770  2459 net.cpp:367] penlu3 -> Eltwise1 (in-place)
I0926 22:37:52.314901  2459 net.cpp:122] Setting up penlu3
I0926 22:37:52.314906  2459 net.cpp:129] Top shape: 100 16 28 28 (1254400)
I0926 22:37:52.314908  2459 net.cpp:137] Memory required for data: 76205200
I0926 22:37:52.314913  2459 layer_factory.hpp:77] Creating layer Eltwise1_penlu3_0_split
I0926 22:37:52.314916  2459 net.cpp:84] Creating Layer Eltwise1_penlu3_0_split
I0926 22:37:52.314918  2459 net.cpp:406] Eltwise1_penlu3_0_split <- Eltwise1
I0926 22:37:52.314921  2459 net.cpp:380] Eltwise1_penlu3_0_split -> Eltwise1_penlu3_0_split_0
I0926 22:37:52.314936  2459 net.cpp:380] Eltwise1_penlu3_0_split -> Eltwise1_penlu3_0_split_1
I0926 22:37:52.314968  2459 net.cpp:122] Setting up Eltwise1_penlu3_0_split
I0926 22:37:52.314972  2459 net.cpp:129] Top shape: 100 16 28 28 (1254400)
I0926 22:37:52.314975  2459 net.cpp:129] Top shape: 100 16 28 28 (1254400)
I0926 22:37:52.314977  2459 net.cpp:137] Memory required for data: 86240400
I0926 22:37:52.314980  2459 layer_factory.hpp:77] Creating layer Convolution4
I0926 22:37:52.314987  2459 net.cpp:84] Creating Layer Convolution4
I0926 22:37:52.314990  2459 net.cpp:406] Convolution4 <- Eltwise1_penlu3_0_split_0
I0926 22:37:52.315003  2459 net.cpp:380] Convolution4 -> Convolution4
I0926 22:37:52.315917  2459 net.cpp:122] Setting up Convolution4
I0926 22:37:52.315927  2459 net.cpp:129] Top shape: 100 16 28 28 (1254400)
I0926 22:37:52.315929  2459 net.cpp:137] Memory required for data: 91258000
I0926 22:37:52.315934  2459 layer_factory.hpp:77] Creating layer BatchNorm4
I0926 22:37:52.315939  2459 net.cpp:84] Creating Layer BatchNorm4
I0926 22:37:52.315949  2459 net.cpp:406] BatchNorm4 <- Convolution4
I0926 22:37:52.315955  2459 net.cpp:367] BatchNorm4 -> Convolution4 (in-place)
I0926 22:37:52.316078  2459 net.cpp:122] Setting up BatchNorm4
I0926 22:37:52.316083  2459 net.cpp:129] Top shape: 100 16 28 28 (1254400)
I0926 22:37:52.316087  2459 net.cpp:137] Memory required for data: 96275600
I0926 22:37:52.316094  2459 layer_factory.hpp:77] Creating layer Scale4
I0926 22:37:52.316099  2459 net.cpp:84] Creating Layer Scale4
I0926 22:37:52.316102  2459 net.cpp:406] Scale4 <- Convolution4
I0926 22:37:52.316105  2459 net.cpp:367] Scale4 -> Convolution4 (in-place)
I0926 22:37:52.316133  2459 layer_factory.hpp:77] Creating layer Scale4
I0926 22:37:52.316212  2459 net.cpp:122] Setting up Scale4
I0926 22:37:52.316222  2459 net.cpp:129] Top shape: 100 16 28 28 (1254400)
I0926 22:37:52.316224  2459 net.cpp:137] Memory required for data: 101293200
I0926 22:37:52.316228  2459 layer_factory.hpp:77] Creating layer penlu4
I0926 22:37:52.316234  2459 net.cpp:84] Creating Layer penlu4
I0926 22:37:52.316237  2459 net.cpp:406] penlu4 <- Convolution4
I0926 22:37:52.316241  2459 net.cpp:367] penlu4 -> Convolution4 (in-place)
I0926 22:37:52.316347  2459 net.cpp:122] Setting up penlu4
I0926 22:37:52.316352  2459 net.cpp:129] Top shape: 100 16 28 28 (1254400)
I0926 22:37:52.316355  2459 net.cpp:137] Memory required for data: 106310800
I0926 22:37:52.316359  2459 layer_factory.hpp:77] Creating layer Convolution5
I0926 22:37:52.316365  2459 net.cpp:84] Creating Layer Convolution5
I0926 22:37:52.316367  2459 net.cpp:406] Convolution5 <- Convolution4
I0926 22:37:52.316383  2459 net.cpp:380] Convolution5 -> Convolution5
I0926 22:37:52.317276  2459 net.cpp:122] Setting up Convolution5
I0926 22:37:52.317286  2459 net.cpp:129] Top shape: 100 16 28 28 (1254400)
I0926 22:37:52.317289  2459 net.cpp:137] Memory required for data: 111328400
I0926 22:37:52.317293  2459 layer_factory.hpp:77] Creating layer BatchNorm5
I0926 22:37:52.317298  2459 net.cpp:84] Creating Layer BatchNorm5
I0926 22:37:52.317312  2459 net.cpp:406] BatchNorm5 <- Convolution5
I0926 22:37:52.317317  2459 net.cpp:367] BatchNorm5 -> Convolution5 (in-place)
I0926 22:37:52.317467  2459 net.cpp:122] Setting up BatchNorm5
I0926 22:37:52.317472  2459 net.cpp:129] Top shape: 100 16 28 28 (1254400)
I0926 22:37:52.317474  2459 net.cpp:137] Memory required for data: 116346000
I0926 22:37:52.317479  2459 layer_factory.hpp:77] Creating layer Scale5
I0926 22:37:52.317484  2459 net.cpp:84] Creating Layer Scale5
I0926 22:37:52.317487  2459 net.cpp:406] Scale5 <- Convolution5
I0926 22:37:52.317490  2459 net.cpp:367] Scale5 -> Convolution5 (in-place)
I0926 22:37:52.317535  2459 layer_factory.hpp:77] Creating layer Scale5
I0926 22:37:52.317627  2459 net.cpp:122] Setting up Scale5
I0926 22:37:52.317632  2459 net.cpp:129] Top shape: 100 16 28 28 (1254400)
I0926 22:37:52.317634  2459 net.cpp:137] Memory required for data: 121363600
I0926 22:37:52.317638  2459 layer_factory.hpp:77] Creating layer Eltwise2
I0926 22:37:52.317643  2459 net.cpp:84] Creating Layer Eltwise2
I0926 22:37:52.317657  2459 net.cpp:406] Eltwise2 <- Eltwise1_penlu3_0_split_1
I0926 22:37:52.317662  2459 net.cpp:406] Eltwise2 <- Convolution5
I0926 22:37:52.317664  2459 net.cpp:380] Eltwise2 -> Eltwise2
I0926 22:37:52.317699  2459 net.cpp:122] Setting up Eltwise2
I0926 22:37:52.317704  2459 net.cpp:129] Top shape: 100 16 28 28 (1254400)
I0926 22:37:52.317715  2459 net.cpp:137] Memory required for data: 126381200
I0926 22:37:52.317718  2459 layer_factory.hpp:77] Creating layer penlu5
I0926 22:37:52.317723  2459 net.cpp:84] Creating Layer penlu5
I0926 22:37:52.317725  2459 net.cpp:406] penlu5 <- Eltwise2
I0926 22:37:52.317729  2459 net.cpp:367] penlu5 -> Eltwise2 (in-place)
I0926 22:37:52.317852  2459 net.cpp:122] Setting up penlu5
I0926 22:37:52.317857  2459 net.cpp:129] Top shape: 100 16 28 28 (1254400)
I0926 22:37:52.317868  2459 net.cpp:137] Memory required for data: 131398800
I0926 22:37:52.317873  2459 layer_factory.hpp:77] Creating layer Eltwise2_penlu5_0_split
I0926 22:37:52.317884  2459 net.cpp:84] Creating Layer Eltwise2_penlu5_0_split
I0926 22:37:52.317898  2459 net.cpp:406] Eltwise2_penlu5_0_split <- Eltwise2
I0926 22:37:52.317900  2459 net.cpp:380] Eltwise2_penlu5_0_split -> Eltwise2_penlu5_0_split_0
I0926 22:37:52.317904  2459 net.cpp:380] Eltwise2_penlu5_0_split -> Eltwise2_penlu5_0_split_1
I0926 22:37:52.317946  2459 net.cpp:122] Setting up Eltwise2_penlu5_0_split
I0926 22:37:52.317951  2459 net.cpp:129] Top shape: 100 16 28 28 (1254400)
I0926 22:37:52.317953  2459 net.cpp:129] Top shape: 100 16 28 28 (1254400)
I0926 22:37:52.317965  2459 net.cpp:137] Memory required for data: 141434000
I0926 22:37:52.317967  2459 layer_factory.hpp:77] Creating layer Convolution6
I0926 22:37:52.317975  2459 net.cpp:84] Creating Layer Convolution6
I0926 22:37:52.317977  2459 net.cpp:406] Convolution6 <- Eltwise2_penlu5_0_split_0
I0926 22:37:52.317981  2459 net.cpp:380] Convolution6 -> Convolution6
I0926 22:37:52.318859  2459 net.cpp:122] Setting up Convolution6
I0926 22:37:52.318869  2459 net.cpp:129] Top shape: 100 16 28 28 (1254400)
I0926 22:37:52.318873  2459 net.cpp:137] Memory required for data: 146451600
I0926 22:37:52.318878  2459 layer_factory.hpp:77] Creating layer BatchNorm6
I0926 22:37:52.318883  2459 net.cpp:84] Creating Layer BatchNorm6
I0926 22:37:52.318886  2459 net.cpp:406] BatchNorm6 <- Convolution6
I0926 22:37:52.318892  2459 net.cpp:367] BatchNorm6 -> Convolution6 (in-place)
I0926 22:37:52.319020  2459 net.cpp:122] Setting up BatchNorm6
I0926 22:37:52.319025  2459 net.cpp:129] Top shape: 100 16 28 28 (1254400)
I0926 22:37:52.319028  2459 net.cpp:137] Memory required for data: 151469200
I0926 22:37:52.319033  2459 layer_factory.hpp:77] Creating layer Scale6
I0926 22:37:52.319038  2459 net.cpp:84] Creating Layer Scale6
I0926 22:37:52.319042  2459 net.cpp:406] Scale6 <- Convolution6
I0926 22:37:52.319046  2459 net.cpp:367] Scale6 -> Convolution6 (in-place)
I0926 22:37:52.319072  2459 layer_factory.hpp:77] Creating layer Scale6
I0926 22:37:52.319149  2459 net.cpp:122] Setting up Scale6
I0926 22:37:52.319154  2459 net.cpp:129] Top shape: 100 16 28 28 (1254400)
I0926 22:37:52.319157  2459 net.cpp:137] Memory required for data: 156486800
I0926 22:37:52.319161  2459 layer_factory.hpp:77] Creating layer penlu6
I0926 22:37:52.319167  2459 net.cpp:84] Creating Layer penlu6
I0926 22:37:52.319170  2459 net.cpp:406] penlu6 <- Convolution6
I0926 22:37:52.319175  2459 net.cpp:367] penlu6 -> Convolution6 (in-place)
I0926 22:37:52.319279  2459 net.cpp:122] Setting up penlu6
I0926 22:37:52.319285  2459 net.cpp:129] Top shape: 100 16 28 28 (1254400)
I0926 22:37:52.319288  2459 net.cpp:137] Memory required for data: 161504400
I0926 22:37:52.319293  2459 layer_factory.hpp:77] Creating layer Convolution7
I0926 22:37:52.319299  2459 net.cpp:84] Creating Layer Convolution7
I0926 22:37:52.319303  2459 net.cpp:406] Convolution7 <- Convolution6
I0926 22:37:52.319308  2459 net.cpp:380] Convolution7 -> Convolution7
I0926 22:37:52.319864  2459 net.cpp:122] Setting up Convolution7
I0926 22:37:52.319874  2459 net.cpp:129] Top shape: 100 16 28 28 (1254400)
I0926 22:37:52.319877  2459 net.cpp:137] Memory required for data: 166522000
I0926 22:37:52.319881  2459 layer_factory.hpp:77] Creating layer BatchNorm7
I0926 22:37:52.319887  2459 net.cpp:84] Creating Layer BatchNorm7
I0926 22:37:52.319890  2459 net.cpp:406] BatchNorm7 <- Convolution7
I0926 22:37:52.319895  2459 net.cpp:367] BatchNorm7 -> Convolution7 (in-place)
I0926 22:37:52.320020  2459 net.cpp:122] Setting up BatchNorm7
I0926 22:37:52.320025  2459 net.cpp:129] Top shape: 100 16 28 28 (1254400)
I0926 22:37:52.320029  2459 net.cpp:137] Memory required for data: 171539600
I0926 22:37:52.320039  2459 layer_factory.hpp:77] Creating layer Scale7
I0926 22:37:52.320046  2459 net.cpp:84] Creating Layer Scale7
I0926 22:37:52.320050  2459 net.cpp:406] Scale7 <- Convolution7
I0926 22:37:52.320053  2459 net.cpp:367] Scale7 -> Convolution7 (in-place)
I0926 22:37:52.320080  2459 layer_factory.hpp:77] Creating layer Scale7
I0926 22:37:52.320155  2459 net.cpp:122] Setting up Scale7
I0926 22:37:52.320168  2459 net.cpp:129] Top shape: 100 16 28 28 (1254400)
I0926 22:37:52.320171  2459 net.cpp:137] Memory required for data: 176557200
I0926 22:37:52.320175  2459 layer_factory.hpp:77] Creating layer Eltwise3
I0926 22:37:52.320181  2459 net.cpp:84] Creating Layer Eltwise3
I0926 22:37:52.320184  2459 net.cpp:406] Eltwise3 <- Eltwise2_penlu5_0_split_1
I0926 22:37:52.320188  2459 net.cpp:406] Eltwise3 <- Convolution7
I0926 22:37:52.320190  2459 net.cpp:380] Eltwise3 -> Eltwise3
I0926 22:37:52.320226  2459 net.cpp:122] Setting up Eltwise3
I0926 22:37:52.320233  2459 net.cpp:129] Top shape: 100 16 28 28 (1254400)
I0926 22:37:52.320235  2459 net.cpp:137] Memory required for data: 181574800
I0926 22:37:52.320247  2459 layer_factory.hpp:77] Creating layer penlu7
I0926 22:37:52.320252  2459 net.cpp:84] Creating Layer penlu7
I0926 22:37:52.320255  2459 net.cpp:406] penlu7 <- Eltwise3
I0926 22:37:52.320258  2459 net.cpp:367] penlu7 -> Eltwise3 (in-place)
I0926 22:37:52.320366  2459 net.cpp:122] Setting up penlu7
I0926 22:37:52.320371  2459 net.cpp:129] Top shape: 100 16 28 28 (1254400)
I0926 22:37:52.320374  2459 net.cpp:137] Memory required for data: 186592400
I0926 22:37:52.320379  2459 layer_factory.hpp:77] Creating layer Eltwise3_penlu7_0_split
I0926 22:37:52.320384  2459 net.cpp:84] Creating Layer Eltwise3_penlu7_0_split
I0926 22:37:52.320386  2459 net.cpp:406] Eltwise3_penlu7_0_split <- Eltwise3
I0926 22:37:52.320391  2459 net.cpp:380] Eltwise3_penlu7_0_split -> Eltwise3_penlu7_0_split_0
I0926 22:37:52.320395  2459 net.cpp:380] Eltwise3_penlu7_0_split -> Eltwise3_penlu7_0_split_1
I0926 22:37:52.320417  2459 net.cpp:122] Setting up Eltwise3_penlu7_0_split
I0926 22:37:52.320422  2459 net.cpp:129] Top shape: 100 16 28 28 (1254400)
I0926 22:37:52.320426  2459 net.cpp:129] Top shape: 100 16 28 28 (1254400)
I0926 22:37:52.320428  2459 net.cpp:137] Memory required for data: 196627600
I0926 22:37:52.320430  2459 layer_factory.hpp:77] Creating layer Convolution8
I0926 22:37:52.320436  2459 net.cpp:84] Creating Layer Convolution8
I0926 22:37:52.320439  2459 net.cpp:406] Convolution8 <- Eltwise3_penlu7_0_split_0
I0926 22:37:52.320443  2459 net.cpp:380] Convolution8 -> Convolution8
I0926 22:37:52.321425  2459 net.cpp:122] Setting up Convolution8
I0926 22:37:52.321436  2459 net.cpp:129] Top shape: 100 16 28 28 (1254400)
I0926 22:37:52.321439  2459 net.cpp:137] Memory required for data: 201645200
I0926 22:37:52.321444  2459 layer_factory.hpp:77] Creating layer BatchNorm8
I0926 22:37:52.321450  2459 net.cpp:84] Creating Layer BatchNorm8
I0926 22:37:52.321455  2459 net.cpp:406] BatchNorm8 <- Convolution8
I0926 22:37:52.321458  2459 net.cpp:367] BatchNorm8 -> Convolution8 (in-place)
I0926 22:37:52.321585  2459 net.cpp:122] Setting up BatchNorm8
I0926 22:37:52.321590  2459 net.cpp:129] Top shape: 100 16 28 28 (1254400)
I0926 22:37:52.321593  2459 net.cpp:137] Memory required for data: 206662800
I0926 22:37:52.321599  2459 layer_factory.hpp:77] Creating layer Scale8
I0926 22:37:52.321604  2459 net.cpp:84] Creating Layer Scale8
I0926 22:37:52.321606  2459 net.cpp:406] Scale8 <- Convolution8
I0926 22:37:52.321610  2459 net.cpp:367] Scale8 -> Convolution8 (in-place)
I0926 22:37:52.321637  2459 layer_factory.hpp:77] Creating layer Scale8
I0926 22:37:52.321712  2459 net.cpp:122] Setting up Scale8
I0926 22:37:52.321718  2459 net.cpp:129] Top shape: 100 16 28 28 (1254400)
I0926 22:37:52.321722  2459 net.cpp:137] Memory required for data: 211680400
I0926 22:37:52.321725  2459 layer_factory.hpp:77] Creating layer penlu8
I0926 22:37:52.321732  2459 net.cpp:84] Creating Layer penlu8
I0926 22:37:52.321734  2459 net.cpp:406] penlu8 <- Convolution8
I0926 22:37:52.321738  2459 net.cpp:367] penlu8 -> Convolution8 (in-place)
I0926 22:37:52.321844  2459 net.cpp:122] Setting up penlu8
I0926 22:37:52.321849  2459 net.cpp:129] Top shape: 100 16 28 28 (1254400)
I0926 22:37:52.321852  2459 net.cpp:137] Memory required for data: 216698000
I0926 22:37:52.321856  2459 layer_factory.hpp:77] Creating layer Convolution9
I0926 22:37:52.321873  2459 net.cpp:84] Creating Layer Convolution9
I0926 22:37:52.321877  2459 net.cpp:406] Convolution9 <- Convolution8
I0926 22:37:52.321880  2459 net.cpp:380] Convolution9 -> Convolution9
I0926 22:37:52.322767  2459 net.cpp:122] Setting up Convolution9
I0926 22:37:52.322777  2459 net.cpp:129] Top shape: 100 16 28 28 (1254400)
I0926 22:37:52.322780  2459 net.cpp:137] Memory required for data: 221715600
I0926 22:37:52.322784  2459 layer_factory.hpp:77] Creating layer BatchNorm9
I0926 22:37:52.322790  2459 net.cpp:84] Creating Layer BatchNorm9
I0926 22:37:52.322794  2459 net.cpp:406] BatchNorm9 <- Convolution9
I0926 22:37:52.322799  2459 net.cpp:367] BatchNorm9 -> Convolution9 (in-place)
I0926 22:37:52.322928  2459 net.cpp:122] Setting up BatchNorm9
I0926 22:37:52.322933  2459 net.cpp:129] Top shape: 100 16 28 28 (1254400)
I0926 22:37:52.322937  2459 net.cpp:137] Memory required for data: 226733200
I0926 22:37:52.322942  2459 layer_factory.hpp:77] Creating layer Scale9
I0926 22:37:52.322947  2459 net.cpp:84] Creating Layer Scale9
I0926 22:37:52.322950  2459 net.cpp:406] Scale9 <- Convolution9
I0926 22:37:52.322954  2459 net.cpp:367] Scale9 -> Convolution9 (in-place)
I0926 22:37:52.322981  2459 layer_factory.hpp:77] Creating layer Scale9
I0926 22:37:52.323060  2459 net.cpp:122] Setting up Scale9
I0926 22:37:52.323065  2459 net.cpp:129] Top shape: 100 16 28 28 (1254400)
I0926 22:37:52.323068  2459 net.cpp:137] Memory required for data: 231750800
I0926 22:37:52.323072  2459 layer_factory.hpp:77] Creating layer Eltwise4
I0926 22:37:52.323078  2459 net.cpp:84] Creating Layer Eltwise4
I0926 22:37:52.323081  2459 net.cpp:406] Eltwise4 <- Eltwise3_penlu7_0_split_1
I0926 22:37:52.323084  2459 net.cpp:406] Eltwise4 <- Convolution9
I0926 22:37:52.323088  2459 net.cpp:380] Eltwise4 -> Eltwise4
I0926 22:37:52.323104  2459 net.cpp:122] Setting up Eltwise4
I0926 22:37:52.323108  2459 net.cpp:129] Top shape: 100 16 28 28 (1254400)
I0926 22:37:52.323112  2459 net.cpp:137] Memory required for data: 236768400
I0926 22:37:52.323113  2459 layer_factory.hpp:77] Creating layer penlu9
I0926 22:37:52.323118  2459 net.cpp:84] Creating Layer penlu9
I0926 22:37:52.323122  2459 net.cpp:406] penlu9 <- Eltwise4
I0926 22:37:52.323125  2459 net.cpp:367] penlu9 -> Eltwise4 (in-place)
I0926 22:37:52.323231  2459 net.cpp:122] Setting up penlu9
I0926 22:37:52.323236  2459 net.cpp:129] Top shape: 100 16 28 28 (1254400)
I0926 22:37:52.323240  2459 net.cpp:137] Memory required for data: 241786000
I0926 22:37:52.323245  2459 layer_factory.hpp:77] Creating layer Eltwise4_penlu9_0_split
I0926 22:37:52.323248  2459 net.cpp:84] Creating Layer Eltwise4_penlu9_0_split
I0926 22:37:52.323251  2459 net.cpp:406] Eltwise4_penlu9_0_split <- Eltwise4
I0926 22:37:52.323254  2459 net.cpp:380] Eltwise4_penlu9_0_split -> Eltwise4_penlu9_0_split_0
I0926 22:37:52.323259  2459 net.cpp:380] Eltwise4_penlu9_0_split -> Eltwise4_penlu9_0_split_1
I0926 22:37:52.323282  2459 net.cpp:122] Setting up Eltwise4_penlu9_0_split
I0926 22:37:52.323287  2459 net.cpp:129] Top shape: 100 16 28 28 (1254400)
I0926 22:37:52.323289  2459 net.cpp:129] Top shape: 100 16 28 28 (1254400)
I0926 22:37:52.323292  2459 net.cpp:137] Memory required for data: 251821200
I0926 22:37:52.323294  2459 layer_factory.hpp:77] Creating layer Convolution10
I0926 22:37:52.323302  2459 net.cpp:84] Creating Layer Convolution10
I0926 22:37:52.323304  2459 net.cpp:406] Convolution10 <- Eltwise4_penlu9_0_split_0
I0926 22:37:52.323308  2459 net.cpp:380] Convolution10 -> Convolution10
I0926 22:37:52.324187  2459 net.cpp:122] Setting up Convolution10
I0926 22:37:52.324198  2459 net.cpp:129] Top shape: 100 16 28 28 (1254400)
I0926 22:37:52.324201  2459 net.cpp:137] Memory required for data: 256838800
I0926 22:37:52.324223  2459 layer_factory.hpp:77] Creating layer BatchNorm10
I0926 22:37:52.324230  2459 net.cpp:84] Creating Layer BatchNorm10
I0926 22:37:52.324234  2459 net.cpp:406] BatchNorm10 <- Convolution10
I0926 22:37:52.324249  2459 net.cpp:367] BatchNorm10 -> Convolution10 (in-place)
I0926 22:37:52.324379  2459 net.cpp:122] Setting up BatchNorm10
I0926 22:37:52.324393  2459 net.cpp:129] Top shape: 100 16 28 28 (1254400)
I0926 22:37:52.324395  2459 net.cpp:137] Memory required for data: 261856400
I0926 22:37:52.324400  2459 layer_factory.hpp:77] Creating layer Scale10
I0926 22:37:52.324406  2459 net.cpp:84] Creating Layer Scale10
I0926 22:37:52.324409  2459 net.cpp:406] Scale10 <- Convolution10
I0926 22:37:52.324412  2459 net.cpp:367] Scale10 -> Convolution10 (in-place)
I0926 22:37:52.324440  2459 layer_factory.hpp:77] Creating layer Scale10
I0926 22:37:52.324518  2459 net.cpp:122] Setting up Scale10
I0926 22:37:52.324523  2459 net.cpp:129] Top shape: 100 16 28 28 (1254400)
I0926 22:37:52.324527  2459 net.cpp:137] Memory required for data: 266874000
I0926 22:37:52.324530  2459 layer_factory.hpp:77] Creating layer penlu10
I0926 22:37:52.324537  2459 net.cpp:84] Creating Layer penlu10
I0926 22:37:52.324539  2459 net.cpp:406] penlu10 <- Convolution10
I0926 22:37:52.324543  2459 net.cpp:367] penlu10 -> Convolution10 (in-place)
I0926 22:37:52.324648  2459 net.cpp:122] Setting up penlu10
I0926 22:37:52.324653  2459 net.cpp:129] Top shape: 100 16 28 28 (1254400)
I0926 22:37:52.324656  2459 net.cpp:137] Memory required for data: 271891600
I0926 22:37:52.324659  2459 layer_factory.hpp:77] Creating layer Convolution11
I0926 22:37:52.324666  2459 net.cpp:84] Creating Layer Convolution11
I0926 22:37:52.324668  2459 net.cpp:406] Convolution11 <- Convolution10
I0926 22:37:52.324672  2459 net.cpp:380] Convolution11 -> Convolution11
I0926 22:37:52.325577  2459 net.cpp:122] Setting up Convolution11
I0926 22:37:52.325587  2459 net.cpp:129] Top shape: 100 16 28 28 (1254400)
I0926 22:37:52.325589  2459 net.cpp:137] Memory required for data: 276909200
I0926 22:37:52.325594  2459 layer_factory.hpp:77] Creating layer BatchNorm11
I0926 22:37:52.325599  2459 net.cpp:84] Creating Layer BatchNorm11
I0926 22:37:52.325603  2459 net.cpp:406] BatchNorm11 <- Convolution11
I0926 22:37:52.325606  2459 net.cpp:367] BatchNorm11 -> Convolution11 (in-place)
I0926 22:37:52.325739  2459 net.cpp:122] Setting up BatchNorm11
I0926 22:37:52.325744  2459 net.cpp:129] Top shape: 100 16 28 28 (1254400)
I0926 22:37:52.325747  2459 net.cpp:137] Memory required for data: 281926800
I0926 22:37:52.325752  2459 layer_factory.hpp:77] Creating layer Scale11
I0926 22:37:52.325755  2459 net.cpp:84] Creating Layer Scale11
I0926 22:37:52.325758  2459 net.cpp:406] Scale11 <- Convolution11
I0926 22:37:52.325762  2459 net.cpp:367] Scale11 -> Convolution11 (in-place)
I0926 22:37:52.325788  2459 layer_factory.hpp:77] Creating layer Scale11
I0926 22:37:52.325865  2459 net.cpp:122] Setting up Scale11
I0926 22:37:52.325868  2459 net.cpp:129] Top shape: 100 16 28 28 (1254400)
I0926 22:37:52.325870  2459 net.cpp:137] Memory required for data: 286944400
I0926 22:37:52.325875  2459 layer_factory.hpp:77] Creating layer Eltwise5
I0926 22:37:52.325880  2459 net.cpp:84] Creating Layer Eltwise5
I0926 22:37:52.325882  2459 net.cpp:406] Eltwise5 <- Eltwise4_penlu9_0_split_1
I0926 22:37:52.325884  2459 net.cpp:406] Eltwise5 <- Convolution11
I0926 22:37:52.325888  2459 net.cpp:380] Eltwise5 -> Eltwise5
I0926 22:37:52.325904  2459 net.cpp:122] Setting up Eltwise5
I0926 22:37:52.325907  2459 net.cpp:129] Top shape: 100 16 28 28 (1254400)
I0926 22:37:52.325909  2459 net.cpp:137] Memory required for data: 291962000
I0926 22:37:52.325911  2459 layer_factory.hpp:77] Creating layer penlu11
I0926 22:37:52.325917  2459 net.cpp:84] Creating Layer penlu11
I0926 22:37:52.325919  2459 net.cpp:406] penlu11 <- Eltwise5
I0926 22:37:52.325923  2459 net.cpp:367] penlu11 -> Eltwise5 (in-place)
I0926 22:37:52.326032  2459 net.cpp:122] Setting up penlu11
I0926 22:37:52.326036  2459 net.cpp:129] Top shape: 100 16 28 28 (1254400)
I0926 22:37:52.326038  2459 net.cpp:137] Memory required for data: 296979600
I0926 22:37:52.326043  2459 layer_factory.hpp:77] Creating layer Eltwise5_penlu11_0_split
I0926 22:37:52.326046  2459 net.cpp:84] Creating Layer Eltwise5_penlu11_0_split
I0926 22:37:52.326050  2459 net.cpp:406] Eltwise5_penlu11_0_split <- Eltwise5
I0926 22:37:52.326058  2459 net.cpp:380] Eltwise5_penlu11_0_split -> Eltwise5_penlu11_0_split_0
I0926 22:37:52.326063  2459 net.cpp:380] Eltwise5_penlu11_0_split -> Eltwise5_penlu11_0_split_1
I0926 22:37:52.326087  2459 net.cpp:122] Setting up Eltwise5_penlu11_0_split
I0926 22:37:52.326092  2459 net.cpp:129] Top shape: 100 16 28 28 (1254400)
I0926 22:37:52.326093  2459 net.cpp:129] Top shape: 100 16 28 28 (1254400)
I0926 22:37:52.326095  2459 net.cpp:137] Memory required for data: 307014800
I0926 22:37:52.326098  2459 layer_factory.hpp:77] Creating layer Convolution12
I0926 22:37:52.326104  2459 net.cpp:84] Creating Layer Convolution12
I0926 22:37:52.326107  2459 net.cpp:406] Convolution12 <- Eltwise5_penlu11_0_split_0
I0926 22:37:52.326110  2459 net.cpp:380] Convolution12 -> Convolution12
I0926 22:37:52.327003  2459 net.cpp:122] Setting up Convolution12
I0926 22:37:52.327013  2459 net.cpp:129] Top shape: 100 16 28 28 (1254400)
I0926 22:37:52.327015  2459 net.cpp:137] Memory required for data: 312032400
I0926 22:37:52.327019  2459 layer_factory.hpp:77] Creating layer BatchNorm12
I0926 22:37:52.327024  2459 net.cpp:84] Creating Layer BatchNorm12
I0926 22:37:52.327028  2459 net.cpp:406] BatchNorm12 <- Convolution12
I0926 22:37:52.327031  2459 net.cpp:367] BatchNorm12 -> Convolution12 (in-place)
I0926 22:37:52.327165  2459 net.cpp:122] Setting up BatchNorm12
I0926 22:37:52.327169  2459 net.cpp:129] Top shape: 100 16 28 28 (1254400)
I0926 22:37:52.327172  2459 net.cpp:137] Memory required for data: 317050000
I0926 22:37:52.327177  2459 layer_factory.hpp:77] Creating layer Scale12
I0926 22:37:52.327181  2459 net.cpp:84] Creating Layer Scale12
I0926 22:37:52.327184  2459 net.cpp:406] Scale12 <- Convolution12
I0926 22:37:52.327188  2459 net.cpp:367] Scale12 -> Convolution12 (in-place)
I0926 22:37:52.327214  2459 layer_factory.hpp:77] Creating layer Scale12
I0926 22:37:52.327291  2459 net.cpp:122] Setting up Scale12
I0926 22:37:52.327294  2459 net.cpp:129] Top shape: 100 16 28 28 (1254400)
I0926 22:37:52.327296  2459 net.cpp:137] Memory required for data: 322067600
I0926 22:37:52.327301  2459 layer_factory.hpp:77] Creating layer penlu12
I0926 22:37:52.327306  2459 net.cpp:84] Creating Layer penlu12
I0926 22:37:52.327308  2459 net.cpp:406] penlu12 <- Convolution12
I0926 22:37:52.327312  2459 net.cpp:367] penlu12 -> Convolution12 (in-place)
I0926 22:37:52.327419  2459 net.cpp:122] Setting up penlu12
I0926 22:37:52.327422  2459 net.cpp:129] Top shape: 100 16 28 28 (1254400)
I0926 22:37:52.327425  2459 net.cpp:137] Memory required for data: 327085200
I0926 22:37:52.327430  2459 layer_factory.hpp:77] Creating layer Convolution13
I0926 22:37:52.327435  2459 net.cpp:84] Creating Layer Convolution13
I0926 22:37:52.327438  2459 net.cpp:406] Convolution13 <- Convolution12
I0926 22:37:52.327442  2459 net.cpp:380] Convolution13 -> Convolution13
I0926 22:37:52.328364  2459 net.cpp:122] Setting up Convolution13
I0926 22:37:52.328373  2459 net.cpp:129] Top shape: 100 16 28 28 (1254400)
I0926 22:37:52.328377  2459 net.cpp:137] Memory required for data: 332102800
I0926 22:37:52.328380  2459 layer_factory.hpp:77] Creating layer BatchNorm13
I0926 22:37:52.328385  2459 net.cpp:84] Creating Layer BatchNorm13
I0926 22:37:52.328387  2459 net.cpp:406] BatchNorm13 <- Convolution13
I0926 22:37:52.328392  2459 net.cpp:367] BatchNorm13 -> Convolution13 (in-place)
I0926 22:37:52.328526  2459 net.cpp:122] Setting up BatchNorm13
I0926 22:37:52.328531  2459 net.cpp:129] Top shape: 100 16 28 28 (1254400)
I0926 22:37:52.328532  2459 net.cpp:137] Memory required for data: 337120400
I0926 22:37:52.328537  2459 layer_factory.hpp:77] Creating layer Scale13
I0926 22:37:52.328541  2459 net.cpp:84] Creating Layer Scale13
I0926 22:37:52.328543  2459 net.cpp:406] Scale13 <- Convolution13
I0926 22:37:52.328547  2459 net.cpp:367] Scale13 -> Convolution13 (in-place)
I0926 22:37:52.328572  2459 layer_factory.hpp:77] Creating layer Scale13
I0926 22:37:52.328652  2459 net.cpp:122] Setting up Scale13
I0926 22:37:52.328657  2459 net.cpp:129] Top shape: 100 16 28 28 (1254400)
I0926 22:37:52.328666  2459 net.cpp:137] Memory required for data: 342138000
I0926 22:37:52.328670  2459 layer_factory.hpp:77] Creating layer Eltwise6
I0926 22:37:52.328675  2459 net.cpp:84] Creating Layer Eltwise6
I0926 22:37:52.328677  2459 net.cpp:406] Eltwise6 <- Eltwise5_penlu11_0_split_1
I0926 22:37:52.328680  2459 net.cpp:406] Eltwise6 <- Convolution13
I0926 22:37:52.328685  2459 net.cpp:380] Eltwise6 -> Eltwise6
I0926 22:37:52.328703  2459 net.cpp:122] Setting up Eltwise6
I0926 22:37:52.328708  2459 net.cpp:129] Top shape: 100 16 28 28 (1254400)
I0926 22:37:52.328711  2459 net.cpp:137] Memory required for data: 347155600
I0926 22:37:52.328712  2459 layer_factory.hpp:77] Creating layer penlu13
I0926 22:37:52.328721  2459 net.cpp:84] Creating Layer penlu13
I0926 22:37:52.328723  2459 net.cpp:406] penlu13 <- Eltwise6
I0926 22:37:52.328727  2459 net.cpp:367] penlu13 -> Eltwise6 (in-place)
I0926 22:37:52.328837  2459 net.cpp:122] Setting up penlu13
I0926 22:37:52.328841  2459 net.cpp:129] Top shape: 100 16 28 28 (1254400)
I0926 22:37:52.328843  2459 net.cpp:137] Memory required for data: 352173200
I0926 22:37:52.328856  2459 layer_factory.hpp:77] Creating layer Eltwise6_penlu13_0_split
I0926 22:37:52.328860  2459 net.cpp:84] Creating Layer Eltwise6_penlu13_0_split
I0926 22:37:52.328862  2459 net.cpp:406] Eltwise6_penlu13_0_split <- Eltwise6
I0926 22:37:52.328867  2459 net.cpp:380] Eltwise6_penlu13_0_split -> Eltwise6_penlu13_0_split_0
I0926 22:37:52.328871  2459 net.cpp:380] Eltwise6_penlu13_0_split -> Eltwise6_penlu13_0_split_1
I0926 22:37:52.328896  2459 net.cpp:122] Setting up Eltwise6_penlu13_0_split
I0926 22:37:52.328899  2459 net.cpp:129] Top shape: 100 16 28 28 (1254400)
I0926 22:37:52.328902  2459 net.cpp:129] Top shape: 100 16 28 28 (1254400)
I0926 22:37:52.328903  2459 net.cpp:137] Memory required for data: 362208400
I0926 22:37:52.328905  2459 layer_factory.hpp:77] Creating layer Convolution14
I0926 22:37:52.328913  2459 net.cpp:84] Creating Layer Convolution14
I0926 22:37:52.328915  2459 net.cpp:406] Convolution14 <- Eltwise6_penlu13_0_split_0
I0926 22:37:52.328919  2459 net.cpp:380] Convolution14 -> Convolution14
I0926 22:37:52.329818  2459 net.cpp:122] Setting up Convolution14
I0926 22:37:52.329826  2459 net.cpp:129] Top shape: 100 16 28 28 (1254400)
I0926 22:37:52.329829  2459 net.cpp:137] Memory required for data: 367226000
I0926 22:37:52.329834  2459 layer_factory.hpp:77] Creating layer BatchNorm14
I0926 22:37:52.329839  2459 net.cpp:84] Creating Layer BatchNorm14
I0926 22:37:52.329843  2459 net.cpp:406] BatchNorm14 <- Convolution14
I0926 22:37:52.329847  2459 net.cpp:367] BatchNorm14 -> Convolution14 (in-place)
I0926 22:37:52.329979  2459 net.cpp:122] Setting up BatchNorm14
I0926 22:37:52.329984  2459 net.cpp:129] Top shape: 100 16 28 28 (1254400)
I0926 22:37:52.329987  2459 net.cpp:137] Memory required for data: 372243600
I0926 22:37:52.329991  2459 layer_factory.hpp:77] Creating layer Scale14
I0926 22:37:52.329996  2459 net.cpp:84] Creating Layer Scale14
I0926 22:37:52.329999  2459 net.cpp:406] Scale14 <- Convolution14
I0926 22:37:52.330003  2459 net.cpp:367] Scale14 -> Convolution14 (in-place)
I0926 22:37:52.330029  2459 layer_factory.hpp:77] Creating layer Scale14
I0926 22:37:52.330107  2459 net.cpp:122] Setting up Scale14
I0926 22:37:52.330112  2459 net.cpp:129] Top shape: 100 16 28 28 (1254400)
I0926 22:37:52.330114  2459 net.cpp:137] Memory required for data: 377261200
I0926 22:37:52.330118  2459 layer_factory.hpp:77] Creating layer penlu14
I0926 22:37:52.330124  2459 net.cpp:84] Creating Layer penlu14
I0926 22:37:52.330127  2459 net.cpp:406] penlu14 <- Convolution14
I0926 22:37:52.330130  2459 net.cpp:367] penlu14 -> Convolution14 (in-place)
I0926 22:37:52.330240  2459 net.cpp:122] Setting up penlu14
I0926 22:37:52.330245  2459 net.cpp:129] Top shape: 100 16 28 28 (1254400)
I0926 22:37:52.330246  2459 net.cpp:137] Memory required for data: 382278800
I0926 22:37:52.330250  2459 layer_factory.hpp:77] Creating layer Convolution15
I0926 22:37:52.330257  2459 net.cpp:84] Creating Layer Convolution15
I0926 22:37:52.330266  2459 net.cpp:406] Convolution15 <- Convolution14
I0926 22:37:52.330271  2459 net.cpp:380] Convolution15 -> Convolution15
I0926 22:37:52.331168  2459 net.cpp:122] Setting up Convolution15
I0926 22:37:52.331176  2459 net.cpp:129] Top shape: 100 16 28 28 (1254400)
I0926 22:37:52.331179  2459 net.cpp:137] Memory required for data: 387296400
I0926 22:37:52.331183  2459 layer_factory.hpp:77] Creating layer BatchNorm15
I0926 22:37:52.331189  2459 net.cpp:84] Creating Layer BatchNorm15
I0926 22:37:52.331192  2459 net.cpp:406] BatchNorm15 <- Convolution15
I0926 22:37:52.331195  2459 net.cpp:367] BatchNorm15 -> Convolution15 (in-place)
I0926 22:37:52.331327  2459 net.cpp:122] Setting up BatchNorm15
I0926 22:37:52.331332  2459 net.cpp:129] Top shape: 100 16 28 28 (1254400)
I0926 22:37:52.331334  2459 net.cpp:137] Memory required for data: 392314000
I0926 22:37:52.331339  2459 layer_factory.hpp:77] Creating layer Scale15
I0926 22:37:52.331344  2459 net.cpp:84] Creating Layer Scale15
I0926 22:37:52.331347  2459 net.cpp:406] Scale15 <- Convolution15
I0926 22:37:52.331351  2459 net.cpp:367] Scale15 -> Convolution15 (in-place)
I0926 22:37:52.331377  2459 layer_factory.hpp:77] Creating layer Scale15
I0926 22:37:52.331454  2459 net.cpp:122] Setting up Scale15
I0926 22:37:52.331459  2459 net.cpp:129] Top shape: 100 16 28 28 (1254400)
I0926 22:37:52.331460  2459 net.cpp:137] Memory required for data: 397331600
I0926 22:37:52.331465  2459 layer_factory.hpp:77] Creating layer Eltwise7
I0926 22:37:52.331470  2459 net.cpp:84] Creating Layer Eltwise7
I0926 22:37:52.331472  2459 net.cpp:406] Eltwise7 <- Eltwise6_penlu13_0_split_1
I0926 22:37:52.331475  2459 net.cpp:406] Eltwise7 <- Convolution15
I0926 22:37:52.331478  2459 net.cpp:380] Eltwise7 -> Eltwise7
I0926 22:37:52.331495  2459 net.cpp:122] Setting up Eltwise7
I0926 22:37:52.331498  2459 net.cpp:129] Top shape: 100 16 28 28 (1254400)
I0926 22:37:52.331501  2459 net.cpp:137] Memory required for data: 402349200
I0926 22:37:52.331502  2459 layer_factory.hpp:77] Creating layer penlu15
I0926 22:37:52.331508  2459 net.cpp:84] Creating Layer penlu15
I0926 22:37:52.331511  2459 net.cpp:406] penlu15 <- Eltwise7
I0926 22:37:52.331514  2459 net.cpp:367] penlu15 -> Eltwise7 (in-place)
I0926 22:37:52.331621  2459 net.cpp:122] Setting up penlu15
I0926 22:37:52.331625  2459 net.cpp:129] Top shape: 100 16 28 28 (1254400)
I0926 22:37:52.331627  2459 net.cpp:137] Memory required for data: 407366800
I0926 22:37:52.331631  2459 layer_factory.hpp:77] Creating layer Eltwise7_penlu15_0_split
I0926 22:37:52.331635  2459 net.cpp:84] Creating Layer Eltwise7_penlu15_0_split
I0926 22:37:52.331637  2459 net.cpp:406] Eltwise7_penlu15_0_split <- Eltwise7
I0926 22:37:52.331641  2459 net.cpp:380] Eltwise7_penlu15_0_split -> Eltwise7_penlu15_0_split_0
I0926 22:37:52.331645  2459 net.cpp:380] Eltwise7_penlu15_0_split -> Eltwise7_penlu15_0_split_1
I0926 22:37:52.331667  2459 net.cpp:122] Setting up Eltwise7_penlu15_0_split
I0926 22:37:52.331671  2459 net.cpp:129] Top shape: 100 16 28 28 (1254400)
I0926 22:37:52.331674  2459 net.cpp:129] Top shape: 100 16 28 28 (1254400)
I0926 22:37:52.331676  2459 net.cpp:137] Memory required for data: 417402000
I0926 22:37:52.331678  2459 layer_factory.hpp:77] Creating layer Convolution16
I0926 22:37:52.331684  2459 net.cpp:84] Creating Layer Convolution16
I0926 22:37:52.331687  2459 net.cpp:406] Convolution16 <- Eltwise7_penlu15_0_split_0
I0926 22:37:52.331691  2459 net.cpp:380] Convolution16 -> Convolution16
I0926 22:37:52.332589  2459 net.cpp:122] Setting up Convolution16
I0926 22:37:52.332598  2459 net.cpp:129] Top shape: 100 16 28 28 (1254400)
I0926 22:37:52.332602  2459 net.cpp:137] Memory required for data: 422419600
I0926 22:37:52.332605  2459 layer_factory.hpp:77] Creating layer BatchNorm16
I0926 22:37:52.332612  2459 net.cpp:84] Creating Layer BatchNorm16
I0926 22:37:52.332614  2459 net.cpp:406] BatchNorm16 <- Convolution16
I0926 22:37:52.332617  2459 net.cpp:367] BatchNorm16 -> Convolution16 (in-place)
I0926 22:37:52.332751  2459 net.cpp:122] Setting up BatchNorm16
I0926 22:37:52.332762  2459 net.cpp:129] Top shape: 100 16 28 28 (1254400)
I0926 22:37:52.332764  2459 net.cpp:137] Memory required for data: 427437200
I0926 22:37:52.332769  2459 layer_factory.hpp:77] Creating layer Scale16
I0926 22:37:52.332774  2459 net.cpp:84] Creating Layer Scale16
I0926 22:37:52.332777  2459 net.cpp:406] Scale16 <- Convolution16
I0926 22:37:52.332780  2459 net.cpp:367] Scale16 -> Convolution16 (in-place)
I0926 22:37:52.332808  2459 layer_factory.hpp:77] Creating layer Scale16
I0926 22:37:52.332887  2459 net.cpp:122] Setting up Scale16
I0926 22:37:52.332892  2459 net.cpp:129] Top shape: 100 16 28 28 (1254400)
I0926 22:37:52.332895  2459 net.cpp:137] Memory required for data: 432454800
I0926 22:37:52.332898  2459 layer_factory.hpp:77] Creating layer penlu16
I0926 22:37:52.332904  2459 net.cpp:84] Creating Layer penlu16
I0926 22:37:52.332906  2459 net.cpp:406] penlu16 <- Convolution16
I0926 22:37:52.332911  2459 net.cpp:367] penlu16 -> Convolution16 (in-place)
I0926 22:37:52.333021  2459 net.cpp:122] Setting up penlu16
I0926 22:37:52.333025  2459 net.cpp:129] Top shape: 100 16 28 28 (1254400)
I0926 22:37:52.333027  2459 net.cpp:137] Memory required for data: 437472400
I0926 22:37:52.333032  2459 layer_factory.hpp:77] Creating layer Convolution17
I0926 22:37:52.333039  2459 net.cpp:84] Creating Layer Convolution17
I0926 22:37:52.333042  2459 net.cpp:406] Convolution17 <- Convolution16
I0926 22:37:52.333045  2459 net.cpp:380] Convolution17 -> Convolution17
I0926 22:37:52.333686  2459 net.cpp:122] Setting up Convolution17
I0926 22:37:52.333695  2459 net.cpp:129] Top shape: 100 16 28 28 (1254400)
I0926 22:37:52.333698  2459 net.cpp:137] Memory required for data: 442490000
I0926 22:37:52.333705  2459 layer_factory.hpp:77] Creating layer BatchNorm17
I0926 22:37:52.333711  2459 net.cpp:84] Creating Layer BatchNorm17
I0926 22:37:52.333714  2459 net.cpp:406] BatchNorm17 <- Convolution17
I0926 22:37:52.333719  2459 net.cpp:367] BatchNorm17 -> Convolution17 (in-place)
I0926 22:37:52.333858  2459 net.cpp:122] Setting up BatchNorm17
I0926 22:37:52.333863  2459 net.cpp:129] Top shape: 100 16 28 28 (1254400)
I0926 22:37:52.333864  2459 net.cpp:137] Memory required for data: 447507600
I0926 22:37:52.333869  2459 layer_factory.hpp:77] Creating layer Scale17
I0926 22:37:52.333874  2459 net.cpp:84] Creating Layer Scale17
I0926 22:37:52.333878  2459 net.cpp:406] Scale17 <- Convolution17
I0926 22:37:52.333883  2459 net.cpp:367] Scale17 -> Convolution17 (in-place)
I0926 22:37:52.333910  2459 layer_factory.hpp:77] Creating layer Scale17
I0926 22:37:52.333992  2459 net.cpp:122] Setting up Scale17
I0926 22:37:52.333997  2459 net.cpp:129] Top shape: 100 16 28 28 (1254400)
I0926 22:37:52.333998  2459 net.cpp:137] Memory required for data: 452525200
I0926 22:37:52.334003  2459 layer_factory.hpp:77] Creating layer Eltwise8
I0926 22:37:52.334009  2459 net.cpp:84] Creating Layer Eltwise8
I0926 22:37:52.334012  2459 net.cpp:406] Eltwise8 <- Eltwise7_penlu15_0_split_1
I0926 22:37:52.334014  2459 net.cpp:406] Eltwise8 <- Convolution17
I0926 22:37:52.334019  2459 net.cpp:380] Eltwise8 -> Eltwise8
I0926 22:37:52.334035  2459 net.cpp:122] Setting up Eltwise8
I0926 22:37:52.334038  2459 net.cpp:129] Top shape: 100 16 28 28 (1254400)
I0926 22:37:52.334040  2459 net.cpp:137] Memory required for data: 457542800
I0926 22:37:52.334043  2459 layer_factory.hpp:77] Creating layer penlu17
I0926 22:37:52.334048  2459 net.cpp:84] Creating Layer penlu17
I0926 22:37:52.334051  2459 net.cpp:406] penlu17 <- Eltwise8
I0926 22:37:52.334054  2459 net.cpp:367] penlu17 -> Eltwise8 (in-place)
I0926 22:37:52.334167  2459 net.cpp:122] Setting up penlu17
I0926 22:37:52.334172  2459 net.cpp:129] Top shape: 100 16 28 28 (1254400)
I0926 22:37:52.334173  2459 net.cpp:137] Memory required for data: 462560400
I0926 22:37:52.334177  2459 layer_factory.hpp:77] Creating layer Eltwise8_penlu17_0_split
I0926 22:37:52.334182  2459 net.cpp:84] Creating Layer Eltwise8_penlu17_0_split
I0926 22:37:52.334185  2459 net.cpp:406] Eltwise8_penlu17_0_split <- Eltwise8
I0926 22:37:52.334197  2459 net.cpp:380] Eltwise8_penlu17_0_split -> Eltwise8_penlu17_0_split_0
I0926 22:37:52.334204  2459 net.cpp:380] Eltwise8_penlu17_0_split -> Eltwise8_penlu17_0_split_1
I0926 22:37:52.334228  2459 net.cpp:122] Setting up Eltwise8_penlu17_0_split
I0926 22:37:52.334233  2459 net.cpp:129] Top shape: 100 16 28 28 (1254400)
I0926 22:37:52.334235  2459 net.cpp:129] Top shape: 100 16 28 28 (1254400)
I0926 22:37:52.334237  2459 net.cpp:137] Memory required for data: 472595600
I0926 22:37:52.334239  2459 layer_factory.hpp:77] Creating layer Convolution18
I0926 22:37:52.334246  2459 net.cpp:84] Creating Layer Convolution18
I0926 22:37:52.334250  2459 net.cpp:406] Convolution18 <- Eltwise8_penlu17_0_split_0
I0926 22:37:52.334255  2459 net.cpp:380] Convolution18 -> Convolution18
I0926 22:37:52.335175  2459 net.cpp:122] Setting up Convolution18
I0926 22:37:52.335183  2459 net.cpp:129] Top shape: 100 16 28 28 (1254400)
I0926 22:37:52.335186  2459 net.cpp:137] Memory required for data: 477613200
I0926 22:37:52.335191  2459 layer_factory.hpp:77] Creating layer BatchNorm18
I0926 22:37:52.335196  2459 net.cpp:84] Creating Layer BatchNorm18
I0926 22:37:52.335198  2459 net.cpp:406] BatchNorm18 <- Convolution18
I0926 22:37:52.335203  2459 net.cpp:367] BatchNorm18 -> Convolution18 (in-place)
I0926 22:37:52.335352  2459 net.cpp:122] Setting up BatchNorm18
I0926 22:37:52.335360  2459 net.cpp:129] Top shape: 100 16 28 28 (1254400)
I0926 22:37:52.335361  2459 net.cpp:137] Memory required for data: 482630800
I0926 22:37:52.335366  2459 layer_factory.hpp:77] Creating layer Scale18
I0926 22:37:52.335371  2459 net.cpp:84] Creating Layer Scale18
I0926 22:37:52.335374  2459 net.cpp:406] Scale18 <- Convolution18
I0926 22:37:52.335378  2459 net.cpp:367] Scale18 -> Convolution18 (in-place)
I0926 22:37:52.335407  2459 layer_factory.hpp:77] Creating layer Scale18
I0926 22:37:52.335486  2459 net.cpp:122] Setting up Scale18
I0926 22:37:52.335490  2459 net.cpp:129] Top shape: 100 16 28 28 (1254400)
I0926 22:37:52.335492  2459 net.cpp:137] Memory required for data: 487648400
I0926 22:37:52.335496  2459 layer_factory.hpp:77] Creating layer penlu18
I0926 22:37:52.335502  2459 net.cpp:84] Creating Layer penlu18
I0926 22:37:52.335505  2459 net.cpp:406] penlu18 <- Convolution18
I0926 22:37:52.335508  2459 net.cpp:367] penlu18 -> Convolution18 (in-place)
I0926 22:37:52.335616  2459 net.cpp:122] Setting up penlu18
I0926 22:37:52.335620  2459 net.cpp:129] Top shape: 100 16 28 28 (1254400)
I0926 22:37:52.335623  2459 net.cpp:137] Memory required for data: 492666000
I0926 22:37:52.335628  2459 layer_factory.hpp:77] Creating layer Convolution19
I0926 22:37:52.335633  2459 net.cpp:84] Creating Layer Convolution19
I0926 22:37:52.335636  2459 net.cpp:406] Convolution19 <- Convolution18
I0926 22:37:52.335640  2459 net.cpp:380] Convolution19 -> Convolution19
I0926 22:37:52.336554  2459 net.cpp:122] Setting up Convolution19
I0926 22:37:52.336561  2459 net.cpp:129] Top shape: 100 16 28 28 (1254400)
I0926 22:37:52.336565  2459 net.cpp:137] Memory required for data: 497683600
I0926 22:37:52.336570  2459 layer_factory.hpp:77] Creating layer BatchNorm19
I0926 22:37:52.336575  2459 net.cpp:84] Creating Layer BatchNorm19
I0926 22:37:52.336577  2459 net.cpp:406] BatchNorm19 <- Convolution19
I0926 22:37:52.336581  2459 net.cpp:367] BatchNorm19 -> Convolution19 (in-place)
I0926 22:37:52.336715  2459 net.cpp:122] Setting up BatchNorm19
I0926 22:37:52.336720  2459 net.cpp:129] Top shape: 100 16 28 28 (1254400)
I0926 22:37:52.336722  2459 net.cpp:137] Memory required for data: 502701200
I0926 22:37:52.336727  2459 layer_factory.hpp:77] Creating layer Scale19
I0926 22:37:52.336732  2459 net.cpp:84] Creating Layer Scale19
I0926 22:37:52.336735  2459 net.cpp:406] Scale19 <- Convolution19
I0926 22:37:52.336738  2459 net.cpp:367] Scale19 -> Convolution19 (in-place)
I0926 22:37:52.336766  2459 layer_factory.hpp:77] Creating layer Scale19
I0926 22:37:52.336854  2459 net.cpp:122] Setting up Scale19
I0926 22:37:52.336863  2459 net.cpp:129] Top shape: 100 16 28 28 (1254400)
I0926 22:37:52.336876  2459 net.cpp:137] Memory required for data: 507718800
I0926 22:37:52.336885  2459 layer_factory.hpp:77] Creating layer Eltwise9
I0926 22:37:52.336894  2459 net.cpp:84] Creating Layer Eltwise9
I0926 22:37:52.336899  2459 net.cpp:406] Eltwise9 <- Eltwise8_penlu17_0_split_1
I0926 22:37:52.336905  2459 net.cpp:406] Eltwise9 <- Convolution19
I0926 22:37:52.336912  2459 net.cpp:380] Eltwise9 -> Eltwise9
I0926 22:37:52.336935  2459 net.cpp:122] Setting up Eltwise9
I0926 22:37:52.336940  2459 net.cpp:129] Top shape: 100 16 28 28 (1254400)
I0926 22:37:52.336941  2459 net.cpp:137] Memory required for data: 512736400
I0926 22:37:52.336943  2459 layer_factory.hpp:77] Creating layer penlu19
I0926 22:37:52.336949  2459 net.cpp:84] Creating Layer penlu19
I0926 22:37:52.336952  2459 net.cpp:406] penlu19 <- Eltwise9
I0926 22:37:52.336956  2459 net.cpp:367] penlu19 -> Eltwise9 (in-place)
I0926 22:37:52.337066  2459 net.cpp:122] Setting up penlu19
I0926 22:37:52.337071  2459 net.cpp:129] Top shape: 100 16 28 28 (1254400)
I0926 22:37:52.337074  2459 net.cpp:137] Memory required for data: 517754000
I0926 22:37:52.337077  2459 layer_factory.hpp:77] Creating layer Eltwise9_penlu19_0_split
I0926 22:37:52.337081  2459 net.cpp:84] Creating Layer Eltwise9_penlu19_0_split
I0926 22:37:52.337083  2459 net.cpp:406] Eltwise9_penlu19_0_split <- Eltwise9
I0926 22:37:52.337087  2459 net.cpp:380] Eltwise9_penlu19_0_split -> Eltwise9_penlu19_0_split_0
I0926 22:37:52.337091  2459 net.cpp:380] Eltwise9_penlu19_0_split -> Eltwise9_penlu19_0_split_1
I0926 22:37:52.337115  2459 net.cpp:122] Setting up Eltwise9_penlu19_0_split
I0926 22:37:52.337118  2459 net.cpp:129] Top shape: 100 16 28 28 (1254400)
I0926 22:37:52.337121  2459 net.cpp:129] Top shape: 100 16 28 28 (1254400)
I0926 22:37:52.337122  2459 net.cpp:137] Memory required for data: 527789200
I0926 22:37:52.337126  2459 layer_factory.hpp:77] Creating layer Convolution20
I0926 22:37:52.337131  2459 net.cpp:84] Creating Layer Convolution20
I0926 22:37:52.337134  2459 net.cpp:406] Convolution20 <- Eltwise9_penlu19_0_split_0
I0926 22:37:52.337138  2459 net.cpp:380] Convolution20 -> Convolution20
I0926 22:37:52.338318  2459 net.cpp:122] Setting up Convolution20
I0926 22:37:52.338328  2459 net.cpp:129] Top shape: 100 32 14 14 (627200)
I0926 22:37:52.338331  2459 net.cpp:137] Memory required for data: 530298000
I0926 22:37:52.338336  2459 layer_factory.hpp:77] Creating layer BatchNorm20
I0926 22:37:52.338340  2459 net.cpp:84] Creating Layer BatchNorm20
I0926 22:37:52.338343  2459 net.cpp:406] BatchNorm20 <- Convolution20
I0926 22:37:52.338347  2459 net.cpp:367] BatchNorm20 -> Convolution20 (in-place)
I0926 22:37:52.338490  2459 net.cpp:122] Setting up BatchNorm20
I0926 22:37:52.338495  2459 net.cpp:129] Top shape: 100 32 14 14 (627200)
I0926 22:37:52.338496  2459 net.cpp:137] Memory required for data: 532806800
I0926 22:37:52.338501  2459 layer_factory.hpp:77] Creating layer Scale20
I0926 22:37:52.338505  2459 net.cpp:84] Creating Layer Scale20
I0926 22:37:52.338508  2459 net.cpp:406] Scale20 <- Convolution20
I0926 22:37:52.338512  2459 net.cpp:367] Scale20 -> Convolution20 (in-place)
I0926 22:37:52.338538  2459 layer_factory.hpp:77] Creating layer Scale20
I0926 22:37:52.338615  2459 net.cpp:122] Setting up Scale20
I0926 22:37:52.338619  2459 net.cpp:129] Top shape: 100 32 14 14 (627200)
I0926 22:37:52.338621  2459 net.cpp:137] Memory required for data: 535315600
I0926 22:37:52.338625  2459 layer_factory.hpp:77] Creating layer Convolution21
I0926 22:37:52.338632  2459 net.cpp:84] Creating Layer Convolution21
I0926 22:37:52.338635  2459 net.cpp:406] Convolution21 <- Eltwise9_penlu19_0_split_1
I0926 22:37:52.338639  2459 net.cpp:380] Convolution21 -> Convolution21
I0926 22:37:52.340270  2459 net.cpp:122] Setting up Convolution21
I0926 22:37:52.340278  2459 net.cpp:129] Top shape: 100 32 14 14 (627200)
I0926 22:37:52.340281  2459 net.cpp:137] Memory required for data: 537824400
I0926 22:37:52.340286  2459 layer_factory.hpp:77] Creating layer BatchNorm21
I0926 22:37:52.340292  2459 net.cpp:84] Creating Layer BatchNorm21
I0926 22:37:52.340302  2459 net.cpp:406] BatchNorm21 <- Convolution21
I0926 22:37:52.340306  2459 net.cpp:367] BatchNorm21 -> Convolution21 (in-place)
I0926 22:37:52.340451  2459 net.cpp:122] Setting up BatchNorm21
I0926 22:37:52.340456  2459 net.cpp:129] Top shape: 100 32 14 14 (627200)
I0926 22:37:52.340458  2459 net.cpp:137] Memory required for data: 540333200
I0926 22:37:52.340463  2459 layer_factory.hpp:77] Creating layer Scale21
I0926 22:37:52.340469  2459 net.cpp:84] Creating Layer Scale21
I0926 22:37:52.340471  2459 net.cpp:406] Scale21 <- Convolution21
I0926 22:37:52.340476  2459 net.cpp:367] Scale21 -> Convolution21 (in-place)
I0926 22:37:52.340504  2459 layer_factory.hpp:77] Creating layer Scale21
I0926 22:37:52.340586  2459 net.cpp:122] Setting up Scale21
I0926 22:37:52.340590  2459 net.cpp:129] Top shape: 100 32 14 14 (627200)
I0926 22:37:52.340592  2459 net.cpp:137] Memory required for data: 542842000
I0926 22:37:52.340596  2459 layer_factory.hpp:77] Creating layer penlu20
I0926 22:37:52.340602  2459 net.cpp:84] Creating Layer penlu20
I0926 22:37:52.340605  2459 net.cpp:406] penlu20 <- Convolution21
I0926 22:37:52.340610  2459 net.cpp:367] penlu20 -> Convolution21 (in-place)
I0926 22:37:52.340739  2459 net.cpp:122] Setting up penlu20
I0926 22:37:52.340744  2459 net.cpp:129] Top shape: 100 32 14 14 (627200)
I0926 22:37:52.340746  2459 net.cpp:137] Memory required for data: 545350800
I0926 22:37:52.340750  2459 layer_factory.hpp:77] Creating layer Convolution22
I0926 22:37:52.340757  2459 net.cpp:84] Creating Layer Convolution22
I0926 22:37:52.340760  2459 net.cpp:406] Convolution22 <- Convolution21
I0926 22:37:52.340764  2459 net.cpp:380] Convolution22 -> Convolution22
I0926 22:37:52.365993  2459 net.cpp:122] Setting up Convolution22
I0926 22:37:52.366005  2459 net.cpp:129] Top shape: 100 32 14 14 (627200)
I0926 22:37:52.366008  2459 net.cpp:137] Memory required for data: 547859600
I0926 22:37:52.366014  2459 layer_factory.hpp:77] Creating layer BatchNorm22
I0926 22:37:52.366020  2459 net.cpp:84] Creating Layer BatchNorm22
I0926 22:37:52.366024  2459 net.cpp:406] BatchNorm22 <- Convolution22
I0926 22:37:52.366029  2459 net.cpp:367] BatchNorm22 -> Convolution22 (in-place)
I0926 22:37:52.366184  2459 net.cpp:122] Setting up BatchNorm22
I0926 22:37:52.366189  2459 net.cpp:129] Top shape: 100 32 14 14 (627200)
I0926 22:37:52.366191  2459 net.cpp:137] Memory required for data: 550368400
I0926 22:37:52.366197  2459 layer_factory.hpp:77] Creating layer Scale22
I0926 22:37:52.366201  2459 net.cpp:84] Creating Layer Scale22
I0926 22:37:52.366204  2459 net.cpp:406] Scale22 <- Convolution22
I0926 22:37:52.366209  2459 net.cpp:367] Scale22 -> Convolution22 (in-place)
I0926 22:37:52.366238  2459 layer_factory.hpp:77] Creating layer Scale22
I0926 22:37:52.366324  2459 net.cpp:122] Setting up Scale22
I0926 22:37:52.366329  2459 net.cpp:129] Top shape: 100 32 14 14 (627200)
I0926 22:37:52.366333  2459 net.cpp:137] Memory required for data: 552877200
I0926 22:37:52.366336  2459 layer_factory.hpp:77] Creating layer Eltwise10
I0926 22:37:52.366341  2459 net.cpp:84] Creating Layer Eltwise10
I0926 22:37:52.366343  2459 net.cpp:406] Eltwise10 <- Convolution20
I0926 22:37:52.366346  2459 net.cpp:406] Eltwise10 <- Convolution22
I0926 22:37:52.366351  2459 net.cpp:380] Eltwise10 -> Eltwise10
I0926 22:37:52.366369  2459 net.cpp:122] Setting up Eltwise10
I0926 22:37:52.366375  2459 net.cpp:129] Top shape: 100 32 14 14 (627200)
I0926 22:37:52.366377  2459 net.cpp:137] Memory required for data: 555386000
I0926 22:37:52.366379  2459 layer_factory.hpp:77] Creating layer penlu21
I0926 22:37:52.366385  2459 net.cpp:84] Creating Layer penlu21
I0926 22:37:52.366387  2459 net.cpp:406] penlu21 <- Eltwise10
I0926 22:37:52.366392  2459 net.cpp:367] penlu21 -> Eltwise10 (in-place)
I0926 22:37:52.366510  2459 net.cpp:122] Setting up penlu21
I0926 22:37:52.366514  2459 net.cpp:129] Top shape: 100 32 14 14 (627200)
I0926 22:37:52.366518  2459 net.cpp:137] Memory required for data: 557894800
I0926 22:37:52.366521  2459 layer_factory.hpp:77] Creating layer Eltwise10_penlu21_0_split
I0926 22:37:52.366535  2459 net.cpp:84] Creating Layer Eltwise10_penlu21_0_split
I0926 22:37:52.366539  2459 net.cpp:406] Eltwise10_penlu21_0_split <- Eltwise10
I0926 22:37:52.366542  2459 net.cpp:380] Eltwise10_penlu21_0_split -> Eltwise10_penlu21_0_split_0
I0926 22:37:52.366547  2459 net.cpp:380] Eltwise10_penlu21_0_split -> Eltwise10_penlu21_0_split_1
I0926 22:37:52.366574  2459 net.cpp:122] Setting up Eltwise10_penlu21_0_split
I0926 22:37:52.366578  2459 net.cpp:129] Top shape: 100 32 14 14 (627200)
I0926 22:37:52.366581  2459 net.cpp:129] Top shape: 100 32 14 14 (627200)
I0926 22:37:52.366583  2459 net.cpp:137] Memory required for data: 562912400
I0926 22:37:52.366586  2459 layer_factory.hpp:77] Creating layer Convolution23
I0926 22:37:52.366592  2459 net.cpp:84] Creating Layer Convolution23
I0926 22:37:52.366595  2459 net.cpp:406] Convolution23 <- Eltwise10_penlu21_0_split_0
I0926 22:37:52.366600  2459 net.cpp:380] Convolution23 -> Convolution23
I0926 22:37:52.368041  2459 net.cpp:122] Setting up Convolution23
I0926 22:37:52.368050  2459 net.cpp:129] Top shape: 100 32 14 14 (627200)
I0926 22:37:52.368053  2459 net.cpp:137] Memory required for data: 565421200
I0926 22:37:52.368058  2459 layer_factory.hpp:77] Creating layer BatchNorm23
I0926 22:37:52.368063  2459 net.cpp:84] Creating Layer BatchNorm23
I0926 22:37:52.368067  2459 net.cpp:406] BatchNorm23 <- Convolution23
I0926 22:37:52.368070  2459 net.cpp:367] BatchNorm23 -> Convolution23 (in-place)
I0926 22:37:52.368217  2459 net.cpp:122] Setting up BatchNorm23
I0926 22:37:52.368222  2459 net.cpp:129] Top shape: 100 32 14 14 (627200)
I0926 22:37:52.368224  2459 net.cpp:137] Memory required for data: 567930000
I0926 22:37:52.368229  2459 layer_factory.hpp:77] Creating layer Scale23
I0926 22:37:52.368234  2459 net.cpp:84] Creating Layer Scale23
I0926 22:37:52.368237  2459 net.cpp:406] Scale23 <- Convolution23
I0926 22:37:52.368240  2459 net.cpp:367] Scale23 -> Convolution23 (in-place)
I0926 22:37:52.368268  2459 layer_factory.hpp:77] Creating layer Scale23
I0926 22:37:52.368345  2459 net.cpp:122] Setting up Scale23
I0926 22:37:52.368350  2459 net.cpp:129] Top shape: 100 32 14 14 (627200)
I0926 22:37:52.368352  2459 net.cpp:137] Memory required for data: 570438800
I0926 22:37:52.368356  2459 layer_factory.hpp:77] Creating layer penlu22
I0926 22:37:52.368361  2459 net.cpp:84] Creating Layer penlu22
I0926 22:37:52.368365  2459 net.cpp:406] penlu22 <- Convolution23
I0926 22:37:52.368368  2459 net.cpp:367] penlu22 -> Convolution23 (in-place)
I0926 22:37:52.368475  2459 net.cpp:122] Setting up penlu22
I0926 22:37:52.368480  2459 net.cpp:129] Top shape: 100 32 14 14 (627200)
I0926 22:37:52.368482  2459 net.cpp:137] Memory required for data: 572947600
I0926 22:37:52.368486  2459 layer_factory.hpp:77] Creating layer Convolution24
I0926 22:37:52.368494  2459 net.cpp:84] Creating Layer Convolution24
I0926 22:37:52.368496  2459 net.cpp:406] Convolution24 <- Convolution23
I0926 22:37:52.368500  2459 net.cpp:380] Convolution24 -> Convolution24
I0926 22:37:52.369563  2459 net.cpp:122] Setting up Convolution24
I0926 22:37:52.369571  2459 net.cpp:129] Top shape: 100 32 14 14 (627200)
I0926 22:37:52.369575  2459 net.cpp:137] Memory required for data: 575456400
I0926 22:37:52.369580  2459 layer_factory.hpp:77] Creating layer BatchNorm24
I0926 22:37:52.369585  2459 net.cpp:84] Creating Layer BatchNorm24
I0926 22:37:52.369587  2459 net.cpp:406] BatchNorm24 <- Convolution24
I0926 22:37:52.369593  2459 net.cpp:367] BatchNorm24 -> Convolution24 (in-place)
I0926 22:37:52.369730  2459 net.cpp:122] Setting up BatchNorm24
I0926 22:37:52.369735  2459 net.cpp:129] Top shape: 100 32 14 14 (627200)
I0926 22:37:52.369737  2459 net.cpp:137] Memory required for data: 577965200
I0926 22:37:52.369742  2459 layer_factory.hpp:77] Creating layer Scale24
I0926 22:37:52.369747  2459 net.cpp:84] Creating Layer Scale24
I0926 22:37:52.369750  2459 net.cpp:406] Scale24 <- Convolution24
I0926 22:37:52.369752  2459 net.cpp:367] Scale24 -> Convolution24 (in-place)
I0926 22:37:52.369788  2459 layer_factory.hpp:77] Creating layer Scale24
I0926 22:37:52.369868  2459 net.cpp:122] Setting up Scale24
I0926 22:37:52.369873  2459 net.cpp:129] Top shape: 100 32 14 14 (627200)
I0926 22:37:52.369874  2459 net.cpp:137] Memory required for data: 580474000
I0926 22:37:52.369879  2459 layer_factory.hpp:77] Creating layer Eltwise11
I0926 22:37:52.369882  2459 net.cpp:84] Creating Layer Eltwise11
I0926 22:37:52.369884  2459 net.cpp:406] Eltwise11 <- Eltwise10_penlu21_0_split_1
I0926 22:37:52.369887  2459 net.cpp:406] Eltwise11 <- Convolution24
I0926 22:37:52.369892  2459 net.cpp:380] Eltwise11 -> Eltwise11
I0926 22:37:52.369909  2459 net.cpp:122] Setting up Eltwise11
I0926 22:37:52.369912  2459 net.cpp:129] Top shape: 100 32 14 14 (627200)
I0926 22:37:52.369915  2459 net.cpp:137] Memory required for data: 582982800
I0926 22:37:52.369916  2459 layer_factory.hpp:77] Creating layer penlu23
I0926 22:37:52.369922  2459 net.cpp:84] Creating Layer penlu23
I0926 22:37:52.369925  2459 net.cpp:406] penlu23 <- Eltwise11
I0926 22:37:52.369927  2459 net.cpp:367] penlu23 -> Eltwise11 (in-place)
I0926 22:37:52.370035  2459 net.cpp:122] Setting up penlu23
I0926 22:37:52.370040  2459 net.cpp:129] Top shape: 100 32 14 14 (627200)
I0926 22:37:52.370043  2459 net.cpp:137] Memory required for data: 585491600
I0926 22:37:52.370046  2459 layer_factory.hpp:77] Creating layer Eltwise11_penlu23_0_split
I0926 22:37:52.370050  2459 net.cpp:84] Creating Layer Eltwise11_penlu23_0_split
I0926 22:37:52.370052  2459 net.cpp:406] Eltwise11_penlu23_0_split <- Eltwise11
I0926 22:37:52.370056  2459 net.cpp:380] Eltwise11_penlu23_0_split -> Eltwise11_penlu23_0_split_0
I0926 22:37:52.370060  2459 net.cpp:380] Eltwise11_penlu23_0_split -> Eltwise11_penlu23_0_split_1
I0926 22:37:52.370082  2459 net.cpp:122] Setting up Eltwise11_penlu23_0_split
I0926 22:37:52.370086  2459 net.cpp:129] Top shape: 100 32 14 14 (627200)
I0926 22:37:52.370090  2459 net.cpp:129] Top shape: 100 32 14 14 (627200)
I0926 22:37:52.370091  2459 net.cpp:137] Memory required for data: 590509200
I0926 22:37:52.370093  2459 layer_factory.hpp:77] Creating layer Convolution25
I0926 22:37:52.370100  2459 net.cpp:84] Creating Layer Convolution25
I0926 22:37:52.370102  2459 net.cpp:406] Convolution25 <- Eltwise11_penlu23_0_split_0
I0926 22:37:52.370106  2459 net.cpp:380] Convolution25 -> Convolution25
I0926 22:37:52.371198  2459 net.cpp:122] Setting up Convolution25
I0926 22:37:52.371207  2459 net.cpp:129] Top shape: 100 32 14 14 (627200)
I0926 22:37:52.371210  2459 net.cpp:137] Memory required for data: 593018000
I0926 22:37:52.371214  2459 layer_factory.hpp:77] Creating layer BatchNorm25
I0926 22:37:52.371219  2459 net.cpp:84] Creating Layer BatchNorm25
I0926 22:37:52.371222  2459 net.cpp:406] BatchNorm25 <- Convolution25
I0926 22:37:52.371227  2459 net.cpp:367] BatchNorm25 -> Convolution25 (in-place)
I0926 22:37:52.371363  2459 net.cpp:122] Setting up BatchNorm25
I0926 22:37:52.371368  2459 net.cpp:129] Top shape: 100 32 14 14 (627200)
I0926 22:37:52.371371  2459 net.cpp:137] Memory required for data: 595526800
I0926 22:37:52.371376  2459 layer_factory.hpp:77] Creating layer Scale25
I0926 22:37:52.371381  2459 net.cpp:84] Creating Layer Scale25
I0926 22:37:52.371384  2459 net.cpp:406] Scale25 <- Convolution25
I0926 22:37:52.371387  2459 net.cpp:367] Scale25 -> Convolution25 (in-place)
I0926 22:37:52.371414  2459 layer_factory.hpp:77] Creating layer Scale25
I0926 22:37:52.371492  2459 net.cpp:122] Setting up Scale25
I0926 22:37:52.371496  2459 net.cpp:129] Top shape: 100 32 14 14 (627200)
I0926 22:37:52.371498  2459 net.cpp:137] Memory required for data: 598035600
I0926 22:37:52.371502  2459 layer_factory.hpp:77] Creating layer penlu24
I0926 22:37:52.371508  2459 net.cpp:84] Creating Layer penlu24
I0926 22:37:52.371511  2459 net.cpp:406] penlu24 <- Convolution25
I0926 22:37:52.371515  2459 net.cpp:367] penlu24 -> Convolution25 (in-place)
I0926 22:37:52.371621  2459 net.cpp:122] Setting up penlu24
I0926 22:37:52.371626  2459 net.cpp:129] Top shape: 100 32 14 14 (627200)
I0926 22:37:52.371634  2459 net.cpp:137] Memory required for data: 600544400
I0926 22:37:52.371639  2459 layer_factory.hpp:77] Creating layer Convolution26
I0926 22:37:52.371646  2459 net.cpp:84] Creating Layer Convolution26
I0926 22:37:52.371649  2459 net.cpp:406] Convolution26 <- Convolution25
I0926 22:37:52.371654  2459 net.cpp:380] Convolution26 -> Convolution26
I0926 22:37:52.372781  2459 net.cpp:122] Setting up Convolution26
I0926 22:37:52.372790  2459 net.cpp:129] Top shape: 100 32 14 14 (627200)
I0926 22:37:52.372792  2459 net.cpp:137] Memory required for data: 603053200
I0926 22:37:52.372797  2459 layer_factory.hpp:77] Creating layer BatchNorm26
I0926 22:37:52.372803  2459 net.cpp:84] Creating Layer BatchNorm26
I0926 22:37:52.372807  2459 net.cpp:406] BatchNorm26 <- Convolution26
I0926 22:37:52.372809  2459 net.cpp:367] BatchNorm26 -> Convolution26 (in-place)
I0926 22:37:52.372979  2459 net.cpp:122] Setting up BatchNorm26
I0926 22:37:52.372984  2459 net.cpp:129] Top shape: 100 32 14 14 (627200)
I0926 22:37:52.372987  2459 net.cpp:137] Memory required for data: 605562000
I0926 22:37:52.372992  2459 layer_factory.hpp:77] Creating layer Scale26
I0926 22:37:52.372997  2459 net.cpp:84] Creating Layer Scale26
I0926 22:37:52.373009  2459 net.cpp:406] Scale26 <- Convolution26
I0926 22:37:52.373013  2459 net.cpp:367] Scale26 -> Convolution26 (in-place)
I0926 22:37:52.373040  2459 layer_factory.hpp:77] Creating layer Scale26
I0926 22:37:52.373122  2459 net.cpp:122] Setting up Scale26
I0926 22:37:52.373127  2459 net.cpp:129] Top shape: 100 32 14 14 (627200)
I0926 22:37:52.373129  2459 net.cpp:137] Memory required for data: 608070800
I0926 22:37:52.373133  2459 layer_factory.hpp:77] Creating layer Eltwise12
I0926 22:37:52.373138  2459 net.cpp:84] Creating Layer Eltwise12
I0926 22:37:52.373142  2459 net.cpp:406] Eltwise12 <- Eltwise11_penlu23_0_split_1
I0926 22:37:52.373144  2459 net.cpp:406] Eltwise12 <- Convolution26
I0926 22:37:52.373147  2459 net.cpp:380] Eltwise12 -> Eltwise12
I0926 22:37:52.373164  2459 net.cpp:122] Setting up Eltwise12
I0926 22:37:52.373170  2459 net.cpp:129] Top shape: 100 32 14 14 (627200)
I0926 22:37:52.373173  2459 net.cpp:137] Memory required for data: 610579600
I0926 22:37:52.373178  2459 layer_factory.hpp:77] Creating layer penlu25
I0926 22:37:52.373185  2459 net.cpp:84] Creating Layer penlu25
I0926 22:37:52.373190  2459 net.cpp:406] penlu25 <- Eltwise12
I0926 22:37:52.373196  2459 net.cpp:367] penlu25 -> Eltwise12 (in-place)
I0926 22:37:52.373345  2459 net.cpp:122] Setting up penlu25
I0926 22:37:52.373353  2459 net.cpp:129] Top shape: 100 32 14 14 (627200)
I0926 22:37:52.373358  2459 net.cpp:137] Memory required for data: 613088400
I0926 22:37:52.373394  2459 layer_factory.hpp:77] Creating layer Eltwise12_penlu25_0_split
I0926 22:37:52.373414  2459 net.cpp:84] Creating Layer Eltwise12_penlu25_0_split
I0926 22:37:52.373420  2459 net.cpp:406] Eltwise12_penlu25_0_split <- Eltwise12
I0926 22:37:52.373426  2459 net.cpp:380] Eltwise12_penlu25_0_split -> Eltwise12_penlu25_0_split_0
I0926 22:37:52.373436  2459 net.cpp:380] Eltwise12_penlu25_0_split -> Eltwise12_penlu25_0_split_1
I0926 22:37:52.373467  2459 net.cpp:122] Setting up Eltwise12_penlu25_0_split
I0926 22:37:52.373473  2459 net.cpp:129] Top shape: 100 32 14 14 (627200)
I0926 22:37:52.373476  2459 net.cpp:129] Top shape: 100 32 14 14 (627200)
I0926 22:37:52.373478  2459 net.cpp:137] Memory required for data: 618106000
I0926 22:37:52.373481  2459 layer_factory.hpp:77] Creating layer Convolution27
I0926 22:37:52.373488  2459 net.cpp:84] Creating Layer Convolution27
I0926 22:37:52.373491  2459 net.cpp:406] Convolution27 <- Eltwise12_penlu25_0_split_0
I0926 22:37:52.373495  2459 net.cpp:380] Convolution27 -> Convolution27
I0926 22:37:52.374382  2459 net.cpp:122] Setting up Convolution27
I0926 22:37:52.374392  2459 net.cpp:129] Top shape: 100 32 14 14 (627200)
I0926 22:37:52.374394  2459 net.cpp:137] Memory required for data: 620614800
I0926 22:37:52.374399  2459 layer_factory.hpp:77] Creating layer BatchNorm27
I0926 22:37:52.374405  2459 net.cpp:84] Creating Layer BatchNorm27
I0926 22:37:52.374415  2459 net.cpp:406] BatchNorm27 <- Convolution27
I0926 22:37:52.374420  2459 net.cpp:367] BatchNorm27 -> Convolution27 (in-place)
I0926 22:37:52.374565  2459 net.cpp:122] Setting up BatchNorm27
I0926 22:37:52.374570  2459 net.cpp:129] Top shape: 100 32 14 14 (627200)
I0926 22:37:52.374572  2459 net.cpp:137] Memory required for data: 623123600
I0926 22:37:52.374577  2459 layer_factory.hpp:77] Creating layer Scale27
I0926 22:37:52.374583  2459 net.cpp:84] Creating Layer Scale27
I0926 22:37:52.374585  2459 net.cpp:406] Scale27 <- Convolution27
I0926 22:37:52.374589  2459 net.cpp:367] Scale27 -> Convolution27 (in-place)
I0926 22:37:52.374617  2459 layer_factory.hpp:77] Creating layer Scale27
I0926 22:37:52.374701  2459 net.cpp:122] Setting up Scale27
I0926 22:37:52.374706  2459 net.cpp:129] Top shape: 100 32 14 14 (627200)
I0926 22:37:52.374707  2459 net.cpp:137] Memory required for data: 625632400
I0926 22:37:52.374711  2459 layer_factory.hpp:77] Creating layer penlu26
I0926 22:37:52.374717  2459 net.cpp:84] Creating Layer penlu26
I0926 22:37:52.374719  2459 net.cpp:406] penlu26 <- Convolution27
I0926 22:37:52.374722  2459 net.cpp:367] penlu26 -> Convolution27 (in-place)
I0926 22:37:52.374835  2459 net.cpp:122] Setting up penlu26
I0926 22:37:52.374840  2459 net.cpp:129] Top shape: 100 32 14 14 (627200)
I0926 22:37:52.374842  2459 net.cpp:137] Memory required for data: 628141200
I0926 22:37:52.374846  2459 layer_factory.hpp:77] Creating layer Convolution28
I0926 22:37:52.374855  2459 net.cpp:84] Creating Layer Convolution28
I0926 22:37:52.374856  2459 net.cpp:406] Convolution28 <- Convolution27
I0926 22:37:52.374861  2459 net.cpp:380] Convolution28 -> Convolution28
I0926 22:37:52.375947  2459 net.cpp:122] Setting up Convolution28
I0926 22:37:52.375957  2459 net.cpp:129] Top shape: 100 32 14 14 (627200)
I0926 22:37:52.375959  2459 net.cpp:137] Memory required for data: 630650000
I0926 22:37:52.375964  2459 layer_factory.hpp:77] Creating layer BatchNorm28
I0926 22:37:52.375972  2459 net.cpp:84] Creating Layer BatchNorm28
I0926 22:37:52.375974  2459 net.cpp:406] BatchNorm28 <- Convolution28
I0926 22:37:52.375977  2459 net.cpp:367] BatchNorm28 -> Convolution28 (in-place)
I0926 22:37:52.376121  2459 net.cpp:122] Setting up BatchNorm28
I0926 22:37:52.376126  2459 net.cpp:129] Top shape: 100 32 14 14 (627200)
I0926 22:37:52.376127  2459 net.cpp:137] Memory required for data: 633158800
I0926 22:37:52.376132  2459 layer_factory.hpp:77] Creating layer Scale28
I0926 22:37:52.376137  2459 net.cpp:84] Creating Layer Scale28
I0926 22:37:52.376140  2459 net.cpp:406] Scale28 <- Convolution28
I0926 22:37:52.376143  2459 net.cpp:367] Scale28 -> Convolution28 (in-place)
I0926 22:37:52.376171  2459 layer_factory.hpp:77] Creating layer Scale28
I0926 22:37:52.376266  2459 net.cpp:122] Setting up Scale28
I0926 22:37:52.376271  2459 net.cpp:129] Top shape: 100 32 14 14 (627200)
I0926 22:37:52.376273  2459 net.cpp:137] Memory required for data: 635667600
I0926 22:37:52.376277  2459 layer_factory.hpp:77] Creating layer Eltwise13
I0926 22:37:52.376282  2459 net.cpp:84] Creating Layer Eltwise13
I0926 22:37:52.376286  2459 net.cpp:406] Eltwise13 <- Eltwise12_penlu25_0_split_1
I0926 22:37:52.376288  2459 net.cpp:406] Eltwise13 <- Convolution28
I0926 22:37:52.376291  2459 net.cpp:380] Eltwise13 -> Eltwise13
I0926 22:37:52.376310  2459 net.cpp:122] Setting up Eltwise13
I0926 22:37:52.376314  2459 net.cpp:129] Top shape: 100 32 14 14 (627200)
I0926 22:37:52.376317  2459 net.cpp:137] Memory required for data: 638176400
I0926 22:37:52.376318  2459 layer_factory.hpp:77] Creating layer penlu27
I0926 22:37:52.376323  2459 net.cpp:84] Creating Layer penlu27
I0926 22:37:52.376327  2459 net.cpp:406] penlu27 <- Eltwise13
I0926 22:37:52.376329  2459 net.cpp:367] penlu27 -> Eltwise13 (in-place)
I0926 22:37:52.376442  2459 net.cpp:122] Setting up penlu27
I0926 22:37:52.376447  2459 net.cpp:129] Top shape: 100 32 14 14 (627200)
I0926 22:37:52.376449  2459 net.cpp:137] Memory required for data: 640685200
I0926 22:37:52.376461  2459 layer_factory.hpp:77] Creating layer Eltwise13_penlu27_0_split
I0926 22:37:52.376466  2459 net.cpp:84] Creating Layer Eltwise13_penlu27_0_split
I0926 22:37:52.376467  2459 net.cpp:406] Eltwise13_penlu27_0_split <- Eltwise13
I0926 22:37:52.376471  2459 net.cpp:380] Eltwise13_penlu27_0_split -> Eltwise13_penlu27_0_split_0
I0926 22:37:52.376476  2459 net.cpp:380] Eltwise13_penlu27_0_split -> Eltwise13_penlu27_0_split_1
I0926 22:37:52.376502  2459 net.cpp:122] Setting up Eltwise13_penlu27_0_split
I0926 22:37:52.376505  2459 net.cpp:129] Top shape: 100 32 14 14 (627200)
I0926 22:37:52.376508  2459 net.cpp:129] Top shape: 100 32 14 14 (627200)
I0926 22:37:52.376510  2459 net.cpp:137] Memory required for data: 645702800
I0926 22:37:52.376513  2459 layer_factory.hpp:77] Creating layer Convolution29
I0926 22:37:52.376519  2459 net.cpp:84] Creating Layer Convolution29
I0926 22:37:52.376523  2459 net.cpp:406] Convolution29 <- Eltwise13_penlu27_0_split_0
I0926 22:37:52.376526  2459 net.cpp:380] Convolution29 -> Convolution29
I0926 22:37:52.377611  2459 net.cpp:122] Setting up Convolution29
I0926 22:37:52.377620  2459 net.cpp:129] Top shape: 100 32 14 14 (627200)
I0926 22:37:52.377622  2459 net.cpp:137] Memory required for data: 648211600
I0926 22:37:52.377627  2459 layer_factory.hpp:77] Creating layer BatchNorm29
I0926 22:37:52.377634  2459 net.cpp:84] Creating Layer BatchNorm29
I0926 22:37:52.377636  2459 net.cpp:406] BatchNorm29 <- Convolution29
I0926 22:37:52.377640  2459 net.cpp:367] BatchNorm29 -> Convolution29 (in-place)
I0926 22:37:52.377782  2459 net.cpp:122] Setting up BatchNorm29
I0926 22:37:52.377787  2459 net.cpp:129] Top shape: 100 32 14 14 (627200)
I0926 22:37:52.377789  2459 net.cpp:137] Memory required for data: 650720400
I0926 22:37:52.377794  2459 layer_factory.hpp:77] Creating layer Scale29
I0926 22:37:52.377799  2459 net.cpp:84] Creating Layer Scale29
I0926 22:37:52.377802  2459 net.cpp:406] Scale29 <- Convolution29
I0926 22:37:52.377805  2459 net.cpp:367] Scale29 -> Convolution29 (in-place)
I0926 22:37:52.377833  2459 layer_factory.hpp:77] Creating layer Scale29
I0926 22:37:52.377916  2459 net.cpp:122] Setting up Scale29
I0926 22:37:52.377921  2459 net.cpp:129] Top shape: 100 32 14 14 (627200)
I0926 22:37:52.377923  2459 net.cpp:137] Memory required for data: 653229200
I0926 22:37:52.377928  2459 layer_factory.hpp:77] Creating layer penlu28
I0926 22:37:52.377933  2459 net.cpp:84] Creating Layer penlu28
I0926 22:37:52.377936  2459 net.cpp:406] penlu28 <- Convolution29
I0926 22:37:52.377940  2459 net.cpp:367] penlu28 -> Convolution29 (in-place)
I0926 22:37:52.378053  2459 net.cpp:122] Setting up penlu28
I0926 22:37:52.378057  2459 net.cpp:129] Top shape: 100 32 14 14 (627200)
I0926 22:37:52.378059  2459 net.cpp:137] Memory required for data: 655738000
I0926 22:37:52.378064  2459 layer_factory.hpp:77] Creating layer Convolution30
I0926 22:37:52.378072  2459 net.cpp:84] Creating Layer Convolution30
I0926 22:37:52.378074  2459 net.cpp:406] Convolution30 <- Convolution29
I0926 22:37:52.378078  2459 net.cpp:380] Convolution30 -> Convolution30
I0926 22:37:52.379166  2459 net.cpp:122] Setting up Convolution30
I0926 22:37:52.379176  2459 net.cpp:129] Top shape: 100 32 14 14 (627200)
I0926 22:37:52.379179  2459 net.cpp:137] Memory required for data: 658246800
I0926 22:37:52.379184  2459 layer_factory.hpp:77] Creating layer BatchNorm30
I0926 22:37:52.379189  2459 net.cpp:84] Creating Layer BatchNorm30
I0926 22:37:52.379191  2459 net.cpp:406] BatchNorm30 <- Convolution30
I0926 22:37:52.379195  2459 net.cpp:367] BatchNorm30 -> Convolution30 (in-place)
I0926 22:37:52.379336  2459 net.cpp:122] Setting up BatchNorm30
I0926 22:37:52.379341  2459 net.cpp:129] Top shape: 100 32 14 14 (627200)
I0926 22:37:52.379343  2459 net.cpp:137] Memory required for data: 660755600
I0926 22:37:52.379348  2459 layer_factory.hpp:77] Creating layer Scale30
I0926 22:37:52.379353  2459 net.cpp:84] Creating Layer Scale30
I0926 22:37:52.379355  2459 net.cpp:406] Scale30 <- Convolution30
I0926 22:37:52.379359  2459 net.cpp:367] Scale30 -> Convolution30 (in-place)
I0926 22:37:52.379395  2459 layer_factory.hpp:77] Creating layer Scale30
I0926 22:37:52.379477  2459 net.cpp:122] Setting up Scale30
I0926 22:37:52.379482  2459 net.cpp:129] Top shape: 100 32 14 14 (627200)
I0926 22:37:52.379483  2459 net.cpp:137] Memory required for data: 663264400
I0926 22:37:52.379487  2459 layer_factory.hpp:77] Creating layer Eltwise14
I0926 22:37:52.379492  2459 net.cpp:84] Creating Layer Eltwise14
I0926 22:37:52.379494  2459 net.cpp:406] Eltwise14 <- Eltwise13_penlu27_0_split_1
I0926 22:37:52.379498  2459 net.cpp:406] Eltwise14 <- Convolution30
I0926 22:37:52.379503  2459 net.cpp:380] Eltwise14 -> Eltwise14
I0926 22:37:52.379520  2459 net.cpp:122] Setting up Eltwise14
I0926 22:37:52.379524  2459 net.cpp:129] Top shape: 100 32 14 14 (627200)
I0926 22:37:52.379528  2459 net.cpp:137] Memory required for data: 665773200
I0926 22:37:52.379529  2459 layer_factory.hpp:77] Creating layer penlu29
I0926 22:37:52.379534  2459 net.cpp:84] Creating Layer penlu29
I0926 22:37:52.379536  2459 net.cpp:406] penlu29 <- Eltwise14
I0926 22:37:52.379540  2459 net.cpp:367] penlu29 -> Eltwise14 (in-place)
I0926 22:37:52.379653  2459 net.cpp:122] Setting up penlu29
I0926 22:37:52.379658  2459 net.cpp:129] Top shape: 100 32 14 14 (627200)
I0926 22:37:52.379660  2459 net.cpp:137] Memory required for data: 668282000
I0926 22:37:52.379664  2459 layer_factory.hpp:77] Creating layer Eltwise14_penlu29_0_split
I0926 22:37:52.379668  2459 net.cpp:84] Creating Layer Eltwise14_penlu29_0_split
I0926 22:37:52.379670  2459 net.cpp:406] Eltwise14_penlu29_0_split <- Eltwise14
I0926 22:37:52.379673  2459 net.cpp:380] Eltwise14_penlu29_0_split -> Eltwise14_penlu29_0_split_0
I0926 22:37:52.379678  2459 net.cpp:380] Eltwise14_penlu29_0_split -> Eltwise14_penlu29_0_split_1
I0926 22:37:52.379703  2459 net.cpp:122] Setting up Eltwise14_penlu29_0_split
I0926 22:37:52.379706  2459 net.cpp:129] Top shape: 100 32 14 14 (627200)
I0926 22:37:52.379709  2459 net.cpp:129] Top shape: 100 32 14 14 (627200)
I0926 22:37:52.379711  2459 net.cpp:137] Memory required for data: 673299600
I0926 22:37:52.379714  2459 layer_factory.hpp:77] Creating layer Convolution31
I0926 22:37:52.379720  2459 net.cpp:84] Creating Layer Convolution31
I0926 22:37:52.379722  2459 net.cpp:406] Convolution31 <- Eltwise14_penlu29_0_split_0
I0926 22:37:52.379726  2459 net.cpp:380] Convolution31 -> Convolution31
I0926 22:37:52.380879  2459 net.cpp:122] Setting up Convolution31
I0926 22:37:52.380887  2459 net.cpp:129] Top shape: 100 32 14 14 (627200)
I0926 22:37:52.380890  2459 net.cpp:137] Memory required for data: 675808400
I0926 22:37:52.380894  2459 layer_factory.hpp:77] Creating layer BatchNorm31
I0926 22:37:52.380899  2459 net.cpp:84] Creating Layer BatchNorm31
I0926 22:37:52.380901  2459 net.cpp:406] BatchNorm31 <- Convolution31
I0926 22:37:52.380906  2459 net.cpp:367] BatchNorm31 -> Convolution31 (in-place)
I0926 22:37:52.381044  2459 net.cpp:122] Setting up BatchNorm31
I0926 22:37:52.381048  2459 net.cpp:129] Top shape: 100 32 14 14 (627200)
I0926 22:37:52.381050  2459 net.cpp:137] Memory required for data: 678317200
I0926 22:37:52.381055  2459 layer_factory.hpp:77] Creating layer Scale31
I0926 22:37:52.381059  2459 net.cpp:84] Creating Layer Scale31
I0926 22:37:52.381062  2459 net.cpp:406] Scale31 <- Convolution31
I0926 22:37:52.381065  2459 net.cpp:367] Scale31 -> Convolution31 (in-place)
I0926 22:37:52.381091  2459 layer_factory.hpp:77] Creating layer Scale31
I0926 22:37:52.381170  2459 net.cpp:122] Setting up Scale31
I0926 22:37:52.381175  2459 net.cpp:129] Top shape: 100 32 14 14 (627200)
I0926 22:37:52.381176  2459 net.cpp:137] Memory required for data: 680826000
I0926 22:37:52.381181  2459 layer_factory.hpp:77] Creating layer penlu30
I0926 22:37:52.381186  2459 net.cpp:84] Creating Layer penlu30
I0926 22:37:52.381188  2459 net.cpp:406] penlu30 <- Convolution31
I0926 22:37:52.381191  2459 net.cpp:367] penlu30 -> Convolution31 (in-place)
I0926 22:37:52.381299  2459 net.cpp:122] Setting up penlu30
I0926 22:37:52.381304  2459 net.cpp:129] Top shape: 100 32 14 14 (627200)
I0926 22:37:52.381314  2459 net.cpp:137] Memory required for data: 683334800
I0926 22:37:52.381319  2459 layer_factory.hpp:77] Creating layer Convolution32
I0926 22:37:52.381325  2459 net.cpp:84] Creating Layer Convolution32
I0926 22:37:52.381327  2459 net.cpp:406] Convolution32 <- Convolution31
I0926 22:37:52.381332  2459 net.cpp:380] Convolution32 -> Convolution32
I0926 22:37:52.382391  2459 net.cpp:122] Setting up Convolution32
I0926 22:37:52.382400  2459 net.cpp:129] Top shape: 100 32 14 14 (627200)
I0926 22:37:52.382403  2459 net.cpp:137] Memory required for data: 685843600
I0926 22:37:52.382408  2459 layer_factory.hpp:77] Creating layer BatchNorm32
I0926 22:37:52.382412  2459 net.cpp:84] Creating Layer BatchNorm32
I0926 22:37:52.382416  2459 net.cpp:406] BatchNorm32 <- Convolution32
I0926 22:37:52.382419  2459 net.cpp:367] BatchNorm32 -> Convolution32 (in-place)
I0926 22:37:52.382556  2459 net.cpp:122] Setting up BatchNorm32
I0926 22:37:52.382560  2459 net.cpp:129] Top shape: 100 32 14 14 (627200)
I0926 22:37:52.382562  2459 net.cpp:137] Memory required for data: 688352400
I0926 22:37:52.382567  2459 layer_factory.hpp:77] Creating layer Scale32
I0926 22:37:52.382571  2459 net.cpp:84] Creating Layer Scale32
I0926 22:37:52.382573  2459 net.cpp:406] Scale32 <- Convolution32
I0926 22:37:52.382576  2459 net.cpp:367] Scale32 -> Convolution32 (in-place)
I0926 22:37:52.382603  2459 layer_factory.hpp:77] Creating layer Scale32
I0926 22:37:52.382683  2459 net.cpp:122] Setting up Scale32
I0926 22:37:52.382688  2459 net.cpp:129] Top shape: 100 32 14 14 (627200)
I0926 22:37:52.382689  2459 net.cpp:137] Memory required for data: 690861200
I0926 22:37:52.382694  2459 layer_factory.hpp:77] Creating layer Eltwise15
I0926 22:37:52.382697  2459 net.cpp:84] Creating Layer Eltwise15
I0926 22:37:52.382699  2459 net.cpp:406] Eltwise15 <- Eltwise14_penlu29_0_split_1
I0926 22:37:52.382702  2459 net.cpp:406] Eltwise15 <- Convolution32
I0926 22:37:52.382706  2459 net.cpp:380] Eltwise15 -> Eltwise15
I0926 22:37:52.382724  2459 net.cpp:122] Setting up Eltwise15
I0926 22:37:52.382727  2459 net.cpp:129] Top shape: 100 32 14 14 (627200)
I0926 22:37:52.382730  2459 net.cpp:137] Memory required for data: 693370000
I0926 22:37:52.382731  2459 layer_factory.hpp:77] Creating layer penlu31
I0926 22:37:52.382737  2459 net.cpp:84] Creating Layer penlu31
I0926 22:37:52.382740  2459 net.cpp:406] penlu31 <- Eltwise15
I0926 22:37:52.382743  2459 net.cpp:367] penlu31 -> Eltwise15 (in-place)
I0926 22:37:52.382853  2459 net.cpp:122] Setting up penlu31
I0926 22:37:52.382858  2459 net.cpp:129] Top shape: 100 32 14 14 (627200)
I0926 22:37:52.382870  2459 net.cpp:137] Memory required for data: 695878800
I0926 22:37:52.382874  2459 layer_factory.hpp:77] Creating layer Eltwise15_penlu31_0_split
I0926 22:37:52.382879  2459 net.cpp:84] Creating Layer Eltwise15_penlu31_0_split
I0926 22:37:52.382880  2459 net.cpp:406] Eltwise15_penlu31_0_split <- Eltwise15
I0926 22:37:52.382884  2459 net.cpp:380] Eltwise15_penlu31_0_split -> Eltwise15_penlu31_0_split_0
I0926 22:37:52.382889  2459 net.cpp:380] Eltwise15_penlu31_0_split -> Eltwise15_penlu31_0_split_1
I0926 22:37:52.382920  2459 net.cpp:122] Setting up Eltwise15_penlu31_0_split
I0926 22:37:52.382925  2459 net.cpp:129] Top shape: 100 32 14 14 (627200)
I0926 22:37:52.382927  2459 net.cpp:129] Top shape: 100 32 14 14 (627200)
I0926 22:37:52.382930  2459 net.cpp:137] Memory required for data: 700896400
I0926 22:37:52.382931  2459 layer_factory.hpp:77] Creating layer Convolution33
I0926 22:37:52.382936  2459 net.cpp:84] Creating Layer Convolution33
I0926 22:37:52.382939  2459 net.cpp:406] Convolution33 <- Eltwise15_penlu31_0_split_0
I0926 22:37:52.382943  2459 net.cpp:380] Convolution33 -> Convolution33
I0926 22:37:52.384317  2459 net.cpp:122] Setting up Convolution33
I0926 22:37:52.384326  2459 net.cpp:129] Top shape: 100 32 14 14 (627200)
I0926 22:37:52.384328  2459 net.cpp:137] Memory required for data: 703405200
I0926 22:37:52.384333  2459 layer_factory.hpp:77] Creating layer BatchNorm33
I0926 22:37:52.384346  2459 net.cpp:84] Creating Layer BatchNorm33
I0926 22:37:52.384348  2459 net.cpp:406] BatchNorm33 <- Convolution33
I0926 22:37:52.384352  2459 net.cpp:367] BatchNorm33 -> Convolution33 (in-place)
I0926 22:37:52.384493  2459 net.cpp:122] Setting up BatchNorm33
I0926 22:37:52.384498  2459 net.cpp:129] Top shape: 100 32 14 14 (627200)
I0926 22:37:52.384500  2459 net.cpp:137] Memory required for data: 705914000
I0926 22:37:52.384505  2459 layer_factory.hpp:77] Creating layer Scale33
I0926 22:37:52.384510  2459 net.cpp:84] Creating Layer Scale33
I0926 22:37:52.384512  2459 net.cpp:406] Scale33 <- Convolution33
I0926 22:37:52.384516  2459 net.cpp:367] Scale33 -> Convolution33 (in-place)
I0926 22:37:52.384543  2459 layer_factory.hpp:77] Creating layer Scale33
I0926 22:37:52.384624  2459 net.cpp:122] Setting up Scale33
I0926 22:37:52.384627  2459 net.cpp:129] Top shape: 100 32 14 14 (627200)
I0926 22:37:52.384629  2459 net.cpp:137] Memory required for data: 708422800
I0926 22:37:52.384634  2459 layer_factory.hpp:77] Creating layer penlu32
I0926 22:37:52.384639  2459 net.cpp:84] Creating Layer penlu32
I0926 22:37:52.384641  2459 net.cpp:406] penlu32 <- Convolution33
I0926 22:37:52.384645  2459 net.cpp:367] penlu32 -> Convolution33 (in-place)
I0926 22:37:52.384754  2459 net.cpp:122] Setting up penlu32
I0926 22:37:52.384758  2459 net.cpp:129] Top shape: 100 32 14 14 (627200)
I0926 22:37:52.384760  2459 net.cpp:137] Memory required for data: 710931600
I0926 22:37:52.384764  2459 layer_factory.hpp:77] Creating layer Convolution34
I0926 22:37:52.384771  2459 net.cpp:84] Creating Layer Convolution34
I0926 22:37:52.384773  2459 net.cpp:406] Convolution34 <- Convolution33
I0926 22:37:52.384778  2459 net.cpp:380] Convolution34 -> Convolution34
I0926 22:37:52.385826  2459 net.cpp:122] Setting up Convolution34
I0926 22:37:52.385835  2459 net.cpp:129] Top shape: 100 32 14 14 (627200)
I0926 22:37:52.385838  2459 net.cpp:137] Memory required for data: 713440400
I0926 22:37:52.385843  2459 layer_factory.hpp:77] Creating layer BatchNorm34
I0926 22:37:52.385848  2459 net.cpp:84] Creating Layer BatchNorm34
I0926 22:37:52.385850  2459 net.cpp:406] BatchNorm34 <- Convolution34
I0926 22:37:52.385854  2459 net.cpp:367] BatchNorm34 -> Convolution34 (in-place)
I0926 22:37:52.386029  2459 net.cpp:122] Setting up BatchNorm34
I0926 22:37:52.386039  2459 net.cpp:129] Top shape: 100 32 14 14 (627200)
I0926 22:37:52.386042  2459 net.cpp:137] Memory required for data: 715949200
I0926 22:37:52.386050  2459 layer_factory.hpp:77] Creating layer Scale34
I0926 22:37:52.386057  2459 net.cpp:84] Creating Layer Scale34
I0926 22:37:52.386062  2459 net.cpp:406] Scale34 <- Convolution34
I0926 22:37:52.386067  2459 net.cpp:367] Scale34 -> Convolution34 (in-place)
I0926 22:37:52.386112  2459 layer_factory.hpp:77] Creating layer Scale34
I0926 22:37:52.386232  2459 net.cpp:122] Setting up Scale34
I0926 22:37:52.386240  2459 net.cpp:129] Top shape: 100 32 14 14 (627200)
I0926 22:37:52.386242  2459 net.cpp:137] Memory required for data: 718458000
I0926 22:37:52.386246  2459 layer_factory.hpp:77] Creating layer Eltwise16
I0926 22:37:52.386251  2459 net.cpp:84] Creating Layer Eltwise16
I0926 22:37:52.386255  2459 net.cpp:406] Eltwise16 <- Eltwise15_penlu31_0_split_1
I0926 22:37:52.386258  2459 net.cpp:406] Eltwise16 <- Convolution34
I0926 22:37:52.386261  2459 net.cpp:380] Eltwise16 -> Eltwise16
I0926 22:37:52.386279  2459 net.cpp:122] Setting up Eltwise16
I0926 22:37:52.386283  2459 net.cpp:129] Top shape: 100 32 14 14 (627200)
I0926 22:37:52.386286  2459 net.cpp:137] Memory required for data: 720966800
I0926 22:37:52.386287  2459 layer_factory.hpp:77] Creating layer penlu33
I0926 22:37:52.386292  2459 net.cpp:84] Creating Layer penlu33
I0926 22:37:52.386296  2459 net.cpp:406] penlu33 <- Eltwise16
I0926 22:37:52.386298  2459 net.cpp:367] penlu33 -> Eltwise16 (in-place)
I0926 22:37:52.386407  2459 net.cpp:122] Setting up penlu33
I0926 22:37:52.386412  2459 net.cpp:129] Top shape: 100 32 14 14 (627200)
I0926 22:37:52.386415  2459 net.cpp:137] Memory required for data: 723475600
I0926 22:37:52.386425  2459 layer_factory.hpp:77] Creating layer Eltwise16_penlu33_0_split
I0926 22:37:52.386428  2459 net.cpp:84] Creating Layer Eltwise16_penlu33_0_split
I0926 22:37:52.386430  2459 net.cpp:406] Eltwise16_penlu33_0_split <- Eltwise16
I0926 22:37:52.386435  2459 net.cpp:380] Eltwise16_penlu33_0_split -> Eltwise16_penlu33_0_split_0
I0926 22:37:52.386438  2459 net.cpp:380] Eltwise16_penlu33_0_split -> Eltwise16_penlu33_0_split_1
I0926 22:37:52.386463  2459 net.cpp:122] Setting up Eltwise16_penlu33_0_split
I0926 22:37:52.386467  2459 net.cpp:129] Top shape: 100 32 14 14 (627200)
I0926 22:37:52.386471  2459 net.cpp:129] Top shape: 100 32 14 14 (627200)
I0926 22:37:52.386472  2459 net.cpp:137] Memory required for data: 728493200
I0926 22:37:52.386474  2459 layer_factory.hpp:77] Creating layer Convolution35
I0926 22:37:52.386481  2459 net.cpp:84] Creating Layer Convolution35
I0926 22:37:52.386483  2459 net.cpp:406] Convolution35 <- Eltwise16_penlu33_0_split_0
I0926 22:37:52.386487  2459 net.cpp:380] Convolution35 -> Convolution35
I0926 22:37:52.387536  2459 net.cpp:122] Setting up Convolution35
I0926 22:37:52.387543  2459 net.cpp:129] Top shape: 100 32 14 14 (627200)
I0926 22:37:52.387547  2459 net.cpp:137] Memory required for data: 731002000
I0926 22:37:52.387552  2459 layer_factory.hpp:77] Creating layer BatchNorm35
I0926 22:37:52.387557  2459 net.cpp:84] Creating Layer BatchNorm35
I0926 22:37:52.387559  2459 net.cpp:406] BatchNorm35 <- Convolution35
I0926 22:37:52.387562  2459 net.cpp:367] BatchNorm35 -> Convolution35 (in-place)
I0926 22:37:52.387699  2459 net.cpp:122] Setting up BatchNorm35
I0926 22:37:52.387704  2459 net.cpp:129] Top shape: 100 32 14 14 (627200)
I0926 22:37:52.387706  2459 net.cpp:137] Memory required for data: 733510800
I0926 22:37:52.387712  2459 layer_factory.hpp:77] Creating layer Scale35
I0926 22:37:52.387717  2459 net.cpp:84] Creating Layer Scale35
I0926 22:37:52.387719  2459 net.cpp:406] Scale35 <- Convolution35
I0926 22:37:52.387722  2459 net.cpp:367] Scale35 -> Convolution35 (in-place)
I0926 22:37:52.387750  2459 layer_factory.hpp:77] Creating layer Scale35
I0926 22:37:52.387830  2459 net.cpp:122] Setting up Scale35
I0926 22:37:52.387833  2459 net.cpp:129] Top shape: 100 32 14 14 (627200)
I0926 22:37:52.387835  2459 net.cpp:137] Memory required for data: 736019600
I0926 22:37:52.387840  2459 layer_factory.hpp:77] Creating layer penlu34
I0926 22:37:52.387845  2459 net.cpp:84] Creating Layer penlu34
I0926 22:37:52.387847  2459 net.cpp:406] penlu34 <- Convolution35
I0926 22:37:52.387851  2459 net.cpp:367] penlu34 -> Convolution35 (in-place)
I0926 22:37:52.387959  2459 net.cpp:122] Setting up penlu34
I0926 22:37:52.387964  2459 net.cpp:129] Top shape: 100 32 14 14 (627200)
I0926 22:37:52.387965  2459 net.cpp:137] Memory required for data: 738528400
I0926 22:37:52.387970  2459 layer_factory.hpp:77] Creating layer Convolution36
I0926 22:37:52.387976  2459 net.cpp:84] Creating Layer Convolution36
I0926 22:37:52.387979  2459 net.cpp:406] Convolution36 <- Convolution35
I0926 22:37:52.387982  2459 net.cpp:380] Convolution36 -> Convolution36
I0926 22:37:52.389096  2459 net.cpp:122] Setting up Convolution36
I0926 22:37:52.389104  2459 net.cpp:129] Top shape: 100 32 14 14 (627200)
I0926 22:37:52.389107  2459 net.cpp:137] Memory required for data: 741037200
I0926 22:37:52.389111  2459 layer_factory.hpp:77] Creating layer BatchNorm36
I0926 22:37:52.389116  2459 net.cpp:84] Creating Layer BatchNorm36
I0926 22:37:52.389118  2459 net.cpp:406] BatchNorm36 <- Convolution36
I0926 22:37:52.389122  2459 net.cpp:367] BatchNorm36 -> Convolution36 (in-place)
I0926 22:37:52.389259  2459 net.cpp:122] Setting up BatchNorm36
I0926 22:37:52.389263  2459 net.cpp:129] Top shape: 100 32 14 14 (627200)
I0926 22:37:52.389266  2459 net.cpp:137] Memory required for data: 743546000
I0926 22:37:52.389271  2459 layer_factory.hpp:77] Creating layer Scale36
I0926 22:37:52.389274  2459 net.cpp:84] Creating Layer Scale36
I0926 22:37:52.389276  2459 net.cpp:406] Scale36 <- Convolution36
I0926 22:37:52.389281  2459 net.cpp:367] Scale36 -> Convolution36 (in-place)
I0926 22:37:52.389315  2459 layer_factory.hpp:77] Creating layer Scale36
I0926 22:37:52.389395  2459 net.cpp:122] Setting up Scale36
I0926 22:37:52.389400  2459 net.cpp:129] Top shape: 100 32 14 14 (627200)
I0926 22:37:52.389401  2459 net.cpp:137] Memory required for data: 746054800
I0926 22:37:52.389405  2459 layer_factory.hpp:77] Creating layer Eltwise17
I0926 22:37:52.389410  2459 net.cpp:84] Creating Layer Eltwise17
I0926 22:37:52.389411  2459 net.cpp:406] Eltwise17 <- Eltwise16_penlu33_0_split_1
I0926 22:37:52.389415  2459 net.cpp:406] Eltwise17 <- Convolution36
I0926 22:37:52.389418  2459 net.cpp:380] Eltwise17 -> Eltwise17
I0926 22:37:52.389436  2459 net.cpp:122] Setting up Eltwise17
I0926 22:37:52.389439  2459 net.cpp:129] Top shape: 100 32 14 14 (627200)
I0926 22:37:52.389441  2459 net.cpp:137] Memory required for data: 748563600
I0926 22:37:52.389443  2459 layer_factory.hpp:77] Creating layer penlu35
I0926 22:37:52.389448  2459 net.cpp:84] Creating Layer penlu35
I0926 22:37:52.389451  2459 net.cpp:406] penlu35 <- Eltwise17
I0926 22:37:52.389454  2459 net.cpp:367] penlu35 -> Eltwise17 (in-place)
I0926 22:37:52.389565  2459 net.cpp:122] Setting up penlu35
I0926 22:37:52.389570  2459 net.cpp:129] Top shape: 100 32 14 14 (627200)
I0926 22:37:52.389572  2459 net.cpp:137] Memory required for data: 751072400
I0926 22:37:52.389576  2459 layer_factory.hpp:77] Creating layer Eltwise17_penlu35_0_split
I0926 22:37:52.389580  2459 net.cpp:84] Creating Layer Eltwise17_penlu35_0_split
I0926 22:37:52.389582  2459 net.cpp:406] Eltwise17_penlu35_0_split <- Eltwise17
I0926 22:37:52.389585  2459 net.cpp:380] Eltwise17_penlu35_0_split -> Eltwise17_penlu35_0_split_0
I0926 22:37:52.389590  2459 net.cpp:380] Eltwise17_penlu35_0_split -> Eltwise17_penlu35_0_split_1
I0926 22:37:52.389613  2459 net.cpp:122] Setting up Eltwise17_penlu35_0_split
I0926 22:37:52.389617  2459 net.cpp:129] Top shape: 100 32 14 14 (627200)
I0926 22:37:52.389621  2459 net.cpp:129] Top shape: 100 32 14 14 (627200)
I0926 22:37:52.389622  2459 net.cpp:137] Memory required for data: 756090000
I0926 22:37:52.389624  2459 layer_factory.hpp:77] Creating layer Convolution37
I0926 22:37:52.389631  2459 net.cpp:84] Creating Layer Convolution37
I0926 22:37:52.389633  2459 net.cpp:406] Convolution37 <- Eltwise17_penlu35_0_split_0
I0926 22:37:52.389636  2459 net.cpp:380] Convolution37 -> Convolution37
I0926 22:37:52.390372  2459 net.cpp:122] Setting up Convolution37
I0926 22:37:52.390379  2459 net.cpp:129] Top shape: 100 32 14 14 (627200)
I0926 22:37:52.390383  2459 net.cpp:137] Memory required for data: 758598800
I0926 22:37:52.390386  2459 layer_factory.hpp:77] Creating layer BatchNorm37
I0926 22:37:52.390391  2459 net.cpp:84] Creating Layer BatchNorm37
I0926 22:37:52.390394  2459 net.cpp:406] BatchNorm37 <- Convolution37
I0926 22:37:52.390398  2459 net.cpp:367] BatchNorm37 -> Convolution37 (in-place)
I0926 22:37:52.390535  2459 net.cpp:122] Setting up BatchNorm37
I0926 22:37:52.390539  2459 net.cpp:129] Top shape: 100 32 14 14 (627200)
I0926 22:37:52.390542  2459 net.cpp:137] Memory required for data: 761107600
I0926 22:37:52.390547  2459 layer_factory.hpp:77] Creating layer Scale37
I0926 22:37:52.390550  2459 net.cpp:84] Creating Layer Scale37
I0926 22:37:52.390553  2459 net.cpp:406] Scale37 <- Convolution37
I0926 22:37:52.390557  2459 net.cpp:367] Scale37 -> Convolution37 (in-place)
I0926 22:37:52.390583  2459 layer_factory.hpp:77] Creating layer Scale37
I0926 22:37:52.390661  2459 net.cpp:122] Setting up Scale37
I0926 22:37:52.390664  2459 net.cpp:129] Top shape: 100 32 14 14 (627200)
I0926 22:37:52.390666  2459 net.cpp:137] Memory required for data: 763616400
I0926 22:37:52.390671  2459 layer_factory.hpp:77] Creating layer penlu36
I0926 22:37:52.390676  2459 net.cpp:84] Creating Layer penlu36
I0926 22:37:52.390677  2459 net.cpp:406] penlu36 <- Convolution37
I0926 22:37:52.390681  2459 net.cpp:367] penlu36 -> Convolution37 (in-place)
I0926 22:37:52.390799  2459 net.cpp:122] Setting up penlu36
I0926 22:37:52.390803  2459 net.cpp:129] Top shape: 100 32 14 14 (627200)
I0926 22:37:52.390812  2459 net.cpp:137] Memory required for data: 766125200
I0926 22:37:52.390825  2459 layer_factory.hpp:77] Creating layer Convolution38
I0926 22:37:52.390833  2459 net.cpp:84] Creating Layer Convolution38
I0926 22:37:52.390836  2459 net.cpp:406] Convolution38 <- Convolution37
I0926 22:37:52.390841  2459 net.cpp:380] Convolution38 -> Convolution38
I0926 22:37:52.391893  2459 net.cpp:122] Setting up Convolution38
I0926 22:37:52.391902  2459 net.cpp:129] Top shape: 100 32 14 14 (627200)
I0926 22:37:52.391904  2459 net.cpp:137] Memory required for data: 768634000
I0926 22:37:52.391909  2459 layer_factory.hpp:77] Creating layer BatchNorm38
I0926 22:37:52.391914  2459 net.cpp:84] Creating Layer BatchNorm38
I0926 22:37:52.391916  2459 net.cpp:406] BatchNorm38 <- Convolution38
I0926 22:37:52.391921  2459 net.cpp:367] BatchNorm38 -> Convolution38 (in-place)
I0926 22:37:52.392062  2459 net.cpp:122] Setting up BatchNorm38
I0926 22:37:52.392066  2459 net.cpp:129] Top shape: 100 32 14 14 (627200)
I0926 22:37:52.392068  2459 net.cpp:137] Memory required for data: 771142800
I0926 22:37:52.392073  2459 layer_factory.hpp:77] Creating layer Scale38
I0926 22:37:52.392078  2459 net.cpp:84] Creating Layer Scale38
I0926 22:37:52.392081  2459 net.cpp:406] Scale38 <- Convolution38
I0926 22:37:52.392083  2459 net.cpp:367] Scale38 -> Convolution38 (in-place)
I0926 22:37:52.392112  2459 layer_factory.hpp:77] Creating layer Scale38
I0926 22:37:52.392191  2459 net.cpp:122] Setting up Scale38
I0926 22:37:52.392195  2459 net.cpp:129] Top shape: 100 32 14 14 (627200)
I0926 22:37:52.392197  2459 net.cpp:137] Memory required for data: 773651600
I0926 22:37:52.392201  2459 layer_factory.hpp:77] Creating layer Eltwise18
I0926 22:37:52.392222  2459 net.cpp:84] Creating Layer Eltwise18
I0926 22:37:52.392228  2459 net.cpp:406] Eltwise18 <- Eltwise17_penlu35_0_split_1
I0926 22:37:52.392231  2459 net.cpp:406] Eltwise18 <- Convolution38
I0926 22:37:52.392235  2459 net.cpp:380] Eltwise18 -> Eltwise18
I0926 22:37:52.392263  2459 net.cpp:122] Setting up Eltwise18
I0926 22:37:52.392267  2459 net.cpp:129] Top shape: 100 32 14 14 (627200)
I0926 22:37:52.392269  2459 net.cpp:137] Memory required for data: 776160400
I0926 22:37:52.392271  2459 layer_factory.hpp:77] Creating layer penlu37
I0926 22:37:52.392277  2459 net.cpp:84] Creating Layer penlu37
I0926 22:37:52.392280  2459 net.cpp:406] penlu37 <- Eltwise18
I0926 22:37:52.392283  2459 net.cpp:367] penlu37 -> Eltwise18 (in-place)
I0926 22:37:52.392393  2459 net.cpp:122] Setting up penlu37
I0926 22:37:52.392398  2459 net.cpp:129] Top shape: 100 32 14 14 (627200)
I0926 22:37:52.392400  2459 net.cpp:137] Memory required for data: 778669200
I0926 22:37:52.392405  2459 layer_factory.hpp:77] Creating layer Eltwise18_penlu37_0_split
I0926 22:37:52.392408  2459 net.cpp:84] Creating Layer Eltwise18_penlu37_0_split
I0926 22:37:52.392410  2459 net.cpp:406] Eltwise18_penlu37_0_split <- Eltwise18
I0926 22:37:52.392413  2459 net.cpp:380] Eltwise18_penlu37_0_split -> Eltwise18_penlu37_0_split_0
I0926 22:37:52.392417  2459 net.cpp:380] Eltwise18_penlu37_0_split -> Eltwise18_penlu37_0_split_1
I0926 22:37:52.392441  2459 net.cpp:122] Setting up Eltwise18_penlu37_0_split
I0926 22:37:52.392444  2459 net.cpp:129] Top shape: 100 32 14 14 (627200)
I0926 22:37:52.392447  2459 net.cpp:129] Top shape: 100 32 14 14 (627200)
I0926 22:37:52.392449  2459 net.cpp:137] Memory required for data: 783686800
I0926 22:37:52.392452  2459 layer_factory.hpp:77] Creating layer Convolution39
I0926 22:37:52.392457  2459 net.cpp:84] Creating Layer Convolution39
I0926 22:37:52.392460  2459 net.cpp:406] Convolution39 <- Eltwise18_penlu37_0_split_0
I0926 22:37:52.392463  2459 net.cpp:380] Convolution39 -> Convolution39
I0926 22:37:52.393354  2459 net.cpp:122] Setting up Convolution39
I0926 22:37:52.393362  2459 net.cpp:129] Top shape: 100 64 7 7 (313600)
I0926 22:37:52.393365  2459 net.cpp:137] Memory required for data: 784941200
I0926 22:37:52.393369  2459 layer_factory.hpp:77] Creating layer BatchNorm39
I0926 22:37:52.393381  2459 net.cpp:84] Creating Layer BatchNorm39
I0926 22:37:52.393384  2459 net.cpp:406] BatchNorm39 <- Convolution39
I0926 22:37:52.393389  2459 net.cpp:367] BatchNorm39 -> Convolution39 (in-place)
I0926 22:37:52.393525  2459 net.cpp:122] Setting up BatchNorm39
I0926 22:37:52.393530  2459 net.cpp:129] Top shape: 100 64 7 7 (313600)
I0926 22:37:52.393532  2459 net.cpp:137] Memory required for data: 786195600
I0926 22:37:52.393537  2459 layer_factory.hpp:77] Creating layer Scale39
I0926 22:37:52.393541  2459 net.cpp:84] Creating Layer Scale39
I0926 22:37:52.393544  2459 net.cpp:406] Scale39 <- Convolution39
I0926 22:37:52.393548  2459 net.cpp:367] Scale39 -> Convolution39 (in-place)
I0926 22:37:52.393574  2459 layer_factory.hpp:77] Creating layer Scale39
I0926 22:37:52.393652  2459 net.cpp:122] Setting up Scale39
I0926 22:37:52.393657  2459 net.cpp:129] Top shape: 100 64 7 7 (313600)
I0926 22:37:52.393659  2459 net.cpp:137] Memory required for data: 787450000
I0926 22:37:52.393662  2459 layer_factory.hpp:77] Creating layer Convolution40
I0926 22:37:52.393669  2459 net.cpp:84] Creating Layer Convolution40
I0926 22:37:52.393672  2459 net.cpp:406] Convolution40 <- Eltwise18_penlu37_0_split_1
I0926 22:37:52.393676  2459 net.cpp:380] Convolution40 -> Convolution40
I0926 22:37:52.395424  2459 net.cpp:122] Setting up Convolution40
I0926 22:37:52.395433  2459 net.cpp:129] Top shape: 100 64 7 7 (313600)
I0926 22:37:52.395436  2459 net.cpp:137] Memory required for data: 788704400
I0926 22:37:52.395440  2459 layer_factory.hpp:77] Creating layer BatchNorm40
I0926 22:37:52.395447  2459 net.cpp:84] Creating Layer BatchNorm40
I0926 22:37:52.395448  2459 net.cpp:406] BatchNorm40 <- Convolution40
I0926 22:37:52.395453  2459 net.cpp:367] BatchNorm40 -> Convolution40 (in-place)
I0926 22:37:52.395591  2459 net.cpp:122] Setting up BatchNorm40
I0926 22:37:52.395596  2459 net.cpp:129] Top shape: 100 64 7 7 (313600)
I0926 22:37:52.395597  2459 net.cpp:137] Memory required for data: 789958800
I0926 22:37:52.395602  2459 layer_factory.hpp:77] Creating layer Scale40
I0926 22:37:52.395607  2459 net.cpp:84] Creating Layer Scale40
I0926 22:37:52.395609  2459 net.cpp:406] Scale40 <- Convolution40
I0926 22:37:52.395613  2459 net.cpp:367] Scale40 -> Convolution40 (in-place)
I0926 22:37:52.395642  2459 layer_factory.hpp:77] Creating layer Scale40
I0926 22:37:52.395720  2459 net.cpp:122] Setting up Scale40
I0926 22:37:52.395723  2459 net.cpp:129] Top shape: 100 64 7 7 (313600)
I0926 22:37:52.395725  2459 net.cpp:137] Memory required for data: 791213200
I0926 22:37:52.395730  2459 layer_factory.hpp:77] Creating layer penlu38
I0926 22:37:52.395735  2459 net.cpp:84] Creating Layer penlu38
I0926 22:37:52.395737  2459 net.cpp:406] penlu38 <- Convolution40
I0926 22:37:52.395742  2459 net.cpp:367] penlu38 -> Convolution40 (in-place)
I0926 22:37:52.395850  2459 net.cpp:122] Setting up penlu38
I0926 22:37:52.395854  2459 net.cpp:129] Top shape: 100 64 7 7 (313600)
I0926 22:37:52.395856  2459 net.cpp:137] Memory required for data: 792467600
I0926 22:37:52.395861  2459 layer_factory.hpp:77] Creating layer Convolution41
I0926 22:37:52.395867  2459 net.cpp:84] Creating Layer Convolution41
I0926 22:37:52.395870  2459 net.cpp:406] Convolution41 <- Convolution40
I0926 22:37:52.395874  2459 net.cpp:380] Convolution41 -> Convolution41
I0926 22:37:52.397905  2459 net.cpp:122] Setting up Convolution41
I0926 22:37:52.397913  2459 net.cpp:129] Top shape: 100 64 7 7 (313600)
I0926 22:37:52.397917  2459 net.cpp:137] Memory required for data: 793722000
I0926 22:37:52.397922  2459 layer_factory.hpp:77] Creating layer BatchNorm41
I0926 22:37:52.397927  2459 net.cpp:84] Creating Layer BatchNorm41
I0926 22:37:52.397929  2459 net.cpp:406] BatchNorm41 <- Convolution41
I0926 22:37:52.397933  2459 net.cpp:367] BatchNorm41 -> Convolution41 (in-place)
I0926 22:37:52.398074  2459 net.cpp:122] Setting up BatchNorm41
I0926 22:37:52.398079  2459 net.cpp:129] Top shape: 100 64 7 7 (313600)
I0926 22:37:52.398082  2459 net.cpp:137] Memory required for data: 794976400
I0926 22:37:52.398092  2459 layer_factory.hpp:77] Creating layer Scale41
I0926 22:37:52.398097  2459 net.cpp:84] Creating Layer Scale41
I0926 22:37:52.398099  2459 net.cpp:406] Scale41 <- Convolution41
I0926 22:37:52.398103  2459 net.cpp:367] Scale41 -> Convolution41 (in-place)
I0926 22:37:52.398133  2459 layer_factory.hpp:77] Creating layer Scale41
I0926 22:37:52.398214  2459 net.cpp:122] Setting up Scale41
I0926 22:37:52.398219  2459 net.cpp:129] Top shape: 100 64 7 7 (313600)
I0926 22:37:52.398221  2459 net.cpp:137] Memory required for data: 796230800
I0926 22:37:52.398226  2459 layer_factory.hpp:77] Creating layer Eltwise19
I0926 22:37:52.398229  2459 net.cpp:84] Creating Layer Eltwise19
I0926 22:37:52.398232  2459 net.cpp:406] Eltwise19 <- Convolution39
I0926 22:37:52.398236  2459 net.cpp:406] Eltwise19 <- Convolution41
I0926 22:37:52.398238  2459 net.cpp:380] Eltwise19 -> Eltwise19
I0926 22:37:52.398257  2459 net.cpp:122] Setting up Eltwise19
I0926 22:37:52.398260  2459 net.cpp:129] Top shape: 100 64 7 7 (313600)
I0926 22:37:52.398262  2459 net.cpp:137] Memory required for data: 797485200
I0926 22:37:52.398264  2459 layer_factory.hpp:77] Creating layer penlu39
I0926 22:37:52.398269  2459 net.cpp:84] Creating Layer penlu39
I0926 22:37:52.398272  2459 net.cpp:406] penlu39 <- Eltwise19
I0926 22:37:52.398275  2459 net.cpp:367] penlu39 -> Eltwise19 (in-place)
I0926 22:37:52.398387  2459 net.cpp:122] Setting up penlu39
I0926 22:37:52.398392  2459 net.cpp:129] Top shape: 100 64 7 7 (313600)
I0926 22:37:52.398394  2459 net.cpp:137] Memory required for data: 798739600
I0926 22:37:52.398398  2459 layer_factory.hpp:77] Creating layer Eltwise19_penlu39_0_split
I0926 22:37:52.398403  2459 net.cpp:84] Creating Layer Eltwise19_penlu39_0_split
I0926 22:37:52.398406  2459 net.cpp:406] Eltwise19_penlu39_0_split <- Eltwise19
I0926 22:37:52.398408  2459 net.cpp:380] Eltwise19_penlu39_0_split -> Eltwise19_penlu39_0_split_0
I0926 22:37:52.398413  2459 net.cpp:380] Eltwise19_penlu39_0_split -> Eltwise19_penlu39_0_split_1
I0926 22:37:52.398437  2459 net.cpp:122] Setting up Eltwise19_penlu39_0_split
I0926 22:37:52.398440  2459 net.cpp:129] Top shape: 100 64 7 7 (313600)
I0926 22:37:52.398443  2459 net.cpp:129] Top shape: 100 64 7 7 (313600)
I0926 22:37:52.398445  2459 net.cpp:137] Memory required for data: 801248400
I0926 22:37:52.398447  2459 layer_factory.hpp:77] Creating layer Convolution42
I0926 22:37:52.398453  2459 net.cpp:84] Creating Layer Convolution42
I0926 22:37:52.398455  2459 net.cpp:406] Convolution42 <- Eltwise19_penlu39_0_split_0
I0926 22:37:52.398460  2459 net.cpp:380] Convolution42 -> Convolution42
I0926 22:37:52.400342  2459 net.cpp:122] Setting up Convolution42
I0926 22:37:52.400354  2459 net.cpp:129] Top shape: 100 64 7 7 (313600)
I0926 22:37:52.400358  2459 net.cpp:137] Memory required for data: 802502800
I0926 22:37:52.400365  2459 layer_factory.hpp:77] Creating layer BatchNorm42
I0926 22:37:52.400372  2459 net.cpp:84] Creating Layer BatchNorm42
I0926 22:37:52.400377  2459 net.cpp:406] BatchNorm42 <- Convolution42
I0926 22:37:52.400382  2459 net.cpp:367] BatchNorm42 -> Convolution42 (in-place)
I0926 22:37:52.400585  2459 net.cpp:122] Setting up BatchNorm42
I0926 22:37:52.400593  2459 net.cpp:129] Top shape: 100 64 7 7 (313600)
I0926 22:37:52.400598  2459 net.cpp:137] Memory required for data: 803757200
I0926 22:37:52.400605  2459 layer_factory.hpp:77] Creating layer Scale42
I0926 22:37:52.400611  2459 net.cpp:84] Creating Layer Scale42
I0926 22:37:52.400615  2459 net.cpp:406] Scale42 <- Convolution42
I0926 22:37:52.400620  2459 net.cpp:367] Scale42 -> Convolution42 (in-place)
I0926 22:37:52.400662  2459 layer_factory.hpp:77] Creating layer Scale42
I0926 22:37:52.400779  2459 net.cpp:122] Setting up Scale42
I0926 22:37:52.400785  2459 net.cpp:129] Top shape: 100 64 7 7 (313600)
I0926 22:37:52.400789  2459 net.cpp:137] Memory required for data: 805011600
I0926 22:37:52.400795  2459 layer_factory.hpp:77] Creating layer penlu40
I0926 22:37:52.400804  2459 net.cpp:84] Creating Layer penlu40
I0926 22:37:52.400807  2459 net.cpp:406] penlu40 <- Convolution42
I0926 22:37:52.400822  2459 net.cpp:367] penlu40 -> Convolution42 (in-place)
I0926 22:37:52.400990  2459 net.cpp:122] Setting up penlu40
I0926 22:37:52.400996  2459 net.cpp:129] Top shape: 100 64 7 7 (313600)
I0926 22:37:52.401000  2459 net.cpp:137] Memory required for data: 806266000
I0926 22:37:52.401008  2459 layer_factory.hpp:77] Creating layer Convolution43
I0926 22:37:52.401020  2459 net.cpp:84] Creating Layer Convolution43
I0926 22:37:52.401023  2459 net.cpp:406] Convolution43 <- Convolution42
I0926 22:37:52.401031  2459 net.cpp:380] Convolution43 -> Convolution43
I0926 22:37:52.404084  2459 net.cpp:122] Setting up Convolution43
I0926 22:37:52.404096  2459 net.cpp:129] Top shape: 100 64 7 7 (313600)
I0926 22:37:52.404098  2459 net.cpp:137] Memory required for data: 807520400
I0926 22:37:52.404104  2459 layer_factory.hpp:77] Creating layer BatchNorm43
I0926 22:37:52.404109  2459 net.cpp:84] Creating Layer BatchNorm43
I0926 22:37:52.404112  2459 net.cpp:406] BatchNorm43 <- Convolution43
I0926 22:37:52.404116  2459 net.cpp:367] BatchNorm43 -> Convolution43 (in-place)
I0926 22:37:52.404284  2459 net.cpp:122] Setting up BatchNorm43
I0926 22:37:52.404289  2459 net.cpp:129] Top shape: 100 64 7 7 (313600)
I0926 22:37:52.404292  2459 net.cpp:137] Memory required for data: 808774800
I0926 22:37:52.404297  2459 layer_factory.hpp:77] Creating layer Scale43
I0926 22:37:52.404301  2459 net.cpp:84] Creating Layer Scale43
I0926 22:37:52.404304  2459 net.cpp:406] Scale43 <- Convolution43
I0926 22:37:52.404307  2459 net.cpp:367] Scale43 -> Convolution43 (in-place)
I0926 22:37:52.404337  2459 layer_factory.hpp:77] Creating layer Scale43
I0926 22:37:52.404431  2459 net.cpp:122] Setting up Scale43
I0926 22:37:52.404436  2459 net.cpp:129] Top shape: 100 64 7 7 (313600)
I0926 22:37:52.404438  2459 net.cpp:137] Memory required for data: 810029200
I0926 22:37:52.404443  2459 layer_factory.hpp:77] Creating layer Eltwise20
I0926 22:37:52.404446  2459 net.cpp:84] Creating Layer Eltwise20
I0926 22:37:52.404449  2459 net.cpp:406] Eltwise20 <- Eltwise19_penlu39_0_split_1
I0926 22:37:52.404453  2459 net.cpp:406] Eltwise20 <- Convolution43
I0926 22:37:52.404455  2459 net.cpp:380] Eltwise20 -> Eltwise20
I0926 22:37:52.404474  2459 net.cpp:122] Setting up Eltwise20
I0926 22:37:52.404479  2459 net.cpp:129] Top shape: 100 64 7 7 (313600)
I0926 22:37:52.404480  2459 net.cpp:137] Memory required for data: 811283600
I0926 22:37:52.404482  2459 layer_factory.hpp:77] Creating layer penlu41
I0926 22:37:52.404487  2459 net.cpp:84] Creating Layer penlu41
I0926 22:37:52.404490  2459 net.cpp:406] penlu41 <- Eltwise20
I0926 22:37:52.404495  2459 net.cpp:367] penlu41 -> Eltwise20 (in-place)
I0926 22:37:52.404614  2459 net.cpp:122] Setting up penlu41
I0926 22:37:52.404619  2459 net.cpp:129] Top shape: 100 64 7 7 (313600)
I0926 22:37:52.404631  2459 net.cpp:137] Memory required for data: 812538000
I0926 22:37:52.404636  2459 layer_factory.hpp:77] Creating layer Eltwise20_penlu41_0_split
I0926 22:37:52.404640  2459 net.cpp:84] Creating Layer Eltwise20_penlu41_0_split
I0926 22:37:52.404642  2459 net.cpp:406] Eltwise20_penlu41_0_split <- Eltwise20
I0926 22:37:52.404645  2459 net.cpp:380] Eltwise20_penlu41_0_split -> Eltwise20_penlu41_0_split_0
I0926 22:37:52.404659  2459 net.cpp:380] Eltwise20_penlu41_0_split -> Eltwise20_penlu41_0_split_1
I0926 22:37:52.404685  2459 net.cpp:122] Setting up Eltwise20_penlu41_0_split
I0926 22:37:52.404690  2459 net.cpp:129] Top shape: 100 64 7 7 (313600)
I0926 22:37:52.404692  2459 net.cpp:129] Top shape: 100 64 7 7 (313600)
I0926 22:37:52.404695  2459 net.cpp:137] Memory required for data: 815046800
I0926 22:37:52.404697  2459 layer_factory.hpp:77] Creating layer Convolution44
I0926 22:37:52.404703  2459 net.cpp:84] Creating Layer Convolution44
I0926 22:37:52.404706  2459 net.cpp:406] Convolution44 <- Eltwise20_penlu41_0_split_0
I0926 22:37:52.404711  2459 net.cpp:380] Convolution44 -> Convolution44
I0926 22:37:52.406560  2459 net.cpp:122] Setting up Convolution44
I0926 22:37:52.406570  2459 net.cpp:129] Top shape: 100 64 7 7 (313600)
I0926 22:37:52.406582  2459 net.cpp:137] Memory required for data: 816301200
I0926 22:37:52.406591  2459 layer_factory.hpp:77] Creating layer BatchNorm44
I0926 22:37:52.406599  2459 net.cpp:84] Creating Layer BatchNorm44
I0926 22:37:52.406602  2459 net.cpp:406] BatchNorm44 <- Convolution44
I0926 22:37:52.406610  2459 net.cpp:367] BatchNorm44 -> Convolution44 (in-place)
I0926 22:37:52.406827  2459 net.cpp:122] Setting up BatchNorm44
I0926 22:37:52.406837  2459 net.cpp:129] Top shape: 100 64 7 7 (313600)
I0926 22:37:52.406842  2459 net.cpp:137] Memory required for data: 817555600
I0926 22:37:52.406850  2459 layer_factory.hpp:77] Creating layer Scale44
I0926 22:37:52.406857  2459 net.cpp:84] Creating Layer Scale44
I0926 22:37:52.406862  2459 net.cpp:406] Scale44 <- Convolution44
I0926 22:37:52.406867  2459 net.cpp:367] Scale44 -> Convolution44 (in-place)
I0926 22:37:52.406919  2459 layer_factory.hpp:77] Creating layer Scale44
I0926 22:37:52.407030  2459 net.cpp:122] Setting up Scale44
I0926 22:37:52.407039  2459 net.cpp:129] Top shape: 100 64 7 7 (313600)
I0926 22:37:52.407043  2459 net.cpp:137] Memory required for data: 818810000
I0926 22:37:52.407050  2459 layer_factory.hpp:77] Creating layer penlu42
I0926 22:37:52.407058  2459 net.cpp:84] Creating Layer penlu42
I0926 22:37:52.407063  2459 net.cpp:406] penlu42 <- Convolution44
I0926 22:37:52.407070  2459 net.cpp:367] penlu42 -> Convolution44 (in-place)
I0926 22:37:52.407232  2459 net.cpp:122] Setting up penlu42
I0926 22:37:52.407240  2459 net.cpp:129] Top shape: 100 64 7 7 (313600)
I0926 22:37:52.407243  2459 net.cpp:137] Memory required for data: 820064400
I0926 22:37:52.407248  2459 layer_factory.hpp:77] Creating layer Convolution45
I0926 22:37:52.407254  2459 net.cpp:84] Creating Layer Convolution45
I0926 22:37:52.407258  2459 net.cpp:406] Convolution45 <- Convolution44
I0926 22:37:52.407265  2459 net.cpp:380] Convolution45 -> Convolution45
I0926 22:37:52.409780  2459 net.cpp:122] Setting up Convolution45
I0926 22:37:52.409791  2459 net.cpp:129] Top shape: 100 64 7 7 (313600)
I0926 22:37:52.409796  2459 net.cpp:137] Memory required for data: 821318800
I0926 22:37:52.409806  2459 layer_factory.hpp:77] Creating layer BatchNorm45
I0926 22:37:52.409814  2459 net.cpp:84] Creating Layer BatchNorm45
I0926 22:37:52.409818  2459 net.cpp:406] BatchNorm45 <- Convolution45
I0926 22:37:52.409826  2459 net.cpp:367] BatchNorm45 -> Convolution45 (in-place)
I0926 22:37:52.410037  2459 net.cpp:122] Setting up BatchNorm45
I0926 22:37:52.410046  2459 net.cpp:129] Top shape: 100 64 7 7 (313600)
I0926 22:37:52.410048  2459 net.cpp:137] Memory required for data: 822573200
I0926 22:37:52.410054  2459 layer_factory.hpp:77] Creating layer Scale45
I0926 22:37:52.410058  2459 net.cpp:84] Creating Layer Scale45
I0926 22:37:52.410061  2459 net.cpp:406] Scale45 <- Convolution45
I0926 22:37:52.410065  2459 net.cpp:367] Scale45 -> Convolution45 (in-place)
I0926 22:37:52.410096  2459 layer_factory.hpp:77] Creating layer Scale45
I0926 22:37:52.410179  2459 net.cpp:122] Setting up Scale45
I0926 22:37:52.410184  2459 net.cpp:129] Top shape: 100 64 7 7 (313600)
I0926 22:37:52.410187  2459 net.cpp:137] Memory required for data: 823827600
I0926 22:37:52.410190  2459 layer_factory.hpp:77] Creating layer Eltwise21
I0926 22:37:52.410194  2459 net.cpp:84] Creating Layer Eltwise21
I0926 22:37:52.410197  2459 net.cpp:406] Eltwise21 <- Eltwise20_penlu41_0_split_1
I0926 22:37:52.410200  2459 net.cpp:406] Eltwise21 <- Convolution45
I0926 22:37:52.410204  2459 net.cpp:380] Eltwise21 -> Eltwise21
I0926 22:37:52.410221  2459 net.cpp:122] Setting up Eltwise21
…
I0926 22:37:52.771744  2459 net.cpp:137] Memory required for data: 1030145200
I0926 22:37:52.771747  2459 layer_factory.hpp:77] Creating layer BatchNorm40
I0926 22:37:52.771754  2459 net.cpp:84] Creating Layer BatchNorm40
I0926 22:37:52.771756  2459 net.cpp:406] BatchNorm40 <- Convolution40
I0926 22:37:52.771759  2459 net.cpp:367] BatchNorm40 -> Convolution40 (in-place)
I0926 22:37:52.771899  2459 net.cpp:122] Setting up BatchNorm40
I0926 22:37:52.771904  2459 net.cpp:129] Top shape: 100 64 8 8 (409600)
I0926 22:37:52.771906  2459 net.cpp:137] Memory required for data: 1031783600
I0926 22:37:52.771911  2459 layer_factory.hpp:77] Creating layer Scale40
I0926 22:37:52.771916  2459 net.cpp:84] Creating Layer Scale40
I0926 22:37:52.771919  2459 net.cpp:406] Scale40 <- Convolution40
I0926 22:37:52.771922  2459 net.cpp:367] Scale40 -> Convolution40 (in-place)
I0926 22:37:52.771950  2459 layer_factory.hpp:77] Creating layer Scale40
I0926 22:37:52.772028  2459 net.cpp:122] Setting up Scale40
I0926 22:37:52.772032  2459 net.cpp:129] Top shape: 100 64 8 8 (409600)
I0926 22:37:52.772034  2459 net.cpp:137] Memory required for data: 1033422000
I0926 22:37:52.772038  2459 layer_factory.hpp:77] Creating layer penlu38
I0926 22:37:52.772043  2459 net.cpp:84] Creating Layer penlu38
I0926 22:37:52.772047  2459 net.cpp:406] penlu38 <- Convolution40
I0926 22:37:52.772050  2459 net.cpp:367] penlu38 -> Convolution40 (in-place)
I0926 22:37:52.772168  2459 net.cpp:122] Setting up penlu38
I0926 22:37:52.772173  2459 net.cpp:129] Top shape: 100 64 8 8 (409600)
I0926 22:37:52.772176  2459 net.cpp:137] Memory required for data: 1035060400
I0926 22:37:52.772179  2459 layer_factory.hpp:77] Creating layer Convolution41
I0926 22:37:52.772186  2459 net.cpp:84] Creating Layer Convolution41
I0926 22:37:52.772189  2459 net.cpp:406] Convolution41 <- Convolution40
I0926 22:37:52.772193  2459 net.cpp:380] Convolution41 -> Convolution41
I0926 22:37:52.773965  2459 net.cpp:122] Setting up Convolution41
I0926 22:37:52.773974  2459 net.cpp:129] Top shape: 100 64 8 8 (409600)
I0926 22:37:52.773977  2459 net.cpp:137] Memory required for data: 1036698800
I0926 22:37:52.773982  2459 layer_factory.hpp:77] Creating layer BatchNorm41
I0926 22:37:52.773988  2459 net.cpp:84] Creating Layer BatchNorm41
I0926 22:37:52.773990  2459 net.cpp:406] BatchNorm41 <- Convolution41
I0926 22:37:52.774000  2459 net.cpp:367] BatchNorm41 -> Convolution41 (in-place)
I0926 22:37:52.774139  2459 net.cpp:122] Setting up BatchNorm41
I0926 22:37:52.774143  2459 net.cpp:129] Top shape: 100 64 8 8 (409600)
I0926 22:37:52.774147  2459 net.cpp:137] Memory required for data: 1038337200
I0926 22:37:52.774150  2459 layer_factory.hpp:77] Creating layer Scale41
I0926 22:37:52.774155  2459 net.cpp:84] Creating Layer Scale41
I0926 22:37:52.774158  2459 net.cpp:406] Scale41 <- Convolution41
I0926 22:37:52.774161  2459 net.cpp:367] Scale41 -> Convolution41 (in-place)
I0926 22:37:52.774189  2459 layer_factory.hpp:77] Creating layer Scale41
I0926 22:37:52.774269  2459 net.cpp:122] Setting up Scale41
I0926 22:37:52.774273  2459 net.cpp:129] Top shape: 100 64 8 8 (409600)
I0926 22:37:52.774276  2459 net.cpp:137] Memory required for data: 1039975600
I0926 22:37:52.774279  2459 layer_factory.hpp:77] Creating layer Eltwise19
I0926 22:37:52.774283  2459 net.cpp:84] Creating Layer Eltwise19
I0926 22:37:52.774286  2459 net.cpp:406] Eltwise19 <- Convolution39
I0926 22:37:52.774289  2459 net.cpp:406] Eltwise19 <- Convolution41
I0926 22:37:52.774292  2459 net.cpp:380] Eltwise19 -> Eltwise19
I0926 22:37:52.774309  2459 net.cpp:122] Setting up Eltwise19
I0926 22:37:52.774313  2459 net.cpp:129] Top shape: 100 64 8 8 (409600)
I0926 22:37:52.774315  2459 net.cpp:137] Memory required for data: 1041614000
I0926 22:37:52.774317  2459 layer_factory.hpp:77] Creating layer penlu39
I0926 22:37:52.774322  2459 net.cpp:84] Creating Layer penlu39
I0926 22:37:52.774325  2459 net.cpp:406] penlu39 <- Eltwise19
I0926 22:37:52.774328  2459 net.cpp:367] penlu39 -> Eltwise19 (in-place)
I0926 22:37:52.774446  2459 net.cpp:122] Setting up penlu39
I0926 22:37:52.774451  2459 net.cpp:129] Top shape: 100 64 8 8 (409600)
I0926 22:37:52.774452  2459 net.cpp:137] Memory required for data: 1043252400
I0926 22:37:52.774457  2459 layer_factory.hpp:77] Creating layer Eltwise19_penlu39_0_split
I0926 22:37:52.774461  2459 net.cpp:84] Creating Layer Eltwise19_penlu39_0_split
I0926 22:37:52.774463  2459 net.cpp:406] Eltwise19_penlu39_0_split <- Eltwise19
I0926 22:37:52.774466  2459 net.cpp:380] Eltwise19_penlu39_0_split -> Eltwise19_penlu39_0_split_0
I0926 22:37:52.774471  2459 net.cpp:380] Eltwise19_penlu39_0_split -> Eltwise19_penlu39_0_split_1
I0926 22:37:52.774495  2459 net.cpp:122] Setting up Eltwise19_penlu39_0_split
I0926 22:37:52.774499  2459 net.cpp:129] Top shape: 100 64 8 8 (409600)
I0926 22:37:52.774502  2459 net.cpp:129] Top shape: 100 64 8 8 (409600)
I0926 22:37:52.774503  2459 net.cpp:137] Memory required for data: 1046529200
I0926 22:37:52.774505  2459 layer_factory.hpp:77] Creating layer Convolution42
I0926 22:37:52.774513  2459 net.cpp:84] Creating Layer Convolution42
I0926 22:37:52.774514  2459 net.cpp:406] Convolution42 <- Eltwise19_penlu39_0_split_0
I0926 22:37:52.774518  2459 net.cpp:380] Convolution42 -> Convolution42
I0926 22:37:52.776233  2459 net.cpp:122] Setting up Convolution42
I0926 22:37:52.776252  2459 net.cpp:129] Top shape: 100 64 8 8 (409600)
I0926 22:37:52.776254  2459 net.cpp:137] Memory required for data: 1048167600
I0926 22:37:52.776268  2459 layer_factory.hpp:77] Creating layer BatchNorm42
I0926 22:37:52.776275  2459 net.cpp:84] Creating Layer BatchNorm42
I0926 22:37:52.776278  2459 net.cpp:406] BatchNorm42 <- Convolution42
I0926 22:37:52.776291  2459 net.cpp:367] BatchNorm42 -> Convolution42 (in-place)
I0926 22:37:52.776428  2459 net.cpp:122] Setting up BatchNorm42
I0926 22:37:52.776433  2459 net.cpp:129] Top shape: 100 64 8 8 (409600)
I0926 22:37:52.776435  2459 net.cpp:137] Memory required for data: 1049806000
I0926 22:37:52.776439  2459 layer_factory.hpp:77] Creating layer Scale42
I0926 22:37:52.776444  2459 net.cpp:84] Creating Layer Scale42
I0926 22:37:52.776446  2459 net.cpp:406] Scale42 <- Convolution42
I0926 22:37:52.776450  2459 net.cpp:367] Scale42 -> Convolution42 (in-place)
I0926 22:37:52.776477  2459 layer_factory.hpp:77] Creating layer Scale42
I0926 22:37:52.776556  2459 net.cpp:122] Setting up Scale42
I0926 22:37:52.776567  2459 net.cpp:129] Top shape: 100 64 8 8 (409600)
I0926 22:37:52.776569  2459 net.cpp:137] Memory required for data: 1051444400
I0926 22:37:52.776573  2459 layer_factory.hpp:77] Creating layer penlu40
I0926 22:37:52.776579  2459 net.cpp:84] Creating Layer penlu40
I0926 22:37:52.776582  2459 net.cpp:406] penlu40 <- Convolution42
I0926 22:37:52.776587  2459 net.cpp:367] penlu40 -> Convolution42 (in-place)
I0926 22:37:52.776703  2459 net.cpp:122] Setting up penlu40
I0926 22:37:52.776708  2459 net.cpp:129] Top shape: 100 64 8 8 (409600)
I0926 22:37:52.776710  2459 net.cpp:137] Memory required for data: 1053082800
I0926 22:37:52.776715  2459 layer_factory.hpp:77] Creating layer Convolution43
I0926 22:37:52.776721  2459 net.cpp:84] Creating Layer Convolution43
I0926 22:37:52.776722  2459 net.cpp:406] Convolution43 <- Convolution42
I0926 22:37:52.776727  2459 net.cpp:380] Convolution43 -> Convolution43
I0926 22:37:52.778419  2459 net.cpp:122] Setting up Convolution43
I0926 22:37:52.778427  2459 net.cpp:129] Top shape: 100 64 8 8 (409600)
I0926 22:37:52.778430  2459 net.cpp:137] Memory required for data: 1054721200
I0926 22:37:52.778434  2459 layer_factory.hpp:77] Creating layer BatchNorm43
I0926 22:37:52.778439  2459 net.cpp:84] Creating Layer BatchNorm43
I0926 22:37:52.778441  2459 net.cpp:406] BatchNorm43 <- Convolution43
I0926 22:37:52.778445  2459 net.cpp:367] BatchNorm43 -> Convolution43 (in-place)
I0926 22:37:52.778581  2459 net.cpp:122] Setting up BatchNorm43
I0926 22:37:52.778586  2459 net.cpp:129] Top shape: 100 64 8 8 (409600)
I0926 22:37:52.778589  2459 net.cpp:137] Memory required for data: 1056359600
I0926 22:37:52.778594  2459 layer_factory.hpp:77] Creating layer Scale43
I0926 22:37:52.778597  2459 net.cpp:84] Creating Layer Scale43
I0926 22:37:52.778599  2459 net.cpp:406] Scale43 <- Convolution43
I0926 22:37:52.778602  2459 net.cpp:367] Scale43 -> Convolution43 (in-place)
I0926 22:37:52.778630  2459 layer_factory.hpp:77] Creating layer Scale43
I0926 22:37:52.778709  2459 net.cpp:122] Setting up Scale43
I0926 22:37:52.778714  2459 net.cpp:129] Top shape: 100 64 8 8 (409600)
I0926 22:37:52.778717  2459 net.cpp:137] Memory required for data: 1057998000
I0926 22:37:52.778720  2459 layer_factory.hpp:77] Creating layer Eltwise20
I0926 22:37:52.778723  2459 net.cpp:84] Creating Layer Eltwise20
I0926 22:37:52.778726  2459 net.cpp:406] Eltwise20 <- Eltwise19_penlu39_0_split_1
I0926 22:37:52.778729  2459 net.cpp:406] Eltwise20 <- Convolution43
I0926 22:37:52.778733  2459 net.cpp:380] Eltwise20 -> Eltwise20
I0926 22:37:52.778749  2459 net.cpp:122] Setting up Eltwise20
I0926 22:37:52.778753  2459 net.cpp:129] Top shape: 100 64 8 8 (409600)
I0926 22:37:52.778755  2459 net.cpp:137] Memory required for data: 1059636400
I0926 22:37:52.778758  2459 layer_factory.hpp:77] Creating layer penlu41
I0926 22:37:52.778762  2459 net.cpp:84] Creating Layer penlu41
I0926 22:37:52.778765  2459 net.cpp:406] penlu41 <- Eltwise20
I0926 22:37:52.778769  2459 net.cpp:367] penlu41 -> Eltwise20 (in-place)
I0926 22:37:52.778883  2459 net.cpp:122] Setting up penlu41
I0926 22:37:52.778888  2459 net.cpp:129] Top shape: 100 64 8 8 (409600)
I0926 22:37:52.778890  2459 net.cpp:137] Memory required for data: 1061274800
I0926 22:37:52.778894  2459 layer_factory.hpp:77] Creating layer Eltwise20_penlu41_0_split
I0926 22:37:52.778898  2459 net.cpp:84] Creating Layer Eltwise20_penlu41_0_split
I0926 22:37:52.778900  2459 net.cpp:406] Eltwise20_penlu41_0_split <- Eltwise20
I0926 22:37:52.778903  2459 net.cpp:380] Eltwise20_penlu41_0_split -> Eltwise20_penlu41_0_split_0
I0926 22:37:52.778908  2459 net.cpp:380] Eltwise20_penlu41_0_split -> Eltwise20_penlu41_0_split_1
I0926 22:37:52.778931  2459 net.cpp:122] Setting up Eltwise20_penlu41_0_split
I0926 22:37:52.778935  2459 net.cpp:129] Top shape: 100 64 8 8 (409600)
I0926 22:37:52.778939  2459 net.cpp:129] Top shape: 100 64 8 8 (409600)
I0926 22:37:52.778940  2459 net.cpp:137] Memory required for data: 1064551600
I0926 22:37:52.778942  2459 layer_factory.hpp:77] Creating layer Convolution44
I0926 22:37:52.778955  2459 net.cpp:84] Creating Layer Convolution44
I0926 22:37:52.778959  2459 net.cpp:406] Convolution44 <- Eltwise20_penlu41_0_split_0
I0926 22:37:52.778962  2459 net.cpp:380] Convolution44 -> Convolution44
I0926 22:37:52.781028  2459 net.cpp:122] Setting up Convolution44
I0926 22:37:52.781038  2459 net.cpp:129] Top shape: 100 64 8 8 (409600)
I0926 22:37:52.781040  2459 net.cpp:137] Memory required for data: 1066190000
I0926 22:37:52.781045  2459 layer_factory.hpp:77] Creating layer BatchNorm44
I0926 22:37:52.781050  2459 net.cpp:84] Creating Layer BatchNorm44
I0926 22:37:52.781054  2459 net.cpp:406] BatchNorm44 <- Convolution44
I0926 22:37:52.781059  2459 net.cpp:367] BatchNorm44 -> Convolution44 (in-place)
I0926 22:37:52.781203  2459 net.cpp:122] Setting up BatchNorm44
I0926 22:37:52.781208  2459 net.cpp:129] Top shape: 100 64 8 8 (409600)
I0926 22:37:52.781209  2459 net.cpp:137] Memory required for data: 1067828400
I0926 22:37:52.781214  2459 layer_factory.hpp:77] Creating layer Scale44
I0926 22:37:52.781219  2459 net.cpp:84] Creating Layer Scale44
I0926 22:37:52.781222  2459 net.cpp:406] Scale44 <- Convolution44
I0926 22:37:52.781225  2459 net.cpp:367] Scale44 -> Convolution44 (in-place)
I0926 22:37:52.781255  2459 layer_factory.hpp:77] Creating layer Scale44
I0926 22:37:52.781335  2459 net.cpp:122] Setting up Scale44
I0926 22:37:52.781339  2459 net.cpp:129] Top shape: 100 64 8 8 (409600)
I0926 22:37:52.781342  2459 net.cpp:137] Memory required for data: 1069466800
I0926 22:37:52.781345  2459 layer_factory.hpp:77] Creating layer penlu42
I0926 22:37:52.781350  2459 net.cpp:84] Creating Layer penlu42
I0926 22:37:52.781353  2459 net.cpp:406] penlu42 <- Convolution44
I0926 22:37:52.781357  2459 net.cpp:367] penlu42 -> Convolution44 (in-place)
I0926 22:37:52.781481  2459 net.cpp:122] Setting up penlu42
I0926 22:37:52.781486  2459 net.cpp:129] Top shape: 100 64 8 8 (409600)
I0926 22:37:52.781487  2459 net.cpp:137] Memory required for data: 1071105200
I0926 22:37:52.781492  2459 layer_factory.hpp:77] Creating layer Convolution45
I0926 22:37:52.781499  2459 net.cpp:84] Creating Layer Convolution45
I0926 22:37:52.781502  2459 net.cpp:406] Convolution45 <- Convolution44
I0926 22:37:52.781505  2459 net.cpp:380] Convolution45 -> Convolution45
I0926 22:37:52.783216  2459 net.cpp:122] Setting up Convolution45
I0926 22:37:52.783224  2459 net.cpp:129] Top shape: 100 64 8 8 (409600)
I0926 22:37:52.783227  2459 net.cpp:137] Memory required for data: 1072743600
I0926 22:37:52.783231  2459 layer_factory.hpp:77] Creating layer BatchNorm45
I0926 22:37:52.783237  2459 net.cpp:84] Creating Layer BatchNorm45
I0926 22:37:52.783241  2459 net.cpp:406] BatchNorm45 <- Convolution45
I0926 22:37:52.783243  2459 net.cpp:367] BatchNorm45 -> Convolution45 (in-place)
I0926 22:37:52.783381  2459 net.cpp:122] Setting up BatchNorm45
I0926 22:37:52.783386  2459 net.cpp:129] Top shape: 100 64 8 8 (409600)
I0926 22:37:52.783388  2459 net.cpp:137] Memory required for data: 1074382000
I0926 22:37:52.783392  2459 layer_factory.hpp:77] Creating layer Scale45
I0926 22:37:52.783397  2459 net.cpp:84] Creating Layer Scale45
I0926 22:37:52.796816  2459 net.cpp:406] Scale45 <- Convolution45
I0926 22:37:52.796828  2459 net.cpp:367] Scale45 -> Convolution45 (in-place)
I0926 22:37:52.796875  2459 layer_factory.hpp:77] Creating layer Scale45
I0926 22:37:52.796970  2459 net.cpp:122] Setting up Scale45
I0926 22:37:52.796975  2459 net.cpp:129] Top shape: 100 64 8 8 (409600)
I0926 22:37:52.796977  2459 net.cpp:137] Memory required for data: 1076020400
I0926 22:37:52.796983  2459 layer_factory.hpp:77] Creating layer Eltwise21
I0926 22:37:52.796988  2459 net.cpp:84] Creating Layer Eltwise21
I0926 22:37:52.796991  2459 net.cpp:406] Eltwise21 <- Eltwise20_penlu41_0_split_1
I0926 22:37:52.796994  2459 net.cpp:406] Eltwise21 <- Convolution45
I0926 22:37:52.796998  2459 net.cpp:380] Eltwise21 -> Eltwise21
I0926 22:37:52.797019  2459 net.cpp:122] Setting up Eltwise21
I0926 22:37:52.797022  2459 net.cpp:129] Top shape: 100 64 8 8 (409600)
I0926 22:37:52.797024  2459 net.cpp:137] Memory required for data: 1077658800
I0926 22:37:52.797034  2459 layer_factory.hpp:77] Creating layer penlu43
I0926 22:37:52.797041  2459 net.cpp:84] Creating Layer penlu43
I0926 22:37:52.797044  2459 net.cpp:406] penlu43 <- Eltwise21
I0926 22:37:52.797049  2459 net.cpp:367] penlu43 -> Eltwise21 (in-place)
I0926 22:37:52.797178  2459 net.cpp:122] Setting up penlu43
I0926 22:37:52.797184  2459 net.cpp:129] Top shape: 100 64 8 8 (409600)
I0926 22:37:52.797186  2459 net.cpp:137] Memory required for data: 1079297200
I0926 22:37:52.797191  2459 layer_factory.hpp:77] Creating layer Eltwise21_penlu43_0_split
I0926 22:37:52.797195  2459 net.cpp:84] Creating Layer Eltwise21_penlu43_0_split
I0926 22:37:52.797199  2459 net.cpp:406] Eltwise21_penlu43_0_split <- Eltwise21
I0926 22:37:52.797201  2459 net.cpp:380] Eltwise21_penlu43_0_split -> Eltwise21_penlu43_0_split_0
I0926 22:37:52.797206  2459 net.cpp:380] Eltwise21_penlu43_0_split -> Eltwise21_penlu43_0_split_1
I0926 22:37:52.797235  2459 net.cpp:122] Setting up Eltwise21_penlu43_0_split
I0926 22:37:52.797238  2459 net.cpp:129] Top shape: 100 64 8 8 (409600)
I0926 22:37:52.797241  2459 net.cpp:129] Top shape: 100 64 8 8 (409600)
I0926 22:37:52.797243  2459 net.cpp:137] Memory required for data: 1082574000
I0926 22:37:52.797246  2459 layer_factory.hpp:77] Creating layer Convolution46
I0926 22:37:52.797253  2459 net.cpp:84] Creating Layer Convolution46
I0926 22:37:52.797256  2459 net.cpp:406] Convolution46 <- Eltwise21_penlu43_0_split_0
I0926 22:37:52.797260  2459 net.cpp:380] Convolution46 -> Convolution46
I0926 22:37:52.799249  2459 net.cpp:122] Setting up Convolution46
I0926 22:37:52.799258  2459 net.cpp:129] Top shape: 100 64 8 8 (409600)
I0926 22:37:52.799270  2459 net.cpp:137] Memory required for data: 1084212400
I0926 22:37:52.799275  2459 layer_factory.hpp:77] Creating layer BatchNorm46
I0926 22:37:52.799281  2459 net.cpp:84] Creating Layer BatchNorm46
I0926 22:37:52.799284  2459 net.cpp:406] BatchNorm46 <- Convolution46
I0926 22:37:52.799288  2459 net.cpp:367] BatchNorm46 -> Convolution46 (in-place)
I0926 22:37:52.799434  2459 net.cpp:122] Setting up BatchNorm46
I0926 22:37:52.799439  2459 net.cpp:129] Top shape: 100 64 8 8 (409600)
I0926 22:37:52.799441  2459 net.cpp:137] Memory required for data: 1085850800
I0926 22:37:52.799446  2459 layer_factory.hpp:77] Creating layer Scale46
I0926 22:37:52.799451  2459 net.cpp:84] Creating Layer Scale46
I0926 22:37:52.799454  2459 net.cpp:406] Scale46 <- Convolution46
I0926 22:37:52.799458  2459 net.cpp:367] Scale46 -> Convolution46 (in-place)
I0926 22:37:52.799489  2459 layer_factory.hpp:77] Creating layer Scale46
I0926 22:37:52.799571  2459 net.cpp:122] Setting up Scale46
I0926 22:37:52.799574  2459 net.cpp:129] Top shape: 100 64 8 8 (409600)
I0926 22:37:52.799576  2459 net.cpp:137] Memory required for data: 1087489200
I0926 22:37:52.799581  2459 layer_factory.hpp:77] Creating layer penlu44
I0926 22:37:52.799587  2459 net.cpp:84] Creating Layer penlu44
I0926 22:37:52.799589  2459 net.cpp:406] penlu44 <- Convolution46
I0926 22:37:52.799593  2459 net.cpp:367] penlu44 -> Convolution46 (in-place)
I0926 22:37:52.799712  2459 net.cpp:122] Setting up penlu44
I0926 22:37:52.799716  2459 net.cpp:129] Top shape: 100 64 8 8 (409600)
I0926 22:37:52.799718  2459 net.cpp:137] Memory required for data: 1089127600
I0926 22:37:52.799723  2459 layer_factory.hpp:77] Creating layer Convolution47
I0926 22:37:52.799729  2459 net.cpp:84] Creating Layer Convolution47
I0926 22:37:52.799732  2459 net.cpp:406] Convolution47 <- Convolution46
I0926 22:37:52.799736  2459 net.cpp:380] Convolution47 -> Convolution47
I0926 22:37:52.801537  2459 net.cpp:122] Setting up Convolution47
I0926 22:37:52.801545  2459 net.cpp:129] Top shape: 100 64 8 8 (409600)
I0926 22:37:52.801548  2459 net.cpp:137] Memory required for data: 1090766000
I0926 22:37:52.801553  2459 layer_factory.hpp:77] Creating layer BatchNorm47
I0926 22:37:52.801558  2459 net.cpp:84] Creating Layer BatchNorm47
I0926 22:37:52.801561  2459 net.cpp:406] BatchNorm47 <- Convolution47
I0926 22:37:52.801565  2459 net.cpp:367] BatchNorm47 -> Convolution47 (in-place)
I0926 22:37:52.801714  2459 net.cpp:122] Setting up BatchNorm47
I0926 22:37:52.801720  2459 net.cpp:129] Top shape: 100 64 8 8 (409600)
I0926 22:37:52.801723  2459 net.cpp:137] Memory required for data: 1092404400
I0926 22:37:52.801728  2459 layer_factory.hpp:77] Creating layer Scale47
I0926 22:37:52.801731  2459 net.cpp:84] Creating Layer Scale47
I0926 22:37:52.801734  2459 net.cpp:406] Scale47 <- Convolution47
I0926 22:37:52.801738  2459 net.cpp:367] Scale47 -> Convolution47 (in-place)
I0926 22:37:52.801766  2459 layer_factory.hpp:77] Creating layer Scale47
I0926 22:37:52.801846  2459 net.cpp:122] Setting up Scale47
I0926 22:37:52.801849  2459 net.cpp:129] Top shape: 100 64 8 8 (409600)
I0926 22:37:52.801852  2459 net.cpp:137] Memory required for data: 1094042800
I0926 22:37:52.801856  2459 layer_factory.hpp:77] Creating layer Eltwise22
I0926 22:37:52.801862  2459 net.cpp:84] Creating Layer Eltwise22
I0926 22:37:52.801863  2459 net.cpp:406] Eltwise22 <- Eltwise21_penlu43_0_split_1
I0926 22:37:52.801867  2459 net.cpp:406] Eltwise22 <- Convolution47
I0926 22:37:52.801870  2459 net.cpp:380] Eltwise22 -> Eltwise22
I0926 22:37:52.801887  2459 net.cpp:122] Setting up Eltwise22
I0926 22:37:52.801892  2459 net.cpp:129] Top shape: 100 64 8 8 (409600)
I0926 22:37:52.801893  2459 net.cpp:137] Memory required for data: 1095681200
I0926 22:37:52.801895  2459 layer_factory.hpp:77] Creating layer penlu45
I0926 22:37:52.801901  2459 net.cpp:84] Creating Layer penlu45
I0926 22:37:52.801903  2459 net.cpp:406] penlu45 <- Eltwise22
I0926 22:37:52.801906  2459 net.cpp:367] penlu45 -> Eltwise22 (in-place)
I0926 22:37:52.802022  2459 net.cpp:122] Setting up penlu45
I0926 22:37:52.802027  2459 net.cpp:129] Top shape: 100 64 8 8 (409600)
I0926 22:37:52.802029  2459 net.cpp:137] Memory required for data: 1097319600
I0926 22:37:52.802033  2459 layer_factory.hpp:77] Creating layer Eltwise22_penlu45_0_split
I0926 22:37:52.802037  2459 net.cpp:84] Creating Layer Eltwise22_penlu45_0_split
I0926 22:37:52.802039  2459 net.cpp:406] Eltwise22_penlu45_0_split <- Eltwise22
I0926 22:37:52.802043  2459 net.cpp:380] Eltwise22_penlu45_0_split -> Eltwise22_penlu45_0_split_0
I0926 22:37:52.802047  2459 net.cpp:380] Eltwise22_penlu45_0_split -> Eltwise22_penlu45_0_split_1
I0926 22:37:52.802073  2459 net.cpp:122] Setting up Eltwise22_penlu45_0_split
I0926 22:37:52.802078  2459 net.cpp:129] Top shape: 100 64 8 8 (409600)
I0926 22:37:52.802080  2459 net.cpp:129] Top shape: 100 64 8 8 (409600)
I0926 22:37:52.802083  2459 net.cpp:137] Memory required for data: 1100596400
I0926 22:37:52.802084  2459 layer_factory.hpp:77] Creating layer Convolution48
I0926 22:37:52.802090  2459 net.cpp:84] Creating Layer Convolution48
I0926 22:37:52.802093  2459 net.cpp:406] Convolution48 <- Eltwise22_penlu45_0_split_0
I0926 22:37:52.802098  2459 net.cpp:380] Convolution48 -> Convolution48
I0926 22:37:52.804168  2459 net.cpp:122] Setting up Convolution48
I0926 22:37:52.804177  2459 net.cpp:129] Top shape: 100 64 8 8 (409600)
I0926 22:37:52.804180  2459 net.cpp:137] Memory required for data: 1102234800
I0926 22:37:52.804185  2459 layer_factory.hpp:77] Creating layer BatchNorm48
I0926 22:37:52.804190  2459 net.cpp:84] Creating Layer BatchNorm48
I0926 22:37:52.804193  2459 net.cpp:406] BatchNorm48 <- Convolution48
I0926 22:37:52.804198  2459 net.cpp:367] BatchNorm48 -> Convolution48 (in-place)
I0926 22:37:52.804354  2459 net.cpp:122] Setting up BatchNorm48
I0926 22:37:52.804360  2459 net.cpp:129] Top shape: 100 64 8 8 (409600)
I0926 22:37:52.804363  2459 net.cpp:137] Memory required for data: 1103873200
I0926 22:37:52.804368  2459 layer_factory.hpp:77] Creating layer Scale48
I0926 22:37:52.804371  2459 net.cpp:84] Creating Layer Scale48
I0926 22:37:52.804373  2459 net.cpp:406] Scale48 <- Convolution48
I0926 22:37:52.804378  2459 net.cpp:367] Scale48 -> Convolution48 (in-place)
I0926 22:37:52.804406  2459 layer_factory.hpp:77] Creating layer Scale48
I0926 22:37:52.804486  2459 net.cpp:122] Setting up Scale48
I0926 22:37:52.804491  2459 net.cpp:129] Top shape: 100 64 8 8 (409600)
I0926 22:37:52.804499  2459 net.cpp:137] Memory required for data: 1105511600
I0926 22:37:52.804504  2459 layer_factory.hpp:77] Creating layer penlu46
I0926 22:37:52.804509  2459 net.cpp:84] Creating Layer penlu46
I0926 22:37:52.804512  2459 net.cpp:406] penlu46 <- Convolution48
I0926 22:37:52.804517  2459 net.cpp:367] penlu46 -> Convolution48 (in-place)
I0926 22:37:52.804632  2459 net.cpp:122] Setting up penlu46
I0926 22:37:52.804637  2459 net.cpp:129] Top shape: 100 64 8 8 (409600)
I0926 22:37:52.804639  2459 net.cpp:137] Memory required for data: 1107150000
I0926 22:37:52.804643  2459 layer_factory.hpp:77] Creating layer Convolution49
I0926 22:37:52.804651  2459 net.cpp:84] Creating Layer Convolution49
I0926 22:37:52.804653  2459 net.cpp:406] Convolution49 <- Convolution48
I0926 22:37:52.804657  2459 net.cpp:380] Convolution49 -> Convolution49
I0926 22:37:52.806684  2459 net.cpp:122] Setting up Convolution49
I0926 22:37:52.806694  2459 net.cpp:129] Top shape: 100 64 8 8 (409600)
I0926 22:37:52.806695  2459 net.cpp:137] Memory required for data: 1108788400
I0926 22:37:52.806700  2459 layer_factory.hpp:77] Creating layer BatchNorm49
I0926 22:37:52.806704  2459 net.cpp:84] Creating Layer BatchNorm49
I0926 22:37:52.806707  2459 net.cpp:406] BatchNorm49 <- Convolution49
I0926 22:37:52.806712  2459 net.cpp:367] BatchNorm49 -> Convolution49 (in-place)
I0926 22:37:52.806851  2459 net.cpp:122] Setting up BatchNorm49
I0926 22:37:52.806855  2459 net.cpp:129] Top shape: 100 64 8 8 (409600)
I0926 22:37:52.806857  2459 net.cpp:137] Memory required for data: 1110426800
I0926 22:37:52.806862  2459 layer_factory.hpp:77] Creating layer Scale49
I0926 22:37:52.806866  2459 net.cpp:84] Creating Layer Scale49
I0926 22:37:52.806869  2459 net.cpp:406] Scale49 <- Convolution49
I0926 22:37:52.806872  2459 net.cpp:367] Scale49 -> Convolution49 (in-place)
I0926 22:37:52.806900  2459 layer_factory.hpp:77] Creating layer Scale49
I0926 22:37:52.806980  2459 net.cpp:122] Setting up Scale49
I0926 22:37:52.806985  2459 net.cpp:129] Top shape: 100 64 8 8 (409600)
I0926 22:37:52.806988  2459 net.cpp:137] Memory required for data: 1112065200
I0926 22:37:52.806991  2459 layer_factory.hpp:77] Creating layer Eltwise23
I0926 22:37:52.806995  2459 net.cpp:84] Creating Layer Eltwise23
I0926 22:37:52.806998  2459 net.cpp:406] Eltwise23 <- Eltwise22_penlu45_0_split_1
I0926 22:37:52.807000  2459 net.cpp:406] Eltwise23 <- Convolution49
I0926 22:37:52.807004  2459 net.cpp:380] Eltwise23 -> Eltwise23
I0926 22:37:52.807023  2459 net.cpp:122] Setting up Eltwise23
I0926 22:37:52.807026  2459 net.cpp:129] Top shape: 100 64 8 8 (409600)
I0926 22:37:52.807029  2459 net.cpp:137] Memory required for data: 1113703600
I0926 22:37:52.807030  2459 layer_factory.hpp:77] Creating layer penlu47
I0926 22:37:52.807034  2459 net.cpp:84] Creating Layer penlu47
I0926 22:37:52.807037  2459 net.cpp:406] penlu47 <- Eltwise23
I0926 22:37:52.807041  2459 net.cpp:367] penlu47 -> Eltwise23 (in-place)
I0926 22:37:52.807158  2459 net.cpp:122] Setting up penlu47
I0926 22:37:52.807163  2459 net.cpp:129] Top shape: 100 64 8 8 (409600)
I0926 22:37:52.807165  2459 net.cpp:137] Memory required for data: 1115342000
I0926 22:37:52.807169  2459 layer_factory.hpp:77] Creating layer Eltwise23_penlu47_0_split
I0926 22:37:52.807173  2459 net.cpp:84] Creating Layer Eltwise23_penlu47_0_split
I0926 22:37:52.807175  2459 net.cpp:406] Eltwise23_penlu47_0_split <- Eltwise23
I0926 22:37:52.807178  2459 net.cpp:380] Eltwise23_penlu47_0_split -> Eltwise23_penlu47_0_split_0
I0926 22:37:52.807183  2459 net.cpp:380] Eltwise23_penlu47_0_split -> Eltwise23_penlu47_0_split_1
I0926 22:37:52.807207  2459 net.cpp:122] Setting up Eltwise23_penlu47_0_split
I0926 22:37:52.807211  2459 net.cpp:129] Top shape: 100 64 8 8 (409600)
I0926 22:37:52.807214  2459 net.cpp:129] Top shape: 100 64 8 8 (409600)
I0926 22:37:52.807215  2459 net.cpp:137] Memory required for data: 1118618800
I0926 22:37:52.807217  2459 layer_factory.hpp:77] Creating layer Convolution50
I0926 22:37:52.807224  2459 net.cpp:84] Creating Layer Convolution50
I0926 22:37:52.807234  2459 net.cpp:406] Convolution50 <- Eltwise23_penlu47_0_split_0
I0926 22:37:52.807237  2459 net.cpp:380] Convolution50 -> Convolution50
I0926 22:37:52.809880  2459 net.cpp:122] Setting up Convolution50
I0926 22:37:52.809890  2459 net.cpp:129] Top shape: 100 64 8 8 (409600)
I0926 22:37:52.809892  2459 net.cpp:137] Memory required for data: 1120257200
I0926 22:37:52.809896  2459 layer_factory.hpp:77] Creating layer BatchNorm50
I0926 22:37:52.809902  2459 net.cpp:84] Creating Layer BatchNorm50
I0926 22:37:52.809906  2459 net.cpp:406] BatchNorm50 <- Convolution50
I0926 22:37:52.809908  2459 net.cpp:367] BatchNorm50 -> Convolution50 (in-place)
I0926 22:37:52.810053  2459 net.cpp:122] Setting up BatchNorm50
I0926 22:37:52.810058  2459 net.cpp:129] Top shape: 100 64 8 8 (409600)
I0926 22:37:52.810060  2459 net.cpp:137] Memory required for data: 1121895600
I0926 22:37:52.810065  2459 layer_factory.hpp:77] Creating layer Scale50
I0926 22:37:52.810070  2459 net.cpp:84] Creating Layer Scale50
I0926 22:37:52.810073  2459 net.cpp:406] Scale50 <- Convolution50
I0926 22:37:52.810076  2459 net.cpp:367] Scale50 -> Convolution50 (in-place)
I0926 22:37:52.810104  2459 layer_factory.hpp:77] Creating layer Scale50
I0926 22:37:52.810185  2459 net.cpp:122] Setting up Scale50
I0926 22:37:52.810190  2459 net.cpp:129] Top shape: 100 64 8 8 (409600)
I0926 22:37:52.810192  2459 net.cpp:137] Memory required for data: 1123534000
I0926 22:37:52.810196  2459 layer_factory.hpp:77] Creating layer penlu48
I0926 22:37:52.810201  2459 net.cpp:84] Creating Layer penlu48
I0926 22:37:52.810204  2459 net.cpp:406] penlu48 <- Convolution50
I0926 22:37:52.810209  2459 net.cpp:367] penlu48 -> Convolution50 (in-place)
I0926 22:37:52.810323  2459 net.cpp:122] Setting up penlu48
I0926 22:37:52.810328  2459 net.cpp:129] Top shape: 100 64 8 8 (409600)
I0926 22:37:52.810329  2459 net.cpp:137] Memory required for data: 1125172400
I0926 22:37:52.810333  2459 layer_factory.hpp:77] Creating layer Convolution51
I0926 22:37:52.810341  2459 net.cpp:84] Creating Layer Convolution51
I0926 22:37:52.810344  2459 net.cpp:406] Convolution51 <- Convolution50
I0926 22:37:52.810348  2459 net.cpp:380] Convolution51 -> Convolution51
I0926 22:37:52.812077  2459 net.cpp:122] Setting up Convolution51
I0926 22:37:52.812085  2459 net.cpp:129] Top shape: 100 64 8 8 (409600)
I0926 22:37:52.812088  2459 net.cpp:137] Memory required for data: 1126810800
I0926 22:37:52.812093  2459 layer_factory.hpp:77] Creating layer BatchNorm51
I0926 22:37:52.812096  2459 net.cpp:84] Creating Layer BatchNorm51
I0926 22:37:52.812099  2459 net.cpp:406] BatchNorm51 <- Convolution51
I0926 22:37:52.812104  2459 net.cpp:367] BatchNorm51 -> Convolution51 (in-place)
I0926 22:37:52.812270  2459 net.cpp:122] Setting up BatchNorm51
I0926 22:37:52.812276  2459 net.cpp:129] Top shape: 100 64 8 8 (409600)
I0926 22:37:52.812278  2459 net.cpp:137] Memory required for data: 1128449200
I0926 22:37:52.827312  2459 layer_factory.hpp:77] Creating layer Scale51
I0926 22:37:52.827322  2459 net.cpp:84] Creating Layer Scale51
I0926 22:37:52.827325  2459 net.cpp:406] Scale51 <- Convolution51
I0926 22:37:52.827332  2459 net.cpp:367] Scale51 -> Convolution51 (in-place)
I0926 22:37:52.827380  2459 layer_factory.hpp:77] Creating layer Scale51
I0926 22:37:52.827466  2459 net.cpp:122] Setting up Scale51
I0926 22:37:52.827471  2459 net.cpp:129] Top shape: 100 64 8 8 (409600)
I0926 22:37:52.827473  2459 net.cpp:137] Memory required for data: 1130087600
I0926 22:37:52.827477  2459 layer_factory.hpp:77] Creating layer Eltwise24
I0926 22:37:52.827482  2459 net.cpp:84] Creating Layer Eltwise24
I0926 22:37:52.827484  2459 net.cpp:406] Eltwise24 <- Eltwise23_penlu47_0_split_1
I0926 22:37:52.827487  2459 net.cpp:406] Eltwise24 <- Convolution51
I0926 22:37:52.827492  2459 net.cpp:380] Eltwise24 -> Eltwise24
I0926 22:37:52.827510  2459 net.cpp:122] Setting up Eltwise24
I0926 22:37:52.827514  2459 net.cpp:129] Top shape: 100 64 8 8 (409600)
I0926 22:37:52.827517  2459 net.cpp:137] Memory required for data: 1131726000
I0926 22:37:52.827525  2459 layer_factory.hpp:77] Creating layer penlu49
I0926 22:37:52.827530  2459 net.cpp:84] Creating Layer penlu49
I0926 22:37:52.827533  2459 net.cpp:406] penlu49 <- Eltwise24
I0926 22:37:52.827538  2459 net.cpp:367] penlu49 -> Eltwise24 (in-place)
I0926 22:37:52.827659  2459 net.cpp:122] Setting up penlu49
I0926 22:37:52.827664  2459 net.cpp:129] Top shape: 100 64 8 8 (409600)
I0926 22:37:52.827666  2459 net.cpp:137] Memory required for data: 1133364400
I0926 22:37:52.827672  2459 layer_factory.hpp:77] Creating layer Eltwise24_penlu49_0_split
I0926 22:37:52.827675  2459 net.cpp:84] Creating Layer Eltwise24_penlu49_0_split
I0926 22:37:52.827677  2459 net.cpp:406] Eltwise24_penlu49_0_split <- Eltwise24
I0926 22:37:52.827680  2459 net.cpp:380] Eltwise24_penlu49_0_split -> Eltwise24_penlu49_0_split_0
I0926 22:37:52.827685  2459 net.cpp:380] Eltwise24_penlu49_0_split -> Eltwise24_penlu49_0_split_1
I0926 22:37:52.827719  2459 net.cpp:122] Setting up Eltwise24_penlu49_0_split
I0926 22:37:52.827723  2459 net.cpp:129] Top shape: 100 64 8 8 (409600)
I0926 22:37:52.827728  2459 net.cpp:129] Top shape: 100 64 8 8 (409600)
I0926 22:37:52.827729  2459 net.cpp:137] Memory required for data: 1136641200
I0926 22:37:52.827731  2459 layer_factory.hpp:77] Creating layer Convolution52
I0926 22:37:52.827738  2459 net.cpp:84] Creating Layer Convolution52
I0926 22:37:52.827740  2459 net.cpp:406] Convolution52 <- Eltwise24_penlu49_0_split_0
I0926 22:37:52.827744  2459 net.cpp:380] Convolution52 -> Convolution52
I0926 22:37:52.830260  2459 net.cpp:122] Setting up Convolution52
I0926 22:37:52.830271  2459 net.cpp:129] Top shape: 100 64 8 8 (409600)
I0926 22:37:52.830273  2459 net.cpp:137] Memory required for data: 1138279600
I0926 22:37:52.830279  2459 layer_factory.hpp:77] Creating layer BatchNorm52
I0926 22:37:52.830286  2459 net.cpp:84] Creating Layer BatchNorm52
I0926 22:37:52.830288  2459 net.cpp:406] BatchNorm52 <- Convolution52
I0926 22:37:52.830292  2459 net.cpp:367] BatchNorm52 -> Convolution52 (in-place)
I0926 22:37:52.830446  2459 net.cpp:122] Setting up BatchNorm52
I0926 22:37:52.830451  2459 net.cpp:129] Top shape: 100 64 8 8 (409600)
I0926 22:37:52.830454  2459 net.cpp:137] Memory required for data: 1139918000
I0926 22:37:52.830459  2459 layer_factory.hpp:77] Creating layer Scale52
I0926 22:37:52.830463  2459 net.cpp:84] Creating Layer Scale52
I0926 22:37:52.830466  2459 net.cpp:406] Scale52 <- Convolution52
I0926 22:37:52.830471  2459 net.cpp:367] Scale52 -> Convolution52 (in-place)
I0926 22:37:52.830502  2459 layer_factory.hpp:77] Creating layer Scale52
I0926 22:37:52.830588  2459 net.cpp:122] Setting up Scale52
I0926 22:37:52.830593  2459 net.cpp:129] Top shape: 100 64 8 8 (409600)
I0926 22:37:52.830595  2459 net.cpp:137] Memory required for data: 1141556400
I0926 22:37:52.830600  2459 layer_factory.hpp:77] Creating layer penlu50
I0926 22:37:52.830622  2459 net.cpp:84] Creating Layer penlu50
I0926 22:37:52.830626  2459 net.cpp:406] penlu50 <- Convolution52
I0926 22:37:52.830629  2459 net.cpp:367] penlu50 -> Convolution52 (in-place)
I0926 22:37:52.830756  2459 net.cpp:122] Setting up penlu50
I0926 22:37:52.830761  2459 net.cpp:129] Top shape: 100 64 8 8 (409600)
I0926 22:37:52.830763  2459 net.cpp:137] Memory required for data: 1143194800
I0926 22:37:52.830812  2459 layer_factory.hpp:77] Creating layer Convolution53
I0926 22:37:52.830821  2459 net.cpp:84] Creating Layer Convolution53
I0926 22:37:52.830823  2459 net.cpp:406] Convolution53 <- Convolution52
I0926 22:37:52.830827  2459 net.cpp:380] Convolution53 -> Convolution53
I0926 22:37:52.832635  2459 net.cpp:122] Setting up Convolution53
I0926 22:37:52.832644  2459 net.cpp:129] Top shape: 100 64 8 8 (409600)
I0926 22:37:52.832646  2459 net.cpp:137] Memory required for data: 1144833200
I0926 22:37:52.832651  2459 layer_factory.hpp:77] Creating layer BatchNorm53
I0926 22:37:52.832656  2459 net.cpp:84] Creating Layer BatchNorm53
I0926 22:37:52.832659  2459 net.cpp:406] BatchNorm53 <- Convolution53
I0926 22:37:52.832664  2459 net.cpp:367] BatchNorm53 -> Convolution53 (in-place)
I0926 22:37:52.832816  2459 net.cpp:122] Setting up BatchNorm53
I0926 22:37:52.832821  2459 net.cpp:129] Top shape: 100 64 8 8 (409600)
I0926 22:37:52.832824  2459 net.cpp:137] Memory required for data: 1146471600
I0926 22:37:52.832828  2459 layer_factory.hpp:77] Creating layer Scale53
I0926 22:37:52.832834  2459 net.cpp:84] Creating Layer Scale53
I0926 22:37:52.832835  2459 net.cpp:406] Scale53 <- Convolution53
I0926 22:37:52.832839  2459 net.cpp:367] Scale53 -> Convolution53 (in-place)
I0926 22:37:52.832867  2459 layer_factory.hpp:77] Creating layer Scale53
I0926 22:37:52.832949  2459 net.cpp:122] Setting up Scale53
I0926 22:37:52.832954  2459 net.cpp:129] Top shape: 100 64 8 8 (409600)
I0926 22:37:52.832957  2459 net.cpp:137] Memory required for data: 1148110000
I0926 22:37:52.832960  2459 layer_factory.hpp:77] Creating layer Eltwise25
I0926 22:37:52.832964  2459 net.cpp:84] Creating Layer Eltwise25
I0926 22:37:52.832967  2459 net.cpp:406] Eltwise25 <- Eltwise24_penlu49_0_split_1
I0926 22:37:52.832972  2459 net.cpp:406] Eltwise25 <- Convolution53
I0926 22:37:52.832974  2459 net.cpp:380] Eltwise25 -> Eltwise25
I0926 22:37:52.832993  2459 net.cpp:122] Setting up Eltwise25
I0926 22:37:52.832996  2459 net.cpp:129] Top shape: 100 64 8 8 (409600)
I0926 22:37:52.832998  2459 net.cpp:137] Memory required for data: 1149748400
I0926 22:37:52.833000  2459 layer_factory.hpp:77] Creating layer penlu51
I0926 22:37:52.833006  2459 net.cpp:84] Creating Layer penlu51
I0926 22:37:52.833009  2459 net.cpp:406] penlu51 <- Eltwise25
I0926 22:37:52.833012  2459 net.cpp:367] penlu51 -> Eltwise25 (in-place)
I0926 22:37:52.833133  2459 net.cpp:122] Setting up penlu51
I0926 22:37:52.833137  2459 net.cpp:129] Top shape: 100 64 8 8 (409600)
I0926 22:37:52.833139  2459 net.cpp:137] Memory required for data: 1151386800
I0926 22:37:52.833143  2459 layer_factory.hpp:77] Creating layer Eltwise25_penlu51_0_split
I0926 22:37:52.833148  2459 net.cpp:84] Creating Layer Eltwise25_penlu51_0_split
I0926 22:37:52.833149  2459 net.cpp:406] Eltwise25_penlu51_0_split <- Eltwise25
I0926 22:37:52.833153  2459 net.cpp:380] Eltwise25_penlu51_0_split -> Eltwise25_penlu51_0_split_0
I0926 22:37:52.833158  2459 net.cpp:380] Eltwise25_penlu51_0_split -> Eltwise25_penlu51_0_split_1
I0926 22:37:52.833181  2459 net.cpp:122] Setting up Eltwise25_penlu51_0_split
I0926 22:37:52.833185  2459 net.cpp:129] Top shape: 100 64 8 8 (409600)
I0926 22:37:52.833189  2459 net.cpp:129] Top shape: 100 64 8 8 (409600)
I0926 22:37:52.833190  2459 net.cpp:137] Memory required for data: 1154663600
I0926 22:37:52.833192  2459 layer_factory.hpp:77] Creating layer Convolution54
I0926 22:37:52.833197  2459 net.cpp:84] Creating Layer Convolution54
I0926 22:37:52.833200  2459 net.cpp:406] Convolution54 <- Eltwise25_penlu51_0_split_0
I0926 22:37:52.833205  2459 net.cpp:380] Convolution54 -> Convolution54
I0926 22:37:52.835233  2459 net.cpp:122] Setting up Convolution54
I0926 22:37:52.835242  2459 net.cpp:129] Top shape: 100 64 8 8 (409600)
I0926 22:37:52.835244  2459 net.cpp:137] Memory required for data: 1156302000
I0926 22:37:52.835249  2459 layer_factory.hpp:77] Creating layer BatchNorm54
I0926 22:37:52.835254  2459 net.cpp:84] Creating Layer BatchNorm54
I0926 22:37:52.835258  2459 net.cpp:406] BatchNorm54 <- Convolution54
I0926 22:37:52.835261  2459 net.cpp:367] BatchNorm54 -> Convolution54 (in-place)
I0926 22:37:52.835407  2459 net.cpp:122] Setting up BatchNorm54
I0926 22:37:52.835412  2459 net.cpp:129] Top shape: 100 64 8 8 (409600)
I0926 22:37:52.835414  2459 net.cpp:137] Memory required for data: 1157940400
I0926 22:37:52.835419  2459 layer_factory.hpp:77] Creating layer Scale54
I0926 22:37:52.835425  2459 net.cpp:84] Creating Layer Scale54
I0926 22:37:52.835428  2459 net.cpp:406] Scale54 <- Convolution54
I0926 22:37:52.835431  2459 net.cpp:367] Scale54 -> Convolution54 (in-place)
I0926 22:37:52.835460  2459 layer_factory.hpp:77] Creating layer Scale54
I0926 22:37:52.835542  2459 net.cpp:122] Setting up Scale54
I0926 22:37:52.835546  2459 net.cpp:129] Top shape: 100 64 8 8 (409600)
I0926 22:37:52.835554  2459 net.cpp:137] Memory required for data: 1159578800
I0926 22:37:52.835559  2459 layer_factory.hpp:77] Creating layer penlu52
I0926 22:37:52.835566  2459 net.cpp:84] Creating Layer penlu52
I0926 22:37:52.835567  2459 net.cpp:406] penlu52 <- Convolution54
I0926 22:37:52.835572  2459 net.cpp:367] penlu52 -> Convolution54 (in-place)
I0926 22:37:52.835690  2459 net.cpp:122] Setting up penlu52
I0926 22:37:52.835695  2459 net.cpp:129] Top shape: 100 64 8 8 (409600)
I0926 22:37:52.835697  2459 net.cpp:137] Memory required for data: 1161217200
I0926 22:37:52.835701  2459 layer_factory.hpp:77] Creating layer Convolution55
I0926 22:37:52.835708  2459 net.cpp:84] Creating Layer Convolution55
I0926 22:37:52.835711  2459 net.cpp:406] Convolution55 <- Convolution54
I0926 22:37:52.835714  2459 net.cpp:380] Convolution55 -> Convolution55
I0926 22:37:52.837432  2459 net.cpp:122] Setting up Convolution55
I0926 22:37:52.837441  2459 net.cpp:129] Top shape: 100 64 8 8 (409600)
I0926 22:37:52.837445  2459 net.cpp:137] Memory required for data: 1162855600
I0926 22:37:52.837448  2459 layer_factory.hpp:77] Creating layer BatchNorm55
I0926 22:37:52.837453  2459 net.cpp:84] Creating Layer BatchNorm55
I0926 22:37:52.837456  2459 net.cpp:406] BatchNorm55 <- Convolution55
I0926 22:37:52.837461  2459 net.cpp:367] BatchNorm55 -> Convolution55 (in-place)
I0926 22:37:52.837602  2459 net.cpp:122] Setting up BatchNorm55
I0926 22:37:52.837607  2459 net.cpp:129] Top shape: 100 64 8 8 (409600)
I0926 22:37:52.837610  2459 net.cpp:137] Memory required for data: 1164494000
I0926 22:37:52.837615  2459 layer_factory.hpp:77] Creating layer Scale55
I0926 22:37:52.837620  2459 net.cpp:84] Creating Layer Scale55
I0926 22:37:52.837621  2459 net.cpp:406] Scale55 <- Convolution55
I0926 22:37:52.837625  2459 net.cpp:367] Scale55 -> Convolution55 (in-place)
I0926 22:37:52.837653  2459 layer_factory.hpp:77] Creating layer Scale55
I0926 22:37:52.837735  2459 net.cpp:122] Setting up Scale55
I0926 22:37:52.837740  2459 net.cpp:129] Top shape: 100 64 8 8 (409600)
I0926 22:37:52.837743  2459 net.cpp:137] Memory required for data: 1166132400
I0926 22:37:52.837746  2459 layer_factory.hpp:77] Creating layer Eltwise26
I0926 22:37:52.837750  2459 net.cpp:84] Creating Layer Eltwise26
I0926 22:37:52.837754  2459 net.cpp:406] Eltwise26 <- Eltwise25_penlu51_0_split_1
I0926 22:37:52.837756  2459 net.cpp:406] Eltwise26 <- Convolution55
I0926 22:37:52.837760  2459 net.cpp:380] Eltwise26 -> Eltwise26
I0926 22:37:52.837776  2459 net.cpp:122] Setting up Eltwise26
I0926 22:37:52.837780  2459 net.cpp:129] Top shape: 100 64 8 8 (409600)
I0926 22:37:52.837782  2459 net.cpp:137] Memory required for data: 1167770800
I0926 22:37:52.837785  2459 layer_factory.hpp:77] Creating layer penlu53
I0926 22:37:52.837790  2459 net.cpp:84] Creating Layer penlu53
I0926 22:37:52.837792  2459 net.cpp:406] penlu53 <- Eltwise26
I0926 22:37:52.837796  2459 net.cpp:367] penlu53 -> Eltwise26 (in-place)
I0926 22:37:52.837913  2459 net.cpp:122] Setting up penlu53
I0926 22:37:52.837918  2459 net.cpp:129] Top shape: 100 64 8 8 (409600)
I0926 22:37:52.837920  2459 net.cpp:137] Memory required for data: 1169409200
I0926 22:37:52.837924  2459 layer_factory.hpp:77] Creating layer Eltwise26_penlu53_0_split
I0926 22:37:52.837929  2459 net.cpp:84] Creating Layer Eltwise26_penlu53_0_split
I0926 22:37:52.837930  2459 net.cpp:406] Eltwise26_penlu53_0_split <- Eltwise26
I0926 22:37:52.837934  2459 net.cpp:380] Eltwise26_penlu53_0_split -> Eltwise26_penlu53_0_split_0
I0926 22:37:52.837939  2459 net.cpp:380] Eltwise26_penlu53_0_split -> Eltwise26_penlu53_0_split_1
I0926 22:37:52.837962  2459 net.cpp:122] Setting up Eltwise26_penlu53_0_split
I0926 22:37:52.837966  2459 net.cpp:129] Top shape: 100 64 8 8 (409600)
I0926 22:37:52.837968  2459 net.cpp:129] Top shape: 100 64 8 8 (409600)
I0926 22:37:52.837970  2459 net.cpp:137] Memory required for data: 1172686000
I0926 22:37:52.837972  2459 layer_factory.hpp:77] Creating layer Convolution56
I0926 22:37:52.837980  2459 net.cpp:84] Creating Layer Convolution56
I0926 22:37:52.837988  2459 net.cpp:406] Convolution56 <- Eltwise26_penlu53_0_split_0
I0926 22:37:52.837992  2459 net.cpp:380] Convolution56 -> Convolution56
I0926 22:37:52.839682  2459 net.cpp:122] Setting up Convolution56
I0926 22:37:52.839690  2459 net.cpp:129] Top shape: 100 64 8 8 (409600)
I0926 22:37:52.839694  2459 net.cpp:137] Memory required for data: 1174324400
I0926 22:37:52.839697  2459 layer_factory.hpp:77] Creating layer BatchNorm56
I0926 22:37:52.839704  2459 net.cpp:84] Creating Layer BatchNorm56
I0926 22:37:52.839705  2459 net.cpp:406] BatchNorm56 <- Convolution56
I0926 22:37:52.839710  2459 net.cpp:367] BatchNorm56 -> Convolution56 (in-place)
I0926 22:37:52.839855  2459 net.cpp:122] Setting up BatchNorm56
I0926 22:37:52.839859  2459 net.cpp:129] Top shape: 100 64 8 8 (409600)
I0926 22:37:52.839862  2459 net.cpp:137] Memory required for data: 1175962800
I0926 22:37:52.839866  2459 layer_factory.hpp:77] Creating layer Scale56
I0926 22:37:52.839872  2459 net.cpp:84] Creating Layer Scale56
I0926 22:37:52.839875  2459 net.cpp:406] Scale56 <- Convolution56
I0926 22:37:52.839879  2459 net.cpp:367] Scale56 -> Convolution56 (in-place)
I0926 22:37:52.839908  2459 layer_factory.hpp:77] Creating layer Scale56
I0926 22:37:52.839989  2459 net.cpp:122] Setting up Scale56
I0926 22:37:52.839994  2459 net.cpp:129] Top shape: 100 64 8 8 (409600)
I0926 22:37:52.839996  2459 net.cpp:137] Memory required for data: 1177601200
I0926 22:37:52.839999  2459 layer_factory.hpp:77] Creating layer penlu54
I0926 22:37:52.840005  2459 net.cpp:84] Creating Layer penlu54
I0926 22:37:52.840008  2459 net.cpp:406] penlu54 <- Convolution56
I0926 22:37:52.840013  2459 net.cpp:367] penlu54 -> Convolution56 (in-place)
I0926 22:37:52.840133  2459 net.cpp:122] Setting up penlu54
I0926 22:37:52.840137  2459 net.cpp:129] Top shape: 100 64 8 8 (409600)
I0926 22:37:52.840139  2459 net.cpp:137] Memory required for data: 1179239600
I0926 22:37:52.840144  2459 layer_factory.hpp:77] Creating layer Convolution57
I0926 22:37:52.840150  2459 net.cpp:84] Creating Layer Convolution57
I0926 22:37:52.840153  2459 net.cpp:406] Convolution57 <- Convolution56
I0926 22:37:52.840157  2459 net.cpp:380] Convolution57 -> Convolution57
I0926 22:37:52.841856  2459 net.cpp:122] Setting up Convolution57
I0926 22:37:52.841864  2459 net.cpp:129] Top shape: 100 64 8 8 (409600)
I0926 22:37:52.841866  2459 net.cpp:137] Memory required for data: 1180878000
I0926 22:37:52.841871  2459 layer_factory.hpp:77] Creating layer BatchNorm57
I0926 22:37:52.841876  2459 net.cpp:84] Creating Layer BatchNorm57
I0926 22:37:52.841879  2459 net.cpp:406] BatchNorm57 <- Convolution57
I0926 22:37:52.841882  2459 net.cpp:367] BatchNorm57 -> Convolution57 (in-place)
I0926 22:37:52.858319  2459 net.cpp:122] Setting up BatchNorm57
I0926 22:37:52.858330  2459 net.cpp:129] Top shape: 100 64 8 8 (409600)
I0926 22:37:52.858331  2459 net.cpp:137] Memory required for data: 1182516400
I0926 22:37:52.858337  2459 layer_factory.hpp:77] Creating layer Scale57
I0926 22:37:52.858343  2459 net.cpp:84] Creating Layer Scale57
I0926 22:37:52.858347  2459 net.cpp:406] Scale57 <- Convolution57
I0926 22:37:52.858351  2459 net.cpp:367] Scale57 -> Convolution57 (in-place)
I0926 22:37:52.858386  2459 layer_factory.hpp:77] Creating layer Scale57
I0926 22:37:52.858477  2459 net.cpp:122] Setting up Scale57
I0926 22:37:52.858482  2459 net.cpp:129] Top shape: 100 64 8 8 (409600)
I0926 22:37:52.858485  2459 net.cpp:137] Memory required for data: 1184154800
I0926 22:37:52.858489  2459 layer_factory.hpp:77] Creating layer Eltwise27
I0926 22:37:52.858494  2459 net.cpp:84] Creating Layer Eltwise27
I0926 22:37:52.858499  2459 net.cpp:406] Eltwise27 <- Eltwise26_penlu53_0_split_1
I0926 22:37:52.858501  2459 net.cpp:406] Eltwise27 <- Convolution57
I0926 22:37:52.858505  2459 net.cpp:380] Eltwise27 -> Eltwise27
I0926 22:37:52.858525  2459 net.cpp:122] Setting up Eltwise27
I0926 22:37:52.858530  2459 net.cpp:129] Top shape: 100 64 8 8 (409600)
I0926 22:37:52.858531  2459 net.cpp:137] Memory required for data: 1185793200
I0926 22:37:52.858541  2459 layer_factory.hpp:77] Creating layer penlu55
I0926 22:37:52.858548  2459 net.cpp:84] Creating Layer penlu55
I0926 22:37:52.858551  2459 net.cpp:406] penlu55 <- Eltwise27
I0926 22:37:52.858556  2459 net.cpp:367] penlu55 -> Eltwise27 (in-place)
I0926 22:37:52.858691  2459 net.cpp:122] Setting up penlu55
I0926 22:37:52.858696  2459 net.cpp:129] Top shape: 100 64 8 8 (409600)
I0926 22:37:52.858700  2459 net.cpp:137] Memory required for data: 1187431600
I0926 22:37:52.858705  2459 layer_factory.hpp:77] Creating layer Pooling1
I0926 22:37:52.858710  2459 net.cpp:84] Creating Layer Pooling1
I0926 22:37:52.858712  2459 net.cpp:406] Pooling1 <- Eltwise27
I0926 22:37:52.858716  2459 net.cpp:380] Pooling1 -> Pooling1
I0926 22:37:52.859251  2459 net.cpp:122] Setting up Pooling1
I0926 22:37:52.859261  2459 net.cpp:129] Top shape: 100 64 1 1 (6400)
I0926 22:37:52.859263  2459 net.cpp:137] Memory required for data: 1187457200
I0926 22:37:52.859266  2459 layer_factory.hpp:77] Creating layer InnerProduct1
I0926 22:37:52.859272  2459 net.cpp:84] Creating Layer InnerProduct1
I0926 22:37:52.859275  2459 net.cpp:406] InnerProduct1 <- Pooling1
I0926 22:37:52.859280  2459 net.cpp:380] InnerProduct1 -> InnerProduct1
I0926 22:37:52.859439  2459 net.cpp:122] Setting up InnerProduct1
I0926 22:37:52.859444  2459 net.cpp:129] Top shape: 100 10 (1000)
I0926 22:37:52.859447  2459 net.cpp:137] Memory required for data: 1187461200
I0926 22:37:52.859450  2459 layer_factory.hpp:77] Creating layer InnerProduct1_InnerProduct1_0_split
I0926 22:37:52.859455  2459 net.cpp:84] Creating Layer InnerProduct1_InnerProduct1_0_split
I0926 22:37:52.859458  2459 net.cpp:406] InnerProduct1_InnerProduct1_0_split <- InnerProduct1
I0926 22:37:52.859462  2459 net.cpp:380] InnerProduct1_InnerProduct1_0_split -> InnerProduct1_InnerProduct1_0_split_0
I0926 22:37:52.859467  2459 net.cpp:380] InnerProduct1_InnerProduct1_0_split -> InnerProduct1_InnerProduct1_0_split_1
I0926 22:37:52.859494  2459 net.cpp:122] Setting up InnerProduct1_InnerProduct1_0_split
I0926 22:37:52.859498  2459 net.cpp:129] Top shape: 100 10 (1000)
I0926 22:37:52.859500  2459 net.cpp:129] Top shape: 100 10 (1000)
I0926 22:37:52.859503  2459 net.cpp:137] Memory required for data: 1187469200
I0926 22:37:52.859504  2459 layer_factory.hpp:77] Creating layer SoftmaxWithLoss1
I0926 22:37:52.859509  2459 net.cpp:84] Creating Layer SoftmaxWithLoss1
I0926 22:37:52.859511  2459 net.cpp:406] SoftmaxWithLoss1 <- InnerProduct1_InnerProduct1_0_split_0
I0926 22:37:52.859514  2459 net.cpp:406] SoftmaxWithLoss1 <- Data2_Data1_1_split_0
…
