…
I0927 19:02:45.906391  3577 net.cpp:294] The NetState phase (0) differed from the phase (1) specified by a rule in layer Accuracy1
I0927 19:02:45.907497  3577 net.cpp:51] Initializing net from parameters: 
name: "resnet_cifar10"
state {
  phase: TRAIN
  level: 0
  stage: ""
}
layer {
  name: "Data1"
  type: "Data"
  top: "Data1"
  top: "Data2"
  include {
    phase: TRAIN
  }
  transform_param {
    mirror: true
    crop_size: 28
    mean_file: "/home/x306/caffe/xn/PENLU/data/cifar10/mean.binaryproto"
  }
  data_param {
    source: "/home/x306/caffe/xn/PENLU/data/cifar10/cifar10_train_lmdb"
    batch_size: 100
    backend: LMDB
  }
}
layer {
  name: "Convolution1"
  type: "Convolution"
  bottom: "Data1"
  top: "Convolution1"
  param {
    lr_mult: 1
    decay_mult: 1
  }
  param {
    lr_mult: 2
    decay_mult: 0
  }
  convolution_param {
    num_output: 16
    pad: 1
    kernel_size: 3
    stride: 1
    weight_filler {
      type: "gaussian"
      std: 0.118
    }
    bias_filler {
      type: "constant"
      value: 0
    }
  }
}
layer {
  name: "BatchNorm1"
  type: "BatchNorm"
  bottom: "Convolution1"
  top: "Convolution1"
  param {
    lr_mult: 0
    decay_mult: 0
  }
  param {
    lr_mult: 0
    decay_mult: 0
  }
  param {
    lr_mult: 0
    decay_mult: 0
  }
}
layer {
  name: "Scale1"
  type: "Scale"
  bottom: "Convolution1"
  top: "Convolution1"
  scale_param {
    bias_term: true
  }
}
layer {
  name: "M2PELU1"
  type: "M2PELU"
  bottom: "Convolution1"
  top: "Convolution1"
  param {
    lr_mult: 2
    decay_mult: 2
  }
  param {
    lr_mult: 2
    decay_mult: 2
  }
  m2pelu_param {
    alpha_filler {
      type: "constant"
      value: 2
    }
    beta_filler {
      type: "constant"
      value: 1
    }
  }
}
layer {
  name: "Convolution2"
  type: "Convolution"
  bottom: "Convolution1"
  top: "Convolution2"
  param {
    lr_mult: 1
    decay_mult: 1
  }
  param {
    lr_mult: 2
    decay_mult: 0
  }
  convolution_param {
    num_output: 16
    pad: 1
    kernel_size: 3
    stride: 1
    weight_filler {
      type: "gaussian"
      std: 0.118
    }
    bias_filler {
      type: "constant"
      value: 0
    }
  }
}
layer {
  name: "BatchNorm2"
  type: "BatchNorm"
  bottom: "Convolution2"
  top: "Convolution2"
  param {
    lr_mult: 0
    decay_mult: 0
  }
  param {
    lr_mult: 0
    decay_mult: 0
  }
  param {
    lr_mult: 0
    decay_mult: 0
  }
}
layer {
  name: "Scale2"
  type: "Scale"
  bottom: "Convolution2"
  top: "Convolution2"
  scale_param {
    bias_term: true
  }
}
layer {
  name: "M2PELU2"
  type: "M2PELU"
  bottom: "Convolution2"
  top: "Convolution2"
  param {
    lr_mult: 2
    decay_mult: 2
  }
  param {
    lr_mult: 2
    decay_mult: 2
  }
  m2pelu_param {
    alpha_filler {
      type: "constant"
      value: 2
    }
    beta_filler {
      type: "constant"
      value: 1
    }
  }
}
layer {
  name: "Convolution3"
  type: "Convolution"
  bottom: "Convolution2"
  top: "Convolution3"
  param {
    lr_mult: 1
    decay_mult: 1
  }
  param {
    lr_mult: 2
    decay_mult: 0
  }
  convolution_param {
    num_output: 16
    pad: 1
    kernel_size: 3
    stride: 1
    weight_filler {
      type: "gaussian"
      std: 0.118
    }
    bias_filler {
      type: "constant"
      value: 0
    }
  }
}
layer {
  name: "BatchNorm3"
  type: "BatchNorm"
  bottom: "Convolution3"
  top: "Convolution3"
  param {
    lr_mult: 0
    decay_mult: 0
  }
  param {
    lr_mult: 0
    decay_mult: 0
  }
  param {
    lr_mult: 0
    decay_mult: 0
  }
}
layer {
  name: "Scale3"
  type: "Scale"
  bottom: "Convolution3"
  top: "Convolution3"
  scale_param {
    bias_term: true
  }
}
layer {
  name: "Eltwise1"
  type: "Eltwise"
  bottom: "Convolution1"
  bottom: "Convolution3"
  top: "Eltwise1"
  eltwise_param {
    operation: SUM
  }
}
layer {
  name: "M2PELU3"
  type: "M2PELU"
  bottom: "Eltwise1"
  top: "Eltwise1"
  param {
    lr_mult: 2
    decay_mult: 2
  }
  param {
    lr_mult: 2
    decay_mult: 2
  }
  m2pelu_param {
    alpha_filler {
      type: "constant"
      value: 2
    }
    beta_filler {
      type: "constant"
      value: 1
    }
  }
}
layer {
  name: "Convolution4"
  type: "Convolution"
  bottom: "Eltwise1"
  top: "Convolution4"
  param {
    lr_mult: 1
    decay_mult: 1
  }
  param {
    lr_mult: 2
    decay_mult: 0
  }
  convolution_param {
    num_output: 16
    pad: 1
    kernel_size: 3
    stride: 1
    weight_filler {
      type: "gaussian"
      std: 0.118
    }
    bias_filler {
      type: "constant"
      value: 0
    }
  }
}
layer {
  name: "BatchNorm4"
  type: "BatchNorm"
  bottom: "Convolution4"
  top: "Convolution4"
  param {
    lr_mult: 0
    decay_mult: 0
  }
  param {
    lr_mult: 0
    decay_mult: 0
  }
  param {
    lr_mult: 0
    decay_mult: 0
  }
}
layer {
  name: "Scale4"
  type: "Scale"
  bottom: "Convolution4"
  top: "Convolution4"
  scale_param {
    bias_term: true
  }
}
layer {
  name: "M2PELU4"
  type: "M2PELU"
  bottom: "Convolution4"
  top: "Convolution4"
  param {
    lr_mult: 2
    decay_mult: 2
  }
  param {
    lr_mult: 2
    decay_mult: 2
  }
  m2pelu_param {
    alpha_filler {
      type: "constant"
      value: 2
    }
    beta_filler {
      type: "constant"
      value: 1
    }
  }
}
layer {
  name: "Convolution5"
  type: "Convolution"
  bottom: "Convolution4"
  top: "Convolution5"
  param {
    lr_mult: 1
    decay_mult: 1
  }
  param {
    lr_mult: 2
    decay_mult: 0
  }
  convolution_param {
    num_output: 16
    pad: 1
    kernel_size: 3
    stride: 1
    weight_filler {
      type: "gaussian"
      std: 0.118
    }
    bias_filler {
      type: "constant"
      value: 0
    }
  }
}
layer {
  name: "BatchNorm5"
  type: "BatchNorm"
  bottom: "Convolution5"
  top: "Convolution5"
  param {
    lr_mult: 0
    decay_mult: 0
  }
  param {
    lr_mult: 0
    decay_mult: 0
  }
  param {
    lr_mult: 0
    decay_mult: 0
  }
}
layer {
  name: "Scale5"
  type: "Scale"
  bottom: "Convolution5"
  top: "Convolution5"
  scale_param {
    bias_term: true
  }
}
layer {
  name: "Eltwise2"
  type: "Eltwise"
  bottom: "Eltwise1"
  bottom: "Convolution5"
  top: "Eltwise2"
  eltwise_param {
    operation: SUM
  }
}
layer {
  name: "M2PELU5"
  type: "M2PELU"
  bottom: "Eltwise2"
  top: "Eltwise2"
  param {
    lr_mult: 2
    decay_mult: 2
  }
  param {
    lr_mult: 2
    decay_mult: 2
  }
  m2pelu_param {
    alpha_filler {
      type: "constant"
      value: 2
    }
    beta_filler {
      type: "constant"
      value: 1
    }
  }
}
layer {
  name: "Convolution6"
  type: "Convolution"
  bottom: "Eltwise2"
  top: "Convolution6"
  param {
    lr_mult: 1
    decay_mult: 1
  }
  param {
    lr_mult: 2
    decay_mult: 0
  }
  convolution_param {
    num_output: 16
    pad: 1
    kernel_size: 3
    stride: 1
    weight_filler {
      type: "gaussian"
      std: 0.118
    }
    bias_filler {
      type: "constant"
      value: 0
    }
  }
}
layer {
  name: "BatchNorm6"
  type: "BatchNorm"
  bottom: "Convolution6"
  top: "Convolution6"
  param {
    lr_mult: 0
    decay_mult: 0
  }
  param {
    lr_mult: 0
    decay_mult: 0
  }
  param {
    lr_mult: 0
    decay_mult: 0
  }
}
layer {
  name: "Scale6"
  type: "Scale"
  bottom: "Convolution6"
  top: "Convolution6"
  scale_param {
    bias_term: true
  }
}
layer {
  name: "M2PELU6"
  type: "M2PELU"
  bottom: "Convolution6"
  top: "Convolution6"
  param {
    lr_mult: 2
    decay_mult: 2
  }
  param {
    lr_mult: 2
    decay_mult: 2
  }
  m2pelu_param {
    alpha_filler {
      type: "constant"
      value: 2
    }
    beta_filler {
      type: "constant"
      value: 1
    }
  }
}
layer {
  name: "Convolution7"
  type: "Convolution"
  bottom: "Convolution6"
  top: "Convolution7"
  param {
    lr_mult: 1
    decay_mult: 1
  }
  param {
    lr_mult: 2
    decay_mult: 0
  }
  convolution_param {
    num_output: 16
    pad: 1
    kernel_size: 3
    stride: 1
    weight_filler {
      type: "gaussian"
      std: 0.118
    }
    bias_filler {
      type: "constant"
      value: 0
    }
  }
}
layer {
  name: "BatchNorm7"
  type: "BatchNorm"
  bottom: "Convolution7"
  top: "Convolution7"
  param {
    lr_mult: 0
    decay_mult: 0
  }
  param {
    lr_mult: 0
    decay_mult: 0
  }
  param {
    lr_mult: 0
    decay_mult: 0
  }
}
layer {
  name: "Scale7"
  type: "Scale"
  bottom: "Convolution7"
  top: "Convolution7"
  scale_param {
    bias_term: true
  }
}
layer {
  name: "Eltwise3"
  type: "Eltwise"
  bottom: "Eltwise2"
  bottom: "Convolution7"
  top: "Eltwise3"
  eltwise_param {
    operation: SUM
  }
}
layer {
  name: "M2PELU7"
  type: "M2PELU"
  bottom: "Eltwise3"
  top: "Eltwise3"
  param {
    lr_mult: 2
    decay_mult: 2
  }
  param {
    lr_mult: 2
    decay_mult: 2
  }
  m2pelu_param {
    alpha_filler {
      type: "constant"
      value: 2
    }
    beta_filler {
      type: "constant"
      value: 1
    }
  }
}
layer {
  name: "Convolution8"
  type: "Convolution"
  bottom: "Eltwise3"
  top: "Convolution8"
  param {
    lr_mult: 1
    decay_mult: 1
  }
  param {
    lr_mult: 2
    decay_mult: 0
  }
  convolution_param {
    num_output: 16
    pad: 1
    kernel_size: 3
    stride: 1
    weight_filler {
      type: "gaussian"
      std: 0.118
    }
    bias_filler {
      type: "constant"
      value: 0
    }
  }
}
layer {
  name: "BatchNorm8"
  type: "BatchNorm"
  bottom: "Convolution8"
  top: "Convolution8"
  param {
    lr_mult: 0
    decay_mult: 0
  }
  param {
    lr_mult: 0
    decay_mult: 0
  }
  param {
    lr_mult: 0
    decay_mult: 0
  }
}
layer {
  name: "Scale8"
  type: "Scale"
  bottom: "Convolution8"
  top: "Convolution8"
  scale_param {
    bias_term: true
  }
}
layer {
  name: "M2PELU8"
  type: "M2PELU"
  bottom: "Convolution8"
  top: "Convolution8"
  param {
    lr_mult: 2
    decay_mult: 2
  }
  param {
    lr_mult: 2
    decay_mult: 2
  }
  m2pelu_param {
    alpha_filler {
      type: "constant"
      value: 2
    }
    beta_filler {
      type: "constant"
      value: 1
    }
  }
}
layer {
  name: "Convolution9"
  type: "Convolution"
  bottom: "Convolution8"
  top: "Convolution9"
  param {
    lr_mult: 1
    decay_mult: 1
  }
  param {
    lr_mult: 2
    decay_mult: 0
  }
  convolution_param {
    num_output: 16
    pad: 1
    kernel_size: 3
    stride: 1
    weight_filler {
      type: "gaussian"
      std: 0.118
    }
    bias_filler {
      type: "constant"
      value: 0
    }
  }
}
layer {
  name: "BatchNorm9"
  type: "BatchNorm"
  bottom: "Convolution9"
  top: "Convolution9"
  param {
    lr_mult: 0
    decay_mult: 0
  }
  param {
    lr_mult: 0
    decay_mult: 0
  }
  param {
    lr_mult: 0
    decay_mult: 0
  }
}
layer {
  name: "Scale9"
  type: "Scale"
  bottom: "Convolution9"
  top: "Convolution9"
  scale_param {
    bias_term: true
  }
}
layer {
  name: "Eltwise4"
  type: "Eltwise"
  bottom: "Eltwise3"
  bottom: "Convolution9"
  top: "Eltwise4"
  eltwise_param {
    operation: SUM
  }
}
layer {
  name: "M2PELU9"
  type: "M2PELU"
  bottom: "Eltwise4"
  top: "Eltwise4"
  param {
    lr_mult: 2
    decay_mult: 2
  }
  param {
    lr_mult: 2
    decay_mult: 2
  }
  m2pelu_param {
    alpha_filler {
      type: "constant"
      value: 2
    }
    beta_filler {
      type: "constant"
      value: 1
    }
  }
}
layer {
  name: "Convolution10"
  type: "Convolution"
  bottom: "Eltwise4"
  top: "Convolution10"
  param {
    lr_mult: 1
    decay_mult: 1
  }
  param {
    lr_mult: 2
    decay_mult: 0
  }
  convolution_param {
    num_output: 16
    pad: 1
    kernel_size: 3
    stride: 1
    weight_filler {
      type: "gaussian"
      std: 0.118
    }
    bias_filler {
      type: "constant"
      value: 0
    }
  }
}
layer {
  name: "BatchNorm10"
  type: "BatchNorm"
  bottom: "Convolution10"
  top: "Convolution10"
  param {
    lr_mult: 0
    decay_mult: 0
  }
  param {
    lr_mult: 0
    decay_mult: 0
  }
  param {
    lr_mult: 0
    decay_mult: 0
  }
}
layer {
  name: "Scale10"
  type: "Scale"
  bottom: "Convolution10"
  top: "Convolution10"
  scale_param {
    bias_term: true
  }
}
layer {
  name: "M2PELU10"
  type: "M2PELU"
  bottom: "Convolution10"
  top: "Convolution10"
  param {
    lr_mult: 2
    decay_mult: 2
  }
  param {
    lr_mult: 2
    decay_mult: 2
  }
  m2pelu_param {
    alpha_filler {
      type: "constant"
      value: 2
    }
    beta_filler {
      type: "constant"
      value: 1
    }
  }
}
layer {
  name: "Convolution11"
  type: "Convolution"
  bottom: "Convolution10"
  top: "Convolution11"
  param {
    lr_mult: 1
    decay_mult: 1
  }
  param {
    lr_mult: 2
    decay_mult: 0
  }
  convolution_param {
    num_output: 16
    pad: 1
    kernel_size: 3
    stride: 1
    weight_filler {
      type: "gaussian"
      std: 0.118
    }
    bias_filler {
      type: "constant"
      value: 0
    }
  }
}
layer {
  name: "BatchNorm11"
  type: "BatchNorm"
  bottom: "Convolution11"
  top: "Convolution11"
  param {
    lr_mult: 0
    decay_mult: 0
  }
  param {
    lr_mult: 0
    decay_mult: 0
  }
  param {
    lr_mult: 0
    decay_mult: 0
  }
}
layer {
  name: "Scale11"
  type: "Scale"
  bottom: "Convolution11"
  top: "Convolution11"
  scale_param {
    bias_term: true
  }
}
layer {
  name: "Eltwise5"
  type: "Eltwise"
  bottom: "Eltwise4"
  bottom: "Convolution11"
  top: "Eltwise5"
  eltwise_param {
    operation: SUM
  }
}
layer {
  name: "M2PELU11"
  type: "M2PELU"
  bottom: "Eltwise5"
  top: "Eltwise5"
  param {
    lr_mult: 2
    decay_mult: 2
  }
  param {
    lr_mult: 2
    decay_mult: 2
  }
  m2pelu_param {
    alpha_filler {
      type: "constant"
      value: 2
    }
    beta_filler {
      type: "constant"
      value: 1
    }
  }
}
layer {
  name: "Convolution12"
  type: "Convolution"
  bottom: "Eltwise5"
  top: "Convolution12"
  param {
    lr_mult: 1
    decay_mult: 1
  }
  param {
    lr_mult: 2
    decay_mult: 0
  }
  convolution_param {
    num_output: 16
    pad: 1
    kernel_size: 3
    stride: 1
    weight_filler {
      type: "gaussian"
      std: 0.118
    }
    bias_filler {
      type: "constant"
      value: 0
    }
  }
}
layer {
  name: "BatchNorm12"
  type: "BatchNorm"
  bottom: "Convolution12"
  top: "Convolution12"
  param {
    lr_mult: 0
    decay_mult: 0
  }
  param {
    lr_mult: 0
    decay_mult: 0
  }
  param {
    lr_mult: 0
    decay_mult: 0
  }
}
layer {
  name: "Scale12"
  type: "Scale"
  bottom: "Convolution12"
  top: "Convolution12"
  scale_param {
    bias_term: true
  }
}
layer {
  name: "M2PELU12"
  type: "M2PELU"
  bottom: "Convolution12"
  top: "Convolution12"
  param {
    lr_mult: 2
    decay_mult: 2
  }
  param {
    lr_mult: 2
    decay_mult: 2
  }
  m2pelu_param {
    alpha_filler {
      type: "constant"
      value: 2
    }
    beta_filler {
      type: "constant"
      value: 1
    }
  }
}
layer {
  name: "Convolution13"
  type: "Convolution"
  bottom: "Convolution12"
  top: "Convolution13"
  param {
    lr_mult: 1
    decay_mult: 1
  }
  param {
    lr_mult: 2
    decay_mult: 0
  }
  convolution_param {
    num_output: 16
    pad: 1
    kernel_size: 3
    stride: 1
    weight_filler {
      type: "gaussian"
      std: 0.118
    }
    bias_filler {
      type: "constant"
      value: 0
    }
  }
}
layer {
  name: "BatchNorm13"
  type: "BatchNorm"
  bottom: "Convolution13"
  top: "Convolution13"
  param {
    lr_mult: 0
    decay_mult: 0
  }
  param {
    lr_mult: 0
    decay_mult: 0
  }
  param {
    lr_mult: 0
    decay_mult: 0
  }
}
layer {
  name: "Scale13"
  type: "Scale"
  bottom: "Convolution13"
  top: "Convolution13"
  scale_param {
    bias_term: true
  }
}
layer {
  name: "Eltwise6"
  type: "Eltwise"
  bottom: "Eltwise5"
  bottom: "Convolution13"
  top: "Eltwise6"
  eltwise_param {
    operation: SUM
  }
}
layer {
  name: "M2PELU13"
  type: "M2PELU"
  bottom: "Eltwise6"
  top: "Eltwise6"
  param {
    lr_mult: 2
    decay_mult: 2
  }
  param {
    lr_mult: 2
    decay_mult: 2
  }
  m2pelu_param {
    alpha_filler {
      type: "constant"
      value: 2
    }
    beta_filler {
      type: "constant"
      value: 1
    }
  }
}
layer {
  name: "Convolution14"
  type: "Convolution"
  bottom: "Eltwise6"
  top: "Convolution14"
  param {
    lr_mult: 1
    decay_mult: 1
  }
  param {
    lr_mult: 2
    decay_mult: 0
  }
  convolution_param {
    num_output: 16
    pad: 1
    kernel_size: 3
    stride: 1
    weight_filler {
      type: "gaussian"
      std: 0.118
    }
    bias_filler {
      type: "constant"
      value: 0
    }
  }
}
layer {
  name: "BatchNorm14"
  type: "BatchNorm"
  bottom: "Convolution14"
  top: "Convolution14"
  param {
    lr_mult: 0
    decay_mult: 0
  }
  param {
    lr_mult: 0
    decay_mult: 0
  }
  param {
    lr_mult: 0
    decay_mult: 0
  }
}
layer {
  name: "Scale14"
  type: "Scale"
  bottom: "Convolution14"
  top: "Convolution14"
  scale_param {
    bias_term: true
  }
}
layer {
  name: "M2PELU14"
  type: "M2PELU"
  bottom: "Convolution14"
  top: "Convolution14"
  param {
    lr_mult: 2
    decay_mult: 2
  }
  param {
    lr_mult: 2
    decay_mult: 2
  }
  m2pelu_param {
    alpha_filler {
      type: "constant"
      value: 2
    }
    beta_filler {
      type: "constant"
      value: 1
    }
  }
}
layer {
  name: "Convolution15"
  type: "Convolution"
  bottom: "Convolution14"
  top: "Convolution15"
  param {
    lr_mult: 1
    decay_mult: 1
  }
  param {
    lr_mult: 2
    decay_mult: 0
  }
  convolution_param {
    num_output: 16
    pad: 1
    kernel_size: 3
    stride: 1
    weight_filler {
      type: "gaussian"
      std: 0.118
    }
    bias_filler {
      type: "constant"
      value: 0
    }
  }
}
layer {
  name: "BatchNorm15"
  type: "BatchNorm"
  bottom: "Convolution15"
  top: "Convolution15"
  param {
    lr_mult: 0
    decay_mult: 0
  }
  param {
    lr_mult: 0
    decay_mult: 0
  }
  param {
    lr_mult: 0
    decay_mult: 0
  }
}
layer {
  name: "Scale15"
  type: "Scale"
  bottom: "Convolution15"
  top: "Convolution15"
  scale_param {
    bias_term: true
  }
}
layer {
  name: "Eltwise7"
  type: "Eltwise"
  bottom: "Eltwise6"
  bottom: "Convolution15"
  top: "Eltwise7"
  eltwise_param {
    operation: SUM
  }
}
layer {
  name: "M2PELU15"
  type: "M2PELU"
  bottom: "Eltwise7"
  top: "Eltwise7"
  param {
    lr_mult: 2
    decay_mult: 2
  }
  param {
    lr_mult: 2
    decay_mult: 2
  }
  m2pelu_param {
    alpha_filler {
      type: "constant"
      value: 2
    }
    beta_filler {
      type: "constant"
      value: 1
    }
  }
}
layer {
  name: "Convolution16"
  type: "Convolution"
  bottom: "Eltwise7"
  top: "Convolution16"
  param {
    lr_mult: 1
    decay_mult: 1
  }
  param {
    lr_mult: 2
    decay_mult: 0
  }
  convolution_param {
    num_output: 16
    pad: 1
    kernel_size: 3
    stride: 1
    weight_filler {
      type: "gaussian"
      std: 0.118
    }
    bias_filler {
      type: "constant"
      value: 0
    }
  }
}
layer {
  name: "BatchNorm16"
  type: "BatchNorm"
  bottom: "Convolution16"
  top: "Convolution16"
  param {
    lr_mult: 0
    decay_mult: 0
  }
  param {
    lr_mult: 0
    decay_mult: 0
  }
  param {
    lr_mult: 0
    decay_mult: 0
  }
}
layer {
  name: "Scale16"
  type: "Scale"
  bottom: "Convolution16"
  top: "Convolution16"
  scale_param {
    bias_term: true
  }
}
layer {
  name: "M2PELU16"
  type: "M2PELU"
  bottom: "Convolution16"
  top: "Convolution16"
  param {
    lr_mult: 2
    decay_mult: 2
  }
  param {
    lr_mult: 2
    decay_mult: 2
  }
  m2pelu_param {
    alpha_filler {
      type: "constant"
      value: 2
    }
    beta_filler {
      type: "constant"
      value: 1
    }
  }
}
layer {
  name: "Convolution17"
  type: "Convolution"
  bottom: "Convolution16"
  top: "Convolution17"
  param {
    lr_mult: 1
    decay_mult: 1
  }
  param {
    lr_mult: 2
    decay_mult: 0
  }
  convolution_param {
    num_output: 16
    pad: 1
    kernel_size: 3
    stride: 1
    weight_filler {
      type: "gaussian"
      std: 0.118
    }
    bias_filler {
      type: "constant"
      value: 0
    }
  }
}
layer {
  name: "BatchNorm17"
  type: "BatchNorm"
  bottom: "Convolution17"
  top: "Convolution17"
  param {
    lr_mult: 0
    decay_mult: 0
  }
  param {
    lr_mult: 0
    decay_mult: 0
  }
  param {
    lr_mult: 0
    decay_mult: 0
  }
}
layer {
  name: "Scale17"
  type: "Scale"
  bottom: "Convolution17"
  top: "Convolution17"
  scale_param {
    bias_term: true
  }
}
layer {
  name: "Eltwise8"
  type: "Eltwise"
  bottom: "Eltwise7"
  bottom: "Convolution17"
  top: "Eltwise8"
  eltwise_param {
    operation: SUM
  }
}
layer {
  name: "M2PELU17"
  type: "M2PELU"
  bottom: "Eltwise8"
  top: "Eltwise8"
  param {
    lr_mult: 2
    decay_mult: 2
  }
  param {
    lr_mult: 2
    decay_mult: 2
  }
  m2pelu_param {
    alpha_filler {
      type: "constant"
      value: 2
    }
    beta_filler {
      type: "constant"
      value: 1
    }
  }
}
layer {
  name: "Convolution18"
  type: "Convolution"
  bottom: "Eltwise8"
  top: "Convolution18"
  param {
    lr_mult: 1
    decay_mult: 1
  }
  param {
    lr_mult: 2
    decay_mult: 0
  }
  convolution_param {
    num_output: 16
    pad: 1
    kernel_size: 3
    stride: 1
    weight_filler {
      type: "gaussian"
      std: 0.118
    }
    bias_filler {
      type: "constant"
      value: 0
    }
  }
}
layer {
  name: "BatchNorm18"
  type: "BatchNorm"
  bottom: "Convolution18"
  top: "Convolution18"
  param {
    lr_mult: 0
    decay_mult: 0
  }
  param {
    lr_mult: 0
    decay_mult: 0
  }
  param {
    lr_mult: 0
    decay_mult: 0
  }
}
layer {
  name: "Scale18"
  type: "Scale"
  bottom: "Convolution18"
  top: "Convolution18"
  scale_param {
    bias_term: true
  }
}
layer {
  name: "M2PELU18"
  type: "M2PELU"
  bottom: "Convolution18"
  top: "Convolution18"
  param {
    lr_mult: 2
    decay_mult: 2
  }
  param {
    lr_mult: 2
    decay_mult: 2
  }
  m2pelu_param {
    alpha_filler {
      type: "constant"
      value: 2
    }
    beta_filler {
      type: "constant"
      value: 1
    }
  }
}
layer {
  name: "Convolution19"
  type: "Convolution"
  bottom: "Convolution18"
  top: "Convolution19"
  param {
    lr_mult: 1
    decay_mult: 1
  }
  param {
    lr_mult: 2
    decay_mult: 0
  }
  convolution_param {
    num_output: 16
    pad: 1
    kernel_size: 3
    stride: 1
    weight_filler {
      type: "gaussian"
      std: 0.118
    }
    bias_filler {
      type: "constant"
      value: 0
    }
  }
}
layer {
  name: "BatchNorm19"
  type: "BatchNorm"
  bottom: "Convolution19"
  top: "Convolution19"
  param {
    lr_mult: 0
    decay_mult: 0
  }
  param {
    lr_mult: 0
    decay_mult: 0
  }
  param {
    lr_mult: 0
    decay_mult: 0
  }
}
layer {
  name: "Scale19"
  type: "Scale"
  bottom: "Convolution19"
  top: "Convolution19"
  scale_param {
    bias_term: true
  }
}
layer {
  name: "Eltwise9"
  type: "Eltwise"
  bottom: "Eltwise8"
  bottom: "Convolution19"
  top: "Eltwise9"
  eltwise_param {
    operation: SUM
  }
}
layer {
  name: "M2PELU19"
  type: "M2PELU"
  bottom: "Eltwise9"
  top: "Eltwise9"
  param {
    lr_mult: 2
    decay_mult: 2
  }
  param {
    lr_mult: 2
    decay_mult: 2
  }
  m2pelu_param {
    alpha_filler {
      type: "constant"
      value: 2
    }
    beta_filler {
      type: "constant"
      value: 1
    }
  }
}
layer {
  name: "Convolution20"
  type: "Convolution"
  bottom: "Eltwise9"
  top: "Convolution20"
  param {
    lr_mult: 1
    decay_mult: 1
  }
  param {
    lr_mult: 2
    decay_mult: 0
  }
  convolution_param {
    num_output: 32
    pad: 0
    kernel_size: 1
    stride: 2
    weight_filler {
      type: "gaussian"
      std: 0.25
    }
    bias_filler {
      type: "constant"
      value: 0
    }
  }
}
layer {
  name: "BatchNorm20"
  type: "BatchNorm"
  bottom: "Convolution20"
  top: "Convolution20"
  param {
    lr_mult: 0
    decay_mult: 0
  }
  param {
    lr_mult: 0
    decay_mult: 0
  }
  param {
    lr_mult: 0
    decay_mult: 0
  }
}
layer {
  name: "Scale20"
  type: "Scale"
  bottom: "Convolution20"
  top: "Convolution20"
  scale_param {
    bias_term: true
  }
}
layer {
  name: "Convolution21"
  type: "Convolution"
  bottom: "Eltwise9"
  top: "Convolution21"
  param {
    lr_mult: 1
    decay_mult: 1
  }
  param {
    lr_mult: 2
    decay_mult: 0
  }
  convolution_param {
    num_output: 32
    pad: 1
    kernel_size: 3
    stride: 2
    weight_filler {
      type: "gaussian"
      std: 0.083
    }
    bias_filler {
      type: "constant"
      value: 0
    }
  }
}
layer {
  name: "BatchNorm21"
  type: "BatchNorm"
  bottom: "Convolution21"
  top: "Convolution21"
  param {
    lr_mult: 0
    decay_mult: 0
  }
  param {
    lr_mult: 0
    decay_mult: 0
  }
  param {
    lr_mult: 0
    decay_mult: 0
  }
}
layer {
  name: "Scale21"
  type: "Scale"
  bottom: "Convolution21"
  top: "Convolution21"
  scale_param {
    bias_term: true
  }
}
layer {
  name: "M2PELU20"
  type: "M2PELU"
  bottom: "Convolution21"
  top: "Convolution21"
  param {
    lr_mult: 2
    decay_mult: 2
  }
  param {
    lr_mult: 2
    decay_mult: 2
  }
  m2pelu_param {
    alpha_filler {
      type: "constant"
      value: 2
    }
    beta_filler {
      type: "constant"
      value: 1
    }
  }
}
layer {
  name: "Convolution22"
  type: "Convolution"
  bottom: "Convolution21"
  top: "Convolution22"
  param {
    lr_mult: 1
    decay_mult: 1
  }
  param {
    lr_mult: 2
    decay_mult: 0
  }
  convolution_param {
    num_output: 32
    pad: 1
    kernel_size: 3
    stride: 1
    weight_filler {
      type: "gaussian"
      std: 0.083
    }
    bias_filler {
      type: "constant"
      value: 0
    }
  }
}
layer {
  name: "BatchNorm22"
  type: "BatchNorm"
  bottom: "Convolution22"
  top: "Convolution22"
  param {
    lr_mult: 0
    decay_mult: 0
  }
  param {
    lr_mult: 0
    decay_mult: 0
  }
  param {
    lr_mult: 0
    decay_mult: 0
  }
}
layer {
  name: "Scale22"
  type: "Scale"
  bottom: "Convolution22"
  top: "Convolution22"
  scale_param {
    bias_term: true
  }
}
layer {
  name: "Eltwise10"
  type: "Eltwise"
  bottom: "Convolution20"
  bottom: "Convolution22"
  top: "Eltwise10"
  eltwise_param {
    operation: SUM
  }
}
layer {
  name: "M2PELU21"
  type: "M2PELU"
  bottom: "Eltwise10"
  top: "Eltwise10"
  param {
    lr_mult: 2
    decay_mult: 2
  }
  param {
    lr_mult: 2
    decay_mult: 2
  }
  m2pelu_param {
    alpha_filler {
      type: "constant"
      value: 2
    }
    beta_filler {
      type: "constant"
      value: 1
    }
  }
}
layer {
  name: "Convolution23"
  type: "Convolution"
  bottom: "Eltwise10"
  top: "Convolution23"
  param {
    lr_mult: 1
    decay_mult: 1
  }
  param {
    lr_mult: 2
    decay_mult: 0
  }
  convolution_param {
    num_output: 32
    pad: 1
    kernel_size: 3
    stride: 1
    weight_filler {
      type: "gaussian"
      std: 0.083
    }
    bias_filler {
      type: "constant"
      value: 0
    }
  }
}
layer {
  name: "BatchNorm23"
  type: "BatchNorm"
  bottom: "Convolution23"
  top: "Convolution23"
  param {
    lr_mult: 0
    decay_mult: 0
  }
  param {
    lr_mult: 0
    decay_mult: 0
  }
  param {
    lr_mult: 0
    decay_mult: 0
  }
}
layer {
  name: "Scale23"
  type: "Scale"
  bottom: "Convolution23"
  top: "Convolution23"
  scale_param {
    bias_term: true
  }
}
layer {
  name: "M2PELU22"
  type: "M2PELU"
  bottom: "Convolution23"
  top: "Convolution23"
  param {
    lr_mult: 2
    decay_mult: 2
  }
  param {
    lr_mult: 2
    decay_mult: 2
  }
  m2pelu_param {
    alpha_filler {
      type: "constant"
      value: 2
    }
    beta_filler {
      type: "constant"
      value: 1
    }
  }
}
layer {
  name: "Convolution24"
  type: "Convolution"
  bottom: "Convolution23"
  top: "Convolution24"
  param {
    lr_mult: 1
    decay_mult: 1
  }
  param {
    lr_mult: 2
    decay_mult: 0
  }
  convolution_param {
    num_output: 32
    pad: 1
    kernel_size: 3
    stride: 1
    weight_filler {
      type: "gaussian"
      std: 0.083
    }
    bias_filler {
      type: "constant"
      value: 0
    }
  }
}
layer {
  name: "BatchNorm24"
  type: "BatchNorm"
  bottom: "Convolution24"
  top: "Convolution24"
  param {
    lr_mult: 0
    decay_mult: 0
  }
  param {
    lr_mult: 0
    decay_mult: 0
  }
  param {
    lr_mult: 0
    decay_mult: 0
  }
}
layer {
  name: "Scale24"
  type: "Scale"
  bottom: "Convolution24"
  top: "Convolution24"
  scale_param {
    bias_term: true
  }
}
layer {
  name: "Eltwise11"
  type: "Eltwise"
  bottom: "Eltwise10"
  bottom: "Convolution24"
  top: "Eltwise11"
  eltwise_param {
    operation: SUM
  }
}
layer {
  name: "M2PELU23"
  type: "M2PELU"
  bottom: "Eltwise11"
  top: "Eltwise11"
  param {
    lr_mult: 2
    decay_mult: 2
  }
  param {
    lr_mult: 2
    decay_mult: 2
  }
  m2pelu_param {
    alpha_filler {
      type: "constant"
      value: 2
    }
    beta_filler {
      type: "constant"
      value: 1
    }
  }
}
layer {
  name: "Convolution25"
  type: "Convolution"
  bottom: "Eltwise11"
  top: "Convolution25"
  param {
    lr_mult: 1
    decay_mult: 1
  }
  param {
    lr_mult: 2
    decay_mult: 0
  }
  convolution_param {
    num_output: 32
    pad: 1
    kernel_size: 3
    stride: 1
    weight_filler {
      type: "gaussian"
      std: 0.083
    }
    bias_filler {
      type: "constant"
      value: 0
    }
  }
}
layer {
  name: "BatchNorm25"
  type: "BatchNorm"
  bottom: "Convolution25"
  top: "Convolution25"
  param {
    lr_mult: 0
    decay_mult: 0
  }
  param {
    lr_mult: 0
    decay_mult: 0
  }
  param {
    lr_mult: 0
    decay_mult: 0
  }
}
layer {
  name: "Scale25"
  type: "Scale"
  bottom: "Convolution25"
  top: "Convolution25"
  scale_param {
    bias_term: true
  }
}
layer {
  name: "M2PELU24"
  type: "M2PELU"
  bottom: "Convolution25"
  top: "Convolution25"
  param {
    lr_mult: 2
    decay_mult: 2
  }
  param {
    lr_mult: 2
    decay_mult: 2
  }
  m2pelu_param {
    alpha_filler {
      type: "constant"
      value: 2
    }
    beta_filler {
      type: "constant"
      value: 1
    }
  }
}
layer {
  name: "Convolution26"
  type: "Convolution"
  bottom: "Convolution25"
  top: "Convolution26"
  param {
    lr_mult: 1
    decay_mult: 1
  }
  param {
    lr_mult: 2
    decay_mult: 0
  }
  convolution_param {
    num_output: 32
    pad: 1
I0927 19:02:45.908262  3577 layer_factory.hpp:77] Creating layer Data1
I0927 19:02:45.908347  3577 db_lmdb.cpp:35] Opened lmdb /home/x306/caffe/xn/PENLU/data/cifar10/cifar10_train_lmdb
I0927 19:02:45.908366  3577 net.cpp:84] Creating Layer Data1
I0927 19:02:45.908372  3577 net.cpp:380] Data1 -> Data1
I0927 19:02:45.908390  3577 net.cpp:380] Data1 -> Data2
I0927 19:02:45.908398  3577 data_transformer.cpp:25] Loading mean file from: /home/x306/caffe/xn/PENLU/data/cifar10/mean.binaryproto
I0927 19:02:45.909765  3577 data_layer.cpp:45] output data size: 100,3,28,28
I0927 19:02:45.912030  3577 net.cpp:122] Setting up Data1
I0927 19:02:45.912044  3577 net.cpp:129] Top shape: 100 3 28 28 (235200)
I0927 19:02:45.912047  3577 net.cpp:129] Top shape: 100 (100)
I0927 19:02:45.912050  3577 net.cpp:137] Memory required for data: 941200
I0927 19:02:45.912055  3577 layer_factory.hpp:77] Creating layer Convolution1
I0927 19:02:45.912075  3577 net.cpp:84] Creating Layer Convolution1
I0927 19:02:45.912078  3577 net.cpp:406] Convolution1 <- Data1
I0927 19:02:45.912086  3577 net.cpp:380] Convolution1 -> Convolution1
I0927 19:02:46.056326  3577 net.cpp:122] Setting up Convolution1
I0927 19:02:46.056351  3577 net.cpp:129] Top shape: 100 16 28 28 (1254400)
I0927 19:02:46.056356  3577 net.cpp:137] Memory required for data: 5958800
I0927 19:02:46.056375  3577 layer_factory.hpp:77] Creating layer BatchNorm1
I0927 19:02:46.056403  3577 net.cpp:84] Creating Layer BatchNorm1
I0927 19:02:46.056411  3577 net.cpp:406] BatchNorm1 <- Convolution1
I0927 19:02:46.056452  3577 net.cpp:367] BatchNorm1 -> Convolution1 (in-place)
I0927 19:02:46.056615  3577 net.cpp:122] Setting up BatchNorm1
I0927 19:02:46.056623  3577 net.cpp:129] Top shape: 100 16 28 28 (1254400)
I0927 19:02:46.056628  3577 net.cpp:137] Memory required for data: 10976400
I0927 19:02:46.056640  3577 layer_factory.hpp:77] Creating layer Scale1
I0927 19:02:46.056674  3577 net.cpp:84] Creating Layer Scale1
I0927 19:02:46.056679  3577 net.cpp:406] Scale1 <- Convolution1
I0927 19:02:46.056696  3577 net.cpp:367] Scale1 -> Convolution1 (in-place)
I0927 19:02:46.056761  3577 layer_factory.hpp:77] Creating layer Scale1
I0927 19:02:46.056884  3577 net.cpp:122] Setting up Scale1
I0927 19:02:46.056890  3577 net.cpp:129] Top shape: 100 16 28 28 (1254400)
I0927 19:02:46.056895  3577 net.cpp:137] Memory required for data: 15994000
I0927 19:02:46.056902  3577 layer_factory.hpp:77] Creating layer M2PELU1
I0927 19:02:46.056924  3577 net.cpp:84] Creating Layer M2PELU1
I0927 19:02:46.056928  3577 net.cpp:406] M2PELU1 <- Convolution1
I0927 19:02:46.056944  3577 net.cpp:367] M2PELU1 -> Convolution1 (in-place)
I0927 19:02:46.057541  3577 net.cpp:122] Setting up M2PELU1
I0927 19:02:46.057552  3577 net.cpp:129] Top shape: 100 16 28 28 (1254400)
I0927 19:02:46.057556  3577 net.cpp:137] Memory required for data: 21011600
I0927 19:02:46.057567  3577 layer_factory.hpp:77] Creating layer Convolution1_M2PELU1_0_split
I0927 19:02:46.057587  3577 net.cpp:84] Creating Layer Convolution1_M2PELU1_0_split
I0927 19:02:46.057601  3577 net.cpp:406] Convolution1_M2PELU1_0_split <- Convolution1
I0927 19:02:46.057621  3577 net.cpp:380] Convolution1_M2PELU1_0_split -> Convolution1_M2PELU1_0_split_0
I0927 19:02:46.057637  3577 net.cpp:380] Convolution1_M2PELU1_0_split -> Convolution1_M2PELU1_0_split_1
I0927 19:02:46.057687  3577 net.cpp:122] Setting up Convolution1_M2PELU1_0_split
I0927 19:02:46.057703  3577 net.cpp:129] Top shape: 100 16 28 28 (1254400)
I0927 19:02:46.057719  3577 net.cpp:129] Top shape: 100 16 28 28 (1254400)
I0927 19:02:46.057724  3577 net.cpp:137] Memory required for data: 31046800
I0927 19:02:46.057729  3577 layer_factory.hpp:77] Creating layer Convolution2
I0927 19:02:46.057754  3577 net.cpp:84] Creating Layer Convolution2
I0927 19:02:46.057770  3577 net.cpp:406] Convolution2 <- Convolution1_M2PELU1_0_split_0
I0927 19:02:46.057777  3577 net.cpp:380] Convolution2 -> Convolution2
I0927 19:02:46.058667  3577 net.cpp:122] Setting up Convolution2
I0927 19:02:46.058678  3577 net.cpp:129] Top shape: 100 16 28 28 (1254400)
I0927 19:02:46.058683  3577 net.cpp:137] Memory required for data: 36064400
I0927 19:02:46.058701  3577 layer_factory.hpp:77] Creating layer BatchNorm2
I0927 19:02:46.058723  3577 net.cpp:84] Creating Layer BatchNorm2
I0927 19:02:46.058737  3577 net.cpp:406] BatchNorm2 <- Convolution2
I0927 19:02:46.058754  3577 net.cpp:367] BatchNorm2 -> Convolution2 (in-place)
I0927 19:02:46.058892  3577 net.cpp:122] Setting up BatchNorm2
I0927 19:02:46.058899  3577 net.cpp:129] Top shape: 100 16 28 28 (1254400)
I0927 19:02:46.058912  3577 net.cpp:137] Memory required for data: 41082000
I0927 19:02:46.058923  3577 layer_factory.hpp:77] Creating layer Scale2
I0927 19:02:46.058930  3577 net.cpp:84] Creating Layer Scale2
I0927 19:02:46.058935  3577 net.cpp:406] Scale2 <- Convolution2
I0927 19:02:46.058941  3577 net.cpp:367] Scale2 -> Convolution2 (in-place)
I0927 19:02:46.058971  3577 layer_factory.hpp:77] Creating layer Scale2
I0927 19:02:46.059047  3577 net.cpp:122] Setting up Scale2
I0927 19:02:46.059054  3577 net.cpp:129] Top shape: 100 16 28 28 (1254400)
I0927 19:02:46.059058  3577 net.cpp:137] Memory required for data: 46099600
I0927 19:02:46.059067  3577 layer_factory.hpp:77] Creating layer M2PELU2
I0927 19:02:46.059075  3577 net.cpp:84] Creating Layer M2PELU2
I0927 19:02:46.059080  3577 net.cpp:406] M2PELU2 <- Convolution2
I0927 19:02:46.059087  3577 net.cpp:367] M2PELU2 -> Convolution2 (in-place)
I0927 19:02:46.059167  3577 net.cpp:122] Setting up M2PELU2
I0927 19:02:46.059175  3577 net.cpp:129] Top shape: 100 16 28 28 (1254400)
I0927 19:02:46.059187  3577 net.cpp:137] Memory required for data: 51117200
I0927 19:02:46.059200  3577 layer_factory.hpp:77] Creating layer Convolution3
I0927 19:02:46.059209  3577 net.cpp:84] Creating Layer Convolution3
I0927 19:02:46.059214  3577 net.cpp:406] Convolution3 <- Convolution2
I0927 19:02:46.059221  3577 net.cpp:380] Convolution3 -> Convolution3
I0927 19:02:46.060091  3577 net.cpp:122] Setting up Convolution3
I0927 19:02:46.060102  3577 net.cpp:129] Top shape: 100 16 28 28 (1254400)
I0927 19:02:46.060107  3577 net.cpp:137] Memory required for data: 56134800
I0927 19:02:46.060115  3577 layer_factory.hpp:77] Creating layer BatchNorm3
I0927 19:02:46.060125  3577 net.cpp:84] Creating Layer BatchNorm3
I0927 19:02:46.060130  3577 net.cpp:406] BatchNorm3 <- Convolution3
I0927 19:02:46.060137  3577 net.cpp:367] BatchNorm3 -> Convolution3 (in-place)
I0927 19:02:46.060267  3577 net.cpp:122] Setting up BatchNorm3
I0927 19:02:46.060276  3577 net.cpp:129] Top shape: 100 16 28 28 (1254400)
I0927 19:02:46.060279  3577 net.cpp:137] Memory required for data: 61152400
I0927 19:02:46.060288  3577 layer_factory.hpp:77] Creating layer Scale3
I0927 19:02:46.060294  3577 net.cpp:84] Creating Layer Scale3
I0927 19:02:46.060300  3577 net.cpp:406] Scale3 <- Convolution3
I0927 19:02:46.060307  3577 net.cpp:367] Scale3 -> Convolution3 (in-place)
I0927 19:02:46.060338  3577 layer_factory.hpp:77] Creating layer Scale3
I0927 19:02:46.060418  3577 net.cpp:122] Setting up Scale3
I0927 19:02:46.060425  3577 net.cpp:129] Top shape: 100 16 28 28 (1254400)
I0927 19:02:46.060431  3577 net.cpp:137] Memory required for data: 66170000
I0927 19:02:46.060437  3577 layer_factory.hpp:77] Creating layer Eltwise1
I0927 19:02:46.060446  3577 net.cpp:84] Creating Layer Eltwise1
I0927 19:02:46.060451  3577 net.cpp:406] Eltwise1 <- Convolution1_M2PELU1_0_split_1
I0927 19:02:46.060456  3577 net.cpp:406] Eltwise1 <- Convolution3
I0927 19:02:46.060462  3577 net.cpp:380] Eltwise1 -> Eltwise1
I0927 19:02:46.060485  3577 net.cpp:122] Setting up Eltwise1
I0927 19:02:46.060492  3577 net.cpp:129] Top shape: 100 16 28 28 (1254400)
I0927 19:02:46.060497  3577 net.cpp:137] Memory required for data: 71187600
I0927 19:02:46.060500  3577 layer_factory.hpp:77] Creating layer M2PELU3
I0927 19:02:46.060509  3577 net.cpp:84] Creating Layer M2PELU3
I0927 19:02:46.060513  3577 net.cpp:406] M2PELU3 <- Eltwise1
I0927 19:02:46.060520  3577 net.cpp:367] M2PELU3 -> Eltwise1 (in-place)
I0927 19:02:46.060603  3577 net.cpp:122] Setting up M2PELU3
I0927 19:02:46.060611  3577 net.cpp:129] Top shape: 100 16 28 28 (1254400)
I0927 19:02:46.060614  3577 net.cpp:137] Memory required for data: 76205200
I0927 19:02:46.060621  3577 layer_factory.hpp:77] Creating layer Eltwise1_M2PELU3_0_split
I0927 19:02:46.060628  3577 net.cpp:84] Creating Layer Eltwise1_M2PELU3_0_split
I0927 19:02:46.060633  3577 net.cpp:406] Eltwise1_M2PELU3_0_split <- Eltwise1
I0927 19:02:46.060638  3577 net.cpp:380] Eltwise1_M2PELU3_0_split -> Eltwise1_M2PELU3_0_split_0
I0927 19:02:46.060648  3577 net.cpp:380] Eltwise1_M2PELU3_0_split -> Eltwise1_M2PELU3_0_split_1
I0927 19:02:46.060675  3577 net.cpp:122] Setting up Eltwise1_M2PELU3_0_split
I0927 19:02:46.060683  3577 net.cpp:129] Top shape: 100 16 28 28 (1254400)
I0927 19:02:46.060689  3577 net.cpp:129] Top shape: 100 16 28 28 (1254400)
I0927 19:02:46.060694  3577 net.cpp:137] Memory required for data: 86240400
I0927 19:02:46.060698  3577 layer_factory.hpp:77] Creating layer Convolution4
I0927 19:02:46.060710  3577 net.cpp:84] Creating Layer Convolution4
I0927 19:02:46.060715  3577 net.cpp:406] Convolution4 <- Eltwise1_M2PELU3_0_split_0
I0927 19:02:46.060722  3577 net.cpp:380] Convolution4 -> Convolution4
I0927 19:02:46.061591  3577 net.cpp:122] Setting up Convolution4
I0927 19:02:46.061602  3577 net.cpp:129] Top shape: 100 16 28 28 (1254400)
I0927 19:02:46.061607  3577 net.cpp:137] Memory required for data: 91258000
I0927 19:02:46.061615  3577 layer_factory.hpp:77] Creating layer BatchNorm4
I0927 19:02:46.061625  3577 net.cpp:84] Creating Layer BatchNorm4
I0927 19:02:46.061637  3577 net.cpp:406] BatchNorm4 <- Convolution4
I0927 19:02:46.061646  3577 net.cpp:367] BatchNorm4 -> Convolution4 (in-place)
I0927 19:02:46.061774  3577 net.cpp:122] Setting up BatchNorm4
I0927 19:02:46.061781  3577 net.cpp:129] Top shape: 100 16 28 28 (1254400)
I0927 19:02:46.061785  3577 net.cpp:137] Memory required for data: 96275600
I0927 19:02:46.061794  3577 layer_factory.hpp:77] Creating layer Scale4
I0927 19:02:46.061802  3577 net.cpp:84] Creating Layer Scale4
I0927 19:02:46.061807  3577 net.cpp:406] Scale4 <- Convolution4
I0927 19:02:46.061813  3577 net.cpp:367] Scale4 -> Convolution4 (in-place)
I0927 19:02:46.061844  3577 layer_factory.hpp:77] Creating layer Scale4
I0927 19:02:46.061924  3577 net.cpp:122] Setting up Scale4
I0927 19:02:46.061931  3577 net.cpp:129] Top shape: 100 16 28 28 (1254400)
I0927 19:02:46.061935  3577 net.cpp:137] Memory required for data: 101293200
I0927 19:02:46.061947  3577 layer_factory.hpp:77] Creating layer M2PELU4
I0927 19:02:46.061955  3577 net.cpp:84] Creating Layer M2PELU4
I0927 19:02:46.061960  3577 net.cpp:406] M2PELU4 <- Convolution4
I0927 19:02:46.061969  3577 net.cpp:367] M2PELU4 -> Convolution4 (in-place)
I0927 19:02:46.062052  3577 net.cpp:122] Setting up M2PELU4
I0927 19:02:46.062059  3577 net.cpp:129] Top shape: 100 16 28 28 (1254400)
I0927 19:02:46.062063  3577 net.cpp:137] Memory required for data: 106310800
I0927 19:02:46.062070  3577 layer_factory.hpp:77] Creating layer Convolution5
I0927 19:02:46.062081  3577 net.cpp:84] Creating Layer Convolution5
I0927 19:02:46.062086  3577 net.cpp:406] Convolution5 <- Convolution4
I0927 19:02:46.062094  3577 net.cpp:380] Convolution5 -> Convolution5
I0927 19:02:46.062968  3577 net.cpp:122] Setting up Convolution5
I0927 19:02:46.062979  3577 net.cpp:129] Top shape: 100 16 28 28 (1254400)
I0927 19:02:46.062984  3577 net.cpp:137] Memory required for data: 111328400
I0927 19:02:46.062991  3577 layer_factory.hpp:77] Creating layer BatchNorm5
I0927 19:02:46.063001  3577 net.cpp:84] Creating Layer BatchNorm5
I0927 19:02:46.063007  3577 net.cpp:406] BatchNorm5 <- Convolution5
I0927 19:02:46.063015  3577 net.cpp:367] BatchNorm5 -> Convolution5 (in-place)
I0927 19:02:46.063143  3577 net.cpp:122] Setting up BatchNorm5
I0927 19:02:46.063150  3577 net.cpp:129] Top shape: 100 16 28 28 (1254400)
I0927 19:02:46.063154  3577 net.cpp:137] Memory required for data: 116346000
I0927 19:02:46.063163  3577 layer_factory.hpp:77] Creating layer Scale5
I0927 19:02:46.063171  3577 net.cpp:84] Creating Layer Scale5
I0927 19:02:46.063176  3577 net.cpp:406] Scale5 <- Convolution5
I0927 19:02:46.063184  3577 net.cpp:367] Scale5 -> Convolution5 (in-place)
I0927 19:02:46.063215  3577 layer_factory.hpp:77] Creating layer Scale5
I0927 19:02:46.063297  3577 net.cpp:122] Setting up Scale5
I0927 19:02:46.063304  3577 net.cpp:129] Top shape: 100 16 28 28 (1254400)
I0927 19:02:46.063308  3577 net.cpp:137] Memory required for data: 121363600
I0927 19:02:46.063315  3577 layer_factory.hpp:77] Creating layer Eltwise2
I0927 19:02:46.063324  3577 net.cpp:84] Creating Layer Eltwise2
I0927 19:02:46.063329  3577 net.cpp:406] Eltwise2 <- Eltwise1_M2PELU3_0_split_1
I0927 19:02:46.063334  3577 net.cpp:406] Eltwise2 <- Convolution5
I0927 19:02:46.063340  3577 net.cpp:380] Eltwise2 -> Eltwise2
I0927 19:02:46.063362  3577 net.cpp:122] Setting up Eltwise2
I0927 19:02:46.063369  3577 net.cpp:129] Top shape: 100 16 28 28 (1254400)
I0927 19:02:46.063374  3577 net.cpp:137] Memory required for data: 126381200
I0927 19:02:46.063379  3577 layer_factory.hpp:77] Creating layer M2PELU5
I0927 19:02:46.063388  3577 net.cpp:84] Creating Layer M2PELU5
I0927 19:02:46.063392  3577 net.cpp:406] M2PELU5 <- Eltwise2
I0927 19:02:46.063400  3577 net.cpp:367] M2PELU5 -> Eltwise2 (in-place)
I0927 19:02:46.063484  3577 net.cpp:122] Setting up M2PELU5
I0927 19:02:46.063491  3577 net.cpp:129] Top shape: 100 16 28 28 (1254400)
I0927 19:02:46.063495  3577 net.cpp:137] Memory required for data: 131398800
I0927 19:02:46.063503  3577 layer_factory.hpp:77] Creating layer Eltwise2_M2PELU5_0_split
I0927 19:02:46.063516  3577 net.cpp:84] Creating Layer Eltwise2_M2PELU5_0_split
I0927 19:02:46.063522  3577 net.cpp:406] Eltwise2_M2PELU5_0_split <- Eltwise2
I0927 19:02:46.063529  3577 net.cpp:380] Eltwise2_M2PELU5_0_split -> Eltwise2_M2PELU5_0_split_0
I0927 19:02:46.063537  3577 net.cpp:380] Eltwise2_M2PELU5_0_split -> Eltwise2_M2PELU5_0_split_1
I0927 19:02:46.063565  3577 net.cpp:122] Setting up Eltwise2_M2PELU5_0_split
I0927 19:02:46.063572  3577 net.cpp:129] Top shape: 100 16 28 28 (1254400)
I0927 19:02:46.063578  3577 net.cpp:129] Top shape: 100 16 28 28 (1254400)
I0927 19:02:46.063583  3577 net.cpp:137] Memory required for data: 141434000
I0927 19:02:46.063587  3577 layer_factory.hpp:77] Creating layer Convolution6
I0927 19:02:46.063597  3577 net.cpp:84] Creating Layer Convolution6
I0927 19:02:46.063602  3577 net.cpp:406] Convolution6 <- Eltwise2_M2PELU5_0_split_0
I0927 19:02:46.063611  3577 net.cpp:380] Convolution6 -> Convolution6
I0927 19:02:46.064486  3577 net.cpp:122] Setting up Convolution6
I0927 19:02:46.064497  3577 net.cpp:129] Top shape: 100 16 28 28 (1254400)
I0927 19:02:46.064502  3577 net.cpp:137] Memory required for data: 146451600
I0927 19:02:46.064510  3577 layer_factory.hpp:77] Creating layer BatchNorm6
I0927 19:02:46.064520  3577 net.cpp:84] Creating Layer BatchNorm6
I0927 19:02:46.064525  3577 net.cpp:406] BatchNorm6 <- Convolution6
I0927 19:02:46.064532  3577 net.cpp:367] BatchNorm6 -> Convolution6 (in-place)
I0927 19:02:46.064664  3577 net.cpp:122] Setting up BatchNorm6
I0927 19:02:46.064671  3577 net.cpp:129] Top shape: 100 16 28 28 (1254400)
I0927 19:02:46.064676  3577 net.cpp:137] Memory required for data: 151469200
I0927 19:02:46.064684  3577 layer_factory.hpp:77] Creating layer Scale6
I0927 19:02:46.064690  3577 net.cpp:84] Creating Layer Scale6
I0927 19:02:46.064695  3577 net.cpp:406] Scale6 <- Convolution6
I0927 19:02:46.064702  3577 net.cpp:367] Scale6 -> Convolution6 (in-place)
I0927 19:02:46.064734  3577 layer_factory.hpp:77] Creating layer Scale6
I0927 19:02:46.064816  3577 net.cpp:122] Setting up Scale6
I0927 19:02:46.064824  3577 net.cpp:129] Top shape: 100 16 28 28 (1254400)
I0927 19:02:46.064831  3577 net.cpp:137] Memory required for data: 156486800
I0927 19:02:46.064837  3577 layer_factory.hpp:77] Creating layer M2PELU6
I0927 19:02:46.064846  3577 net.cpp:84] Creating Layer M2PELU6
I0927 19:02:46.064849  3577 net.cpp:406] M2PELU6 <- Convolution6
I0927 19:02:46.064858  3577 net.cpp:367] M2PELU6 -> Convolution6 (in-place)
I0927 19:02:46.064946  3577 net.cpp:122] Setting up M2PELU6
I0927 19:02:46.064954  3577 net.cpp:129] Top shape: 100 16 28 28 (1254400)
I0927 19:02:46.064957  3577 net.cpp:137] Memory required for data: 161504400
I0927 19:02:46.064965  3577 layer_factory.hpp:77] Creating layer Convolution7
I0927 19:02:46.064975  3577 net.cpp:84] Creating Layer Convolution7
I0927 19:02:46.064980  3577 net.cpp:406] Convolution7 <- Convolution6
I0927 19:02:46.064988  3577 net.cpp:380] Convolution7 -> Convolution7
I0927 19:02:46.065539  3577 net.cpp:122] Setting up Convolution7
I0927 19:02:46.065551  3577 net.cpp:129] Top shape: 100 16 28 28 (1254400)
I0927 19:02:46.065556  3577 net.cpp:137] Memory required for data: 166522000
I0927 19:02:46.065564  3577 layer_factory.hpp:77] Creating layer BatchNorm7
I0927 19:02:46.065572  3577 net.cpp:84] Creating Layer BatchNorm7
I0927 19:02:46.065577  3577 net.cpp:406] BatchNorm7 <- Convolution7
I0927 19:02:46.065585  3577 net.cpp:367] BatchNorm7 -> Convolution7 (in-place)
I0927 19:02:46.065717  3577 net.cpp:122] Setting up BatchNorm7
I0927 19:02:46.065726  3577 net.cpp:129] Top shape: 100 16 28 28 (1254400)
I0927 19:02:46.065729  3577 net.cpp:137] Memory required for data: 171539600
I0927 19:02:46.065737  3577 layer_factory.hpp:77] Creating layer Scale7
I0927 19:02:46.065747  3577 net.cpp:84] Creating Layer Scale7
I0927 19:02:46.065752  3577 net.cpp:406] Scale7 <- Convolution7
I0927 19:02:46.065758  3577 net.cpp:367] Scale7 -> Convolution7 (in-place)
I0927 19:02:46.065790  3577 layer_factory.hpp:77] Creating layer Scale7
I0927 19:02:46.065879  3577 net.cpp:122] Setting up Scale7
I0927 19:02:46.065887  3577 net.cpp:129] Top shape: 100 16 28 28 (1254400)
I0927 19:02:46.065891  3577 net.cpp:137] Memory required for data: 176557200
I0927 19:02:46.065898  3577 layer_factory.hpp:77] Creating layer Eltwise3
I0927 19:02:46.065906  3577 net.cpp:84] Creating Layer Eltwise3
I0927 19:02:46.065910  3577 net.cpp:406] Eltwise3 <- Eltwise2_M2PELU5_0_split_1
I0927 19:02:46.065915  3577 net.cpp:406] Eltwise3 <- Convolution7
I0927 19:02:46.065923  3577 net.cpp:380] Eltwise3 -> Eltwise3
I0927 19:02:46.065945  3577 net.cpp:122] Setting up Eltwise3
I0927 19:02:46.065951  3577 net.cpp:129] Top shape: 100 16 28 28 (1254400)
I0927 19:02:46.065955  3577 net.cpp:137] Memory required for data: 181574800
I0927 19:02:46.065960  3577 layer_factory.hpp:77] Creating layer M2PELU7
I0927 19:02:46.065969  3577 net.cpp:84] Creating Layer M2PELU7
I0927 19:02:46.065973  3577 net.cpp:406] M2PELU7 <- Eltwise3
I0927 19:02:46.065981  3577 net.cpp:367] M2PELU7 -> Eltwise3 (in-place)
I0927 19:02:46.066067  3577 net.cpp:122] Setting up M2PELU7
I0927 19:02:46.066074  3577 net.cpp:129] Top shape: 100 16 28 28 (1254400)
I0927 19:02:46.066078  3577 net.cpp:137] Memory required for data: 186592400
I0927 19:02:46.066085  3577 layer_factory.hpp:77] Creating layer Eltwise3_M2PELU7_0_split
I0927 19:02:46.066094  3577 net.cpp:84] Creating Layer Eltwise3_M2PELU7_0_split
I0927 19:02:46.066098  3577 net.cpp:406] Eltwise3_M2PELU7_0_split <- Eltwise3
I0927 19:02:46.066104  3577 net.cpp:380] Eltwise3_M2PELU7_0_split -> Eltwise3_M2PELU7_0_split_0
I0927 19:02:46.066112  3577 net.cpp:380] Eltwise3_M2PELU7_0_split -> Eltwise3_M2PELU7_0_split_1
I0927 19:02:46.066141  3577 net.cpp:122] Setting up Eltwise3_M2PELU7_0_split
I0927 19:02:46.066148  3577 net.cpp:129] Top shape: 100 16 28 28 (1254400)
I0927 19:02:46.066154  3577 net.cpp:129] Top shape: 100 16 28 28 (1254400)
I0927 19:02:46.066159  3577 net.cpp:137] Memory required for data: 196627600
I0927 19:02:46.066162  3577 layer_factory.hpp:77] Creating layer Convolution8
I0927 19:02:46.066171  3577 net.cpp:84] Creating Layer Convolution8
I0927 19:02:46.066176  3577 net.cpp:406] Convolution8 <- Eltwise3_M2PELU7_0_split_0
I0927 19:02:46.066184  3577 net.cpp:380] Convolution8 -> Convolution8
I0927 19:02:46.067054  3577 net.cpp:122] Setting up Convolution8
I0927 19:02:46.067065  3577 net.cpp:129] Top shape: 100 16 28 28 (1254400)
I0927 19:02:46.067070  3577 net.cpp:137] Memory required for data: 201645200
I0927 19:02:46.067085  3577 layer_factory.hpp:77] Creating layer BatchNorm8
I0927 19:02:46.067093  3577 net.cpp:84] Creating Layer BatchNorm8
I0927 19:02:46.067100  3577 net.cpp:406] BatchNorm8 <- Convolution8
I0927 19:02:46.067106  3577 net.cpp:367] BatchNorm8 -> Convolution8 (in-place)
I0927 19:02:46.067240  3577 net.cpp:122] Setting up BatchNorm8
I0927 19:02:46.067248  3577 net.cpp:129] Top shape: 100 16 28 28 (1254400)
I0927 19:02:46.067252  3577 net.cpp:137] Memory required for data: 206662800
I0927 19:02:46.067262  3577 layer_factory.hpp:77] Creating layer Scale8
I0927 19:02:46.067270  3577 net.cpp:84] Creating Layer Scale8
I0927 19:02:46.067275  3577 net.cpp:406] Scale8 <- Convolution8
I0927 19:02:46.067281  3577 net.cpp:367] Scale8 -> Convolution8 (in-place)
I0927 19:02:46.067313  3577 layer_factory.hpp:77] Creating layer Scale8
I0927 19:02:46.067396  3577 net.cpp:122] Setting up Scale8
I0927 19:02:46.067404  3577 net.cpp:129] Top shape: 100 16 28 28 (1254400)
I0927 19:02:46.067409  3577 net.cpp:137] Memory required for data: 211680400
I0927 19:02:46.067416  3577 layer_factory.hpp:77] Creating layer M2PELU8
I0927 19:02:46.067426  3577 net.cpp:84] Creating Layer M2PELU8
I0927 19:02:46.067430  3577 net.cpp:406] M2PELU8 <- Convolution8
I0927 19:02:46.067437  3577 net.cpp:367] M2PELU8 -> Convolution8 (in-place)
I0927 19:02:46.067523  3577 net.cpp:122] Setting up M2PELU8
I0927 19:02:46.067529  3577 net.cpp:129] Top shape: 100 16 28 28 (1254400)
I0927 19:02:46.067533  3577 net.cpp:137] Memory required for data: 216698000
I0927 19:02:46.067540  3577 layer_factory.hpp:77] Creating layer Convolution9
I0927 19:02:46.067559  3577 net.cpp:84] Creating Layer Convolution9
I0927 19:02:46.067564  3577 net.cpp:406] Convolution9 <- Convolution8
I0927 19:02:46.067574  3577 net.cpp:380] Convolution9 -> Convolution9
I0927 19:02:46.068511  3577 net.cpp:122] Setting up Convolution9
I0927 19:02:46.068523  3577 net.cpp:129] Top shape: 100 16 28 28 (1254400)
I0927 19:02:46.068527  3577 net.cpp:137] Memory required for data: 221715600
I0927 19:02:46.068545  3577 layer_factory.hpp:77] Creating layer BatchNorm9
I0927 19:02:46.068553  3577 net.cpp:84] Creating Layer BatchNorm9
I0927 19:02:46.068559  3577 net.cpp:406] BatchNorm9 <- Convolution9
I0927 19:02:46.068568  3577 net.cpp:367] BatchNorm9 -> Convolution9 (in-place)
I0927 19:02:46.068717  3577 net.cpp:122] Setting up BatchNorm9
I0927 19:02:46.068725  3577 net.cpp:129] Top shape: 100 16 28 28 (1254400)
I0927 19:02:46.068729  3577 net.cpp:137] Memory required for data: 226733200
I0927 19:02:46.068739  3577 layer_factory.hpp:77] Creating layer Scale9
I0927 19:02:46.068747  3577 net.cpp:84] Creating Layer Scale9
I0927 19:02:46.068759  3577 net.cpp:406] Scale9 <- Convolution9
I0927 19:02:46.068778  3577 net.cpp:367] Scale9 -> Convolution9 (in-place)
I0927 19:02:46.068809  3577 layer_factory.hpp:77] Creating layer Scale9
I0927 19:02:46.068892  3577 net.cpp:122] Setting up Scale9
I0927 19:02:46.068899  3577 net.cpp:129] Top shape: 100 16 28 28 (1254400)
I0927 19:02:46.068903  3577 net.cpp:137] Memory required for data: 231750800
I0927 19:02:46.068912  3577 layer_factory.hpp:77] Creating layer Eltwise4
I0927 19:02:46.068919  3577 net.cpp:84] Creating Layer Eltwise4
I0927 19:02:46.068925  3577 net.cpp:406] Eltwise4 <- Eltwise3_M2PELU7_0_split_1
I0927 19:02:46.068930  3577 net.cpp:406] Eltwise4 <- Convolution9
I0927 19:02:46.068938  3577 net.cpp:380] Eltwise4 -> Eltwise4
I0927 19:02:46.068958  3577 net.cpp:122] Setting up Eltwise4
I0927 19:02:46.068966  3577 net.cpp:129] Top shape: 100 16 28 28 (1254400)
I0927 19:02:46.068971  3577 net.cpp:137] Memory required for data: 236768400
I0927 19:02:46.068975  3577 layer_factory.hpp:77] Creating layer M2PELU9
I0927 19:02:46.068984  3577 net.cpp:84] Creating Layer M2PELU9
I0927 19:02:46.068989  3577 net.cpp:406] M2PELU9 <- Eltwise4
I0927 19:02:46.068995  3577 net.cpp:367] M2PELU9 -> Eltwise4 (in-place)
I0927 19:02:46.069084  3577 net.cpp:122] Setting up M2PELU9
I0927 19:02:46.069092  3577 net.cpp:129] Top shape: 100 16 28 28 (1254400)
I0927 19:02:46.069095  3577 net.cpp:137] Memory required for data: 241786000
I0927 19:02:46.069103  3577 layer_factory.hpp:77] Creating layer Eltwise4_M2PELU9_0_split
I0927 19:02:46.069109  3577 net.cpp:84] Creating Layer Eltwise4_M2PELU9_0_split
I0927 19:02:46.069114  3577 net.cpp:406] Eltwise4_M2PELU9_0_split <- Eltwise4
I0927 19:02:46.069123  3577 net.cpp:380] Eltwise4_M2PELU9_0_split -> Eltwise4_M2PELU9_0_split_0
I0927 19:02:46.069130  3577 net.cpp:380] Eltwise4_M2PELU9_0_split -> Eltwise4_M2PELU9_0_split_1
I0927 19:02:46.069160  3577 net.cpp:122] Setting up Eltwise4_M2PELU9_0_split
I0927 19:02:46.069166  3577 net.cpp:129] Top shape: 100 16 28 28 (1254400)
I0927 19:02:46.069172  3577 net.cpp:129] Top shape: 100 16 28 28 (1254400)
I0927 19:02:46.069176  3577 net.cpp:137] Memory required for data: 251821200
I0927 19:02:46.069181  3577 layer_factory.hpp:77] Creating layer Convolution10
I0927 19:02:46.069191  3577 net.cpp:84] Creating Layer Convolution10
I0927 19:02:46.069196  3577 net.cpp:406] Convolution10 <- Eltwise4_M2PELU9_0_split_0
I0927 19:02:46.069205  3577 net.cpp:380] Convolution10 -> Convolution10
I0927 19:02:46.070121  3577 net.cpp:122] Setting up Convolution10
I0927 19:02:46.070132  3577 net.cpp:129] Top shape: 100 16 28 28 (1254400)
I0927 19:02:46.070137  3577 net.cpp:137] Memory required for data: 256838800
I0927 19:02:46.070144  3577 layer_factory.hpp:77] Creating layer BatchNorm10
I0927 19:02:46.070154  3577 net.cpp:84] Creating Layer BatchNorm10
I0927 19:02:46.070159  3577 net.cpp:406] BatchNorm10 <- Convolution10
I0927 19:02:46.070166  3577 net.cpp:367] BatchNorm10 -> Convolution10 (in-place)
I0927 19:02:46.070307  3577 net.cpp:122] Setting up BatchNorm10
I0927 19:02:46.070314  3577 net.cpp:129] Top shape: 100 16 28 28 (1254400)
I0927 19:02:46.070318  3577 net.cpp:137] Memory required for data: 261856400
I0927 19:02:46.070327  3577 layer_factory.hpp:77] Creating layer Scale10
I0927 19:02:46.070333  3577 net.cpp:84] Creating Layer Scale10
I0927 19:02:46.070339  3577 net.cpp:406] Scale10 <- Convolution10
I0927 19:02:46.070346  3577 net.cpp:367] Scale10 -> Convolution10 (in-place)
I0927 19:02:46.070381  3577 layer_factory.hpp:77] Creating layer Scale10
I0927 19:02:46.070463  3577 net.cpp:122] Setting up Scale10
I0927 19:02:46.070472  3577 net.cpp:129] Top shape: 100 16 28 28 (1254400)
I0927 19:02:46.070475  3577 net.cpp:137] Memory required for data: 266874000
I0927 19:02:46.070482  3577 layer_factory.hpp:77] Creating layer M2PELU10
I0927 19:02:46.070492  3577 net.cpp:84] Creating Layer M2PELU10
I0927 19:02:46.070497  3577 net.cpp:406] M2PELU10 <- Convolution10
I0927 19:02:46.070502  3577 net.cpp:367] M2PELU10 -> Convolution10 (in-place)
I0927 19:02:46.070610  3577 net.cpp:122] Setting up M2PELU10
I0927 19:02:46.070618  3577 net.cpp:129] Top shape: 100 16 28 28 (1254400)
I0927 19:02:46.070622  3577 net.cpp:137] Memory required for data: 271891600
I0927 19:02:46.070628  3577 layer_factory.hpp:77] Creating layer Convolution11
I0927 19:02:46.070639  3577 net.cpp:84] Creating Layer Convolution11
I0927 19:02:46.070644  3577 net.cpp:406] Convolution11 <- Convolution10
I0927 19:02:46.070652  3577 net.cpp:380] Convolution11 -> Convolution11
I0927 19:02:46.071523  3577 net.cpp:122] Setting up Convolution11
I0927 19:02:46.071534  3577 net.cpp:129] Top shape: 100 16 28 28 (1254400)
I0927 19:02:46.071539  3577 net.cpp:137] Memory required for data: 276909200
I0927 19:02:46.071547  3577 layer_factory.hpp:77] Creating layer BatchNorm11
I0927 19:02:46.071557  3577 net.cpp:84] Creating Layer BatchNorm11
I0927 19:02:46.071563  3577 net.cpp:406] BatchNorm11 <- Convolution11
I0927 19:02:46.071569  3577 net.cpp:367] BatchNorm11 -> Convolution11 (in-place)
I0927 19:02:46.071702  3577 net.cpp:122] Setting up BatchNorm11
I0927 19:02:46.071708  3577 net.cpp:129] Top shape: 100 16 28 28 (1254400)
I0927 19:02:46.071712  3577 net.cpp:137] Memory required for data: 281926800
I0927 19:02:46.071722  3577 layer_factory.hpp:77] Creating layer Scale11
I0927 19:02:46.071727  3577 net.cpp:84] Creating Layer Scale11
I0927 19:02:46.071732  3577 net.cpp:406] Scale11 <- Convolution11
I0927 19:02:46.071740  3577 net.cpp:367] Scale11 -> Convolution11 (in-place)
I0927 19:02:46.071772  3577 layer_factory.hpp:77] Creating layer Scale11
I0927 19:02:46.071858  3577 net.cpp:122] Setting up Scale11
I0927 19:02:46.071866  3577 net.cpp:129] Top shape: 100 16 28 28 (1254400)
I0927 19:02:46.071869  3577 net.cpp:137] Memory required for data: 286944400
I0927 19:02:46.071877  3577 layer_factory.hpp:77] Creating layer Eltwise5
I0927 19:02:46.071883  3577 net.cpp:84] Creating Layer Eltwise5
I0927 19:02:46.071888  3577 net.cpp:406] Eltwise5 <- Eltwise4_M2PELU9_0_split_1
I0927 19:02:46.071894  3577 net.cpp:406] Eltwise5 <- Convolution11
I0927 19:02:46.071902  3577 net.cpp:380] Eltwise5 -> Eltwise5
I0927 19:02:46.071923  3577 net.cpp:122] Setting up Eltwise5
I0927 19:02:46.071930  3577 net.cpp:129] Top shape: 100 16 28 28 (1254400)
I0927 19:02:46.071933  3577 net.cpp:137] Memory required for data: 291962000
I0927 19:02:46.071938  3577 layer_factory.hpp:77] Creating layer M2PELU11
I0927 19:02:46.071946  3577 net.cpp:84] Creating Layer M2PELU11
I0927 19:02:46.071950  3577 net.cpp:406] M2PELU11 <- Eltwise5
I0927 19:02:46.071957  3577 net.cpp:367] M2PELU11 -> Eltwise5 (in-place)
I0927 19:02:46.072048  3577 net.cpp:122] Setting up M2PELU11
I0927 19:02:46.072054  3577 net.cpp:129] Top shape: 100 16 28 28 (1254400)
I0927 19:02:46.072058  3577 net.cpp:137] Memory required for data: 296979600
I0927 19:02:46.072065  3577 layer_factory.hpp:77] Creating layer Eltwise5_M2PELU11_0_split
I0927 19:02:46.072073  3577 net.cpp:84] Creating Layer Eltwise5_M2PELU11_0_split
I0927 19:02:46.072084  3577 net.cpp:406] Eltwise5_M2PELU11_0_split <- Eltwise5
I0927 19:02:46.072091  3577 net.cpp:380] Eltwise5_M2PELU11_0_split -> Eltwise5_M2PELU11_0_split_0
I0927 19:02:46.072099  3577 net.cpp:380] Eltwise5_M2PELU11_0_split -> Eltwise5_M2PELU11_0_split_1
I0927 19:02:46.072129  3577 net.cpp:122] Setting up Eltwise5_M2PELU11_0_split
I0927 19:02:46.072136  3577 net.cpp:129] Top shape: 100 16 28 28 (1254400)
I0927 19:02:46.072142  3577 net.cpp:129] Top shape: 100 16 28 28 (1254400)
I0927 19:02:46.072146  3577 net.cpp:137] Memory required for data: 307014800
I0927 19:02:46.072150  3577 layer_factory.hpp:77] Creating layer Convolution12
I0927 19:02:46.072160  3577 net.cpp:84] Creating Layer Convolution12
I0927 19:02:46.072163  3577 net.cpp:406] Convolution12 <- Eltwise5_M2PELU11_0_split_0
I0927 19:02:46.072171  3577 net.cpp:380] Convolution12 -> Convolution12
I0927 19:02:46.073035  3577 net.cpp:122] Setting up Convolution12
I0927 19:02:46.073046  3577 net.cpp:129] Top shape: 100 16 28 28 (1254400)
I0927 19:02:46.073051  3577 net.cpp:137] Memory required for data: 312032400
I0927 19:02:46.073060  3577 layer_factory.hpp:77] Creating layer BatchNorm12
I0927 19:02:46.073068  3577 net.cpp:84] Creating Layer BatchNorm12
I0927 19:02:46.073073  3577 net.cpp:406] BatchNorm12 <- Convolution12
I0927 19:02:46.073081  3577 net.cpp:367] BatchNorm12 -> Convolution12 (in-place)
I0927 19:02:46.073215  3577 net.cpp:122] Setting up BatchNorm12
I0927 19:02:46.073222  3577 net.cpp:129] Top shape: 100 16 28 28 (1254400)
I0927 19:02:46.073227  3577 net.cpp:137] Memory required for data: 317050000
I0927 19:02:46.073235  3577 layer_factory.hpp:77] Creating layer Scale12
I0927 19:02:46.073241  3577 net.cpp:84] Creating Layer Scale12
I0927 19:02:46.073246  3577 net.cpp:406] Scale12 <- Convolution12
I0927 19:02:46.073252  3577 net.cpp:367] Scale12 -> Convolution12 (in-place)
I0927 19:02:46.073285  3577 layer_factory.hpp:77] Creating layer Scale12
I0927 19:02:46.073367  3577 net.cpp:122] Setting up Scale12
I0927 19:02:46.073375  3577 net.cpp:129] Top shape: 100 16 28 28 (1254400)
I0927 19:02:46.073379  3577 net.cpp:137] Memory required for data: 322067600
I0927 19:02:46.073385  3577 layer_factory.hpp:77] Creating layer M2PELU12
I0927 19:02:46.073395  3577 net.cpp:84] Creating Layer M2PELU12
I0927 19:02:46.073400  3577 net.cpp:406] M2PELU12 <- Convolution12
I0927 19:02:46.073405  3577 net.cpp:367] M2PELU12 -> Convolution12 (in-place)
I0927 19:02:46.073494  3577 net.cpp:122] Setting up M2PELU12
I0927 19:02:46.073501  3577 net.cpp:129] Top shape: 100 16 28 28 (1254400)
I0927 19:02:46.073505  3577 net.cpp:137] Memory required for data: 327085200
I0927 19:02:46.073513  3577 layer_factory.hpp:77] Creating layer Convolution13
I0927 19:02:46.073523  3577 net.cpp:84] Creating Layer Convolution13
I0927 19:02:46.073527  3577 net.cpp:406] Convolution13 <- Convolution12
I0927 19:02:46.073535  3577 net.cpp:380] Convolution13 -> Convolution13
I0927 19:02:46.074404  3577 net.cpp:122] Setting up Convolution13
I0927 19:02:46.074414  3577 net.cpp:129] Top shape: 100 16 28 28 (1254400)
I0927 19:02:46.074419  3577 net.cpp:137] Memory required for data: 332102800
I0927 19:02:46.074425  3577 layer_factory.hpp:77] Creating layer BatchNorm13
I0927 19:02:46.074436  3577 net.cpp:84] Creating Layer BatchNorm13
I0927 19:02:46.074441  3577 net.cpp:406] BatchNorm13 <- Convolution13
I0927 19:02:46.074448  3577 net.cpp:367] BatchNorm13 -> Convolution13 (in-place)
I0927 19:02:46.074607  3577 net.cpp:122] Setting up BatchNorm13
I0927 19:02:46.074615  3577 net.cpp:129] Top shape: 100 16 28 28 (1254400)
I0927 19:02:46.074620  3577 net.cpp:137] Memory required for data: 337120400
I0927 19:02:46.074628  3577 layer_factory.hpp:77] Creating layer Scale13
I0927 19:02:46.074635  3577 net.cpp:84] Creating Layer Scale13
I0927 19:02:46.074640  3577 net.cpp:406] Scale13 <- Convolution13
I0927 19:02:46.074647  3577 net.cpp:367] Scale13 -> Convolution13 (in-place)
I0927 19:02:46.074679  3577 layer_factory.hpp:77] Creating layer Scale13
I0927 19:02:46.074764  3577 net.cpp:122] Setting up Scale13
I0927 19:02:46.074777  3577 net.cpp:129] Top shape: 100 16 28 28 (1254400)
I0927 19:02:46.074782  3577 net.cpp:137] Memory required for data: 342138000
I0927 19:02:46.074790  3577 layer_factory.hpp:77] Creating layer Eltwise6
I0927 19:02:46.074797  3577 net.cpp:84] Creating Layer Eltwise6
I0927 19:02:46.074802  3577 net.cpp:406] Eltwise6 <- Eltwise5_M2PELU11_0_split_1
I0927 19:02:46.074808  3577 net.cpp:406] Eltwise6 <- Convolution13
I0927 19:02:46.074818  3577 net.cpp:380] Eltwise6 -> Eltwise6
I0927 19:02:46.074841  3577 net.cpp:122] Setting up Eltwise6
I0927 19:02:46.074848  3577 net.cpp:129] Top shape: 100 16 28 28 (1254400)
I0927 19:02:46.074852  3577 net.cpp:137] Memory required for data: 347155600
I0927 19:02:46.074857  3577 layer_factory.hpp:77] Creating layer M2PELU13
I0927 19:02:46.074870  3577 net.cpp:84] Creating Layer M2PELU13
I0927 19:02:46.074874  3577 net.cpp:406] M2PELU13 <- Eltwise6
I0927 19:02:46.074880  3577 net.cpp:367] M2PELU13 -> Eltwise6 (in-place)
I0927 19:02:46.074972  3577 net.cpp:122] Setting up M2PELU13
I0927 19:02:46.074980  3577 net.cpp:129] Top shape: 100 16 28 28 (1254400)
I0927 19:02:46.074983  3577 net.cpp:137] Memory required for data: 352173200
I0927 19:02:46.074991  3577 layer_factory.hpp:77] Creating layer Eltwise6_M2PELU13_0_split
I0927 19:02:46.074997  3577 net.cpp:84] Creating Layer Eltwise6_M2PELU13_0_split
I0927 19:02:46.075002  3577 net.cpp:406] Eltwise6_M2PELU13_0_split <- Eltwise6
I0927 19:02:46.075008  3577 net.cpp:380] Eltwise6_M2PELU13_0_split -> Eltwise6_M2PELU13_0_split_0
I0927 19:02:46.075016  3577 net.cpp:380] Eltwise6_M2PELU13_0_split -> Eltwise6_M2PELU13_0_split_1
I0927 19:02:46.075044  3577 net.cpp:122] Setting up Eltwise6_M2PELU13_0_split
I0927 19:02:46.075050  3577 net.cpp:129] Top shape: 100 16 28 28 (1254400)
I0927 19:02:46.075055  3577 net.cpp:129] Top shape: 100 16 28 28 (1254400)
I0927 19:02:46.075059  3577 net.cpp:137] Memory required for data: 362208400
I0927 19:02:46.075062  3577 layer_factory.hpp:77] Creating layer Convolution14
I0927 19:02:46.075068  3577 net.cpp:84] Creating Layer Convolution14
I0927 19:02:46.075072  3577 net.cpp:406] Convolution14 <- Eltwise6_M2PELU13_0_split_0
I0927 19:02:46.075075  3577 net.cpp:380] Convolution14 -> Convolution14
I0927 19:02:46.075943  3577 net.cpp:122] Setting up Convolution14
I0927 19:02:46.075953  3577 net.cpp:129] Top shape: 100 16 28 28 (1254400)
I0927 19:02:46.075954  3577 net.cpp:137] Memory required for data: 367226000
I0927 19:02:46.075958  3577 layer_factory.hpp:77] Creating layer BatchNorm14
I0927 19:02:46.075964  3577 net.cpp:84] Creating Layer BatchNorm14
I0927 19:02:46.075968  3577 net.cpp:406] BatchNorm14 <- Convolution14
I0927 19:02:46.075970  3577 net.cpp:367] BatchNorm14 -> Convolution14 (in-place)
I0927 19:02:46.076100  3577 net.cpp:122] Setting up BatchNorm14
I0927 19:02:46.076104  3577 net.cpp:129] Top shape: 100 16 28 28 (1254400)
I0927 19:02:46.076107  3577 net.cpp:137] Memory required for data: 372243600
I0927 19:02:46.076112  3577 layer_factory.hpp:77] Creating layer Scale14
I0927 19:02:46.076117  3577 net.cpp:84] Creating Layer Scale14
I0927 19:02:46.076118  3577 net.cpp:406] Scale14 <- Convolution14
I0927 19:02:46.076122  3577 net.cpp:367] Scale14 -> Convolution14 (in-place)
I0927 19:02:46.076146  3577 layer_factory.hpp:77] Creating layer Scale14
I0927 19:02:46.076223  3577 net.cpp:122] Setting up Scale14
I0927 19:02:46.076228  3577 net.cpp:129] Top shape: 100 16 28 28 (1254400)
I0927 19:02:46.076231  3577 net.cpp:137] Memory required for data: 377261200
I0927 19:02:46.076234  3577 layer_factory.hpp:77] Creating layer M2PELU14
I0927 19:02:46.076239  3577 net.cpp:84] Creating Layer M2PELU14
I0927 19:02:46.076241  3577 net.cpp:406] M2PELU14 <- Convolution14
I0927 19:02:46.076246  3577 net.cpp:367] M2PELU14 -> Convolution14 (in-place)
I0927 19:02:46.076328  3577 net.cpp:122] Setting up M2PELU14
I0927 19:02:46.076333  3577 net.cpp:129] Top shape: 100 16 28 28 (1254400)
I0927 19:02:46.076333  3577 net.cpp:137] Memory required for data: 382278800
I0927 19:02:46.076344  3577 layer_factory.hpp:77] Creating layer Convolution15
I0927 19:02:46.076351  3577 net.cpp:84] Creating Layer Convolution15
I0927 19:02:46.076354  3577 net.cpp:406] Convolution15 <- Convolution14
I0927 19:02:46.076359  3577 net.cpp:380] Convolution15 -> Convolution15
I0927 19:02:46.077216  3577 net.cpp:122] Setting up Convolution15
I0927 19:02:46.077224  3577 net.cpp:129] Top shape: 100 16 28 28 (1254400)
I0927 19:02:46.077227  3577 net.cpp:137] Memory required for data: 387296400
I0927 19:02:46.077231  3577 layer_factory.hpp:77] Creating layer BatchNorm15
I0927 19:02:46.077236  3577 net.cpp:84] Creating Layer BatchNorm15
I0927 19:02:46.077239  3577 net.cpp:406] BatchNorm15 <- Convolution15
I0927 19:02:46.077244  3577 net.cpp:367] BatchNorm15 -> Convolution15 (in-place)
I0927 19:02:46.077373  3577 net.cpp:122] Setting up BatchNorm15
I0927 19:02:46.077378  3577 net.cpp:129] Top shape: 100 16 28 28 (1254400)
I0927 19:02:46.077379  3577 net.cpp:137] Memory required for data: 392314000
I0927 19:02:46.077394  3577 layer_factory.hpp:77] Creating layer Scale15
I0927 19:02:46.077399  3577 net.cpp:84] Creating Layer Scale15
I0927 19:02:46.077400  3577 net.cpp:406] Scale15 <- Convolution15
I0927 19:02:46.077404  3577 net.cpp:367] Scale15 -> Convolution15 (in-place)
I0927 19:02:46.077430  3577 layer_factory.hpp:77] Creating layer Scale15
I0927 19:02:46.077508  3577 net.cpp:122] Setting up Scale15
I0927 19:02:46.077512  3577 net.cpp:129] Top shape: 100 16 28 28 (1254400)
I0927 19:02:46.077514  3577 net.cpp:137] Memory required for data: 397331600
I0927 19:02:46.077518  3577 layer_factory.hpp:77] Creating layer Eltwise7
I0927 19:02:46.077522  3577 net.cpp:84] Creating Layer Eltwise7
I0927 19:02:46.077524  3577 net.cpp:406] Eltwise7 <- Eltwise6_M2PELU13_0_split_1
I0927 19:02:46.077527  3577 net.cpp:406] Eltwise7 <- Convolution15
I0927 19:02:46.077530  3577 net.cpp:380] Eltwise7 -> Eltwise7
I0927 19:02:46.077545  3577 net.cpp:122] Setting up Eltwise7
I0927 19:02:46.077548  3577 net.cpp:129] Top shape: 100 16 28 28 (1254400)
I0927 19:02:46.077550  3577 net.cpp:137] Memory required for data: 402349200
I0927 19:02:46.077553  3577 layer_factory.hpp:77] Creating layer M2PELU15
I0927 19:02:46.077558  3577 net.cpp:84] Creating Layer M2PELU15
I0927 19:02:46.077560  3577 net.cpp:406] M2PELU15 <- Eltwise7
I0927 19:02:46.077564  3577 net.cpp:367] M2PELU15 -> Eltwise7 (in-place)
I0927 19:02:46.077646  3577 net.cpp:122] Setting up M2PELU15
I0927 19:02:46.077651  3577 net.cpp:129] Top shape: 100 16 28 28 (1254400)
I0927 19:02:46.077652  3577 net.cpp:137] Memory required for data: 407366800
I0927 19:02:46.077656  3577 layer_factory.hpp:77] Creating layer Eltwise7_M2PELU15_0_split
I0927 19:02:46.077659  3577 net.cpp:84] Creating Layer Eltwise7_M2PELU15_0_split
I0927 19:02:46.077661  3577 net.cpp:406] Eltwise7_M2PELU15_0_split <- Eltwise7
I0927 19:02:46.077666  3577 net.cpp:380] Eltwise7_M2PELU15_0_split -> Eltwise7_M2PELU15_0_split_0
I0927 19:02:46.077669  3577 net.cpp:380] Eltwise7_M2PELU15_0_split -> Eltwise7_M2PELU15_0_split_1
I0927 19:02:46.077690  3577 net.cpp:122] Setting up Eltwise7_M2PELU15_0_split
I0927 19:02:46.077693  3577 net.cpp:129] Top shape: 100 16 28 28 (1254400)
I0927 19:02:46.077697  3577 net.cpp:129] Top shape: 100 16 28 28 (1254400)
I0927 19:02:46.077698  3577 net.cpp:137] Memory required for data: 417402000
I0927 19:02:46.077700  3577 layer_factory.hpp:77] Creating layer Convolution16
I0927 19:02:46.077706  3577 net.cpp:84] Creating Layer Convolution16
I0927 19:02:46.077708  3577 net.cpp:406] Convolution16 <- Eltwise7_M2PELU15_0_split_0
I0927 19:02:46.077713  3577 net.cpp:380] Convolution16 -> Convolution16
I0927 19:02:46.078595  3577 net.cpp:122] Setting up Convolution16
I0927 19:02:46.078604  3577 net.cpp:129] Top shape: 100 16 28 28 (1254400)
I0927 19:02:46.078606  3577 net.cpp:137] Memory required for data: 422419600
I0927 19:02:46.078610  3577 layer_factory.hpp:77] Creating layer BatchNorm16
I0927 19:02:46.078615  3577 net.cpp:84] Creating Layer BatchNorm16
I0927 19:02:46.078619  3577 net.cpp:406] BatchNorm16 <- Convolution16
I0927 19:02:46.078629  3577 net.cpp:367] BatchNorm16 -> Convolution16 (in-place)
I0927 19:02:46.078760  3577 net.cpp:122] Setting up BatchNorm16
I0927 19:02:46.078765  3577 net.cpp:129] Top shape: 100 16 28 28 (1254400)
I0927 19:02:46.078768  3577 net.cpp:137] Memory required for data: 427437200
I0927 19:02:46.078773  3577 layer_factory.hpp:77] Creating layer Scale16
I0927 19:02:46.078776  3577 net.cpp:84] Creating Layer Scale16
I0927 19:02:46.078778  3577 net.cpp:406] Scale16 <- Convolution16
I0927 19:02:46.078783  3577 net.cpp:367] Scale16 -> Convolution16 (in-place)
I0927 19:02:46.078807  3577 layer_factory.hpp:77] Creating layer Scale16
I0927 19:02:46.078881  3577 net.cpp:122] Setting up Scale16
I0927 19:02:46.078886  3577 net.cpp:129] Top shape: 100 16 28 28 (1254400)
I0927 19:02:46.078887  3577 net.cpp:137] Memory required for data: 432454800
I0927 19:02:46.078891  3577 layer_factory.hpp:77] Creating layer M2PELU16
I0927 19:02:46.078896  3577 net.cpp:84] Creating Layer M2PELU16
I0927 19:02:46.078898  3577 net.cpp:406] M2PELU16 <- Convolution16
I0927 19:02:46.078902  3577 net.cpp:367] M2PELU16 -> Convolution16 (in-place)
I0927 19:02:46.078985  3577 net.cpp:122] Setting up M2PELU16
I0927 19:02:46.078989  3577 net.cpp:129] Top shape: 100 16 28 28 (1254400)
I0927 19:02:46.078991  3577 net.cpp:137] Memory required for data: 437472400
I0927 19:02:46.078994  3577 layer_factory.hpp:77] Creating layer Convolution17
I0927 19:02:46.079002  3577 net.cpp:84] Creating Layer Convolution17
I0927 19:02:46.079005  3577 net.cpp:406] Convolution17 <- Convolution16
I0927 19:02:46.079008  3577 net.cpp:380] Convolution17 -> Convolution17
I0927 19:02:46.079550  3577 net.cpp:122] Setting up Convolution17
I0927 19:02:46.079557  3577 net.cpp:129] Top shape: 100 16 28 28 (1254400)
I0927 19:02:46.079560  3577 net.cpp:137] Memory required for data: 442490000
I0927 19:02:46.079565  3577 layer_factory.hpp:77] Creating layer BatchNorm17
I0927 19:02:46.079568  3577 net.cpp:84] Creating Layer BatchNorm17
I0927 19:02:46.079571  3577 net.cpp:406] BatchNorm17 <- Convolution17
I0927 19:02:46.079576  3577 net.cpp:367] BatchNorm17 -> Convolution17 (in-place)
I0927 19:02:46.079704  3577 net.cpp:122] Setting up BatchNorm17
I0927 19:02:46.079708  3577 net.cpp:129] Top shape: 100 16 28 28 (1254400)
I0927 19:02:46.079710  3577 net.cpp:137] Memory required for data: 447507600
I0927 19:02:46.079715  3577 layer_factory.hpp:77] Creating layer Scale17
I0927 19:02:46.079718  3577 net.cpp:84] Creating Layer Scale17
I0927 19:02:46.079720  3577 net.cpp:406] Scale17 <- Convolution17
I0927 19:02:46.079723  3577 net.cpp:367] Scale17 -> Convolution17 (in-place)
I0927 19:02:46.079748  3577 layer_factory.hpp:77] Creating layer Scale17
I0927 19:02:46.079824  3577 net.cpp:122] Setting up Scale17
I0927 19:02:46.079829  3577 net.cpp:129] Top shape: 100 16 28 28 (1254400)
I0927 19:02:46.079831  3577 net.cpp:137] Memory required for data: 452525200
I0927 19:02:46.079834  3577 layer_factory.hpp:77] Creating layer Eltwise8
I0927 19:02:46.079838  3577 net.cpp:84] Creating Layer Eltwise8
I0927 19:02:46.079841  3577 net.cpp:406] Eltwise8 <- Eltwise7_M2PELU15_0_split_1
I0927 19:02:46.079843  3577 net.cpp:406] Eltwise8 <- Convolution17
I0927 19:02:46.079847  3577 net.cpp:380] Eltwise8 -> Eltwise8
I0927 19:02:46.079862  3577 net.cpp:122] Setting up Eltwise8
I0927 19:02:46.079866  3577 net.cpp:129] Top shape: 100 16 28 28 (1254400)
I0927 19:02:46.079869  3577 net.cpp:137] Memory required for data: 457542800
I0927 19:02:46.079870  3577 layer_factory.hpp:77] Creating layer M2PELU17
I0927 19:02:46.079874  3577 net.cpp:84] Creating Layer M2PELU17
I0927 19:02:46.079876  3577 net.cpp:406] M2PELU17 <- Eltwise8
I0927 19:02:46.079880  3577 net.cpp:367] M2PELU17 -> Eltwise8 (in-place)
I0927 19:02:46.079965  3577 net.cpp:122] Setting up M2PELU17
I0927 19:02:46.079969  3577 net.cpp:129] Top shape: 100 16 28 28 (1254400)
I0927 19:02:46.079972  3577 net.cpp:137] Memory required for data: 462560400
I0927 19:02:46.079974  3577 layer_factory.hpp:77] Creating layer Eltwise8_M2PELU17_0_split
I0927 19:02:46.079984  3577 net.cpp:84] Creating Layer Eltwise8_M2PELU17_0_split
I0927 19:02:46.079988  3577 net.cpp:406] Eltwise8_M2PELU17_0_split <- Eltwise8
I0927 19:02:46.079990  3577 net.cpp:380] Eltwise8_M2PELU17_0_split -> Eltwise8_M2PELU17_0_split_0
I0927 19:02:46.079995  3577 net.cpp:380] Eltwise8_M2PELU17_0_split -> Eltwise8_M2PELU17_0_split_1
I0927 19:02:46.080018  3577 net.cpp:122] Setting up Eltwise8_M2PELU17_0_split
I0927 19:02:46.080021  3577 net.cpp:129] Top shape: 100 16 28 28 (1254400)
I0927 19:02:46.080024  3577 net.cpp:129] Top shape: 100 16 28 28 (1254400)
I0927 19:02:46.080026  3577 net.cpp:137] Memory required for data: 472595600
I0927 19:02:46.080029  3577 layer_factory.hpp:77] Creating layer Convolution18
I0927 19:02:46.080034  3577 net.cpp:84] Creating Layer Convolution18
I0927 19:02:46.080036  3577 net.cpp:406] Convolution18 <- Eltwise8_M2PELU17_0_split_0
I0927 19:02:46.080040  3577 net.cpp:380] Convolution18 -> Convolution18
I0927 19:02:46.080895  3577 net.cpp:122] Setting up Convolution18
I0927 19:02:46.080904  3577 net.cpp:129] Top shape: 100 16 28 28 (1254400)
I0927 19:02:46.080907  3577 net.cpp:137] Memory required for data: 477613200
I0927 19:02:46.080911  3577 layer_factory.hpp:77] Creating layer BatchNorm18
I0927 19:02:46.080917  3577 net.cpp:84] Creating Layer BatchNorm18
I0927 19:02:46.080919  3577 net.cpp:406] BatchNorm18 <- Convolution18
I0927 19:02:46.080924  3577 net.cpp:367] BatchNorm18 -> Convolution18 (in-place)
I0927 19:02:46.081053  3577 net.cpp:122] Setting up BatchNorm18
I0927 19:02:46.081058  3577 net.cpp:129] Top shape: 100 16 28 28 (1254400)
I0927 19:02:46.081059  3577 net.cpp:137] Memory required for data: 482630800
I0927 19:02:46.081063  3577 layer_factory.hpp:77] Creating layer Scale18
I0927 19:02:46.081068  3577 net.cpp:84] Creating Layer Scale18
I0927 19:02:46.081070  3577 net.cpp:406] Scale18 <- Convolution18
I0927 19:02:46.081073  3577 net.cpp:367] Scale18 -> Convolution18 (in-place)
I0927 19:02:46.081099  3577 layer_factory.hpp:77] Creating layer Scale18
I0927 19:02:46.081176  3577 net.cpp:122] Setting up Scale18
I0927 19:02:46.081181  3577 net.cpp:129] Top shape: 100 16 28 28 (1254400)
I0927 19:02:46.081182  3577 net.cpp:137] Memory required for data: 487648400
I0927 19:02:46.081187  3577 layer_factory.hpp:77] Creating layer M2PELU18
I0927 19:02:46.081192  3577 net.cpp:84] Creating Layer M2PELU18
I0927 19:02:46.081193  3577 net.cpp:406] M2PELU18 <- Convolution18
I0927 19:02:46.081197  3577 net.cpp:367] M2PELU18 -> Convolution18 (in-place)
I0927 19:02:46.081279  3577 net.cpp:122] Setting up M2PELU18
I0927 19:02:46.081284  3577 net.cpp:129] Top shape: 100 16 28 28 (1254400)
I0927 19:02:46.081285  3577 net.cpp:137] Memory required for data: 492666000
I0927 19:02:46.081290  3577 layer_factory.hpp:77] Creating layer Convolution19
I0927 19:02:46.081295  3577 net.cpp:84] Creating Layer Convolution19
I0927 19:02:46.081298  3577 net.cpp:406] Convolution19 <- Convolution18
I0927 19:02:46.081301  3577 net.cpp:380] Convolution19 -> Convolution19
I0927 19:02:46.082175  3577 net.cpp:122] Setting up Convolution19
I0927 19:02:46.082183  3577 net.cpp:129] Top shape: 100 16 28 28 (1254400)
I0927 19:02:46.082186  3577 net.cpp:137] Memory required for data: 497683600
I0927 19:02:46.082190  3577 layer_factory.hpp:77] Creating layer BatchNorm19
I0927 19:02:46.082195  3577 net.cpp:84] Creating Layer BatchNorm19
I0927 19:02:46.082197  3577 net.cpp:406] BatchNorm19 <- Convolution19
I0927 19:02:46.082201  3577 net.cpp:367] BatchNorm19 -> Convolution19 (in-place)
I0927 19:02:46.082331  3577 net.cpp:122] Setting up BatchNorm19
I0927 19:02:46.082348  3577 net.cpp:129] Top shape: 100 16 28 28 (1254400)
I0927 19:02:46.082351  3577 net.cpp:137] Memory required for data: 502701200
I0927 19:02:46.082356  3577 layer_factory.hpp:77] Creating layer Scale19
I0927 19:02:46.082363  3577 net.cpp:84] Creating Layer Scale19
I0927 19:02:46.082368  3577 net.cpp:406] Scale19 <- Convolution19
I0927 19:02:46.082386  3577 net.cpp:367] Scale19 -> Convolution19 (in-place)
I0927 19:02:46.082423  3577 layer_factory.hpp:77] Creating layer Scale19
I0927 19:02:46.082542  3577 net.cpp:122] Setting up Scale19
I0927 19:02:46.082548  3577 net.cpp:129] Top shape: 100 16 28 28 (1254400)
I0927 19:02:46.082551  3577 net.cpp:137] Memory required for data: 507718800
I0927 19:02:46.082556  3577 layer_factory.hpp:77] Creating layer Eltwise9
I0927 19:02:46.082559  3577 net.cpp:84] Creating Layer Eltwise9
I0927 19:02:46.082561  3577 net.cpp:406] Eltwise9 <- Eltwise8_M2PELU17_0_split_1
I0927 19:02:46.082564  3577 net.cpp:406] Eltwise9 <- Convolution19
I0927 19:02:46.082568  3577 net.cpp:380] Eltwise9 -> Eltwise9
I0927 19:02:46.082586  3577 net.cpp:122] Setting up Eltwise9
I0927 19:02:46.082589  3577 net.cpp:129] Top shape: 100 16 28 28 (1254400)
I0927 19:02:46.082592  3577 net.cpp:137] Memory required for data: 512736400
I0927 19:02:46.082593  3577 layer_factory.hpp:77] Creating layer M2PELU19
I0927 19:02:46.082597  3577 net.cpp:84] Creating Layer M2PELU19
I0927 19:02:46.082600  3577 net.cpp:406] M2PELU19 <- Eltwise9
I0927 19:02:46.082604  3577 net.cpp:367] M2PELU19 -> Eltwise9 (in-place)
I0927 19:02:46.082690  3577 net.cpp:122] Setting up M2PELU19
I0927 19:02:46.082695  3577 net.cpp:129] Top shape: 100 16 28 28 (1254400)
I0927 19:02:46.082697  3577 net.cpp:137] Memory required for data: 517754000
I0927 19:02:46.082700  3577 layer_factory.hpp:77] Creating layer Eltwise9_M2PELU19_0_split
I0927 19:02:46.082705  3577 net.cpp:84] Creating Layer Eltwise9_M2PELU19_0_split
I0927 19:02:46.082707  3577 net.cpp:406] Eltwise9_M2PELU19_0_split <- Eltwise9
I0927 19:02:46.082710  3577 net.cpp:380] Eltwise9_M2PELU19_0_split -> Eltwise9_M2PELU19_0_split_0
I0927 19:02:46.082715  3577 net.cpp:380] Eltwise9_M2PELU19_0_split -> Eltwise9_M2PELU19_0_split_1
I0927 19:02:46.082738  3577 net.cpp:122] Setting up Eltwise9_M2PELU19_0_split
I0927 19:02:46.082741  3577 net.cpp:129] Top shape: 100 16 28 28 (1254400)
I0927 19:02:46.082744  3577 net.cpp:129] Top shape: 100 16 28 28 (1254400)
I0927 19:02:46.082746  3577 net.cpp:137] Memory required for data: 527789200
I0927 19:02:46.082748  3577 layer_factory.hpp:77] Creating layer Convolution20
I0927 19:02:46.082753  3577 net.cpp:84] Creating Layer Convolution20
I0927 19:02:46.082756  3577 net.cpp:406] Convolution20 <- Eltwise9_M2PELU19_0_split_0
I0927 19:02:46.082761  3577 net.cpp:380] Convolution20 -> Convolution20
I0927 19:02:46.083972  3577 net.cpp:122] Setting up Convolution20
I0927 19:02:46.083981  3577 net.cpp:129] Top shape: 100 32 14 14 (627200)
I0927 19:02:46.083984  3577 net.cpp:137] Memory required for data: 530298000
I0927 19:02:46.083989  3577 layer_factory.hpp:77] Creating layer BatchNorm20
I0927 19:02:46.083994  3577 net.cpp:84] Creating Layer BatchNorm20
I0927 19:02:46.083997  3577 net.cpp:406] BatchNorm20 <- Convolution20
I0927 19:02:46.084002  3577 net.cpp:367] BatchNorm20 -> Convolution20 (in-place)
I0927 19:02:46.084152  3577 net.cpp:122] Setting up BatchNorm20
I0927 19:02:46.084156  3577 net.cpp:129] Top shape: 100 32 14 14 (627200)
I0927 19:02:46.084158  3577 net.cpp:137] Memory required for data: 532806800
I0927 19:02:46.084163  3577 layer_factory.hpp:77] Creating layer Scale20
I0927 19:02:46.084168  3577 net.cpp:84] Creating Layer Scale20
I0927 19:02:46.084170  3577 net.cpp:406] Scale20 <- Convolution20
I0927 19:02:46.084173  3577 net.cpp:367] Scale20 -> Convolution20 (in-place)
I0927 19:02:46.084201  3577 layer_factory.hpp:77] Creating layer Scale20
I0927 19:02:46.084277  3577 net.cpp:122] Setting up Scale20
I0927 19:02:46.084282  3577 net.cpp:129] Top shape: 100 32 14 14 (627200)
I0927 19:02:46.084285  3577 net.cpp:137] Memory required for data: 535315600
I0927 19:02:46.084288  3577 layer_factory.hpp:77] Creating layer Convolution21
I0927 19:02:46.084295  3577 net.cpp:84] Creating Layer Convolution21
I0927 19:02:46.084298  3577 net.cpp:406] Convolution21 <- Eltwise9_M2PELU19_0_split_1
I0927 19:02:46.084302  3577 net.cpp:380] Convolution21 -> Convolution21
I0927 19:02:46.086037  3577 net.cpp:122] Setting up Convolution21
I0927 19:02:46.086046  3577 net.cpp:129] Top shape: 100 32 14 14 (627200)
I0927 19:02:46.086056  3577 net.cpp:137] Memory required for data: 537824400
I0927 19:02:46.086062  3577 layer_factory.hpp:77] Creating layer BatchNorm21
I0927 19:02:46.086068  3577 net.cpp:84] Creating Layer BatchNorm21
I0927 19:02:46.086071  3577 net.cpp:406] BatchNorm21 <- Convolution21
I0927 19:02:46.086076  3577 net.cpp:367] BatchNorm21 -> Convolution21 (in-place)
I0927 19:02:46.086298  3577 net.cpp:122] Setting up BatchNorm21
I0927 19:02:46.086302  3577 net.cpp:129] Top shape: 100 32 14 14 (627200)
I0927 19:02:46.086304  3577 net.cpp:137] Memory required for data: 540333200
I0927 19:02:46.086309  3577 layer_factory.hpp:77] Creating layer Scale21
I0927 19:02:46.086313  3577 net.cpp:84] Creating Layer Scale21
I0927 19:02:46.086316  3577 net.cpp:406] Scale21 <- Convolution21
I0927 19:02:46.086319  3577 net.cpp:367] Scale21 -> Convolution21 (in-place)
I0927 19:02:46.086346  3577 layer_factory.hpp:77] Creating layer Scale21
I0927 19:02:46.086422  3577 net.cpp:122] Setting up Scale21
I0927 19:02:46.086427  3577 net.cpp:129] Top shape: 100 32 14 14 (627200)
I0927 19:02:46.086429  3577 net.cpp:137] Memory required for data: 542842000
I0927 19:02:46.086433  3577 layer_factory.hpp:77] Creating layer M2PELU20
I0927 19:02:46.086438  3577 net.cpp:84] Creating Layer M2PELU20
I0927 19:02:46.086441  3577 net.cpp:406] M2PELU20 <- Convolution21
I0927 19:02:46.086444  3577 net.cpp:367] M2PELU20 -> Convolution21 (in-place)
I0927 19:02:46.086549  3577 net.cpp:122] Setting up M2PELU20
I0927 19:02:46.086563  3577 net.cpp:129] Top shape: 100 32 14 14 (627200)
I0927 19:02:46.086565  3577 net.cpp:137] Memory required for data: 545350800
I0927 19:02:46.086570  3577 layer_factory.hpp:77] Creating layer Convolution22
I0927 19:02:46.086576  3577 net.cpp:84] Creating Layer Convolution22
I0927 19:02:46.086578  3577 net.cpp:406] Convolution22 <- Convolution21
I0927 19:02:46.086591  3577 net.cpp:380] Convolution22 -> Convolution22
I0927 19:02:46.087642  3577 net.cpp:122] Setting up Convolution22
I0927 19:02:46.087651  3577 net.cpp:129] Top shape: 100 32 14 14 (627200)
I0927 19:02:46.087654  3577 net.cpp:137] Memory required for data: 547859600
I0927 19:02:46.087658  3577 layer_factory.hpp:77] Creating layer BatchNorm22
I0927 19:02:46.087663  3577 net.cpp:84] Creating Layer BatchNorm22
I0927 19:02:46.087666  3577 net.cpp:406] BatchNorm22 <- Convolution22
I0927 19:02:46.087669  3577 net.cpp:367] BatchNorm22 -> Convolution22 (in-place)
I0927 19:02:46.087803  3577 net.cpp:122] Setting up BatchNorm22
I0927 19:02:46.087808  3577 net.cpp:129] Top shape: 100 32 14 14 (627200)
I0927 19:02:46.087810  3577 net.cpp:137] Memory required for data: 550368400
I0927 19:02:46.087815  3577 layer_factory.hpp:77] Creating layer Scale22
I0927 19:02:46.087819  3577 net.cpp:84] Creating Layer Scale22
I0927 19:02:46.087821  3577 net.cpp:406] Scale22 <- Convolution22
I0927 19:02:46.087824  3577 net.cpp:367] Scale22 -> Convolution22 (in-place)
I0927 19:02:46.087852  3577 layer_factory.hpp:77] Creating layer Scale22
I0927 19:02:46.087926  3577 net.cpp:122] Setting up Scale22
I0927 19:02:46.087930  3577 net.cpp:129] Top shape: 100 32 14 14 (627200)
I0927 19:02:46.087932  3577 net.cpp:137] Memory required for data: 552877200
I0927 19:02:46.087936  3577 layer_factory.hpp:77] Creating layer Eltwise10
I0927 19:02:46.087940  3577 net.cpp:84] Creating Layer Eltwise10
I0927 19:02:46.087942  3577 net.cpp:406] Eltwise10 <- Convolution20
I0927 19:02:46.087945  3577 net.cpp:406] Eltwise10 <- Convolution22
I0927 19:02:46.087949  3577 net.cpp:380] Eltwise10 -> Eltwise10
I0927 19:02:46.087965  3577 net.cpp:122] Setting up Eltwise10
I0927 19:02:46.087968  3577 net.cpp:129] Top shape: 100 32 14 14 (627200)
I0927 19:02:46.087970  3577 net.cpp:137] Memory required for data: 555386000
I0927 19:02:46.087972  3577 layer_factory.hpp:77] Creating layer M2PELU21
I0927 19:02:46.087977  3577 net.cpp:84] Creating Layer M2PELU21
I0927 19:02:46.087980  3577 net.cpp:406] M2PELU21 <- Eltwise10
I0927 19:02:46.087983  3577 net.cpp:367] M2PELU21 -> Eltwise10 (in-place)
I0927 19:02:46.088065  3577 net.cpp:122] Setting up M2PELU21
I0927 19:02:46.088076  3577 net.cpp:129] Top shape: 100 32 14 14 (627200)
I0927 19:02:46.088078  3577 net.cpp:137] Memory required for data: 557894800
I0927 19:02:46.088083  3577 layer_factory.hpp:77] Creating layer Eltwise10_M2PELU21_0_split
I0927 19:02:46.088086  3577 net.cpp:84] Creating Layer Eltwise10_M2PELU21_0_split
I0927 19:02:46.088088  3577 net.cpp:406] Eltwise10_M2PELU21_0_split <- Eltwise10
I0927 19:02:46.088093  3577 net.cpp:380] Eltwise10_M2PELU21_0_split -> Eltwise10_M2PELU21_0_split_0
I0927 19:02:46.088096  3577 net.cpp:380] Eltwise10_M2PELU21_0_split -> Eltwise10_M2PELU21_0_split_1
I0927 19:02:46.088120  3577 net.cpp:122] Setting up Eltwise10_M2PELU21_0_split
I0927 19:02:46.088124  3577 net.cpp:129] Top shape: 100 32 14 14 (627200)
I0927 19:02:46.088127  3577 net.cpp:129] Top shape: 100 32 14 14 (627200)
I0927 19:02:46.088129  3577 net.cpp:137] Memory required for data: 562912400
I0927 19:02:46.088131  3577 layer_factory.hpp:77] Creating layer Convolution23
I0927 19:02:46.088137  3577 net.cpp:84] Creating Layer Convolution23
I0927 19:02:46.088140  3577 net.cpp:406] Convolution23 <- Eltwise10_M2PELU21_0_split_0
I0927 19:02:46.088143  3577 net.cpp:380] Convolution23 -> Convolution23
I0927 19:02:46.089468  3577 net.cpp:122] Setting up Convolution23
I0927 19:02:46.089476  3577 net.cpp:129] Top shape: 100 32 14 14 (627200)
I0927 19:02:46.089478  3577 net.cpp:137] Memory required for data: 565421200
I0927 19:02:46.089483  3577 layer_factory.hpp:77] Creating layer BatchNorm23
I0927 19:02:46.089488  3577 net.cpp:84] Creating Layer BatchNorm23
I0927 19:02:46.089491  3577 net.cpp:406] BatchNorm23 <- Convolution23
I0927 19:02:46.089494  3577 net.cpp:367] BatchNorm23 -> Convolution23 (in-place)
I0927 19:02:46.089630  3577 net.cpp:122] Setting up BatchNorm23
I0927 19:02:46.089635  3577 net.cpp:129] Top shape: 100 32 14 14 (627200)
I0927 19:02:46.089637  3577 net.cpp:137] Memory required for data: 567930000
I0927 19:02:46.089643  3577 layer_factory.hpp:77] Creating layer Scale23
I0927 19:02:46.089645  3577 net.cpp:84] Creating Layer Scale23
I0927 19:02:46.089648  3577 net.cpp:406] Scale23 <- Convolution23
I0927 19:02:46.089653  3577 net.cpp:367] Scale23 -> Convolution23 (in-place)
I0927 19:02:46.089678  3577 layer_factory.hpp:77] Creating layer Scale23
I0927 19:02:46.089753  3577 net.cpp:122] Setting up Scale23
I0927 19:02:46.089757  3577 net.cpp:129] Top shape: 100 32 14 14 (627200)
I0927 19:02:46.089759  3577 net.cpp:137] Memory required for data: 570438800
I0927 19:02:46.089763  3577 layer_factory.hpp:77] Creating layer M2PELU22
I0927 19:02:46.089768  3577 net.cpp:84] Creating Layer M2PELU22
I0927 19:02:46.089771  3577 net.cpp:406] M2PELU22 <- Convolution23
I0927 19:02:46.089774  3577 net.cpp:367] M2PELU22 -> Convolution23 (in-place)
I0927 19:02:46.089857  3577 net.cpp:122] Setting up M2PELU22
I0927 19:02:46.089862  3577 net.cpp:129] Top shape: 100 32 14 14 (627200)
I0927 19:02:46.089864  3577 net.cpp:137] Memory required for data: 572947600
I0927 19:02:46.089867  3577 layer_factory.hpp:77] Creating layer Convolution24
I0927 19:02:46.089874  3577 net.cpp:84] Creating Layer Convolution24
I0927 19:02:46.089876  3577 net.cpp:406] Convolution24 <- Convolution23
I0927 19:02:46.089880  3577 net.cpp:380] Convolution24 -> Convolution24
I0927 19:02:46.090914  3577 net.cpp:122] Setting up Convolution24
I0927 19:02:46.090922  3577 net.cpp:129] Top shape: 100 32 14 14 (627200)
I0927 19:02:46.090925  3577 net.cpp:137] Memory required for data: 575456400
I0927 19:02:46.090929  3577 layer_factory.hpp:77] Creating layer BatchNorm24
I0927 19:02:46.090934  3577 net.cpp:84] Creating Layer BatchNorm24
I0927 19:02:46.090937  3577 net.cpp:406] BatchNorm24 <- Convolution24
I0927 19:02:46.090940  3577 net.cpp:367] BatchNorm24 -> Convolution24 (in-place)
I0927 19:02:46.091074  3577 net.cpp:122] Setting up BatchNorm24
I0927 19:02:46.091078  3577 net.cpp:129] Top shape: 100 32 14 14 (627200)
I0927 19:02:46.091080  3577 net.cpp:137] Memory required for data: 577965200
I0927 19:02:46.091085  3577 layer_factory.hpp:77] Creating layer Scale24
I0927 19:02:46.091095  3577 net.cpp:84] Creating Layer Scale24
I0927 19:02:46.091099  3577 net.cpp:406] Scale24 <- Convolution24
I0927 19:02:46.091101  3577 net.cpp:367] Scale24 -> Convolution24 (in-place)
I0927 19:02:46.091130  3577 layer_factory.hpp:77] Creating layer Scale24
I0927 19:02:46.091205  3577 net.cpp:122] Setting up Scale24
I0927 19:02:46.091209  3577 net.cpp:129] Top shape: 100 32 14 14 (627200)
I0927 19:02:46.091212  3577 net.cpp:137] Memory required for data: 580474000
I0927 19:02:46.091215  3577 layer_factory.hpp:77] Creating layer Eltwise11
I0927 19:02:46.091220  3577 net.cpp:84] Creating Layer Eltwise11
I0927 19:02:46.091223  3577 net.cpp:406] Eltwise11 <- Eltwise10_M2PELU21_0_split_1
I0927 19:02:46.091225  3577 net.cpp:406] Eltwise11 <- Convolution24
I0927 19:02:46.091228  3577 net.cpp:380] Eltwise11 -> Eltwise11
I0927 19:02:46.091244  3577 net.cpp:122] Setting up Eltwise11
I0927 19:02:46.091248  3577 net.cpp:129] Top shape: 100 32 14 14 (627200)
I0927 19:02:46.091250  3577 net.cpp:137] Memory required for data: 582982800
I0927 19:02:46.091253  3577 layer_factory.hpp:77] Creating layer M2PELU23
I0927 19:02:46.091258  3577 net.cpp:84] Creating Layer M2PELU23
I0927 19:02:46.091259  3577 net.cpp:406] M2PELU23 <- Eltwise11
I0927 19:02:46.091262  3577 net.cpp:367] M2PELU23 -> Eltwise11 (in-place)
I0927 19:02:46.091343  3577 net.cpp:122] Setting up M2PELU23
I0927 19:02:46.091348  3577 net.cpp:129] Top shape: 100 32 14 14 (627200)
I0927 19:02:46.091351  3577 net.cpp:137] Memory required for data: 585491600
I0927 19:02:46.091354  3577 layer_factory.hpp:77] Creating layer Eltwise11_M2PELU23_0_split
I0927 19:02:46.091357  3577 net.cpp:84] Creating Layer Eltwise11_M2PELU23_0_split
I0927 19:02:46.091359  3577 net.cpp:406] Eltwise11_M2PELU23_0_split <- Eltwise11
I0927 19:02:46.091363  3577 net.cpp:380] Eltwise11_M2PELU23_0_split -> Eltwise11_M2PELU23_0_split_0
I0927 19:02:46.091367  3577 net.cpp:380] Eltwise11_M2PELU23_0_split -> Eltwise11_M2PELU23_0_split_1
I0927 19:02:46.091392  3577 net.cpp:122] Setting up Eltwise11_M2PELU23_0_split
I0927 19:02:46.091394  3577 net.cpp:129] Top shape: 100 32 14 14 (627200)
I0927 19:02:46.091398  3577 net.cpp:129] Top shape: 100 32 14 14 (627200)
I0927 19:02:46.091399  3577 net.cpp:137] Memory required for data: 590509200
I0927 19:02:46.091401  3577 layer_factory.hpp:77] Creating layer Convolution25
I0927 19:02:46.091408  3577 net.cpp:84] Creating Layer Convolution25
I0927 19:02:46.091409  3577 net.cpp:406] Convolution25 <- Eltwise11_M2PELU23_0_split_0
I0927 19:02:46.091413  3577 net.cpp:380] Convolution25 -> Convolution25
I0927 19:02:46.092432  3577 net.cpp:122] Setting up Convolution25
I0927 19:02:46.092442  3577 net.cpp:129] Top shape: 100 32 14 14 (627200)
I0927 19:02:46.092454  3577 net.cpp:137] Memory required for data: 593018000
I0927 19:02:46.092458  3577 layer_factory.hpp:77] Creating layer BatchNorm25
I0927 19:02:46.092463  3577 net.cpp:84] Creating Layer BatchNorm25
I0927 19:02:46.092466  3577 net.cpp:406] BatchNorm25 <- Convolution25
I0927 19:02:46.092470  3577 net.cpp:367] BatchNorm25 -> Convolution25 (in-place)
I0927 19:02:46.092613  3577 net.cpp:122] Setting up BatchNorm25
I0927 19:02:46.092618  3577 net.cpp:129] Top shape: 100 32 14 14 (627200)
I0927 19:02:46.092620  3577 net.cpp:137] Memory required for data: 595526800
I0927 19:02:46.092624  3577 layer_factory.hpp:77] Creating layer Scale25
I0927 19:02:46.092628  3577 net.cpp:84] Creating Layer Scale25
I0927 19:02:46.092631  3577 net.cpp:406] Scale25 <- Convolution25
I0927 19:02:46.092634  3577 net.cpp:367] Scale25 -> Convolution25 (in-place)
I0927 19:02:46.092660  3577 layer_factory.hpp:77] Creating layer Scale25
I0927 19:02:46.092736  3577 net.cpp:122] Setting up Scale25
I0927 19:02:46.092741  3577 net.cpp:129] Top shape: 100 32 14 14 (627200)
I0927 19:02:46.092742  3577 net.cpp:137] Memory required for data: 598035600
I0927 19:02:46.092746  3577 layer_factory.hpp:77] Creating layer M2PELU24
I0927 19:02:46.092751  3577 net.cpp:84] Creating Layer M2PELU24
I0927 19:02:46.092753  3577 net.cpp:406] M2PELU24 <- Convolution25
I0927 19:02:46.092763  3577 net.cpp:367] M2PELU24 -> Convolution25 (in-place)
I0927 19:02:46.092847  3577 net.cpp:122] Setting up M2PELU24
I0927 19:02:46.092852  3577 net.cpp:129] Top shape: 100 32 14 14 (627200)
I0927 19:02:46.092854  3577 net.cpp:137] Memory required for data: 600544400
I0927 19:02:46.092857  3577 layer_factory.hpp:77] Creating layer Convolution26
I0927 19:02:46.092864  3577 net.cpp:84] Creating Layer Convolution26
I0927 19:02:46.092866  3577 net.cpp:406] Convolution26 <- Convolution25
I0927 19:02:46.092870  3577 net.cpp:380] Convolution26 -> Convolution26
I0927 19:02:46.093920  3577 net.cpp:122] Setting up Convolution26
I0927 19:02:46.093930  3577 net.cpp:129] Top shape: 100 32 14 14 (627200)
I0927 19:02:46.093932  3577 net.cpp:137] Memory required for data: 603053200
I0927 19:02:46.093936  3577 layer_factory.hpp:77] Creating layer BatchNorm26
I0927 19:02:46.093941  3577 net.cpp:84] Creating Layer BatchNorm26
I0927 19:02:46.093945  3577 net.cpp:406] BatchNorm26 <- Convolution26
I0927 19:02:46.093948  3577 net.cpp:367] BatchNorm26 -> Convolution26 (in-place)
I0927 19:02:46.094091  3577 net.cpp:122] Setting up BatchNorm26
I0927 19:02:46.094095  3577 net.cpp:129] Top shape: 100 32 14 14 (627200)
I0927 19:02:46.094097  3577 net.cpp:137] Memory required for data: 605562000
I0927 19:02:46.094102  3577 layer_factory.hpp:77] Creating layer Scale26
I0927 19:02:46.094106  3577 net.cpp:84] Creating Layer Scale26
I0927 19:02:46.094110  3577 net.cpp:406] Scale26 <- Convolution26
I0927 19:02:46.094112  3577 net.cpp:367] Scale26 -> Convolution26 (in-place)
I0927 19:02:46.094139  3577 layer_factory.hpp:77] Creating layer Scale26
I0927 19:02:46.094214  3577 net.cpp:122] Setting up Scale26
I0927 19:02:46.094218  3577 net.cpp:129] Top shape: 100 32 14 14 (627200)
I0927 19:02:46.094220  3577 net.cpp:137] Memory required for data: 608070800
I0927 19:02:46.094224  3577 layer_factory.hpp:77] Creating layer Eltwise12
I0927 19:02:46.094228  3577 net.cpp:84] Creating Layer Eltwise12
I0927 19:02:46.094231  3577 net.cpp:406] Eltwise12 <- Eltwise11_M2PELU23_0_split_1
I0927 19:02:46.094233  3577 net.cpp:406] Eltwise12 <- Convolution26
I0927 19:02:46.094238  3577 net.cpp:380] Eltwise12 -> Eltwise12
I0927 19:02:46.094252  3577 net.cpp:122] Setting up Eltwise12
I0927 19:02:46.094256  3577 net.cpp:129] Top shape: 100 32 14 14 (627200)
I0927 19:02:46.094259  3577 net.cpp:137] Memory required for data: 610579600
I0927 19:02:46.094260  3577 layer_factory.hpp:77] Creating layer M2PELU25
I0927 19:02:46.094265  3577 net.cpp:84] Creating Layer M2PELU25
I0927 19:02:46.094267  3577 net.cpp:406] M2PELU25 <- Eltwise12
I0927 19:02:46.094270  3577 net.cpp:367] M2PELU25 -> Eltwise12 (in-place)
I0927 19:02:46.094352  3577 net.cpp:122] Setting up M2PELU25
I0927 19:02:46.094357  3577 net.cpp:129] Top shape: 100 32 14 14 (627200)
I0927 19:02:46.094359  3577 net.cpp:137] Memory required for data: 613088400
I0927 19:02:46.094363  3577 layer_factory.hpp:77] Creating layer Eltwise12_M2PELU25_0_split
I0927 19:02:46.094375  3577 net.cpp:84] Creating Layer Eltwise12_M2PELU25_0_split
I0927 19:02:46.094377  3577 net.cpp:406] Eltwise12_M2PELU25_0_split <- Eltwise12
I0927 19:02:46.094382  3577 net.cpp:380] Eltwise12_M2PELU25_0_split -> Eltwise12_M2PELU25_0_split_0
I0927 19:02:46.094390  3577 net.cpp:380] Eltwise12_M2PELU25_0_split -> Eltwise12_M2PELU25_0_split_1
I0927 19:02:46.094413  3577 net.cpp:122] Setting up Eltwise12_M2PELU25_0_split
I0927 19:02:46.094418  3577 net.cpp:129] Top shape: 100 32 14 14 (627200)
I0927 19:02:46.094419  3577 net.cpp:129] Top shape: 100 32 14 14 (627200)
I0927 19:02:46.094421  3577 net.cpp:137] Memory required for data: 618106000
I0927 19:02:46.094424  3577 layer_factory.hpp:77] Creating layer Convolution27
I0927 19:02:46.094430  3577 net.cpp:84] Creating Layer Convolution27
I0927 19:02:46.094434  3577 net.cpp:406] Convolution27 <- Eltwise12_M2PELU25_0_split_0
I0927 19:02:46.094436  3577 net.cpp:380] Convolution27 -> Convolution27
I0927 19:02:46.095160  3577 net.cpp:122] Setting up Convolution27
I0927 19:02:46.095168  3577 net.cpp:129] Top shape: 100 32 14 14 (627200)
I0927 19:02:46.095177  3577 net.cpp:137] Memory required for data: 620614800
I0927 19:02:46.095181  3577 layer_factory.hpp:77] Creating layer BatchNorm27
I0927 19:02:46.095186  3577 net.cpp:84] Creating Layer BatchNorm27
I0927 19:02:46.095188  3577 net.cpp:406] BatchNorm27 <- Convolution27
I0927 19:02:46.095194  3577 net.cpp:367] BatchNorm27 -> Convolution27 (in-place)
I0927 19:02:46.095329  3577 net.cpp:122] Setting up BatchNorm27
I0927 19:02:46.095333  3577 net.cpp:129] Top shape: 100 32 14 14 (627200)
I0927 19:02:46.095335  3577 net.cpp:137] Memory required for data: 623123600
I0927 19:02:46.095340  3577 layer_factory.hpp:77] Creating layer Scale27
I0927 19:02:46.095345  3577 net.cpp:84] Creating Layer Scale27
I0927 19:02:46.095346  3577 net.cpp:406] Scale27 <- Convolution27
I0927 19:02:46.095350  3577 net.cpp:367] Scale27 -> Convolution27 (in-place)
I0927 19:02:46.095376  3577 layer_factory.hpp:77] Creating layer Scale27
I0927 19:02:46.095449  3577 net.cpp:122] Setting up Scale27
I0927 19:02:46.095453  3577 net.cpp:129] Top shape: 100 32 14 14 (627200)
I0927 19:02:46.095455  3577 net.cpp:137] Memory required for data: 625632400
I0927 19:02:46.095459  3577 layer_factory.hpp:77] Creating layer M2PELU26
I0927 19:02:46.095463  3577 net.cpp:84] Creating Layer M2PELU26
I0927 19:02:46.095466  3577 net.cpp:406] M2PELU26 <- Convolution27
I0927 19:02:46.095469  3577 net.cpp:367] M2PELU26 -> Convolution27 (in-place)
I0927 19:02:46.095552  3577 net.cpp:122] Setting up M2PELU26
I0927 19:02:46.095556  3577 net.cpp:129] Top shape: 100 32 14 14 (627200)
I0927 19:02:46.095558  3577 net.cpp:137] Memory required for data: 628141200
I0927 19:02:46.095562  3577 layer_factory.hpp:77] Creating layer Convolution28
I0927 19:02:46.095569  3577 net.cpp:84] Creating Layer Convolution28
I0927 19:02:46.095571  3577 net.cpp:406] Convolution28 <- Convolution27
I0927 19:02:46.095576  3577 net.cpp:380] Convolution28 -> Convolution28
I0927 19:02:46.096597  3577 net.cpp:122] Setting up Convolution28
I0927 19:02:46.096606  3577 net.cpp:129] Top shape: 100 32 14 14 (627200)
I0927 19:02:46.096608  3577 net.cpp:137] Memory required for data: 630650000
I0927 19:02:46.096612  3577 layer_factory.hpp:77] Creating layer BatchNorm28
I0927 19:02:46.096617  3577 net.cpp:84] Creating Layer BatchNorm28
I0927 19:02:46.096621  3577 net.cpp:406] BatchNorm28 <- Convolution28
I0927 19:02:46.096624  3577 net.cpp:367] BatchNorm28 -> Convolution28 (in-place)
I0927 19:02:46.096757  3577 net.cpp:122] Setting up BatchNorm28
I0927 19:02:46.096761  3577 net.cpp:129] Top shape: 100 32 14 14 (627200)
I0927 19:02:46.096765  3577 net.cpp:137] Memory required for data: 633158800
I0927 19:02:46.096768  3577 layer_factory.hpp:77] Creating layer Scale28
I0927 19:02:46.096773  3577 net.cpp:84] Creating Layer Scale28
I0927 19:02:46.096776  3577 net.cpp:406] Scale28 <- Convolution28
I0927 19:02:46.096778  3577 net.cpp:367] Scale28 -> Convolution28 (in-place)
I0927 19:02:46.096804  3577 layer_factory.hpp:77] Creating layer Scale28
I0927 19:02:46.096879  3577 net.cpp:122] Setting up Scale28
I0927 19:02:46.096884  3577 net.cpp:129] Top shape: 100 32 14 14 (627200)
I0927 19:02:46.096885  3577 net.cpp:137] Memory required for data: 635667600
I0927 19:02:46.096889  3577 layer_factory.hpp:77] Creating layer Eltwise13
I0927 19:02:46.096896  3577 net.cpp:84] Creating Layer Eltwise13
I0927 19:02:46.096899  3577 net.cpp:406] Eltwise13 <- Eltwise12_M2PELU25_0_split_1
I0927 19:02:46.096901  3577 net.cpp:406] Eltwise13 <- Convolution28
I0927 19:02:46.096905  3577 net.cpp:380] Eltwise13 -> Eltwise13
I0927 19:02:46.096921  3577 net.cpp:122] Setting up Eltwise13
I0927 19:02:46.096925  3577 net.cpp:129] Top shape: 100 32 14 14 (627200)
I0927 19:02:46.096926  3577 net.cpp:137] Memory required for data: 638176400
I0927 19:02:46.096928  3577 layer_factory.hpp:77] Creating layer M2PELU27
I0927 19:02:46.096933  3577 net.cpp:84] Creating Layer M2PELU27
I0927 19:02:46.096936  3577 net.cpp:406] M2PELU27 <- Eltwise13
I0927 19:02:46.096940  3577 net.cpp:367] M2PELU27 -> Eltwise13 (in-place)
I0927 19:02:46.097030  3577 net.cpp:122] Setting up M2PELU27
I0927 19:02:46.097035  3577 net.cpp:129] Top shape: 100 32 14 14 (627200)
I0927 19:02:46.097038  3577 net.cpp:137] Memory required for data: 640685200
I0927 19:02:46.097040  3577 layer_factory.hpp:77] Creating layer Eltwise13_M2PELU27_0_split
I0927 19:02:46.097044  3577 net.cpp:84] Creating Layer Eltwise13_M2PELU27_0_split
I0927 19:02:46.097046  3577 net.cpp:406] Eltwise13_M2PELU27_0_split <- Eltwise13
I0927 19:02:46.097050  3577 net.cpp:380] Eltwise13_M2PELU27_0_split -> Eltwise13_M2PELU27_0_split_0
I0927 19:02:46.097054  3577 net.cpp:380] Eltwise13_M2PELU27_0_split -> Eltwise13_M2PELU27_0_split_1
I0927 19:02:46.097077  3577 net.cpp:122] Setting up Eltwise13_M2PELU27_0_split
I0927 19:02:46.097081  3577 net.cpp:129] Top shape: 100 32 14 14 (627200)
I0927 19:02:46.097084  3577 net.cpp:129] Top shape: 100 32 14 14 (627200)
I0927 19:02:46.097086  3577 net.cpp:137] Memory required for data: 645702800
I0927 19:02:46.097088  3577 layer_factory.hpp:77] Creating layer Convolution29
I0927 19:02:46.097093  3577 net.cpp:84] Creating Layer Convolution29
I0927 19:02:46.097095  3577 net.cpp:406] Convolution29 <- Eltwise13_M2PELU27_0_split_0
I0927 19:02:46.097100  3577 net.cpp:380] Convolution29 -> Convolution29
I0927 19:02:46.098120  3577 net.cpp:122] Setting up Convolution29
I0927 19:02:46.098129  3577 net.cpp:129] Top shape: 100 32 14 14 (627200)
I0927 19:02:46.098132  3577 net.cpp:137] Memory required for data: 648211600
I0927 19:02:46.098136  3577 layer_factory.hpp:77] Creating layer BatchNorm29
I0927 19:02:46.098141  3577 net.cpp:84] Creating Layer BatchNorm29
I0927 19:02:46.098143  3577 net.cpp:406] BatchNorm29 <- Convolution29
I0927 19:02:46.098148  3577 net.cpp:367] BatchNorm29 -> Convolution29 (in-place)
I0927 19:02:46.098282  3577 net.cpp:122] Setting up BatchNorm29
I0927 19:02:46.098286  3577 net.cpp:129] Top shape: 100 32 14 14 (627200)
I0927 19:02:46.098289  3577 net.cpp:137] Memory required for data: 650720400
I0927 19:02:46.098294  3577 layer_factory.hpp:77] Creating layer Scale29
I0927 19:02:46.098297  3577 net.cpp:84] Creating Layer Scale29
I0927 19:02:46.098300  3577 net.cpp:406] Scale29 <- Convolution29
I0927 19:02:46.098304  3577 net.cpp:367] Scale29 -> Convolution29 (in-place)
I0927 19:02:46.098330  3577 layer_factory.hpp:77] Creating layer Scale29
I0927 19:02:46.098405  3577 net.cpp:122] Setting up Scale29
I0927 19:02:46.098410  3577 net.cpp:129] Top shape: 100 32 14 14 (627200)
I0927 19:02:46.098412  3577 net.cpp:137] Memory required for data: 653229200
I0927 19:02:46.098433  3577 layer_factory.hpp:77] Creating layer M2PELU28
I0927 19:02:46.098438  3577 net.cpp:84] Creating Layer M2PELU28
I0927 19:02:46.098440  3577 net.cpp:406] M2PELU28 <- Convolution29
I0927 19:02:46.098443  3577 net.cpp:367] M2PELU28 -> Convolution29 (in-place)
I0927 19:02:46.098544  3577 net.cpp:122] Setting up M2PELU28
I0927 19:02:46.098551  3577 net.cpp:129] Top shape: 100 32 14 14 (627200)
I0927 19:02:46.098553  3577 net.cpp:137] Memory required for data: 655738000
I0927 19:02:46.098567  3577 layer_factory.hpp:77] Creating layer Convolution30
I0927 19:02:46.098573  3577 net.cpp:84] Creating Layer Convolution30
I0927 19:02:46.098575  3577 net.cpp:406] Convolution30 <- Convolution29
I0927 19:02:46.098579  3577 net.cpp:380] Convolution30 -> Convolution30
I0927 19:02:46.099606  3577 net.cpp:122] Setting up Convolution30
I0927 19:02:46.099614  3577 net.cpp:129] Top shape: 100 32 14 14 (627200)
I0927 19:02:46.099617  3577 net.cpp:137] Memory required for data: 658246800
I0927 19:02:46.099622  3577 layer_factory.hpp:77] Creating layer BatchNorm30
I0927 19:02:46.099627  3577 net.cpp:84] Creating Layer BatchNorm30
I0927 19:02:46.099629  3577 net.cpp:406] BatchNorm30 <- Convolution30
I0927 19:02:46.099633  3577 net.cpp:367] BatchNorm30 -> Convolution30 (in-place)
I0927 19:02:46.099768  3577 net.cpp:122] Setting up BatchNorm30
I0927 19:02:46.099773  3577 net.cpp:129] Top shape: 100 32 14 14 (627200)
I0927 19:02:46.099776  3577 net.cpp:137] Memory required for data: 660755600
I0927 19:02:46.099786  3577 layer_factory.hpp:77] Creating layer Scale30
I0927 19:02:46.099791  3577 net.cpp:84] Creating Layer Scale30
I0927 19:02:46.099793  3577 net.cpp:406] Scale30 <- Convolution30
I0927 19:02:46.099797  3577 net.cpp:367] Scale30 -> Convolution30 (in-place)
I0927 19:02:46.099825  3577 layer_factory.hpp:77] Creating layer Scale30
I0927 19:02:46.099902  3577 net.cpp:122] Setting up Scale30
I0927 19:02:46.099906  3577 net.cpp:129] Top shape: 100 32 14 14 (627200)
I0927 19:02:46.099908  3577 net.cpp:137] Memory required for data: 663264400
I0927 19:02:46.099912  3577 layer_factory.hpp:77] Creating layer Eltwise14
I0927 19:02:46.099916  3577 net.cpp:84] Creating Layer Eltwise14
I0927 19:02:46.099918  3577 net.cpp:406] Eltwise14 <- Eltwise13_M2PELU27_0_split_1
I0927 19:02:46.099921  3577 net.cpp:406] Eltwise14 <- Convolution30
I0927 19:02:46.099925  3577 net.cpp:380] Eltwise14 -> Eltwise14
I0927 19:02:46.099941  3577 net.cpp:122] Setting up Eltwise14
I0927 19:02:46.099944  3577 net.cpp:129] Top shape: 100 32 14 14 (627200)
I0927 19:02:46.099946  3577 net.cpp:137] Memory required for data: 665773200
I0927 19:02:46.099948  3577 layer_factory.hpp:77] Creating layer M2PELU29
I0927 19:02:46.099953  3577 net.cpp:84] Creating Layer M2PELU29
I0927 19:02:46.099956  3577 net.cpp:406] M2PELU29 <- Eltwise14
I0927 19:02:46.099958  3577 net.cpp:367] M2PELU29 -> Eltwise14 (in-place)
I0927 19:02:46.100041  3577 net.cpp:122] Setting up M2PELU29
I0927 19:02:46.100046  3577 net.cpp:129] Top shape: 100 32 14 14 (627200)
I0927 19:02:46.100049  3577 net.cpp:137] Memory required for data: 668282000
I0927 19:02:46.100052  3577 layer_factory.hpp:77] Creating layer Eltwise14_M2PELU29_0_split
I0927 19:02:46.100055  3577 net.cpp:84] Creating Layer Eltwise14_M2PELU29_0_split
I0927 19:02:46.100057  3577 net.cpp:406] Eltwise14_M2PELU29_0_split <- Eltwise14
I0927 19:02:46.100060  3577 net.cpp:380] Eltwise14_M2PELU29_0_split -> Eltwise14_M2PELU29_0_split_0
I0927 19:02:46.100065  3577 net.cpp:380] Eltwise14_M2PELU29_0_split -> Eltwise14_M2PELU29_0_split_1
I0927 19:02:46.100088  3577 net.cpp:122] Setting up Eltwise14_M2PELU29_0_split
I0927 19:02:46.100092  3577 net.cpp:129] Top shape: 100 32 14 14 (627200)
I0927 19:02:46.100095  3577 net.cpp:129] Top shape: 100 32 14 14 (627200)
I0927 19:02:46.100096  3577 net.cpp:137] Memory required for data: 673299600
I0927 19:02:46.100098  3577 layer_factory.hpp:77] Creating layer Convolution31
I0927 19:02:46.100105  3577 net.cpp:84] Creating Layer Convolution31
I0927 19:02:46.100107  3577 net.cpp:406] Convolution31 <- Eltwise14_M2PELU29_0_split_0
I0927 19:02:46.100111  3577 net.cpp:380] Convolution31 -> Convolution31
I0927 19:02:46.101135  3577 net.cpp:122] Setting up Convolution31
I0927 19:02:46.101143  3577 net.cpp:129] Top shape: 100 32 14 14 (627200)
I0927 19:02:46.101146  3577 net.cpp:137] Memory required for data: 675808400
I0927 19:02:46.101150  3577 layer_factory.hpp:77] Creating layer BatchNorm31
I0927 19:02:46.101155  3577 net.cpp:84] Creating Layer BatchNorm31
I0927 19:02:46.101158  3577 net.cpp:406] BatchNorm31 <- Convolution31
I0927 19:02:46.101162  3577 net.cpp:367] BatchNorm31 -> Convolution31 (in-place)
I0927 19:02:46.101297  3577 net.cpp:122] Setting up BatchNorm31
I0927 19:02:46.101301  3577 net.cpp:129] Top shape: 100 32 14 14 (627200)
I0927 19:02:46.101303  3577 net.cpp:137] Memory required for data: 678317200
I0927 19:02:46.101308  3577 layer_factory.hpp:77] Creating layer Scale31
I0927 19:02:46.101313  3577 net.cpp:84] Creating Layer Scale31
I0927 19:02:46.101315  3577 net.cpp:406] Scale31 <- Convolution31
I0927 19:02:46.101318  3577 net.cpp:367] Scale31 -> Convolution31 (in-place)
I0927 19:02:46.101344  3577 layer_factory.hpp:77] Creating layer Scale31
I0927 19:02:46.101423  3577 net.cpp:122] Setting up Scale31
I0927 19:02:46.101428  3577 net.cpp:129] Top shape: 100 32 14 14 (627200)
I0927 19:02:46.101429  3577 net.cpp:137] Memory required for data: 680826000
I0927 19:02:46.101433  3577 layer_factory.hpp:77] Creating layer M2PELU30
I0927 19:02:46.101438  3577 net.cpp:84] Creating Layer M2PELU30
I0927 19:02:46.101449  3577 net.cpp:406] M2PELU30 <- Convolution31
I0927 19:02:46.101452  3577 net.cpp:367] M2PELU30 -> Convolution31 (in-place)
I0927 19:02:46.101538  3577 net.cpp:122] Setting up M2PELU30
I0927 19:02:46.101543  3577 net.cpp:129] Top shape: 100 32 14 14 (627200)
I0927 19:02:46.101546  3577 net.cpp:137] Memory required for data: 683334800
I0927 19:02:46.101549  3577 layer_factory.hpp:77] Creating layer Convolution32
I0927 19:02:46.101555  3577 net.cpp:84] Creating Layer Convolution32
I0927 19:02:46.101558  3577 net.cpp:406] Convolution32 <- Convolution31
I0927 19:02:46.101562  3577 net.cpp:380] Convolution32 -> Convolution32
I0927 19:02:46.102654  3577 net.cpp:122] Setting up Convolution32
I0927 19:02:46.102664  3577 net.cpp:129] Top shape: 100 32 14 14 (627200)
I0927 19:02:46.102666  3577 net.cpp:137] Memory required for data: 685843600
I0927 19:02:46.102671  3577 layer_factory.hpp:77] Creating layer BatchNorm32
I0927 19:02:46.102685  3577 net.cpp:84] Creating Layer BatchNorm32
I0927 19:02:46.102689  3577 net.cpp:406] BatchNorm32 <- Convolution32
I0927 19:02:46.102692  3577 net.cpp:367] BatchNorm32 -> Convolution32 (in-place)
I0927 19:02:46.102839  3577 net.cpp:122] Setting up BatchNorm32
I0927 19:02:46.102843  3577 net.cpp:129] Top shape: 100 32 14 14 (627200)
I0927 19:02:46.102845  3577 net.cpp:137] Memory required for data: 688352400
I0927 19:02:46.102850  3577 layer_factory.hpp:77] Creating layer Scale32
I0927 19:02:46.102855  3577 net.cpp:84] Creating Layer Scale32
I0927 19:02:46.102857  3577 net.cpp:406] Scale32 <- Convolution32
I0927 19:02:46.102861  3577 net.cpp:367] Scale32 -> Convolution32 (in-place)
I0927 19:02:46.102887  3577 layer_factory.hpp:77] Creating layer Scale32
I0927 19:02:46.102963  3577 net.cpp:122] Setting up Scale32
I0927 19:02:46.102968  3577 net.cpp:129] Top shape: 100 32 14 14 (627200)
I0927 19:02:46.102970  3577 net.cpp:137] Memory required for data: 690861200
I0927 19:02:46.102973  3577 layer_factory.hpp:77] Creating layer Eltwise15
I0927 19:02:46.102977  3577 net.cpp:84] Creating Layer Eltwise15
I0927 19:02:46.102980  3577 net.cpp:406] Eltwise15 <- Eltwise14_M2PELU29_0_split_1
I0927 19:02:46.102983  3577 net.cpp:406] Eltwise15 <- Convolution32
I0927 19:02:46.102988  3577 net.cpp:380] Eltwise15 -> Eltwise15
I0927 19:02:46.103003  3577 net.cpp:122] Setting up Eltwise15
I0927 19:02:46.103006  3577 net.cpp:129] Top shape: 100 32 14 14 (627200)
I0927 19:02:46.103008  3577 net.cpp:137] Memory required for data: 693370000
I0927 19:02:46.103010  3577 layer_factory.hpp:77] Creating layer M2PELU31
I0927 19:02:46.103015  3577 net.cpp:84] Creating Layer M2PELU31
I0927 19:02:46.103018  3577 net.cpp:406] M2PELU31 <- Eltwise15
I0927 19:02:46.103021  3577 net.cpp:367] M2PELU31 -> Eltwise15 (in-place)
I0927 19:02:46.103106  3577 net.cpp:122] Setting up M2PELU31
I0927 19:02:46.103109  3577 net.cpp:129] Top shape: 100 32 14 14 (627200)
I0927 19:02:46.103111  3577 net.cpp:137] Memory required for data: 695878800
I0927 19:02:46.103116  3577 layer_factory.hpp:77] Creating layer Eltwise15_M2PELU31_0_split
I0927 19:02:46.103118  3577 net.cpp:84] Creating Layer Eltwise15_M2PELU31_0_split
I0927 19:02:46.103121  3577 net.cpp:406] Eltwise15_M2PELU31_0_split <- Eltwise15
I0927 19:02:46.103124  3577 net.cpp:380] Eltwise15_M2PELU31_0_split -> Eltwise15_M2PELU31_0_split_0
I0927 19:02:46.103128  3577 net.cpp:380] Eltwise15_M2PELU31_0_split -> Eltwise15_M2PELU31_0_split_1
I0927 19:02:46.103152  3577 net.cpp:122] Setting up Eltwise15_M2PELU31_0_split
I0927 19:02:46.103155  3577 net.cpp:129] Top shape: 100 32 14 14 (627200)
I0927 19:02:46.103158  3577 net.cpp:129] Top shape: 100 32 14 14 (627200)
I0927 19:02:46.103160  3577 net.cpp:137] Memory required for data: 700896400
I0927 19:02:46.103163  3577 layer_factory.hpp:77] Creating layer Convolution33
I0927 19:02:46.103168  3577 net.cpp:84] Creating Layer Convolution33
I0927 19:02:46.103170  3577 net.cpp:406] Convolution33 <- Eltwise15_M2PELU31_0_split_0
I0927 19:02:46.103174  3577 net.cpp:380] Convolution33 -> Convolution33
I0927 19:02:46.104521  3577 net.cpp:122] Setting up Convolution33
I0927 19:02:46.104529  3577 net.cpp:129] Top shape: 100 32 14 14 (627200)
I0927 19:02:46.104532  3577 net.cpp:137] Memory required for data: 703405200
I0927 19:02:46.104537  3577 layer_factory.hpp:77] Creating layer BatchNorm33
I0927 19:02:46.104540  3577 net.cpp:84] Creating Layer BatchNorm33
I0927 19:02:46.104543  3577 net.cpp:406] BatchNorm33 <- Convolution33
I0927 19:02:46.104547  3577 net.cpp:367] BatchNorm33 -> Convolution33 (in-place)
I0927 19:02:46.104688  3577 net.cpp:122] Setting up BatchNorm33
I0927 19:02:46.104692  3577 net.cpp:129] Top shape: 100 32 14 14 (627200)
I0927 19:02:46.104694  3577 net.cpp:137] Memory required for data: 705914000
I0927 19:02:46.104699  3577 layer_factory.hpp:77] Creating layer Scale33
I0927 19:02:46.104703  3577 net.cpp:84] Creating Layer Scale33
I0927 19:02:46.104706  3577 net.cpp:406] Scale33 <- Convolution33
I0927 19:02:46.104709  3577 net.cpp:367] Scale33 -> Convolution33 (in-place)
I0927 19:02:46.104735  3577 layer_factory.hpp:77] Creating layer Scale33
I0927 19:02:46.104815  3577 net.cpp:122] Setting up Scale33
I0927 19:02:46.104818  3577 net.cpp:129] Top shape: 100 32 14 14 (627200)
I0927 19:02:46.104820  3577 net.cpp:137] Memory required for data: 708422800
I0927 19:02:46.104825  3577 layer_factory.hpp:77] Creating layer M2PELU32
I0927 19:02:46.104830  3577 net.cpp:84] Creating Layer M2PELU32
I0927 19:02:46.104832  3577 net.cpp:406] M2PELU32 <- Convolution33
I0927 19:02:46.104835  3577 net.cpp:367] M2PELU32 -> Convolution33 (in-place)
I0927 19:02:46.104920  3577 net.cpp:122] Setting up M2PELU32
I0927 19:02:46.104924  3577 net.cpp:129] Top shape: 100 32 14 14 (627200)
I0927 19:02:46.104926  3577 net.cpp:137] Memory required for data: 710931600
I0927 19:02:46.104930  3577 layer_factory.hpp:77] Creating layer Convolution34
I0927 19:02:46.104938  3577 net.cpp:84] Creating Layer Convolution34
I0927 19:02:46.104939  3577 net.cpp:406] Convolution34 <- Convolution33
I0927 19:02:46.104943  3577 net.cpp:380] Convolution34 -> Convolution34
I0927 19:02:46.105979  3577 net.cpp:122] Setting up Convolution34
I0927 19:02:46.105988  3577 net.cpp:129] Top shape: 100 32 14 14 (627200)
I0927 19:02:46.105991  3577 net.cpp:137] Memory required for data: 713440400
I0927 19:02:46.105995  3577 layer_factory.hpp:77] Creating layer BatchNorm34
I0927 19:02:46.106000  3577 net.cpp:84] Creating Layer BatchNorm34
I0927 19:02:46.106003  3577 net.cpp:406] BatchNorm34 <- Convolution34
I0927 19:02:46.106007  3577 net.cpp:367] BatchNorm34 -> Convolution34 (in-place)
I0927 19:02:46.106144  3577 net.cpp:122] Setting up BatchNorm34
I0927 19:02:46.106148  3577 net.cpp:129] Top shape: 100 32 14 14 (627200)
I0927 19:02:46.106150  3577 net.cpp:137] Memory required for data: 715949200
I0927 19:02:46.106155  3577 layer_factory.hpp:77] Creating layer Scale34
I0927 19:02:46.106159  3577 net.cpp:84] Creating Layer Scale34
I0927 19:02:46.106161  3577 net.cpp:406] Scale34 <- Convolution34
I0927 19:02:46.106164  3577 net.cpp:367] Scale34 -> Convolution34 (in-place)
I0927 19:02:46.106191  3577 layer_factory.hpp:77] Creating layer Scale34
I0927 19:02:46.106268  3577 net.cpp:122] Setting up Scale34
I0927 19:02:46.106272  3577 net.cpp:129] Top shape: 100 32 14 14 (627200)
I0927 19:02:46.106274  3577 net.cpp:137] Memory required for data: 718458000
I0927 19:02:46.106278  3577 layer_factory.hpp:77] Creating layer Eltwise16
I0927 19:02:46.106282  3577 net.cpp:84] Creating Layer Eltwise16
I0927 19:02:46.106287  3577 net.cpp:406] Eltwise16 <- Eltwise15_M2PELU31_0_split_1
I0927 19:02:46.106289  3577 net.cpp:406] Eltwise16 <- Convolution34
I0927 19:02:46.106292  3577 net.cpp:380] Eltwise16 -> Eltwise16
I0927 19:02:46.106308  3577 net.cpp:122] Setting up Eltwise16
I0927 19:02:46.106312  3577 net.cpp:129] Top shape: 100 32 14 14 (627200)
I0927 19:02:46.106313  3577 net.cpp:137] Memory required for data: 720966800
I0927 19:02:46.106315  3577 layer_factory.hpp:77] Creating layer M2PELU33
I0927 19:02:46.106320  3577 net.cpp:84] Creating Layer M2PELU33
I0927 19:02:46.106323  3577 net.cpp:406] M2PELU33 <- Eltwise16
I0927 19:02:46.106333  3577 net.cpp:367] M2PELU33 -> Eltwise16 (in-place)
I0927 19:02:46.106420  3577 net.cpp:122] Setting up M2PELU33
I0927 19:02:46.106425  3577 net.cpp:129] Top shape: 100 32 14 14 (627200)
I0927 19:02:46.106426  3577 net.cpp:137] Memory required for data: 723475600
I0927 19:02:46.106429  3577 layer_factory.hpp:77] Creating layer Eltwise16_M2PELU33_0_split
I0927 19:02:46.106434  3577 net.cpp:84] Creating Layer Eltwise16_M2PELU33_0_split
I0927 19:02:46.106436  3577 net.cpp:406] Eltwise16_M2PELU33_0_split <- Eltwise16
I0927 19:02:46.106439  3577 net.cpp:380] Eltwise16_M2PELU33_0_split -> Eltwise16_M2PELU33_0_split_0
I0927 19:02:46.106443  3577 net.cpp:380] Eltwise16_M2PELU33_0_split -> Eltwise16_M2PELU33_0_split_1
I0927 19:02:46.106467  3577 net.cpp:122] Setting up Eltwise16_M2PELU33_0_split
I0927 19:02:46.106470  3577 net.cpp:129] Top shape: 100 32 14 14 (627200)
I0927 19:02:46.106472  3577 net.cpp:129] Top shape: 100 32 14 14 (627200)
I0927 19:02:46.106474  3577 net.cpp:137] Memory required for data: 728493200
I0927 19:02:46.106477  3577 layer_factory.hpp:77] Creating layer Convolution35
I0927 19:02:46.106483  3577 net.cpp:84] Creating Layer Convolution35
I0927 19:02:46.106485  3577 net.cpp:406] Convolution35 <- Eltwise16_M2PELU33_0_split_0
I0927 19:02:46.106489  3577 net.cpp:380] Convolution35 -> Convolution35
I0927 19:02:46.107573  3577 net.cpp:122] Setting up Convolution35
I0927 19:02:46.107581  3577 net.cpp:129] Top shape: 100 32 14 14 (627200)
I0927 19:02:46.107584  3577 net.cpp:137] Memory required for data: 731002000
I0927 19:02:46.107589  3577 layer_factory.hpp:77] Creating layer BatchNorm35
I0927 19:02:46.107594  3577 net.cpp:84] Creating Layer BatchNorm35
I0927 19:02:46.107596  3577 net.cpp:406] BatchNorm35 <- Convolution35
I0927 19:02:46.107600  3577 net.cpp:367] BatchNorm35 -> Convolution35 (in-place)
I0927 19:02:46.107739  3577 net.cpp:122] Setting up BatchNorm35
I0927 19:02:46.107744  3577 net.cpp:129] Top shape: 100 32 14 14 (627200)
I0927 19:02:46.107746  3577 net.cpp:137] Memory required for data: 733510800
I0927 19:02:46.107750  3577 layer_factory.hpp:77] Creating layer Scale35
I0927 19:02:46.107755  3577 net.cpp:84] Creating Layer Scale35
I0927 19:02:46.107758  3577 net.cpp:406] Scale35 <- Convolution35
I0927 19:02:46.107761  3577 net.cpp:367] Scale35 -> Convolution35 (in-place)
I0927 19:02:46.107789  3577 layer_factory.hpp:77] Creating layer Scale35
I0927 19:02:46.107867  3577 net.cpp:122] Setting up Scale35
I0927 19:02:46.107872  3577 net.cpp:129] Top shape: 100 32 14 14 (627200)
I0927 19:02:46.107873  3577 net.cpp:137] Memory required for data: 736019600
I0927 19:02:46.107877  3577 layer_factory.hpp:77] Creating layer M2PELU34
I0927 19:02:46.107882  3577 net.cpp:84] Creating Layer M2PELU34
I0927 19:02:46.107884  3577 net.cpp:406] M2PELU34 <- Convolution35
I0927 19:02:46.107888  3577 net.cpp:367] M2PELU34 -> Convolution35 (in-place)
I0927 19:02:46.107973  3577 net.cpp:122] Setting up M2PELU34
I0927 19:02:46.107978  3577 net.cpp:129] Top shape: 100 32 14 14 (627200)
I0927 19:02:46.107980  3577 net.cpp:137] Memory required for data: 738528400
I0927 19:02:46.107983  3577 layer_factory.hpp:77] Creating layer Convolution36
I0927 19:02:46.107990  3577 net.cpp:84] Creating Layer Convolution36
I0927 19:02:46.107992  3577 net.cpp:406] Convolution36 <- Convolution35
I0927 19:02:46.107997  3577 net.cpp:380] Convolution36 -> Convolution36
I0927 19:02:46.109037  3577 net.cpp:122] Setting up Convolution36
I0927 19:02:46.109045  3577 net.cpp:129] Top shape: 100 32 14 14 (627200)
I0927 19:02:46.109048  3577 net.cpp:137] Memory required for data: 741037200
I0927 19:02:46.109052  3577 layer_factory.hpp:77] Creating layer BatchNorm36
I0927 19:02:46.109058  3577 net.cpp:84] Creating Layer BatchNorm36
I0927 19:02:46.109061  3577 net.cpp:406] BatchNorm36 <- Convolution36
I0927 19:02:46.109064  3577 net.cpp:367] BatchNorm36 -> Convolution36 (in-place)
I0927 19:02:46.109203  3577 net.cpp:122] Setting up BatchNorm36
I0927 19:02:46.109208  3577 net.cpp:129] Top shape: 100 32 14 14 (627200)
I0927 19:02:46.109216  3577 net.cpp:137] Memory required for data: 743546000
I0927 19:02:46.109221  3577 layer_factory.hpp:77] Creating layer Scale36
I0927 19:02:46.109226  3577 net.cpp:84] Creating Layer Scale36
I0927 19:02:46.109228  3577 net.cpp:406] Scale36 <- Convolution36
I0927 19:02:46.109231  3577 net.cpp:367] Scale36 -> Convolution36 (in-place)
I0927 19:02:46.109259  3577 layer_factory.hpp:77] Creating layer Scale36
I0927 19:02:46.109336  3577 net.cpp:122] Setting up Scale36
I0927 19:02:46.109340  3577 net.cpp:129] Top shape: 100 32 14 14 (627200)
I0927 19:02:46.109342  3577 net.cpp:137] Memory required for data: 746054800
I0927 19:02:46.109346  3577 layer_factory.hpp:77] Creating layer Eltwise17
I0927 19:02:46.109350  3577 net.cpp:84] Creating Layer Eltwise17
I0927 19:02:46.109352  3577 net.cpp:406] Eltwise17 <- Eltwise16_M2PELU33_0_split_1
I0927 19:02:46.109355  3577 net.cpp:406] Eltwise17 <- Convolution36
I0927 19:02:46.109359  3577 net.cpp:380] Eltwise17 -> Eltwise17
I0927 19:02:46.109375  3577 net.cpp:122] Setting up Eltwise17
I0927 19:02:46.109378  3577 net.cpp:129] Top shape: 100 32 14 14 (627200)
I0927 19:02:46.109380  3577 net.cpp:137] Memory required for data: 748563600
I0927 19:02:46.109382  3577 layer_factory.hpp:77] Creating layer M2PELU35
I0927 19:02:46.109387  3577 net.cpp:84] Creating Layer M2PELU35
I0927 19:02:46.109390  3577 net.cpp:406] M2PELU35 <- Eltwise17
I0927 19:02:46.109393  3577 net.cpp:367] M2PELU35 -> Eltwise17 (in-place)
I0927 19:02:46.109477  3577 net.cpp:122] Setting up M2PELU35
I0927 19:02:46.109483  3577 net.cpp:129] Top shape: 100 32 14 14 (627200)
I0927 19:02:46.109484  3577 net.cpp:137] Memory required for data: 751072400
I0927 19:02:46.109488  3577 layer_factory.hpp:77] Creating layer Eltwise17_M2PELU35_0_split
I0927 19:02:46.109493  3577 net.cpp:84] Creating Layer Eltwise17_M2PELU35_0_split
I0927 19:02:46.109494  3577 net.cpp:406] Eltwise17_M2PELU35_0_split <- Eltwise17
I0927 19:02:46.109498  3577 net.cpp:380] Eltwise17_M2PELU35_0_split -> Eltwise17_M2PELU35_0_split_0
I0927 19:02:46.109501  3577 net.cpp:380] Eltwise17_M2PELU35_0_split -> Eltwise17_M2PELU35_0_split_1
I0927 19:02:46.109524  3577 net.cpp:122] Setting up Eltwise17_M2PELU35_0_split
I0927 19:02:46.109529  3577 net.cpp:129] Top shape: 100 32 14 14 (627200)
I0927 19:02:46.109531  3577 net.cpp:129] Top shape: 100 32 14 14 (627200)
I0927 19:02:46.109532  3577 net.cpp:137] Memory required for data: 756090000
I0927 19:02:46.109534  3577 layer_factory.hpp:77] Creating layer Convolution37
I0927 19:02:46.109540  3577 net.cpp:84] Creating Layer Convolution37
I0927 19:02:46.109544  3577 net.cpp:406] Convolution37 <- Eltwise17_M2PELU35_0_split_0
I0927 19:02:46.109547  3577 net.cpp:380] Convolution37 -> Convolution37
I0927 19:02:46.110258  3577 net.cpp:122] Setting up Convolution37
I0927 19:02:46.110265  3577 net.cpp:129] Top shape: 100 32 14 14 (627200)
I0927 19:02:46.110268  3577 net.cpp:137] Memory required for data: 758598800
I0927 19:02:46.110272  3577 layer_factory.hpp:77] Creating layer BatchNorm37
I0927 19:02:46.110277  3577 net.cpp:84] Creating Layer BatchNorm37
I0927 19:02:46.110280  3577 net.cpp:406] BatchNorm37 <- Convolution37
I0927 19:02:46.110283  3577 net.cpp:367] BatchNorm37 -> Convolution37 (in-place)
I0927 19:02:46.110419  3577 net.cpp:122] Setting up BatchNorm37
I0927 19:02:46.110424  3577 net.cpp:129] Top shape: 100 32 14 14 (627200)
I0927 19:02:46.110425  3577 net.cpp:137] Memory required for data: 761107600
I0927 19:02:46.110430  3577 layer_factory.hpp:77] Creating layer Scale37
I0927 19:02:46.110433  3577 net.cpp:84] Creating Layer Scale37
I0927 19:02:46.110436  3577 net.cpp:406] Scale37 <- Convolution37
I0927 19:02:46.110440  3577 net.cpp:367] Scale37 -> Convolution37 (in-place)
I0927 19:02:46.110466  3577 layer_factory.hpp:77] Creating layer Scale37
I0927 19:02:46.110568  3577 net.cpp:122] Setting up Scale37
I0927 19:02:46.110572  3577 net.cpp:129] Top shape: 100 32 14 14 (627200)
I0927 19:02:46.110574  3577 net.cpp:137] Memory required for data: 763616400
I0927 19:02:46.110579  3577 layer_factory.hpp:77] Creating layer M2PELU36
I0927 19:02:46.110590  3577 net.cpp:84] Creating Layer M2PELU36
I0927 19:02:46.110594  3577 net.cpp:406] M2PELU36 <- Convolution37
I0927 19:02:46.110596  3577 net.cpp:367] M2PELU36 -> Convolution37 (in-place)
I0927 19:02:46.110682  3577 net.cpp:122] Setting up M2PELU36
I0927 19:02:46.110687  3577 net.cpp:129] Top shape: 100 32 14 14 (627200)
I0927 19:02:46.110689  3577 net.cpp:137] Memory required for data: 766125200
I0927 19:02:46.110692  3577 layer_factory.hpp:77] Creating layer Convolution38
I0927 19:02:46.110702  3577 net.cpp:84] Creating Layer Convolution38
I0927 19:02:46.110703  3577 net.cpp:406] Convolution38 <- Convolution37
I0927 19:02:46.110708  3577 net.cpp:380] Convolution38 -> Convolution38
I0927 19:02:46.111786  3577 net.cpp:122] Setting up Convolution38
I0927 19:02:46.111794  3577 net.cpp:129] Top shape: 100 32 14 14 (627200)
I0927 19:02:46.111798  3577 net.cpp:137] Memory required for data: 768634000
I0927 19:02:46.111801  3577 layer_factory.hpp:77] Creating layer BatchNorm38
I0927 19:02:46.111806  3577 net.cpp:84] Creating Layer BatchNorm38
I0927 19:02:46.111809  3577 net.cpp:406] BatchNorm38 <- Convolution38
I0927 19:02:46.111814  3577 net.cpp:367] BatchNorm38 -> Convolution38 (in-place)
I0927 19:02:46.111953  3577 net.cpp:122] Setting up BatchNorm38
I0927 19:02:46.111958  3577 net.cpp:129] Top shape: 100 32 14 14 (627200)
I0927 19:02:46.111960  3577 net.cpp:137] Memory required for data: 771142800
I0927 19:02:46.111964  3577 layer_factory.hpp:77] Creating layer Scale38
I0927 19:02:46.111968  3577 net.cpp:84] Creating Layer Scale38
I0927 19:02:46.111971  3577 net.cpp:406] Scale38 <- Convolution38
I0927 19:02:46.111975  3577 net.cpp:367] Scale38 -> Convolution38 (in-place)
I0927 19:02:46.112001  3577 layer_factory.hpp:77] Creating layer Scale38
I0927 19:02:46.112087  3577 net.cpp:122] Setting up Scale38
I0927 19:02:46.112092  3577 net.cpp:129] Top shape: 100 32 14 14 (627200)
I0927 19:02:46.112093  3577 net.cpp:137] Memory required for data: 773651600
I0927 19:02:46.112097  3577 layer_factory.hpp:77] Creating layer Eltwise18
I0927 19:02:46.112100  3577 net.cpp:84] Creating Layer Eltwise18
I0927 19:02:46.112103  3577 net.cpp:406] Eltwise18 <- Eltwise17_M2PELU35_0_split_1
I0927 19:02:46.112107  3577 net.cpp:406] Eltwise18 <- Convolution38
I0927 19:02:46.112109  3577 net.cpp:380] Eltwise18 -> Eltwise18
I0927 19:02:46.112125  3577 net.cpp:122] Setting up Eltwise18
I0927 19:02:46.112129  3577 net.cpp:129] Top shape: 100 32 14 14 (627200)
I0927 19:02:46.112131  3577 net.cpp:137] Memory required for data: 776160400
I0927 19:02:46.112133  3577 layer_factory.hpp:77] Creating layer M2PELU37
I0927 19:02:46.112138  3577 net.cpp:84] Creating Layer M2PELU37
I0927 19:02:46.112140  3577 net.cpp:406] M2PELU37 <- Eltwise18
I0927 19:02:46.112144  3577 net.cpp:367] M2PELU37 -> Eltwise18 (in-place)
I0927 19:02:46.112229  3577 net.cpp:122] Setting up M2PELU37
I0927 19:02:46.112233  3577 net.cpp:129] Top shape: 100 32 14 14 (627200)
I0927 19:02:46.112236  3577 net.cpp:137] Memory required for data: 778669200
I0927 19:02:46.112238  3577 layer_factory.hpp:77] Creating layer Eltwise18_M2PELU37_0_split
I0927 19:02:46.112242  3577 net.cpp:84] Creating Layer Eltwise18_M2PELU37_0_split
I0927 19:02:46.112244  3577 net.cpp:406] Eltwise18_M2PELU37_0_split <- Eltwise18
I0927 19:02:46.112248  3577 net.cpp:380] Eltwise18_M2PELU37_0_split -> Eltwise18_M2PELU37_0_split_0
I0927 19:02:46.112252  3577 net.cpp:380] Eltwise18_M2PELU37_0_split -> Eltwise18_M2PELU37_0_split_1
I0927 19:02:46.112275  3577 net.cpp:122] Setting up Eltwise18_M2PELU37_0_split
I0927 19:02:46.112280  3577 net.cpp:129] Top shape: 100 32 14 14 (627200)
I0927 19:02:46.112282  3577 net.cpp:129] Top shape: 100 32 14 14 (627200)
I0927 19:02:46.112284  3577 net.cpp:137] Memory required for data: 783686800
I0927 19:02:46.112287  3577 layer_factory.hpp:77] Creating layer Convolution39
I0927 19:02:46.112293  3577 net.cpp:84] Creating Layer Convolution39
I0927 19:02:46.112294  3577 net.cpp:406] Convolution39 <- Eltwise18_M2PELU37_0_split_0
I0927 19:02:46.112304  3577 net.cpp:380] Convolution39 -> Convolution39
I0927 19:02:46.113194  3577 net.cpp:122] Setting up Convolution39
I0927 19:02:46.113204  3577 net.cpp:129] Top shape: 100 64 7 7 (313600)
I0927 19:02:46.113205  3577 net.cpp:137] Memory required for data: 784941200
I0927 19:02:46.113210  3577 layer_factory.hpp:77] Creating layer BatchNorm39
I0927 19:02:46.113215  3577 net.cpp:84] Creating Layer BatchNorm39
I0927 19:02:46.113219  3577 net.cpp:406] BatchNorm39 <- Convolution39
I0927 19:02:46.113221  3577 net.cpp:367] BatchNorm39 -> Convolution39 (in-place)
I0927 19:02:46.113356  3577 net.cpp:122] Setting up BatchNorm39
I0927 19:02:46.113360  3577 net.cpp:129] Top shape: 100 64 7 7 (313600)
I0927 19:02:46.113363  3577 net.cpp:137] Memory required for data: 786195600
I0927 19:02:46.113368  3577 layer_factory.hpp:77] Creating layer Scale39
I0927 19:02:46.113371  3577 net.cpp:84] Creating Layer Scale39
I0927 19:02:46.113373  3577 net.cpp:406] Scale39 <- Convolution39
I0927 19:02:46.113376  3577 net.cpp:367] Scale39 -> Convolution39 (in-place)
I0927 19:02:46.113404  3577 layer_factory.hpp:77] Creating layer Scale39
I0927 19:02:46.113481  3577 net.cpp:122] Setting up Scale39
I0927 19:02:46.113484  3577 net.cpp:129] Top shape: 100 64 7 7 (313600)
I0927 19:02:46.113487  3577 net.cpp:137] Memory required for data: 787450000
I0927 19:02:46.113492  3577 layer_factory.hpp:77] Creating layer Convolution40
I0927 19:02:46.113497  3577 net.cpp:84] Creating Layer Convolution40
I0927 19:02:46.113499  3577 net.cpp:406] Convolution40 <- Eltwise18_M2PELU37_0_split_1
I0927 19:02:46.113504  3577 net.cpp:380] Convolution40 -> Convolution40
I0927 19:02:46.115344  3577 net.cpp:122] Setting up Convolution40
I0927 19:02:46.115352  3577 net.cpp:129] Top shape: 100 64 7 7 (313600)
I0927 19:02:46.115355  3577 net.cpp:137] Memory required for data: 788704400
I0927 19:02:46.115360  3577 layer_factory.hpp:77] Creating layer BatchNorm40
I0927 19:02:46.115365  3577 net.cpp:84] Creating Layer BatchNorm40
I0927 19:02:46.115368  3577 net.cpp:406] BatchNorm40 <- Convolution40
I0927 19:02:46.115372  3577 net.cpp:367] BatchNorm40 -> Convolution40 (in-place)
I0927 19:02:46.115511  3577 net.cpp:122] Setting up BatchNorm40
I0927 19:02:46.115515  3577 net.cpp:129] Top shape: 100 64 7 7 (313600)
I0927 19:02:46.115517  3577 net.cpp:137] Memory required for data: 789958800
I0927 19:02:46.115522  3577 layer_factory.hpp:77] Creating layer Scale40
I0927 19:02:46.115527  3577 net.cpp:84] Creating Layer Scale40
I0927 19:02:46.115530  3577 net.cpp:406] Scale40 <- Convolution40
I0927 19:02:46.115532  3577 net.cpp:367] Scale40 -> Convolution40 (in-place)
I0927 19:02:46.115561  3577 layer_factory.hpp:77] Creating layer Scale40
I0927 19:02:46.115640  3577 net.cpp:122] Setting up Scale40
I0927 19:02:46.115644  3577 net.cpp:129] Top shape: 100 64 7 7 (313600)
I0927 19:02:46.115646  3577 net.cpp:137] Memory required for data: 791213200
I0927 19:02:46.115650  3577 layer_factory.hpp:77] Creating layer M2PELU38
I0927 19:02:46.115655  3577 net.cpp:84] Creating Layer M2PELU38
I0927 19:02:46.115658  3577 net.cpp:406] M2PELU38 <- Convolution40
I0927 19:02:46.115662  3577 net.cpp:367] M2PELU38 -> Convolution40 (in-place)
I0927 19:02:46.115751  3577 net.cpp:122] Setting up M2PELU38
I0927 19:02:46.115756  3577 net.cpp:129] Top shape: 100 64 7 7 (313600)
I0927 19:02:46.115757  3577 net.cpp:137] Memory required for data: 792467600
I0927 19:02:46.115761  3577 layer_factory.hpp:77] Creating layer Convolution41
I0927 19:02:46.115767  3577 net.cpp:84] Creating Layer Convolution41
I0927 19:02:46.115770  3577 net.cpp:406] Convolution41 <- Convolution40
I0927 19:02:46.115774  3577 net.cpp:380] Convolution41 -> Convolution41
I0927 19:02:46.117928  3577 net.cpp:122] Setting up Convolution41
I0927 19:02:46.117938  3577 net.cpp:129] Top shape: 100 64 7 7 (313600)
I0927 19:02:46.117940  3577 net.cpp:137] Memory required for data: 793722000
I0927 19:02:46.117944  3577 layer_factory.hpp:77] Creating layer BatchNorm41
I0927 19:02:46.117950  3577 net.cpp:84] Creating Layer BatchNorm41
I0927 19:02:46.117959  3577 net.cpp:406] BatchNorm41 <- Convolution41
I0927 19:02:46.117964  3577 net.cpp:367] BatchNorm41 -> Convolution41 (in-place)
I0927 19:02:46.118108  3577 net.cpp:122] Setting up BatchNorm41
I0927 19:02:46.118113  3577 net.cpp:129] Top shape: 100 64 7 7 (313600)
I0927 19:02:46.118115  3577 net.cpp:137] Memory required for data: 794976400
I0927 19:02:46.118120  3577 layer_factory.hpp:77] Creating layer Scale41
I0927 19:02:46.118125  3577 net.cpp:84] Creating Layer Scale41
I0927 19:02:46.118127  3577 net.cpp:406] Scale41 <- Convolution41
I0927 19:02:46.118130  3577 net.cpp:367] Scale41 -> Convolution41 (in-place)
I0927 19:02:46.118160  3577 layer_factory.hpp:77] Creating layer Scale41
I0927 19:02:46.118239  3577 net.cpp:122] Setting up Scale41
I0927 19:02:46.118244  3577 net.cpp:129] Top shape: 100 64 7 7 (313600)
I0927 19:02:46.118247  3577 net.cpp:137] Memory required for data: 796230800
I0927 19:02:46.118250  3577 layer_factory.hpp:77] Creating layer Eltwise19
I0927 19:02:46.118255  3577 net.cpp:84] Creating Layer Eltwise19
I0927 19:02:46.118257  3577 net.cpp:406] Eltwise19 <- Convolution39
I0927 19:02:46.118260  3577 net.cpp:406] Eltwise19 <- Convolution41
I0927 19:02:46.118263  3577 net.cpp:380] Eltwise19 -> Eltwise19
I0927 19:02:46.118281  3577 net.cpp:122] Setting up Eltwise19
I0927 19:02:46.118284  3577 net.cpp:129] Top shape: 100 64 7 7 (313600)
I0927 19:02:46.118286  3577 net.cpp:137] Memory required for data: 797485200
I0927 19:02:46.118289  3577 layer_factory.hpp:77] Creating layer M2PELU39
I0927 19:02:46.118294  3577 net.cpp:84] Creating Layer M2PELU39
I0927 19:02:46.118296  3577 net.cpp:406] M2PELU39 <- Eltwise19
I0927 19:02:46.118299  3577 net.cpp:367] M2PELU39 -> Eltwise19 (in-place)
I0927 19:02:46.118401  3577 net.cpp:122] Setting up M2PELU39
I0927 19:02:46.118405  3577 net.cpp:129] Top shape: 100 64 7 7 (313600)
I0927 19:02:46.118407  3577 net.cpp:137] Memory required for data: 798739600
I0927 19:02:46.118410  3577 layer_factory.hpp:77] Creating layer Eltwise19_M2PELU39_0_split
I0927 19:02:46.118414  3577 net.cpp:84] Creating Layer Eltwise19_M2PELU39_0_split
I0927 19:02:46.118417  3577 net.cpp:406] Eltwise19_M2PELU39_0_split <- Eltwise19
I0927 19:02:46.118420  3577 net.cpp:380] Eltwise19_M2PELU39_0_split -> Eltwise19_M2PELU39_0_split_0
I0927 19:02:46.118427  3577 net.cpp:380] Eltwise19_M2PELU39_0_split -> Eltwise19_M2PELU39_0_split_1
I0927 19:02:46.118480  3577 net.cpp:122] Setting up Eltwise19_M2PELU39_0_split
I0927 19:02:46.118487  3577 net.cpp:129] Top shape: 100 64 7 7 (313600)
I0927 19:02:46.118491  3577 net.cpp:129] Top shape: 100 64 7 7 (313600)
I0927 19:02:46.118494  3577 net.cpp:137] Memory required for data: 801248400
I0927 19:02:46.118495  3577 layer_factory.hpp:77] Creating layer Convolution42
I0927 19:02:46.118502  3577 net.cpp:84] Creating Layer Convolution42
I0927 19:02:46.118505  3577 net.cpp:406] Convolution42 <- Eltwise19_M2PELU39_0_split_0
I0927 19:02:46.118510  3577 net.cpp:380] Convolution42 -> Convolution42
I0927 19:02:46.120322  3577 net.cpp:122] Setting up Convolution42
I0927 19:02:46.120332  3577 net.cpp:129] Top shape: 100 64 7 7 (313600)
I0927 19:02:46.120333  3577 net.cpp:137] Memory required for data: 802502800
I0927 19:02:46.120338  3577 layer_factory.hpp:77] Creating layer BatchNorm42
I0927 19:02:46.120343  3577 net.cpp:84] Creating Layer BatchNorm42
I0927 19:02:46.120347  3577 net.cpp:406] BatchNorm42 <- Convolution42
I0927 19:02:46.120350  3577 net.cpp:367] BatchNorm42 -> Convolution42 (in-place)
I0927 19:02:46.120489  3577 net.cpp:122] Setting up BatchNorm42
I0927 19:02:46.120493  3577 net.cpp:129] Top shape: 100 64 7 7 (313600)
I0927 19:02:46.120496  3577 net.cpp:137] Memory required for data: 803757200
I0927 19:02:46.120501  3577 layer_factory.hpp:77] Creating layer Scale42
I0927 19:02:46.120506  3577 net.cpp:84] Creating Layer Scale42
I0927 19:02:46.120507  3577 net.cpp:406] Scale42 <- Convolution42
I0927 19:02:46.120510  3577 net.cpp:367] Scale42 -> Convolution42 (in-place)
I0927 19:02:46.120538  3577 layer_factory.hpp:77] Creating layer Scale42
I0927 19:02:46.120627  3577 net.cpp:122] Setting up Scale42
I0927 19:02:46.120632  3577 net.cpp:129] Top shape: 100 64 7 7 (313600)
I0927 19:02:46.120635  3577 net.cpp:137] Memory required for data: 805011600
I0927 19:02:46.120638  3577 layer_factory.hpp:77] Creating layer M2PELU40
I0927 19:02:46.120643  3577 net.cpp:84] Creating Layer M2PELU40
I0927 19:02:46.120645  3577 net.cpp:406] M2PELU40 <- Convolution42
I0927 19:02:46.120649  3577 net.cpp:367] M2PELU40 -> Convolution42 (in-place)
I0927 19:02:46.120735  3577 net.cpp:122] Setting up M2PELU40
I0927 19:02:46.120740  3577 net.cpp:129] Top shape: 100 64 7 7 (313600)
I0927 19:02:46.120743  3577 net.cpp:137] Memory required for data: 806266000
I0927 19:02:46.120746  3577 layer_factory.hpp:77] Creating layer Convolution43
I0927 19:02:46.120753  3577 net.cpp:84] Creating Layer Convolution43
I0927 19:02:46.120754  3577 net.cpp:406] Convolution43 <- Convolution42
I0927 19:02:46.120759  3577 net.cpp:380] Convolution43 -> Convolution43
I0927 19:02:46.123044  3577 net.cpp:122] Setting up Convolution43
I0927 19:02:46.123052  3577 net.cpp:129] Top shape: 100 64 7 7 (313600)
I0927 19:02:46.123055  3577 net.cpp:137] Memory required for data: 807520400
I0927 19:02:46.123060  3577 layer_factory.hpp:77] Creating layer BatchNorm43
I0927 19:02:46.123065  3577 net.cpp:84] Creating Layer BatchNorm43
I0927 19:02:46.123069  3577 net.cpp:406] BatchNorm43 <- Convolution43
I0927 19:02:46.123071  3577 net.cpp:367] BatchNorm43 -> Convolution43 (in-place)
I0927 19:02:46.123214  3577 net.cpp:122] Setting up BatchNorm43
I0927 19:02:46.123219  3577 net.cpp:129] Top shape: 100 64 7 7 (313600)
I0927 19:02:46.123220  3577 net.cpp:137] Memory required for data: 808774800
I0927 19:02:46.123224  3577 layer_factory.hpp:77] Creating layer Scale43
I0927 19:02:46.123229  3577 net.cpp:84] Creating Layer Scale43
I0927 19:02:46.123231  3577 net.cpp:406] Scale43 <- Convolution43
I0927 19:02:46.123234  3577 net.cpp:367] Scale43 -> Convolution43 (in-place)
I0927 19:02:46.123262  3577 layer_factory.hpp:77] Creating layer Scale43
I0927 19:02:46.123342  3577 net.cpp:122] Setting up Scale43
I0927 19:02:46.123347  3577 net.cpp:129] Top shape: 100 64 7 7 (313600)
I0927 19:02:46.123348  3577 net.cpp:137] Memory required for data: 810029200
I0927 19:02:46.123353  3577 layer_factory.hpp:77] Creating layer Eltwise20
I0927 19:02:46.123358  3577 net.cpp:84] Creating Layer Eltwise20
I0927 19:02:46.123360  3577 net.cpp:406] Eltwise20 <- Eltwise19_M2PELU39_0_split_1
I0927 19:02:46.123363  3577 net.cpp:406] Eltwise20 <- Convolution43
I0927 19:02:46.123366  3577 net.cpp:380] Eltwise20 -> Eltwise20
I0927 19:02:46.123383  3577 net.cpp:122] Setting up Eltwise20
I0927 19:02:46.123386  3577 net.cpp:129] Top shape: 100 64 7 7 (313600)
I0927 19:02:46.123389  3577 net.cpp:137] Memory required for data: 811283600
I0927 19:02:46.123390  3577 layer_factory.hpp:77] Creating layer M2PELU41
I0927 19:02:46.123394  3577 net.cpp:84] Creating Layer M2PELU41
I0927 19:02:46.123397  3577 net.cpp:406] M2PELU41 <- Eltwise20
I0927 19:02:46.123400  3577 net.cpp:367] M2PELU41 -> Eltwise20 (in-place)
I0927 19:02:46.123489  3577 net.cpp:122] Setting up M2PELU41
I0927 19:02:46.123493  3577 net.cpp:129] Top shape: 100 64 7 7 (313600)
I0927 19:02:46.123495  3577 net.cpp:137] Memory required for data: 812538000
I0927 19:02:46.123498  3577 layer_factory.hpp:77] Creating layer Eltwise20_M2PELU41_0_split
I0927 19:02:46.123502  3577 net.cpp:84] Creating Layer Eltwise20_M2PELU41_0_split
I0927 19:02:46.123504  3577 net.cpp:406] Eltwise20_M2PELU41_0_split <- Eltwise20
I0927 19:02:46.123508  3577 net.cpp:380] Eltwise20_M2PELU41_0_split -> Eltwise20_M2PELU41_0_split_0
I0927 19:02:46.123512  3577 net.cpp:380] Eltwise20_M2PELU41_0_split -> Eltwise20_M2PELU41_0_split_1
I0927 19:02:46.123536  3577 net.cpp:122] Setting up Eltwise20_M2PELU41_0_split
I0927 19:02:46.123539  3577 net.cpp:129] Top shape: 100 64 7 7 (313600)
I0927 19:02:46.123543  3577 net.cpp:129] Top shape: 100 64 7 7 (313600)
I0927 19:02:46.123544  3577 net.cpp:137] Memory required for data: 815046800
I0927 19:02:46.123553  3577 layer_factory.hpp:77] Creating layer Convolution44
I0927 19:02:46.123558  3577 net.cpp:84] Creating Layer Convolution44
I0927 19:02:46.123561  3577 net.cpp:406] Convolution44 <- Eltwise20_M2PELU41_0_split_0
I0927 19:02:46.123566  3577 net.cpp:380] Convolution44 -> Convolution44
I0927 19:02:46.125241  3577 net.cpp:122] Setting up Convolution44
I0927 19:02:46.125249  3577 net.cpp:129] Top shape: 100 64 7 7 (313600)
I0927 19:02:46.125252  3577 net.cpp:137] Memory required for data: 816301200
I0927 19:02:46.125257  3577 layer_factory.hpp:77] Creating layer BatchNorm44
I0927 19:02:46.125262  3577 net.cpp:84] Creating Layer BatchNorm44
I0927 19:02:46.125264  3577 net.cpp:406] BatchNorm44 <- Convolution44
I0927 19:02:46.125267  3577 net.cpp:367] BatchNorm44 -> Convolution44 (in-place)
I0927 19:02:46.125413  3577 net.cpp:122] Setting up BatchNorm44
I0927 19:02:46.125417  3577 net.cpp:129] Top shape: 100 64 7 7 (313600)
I0927 19:02:46.125419  3577 net.cpp:137] Memory required for data: 817555600
I0927 19:02:46.125424  3577 layer_factory.hpp:77] Creating layer Scale44
I0927 19:02:46.125428  3577 net.cpp:84] Creating Layer Scale44
I0927 19:02:46.125432  3577 net.cpp:406] Scale44 <- Convolution44
I0927 19:02:46.125434  3577 net.cpp:367] Scale44 -> Convolution44 (in-place)
I0927 19:02:46.125463  3577 layer_factory.hpp:77] Creating layer Scale44
I0927 19:02:46.125545  3577 net.cpp:122] Setting up Scale44
I0927 19:02:46.125550  3577 net.cpp:129] Top shape: 100 64 7 7 (313600)
I0927 19:02:46.125551  3577 net.cpp:137] Memory required for data: 818810000
I0927 19:02:46.125555  3577 layer_factory.hpp:77] Creating layer M2PELU42
I0927 19:02:46.125560  3577 net.cpp:84] Creating Layer M2PELU42
I0927 19:02:46.125561  3577 net.cpp:406] M2PELU42 <- Convolution44
I0927 19:02:46.125566  3577 net.cpp:367] M2PELU42 -> Convolution44 (in-place)
I0927 19:02:46.125656  3577 net.cpp:122] Setting up M2PELU42
I0927 19:02:46.125661  3577 net.cpp:129] Top shape: 100 64 7 7 (313600)
I0927 19:02:46.125663  3577 net.cpp:137] Memory required for data: 820064400
I0927 19:02:46.125666  3577 layer_factory.hpp:77] Creating layer Convolution45
I0927 19:02:46.125674  3577 net.cpp:84] Creating Layer Convolution45
I0927 19:02:46.125676  3577 net.cpp:406] Convolution45 <- Convolution44
I0927 19:02:46.125680  3577 net.cpp:380] Convolution45 -> Convolution45
I0927 19:02:46.127671  3577 net.cpp:122] Setting up Convolution45
I0927 19:02:46.127679  3577 net.cpp:129] Top shape: 100 64 7 7 (313600)
I0927 19:02:46.127682  3577 net.cpp:137] Memory required for data: 821318800
I0927 19:02:46.127686  3577 layer_factory.hpp:77] Creating layer BatchNorm45
I0927 19:02:46.127691  3577 net.cpp:84] Creating Layer BatchNorm45
I0927 19:02:46.127693  3577 net.cpp:406] BatchNorm45 <- Convolution45
I0927 19:02:46.127698  3577 net.cpp:367] BatchNorm45 -> Convolution45 (in-place)
I0927 19:02:46.127843  3577 net.cpp:122] Setting up BatchNorm45
I0927 19:02:46.127847  3577 net.cpp:129] Top shape: 100 64 7 7 (313600)
I0927 19:02:46.127849  3577 net.cpp:137] Memory required for data: 822573200
I0927 19:02:46.127854  3577 layer_factory.hpp:77] Creating layer Scale45
I0927 19:02:46.127858  3577 net.cpp:84] Creating Layer Scale45
I0927 19:02:46.127861  3577 net.cpp:406] Scale45 <- Convolution45
I0927 19:02:46.127864  3577 net.cpp:367] Scale45 -> Convolution45 (in-place)
I0927 19:02:46.127892  3577 layer_factory.hpp:77] Creating layer Scale45
I0927 19:02:46.127975  3577 net.cpp:122] Setting up Scale45
I0927 19:02:46.127979  3577 net.cpp:129] Top shape: 100 64 7 7 (313600)
I0927 19:02:46.127981  3577 net.cpp:137] Memory required for data: 823827600
…
I0927 19:02:46.488248  3577 net.cpp:84] Creating Layer BatchNorm40
I0927 19:02:46.488251  3577 net.cpp:406] BatchNorm40 <- Convolution40
I0927 19:02:46.488255  3577 net.cpp:367] BatchNorm40 -> Convolution40 (in-place)
I0927 19:02:46.488392  3577 net.cpp:122] Setting up BatchNorm40
I0927 19:02:46.488397  3577 net.cpp:129] Top shape: 100 64 8 8 (409600)
I0927 19:02:46.488399  3577 net.cpp:137] Memory required for data: 1031783600
I0927 19:02:46.488404  3577 layer_factory.hpp:77] Creating layer Scale40
I0927 19:02:46.488409  3577 net.cpp:84] Creating Layer Scale40
I0927 19:02:46.488410  3577 net.cpp:406] Scale40 <- Convolution40
I0927 19:02:46.488414  3577 net.cpp:367] Scale40 -> Convolution40 (in-place)
I0927 19:02:46.488441  3577 layer_factory.hpp:77] Creating layer Scale40
I0927 19:02:46.488518  3577 net.cpp:122] Setting up Scale40
I0927 19:02:46.488523  3577 net.cpp:129] Top shape: 100 64 8 8 (409600)
I0927 19:02:46.488525  3577 net.cpp:137] Memory required for data: 1033422000
I0927 19:02:46.488528  3577 layer_factory.hpp:77] Creating layer M2PELU38
I0927 19:02:46.488533  3577 net.cpp:84] Creating Layer M2PELU38
I0927 19:02:46.488535  3577 net.cpp:406] M2PELU38 <- Convolution40
I0927 19:02:46.488546  3577 net.cpp:367] M2PELU38 -> Convolution40 (in-place)
I0927 19:02:46.488641  3577 net.cpp:122] Setting up M2PELU38
I0927 19:02:46.488646  3577 net.cpp:129] Top shape: 100 64 8 8 (409600)
I0927 19:02:46.488647  3577 net.cpp:137] Memory required for data: 1035060400
I0927 19:02:46.488651  3577 layer_factory.hpp:77] Creating layer Convolution41
I0927 19:02:46.488658  3577 net.cpp:84] Creating Layer Convolution41
I0927 19:02:46.488662  3577 net.cpp:406] Convolution41 <- Convolution40
I0927 19:02:46.488665  3577 net.cpp:380] Convolution41 -> Convolution41
I0927 19:02:46.490397  3577 net.cpp:122] Setting up Convolution41
I0927 19:02:46.490406  3577 net.cpp:129] Top shape: 100 64 8 8 (409600)
I0927 19:02:46.490408  3577 net.cpp:137] Memory required for data: 1036698800
I0927 19:02:46.490412  3577 layer_factory.hpp:77] Creating layer BatchNorm41
I0927 19:02:46.490418  3577 net.cpp:84] Creating Layer BatchNorm41
I0927 19:02:46.490420  3577 net.cpp:406] BatchNorm41 <- Convolution41
I0927 19:02:46.490425  3577 net.cpp:367] BatchNorm41 -> Convolution41 (in-place)
I0927 19:02:46.490566  3577 net.cpp:122] Setting up BatchNorm41
I0927 19:02:46.490571  3577 net.cpp:129] Top shape: 100 64 8 8 (409600)
I0927 19:02:46.490573  3577 net.cpp:137] Memory required for data: 1038337200
I0927 19:02:46.490578  3577 layer_factory.hpp:77] Creating layer Scale41
I0927 19:02:46.490583  3577 net.cpp:84] Creating Layer Scale41
I0927 19:02:46.490586  3577 net.cpp:406] Scale41 <- Convolution41
I0927 19:02:46.490589  3577 net.cpp:367] Scale41 -> Convolution41 (in-place)
I0927 19:02:46.490617  3577 layer_factory.hpp:77] Creating layer Scale41
I0927 19:02:46.490695  3577 net.cpp:122] Setting up Scale41
I0927 19:02:46.490700  3577 net.cpp:129] Top shape: 100 64 8 8 (409600)
I0927 19:02:46.490702  3577 net.cpp:137] Memory required for data: 1039975600
I0927 19:02:46.490706  3577 layer_factory.hpp:77] Creating layer Eltwise19
I0927 19:02:46.490711  3577 net.cpp:84] Creating Layer Eltwise19
I0927 19:02:46.490715  3577 net.cpp:406] Eltwise19 <- Convolution39
I0927 19:02:46.490717  3577 net.cpp:406] Eltwise19 <- Convolution41
I0927 19:02:46.490721  3577 net.cpp:380] Eltwise19 -> Eltwise19
I0927 19:02:46.490738  3577 net.cpp:122] Setting up Eltwise19
I0927 19:02:46.490741  3577 net.cpp:129] Top shape: 100 64 8 8 (409600)
I0927 19:02:46.490743  3577 net.cpp:137] Memory required for data: 1041614000
I0927 19:02:46.490746  3577 layer_factory.hpp:77] Creating layer M2PELU39
I0927 19:02:46.490751  3577 net.cpp:84] Creating Layer M2PELU39
I0927 19:02:46.490753  3577 net.cpp:406] M2PELU39 <- Eltwise19
I0927 19:02:46.490756  3577 net.cpp:367] M2PELU39 -> Eltwise19 (in-place)
I0927 19:02:46.490846  3577 net.cpp:122] Setting up M2PELU39
I0927 19:02:46.490851  3577 net.cpp:129] Top shape: 100 64 8 8 (409600)
I0927 19:02:46.490854  3577 net.cpp:137] Memory required for data: 1043252400
I0927 19:02:46.490856  3577 layer_factory.hpp:77] Creating layer Eltwise19_M2PELU39_0_split
I0927 19:02:46.490860  3577 net.cpp:84] Creating Layer Eltwise19_M2PELU39_0_split
I0927 19:02:46.490862  3577 net.cpp:406] Eltwise19_M2PELU39_0_split <- Eltwise19
I0927 19:02:46.490866  3577 net.cpp:380] Eltwise19_M2PELU39_0_split -> Eltwise19_M2PELU39_0_split_0
I0927 19:02:46.490870  3577 net.cpp:380] Eltwise19_M2PELU39_0_split -> Eltwise19_M2PELU39_0_split_1
I0927 19:02:46.490895  3577 net.cpp:122] Setting up Eltwise19_M2PELU39_0_split
I0927 19:02:46.490898  3577 net.cpp:129] Top shape: 100 64 8 8 (409600)
I0927 19:02:46.490901  3577 net.cpp:129] Top shape: 100 64 8 8 (409600)
I0927 19:02:46.490903  3577 net.cpp:137] Memory required for data: 1046529200
I0927 19:02:46.490906  3577 layer_factory.hpp:77] Creating layer Convolution42
I0927 19:02:46.490911  3577 net.cpp:84] Creating Layer Convolution42
I0927 19:02:46.490914  3577 net.cpp:406] Convolution42 <- Eltwise19_M2PELU39_0_split_0
I0927 19:02:46.490918  3577 net.cpp:380] Convolution42 -> Convolution42
I0927 19:02:46.492650  3577 net.cpp:122] Setting up Convolution42
I0927 19:02:46.492658  3577 net.cpp:129] Top shape: 100 64 8 8 (409600)
I0927 19:02:46.492667  3577 net.cpp:137] Memory required for data: 1048167600
I0927 19:02:46.492672  3577 layer_factory.hpp:77] Creating layer BatchNorm42
I0927 19:02:46.492677  3577 net.cpp:84] Creating Layer BatchNorm42
I0927 19:02:46.492681  3577 net.cpp:406] BatchNorm42 <- Convolution42
I0927 19:02:46.492686  3577 net.cpp:367] BatchNorm42 -> Convolution42 (in-place)
I0927 19:02:46.492822  3577 net.cpp:122] Setting up BatchNorm42
I0927 19:02:46.492826  3577 net.cpp:129] Top shape: 100 64 8 8 (409600)
I0927 19:02:46.492828  3577 net.cpp:137] Memory required for data: 1049806000
I0927 19:02:46.492833  3577 layer_factory.hpp:77] Creating layer Scale42
I0927 19:02:46.492837  3577 net.cpp:84] Creating Layer Scale42
I0927 19:02:46.492839  3577 net.cpp:406] Scale42 <- Convolution42
I0927 19:02:46.492842  3577 net.cpp:367] Scale42 -> Convolution42 (in-place)
I0927 19:02:46.492871  3577 layer_factory.hpp:77] Creating layer Scale42
I0927 19:02:46.492949  3577 net.cpp:122] Setting up Scale42
I0927 19:02:46.492952  3577 net.cpp:129] Top shape: 100 64 8 8 (409600)
I0927 19:02:46.492955  3577 net.cpp:137] Memory required for data: 1051444400
I0927 19:02:46.492959  3577 layer_factory.hpp:77] Creating layer M2PELU40
I0927 19:02:46.492964  3577 net.cpp:84] Creating Layer M2PELU40
I0927 19:02:46.492965  3577 net.cpp:406] M2PELU40 <- Convolution42
I0927 19:02:46.492969  3577 net.cpp:367] M2PELU40 -> Convolution42 (in-place)
I0927 19:02:46.493059  3577 net.cpp:122] Setting up M2PELU40
I0927 19:02:46.493063  3577 net.cpp:129] Top shape: 100 64 8 8 (409600)
I0927 19:02:46.493065  3577 net.cpp:137] Memory required for data: 1053082800
I0927 19:02:46.493069  3577 layer_factory.hpp:77] Creating layer Convolution43
I0927 19:02:46.493077  3577 net.cpp:84] Creating Layer Convolution43
I0927 19:02:46.493078  3577 net.cpp:406] Convolution43 <- Convolution42
I0927 19:02:46.493083  3577 net.cpp:380] Convolution43 -> Convolution43
I0927 19:02:46.494814  3577 net.cpp:122] Setting up Convolution43
I0927 19:02:46.494823  3577 net.cpp:129] Top shape: 100 64 8 8 (409600)
I0927 19:02:46.494827  3577 net.cpp:137] Memory required for data: 1054721200
I0927 19:02:46.494830  3577 layer_factory.hpp:77] Creating layer BatchNorm43
I0927 19:02:46.494835  3577 net.cpp:84] Creating Layer BatchNorm43
I0927 19:02:46.494838  3577 net.cpp:406] BatchNorm43 <- Convolution43
I0927 19:02:46.494843  3577 net.cpp:367] BatchNorm43 -> Convolution43 (in-place)
I0927 19:02:46.494982  3577 net.cpp:122] Setting up BatchNorm43
I0927 19:02:46.494987  3577 net.cpp:129] Top shape: 100 64 8 8 (409600)
I0927 19:02:46.494989  3577 net.cpp:137] Memory required for data: 1056359600
I0927 19:02:46.494994  3577 layer_factory.hpp:77] Creating layer Scale43
I0927 19:02:46.494999  3577 net.cpp:84] Creating Layer Scale43
I0927 19:02:46.495002  3577 net.cpp:406] Scale43 <- Convolution43
I0927 19:02:46.495005  3577 net.cpp:367] Scale43 -> Convolution43 (in-place)
I0927 19:02:46.495033  3577 layer_factory.hpp:77] Creating layer Scale43
I0927 19:02:46.495111  3577 net.cpp:122] Setting up Scale43
I0927 19:02:46.495115  3577 net.cpp:129] Top shape: 100 64 8 8 (409600)
I0927 19:02:46.495117  3577 net.cpp:137] Memory required for data: 1057998000
I0927 19:02:46.495121  3577 layer_factory.hpp:77] Creating layer Eltwise20
I0927 19:02:46.495126  3577 net.cpp:84] Creating Layer Eltwise20
I0927 19:02:46.495128  3577 net.cpp:406] Eltwise20 <- Eltwise19_M2PELU39_0_split_1
I0927 19:02:46.495131  3577 net.cpp:406] Eltwise20 <- Convolution43
I0927 19:02:46.495136  3577 net.cpp:380] Eltwise20 -> Eltwise20
I0927 19:02:46.495151  3577 net.cpp:122] Setting up Eltwise20
I0927 19:02:46.495156  3577 net.cpp:129] Top shape: 100 64 8 8 (409600)
I0927 19:02:46.495157  3577 net.cpp:137] Memory required for data: 1059636400
I0927 19:02:46.495159  3577 layer_factory.hpp:77] Creating layer M2PELU41
I0927 19:02:46.495164  3577 net.cpp:84] Creating Layer M2PELU41
I0927 19:02:46.495167  3577 net.cpp:406] M2PELU41 <- Eltwise20
I0927 19:02:46.495170  3577 net.cpp:367] M2PELU41 -> Eltwise20 (in-place)
I0927 19:02:46.495261  3577 net.cpp:122] Setting up M2PELU41
I0927 19:02:46.495272  3577 net.cpp:129] Top shape: 100 64 8 8 (409600)
I0927 19:02:46.495275  3577 net.cpp:137] Memory required for data: 1061274800
I0927 19:02:46.495278  3577 layer_factory.hpp:77] Creating layer Eltwise20_M2PELU41_0_split
I0927 19:02:46.495282  3577 net.cpp:84] Creating Layer Eltwise20_M2PELU41_0_split
I0927 19:02:46.495285  3577 net.cpp:406] Eltwise20_M2PELU41_0_split <- Eltwise20
I0927 19:02:46.495290  3577 net.cpp:380] Eltwise20_M2PELU41_0_split -> Eltwise20_M2PELU41_0_split_0
I0927 19:02:46.495293  3577 net.cpp:380] Eltwise20_M2PELU41_0_split -> Eltwise20_M2PELU41_0_split_1
I0927 19:02:46.495318  3577 net.cpp:122] Setting up Eltwise20_M2PELU41_0_split
I0927 19:02:46.495322  3577 net.cpp:129] Top shape: 100 64 8 8 (409600)
I0927 19:02:46.495326  3577 net.cpp:129] Top shape: 100 64 8 8 (409600)
I0927 19:02:46.495327  3577 net.cpp:137] Memory required for data: 1064551600
I0927 19:02:46.495329  3577 layer_factory.hpp:77] Creating layer Convolution44
I0927 19:02:46.495335  3577 net.cpp:84] Creating Layer Convolution44
I0927 19:02:46.495338  3577 net.cpp:406] Convolution44 <- Eltwise20_M2PELU41_0_split_0
I0927 19:02:46.495342  3577 net.cpp:380] Convolution44 -> Convolution44
I0927 19:02:46.497395  3577 net.cpp:122] Setting up Convolution44
I0927 19:02:46.497403  3577 net.cpp:129] Top shape: 100 64 8 8 (409600)
I0927 19:02:46.497406  3577 net.cpp:137] Memory required for data: 1066190000
I0927 19:02:46.497411  3577 layer_factory.hpp:77] Creating layer BatchNorm44
I0927 19:02:46.497416  3577 net.cpp:84] Creating Layer BatchNorm44
I0927 19:02:46.497418  3577 net.cpp:406] BatchNorm44 <- Convolution44
I0927 19:02:46.497422  3577 net.cpp:367] BatchNorm44 -> Convolution44 (in-place)
I0927 19:02:46.497565  3577 net.cpp:122] Setting up BatchNorm44
I0927 19:02:46.497570  3577 net.cpp:129] Top shape: 100 64 8 8 (409600)
I0927 19:02:46.497571  3577 net.cpp:137] Memory required for data: 1067828400
I0927 19:02:46.512977  3577 layer_factory.hpp:77] Creating layer Scale44
I0927 19:02:46.512990  3577 net.cpp:84] Creating Layer Scale44
I0927 19:02:46.512995  3577 net.cpp:406] Scale44 <- Convolution44
I0927 19:02:46.513000  3577 net.cpp:367] Scale44 -> Convolution44 (in-place)
I0927 19:02:46.513043  3577 layer_factory.hpp:77] Creating layer Scale44
I0927 19:02:46.513136  3577 net.cpp:122] Setting up Scale44
I0927 19:02:46.513141  3577 net.cpp:129] Top shape: 100 64 8 8 (409600)
I0927 19:02:46.513144  3577 net.cpp:137] Memory required for data: 1069466800
I0927 19:02:46.513149  3577 layer_factory.hpp:77] Creating layer M2PELU42
I0927 19:02:46.513154  3577 net.cpp:84] Creating Layer M2PELU42
I0927 19:02:46.513156  3577 net.cpp:406] M2PELU42 <- Convolution44
I0927 19:02:46.513160  3577 net.cpp:367] M2PELU42 -> Convolution44 (in-place)
I0927 19:02:46.513262  3577 net.cpp:122] Setting up M2PELU42
I0927 19:02:46.513267  3577 net.cpp:129] Top shape: 100 64 8 8 (409600)
I0927 19:02:46.513269  3577 net.cpp:137] Memory required for data: 1071105200
I0927 19:02:46.513274  3577 layer_factory.hpp:77] Creating layer Convolution45
I0927 19:02:46.513281  3577 net.cpp:84] Creating Layer Convolution45
I0927 19:02:46.513284  3577 net.cpp:406] Convolution45 <- Convolution44
I0927 19:02:46.513289  3577 net.cpp:380] Convolution45 -> Convolution45
I0927 19:02:46.515271  3577 net.cpp:122] Setting up Convolution45
I0927 19:02:46.515282  3577 net.cpp:129] Top shape: 100 64 8 8 (409600)
I0927 19:02:46.515285  3577 net.cpp:137] Memory required for data: 1072743600
I0927 19:02:46.515290  3577 layer_factory.hpp:77] Creating layer BatchNorm45
I0927 19:02:46.515293  3577 net.cpp:84] Creating Layer BatchNorm45
I0927 19:02:46.515296  3577 net.cpp:406] BatchNorm45 <- Convolution45
I0927 19:02:46.515301  3577 net.cpp:367] BatchNorm45 -> Convolution45 (in-place)
I0927 19:02:46.515465  3577 net.cpp:122] Setting up BatchNorm45
I0927 19:02:46.515470  3577 net.cpp:129] Top shape: 100 64 8 8 (409600)
I0927 19:02:46.515472  3577 net.cpp:137] Memory required for data: 1074382000
I0927 19:02:46.515476  3577 layer_factory.hpp:77] Creating layer Scale45
I0927 19:02:46.515487  3577 net.cpp:84] Creating Layer Scale45
I0927 19:02:46.515491  3577 net.cpp:406] Scale45 <- Convolution45
I0927 19:02:46.515496  3577 net.cpp:367] Scale45 -> Convolution45 (in-place)
I0927 19:02:46.515524  3577 layer_factory.hpp:77] Creating layer Scale45
I0927 19:02:46.515628  3577 net.cpp:122] Setting up Scale45
I0927 19:02:46.515645  3577 net.cpp:129] Top shape: 100 64 8 8 (409600)
I0927 19:02:46.515647  3577 net.cpp:137] Memory required for data: 1076020400
I0927 19:02:46.515655  3577 layer_factory.hpp:77] Creating layer Eltwise21
I0927 19:02:46.515661  3577 net.cpp:84] Creating Layer Eltwise21
I0927 19:02:46.515664  3577 net.cpp:406] Eltwise21 <- Eltwise20_M2PELU41_0_split_1
I0927 19:02:46.515669  3577 net.cpp:406] Eltwise21 <- Convolution45
I0927 19:02:46.515678  3577 net.cpp:380] Eltwise21 -> Eltwise21
I0927 19:02:46.515704  3577 net.cpp:122] Setting up Eltwise21
I0927 19:02:46.515710  3577 net.cpp:129] Top shape: 100 64 8 8 (409600)
I0927 19:02:46.515712  3577 net.cpp:137] Memory required for data: 1077658800
I0927 19:02:46.515715  3577 layer_factory.hpp:77] Creating layer M2PELU43
I0927 19:02:46.515719  3577 net.cpp:84] Creating Layer M2PELU43
I0927 19:02:46.515722  3577 net.cpp:406] M2PELU43 <- Eltwise21
I0927 19:02:46.515727  3577 net.cpp:367] M2PELU43 -> Eltwise21 (in-place)
I0927 19:02:46.515820  3577 net.cpp:122] Setting up M2PELU43
I0927 19:02:46.515825  3577 net.cpp:129] Top shape: 100 64 8 8 (409600)
I0927 19:02:46.515827  3577 net.cpp:137] Memory required for data: 1079297200
I0927 19:02:46.515831  3577 layer_factory.hpp:77] Creating layer Eltwise21_M2PELU43_0_split
I0927 19:02:46.515835  3577 net.cpp:84] Creating Layer Eltwise21_M2PELU43_0_split
I0927 19:02:46.515837  3577 net.cpp:406] Eltwise21_M2PELU43_0_split <- Eltwise21
I0927 19:02:46.515841  3577 net.cpp:380] Eltwise21_M2PELU43_0_split -> Eltwise21_M2PELU43_0_split_0
I0927 19:02:46.515846  3577 net.cpp:380] Eltwise21_M2PELU43_0_split -> Eltwise21_M2PELU43_0_split_1
I0927 19:02:46.515871  3577 net.cpp:122] Setting up Eltwise21_M2PELU43_0_split
I0927 19:02:46.515873  3577 net.cpp:129] Top shape: 100 64 8 8 (409600)
I0927 19:02:46.515877  3577 net.cpp:129] Top shape: 100 64 8 8 (409600)
I0927 19:02:46.515878  3577 net.cpp:137] Memory required for data: 1082574000
I0927 19:02:46.515880  3577 layer_factory.hpp:77] Creating layer Convolution46
I0927 19:02:46.515887  3577 net.cpp:84] Creating Layer Convolution46
I0927 19:02:46.515889  3577 net.cpp:406] Convolution46 <- Eltwise21_M2PELU43_0_split_0
I0927 19:02:46.515893  3577 net.cpp:380] Convolution46 -> Convolution46
I0927 19:02:46.517648  3577 net.cpp:122] Setting up Convolution46
I0927 19:02:46.517657  3577 net.cpp:129] Top shape: 100 64 8 8 (409600)
I0927 19:02:46.517659  3577 net.cpp:137] Memory required for data: 1084212400
I0927 19:02:46.517664  3577 layer_factory.hpp:77] Creating layer BatchNorm46
I0927 19:02:46.517669  3577 net.cpp:84] Creating Layer BatchNorm46
I0927 19:02:46.517673  3577 net.cpp:406] BatchNorm46 <- Convolution46
I0927 19:02:46.517676  3577 net.cpp:367] BatchNorm46 -> Convolution46 (in-place)
I0927 19:02:46.517819  3577 net.cpp:122] Setting up BatchNorm46
I0927 19:02:46.517823  3577 net.cpp:129] Top shape: 100 64 8 8 (409600)
I0927 19:02:46.517825  3577 net.cpp:137] Memory required for data: 1085850800
I0927 19:02:46.517830  3577 layer_factory.hpp:77] Creating layer Scale46
I0927 19:02:46.517834  3577 net.cpp:84] Creating Layer Scale46
I0927 19:02:46.517838  3577 net.cpp:406] Scale46 <- Convolution46
I0927 19:02:46.517840  3577 net.cpp:367] Scale46 -> Convolution46 (in-place)
I0927 19:02:46.517869  3577 layer_factory.hpp:77] Creating layer Scale46
I0927 19:02:46.517951  3577 net.cpp:122] Setting up Scale46
I0927 19:02:46.517954  3577 net.cpp:129] Top shape: 100 64 8 8 (409600)
I0927 19:02:46.517956  3577 net.cpp:137] Memory required for data: 1087489200
I0927 19:02:46.517961  3577 layer_factory.hpp:77] Creating layer M2PELU44
I0927 19:02:46.517966  3577 net.cpp:84] Creating Layer M2PELU44
I0927 19:02:46.517968  3577 net.cpp:406] M2PELU44 <- Convolution46
I0927 19:02:46.517979  3577 net.cpp:367] M2PELU44 -> Convolution46 (in-place)
I0927 19:02:46.518074  3577 net.cpp:122] Setting up M2PELU44
I0927 19:02:46.518077  3577 net.cpp:129] Top shape: 100 64 8 8 (409600)
I0927 19:02:46.518079  3577 net.cpp:137] Memory required for data: 1089127600
I0927 19:02:46.518084  3577 layer_factory.hpp:77] Creating layer Convolution47
I0927 19:02:46.518090  3577 net.cpp:84] Creating Layer Convolution47
I0927 19:02:46.518092  3577 net.cpp:406] Convolution47 <- Convolution46
I0927 19:02:46.518098  3577 net.cpp:380] Convolution47 -> Convolution47
I0927 19:02:46.519827  3577 net.cpp:122] Setting up Convolution47
I0927 19:02:46.519836  3577 net.cpp:129] Top shape: 100 64 8 8 (409600)
I0927 19:02:46.519839  3577 net.cpp:137] Memory required for data: 1090766000
I0927 19:02:46.519842  3577 layer_factory.hpp:77] Creating layer BatchNorm47
I0927 19:02:46.519848  3577 net.cpp:84] Creating Layer BatchNorm47
I0927 19:02:46.519851  3577 net.cpp:406] BatchNorm47 <- Convolution47
I0927 19:02:46.519855  3577 net.cpp:367] BatchNorm47 -> Convolution47 (in-place)
I0927 19:02:46.519991  3577 net.cpp:122] Setting up BatchNorm47
I0927 19:02:46.519995  3577 net.cpp:129] Top shape: 100 64 8 8 (409600)
I0927 19:02:46.519997  3577 net.cpp:137] Memory required for data: 1092404400
I0927 19:02:46.520002  3577 layer_factory.hpp:77] Creating layer Scale47
I0927 19:02:46.520007  3577 net.cpp:84] Creating Layer Scale47
I0927 19:02:46.520010  3577 net.cpp:406] Scale47 <- Convolution47
I0927 19:02:46.520014  3577 net.cpp:367] Scale47 -> Convolution47 (in-place)
I0927 19:02:46.520041  3577 layer_factory.hpp:77] Creating layer Scale47
I0927 19:02:46.520118  3577 net.cpp:122] Setting up Scale47
I0927 19:02:46.520123  3577 net.cpp:129] Top shape: 100 64 8 8 (409600)
I0927 19:02:46.520125  3577 net.cpp:137] Memory required for data: 1094042800
I0927 19:02:46.520129  3577 layer_factory.hpp:77] Creating layer Eltwise22
I0927 19:02:46.520134  3577 net.cpp:84] Creating Layer Eltwise22
I0927 19:02:46.520136  3577 net.cpp:406] Eltwise22 <- Eltwise21_M2PELU43_0_split_1
I0927 19:02:46.520140  3577 net.cpp:406] Eltwise22 <- Convolution47
I0927 19:02:46.520143  3577 net.cpp:380] Eltwise22 -> Eltwise22
I0927 19:02:46.520160  3577 net.cpp:122] Setting up Eltwise22
I0927 19:02:46.520164  3577 net.cpp:129] Top shape: 100 64 8 8 (409600)
I0927 19:02:46.520165  3577 net.cpp:137] Memory required for data: 1095681200
I0927 19:02:46.520167  3577 layer_factory.hpp:77] Creating layer M2PELU45
I0927 19:02:46.520172  3577 net.cpp:84] Creating Layer M2PELU45
I0927 19:02:46.520175  3577 net.cpp:406] M2PELU45 <- Eltwise22
I0927 19:02:46.520179  3577 net.cpp:367] M2PELU45 -> Eltwise22 (in-place)
I0927 19:02:46.520269  3577 net.cpp:122] Setting up M2PELU45
I0927 19:02:46.520274  3577 net.cpp:129] Top shape: 100 64 8 8 (409600)
I0927 19:02:46.520277  3577 net.cpp:137] Memory required for data: 1097319600
I0927 19:02:46.520280  3577 layer_factory.hpp:77] Creating layer Eltwise22_M2PELU45_0_split
I0927 19:02:46.520284  3577 net.cpp:84] Creating Layer Eltwise22_M2PELU45_0_split
I0927 19:02:46.520287  3577 net.cpp:406] Eltwise22_M2PELU45_0_split <- Eltwise22
I0927 19:02:46.520290  3577 net.cpp:380] Eltwise22_M2PELU45_0_split -> Eltwise22_M2PELU45_0_split_0
I0927 19:02:46.520294  3577 net.cpp:380] Eltwise22_M2PELU45_0_split -> Eltwise22_M2PELU45_0_split_1
I0927 19:02:46.520318  3577 net.cpp:122] Setting up Eltwise22_M2PELU45_0_split
I0927 19:02:46.520323  3577 net.cpp:129] Top shape: 100 64 8 8 (409600)
I0927 19:02:46.520325  3577 net.cpp:129] Top shape: 100 64 8 8 (409600)
I0927 19:02:46.520328  3577 net.cpp:137] Memory required for data: 1100596400
I0927 19:02:46.520329  3577 layer_factory.hpp:77] Creating layer Convolution48
I0927 19:02:46.520334  3577 net.cpp:84] Creating Layer Convolution48
I0927 19:02:46.520337  3577 net.cpp:406] Convolution48 <- Eltwise22_M2PELU45_0_split_0
I0927 19:02:46.520341  3577 net.cpp:380] Convolution48 -> Convolution48
I0927 19:02:46.522375  3577 net.cpp:122] Setting up Convolution48
I0927 19:02:46.522384  3577 net.cpp:129] Top shape: 100 64 8 8 (409600)
I0927 19:02:46.522393  3577 net.cpp:137] Memory required for data: 1102234800
I0927 19:02:46.522398  3577 layer_factory.hpp:77] Creating layer BatchNorm48
I0927 19:02:46.522405  3577 net.cpp:84] Creating Layer BatchNorm48
I0927 19:02:46.522408  3577 net.cpp:406] BatchNorm48 <- Convolution48
I0927 19:02:46.522413  3577 net.cpp:367] BatchNorm48 -> Convolution48 (in-place)
I0927 19:02:46.522560  3577 net.cpp:122] Setting up BatchNorm48
I0927 19:02:46.522567  3577 net.cpp:129] Top shape: 100 64 8 8 (409600)
I0927 19:02:46.522568  3577 net.cpp:137] Memory required for data: 1103873200
I0927 19:02:46.522573  3577 layer_factory.hpp:77] Creating layer Scale48
I0927 19:02:46.522578  3577 net.cpp:84] Creating Layer Scale48
I0927 19:02:46.522579  3577 net.cpp:406] Scale48 <- Convolution48
I0927 19:02:46.522583  3577 net.cpp:367] Scale48 -> Convolution48 (in-place)
I0927 19:02:46.522611  3577 layer_factory.hpp:77] Creating layer Scale48
I0927 19:02:46.522692  3577 net.cpp:122] Setting up Scale48
I0927 19:02:46.522696  3577 net.cpp:129] Top shape: 100 64 8 8 (409600)
I0927 19:02:46.522698  3577 net.cpp:137] Memory required for data: 1105511600
I0927 19:02:46.522702  3577 layer_factory.hpp:77] Creating layer M2PELU46
I0927 19:02:46.522707  3577 net.cpp:84] Creating Layer M2PELU46
I0927 19:02:46.522711  3577 net.cpp:406] M2PELU46 <- Convolution48
I0927 19:02:46.522714  3577 net.cpp:367] M2PELU46 -> Convolution48 (in-place)
I0927 19:02:46.522805  3577 net.cpp:122] Setting up M2PELU46
I0927 19:02:46.522810  3577 net.cpp:129] Top shape: 100 64 8 8 (409600)
I0927 19:02:46.522812  3577 net.cpp:137] Memory required for data: 1107150000
I0927 19:02:46.522815  3577 layer_factory.hpp:77] Creating layer Convolution49
I0927 19:02:46.522822  3577 net.cpp:84] Creating Layer Convolution49
I0927 19:02:46.522825  3577 net.cpp:406] Convolution49 <- Convolution48
I0927 19:02:46.522830  3577 net.cpp:380] Convolution49 -> Convolution49
I0927 19:02:46.524884  3577 net.cpp:122] Setting up Convolution49
I0927 19:02:46.524893  3577 net.cpp:129] Top shape: 100 64 8 8 (409600)
I0927 19:02:46.524896  3577 net.cpp:137] Memory required for data: 1108788400
I0927 19:02:46.524900  3577 layer_factory.hpp:77] Creating layer BatchNorm49
I0927 19:02:46.524905  3577 net.cpp:84] Creating Layer BatchNorm49
I0927 19:02:46.524909  3577 net.cpp:406] BatchNorm49 <- Convolution49
I0927 19:02:46.524912  3577 net.cpp:367] BatchNorm49 -> Convolution49 (in-place)
I0927 19:02:46.525051  3577 net.cpp:122] Setting up BatchNorm49
I0927 19:02:46.525056  3577 net.cpp:129] Top shape: 100 64 8 8 (409600)
I0927 19:02:46.525058  3577 net.cpp:137] Memory required for data: 1110426800
I0927 19:02:46.525063  3577 layer_factory.hpp:77] Creating layer Scale49
I0927 19:02:46.525068  3577 net.cpp:84] Creating Layer Scale49
I0927 19:02:46.525070  3577 net.cpp:406] Scale49 <- Convolution49
I0927 19:02:46.525074  3577 net.cpp:367] Scale49 -> Convolution49 (in-place)
I0927 19:02:46.525101  3577 layer_factory.hpp:77] Creating layer Scale49
I0927 19:02:46.525182  3577 net.cpp:122] Setting up Scale49
I0927 19:02:46.525185  3577 net.cpp:129] Top shape: 100 64 8 8 (409600)
I0927 19:02:46.525187  3577 net.cpp:137] Memory required for data: 1112065200
I0927 19:02:46.525192  3577 layer_factory.hpp:77] Creating layer Eltwise23
I0927 19:02:46.525197  3577 net.cpp:84] Creating Layer Eltwise23
I0927 19:02:46.525200  3577 net.cpp:406] Eltwise23 <- Eltwise22_M2PELU45_0_split_1
I0927 19:02:46.525203  3577 net.cpp:406] Eltwise23 <- Convolution49
I0927 19:02:46.525207  3577 net.cpp:380] Eltwise23 -> Eltwise23
I0927 19:02:46.525224  3577 net.cpp:122] Setting up Eltwise23
I0927 19:02:46.525228  3577 net.cpp:129] Top shape: 100 64 8 8 (409600)
I0927 19:02:46.525230  3577 net.cpp:137] Memory required for data: 1113703600
I0927 19:02:46.525233  3577 layer_factory.hpp:77] Creating layer M2PELU47
I0927 19:02:46.525238  3577 net.cpp:84] Creating Layer M2PELU47
I0927 19:02:46.525240  3577 net.cpp:406] M2PELU47 <- Eltwise23
I0927 19:02:46.525243  3577 net.cpp:367] M2PELU47 -> Eltwise23 (in-place)
I0927 19:02:46.525344  3577 net.cpp:122] Setting up M2PELU47
I0927 19:02:46.525349  3577 net.cpp:129] Top shape: 100 64 8 8 (409600)
I0927 19:02:46.525352  3577 net.cpp:137] Memory required for data: 1115342000
I0927 19:02:46.525355  3577 layer_factory.hpp:77] Creating layer Eltwise23_M2PELU47_0_split
I0927 19:02:46.525360  3577 net.cpp:84] Creating Layer Eltwise23_M2PELU47_0_split
I0927 19:02:46.525362  3577 net.cpp:406] Eltwise23_M2PELU47_0_split <- Eltwise23
I0927 19:02:46.525367  3577 net.cpp:380] Eltwise23_M2PELU47_0_split -> Eltwise23_M2PELU47_0_split_0
I0927 19:02:46.525372  3577 net.cpp:380] Eltwise23_M2PELU47_0_split -> Eltwise23_M2PELU47_0_split_1
I0927 19:02:46.525395  3577 net.cpp:122] Setting up Eltwise23_M2PELU47_0_split
I0927 19:02:46.525399  3577 net.cpp:129] Top shape: 100 64 8 8 (409600)
I0927 19:02:46.525403  3577 net.cpp:129] Top shape: 100 64 8 8 (409600)
I0927 19:02:46.525404  3577 net.cpp:137] Memory required for data: 1118618800
I0927 19:02:46.525406  3577 layer_factory.hpp:77] Creating layer Convolution50
I0927 19:02:46.525411  3577 net.cpp:84] Creating Layer Convolution50
I0927 19:02:46.525414  3577 net.cpp:406] Convolution50 <- Eltwise23_M2PELU47_0_split_0
I0927 19:02:46.525418  3577 net.cpp:380] Convolution50 -> Convolution50
I0927 19:02:46.527976  3577 net.cpp:122] Setting up Convolution50
I0927 19:02:46.527986  3577 net.cpp:129] Top shape: 100 64 8 8 (409600)
I0927 19:02:46.527988  3577 net.cpp:137] Memory required for data: 1120257200
I0927 19:02:46.527993  3577 layer_factory.hpp:77] Creating layer BatchNorm50
I0927 19:02:46.527997  3577 net.cpp:84] Creating Layer BatchNorm50
I0927 19:02:46.528000  3577 net.cpp:406] BatchNorm50 <- Convolution50
I0927 19:02:46.528004  3577 net.cpp:367] BatchNorm50 -> Convolution50 (in-place)
I0927 19:02:46.543978  3577 net.cpp:122] Setting up BatchNorm50
I0927 19:02:46.543987  3577 net.cpp:129] Top shape: 100 64 8 8 (409600)
I0927 19:02:46.543990  3577 net.cpp:137] Memory required for data: 1121895600
I0927 19:02:46.543997  3577 layer_factory.hpp:77] Creating layer Scale50
I0927 19:02:46.544001  3577 net.cpp:84] Creating Layer Scale50
I0927 19:02:46.544004  3577 net.cpp:406] Scale50 <- Convolution50
I0927 19:02:46.544008  3577 net.cpp:367] Scale50 -> Convolution50 (in-place)
I0927 19:02:46.544041  3577 layer_factory.hpp:77] Creating layer Scale50
I0927 19:02:46.544129  3577 net.cpp:122] Setting up Scale50
I0927 19:02:46.544134  3577 net.cpp:129] Top shape: 100 64 8 8 (409600)
I0927 19:02:46.544137  3577 net.cpp:137] Memory required for data: 1123534000
I0927 19:02:46.544140  3577 layer_factory.hpp:77] Creating layer M2PELU48
I0927 19:02:46.544145  3577 net.cpp:84] Creating Layer M2PELU48
I0927 19:02:46.544148  3577 net.cpp:406] M2PELU48 <- Convolution50
I0927 19:02:46.544152  3577 net.cpp:367] M2PELU48 -> Convolution50 (in-place)
I0927 19:02:46.544253  3577 net.cpp:122] Setting up M2PELU48
I0927 19:02:46.544258  3577 net.cpp:129] Top shape: 100 64 8 8 (409600)
I0927 19:02:46.544260  3577 net.cpp:137] Memory required for data: 1125172400
I0927 19:02:46.544265  3577 layer_factory.hpp:77] Creating layer Convolution51
I0927 19:02:46.544273  3577 net.cpp:84] Creating Layer Convolution51
I0927 19:02:46.544275  3577 net.cpp:406] Convolution51 <- Convolution50
I0927 19:02:46.544281  3577 net.cpp:380] Convolution51 -> Convolution51
I0927 19:02:46.546511  3577 net.cpp:122] Setting up Convolution51
I0927 19:02:46.546528  3577 net.cpp:129] Top shape: 100 64 8 8 (409600)
I0927 19:02:46.546533  3577 net.cpp:137] Memory required for data: 1126810800
I0927 19:02:46.546538  3577 layer_factory.hpp:77] Creating layer BatchNorm51
I0927 19:02:46.546555  3577 net.cpp:84] Creating Layer BatchNorm51
I0927 19:02:46.546557  3577 net.cpp:406] BatchNorm51 <- Convolution51
I0927 19:02:46.546561  3577 net.cpp:367] BatchNorm51 -> Convolution51 (in-place)
I0927 19:02:46.546702  3577 net.cpp:122] Setting up BatchNorm51
I0927 19:02:46.546706  3577 net.cpp:129] Top shape: 100 64 8 8 (409600)
I0927 19:02:46.546708  3577 net.cpp:137] Memory required for data: 1128449200
I0927 19:02:46.546720  3577 layer_factory.hpp:77] Creating layer Scale51
I0927 19:02:46.546725  3577 net.cpp:84] Creating Layer Scale51
I0927 19:02:46.546728  3577 net.cpp:406] Scale51 <- Convolution51
I0927 19:02:46.546731  3577 net.cpp:367] Scale51 -> Convolution51 (in-place)
I0927 19:02:46.546761  3577 layer_factory.hpp:77] Creating layer Scale51
I0927 19:02:46.546840  3577 net.cpp:122] Setting up Scale51
I0927 19:02:46.546845  3577 net.cpp:129] Top shape: 100 64 8 8 (409600)
I0927 19:02:46.546847  3577 net.cpp:137] Memory required for data: 1130087600
I0927 19:02:46.546851  3577 layer_factory.hpp:77] Creating layer Eltwise24
I0927 19:02:46.546855  3577 net.cpp:84] Creating Layer Eltwise24
I0927 19:02:46.546859  3577 net.cpp:406] Eltwise24 <- Eltwise23_M2PELU47_0_split_1
I0927 19:02:46.546860  3577 net.cpp:406] Eltwise24 <- Convolution51
I0927 19:02:46.546865  3577 net.cpp:380] Eltwise24 -> Eltwise24
I0927 19:02:46.546881  3577 net.cpp:122] Setting up Eltwise24
I0927 19:02:46.546885  3577 net.cpp:129] Top shape: 100 64 8 8 (409600)
I0927 19:02:46.546886  3577 net.cpp:137] Memory required for data: 1131726000
I0927 19:02:46.546888  3577 layer_factory.hpp:77] Creating layer M2PELU49
I0927 19:02:46.546895  3577 net.cpp:84] Creating Layer M2PELU49
I0927 19:02:46.546896  3577 net.cpp:406] M2PELU49 <- Eltwise24
I0927 19:02:46.546900  3577 net.cpp:367] M2PELU49 -> Eltwise24 (in-place)
I0927 19:02:46.546991  3577 net.cpp:122] Setting up M2PELU49
I0927 19:02:46.546995  3577 net.cpp:129] Top shape: 100 64 8 8 (409600)
I0927 19:02:46.546998  3577 net.cpp:137] Memory required for data: 1133364400
I0927 19:02:46.547001  3577 layer_factory.hpp:77] Creating layer Eltwise24_M2PELU49_0_split
I0927 19:02:46.547004  3577 net.cpp:84] Creating Layer Eltwise24_M2PELU49_0_split
I0927 19:02:46.547008  3577 net.cpp:406] Eltwise24_M2PELU49_0_split <- Eltwise24
I0927 19:02:46.547011  3577 net.cpp:380] Eltwise24_M2PELU49_0_split -> Eltwise24_M2PELU49_0_split_0
I0927 19:02:46.547015  3577 net.cpp:380] Eltwise24_M2PELU49_0_split -> Eltwise24_M2PELU49_0_split_1
I0927 19:02:46.547049  3577 net.cpp:122] Setting up Eltwise24_M2PELU49_0_split
I0927 19:02:46.547052  3577 net.cpp:129] Top shape: 100 64 8 8 (409600)
I0927 19:02:46.547055  3577 net.cpp:129] Top shape: 100 64 8 8 (409600)
I0927 19:02:46.547057  3577 net.cpp:137] Memory required for data: 1136641200
I0927 19:02:46.547060  3577 layer_factory.hpp:77] Creating layer Convolution52
I0927 19:02:46.547065  3577 net.cpp:84] Creating Layer Convolution52
I0927 19:02:46.547067  3577 net.cpp:406] Convolution52 <- Eltwise24_M2PELU49_0_split_0
I0927 19:02:46.547072  3577 net.cpp:380] Convolution52 -> Convolution52
I0927 19:02:46.549211  3577 net.cpp:122] Setting up Convolution52
I0927 19:02:46.549221  3577 net.cpp:129] Top shape: 100 64 8 8 (409600)
I0927 19:02:46.549223  3577 net.cpp:137] Memory required for data: 1138279600
I0927 19:02:46.549228  3577 layer_factory.hpp:77] Creating layer BatchNorm52
I0927 19:02:46.549233  3577 net.cpp:84] Creating Layer BatchNorm52
I0927 19:02:46.549237  3577 net.cpp:406] BatchNorm52 <- Convolution52
I0927 19:02:46.549240  3577 net.cpp:367] BatchNorm52 -> Convolution52 (in-place)
I0927 19:02:46.549384  3577 net.cpp:122] Setting up BatchNorm52
I0927 19:02:46.549389  3577 net.cpp:129] Top shape: 100 64 8 8 (409600)
I0927 19:02:46.549391  3577 net.cpp:137] Memory required for data: 1139918000
I0927 19:02:46.549396  3577 layer_factory.hpp:77] Creating layer Scale52
I0927 19:02:46.549399  3577 net.cpp:84] Creating Layer Scale52
I0927 19:02:46.549402  3577 net.cpp:406] Scale52 <- Convolution52
I0927 19:02:46.549405  3577 net.cpp:367] Scale52 -> Convolution52 (in-place)
I0927 19:02:46.549434  3577 layer_factory.hpp:77] Creating layer Scale52
I0927 19:02:46.549516  3577 net.cpp:122] Setting up Scale52
I0927 19:02:46.549520  3577 net.cpp:129] Top shape: 100 64 8 8 (409600)
I0927 19:02:46.549522  3577 net.cpp:137] Memory required for data: 1141556400
I0927 19:02:46.549526  3577 layer_factory.hpp:77] Creating layer M2PELU50
I0927 19:02:46.549547  3577 net.cpp:84] Creating Layer M2PELU50
I0927 19:02:46.549556  3577 net.cpp:406] M2PELU50 <- Convolution52
I0927 19:02:46.549561  3577 net.cpp:367] M2PELU50 -> Convolution52 (in-place)
I0927 19:02:46.549659  3577 net.cpp:122] Setting up M2PELU50
I0927 19:02:46.549664  3577 net.cpp:129] Top shape: 100 64 8 8 (409600)
I0927 19:02:46.549665  3577 net.cpp:137] Memory required for data: 1143194800
I0927 19:02:46.549669  3577 layer_factory.hpp:77] Creating layer Convolution53
I0927 19:02:46.549676  3577 net.cpp:84] Creating Layer Convolution53
I0927 19:02:46.549679  3577 net.cpp:406] Convolution53 <- Convolution52
I0927 19:02:46.549682  3577 net.cpp:380] Convolution53 -> Convolution53
I0927 19:02:46.551419  3577 net.cpp:122] Setting up Convolution53
I0927 19:02:46.551429  3577 net.cpp:129] Top shape: 100 64 8 8 (409600)
I0927 19:02:46.551430  3577 net.cpp:137] Memory required for data: 1144833200
I0927 19:02:46.551435  3577 layer_factory.hpp:77] Creating layer BatchNorm53
I0927 19:02:46.551440  3577 net.cpp:84] Creating Layer BatchNorm53
I0927 19:02:46.551443  3577 net.cpp:406] BatchNorm53 <- Convolution53
I0927 19:02:46.551447  3577 net.cpp:367] BatchNorm53 -> Convolution53 (in-place)
I0927 19:02:46.551587  3577 net.cpp:122] Setting up BatchNorm53
I0927 19:02:46.551591  3577 net.cpp:129] Top shape: 100 64 8 8 (409600)
I0927 19:02:46.551594  3577 net.cpp:137] Memory required for data: 1146471600
I0927 19:02:46.551599  3577 layer_factory.hpp:77] Creating layer Scale53
I0927 19:02:46.551602  3577 net.cpp:84] Creating Layer Scale53
I0927 19:02:46.551605  3577 net.cpp:406] Scale53 <- Convolution53
I0927 19:02:46.551609  3577 net.cpp:367] Scale53 -> Convolution53 (in-place)
I0927 19:02:46.551636  3577 layer_factory.hpp:77] Creating layer Scale53
I0927 19:02:46.551718  3577 net.cpp:122] Setting up Scale53
I0927 19:02:46.551723  3577 net.cpp:129] Top shape: 100 64 8 8 (409600)
I0927 19:02:46.551724  3577 net.cpp:137] Memory required for data: 1148110000
I0927 19:02:46.551728  3577 layer_factory.hpp:77] Creating layer Eltwise25
I0927 19:02:46.551733  3577 net.cpp:84] Creating Layer Eltwise25
I0927 19:02:46.551735  3577 net.cpp:406] Eltwise25 <- Eltwise24_M2PELU49_0_split_1
I0927 19:02:46.551738  3577 net.cpp:406] Eltwise25 <- Convolution53
I0927 19:02:46.551743  3577 net.cpp:380] Eltwise25 -> Eltwise25
I0927 19:02:46.551759  3577 net.cpp:122] Setting up Eltwise25
I0927 19:02:46.551761  3577 net.cpp:129] Top shape: 100 64 8 8 (409600)
I0927 19:02:46.551764  3577 net.cpp:137] Memory required for data: 1149748400
I0927 19:02:46.551765  3577 layer_factory.hpp:77] Creating layer M2PELU51
I0927 19:02:46.551770  3577 net.cpp:84] Creating Layer M2PELU51
I0927 19:02:46.551774  3577 net.cpp:406] M2PELU51 <- Eltwise25
I0927 19:02:46.551776  3577 net.cpp:367] M2PELU51 -> Eltwise25 (in-place)
I0927 19:02:46.551868  3577 net.cpp:122] Setting up M2PELU51
I0927 19:02:46.551872  3577 net.cpp:129] Top shape: 100 64 8 8 (409600)
I0927 19:02:46.551874  3577 net.cpp:137] Memory required for data: 1151386800
I0927 19:02:46.551878  3577 layer_factory.hpp:77] Creating layer Eltwise25_M2PELU51_0_split
I0927 19:02:46.551882  3577 net.cpp:84] Creating Layer Eltwise25_M2PELU51_0_split
I0927 19:02:46.551884  3577 net.cpp:406] Eltwise25_M2PELU51_0_split <- Eltwise25
I0927 19:02:46.551888  3577 net.cpp:380] Eltwise25_M2PELU51_0_split -> Eltwise25_M2PELU51_0_split_0
I0927 19:02:46.551892  3577 net.cpp:380] Eltwise25_M2PELU51_0_split -> Eltwise25_M2PELU51_0_split_1
I0927 19:02:46.551915  3577 net.cpp:122] Setting up Eltwise25_M2PELU51_0_split
I0927 19:02:46.551919  3577 net.cpp:129] Top shape: 100 64 8 8 (409600)
I0927 19:02:46.551923  3577 net.cpp:129] Top shape: 100 64 8 8 (409600)
I0927 19:02:46.551924  3577 net.cpp:137] Memory required for data: 1154663600
I0927 19:02:46.551926  3577 layer_factory.hpp:77] Creating layer Convolution54
I0927 19:02:46.551933  3577 net.cpp:84] Creating Layer Convolution54
I0927 19:02:46.551934  3577 net.cpp:406] Convolution54 <- Eltwise25_M2PELU51_0_split_0
I0927 19:02:46.551939  3577 net.cpp:380] Convolution54 -> Convolution54
I0927 19:02:46.553982  3577 net.cpp:122] Setting up Convolution54
I0927 19:02:46.553995  3577 net.cpp:129] Top shape: 100 64 8 8 (409600)
I0927 19:02:46.553998  3577 net.cpp:137] Memory required for data: 1156302000
I0927 19:02:46.554003  3577 layer_factory.hpp:77] Creating layer BatchNorm54
I0927 19:02:46.554008  3577 net.cpp:84] Creating Layer BatchNorm54
I0927 19:02:46.554011  3577 net.cpp:406] BatchNorm54 <- Convolution54
I0927 19:02:46.554014  3577 net.cpp:367] BatchNorm54 -> Convolution54 (in-place)
I0927 19:02:46.554160  3577 net.cpp:122] Setting up BatchNorm54
I0927 19:02:46.554165  3577 net.cpp:129] Top shape: 100 64 8 8 (409600)
I0927 19:02:46.554167  3577 net.cpp:137] Memory required for data: 1157940400
I0927 19:02:46.554172  3577 layer_factory.hpp:77] Creating layer Scale54
I0927 19:02:46.554175  3577 net.cpp:84] Creating Layer Scale54
I0927 19:02:46.554178  3577 net.cpp:406] Scale54 <- Convolution54
I0927 19:02:46.554181  3577 net.cpp:367] Scale54 -> Convolution54 (in-place)
I0927 19:02:46.554210  3577 layer_factory.hpp:77] Creating layer Scale54
I0927 19:02:46.554291  3577 net.cpp:122] Setting up Scale54
I0927 19:02:46.554296  3577 net.cpp:129] Top shape: 100 64 8 8 (409600)
I0927 19:02:46.554297  3577 net.cpp:137] Memory required for data: 1159578800
I0927 19:02:46.554301  3577 layer_factory.hpp:77] Creating layer M2PELU52
I0927 19:02:46.554306  3577 net.cpp:84] Creating Layer M2PELU52
I0927 19:02:46.554309  3577 net.cpp:406] M2PELU52 <- Convolution54
I0927 19:02:46.554312  3577 net.cpp:367] M2PELU52 -> Convolution54 (in-place)
I0927 19:02:46.554406  3577 net.cpp:122] Setting up M2PELU52
I0927 19:02:46.554410  3577 net.cpp:129] Top shape: 100 64 8 8 (409600)
I0927 19:02:46.554412  3577 net.cpp:137] Memory required for data: 1161217200
I0927 19:02:46.554416  3577 layer_factory.hpp:77] Creating layer Convolution55
I0927 19:02:46.554424  3577 net.cpp:84] Creating Layer Convolution55
I0927 19:02:46.554425  3577 net.cpp:406] Convolution55 <- Convolution54
I0927 19:02:46.554431  3577 net.cpp:380] Convolution55 -> Convolution55
I0927 19:02:46.556174  3577 net.cpp:122] Setting up Convolution55
I0927 19:02:46.556181  3577 net.cpp:129] Top shape: 100 64 8 8 (409600)
I0927 19:02:46.556185  3577 net.cpp:137] Memory required for data: 1162855600
I0927 19:02:46.556188  3577 layer_factory.hpp:77] Creating layer BatchNorm55
I0927 19:02:46.556193  3577 net.cpp:84] Creating Layer BatchNorm55
I0927 19:02:46.556196  3577 net.cpp:406] BatchNorm55 <- Convolution55
I0927 19:02:46.556200  3577 net.cpp:367] BatchNorm55 -> Convolution55 (in-place)
I0927 19:02:46.556341  3577 net.cpp:122] Setting up BatchNorm55
I0927 19:02:46.556345  3577 net.cpp:129] Top shape: 100 64 8 8 (409600)
I0927 19:02:46.556347  3577 net.cpp:137] Memory required for data: 1164494000
I0927 19:02:46.556352  3577 layer_factory.hpp:77] Creating layer Scale55
I0927 19:02:46.556356  3577 net.cpp:84] Creating Layer Scale55
I0927 19:02:46.556358  3577 net.cpp:406] Scale55 <- Convolution55
I0927 19:02:46.556362  3577 net.cpp:367] Scale55 -> Convolution55 (in-place)
I0927 19:02:46.556391  3577 layer_factory.hpp:77] Creating layer Scale55
I0927 19:02:46.556473  3577 net.cpp:122] Setting up Scale55
I0927 19:02:46.556478  3577 net.cpp:129] Top shape: 100 64 8 8 (409600)
I0927 19:02:46.556479  3577 net.cpp:137] Memory required for data: 1166132400
I0927 19:02:46.556483  3577 layer_factory.hpp:77] Creating layer Eltwise26
I0927 19:02:46.556488  3577 net.cpp:84] Creating Layer Eltwise26
I0927 19:02:46.556490  3577 net.cpp:406] Eltwise26 <- Eltwise25_M2PELU51_0_split_1
I0927 19:02:46.556494  3577 net.cpp:406] Eltwise26 <- Convolution55
I0927 19:02:46.556498  3577 net.cpp:380] Eltwise26 -> Eltwise26
I0927 19:02:46.556514  3577 net.cpp:122] Setting up Eltwise26
I0927 19:02:46.556519  3577 net.cpp:129] Top shape: 100 64 8 8 (409600)
I0927 19:02:46.556520  3577 net.cpp:137] Memory required for data: 1167770800
I0927 19:02:46.556522  3577 layer_factory.hpp:77] Creating layer M2PELU53
I0927 19:02:46.556526  3577 net.cpp:84] Creating Layer M2PELU53
I0927 19:02:46.556529  3577 net.cpp:406] M2PELU53 <- Eltwise26
I0927 19:02:46.556540  3577 net.cpp:367] M2PELU53 -> Eltwise26 (in-place)
I0927 19:02:46.556634  3577 net.cpp:122] Setting up M2PELU53
I0927 19:02:46.556639  3577 net.cpp:129] Top shape: 100 64 8 8 (409600)
I0927 19:02:46.556641  3577 net.cpp:137] Memory required for data: 1169409200
I0927 19:02:46.556644  3577 layer_factory.hpp:77] Creating layer Eltwise26_M2PELU53_0_split
I0927 19:02:46.556649  3577 net.cpp:84] Creating Layer Eltwise26_M2PELU53_0_split
I0927 19:02:46.556651  3577 net.cpp:406] Eltwise26_M2PELU53_0_split <- Eltwise26
I0927 19:02:46.556654  3577 net.cpp:380] Eltwise26_M2PELU53_0_split -> Eltwise26_M2PELU53_0_split_0
I0927 19:02:46.556658  3577 net.cpp:380] Eltwise26_M2PELU53_0_split -> Eltwise26_M2PELU53_0_split_1
I0927 19:02:46.556684  3577 net.cpp:122] Setting up Eltwise26_M2PELU53_0_split
I0927 19:02:46.556687  3577 net.cpp:129] Top shape: 100 64 8 8 (409600)
I0927 19:02:46.556690  3577 net.cpp:129] Top shape: 100 64 8 8 (409600)
I0927 19:02:46.556691  3577 net.cpp:137] Memory required for data: 1172686000
I0927 19:02:46.556694  3577 layer_factory.hpp:77] Creating layer Convolution56
I0927 19:02:46.556699  3577 net.cpp:84] Creating Layer Convolution56
I0927 19:02:46.556701  3577 net.cpp:406] Convolution56 <- Eltwise26_M2PELU53_0_split_0
I0927 19:02:46.556706  3577 net.cpp:380] Convolution56 -> Convolution56
I0927 19:02:46.558384  3577 net.cpp:122] Setting up Convolution56
I0927 19:02:46.558393  3577 net.cpp:129] Top shape: 100 64 8 8 (409600)
I0927 19:02:46.558394  3577 net.cpp:137] Memory required for data: 1174324400
I0927 19:02:46.558399  3577 layer_factory.hpp:77] Creating layer BatchNorm56
I0927 19:02:46.574497  3577 net.cpp:84] Creating Layer BatchNorm56
I0927 19:02:46.574507  3577 net.cpp:406] BatchNorm56 <- Convolution56
I0927 19:02:46.574512  3577 net.cpp:367] BatchNorm56 -> Convolution56 (in-place)
I0927 19:02:46.574692  3577 net.cpp:122] Setting up BatchNorm56
I0927 19:02:46.574698  3577 net.cpp:129] Top shape: 100 64 8 8 (409600)
I0927 19:02:46.574702  3577 net.cpp:137] Memory required for data: 1175962800
I0927 19:02:46.574707  3577 layer_factory.hpp:77] Creating layer Scale56
I0927 19:02:46.574712  3577 net.cpp:84] Creating Layer Scale56
I0927 19:02:46.574714  3577 net.cpp:406] Scale56 <- Convolution56
I0927 19:02:46.574718  3577 net.cpp:367] Scale56 -> Convolution56 (in-place)
I0927 19:02:46.574751  3577 layer_factory.hpp:77] Creating layer Scale56
I0927 19:02:46.574841  3577 net.cpp:122] Setting up Scale56
I0927 19:02:46.574846  3577 net.cpp:129] Top shape: 100 64 8 8 (409600)
I0927 19:02:46.574848  3577 net.cpp:137] Memory required for data: 1177601200
I0927 19:02:46.574852  3577 layer_factory.hpp:77] Creating layer M2PELU54
I0927 19:02:46.574858  3577 net.cpp:84] Creating Layer M2PELU54
I0927 19:02:46.574862  3577 net.cpp:406] M2PELU54 <- Convolution56
I0927 19:02:46.574865  3577 net.cpp:367] M2PELU54 -> Convolution56 (in-place)
I0927 19:02:46.574968  3577 net.cpp:122] Setting up M2PELU54
I0927 19:02:46.574973  3577 net.cpp:129] Top shape: 100 64 8 8 (409600)
I0927 19:02:46.574975  3577 net.cpp:137] Memory required for data: 1179239600
I0927 19:02:46.574980  3577 layer_factory.hpp:77] Creating layer Convolution57
I0927 19:02:46.574986  3577 net.cpp:84] Creating Layer Convolution57
I0927 19:02:46.574990  3577 net.cpp:406] Convolution57 <- Convolution56
I0927 19:02:46.574995  3577 net.cpp:380] Convolution57 -> Convolution57
I0927 19:02:46.577142  3577 net.cpp:122] Setting up Convolution57
I0927 19:02:46.577150  3577 net.cpp:129] Top shape: 100 64 8 8 (409600)
I0927 19:02:46.577153  3577 net.cpp:137] Memory required for data: 1180878000
I0927 19:02:46.577158  3577 layer_factory.hpp:77] Creating layer BatchNorm57
I0927 19:02:46.577164  3577 net.cpp:84] Creating Layer BatchNorm57
I0927 19:02:46.577168  3577 net.cpp:406] BatchNorm57 <- Convolution57
I0927 19:02:46.577172  3577 net.cpp:367] BatchNorm57 -> Convolution57 (in-place)
I0927 19:02:46.577318  3577 net.cpp:122] Setting up BatchNorm57
I0927 19:02:46.577323  3577 net.cpp:129] Top shape: 100 64 8 8 (409600)
I0927 19:02:46.577325  3577 net.cpp:137] Memory required for data: 1182516400
I0927 19:02:46.577337  3577 layer_factory.hpp:77] Creating layer Scale57
I0927 19:02:46.577343  3577 net.cpp:84] Creating Layer Scale57
I0927 19:02:46.577347  3577 net.cpp:406] Scale57 <- Convolution57
I0927 19:02:46.577350  3577 net.cpp:367] Scale57 -> Convolution57 (in-place)
I0927 19:02:46.577380  3577 layer_factory.hpp:77] Creating layer Scale57
I0927 19:02:46.577464  3577 net.cpp:122] Setting up Scale57
I0927 19:02:46.577469  3577 net.cpp:129] Top shape: 100 64 8 8 (409600)
I0927 19:02:46.577471  3577 net.cpp:137] Memory required for data: 1184154800
I0927 19:02:46.577474  3577 layer_factory.hpp:77] Creating layer Eltwise27
I0927 19:02:46.577479  3577 net.cpp:84] Creating Layer Eltwise27
I0927 19:02:46.577482  3577 net.cpp:406] Eltwise27 <- Eltwise26_M2PELU53_0_split_1
I0927 19:02:46.577486  3577 net.cpp:406] Eltwise27 <- Convolution57
I0927 19:02:46.577489  3577 net.cpp:380] Eltwise27 -> Eltwise27
I0927 19:02:46.577507  3577 net.cpp:122] Setting up Eltwise27
I0927 19:02:46.577510  3577 net.cpp:129] Top shape: 100 64 8 8 (409600)
I0927 19:02:46.577512  3577 net.cpp:137] Memory required for data: 1185793200
I0927 19:02:46.577514  3577 layer_factory.hpp:77] Creating layer M2PELU55
I0927 19:02:46.577520  3577 net.cpp:84] Creating Layer M2PELU55
I0927 19:02:46.577522  3577 net.cpp:406] M2PELU55 <- Eltwise27
I0927 19:02:46.577525  3577 net.cpp:367] M2PELU55 -> Eltwise27 (in-place)
I0927 19:02:46.577622  3577 net.cpp:122] Setting up M2PELU55
I0927 19:02:46.577627  3577 net.cpp:129] Top shape: 100 64 8 8 (409600)
I0927 19:02:46.577630  3577 net.cpp:137] Memory required for data: 1187431600
I0927 19:02:46.577633  3577 layer_factory.hpp:77] Creating layer Pooling1
I0927 19:02:46.577637  3577 net.cpp:84] Creating Layer Pooling1
I0927 19:02:46.577639  3577 net.cpp:406] Pooling1 <- Eltwise27
I0927 19:02:46.577643  3577 net.cpp:380] Pooling1 -> Pooling1
I0927 19:02:46.578306  3577 net.cpp:122] Setting up Pooling1
I0927 19:02:46.578315  3577 net.cpp:129] Top shape: 100 64 1 1 (6400)
I0927 19:02:46.578318  3577 net.cpp:137] Memory required for data: 1187457200
I0927 19:02:46.578320  3577 layer_factory.hpp:77] Creating layer InnerProduct1
I0927 19:02:46.578327  3577 net.cpp:84] Creating Layer InnerProduct1
I0927 19:02:46.578330  3577 net.cpp:406] InnerProduct1 <- Pooling1
I0927 19:02:46.578333  3577 net.cpp:380] InnerProduct1 -> InnerProduct1
I0927 19:02:46.578459  3577 net.cpp:122] Setting up InnerProduct1
I0927 19:02:46.578464  3577 net.cpp:129] Top shape: 100 10 (1000)
I0927 19:02:46.578465  3577 net.cpp:137] Memory required for data: 1187461200
I0927 19:02:46.578478  3577 layer_factory.hpp:77] Creating layer InnerProduct1_InnerProduct1_0_split
I0927 19:02:46.578482  3577 net.cpp:84] Creating Layer InnerProduct1_InnerProduct1_0_split
I0927 19:02:46.578485  3577 net.cpp:406] InnerProduct1_InnerProduct1_0_split <- InnerProduct1
I0927 19:02:46.578488  3577 net.cpp:380] InnerProduct1_InnerProduct1_0_split -> InnerProduct1_InnerProduct1_0_split_0
I0927 19:02:46.578493  3577 net.cpp:380] InnerProduct1_InnerProduct1_0_split -> InnerProduct1_InnerProduct1_0_split_1
I0927 19:02:46.578543  3577 net.cpp:122] Setting up InnerProduct1_InnerProduct1_0_split
I0927 19:02:46.578552  3577 net.cpp:129] Top shape: 100 10 (1000)
I0927 19:02:46.578557  3577 net.cpp:129] Top shape: 100 10 (1000)
I0927 19:02:46.578569  3577 net.cpp:137] Memory required for data: 1187469200
I0927 19:02:46.578573  3577 layer_factory.hpp:77] Creating layer SoftmaxWithLoss1
I0927 19:02:46.578578  3577 net.cpp:84] Creating Layer SoftmaxWithLoss1
I0927 19:02:46.578582  3577 net.cpp:406] SoftmaxWithLoss1 <- InnerProduct1_InnerProduct1_0_split_0
I0927 19:02:46.578586  3577 net.cpp:406] SoftmaxWithLoss1 <- Data2_Data1_1_split_0
…
