…
I0925 20:26:02.325660  3547 net.cpp:294] The NetState phase (0) differed from the phase (1) specified by a rule in layer Accuracy1
I0925 20:26:02.326486  3547 net.cpp:51] Initializing net from parameters: 
name: "resnet_cifar10"
state {
  phase: TRAIN
  level: 0
  stage: ""
}
layer {
  name: "Data1"
  type: "Data"
  top: "Data1"
  top: "Data2"
  include {
    phase: TRAIN
  }
  transform_param {
    mirror: true
    crop_size: 28
    mean_file: "/home/x306/caffe/xn/PENLU/data/cifar10/mean.binaryproto"
  }
  data_param {
    source: "/home/x306/caffe/xn/PENLU/data/cifar10/cifar10_train_lmdb"
    batch_size: 100
    backend: LMDB
  }
}
layer {
  name: "Convolution1"
  type: "Convolution"
  bottom: "Data1"
  top: "Convolution1"
  param {
    lr_mult: 1
    decay_mult: 1
  }
  param {
    lr_mult: 2
    decay_mult: 0
  }
  convolution_param {
    num_output: 16
    pad: 1
    kernel_size: 3
    stride: 1
    weight_filler {
      type: "gaussian"
      std: 0.118
    }
    bias_filler {
      type: "constant"
      value: 0
    }
  }
}
layer {
  name: "BatchNorm1"
  type: "BatchNorm"
  bottom: "Convolution1"
  top: "Convolution1"
  param {
    lr_mult: 0
    decay_mult: 0
  }
  param {
    lr_mult: 0
    decay_mult: 0
  }
  param {
    lr_mult: 0
    decay_mult: 0
  }
}
layer {
  name: "Scale1"
  type: "Scale"
  bottom: "Convolution1"
  top: "Convolution1"
  scale_param {
    bias_term: true
  }
}
layer {
  name: "PReLU1"
  type: "PReLU"
  bottom: "Convolution1"
  top: "Convolution1"
}
layer {
  name: "Convolution2"
  type: "Convolution"
  bottom: "Convolution1"
  top: "Convolution2"
  param {
    lr_mult: 1
    decay_mult: 1
  }
  param {
    lr_mult: 2
    decay_mult: 0
  }
  convolution_param {
    num_output: 16
    pad: 1
    kernel_size: 3
    stride: 1
    weight_filler {
      type: "gaussian"
      std: 0.118
    }
    bias_filler {
      type: "constant"
      value: 0
    }
  }
}
layer {
  name: "BatchNorm2"
  type: "BatchNorm"
  bottom: "Convolution2"
  top: "Convolution2"
  param {
    lr_mult: 0
    decay_mult: 0
  }
  param {
    lr_mult: 0
    decay_mult: 0
  }
  param {
    lr_mult: 0
    decay_mult: 0
  }
}
layer {
  name: "Scale2"
  type: "Scale"
  bottom: "Convolution2"
  top: "Convolution2"
  scale_param {
    bias_term: true
  }
}
layer {
  name: "PReLU2"
  type: "PReLU"
  bottom: "Convolution2"
  top: "Convolution2"
}
layer {
  name: "Convolution3"
  type: "Convolution"
  bottom: "Convolution2"
  top: "Convolution3"
  param {
    lr_mult: 1
    decay_mult: 1
  }
  param {
    lr_mult: 2
    decay_mult: 0
  }
  convolution_param {
    num_output: 16
    pad: 1
    kernel_size: 3
    stride: 1
    weight_filler {
      type: "gaussian"
      std: 0.118
    }
    bias_filler {
      type: "constant"
      value: 0
    }
  }
}
layer {
  name: "BatchNorm3"
  type: "BatchNorm"
  bottom: "Convolution3"
  top: "Convolution3"
  param {
    lr_mult: 0
    decay_mult: 0
  }
  param {
    lr_mult: 0
    decay_mult: 0
  }
  param {
    lr_mult: 0
    decay_mult: 0
  }
}
layer {
  name: "Scale3"
  type: "Scale"
  bottom: "Convolution3"
  top: "Convolution3"
  scale_param {
    bias_term: true
  }
}
layer {
  name: "Eltwise1"
  type: "Eltwise"
  bottom: "Convolution1"
  bottom: "Convolution3"
  top: "Eltwise1"
  eltwise_param {
    operation: SUM
  }
}
layer {
  name: "PReLU3"
  type: "PReLU"
  bottom: "Eltwise1"
  top: "Eltwise1"
}
layer {
  name: "Convolution4"
  type: "Convolution"
  bottom: "Eltwise1"
  top: "Convolution4"
  param {
    lr_mult: 1
    decay_mult: 1
  }
  param {
    lr_mult: 2
    decay_mult: 0
  }
  convolution_param {
    num_output: 16
    pad: 1
    kernel_size: 3
    stride: 1
    weight_filler {
      type: "gaussian"
      std: 0.118
    }
    bias_filler {
      type: "constant"
      value: 0
    }
  }
}
layer {
  name: "BatchNorm4"
  type: "BatchNorm"
  bottom: "Convolution4"
  top: "Convolution4"
  param {
    lr_mult: 0
    decay_mult: 0
  }
  param {
    lr_mult: 0
    decay_mult: 0
  }
  param {
    lr_mult: 0
    decay_mult: 0
  }
}
layer {
  name: "Scale4"
  type: "Scale"
  bottom: "Convolution4"
  top: "Convolution4"
  scale_param {
    bias_term: true
  }
}
layer {
  name: "PReLU4"
  type: "PReLU"
  bottom: "Convolution4"
  top: "Convolution4"
}
layer {
  name: "Convolution5"
  type: "Convolution"
  bottom: "Convolution4"
  top: "Convolution5"
  param {
    lr_mult: 1
    decay_mult: 1
  }
  param {
    lr_mult: 2
    decay_mult: 0
  }
  convolution_param {
    num_output: 16
    pad: 1
    kernel_size: 3
    stride: 1
    weight_filler {
      type: "gaussian"
      std: 0.118
    }
    bias_filler {
      type: "constant"
      value: 0
    }
  }
}
layer {
  name: "BatchNorm5"
  type: "BatchNorm"
  bottom: "Convolution5"
  top: "Convolution5"
  param {
    lr_mult: 0
    decay_mult: 0
  }
  param {
    lr_mult: 0
    decay_mult: 0
  }
  param {
    lr_mult: 0
    decay_mult: 0
  }
}
layer {
  name: "Scale5"
  type: "Scale"
  bottom: "Convolution5"
  top: "Convolution5"
  scale_param {
    bias_term: true
  }
}
layer {
  name: "Eltwise2"
  type: "Eltwise"
  bottom: "Eltwise1"
  bottom: "Convolution5"
  top: "Eltwise2"
  eltwise_param {
    operation: SUM
  }
}
layer {
  name: "PReLU5"
  type: "PReLU"
  bottom: "Eltwise2"
  top: "Eltwise2"
}
layer {
  name: "Convolution6"
  type: "Convolution"
  bottom: "Eltwise2"
  top: "Convolution6"
  param {
    lr_mult: 1
    decay_mult: 1
  }
  param {
    lr_mult: 2
    decay_mult: 0
  }
  convolution_param {
    num_output: 16
    pad: 1
    kernel_size: 3
    stride: 1
    weight_filler {
      type: "gaussian"
      std: 0.118
    }
    bias_filler {
      type: "constant"
      value: 0
    }
  }
}
layer {
  name: "BatchNorm6"
  type: "BatchNorm"
  bottom: "Convolution6"
  top: "Convolution6"
  param {
    lr_mult: 0
    decay_mult: 0
  }
  param {
    lr_mult: 0
    decay_mult: 0
  }
  param {
    lr_mult: 0
    decay_mult: 0
  }
}
layer {
  name: "Scale6"
  type: "Scale"
  bottom: "Convolution6"
  top: "Convolution6"
  scale_param {
    bias_term: true
  }
}
layer {
  name: "PReLU6"
  type: "PReLU"
  bottom: "Convolution6"
  top: "Convolution6"
}
layer {
  name: "Convolution7"
  type: "Convolution"
  bottom: "Convolution6"
  top: "Convolution7"
  param {
    lr_mult: 1
    decay_mult: 1
  }
  param {
    lr_mult: 2
    decay_mult: 0
  }
  convolution_param {
    num_output: 16
    pad: 1
    kernel_size: 3
    stride: 1
    weight_filler {
      type: "gaussian"
      std: 0.118
    }
    bias_filler {
      type: "constant"
      value: 0
    }
  }
}
layer {
  name: "BatchNorm7"
  type: "BatchNorm"
  bottom: "Convolution7"
  top: "Convolution7"
  param {
    lr_mult: 0
    decay_mult: 0
  }
  param {
    lr_mult: 0
    decay_mult: 0
  }
  param {
    lr_mult: 0
    decay_mult: 0
  }
}
layer {
  name: "Scale7"
  type: "Scale"
  bottom: "Convolution7"
  top: "Convolution7"
  scale_param {
    bias_term: true
  }
}
layer {
  name: "Eltwise3"
  type: "Eltwise"
  bottom: "Eltwise2"
  bottom: "Convolution7"
  top: "Eltwise3"
  eltwise_param {
    operation: SUM
  }
}
layer {
  name: "PReLU7"
  type: "PReLU"
  bottom: "Eltwise3"
  top: "Eltwise3"
}
layer {
  name: "Convolution8"
  type: "Convolution"
  bottom: "Eltwise3"
  top: "Convolution8"
  param {
    lr_mult: 1
    decay_mult: 1
  }
  param {
    lr_mult: 2
    decay_mult: 0
  }
  convolution_param {
    num_output: 16
    pad: 1
    kernel_size: 3
    stride: 1
    weight_filler {
      type: "gaussian"
      std: 0.118
    }
    bias_filler {
      type: "constant"
      value: 0
    }
  }
}
layer {
  name: "BatchNorm8"
  type: "BatchNorm"
  bottom: "Convolution8"
  top: "Convolution8"
  param {
    lr_mult: 0
    decay_mult: 0
  }
  param {
    lr_mult: 0
    decay_mult: 0
  }
  param {
    lr_mult: 0
    decay_mult: 0
  }
}
layer {
  name: "Scale8"
  type: "Scale"
  bottom: "Convolution8"
  top: "Convolution8"
  scale_param {
    bias_term: true
  }
}
layer {
  name: "PReLU8"
  type: "PReLU"
  bottom: "Convolution8"
  top: "Convolution8"
}
layer {
  name: "Convolution9"
  type: "Convolution"
  bottom: "Convolution8"
  top: "Convolution9"
  param {
    lr_mult: 1
    decay_mult: 1
  }
  param {
    lr_mult: 2
    decay_mult: 0
  }
  convolution_param {
    num_output: 16
    pad: 1
    kernel_size: 3
    stride: 1
    weight_filler {
      type: "gaussian"
      std: 0.118
    }
    bias_filler {
      type: "constant"
      value: 0
    }
  }
}
layer {
  name: "BatchNorm9"
  type: "BatchNorm"
  bottom: "Convolution9"
  top: "Convolution9"
  param {
    lr_mult: 0
    decay_mult: 0
  }
  param {
    lr_mult: 0
    decay_mult: 0
  }
  param {
    lr_mult: 0
    decay_mult: 0
  }
}
layer {
  name: "Scale9"
  type: "Scale"
  bottom: "Convolution9"
  top: "Convolution9"
  scale_param {
    bias_term: true
  }
}
layer {
  name: "Eltwise4"
  type: "Eltwise"
  bottom: "Eltwise3"
  bottom: "Convolution9"
  top: "Eltwise4"
  eltwise_param {
    operation: SUM
  }
}
layer {
  name: "PReLU9"
  type: "PReLU"
  bottom: "Eltwise4"
  top: "Eltwise4"
}
layer {
  name: "Convolution10"
  type: "Convolution"
  bottom: "Eltwise4"
  top: "Convolution10"
  param {
    lr_mult: 1
    decay_mult: 1
  }
  param {
    lr_mult: 2
    decay_mult: 0
  }
  convolution_param {
    num_output: 16
    pad: 1
    kernel_size: 3
    stride: 1
    weight_filler {
      type: "gaussian"
      std: 0.118
    }
    bias_filler {
      type: "constant"
      value: 0
    }
  }
}
layer {
  name: "BatchNorm10"
  type: "BatchNorm"
  bottom: "Convolution10"
  top: "Convolution10"
  param {
    lr_mult: 0
    decay_mult: 0
  }
  param {
    lr_mult: 0
    decay_mult: 0
  }
  param {
    lr_mult: 0
    decay_mult: 0
  }
}
layer {
  name: "Scale10"
  type: "Scale"
  bottom: "Convolution10"
  top: "Convolution10"
  scale_param {
    bias_term: true
  }
}
layer {
  name: "PReLU10"
  type: "PReLU"
  bottom: "Convolution10"
  top: "Convolution10"
}
layer {
  name: "Convolution11"
  type: "Convolution"
  bottom: "Convolution10"
  top: "Convolution11"
  param {
    lr_mult: 1
    decay_mult: 1
  }
  param {
    lr_mult: 2
    decay_mult: 0
  }
  convolution_param {
    num_output: 16
    pad: 1
    kernel_size: 3
    stride: 1
    weight_filler {
      type: "gaussian"
      std: 0.118
    }
    bias_filler {
      type: "constant"
      value: 0
    }
  }
}
layer {
  name: "BatchNorm11"
  type: "BatchNorm"
  bottom: "Convolution11"
  top: "Convolution11"
  param {
    lr_mult: 0
    decay_mult: 0
  }
  param {
    lr_mult: 0
    decay_mult: 0
  }
  param {
    lr_mult: 0
    decay_mult: 0
  }
}
layer {
  name: "Scale11"
  type: "Scale"
  bottom: "Convolution11"
  top: "Convolution11"
  scale_param {
    bias_term: true
  }
}
layer {
  name: "Eltwise5"
  type: "Eltwise"
  bottom: "Eltwise4"
  bottom: "Convolution11"
  top: "Eltwise5"
  eltwise_param {
    operation: SUM
  }
}
layer {
  name: "PReLU11"
  type: "PReLU"
  bottom: "Eltwise5"
  top: "Eltwise5"
}
layer {
  name: "Convolution12"
  type: "Convolution"
  bottom: "Eltwise5"
  top: "Convolution12"
  param {
    lr_mult: 1
    decay_mult: 1
  }
  param {
    lr_mult: 2
    decay_mult: 0
  }
  convolution_param {
    num_output: 16
    pad: 1
    kernel_size: 3
    stride: 1
    weight_filler {
      type: "gaussian"
      std: 0.118
    }
    bias_filler {
      type: "constant"
      value: 0
    }
  }
}
layer {
  name: "BatchNorm12"
  type: "BatchNorm"
  bottom: "Convolution12"
  top: "Convolution12"
  param {
    lr_mult: 0
    decay_mult: 0
  }
  param {
    lr_mult: 0
    decay_mult: 0
  }
  param {
    lr_mult: 0
    decay_mult: 0
  }
}
layer {
  name: "Scale12"
  type: "Scale"
  bottom: "Convolution12"
  top: "Convolution12"
  scale_param {
    bias_term: true
  }
}
layer {
  name: "PReLU12"
  type: "PReLU"
  bottom: "Convolution12"
  top: "Convolution12"
}
layer {
  name: "Convolution13"
  type: "Convolution"
  bottom: "Convolution12"
  top: "Convolution13"
  param {
    lr_mult: 1
    decay_mult: 1
  }
  param {
    lr_mult: 2
    decay_mult: 0
  }
  convolution_param {
    num_output: 16
    pad: 1
    kernel_size: 3
    stride: 1
    weight_filler {
      type: "gaussian"
      std: 0.118
    }
    bias_filler {
      type: "constant"
      value: 0
    }
  }
}
layer {
  name: "BatchNorm13"
  type: "BatchNorm"
  bottom: "Convolution13"
  top: "Convolution13"
  param {
    lr_mult: 0
    decay_mult: 0
  }
  param {
    lr_mult: 0
    decay_mult: 0
  }
  param {
    lr_mult: 0
    decay_mult: 0
  }
}
layer {
  name: "Scale13"
  type: "Scale"
  bottom: "Convolution13"
  top: "Convolution13"
  scale_param {
    bias_term: true
  }
}
layer {
  name: "Eltwise6"
  type: "Eltwise"
  bottom: "Eltwise5"
  bottom: "Convolution13"
  top: "Eltwise6"
  eltwise_param {
    operation: SUM
  }
}
layer {
  name: "PReLU13"
  type: "PReLU"
  bottom: "Eltwise6"
  top: "Eltwise6"
}
layer {
  name: "Convolution14"
  type: "Convolution"
  bottom: "Eltwise6"
  top: "Convolution14"
  param {
    lr_mult: 1
    decay_mult: 1
  }
  param {
    lr_mult: 2
    decay_mult: 0
  }
  convolution_param {
    num_output: 16
    pad: 1
    kernel_size: 3
    stride: 1
    weight_filler {
      type: "gaussian"
      std: 0.118
    }
    bias_filler {
      type: "constant"
      value: 0
    }
  }
}
layer {
  name: "BatchNorm14"
  type: "BatchNorm"
  bottom: "Convolution14"
  top: "Convolution14"
  param {
    lr_mult: 0
    decay_mult: 0
  }
  param {
    lr_mult: 0
    decay_mult: 0
  }
  param {
    lr_mult: 0
    decay_mult: 0
  }
}
layer {
  name: "Scale14"
  type: "Scale"
  bottom: "Convolution14"
  top: "Convolution14"
  scale_param {
    bias_term: true
  }
}
layer {
  name: "PReLU14"
  type: "PReLU"
  bottom: "Convolution14"
  top: "Convolution14"
}
layer {
  name: "Convolution15"
  type: "Convolution"
  bottom: "Convolution14"
  top: "Convolution15"
  param {
    lr_mult: 1
    decay_mult: 1
  }
  param {
    lr_mult: 2
    decay_mult: 0
  }
  convolution_param {
    num_output: 16
    pad: 1
    kernel_size: 3
    stride: 1
    weight_filler {
      type: "gaussian"
      std: 0.118
    }
    bias_filler {
      type: "constant"
      value: 0
    }
  }
}
layer {
  name: "BatchNorm15"
  type: "BatchNorm"
  bottom: "Convolution15"
  top: "Convolution15"
  param {
    lr_mult: 0
    decay_mult: 0
  }
  param {
    lr_mult: 0
    decay_mult: 0
  }
  param {
    lr_mult: 0
    decay_mult: 0
  }
}
layer {
  name: "Scale15"
  type: "Scale"
  bottom: "Convolution15"
  top: "Convolution15"
  scale_param {
    bias_term: true
  }
}
layer {
  name: "Eltwise7"
  type: "Eltwise"
  bottom: "Eltwise6"
  bottom: "Convolution15"
  top: "Eltwise7"
  eltwise_param {
    operation: SUM
  }
}
layer {
  name: "PReLU15"
  type: "PReLU"
  bottom: "Eltwise7"
  top: "Eltwise7"
}
layer {
  name: "Convolution16"
  type: "Convolution"
  bottom: "Eltwise7"
  top: "Convolution16"
  param {
    lr_mult: 1
    decay_mult: 1
  }
  param {
    lr_mult: 2
    decay_mult: 0
  }
  convolution_param {
    num_output: 16
    pad: 1
    kernel_size: 3
    stride: 1
    weight_filler {
      type: "gaussian"
      std: 0.118
    }
    bias_filler {
      type: "constant"
      value: 0
    }
  }
}
layer {
  name: "BatchNorm16"
  type: "BatchNorm"
  bottom: "Convolution16"
  top: "Convolution16"
  param {
    lr_mult: 0
    decay_mult: 0
  }
  param {
    lr_mult: 0
    decay_mult: 0
  }
  param {
    lr_mult: 0
    decay_mult: 0
  }
}
layer {
  name: "Scale16"
  type: "Scale"
  bottom: "Convolution16"
  top: "Convolution16"
  scale_param {
    bias_term: true
  }
}
layer {
  name: "PReLU16"
  type: "PReLU"
  bottom: "Convolution16"
  top: "Convolution16"
}
layer {
  name: "Convolution17"
  type: "Convolution"
  bottom: "Convolution16"
  top: "Convolution17"
  param {
    lr_mult: 1
    decay_mult: 1
  }
  param {
    lr_mult: 2
    decay_mult: 0
  }
  convolution_param {
    num_output: 16
    pad: 1
    kernel_size: 3
    stride: 1
    weight_filler {
      type: "gaussian"
      std: 0.118
    }
    bias_filler {
      type: "constant"
      value: 0
    }
  }
}
layer {
  name: "BatchNorm17"
  type: "BatchNorm"
  bottom: "Convolution17"
  top: "Convolution17"
  param {
    lr_mult: 0
    decay_mult: 0
  }
  param {
    lr_mult: 0
    decay_mult: 0
  }
  param {
    lr_mult: 0
    decay_mult: 0
  }
}
layer {
  name: "Scale17"
  type: "Scale"
  bottom: "Convolution17"
  top: "Convolution17"
  scale_param {
    bias_term: true
  }
}
layer {
  name: "Eltwise8"
  type: "Eltwise"
  bottom: "Eltwise7"
  bottom: "Convolution17"
  top: "Eltwise8"
  eltwise_param {
    operation: SUM
  }
}
layer {
  name: "PReLU17"
  type: "PReLU"
  bottom: "Eltwise8"
  top: "Eltwise8"
}
layer {
  name: "Convolution18"
  type: "Convolution"
  bottom: "Eltwise8"
  top: "Convolution18"
  param {
    lr_mult: 1
    decay_mult: 1
  }
  param {
    lr_mult: 2
    decay_mult: 0
  }
  convolution_param {
    num_output: 16
    pad: 1
    kernel_size: 3
    stride: 1
    weight_filler {
      type: "gaussian"
      std: 0.118
    }
    bias_filler {
      type: "constant"
      value: 0
    }
  }
}
layer {
  name: "BatchNorm18"
  type: "BatchNorm"
  bottom: "Convolution18"
  top: "Convolution18"
  param {
    lr_mult: 0
    decay_mult: 0
  }
  param {
    lr_mult: 0
    decay_mult: 0
  }
  param {
    lr_mult: 0
    decay_mult: 0
  }
}
layer {
  name: "Scale18"
  type: "Scale"
  bottom: "Convolution18"
  top: "Convolution18"
  scale_param {
    bias_term: true
  }
}
layer {
  name: "PReLU18"
  type: "PReLU"
  bottom: "Convolution18"
  top: "Convolution18"
}
layer {
  name: "Convolution19"
  type: "Convolution"
  bottom: "Convolution18"
  top: "Convolution19"
  param {
    lr_mult: 1
    decay_mult: 1
  }
  param {
    lr_mult: 2
    decay_mult: 0
  }
  convolution_param {
    num_output: 16
    pad: 1
    kernel_size: 3
    stride: 1
    weight_filler {
      type: "gaussian"
      std: 0.118
    }
    bias_filler {
      type: "constant"
      value: 0
    }
  }
}
layer {
  name: "BatchNorm19"
  type: "BatchNorm"
  bottom: "Convolution19"
  top: "Convolution19"
  param {
    lr_mult: 0
    decay_mult: 0
  }
  param {
    lr_mult: 0
    decay_mult: 0
  }
  param {
    lr_mult: 0
    decay_mult: 0
  }
}
layer {
  name: "Scale19"
  type: "Scale"
  bottom: "Convolution19"
  top: "Convolution19"
  scale_param {
    bias_term: true
  }
}
layer {
  name: "Eltwise9"
  type: "Eltwise"
  bottom: "Eltwise8"
  bottom: "Convolution19"
  top: "Eltwise9"
  eltwise_param {
    operation: SUM
  }
}
layer {
  name: "PReLU19"
  type: "PReLU"
  bottom: "Eltwise9"
  top: "Eltwise9"
}
layer {
  name: "Convolution20"
  type: "Convolution"
  bottom: "Eltwise9"
  top: "Convolution20"
  param {
    lr_mult: 1
    decay_mult: 1
  }
  param {
    lr_mult: 2
    decay_mult: 0
  }
  convolution_param {
    num_output: 32
    pad: 0
    kernel_size: 1
    stride: 2
    weight_filler {
      type: "gaussian"
      std: 0.25
    }
    bias_filler {
      type: "constant"
      value: 0
    }
  }
}
layer {
  name: "BatchNorm20"
  type: "BatchNorm"
  bottom: "Convolution20"
  top: "Convolution20"
  param {
    lr_mult: 0
    decay_mult: 0
  }
  param {
    lr_mult: 0
    decay_mult: 0
  }
  param {
    lr_mult: 0
    decay_mult: 0
  }
}
layer {
  name: "Scale20"
  type: "Scale"
  bottom: "Convolution20"
  top: "Convolution20"
  scale_param {
    bias_term: true
  }
}
layer {
  name: "Convolution21"
  type: "Convolution"
  bottom: "Eltwise9"
  top: "Convolution21"
  param {
    lr_mult: 1
    decay_mult: 1
  }
  param {
    lr_mult: 2
    decay_mult: 0
  }
  convolution_param {
    num_output: 32
    pad: 1
    kernel_size: 3
    stride: 2
    weight_filler {
      type: "gaussian"
      std: 0.083
    }
    bias_filler {
      type: "constant"
      value: 0
    }
  }
}
layer {
  name: "BatchNorm21"
  type: "BatchNorm"
  bottom: "Convolution21"
  top: "Convolution21"
  param {
    lr_mult: 0
    decay_mult: 0
  }
  param {
    lr_mult: 0
    decay_mult: 0
  }
  param {
    lr_mult: 0
    decay_mult: 0
  }
}
layer {
  name: "Scale21"
  type: "Scale"
  bottom: "Convolution21"
  top: "Convolution21"
  scale_param {
    bias_term: true
  }
}
layer {
  name: "PReLU20"
  type: "PReLU"
  bottom: "Convolution21"
  top: "Convolution21"
}
layer {
  name: "Convolution22"
  type: "Convolution"
  bottom: "Convolution21"
  top: "Convolution22"
  param {
    lr_mult: 1
    decay_mult: 1
  }
  param {
    lr_mult: 2
    decay_mult: 0
  }
  convolution_param {
    num_output: 32
    pad: 1
    kernel_size: 3
    stride: 1
    weight_filler {
      type: "gaussian"
      std: 0.083
    }
    bias_filler {
      type: "constant"
      value: 0
    }
  }
}
layer {
  name: "BatchNorm22"
  type: "BatchNorm"
  bottom: "Convolution22"
  top: "Convolution22"
  param {
    lr_mult: 0
    decay_mult: 0
  }
  param {
    lr_mult: 0
    decay_mult: 0
  }
  param {
    lr_mult: 0
    decay_mult: 0
  }
}
layer {
  name: "Scale22"
  type: "Scale"
  bottom: "Convolution22"
  top: "Convolution22"
  scale_param {
    bias_term: true
  }
}
layer {
  name: "Eltwise10"
  type: "Eltwise"
  bottom: "Convolution20"
  bottom: "Convolution22"
  top: "Eltwise10"
  eltwise_param {
    operation: SUM
  }
}
layer {
  name: "PReLU21"
  type: "PReLU"
  bottom: "Eltwise10"
  top: "Eltwise10"
}
layer {
  name: "Convolution23"
  type: "Convolution"
  bottom: "Eltwise10"
  top: "Convolution23"
  param {
    lr_mult: 1
    decay_mult: 1
  }
  param {
    lr_mult: 2
    decay_mult: 0
  }
  convolution_param {
    num_output: 32
    pad: 1
    kernel_size: 3
    stride: 1
    weight_filler {
      type: "gaussian"
      std: 0.083
    }
    bias_filler {
      type: "constant"
      value: 0
    }
  }
}
layer {
  name: "BatchNorm23"
  type: "BatchNorm"
  bottom: "Convolution23"
  top: "Convolution23"
  param {
    lr_mult: 0
    decay_mult: 0
  }
  param {
    lr_mult: 0
    decay_mult: 0
  }
  param {
    lr_mult: 0
    decay_mult: 0
  }
}
layer {
  name: "Scale23"
  type: "Scale"
  bottom: "Convolution23"
  top: "Convolution23"
  scale_param {
    bias_term: true
  }
}
layer {
  name: "PReLU22"
  type: "PReLU"
  bottom: "Convolution23"
  top: "Convolution23"
}
layer {
  name: "Convolution24"
  type: "Convolution"
  bottom: "Convolution23"
  top: "Convolution24"
  param {
    lr_mult: 1
    decay_mult: 1
  }
  param {
    lr_mult: 2
    decay_mult: 0
  }
  convolution_param {
    num_output: 32
    pad: 1
    kernel_size: 3
    stride: 1
    weight_filler {
      type: "gaussian"
      std: 0.083
    }
    bias_filler {
      type: "constant"
      value: 0
    }
  }
}
layer {
  name: "BatchNorm24"
  type: "BatchNorm"
  bottom: "Convolution24"
  top: "Convolution24"
  param {
    lr_mult: 0
    decay_mult: 0
  }
  param {
    lr_mult: 0
    decay_mult: 0
  }
  param {
    lr_mult: 0
    decay_mult: 0
  }
}
layer {
  name: "Scale24"
  type: "Scale"
  bottom: "Convolution24"
  top: "Convolution24"
  scale_param {
    bias_term: true
  }
}
layer {
  name: "Eltwise11"
  type: "Eltwise"
  bottom: "Eltwise10"
  bottom: "Convolution24"
  top: "Eltwise11"
  eltwise_param {
    operation: SUM
  }
}
layer {
  name: "PReLU23"
  type: "PReLU"
  bottom: "Eltwise11"
  top: "Eltwise11"
}
layer {
  name: "Convolution25"
  type: "Convolution"
  bottom: "Eltwise11"
  top: "Convolution25"
  param {
    lr_mult: 1
    decay_mult: 1
  }
  param {
    lr_mult: 2
    decay_mult: 0
  }
  convolution_param {
    num_output: 32
    pad: 1
    kernel_size: 3
    stride: 1
    weight_filler {
      type: "gaussian"
      std: 0.083
    }
    bias_filler {
      type: "constant"
      value: 0
    }
  }
}
layer {
  name: "BatchNorm25"
  type: "BatchNorm"
  bottom: "Convolution25"
  top: "Convolution25"
  param {
    lr_mult: 0
    decay_mult: 0
  }
  param {
    lr_mult: 0
    decay_mult: 0
  }
  param {
    lr_mult: 0
    decay_mult: 0
  }
}
layer {
  name: "Scale25"
  type: "Scale"
  bottom: "Convolution25"
  top: "Convolution25"
  scale_param {
    bias_term: true
  }
}
layer {
  name: "PReLU24"
  type: "PReLU"
  bottom: "Convolution25"
  top: "Convolution25"
}
layer {
  name: "Convolution26"
  type: "Convolution"
  bottom: "Convolution25"
  top: "Convolution26"
  param {
    lr_mult: 1
    decay_mult: 1
  }
  param {
    lr_mult: 2
    decay_mult: 0
  }
  convolution_param {
    num_output: 32
    pad: 1
    kernel_size: 3
    stride: 1
    weight_filler {
      type: "gaussian"
      std: 0.083
    }
    bias_filler {
      type: "constant"
      value: 0
    }
  }
}
layer {
  name: "BatchNorm26"
  type: "BatchNorm"
  bottom: "Convolution26"
  top: "Convolution26"
  param {
    lr_mult: 0
    decay_mult: 0
  }
  param {
    lr_mult: 0
    decay_mult: 0
  }
  param {
    lr_mult: 0
    decay_mult: 0
  }
}
layer {
  name: "Scale26"
  type: "Scale"
  bottom: "Convolution26"
  top: "Convolution26"
  scale_param {
    bias_term: true
  }
}
layer {
  name: "Eltwise12"
  type: "Eltwise"
  bottom: "Eltwise11"
  bottom: "Convolution26"
  top: "Eltwise12"
  eltwise_param {
    operation: SUM
  }
}
layer {
  name: "PReLU25"
  type: "PReLU"
  bottom: "Eltwise12"
  top: "Eltwise12"
}
layer {
  name: "Convolution27"
  type: "Convolution"
  bottom: "Eltwise12"
  top: "Convolution27"
  param {
    lr_mult: 1
    decay_mult: 1
  }
  param {
    lr_mult: 2
    decay_mult: 0
  }
  convolution_param {
    num_output: 32
    pad: 1
    kernel_size: 3
    stride: 1
    weight_filler {
      type: "gaussian"
      std: 0.083
    }
    bias_filler {
      type: "constant"
      value: 0
    }
  }
}
layer {
  name: "BatchNorm27"
  type: "BatchNorm"
  bottom: "Convolution27"
  top: "Convolution27"
  param {
    lr_mult: 0
    decay_mult: 0
  }
  param {
    lr_mult: 0
    decay_mult: 0
  }
  param {
    lr_mult: 0
    decay_mult: 0
  }
}
layer {
  name: "Scale27"
  type: "Scale"
  bottom: "Convolution27"
  top: "Convolution27"
  scale_param {
    bias_term: true
  }
}
layer {
  name: "PReLU26"
  type: "PReLU"
  bottom: "Convolution27"
  top: "Convolution27"
}
layer {
  name: "Convolution28"
  type: "Convolution"
  bottom: "Convolution27"
  top: "Convolution28"
  param {
    lr_mult: 1
    decay_mult: 1
  }
  param {
    lr_mult: 2
    decay_mult: 0
  }
  convolution_param {
    num_output: 32
    pad: 1
    kernel_size: 3
    stride: 1
    weight_filler {
      type: "gaussian"
      std: 0.083
    }
    bias_filler {
      type: "constant"
      value: 0
    }
  }
}
layer {
  name: "BatchNorm28"
  type: "BatchNorm"
  bottom: "Convolution28"
  top: "Convolution28"
  param {
    lr_mult: 0
    decay_mult: 0
  }
  param {
    lr_mult: 0
    decay_mult: 0
  }
  param {
    lr_mult: 0
    decay_mult: 0
  }
}
layer {
  name: "Scale28"
  type: "Scale"
  bottom: "Convolution28"
  top: "Convolution28"
  scale_param {
    bias_term: true
  }
}
layer {
  name: "Eltwise13"
  type: "Eltwise"
  bottom: "Eltwise12"
  bottom: "Convolution28"
  top: "Eltwise13"
  eltwise_param {
    operation: SUM
  }
}
layer {
  name: "PReLU27"
  type: "PReLU"
  bottom: "Eltwise13"
  top: "Eltwise13"
}
layer {
  name: "Convolution29"
  type: "Convolution"
  bottom: "Eltwise13"
  top: "Convolution29"
  param {
    lr_mult: 1
    decay_mult: 1
  }
  param {
    lr_mult: 2
    decay_mult: 0
  }
  convolution_param {
    num_output: 32
    pad: 1
    kernel_size: 3
    stride: 1
    weight_filler {
      type: "gaussian"
      std: 0.083
    }
    bias_filler {
      type: "constant"
      value: 0
    }
  }
}
layer {
  name: "BatchNorm29"
  type: "BatchNorm"
  bottom: "Convolution29"
  top: "Convolution29"
  param {
    lr_mult: 0
    decay_mult: 0
  }
  param {
    lr_mult: 0
    decay_mult: 0
  }
  param {
    lr_mult: 0
    decay_mult: 0
  }
}
layer {
  name: "Scale29"
  type: "Scale"
  bottom: "Convolution29"
  top: "Convolution29"
  scale_param {
    bias_term: true
  }
}
layer {
  name: "PReLU28"
  type: "PReLU"
  bottom: "Convolution29"
  top: "Convolution29"
}
layer {
  name: "Convolution30"
  type: "Convolution"
  bottom: "Convolution29"
  top: "Convolution30"
  param {
    lr_mult: 1
    decay_mult: 1
  }
  param {
    lr_mult: 2
    decay_mult: 0
  }
  convolution_param {
    num_output: 32
    pad: 1
    kernel_size: 3
    stride: 1
    weight_filler {
      type: "gaussian"
      std: 0.083
    }
    bias_filler {
      type: "constant"
      value: 0
    }
  }
}
layer {
  name: "BatchNorm30"
  type: "BatchNorm"
  bottom: "Convolution30"
  top: "Convolution30"
  param {
    lr_mult: 0
    decay_mult: 0
  }
  param {
    lr_mult: 0
    decay_mult: 0
  }
  param {
    lr_mult: 0
    decay_mult: 0
  }
}
layer {
  name: "Scale30"
  type: "Scale"
  bottom: "Convolution30"
  top: "Convolution30"
  scale_param {
    bias_term: true
  }
}
layer {
  name: "Eltwise14"
  type: "Eltwise"
  bottom: "Eltwise13"
  bottom: "Convolution30"
  top: "Eltwise14"
  eltwise_param {
    operation: SUM
  }
}
layer {
  name: "PReLU29"
  type: "PReLU"
  bottom: "Eltwise14"
  top: "Eltwise14"
}
layer {
  name: "Convolution31"
  type: "Convolution"
  bottom: "Eltwise14"
  top: "Convolution31"
  param {
    lr_mult: 1
    decay_mult: 1
  }
  param {
    lr_mult: 2
    decay_mult: 0
  }
  convolution_param {
    num_output: 32
    pad: 1
    kernel_size: 3
    stride: 1
    weight_filler {
      type: "gaussian"
      std: 0.083
    }
    bias_filler {
      type: "constant"
      value: 0
    }
  }
}
layer {
  name: "BatchNorm31"
  type: "BatchNorm"
  bottom: "Convolution31"
  top: "Convolution31"
  param {
    lr_mult: 0
    decay_mult: 0
  }
  param {
    lr_mult: 0
    decay_mult: 0
  }
  param {
    lr_mult: 0
    decay_mult: 0
  }
}
layer {
  name: "Scale31"
  type: "Scale"
  bottom: "Convolution31"
  top: "Convolution31"
  scale_param {
    bias_term: true
  }
}
layer {
  name: "PReLU30"
  type: "PReLU"
  bottom: "Convolution31"
  top: "Convolution31"
}
layer {
  name: "Convolution32"
  type: "Convolution"
  bottom: "Convolution31"
  top: "Convolution32"
  param {
    lr_mult: 1
    decay_mult: 1
  }
  param {
    lr_mult: 2
    decay_mult: 0
  }
  convolution_param {
    num_output: 32
    pad: 1
    kernel_size: 3
    stride: 1
    weight_filler {
      type: "gauss
I0925 20:26:02.327365  3547 layer_factory.hpp:77] Creating layer Data1
I0925 20:26:02.327440  3547 db_lmdb.cpp:35] Opened lmdb /home/x306/caffe/xn/PENLU/data/cifar10/cifar10_train_lmdb
I0925 20:26:02.327457  3547 net.cpp:84] Creating Layer Data1
I0925 20:26:02.327463  3547 net.cpp:380] Data1 -> Data1
I0925 20:26:02.327481  3547 net.cpp:380] Data1 -> Data2
I0925 20:26:02.327489  3547 data_transformer.cpp:25] Loading mean file from: /home/x306/caffe/xn/PENLU/data/cifar10/mean.binaryproto
I0925 20:26:02.328908  3547 data_layer.cpp:45] output data size: 100,3,28,28
I0925 20:26:02.331163  3547 net.cpp:122] Setting up Data1
I0925 20:26:02.331177  3547 net.cpp:129] Top shape: 100 3 28 28 (235200)
I0925 20:26:02.331181  3547 net.cpp:129] Top shape: 100 (100)
I0925 20:26:02.331183  3547 net.cpp:137] Memory required for data: 941200
I0925 20:26:02.331190  3547 layer_factory.hpp:77] Creating layer Convolution1
I0925 20:26:02.331208  3547 net.cpp:84] Creating Layer Convolution1
I0925 20:26:02.331212  3547 net.cpp:406] Convolution1 <- Data1
I0925 20:26:02.331220  3547 net.cpp:380] Convolution1 -> Convolution1
I0925 20:26:02.478749  3547 net.cpp:122] Setting up Convolution1
I0925 20:26:02.478775  3547 net.cpp:129] Top shape: 100 16 28 28 (1254400)
I0925 20:26:02.478780  3547 net.cpp:137] Memory required for data: 5958800
I0925 20:26:02.478793  3547 layer_factory.hpp:77] Creating layer BatchNorm1
I0925 20:26:02.478818  3547 net.cpp:84] Creating Layer BatchNorm1
I0925 20:26:02.478821  3547 net.cpp:406] BatchNorm1 <- Convolution1
I0925 20:26:02.478849  3547 net.cpp:367] BatchNorm1 -> Convolution1 (in-place)
I0925 20:26:02.478999  3547 net.cpp:122] Setting up BatchNorm1
I0925 20:26:02.479005  3547 net.cpp:129] Top shape: 100 16 28 28 (1254400)
I0925 20:26:02.479007  3547 net.cpp:137] Memory required for data: 10976400
I0925 20:26:02.479015  3547 layer_factory.hpp:77] Creating layer Scale1
I0925 20:26:02.479023  3547 net.cpp:84] Creating Layer Scale1
I0925 20:26:02.479037  3547 net.cpp:406] Scale1 <- Convolution1
I0925 20:26:02.479040  3547 net.cpp:367] Scale1 -> Convolution1 (in-place)
I0925 20:26:02.479104  3547 layer_factory.hpp:77] Creating layer Scale1
I0925 20:26:02.479213  3547 net.cpp:122] Setting up Scale1
I0925 20:26:02.479219  3547 net.cpp:129] Top shape: 100 16 28 28 (1254400)
I0925 20:26:02.479221  3547 net.cpp:137] Memory required for data: 15994000
I0925 20:26:02.479226  3547 layer_factory.hpp:77] Creating layer PReLU1
I0925 20:26:02.479230  3547 net.cpp:84] Creating Layer PReLU1
I0925 20:26:02.479233  3547 net.cpp:406] PReLU1 <- Convolution1
I0925 20:26:02.479236  3547 net.cpp:367] PReLU1 -> Convolution1 (in-place)
I0925 20:26:02.479827  3547 net.cpp:122] Setting up PReLU1
I0925 20:26:02.479837  3547 net.cpp:129] Top shape: 100 16 28 28 (1254400)
I0925 20:26:02.479840  3547 net.cpp:137] Memory required for data: 21011600
I0925 20:26:02.479843  3547 layer_factory.hpp:77] Creating layer Convolution1_PReLU1_0_split
I0925 20:26:02.479848  3547 net.cpp:84] Creating Layer Convolution1_PReLU1_0_split
I0925 20:26:02.479851  3547 net.cpp:406] Convolution1_PReLU1_0_split <- Convolution1
I0925 20:26:02.479854  3547 net.cpp:380] Convolution1_PReLU1_0_split -> Convolution1_PReLU1_0_split_0
I0925 20:26:02.479869  3547 net.cpp:380] Convolution1_PReLU1_0_split -> Convolution1_PReLU1_0_split_1
I0925 20:26:02.479918  3547 net.cpp:122] Setting up Convolution1_PReLU1_0_split
I0925 20:26:02.479923  3547 net.cpp:129] Top shape: 100 16 28 28 (1254400)
I0925 20:26:02.479935  3547 net.cpp:129] Top shape: 100 16 28 28 (1254400)
I0925 20:26:02.479938  3547 net.cpp:137] Memory required for data: 31046800
I0925 20:26:02.479940  3547 layer_factory.hpp:77] Creating layer Convolution2
I0925 20:26:02.479956  3547 net.cpp:84] Creating Layer Convolution2
I0925 20:26:02.479960  3547 net.cpp:406] Convolution2 <- Convolution1_PReLU1_0_split_0
I0925 20:26:02.479974  3547 net.cpp:380] Convolution2 -> Convolution2
I0925 20:26:02.480860  3547 net.cpp:122] Setting up Convolution2
I0925 20:26:02.480870  3547 net.cpp:129] Top shape: 100 16 28 28 (1254400)
I0925 20:26:02.480873  3547 net.cpp:137] Memory required for data: 36064400
I0925 20:26:02.480880  3547 layer_factory.hpp:77] Creating layer BatchNorm2
I0925 20:26:02.480885  3547 net.cpp:84] Creating Layer BatchNorm2
I0925 20:26:02.480887  3547 net.cpp:406] BatchNorm2 <- Convolution2
I0925 20:26:02.480901  3547 net.cpp:367] BatchNorm2 -> Convolution2 (in-place)
I0925 20:26:02.481035  3547 net.cpp:122] Setting up BatchNorm2
I0925 20:26:02.481041  3547 net.cpp:129] Top shape: 100 16 28 28 (1254400)
I0925 20:26:02.481043  3547 net.cpp:137] Memory required for data: 41082000
I0925 20:26:02.481048  3547 layer_factory.hpp:77] Creating layer Scale2
I0925 20:26:02.481053  3547 net.cpp:84] Creating Layer Scale2
I0925 20:26:02.481055  3547 net.cpp:406] Scale2 <- Convolution2
I0925 20:26:02.481058  3547 net.cpp:367] Scale2 -> Convolution2 (in-place)
I0925 20:26:02.481117  3547 layer_factory.hpp:77] Creating layer Scale2
I0925 20:26:02.481233  3547 net.cpp:122] Setting up Scale2
I0925 20:26:02.481238  3547 net.cpp:129] Top shape: 100 16 28 28 (1254400)
I0925 20:26:02.481240  3547 net.cpp:137] Memory required for data: 46099600
I0925 20:26:02.481245  3547 layer_factory.hpp:77] Creating layer PReLU2
I0925 20:26:02.481248  3547 net.cpp:84] Creating Layer PReLU2
I0925 20:26:02.481251  3547 net.cpp:406] PReLU2 <- Convolution2
I0925 20:26:02.481253  3547 net.cpp:367] PReLU2 -> Convolution2 (in-place)
I0925 20:26:02.481343  3547 net.cpp:122] Setting up PReLU2
I0925 20:26:02.481348  3547 net.cpp:129] Top shape: 100 16 28 28 (1254400)
I0925 20:26:02.481359  3547 net.cpp:137] Memory required for data: 51117200
I0925 20:26:02.481364  3547 layer_factory.hpp:77] Creating layer Convolution3
I0925 20:26:02.481380  3547 net.cpp:84] Creating Layer Convolution3
I0925 20:26:02.481384  3547 net.cpp:406] Convolution3 <- Convolution2
I0925 20:26:02.481390  3547 net.cpp:380] Convolution3 -> Convolution3
I0925 20:26:02.482270  3547 net.cpp:122] Setting up Convolution3
I0925 20:26:02.482280  3547 net.cpp:129] Top shape: 100 16 28 28 (1254400)
I0925 20:26:02.482283  3547 net.cpp:137] Memory required for data: 56134800
I0925 20:26:02.482290  3547 layer_factory.hpp:77] Creating layer BatchNorm3
I0925 20:26:02.482295  3547 net.cpp:84] Creating Layer BatchNorm3
I0925 20:26:02.482298  3547 net.cpp:406] BatchNorm3 <- Convolution3
I0925 20:26:02.482312  3547 net.cpp:367] BatchNorm3 -> Convolution3 (in-place)
I0925 20:26:02.482444  3547 net.cpp:122] Setting up BatchNorm3
I0925 20:26:02.482448  3547 net.cpp:129] Top shape: 100 16 28 28 (1254400)
I0925 20:26:02.482451  3547 net.cpp:137] Memory required for data: 61152400
I0925 20:26:02.482455  3547 layer_factory.hpp:77] Creating layer Scale3
I0925 20:26:02.482461  3547 net.cpp:84] Creating Layer Scale3
I0925 20:26:02.482463  3547 net.cpp:406] Scale3 <- Convolution3
I0925 20:26:02.482466  3547 net.cpp:367] Scale3 -> Convolution3 (in-place)
I0925 20:26:02.482511  3547 layer_factory.hpp:77] Creating layer Scale3
I0925 20:26:02.482604  3547 net.cpp:122] Setting up Scale3
I0925 20:26:02.482609  3547 net.cpp:129] Top shape: 100 16 28 28 (1254400)
I0925 20:26:02.482611  3547 net.cpp:137] Memory required for data: 66170000
I0925 20:26:02.482615  3547 layer_factory.hpp:77] Creating layer Eltwise1
I0925 20:26:02.482622  3547 net.cpp:84] Creating Layer Eltwise1
I0925 20:26:02.482625  3547 net.cpp:406] Eltwise1 <- Convolution1_PReLU1_0_split_1
I0925 20:26:02.482627  3547 net.cpp:406] Eltwise1 <- Convolution3
I0925 20:26:02.482641  3547 net.cpp:380] Eltwise1 -> Eltwise1
I0925 20:26:02.482667  3547 net.cpp:122] Setting up Eltwise1
I0925 20:26:02.482672  3547 net.cpp:129] Top shape: 100 16 28 28 (1254400)
I0925 20:26:02.482674  3547 net.cpp:137] Memory required for data: 71187600
I0925 20:26:02.482686  3547 layer_factory.hpp:77] Creating layer PReLU3
I0925 20:26:02.482691  3547 net.cpp:84] Creating Layer PReLU3
I0925 20:26:02.482693  3547 net.cpp:406] PReLU3 <- Eltwise1
I0925 20:26:02.482697  3547 net.cpp:367] PReLU3 -> Eltwise1 (in-place)
I0925 20:26:02.482764  3547 net.cpp:122] Setting up PReLU3
I0925 20:26:02.482770  3547 net.cpp:129] Top shape: 100 16 28 28 (1254400)
I0925 20:26:02.482784  3547 net.cpp:137] Memory required for data: 76205200
I0925 20:26:02.482786  3547 layer_factory.hpp:77] Creating layer Eltwise1_PReLU3_0_split
I0925 20:26:02.482790  3547 net.cpp:84] Creating Layer Eltwise1_PReLU3_0_split
I0925 20:26:02.482794  3547 net.cpp:406] Eltwise1_PReLU3_0_split <- Eltwise1
I0925 20:26:02.482800  3547 net.cpp:380] Eltwise1_PReLU3_0_split -> Eltwise1_PReLU3_0_split_0
I0925 20:26:02.482808  3547 net.cpp:380] Eltwise1_PReLU3_0_split -> Eltwise1_PReLU3_0_split_1
I0925 20:26:02.482841  3547 net.cpp:122] Setting up Eltwise1_PReLU3_0_split
I0925 20:26:02.482846  3547 net.cpp:129] Top shape: 100 16 28 28 (1254400)
I0925 20:26:02.482859  3547 net.cpp:129] Top shape: 100 16 28 28 (1254400)
I0925 20:26:02.482861  3547 net.cpp:137] Memory required for data: 86240400
I0925 20:26:02.482864  3547 layer_factory.hpp:77] Creating layer Convolution4
I0925 20:26:02.482874  3547 net.cpp:84] Creating Layer Convolution4
I0925 20:26:02.482879  3547 net.cpp:406] Convolution4 <- Eltwise1_PReLU3_0_split_0
I0925 20:26:02.482884  3547 net.cpp:380] Convolution4 -> Convolution4
I0925 20:26:02.483721  3547 net.cpp:122] Setting up Convolution4
I0925 20:26:02.483731  3547 net.cpp:129] Top shape: 100 16 28 28 (1254400)
I0925 20:26:02.483743  3547 net.cpp:137] Memory required for data: 91258000
I0925 20:26:02.483750  3547 layer_factory.hpp:77] Creating layer BatchNorm4
I0925 20:26:02.483757  3547 net.cpp:84] Creating Layer BatchNorm4
I0925 20:26:02.483759  3547 net.cpp:406] BatchNorm4 <- Convolution4
I0925 20:26:02.483772  3547 net.cpp:367] BatchNorm4 -> Convolution4 (in-place)
I0925 20:26:02.483896  3547 net.cpp:122] Setting up BatchNorm4
I0925 20:26:02.483902  3547 net.cpp:129] Top shape: 100 16 28 28 (1254400)
I0925 20:26:02.483906  3547 net.cpp:137] Memory required for data: 96275600
I0925 20:26:02.483911  3547 layer_factory.hpp:77] Creating layer Scale4
I0925 20:26:02.483916  3547 net.cpp:84] Creating Layer Scale4
I0925 20:26:02.483922  3547 net.cpp:406] Scale4 <- Convolution4
I0925 20:26:02.483928  3547 net.cpp:367] Scale4 -> Convolution4 (in-place)
I0925 20:26:02.483956  3547 layer_factory.hpp:77] Creating layer Scale4
I0925 20:26:02.484030  3547 net.cpp:122] Setting up Scale4
I0925 20:26:02.484035  3547 net.cpp:129] Top shape: 100 16 28 28 (1254400)
I0925 20:26:02.484040  3547 net.cpp:137] Memory required for data: 101293200
I0925 20:26:02.484045  3547 layer_factory.hpp:77] Creating layer PReLU4
I0925 20:26:02.484050  3547 net.cpp:84] Creating Layer PReLU4
I0925 20:26:02.484055  3547 net.cpp:406] PReLU4 <- Convolution4
I0925 20:26:02.484061  3547 net.cpp:367] PReLU4 -> Convolution4 (in-place)
I0925 20:26:02.484119  3547 net.cpp:122] Setting up PReLU4
I0925 20:26:02.484125  3547 net.cpp:129] Top shape: 100 16 28 28 (1254400)
I0925 20:26:02.484129  3547 net.cpp:137] Memory required for data: 106310800
I0925 20:26:02.484134  3547 layer_factory.hpp:77] Creating layer Convolution5
I0925 20:26:02.484143  3547 net.cpp:84] Creating Layer Convolution5
I0925 20:26:02.484146  3547 net.cpp:406] Convolution5 <- Convolution4
I0925 20:26:02.484151  3547 net.cpp:380] Convolution5 -> Convolution5
I0925 20:26:02.485015  3547 net.cpp:122] Setting up Convolution5
I0925 20:26:02.485026  3547 net.cpp:129] Top shape: 100 16 28 28 (1254400)
I0925 20:26:02.485033  3547 net.cpp:137] Memory required for data: 111328400
I0925 20:26:02.485043  3547 layer_factory.hpp:77] Creating layer BatchNorm5
I0925 20:26:02.485049  3547 net.cpp:84] Creating Layer BatchNorm5
I0925 20:26:02.485054  3547 net.cpp:406] BatchNorm5 <- Convolution5
I0925 20:26:02.485059  3547 net.cpp:367] BatchNorm5 -> Convolution5 (in-place)
I0925 20:26:02.485179  3547 net.cpp:122] Setting up BatchNorm5
I0925 20:26:02.485185  3547 net.cpp:129] Top shape: 100 16 28 28 (1254400)
I0925 20:26:02.485190  3547 net.cpp:137] Memory required for data: 116346000
I0925 20:26:02.485198  3547 layer_factory.hpp:77] Creating layer Scale5
I0925 20:26:02.485203  3547 net.cpp:84] Creating Layer Scale5
I0925 20:26:02.485206  3547 net.cpp:406] Scale5 <- Convolution5
I0925 20:26:02.485213  3547 net.cpp:367] Scale5 -> Convolution5 (in-place)
I0925 20:26:02.485239  3547 layer_factory.hpp:77] Creating layer Scale5
I0925 20:26:02.485312  3547 net.cpp:122] Setting up Scale5
I0925 20:26:02.485318  3547 net.cpp:129] Top shape: 100 16 28 28 (1254400)
I0925 20:26:02.485323  3547 net.cpp:137] Memory required for data: 121363600
I0925 20:26:02.485329  3547 layer_factory.hpp:77] Creating layer Eltwise2
I0925 20:26:02.485334  3547 net.cpp:84] Creating Layer Eltwise2
I0925 20:26:02.485338  3547 net.cpp:406] Eltwise2 <- Eltwise1_PReLU3_0_split_1
I0925 20:26:02.485344  3547 net.cpp:406] Eltwise2 <- Convolution5
I0925 20:26:02.485349  3547 net.cpp:380] Eltwise2 -> Eltwise2
I0925 20:26:02.485368  3547 net.cpp:122] Setting up Eltwise2
I0925 20:26:02.485373  3547 net.cpp:129] Top shape: 100 16 28 28 (1254400)
I0925 20:26:02.485376  3547 net.cpp:137] Memory required for data: 126381200
I0925 20:26:02.485380  3547 layer_factory.hpp:77] Creating layer PReLU5
I0925 20:26:02.485385  3547 net.cpp:84] Creating Layer PReLU5
I0925 20:26:02.485390  3547 net.cpp:406] PReLU5 <- Eltwise2
I0925 20:26:02.485394  3547 net.cpp:367] PReLU5 -> Eltwise2 (in-place)
I0925 20:26:02.485455  3547 net.cpp:122] Setting up PReLU5
I0925 20:26:02.485460  3547 net.cpp:129] Top shape: 100 16 28 28 (1254400)
I0925 20:26:02.485465  3547 net.cpp:137] Memory required for data: 131398800
I0925 20:26:02.485468  3547 layer_factory.hpp:77] Creating layer Eltwise2_PReLU5_0_split
I0925 20:26:02.485474  3547 net.cpp:84] Creating Layer Eltwise2_PReLU5_0_split
I0925 20:26:02.485486  3547 net.cpp:406] Eltwise2_PReLU5_0_split <- Eltwise2
I0925 20:26:02.485491  3547 net.cpp:380] Eltwise2_PReLU5_0_split -> Eltwise2_PReLU5_0_split_0
I0925 20:26:02.485498  3547 net.cpp:380] Eltwise2_PReLU5_0_split -> Eltwise2_PReLU5_0_split_1
I0925 20:26:02.485523  3547 net.cpp:122] Setting up Eltwise2_PReLU5_0_split
I0925 20:26:02.485528  3547 net.cpp:129] Top shape: 100 16 28 28 (1254400)
I0925 20:26:02.485533  3547 net.cpp:129] Top shape: 100 16 28 28 (1254400)
I0925 20:26:02.485538  3547 net.cpp:137] Memory required for data: 141434000
I0925 20:26:02.485541  3547 layer_factory.hpp:77] Creating layer Convolution6
I0925 20:26:02.485550  3547 net.cpp:84] Creating Layer Convolution6
I0925 20:26:02.485554  3547 net.cpp:406] Convolution6 <- Eltwise2_PReLU5_0_split_0
I0925 20:26:02.485559  3547 net.cpp:380] Convolution6 -> Convolution6
I0925 20:26:02.486403  3547 net.cpp:122] Setting up Convolution6
I0925 20:26:02.486414  3547 net.cpp:129] Top shape: 100 16 28 28 (1254400)
I0925 20:26:02.486419  3547 net.cpp:137] Memory required for data: 146451600
I0925 20:26:02.486428  3547 layer_factory.hpp:77] Creating layer BatchNorm6
I0925 20:26:02.486433  3547 net.cpp:84] Creating Layer BatchNorm6
I0925 20:26:02.486438  3547 net.cpp:406] BatchNorm6 <- Convolution6
I0925 20:26:02.486444  3547 net.cpp:367] BatchNorm6 -> Convolution6 (in-place)
I0925 20:26:02.486567  3547 net.cpp:122] Setting up BatchNorm6
I0925 20:26:02.486574  3547 net.cpp:129] Top shape: 100 16 28 28 (1254400)
I0925 20:26:02.486578  3547 net.cpp:137] Memory required for data: 151469200
I0925 20:26:02.486585  3547 layer_factory.hpp:77] Creating layer Scale6
I0925 20:26:02.486590  3547 net.cpp:84] Creating Layer Scale6
I0925 20:26:02.486595  3547 net.cpp:406] Scale6 <- Convolution6
I0925 20:26:02.486600  3547 net.cpp:367] Scale6 -> Convolution6 (in-place)
I0925 20:26:02.486629  3547 layer_factory.hpp:77] Creating layer Scale6
I0925 20:26:02.486703  3547 net.cpp:122] Setting up Scale6
I0925 20:26:02.486709  3547 net.cpp:129] Top shape: 100 16 28 28 (1254400)
I0925 20:26:02.486713  3547 net.cpp:137] Memory required for data: 156486800
I0925 20:26:02.486719  3547 layer_factory.hpp:77] Creating layer PReLU6
I0925 20:26:02.486724  3547 net.cpp:84] Creating Layer PReLU6
I0925 20:26:02.486729  3547 net.cpp:406] PReLU6 <- Convolution6
I0925 20:26:02.486734  3547 net.cpp:367] PReLU6 -> Convolution6 (in-place)
I0925 20:26:02.486795  3547 net.cpp:122] Setting up PReLU6
I0925 20:26:02.486801  3547 net.cpp:129] Top shape: 100 16 28 28 (1254400)
I0925 20:26:02.486805  3547 net.cpp:137] Memory required for data: 161504400
I0925 20:26:02.486810  3547 layer_factory.hpp:77] Creating layer Convolution7
I0925 20:26:02.486819  3547 net.cpp:84] Creating Layer Convolution7
I0925 20:26:02.486822  3547 net.cpp:406] Convolution7 <- Convolution6
I0925 20:26:02.486827  3547 net.cpp:380] Convolution7 -> Convolution7
I0925 20:26:02.487347  3547 net.cpp:122] Setting up Convolution7
I0925 20:26:02.487357  3547 net.cpp:129] Top shape: 100 16 28 28 (1254400)
I0925 20:26:02.487362  3547 net.cpp:137] Memory required for data: 166522000
I0925 20:26:02.487370  3547 layer_factory.hpp:77] Creating layer BatchNorm7
I0925 20:26:02.487375  3547 net.cpp:84] Creating Layer BatchNorm7
I0925 20:26:02.487380  3547 net.cpp:406] BatchNorm7 <- Convolution7
I0925 20:26:02.487385  3547 net.cpp:367] BatchNorm7 -> Convolution7 (in-place)
I0925 20:26:02.487509  3547 net.cpp:122] Setting up BatchNorm7
I0925 20:26:02.487514  3547 net.cpp:129] Top shape: 100 16 28 28 (1254400)
I0925 20:26:02.487519  3547 net.cpp:137] Memory required for data: 171539600
I0925 20:26:02.487525  3547 layer_factory.hpp:77] Creating layer Scale7
I0925 20:26:02.487532  3547 net.cpp:84] Creating Layer Scale7
I0925 20:26:02.487536  3547 net.cpp:406] Scale7 <- Convolution7
I0925 20:26:02.487540  3547 net.cpp:367] Scale7 -> Convolution7 (in-place)
I0925 20:26:02.487568  3547 layer_factory.hpp:77] Creating layer Scale7
I0925 20:26:02.487643  3547 net.cpp:122] Setting up Scale7
I0925 20:26:02.487655  3547 net.cpp:129] Top shape: 100 16 28 28 (1254400)
I0925 20:26:02.487659  3547 net.cpp:137] Memory required for data: 176557200
I0925 20:26:02.487666  3547 layer_factory.hpp:77] Creating layer Eltwise3
I0925 20:26:02.487671  3547 net.cpp:84] Creating Layer Eltwise3
I0925 20:26:02.487675  3547 net.cpp:406] Eltwise3 <- Eltwise2_PReLU5_0_split_1
I0925 20:26:02.487680  3547 net.cpp:406] Eltwise3 <- Convolution7
I0925 20:26:02.487686  3547 net.cpp:380] Eltwise3 -> Eltwise3
I0925 20:26:02.487705  3547 net.cpp:122] Setting up Eltwise3
I0925 20:26:02.487710  3547 net.cpp:129] Top shape: 100 16 28 28 (1254400)
I0925 20:26:02.487715  3547 net.cpp:137] Memory required for data: 181574800
I0925 20:26:02.487718  3547 layer_factory.hpp:77] Creating layer PReLU7
I0925 20:26:02.487723  3547 net.cpp:84] Creating Layer PReLU7
I0925 20:26:02.487728  3547 net.cpp:406] PReLU7 <- Eltwise3
I0925 20:26:02.487733  3547 net.cpp:367] PReLU7 -> Eltwise3 (in-place)
I0925 20:26:02.487792  3547 net.cpp:122] Setting up PReLU7
I0925 20:26:02.487798  3547 net.cpp:129] Top shape: 100 16 28 28 (1254400)
I0925 20:26:02.487802  3547 net.cpp:137] Memory required for data: 186592400
I0925 20:26:02.487807  3547 layer_factory.hpp:77] Creating layer Eltwise3_PReLU7_0_split
I0925 20:26:02.487812  3547 net.cpp:84] Creating Layer Eltwise3_PReLU7_0_split
I0925 20:26:02.487817  3547 net.cpp:406] Eltwise3_PReLU7_0_split <- Eltwise3
I0925 20:26:02.487821  3547 net.cpp:380] Eltwise3_PReLU7_0_split -> Eltwise3_PReLU7_0_split_0
I0925 20:26:02.487828  3547 net.cpp:380] Eltwise3_PReLU7_0_split -> Eltwise3_PReLU7_0_split_1
I0925 20:26:02.487851  3547 net.cpp:122] Setting up Eltwise3_PReLU7_0_split
I0925 20:26:02.487856  3547 net.cpp:129] Top shape: 100 16 28 28 (1254400)
I0925 20:26:02.487861  3547 net.cpp:129] Top shape: 100 16 28 28 (1254400)
I0925 20:26:02.487866  3547 net.cpp:137] Memory required for data: 196627600
I0925 20:26:02.487869  3547 layer_factory.hpp:77] Creating layer Convolution8
I0925 20:26:02.487879  3547 net.cpp:84] Creating Layer Convolution8
I0925 20:26:02.487881  3547 net.cpp:406] Convolution8 <- Eltwise3_PReLU7_0_split_0
I0925 20:26:02.487887  3547 net.cpp:380] Convolution8 -> Convolution8
I0925 20:26:02.488759  3547 net.cpp:122] Setting up Convolution8
I0925 20:26:02.488770  3547 net.cpp:129] Top shape: 100 16 28 28 (1254400)
I0925 20:26:02.488775  3547 net.cpp:137] Memory required for data: 201645200
I0925 20:26:02.488782  3547 layer_factory.hpp:77] Creating layer BatchNorm8
I0925 20:26:02.488790  3547 net.cpp:84] Creating Layer BatchNorm8
I0925 20:26:02.488793  3547 net.cpp:406] BatchNorm8 <- Convolution8
I0925 20:26:02.488800  3547 net.cpp:367] BatchNorm8 -> Convolution8 (in-place)
I0925 20:26:02.488932  3547 net.cpp:122] Setting up BatchNorm8
I0925 20:26:02.488939  3547 net.cpp:129] Top shape: 100 16 28 28 (1254400)
I0925 20:26:02.488943  3547 net.cpp:137] Memory required for data: 206662800
I0925 20:26:02.488950  3547 layer_factory.hpp:77] Creating layer Scale8
I0925 20:26:02.488956  3547 net.cpp:84] Creating Layer Scale8
I0925 20:26:02.488960  3547 net.cpp:406] Scale8 <- Convolution8
I0925 20:26:02.488976  3547 net.cpp:367] Scale8 -> Convolution8 (in-place)
I0925 20:26:02.489003  3547 layer_factory.hpp:77] Creating layer Scale8
I0925 20:26:02.489078  3547 net.cpp:122] Setting up Scale8
I0925 20:26:02.489084  3547 net.cpp:129] Top shape: 100 16 28 28 (1254400)
I0925 20:26:02.489089  3547 net.cpp:137] Memory required for data: 211680400
I0925 20:26:02.489094  3547 layer_factory.hpp:77] Creating layer PReLU8
I0925 20:26:02.489099  3547 net.cpp:84] Creating Layer PReLU8
I0925 20:26:02.489104  3547 net.cpp:406] PReLU8 <- Convolution8
I0925 20:26:02.489109  3547 net.cpp:367] PReLU8 -> Convolution8 (in-place)
I0925 20:26:02.489169  3547 net.cpp:122] Setting up PReLU8
I0925 20:26:02.489176  3547 net.cpp:129] Top shape: 100 16 28 28 (1254400)
I0925 20:26:02.489179  3547 net.cpp:137] Memory required for data: 216698000
I0925 20:26:02.489184  3547 layer_factory.hpp:77] Creating layer Convolution9
I0925 20:26:02.489193  3547 net.cpp:84] Creating Layer Convolution9
I0925 20:26:02.489203  3547 net.cpp:406] Convolution9 <- Convolution8
I0925 20:26:02.489210  3547 net.cpp:380] Convolution9 -> Convolution9
I0925 20:26:02.490084  3547 net.cpp:122] Setting up Convolution9
I0925 20:26:02.490095  3547 net.cpp:129] Top shape: 100 16 28 28 (1254400)
I0925 20:26:02.490101  3547 net.cpp:137] Memory required for data: 221715600
I0925 20:26:02.490121  3547 layer_factory.hpp:77] Creating layer BatchNorm9
I0925 20:26:02.490128  3547 net.cpp:84] Creating Layer BatchNorm9
I0925 20:26:02.490133  3547 net.cpp:406] BatchNorm9 <- Convolution9
I0925 20:26:02.490137  3547 net.cpp:367] BatchNorm9 -> Convolution9 (in-place)
I0925 20:26:02.490275  3547 net.cpp:122] Setting up BatchNorm9
I0925 20:26:02.490281  3547 net.cpp:129] Top shape: 100 16 28 28 (1254400)
I0925 20:26:02.490286  3547 net.cpp:137] Memory required for data: 226733200
I0925 20:26:02.490295  3547 layer_factory.hpp:77] Creating layer Scale9
I0925 20:26:02.490301  3547 net.cpp:84] Creating Layer Scale9
I0925 20:26:02.490305  3547 net.cpp:406] Scale9 <- Convolution9
I0925 20:26:02.490310  3547 net.cpp:367] Scale9 -> Convolution9 (in-place)
I0925 20:26:02.490339  3547 layer_factory.hpp:77] Creating layer Scale9
I0925 20:26:02.490437  3547 net.cpp:122] Setting up Scale9
I0925 20:26:02.490443  3547 net.cpp:129] Top shape: 100 16 28 28 (1254400)
I0925 20:26:02.490448  3547 net.cpp:137] Memory required for data: 231750800
I0925 20:26:02.490454  3547 layer_factory.hpp:77] Creating layer Eltwise4
I0925 20:26:02.490459  3547 net.cpp:84] Creating Layer Eltwise4
I0925 20:26:02.490464  3547 net.cpp:406] Eltwise4 <- Eltwise3_PReLU7_0_split_1
I0925 20:26:02.490469  3547 net.cpp:406] Eltwise4 <- Convolution9
I0925 20:26:02.490475  3547 net.cpp:380] Eltwise4 -> Eltwise4
I0925 20:26:02.490494  3547 net.cpp:122] Setting up Eltwise4
I0925 20:26:02.490499  3547 net.cpp:129] Top shape: 100 16 28 28 (1254400)
I0925 20:26:02.490504  3547 net.cpp:137] Memory required for data: 236768400
I0925 20:26:02.490507  3547 layer_factory.hpp:77] Creating layer PReLU9
I0925 20:26:02.490514  3547 net.cpp:84] Creating Layer PReLU9
I0925 20:26:02.490517  3547 net.cpp:406] PReLU9 <- Eltwise4
I0925 20:26:02.490522  3547 net.cpp:367] PReLU9 -> Eltwise4 (in-place)
I0925 20:26:02.490592  3547 net.cpp:122] Setting up PReLU9
I0925 20:26:02.490597  3547 net.cpp:129] Top shape: 100 16 28 28 (1254400)
I0925 20:26:02.490600  3547 net.cpp:137] Memory required for data: 241786000
I0925 20:26:02.490605  3547 layer_factory.hpp:77] Creating layer Eltwise4_PReLU9_0_split
I0925 20:26:02.490612  3547 net.cpp:84] Creating Layer Eltwise4_PReLU9_0_split
I0925 20:26:02.490617  3547 net.cpp:406] Eltwise4_PReLU9_0_split <- Eltwise4
I0925 20:26:02.490622  3547 net.cpp:380] Eltwise4_PReLU9_0_split -> Eltwise4_PReLU9_0_split_0
I0925 20:26:02.490628  3547 net.cpp:380] Eltwise4_PReLU9_0_split -> Eltwise4_PReLU9_0_split_1
I0925 20:26:02.490653  3547 net.cpp:122] Setting up Eltwise4_PReLU9_0_split
I0925 20:26:02.490658  3547 net.cpp:129] Top shape: 100 16 28 28 (1254400)
I0925 20:26:02.490662  3547 net.cpp:129] Top shape: 100 16 28 28 (1254400)
I0925 20:26:02.490666  3547 net.cpp:137] Memory required for data: 251821200
I0925 20:26:02.490670  3547 layer_factory.hpp:77] Creating layer Convolution10
I0925 20:26:02.490689  3547 net.cpp:84] Creating Layer Convolution10
I0925 20:26:02.490691  3547 net.cpp:406] Convolution10 <- Eltwise4_PReLU9_0_split_0
I0925 20:26:02.490706  3547 net.cpp:380] Convolution10 -> Convolution10
I0925 20:26:02.491601  3547 net.cpp:122] Setting up Convolution10
I0925 20:26:02.491611  3547 net.cpp:129] Top shape: 100 16 28 28 (1254400)
I0925 20:26:02.491616  3547 net.cpp:137] Memory required for data: 256838800
I0925 20:26:02.491623  3547 layer_factory.hpp:77] Creating layer BatchNorm10
I0925 20:26:02.491631  3547 net.cpp:84] Creating Layer BatchNorm10
I0925 20:26:02.491634  3547 net.cpp:406] BatchNorm10 <- Convolution10
I0925 20:26:02.491639  3547 net.cpp:367] BatchNorm10 -> Convolution10 (in-place)
I0925 20:26:02.491762  3547 net.cpp:122] Setting up BatchNorm10
I0925 20:26:02.491775  3547 net.cpp:129] Top shape: 100 16 28 28 (1254400)
I0925 20:26:02.491780  3547 net.cpp:137] Memory required for data: 261856400
I0925 20:26:02.491786  3547 layer_factory.hpp:77] Creating layer Scale10
I0925 20:26:02.491792  3547 net.cpp:84] Creating Layer Scale10
I0925 20:26:02.491796  3547 net.cpp:406] Scale10 <- Convolution10
I0925 20:26:02.491801  3547 net.cpp:367] Scale10 -> Convolution10 (in-place)
I0925 20:26:02.491829  3547 layer_factory.hpp:77] Creating layer Scale10
I0925 20:26:02.491914  3547 net.cpp:122] Setting up Scale10
I0925 20:26:02.491920  3547 net.cpp:129] Top shape: 100 16 28 28 (1254400)
I0925 20:26:02.491922  3547 net.cpp:137] Memory required for data: 266874000
I0925 20:26:02.491926  3547 layer_factory.hpp:77] Creating layer PReLU10
I0925 20:26:02.491930  3547 net.cpp:84] Creating Layer PReLU10
I0925 20:26:02.491932  3547 net.cpp:406] PReLU10 <- Convolution10
I0925 20:26:02.491945  3547 net.cpp:367] PReLU10 -> Convolution10 (in-place)
I0925 20:26:02.492036  3547 net.cpp:122] Setting up PReLU10
I0925 20:26:02.492043  3547 net.cpp:129] Top shape: 100 16 28 28 (1254400)
I0925 20:26:02.492044  3547 net.cpp:137] Memory required for data: 271891600
I0925 20:26:02.492059  3547 layer_factory.hpp:77] Creating layer Convolution11
I0925 20:26:02.492066  3547 net.cpp:84] Creating Layer Convolution11
I0925 20:26:02.492070  3547 net.cpp:406] Convolution11 <- Convolution10
I0925 20:26:02.492074  3547 net.cpp:380] Convolution11 -> Convolution11
I0925 20:26:02.492980  3547 net.cpp:122] Setting up Convolution11
I0925 20:26:02.492990  3547 net.cpp:129] Top shape: 100 16 28 28 (1254400)
I0925 20:26:02.492992  3547 net.cpp:137] Memory required for data: 276909200
I0925 20:26:02.493008  3547 layer_factory.hpp:77] Creating layer BatchNorm11
I0925 20:26:02.493015  3547 net.cpp:84] Creating Layer BatchNorm11
I0925 20:26:02.493018  3547 net.cpp:406] BatchNorm11 <- Convolution11
I0925 20:26:02.493021  3547 net.cpp:367] BatchNorm11 -> Convolution11 (in-place)
I0925 20:26:02.493155  3547 net.cpp:122] Setting up BatchNorm11
I0925 20:26:02.493160  3547 net.cpp:129] Top shape: 100 16 28 28 (1254400)
I0925 20:26:02.493163  3547 net.cpp:137] Memory required for data: 281926800
I0925 20:26:02.493180  3547 layer_factory.hpp:77] Creating layer Scale11
I0925 20:26:02.493186  3547 net.cpp:84] Creating Layer Scale11
I0925 20:26:02.493190  3547 net.cpp:406] Scale11 <- Convolution11
I0925 20:26:02.493193  3547 net.cpp:367] Scale11 -> Convolution11 (in-place)
I0925 20:26:02.493223  3547 layer_factory.hpp:77] Creating layer Scale11
I0925 20:26:02.493302  3547 net.cpp:122] Setting up Scale11
I0925 20:26:02.493309  3547 net.cpp:129] Top shape: 100 16 28 28 (1254400)
I0925 20:26:02.493314  3547 net.cpp:137] Memory required for data: 286944400
I0925 20:26:02.493319  3547 layer_factory.hpp:77] Creating layer Eltwise5
I0925 20:26:02.493324  3547 net.cpp:84] Creating Layer Eltwise5
I0925 20:26:02.493327  3547 net.cpp:406] Eltwise5 <- Eltwise4_PReLU9_0_split_1
I0925 20:26:02.493331  3547 net.cpp:406] Eltwise5 <- Convolution11
I0925 20:26:02.493335  3547 net.cpp:380] Eltwise5 -> Eltwise5
I0925 20:26:02.493352  3547 net.cpp:122] Setting up Eltwise5
I0925 20:26:02.493357  3547 net.cpp:129] Top shape: 100 16 28 28 (1254400)
I0925 20:26:02.493360  3547 net.cpp:137] Memory required for data: 291962000
I0925 20:26:02.493362  3547 layer_factory.hpp:77] Creating layer PReLU11
I0925 20:26:02.493366  3547 net.cpp:84] Creating Layer PReLU11
I0925 20:26:02.493369  3547 net.cpp:406] PReLU11 <- Eltwise5
I0925 20:26:02.493373  3547 net.cpp:367] PReLU11 -> Eltwise5 (in-place)
I0925 20:26:02.493435  3547 net.cpp:122] Setting up PReLU11
I0925 20:26:02.493440  3547 net.cpp:129] Top shape: 100 16 28 28 (1254400)
I0925 20:26:02.493443  3547 net.cpp:137] Memory required for data: 296979600
I0925 20:26:02.493448  3547 layer_factory.hpp:77] Creating layer Eltwise5_PReLU11_0_split
I0925 20:26:02.493451  3547 net.cpp:84] Creating Layer Eltwise5_PReLU11_0_split
I0925 20:26:02.493454  3547 net.cpp:406] Eltwise5_PReLU11_0_split <- Eltwise5
I0925 20:26:02.493458  3547 net.cpp:380] Eltwise5_PReLU11_0_split -> Eltwise5_PReLU11_0_split_0
I0925 20:26:02.493470  3547 net.cpp:380] Eltwise5_PReLU11_0_split -> Eltwise5_PReLU11_0_split_1
I0925 20:26:02.493495  3547 net.cpp:122] Setting up Eltwise5_PReLU11_0_split
I0925 20:26:02.493500  3547 net.cpp:129] Top shape: 100 16 28 28 (1254400)
I0925 20:26:02.493505  3547 net.cpp:129] Top shape: 100 16 28 28 (1254400)
I0925 20:26:02.493506  3547 net.cpp:137] Memory required for data: 307014800
I0925 20:26:02.493508  3547 layer_factory.hpp:77] Creating layer Convolution12
I0925 20:26:02.493516  3547 net.cpp:84] Creating Layer Convolution12
I0925 20:26:02.493520  3547 net.cpp:406] Convolution12 <- Eltwise5_PReLU11_0_split_0
I0925 20:26:02.493523  3547 net.cpp:380] Convolution12 -> Convolution12
I0925 20:26:02.494400  3547 net.cpp:122] Setting up Convolution12
I0925 20:26:02.494410  3547 net.cpp:129] Top shape: 100 16 28 28 (1254400)
I0925 20:26:02.494413  3547 net.cpp:137] Memory required for data: 312032400
I0925 20:26:02.494418  3547 layer_factory.hpp:77] Creating layer BatchNorm12
I0925 20:26:02.494424  3547 net.cpp:84] Creating Layer BatchNorm12
I0925 20:26:02.494427  3547 net.cpp:406] BatchNorm12 <- Convolution12
I0925 20:26:02.494431  3547 net.cpp:367] BatchNorm12 -> Convolution12 (in-place)
I0925 20:26:02.494562  3547 net.cpp:122] Setting up BatchNorm12
I0925 20:26:02.494567  3547 net.cpp:129] Top shape: 100 16 28 28 (1254400)
I0925 20:26:02.494570  3547 net.cpp:137] Memory required for data: 317050000
I0925 20:26:02.494575  3547 layer_factory.hpp:77] Creating layer Scale12
I0925 20:26:02.494581  3547 net.cpp:84] Creating Layer Scale12
I0925 20:26:02.494585  3547 net.cpp:406] Scale12 <- Convolution12
I0925 20:26:02.494587  3547 net.cpp:367] Scale12 -> Convolution12 (in-place)
I0925 20:26:02.494614  3547 layer_factory.hpp:77] Creating layer Scale12
I0925 20:26:02.494693  3547 net.cpp:122] Setting up Scale12
I0925 20:26:02.494699  3547 net.cpp:129] Top shape: 100 16 28 28 (1254400)
I0925 20:26:02.494701  3547 net.cpp:137] Memory required for data: 322067600
I0925 20:26:02.494705  3547 layer_factory.hpp:77] Creating layer PReLU12
I0925 20:26:02.494709  3547 net.cpp:84] Creating Layer PReLU12
I0925 20:26:02.494714  3547 net.cpp:406] PReLU12 <- Convolution12
I0925 20:26:02.494716  3547 net.cpp:367] PReLU12 -> Convolution12 (in-place)
I0925 20:26:02.494779  3547 net.cpp:122] Setting up PReLU12
I0925 20:26:02.494784  3547 net.cpp:129] Top shape: 100 16 28 28 (1254400)
I0925 20:26:02.494787  3547 net.cpp:137] Memory required for data: 327085200
I0925 20:26:02.494791  3547 layer_factory.hpp:77] Creating layer Convolution13
I0925 20:26:02.494798  3547 net.cpp:84] Creating Layer Convolution13
I0925 20:26:02.494801  3547 net.cpp:406] Convolution13 <- Convolution12
I0925 20:26:02.494805  3547 net.cpp:380] Convolution13 -> Convolution13
I0925 20:26:02.495682  3547 net.cpp:122] Setting up Convolution13
I0925 20:26:02.495693  3547 net.cpp:129] Top shape: 100 16 28 28 (1254400)
I0925 20:26:02.495697  3547 net.cpp:137] Memory required for data: 332102800
I0925 20:26:02.495702  3547 layer_factory.hpp:77] Creating layer BatchNorm13
I0925 20:26:02.495707  3547 net.cpp:84] Creating Layer BatchNorm13
I0925 20:26:02.495712  3547 net.cpp:406] BatchNorm13 <- Convolution13
I0925 20:26:02.495714  3547 net.cpp:367] BatchNorm13 -> Convolution13 (in-place)
I0925 20:26:02.495847  3547 net.cpp:122] Setting up BatchNorm13
I0925 20:26:02.495852  3547 net.cpp:129] Top shape: 100 16 28 28 (1254400)
I0925 20:26:02.495856  3547 net.cpp:137] Memory required for data: 337120400
I0925 20:26:02.495860  3547 layer_factory.hpp:77] Creating layer Scale13
I0925 20:26:02.495865  3547 net.cpp:84] Creating Layer Scale13
I0925 20:26:02.495869  3547 net.cpp:406] Scale13 <- Convolution13
I0925 20:26:02.495872  3547 net.cpp:367] Scale13 -> Convolution13 (in-place)
I0925 20:26:02.495899  3547 layer_factory.hpp:77] Creating layer Scale13
I0925 20:26:02.495977  3547 net.cpp:122] Setting up Scale13
I0925 20:26:02.495982  3547 net.cpp:129] Top shape: 100 16 28 28 (1254400)
I0925 20:26:02.495985  3547 net.cpp:137] Memory required for data: 342138000
I0925 20:26:02.495996  3547 layer_factory.hpp:77] Creating layer Eltwise6
I0925 20:26:02.496002  3547 net.cpp:84] Creating Layer Eltwise6
I0925 20:26:02.496006  3547 net.cpp:406] Eltwise6 <- Eltwise5_PReLU11_0_split_1
I0925 20:26:02.496009  3547 net.cpp:406] Eltwise6 <- Convolution13
I0925 20:26:02.496013  3547 net.cpp:380] Eltwise6 -> Eltwise6
I0925 20:26:02.496032  3547 net.cpp:122] Setting up Eltwise6
I0925 20:26:02.496038  3547 net.cpp:129] Top shape: 100 16 28 28 (1254400)
I0925 20:26:02.496042  3547 net.cpp:137] Memory required for data: 347155600
I0925 20:26:02.496043  3547 layer_factory.hpp:77] Creating layer PReLU13
I0925 20:26:02.496050  3547 net.cpp:84] Creating Layer PReLU13
I0925 20:26:02.496053  3547 net.cpp:406] PReLU13 <- Eltwise6
I0925 20:26:02.496057  3547 net.cpp:367] PReLU13 -> Eltwise6 (in-place)
I0925 20:26:02.496120  3547 net.cpp:122] Setting up PReLU13
I0925 20:26:02.496125  3547 net.cpp:129] Top shape: 100 16 28 28 (1254400)
I0925 20:26:02.496129  3547 net.cpp:137] Memory required for data: 352173200
I0925 20:26:02.496132  3547 layer_factory.hpp:77] Creating layer Eltwise6_PReLU13_0_split
I0925 20:26:02.496136  3547 net.cpp:84] Creating Layer Eltwise6_PReLU13_0_split
I0925 20:26:02.496140  3547 net.cpp:406] Eltwise6_PReLU13_0_split <- Eltwise6
I0925 20:26:02.496143  3547 net.cpp:380] Eltwise6_PReLU13_0_split -> Eltwise6_PReLU13_0_split_0
I0925 20:26:02.496148  3547 net.cpp:380] Eltwise6_PReLU13_0_split -> Eltwise6_PReLU13_0_split_1
I0925 20:26:02.496172  3547 net.cpp:122] Setting up Eltwise6_PReLU13_0_split
I0925 20:26:02.496176  3547 net.cpp:129] Top shape: 100 16 28 28 (1254400)
I0925 20:26:02.496181  3547 net.cpp:129] Top shape: 100 16 28 28 (1254400)
I0925 20:26:02.496183  3547 net.cpp:137] Memory required for data: 362208400
I0925 20:26:02.496186  3547 layer_factory.hpp:77] Creating layer Convolution14
I0925 20:26:02.496191  3547 net.cpp:84] Creating Layer Convolution14
I0925 20:26:02.496194  3547 net.cpp:406] Convolution14 <- Eltwise6_PReLU13_0_split_0
I0925 20:26:02.496198  3547 net.cpp:380] Convolution14 -> Convolution14
I0925 20:26:02.497077  3547 net.cpp:122] Setting up Convolution14
I0925 20:26:02.497087  3547 net.cpp:129] Top shape: 100 16 28 28 (1254400)
I0925 20:26:02.497089  3547 net.cpp:137] Memory required for data: 367226000
I0925 20:26:02.497093  3547 layer_factory.hpp:77] Creating layer BatchNorm14
I0925 20:26:02.497098  3547 net.cpp:84] Creating Layer BatchNorm14
I0925 20:26:02.497100  3547 net.cpp:406] BatchNorm14 <- Convolution14
I0925 20:26:02.497104  3547 net.cpp:367] BatchNorm14 -> Convolution14 (in-place)
I0925 20:26:02.497231  3547 net.cpp:122] Setting up BatchNorm14
I0925 20:26:02.497236  3547 net.cpp:129] Top shape: 100 16 28 28 (1254400)
I0925 20:26:02.497237  3547 net.cpp:137] Memory required for data: 372243600
I0925 20:26:02.497242  3547 layer_factory.hpp:77] Creating layer Scale14
I0925 20:26:02.497246  3547 net.cpp:84] Creating Layer Scale14
I0925 20:26:02.497249  3547 net.cpp:406] Scale14 <- Convolution14
I0925 20:26:02.497252  3547 net.cpp:367] Scale14 -> Convolution14 (in-place)
I0925 20:26:02.497277  3547 layer_factory.hpp:77] Creating layer Scale14
I0925 20:26:02.497350  3547 net.cpp:122] Setting up Scale14
I0925 20:26:02.497355  3547 net.cpp:129] Top shape: 100 16 28 28 (1254400)
I0925 20:26:02.497357  3547 net.cpp:137] Memory required for data: 377261200
I0925 20:26:02.497361  3547 layer_factory.hpp:77] Creating layer PReLU14
I0925 20:26:02.497364  3547 net.cpp:84] Creating Layer PReLU14
I0925 20:26:02.497367  3547 net.cpp:406] PReLU14 <- Convolution14
I0925 20:26:02.497370  3547 net.cpp:367] PReLU14 -> Convolution14 (in-place)
I0925 20:26:02.497429  3547 net.cpp:122] Setting up PReLU14
I0925 20:26:02.497434  3547 net.cpp:129] Top shape: 100 16 28 28 (1254400)
I0925 20:26:02.497437  3547 net.cpp:137] Memory required for data: 382278800
I0925 20:26:02.497439  3547 layer_factory.hpp:77] Creating layer Convolution15
I0925 20:26:02.497445  3547 net.cpp:84] Creating Layer Convolution15
I0925 20:26:02.497448  3547 net.cpp:406] Convolution15 <- Convolution14
I0925 20:26:02.497458  3547 net.cpp:380] Convolution15 -> Convolution15
I0925 20:26:02.498308  3547 net.cpp:122] Setting up Convolution15
I0925 20:26:02.498317  3547 net.cpp:129] Top shape: 100 16 28 28 (1254400)
I0925 20:26:02.498320  3547 net.cpp:137] Memory required for data: 387296400
I0925 20:26:02.498324  3547 layer_factory.hpp:77] Creating layer BatchNorm15
I0925 20:26:02.498329  3547 net.cpp:84] Creating Layer BatchNorm15
I0925 20:26:02.498332  3547 net.cpp:406] BatchNorm15 <- Convolution15
I0925 20:26:02.498335  3547 net.cpp:367] BatchNorm15 -> Convolution15 (in-place)
I0925 20:26:02.498461  3547 net.cpp:122] Setting up BatchNorm15
I0925 20:26:02.498464  3547 net.cpp:129] Top shape: 100 16 28 28 (1254400)
I0925 20:26:02.498467  3547 net.cpp:137] Memory required for data: 392314000
I0925 20:26:02.498471  3547 layer_factory.hpp:77] Creating layer Scale15
I0925 20:26:02.498476  3547 net.cpp:84] Creating Layer Scale15
I0925 20:26:02.498478  3547 net.cpp:406] Scale15 <- Convolution15
I0925 20:26:02.498481  3547 net.cpp:367] Scale15 -> Convolution15 (in-place)
I0925 20:26:02.498507  3547 layer_factory.hpp:77] Creating layer Scale15
I0925 20:26:02.498579  3547 net.cpp:122] Setting up Scale15
I0925 20:26:02.498584  3547 net.cpp:129] Top shape: 100 16 28 28 (1254400)
I0925 20:26:02.498586  3547 net.cpp:137] Memory required for data: 397331600
I0925 20:26:02.498590  3547 layer_factory.hpp:77] Creating layer Eltwise7
I0925 20:26:02.498594  3547 net.cpp:84] Creating Layer Eltwise7
I0925 20:26:02.498596  3547 net.cpp:406] Eltwise7 <- Eltwise6_PReLU13_0_split_1
I0925 20:26:02.498600  3547 net.cpp:406] Eltwise7 <- Convolution15
I0925 20:26:02.498602  3547 net.cpp:380] Eltwise7 -> Eltwise7
I0925 20:26:02.498617  3547 net.cpp:122] Setting up Eltwise7
I0925 20:26:02.498620  3547 net.cpp:129] Top shape: 100 16 28 28 (1254400)
I0925 20:26:02.498623  3547 net.cpp:137] Memory required for data: 402349200
I0925 20:26:02.498625  3547 layer_factory.hpp:77] Creating layer PReLU15
I0925 20:26:02.498630  3547 net.cpp:84] Creating Layer PReLU15
I0925 20:26:02.498631  3547 net.cpp:406] PReLU15 <- Eltwise7
I0925 20:26:02.498634  3547 net.cpp:367] PReLU15 -> Eltwise7 (in-place)
I0925 20:26:02.498694  3547 net.cpp:122] Setting up PReLU15
I0925 20:26:02.498698  3547 net.cpp:129] Top shape: 100 16 28 28 (1254400)
I0925 20:26:02.498700  3547 net.cpp:137] Memory required for data: 407366800
I0925 20:26:02.498703  3547 layer_factory.hpp:77] Creating layer Eltwise7_PReLU15_0_split
I0925 20:26:02.498708  3547 net.cpp:84] Creating Layer Eltwise7_PReLU15_0_split
I0925 20:26:02.498709  3547 net.cpp:406] Eltwise7_PReLU15_0_split <- Eltwise7
I0925 20:26:02.498713  3547 net.cpp:380] Eltwise7_PReLU15_0_split -> Eltwise7_PReLU15_0_split_0
I0925 20:26:02.498718  3547 net.cpp:380] Eltwise7_PReLU15_0_split -> Eltwise7_PReLU15_0_split_1
I0925 20:26:02.498739  3547 net.cpp:122] Setting up Eltwise7_PReLU15_0_split
I0925 20:26:02.498742  3547 net.cpp:129] Top shape: 100 16 28 28 (1254400)
I0925 20:26:02.498744  3547 net.cpp:129] Top shape: 100 16 28 28 (1254400)
I0925 20:26:02.498746  3547 net.cpp:137] Memory required for data: 417402000
I0925 20:26:02.498749  3547 layer_factory.hpp:77] Creating layer Convolution16
I0925 20:26:02.498755  3547 net.cpp:84] Creating Layer Convolution16
I0925 20:26:02.498757  3547 net.cpp:406] Convolution16 <- Eltwise7_PReLU15_0_split_0
I0925 20:26:02.498761  3547 net.cpp:380] Convolution16 -> Convolution16
I0925 20:26:02.499626  3547 net.cpp:122] Setting up Convolution16
I0925 20:26:02.499635  3547 net.cpp:129] Top shape: 100 16 28 28 (1254400)
I0925 20:26:02.499639  3547 net.cpp:137] Memory required for data: 422419600
I0925 20:26:02.499642  3547 layer_factory.hpp:77] Creating layer BatchNorm16
I0925 20:26:02.499647  3547 net.cpp:84] Creating Layer BatchNorm16
I0925 20:26:02.499650  3547 net.cpp:406] BatchNorm16 <- Convolution16
I0925 20:26:02.499653  3547 net.cpp:367] BatchNorm16 -> Convolution16 (in-place)
I0925 20:26:02.499778  3547 net.cpp:122] Setting up BatchNorm16
I0925 20:26:02.499788  3547 net.cpp:129] Top shape: 100 16 28 28 (1254400)
I0925 20:26:02.499791  3547 net.cpp:137] Memory required for data: 427437200
I0925 20:26:02.499796  3547 layer_factory.hpp:77] Creating layer Scale16
I0925 20:26:02.499801  3547 net.cpp:84] Creating Layer Scale16
I0925 20:26:02.499804  3547 net.cpp:406] Scale16 <- Convolution16
I0925 20:26:02.499806  3547 net.cpp:367] Scale16 -> Convolution16 (in-place)
I0925 20:26:02.499832  3547 layer_factory.hpp:77] Creating layer Scale16
I0925 20:26:02.499907  3547 net.cpp:122] Setting up Scale16
I0925 20:26:02.499910  3547 net.cpp:129] Top shape: 100 16 28 28 (1254400)
I0925 20:26:02.499913  3547 net.cpp:137] Memory required for data: 432454800
I0925 20:26:02.499917  3547 layer_factory.hpp:77] Creating layer PReLU16
I0925 20:26:02.499920  3547 net.cpp:84] Creating Layer PReLU16
I0925 20:26:02.499922  3547 net.cpp:406] PReLU16 <- Convolution16
I0925 20:26:02.499925  3547 net.cpp:367] PReLU16 -> Convolution16 (in-place)
I0925 20:26:02.499985  3547 net.cpp:122] Setting up PReLU16
I0925 20:26:02.499989  3547 net.cpp:129] Top shape: 100 16 28 28 (1254400)
I0925 20:26:02.499991  3547 net.cpp:137] Memory required for data: 437472400
I0925 20:26:02.499994  3547 layer_factory.hpp:77] Creating layer Convolution17
I0925 20:26:02.500000  3547 net.cpp:84] Creating Layer Convolution17
I0925 20:26:02.500003  3547 net.cpp:406] Convolution17 <- Convolution16
I0925 20:26:02.500007  3547 net.cpp:380] Convolution17 -> Convolution17
I0925 20:26:02.500555  3547 net.cpp:122] Setting up Convolution17
I0925 20:26:02.500562  3547 net.cpp:129] Top shape: 100 16 28 28 (1254400)
I0925 20:26:02.500564  3547 net.cpp:137] Memory required for data: 442490000
I0925 20:26:02.500577  3547 layer_factory.hpp:77] Creating layer BatchNorm17
I0925 20:26:02.500581  3547 net.cpp:84] Creating Layer BatchNorm17
I0925 20:26:02.500584  3547 net.cpp:406] BatchNorm17 <- Convolution17
I0925 20:26:02.500588  3547 net.cpp:367] BatchNorm17 -> Convolution17 (in-place)
I0925 20:26:02.500711  3547 net.cpp:122] Setting up BatchNorm17
I0925 20:26:02.500716  3547 net.cpp:129] Top shape: 100 16 28 28 (1254400)
I0925 20:26:02.500718  3547 net.cpp:137] Memory required for data: 447507600
I0925 20:26:02.500723  3547 layer_factory.hpp:77] Creating layer Scale17
I0925 20:26:02.500727  3547 net.cpp:84] Creating Layer Scale17
I0925 20:26:02.500730  3547 net.cpp:406] Scale17 <- Convolution17
I0925 20:26:02.500732  3547 net.cpp:367] Scale17 -> Convolution17 (in-place)
I0925 20:26:02.500757  3547 layer_factory.hpp:77] Creating layer Scale17
I0925 20:26:02.500829  3547 net.cpp:122] Setting up Scale17
I0925 20:26:02.500833  3547 net.cpp:129] Top shape: 100 16 28 28 (1254400)
I0925 20:26:02.500835  3547 net.cpp:137] Memory required for data: 452525200
I0925 20:26:02.500839  3547 layer_factory.hpp:77] Creating layer Eltwise8
I0925 20:26:02.500844  3547 net.cpp:84] Creating Layer Eltwise8
I0925 20:26:02.500846  3547 net.cpp:406] Eltwise8 <- Eltwise7_PReLU15_0_split_1
I0925 20:26:02.500849  3547 net.cpp:406] Eltwise8 <- Convolution17
I0925 20:26:02.500852  3547 net.cpp:380] Eltwise8 -> Eltwise8
I0925 20:26:02.500866  3547 net.cpp:122] Setting up Eltwise8
I0925 20:26:02.500870  3547 net.cpp:129] Top shape: 100 16 28 28 (1254400)
I0925 20:26:02.500872  3547 net.cpp:137] Memory required for data: 457542800
I0925 20:26:02.500874  3547 layer_factory.hpp:77] Creating layer PReLU17
I0925 20:26:02.500877  3547 net.cpp:84] Creating Layer PReLU17
I0925 20:26:02.500880  3547 net.cpp:406] PReLU17 <- Eltwise8
I0925 20:26:02.500883  3547 net.cpp:367] PReLU17 -> Eltwise8 (in-place)
I0925 20:26:02.500941  3547 net.cpp:122] Setting up PReLU17
I0925 20:26:02.500946  3547 net.cpp:129] Top shape: 100 16 28 28 (1254400)
I0925 20:26:02.500948  3547 net.cpp:137] Memory required for data: 462560400
I0925 20:26:02.500952  3547 layer_factory.hpp:77] Creating layer Eltwise8_PReLU17_0_split
I0925 20:26:02.500954  3547 net.cpp:84] Creating Layer Eltwise8_PReLU17_0_split
I0925 20:26:02.500957  3547 net.cpp:406] Eltwise8_PReLU17_0_split <- Eltwise8
I0925 20:26:02.500960  3547 net.cpp:380] Eltwise8_PReLU17_0_split -> Eltwise8_PReLU17_0_split_0
I0925 20:26:02.500972  3547 net.cpp:380] Eltwise8_PReLU17_0_split -> Eltwise8_PReLU17_0_split_1
I0925 20:26:02.500993  3547 net.cpp:122] Setting up Eltwise8_PReLU17_0_split
I0925 20:26:02.500998  3547 net.cpp:129] Top shape: 100 16 28 28 (1254400)
I0925 20:26:02.501000  3547 net.cpp:129] Top shape: 100 16 28 28 (1254400)
I0925 20:26:02.501003  3547 net.cpp:137] Memory required for data: 472595600
I0925 20:26:02.501004  3547 layer_factory.hpp:77] Creating layer Convolution18
I0925 20:26:02.501010  3547 net.cpp:84] Creating Layer Convolution18
I0925 20:26:02.501013  3547 net.cpp:406] Convolution18 <- Eltwise8_PReLU17_0_split_0
I0925 20:26:02.501018  3547 net.cpp:380] Convolution18 -> Convolution18
I0925 20:26:02.501854  3547 net.cpp:122] Setting up Convolution18
I0925 20:26:02.501863  3547 net.cpp:129] Top shape: 100 16 28 28 (1254400)
I0925 20:26:02.501866  3547 net.cpp:137] Memory required for data: 477613200
I0925 20:26:02.501870  3547 layer_factory.hpp:77] Creating layer BatchNorm18
I0925 20:26:02.501875  3547 net.cpp:84] Creating Layer BatchNorm18
I0925 20:26:02.501878  3547 net.cpp:406] BatchNorm18 <- Convolution18
I0925 20:26:02.501881  3547 net.cpp:367] BatchNorm18 -> Convolution18 (in-place)
I0925 20:26:02.502004  3547 net.cpp:122] Setting up BatchNorm18
I0925 20:26:02.502008  3547 net.cpp:129] Top shape: 100 16 28 28 (1254400)
I0925 20:26:02.502010  3547 net.cpp:137] Memory required for data: 482630800
I0925 20:26:02.502015  3547 layer_factory.hpp:77] Creating layer Scale18
I0925 20:26:02.502019  3547 net.cpp:84] Creating Layer Scale18
I0925 20:26:02.502022  3547 net.cpp:406] Scale18 <- Convolution18
I0925 20:26:02.502024  3547 net.cpp:367] Scale18 -> Convolution18 (in-place)
I0925 20:26:02.502048  3547 layer_factory.hpp:77] Creating layer Scale18
I0925 20:26:02.502122  3547 net.cpp:122] Setting up Scale18
I0925 20:26:02.502126  3547 net.cpp:129] Top shape: 100 16 28 28 (1254400)
I0925 20:26:02.502128  3547 net.cpp:137] Memory required for data: 487648400
I0925 20:26:02.502132  3547 layer_factory.hpp:77] Creating layer PReLU18
I0925 20:26:02.502136  3547 net.cpp:84] Creating Layer PReLU18
I0925 20:26:02.502138  3547 net.cpp:406] PReLU18 <- Convolution18
I0925 20:26:02.502141  3547 net.cpp:367] PReLU18 -> Convolution18 (in-place)
I0925 20:26:02.502202  3547 net.cpp:122] Setting up PReLU18
I0925 20:26:02.502205  3547 net.cpp:129] Top shape: 100 16 28 28 (1254400)
I0925 20:26:02.502208  3547 net.cpp:137] Memory required for data: 492666000
I0925 20:26:02.502212  3547 layer_factory.hpp:77] Creating layer Convolution19
I0925 20:26:02.502218  3547 net.cpp:84] Creating Layer Convolution19
I0925 20:26:02.502219  3547 net.cpp:406] Convolution19 <- Convolution18
I0925 20:26:02.502223  3547 net.cpp:380] Convolution19 -> Convolution19
I0925 20:26:02.503079  3547 net.cpp:122] Setting up Convolution19
I0925 20:26:02.503087  3547 net.cpp:129] Top shape: 100 16 28 28 (1254400)
I0925 20:26:02.503090  3547 net.cpp:137] Memory required for data: 497683600
I0925 20:26:02.503095  3547 layer_factory.hpp:77] Creating layer BatchNorm19
I0925 20:26:02.503099  3547 net.cpp:84] Creating Layer BatchNorm19
I0925 20:26:02.503103  3547 net.cpp:406] BatchNorm19 <- Convolution19
I0925 20:26:02.503106  3547 net.cpp:367] BatchNorm19 -> Convolution19 (in-place)
I0925 20:26:02.503231  3547 net.cpp:122] Setting up BatchNorm19
I0925 20:26:02.503234  3547 net.cpp:129] Top shape: 100 16 28 28 (1254400)
I0925 20:26:02.503237  3547 net.cpp:137] Memory required for data: 502701200
I0925 20:26:02.503242  3547 layer_factory.hpp:77] Creating layer Scale19
I0925 20:26:02.503245  3547 net.cpp:84] Creating Layer Scale19
I0925 20:26:02.503248  3547 net.cpp:406] Scale19 <- Convolution19
I0925 20:26:02.503252  3547 net.cpp:367] Scale19 -> Convolution19 (in-place)
I0925 20:26:02.503276  3547 layer_factory.hpp:77] Creating layer Scale19
I0925 20:26:02.503348  3547 net.cpp:122] Setting up Scale19
I0925 20:26:02.503352  3547 net.cpp:129] Top shape: 100 16 28 28 (1254400)
I0925 20:26:02.503355  3547 net.cpp:137] Memory required for data: 507718800
I0925 20:26:02.503365  3547 layer_factory.hpp:77] Creating layer Eltwise9
I0925 20:26:02.503370  3547 net.cpp:84] Creating Layer Eltwise9
I0925 20:26:02.503372  3547 net.cpp:406] Eltwise9 <- Eltwise8_PReLU17_0_split_1
I0925 20:26:02.503376  3547 net.cpp:406] Eltwise9 <- Convolution19
I0925 20:26:02.503378  3547 net.cpp:380] Eltwise9 -> Eltwise9
I0925 20:26:02.503394  3547 net.cpp:122] Setting up Eltwise9
I0925 20:26:02.503398  3547 net.cpp:129] Top shape: 100 16 28 28 (1254400)
I0925 20:26:02.503401  3547 net.cpp:137] Memory required for data: 512736400
I0925 20:26:02.503402  3547 layer_factory.hpp:77] Creating layer PReLU19
I0925 20:26:02.503407  3547 net.cpp:84] Creating Layer PReLU19
I0925 20:26:02.503408  3547 net.cpp:406] PReLU19 <- Eltwise9
I0925 20:26:02.503412  3547 net.cpp:367] PReLU19 -> Eltwise9 (in-place)
I0925 20:26:02.503471  3547 net.cpp:122] Setting up PReLU19
I0925 20:26:02.503475  3547 net.cpp:129] Top shape: 100 16 28 28 (1254400)
I0925 20:26:02.503479  3547 net.cpp:137] Memory required for data: 517754000
I0925 20:26:02.503481  3547 layer_factory.hpp:77] Creating layer Eltwise9_PReLU19_0_split
I0925 20:26:02.503484  3547 net.cpp:84] Creating Layer Eltwise9_PReLU19_0_split
I0925 20:26:02.503487  3547 net.cpp:406] Eltwise9_PReLU19_0_split <- Eltwise9
I0925 20:26:02.503490  3547 net.cpp:380] Eltwise9_PReLU19_0_split -> Eltwise9_PReLU19_0_split_0
I0925 20:26:02.503494  3547 net.cpp:380] Eltwise9_PReLU19_0_split -> Eltwise9_PReLU19_0_split_1
I0925 20:26:02.503515  3547 net.cpp:122] Setting up Eltwise9_PReLU19_0_split
I0925 20:26:02.503520  3547 net.cpp:129] Top shape: 100 16 28 28 (1254400)
I0925 20:26:02.503522  3547 net.cpp:129] Top shape: 100 16 28 28 (1254400)
I0925 20:26:02.503525  3547 net.cpp:137] Memory required for data: 527789200
I0925 20:26:02.503526  3547 layer_factory.hpp:77] Creating layer Convolution20
I0925 20:26:02.503532  3547 net.cpp:84] Creating Layer Convolution20
I0925 20:26:02.503535  3547 net.cpp:406] Convolution20 <- Eltwise9_PReLU19_0_split_0
I0925 20:26:02.503540  3547 net.cpp:380] Convolution20 -> Convolution20
I0925 20:26:02.504688  3547 net.cpp:122] Setting up Convolution20
I0925 20:26:02.504696  3547 net.cpp:129] Top shape: 100 32 14 14 (627200)
I0925 20:26:02.504699  3547 net.cpp:137] Memory required for data: 530298000
I0925 20:26:02.504704  3547 layer_factory.hpp:77] Creating layer BatchNorm20
I0925 20:26:02.504709  3547 net.cpp:84] Creating Layer BatchNorm20
I0925 20:26:02.504711  3547 net.cpp:406] BatchNorm20 <- Convolution20
I0925 20:26:02.504716  3547 net.cpp:367] BatchNorm20 -> Convolution20 (in-place)
I0925 20:26:02.504894  3547 net.cpp:122] Setting up BatchNorm20
I0925 20:26:02.504899  3547 net.cpp:129] Top shape: 100 32 14 14 (627200)
I0925 20:26:02.504902  3547 net.cpp:137] Memory required for data: 532806800
I0925 20:26:02.504907  3547 layer_factory.hpp:77] Creating layer Scale20
I0925 20:26:02.504911  3547 net.cpp:84] Creating Layer Scale20
I0925 20:26:02.504914  3547 net.cpp:406] Scale20 <- Convolution20
I0925 20:26:02.504916  3547 net.cpp:367] Scale20 -> Convolution20 (in-place)
I0925 20:26:02.504941  3547 layer_factory.hpp:77] Creating layer Scale20
I0925 20:26:02.505012  3547 net.cpp:122] Setting up Scale20
I0925 20:26:02.505017  3547 net.cpp:129] Top shape: 100 32 14 14 (627200)
I0925 20:26:02.505018  3547 net.cpp:137] Memory required for data: 535315600
I0925 20:26:02.505023  3547 layer_factory.hpp:77] Creating layer Convolution21
I0925 20:26:02.505029  3547 net.cpp:84] Creating Layer Convolution21
I0925 20:26:02.505031  3547 net.cpp:406] Convolution21 <- Eltwise9_PReLU19_0_split_1
I0925 20:26:02.505035  3547 net.cpp:380] Convolution21 -> Convolution21
I0925 20:26:02.506654  3547 net.cpp:122] Setting up Convolution21
I0925 20:26:02.506664  3547 net.cpp:129] Top shape: 100 32 14 14 (627200)
I0925 20:26:02.506666  3547 net.cpp:137] Memory required for data: 537824400
I0925 20:26:02.506671  3547 layer_factory.hpp:77] Creating layer BatchNorm21
I0925 20:26:02.506675  3547 net.cpp:84] Creating Layer BatchNorm21
I0925 20:26:02.506685  3547 net.cpp:406] BatchNorm21 <- Convolution21
I0925 20:26:02.506690  3547 net.cpp:367] BatchNorm21 -> Convolution21 (in-place)
I0925 20:26:02.506819  3547 net.cpp:122] Setting up BatchNorm21
I0925 20:26:02.506824  3547 net.cpp:129] Top shape: 100 32 14 14 (627200)
I0925 20:26:02.506825  3547 net.cpp:137] Memory required for data: 540333200
I0925 20:26:02.506831  3547 layer_factory.hpp:77] Creating layer Scale21
I0925 20:26:02.506835  3547 net.cpp:84] Creating Layer Scale21
I0925 20:26:02.506837  3547 net.cpp:406] Scale21 <- Convolution21
I0925 20:26:02.506841  3547 net.cpp:367] Scale21 -> Convolution21 (in-place)
I0925 20:26:02.506876  3547 layer_factory.hpp:77] Creating layer Scale21
I0925 20:26:02.506973  3547 net.cpp:122] Setting up Scale21
I0925 20:26:02.506979  3547 net.cpp:129] Top shape: 100 32 14 14 (627200)
I0925 20:26:02.506981  3547 net.cpp:137] Memory required for data: 542842000
I0925 20:26:02.506989  3547 layer_factory.hpp:77] Creating layer PReLU20
I0925 20:26:02.506994  3547 net.cpp:84] Creating Layer PReLU20
I0925 20:26:02.506999  3547 net.cpp:406] PReLU20 <- Convolution21
I0925 20:26:02.507004  3547 net.cpp:367] PReLU20 -> Convolution21 (in-place)
I0925 20:26:02.507078  3547 net.cpp:122] Setting up PReLU20
I0925 20:26:02.507083  3547 net.cpp:129] Top shape: 100 32 14 14 (627200)
I0925 20:26:02.507086  3547 net.cpp:137] Memory required for data: 545350800
I0925 20:26:02.507088  3547 layer_factory.hpp:77] Creating layer Convolution22
I0925 20:26:02.507095  3547 net.cpp:84] Creating Layer Convolution22
I0925 20:26:02.507098  3547 net.cpp:406] Convolution22 <- Convolution21
I0925 20:26:02.507102  3547 net.cpp:380] Convolution22 -> Convolution22
I0925 20:26:02.508182  3547 net.cpp:122] Setting up Convolution22
I0925 20:26:02.508189  3547 net.cpp:129] Top shape: 100 32 14 14 (627200)
I0925 20:26:02.508193  3547 net.cpp:137] Memory required for data: 547859600
I0925 20:26:02.508196  3547 layer_factory.hpp:77] Creating layer BatchNorm22
I0925 20:26:02.508201  3547 net.cpp:84] Creating Layer BatchNorm22
I0925 20:26:02.508203  3547 net.cpp:406] BatchNorm22 <- Convolution22
I0925 20:26:02.508208  3547 net.cpp:367] BatchNorm22 -> Convolution22 (in-place)
I0925 20:26:02.508339  3547 net.cpp:122] Setting up BatchNorm22
I0925 20:26:02.508343  3547 net.cpp:129] Top shape: 100 32 14 14 (627200)
I0925 20:26:02.508347  3547 net.cpp:137] Memory required for data: 550368400
I0925 20:26:02.508352  3547 layer_factory.hpp:77] Creating layer Scale22
I0925 20:26:02.508355  3547 net.cpp:84] Creating Layer Scale22
I0925 20:26:02.508358  3547 net.cpp:406] Scale22 <- Convolution22
I0925 20:26:02.508360  3547 net.cpp:367] Scale22 -> Convolution22 (in-place)
I0925 20:26:02.508384  3547 layer_factory.hpp:77] Creating layer Scale22
I0925 20:26:02.508464  3547 net.cpp:122] Setting up Scale22
I0925 20:26:02.508468  3547 net.cpp:129] Top shape: 100 32 14 14 (627200)
I0925 20:26:02.508471  3547 net.cpp:137] Memory required for data: 552877200
I0925 20:26:02.508474  3547 layer_factory.hpp:77] Creating layer Eltwise10
I0925 20:26:02.508478  3547 net.cpp:84] Creating Layer Eltwise10
I0925 20:26:02.508481  3547 net.cpp:406] Eltwise10 <- Convolution20
I0925 20:26:02.508483  3547 net.cpp:406] Eltwise10 <- Convolution22
I0925 20:26:02.508486  3547 net.cpp:380] Eltwise10 -> Eltwise10
I0925 20:26:02.508517  3547 net.cpp:122] Setting up Eltwise10
I0925 20:26:02.508530  3547 net.cpp:129] Top shape: 100 32 14 14 (627200)
I0925 20:26:02.508533  3547 net.cpp:137] Memory required for data: 555386000
I0925 20:26:02.508535  3547 layer_factory.hpp:77] Creating layer PReLU21
I0925 20:26:02.508538  3547 net.cpp:84] Creating Layer PReLU21
I0925 20:26:02.508541  3547 net.cpp:406] PReLU21 <- Eltwise10
I0925 20:26:02.508553  3547 net.cpp:367] PReLU21 -> Eltwise10 (in-place)
I0925 20:26:02.508608  3547 net.cpp:122] Setting up PReLU21
I0925 20:26:02.508613  3547 net.cpp:129] Top shape: 100 32 14 14 (627200)
I0925 20:26:02.508615  3547 net.cpp:137] Memory required for data: 557894800
I0925 20:26:02.508618  3547 layer_factory.hpp:77] Creating layer Eltwise10_PReLU21_0_split
I0925 20:26:02.508630  3547 net.cpp:84] Creating Layer Eltwise10_PReLU21_0_split
I0925 20:26:02.508631  3547 net.cpp:406] Eltwise10_PReLU21_0_split <- Eltwise10
I0925 20:26:02.508635  3547 net.cpp:380] Eltwise10_PReLU21_0_split -> Eltwise10_PReLU21_0_split_0
I0925 20:26:02.508649  3547 net.cpp:380] Eltwise10_PReLU21_0_split -> Eltwise10_PReLU21_0_split_1
I0925 20:26:02.508671  3547 net.cpp:122] Setting up Eltwise10_PReLU21_0_split
I0925 20:26:02.508675  3547 net.cpp:129] Top shape: 100 32 14 14 (627200)
I0925 20:26:02.508678  3547 net.cpp:129] Top shape: 100 32 14 14 (627200)
I0925 20:26:02.508680  3547 net.cpp:137] Memory required for data: 562912400
I0925 20:26:02.508682  3547 layer_factory.hpp:77] Creating layer Convolution23
I0925 20:26:02.508697  3547 net.cpp:84] Creating Layer Convolution23
I0925 20:26:02.508699  3547 net.cpp:406] Convolution23 <- Eltwise10_PReLU21_0_split_0
I0925 20:26:02.508703  3547 net.cpp:380] Convolution23 -> Convolution23
I0925 20:26:02.510006  3547 net.cpp:122] Setting up Convolution23
I0925 20:26:02.510015  3547 net.cpp:129] Top shape: 100 32 14 14 (627200)
I0925 20:26:02.510017  3547 net.cpp:137] Memory required for data: 565421200
I0925 20:26:02.510022  3547 layer_factory.hpp:77] Creating layer BatchNorm23
I0925 20:26:02.510026  3547 net.cpp:84] Creating Layer BatchNorm23
I0925 20:26:02.510030  3547 net.cpp:406] BatchNorm23 <- Convolution23
I0925 20:26:02.510033  3547 net.cpp:367] BatchNorm23 -> Convolution23 (in-place)
I0925 20:26:02.510159  3547 net.cpp:122] Setting up BatchNorm23
I0925 20:26:02.510164  3547 net.cpp:129] Top shape: 100 32 14 14 (627200)
I0925 20:26:02.510165  3547 net.cpp:137] Memory required for data: 567930000
I0925 20:26:02.510170  3547 layer_factory.hpp:77] Creating layer Scale23
I0925 20:26:02.510175  3547 net.cpp:84] Creating Layer Scale23
I0925 20:26:02.510177  3547 net.cpp:406] Scale23 <- Convolution23
I0925 20:26:02.510180  3547 net.cpp:367] Scale23 -> Convolution23 (in-place)
I0925 20:26:02.510205  3547 layer_factory.hpp:77] Creating layer Scale23
I0925 20:26:02.510274  3547 net.cpp:122] Setting up Scale23
I0925 20:26:02.510278  3547 net.cpp:129] Top shape: 100 32 14 14 (627200)
I0925 20:26:02.510280  3547 net.cpp:137] Memory required for data: 570438800
I0925 20:26:02.510284  3547 layer_factory.hpp:77] Creating layer PReLU22
I0925 20:26:02.510288  3547 net.cpp:84] Creating Layer PReLU22
I0925 20:26:02.510290  3547 net.cpp:406] PReLU22 <- Convolution23
I0925 20:26:02.510293  3547 net.cpp:367] PReLU22 -> Convolution23 (in-place)
I0925 20:26:02.510347  3547 net.cpp:122] Setting up PReLU22
I0925 20:26:02.510351  3547 net.cpp:129] Top shape: 100 32 14 14 (627200)
I0925 20:26:02.510354  3547 net.cpp:137] Memory required for data: 572947600
I0925 20:26:02.510356  3547 layer_factory.hpp:77] Creating layer Convolution24
I0925 20:26:02.510362  3547 net.cpp:84] Creating Layer Convolution24
I0925 20:26:02.510365  3547 net.cpp:406] Convolution24 <- Convolution23
I0925 20:26:02.510368  3547 net.cpp:380] Convolution24 -> Convolution24
I0925 20:26:02.511348  3547 net.cpp:122] Setting up Convolution24
I0925 20:26:02.511358  3547 net.cpp:129] Top shape: 100 32 14 14 (627200)
I0925 20:26:02.511359  3547 net.cpp:137] Memory required for data: 575456400
I0925 20:26:02.511364  3547 layer_factory.hpp:77] Creating layer BatchNorm24
I0925 20:26:02.511368  3547 net.cpp:84] Creating Layer BatchNorm24
I0925 20:26:02.511371  3547 net.cpp:406] BatchNorm24 <- Convolution24
I0925 20:26:02.511374  3547 net.cpp:367] BatchNorm24 -> Convolution24 (in-place)
I0925 20:26:02.511498  3547 net.cpp:122] Setting up BatchNorm24
I0925 20:26:02.511502  3547 net.cpp:129] Top shape: 100 32 14 14 (627200)
I0925 20:26:02.511504  3547 net.cpp:137] Memory required for data: 577965200
I0925 20:26:02.511509  3547 layer_factory.hpp:77] Creating layer Scale24
I0925 20:26:02.511513  3547 net.cpp:84] Creating Layer Scale24
I0925 20:26:02.511515  3547 net.cpp:406] Scale24 <- Convolution24
I0925 20:26:02.511518  3547 net.cpp:367] Scale24 -> Convolution24 (in-place)
I0925 20:26:02.511543  3547 layer_factory.hpp:77] Creating layer Scale24
I0925 20:26:02.511621  3547 net.cpp:122] Setting up Scale24
I0925 20:26:02.511626  3547 net.cpp:129] Top shape: 100 32 14 14 (627200)
I0925 20:26:02.511628  3547 net.cpp:137] Memory required for data: 580474000
I0925 20:26:02.511632  3547 layer_factory.hpp:77] Creating layer Eltwise11
I0925 20:26:02.511636  3547 net.cpp:84] Creating Layer Eltwise11
I0925 20:26:02.511639  3547 net.cpp:406] Eltwise11 <- Eltwise10_PReLU21_0_split_1
I0925 20:26:02.511642  3547 net.cpp:406] Eltwise11 <- Convolution24
I0925 20:26:02.511646  3547 net.cpp:380] Eltwise11 -> Eltwise11
I0925 20:26:02.511660  3547 net.cpp:122] Setting up Eltwise11
I0925 20:26:02.511663  3547 net.cpp:129] Top shape: 100 32 14 14 (627200)
I0925 20:26:02.511665  3547 net.cpp:137] Memory required for data: 582982800
I0925 20:26:02.511668  3547 layer_factory.hpp:77] Creating layer PReLU23
I0925 20:26:02.511672  3547 net.cpp:84] Creating Layer PReLU23
I0925 20:26:02.511673  3547 net.cpp:406] PReLU23 <- Eltwise11
I0925 20:26:02.511677  3547 net.cpp:367] PReLU23 -> Eltwise11 (in-place)
I0925 20:26:02.511731  3547 net.cpp:122] Setting up PReLU23
I0925 20:26:02.511736  3547 net.cpp:129] Top shape: 100 32 14 14 (627200)
I0925 20:26:02.511739  3547 net.cpp:137] Memory required for data: 585491600
I0925 20:26:02.511741  3547 layer_factory.hpp:77] Creating layer Eltwise11_PReLU23_0_split
I0925 20:26:02.511744  3547 net.cpp:84] Creating Layer Eltwise11_PReLU23_0_split
I0925 20:26:02.511746  3547 net.cpp:406] Eltwise11_PReLU23_0_split <- Eltwise11
I0925 20:26:02.511749  3547 net.cpp:380] Eltwise11_PReLU23_0_split -> Eltwise11_PReLU23_0_split_0
I0925 20:26:02.511754  3547 net.cpp:380] Eltwise11_PReLU23_0_split -> Eltwise11_PReLU23_0_split_1
I0925 20:26:02.511775  3547 net.cpp:122] Setting up Eltwise11_PReLU23_0_split
I0925 20:26:02.511780  3547 net.cpp:129] Top shape: 100 32 14 14 (627200)
I0925 20:26:02.511782  3547 net.cpp:129] Top shape: 100 32 14 14 (627200)
I0925 20:26:02.511785  3547 net.cpp:137] Memory required for data: 590509200
I0925 20:26:02.511786  3547 layer_factory.hpp:77] Creating layer Convolution25
I0925 20:26:02.511791  3547 net.cpp:84] Creating Layer Convolution25
I0925 20:26:02.511795  3547 net.cpp:406] Convolution25 <- Eltwise11_PReLU23_0_split_0
I0925 20:26:02.511798  3547 net.cpp:380] Convolution25 -> Convolution25
I0925 20:26:02.512811  3547 net.cpp:122] Setting up Convolution25
I0925 20:26:02.512820  3547 net.cpp:129] Top shape: 100 32 14 14 (627200)
I0925 20:26:02.512822  3547 net.cpp:137] Memory required for data: 593018000
I0925 20:26:02.512826  3547 layer_factory.hpp:77] Creating layer BatchNorm25
I0925 20:26:02.512831  3547 net.cpp:84] Creating Layer BatchNorm25
I0925 20:26:02.512835  3547 net.cpp:406] BatchNorm25 <- Convolution25
I0925 20:26:02.512837  3547 net.cpp:367] BatchNorm25 -> Convolution25 (in-place)
I0925 20:26:02.512961  3547 net.cpp:122] Setting up BatchNorm25
I0925 20:26:02.512965  3547 net.cpp:129] Top shape: 100 32 14 14 (627200)
I0925 20:26:02.512969  3547 net.cpp:137] Memory required for data: 595526800
I0925 20:26:02.512972  3547 layer_factory.hpp:77] Creating layer Scale25
I0925 20:26:02.512976  3547 net.cpp:84] Creating Layer Scale25
I0925 20:26:02.512979  3547 net.cpp:406] Scale25 <- Convolution25
I0925 20:26:02.512981  3547 net.cpp:367] Scale25 -> Convolution25 (in-place)
I0925 20:26:02.513006  3547 layer_factory.hpp:77] Creating layer Scale25
I0925 20:26:02.513077  3547 net.cpp:122] Setting up Scale25
I0925 20:26:02.513082  3547 net.cpp:129] Top shape: 100 32 14 14 (627200)
I0925 20:26:02.513083  3547 net.cpp:137] Memory required for data: 598035600
I0925 20:26:02.513087  3547 layer_factory.hpp:77] Creating layer PReLU24
I0925 20:26:02.513092  3547 net.cpp:84] Creating Layer PReLU24
I0925 20:26:02.513093  3547 net.cpp:406] PReLU24 <- Convolution25
I0925 20:26:02.513097  3547 net.cpp:367] PReLU24 -> Convolution25 (in-place)
I0925 20:26:02.513151  3547 net.cpp:122] Setting up PReLU24
I0925 20:26:02.513155  3547 net.cpp:129] Top shape: 100 32 14 14 (627200)
I0925 20:26:02.513157  3547 net.cpp:137] Memory required for data: 600544400
I0925 20:26:02.513166  3547 layer_factory.hpp:77] Creating layer Convolution26
I0925 20:26:02.513173  3547 net.cpp:84] Creating Layer Convolution26
I0925 20:26:02.513175  3547 net.cpp:406] Convolution26 <- Convolution25
I0925 20:26:02.513180  3547 net.cpp:380] Convolution26 -> Convolution26
I0925 20:26:02.514156  3547 net.cpp:122] Setting up Convolution26
I0925 20:26:02.514164  3547 net.cpp:129] Top shape: 100 32 14 14 (627200)
I0925 20:26:02.514168  3547 net.cpp:137] Memory required for data: 603053200
I0925 20:26:02.514171  3547 layer_factory.hpp:77] Creating layer BatchNorm26
I0925 20:26:02.514175  3547 net.cpp:84] Creating Layer BatchNorm26
I0925 20:26:02.514178  3547 net.cpp:406] BatchNorm26 <- Convolution26
I0925 20:26:02.514183  3547 net.cpp:367] BatchNorm26 -> Convolution26 (in-place)
I0925 20:26:02.514304  3547 net.cpp:122] Setting up BatchNorm26
I0925 20:26:02.514308  3547 net.cpp:129] Top shape: 100 32 14 14 (627200)
I0925 20:26:02.514310  3547 net.cpp:137] Memory required for data: 605562000
I0925 20:26:02.514315  3547 layer_factory.hpp:77] Creating layer Scale26
I0925 20:26:02.514319  3547 net.cpp:84] Creating Layer Scale26
I0925 20:26:02.514322  3547 net.cpp:406] Scale26 <- Convolution26
I0925 20:26:02.514324  3547 net.cpp:367] Scale26 -> Convolution26 (in-place)
I0925 20:26:02.514348  3547 layer_factory.hpp:77] Creating layer Scale26
I0925 20:26:02.514420  3547 net.cpp:122] Setting up Scale26
I0925 20:26:02.514423  3547 net.cpp:129] Top shape: 100 32 14 14 (627200)
I0925 20:26:02.514425  3547 net.cpp:137] Memory required for data: 608070800
I0925 20:26:02.514430  3547 layer_factory.hpp:77] Creating layer Eltwise12
I0925 20:26:02.514434  3547 net.cpp:84] Creating Layer Eltwise12
I0925 20:26:02.514436  3547 net.cpp:406] Eltwise12 <- Eltwise11_PReLU23_0_split_1
I0925 20:26:02.514439  3547 net.cpp:406] Eltwise12 <- Convolution26
I0925 20:26:02.514442  3547 net.cpp:380] Eltwise12 -> Eltwise12
I0925 20:26:02.514457  3547 net.cpp:122] Setting up Eltwise12
I0925 20:26:02.514461  3547 net.cpp:129] Top shape: 100 32 14 14 (627200)
I0925 20:26:02.514462  3547 net.cpp:137] Memory required for data: 610579600
I0925 20:26:02.514464  3547 layer_factory.hpp:77] Creating layer PReLU25
I0925 20:26:02.514468  3547 net.cpp:84] Creating Layer PReLU25
I0925 20:26:02.514470  3547 net.cpp:406] PReLU25 <- Eltwise12
I0925 20:26:02.514473  3547 net.cpp:367] PReLU25 -> Eltwise12 (in-place)
I0925 20:26:02.514528  3547 net.cpp:122] Setting up PReLU25
I0925 20:26:02.514533  3547 net.cpp:129] Top shape: 100 32 14 14 (627200)
I0925 20:26:02.514534  3547 net.cpp:137] Memory required for data: 613088400
I0925 20:26:02.514538  3547 layer_factory.hpp:77] Creating layer Eltwise12_PReLU25_0_split
I0925 20:26:02.514546  3547 net.cpp:84] Creating Layer Eltwise12_PReLU25_0_split
I0925 20:26:02.514549  3547 net.cpp:406] Eltwise12_PReLU25_0_split <- Eltwise12
I0925 20:26:02.514552  3547 net.cpp:380] Eltwise12_PReLU25_0_split -> Eltwise12_PReLU25_0_split_0
I0925 20:26:02.514560  3547 net.cpp:380] Eltwise12_PReLU25_0_split -> Eltwise12_PReLU25_0_split_1
I0925 20:26:02.514582  3547 net.cpp:122] Setting up Eltwise12_PReLU25_0_split
I0925 20:26:02.514585  3547 net.cpp:129] Top shape: 100 32 14 14 (627200)
I0925 20:26:02.514588  3547 net.cpp:129] Top shape: 100 32 14 14 (627200)
I0925 20:26:02.514590  3547 net.cpp:137] Memory required for data: 618106000
I0925 20:26:02.514593  3547 layer_factory.hpp:77] Creating layer Convolution27
I0925 20:26:02.514600  3547 net.cpp:84] Creating Layer Convolution27
I0925 20:26:02.514601  3547 net.cpp:406] Convolution27 <- Eltwise12_PReLU25_0_split_0
I0925 20:26:02.514605  3547 net.cpp:380] Convolution27 -> Convolution27
I0925 20:26:02.515266  3547 net.cpp:122] Setting up Convolution27
I0925 20:26:02.515275  3547 net.cpp:129] Top shape: 100 32 14 14 (627200)
I0925 20:26:02.515276  3547 net.cpp:137] Memory required for data: 620614800
I0925 20:26:02.515280  3547 layer_factory.hpp:77] Creating layer BatchNorm27
I0925 20:26:02.515285  3547 net.cpp:84] Creating Layer BatchNorm27
I0925 20:26:02.515293  3547 net.cpp:406] BatchNorm27 <- Convolution27
I0925 20:26:02.515297  3547 net.cpp:367] BatchNorm27 -> Convolution27 (in-place)
I0925 20:26:02.515424  3547 net.cpp:122] Setting up BatchNorm27
I0925 20:26:02.515427  3547 net.cpp:129] Top shape: 100 32 14 14 (627200)
I0925 20:26:02.515429  3547 net.cpp:137] Memory required for data: 623123600
I0925 20:26:02.515434  3547 layer_factory.hpp:77] Creating layer Scale27
I0925 20:26:02.515439  3547 net.cpp:84] Creating Layer Scale27
I0925 20:26:02.515440  3547 net.cpp:406] Scale27 <- Convolution27
I0925 20:26:02.515444  3547 net.cpp:367] Scale27 -> Convolution27 (in-place)
I0925 20:26:02.515467  3547 layer_factory.hpp:77] Creating layer Scale27
I0925 20:26:02.515538  3547 net.cpp:122] Setting up Scale27
I0925 20:26:02.515542  3547 net.cpp:129] Top shape: 100 32 14 14 (627200)
I0925 20:26:02.515544  3547 net.cpp:137] Memory required for data: 625632400
I0925 20:26:02.515548  3547 layer_factory.hpp:77] Creating layer PReLU26
I0925 20:26:02.515552  3547 net.cpp:84] Creating Layer PReLU26
I0925 20:26:02.515553  3547 net.cpp:406] PReLU26 <- Convolution27
I0925 20:26:02.515557  3547 net.cpp:367] PReLU26 -> Convolution27 (in-place)
I0925 20:26:02.515612  3547 net.cpp:122] Setting up PReLU26
I0925 20:26:02.515616  3547 net.cpp:129] Top shape: 100 32 14 14 (627200)
I0925 20:26:02.515619  3547 net.cpp:137] Memory required for data: 628141200
I0925 20:26:02.515622  3547 layer_factory.hpp:77] Creating layer Convolution28
I0925 20:26:02.515628  3547 net.cpp:84] Creating Layer Convolution28
I0925 20:26:02.515630  3547 net.cpp:406] Convolution28 <- Convolution27
I0925 20:26:02.515635  3547 net.cpp:380] Convolution28 -> Convolution28
I0925 20:26:02.516671  3547 net.cpp:122] Setting up Convolution28
I0925 20:26:02.516680  3547 net.cpp:129] Top shape: 100 32 14 14 (627200)
I0925 20:26:02.516683  3547 net.cpp:137] Memory required for data: 630650000
I0925 20:26:02.516688  3547 layer_factory.hpp:77] Creating layer BatchNorm28
I0925 20:26:02.516693  3547 net.cpp:84] Creating Layer BatchNorm28
I0925 20:26:02.516696  3547 net.cpp:406] BatchNorm28 <- Convolution28
I0925 20:26:02.516700  3547 net.cpp:367] BatchNorm28 -> Convolution28 (in-place)
I0925 20:26:02.516835  3547 net.cpp:122] Setting up BatchNorm28
I0925 20:26:02.516840  3547 net.cpp:129] Top shape: 100 32 14 14 (627200)
I0925 20:26:02.516842  3547 net.cpp:137] Memory required for data: 633158800
I0925 20:26:02.516847  3547 layer_factory.hpp:77] Creating layer Scale28
I0925 20:26:02.516852  3547 net.cpp:84] Creating Layer Scale28
I0925 20:26:02.516855  3547 net.cpp:406] Scale28 <- Convolution28
I0925 20:26:02.516857  3547 net.cpp:367] Scale28 -> Convolution28 (in-place)
I0925 20:26:02.516885  3547 layer_factory.hpp:77] Creating layer Scale28
I0925 20:26:02.516960  3547 net.cpp:122] Setting up Scale28
I0925 20:26:02.516964  3547 net.cpp:129] Top shape: 100 32 14 14 (627200)
I0925 20:26:02.516968  3547 net.cpp:137] Memory required for data: 635667600
I0925 20:26:02.516971  3547 layer_factory.hpp:77] Creating layer Eltwise13
I0925 20:26:02.516975  3547 net.cpp:84] Creating Layer Eltwise13
I0925 20:26:02.516978  3547 net.cpp:406] Eltwise13 <- Eltwise12_PReLU25_0_split_1
I0925 20:26:02.516981  3547 net.cpp:406] Eltwise13 <- Convolution28
I0925 20:26:02.516984  3547 net.cpp:380] Eltwise13 -> Eltwise13
I0925 20:26:02.517000  3547 net.cpp:122] Setting up Eltwise13
I0925 20:26:02.517004  3547 net.cpp:129] Top shape: 100 32 14 14 (627200)
I0925 20:26:02.517006  3547 net.cpp:137] Memory required for data: 638176400
I0925 20:26:02.517009  3547 layer_factory.hpp:77] Creating layer PReLU27
I0925 20:26:02.517012  3547 net.cpp:84] Creating Layer PReLU27
I0925 20:26:02.517015  3547 net.cpp:406] PReLU27 <- Eltwise13
I0925 20:26:02.517019  3547 net.cpp:367] PReLU27 -> Eltwise13 (in-place)
I0925 20:26:02.517077  3547 net.cpp:122] Setting up PReLU27
I0925 20:26:02.517082  3547 net.cpp:129] Top shape: 100 32 14 14 (627200)
I0925 20:26:02.517084  3547 net.cpp:137] Memory required for data: 640685200
I0925 20:26:02.517087  3547 layer_factory.hpp:77] Creating layer Eltwise13_PReLU27_0_split
I0925 20:26:02.517098  3547 net.cpp:84] Creating Layer Eltwise13_PReLU27_0_split
I0925 20:26:02.517102  3547 net.cpp:406] Eltwise13_PReLU27_0_split <- Eltwise13
I0925 20:26:02.517105  3547 net.cpp:380] Eltwise13_PReLU27_0_split -> Eltwise13_PReLU27_0_split_0
I0925 20:26:02.517110  3547 net.cpp:380] Eltwise13_PReLU27_0_split -> Eltwise13_PReLU27_0_split_1
I0925 20:26:02.517134  3547 net.cpp:122] Setting up Eltwise13_PReLU27_0_split
I0925 20:26:02.517138  3547 net.cpp:129] Top shape: 100 32 14 14 (627200)
I0925 20:26:02.517141  3547 net.cpp:129] Top shape: 100 32 14 14 (627200)
I0925 20:26:02.517143  3547 net.cpp:137] Memory required for data: 645702800
I0925 20:26:02.517146  3547 layer_factory.hpp:77] Creating layer Convolution29
I0925 20:26:02.517153  3547 net.cpp:84] Creating Layer Convolution29
I0925 20:26:02.517155  3547 net.cpp:406] Convolution29 <- Eltwise13_PReLU27_0_split_0
I0925 20:26:02.517159  3547 net.cpp:380] Convolution29 -> Convolution29
I0925 20:26:02.518149  3547 net.cpp:122] Setting up Convolution29
I0925 20:26:02.518157  3547 net.cpp:129] Top shape: 100 32 14 14 (627200)
I0925 20:26:02.518160  3547 net.cpp:137] Memory required for data: 648211600
I0925 20:26:02.518164  3547 layer_factory.hpp:77] Creating layer BatchNorm29
I0925 20:26:02.518169  3547 net.cpp:84] Creating Layer BatchNorm29
I0925 20:26:02.518172  3547 net.cpp:406] BatchNorm29 <- Convolution29
I0925 20:26:02.518175  3547 net.cpp:367] BatchNorm29 -> Convolution29 (in-place)
I0925 20:26:02.518307  3547 net.cpp:122] Setting up BatchNorm29
I0925 20:26:02.518311  3547 net.cpp:129] Top shape: 100 32 14 14 (627200)
I0925 20:26:02.518314  3547 net.cpp:137] Memory required for data: 650720400
I0925 20:26:02.518318  3547 layer_factory.hpp:77] Creating layer Scale29
I0925 20:26:02.518322  3547 net.cpp:84] Creating Layer Scale29
I0925 20:26:02.518326  3547 net.cpp:406] Scale29 <- Convolution29
I0925 20:26:02.518328  3547 net.cpp:367] Scale29 -> Convolution29 (in-place)
I0925 20:26:02.518354  3547 layer_factory.hpp:77] Creating layer Scale29
I0925 20:26:02.518427  3547 net.cpp:122] Setting up Scale29
I0925 20:26:02.518431  3547 net.cpp:129] Top shape: 100 32 14 14 (627200)
I0925 20:26:02.518435  3547 net.cpp:137] Memory required for data: 653229200
I0925 20:26:02.518438  3547 layer_factory.hpp:77] Creating layer PReLU28
I0925 20:26:02.518441  3547 net.cpp:84] Creating Layer PReLU28
I0925 20:26:02.518443  3547 net.cpp:406] PReLU28 <- Convolution29
I0925 20:26:02.518446  3547 net.cpp:367] PReLU28 -> Convolution29 (in-place)
I0925 20:26:02.518503  3547 net.cpp:122] Setting up PReLU28
I0925 20:26:02.518507  3547 net.cpp:129] Top shape: 100 32 14 14 (627200)
I0925 20:26:02.518510  3547 net.cpp:137] Memory required for data: 655738000
I0925 20:26:02.518513  3547 layer_factory.hpp:77] Creating layer Convolution30
I0925 20:26:02.518519  3547 net.cpp:84] Creating Layer Convolution30
I0925 20:26:02.518522  3547 net.cpp:406] Convolution30 <- Convolution29
I0925 20:26:02.518525  3547 net.cpp:380] Convolution30 -> Convolution30
I0925 20:26:02.519526  3547 net.cpp:122] Setting up Convolution30
I0925 20:26:02.519534  3547 net.cpp:129] Top shape: 100 32 14 14 (627200)
I0925 20:26:02.519537  3547 net.cpp:137] Memory required for data: 658246800
I0925 20:26:02.519541  3547 layer_factory.hpp:77] Creating layer BatchNorm30
I0925 20:26:02.519546  3547 net.cpp:84] Creating Layer BatchNorm30
I0925 20:26:02.519549  3547 net.cpp:406] BatchNorm30 <- Convolution30
I0925 20:26:02.519552  3547 net.cpp:367] BatchNorm30 -> Convolution30 (in-place)
I0925 20:26:02.519675  3547 net.cpp:122] Setting up BatchNorm30
I0925 20:26:02.519680  3547 net.cpp:129] Top shape: 100 32 14 14 (627200)
I0925 20:26:02.519682  3547 net.cpp:137] Memory required for data: 660755600
I0925 20:26:02.519686  3547 layer_factory.hpp:77] Creating layer Scale30
I0925 20:26:02.519690  3547 net.cpp:84] Creating Layer Scale30
I0925 20:26:02.519693  3547 net.cpp:406] Scale30 <- Convolution30
I0925 20:26:02.519696  3547 net.cpp:367] Scale30 -> Convolution30 (in-place)
I0925 20:26:02.519728  3547 layer_factory.hpp:77] Creating layer Scale30
I0925 20:26:02.519801  3547 net.cpp:122] Setting up Scale30
I0925 20:26:02.519805  3547 net.cpp:129] Top shape: 100 32 14 14 (627200)
I0925 20:26:02.519807  3547 net.cpp:137] Memory required for data: 663264400
I0925 20:26:02.519811  3547 layer_factory.hpp:77] Creating layer Eltwise14
I0925 20:26:02.519815  3547 net.cpp:84] Creating Layer Eltwise14
I0925 20:26:02.519817  3547 net.cpp:406] Eltwise14 <- Eltwise13_PReLU27_0_split_1
I0925 20:26:02.519820  3547 net.cpp:406] Eltwise14 <- Convolution30
I0925 20:26:02.519824  3547 net.cpp:380] Eltwise14 -> Eltwise14
I0925 20:26:02.519839  3547 net.cpp:122] Setting up Eltwise14
I0925 20:26:02.519842  3547 net.cpp:129] Top shape: 100 32 14 14 (627200)
I0925 20:26:02.519845  3547 net.cpp:137] Memory required for data: 665773200
I0925 20:26:02.519846  3547 layer_factory.hpp:77] Creating layer PReLU29
I0925 20:26:02.519850  3547 net.cpp:84] Creating Layer PReLU29
I0925 20:26:02.519851  3547 net.cpp:406] PReLU29 <- Eltwise14
I0925 20:26:02.519855  3547 net.cpp:367] PReLU29 -> Eltwise14 (in-place)
I0925 20:26:02.519911  3547 net.cpp:122] Setting up PReLU29
I0925 20:26:02.519914  3547 net.cpp:129] Top shape: 100 32 14 14 (627200)
I0925 20:26:02.519917  3547 net.cpp:137] Memory required for data: 668282000
I0925 20:26:02.519919  3547 layer_factory.hpp:77] Creating layer Eltwise14_PReLU29_0_split
I0925 20:26:02.519923  3547 net.cpp:84] Creating Layer Eltwise14_PReLU29_0_split
I0925 20:26:02.519925  3547 net.cpp:406] Eltwise14_PReLU29_0_split <- Eltwise14
I0925 20:26:02.519928  3547 net.cpp:380] Eltwise14_PReLU29_0_split -> Eltwise14_PReLU29_0_split_0
I0925 20:26:02.519933  3547 net.cpp:380] Eltwise14_PReLU29_0_split -> Eltwise14_PReLU29_0_split_1
I0925 20:26:02.519954  3547 net.cpp:122] Setting up Eltwise14_PReLU29_0_split
I0925 20:26:02.519958  3547 net.cpp:129] Top shape: 100 32 14 14 (627200)
I0925 20:26:02.519960  3547 net.cpp:129] Top shape: 100 32 14 14 (627200)
I0925 20:26:02.519963  3547 net.cpp:137] Memory required for data: 673299600
I0925 20:26:02.519964  3547 layer_factory.hpp:77] Creating layer Convolution31
I0925 20:26:02.519969  3547 net.cpp:84] Creating Layer Convolution31
I0925 20:26:02.519973  3547 net.cpp:406] Convolution31 <- Eltwise14_PReLU29_0_split_0
I0925 20:26:02.519975  3547 net.cpp:380] Convolution31 -> Convolution31
I0925 20:26:02.520984  3547 net.cpp:122] Setting up Convolution31
I0925 20:26:02.520993  3547 net.cpp:129] Top shape: 100 32 14 14 (627200)
I0925 20:26:02.520997  3547 net.cpp:137] Memory required for data: 675808400
I0925 20:26:02.521000  3547 layer_factory.hpp:77] Creating layer BatchNorm31
I0925 20:26:02.521005  3547 net.cpp:84] Creating Layer BatchNorm31
I0925 20:26:02.521008  3547 net.cpp:406] BatchNorm31 <- Convolution31
I0925 20:26:02.521011  3547 net.cpp:367] BatchNorm31 -> Convolution31 (in-place)
I0925 20:26:02.521139  3547 net.cpp:122] Setting up BatchNorm31
I0925 20:26:02.521143  3547 net.cpp:129] Top shape: 100 32 14 14 (627200)
I0925 20:26:02.521147  3547 net.cpp:137] Memory required for data: 678317200
I0925 20:26:02.521150  3547 layer_factory.hpp:77] Creating layer Scale31
I0925 20:26:02.521154  3547 net.cpp:84] Creating Layer Scale31
I0925 20:26:02.521157  3547 net.cpp:406] Scale31 <- Convolution31
I0925 20:26:02.521160  3547 net.cpp:367] Scale31 -> Convolution31 (in-place)
I0925 20:26:02.521185  3547 layer_factory.hpp:77] Creating layer Scale31
I0925 20:26:02.521257  3547 net.cpp:122] Setting up Scale31
I0925 20:26:02.521261  3547 net.cpp:129] Top shape: 100 32 14 14 (627200)
I0925 20:26:02.521265  3547 net.cpp:137] Memory required for data: 680826000
I0925 20:26:02.521267  3547 layer_factory.hpp:77] Creating layer PReLU30
I0925 20:26:02.521271  3547 net.cpp:84] Creating Layer PReLU30
I0925 20:26:02.521273  3547 net.cpp:406] PReLU30 <- Convolution31
I0925 20:26:02.521276  3547 net.cpp:367] PReLU30 -> Convolution31 (in-place)
I0925 20:26:02.521333  3547 net.cpp:122] Setting up PReLU30
I0925 20:26:02.521338  3547 net.cpp:129] Top shape: 100 32 14 14 (627200)
I0925 20:26:02.521347  3547 net.cpp:137] Memory required for data: 683334800
I0925 20:26:02.521350  3547 layer_factory.hpp:77] Creating layer Convolution32
I0925 20:26:02.521356  3547 net.cpp:84] Creating Layer Convolution32
I0925 20:26:02.521359  3547 net.cpp:406] Convolution32 <- Convolution31
I0925 20:26:02.521363  3547 net.cpp:380] Convolution32 -> Convolution32
I0925 20:26:02.522374  3547 net.cpp:122] Setting up Convolution32
I0925 20:26:02.522383  3547 net.cpp:129] Top shape: 100 32 14 14 (627200)
I0925 20:26:02.522385  3547 net.cpp:137] Memory required for data: 685843600
I0925 20:26:02.522390  3547 layer_factory.hpp:77] Creating layer BatchNorm32
I0925 20:26:02.522394  3547 net.cpp:84] Creating Layer BatchNorm32
I0925 20:26:02.522397  3547 net.cpp:406] BatchNorm32 <- Convolution32
I0925 20:26:02.522400  3547 net.cpp:367] BatchNorm32 -> Convolution32 (in-place)
I0925 20:26:02.522526  3547 net.cpp:122] Setting up BatchNorm32
I0925 20:26:02.522531  3547 net.cpp:129] Top shape: 100 32 14 14 (627200)
I0925 20:26:02.522532  3547 net.cpp:137] Memory required for data: 688352400
I0925 20:26:02.522537  3547 layer_factory.hpp:77] Creating layer Scale32
I0925 20:26:02.522541  3547 net.cpp:84] Creating Layer Scale32
I0925 20:26:02.522543  3547 net.cpp:406] Scale32 <- Convolution32
I0925 20:26:02.522547  3547 net.cpp:367] Scale32 -> Convolution32 (in-place)
I0925 20:26:02.522572  3547 layer_factory.hpp:77] Creating layer Scale32
I0925 20:26:02.522644  3547 net.cpp:122] Setting up Scale32
I0925 20:26:02.522647  3547 net.cpp:129] Top shape: 100 32 14 14 (627200)
I0925 20:26:02.522650  3547 net.cpp:137] Memory required for data: 690861200
I0925 20:26:02.522653  3547 layer_factory.hpp:77] Creating layer Eltwise15
I0925 20:26:02.522657  3547 net.cpp:84] Creating Layer Eltwise15
I0925 20:26:02.522660  3547 net.cpp:406] Eltwise15 <- Eltwise14_PReLU29_0_split_1
I0925 20:26:02.522663  3547 net.cpp:406] Eltwise15 <- Convolution32
I0925 20:26:02.522666  3547 net.cpp:380] Eltwise15 -> Eltwise15
I0925 20:26:02.522681  3547 net.cpp:122] Setting up Eltwise15
I0925 20:26:02.522685  3547 net.cpp:129] Top shape: 100 32 14 14 (627200)
I0925 20:26:02.522686  3547 net.cpp:137] Memory required for data: 693370000
I0925 20:26:02.522689  3547 layer_factory.hpp:77] Creating layer PReLU31
I0925 20:26:02.522692  3547 net.cpp:84] Creating Layer PReLU31
I0925 20:26:02.522694  3547 net.cpp:406] PReLU31 <- Eltwise15
I0925 20:26:02.522697  3547 net.cpp:367] PReLU31 -> Eltwise15 (in-place)
I0925 20:26:02.522753  3547 net.cpp:122] Setting up PReLU31
I0925 20:26:02.522758  3547 net.cpp:129] Top shape: 100 32 14 14 (627200)
I0925 20:26:02.522760  3547 net.cpp:137] Memory required for data: 695878800
I0925 20:26:02.522763  3547 layer_factory.hpp:77] Creating layer Eltwise15_PReLU31_0_split
I0925 20:26:02.522766  3547 net.cpp:84] Creating Layer Eltwise15_PReLU31_0_split
I0925 20:26:02.522768  3547 net.cpp:406] Eltwise15_PReLU31_0_split <- Eltwise15
I0925 20:26:02.522771  3547 net.cpp:380] Eltwise15_PReLU31_0_split -> Eltwise15_PReLU31_0_split_0
I0925 20:26:02.522776  3547 net.cpp:380] Eltwise15_PReLU31_0_split -> Eltwise15_PReLU31_0_split_1
I0925 20:26:02.522797  3547 net.cpp:122] Setting up Eltwise15_PReLU31_0_split
I0925 20:26:02.522801  3547 net.cpp:129] Top shape: 100 32 14 14 (627200)
I0925 20:26:02.522804  3547 net.cpp:129] Top shape: 100 32 14 14 (627200)
I0925 20:26:02.522806  3547 net.cpp:137] Memory required for data: 700896400
I0925 20:26:02.522809  3547 layer_factory.hpp:77] Creating layer Convolution33
I0925 20:26:02.522814  3547 net.cpp:84] Creating Layer Convolution33
I0925 20:26:02.522816  3547 net.cpp:406] Convolution33 <- Eltwise15_PReLU31_0_split_0
I0925 20:26:02.522820  3547 net.cpp:380] Convolution33 -> Convolution33
I0925 20:26:02.524211  3547 net.cpp:122] Setting up Convolution33
I0925 20:26:02.524220  3547 net.cpp:129] Top shape: 100 32 14 14 (627200)
I0925 20:26:02.524224  3547 net.cpp:137] Memory required for data: 703405200
I0925 20:26:02.524245  3547 layer_factory.hpp:77] Creating layer BatchNorm33
I0925 20:26:02.524250  3547 net.cpp:84] Creating Layer BatchNorm33
I0925 20:26:02.524260  3547 net.cpp:406] BatchNorm33 <- Convolution33
I0925 20:26:02.524266  3547 net.cpp:367] BatchNorm33 -> Convolution33 (in-place)
I0925 20:26:02.524406  3547 net.cpp:122] Setting up BatchNorm33
I0925 20:26:02.524410  3547 net.cpp:129] Top shape: 100 32 14 14 (627200)
I0925 20:26:02.524413  3547 net.cpp:137] Memory required for data: 705914000
I0925 20:26:02.524417  3547 layer_factory.hpp:77] Creating layer Scale33
I0925 20:26:02.524421  3547 net.cpp:84] Creating Layer Scale33
I0925 20:26:02.524425  3547 net.cpp:406] Scale33 <- Convolution33
I0925 20:26:02.524427  3547 net.cpp:367] Scale33 -> Convolution33 (in-place)
I0925 20:26:02.524452  3547 layer_factory.hpp:77] Creating layer Scale33
I0925 20:26:02.524552  3547 net.cpp:122] Setting up Scale33
I0925 20:26:02.524557  3547 net.cpp:129] Top shape: 100 32 14 14 (627200)
I0925 20:26:02.524559  3547 net.cpp:137] Memory required for data: 708422800
I0925 20:26:02.524564  3547 layer_factory.hpp:77] Creating layer PReLU32
I0925 20:26:02.524567  3547 net.cpp:84] Creating Layer PReLU32
I0925 20:26:02.524569  3547 net.cpp:406] PReLU32 <- Convolution33
I0925 20:26:02.524574  3547 net.cpp:367] PReLU32 -> Convolution33 (in-place)
I0925 20:26:02.524631  3547 net.cpp:122] Setting up PReLU32
I0925 20:26:02.524634  3547 net.cpp:129] Top shape: 100 32 14 14 (627200)
I0925 20:26:02.524637  3547 net.cpp:137] Memory required for data: 710931600
I0925 20:26:02.524641  3547 layer_factory.hpp:77] Creating layer Convolution34
I0925 20:26:02.524647  3547 net.cpp:84] Creating Layer Convolution34
I0925 20:26:02.524649  3547 net.cpp:406] Convolution34 <- Convolution33
I0925 20:26:02.524653  3547 net.cpp:380] Convolution34 -> Convolution34
I0925 20:26:02.525647  3547 net.cpp:122] Setting up Convolution34
I0925 20:26:02.525656  3547 net.cpp:129] Top shape: 100 32 14 14 (627200)
I0925 20:26:02.525660  3547 net.cpp:137] Memory required for data: 713440400
I0925 20:26:02.525663  3547 layer_factory.hpp:77] Creating layer BatchNorm34
I0925 20:26:02.525667  3547 net.cpp:84] Creating Layer BatchNorm34
I0925 20:26:02.525671  3547 net.cpp:406] BatchNorm34 <- Convolution34
I0925 20:26:02.525673  3547 net.cpp:367] BatchNorm34 -> Convolution34 (in-place)
I0925 20:26:02.525801  3547 net.cpp:122] Setting up BatchNorm34
I0925 20:26:02.525805  3547 net.cpp:129] Top shape: 100 32 14 14 (627200)
I0925 20:26:02.525807  3547 net.cpp:137] Memory required for data: 715949200
I0925 20:26:02.525812  3547 layer_factory.hpp:77] Creating layer Scale34
I0925 20:26:02.525816  3547 net.cpp:84] Creating Layer Scale34
I0925 20:26:02.525818  3547 net.cpp:406] Scale34 <- Convolution34
I0925 20:26:02.525821  3547 net.cpp:367] Scale34 -> Convolution34 (in-place)
I0925 20:26:02.525846  3547 layer_factory.hpp:77] Creating layer Scale34
I0925 20:26:02.525918  3547 net.cpp:122] Setting up Scale34
I0925 20:26:02.525921  3547 net.cpp:129] Top shape: 100 32 14 14 (627200)
I0925 20:26:02.525923  3547 net.cpp:137] Memory required for data: 718458000
I0925 20:26:02.525928  3547 layer_factory.hpp:77] Creating layer Eltwise16
I0925 20:26:02.525931  3547 net.cpp:84] Creating Layer Eltwise16
I0925 20:26:02.525933  3547 net.cpp:406] Eltwise16 <- Eltwise15_PReLU31_0_split_1
I0925 20:26:02.525936  3547 net.cpp:406] Eltwise16 <- Convolution34
I0925 20:26:02.525939  3547 net.cpp:380] Eltwise16 -> Eltwise16
I0925 20:26:02.525954  3547 net.cpp:122] Setting up Eltwise16
I0925 20:26:02.525959  3547 net.cpp:129] Top shape: 100 32 14 14 (627200)
I0925 20:26:02.525960  3547 net.cpp:137] Memory required for data: 720966800
I0925 20:26:02.525962  3547 layer_factory.hpp:77] Creating layer PReLU33
I0925 20:26:02.525965  3547 net.cpp:84] Creating Layer PReLU33
I0925 20:26:02.525967  3547 net.cpp:406] PReLU33 <- Eltwise16
I0925 20:26:02.525970  3547 net.cpp:367] PReLU33 -> Eltwise16 (in-place)
I0925 20:26:02.526026  3547 net.cpp:122] Setting up PReLU33
I0925 20:26:02.526031  3547 net.cpp:129] Top shape: 100 32 14 14 (627200)
I0925 20:26:02.526033  3547 net.cpp:137] Memory required for data: 723475600
I0925 20:26:02.526036  3547 layer_factory.hpp:77] Creating layer Eltwise16_PReLU33_0_split
I0925 20:26:02.526046  3547 net.cpp:84] Creating Layer Eltwise16_PReLU33_0_split
I0925 20:26:02.526049  3547 net.cpp:406] Eltwise16_PReLU33_0_split <- Eltwise16
I0925 20:26:02.526052  3547 net.cpp:380] Eltwise16_PReLU33_0_split -> Eltwise16_PReLU33_0_split_0
I0925 20:26:02.526057  3547 net.cpp:380] Eltwise16_PReLU33_0_split -> Eltwise16_PReLU33_0_split_1
I0925 20:26:02.526079  3547 net.cpp:122] Setting up Eltwise16_PReLU33_0_split
I0925 20:26:02.526082  3547 net.cpp:129] Top shape: 100 32 14 14 (627200)
I0925 20:26:02.526085  3547 net.cpp:129] Top shape: 100 32 14 14 (627200)
I0925 20:26:02.526087  3547 net.cpp:137] Memory required for data: 728493200
I0925 20:26:02.526089  3547 layer_factory.hpp:77] Creating layer Convolution35
I0925 20:26:02.526095  3547 net.cpp:84] Creating Layer Convolution35
I0925 20:26:02.526098  3547 net.cpp:406] Convolution35 <- Eltwise16_PReLU33_0_split_0
I0925 20:26:02.526101  3547 net.cpp:380] Convolution35 -> Convolution35
I0925 20:26:02.527093  3547 net.cpp:122] Setting up Convolution35
I0925 20:26:02.527101  3547 net.cpp:129] Top shape: 100 32 14 14 (627200)
I0925 20:26:02.527104  3547 net.cpp:137] Memory required for data: 731002000
I0925 20:26:02.527108  3547 layer_factory.hpp:77] Creating layer BatchNorm35
I0925 20:26:02.527113  3547 net.cpp:84] Creating Layer BatchNorm35
I0925 20:26:02.527117  3547 net.cpp:406] BatchNorm35 <- Convolution35
I0925 20:26:02.527120  3547 net.cpp:367] BatchNorm35 -> Convolution35 (in-place)
I0925 20:26:02.527246  3547 net.cpp:122] Setting up BatchNorm35
I0925 20:26:02.527251  3547 net.cpp:129] Top shape: 100 32 14 14 (627200)
I0925 20:26:02.527253  3547 net.cpp:137] Memory required for data: 733510800
I0925 20:26:02.527258  3547 layer_factory.hpp:77] Creating layer Scale35
I0925 20:26:02.527262  3547 net.cpp:84] Creating Layer Scale35
I0925 20:26:02.527264  3547 net.cpp:406] Scale35 <- Convolution35
I0925 20:26:02.527267  3547 net.cpp:367] Scale35 -> Convolution35 (in-place)
I0925 20:26:02.527292  3547 layer_factory.hpp:77] Creating layer Scale35
I0925 20:26:02.527364  3547 net.cpp:122] Setting up Scale35
I0925 20:26:02.527369  3547 net.cpp:129] Top shape: 100 32 14 14 (627200)
I0925 20:26:02.527370  3547 net.cpp:137] Memory required for data: 736019600
I0925 20:26:02.527374  3547 layer_factory.hpp:77] Creating layer PReLU34
I0925 20:26:02.527377  3547 net.cpp:84] Creating Layer PReLU34
I0925 20:26:02.527380  3547 net.cpp:406] PReLU34 <- Convolution35
I0925 20:26:02.527384  3547 net.cpp:367] PReLU34 -> Convolution35 (in-place)
I0925 20:26:02.527439  3547 net.cpp:122] Setting up PReLU34
I0925 20:26:02.527444  3547 net.cpp:129] Top shape: 100 32 14 14 (627200)
I0925 20:26:02.527446  3547 net.cpp:137] Memory required for data: 738528400
I0925 20:26:02.527449  3547 layer_factory.hpp:77] Creating layer Convolution36
I0925 20:26:02.527456  3547 net.cpp:84] Creating Layer Convolution36
I0925 20:26:02.527458  3547 net.cpp:406] Convolution36 <- Convolution35
I0925 20:26:02.527465  3547 net.cpp:380] Convolution36 -> Convolution36
I0925 20:26:02.528486  3547 net.cpp:122] Setting up Convolution36
I0925 20:26:02.528509  3547 net.cpp:129] Top shape: 100 32 14 14 (627200)
I0925 20:26:02.528512  3547 net.cpp:137] Memory required for data: 741037200
I0925 20:26:02.528517  3547 layer_factory.hpp:77] Creating layer BatchNorm36
I0925 20:26:02.528522  3547 net.cpp:84] Creating Layer BatchNorm36
I0925 20:26:02.528524  3547 net.cpp:406] BatchNorm36 <- Convolution36
I0925 20:26:02.528528  3547 net.cpp:367] BatchNorm36 -> Convolution36 (in-place)
I0925 20:26:02.528671  3547 net.cpp:122] Setting up BatchNorm36
I0925 20:26:02.528676  3547 net.cpp:129] Top shape: 100 32 14 14 (627200)
I0925 20:26:02.528677  3547 net.cpp:137] Memory required for data: 743546000
I0925 20:26:02.528682  3547 layer_factory.hpp:77] Creating layer Scale36
I0925 20:26:02.528687  3547 net.cpp:84] Creating Layer Scale36
I0925 20:26:02.528688  3547 net.cpp:406] Scale36 <- Convolution36
I0925 20:26:02.528692  3547 net.cpp:367] Scale36 -> Convolution36 (in-place)
I0925 20:26:02.528726  3547 layer_factory.hpp:77] Creating layer Scale36
I0925 20:26:02.528802  3547 net.cpp:122] Setting up Scale36
I0925 20:26:02.528807  3547 net.cpp:129] Top shape: 100 32 14 14 (627200)
I0925 20:26:02.528810  3547 net.cpp:137] Memory required for data: 746054800
I0925 20:26:02.528812  3547 layer_factory.hpp:77] Creating layer Eltwise17
I0925 20:26:02.528816  3547 net.cpp:84] Creating Layer Eltwise17
I0925 20:26:02.528820  3547 net.cpp:406] Eltwise17 <- Eltwise16_PReLU33_0_split_1
I0925 20:26:02.528822  3547 net.cpp:406] Eltwise17 <- Convolution36
I0925 20:26:02.528825  3547 net.cpp:380] Eltwise17 -> Eltwise17
I0925 20:26:02.528841  3547 net.cpp:122] Setting up Eltwise17
I0925 20:26:02.528846  3547 net.cpp:129] Top shape: 100 32 14 14 (627200)
I0925 20:26:02.528847  3547 net.cpp:137] Memory required for data: 748563600
I0925 20:26:02.528849  3547 layer_factory.hpp:77] Creating layer PReLU35
I0925 20:26:02.528852  3547 net.cpp:84] Creating Layer PReLU35
I0925 20:26:02.528854  3547 net.cpp:406] PReLU35 <- Eltwise17
I0925 20:26:02.528858  3547 net.cpp:367] PReLU35 -> Eltwise17 (in-place)
I0925 20:26:02.528916  3547 net.cpp:122] Setting up PReLU35
I0925 20:26:02.528920  3547 net.cpp:129] Top shape: 100 32 14 14 (627200)
I0925 20:26:02.528923  3547 net.cpp:137] Memory required for data: 751072400
I0925 20:26:02.528925  3547 layer_factory.hpp:77] Creating layer Eltwise17_PReLU35_0_split
I0925 20:26:02.528929  3547 net.cpp:84] Creating Layer Eltwise17_PReLU35_0_split
I0925 20:26:02.528931  3547 net.cpp:406] Eltwise17_PReLU35_0_split <- Eltwise17
I0925 20:26:02.528934  3547 net.cpp:380] Eltwise17_PReLU35_0_split -> Eltwise17_PReLU35_0_split_0
I0925 20:26:02.528939  3547 net.cpp:380] Eltwise17_PReLU35_0_split -> Eltwise17_PReLU35_0_split_1
I0925 20:26:02.528962  3547 net.cpp:122] Setting up Eltwise17_PReLU35_0_split
I0925 20:26:02.528966  3547 net.cpp:129] Top shape: 100 32 14 14 (627200)
I0925 20:26:02.528969  3547 net.cpp:129] Top shape: 100 32 14 14 (627200)
I0925 20:26:02.528970  3547 net.cpp:137] Memory required for data: 756090000
I0925 20:26:02.528972  3547 layer_factory.hpp:77] Creating layer Convolution37
I0925 20:26:02.528978  3547 net.cpp:84] Creating Layer Convolution37
I0925 20:26:02.528981  3547 net.cpp:406] Convolution37 <- Eltwise17_PReLU35_0_split_0
I0925 20:26:02.528985  3547 net.cpp:380] Convolution37 -> Convolution37
I0925 20:26:02.529675  3547 net.cpp:122] Setting up Convolution37
I0925 20:26:02.529683  3547 net.cpp:129] Top shape: 100 32 14 14 (627200)
I0925 20:26:02.529685  3547 net.cpp:137] Memory required for data: 758598800
I0925 20:26:02.529690  3547 layer_factory.hpp:77] Creating layer BatchNorm37
I0925 20:26:02.529695  3547 net.cpp:84] Creating Layer BatchNorm37
I0925 20:26:02.529696  3547 net.cpp:406] BatchNorm37 <- Convolution37
I0925 20:26:02.529700  3547 net.cpp:367] BatchNorm37 -> Convolution37 (in-place)
I0925 20:26:02.529830  3547 net.cpp:122] Setting up BatchNorm37
I0925 20:26:02.529835  3547 net.cpp:129] Top shape: 100 32 14 14 (627200)
I0925 20:26:02.529836  3547 net.cpp:137] Memory required for data: 761107600
I0925 20:26:02.529841  3547 layer_factory.hpp:77] Creating layer Scale37
I0925 20:26:02.529845  3547 net.cpp:84] Creating Layer Scale37
I0925 20:26:02.529847  3547 net.cpp:406] Scale37 <- Convolution37
I0925 20:26:02.529850  3547 net.cpp:367] Scale37 -> Convolution37 (in-place)
I0925 20:26:02.529876  3547 layer_factory.hpp:77] Creating layer Scale37
I0925 20:26:02.529952  3547 net.cpp:122] Setting up Scale37
I0925 20:26:02.529956  3547 net.cpp:129] Top shape: 100 32 14 14 (627200)
I0925 20:26:02.529958  3547 net.cpp:137] Memory required for data: 763616400
I0925 20:26:02.529963  3547 layer_factory.hpp:77] Creating layer PReLU36
I0925 20:26:02.529965  3547 net.cpp:84] Creating Layer PReLU36
I0925 20:26:02.529968  3547 net.cpp:406] PReLU36 <- Convolution37
I0925 20:26:02.529970  3547 net.cpp:367] PReLU36 -> Convolution37 (in-place)
I0925 20:26:02.530028  3547 net.cpp:122] Setting up PReLU36
I0925 20:26:02.530032  3547 net.cpp:129] Top shape: 100 32 14 14 (627200)
I0925 20:26:02.530040  3547 net.cpp:137] Memory required for data: 766125200
I0925 20:26:02.530043  3547 layer_factory.hpp:77] Creating layer Convolution38
I0925 20:26:02.530050  3547 net.cpp:84] Creating Layer Convolution38
I0925 20:26:02.530051  3547 net.cpp:406] Convolution38 <- Convolution37
I0925 20:26:02.530055  3547 net.cpp:380] Convolution38 -> Convolution38
I0925 20:26:02.531090  3547 net.cpp:122] Setting up Convolution38
I0925 20:26:02.531098  3547 net.cpp:129] Top shape: 100 32 14 14 (627200)
I0925 20:26:02.531101  3547 net.cpp:137] Memory required for data: 768634000
I0925 20:26:02.531105  3547 layer_factory.hpp:77] Creating layer BatchNorm38
I0925 20:26:02.531111  3547 net.cpp:84] Creating Layer BatchNorm38
I0925 20:26:02.531113  3547 net.cpp:406] BatchNorm38 <- Convolution38
I0925 20:26:02.531116  3547 net.cpp:367] BatchNorm38 -> Convolution38 (in-place)
I0925 20:26:02.531250  3547 net.cpp:122] Setting up BatchNorm38
I0925 20:26:02.531255  3547 net.cpp:129] Top shape: 100 32 14 14 (627200)
I0925 20:26:02.531256  3547 net.cpp:137] Memory required for data: 771142800
I0925 20:26:02.531261  3547 layer_factory.hpp:77] Creating layer Scale38
I0925 20:26:02.531265  3547 net.cpp:84] Creating Layer Scale38
I0925 20:26:02.531267  3547 net.cpp:406] Scale38 <- Convolution38
I0925 20:26:02.531270  3547 net.cpp:367] Scale38 -> Convolution38 (in-place)
I0925 20:26:02.531297  3547 layer_factory.hpp:77] Creating layer Scale38
I0925 20:26:02.531371  3547 net.cpp:122] Setting up Scale38
I0925 20:26:02.531376  3547 net.cpp:129] Top shape: 100 32 14 14 (627200)
I0925 20:26:02.531378  3547 net.cpp:137] Memory required for data: 773651600
I0925 20:26:02.531381  3547 layer_factory.hpp:77] Creating layer Eltwise18
I0925 20:26:02.531386  3547 net.cpp:84] Creating Layer Eltwise18
I0925 20:26:02.531388  3547 net.cpp:406] Eltwise18 <- Eltwise17_PReLU35_0_split_1
I0925 20:26:02.531391  3547 net.cpp:406] Eltwise18 <- Convolution38
I0925 20:26:02.531394  3547 net.cpp:380] Eltwise18 -> Eltwise18
I0925 20:26:02.531410  3547 net.cpp:122] Setting up Eltwise18
I0925 20:26:02.531414  3547 net.cpp:129] Top shape: 100 32 14 14 (627200)
I0925 20:26:02.531415  3547 net.cpp:137] Memory required for data: 776160400
I0925 20:26:02.531417  3547 layer_factory.hpp:77] Creating layer PReLU37
I0925 20:26:02.531421  3547 net.cpp:84] Creating Layer PReLU37
I0925 20:26:02.531424  3547 net.cpp:406] PReLU37 <- Eltwise18
I0925 20:26:02.531426  3547 net.cpp:367] PReLU37 -> Eltwise18 (in-place)
I0925 20:26:02.531486  3547 net.cpp:122] Setting up PReLU37
I0925 20:26:02.531491  3547 net.cpp:129] Top shape: 100 32 14 14 (627200)
I0925 20:26:02.531492  3547 net.cpp:137] Memory required for data: 778669200
I0925 20:26:02.531494  3547 layer_factory.hpp:77] Creating layer Eltwise18_PReLU37_0_split
I0925 20:26:02.531498  3547 net.cpp:84] Creating Layer Eltwise18_PReLU37_0_split
I0925 20:26:02.531502  3547 net.cpp:406] Eltwise18_PReLU37_0_split <- Eltwise18
I0925 20:26:02.531504  3547 net.cpp:380] Eltwise18_PReLU37_0_split -> Eltwise18_PReLU37_0_split_0
I0925 20:26:02.531508  3547 net.cpp:380] Eltwise18_PReLU37_0_split -> Eltwise18_PReLU37_0_split_1
I0925 20:26:02.531532  3547 net.cpp:122] Setting up Eltwise18_PReLU37_0_split
I0925 20:26:02.531534  3547 net.cpp:129] Top shape: 100 32 14 14 (627200)
I0925 20:26:02.531538  3547 net.cpp:129] Top shape: 100 32 14 14 (627200)
I0925 20:26:02.531539  3547 net.cpp:137] Memory required for data: 783686800
I0925 20:26:02.531541  3547 layer_factory.hpp:77] Creating layer Convolution39
I0925 20:26:02.531548  3547 net.cpp:84] Creating Layer Convolution39
I0925 20:26:02.531549  3547 net.cpp:406] Convolution39 <- Eltwise18_PReLU37_0_split_0
I0925 20:26:02.531554  3547 net.cpp:380] Convolution39 -> Convolution39
I0925 20:26:02.532421  3547 net.cpp:122] Setting up Convolution39
I0925 20:26:02.532429  3547 net.cpp:129] Top shape: 100 64 7 7 (313600)
I0925 20:26:02.532433  3547 net.cpp:137] Memory required for data: 784941200
I0925 20:26:02.532438  3547 layer_factory.hpp:77] Creating layer BatchNorm39
I0925 20:26:02.532441  3547 net.cpp:84] Creating Layer BatchNorm39
I0925 20:26:02.532450  3547 net.cpp:406] BatchNorm39 <- Convolution39
I0925 20:26:02.532454  3547 net.cpp:367] BatchNorm39 -> Convolution39 (in-place)
I0925 20:26:02.532615  3547 net.cpp:122] Setting up BatchNorm39
I0925 20:26:02.532621  3547 net.cpp:129] Top shape: 100 64 7 7 (313600)
I0925 20:26:02.532624  3547 net.cpp:137] Memory required for data: 786195600
I0925 20:26:02.532629  3547 layer_factory.hpp:77] Creating layer Scale39
I0925 20:26:02.532632  3547 net.cpp:84] Creating Layer Scale39
I0925 20:26:02.532634  3547 net.cpp:406] Scale39 <- Convolution39
I0925 20:26:02.532637  3547 net.cpp:367] Scale39 -> Convolution39 (in-place)
I0925 20:26:02.532665  3547 layer_factory.hpp:77] Creating layer Scale39
I0925 20:26:02.532742  3547 net.cpp:122] Setting up Scale39
I0925 20:26:02.532747  3547 net.cpp:129] Top shape: 100 64 7 7 (313600)
I0925 20:26:02.532748  3547 net.cpp:137] Memory required for data: 787450000
I0925 20:26:02.532752  3547 layer_factory.hpp:77] Creating layer Convolution40
I0925 20:26:02.532758  3547 net.cpp:84] Creating Layer Convolution40
I0925 20:26:02.532762  3547 net.cpp:406] Convolution40 <- Eltwise18_PReLU37_0_split_1
I0925 20:26:02.532765  3547 net.cpp:380] Convolution40 -> Convolution40
I0925 20:26:02.534555  3547 net.cpp:122] Setting up Convolution40
I0925 20:26:02.534567  3547 net.cpp:129] Top shape: 100 64 7 7 (313600)
I0925 20:26:02.534570  3547 net.cpp:137] Memory required for data: 788704400
I0925 20:26:02.534575  3547 layer_factory.hpp:77] Creating layer BatchNorm40
I0925 20:26:02.534580  3547 net.cpp:84] Creating Layer BatchNorm40
I0925 20:26:02.534582  3547 net.cpp:406] BatchNorm40 <- Convolution40
I0925 20:26:02.534587  3547 net.cpp:367] BatchNorm40 -> Convolution40 (in-place)
I0925 20:26:02.534739  3547 net.cpp:122] Setting up BatchNorm40
I0925 20:26:02.534744  3547 net.cpp:129] Top shape: 100 64 7 7 (313600)
I0925 20:26:02.534745  3547 net.cpp:137] Memory required for data: 789958800
I0925 20:26:02.534750  3547 layer_factory.hpp:77] Creating layer Scale40
I0925 20:26:02.534755  3547 net.cpp:84] Creating Layer Scale40
I0925 20:26:02.534759  3547 net.cpp:406] Scale40 <- Convolution40
I0925 20:26:02.534761  3547 net.cpp:367] Scale40 -> Convolution40 (in-place)
I0925 20:26:02.534791  3547 layer_factory.hpp:77] Creating layer Scale40
I0925 20:26:02.534876  3547 net.cpp:122] Setting up Scale40
I0925 20:26:02.534881  3547 net.cpp:129] Top shape: 100 64 7 7 (313600)
I0925 20:26:02.534883  3547 net.cpp:137] Memory required for data: 791213200
I0925 20:26:02.534888  3547 layer_factory.hpp:77] Creating layer PReLU38
I0925 20:26:02.534891  3547 net.cpp:84] Creating Layer PReLU38
I0925 20:26:02.534894  3547 net.cpp:406] PReLU38 <- Convolution40
I0925 20:26:02.534898  3547 net.cpp:367] PReLU38 -> Convolution40 (in-place)
I0925 20:26:02.534961  3547 net.cpp:122] Setting up PReLU38
I0925 20:26:02.534966  3547 net.cpp:129] Top shape: 100 64 7 7 (313600)
I0925 20:26:02.534968  3547 net.cpp:137] Memory required for data: 792467600
I0925 20:26:02.534971  3547 layer_factory.hpp:77] Creating layer Convolution41
I0925 20:26:02.534978  3547 net.cpp:84] Creating Layer Convolution41
I0925 20:26:02.534981  3547 net.cpp:406] Convolution41 <- Convolution40
I0925 20:26:02.534986  3547 net.cpp:380] Convolution41 -> Convolution41
I0925 20:26:02.536972  3547 net.cpp:122] Setting up Convolution41
I0925 20:26:02.536980  3547 net.cpp:129] Top shape: 100 64 7 7 (313600)
I0925 20:26:02.536983  3547 net.cpp:137] Memory required for data: 793722000
I0925 20:26:02.536988  3547 layer_factory.hpp:77] Creating layer BatchNorm41
I0925 20:26:02.536993  3547 net.cpp:84] Creating Layer BatchNorm41
I0925 20:26:02.536995  3547 net.cpp:406] BatchNorm41 <- Convolution41
I0925 20:26:02.536999  3547 net.cpp:367] BatchNorm41 -> Convolution41 (in-place)
I0925 20:26:02.537184  3547 net.cpp:122] Setting up BatchNorm41
I0925 20:26:02.537192  3547 net.cpp:129] Top shape: 100 64 7 7 (313600)
I0925 20:26:02.537196  3547 net.cpp:137] Memory required for data: 794976400
I0925 20:26:02.537204  3547 layer_factory.hpp:77] Creating layer Scale41
I0925 20:26:02.537221  3547 net.cpp:84] Creating Layer Scale41
I0925 20:26:02.537225  3547 net.cpp:406] Scale41 <- Convolution41
I0925 20:26:02.537228  3547 net.cpp:367] Scale41 -> Convolution41 (in-place)
I0925 20:26:02.537258  3547 layer_factory.hpp:77] Creating layer Scale41
I0925 20:26:02.537338  3547 net.cpp:122] Setting up Scale41
I0925 20:26:02.537343  3547 net.cpp:129] Top shape: 100 64 7 7 (313600)
I0925 20:26:02.537345  3547 net.cpp:137] Memory required for data: 796230800
I0925 20:26:02.537349  3547 layer_factory.hpp:77] Creating layer Eltwise19
I0925 20:26:02.537353  3547 net.cpp:84] Creating Layer Eltwise19
I0925 20:26:02.537356  3547 net.cpp:406] Eltwise19 <- Convolution39
I0925 20:26:02.537359  3547 net.cpp:406] Eltwise19 <- Convolution41
I0925 20:26:02.537364  3547 net.cpp:380] Eltwise19 -> Eltwise19
I0925 20:26:02.537379  3547 net.cpp:122] Setting up Eltwise19
I0925 20:26:02.537382  3547 net.cpp:129] Top shape: 100 64 7 7 (313600)
I0925 20:26:02.537384  3547 net.cpp:137] Memory required for data: 797485200
I0925 20:26:02.537386  3547 layer_factory.hpp:77] Creating layer PReLU39
I0925 20:26:02.537391  3547 net.cpp:84] Creating Layer PReLU39
I0925 20:26:02.537394  3547 net.cpp:406] PReLU39 <- Eltwise19
I0925 20:26:02.537396  3547 net.cpp:367] PReLU39 -> Eltwise19 (in-place)
I0925 20:26:02.537456  3547 net.cpp:122] Setting up PReLU39
I0925 20:26:02.537461  3547 net.cpp:129] Top shape: 100 64 7 7 (313600)
I0925 20:26:02.537463  3547 net.cpp:137] Memory required for data: 798739600
I0925 20:26:02.537467  3547 layer_factory.hpp:77] Creating layer Eltwise19_PReLU39_0_split
I0925 20:26:02.537470  3547 net.cpp:84] Creating Layer Eltwise19_PReLU39_0_split
I0925 20:26:02.537472  3547 net.cpp:406] Eltwise19_PReLU39_0_split <- Eltwise19
I0925 20:26:02.537475  3547 net.cpp:380] Eltwise19_PReLU39_0_split -> Eltwise19_PReLU39_0_split_0
I0925 20:26:02.537479  3547 net.cpp:380] Eltwise19_PReLU39_0_split -> Eltwise19_PReLU39_0_split_1
I0925 20:26:02.537503  3547 net.cpp:122] Setting up Eltwise19_PReLU39_0_split
I0925 20:26:02.537508  3547 net.cpp:129] Top shape: 100 64 7 7 (313600)
I0925 20:26:02.537510  3547 net.cpp:129] Top shape: 100 64 7 7 (313600)
I0925 20:26:02.537513  3547 net.cpp:137] Memory required for data: 801248400
I0925 20:26:02.537514  3547 layer_factory.hpp:77] Creating layer Convolution42
I0925 20:26:02.537520  3547 net.cpp:84] Creating Layer Convolution42
I0925 20:26:02.537523  3547 net.cpp:406] Convolution42 <- Eltwise19_PReLU39_0_split_0
I0925 20:26:02.537528  3547 net.cpp:380] Convolution42 -> Convolution42
I0925 20:26:02.539572  3547 net.cpp:122] Setting up Convolution42
I0925 20:26:02.539582  3547 net.cpp:129] Top shape: 100 64 7 7 (313600)
I0925 20:26:02.539584  3547 net.cpp:137] Memory required for data: 802502800
I0925 20:26:02.539589  3547 layer_factory.hpp:77] Creating layer BatchNorm42
I0925 20:26:02.539593  3547 net.cpp:84] Creating Layer BatchNorm42
I0925 20:26:02.539597  3547 net.cpp:406] BatchNorm42 <- Convolution42
I0925 20:26:02.539600  3547 net.cpp:367] BatchNorm42 -> Convolution42 (in-place)
I0925 20:26:02.539736  3547 net.cpp:122] Setting up BatchNorm42
I0925 20:26:02.539741  3547 net.cpp:129] Top shape: 100 64 7 7 (313600)
I0925 20:26:02.539742  3547 net.cpp:137] Memory required for data: 803757200
I0925 20:26:02.539747  3547 layer_factory.hpp:77] Creating layer Scale42
I0925 20:26:02.539752  3547 net.cpp:84] Creating Layer Scale42
I0925 20:26:02.539753  3547 net.cpp:406] Scale42 <- Convolution42
I0925 20:26:02.539757  3547 net.cpp:367] Scale42 -> Convolution42 (in-place)
I0925 20:26:02.539784  3547 layer_factory.hpp:77] Creating layer Scale42
I0925 20:26:02.539861  3547 net.cpp:122] Setting up Scale42
I0925 20:26:02.539866  3547 net.cpp:129] Top shape: 100 64 7 7 (313600)
I0925 20:26:02.539868  3547 net.cpp:137] Memory required for data: 805011600
I0925 20:26:02.539871  3547 layer_factory.hpp:77] Creating layer PReLU40
I0925 20:26:02.539877  3547 net.cpp:84] Creating Layer PReLU40
I0925 20:26:02.539880  3547 net.cpp:406] PReLU40 <- Convolution42
I0925 20:26:02.539890  3547 net.cpp:367] PReLU40 -> Convolution42 (in-place)
I0925 20:26:02.539952  3547 net.cpp:122] Setting up PReLU40
I0925 20:26:02.539957  3547 net.cpp:129] Top shape: 100 64 7 7 (313600)
I0925 20:26:02.539958  3547 net.cpp:137] Memory required for data: 806266000
I0925 20:26:02.539961  3547 layer_factory.hpp:77] Creating layer Convolution43
I0925 20:26:02.539966  3547 net.cpp:84] Creating Layer Convolution43
I0925 20:26:02.539969  3547 net.cpp:406] Convolution43 <- Convolution42
I0925 20:26:02.539973  3547 net.cpp:380] Convolution43 -> Convolution43
I0925 20:26:02.542392  3547 net.cpp:122] Setting up Convolution43
I0925 20:26:02.542402  3547 net.cpp:129] Top shape: 100 64 7 7 (313600)
I0925 20:26:02.542405  3547 net.cpp:137] Memory required for data: 807520400
I0925 20:26:02.542410  3547 layer_factory.hpp:77] Creating layer BatchNorm43
I0925 20:26:02.542415  3547 net.cpp:84] Creating Layer BatchNorm43
I0925 20:26:02.542418  3547 net.cpp:406] BatchNorm43 <- Convolution43
I0925 20:26:02.542423  3547 net.cpp:367] BatchNorm43 -> Convolution43 (in-place)
I0925 20:26:02.542565  3547 net.cpp:122] Setting up BatchNorm43
I0925 20:26:02.542570  3547 net.cpp:129] Top shape: 100 64 7 7 (313600)
I0925 20:26:02.542572  3547 net.cpp:137] Memory required for data: 808774800
I0925 20:26:02.542577  3547 layer_factory.hpp:77] Creating layer Scale43
I0925 20:26:02.542582  3547 net.cpp:84] Creating Layer Scale43
I0925 20:26:02.542583  3547 net.cpp:406] Scale43 <- Convolution43
I0925 20:26:02.542587  3547 net.cpp:367] Scale43 -> Convolution43 (in-place)
I0925 20:26:02.542615  3547 layer_factory.hpp:77] Creating layer Scale43
I0925 20:26:02.542695  3547 net.cpp:122] Setting up Scale43
I0925 20:26:02.542701  3547 net.cpp:129] Top shape: 100 64 7 7 (313600)
I0925 20:26:02.542702  3547 net.cpp:137] Memory required for data: 810029200
I0925 20:26:02.542706  3547 layer_factory.hpp:77] Creating layer Eltwise20
I0925 20:26:02.542711  3547 net.cpp:84] Creating Layer Eltwise20
I0925 20:26:02.542713  3547 net.cpp:406] Eltwise20 <- Eltwise19_PReLU39_0_split_1
I0925 20:26:02.542716  3547 net.cpp:406] Eltwise20 <- Convolution43
I0925 20:26:02.542721  3547 net.cpp:380] Eltwise20 -> Eltwise20
I0925 20:26:02.542735  3547 net.cpp:122] Setting up Eltwise20
I0925 20:26:02.542740  3547 net.cpp:129] Top shape: 100 64 7 7 (313600)
I0925 20:26:02.542742  3547 net.cpp:137] Memory required for data: 811283600
I0925 20:26:02.542744  3547 layer_factory.hpp:77] Creating layer PReLU41
I0925 20:26:02.542747  3547 net.cpp:84] Creating Layer PReLU41
I0925 20:26:02.542750  3547 net.cpp:406] PReLU41 <- Eltwise20
I0925 20:26:02.542753  3547 net.cpp:367] PReLU41 -> Eltwise20 (in-place)
I0925 20:26:02.542815  3547 net.cpp:122] Setting up PReLU41
I0925 20:26:02.542819  3547 net.cpp:129] Top shape: 100 64 7 7 (313600)
I0925 20:26:02.542821  3547 net.cpp:137] Memory required for data: 812538000
I0925 20:26:02.542824  3547 layer_factory.hpp:77] Creating layer Eltwise20_PReLU41_0_split
I0925 20:26:02.542829  3547 net.cpp:84] Creating Layer Eltwise20_PReLU41_0_split
I0925 20:26:02.542831  3547 net.cpp:406] Eltwise20_PReLU41_0_split <- Eltwise20
I0925 20:26:02.542834  3547 net.cpp:380] Eltwise20_PReLU41_0_split -> Eltwise20_PReLU41_0_split_0
I0925 20:26:02.542839  3547 net.cpp:380] Eltwise20_PReLU41_0_split -> Eltwise20_PReLU41_0_split_1
I0925 20:26:02.542863  3547 net.cpp:122] Setting up Eltwise20_PReLU41_0_split
I0925 20:26:02.542866  3547 net.cpp:129] Top shape: 100 64 7 7 (313600)
I0925 20:26:02.542870  3547 net.cpp:129] Top shape: 100 64 7 7 (313600)
I0925 20:26:02.542871  3547 net.cpp:137] Memory required for data: 815046800
I0925 20:26:02.542873  3547 layer_factory.hpp:77] Creating layer Convolution44
I0925 20:26:02.542881  3547 net.cpp:84] Creating Layer Convolution44
I0925 20:26:02.542882  3547 net.cpp:406] Convolution44 <- Eltwise20_PReLU41_0_split_0
I0925 20:26:02.542887  3547 net.cpp:380] Convolution44 -> Convolution44
I0925 20:26:02.544567  3547 net.cpp:122] Setting up Convolution44
I0925 20:26:02.544576  3547 net.cpp:129] Top shape: 100 64 7 7 (313600)
I0925 20:26:02.544586  3547 net.cpp:137] Memory required for data: 816301200
I0925 20:26:02.544591  3547 layer_factory.hpp:77] Creating layer BatchNorm44
I0925 20:26:02.544596  3547 net.cpp:84] Creating Layer BatchNorm44
I0925 20:26:02.544600  3547 net.cpp:406] BatchNorm44 <- Convolution44
I0925 20:26:02.544603  3547 net.cpp:367] BatchNorm44 -> Convolution44 (in-place)
I0925 20:26:02.544744  3547 net.cpp:122] Setting up BatchNorm44
I0925 20:26:02.544749  3547 net.cpp:129] Top shape: 100 64 7 7 (313600)
I0925 20:26:02.544750  3547 net.cpp:137] Memory required for data: 817555600
I0925 20:26:02.544754  3547 layer_factory.hpp:77] Creating layer Scale44
I0925 20:26:02.544759  3547 net.cpp:84] Creating Layer Scale44
I0925 20:26:02.544761  3547 net.cpp:406] Scale44 <- Convolution44
I0925 20:26:02.544765  3547 net.cpp:367] Scale44 -> Convolution44 (in-place)
I0925 20:26:02.544792  3547 layer_factory.hpp:77] Creating layer Scale44
I0925 20:26:02.544874  3547 net.cpp:122] Setting up Scale44
I0925 20:26:02.544879  3547 net.cpp:129] Top shape: 100 64 7 7 (313600)
I0925 20:26:02.544881  3547 net.cpp:137] Memory required for data: 818810000
I0925 20:26:02.544885  3547 layer_factory.hpp:77] Creating layer PReLU42
I0925 20:26:02.544889  3547 net.cpp:84] Creating Layer PReLU42
I0925 20:26:02.544891  3547 net.cpp:406] PReLU42 <- Convolution44
I0925 20:26:02.544895  3547 net.cpp:367] PReLU42 -> Convolution44 (in-place)
I0925 20:26:02.544958  3547 net.cpp:122] Setting up PReLU42
I0925 20:26:02.544963  3547 net.cpp:129] Top shape: 100 64 7 7 (313600)
I0925 20:26:02.544965  3547 net.cpp:137] Memory required for data: 820064400
I0925 20:26:02.544967  3547 layer_factory.hpp:77] Creating layer Convolution45
I0925 20:26:02.544975  3547 net.cpp:84] Creating Layer Convolution45
I0925 20:26:02.544976  3547 net.cpp:406] Convolution45 <- Convolution44
I0925 20:26:02.544981  3547 net.cpp:380] Convolution45 -> Convolution45
I0925 20:26:02.546949  3547 net.cpp:122] Setting up Convolution45
I0925 20:26:02.546958  3547 net.cpp:129] Top shape: 100 64 7 7 (313600)
I0925 20:26:02.546960  3547 net.cpp:137] Memory required for data: 821318800
I0925 20:26:02.546967  3547 layer_factory.hpp:77] Creating layer BatchNorm45
I0925 20:26:02.546972  3547 net.cpp:84] Creating Layer BatchNorm45
I0925 20:26:02.546973  3547 net.cpp:406] BatchNorm45 <- Convolution45
I0925 20:26:02.546977  3547 net.cpp:367] BatchNorm45 -> Convolution45 (in-place)
I0925 20:26:02.547123  3547 net.cpp:122] Setting up BatchNorm45
I0925 20:26:02.547128  3547 net.cpp:129] Top shape: 100 64 7 7 (313600)
I0925 20:26:02.547130  3547 net.cpp:137] Memory required for data: 822573200
I0925 20:26:02.547135  3547 layer_factory.hpp:77] Creating layer Scale45
I0925 20:26:02.547139  3547 net.cpp:84] Creating Layer Scale45
I0925 20:26:02.547142  3547 net.cpp:406] Scale45 <- Convolution45
I0925 20:26:02.547145  3547 net.cpp:367] Scale45 -> Convolution45 (in-place)
I0925 20:26:02.547173  3547 layer_factory.hpp:77] Creating layer Scale45
I0925 20:26:02.547256  3547 net.cpp:122] Setting up Scale45
I0925 20:26:02.547261  3547 net.cpp:129] Top shape: 100 64 7 7 (313600)
I0925 20:26:02.547263  3547 net.cpp:137] Memory required for data: 823827600
I0925 20:26:02.547267  3547 layer_factory.hpp:77] Creating layer Eltwise21
I0925 20:26:02.547271  3547 net.cpp:84] Creating Layer Eltwise21
I0925 20:26:02.547273  3547 net.cpp:406] Eltwise21 <- Eltwise20_PReLU41_0_split_1
I0925 20:26:02.547276  3547 net.cpp:406] Eltwise21 <- Convolution45
I0925 20:26:02.547279  3547 net.cpp:380] Eltwise21 -> Eltwise21
I0925 20:26:02.547297  3547 net.cpp:122] Setting up Eltwise21
…
I0925 20:26:02.907596  3547 net.cpp:137] Memory required for data: 1030145200
I0925 20:26:02.907600  3547 layer_factory.hpp:77] Creating layer BatchNorm40
I0925 20:26:02.907605  3547 net.cpp:84] Creating Layer BatchNorm40
I0925 20:26:02.907608  3547 net.cpp:406] BatchNorm40 <- Convolution40
I0925 20:26:02.907613  3547 net.cpp:367] BatchNorm40 -> Convolution40 (in-place)
I0925 20:26:02.907758  3547 net.cpp:122] Setting up BatchNorm40
I0925 20:26:02.907763  3547 net.cpp:129] Top shape: 100 64 8 8 (409600)
I0925 20:26:02.907774  3547 net.cpp:137] Memory required for data: 1031783600
I0925 20:26:02.907779  3547 layer_factory.hpp:77] Creating layer Scale40
I0925 20:26:02.907783  3547 net.cpp:84] Creating Layer Scale40
I0925 20:26:02.907786  3547 net.cpp:406] Scale40 <- Convolution40
I0925 20:26:02.907800  3547 net.cpp:367] Scale40 -> Convolution40 (in-place)
I0925 20:26:02.907847  3547 layer_factory.hpp:77] Creating layer Scale40
I0925 20:26:02.907954  3547 net.cpp:122] Setting up Scale40
I0925 20:26:02.907959  3547 net.cpp:129] Top shape: 100 64 8 8 (409600)
I0925 20:26:02.907961  3547 net.cpp:137] Memory required for data: 1033422000
I0925 20:26:02.907965  3547 layer_factory.hpp:77] Creating layer PReLU38
I0925 20:26:02.907969  3547 net.cpp:84] Creating Layer PReLU38
I0925 20:26:02.907971  3547 net.cpp:406] PReLU38 <- Convolution40
I0925 20:26:02.907974  3547 net.cpp:367] PReLU38 -> Convolution40 (in-place)
I0925 20:26:02.908041  3547 net.cpp:122] Setting up PReLU38
I0925 20:26:02.908046  3547 net.cpp:129] Top shape: 100 64 8 8 (409600)
I0925 20:26:02.908047  3547 net.cpp:137] Memory required for data: 1035060400
I0925 20:26:02.908051  3547 layer_factory.hpp:77] Creating layer Convolution41
I0925 20:26:02.908057  3547 net.cpp:84] Creating Layer Convolution41
I0925 20:26:02.908061  3547 net.cpp:406] Convolution41 <- Convolution40
I0925 20:26:02.908064  3547 net.cpp:380] Convolution41 -> Convolution41
I0925 20:26:02.909857  3547 net.cpp:122] Setting up Convolution41
I0925 20:26:02.909865  3547 net.cpp:129] Top shape: 100 64 8 8 (409600)
I0925 20:26:02.909868  3547 net.cpp:137] Memory required for data: 1036698800
I0925 20:26:02.909873  3547 layer_factory.hpp:77] Creating layer BatchNorm41
I0925 20:26:02.909878  3547 net.cpp:84] Creating Layer BatchNorm41
I0925 20:26:02.909880  3547 net.cpp:406] BatchNorm41 <- Convolution41
I0925 20:26:02.909884  3547 net.cpp:367] BatchNorm41 -> Convolution41 (in-place)
I0925 20:26:02.910020  3547 net.cpp:122] Setting up BatchNorm41
I0925 20:26:02.910025  3547 net.cpp:129] Top shape: 100 64 8 8 (409600)
I0925 20:26:02.910027  3547 net.cpp:137] Memory required for data: 1038337200
I0925 20:26:02.910032  3547 layer_factory.hpp:77] Creating layer Scale41
I0925 20:26:02.910037  3547 net.cpp:84] Creating Layer Scale41
I0925 20:26:02.910039  3547 net.cpp:406] Scale41 <- Convolution41
I0925 20:26:02.910043  3547 net.cpp:367] Scale41 -> Convolution41 (in-place)
I0925 20:26:02.910068  3547 layer_factory.hpp:77] Creating layer Scale41
I0925 20:26:02.910141  3547 net.cpp:122] Setting up Scale41
I0925 20:26:02.910146  3547 net.cpp:129] Top shape: 100 64 8 8 (409600)
I0925 20:26:02.910148  3547 net.cpp:137] Memory required for data: 1039975600
I0925 20:26:02.910151  3547 layer_factory.hpp:77] Creating layer Eltwise19
I0925 20:26:02.910156  3547 net.cpp:84] Creating Layer Eltwise19
I0925 20:26:02.910159  3547 net.cpp:406] Eltwise19 <- Convolution39
I0925 20:26:02.910161  3547 net.cpp:406] Eltwise19 <- Convolution41
I0925 20:26:02.910166  3547 net.cpp:380] Eltwise19 -> Eltwise19
I0925 20:26:02.910181  3547 net.cpp:122] Setting up Eltwise19
I0925 20:26:02.910184  3547 net.cpp:129] Top shape: 100 64 8 8 (409600)
I0925 20:26:02.910187  3547 net.cpp:137] Memory required for data: 1041614000
I0925 20:26:02.910188  3547 layer_factory.hpp:77] Creating layer PReLU39
I0925 20:26:02.910192  3547 net.cpp:84] Creating Layer PReLU39
I0925 20:26:02.910193  3547 net.cpp:406] PReLU39 <- Eltwise19
I0925 20:26:02.910198  3547 net.cpp:367] PReLU39 -> Eltwise19 (in-place)
I0925 20:26:02.910260  3547 net.cpp:122] Setting up PReLU39
I0925 20:26:02.910265  3547 net.cpp:129] Top shape: 100 64 8 8 (409600)
I0925 20:26:02.910267  3547 net.cpp:137] Memory required for data: 1043252400
I0925 20:26:02.910270  3547 layer_factory.hpp:77] Creating layer Eltwise19_PReLU39_0_split
I0925 20:26:02.910274  3547 net.cpp:84] Creating Layer Eltwise19_PReLU39_0_split
I0925 20:26:02.910275  3547 net.cpp:406] Eltwise19_PReLU39_0_split <- Eltwise19
I0925 20:26:02.910279  3547 net.cpp:380] Eltwise19_PReLU39_0_split -> Eltwise19_PReLU39_0_split_0
I0925 20:26:02.910284  3547 net.cpp:380] Eltwise19_PReLU39_0_split -> Eltwise19_PReLU39_0_split_1
I0925 20:26:02.910306  3547 net.cpp:122] Setting up Eltwise19_PReLU39_0_split
I0925 20:26:02.910310  3547 net.cpp:129] Top shape: 100 64 8 8 (409600)
I0925 20:26:02.910312  3547 net.cpp:129] Top shape: 100 64 8 8 (409600)
I0925 20:26:02.910315  3547 net.cpp:137] Memory required for data: 1046529200
I0925 20:26:02.910316  3547 layer_factory.hpp:77] Creating layer Convolution42
I0925 20:26:02.910323  3547 net.cpp:84] Creating Layer Convolution42
I0925 20:26:02.910326  3547 net.cpp:406] Convolution42 <- Eltwise19_PReLU39_0_split_0
I0925 20:26:02.910331  3547 net.cpp:380] Convolution42 -> Convolution42
I0925 20:26:02.912009  3547 net.cpp:122] Setting up Convolution42
I0925 20:26:02.912016  3547 net.cpp:129] Top shape: 100 64 8 8 (409600)
I0925 20:26:02.912019  3547 net.cpp:137] Memory required for data: 1048167600
I0925 20:26:02.912024  3547 layer_factory.hpp:77] Creating layer BatchNorm42
I0925 20:26:02.912029  3547 net.cpp:84] Creating Layer BatchNorm42
I0925 20:26:02.912031  3547 net.cpp:406] BatchNorm42 <- Convolution42
I0925 20:26:02.912034  3547 net.cpp:367] BatchNorm42 -> Convolution42 (in-place)
I0925 20:26:02.912165  3547 net.cpp:122] Setting up BatchNorm42
I0925 20:26:02.912169  3547 net.cpp:129] Top shape: 100 64 8 8 (409600)
I0925 20:26:02.912171  3547 net.cpp:137] Memory required for data: 1049806000
I0925 20:26:02.912176  3547 layer_factory.hpp:77] Creating layer Scale42
I0925 20:26:02.912180  3547 net.cpp:84] Creating Layer Scale42
I0925 20:26:02.912184  3547 net.cpp:406] Scale42 <- Convolution42
I0925 20:26:02.912186  3547 net.cpp:367] Scale42 -> Convolution42 (in-place)
I0925 20:26:02.912214  3547 layer_factory.hpp:77] Creating layer Scale42
I0925 20:26:02.912287  3547 net.cpp:122] Setting up Scale42
I0925 20:26:02.912292  3547 net.cpp:129] Top shape: 100 64 8 8 (409600)
I0925 20:26:02.912300  3547 net.cpp:137] Memory required for data: 1051444400
I0925 20:26:02.912304  3547 layer_factory.hpp:77] Creating layer PReLU40
I0925 20:26:02.912308  3547 net.cpp:84] Creating Layer PReLU40
I0925 20:26:02.912312  3547 net.cpp:406] PReLU40 <- Convolution42
I0925 20:26:02.912314  3547 net.cpp:367] PReLU40 -> Convolution42 (in-place)
I0925 20:26:02.912377  3547 net.cpp:122] Setting up PReLU40
I0925 20:26:02.912381  3547 net.cpp:129] Top shape: 100 64 8 8 (409600)
I0925 20:26:02.912384  3547 net.cpp:137] Memory required for data: 1053082800
I0925 20:26:02.912386  3547 layer_factory.hpp:77] Creating layer Convolution43
I0925 20:26:02.912394  3547 net.cpp:84] Creating Layer Convolution43
I0925 20:26:02.912395  3547 net.cpp:406] Convolution43 <- Convolution42
I0925 20:26:02.912400  3547 net.cpp:380] Convolution43 -> Convolution43
I0925 20:26:02.914078  3547 net.cpp:122] Setting up Convolution43
I0925 20:26:02.914086  3547 net.cpp:129] Top shape: 100 64 8 8 (409600)
I0925 20:26:02.914089  3547 net.cpp:137] Memory required for data: 1054721200
I0925 20:26:02.914093  3547 layer_factory.hpp:77] Creating layer BatchNorm43
I0925 20:26:02.914098  3547 net.cpp:84] Creating Layer BatchNorm43
I0925 20:26:02.914101  3547 net.cpp:406] BatchNorm43 <- Convolution43
I0925 20:26:02.914105  3547 net.cpp:367] BatchNorm43 -> Convolution43 (in-place)
I0925 20:26:02.914237  3547 net.cpp:122] Setting up BatchNorm43
I0925 20:26:02.914242  3547 net.cpp:129] Top shape: 100 64 8 8 (409600)
I0925 20:26:02.914243  3547 net.cpp:137] Memory required for data: 1056359600
I0925 20:26:02.914248  3547 layer_factory.hpp:77] Creating layer Scale43
I0925 20:26:02.914252  3547 net.cpp:84] Creating Layer Scale43
I0925 20:26:02.914255  3547 net.cpp:406] Scale43 <- Convolution43
I0925 20:26:02.914258  3547 net.cpp:367] Scale43 -> Convolution43 (in-place)
I0925 20:26:02.914285  3547 layer_factory.hpp:77] Creating layer Scale43
I0925 20:26:02.914361  3547 net.cpp:122] Setting up Scale43
I0925 20:26:02.914366  3547 net.cpp:129] Top shape: 100 64 8 8 (409600)
I0925 20:26:02.914368  3547 net.cpp:137] Memory required for data: 1057998000
I0925 20:26:02.914371  3547 layer_factory.hpp:77] Creating layer Eltwise20
I0925 20:26:02.914376  3547 net.cpp:84] Creating Layer Eltwise20
I0925 20:26:02.914389  3547 net.cpp:406] Eltwise20 <- Eltwise19_PReLU39_0_split_1
I0925 20:26:02.914392  3547 net.cpp:406] Eltwise20 <- Convolution43
I0925 20:26:02.914397  3547 net.cpp:380] Eltwise20 -> Eltwise20
I0925 20:26:02.914412  3547 net.cpp:122] Setting up Eltwise20
I0925 20:26:02.914417  3547 net.cpp:129] Top shape: 100 64 8 8 (409600)
I0925 20:26:02.914418  3547 net.cpp:137] Memory required for data: 1059636400
I0925 20:26:02.914420  3547 layer_factory.hpp:77] Creating layer PReLU41
I0925 20:26:02.914424  3547 net.cpp:84] Creating Layer PReLU41
I0925 20:26:02.914427  3547 net.cpp:406] PReLU41 <- Eltwise20
I0925 20:26:02.914438  3547 net.cpp:367] PReLU41 -> Eltwise20 (in-place)
I0925 20:26:02.914500  3547 net.cpp:122] Setting up PReLU41
I0925 20:26:02.914505  3547 net.cpp:129] Top shape: 100 64 8 8 (409600)
I0925 20:26:02.914507  3547 net.cpp:137] Memory required for data: 1061274800
I0925 20:26:02.914510  3547 layer_factory.hpp:77] Creating layer Eltwise20_PReLU41_0_split
I0925 20:26:02.914513  3547 net.cpp:84] Creating Layer Eltwise20_PReLU41_0_split
I0925 20:26:02.914515  3547 net.cpp:406] Eltwise20_PReLU41_0_split <- Eltwise20
I0925 20:26:02.914518  3547 net.cpp:380] Eltwise20_PReLU41_0_split -> Eltwise20_PReLU41_0_split_0
I0925 20:26:02.914522  3547 net.cpp:380] Eltwise20_PReLU41_0_split -> Eltwise20_PReLU41_0_split_1
I0925 20:26:02.914546  3547 net.cpp:122] Setting up Eltwise20_PReLU41_0_split
I0925 20:26:02.914551  3547 net.cpp:129] Top shape: 100 64 8 8 (409600)
I0925 20:26:02.914553  3547 net.cpp:129] Top shape: 100 64 8 8 (409600)
I0925 20:26:02.914556  3547 net.cpp:137] Memory required for data: 1064551600
I0925 20:26:02.914557  3547 layer_factory.hpp:77] Creating layer Convolution44
I0925 20:26:02.914563  3547 net.cpp:84] Creating Layer Convolution44
I0925 20:26:02.914573  3547 net.cpp:406] Convolution44 <- Eltwise20_PReLU41_0_split_0
I0925 20:26:02.914578  3547 net.cpp:380] Convolution44 -> Convolution44
I0925 20:26:02.916577  3547 net.cpp:122] Setting up Convolution44
I0925 20:26:02.916586  3547 net.cpp:129] Top shape: 100 64 8 8 (409600)
I0925 20:26:02.916589  3547 net.cpp:137] Memory required for data: 1066190000
I0925 20:26:02.916594  3547 layer_factory.hpp:77] Creating layer BatchNorm44
I0925 20:26:02.916599  3547 net.cpp:84] Creating Layer BatchNorm44
I0925 20:26:02.916600  3547 net.cpp:406] BatchNorm44 <- Convolution44
I0925 20:26:02.916605  3547 net.cpp:367] BatchNorm44 -> Convolution44 (in-place)
I0925 20:26:02.916741  3547 net.cpp:122] Setting up BatchNorm44
I0925 20:26:02.916746  3547 net.cpp:129] Top shape: 100 64 8 8 (409600)
I0925 20:26:02.916749  3547 net.cpp:137] Memory required for data: 1067828400
I0925 20:26:02.916754  3547 layer_factory.hpp:77] Creating layer Scale44
I0925 20:26:02.916757  3547 net.cpp:84] Creating Layer Scale44
I0925 20:26:02.916759  3547 net.cpp:406] Scale44 <- Convolution44
I0925 20:26:02.916764  3547 net.cpp:367] Scale44 -> Convolution44 (in-place)
I0925 20:26:02.916790  3547 layer_factory.hpp:77] Creating layer Scale44
I0925 20:26:02.916867  3547 net.cpp:122] Setting up Scale44
I0925 20:26:02.916872  3547 net.cpp:129] Top shape: 100 64 8 8 (409600)
I0925 20:26:02.916873  3547 net.cpp:137] Memory required for data: 1069466800
I0925 20:26:02.916877  3547 layer_factory.hpp:77] Creating layer PReLU42
I0925 20:26:02.916880  3547 net.cpp:84] Creating Layer PReLU42
I0925 20:26:02.916882  3547 net.cpp:406] PReLU42 <- Convolution44
I0925 20:26:02.916887  3547 net.cpp:367] PReLU42 -> Convolution44 (in-place)
I0925 20:26:02.916950  3547 net.cpp:122] Setting up PReLU42
I0925 20:26:02.916954  3547 net.cpp:129] Top shape: 100 64 8 8 (409600)
I0925 20:26:02.916956  3547 net.cpp:137] Memory required for data: 1071105200
I0925 20:26:02.916960  3547 layer_factory.hpp:77] Creating layer Convolution45
I0925 20:26:02.916966  3547 net.cpp:84] Creating Layer Convolution45
I0925 20:26:02.916968  3547 net.cpp:406] Convolution45 <- Convolution44
I0925 20:26:02.916972  3547 net.cpp:380] Convolution45 -> Convolution45
I0925 20:26:02.918668  3547 net.cpp:122] Setting up Convolution45
I0925 20:26:02.918676  3547 net.cpp:129] Top shape: 100 64 8 8 (409600)
I0925 20:26:02.918679  3547 net.cpp:137] Memory required for data: 1072743600
I0925 20:26:02.918684  3547 layer_factory.hpp:77] Creating layer BatchNorm45
I0925 20:26:02.918689  3547 net.cpp:84] Creating Layer BatchNorm45
I0925 20:26:02.918691  3547 net.cpp:406] BatchNorm45 <- Convolution45
I0925 20:26:02.918695  3547 net.cpp:367] BatchNorm45 -> Convolution45 (in-place)
I0925 20:26:02.918829  3547 net.cpp:122] Setting up BatchNorm45
I0925 20:26:02.918834  3547 net.cpp:129] Top shape: 100 64 8 8 (409600)
I0925 20:26:02.918836  3547 net.cpp:137] Memory required for data: 1074382000
I0925 20:26:02.918840  3547 layer_factory.hpp:77] Creating layer Scale45
I0925 20:26:02.918844  3547 net.cpp:84] Creating Layer Scale45
I0925 20:26:02.918848  3547 net.cpp:406] Scale45 <- Convolution45
I0925 20:26:02.918850  3547 net.cpp:367] Scale45 -> Convolution45 (in-place)
I0925 20:26:02.918876  3547 layer_factory.hpp:77] Creating layer Scale45
I0925 20:26:02.918953  3547 net.cpp:122] Setting up Scale45
I0925 20:26:02.918957  3547 net.cpp:129] Top shape: 100 64 8 8 (409600)
I0925 20:26:02.918959  3547 net.cpp:137] Memory required for data: 1076020400
I0925 20:26:02.918963  3547 layer_factory.hpp:77] Creating layer Eltwise21
I0925 20:26:02.918967  3547 net.cpp:84] Creating Layer Eltwise21
I0925 20:26:02.918969  3547 net.cpp:406] Eltwise21 <- Eltwise20_PReLU41_0_split_1
I0925 20:26:02.918972  3547 net.cpp:406] Eltwise21 <- Convolution45
I0925 20:26:02.918975  3547 net.cpp:380] Eltwise21 -> Eltwise21
I0925 20:26:02.918992  3547 net.cpp:122] Setting up Eltwise21
I0925 20:26:02.918995  3547 net.cpp:129] Top shape: 100 64 8 8 (409600)
I0925 20:26:02.918998  3547 net.cpp:137] Memory required for data: 1077658800
I0925 20:26:02.919005  3547 layer_factory.hpp:77] Creating layer PReLU43
I0925 20:26:02.919010  3547 net.cpp:84] Creating Layer PReLU43
I0925 20:26:02.919013  3547 net.cpp:406] PReLU43 <- Eltwise21
I0925 20:26:02.919015  3547 net.cpp:367] PReLU43 -> Eltwise21 (in-place)
I0925 20:26:02.919080  3547 net.cpp:122] Setting up PReLU43
I0925 20:26:02.919085  3547 net.cpp:129] Top shape: 100 64 8 8 (409600)
I0925 20:26:02.919086  3547 net.cpp:137] Memory required for data: 1079297200
I0925 20:26:02.919090  3547 layer_factory.hpp:77] Creating layer Eltwise21_PReLU43_0_split
I0925 20:26:02.919093  3547 net.cpp:84] Creating Layer Eltwise21_PReLU43_0_split
I0925 20:26:02.919095  3547 net.cpp:406] Eltwise21_PReLU43_0_split <- Eltwise21
I0925 20:26:02.919100  3547 net.cpp:380] Eltwise21_PReLU43_0_split -> Eltwise21_PReLU43_0_split_0
I0925 20:26:02.919104  3547 net.cpp:380] Eltwise21_PReLU43_0_split -> Eltwise21_PReLU43_0_split_1
I0925 20:26:02.919127  3547 net.cpp:122] Setting up Eltwise21_PReLU43_0_split
I0925 20:26:02.919131  3547 net.cpp:129] Top shape: 100 64 8 8 (409600)
I0925 20:26:02.919134  3547 net.cpp:129] Top shape: 100 64 8 8 (409600)
I0925 20:26:02.934583  3547 net.cpp:137] Memory required for data: 1082574000
I0925 20:26:02.934590  3547 layer_factory.hpp:77] Creating layer Convolution46
I0925 20:26:02.934600  3547 net.cpp:84] Creating Layer Convolution46
I0925 20:26:02.934604  3547 net.cpp:406] Convolution46 <- Eltwise21_PReLU43_0_split_0
I0925 20:26:02.934609  3547 net.cpp:380] Convolution46 -> Convolution46
I0925 20:26:02.936550  3547 net.cpp:122] Setting up Convolution46
I0925 20:26:02.936559  3547 net.cpp:129] Top shape: 100 64 8 8 (409600)
I0925 20:26:02.936573  3547 net.cpp:137] Memory required for data: 1084212400
I0925 20:26:02.936578  3547 layer_factory.hpp:77] Creating layer BatchNorm46
I0925 20:26:02.936583  3547 net.cpp:84] Creating Layer BatchNorm46
I0925 20:26:02.936586  3547 net.cpp:406] BatchNorm46 <- Convolution46
I0925 20:26:02.936590  3547 net.cpp:367] BatchNorm46 -> Convolution46 (in-place)
I0925 20:26:02.936758  3547 net.cpp:122] Setting up BatchNorm46
I0925 20:26:02.936764  3547 net.cpp:129] Top shape: 100 64 8 8 (409600)
I0925 20:26:02.936765  3547 net.cpp:137] Memory required for data: 1085850800
I0925 20:26:02.936771  3547 layer_factory.hpp:77] Creating layer Scale46
I0925 20:26:02.936777  3547 net.cpp:84] Creating Layer Scale46
I0925 20:26:02.936780  3547 net.cpp:406] Scale46 <- Convolution46
I0925 20:26:02.936784  3547 net.cpp:367] Scale46 -> Convolution46 (in-place)
I0925 20:26:02.936813  3547 layer_factory.hpp:77] Creating layer Scale46
I0925 20:26:02.936895  3547 net.cpp:122] Setting up Scale46
I0925 20:26:02.936900  3547 net.cpp:129] Top shape: 100 64 8 8 (409600)
I0925 20:26:02.936902  3547 net.cpp:137] Memory required for data: 1087489200
I0925 20:26:02.936906  3547 layer_factory.hpp:77] Creating layer PReLU44
I0925 20:26:02.936911  3547 net.cpp:84] Creating Layer PReLU44
I0925 20:26:02.936913  3547 net.cpp:406] PReLU44 <- Convolution46
I0925 20:26:02.936916  3547 net.cpp:367] PReLU44 -> Convolution46 (in-place)
I0925 20:26:02.936985  3547 net.cpp:122] Setting up PReLU44
I0925 20:26:02.936988  3547 net.cpp:129] Top shape: 100 64 8 8 (409600)
I0925 20:26:02.936990  3547 net.cpp:137] Memory required for data: 1089127600
I0925 20:26:02.936993  3547 layer_factory.hpp:77] Creating layer Convolution47
I0925 20:26:02.937000  3547 net.cpp:84] Creating Layer Convolution47
I0925 20:26:02.937003  3547 net.cpp:406] Convolution47 <- Convolution46
I0925 20:26:02.937006  3547 net.cpp:380] Convolution47 -> Convolution47
I0925 20:26:02.938833  3547 net.cpp:122] Setting up Convolution47
I0925 20:26:02.938841  3547 net.cpp:129] Top shape: 100 64 8 8 (409600)
I0925 20:26:02.938844  3547 net.cpp:137] Memory required for data: 1090766000
I0925 20:26:02.938848  3547 layer_factory.hpp:77] Creating layer BatchNorm47
I0925 20:26:02.938853  3547 net.cpp:84] Creating Layer BatchNorm47
I0925 20:26:02.938856  3547 net.cpp:406] BatchNorm47 <- Convolution47
I0925 20:26:02.938860  3547 net.cpp:367] BatchNorm47 -> Convolution47 (in-place)
I0925 20:26:02.939002  3547 net.cpp:122] Setting up BatchNorm47
I0925 20:26:02.939007  3547 net.cpp:129] Top shape: 100 64 8 8 (409600)
I0925 20:26:02.939009  3547 net.cpp:137] Memory required for data: 1092404400
I0925 20:26:02.939014  3547 layer_factory.hpp:77] Creating layer Scale47
I0925 20:26:02.939019  3547 net.cpp:84] Creating Layer Scale47
I0925 20:26:02.939021  3547 net.cpp:406] Scale47 <- Convolution47
I0925 20:26:02.939025  3547 net.cpp:367] Scale47 -> Convolution47 (in-place)
I0925 20:26:02.939052  3547 layer_factory.hpp:77] Creating layer Scale47
I0925 20:26:02.939131  3547 net.cpp:122] Setting up Scale47
I0925 20:26:02.939136  3547 net.cpp:129] Top shape: 100 64 8 8 (409600)
I0925 20:26:02.939137  3547 net.cpp:137] Memory required for data: 1094042800
I0925 20:26:02.939141  3547 layer_factory.hpp:77] Creating layer Eltwise22
I0925 20:26:02.939146  3547 net.cpp:84] Creating Layer Eltwise22
I0925 20:26:02.939149  3547 net.cpp:406] Eltwise22 <- Eltwise21_PReLU43_0_split_1
I0925 20:26:02.939152  3547 net.cpp:406] Eltwise22 <- Convolution47
I0925 20:26:02.939155  3547 net.cpp:380] Eltwise22 -> Eltwise22
I0925 20:26:02.939172  3547 net.cpp:122] Setting up Eltwise22
I0925 20:26:02.939175  3547 net.cpp:129] Top shape: 100 64 8 8 (409600)
I0925 20:26:02.939177  3547 net.cpp:137] Memory required for data: 1095681200
I0925 20:26:02.939179  3547 layer_factory.hpp:77] Creating layer PReLU45
I0925 20:26:02.939183  3547 net.cpp:84] Creating Layer PReLU45
I0925 20:26:02.939185  3547 net.cpp:406] PReLU45 <- Eltwise22
I0925 20:26:02.939188  3547 net.cpp:367] PReLU45 -> Eltwise22 (in-place)
I0925 20:26:02.939263  3547 net.cpp:122] Setting up PReLU45
I0925 20:26:02.939268  3547 net.cpp:129] Top shape: 100 64 8 8 (409600)
I0925 20:26:02.939270  3547 net.cpp:137] Memory required for data: 1097319600
I0925 20:26:02.939272  3547 layer_factory.hpp:77] Creating layer Eltwise22_PReLU45_0_split
I0925 20:26:02.939276  3547 net.cpp:84] Creating Layer Eltwise22_PReLU45_0_split
I0925 20:26:02.939278  3547 net.cpp:406] Eltwise22_PReLU45_0_split <- Eltwise22
I0925 20:26:02.939282  3547 net.cpp:380] Eltwise22_PReLU45_0_split -> Eltwise22_PReLU45_0_split_0
I0925 20:26:02.939286  3547 net.cpp:380] Eltwise22_PReLU45_0_split -> Eltwise22_PReLU45_0_split_1
I0925 20:26:02.939311  3547 net.cpp:122] Setting up Eltwise22_PReLU45_0_split
I0925 20:26:02.939314  3547 net.cpp:129] Top shape: 100 64 8 8 (409600)
I0925 20:26:02.939317  3547 net.cpp:129] Top shape: 100 64 8 8 (409600)
I0925 20:26:02.939319  3547 net.cpp:137] Memory required for data: 1100596400
I0925 20:26:02.939321  3547 layer_factory.hpp:77] Creating layer Convolution48
I0925 20:26:02.939327  3547 net.cpp:84] Creating Layer Convolution48
I0925 20:26:02.939330  3547 net.cpp:406] Convolution48 <- Eltwise22_PReLU45_0_split_0
I0925 20:26:02.939335  3547 net.cpp:380] Convolution48 -> Convolution48
I0925 20:26:02.941418  3547 net.cpp:122] Setting up Convolution48
I0925 20:26:02.941427  3547 net.cpp:129] Top shape: 100 64 8 8 (409600)
I0925 20:26:02.941431  3547 net.cpp:137] Memory required for data: 1102234800
I0925 20:26:02.941435  3547 layer_factory.hpp:77] Creating layer BatchNorm48
I0925 20:26:02.941440  3547 net.cpp:84] Creating Layer BatchNorm48
I0925 20:26:02.941443  3547 net.cpp:406] BatchNorm48 <- Convolution48
I0925 20:26:02.941447  3547 net.cpp:367] BatchNorm48 -> Convolution48 (in-place)
I0925 20:26:02.941591  3547 net.cpp:122] Setting up BatchNorm48
I0925 20:26:02.941596  3547 net.cpp:129] Top shape: 100 64 8 8 (409600)
I0925 20:26:02.941598  3547 net.cpp:137] Memory required for data: 1103873200
I0925 20:26:02.941603  3547 layer_factory.hpp:77] Creating layer Scale48
I0925 20:26:02.941607  3547 net.cpp:84] Creating Layer Scale48
I0925 20:26:02.941610  3547 net.cpp:406] Scale48 <- Convolution48
I0925 20:26:02.941613  3547 net.cpp:367] Scale48 -> Convolution48 (in-place)
I0925 20:26:02.941643  3547 layer_factory.hpp:77] Creating layer Scale48
I0925 20:26:02.941723  3547 net.cpp:122] Setting up Scale48
I0925 20:26:02.941727  3547 net.cpp:129] Top shape: 100 64 8 8 (409600)
I0925 20:26:02.941736  3547 net.cpp:137] Memory required for data: 1105511600
I0925 20:26:02.941740  3547 layer_factory.hpp:77] Creating layer PReLU46
I0925 20:26:02.941745  3547 net.cpp:84] Creating Layer PReLU46
I0925 20:26:02.941747  3547 net.cpp:406] PReLU46 <- Convolution48
I0925 20:26:02.941751  3547 net.cpp:367] PReLU46 -> Convolution48 (in-place)
I0925 20:26:02.941819  3547 net.cpp:122] Setting up PReLU46
I0925 20:26:02.941824  3547 net.cpp:129] Top shape: 100 64 8 8 (409600)
I0925 20:26:02.941826  3547 net.cpp:137] Memory required for data: 1107150000
I0925 20:26:02.941829  3547 layer_factory.hpp:77] Creating layer Convolution49
I0925 20:26:02.941835  3547 net.cpp:84] Creating Layer Convolution49
I0925 20:26:02.941838  3547 net.cpp:406] Convolution49 <- Convolution48
I0925 20:26:02.941843  3547 net.cpp:380] Convolution49 -> Convolution49
I0925 20:26:02.943949  3547 net.cpp:122] Setting up Convolution49
I0925 20:26:02.943959  3547 net.cpp:129] Top shape: 100 64 8 8 (409600)
I0925 20:26:02.943963  3547 net.cpp:137] Memory required for data: 1108788400
I0925 20:26:02.943967  3547 layer_factory.hpp:77] Creating layer BatchNorm49
I0925 20:26:02.943974  3547 net.cpp:84] Creating Layer BatchNorm49
I0925 20:26:02.943976  3547 net.cpp:406] BatchNorm49 <- Convolution49
I0925 20:26:02.943980  3547 net.cpp:367] BatchNorm49 -> Convolution49 (in-place)
I0925 20:26:02.944133  3547 net.cpp:122] Setting up BatchNorm49
I0925 20:26:02.944138  3547 net.cpp:129] Top shape: 100 64 8 8 (409600)
I0925 20:26:02.944139  3547 net.cpp:137] Memory required for data: 1110426800
I0925 20:26:02.944144  3547 layer_factory.hpp:77] Creating layer Scale49
I0925 20:26:02.944149  3547 net.cpp:84] Creating Layer Scale49
I0925 20:26:02.944152  3547 net.cpp:406] Scale49 <- Convolution49
I0925 20:26:02.944155  3547 net.cpp:367] Scale49 -> Convolution49 (in-place)
I0925 20:26:02.944186  3547 layer_factory.hpp:77] Creating layer Scale49
I0925 20:26:02.944278  3547 net.cpp:122] Setting up Scale49
I0925 20:26:02.944283  3547 net.cpp:129] Top shape: 100 64 8 8 (409600)
I0925 20:26:02.944284  3547 net.cpp:137] Memory required for data: 1112065200
I0925 20:26:02.944288  3547 layer_factory.hpp:77] Creating layer Eltwise23
I0925 20:26:02.944293  3547 net.cpp:84] Creating Layer Eltwise23
I0925 20:26:02.944295  3547 net.cpp:406] Eltwise23 <- Eltwise22_PReLU45_0_split_1
I0925 20:26:02.944298  3547 net.cpp:406] Eltwise23 <- Convolution49
I0925 20:26:02.944301  3547 net.cpp:380] Eltwise23 -> Eltwise23
I0925 20:26:02.944317  3547 net.cpp:122] Setting up Eltwise23
I0925 20:26:02.944321  3547 net.cpp:129] Top shape: 100 64 8 8 (409600)
I0925 20:26:02.944324  3547 net.cpp:137] Memory required for data: 1113703600
I0925 20:26:02.944325  3547 layer_factory.hpp:77] Creating layer PReLU47
I0925 20:26:02.944329  3547 net.cpp:84] Creating Layer PReLU47
I0925 20:26:02.944330  3547 net.cpp:406] PReLU47 <- Eltwise23
I0925 20:26:02.944334  3547 net.cpp:367] PReLU47 -> Eltwise23 (in-place)
I0925 20:26:02.944401  3547 net.cpp:122] Setting up PReLU47
I0925 20:26:02.944404  3547 net.cpp:129] Top shape: 100 64 8 8 (409600)
I0925 20:26:02.944406  3547 net.cpp:137] Memory required for data: 1115342000
I0925 20:26:02.944409  3547 layer_factory.hpp:77] Creating layer Eltwise23_PReLU47_0_split
I0925 20:26:02.944412  3547 net.cpp:84] Creating Layer Eltwise23_PReLU47_0_split
I0925 20:26:02.944414  3547 net.cpp:406] Eltwise23_PReLU47_0_split <- Eltwise23
I0925 20:26:02.944418  3547 net.cpp:380] Eltwise23_PReLU47_0_split -> Eltwise23_PReLU47_0_split_0
I0925 20:26:02.944423  3547 net.cpp:380] Eltwise23_PReLU47_0_split -> Eltwise23_PReLU47_0_split_1
I0925 20:26:02.944447  3547 net.cpp:122] Setting up Eltwise23_PReLU47_0_split
I0925 20:26:02.944450  3547 net.cpp:129] Top shape: 100 64 8 8 (409600)
I0925 20:26:02.944453  3547 net.cpp:129] Top shape: 100 64 8 8 (409600)
I0925 20:26:02.944455  3547 net.cpp:137] Memory required for data: 1118618800
I0925 20:26:02.944458  3547 layer_factory.hpp:77] Creating layer Convolution50
I0925 20:26:02.944464  3547 net.cpp:84] Creating Layer Convolution50
I0925 20:26:02.944473  3547 net.cpp:406] Convolution50 <- Eltwise23_PReLU47_0_split_0
I0925 20:26:02.944478  3547 net.cpp:380] Convolution50 -> Convolution50
I0925 20:26:02.947082  3547 net.cpp:122] Setting up Convolution50
I0925 20:26:02.947091  3547 net.cpp:129] Top shape: 100 64 8 8 (409600)
I0925 20:26:02.947093  3547 net.cpp:137] Memory required for data: 1120257200
I0925 20:26:02.947099  3547 layer_factory.hpp:77] Creating layer BatchNorm50
I0925 20:26:02.947104  3547 net.cpp:84] Creating Layer BatchNorm50
I0925 20:26:02.947108  3547 net.cpp:406] BatchNorm50 <- Convolution50
I0925 20:26:02.947111  3547 net.cpp:367] BatchNorm50 -> Convolution50 (in-place)
I0925 20:26:02.947263  3547 net.cpp:122] Setting up BatchNorm50
I0925 20:26:02.947268  3547 net.cpp:129] Top shape: 100 64 8 8 (409600)
I0925 20:26:02.947269  3547 net.cpp:137] Memory required for data: 1121895600
I0925 20:26:02.947274  3547 layer_factory.hpp:77] Creating layer Scale50
I0925 20:26:02.947278  3547 net.cpp:84] Creating Layer Scale50
I0925 20:26:02.947281  3547 net.cpp:406] Scale50 <- Convolution50
I0925 20:26:02.947284  3547 net.cpp:367] Scale50 -> Convolution50 (in-place)
I0925 20:26:02.947312  3547 layer_factory.hpp:77] Creating layer Scale50
I0925 20:26:02.947391  3547 net.cpp:122] Setting up Scale50
I0925 20:26:02.947396  3547 net.cpp:129] Top shape: 100 64 8 8 (409600)
I0925 20:26:02.947397  3547 net.cpp:137] Memory required for data: 1123534000
I0925 20:26:02.947402  3547 layer_factory.hpp:77] Creating layer PReLU48
I0925 20:26:02.947404  3547 net.cpp:84] Creating Layer PReLU48
I0925 20:26:02.947407  3547 net.cpp:406] PReLU48 <- Convolution50
I0925 20:26:02.947410  3547 net.cpp:367] PReLU48 -> Convolution50 (in-place)
I0925 20:26:02.947475  3547 net.cpp:122] Setting up PReLU48
I0925 20:26:02.947480  3547 net.cpp:129] Top shape: 100 64 8 8 (409600)
I0925 20:26:02.947482  3547 net.cpp:137] Memory required for data: 1125172400
I0925 20:26:02.947485  3547 layer_factory.hpp:77] Creating layer Convolution51
I0925 20:26:02.947494  3547 net.cpp:84] Creating Layer Convolution51
I0925 20:26:02.947495  3547 net.cpp:406] Convolution51 <- Convolution50
I0925 20:26:02.947499  3547 net.cpp:380] Convolution51 -> Convolution51
I0925 20:26:02.949311  3547 net.cpp:122] Setting up Convolution51
I0925 20:26:02.949321  3547 net.cpp:129] Top shape: 100 64 8 8 (409600)
I0925 20:26:02.949323  3547 net.cpp:137] Memory required for data: 1126810800
I0925 20:26:02.949327  3547 layer_factory.hpp:77] Creating layer BatchNorm51
I0925 20:26:02.949332  3547 net.cpp:84] Creating Layer BatchNorm51
I0925 20:26:02.949335  3547 net.cpp:406] BatchNorm51 <- Convolution51
I0925 20:26:02.949338  3547 net.cpp:367] BatchNorm51 -> Convolution51 (in-place)
I0925 20:26:02.949475  3547 net.cpp:122] Setting up BatchNorm51
I0925 20:26:02.949479  3547 net.cpp:129] Top shape: 100 64 8 8 (409600)
I0925 20:26:02.949481  3547 net.cpp:137] Memory required for data: 1128449200
I0925 20:26:02.949486  3547 layer_factory.hpp:77] Creating layer Scale51
I0925 20:26:02.949489  3547 net.cpp:84] Creating Layer Scale51
I0925 20:26:02.949492  3547 net.cpp:406] Scale51 <- Convolution51
I0925 20:26:02.949496  3547 net.cpp:367] Scale51 -> Convolution51 (in-place)
I0925 20:26:02.949523  3547 layer_factory.hpp:77] Creating layer Scale51
I0925 20:26:02.949601  3547 net.cpp:122] Setting up Scale51
I0925 20:26:02.949605  3547 net.cpp:129] Top shape: 100 64 8 8 (409600)
I0925 20:26:02.949607  3547 net.cpp:137] Memory required for data: 1130087600
I0925 20:26:02.949611  3547 layer_factory.hpp:77] Creating layer Eltwise24
I0925 20:26:02.949615  3547 net.cpp:84] Creating Layer Eltwise24
I0925 20:26:02.949618  3547 net.cpp:406] Eltwise24 <- Eltwise23_PReLU47_0_split_1
I0925 20:26:02.949621  3547 net.cpp:406] Eltwise24 <- Convolution51
I0925 20:26:02.949625  3547 net.cpp:380] Eltwise24 -> Eltwise24
I0925 20:26:02.949640  3547 net.cpp:122] Setting up Eltwise24
I0925 20:26:02.949643  3547 net.cpp:129] Top shape: 100 64 8 8 (409600)
I0925 20:26:02.949645  3547 net.cpp:137] Memory required for data: 1131726000
I0925 20:26:02.949654  3547 layer_factory.hpp:77] Creating layer PReLU49
I0925 20:26:02.949661  3547 net.cpp:84] Creating Layer PReLU49
I0925 20:26:02.949663  3547 net.cpp:406] PReLU49 <- Eltwise24
I0925 20:26:02.949666  3547 net.cpp:367] PReLU49 -> Eltwise24 (in-place)
I0925 20:26:02.949733  3547 net.cpp:122] Setting up PReLU49
I0925 20:26:02.949738  3547 net.cpp:129] Top shape: 100 64 8 8 (409600)
I0925 20:26:02.949739  3547 net.cpp:137] Memory required for data: 1133364400
I0925 20:26:02.949743  3547 layer_factory.hpp:77] Creating layer Eltwise24_PReLU49_0_split
I0925 20:26:02.949746  3547 net.cpp:84] Creating Layer Eltwise24_PReLU49_0_split
I0925 20:26:02.949749  3547 net.cpp:406] Eltwise24_PReLU49_0_split <- Eltwise24
I0925 20:26:02.949753  3547 net.cpp:380] Eltwise24_PReLU49_0_split -> Eltwise24_PReLU49_0_split_0
I0925 20:26:02.949756  3547 net.cpp:380] Eltwise24_PReLU49_0_split -> Eltwise24_PReLU49_0_split_1
I0925 20:26:02.949790  3547 net.cpp:122] Setting up Eltwise24_PReLU49_0_split
I0925 20:26:02.964936  3547 net.cpp:129] Top shape: 100 64 8 8 (409600)
I0925 20:26:02.964946  3547 net.cpp:129] Top shape: 100 64 8 8 (409600)
I0925 20:26:02.964949  3547 net.cpp:137] Memory required for data: 1136641200
I0925 20:26:02.964952  3547 layer_factory.hpp:77] Creating layer Convolution52
I0925 20:26:02.964960  3547 net.cpp:84] Creating Layer Convolution52
I0925 20:26:02.964963  3547 net.cpp:406] Convolution52 <- Eltwise24_PReLU49_0_split_0
I0925 20:26:02.964968  3547 net.cpp:380] Convolution52 -> Convolution52
I0925 20:26:02.967480  3547 net.cpp:122] Setting up Convolution52
I0925 20:26:02.967490  3547 net.cpp:129] Top shape: 100 64 8 8 (409600)
I0925 20:26:02.967494  3547 net.cpp:137] Memory required for data: 1138279600
I0925 20:26:02.967499  3547 layer_factory.hpp:77] Creating layer BatchNorm52
I0925 20:26:02.967504  3547 net.cpp:84] Creating Layer BatchNorm52
I0925 20:26:02.967507  3547 net.cpp:406] BatchNorm52 <- Convolution52
I0925 20:26:02.967511  3547 net.cpp:367] BatchNorm52 -> Convolution52 (in-place)
I0925 20:26:02.967669  3547 net.cpp:122] Setting up BatchNorm52
I0925 20:26:02.967674  3547 net.cpp:129] Top shape: 100 64 8 8 (409600)
I0925 20:26:02.967675  3547 net.cpp:137] Memory required for data: 1139918000
I0925 20:26:02.967680  3547 layer_factory.hpp:77] Creating layer Scale52
I0925 20:26:02.967686  3547 net.cpp:84] Creating Layer Scale52
I0925 20:26:02.967689  3547 net.cpp:406] Scale52 <- Convolution52
I0925 20:26:02.967692  3547 net.cpp:367] Scale52 -> Convolution52 (in-place)
I0925 20:26:02.967722  3547 layer_factory.hpp:77] Creating layer Scale52
I0925 20:26:02.967809  3547 net.cpp:122] Setting up Scale52
I0925 20:26:02.967814  3547 net.cpp:129] Top shape: 100 64 8 8 (409600)
I0925 20:26:02.967816  3547 net.cpp:137] Memory required for data: 1141556400
I0925 20:26:02.967820  3547 layer_factory.hpp:77] Creating layer PReLU50
I0925 20:26:02.967840  3547 net.cpp:84] Creating Layer PReLU50
I0925 20:26:02.967844  3547 net.cpp:406] PReLU50 <- Convolution52
I0925 20:26:02.967847  3547 net.cpp:367] PReLU50 -> Convolution52 (in-place)
I0925 20:26:02.967921  3547 net.cpp:122] Setting up PReLU50
I0925 20:26:02.967926  3547 net.cpp:129] Top shape: 100 64 8 8 (409600)
I0925 20:26:02.967927  3547 net.cpp:137] Memory required for data: 1143194800
I0925 20:26:02.967931  3547 layer_factory.hpp:77] Creating layer Convolution53
I0925 20:26:02.967938  3547 net.cpp:84] Creating Layer Convolution53
I0925 20:26:02.967941  3547 net.cpp:406] Convolution53 <- Convolution52
I0925 20:26:02.967945  3547 net.cpp:380] Convolution53 -> Convolution53
I0925 20:26:02.969799  3547 net.cpp:122] Setting up Convolution53
I0925 20:26:02.969810  3547 net.cpp:129] Top shape: 100 64 8 8 (409600)
I0925 20:26:02.969811  3547 net.cpp:137] Memory required for data: 1144833200
I0925 20:26:02.969816  3547 layer_factory.hpp:77] Creating layer BatchNorm53
I0925 20:26:02.969822  3547 net.cpp:84] Creating Layer BatchNorm53
I0925 20:26:02.969826  3547 net.cpp:406] BatchNorm53 <- Convolution53
I0925 20:26:02.969830  3547 net.cpp:367] BatchNorm53 -> Convolution53 (in-place)
I0925 20:26:02.969990  3547 net.cpp:122] Setting up BatchNorm53
I0925 20:26:02.969995  3547 net.cpp:129] Top shape: 100 64 8 8 (409600)
I0925 20:26:02.969998  3547 net.cpp:137] Memory required for data: 1146471600
I0925 20:26:02.970003  3547 layer_factory.hpp:77] Creating layer Scale53
I0925 20:26:02.970007  3547 net.cpp:84] Creating Layer Scale53
I0925 20:26:02.970010  3547 net.cpp:406] Scale53 <- Convolution53
I0925 20:26:02.970013  3547 net.cpp:367] Scale53 -> Convolution53 (in-place)
I0925 20:26:02.970044  3547 layer_factory.hpp:77] Creating layer Scale53
I0925 20:26:02.970131  3547 net.cpp:122] Setting up Scale53
I0925 20:26:02.970136  3547 net.cpp:129] Top shape: 100 64 8 8 (409600)
I0925 20:26:02.970139  3547 net.cpp:137] Memory required for data: 1148110000
I0925 20:26:02.970142  3547 layer_factory.hpp:77] Creating layer Eltwise25
I0925 20:26:02.970147  3547 net.cpp:84] Creating Layer Eltwise25
I0925 20:26:02.970150  3547 net.cpp:406] Eltwise25 <- Eltwise24_PReLU49_0_split_1
I0925 20:26:02.970155  3547 net.cpp:406] Eltwise25 <- Convolution53
I0925 20:26:02.970157  3547 net.cpp:380] Eltwise25 -> Eltwise25
I0925 20:26:02.970175  3547 net.cpp:122] Setting up Eltwise25
I0925 20:26:02.970180  3547 net.cpp:129] Top shape: 100 64 8 8 (409600)
I0925 20:26:02.970181  3547 net.cpp:137] Memory required for data: 1149748400
I0925 20:26:02.970183  3547 layer_factory.hpp:77] Creating layer PReLU51
I0925 20:26:02.970187  3547 net.cpp:84] Creating Layer PReLU51
I0925 20:26:02.970191  3547 net.cpp:406] PReLU51 <- Eltwise25
I0925 20:26:02.970193  3547 net.cpp:367] PReLU51 -> Eltwise25 (in-place)
I0925 20:26:02.970264  3547 net.cpp:122] Setting up PReLU51
I0925 20:26:02.970269  3547 net.cpp:129] Top shape: 100 64 8 8 (409600)
I0925 20:26:02.970271  3547 net.cpp:137] Memory required for data: 1151386800
I0925 20:26:02.970274  3547 layer_factory.hpp:77] Creating layer Eltwise25_PReLU51_0_split
I0925 20:26:02.970279  3547 net.cpp:84] Creating Layer Eltwise25_PReLU51_0_split
I0925 20:26:02.970281  3547 net.cpp:406] Eltwise25_PReLU51_0_split <- Eltwise25
I0925 20:26:02.970284  3547 net.cpp:380] Eltwise25_PReLU51_0_split -> Eltwise25_PReLU51_0_split_0
I0925 20:26:02.970289  3547 net.cpp:380] Eltwise25_PReLU51_0_split -> Eltwise25_PReLU51_0_split_1
I0925 20:26:02.970315  3547 net.cpp:122] Setting up Eltwise25_PReLU51_0_split
I0925 20:26:02.970319  3547 net.cpp:129] Top shape: 100 64 8 8 (409600)
I0925 20:26:02.970322  3547 net.cpp:129] Top shape: 100 64 8 8 (409600)
I0925 20:26:02.970324  3547 net.cpp:137] Memory required for data: 1154663600
I0925 20:26:02.970326  3547 layer_factory.hpp:77] Creating layer Convolution54
I0925 20:26:02.970332  3547 net.cpp:84] Creating Layer Convolution54
I0925 20:26:02.970335  3547 net.cpp:406] Convolution54 <- Eltwise25_PReLU51_0_split_0
I0925 20:26:02.970340  3547 net.cpp:380] Convolution54 -> Convolution54
I0925 20:26:02.972501  3547 net.cpp:122] Setting up Convolution54
I0925 20:26:02.972509  3547 net.cpp:129] Top shape: 100 64 8 8 (409600)
I0925 20:26:02.972512  3547 net.cpp:137] Memory required for data: 1156302000
I0925 20:26:02.972518  3547 layer_factory.hpp:77] Creating layer BatchNorm54
I0925 20:26:02.972523  3547 net.cpp:84] Creating Layer BatchNorm54
I0925 20:26:02.972527  3547 net.cpp:406] BatchNorm54 <- Convolution54
I0925 20:26:02.972532  3547 net.cpp:367] BatchNorm54 -> Convolution54 (in-place)
I0925 20:26:02.972687  3547 net.cpp:122] Setting up BatchNorm54
I0925 20:26:02.972692  3547 net.cpp:129] Top shape: 100 64 8 8 (409600)
I0925 20:26:02.972693  3547 net.cpp:137] Memory required for data: 1157940400
I0925 20:26:02.972698  3547 layer_factory.hpp:77] Creating layer Scale54
I0925 20:26:02.972704  3547 net.cpp:84] Creating Layer Scale54
I0925 20:26:02.972707  3547 net.cpp:406] Scale54 <- Convolution54
I0925 20:26:02.972710  3547 net.cpp:367] Scale54 -> Convolution54 (in-place)
I0925 20:26:02.972740  3547 layer_factory.hpp:77] Creating layer Scale54
I0925 20:26:02.972827  3547 net.cpp:122] Setting up Scale54
I0925 20:26:02.972832  3547 net.cpp:129] Top shape: 100 64 8 8 (409600)
I0925 20:26:02.972843  3547 net.cpp:137] Memory required for data: 1159578800
I0925 20:26:02.972847  3547 layer_factory.hpp:77] Creating layer PReLU52
I0925 20:26:02.972852  3547 net.cpp:84] Creating Layer PReLU52
I0925 20:26:02.972856  3547 net.cpp:406] PReLU52 <- Convolution54
I0925 20:26:02.972859  3547 net.cpp:367] PReLU52 -> Convolution54 (in-place)
I0925 20:26:02.972932  3547 net.cpp:122] Setting up PReLU52
I0925 20:26:02.972937  3547 net.cpp:129] Top shape: 100 64 8 8 (409600)
I0925 20:26:02.972939  3547 net.cpp:137] Memory required for data: 1161217200
I0925 20:26:02.972942  3547 layer_factory.hpp:77] Creating layer Convolution55
I0925 20:26:02.972949  3547 net.cpp:84] Creating Layer Convolution55
I0925 20:26:02.972952  3547 net.cpp:406] Convolution55 <- Convolution54
I0925 20:26:02.972956  3547 net.cpp:380] Convolution55 -> Convolution55
I0925 20:26:02.974798  3547 net.cpp:122] Setting up Convolution55
I0925 20:26:02.974807  3547 net.cpp:129] Top shape: 100 64 8 8 (409600)
I0925 20:26:02.974810  3547 net.cpp:137] Memory required for data: 1162855600
I0925 20:26:02.974815  3547 layer_factory.hpp:77] Creating layer BatchNorm55
I0925 20:26:02.974820  3547 net.cpp:84] Creating Layer BatchNorm55
I0925 20:26:02.974824  3547 net.cpp:406] BatchNorm55 <- Convolution55
I0925 20:26:02.974828  3547 net.cpp:367] BatchNorm55 -> Convolution55 (in-place)
I0925 20:26:02.974978  3547 net.cpp:122] Setting up BatchNorm55
I0925 20:26:02.974983  3547 net.cpp:129] Top shape: 100 64 8 8 (409600)
I0925 20:26:02.974985  3547 net.cpp:137] Memory required for data: 1164494000
I0925 20:26:02.974990  3547 layer_factory.hpp:77] Creating layer Scale55
I0925 20:26:02.974995  3547 net.cpp:84] Creating Layer Scale55
I0925 20:26:02.974998  3547 net.cpp:406] Scale55 <- Convolution55
I0925 20:26:02.975003  3547 net.cpp:367] Scale55 -> Convolution55 (in-place)
I0925 20:26:02.975033  3547 layer_factory.hpp:77] Creating layer Scale55
I0925 20:26:02.975119  3547 net.cpp:122] Setting up Scale55
I0925 20:26:02.975123  3547 net.cpp:129] Top shape: 100 64 8 8 (409600)
I0925 20:26:02.975126  3547 net.cpp:137] Memory required for data: 1166132400
I0925 20:26:02.975131  3547 layer_factory.hpp:77] Creating layer Eltwise26
I0925 20:26:02.975134  3547 net.cpp:84] Creating Layer Eltwise26
I0925 20:26:02.975137  3547 net.cpp:406] Eltwise26 <- Eltwise25_PReLU51_0_split_1
I0925 20:26:02.975141  3547 net.cpp:406] Eltwise26 <- Convolution55
I0925 20:26:02.975144  3547 net.cpp:380] Eltwise26 -> Eltwise26
I0925 20:26:02.975162  3547 net.cpp:122] Setting up Eltwise26
I0925 20:26:02.975167  3547 net.cpp:129] Top shape: 100 64 8 8 (409600)
I0925 20:26:02.975168  3547 net.cpp:137] Memory required for data: 1167770800
I0925 20:26:02.975170  3547 layer_factory.hpp:77] Creating layer PReLU53
I0925 20:26:02.975174  3547 net.cpp:84] Creating Layer PReLU53
I0925 20:26:02.975178  3547 net.cpp:406] PReLU53 <- Eltwise26
I0925 20:26:02.975180  3547 net.cpp:367] PReLU53 -> Eltwise26 (in-place)
I0925 20:26:02.975251  3547 net.cpp:122] Setting up PReLU53
I0925 20:26:02.975256  3547 net.cpp:129] Top shape: 100 64 8 8 (409600)
I0925 20:26:02.975258  3547 net.cpp:137] Memory required for data: 1169409200
I0925 20:26:02.975261  3547 layer_factory.hpp:77] Creating layer Eltwise26_PReLU53_0_split
I0925 20:26:02.975265  3547 net.cpp:84] Creating Layer Eltwise26_PReLU53_0_split
I0925 20:26:02.975267  3547 net.cpp:406] Eltwise26_PReLU53_0_split <- Eltwise26
I0925 20:26:02.975271  3547 net.cpp:380] Eltwise26_PReLU53_0_split -> Eltwise26_PReLU53_0_split_0
I0925 20:26:02.975276  3547 net.cpp:380] Eltwise26_PReLU53_0_split -> Eltwise26_PReLU53_0_split_1
I0925 20:26:02.975302  3547 net.cpp:122] Setting up Eltwise26_PReLU53_0_split
I0925 20:26:02.975306  3547 net.cpp:129] Top shape: 100 64 8 8 (409600)
I0925 20:26:02.975309  3547 net.cpp:129] Top shape: 100 64 8 8 (409600)
I0925 20:26:02.975311  3547 net.cpp:137] Memory required for data: 1172686000
I0925 20:26:02.975313  3547 layer_factory.hpp:77] Creating layer Convolution56
I0925 20:26:02.975320  3547 net.cpp:84] Creating Layer Convolution56
I0925 20:26:02.975330  3547 net.cpp:406] Convolution56 <- Eltwise26_PReLU53_0_split_0
I0925 20:26:02.975335  3547 net.cpp:380] Convolution56 -> Convolution56
I0925 20:26:02.977157  3547 net.cpp:122] Setting up Convolution56
I0925 20:26:02.977167  3547 net.cpp:129] Top shape: 100 64 8 8 (409600)
I0925 20:26:02.977170  3547 net.cpp:137] Memory required for data: 1174324400
I0925 20:26:02.977175  3547 layer_factory.hpp:77] Creating layer BatchNorm56
I0925 20:26:02.977181  3547 net.cpp:84] Creating Layer BatchNorm56
I0925 20:26:02.977185  3547 net.cpp:406] BatchNorm56 <- Convolution56
I0925 20:26:02.977188  3547 net.cpp:367] BatchNorm56 -> Convolution56 (in-place)
I0925 20:26:02.977342  3547 net.cpp:122] Setting up BatchNorm56
I0925 20:26:02.977347  3547 net.cpp:129] Top shape: 100 64 8 8 (409600)
I0925 20:26:02.977349  3547 net.cpp:137] Memory required for data: 1175962800
I0925 20:26:02.977355  3547 layer_factory.hpp:77] Creating layer Scale56
I0925 20:26:02.977360  3547 net.cpp:84] Creating Layer Scale56
I0925 20:26:02.977361  3547 net.cpp:406] Scale56 <- Convolution56
I0925 20:26:02.977365  3547 net.cpp:367] Scale56 -> Convolution56 (in-place)
I0925 20:26:02.977396  3547 layer_factory.hpp:77] Creating layer Scale56
I0925 20:26:02.977485  3547 net.cpp:122] Setting up Scale56
I0925 20:26:02.977490  3547 net.cpp:129] Top shape: 100 64 8 8 (409600)
I0925 20:26:02.977493  3547 net.cpp:137] Memory required for data: 1177601200
I0925 20:26:02.977496  3547 layer_factory.hpp:77] Creating layer PReLU54
I0925 20:26:02.977500  3547 net.cpp:84] Creating Layer PReLU54
I0925 20:26:02.977504  3547 net.cpp:406] PReLU54 <- Convolution56
I0925 20:26:02.977506  3547 net.cpp:367] PReLU54 -> Convolution56 (in-place)
I0925 20:26:02.977579  3547 net.cpp:122] Setting up PReLU54
I0925 20:26:02.977584  3547 net.cpp:129] Top shape: 100 64 8 8 (409600)
I0925 20:26:02.977586  3547 net.cpp:137] Memory required for data: 1179239600
I0925 20:26:02.977589  3547 layer_factory.hpp:77] Creating layer Convolution57
I0925 20:26:02.977596  3547 net.cpp:84] Creating Layer Convolution57
I0925 20:26:02.977599  3547 net.cpp:406] Convolution57 <- Convolution56
I0925 20:26:02.977603  3547 net.cpp:380] Convolution57 -> Convolution57
I0925 20:26:02.979425  3547 net.cpp:122] Setting up Convolution57
I0925 20:26:02.979434  3547 net.cpp:129] Top shape: 100 64 8 8 (409600)
I0925 20:26:02.979437  3547 net.cpp:137] Memory required for data: 1180878000
I0925 20:26:02.979442  3547 layer_factory.hpp:77] Creating layer BatchNorm57
I0925 20:26:02.979447  3547 net.cpp:84] Creating Layer BatchNorm57
I0925 20:26:02.979450  3547 net.cpp:406] BatchNorm57 <- Convolution57
I0925 20:26:02.979454  3547 net.cpp:367] BatchNorm57 -> Convolution57 (in-place)
I0925 20:26:02.979604  3547 net.cpp:122] Setting up BatchNorm57
I0925 20:26:02.979609  3547 net.cpp:129] Top shape: 100 64 8 8 (409600)
I0925 20:26:02.979611  3547 net.cpp:137] Memory required for data: 1182516400
I0925 20:26:02.979616  3547 layer_factory.hpp:77] Creating layer Scale57
I0925 20:26:02.979620  3547 net.cpp:84] Creating Layer Scale57
I0925 20:26:02.979624  3547 net.cpp:406] Scale57 <- Convolution57
I0925 20:26:02.979626  3547 net.cpp:367] Scale57 -> Convolution57 (in-place)
I0925 20:26:02.979660  3547 layer_factory.hpp:77] Creating layer Scale57
I0925 20:26:02.979746  3547 net.cpp:122] Setting up Scale57
I0925 20:26:02.979751  3547 net.cpp:129] Top shape: 100 64 8 8 (409600)
I0925 20:26:02.979753  3547 net.cpp:137] Memory required for data: 1184154800
I0925 20:26:02.979758  3547 layer_factory.hpp:77] Creating layer Eltwise27
I0925 20:26:02.979763  3547 net.cpp:84] Creating Layer Eltwise27
I0925 20:26:02.979765  3547 net.cpp:406] Eltwise27 <- Eltwise26_PReLU53_0_split_1
I0925 20:26:02.979768  3547 net.cpp:406] Eltwise27 <- Convolution57
I0925 20:26:02.979773  3547 net.cpp:380] Eltwise27 -> Eltwise27
I0925 20:26:02.979789  3547 net.cpp:122] Setting up Eltwise27
I0925 20:26:02.979794  3547 net.cpp:129] Top shape: 100 64 8 8 (409600)
I0925 20:26:02.979795  3547 net.cpp:137] Memory required for data: 1185793200
I0925 20:26:02.979797  3547 layer_factory.hpp:77] Creating layer PReLU55
I0925 20:26:02.979809  3547 net.cpp:84] Creating Layer PReLU55
I0925 20:26:02.979812  3547 net.cpp:406] PReLU55 <- Eltwise27
I0925 20:26:02.979815  3547 net.cpp:367] PReLU55 -> Eltwise27 (in-place)
I0925 20:26:02.979887  3547 net.cpp:122] Setting up PReLU55
I0925 20:26:02.979892  3547 net.cpp:129] Top shape: 100 64 8 8 (409600)
I0925 20:26:02.979894  3547 net.cpp:137] Memory required for data: 1187431600
I0925 20:26:02.979898  3547 layer_factory.hpp:77] Creating layer Pooling1
I0925 20:26:02.979903  3547 net.cpp:84] Creating Layer Pooling1
I0925 20:26:02.979907  3547 net.cpp:406] Pooling1 <- Eltwise27
I0925 20:26:02.979909  3547 net.cpp:380] Pooling1 -> Pooling1
I0925 20:26:02.980422  3547 net.cpp:122] Setting up Pooling1
I0925 20:26:02.980429  3547 net.cpp:129] Top shape: 100 64 1 1 (6400)
I0925 20:26:02.995245  3547 net.cpp:137] Memory required for data: 1187457200
I0925 20:26:02.995254  3547 layer_factory.hpp:77] Creating layer InnerProduct1
I0925 20:26:02.995261  3547 net.cpp:84] Creating Layer InnerProduct1
I0925 20:26:02.995265  3547 net.cpp:406] InnerProduct1 <- Pooling1
I0925 20:26:02.995270  3547 net.cpp:380] InnerProduct1 -> InnerProduct1
I0925 20:26:02.995398  3547 net.cpp:122] Setting up InnerProduct1
I0925 20:26:02.995404  3547 net.cpp:129] Top shape: 100 10 (1000)
I0925 20:26:02.995405  3547 net.cpp:137] Memory required for data: 1187461200
I0925 20:26:02.995410  3547 layer_factory.hpp:77] Creating layer InnerProduct1_InnerProduct1_0_split
I0925 20:26:02.995414  3547 net.cpp:84] Creating Layer InnerProduct1_InnerProduct1_0_split
I0925 20:26:02.995416  3547 net.cpp:406] InnerProduct1_InnerProduct1_0_split <- InnerProduct1
I0925 20:26:02.995420  3547 net.cpp:380] InnerProduct1_InnerProduct1_0_split -> InnerProduct1_InnerProduct1_0_split_0
I0925 20:26:02.995425  3547 net.cpp:380] InnerProduct1_InnerProduct1_0_split -> InnerProduct1_InnerProduct1_0_split_1
I0925 20:26:02.995455  3547 net.cpp:122] Setting up InnerProduct1_InnerProduct1_0_split
I0925 20:26:02.995458  3547 net.cpp:129] Top shape: 100 10 (1000)
I0925 20:26:02.995461  3547 net.cpp:129] Top shape: 100 10 (1000)
I0925 20:26:02.995465  3547 net.cpp:137] Memory required for data: 1187469200
I0925 20:26:02.995466  3547 layer_factory.hpp:77] Creating layer SoftmaxWithLoss1
I0925 20:26:02.995471  3547 net.cpp:84] Creating Layer SoftmaxWithLoss1
I0925 20:26:02.995472  3547 net.cpp:406] SoftmaxWithLoss1 <- InnerProduct1_InnerProduct1_0_split_0
I0925 20:26:02.995476  3547 net.cpp:406] SoftmaxWithLoss1 <- Data2_Data1_1_split_0
…
