…
I0928 19:33:29.440412  5010 net.cpp:294] The NetState phase (0) differed from the phase (1) specified by a rule in layer Accuracy1
I0928 19:33:29.441792  5010 net.cpp:51] Initializing net from parameters: 
name: "resnet_cifar10"
state {
  phase: TRAIN
  level: 0
  stage: ""
}
layer {
  name: "Data1"
  type: "Data"
  top: "Data1"
  top: "Data2"
  include {
    phase: TRAIN
  }
  transform_param {
    mirror: true
    crop_size: 28
    mean_file: "/home/x306/caffe/xn/PENLU/data/cifar10/mean.binaryproto"
  }
  data_param {
    source: "/home/x306/caffe/xn/PENLU/data/cifar10/cifar10_train_lmdb"
    batch_size: 100
    backend: LMDB
  }
}
layer {
  name: "Convolution1"
  type: "Convolution"
  bottom: "Data1"
  top: "Convolution1"
  param {
    lr_mult: 1
    decay_mult: 1
  }
  param {
    lr_mult: 2
    decay_mult: 0
  }
  convolution_param {
    num_output: 16
    pad: 1
    kernel_size: 3
    stride: 1
    weight_filler {
      type: "gaussian"
      std: 0.118
    }
    bias_filler {
      type: "constant"
      value: 0
    }
  }
}
layer {
  name: "BatchNorm1"
  type: "BatchNorm"
  bottom: "Convolution1"
  top: "Convolution1"
  param {
    lr_mult: 0
    decay_mult: 0
  }
  param {
    lr_mult: 0
    decay_mult: 0
  }
  param {
    lr_mult: 0
    decay_mult: 0
  }
}
layer {
  name: "Scale1"
  type: "Scale"
  bottom: "Convolution1"
  top: "Convolution1"
  scale_param {
    bias_term: true
  }
}
layer {
  name: "M2PELU1"
  type: "M2PELU"
  bottom: "Convolution1"
  top: "Conv_penlu1"
  param {
    lr_mult: 2
    decay_mult: 0
  }
  param {
    lr_mult: 2
    decay_mult: 0
  }
  m2pelu_param {
    alpha_filler {
      type: "constant"
      value: 0.25
    }
    beta_filler {
      type: "constant"
      value: 1
    }
  }
}
layer {
  name: "BatchNorm_penlu1"
  type: "BatchNorm"
  bottom: "Conv_penlu1"
  top: "Conv_penlu1"
  param {
    lr_mult: 0
    decay_mult: 0
  }
  param {
    lr_mult: 0
    decay_mult: 0
  }
  param {
    lr_mult: 0
    decay_mult: 0
  }
}
layer {
  name: "Scale_penlu1"
  type: "Scale"
  bottom: "Conv_penlu1"
  top: "Conv_penlu1"
  scale_param {
    bias_term: true
  }
}
layer {
  name: "Convolution2"
  type: "Convolution"
  bottom: "Conv_penlu1"
  top: "Convolution2"
  param {
    lr_mult: 1
    decay_mult: 1
  }
  param {
    lr_mult: 2
    decay_mult: 0
  }
  convolution_param {
    num_output: 16
    pad: 1
    kernel_size: 3
    stride: 1
    weight_filler {
      type: "gaussian"
      std: 0.118
    }
    bias_filler {
      type: "constant"
      value: 0
    }
  }
}
layer {
  name: "BatchNorm2"
  type: "BatchNorm"
  bottom: "Convolution2"
  top: "Convolution2"
  param {
    lr_mult: 0
    decay_mult: 0
  }
  param {
    lr_mult: 0
    decay_mult: 0
  }
  param {
    lr_mult: 0
    decay_mult: 0
  }
}
layer {
  name: "Scale2"
  type: "Scale"
  bottom: "Convolution2"
  top: "Convolution2"
  scale_param {
    bias_term: true
  }
}
layer {
  name: "M2PELU2"
  type: "M2PELU"
  bottom: "Convolution2"
  top: "Conv_penlu2"
  param {
    lr_mult: 2
    decay_mult: 0
  }
  param {
    lr_mult: 2
    decay_mult: 0
  }
  m2pelu_param {
    alpha_filler {
      type: "constant"
      value: 0.25
    }
    beta_filler {
      type: "constant"
      value: 1
    }
  }
}
layer {
  name: "BatchNorm_penlu2"
  type: "BatchNorm"
  bottom: "Conv_penlu2"
  top: "Conv_penlu2"
  param {
    lr_mult: 0
    decay_mult: 0
  }
  param {
    lr_mult: 0
    decay_mult: 0
  }
  param {
    lr_mult: 0
    decay_mult: 0
  }
}
layer {
  name: "Scale_penlu2"
  type: "Scale"
  bottom: "Conv_penlu2"
  top: "Conv_penlu2"
  scale_param {
    bias_term: true
  }
}
layer {
  name: "Convolution3"
  type: "Convolution"
  bottom: "Conv_penlu2"
  top: "Convolution3"
  param {
    lr_mult: 1
    decay_mult: 1
  }
  param {
    lr_mult: 2
    decay_mult: 0
  }
  convolution_param {
    num_output: 16
    pad: 1
    kernel_size: 3
    stride: 1
    weight_filler {
      type: "gaussian"
      std: 0.118
    }
    bias_filler {
      type: "constant"
      value: 0
    }
  }
}
layer {
  name: "BatchNorm3"
  type: "BatchNorm"
  bottom: "Convolution3"
  top: "Convolution3"
  param {
    lr_mult: 0
    decay_mult: 0
  }
  param {
    lr_mult: 0
    decay_mult: 0
  }
  param {
    lr_mult: 0
    decay_mult: 0
  }
}
layer {
  name: "Scale3"
  type: "Scale"
  bottom: "Convolution3"
  top: "Convolution3"
  scale_param {
    bias_term: true
  }
}
layer {
  name: "Eltwise1"
  type: "Eltwise"
  bottom: "Convolution1"
  bottom: "Convolution3"
  top: "Eltwise1"
  eltwise_param {
    operation: SUM
  }
}
layer {
  name: "M2PELU3"
  type: "M2PELU"
  bottom: "Eltwise1"
  top: "Elt_penlu1"
  param {
    lr_mult: 2
    decay_mult: 0
  }
  param {
    lr_mult: 2
    decay_mult: 0
  }
  m2pelu_param {
    alpha_filler {
      type: "constant"
      value: 0.25
    }
    beta_filler {
      type: "constant"
      value: 1
    }
  }
}
layer {
  name: "BatchNorm_penlu3"
  type: "BatchNorm"
  bottom: "Elt_penlu1"
  top: "Elt_penlu1"
  param {
    lr_mult: 0
    decay_mult: 0
  }
  param {
    lr_mult: 0
    decay_mult: 0
  }
  param {
    lr_mult: 0
    decay_mult: 0
  }
}
layer {
  name: "Scale_penlu3"
  type: "Scale"
  bottom: "Elt_penlu1"
  top: "Elt_penlu1"
  scale_param {
    bias_term: true
  }
}
layer {
  name: "Convolution4"
  type: "Convolution"
  bottom: "Elt_penlu1"
  top: "Convolution4"
  param {
    lr_mult: 1
    decay_mult: 1
  }
  param {
    lr_mult: 2
    decay_mult: 0
  }
  convolution_param {
    num_output: 16
    pad: 1
    kernel_size: 3
    stride: 1
    weight_filler {
      type: "gaussian"
      std: 0.118
    }
    bias_filler {
      type: "constant"
      value: 0
    }
  }
}
layer {
  name: "BatchNorm4"
  type: "BatchNorm"
  bottom: "Convolution4"
  top: "Convolution4"
  param {
    lr_mult: 0
    decay_mult: 0
  }
  param {
    lr_mult: 0
    decay_mult: 0
  }
  param {
    lr_mult: 0
    decay_mult: 0
  }
}
layer {
  name: "Scale4"
  type: "Scale"
  bottom: "Convolution4"
  top: "Convolution4"
  scale_param {
    bias_term: true
  }
}
layer {
  name: "M2PELU4"
  type: "M2PELU"
  bottom: "Convolution4"
  top: "Conv_penlu4"
  param {
    lr_mult: 2
    decay_mult: 0
  }
  param {
    lr_mult: 2
    decay_mult: 0
  }
  m2pelu_param {
    alpha_filler {
      type: "constant"
      value: 0.25
    }
    beta_filler {
      type: "constant"
      value: 1
    }
  }
}
layer {
  name: "BatchNorm_PENLU"
  type: "BatchNorm"
  bottom: "Conv_penlu4"
  top: "Conv_PENLU"
  param {
    lr_mult: 0
    decay_mult: 0
  }
  param {
    lr_mult: 0
    decay_mult: 0
  }
  param {
    lr_mult: 0
    decay_mult: 0
  }
}
layer {
  name: "Scale_PENLU"
  type: "Scale"
  bottom: "Conv_PENLU"
  top: "Conv_PENLU"
  scale_param {
    bias_term: true
  }
}
layer {
  name: "Convolution5"
  type: "Convolution"
  bottom: "Conv_PENLU"
  top: "Convolution5"
  param {
    lr_mult: 1
    decay_mult: 1
  }
  param {
    lr_mult: 2
    decay_mult: 0
  }
  convolution_param {
    num_output: 16
    pad: 1
    kernel_size: 3
    stride: 1
    weight_filler {
      type: "gaussian"
      std: 0.118
    }
    bias_filler {
      type: "constant"
      value: 0
    }
  }
}
layer {
  name: "BatchNorm5"
  type: "BatchNorm"
  bottom: "Convolution5"
  top: "Convolution5"
  param {
    lr_mult: 0
    decay_mult: 0
  }
  param {
    lr_mult: 0
    decay_mult: 0
  }
  param {
    lr_mult: 0
    decay_mult: 0
  }
}
layer {
  name: "Scale5"
  type: "Scale"
  bottom: "Convolution5"
  top: "Convolution5"
  scale_param {
    bias_term: true
  }
}
layer {
  name: "Eltwise2"
  type: "Eltwise"
  bottom: "Eltwise1"
  bottom: "Convolution5"
  top: "Eltwise2"
  eltwise_param {
    operation: SUM
  }
}
layer {
  name: "M2PELU5"
  type: "M2PELU"
  bottom: "Eltwise2"
  top: "Elt_penlu2"
  param {
    lr_mult: 2
    decay_mult: 0
  }
  param {
    lr_mult: 2
    decay_mult: 0
  }
  m2pelu_param {
    alpha_filler {
      type: "constant"
      value: 0.25
    }
    beta_filler {
      type: "constant"
      value: 1
    }
  }
}
layer {
  name: "BatchNorm_penlu5"
  type: "BatchNorm"
  bottom: "Elt_penlu2"
  top: "Elt_penlu2"
  param {
    lr_mult: 0
    decay_mult: 0
  }
  param {
    lr_mult: 0
    decay_mult: 0
  }
  param {
    lr_mult: 0
    decay_mult: 0
  }
}
layer {
  name: "Scale_penlu5"
  type: "Scale"
  bottom: "Elt_penlu2"
  top: "Elt_penlu2"
  scale_param {
    bias_term: true
  }
}
layer {
  name: "Convolution6"
  type: "Convolution"
  bottom: "Elt_penlu2"
  top: "Convolution6"
  param {
    lr_mult: 1
    decay_mult: 1
  }
  param {
    lr_mult: 2
    decay_mult: 0
  }
  convolution_param {
    num_output: 16
    pad: 1
    kernel_size: 3
    stride: 1
    weight_filler {
      type: "gaussian"
      std: 0.118
    }
    bias_filler {
      type: "constant"
      value: 0
    }
  }
}
layer {
  name: "BatchNorm6"
  type: "BatchNorm"
  bottom: "Convolution6"
  top: "Convolution6"
  param {
    lr_mult: 0
    decay_mult: 0
  }
  param {
    lr_mult: 0
    decay_mult: 0
  }
  param {
    lr_mult: 0
    decay_mult: 0
  }
}
layer {
  name: "Scale6"
  type: "Scale"
  bottom: "Convolution6"
  top: "Convolution6"
  scale_param {
    bias_term: true
  }
}
layer {
  name: "M2PELU6"
  type: "M2PELU"
  bottom: "Convolution6"
  top: "Conv_penlu6"
  param {
    lr_mult: 2
    decay_mult: 0
  }
  param {
    lr_mult: 2
    decay_mult: 0
  }
  m2pelu_param {
    alpha_filler {
      type: "constant"
      value: 0.25
    }
    beta_filler {
      type: "constant"
      value: 1
    }
  }
}
layer {
  name: "BatchNorm_penlu6"
  type: "BatchNorm"
  bottom: "Conv_penlu6"
  top: "Conv_penlu6"
  param {
    lr_mult: 0
    decay_mult: 0
  }
  param {
    lr_mult: 0
    decay_mult: 0
  }
  param {
    lr_mult: 0
    decay_mult: 0
  }
}
layer {
  name: "Scale_penlu6"
  type: "Scale"
  bottom: "Conv_penlu6"
  top: "Conv_penlu6"
  scale_param {
    bias_term: true
  }
}
layer {
  name: "Convolution7"
  type: "Convolution"
  bottom: "Conv_penlu6"
  top: "Convolution7"
  param {
    lr_mult: 1
    decay_mult: 1
  }
  param {
    lr_mult: 2
    decay_mult: 0
  }
  convolution_param {
    num_output: 16
    pad: 1
    kernel_size: 3
    stride: 1
    weight_filler {
      type: "gaussian"
      std: 0.118
    }
    bias_filler {
      type: "constant"
      value: 0
    }
  }
}
layer {
  name: "BatchNorm7"
  type: "BatchNorm"
  bottom: "Convolution7"
  top: "Convolution7"
  param {
    lr_mult: 0
    decay_mult: 0
  }
  param {
    lr_mult: 0
    decay_mult: 0
  }
  param {
    lr_mult: 0
    decay_mult: 0
  }
}
layer {
  name: "Scale7"
  type: "Scale"
  bottom: "Convolution7"
  top: "Convolution7"
  scale_param {
    bias_term: true
  }
}
layer {
  name: "Eltwise3"
  type: "Eltwise"
  bottom: "Eltwise2"
  bottom: "Convolution7"
  top: "Eltwise3"
  eltwise_param {
    operation: SUM
  }
}
layer {
  name: "M2PELU7"
  type: "M2PELU"
  bottom: "Eltwise3"
  top: "Elt_penlu3"
  param {
    lr_mult: 2
    decay_mult: 0
  }
  param {
    lr_mult: 2
    decay_mult: 0
  }
  m2pelu_param {
    alpha_filler {
      type: "constant"
      value: 0.25
    }
    beta_filler {
      type: "constant"
      value: 1
    }
  }
}
layer {
  name: "BatchNorm_penlu7"
  type: "BatchNorm"
  bottom: "Elt_penlu3"
  top: "Elt_penlu3"
  param {
    lr_mult: 0
    decay_mult: 0
  }
  param {
    lr_mult: 0
    decay_mult: 0
  }
  param {
    lr_mult: 0
    decay_mult: 0
  }
}
layer {
  name: "Scale_penlu7"
  type: "Scale"
  bottom: "Elt_penlu3"
  top: "Elt_penlu3"
  scale_param {
    bias_term: true
  }
}
layer {
  name: "Convolution8"
  type: "Convolution"
  bottom: "Elt_penlu3"
  top: "Convolution8"
  param {
    lr_mult: 1
    decay_mult: 1
  }
  param {
    lr_mult: 2
    decay_mult: 0
  }
  convolution_param {
    num_output: 16
    pad: 1
    kernel_size: 3
    stride: 1
    weight_filler {
      type: "gaussian"
      std: 0.118
    }
    bias_filler {
      type: "constant"
      value: 0
    }
  }
}
layer {
  name: "BatchNorm8"
  type: "BatchNorm"
  bottom: "Convolution8"
  top: "Convolution8"
  param {
    lr_mult: 0
    decay_mult: 0
  }
  param {
    lr_mult: 0
    decay_mult: 0
  }
  param {
    lr_mult: 0
    decay_mult: 0
  }
}
layer {
  name: "Scale8"
  type: "Scale"
  bottom: "Convolution8"
  top: "Convolution8"
  scale_param {
    bias_term: true
  }
}
layer {
  name: "M2PELU8"
  type: "M2PELU"
  bottom: "Convolution8"
  top: "Conv_penlu8"
  param {
    lr_mult: 2
    decay_mult: 0
  }
  param {
    lr_mult: 2
    decay_mult: 0
  }
  m2pelu_param {
    alpha_filler {
      type: "constant"
      value: 0.25
    }
    beta_filler {
      type: "constant"
      value: 1
    }
  }
}
layer {
  name: "BatchNorm_penlu8"
  type: "BatchNorm"
  bottom: "Conv_penlu8"
  top: "Conv_penlu8"
  param {
    lr_mult: 0
    decay_mult: 0
  }
  param {
    lr_mult: 0
    decay_mult: 0
  }
  param {
    lr_mult: 0
    decay_mult: 0
  }
}
layer {
  name: "Scale_penlu8"
  type: "Scale"
  bottom: "Conv_penlu8"
  top: "Conv_penlu8"
  scale_param {
    bias_term: true
  }
}
layer {
  name: "Convolution9"
  type: "Convolution"
  bottom: "Conv_penlu8"
  top: "Convolution9"
  param {
    lr_mult: 1
    decay_mult: 1
  }
  param {
    lr_mult: 2
    decay_mult: 0
  }
  convolution_param {
    num_output: 16
    pad: 1
    kernel_size: 3
    stride: 1
    weight_filler {
      type: "gaussian"
      std: 0.118
    }
    bias_filler {
      type: "constant"
      value: 0
    }
  }
}
layer {
  name: "BatchNorm9"
  type: "BatchNorm"
  bottom: "Convolution9"
  top: "Convolution9"
  param {
    lr_mult: 0
    decay_mult: 0
  }
  param {
    lr_mult: 0
    decay_mult: 0
  }
  param {
    lr_mult: 0
    decay_mult: 0
  }
}
layer {
  name: "Scale9"
  type: "Scale"
  bottom: "Convolution9"
  top: "Convolution9"
  scale_param {
    bias_term: true
  }
}
layer {
  name: "Eltwise4"
  type: "Eltwise"
  bottom: "Eltwise3"
  bottom: "Convolution9"
  top: "Eltwise4"
  eltwise_param {
    operation: SUM
  }
}
layer {
  name: "M2PELU9"
  type: "M2PELU"
  bottom: "Eltwise4"
  top: "Elt_penlu4"
  param {
    lr_mult: 2
    decay_mult: 0
  }
  param {
    lr_mult: 2
    decay_mult: 0
  }
  m2pelu_param {
    alpha_filler {
      type: "constant"
      value: 0.25
    }
    beta_filler {
      type: "constant"
      value: 1
    }
  }
}
layer {
  name: "BatchNorm_penlu9"
  type: "BatchNorm"
  bottom: "Elt_penlu4"
  top: "Elt_penlu4"
  param {
    lr_mult: 0
    decay_mult: 0
  }
  param {
    lr_mult: 0
    decay_mult: 0
  }
  param {
    lr_mult: 0
    decay_mult: 0
  }
}
layer {
  name: "Scale_penlu9"
  type: "Scale"
  bottom: "Elt_penlu4"
  top: "Elt_penlu4"
  scale_param {
    bias_term: true
  }
}
layer {
  name: "Convolution10"
  type: "Convolution"
  bottom: "Elt_penlu4"
  top: "Convolution10"
  param {
    lr_mult: 1
    decay_mult: 1
  }
  param {
    lr_mult: 2
    decay_mult: 0
  }
  convolution_param {
    num_output: 16
    pad: 1
    kernel_size: 3
    stride: 1
    weight_filler {
      type: "gaussian"
      std: 0.118
    }
    bias_filler {
      type: "constant"
      value: 0
    }
  }
}
layer {
  name: "BatchNorm10"
  type: "BatchNorm"
  bottom: "Convolution10"
  top: "Convolution10"
  param {
    lr_mult: 0
    decay_mult: 0
  }
  param {
    lr_mult: 0
    decay_mult: 0
  }
  param {
    lr_mult: 0
    decay_mult: 0
  }
}
layer {
  name: "Scale10"
  type: "Scale"
  bottom: "Convolution10"
  top: "Convolution10"
  scale_param {
    bias_term: true
  }
}
layer {
  name: "M2PELU10"
  type: "M2PELU"
  bottom: "Convolution10"
  top: "Conv_penlu10"
  param {
    lr_mult: 2
    decay_mult: 0
  }
  param {
    lr_mult: 2
    decay_mult: 0
  }
  m2pelu_param {
    alpha_filler {
      type: "constant"
      value: 0.25
    }
    beta_filler {
      type: "constant"
      value: 1
    }
  }
}
layer {
  name: "BatchNorm_penlu10"
  type: "BatchNorm"
  bottom: "Conv_penlu10"
  top: "Conv_penlu10"
  param {
    lr_mult: 0
    decay_mult: 0
  }
  param {
    lr_mult: 0
    decay_mult: 0
  }
  param {
    lr_mult: 0
    decay_mult: 0
  }
}
layer {
  name: "Scale_penlu10"
  type: "Scale"
  bottom: "Conv_penlu10"
  top: "Conv_penlu10"
  scale_param {
    bias_term: true
  }
}
layer {
  name: "Convolution11"
  type: "Convolution"
  bottom: "Conv_penlu10"
  top: "Convolution11"
  param {
    lr_mult: 1
    decay_mult: 1
  }
  param {
    lr_mult: 2
    decay_mult: 0
  }
  convolution_param {
    num_output: 16
    pad: 1
    kernel_size: 3
    stride: 1
    weight_filler {
      type: "gaussian"
      std: 0.118
    }
    bias_filler {
      type: "constant"
      value: 0
    }
  }
}
layer {
  name: "BatchNorm11"
  type: "BatchNorm"
  bottom: "Convolution11"
  top: "Convolution11"
  param {
    lr_mult: 0
    decay_mult: 0
  }
  param {
    lr_mult: 0
    decay_mult: 0
  }
  param {
    lr_mult: 0
    decay_mult: 0
  }
}
layer {
  name: "Scale11"
  type: "Scale"
  bottom: "Convolution11"
  top: "Convolution11"
  scale_param {
    bias_term: true
  }
}
layer {
  name: "Eltwise5"
  type: "Eltwise"
  bottom: "Eltwise4"
  bottom: "Convolution11"
  top: "Eltwise5"
  eltwise_param {
    operation: SUM
  }
}
layer {
  name: "M2PELU11"
  type: "M2PELU"
  bottom: "Eltwise5"
  top: "Elt_penlu5"
  param {
    lr_mult: 2
    decay_mult: 0
  }
  param {
    lr_mult: 2
    decay_mult: 0
  }
  m2pelu_param {
    alpha_filler {
      type: "constant"
      value: 0.25
    }
    beta_filler {
      type: "constant"
      value: 1
    }
  }
}
layer {
  name: "BatchNorm_penlu11"
  type: "BatchNorm"
  bottom: "Elt_penlu5"
  top: "Elt_penlu5"
  param {
    lr_mult: 0
    decay_mult: 0
  }
  param {
    lr_mult: 0
    decay_mult: 0
  }
  param {
    lr_mult: 0
    decay_mult: 0
  }
}
layer {
  name: "Scale_penlu11"
  type: "Scale"
  bottom: "Elt_penlu5"
  top: "Elt_penlu5"
  scale_param {
    bias_term: true
  }
}
layer {
  name: "Convolution12"
  type: "Convolution"
  bottom: "Elt_penlu5"
  top: "Convolution12"
  param {
    lr_mult: 1
    decay_mult: 1
  }
  param {
    lr_mult: 2
    decay_mult: 0
  }
  convolution_param {
    num_output: 16
    pad: 1
    kernel_size: 3
    stride: 1
    weight_filler {
      type: "gaussian"
      std: 0.118
    }
    bias_filler {
      type: "constant"
      value: 0
    }
  }
}
layer {
  name: "BatchNorm12"
  type: "BatchNorm"
  bottom: "Convolution12"
  top: "Convolution12"
  param {
    lr_mult: 0
    decay_mult: 0
  }
  param {
    lr_mult: 0
    decay_mult: 0
  }
  param {
    lr_mult: 0
    decay_mult: 0
  }
}
layer {
  name: "Scale12"
  type: "Scale"
  bottom: "Convolution12"
  top: "Convolution12"
  scale_param {
    bias_term: true
  }
}
layer {
  name: "M2PELU12"
  type: "M2PELU"
  bottom: "Convolution12"
  top: "Conv_penlu12"
  param {
    lr_mult: 2
    decay_mult: 0
  }
  param {
    lr_mult: 2
    decay_mult: 0
  }
  m2pelu_param {
    alpha_filler {
      type: "constant"
      value: 0.25
    }
    beta_filler {
      type: "constant"
      value: 1
    }
  }
}
layer {
  name: "BatchNorm_penlu12"
  type: "BatchNorm"
  bottom: "Conv_penlu12"
  top: "Conv_penlu12"
  param {
    lr_mult: 0
    decay_mult: 0
  }
  param {
    lr_mult: 0
    decay_mult: 0
  }
  param {
    lr_mult: 0
    decay_mult: 0
  }
}
layer {
  name: "Scale_penlu12"
  type: "Scale"
  bottom: "Conv_penlu12"
  top: "Conv_penlu12"
  scale_param {
    bias_term: true
  }
}
layer {
  name: "Convolution13"
  type: "Convolution"
  bottom: "Conv_penlu12"
  top: "Convolution13"
  param {
    lr_mult: 1
    decay_mult: 1
  }
  param {
    lr_mult: 2
    decay_mult: 0
  }
  convolution_param {
    num_output: 16
    pad: 1
    kernel_size: 3
    stride: 1
    weight_filler {
      type: "gaussian"
      std: 0.118
    }
    bias_filler {
      type: "constant"
      value: 0
    }
  }
}
layer {
  name: "BatchNorm13"
  type: "BatchNorm"
  bottom: "Convolution13"
  top: "Convolution13"
  param {
    lr_mult: 0
    decay_mult: 0
  }
  param {
    lr_mult: 0
    decay_mult: 0
  }
  param {
    lr_mult: 0
    decay_mult: 0
  }
}
layer {
  name: "Scale13"
  type: "Scale"
  bottom: "Convolution13"
  top: "Convolution13"
  scale_param {
    bias_term: true
  }
}
layer {
  name: "Eltwise6"
  type: "Eltwise"
  bottom: "Eltwise5"
  bottom: "Convolution13"
  top: "Eltwise6"
  eltwise_param {
    operation: SUM
  }
}
layer {
  name: "M2PELU13"
  type: "M2PELU"
  bottom: "Eltwise6"
  top: "Elt_penlu6"
  param {
    lr_mult: 2
    decay_mult: 0
  }
  param {
    lr_mult: 2
    decay_mult: 0
  }
  m2pelu_param {
    alpha_filler {
      type: "constant"
      value: 0.25
    }
    beta_filler {
      type: "constant"
      value: 1
    }
  }
}
layer {
  name: "BatchNorm_penlu13"
  type: "BatchNorm"
  bottom: "Elt_penlu6"
  top: "Elt_penlu6"
  param {
    lr_mult: 0
    decay_mult: 0
  }
  param {
    lr_mult: 0
    decay_mult: 0
  }
  param {
    lr_mult: 0
    decay_mult: 0
  }
}
layer {
  name: "Scale_penlu13"
  type: "Scale"
  bottom: "Elt_penlu6"
  top: "Elt_penlu6"
  scale_param {
    bias_term: true
  }
}
layer {
  name: "Convolution14"
  type: "Convolution"
  bottom: "Elt_penlu6"
  top: "Convolution14"
  param {
    lr_mult: 1
    decay_mult: 1
  }
  param {
    lr_mult: 2
    decay_mult: 0
  }
  convolution_param {
    num_output: 16
    pad: 1
    kernel_size: 3
    stride: 1
    weight_filler {
      type: "gaussian"
      std: 0.118
    }
    bias_filler {
      type: "constant"
      value: 0
    }
  }
}
layer {
  name: "BatchNorm14"
  type: "BatchNorm"
  bottom: "Convolution14"
  top: "Convolution14"
  param {
    lr_mult: 0
    decay_mult: 0
  }
  param {
    lr_mult: 0
    decay_mult: 0
  }
  param {
    lr_mult: 0
    decay_mult: 0
  }
}
layer {
  name: "Scale14"
  type: "Scale"
  bottom: "Convolution14"
  top: "Convolution14"
  scale_param {
    bias_term: true
  }
}
layer {
  name: "M2PELU14"
  type: "M2PELU"
  bottom: "Convolution14"
  top: "Conv_penlu14"
  param {
    lr_mult: 2
    decay_mult: 0
  }
  param {
    lr_mult: 2
    decay_mult: 0
  }
  m2pelu_param {
    alpha_filler {
      type: "constant"
      value: 0.25
    }
    beta_filler {
      type: "constant"
      value: 1
    }
  }
}
layer {
  name: "BatchNorm_penlu14"
  type: "BatchNorm"
  bottom: "Conv_penlu14"
  top: "Conv_penlu14"
  param {
    lr_mult: 0
    decay_mult: 0
  }
  param {
    lr_mult: 0
    decay_mult: 0
  }
  param {
    lr_mult: 0
    decay_mult: 0
  }
}
layer {
  name: "Scale_penlu14"
  type: "Scale"
  bottom: "Conv_penlu14"
  top: "Conv_penlu14"
  scale_param {
    bias_term: true
  }
}
layer {
  name: "Convolution15"
  type: "Convolution"
  bottom: "Conv_penlu14"
  top: "Convolution15"
  param {
    lr_mult: 1
    decay_mult: 1
  }
  param {
    lr_mult: 2
    decay_mult: 0
  }
  convolution_param {
    num_output: 16
    pad: 1
    kernel_size: 3
    stride: 1
    weight_filler {
      type: "gaussian"
      std: 0.118
    }
    bias_filler {
      type: "constant"
      value: 0
    }
  }
}
layer {
  name: "BatchNorm15"
  type: "BatchNorm"
  bottom: "Convolution15"
  top: "Convolution15"
  param {
    lr_mult: 0
    decay_mult: 0
  }
  param {
    lr_mult: 0
    decay_mult: 0
  }
  param {
    lr_mult: 0
    decay_mult: 0
  }
}
layer {
  name: "Scale15"
  type: "Scale"
  bottom: "Convolution15"
  top: "Convolution15"
  scale_param {
    bias_term: true
  }
}
layer {
  name: "Eltwise7"
  type: "Eltwise"
  bottom: "Eltwise6"
  bottom: "Convolution15"
  top: "Eltwise7"
  eltwise_param {
    operation: SUM
  }
}
layer {
  name: "M2PELU15"
  type: "M2PELU"
  bottom: "Eltwise7"
  top: "Elt_penlu7"
  param {
    lr_mult: 2
    decay_mult: 0
  }
  param {
    lr_mult: 2
    decay_mult: 0
  }
  m2pelu_param {
    alpha_filler {
      type: "constant"
      value: 0.25
    }
    beta_filler {
      type: "constant"
      value: 1
    }
  }
}
layer {
  name: "BatchNorm_penlu15"
  type: "BatchNorm"
  bottom: "Elt_penlu7"
  top: "Elt_penlu7"
  param {
    lr_mult: 0
    decay_mult: 0
  }
  param {
    lr_mult: 0
    decay_mult: 0
  }
  param {
    lr_mult: 0
    decay_mult: 0
  }
}
layer {
  name: "Scale_penlu15"
  type: "Scale"
  bottom: "Elt_penlu7"
  top: "Elt_penlu7"
  scale_param {
    bias_term: true
  }
}
layer {
  name: "Convolution16"
  type: "Convolution"
  bottom: "Elt_penlu7"
  top: "Convolution16"
  param {
    lr_mult: 1
    decay_mult: 1
  }
  param {
    lr_mult: 2
    decay_mult: 0
  }
  convolution_param {
    num_output: 16
    pad: 1
    kernel_size: 3
    stride: 1
    weight_filler {
      type: "gaussian"
      std: 0.118
    }
    bias_filler {
      type: "constant"
      value: 0
    }
  }
}
layer {
  name: "BatchNorm16"
  type: "BatchNorm"
  bottom: "Convolution16"
  top: "Convolution16"
  param {
    lr_mult: 0
    decay_mult: 0
  }
  param {
    lr_mult: 0
    decay_mult: 0
  }
  param {
    lr_mult: 0
    decay_mult: 0
  }
}
layer {
  name: "Scale16"
  type: "Scale"
  bottom: "Convolution16"
  top: "Convolution16"
  scale_param {
    bias_term: true
  }
}
layer {
  name: "M2PELU16"
  type: "M2PELU"
  bottom: "Convolution16"
  top: "Conv_penlu16"
  param {
    lr_mult: 2
    decay_mult: 0
  }
  param {
    lr_mult: 2
    decay_mult: 0
  }
  m2pelu_param {
    alpha_filler {
      type: "constant"
      value: 0.25
    }
    beta_filler {
      type: "constant"
      value: 1
    }
  }
}
layer {
  name: "BatchNorm_penlu16"
  type: "BatchNorm"
  bottom: "Conv_penlu16"
  top: "Conv_penlu16"
  param {
    lr_mult: 0
    decay_mult: 0
  }
  param {
    lr_mult: 0
    decay_mult: 0
  }
  param {
    lr_mult: 0
    decay_mult: 0
  }
}
layer {
  name: "Scale_penlu16"
  type: "Scale"
  bottom: "Conv_penlu16"
  top: "Conv_penlu16"
  scale_param {
    bias_term: true
  }
}
layer {
  name: "Convolution17"
  type: "Convolution"
  bottom: "Conv_penlu16"
  top: "Convolution17"
  param {
    lr_mult: 1
    decay_mult: 1
  }
  param {
    lr_mult: 2
    decay_mult: 0
  }
  convolution_param {
    num_output: 16
    pad: 1
    kernel_size: 3
    stride: 1
    weight_filler {
      type: "gaussian"
      std: 0.118
    }
    bias_filler {
      type: "constant"
      value: 0
    }
  }
}
layer {
  name: "BatchNorm17"
  type: "BatchNorm"
  bottom: "Convolution17"
  top: "Convolution17"
  param {
    lr_mult: 0
    decay_mult: 0
  }
  param {
    lr_mult: 0
    decay_mult: 0
  }
  param {
    lr_mult: 0
    decay_mult: 0
  }
}
layer {
  name: "Scale17"
  type: "Scale"
  bottom: "Convolution17"
  top: "Convolution17"
  scale_param {
    bias_term: true
  }
}
layer {
  name: "Eltwise8"
  type: "Eltwise"
  bottom: "Eltwise7"
  bottom: "Convolution17"
  top: "Eltwise8"
  eltwise_param {
    operation: SUM
  }
}
layer {
  name: "M2PELU17"
  type: "M2PELU"
  bottom: "Eltwise8"
  top: "Elt_penlu8"
  param {
    lr_mult: 2
    decay_mult: 0
  }
  param {
    lr_mult: 2
    decay_mult: 0
  }
  m2pelu_param {
    alpha_filler {
      type: "constant"
      value: 0.25
    }
    beta_filler {
      type: "constant"
      value: 1
    }
  }
}
layer {
  name: "BatchNorm_penlu17"
  type: "BatchNorm"
  bottom: "Elt_penlu8"
  top: "Elt_penlu8"
  param {
    lr_mult: 0
    decay_mult: 0
  }
  param {
    lr_mult: 0
    decay_mult: 0
  }
  param {
    lr_mult: 0
    decay_mult: 0
  }
}
layer {
  name: "Scale_penlu17"
  type: "Scale"
  bottom: "Elt_penlu8"
  top: "Elt_penlu8"
  scale_param {
    bias_term: true
  }
}
layer {
  name: "Convolution18"
  type: "Convolution"
  bottom: "Elt_penlu8"
  top: "Convolution18"
  param {
    lr_mult: 1
    decay_mult: 1
  }
  param {
    lr_mult: 2
    decay_mult: 0
  }
  convolution_param {
    num_output: 16
    pad: 1
    kernel_size: 3
    stride: 1
    weight_filler {
      type: "gaussian"
      std: 0.118
    }
    bias_filler {
      type: "constant"
      value: 0
    }
  }
}
layer {
  name: "BatchNorm18"
  type: "BatchNorm"
  bottom: "Convolution18"
  top: "Convolution18"
  param {
    lr_mult: 0
    decay_mult: 0
  }
  param {
    lr_mult: 0
    decay_mult: 0
  }
  param {
    lr_mult: 0
    decay_mult: 0
  }
}
layer {
  name: "Scale18"
  type: "Scale"
  bottom: "Convolution18"
  top: "Convolution18"
  scale_param {
    bias_term: true
  }
}
layer {
  name: "M2PELU18"
  type: "M2PELU"
  bottom: "Convolution18"
  top: "Conv_penlu18"
  param {
    lr_mult: 2
    decay_mult: 0
  }
  param {
    lr_mult: 2
    decay_mult: 0
  }
  m2pelu_param {
    alpha_filler {
      type: "constant"
      value: 0.25
    }
    beta_filler {
      type: "constant"
      value: 1
    }
  }
}
layer {
  name: "BatchNorm_penlu18"
  type: "BatchNorm"
  bottom: "Conv_penlu18"
  top: "Conv_penlu18"
  param {
    lr_mult: 0
    decay_mult: 0
  }
  param {
    lr_mult: 0
    decay_mult: 0
  }
  param {
    lr_mult: 0
    decay_mult: 0
  }
}
layer {
  name: "Scale_penlu18"
  type: "Scale"
  bottom: "Conv_penlu18"
  top: "Conv_penlu18"
  scale_param {
    bias_term: true
  }
}
layer {
  name: "Convolution19"
  type: "Convolution"
  bottom: "Conv_penlu18"
  top: "Convolution19"
  param {
    lr_mult: 1
    decay_mult: 1
  }
  param {
    lr_mult: 2
    decay_mult: 0
  }
  convolution_param {
    num_output: 16
    pad: 1
    kernel_size: 3
    stride: 1
    weight_filler {
      type: "gaussian"
      std: 0.118
    }
    bias_filler {
      type: "constant"
      value: 0
    }
  }
}
layer {
  name: "BatchNorm19"
  type: "BatchNorm"
  bottom: "Convolution19"
  top: "Convolution19"
  param {
    lr_mult: 0
    decay_mult: 0
  }
  param {
    lr_mult: 0
    decay_mult: 0
  }
  param {
    lr_mult: 0
    decay_mult: 0
  }
}
layer {
  name: "Scale19"
  type: "Scale"
  bottom: "Convolution19"
  top: "Convolution19"
  scale_param {
    bias_term: true
  }
}
layer {
  name: "Eltwise9"
  type: "Eltwise"
  bottom: "Eltwise8"
  bottom: "Convolution19"
  top: "Eltwise9"
  eltwise_param {
    operation: SUM
  }
}
layer {
  name: "M2PELU19"
  type: "M2PELU"
  bottom: "Eltwise9"
  top: "Elt_penlu9"
  param {
    lr_mult: 2
    decay_mult: 0
  }
  param {
    lr_mult: 2
    decay_mult: 0
  }
  m2pelu_param {
    alpha_filler {
      type: "constant"
      value: 0.25
    }
    beta_filler {
      type: "constant"
      value: 1
    }
  }
}
layer {
  name: "BatchNorm_penlu19"
  type: "BatchNorm"
  bottom: "Elt_penlu9"
  top: "Elt_pe
I0928 19:33:29.442809  5010 layer_factory.hpp:77] Creating layer Data1
I0928 19:33:29.442889  5010 db_lmdb.cpp:35] Opened lmdb /home/x306/caffe/xn/PENLU/data/cifar10/cifar10_train_lmdb
I0928 19:33:29.442909  5010 net.cpp:84] Creating Layer Data1
I0928 19:33:29.442914  5010 net.cpp:380] Data1 -> Data1
I0928 19:33:29.442934  5010 net.cpp:380] Data1 -> Data2
I0928 19:33:29.442942  5010 data_transformer.cpp:25] Loading mean file from: /home/x306/caffe/xn/PENLU/data/cifar10/mean.binaryproto
I0928 19:33:29.444375  5010 data_layer.cpp:45] output data size: 100,3,28,28
I0928 19:33:29.446804  5010 net.cpp:122] Setting up Data1
I0928 19:33:29.446820  5010 net.cpp:129] Top shape: 100 3 28 28 (235200)
I0928 19:33:29.446826  5010 net.cpp:129] Top shape: 100 (100)
I0928 19:33:29.446830  5010 net.cpp:137] Memory required for data: 941200
I0928 19:33:29.446837  5010 layer_factory.hpp:77] Creating layer Convolution1
I0928 19:33:29.446858  5010 net.cpp:84] Creating Layer Convolution1
I0928 19:33:29.446863  5010 net.cpp:406] Convolution1 <- Data1
I0928 19:33:29.446872  5010 net.cpp:380] Convolution1 -> Convolution1
I0928 19:33:29.592425  5010 net.cpp:122] Setting up Convolution1
I0928 19:33:29.592450  5010 net.cpp:129] Top shape: 100 16 28 28 (1254400)
I0928 19:33:29.592454  5010 net.cpp:137] Memory required for data: 5958800
I0928 19:33:29.592468  5010 layer_factory.hpp:77] Creating layer BatchNorm1
I0928 19:33:29.592489  5010 net.cpp:84] Creating Layer BatchNorm1
I0928 19:33:29.592514  5010 net.cpp:406] BatchNorm1 <- Convolution1
I0928 19:33:29.592530  5010 net.cpp:367] BatchNorm1 -> Convolution1 (in-place)
I0928 19:33:29.592681  5010 net.cpp:122] Setting up BatchNorm1
I0928 19:33:29.592686  5010 net.cpp:129] Top shape: 100 16 28 28 (1254400)
I0928 19:33:29.592689  5010 net.cpp:137] Memory required for data: 10976400
I0928 19:33:29.592696  5010 layer_factory.hpp:77] Creating layer Scale1
I0928 19:33:29.592715  5010 net.cpp:84] Creating Layer Scale1
I0928 19:33:29.592720  5010 net.cpp:406] Scale1 <- Convolution1
I0928 19:33:29.592723  5010 net.cpp:367] Scale1 -> Convolution1 (in-place)
I0928 19:33:29.592783  5010 layer_factory.hpp:77] Creating layer Scale1
I0928 19:33:29.592895  5010 net.cpp:122] Setting up Scale1
I0928 19:33:29.592900  5010 net.cpp:129] Top shape: 100 16 28 28 (1254400)
I0928 19:33:29.592902  5010 net.cpp:137] Memory required for data: 15994000
I0928 19:33:29.592906  5010 layer_factory.hpp:77] Creating layer Convolution1_Scale1_0_split
I0928 19:33:29.592913  5010 net.cpp:84] Creating Layer Convolution1_Scale1_0_split
I0928 19:33:29.592916  5010 net.cpp:406] Convolution1_Scale1_0_split <- Convolution1
I0928 19:33:29.592929  5010 net.cpp:380] Convolution1_Scale1_0_split -> Convolution1_Scale1_0_split_0
I0928 19:33:29.592934  5010 net.cpp:380] Convolution1_Scale1_0_split -> Convolution1_Scale1_0_split_1
I0928 19:33:29.592979  5010 net.cpp:122] Setting up Convolution1_Scale1_0_split
I0928 19:33:29.592984  5010 net.cpp:129] Top shape: 100 16 28 28 (1254400)
I0928 19:33:29.593000  5010 net.cpp:129] Top shape: 100 16 28 28 (1254400)
I0928 19:33:29.593003  5010 net.cpp:137] Memory required for data: 26029200
I0928 19:33:29.593005  5010 layer_factory.hpp:77] Creating layer M2PELU1
I0928 19:33:29.593021  5010 net.cpp:84] Creating Layer M2PELU1
I0928 19:33:29.593024  5010 net.cpp:406] M2PELU1 <- Convolution1_Scale1_0_split_0
I0928 19:33:29.593029  5010 net.cpp:380] M2PELU1 -> Conv_penlu1
I0928 19:33:29.593634  5010 net.cpp:122] Setting up M2PELU1
I0928 19:33:29.593643  5010 net.cpp:129] Top shape: 100 16 28 28 (1254400)
I0928 19:33:29.593647  5010 net.cpp:137] Memory required for data: 31046800
I0928 19:33:29.593652  5010 layer_factory.hpp:77] Creating layer BatchNorm_penlu1
I0928 19:33:29.593657  5010 net.cpp:84] Creating Layer BatchNorm_penlu1
I0928 19:33:29.593659  5010 net.cpp:406] BatchNorm_penlu1 <- Conv_penlu1
I0928 19:33:29.593673  5010 net.cpp:367] BatchNorm_penlu1 -> Conv_penlu1 (in-place)
I0928 19:33:29.593809  5010 net.cpp:122] Setting up BatchNorm_penlu1
I0928 19:33:29.593814  5010 net.cpp:129] Top shape: 100 16 28 28 (1254400)
I0928 19:33:29.593817  5010 net.cpp:137] Memory required for data: 36064400
I0928 19:33:29.593822  5010 layer_factory.hpp:77] Creating layer Scale_penlu1
I0928 19:33:29.593825  5010 net.cpp:84] Creating Layer Scale_penlu1
I0928 19:33:29.593828  5010 net.cpp:406] Scale_penlu1 <- Conv_penlu1
I0928 19:33:29.593832  5010 net.cpp:367] Scale_penlu1 -> Conv_penlu1 (in-place)
I0928 19:33:29.593873  5010 layer_factory.hpp:77] Creating layer Scale_penlu1
I0928 19:33:29.593978  5010 net.cpp:122] Setting up Scale_penlu1
I0928 19:33:29.593983  5010 net.cpp:129] Top shape: 100 16 28 28 (1254400)
I0928 19:33:29.593986  5010 net.cpp:137] Memory required for data: 41082000
I0928 19:33:29.593989  5010 layer_factory.hpp:77] Creating layer Convolution2
I0928 19:33:29.593997  5010 net.cpp:84] Creating Layer Convolution2
I0928 19:33:29.594000  5010 net.cpp:406] Convolution2 <- Conv_penlu1
I0928 19:33:29.594014  5010 net.cpp:380] Convolution2 -> Convolution2
I0928 19:33:29.594884  5010 net.cpp:122] Setting up Convolution2
I0928 19:33:29.594894  5010 net.cpp:129] Top shape: 100 16 28 28 (1254400)
I0928 19:33:29.594897  5010 net.cpp:137] Memory required for data: 46099600
I0928 19:33:29.594902  5010 layer_factory.hpp:77] Creating layer BatchNorm2
I0928 19:33:29.594907  5010 net.cpp:84] Creating Layer BatchNorm2
I0928 19:33:29.594908  5010 net.cpp:406] BatchNorm2 <- Convolution2
I0928 19:33:29.594923  5010 net.cpp:367] BatchNorm2 -> Convolution2 (in-place)
I0928 19:33:29.595070  5010 net.cpp:122] Setting up BatchNorm2
I0928 19:33:29.595082  5010 net.cpp:129] Top shape: 100 16 28 28 (1254400)
I0928 19:33:29.595084  5010 net.cpp:137] Memory required for data: 51117200
I0928 19:33:29.595091  5010 layer_factory.hpp:77] Creating layer Scale2
I0928 19:33:29.595096  5010 net.cpp:84] Creating Layer Scale2
I0928 19:33:29.595098  5010 net.cpp:406] Scale2 <- Convolution2
I0928 19:33:29.595113  5010 net.cpp:367] Scale2 -> Convolution2 (in-place)
I0928 19:33:29.595166  5010 layer_factory.hpp:77] Creating layer Scale2
I0928 19:33:29.595258  5010 net.cpp:122] Setting up Scale2
I0928 19:33:29.595263  5010 net.cpp:129] Top shape: 100 16 28 28 (1254400)
I0928 19:33:29.595265  5010 net.cpp:137] Memory required for data: 56134800
I0928 19:33:29.595269  5010 layer_factory.hpp:77] Creating layer M2PELU2
I0928 19:33:29.595274  5010 net.cpp:84] Creating Layer M2PELU2
I0928 19:33:29.595276  5010 net.cpp:406] M2PELU2 <- Convolution2
I0928 19:33:29.595279  5010 net.cpp:380] M2PELU2 -> Conv_penlu2
I0928 19:33:29.595376  5010 net.cpp:122] Setting up M2PELU2
I0928 19:33:29.595381  5010 net.cpp:129] Top shape: 100 16 28 28 (1254400)
I0928 19:33:29.595383  5010 net.cpp:137] Memory required for data: 61152400
I0928 19:33:29.595386  5010 layer_factory.hpp:77] Creating layer BatchNorm_penlu2
I0928 19:33:29.595391  5010 net.cpp:84] Creating Layer BatchNorm_penlu2
I0928 19:33:29.595393  5010 net.cpp:406] BatchNorm_penlu2 <- Conv_penlu2
I0928 19:33:29.595408  5010 net.cpp:367] BatchNorm_penlu2 -> Conv_penlu2 (in-place)
I0928 19:33:29.595532  5010 net.cpp:122] Setting up BatchNorm_penlu2
I0928 19:33:29.595537  5010 net.cpp:129] Top shape: 100 16 28 28 (1254400)
I0928 19:33:29.595540  5010 net.cpp:137] Memory required for data: 66170000
I0928 19:33:29.595543  5010 layer_factory.hpp:77] Creating layer Scale_penlu2
I0928 19:33:29.595548  5010 net.cpp:84] Creating Layer Scale_penlu2
I0928 19:33:29.595551  5010 net.cpp:406] Scale_penlu2 <- Conv_penlu2
I0928 19:33:29.595566  5010 net.cpp:367] Scale_penlu2 -> Conv_penlu2 (in-place)
I0928 19:33:29.595602  5010 layer_factory.hpp:77] Creating layer Scale_penlu2
I0928 19:33:29.595696  5010 net.cpp:122] Setting up Scale_penlu2
I0928 19:33:29.595700  5010 net.cpp:129] Top shape: 100 16 28 28 (1254400)
I0928 19:33:29.595702  5010 net.cpp:137] Memory required for data: 71187600
I0928 19:33:29.595706  5010 layer_factory.hpp:77] Creating layer Convolution3
I0928 19:33:29.595712  5010 net.cpp:84] Creating Layer Convolution3
I0928 19:33:29.595729  5010 net.cpp:406] Convolution3 <- Conv_penlu2
I0928 19:33:29.595734  5010 net.cpp:380] Convolution3 -> Convolution3
I0928 19:33:29.596613  5010 net.cpp:122] Setting up Convolution3
I0928 19:33:29.596623  5010 net.cpp:129] Top shape: 100 16 28 28 (1254400)
I0928 19:33:29.596635  5010 net.cpp:137] Memory required for data: 76205200
I0928 19:33:29.596640  5010 layer_factory.hpp:77] Creating layer BatchNorm3
I0928 19:33:29.596647  5010 net.cpp:84] Creating Layer BatchNorm3
I0928 19:33:29.596649  5010 net.cpp:406] BatchNorm3 <- Convolution3
I0928 19:33:29.596654  5010 net.cpp:367] BatchNorm3 -> Convolution3 (in-place)
I0928 19:33:29.596802  5010 net.cpp:122] Setting up BatchNorm3
I0928 19:33:29.596807  5010 net.cpp:129] Top shape: 100 16 28 28 (1254400)
I0928 19:33:29.596819  5010 net.cpp:137] Memory required for data: 81222800
I0928 19:33:29.596827  5010 layer_factory.hpp:77] Creating layer Scale3
I0928 19:33:29.596833  5010 net.cpp:84] Creating Layer Scale3
I0928 19:33:29.596835  5010 net.cpp:406] Scale3 <- Convolution3
I0928 19:33:29.596849  5010 net.cpp:367] Scale3 -> Convolution3 (in-place)
I0928 19:33:29.596896  5010 layer_factory.hpp:77] Creating layer Scale3
I0928 19:33:29.596978  5010 net.cpp:122] Setting up Scale3
I0928 19:33:29.596983  5010 net.cpp:129] Top shape: 100 16 28 28 (1254400)
I0928 19:33:29.596987  5010 net.cpp:137] Memory required for data: 86240400
I0928 19:33:29.596990  5010 layer_factory.hpp:77] Creating layer Eltwise1
I0928 19:33:29.596995  5010 net.cpp:84] Creating Layer Eltwise1
I0928 19:33:29.596998  5010 net.cpp:406] Eltwise1 <- Convolution1_Scale1_0_split_1
I0928 19:33:29.597008  5010 net.cpp:406] Eltwise1 <- Convolution3
I0928 19:33:29.597013  5010 net.cpp:380] Eltwise1 -> Eltwise1
I0928 19:33:29.597031  5010 net.cpp:122] Setting up Eltwise1
I0928 19:33:29.597036  5010 net.cpp:129] Top shape: 100 16 28 28 (1254400)
I0928 19:33:29.597039  5010 net.cpp:137] Memory required for data: 91258000
I0928 19:33:29.597041  5010 layer_factory.hpp:77] Creating layer Eltwise1_Eltwise1_0_split
I0928 19:33:29.597045  5010 net.cpp:84] Creating Layer Eltwise1_Eltwise1_0_split
I0928 19:33:29.597048  5010 net.cpp:406] Eltwise1_Eltwise1_0_split <- Eltwise1
I0928 19:33:29.597051  5010 net.cpp:380] Eltwise1_Eltwise1_0_split -> Eltwise1_Eltwise1_0_split_0
I0928 19:33:29.597055  5010 net.cpp:380] Eltwise1_Eltwise1_0_split -> Eltwise1_Eltwise1_0_split_1
I0928 19:33:29.597077  5010 net.cpp:122] Setting up Eltwise1_Eltwise1_0_split
I0928 19:33:29.597081  5010 net.cpp:129] Top shape: 100 16 28 28 (1254400)
I0928 19:33:29.597084  5010 net.cpp:129] Top shape: 100 16 28 28 (1254400)
I0928 19:33:29.597087  5010 net.cpp:137] Memory required for data: 101293200
I0928 19:33:29.597090  5010 layer_factory.hpp:77] Creating layer M2PELU3
I0928 19:33:29.597095  5010 net.cpp:84] Creating Layer M2PELU3
I0928 19:33:29.597098  5010 net.cpp:406] M2PELU3 <- Eltwise1_Eltwise1_0_split_0
I0928 19:33:29.597101  5010 net.cpp:380] M2PELU3 -> Elt_penlu1
I0928 19:33:29.597182  5010 net.cpp:122] Setting up M2PELU3
I0928 19:33:29.597187  5010 net.cpp:129] Top shape: 100 16 28 28 (1254400)
I0928 19:33:29.597190  5010 net.cpp:137] Memory required for data: 106310800
I0928 19:33:29.597194  5010 layer_factory.hpp:77] Creating layer BatchNorm_penlu3
I0928 19:33:29.597199  5010 net.cpp:84] Creating Layer BatchNorm_penlu3
I0928 19:33:29.597203  5010 net.cpp:406] BatchNorm_penlu3 <- Elt_penlu1
I0928 19:33:29.597205  5010 net.cpp:367] BatchNorm_penlu3 -> Elt_penlu1 (in-place)
I0928 19:33:29.597322  5010 net.cpp:122] Setting up BatchNorm_penlu3
I0928 19:33:29.597327  5010 net.cpp:129] Top shape: 100 16 28 28 (1254400)
I0928 19:33:29.597331  5010 net.cpp:137] Memory required for data: 111328400
I0928 19:33:29.597335  5010 layer_factory.hpp:77] Creating layer Scale_penlu3
I0928 19:33:29.597339  5010 net.cpp:84] Creating Layer Scale_penlu3
I0928 19:33:29.597342  5010 net.cpp:406] Scale_penlu3 <- Elt_penlu1
I0928 19:33:29.597347  5010 net.cpp:367] Scale_penlu3 -> Elt_penlu1 (in-place)
I0928 19:33:29.597371  5010 layer_factory.hpp:77] Creating layer Scale_penlu3
I0928 19:33:29.597443  5010 net.cpp:122] Setting up Scale_penlu3
I0928 19:33:29.597448  5010 net.cpp:129] Top shape: 100 16 28 28 (1254400)
I0928 19:33:29.597451  5010 net.cpp:137] Memory required for data: 116346000
I0928 19:33:29.597455  5010 layer_factory.hpp:77] Creating layer Convolution4
I0928 19:33:29.597462  5010 net.cpp:84] Creating Layer Convolution4
I0928 19:33:29.597465  5010 net.cpp:406] Convolution4 <- Elt_penlu1
I0928 19:33:29.597470  5010 net.cpp:380] Convolution4 -> Convolution4
I0928 19:33:29.598331  5010 net.cpp:122] Setting up Convolution4
I0928 19:33:29.598341  5010 net.cpp:129] Top shape: 100 16 28 28 (1254400)
I0928 19:33:29.598345  5010 net.cpp:137] Memory required for data: 121363600
I0928 19:33:29.598350  5010 layer_factory.hpp:77] Creating layer BatchNorm4
I0928 19:33:29.598356  5010 net.cpp:84] Creating Layer BatchNorm4
I0928 19:33:29.598359  5010 net.cpp:406] BatchNorm4 <- Convolution4
I0928 19:33:29.598363  5010 net.cpp:367] BatchNorm4 -> Convolution4 (in-place)
I0928 19:33:29.598487  5010 net.cpp:122] Setting up BatchNorm4
I0928 19:33:29.598492  5010 net.cpp:129] Top shape: 100 16 28 28 (1254400)
I0928 19:33:29.598495  5010 net.cpp:137] Memory required for data: 126381200
I0928 19:33:29.598500  5010 layer_factory.hpp:77] Creating layer Scale4
I0928 19:33:29.598505  5010 net.cpp:84] Creating Layer Scale4
I0928 19:33:29.598508  5010 net.cpp:406] Scale4 <- Convolution4
I0928 19:33:29.598511  5010 net.cpp:367] Scale4 -> Convolution4 (in-place)
I0928 19:33:29.598542  5010 layer_factory.hpp:77] Creating layer Scale4
I0928 19:33:29.598618  5010 net.cpp:122] Setting up Scale4
I0928 19:33:29.598630  5010 net.cpp:129] Top shape: 100 16 28 28 (1254400)
I0928 19:33:29.598634  5010 net.cpp:137] Memory required for data: 131398800
I0928 19:33:29.598637  5010 layer_factory.hpp:77] Creating layer M2PELU4
I0928 19:33:29.598644  5010 net.cpp:84] Creating Layer M2PELU4
I0928 19:33:29.598646  5010 net.cpp:406] M2PELU4 <- Convolution4
I0928 19:33:29.598650  5010 net.cpp:380] M2PELU4 -> Conv_penlu4
I0928 19:33:29.598731  5010 net.cpp:122] Setting up M2PELU4
I0928 19:33:29.598737  5010 net.cpp:129] Top shape: 100 16 28 28 (1254400)
I0928 19:33:29.598739  5010 net.cpp:137] Memory required for data: 136416400
I0928 19:33:29.598743  5010 layer_factory.hpp:77] Creating layer BatchNorm_PENLU
I0928 19:33:29.598747  5010 net.cpp:84] Creating Layer BatchNorm_PENLU
I0928 19:33:29.598752  5010 net.cpp:406] BatchNorm_PENLU <- Conv_penlu4
I0928 19:33:29.598755  5010 net.cpp:380] BatchNorm_PENLU -> Conv_PENLU
I0928 19:33:29.598886  5010 net.cpp:122] Setting up BatchNorm_PENLU
I0928 19:33:29.598891  5010 net.cpp:129] Top shape: 100 16 28 28 (1254400)
I0928 19:33:29.598893  5010 net.cpp:137] Memory required for data: 141434000
I0928 19:33:29.598898  5010 layer_factory.hpp:77] Creating layer Scale_PENLU
I0928 19:33:29.598902  5010 net.cpp:84] Creating Layer Scale_PENLU
I0928 19:33:29.598906  5010 net.cpp:406] Scale_PENLU <- Conv_PENLU
I0928 19:33:29.598909  5010 net.cpp:367] Scale_PENLU -> Conv_PENLU (in-place)
I0928 19:33:29.598935  5010 layer_factory.hpp:77] Creating layer Scale_PENLU
I0928 19:33:29.599009  5010 net.cpp:122] Setting up Scale_PENLU
I0928 19:33:29.599014  5010 net.cpp:129] Top shape: 100 16 28 28 (1254400)
I0928 19:33:29.599016  5010 net.cpp:137] Memory required for data: 146451600
I0928 19:33:29.599020  5010 layer_factory.hpp:77] Creating layer Convolution5
I0928 19:33:29.599027  5010 net.cpp:84] Creating Layer Convolution5
I0928 19:33:29.599031  5010 net.cpp:406] Convolution5 <- Conv_PENLU
I0928 19:33:29.599035  5010 net.cpp:380] Convolution5 -> Convolution5
I0928 19:33:29.599910  5010 net.cpp:122] Setting up Convolution5
I0928 19:33:29.599920  5010 net.cpp:129] Top shape: 100 16 28 28 (1254400)
I0928 19:33:29.599923  5010 net.cpp:137] Memory required for data: 151469200
I0928 19:33:29.599928  5010 layer_factory.hpp:77] Creating layer BatchNorm5
I0928 19:33:29.599933  5010 net.cpp:84] Creating Layer BatchNorm5
I0928 19:33:29.599937  5010 net.cpp:406] BatchNorm5 <- Convolution5
I0928 19:33:29.599941  5010 net.cpp:367] BatchNorm5 -> Convolution5 (in-place)
I0928 19:33:29.600069  5010 net.cpp:122] Setting up BatchNorm5
I0928 19:33:29.600073  5010 net.cpp:129] Top shape: 100 16 28 28 (1254400)
I0928 19:33:29.600076  5010 net.cpp:137] Memory required for data: 156486800
I0928 19:33:29.600081  5010 layer_factory.hpp:77] Creating layer Scale5
I0928 19:33:29.600086  5010 net.cpp:84] Creating Layer Scale5
I0928 19:33:29.600090  5010 net.cpp:406] Scale5 <- Convolution5
I0928 19:33:29.600093  5010 net.cpp:367] Scale5 -> Convolution5 (in-place)
I0928 19:33:29.600118  5010 layer_factory.hpp:77] Creating layer Scale5
I0928 19:33:29.600193  5010 net.cpp:122] Setting up Scale5
I0928 19:33:29.600198  5010 net.cpp:129] Top shape: 100 16 28 28 (1254400)
I0928 19:33:29.600201  5010 net.cpp:137] Memory required for data: 161504400
I0928 19:33:29.600205  5010 layer_factory.hpp:77] Creating layer Eltwise2
I0928 19:33:29.600209  5010 net.cpp:84] Creating Layer Eltwise2
I0928 19:33:29.600213  5010 net.cpp:406] Eltwise2 <- Eltwise1_Eltwise1_0_split_1
I0928 19:33:29.600215  5010 net.cpp:406] Eltwise2 <- Convolution5
I0928 19:33:29.600219  5010 net.cpp:380] Eltwise2 -> Eltwise2
I0928 19:33:29.600235  5010 net.cpp:122] Setting up Eltwise2
I0928 19:33:29.600240  5010 net.cpp:129] Top shape: 100 16 28 28 (1254400)
I0928 19:33:29.600244  5010 net.cpp:137] Memory required for data: 166522000
I0928 19:33:29.600245  5010 layer_factory.hpp:77] Creating layer Eltwise2_Eltwise2_0_split
I0928 19:33:29.600251  5010 net.cpp:84] Creating Layer Eltwise2_Eltwise2_0_split
I0928 19:33:29.600255  5010 net.cpp:406] Eltwise2_Eltwise2_0_split <- Eltwise2
I0928 19:33:29.600265  5010 net.cpp:380] Eltwise2_Eltwise2_0_split -> Eltwise2_Eltwise2_0_split_0
I0928 19:33:29.600271  5010 net.cpp:380] Eltwise2_Eltwise2_0_split -> Eltwise2_Eltwise2_0_split_1
I0928 19:33:29.600293  5010 net.cpp:122] Setting up Eltwise2_Eltwise2_0_split
I0928 19:33:29.600297  5010 net.cpp:129] Top shape: 100 16 28 28 (1254400)
I0928 19:33:29.600301  5010 net.cpp:129] Top shape: 100 16 28 28 (1254400)
I0928 19:33:29.600303  5010 net.cpp:137] Memory required for data: 176557200
I0928 19:33:29.600306  5010 layer_factory.hpp:77] Creating layer M2PELU5
I0928 19:33:29.600312  5010 net.cpp:84] Creating Layer M2PELU5
I0928 19:33:29.600316  5010 net.cpp:406] M2PELU5 <- Eltwise2_Eltwise2_0_split_0
I0928 19:33:29.600318  5010 net.cpp:380] M2PELU5 -> Elt_penlu2
I0928 19:33:29.600400  5010 net.cpp:122] Setting up M2PELU5
I0928 19:33:29.600406  5010 net.cpp:129] Top shape: 100 16 28 28 (1254400)
I0928 19:33:29.600409  5010 net.cpp:137] Memory required for data: 181574800
I0928 19:33:29.600417  5010 layer_factory.hpp:77] Creating layer BatchNorm_penlu5
I0928 19:33:29.600422  5010 net.cpp:84] Creating Layer BatchNorm_penlu5
I0928 19:33:29.600425  5010 net.cpp:406] BatchNorm_penlu5 <- Elt_penlu2
I0928 19:33:29.600430  5010 net.cpp:367] BatchNorm_penlu5 -> Elt_penlu2 (in-place)
I0928 19:33:29.600551  5010 net.cpp:122] Setting up BatchNorm_penlu5
I0928 19:33:29.600556  5010 net.cpp:129] Top shape: 100 16 28 28 (1254400)
I0928 19:33:29.600559  5010 net.cpp:137] Memory required for data: 186592400
I0928 19:33:29.600564  5010 layer_factory.hpp:77] Creating layer Scale_penlu5
I0928 19:33:29.600569  5010 net.cpp:84] Creating Layer Scale_penlu5
I0928 19:33:29.600571  5010 net.cpp:406] Scale_penlu5 <- Elt_penlu2
I0928 19:33:29.600575  5010 net.cpp:367] Scale_penlu5 -> Elt_penlu2 (in-place)
I0928 19:33:29.600600  5010 layer_factory.hpp:77] Creating layer Scale_penlu5
I0928 19:33:29.600675  5010 net.cpp:122] Setting up Scale_penlu5
I0928 19:33:29.600680  5010 net.cpp:129] Top shape: 100 16 28 28 (1254400)
I0928 19:33:29.600682  5010 net.cpp:137] Memory required for data: 191610000
I0928 19:33:29.600687  5010 layer_factory.hpp:77] Creating layer Convolution6
I0928 19:33:29.600693  5010 net.cpp:84] Creating Layer Convolution6
I0928 19:33:29.600697  5010 net.cpp:406] Convolution6 <- Elt_penlu2
I0928 19:33:29.600702  5010 net.cpp:380] Convolution6 -> Convolution6
I0928 19:33:29.601574  5010 net.cpp:122] Setting up Convolution6
I0928 19:33:29.601583  5010 net.cpp:129] Top shape: 100 16 28 28 (1254400)
I0928 19:33:29.601588  5010 net.cpp:137] Memory required for data: 196627600
I0928 19:33:29.601593  5010 layer_factory.hpp:77] Creating layer BatchNorm6
I0928 19:33:29.601598  5010 net.cpp:84] Creating Layer BatchNorm6
I0928 19:33:29.601601  5010 net.cpp:406] BatchNorm6 <- Convolution6
I0928 19:33:29.601605  5010 net.cpp:367] BatchNorm6 -> Convolution6 (in-place)
I0928 19:33:29.601732  5010 net.cpp:122] Setting up BatchNorm6
I0928 19:33:29.601738  5010 net.cpp:129] Top shape: 100 16 28 28 (1254400)
I0928 19:33:29.601740  5010 net.cpp:137] Memory required for data: 201645200
I0928 19:33:29.601745  5010 layer_factory.hpp:77] Creating layer Scale6
I0928 19:33:29.601750  5010 net.cpp:84] Creating Layer Scale6
I0928 19:33:29.601753  5010 net.cpp:406] Scale6 <- Convolution6
I0928 19:33:29.601758  5010 net.cpp:367] Scale6 -> Convolution6 (in-place)
I0928 19:33:29.601783  5010 layer_factory.hpp:77] Creating layer Scale6
I0928 19:33:29.601857  5010 net.cpp:122] Setting up Scale6
I0928 19:33:29.601862  5010 net.cpp:129] Top shape: 100 16 28 28 (1254400)
I0928 19:33:29.601866  5010 net.cpp:137] Memory required for data: 206662800
I0928 19:33:29.601869  5010 layer_factory.hpp:77] Creating layer M2PELU6
I0928 19:33:29.601874  5010 net.cpp:84] Creating Layer M2PELU6
I0928 19:33:29.601878  5010 net.cpp:406] M2PELU6 <- Convolution6
I0928 19:33:29.601881  5010 net.cpp:380] M2PELU6 -> Conv_penlu6
I0928 19:33:29.601963  5010 net.cpp:122] Setting up M2PELU6
I0928 19:33:29.601968  5010 net.cpp:129] Top shape: 100 16 28 28 (1254400)
I0928 19:33:29.601976  5010 net.cpp:137] Memory required for data: 211680400
I0928 19:33:29.601981  5010 layer_factory.hpp:77] Creating layer BatchNorm_penlu6
I0928 19:33:29.601986  5010 net.cpp:84] Creating Layer BatchNorm_penlu6
I0928 19:33:29.601989  5010 net.cpp:406] BatchNorm_penlu6 <- Conv_penlu6
I0928 19:33:29.601994  5010 net.cpp:367] BatchNorm_penlu6 -> Conv_penlu6 (in-place)
I0928 19:33:29.602116  5010 net.cpp:122] Setting up BatchNorm_penlu6
I0928 19:33:29.602121  5010 net.cpp:129] Top shape: 100 16 28 28 (1254400)
I0928 19:33:29.602124  5010 net.cpp:137] Memory required for data: 216698000
I0928 19:33:29.602129  5010 layer_factory.hpp:77] Creating layer Scale_penlu6
I0928 19:33:29.602133  5010 net.cpp:84] Creating Layer Scale_penlu6
I0928 19:33:29.602138  5010 net.cpp:406] Scale_penlu6 <- Conv_penlu6
I0928 19:33:29.602141  5010 net.cpp:367] Scale_penlu6 -> Conv_penlu6 (in-place)
I0928 19:33:29.602165  5010 layer_factory.hpp:77] Creating layer Scale_penlu6
I0928 19:33:29.602239  5010 net.cpp:122] Setting up Scale_penlu6
I0928 19:33:29.602244  5010 net.cpp:129] Top shape: 100 16 28 28 (1254400)
I0928 19:33:29.602247  5010 net.cpp:137] Memory required for data: 221715600
I0928 19:33:29.602252  5010 layer_factory.hpp:77] Creating layer Convolution7
I0928 19:33:29.602258  5010 net.cpp:84] Creating Layer Convolution7
I0928 19:33:29.602262  5010 net.cpp:406] Convolution7 <- Conv_penlu6
I0928 19:33:29.602267  5010 net.cpp:380] Convolution7 -> Convolution7
I0928 19:33:29.602819  5010 net.cpp:122] Setting up Convolution7
I0928 19:33:29.602828  5010 net.cpp:129] Top shape: 100 16 28 28 (1254400)
I0928 19:33:29.602831  5010 net.cpp:137] Memory required for data: 226733200
I0928 19:33:29.602836  5010 layer_factory.hpp:77] Creating layer BatchNorm7
I0928 19:33:29.602841  5010 net.cpp:84] Creating Layer BatchNorm7
I0928 19:33:29.602845  5010 net.cpp:406] BatchNorm7 <- Convolution7
I0928 19:33:29.602849  5010 net.cpp:367] BatchNorm7 -> Convolution7 (in-place)
I0928 19:33:29.602977  5010 net.cpp:122] Setting up BatchNorm7
I0928 19:33:29.602982  5010 net.cpp:129] Top shape: 100 16 28 28 (1254400)
I0928 19:33:29.602985  5010 net.cpp:137] Memory required for data: 231750800
I0928 19:33:29.602990  5010 layer_factory.hpp:77] Creating layer Scale7
I0928 19:33:29.602994  5010 net.cpp:84] Creating Layer Scale7
I0928 19:33:29.602998  5010 net.cpp:406] Scale7 <- Convolution7
I0928 19:33:29.603000  5010 net.cpp:367] Scale7 -> Convolution7 (in-place)
I0928 19:33:29.603026  5010 layer_factory.hpp:77] Creating layer Scale7
I0928 19:33:29.603099  5010 net.cpp:122] Setting up Scale7
I0928 19:33:29.603104  5010 net.cpp:129] Top shape: 100 16 28 28 (1254400)
I0928 19:33:29.603106  5010 net.cpp:137] Memory required for data: 236768400
I0928 19:33:29.603111  5010 layer_factory.hpp:77] Creating layer Eltwise3
I0928 19:33:29.603114  5010 net.cpp:84] Creating Layer Eltwise3
I0928 19:33:29.603116  5010 net.cpp:406] Eltwise3 <- Eltwise2_Eltwise2_0_split_1
I0928 19:33:29.603119  5010 net.cpp:406] Eltwise3 <- Convolution7
I0928 19:33:29.603122  5010 net.cpp:380] Eltwise3 -> Eltwise3
I0928 19:33:29.603137  5010 net.cpp:122] Setting up Eltwise3
I0928 19:33:29.603140  5010 net.cpp:129] Top shape: 100 16 28 28 (1254400)
I0928 19:33:29.603142  5010 net.cpp:137] Memory required for data: 241786000
I0928 19:33:29.603144  5010 layer_factory.hpp:77] Creating layer Eltwise3_Eltwise3_0_split
I0928 19:33:29.603148  5010 net.cpp:84] Creating Layer Eltwise3_Eltwise3_0_split
I0928 19:33:29.603150  5010 net.cpp:406] Eltwise3_Eltwise3_0_split <- Eltwise3
I0928 19:33:29.603153  5010 net.cpp:380] Eltwise3_Eltwise3_0_split -> Eltwise3_Eltwise3_0_split_0
I0928 19:33:29.603157  5010 net.cpp:380] Eltwise3_Eltwise3_0_split -> Eltwise3_Eltwise3_0_split_1
I0928 19:33:29.603178  5010 net.cpp:122] Setting up Eltwise3_Eltwise3_0_split
I0928 19:33:29.603181  5010 net.cpp:129] Top shape: 100 16 28 28 (1254400)
I0928 19:33:29.603184  5010 net.cpp:129] Top shape: 100 16 28 28 (1254400)
I0928 19:33:29.603186  5010 net.cpp:137] Memory required for data: 251821200
I0928 19:33:29.603194  5010 layer_factory.hpp:77] Creating layer M2PELU7
I0928 19:33:29.603199  5010 net.cpp:84] Creating Layer M2PELU7
I0928 19:33:29.603201  5010 net.cpp:406] M2PELU7 <- Eltwise3_Eltwise3_0_split_0
I0928 19:33:29.603205  5010 net.cpp:380] M2PELU7 -> Elt_penlu3
I0928 19:33:29.603289  5010 net.cpp:122] Setting up M2PELU7
I0928 19:33:29.603294  5010 net.cpp:129] Top shape: 100 16 28 28 (1254400)
I0928 19:33:29.603296  5010 net.cpp:137] Memory required for data: 256838800
I0928 19:33:29.603299  5010 layer_factory.hpp:77] Creating layer BatchNorm_penlu7
I0928 19:33:29.603304  5010 net.cpp:84] Creating Layer BatchNorm_penlu7
I0928 19:33:29.603307  5010 net.cpp:406] BatchNorm_penlu7 <- Elt_penlu3
I0928 19:33:29.603310  5010 net.cpp:367] BatchNorm_penlu7 -> Elt_penlu3 (in-place)
I0928 19:33:29.603430  5010 net.cpp:122] Setting up BatchNorm_penlu7
I0928 19:33:29.603433  5010 net.cpp:129] Top shape: 100 16 28 28 (1254400)
I0928 19:33:29.603435  5010 net.cpp:137] Memory required for data: 261856400
I0928 19:33:29.603440  5010 layer_factory.hpp:77] Creating layer Scale_penlu7
I0928 19:33:29.603444  5010 net.cpp:84] Creating Layer Scale_penlu7
I0928 19:33:29.603446  5010 net.cpp:406] Scale_penlu7 <- Elt_penlu3
I0928 19:33:29.603449  5010 net.cpp:367] Scale_penlu7 -> Elt_penlu3 (in-place)
I0928 19:33:29.603473  5010 layer_factory.hpp:77] Creating layer Scale_penlu7
I0928 19:33:29.603548  5010 net.cpp:122] Setting up Scale_penlu7
I0928 19:33:29.603551  5010 net.cpp:129] Top shape: 100 16 28 28 (1254400)
I0928 19:33:29.603554  5010 net.cpp:137] Memory required for data: 266874000
I0928 19:33:29.603557  5010 layer_factory.hpp:77] Creating layer Convolution8
I0928 19:33:29.603564  5010 net.cpp:84] Creating Layer Convolution8
I0928 19:33:29.603566  5010 net.cpp:406] Convolution8 <- Elt_penlu3
I0928 19:33:29.603570  5010 net.cpp:380] Convolution8 -> Convolution8
I0928 19:33:29.604573  5010 net.cpp:122] Setting up Convolution8
I0928 19:33:29.604583  5010 net.cpp:129] Top shape: 100 16 28 28 (1254400)
I0928 19:33:29.604596  5010 net.cpp:137] Memory required for data: 271891600
I0928 19:33:29.604601  5010 layer_factory.hpp:77] Creating layer BatchNorm8
I0928 19:33:29.604617  5010 net.cpp:84] Creating Layer BatchNorm8
I0928 19:33:29.604621  5010 net.cpp:406] BatchNorm8 <- Convolution8
I0928 19:33:29.604625  5010 net.cpp:367] BatchNorm8 -> Convolution8 (in-place)
I0928 19:33:29.604773  5010 net.cpp:122] Setting up BatchNorm8
I0928 19:33:29.604777  5010 net.cpp:129] Top shape: 100 16 28 28 (1254400)
I0928 19:33:29.604790  5010 net.cpp:137] Memory required for data: 276909200
I0928 19:33:29.604795  5010 layer_factory.hpp:77] Creating layer Scale8
I0928 19:33:29.604799  5010 net.cpp:84] Creating Layer Scale8
I0928 19:33:29.604801  5010 net.cpp:406] Scale8 <- Convolution8
I0928 19:33:29.604815  5010 net.cpp:367] Scale8 -> Convolution8 (in-place)
I0928 19:33:29.604851  5010 layer_factory.hpp:77] Creating layer Scale8
I0928 19:33:29.604948  5010 net.cpp:122] Setting up Scale8
I0928 19:33:29.604954  5010 net.cpp:129] Top shape: 100 16 28 28 (1254400)
I0928 19:33:29.604966  5010 net.cpp:137] Memory required for data: 281926800
I0928 19:33:29.604970  5010 layer_factory.hpp:77] Creating layer M2PELU8
I0928 19:33:29.604975  5010 net.cpp:84] Creating Layer M2PELU8
I0928 19:33:29.604979  5010 net.cpp:406] M2PELU8 <- Convolution8
I0928 19:33:29.604981  5010 net.cpp:380] M2PELU8 -> Conv_penlu8
I0928 19:33:29.605077  5010 net.cpp:122] Setting up M2PELU8
I0928 19:33:29.605082  5010 net.cpp:129] Top shape: 100 16 28 28 (1254400)
I0928 19:33:29.605094  5010 net.cpp:137] Memory required for data: 286944400
I0928 19:33:29.605098  5010 layer_factory.hpp:77] Creating layer BatchNorm_penlu8
I0928 19:33:29.605103  5010 net.cpp:84] Creating Layer BatchNorm_penlu8
I0928 19:33:29.605105  5010 net.cpp:406] BatchNorm_penlu8 <- Conv_penlu8
I0928 19:33:29.605109  5010 net.cpp:367] BatchNorm_penlu8 -> Conv_penlu8 (in-place)
I0928 19:33:29.605245  5010 net.cpp:122] Setting up BatchNorm_penlu8
I0928 19:33:29.605250  5010 net.cpp:129] Top shape: 100 16 28 28 (1254400)
I0928 19:33:29.605268  5010 net.cpp:137] Memory required for data: 291962000
I0928 19:33:29.605273  5010 layer_factory.hpp:77] Creating layer Scale_penlu8
I0928 19:33:29.605278  5010 net.cpp:84] Creating Layer Scale_penlu8
I0928 19:33:29.605280  5010 net.cpp:406] Scale_penlu8 <- Conv_penlu8
I0928 19:33:29.605285  5010 net.cpp:367] Scale_penlu8 -> Conv_penlu8 (in-place)
I0928 19:33:29.605321  5010 layer_factory.hpp:77] Creating layer Scale_penlu8
I0928 19:33:29.605418  5010 net.cpp:122] Setting up Scale_penlu8
I0928 19:33:29.605423  5010 net.cpp:129] Top shape: 100 16 28 28 (1254400)
I0928 19:33:29.605425  5010 net.cpp:137] Memory required for data: 296979600
I0928 19:33:29.605439  5010 layer_factory.hpp:77] Creating layer Convolution9
I0928 19:33:29.605446  5010 net.cpp:84] Creating Layer Convolution9
I0928 19:33:29.605449  5010 net.cpp:406] Convolution9 <- Conv_penlu8
I0928 19:33:29.605453  5010 net.cpp:380] Convolution9 -> Convolution9
I0928 19:33:29.606470  5010 net.cpp:122] Setting up Convolution9
I0928 19:33:29.606480  5010 net.cpp:129] Top shape: 100 16 28 28 (1254400)
I0928 19:33:29.606492  5010 net.cpp:137] Memory required for data: 301997200
I0928 19:33:29.606498  5010 layer_factory.hpp:77] Creating layer BatchNorm9
I0928 19:33:29.606503  5010 net.cpp:84] Creating Layer BatchNorm9
I0928 19:33:29.606506  5010 net.cpp:406] BatchNorm9 <- Convolution9
I0928 19:33:29.606510  5010 net.cpp:367] BatchNorm9 -> Convolution9 (in-place)
I0928 19:33:29.606657  5010 net.cpp:122] Setting up BatchNorm9
I0928 19:33:29.606663  5010 net.cpp:129] Top shape: 100 16 28 28 (1254400)
I0928 19:33:29.606675  5010 net.cpp:137] Memory required for data: 307014800
I0928 19:33:29.606680  5010 layer_factory.hpp:77] Creating layer Scale9
I0928 19:33:29.606685  5010 net.cpp:84] Creating Layer Scale9
I0928 19:33:29.606688  5010 net.cpp:406] Scale9 <- Convolution9
I0928 19:33:29.606691  5010 net.cpp:367] Scale9 -> Convolution9 (in-place)
I0928 19:33:29.606727  5010 layer_factory.hpp:77] Creating layer Scale9
I0928 19:33:29.606827  5010 net.cpp:122] Setting up Scale9
I0928 19:33:29.606832  5010 net.cpp:129] Top shape: 100 16 28 28 (1254400)
I0928 19:33:29.606843  5010 net.cpp:137] Memory required for data: 312032400
I0928 19:33:29.606848  5010 layer_factory.hpp:77] Creating layer Eltwise4
I0928 19:33:29.606853  5010 net.cpp:84] Creating Layer Eltwise4
I0928 19:33:29.606856  5010 net.cpp:406] Eltwise4 <- Eltwise3_Eltwise3_0_split_1
I0928 19:33:29.606860  5010 net.cpp:406] Eltwise4 <- Convolution9
I0928 19:33:29.606865  5010 net.cpp:380] Eltwise4 -> Eltwise4
I0928 19:33:29.606883  5010 net.cpp:122] Setting up Eltwise4
I0928 19:33:29.606887  5010 net.cpp:129] Top shape: 100 16 28 28 (1254400)
I0928 19:33:29.606889  5010 net.cpp:137] Memory required for data: 317050000
I0928 19:33:29.606900  5010 layer_factory.hpp:77] Creating layer Eltwise4_Eltwise4_0_split
I0928 19:33:29.606904  5010 net.cpp:84] Creating Layer Eltwise4_Eltwise4_0_split
I0928 19:33:29.606906  5010 net.cpp:406] Eltwise4_Eltwise4_0_split <- Eltwise4
I0928 19:33:29.606920  5010 net.cpp:380] Eltwise4_Eltwise4_0_split -> Eltwise4_Eltwise4_0_split_0
I0928 19:33:29.606926  5010 net.cpp:380] Eltwise4_Eltwise4_0_split -> Eltwise4_Eltwise4_0_split_1
I0928 19:33:29.606948  5010 net.cpp:122] Setting up Eltwise4_Eltwise4_0_split
I0928 19:33:29.606954  5010 net.cpp:129] Top shape: 100 16 28 28 (1254400)
I0928 19:33:29.606957  5010 net.cpp:129] Top shape: 100 16 28 28 (1254400)
I0928 19:33:29.606961  5010 net.cpp:137] Memory required for data: 327085200
I0928 19:33:29.606962  5010 layer_factory.hpp:77] Creating layer M2PELU9
I0928 19:33:29.606967  5010 net.cpp:84] Creating Layer M2PELU9
I0928 19:33:29.606971  5010 net.cpp:406] M2PELU9 <- Eltwise4_Eltwise4_0_split_0
I0928 19:33:29.606974  5010 net.cpp:380] M2PELU9 -> Elt_penlu4
I0928 19:33:29.607065  5010 net.cpp:122] Setting up M2PELU9
I0928 19:33:29.607070  5010 net.cpp:129] Top shape: 100 16 28 28 (1254400)
I0928 19:33:29.607074  5010 net.cpp:137] Memory required for data: 332102800
I0928 19:33:29.607077  5010 layer_factory.hpp:77] Creating layer BatchNorm_penlu9
I0928 19:33:29.607089  5010 net.cpp:84] Creating Layer BatchNorm_penlu9
I0928 19:33:29.607092  5010 net.cpp:406] BatchNorm_penlu9 <- Elt_penlu4
I0928 19:33:29.607097  5010 net.cpp:367] BatchNorm_penlu9 -> Elt_penlu4 (in-place)
I0928 19:33:29.607228  5010 net.cpp:122] Setting up BatchNorm_penlu9
I0928 19:33:29.607234  5010 net.cpp:129] Top shape: 100 16 28 28 (1254400)
I0928 19:33:29.607236  5010 net.cpp:137] Memory required for data: 337120400
I0928 19:33:29.607241  5010 layer_factory.hpp:77] Creating layer Scale_penlu9
I0928 19:33:29.607246  5010 net.cpp:84] Creating Layer Scale_penlu9
I0928 19:33:29.607249  5010 net.cpp:406] Scale_penlu9 <- Elt_penlu4
I0928 19:33:29.607252  5010 net.cpp:367] Scale_penlu9 -> Elt_penlu4 (in-place)
I0928 19:33:29.607280  5010 layer_factory.hpp:77] Creating layer Scale_penlu9
I0928 19:33:29.607358  5010 net.cpp:122] Setting up Scale_penlu9
I0928 19:33:29.607363  5010 net.cpp:129] Top shape: 100 16 28 28 (1254400)
I0928 19:33:29.607367  5010 net.cpp:137] Memory required for data: 342138000
I0928 19:33:29.607370  5010 layer_factory.hpp:77] Creating layer Convolution10
I0928 19:33:29.607381  5010 net.cpp:84] Creating Layer Convolution10
I0928 19:33:29.607384  5010 net.cpp:406] Convolution10 <- Elt_penlu4
I0928 19:33:29.607389  5010 net.cpp:380] Convolution10 -> Convolution10
I0928 19:33:29.608292  5010 net.cpp:122] Setting up Convolution10
I0928 19:33:29.608302  5010 net.cpp:129] Top shape: 100 16 28 28 (1254400)
I0928 19:33:29.608306  5010 net.cpp:137] Memory required for data: 347155600
I0928 19:33:29.608311  5010 layer_factory.hpp:77] Creating layer BatchNorm10
I0928 19:33:29.608316  5010 net.cpp:84] Creating Layer BatchNorm10
I0928 19:33:29.608320  5010 net.cpp:406] BatchNorm10 <- Convolution10
I0928 19:33:29.608324  5010 net.cpp:367] BatchNorm10 -> Convolution10 (in-place)
I0928 19:33:29.608456  5010 net.cpp:122] Setting up BatchNorm10
I0928 19:33:29.608461  5010 net.cpp:129] Top shape: 100 16 28 28 (1254400)
I0928 19:33:29.608464  5010 net.cpp:137] Memory required for data: 352173200
I0928 19:33:29.608479  5010 layer_factory.hpp:77] Creating layer Scale10
I0928 19:33:29.608484  5010 net.cpp:84] Creating Layer Scale10
I0928 19:33:29.608485  5010 net.cpp:406] Scale10 <- Convolution10
I0928 19:33:29.608489  5010 net.cpp:367] Scale10 -> Convolution10 (in-place)
I0928 19:33:29.608517  5010 layer_factory.hpp:77] Creating layer Scale10
I0928 19:33:29.608597  5010 net.cpp:122] Setting up Scale10
I0928 19:33:29.608602  5010 net.cpp:129] Top shape: 100 16 28 28 (1254400)
I0928 19:33:29.608603  5010 net.cpp:137] Memory required for data: 357190800
I0928 19:33:29.608608  5010 layer_factory.hpp:77] Creating layer M2PELU10
I0928 19:33:29.608613  5010 net.cpp:84] Creating Layer M2PELU10
I0928 19:33:29.608615  5010 net.cpp:406] M2PELU10 <- Convolution10
I0928 19:33:29.608619  5010 net.cpp:380] M2PELU10 -> Conv_penlu10
I0928 19:33:29.608705  5010 net.cpp:122] Setting up M2PELU10
I0928 19:33:29.608711  5010 net.cpp:129] Top shape: 100 16 28 28 (1254400)
I0928 19:33:29.608712  5010 net.cpp:137] Memory required for data: 362208400
I0928 19:33:29.608716  5010 layer_factory.hpp:77] Creating layer BatchNorm_penlu10
I0928 19:33:29.608721  5010 net.cpp:84] Creating Layer BatchNorm_penlu10
I0928 19:33:29.608723  5010 net.cpp:406] BatchNorm_penlu10 <- Conv_penlu10
I0928 19:33:29.608726  5010 net.cpp:367] BatchNorm_penlu10 -> Conv_penlu10 (in-place)
I0928 19:33:29.608855  5010 net.cpp:122] Setting up BatchNorm_penlu10
I0928 19:33:29.608860  5010 net.cpp:129] Top shape: 100 16 28 28 (1254400)
I0928 19:33:29.608862  5010 net.cpp:137] Memory required for data: 367226000
I0928 19:33:29.608866  5010 layer_factory.hpp:77] Creating layer Scale_penlu10
I0928 19:33:29.608871  5010 net.cpp:84] Creating Layer Scale_penlu10
I0928 19:33:29.608873  5010 net.cpp:406] Scale_penlu10 <- Conv_penlu10
I0928 19:33:29.608876  5010 net.cpp:367] Scale_penlu10 -> Conv_penlu10 (in-place)
I0928 19:33:29.608902  5010 layer_factory.hpp:77] Creating layer Scale_penlu10
I0928 19:33:29.608978  5010 net.cpp:122] Setting up Scale_penlu10
I0928 19:33:29.608989  5010 net.cpp:129] Top shape: 100 16 28 28 (1254400)
I0928 19:33:29.608991  5010 net.cpp:137] Memory required for data: 372243600
I0928 19:33:29.608995  5010 layer_factory.hpp:77] Creating layer Convolution11
I0928 19:33:29.609002  5010 net.cpp:84] Creating Layer Convolution11
I0928 19:33:29.609005  5010 net.cpp:406] Convolution11 <- Conv_penlu10
I0928 19:33:29.609009  5010 net.cpp:380] Convolution11 -> Convolution11
I0928 19:33:29.609915  5010 net.cpp:122] Setting up Convolution11
I0928 19:33:29.609925  5010 net.cpp:129] Top shape: 100 16 28 28 (1254400)
I0928 19:33:29.609927  5010 net.cpp:137] Memory required for data: 377261200
I0928 19:33:29.609931  5010 layer_factory.hpp:77] Creating layer BatchNorm11
I0928 19:33:29.609936  5010 net.cpp:84] Creating Layer BatchNorm11
I0928 19:33:29.609938  5010 net.cpp:406] BatchNorm11 <- Convolution11
I0928 19:33:29.609942  5010 net.cpp:367] BatchNorm11 -> Convolution11 (in-place)
I0928 19:33:29.610077  5010 net.cpp:122] Setting up BatchNorm11
I0928 19:33:29.610081  5010 net.cpp:129] Top shape: 100 16 28 28 (1254400)
I0928 19:33:29.610083  5010 net.cpp:137] Memory required for data: 382278800
I0928 19:33:29.610088  5010 layer_factory.hpp:77] Creating layer Scale11
I0928 19:33:29.610092  5010 net.cpp:84] Creating Layer Scale11
I0928 19:33:29.610095  5010 net.cpp:406] Scale11 <- Convolution11
I0928 19:33:29.610098  5010 net.cpp:367] Scale11 -> Convolution11 (in-place)
I0928 19:33:29.610123  5010 layer_factory.hpp:77] Creating layer Scale11
I0928 19:33:29.610201  5010 net.cpp:122] Setting up Scale11
I0928 19:33:29.610205  5010 net.cpp:129] Top shape: 100 16 28 28 (1254400)
I0928 19:33:29.610208  5010 net.cpp:137] Memory required for data: 387296400
I0928 19:33:29.610211  5010 layer_factory.hpp:77] Creating layer Eltwise5
I0928 19:33:29.610215  5010 net.cpp:84] Creating Layer Eltwise5
I0928 19:33:29.610219  5010 net.cpp:406] Eltwise5 <- Eltwise4_Eltwise4_0_split_1
I0928 19:33:29.610221  5010 net.cpp:406] Eltwise5 <- Convolution11
I0928 19:33:29.610224  5010 net.cpp:380] Eltwise5 -> Eltwise5
I0928 19:33:29.610239  5010 net.cpp:122] Setting up Eltwise5
I0928 19:33:29.610242  5010 net.cpp:129] Top shape: 100 16 28 28 (1254400)
I0928 19:33:29.610244  5010 net.cpp:137] Memory required for data: 392314000
I0928 19:33:29.610247  5010 layer_factory.hpp:77] Creating layer Eltwise5_Eltwise5_0_split
I0928 19:33:29.610251  5010 net.cpp:84] Creating Layer Eltwise5_Eltwise5_0_split
I0928 19:33:29.610254  5010 net.cpp:406] Eltwise5_Eltwise5_0_split <- Eltwise5
I0928 19:33:29.610256  5010 net.cpp:380] Eltwise5_Eltwise5_0_split -> Eltwise5_Eltwise5_0_split_0
I0928 19:33:29.610260  5010 net.cpp:380] Eltwise5_Eltwise5_0_split -> Eltwise5_Eltwise5_0_split_1
I0928 19:33:29.610281  5010 net.cpp:122] Setting up Eltwise5_Eltwise5_0_split
I0928 19:33:29.610285  5010 net.cpp:129] Top shape: 100 16 28 28 (1254400)
I0928 19:33:29.610287  5010 net.cpp:129] Top shape: 100 16 28 28 (1254400)
I0928 19:33:29.610290  5010 net.cpp:137] Memory required for data: 402349200
I0928 19:33:29.610291  5010 layer_factory.hpp:77] Creating layer M2PELU11
I0928 19:33:29.610296  5010 net.cpp:84] Creating Layer M2PELU11
I0928 19:33:29.610299  5010 net.cpp:406] M2PELU11 <- Eltwise5_Eltwise5_0_split_0
I0928 19:33:29.610302  5010 net.cpp:380] M2PELU11 -> Elt_penlu5
I0928 19:33:29.610393  5010 net.cpp:122] Setting up M2PELU11
I0928 19:33:29.610396  5010 net.cpp:129] Top shape: 100 16 28 28 (1254400)
I0928 19:33:29.610399  5010 net.cpp:137] Memory required for data: 407366800
I0928 19:33:29.610402  5010 layer_factory.hpp:77] Creating layer BatchNorm_penlu11
I0928 19:33:29.610406  5010 net.cpp:84] Creating Layer BatchNorm_penlu11
I0928 19:33:29.610409  5010 net.cpp:406] BatchNorm_penlu11 <- Elt_penlu5
I0928 19:33:29.610411  5010 net.cpp:367] BatchNorm_penlu11 -> Elt_penlu5 (in-place)
I0928 19:33:29.610544  5010 net.cpp:122] Setting up BatchNorm_penlu11
I0928 19:33:29.610549  5010 net.cpp:129] Top shape: 100 16 28 28 (1254400)
I0928 19:33:29.610551  5010 net.cpp:137] Memory required for data: 412384400
I0928 19:33:29.610563  5010 layer_factory.hpp:77] Creating layer Scale_penlu11
I0928 19:33:29.610569  5010 net.cpp:84] Creating Layer Scale_penlu11
I0928 19:33:29.610571  5010 net.cpp:406] Scale_penlu11 <- Elt_penlu5
I0928 19:33:29.610574  5010 net.cpp:367] Scale_penlu11 -> Elt_penlu5 (in-place)
I0928 19:33:29.610601  5010 layer_factory.hpp:77] Creating layer Scale_penlu11
I0928 19:33:29.610680  5010 net.cpp:122] Setting up Scale_penlu11
I0928 19:33:29.610685  5010 net.cpp:129] Top shape: 100 16 28 28 (1254400)
I0928 19:33:29.610687  5010 net.cpp:137] Memory required for data: 417402000
I0928 19:33:29.610690  5010 layer_factory.hpp:77] Creating layer Convolution12
I0928 19:33:29.610698  5010 net.cpp:84] Creating Layer Convolution12
I0928 19:33:29.610700  5010 net.cpp:406] Convolution12 <- Elt_penlu5
I0928 19:33:29.610705  5010 net.cpp:380] Convolution12 -> Convolution12
I0928 19:33:29.611608  5010 net.cpp:122] Setting up Convolution12
I0928 19:33:29.611618  5010 net.cpp:129] Top shape: 100 16 28 28 (1254400)
I0928 19:33:29.611620  5010 net.cpp:137] Memory required for data: 422419600
I0928 19:33:29.611625  5010 layer_factory.hpp:77] Creating layer BatchNorm12
I0928 19:33:29.611630  5010 net.cpp:84] Creating Layer BatchNorm12
I0928 19:33:29.611634  5010 net.cpp:406] BatchNorm12 <- Convolution12
I0928 19:33:29.611636  5010 net.cpp:367] BatchNorm12 -> Convolution12 (in-place)
I0928 19:33:29.611771  5010 net.cpp:122] Setting up BatchNorm12
I0928 19:33:29.611776  5010 net.cpp:129] Top shape: 100 16 28 28 (1254400)
I0928 19:33:29.611778  5010 net.cpp:137] Memory required for data: 427437200
I0928 19:33:29.611783  5010 layer_factory.hpp:77] Creating layer Scale12
I0928 19:33:29.611788  5010 net.cpp:84] Creating Layer Scale12
I0928 19:33:29.611789  5010 net.cpp:406] Scale12 <- Convolution12
I0928 19:33:29.611793  5010 net.cpp:367] Scale12 -> Convolution12 (in-place)
I0928 19:33:29.611819  5010 layer_factory.hpp:77] Creating layer Scale12
I0928 19:33:29.611898  5010 net.cpp:122] Setting up Scale12
I0928 19:33:29.611903  5010 net.cpp:129] Top shape: 100 16 28 28 (1254400)
I0928 19:33:29.611905  5010 net.cpp:137] Memory required for data: 432454800
I0928 19:33:29.611909  5010 layer_factory.hpp:77] Creating layer M2PELU12
I0928 19:33:29.611914  5010 net.cpp:84] Creating Layer M2PELU12
I0928 19:33:29.611917  5010 net.cpp:406] M2PELU12 <- Convolution12
I0928 19:33:29.611920  5010 net.cpp:380] M2PELU12 -> Conv_penlu12
I0928 19:33:29.612006  5010 net.cpp:122] Setting up M2PELU12
I0928 19:33:29.612010  5010 net.cpp:129] Top shape: 100 16 28 28 (1254400)
I0928 19:33:29.612013  5010 net.cpp:137] Memory required for data: 437472400
I0928 19:33:29.612016  5010 layer_factory.hpp:77] Creating layer BatchNorm_penlu12
I0928 19:33:29.612020  5010 net.cpp:84] Creating Layer BatchNorm_penlu12
I0928 19:33:29.612023  5010 net.cpp:406] BatchNorm_penlu12 <- Conv_penlu12
I0928 19:33:29.612026  5010 net.cpp:367] BatchNorm_penlu12 -> Conv_penlu12 (in-place)
I0928 19:33:29.612156  5010 net.cpp:122] Setting up BatchNorm_penlu12
I0928 19:33:29.612160  5010 net.cpp:129] Top shape: 100 16 28 28 (1254400)
I0928 19:33:29.612162  5010 net.cpp:137] Memory required for data: 442490000
I0928 19:33:29.612167  5010 layer_factory.hpp:77] Creating layer Scale_penlu12
I0928 19:33:29.612170  5010 net.cpp:84] Creating Layer Scale_penlu12
I0928 19:33:29.612174  5010 net.cpp:406] Scale_penlu12 <- Conv_penlu12
I0928 19:33:29.612176  5010 net.cpp:367] Scale_penlu12 -> Conv_penlu12 (in-place)
I0928 19:33:29.612200  5010 layer_factory.hpp:77] Creating layer Scale_penlu12
I0928 19:33:29.612278  5010 net.cpp:122] Setting up Scale_penlu12
I0928 19:33:29.612282  5010 net.cpp:129] Top shape: 100 16 28 28 (1254400)
I0928 19:33:29.612284  5010 net.cpp:137] Memory required for data: 447507600
I0928 19:33:29.612288  5010 layer_factory.hpp:77] Creating layer Convolution13
I0928 19:33:29.612294  5010 net.cpp:84] Creating Layer Convolution13
I0928 19:33:29.612298  5010 net.cpp:406] Convolution13 <- Conv_penlu12
I0928 19:33:29.612301  5010 net.cpp:380] Convolution13 -> Convolution13
I0928 19:33:29.613212  5010 net.cpp:122] Setting up Convolution13
I0928 19:33:29.613221  5010 net.cpp:129] Top shape: 100 16 28 28 (1254400)
I0928 19:33:29.613224  5010 net.cpp:137] Memory required for data: 452525200
I0928 19:33:29.613229  5010 layer_factory.hpp:77] Creating layer BatchNorm13
I0928 19:33:29.613234  5010 net.cpp:84] Creating Layer BatchNorm13
I0928 19:33:29.613236  5010 net.cpp:406] BatchNorm13 <- Convolution13
I0928 19:33:29.613240  5010 net.cpp:367] BatchNorm13 -> Convolution13 (in-place)
I0928 19:33:29.613374  5010 net.cpp:122] Setting up BatchNorm13
I0928 19:33:29.613379  5010 net.cpp:129] Top shape: 100 16 28 28 (1254400)
I0928 19:33:29.613380  5010 net.cpp:137] Memory required for data: 457542800
I0928 19:33:29.613385  5010 layer_factory.hpp:77] Creating layer Scale13
I0928 19:33:29.613389  5010 net.cpp:84] Creating Layer Scale13
I0928 19:33:29.613392  5010 net.cpp:406] Scale13 <- Convolution13
I0928 19:33:29.613395  5010 net.cpp:367] Scale13 -> Convolution13 (in-place)
I0928 19:33:29.613421  5010 layer_factory.hpp:77] Creating layer Scale13
I0928 19:33:29.613500  5010 net.cpp:122] Setting up Scale13
I0928 19:33:29.613504  5010 net.cpp:129] Top shape: 100 16 28 28 (1254400)
I0928 19:33:29.613507  5010 net.cpp:137] Memory required for data: 462560400
I0928 19:33:29.613510  5010 layer_factory.hpp:77] Creating layer Eltwise6
I0928 19:33:29.613515  5010 net.cpp:84] Creating Layer Eltwise6
I0928 19:33:29.613518  5010 net.cpp:406] Eltwise6 <- Eltwise5_Eltwise5_0_split_1
I0928 19:33:29.613521  5010 net.cpp:406] Eltwise6 <- Convolution13
I0928 19:33:29.613524  5010 net.cpp:380] Eltwise6 -> Eltwise6
I0928 19:33:29.613539  5010 net.cpp:122] Setting up Eltwise6
I0928 19:33:29.613543  5010 net.cpp:129] Top shape: 100 16 28 28 (1254400)
I0928 19:33:29.613545  5010 net.cpp:137] Memory required for data: 467578000
I0928 19:33:29.613548  5010 layer_factory.hpp:77] Creating layer Eltwise6_Eltwise6_0_split
I0928 19:33:29.613551  5010 net.cpp:84] Creating Layer Eltwise6_Eltwise6_0_split
I0928 19:33:29.613554  5010 net.cpp:406] Eltwise6_Eltwise6_0_split <- Eltwise6
I0928 19:33:29.613556  5010 net.cpp:380] Eltwise6_Eltwise6_0_split -> Eltwise6_Eltwise6_0_split_0
I0928 19:33:29.613560  5010 net.cpp:380] Eltwise6_Eltwise6_0_split -> Eltwise6_Eltwise6_0_split_1
I0928 19:33:29.613581  5010 net.cpp:122] Setting up Eltwise6_Eltwise6_0_split
I0928 19:33:29.613585  5010 net.cpp:129] Top shape: 100 16 28 28 (1254400)
I0928 19:33:29.613589  5010 net.cpp:129] Top shape: 100 16 28 28 (1254400)
I0928 19:33:29.613590  5010 net.cpp:137] Memory required for data: 477613200
I0928 19:33:29.613592  5010 layer_factory.hpp:77] Creating layer M2PELU13
I0928 19:33:29.613597  5010 net.cpp:84] Creating Layer M2PELU13
I0928 19:33:29.613600  5010 net.cpp:406] M2PELU13 <- Eltwise6_Eltwise6_0_split_0
I0928 19:33:29.613602  5010 net.cpp:380] M2PELU13 -> Elt_penlu6
I0928 19:33:29.613690  5010 net.cpp:122] Setting up M2PELU13
I0928 19:33:29.613694  5010 net.cpp:129] Top shape: 100 16 28 28 (1254400)
I0928 19:33:29.613696  5010 net.cpp:137] Memory required for data: 482630800
I0928 19:33:29.613700  5010 layer_factory.hpp:77] Creating layer BatchNorm_penlu13
I0928 19:33:29.613704  5010 net.cpp:84] Creating Layer BatchNorm_penlu13
I0928 19:33:29.613706  5010 net.cpp:406] BatchNorm_penlu13 <- Elt_penlu6
I0928 19:33:29.613709  5010 net.cpp:367] BatchNorm_penlu13 -> Elt_penlu6 (in-place)
I0928 19:33:29.613838  5010 net.cpp:122] Setting up BatchNorm_penlu13
I0928 19:33:29.613842  5010 net.cpp:129] Top shape: 100 16 28 28 (1254400)
I0928 19:33:29.613844  5010 net.cpp:137] Memory required for data: 487648400
I0928 19:33:29.613849  5010 layer_factory.hpp:77] Creating layer Scale_penlu13
I0928 19:33:29.613853  5010 net.cpp:84] Creating Layer Scale_penlu13
I0928 19:33:29.613855  5010 net.cpp:406] Scale_penlu13 <- Elt_penlu6
I0928 19:33:29.613858  5010 net.cpp:367] Scale_penlu13 -> Elt_penlu6 (in-place)
I0928 19:33:29.613884  5010 layer_factory.hpp:77] Creating layer Scale_penlu13
I0928 19:33:29.613962  5010 net.cpp:122] Setting up Scale_penlu13
I0928 19:33:29.613967  5010 net.cpp:129] Top shape: 100 16 28 28 (1254400)
I0928 19:33:29.613976  5010 net.cpp:137] Memory required for data: 492666000
I0928 19:33:29.613979  5010 layer_factory.hpp:77] Creating layer Convolution14
I0928 19:33:29.613986  5010 net.cpp:84] Creating Layer Convolution14
I0928 19:33:29.613988  5010 net.cpp:406] Convolution14 <- Elt_penlu6
I0928 19:33:29.613992  5010 net.cpp:380] Convolution14 -> Convolution14
I0928 19:33:29.614907  5010 net.cpp:122] Setting up Convolution14
I0928 19:33:29.614915  5010 net.cpp:129] Top shape: 100 16 28 28 (1254400)
I0928 19:33:29.614917  5010 net.cpp:137] Memory required for data: 497683600
I0928 19:33:29.614923  5010 layer_factory.hpp:77] Creating layer BatchNorm14
I0928 19:33:29.614928  5010 net.cpp:84] Creating Layer BatchNorm14
I0928 19:33:29.614930  5010 net.cpp:406] BatchNorm14 <- Convolution14
I0928 19:33:29.614935  5010 net.cpp:367] BatchNorm14 -> Convolution14 (in-place)
I0928 19:33:29.615073  5010 net.cpp:122] Setting up BatchNorm14
I0928 19:33:29.615078  5010 net.cpp:129] Top shape: 100 16 28 28 (1254400)
I0928 19:33:29.615080  5010 net.cpp:137] Memory required for data: 502701200
I0928 19:33:29.615085  5010 layer_factory.hpp:77] Creating layer Scale14
I0928 19:33:29.615089  5010 net.cpp:84] Creating Layer Scale14
I0928 19:33:29.615092  5010 net.cpp:406] Scale14 <- Convolution14
I0928 19:33:29.615095  5010 net.cpp:367] Scale14 -> Convolution14 (in-place)
I0928 19:33:29.615121  5010 layer_factory.hpp:77] Creating layer Scale14
I0928 19:33:29.615201  5010 net.cpp:122] Setting up Scale14
I0928 19:33:29.615206  5010 net.cpp:129] Top shape: 100 16 28 28 (1254400)
I0928 19:33:29.615208  5010 net.cpp:137] Memory required for data: 507718800
I0928 19:33:29.615212  5010 layer_factory.hpp:77] Creating layer M2PELU14
I0928 19:33:29.615217  5010 net.cpp:84] Creating Layer M2PELU14
I0928 19:33:29.615219  5010 net.cpp:406] M2PELU14 <- Convolution14
I0928 19:33:29.615224  5010 net.cpp:380] M2PELU14 -> Conv_penlu14
I0928 19:33:29.615315  5010 net.cpp:122] Setting up M2PELU14
I0928 19:33:29.615319  5010 net.cpp:129] Top shape: 100 16 28 28 (1254400)
I0928 19:33:29.615322  5010 net.cpp:137] Memory required for data: 512736400
I0928 19:33:29.615325  5010 layer_factory.hpp:77] Creating layer BatchNorm_penlu14
I0928 19:33:29.615330  5010 net.cpp:84] Creating Layer BatchNorm_penlu14
I0928 19:33:29.615332  5010 net.cpp:406] BatchNorm_penlu14 <- Conv_penlu14
I0928 19:33:29.615336  5010 net.cpp:367] BatchNorm_penlu14 -> Conv_penlu14 (in-place)
I0928 19:33:29.615466  5010 net.cpp:122] Setting up BatchNorm_penlu14
I0928 19:33:29.615470  5010 net.cpp:129] Top shape: 100 16 28 28 (1254400)
I0928 19:33:29.615473  5010 net.cpp:137] Memory required for data: 517754000
I0928 19:33:29.615476  5010 layer_factory.hpp:77] Creating layer Scale_penlu14
I0928 19:33:29.615481  5010 net.cpp:84] Creating Layer Scale_penlu14
I0928 19:33:29.615483  5010 net.cpp:406] Scale_penlu14 <- Conv_penlu14
I0928 19:33:29.615486  5010 net.cpp:367] Scale_penlu14 -> Conv_penlu14 (in-place)
I0928 19:33:29.615511  5010 layer_factory.hpp:77] Creating layer Scale_penlu14
I0928 19:33:29.615589  5010 net.cpp:122] Setting up Scale_penlu14
I0928 19:33:29.615593  5010 net.cpp:129] Top shape: 100 16 28 28 (1254400)
I0928 19:33:29.615595  5010 net.cpp:137] Memory required for data: 522771600
I0928 19:33:29.615599  5010 layer_factory.hpp:77] Creating layer Convolution15
I0928 19:33:29.615605  5010 net.cpp:84] Creating Layer Convolution15
I0928 19:33:29.615608  5010 net.cpp:406] Convolution15 <- Conv_penlu14
I0928 19:33:29.615612  5010 net.cpp:380] Convolution15 -> Convolution15
I0928 19:33:29.616515  5010 net.cpp:122] Setting up Convolution15
I0928 19:33:29.616524  5010 net.cpp:129] Top shape: 100 16 28 28 (1254400)
I0928 19:33:29.616528  5010 net.cpp:137] Memory required for data: 527789200
I0928 19:33:29.616531  5010 layer_factory.hpp:77] Creating layer BatchNorm15
I0928 19:33:29.616538  5010 net.cpp:84] Creating Layer BatchNorm15
I0928 19:33:29.616540  5010 net.cpp:406] BatchNorm15 <- Convolution15
I0928 19:33:29.616544  5010 net.cpp:367] BatchNorm15 -> Convolution15 (in-place)
I0928 19:33:29.616688  5010 net.cpp:122] Setting up BatchNorm15
I0928 19:33:29.616693  5010 net.cpp:129] Top shape: 100 16 28 28 (1254400)
I0928 19:33:29.616695  5010 net.cpp:137] Memory required for data: 532806800
I0928 19:33:29.616701  5010 layer_factory.hpp:77] Creating layer Scale15
I0928 19:33:29.616705  5010 net.cpp:84] Creating Layer Scale15
I0928 19:33:29.616708  5010 net.cpp:406] Scale15 <- Convolution15
I0928 19:33:29.616710  5010 net.cpp:367] Scale15 -> Convolution15 (in-place)
I0928 19:33:29.616737  5010 layer_factory.hpp:77] Creating layer Scale15
I0928 19:33:29.616818  5010 net.cpp:122] Setting up Scale15
I0928 19:33:29.616823  5010 net.cpp:129] Top shape: 100 16 28 28 (1254400)
I0928 19:33:29.616825  5010 net.cpp:137] Memory required for data: 537824400
I0928 19:33:29.616829  5010 layer_factory.hpp:77] Creating layer Eltwise7
I0928 19:33:29.616833  5010 net.cpp:84] Creating Layer Eltwise7
I0928 19:33:29.616835  5010 net.cpp:406] Eltwise7 <- Eltwise6_Eltwise6_0_split_1
I0928 19:33:29.616838  5010 net.cpp:406] Eltwise7 <- Convolution15
I0928 19:33:29.616842  5010 net.cpp:380] Eltwise7 -> Eltwise7
I0928 19:33:29.616858  5010 net.cpp:122] Setting up Eltwise7
I0928 19:33:29.616861  5010 net.cpp:129] Top shape: 100 16 28 28 (1254400)
I0928 19:33:29.616863  5010 net.cpp:137] Memory required for data: 542842000
I0928 19:33:29.616865  5010 layer_factory.hpp:77] Creating layer Eltwise7_Eltwise7_0_split
I0928 19:33:29.616869  5010 net.cpp:84] Creating Layer Eltwise7_Eltwise7_0_split
I0928 19:33:29.616871  5010 net.cpp:406] Eltwise7_Eltwise7_0_split <- Eltwise7
I0928 19:33:29.616874  5010 net.cpp:380] Eltwise7_Eltwise7_0_split -> Eltwise7_Eltwise7_0_split_0
I0928 19:33:29.616878  5010 net.cpp:380] Eltwise7_Eltwise7_0_split -> Eltwise7_Eltwise7_0_split_1
I0928 19:33:29.616900  5010 net.cpp:122] Setting up Eltwise7_Eltwise7_0_split
I0928 19:33:29.616904  5010 net.cpp:129] Top shape: 100 16 28 28 (1254400)
I0928 19:33:29.616906  5010 net.cpp:129] Top shape: 100 16 28 28 (1254400)
I0928 19:33:29.616909  5010 net.cpp:137] Memory required for data: 552877200
I0928 19:33:29.616910  5010 layer_factory.hpp:77] Creating layer M2PELU15
I0928 19:33:29.616914  5010 net.cpp:84] Creating Layer M2PELU15
I0928 19:33:29.616917  5010 net.cpp:406] M2PELU15 <- Eltwise7_Eltwise7_0_split_0
I0928 19:33:29.616920  5010 net.cpp:380] M2PELU15 -> Elt_penlu7
I0928 19:33:29.617012  5010 net.cpp:122] Setting up M2PELU15
I0928 19:33:29.617015  5010 net.cpp:129] Top shape: 100 16 28 28 (1254400)
I0928 19:33:29.617017  5010 net.cpp:137] Memory required for data: 557894800
I0928 19:33:29.617022  5010 layer_factory.hpp:77] Creating layer BatchNorm_penlu15
I0928 19:33:29.617025  5010 net.cpp:84] Creating Layer BatchNorm_penlu15
I0928 19:33:29.617027  5010 net.cpp:406] BatchNorm_penlu15 <- Elt_penlu7
I0928 19:33:29.617031  5010 net.cpp:367] BatchNorm_penlu15 -> Elt_penlu7 (in-place)
I0928 19:33:29.617161  5010 net.cpp:122] Setting up BatchNorm_penlu15
I0928 19:33:29.617166  5010 net.cpp:129] Top shape: 100 16 28 28 (1254400)
I0928 19:33:29.617168  5010 net.cpp:137] Memory required for data: 562912400
I0928 19:33:29.617172  5010 layer_factory.hpp:77] Creating layer Scale_penlu15
I0928 19:33:29.617177  5010 net.cpp:84] Creating Layer Scale_penlu15
I0928 19:33:29.617179  5010 net.cpp:406] Scale_penlu15 <- Elt_penlu7
I0928 19:33:29.617182  5010 net.cpp:367] Scale_penlu15 -> Elt_penlu7 (in-place)
I0928 19:33:29.617208  5010 layer_factory.hpp:77] Creating layer Scale_penlu15
I0928 19:33:29.617286  5010 net.cpp:122] Setting up Scale_penlu15
I0928 19:33:29.617290  5010 net.cpp:129] Top shape: 100 16 28 28 (1254400)
I0928 19:33:29.617292  5010 net.cpp:137] Memory required for data: 567930000
I0928 19:33:29.617295  5010 layer_factory.hpp:77] Creating layer Convolution16
I0928 19:33:29.617302  5010 net.cpp:84] Creating Layer Convolution16
I0928 19:33:29.617305  5010 net.cpp:406] Convolution16 <- Elt_penlu7
I0928 19:33:29.617310  5010 net.cpp:380] Convolution16 -> Convolution16
I0928 19:33:29.618218  5010 net.cpp:122] Setting up Convolution16
I0928 19:33:29.618233  5010 net.cpp:129] Top shape: 100 16 28 28 (1254400)
I0928 19:33:29.618237  5010 net.cpp:137] Memory required for data: 572947600
I0928 19:33:29.618240  5010 layer_factory.hpp:77] Creating layer BatchNorm16
I0928 19:33:29.618247  5010 net.cpp:84] Creating Layer BatchNorm16
I0928 19:33:29.618249  5010 net.cpp:406] BatchNorm16 <- Convolution16
I0928 19:33:29.618253  5010 net.cpp:367] BatchNorm16 -> Convolution16 (in-place)
I0928 19:33:29.618394  5010 net.cpp:122] Setting up BatchNorm16
I0928 19:33:29.618398  5010 net.cpp:129] Top shape: 100 16 28 28 (1254400)
I0928 19:33:29.618401  5010 net.cpp:137] Memory required for data: 577965200
I0928 19:33:29.618415  5010 layer_factory.hpp:77] Creating layer Scale16
I0928 19:33:29.618420  5010 net.cpp:84] Creating Layer Scale16
I0928 19:33:29.618422  5010 net.cpp:406] Scale16 <- Convolution16
I0928 19:33:29.618425  5010 net.cpp:367] Scale16 -> Convolution16 (in-place)
I0928 19:33:29.618451  5010 layer_factory.hpp:77] Creating layer Scale16
I0928 19:33:29.618546  5010 net.cpp:122] Setting up Scale16
I0928 19:33:29.618561  5010 net.cpp:129] Top shape: 100 16 28 28 (1254400)
I0928 19:33:29.618562  5010 net.cpp:137] Memory required for data: 582982800
I0928 19:33:29.618566  5010 layer_factory.hpp:77] Creating layer M2PELU16
I0928 19:33:29.618572  5010 net.cpp:84] Creating Layer M2PELU16
I0928 19:33:29.618574  5010 net.cpp:406] M2PELU16 <- Convolution16
I0928 19:33:29.618578  5010 net.cpp:380] M2PELU16 -> Conv_penlu16
I0928 19:33:29.618664  5010 net.cpp:122] Setting up M2PELU16
I0928 19:33:29.618669  5010 net.cpp:129] Top shape: 100 16 28 28 (1254400)
I0928 19:33:29.618670  5010 net.cpp:137] Memory required for data: 588000400
I0928 19:33:29.618674  5010 layer_factory.hpp:77] Creating layer BatchNorm_penlu16
I0928 19:33:29.618680  5010 net.cpp:84] Creating Layer BatchNorm_penlu16
I0928 19:33:29.618681  5010 net.cpp:406] BatchNorm_penlu16 <- Conv_penlu16
I0928 19:33:29.618685  5010 net.cpp:367] BatchNorm_penlu16 -> Conv_penlu16 (in-place)
I0928 19:33:29.618813  5010 net.cpp:122] Setting up BatchNorm_penlu16
I0928 19:33:29.618816  5010 net.cpp:129] Top shape: 100 16 28 28 (1254400)
I0928 19:33:29.618818  5010 net.cpp:137] Memory required for data: 593018000
I0928 19:33:29.618822  5010 layer_factory.hpp:77] Creating layer Scale_penlu16
I0928 19:33:29.618826  5010 net.cpp:84] Creating Layer Scale_penlu16
I0928 19:33:29.618829  5010 net.cpp:406] Scale_penlu16 <- Conv_penlu16
I0928 19:33:29.618831  5010 net.cpp:367] Scale_penlu16 -> Conv_penlu16 (in-place)
I0928 19:33:29.618856  5010 layer_factory.hpp:77] Creating layer Scale_penlu16
I0928 19:33:29.618932  5010 net.cpp:122] Setting up Scale_penlu16
I0928 19:33:29.618937  5010 net.cpp:129] Top shape: 100 16 28 28 (1254400)
I0928 19:33:29.618939  5010 net.cpp:137] Memory required for data: 598035600
I0928 19:33:29.618942  5010 layer_factory.hpp:77] Creating layer Convolution17
I0928 19:33:29.618949  5010 net.cpp:84] Creating Layer Convolution17
I0928 19:33:29.618952  5010 net.cpp:406] Convolution17 <- Conv_penlu16
I0928 19:33:29.618955  5010 net.cpp:380] Convolution17 -> Convolution17
I0928 19:33:29.619532  5010 net.cpp:122] Setting up Convolution17
I0928 19:33:29.619539  5010 net.cpp:129] Top shape: 100 16 28 28 (1254400)
I0928 19:33:29.619551  5010 net.cpp:137] Memory required for data: 603053200
I0928 19:33:29.619555  5010 layer_factory.hpp:77] Creating layer BatchNorm17
I0928 19:33:29.619561  5010 net.cpp:84] Creating Layer BatchNorm17
I0928 19:33:29.619565  5010 net.cpp:406] BatchNorm17 <- Convolution17
I0928 19:33:29.619568  5010 net.cpp:367] BatchNorm17 -> Convolution17 (in-place)
I0928 19:33:29.619726  5010 net.cpp:122] Setting up BatchNorm17
I0928 19:33:29.619735  5010 net.cpp:129] Top shape: 100 16 28 28 (1254400)
I0928 19:33:29.619737  5010 net.cpp:137] Memory required for data: 608070800
I0928 19:33:29.619746  5010 layer_factory.hpp:77] Creating layer Scale17
I0928 19:33:29.619755  5010 net.cpp:84] Creating Layer Scale17
I0928 19:33:29.619760  5010 net.cpp:406] Scale17 <- Convolution17
I0928 19:33:29.619765  5010 net.cpp:367] Scale17 -> Convolution17 (in-place)
I0928 19:33:29.619825  5010 layer_factory.hpp:77] Creating layer Scale17
I0928 19:33:29.619953  5010 net.cpp:122] Setting up Scale17
I0928 19:33:29.619961  5010 net.cpp:129] Top shape: 100 16 28 28 (1254400)
I0928 19:33:29.619962  5010 net.cpp:137] Memory required for data: 613088400
I0928 19:33:29.619966  5010 layer_factory.hpp:77] Creating layer Eltwise8
I0928 19:33:29.619972  5010 net.cpp:84] Creating Layer Eltwise8
I0928 19:33:29.619976  5010 net.cpp:406] Eltwise8 <- Eltwise7_Eltwise7_0_split_1
I0928 19:33:29.619978  5010 net.cpp:406] Eltwise8 <- Convolution17
I0928 19:33:29.619982  5010 net.cpp:380] Eltwise8 -> Eltwise8
I0928 19:33:29.619997  5010 net.cpp:122] Setting up Eltwise8
I0928 19:33:29.620002  5010 net.cpp:129] Top shape: 100 16 28 28 (1254400)
I0928 19:33:29.620003  5010 net.cpp:137] Memory required for data: 618106000
I0928 19:33:29.620005  5010 layer_factory.hpp:77] Creating layer Eltwise8_Eltwise8_0_split
I0928 19:33:29.620009  5010 net.cpp:84] Creating Layer Eltwise8_Eltwise8_0_split
I0928 19:33:29.620012  5010 net.cpp:406] Eltwise8_Eltwise8_0_split <- Eltwise8
I0928 19:33:29.620015  5010 net.cpp:380] Eltwise8_Eltwise8_0_split -> Eltwise8_Eltwise8_0_split_0
I0928 19:33:29.620019  5010 net.cpp:380] Eltwise8_Eltwise8_0_split -> Eltwise8_Eltwise8_0_split_1
I0928 19:33:29.620046  5010 net.cpp:122] Setting up Eltwise8_Eltwise8_0_split
I0928 19:33:29.620054  5010 net.cpp:129] Top shape: 100 16 28 28 (1254400)
I0928 19:33:29.620057  5010 net.cpp:129] Top shape: 100 16 28 28 (1254400)
I0928 19:33:29.620059  5010 net.cpp:137] Memory required for data: 628141200
I0928 19:33:29.620071  5010 layer_factory.hpp:77] Creating layer M2PELU17
I0928 19:33:29.620075  5010 net.cpp:84] Creating Layer M2PELU17
I0928 19:33:29.620079  5010 net.cpp:406] M2PELU17 <- Eltwise8_Eltwise8_0_split_0
I0928 19:33:29.620081  5010 net.cpp:380] M2PELU17 -> Elt_penlu8
I0928 19:33:29.620189  5010 net.cpp:122] Setting up M2PELU17
I0928 19:33:29.620195  5010 net.cpp:129] Top shape: 100 16 28 28 (1254400)
I0928 19:33:29.620198  5010 net.cpp:137] Memory required for data: 633158800
I0928 19:33:29.620201  5010 layer_factory.hpp:77] Creating layer BatchNorm_penlu17
I0928 19:33:29.620205  5010 net.cpp:84] Creating Layer BatchNorm_penlu17
I0928 19:33:29.620208  5010 net.cpp:406] BatchNorm_penlu17 <- Elt_penlu8
I0928 19:33:29.620213  5010 net.cpp:367] BatchNorm_penlu17 -> Elt_penlu8 (in-place)
I0928 19:33:29.620342  5010 net.cpp:122] Setting up BatchNorm_penlu17
I0928 19:33:29.620347  5010 net.cpp:129] Top shape: 100 16 28 28 (1254400)
I0928 19:33:29.620348  5010 net.cpp:137] Memory required for data: 638176400
I0928 19:33:29.620353  5010 layer_factory.hpp:77] Creating layer Scale_penlu17
I0928 19:33:29.620357  5010 net.cpp:84] Creating Layer Scale_penlu17
I0928 19:33:29.620359  5010 net.cpp:406] Scale_penlu17 <- Elt_penlu8
I0928 19:33:29.620362  5010 net.cpp:367] Scale_penlu17 -> Elt_penlu8 (in-place)
I0928 19:33:29.620388  5010 layer_factory.hpp:77] Creating layer Scale_penlu17
I0928 19:33:29.620471  5010 net.cpp:122] Setting up Scale_penlu17
I0928 19:33:29.620476  5010 net.cpp:129] Top shape: 100 16 28 28 (1254400)
I0928 19:33:29.620477  5010 net.cpp:137] Memory required for data: 643194000
I0928 19:33:29.620481  5010 layer_factory.hpp:77] Creating layer Convolution18
I0928 19:33:29.620487  5010 net.cpp:84] Creating Layer Convolution18
I0928 19:33:29.620491  5010 net.cpp:406] Convolution18 <- Elt_penlu8
I0928 19:33:29.620494  5010 net.cpp:380] Convolution18 -> Convolution18
I0928 19:33:29.621446  5010 net.cpp:122] Setting up Convolution18
I0928 19:33:29.621454  5010 net.cpp:129] Top shape: 100 16 28 28 (1254400)
I0928 19:33:29.621457  5010 net.cpp:137] Memory required for data: 648211600
I0928 19:33:29.621461  5010 layer_factory.hpp:77] Creating layer BatchNorm18
I0928 19:33:29.621466  5010 net.cpp:84] Creating Layer BatchNorm18
I0928 19:33:29.621469  5010 net.cpp:406] BatchNorm18 <- Convolution18
I0928 19:33:29.621472  5010 net.cpp:367] BatchNorm18 -> Convolution18 (in-place)
I0928 19:33:29.621631  5010 net.cpp:122] Setting up BatchNorm18
I0928 19:33:29.621636  5010 net.cpp:129] Top shape: 100 16 28 28 (1254400)
I0928 19:33:29.621639  5010 net.cpp:137] Memory required for data: 653229200
I0928 19:33:29.621642  5010 layer_factory.hpp:77] Creating layer Scale18
I0928 19:33:29.621646  5010 net.cpp:84] Creating Layer Scale18
I0928 19:33:29.621649  5010 net.cpp:406] Scale18 <- Convolution18
I0928 19:33:29.621652  5010 net.cpp:367] Scale18 -> Convolution18 (in-place)
I0928 19:33:29.621676  5010 layer_factory.hpp:77] Creating layer Scale18
I0928 19:33:29.621754  5010 net.cpp:122] Setting up Scale18
I0928 19:33:29.621758  5010 net.cpp:129] Top shape: 100 16 28 28 (1254400)
I0928 19:33:29.621760  5010 net.cpp:137] Memory required for data: 658246800
I0928 19:33:29.621764  5010 layer_factory.hpp:77] Creating layer M2PELU18
I0928 19:33:29.621769  5010 net.cpp:84] Creating Layer M2PELU18
I0928 19:33:29.621772  5010 net.cpp:406] M2PELU18 <- Convolution18
I0928 19:33:29.621775  5010 net.cpp:380] M2PELU18 -> Conv_penlu18
I0928 19:33:29.621887  5010 net.cpp:122] Setting up M2PELU18
I0928 19:33:29.621902  5010 net.cpp:129] Top shape: 100 16 28 28 (1254400)
I0928 19:33:29.621904  5010 net.cpp:137] Memory required for data: 663264400
I0928 19:33:29.621908  5010 layer_factory.hpp:77] Creating layer BatchNorm_penlu18
I0928 19:33:29.621912  5010 net.cpp:84] Creating Layer BatchNorm_penlu18
I0928 19:33:29.621914  5010 net.cpp:406] BatchNorm_penlu18 <- Conv_penlu18
I0928 19:33:29.621918  5010 net.cpp:367] BatchNorm_penlu18 -> Conv_penlu18 (in-place)
I0928 19:33:29.622077  5010 net.cpp:122] Setting up BatchNorm_penlu18
I0928 19:33:29.622082  5010 net.cpp:129] Top shape: 100 16 28 28 (1254400)
I0928 19:33:29.622084  5010 net.cpp:137] Memory required for data: 668282000
I0928 19:33:29.622088  5010 layer_factory.hpp:77] Creating layer Scale_penlu18
I0928 19:33:29.622092  5010 net.cpp:84] Creating Layer Scale_penlu18
I0928 19:33:29.622094  5010 net.cpp:406] Scale_penlu18 <- Conv_penlu18
I0928 19:33:29.622098  5010 net.cpp:367] Scale_penlu18 -> Conv_penlu18 (in-place)
I0928 19:33:29.622123  5010 layer_factory.hpp:77] Creating layer Scale_penlu18
I0928 19:33:29.622210  5010 net.cpp:122] Setting up Scale_penlu18
I0928 19:33:29.622222  5010 net.cpp:129] Top shape: 100 16 28 28 (1254400)
I0928 19:33:29.622225  5010 net.cpp:137] Memory required for data: 673299600
I0928 19:33:29.622228  5010 layer_factory.hpp:77] Creating layer Convolution19
I0928 19:33:29.622244  5010 net.cpp:84] Creating Layer Convolution19
I0928 19:33:29.622246  5010 net.cpp:406] Convolution19 <- Conv_penlu18
I0928 19:33:29.622261  5010 net.cpp:380] Convolution19 -> Convolution19
I0928 19:33:29.623278  5010 net.cpp:122] Setting up Convolution19
I0928 19:33:29.623286  5010 net.cpp:129] Top shape: 100 16 28 28 (1254400)
I0928 19:33:29.623289  5010 net.cpp:137] Memory required for data: 678317200
I0928 19:33:29.623293  5010 layer_factory.hpp:77] Creating layer BatchNorm19
I0928 19:33:29.623298  5010 net.cpp:84] Creating Layer BatchNorm19
I0928 19:33:29.623301  5010 net.cpp:406] BatchNorm19 <- Convolution19
I0928 19:33:29.623304  5010 net.cpp:367] BatchNorm19 -> Convolution19 (in-place)
I0928 19:33:29.623437  5010 net.cpp:122] Setting up BatchNorm19
I0928 19:33:29.623441  5010 net.cpp:129] Top shape: 100 16 28 28 (1254400)
I0928 19:33:29.623443  5010 net.cpp:137] Memory required for data: 683334800
I0928 19:33:29.623468  5010 layer_factory.hpp:77] Creating layer Scale19
I0928 19:33:29.623479  5010 net.cpp:84] Creating Layer Scale19
I0928 19:33:29.623482  5010 net.cpp:406] Scale19 <- Convolution19
I0928 19:33:29.623486  5010 net.cpp:367] Scale19 -> Convolution19 (in-place)
I0928 19:33:29.623512  5010 layer_factory.hpp:77] Creating layer Scale19
I0928 19:33:29.623590  5010 net.cpp:122] Setting up Scale19
I0928 19:33:29.623595  5010 net.cpp:129] Top shape: 100 16 28 28 (1254400)
I0928 19:33:29.623597  5010 net.cpp:137] Memory required for data: 688352400
I0928 19:33:29.623601  5010 layer_factory.hpp:77] Creating layer Eltwise9
I0928 19:33:29.623605  5010 net.cpp:84] Creating Layer Eltwise9
I0928 19:33:29.623613  5010 net.cpp:406] Eltwise9 <- Eltwise8_Eltwise8_0_split_1
I0928 19:33:29.623616  5010 net.cpp:406] Eltwise9 <- Convolution19
I0928 19:33:29.623620  5010 net.cpp:380] Eltwise9 -> Eltwise9
I0928 19:33:29.623636  5010 net.cpp:122] Setting up Eltwise9
I0928 19:33:29.623639  5010 net.cpp:129] Top shape: 100 16 28 28 (1254400)
I0928 19:33:29.623641  5010 net.cpp:137] Memory required for data: 693370000
I0928 19:33:29.623643  5010 layer_factory.hpp:77] Creating layer M2PELU19
I0928 19:33:29.623649  5010 net.cpp:84] Creating Layer M2PELU19
I0928 19:33:29.623651  5010 net.cpp:406] M2PELU19 <- Eltwise9
I0928 19:33:29.623654  5010 net.cpp:380] M2PELU19 -> Elt_penlu9
I0928 19:33:29.623744  5010 net.cpp:122] Setting up M2PELU19
I0928 19:33:29.623747  5010 net.cpp:129] Top shape: 100 16 28 28 (1254400)
I0928 19:33:29.623749  5010 net.cpp:137] Memory required for data: 698387600
I0928 19:33:29.623754  5010 layer_factory.hpp:77] Creating layer BatchNorm_penlu19
I0928 19:33:29.623757  5010 net.cpp:84] Creating Layer BatchNorm_penlu19
I0928 19:33:29.623759  5010 net.cpp:406] BatchNorm_penlu19 <- Elt_penlu9
I0928 19:33:29.623762  5010 net.cpp:367] BatchNorm_penlu19 -> Elt_penlu9 (in-place)
I0928 19:33:29.623899  5010 net.cpp:122] Setting up BatchNorm_penlu19
I0928 19:33:29.623903  5010 net.cpp:129] Top shape: 100 16 28 28 (1254400)
I0928 19:33:29.623905  5010 net.cpp:137] Memory required for data: 703405200
I0928 19:33:29.623909  5010 layer_factory.hpp:77] Creating layer Scale_penlu19
I0928 19:33:29.623914  5010 net.cpp:84] Creating Layer Scale_penlu19
I0928 19:33:29.623916  5010 net.cpp:406] Scale_penlu19 <- Elt_penlu9
I0928 19:33:29.623919  5010 net.cpp:367] Scale_penlu19 -> Elt_penlu9 (in-place)
I0928 19:33:29.623944  5010 layer_factory.hpp:77] Creating layer Scale_penlu19
I0928 19:33:29.624020  5010 net.cpp:122] Setting up Scale_penlu19
I0928 19:33:29.624025  5010 net.cpp:129] Top shape: 100 16 28 28 (1254400)
I0928 19:33:29.624027  5010 net.cpp:137] Memory required for data: 708422800
I0928 19:33:29.624032  5010 layer_factory.hpp:77] Creating layer Elt_penlu9_Scale_penlu19_0_split
I0928 19:33:29.624034  5010 net.cpp:84] Creating Layer Elt_penlu9_Scale_penlu19_0_split
I0928 19:33:29.624037  5010 net.cpp:406] Elt_penlu9_Scale_penlu19_0_split <- Elt_penlu9
I0928 19:33:29.624039  5010 net.cpp:380] Elt_penlu9_Scale_penlu19_0_split -> Elt_penlu9_Scale_penlu19_0_split_0
I0928 19:33:29.624043  5010 net.cpp:380] Elt_penlu9_Scale_penlu19_0_split -> Elt_penlu9_Scale_penlu19_0_split_1
I0928 19:33:29.624068  5010 net.cpp:122] Setting up Elt_penlu9_Scale_penlu19_0_split
I0928 19:33:29.624070  5010 net.cpp:129] Top shape: 100 16 28 28 (1254400)
I0928 19:33:29.624073  5010 net.cpp:129] Top shape: 100 16 28 28 (1254400)
I0928 19:33:29.624075  5010 net.cpp:137] Memory required for data: 718458000
I0928 19:33:29.624078  5010 layer_factory.hpp:77] Creating layer Convolution20
I0928 19:33:29.624083  5010 net.cpp:84] Creating Layer Convolution20
I0928 19:33:29.624086  5010 net.cpp:406] Convolution20 <- Elt_penlu9_Scale_penlu19_0_split_0
I0928 19:33:29.624089  5010 net.cpp:380] Convolution20 -> Convolution20
I0928 19:33:29.625260  5010 net.cpp:122] Setting up Convolution20
I0928 19:33:29.625268  5010 net.cpp:129] Top shape: 100 32 14 14 (627200)
I0928 19:33:29.625272  5010 net.cpp:137] Memory required for data: 720966800
I0928 19:33:29.625277  5010 layer_factory.hpp:77] Creating layer BatchNorm20
I0928 19:33:29.625282  5010 net.cpp:84] Creating Layer BatchNorm20
I0928 19:33:29.625284  5010 net.cpp:406] BatchNorm20 <- Convolution20
I0928 19:33:29.625288  5010 net.cpp:367] BatchNorm20 -> Convolution20 (in-place)
I0928 19:33:29.625427  5010 net.cpp:122] Setting up BatchNorm20
I0928 19:33:29.625432  5010 net.cpp:129] Top shape: 100 32 14 14 (627200)
I0928 19:33:29.625433  5010 net.cpp:137] Memory required for data: 723475600
I0928 19:33:29.625438  5010 layer_factory.hpp:77] Creating layer Scale20
I0928 19:33:29.625442  5010 net.cpp:84] Creating Layer Scale20
I0928 19:33:29.625444  5010 net.cpp:406] Scale20 <- Convolution20
I0928 19:33:29.625453  5010 net.cpp:367] Scale20 -> Convolution20 (in-place)
I0928 19:33:29.625481  5010 layer_factory.hpp:77] Creating layer Scale20
I0928 19:33:29.625556  5010 net.cpp:122] Setting up Scale20
I0928 19:33:29.625561  5010 net.cpp:129] Top shape: 100 32 14 14 (627200)
I0928 19:33:29.625562  5010 net.cpp:137] Memory required for data: 725984400
I0928 19:33:29.625566  5010 layer_factory.hpp:77] Creating layer Convolution21
I0928 19:33:29.625572  5010 net.cpp:84] Creating Layer Convolution21
I0928 19:33:29.625576  5010 net.cpp:406] Convolution21 <- Elt_penlu9_Scale_penlu19_0_split_1
I0928 19:33:29.625581  5010 net.cpp:380] Convolution21 -> Convolution21
I0928 19:33:29.627161  5010 net.cpp:122] Setting up Convolution21
I0928 19:33:29.627169  5010 net.cpp:129] Top shape: 100 32 14 14 (627200)
I0928 19:33:29.627172  5010 net.cpp:137] Memory required for data: 728493200
I0928 19:33:29.627177  5010 layer_factory.hpp:77] Creating layer BatchNorm21
I0928 19:33:29.627182  5010 net.cpp:84] Creating Layer BatchNorm21
I0928 19:33:29.627184  5010 net.cpp:406] BatchNorm21 <- Convolution21
I0928 19:33:29.627188  5010 net.cpp:367] BatchNorm21 -> Convolution21 (in-place)
I0928 19:33:29.627323  5010 net.cpp:122] Setting up BatchNorm21
I0928 19:33:29.627328  5010 net.cpp:129] Top shape: 100 32 14 14 (627200)
I0928 19:33:29.627331  5010 net.cpp:137] Memory required for data: 731002000
I0928 19:33:29.627334  5010 layer_factory.hpp:77] Creating layer Scale21
I0928 19:33:29.627338  5010 net.cpp:84] Creating Layer Scale21
I0928 19:33:29.627341  5010 net.cpp:406] Scale21 <- Convolution21
I0928 19:33:29.627344  5010 net.cpp:367] Scale21 -> Convolution21 (in-place)
I0928 19:33:29.627372  5010 layer_factory.hpp:77] Creating layer Scale21
I0928 19:33:29.627449  5010 net.cpp:122] Setting up Scale21
I0928 19:33:29.627452  5010 net.cpp:129] Top shape: 100 32 14 14 (627200)
I0928 19:33:29.627454  5010 net.cpp:137] Memory required for data: 733510800
I0928 19:33:29.627459  5010 layer_factory.hpp:77] Creating layer M2PELU20
I0928 19:33:29.627463  5010 net.cpp:84] Creating Layer M2PELU20
I0928 19:33:29.627465  5010 net.cpp:406] M2PELU20 <- Convolution21
I0928 19:33:29.627470  5010 net.cpp:380] M2PELU20 -> Conv_penlu21
I0928 19:33:29.627550  5010 net.cpp:122] Setting up M2PELU20
I0928 19:33:29.627554  5010 net.cpp:129] Top shape: 100 32 14 14 (627200)
I0928 19:33:29.627557  5010 net.cpp:137] Memory required for data: 736019600
I0928 19:33:29.627560  5010 layer_factory.hpp:77] Creating layer BatchNorm_penlu20
I0928 19:33:29.627564  5010 net.cpp:84] Creating Layer BatchNorm_penlu20
I0928 19:33:29.627566  5010 net.cpp:406] BatchNorm_penlu20 <- Conv_penlu21
I0928 19:33:29.627569  5010 net.cpp:367] BatchNorm_penlu20 -> Conv_penlu21 (in-place)
I0928 19:33:29.627694  5010 net.cpp:122] Setting up BatchNorm_penlu20
I0928 19:33:29.627697  5010 net.cpp:129] Top shape: 100 32 14 14 (627200)
I0928 19:33:29.627699  5010 net.cpp:137] Memory required for data: 738528400
I0928 19:33:29.627704  5010 layer_factory.hpp:77] Creating layer Scale_penlu20
I0928 19:33:29.627707  5010 net.cpp:84] Creating Layer Scale_penlu20
I0928 19:33:29.627709  5010 net.cpp:406] Scale_penlu20 <- Conv_penlu21
I0928 19:33:29.627712  5010 net.cpp:367] Scale_penlu20 -> Conv_penlu21 (in-place)
I0928 19:33:29.627738  5010 layer_factory.hpp:77] Creating layer Scale_penlu20
I0928 19:33:29.627820  5010 net.cpp:122] Setting up Scale_penlu20
I0928 19:33:29.627823  5010 net.cpp:129] Top shape: 100 32 14 14 (627200)
I0928 19:33:29.627825  5010 net.cpp:137] Memory required for data: 741037200
I0928 19:33:29.627828  5010 layer_factory.hpp:77] Creating layer Convolution22
I0928 19:33:29.627835  5010 net.cpp:84] Creating Layer Convolution22
I0928 19:33:29.627837  5010 net.cpp:406] Convolution22 <- Conv_penlu21
I0928 19:33:29.627841  5010 net.cpp:380] Convolution22 -> Convolution22
I0928 19:33:29.628908  5010 net.cpp:122] Setting up Convolution22
I0928 19:33:29.628916  5010 net.cpp:129] Top shape: 100 32 14 14 (627200)
I0928 19:33:29.628919  5010 net.cpp:137] Memory required for data: 743546000
I0928 19:33:29.628929  5010 layer_factory.hpp:77] Creating layer BatchNorm22
I0928 19:33:29.628935  5010 net.cpp:84] Creating Layer BatchNorm22
I0928 19:33:29.628937  5010 net.cpp:406] BatchNorm22 <- Convolution22
I0928 19:33:29.628942  5010 net.cpp:367] BatchNorm22 -> Convolution22 (in-place)
I0928 19:33:29.629076  5010 net.cpp:122] Setting up BatchNorm22
I0928 19:33:29.629079  5010 net.cpp:129] Top shape: 100 32 14 14 (627200)
I0928 19:33:29.629081  5010 net.cpp:137] Memory required for data: 746054800
I0928 19:33:29.629086  5010 layer_factory.hpp:77] Creating layer Scale22
I0928 19:33:29.629091  5010 net.cpp:84] Creating Layer Scale22
I0928 19:33:29.629092  5010 net.cpp:406] Scale22 <- Convolution22
I0928 19:33:29.629096  5010 net.cpp:367] Scale22 -> Convolution22 (in-place)
I0928 19:33:29.629123  5010 layer_factory.hpp:77] Creating layer Scale22
I0928 19:33:29.629199  5010 net.cpp:122] Setting up Scale22
I0928 19:33:29.629202  5010 net.cpp:129] Top shape: 100 32 14 14 (627200)
I0928 19:33:29.629204  5010 net.cpp:137] Memory required for data: 748563600
I0928 19:33:29.629209  5010 layer_factory.hpp:77] Creating layer Eltwise10
I0928 19:33:29.629212  5010 net.cpp:84] Creating Layer Eltwise10
I0928 19:33:29.629215  5010 net.cpp:406] Eltwise10 <- Convolution20
I0928 19:33:29.629217  5010 net.cpp:406] Eltwise10 <- Convolution22
I0928 19:33:29.629221  5010 net.cpp:380] Eltwise10 -> Eltwise10
I0928 19:33:29.629236  5010 net.cpp:122] Setting up Eltwise10
I0928 19:33:29.629240  5010 net.cpp:129] Top shape: 100 32 14 14 (627200)
I0928 19:33:29.629241  5010 net.cpp:137] Memory required for data: 751072400
I0928 19:33:29.629243  5010 layer_factory.hpp:77] Creating layer Eltwise10_Eltwise10_0_split
I0928 19:33:29.629247  5010 net.cpp:84] Creating Layer Eltwise10_Eltwise10_0_split
I0928 19:33:29.629250  5010 net.cpp:406] Eltwise10_Eltwise10_0_split <- Eltwise10
I0928 19:33:29.629252  5010 net.cpp:380] Eltwise10_Eltwise10_0_split -> Eltwise10_Eltwise10_0_split_0
I0928 19:33:29.629256  5010 net.cpp:380] Eltwise10_Eltwise10_0_split -> Eltwise10_Eltwise10_0_split_1
I0928 19:33:29.629278  5010 net.cpp:122] Setting up Eltwise10_Eltwise10_0_split
I0928 19:33:29.629282  5010 net.cpp:129] Top shape: 100 32 14 14 (627200)
I0928 19:33:29.629284  5010 net.cpp:129] Top shape: 100 32 14 14 (627200)
I0928 19:33:29.629287  5010 net.cpp:137] Memory required for data: 756090000
I0928 19:33:29.629288  5010 layer_factory.hpp:77] Creating layer M2PELU21
I0928 19:33:29.629293  5010 net.cpp:84] Creating Layer M2PELU21
I0928 19:33:29.629295  5010 net.cpp:406] M2PELU21 <- Eltwise10_Eltwise10_0_split_0
I0928 19:33:29.629299  5010 net.cpp:380] M2PELU21 -> Elt_penlu10
I0928 19:33:29.629382  5010 net.cpp:122] Setting up M2PELU21
I0928 19:33:29.629386  5010 net.cpp:129] Top shape: 100 32 14 14 (627200)
I0928 19:33:29.629389  5010 net.cpp:137] Memory required for data: 758598800
I0928 19:33:29.629392  5010 layer_factory.hpp:77] Creating layer BatchNorm_penlu21
I0928 19:33:29.629396  5010 net.cpp:84] Creating Layer BatchNorm_penlu21
I0928 19:33:29.629398  5010 net.cpp:406] BatchNorm_penlu21 <- Elt_penlu10
I0928 19:33:29.629401  5010 net.cpp:367] BatchNorm_penlu21 -> Elt_penlu10 (in-place)
I0928 19:33:29.629523  5010 net.cpp:122] Setting up BatchNorm_penlu21
I0928 19:33:29.629528  5010 net.cpp:129] Top shape: 100 32 14 14 (627200)
I0928 19:33:29.629529  5010 net.cpp:137] Memory required for data: 761107600
I0928 19:33:29.629534  5010 layer_factory.hpp:77] Creating layer Scale_penlu21
I0928 19:33:29.629539  5010 net.cpp:84] Creating Layer Scale_penlu21
I0928 19:33:29.629540  5010 net.cpp:406] Scale_penlu21 <- Elt_penlu10
I0928 19:33:29.629544  5010 net.cpp:367] Scale_penlu21 -> Elt_penlu10 (in-place)
I0928 19:33:29.629567  5010 layer_factory.hpp:77] Creating layer Scale_penlu21
I0928 19:33:29.629639  5010 net.cpp:122] Setting up Scale_penlu21
I0928 19:33:29.629643  5010 net.cpp:129] Top shape: 100 32 14 14 (627200)
I0928 19:33:29.629645  5010 net.cpp:137] Memory required for data: 763616400
I0928 19:33:29.629649  5010 layer_factory.hpp:77] Creating layer Convolution23
I0928 19:33:29.629662  5010 net.cpp:84] Creating Layer Convolution23
I0928 19:33:29.629664  5010 net.cpp:406] Convolution23 <- Elt_penlu10
I0928 19:33:29.629668  5010 net.cpp:380] Convolution23 -> Convolution23
I0928 19:33:29.631063  5010 net.cpp:122] Setting up Convolution23
I0928 19:33:29.631073  5010 net.cpp:129] Top shape: 100 32 14 14 (627200)
I0928 19:33:29.631076  5010 net.cpp:137] Memory required for data: 766125200
I0928 19:33:29.631081  5010 layer_factory.hpp:77] Creating layer BatchNorm23
I0928 19:33:29.631085  5010 net.cpp:84] Creating Layer BatchNorm23
I0928 19:33:29.631088  5010 net.cpp:406] BatchNorm23 <- Convolution23
I0928 19:33:29.631094  5010 net.cpp:367] BatchNorm23 -> Convolution23 (in-place)
I0928 19:33:29.631248  5010 net.cpp:122] Setting up BatchNorm23
I0928 19:33:29.631253  5010 net.cpp:129] Top shape: 100 32 14 14 (627200)
I0928 19:33:29.631256  5010 net.cpp:137] Memory required for data: 768634000
I0928 19:33:29.631261  5010 layer_factory.hpp:77] Creating layer Scale23
I0928 19:33:29.631265  5010 net.cpp:84] Creating Layer Scale23
I0928 19:33:29.631268  5010 net.cpp:406] Scale23 <- Convolution23
I0928 19:33:29.631273  5010 net.cpp:367] Scale23 -> Convolution23 (in-place)
I0928 19:33:29.631301  5010 layer_factory.hpp:77] Creating layer Scale23
I0928 19:33:29.631387  5010 net.cpp:122] Setting up Scale23
I0928 19:33:29.631392  5010 net.cpp:129] Top shape: 100 32 14 14 (627200)
I0928 19:33:29.631393  5010 net.cpp:137] Memory required for data: 771142800
I0928 19:33:29.631398  5010 layer_factory.hpp:77] Creating layer M2PELU22
I0928 19:33:29.631403  5010 net.cpp:84] Creating Layer M2PELU22
I0928 19:33:29.631407  5010 net.cpp:406] M2PELU22 <- Convolution23
I0928 19:33:29.631410  5010 net.cpp:380] M2PELU22 -> Conv_penlu23
I0928 19:33:29.631505  5010 net.cpp:122] Setting up M2PELU22
I0928 19:33:29.631510  5010 net.cpp:129] Top shape: 100 32 14 14 (627200)
I0928 19:33:29.631512  5010 net.cpp:137] Memory required for data: 773651600
I0928 19:33:29.631516  5010 layer_factory.hpp:77] Creating layer BatchNorm_penlu22
I0928 19:33:29.631520  5010 net.cpp:84] Creating Layer BatchNorm_penlu22
I0928 19:33:29.631523  5010 net.cpp:406] BatchNorm_penlu22 <- Conv_penlu23
I0928 19:33:29.631527  5010 net.cpp:367] BatchNorm_penlu22 -> Conv_penlu23 (in-place)
I0928 19:33:29.631667  5010 net.cpp:122] Setting up BatchNorm_penlu22
I0928 19:33:29.631671  5010 net.cpp:129] Top shape: 100 32 14 14 (627200)
I0928 19:33:29.631673  5010 net.cpp:137] Memory required for data: 776160400
I0928 19:33:29.631678  5010 layer_factory.hpp:77] Creating layer Scale_penlu22
I0928 19:33:29.631683  5010 net.cpp:84] Creating Layer Scale_penlu22
I0928 19:33:29.631686  5010 net.cpp:406] Scale_penlu22 <- Conv_penlu23
I0928 19:33:29.631690  5010 net.cpp:367] Scale_penlu22 -> Conv_penlu23 (in-place)
I0928 19:33:29.631716  5010 layer_factory.hpp:77] Creating layer Scale_penlu22
I0928 19:33:29.631799  5010 net.cpp:122] Setting up Scale_penlu22
I0928 19:33:29.631803  5010 net.cpp:129] Top shape: 100 32 14 14 (627200)
I0928 19:33:29.631814  5010 net.cpp:137] Memory required for data: 778669200
I0928 19:33:29.631819  5010 layer_factory.hpp:77] Creating layer Convolution24
I0928 19:33:29.631824  5010 net.cpp:84] Creating Layer Convolution24
I0928 19:33:29.631826  5010 net.cpp:406] Convolution24 <- Conv_penlu23
I0928 19:33:29.631831  5010 net.cpp:380] Convolution24 -> Convolution24
I0928 19:33:29.632876  5010 net.cpp:122] Setting up Convolution24
I0928 19:33:29.632884  5010 net.cpp:129] Top shape: 100 32 14 14 (627200)
I0928 19:33:29.632887  5010 net.cpp:137] Memory required for data: 781178000
I0928 19:33:29.632891  5010 layer_factory.hpp:77] Creating layer BatchNorm24
I0928 19:33:29.632896  5010 net.cpp:84] Creating Layer BatchNorm24
I0928 19:33:29.632899  5010 net.cpp:406] BatchNorm24 <- Convolution24
I0928 19:33:29.632903  5010 net.cpp:367] BatchNorm24 -> Convolution24 (in-place)
I0928 19:33:29.633043  5010 net.cpp:122] Setting up BatchNorm24
I0928 19:33:29.633046  5010 net.cpp:129] Top shape: 100 32 14 14 (627200)
I0928 19:33:29.633049  5010 net.cpp:137] Memory required for data: 783686800
I0928 19:33:29.633059  5010 layer_factory.hpp:77] Creating layer Scale24
I0928 19:33:29.633064  5010 net.cpp:84] Creating Layer Scale24
I0928 19:33:29.633066  5010 net.cpp:406] Scale24 <- Convolution24
I0928 19:33:29.633070  5010 net.cpp:367] Scale24 -> Convolution24 (in-place)
I0928 19:33:29.633100  5010 layer_factory.hpp:77] Creating layer Scale24
I0928 19:33:29.633177  5010 net.cpp:122] Setting up Scale24
I0928 19:33:29.633180  5010 net.cpp:129] Top shape: 100 32 14 14 (627200)
I0928 19:33:29.633183  5010 net.cpp:137] Memory required for data: 786195600
I0928 19:33:29.633186  5010 layer_factory.hpp:77] Creating layer Eltwise11
I0928 19:33:29.633191  5010 net.cpp:84] Creating Layer Eltwise11
I0928 19:33:29.633194  5010 net.cpp:406] Eltwise11 <- Eltwise10_Eltwise10_0_split_1
I0928 19:33:29.633198  5010 net.cpp:406] Eltwise11 <- Convolution24
I0928 19:33:29.633200  5010 net.cpp:380] Eltwise11 -> Eltwise11
I0928 19:33:29.633218  5010 net.cpp:122] Setting up Eltwise11
I0928 19:33:29.633220  5010 net.cpp:129] Top shape: 100 32 14 14 (627200)
I0928 19:33:29.633222  5010 net.cpp:137] Memory required for data: 788704400
I0928 19:33:29.633224  5010 layer_factory.hpp:77] Creating layer Eltwise11_Eltwise11_0_split
I0928 19:33:29.633229  5010 net.cpp:84] Creating Layer Eltwise11_Eltwise11_0_split
I0928 19:33:29.633230  5010 net.cpp:406] Eltwise11_Eltwise11_0_split <- Eltwise11
I0928 19:33:29.633234  5010 net.cpp:380] Eltwise11_Eltwise11_0_split -> Eltwise11_Eltwise11_0_split_0
I0928 19:33:29.633237  5010 net.cpp:380] Eltwise11_Eltwise11_0_split -> Eltwise11_Eltwise11_0_split_1
I0928 19:33:29.633260  5010 net.cpp:122] Setting up Eltwise11_Eltwise11_0_split
I0928 19:33:29.633265  5010 net.cpp:129] Top shape: 100 32 14 14 (627200)
I0928 19:33:29.633266  5010 net.cpp:129] Top shape: 100 32 14 14 (627200)
I0928 19:33:29.633268  5010 net.cpp:137] Memory required for data: 793722000
I0928 19:33:29.633270  5010 layer_factory.hpp:77] Creating layer M2PELU23
I0928 19:33:29.633275  5010 net.cpp:84] Creating Layer M2PELU23
I0928 19:33:29.633277  5010 net.cpp:406] M2PELU23 <- Eltwise11_Eltwise11_0_split_0
I0928 19:33:29.633281  5010 net.cpp:380] M2PELU23 -> Elt_penlu11
I0928 19:33:29.633368  5010 net.cpp:122] Setting up M2PELU23
I0928 19:33:29.633373  5010 net.cpp:129] Top shape: 100 32 14 14 (627200)
I0928 19:33:29.633374  5010 net.cpp:137] Memory required for data: 796230800
I0928 19:33:29.633378  5010 layer_factory.hpp:77] Creating layer BatchNorm_penlu23
I0928 19:33:29.633383  5010 net.cpp:84] Creating Layer BatchNorm_penlu23
I0928 19:33:29.633384  5010 net.cpp:406] BatchNorm_penlu23 <- Elt_penlu11
I0928 19:33:29.633388  5010 net.cpp:367] BatchNorm_penlu23 -> Elt_penlu11 (in-place)
I0928 19:33:29.633515  5010 net.cpp:122] Setting up BatchNorm_penlu23
I0928 19:33:29.633519  5010 net.cpp:129] Top shape: 100 32 14 14 (627200)
I0928 19:33:29.633522  5010 net.cpp:137] Memory required for data: 798739600
I0928 19:33:29.633525  5010 layer_factory.hpp:77] Creating layer Scale_penlu23
I0928 19:33:29.633530  5010 net.cpp:84] Creating Layer Scale_penlu23
I0928 19:33:29.633533  5010 net.cpp:406] Scale_penlu23 <- Elt_penlu11
I0928 19:33:29.633536  5010 net.cpp:367] Scale_penlu23 -> Elt_penlu11 (in-place)
I0928 19:33:29.633563  5010 layer_factory.hpp:77] Creating layer Scale_penlu23
I0928 19:33:29.633641  5010 net.cpp:122] Setting up Scale_penlu23
I0928 19:33:29.633644  5010 net.cpp:129] Top shape: 100 32 14 14 (627200)
I0928 19:33:29.633646  5010 net.cpp:137] Memory required for data: 801248400
I0928 19:33:29.633649  5010 layer_factory.hpp:77] Creating layer Convolution25
I0928 19:33:29.633656  5010 net.cpp:84] Creating Layer Convolution25
I0928 19:33:29.633659  5010 net.cpp:406] Convolution25 <- Elt_penlu11
I0928 19:33:29.633663  5010 net.cpp:380] Convolution25 -> Convolution25
I0928 19:33:29.634729  5010 net.cpp:122] Setting up Convolution25
I0928 19:33:29.634738  5010 net.cpp:129] Top shape: 100 32 14 14 (627200)
I0928 19:33:29.634740  5010 net.cpp:137] Memory required for data: 803757200
I0928 19:33:29.634745  5010 layer_factory.hpp:77] Creating layer BatchNorm25
I0928 19:33:29.634757  5010 net.cpp:84] Creating Layer BatchNorm25
I0928 19:33:29.634760  5010 net.cpp:406] BatchNorm25 <- Convolution25
I0928 19:33:29.634765  5010 net.cpp:367] BatchNorm25 -> Convolution25 (in-place)
I0928 19:33:29.634912  5010 net.cpp:122] Setting up BatchNorm25
I0928 19:33:29.634915  5010 net.cpp:129] Top shape: 100 32 14 14 (627200)
I0928 19:33:29.634917  5010 net.cpp:137] Memory required for data: 806266000
I0928 19:33:29.634922  5010 layer_factory.hpp:77] Creating layer Scale25
I0928 19:33:29.634927  5010 net.cpp:84] Creating Layer Scale25
I0928 19:33:29.634929  5010 net.cpp:406] Scale25 <- Convolution25
I0928 19:33:29.634932  5010 net.cpp:367] Scale25 -> Convolution25 (in-place)
I0928 19:33:29.634959  5010 layer_factory.hpp:77] Creating layer Scale25
I0928 19:33:29.635038  5010 net.cpp:122] Setting up Scale25
I0928 19:33:29.635043  5010 net.cpp:129] Top shape: 100 32 14 14 (627200)
I0928 19:33:29.635046  5010 net.cpp:137] Memory required for data: 808774800
I0928 19:33:29.635049  5010 layer_factory.hpp:77] Creating layer M2PELU24
I0928 19:33:29.635054  5010 net.cpp:84] Creating Layer M2PELU24
I0928 19:33:29.635057  5010 net.cpp:406] M2PELU24 <- Convolution25
I0928 19:33:29.635061  5010 net.cpp:380] M2PELU24 -> Conv_penlu25
I0928 19:33:29.635145  5010 net.cpp:122] Setting up M2PELU24
I0928 19:33:29.635150  5010 net.cpp:129] Top shape: 100 32 14 14 (627200)
I0928 19:33:29.635152  5010 net.cpp:137] Memory required for data: 811283600
I0928 19:33:29.635156  5010 layer_factory.hpp:77] Creating layer BatchNorm_penlu24
I0928 19:33:29.635159  5010 net.cpp:84] Creating Layer BatchNorm_penlu24
I0928 19:33:29.635162  5010 net.cpp:406] BatchNorm_penlu24 <- Conv_penlu25
I0928 19:33:29.635165  5010 net.cpp:367] BatchNorm_penlu24 -> Conv_penlu25 (in-place)
I0928 19:33:29.635295  5010 net.cpp:122] Setting up BatchNorm_penlu24
I0928 19:33:29.635299  5010 net.cpp:129] Top shape: 100 32 14 14 (627200)
I0928 19:33:29.635301  5010 net.cpp:137] Memory required for data: 813792400
I0928 19:33:29.635306  5010 layer_factory.hpp:77] Creating layer Scale_penlu24
I0928 19:33:29.635309  5010 net.cpp:84] Creating Layer Scale_penlu24
I0928 19:33:29.635313  5010 net.cpp:406] Scale_penlu24 <- Conv_penlu25
I0928 19:33:29.635314  5010 net.cpp:367] Scale_penlu24 -> Conv_penlu25 (in-place)
I0928 19:33:29.635340  5010 layer_factory.hpp:77] Creating layer Scale_penlu24
I0928 19:33:29.635417  5010 net.cpp:122] Setting up Scale_penlu24
I0928 19:33:29.635421  5010 net.cpp:129] Top shape: 100 32 14 14 (627200)
I0928 19:33:29.635423  5010 net.cpp:137] Memory required for data: 816301200
I0928 19:33:29.635427  5010 layer_factory.hpp:77] Creating layer Convolution26
I0928 19:33:29.635433  5010 net.cpp:84] Creating Layer Convolution26
I0928 19:33:29.635435  5010 net.cpp:406] Convolution26 <- Conv_penlu25
I0928 19:33:29.635439  5010 net.cpp:380] Convolution26 -> Convolution26
I0928 19:33:29.636492  5010 net.cpp:122] Setting up Convolution26
I0928 19:33:29.636500  5010 net.cpp:129] Top shape: 100 32 14 14 (627200)
I0928 19:33:29.636502  5010 net.cpp:137] Memory required for data: 818810000
I0928 19:33:29.636507  5010 layer_factory.hpp:77] Creating layer BatchNorm26
I0928 19:33:29.636512  5010 net.cpp:84] Creating Layer BatchNorm26
I0928 19:33:29.636514  5010 net.cpp:406] BatchNorm26 <- Convolution26
I0928 19:33:29.636518  5010 net.cpp:367] BatchNorm26 -> Convolution26 (in-place)
I0928 19:33:29.636657  5010 net.cpp:122] Setting up BatchNorm26
I0928 19:33:29.636662  5010 net.cpp:129] Top shape: 100 32 14 14 (627200)
I0928 19:33:29.636664  5010 net.cpp:137] Memory required for data: 821318800
I0928 19:33:29.636668  5010 layer_factory.hpp:77] Creating layer Scale26
I0928 19:33:29.636672  5010 net.cpp:84] Creating Layer Scale26
I0928 19:33:29.636675  5010 net.cpp:406] Scale26 <- Convolution26
I0928 19:33:29.636679  5010 net.cpp:367] Scale26 -> Convolution26 (in-place)
I0928 19:33:29.636705  5010 layer_factory.hpp:77] Creating layer Scale26
I0928 19:33:29.636785  5010 net.cpp:122] Setting up Scale26
I0928 19:33:29.636795  5010 net.cpp:129] Top shape: 100 32 14 14 (627200)
I0928 19:33:29.636796  5010 net.cpp:137] Memory required for data: 823827600
I0928 19:33:29.636801  5010 layer_factory.hpp:77] Creating layer Eltwise12
I0928 19:33:29.636804  5010 net.cpp:84] Creating Layer Eltwise12
I0928 19:33:29.636807  5010 net.cpp:406] Eltwise12 <- Eltwise11_Eltwise11_0_split_1
I0928 19:33:29.636811  5010 net.cpp:406] Eltwise12 <- Convolution26
I0928 19:33:29.636816  5010 net.cpp:380] Eltwise12 -> Eltwise12
I0928 19:33:29.636840  5010 net.cpp:122] Setting up Eltwise12
I0928 19:33:29.636844  5010 net.cpp:129] Top shape: 100 32 14 14 (627200)
I0928 19:33:29.636847  5010 net.cpp:137] Memory required for data: 826336400
I0928 19:33:29.636848  5010 layer_factory.hpp:77] Creating layer Eltwise12_Eltwise12_0_split
I0928 19:33:29.636852  5010 net.cpp:84] Creating Layer Eltwise12_Eltwise12_0_split
I0928 19:33:29.636854  5010 net.cpp:406] Eltwise12_Eltwise12_0_split <- Eltwise12
I0928 19:33:29.636857  5010 net.cpp:380] Eltwise12_Eltwise12_0_split -> Eltwise12_Eltwise12_0_split_0
I0928 19:33:29.636862  5010 net.cpp:380] Eltwise12_Eltwise12_0_split -> Eltwise12_Eltwise12_0_split_1
I0928 19:33:29.636883  5010 net.cpp:122] Setting up Eltwise12_Eltwise12_0_split
I0928 19:33:29.636886  5010 net.cpp:129] Top shape: 100 32 14 14 (627200)
I0928 19:33:29.636889  5010 net.cpp:129] Top shape: 100 32 14 14 (627200)
I0928 19:33:29.636891  5010 net.cpp:137] Memory required for data: 831354000
I0928 19:33:29.636893  5010 layer_factory.hpp:77] Creating layer M2PELU25
I0928 19:33:29.636898  5010 net.cpp:84] Creating Layer M2PELU25
I0928 19:33:29.636900  5010 net.cpp:406] M2PELU25 <- Eltwise12_Eltwise12_0_split_0
I0928 19:33:29.636904  5010 net.cpp:380] M2PELU25 -> Elt_penlu12
I0928 19:33:29.636989  5010 net.cpp:122] Setting up M2PELU25
I0928 19:33:29.636993  5010 net.cpp:129] Top shape: 100 32 14 14 (627200)
I0928 19:33:29.636996  5010 net.cpp:137] Memory required for data: 833862800
I0928 19:33:29.636998  5010 layer_factory.hpp:77] Creating layer BatchNorm_penlu25
I0928 19:33:29.637002  5010 net.cpp:84] Creating Layer BatchNorm_penlu25
I0928 19:33:29.637004  5010 net.cpp:406] BatchNorm_penlu25 <- Elt_penlu12
I0928 19:33:29.637007  5010 net.cpp:367] BatchNorm_penlu25 -> Elt_penlu12 (in-place)
I0928 19:33:29.637135  5010 net.cpp:122] Setting up BatchNorm_penlu25
I0928 19:33:29.637138  5010 net.cpp:129] Top shape: 100 32 14 14 (627200)
I0928 19:33:29.637140  5010 net.cpp:137] Memory required for data: 836371600
I0928 19:33:29.637145  5010 layer_factory.hpp:77] Creating layer Scale_penlu25
I0928 19:33:29.637150  5010 net.cpp:84] Creating Layer Scale_penlu25
I0928 19:33:29.637151  5010 net.cpp:406] Scale_penlu25 <- Elt_penlu12
I0928 19:33:29.637154  5010 net.cpp:367] Scale_penlu25 -> Elt_penlu12 (in-place)
I0928 19:33:29.637179  5010 layer_factory.hpp:77] Creating layer Scale_penlu25
I0928 19:33:29.637254  5010 net.cpp:122] Setting up Scale_penlu25
I0928 19:33:29.637259  5010 net.cpp:129] Top shape: 100 32 14 14 (627200)
I0928 19:33:29.637260  5010 net.cpp:137] Memory required for data: 838880400
I0928 19:33:29.637264  5010 layer_factory.hpp:77] Creating layer Convolution27
I0928 19:33:29.637270  5010 net.cpp:84] Creating Layer Convolution27
I0928 19:33:29.637272  5010 net.cpp:406] Convolution27 <- Elt_penlu12
I0928 19:33:29.637276  5010 net.cpp:380] Convolution27 -> Convolution27
I0928 19:33:29.638028  5010 net.cpp:122] Setting up Convolution27
I0928 19:33:29.638036  5010 net.cpp:129] Top shape: 100 32 14 14 (627200)
I0928 19:33:29.638037  5010 net.cpp:137] Memory required for data: 841389200
I0928 19:33:29.638041  5010 layer_factory.hpp:77] Creating layer BatchNorm27
I0928 19:33:29.638046  5010 net.cpp:84] Creating Layer BatchNorm27
I0928 19:33:29.638049  5010 net.cpp:406] BatchNorm27 <- Convolution27
I0928 19:33:29.638053  5010 net.cpp:367] BatchNorm27 -> Convolution27 (in-place)
I0928 19:33:29.638188  5010 net.cpp:122] Setting up BatchNorm27
I0928 19:33:29.638192  5010 net.cpp:129] Top shape: 100 32 14 14 (627200)
I0928 19:33:29.638195  5010 net.cpp:137] Memory required for data: 843898000
I0928 19:33:29.638204  5010 layer_factory.hpp:77] Creating layer Scale27
I0928 19:33:29.638211  5010 net.cpp:84] Creating Layer Scale27
I0928 19:33:29.638212  5010 net.cpp:406] Scale27 <- Convolution27
I0928 19:33:29.638216  5010 net.cpp:367] Scale27 -> Convolution27 (in-place)
I0928 19:33:29.638242  5010 layer_factory.hpp:77] Creating layer Scale27
I0928 19:33:29.638319  5010 net.cpp:122] Setting up Scale27
I0928 19:33:29.638324  5010 net.cpp:129] Top shape: 100 32 14 14 (627200)
I0928 19:33:29.638325  5010 net.cpp:137] Memory required for data: 846406800
I0928 19:33:29.638329  5010 layer_factory.hpp:77] Creating layer M2PELU26
I0928 19:33:29.638334  5010 net.cpp:84] Creating Layer M2PELU26
I0928 19:33:29.638336  5010 net.cpp:406] M2PELU26 <- Convolution27
I0928 19:33:29.638340  5010 net.cpp:380] M2PELU26 -> Conv_penlu27
I0928 19:33:29.638422  5010 net.cpp:122] Setting up M2PELU26
I0928 19:33:29.638427  5010 net.cpp:129] Top shape: 100 32 14 14 (627200)
I0928 19:33:29.638428  5010 net.cpp:137] Memory required for data: 848915600
I0928 19:33:29.638432  5010 layer_factory.hpp:77] Creating layer BatchNorm_penlu26
I0928 19:33:29.638437  5010 net.cpp:84] Creating Layer BatchNorm_penlu26
I0928 19:33:29.638438  5010 net.cpp:406] BatchNorm_penlu26 <- Conv_penlu27
I0928 19:33:29.638442  5010 net.cpp:367] BatchNorm_penlu26 -> Conv_penlu27 (in-place)
I0928 19:33:29.638594  5010 net.cpp:122] Setting up BatchNorm_penlu26
I0928 19:33:29.638599  5010 net.cpp:129] Top shape: 100 32 14 14 (627200)
I0928 19:33:29.638602  5010 net.cpp:137] Memory required for data: 851424400
I0928 19:33:29.638607  5010 layer_factory.hpp:77] Creating layer Scale_penlu26
I0928 19:33:29.638609  5010 net.cpp:84] Creating Layer Scale_penlu26
I0928 19:33:29.638612  5010 net.cpp:406] Scale_penlu26 <- Conv_penlu27
I0928 19:33:29.638614  5010 net.cpp:367] Scale_penlu26 -> Conv_penlu27 (in-place)
I0928 19:33:29.638640  5010 layer_factory.hpp:77] Creating layer Scale_penlu26
I0928 19:33:29.638715  5010 net.cpp:122] Setting up Scale_penlu26
I0928 19:33:29.638720  5010 net.cpp:129] Top shape: 100 32 14 14 (627200)
I0928 19:33:29.638721  5010 net.cpp:137] Memory required for data: 853933200
I0928 19:33:29.638725  5010 layer_factory.hpp:77] Creating layer Convolution28
I0928 19:33:29.638731  5010 net.cpp:84] Creating Layer Convolution28
I0928 19:33:29.638733  5010 net.cpp:406] Convolution28 <- Conv_penlu27
I0928 19:33:29.638737  5010 net.cpp:380] Convolution28 -> Convolution28
I0928 19:33:29.639787  5010 net.cpp:122] Setting up Convolution28
I0928 19:33:29.639796  5010 net.cpp:129] Top shape: 100 32 14 14 (627200)
I0928 19:33:29.639798  5010 net.cpp:137] Memory required for data: 856442000
I0928 19:33:29.639803  5010 layer_factory.hpp:77] Creating layer BatchNorm28
I0928 19:33:29.639808  5010 net.cpp:84] Creating Layer BatchNorm28
I0928 19:33:29.639811  5010 net.cpp:406] BatchNorm28 <- Convolution28
I0928 19:33:29.639816  5010 net.cpp:367] BatchNorm28 -> Convolution28 (in-place)
I0928 19:33:29.639960  5010 net.cpp:122] Setting up BatchNorm28
I0928 19:33:29.639963  5010 net.cpp:129] Top shape: 100 32 14 14 (627200)
I0928 19:33:29.639966  5010 net.cpp:137] Memory required for data: 858950800
I0928 19:33:29.639971  5010 layer_factory.hpp:77] Creating layer Scale28
I0928 19:33:29.639974  5010 net.cpp:84] Creating Layer Scale28
I0928 19:33:29.639976  5010 net.cpp:406] Scale28 <- Convolution28
I0928 19:33:29.639979  5010 net.cpp:367] Scale28 -> Convolution28 (in-place)
I0928 19:33:29.640005  5010 layer_factory.hpp:77] Creating layer Scale28
I0928 19:33:29.640081  5010 net.cpp:122] Setting up Scale28
I0928 19:33:29.640085  5010 net.cpp:129] Top shape: 100 32 14 14 (627200)
I0928 19:33:29.640087  5010 net.cpp:137] Memory required for data: 861459600
I0928 19:33:29.640090  5010 layer_factory.hpp:77] Creating layer Eltwise13
I0928 19:33:29.640094  5010 net.cpp:84] Creating Layer Eltwise13
I0928 19:33:29.640097  5010 net.cpp:406] Eltwise13 <- Eltwise12_Eltwise12_0_split_1
I0928 19:33:29.640100  5010 net.cpp:406] Eltwise13 <- Convolution28
I0928 19:33:29.640110  5010 net.cpp:380] Eltwise13 -> Eltwise13
I0928 19:33:29.640126  5010 net.cpp:122] Setting up Eltwise13
I0928 19:33:29.640130  5010 net.cpp:129] Top shape: 100 32 14 14 (627200)
I0928 19:33:29.640132  5010 net.cpp:137] Memory required for data: 863968400
I0928 19:33:29.640135  5010 layer_factory.hpp:77] Creating layer Eltwise13_Eltwise13_0_split
I0928 19:33:29.640138  5010 net.cpp:84] Creating Layer Eltwise13_Eltwise13_0_split
I0928 19:33:29.640141  5010 net.cpp:406] Eltwise13_Eltwise13_0_split <- Eltwise13
I0928 19:33:29.640143  5010 net.cpp:380] Eltwise13_Eltwise13_0_split -> Eltwise13_Eltwise13_0_split_0
I0928 19:33:29.640147  5010 net.cpp:380] Eltwise13_Eltwise13_0_split -> Eltwise13_Eltwise13_0_split_1
I0928 19:33:29.640169  5010 net.cpp:122] Setting up Eltwise13_Eltwise13_0_split
I0928 19:33:29.640173  5010 net.cpp:129] Top shape: 100 32 14 14 (627200)
I0928 19:33:29.640175  5010 net.cpp:129] Top shape: 100 32 14 14 (627200)
I0928 19:33:29.640177  5010 net.cpp:137] Memory required for data: 868986000
I0928 19:33:29.640179  5010 layer_factory.hpp:77] Creating layer M2PELU27
I0928 19:33:29.640183  5010 net.cpp:84] Creating Layer M2PELU27
I0928 19:33:29.640187  5010 net.cpp:406] M2PELU27 <- Eltwise13_Eltwise13_0_split_0
I0928 19:33:29.640190  5010 net.cpp:380] M2PELU27 -> Elt_penlu13
I0928 19:33:29.640276  5010 net.cpp:122] Setting up M2PELU27
I0928 19:33:29.640280  5010 net.cpp:129] Top shape: 100 32 14 14 (627200)
I0928 19:33:29.640282  5010 net.cpp:137] Memory required for data: 871494800
I0928 19:33:29.640285  5010 layer_factory.hpp:77] Creating layer BatchNorm_penlu27
I0928 19:33:29.640290  5010 net.cpp:84] Creating Layer BatchNorm_penlu27
I0928 19:33:29.640292  5010 net.cpp:406] BatchNorm_penlu27 <- Elt_penlu13
I0928 19:33:29.640295  5010 net.cpp:367] BatchNorm_penlu27 -> Elt_penlu13 (in-place)
I0928 19:33:29.640422  5010 net.cpp:122] Setting up BatchNorm_penlu27
I0928 19:33:29.640425  5010 net.cpp:129] Top shape: 100 32 14 14 (627200)
I0928 19:33:29.640427  5010 net.cpp:137] Memory required for data: 874003600
I0928 19:33:29.640432  5010 layer_factory.hpp:77] Creating layer Scale_penlu27
I0928 19:33:29.640436  5010 net.cpp:84] Creating Layer Scale_penlu27
I0928 19:33:29.640439  5010 net.cpp:406] Scale_penlu27 <- Elt_penlu13
I0928 19:33:29.640441  5010 net.cpp:367] Scale_penlu27 -> Elt_penlu13 (in-place)
I0928 19:33:29.640466  5010 layer_factory.hpp:77] Creating layer Scale_penlu27
I0928 19:33:29.640543  5010 net.cpp:122] Setting up Scale_penlu27
I0928 19:33:29.640547  5010 net.cpp:129] Top shape: 100 32 14 14 (627200)
I0928 19:33:29.640549  5010 net.cpp:137] Memory required for data: 876512400
I0928 19:33:29.640552  5010 layer_factory.hpp:77] Creating layer Convolution29
I0928 19:33:29.640560  5010 net.cpp:84] Creating Layer Convolution29
I0928 19:33:29.640563  5010 net.cpp:406] Convolution29 <- Elt_penlu13
I0928 19:33:29.640566  5010 net.cpp:380] Convolution29 -> Convolution29
I0928 19:33:29.641619  5010 net.cpp:122] Setting up Convolution29
I0928 19:33:29.641628  5010 net.cpp:129] Top shape: 100 32 14 14 (627200)
I0928 19:33:29.641630  5010 net.cpp:137] Memory required for data: 879021200
I0928 19:33:29.641634  5010 layer_factory.hpp:77] Creating layer BatchNorm29
I0928 19:33:29.641639  5010 net.cpp:84] Creating Layer BatchNorm29
I0928 19:33:29.641643  5010 net.cpp:406] BatchNorm29 <- Convolution29
I0928 19:33:29.641646  5010 net.cpp:367] BatchNorm29 -> Convolution29 (in-place)
I0928 19:33:29.641783  5010 net.cpp:122] Setting up BatchNorm29
I0928 19:33:29.641788  5010 net.cpp:129] Top shape: 100 32 14 14 (627200)
I0928 19:33:29.641789  5010 net.cpp:137] Memory required for data: 881530000
I0928 19:33:29.641794  5010 layer_factory.hpp:77] Creating layer Scale29
I0928 19:33:29.641798  5010 net.cpp:84] Creating Layer Scale29
I0928 19:33:29.641800  5010 net.cpp:406] Scale29 <- Convolution29
I0928 19:33:29.641803  5010 net.cpp:367] Scale29 -> Convolution29 (in-place)
I0928 19:33:29.641831  5010 layer_factory.hpp:77] Creating layer Scale29
I0928 19:33:29.641916  5010 net.cpp:122] Setting up Scale29
I0928 19:33:29.641926  5010 net.cpp:129] Top shape: 100 32 14 14 (627200)
I0928 19:33:29.641928  5010 net.cpp:137] Memory required for data: 884038800
I0928 19:33:29.641932  5010 layer_factory.hpp:77] Creating layer M2PELU28
I0928 19:33:29.641937  5010 net.cpp:84] Creating Layer M2PELU28
I0928 19:33:29.641939  5010 net.cpp:406] M2PELU28 <- Convolution29
I0928 19:33:29.641943  5010 net.cpp:380] M2PELU28 -> Conv_penlu29
I0928 19:33:29.642030  5010 net.cpp:122] Setting up M2PELU28
I0928 19:33:29.642035  5010 net.cpp:129] Top shape: 100 32 14 14 (627200)
I0928 19:33:29.642036  5010 net.cpp:137] Memory required for data: 886547600
I0928 19:33:29.642040  5010 layer_factory.hpp:77] Creating layer BatchNorm_penlu28
I0928 19:33:29.642043  5010 net.cpp:84] Creating Layer BatchNorm_penlu28
I0928 19:33:29.642046  5010 net.cpp:406] BatchNorm_penlu28 <- Conv_penlu29
I0928 19:33:29.642050  5010 net.cpp:367] BatchNorm_penlu28 -> Conv_penlu29 (in-place)
I0928 19:33:29.642177  5010 net.cpp:122] Setting up BatchNorm_penlu28
I0928 19:33:29.642181  5010 net.cpp:129] Top shape: 100 32 14 14 (627200)
I0928 19:33:29.642184  5010 net.cpp:137] Memory required for data: 889056400
I0928 19:33:29.642189  5010 layer_factory.hpp:77] Creating layer Scale_penlu28
I0928 19:33:29.642191  5010 net.cpp:84] Creating Layer Scale_penlu28
I0928 19:33:29.642194  5010 net.cpp:406] Scale_penlu28 <- Conv_penlu29
I0928 19:33:29.642197  5010 net.cpp:367] Scale_penlu28 -> Conv_penlu29 (in-place)
I0928 19:33:29.642222  5010 layer_factory.hpp:77] Creating layer Scale_penlu28
I0928 19:33:29.642298  5010 net.cpp:122] Setting up Scale_penlu28
I0928 19:33:29.642302  5010 net.cpp:129] Top shape: 100 32 14 14 (627200)
I0928 19:33:29.642303  5010 net.cpp:137] Memory required for data: 891565200
I0928 19:33:29.642307  5010 layer_factory.hpp:77] Creating layer Convolution30
I0928 19:33:29.642313  5010 net.cpp:84] Creating Layer Convolution30
I0928 19:33:29.642315  5010 net.cpp:406] Convolution30 <- Conv_penlu29
I0928 19:33:29.642320  5010 net.cpp:380] Convolution30 -> Convolution30
I0928 19:33:29.643376  5010 net.cpp:122] Setting up Convolution30
I0928 19:33:29.643385  5010 net.cpp:129] Top shape: 100 32 14 14 (627200)
I0928 19:33:29.643388  5010 net.cpp:137] Memory required for data: 894074000
I0928 19:33:29.643391  5010 layer_factory.hpp:77] Creating layer BatchNorm30
I0928 19:33:29.643398  5010 net.cpp:84] Creating Layer BatchNorm30
I0928 19:33:29.643399  5010 net.cpp:406] BatchNorm30 <- Convolution30
I0928 19:33:29.643404  5010 net.cpp:367] BatchNorm30 -> Convolution30 (in-place)
I0928 19:33:29.643537  5010 net.cpp:122] Setting up BatchNorm30
I0928 19:33:29.643541  5010 net.cpp:129] Top shape: 100 32 14 14 (627200)
I0928 19:33:29.643543  5010 net.cpp:137] Memory required for data: 896582800
I0928 19:33:29.643548  5010 layer_factory.hpp:77] Creating layer Scale30
I0928 19:33:29.643553  5010 net.cpp:84] Creating Layer Scale30
I0928 19:33:29.643554  5010 net.cpp:406] Scale30 <- Convolution30
I0928 19:33:29.643558  5010 net.cpp:367] Scale30 -> Convolution30 (in-place)
I0928 19:33:29.643584  5010 layer_factory.hpp:77] Creating layer Scale30
I0928 19:33:29.643661  5010 net.cpp:122] Setting up Scale30
I0928 19:33:29.643664  5010 net.cpp:129] Top shape: 100 32 14 14 (627200)
I0928 19:33:29.643666  5010 net.cpp:137] Memory required for data: 899091600
I0928 19:33:29.643671  5010 layer_factory.hpp:77] Creating layer Eltwise14
I0928 19:33:29.643674  5010 net.cpp:84] Creating Layer Eltwise14
I0928 19:33:29.643677  5010 net.cpp:406] Eltwise14 <- Eltwise13_Eltwise13_0_split_1
I0928 19:33:29.643681  5010 net.cpp:406] Eltwise14 <- Convolution30
I0928 19:33:29.643683  5010 net.cpp:380] Eltwise14 -> Eltwise14
I0928 19:33:29.643699  5010 net.cpp:122] Setting up Eltwise14
I0928 19:33:29.643703  5010 net.cpp:129] Top shape: 100 32 14 14 (627200)
I0928 19:33:29.643705  5010 net.cpp:137] Memory required for data: 901600400
I0928 19:33:29.643707  5010 layer_factory.hpp:77] Creating layer Eltwise14_Eltwise14_0_split
I0928 19:33:29.643710  5010 net.cpp:84] Creating Layer Eltwise14_Eltwise14_0_split
I0928 19:33:29.643718  5010 net.cpp:406] Eltwise14_Eltwise14_0_split <- Eltwise14
I0928 19:33:29.643723  5010 net.cpp:380] Eltwise14_Eltwise14_0_split -> Eltwise14_Eltwise14_0_split_0
I0928 19:33:29.643728  5010 net.cpp:380] Eltwise14_Eltwise14_0_split -> Eltwise14_Eltwise14_0_split_1
I0928 19:33:29.643750  5010 net.cpp:122] Setting up Eltwise14_Eltwise14_0_split
I0928 19:33:29.643754  5010 net.cpp:129] Top shape: 100 32 14 14 (627200)
I0928 19:33:29.643756  5010 net.cpp:129] Top shape: 100 32 14 14 (627200)
I0928 19:33:29.643759  5010 net.cpp:137] Memory required for data: 906618000
I0928 19:33:29.643760  5010 layer_factory.hpp:77] Creating layer M2PELU29
I0928 19:33:29.643765  5010 net.cpp:84] Creating Layer M2PELU29
I0928 19:33:29.643767  5010 net.cpp:406] M2PELU29 <- Eltwise14_Eltwise14_0_split_0
I0928 19:33:29.643771  5010 net.cpp:380] M2PELU29 -> Elt_penlu14
I0928 19:33:29.643856  5010 net.cpp:122] Setting up M2PELU29
I0928 19:33:29.643859  5010 net.cpp:129] Top shape: 100 32 14 14 (627200)
I0928 19:33:29.643862  5010 net.cpp:137] Memory required for data: 909126800
I0928 19:33:29.643865  5010 layer_factory.hpp:77] Creating layer BatchNorm_penlu29
I0928 19:33:29.643869  5010 net.cpp:84] Creating Layer BatchNorm_penlu29
I0928 19:33:29.643872  5010 net.cpp:406] BatchNorm_penlu29 <- Elt_penlu14
I0928 19:33:29.643874  5010 net.cpp:367] BatchNorm_penlu29 -> Elt_penlu14 (in-place)
I0928 19:33:29.643999  5010 net.cpp:122] Setting up BatchNorm_penlu29
I0928 19:33:29.644002  5010 net.cpp:129] Top shape: 100 32 14 14 (627200)
I0928 19:33:29.644004  5010 net.cpp:137] Memory required for data: 911635600
I0928 19:33:29.644009  5010 layer_factory.hpp:77] Creating layer Scale_penlu29
I0928 19:33:29.644012  5010 net.cpp:84] Creating Layer Scale_penlu29
I0928 19:33:29.644014  5010 net.cpp:406] Scale_penlu29 <- Elt_penlu14
I0928 19:33:29.644017  5010 net.cpp:367] Scale_penlu29 -> Elt_penlu14 (in-place)
I0928 19:33:29.644043  5010 layer_factory.hpp:77] Creating layer Scale_penlu29
I0928 19:33:29.644117  5010 net.cpp:122] Setting up Scale_penlu29
I0928 19:33:29.644121  5010 net.cpp:129] Top shape: 100 32 14 14 (627200)
I0928 19:33:29.644124  5010 net.cpp:137] Memory required for data: 914144400
I0928 19:33:29.644126  5010 layer_factory.hpp:77] Creating layer Convolution31
I0928 19:33:29.644134  5010 net.cpp:84] Creating Layer Convolution31
I0928 19:33:29.644135  5010 net.cpp:406] Convolution31 <- Elt_penlu14
I0928 19:33:29.644140  5010 net.cpp:380] Convolution31 -> Convolution31
I0928 19:33:29.645166  5010 net.cpp:122] Setting up Convolution31
I0928 19:33:29.645175  5010 net.cpp:129] Top shape: 100 32 14 14 (627200)
I0928 19:33:29.645179  5010 net.cpp:137] Memory required for data: 916653200
I0928 19:33:29.645182  5010 layer_factory.hpp:77] Creating layer BatchNorm31
I0928 19:33:29.645187  5010 net.cpp:84] Creating Layer BatchNorm31
I0928 19:33:29.645190  5010 net.cpp:406] BatchNorm31 <- Convolution31
I0928 19:33:29.645193  5010 net.cpp:367] BatchNorm31 -> Convolution31 (in-place)
I0928 19:33:29.645329  5010 net.cpp:122] Setting up BatchNorm31
I0928 19:33:29.645334  5010 net.cpp:129] Top shape: 100 32 14 14 (627200)
I0928 19:33:29.645335  5010 net.cpp:137] Memory required for data: 919162000
I0928 19:33:29.645340  5010 layer_factory.hpp:77] Creating layer Scale31
I0928 19:33:29.645344  5010 net.cpp:84] Creating Layer Scale31
I0928 19:33:29.645346  5010 net.cpp:406] Scale31 <- Convolution31
I0928 19:33:29.645349  5010 net.cpp:367] Scale31 -> Convolution31 (in-place)
I0928 19:33:29.645375  5010 layer_factory.hpp:77] Creating layer Scale31
I0928 19:33:29.645452  5010 net.cpp:122] Setting up Scale31
I0928 19:33:29.645457  5010 net.cpp:129] Top shape: 100 32 14 14 (627200)
I0928 19:33:29.645458  5010 net.cpp:137] Memory required for data: 921670800
I0928 19:33:29.645462  5010 layer_factory.hpp:77] Creating layer M2PELU30
I0928 19:33:29.645467  5010 net.cpp:84] Creating Layer M2PELU30
I0928 19:33:29.645468  5010 net.cpp:406] M2PELU30 <- Convolution31
I0928 19:33:29.645473  5010 net.cpp:380] M2PELU30 -> Conv_penlu31
I0928 19:33:29.645557  5010 net.cpp:122] Setting up M2PELU30
I0928 19:33:29.645567  5010 net.cpp:129] Top shape: 100 32 14 14 (627200)
I0928 19:33:29.645570  5010 net.cpp:137] Memory required for data: 924179600
I0928 19:33:29.645573  5010 layer_factory.hpp:77] Creating layer BatchNorm_penlu30
I0928 19:33:29.645578  5010 net.cpp:84] Creating Layer BatchNorm_penlu30
I0928 19:33:29.645581  5010 net.cpp:406] BatchNorm_penlu30 <- Conv_penlu31
I0928 19:33:29.645586  5010 net.cpp:367] BatchNorm_penlu30 -> Conv_penlu31 (in-place)
I0928 19:33:29.645712  5010 net.cpp:122] Setting up BatchNorm_penlu30
I0928 19:33:29.645716  5010 net.cpp:129] Top shape: 100 32 14 14 (627200)
I0928 19:33:29.645718  5010 net.cpp:137] Memory required for data: 926688400
I0928 19:33:29.651005  5010 layer_factory.hpp:77] Creating layer Scale_penlu30
I0928 19:33:29.651016  5010 net.cpp:84] Creating Layer Scale_penlu30
I0928 19:33:29.651020  5010 net.cpp:406] Scale_penlu30 <- Conv_penlu31
I0928 19:33:29.651023  5010 net.cpp:367] Scale_penlu30 -> Conv_penlu31 (in-place)
I0928 19:33:29.651065  5010 layer_factory.hpp:77] Creating layer Scale_penlu30
I0928 19:33:29.651156  5010 net.cpp:122] Setting up Scale_penlu30
I0928 19:33:29.651161  5010 net.cpp:129] Top shape: 100 32 14 14 (627200)
I0928 19:33:29.651163  5010 net.cpp:137] Memory required for data: 929197200
I0928 19:33:29.651167  5010 layer_factory.hpp:77] Creating layer Convolution32
I0928 19:33:29.651176  5010 net.cpp:84] Creating Layer Convolution32
I0928 19:33:29.651178  5010 net.cpp:406] Convolution32 <- Conv_penlu31
I0928 19:33:29.651183  5010 net.cpp:380] Convolution32 -> Convolution32
I0928 19:33:29.652370  5010 net.cpp:122] Setting up Convolution32
I0928 19:33:29.652390  5010 net.cpp:129] Top shape: 100 32 14 14 (627200)
I0928 19:33:29.652392  5010 net.cpp:137] Memory required for data: 931706000
I0928 19:33:29.652396  5010 layer_factory.hpp:77] Creating layer BatchNorm32
I0928 19:33:29.652402  5010 net.cpp:84] Creating Layer BatchNorm32
I0928 19:33:29.652405  5010 net.cpp:406] BatchNorm32 <- Convolution32
I0928 19:33:29.652410  5010 net.cpp:367] BatchNorm32 -> Convolution32 (in-place)
I0928 19:33:29.652581  5010 net.cpp:122] Setting up BatchNorm32
I0928 19:33:29.652590  5010 net.cpp:129] Top shape: 100 32 14 14 (627200)
I0928 19:33:29.652595  5010 net.cpp:137] Memory required for data: 934214800
I0928 19:33:29.652602  5010 layer_factory.hpp:77] Creating layer Scale32
I0928 19:33:29.652609  5010 net.cpp:84] Creating Layer Scale32
I0928 19:33:29.652613  5010 net.cpp:406] Scale32 <- Convolution32
I0928 19:33:29.652619  5010 net.cpp:367] Scale32 -> Convolution32 (in-place)
I0928 19:33:29.652676  5010 layer_factory.hpp:77] Creating layer Scale32
I0928 19:33:29.652798  5010 net.cpp:122] Setting up Scale32
I0928 19:33:29.652804  5010 net.cpp:129] Top shape: 100 32 14 14 (627200)
I0928 19:33:29.652807  5010 net.cpp:137] Memory required for data: 936723600
I0928 19:33:29.652812  5010 layer_factory.hpp:77] Creating layer Eltwise15
I0928 19:33:29.652817  5010 net.cpp:84] Creating Layer Eltwise15
I0928 19:33:29.652819  5010 net.cpp:406] Eltwise15 <- Eltwise14_Eltwise14_0_split_1
I0928 19:33:29.652822  5010 net.cpp:406] Eltwise15 <- Convolution32
I0928 19:33:29.652825  5010 net.cpp:380] Eltwise15 -> Eltwise15
I0928 19:33:29.652843  5010 net.cpp:122] Setting up Eltwise15
I0928 19:33:29.652848  5010 net.cpp:129] Top shape: 100 32 14 14 (627200)
I0928 19:33:29.652849  5010 net.cpp:137] Memory required for data: 939232400
I0928 19:33:29.652851  5010 layer_factory.hpp:77] Creating layer Eltwise15_Eltwise15_0_split
I0928 19:33:29.652854  5010 net.cpp:84] Creating Layer Eltwise15_Eltwise15_0_split
…
I0928 19:33:30.271114  5010 net.cpp:84] Creating Layer Eltwise21_Eltwise21_0_split
I0928 19:33:30.271117  5010 net.cpp:406] Eltwise21_Eltwise21_0_split <- Eltwise21
I0928 19:33:30.271121  5010 net.cpp:380] Eltwise21_Eltwise21_0_split -> Eltwise21_Eltwise21_0_split_0
I0928 19:33:30.271124  5010 net.cpp:380] Eltwise21_Eltwise21_0_split -> Eltwise21_Eltwise21_0_split_1
I0928 19:33:30.271149  5010 net.cpp:122] Setting up Eltwise21_Eltwise21_0_split
I0928 19:33:30.271153  5010 net.cpp:129] Top shape: 100 64 8 8 (409600)
I0928 19:33:30.271157  5010 net.cpp:129] Top shape: 100 64 8 8 (409600)
I0928 19:33:30.271158  5010 net.cpp:137] Memory required for data: 1464321200
I0928 19:33:30.271160  5010 layer_factory.hpp:77] Creating layer M2PELU43
I0928 19:33:30.271165  5010 net.cpp:84] Creating Layer M2PELU43
I0928 19:33:30.271167  5010 net.cpp:406] M2PELU43 <- Eltwise21_Eltwise21_0_split_0
I0928 19:33:30.271173  5010 net.cpp:380] M2PELU43 -> Elt_penlu21
I0928 19:33:30.271276  5010 net.cpp:122] Setting up M2PELU43
I0928 19:33:30.271281  5010 net.cpp:129] Top shape: 100 64 8 8 (409600)
I0928 19:33:30.271283  5010 net.cpp:137] Memory required for data: 1465959600
I0928 19:33:30.271287  5010 layer_factory.hpp:77] Creating layer BatchNorm_penlu43
I0928 19:33:30.271291  5010 net.cpp:84] Creating Layer BatchNorm_penlu43
I0928 19:33:30.271294  5010 net.cpp:406] BatchNorm_penlu43 <- Elt_penlu21
I0928 19:33:30.271297  5010 net.cpp:367] BatchNorm_penlu43 -> Elt_penlu21 (in-place)
I0928 19:33:30.271440  5010 net.cpp:122] Setting up BatchNorm_penlu43
I0928 19:33:30.271445  5010 net.cpp:129] Top shape: 100 64 8 8 (409600)
I0928 19:33:30.271446  5010 net.cpp:137] Memory required for data: 1467598000
I0928 19:33:30.271451  5010 layer_factory.hpp:77] Creating layer Scale_penlu43
I0928 19:33:30.271456  5010 net.cpp:84] Creating Layer Scale_penlu43
I0928 19:33:30.271458  5010 net.cpp:406] Scale_penlu43 <- Elt_penlu21
I0928 19:33:30.271461  5010 net.cpp:367] Scale_penlu43 -> Elt_penlu21 (in-place)
I0928 19:33:30.271489  5010 layer_factory.hpp:77] Creating layer Scale_penlu43
I0928 19:33:30.271575  5010 net.cpp:122] Setting up Scale_penlu43
I0928 19:33:30.271579  5010 net.cpp:129] Top shape: 100 64 8 8 (409600)
I0928 19:33:30.271581  5010 net.cpp:137] Memory required for data: 1469236400
I0928 19:33:30.271585  5010 layer_factory.hpp:77] Creating layer Convolution46
I0928 19:33:30.271592  5010 net.cpp:84] Creating Layer Convolution46
I0928 19:33:30.271595  5010 net.cpp:406] Convolution46 <- Elt_penlu21
I0928 19:33:30.271600  5010 net.cpp:380] Convolution46 -> Convolution46
I0928 19:33:30.273377  5010 net.cpp:122] Setting up Convolution46
I0928 19:33:30.273386  5010 net.cpp:129] Top shape: 100 64 8 8 (409600)
I0928 19:33:30.273389  5010 net.cpp:137] Memory required for data: 1470874800
I0928 19:33:30.273393  5010 layer_factory.hpp:77] Creating layer BatchNorm46
I0928 19:33:30.273399  5010 net.cpp:84] Creating Layer BatchNorm46
I0928 19:33:30.273409  5010 net.cpp:406] BatchNorm46 <- Convolution46
I0928 19:33:30.273413  5010 net.cpp:367] BatchNorm46 -> Convolution46 (in-place)
I0928 19:33:30.273573  5010 net.cpp:122] Setting up BatchNorm46
I0928 19:33:30.273578  5010 net.cpp:129] Top shape: 100 64 8 8 (409600)
I0928 19:33:30.273581  5010 net.cpp:137] Memory required for data: 1472513200
I0928 19:33:30.273586  5010 layer_factory.hpp:77] Creating layer Scale46
I0928 19:33:30.273589  5010 net.cpp:84] Creating Layer Scale46
I0928 19:33:30.273592  5010 net.cpp:406] Scale46 <- Convolution46
I0928 19:33:30.273596  5010 net.cpp:367] Scale46 -> Convolution46 (in-place)
I0928 19:33:30.273627  5010 layer_factory.hpp:77] Creating layer Scale46
I0928 19:33:30.273713  5010 net.cpp:122] Setting up Scale46
I0928 19:33:30.273718  5010 net.cpp:129] Top shape: 100 64 8 8 (409600)
I0928 19:33:30.273720  5010 net.cpp:137] Memory required for data: 1474151600
I0928 19:33:30.273725  5010 layer_factory.hpp:77] Creating layer M2PELU44
I0928 19:33:30.273730  5010 net.cpp:84] Creating Layer M2PELU44
I0928 19:33:30.273732  5010 net.cpp:406] M2PELU44 <- Convolution46
I0928 19:33:30.273736  5010 net.cpp:380] M2PELU44 -> Conv_penlu46
I0928 19:33:30.273838  5010 net.cpp:122] Setting up M2PELU44
I0928 19:33:30.273844  5010 net.cpp:129] Top shape: 100 64 8 8 (409600)
I0928 19:33:30.273845  5010 net.cpp:137] Memory required for data: 1475790000
I0928 19:33:30.273849  5010 layer_factory.hpp:77] Creating layer BatchNorm_penlu44
I0928 19:33:30.273854  5010 net.cpp:84] Creating Layer BatchNorm_penlu44
I0928 19:33:30.273856  5010 net.cpp:406] BatchNorm_penlu44 <- Conv_penlu46
I0928 19:33:30.273859  5010 net.cpp:367] BatchNorm_penlu44 -> Conv_penlu46 (in-place)
I0928 19:33:30.274004  5010 net.cpp:122] Setting up BatchNorm_penlu44
I0928 19:33:30.274008  5010 net.cpp:129] Top shape: 100 64 8 8 (409600)
I0928 19:33:30.274010  5010 net.cpp:137] Memory required for data: 1477428400
I0928 19:33:30.274015  5010 layer_factory.hpp:77] Creating layer Scale_penlu44
I0928 19:33:30.274019  5010 net.cpp:84] Creating Layer Scale_penlu44
I0928 19:33:30.274021  5010 net.cpp:406] Scale_penlu44 <- Conv_penlu46
I0928 19:33:30.274025  5010 net.cpp:367] Scale_penlu44 -> Conv_penlu46 (in-place)
I0928 19:33:30.274055  5010 layer_factory.hpp:77] Creating layer Scale_penlu44
I0928 19:33:30.274143  5010 net.cpp:122] Setting up Scale_penlu44
I0928 19:33:30.274147  5010 net.cpp:129] Top shape: 100 64 8 8 (409600)
I0928 19:33:30.274149  5010 net.cpp:137] Memory required for data: 1479066800
I0928 19:33:30.274153  5010 layer_factory.hpp:77] Creating layer Convolution47
I0928 19:33:30.274160  5010 net.cpp:84] Creating Layer Convolution47
I0928 19:33:30.274163  5010 net.cpp:406] Convolution47 <- Conv_penlu46
I0928 19:33:30.274168  5010 net.cpp:380] Convolution47 -> Convolution47
I0928 19:33:30.275966  5010 net.cpp:122] Setting up Convolution47
I0928 19:33:30.275975  5010 net.cpp:129] Top shape: 100 64 8 8 (409600)
I0928 19:33:30.275979  5010 net.cpp:137] Memory required for data: 1480705200
I0928 19:33:30.275982  5010 layer_factory.hpp:77] Creating layer BatchNorm47
I0928 19:33:30.275990  5010 net.cpp:84] Creating Layer BatchNorm47
I0928 19:33:30.275992  5010 net.cpp:406] BatchNorm47 <- Convolution47
I0928 19:33:30.275996  5010 net.cpp:367] BatchNorm47 -> Convolution47 (in-place)
I0928 19:33:30.276154  5010 net.cpp:122] Setting up BatchNorm47
I0928 19:33:30.276157  5010 net.cpp:129] Top shape: 100 64 8 8 (409600)
I0928 19:33:30.276160  5010 net.cpp:137] Memory required for data: 1482343600
I0928 19:33:30.276165  5010 layer_factory.hpp:77] Creating layer Scale47
I0928 19:33:30.276170  5010 net.cpp:84] Creating Layer Scale47
I0928 19:33:30.276172  5010 net.cpp:406] Scale47 <- Convolution47
I0928 19:33:30.276175  5010 net.cpp:367] Scale47 -> Convolution47 (in-place)
I0928 19:33:30.276206  5010 layer_factory.hpp:77] Creating layer Scale47
I0928 19:33:30.276295  5010 net.cpp:122] Setting up Scale47
I0928 19:33:30.276299  5010 net.cpp:129] Top shape: 100 64 8 8 (409600)
I0928 19:33:30.276301  5010 net.cpp:137] Memory required for data: 1483982000
I0928 19:33:30.276312  5010 layer_factory.hpp:77] Creating layer Eltwise22
I0928 19:33:30.276319  5010 net.cpp:84] Creating Layer Eltwise22
I0928 19:33:30.276321  5010 net.cpp:406] Eltwise22 <- Eltwise21_Eltwise21_0_split_1
I0928 19:33:30.276324  5010 net.cpp:406] Eltwise22 <- Convolution47
I0928 19:33:30.276329  5010 net.cpp:380] Eltwise22 -> Eltwise22
I0928 19:33:30.276346  5010 net.cpp:122] Setting up Eltwise22
I0928 19:33:30.276350  5010 net.cpp:129] Top shape: 100 64 8 8 (409600)
I0928 19:33:30.276352  5010 net.cpp:137] Memory required for data: 1485620400
I0928 19:33:30.276355  5010 layer_factory.hpp:77] Creating layer Eltwise22_Eltwise22_0_split
I0928 19:33:30.276358  5010 net.cpp:84] Creating Layer Eltwise22_Eltwise22_0_split
I0928 19:33:30.276361  5010 net.cpp:406] Eltwise22_Eltwise22_0_split <- Eltwise22
I0928 19:33:30.276365  5010 net.cpp:380] Eltwise22_Eltwise22_0_split -> Eltwise22_Eltwise22_0_split_0
I0928 19:33:30.276370  5010 net.cpp:380] Eltwise22_Eltwise22_0_split -> Eltwise22_Eltwise22_0_split_1
I0928 19:33:30.276396  5010 net.cpp:122] Setting up Eltwise22_Eltwise22_0_split
I0928 19:33:30.276399  5010 net.cpp:129] Top shape: 100 64 8 8 (409600)
I0928 19:33:30.276402  5010 net.cpp:129] Top shape: 100 64 8 8 (409600)
I0928 19:33:30.276404  5010 net.cpp:137] Memory required for data: 1488897200
I0928 19:33:30.276407  5010 layer_factory.hpp:77] Creating layer M2PELU45
I0928 19:33:30.276412  5010 net.cpp:84] Creating Layer M2PELU45
I0928 19:33:30.276413  5010 net.cpp:406] M2PELU45 <- Eltwise22_Eltwise22_0_split_0
I0928 19:33:30.276417  5010 net.cpp:380] M2PELU45 -> Elt_penlu22
I0928 19:33:30.295435  5010 net.cpp:122] Setting up M2PELU45
I0928 19:33:30.295445  5010 net.cpp:129] Top shape: 100 64 8 8 (409600)
I0928 19:33:30.295447  5010 net.cpp:137] Memory required for data: 1490535600
I0928 19:33:30.295452  5010 layer_factory.hpp:77] Creating layer BatchNorm_penlu45
I0928 19:33:30.295459  5010 net.cpp:84] Creating Layer BatchNorm_penlu45
I0928 19:33:30.295460  5010 net.cpp:406] BatchNorm_penlu45 <- Elt_penlu22
I0928 19:33:30.295465  5010 net.cpp:367] BatchNorm_penlu45 -> Elt_penlu22 (in-place)
I0928 19:33:30.295629  5010 net.cpp:122] Setting up BatchNorm_penlu45
I0928 19:33:30.295634  5010 net.cpp:129] Top shape: 100 64 8 8 (409600)
I0928 19:33:30.295636  5010 net.cpp:137] Memory required for data: 1492174000
I0928 19:33:30.295641  5010 layer_factory.hpp:77] Creating layer Scale_penlu45
I0928 19:33:30.295645  5010 net.cpp:84] Creating Layer Scale_penlu45
I0928 19:33:30.295648  5010 net.cpp:406] Scale_penlu45 <- Elt_penlu22
I0928 19:33:30.295652  5010 net.cpp:367] Scale_penlu45 -> Elt_penlu22 (in-place)
I0928 19:33:30.295684  5010 layer_factory.hpp:77] Creating layer Scale_penlu45
I0928 19:33:30.295778  5010 net.cpp:122] Setting up Scale_penlu45
I0928 19:33:30.295783  5010 net.cpp:129] Top shape: 100 64 8 8 (409600)
I0928 19:33:30.295784  5010 net.cpp:137] Memory required for data: 1493812400
I0928 19:33:30.295789  5010 layer_factory.hpp:77] Creating layer Convolution48
I0928 19:33:30.295795  5010 net.cpp:84] Creating Layer Convolution48
I0928 19:33:30.295799  5010 net.cpp:406] Convolution48 <- Elt_penlu22
I0928 19:33:30.295804  5010 net.cpp:380] Convolution48 -> Convolution48
I0928 19:33:30.298311  5010 net.cpp:122] Setting up Convolution48
I0928 19:33:30.298321  5010 net.cpp:129] Top shape: 100 64 8 8 (409600)
I0928 19:33:30.298323  5010 net.cpp:137] Memory required for data: 1495450800
I0928 19:33:30.298327  5010 layer_factory.hpp:77] Creating layer BatchNorm48
I0928 19:33:30.298333  5010 net.cpp:84] Creating Layer BatchNorm48
I0928 19:33:30.298336  5010 net.cpp:406] BatchNorm48 <- Convolution48
I0928 19:33:30.298341  5010 net.cpp:367] BatchNorm48 -> Convolution48 (in-place)
I0928 19:33:30.298497  5010 net.cpp:122] Setting up BatchNorm48
I0928 19:33:30.298502  5010 net.cpp:129] Top shape: 100 64 8 8 (409600)
I0928 19:33:30.298504  5010 net.cpp:137] Memory required for data: 1497089200
I0928 19:33:30.298509  5010 layer_factory.hpp:77] Creating layer Scale48
I0928 19:33:30.298530  5010 net.cpp:84] Creating Layer Scale48
I0928 19:33:30.298534  5010 net.cpp:406] Scale48 <- Convolution48
I0928 19:33:30.298538  5010 net.cpp:367] Scale48 -> Convolution48 (in-place)
I0928 19:33:30.298571  5010 layer_factory.hpp:77] Creating layer Scale48
I0928 19:33:30.298660  5010 net.cpp:122] Setting up Scale48
I0928 19:33:30.298665  5010 net.cpp:129] Top shape: 100 64 8 8 (409600)
I0928 19:33:30.298666  5010 net.cpp:137] Memory required for data: 1498727600
I0928 19:33:30.298671  5010 layer_factory.hpp:77] Creating layer M2PELU46
I0928 19:33:30.298676  5010 net.cpp:84] Creating Layer M2PELU46
I0928 19:33:30.298679  5010 net.cpp:406] M2PELU46 <- Convolution48
I0928 19:33:30.298683  5010 net.cpp:380] M2PELU46 -> Conv_penlu48
I0928 19:33:30.298789  5010 net.cpp:122] Setting up M2PELU46
I0928 19:33:30.298810  5010 net.cpp:129] Top shape: 100 64 8 8 (409600)
I0928 19:33:30.298811  5010 net.cpp:137] Memory required for data: 1500366000
I0928 19:33:30.298815  5010 layer_factory.hpp:77] Creating layer BatchNorm_penlu46
I0928 19:33:30.298820  5010 net.cpp:84] Creating Layer BatchNorm_penlu46
I0928 19:33:30.298822  5010 net.cpp:406] BatchNorm_penlu46 <- Conv_penlu48
I0928 19:33:30.298826  5010 net.cpp:367] BatchNorm_penlu46 -> Conv_penlu48 (in-place)
I0928 19:33:30.298984  5010 net.cpp:122] Setting up BatchNorm_penlu46
I0928 19:33:30.298988  5010 net.cpp:129] Top shape: 100 64 8 8 (409600)
I0928 19:33:30.298990  5010 net.cpp:137] Memory required for data: 1502004400
I0928 19:33:30.298995  5010 layer_factory.hpp:77] Creating layer Scale_penlu46
I0928 19:33:30.298998  5010 net.cpp:84] Creating Layer Scale_penlu46
I0928 19:33:30.299001  5010 net.cpp:406] Scale_penlu46 <- Conv_penlu48
I0928 19:33:30.299005  5010 net.cpp:367] Scale_penlu46 -> Conv_penlu48 (in-place)
I0928 19:33:30.299033  5010 layer_factory.hpp:77] Creating layer Scale_penlu46
I0928 19:33:30.299119  5010 net.cpp:122] Setting up Scale_penlu46
I0928 19:33:30.299124  5010 net.cpp:129] Top shape: 100 64 8 8 (409600)
I0928 19:33:30.299125  5010 net.cpp:137] Memory required for data: 1503642800
I0928 19:33:30.299129  5010 layer_factory.hpp:77] Creating layer Convolution49
I0928 19:33:30.299136  5010 net.cpp:84] Creating Layer Convolution49
I0928 19:33:30.299139  5010 net.cpp:406] Convolution49 <- Conv_penlu48
I0928 19:33:30.299144  5010 net.cpp:380] Convolution49 -> Convolution49
I0928 19:33:30.301272  5010 net.cpp:122] Setting up Convolution49
I0928 19:33:30.301281  5010 net.cpp:129] Top shape: 100 64 8 8 (409600)
I0928 19:33:30.301283  5010 net.cpp:137] Memory required for data: 1505281200
I0928 19:33:30.301288  5010 layer_factory.hpp:77] Creating layer BatchNorm49
I0928 19:33:30.301293  5010 net.cpp:84] Creating Layer BatchNorm49
I0928 19:33:30.301296  5010 net.cpp:406] BatchNorm49 <- Convolution49
I0928 19:33:30.301301  5010 net.cpp:367] BatchNorm49 -> Convolution49 (in-place)
I0928 19:33:30.301457  5010 net.cpp:122] Setting up BatchNorm49
I0928 19:33:30.301461  5010 net.cpp:129] Top shape: 100 64 8 8 (409600)
I0928 19:33:30.301463  5010 net.cpp:137] Memory required for data: 1506919600
I0928 19:33:30.301468  5010 layer_factory.hpp:77] Creating layer Scale49
I0928 19:33:30.301473  5010 net.cpp:84] Creating Layer Scale49
I0928 19:33:30.301476  5010 net.cpp:406] Scale49 <- Convolution49
I0928 19:33:30.301478  5010 net.cpp:367] Scale49 -> Convolution49 (in-place)
I0928 19:33:30.301511  5010 layer_factory.hpp:77] Creating layer Scale49
I0928 19:33:30.301597  5010 net.cpp:122] Setting up Scale49
I0928 19:33:30.301601  5010 net.cpp:129] Top shape: 100 64 8 8 (409600)
I0928 19:33:30.301604  5010 net.cpp:137] Memory required for data: 1508558000
I0928 19:33:30.301607  5010 layer_factory.hpp:77] Creating layer Eltwise23
I0928 19:33:30.301612  5010 net.cpp:84] Creating Layer Eltwise23
I0928 19:33:30.301615  5010 net.cpp:406] Eltwise23 <- Eltwise22_Eltwise22_0_split_1
I0928 19:33:30.301618  5010 net.cpp:406] Eltwise23 <- Convolution49
I0928 19:33:30.301622  5010 net.cpp:380] Eltwise23 -> Eltwise23
I0928 19:33:30.301640  5010 net.cpp:122] Setting up Eltwise23
I0928 19:33:30.301651  5010 net.cpp:129] Top shape: 100 64 8 8 (409600)
I0928 19:33:30.301654  5010 net.cpp:137] Memory required for data: 1510196400
I0928 19:33:30.301656  5010 layer_factory.hpp:77] Creating layer Eltwise23_Eltwise23_0_split
I0928 19:33:30.301661  5010 net.cpp:84] Creating Layer Eltwise23_Eltwise23_0_split
I0928 19:33:30.301662  5010 net.cpp:406] Eltwise23_Eltwise23_0_split <- Eltwise23
I0928 19:33:30.301666  5010 net.cpp:380] Eltwise23_Eltwise23_0_split -> Eltwise23_Eltwise23_0_split_0
I0928 19:33:30.301671  5010 net.cpp:380] Eltwise23_Eltwise23_0_split -> Eltwise23_Eltwise23_0_split_1
I0928 19:33:30.301698  5010 net.cpp:122] Setting up Eltwise23_Eltwise23_0_split
I0928 19:33:30.301702  5010 net.cpp:129] Top shape: 100 64 8 8 (409600)
I0928 19:33:30.301705  5010 net.cpp:129] Top shape: 100 64 8 8 (409600)
I0928 19:33:30.301707  5010 net.cpp:137] Memory required for data: 1513473200
I0928 19:33:30.301709  5010 layer_factory.hpp:77] Creating layer M2PELU47
I0928 19:33:30.301713  5010 net.cpp:84] Creating Layer M2PELU47
I0928 19:33:30.301717  5010 net.cpp:406] M2PELU47 <- Eltwise23_Eltwise23_0_split_0
I0928 19:33:30.301720  5010 net.cpp:380] M2PELU47 -> Elt_penlu23
I0928 19:33:30.301827  5010 net.cpp:122] Setting up M2PELU47
I0928 19:33:30.301831  5010 net.cpp:129] Top shape: 100 64 8 8 (409600)
I0928 19:33:30.301833  5010 net.cpp:137] Memory required for data: 1515111600
I0928 19:33:30.301837  5010 layer_factory.hpp:77] Creating layer BatchNorm_penlu47
I0928 19:33:30.301842  5010 net.cpp:84] Creating Layer BatchNorm_penlu47
I0928 19:33:30.301844  5010 net.cpp:406] BatchNorm_penlu47 <- Elt_penlu23
I0928 19:33:30.301848  5010 net.cpp:367] BatchNorm_penlu47 -> Elt_penlu23 (in-place)
I0928 19:33:30.301995  5010 net.cpp:122] Setting up BatchNorm_penlu47
I0928 19:33:30.302000  5010 net.cpp:129] Top shape: 100 64 8 8 (409600)
I0928 19:33:30.302001  5010 net.cpp:137] Memory required for data: 1516750000
I0928 19:33:30.302006  5010 layer_factory.hpp:77] Creating layer Scale_penlu47
I0928 19:33:30.302011  5010 net.cpp:84] Creating Layer Scale_penlu47
I0928 19:33:30.302013  5010 net.cpp:406] Scale_penlu47 <- Elt_penlu23
I0928 19:33:30.302016  5010 net.cpp:367] Scale_penlu47 -> Elt_penlu23 (in-place)
I0928 19:33:30.302044  5010 layer_factory.hpp:77] Creating layer Scale_penlu47
I0928 19:33:30.302130  5010 net.cpp:122] Setting up Scale_penlu47
I0928 19:33:30.302134  5010 net.cpp:129] Top shape: 100 64 8 8 (409600)
I0928 19:33:30.302136  5010 net.cpp:137] Memory required for data: 1518388400
I0928 19:33:30.302140  5010 layer_factory.hpp:77] Creating layer Convolution50
I0928 19:33:30.302147  5010 net.cpp:84] Creating Layer Convolution50
I0928 19:33:30.302150  5010 net.cpp:406] Convolution50 <- Elt_penlu23
I0928 19:33:30.302155  5010 net.cpp:380] Convolution50 -> Convolution50
I0928 19:33:30.304785  5010 net.cpp:122] Setting up Convolution50
I0928 19:33:30.304795  5010 net.cpp:129] Top shape: 100 64 8 8 (409600)
I0928 19:33:30.304796  5010 net.cpp:137] Memory required for data: 1520026800
I0928 19:33:30.304802  5010 layer_factory.hpp:77] Creating layer BatchNorm50
I0928 19:33:30.304807  5010 net.cpp:84] Creating Layer BatchNorm50
I0928 19:33:30.304811  5010 net.cpp:406] BatchNorm50 <- Convolution50
I0928 19:33:30.304814  5010 net.cpp:367] BatchNorm50 -> Convolution50 (in-place)
I0928 19:33:30.304978  5010 net.cpp:122] Setting up BatchNorm50
I0928 19:33:30.304983  5010 net.cpp:129] Top shape: 100 64 8 8 (409600)
I0928 19:33:30.304986  5010 net.cpp:137] Memory required for data: 1521665200
I0928 19:33:30.304991  5010 layer_factory.hpp:77] Creating layer Scale50
I0928 19:33:30.304994  5010 net.cpp:84] Creating Layer Scale50
I0928 19:33:30.304996  5010 net.cpp:406] Scale50 <- Convolution50
I0928 19:33:30.305001  5010 net.cpp:367] Scale50 -> Convolution50 (in-place)
I0928 19:33:30.305032  5010 layer_factory.hpp:77] Creating layer Scale50
I0928 19:33:30.305120  5010 net.cpp:122] Setting up Scale50
I0928 19:33:30.305125  5010 net.cpp:129] Top shape: 100 64 8 8 (409600)
I0928 19:33:30.305127  5010 net.cpp:137] Memory required for data: 1523303600
I0928 19:33:30.305138  5010 layer_factory.hpp:77] Creating layer M2PELU48
I0928 19:33:30.305145  5010 net.cpp:84] Creating Layer M2PELU48
I0928 19:33:30.305146  5010 net.cpp:406] M2PELU48 <- Convolution50
I0928 19:33:30.305150  5010 net.cpp:380] M2PELU48 -> Conv_penlu50
I0928 19:33:30.305254  5010 net.cpp:122] Setting up M2PELU48
I0928 19:33:30.305259  5010 net.cpp:129] Top shape: 100 64 8 8 (409600)
I0928 19:33:30.305261  5010 net.cpp:137] Memory required for data: 1524942000
I0928 19:33:30.305264  5010 layer_factory.hpp:77] Creating layer BatchNorm_penlu48
I0928 19:33:30.305269  5010 net.cpp:84] Creating Layer BatchNorm_penlu48
I0928 19:33:30.305271  5010 net.cpp:406] BatchNorm_penlu48 <- Conv_penlu50
I0928 19:33:30.305275  5010 net.cpp:367] BatchNorm_penlu48 -> Conv_penlu50 (in-place)
I0928 19:33:30.305426  5010 net.cpp:122] Setting up BatchNorm_penlu48
I0928 19:33:30.305431  5010 net.cpp:129] Top shape: 100 64 8 8 (409600)
I0928 19:33:30.305433  5010 net.cpp:137] Memory required for data: 1526580400
I0928 19:33:30.305438  5010 layer_factory.hpp:77] Creating layer Scale_penlu48
I0928 19:33:30.305441  5010 net.cpp:84] Creating Layer Scale_penlu48
I0928 19:33:30.305444  5010 net.cpp:406] Scale_penlu48 <- Conv_penlu50
I0928 19:33:30.305449  5010 net.cpp:367] Scale_penlu48 -> Conv_penlu50 (in-place)
I0928 19:33:30.305476  5010 layer_factory.hpp:77] Creating layer Scale_penlu48
I0928 19:33:30.305564  5010 net.cpp:122] Setting up Scale_penlu48
I0928 19:33:30.305568  5010 net.cpp:129] Top shape: 100 64 8 8 (409600)
I0928 19:33:30.305570  5010 net.cpp:137] Memory required for data: 1528218800
I0928 19:33:30.305574  5010 layer_factory.hpp:77] Creating layer Convolution51
I0928 19:33:30.305580  5010 net.cpp:84] Creating Layer Convolution51
I0928 19:33:30.305583  5010 net.cpp:406] Convolution51 <- Conv_penlu50
I0928 19:33:30.305588  5010 net.cpp:380] Convolution51 -> Convolution51
I0928 19:33:30.307360  5010 net.cpp:122] Setting up Convolution51
I0928 19:33:30.307369  5010 net.cpp:129] Top shape: 100 64 8 8 (409600)
I0928 19:33:30.307373  5010 net.cpp:137] Memory required for data: 1529857200
I0928 19:33:30.307376  5010 layer_factory.hpp:77] Creating layer BatchNorm51
I0928 19:33:30.307382  5010 net.cpp:84] Creating Layer BatchNorm51
I0928 19:33:30.307385  5010 net.cpp:406] BatchNorm51 <- Convolution51
I0928 19:33:30.307389  5010 net.cpp:367] BatchNorm51 -> Convolution51 (in-place)
I0928 19:33:30.307545  5010 net.cpp:122] Setting up BatchNorm51
I0928 19:33:30.307549  5010 net.cpp:129] Top shape: 100 64 8 8 (409600)
I0928 19:33:30.307552  5010 net.cpp:137] Memory required for data: 1531495600
I0928 19:33:30.307556  5010 layer_factory.hpp:77] Creating layer Scale51
I0928 19:33:30.307561  5010 net.cpp:84] Creating Layer Scale51
I0928 19:33:30.307564  5010 net.cpp:406] Scale51 <- Convolution51
I0928 19:33:30.307567  5010 net.cpp:367] Scale51 -> Convolution51 (in-place)
I0928 19:33:30.307597  5010 layer_factory.hpp:77] Creating layer Scale51
I0928 19:33:30.307685  5010 net.cpp:122] Setting up Scale51
I0928 19:33:30.307689  5010 net.cpp:129] Top shape: 100 64 8 8 (409600)
I0928 19:33:30.307692  5010 net.cpp:137] Memory required for data: 1533134000
I0928 19:33:30.307695  5010 layer_factory.hpp:77] Creating layer Eltwise24
I0928 19:33:30.307700  5010 net.cpp:84] Creating Layer Eltwise24
I0928 19:33:30.307703  5010 net.cpp:406] Eltwise24 <- Eltwise23_Eltwise23_0_split_1
I0928 19:33:30.307706  5010 net.cpp:406] Eltwise24 <- Convolution51
I0928 19:33:30.307709  5010 net.cpp:380] Eltwise24 -> Eltwise24
I0928 19:33:30.307729  5010 net.cpp:122] Setting up Eltwise24
I0928 19:33:30.307732  5010 net.cpp:129] Top shape: 100 64 8 8 (409600)
I0928 19:33:30.307734  5010 net.cpp:137] Memory required for data: 1534772400
I0928 19:33:30.307736  5010 layer_factory.hpp:77] Creating layer Eltwise24_Eltwise24_0_split
I0928 19:33:30.307739  5010 net.cpp:84] Creating Layer Eltwise24_Eltwise24_0_split
I0928 19:33:30.307742  5010 net.cpp:406] Eltwise24_Eltwise24_0_split <- Eltwise24
I0928 19:33:30.307746  5010 net.cpp:380] Eltwise24_Eltwise24_0_split -> Eltwise24_Eltwise24_0_split_0
I0928 19:33:30.307757  5010 net.cpp:380] Eltwise24_Eltwise24_0_split -> Eltwise24_Eltwise24_0_split_1
I0928 19:33:30.307785  5010 net.cpp:122] Setting up Eltwise24_Eltwise24_0_split
I0928 19:33:30.307788  5010 net.cpp:129] Top shape: 100 64 8 8 (409600)
I0928 19:33:30.307791  5010 net.cpp:129] Top shape: 100 64 8 8 (409600)
I0928 19:33:30.307793  5010 net.cpp:137] Memory required for data: 1538049200
I0928 19:33:30.307796  5010 layer_factory.hpp:77] Creating layer M2PELU49
I0928 19:33:30.307801  5010 net.cpp:84] Creating Layer M2PELU49
I0928 19:33:30.307803  5010 net.cpp:406] M2PELU49 <- Eltwise24_Eltwise24_0_split_0
I0928 19:33:30.307806  5010 net.cpp:380] M2PELU49 -> Elt_penlu24
I0928 19:33:30.307910  5010 net.cpp:122] Setting up M2PELU49
I0928 19:33:30.307914  5010 net.cpp:129] Top shape: 100 64 8 8 (409600)
I0928 19:33:30.307916  5010 net.cpp:137] Memory required for data: 1539687600
I0928 19:33:30.307920  5010 layer_factory.hpp:77] Creating layer BatchNorm_penlu49
I0928 19:33:30.307924  5010 net.cpp:84] Creating Layer BatchNorm_penlu49
I0928 19:33:30.307926  5010 net.cpp:406] BatchNorm_penlu49 <- Elt_penlu24
I0928 19:33:30.307929  5010 net.cpp:367] BatchNorm_penlu49 -> Elt_penlu24 (in-place)
I0928 19:33:30.308078  5010 net.cpp:122] Setting up BatchNorm_penlu49
I0928 19:33:30.308081  5010 net.cpp:129] Top shape: 100 64 8 8 (409600)
I0928 19:33:30.308084  5010 net.cpp:137] Memory required for data: 1541326000
I0928 19:33:30.308089  5010 layer_factory.hpp:77] Creating layer Scale_penlu49
I0928 19:33:30.325958  5010 net.cpp:84] Creating Layer Scale_penlu49
I0928 19:33:30.325965  5010 net.cpp:406] Scale_penlu49 <- Elt_penlu24
I0928 19:33:30.325970  5010 net.cpp:367] Scale_penlu49 -> Elt_penlu24 (in-place)
I0928 19:33:30.326019  5010 layer_factory.hpp:77] Creating layer Scale_penlu49
I0928 19:33:30.326120  5010 net.cpp:122] Setting up Scale_penlu49
I0928 19:33:30.326126  5010 net.cpp:129] Top shape: 100 64 8 8 (409600)
I0928 19:33:30.326128  5010 net.cpp:137] Memory required for data: 1542964400
I0928 19:33:30.326133  5010 layer_factory.hpp:77] Creating layer Convolution52
I0928 19:33:30.326140  5010 net.cpp:84] Creating Layer Convolution52
I0928 19:33:30.326143  5010 net.cpp:406] Convolution52 <- Elt_penlu24
I0928 19:33:30.326148  5010 net.cpp:380] Convolution52 -> Convolution52
I0928 19:33:30.328804  5010 net.cpp:122] Setting up Convolution52
I0928 19:33:30.328814  5010 net.cpp:129] Top shape: 100 64 8 8 (409600)
I0928 19:33:30.328816  5010 net.cpp:137] Memory required for data: 1544602800
I0928 19:33:30.328821  5010 layer_factory.hpp:77] Creating layer BatchNorm52
I0928 19:33:30.328826  5010 net.cpp:84] Creating Layer BatchNorm52
I0928 19:33:30.328830  5010 net.cpp:406] BatchNorm52 <- Convolution52
I0928 19:33:30.328833  5010 net.cpp:367] BatchNorm52 -> Convolution52 (in-place)
I0928 19:33:30.329656  5010 net.cpp:122] Setting up BatchNorm52
I0928 19:33:30.329666  5010 net.cpp:129] Top shape: 100 64 8 8 (409600)
I0928 19:33:30.329669  5010 net.cpp:137] Memory required for data: 1546241200
I0928 19:33:30.329675  5010 layer_factory.hpp:77] Creating layer Scale52
I0928 19:33:30.329679  5010 net.cpp:84] Creating Layer Scale52
I0928 19:33:30.329684  5010 net.cpp:406] Scale52 <- Convolution52
I0928 19:33:30.329687  5010 net.cpp:367] Scale52 -> Convolution52 (in-place)
I0928 19:33:30.329718  5010 layer_factory.hpp:77] Creating layer Scale52
I0928 19:33:30.329799  5010 net.cpp:122] Setting up Scale52
I0928 19:33:30.329804  5010 net.cpp:129] Top shape: 100 64 8 8 (409600)
I0928 19:33:30.329807  5010 net.cpp:137] Memory required for data: 1547879600
I0928 19:33:30.329810  5010 layer_factory.hpp:77] Creating layer M2PELU50
I0928 19:33:30.329815  5010 net.cpp:84] Creating Layer M2PELU50
I0928 19:33:30.329818  5010 net.cpp:406] M2PELU50 <- Convolution52
I0928 19:33:30.329823  5010 net.cpp:380] M2PELU50 -> Conv_penlu52
I0928 19:33:30.329917  5010 net.cpp:122] Setting up M2PELU50
I0928 19:33:30.329922  5010 net.cpp:129] Top shape: 100 64 8 8 (409600)
I0928 19:33:30.329924  5010 net.cpp:137] Memory required for data: 1549518000
I0928 19:33:30.329936  5010 layer_factory.hpp:77] Creating layer BatchNorm_penlu50
I0928 19:33:30.329942  5010 net.cpp:84] Creating Layer BatchNorm_penlu50
I0928 19:33:30.329944  5010 net.cpp:406] BatchNorm_penlu50 <- Conv_penlu52
I0928 19:33:30.329948  5010 net.cpp:367] BatchNorm_penlu50 -> Conv_penlu52 (in-place)
I0928 19:33:30.330083  5010 net.cpp:122] Setting up BatchNorm_penlu50
I0928 19:33:30.330088  5010 net.cpp:129] Top shape: 100 64 8 8 (409600)
I0928 19:33:30.330090  5010 net.cpp:137] Memory required for data: 1551156400
I0928 19:33:30.330096  5010 layer_factory.hpp:77] Creating layer Scale_penlu50
I0928 19:33:30.330099  5010 net.cpp:84] Creating Layer Scale_penlu50
I0928 19:33:30.330101  5010 net.cpp:406] Scale_penlu50 <- Conv_penlu52
I0928 19:33:30.330106  5010 net.cpp:367] Scale_penlu50 -> Conv_penlu52 (in-place)
I0928 19:33:30.330132  5010 layer_factory.hpp:77] Creating layer Scale_penlu50
I0928 19:33:30.330207  5010 net.cpp:122] Setting up Scale_penlu50
I0928 19:33:30.330211  5010 net.cpp:129] Top shape: 100 64 8 8 (409600)
I0928 19:33:30.330214  5010 net.cpp:137] Memory required for data: 1552794800
I0928 19:33:30.330217  5010 layer_factory.hpp:77] Creating layer Convolution53
I0928 19:33:30.330224  5010 net.cpp:84] Creating Layer Convolution53
I0928 19:33:30.330226  5010 net.cpp:406] Convolution53 <- Conv_penlu52
I0928 19:33:30.330231  5010 net.cpp:380] Convolution53 -> Convolution53
I0928 19:33:30.332005  5010 net.cpp:122] Setting up Convolution53
I0928 19:33:30.332015  5010 net.cpp:129] Top shape: 100 64 8 8 (409600)
I0928 19:33:30.332017  5010 net.cpp:137] Memory required for data: 1554433200
I0928 19:33:30.332022  5010 layer_factory.hpp:77] Creating layer BatchNorm53
I0928 19:33:30.332027  5010 net.cpp:84] Creating Layer BatchNorm53
I0928 19:33:30.332031  5010 net.cpp:406] BatchNorm53 <- Convolution53
I0928 19:33:30.332034  5010 net.cpp:367] BatchNorm53 -> Convolution53 (in-place)
I0928 19:33:30.332171  5010 net.cpp:122] Setting up BatchNorm53
I0928 19:33:30.332176  5010 net.cpp:129] Top shape: 100 64 8 8 (409600)
I0928 19:33:30.332178  5010 net.cpp:137] Memory required for data: 1556071600
I0928 19:33:30.332183  5010 layer_factory.hpp:77] Creating layer Scale53
I0928 19:33:30.332186  5010 net.cpp:84] Creating Layer Scale53
I0928 19:33:30.332190  5010 net.cpp:406] Scale53 <- Convolution53
I0928 19:33:30.332192  5010 net.cpp:367] Scale53 -> Convolution53 (in-place)
I0928 19:33:30.332221  5010 layer_factory.hpp:77] Creating layer Scale53
I0928 19:33:30.332299  5010 net.cpp:122] Setting up Scale53
I0928 19:33:30.332304  5010 net.cpp:129] Top shape: 100 64 8 8 (409600)
I0928 19:33:30.332305  5010 net.cpp:137] Memory required for data: 1557710000
I0928 19:33:30.332309  5010 layer_factory.hpp:77] Creating layer Eltwise25
I0928 19:33:30.332315  5010 net.cpp:84] Creating Layer Eltwise25
I0928 19:33:30.332319  5010 net.cpp:406] Eltwise25 <- Eltwise24_Eltwise24_0_split_1
I0928 19:33:30.332321  5010 net.cpp:406] Eltwise25 <- Convolution53
I0928 19:33:30.332325  5010 net.cpp:380] Eltwise25 -> Eltwise25
I0928 19:33:30.332341  5010 net.cpp:122] Setting up Eltwise25
I0928 19:33:30.332345  5010 net.cpp:129] Top shape: 100 64 8 8 (409600)
I0928 19:33:30.332347  5010 net.cpp:137] Memory required for data: 1559348400
I0928 19:33:30.332350  5010 layer_factory.hpp:77] Creating layer Eltwise25_Eltwise25_0_split
I0928 19:33:30.332353  5010 net.cpp:84] Creating Layer Eltwise25_Eltwise25_0_split
I0928 19:33:30.332355  5010 net.cpp:406] Eltwise25_Eltwise25_0_split <- Eltwise25
I0928 19:33:30.332358  5010 net.cpp:380] Eltwise25_Eltwise25_0_split -> Eltwise25_Eltwise25_0_split_0
I0928 19:33:30.332362  5010 net.cpp:380] Eltwise25_Eltwise25_0_split -> Eltwise25_Eltwise25_0_split_1
I0928 19:33:30.332386  5010 net.cpp:122] Setting up Eltwise25_Eltwise25_0_split
I0928 19:33:30.332388  5010 net.cpp:129] Top shape: 100 64 8 8 (409600)
I0928 19:33:30.332391  5010 net.cpp:129] Top shape: 100 64 8 8 (409600)
I0928 19:33:30.332393  5010 net.cpp:137] Memory required for data: 1562625200
I0928 19:33:30.332402  5010 layer_factory.hpp:77] Creating layer M2PELU51
I0928 19:33:30.332407  5010 net.cpp:84] Creating Layer M2PELU51
I0928 19:33:30.332409  5010 net.cpp:406] M2PELU51 <- Eltwise25_Eltwise25_0_split_0
I0928 19:33:30.332414  5010 net.cpp:380] M2PELU51 -> Elt_penlu25
I0928 19:33:30.332512  5010 net.cpp:122] Setting up M2PELU51
I0928 19:33:30.332517  5010 net.cpp:129] Top shape: 100 64 8 8 (409600)
I0928 19:33:30.332520  5010 net.cpp:137] Memory required for data: 1564263600
I0928 19:33:30.332523  5010 layer_factory.hpp:77] Creating layer BatchNorm_penlu51
I0928 19:33:30.332527  5010 net.cpp:84] Creating Layer BatchNorm_penlu51
I0928 19:33:30.332530  5010 net.cpp:406] BatchNorm_penlu51 <- Elt_penlu25
I0928 19:33:30.332533  5010 net.cpp:367] BatchNorm_penlu51 -> Elt_penlu25 (in-place)
I0928 19:33:30.332664  5010 net.cpp:122] Setting up BatchNorm_penlu51
I0928 19:33:30.332669  5010 net.cpp:129] Top shape: 100 64 8 8 (409600)
I0928 19:33:30.332670  5010 net.cpp:137] Memory required for data: 1565902000
I0928 19:33:30.332675  5010 layer_factory.hpp:77] Creating layer Scale_penlu51
I0928 19:33:30.332679  5010 net.cpp:84] Creating Layer Scale_penlu51
I0928 19:33:30.332682  5010 net.cpp:406] Scale_penlu51 <- Elt_penlu25
I0928 19:33:30.332685  5010 net.cpp:367] Scale_penlu51 -> Elt_penlu25 (in-place)
I0928 19:33:30.332712  5010 layer_factory.hpp:77] Creating layer Scale_penlu51
I0928 19:33:30.332790  5010 net.cpp:122] Setting up Scale_penlu51
I0928 19:33:30.332794  5010 net.cpp:129] Top shape: 100 64 8 8 (409600)
I0928 19:33:30.356504  5010 net.cpp:137] Memory required for data: 1567540400
I0928 19:33:30.356515  5010 layer_factory.hpp:77] Creating layer Convolution54
I0928 19:33:30.356526  5010 net.cpp:84] Creating Layer Convolution54
I0928 19:33:30.356529  5010 net.cpp:406] Convolution54 <- Elt_penlu25
I0928 19:33:30.356534  5010 net.cpp:380] Convolution54 -> Convolution54
I0928 19:33:30.358867  5010 net.cpp:122] Setting up Convolution54
I0928 19:33:30.358877  5010 net.cpp:129] Top shape: 100 64 8 8 (409600)
I0928 19:33:30.358880  5010 net.cpp:137] Memory required for data: 1569178800
I0928 19:33:30.358886  5010 layer_factory.hpp:77] Creating layer BatchNorm54
I0928 19:33:30.358891  5010 net.cpp:84] Creating Layer BatchNorm54
I0928 19:33:30.358893  5010 net.cpp:406] BatchNorm54 <- Convolution54
I0928 19:33:30.358898  5010 net.cpp:367] BatchNorm54 -> Convolution54 (in-place)
I0928 19:33:30.359112  5010 net.cpp:122] Setting up BatchNorm54
I0928 19:33:30.359117  5010 net.cpp:129] Top shape: 100 64 8 8 (409600)
I0928 19:33:30.359119  5010 net.cpp:137] Memory required for data: 1570817200
I0928 19:33:30.359123  5010 layer_factory.hpp:77] Creating layer Scale54
I0928 19:33:30.359127  5010 net.cpp:84] Creating Layer Scale54
I0928 19:33:30.359130  5010 net.cpp:406] Scale54 <- Convolution54
I0928 19:33:30.359134  5010 net.cpp:367] Scale54 -> Convolution54 (in-place)
I0928 19:33:30.359163  5010 layer_factory.hpp:77] Creating layer Scale54
I0928 19:33:30.359242  5010 net.cpp:122] Setting up Scale54
I0928 19:33:30.359246  5010 net.cpp:129] Top shape: 100 64 8 8 (409600)
I0928 19:33:30.359248  5010 net.cpp:137] Memory required for data: 1572455600
I0928 19:33:30.359252  5010 layer_factory.hpp:77] Creating layer M2PELU52
I0928 19:33:30.359257  5010 net.cpp:84] Creating Layer M2PELU52
I0928 19:33:30.359259  5010 net.cpp:406] M2PELU52 <- Convolution54
I0928 19:33:30.359264  5010 net.cpp:380] M2PELU52 -> Conv_penlu54
I0928 19:33:30.359361  5010 net.cpp:122] Setting up M2PELU52
I0928 19:33:30.359365  5010 net.cpp:129] Top shape: 100 64 8 8 (409600)
I0928 19:33:30.359367  5010 net.cpp:137] Memory required for data: 1574094000
I0928 19:33:30.359371  5010 layer_factory.hpp:77] Creating layer BatchNorm_penlu52
I0928 19:33:30.359376  5010 net.cpp:84] Creating Layer BatchNorm_penlu52
I0928 19:33:30.359378  5010 net.cpp:406] BatchNorm_penlu52 <- Conv_penlu54
I0928 19:33:30.359382  5010 net.cpp:367] BatchNorm_penlu52 -> Conv_penlu54 (in-place)
I0928 19:33:30.359515  5010 net.cpp:122] Setting up BatchNorm_penlu52
I0928 19:33:30.359519  5010 net.cpp:129] Top shape: 100 64 8 8 (409600)
I0928 19:33:30.359529  5010 net.cpp:137] Memory required for data: 1575732400
I0928 19:33:30.359534  5010 layer_factory.hpp:77] Creating layer Scale_penlu52
I0928 19:33:30.359539  5010 net.cpp:84] Creating Layer Scale_penlu52
I0928 19:33:30.359541  5010 net.cpp:406] Scale_penlu52 <- Conv_penlu54
I0928 19:33:30.359544  5010 net.cpp:367] Scale_penlu52 -> Conv_penlu54 (in-place)
I0928 19:33:30.359573  5010 layer_factory.hpp:77] Creating layer Scale_penlu52
I0928 19:33:30.359652  5010 net.cpp:122] Setting up Scale_penlu52
I0928 19:33:30.359657  5010 net.cpp:129] Top shape: 100 64 8 8 (409600)
I0928 19:33:30.359658  5010 net.cpp:137] Memory required for data: 1577370800
I0928 19:33:30.359663  5010 layer_factory.hpp:77] Creating layer Convolution55
I0928 19:33:30.359668  5010 net.cpp:84] Creating Layer Convolution55
I0928 19:33:30.359671  5010 net.cpp:406] Convolution55 <- Conv_penlu54
I0928 19:33:30.359675  5010 net.cpp:380] Convolution55 -> Convolution55
I0928 19:33:30.361451  5010 net.cpp:122] Setting up Convolution55
I0928 19:33:30.361460  5010 net.cpp:129] Top shape: 100 64 8 8 (409600)
I0928 19:33:30.361462  5010 net.cpp:137] Memory required for data: 1579009200
I0928 19:33:30.361467  5010 layer_factory.hpp:77] Creating layer BatchNorm55
I0928 19:33:30.361472  5010 net.cpp:84] Creating Layer BatchNorm55
I0928 19:33:30.361475  5010 net.cpp:406] BatchNorm55 <- Convolution55
I0928 19:33:30.361479  5010 net.cpp:367] BatchNorm55 -> Convolution55 (in-place)
I0928 19:33:30.361619  5010 net.cpp:122] Setting up BatchNorm55
I0928 19:33:30.361624  5010 net.cpp:129] Top shape: 100 64 8 8 (409600)
I0928 19:33:30.361625  5010 net.cpp:137] Memory required for data: 1580647600
I0928 19:33:30.361630  5010 layer_factory.hpp:77] Creating layer Scale55
I0928 19:33:30.361634  5010 net.cpp:84] Creating Layer Scale55
I0928 19:33:30.361636  5010 net.cpp:406] Scale55 <- Convolution55
I0928 19:33:30.361639  5010 net.cpp:367] Scale55 -> Convolution55 (in-place)
I0928 19:33:30.361668  5010 layer_factory.hpp:77] Creating layer Scale55
I0928 19:33:30.361747  5010 net.cpp:122] Setting up Scale55
I0928 19:33:30.361750  5010 net.cpp:129] Top shape: 100 64 8 8 (409600)
I0928 19:33:30.361752  5010 net.cpp:137] Memory required for data: 1582286000
I0928 19:33:30.361757  5010 layer_factory.hpp:77] Creating layer Eltwise26
I0928 19:33:30.361762  5010 net.cpp:84] Creating Layer Eltwise26
I0928 19:33:30.361764  5010 net.cpp:406] Eltwise26 <- Eltwise25_Eltwise25_0_split_1
I0928 19:33:30.361768  5010 net.cpp:406] Eltwise26 <- Convolution55
I0928 19:33:30.361770  5010 net.cpp:380] Eltwise26 -> Eltwise26
I0928 19:33:30.361788  5010 net.cpp:122] Setting up Eltwise26
I0928 19:33:30.361791  5010 net.cpp:129] Top shape: 100 64 8 8 (409600)
I0928 19:33:30.361793  5010 net.cpp:137] Memory required for data: 1583924400
I0928 19:33:30.361795  5010 layer_factory.hpp:77] Creating layer Eltwise26_Eltwise26_0_split
I0928 19:33:30.361799  5010 net.cpp:84] Creating Layer Eltwise26_Eltwise26_0_split
I0928 19:33:30.361801  5010 net.cpp:406] Eltwise26_Eltwise26_0_split <- Eltwise26
I0928 19:33:30.361805  5010 net.cpp:380] Eltwise26_Eltwise26_0_split -> Eltwise26_Eltwise26_0_split_0
I0928 19:33:30.361810  5010 net.cpp:380] Eltwise26_Eltwise26_0_split -> Eltwise26_Eltwise26_0_split_1
I0928 19:33:30.361834  5010 net.cpp:122] Setting up Eltwise26_Eltwise26_0_split
I0928 19:33:30.361837  5010 net.cpp:129] Top shape: 100 64 8 8 (409600)
I0928 19:33:30.361840  5010 net.cpp:129] Top shape: 100 64 8 8 (409600)
I0928 19:33:30.361841  5010 net.cpp:137] Memory required for data: 1587201200
I0928 19:33:30.361845  5010 layer_factory.hpp:77] Creating layer M2PELU53
I0928 19:33:30.361848  5010 net.cpp:84] Creating Layer M2PELU53
I0928 19:33:30.361851  5010 net.cpp:406] M2PELU53 <- Eltwise26_Eltwise26_0_split_0
I0928 19:33:30.361855  5010 net.cpp:380] M2PELU53 -> Elt_penlu26
I0928 19:33:30.361954  5010 net.cpp:122] Setting up M2PELU53
I0928 19:33:30.361958  5010 net.cpp:129] Top shape: 100 64 8 8 (409600)
I0928 19:33:30.361960  5010 net.cpp:137] Memory required for data: 1588839600
I0928 19:33:30.361971  5010 layer_factory.hpp:77] Creating layer BatchNorm_penlu53
I0928 19:33:30.361976  5010 net.cpp:84] Creating Layer BatchNorm_penlu53
I0928 19:33:30.361979  5010 net.cpp:406] BatchNorm_penlu53 <- Elt_penlu26
I0928 19:33:30.361982  5010 net.cpp:367] BatchNorm_penlu53 -> Elt_penlu26 (in-place)
I0928 19:33:30.362118  5010 net.cpp:122] Setting up BatchNorm_penlu53
I0928 19:33:30.362121  5010 net.cpp:129] Top shape: 100 64 8 8 (409600)
I0928 19:33:30.362123  5010 net.cpp:137] Memory required for data: 1590478000
I0928 19:33:30.362128  5010 layer_factory.hpp:77] Creating layer Scale_penlu53
I0928 19:33:30.362133  5010 net.cpp:84] Creating Layer Scale_penlu53
I0928 19:33:30.362135  5010 net.cpp:406] Scale_penlu53 <- Elt_penlu26
I0928 19:33:30.362138  5010 net.cpp:367] Scale_penlu53 -> Elt_penlu26 (in-place)
I0928 19:33:30.362164  5010 layer_factory.hpp:77] Creating layer Scale_penlu53
I0928 19:33:30.362243  5010 net.cpp:122] Setting up Scale_penlu53
I0928 19:33:30.362247  5010 net.cpp:129] Top shape: 100 64 8 8 (409600)
I0928 19:33:30.362249  5010 net.cpp:137] Memory required for data: 1592116400
I0928 19:33:30.362252  5010 layer_factory.hpp:77] Creating layer Convolution56
I0928 19:33:30.362260  5010 net.cpp:84] Creating Layer Convolution56
I0928 19:33:30.362262  5010 net.cpp:406] Convolution56 <- Elt_penlu26
I0928 19:33:30.362267  5010 net.cpp:380] Convolution56 -> Convolution56
I0928 19:33:30.364009  5010 net.cpp:122] Setting up Convolution56
I0928 19:33:30.364018  5010 net.cpp:129] Top shape: 100 64 8 8 (409600)
I0928 19:33:30.364022  5010 net.cpp:137] Memory required for data: 1593754800
I0928 19:33:30.364025  5010 layer_factory.hpp:77] Creating layer BatchNorm56
I0928 19:33:30.364032  5010 net.cpp:84] Creating Layer BatchNorm56
I0928 19:33:30.364034  5010 net.cpp:406] BatchNorm56 <- Convolution56
I0928 19:33:30.364038  5010 net.cpp:367] BatchNorm56 -> Convolution56 (in-place)
I0928 19:33:30.364182  5010 net.cpp:122] Setting up BatchNorm56
I0928 19:33:30.364187  5010 net.cpp:129] Top shape: 100 64 8 8 (409600)
I0928 19:33:30.364188  5010 net.cpp:137] Memory required for data: 1595393200
I0928 19:33:30.364193  5010 layer_factory.hpp:77] Creating layer Scale56
I0928 19:33:30.364198  5010 net.cpp:84] Creating Layer Scale56
I0928 19:33:30.364200  5010 net.cpp:406] Scale56 <- Convolution56
I0928 19:33:30.364203  5010 net.cpp:367] Scale56 -> Convolution56 (in-place)
I0928 19:33:30.364231  5010 layer_factory.hpp:77] Creating layer Scale56
I0928 19:33:30.364312  5010 net.cpp:122] Setting up Scale56
I0928 19:33:30.364316  5010 net.cpp:129] Top shape: 100 64 8 8 (409600)
I0928 19:33:30.364318  5010 net.cpp:137] Memory required for data: 1597031600
I0928 19:33:30.364323  5010 layer_factory.hpp:77] Creating layer M2PELU54
I0928 19:33:30.364328  5010 net.cpp:84] Creating Layer M2PELU54
I0928 19:33:30.364331  5010 net.cpp:406] M2PELU54 <- Convolution56
I0928 19:33:30.364336  5010 net.cpp:380] M2PELU54 -> Conv_penlu56
I0928 19:33:30.364428  5010 net.cpp:122] Setting up M2PELU54
I0928 19:33:30.364434  5010 net.cpp:129] Top shape: 100 64 8 8 (409600)
I0928 19:33:30.364435  5010 net.cpp:137] Memory required for data: 1598670000
I0928 19:33:30.364439  5010 layer_factory.hpp:77] Creating layer BatchNorm_penlu54
I0928 19:33:30.364444  5010 net.cpp:84] Creating Layer BatchNorm_penlu54
I0928 19:33:30.364445  5010 net.cpp:406] BatchNorm_penlu54 <- Conv_penlu56
I0928 19:33:30.364449  5010 net.cpp:367] BatchNorm_penlu54 -> Conv_penlu56 (in-place)
I0928 19:33:30.364579  5010 net.cpp:122] Setting up BatchNorm_penlu54
I0928 19:33:30.364583  5010 net.cpp:129] Top shape: 100 64 8 8 (409600)
I0928 19:33:30.364585  5010 net.cpp:137] Memory required for data: 1600308400
I0928 19:33:30.364590  5010 layer_factory.hpp:77] Creating layer Scale_penlu54
I0928 19:33:30.364594  5010 net.cpp:84] Creating Layer Scale_penlu54
I0928 19:33:30.364596  5010 net.cpp:406] Scale_penlu54 <- Conv_penlu56
I0928 19:33:30.364599  5010 net.cpp:367] Scale_penlu54 -> Conv_penlu56 (in-place)
I0928 19:33:30.364625  5010 layer_factory.hpp:77] Creating layer Scale_penlu54
I0928 19:33:30.364712  5010 net.cpp:122] Setting up Scale_penlu54
I0928 19:33:30.364717  5010 net.cpp:129] Top shape: 100 64 8 8 (409600)
I0928 19:33:30.364718  5010 net.cpp:137] Memory required for data: 1601946800
I0928 19:33:30.364722  5010 layer_factory.hpp:77] Creating layer Convolution57
I0928 19:33:30.364729  5010 net.cpp:84] Creating Layer Convolution57
I0928 19:33:30.364732  5010 net.cpp:406] Convolution57 <- Conv_penlu56
I0928 19:33:30.364737  5010 net.cpp:380] Convolution57 -> Convolution57
I0928 19:33:30.366487  5010 net.cpp:122] Setting up Convolution57
I0928 19:33:30.366495  5010 net.cpp:129] Top shape: 100 64 8 8 (409600)
I0928 19:33:30.366498  5010 net.cpp:137] Memory required for data: 1603585200
I0928 19:33:30.366503  5010 layer_factory.hpp:77] Creating layer BatchNorm57
I0928 19:33:30.366508  5010 net.cpp:84] Creating Layer BatchNorm57
I0928 19:33:30.366509  5010 net.cpp:406] BatchNorm57 <- Convolution57
I0928 19:33:30.366514  5010 net.cpp:367] BatchNorm57 -> Convolution57 (in-place)
I0928 19:33:30.366660  5010 net.cpp:122] Setting up BatchNorm57
I0928 19:33:30.366665  5010 net.cpp:129] Top shape: 100 64 8 8 (409600)
I0928 19:33:30.366667  5010 net.cpp:137] Memory required for data: 1605223600
I0928 19:33:30.366672  5010 layer_factory.hpp:77] Creating layer Scale57
I0928 19:33:30.366677  5010 net.cpp:84] Creating Layer Scale57
I0928 19:33:30.366679  5010 net.cpp:406] Scale57 <- Convolution57
I0928 19:33:30.366683  5010 net.cpp:367] Scale57 -> Convolution57 (in-place)
I0928 19:33:30.366711  5010 layer_factory.hpp:77] Creating layer Scale57
I0928 19:33:30.366793  5010 net.cpp:122] Setting up Scale57
I0928 19:33:30.366797  5010 net.cpp:129] Top shape: 100 64 8 8 (409600)
I0928 19:33:30.366799  5010 net.cpp:137] Memory required for data: 1606862000
I0928 19:33:30.366803  5010 layer_factory.hpp:77] Creating layer Eltwise27
I0928 19:33:30.366807  5010 net.cpp:84] Creating Layer Eltwise27
I0928 19:33:30.366811  5010 net.cpp:406] Eltwise27 <- Eltwise26_Eltwise26_0_split_1
I0928 19:33:30.366813  5010 net.cpp:406] Eltwise27 <- Convolution57
I0928 19:33:30.366817  5010 net.cpp:380] Eltwise27 -> Eltwise27
I0928 19:33:30.366834  5010 net.cpp:122] Setting up Eltwise27
I0928 19:33:30.366838  5010 net.cpp:129] Top shape: 100 64 8 8 (409600)
I0928 19:33:30.366840  5010 net.cpp:137] Memory required for data: 1608500400
I0928 19:33:30.366842  5010 layer_factory.hpp:77] Creating layer M2PELU55
I0928 19:33:30.366847  5010 net.cpp:84] Creating Layer M2PELU55
I0928 19:33:30.366849  5010 net.cpp:406] M2PELU55 <- Eltwise27
I0928 19:33:30.366853  5010 net.cpp:380] M2PELU55 -> Elt_penlu27
I0928 19:33:30.366948  5010 net.cpp:122] Setting up M2PELU55
I0928 19:33:30.366952  5010 net.cpp:129] Top shape: 100 64 8 8 (409600)
I0928 19:33:30.366955  5010 net.cpp:137] Memory required for data: 1610138800
I0928 19:33:30.366958  5010 layer_factory.hpp:77] Creating layer BatchNorm_penlu55
I0928 19:33:30.366963  5010 net.cpp:84] Creating Layer BatchNorm_penlu55
I0928 19:33:30.366966  5010 net.cpp:406] BatchNorm_penlu55 <- Elt_penlu27
I0928 19:33:30.366969  5010 net.cpp:367] BatchNorm_penlu55 -> Elt_penlu27 (in-place)
I0928 19:33:30.367101  5010 net.cpp:122] Setting up BatchNorm_penlu55
I0928 19:33:30.367105  5010 net.cpp:129] Top shape: 100 64 8 8 (409600)
I0928 19:33:30.367107  5010 net.cpp:137] Memory required for data: 1611777200
I0928 19:33:30.367111  5010 layer_factory.hpp:77] Creating layer Scale_penlu55
I0928 19:33:30.367115  5010 net.cpp:84] Creating Layer Scale_penlu55
I0928 19:33:30.367118  5010 net.cpp:406] Scale_penlu55 <- Elt_penlu27
I0928 19:33:30.367121  5010 net.cpp:367] Scale_penlu55 -> Elt_penlu27 (in-place)
I0928 19:33:30.367147  5010 layer_factory.hpp:77] Creating layer Scale_penlu55
I0928 19:33:30.367228  5010 net.cpp:122] Setting up Scale_penlu55
I0928 19:33:30.367231  5010 net.cpp:129] Top shape: 100 64 8 8 (409600)
I0928 19:33:30.367233  5010 net.cpp:137] Memory required for data: 1613415600
I0928 19:33:30.367236  5010 layer_factory.hpp:77] Creating layer Pooling1
I0928 19:33:30.367241  5010 net.cpp:84] Creating Layer Pooling1
I0928 19:33:30.367251  5010 net.cpp:406] Pooling1 <- Elt_penlu27
I0928 19:33:30.367256  5010 net.cpp:380] Pooling1 -> Pooling1
I0928 19:33:30.367756  5010 net.cpp:122] Setting up Pooling1
I0928 19:33:30.367764  5010 net.cpp:129] Top shape: 100 64 1 1 (6400)
I0928 19:33:30.367768  5010 net.cpp:137] Memory required for data: 1613441200
I0928 19:33:30.367769  5010 layer_factory.hpp:77] Creating layer InnerProduct1
I0928 19:33:30.367775  5010 net.cpp:84] Creating Layer InnerProduct1
I0928 19:33:30.367779  5010 net.cpp:406] InnerProduct1 <- Pooling1
I0928 19:33:30.367782  5010 net.cpp:380] InnerProduct1 -> InnerProduct1
I0928 19:33:30.367892  5010 net.cpp:122] Setting up InnerProduct1
I0928 19:33:30.367897  5010 net.cpp:129] Top shape: 100 10 (1000)
I0928 19:33:30.367899  5010 net.cpp:137] Memory required for data: 1613445200
I0928 19:33:30.367903  5010 layer_factory.hpp:77] Creating layer InnerProduct1_InnerProduct1_0_split
I0928 19:33:30.367908  5010 net.cpp:84] Creating Layer InnerProduct1_InnerProduct1_0_split
I0928 19:33:30.367910  5010 net.cpp:406] InnerProduct1_InnerProduct1_0_split <- InnerProduct1
I0928 19:33:30.367913  5010 net.cpp:380] InnerProduct1_InnerProduct1_0_split -> InnerProduct1_InnerProduct1_0_split_0
I0928 19:33:30.367918  5010 net.cpp:380] InnerProduct1_InnerProduct1_0_split -> InnerProduct1_InnerProduct1_0_split_1
I0928 19:33:30.387383  5010 net.cpp:122] Setting up InnerProduct1_InnerProduct1_0_split
I0928 19:33:30.387392  5010 net.cpp:129] Top shape: 100 10 (1000)
I0928 19:33:30.387397  5010 net.cpp:129] Top shape: 100 10 (1000)
I0928 19:33:30.387398  5010 net.cpp:137] Memory required for data: 1613453200
I0928 19:33:30.387401  5010 layer_factory.hpp:77] Creating layer SoftmaxWithLoss1
I0928 19:33:30.387406  5010 net.cpp:84] Creating Layer SoftmaxWithLoss1
I0928 19:33:30.387408  5010 net.cpp:406] SoftmaxWithLoss1 <- InnerProduct1_InnerProduct1_0_split_0
I0928 19:33:30.387413  5010 net.cpp:406] SoftmaxWithLoss1 <- Data2_Data1_1_split_0
…
