…
I0925 17:02:38.070983  3155 net.cpp:294] The NetState phase (0) differed from the phase (1) specified by a rule in layer Accuracy1
I0925 17:02:38.072137  3155 net.cpp:51] Initializing net from parameters: 
name: "resnet_cifar10"
state {
  phase: TRAIN
  level: 0
  stage: ""
}
layer {
  name: "Data1"
  type: "Data"
  top: "Data1"
  top: "Data2"
  include {
    phase: TRAIN
  }
  transform_param {
    mirror: true
    crop_size: 28
    mean_file: "/home/x306/caffe/xn/PENLU/data/cifar10/mean.binaryproto"
  }
  data_param {
    source: "/home/x306/caffe/xn/PENLU/data/cifar10/cifar10_train_lmdb"
    batch_size: 100
    backend: LMDB
  }
}
layer {
  name: "Convolution1"
  type: "Convolution"
  bottom: "Data1"
  top: "Convolution1"
  param {
    lr_mult: 1
    decay_mult: 1
  }
  param {
    lr_mult: 2
    decay_mult: 0
  }
  convolution_param {
    num_output: 16
    pad: 1
    kernel_size: 3
    stride: 1
    weight_filler {
      type: "gaussian"
      std: 0.118
    }
    bias_filler {
      type: "constant"
      value: 0
    }
  }
}
layer {
  name: "BatchNorm1"
  type: "BatchNorm"
  bottom: "Convolution1"
  top: "Convolution1"
  param {
    lr_mult: 0
    decay_mult: 0
  }
  param {
    lr_mult: 0
    decay_mult: 0
  }
  param {
    lr_mult: 0
    decay_mult: 0
  }
}
layer {
  name: "Scale1"
  type: "Scale"
  bottom: "Convolution1"
  top: "Convolution1"
  scale_param {
    bias_term: true
  }
}
layer {
  name: "penlu1"
  type: "PENLU"
  bottom: "Convolution1"
  top: "Convolution1"
  param {
    lr_mult: 2
    decay_mult: 0
  }
  param {
    lr_mult: 2
    decay_mult: 0
  }
  param {
    lr_mult: 2
    decay_mult: 0
  }
  penlu_param {
    alpha_filler {
      type: "constant"
      value: 0.25
    }
    beta_filler {
      type: "constant"
      value: 1
    }
    eta_filler {
      type: "constant"
      value: 1
    }
  }
}
layer {
  name: "Convolution2"
  type: "Convolution"
  bottom: "Convolution1"
  top: "Convolution2"
  param {
    lr_mult: 1
    decay_mult: 1
  }
  param {
    lr_mult: 2
    decay_mult: 0
  }
  convolution_param {
    num_output: 16
    pad: 1
    kernel_size: 3
    stride: 1
    weight_filler {
      type: "gaussian"
      std: 0.118
    }
    bias_filler {
      type: "constant"
      value: 0
    }
  }
}
layer {
  name: "BatchNorm2"
  type: "BatchNorm"
  bottom: "Convolution2"
  top: "Convolution2"
  param {
    lr_mult: 0
    decay_mult: 0
  }
  param {
    lr_mult: 0
    decay_mult: 0
  }
  param {
    lr_mult: 0
    decay_mult: 0
  }
}
layer {
  name: "Scale2"
  type: "Scale"
  bottom: "Convolution2"
  top: "Convolution2"
  scale_param {
    bias_term: true
  }
}
layer {
  name: "penlu2"
  type: "PENLU"
  bottom: "Convolution2"
  top: "Convolution2"
  param {
    lr_mult: 2
    decay_mult: 0
  }
  param {
    lr_mult: 2
    decay_mult: 0
  }
  param {
    lr_mult: 2
    decay_mult: 0
  }
  penlu_param {
    alpha_filler {
      type: "constant"
      value: 0.25
    }
    beta_filler {
      type: "constant"
      value: 1
    }
    eta_filler {
      type: "constant"
      value: 1
    }
  }
}
layer {
  name: "Convolution3"
  type: "Convolution"
  bottom: "Convolution2"
  top: "Convolution3"
  param {
    lr_mult: 1
    decay_mult: 1
  }
  param {
    lr_mult: 2
    decay_mult: 0
  }
  convolution_param {
    num_output: 16
    pad: 1
    kernel_size: 3
    stride: 1
    weight_filler {
      type: "gaussian"
      std: 0.118
    }
    bias_filler {
      type: "constant"
      value: 0
    }
  }
}
layer {
  name: "BatchNorm3"
  type: "BatchNorm"
  bottom: "Convolution3"
  top: "Convolution3"
  param {
    lr_mult: 0
    decay_mult: 0
  }
  param {
    lr_mult: 0
    decay_mult: 0
  }
  param {
    lr_mult: 0
    decay_mult: 0
  }
}
layer {
  name: "Scale3"
  type: "Scale"
  bottom: "Convolution3"
  top: "Convolution3"
  scale_param {
    bias_term: true
  }
}
layer {
  name: "Eltwise1"
  type: "Eltwise"
  bottom: "Convolution1"
  bottom: "Convolution3"
  top: "Eltwise1"
  eltwise_param {
    operation: SUM
  }
}
layer {
  name: "penlu3"
  type: "PENLU"
  bottom: "Eltwise1"
  top: "Eltwise1"
  param {
    lr_mult: 2
    decay_mult: 0
  }
  param {
    lr_mult: 2
    decay_mult: 0
  }
  param {
    lr_mult: 2
    decay_mult: 0
  }
  penlu_param {
    alpha_filler {
      type: "constant"
      value: 0.25
    }
    beta_filler {
      type: "constant"
      value: 1
    }
    eta_filler {
      type: "constant"
      value: 1
    }
  }
}
layer {
  name: "Convolution4"
  type: "Convolution"
  bottom: "Eltwise1"
  top: "Convolution4"
  param {
    lr_mult: 1
    decay_mult: 1
  }
  param {
    lr_mult: 2
    decay_mult: 0
  }
  convolution_param {
    num_output: 16
    pad: 1
    kernel_size: 3
    stride: 1
    weight_filler {
      type: "gaussian"
      std: 0.118
    }
    bias_filler {
      type: "constant"
      value: 0
    }
  }
}
layer {
  name: "BatchNorm4"
  type: "BatchNorm"
  bottom: "Convolution4"
  top: "Convolution4"
  param {
    lr_mult: 0
    decay_mult: 0
  }
  param {
    lr_mult: 0
    decay_mult: 0
  }
  param {
    lr_mult: 0
    decay_mult: 0
  }
}
layer {
  name: "Scale4"
  type: "Scale"
  bottom: "Convolution4"
  top: "Convolution4"
  scale_param {
    bias_term: true
  }
}
layer {
  name: "penlu4"
  type: "PENLU"
  bottom: "Convolution4"
  top: "Convolution4"
  param {
    lr_mult: 2
    decay_mult: 0
  }
  param {
    lr_mult: 2
    decay_mult: 0
  }
  param {
    lr_mult: 2
    decay_mult: 0
  }
  penlu_param {
    alpha_filler {
      type: "constant"
      value: 0.25
    }
    beta_filler {
      type: "constant"
      value: 1
    }
    eta_filler {
      type: "constant"
      value: 1
    }
  }
}
layer {
  name: "Convolution5"
  type: "Convolution"
  bottom: "Convolution4"
  top: "Convolution5"
  param {
    lr_mult: 1
    decay_mult: 1
  }
  param {
    lr_mult: 2
    decay_mult: 0
  }
  convolution_param {
    num_output: 16
    pad: 1
    kernel_size: 3
    stride: 1
    weight_filler {
      type: "gaussian"
      std: 0.118
    }
    bias_filler {
      type: "constant"
      value: 0
    }
  }
}
layer {
  name: "BatchNorm5"
  type: "BatchNorm"
  bottom: "Convolution5"
  top: "Convolution5"
  param {
    lr_mult: 0
    decay_mult: 0
  }
  param {
    lr_mult: 0
    decay_mult: 0
  }
  param {
    lr_mult: 0
    decay_mult: 0
  }
}
layer {
  name: "Scale5"
  type: "Scale"
  bottom: "Convolution5"
  top: "Convolution5"
  scale_param {
    bias_term: true
  }
}
layer {
  name: "Eltwise2"
  type: "Eltwise"
  bottom: "Eltwise1"
  bottom: "Convolution5"
  top: "Eltwise2"
  eltwise_param {
    operation: SUM
  }
}
layer {
  name: "penlu5"
  type: "PENLU"
  bottom: "Eltwise2"
  top: "Eltwise2"
  param {
    lr_mult: 2
    decay_mult: 0
  }
  param {
    lr_mult: 2
    decay_mult: 0
  }
  param {
    lr_mult: 2
    decay_mult: 0
  }
  penlu_param {
    alpha_filler {
      type: "constant"
      value: 0.25
    }
    beta_filler {
      type: "constant"
      value: 1
    }
    eta_filler {
      type: "constant"
      value: 1
    }
  }
}
layer {
  name: "Convolution6"
  type: "Convolution"
  bottom: "Eltwise2"
  top: "Convolution6"
  param {
    lr_mult: 1
    decay_mult: 1
  }
  param {
    lr_mult: 2
    decay_mult: 0
  }
  convolution_param {
    num_output: 16
    pad: 1
    kernel_size: 3
    stride: 1
    weight_filler {
      type: "gaussian"
      std: 0.118
    }
    bias_filler {
      type: "constant"
      value: 0
    }
  }
}
layer {
  name: "BatchNorm6"
  type: "BatchNorm"
  bottom: "Convolution6"
  top: "Convolution6"
  param {
    lr_mult: 0
    decay_mult: 0
  }
  param {
    lr_mult: 0
    decay_mult: 0
  }
  param {
    lr_mult: 0
    decay_mult: 0
  }
}
layer {
  name: "Scale6"
  type: "Scale"
  bottom: "Convolution6"
  top: "Convolution6"
  scale_param {
    bias_term: true
  }
}
layer {
  name: "penlu6"
  type: "PENLU"
  bottom: "Convolution6"
  top: "Convolution6"
  param {
    lr_mult: 2
    decay_mult: 0
  }
  param {
    lr_mult: 2
    decay_mult: 0
  }
  param {
    lr_mult: 2
    decay_mult: 0
  }
  penlu_param {
    alpha_filler {
      type: "constant"
      value: 0.25
    }
    beta_filler {
      type: "constant"
      value: 1
    }
    eta_filler {
      type: "constant"
      value: 1
    }
  }
}
layer {
  name: "Convolution7"
  type: "Convolution"
  bottom: "Convolution6"
  top: "Convolution7"
  param {
    lr_mult: 1
    decay_mult: 1
  }
  param {
    lr_mult: 2
    decay_mult: 0
  }
  convolution_param {
    num_output: 16
    pad: 1
    kernel_size: 3
    stride: 1
    weight_filler {
      type: "gaussian"
      std: 0.118
    }
    bias_filler {
      type: "constant"
      value: 0
    }
  }
}
layer {
  name: "BatchNorm7"
  type: "BatchNorm"
  bottom: "Convolution7"
  top: "Convolution7"
  param {
    lr_mult: 0
    decay_mult: 0
  }
  param {
    lr_mult: 0
    decay_mult: 0
  }
  param {
    lr_mult: 0
    decay_mult: 0
  }
}
layer {
  name: "Scale7"
  type: "Scale"
  bottom: "Convolution7"
  top: "Convolution7"
  scale_param {
    bias_term: true
  }
}
layer {
  name: "Eltwise3"
  type: "Eltwise"
  bottom: "Eltwise2"
  bottom: "Convolution7"
  top: "Eltwise3"
  eltwise_param {
    operation: SUM
  }
}
layer {
  name: "penlu7"
  type: "PENLU"
  bottom: "Eltwise3"
  top: "Eltwise3"
  param {
    lr_mult: 2
    decay_mult: 0
  }
  param {
    lr_mult: 2
    decay_mult: 0
  }
  param {
    lr_mult: 2
    decay_mult: 0
  }
  penlu_param {
    alpha_filler {
      type: "constant"
      value: 0.25
    }
    beta_filler {
      type: "constant"
      value: 1
    }
    eta_filler {
      type: "constant"
      value: 1
    }
  }
}
layer {
  name: "Convolution8"
  type: "Convolution"
  bottom: "Eltwise3"
  top: "Convolution8"
  param {
    lr_mult: 1
    decay_mult: 1
  }
  param {
    lr_mult: 2
    decay_mult: 0
  }
  convolution_param {
    num_output: 16
    pad: 1
    kernel_size: 3
    stride: 1
    weight_filler {
      type: "gaussian"
      std: 0.118
    }
    bias_filler {
      type: "constant"
      value: 0
    }
  }
}
layer {
  name: "BatchNorm8"
  type: "BatchNorm"
  bottom: "Convolution8"
  top: "Convolution8"
  param {
    lr_mult: 0
    decay_mult: 0
  }
  param {
    lr_mult: 0
    decay_mult: 0
  }
  param {
    lr_mult: 0
    decay_mult: 0
  }
}
layer {
  name: "Scale8"
  type: "Scale"
  bottom: "Convolution8"
  top: "Convolution8"
  scale_param {
    bias_term: true
  }
}
layer {
  name: "penlu8"
  type: "PENLU"
  bottom: "Convolution8"
  top: "Convolution8"
  param {
    lr_mult: 2
    decay_mult: 0
  }
  param {
    lr_mult: 2
    decay_mult: 0
  }
  param {
    lr_mult: 2
    decay_mult: 0
  }
  penlu_param {
    alpha_filler {
      type: "constant"
      value: 0.25
    }
    beta_filler {
      type: "constant"
      value: 1
    }
    eta_filler {
      type: "constant"
      value: 1
    }
  }
}
layer {
  name: "Convolution9"
  type: "Convolution"
  bottom: "Convolution8"
  top: "Convolution9"
  param {
    lr_mult: 1
    decay_mult: 1
  }
  param {
    lr_mult: 2
    decay_mult: 0
  }
  convolution_param {
    num_output: 16
    pad: 1
    kernel_size: 3
    stride: 1
    weight_filler {
      type: "gaussian"
      std: 0.118
    }
    bias_filler {
      type: "constant"
      value: 0
    }
  }
}
layer {
  name: "BatchNorm9"
  type: "BatchNorm"
  bottom: "Convolution9"
  top: "Convolution9"
  param {
    lr_mult: 0
    decay_mult: 0
  }
  param {
    lr_mult: 0
    decay_mult: 0
  }
  param {
    lr_mult: 0
    decay_mult: 0
  }
}
layer {
  name: "Scale9"
  type: "Scale"
  bottom: "Convolution9"
  top: "Convolution9"
  scale_param {
    bias_term: true
  }
}
layer {
  name: "Eltwise4"
  type: "Eltwise"
  bottom: "Eltwise3"
  bottom: "Convolution9"
  top: "Eltwise4"
  eltwise_param {
    operation: SUM
  }
}
layer {
  name: "penlu9"
  type: "PENLU"
  bottom: "Eltwise4"
  top: "Eltwise4"
  param {
    lr_mult: 2
    decay_mult: 0
  }
  param {
    lr_mult: 2
    decay_mult: 0
  }
  param {
    lr_mult: 2
    decay_mult: 0
  }
  penlu_param {
    alpha_filler {
      type: "constant"
      value: 0.25
    }
    beta_filler {
      type: "constant"
      value: 1
    }
    eta_filler {
      type: "constant"
      value: 1
    }
  }
}
layer {
  name: "Convolution10"
  type: "Convolution"
  bottom: "Eltwise4"
  top: "Convolution10"
  param {
    lr_mult: 1
    decay_mult: 1
  }
  param {
    lr_mult: 2
    decay_mult: 0
  }
  convolution_param {
    num_output: 16
    pad: 1
    kernel_size: 3
    stride: 1
    weight_filler {
      type: "gaussian"
      std: 0.118
    }
    bias_filler {
      type: "constant"
      value: 0
    }
  }
}
layer {
  name: "BatchNorm10"
  type: "BatchNorm"
  bottom: "Convolution10"
  top: "Convolution10"
  param {
    lr_mult: 0
    decay_mult: 0
  }
  param {
    lr_mult: 0
    decay_mult: 0
  }
  param {
    lr_mult: 0
    decay_mult: 0
  }
}
layer {
  name: "Scale10"
  type: "Scale"
  bottom: "Convolution10"
  top: "Convolution10"
  scale_param {
    bias_term: true
  }
}
layer {
  name: "penlu10"
  type: "PENLU"
  bottom: "Convolution10"
  top: "Convolution10"
  param {
    lr_mult: 2
    decay_mult: 0
  }
  param {
    lr_mult: 2
    decay_mult: 0
  }
  param {
    lr_mult: 2
    decay_mult: 0
  }
  penlu_param {
    alpha_filler {
      type: "constant"
      value: 0.25
    }
    beta_filler {
      type: "constant"
      value: 1
    }
    eta_filler {
      type: "constant"
      value: 1
    }
  }
}
layer {
  name: "Convolution11"
  type: "Convolution"
  bottom: "Convolution10"
  top: "Convolution11"
  param {
    lr_mult: 1
    decay_mult: 1
  }
  param {
    lr_mult: 2
    decay_mult: 0
  }
  convolution_param {
    num_output: 16
    pad: 1
    kernel_size: 3
    stride: 1
    weight_filler {
      type: "gaussian"
      std: 0.118
    }
    bias_filler {
      type: "constant"
      value: 0
    }
  }
}
layer {
  name: "BatchNorm11"
  type: "BatchNorm"
  bottom: "Convolution11"
  top: "Convolution11"
  param {
    lr_mult: 0
    decay_mult: 0
  }
  param {
    lr_mult: 0
    decay_mult: 0
  }
  param {
    lr_mult: 0
    decay_mult: 0
  }
}
layer {
  name: "Scale11"
  type: "Scale"
  bottom: "Convolution11"
  top: "Convolution11"
  scale_param {
    bias_term: true
  }
}
layer {
  name: "Eltwise5"
  type: "Eltwise"
  bottom: "Eltwise4"
  bottom: "Convolution11"
  top: "Eltwise5"
  eltwise_param {
    operation: SUM
  }
}
layer {
  name: "penlu11"
  type: "PENLU"
  bottom: "Eltwise5"
  top: "Eltwise5"
  param {
    lr_mult: 2
    decay_mult: 0
  }
  param {
    lr_mult: 2
    decay_mult: 0
  }
  param {
    lr_mult: 2
    decay_mult: 0
  }
  penlu_param {
    alpha_filler {
      type: "constant"
      value: 0.25
    }
    beta_filler {
      type: "constant"
      value: 1
    }
    eta_filler {
      type: "constant"
      value: 1
    }
  }
}
layer {
  name: "Convolution12"
  type: "Convolution"
  bottom: "Eltwise5"
  top: "Convolution12"
  param {
    lr_mult: 1
    decay_mult: 1
  }
  param {
    lr_mult: 2
    decay_mult: 0
  }
  convolution_param {
    num_output: 16
    pad: 1
    kernel_size: 3
    stride: 1
    weight_filler {
      type: "gaussian"
      std: 0.118
    }
    bias_filler {
      type: "constant"
      value: 0
    }
  }
}
layer {
  name: "BatchNorm12"
  type: "BatchNorm"
  bottom: "Convolution12"
  top: "Convolution12"
  param {
    lr_mult: 0
    decay_mult: 0
  }
  param {
    lr_mult: 0
    decay_mult: 0
  }
  param {
    lr_mult: 0
    decay_mult: 0
  }
}
layer {
  name: "Scale12"
  type: "Scale"
  bottom: "Convolution12"
  top: "Convolution12"
  scale_param {
    bias_term: true
  }
}
layer {
  name: "penlu12"
  type: "PENLU"
  bottom: "Convolution12"
  top: "Convolution12"
  param {
    lr_mult: 2
    decay_mult: 0
  }
  param {
    lr_mult: 2
    decay_mult: 0
  }
  param {
    lr_mult: 2
    decay_mult: 0
  }
  penlu_param {
    alpha_filler {
      type: "constant"
      value: 0.25
    }
    beta_filler {
      type: "constant"
      value: 1
    }
    eta_filler {
      type: "constant"
      value: 1
    }
  }
}
layer {
  name: "Convolution13"
  type: "Convolution"
  bottom: "Convolution12"
  top: "Convolution13"
  param {
    lr_mult: 1
    decay_mult: 1
  }
  param {
    lr_mult: 2
    decay_mult: 0
  }
  convolution_param {
    num_output: 16
    pad: 1
    kernel_size: 3
    stride: 1
    weight_filler {
      type: "gaussian"
      std: 0.118
    }
    bias_filler {
      type: "constant"
      value: 0
    }
  }
}
layer {
  name: "BatchNorm13"
  type: "BatchNorm"
  bottom: "Convolution13"
  top: "Convolution13"
  param {
    lr_mult: 0
    decay_mult: 0
  }
  param {
    lr_mult: 0
    decay_mult: 0
  }
  param {
    lr_mult: 0
    decay_mult: 0
  }
}
layer {
  name: "Scale13"
  type: "Scale"
  bottom: "Convolution13"
  top: "Convolution13"
  scale_param {
    bias_term: true
  }
}
layer {
  name: "Eltwise6"
  type: "Eltwise"
  bottom: "Eltwise5"
  bottom: "Convolution13"
  top: "Eltwise6"
  eltwise_param {
    operation: SUM
  }
}
layer {
  name: "penlu13"
  type: "PENLU"
  bottom: "Eltwise6"
  top: "Eltwise6"
  param {
    lr_mult: 2
    decay_mult: 0
  }
  param {
    lr_mult: 2
    decay_mult: 0
  }
  param {
    lr_mult: 2
    decay_mult: 0
  }
  penlu_param {
    alpha_filler {
      type: "constant"
      value: 0.25
    }
    beta_filler {
      type: "constant"
      value: 1
    }
    eta_filler {
      type: "constant"
      value: 1
    }
  }
}
layer {
  name: "Convolution14"
  type: "Convolution"
  bottom: "Eltwise6"
  top: "Convolution14"
  param {
    lr_mult: 1
    decay_mult: 1
  }
  param {
    lr_mult: 2
    decay_mult: 0
  }
  convolution_param {
    num_output: 16
    pad: 1
    kernel_size: 3
    stride: 1
    weight_filler {
      type: "gaussian"
      std: 0.118
    }
    bias_filler {
      type: "constant"
      value: 0
    }
  }
}
layer {
  name: "BatchNorm14"
  type: "BatchNorm"
  bottom: "Convolution14"
  top: "Convolution14"
  param {
    lr_mult: 0
    decay_mult: 0
  }
  param {
    lr_mult: 0
    decay_mult: 0
  }
  param {
    lr_mult: 0
    decay_mult: 0
  }
}
layer {
  name: "Scale14"
  type: "Scale"
  bottom: "Convolution14"
  top: "Convolution14"
  scale_param {
    bias_term: true
  }
}
layer {
  name: "penlu14"
  type: "PENLU"
  bottom: "Convolution14"
  top: "Convolution14"
  param {
    lr_mult: 2
    decay_mult: 0
  }
  param {
    lr_mult: 2
    decay_mult: 0
  }
  param {
    lr_mult: 2
    decay_mult: 0
  }
  penlu_param {
    alpha_filler {
      type: "constant"
      value: 0.25
    }
    beta_filler {
      type: "constant"
      value: 1
    }
    eta_filler {
      type: "constant"
      value: 1
    }
  }
}
layer {
  name: "Convolution15"
  type: "Convolution"
  bottom: "Convolution14"
  top: "Convolution15"
  param {
    lr_mult: 1
    decay_mult: 1
  }
  param {
    lr_mult: 2
    decay_mult: 0
  }
  convolution_param {
    num_output: 16
    pad: 1
    kernel_size: 3
    stride: 1
    weight_filler {
      type: "gaussian"
      std: 0.118
    }
    bias_filler {
      type: "constant"
      value: 0
    }
  }
}
layer {
  name: "BatchNorm15"
  type: "BatchNorm"
  bottom: "Convolution15"
  top: "Convolution15"
  param {
    lr_mult: 0
    decay_mult: 0
  }
  param {
    lr_mult: 0
    decay_mult: 0
  }
  param {
    lr_mult: 0
    decay_mult: 0
  }
}
layer {
  name: "Scale15"
  type: "Scale"
  bottom: "Convolution15"
  top: "Convolution15"
  scale_param {
    bias_term: true
  }
}
layer {
  name: "Eltwise7"
  type: "Eltwise"
  bottom: "Eltwise6"
  bottom: "Convolution15"
  top: "Eltwise7"
  eltwise_param {
    operation: SUM
  }
}
layer {
  name: "penlu15"
  type: "PENLU"
  bottom: "Eltwise7"
  top: "Eltwise7"
  param {
    lr_mult: 2
    decay_mult: 0
  }
  param {
    lr_mult: 2
    decay_mult: 0
  }
  param {
    lr_mult: 2
    decay_mult: 0
  }
  penlu_param {
    alpha_filler {
      type: "constant"
      value: 0.25
    }
    beta_filler {
      type: "constant"
      value: 1
    }
    eta_filler {
      type: "constant"
      value: 1
    }
  }
}
layer {
  name: "Convolution16"
  type: "Convolution"
  bottom: "Eltwise7"
  top: "Convolution16"
  param {
    lr_mult: 1
    decay_mult: 1
  }
  param {
    lr_mult: 2
    decay_mult: 0
  }
  convolution_param {
    num_output: 16
    pad: 1
    kernel_size: 3
    stride: 1
    weight_filler {
      type: "gaussian"
      std: 0.118
    }
    bias_filler {
      type: "constant"
      value: 0
    }
  }
}
layer {
  name: "BatchNorm16"
  type: "BatchNorm"
  bottom: "Convolution16"
  top: "Convolution16"
  param {
    lr_mult: 0
    decay_mult: 0
  }
  param {
    lr_mult: 0
    decay_mult: 0
  }
  param {
    lr_mult: 0
    decay_mult: 0
  }
}
layer {
  name: "Scale16"
  type: "Scale"
  bottom: "Convolution16"
  top: "Convolution16"
  scale_param {
    bias_term: true
  }
}
layer {
  name: "penlu16"
  type: "PENLU"
  bottom: "Convolution16"
  top: "Convolution16"
  param {
    lr_mult: 2
    decay_mult: 0
  }
  param {
    lr_mult: 2
    decay_mult: 0
  }
  param {
    lr_mult: 2
    decay_mult: 0
  }
  penlu_param {
    alpha_filler {
      type: "constant"
      value: 0.25
    }
    beta_filler {
      type: "constant"
      value: 1
    }
    eta_filler {
      type: "constant"
      value: 1
    }
  }
}
layer {
  name: "Convolution17"
  type: "Convolution"
  bottom: "Convolution16"
  top: "Convolution17"
  param {
    lr_mult: 1
    decay_mult: 1
  }
  param {
    lr_mult: 2
    decay_mult: 0
  }
  convolution_param {
    num_output: 16
    pad: 1
    kernel_size: 3
    stride: 1
    weight_filler {
      type: "gaussian"
      std: 0.118
    }
    bias_filler {
      type: "constant"
      value: 0
    }
  }
}
layer {
  name: "BatchNorm17"
  type: "BatchNorm"
  bottom: "Convolution17"
  top: "Convolution17"
  param {
    lr_mult: 0
    decay_mult: 0
  }
  param {
    lr_mult: 0
    decay_mult: 0
  }
  param {
    lr_mult: 0
    decay_mult: 0
  }
}
layer {
  name: "Scale17"
  type: "Scale"
  bottom: "Convolution17"
  top: "Convolution17"
  scale_param {
    bias_term: true
  }
}
layer {
  name: "Eltwise8"
  type: "Eltwise"
  bottom: "Eltwise7"
  bottom: "Convolution17"
  top: "Eltwise8"
  eltwise_param {
    operation: SUM
  }
}
layer {
  name: "penlu17"
  type: "PENLU"
  bottom: "Eltwise8"
  top: "Eltwise8"
  param {
    lr_mult: 2
    decay_mult: 0
  }
  param {
    lr_mult: 2
    decay_mult: 0
  }
  param {
    lr_mult: 2
    decay_mult: 0
  }
  penlu_param {
    alpha_filler {
      type: "constant"
      value: 0.25
    }
    beta_filler {
      type: "constant"
      value: 1
    }
    eta_filler {
      type: "constant"
      value: 1
    }
  }
}
layer {
  name: "Convolution18"
  type: "Convolution"
  bottom: "Eltwise8"
  top: "Convolution18"
  param {
    lr_mult: 1
    decay_mult: 1
  }
  param {
    lr_mult: 2
    decay_mult: 0
  }
  convolution_param {
    num_output: 16
    pad: 1
    kernel_size: 3
    stride: 1
    weight_filler {
      type: "gaussian"
      std: 0.118
    }
    bias_filler {
      type: "constant"
      value: 0
    }
  }
}
layer {
  name: "BatchNorm18"
  type: "BatchNorm"
  bottom: "Convolution18"
  top: "Convolution18"
  param {
    lr_mult: 0
    decay_mult: 0
  }
  param {
    lr_mult: 0
    decay_mult: 0
  }
  param {
    lr_mult: 0
    decay_mult: 0
  }
}
layer {
  name: "Scale18"
  type: "Scale"
  bottom: "Convolution18"
  top: "Convolution18"
  scale_param {
    bias_term: true
  }
}
layer {
  name: "penlu18"
  type: "PENLU"
  bottom: "Convolution18"
  top: "Convolution18"
  param {
    lr_mult: 2
    decay_mult: 0
  }
  param {
    lr_mult: 2
    decay_mult: 0
  }
  param {
    lr_mult: 2
    decay_mult: 0
  }
  penlu_param {
    alpha_filler {
      type: "constant"
      value: 0.25
    }
    beta_filler {
      type: "constant"
      value: 1
    }
    eta_filler {
      type: "constant"
      value: 1
    }
  }
}
layer {
  name: "Convolution19"
  type: "Convolution"
  bottom: "Convolution18"
  top: "Convolution19"
  param {
    lr_mult: 1
    decay_mult: 1
  }
  param {
    lr_mult: 2
    decay_mult: 0
  }
  convolution_param {
    num_output: 16
    pad: 1
    kernel_size: 3
    stride: 1
    weight_filler {
      type: "gaussian"
      std: 0.118
    }
    bias_filler {
      type: "constant"
      value: 0
    }
  }
}
layer {
  name: "BatchNorm19"
  type: "BatchNorm"
  bottom: "Convolution19"
  top: "Convolution19"
  param {
    lr_mult: 0
    decay_mult: 0
  }
  param {
    lr_mult: 0
    decay_mult: 0
  }
  param {
    lr_mult: 0
    decay_mult: 0
  }
}
layer {
  name: "Scale19"
  type: "Scale"
  bottom: "Convolution19"
  top: "Convolution19"
  scale_param {
    bias_term: true
  }
}
layer {
  name: "Eltwise9"
  type: "Eltwise"
  bottom: "Eltwise8"
  bottom: "Convolution19"
  top: "Eltwise9"
  eltwise_param {
    operation: SUM
  }
}
layer {
  name: "penlu19"
  type: "PENLU"
  bottom: "Eltwise9"
  top: "Eltwise9"
  param {
    lr_mult: 2
    decay_mult: 0
  }
  param {
    lr_mult: 2
    decay_mult: 0
  }
  param {
    lr_mult: 2
    decay_mult: 0
  }
  penlu_param {
    alpha_filler {
      type: "constant"
      value: 0.25
    }
    beta_filler {
      type: "constant"
      value: 1
    }
    eta_filler {
      type: "constant"
      value: 1
    }
  }
}
layer {
  name: "Convolution20"
  type: "Convolution"
  bottom: "Eltwise9"
  top: "Convolution20"
  param {
    lr_mult: 1
    decay_mult: 1
  }
  param {
    lr_mult: 2
    decay_mult: 0
  }
  convolution_param {
    num_output: 32
    pad: 0
    kernel_size: 1
    stride: 2
    weight_filler {
      type: "gaussian"
      std: 0.25
    }
    bias_filler {
      type: "constant"
      value: 0
    }
  }
}
layer {
  name: "BatchNorm20"
  type: "BatchNorm"
  bottom: "Convolution20"
  top: "Convolution20"
  param {
    lr_mult: 0
    decay_mult: 0
  }
  param {
    lr_mult: 0
    decay_mult: 0
  }
  param {
    lr_mult: 0
    decay_mult: 0
  }
}
layer {
  name: "Scale20"
  type: "Scale"
  bottom: "Convolution20"
  top: "Convolution20"
  scale_param {
    bias_term: true
  }
}
layer {
  name: "Convolution21"
  type: "Convolution"
  bottom: "Eltwise9"
  top: "Convolution21"
  param {
    lr_mult: 1
    decay_mult: 1
  }
  param {
    lr_mult: 2
    decay_mult: 0
  }
  convolution_param {
    num_output: 32
    pad: 1
    kernel_size: 3
    stride: 2
    weight_filler {
      type: "gaussian"
      std: 0.083
    }
    bias_filler {
      type: "constant"
      value: 0
    }
  }
}
layer {
  name: "BatchNorm21"
  type: "BatchNorm"
  bottom: "Convolution21"
  top: "Convolution21"
  param {
    lr_mult: 0
    decay_mult: 0
  }
  param {
    lr_mult: 0
    decay_mult: 0
  }
  param {
    lr_mult: 0
    decay_mult: 0
  }
}
layer {
  name: "Scale21"
  type: "Scale"
  bottom: "Convolution21"
  top: "Convolution21"
  scale_param {
    bias_term: true
  }
}
layer {
  name: "penlu20"
  type: "PENLU"
  bottom: "Convolution21"
  top: "Convolution21"
  param {
    lr_mult: 2
    decay_mult: 0
  }
  param {
    lr_mult: 2
    decay_mult: 0
  }
  param {
    lr_mult: 2
    decay_mult: 0
  }
  penlu_param {
    alpha_filler {
      type: "constant"
      value: 0.25
    }
    beta_filler {
      type: "constant"
      value: 1
    }
    eta_filler {
      type: "constant"
      value: 1
    }
  }
}
layer {
  name: "Convolution22"
  type: "Convolution"
  bottom: "Convolution21"
  top: "Convolution22"
  param {
    lr_mult: 1
    decay_mult: 1
  }
  param {
    lr_mult: 2
    decay_mult: 0
  }
  convolution_param {
    num_output: 32
    pad: 1
    kernel_size: 3
    stride: 1
    weight_filler {
      type: "gaussian"
      std: 0.083
    }
    bias_filler {
      type: "constant"
      value: 0
    }
  }
}
layer {
  name: "BatchNorm22"
  type: "BatchNorm"
  bottom: "Convolution22"
  top: "Convolution22"
  param {
    lr_mult: 0
    decay_mult: 0
  }
  param {
    lr_mult: 0
    decay_mult: 0
  }
  param {
    lr_mult: 0
    decay_mult: 0
  }
}
layer {
  name: "Scale22"
  type: "Scale"
  bottom: "Convolution22"
  top: "Convolution22"
  scale_param {
    bias_term: true
  }
}
layer {
  name: "Eltwise10"
  type: "Eltwise"
  bottom: "Convolution20"
  bottom: "Convolution22"
  top: "Eltwise10"
  eltwise_param {
    operation: SUM
  }
}
layer {
  name: "penlu21"
  type: "PENLU"
  bottom: "Eltwise10"
  top: "Eltwise10"
  param {
    lr_mult: 2
    decay_mult: 0
  }
  param {
    lr_mult: 2
    decay_mult: 0
  }
  param {
    lr_mult: 2
    decay_mult: 0
  }
  penlu_param {
    alpha_filler {
      type: "constant"
      value: 0.25
    }
    beta_filler {
      type: "constant"
      value: 1
    }
    eta_filler {
      type: "constant"
      value: 1
    }
  }
}
layer {
  name: "Convolution23"
  type: "Convolution"
  bottom: "Eltwise10"
  top: "Convolution23"
  param {
    lr_mult: 1
    decay_mult: 1
  }
  param {
    lr_mult: 2
    decay_mult: 0
  }
  convolution_param {
    num_output: 32
    pad: 1
    kernel_size: 3
    stride: 1
    weight_filler {
      type: "gaussian"
      std: 0.083
    }
    bias_filler {
      type: "constant"
      value: 0
    }
  }
}
layer {
  name: "BatchNorm23"
  type: "BatchNorm"
  bottom: "Convolution23"
  top: "Convolution23"
  param {
    lr_mult: 0
    decay_mult: 0
  }
  param {
    lr_mult: 0
    decay_mult: 0
  }
  param {
    lr_mult: 0
    decay_mult: 0
  }
}
layer {
  name: "Scale23"
  type: "Scale"
  bottom: "Convolution23"
  top: "Convolution23"
  scale_param {
    bias_term: true
  }
}
layer {
  name: "penlu22"
  type: "PENLU"
  bottom: "Convolution23"
  top: "Convolution23"
  param {
    lr_mult: 2
    decay_mult: 0
  }
  param {
    lr_mult: 2
    decay_mult: 0
  }
  param {
    lr_mult: 2
    decay_mult: 0
  }
  penlu_param {
    alpha_filler {
      type: "constant"
      value: 0.25
    }
    beta_filler {
      type: "constant"
      value: 1
    }
    eta_filler {
      type: "constant"
      value: 1
    }
  }
}
layer {
  name: "Convolution24"
  type: "Convolution"
  bottom: "Convolution23"
  top: "Convolution24"
  param {
    lr_mult: 1
    decay_mult: 1
  }
  param {
    lr_mult: 2
    decay_mult: 0
  }
  convolution_param {
    num_output: 32
    pad: 1
    kernel_size: 3
I0925 17:02:38.072950  3155 layer_factory.hpp:77] Creating layer Data1
I0925 17:02:38.073025  3155 db_lmdb.cpp:35] Opened lmdb /home/x306/caffe/xn/PENLU/data/cifar10/cifar10_train_lmdb
I0925 17:02:38.073045  3155 net.cpp:84] Creating Layer Data1
I0925 17:02:38.073050  3155 net.cpp:380] Data1 -> Data1
I0925 17:02:38.073067  3155 net.cpp:380] Data1 -> Data2
I0925 17:02:38.073076  3155 data_transformer.cpp:25] Loading mean file from: /home/x306/caffe/xn/PENLU/data/cifar10/mean.binaryproto
I0925 17:02:38.074484  3155 data_layer.cpp:45] output data size: 100,3,28,28
I0925 17:02:38.076773  3155 net.cpp:122] Setting up Data1
I0925 17:02:38.076787  3155 net.cpp:129] Top shape: 100 3 28 28 (235200)
I0925 17:02:38.076792  3155 net.cpp:129] Top shape: 100 (100)
I0925 17:02:38.076793  3155 net.cpp:137] Memory required for data: 941200
I0925 17:02:38.076799  3155 layer_factory.hpp:77] Creating layer Convolution1
I0925 17:02:38.076818  3155 net.cpp:84] Creating Layer Convolution1
I0925 17:02:38.076822  3155 net.cpp:406] Convolution1 <- Data1
I0925 17:02:38.076831  3155 net.cpp:380] Convolution1 -> Convolution1
I0925 17:02:38.222839  3155 net.cpp:122] Setting up Convolution1
I0925 17:02:38.222862  3155 net.cpp:129] Top shape: 100 16 28 28 (1254400)
I0925 17:02:38.222865  3155 net.cpp:137] Memory required for data: 5958800
I0925 17:02:38.222880  3155 layer_factory.hpp:77] Creating layer BatchNorm1
I0925 17:02:38.222901  3155 net.cpp:84] Creating Layer BatchNorm1
I0925 17:02:38.222916  3155 net.cpp:406] BatchNorm1 <- Convolution1
I0925 17:02:38.222931  3155 net.cpp:367] BatchNorm1 -> Convolution1 (in-place)
I0925 17:02:38.223100  3155 net.cpp:122] Setting up BatchNorm1
I0925 17:02:38.223105  3155 net.cpp:129] Top shape: 100 16 28 28 (1254400)
I0925 17:02:38.223109  3155 net.cpp:137] Memory required for data: 10976400
I0925 17:02:38.223115  3155 layer_factory.hpp:77] Creating layer Scale1
I0925 17:02:38.223134  3155 net.cpp:84] Creating Layer Scale1
I0925 17:02:38.223139  3155 net.cpp:406] Scale1 <- Convolution1
I0925 17:02:38.223142  3155 net.cpp:367] Scale1 -> Convolution1 (in-place)
I0925 17:02:38.223201  3155 layer_factory.hpp:77] Creating layer Scale1
I0925 17:02:38.223299  3155 net.cpp:122] Setting up Scale1
I0925 17:02:38.223304  3155 net.cpp:129] Top shape: 100 16 28 28 (1254400)
I0925 17:02:38.223316  3155 net.cpp:137] Memory required for data: 15994000
I0925 17:02:38.223321  3155 layer_factory.hpp:77] Creating layer penlu1
I0925 17:02:38.223330  3155 net.cpp:84] Creating Layer penlu1
I0925 17:02:38.223333  3155 net.cpp:406] penlu1 <- Convolution1
I0925 17:02:38.223336  3155 net.cpp:367] penlu1 -> Convolution1 (in-place)
I0925 17:02:38.223968  3155 net.cpp:122] Setting up penlu1
I0925 17:02:38.223978  3155 net.cpp:129] Top shape: 100 16 28 28 (1254400)
I0925 17:02:38.223980  3155 net.cpp:137] Memory required for data: 21011600
I0925 17:02:38.223989  3155 layer_factory.hpp:77] Creating layer Convolution1_penlu1_0_split
I0925 17:02:38.224005  3155 net.cpp:84] Creating Layer Convolution1_penlu1_0_split
I0925 17:02:38.224009  3155 net.cpp:406] Convolution1_penlu1_0_split <- Convolution1
I0925 17:02:38.224014  3155 net.cpp:380] Convolution1_penlu1_0_split -> Convolution1_penlu1_0_split_0
I0925 17:02:38.224028  3155 net.cpp:380] Convolution1_penlu1_0_split -> Convolution1_penlu1_0_split_1
I0925 17:02:38.224072  3155 net.cpp:122] Setting up Convolution1_penlu1_0_split
I0925 17:02:38.224086  3155 net.cpp:129] Top shape: 100 16 28 28 (1254400)
I0925 17:02:38.224089  3155 net.cpp:129] Top shape: 100 16 28 28 (1254400)
I0925 17:02:38.224092  3155 net.cpp:137] Memory required for data: 31046800
I0925 17:02:38.224093  3155 layer_factory.hpp:77] Creating layer Convolution2
I0925 17:02:38.224112  3155 net.cpp:84] Creating Layer Convolution2
I0925 17:02:38.224128  3155 net.cpp:406] Convolution2 <- Convolution1_penlu1_0_split_0
I0925 17:02:38.224133  3155 net.cpp:380] Convolution2 -> Convolution2
I0925 17:02:38.225025  3155 net.cpp:122] Setting up Convolution2
I0925 17:02:38.225035  3155 net.cpp:129] Top shape: 100 16 28 28 (1254400)
I0925 17:02:38.225039  3155 net.cpp:137] Memory required for data: 36064400
I0925 17:02:38.225044  3155 layer_factory.hpp:77] Creating layer BatchNorm2
I0925 17:02:38.225047  3155 net.cpp:84] Creating Layer BatchNorm2
I0925 17:02:38.225050  3155 net.cpp:406] BatchNorm2 <- Convolution2
I0925 17:02:38.225064  3155 net.cpp:367] BatchNorm2 -> Convolution2 (in-place)
I0925 17:02:38.225213  3155 net.cpp:122] Setting up BatchNorm2
I0925 17:02:38.225217  3155 net.cpp:129] Top shape: 100 16 28 28 (1254400)
I0925 17:02:38.225219  3155 net.cpp:137] Memory required for data: 41082000
I0925 17:02:38.225224  3155 layer_factory.hpp:77] Creating layer Scale2
I0925 17:02:38.225229  3155 net.cpp:84] Creating Layer Scale2
I0925 17:02:38.225231  3155 net.cpp:406] Scale2 <- Convolution2
I0925 17:02:38.225235  3155 net.cpp:367] Scale2 -> Convolution2 (in-place)
I0925 17:02:38.225280  3155 layer_factory.hpp:77] Creating layer Scale2
I0925 17:02:38.225390  3155 net.cpp:122] Setting up Scale2
I0925 17:02:38.225394  3155 net.cpp:129] Top shape: 100 16 28 28 (1254400)
I0925 17:02:38.225396  3155 net.cpp:137] Memory required for data: 46099600
I0925 17:02:38.225402  3155 layer_factory.hpp:77] Creating layer penlu2
I0925 17:02:38.225407  3155 net.cpp:84] Creating Layer penlu2
I0925 17:02:38.225410  3155 net.cpp:406] penlu2 <- Convolution2
I0925 17:02:38.225425  3155 net.cpp:367] penlu2 -> Convolution2 (in-place)
I0925 17:02:38.225554  3155 net.cpp:122] Setting up penlu2
I0925 17:02:38.225559  3155 net.cpp:129] Top shape: 100 16 28 28 (1254400)
I0925 17:02:38.225569  3155 net.cpp:137] Memory required for data: 51117200
I0925 17:02:38.225574  3155 layer_factory.hpp:77] Creating layer Convolution3
I0925 17:02:38.225590  3155 net.cpp:84] Creating Layer Convolution3
I0925 17:02:38.225594  3155 net.cpp:406] Convolution3 <- Convolution2
I0925 17:02:38.225597  3155 net.cpp:380] Convolution3 -> Convolution3
I0925 17:02:38.226449  3155 net.cpp:122] Setting up Convolution3
I0925 17:02:38.226459  3155 net.cpp:129] Top shape: 100 16 28 28 (1254400)
I0925 17:02:38.226461  3155 net.cpp:137] Memory required for data: 56134800
I0925 17:02:38.226466  3155 layer_factory.hpp:77] Creating layer BatchNorm3
I0925 17:02:38.226471  3155 net.cpp:84] Creating Layer BatchNorm3
I0925 17:02:38.226474  3155 net.cpp:406] BatchNorm3 <- Convolution3
I0925 17:02:38.226487  3155 net.cpp:367] BatchNorm3 -> Convolution3 (in-place)
I0925 17:02:38.226619  3155 net.cpp:122] Setting up BatchNorm3
I0925 17:02:38.226624  3155 net.cpp:129] Top shape: 100 16 28 28 (1254400)
I0925 17:02:38.226626  3155 net.cpp:137] Memory required for data: 61152400
I0925 17:02:38.226630  3155 layer_factory.hpp:77] Creating layer Scale3
I0925 17:02:38.226634  3155 net.cpp:84] Creating Layer Scale3
I0925 17:02:38.226636  3155 net.cpp:406] Scale3 <- Convolution3
I0925 17:02:38.226640  3155 net.cpp:367] Scale3 -> Convolution3 (in-place)
I0925 17:02:38.226685  3155 layer_factory.hpp:77] Creating layer Scale3
I0925 17:02:38.226779  3155 net.cpp:122] Setting up Scale3
I0925 17:02:38.226785  3155 net.cpp:129] Top shape: 100 16 28 28 (1254400)
I0925 17:02:38.226788  3155 net.cpp:137] Memory required for data: 66170000
I0925 17:02:38.226790  3155 layer_factory.hpp:77] Creating layer Eltwise1
I0925 17:02:38.226795  3155 net.cpp:84] Creating Layer Eltwise1
I0925 17:02:38.226797  3155 net.cpp:406] Eltwise1 <- Convolution1_penlu1_0_split_1
I0925 17:02:38.226812  3155 net.cpp:406] Eltwise1 <- Convolution3
I0925 17:02:38.226815  3155 net.cpp:380] Eltwise1 -> Eltwise1
I0925 17:02:38.226843  3155 net.cpp:122] Setting up Eltwise1
I0925 17:02:38.226847  3155 net.cpp:129] Top shape: 100 16 28 28 (1254400)
I0925 17:02:38.226850  3155 net.cpp:137] Memory required for data: 71187600
I0925 17:02:38.226851  3155 layer_factory.hpp:77] Creating layer penlu3
I0925 17:02:38.226857  3155 net.cpp:84] Creating Layer penlu3
I0925 17:02:38.226860  3155 net.cpp:406] penlu3 <- Eltwise1
I0925 17:02:38.226876  3155 net.cpp:367] penlu3 -> Eltwise1 (in-place)
I0925 17:02:38.226982  3155 net.cpp:122] Setting up penlu3
I0925 17:02:38.226986  3155 net.cpp:129] Top shape: 100 16 28 28 (1254400)
I0925 17:02:38.226989  3155 net.cpp:137] Memory required for data: 76205200
I0925 17:02:38.227005  3155 layer_factory.hpp:77] Creating layer Eltwise1_penlu3_0_split
I0925 17:02:38.227010  3155 net.cpp:84] Creating Layer Eltwise1_penlu3_0_split
I0925 17:02:38.227013  3155 net.cpp:406] Eltwise1_penlu3_0_split <- Eltwise1
I0925 17:02:38.227017  3155 net.cpp:380] Eltwise1_penlu3_0_split -> Eltwise1_penlu3_0_split_0
I0925 17:02:38.227022  3155 net.cpp:380] Eltwise1_penlu3_0_split -> Eltwise1_penlu3_0_split_1
I0925 17:02:38.227052  3155 net.cpp:122] Setting up Eltwise1_penlu3_0_split
I0925 17:02:38.227057  3155 net.cpp:129] Top shape: 100 16 28 28 (1254400)
I0925 17:02:38.227071  3155 net.cpp:129] Top shape: 100 16 28 28 (1254400)
I0925 17:02:38.227073  3155 net.cpp:137] Memory required for data: 86240400
I0925 17:02:38.227077  3155 layer_factory.hpp:77] Creating layer Convolution4
I0925 17:02:38.227084  3155 net.cpp:84] Creating Layer Convolution4
I0925 17:02:38.227087  3155 net.cpp:406] Convolution4 <- Eltwise1_penlu3_0_split_0
I0925 17:02:38.227092  3155 net.cpp:380] Convolution4 -> Convolution4
I0925 17:02:38.227959  3155 net.cpp:122] Setting up Convolution4
I0925 17:02:38.227969  3155 net.cpp:129] Top shape: 100 16 28 28 (1254400)
I0925 17:02:38.227972  3155 net.cpp:137] Memory required for data: 91258000
I0925 17:02:38.227977  3155 layer_factory.hpp:77] Creating layer BatchNorm4
I0925 17:02:38.227983  3155 net.cpp:84] Creating Layer BatchNorm4
I0925 17:02:38.227994  3155 net.cpp:406] BatchNorm4 <- Convolution4
I0925 17:02:38.227998  3155 net.cpp:367] BatchNorm4 -> Convolution4 (in-place)
I0925 17:02:38.228121  3155 net.cpp:122] Setting up BatchNorm4
I0925 17:02:38.228126  3155 net.cpp:129] Top shape: 100 16 28 28 (1254400)
I0925 17:02:38.228128  3155 net.cpp:137] Memory required for data: 96275600
I0925 17:02:38.228137  3155 layer_factory.hpp:77] Creating layer Scale4
I0925 17:02:38.228142  3155 net.cpp:84] Creating Layer Scale4
I0925 17:02:38.228147  3155 net.cpp:406] Scale4 <- Convolution4
I0925 17:02:38.228149  3155 net.cpp:367] Scale4 -> Convolution4 (in-place)
I0925 17:02:38.228176  3155 layer_factory.hpp:77] Creating layer Scale4
I0925 17:02:38.228248  3155 net.cpp:122] Setting up Scale4
I0925 17:02:38.228253  3155 net.cpp:129] Top shape: 100 16 28 28 (1254400)
I0925 17:02:38.228256  3155 net.cpp:137] Memory required for data: 101293200
I0925 17:02:38.228260  3155 layer_factory.hpp:77] Creating layer penlu4
I0925 17:02:38.228266  3155 net.cpp:84] Creating Layer penlu4
I0925 17:02:38.228269  3155 net.cpp:406] penlu4 <- Convolution4
I0925 17:02:38.228273  3155 net.cpp:367] penlu4 -> Convolution4 (in-place)
I0925 17:02:38.228370  3155 net.cpp:122] Setting up penlu4
I0925 17:02:38.228375  3155 net.cpp:129] Top shape: 100 16 28 28 (1254400)
I0925 17:02:38.228379  3155 net.cpp:137] Memory required for data: 106310800
I0925 17:02:38.228382  3155 layer_factory.hpp:77] Creating layer Convolution5
I0925 17:02:38.228389  3155 net.cpp:84] Creating Layer Convolution5
I0925 17:02:38.228392  3155 net.cpp:406] Convolution5 <- Convolution4
I0925 17:02:38.228396  3155 net.cpp:380] Convolution5 -> Convolution5
I0925 17:02:38.229270  3155 net.cpp:122] Setting up Convolution5
I0925 17:02:38.229280  3155 net.cpp:129] Top shape: 100 16 28 28 (1254400)
I0925 17:02:38.229284  3155 net.cpp:137] Memory required for data: 111328400
I0925 17:02:38.229288  3155 layer_factory.hpp:77] Creating layer BatchNorm5
I0925 17:02:38.229293  3155 net.cpp:84] Creating Layer BatchNorm5
I0925 17:02:38.229297  3155 net.cpp:406] BatchNorm5 <- Convolution5
I0925 17:02:38.229301  3155 net.cpp:367] BatchNorm5 -> Convolution5 (in-place)
I0925 17:02:38.229429  3155 net.cpp:122] Setting up BatchNorm5
I0925 17:02:38.229434  3155 net.cpp:129] Top shape: 100 16 28 28 (1254400)
I0925 17:02:38.229436  3155 net.cpp:137] Memory required for data: 116346000
I0925 17:02:38.229440  3155 layer_factory.hpp:77] Creating layer Scale5
I0925 17:02:38.229445  3155 net.cpp:84] Creating Layer Scale5
I0925 17:02:38.229449  3155 net.cpp:406] Scale5 <- Convolution5
I0925 17:02:38.229452  3155 net.cpp:367] Scale5 -> Convolution5 (in-place)
I0925 17:02:38.229477  3155 layer_factory.hpp:77] Creating layer Scale5
I0925 17:02:38.229552  3155 net.cpp:122] Setting up Scale5
I0925 17:02:38.229557  3155 net.cpp:129] Top shape: 100 16 28 28 (1254400)
I0925 17:02:38.229558  3155 net.cpp:137] Memory required for data: 121363600
I0925 17:02:38.229562  3155 layer_factory.hpp:77] Creating layer Eltwise2
I0925 17:02:38.229567  3155 net.cpp:84] Creating Layer Eltwise2
I0925 17:02:38.229568  3155 net.cpp:406] Eltwise2 <- Eltwise1_penlu3_0_split_1
I0925 17:02:38.229573  3155 net.cpp:406] Eltwise2 <- Convolution5
I0925 17:02:38.229576  3155 net.cpp:380] Eltwise2 -> Eltwise2
I0925 17:02:38.229591  3155 net.cpp:122] Setting up Eltwise2
I0925 17:02:38.229595  3155 net.cpp:129] Top shape: 100 16 28 28 (1254400)
I0925 17:02:38.229598  3155 net.cpp:137] Memory required for data: 126381200
I0925 17:02:38.229600  3155 layer_factory.hpp:77] Creating layer penlu5
I0925 17:02:38.229605  3155 net.cpp:84] Creating Layer penlu5
I0925 17:02:38.229609  3155 net.cpp:406] penlu5 <- Eltwise2
I0925 17:02:38.229612  3155 net.cpp:367] penlu5 -> Eltwise2 (in-place)
I0925 17:02:38.229717  3155 net.cpp:122] Setting up penlu5
I0925 17:02:38.229722  3155 net.cpp:129] Top shape: 100 16 28 28 (1254400)
I0925 17:02:38.229725  3155 net.cpp:137] Memory required for data: 131398800
I0925 17:02:38.229729  3155 layer_factory.hpp:77] Creating layer Eltwise2_penlu5_0_split
I0925 17:02:38.229734  3155 net.cpp:84] Creating Layer Eltwise2_penlu5_0_split
I0925 17:02:38.229743  3155 net.cpp:406] Eltwise2_penlu5_0_split <- Eltwise2
I0925 17:02:38.229748  3155 net.cpp:380] Eltwise2_penlu5_0_split -> Eltwise2_penlu5_0_split_0
I0925 17:02:38.229753  3155 net.cpp:380] Eltwise2_penlu5_0_split -> Eltwise2_penlu5_0_split_1
I0925 17:02:38.229775  3155 net.cpp:122] Setting up Eltwise2_penlu5_0_split
I0925 17:02:38.229779  3155 net.cpp:129] Top shape: 100 16 28 28 (1254400)
I0925 17:02:38.229784  3155 net.cpp:129] Top shape: 100 16 28 28 (1254400)
I0925 17:02:38.229786  3155 net.cpp:137] Memory required for data: 141434000
I0925 17:02:38.229789  3155 layer_factory.hpp:77] Creating layer Convolution6
I0925 17:02:38.229794  3155 net.cpp:84] Creating Layer Convolution6
I0925 17:02:38.229797  3155 net.cpp:406] Convolution6 <- Eltwise2_penlu5_0_split_0
I0925 17:02:38.229801  3155 net.cpp:380] Convolution6 -> Convolution6
I0925 17:02:38.230671  3155 net.cpp:122] Setting up Convolution6
I0925 17:02:38.230681  3155 net.cpp:129] Top shape: 100 16 28 28 (1254400)
I0925 17:02:38.230684  3155 net.cpp:137] Memory required for data: 146451600
I0925 17:02:38.230690  3155 layer_factory.hpp:77] Creating layer BatchNorm6
I0925 17:02:38.230695  3155 net.cpp:84] Creating Layer BatchNorm6
I0925 17:02:38.230697  3155 net.cpp:406] BatchNorm6 <- Convolution6
I0925 17:02:38.230701  3155 net.cpp:367] BatchNorm6 -> Convolution6 (in-place)
I0925 17:02:38.230831  3155 net.cpp:122] Setting up BatchNorm6
I0925 17:02:38.230836  3155 net.cpp:129] Top shape: 100 16 28 28 (1254400)
I0925 17:02:38.230839  3155 net.cpp:137] Memory required for data: 151469200
I0925 17:02:38.230844  3155 layer_factory.hpp:77] Creating layer Scale6
I0925 17:02:38.230849  3155 net.cpp:84] Creating Layer Scale6
I0925 17:02:38.230851  3155 net.cpp:406] Scale6 <- Convolution6
I0925 17:02:38.230855  3155 net.cpp:367] Scale6 -> Convolution6 (in-place)
I0925 17:02:38.230880  3155 layer_factory.hpp:77] Creating layer Scale6
I0925 17:02:38.230955  3155 net.cpp:122] Setting up Scale6
I0925 17:02:38.230960  3155 net.cpp:129] Top shape: 100 16 28 28 (1254400)
I0925 17:02:38.230963  3155 net.cpp:137] Memory required for data: 156486800
I0925 17:02:38.230967  3155 layer_factory.hpp:77] Creating layer penlu6
I0925 17:02:38.230973  3155 net.cpp:84] Creating Layer penlu6
I0925 17:02:38.230976  3155 net.cpp:406] penlu6 <- Convolution6
I0925 17:02:38.230979  3155 net.cpp:367] penlu6 -> Convolution6 (in-place)
I0925 17:02:38.231084  3155 net.cpp:122] Setting up penlu6
I0925 17:02:38.231089  3155 net.cpp:129] Top shape: 100 16 28 28 (1254400)
I0925 17:02:38.231092  3155 net.cpp:137] Memory required for data: 161504400
I0925 17:02:38.231096  3155 layer_factory.hpp:77] Creating layer Convolution7
I0925 17:02:38.231104  3155 net.cpp:84] Creating Layer Convolution7
I0925 17:02:38.231107  3155 net.cpp:406] Convolution7 <- Convolution6
I0925 17:02:38.231112  3155 net.cpp:380] Convolution7 -> Convolution7
I0925 17:02:38.231662  3155 net.cpp:122] Setting up Convolution7
I0925 17:02:38.231669  3155 net.cpp:129] Top shape: 100 16 28 28 (1254400)
I0925 17:02:38.231673  3155 net.cpp:137] Memory required for data: 166522000
I0925 17:02:38.231678  3155 layer_factory.hpp:77] Creating layer BatchNorm7
I0925 17:02:38.231683  3155 net.cpp:84] Creating Layer BatchNorm7
I0925 17:02:38.231686  3155 net.cpp:406] BatchNorm7 <- Convolution7
I0925 17:02:38.231690  3155 net.cpp:367] BatchNorm7 -> Convolution7 (in-place)
I0925 17:02:38.231815  3155 net.cpp:122] Setting up BatchNorm7
I0925 17:02:38.231820  3155 net.cpp:129] Top shape: 100 16 28 28 (1254400)
I0925 17:02:38.231823  3155 net.cpp:137] Memory required for data: 171539600
I0925 17:02:38.231833  3155 layer_factory.hpp:77] Creating layer Scale7
I0925 17:02:38.231840  3155 net.cpp:84] Creating Layer Scale7
I0925 17:02:38.231843  3155 net.cpp:406] Scale7 <- Convolution7
I0925 17:02:38.231847  3155 net.cpp:367] Scale7 -> Convolution7 (in-place)
I0925 17:02:38.231873  3155 layer_factory.hpp:77] Creating layer Scale7
I0925 17:02:38.231950  3155 net.cpp:122] Setting up Scale7
I0925 17:02:38.231961  3155 net.cpp:129] Top shape: 100 16 28 28 (1254400)
I0925 17:02:38.231964  3155 net.cpp:137] Memory required for data: 176557200
I0925 17:02:38.231968  3155 layer_factory.hpp:77] Creating layer Eltwise3
I0925 17:02:38.231972  3155 net.cpp:84] Creating Layer Eltwise3
I0925 17:02:38.231976  3155 net.cpp:406] Eltwise3 <- Eltwise2_penlu5_0_split_1
I0925 17:02:38.231978  3155 net.cpp:406] Eltwise3 <- Convolution7
I0925 17:02:38.231982  3155 net.cpp:380] Eltwise3 -> Eltwise3
I0925 17:02:38.231998  3155 net.cpp:122] Setting up Eltwise3
I0925 17:02:38.232002  3155 net.cpp:129] Top shape: 100 16 28 28 (1254400)
I0925 17:02:38.232005  3155 net.cpp:137] Memory required for data: 181574800
I0925 17:02:38.232007  3155 layer_factory.hpp:77] Creating layer penlu7
I0925 17:02:38.232013  3155 net.cpp:84] Creating Layer penlu7
I0925 17:02:38.232017  3155 net.cpp:406] penlu7 <- Eltwise3
I0925 17:02:38.232019  3155 net.cpp:367] penlu7 -> Eltwise3 (in-place)
I0925 17:02:38.232125  3155 net.cpp:122] Setting up penlu7
I0925 17:02:38.232130  3155 net.cpp:129] Top shape: 100 16 28 28 (1254400)
I0925 17:02:38.232132  3155 net.cpp:137] Memory required for data: 186592400
I0925 17:02:38.232136  3155 layer_factory.hpp:77] Creating layer Eltwise3_penlu7_0_split
I0925 17:02:38.232141  3155 net.cpp:84] Creating Layer Eltwise3_penlu7_0_split
I0925 17:02:38.232143  3155 net.cpp:406] Eltwise3_penlu7_0_split <- Eltwise3
I0925 17:02:38.232147  3155 net.cpp:380] Eltwise3_penlu7_0_split -> Eltwise3_penlu7_0_split_0
I0925 17:02:38.232152  3155 net.cpp:380] Eltwise3_penlu7_0_split -> Eltwise3_penlu7_0_split_1
I0925 17:02:38.232173  3155 net.cpp:122] Setting up Eltwise3_penlu7_0_split
I0925 17:02:38.232177  3155 net.cpp:129] Top shape: 100 16 28 28 (1254400)
I0925 17:02:38.232180  3155 net.cpp:129] Top shape: 100 16 28 28 (1254400)
I0925 17:02:38.232183  3155 net.cpp:137] Memory required for data: 196627600
I0925 17:02:38.232187  3155 layer_factory.hpp:77] Creating layer Convolution8
I0925 17:02:38.232192  3155 net.cpp:84] Creating Layer Convolution8
I0925 17:02:38.232195  3155 net.cpp:406] Convolution8 <- Eltwise3_penlu7_0_split_0
I0925 17:02:38.232199  3155 net.cpp:380] Convolution8 -> Convolution8
I0925 17:02:38.233116  3155 net.cpp:122] Setting up Convolution8
I0925 17:02:38.233126  3155 net.cpp:129] Top shape: 100 16 28 28 (1254400)
I0925 17:02:38.233130  3155 net.cpp:137] Memory required for data: 201645200
I0925 17:02:38.233134  3155 layer_factory.hpp:77] Creating layer BatchNorm8
I0925 17:02:38.233140  3155 net.cpp:84] Creating Layer BatchNorm8
I0925 17:02:38.233144  3155 net.cpp:406] BatchNorm8 <- Convolution8
I0925 17:02:38.233147  3155 net.cpp:367] BatchNorm8 -> Convolution8 (in-place)
I0925 17:02:38.233280  3155 net.cpp:122] Setting up BatchNorm8
I0925 17:02:38.233285  3155 net.cpp:129] Top shape: 100 16 28 28 (1254400)
I0925 17:02:38.233297  3155 net.cpp:137] Memory required for data: 206662800
I0925 17:02:38.233302  3155 layer_factory.hpp:77] Creating layer Scale8
I0925 17:02:38.233306  3155 net.cpp:84] Creating Layer Scale8
I0925 17:02:38.233309  3155 net.cpp:406] Scale8 <- Convolution8
I0925 17:02:38.233314  3155 net.cpp:367] Scale8 -> Convolution8 (in-place)
I0925 17:02:38.233348  3155 layer_factory.hpp:77] Creating layer Scale8
I0925 17:02:38.233441  3155 net.cpp:122] Setting up Scale8
I0925 17:02:38.233446  3155 net.cpp:129] Top shape: 100 16 28 28 (1254400)
I0925 17:02:38.233458  3155 net.cpp:137] Memory required for data: 211680400
I0925 17:02:38.233461  3155 layer_factory.hpp:77] Creating layer penlu8
I0925 17:02:38.233467  3155 net.cpp:84] Creating Layer penlu8
I0925 17:02:38.233470  3155 net.cpp:406] penlu8 <- Convolution8
I0925 17:02:38.233474  3155 net.cpp:367] penlu8 -> Convolution8 (in-place)
I0925 17:02:38.233587  3155 net.cpp:122] Setting up penlu8
I0925 17:02:38.233592  3155 net.cpp:129] Top shape: 100 16 28 28 (1254400)
I0925 17:02:38.233595  3155 net.cpp:137] Memory required for data: 216698000
I0925 17:02:38.233599  3155 layer_factory.hpp:77] Creating layer Convolution9
I0925 17:02:38.233608  3155 net.cpp:84] Creating Layer Convolution9
I0925 17:02:38.233618  3155 net.cpp:406] Convolution9 <- Convolution8
I0925 17:02:38.233623  3155 net.cpp:380] Convolution9 -> Convolution9
I0925 17:02:38.234541  3155 net.cpp:122] Setting up Convolution9
I0925 17:02:38.234551  3155 net.cpp:129] Top shape: 100 16 28 28 (1254400)
I0925 17:02:38.234555  3155 net.cpp:137] Memory required for data: 221715600
I0925 17:02:38.234558  3155 layer_factory.hpp:77] Creating layer BatchNorm9
I0925 17:02:38.234565  3155 net.cpp:84] Creating Layer BatchNorm9
I0925 17:02:38.234567  3155 net.cpp:406] BatchNorm9 <- Convolution9
I0925 17:02:38.234572  3155 net.cpp:367] BatchNorm9 -> Convolution9 (in-place)
I0925 17:02:38.234724  3155 net.cpp:122] Setting up BatchNorm9
I0925 17:02:38.234730  3155 net.cpp:129] Top shape: 100 16 28 28 (1254400)
I0925 17:02:38.234732  3155 net.cpp:137] Memory required for data: 226733200
I0925 17:02:38.234737  3155 layer_factory.hpp:77] Creating layer Scale9
I0925 17:02:38.234742  3155 net.cpp:84] Creating Layer Scale9
I0925 17:02:38.234745  3155 net.cpp:406] Scale9 <- Convolution9
I0925 17:02:38.234748  3155 net.cpp:367] Scale9 -> Convolution9 (in-place)
I0925 17:02:38.234774  3155 layer_factory.hpp:77] Creating layer Scale9
I0925 17:02:38.234854  3155 net.cpp:122] Setting up Scale9
I0925 17:02:38.234859  3155 net.cpp:129] Top shape: 100 16 28 28 (1254400)
I0925 17:02:38.234861  3155 net.cpp:137] Memory required for data: 231750800
I0925 17:02:38.234865  3155 layer_factory.hpp:77] Creating layer Eltwise4
I0925 17:02:38.234870  3155 net.cpp:84] Creating Layer Eltwise4
I0925 17:02:38.234874  3155 net.cpp:406] Eltwise4 <- Eltwise3_penlu7_0_split_1
I0925 17:02:38.234876  3155 net.cpp:406] Eltwise4 <- Convolution9
I0925 17:02:38.234880  3155 net.cpp:380] Eltwise4 -> Eltwise4
I0925 17:02:38.234896  3155 net.cpp:122] Setting up Eltwise4
I0925 17:02:38.234900  3155 net.cpp:129] Top shape: 100 16 28 28 (1254400)
I0925 17:02:38.234904  3155 net.cpp:137] Memory required for data: 236768400
I0925 17:02:38.234906  3155 layer_factory.hpp:77] Creating layer penlu9
I0925 17:02:38.234911  3155 net.cpp:84] Creating Layer penlu9
I0925 17:02:38.234915  3155 net.cpp:406] penlu9 <- Eltwise4
I0925 17:02:38.234918  3155 net.cpp:367] penlu9 -> Eltwise4 (in-place)
I0925 17:02:38.235026  3155 net.cpp:122] Setting up penlu9
I0925 17:02:38.235031  3155 net.cpp:129] Top shape: 100 16 28 28 (1254400)
I0925 17:02:38.235034  3155 net.cpp:137] Memory required for data: 241786000
I0925 17:02:38.235039  3155 layer_factory.hpp:77] Creating layer Eltwise4_penlu9_0_split
I0925 17:02:38.235044  3155 net.cpp:84] Creating Layer Eltwise4_penlu9_0_split
I0925 17:02:38.235046  3155 net.cpp:406] Eltwise4_penlu9_0_split <- Eltwise4
I0925 17:02:38.235049  3155 net.cpp:380] Eltwise4_penlu9_0_split -> Eltwise4_penlu9_0_split_0
I0925 17:02:38.235054  3155 net.cpp:380] Eltwise4_penlu9_0_split -> Eltwise4_penlu9_0_split_1
I0925 17:02:38.235077  3155 net.cpp:122] Setting up Eltwise4_penlu9_0_split
I0925 17:02:38.235081  3155 net.cpp:129] Top shape: 100 16 28 28 (1254400)
I0925 17:02:38.235085  3155 net.cpp:129] Top shape: 100 16 28 28 (1254400)
I0925 17:02:38.235090  3155 net.cpp:137] Memory required for data: 251821200
I0925 17:02:38.235091  3155 layer_factory.hpp:77] Creating layer Convolution10
I0925 17:02:38.235100  3155 net.cpp:84] Creating Layer Convolution10
I0925 17:02:38.235102  3155 net.cpp:406] Convolution10 <- Eltwise4_penlu9_0_split_0
I0925 17:02:38.235106  3155 net.cpp:380] Convolution10 -> Convolution10
I0925 17:02:38.236006  3155 net.cpp:122] Setting up Convolution10
I0925 17:02:38.236016  3155 net.cpp:129] Top shape: 100 16 28 28 (1254400)
I0925 17:02:38.236019  3155 net.cpp:137] Memory required for data: 256838800
I0925 17:02:38.236024  3155 layer_factory.hpp:77] Creating layer BatchNorm10
I0925 17:02:38.236030  3155 net.cpp:84] Creating Layer BatchNorm10
I0925 17:02:38.236033  3155 net.cpp:406] BatchNorm10 <- Convolution10
I0925 17:02:38.236038  3155 net.cpp:367] BatchNorm10 -> Convolution10 (in-place)
I0925 17:02:38.236171  3155 net.cpp:122] Setting up BatchNorm10
I0925 17:02:38.236184  3155 net.cpp:129] Top shape: 100 16 28 28 (1254400)
I0925 17:02:38.236187  3155 net.cpp:137] Memory required for data: 261856400
I0925 17:02:38.236192  3155 layer_factory.hpp:77] Creating layer Scale10
I0925 17:02:38.236197  3155 net.cpp:84] Creating Layer Scale10
I0925 17:02:38.236202  3155 net.cpp:406] Scale10 <- Convolution10
I0925 17:02:38.236204  3155 net.cpp:367] Scale10 -> Convolution10 (in-place)
I0925 17:02:38.236232  3155 layer_factory.hpp:77] Creating layer Scale10
I0925 17:02:38.236310  3155 net.cpp:122] Setting up Scale10
I0925 17:02:38.236315  3155 net.cpp:129] Top shape: 100 16 28 28 (1254400)
I0925 17:02:38.236317  3155 net.cpp:137] Memory required for data: 266874000
I0925 17:02:38.236321  3155 layer_factory.hpp:77] Creating layer penlu10
I0925 17:02:38.236328  3155 net.cpp:84] Creating Layer penlu10
I0925 17:02:38.236331  3155 net.cpp:406] penlu10 <- Convolution10
I0925 17:02:38.236335  3155 net.cpp:367] penlu10 -> Convolution10 (in-place)
I0925 17:02:38.236443  3155 net.cpp:122] Setting up penlu10
I0925 17:02:38.236449  3155 net.cpp:129] Top shape: 100 16 28 28 (1254400)
I0925 17:02:38.236451  3155 net.cpp:137] Memory required for data: 271891600
I0925 17:02:38.236455  3155 layer_factory.hpp:77] Creating layer Convolution11
I0925 17:02:38.236464  3155 net.cpp:84] Creating Layer Convolution11
I0925 17:02:38.236466  3155 net.cpp:406] Convolution11 <- Convolution10
I0925 17:02:38.236470  3155 net.cpp:380] Convolution11 -> Convolution11
I0925 17:02:38.237387  3155 net.cpp:122] Setting up Convolution11
I0925 17:02:38.237398  3155 net.cpp:129] Top shape: 100 16 28 28 (1254400)
I0925 17:02:38.237402  3155 net.cpp:137] Memory required for data: 276909200
I0925 17:02:38.237406  3155 layer_factory.hpp:77] Creating layer BatchNorm11
I0925 17:02:38.237413  3155 net.cpp:84] Creating Layer BatchNorm11
I0925 17:02:38.237417  3155 net.cpp:406] BatchNorm11 <- Convolution11
I0925 17:02:38.237421  3155 net.cpp:367] BatchNorm11 -> Convolution11 (in-place)
I0925 17:02:38.237556  3155 net.cpp:122] Setting up BatchNorm11
I0925 17:02:38.237561  3155 net.cpp:129] Top shape: 100 16 28 28 (1254400)
I0925 17:02:38.237565  3155 net.cpp:137] Memory required for data: 281926800
I0925 17:02:38.237570  3155 layer_factory.hpp:77] Creating layer Scale11
I0925 17:02:38.237574  3155 net.cpp:84] Creating Layer Scale11
I0925 17:02:38.237577  3155 net.cpp:406] Scale11 <- Convolution11
I0925 17:02:38.237581  3155 net.cpp:367] Scale11 -> Convolution11 (in-place)
I0925 17:02:38.237608  3155 layer_factory.hpp:77] Creating layer Scale11
I0925 17:02:38.237687  3155 net.cpp:122] Setting up Scale11
I0925 17:02:38.237692  3155 net.cpp:129] Top shape: 100 16 28 28 (1254400)
I0925 17:02:38.237695  3155 net.cpp:137] Memory required for data: 286944400
I0925 17:02:38.237699  3155 layer_factory.hpp:77] Creating layer Eltwise5
I0925 17:02:38.237704  3155 net.cpp:84] Creating Layer Eltwise5
I0925 17:02:38.237709  3155 net.cpp:406] Eltwise5 <- Eltwise4_penlu9_0_split_1
I0925 17:02:38.237711  3155 net.cpp:406] Eltwise5 <- Convolution11
I0925 17:02:38.237715  3155 net.cpp:380] Eltwise5 -> Eltwise5
I0925 17:02:38.237731  3155 net.cpp:122] Setting up Eltwise5
I0925 17:02:38.237736  3155 net.cpp:129] Top shape: 100 16 28 28 (1254400)
I0925 17:02:38.237738  3155 net.cpp:137] Memory required for data: 291962000
I0925 17:02:38.237741  3155 layer_factory.hpp:77] Creating layer penlu11
I0925 17:02:38.237746  3155 net.cpp:84] Creating Layer penlu11
I0925 17:02:38.237749  3155 net.cpp:406] penlu11 <- Eltwise5
I0925 17:02:38.237753  3155 net.cpp:367] penlu11 -> Eltwise5 (in-place)
I0925 17:02:38.237864  3155 net.cpp:122] Setting up penlu11
I0925 17:02:38.237869  3155 net.cpp:129] Top shape: 100 16 28 28 (1254400)
I0925 17:02:38.237872  3155 net.cpp:137] Memory required for data: 296979600
I0925 17:02:38.237877  3155 layer_factory.hpp:77] Creating layer Eltwise5_penlu11_0_split
I0925 17:02:38.237881  3155 net.cpp:84] Creating Layer Eltwise5_penlu11_0_split
I0925 17:02:38.237884  3155 net.cpp:406] Eltwise5_penlu11_0_split <- Eltwise5
I0925 17:02:38.237895  3155 net.cpp:380] Eltwise5_penlu11_0_split -> Eltwise5_penlu11_0_split_0
I0925 17:02:38.237900  3155 net.cpp:380] Eltwise5_penlu11_0_split -> Eltwise5_penlu11_0_split_1
I0925 17:02:38.237926  3155 net.cpp:122] Setting up Eltwise5_penlu11_0_split
I0925 17:02:38.237929  3155 net.cpp:129] Top shape: 100 16 28 28 (1254400)
I0925 17:02:38.237933  3155 net.cpp:129] Top shape: 100 16 28 28 (1254400)
I0925 17:02:38.237936  3155 net.cpp:137] Memory required for data: 307014800
I0925 17:02:38.237939  3155 layer_factory.hpp:77] Creating layer Convolution12
I0925 17:02:38.237946  3155 net.cpp:84] Creating Layer Convolution12
I0925 17:02:38.237949  3155 net.cpp:406] Convolution12 <- Eltwise5_penlu11_0_split_0
I0925 17:02:38.237954  3155 net.cpp:380] Convolution12 -> Convolution12
I0925 17:02:38.238862  3155 net.cpp:122] Setting up Convolution12
I0925 17:02:38.238873  3155 net.cpp:129] Top shape: 100 16 28 28 (1254400)
I0925 17:02:38.238875  3155 net.cpp:137] Memory required for data: 312032400
I0925 17:02:38.238880  3155 layer_factory.hpp:77] Creating layer BatchNorm12
I0925 17:02:38.238886  3155 net.cpp:84] Creating Layer BatchNorm12
I0925 17:02:38.238890  3155 net.cpp:406] BatchNorm12 <- Convolution12
I0925 17:02:38.238894  3155 net.cpp:367] BatchNorm12 -> Convolution12 (in-place)
I0925 17:02:38.239030  3155 net.cpp:122] Setting up BatchNorm12
I0925 17:02:38.239037  3155 net.cpp:129] Top shape: 100 16 28 28 (1254400)
I0925 17:02:38.239039  3155 net.cpp:137] Memory required for data: 317050000
I0925 17:02:38.239044  3155 layer_factory.hpp:77] Creating layer Scale12
I0925 17:02:38.239049  3155 net.cpp:84] Creating Layer Scale12
I0925 17:02:38.239053  3155 net.cpp:406] Scale12 <- Convolution12
I0925 17:02:38.239056  3155 net.cpp:367] Scale12 -> Convolution12 (in-place)
I0925 17:02:38.239084  3155 layer_factory.hpp:77] Creating layer Scale12
I0925 17:02:38.239162  3155 net.cpp:122] Setting up Scale12
I0925 17:02:38.239167  3155 net.cpp:129] Top shape: 100 16 28 28 (1254400)
I0925 17:02:38.239171  3155 net.cpp:137] Memory required for data: 322067600
I0925 17:02:38.239174  3155 layer_factory.hpp:77] Creating layer penlu12
I0925 17:02:38.239181  3155 net.cpp:84] Creating Layer penlu12
I0925 17:02:38.239183  3155 net.cpp:406] penlu12 <- Convolution12
I0925 17:02:38.239188  3155 net.cpp:367] penlu12 -> Convolution12 (in-place)
I0925 17:02:38.239298  3155 net.cpp:122] Setting up penlu12
I0925 17:02:38.239303  3155 net.cpp:129] Top shape: 100 16 28 28 (1254400)
I0925 17:02:38.239306  3155 net.cpp:137] Memory required for data: 327085200
I0925 17:02:38.239311  3155 layer_factory.hpp:77] Creating layer Convolution13
I0925 17:02:38.239318  3155 net.cpp:84] Creating Layer Convolution13
I0925 17:02:38.239321  3155 net.cpp:406] Convolution13 <- Convolution12
I0925 17:02:38.239326  3155 net.cpp:380] Convolution13 -> Convolution13
I0925 17:02:38.240236  3155 net.cpp:122] Setting up Convolution13
I0925 17:02:38.240247  3155 net.cpp:129] Top shape: 100 16 28 28 (1254400)
I0925 17:02:38.240249  3155 net.cpp:137] Memory required for data: 332102800
I0925 17:02:38.240254  3155 layer_factory.hpp:77] Creating layer BatchNorm13
I0925 17:02:38.240259  3155 net.cpp:84] Creating Layer BatchNorm13
I0925 17:02:38.240262  3155 net.cpp:406] BatchNorm13 <- Convolution13
I0925 17:02:38.240267  3155 net.cpp:367] BatchNorm13 -> Convolution13 (in-place)
I0925 17:02:38.240404  3155 net.cpp:122] Setting up BatchNorm13
I0925 17:02:38.240409  3155 net.cpp:129] Top shape: 100 16 28 28 (1254400)
I0925 17:02:38.240412  3155 net.cpp:137] Memory required for data: 337120400
I0925 17:02:38.240417  3155 layer_factory.hpp:77] Creating layer Scale13
I0925 17:02:38.240422  3155 net.cpp:84] Creating Layer Scale13
I0925 17:02:38.240425  3155 net.cpp:406] Scale13 <- Convolution13
I0925 17:02:38.240429  3155 net.cpp:367] Scale13 -> Convolution13 (in-place)
I0925 17:02:38.240456  3155 layer_factory.hpp:77] Creating layer Scale13
I0925 17:02:38.240545  3155 net.cpp:122] Setting up Scale13
I0925 17:02:38.240551  3155 net.cpp:129] Top shape: 100 16 28 28 (1254400)
I0925 17:02:38.240561  3155 net.cpp:137] Memory required for data: 342138000
I0925 17:02:38.240566  3155 layer_factory.hpp:77] Creating layer Eltwise6
I0925 17:02:38.240571  3155 net.cpp:84] Creating Layer Eltwise6
I0925 17:02:38.240573  3155 net.cpp:406] Eltwise6 <- Eltwise5_penlu11_0_split_1
I0925 17:02:38.240576  3155 net.cpp:406] Eltwise6 <- Convolution13
I0925 17:02:38.240581  3155 net.cpp:380] Eltwise6 -> Eltwise6
I0925 17:02:38.240602  3155 net.cpp:122] Setting up Eltwise6
I0925 17:02:38.240607  3155 net.cpp:129] Top shape: 100 16 28 28 (1254400)
I0925 17:02:38.240609  3155 net.cpp:137] Memory required for data: 347155600
I0925 17:02:38.240612  3155 layer_factory.hpp:77] Creating layer penlu13
I0925 17:02:38.240622  3155 net.cpp:84] Creating Layer penlu13
I0925 17:02:38.240624  3155 net.cpp:406] penlu13 <- Eltwise6
I0925 17:02:38.240628  3155 net.cpp:367] penlu13 -> Eltwise6 (in-place)
I0925 17:02:38.240741  3155 net.cpp:122] Setting up penlu13
I0925 17:02:38.240746  3155 net.cpp:129] Top shape: 100 16 28 28 (1254400)
I0925 17:02:38.240749  3155 net.cpp:137] Memory required for data: 352173200
I0925 17:02:38.240763  3155 layer_factory.hpp:77] Creating layer Eltwise6_penlu13_0_split
I0925 17:02:38.240768  3155 net.cpp:84] Creating Layer Eltwise6_penlu13_0_split
I0925 17:02:38.240772  3155 net.cpp:406] Eltwise6_penlu13_0_split <- Eltwise6
I0925 17:02:38.240777  3155 net.cpp:380] Eltwise6_penlu13_0_split -> Eltwise6_penlu13_0_split_0
I0925 17:02:38.240782  3155 net.cpp:380] Eltwise6_penlu13_0_split -> Eltwise6_penlu13_0_split_1
I0925 17:02:38.240805  3155 net.cpp:122] Setting up Eltwise6_penlu13_0_split
I0925 17:02:38.240809  3155 net.cpp:129] Top shape: 100 16 28 28 (1254400)
I0925 17:02:38.240813  3155 net.cpp:129] Top shape: 100 16 28 28 (1254400)
I0925 17:02:38.240816  3155 net.cpp:137] Memory required for data: 362208400
I0925 17:02:38.240818  3155 layer_factory.hpp:77] Creating layer Convolution14
I0925 17:02:38.240825  3155 net.cpp:84] Creating Layer Convolution14
I0925 17:02:38.240828  3155 net.cpp:406] Convolution14 <- Eltwise6_penlu13_0_split_0
I0925 17:02:38.240833  3155 net.cpp:380] Convolution14 -> Convolution14
I0925 17:02:38.241742  3155 net.cpp:122] Setting up Convolution14
I0925 17:02:38.241751  3155 net.cpp:129] Top shape: 100 16 28 28 (1254400)
I0925 17:02:38.241755  3155 net.cpp:137] Memory required for data: 367226000
I0925 17:02:38.241758  3155 layer_factory.hpp:77] Creating layer BatchNorm14
I0925 17:02:38.241765  3155 net.cpp:84] Creating Layer BatchNorm14
I0925 17:02:38.241767  3155 net.cpp:406] BatchNorm14 <- Convolution14
I0925 17:02:38.241771  3155 net.cpp:367] BatchNorm14 -> Convolution14 (in-place)
I0925 17:02:38.241910  3155 net.cpp:122] Setting up BatchNorm14
I0925 17:02:38.241914  3155 net.cpp:129] Top shape: 100 16 28 28 (1254400)
I0925 17:02:38.241916  3155 net.cpp:137] Memory required for data: 372243600
I0925 17:02:38.241921  3155 layer_factory.hpp:77] Creating layer Scale14
I0925 17:02:38.241926  3155 net.cpp:84] Creating Layer Scale14
I0925 17:02:38.241930  3155 net.cpp:406] Scale14 <- Convolution14
I0925 17:02:38.241932  3155 net.cpp:367] Scale14 -> Convolution14 (in-place)
I0925 17:02:38.241960  3155 layer_factory.hpp:77] Creating layer Scale14
I0925 17:02:38.242040  3155 net.cpp:122] Setting up Scale14
I0925 17:02:38.242044  3155 net.cpp:129] Top shape: 100 16 28 28 (1254400)
I0925 17:02:38.242046  3155 net.cpp:137] Memory required for data: 377261200
I0925 17:02:38.242050  3155 layer_factory.hpp:77] Creating layer penlu14
I0925 17:02:38.242056  3155 net.cpp:84] Creating Layer penlu14
I0925 17:02:38.242058  3155 net.cpp:406] penlu14 <- Convolution14
I0925 17:02:38.242063  3155 net.cpp:367] penlu14 -> Convolution14 (in-place)
I0925 17:02:38.242175  3155 net.cpp:122] Setting up penlu14
I0925 17:02:38.242179  3155 net.cpp:129] Top shape: 100 16 28 28 (1254400)
I0925 17:02:38.242182  3155 net.cpp:137] Memory required for data: 382278800
I0925 17:02:38.242187  3155 layer_factory.hpp:77] Creating layer Convolution15
I0925 17:02:38.242193  3155 net.cpp:84] Creating Layer Convolution15
I0925 17:02:38.242202  3155 net.cpp:406] Convolution15 <- Convolution14
I0925 17:02:38.242207  3155 net.cpp:380] Convolution15 -> Convolution15
I0925 17:02:38.243114  3155 net.cpp:122] Setting up Convolution15
I0925 17:02:38.243124  3155 net.cpp:129] Top shape: 100 16 28 28 (1254400)
I0925 17:02:38.243125  3155 net.cpp:137] Memory required for data: 387296400
I0925 17:02:38.243130  3155 layer_factory.hpp:77] Creating layer BatchNorm15
I0925 17:02:38.243135  3155 net.cpp:84] Creating Layer BatchNorm15
I0925 17:02:38.243139  3155 net.cpp:406] BatchNorm15 <- Convolution15
I0925 17:02:38.243141  3155 net.cpp:367] BatchNorm15 -> Convolution15 (in-place)
I0925 17:02:38.243278  3155 net.cpp:122] Setting up BatchNorm15
I0925 17:02:38.243283  3155 net.cpp:129] Top shape: 100 16 28 28 (1254400)
I0925 17:02:38.243284  3155 net.cpp:137] Memory required for data: 392314000
I0925 17:02:38.243289  3155 layer_factory.hpp:77] Creating layer Scale15
I0925 17:02:38.243294  3155 net.cpp:84] Creating Layer Scale15
I0925 17:02:38.243295  3155 net.cpp:406] Scale15 <- Convolution15
I0925 17:02:38.243299  3155 net.cpp:367] Scale15 -> Convolution15 (in-place)
I0925 17:02:38.243325  3155 layer_factory.hpp:77] Creating layer Scale15
I0925 17:02:38.243404  3155 net.cpp:122] Setting up Scale15
I0925 17:02:38.243409  3155 net.cpp:129] Top shape: 100 16 28 28 (1254400)
I0925 17:02:38.243412  3155 net.cpp:137] Memory required for data: 397331600
I0925 17:02:38.243414  3155 layer_factory.hpp:77] Creating layer Eltwise7
I0925 17:02:38.243418  3155 net.cpp:84] Creating Layer Eltwise7
I0925 17:02:38.243422  3155 net.cpp:406] Eltwise7 <- Eltwise6_penlu13_0_split_1
I0925 17:02:38.243424  3155 net.cpp:406] Eltwise7 <- Convolution15
I0925 17:02:38.243428  3155 net.cpp:380] Eltwise7 -> Eltwise7
I0925 17:02:38.243443  3155 net.cpp:122] Setting up Eltwise7
I0925 17:02:38.243448  3155 net.cpp:129] Top shape: 100 16 28 28 (1254400)
I0925 17:02:38.243449  3155 net.cpp:137] Memory required for data: 402349200
I0925 17:02:38.243451  3155 layer_factory.hpp:77] Creating layer penlu15
I0925 17:02:38.243456  3155 net.cpp:84] Creating Layer penlu15
I0925 17:02:38.243459  3155 net.cpp:406] penlu15 <- Eltwise7
I0925 17:02:38.243463  3155 net.cpp:367] penlu15 -> Eltwise7 (in-place)
I0925 17:02:38.243574  3155 net.cpp:122] Setting up penlu15
I0925 17:02:38.243578  3155 net.cpp:129] Top shape: 100 16 28 28 (1254400)
I0925 17:02:38.243582  3155 net.cpp:137] Memory required for data: 407366800
I0925 17:02:38.243585  3155 layer_factory.hpp:77] Creating layer Eltwise7_penlu15_0_split
I0925 17:02:38.243589  3155 net.cpp:84] Creating Layer Eltwise7_penlu15_0_split
I0925 17:02:38.243592  3155 net.cpp:406] Eltwise7_penlu15_0_split <- Eltwise7
I0925 17:02:38.243595  3155 net.cpp:380] Eltwise7_penlu15_0_split -> Eltwise7_penlu15_0_split_0
I0925 17:02:38.243599  3155 net.cpp:380] Eltwise7_penlu15_0_split -> Eltwise7_penlu15_0_split_1
I0925 17:02:38.243621  3155 net.cpp:122] Setting up Eltwise7_penlu15_0_split
I0925 17:02:38.243625  3155 net.cpp:129] Top shape: 100 16 28 28 (1254400)
I0925 17:02:38.243628  3155 net.cpp:129] Top shape: 100 16 28 28 (1254400)
I0925 17:02:38.243630  3155 net.cpp:137] Memory required for data: 417402000
I0925 17:02:38.243633  3155 layer_factory.hpp:77] Creating layer Convolution16
I0925 17:02:38.243638  3155 net.cpp:84] Creating Layer Convolution16
I0925 17:02:38.243641  3155 net.cpp:406] Convolution16 <- Eltwise7_penlu15_0_split_0
I0925 17:02:38.243645  3155 net.cpp:380] Convolution16 -> Convolution16
I0925 17:02:38.244557  3155 net.cpp:122] Setting up Convolution16
I0925 17:02:38.244567  3155 net.cpp:129] Top shape: 100 16 28 28 (1254400)
I0925 17:02:38.244570  3155 net.cpp:137] Memory required for data: 422419600
I0925 17:02:38.244575  3155 layer_factory.hpp:77] Creating layer BatchNorm16
I0925 17:02:38.244580  3155 net.cpp:84] Creating Layer BatchNorm16
I0925 17:02:38.244582  3155 net.cpp:406] BatchNorm16 <- Convolution16
I0925 17:02:38.244586  3155 net.cpp:367] BatchNorm16 -> Convolution16 (in-place)
I0925 17:02:38.244724  3155 net.cpp:122] Setting up BatchNorm16
I0925 17:02:38.244735  3155 net.cpp:129] Top shape: 100 16 28 28 (1254400)
I0925 17:02:38.244736  3155 net.cpp:137] Memory required for data: 427437200
I0925 17:02:38.244741  3155 layer_factory.hpp:77] Creating layer Scale16
I0925 17:02:38.244746  3155 net.cpp:84] Creating Layer Scale16
I0925 17:02:38.244748  3155 net.cpp:406] Scale16 <- Convolution16
I0925 17:02:38.244753  3155 net.cpp:367] Scale16 -> Convolution16 (in-place)
I0925 17:02:38.244779  3155 layer_factory.hpp:77] Creating layer Scale16
I0925 17:02:38.244861  3155 net.cpp:122] Setting up Scale16
I0925 17:02:38.244866  3155 net.cpp:129] Top shape: 100 16 28 28 (1254400)
I0925 17:02:38.244868  3155 net.cpp:137] Memory required for data: 432454800
I0925 17:02:38.244873  3155 layer_factory.hpp:77] Creating layer penlu16
I0925 17:02:38.244879  3155 net.cpp:84] Creating Layer penlu16
I0925 17:02:38.244880  3155 net.cpp:406] penlu16 <- Convolution16
I0925 17:02:38.244884  3155 net.cpp:367] penlu16 -> Convolution16 (in-place)
I0925 17:02:38.244998  3155 net.cpp:122] Setting up penlu16
I0925 17:02:38.245002  3155 net.cpp:129] Top shape: 100 16 28 28 (1254400)
I0925 17:02:38.245004  3155 net.cpp:137] Memory required for data: 437472400
I0925 17:02:38.245009  3155 layer_factory.hpp:77] Creating layer Convolution17
I0925 17:02:38.245015  3155 net.cpp:84] Creating Layer Convolution17
I0925 17:02:38.245018  3155 net.cpp:406] Convolution17 <- Convolution16
I0925 17:02:38.245023  3155 net.cpp:380] Convolution17 -> Convolution17
I0925 17:02:38.245604  3155 net.cpp:122] Setting up Convolution17
I0925 17:02:38.245610  3155 net.cpp:129] Top shape: 100 16 28 28 (1254400)
I0925 17:02:38.245613  3155 net.cpp:137] Memory required for data: 442490000
I0925 17:02:38.245617  3155 layer_factory.hpp:77] Creating layer BatchNorm17
I0925 17:02:38.245622  3155 net.cpp:84] Creating Layer BatchNorm17
I0925 17:02:38.245625  3155 net.cpp:406] BatchNorm17 <- Convolution17
I0925 17:02:38.245630  3155 net.cpp:367] BatchNorm17 -> Convolution17 (in-place)
I0925 17:02:38.245764  3155 net.cpp:122] Setting up BatchNorm17
I0925 17:02:38.245769  3155 net.cpp:129] Top shape: 100 16 28 28 (1254400)
I0925 17:02:38.245770  3155 net.cpp:137] Memory required for data: 447507600
I0925 17:02:38.245775  3155 layer_factory.hpp:77] Creating layer Scale17
I0925 17:02:38.245780  3155 net.cpp:84] Creating Layer Scale17
I0925 17:02:38.245782  3155 net.cpp:406] Scale17 <- Convolution17
I0925 17:02:38.245785  3155 net.cpp:367] Scale17 -> Convolution17 (in-place)
I0925 17:02:38.245812  3155 layer_factory.hpp:77] Creating layer Scale17
I0925 17:02:38.245890  3155 net.cpp:122] Setting up Scale17
I0925 17:02:38.245894  3155 net.cpp:129] Top shape: 100 16 28 28 (1254400)
I0925 17:02:38.245896  3155 net.cpp:137] Memory required for data: 452525200
I0925 17:02:38.245900  3155 layer_factory.hpp:77] Creating layer Eltwise8
I0925 17:02:38.245905  3155 net.cpp:84] Creating Layer Eltwise8
I0925 17:02:38.245908  3155 net.cpp:406] Eltwise8 <- Eltwise7_penlu15_0_split_1
I0925 17:02:38.245910  3155 net.cpp:406] Eltwise8 <- Convolution17
I0925 17:02:38.245914  3155 net.cpp:380] Eltwise8 -> Eltwise8
I0925 17:02:38.245929  3155 net.cpp:122] Setting up Eltwise8
I0925 17:02:38.245932  3155 net.cpp:129] Top shape: 100 16 28 28 (1254400)
I0925 17:02:38.245934  3155 net.cpp:137] Memory required for data: 457542800
I0925 17:02:38.245936  3155 layer_factory.hpp:77] Creating layer penlu17
I0925 17:02:38.245942  3155 net.cpp:84] Creating Layer penlu17
I0925 17:02:38.245945  3155 net.cpp:406] penlu17 <- Eltwise8
I0925 17:02:38.245949  3155 net.cpp:367] penlu17 -> Eltwise8 (in-place)
I0925 17:02:38.246058  3155 net.cpp:122] Setting up penlu17
I0925 17:02:38.246062  3155 net.cpp:129] Top shape: 100 16 28 28 (1254400)
I0925 17:02:38.246064  3155 net.cpp:137] Memory required for data: 462560400
I0925 17:02:38.246068  3155 layer_factory.hpp:77] Creating layer Eltwise8_penlu17_0_split
I0925 17:02:38.246073  3155 net.cpp:84] Creating Layer Eltwise8_penlu17_0_split
I0925 17:02:38.246074  3155 net.cpp:406] Eltwise8_penlu17_0_split <- Eltwise8
I0925 17:02:38.246084  3155 net.cpp:380] Eltwise8_penlu17_0_split -> Eltwise8_penlu17_0_split_0
I0925 17:02:38.246089  3155 net.cpp:380] Eltwise8_penlu17_0_split -> Eltwise8_penlu17_0_split_1
I0925 17:02:38.246112  3155 net.cpp:122] Setting up Eltwise8_penlu17_0_split
I0925 17:02:38.246116  3155 net.cpp:129] Top shape: 100 16 28 28 (1254400)
I0925 17:02:38.246119  3155 net.cpp:129] Top shape: 100 16 28 28 (1254400)
I0925 17:02:38.246121  3155 net.cpp:137] Memory required for data: 472595600
I0925 17:02:38.246124  3155 layer_factory.hpp:77] Creating layer Convolution18
I0925 17:02:38.246129  3155 net.cpp:84] Creating Layer Convolution18
I0925 17:02:38.246132  3155 net.cpp:406] Convolution18 <- Eltwise8_penlu17_0_split_0
I0925 17:02:38.246136  3155 net.cpp:380] Convolution18 -> Convolution18
I0925 17:02:38.247040  3155 net.cpp:122] Setting up Convolution18
I0925 17:02:38.247048  3155 net.cpp:129] Top shape: 100 16 28 28 (1254400)
I0925 17:02:38.247051  3155 net.cpp:137] Memory required for data: 477613200
I0925 17:02:38.247056  3155 layer_factory.hpp:77] Creating layer BatchNorm18
I0925 17:02:38.247061  3155 net.cpp:84] Creating Layer BatchNorm18
I0925 17:02:38.247064  3155 net.cpp:406] BatchNorm18 <- Convolution18
I0925 17:02:38.247069  3155 net.cpp:367] BatchNorm18 -> Convolution18 (in-place)
I0925 17:02:38.247205  3155 net.cpp:122] Setting up BatchNorm18
I0925 17:02:38.247210  3155 net.cpp:129] Top shape: 100 16 28 28 (1254400)
I0925 17:02:38.247211  3155 net.cpp:137] Memory required for data: 482630800
I0925 17:02:38.247216  3155 layer_factory.hpp:77] Creating layer Scale18
I0925 17:02:38.247220  3155 net.cpp:84] Creating Layer Scale18
I0925 17:02:38.247223  3155 net.cpp:406] Scale18 <- Convolution18
I0925 17:02:38.247226  3155 net.cpp:367] Scale18 -> Convolution18 (in-place)
I0925 17:02:38.247253  3155 layer_factory.hpp:77] Creating layer Scale18
I0925 17:02:38.247334  3155 net.cpp:122] Setting up Scale18
I0925 17:02:38.247339  3155 net.cpp:129] Top shape: 100 16 28 28 (1254400)
I0925 17:02:38.247340  3155 net.cpp:137] Memory required for data: 487648400
I0925 17:02:38.247344  3155 layer_factory.hpp:77] Creating layer penlu18
I0925 17:02:38.247350  3155 net.cpp:84] Creating Layer penlu18
I0925 17:02:38.247352  3155 net.cpp:406] penlu18 <- Convolution18
I0925 17:02:38.247356  3155 net.cpp:367] penlu18 -> Convolution18 (in-place)
I0925 17:02:38.247467  3155 net.cpp:122] Setting up penlu18
I0925 17:02:38.247470  3155 net.cpp:129] Top shape: 100 16 28 28 (1254400)
I0925 17:02:38.247473  3155 net.cpp:137] Memory required for data: 492666000
I0925 17:02:38.247476  3155 layer_factory.hpp:77] Creating layer Convolution19
I0925 17:02:38.247483  3155 net.cpp:84] Creating Layer Convolution19
I0925 17:02:38.247485  3155 net.cpp:406] Convolution19 <- Convolution18
I0925 17:02:38.247489  3155 net.cpp:380] Convolution19 -> Convolution19
I0925 17:02:38.248407  3155 net.cpp:122] Setting up Convolution19
I0925 17:02:38.248416  3155 net.cpp:129] Top shape: 100 16 28 28 (1254400)
I0925 17:02:38.248419  3155 net.cpp:137] Memory required for data: 497683600
I0925 17:02:38.248423  3155 layer_factory.hpp:77] Creating layer BatchNorm19
I0925 17:02:38.248428  3155 net.cpp:84] Creating Layer BatchNorm19
I0925 17:02:38.248431  3155 net.cpp:406] BatchNorm19 <- Convolution19
I0925 17:02:38.248435  3155 net.cpp:367] BatchNorm19 -> Convolution19 (in-place)
I0925 17:02:38.248580  3155 net.cpp:122] Setting up BatchNorm19
I0925 17:02:38.248585  3155 net.cpp:129] Top shape: 100 16 28 28 (1254400)
I0925 17:02:38.248587  3155 net.cpp:137] Memory required for data: 502701200
I0925 17:02:38.248592  3155 layer_factory.hpp:77] Creating layer Scale19
I0925 17:02:38.248598  3155 net.cpp:84] Creating Layer Scale19
I0925 17:02:38.248601  3155 net.cpp:406] Scale19 <- Convolution19
I0925 17:02:38.248605  3155 net.cpp:367] Scale19 -> Convolution19 (in-place)
I0925 17:02:38.248631  3155 layer_factory.hpp:77] Creating layer Scale19
I0925 17:02:38.248711  3155 net.cpp:122] Setting up Scale19
I0925 17:02:38.248715  3155 net.cpp:129] Top shape: 100 16 28 28 (1254400)
I0925 17:02:38.248718  3155 net.cpp:137] Memory required for data: 507718800
I0925 17:02:38.248728  3155 layer_factory.hpp:77] Creating layer Eltwise9
I0925 17:02:38.248734  3155 net.cpp:84] Creating Layer Eltwise9
I0925 17:02:38.248736  3155 net.cpp:406] Eltwise9 <- Eltwise8_penlu17_0_split_1
I0925 17:02:38.248739  3155 net.cpp:406] Eltwise9 <- Convolution19
I0925 17:02:38.248742  3155 net.cpp:380] Eltwise9 -> Eltwise9
I0925 17:02:38.248759  3155 net.cpp:122] Setting up Eltwise9
I0925 17:02:38.248764  3155 net.cpp:129] Top shape: 100 16 28 28 (1254400)
I0925 17:02:38.248765  3155 net.cpp:137] Memory required for data: 512736400
I0925 17:02:38.248769  3155 layer_factory.hpp:77] Creating layer penlu19
I0925 17:02:38.248773  3155 net.cpp:84] Creating Layer penlu19
I0925 17:02:38.248775  3155 net.cpp:406] penlu19 <- Eltwise9
I0925 17:02:38.248780  3155 net.cpp:367] penlu19 -> Eltwise9 (in-place)
I0925 17:02:38.248890  3155 net.cpp:122] Setting up penlu19
I0925 17:02:38.248894  3155 net.cpp:129] Top shape: 100 16 28 28 (1254400)
I0925 17:02:38.248896  3155 net.cpp:137] Memory required for data: 517754000
I0925 17:02:38.248901  3155 layer_factory.hpp:77] Creating layer Eltwise9_penlu19_0_split
I0925 17:02:38.248904  3155 net.cpp:84] Creating Layer Eltwise9_penlu19_0_split
I0925 17:02:38.248908  3155 net.cpp:406] Eltwise9_penlu19_0_split <- Eltwise9
I0925 17:02:38.248910  3155 net.cpp:380] Eltwise9_penlu19_0_split -> Eltwise9_penlu19_0_split_0
I0925 17:02:38.248914  3155 net.cpp:380] Eltwise9_penlu19_0_split -> Eltwise9_penlu19_0_split_1
I0925 17:02:38.248939  3155 net.cpp:122] Setting up Eltwise9_penlu19_0_split
I0925 17:02:38.248941  3155 net.cpp:129] Top shape: 100 16 28 28 (1254400)
I0925 17:02:38.248944  3155 net.cpp:129] Top shape: 100 16 28 28 (1254400)
I0925 17:02:38.248946  3155 net.cpp:137] Memory required for data: 527789200
I0925 17:02:38.248950  3155 layer_factory.hpp:77] Creating layer Convolution20
I0925 17:02:38.248955  3155 net.cpp:84] Creating Layer Convolution20
I0925 17:02:38.248957  3155 net.cpp:406] Convolution20 <- Eltwise9_penlu19_0_split_0
I0925 17:02:38.248961  3155 net.cpp:380] Convolution20 -> Convolution20
I0925 17:02:38.250185  3155 net.cpp:122] Setting up Convolution20
I0925 17:02:38.250193  3155 net.cpp:129] Top shape: 100 32 14 14 (627200)
I0925 17:02:38.250197  3155 net.cpp:137] Memory required for data: 530298000
I0925 17:02:38.250202  3155 layer_factory.hpp:77] Creating layer BatchNorm20
I0925 17:02:38.250207  3155 net.cpp:84] Creating Layer BatchNorm20
I0925 17:02:38.250210  3155 net.cpp:406] BatchNorm20 <- Convolution20
I0925 17:02:38.250214  3155 net.cpp:367] BatchNorm20 -> Convolution20 (in-place)
I0925 17:02:38.250360  3155 net.cpp:122] Setting up BatchNorm20
I0925 17:02:38.250365  3155 net.cpp:129] Top shape: 100 32 14 14 (627200)
I0925 17:02:38.250367  3155 net.cpp:137] Memory required for data: 532806800
I0925 17:02:38.250371  3155 layer_factory.hpp:77] Creating layer Scale20
I0925 17:02:38.250376  3155 net.cpp:84] Creating Layer Scale20
I0925 17:02:38.250378  3155 net.cpp:406] Scale20 <- Convolution20
I0925 17:02:38.250382  3155 net.cpp:367] Scale20 -> Convolution20 (in-place)
I0925 17:02:38.250409  3155 layer_factory.hpp:77] Creating layer Scale20
I0925 17:02:38.250506  3155 net.cpp:122] Setting up Scale20
I0925 17:02:38.250511  3155 net.cpp:129] Top shape: 100 32 14 14 (627200)
I0925 17:02:38.250514  3155 net.cpp:137] Memory required for data: 535315600
I0925 17:02:38.250517  3155 layer_factory.hpp:77] Creating layer Convolution21
I0925 17:02:38.250524  3155 net.cpp:84] Creating Layer Convolution21
I0925 17:02:38.250526  3155 net.cpp:406] Convolution21 <- Eltwise9_penlu19_0_split_1
I0925 17:02:38.250531  3155 net.cpp:380] Convolution21 -> Convolution21
I0925 17:02:38.252140  3155 net.cpp:122] Setting up Convolution21
I0925 17:02:38.252149  3155 net.cpp:129] Top shape: 100 32 14 14 (627200)
I0925 17:02:38.252151  3155 net.cpp:137] Memory required for data: 537824400
I0925 17:02:38.252156  3155 layer_factory.hpp:77] Creating layer BatchNorm21
I0925 17:02:38.252161  3155 net.cpp:84] Creating Layer BatchNorm21
I0925 17:02:38.252171  3155 net.cpp:406] BatchNorm21 <- Convolution21
I0925 17:02:38.252174  3155 net.cpp:367] BatchNorm21 -> Convolution21 (in-place)
I0925 17:02:38.252313  3155 net.cpp:122] Setting up BatchNorm21
I0925 17:02:38.252318  3155 net.cpp:129] Top shape: 100 32 14 14 (627200)
I0925 17:02:38.252321  3155 net.cpp:137] Memory required for data: 540333200
I0925 17:02:38.252326  3155 layer_factory.hpp:77] Creating layer Scale21
I0925 17:02:38.252329  3155 net.cpp:84] Creating Layer Scale21
I0925 17:02:38.252332  3155 net.cpp:406] Scale21 <- Convolution21
I0925 17:02:38.252336  3155 net.cpp:367] Scale21 -> Convolution21 (in-place)
I0925 17:02:38.252363  3155 layer_factory.hpp:77] Creating layer Scale21
I0925 17:02:38.252440  3155 net.cpp:122] Setting up Scale21
I0925 17:02:38.252444  3155 net.cpp:129] Top shape: 100 32 14 14 (627200)
I0925 17:02:38.252446  3155 net.cpp:137] Memory required for data: 542842000
I0925 17:02:38.252450  3155 layer_factory.hpp:77] Creating layer penlu20
I0925 17:02:38.252455  3155 net.cpp:84] Creating Layer penlu20
I0925 17:02:38.252459  3155 net.cpp:406] penlu20 <- Convolution21
I0925 17:02:38.252462  3155 net.cpp:367] penlu20 -> Convolution21 (in-place)
I0925 17:02:38.252574  3155 net.cpp:122] Setting up penlu20
I0925 17:02:38.252579  3155 net.cpp:129] Top shape: 100 32 14 14 (627200)
I0925 17:02:38.252581  3155 net.cpp:137] Memory required for data: 545350800
I0925 17:02:38.252586  3155 layer_factory.hpp:77] Creating layer Convolution22
I0925 17:02:38.252593  3155 net.cpp:84] Creating Layer Convolution22
I0925 17:02:38.252595  3155 net.cpp:406] Convolution22 <- Convolution21
I0925 17:02:38.252599  3155 net.cpp:380] Convolution22 -> Convolution22
I0925 17:02:38.253727  3155 net.cpp:122] Setting up Convolution22
I0925 17:02:38.253736  3155 net.cpp:129] Top shape: 100 32 14 14 (627200)
I0925 17:02:38.253739  3155 net.cpp:137] Memory required for data: 547859600
I0925 17:02:38.253743  3155 layer_factory.hpp:77] Creating layer BatchNorm22
I0925 17:02:38.253748  3155 net.cpp:84] Creating Layer BatchNorm22
I0925 17:02:38.253751  3155 net.cpp:406] BatchNorm22 <- Convolution22
I0925 17:02:38.253756  3155 net.cpp:367] BatchNorm22 -> Convolution22 (in-place)
I0925 17:02:38.253887  3155 net.cpp:122] Setting up BatchNorm22
I0925 17:02:38.253891  3155 net.cpp:129] Top shape: 100 32 14 14 (627200)
I0925 17:02:38.253893  3155 net.cpp:137] Memory required for data: 550368400
I0925 17:02:38.253898  3155 layer_factory.hpp:77] Creating layer Scale22
I0925 17:02:38.253902  3155 net.cpp:84] Creating Layer Scale22
I0925 17:02:38.253904  3155 net.cpp:406] Scale22 <- Convolution22
I0925 17:02:38.253907  3155 net.cpp:367] Scale22 -> Convolution22 (in-place)
I0925 17:02:38.253933  3155 layer_factory.hpp:77] Creating layer Scale22
I0925 17:02:38.254007  3155 net.cpp:122] Setting up Scale22
I0925 17:02:38.254012  3155 net.cpp:129] Top shape: 100 32 14 14 (627200)
I0925 17:02:38.254014  3155 net.cpp:137] Memory required for data: 552877200
I0925 17:02:38.254017  3155 layer_factory.hpp:77] Creating layer Eltwise10
I0925 17:02:38.254022  3155 net.cpp:84] Creating Layer Eltwise10
I0925 17:02:38.254024  3155 net.cpp:406] Eltwise10 <- Convolution20
I0925 17:02:38.254027  3155 net.cpp:406] Eltwise10 <- Convolution22
I0925 17:02:38.254030  3155 net.cpp:380] Eltwise10 -> Eltwise10
I0925 17:02:38.254046  3155 net.cpp:122] Setting up Eltwise10
I0925 17:02:38.254050  3155 net.cpp:129] Top shape: 100 32 14 14 (627200)
I0925 17:02:38.254051  3155 net.cpp:137] Memory required for data: 555386000
I0925 17:02:38.254055  3155 layer_factory.hpp:77] Creating layer penlu21
I0925 17:02:38.254060  3155 net.cpp:84] Creating Layer penlu21
I0925 17:02:38.254061  3155 net.cpp:406] penlu21 <- Eltwise10
I0925 17:02:38.254065  3155 net.cpp:367] penlu21 -> Eltwise10 (in-place)
I0925 17:02:38.254170  3155 net.cpp:122] Setting up penlu21
I0925 17:02:38.254175  3155 net.cpp:129] Top shape: 100 32 14 14 (627200)
I0925 17:02:38.254178  3155 net.cpp:137] Memory required for data: 557894800
I0925 17:02:38.254181  3155 layer_factory.hpp:77] Creating layer Eltwise10_penlu21_0_split
I0925 17:02:38.254191  3155 net.cpp:84] Creating Layer Eltwise10_penlu21_0_split
I0925 17:02:38.254194  3155 net.cpp:406] Eltwise10_penlu21_0_split <- Eltwise10
I0925 17:02:38.254197  3155 net.cpp:380] Eltwise10_penlu21_0_split -> Eltwise10_penlu21_0_split_0
I0925 17:02:38.254201  3155 net.cpp:380] Eltwise10_penlu21_0_split -> Eltwise10_penlu21_0_split_1
I0925 17:02:38.254225  3155 net.cpp:122] Setting up Eltwise10_penlu21_0_split
I0925 17:02:38.254228  3155 net.cpp:129] Top shape: 100 32 14 14 (627200)
I0925 17:02:38.254231  3155 net.cpp:129] Top shape: 100 32 14 14 (627200)
I0925 17:02:38.254233  3155 net.cpp:137] Memory required for data: 562912400
I0925 17:02:38.254235  3155 layer_factory.hpp:77] Creating layer Convolution23
I0925 17:02:38.254241  3155 net.cpp:84] Creating Layer Convolution23
I0925 17:02:38.254243  3155 net.cpp:406] Convolution23 <- Eltwise10_penlu21_0_split_0
I0925 17:02:38.254250  3155 net.cpp:380] Convolution23 -> Convolution23
I0925 17:02:38.255573  3155 net.cpp:122] Setting up Convolution23
I0925 17:02:38.255581  3155 net.cpp:129] Top shape: 100 32 14 14 (627200)
I0925 17:02:38.255584  3155 net.cpp:137] Memory required for data: 565421200
I0925 17:02:38.255589  3155 layer_factory.hpp:77] Creating layer BatchNorm23
I0925 17:02:38.255594  3155 net.cpp:84] Creating Layer BatchNorm23
I0925 17:02:38.255596  3155 net.cpp:406] BatchNorm23 <- Convolution23
I0925 17:02:38.255600  3155 net.cpp:367] BatchNorm23 -> Convolution23 (in-place)
I0925 17:02:38.255734  3155 net.cpp:122] Setting up BatchNorm23
I0925 17:02:38.255738  3155 net.cpp:129] Top shape: 100 32 14 14 (627200)
I0925 17:02:38.255740  3155 net.cpp:137] Memory required for data: 567930000
I0925 17:02:38.255745  3155 layer_factory.hpp:77] Creating layer Scale23
I0925 17:02:38.255750  3155 net.cpp:84] Creating Layer Scale23
I0925 17:02:38.255753  3155 net.cpp:406] Scale23 <- Convolution23
I0925 17:02:38.255756  3155 net.cpp:367] Scale23 -> Convolution23 (in-place)
I0925 17:02:38.255782  3155 layer_factory.hpp:77] Creating layer Scale23
I0925 17:02:38.255857  3155 net.cpp:122] Setting up Scale23
I0925 17:02:38.255862  3155 net.cpp:129] Top shape: 100 32 14 14 (627200)
I0925 17:02:38.255864  3155 net.cpp:137] Memory required for data: 570438800
I0925 17:02:38.255867  3155 layer_factory.hpp:77] Creating layer penlu22
I0925 17:02:38.255873  3155 net.cpp:84] Creating Layer penlu22
I0925 17:02:38.255875  3155 net.cpp:406] penlu22 <- Convolution23
I0925 17:02:38.255878  3155 net.cpp:367] penlu22 -> Convolution23 (in-place)
I0925 17:02:38.255983  3155 net.cpp:122] Setting up penlu22
I0925 17:02:38.255987  3155 net.cpp:129] Top shape: 100 32 14 14 (627200)
I0925 17:02:38.255990  3155 net.cpp:137] Memory required for data: 572947600
I0925 17:02:38.255993  3155 layer_factory.hpp:77] Creating layer Convolution24
I0925 17:02:38.256000  3155 net.cpp:84] Creating Layer Convolution24
I0925 17:02:38.256002  3155 net.cpp:406] Convolution24 <- Convolution23
I0925 17:02:38.256006  3155 net.cpp:380] Convolution24 -> Convolution24
I0925 17:02:38.257066  3155 net.cpp:122] Setting up Convolution24
I0925 17:02:38.257076  3155 net.cpp:129] Top shape: 100 32 14 14 (627200)
I0925 17:02:38.257077  3155 net.cpp:137] Memory required for data: 575456400
I0925 17:02:38.257082  3155 layer_factory.hpp:77] Creating layer BatchNorm24
I0925 17:02:38.257087  3155 net.cpp:84] Creating Layer BatchNorm24
I0925 17:02:38.257091  3155 net.cpp:406] BatchNorm24 <- Convolution24
I0925 17:02:38.257094  3155 net.cpp:367] BatchNorm24 -> Convolution24 (in-place)
I0925 17:02:38.257230  3155 net.cpp:122] Setting up BatchNorm24
I0925 17:02:38.257233  3155 net.cpp:129] Top shape: 100 32 14 14 (627200)
I0925 17:02:38.257236  3155 net.cpp:137] Memory required for data: 577965200
I0925 17:02:38.257241  3155 layer_factory.hpp:77] Creating layer Scale24
I0925 17:02:38.257244  3155 net.cpp:84] Creating Layer Scale24
I0925 17:02:38.257247  3155 net.cpp:406] Scale24 <- Convolution24
I0925 17:02:38.257251  3155 net.cpp:367] Scale24 -> Convolution24 (in-place)
I0925 17:02:38.257284  3155 layer_factory.hpp:77] Creating layer Scale24
I0925 17:02:38.257360  3155 net.cpp:122] Setting up Scale24
I0925 17:02:38.257364  3155 net.cpp:129] Top shape: 100 32 14 14 (627200)
I0925 17:02:38.257366  3155 net.cpp:137] Memory required for data: 580474000
I0925 17:02:38.257370  3155 layer_factory.hpp:77] Creating layer Eltwise11
I0925 17:02:38.257375  3155 net.cpp:84] Creating Layer Eltwise11
I0925 17:02:38.257377  3155 net.cpp:406] Eltwise11 <- Eltwise10_penlu21_0_split_1
I0925 17:02:38.257380  3155 net.cpp:406] Eltwise11 <- Convolution24
I0925 17:02:38.257383  3155 net.cpp:380] Eltwise11 -> Eltwise11
I0925 17:02:38.257398  3155 net.cpp:122] Setting up Eltwise11
I0925 17:02:38.257402  3155 net.cpp:129] Top shape: 100 32 14 14 (627200)
I0925 17:02:38.257405  3155 net.cpp:137] Memory required for data: 582982800
I0925 17:02:38.257406  3155 layer_factory.hpp:77] Creating layer penlu23
I0925 17:02:38.257411  3155 net.cpp:84] Creating Layer penlu23
I0925 17:02:38.257414  3155 net.cpp:406] penlu23 <- Eltwise11
I0925 17:02:38.257417  3155 net.cpp:367] penlu23 -> Eltwise11 (in-place)
I0925 17:02:38.257521  3155 net.cpp:122] Setting up penlu23
I0925 17:02:38.257525  3155 net.cpp:129] Top shape: 100 32 14 14 (627200)
I0925 17:02:38.257527  3155 net.cpp:137] Memory required for data: 585491600
I0925 17:02:38.257531  3155 layer_factory.hpp:77] Creating layer Eltwise11_penlu23_0_split
I0925 17:02:38.257534  3155 net.cpp:84] Creating Layer Eltwise11_penlu23_0_split
I0925 17:02:38.257537  3155 net.cpp:406] Eltwise11_penlu23_0_split <- Eltwise11
I0925 17:02:38.257540  3155 net.cpp:380] Eltwise11_penlu23_0_split -> Eltwise11_penlu23_0_split_0
I0925 17:02:38.257545  3155 net.cpp:380] Eltwise11_penlu23_0_split -> Eltwise11_penlu23_0_split_1
I0925 17:02:38.257566  3155 net.cpp:122] Setting up Eltwise11_penlu23_0_split
I0925 17:02:38.257570  3155 net.cpp:129] Top shape: 100 32 14 14 (627200)
I0925 17:02:38.257573  3155 net.cpp:129] Top shape: 100 32 14 14 (627200)
I0925 17:02:38.257575  3155 net.cpp:137] Memory required for data: 590509200
I0925 17:02:38.257577  3155 layer_factory.hpp:77] Creating layer Convolution25
I0925 17:02:38.257583  3155 net.cpp:84] Creating Layer Convolution25
I0925 17:02:38.257586  3155 net.cpp:406] Convolution25 <- Eltwise11_penlu23_0_split_0
I0925 17:02:38.257589  3155 net.cpp:380] Convolution25 -> Convolution25
I0925 17:02:38.258613  3155 net.cpp:122] Setting up Convolution25
I0925 17:02:38.258621  3155 net.cpp:129] Top shape: 100 32 14 14 (627200)
I0925 17:02:38.258623  3155 net.cpp:137] Memory required for data: 593018000
I0925 17:02:38.258628  3155 layer_factory.hpp:77] Creating layer BatchNorm25
I0925 17:02:38.258633  3155 net.cpp:84] Creating Layer BatchNorm25
I0925 17:02:38.258635  3155 net.cpp:406] BatchNorm25 <- Convolution25
I0925 17:02:38.258640  3155 net.cpp:367] BatchNorm25 -> Convolution25 (in-place)
I0925 17:02:38.258772  3155 net.cpp:122] Setting up BatchNorm25
I0925 17:02:38.258776  3155 net.cpp:129] Top shape: 100 32 14 14 (627200)
I0925 17:02:38.258779  3155 net.cpp:137] Memory required for data: 595526800
I0925 17:02:38.258783  3155 layer_factory.hpp:77] Creating layer Scale25
I0925 17:02:38.258790  3155 net.cpp:84] Creating Layer Scale25
I0925 17:02:38.258791  3155 net.cpp:406] Scale25 <- Convolution25
I0925 17:02:38.258795  3155 net.cpp:367] Scale25 -> Convolution25 (in-place)
I0925 17:02:38.258821  3155 layer_factory.hpp:77] Creating layer Scale25
I0925 17:02:38.258895  3155 net.cpp:122] Setting up Scale25
I0925 17:02:38.258899  3155 net.cpp:129] Top shape: 100 32 14 14 (627200)
I0925 17:02:38.258901  3155 net.cpp:137] Memory required for data: 598035600
I0925 17:02:38.258905  3155 layer_factory.hpp:77] Creating layer penlu24
I0925 17:02:38.258910  3155 net.cpp:84] Creating Layer penlu24
I0925 17:02:38.258913  3155 net.cpp:406] penlu24 <- Convolution25
I0925 17:02:38.258918  3155 net.cpp:367] penlu24 -> Convolution25 (in-place)
I0925 17:02:38.259021  3155 net.cpp:122] Setting up penlu24
I0925 17:02:38.259024  3155 net.cpp:129] Top shape: 100 32 14 14 (627200)
I0925 17:02:38.259032  3155 net.cpp:137] Memory required for data: 600544400
I0925 17:02:38.259037  3155 layer_factory.hpp:77] Creating layer Convolution26
I0925 17:02:38.259043  3155 net.cpp:84] Creating Layer Convolution26
I0925 17:02:38.259047  3155 net.cpp:406] Convolution26 <- Convolution25
I0925 17:02:38.259049  3155 net.cpp:380] Convolution26 -> Convolution26
I0925 17:02:38.260074  3155 net.cpp:122] Setting up Convolution26
I0925 17:02:38.260083  3155 net.cpp:129] Top shape: 100 32 14 14 (627200)
I0925 17:02:38.260085  3155 net.cpp:137] Memory required for data: 603053200
I0925 17:02:38.260089  3155 layer_factory.hpp:77] Creating layer BatchNorm26
I0925 17:02:38.260095  3155 net.cpp:84] Creating Layer BatchNorm26
I0925 17:02:38.260097  3155 net.cpp:406] BatchNorm26 <- Convolution26
I0925 17:02:38.260102  3155 net.cpp:367] BatchNorm26 -> Convolution26 (in-place)
I0925 17:02:38.260236  3155 net.cpp:122] Setting up BatchNorm26
I0925 17:02:38.260239  3155 net.cpp:129] Top shape: 100 32 14 14 (627200)
I0925 17:02:38.260241  3155 net.cpp:137] Memory required for data: 605562000
I0925 17:02:38.260246  3155 layer_factory.hpp:77] Creating layer Scale26
I0925 17:02:38.260249  3155 net.cpp:84] Creating Layer Scale26
I0925 17:02:38.260252  3155 net.cpp:406] Scale26 <- Convolution26
I0925 17:02:38.260255  3155 net.cpp:367] Scale26 -> Convolution26 (in-place)
I0925 17:02:38.260282  3155 layer_factory.hpp:77] Creating layer Scale26
I0925 17:02:38.260359  3155 net.cpp:122] Setting up Scale26
I0925 17:02:38.260363  3155 net.cpp:129] Top shape: 100 32 14 14 (627200)
I0925 17:02:38.260365  3155 net.cpp:137] Memory required for data: 608070800
I0925 17:02:38.260370  3155 layer_factory.hpp:77] Creating layer Eltwise12
I0925 17:02:38.260373  3155 net.cpp:84] Creating Layer Eltwise12
I0925 17:02:38.260376  3155 net.cpp:406] Eltwise12 <- Eltwise11_penlu23_0_split_1
I0925 17:02:38.260380  3155 net.cpp:406] Eltwise12 <- Convolution26
I0925 17:02:38.260382  3155 net.cpp:380] Eltwise12 -> Eltwise12
I0925 17:02:38.260397  3155 net.cpp:122] Setting up Eltwise12
I0925 17:02:38.260401  3155 net.cpp:129] Top shape: 100 32 14 14 (627200)
I0925 17:02:38.260403  3155 net.cpp:137] Memory required for data: 610579600
I0925 17:02:38.260406  3155 layer_factory.hpp:77] Creating layer penlu25
I0925 17:02:38.260411  3155 net.cpp:84] Creating Layer penlu25
I0925 17:02:38.260413  3155 net.cpp:406] penlu25 <- Eltwise12
I0925 17:02:38.260416  3155 net.cpp:367] penlu25 -> Eltwise12 (in-place)
I0925 17:02:38.260551  3155 net.cpp:122] Setting up penlu25
I0925 17:02:38.260556  3155 net.cpp:129] Top shape: 100 32 14 14 (627200)
I0925 17:02:38.260558  3155 net.cpp:137] Memory required for data: 613088400
I0925 17:02:38.260578  3155 layer_factory.hpp:77] Creating layer Eltwise12_penlu25_0_split
I0925 17:02:38.260591  3155 net.cpp:84] Creating Layer Eltwise12_penlu25_0_split
I0925 17:02:38.260593  3155 net.cpp:406] Eltwise12_penlu25_0_split <- Eltwise12
I0925 17:02:38.260596  3155 net.cpp:380] Eltwise12_penlu25_0_split -> Eltwise12_penlu25_0_split_0
I0925 17:02:38.260604  3155 net.cpp:380] Eltwise12_penlu25_0_split -> Eltwise12_penlu25_0_split_1
I0925 17:02:38.260630  3155 net.cpp:122] Setting up Eltwise12_penlu25_0_split
I0925 17:02:38.260634  3155 net.cpp:129] Top shape: 100 32 14 14 (627200)
I0925 17:02:38.260637  3155 net.cpp:129] Top shape: 100 32 14 14 (627200)
I0925 17:02:38.260639  3155 net.cpp:137] Memory required for data: 618106000
I0925 17:02:38.260641  3155 layer_factory.hpp:77] Creating layer Convolution27
I0925 17:02:38.260648  3155 net.cpp:84] Creating Layer Convolution27
I0925 17:02:38.260650  3155 net.cpp:406] Convolution27 <- Eltwise12_penlu25_0_split_0
I0925 17:02:38.260654  3155 net.cpp:380] Convolution27 -> Convolution27
I0925 17:02:38.261360  3155 net.cpp:122] Setting up Convolution27
I0925 17:02:38.261368  3155 net.cpp:129] Top shape: 100 32 14 14 (627200)
I0925 17:02:38.261369  3155 net.cpp:137] Memory required for data: 620614800
I0925 17:02:38.261373  3155 layer_factory.hpp:77] Creating layer BatchNorm27
I0925 17:02:38.261379  3155 net.cpp:84] Creating Layer BatchNorm27
I0925 17:02:38.261389  3155 net.cpp:406] BatchNorm27 <- Convolution27
I0925 17:02:38.261392  3155 net.cpp:367] BatchNorm27 -> Convolution27 (in-place)
I0925 17:02:38.261528  3155 net.cpp:122] Setting up BatchNorm27
I0925 17:02:38.261533  3155 net.cpp:129] Top shape: 100 32 14 14 (627200)
I0925 17:02:38.261535  3155 net.cpp:137] Memory required for data: 623123600
I0925 17:02:38.261539  3155 layer_factory.hpp:77] Creating layer Scale27
I0925 17:02:38.261544  3155 net.cpp:84] Creating Layer Scale27
I0925 17:02:38.261546  3155 net.cpp:406] Scale27 <- Convolution27
I0925 17:02:38.261549  3155 net.cpp:367] Scale27 -> Convolution27 (in-place)
I0925 17:02:38.261576  3155 layer_factory.hpp:77] Creating layer Scale27
I0925 17:02:38.261653  3155 net.cpp:122] Setting up Scale27
I0925 17:02:38.261657  3155 net.cpp:129] Top shape: 100 32 14 14 (627200)
I0925 17:02:38.261659  3155 net.cpp:137] Memory required for data: 625632400
I0925 17:02:38.261662  3155 layer_factory.hpp:77] Creating layer penlu26
I0925 17:02:38.261668  3155 net.cpp:84] Creating Layer penlu26
I0925 17:02:38.261672  3155 net.cpp:406] penlu26 <- Convolution27
I0925 17:02:38.261674  3155 net.cpp:367] penlu26 -> Convolution27 (in-place)
I0925 17:02:38.261780  3155 net.cpp:122] Setting up penlu26
I0925 17:02:38.261785  3155 net.cpp:129] Top shape: 100 32 14 14 (627200)
I0925 17:02:38.261786  3155 net.cpp:137] Memory required for data: 628141200
I0925 17:02:38.261790  3155 layer_factory.hpp:77] Creating layer Convolution28
I0925 17:02:38.261796  3155 net.cpp:84] Creating Layer Convolution28
I0925 17:02:38.261800  3155 net.cpp:406] Convolution28 <- Convolution27
I0925 17:02:38.261803  3155 net.cpp:380] Convolution28 -> Convolution28
I0925 17:02:38.262820  3155 net.cpp:122] Setting up Convolution28
I0925 17:02:38.262828  3155 net.cpp:129] Top shape: 100 32 14 14 (627200)
I0925 17:02:38.262831  3155 net.cpp:137] Memory required for data: 630650000
I0925 17:02:38.262835  3155 layer_factory.hpp:77] Creating layer BatchNorm28
I0925 17:02:38.262842  3155 net.cpp:84] Creating Layer BatchNorm28
I0925 17:02:38.262845  3155 net.cpp:406] BatchNorm28 <- Convolution28
I0925 17:02:38.262848  3155 net.cpp:367] BatchNorm28 -> Convolution28 (in-place)
I0925 17:02:38.262982  3155 net.cpp:122] Setting up BatchNorm28
I0925 17:02:38.262986  3155 net.cpp:129] Top shape: 100 32 14 14 (627200)
I0925 17:02:38.262989  3155 net.cpp:137] Memory required for data: 633158800
I0925 17:02:38.262994  3155 layer_factory.hpp:77] Creating layer Scale28
I0925 17:02:38.262997  3155 net.cpp:84] Creating Layer Scale28
I0925 17:02:38.263000  3155 net.cpp:406] Scale28 <- Convolution28
I0925 17:02:38.263003  3155 net.cpp:367] Scale28 -> Convolution28 (in-place)
I0925 17:02:38.263028  3155 layer_factory.hpp:77] Creating layer Scale28
I0925 17:02:38.263105  3155 net.cpp:122] Setting up Scale28
I0925 17:02:38.263109  3155 net.cpp:129] Top shape: 100 32 14 14 (627200)
I0925 17:02:38.263111  3155 net.cpp:137] Memory required for data: 635667600
I0925 17:02:38.263115  3155 layer_factory.hpp:77] Creating layer Eltwise13
I0925 17:02:38.263119  3155 net.cpp:84] Creating Layer Eltwise13
I0925 17:02:38.263121  3155 net.cpp:406] Eltwise13 <- Eltwise12_penlu25_0_split_1
I0925 17:02:38.263125  3155 net.cpp:406] Eltwise13 <- Convolution28
I0925 17:02:38.263128  3155 net.cpp:380] Eltwise13 -> Eltwise13
I0925 17:02:38.263144  3155 net.cpp:122] Setting up Eltwise13
I0925 17:02:38.263149  3155 net.cpp:129] Top shape: 100 32 14 14 (627200)
I0925 17:02:38.263150  3155 net.cpp:137] Memory required for data: 638176400
I0925 17:02:38.263152  3155 layer_factory.hpp:77] Creating layer penlu27
I0925 17:02:38.263157  3155 net.cpp:84] Creating Layer penlu27
I0925 17:02:38.263159  3155 net.cpp:406] penlu27 <- Eltwise13
I0925 17:02:38.263162  3155 net.cpp:367] penlu27 -> Eltwise13 (in-place)
I0925 17:02:38.263270  3155 net.cpp:122] Setting up penlu27
I0925 17:02:38.263274  3155 net.cpp:129] Top shape: 100 32 14 14 (627200)
I0925 17:02:38.263276  3155 net.cpp:137] Memory required for data: 640685200
I0925 17:02:38.263280  3155 layer_factory.hpp:77] Creating layer Eltwise13_penlu27_0_split
I0925 17:02:38.263290  3155 net.cpp:84] Creating Layer Eltwise13_penlu27_0_split
I0925 17:02:38.263293  3155 net.cpp:406] Eltwise13_penlu27_0_split <- Eltwise13
I0925 17:02:38.263296  3155 net.cpp:380] Eltwise13_penlu27_0_split -> Eltwise13_penlu27_0_split_0
I0925 17:02:38.263300  3155 net.cpp:380] Eltwise13_penlu27_0_split -> Eltwise13_penlu27_0_split_1
I0925 17:02:38.263324  3155 net.cpp:122] Setting up Eltwise13_penlu27_0_split
I0925 17:02:38.263327  3155 net.cpp:129] Top shape: 100 32 14 14 (627200)
I0925 17:02:38.263330  3155 net.cpp:129] Top shape: 100 32 14 14 (627200)
I0925 17:02:38.263332  3155 net.cpp:137] Memory required for data: 645702800
I0925 17:02:38.263334  3155 layer_factory.hpp:77] Creating layer Convolution29
I0925 17:02:38.263340  3155 net.cpp:84] Creating Layer Convolution29
I0925 17:02:38.263344  3155 net.cpp:406] Convolution29 <- Eltwise13_penlu27_0_split_0
I0925 17:02:38.263347  3155 net.cpp:380] Convolution29 -> Convolution29
I0925 17:02:38.264374  3155 net.cpp:122] Setting up Convolution29
I0925 17:02:38.264382  3155 net.cpp:129] Top shape: 100 32 14 14 (627200)
I0925 17:02:38.264384  3155 net.cpp:137] Memory required for data: 648211600
I0925 17:02:38.264389  3155 layer_factory.hpp:77] Creating layer BatchNorm29
I0925 17:02:38.264394  3155 net.cpp:84] Creating Layer BatchNorm29
I0925 17:02:38.264396  3155 net.cpp:406] BatchNorm29 <- Convolution29
I0925 17:02:38.264400  3155 net.cpp:367] BatchNorm29 -> Convolution29 (in-place)
I0925 17:02:38.264559  3155 net.cpp:122] Setting up BatchNorm29
I0925 17:02:38.264564  3155 net.cpp:129] Top shape: 100 32 14 14 (627200)
I0925 17:02:38.264566  3155 net.cpp:137] Memory required for data: 650720400
I0925 17:02:38.264570  3155 layer_factory.hpp:77] Creating layer Scale29
I0925 17:02:38.264575  3155 net.cpp:84] Creating Layer Scale29
I0925 17:02:38.264577  3155 net.cpp:406] Scale29 <- Convolution29
I0925 17:02:38.264581  3155 net.cpp:367] Scale29 -> Convolution29 (in-place)
I0925 17:02:38.264607  3155 layer_factory.hpp:77] Creating layer Scale29
I0925 17:02:38.264684  3155 net.cpp:122] Setting up Scale29
I0925 17:02:38.264689  3155 net.cpp:129] Top shape: 100 32 14 14 (627200)
I0925 17:02:38.264691  3155 net.cpp:137] Memory required for data: 653229200
I0925 17:02:38.264695  3155 layer_factory.hpp:77] Creating layer penlu28
I0925 17:02:38.264700  3155 net.cpp:84] Creating Layer penlu28
I0925 17:02:38.264703  3155 net.cpp:406] penlu28 <- Convolution29
I0925 17:02:38.264706  3155 net.cpp:367] penlu28 -> Convolution29 (in-place)
I0925 17:02:38.264811  3155 net.cpp:122] Setting up penlu28
I0925 17:02:38.264816  3155 net.cpp:129] Top shape: 100 32 14 14 (627200)
I0925 17:02:38.264818  3155 net.cpp:137] Memory required for data: 655738000
I0925 17:02:38.264822  3155 layer_factory.hpp:77] Creating layer Convolution30
I0925 17:02:38.264828  3155 net.cpp:84] Creating Layer Convolution30
I0925 17:02:38.264830  3155 net.cpp:406] Convolution30 <- Convolution29
I0925 17:02:38.264834  3155 net.cpp:380] Convolution30 -> Convolution30
I0925 17:02:38.265859  3155 net.cpp:122] Setting up Convolution30
I0925 17:02:38.265869  3155 net.cpp:129] Top shape: 100 32 14 14 (627200)
I0925 17:02:38.265872  3155 net.cpp:137] Memory required for data: 658246800
I0925 17:02:38.265877  3155 layer_factory.hpp:77] Creating layer BatchNorm30
I0925 17:02:38.265880  3155 net.cpp:84] Creating Layer BatchNorm30
I0925 17:02:38.265882  3155 net.cpp:406] BatchNorm30 <- Convolution30
I0925 17:02:38.265887  3155 net.cpp:367] BatchNorm30 -> Convolution30 (in-place)
I0925 17:02:38.266021  3155 net.cpp:122] Setting up BatchNorm30
I0925 17:02:38.266024  3155 net.cpp:129] Top shape: 100 32 14 14 (627200)
I0925 17:02:38.266026  3155 net.cpp:137] Memory required for data: 660755600
I0925 17:02:38.266031  3155 layer_factory.hpp:77] Creating layer Scale30
I0925 17:02:38.266034  3155 net.cpp:84] Creating Layer Scale30
I0925 17:02:38.266037  3155 net.cpp:406] Scale30 <- Convolution30
I0925 17:02:38.266041  3155 net.cpp:367] Scale30 -> Convolution30 (in-place)
I0925 17:02:38.266074  3155 layer_factory.hpp:77] Creating layer Scale30
I0925 17:02:38.266152  3155 net.cpp:122] Setting up Scale30
I0925 17:02:38.266156  3155 net.cpp:129] Top shape: 100 32 14 14 (627200)
I0925 17:02:38.266160  3155 net.cpp:137] Memory required for data: 663264400
I0925 17:02:38.266162  3155 layer_factory.hpp:77] Creating layer Eltwise14
I0925 17:02:38.266166  3155 net.cpp:84] Creating Layer Eltwise14
I0925 17:02:38.266168  3155 net.cpp:406] Eltwise14 <- Eltwise13_penlu27_0_split_1
I0925 17:02:38.266171  3155 net.cpp:406] Eltwise14 <- Convolution30
I0925 17:02:38.266175  3155 net.cpp:380] Eltwise14 -> Eltwise14
I0925 17:02:38.266191  3155 net.cpp:122] Setting up Eltwise14
I0925 17:02:38.266194  3155 net.cpp:129] Top shape: 100 32 14 14 (627200)
I0925 17:02:38.266196  3155 net.cpp:137] Memory required for data: 665773200
I0925 17:02:38.266198  3155 layer_factory.hpp:77] Creating layer penlu29
I0925 17:02:38.266203  3155 net.cpp:84] Creating Layer penlu29
I0925 17:02:38.266206  3155 net.cpp:406] penlu29 <- Eltwise14
I0925 17:02:38.266209  3155 net.cpp:367] penlu29 -> Eltwise14 (in-place)
I0925 17:02:38.266316  3155 net.cpp:122] Setting up penlu29
I0925 17:02:38.266320  3155 net.cpp:129] Top shape: 100 32 14 14 (627200)
I0925 17:02:38.266322  3155 net.cpp:137] Memory required for data: 668282000
I0925 17:02:38.266326  3155 layer_factory.hpp:77] Creating layer Eltwise14_penlu29_0_split
I0925 17:02:38.266330  3155 net.cpp:84] Creating Layer Eltwise14_penlu29_0_split
I0925 17:02:38.266333  3155 net.cpp:406] Eltwise14_penlu29_0_split <- Eltwise14
I0925 17:02:38.266336  3155 net.cpp:380] Eltwise14_penlu29_0_split -> Eltwise14_penlu29_0_split_0
I0925 17:02:38.266340  3155 net.cpp:380] Eltwise14_penlu29_0_split -> Eltwise14_penlu29_0_split_1
I0925 17:02:38.266362  3155 net.cpp:122] Setting up Eltwise14_penlu29_0_split
I0925 17:02:38.266366  3155 net.cpp:129] Top shape: 100 32 14 14 (627200)
I0925 17:02:38.266369  3155 net.cpp:129] Top shape: 100 32 14 14 (627200)
I0925 17:02:38.266371  3155 net.cpp:137] Memory required for data: 673299600
I0925 17:02:38.266373  3155 layer_factory.hpp:77] Creating layer Convolution31
I0925 17:02:38.266378  3155 net.cpp:84] Creating Layer Convolution31
I0925 17:02:38.266381  3155 net.cpp:406] Convolution31 <- Eltwise14_penlu29_0_split_0
I0925 17:02:38.266386  3155 net.cpp:380] Convolution31 -> Convolution31
I0925 17:02:38.267416  3155 net.cpp:122] Setting up Convolution31
I0925 17:02:38.267424  3155 net.cpp:129] Top shape: 100 32 14 14 (627200)
I0925 17:02:38.267427  3155 net.cpp:137] Memory required for data: 675808400
I0925 17:02:38.267431  3155 layer_factory.hpp:77] Creating layer BatchNorm31
I0925 17:02:38.267436  3155 net.cpp:84] Creating Layer BatchNorm31
I0925 17:02:38.267438  3155 net.cpp:406] BatchNorm31 <- Convolution31
I0925 17:02:38.267442  3155 net.cpp:367] BatchNorm31 -> Convolution31 (in-place)
I0925 17:02:38.267580  3155 net.cpp:122] Setting up BatchNorm31
I0925 17:02:38.267585  3155 net.cpp:129] Top shape: 100 32 14 14 (627200)
I0925 17:02:38.267586  3155 net.cpp:137] Memory required for data: 678317200
I0925 17:02:38.267591  3155 layer_factory.hpp:77] Creating layer Scale31
I0925 17:02:38.267596  3155 net.cpp:84] Creating Layer Scale31
I0925 17:02:38.267597  3155 net.cpp:406] Scale31 <- Convolution31
I0925 17:02:38.267601  3155 net.cpp:367] Scale31 -> Convolution31 (in-place)
I0925 17:02:38.267627  3155 layer_factory.hpp:77] Creating layer Scale31
I0925 17:02:38.267704  3155 net.cpp:122] Setting up Scale31
I0925 17:02:38.267707  3155 net.cpp:129] Top shape: 100 32 14 14 (627200)
I0925 17:02:38.267709  3155 net.cpp:137] Memory required for data: 680826000
I0925 17:02:38.267714  3155 layer_factory.hpp:77] Creating layer penlu30
I0925 17:02:38.267717  3155 net.cpp:84] Creating Layer penlu30
I0925 17:02:38.267720  3155 net.cpp:406] penlu30 <- Convolution31
I0925 17:02:38.267724  3155 net.cpp:367] penlu30 -> Convolution31 (in-place)
I0925 17:02:38.267832  3155 net.cpp:122] Setting up penlu30
I0925 17:02:38.267835  3155 net.cpp:129] Top shape: 100 32 14 14 (627200)
I0925 17:02:38.267844  3155 net.cpp:137] Memory required for data: 683334800
I0925 17:02:38.267848  3155 layer_factory.hpp:77] Creating layer Convolution32
I0925 17:02:38.267855  3155 net.cpp:84] Creating Layer Convolution32
I0925 17:02:38.267858  3155 net.cpp:406] Convolution32 <- Convolution31
I0925 17:02:38.267863  3155 net.cpp:380] Convolution32 -> Convolution32
I0925 17:02:38.268919  3155 net.cpp:122] Setting up Convolution32
I0925 17:02:38.268929  3155 net.cpp:129] Top shape: 100 32 14 14 (627200)
I0925 17:02:38.268931  3155 net.cpp:137] Memory required for data: 685843600
I0925 17:02:38.268935  3155 layer_factory.hpp:77] Creating layer BatchNorm32
I0925 17:02:38.268940  3155 net.cpp:84] Creating Layer BatchNorm32
I0925 17:02:38.268944  3155 net.cpp:406] BatchNorm32 <- Convolution32
I0925 17:02:38.268947  3155 net.cpp:367] BatchNorm32 -> Convolution32 (in-place)
I0925 17:02:38.269081  3155 net.cpp:122] Setting up BatchNorm32
I0925 17:02:38.269085  3155 net.cpp:129] Top shape: 100 32 14 14 (627200)
I0925 17:02:38.269088  3155 net.cpp:137] Memory required for data: 688352400
I0925 17:02:38.269093  3155 layer_factory.hpp:77] Creating layer Scale32
I0925 17:02:38.269096  3155 net.cpp:84] Creating Layer Scale32
I0925 17:02:38.269098  3155 net.cpp:406] Scale32 <- Convolution32
I0925 17:02:38.269101  3155 net.cpp:367] Scale32 -> Convolution32 (in-place)
I0925 17:02:38.269130  3155 layer_factory.hpp:77] Creating layer Scale32
I0925 17:02:38.269207  3155 net.cpp:122] Setting up Scale32
I0925 17:02:38.269212  3155 net.cpp:129] Top shape: 100 32 14 14 (627200)
I0925 17:02:38.269214  3155 net.cpp:137] Memory required for data: 690861200
I0925 17:02:38.269218  3155 layer_factory.hpp:77] Creating layer Eltwise15
I0925 17:02:38.269222  3155 net.cpp:84] Creating Layer Eltwise15
I0925 17:02:38.269225  3155 net.cpp:406] Eltwise15 <- Eltwise14_penlu29_0_split_1
I0925 17:02:38.269228  3155 net.cpp:406] Eltwise15 <- Convolution32
I0925 17:02:38.269232  3155 net.cpp:380] Eltwise15 -> Eltwise15
I0925 17:02:38.269248  3155 net.cpp:122] Setting up Eltwise15
I0925 17:02:38.269251  3155 net.cpp:129] Top shape: 100 32 14 14 (627200)
I0925 17:02:38.269253  3155 net.cpp:137] Memory required for data: 693370000
I0925 17:02:38.269255  3155 layer_factory.hpp:77] Creating layer penlu31
I0925 17:02:38.269261  3155 net.cpp:84] Creating Layer penlu31
I0925 17:02:38.269263  3155 net.cpp:406] penlu31 <- Eltwise15
I0925 17:02:38.269268  3155 net.cpp:367] penlu31 -> Eltwise15 (in-place)
I0925 17:02:38.269376  3155 net.cpp:122] Setting up penlu31
I0925 17:02:38.269379  3155 net.cpp:129] Top shape: 100 32 14 14 (627200)
I0925 17:02:38.269381  3155 net.cpp:137] Memory required for data: 695878800
I0925 17:02:38.269385  3155 layer_factory.hpp:77] Creating layer Eltwise15_penlu31_0_split
I0925 17:02:38.269390  3155 net.cpp:84] Creating Layer Eltwise15_penlu31_0_split
I0925 17:02:38.269392  3155 net.cpp:406] Eltwise15_penlu31_0_split <- Eltwise15
I0925 17:02:38.269395  3155 net.cpp:380] Eltwise15_penlu31_0_split -> Eltwise15_penlu31_0_split_0
I0925 17:02:38.269399  3155 net.cpp:380] Eltwise15_penlu31_0_split -> Eltwise15_penlu31_0_split_1
I0925 17:02:38.269423  3155 net.cpp:122] Setting up Eltwise15_penlu31_0_split
I0925 17:02:38.269425  3155 net.cpp:129] Top shape: 100 32 14 14 (627200)
I0925 17:02:38.269428  3155 net.cpp:129] Top shape: 100 32 14 14 (627200)
I0925 17:02:38.269430  3155 net.cpp:137] Memory required for data: 700896400
I0925 17:02:38.269433  3155 layer_factory.hpp:77] Creating layer Convolution33
I0925 17:02:38.269438  3155 net.cpp:84] Creating Layer Convolution33
I0925 17:02:38.269440  3155 net.cpp:406] Convolution33 <- Eltwise15_penlu31_0_split_0
I0925 17:02:38.269445  3155 net.cpp:380] Convolution33 -> Convolution33
I0925 17:02:38.270783  3155 net.cpp:122] Setting up Convolution33
I0925 17:02:38.270792  3155 net.cpp:129] Top shape: 100 32 14 14 (627200)
I0925 17:02:38.270794  3155 net.cpp:137] Memory required for data: 703405200
I0925 17:02:38.270799  3155 layer_factory.hpp:77] Creating layer BatchNorm33
I0925 17:02:38.270804  3155 net.cpp:84] Creating Layer BatchNorm33
I0925 17:02:38.270813  3155 net.cpp:406] BatchNorm33 <- Convolution33
I0925 17:02:38.270817  3155 net.cpp:367] BatchNorm33 -> Convolution33 (in-place)
I0925 17:02:38.270956  3155 net.cpp:122] Setting up BatchNorm33
I0925 17:02:38.270961  3155 net.cpp:129] Top shape: 100 32 14 14 (627200)
I0925 17:02:38.270963  3155 net.cpp:137] Memory required for data: 705914000
I0925 17:02:38.270967  3155 layer_factory.hpp:77] Creating layer Scale33
I0925 17:02:38.270972  3155 net.cpp:84] Creating Layer Scale33
I0925 17:02:38.270974  3155 net.cpp:406] Scale33 <- Convolution33
I0925 17:02:38.270977  3155 net.cpp:367] Scale33 -> Convolution33 (in-place)
I0925 17:02:38.271004  3155 layer_factory.hpp:77] Creating layer Scale33
I0925 17:02:38.271083  3155 net.cpp:122] Setting up Scale33
I0925 17:02:38.271087  3155 net.cpp:129] Top shape: 100 32 14 14 (627200)
I0925 17:02:38.271090  3155 net.cpp:137] Memory required for data: 708422800
I0925 17:02:38.271093  3155 layer_factory.hpp:77] Creating layer penlu32
I0925 17:02:38.271098  3155 net.cpp:84] Creating Layer penlu32
I0925 17:02:38.271101  3155 net.cpp:406] penlu32 <- Convolution33
I0925 17:02:38.271106  3155 net.cpp:367] penlu32 -> Convolution33 (in-place)
I0925 17:02:38.271212  3155 net.cpp:122] Setting up penlu32
I0925 17:02:38.271216  3155 net.cpp:129] Top shape: 100 32 14 14 (627200)
I0925 17:02:38.271219  3155 net.cpp:137] Memory required for data: 710931600
I0925 17:02:38.271224  3155 layer_factory.hpp:77] Creating layer Convolution34
I0925 17:02:38.271229  3155 net.cpp:84] Creating Layer Convolution34
I0925 17:02:38.271232  3155 net.cpp:406] Convolution34 <- Convolution33
I0925 17:02:38.271236  3155 net.cpp:380] Convolution34 -> Convolution34
I0925 17:02:38.272300  3155 net.cpp:122] Setting up Convolution34
I0925 17:02:38.272310  3155 net.cpp:129] Top shape: 100 32 14 14 (627200)
I0925 17:02:38.272311  3155 net.cpp:137] Memory required for data: 713440400
I0925 17:02:38.272315  3155 layer_factory.hpp:77] Creating layer BatchNorm34
I0925 17:02:38.272321  3155 net.cpp:84] Creating Layer BatchNorm34
I0925 17:02:38.272325  3155 net.cpp:406] BatchNorm34 <- Convolution34
I0925 17:02:38.272327  3155 net.cpp:367] BatchNorm34 -> Convolution34 (in-place)
I0925 17:02:38.272464  3155 net.cpp:122] Setting up BatchNorm34
I0925 17:02:38.272469  3155 net.cpp:129] Top shape: 100 32 14 14 (627200)
I0925 17:02:38.272470  3155 net.cpp:137] Memory required for data: 715949200
I0925 17:02:38.272475  3155 layer_factory.hpp:77] Creating layer Scale34
I0925 17:02:38.272478  3155 net.cpp:84] Creating Layer Scale34
I0925 17:02:38.272481  3155 net.cpp:406] Scale34 <- Convolution34
I0925 17:02:38.272485  3155 net.cpp:367] Scale34 -> Convolution34 (in-place)
I0925 17:02:38.272537  3155 layer_factory.hpp:77] Creating layer Scale34
I0925 17:02:38.272615  3155 net.cpp:122] Setting up Scale34
I0925 17:02:38.272619  3155 net.cpp:129] Top shape: 100 32 14 14 (627200)
I0925 17:02:38.272621  3155 net.cpp:137] Memory required for data: 718458000
I0925 17:02:38.272625  3155 layer_factory.hpp:77] Creating layer Eltwise16
I0925 17:02:38.272629  3155 net.cpp:84] Creating Layer Eltwise16
I0925 17:02:38.272631  3155 net.cpp:406] Eltwise16 <- Eltwise15_penlu31_0_split_1
I0925 17:02:38.272635  3155 net.cpp:406] Eltwise16 <- Convolution34
I0925 17:02:38.272639  3155 net.cpp:380] Eltwise16 -> Eltwise16
I0925 17:02:38.272655  3155 net.cpp:122] Setting up Eltwise16
I0925 17:02:38.272658  3155 net.cpp:129] Top shape: 100 32 14 14 (627200)
I0925 17:02:38.272660  3155 net.cpp:137] Memory required for data: 720966800
I0925 17:02:38.272662  3155 layer_factory.hpp:77] Creating layer penlu33
I0925 17:02:38.272667  3155 net.cpp:84] Creating Layer penlu33
I0925 17:02:38.272670  3155 net.cpp:406] penlu33 <- Eltwise16
I0925 17:02:38.272673  3155 net.cpp:367] penlu33 -> Eltwise16 (in-place)
I0925 17:02:38.272780  3155 net.cpp:122] Setting up penlu33
I0925 17:02:38.272784  3155 net.cpp:129] Top shape: 100 32 14 14 (627200)
I0925 17:02:38.272786  3155 net.cpp:137] Memory required for data: 723475600
I0925 17:02:38.272797  3155 layer_factory.hpp:77] Creating layer Eltwise16_penlu33_0_split
I0925 17:02:38.272801  3155 net.cpp:84] Creating Layer Eltwise16_penlu33_0_split
I0925 17:02:38.272804  3155 net.cpp:406] Eltwise16_penlu33_0_split <- Eltwise16
I0925 17:02:38.272807  3155 net.cpp:380] Eltwise16_penlu33_0_split -> Eltwise16_penlu33_0_split_0
I0925 17:02:38.272811  3155 net.cpp:380] Eltwise16_penlu33_0_split -> Eltwise16_penlu33_0_split_1
I0925 17:02:38.272835  3155 net.cpp:122] Setting up Eltwise16_penlu33_0_split
I0925 17:02:38.272838  3155 net.cpp:129] Top shape: 100 32 14 14 (627200)
I0925 17:02:38.272841  3155 net.cpp:129] Top shape: 100 32 14 14 (627200)
I0925 17:02:38.272843  3155 net.cpp:137] Memory required for data: 728493200
I0925 17:02:38.272845  3155 layer_factory.hpp:77] Creating layer Convolution35
I0925 17:02:38.272852  3155 net.cpp:84] Creating Layer Convolution35
I0925 17:02:38.272855  3155 net.cpp:406] Convolution35 <- Eltwise16_penlu33_0_split_0
I0925 17:02:38.272858  3155 net.cpp:380] Convolution35 -> Convolution35
I0925 17:02:38.273896  3155 net.cpp:122] Setting up Convolution35
I0925 17:02:38.273905  3155 net.cpp:129] Top shape: 100 32 14 14 (627200)
I0925 17:02:38.273907  3155 net.cpp:137] Memory required for data: 731002000
I0925 17:02:38.273911  3155 layer_factory.hpp:77] Creating layer BatchNorm35
I0925 17:02:38.273916  3155 net.cpp:84] Creating Layer BatchNorm35
I0925 17:02:38.273919  3155 net.cpp:406] BatchNorm35 <- Convolution35
I0925 17:02:38.273923  3155 net.cpp:367] BatchNorm35 -> Convolution35 (in-place)
I0925 17:02:38.274060  3155 net.cpp:122] Setting up BatchNorm35
I0925 17:02:38.274065  3155 net.cpp:129] Top shape: 100 32 14 14 (627200)
I0925 17:02:38.274066  3155 net.cpp:137] Memory required for data: 733510800
I0925 17:02:38.274071  3155 layer_factory.hpp:77] Creating layer Scale35
I0925 17:02:38.274075  3155 net.cpp:84] Creating Layer Scale35
I0925 17:02:38.274077  3155 net.cpp:406] Scale35 <- Convolution35
I0925 17:02:38.274081  3155 net.cpp:367] Scale35 -> Convolution35 (in-place)
I0925 17:02:38.274108  3155 layer_factory.hpp:77] Creating layer Scale35
I0925 17:02:38.274185  3155 net.cpp:122] Setting up Scale35
I0925 17:02:38.274189  3155 net.cpp:129] Top shape: 100 32 14 14 (627200)
I0925 17:02:38.274191  3155 net.cpp:137] Memory required for data: 736019600
I0925 17:02:38.274195  3155 layer_factory.hpp:77] Creating layer penlu34
I0925 17:02:38.274201  3155 net.cpp:84] Creating Layer penlu34
I0925 17:02:38.274204  3155 net.cpp:406] penlu34 <- Convolution35
I0925 17:02:38.274207  3155 net.cpp:367] penlu34 -> Convolution35 (in-place)
I0925 17:02:38.274313  3155 net.cpp:122] Setting up penlu34
I0925 17:02:38.274317  3155 net.cpp:129] Top shape: 100 32 14 14 (627200)
I0925 17:02:38.274319  3155 net.cpp:137] Memory required for data: 738528400
I0925 17:02:38.274323  3155 layer_factory.hpp:77] Creating layer Convolution36
I0925 17:02:38.274330  3155 net.cpp:84] Creating Layer Convolution36
I0925 17:02:38.274333  3155 net.cpp:406] Convolution36 <- Convolution35
I0925 17:02:38.274336  3155 net.cpp:380] Convolution36 -> Convolution36
I0925 17:02:38.275369  3155 net.cpp:122] Setting up Convolution36
I0925 17:02:38.275379  3155 net.cpp:129] Top shape: 100 32 14 14 (627200)
I0925 17:02:38.275382  3155 net.cpp:137] Memory required for data: 741037200
I0925 17:02:38.275385  3155 layer_factory.hpp:77] Creating layer BatchNorm36
I0925 17:02:38.275390  3155 net.cpp:84] Creating Layer BatchNorm36
I0925 17:02:38.275393  3155 net.cpp:406] BatchNorm36 <- Convolution36
I0925 17:02:38.275398  3155 net.cpp:367] BatchNorm36 -> Convolution36 (in-place)
I0925 17:02:38.275532  3155 net.cpp:122] Setting up BatchNorm36
I0925 17:02:38.275537  3155 net.cpp:129] Top shape: 100 32 14 14 (627200)
I0925 17:02:38.275538  3155 net.cpp:137] Memory required for data: 743546000
I0925 17:02:38.275543  3155 layer_factory.hpp:77] Creating layer Scale36
I0925 17:02:38.275547  3155 net.cpp:84] Creating Layer Scale36
I0925 17:02:38.275549  3155 net.cpp:406] Scale36 <- Convolution36
I0925 17:02:38.275552  3155 net.cpp:367] Scale36 -> Convolution36 (in-place)
I0925 17:02:38.275588  3155 layer_factory.hpp:77] Creating layer Scale36
I0925 17:02:38.275665  3155 net.cpp:122] Setting up Scale36
I0925 17:02:38.275669  3155 net.cpp:129] Top shape: 100 32 14 14 (627200)
I0925 17:02:38.275671  3155 net.cpp:137] Memory required for data: 746054800
I0925 17:02:38.275674  3155 layer_factory.hpp:77] Creating layer Eltwise17
I0925 17:02:38.275678  3155 net.cpp:84] Creating Layer Eltwise17
I0925 17:02:38.275681  3155 net.cpp:406] Eltwise17 <- Eltwise16_penlu33_0_split_1
I0925 17:02:38.275684  3155 net.cpp:406] Eltwise17 <- Convolution36
I0925 17:02:38.275687  3155 net.cpp:380] Eltwise17 -> Eltwise17
I0925 17:02:38.275703  3155 net.cpp:122] Setting up Eltwise17
I0925 17:02:38.275707  3155 net.cpp:129] Top shape: 100 32 14 14 (627200)
I0925 17:02:38.275708  3155 net.cpp:137] Memory required for data: 748563600
I0925 17:02:38.275710  3155 layer_factory.hpp:77] Creating layer penlu35
I0925 17:02:38.275715  3155 net.cpp:84] Creating Layer penlu35
I0925 17:02:38.275718  3155 net.cpp:406] penlu35 <- Eltwise17
I0925 17:02:38.275722  3155 net.cpp:367] penlu35 -> Eltwise17 (in-place)
I0925 17:02:38.275831  3155 net.cpp:122] Setting up penlu35
I0925 17:02:38.275835  3155 net.cpp:129] Top shape: 100 32 14 14 (627200)
I0925 17:02:38.275837  3155 net.cpp:137] Memory required for data: 751072400
I0925 17:02:38.275842  3155 layer_factory.hpp:77] Creating layer Eltwise17_penlu35_0_split
I0925 17:02:38.275846  3155 net.cpp:84] Creating Layer Eltwise17_penlu35_0_split
I0925 17:02:38.275848  3155 net.cpp:406] Eltwise17_penlu35_0_split <- Eltwise17
I0925 17:02:38.275851  3155 net.cpp:380] Eltwise17_penlu35_0_split -> Eltwise17_penlu35_0_split_0
I0925 17:02:38.275856  3155 net.cpp:380] Eltwise17_penlu35_0_split -> Eltwise17_penlu35_0_split_1
I0925 17:02:38.275878  3155 net.cpp:122] Setting up Eltwise17_penlu35_0_split
I0925 17:02:38.275882  3155 net.cpp:129] Top shape: 100 32 14 14 (627200)
I0925 17:02:38.275885  3155 net.cpp:129] Top shape: 100 32 14 14 (627200)
I0925 17:02:38.275887  3155 net.cpp:137] Memory required for data: 756090000
I0925 17:02:38.275889  3155 layer_factory.hpp:77] Creating layer Convolution37
I0925 17:02:38.275894  3155 net.cpp:84] Creating Layer Convolution37
I0925 17:02:38.275897  3155 net.cpp:406] Convolution37 <- Eltwise17_penlu35_0_split_0
I0925 17:02:38.275902  3155 net.cpp:380] Convolution37 -> Convolution37
I0925 17:02:38.276641  3155 net.cpp:122] Setting up Convolution37
I0925 17:02:38.276649  3155 net.cpp:129] Top shape: 100 32 14 14 (627200)
I0925 17:02:38.276651  3155 net.cpp:137] Memory required for data: 758598800
I0925 17:02:38.276655  3155 layer_factory.hpp:77] Creating layer BatchNorm37
I0925 17:02:38.276660  3155 net.cpp:84] Creating Layer BatchNorm37
I0925 17:02:38.276664  3155 net.cpp:406] BatchNorm37 <- Convolution37
I0925 17:02:38.276667  3155 net.cpp:367] BatchNorm37 -> Convolution37 (in-place)
I0925 17:02:38.276804  3155 net.cpp:122] Setting up BatchNorm37
I0925 17:02:38.276808  3155 net.cpp:129] Top shape: 100 32 14 14 (627200)
I0925 17:02:38.276810  3155 net.cpp:137] Memory required for data: 761107600
I0925 17:02:38.276815  3155 layer_factory.hpp:77] Creating layer Scale37
I0925 17:02:38.276819  3155 net.cpp:84] Creating Layer Scale37
I0925 17:02:38.276823  3155 net.cpp:406] Scale37 <- Convolution37
I0925 17:02:38.276825  3155 net.cpp:367] Scale37 -> Convolution37 (in-place)
I0925 17:02:38.276851  3155 layer_factory.hpp:77] Creating layer Scale37
I0925 17:02:38.276927  3155 net.cpp:122] Setting up Scale37
I0925 17:02:38.276932  3155 net.cpp:129] Top shape: 100 32 14 14 (627200)
I0925 17:02:38.276933  3155 net.cpp:137] Memory required for data: 763616400
I0925 17:02:38.276937  3155 layer_factory.hpp:77] Creating layer penlu36
I0925 17:02:38.276942  3155 net.cpp:84] Creating Layer penlu36
I0925 17:02:38.276944  3155 net.cpp:406] penlu36 <- Convolution37
I0925 17:02:38.276948  3155 net.cpp:367] penlu36 -> Convolution37 (in-place)
I0925 17:02:38.277055  3155 net.cpp:122] Setting up penlu36
I0925 17:02:38.277060  3155 net.cpp:129] Top shape: 100 32 14 14 (627200)
I0925 17:02:38.277067  3155 net.cpp:137] Memory required for data: 766125200
I0925 17:02:38.277071  3155 layer_factory.hpp:77] Creating layer Convolution38
I0925 17:02:38.277078  3155 net.cpp:84] Creating Layer Convolution38
I0925 17:02:38.277081  3155 net.cpp:406] Convolution38 <- Convolution37
I0925 17:02:38.277084  3155 net.cpp:380] Convolution38 -> Convolution38
I0925 17:02:38.278133  3155 net.cpp:122] Setting up Convolution38
I0925 17:02:38.278142  3155 net.cpp:129] Top shape: 100 32 14 14 (627200)
I0925 17:02:38.278144  3155 net.cpp:137] Memory required for data: 768634000
I0925 17:02:38.278149  3155 layer_factory.hpp:77] Creating layer BatchNorm38
I0925 17:02:38.278154  3155 net.cpp:84] Creating Layer BatchNorm38
I0925 17:02:38.278156  3155 net.cpp:406] BatchNorm38 <- Convolution38
I0925 17:02:38.278161  3155 net.cpp:367] BatchNorm38 -> Convolution38 (in-place)
I0925 17:02:38.278300  3155 net.cpp:122] Setting up BatchNorm38
I0925 17:02:38.278303  3155 net.cpp:129] Top shape: 100 32 14 14 (627200)
I0925 17:02:38.278306  3155 net.cpp:137] Memory required for data: 771142800
I0925 17:02:38.278311  3155 layer_factory.hpp:77] Creating layer Scale38
I0925 17:02:38.278316  3155 net.cpp:84] Creating Layer Scale38
I0925 17:02:38.278317  3155 net.cpp:406] Scale38 <- Convolution38
I0925 17:02:38.278321  3155 net.cpp:367] Scale38 -> Convolution38 (in-place)
I0925 17:02:38.278348  3155 layer_factory.hpp:77] Creating layer Scale38
I0925 17:02:38.278425  3155 net.cpp:122] Setting up Scale38
I0925 17:02:38.278429  3155 net.cpp:129] Top shape: 100 32 14 14 (627200)
I0925 17:02:38.278431  3155 net.cpp:137] Memory required for data: 773651600
I0925 17:02:38.278435  3155 layer_factory.hpp:77] Creating layer Eltwise18
I0925 17:02:38.278439  3155 net.cpp:84] Creating Layer Eltwise18
I0925 17:02:38.278442  3155 net.cpp:406] Eltwise18 <- Eltwise17_penlu35_0_split_1
I0925 17:02:38.278445  3155 net.cpp:406] Eltwise18 <- Convolution38
I0925 17:02:38.278448  3155 net.cpp:380] Eltwise18 -> Eltwise18
I0925 17:02:38.278465  3155 net.cpp:122] Setting up Eltwise18
I0925 17:02:38.278467  3155 net.cpp:129] Top shape: 100 32 14 14 (627200)
I0925 17:02:38.278470  3155 net.cpp:137] Memory required for data: 776160400
I0925 17:02:38.278471  3155 layer_factory.hpp:77] Creating layer penlu37
I0925 17:02:38.278477  3155 net.cpp:84] Creating Layer penlu37
I0925 17:02:38.278481  3155 net.cpp:406] penlu37 <- Eltwise18
I0925 17:02:38.278483  3155 net.cpp:367] penlu37 -> Eltwise18 (in-place)
I0925 17:02:38.278591  3155 net.cpp:122] Setting up penlu37
I0925 17:02:38.278595  3155 net.cpp:129] Top shape: 100 32 14 14 (627200)
I0925 17:02:38.278597  3155 net.cpp:137] Memory required for data: 778669200
I0925 17:02:38.278601  3155 layer_factory.hpp:77] Creating layer Eltwise18_penlu37_0_split
I0925 17:02:38.278605  3155 net.cpp:84] Creating Layer Eltwise18_penlu37_0_split
I0925 17:02:38.278607  3155 net.cpp:406] Eltwise18_penlu37_0_split <- Eltwise18
I0925 17:02:38.278610  3155 net.cpp:380] Eltwise18_penlu37_0_split -> Eltwise18_penlu37_0_split_0
I0925 17:02:38.278614  3155 net.cpp:380] Eltwise18_penlu37_0_split -> Eltwise18_penlu37_0_split_1
I0925 17:02:38.278638  3155 net.cpp:122] Setting up Eltwise18_penlu37_0_split
I0925 17:02:38.278641  3155 net.cpp:129] Top shape: 100 32 14 14 (627200)
I0925 17:02:38.278645  3155 net.cpp:129] Top shape: 100 32 14 14 (627200)
I0925 17:02:38.278646  3155 net.cpp:137] Memory required for data: 783686800
I0925 17:02:38.278648  3155 layer_factory.hpp:77] Creating layer Convolution39
I0925 17:02:38.278654  3155 net.cpp:84] Creating Layer Convolution39
I0925 17:02:38.278656  3155 net.cpp:406] Convolution39 <- Eltwise18_penlu37_0_split_0
I0925 17:02:38.278661  3155 net.cpp:380] Convolution39 -> Convolution39
I0925 17:02:38.279546  3155 net.cpp:122] Setting up Convolution39
I0925 17:02:38.279556  3155 net.cpp:129] Top shape: 100 64 7 7 (313600)
I0925 17:02:38.279558  3155 net.cpp:137] Memory required for data: 784941200
I0925 17:02:38.279562  3155 layer_factory.hpp:77] Creating layer BatchNorm39
I0925 17:02:38.279573  3155 net.cpp:84] Creating Layer BatchNorm39
I0925 17:02:38.279577  3155 net.cpp:406] BatchNorm39 <- Convolution39
I0925 17:02:38.279580  3155 net.cpp:367] BatchNorm39 -> Convolution39 (in-place)
I0925 17:02:38.279717  3155 net.cpp:122] Setting up BatchNorm39
I0925 17:02:38.279721  3155 net.cpp:129] Top shape: 100 64 7 7 (313600)
I0925 17:02:38.279723  3155 net.cpp:137] Memory required for data: 786195600
I0925 17:02:38.279728  3155 layer_factory.hpp:77] Creating layer Scale39
I0925 17:02:38.279733  3155 net.cpp:84] Creating Layer Scale39
I0925 17:02:38.279736  3155 net.cpp:406] Scale39 <- Convolution39
I0925 17:02:38.279738  3155 net.cpp:367] Scale39 -> Convolution39 (in-place)
I0925 17:02:38.279765  3155 layer_factory.hpp:77] Creating layer Scale39
I0925 17:02:38.279842  3155 net.cpp:122] Setting up Scale39
I0925 17:02:38.279846  3155 net.cpp:129] Top shape: 100 64 7 7 (313600)
I0925 17:02:38.279848  3155 net.cpp:137] Memory required for data: 787450000
I0925 17:02:38.279852  3155 layer_factory.hpp:77] Creating layer Convolution40
I0925 17:02:38.279860  3155 net.cpp:84] Creating Layer Convolution40
I0925 17:02:38.279862  3155 net.cpp:406] Convolution40 <- Eltwise18_penlu37_0_split_1
I0925 17:02:38.279866  3155 net.cpp:380] Convolution40 -> Convolution40
I0925 17:02:38.281697  3155 net.cpp:122] Setting up Convolution40
I0925 17:02:38.281707  3155 net.cpp:129] Top shape: 100 64 7 7 (313600)
I0925 17:02:38.281709  3155 net.cpp:137] Memory required for data: 788704400
I0925 17:02:38.281713  3155 layer_factory.hpp:77] Creating layer BatchNorm40
I0925 17:02:38.281719  3155 net.cpp:84] Creating Layer BatchNorm40
I0925 17:02:38.281723  3155 net.cpp:406] BatchNorm40 <- Convolution40
I0925 17:02:38.281725  3155 net.cpp:367] BatchNorm40 -> Convolution40 (in-place)
I0925 17:02:38.281868  3155 net.cpp:122] Setting up BatchNorm40
I0925 17:02:38.281873  3155 net.cpp:129] Top shape: 100 64 7 7 (313600)
I0925 17:02:38.281875  3155 net.cpp:137] Memory required for data: 789958800
I0925 17:02:38.281880  3155 layer_factory.hpp:77] Creating layer Scale40
I0925 17:02:38.281885  3155 net.cpp:84] Creating Layer Scale40
I0925 17:02:38.281888  3155 net.cpp:406] Scale40 <- Convolution40
I0925 17:02:38.281891  3155 net.cpp:367] Scale40 -> Convolution40 (in-place)
I0925 17:02:38.281919  3155 layer_factory.hpp:77] Creating layer Scale40
I0925 17:02:38.281999  3155 net.cpp:122] Setting up Scale40
I0925 17:02:38.282003  3155 net.cpp:129] Top shape: 100 64 7 7 (313600)
I0925 17:02:38.282006  3155 net.cpp:137] Memory required for data: 791213200
I0925 17:02:38.282009  3155 layer_factory.hpp:77] Creating layer penlu38
I0925 17:02:38.282016  3155 net.cpp:84] Creating Layer penlu38
I0925 17:02:38.282017  3155 net.cpp:406] penlu38 <- Convolution40
I0925 17:02:38.282021  3155 net.cpp:367] penlu38 -> Convolution40 (in-place)
I0925 17:02:38.282130  3155 net.cpp:122] Setting up penlu38
I0925 17:02:38.282135  3155 net.cpp:129] Top shape: 100 64 7 7 (313600)
I0925 17:02:38.282137  3155 net.cpp:137] Memory required for data: 792467600
I0925 17:02:38.282141  3155 layer_factory.hpp:77] Creating layer Convolution41
I0925 17:02:38.282148  3155 net.cpp:84] Creating Layer Convolution41
I0925 17:02:38.282151  3155 net.cpp:406] Convolution41 <- Convolution40
I0925 17:02:38.282155  3155 net.cpp:380] Convolution41 -> Convolution41
I0925 17:02:38.284253  3155 net.cpp:122] Setting up Convolution41
I0925 17:02:38.284262  3155 net.cpp:129] Top shape: 100 64 7 7 (313600)
I0925 17:02:38.284265  3155 net.cpp:137] Memory required for data: 793722000
I0925 17:02:38.284271  3155 layer_factory.hpp:77] Creating layer BatchNorm41
I0925 17:02:38.284276  3155 net.cpp:84] Creating Layer BatchNorm41
I0925 17:02:38.284278  3155 net.cpp:406] BatchNorm41 <- Convolution41
I0925 17:02:38.284282  3155 net.cpp:367] BatchNorm41 -> Convolution41 (in-place)
I0925 17:02:38.284427  3155 net.cpp:122] Setting up BatchNorm41
I0925 17:02:38.284432  3155 net.cpp:129] Top shape: 100 64 7 7 (313600)
I0925 17:02:38.284435  3155 net.cpp:137] Memory required for data: 794976400
I0925 17:02:38.284440  3155 layer_factory.hpp:77] Creating layer Scale41
I0925 17:02:38.284451  3155 net.cpp:84] Creating Layer Scale41
I0925 17:02:38.284454  3155 net.cpp:406] Scale41 <- Convolution41
I0925 17:02:38.284458  3155 net.cpp:367] Scale41 -> Convolution41 (in-place)
I0925 17:02:38.284488  3155 layer_factory.hpp:77] Creating layer Scale41
I0925 17:02:38.284577  3155 net.cpp:122] Setting up Scale41
I0925 17:02:38.284584  3155 net.cpp:129] Top shape: 100 64 7 7 (313600)
I0925 17:02:38.284585  3155 net.cpp:137] Memory required for data: 796230800
I0925 17:02:38.284590  3155 layer_factory.hpp:77] Creating layer Eltwise19
I0925 17:02:38.284595  3155 net.cpp:84] Creating Layer Eltwise19
I0925 17:02:38.284598  3155 net.cpp:406] Eltwise19 <- Convolution39
I0925 17:02:38.284601  3155 net.cpp:406] Eltwise19 <- Convolution41
I0925 17:02:38.284605  3155 net.cpp:380] Eltwise19 -> Eltwise19
I0925 17:02:38.284621  3155 net.cpp:122] Setting up Eltwise19
I0925 17:02:38.284626  3155 net.cpp:129] Top shape: 100 64 7 7 (313600)
I0925 17:02:38.284627  3155 net.cpp:137] Memory required for data: 797485200
I0925 17:02:38.284629  3155 layer_factory.hpp:77] Creating layer penlu39
I0925 17:02:38.284636  3155 net.cpp:84] Creating Layer penlu39
I0925 17:02:38.284637  3155 net.cpp:406] penlu39 <- Eltwise19
I0925 17:02:38.284641  3155 net.cpp:367] penlu39 -> Eltwise19 (in-place)
I0925 17:02:38.284763  3155 net.cpp:122] Setting up penlu39
I0925 17:02:38.284767  3155 net.cpp:129] Top shape: 100 64 7 7 (313600)
I0925 17:02:38.284770  3155 net.cpp:137] Memory required for data: 798739600
I0925 17:02:38.284773  3155 layer_factory.hpp:77] Creating layer Eltwise19_penlu39_0_split
I0925 17:02:38.284778  3155 net.cpp:84] Creating Layer Eltwise19_penlu39_0_split
I0925 17:02:38.284780  3155 net.cpp:406] Eltwise19_penlu39_0_split <- Eltwise19
I0925 17:02:38.284785  3155 net.cpp:380] Eltwise19_penlu39_0_split -> Eltwise19_penlu39_0_split_0
I0925 17:02:38.284787  3155 net.cpp:380] Eltwise19_penlu39_0_split -> Eltwise19_penlu39_0_split_1
I0925 17:02:38.284821  3155 net.cpp:122] Setting up Eltwise19_penlu39_0_split
I0925 17:02:38.284826  3155 net.cpp:129] Top shape: 100 64 7 7 (313600)
I0925 17:02:38.284828  3155 net.cpp:129] Top shape: 100 64 7 7 (313600)
I0925 17:02:38.284831  3155 net.cpp:137] Memory required for data: 801248400
I0925 17:02:38.284832  3155 layer_factory.hpp:77] Creating layer Convolution42
I0925 17:02:38.284838  3155 net.cpp:84] Creating Layer Convolution42
I0925 17:02:38.284850  3155 net.cpp:406] Convolution42 <- Eltwise19_penlu39_0_split_0
I0925 17:02:38.284854  3155 net.cpp:380] Convolution42 -> Convolution42
I0925 17:02:38.286497  3155 net.cpp:122] Setting up Convolution42
I0925 17:02:38.286505  3155 net.cpp:129] Top shape: 100 64 7 7 (313600)
I0925 17:02:38.286509  3155 net.cpp:137] Memory required for data: 802502800
I0925 17:02:38.286512  3155 layer_factory.hpp:77] Creating layer BatchNorm42
I0925 17:02:38.286519  3155 net.cpp:84] Creating Layer BatchNorm42
I0925 17:02:38.286520  3155 net.cpp:406] BatchNorm42 <- Convolution42
I0925 17:02:38.286525  3155 net.cpp:367] BatchNorm42 -> Convolution42 (in-place)
I0925 17:02:38.286661  3155 net.cpp:122] Setting up BatchNorm42
I0925 17:02:38.286666  3155 net.cpp:129] Top shape: 100 64 7 7 (313600)
I0925 17:02:38.286669  3155 net.cpp:137] Memory required for data: 803757200
I0925 17:02:38.286674  3155 layer_factory.hpp:77] Creating layer Scale42
I0925 17:02:38.286677  3155 net.cpp:84] Creating Layer Scale42
I0925 17:02:38.286679  3155 net.cpp:406] Scale42 <- Convolution42
I0925 17:02:38.286682  3155 net.cpp:367] Scale42 -> Convolution42 (in-place)
I0925 17:02:38.286711  3155 layer_factory.hpp:77] Creating layer Scale42
I0925 17:02:38.286789  3155 net.cpp:122] Setting up Scale42
I0925 17:02:38.286793  3155 net.cpp:129] Top shape: 100 64 7 7 (313600)
I0925 17:02:38.286795  3155 net.cpp:137] Memory required for data: 805011600
I0925 17:02:38.286799  3155 layer_factory.hpp:77] Creating layer penlu40
I0925 17:02:38.286804  3155 net.cpp:84] Creating Layer penlu40
I0925 17:02:38.286808  3155 net.cpp:406] penlu40 <- Convolution42
I0925 17:02:38.286818  3155 net.cpp:367] penlu40 -> Convolution42 (in-place)
I0925 17:02:38.286929  3155 net.cpp:122] Setting up penlu40
I0925 17:02:38.286934  3155 net.cpp:129] Top shape: 100 64 7 7 (313600)
I0925 17:02:38.286936  3155 net.cpp:137] Memory required for data: 806266000
I0925 17:02:38.286940  3155 layer_factory.hpp:77] Creating layer Convolution43
I0925 17:02:38.286947  3155 net.cpp:84] Creating Layer Convolution43
I0925 17:02:38.286949  3155 net.cpp:406] Convolution43 <- Convolution42
I0925 17:02:38.286953  3155 net.cpp:380] Convolution43 -> Convolution43
I0925 17:02:38.289225  3155 net.cpp:122] Setting up Convolution43
I0925 17:02:38.289234  3155 net.cpp:129] Top shape: 100 64 7 7 (313600)
I0925 17:02:38.289237  3155 net.cpp:137] Memory required for data: 807520400
I0925 17:02:38.289242  3155 layer_factory.hpp:77] Creating layer BatchNorm43
I0925 17:02:38.289247  3155 net.cpp:84] Creating Layer BatchNorm43
I0925 17:02:38.289249  3155 net.cpp:406] BatchNorm43 <- Convolution43
I0925 17:02:38.289253  3155 net.cpp:367] BatchNorm43 -> Convolution43 (in-place)
I0925 17:02:38.289397  3155 net.cpp:122] Setting up BatchNorm43
I0925 17:02:38.289402  3155 net.cpp:129] Top shape: 100 64 7 7 (313600)
I0925 17:02:38.289405  3155 net.cpp:137] Memory required for data: 808774800
I0925 17:02:38.289409  3155 layer_factory.hpp:77] Creating layer Scale43
I0925 17:02:38.289413  3155 net.cpp:84] Creating Layer Scale43
I0925 17:02:38.289417  3155 net.cpp:406] Scale43 <- Convolution43
I0925 17:02:38.289419  3155 net.cpp:367] Scale43 -> Convolution43 (in-place)
I0925 17:02:38.289448  3155 layer_factory.hpp:77] Creating layer Scale43
I0925 17:02:38.289526  3155 net.cpp:122] Setting up Scale43
I0925 17:02:38.289532  3155 net.cpp:129] Top shape: 100 64 7 7 (313600)
I0925 17:02:38.289535  3155 net.cpp:137] Memory required for data: 810029200
I0925 17:02:38.289538  3155 layer_factory.hpp:77] Creating layer Eltwise20
I0925 17:02:38.289542  3155 net.cpp:84] Creating Layer Eltwise20
I0925 17:02:38.289546  3155 net.cpp:406] Eltwise20 <- Eltwise19_penlu39_0_split_1
I0925 17:02:38.289547  3155 net.cpp:406] Eltwise20 <- Convolution43
I0925 17:02:38.289551  3155 net.cpp:380] Eltwise20 -> Eltwise20
I0925 17:02:38.289568  3155 net.cpp:122] Setting up Eltwise20
I0925 17:02:38.289572  3155 net.cpp:129] Top shape: 100 64 7 7 (313600)
I0925 17:02:38.289573  3155 net.cpp:137] Memory required for data: 811283600
I0925 17:02:38.289575  3155 layer_factory.hpp:77] Creating layer penlu41
I0925 17:02:38.289582  3155 net.cpp:84] Creating Layer penlu41
I0925 17:02:38.289583  3155 net.cpp:406] penlu41 <- Eltwise20
I0925 17:02:38.289587  3155 net.cpp:367] penlu41 -> Eltwise20 (in-place)
I0925 17:02:38.289700  3155 net.cpp:122] Setting up penlu41
I0925 17:02:38.289705  3155 net.cpp:129] Top shape: 100 64 7 7 (313600)
I0925 17:02:38.289706  3155 net.cpp:137] Memory required for data: 812538000
I0925 17:02:38.289710  3155 layer_factory.hpp:77] Creating layer Eltwise20_penlu41_0_split
I0925 17:02:38.289714  3155 net.cpp:84] Creating Layer Eltwise20_penlu41_0_split
I0925 17:02:38.289716  3155 net.cpp:406] Eltwise20_penlu41_0_split <- Eltwise20
I0925 17:02:38.289719  3155 net.cpp:380] Eltwise20_penlu41_0_split -> Eltwise20_penlu41_0_split_0
I0925 17:02:38.289723  3155 net.cpp:380] Eltwise20_penlu41_0_split -> Eltwise20_penlu41_0_split_1
I0925 17:02:38.289747  3155 net.cpp:122] Setting up Eltwise20_penlu41_0_split
I0925 17:02:38.289752  3155 net.cpp:129] Top shape: 100 64 7 7 (313600)
I0925 17:02:38.289753  3155 net.cpp:129] Top shape: 100 64 7 7 (313600)
I0925 17:02:38.289757  3155 net.cpp:137] Memory required for data: 815046800
I0925 17:02:38.289758  3155 layer_factory.hpp:77] Creating layer Convolution44
I0925 17:02:38.289763  3155 net.cpp:84] Creating Layer Convolution44
I0925 17:02:38.289765  3155 net.cpp:406] Convolution44 <- Eltwise20_penlu41_0_split_0
I0925 17:02:38.289770  3155 net.cpp:380] Convolution44 -> Convolution44
I0925 17:02:38.291414  3155 net.cpp:122] Setting up Convolution44
I0925 17:02:38.291422  3155 net.cpp:129] Top shape: 100 64 7 7 (313600)
I0925 17:02:38.291431  3155 net.cpp:137] Memory required for data: 816301200
I0925 17:02:38.291435  3155 layer_factory.hpp:77] Creating layer BatchNorm44
I0925 17:02:38.291441  3155 net.cpp:84] Creating Layer BatchNorm44
I0925 17:02:38.291445  3155 net.cpp:406] BatchNorm44 <- Convolution44
I0925 17:02:38.291447  3155 net.cpp:367] BatchNorm44 -> Convolution44 (in-place)
I0925 17:02:38.291589  3155 net.cpp:122] Setting up BatchNorm44
I0925 17:02:38.291592  3155 net.cpp:129] Top shape: 100 64 7 7 (313600)
I0925 17:02:38.291594  3155 net.cpp:137] Memory required for data: 817555600
I0925 17:02:38.291599  3155 layer_factory.hpp:77] Creating layer Scale44
I0925 17:02:38.291604  3155 net.cpp:84] Creating Layer Scale44
I0925 17:02:38.291605  3155 net.cpp:406] Scale44 <- Convolution44
I0925 17:02:38.291609  3155 net.cpp:367] Scale44 -> Convolution44 (in-place)
I0925 17:02:38.291638  3155 layer_factory.hpp:77] Creating layer Scale44
I0925 17:02:38.291718  3155 net.cpp:122] Setting up Scale44
I0925 17:02:38.291724  3155 net.cpp:129] Top shape: 100 64 7 7 (313600)
I0925 17:02:38.291726  3155 net.cpp:137] Memory required for data: 818810000
I0925 17:02:38.291730  3155 layer_factory.hpp:77] Creating layer penlu42
I0925 17:02:38.291734  3155 net.cpp:84] Creating Layer penlu42
I0925 17:02:38.291738  3155 net.cpp:406] penlu42 <- Convolution44
I0925 17:02:38.291741  3155 net.cpp:367] penlu42 -> Convolution44 (in-place)
I0925 17:02:38.291854  3155 net.cpp:122] Setting up penlu42
I0925 17:02:38.291858  3155 net.cpp:129] Top shape: 100 64 7 7 (313600)
I0925 17:02:38.291860  3155 net.cpp:137] Memory required for data: 820064400
I0925 17:02:38.291864  3155 layer_factory.hpp:77] Creating layer Convolution45
I0925 17:02:38.291872  3155 net.cpp:84] Creating Layer Convolution45
I0925 17:02:38.291874  3155 net.cpp:406] Convolution45 <- Convolution44
I0925 17:02:38.291878  3155 net.cpp:380] Convolution45 -> Convolution45
I0925 17:02:38.293851  3155 net.cpp:122] Setting up Convolution45
I0925 17:02:38.293859  3155 net.cpp:129] Top shape: 100 64 7 7 (313600)
I0925 17:02:38.293862  3155 net.cpp:137] Memory required for data: 821318800
I0925 17:02:38.293867  3155 layer_factory.hpp:77] Creating layer BatchNorm45
I0925 17:02:38.293872  3155 net.cpp:84] Creating Layer BatchNorm45
I0925 17:02:38.293875  3155 net.cpp:406] BatchNorm45 <- Convolution45
I0925 17:02:38.293879  3155 net.cpp:367] BatchNorm45 -> Convolution45 (in-place)
I0925 17:02:38.294021  3155 net.cpp:122] Setting up BatchNorm45
I0925 17:02:38.294025  3155 net.cpp:129] Top shape: 100 64 7 7 (313600)
I0925 17:02:38.294028  3155 net.cpp:137] Memory required for data: 822573200
I0925 17:02:38.294033  3155 layer_factory.hpp:77] Creating layer Scale45
I0925 17:02:38.294037  3155 net.cpp:84] Creating Layer Scale45
I0925 17:02:38.294039  3155 net.cpp:406] Scale45 <- Convolution45
I0925 17:02:38.294042  3155 net.cpp:367] Scale45 -> Convolution45 (in-place)
I0925 17:02:38.294070  3155 layer_factory.hpp:77] Creating layer Scale45
I0925 17:02:38.294152  3155 net.cpp:122] Setting up Scale45
I0925 17:02:38.294155  3155 net.cpp:129] Top shape: 100 64 7 7 (313600)
I0925 17:02:38.294157  3155 net.cpp:137] Memory required for data: 823827600
I0925 17:02:38.294162  3155 layer_factory.hpp:77] Creating layer Eltwise21
I0925 17:02:38.294165  3155 net.cpp:84] Creating Layer Eltwise21
I0925 17:02:38.294168  3155 net.cpp:406] Eltwise21 <- Eltwise20_penlu41_0_split_1
I0925 17:02:38.294170  3155 net.cpp:406] Eltwise21 <- Convolution45
I0925 17:02:38.294174  3155 net.cpp:380] Eltwise21 -> Eltwise21
I0925 17:02:38.294190  3155 net.cpp:122] Setting up Eltwise21
…
I0925 17:02:38.650362  3155 net.cpp:137] Memory required for data: 1030145200
I0925 17:02:38.650365  3155 layer_factory.hpp:77] Creating layer BatchNorm40
I0925 17:02:38.650372  3155 net.cpp:84] Creating Layer BatchNorm40
I0925 17:02:38.650373  3155 net.cpp:406] BatchNorm40 <- Convolution40
I0925 17:02:38.650377  3155 net.cpp:367] BatchNorm40 -> Convolution40 (in-place)
I0925 17:02:38.650521  3155 net.cpp:122] Setting up BatchNorm40
I0925 17:02:38.650524  3155 net.cpp:129] Top shape: 100 64 8 8 (409600)
I0925 17:02:38.650527  3155 net.cpp:137] Memory required for data: 1031783600
I0925 17:02:38.650532  3155 layer_factory.hpp:77] Creating layer Scale40
I0925 17:02:38.650537  3155 net.cpp:84] Creating Layer Scale40
I0925 17:02:38.650539  3155 net.cpp:406] Scale40 <- Convolution40
I0925 17:02:38.650542  3155 net.cpp:367] Scale40 -> Convolution40 (in-place)
I0925 17:02:38.650571  3155 layer_factory.hpp:77] Creating layer Scale40
I0925 17:02:38.650650  3155 net.cpp:122] Setting up Scale40
I0925 17:02:38.650655  3155 net.cpp:129] Top shape: 100 64 8 8 (409600)
I0925 17:02:38.650657  3155 net.cpp:137] Memory required for data: 1033422000
I0925 17:02:38.650661  3155 layer_factory.hpp:77] Creating layer penlu38
I0925 17:02:38.650666  3155 net.cpp:84] Creating Layer penlu38
I0925 17:02:38.650669  3155 net.cpp:406] penlu38 <- Convolution40
I0925 17:02:38.650673  3155 net.cpp:367] penlu38 -> Convolution40 (in-place)
I0925 17:02:38.650792  3155 net.cpp:122] Setting up penlu38
I0925 17:02:38.650796  3155 net.cpp:129] Top shape: 100 64 8 8 (409600)
I0925 17:02:38.650799  3155 net.cpp:137] Memory required for data: 1035060400
I0925 17:02:38.650804  3155 layer_factory.hpp:77] Creating layer Convolution41
I0925 17:02:38.650810  3155 net.cpp:84] Creating Layer Convolution41
I0925 17:02:38.650812  3155 net.cpp:406] Convolution41 <- Convolution40
I0925 17:02:38.650816  3155 net.cpp:380] Convolution41 -> Convolution41
I0925 17:02:38.652554  3155 net.cpp:122] Setting up Convolution41
I0925 17:02:38.652562  3155 net.cpp:129] Top shape: 100 64 8 8 (409600)
I0925 17:02:38.652565  3155 net.cpp:137] Memory required for data: 1036698800
I0925 17:02:38.652570  3155 layer_factory.hpp:77] Creating layer BatchNorm41
I0925 17:02:38.652575  3155 net.cpp:84] Creating Layer BatchNorm41
I0925 17:02:38.652577  3155 net.cpp:406] BatchNorm41 <- Convolution41
I0925 17:02:38.652590  3155 net.cpp:367] BatchNorm41 -> Convolution41 (in-place)
I0925 17:02:38.652730  3155 net.cpp:122] Setting up BatchNorm41
I0925 17:02:38.652735  3155 net.cpp:129] Top shape: 100 64 8 8 (409600)
I0925 17:02:38.652737  3155 net.cpp:137] Memory required for data: 1038337200
I0925 17:02:38.652742  3155 layer_factory.hpp:77] Creating layer Scale41
I0925 17:02:38.652746  3155 net.cpp:84] Creating Layer Scale41
I0925 17:02:38.652750  3155 net.cpp:406] Scale41 <- Convolution41
I0925 17:02:38.652752  3155 net.cpp:367] Scale41 -> Convolution41 (in-place)
I0925 17:02:38.652781  3155 layer_factory.hpp:77] Creating layer Scale41
I0925 17:02:38.652860  3155 net.cpp:122] Setting up Scale41
I0925 17:02:38.652864  3155 net.cpp:129] Top shape: 100 64 8 8 (409600)
I0925 17:02:38.652868  3155 net.cpp:137] Memory required for data: 1039975600
I0925 17:02:38.652870  3155 layer_factory.hpp:77] Creating layer Eltwise19
I0925 17:02:38.652875  3155 net.cpp:84] Creating Layer Eltwise19
I0925 17:02:38.652878  3155 net.cpp:406] Eltwise19 <- Convolution39
I0925 17:02:38.652881  3155 net.cpp:406] Eltwise19 <- Convolution41
I0925 17:02:38.652885  3155 net.cpp:380] Eltwise19 -> Eltwise19
I0925 17:02:38.652901  3155 net.cpp:122] Setting up Eltwise19
I0925 17:02:38.652905  3155 net.cpp:129] Top shape: 100 64 8 8 (409600)
I0925 17:02:38.652907  3155 net.cpp:137] Memory required for data: 1041614000
I0925 17:02:38.652909  3155 layer_factory.hpp:77] Creating layer penlu39
I0925 17:02:38.652915  3155 net.cpp:84] Creating Layer penlu39
I0925 17:02:38.652917  3155 net.cpp:406] penlu39 <- Eltwise19
I0925 17:02:38.652921  3155 net.cpp:367] penlu39 -> Eltwise19 (in-place)
I0925 17:02:38.653039  3155 net.cpp:122] Setting up penlu39
I0925 17:02:38.653044  3155 net.cpp:129] Top shape: 100 64 8 8 (409600)
I0925 17:02:38.653046  3155 net.cpp:137] Memory required for data: 1043252400
I0925 17:02:38.653050  3155 layer_factory.hpp:77] Creating layer Eltwise19_penlu39_0_split
I0925 17:02:38.653055  3155 net.cpp:84] Creating Layer Eltwise19_penlu39_0_split
I0925 17:02:38.653057  3155 net.cpp:406] Eltwise19_penlu39_0_split <- Eltwise19
I0925 17:02:38.653060  3155 net.cpp:380] Eltwise19_penlu39_0_split -> Eltwise19_penlu39_0_split_0
I0925 17:02:38.653065  3155 net.cpp:380] Eltwise19_penlu39_0_split -> Eltwise19_penlu39_0_split_1
I0925 17:02:38.653090  3155 net.cpp:122] Setting up Eltwise19_penlu39_0_split
I0925 17:02:38.653093  3155 net.cpp:129] Top shape: 100 64 8 8 (409600)
I0925 17:02:38.653096  3155 net.cpp:129] Top shape: 100 64 8 8 (409600)
I0925 17:02:38.653098  3155 net.cpp:137] Memory required for data: 1046529200
I0925 17:02:38.653100  3155 layer_factory.hpp:77] Creating layer Convolution42
I0925 17:02:38.653106  3155 net.cpp:84] Creating Layer Convolution42
I0925 17:02:38.653110  3155 net.cpp:406] Convolution42 <- Eltwise19_penlu39_0_split_0
I0925 17:02:38.653113  3155 net.cpp:380] Convolution42 -> Convolution42
I0925 17:02:38.654840  3155 net.cpp:122] Setting up Convolution42
I0925 17:02:38.654850  3155 net.cpp:129] Top shape: 100 64 8 8 (409600)
I0925 17:02:38.654853  3155 net.cpp:137] Memory required for data: 1048167600
I0925 17:02:38.654857  3155 layer_factory.hpp:77] Creating layer BatchNorm42
I0925 17:02:38.654862  3155 net.cpp:84] Creating Layer BatchNorm42
I0925 17:02:38.654865  3155 net.cpp:406] BatchNorm42 <- Convolution42
I0925 17:02:38.654870  3155 net.cpp:367] BatchNorm42 -> Convolution42 (in-place)
I0925 17:02:38.655009  3155 net.cpp:122] Setting up BatchNorm42
I0925 17:02:38.655012  3155 net.cpp:129] Top shape: 100 64 8 8 (409600)
I0925 17:02:38.655015  3155 net.cpp:137] Memory required for data: 1049806000
I0925 17:02:38.655020  3155 layer_factory.hpp:77] Creating layer Scale42
I0925 17:02:38.655025  3155 net.cpp:84] Creating Layer Scale42
I0925 17:02:38.655026  3155 net.cpp:406] Scale42 <- Convolution42
I0925 17:02:38.655030  3155 net.cpp:367] Scale42 -> Convolution42 (in-place)
I0925 17:02:38.655058  3155 layer_factory.hpp:77] Creating layer Scale42
I0925 17:02:38.655139  3155 net.cpp:122] Setting up Scale42
I0925 17:02:38.655144  3155 net.cpp:129] Top shape: 100 64 8 8 (409600)
I0925 17:02:38.655151  3155 net.cpp:137] Memory required for data: 1051444400
I0925 17:02:38.655156  3155 layer_factory.hpp:77] Creating layer penlu40
I0925 17:02:38.655161  3155 net.cpp:84] Creating Layer penlu40
I0925 17:02:38.655164  3155 net.cpp:406] penlu40 <- Convolution42
I0925 17:02:38.655167  3155 net.cpp:367] penlu40 -> Convolution42 (in-place)
I0925 17:02:38.655287  3155 net.cpp:122] Setting up penlu40
I0925 17:02:38.655292  3155 net.cpp:129] Top shape: 100 64 8 8 (409600)
I0925 17:02:38.655293  3155 net.cpp:137] Memory required for data: 1053082800
I0925 17:02:38.655298  3155 layer_factory.hpp:77] Creating layer Convolution43
I0925 17:02:38.655304  3155 net.cpp:84] Creating Layer Convolution43
I0925 17:02:38.655308  3155 net.cpp:406] Convolution43 <- Convolution42
I0925 17:02:38.655313  3155 net.cpp:380] Convolution43 -> Convolution43
I0925 17:02:38.657039  3155 net.cpp:122] Setting up Convolution43
I0925 17:02:38.657048  3155 net.cpp:129] Top shape: 100 64 8 8 (409600)
I0925 17:02:38.657052  3155 net.cpp:137] Memory required for data: 1054721200
I0925 17:02:38.657055  3155 layer_factory.hpp:77] Creating layer BatchNorm43
I0925 17:02:38.657061  3155 net.cpp:84] Creating Layer BatchNorm43
I0925 17:02:38.657064  3155 net.cpp:406] BatchNorm43 <- Convolution43
I0925 17:02:38.657068  3155 net.cpp:367] BatchNorm43 -> Convolution43 (in-place)
I0925 17:02:38.657208  3155 net.cpp:122] Setting up BatchNorm43
I0925 17:02:38.657212  3155 net.cpp:129] Top shape: 100 64 8 8 (409600)
I0925 17:02:38.657215  3155 net.cpp:137] Memory required for data: 1056359600
I0925 17:02:38.657219  3155 layer_factory.hpp:77] Creating layer Scale43
I0925 17:02:38.657223  3155 net.cpp:84] Creating Layer Scale43
I0925 17:02:38.657227  3155 net.cpp:406] Scale43 <- Convolution43
I0925 17:02:38.657229  3155 net.cpp:367] Scale43 -> Convolution43 (in-place)
I0925 17:02:38.657258  3155 layer_factory.hpp:77] Creating layer Scale43
I0925 17:02:38.657338  3155 net.cpp:122] Setting up Scale43
I0925 17:02:38.657343  3155 net.cpp:129] Top shape: 100 64 8 8 (409600)
I0925 17:02:38.657346  3155 net.cpp:137] Memory required for data: 1057998000
I0925 17:02:38.657349  3155 layer_factory.hpp:77] Creating layer Eltwise20
I0925 17:02:38.657353  3155 net.cpp:84] Creating Layer Eltwise20
I0925 17:02:38.657356  3155 net.cpp:406] Eltwise20 <- Eltwise19_penlu39_0_split_1
I0925 17:02:38.657359  3155 net.cpp:406] Eltwise20 <- Convolution43
I0925 17:02:38.657362  3155 net.cpp:380] Eltwise20 -> Eltwise20
I0925 17:02:38.657380  3155 net.cpp:122] Setting up Eltwise20
I0925 17:02:38.657384  3155 net.cpp:129] Top shape: 100 64 8 8 (409600)
I0925 17:02:38.657387  3155 net.cpp:137] Memory required for data: 1059636400
I0925 17:02:38.657388  3155 layer_factory.hpp:77] Creating layer penlu41
I0925 17:02:38.657394  3155 net.cpp:84] Creating Layer penlu41
I0925 17:02:38.657397  3155 net.cpp:406] penlu41 <- Eltwise20
I0925 17:02:38.657400  3155 net.cpp:367] penlu41 -> Eltwise20 (in-place)
I0925 17:02:38.657517  3155 net.cpp:122] Setting up penlu41
I0925 17:02:38.657521  3155 net.cpp:129] Top shape: 100 64 8 8 (409600)
I0925 17:02:38.657523  3155 net.cpp:137] Memory required for data: 1061274800
I0925 17:02:38.657528  3155 layer_factory.hpp:77] Creating layer Eltwise20_penlu41_0_split
I0925 17:02:38.657532  3155 net.cpp:84] Creating Layer Eltwise20_penlu41_0_split
I0925 17:02:38.657536  3155 net.cpp:406] Eltwise20_penlu41_0_split <- Eltwise20
I0925 17:02:38.657538  3155 net.cpp:380] Eltwise20_penlu41_0_split -> Eltwise20_penlu41_0_split_0
I0925 17:02:38.657542  3155 net.cpp:380] Eltwise20_penlu41_0_split -> Eltwise20_penlu41_0_split_1
I0925 17:02:38.657567  3155 net.cpp:122] Setting up Eltwise20_penlu41_0_split
I0925 17:02:38.657570  3155 net.cpp:129] Top shape: 100 64 8 8 (409600)
I0925 17:02:38.657573  3155 net.cpp:129] Top shape: 100 64 8 8 (409600)
I0925 17:02:38.657575  3155 net.cpp:137] Memory required for data: 1064551600
I0925 17:02:38.657577  3155 layer_factory.hpp:77] Creating layer Convolution44
I0925 17:02:38.657583  3155 net.cpp:84] Creating Layer Convolution44
I0925 17:02:38.657593  3155 net.cpp:406] Convolution44 <- Eltwise20_penlu41_0_split_0
I0925 17:02:38.657598  3155 net.cpp:380] Convolution44 -> Convolution44
I0925 17:02:38.659641  3155 net.cpp:122] Setting up Convolution44
I0925 17:02:38.659649  3155 net.cpp:129] Top shape: 100 64 8 8 (409600)
I0925 17:02:38.659652  3155 net.cpp:137] Memory required for data: 1066190000
I0925 17:02:38.659657  3155 layer_factory.hpp:77] Creating layer BatchNorm44
I0925 17:02:38.659662  3155 net.cpp:84] Creating Layer BatchNorm44
I0925 17:02:38.659665  3155 net.cpp:406] BatchNorm44 <- Convolution44
I0925 17:02:38.659669  3155 net.cpp:367] BatchNorm44 -> Convolution44 (in-place)
I0925 17:02:38.659816  3155 net.cpp:122] Setting up BatchNorm44
I0925 17:02:38.659821  3155 net.cpp:129] Top shape: 100 64 8 8 (409600)
I0925 17:02:38.659822  3155 net.cpp:137] Memory required for data: 1067828400
I0925 17:02:38.659827  3155 layer_factory.hpp:77] Creating layer Scale44
I0925 17:02:38.659832  3155 net.cpp:84] Creating Layer Scale44
I0925 17:02:38.659835  3155 net.cpp:406] Scale44 <- Convolution44
I0925 17:02:38.659838  3155 net.cpp:367] Scale44 -> Convolution44 (in-place)
I0925 17:02:38.659867  3155 layer_factory.hpp:77] Creating layer Scale44
I0925 17:02:38.659948  3155 net.cpp:122] Setting up Scale44
I0925 17:02:38.659952  3155 net.cpp:129] Top shape: 100 64 8 8 (409600)
I0925 17:02:38.659955  3155 net.cpp:137] Memory required for data: 1069466800
I0925 17:02:38.659958  3155 layer_factory.hpp:77] Creating layer penlu42
I0925 17:02:38.659963  3155 net.cpp:84] Creating Layer penlu42
I0925 17:02:38.659966  3155 net.cpp:406] penlu42 <- Convolution44
I0925 17:02:38.659970  3155 net.cpp:367] penlu42 -> Convolution44 (in-place)
I0925 17:02:38.660086  3155 net.cpp:122] Setting up penlu42
I0925 17:02:38.660090  3155 net.cpp:129] Top shape: 100 64 8 8 (409600)
I0925 17:02:38.660092  3155 net.cpp:137] Memory required for data: 1071105200
I0925 17:02:38.660096  3155 layer_factory.hpp:77] Creating layer Convolution45
I0925 17:02:38.660104  3155 net.cpp:84] Creating Layer Convolution45
I0925 17:02:38.660106  3155 net.cpp:406] Convolution45 <- Convolution44
I0925 17:02:38.660110  3155 net.cpp:380] Convolution45 -> Convolution45
I0925 17:02:38.661828  3155 net.cpp:122] Setting up Convolution45
I0925 17:02:38.661836  3155 net.cpp:129] Top shape: 100 64 8 8 (409600)
I0925 17:02:38.661839  3155 net.cpp:137] Memory required for data: 1072743600
I0925 17:02:38.661844  3155 layer_factory.hpp:77] Creating layer BatchNorm45
I0925 17:02:38.661849  3155 net.cpp:84] Creating Layer BatchNorm45
I0925 17:02:38.661852  3155 net.cpp:406] BatchNorm45 <- Convolution45
I0925 17:02:38.661855  3155 net.cpp:367] BatchNorm45 -> Convolution45 (in-place)
I0925 17:02:38.661993  3155 net.cpp:122] Setting up BatchNorm45
I0925 17:02:38.661996  3155 net.cpp:129] Top shape: 100 64 8 8 (409600)
I0925 17:02:38.661998  3155 net.cpp:137] Memory required for data: 1074382000
I0925 17:02:38.662003  3155 layer_factory.hpp:77] Creating layer Scale45
I0925 17:02:38.662009  3155 net.cpp:84] Creating Layer Scale45
I0925 17:02:38.662011  3155 net.cpp:406] Scale45 <- Convolution45
I0925 17:02:38.662014  3155 net.cpp:367] Scale45 -> Convolution45 (in-place)
I0925 17:02:38.662041  3155 layer_factory.hpp:77] Creating layer Scale45
I0925 17:02:38.662119  3155 net.cpp:122] Setting up Scale45
I0925 17:02:38.662123  3155 net.cpp:129] Top shape: 100 64 8 8 (409600)
I0925 17:02:38.662125  3155 net.cpp:137] Memory required for data: 1076020400
I0925 17:02:38.662129  3155 layer_factory.hpp:77] Creating layer Eltwise21
I0925 17:02:38.662134  3155 net.cpp:84] Creating Layer Eltwise21
I0925 17:02:38.662137  3155 net.cpp:406] Eltwise21 <- Eltwise20_penlu41_0_split_1
I0925 17:02:38.662140  3155 net.cpp:406] Eltwise21 <- Convolution45
I0925 17:02:38.662143  3155 net.cpp:380] Eltwise21 -> Eltwise21
I0925 17:02:38.662159  3155 net.cpp:122] Setting up Eltwise21
I0925 17:02:38.662163  3155 net.cpp:129] Top shape: 100 64 8 8 (409600)
I0925 17:02:38.662165  3155 net.cpp:137] Memory required for data: 1077658800
I0925 17:02:38.662173  3155 layer_factory.hpp:77] Creating layer penlu43
I0925 17:02:38.662179  3155 net.cpp:84] Creating Layer penlu43
I0925 17:02:38.662183  3155 net.cpp:406] penlu43 <- Eltwise21
I0925 17:02:38.662185  3155 net.cpp:367] penlu43 -> Eltwise21 (in-place)
I0925 17:02:38.662300  3155 net.cpp:122] Setting up penlu43
I0925 17:02:38.662304  3155 net.cpp:129] Top shape: 100 64 8 8 (409600)
I0925 17:02:38.662307  3155 net.cpp:137] Memory required for data: 1079297200
I0925 17:02:38.662312  3155 layer_factory.hpp:77] Creating layer Eltwise21_penlu43_0_split
I0925 17:02:38.662315  3155 net.cpp:84] Creating Layer Eltwise21_penlu43_0_split
I0925 17:02:38.662317  3155 net.cpp:406] Eltwise21_penlu43_0_split <- Eltwise21
I0925 17:02:38.662320  3155 net.cpp:380] Eltwise21_penlu43_0_split -> Eltwise21_penlu43_0_split_0
I0925 17:02:38.662324  3155 net.cpp:380] Eltwise21_penlu43_0_split -> Eltwise21_penlu43_0_split_1
I0925 17:02:38.662348  3155 net.cpp:122] Setting up Eltwise21_penlu43_0_split
I0925 17:02:38.662353  3155 net.cpp:129] Top shape: 100 64 8 8 (409600)
I0925 17:02:38.662355  3155 net.cpp:129] Top shape: 100 64 8 8 (409600)
I0925 17:02:38.677357  3155 net.cpp:137] Memory required for data: 1082574000
I0925 17:02:38.677366  3155 layer_factory.hpp:77] Creating layer Convolution46
I0925 17:02:38.677374  3155 net.cpp:84] Creating Layer Convolution46
I0925 17:02:38.677378  3155 net.cpp:406] Convolution46 <- Eltwise21_penlu43_0_split_0
I0925 17:02:38.677383  3155 net.cpp:380] Convolution46 -> Convolution46
I0925 17:02:38.679250  3155 net.cpp:122] Setting up Convolution46
I0925 17:02:38.679258  3155 net.cpp:129] Top shape: 100 64 8 8 (409600)
I0925 17:02:38.679261  3155 net.cpp:137] Memory required for data: 1084212400
I0925 17:02:38.679266  3155 layer_factory.hpp:77] Creating layer BatchNorm46
I0925 17:02:38.679271  3155 net.cpp:84] Creating Layer BatchNorm46
I0925 17:02:38.679275  3155 net.cpp:406] BatchNorm46 <- Convolution46
I0925 17:02:38.679278  3155 net.cpp:367] BatchNorm46 -> Convolution46 (in-place)
I0925 17:02:38.679424  3155 net.cpp:122] Setting up BatchNorm46
I0925 17:02:38.679428  3155 net.cpp:129] Top shape: 100 64 8 8 (409600)
I0925 17:02:38.679430  3155 net.cpp:137] Memory required for data: 1085850800
I0925 17:02:38.679435  3155 layer_factory.hpp:77] Creating layer Scale46
I0925 17:02:38.679440  3155 net.cpp:84] Creating Layer Scale46
I0925 17:02:38.679451  3155 net.cpp:406] Scale46 <- Convolution46
I0925 17:02:38.679455  3155 net.cpp:367] Scale46 -> Convolution46 (in-place)
I0925 17:02:38.679504  3155 layer_factory.hpp:77] Creating layer Scale46
I0925 17:02:38.679584  3155 net.cpp:122] Setting up Scale46
I0925 17:02:38.679589  3155 net.cpp:129] Top shape: 100 64 8 8 (409600)
I0925 17:02:38.679590  3155 net.cpp:137] Memory required for data: 1087489200
I0925 17:02:38.679594  3155 layer_factory.hpp:77] Creating layer penlu44
I0925 17:02:38.679600  3155 net.cpp:84] Creating Layer penlu44
I0925 17:02:38.679602  3155 net.cpp:406] penlu44 <- Convolution46
I0925 17:02:38.679606  3155 net.cpp:367] penlu44 -> Convolution46 (in-place)
I0925 17:02:38.679721  3155 net.cpp:122] Setting up penlu44
I0925 17:02:38.679725  3155 net.cpp:129] Top shape: 100 64 8 8 (409600)
I0925 17:02:38.679728  3155 net.cpp:137] Memory required for data: 1089127600
I0925 17:02:38.679733  3155 layer_factory.hpp:77] Creating layer Convolution47
I0925 17:02:38.679738  3155 net.cpp:84] Creating Layer Convolution47
I0925 17:02:38.679741  3155 net.cpp:406] Convolution47 <- Convolution46
I0925 17:02:38.679745  3155 net.cpp:380] Convolution47 -> Convolution47
I0925 17:02:38.681653  3155 net.cpp:122] Setting up Convolution47
I0925 17:02:38.681663  3155 net.cpp:129] Top shape: 100 64 8 8 (409600)
I0925 17:02:38.681666  3155 net.cpp:137] Memory required for data: 1090766000
I0925 17:02:38.681671  3155 layer_factory.hpp:77] Creating layer BatchNorm47
I0925 17:02:38.681676  3155 net.cpp:84] Creating Layer BatchNorm47
I0925 17:02:38.681679  3155 net.cpp:406] BatchNorm47 <- Convolution47
I0925 17:02:38.681684  3155 net.cpp:367] BatchNorm47 -> Convolution47 (in-place)
I0925 17:02:38.681831  3155 net.cpp:122] Setting up BatchNorm47
I0925 17:02:38.681836  3155 net.cpp:129] Top shape: 100 64 8 8 (409600)
I0925 17:02:38.681838  3155 net.cpp:137] Memory required for data: 1092404400
I0925 17:02:38.681843  3155 layer_factory.hpp:77] Creating layer Scale47
I0925 17:02:38.681849  3155 net.cpp:84] Creating Layer Scale47
I0925 17:02:38.681851  3155 net.cpp:406] Scale47 <- Convolution47
I0925 17:02:38.681854  3155 net.cpp:367] Scale47 -> Convolution47 (in-place)
I0925 17:02:38.681882  3155 layer_factory.hpp:77] Creating layer Scale47
I0925 17:02:38.681960  3155 net.cpp:122] Setting up Scale47
I0925 17:02:38.681964  3155 net.cpp:129] Top shape: 100 64 8 8 (409600)
I0925 17:02:38.681967  3155 net.cpp:137] Memory required for data: 1094042800
I0925 17:02:38.681970  3155 layer_factory.hpp:77] Creating layer Eltwise22
I0925 17:02:38.681975  3155 net.cpp:84] Creating Layer Eltwise22
I0925 17:02:38.681978  3155 net.cpp:406] Eltwise22 <- Eltwise21_penlu43_0_split_1
I0925 17:02:38.681982  3155 net.cpp:406] Eltwise22 <- Convolution47
I0925 17:02:38.681984  3155 net.cpp:380] Eltwise22 -> Eltwise22
I0925 17:02:38.682001  3155 net.cpp:122] Setting up Eltwise22
I0925 17:02:38.682005  3155 net.cpp:129] Top shape: 100 64 8 8 (409600)
I0925 17:02:38.682008  3155 net.cpp:137] Memory required for data: 1095681200
I0925 17:02:38.682009  3155 layer_factory.hpp:77] Creating layer penlu45
I0925 17:02:38.682015  3155 net.cpp:84] Creating Layer penlu45
I0925 17:02:38.682018  3155 net.cpp:406] penlu45 <- Eltwise22
I0925 17:02:38.682021  3155 net.cpp:367] penlu45 -> Eltwise22 (in-place)
I0925 17:02:38.682135  3155 net.cpp:122] Setting up penlu45
I0925 17:02:38.682139  3155 net.cpp:129] Top shape: 100 64 8 8 (409600)
I0925 17:02:38.682142  3155 net.cpp:137] Memory required for data: 1097319600
I0925 17:02:38.682145  3155 layer_factory.hpp:77] Creating layer Eltwise22_penlu45_0_split
I0925 17:02:38.682149  3155 net.cpp:84] Creating Layer Eltwise22_penlu45_0_split
I0925 17:02:38.682152  3155 net.cpp:406] Eltwise22_penlu45_0_split <- Eltwise22
I0925 17:02:38.682155  3155 net.cpp:380] Eltwise22_penlu45_0_split -> Eltwise22_penlu45_0_split_0
I0925 17:02:38.682159  3155 net.cpp:380] Eltwise22_penlu45_0_split -> Eltwise22_penlu45_0_split_1
I0925 17:02:38.682184  3155 net.cpp:122] Setting up Eltwise22_penlu45_0_split
I0925 17:02:38.682188  3155 net.cpp:129] Top shape: 100 64 8 8 (409600)
I0925 17:02:38.682190  3155 net.cpp:129] Top shape: 100 64 8 8 (409600)
I0925 17:02:38.682193  3155 net.cpp:137] Memory required for data: 1100596400
I0925 17:02:38.682195  3155 layer_factory.hpp:77] Creating layer Convolution48
I0925 17:02:38.682201  3155 net.cpp:84] Creating Layer Convolution48
I0925 17:02:38.682204  3155 net.cpp:406] Convolution48 <- Eltwise22_penlu45_0_split_0
I0925 17:02:38.682209  3155 net.cpp:380] Convolution48 -> Convolution48
I0925 17:02:38.684213  3155 net.cpp:122] Setting up Convolution48
I0925 17:02:38.684221  3155 net.cpp:129] Top shape: 100 64 8 8 (409600)
I0925 17:02:38.684224  3155 net.cpp:137] Memory required for data: 1102234800
I0925 17:02:38.684229  3155 layer_factory.hpp:77] Creating layer BatchNorm48
I0925 17:02:38.684234  3155 net.cpp:84] Creating Layer BatchNorm48
I0925 17:02:38.684237  3155 net.cpp:406] BatchNorm48 <- Convolution48
I0925 17:02:38.684242  3155 net.cpp:367] BatchNorm48 -> Convolution48 (in-place)
I0925 17:02:38.684384  3155 net.cpp:122] Setting up BatchNorm48
I0925 17:02:38.684388  3155 net.cpp:129] Top shape: 100 64 8 8 (409600)
I0925 17:02:38.684391  3155 net.cpp:137] Memory required for data: 1103873200
I0925 17:02:38.684396  3155 layer_factory.hpp:77] Creating layer Scale48
I0925 17:02:38.684401  3155 net.cpp:84] Creating Layer Scale48
I0925 17:02:38.684402  3155 net.cpp:406] Scale48 <- Convolution48
I0925 17:02:38.684406  3155 net.cpp:367] Scale48 -> Convolution48 (in-place)
I0925 17:02:38.684433  3155 layer_factory.hpp:77] Creating layer Scale48
I0925 17:02:38.684533  3155 net.cpp:122] Setting up Scale48
I0925 17:02:38.684547  3155 net.cpp:129] Top shape: 100 64 8 8 (409600)
I0925 17:02:38.684556  3155 net.cpp:137] Memory required for data: 1105511600
I0925 17:02:38.684561  3155 layer_factory.hpp:77] Creating layer penlu46
I0925 17:02:38.684566  3155 net.cpp:84] Creating Layer penlu46
I0925 17:02:38.684568  3155 net.cpp:406] penlu46 <- Convolution48
I0925 17:02:38.684572  3155 net.cpp:367] penlu46 -> Convolution48 (in-place)
I0925 17:02:38.684689  3155 net.cpp:122] Setting up penlu46
I0925 17:02:38.684693  3155 net.cpp:129] Top shape: 100 64 8 8 (409600)
I0925 17:02:38.684695  3155 net.cpp:137] Memory required for data: 1107150000
I0925 17:02:38.684700  3155 layer_factory.hpp:77] Creating layer Convolution49
I0925 17:02:38.684707  3155 net.cpp:84] Creating Layer Convolution49
I0925 17:02:38.684710  3155 net.cpp:406] Convolution49 <- Convolution48
I0925 17:02:38.684713  3155 net.cpp:380] Convolution49 -> Convolution49
I0925 17:02:38.686735  3155 net.cpp:122] Setting up Convolution49
I0925 17:02:38.686743  3155 net.cpp:129] Top shape: 100 64 8 8 (409600)
I0925 17:02:38.686746  3155 net.cpp:137] Memory required for data: 1108788400
I0925 17:02:38.686751  3155 layer_factory.hpp:77] Creating layer BatchNorm49
I0925 17:02:38.686755  3155 net.cpp:84] Creating Layer BatchNorm49
I0925 17:02:38.686758  3155 net.cpp:406] BatchNorm49 <- Convolution49
I0925 17:02:38.686763  3155 net.cpp:367] BatchNorm49 -> Convolution49 (in-place)
I0925 17:02:38.686903  3155 net.cpp:122] Setting up BatchNorm49
I0925 17:02:38.686908  3155 net.cpp:129] Top shape: 100 64 8 8 (409600)
I0925 17:02:38.686910  3155 net.cpp:137] Memory required for data: 1110426800
I0925 17:02:38.686914  3155 layer_factory.hpp:77] Creating layer Scale49
I0925 17:02:38.686918  3155 net.cpp:84] Creating Layer Scale49
I0925 17:02:38.686921  3155 net.cpp:406] Scale49 <- Convolution49
I0925 17:02:38.686925  3155 net.cpp:367] Scale49 -> Convolution49 (in-place)
I0925 17:02:38.686952  3155 layer_factory.hpp:77] Creating layer Scale49
I0925 17:02:38.687034  3155 net.cpp:122] Setting up Scale49
I0925 17:02:38.687038  3155 net.cpp:129] Top shape: 100 64 8 8 (409600)
I0925 17:02:38.687041  3155 net.cpp:137] Memory required for data: 1112065200
I0925 17:02:38.687044  3155 layer_factory.hpp:77] Creating layer Eltwise23
I0925 17:02:38.687048  3155 net.cpp:84] Creating Layer Eltwise23
I0925 17:02:38.687050  3155 net.cpp:406] Eltwise23 <- Eltwise22_penlu45_0_split_1
I0925 17:02:38.687053  3155 net.cpp:406] Eltwise23 <- Convolution49
I0925 17:02:38.687057  3155 net.cpp:380] Eltwise23 -> Eltwise23
I0925 17:02:38.687074  3155 net.cpp:122] Setting up Eltwise23
I0925 17:02:38.687078  3155 net.cpp:129] Top shape: 100 64 8 8 (409600)
I0925 17:02:38.687080  3155 net.cpp:137] Memory required for data: 1113703600
I0925 17:02:38.687083  3155 layer_factory.hpp:77] Creating layer penlu47
I0925 17:02:38.687088  3155 net.cpp:84] Creating Layer penlu47
I0925 17:02:38.687089  3155 net.cpp:406] penlu47 <- Eltwise23
I0925 17:02:38.687093  3155 net.cpp:367] penlu47 -> Eltwise23 (in-place)
I0925 17:02:38.687212  3155 net.cpp:122] Setting up penlu47
I0925 17:02:38.687216  3155 net.cpp:129] Top shape: 100 64 8 8 (409600)
I0925 17:02:38.687218  3155 net.cpp:137] Memory required for data: 1115342000
I0925 17:02:38.687222  3155 layer_factory.hpp:77] Creating layer Eltwise23_penlu47_0_split
I0925 17:02:38.687227  3155 net.cpp:84] Creating Layer Eltwise23_penlu47_0_split
I0925 17:02:38.687228  3155 net.cpp:406] Eltwise23_penlu47_0_split <- Eltwise23
I0925 17:02:38.687232  3155 net.cpp:380] Eltwise23_penlu47_0_split -> Eltwise23_penlu47_0_split_0
I0925 17:02:38.687237  3155 net.cpp:380] Eltwise23_penlu47_0_split -> Eltwise23_penlu47_0_split_1
I0925 17:02:38.687260  3155 net.cpp:122] Setting up Eltwise23_penlu47_0_split
I0925 17:02:38.687264  3155 net.cpp:129] Top shape: 100 64 8 8 (409600)
I0925 17:02:38.687266  3155 net.cpp:129] Top shape: 100 64 8 8 (409600)
I0925 17:02:38.687268  3155 net.cpp:137] Memory required for data: 1118618800
I0925 17:02:38.687271  3155 layer_factory.hpp:77] Creating layer Convolution50
I0925 17:02:38.687278  3155 net.cpp:84] Creating Layer Convolution50
I0925 17:02:38.687285  3155 net.cpp:406] Convolution50 <- Eltwise23_penlu47_0_split_0
I0925 17:02:38.687290  3155 net.cpp:380] Convolution50 -> Convolution50
I0925 17:02:38.689841  3155 net.cpp:122] Setting up Convolution50
I0925 17:02:38.689851  3155 net.cpp:129] Top shape: 100 64 8 8 (409600)
I0925 17:02:38.689853  3155 net.cpp:137] Memory required for data: 1120257200
I0925 17:02:38.689858  3155 layer_factory.hpp:77] Creating layer BatchNorm50
I0925 17:02:38.689862  3155 net.cpp:84] Creating Layer BatchNorm50
I0925 17:02:38.689865  3155 net.cpp:406] BatchNorm50 <- Convolution50
I0925 17:02:38.689869  3155 net.cpp:367] BatchNorm50 -> Convolution50 (in-place)
I0925 17:02:38.690016  3155 net.cpp:122] Setting up BatchNorm50
I0925 17:02:38.690021  3155 net.cpp:129] Top shape: 100 64 8 8 (409600)
I0925 17:02:38.690023  3155 net.cpp:137] Memory required for data: 1121895600
I0925 17:02:38.690027  3155 layer_factory.hpp:77] Creating layer Scale50
I0925 17:02:38.690032  3155 net.cpp:84] Creating Layer Scale50
I0925 17:02:38.690034  3155 net.cpp:406] Scale50 <- Convolution50
I0925 17:02:38.690038  3155 net.cpp:367] Scale50 -> Convolution50 (in-place)
I0925 17:02:38.690066  3155 layer_factory.hpp:77] Creating layer Scale50
I0925 17:02:38.690147  3155 net.cpp:122] Setting up Scale50
I0925 17:02:38.690152  3155 net.cpp:129] Top shape: 100 64 8 8 (409600)
I0925 17:02:38.690155  3155 net.cpp:137] Memory required for data: 1123534000
I0925 17:02:38.690158  3155 layer_factory.hpp:77] Creating layer penlu48
I0925 17:02:38.690163  3155 net.cpp:84] Creating Layer penlu48
I0925 17:02:38.690165  3155 net.cpp:406] penlu48 <- Convolution50
I0925 17:02:38.690171  3155 net.cpp:367] penlu48 -> Convolution50 (in-place)
I0925 17:02:38.690286  3155 net.cpp:122] Setting up penlu48
I0925 17:02:38.690290  3155 net.cpp:129] Top shape: 100 64 8 8 (409600)
I0925 17:02:38.690294  3155 net.cpp:137] Memory required for data: 1125172400
I0925 17:02:38.690297  3155 layer_factory.hpp:77] Creating layer Convolution51
I0925 17:02:38.690304  3155 net.cpp:84] Creating Layer Convolution51
I0925 17:02:38.690307  3155 net.cpp:406] Convolution51 <- Convolution50
I0925 17:02:38.690311  3155 net.cpp:380] Convolution51 -> Convolution51
I0925 17:02:38.692003  3155 net.cpp:122] Setting up Convolution51
I0925 17:02:38.692010  3155 net.cpp:129] Top shape: 100 64 8 8 (409600)
I0925 17:02:38.692013  3155 net.cpp:137] Memory required for data: 1126810800
I0925 17:02:38.692018  3155 layer_factory.hpp:77] Creating layer BatchNorm51
I0925 17:02:38.692023  3155 net.cpp:84] Creating Layer BatchNorm51
I0925 17:02:38.692024  3155 net.cpp:406] BatchNorm51 <- Convolution51
I0925 17:02:38.692029  3155 net.cpp:367] BatchNorm51 -> Convolution51 (in-place)
I0925 17:02:38.692168  3155 net.cpp:122] Setting up BatchNorm51
I0925 17:02:38.692173  3155 net.cpp:129] Top shape: 100 64 8 8 (409600)
I0925 17:02:38.692175  3155 net.cpp:137] Memory required for data: 1128449200
I0925 17:02:38.692179  3155 layer_factory.hpp:77] Creating layer Scale51
I0925 17:02:38.692183  3155 net.cpp:84] Creating Layer Scale51
I0925 17:02:38.692186  3155 net.cpp:406] Scale51 <- Convolution51
I0925 17:02:38.692190  3155 net.cpp:367] Scale51 -> Convolution51 (in-place)
I0925 17:02:38.692217  3155 layer_factory.hpp:77] Creating layer Scale51
I0925 17:02:38.692296  3155 net.cpp:122] Setting up Scale51
I0925 17:02:38.692301  3155 net.cpp:129] Top shape: 100 64 8 8 (409600)
I0925 17:02:38.692302  3155 net.cpp:137] Memory required for data: 1130087600
I0925 17:02:38.692306  3155 layer_factory.hpp:77] Creating layer Eltwise24
I0925 17:02:38.692311  3155 net.cpp:84] Creating Layer Eltwise24
I0925 17:02:38.692313  3155 net.cpp:406] Eltwise24 <- Eltwise23_penlu47_0_split_1
I0925 17:02:38.692317  3155 net.cpp:406] Eltwise24 <- Convolution51
I0925 17:02:38.692320  3155 net.cpp:380] Eltwise24 -> Eltwise24
I0925 17:02:38.692335  3155 net.cpp:122] Setting up Eltwise24
I0925 17:02:38.692340  3155 net.cpp:129] Top shape: 100 64 8 8 (409600)
I0925 17:02:38.692342  3155 net.cpp:137] Memory required for data: 1131726000
I0925 17:02:38.692351  3155 layer_factory.hpp:77] Creating layer penlu49
I0925 17:02:38.692356  3155 net.cpp:84] Creating Layer penlu49
I0925 17:02:38.692358  3155 net.cpp:406] penlu49 <- Eltwise24
I0925 17:02:38.692363  3155 net.cpp:367] penlu49 -> Eltwise24 (in-place)
I0925 17:02:38.692479  3155 net.cpp:122] Setting up penlu49
I0925 17:02:38.692483  3155 net.cpp:129] Top shape: 100 64 8 8 (409600)
I0925 17:02:38.692486  3155 net.cpp:137] Memory required for data: 1133364400
I0925 17:02:38.692490  3155 layer_factory.hpp:77] Creating layer Eltwise24_penlu49_0_split
I0925 17:02:38.692493  3155 net.cpp:84] Creating Layer Eltwise24_penlu49_0_split
I0925 17:02:38.692512  3155 net.cpp:406] Eltwise24_penlu49_0_split <- Eltwise24
I0925 17:02:38.692514  3155 net.cpp:380] Eltwise24_penlu49_0_split -> Eltwise24_penlu49_0_split_0
I0925 17:02:38.692519  3155 net.cpp:380] Eltwise24_penlu49_0_split -> Eltwise24_penlu49_0_split_1
I0925 17:02:38.692564  3155 net.cpp:122] Setting up Eltwise24_penlu49_0_split
I0925 17:02:38.707589  3155 net.cpp:129] Top shape: 100 64 8 8 (409600)
I0925 17:02:38.707598  3155 net.cpp:129] Top shape: 100 64 8 8 (409600)
I0925 17:02:38.707602  3155 net.cpp:137] Memory required for data: 1136641200
I0925 17:02:38.707604  3155 layer_factory.hpp:77] Creating layer Convolution52
I0925 17:02:38.707612  3155 net.cpp:84] Creating Layer Convolution52
I0925 17:02:38.707614  3155 net.cpp:406] Convolution52 <- Eltwise24_penlu49_0_split_0
I0925 17:02:38.707621  3155 net.cpp:380] Convolution52 -> Convolution52
I0925 17:02:38.710103  3155 net.cpp:122] Setting up Convolution52
I0925 17:02:38.710111  3155 net.cpp:129] Top shape: 100 64 8 8 (409600)
I0925 17:02:38.710114  3155 net.cpp:137] Memory required for data: 1138279600
I0925 17:02:38.710119  3155 layer_factory.hpp:77] Creating layer BatchNorm52
I0925 17:02:38.710124  3155 net.cpp:84] Creating Layer BatchNorm52
I0925 17:02:38.710127  3155 net.cpp:406] BatchNorm52 <- Convolution52
I0925 17:02:38.710132  3155 net.cpp:367] BatchNorm52 -> Convolution52 (in-place)
I0925 17:02:38.710279  3155 net.cpp:122] Setting up BatchNorm52
I0925 17:02:38.710283  3155 net.cpp:129] Top shape: 100 64 8 8 (409600)
I0925 17:02:38.710285  3155 net.cpp:137] Memory required for data: 1139918000
I0925 17:02:38.710290  3155 layer_factory.hpp:77] Creating layer Scale52
I0925 17:02:38.710299  3155 net.cpp:84] Creating Layer Scale52
I0925 17:02:38.710300  3155 net.cpp:406] Scale52 <- Convolution52
I0925 17:02:38.710304  3155 net.cpp:367] Scale52 -> Convolution52 (in-place)
I0925 17:02:38.710335  3155 layer_factory.hpp:77] Creating layer Scale52
I0925 17:02:38.710418  3155 net.cpp:122] Setting up Scale52
I0925 17:02:38.710423  3155 net.cpp:129] Top shape: 100 64 8 8 (409600)
I0925 17:02:38.710425  3155 net.cpp:137] Memory required for data: 1141556400
I0925 17:02:38.710429  3155 layer_factory.hpp:77] Creating layer penlu50
I0925 17:02:38.710450  3155 net.cpp:84] Creating Layer penlu50
I0925 17:02:38.710454  3155 net.cpp:406] penlu50 <- Convolution52
I0925 17:02:38.710458  3155 net.cpp:367] penlu50 -> Convolution52 (in-place)
I0925 17:02:38.710580  3155 net.cpp:122] Setting up penlu50
I0925 17:02:38.710584  3155 net.cpp:129] Top shape: 100 64 8 8 (409600)
I0925 17:02:38.710587  3155 net.cpp:137] Memory required for data: 1143194800
I0925 17:02:38.710631  3155 layer_factory.hpp:77] Creating layer Convolution53
I0925 17:02:38.710639  3155 net.cpp:84] Creating Layer Convolution53
I0925 17:02:38.710642  3155 net.cpp:406] Convolution53 <- Convolution52
I0925 17:02:38.710646  3155 net.cpp:380] Convolution53 -> Convolution53
I0925 17:02:38.712431  3155 net.cpp:122] Setting up Convolution53
I0925 17:02:38.712441  3155 net.cpp:129] Top shape: 100 64 8 8 (409600)
I0925 17:02:38.712443  3155 net.cpp:137] Memory required for data: 1144833200
I0925 17:02:38.712448  3155 layer_factory.hpp:77] Creating layer BatchNorm53
I0925 17:02:38.712453  3155 net.cpp:84] Creating Layer BatchNorm53
I0925 17:02:38.712456  3155 net.cpp:406] BatchNorm53 <- Convolution53
I0925 17:02:38.712460  3155 net.cpp:367] BatchNorm53 -> Convolution53 (in-place)
I0925 17:02:38.712622  3155 net.cpp:122] Setting up BatchNorm53
I0925 17:02:38.712628  3155 net.cpp:129] Top shape: 100 64 8 8 (409600)
I0925 17:02:38.712630  3155 net.cpp:137] Memory required for data: 1146471600
I0925 17:02:38.712635  3155 layer_factory.hpp:77] Creating layer Scale53
I0925 17:02:38.712641  3155 net.cpp:84] Creating Layer Scale53
I0925 17:02:38.712642  3155 net.cpp:406] Scale53 <- Convolution53
I0925 17:02:38.712646  3155 net.cpp:367] Scale53 -> Convolution53 (in-place)
I0925 17:02:38.712677  3155 layer_factory.hpp:77] Creating layer Scale53
I0925 17:02:38.712759  3155 net.cpp:122] Setting up Scale53
I0925 17:02:38.712764  3155 net.cpp:129] Top shape: 100 64 8 8 (409600)
I0925 17:02:38.712767  3155 net.cpp:137] Memory required for data: 1148110000
I0925 17:02:38.712770  3155 layer_factory.hpp:77] Creating layer Eltwise25
I0925 17:02:38.712775  3155 net.cpp:84] Creating Layer Eltwise25
I0925 17:02:38.712779  3155 net.cpp:406] Eltwise25 <- Eltwise24_penlu49_0_split_1
I0925 17:02:38.712781  3155 net.cpp:406] Eltwise25 <- Convolution53
I0925 17:02:38.712785  3155 net.cpp:380] Eltwise25 -> Eltwise25
I0925 17:02:38.712802  3155 net.cpp:122] Setting up Eltwise25
I0925 17:02:38.712806  3155 net.cpp:129] Top shape: 100 64 8 8 (409600)
I0925 17:02:38.712808  3155 net.cpp:137] Memory required for data: 1149748400
I0925 17:02:38.712810  3155 layer_factory.hpp:77] Creating layer penlu51
I0925 17:02:38.712815  3155 net.cpp:84] Creating Layer penlu51
I0925 17:02:38.712818  3155 net.cpp:406] penlu51 <- Eltwise25
I0925 17:02:38.712822  3155 net.cpp:367] penlu51 -> Eltwise25 (in-place)
I0925 17:02:38.712944  3155 net.cpp:122] Setting up penlu51
I0925 17:02:38.712947  3155 net.cpp:129] Top shape: 100 64 8 8 (409600)
I0925 17:02:38.712949  3155 net.cpp:137] Memory required for data: 1151386800
I0925 17:02:38.712954  3155 layer_factory.hpp:77] Creating layer Eltwise25_penlu51_0_split
I0925 17:02:38.712958  3155 net.cpp:84] Creating Layer Eltwise25_penlu51_0_split
I0925 17:02:38.712960  3155 net.cpp:406] Eltwise25_penlu51_0_split <- Eltwise25
I0925 17:02:38.712965  3155 net.cpp:380] Eltwise25_penlu51_0_split -> Eltwise25_penlu51_0_split_0
I0925 17:02:38.712968  3155 net.cpp:380] Eltwise25_penlu51_0_split -> Eltwise25_penlu51_0_split_1
I0925 17:02:38.712992  3155 net.cpp:122] Setting up Eltwise25_penlu51_0_split
I0925 17:02:38.712996  3155 net.cpp:129] Top shape: 100 64 8 8 (409600)
I0925 17:02:38.712999  3155 net.cpp:129] Top shape: 100 64 8 8 (409600)
I0925 17:02:38.713001  3155 net.cpp:137] Memory required for data: 1154663600
I0925 17:02:38.713003  3155 layer_factory.hpp:77] Creating layer Convolution54
I0925 17:02:38.713009  3155 net.cpp:84] Creating Layer Convolution54
I0925 17:02:38.713011  3155 net.cpp:406] Convolution54 <- Eltwise25_penlu51_0_split_0
I0925 17:02:38.713016  3155 net.cpp:380] Convolution54 -> Convolution54
I0925 17:02:38.715077  3155 net.cpp:122] Setting up Convolution54
I0925 17:02:38.715086  3155 net.cpp:129] Top shape: 100 64 8 8 (409600)
I0925 17:02:38.715088  3155 net.cpp:137] Memory required for data: 1156302000
I0925 17:02:38.715093  3155 layer_factory.hpp:77] Creating layer BatchNorm54
I0925 17:02:38.715098  3155 net.cpp:84] Creating Layer BatchNorm54
I0925 17:02:38.715101  3155 net.cpp:406] BatchNorm54 <- Convolution54
I0925 17:02:38.715106  3155 net.cpp:367] BatchNorm54 -> Convolution54 (in-place)
I0925 17:02:38.715258  3155 net.cpp:122] Setting up BatchNorm54
I0925 17:02:38.715262  3155 net.cpp:129] Top shape: 100 64 8 8 (409600)
I0925 17:02:38.715265  3155 net.cpp:137] Memory required for data: 1157940400
I0925 17:02:38.715270  3155 layer_factory.hpp:77] Creating layer Scale54
I0925 17:02:38.715275  3155 net.cpp:84] Creating Layer Scale54
I0925 17:02:38.715277  3155 net.cpp:406] Scale54 <- Convolution54
I0925 17:02:38.715281  3155 net.cpp:367] Scale54 -> Convolution54 (in-place)
I0925 17:02:38.715312  3155 layer_factory.hpp:77] Creating layer Scale54
I0925 17:02:38.715395  3155 net.cpp:122] Setting up Scale54
I0925 17:02:38.715399  3155 net.cpp:129] Top shape: 100 64 8 8 (409600)
I0925 17:02:38.715410  3155 net.cpp:137] Memory required for data: 1159578800
I0925 17:02:38.715415  3155 layer_factory.hpp:77] Creating layer penlu52
I0925 17:02:38.715421  3155 net.cpp:84] Creating Layer penlu52
I0925 17:02:38.715423  3155 net.cpp:406] penlu52 <- Convolution54
I0925 17:02:38.715427  3155 net.cpp:367] penlu52 -> Convolution54 (in-place)
I0925 17:02:38.715549  3155 net.cpp:122] Setting up penlu52
I0925 17:02:38.715554  3155 net.cpp:129] Top shape: 100 64 8 8 (409600)
I0925 17:02:38.715556  3155 net.cpp:137] Memory required for data: 1161217200
I0925 17:02:38.715560  3155 layer_factory.hpp:77] Creating layer Convolution55
I0925 17:02:38.715567  3155 net.cpp:84] Creating Layer Convolution55
I0925 17:02:38.715570  3155 net.cpp:406] Convolution55 <- Convolution54
I0925 17:02:38.715574  3155 net.cpp:380] Convolution55 -> Convolution55
I0925 17:02:38.717324  3155 net.cpp:122] Setting up Convolution55
I0925 17:02:38.717332  3155 net.cpp:129] Top shape: 100 64 8 8 (409600)
I0925 17:02:38.717335  3155 net.cpp:137] Memory required for data: 1162855600
I0925 17:02:38.717339  3155 layer_factory.hpp:77] Creating layer BatchNorm55
I0925 17:02:38.717345  3155 net.cpp:84] Creating Layer BatchNorm55
I0925 17:02:38.717348  3155 net.cpp:406] BatchNorm55 <- Convolution55
I0925 17:02:38.717353  3155 net.cpp:367] BatchNorm55 -> Convolution55 (in-place)
I0925 17:02:38.717499  3155 net.cpp:122] Setting up BatchNorm55
I0925 17:02:38.717504  3155 net.cpp:129] Top shape: 100 64 8 8 (409600)
I0925 17:02:38.717505  3155 net.cpp:137] Memory required for data: 1164494000
I0925 17:02:38.717510  3155 layer_factory.hpp:77] Creating layer Scale55
I0925 17:02:38.717514  3155 net.cpp:84] Creating Layer Scale55
I0925 17:02:38.717517  3155 net.cpp:406] Scale55 <- Convolution55
I0925 17:02:38.717520  3155 net.cpp:367] Scale55 -> Convolution55 (in-place)
I0925 17:02:38.717551  3155 layer_factory.hpp:77] Creating layer Scale55
I0925 17:02:38.717634  3155 net.cpp:122] Setting up Scale55
I0925 17:02:38.717638  3155 net.cpp:129] Top shape: 100 64 8 8 (409600)
I0925 17:02:38.717641  3155 net.cpp:137] Memory required for data: 1166132400
I0925 17:02:38.717644  3155 layer_factory.hpp:77] Creating layer Eltwise26
I0925 17:02:38.717649  3155 net.cpp:84] Creating Layer Eltwise26
I0925 17:02:38.717653  3155 net.cpp:406] Eltwise26 <- Eltwise25_penlu51_0_split_1
I0925 17:02:38.717655  3155 net.cpp:406] Eltwise26 <- Convolution55
I0925 17:02:38.717658  3155 net.cpp:380] Eltwise26 -> Eltwise26
I0925 17:02:38.717675  3155 net.cpp:122] Setting up Eltwise26
I0925 17:02:38.717679  3155 net.cpp:129] Top shape: 100 64 8 8 (409600)
I0925 17:02:38.717681  3155 net.cpp:137] Memory required for data: 1167770800
I0925 17:02:38.717684  3155 layer_factory.hpp:77] Creating layer penlu53
I0925 17:02:38.717689  3155 net.cpp:84] Creating Layer penlu53
I0925 17:02:38.717691  3155 net.cpp:406] penlu53 <- Eltwise26
I0925 17:02:38.717694  3155 net.cpp:367] penlu53 -> Eltwise26 (in-place)
I0925 17:02:38.717815  3155 net.cpp:122] Setting up penlu53
I0925 17:02:38.717819  3155 net.cpp:129] Top shape: 100 64 8 8 (409600)
I0925 17:02:38.717823  3155 net.cpp:137] Memory required for data: 1169409200
I0925 17:02:38.717826  3155 layer_factory.hpp:77] Creating layer Eltwise26_penlu53_0_split
I0925 17:02:38.717830  3155 net.cpp:84] Creating Layer Eltwise26_penlu53_0_split
I0925 17:02:38.717833  3155 net.cpp:406] Eltwise26_penlu53_0_split <- Eltwise26
I0925 17:02:38.717835  3155 net.cpp:380] Eltwise26_penlu53_0_split -> Eltwise26_penlu53_0_split_0
I0925 17:02:38.717839  3155 net.cpp:380] Eltwise26_penlu53_0_split -> Eltwise26_penlu53_0_split_1
I0925 17:02:38.717864  3155 net.cpp:122] Setting up Eltwise26_penlu53_0_split
I0925 17:02:38.717867  3155 net.cpp:129] Top shape: 100 64 8 8 (409600)
I0925 17:02:38.717870  3155 net.cpp:129] Top shape: 100 64 8 8 (409600)
I0925 17:02:38.717872  3155 net.cpp:137] Memory required for data: 1172686000
I0925 17:02:38.717875  3155 layer_factory.hpp:77] Creating layer Convolution56
I0925 17:02:38.717881  3155 net.cpp:84] Creating Layer Convolution56
I0925 17:02:38.717890  3155 net.cpp:406] Convolution56 <- Eltwise26_penlu53_0_split_0
I0925 17:02:38.717895  3155 net.cpp:380] Convolution56 -> Convolution56
I0925 17:02:38.719635  3155 net.cpp:122] Setting up Convolution56
I0925 17:02:38.719645  3155 net.cpp:129] Top shape: 100 64 8 8 (409600)
I0925 17:02:38.719647  3155 net.cpp:137] Memory required for data: 1174324400
I0925 17:02:38.719651  3155 layer_factory.hpp:77] Creating layer BatchNorm56
I0925 17:02:38.719656  3155 net.cpp:84] Creating Layer BatchNorm56
I0925 17:02:38.719660  3155 net.cpp:406] BatchNorm56 <- Convolution56
I0925 17:02:38.719663  3155 net.cpp:367] BatchNorm56 -> Convolution56 (in-place)
I0925 17:02:38.719815  3155 net.cpp:122] Setting up BatchNorm56
I0925 17:02:38.719818  3155 net.cpp:129] Top shape: 100 64 8 8 (409600)
I0925 17:02:38.719820  3155 net.cpp:137] Memory required for data: 1175962800
I0925 17:02:38.719828  3155 layer_factory.hpp:77] Creating layer Scale56
I0925 17:02:38.719835  3155 net.cpp:84] Creating Layer Scale56
I0925 17:02:38.719836  3155 net.cpp:406] Scale56 <- Convolution56
I0925 17:02:38.719841  3155 net.cpp:367] Scale56 -> Convolution56 (in-place)
I0925 17:02:38.719871  3155 layer_factory.hpp:77] Creating layer Scale56
I0925 17:02:38.719954  3155 net.cpp:122] Setting up Scale56
I0925 17:02:38.719959  3155 net.cpp:129] Top shape: 100 64 8 8 (409600)
I0925 17:02:38.719960  3155 net.cpp:137] Memory required for data: 1177601200
I0925 17:02:38.719964  3155 layer_factory.hpp:77] Creating layer penlu54
I0925 17:02:38.719970  3155 net.cpp:84] Creating Layer penlu54
I0925 17:02:38.719972  3155 net.cpp:406] penlu54 <- Convolution56
I0925 17:02:38.719976  3155 net.cpp:367] penlu54 -> Convolution56 (in-place)
I0925 17:02:38.720099  3155 net.cpp:122] Setting up penlu54
I0925 17:02:38.720103  3155 net.cpp:129] Top shape: 100 64 8 8 (409600)
I0925 17:02:38.720105  3155 net.cpp:137] Memory required for data: 1179239600
I0925 17:02:38.720110  3155 layer_factory.hpp:77] Creating layer Convolution57
I0925 17:02:38.720118  3155 net.cpp:84] Creating Layer Convolution57
I0925 17:02:38.720119  3155 net.cpp:406] Convolution57 <- Convolution56
I0925 17:02:38.720124  3155 net.cpp:380] Convolution57 -> Convolution57
I0925 17:02:38.721855  3155 net.cpp:122] Setting up Convolution57
I0925 17:02:38.721864  3155 net.cpp:129] Top shape: 100 64 8 8 (409600)
I0925 17:02:38.721868  3155 net.cpp:137] Memory required for data: 1180878000
I0925 17:02:38.721873  3155 layer_factory.hpp:77] Creating layer BatchNorm57
I0925 17:02:38.721877  3155 net.cpp:84] Creating Layer BatchNorm57
I0925 17:02:38.721880  3155 net.cpp:406] BatchNorm57 <- Convolution57
I0925 17:02:38.721884  3155 net.cpp:367] BatchNorm57 -> Convolution57 (in-place)
I0925 17:02:38.722030  3155 net.cpp:122] Setting up BatchNorm57
I0925 17:02:38.722034  3155 net.cpp:129] Top shape: 100 64 8 8 (409600)
I0925 17:02:38.722036  3155 net.cpp:137] Memory required for data: 1182516400
I0925 17:02:38.722041  3155 layer_factory.hpp:77] Creating layer Scale57
I0925 17:02:38.722045  3155 net.cpp:84] Creating Layer Scale57
I0925 17:02:38.722048  3155 net.cpp:406] Scale57 <- Convolution57
I0925 17:02:38.722051  3155 net.cpp:367] Scale57 -> Convolution57 (in-place)
I0925 17:02:38.722080  3155 layer_factory.hpp:77] Creating layer Scale57
I0925 17:02:38.722165  3155 net.cpp:122] Setting up Scale57
I0925 17:02:38.722169  3155 net.cpp:129] Top shape: 100 64 8 8 (409600)
I0925 17:02:38.722172  3155 net.cpp:137] Memory required for data: 1184154800
I0925 17:02:38.722175  3155 layer_factory.hpp:77] Creating layer Eltwise27
I0925 17:02:38.722179  3155 net.cpp:84] Creating Layer Eltwise27
I0925 17:02:38.722182  3155 net.cpp:406] Eltwise27 <- Eltwise26_penlu53_0_split_1
I0925 17:02:38.722185  3155 net.cpp:406] Eltwise27 <- Convolution57
I0925 17:02:38.722188  3155 net.cpp:380] Eltwise27 -> Eltwise27
I0925 17:02:38.722206  3155 net.cpp:122] Setting up Eltwise27
I0925 17:02:38.722210  3155 net.cpp:129] Top shape: 100 64 8 8 (409600)
I0925 17:02:38.722213  3155 net.cpp:137] Memory required for data: 1185793200
I0925 17:02:38.722220  3155 layer_factory.hpp:77] Creating layer penlu55
I0925 17:02:38.722226  3155 net.cpp:84] Creating Layer penlu55
I0925 17:02:38.722229  3155 net.cpp:406] penlu55 <- Eltwise27
I0925 17:02:38.722232  3155 net.cpp:367] penlu55 -> Eltwise27 (in-place)
I0925 17:02:38.722359  3155 net.cpp:122] Setting up penlu55
I0925 17:02:38.722364  3155 net.cpp:129] Top shape: 100 64 8 8 (409600)
I0925 17:02:38.722367  3155 net.cpp:137] Memory required for data: 1187431600
I0925 17:02:38.722370  3155 layer_factory.hpp:77] Creating layer Pooling1
I0925 17:02:38.722375  3155 net.cpp:84] Creating Layer Pooling1
I0925 17:02:38.722378  3155 net.cpp:406] Pooling1 <- Eltwise27
I0925 17:02:38.722381  3155 net.cpp:380] Pooling1 -> Pooling1
I0925 17:02:38.722868  3155 net.cpp:122] Setting up Pooling1
I0925 17:02:38.722877  3155 net.cpp:129] Top shape: 100 64 1 1 (6400)
I0925 17:02:38.737905  3155 net.cpp:137] Memory required for data: 1187457200
I0925 17:02:38.737912  3155 layer_factory.hpp:77] Creating layer InnerProduct1
I0925 17:02:38.737918  3155 net.cpp:84] Creating Layer InnerProduct1
I0925 17:02:38.737921  3155 net.cpp:406] InnerProduct1 <- Pooling1
I0925 17:02:38.737927  3155 net.cpp:380] InnerProduct1 -> InnerProduct1
I0925 17:02:38.738056  3155 net.cpp:122] Setting up InnerProduct1
I0925 17:02:38.738062  3155 net.cpp:129] Top shape: 100 10 (1000)
I0925 17:02:38.738065  3155 net.cpp:137] Memory required for data: 1187461200
I0925 17:02:38.738070  3155 layer_factory.hpp:77] Creating layer InnerProduct1_InnerProduct1_0_split
I0925 17:02:38.738075  3155 net.cpp:84] Creating Layer InnerProduct1_InnerProduct1_0_split
I0925 17:02:38.738076  3155 net.cpp:406] InnerProduct1_InnerProduct1_0_split <- InnerProduct1
I0925 17:02:38.738081  3155 net.cpp:380] InnerProduct1_InnerProduct1_0_split -> InnerProduct1_InnerProduct1_0_split_0
I0925 17:02:38.738086  3155 net.cpp:380] InnerProduct1_InnerProduct1_0_split -> InnerProduct1_InnerProduct1_0_split_1
I0925 17:02:38.738116  3155 net.cpp:122] Setting up InnerProduct1_InnerProduct1_0_split
I0925 17:02:38.738119  3155 net.cpp:129] Top shape: 100 10 (1000)
I0925 17:02:38.738123  3155 net.cpp:129] Top shape: 100 10 (1000)
I0925 17:02:38.738126  3155 net.cpp:137] Memory required for data: 1187469200
I0925 17:02:38.738127  3155 layer_factory.hpp:77] Creating layer SoftmaxWithLoss1
I0925 17:02:38.738133  3155 net.cpp:84] Creating Layer SoftmaxWithLoss1
I0925 17:02:38.738137  3155 net.cpp:406] SoftmaxWithLoss1 <- InnerProduct1_InnerProduct1_0_split_0
I0925 17:02:38.738139  3155 net.cpp:406] SoftmaxWithLoss1 <- Data2_Data1_1_split_0
…
