…
I0925 16:13:17.101426  3006 net.cpp:294] The NetState phase (0) differed from the phase (1) specified by a rule in layer Accuracy1
I0925 16:13:17.102576  3006 net.cpp:51] Initializing net from parameters: 
name: "resnet_cifar10"
state {
  phase: TRAIN
  level: 0
  stage: ""
}
layer {
  name: "Data1"
  type: "Data"
  top: "Data1"
  top: "Data2"
  include {
    phase: TRAIN
  }
  transform_param {
    mirror: true
    crop_size: 28
    mean_file: "/home/x306/caffe/xn/PENLU/data/cifar10/mean.binaryproto"
  }
  data_param {
    source: "/home/x306/caffe/xn/PENLU/data/cifar10/cifar10_train_lmdb"
    batch_size: 100
    backend: LMDB
  }
}
layer {
  name: "Convolution1"
  type: "Convolution"
  bottom: "Data1"
  top: "Convolution1"
  param {
    lr_mult: 1
    decay_mult: 1
  }
  param {
    lr_mult: 2
    decay_mult: 0
  }
  convolution_param {
    num_output: 16
    pad: 1
    kernel_size: 3
    stride: 1
    weight_filler {
      type: "gaussian"
      std: 0.118
    }
    bias_filler {
      type: "constant"
      value: 0
    }
  }
}
layer {
  name: "BatchNorm1"
  type: "BatchNorm"
  bottom: "Convolution1"
  top: "Convolution1"
  param {
    lr_mult: 0
    decay_mult: 0
  }
  param {
    lr_mult: 0
    decay_mult: 0
  }
  param {
    lr_mult: 0
    decay_mult: 0
  }
}
layer {
  name: "Scale1"
  type: "Scale"
  bottom: "Convolution1"
  top: "Convolution1"
  scale_param {
    bias_term: true
  }
}
layer {
  name: "penlu1"
  type: "PENLU"
  bottom: "Convolution1"
  top: "Convolution1"
  param {
    lr_mult: 1
    decay_mult: 0
  }
  param {
    lr_mult: 1
    decay_mult: 0
  }
  param {
    lr_mult: 1
    decay_mult: 0
  }
  penlu_param {
    alpha_filler {
      type: "constant"
      value: 1
    }
    beta_filler {
      type: "constant"
      value: 1
    }
    eta_filler {
      type: "constant"
      value: 1
    }
  }
}
layer {
  name: "Convolution2"
  type: "Convolution"
  bottom: "Convolution1"
  top: "Convolution2"
  param {
    lr_mult: 1
    decay_mult: 1
  }
  param {
    lr_mult: 2
    decay_mult: 0
  }
  convolution_param {
    num_output: 16
    pad: 1
    kernel_size: 3
    stride: 1
    weight_filler {
      type: "gaussian"
      std: 0.118
    }
    bias_filler {
      type: "constant"
      value: 0
    }
  }
}
layer {
  name: "BatchNorm2"
  type: "BatchNorm"
  bottom: "Convolution2"
  top: "Convolution2"
  param {
    lr_mult: 0
    decay_mult: 0
  }
  param {
    lr_mult: 0
    decay_mult: 0
  }
  param {
    lr_mult: 0
    decay_mult: 0
  }
}
layer {
  name: "Scale2"
  type: "Scale"
  bottom: "Convolution2"
  top: "Convolution2"
  scale_param {
    bias_term: true
  }
}
layer {
  name: "penlu2"
  type: "PENLU"
  bottom: "Convolution2"
  top: "Convolution2"
  param {
    lr_mult: 1
    decay_mult: 0
  }
  param {
    lr_mult: 1
    decay_mult: 0
  }
  param {
    lr_mult: 1
    decay_mult: 0
  }
  penlu_param {
    alpha_filler {
      type: "constant"
      value: 1
    }
    beta_filler {
      type: "constant"
      value: 1
    }
    eta_filler {
      type: "constant"
      value: 1
    }
  }
}
layer {
  name: "Convolution3"
  type: "Convolution"
  bottom: "Convolution2"
  top: "Convolution3"
  param {
    lr_mult: 1
    decay_mult: 1
  }
  param {
    lr_mult: 2
    decay_mult: 0
  }
  convolution_param {
    num_output: 16
    pad: 1
    kernel_size: 3
    stride: 1
    weight_filler {
      type: "gaussian"
      std: 0.118
    }
    bias_filler {
      type: "constant"
      value: 0
    }
  }
}
layer {
  name: "BatchNorm3"
  type: "BatchNorm"
  bottom: "Convolution3"
  top: "Convolution3"
  param {
    lr_mult: 0
    decay_mult: 0
  }
  param {
    lr_mult: 0
    decay_mult: 0
  }
  param {
    lr_mult: 0
    decay_mult: 0
  }
}
layer {
  name: "Scale3"
  type: "Scale"
  bottom: "Convolution3"
  top: "Convolution3"
  scale_param {
    bias_term: true
  }
}
layer {
  name: "Eltwise1"
  type: "Eltwise"
  bottom: "Convolution1"
  bottom: "Convolution3"
  top: "Eltwise1"
  eltwise_param {
    operation: SUM
  }
}
layer {
  name: "penlu3"
  type: "PENLU"
  bottom: "Eltwise1"
  top: "Eltwise1"
  param {
    lr_mult: 1
    decay_mult: 0
  }
  param {
    lr_mult: 1
    decay_mult: 0
  }
  param {
    lr_mult: 1
    decay_mult: 0
  }
  penlu_param {
    alpha_filler {
      type: "constant"
      value: 1
    }
    beta_filler {
      type: "constant"
      value: 1
    }
    eta_filler {
      type: "constant"
      value: 1
    }
  }
}
layer {
  name: "Convolution4"
  type: "Convolution"
  bottom: "Eltwise1"
  top: "Convolution4"
  param {
    lr_mult: 1
    decay_mult: 1
  }
  param {
    lr_mult: 2
    decay_mult: 0
  }
  convolution_param {
    num_output: 16
    pad: 1
    kernel_size: 3
    stride: 1
    weight_filler {
      type: "gaussian"
      std: 0.118
    }
    bias_filler {
      type: "constant"
      value: 0
    }
  }
}
layer {
  name: "BatchNorm4"
  type: "BatchNorm"
  bottom: "Convolution4"
  top: "Convolution4"
  param {
    lr_mult: 0
    decay_mult: 0
  }
  param {
    lr_mult: 0
    decay_mult: 0
  }
  param {
    lr_mult: 0
    decay_mult: 0
  }
}
layer {
  name: "Scale4"
  type: "Scale"
  bottom: "Convolution4"
  top: "Convolution4"
  scale_param {
    bias_term: true
  }
}
layer {
  name: "penlu4"
  type: "PENLU"
  bottom: "Convolution4"
  top: "Convolution4"
  param {
    lr_mult: 1
    decay_mult: 0
  }
  param {
    lr_mult: 1
    decay_mult: 0
  }
  param {
    lr_mult: 1
    decay_mult: 0
  }
  penlu_param {
    alpha_filler {
      type: "constant"
      value: 1
    }
    beta_filler {
      type: "constant"
      value: 1
    }
    eta_filler {
      type: "constant"
      value: 1
    }
  }
}
layer {
  name: "Convolution5"
  type: "Convolution"
  bottom: "Convolution4"
  top: "Convolution5"
  param {
    lr_mult: 1
    decay_mult: 1
  }
  param {
    lr_mult: 2
    decay_mult: 0
  }
  convolution_param {
    num_output: 16
    pad: 1
    kernel_size: 3
    stride: 1
    weight_filler {
      type: "gaussian"
      std: 0.118
    }
    bias_filler {
      type: "constant"
      value: 0
    }
  }
}
layer {
  name: "BatchNorm5"
  type: "BatchNorm"
  bottom: "Convolution5"
  top: "Convolution5"
  param {
    lr_mult: 0
    decay_mult: 0
  }
  param {
    lr_mult: 0
    decay_mult: 0
  }
  param {
    lr_mult: 0
    decay_mult: 0
  }
}
layer {
  name: "Scale5"
  type: "Scale"
  bottom: "Convolution5"
  top: "Convolution5"
  scale_param {
    bias_term: true
  }
}
layer {
  name: "Eltwise2"
  type: "Eltwise"
  bottom: "Eltwise1"
  bottom: "Convolution5"
  top: "Eltwise2"
  eltwise_param {
    operation: SUM
  }
}
layer {
  name: "penlu5"
  type: "PENLU"
  bottom: "Eltwise2"
  top: "Eltwise2"
  param {
    lr_mult: 1
    decay_mult: 0
  }
  param {
    lr_mult: 1
    decay_mult: 0
  }
  param {
    lr_mult: 1
    decay_mult: 0
  }
  penlu_param {
    alpha_filler {
      type: "constant"
      value: 1
    }
    beta_filler {
      type: "constant"
      value: 1
    }
    eta_filler {
      type: "constant"
      value: 1
    }
  }
}
layer {
  name: "Convolution6"
  type: "Convolution"
  bottom: "Eltwise2"
  top: "Convolution6"
  param {
    lr_mult: 1
    decay_mult: 1
  }
  param {
    lr_mult: 2
    decay_mult: 0
  }
  convolution_param {
    num_output: 16
    pad: 1
    kernel_size: 3
    stride: 1
    weight_filler {
      type: "gaussian"
      std: 0.118
    }
    bias_filler {
      type: "constant"
      value: 0
    }
  }
}
layer {
  name: "BatchNorm6"
  type: "BatchNorm"
  bottom: "Convolution6"
  top: "Convolution6"
  param {
    lr_mult: 0
    decay_mult: 0
  }
  param {
    lr_mult: 0
    decay_mult: 0
  }
  param {
    lr_mult: 0
    decay_mult: 0
  }
}
layer {
  name: "Scale6"
  type: "Scale"
  bottom: "Convolution6"
  top: "Convolution6"
  scale_param {
    bias_term: true
  }
}
layer {
  name: "penlu6"
  type: "PENLU"
  bottom: "Convolution6"
  top: "Convolution6"
  param {
    lr_mult: 1
    decay_mult: 0
  }
  param {
    lr_mult: 1
    decay_mult: 0
  }
  param {
    lr_mult: 1
    decay_mult: 0
  }
  penlu_param {
    alpha_filler {
      type: "constant"
      value: 1
    }
    beta_filler {
      type: "constant"
      value: 1
    }
    eta_filler {
      type: "constant"
      value: 1
    }
  }
}
layer {
  name: "Convolution7"
  type: "Convolution"
  bottom: "Convolution6"
  top: "Convolution7"
  param {
    lr_mult: 1
    decay_mult: 1
  }
  param {
    lr_mult: 2
    decay_mult: 0
  }
  convolution_param {
    num_output: 16
    pad: 1
    kernel_size: 3
    stride: 1
    weight_filler {
      type: "gaussian"
      std: 0.118
    }
    bias_filler {
      type: "constant"
      value: 0
    }
  }
}
layer {
  name: "BatchNorm7"
  type: "BatchNorm"
  bottom: "Convolution7"
  top: "Convolution7"
  param {
    lr_mult: 0
    decay_mult: 0
  }
  param {
    lr_mult: 0
    decay_mult: 0
  }
  param {
    lr_mult: 0
    decay_mult: 0
  }
}
layer {
  name: "Scale7"
  type: "Scale"
  bottom: "Convolution7"
  top: "Convolution7"
  scale_param {
    bias_term: true
  }
}
layer {
  name: "Eltwise3"
  type: "Eltwise"
  bottom: "Eltwise2"
  bottom: "Convolution7"
  top: "Eltwise3"
  eltwise_param {
    operation: SUM
  }
}
layer {
  name: "penlu7"
  type: "PENLU"
  bottom: "Eltwise3"
  top: "Eltwise3"
  param {
    lr_mult: 1
    decay_mult: 0
  }
  param {
    lr_mult: 1
    decay_mult: 0
  }
  param {
    lr_mult: 1
    decay_mult: 0
  }
  penlu_param {
    alpha_filler {
      type: "constant"
      value: 1
    }
    beta_filler {
      type: "constant"
      value: 1
    }
    eta_filler {
      type: "constant"
      value: 1
    }
  }
}
layer {
  name: "Convolution8"
  type: "Convolution"
  bottom: "Eltwise3"
  top: "Convolution8"
  param {
    lr_mult: 1
    decay_mult: 1
  }
  param {
    lr_mult: 2
    decay_mult: 0
  }
  convolution_param {
    num_output: 16
    pad: 1
    kernel_size: 3
    stride: 1
    weight_filler {
      type: "gaussian"
      std: 0.118
    }
    bias_filler {
      type: "constant"
      value: 0
    }
  }
}
layer {
  name: "BatchNorm8"
  type: "BatchNorm"
  bottom: "Convolution8"
  top: "Convolution8"
  param {
    lr_mult: 0
    decay_mult: 0
  }
  param {
    lr_mult: 0
    decay_mult: 0
  }
  param {
    lr_mult: 0
    decay_mult: 0
  }
}
layer {
  name: "Scale8"
  type: "Scale"
  bottom: "Convolution8"
  top: "Convolution8"
  scale_param {
    bias_term: true
  }
}
layer {
  name: "penlu8"
  type: "PENLU"
  bottom: "Convolution8"
  top: "Convolution8"
  param {
    lr_mult: 1
    decay_mult: 0
  }
  param {
    lr_mult: 1
    decay_mult: 0
  }
  param {
    lr_mult: 1
    decay_mult: 0
  }
  penlu_param {
    alpha_filler {
      type: "constant"
      value: 1
    }
    beta_filler {
      type: "constant"
      value: 1
    }
    eta_filler {
      type: "constant"
      value: 1
    }
  }
}
layer {
  name: "Convolution9"
  type: "Convolution"
  bottom: "Convolution8"
  top: "Convolution9"
  param {
    lr_mult: 1
    decay_mult: 1
  }
  param {
    lr_mult: 2
    decay_mult: 0
  }
  convolution_param {
    num_output: 16
    pad: 1
    kernel_size: 3
    stride: 1
    weight_filler {
      type: "gaussian"
      std: 0.118
    }
    bias_filler {
      type: "constant"
      value: 0
    }
  }
}
layer {
  name: "BatchNorm9"
  type: "BatchNorm"
  bottom: "Convolution9"
  top: "Convolution9"
  param {
    lr_mult: 0
    decay_mult: 0
  }
  param {
    lr_mult: 0
    decay_mult: 0
  }
  param {
    lr_mult: 0
    decay_mult: 0
  }
}
layer {
  name: "Scale9"
  type: "Scale"
  bottom: "Convolution9"
  top: "Convolution9"
  scale_param {
    bias_term: true
  }
}
layer {
  name: "Eltwise4"
  type: "Eltwise"
  bottom: "Eltwise3"
  bottom: "Convolution9"
  top: "Eltwise4"
  eltwise_param {
    operation: SUM
  }
}
layer {
  name: "penlu9"
  type: "PENLU"
  bottom: "Eltwise4"
  top: "Eltwise4"
  param {
    lr_mult: 1
    decay_mult: 0
  }
  param {
    lr_mult: 1
    decay_mult: 0
  }
  param {
    lr_mult: 1
    decay_mult: 0
  }
  penlu_param {
    alpha_filler {
      type: "constant"
      value: 1
    }
    beta_filler {
      type: "constant"
      value: 1
    }
    eta_filler {
      type: "constant"
      value: 1
    }
  }
}
layer {
  name: "Convolution10"
  type: "Convolution"
  bottom: "Eltwise4"
  top: "Convolution10"
  param {
    lr_mult: 1
    decay_mult: 1
  }
  param {
    lr_mult: 2
    decay_mult: 0
  }
  convolution_param {
    num_output: 16
    pad: 1
    kernel_size: 3
    stride: 1
    weight_filler {
      type: "gaussian"
      std: 0.118
    }
    bias_filler {
      type: "constant"
      value: 0
    }
  }
}
layer {
  name: "BatchNorm10"
  type: "BatchNorm"
  bottom: "Convolution10"
  top: "Convolution10"
  param {
    lr_mult: 0
    decay_mult: 0
  }
  param {
    lr_mult: 0
    decay_mult: 0
  }
  param {
    lr_mult: 0
    decay_mult: 0
  }
}
layer {
  name: "Scale10"
  type: "Scale"
  bottom: "Convolution10"
  top: "Convolution10"
  scale_param {
    bias_term: true
  }
}
layer {
  name: "penlu10"
  type: "PENLU"
  bottom: "Convolution10"
  top: "Convolution10"
  param {
    lr_mult: 1
    decay_mult: 0
  }
  param {
    lr_mult: 1
    decay_mult: 0
  }
  param {
    lr_mult: 1
    decay_mult: 0
  }
  penlu_param {
    alpha_filler {
      type: "constant"
      value: 1
    }
    beta_filler {
      type: "constant"
      value: 1
    }
    eta_filler {
      type: "constant"
      value: 1
    }
  }
}
layer {
  name: "Convolution11"
  type: "Convolution"
  bottom: "Convolution10"
  top: "Convolution11"
  param {
    lr_mult: 1
    decay_mult: 1
  }
  param {
    lr_mult: 2
    decay_mult: 0
  }
  convolution_param {
    num_output: 16
    pad: 1
    kernel_size: 3
    stride: 1
    weight_filler {
      type: "gaussian"
      std: 0.118
    }
    bias_filler {
      type: "constant"
      value: 0
    }
  }
}
layer {
  name: "BatchNorm11"
  type: "BatchNorm"
  bottom: "Convolution11"
  top: "Convolution11"
  param {
    lr_mult: 0
    decay_mult: 0
  }
  param {
    lr_mult: 0
    decay_mult: 0
  }
  param {
    lr_mult: 0
    decay_mult: 0
  }
}
layer {
  name: "Scale11"
  type: "Scale"
  bottom: "Convolution11"
  top: "Convolution11"
  scale_param {
    bias_term: true
  }
}
layer {
  name: "Eltwise5"
  type: "Eltwise"
  bottom: "Eltwise4"
  bottom: "Convolution11"
  top: "Eltwise5"
  eltwise_param {
    operation: SUM
  }
}
layer {
  name: "penlu11"
  type: "PENLU"
  bottom: "Eltwise5"
  top: "Eltwise5"
  param {
    lr_mult: 1
    decay_mult: 0
  }
  param {
    lr_mult: 1
    decay_mult: 0
  }
  param {
    lr_mult: 1
    decay_mult: 0
  }
  penlu_param {
    alpha_filler {
      type: "constant"
      value: 1
    }
    beta_filler {
      type: "constant"
      value: 1
    }
    eta_filler {
      type: "constant"
      value: 1
    }
  }
}
layer {
  name: "Convolution12"
  type: "Convolution"
  bottom: "Eltwise5"
  top: "Convolution12"
  param {
    lr_mult: 1
    decay_mult: 1
  }
  param {
    lr_mult: 2
    decay_mult: 0
  }
  convolution_param {
    num_output: 16
    pad: 1
    kernel_size: 3
    stride: 1
    weight_filler {
      type: "gaussian"
      std: 0.118
    }
    bias_filler {
      type: "constant"
      value: 0
    }
  }
}
layer {
  name: "BatchNorm12"
  type: "BatchNorm"
  bottom: "Convolution12"
  top: "Convolution12"
  param {
    lr_mult: 0
    decay_mult: 0
  }
  param {
    lr_mult: 0
    decay_mult: 0
  }
  param {
    lr_mult: 0
    decay_mult: 0
  }
}
layer {
  name: "Scale12"
  type: "Scale"
  bottom: "Convolution12"
  top: "Convolution12"
  scale_param {
    bias_term: true
  }
}
layer {
  name: "penlu12"
  type: "PENLU"
  bottom: "Convolution12"
  top: "Convolution12"
  param {
    lr_mult: 1
    decay_mult: 0
  }
  param {
    lr_mult: 1
    decay_mult: 0
  }
  param {
    lr_mult: 1
    decay_mult: 0
  }
  penlu_param {
    alpha_filler {
      type: "constant"
      value: 1
    }
    beta_filler {
      type: "constant"
      value: 1
    }
    eta_filler {
      type: "constant"
      value: 1
    }
  }
}
layer {
  name: "Convolution13"
  type: "Convolution"
  bottom: "Convolution12"
  top: "Convolution13"
  param {
    lr_mult: 1
    decay_mult: 1
  }
  param {
    lr_mult: 2
    decay_mult: 0
  }
  convolution_param {
    num_output: 16
    pad: 1
    kernel_size: 3
    stride: 1
    weight_filler {
      type: "gaussian"
      std: 0.118
    }
    bias_filler {
      type: "constant"
      value: 0
    }
  }
}
layer {
  name: "BatchNorm13"
  type: "BatchNorm"
  bottom: "Convolution13"
  top: "Convolution13"
  param {
    lr_mult: 0
    decay_mult: 0
  }
  param {
    lr_mult: 0
    decay_mult: 0
  }
  param {
    lr_mult: 0
    decay_mult: 0
  }
}
layer {
  name: "Scale13"
  type: "Scale"
  bottom: "Convolution13"
  top: "Convolution13"
  scale_param {
    bias_term: true
  }
}
layer {
  name: "Eltwise6"
  type: "Eltwise"
  bottom: "Eltwise5"
  bottom: "Convolution13"
  top: "Eltwise6"
  eltwise_param {
    operation: SUM
  }
}
layer {
  name: "penlu13"
  type: "PENLU"
  bottom: "Eltwise6"
  top: "Eltwise6"
  param {
    lr_mult: 1
    decay_mult: 0
  }
  param {
    lr_mult: 1
    decay_mult: 0
  }
  param {
    lr_mult: 1
    decay_mult: 0
  }
  penlu_param {
    alpha_filler {
      type: "constant"
      value: 1
    }
    beta_filler {
      type: "constant"
      value: 1
    }
    eta_filler {
      type: "constant"
      value: 1
    }
  }
}
layer {
  name: "Convolution14"
  type: "Convolution"
  bottom: "Eltwise6"
  top: "Convolution14"
  param {
    lr_mult: 1
    decay_mult: 1
  }
  param {
    lr_mult: 2
    decay_mult: 0
  }
  convolution_param {
    num_output: 16
    pad: 1
    kernel_size: 3
    stride: 1
    weight_filler {
      type: "gaussian"
      std: 0.118
    }
    bias_filler {
      type: "constant"
      value: 0
    }
  }
}
layer {
  name: "BatchNorm14"
  type: "BatchNorm"
  bottom: "Convolution14"
  top: "Convolution14"
  param {
    lr_mult: 0
    decay_mult: 0
  }
  param {
    lr_mult: 0
    decay_mult: 0
  }
  param {
    lr_mult: 0
    decay_mult: 0
  }
}
layer {
  name: "Scale14"
  type: "Scale"
  bottom: "Convolution14"
  top: "Convolution14"
  scale_param {
    bias_term: true
  }
}
layer {
  name: "penlu14"
  type: "PENLU"
  bottom: "Convolution14"
  top: "Convolution14"
  param {
    lr_mult: 1
    decay_mult: 0
  }
  param {
    lr_mult: 1
    decay_mult: 0
  }
  param {
    lr_mult: 1
    decay_mult: 0
  }
  penlu_param {
    alpha_filler {
      type: "constant"
      value: 1
    }
    beta_filler {
      type: "constant"
      value: 1
    }
    eta_filler {
      type: "constant"
      value: 1
    }
  }
}
layer {
  name: "Convolution15"
  type: "Convolution"
  bottom: "Convolution14"
  top: "Convolution15"
  param {
    lr_mult: 1
    decay_mult: 1
  }
  param {
    lr_mult: 2
    decay_mult: 0
  }
  convolution_param {
    num_output: 16
    pad: 1
    kernel_size: 3
    stride: 1
    weight_filler {
      type: "gaussian"
      std: 0.118
    }
    bias_filler {
      type: "constant"
      value: 0
    }
  }
}
layer {
  name: "BatchNorm15"
  type: "BatchNorm"
  bottom: "Convolution15"
  top: "Convolution15"
  param {
    lr_mult: 0
    decay_mult: 0
  }
  param {
    lr_mult: 0
    decay_mult: 0
  }
  param {
    lr_mult: 0
    decay_mult: 0
  }
}
layer {
  name: "Scale15"
  type: "Scale"
  bottom: "Convolution15"
  top: "Convolution15"
  scale_param {
    bias_term: true
  }
}
layer {
  name: "Eltwise7"
  type: "Eltwise"
  bottom: "Eltwise6"
  bottom: "Convolution15"
  top: "Eltwise7"
  eltwise_param {
    operation: SUM
  }
}
layer {
  name: "penlu15"
  type: "PENLU"
  bottom: "Eltwise7"
  top: "Eltwise7"
  param {
    lr_mult: 1
    decay_mult: 0
  }
  param {
    lr_mult: 1
    decay_mult: 0
  }
  param {
    lr_mult: 1
    decay_mult: 0
  }
  penlu_param {
    alpha_filler {
      type: "constant"
      value: 1
    }
    beta_filler {
      type: "constant"
      value: 1
    }
    eta_filler {
      type: "constant"
      value: 1
    }
  }
}
layer {
  name: "Convolution16"
  type: "Convolution"
  bottom: "Eltwise7"
  top: "Convolution16"
  param {
    lr_mult: 1
    decay_mult: 1
  }
  param {
    lr_mult: 2
    decay_mult: 0
  }
  convolution_param {
    num_output: 16
    pad: 1
    kernel_size: 3
    stride: 1
    weight_filler {
      type: "gaussian"
      std: 0.118
    }
    bias_filler {
      type: "constant"
      value: 0
    }
  }
}
layer {
  name: "BatchNorm16"
  type: "BatchNorm"
  bottom: "Convolution16"
  top: "Convolution16"
  param {
    lr_mult: 0
    decay_mult: 0
  }
  param {
    lr_mult: 0
    decay_mult: 0
  }
  param {
    lr_mult: 0
    decay_mult: 0
  }
}
layer {
  name: "Scale16"
  type: "Scale"
  bottom: "Convolution16"
  top: "Convolution16"
  scale_param {
    bias_term: true
  }
}
layer {
  name: "penlu16"
  type: "PENLU"
  bottom: "Convolution16"
  top: "Convolution16"
  param {
    lr_mult: 1
    decay_mult: 0
  }
  param {
    lr_mult: 1
    decay_mult: 0
  }
  param {
    lr_mult: 1
    decay_mult: 0
  }
  penlu_param {
    alpha_filler {
      type: "constant"
      value: 1
    }
    beta_filler {
      type: "constant"
      value: 1
    }
    eta_filler {
      type: "constant"
      value: 1
    }
  }
}
layer {
  name: "Convolution17"
  type: "Convolution"
  bottom: "Convolution16"
  top: "Convolution17"
  param {
    lr_mult: 1
    decay_mult: 1
  }
  param {
    lr_mult: 2
    decay_mult: 0
  }
  convolution_param {
    num_output: 16
    pad: 1
    kernel_size: 3
    stride: 1
    weight_filler {
      type: "gaussian"
      std: 0.118
    }
    bias_filler {
      type: "constant"
      value: 0
    }
  }
}
layer {
  name: "BatchNorm17"
  type: "BatchNorm"
  bottom: "Convolution17"
  top: "Convolution17"
  param {
    lr_mult: 0
    decay_mult: 0
  }
  param {
    lr_mult: 0
    decay_mult: 0
  }
  param {
    lr_mult: 0
    decay_mult: 0
  }
}
layer {
  name: "Scale17"
  type: "Scale"
  bottom: "Convolution17"
  top: "Convolution17"
  scale_param {
    bias_term: true
  }
}
layer {
  name: "Eltwise8"
  type: "Eltwise"
  bottom: "Eltwise7"
  bottom: "Convolution17"
  top: "Eltwise8"
  eltwise_param {
    operation: SUM
  }
}
layer {
  name: "penlu17"
  type: "PENLU"
  bottom: "Eltwise8"
  top: "Eltwise8"
  param {
    lr_mult: 1
    decay_mult: 0
  }
  param {
    lr_mult: 1
    decay_mult: 0
  }
  param {
    lr_mult: 1
    decay_mult: 0
  }
  penlu_param {
    alpha_filler {
      type: "constant"
      value: 1
    }
    beta_filler {
      type: "constant"
      value: 1
    }
    eta_filler {
      type: "constant"
      value: 1
    }
  }
}
layer {
  name: "Convolution18"
  type: "Convolution"
  bottom: "Eltwise8"
  top: "Convolution18"
  param {
    lr_mult: 1
    decay_mult: 1
  }
  param {
    lr_mult: 2
    decay_mult: 0
  }
  convolution_param {
    num_output: 16
    pad: 1
    kernel_size: 3
    stride: 1
    weight_filler {
      type: "gaussian"
      std: 0.118
    }
    bias_filler {
      type: "constant"
      value: 0
    }
  }
}
layer {
  name: "BatchNorm18"
  type: "BatchNorm"
  bottom: "Convolution18"
  top: "Convolution18"
  param {
    lr_mult: 0
    decay_mult: 0
  }
  param {
    lr_mult: 0
    decay_mult: 0
  }
  param {
    lr_mult: 0
    decay_mult: 0
  }
}
layer {
  name: "Scale18"
  type: "Scale"
  bottom: "Convolution18"
  top: "Convolution18"
  scale_param {
    bias_term: true
  }
}
layer {
  name: "penlu18"
  type: "PENLU"
  bottom: "Convolution18"
  top: "Convolution18"
  param {
    lr_mult: 1
    decay_mult: 0
  }
  param {
    lr_mult: 1
    decay_mult: 0
  }
  param {
    lr_mult: 1
    decay_mult: 0
  }
  penlu_param {
    alpha_filler {
      type: "constant"
      value: 1
    }
    beta_filler {
      type: "constant"
      value: 1
    }
    eta_filler {
      type: "constant"
      value: 1
    }
  }
}
layer {
  name: "Convolution19"
  type: "Convolution"
  bottom: "Convolution18"
  top: "Convolution19"
  param {
    lr_mult: 1
    decay_mult: 1
  }
  param {
    lr_mult: 2
    decay_mult: 0
  }
  convolution_param {
    num_output: 16
    pad: 1
    kernel_size: 3
    stride: 1
    weight_filler {
      type: "gaussian"
      std: 0.118
    }
    bias_filler {
      type: "constant"
      value: 0
    }
  }
}
layer {
  name: "BatchNorm19"
  type: "BatchNorm"
  bottom: "Convolution19"
  top: "Convolution19"
  param {
    lr_mult: 0
    decay_mult: 0
  }
  param {
    lr_mult: 0
    decay_mult: 0
  }
  param {
    lr_mult: 0
    decay_mult: 0
  }
}
layer {
  name: "Scale19"
  type: "Scale"
  bottom: "Convolution19"
  top: "Convolution19"
  scale_param {
    bias_term: true
  }
}
layer {
  name: "Eltwise9"
  type: "Eltwise"
  bottom: "Eltwise8"
  bottom: "Convolution19"
  top: "Eltwise9"
  eltwise_param {
    operation: SUM
  }
}
layer {
  name: "penlu19"
  type: "PENLU"
  bottom: "Eltwise9"
  top: "Eltwise9"
  param {
    lr_mult: 1
    decay_mult: 0
  }
  param {
    lr_mult: 1
    decay_mult: 0
  }
  param {
    lr_mult: 1
    decay_mult: 0
  }
  penlu_param {
    alpha_filler {
      type: "constant"
      value: 1
    }
    beta_filler {
      type: "constant"
      value: 1
    }
    eta_filler {
      type: "constant"
      value: 1
    }
  }
}
layer {
  name: "Convolution20"
  type: "Convolution"
  bottom: "Eltwise9"
  top: "Convolution20"
  param {
    lr_mult: 1
    decay_mult: 1
  }
  param {
    lr_mult: 2
    decay_mult: 0
  }
  convolution_param {
    num_output: 32
    pad: 0
    kernel_size: 1
    stride: 2
    weight_filler {
      type: "gaussian"
      std: 0.25
    }
    bias_filler {
      type: "constant"
      value: 0
    }
  }
}
layer {
  name: "BatchNorm20"
  type: "BatchNorm"
  bottom: "Convolution20"
  top: "Convolution20"
  param {
    lr_mult: 0
    decay_mult: 0
  }
  param {
    lr_mult: 0
    decay_mult: 0
  }
  param {
    lr_mult: 0
    decay_mult: 0
  }
}
layer {
  name: "Scale20"
  type: "Scale"
  bottom: "Convolution20"
  top: "Convolution20"
  scale_param {
    bias_term: true
  }
}
layer {
  name: "Convolution21"
  type: "Convolution"
  bottom: "Eltwise9"
  top: "Convolution21"
  param {
    lr_mult: 1
    decay_mult: 1
  }
  param {
    lr_mult: 2
    decay_mult: 0
  }
  convolution_param {
    num_output: 32
    pad: 1
    kernel_size: 3
    stride: 2
    weight_filler {
      type: "gaussian"
      std: 0.083
    }
    bias_filler {
      type: "constant"
      value: 0
    }
  }
}
layer {
  name: "BatchNorm21"
  type: "BatchNorm"
  bottom: "Convolution21"
  top: "Convolution21"
  param {
    lr_mult: 0
    decay_mult: 0
  }
  param {
    lr_mult: 0
    decay_mult: 0
  }
  param {
    lr_mult: 0
    decay_mult: 0
  }
}
layer {
  name: "Scale21"
  type: "Scale"
  bottom: "Convolution21"
  top: "Convolution21"
  scale_param {
    bias_term: true
  }
}
layer {
  name: "penlu20"
  type: "PENLU"
  bottom: "Convolution21"
  top: "Convolution21"
  param {
    lr_mult: 1
    decay_mult: 0
  }
  param {
    lr_mult: 1
    decay_mult: 0
  }
  param {
    lr_mult: 1
    decay_mult: 0
  }
  penlu_param {
    alpha_filler {
      type: "constant"
      value: 1
    }
    beta_filler {
      type: "constant"
      value: 1
    }
    eta_filler {
      type: "constant"
      value: 1
    }
  }
}
layer {
  name: "Convolution22"
  type: "Convolution"
  bottom: "Convolution21"
  top: "Convolution22"
  param {
    lr_mult: 1
    decay_mult: 1
  }
  param {
    lr_mult: 2
    decay_mult: 0
  }
  convolution_param {
    num_output: 32
    pad: 1
    kernel_size: 3
    stride: 1
    weight_filler {
      type: "gaussian"
      std: 0.083
    }
    bias_filler {
      type: "constant"
      value: 0
    }
  }
}
layer {
  name: "BatchNorm22"
  type: "BatchNorm"
  bottom: "Convolution22"
  top: "Convolution22"
  param {
    lr_mult: 0
    decay_mult: 0
  }
  param {
    lr_mult: 0
    decay_mult: 0
  }
  param {
    lr_mult: 0
    decay_mult: 0
  }
}
layer {
  name: "Scale22"
  type: "Scale"
  bottom: "Convolution22"
  top: "Convolution22"
  scale_param {
    bias_term: true
  }
}
layer {
  name: "Eltwise10"
  type: "Eltwise"
  bottom: "Convolution20"
  bottom: "Convolution22"
  top: "Eltwise10"
  eltwise_param {
    operation: SUM
  }
}
layer {
  name: "penlu21"
  type: "PENLU"
  bottom: "Eltwise10"
  top: "Eltwise10"
  param {
    lr_mult: 1
    decay_mult: 0
  }
  param {
    lr_mult: 1
    decay_mult: 0
  }
  param {
    lr_mult: 1
    decay_mult: 0
  }
  penlu_param {
    alpha_filler {
      type: "constant"
      value: 1
    }
    beta_filler {
      type: "constant"
      value: 1
    }
    eta_filler {
      type: "constant"
      value: 1
    }
  }
}
layer {
  name: "Convolution23"
  type: "Convolution"
  bottom: "Eltwise10"
  top: "Convolution23"
  param {
    lr_mult: 1
    decay_mult: 1
  }
  param {
    lr_mult: 2
    decay_mult: 0
  }
  convolution_param {
    num_output: 32
    pad: 1
    kernel_size: 3
    stride: 1
    weight_filler {
      type: "gaussian"
      std: 0.083
    }
    bias_filler {
      type: "constant"
      value: 0
    }
  }
}
layer {
  name: "BatchNorm23"
  type: "BatchNorm"
  bottom: "Convolution23"
  top: "Convolution23"
  param {
    lr_mult: 0
    decay_mult: 0
  }
  param {
    lr_mult: 0
    decay_mult: 0
  }
  param {
    lr_mult: 0
    decay_mult: 0
  }
}
layer {
  name: "Scale23"
  type: "Scale"
  bottom: "Convolution23"
  top: "Convolution23"
  scale_param {
    bias_term: true
  }
}
layer {
  name: "penlu22"
  type: "PENLU"
  bottom: "Convolution23"
  top: "Convolution23"
  param {
    lr_mult: 1
    decay_mult: 0
  }
  param {
    lr_mult: 1
    decay_mult: 0
  }
  param {
    lr_mult: 1
    decay_mult: 0
  }
  penlu_param {
    alpha_filler {
      type: "constant"
      value: 1
    }
    beta_filler {
      type: "constant"
      value: 1
    }
    eta_filler {
      type: "constant"
      value: 1
    }
  }
}
layer {
  name: "Convolution24"
  type: "Convolution"
  bottom: "Convolution23"
  top: "Convolution24"
  param {
    lr_mult: 1
    decay_mult: 1
  }
  param {
    lr_mult: 2
    decay_mult: 0
  }
  convolution_param {
    num_output: 32
    pad: 1
    kernel_size: 3
    stride: 1
    weight_filler {
      type: "gaussian"
      std
I0925 16:13:17.103561  3006 layer_factory.hpp:77] Creating layer Data1
I0925 16:13:17.103636  3006 db_lmdb.cpp:35] Opened lmdb /home/x306/caffe/xn/PENLU/data/cifar10/cifar10_train_lmdb
I0925 16:13:17.103654  3006 net.cpp:84] Creating Layer Data1
I0925 16:13:17.103660  3006 net.cpp:380] Data1 -> Data1
I0925 16:13:17.103675  3006 net.cpp:380] Data1 -> Data2
I0925 16:13:17.103683  3006 data_transformer.cpp:25] Loading mean file from: /home/x306/caffe/xn/PENLU/data/cifar10/mean.binaryproto
I0925 16:13:17.105108  3006 data_layer.cpp:45] output data size: 100,3,28,28
I0925 16:13:17.107386  3006 net.cpp:122] Setting up Data1
I0925 16:13:17.107399  3006 net.cpp:129] Top shape: 100 3 28 28 (235200)
I0925 16:13:17.107403  3006 net.cpp:129] Top shape: 100 (100)
I0925 16:13:17.107406  3006 net.cpp:137] Memory required for data: 941200
I0925 16:13:17.107412  3006 layer_factory.hpp:77] Creating layer Convolution1
I0925 16:13:17.107429  3006 net.cpp:84] Creating Layer Convolution1
I0925 16:13:17.107434  3006 net.cpp:406] Convolution1 <- Data1
I0925 16:13:17.107441  3006 net.cpp:380] Convolution1 -> Convolution1
I0925 16:13:17.254336  3006 net.cpp:122] Setting up Convolution1
I0925 16:13:17.254361  3006 net.cpp:129] Top shape: 100 16 28 28 (1254400)
I0925 16:13:17.254365  3006 net.cpp:137] Memory required for data: 5958800
I0925 16:13:17.254379  3006 layer_factory.hpp:77] Creating layer BatchNorm1
I0925 16:13:17.254402  3006 net.cpp:84] Creating Layer BatchNorm1
I0925 16:13:17.254406  3006 net.cpp:406] BatchNorm1 <- Convolution1
I0925 16:13:17.254426  3006 net.cpp:367] BatchNorm1 -> Convolution1 (in-place)
I0925 16:13:17.254564  3006 net.cpp:122] Setting up BatchNorm1
I0925 16:13:17.254570  3006 net.cpp:129] Top shape: 100 16 28 28 (1254400)
I0925 16:13:17.254571  3006 net.cpp:137] Memory required for data: 10976400
I0925 16:13:17.254580  3006 layer_factory.hpp:77] Creating layer Scale1
I0925 16:13:17.254590  3006 net.cpp:84] Creating Layer Scale1
I0925 16:13:17.254606  3006 net.cpp:406] Scale1 <- Convolution1
I0925 16:13:17.254609  3006 net.cpp:367] Scale1 -> Convolution1 (in-place)
I0925 16:13:17.254675  3006 layer_factory.hpp:77] Creating layer Scale1
I0925 16:13:17.254786  3006 net.cpp:122] Setting up Scale1
I0925 16:13:17.254791  3006 net.cpp:129] Top shape: 100 16 28 28 (1254400)
I0925 16:13:17.254793  3006 net.cpp:137] Memory required for data: 15994000
I0925 16:13:17.254797  3006 layer_factory.hpp:77] Creating layer penlu1
I0925 16:13:17.254806  3006 net.cpp:84] Creating Layer penlu1
I0925 16:13:17.254808  3006 net.cpp:406] penlu1 <- Convolution1
I0925 16:13:17.254822  3006 net.cpp:367] penlu1 -> Convolution1 (in-place)
I0925 16:13:17.255448  3006 net.cpp:122] Setting up penlu1
I0925 16:13:17.255458  3006 net.cpp:129] Top shape: 100 16 28 28 (1254400)
I0925 16:13:17.255461  3006 net.cpp:137] Memory required for data: 21011600
I0925 16:13:17.255467  3006 layer_factory.hpp:77] Creating layer Convolution1_penlu1_0_split
I0925 16:13:17.255473  3006 net.cpp:84] Creating Layer Convolution1_penlu1_0_split
I0925 16:13:17.255476  3006 net.cpp:406] Convolution1_penlu1_0_split <- Convolution1
I0925 16:13:17.255492  3006 net.cpp:380] Convolution1_penlu1_0_split -> Convolution1_penlu1_0_split_0
I0925 16:13:17.255501  3006 net.cpp:380] Convolution1_penlu1_0_split -> Convolution1_penlu1_0_split_1
I0925 16:13:17.255553  3006 net.cpp:122] Setting up Convolution1_penlu1_0_split
I0925 16:13:17.255568  3006 net.cpp:129] Top shape: 100 16 28 28 (1254400)
I0925 16:13:17.255571  3006 net.cpp:129] Top shape: 100 16 28 28 (1254400)
I0925 16:13:17.255573  3006 net.cpp:137] Memory required for data: 31046800
I0925 16:13:17.255575  3006 layer_factory.hpp:77] Creating layer Convolution2
I0925 16:13:17.255583  3006 net.cpp:84] Creating Layer Convolution2
I0925 16:13:17.255585  3006 net.cpp:406] Convolution2 <- Convolution1_penlu1_0_split_0
I0925 16:13:17.255599  3006 net.cpp:380] Convolution2 -> Convolution2
I0925 16:13:17.256450  3006 net.cpp:122] Setting up Convolution2
I0925 16:13:17.256460  3006 net.cpp:129] Top shape: 100 16 28 28 (1254400)
I0925 16:13:17.256464  3006 net.cpp:137] Memory required for data: 36064400
I0925 16:13:17.256469  3006 layer_factory.hpp:77] Creating layer BatchNorm2
I0925 16:13:17.256474  3006 net.cpp:84] Creating Layer BatchNorm2
I0925 16:13:17.256475  3006 net.cpp:406] BatchNorm2 <- Convolution2
I0925 16:13:17.256489  3006 net.cpp:367] BatchNorm2 -> Convolution2 (in-place)
I0925 16:13:17.256645  3006 net.cpp:122] Setting up BatchNorm2
I0925 16:13:17.256652  3006 net.cpp:129] Top shape: 100 16 28 28 (1254400)
I0925 16:13:17.256654  3006 net.cpp:137] Memory required for data: 41082000
I0925 16:13:17.256659  3006 layer_factory.hpp:77] Creating layer Scale2
I0925 16:13:17.256665  3006 net.cpp:84] Creating Layer Scale2
I0925 16:13:17.256667  3006 net.cpp:406] Scale2 <- Convolution2
I0925 16:13:17.256681  3006 net.cpp:367] Scale2 -> Convolution2 (in-place)
I0925 16:13:17.256731  3006 layer_factory.hpp:77] Creating layer Scale2
I0925 16:13:17.256855  3006 net.cpp:122] Setting up Scale2
I0925 16:13:17.256861  3006 net.cpp:129] Top shape: 100 16 28 28 (1254400)
I0925 16:13:17.256873  3006 net.cpp:137] Memory required for data: 46099600
I0925 16:13:17.256880  3006 layer_factory.hpp:77] Creating layer penlu2
I0925 16:13:17.256893  3006 net.cpp:84] Creating Layer penlu2
I0925 16:13:17.256896  3006 net.cpp:406] penlu2 <- Convolution2
I0925 16:13:17.256899  3006 net.cpp:367] penlu2 -> Convolution2 (in-place)
I0925 16:13:17.257027  3006 net.cpp:122] Setting up penlu2
I0925 16:13:17.257032  3006 net.cpp:129] Top shape: 100 16 28 28 (1254400)
I0925 16:13:17.257041  3006 net.cpp:137] Memory required for data: 51117200
I0925 16:13:17.257046  3006 layer_factory.hpp:77] Creating layer Convolution3
I0925 16:13:17.257063  3006 net.cpp:84] Creating Layer Convolution3
I0925 16:13:17.257066  3006 net.cpp:406] Convolution3 <- Convolution2
I0925 16:13:17.257072  3006 net.cpp:380] Convolution3 -> Convolution3
I0925 16:13:17.257936  3006 net.cpp:122] Setting up Convolution3
I0925 16:13:17.257946  3006 net.cpp:129] Top shape: 100 16 28 28 (1254400)
I0925 16:13:17.257948  3006 net.cpp:137] Memory required for data: 56134800
I0925 16:13:17.257953  3006 layer_factory.hpp:77] Creating layer BatchNorm3
I0925 16:13:17.257959  3006 net.cpp:84] Creating Layer BatchNorm3
I0925 16:13:17.257963  3006 net.cpp:406] BatchNorm3 <- Convolution3
I0925 16:13:17.257971  3006 net.cpp:367] BatchNorm3 -> Convolution3 (in-place)
I0925 16:13:17.258111  3006 net.cpp:122] Setting up BatchNorm3
I0925 16:13:17.258117  3006 net.cpp:129] Top shape: 100 16 28 28 (1254400)
I0925 16:13:17.258119  3006 net.cpp:137] Memory required for data: 61152400
I0925 16:13:17.258124  3006 layer_factory.hpp:77] Creating layer Scale3
I0925 16:13:17.258128  3006 net.cpp:84] Creating Layer Scale3
I0925 16:13:17.258131  3006 net.cpp:406] Scale3 <- Convolution3
I0925 16:13:17.258134  3006 net.cpp:367] Scale3 -> Convolution3 (in-place)
I0925 16:13:17.258179  3006 layer_factory.hpp:77] Creating layer Scale3
I0925 16:13:17.258272  3006 net.cpp:122] Setting up Scale3
I0925 16:13:17.258277  3006 net.cpp:129] Top shape: 100 16 28 28 (1254400)
I0925 16:13:17.258280  3006 net.cpp:137] Memory required for data: 66170000
I0925 16:13:17.258283  3006 layer_factory.hpp:77] Creating layer Eltwise1
I0925 16:13:17.258289  3006 net.cpp:84] Creating Layer Eltwise1
I0925 16:13:17.258292  3006 net.cpp:406] Eltwise1 <- Convolution1_penlu1_0_split_1
I0925 16:13:17.258296  3006 net.cpp:406] Eltwise1 <- Convolution3
I0925 16:13:17.258309  3006 net.cpp:380] Eltwise1 -> Eltwise1
I0925 16:13:17.258337  3006 net.cpp:122] Setting up Eltwise1
I0925 16:13:17.258340  3006 net.cpp:129] Top shape: 100 16 28 28 (1254400)
I0925 16:13:17.258342  3006 net.cpp:137] Memory required for data: 71187600
I0925 16:13:17.258344  3006 layer_factory.hpp:77] Creating layer penlu3
I0925 16:13:17.258350  3006 net.cpp:84] Creating Layer penlu3
I0925 16:13:17.258353  3006 net.cpp:406] penlu3 <- Eltwise1
I0925 16:13:17.258357  3006 net.cpp:367] penlu3 -> Eltwise1 (in-place)
I0925 16:13:17.258471  3006 net.cpp:122] Setting up penlu3
I0925 16:13:17.258476  3006 net.cpp:129] Top shape: 100 16 28 28 (1254400)
I0925 16:13:17.258478  3006 net.cpp:137] Memory required for data: 76205200
I0925 16:13:17.258483  3006 layer_factory.hpp:77] Creating layer Eltwise1_penlu3_0_split
I0925 16:13:17.258486  3006 net.cpp:84] Creating Layer Eltwise1_penlu3_0_split
I0925 16:13:17.258488  3006 net.cpp:406] Eltwise1_penlu3_0_split <- Eltwise1
I0925 16:13:17.258492  3006 net.cpp:380] Eltwise1_penlu3_0_split -> Eltwise1_penlu3_0_split_0
I0925 16:13:17.258507  3006 net.cpp:380] Eltwise1_penlu3_0_split -> Eltwise1_penlu3_0_split_1
I0925 16:13:17.258540  3006 net.cpp:122] Setting up Eltwise1_penlu3_0_split
I0925 16:13:17.258545  3006 net.cpp:129] Top shape: 100 16 28 28 (1254400)
I0925 16:13:17.258548  3006 net.cpp:129] Top shape: 100 16 28 28 (1254400)
I0925 16:13:17.258550  3006 net.cpp:137] Memory required for data: 86240400
I0925 16:13:17.258553  3006 layer_factory.hpp:77] Creating layer Convolution4
I0925 16:13:17.258559  3006 net.cpp:84] Creating Layer Convolution4
I0925 16:13:17.258563  3006 net.cpp:406] Convolution4 <- Eltwise1_penlu3_0_split_0
I0925 16:13:17.258569  3006 net.cpp:380] Convolution4 -> Convolution4
I0925 16:13:17.259402  3006 net.cpp:122] Setting up Convolution4
I0925 16:13:17.259413  3006 net.cpp:129] Top shape: 100 16 28 28 (1254400)
I0925 16:13:17.259416  3006 net.cpp:137] Memory required for data: 91258000
I0925 16:13:17.259420  3006 layer_factory.hpp:77] Creating layer BatchNorm4
I0925 16:13:17.259425  3006 net.cpp:84] Creating Layer BatchNorm4
I0925 16:13:17.259436  3006 net.cpp:406] BatchNorm4 <- Convolution4
I0925 16:13:17.259443  3006 net.cpp:367] BatchNorm4 -> Convolution4 (in-place)
I0925 16:13:17.259559  3006 net.cpp:122] Setting up BatchNorm4
I0925 16:13:17.259564  3006 net.cpp:129] Top shape: 100 16 28 28 (1254400)
I0925 16:13:17.259567  3006 net.cpp:137] Memory required for data: 96275600
I0925 16:13:17.259574  3006 layer_factory.hpp:77] Creating layer Scale4
I0925 16:13:17.259579  3006 net.cpp:84] Creating Layer Scale4
I0925 16:13:17.259583  3006 net.cpp:406] Scale4 <- Convolution4
I0925 16:13:17.259588  3006 net.cpp:367] Scale4 -> Convolution4 (in-place)
I0925 16:13:17.259614  3006 layer_factory.hpp:77] Creating layer Scale4
I0925 16:13:17.259685  3006 net.cpp:122] Setting up Scale4
I0925 16:13:17.259690  3006 net.cpp:129] Top shape: 100 16 28 28 (1254400)
I0925 16:13:17.259692  3006 net.cpp:137] Memory required for data: 101293200
I0925 16:13:17.259696  3006 layer_factory.hpp:77] Creating layer penlu4
I0925 16:13:17.259701  3006 net.cpp:84] Creating Layer penlu4
I0925 16:13:17.259706  3006 net.cpp:406] penlu4 <- Convolution4
I0925 16:13:17.259709  3006 net.cpp:367] penlu4 -> Convolution4 (in-place)
I0925 16:13:17.259804  3006 net.cpp:122] Setting up penlu4
I0925 16:13:17.259809  3006 net.cpp:129] Top shape: 100 16 28 28 (1254400)
I0925 16:13:17.259811  3006 net.cpp:137] Memory required for data: 106310800
I0925 16:13:17.259815  3006 layer_factory.hpp:77] Creating layer Convolution5
I0925 16:13:17.259824  3006 net.cpp:84] Creating Layer Convolution5
I0925 16:13:17.259827  3006 net.cpp:406] Convolution5 <- Convolution4
I0925 16:13:17.259831  3006 net.cpp:380] Convolution5 -> Convolution5
I0925 16:13:17.260661  3006 net.cpp:122] Setting up Convolution5
I0925 16:13:17.260673  3006 net.cpp:129] Top shape: 100 16 28 28 (1254400)
I0925 16:13:17.260675  3006 net.cpp:137] Memory required for data: 111328400
I0925 16:13:17.260679  3006 layer_factory.hpp:77] Creating layer BatchNorm5
I0925 16:13:17.260685  3006 net.cpp:84] Creating Layer BatchNorm5
I0925 16:13:17.260690  3006 net.cpp:406] BatchNorm5 <- Convolution5
I0925 16:13:17.260694  3006 net.cpp:367] BatchNorm5 -> Convolution5 (in-place)
I0925 16:13:17.260813  3006 net.cpp:122] Setting up BatchNorm5
I0925 16:13:17.260819  3006 net.cpp:129] Top shape: 100 16 28 28 (1254400)
I0925 16:13:17.260821  3006 net.cpp:137] Memory required for data: 116346000
I0925 16:13:17.260826  3006 layer_factory.hpp:77] Creating layer Scale5
I0925 16:13:17.260831  3006 net.cpp:84] Creating Layer Scale5
I0925 16:13:17.260835  3006 net.cpp:406] Scale5 <- Convolution5
I0925 16:13:17.260840  3006 net.cpp:367] Scale5 -> Convolution5 (in-place)
I0925 16:13:17.260867  3006 layer_factory.hpp:77] Creating layer Scale5
I0925 16:13:17.260941  3006 net.cpp:122] Setting up Scale5
I0925 16:13:17.260946  3006 net.cpp:129] Top shape: 100 16 28 28 (1254400)
I0925 16:13:17.260947  3006 net.cpp:137] Memory required for data: 121363600
I0925 16:13:17.260951  3006 layer_factory.hpp:77] Creating layer Eltwise2
I0925 16:13:17.260956  3006 net.cpp:84] Creating Layer Eltwise2
I0925 16:13:17.260960  3006 net.cpp:406] Eltwise2 <- Eltwise1_penlu3_0_split_1
I0925 16:13:17.260964  3006 net.cpp:406] Eltwise2 <- Convolution5
I0925 16:13:17.260969  3006 net.cpp:380] Eltwise2 -> Eltwise2
I0925 16:13:17.260985  3006 net.cpp:122] Setting up Eltwise2
I0925 16:13:17.260990  3006 net.cpp:129] Top shape: 100 16 28 28 (1254400)
I0925 16:13:17.260994  3006 net.cpp:137] Memory required for data: 126381200
I0925 16:13:17.260998  3006 layer_factory.hpp:77] Creating layer penlu5
I0925 16:13:17.261005  3006 net.cpp:84] Creating Layer penlu5
I0925 16:13:17.261008  3006 net.cpp:406] penlu5 <- Eltwise2
I0925 16:13:17.261013  3006 net.cpp:367] penlu5 -> Eltwise2 (in-place)
I0925 16:13:17.261112  3006 net.cpp:122] Setting up penlu5
I0925 16:13:17.261117  3006 net.cpp:129] Top shape: 100 16 28 28 (1254400)
I0925 16:13:17.261121  3006 net.cpp:137] Memory required for data: 131398800
I0925 16:13:17.261128  3006 layer_factory.hpp:77] Creating layer Eltwise2_penlu5_0_split
I0925 16:13:17.261133  3006 net.cpp:84] Creating Layer Eltwise2_penlu5_0_split
I0925 16:13:17.261143  3006 net.cpp:406] Eltwise2_penlu5_0_split <- Eltwise2
I0925 16:13:17.261149  3006 net.cpp:380] Eltwise2_penlu5_0_split -> Eltwise2_penlu5_0_split_0
I0925 16:13:17.261157  3006 net.cpp:380] Eltwise2_penlu5_0_split -> Eltwise2_penlu5_0_split_1
I0925 16:13:17.261180  3006 net.cpp:122] Setting up Eltwise2_penlu5_0_split
I0925 16:13:17.261185  3006 net.cpp:129] Top shape: 100 16 28 28 (1254400)
I0925 16:13:17.261190  3006 net.cpp:129] Top shape: 100 16 28 28 (1254400)
I0925 16:13:17.261194  3006 net.cpp:137] Memory required for data: 141434000
I0925 16:13:17.261198  3006 layer_factory.hpp:77] Creating layer Convolution6
I0925 16:13:17.261206  3006 net.cpp:84] Creating Layer Convolution6
I0925 16:13:17.261210  3006 net.cpp:406] Convolution6 <- Eltwise2_penlu5_0_split_0
I0925 16:13:17.261215  3006 net.cpp:380] Convolution6 -> Convolution6
I0925 16:13:17.262042  3006 net.cpp:122] Setting up Convolution6
I0925 16:13:17.262053  3006 net.cpp:129] Top shape: 100 16 28 28 (1254400)
I0925 16:13:17.262058  3006 net.cpp:137] Memory required for data: 146451600
I0925 16:13:17.262064  3006 layer_factory.hpp:77] Creating layer BatchNorm6
I0925 16:13:17.262071  3006 net.cpp:84] Creating Layer BatchNorm6
I0925 16:13:17.262074  3006 net.cpp:406] BatchNorm6 <- Convolution6
I0925 16:13:17.262081  3006 net.cpp:367] BatchNorm6 -> Convolution6 (in-place)
I0925 16:13:17.262202  3006 net.cpp:122] Setting up BatchNorm6
I0925 16:13:17.262208  3006 net.cpp:129] Top shape: 100 16 28 28 (1254400)
I0925 16:13:17.262212  3006 net.cpp:137] Memory required for data: 151469200
I0925 16:13:17.262219  3006 layer_factory.hpp:77] Creating layer Scale6
I0925 16:13:17.262224  3006 net.cpp:84] Creating Layer Scale6
I0925 16:13:17.262228  3006 net.cpp:406] Scale6 <- Convolution6
I0925 16:13:17.262233  3006 net.cpp:367] Scale6 -> Convolution6 (in-place)
I0925 16:13:17.262260  3006 layer_factory.hpp:77] Creating layer Scale6
I0925 16:13:17.262332  3006 net.cpp:122] Setting up Scale6
I0925 16:13:17.262338  3006 net.cpp:129] Top shape: 100 16 28 28 (1254400)
I0925 16:13:17.262342  3006 net.cpp:137] Memory required for data: 156486800
I0925 16:13:17.262348  3006 layer_factory.hpp:77] Creating layer penlu6
I0925 16:13:17.262356  3006 net.cpp:84] Creating Layer penlu6
I0925 16:13:17.262358  3006 net.cpp:406] penlu6 <- Convolution6
I0925 16:13:17.262363  3006 net.cpp:367] penlu6 -> Convolution6 (in-place)
I0925 16:13:17.262462  3006 net.cpp:122] Setting up penlu6
I0925 16:13:17.262467  3006 net.cpp:129] Top shape: 100 16 28 28 (1254400)
I0925 16:13:17.262472  3006 net.cpp:137] Memory required for data: 161504400
I0925 16:13:17.262480  3006 layer_factory.hpp:77] Creating layer Convolution7
I0925 16:13:17.262487  3006 net.cpp:84] Creating Layer Convolution7
I0925 16:13:17.262490  3006 net.cpp:406] Convolution7 <- Convolution6
I0925 16:13:17.262496  3006 net.cpp:380] Convolution7 -> Convolution7
I0925 16:13:17.263003  3006 net.cpp:122] Setting up Convolution7
I0925 16:13:17.263013  3006 net.cpp:129] Top shape: 100 16 28 28 (1254400)
I0925 16:13:17.263017  3006 net.cpp:137] Memory required for data: 166522000
I0925 16:13:17.263025  3006 layer_factory.hpp:77] Creating layer BatchNorm7
I0925 16:13:17.263031  3006 net.cpp:84] Creating Layer BatchNorm7
I0925 16:13:17.263034  3006 net.cpp:406] BatchNorm7 <- Convolution7
I0925 16:13:17.263041  3006 net.cpp:367] BatchNorm7 -> Convolution7 (in-place)
I0925 16:13:17.263160  3006 net.cpp:122] Setting up BatchNorm7
I0925 16:13:17.263165  3006 net.cpp:129] Top shape: 100 16 28 28 (1254400)
I0925 16:13:17.263170  3006 net.cpp:137] Memory required for data: 171539600
I0925 16:13:17.263181  3006 layer_factory.hpp:77] Creating layer Scale7
I0925 16:13:17.263188  3006 net.cpp:84] Creating Layer Scale7
I0925 16:13:17.263192  3006 net.cpp:406] Scale7 <- Convolution7
I0925 16:13:17.263197  3006 net.cpp:367] Scale7 -> Convolution7 (in-place)
I0925 16:13:17.263224  3006 layer_factory.hpp:77] Creating layer Scale7
I0925 16:13:17.263295  3006 net.cpp:122] Setting up Scale7
I0925 16:13:17.263309  3006 net.cpp:129] Top shape: 100 16 28 28 (1254400)
I0925 16:13:17.263312  3006 net.cpp:137] Memory required for data: 176557200
I0925 16:13:17.263319  3006 layer_factory.hpp:77] Creating layer Eltwise3
I0925 16:13:17.263324  3006 net.cpp:84] Creating Layer Eltwise3
I0925 16:13:17.263327  3006 net.cpp:406] Eltwise3 <- Eltwise2_penlu5_0_split_1
I0925 16:13:17.263332  3006 net.cpp:406] Eltwise3 <- Convolution7
I0925 16:13:17.263339  3006 net.cpp:380] Eltwise3 -> Eltwise3
I0925 16:13:17.263355  3006 net.cpp:122] Setting up Eltwise3
I0925 16:13:17.263361  3006 net.cpp:129] Top shape: 100 16 28 28 (1254400)
I0925 16:13:17.263365  3006 net.cpp:137] Memory required for data: 181574800
I0925 16:13:17.263368  3006 layer_factory.hpp:77] Creating layer penlu7
I0925 16:13:17.263375  3006 net.cpp:84] Creating Layer penlu7
I0925 16:13:17.263380  3006 net.cpp:406] penlu7 <- Eltwise3
I0925 16:13:17.263384  3006 net.cpp:367] penlu7 -> Eltwise3 (in-place)
I0925 16:13:17.263484  3006 net.cpp:122] Setting up penlu7
I0925 16:13:17.263489  3006 net.cpp:129] Top shape: 100 16 28 28 (1254400)
I0925 16:13:17.263494  3006 net.cpp:137] Memory required for data: 186592400
I0925 16:13:17.263500  3006 layer_factory.hpp:77] Creating layer Eltwise3_penlu7_0_split
I0925 16:13:17.263505  3006 net.cpp:84] Creating Layer Eltwise3_penlu7_0_split
I0925 16:13:17.263509  3006 net.cpp:406] Eltwise3_penlu7_0_split <- Eltwise3
I0925 16:13:17.263515  3006 net.cpp:380] Eltwise3_penlu7_0_split -> Eltwise3_penlu7_0_split_0
I0925 16:13:17.263521  3006 net.cpp:380] Eltwise3_penlu7_0_split -> Eltwise3_penlu7_0_split_1
I0925 16:13:17.263545  3006 net.cpp:122] Setting up Eltwise3_penlu7_0_split
I0925 16:13:17.263550  3006 net.cpp:129] Top shape: 100 16 28 28 (1254400)
I0925 16:13:17.263555  3006 net.cpp:129] Top shape: 100 16 28 28 (1254400)
I0925 16:13:17.263558  3006 net.cpp:137] Memory required for data: 196627600
I0925 16:13:17.263562  3006 layer_factory.hpp:77] Creating layer Convolution8
I0925 16:13:17.263571  3006 net.cpp:84] Creating Layer Convolution8
I0925 16:13:17.263573  3006 net.cpp:406] Convolution8 <- Eltwise3_penlu7_0_split_0
I0925 16:13:17.263581  3006 net.cpp:380] Convolution8 -> Convolution8
I0925 16:13:17.264397  3006 net.cpp:122] Setting up Convolution8
I0925 16:13:17.264408  3006 net.cpp:129] Top shape: 100 16 28 28 (1254400)
I0925 16:13:17.264413  3006 net.cpp:137] Memory required for data: 201645200
I0925 16:13:17.264420  3006 layer_factory.hpp:77] Creating layer BatchNorm8
I0925 16:13:17.264426  3006 net.cpp:84] Creating Layer BatchNorm8
I0925 16:13:17.264430  3006 net.cpp:406] BatchNorm8 <- Convolution8
I0925 16:13:17.264436  3006 net.cpp:367] BatchNorm8 -> Convolution8 (in-place)
I0925 16:13:17.264565  3006 net.cpp:122] Setting up BatchNorm8
I0925 16:13:17.264572  3006 net.cpp:129] Top shape: 100 16 28 28 (1254400)
I0925 16:13:17.264576  3006 net.cpp:137] Memory required for data: 206662800
I0925 16:13:17.264583  3006 layer_factory.hpp:77] Creating layer Scale8
I0925 16:13:17.264588  3006 net.cpp:84] Creating Layer Scale8
I0925 16:13:17.264593  3006 net.cpp:406] Scale8 <- Convolution8
I0925 16:13:17.264598  3006 net.cpp:367] Scale8 -> Convolution8 (in-place)
I0925 16:13:17.264626  3006 layer_factory.hpp:77] Creating layer Scale8
I0925 16:13:17.264698  3006 net.cpp:122] Setting up Scale8
I0925 16:13:17.264703  3006 net.cpp:129] Top shape: 100 16 28 28 (1254400)
I0925 16:13:17.264708  3006 net.cpp:137] Memory required for data: 211680400
I0925 16:13:17.264714  3006 layer_factory.hpp:77] Creating layer penlu8
I0925 16:13:17.264720  3006 net.cpp:84] Creating Layer penlu8
I0925 16:13:17.264724  3006 net.cpp:406] penlu8 <- Convolution8
I0925 16:13:17.264729  3006 net.cpp:367] penlu8 -> Convolution8 (in-place)
I0925 16:13:17.264825  3006 net.cpp:122] Setting up penlu8
I0925 16:13:17.264832  3006 net.cpp:129] Top shape: 100 16 28 28 (1254400)
I0925 16:13:17.264835  3006 net.cpp:137] Memory required for data: 216698000
I0925 16:13:17.264842  3006 layer_factory.hpp:77] Creating layer Convolution9
I0925 16:13:17.264852  3006 net.cpp:84] Creating Layer Convolution9
I0925 16:13:17.264860  3006 net.cpp:406] Convolution9 <- Convolution8
I0925 16:13:17.264868  3006 net.cpp:380] Convolution9 -> Convolution9
I0925 16:13:17.265714  3006 net.cpp:122] Setting up Convolution9
I0925 16:13:17.265727  3006 net.cpp:129] Top shape: 100 16 28 28 (1254400)
I0925 16:13:17.265732  3006 net.cpp:137] Memory required for data: 221715600
I0925 16:13:17.265746  3006 layer_factory.hpp:77] Creating layer BatchNorm9
I0925 16:13:17.265753  3006 net.cpp:84] Creating Layer BatchNorm9
I0925 16:13:17.265758  3006 net.cpp:406] BatchNorm9 <- Convolution9
I0925 16:13:17.265763  3006 net.cpp:367] BatchNorm9 -> Convolution9 (in-place)
I0925 16:13:17.265895  3006 net.cpp:122] Setting up BatchNorm9
I0925 16:13:17.265902  3006 net.cpp:129] Top shape: 100 16 28 28 (1254400)
I0925 16:13:17.265904  3006 net.cpp:137] Memory required for data: 226733200
I0925 16:13:17.265913  3006 layer_factory.hpp:77] Creating layer Scale9
I0925 16:13:17.265918  3006 net.cpp:84] Creating Layer Scale9
I0925 16:13:17.265923  3006 net.cpp:406] Scale9 <- Convolution9
I0925 16:13:17.265928  3006 net.cpp:367] Scale9 -> Convolution9 (in-place)
I0925 16:13:17.265956  3006 layer_factory.hpp:77] Creating layer Scale9
I0925 16:13:17.266043  3006 net.cpp:122] Setting up Scale9
I0925 16:13:17.266049  3006 net.cpp:129] Top shape: 100 16 28 28 (1254400)
I0925 16:13:17.266053  3006 net.cpp:137] Memory required for data: 231750800
I0925 16:13:17.266059  3006 layer_factory.hpp:77] Creating layer Eltwise4
I0925 16:13:17.266065  3006 net.cpp:84] Creating Layer Eltwise4
I0925 16:13:17.266069  3006 net.cpp:406] Eltwise4 <- Eltwise3_penlu7_0_split_1
I0925 16:13:17.266074  3006 net.cpp:406] Eltwise4 <- Convolution9
I0925 16:13:17.266080  3006 net.cpp:380] Eltwise4 -> Eltwise4
I0925 16:13:17.266098  3006 net.cpp:122] Setting up Eltwise4
I0925 16:13:17.266104  3006 net.cpp:129] Top shape: 100 16 28 28 (1254400)
I0925 16:13:17.266108  3006 net.cpp:137] Memory required for data: 236768400
I0925 16:13:17.266111  3006 layer_factory.hpp:77] Creating layer penlu9
I0925 16:13:17.266119  3006 net.cpp:84] Creating Layer penlu9
I0925 16:13:17.266121  3006 net.cpp:406] penlu9 <- Eltwise4
I0925 16:13:17.266126  3006 net.cpp:367] penlu9 -> Eltwise4 (in-place)
I0925 16:13:17.266260  3006 net.cpp:122] Setting up penlu9
I0925 16:13:17.266269  3006 net.cpp:129] Top shape: 100 16 28 28 (1254400)
I0925 16:13:17.266273  3006 net.cpp:137] Memory required for data: 241786000
I0925 16:13:17.266281  3006 layer_factory.hpp:77] Creating layer Eltwise4_penlu9_0_split
I0925 16:13:17.266288  3006 net.cpp:84] Creating Layer Eltwise4_penlu9_0_split
I0925 16:13:17.266294  3006 net.cpp:406] Eltwise4_penlu9_0_split <- Eltwise4
I0925 16:13:17.266301  3006 net.cpp:380] Eltwise4_penlu9_0_split -> Eltwise4_penlu9_0_split_0
I0925 16:13:17.266309  3006 net.cpp:380] Eltwise4_penlu9_0_split -> Eltwise4_penlu9_0_split_1
I0925 16:13:17.266364  3006 net.cpp:122] Setting up Eltwise4_penlu9_0_split
I0925 16:13:17.266371  3006 net.cpp:129] Top shape: 100 16 28 28 (1254400)
I0925 16:13:17.266374  3006 net.cpp:129] Top shape: 100 16 28 28 (1254400)
I0925 16:13:17.266376  3006 net.cpp:137] Memory required for data: 251821200
I0925 16:13:17.266379  3006 layer_factory.hpp:77] Creating layer Convolution10
I0925 16:13:17.266386  3006 net.cpp:84] Creating Layer Convolution10
I0925 16:13:17.266389  3006 net.cpp:406] Convolution10 <- Eltwise4_penlu9_0_split_0
I0925 16:13:17.266394  3006 net.cpp:380] Convolution10 -> Convolution10
I0925 16:13:17.267248  3006 net.cpp:122] Setting up Convolution10
I0925 16:13:17.267259  3006 net.cpp:129] Top shape: 100 16 28 28 (1254400)
I0925 16:13:17.267262  3006 net.cpp:137] Memory required for data: 256838800
I0925 16:13:17.267267  3006 layer_factory.hpp:77] Creating layer BatchNorm10
I0925 16:13:17.267273  3006 net.cpp:84] Creating Layer BatchNorm10
I0925 16:13:17.267277  3006 net.cpp:406] BatchNorm10 <- Convolution10
I0925 16:13:17.267280  3006 net.cpp:367] BatchNorm10 -> Convolution10 (in-place)
I0925 16:13:17.267400  3006 net.cpp:122] Setting up BatchNorm10
I0925 16:13:17.267412  3006 net.cpp:129] Top shape: 100 16 28 28 (1254400)
I0925 16:13:17.267416  3006 net.cpp:137] Memory required for data: 261856400
I0925 16:13:17.267421  3006 layer_factory.hpp:77] Creating layer Scale10
I0925 16:13:17.267426  3006 net.cpp:84] Creating Layer Scale10
I0925 16:13:17.267428  3006 net.cpp:406] Scale10 <- Convolution10
I0925 16:13:17.267432  3006 net.cpp:367] Scale10 -> Convolution10 (in-place)
I0925 16:13:17.267458  3006 layer_factory.hpp:77] Creating layer Scale10
I0925 16:13:17.267529  3006 net.cpp:122] Setting up Scale10
I0925 16:13:17.267535  3006 net.cpp:129] Top shape: 100 16 28 28 (1254400)
I0925 16:13:17.267549  3006 net.cpp:137] Memory required for data: 266874000
I0925 16:13:17.267552  3006 layer_factory.hpp:77] Creating layer penlu10
I0925 16:13:17.267557  3006 net.cpp:84] Creating Layer penlu10
I0925 16:13:17.267560  3006 net.cpp:406] penlu10 <- Convolution10
I0925 16:13:17.267565  3006 net.cpp:367] penlu10 -> Convolution10 (in-place)
I0925 16:13:17.267676  3006 net.cpp:122] Setting up penlu10
I0925 16:13:17.267681  3006 net.cpp:129] Top shape: 100 16 28 28 (1254400)
I0925 16:13:17.267694  3006 net.cpp:137] Memory required for data: 271891600
I0925 16:13:17.267699  3006 layer_factory.hpp:77] Creating layer Convolution11
I0925 16:13:17.267705  3006 net.cpp:84] Creating Layer Convolution11
I0925 16:13:17.267709  3006 net.cpp:406] Convolution11 <- Convolution10
I0925 16:13:17.267712  3006 net.cpp:380] Convolution11 -> Convolution11
I0925 16:13:17.268617  3006 net.cpp:122] Setting up Convolution11
I0925 16:13:17.268628  3006 net.cpp:129] Top shape: 100 16 28 28 (1254400)
I0925 16:13:17.268641  3006 net.cpp:137] Memory required for data: 276909200
I0925 16:13:17.268646  3006 layer_factory.hpp:77] Creating layer BatchNorm11
I0925 16:13:17.268651  3006 net.cpp:84] Creating Layer BatchNorm11
I0925 16:13:17.268654  3006 net.cpp:406] BatchNorm11 <- Convolution11
I0925 16:13:17.268658  3006 net.cpp:367] BatchNorm11 -> Convolution11 (in-place)
I0925 16:13:17.268790  3006 net.cpp:122] Setting up BatchNorm11
I0925 16:13:17.268795  3006 net.cpp:129] Top shape: 100 16 28 28 (1254400)
I0925 16:13:17.268808  3006 net.cpp:137] Memory required for data: 281926800
I0925 16:13:17.268813  3006 layer_factory.hpp:77] Creating layer Scale11
I0925 16:13:17.268817  3006 net.cpp:84] Creating Layer Scale11
I0925 16:13:17.268820  3006 net.cpp:406] Scale11 <- Convolution11
I0925 16:13:17.268823  3006 net.cpp:367] Scale11 -> Convolution11 (in-place)
I0925 16:13:17.268857  3006 layer_factory.hpp:77] Creating layer Scale11
I0925 16:13:17.268949  3006 net.cpp:122] Setting up Scale11
I0925 16:13:17.268954  3006 net.cpp:129] Top shape: 100 16 28 28 (1254400)
I0925 16:13:17.268967  3006 net.cpp:137] Memory required for data: 286944400
I0925 16:13:17.268971  3006 layer_factory.hpp:77] Creating layer Eltwise5
I0925 16:13:17.268975  3006 net.cpp:84] Creating Layer Eltwise5
I0925 16:13:17.268978  3006 net.cpp:406] Eltwise5 <- Eltwise4_penlu9_0_split_1
I0925 16:13:17.268981  3006 net.cpp:406] Eltwise5 <- Convolution11
I0925 16:13:17.268985  3006 net.cpp:380] Eltwise5 -> Eltwise5
I0925 16:13:17.269001  3006 net.cpp:122] Setting up Eltwise5
I0925 16:13:17.269014  3006 net.cpp:129] Top shape: 100 16 28 28 (1254400)
I0925 16:13:17.269017  3006 net.cpp:137] Memory required for data: 291962000
I0925 16:13:17.269019  3006 layer_factory.hpp:77] Creating layer penlu11
I0925 16:13:17.269034  3006 net.cpp:84] Creating Layer penlu11
I0925 16:13:17.269037  3006 net.cpp:406] penlu11 <- Eltwise5
I0925 16:13:17.269040  3006 net.cpp:367] penlu11 -> Eltwise5 (in-place)
I0925 16:13:17.269152  3006 net.cpp:122] Setting up penlu11
I0925 16:13:17.269157  3006 net.cpp:129] Top shape: 100 16 28 28 (1254400)
I0925 16:13:17.269160  3006 net.cpp:137] Memory required for data: 296979600
I0925 16:13:17.269174  3006 layer_factory.hpp:77] Creating layer Eltwise5_penlu11_0_split
I0925 16:13:17.269178  3006 net.cpp:84] Creating Layer Eltwise5_penlu11_0_split
I0925 16:13:17.269181  3006 net.cpp:406] Eltwise5_penlu11_0_split <- Eltwise5
I0925 16:13:17.269191  3006 net.cpp:380] Eltwise5_penlu11_0_split -> Eltwise5_penlu11_0_split_0
I0925 16:13:17.269196  3006 net.cpp:380] Eltwise5_penlu11_0_split -> Eltwise5_penlu11_0_split_1
I0925 16:13:17.269229  3006 net.cpp:122] Setting up Eltwise5_penlu11_0_split
I0925 16:13:17.269234  3006 net.cpp:129] Top shape: 100 16 28 28 (1254400)
I0925 16:13:17.269248  3006 net.cpp:129] Top shape: 100 16 28 28 (1254400)
I0925 16:13:17.269249  3006 net.cpp:137] Memory required for data: 307014800
I0925 16:13:17.269253  3006 layer_factory.hpp:77] Creating layer Convolution12
I0925 16:13:17.269258  3006 net.cpp:84] Creating Layer Convolution12
I0925 16:13:17.269260  3006 net.cpp:406] Convolution12 <- Eltwise5_penlu11_0_split_0
I0925 16:13:17.269264  3006 net.cpp:380] Convolution12 -> Convolution12
I0925 16:13:17.270115  3006 net.cpp:122] Setting up Convolution12
I0925 16:13:17.270125  3006 net.cpp:129] Top shape: 100 16 28 28 (1254400)
I0925 16:13:17.270138  3006 net.cpp:137] Memory required for data: 312032400
I0925 16:13:17.270143  3006 layer_factory.hpp:77] Creating layer BatchNorm12
I0925 16:13:17.270148  3006 net.cpp:84] Creating Layer BatchNorm12
I0925 16:13:17.270153  3006 net.cpp:406] BatchNorm12 <- Convolution12
I0925 16:13:17.270156  3006 net.cpp:367] BatchNorm12 -> Convolution12 (in-place)
I0925 16:13:17.270287  3006 net.cpp:122] Setting up BatchNorm12
I0925 16:13:17.270292  3006 net.cpp:129] Top shape: 100 16 28 28 (1254400)
I0925 16:13:17.270304  3006 net.cpp:137] Memory required for data: 317050000
I0925 16:13:17.270309  3006 layer_factory.hpp:77] Creating layer Scale12
I0925 16:13:17.270313  3006 net.cpp:84] Creating Layer Scale12
I0925 16:13:17.270318  3006 net.cpp:406] Scale12 <- Convolution12
I0925 16:13:17.270320  3006 net.cpp:367] Scale12 -> Convolution12 (in-place)
I0925 16:13:17.270354  3006 layer_factory.hpp:77] Creating layer Scale12
I0925 16:13:17.270447  3006 net.cpp:122] Setting up Scale12
I0925 16:13:17.270453  3006 net.cpp:129] Top shape: 100 16 28 28 (1254400)
I0925 16:13:17.270465  3006 net.cpp:137] Memory required for data: 322067600
I0925 16:13:17.270469  3006 layer_factory.hpp:77] Creating layer penlu12
I0925 16:13:17.270474  3006 net.cpp:84] Creating Layer penlu12
I0925 16:13:17.270478  3006 net.cpp:406] penlu12 <- Convolution12
I0925 16:13:17.270481  3006 net.cpp:367] penlu12 -> Convolution12 (in-place)
I0925 16:13:17.270592  3006 net.cpp:122] Setting up penlu12
I0925 16:13:17.270597  3006 net.cpp:129] Top shape: 100 16 28 28 (1254400)
I0925 16:13:17.270599  3006 net.cpp:137] Memory required for data: 327085200
I0925 16:13:17.270614  3006 layer_factory.hpp:77] Creating layer Convolution13
I0925 16:13:17.270620  3006 net.cpp:84] Creating Layer Convolution13
I0925 16:13:17.270623  3006 net.cpp:406] Convolution13 <- Convolution12
I0925 16:13:17.270627  3006 net.cpp:380] Convolution13 -> Convolution13
I0925 16:13:17.271476  3006 net.cpp:122] Setting up Convolution13
I0925 16:13:17.271486  3006 net.cpp:129] Top shape: 100 16 28 28 (1254400)
I0925 16:13:17.271499  3006 net.cpp:137] Memory required for data: 332102800
I0925 16:13:17.271504  3006 layer_factory.hpp:77] Creating layer BatchNorm13
I0925 16:13:17.271509  3006 net.cpp:84] Creating Layer BatchNorm13
I0925 16:13:17.271512  3006 net.cpp:406] BatchNorm13 <- Convolution13
I0925 16:13:17.271515  3006 net.cpp:367] BatchNorm13 -> Convolution13 (in-place)
I0925 16:13:17.271648  3006 net.cpp:122] Setting up BatchNorm13
I0925 16:13:17.271654  3006 net.cpp:129] Top shape: 100 16 28 28 (1254400)
I0925 16:13:17.271667  3006 net.cpp:137] Memory required for data: 337120400
I0925 16:13:17.271672  3006 layer_factory.hpp:77] Creating layer Scale13
I0925 16:13:17.271675  3006 net.cpp:84] Creating Layer Scale13
I0925 16:13:17.271678  3006 net.cpp:406] Scale13 <- Convolution13
I0925 16:13:17.271682  3006 net.cpp:367] Scale13 -> Convolution13 (in-place)
I0925 16:13:17.271715  3006 layer_factory.hpp:77] Creating layer Scale13
I0925 16:13:17.271808  3006 net.cpp:122] Setting up Scale13
I0925 16:13:17.271814  3006 net.cpp:129] Top shape: 100 16 28 28 (1254400)
I0925 16:13:17.271832  3006 net.cpp:137] Memory required for data: 342138000
I0925 16:13:17.271837  3006 layer_factory.hpp:77] Creating layer Eltwise6
I0925 16:13:17.271842  3006 net.cpp:84] Creating Layer Eltwise6
I0925 16:13:17.271844  3006 net.cpp:406] Eltwise6 <- Eltwise5_penlu11_0_split_1
I0925 16:13:17.271847  3006 net.cpp:406] Eltwise6 <- Convolution13
I0925 16:13:17.271850  3006 net.cpp:380] Eltwise6 -> Eltwise6
I0925 16:13:17.271880  3006 net.cpp:122] Setting up Eltwise6
I0925 16:13:17.271885  3006 net.cpp:129] Top shape: 100 16 28 28 (1254400)
I0925 16:13:17.271898  3006 net.cpp:137] Memory required for data: 347155600
I0925 16:13:17.271899  3006 layer_factory.hpp:77] Creating layer penlu13
I0925 16:13:17.271908  3006 net.cpp:84] Creating Layer penlu13
I0925 16:13:17.271911  3006 net.cpp:406] penlu13 <- Eltwise6
I0925 16:13:17.271914  3006 net.cpp:367] penlu13 -> Eltwise6 (in-place)
I0925 16:13:17.272028  3006 net.cpp:122] Setting up penlu13
I0925 16:13:17.272033  3006 net.cpp:129] Top shape: 100 16 28 28 (1254400)
I0925 16:13:17.272035  3006 net.cpp:137] Memory required for data: 352173200
I0925 16:13:17.272058  3006 layer_factory.hpp:77] Creating layer Eltwise6_penlu13_0_split
I0925 16:13:17.272063  3006 net.cpp:84] Creating Layer Eltwise6_penlu13_0_split
I0925 16:13:17.272074  3006 net.cpp:406] Eltwise6_penlu13_0_split <- Eltwise6
I0925 16:13:17.272078  3006 net.cpp:380] Eltwise6_penlu13_0_split -> Eltwise6_penlu13_0_split_0
I0925 16:13:17.272091  3006 net.cpp:380] Eltwise6_penlu13_0_split -> Eltwise6_penlu13_0_split_1
I0925 16:13:17.272125  3006 net.cpp:122] Setting up Eltwise6_penlu13_0_split
I0925 16:13:17.272128  3006 net.cpp:129] Top shape: 100 16 28 28 (1254400)
I0925 16:13:17.272141  3006 net.cpp:129] Top shape: 100 16 28 28 (1254400)
I0925 16:13:17.272143  3006 net.cpp:137] Memory required for data: 362208400
I0925 16:13:17.272145  3006 layer_factory.hpp:77] Creating layer Convolution14
I0925 16:13:17.272152  3006 net.cpp:84] Creating Layer Convolution14
I0925 16:13:17.272155  3006 net.cpp:406] Convolution14 <- Eltwise6_penlu13_0_split_0
I0925 16:13:17.272158  3006 net.cpp:380] Convolution14 -> Convolution14
I0925 16:13:17.273032  3006 net.cpp:122] Setting up Convolution14
I0925 16:13:17.273041  3006 net.cpp:129] Top shape: 100 16 28 28 (1254400)
I0925 16:13:17.273044  3006 net.cpp:137] Memory required for data: 367226000
I0925 16:13:17.273048  3006 layer_factory.hpp:77] Creating layer BatchNorm14
I0925 16:13:17.273053  3006 net.cpp:84] Creating Layer BatchNorm14
I0925 16:13:17.273056  3006 net.cpp:406] BatchNorm14 <- Convolution14
I0925 16:13:17.273059  3006 net.cpp:367] BatchNorm14 -> Convolution14 (in-place)
I0925 16:13:17.273183  3006 net.cpp:122] Setting up BatchNorm14
I0925 16:13:17.273188  3006 net.cpp:129] Top shape: 100 16 28 28 (1254400)
I0925 16:13:17.273190  3006 net.cpp:137] Memory required for data: 372243600
I0925 16:13:17.273195  3006 layer_factory.hpp:77] Creating layer Scale14
I0925 16:13:17.273200  3006 net.cpp:84] Creating Layer Scale14
I0925 16:13:17.273201  3006 net.cpp:406] Scale14 <- Convolution14
I0925 16:13:17.273205  3006 net.cpp:367] Scale14 -> Convolution14 (in-place)
I0925 16:13:17.273228  3006 layer_factory.hpp:77] Creating layer Scale14
I0925 16:13:17.273299  3006 net.cpp:122] Setting up Scale14
I0925 16:13:17.273304  3006 net.cpp:129] Top shape: 100 16 28 28 (1254400)
I0925 16:13:17.273306  3006 net.cpp:137] Memory required for data: 377261200
I0925 16:13:17.273310  3006 layer_factory.hpp:77] Creating layer penlu14
I0925 16:13:17.273315  3006 net.cpp:84] Creating Layer penlu14
I0925 16:13:17.273317  3006 net.cpp:406] penlu14 <- Convolution14
I0925 16:13:17.273321  3006 net.cpp:367] penlu14 -> Convolution14 (in-place)
I0925 16:13:17.273422  3006 net.cpp:122] Setting up penlu14
I0925 16:13:17.273427  3006 net.cpp:129] Top shape: 100 16 28 28 (1254400)
I0925 16:13:17.273429  3006 net.cpp:137] Memory required for data: 382278800
I0925 16:13:17.273433  3006 layer_factory.hpp:77] Creating layer Convolution15
I0925 16:13:17.273439  3006 net.cpp:84] Creating Layer Convolution15
I0925 16:13:17.273448  3006 net.cpp:406] Convolution15 <- Convolution14
I0925 16:13:17.273453  3006 net.cpp:380] Convolution15 -> Convolution15
I0925 16:13:17.274291  3006 net.cpp:122] Setting up Convolution15
I0925 16:13:17.274299  3006 net.cpp:129] Top shape: 100 16 28 28 (1254400)
I0925 16:13:17.274302  3006 net.cpp:137] Memory required for data: 387296400
I0925 16:13:17.274307  3006 layer_factory.hpp:77] Creating layer BatchNorm15
I0925 16:13:17.274312  3006 net.cpp:84] Creating Layer BatchNorm15
I0925 16:13:17.274313  3006 net.cpp:406] BatchNorm15 <- Convolution15
I0925 16:13:17.274317  3006 net.cpp:367] BatchNorm15 -> Convolution15 (in-place)
I0925 16:13:17.274437  3006 net.cpp:122] Setting up BatchNorm15
I0925 16:13:17.274442  3006 net.cpp:129] Top shape: 100 16 28 28 (1254400)
I0925 16:13:17.274444  3006 net.cpp:137] Memory required for data: 392314000
I0925 16:13:17.274449  3006 layer_factory.hpp:77] Creating layer Scale15
I0925 16:13:17.274453  3006 net.cpp:84] Creating Layer Scale15
I0925 16:13:17.274456  3006 net.cpp:406] Scale15 <- Convolution15
I0925 16:13:17.274459  3006 net.cpp:367] Scale15 -> Convolution15 (in-place)
I0925 16:13:17.274482  3006 layer_factory.hpp:77] Creating layer Scale15
I0925 16:13:17.274554  3006 net.cpp:122] Setting up Scale15
I0925 16:13:17.274559  3006 net.cpp:129] Top shape: 100 16 28 28 (1254400)
I0925 16:13:17.274560  3006 net.cpp:137] Memory required for data: 397331600
I0925 16:13:17.274564  3006 layer_factory.hpp:77] Creating layer Eltwise7
I0925 16:13:17.274569  3006 net.cpp:84] Creating Layer Eltwise7
I0925 16:13:17.274571  3006 net.cpp:406] Eltwise7 <- Eltwise6_penlu13_0_split_1
I0925 16:13:17.274574  3006 net.cpp:406] Eltwise7 <- Convolution15
I0925 16:13:17.274577  3006 net.cpp:380] Eltwise7 -> Eltwise7
I0925 16:13:17.274591  3006 net.cpp:122] Setting up Eltwise7
I0925 16:13:17.274595  3006 net.cpp:129] Top shape: 100 16 28 28 (1254400)
I0925 16:13:17.274597  3006 net.cpp:137] Memory required for data: 402349200
I0925 16:13:17.274600  3006 layer_factory.hpp:77] Creating layer penlu15
I0925 16:13:17.274605  3006 net.cpp:84] Creating Layer penlu15
I0925 16:13:17.274607  3006 net.cpp:406] penlu15 <- Eltwise7
I0925 16:13:17.274611  3006 net.cpp:367] penlu15 -> Eltwise7 (in-place)
I0925 16:13:17.274711  3006 net.cpp:122] Setting up penlu15
I0925 16:13:17.274715  3006 net.cpp:129] Top shape: 100 16 28 28 (1254400)
I0925 16:13:17.274718  3006 net.cpp:137] Memory required for data: 407366800
I0925 16:13:17.274722  3006 layer_factory.hpp:77] Creating layer Eltwise7_penlu15_0_split
I0925 16:13:17.274725  3006 net.cpp:84] Creating Layer Eltwise7_penlu15_0_split
I0925 16:13:17.274729  3006 net.cpp:406] Eltwise7_penlu15_0_split <- Eltwise7
I0925 16:13:17.274731  3006 net.cpp:380] Eltwise7_penlu15_0_split -> Eltwise7_penlu15_0_split_0
I0925 16:13:17.274735  3006 net.cpp:380] Eltwise7_penlu15_0_split -> Eltwise7_penlu15_0_split_1
I0925 16:13:17.274756  3006 net.cpp:122] Setting up Eltwise7_penlu15_0_split
I0925 16:13:17.274760  3006 net.cpp:129] Top shape: 100 16 28 28 (1254400)
I0925 16:13:17.274763  3006 net.cpp:129] Top shape: 100 16 28 28 (1254400)
I0925 16:13:17.274765  3006 net.cpp:137] Memory required for data: 417402000
I0925 16:13:17.274767  3006 layer_factory.hpp:77] Creating layer Convolution16
I0925 16:13:17.274772  3006 net.cpp:84] Creating Layer Convolution16
I0925 16:13:17.274775  3006 net.cpp:406] Convolution16 <- Eltwise7_penlu15_0_split_0
I0925 16:13:17.274780  3006 net.cpp:380] Convolution16 -> Convolution16
I0925 16:13:17.275609  3006 net.cpp:122] Setting up Convolution16
I0925 16:13:17.275617  3006 net.cpp:129] Top shape: 100 16 28 28 (1254400)
I0925 16:13:17.275620  3006 net.cpp:137] Memory required for data: 422419600
I0925 16:13:17.275625  3006 layer_factory.hpp:77] Creating layer BatchNorm16
I0925 16:13:17.275629  3006 net.cpp:84] Creating Layer BatchNorm16
I0925 16:13:17.275632  3006 net.cpp:406] BatchNorm16 <- Convolution16
I0925 16:13:17.275636  3006 net.cpp:367] BatchNorm16 -> Convolution16 (in-place)
I0925 16:13:17.275756  3006 net.cpp:122] Setting up BatchNorm16
I0925 16:13:17.275768  3006 net.cpp:129] Top shape: 100 16 28 28 (1254400)
I0925 16:13:17.275770  3006 net.cpp:137] Memory required for data: 427437200
I0925 16:13:17.275774  3006 layer_factory.hpp:77] Creating layer Scale16
I0925 16:13:17.275779  3006 net.cpp:84] Creating Layer Scale16
I0925 16:13:17.275781  3006 net.cpp:406] Scale16 <- Convolution16
I0925 16:13:17.275785  3006 net.cpp:367] Scale16 -> Convolution16 (in-place)
I0925 16:13:17.275810  3006 layer_factory.hpp:77] Creating layer Scale16
I0925 16:13:17.275882  3006 net.cpp:122] Setting up Scale16
I0925 16:13:17.275885  3006 net.cpp:129] Top shape: 100 16 28 28 (1254400)
I0925 16:13:17.275888  3006 net.cpp:137] Memory required for data: 432454800
I0925 16:13:17.275892  3006 layer_factory.hpp:77] Creating layer penlu16
I0925 16:13:17.275897  3006 net.cpp:84] Creating Layer penlu16
I0925 16:13:17.275899  3006 net.cpp:406] penlu16 <- Convolution16
I0925 16:13:17.275903  3006 net.cpp:367] penlu16 -> Convolution16 (in-place)
I0925 16:13:17.276005  3006 net.cpp:122] Setting up penlu16
I0925 16:13:17.276008  3006 net.cpp:129] Top shape: 100 16 28 28 (1254400)
I0925 16:13:17.276010  3006 net.cpp:137] Memory required for data: 437472400
I0925 16:13:17.276015  3006 layer_factory.hpp:77] Creating layer Convolution17
I0925 16:13:17.276021  3006 net.cpp:84] Creating Layer Convolution17
I0925 16:13:17.276023  3006 net.cpp:406] Convolution17 <- Convolution16
I0925 16:13:17.276027  3006 net.cpp:380] Convolution17 -> Convolution17
I0925 16:13:17.276552  3006 net.cpp:122] Setting up Convolution17
I0925 16:13:17.276561  3006 net.cpp:129] Top shape: 100 16 28 28 (1254400)
I0925 16:13:17.276562  3006 net.cpp:137] Memory required for data: 442490000
I0925 16:13:17.276567  3006 layer_factory.hpp:77] Creating layer BatchNorm17
I0925 16:13:17.276571  3006 net.cpp:84] Creating Layer BatchNorm17
I0925 16:13:17.276574  3006 net.cpp:406] BatchNorm17 <- Convolution17
I0925 16:13:17.276578  3006 net.cpp:367] BatchNorm17 -> Convolution17 (in-place)
I0925 16:13:17.276700  3006 net.cpp:122] Setting up BatchNorm17
I0925 16:13:17.276703  3006 net.cpp:129] Top shape: 100 16 28 28 (1254400)
I0925 16:13:17.276706  3006 net.cpp:137] Memory required for data: 447507600
I0925 16:13:17.276710  3006 layer_factory.hpp:77] Creating layer Scale17
I0925 16:13:17.276715  3006 net.cpp:84] Creating Layer Scale17
I0925 16:13:17.276716  3006 net.cpp:406] Scale17 <- Convolution17
I0925 16:13:17.276721  3006 net.cpp:367] Scale17 -> Convolution17 (in-place)
I0925 16:13:17.276743  3006 layer_factory.hpp:77] Creating layer Scale17
I0925 16:13:17.276814  3006 net.cpp:122] Setting up Scale17
I0925 16:13:17.276818  3006 net.cpp:129] Top shape: 100 16 28 28 (1254400)
I0925 16:13:17.276820  3006 net.cpp:137] Memory required for data: 452525200
I0925 16:13:17.276824  3006 layer_factory.hpp:77] Creating layer Eltwise8
I0925 16:13:17.276829  3006 net.cpp:84] Creating Layer Eltwise8
I0925 16:13:17.276831  3006 net.cpp:406] Eltwise8 <- Eltwise7_penlu15_0_split_1
I0925 16:13:17.276834  3006 net.cpp:406] Eltwise8 <- Convolution17
I0925 16:13:17.276837  3006 net.cpp:380] Eltwise8 -> Eltwise8
I0925 16:13:17.276851  3006 net.cpp:122] Setting up Eltwise8
I0925 16:13:17.276855  3006 net.cpp:129] Top shape: 100 16 28 28 (1254400)
I0925 16:13:17.276857  3006 net.cpp:137] Memory required for data: 457542800
I0925 16:13:17.276859  3006 layer_factory.hpp:77] Creating layer penlu17
I0925 16:13:17.276865  3006 net.cpp:84] Creating Layer penlu17
I0925 16:13:17.276866  3006 net.cpp:406] penlu17 <- Eltwise8
I0925 16:13:17.276870  3006 net.cpp:367] penlu17 -> Eltwise8 (in-place)
I0925 16:13:17.276971  3006 net.cpp:122] Setting up penlu17
I0925 16:13:17.276976  3006 net.cpp:129] Top shape: 100 16 28 28 (1254400)
I0925 16:13:17.276978  3006 net.cpp:137] Memory required for data: 462560400
I0925 16:13:17.276983  3006 layer_factory.hpp:77] Creating layer Eltwise8_penlu17_0_split
I0925 16:13:17.276986  3006 net.cpp:84] Creating Layer Eltwise8_penlu17_0_split
I0925 16:13:17.276988  3006 net.cpp:406] Eltwise8_penlu17_0_split <- Eltwise8
I0925 16:13:17.276998  3006 net.cpp:380] Eltwise8_penlu17_0_split -> Eltwise8_penlu17_0_split_0
I0925 16:13:17.277012  3006 net.cpp:380] Eltwise8_penlu17_0_split -> Eltwise8_penlu17_0_split_1
I0925 16:13:17.277045  3006 net.cpp:122] Setting up Eltwise8_penlu17_0_split
I0925 16:13:17.277048  3006 net.cpp:129] Top shape: 100 16 28 28 (1254400)
I0925 16:13:17.277051  3006 net.cpp:129] Top shape: 100 16 28 28 (1254400)
I0925 16:13:17.277053  3006 net.cpp:137] Memory required for data: 472595600
I0925 16:13:17.277055  3006 layer_factory.hpp:77] Creating layer Convolution18
I0925 16:13:17.277061  3006 net.cpp:84] Creating Layer Convolution18
I0925 16:13:17.277063  3006 net.cpp:406] Convolution18 <- Eltwise8_penlu17_0_split_0
I0925 16:13:17.277068  3006 net.cpp:380] Convolution18 -> Convolution18
I0925 16:13:17.277904  3006 net.cpp:122] Setting up Convolution18
I0925 16:13:17.277912  3006 net.cpp:129] Top shape: 100 16 28 28 (1254400)
I0925 16:13:17.277915  3006 net.cpp:137] Memory required for data: 477613200
I0925 16:13:17.277920  3006 layer_factory.hpp:77] Creating layer BatchNorm18
I0925 16:13:17.277925  3006 net.cpp:84] Creating Layer BatchNorm18
I0925 16:13:17.277926  3006 net.cpp:406] BatchNorm18 <- Convolution18
I0925 16:13:17.277930  3006 net.cpp:367] BatchNorm18 -> Convolution18 (in-place)
I0925 16:13:17.278051  3006 net.cpp:122] Setting up BatchNorm18
I0925 16:13:17.278056  3006 net.cpp:129] Top shape: 100 16 28 28 (1254400)
I0925 16:13:17.278059  3006 net.cpp:137] Memory required for data: 482630800
I0925 16:13:17.278064  3006 layer_factory.hpp:77] Creating layer Scale18
I0925 16:13:17.278067  3006 net.cpp:84] Creating Layer Scale18
I0925 16:13:17.278069  3006 net.cpp:406] Scale18 <- Convolution18
I0925 16:13:17.278074  3006 net.cpp:367] Scale18 -> Convolution18 (in-place)
I0925 16:13:17.278097  3006 layer_factory.hpp:77] Creating layer Scale18
I0925 16:13:17.278168  3006 net.cpp:122] Setting up Scale18
I0925 16:13:17.278173  3006 net.cpp:129] Top shape: 100 16 28 28 (1254400)
I0925 16:13:17.278175  3006 net.cpp:137] Memory required for data: 487648400
I0925 16:13:17.278179  3006 layer_factory.hpp:77] Creating layer penlu18
I0925 16:13:17.278184  3006 net.cpp:84] Creating Layer penlu18
I0925 16:13:17.278187  3006 net.cpp:406] penlu18 <- Convolution18
I0925 16:13:17.278190  3006 net.cpp:367] penlu18 -> Convolution18 (in-place)
I0925 16:13:17.278290  3006 net.cpp:122] Setting up penlu18
I0925 16:13:17.278295  3006 net.cpp:129] Top shape: 100 16 28 28 (1254400)
I0925 16:13:17.278297  3006 net.cpp:137] Memory required for data: 492666000
I0925 16:13:17.278301  3006 layer_factory.hpp:77] Creating layer Convolution19
I0925 16:13:17.278307  3006 net.cpp:84] Creating Layer Convolution19
I0925 16:13:17.278311  3006 net.cpp:406] Convolution19 <- Convolution18
I0925 16:13:17.278314  3006 net.cpp:380] Convolution19 -> Convolution19
I0925 16:13:17.279158  3006 net.cpp:122] Setting up Convolution19
I0925 16:13:17.279167  3006 net.cpp:129] Top shape: 100 16 28 28 (1254400)
I0925 16:13:17.279170  3006 net.cpp:137] Memory required for data: 497683600
I0925 16:13:17.279175  3006 layer_factory.hpp:77] Creating layer BatchNorm19
I0925 16:13:17.279180  3006 net.cpp:84] Creating Layer BatchNorm19
I0925 16:13:17.279181  3006 net.cpp:406] BatchNorm19 <- Convolution19
I0925 16:13:17.279186  3006 net.cpp:367] BatchNorm19 -> Convolution19 (in-place)
I0925 16:13:17.279307  3006 net.cpp:122] Setting up BatchNorm19
I0925 16:13:17.279311  3006 net.cpp:129] Top shape: 100 16 28 28 (1254400)
I0925 16:13:17.279314  3006 net.cpp:137] Memory required for data: 502701200
I0925 16:13:17.279320  3006 layer_factory.hpp:77] Creating layer Scale19
I0925 16:13:17.279323  3006 net.cpp:84] Creating Layer Scale19
I0925 16:13:17.279325  3006 net.cpp:406] Scale19 <- Convolution19
I0925 16:13:17.279330  3006 net.cpp:367] Scale19 -> Convolution19 (in-place)
I0925 16:13:17.279353  3006 layer_factory.hpp:77] Creating layer Scale19
I0925 16:13:17.279424  3006 net.cpp:122] Setting up Scale19
I0925 16:13:17.279428  3006 net.cpp:129] Top shape: 100 16 28 28 (1254400)
I0925 16:13:17.279430  3006 net.cpp:137] Memory required for data: 507718800
I0925 16:13:17.279441  3006 layer_factory.hpp:77] Creating layer Eltwise9
I0925 16:13:17.279445  3006 net.cpp:84] Creating Layer Eltwise9
I0925 16:13:17.279448  3006 net.cpp:406] Eltwise9 <- Eltwise8_penlu17_0_split_1
I0925 16:13:17.279451  3006 net.cpp:406] Eltwise9 <- Convolution19
I0925 16:13:17.279454  3006 net.cpp:380] Eltwise9 -> Eltwise9
I0925 16:13:17.279470  3006 net.cpp:122] Setting up Eltwise9
I0925 16:13:17.279474  3006 net.cpp:129] Top shape: 100 16 28 28 (1254400)
I0925 16:13:17.279476  3006 net.cpp:137] Memory required for data: 512736400
I0925 16:13:17.279479  3006 layer_factory.hpp:77] Creating layer penlu19
I0925 16:13:17.279484  3006 net.cpp:84] Creating Layer penlu19
I0925 16:13:17.279486  3006 net.cpp:406] penlu19 <- Eltwise9
I0925 16:13:17.279490  3006 net.cpp:367] penlu19 -> Eltwise9 (in-place)
I0925 16:13:17.279592  3006 net.cpp:122] Setting up penlu19
I0925 16:13:17.279595  3006 net.cpp:129] Top shape: 100 16 28 28 (1254400)
I0925 16:13:17.279597  3006 net.cpp:137] Memory required for data: 517754000
I0925 16:13:17.279603  3006 layer_factory.hpp:77] Creating layer Eltwise9_penlu19_0_split
I0925 16:13:17.279605  3006 net.cpp:84] Creating Layer Eltwise9_penlu19_0_split
I0925 16:13:17.279608  3006 net.cpp:406] Eltwise9_penlu19_0_split <- Eltwise9
I0925 16:13:17.279610  3006 net.cpp:380] Eltwise9_penlu19_0_split -> Eltwise9_penlu19_0_split_0
I0925 16:13:17.279615  3006 net.cpp:380] Eltwise9_penlu19_0_split -> Eltwise9_penlu19_0_split_1
I0925 16:13:17.279636  3006 net.cpp:122] Setting up Eltwise9_penlu19_0_split
I0925 16:13:17.279639  3006 net.cpp:129] Top shape: 100 16 28 28 (1254400)
I0925 16:13:17.279642  3006 net.cpp:129] Top shape: 100 16 28 28 (1254400)
I0925 16:13:17.279644  3006 net.cpp:137] Memory required for data: 527789200
I0925 16:13:17.279647  3006 layer_factory.hpp:77] Creating layer Convolution20
I0925 16:13:17.279652  3006 net.cpp:84] Creating Layer Convolution20
I0925 16:13:17.279655  3006 net.cpp:406] Convolution20 <- Eltwise9_penlu19_0_split_0
I0925 16:13:17.279659  3006 net.cpp:380] Convolution20 -> Convolution20
I0925 16:13:17.280807  3006 net.cpp:122] Setting up Convolution20
I0925 16:13:17.280815  3006 net.cpp:129] Top shape: 100 32 14 14 (627200)
I0925 16:13:17.280818  3006 net.cpp:137] Memory required for data: 530298000
I0925 16:13:17.280823  3006 layer_factory.hpp:77] Creating layer BatchNorm20
I0925 16:13:17.280828  3006 net.cpp:84] Creating Layer BatchNorm20
I0925 16:13:17.280831  3006 net.cpp:406] BatchNorm20 <- Convolution20
I0925 16:13:17.280834  3006 net.cpp:367] BatchNorm20 -> Convolution20 (in-place)
I0925 16:13:17.280967  3006 net.cpp:122] Setting up BatchNorm20
I0925 16:13:17.280972  3006 net.cpp:129] Top shape: 100 32 14 14 (627200)
I0925 16:13:17.280974  3006 net.cpp:137] Memory required for data: 532806800
I0925 16:13:17.280979  3006 layer_factory.hpp:77] Creating layer Scale20
I0925 16:13:17.280983  3006 net.cpp:84] Creating Layer Scale20
I0925 16:13:17.280985  3006 net.cpp:406] Scale20 <- Convolution20
I0925 16:13:17.280988  3006 net.cpp:367] Scale20 -> Convolution20 (in-place)
I0925 16:13:17.281013  3006 layer_factory.hpp:77] Creating layer Scale20
I0925 16:13:17.281085  3006 net.cpp:122] Setting up Scale20
I0925 16:13:17.281090  3006 net.cpp:129] Top shape: 100 32 14 14 (627200)
I0925 16:13:17.281091  3006 net.cpp:137] Memory required for data: 535315600
I0925 16:13:17.281095  3006 layer_factory.hpp:77] Creating layer Convolution21
I0925 16:13:17.281101  3006 net.cpp:84] Creating Layer Convolution21
I0925 16:13:17.281105  3006 net.cpp:406] Convolution21 <- Eltwise9_penlu19_0_split_1
I0925 16:13:17.281108  3006 net.cpp:380] Convolution21 -> Convolution21
I0925 16:13:17.282907  3006 net.cpp:122] Setting up Convolution21
I0925 16:13:17.282917  3006 net.cpp:129] Top shape: 100 32 14 14 (627200)
I0925 16:13:17.282918  3006 net.cpp:137] Memory required for data: 537824400
I0925 16:13:17.282923  3006 layer_factory.hpp:77] Creating layer BatchNorm21
I0925 16:13:17.282928  3006 net.cpp:84] Creating Layer BatchNorm21
I0925 16:13:17.282938  3006 net.cpp:406] BatchNorm21 <- Convolution21
I0925 16:13:17.282941  3006 net.cpp:367] BatchNorm21 -> Convolution21 (in-place)
I0925 16:13:17.283066  3006 net.cpp:122] Setting up BatchNorm21
I0925 16:13:17.283071  3006 net.cpp:129] Top shape: 100 32 14 14 (627200)
I0925 16:13:17.283073  3006 net.cpp:137] Memory required for data: 540333200
I0925 16:13:17.283078  3006 layer_factory.hpp:77] Creating layer Scale21
I0925 16:13:17.283082  3006 net.cpp:84] Creating Layer Scale21
I0925 16:13:17.283085  3006 net.cpp:406] Scale21 <- Convolution21
I0925 16:13:17.283088  3006 net.cpp:367] Scale21 -> Convolution21 (in-place)
I0925 16:13:17.283113  3006 layer_factory.hpp:77] Creating layer Scale21
I0925 16:13:17.283181  3006 net.cpp:122] Setting up Scale21
I0925 16:13:17.283186  3006 net.cpp:129] Top shape: 100 32 14 14 (627200)
I0925 16:13:17.283188  3006 net.cpp:137] Memory required for data: 542842000
I0925 16:13:17.283192  3006 layer_factory.hpp:77] Creating layer penlu20
I0925 16:13:17.283197  3006 net.cpp:84] Creating Layer penlu20
I0925 16:13:17.283200  3006 net.cpp:406] penlu20 <- Convolution21
I0925 16:13:17.283202  3006 net.cpp:367] penlu20 -> Convolution21 (in-place)
I0925 16:13:17.283301  3006 net.cpp:122] Setting up penlu20
I0925 16:13:17.283305  3006 net.cpp:129] Top shape: 100 32 14 14 (627200)
I0925 16:13:17.283308  3006 net.cpp:137] Memory required for data: 545350800
I0925 16:13:17.283311  3006 layer_factory.hpp:77] Creating layer Convolution22
I0925 16:13:17.283318  3006 net.cpp:84] Creating Layer Convolution22
I0925 16:13:17.283320  3006 net.cpp:406] Convolution22 <- Convolution21
I0925 16:13:17.283324  3006 net.cpp:380] Convolution22 -> Convolution22
I0925 16:13:17.284409  3006 net.cpp:122] Setting up Convolution22
I0925 16:13:17.284417  3006 net.cpp:129] Top shape: 100 32 14 14 (627200)
I0925 16:13:17.284420  3006 net.cpp:137] Memory required for data: 547859600
I0925 16:13:17.284425  3006 layer_factory.hpp:77] Creating layer BatchNorm22
I0925 16:13:17.284430  3006 net.cpp:84] Creating Layer BatchNorm22
I0925 16:13:17.284432  3006 net.cpp:406] BatchNorm22 <- Convolution22
I0925 16:13:17.284435  3006 net.cpp:367] BatchNorm22 -> Convolution22 (in-place)
I0925 16:13:17.284569  3006 net.cpp:122] Setting up BatchNorm22
I0925 16:13:17.284575  3006 net.cpp:129] Top shape: 100 32 14 14 (627200)
I0925 16:13:17.284579  3006 net.cpp:137] Memory required for data: 550368400
I0925 16:13:17.284584  3006 layer_factory.hpp:77] Creating layer Scale22
I0925 16:13:17.284587  3006 net.cpp:84] Creating Layer Scale22
I0925 16:13:17.284590  3006 net.cpp:406] Scale22 <- Convolution22
I0925 16:13:17.284593  3006 net.cpp:367] Scale22 -> Convolution22 (in-place)
I0925 16:13:17.284626  3006 layer_factory.hpp:77] Creating layer Scale22
I0925 16:13:17.284698  3006 net.cpp:122] Setting up Scale22
I0925 16:13:17.284701  3006 net.cpp:129] Top shape: 100 32 14 14 (627200)
I0925 16:13:17.284703  3006 net.cpp:137] Memory required for data: 552877200
I0925 16:13:17.284708  3006 layer_factory.hpp:77] Creating layer Eltwise10
I0925 16:13:17.284711  3006 net.cpp:84] Creating Layer Eltwise10
I0925 16:13:17.284713  3006 net.cpp:406] Eltwise10 <- Convolution20
I0925 16:13:17.284716  3006 net.cpp:406] Eltwise10 <- Convolution22
I0925 16:13:17.284720  3006 net.cpp:380] Eltwise10 -> Eltwise10
I0925 16:13:17.284735  3006 net.cpp:122] Setting up Eltwise10
I0925 16:13:17.284739  3006 net.cpp:129] Top shape: 100 32 14 14 (627200)
I0925 16:13:17.284741  3006 net.cpp:137] Memory required for data: 555386000
I0925 16:13:17.284744  3006 layer_factory.hpp:77] Creating layer penlu21
I0925 16:13:17.284749  3006 net.cpp:84] Creating Layer penlu21
I0925 16:13:17.284751  3006 net.cpp:406] penlu21 <- Eltwise10
I0925 16:13:17.284754  3006 net.cpp:367] penlu21 -> Eltwise10 (in-place)
I0925 16:13:17.284855  3006 net.cpp:122] Setting up penlu21
I0925 16:13:17.284860  3006 net.cpp:129] Top shape: 100 32 14 14 (627200)
I0925 16:13:17.284862  3006 net.cpp:137] Memory required for data: 557894800
I0925 16:13:17.284867  3006 layer_factory.hpp:77] Creating layer Eltwise10_penlu21_0_split
I0925 16:13:17.284878  3006 net.cpp:84] Creating Layer Eltwise10_penlu21_0_split
I0925 16:13:17.284880  3006 net.cpp:406] Eltwise10_penlu21_0_split <- Eltwise10
I0925 16:13:17.284884  3006 net.cpp:380] Eltwise10_penlu21_0_split -> Eltwise10_penlu21_0_split_0
I0925 16:13:17.284888  3006 net.cpp:380] Eltwise10_penlu21_0_split -> Eltwise10_penlu21_0_split_1
I0925 16:13:17.284911  3006 net.cpp:122] Setting up Eltwise10_penlu21_0_split
I0925 16:13:17.284914  3006 net.cpp:129] Top shape: 100 32 14 14 (627200)
I0925 16:13:17.284917  3006 net.cpp:129] Top shape: 100 32 14 14 (627200)
I0925 16:13:17.284919  3006 net.cpp:137] Memory required for data: 562912400
I0925 16:13:17.284921  3006 layer_factory.hpp:77] Creating layer Convolution23
I0925 16:13:17.284927  3006 net.cpp:84] Creating Layer Convolution23
I0925 16:13:17.284930  3006 net.cpp:406] Convolution23 <- Eltwise10_penlu21_0_split_0
I0925 16:13:17.284934  3006 net.cpp:380] Convolution23 -> Convolution23
I0925 16:13:17.286237  3006 net.cpp:122] Setting up Convolution23
I0925 16:13:17.286247  3006 net.cpp:129] Top shape: 100 32 14 14 (627200)
I0925 16:13:17.286248  3006 net.cpp:137] Memory required for data: 565421200
I0925 16:13:17.286253  3006 layer_factory.hpp:77] Creating layer BatchNorm23
I0925 16:13:17.286257  3006 net.cpp:84] Creating Layer BatchNorm23
I0925 16:13:17.286260  3006 net.cpp:406] BatchNorm23 <- Convolution23
I0925 16:13:17.286264  3006 net.cpp:367] BatchNorm23 -> Convolution23 (in-place)
I0925 16:13:17.286389  3006 net.cpp:122] Setting up BatchNorm23
I0925 16:13:17.286394  3006 net.cpp:129] Top shape: 100 32 14 14 (627200)
I0925 16:13:17.286396  3006 net.cpp:137] Memory required for data: 567930000
I0925 16:13:17.286401  3006 layer_factory.hpp:77] Creating layer Scale23
I0925 16:13:17.286406  3006 net.cpp:84] Creating Layer Scale23
I0925 16:13:17.286408  3006 net.cpp:406] Scale23 <- Convolution23
I0925 16:13:17.286412  3006 net.cpp:367] Scale23 -> Convolution23 (in-place)
I0925 16:13:17.286435  3006 layer_factory.hpp:77] Creating layer Scale23
I0925 16:13:17.286505  3006 net.cpp:122] Setting up Scale23
I0925 16:13:17.286509  3006 net.cpp:129] Top shape: 100 32 14 14 (627200)
I0925 16:13:17.286512  3006 net.cpp:137] Memory required for data: 570438800
I0925 16:13:17.286516  3006 layer_factory.hpp:77] Creating layer penlu22
I0925 16:13:17.286520  3006 net.cpp:84] Creating Layer penlu22
I0925 16:13:17.286523  3006 net.cpp:406] penlu22 <- Convolution23
I0925 16:13:17.286526  3006 net.cpp:367] penlu22 -> Convolution23 (in-place)
I0925 16:13:17.286633  3006 net.cpp:122] Setting up penlu22
I0925 16:13:17.286638  3006 net.cpp:129] Top shape: 100 32 14 14 (627200)
I0925 16:13:17.286640  3006 net.cpp:137] Memory required for data: 572947600
I0925 16:13:17.286644  3006 layer_factory.hpp:77] Creating layer Convolution24
I0925 16:13:17.286650  3006 net.cpp:84] Creating Layer Convolution24
I0925 16:13:17.286653  3006 net.cpp:406] Convolution24 <- Convolution23
I0925 16:13:17.286658  3006 net.cpp:380] Convolution24 -> Convolution24
I0925 16:13:17.287663  3006 net.cpp:122] Setting up Convolution24
I0925 16:13:17.287672  3006 net.cpp:129] Top shape: 100 32 14 14 (627200)
I0925 16:13:17.287674  3006 net.cpp:137] Memory required for data: 575456400
I0925 16:13:17.287679  3006 layer_factory.hpp:77] Creating layer BatchNorm24
I0925 16:13:17.287683  3006 net.cpp:84] Creating Layer BatchNorm24
I0925 16:13:17.287686  3006 net.cpp:406] BatchNorm24 <- Convolution24
I0925 16:13:17.287690  3006 net.cpp:367] BatchNorm24 -> Convolution24 (in-place)
I0925 16:13:17.287813  3006 net.cpp:122] Setting up BatchNorm24
I0925 16:13:17.287817  3006 net.cpp:129] Top shape: 100 32 14 14 (627200)
I0925 16:13:17.287819  3006 net.cpp:137] Memory required for data: 577965200
I0925 16:13:17.287824  3006 layer_factory.hpp:77] Creating layer Scale24
I0925 16:13:17.287828  3006 net.cpp:84] Creating Layer Scale24
I0925 16:13:17.287830  3006 net.cpp:406] Scale24 <- Convolution24
I0925 16:13:17.287834  3006 net.cpp:367] Scale24 -> Convolution24 (in-place)
I0925 16:13:17.287866  3006 layer_factory.hpp:77] Creating layer Scale24
I0925 16:13:17.287937  3006 net.cpp:122] Setting up Scale24
I0925 16:13:17.287941  3006 net.cpp:129] Top shape: 100 32 14 14 (627200)
I0925 16:13:17.287943  3006 net.cpp:137] Memory required for data: 580474000
I0925 16:13:17.287947  3006 layer_factory.hpp:77] Creating layer Eltwise11
I0925 16:13:17.287951  3006 net.cpp:84] Creating Layer Eltwise11
I0925 16:13:17.287955  3006 net.cpp:406] Eltwise11 <- Eltwise10_penlu21_0_split_1
I0925 16:13:17.287957  3006 net.cpp:406] Eltwise11 <- Convolution24
I0925 16:13:17.287961  3006 net.cpp:380] Eltwise11 -> Eltwise11
I0925 16:13:17.287976  3006 net.cpp:122] Setting up Eltwise11
I0925 16:13:17.287978  3006 net.cpp:129] Top shape: 100 32 14 14 (627200)
I0925 16:13:17.287981  3006 net.cpp:137] Memory required for data: 582982800
I0925 16:13:17.287983  3006 layer_factory.hpp:77] Creating layer penlu23
I0925 16:13:17.287987  3006 net.cpp:84] Creating Layer penlu23
I0925 16:13:17.287991  3006 net.cpp:406] penlu23 <- Eltwise11
I0925 16:13:17.287993  3006 net.cpp:367] penlu23 -> Eltwise11 (in-place)
I0925 16:13:17.288091  3006 net.cpp:122] Setting up penlu23
I0925 16:13:17.288095  3006 net.cpp:129] Top shape: 100 32 14 14 (627200)
I0925 16:13:17.288099  3006 net.cpp:137] Memory required for data: 585491600
I0925 16:13:17.288102  3006 layer_factory.hpp:77] Creating layer Eltwise11_penlu23_0_split
I0925 16:13:17.288105  3006 net.cpp:84] Creating Layer Eltwise11_penlu23_0_split
I0925 16:13:17.288107  3006 net.cpp:406] Eltwise11_penlu23_0_split <- Eltwise11
I0925 16:13:17.288110  3006 net.cpp:380] Eltwise11_penlu23_0_split -> Eltwise11_penlu23_0_split_0
I0925 16:13:17.288115  3006 net.cpp:380] Eltwise11_penlu23_0_split -> Eltwise11_penlu23_0_split_1
I0925 16:13:17.288137  3006 net.cpp:122] Setting up Eltwise11_penlu23_0_split
I0925 16:13:17.288141  3006 net.cpp:129] Top shape: 100 32 14 14 (627200)
I0925 16:13:17.288143  3006 net.cpp:129] Top shape: 100 32 14 14 (627200)
I0925 16:13:17.288146  3006 net.cpp:137] Memory required for data: 590509200
I0925 16:13:17.288147  3006 layer_factory.hpp:77] Creating layer Convolution25
I0925 16:13:17.288152  3006 net.cpp:84] Creating Layer Convolution25
I0925 16:13:17.288156  3006 net.cpp:406] Convolution25 <- Eltwise11_penlu23_0_split_0
I0925 16:13:17.288159  3006 net.cpp:380] Convolution25 -> Convolution25
I0925 16:13:17.289163  3006 net.cpp:122] Setting up Convolution25
I0925 16:13:17.289172  3006 net.cpp:129] Top shape: 100 32 14 14 (627200)
I0925 16:13:17.289175  3006 net.cpp:137] Memory required for data: 593018000
I0925 16:13:17.289180  3006 layer_factory.hpp:77] Creating layer BatchNorm25
I0925 16:13:17.289185  3006 net.cpp:84] Creating Layer BatchNorm25
I0925 16:13:17.289187  3006 net.cpp:406] BatchNorm25 <- Convolution25
I0925 16:13:17.289191  3006 net.cpp:367] BatchNorm25 -> Convolution25 (in-place)
I0925 16:13:17.289317  3006 net.cpp:122] Setting up BatchNorm25
I0925 16:13:17.289321  3006 net.cpp:129] Top shape: 100 32 14 14 (627200)
I0925 16:13:17.289324  3006 net.cpp:137] Memory required for data: 595526800
I0925 16:13:17.289328  3006 layer_factory.hpp:77] Creating layer Scale25
I0925 16:13:17.289332  3006 net.cpp:84] Creating Layer Scale25
I0925 16:13:17.289335  3006 net.cpp:406] Scale25 <- Convolution25
I0925 16:13:17.289338  3006 net.cpp:367] Scale25 -> Convolution25 (in-place)
I0925 16:13:17.289363  3006 layer_factory.hpp:77] Creating layer Scale25
I0925 16:13:17.289434  3006 net.cpp:122] Setting up Scale25
I0925 16:13:17.289438  3006 net.cpp:129] Top shape: 100 32 14 14 (627200)
I0925 16:13:17.289440  3006 net.cpp:137] Memory required for data: 598035600
I0925 16:13:17.289444  3006 layer_factory.hpp:77] Creating layer penlu24
I0925 16:13:17.289449  3006 net.cpp:84] Creating Layer penlu24
I0925 16:13:17.289453  3006 net.cpp:406] penlu24 <- Convolution25
I0925 16:13:17.289455  3006 net.cpp:367] penlu24 -> Convolution25 (in-place)
I0925 16:13:17.289556  3006 net.cpp:122] Setting up penlu24
I0925 16:13:17.289561  3006 net.cpp:129] Top shape: 100 32 14 14 (627200)
I0925 16:13:17.289569  3006 net.cpp:137] Memory required for data: 600544400
I0925 16:13:17.289573  3006 layer_factory.hpp:77] Creating layer Convolution26
I0925 16:13:17.289580  3006 net.cpp:84] Creating Layer Convolution26
I0925 16:13:17.289582  3006 net.cpp:406] Convolution26 <- Convolution25
I0925 16:13:17.289587  3006 net.cpp:380] Convolution26 -> Convolution26
I0925 16:13:17.290585  3006 net.cpp:122] Setting up Convolution26
I0925 16:13:17.290593  3006 net.cpp:129] Top shape: 100 32 14 14 (627200)
I0925 16:13:17.290596  3006 net.cpp:137] Memory required for data: 603053200
I0925 16:13:17.290601  3006 layer_factory.hpp:77] Creating layer BatchNorm26
I0925 16:13:17.290604  3006 net.cpp:84] Creating Layer BatchNorm26
I0925 16:13:17.290607  3006 net.cpp:406] BatchNorm26 <- Convolution26
I0925 16:13:17.290611  3006 net.cpp:367] BatchNorm26 -> Convolution26 (in-place)
I0925 16:13:17.290745  3006 net.cpp:122] Setting up BatchNorm26
I0925 16:13:17.290748  3006 net.cpp:129] Top shape: 100 32 14 14 (627200)
I0925 16:13:17.290750  3006 net.cpp:137] Memory required for data: 605562000
I0925 16:13:17.290755  3006 layer_factory.hpp:77] Creating layer Scale26
I0925 16:13:17.290760  3006 net.cpp:84] Creating Layer Scale26
I0925 16:13:17.290761  3006 net.cpp:406] Scale26 <- Convolution26
I0925 16:13:17.290765  3006 net.cpp:367] Scale26 -> Convolution26 (in-place)
I0925 16:13:17.290788  3006 layer_factory.hpp:77] Creating layer Scale26
I0925 16:13:17.290860  3006 net.cpp:122] Setting up Scale26
I0925 16:13:17.290864  3006 net.cpp:129] Top shape: 100 32 14 14 (627200)
I0925 16:13:17.290866  3006 net.cpp:137] Memory required for data: 608070800
I0925 16:13:17.290870  3006 layer_factory.hpp:77] Creating layer Eltwise12
I0925 16:13:17.290874  3006 net.cpp:84] Creating Layer Eltwise12
I0925 16:13:17.290877  3006 net.cpp:406] Eltwise12 <- Eltwise11_penlu23_0_split_1
I0925 16:13:17.290880  3006 net.cpp:406] Eltwise12 <- Convolution26
I0925 16:13:17.290884  3006 net.cpp:380] Eltwise12 -> Eltwise12
I0925 16:13:17.290899  3006 net.cpp:122] Setting up Eltwise12
I0925 16:13:17.290902  3006 net.cpp:129] Top shape: 100 32 14 14 (627200)
I0925 16:13:17.290904  3006 net.cpp:137] Memory required for data: 610579600
I0925 16:13:17.290906  3006 layer_factory.hpp:77] Creating layer penlu25
I0925 16:13:17.290911  3006 net.cpp:84] Creating Layer penlu25
I0925 16:13:17.290913  3006 net.cpp:406] penlu25 <- Eltwise12
I0925 16:13:17.290917  3006 net.cpp:367] penlu25 -> Eltwise12 (in-place)
I0925 16:13:17.291016  3006 net.cpp:122] Setting up penlu25
I0925 16:13:17.291020  3006 net.cpp:129] Top shape: 100 32 14 14 (627200)
I0925 16:13:17.291023  3006 net.cpp:137] Memory required for data: 613088400
I0925 16:13:17.291043  3006 layer_factory.hpp:77] Creating layer Eltwise12_penlu25_0_split
I0925 16:13:17.291051  3006 net.cpp:84] Creating Layer Eltwise12_penlu25_0_split
I0925 16:13:17.291054  3006 net.cpp:406] Eltwise12_penlu25_0_split <- Eltwise12
I0925 16:13:17.291057  3006 net.cpp:380] Eltwise12_penlu25_0_split -> Eltwise12_penlu25_0_split_0
I0925 16:13:17.291065  3006 net.cpp:380] Eltwise12_penlu25_0_split -> Eltwise12_penlu25_0_split_1
I0925 16:13:17.291088  3006 net.cpp:122] Setting up Eltwise12_penlu25_0_split
I0925 16:13:17.291092  3006 net.cpp:129] Top shape: 100 32 14 14 (627200)
I0925 16:13:17.291095  3006 net.cpp:129] Top shape: 100 32 14 14 (627200)
I0925 16:13:17.291097  3006 net.cpp:137] Memory required for data: 618106000
I0925 16:13:17.291100  3006 layer_factory.hpp:77] Creating layer Convolution27
I0925 16:13:17.291105  3006 net.cpp:84] Creating Layer Convolution27
I0925 16:13:17.291108  3006 net.cpp:406] Convolution27 <- Eltwise12_penlu25_0_split_0
I0925 16:13:17.291111  3006 net.cpp:380] Convolution27 -> Convolution27
I0925 16:13:17.291771  3006 net.cpp:122] Setting up Convolution27
I0925 16:13:17.291779  3006 net.cpp:129] Top shape: 100 32 14 14 (627200)
I0925 16:13:17.291781  3006 net.cpp:137] Memory required for data: 620614800
I0925 16:13:17.291785  3006 layer_factory.hpp:77] Creating layer BatchNorm27
I0925 16:13:17.291790  3006 net.cpp:84] Creating Layer BatchNorm27
I0925 16:13:17.291798  3006 net.cpp:406] BatchNorm27 <- Convolution27
I0925 16:13:17.291802  3006 net.cpp:367] BatchNorm27 -> Convolution27 (in-place)
I0925 16:13:17.291929  3006 net.cpp:122] Setting up BatchNorm27
I0925 16:13:17.291932  3006 net.cpp:129] Top shape: 100 32 14 14 (627200)
I0925 16:13:17.291935  3006 net.cpp:137] Memory required for data: 623123600
I0925 16:13:17.291939  3006 layer_factory.hpp:77] Creating layer Scale27
I0925 16:13:17.291944  3006 net.cpp:84] Creating Layer Scale27
I0925 16:13:17.291946  3006 net.cpp:406] Scale27 <- Convolution27
I0925 16:13:17.291949  3006 net.cpp:367] Scale27 -> Convolution27 (in-place)
I0925 16:13:17.291973  3006 layer_factory.hpp:77] Creating layer Scale27
I0925 16:13:17.292044  3006 net.cpp:122] Setting up Scale27
I0925 16:13:17.292048  3006 net.cpp:129] Top shape: 100 32 14 14 (627200)
I0925 16:13:17.292052  3006 net.cpp:137] Memory required for data: 625632400
I0925 16:13:17.292054  3006 layer_factory.hpp:77] Creating layer penlu26
I0925 16:13:17.292059  3006 net.cpp:84] Creating Layer penlu26
I0925 16:13:17.292062  3006 net.cpp:406] penlu26 <- Convolution27
I0925 16:13:17.292065  3006 net.cpp:367] penlu26 -> Convolution27 (in-place)
I0925 16:13:17.292165  3006 net.cpp:122] Setting up penlu26
I0925 16:13:17.292170  3006 net.cpp:129] Top shape: 100 32 14 14 (627200)
I0925 16:13:17.292171  3006 net.cpp:137] Memory required for data: 628141200
I0925 16:13:17.292176  3006 layer_factory.hpp:77] Creating layer Convolution28
I0925 16:13:17.292181  3006 net.cpp:84] Creating Layer Convolution28
I0925 16:13:17.292184  3006 net.cpp:406] Convolution28 <- Convolution27
I0925 16:13:17.292188  3006 net.cpp:380] Convolution28 -> Convolution28
I0925 16:13:17.293174  3006 net.cpp:122] Setting up Convolution28
I0925 16:13:17.293182  3006 net.cpp:129] Top shape: 100 32 14 14 (627200)
I0925 16:13:17.293185  3006 net.cpp:137] Memory required for data: 630650000
I0925 16:13:17.293190  3006 layer_factory.hpp:77] Creating layer BatchNorm28
I0925 16:13:17.293195  3006 net.cpp:84] Creating Layer BatchNorm28
I0925 16:13:17.293196  3006 net.cpp:406] BatchNorm28 <- Convolution28
I0925 16:13:17.293200  3006 net.cpp:367] BatchNorm28 -> Convolution28 (in-place)
I0925 16:13:17.293328  3006 net.cpp:122] Setting up BatchNorm28
I0925 16:13:17.293332  3006 net.cpp:129] Top shape: 100 32 14 14 (627200)
I0925 16:13:17.293334  3006 net.cpp:137] Memory required for data: 633158800
I0925 16:13:17.293339  3006 layer_factory.hpp:77] Creating layer Scale28
I0925 16:13:17.293344  3006 net.cpp:84] Creating Layer Scale28
I0925 16:13:17.293345  3006 net.cpp:406] Scale28 <- Convolution28
I0925 16:13:17.293349  3006 net.cpp:367] Scale28 -> Convolution28 (in-place)
I0925 16:13:17.293373  3006 layer_factory.hpp:77] Creating layer Scale28
I0925 16:13:17.293445  3006 net.cpp:122] Setting up Scale28
I0925 16:13:17.293450  3006 net.cpp:129] Top shape: 100 32 14 14 (627200)
I0925 16:13:17.293452  3006 net.cpp:137] Memory required for data: 635667600
I0925 16:13:17.293457  3006 layer_factory.hpp:77] Creating layer Eltwise13
I0925 16:13:17.293459  3006 net.cpp:84] Creating Layer Eltwise13
I0925 16:13:17.293462  3006 net.cpp:406] Eltwise13 <- Eltwise12_penlu25_0_split_1
I0925 16:13:17.293465  3006 net.cpp:406] Eltwise13 <- Convolution28
I0925 16:13:17.293468  3006 net.cpp:380] Eltwise13 -> Eltwise13
I0925 16:13:17.293483  3006 net.cpp:122] Setting up Eltwise13
I0925 16:13:17.293488  3006 net.cpp:129] Top shape: 100 32 14 14 (627200)
I0925 16:13:17.293489  3006 net.cpp:137] Memory required for data: 638176400
I0925 16:13:17.293491  3006 layer_factory.hpp:77] Creating layer penlu27
I0925 16:13:17.293496  3006 net.cpp:84] Creating Layer penlu27
I0925 16:13:17.293499  3006 net.cpp:406] penlu27 <- Eltwise13
I0925 16:13:17.293503  3006 net.cpp:367] penlu27 -> Eltwise13 (in-place)
I0925 16:13:17.293606  3006 net.cpp:122] Setting up penlu27
I0925 16:13:17.293609  3006 net.cpp:129] Top shape: 100 32 14 14 (627200)
I0925 16:13:17.293612  3006 net.cpp:137] Memory required for data: 640685200
I0925 16:13:17.293617  3006 layer_factory.hpp:77] Creating layer Eltwise13_penlu27_0_split
I0925 16:13:17.293627  3006 net.cpp:84] Creating Layer Eltwise13_penlu27_0_split
I0925 16:13:17.293628  3006 net.cpp:406] Eltwise13_penlu27_0_split <- Eltwise13
I0925 16:13:17.293632  3006 net.cpp:380] Eltwise13_penlu27_0_split -> Eltwise13_penlu27_0_split_0
I0925 16:13:17.293637  3006 net.cpp:380] Eltwise13_penlu27_0_split -> Eltwise13_penlu27_0_split_1
I0925 16:13:17.293660  3006 net.cpp:122] Setting up Eltwise13_penlu27_0_split
I0925 16:13:17.293663  3006 net.cpp:129] Top shape: 100 32 14 14 (627200)
I0925 16:13:17.293666  3006 net.cpp:129] Top shape: 100 32 14 14 (627200)
I0925 16:13:17.293668  3006 net.cpp:137] Memory required for data: 645702800
I0925 16:13:17.293670  3006 layer_factory.hpp:77] Creating layer Convolution29
I0925 16:13:17.293676  3006 net.cpp:84] Creating Layer Convolution29
I0925 16:13:17.293678  3006 net.cpp:406] Convolution29 <- Eltwise13_penlu27_0_split_0
I0925 16:13:17.293682  3006 net.cpp:380] Convolution29 -> Convolution29
I0925 16:13:17.294667  3006 net.cpp:122] Setting up Convolution29
I0925 16:13:17.294677  3006 net.cpp:129] Top shape: 100 32 14 14 (627200)
I0925 16:13:17.294678  3006 net.cpp:137] Memory required for data: 648211600
I0925 16:13:17.294683  3006 layer_factory.hpp:77] Creating layer BatchNorm29
I0925 16:13:17.294687  3006 net.cpp:84] Creating Layer BatchNorm29
I0925 16:13:17.294690  3006 net.cpp:406] BatchNorm29 <- Convolution29
I0925 16:13:17.294694  3006 net.cpp:367] BatchNorm29 -> Convolution29 (in-place)
I0925 16:13:17.294821  3006 net.cpp:122] Setting up BatchNorm29
I0925 16:13:17.294826  3006 net.cpp:129] Top shape: 100 32 14 14 (627200)
I0925 16:13:17.294827  3006 net.cpp:137] Memory required for data: 650720400
I0925 16:13:17.294832  3006 layer_factory.hpp:77] Creating layer Scale29
I0925 16:13:17.294836  3006 net.cpp:84] Creating Layer Scale29
I0925 16:13:17.294839  3006 net.cpp:406] Scale29 <- Convolution29
I0925 16:13:17.294842  3006 net.cpp:367] Scale29 -> Convolution29 (in-place)
I0925 16:13:17.294867  3006 layer_factory.hpp:77] Creating layer Scale29
I0925 16:13:17.294937  3006 net.cpp:122] Setting up Scale29
I0925 16:13:17.294941  3006 net.cpp:129] Top shape: 100 32 14 14 (627200)
I0925 16:13:17.294945  3006 net.cpp:137] Memory required for data: 653229200
I0925 16:13:17.294947  3006 layer_factory.hpp:77] Creating layer penlu28
I0925 16:13:17.294952  3006 net.cpp:84] Creating Layer penlu28
I0925 16:13:17.294955  3006 net.cpp:406] penlu28 <- Convolution29
I0925 16:13:17.294958  3006 net.cpp:367] penlu28 -> Convolution29 (in-place)
I0925 16:13:17.295060  3006 net.cpp:122] Setting up penlu28
I0925 16:13:17.295064  3006 net.cpp:129] Top shape: 100 32 14 14 (627200)
I0925 16:13:17.295066  3006 net.cpp:137] Memory required for data: 655738000
I0925 16:13:17.295070  3006 layer_factory.hpp:77] Creating layer Convolution30
I0925 16:13:17.295076  3006 net.cpp:84] Creating Layer Convolution30
I0925 16:13:17.295079  3006 net.cpp:406] Convolution30 <- Convolution29
I0925 16:13:17.295083  3006 net.cpp:380] Convolution30 -> Convolution30
I0925 16:13:17.296068  3006 net.cpp:122] Setting up Convolution30
I0925 16:13:17.296077  3006 net.cpp:129] Top shape: 100 32 14 14 (627200)
I0925 16:13:17.296079  3006 net.cpp:137] Memory required for data: 658246800
I0925 16:13:17.296083  3006 layer_factory.hpp:77] Creating layer BatchNorm30
I0925 16:13:17.296088  3006 net.cpp:84] Creating Layer BatchNorm30
I0925 16:13:17.296092  3006 net.cpp:406] BatchNorm30 <- Convolution30
I0925 16:13:17.296094  3006 net.cpp:367] BatchNorm30 -> Convolution30 (in-place)
I0925 16:13:17.296222  3006 net.cpp:122] Setting up BatchNorm30
I0925 16:13:17.296227  3006 net.cpp:129] Top shape: 100 32 14 14 (627200)
I0925 16:13:17.296229  3006 net.cpp:137] Memory required for data: 660755600
I0925 16:13:17.296234  3006 layer_factory.hpp:77] Creating layer Scale30
I0925 16:13:17.296237  3006 net.cpp:84] Creating Layer Scale30
I0925 16:13:17.296241  3006 net.cpp:406] Scale30 <- Convolution30
I0925 16:13:17.296243  3006 net.cpp:367] Scale30 -> Convolution30 (in-place)
I0925 16:13:17.296275  3006 layer_factory.hpp:77] Creating layer Scale30
I0925 16:13:17.296350  3006 net.cpp:122] Setting up Scale30
I0925 16:13:17.296353  3006 net.cpp:129] Top shape: 100 32 14 14 (627200)
I0925 16:13:17.296355  3006 net.cpp:137] Memory required for data: 663264400
I0925 16:13:17.296360  3006 layer_factory.hpp:77] Creating layer Eltwise14
I0925 16:13:17.296363  3006 net.cpp:84] Creating Layer Eltwise14
I0925 16:13:17.296366  3006 net.cpp:406] Eltwise14 <- Eltwise13_penlu27_0_split_1
I0925 16:13:17.296370  3006 net.cpp:406] Eltwise14 <- Convolution30
I0925 16:13:17.296372  3006 net.cpp:380] Eltwise14 -> Eltwise14
I0925 16:13:17.296387  3006 net.cpp:122] Setting up Eltwise14
I0925 16:13:17.296391  3006 net.cpp:129] Top shape: 100 32 14 14 (627200)
I0925 16:13:17.296393  3006 net.cpp:137] Memory required for data: 665773200
I0925 16:13:17.296396  3006 layer_factory.hpp:77] Creating layer penlu29
I0925 16:13:17.296401  3006 net.cpp:84] Creating Layer penlu29
I0925 16:13:17.296402  3006 net.cpp:406] penlu29 <- Eltwise14
I0925 16:13:17.296406  3006 net.cpp:367] penlu29 -> Eltwise14 (in-place)
I0925 16:13:17.296517  3006 net.cpp:122] Setting up penlu29
I0925 16:13:17.296524  3006 net.cpp:129] Top shape: 100 32 14 14 (627200)
I0925 16:13:17.296526  3006 net.cpp:137] Memory required for data: 668282000
I0925 16:13:17.296530  3006 layer_factory.hpp:77] Creating layer Eltwise14_penlu29_0_split
I0925 16:13:17.296535  3006 net.cpp:84] Creating Layer Eltwise14_penlu29_0_split
I0925 16:13:17.296536  3006 net.cpp:406] Eltwise14_penlu29_0_split <- Eltwise14
I0925 16:13:17.296540  3006 net.cpp:380] Eltwise14_penlu29_0_split -> Eltwise14_penlu29_0_split_0
I0925 16:13:17.296545  3006 net.cpp:380] Eltwise14_penlu29_0_split -> Eltwise14_penlu29_0_split_1
I0925 16:13:17.296567  3006 net.cpp:122] Setting up Eltwise14_penlu29_0_split
I0925 16:13:17.296571  3006 net.cpp:129] Top shape: 100 32 14 14 (627200)
I0925 16:13:17.296573  3006 net.cpp:129] Top shape: 100 32 14 14 (627200)
I0925 16:13:17.296576  3006 net.cpp:137] Memory required for data: 673299600
I0925 16:13:17.296578  3006 layer_factory.hpp:77] Creating layer Convolution31
I0925 16:13:17.296583  3006 net.cpp:84] Creating Layer Convolution31
I0925 16:13:17.296586  3006 net.cpp:406] Convolution31 <- Eltwise14_penlu29_0_split_0
I0925 16:13:17.296591  3006 net.cpp:380] Convolution31 -> Convolution31
I0925 16:13:17.297580  3006 net.cpp:122] Setting up Convolution31
I0925 16:13:17.297588  3006 net.cpp:129] Top shape: 100 32 14 14 (627200)
I0925 16:13:17.297591  3006 net.cpp:137] Memory required for data: 675808400
I0925 16:13:17.297595  3006 layer_factory.hpp:77] Creating layer BatchNorm31
I0925 16:13:17.297600  3006 net.cpp:84] Creating Layer BatchNorm31
I0925 16:13:17.297602  3006 net.cpp:406] BatchNorm31 <- Convolution31
I0925 16:13:17.297606  3006 net.cpp:367] BatchNorm31 -> Convolution31 (in-place)
I0925 16:13:17.297736  3006 net.cpp:122] Setting up BatchNorm31
I0925 16:13:17.297740  3006 net.cpp:129] Top shape: 100 32 14 14 (627200)
I0925 16:13:17.297742  3006 net.cpp:137] Memory required for data: 678317200
I0925 16:13:17.297747  3006 layer_factory.hpp:77] Creating layer Scale31
I0925 16:13:17.297751  3006 net.cpp:84] Creating Layer Scale31
I0925 16:13:17.297754  3006 net.cpp:406] Scale31 <- Convolution31
I0925 16:13:17.297757  3006 net.cpp:367] Scale31 -> Convolution31 (in-place)
I0925 16:13:17.297781  3006 layer_factory.hpp:77] Creating layer Scale31
I0925 16:13:17.297853  3006 net.cpp:122] Setting up Scale31
I0925 16:13:17.297858  3006 net.cpp:129] Top shape: 100 32 14 14 (627200)
I0925 16:13:17.297860  3006 net.cpp:137] Memory required for data: 680826000
I0925 16:13:17.297863  3006 layer_factory.hpp:77] Creating layer penlu30
I0925 16:13:17.297868  3006 net.cpp:84] Creating Layer penlu30
I0925 16:13:17.297871  3006 net.cpp:406] penlu30 <- Convolution31
I0925 16:13:17.297874  3006 net.cpp:367] penlu30 -> Convolution31 (in-place)
I0925 16:13:17.297976  3006 net.cpp:122] Setting up penlu30
I0925 16:13:17.297981  3006 net.cpp:129] Top shape: 100 32 14 14 (627200)
I0925 16:13:17.297989  3006 net.cpp:137] Memory required for data: 683334800
I0925 16:13:17.297994  3006 layer_factory.hpp:77] Creating layer Convolution32
I0925 16:13:17.298001  3006 net.cpp:84] Creating Layer Convolution32
I0925 16:13:17.298003  3006 net.cpp:406] Convolution32 <- Convolution31
I0925 16:13:17.298007  3006 net.cpp:380] Convolution32 -> Convolution32
I0925 16:13:17.299024  3006 net.cpp:122] Setting up Convolution32
I0925 16:13:17.299033  3006 net.cpp:129] Top shape: 100 32 14 14 (627200)
I0925 16:13:17.299036  3006 net.cpp:137] Memory required for data: 685843600
I0925 16:13:17.299041  3006 layer_factory.hpp:77] Creating layer BatchNorm32
I0925 16:13:17.299046  3006 net.cpp:84] Creating Layer BatchNorm32
I0925 16:13:17.299048  3006 net.cpp:406] BatchNorm32 <- Convolution32
I0925 16:13:17.299052  3006 net.cpp:367] BatchNorm32 -> Convolution32 (in-place)
I0925 16:13:17.299192  3006 net.cpp:122] Setting up BatchNorm32
I0925 16:13:17.299196  3006 net.cpp:129] Top shape: 100 32 14 14 (627200)
I0925 16:13:17.299198  3006 net.cpp:137] Memory required for data: 688352400
I0925 16:13:17.299203  3006 layer_factory.hpp:77] Creating layer Scale32
I0925 16:13:17.299207  3006 net.cpp:84] Creating Layer Scale32
I0925 16:13:17.299209  3006 net.cpp:406] Scale32 <- Convolution32
I0925 16:13:17.299212  3006 net.cpp:367] Scale32 -> Convolution32 (in-place)
I0925 16:13:17.299238  3006 layer_factory.hpp:77] Creating layer Scale32
I0925 16:13:17.299314  3006 net.cpp:122] Setting up Scale32
I0925 16:13:17.299319  3006 net.cpp:129] Top shape: 100 32 14 14 (627200)
I0925 16:13:17.299320  3006 net.cpp:137] Memory required for data: 690861200
I0925 16:13:17.299324  3006 layer_factory.hpp:77] Creating layer Eltwise15
I0925 16:13:17.299327  3006 net.cpp:84] Creating Layer Eltwise15
I0925 16:13:17.299330  3006 net.cpp:406] Eltwise15 <- Eltwise14_penlu29_0_split_1
I0925 16:13:17.299334  3006 net.cpp:406] Eltwise15 <- Convolution32
I0925 16:13:17.299336  3006 net.cpp:380] Eltwise15 -> Eltwise15
I0925 16:13:17.299352  3006 net.cpp:122] Setting up Eltwise15
I0925 16:13:17.299356  3006 net.cpp:129] Top shape: 100 32 14 14 (627200)
I0925 16:13:17.299358  3006 net.cpp:137] Memory required for data: 693370000
I0925 16:13:17.299360  3006 layer_factory.hpp:77] Creating layer penlu31
I0925 16:13:17.299365  3006 net.cpp:84] Creating Layer penlu31
I0925 16:13:17.299367  3006 net.cpp:406] penlu31 <- Eltwise15
I0925 16:13:17.299371  3006 net.cpp:367] penlu31 -> Eltwise15 (in-place)
I0925 16:13:17.299475  3006 net.cpp:122] Setting up penlu31
I0925 16:13:17.299479  3006 net.cpp:129] Top shape: 100 32 14 14 (627200)
I0925 16:13:17.299481  3006 net.cpp:137] Memory required for data: 695878800
I0925 16:13:17.299485  3006 layer_factory.hpp:77] Creating layer Eltwise15_penlu31_0_split
I0925 16:13:17.299489  3006 net.cpp:84] Creating Layer Eltwise15_penlu31_0_split
I0925 16:13:17.299491  3006 net.cpp:406] Eltwise15_penlu31_0_split <- Eltwise15
I0925 16:13:17.299495  3006 net.cpp:380] Eltwise15_penlu31_0_split -> Eltwise15_penlu31_0_split_0
I0925 16:13:17.299499  3006 net.cpp:380] Eltwise15_penlu31_0_split -> Eltwise15_penlu31_0_split_1
I0925 16:13:17.299521  3006 net.cpp:122] Setting up Eltwise15_penlu31_0_split
I0925 16:13:17.299525  3006 net.cpp:129] Top shape: 100 32 14 14 (627200)
I0925 16:13:17.299527  3006 net.cpp:129] Top shape: 100 32 14 14 (627200)
I0925 16:13:17.299530  3006 net.cpp:137] Memory required for data: 700896400
I0925 16:13:17.299531  3006 layer_factory.hpp:77] Creating layer Convolution33
I0925 16:13:17.299537  3006 net.cpp:84] Creating Layer Convolution33
I0925 16:13:17.299540  3006 net.cpp:406] Convolution33 <- Eltwise15_penlu31_0_split_0
I0925 16:13:17.299545  3006 net.cpp:380] Convolution33 -> Convolution33
I0925 16:13:17.300895  3006 net.cpp:122] Setting up Convolution33
I0925 16:13:17.300904  3006 net.cpp:129] Top shape: 100 32 14 14 (627200)
I0925 16:13:17.300906  3006 net.cpp:137] Memory required for data: 703405200
I0925 16:13:17.300911  3006 layer_factory.hpp:77] Creating layer BatchNorm33
I0925 16:13:17.300916  3006 net.cpp:84] Creating Layer BatchNorm33
I0925 16:13:17.300925  3006 net.cpp:406] BatchNorm33 <- Convolution33
I0925 16:13:17.300930  3006 net.cpp:367] BatchNorm33 -> Convolution33 (in-place)
I0925 16:13:17.301069  3006 net.cpp:122] Setting up BatchNorm33
I0925 16:13:17.301074  3006 net.cpp:129] Top shape: 100 32 14 14 (627200)
I0925 16:13:17.301076  3006 net.cpp:137] Memory required for data: 705914000
I0925 16:13:17.301080  3006 layer_factory.hpp:77] Creating layer Scale33
I0925 16:13:17.301085  3006 net.cpp:84] Creating Layer Scale33
I0925 16:13:17.301087  3006 net.cpp:406] Scale33 <- Convolution33
I0925 16:13:17.301091  3006 net.cpp:367] Scale33 -> Convolution33 (in-place)
I0925 16:13:17.301117  3006 layer_factory.hpp:77] Creating layer Scale33
I0925 16:13:17.301193  3006 net.cpp:122] Setting up Scale33
I0925 16:13:17.301198  3006 net.cpp:129] Top shape: 100 32 14 14 (627200)
I0925 16:13:17.301200  3006 net.cpp:137] Memory required for data: 708422800
I0925 16:13:17.301204  3006 layer_factory.hpp:77] Creating layer penlu32
I0925 16:13:17.301208  3006 net.cpp:84] Creating Layer penlu32
I0925 16:13:17.301211  3006 net.cpp:406] penlu32 <- Convolution33
I0925 16:13:17.301214  3006 net.cpp:367] penlu32 -> Convolution33 (in-place)
I0925 16:13:17.301321  3006 net.cpp:122] Setting up penlu32
I0925 16:13:17.301326  3006 net.cpp:129] Top shape: 100 32 14 14 (627200)
I0925 16:13:17.301328  3006 net.cpp:137] Memory required for data: 710931600
I0925 16:13:17.301332  3006 layer_factory.hpp:77] Creating layer Convolution34
I0925 16:13:17.301339  3006 net.cpp:84] Creating Layer Convolution34
I0925 16:13:17.301342  3006 net.cpp:406] Convolution34 <- Convolution33
I0925 16:13:17.301345  3006 net.cpp:380] Convolution34 -> Convolution34
I0925 16:13:17.302368  3006 net.cpp:122] Setting up Convolution34
I0925 16:13:17.302376  3006 net.cpp:129] Top shape: 100 32 14 14 (627200)
I0925 16:13:17.302378  3006 net.cpp:137] Memory required for data: 713440400
I0925 16:13:17.302383  3006 layer_factory.hpp:77] Creating layer BatchNorm34
I0925 16:13:17.302388  3006 net.cpp:84] Creating Layer BatchNorm34
I0925 16:13:17.302392  3006 net.cpp:406] BatchNorm34 <- Convolution34
I0925 16:13:17.302395  3006 net.cpp:367] BatchNorm34 -> Convolution34 (in-place)
I0925 16:13:17.302530  3006 net.cpp:122] Setting up BatchNorm34
I0925 16:13:17.302534  3006 net.cpp:129] Top shape: 100 32 14 14 (627200)
I0925 16:13:17.302536  3006 net.cpp:137] Memory required for data: 715949200
I0925 16:13:17.302541  3006 layer_factory.hpp:77] Creating layer Scale34
I0925 16:13:17.302546  3006 net.cpp:84] Creating Layer Scale34
I0925 16:13:17.302548  3006 net.cpp:406] Scale34 <- Convolution34
I0925 16:13:17.302551  3006 net.cpp:367] Scale34 -> Convolution34 (in-place)
I0925 16:13:17.302577  3006 layer_factory.hpp:77] Creating layer Scale34
I0925 16:13:17.302664  3006 net.cpp:122] Setting up Scale34
I0925 16:13:17.302669  3006 net.cpp:129] Top shape: 100 32 14 14 (627200)
I0925 16:13:17.302670  3006 net.cpp:137] Memory required for data: 718458000
I0925 16:13:17.302673  3006 layer_factory.hpp:77] Creating layer Eltwise16
I0925 16:13:17.302678  3006 net.cpp:84] Creating Layer Eltwise16
I0925 16:13:17.302681  3006 net.cpp:406] Eltwise16 <- Eltwise15_penlu31_0_split_1
I0925 16:13:17.302685  3006 net.cpp:406] Eltwise16 <- Convolution34
I0925 16:13:17.302688  3006 net.cpp:380] Eltwise16 -> Eltwise16
I0925 16:13:17.302703  3006 net.cpp:122] Setting up Eltwise16
I0925 16:13:17.302707  3006 net.cpp:129] Top shape: 100 32 14 14 (627200)
I0925 16:13:17.302709  3006 net.cpp:137] Memory required for data: 720966800
I0925 16:13:17.302711  3006 layer_factory.hpp:77] Creating layer penlu33
I0925 16:13:17.302717  3006 net.cpp:84] Creating Layer penlu33
I0925 16:13:17.302719  3006 net.cpp:406] penlu33 <- Eltwise16
I0925 16:13:17.302723  3006 net.cpp:367] penlu33 -> Eltwise16 (in-place)
I0925 16:13:17.302829  3006 net.cpp:122] Setting up penlu33
I0925 16:13:17.302834  3006 net.cpp:129] Top shape: 100 32 14 14 (627200)
I0925 16:13:17.302836  3006 net.cpp:137] Memory required for data: 723475600
I0925 16:13:17.302847  3006 layer_factory.hpp:77] Creating layer Eltwise16_penlu33_0_split
I0925 16:13:17.302851  3006 net.cpp:84] Creating Layer Eltwise16_penlu33_0_split
I0925 16:13:17.302853  3006 net.cpp:406] Eltwise16_penlu33_0_split <- Eltwise16
I0925 16:13:17.302857  3006 net.cpp:380] Eltwise16_penlu33_0_split -> Eltwise16_penlu33_0_split_0
I0925 16:13:17.302862  3006 net.cpp:380] Eltwise16_penlu33_0_split -> Eltwise16_penlu33_0_split_1
I0925 16:13:17.302886  3006 net.cpp:122] Setting up Eltwise16_penlu33_0_split
I0925 16:13:17.302891  3006 net.cpp:129] Top shape: 100 32 14 14 (627200)
I0925 16:13:17.302892  3006 net.cpp:129] Top shape: 100 32 14 14 (627200)
I0925 16:13:17.302894  3006 net.cpp:137] Memory required for data: 728493200
I0925 16:13:17.302896  3006 layer_factory.hpp:77] Creating layer Convolution35
I0925 16:13:17.302903  3006 net.cpp:84] Creating Layer Convolution35
I0925 16:13:17.302906  3006 net.cpp:406] Convolution35 <- Eltwise16_penlu33_0_split_0
I0925 16:13:17.302911  3006 net.cpp:380] Convolution35 -> Convolution35
I0925 16:13:17.303958  3006 net.cpp:122] Setting up Convolution35
I0925 16:13:17.303966  3006 net.cpp:129] Top shape: 100 32 14 14 (627200)
I0925 16:13:17.303969  3006 net.cpp:137] Memory required for data: 731002000
I0925 16:13:17.303973  3006 layer_factory.hpp:77] Creating layer BatchNorm35
I0925 16:13:17.303979  3006 net.cpp:84] Creating Layer BatchNorm35
I0925 16:13:17.303982  3006 net.cpp:406] BatchNorm35 <- Convolution35
I0925 16:13:17.303987  3006 net.cpp:367] BatchNorm35 -> Convolution35 (in-place)
I0925 16:13:17.304119  3006 net.cpp:122] Setting up BatchNorm35
I0925 16:13:17.304123  3006 net.cpp:129] Top shape: 100 32 14 14 (627200)
I0925 16:13:17.304126  3006 net.cpp:137] Memory required for data: 733510800
I0925 16:13:17.304131  3006 layer_factory.hpp:77] Creating layer Scale35
I0925 16:13:17.304136  3006 net.cpp:84] Creating Layer Scale35
I0925 16:13:17.304137  3006 net.cpp:406] Scale35 <- Convolution35
I0925 16:13:17.304141  3006 net.cpp:367] Scale35 -> Convolution35 (in-place)
I0925 16:13:17.304167  3006 layer_factory.hpp:77] Creating layer Scale35
I0925 16:13:17.304244  3006 net.cpp:122] Setting up Scale35
I0925 16:13:17.304249  3006 net.cpp:129] Top shape: 100 32 14 14 (627200)
I0925 16:13:17.304250  3006 net.cpp:137] Memory required for data: 736019600
I0925 16:13:17.304255  3006 layer_factory.hpp:77] Creating layer penlu34
I0925 16:13:17.304260  3006 net.cpp:84] Creating Layer penlu34
I0925 16:13:17.304262  3006 net.cpp:406] penlu34 <- Convolution35
I0925 16:13:17.304265  3006 net.cpp:367] penlu34 -> Convolution35 (in-place)
I0925 16:13:17.304370  3006 net.cpp:122] Setting up penlu34
I0925 16:13:17.304374  3006 net.cpp:129] Top shape: 100 32 14 14 (627200)
I0925 16:13:17.304376  3006 net.cpp:137] Memory required for data: 738528400
I0925 16:13:17.304380  3006 layer_factory.hpp:77] Creating layer Convolution36
I0925 16:13:17.304388  3006 net.cpp:84] Creating Layer Convolution36
I0925 16:13:17.304389  3006 net.cpp:406] Convolution36 <- Convolution35
I0925 16:13:17.304394  3006 net.cpp:380] Convolution36 -> Convolution36
I0925 16:13:17.305523  3006 net.cpp:122] Setting up Convolution36
I0925 16:13:17.305532  3006 net.cpp:129] Top shape: 100 32 14 14 (627200)
I0925 16:13:17.305536  3006 net.cpp:137] Memory required for data: 741037200
I0925 16:13:17.305541  3006 layer_factory.hpp:77] Creating layer BatchNorm36
I0925 16:13:17.305546  3006 net.cpp:84] Creating Layer BatchNorm36
I0925 16:13:17.305549  3006 net.cpp:406] BatchNorm36 <- Convolution36
I0925 16:13:17.305553  3006 net.cpp:367] BatchNorm36 -> Convolution36 (in-place)
I0925 16:13:17.305704  3006 net.cpp:122] Setting up BatchNorm36
I0925 16:13:17.305709  3006 net.cpp:129] Top shape: 100 32 14 14 (627200)
I0925 16:13:17.305711  3006 net.cpp:137] Memory required for data: 743546000
I0925 16:13:17.305716  3006 layer_factory.hpp:77] Creating layer Scale36
I0925 16:13:17.305721  3006 net.cpp:84] Creating Layer Scale36
I0925 16:13:17.305723  3006 net.cpp:406] Scale36 <- Convolution36
I0925 16:13:17.305727  3006 net.cpp:367] Scale36 -> Convolution36 (in-place)
I0925 16:13:17.305760  3006 layer_factory.hpp:77] Creating layer Scale36
I0925 16:13:17.305837  3006 net.cpp:122] Setting up Scale36
I0925 16:13:17.305841  3006 net.cpp:129] Top shape: 100 32 14 14 (627200)
I0925 16:13:17.305843  3006 net.cpp:137] Memory required for data: 746054800
I0925 16:13:17.305847  3006 layer_factory.hpp:77] Creating layer Eltwise17
I0925 16:13:17.305852  3006 net.cpp:84] Creating Layer Eltwise17
I0925 16:13:17.305855  3006 net.cpp:406] Eltwise17 <- Eltwise16_penlu33_0_split_1
I0925 16:13:17.305857  3006 net.cpp:406] Eltwise17 <- Convolution36
I0925 16:13:17.305861  3006 net.cpp:380] Eltwise17 -> Eltwise17
I0925 16:13:17.305878  3006 net.cpp:122] Setting up Eltwise17
I0925 16:13:17.305882  3006 net.cpp:129] Top shape: 100 32 14 14 (627200)
I0925 16:13:17.305884  3006 net.cpp:137] Memory required for data: 748563600
I0925 16:13:17.305886  3006 layer_factory.hpp:77] Creating layer penlu35
I0925 16:13:17.305891  3006 net.cpp:84] Creating Layer penlu35
I0925 16:13:17.305894  3006 net.cpp:406] penlu35 <- Eltwise17
I0925 16:13:17.305897  3006 net.cpp:367] penlu35 -> Eltwise17 (in-place)
I0925 16:13:17.306004  3006 net.cpp:122] Setting up penlu35
I0925 16:13:17.306007  3006 net.cpp:129] Top shape: 100 32 14 14 (627200)
I0925 16:13:17.306010  3006 net.cpp:137] Memory required for data: 751072400
I0925 16:13:17.306015  3006 layer_factory.hpp:77] Creating layer Eltwise17_penlu35_0_split
I0925 16:13:17.306018  3006 net.cpp:84] Creating Layer Eltwise17_penlu35_0_split
I0925 16:13:17.306020  3006 net.cpp:406] Eltwise17_penlu35_0_split <- Eltwise17
I0925 16:13:17.306023  3006 net.cpp:380] Eltwise17_penlu35_0_split -> Eltwise17_penlu35_0_split_0
I0925 16:13:17.306027  3006 net.cpp:380] Eltwise17_penlu35_0_split -> Eltwise17_penlu35_0_split_1
I0925 16:13:17.306051  3006 net.cpp:122] Setting up Eltwise17_penlu35_0_split
I0925 16:13:17.306054  3006 net.cpp:129] Top shape: 100 32 14 14 (627200)
I0925 16:13:17.306057  3006 net.cpp:129] Top shape: 100 32 14 14 (627200)
I0925 16:13:17.306059  3006 net.cpp:137] Memory required for data: 756090000
I0925 16:13:17.306061  3006 layer_factory.hpp:77] Creating layer Convolution37
I0925 16:13:17.306066  3006 net.cpp:84] Creating Layer Convolution37
I0925 16:13:17.306069  3006 net.cpp:406] Convolution37 <- Eltwise17_penlu35_0_split_0
I0925 16:13:17.306073  3006 net.cpp:380] Convolution37 -> Convolution37
I0925 16:13:17.306792  3006 net.cpp:122] Setting up Convolution37
I0925 16:13:17.306799  3006 net.cpp:129] Top shape: 100 32 14 14 (627200)
I0925 16:13:17.306802  3006 net.cpp:137] Memory required for data: 758598800
I0925 16:13:17.306805  3006 layer_factory.hpp:77] Creating layer BatchNorm37
I0925 16:13:17.306810  3006 net.cpp:84] Creating Layer BatchNorm37
I0925 16:13:17.306813  3006 net.cpp:406] BatchNorm37 <- Convolution37
I0925 16:13:17.306816  3006 net.cpp:367] BatchNorm37 -> Convolution37 (in-place)
I0925 16:13:17.306953  3006 net.cpp:122] Setting up BatchNorm37
I0925 16:13:17.306958  3006 net.cpp:129] Top shape: 100 32 14 14 (627200)
I0925 16:13:17.306960  3006 net.cpp:137] Memory required for data: 761107600
I0925 16:13:17.306965  3006 layer_factory.hpp:77] Creating layer Scale37
I0925 16:13:17.306968  3006 net.cpp:84] Creating Layer Scale37
I0925 16:13:17.306972  3006 net.cpp:406] Scale37 <- Convolution37
I0925 16:13:17.306974  3006 net.cpp:367] Scale37 -> Convolution37 (in-place)
I0925 16:13:17.307001  3006 layer_factory.hpp:77] Creating layer Scale37
I0925 16:13:17.307080  3006 net.cpp:122] Setting up Scale37
I0925 16:13:17.307085  3006 net.cpp:129] Top shape: 100 32 14 14 (627200)
I0925 16:13:17.307087  3006 net.cpp:137] Memory required for data: 763616400
I0925 16:13:17.307090  3006 layer_factory.hpp:77] Creating layer penlu36
I0925 16:13:17.307096  3006 net.cpp:84] Creating Layer penlu36
I0925 16:13:17.307098  3006 net.cpp:406] penlu36 <- Convolution37
I0925 16:13:17.307102  3006 net.cpp:367] penlu36 -> Convolution37 (in-place)
I0925 16:13:17.307212  3006 net.cpp:122] Setting up penlu36
I0925 16:13:17.307216  3006 net.cpp:129] Top shape: 100 32 14 14 (627200)
I0925 16:13:17.307224  3006 net.cpp:137] Memory required for data: 766125200
I0925 16:13:17.307229  3006 layer_factory.hpp:77] Creating layer Convolution38
I0925 16:13:17.307236  3006 net.cpp:84] Creating Layer Convolution38
I0925 16:13:17.307240  3006 net.cpp:406] Convolution38 <- Convolution37
I0925 16:13:17.307243  3006 net.cpp:380] Convolution38 -> Convolution38
I0925 16:13:17.308300  3006 net.cpp:122] Setting up Convolution38
I0925 16:13:17.308307  3006 net.cpp:129] Top shape: 100 32 14 14 (627200)
I0925 16:13:17.308310  3006 net.cpp:137] Memory required for data: 768634000
I0925 16:13:17.308315  3006 layer_factory.hpp:77] Creating layer BatchNorm38
I0925 16:13:17.308320  3006 net.cpp:84] Creating Layer BatchNorm38
I0925 16:13:17.308322  3006 net.cpp:406] BatchNorm38 <- Convolution38
I0925 16:13:17.308326  3006 net.cpp:367] BatchNorm38 -> Convolution38 (in-place)
I0925 16:13:17.308464  3006 net.cpp:122] Setting up BatchNorm38
I0925 16:13:17.308467  3006 net.cpp:129] Top shape: 100 32 14 14 (627200)
I0925 16:13:17.308470  3006 net.cpp:137] Memory required for data: 771142800
I0925 16:13:17.308475  3006 layer_factory.hpp:77] Creating layer Scale38
I0925 16:13:17.308480  3006 net.cpp:84] Creating Layer Scale38
I0925 16:13:17.308481  3006 net.cpp:406] Scale38 <- Convolution38
I0925 16:13:17.308485  3006 net.cpp:367] Scale38 -> Convolution38 (in-place)
I0925 16:13:17.308522  3006 layer_factory.hpp:77] Creating layer Scale38
I0925 16:13:17.308603  3006 net.cpp:122] Setting up Scale38
I0925 16:13:17.308606  3006 net.cpp:129] Top shape: 100 32 14 14 (627200)
I0925 16:13:17.308609  3006 net.cpp:137] Memory required for data: 773651600
I0925 16:13:17.308612  3006 layer_factory.hpp:77] Creating layer Eltwise18
I0925 16:13:17.308616  3006 net.cpp:84] Creating Layer Eltwise18
I0925 16:13:17.308619  3006 net.cpp:406] Eltwise18 <- Eltwise17_penlu35_0_split_1
I0925 16:13:17.308622  3006 net.cpp:406] Eltwise18 <- Convolution38
I0925 16:13:17.308626  3006 net.cpp:380] Eltwise18 -> Eltwise18
I0925 16:13:17.308641  3006 net.cpp:122] Setting up Eltwise18
I0925 16:13:17.308653  3006 net.cpp:129] Top shape: 100 32 14 14 (627200)
I0925 16:13:17.308656  3006 net.cpp:137] Memory required for data: 776160400
I0925 16:13:17.308658  3006 layer_factory.hpp:77] Creating layer penlu37
I0925 16:13:17.308665  3006 net.cpp:84] Creating Layer penlu37
I0925 16:13:17.308667  3006 net.cpp:406] penlu37 <- Eltwise18
I0925 16:13:17.308671  3006 net.cpp:367] penlu37 -> Eltwise18 (in-place)
I0925 16:13:17.308789  3006 net.cpp:122] Setting up penlu37
I0925 16:13:17.308794  3006 net.cpp:129] Top shape: 100 32 14 14 (627200)
I0925 16:13:17.308796  3006 net.cpp:137] Memory required for data: 778669200
I0925 16:13:17.308801  3006 layer_factory.hpp:77] Creating layer Eltwise18_penlu37_0_split
I0925 16:13:17.308805  3006 net.cpp:84] Creating Layer Eltwise18_penlu37_0_split
I0925 16:13:17.308807  3006 net.cpp:406] Eltwise18_penlu37_0_split <- Eltwise18
I0925 16:13:17.308811  3006 net.cpp:380] Eltwise18_penlu37_0_split -> Eltwise18_penlu37_0_split_0
I0925 16:13:17.308816  3006 net.cpp:380] Eltwise18_penlu37_0_split -> Eltwise18_penlu37_0_split_1
I0925 16:13:17.308841  3006 net.cpp:122] Setting up Eltwise18_penlu37_0_split
I0925 16:13:17.308845  3006 net.cpp:129] Top shape: 100 32 14 14 (627200)
I0925 16:13:17.308848  3006 net.cpp:129] Top shape: 100 32 14 14 (627200)
I0925 16:13:17.308851  3006 net.cpp:137] Memory required for data: 783686800
I0925 16:13:17.308852  3006 layer_factory.hpp:77] Creating layer Convolution39
I0925 16:13:17.308859  3006 net.cpp:84] Creating Layer Convolution39
I0925 16:13:17.308862  3006 net.cpp:406] Convolution39 <- Eltwise18_penlu37_0_split_0
I0925 16:13:17.308866  3006 net.cpp:380] Convolution39 -> Convolution39
I0925 16:13:17.309825  3006 net.cpp:122] Setting up Convolution39
I0925 16:13:17.309834  3006 net.cpp:129] Top shape: 100 64 7 7 (313600)
I0925 16:13:17.309836  3006 net.cpp:137] Memory required for data: 784941200
I0925 16:13:17.309840  3006 layer_factory.hpp:77] Creating layer BatchNorm39
I0925 16:13:17.309852  3006 net.cpp:84] Creating Layer BatchNorm39
I0925 16:13:17.309855  3006 net.cpp:406] BatchNorm39 <- Convolution39
I0925 16:13:17.309859  3006 net.cpp:367] BatchNorm39 -> Convolution39 (in-place)
I0925 16:13:17.310024  3006 net.cpp:122] Setting up BatchNorm39
I0925 16:13:17.310029  3006 net.cpp:129] Top shape: 100 64 7 7 (313600)
I0925 16:13:17.310031  3006 net.cpp:137] Memory required for data: 786195600
I0925 16:13:17.310036  3006 layer_factory.hpp:77] Creating layer Scale39
I0925 16:13:17.310041  3006 net.cpp:84] Creating Layer Scale39
I0925 16:13:17.310044  3006 net.cpp:406] Scale39 <- Convolution39
I0925 16:13:17.310046  3006 net.cpp:367] Scale39 -> Convolution39 (in-place)
I0925 16:13:17.310073  3006 layer_factory.hpp:77] Creating layer Scale39
I0925 16:13:17.310151  3006 net.cpp:122] Setting up Scale39
I0925 16:13:17.310156  3006 net.cpp:129] Top shape: 100 64 7 7 (313600)
I0925 16:13:17.310158  3006 net.cpp:137] Memory required for data: 787450000
I0925 16:13:17.310163  3006 layer_factory.hpp:77] Creating layer Convolution40
I0925 16:13:17.310168  3006 net.cpp:84] Creating Layer Convolution40
I0925 16:13:17.310171  3006 net.cpp:406] Convolution40 <- Eltwise18_penlu37_0_split_1
I0925 16:13:17.310176  3006 net.cpp:380] Convolution40 -> Convolution40
I0925 16:13:17.311904  3006 net.cpp:122] Setting up Convolution40
I0925 16:13:17.311913  3006 net.cpp:129] Top shape: 100 64 7 7 (313600)
I0925 16:13:17.311916  3006 net.cpp:137] Memory required for data: 788704400
I0925 16:13:17.311920  3006 layer_factory.hpp:77] Creating layer BatchNorm40
I0925 16:13:17.311926  3006 net.cpp:84] Creating Layer BatchNorm40
I0925 16:13:17.311929  3006 net.cpp:406] BatchNorm40 <- Convolution40
I0925 16:13:17.311933  3006 net.cpp:367] BatchNorm40 -> Convolution40 (in-place)
I0925 16:13:17.312068  3006 net.cpp:122] Setting up BatchNorm40
I0925 16:13:17.312072  3006 net.cpp:129] Top shape: 100 64 7 7 (313600)
I0925 16:13:17.312074  3006 net.cpp:137] Memory required for data: 789958800
I0925 16:13:17.312080  3006 layer_factory.hpp:77] Creating layer Scale40
I0925 16:13:17.312084  3006 net.cpp:84] Creating Layer Scale40
I0925 16:13:17.312086  3006 net.cpp:406] Scale40 <- Convolution40
I0925 16:13:17.312089  3006 net.cpp:367] Scale40 -> Convolution40 (in-place)
I0925 16:13:17.312116  3006 layer_factory.hpp:77] Creating layer Scale40
I0925 16:13:17.312194  3006 net.cpp:122] Setting up Scale40
I0925 16:13:17.312198  3006 net.cpp:129] Top shape: 100 64 7 7 (313600)
I0925 16:13:17.312201  3006 net.cpp:137] Memory required for data: 791213200
I0925 16:13:17.312204  3006 layer_factory.hpp:77] Creating layer penlu38
I0925 16:13:17.312209  3006 net.cpp:84] Creating Layer penlu38
I0925 16:13:17.312212  3006 net.cpp:406] penlu38 <- Convolution40
I0925 16:13:17.312216  3006 net.cpp:367] penlu38 -> Convolution40 (in-place)
I0925 16:13:17.312321  3006 net.cpp:122] Setting up penlu38
I0925 16:13:17.312326  3006 net.cpp:129] Top shape: 100 64 7 7 (313600)
I0925 16:13:17.312328  3006 net.cpp:137] Memory required for data: 792467600
I0925 16:13:17.312332  3006 layer_factory.hpp:77] Creating layer Convolution41
I0925 16:13:17.312340  3006 net.cpp:84] Creating Layer Convolution41
I0925 16:13:17.312341  3006 net.cpp:406] Convolution41 <- Convolution40
I0925 16:13:17.312345  3006 net.cpp:380] Convolution41 -> Convolution41
I0925 16:13:17.314437  3006 net.cpp:122] Setting up Convolution41
I0925 16:13:17.314446  3006 net.cpp:129] Top shape: 100 64 7 7 (313600)
I0925 16:13:17.314450  3006 net.cpp:137] Memory required for data: 793722000
I0925 16:13:17.314455  3006 layer_factory.hpp:77] Creating layer BatchNorm41
I0925 16:13:17.314460  3006 net.cpp:84] Creating Layer BatchNorm41
I0925 16:13:17.314462  3006 net.cpp:406] BatchNorm41 <- Convolution41
I0925 16:13:17.314467  3006 net.cpp:367] BatchNorm41 -> Convolution41 (in-place)
I0925 16:13:17.314682  3006 net.cpp:122] Setting up BatchNorm41
I0925 16:13:17.314689  3006 net.cpp:129] Top shape: 100 64 7 7 (313600)
I0925 16:13:17.314692  3006 net.cpp:137] Memory required for data: 794976400
I0925 16:13:17.314697  3006 layer_factory.hpp:77] Creating layer Scale41
I0925 16:13:17.314719  3006 net.cpp:84] Creating Layer Scale41
I0925 16:13:17.314733  3006 net.cpp:406] Scale41 <- Convolution41
I0925 16:13:17.314736  3006 net.cpp:367] Scale41 -> Convolution41 (in-place)
I0925 16:13:17.314787  3006 layer_factory.hpp:77] Creating layer Scale41
I0925 16:13:17.314867  3006 net.cpp:122] Setting up Scale41
I0925 16:13:17.314872  3006 net.cpp:129] Top shape: 100 64 7 7 (313600)
I0925 16:13:17.314874  3006 net.cpp:137] Memory required for data: 796230800
I0925 16:13:17.314878  3006 layer_factory.hpp:77] Creating layer Eltwise19
I0925 16:13:17.314882  3006 net.cpp:84] Creating Layer Eltwise19
I0925 16:13:17.314885  3006 net.cpp:406] Eltwise19 <- Convolution39
I0925 16:13:17.314888  3006 net.cpp:406] Eltwise19 <- Convolution41
I0925 16:13:17.314891  3006 net.cpp:380] Eltwise19 -> Eltwise19
I0925 16:13:17.314908  3006 net.cpp:122] Setting up Eltwise19
I0925 16:13:17.314913  3006 net.cpp:129] Top shape: 100 64 7 7 (313600)
I0925 16:13:17.314914  3006 net.cpp:137] Memory required for data: 797485200
I0925 16:13:17.314916  3006 layer_factory.hpp:77] Creating layer penlu39
I0925 16:13:17.314921  3006 net.cpp:84] Creating Layer penlu39
I0925 16:13:17.314924  3006 net.cpp:406] penlu39 <- Eltwise19
I0925 16:13:17.314929  3006 net.cpp:367] penlu39 -> Eltwise19 (in-place)
I0925 16:13:17.315040  3006 net.cpp:122] Setting up penlu39
I0925 16:13:17.315044  3006 net.cpp:129] Top shape: 100 64 7 7 (313600)
I0925 16:13:17.315047  3006 net.cpp:137] Memory required for data: 798739600
I0925 16:13:17.315052  3006 layer_factory.hpp:77] Creating layer Eltwise19_penlu39_0_split
I0925 16:13:17.315054  3006 net.cpp:84] Creating Layer Eltwise19_penlu39_0_split
I0925 16:13:17.315057  3006 net.cpp:406] Eltwise19_penlu39_0_split <- Eltwise19
I0925 16:13:17.315060  3006 net.cpp:380] Eltwise19_penlu39_0_split -> Eltwise19_penlu39_0_split_0
I0925 16:13:17.315064  3006 net.cpp:380] Eltwise19_penlu39_0_split -> Eltwise19_penlu39_0_split_1
I0925 16:13:17.315088  3006 net.cpp:122] Setting up Eltwise19_penlu39_0_split
I0925 16:13:17.315091  3006 net.cpp:129] Top shape: 100 64 7 7 (313600)
I0925 16:13:17.315104  3006 net.cpp:129] Top shape: 100 64 7 7 (313600)
I0925 16:13:17.315105  3006 net.cpp:137] Memory required for data: 801248400
I0925 16:13:17.315107  3006 layer_factory.hpp:77] Creating layer Convolution42
I0925 16:13:17.315114  3006 net.cpp:84] Creating Layer Convolution42
I0925 16:13:17.315116  3006 net.cpp:406] Convolution42 <- Eltwise19_penlu39_0_split_0
I0925 16:13:17.315130  3006 net.cpp:380] Convolution42 -> Convolution42
I0925 16:13:17.316984  3006 net.cpp:122] Setting up Convolution42
I0925 16:13:17.317003  3006 net.cpp:129] Top shape: 100 64 7 7 (313600)
I0925 16:13:17.317008  3006 net.cpp:137] Memory required for data: 802502800
I0925 16:13:17.317013  3006 layer_factory.hpp:77] Creating layer BatchNorm42
I0925 16:13:17.317016  3006 net.cpp:84] Creating Layer BatchNorm42
I0925 16:13:17.317019  3006 net.cpp:406] BatchNorm42 <- Convolution42
I0925 16:13:17.317024  3006 net.cpp:367] BatchNorm42 -> Convolution42 (in-place)
I0925 16:13:17.317172  3006 net.cpp:122] Setting up BatchNorm42
I0925 16:13:17.317176  3006 net.cpp:129] Top shape: 100 64 7 7 (313600)
I0925 16:13:17.317178  3006 net.cpp:137] Memory required for data: 803757200
I0925 16:13:17.317183  3006 layer_factory.hpp:77] Creating layer Scale42
I0925 16:13:17.317188  3006 net.cpp:84] Creating Layer Scale42
I0925 16:13:17.317189  3006 net.cpp:406] Scale42 <- Convolution42
I0925 16:13:17.317193  3006 net.cpp:367] Scale42 -> Convolution42 (in-place)
I0925 16:13:17.317220  3006 layer_factory.hpp:77] Creating layer Scale42
I0925 16:13:17.317302  3006 net.cpp:122] Setting up Scale42
I0925 16:13:17.317307  3006 net.cpp:129] Top shape: 100 64 7 7 (313600)
I0925 16:13:17.317309  3006 net.cpp:137] Memory required for data: 805011600
I0925 16:13:17.317313  3006 layer_factory.hpp:77] Creating layer penlu40
I0925 16:13:17.317317  3006 net.cpp:84] Creating Layer penlu40
I0925 16:13:17.317319  3006 net.cpp:406] penlu40 <- Convolution42
I0925 16:13:17.317330  3006 net.cpp:367] penlu40 -> Convolution42 (in-place)
I0925 16:13:17.317443  3006 net.cpp:122] Setting up penlu40
I0925 16:13:17.317448  3006 net.cpp:129] Top shape: 100 64 7 7 (313600)
I0925 16:13:17.317451  3006 net.cpp:137] Memory required for data: 806266000
I0925 16:13:17.317456  3006 layer_factory.hpp:77] Creating layer Convolution43
I0925 16:13:17.317461  3006 net.cpp:84] Creating Layer Convolution43
I0925 16:13:17.317463  3006 net.cpp:406] Convolution43 <- Convolution42
I0925 16:13:17.317468  3006 net.cpp:380] Convolution43 -> Convolution43
I0925 16:13:17.319715  3006 net.cpp:122] Setting up Convolution43
I0925 16:13:17.319722  3006 net.cpp:129] Top shape: 100 64 7 7 (313600)
I0925 16:13:17.319725  3006 net.cpp:137] Memory required for data: 807520400
I0925 16:13:17.319730  3006 layer_factory.hpp:77] Creating layer BatchNorm43
I0925 16:13:17.319735  3006 net.cpp:84] Creating Layer BatchNorm43
I0925 16:13:17.319737  3006 net.cpp:406] BatchNorm43 <- Convolution43
I0925 16:13:17.319741  3006 net.cpp:367] BatchNorm43 -> Convolution43 (in-place)
I0925 16:13:17.319885  3006 net.cpp:122] Setting up BatchNorm43
I0925 16:13:17.319890  3006 net.cpp:129] Top shape: 100 64 7 7 (313600)
I0925 16:13:17.319891  3006 net.cpp:137] Memory required for data: 808774800
I0925 16:13:17.319896  3006 layer_factory.hpp:77] Creating layer Scale43
I0925 16:13:17.319900  3006 net.cpp:84] Creating Layer Scale43
I0925 16:13:17.319902  3006 net.cpp:406] Scale43 <- Convolution43
I0925 16:13:17.319906  3006 net.cpp:367] Scale43 -> Convolution43 (in-place)
I0925 16:13:17.319933  3006 layer_factory.hpp:77] Creating layer Scale43
I0925 16:13:17.320014  3006 net.cpp:122] Setting up Scale43
I0925 16:13:17.320019  3006 net.cpp:129] Top shape: 100 64 7 7 (313600)
I0925 16:13:17.320020  3006 net.cpp:137] Memory required for data: 810029200
I0925 16:13:17.320024  3006 layer_factory.hpp:77] Creating layer Eltwise20
I0925 16:13:17.320029  3006 net.cpp:84] Creating Layer Eltwise20
I0925 16:13:17.320031  3006 net.cpp:406] Eltwise20 <- Eltwise19_penlu39_0_split_1
I0925 16:13:17.320034  3006 net.cpp:406] Eltwise20 <- Convolution43
I0925 16:13:17.320037  3006 net.cpp:380] Eltwise20 -> Eltwise20
I0925 16:13:17.320055  3006 net.cpp:122] Setting up Eltwise20
I0925 16:13:17.320058  3006 net.cpp:129] Top shape: 100 64 7 7 (313600)
I0925 16:13:17.320060  3006 net.cpp:137] Memory required for data: 811283600
I0925 16:13:17.320062  3006 layer_factory.hpp:77] Creating layer penlu41
I0925 16:13:17.320067  3006 net.cpp:84] Creating Layer penlu41
I0925 16:13:17.320070  3006 net.cpp:406] penlu41 <- Eltwise20
I0925 16:13:17.320073  3006 net.cpp:367] penlu41 -> Eltwise20 (in-place)
I0925 16:13:17.320188  3006 net.cpp:122] Setting up penlu41
I0925 16:13:17.320191  3006 net.cpp:129] Top shape: 100 64 7 7 (313600)
I0925 16:13:17.320194  3006 net.cpp:137] Memory required for data: 812538000
I0925 16:13:17.320197  3006 layer_factory.hpp:77] Creating layer Eltwise20_penlu41_0_split
I0925 16:13:17.320201  3006 net.cpp:84] Creating Layer Eltwise20_penlu41_0_split
I0925 16:13:17.320204  3006 net.cpp:406] Eltwise20_penlu41_0_split <- Eltwise20
I0925 16:13:17.320206  3006 net.cpp:380] Eltwise20_penlu41_0_split -> Eltwise20_penlu41_0_split_0
I0925 16:13:17.320210  3006 net.cpp:380] Eltwise20_penlu41_0_split -> Eltwise20_penlu41_0_split_1
I0925 16:13:17.320235  3006 net.cpp:122] Setting up Eltwise20_penlu41_0_split
I0925 16:13:17.320238  3006 net.cpp:129] Top shape: 100 64 7 7 (313600)
I0925 16:13:17.320241  3006 net.cpp:129] Top shape: 100 64 7 7 (313600)
I0925 16:13:17.320243  3006 net.cpp:137] Memory required for data: 815046800
I0925 16:13:17.320245  3006 layer_factory.hpp:77] Creating layer Convolution44
I0925 16:13:17.320251  3006 net.cpp:84] Creating Layer Convolution44
I0925 16:13:17.320253  3006 net.cpp:406] Convolution44 <- Eltwise20_penlu41_0_split_0
I0925 16:13:17.320257  3006 net.cpp:380] Convolution44 -> Convolution44
I0925 16:13:17.321931  3006 net.cpp:122] Setting up Convolution44
I0925 16:13:17.321939  3006 net.cpp:129] Top shape: 100 64 7 7 (313600)
I0925 16:13:17.321949  3006 net.cpp:137] Memory required for data: 816301200
I0925 16:13:17.321954  3006 layer_factory.hpp:77] Creating layer BatchNorm44
I0925 16:13:17.321959  3006 net.cpp:84] Creating Layer BatchNorm44
I0925 16:13:17.321962  3006 net.cpp:406] BatchNorm44 <- Convolution44
I0925 16:13:17.321965  3006 net.cpp:367] BatchNorm44 -> Convolution44 (in-place)
I0925 16:13:17.322106  3006 net.cpp:122] Setting up BatchNorm44
I0925 16:13:17.322111  3006 net.cpp:129] Top shape: 100 64 7 7 (313600)
I0925 16:13:17.322113  3006 net.cpp:137] Memory required for data: 817555600
I0925 16:13:17.322118  3006 layer_factory.hpp:77] Creating layer Scale44
I0925 16:13:17.322121  3006 net.cpp:84] Creating Layer Scale44
I0925 16:13:17.322124  3006 net.cpp:406] Scale44 <- Convolution44
I0925 16:13:17.322129  3006 net.cpp:367] Scale44 -> Convolution44 (in-place)
I0925 16:13:17.322155  3006 layer_factory.hpp:77] Creating layer Scale44
I0925 16:13:17.322235  3006 net.cpp:122] Setting up Scale44
I0925 16:13:17.322240  3006 net.cpp:129] Top shape: 100 64 7 7 (313600)
I0925 16:13:17.322242  3006 net.cpp:137] Memory required for data: 818810000
I0925 16:13:17.322247  3006 layer_factory.hpp:77] Creating layer penlu42
I0925 16:13:17.322252  3006 net.cpp:84] Creating Layer penlu42
I0925 16:13:17.322254  3006 net.cpp:406] penlu42 <- Convolution44
I0925 16:13:17.322258  3006 net.cpp:367] penlu42 -> Convolution44 (in-place)
I0925 16:13:17.322369  3006 net.cpp:122] Setting up penlu42
I0925 16:13:17.322373  3006 net.cpp:129] Top shape: 100 64 7 7 (313600)
I0925 16:13:17.322376  3006 net.cpp:137] Memory required for data: 820064400
I0925 16:13:17.322379  3006 layer_factory.hpp:77] Creating layer Convolution45
I0925 16:13:17.322387  3006 net.cpp:84] Creating Layer Convolution45
I0925 16:13:17.322389  3006 net.cpp:406] Convolution45 <- Convolution44
I0925 16:13:17.322393  3006 net.cpp:380] Convolution45 -> Convolution45
I0925 16:13:17.324379  3006 net.cpp:122] Setting up Convolution45
I0925 16:13:17.324388  3006 net.cpp:129] Top shape: 100 64 7 7 (313600)
I0925 16:13:17.324390  3006 net.cpp:137] Memory required for data: 821318800
I0925 16:13:17.324394  3006 layer_factory.hpp:77] Creating layer BatchNorm45
I0925 16:13:17.324399  3006 net.cpp:84] Creating Layer BatchNorm45
I0925 16:13:17.324403  3006 net.cpp:406] BatchNorm45 <- Convolution45
I0925 16:13:17.324406  3006 net.cpp:367] BatchNorm45 -> Convolution45 (in-place)
I0925 16:13:17.324563  3006 net.cpp:122] Setting up BatchNorm45
I0925 16:13:17.324569  3006 net.cpp:129] Top shape: 100 64 7 7 (313600)
I0925 16:13:17.324571  3006 net.cpp:137] Memory required for data: 822573200
I0925 16:13:17.324576  3006 layer_factory.hpp:77] Creating layer Scale45
I0925 16:13:17.324580  3006 net.cpp:84] Creating Layer Scale45
I0925 16:13:17.324584  3006 net.cpp:406] Scale45 <- Convolution45
I0925 16:13:17.324586  3006 net.cpp:367] Scale45 -> Convolution45 (in-place)
I0925 16:13:17.324616  3006 layer_factory.hpp:77] Creating layer Scale45
I0925 16:13:17.324708  3006 net.cpp:122] Setting up Scale45
I0925 16:13:17.324712  3006 net.cpp:129] Top shape: 100 64 7 7 (313600)
I0925 16:13:17.324714  3006 net.cpp:137] Memory required for data: 823827600
I0925 16:13:17.324718  3006 layer_factory.hpp:77] Creating layer Eltwise21
I0925 16:13:17.324723  3006 net.cpp:84] Creating Layer Eltwise21
I0925 16:13:17.324725  3006 net.cpp:406] Eltwise21 <- Eltwise20_penlu41_0_split_1
I0925 16:13:17.324728  3006 net.cpp:406] Eltwise21 <- Convolution45
I0925 16:13:17.324731  3006 net.cpp:380] Eltwise21 -> Eltwise21
I0925 16:13:17.324749  3006 net.cpp:122] Setting up Eltwise21
…
I0925 16:13:17.685585  3006 net.cpp:137] Memory required for data: 1030145200
I0925 16:13:17.685590  3006 layer_factory.hpp:77] Creating layer BatchNorm40
I0925 16:13:17.685597  3006 net.cpp:84] Creating Layer BatchNorm40
I0925 16:13:17.685601  3006 net.cpp:406] BatchNorm40 <- Convolution40
I0925 16:13:17.685606  3006 net.cpp:367] BatchNorm40 -> Convolution40 (in-place)
I0925 16:13:17.685750  3006 net.cpp:122] Setting up BatchNorm40
I0925 16:13:17.685755  3006 net.cpp:129] Top shape: 100 64 8 8 (409600)
I0925 16:13:17.685757  3006 net.cpp:137] Memory required for data: 1031783600
I0925 16:13:17.685762  3006 layer_factory.hpp:77] Creating layer Scale40
I0925 16:13:17.685767  3006 net.cpp:84] Creating Layer Scale40
I0925 16:13:17.685770  3006 net.cpp:406] Scale40 <- Convolution40
I0925 16:13:17.685773  3006 net.cpp:367] Scale40 -> Convolution40 (in-place)
I0925 16:13:17.685806  3006 layer_factory.hpp:77] Creating layer Scale40
I0925 16:13:17.685886  3006 net.cpp:122] Setting up Scale40
I0925 16:13:17.685890  3006 net.cpp:129] Top shape: 100 64 8 8 (409600)
I0925 16:13:17.685894  3006 net.cpp:137] Memory required for data: 1033422000
I0925 16:13:17.685896  3006 layer_factory.hpp:77] Creating layer penlu38
I0925 16:13:17.685904  3006 net.cpp:84] Creating Layer penlu38
I0925 16:13:17.685906  3006 net.cpp:406] penlu38 <- Convolution40
I0925 16:13:17.685909  3006 net.cpp:367] penlu38 -> Convolution40 (in-place)
I0925 16:13:17.686034  3006 net.cpp:122] Setting up penlu38
I0925 16:13:17.686039  3006 net.cpp:129] Top shape: 100 64 8 8 (409600)
I0925 16:13:17.686041  3006 net.cpp:137] Memory required for data: 1035060400
I0925 16:13:17.686045  3006 layer_factory.hpp:77] Creating layer Convolution41
I0925 16:13:17.686053  3006 net.cpp:84] Creating Layer Convolution41
I0925 16:13:17.686056  3006 net.cpp:406] Convolution41 <- Convolution40
I0925 16:13:17.686060  3006 net.cpp:380] Convolution41 -> Convolution41
I0925 16:13:17.687867  3006 net.cpp:122] Setting up Convolution41
I0925 16:13:17.687876  3006 net.cpp:129] Top shape: 100 64 8 8 (409600)
I0925 16:13:17.687880  3006 net.cpp:137] Memory required for data: 1036698800
I0925 16:13:17.687885  3006 layer_factory.hpp:77] Creating layer BatchNorm41
I0925 16:13:17.687889  3006 net.cpp:84] Creating Layer BatchNorm41
I0925 16:13:17.687892  3006 net.cpp:406] BatchNorm41 <- Convolution41
I0925 16:13:17.687911  3006 net.cpp:367] BatchNorm41 -> Convolution41 (in-place)
I0925 16:13:17.688050  3006 net.cpp:122] Setting up BatchNorm41
I0925 16:13:17.688055  3006 net.cpp:129] Top shape: 100 64 8 8 (409600)
I0925 16:13:17.688056  3006 net.cpp:137] Memory required for data: 1038337200
I0925 16:13:17.688061  3006 layer_factory.hpp:77] Creating layer Scale41
I0925 16:13:17.688066  3006 net.cpp:84] Creating Layer Scale41
I0925 16:13:17.688068  3006 net.cpp:406] Scale41 <- Convolution41
I0925 16:13:17.688071  3006 net.cpp:367] Scale41 -> Convolution41 (in-place)
I0925 16:13:17.688100  3006 layer_factory.hpp:77] Creating layer Scale41
I0925 16:13:17.688181  3006 net.cpp:122] Setting up Scale41
I0925 16:13:17.688185  3006 net.cpp:129] Top shape: 100 64 8 8 (409600)
I0925 16:13:17.688189  3006 net.cpp:137] Memory required for data: 1039975600
I0925 16:13:17.688191  3006 layer_factory.hpp:77] Creating layer Eltwise19
I0925 16:13:17.688197  3006 net.cpp:84] Creating Layer Eltwise19
I0925 16:13:17.688200  3006 net.cpp:406] Eltwise19 <- Convolution39
I0925 16:13:17.688204  3006 net.cpp:406] Eltwise19 <- Convolution41
I0925 16:13:17.688207  3006 net.cpp:380] Eltwise19 -> Eltwise19
I0925 16:13:17.688226  3006 net.cpp:122] Setting up Eltwise19
I0925 16:13:17.688230  3006 net.cpp:129] Top shape: 100 64 8 8 (409600)
I0925 16:13:17.688232  3006 net.cpp:137] Memory required for data: 1041614000
I0925 16:13:17.688235  3006 layer_factory.hpp:77] Creating layer penlu39
I0925 16:13:17.688241  3006 net.cpp:84] Creating Layer penlu39
I0925 16:13:17.688242  3006 net.cpp:406] penlu39 <- Eltwise19
I0925 16:13:17.688246  3006 net.cpp:367] penlu39 -> Eltwise19 (in-place)
I0925 16:13:17.688367  3006 net.cpp:122] Setting up penlu39
I0925 16:13:17.688372  3006 net.cpp:129] Top shape: 100 64 8 8 (409600)
I0925 16:13:17.688374  3006 net.cpp:137] Memory required for data: 1043252400
I0925 16:13:17.688379  3006 layer_factory.hpp:77] Creating layer Eltwise19_penlu39_0_split
I0925 16:13:17.688382  3006 net.cpp:84] Creating Layer Eltwise19_penlu39_0_split
I0925 16:13:17.688385  3006 net.cpp:406] Eltwise19_penlu39_0_split <- Eltwise19
I0925 16:13:17.688388  3006 net.cpp:380] Eltwise19_penlu39_0_split -> Eltwise19_penlu39_0_split_0
I0925 16:13:17.688392  3006 net.cpp:380] Eltwise19_penlu39_0_split -> Eltwise19_penlu39_0_split_1
I0925 16:13:17.688418  3006 net.cpp:122] Setting up Eltwise19_penlu39_0_split
I0925 16:13:17.688422  3006 net.cpp:129] Top shape: 100 64 8 8 (409600)
I0925 16:13:17.688426  3006 net.cpp:129] Top shape: 100 64 8 8 (409600)
I0925 16:13:17.688427  3006 net.cpp:137] Memory required for data: 1046529200
I0925 16:13:17.688429  3006 layer_factory.hpp:77] Creating layer Convolution42
I0925 16:13:17.688436  3006 net.cpp:84] Creating Layer Convolution42
I0925 16:13:17.688439  3006 net.cpp:406] Convolution42 <- Eltwise19_penlu39_0_split_0
I0925 16:13:17.688443  3006 net.cpp:380] Convolution42 -> Convolution42
I0925 16:13:17.690301  3006 net.cpp:122] Setting up Convolution42
I0925 16:13:17.690312  3006 net.cpp:129] Top shape: 100 64 8 8 (409600)
I0925 16:13:17.690315  3006 net.cpp:137] Memory required for data: 1048167600
I0925 16:13:17.690320  3006 layer_factory.hpp:77] Creating layer BatchNorm42
I0925 16:13:17.690325  3006 net.cpp:84] Creating Layer BatchNorm42
I0925 16:13:17.690327  3006 net.cpp:406] BatchNorm42 <- Convolution42
I0925 16:13:17.690331  3006 net.cpp:367] BatchNorm42 -> Convolution42 (in-place)
I0925 16:13:17.690469  3006 net.cpp:122] Setting up BatchNorm42
I0925 16:13:17.690474  3006 net.cpp:129] Top shape: 100 64 8 8 (409600)
I0925 16:13:17.690476  3006 net.cpp:137] Memory required for data: 1049806000
I0925 16:13:17.690481  3006 layer_factory.hpp:77] Creating layer Scale42
I0925 16:13:17.690485  3006 net.cpp:84] Creating Layer Scale42
I0925 16:13:17.690488  3006 net.cpp:406] Scale42 <- Convolution42
I0925 16:13:17.690492  3006 net.cpp:367] Scale42 -> Convolution42 (in-place)
I0925 16:13:17.690521  3006 layer_factory.hpp:77] Creating layer Scale42
I0925 16:13:17.690603  3006 net.cpp:122] Setting up Scale42
I0925 16:13:17.690606  3006 net.cpp:129] Top shape: 100 64 8 8 (409600)
I0925 16:13:17.690619  3006 net.cpp:137] Memory required for data: 1051444400
I0925 16:13:17.690623  3006 layer_factory.hpp:77] Creating layer penlu40
I0925 16:13:17.690629  3006 net.cpp:84] Creating Layer penlu40
I0925 16:13:17.690632  3006 net.cpp:406] penlu40 <- Convolution42
I0925 16:13:17.690636  3006 net.cpp:367] penlu40 -> Convolution42 (in-place)
I0925 16:13:17.690755  3006 net.cpp:122] Setting up penlu40
I0925 16:13:17.690760  3006 net.cpp:129] Top shape: 100 64 8 8 (409600)
I0925 16:13:17.690762  3006 net.cpp:137] Memory required for data: 1053082800
I0925 16:13:17.690768  3006 layer_factory.hpp:77] Creating layer Convolution43
I0925 16:13:17.690773  3006 net.cpp:84] Creating Layer Convolution43
I0925 16:13:17.690776  3006 net.cpp:406] Convolution43 <- Convolution42
I0925 16:13:17.690780  3006 net.cpp:380] Convolution43 -> Convolution43
I0925 16:13:17.692555  3006 net.cpp:122] Setting up Convolution43
I0925 16:13:17.692564  3006 net.cpp:129] Top shape: 100 64 8 8 (409600)
I0925 16:13:17.692566  3006 net.cpp:137] Memory required for data: 1054721200
I0925 16:13:17.692571  3006 layer_factory.hpp:77] Creating layer BatchNorm43
I0925 16:13:17.692575  3006 net.cpp:84] Creating Layer BatchNorm43
I0925 16:13:17.692579  3006 net.cpp:406] BatchNorm43 <- Convolution43
I0925 16:13:17.692584  3006 net.cpp:367] BatchNorm43 -> Convolution43 (in-place)
I0925 16:13:17.692724  3006 net.cpp:122] Setting up BatchNorm43
I0925 16:13:17.692728  3006 net.cpp:129] Top shape: 100 64 8 8 (409600)
I0925 16:13:17.692731  3006 net.cpp:137] Memory required for data: 1056359600
I0925 16:13:17.692735  3006 layer_factory.hpp:77] Creating layer Scale43
I0925 16:13:17.692740  3006 net.cpp:84] Creating Layer Scale43
I0925 16:13:17.692742  3006 net.cpp:406] Scale43 <- Convolution43
I0925 16:13:17.692746  3006 net.cpp:367] Scale43 -> Convolution43 (in-place)
I0925 16:13:17.692773  3006 layer_factory.hpp:77] Creating layer Scale43
I0925 16:13:17.692855  3006 net.cpp:122] Setting up Scale43
I0925 16:13:17.692859  3006 net.cpp:129] Top shape: 100 64 8 8 (409600)
I0925 16:13:17.692862  3006 net.cpp:137] Memory required for data: 1057998000
I0925 16:13:17.692865  3006 layer_factory.hpp:77] Creating layer Eltwise20
I0925 16:13:17.692869  3006 net.cpp:84] Creating Layer Eltwise20
I0925 16:13:17.692873  3006 net.cpp:406] Eltwise20 <- Eltwise19_penlu39_0_split_1
I0925 16:13:17.692875  3006 net.cpp:406] Eltwise20 <- Convolution43
I0925 16:13:17.692880  3006 net.cpp:380] Eltwise20 -> Eltwise20
I0925 16:13:17.692898  3006 net.cpp:122] Setting up Eltwise20
I0925 16:13:17.692903  3006 net.cpp:129] Top shape: 100 64 8 8 (409600)
I0925 16:13:17.692904  3006 net.cpp:137] Memory required for data: 1059636400
I0925 16:13:17.692906  3006 layer_factory.hpp:77] Creating layer penlu41
I0925 16:13:17.692911  3006 net.cpp:84] Creating Layer penlu41
I0925 16:13:17.692914  3006 net.cpp:406] penlu41 <- Eltwise20
I0925 16:13:17.692917  3006 net.cpp:367] penlu41 -> Eltwise20 (in-place)
I0925 16:13:17.693033  3006 net.cpp:122] Setting up penlu41
I0925 16:13:17.693038  3006 net.cpp:129] Top shape: 100 64 8 8 (409600)
I0925 16:13:17.693040  3006 net.cpp:137] Memory required for data: 1061274800
I0925 16:13:17.693044  3006 layer_factory.hpp:77] Creating layer Eltwise20_penlu41_0_split
I0925 16:13:17.693048  3006 net.cpp:84] Creating Layer Eltwise20_penlu41_0_split
I0925 16:13:17.693051  3006 net.cpp:406] Eltwise20_penlu41_0_split <- Eltwise20
I0925 16:13:17.693054  3006 net.cpp:380] Eltwise20_penlu41_0_split -> Eltwise20_penlu41_0_split_0
I0925 16:13:17.693058  3006 net.cpp:380] Eltwise20_penlu41_0_split -> Eltwise20_penlu41_0_split_1
I0925 16:13:17.693083  3006 net.cpp:122] Setting up Eltwise20_penlu41_0_split
I0925 16:13:17.693086  3006 net.cpp:129] Top shape: 100 64 8 8 (409600)
I0925 16:13:17.693089  3006 net.cpp:129] Top shape: 100 64 8 8 (409600)
I0925 16:13:17.693091  3006 net.cpp:137] Memory required for data: 1064551600
I0925 16:13:17.693094  3006 layer_factory.hpp:77] Creating layer Convolution44
I0925 16:13:17.693099  3006 net.cpp:84] Creating Layer Convolution44
I0925 16:13:17.693109  3006 net.cpp:406] Convolution44 <- Eltwise20_penlu41_0_split_0
I0925 16:13:17.693114  3006 net.cpp:380] Convolution44 -> Convolution44
I0925 16:13:17.695181  3006 net.cpp:122] Setting up Convolution44
I0925 16:13:17.695189  3006 net.cpp:129] Top shape: 100 64 8 8 (409600)
I0925 16:13:17.695192  3006 net.cpp:137] Memory required for data: 1066190000
I0925 16:13:17.695197  3006 layer_factory.hpp:77] Creating layer BatchNorm44
I0925 16:13:17.695202  3006 net.cpp:84] Creating Layer BatchNorm44
I0925 16:13:17.695205  3006 net.cpp:406] BatchNorm44 <- Convolution44
I0925 16:13:17.695209  3006 net.cpp:367] BatchNorm44 -> Convolution44 (in-place)
I0925 16:13:17.695353  3006 net.cpp:122] Setting up BatchNorm44
I0925 16:13:17.695358  3006 net.cpp:129] Top shape: 100 64 8 8 (409600)
I0925 16:13:17.695359  3006 net.cpp:137] Memory required for data: 1067828400
I0925 16:13:17.695363  3006 layer_factory.hpp:77] Creating layer Scale44
I0925 16:13:17.695367  3006 net.cpp:84] Creating Layer Scale44
I0925 16:13:17.695370  3006 net.cpp:406] Scale44 <- Convolution44
I0925 16:13:17.695374  3006 net.cpp:367] Scale44 -> Convolution44 (in-place)
I0925 16:13:17.695403  3006 layer_factory.hpp:77] Creating layer Scale44
I0925 16:13:17.695482  3006 net.cpp:122] Setting up Scale44
I0925 16:13:17.695487  3006 net.cpp:129] Top shape: 100 64 8 8 (409600)
I0925 16:13:17.695488  3006 net.cpp:137] Memory required for data: 1069466800
I0925 16:13:17.695492  3006 layer_factory.hpp:77] Creating layer penlu42
I0925 16:13:17.695497  3006 net.cpp:84] Creating Layer penlu42
I0925 16:13:17.695500  3006 net.cpp:406] penlu42 <- Convolution44
I0925 16:13:17.695504  3006 net.cpp:367] penlu42 -> Convolution44 (in-place)
I0925 16:13:17.695618  3006 net.cpp:122] Setting up penlu42
I0925 16:13:17.695623  3006 net.cpp:129] Top shape: 100 64 8 8 (409600)
I0925 16:13:17.695626  3006 net.cpp:137] Memory required for data: 1071105200
I0925 16:13:17.695629  3006 layer_factory.hpp:77] Creating layer Convolution45
I0925 16:13:17.695636  3006 net.cpp:84] Creating Layer Convolution45
I0925 16:13:17.695639  3006 net.cpp:406] Convolution45 <- Convolution44
I0925 16:13:17.695643  3006 net.cpp:380] Convolution45 -> Convolution45
I0925 16:13:17.697407  3006 net.cpp:122] Setting up Convolution45
I0925 16:13:17.697415  3006 net.cpp:129] Top shape: 100 64 8 8 (409600)
I0925 16:13:17.697417  3006 net.cpp:137] Memory required for data: 1072743600
I0925 16:13:17.697422  3006 layer_factory.hpp:77] Creating layer BatchNorm45
I0925 16:13:17.697427  3006 net.cpp:84] Creating Layer BatchNorm45
I0925 16:13:17.697430  3006 net.cpp:406] BatchNorm45 <- Convolution45
I0925 16:13:17.697434  3006 net.cpp:367] BatchNorm45 -> Convolution45 (in-place)
I0925 16:13:17.697582  3006 net.cpp:122] Setting up BatchNorm45
I0925 16:13:17.697587  3006 net.cpp:129] Top shape: 100 64 8 8 (409600)
I0925 16:13:17.697589  3006 net.cpp:137] Memory required for data: 1074382000
I0925 16:13:17.697594  3006 layer_factory.hpp:77] Creating layer Scale45
I0925 16:13:17.697598  3006 net.cpp:84] Creating Layer Scale45
I0925 16:13:17.697602  3006 net.cpp:406] Scale45 <- Convolution45
I0925 16:13:17.697604  3006 net.cpp:367] Scale45 -> Convolution45 (in-place)
I0925 16:13:17.697633  3006 layer_factory.hpp:77] Creating layer Scale45
I0925 16:13:17.697711  3006 net.cpp:122] Setting up Scale45
I0925 16:13:17.697716  3006 net.cpp:129] Top shape: 100 64 8 8 (409600)
I0925 16:13:17.697718  3006 net.cpp:137] Memory required for data: 1076020400
I0925 16:13:17.697722  3006 layer_factory.hpp:77] Creating layer Eltwise21
I0925 16:13:17.697726  3006 net.cpp:84] Creating Layer Eltwise21
I0925 16:13:17.697729  3006 net.cpp:406] Eltwise21 <- Eltwise20_penlu41_0_split_1
I0925 16:13:17.697732  3006 net.cpp:406] Eltwise21 <- Convolution45
I0925 16:13:17.697736  3006 net.cpp:380] Eltwise21 -> Eltwise21
I0925 16:13:17.697752  3006 net.cpp:122] Setting up Eltwise21
I0925 16:13:17.697757  3006 net.cpp:129] Top shape: 100 64 8 8 (409600)
I0925 16:13:17.697758  3006 net.cpp:137] Memory required for data: 1077658800
I0925 16:13:17.697767  3006 layer_factory.hpp:77] Creating layer penlu43
I0925 16:13:17.697773  3006 net.cpp:84] Creating Layer penlu43
I0925 16:13:17.697777  3006 net.cpp:406] penlu43 <- Eltwise21
I0925 16:13:17.697779  3006 net.cpp:367] penlu43 -> Eltwise21 (in-place)
I0925 16:13:17.697895  3006 net.cpp:122] Setting up penlu43
I0925 16:13:17.697899  3006 net.cpp:129] Top shape: 100 64 8 8 (409600)
I0925 16:13:17.697901  3006 net.cpp:137] Memory required for data: 1079297200
I0925 16:13:17.697906  3006 layer_factory.hpp:77] Creating layer Eltwise21_penlu43_0_split
I0925 16:13:17.697909  3006 net.cpp:84] Creating Layer Eltwise21_penlu43_0_split
I0925 16:13:17.697911  3006 net.cpp:406] Eltwise21_penlu43_0_split <- Eltwise21
I0925 16:13:17.697914  3006 net.cpp:380] Eltwise21_penlu43_0_split -> Eltwise21_penlu43_0_split_0
I0925 16:13:17.697918  3006 net.cpp:380] Eltwise21_penlu43_0_split -> Eltwise21_penlu43_0_split_1
I0925 16:13:17.697943  3006 net.cpp:122] Setting up Eltwise21_penlu43_0_split
I0925 16:13:17.697947  3006 net.cpp:129] Top shape: 100 64 8 8 (409600)
I0925 16:13:17.697949  3006 net.cpp:129] Top shape: 100 64 8 8 (409600)
I0925 16:13:17.710005  3006 net.cpp:137] Memory required for data: 1082574000
I0925 16:13:17.710016  3006 layer_factory.hpp:77] Creating layer Convolution46
I0925 16:13:17.710028  3006 net.cpp:84] Creating Layer Convolution46
I0925 16:13:17.710033  3006 net.cpp:406] Convolution46 <- Eltwise21_penlu43_0_split_0
I0925 16:13:17.710039  3006 net.cpp:380] Convolution46 -> Convolution46
I0925 16:13:17.711998  3006 net.cpp:122] Setting up Convolution46
I0925 16:13:17.712007  3006 net.cpp:129] Top shape: 100 64 8 8 (409600)
I0925 16:13:17.712010  3006 net.cpp:137] Memory required for data: 1084212400
I0925 16:13:17.712016  3006 layer_factory.hpp:77] Creating layer BatchNorm46
I0925 16:13:17.712021  3006 net.cpp:84] Creating Layer BatchNorm46
I0925 16:13:17.712024  3006 net.cpp:406] BatchNorm46 <- Convolution46
I0925 16:13:17.712028  3006 net.cpp:367] BatchNorm46 -> Convolution46 (in-place)
I0925 16:13:17.712203  3006 net.cpp:122] Setting up BatchNorm46
I0925 16:13:17.712221  3006 net.cpp:129] Top shape: 100 64 8 8 (409600)
I0925 16:13:17.712225  3006 net.cpp:137] Memory required for data: 1085850800
I0925 16:13:17.712230  3006 layer_factory.hpp:77] Creating layer Scale46
I0925 16:13:17.712235  3006 net.cpp:84] Creating Layer Scale46
I0925 16:13:17.712239  3006 net.cpp:406] Scale46 <- Convolution46
I0925 16:13:17.712241  3006 net.cpp:367] Scale46 -> Convolution46 (in-place)
I0925 16:13:17.712276  3006 layer_factory.hpp:77] Creating layer Scale46
I0925 16:13:17.712358  3006 net.cpp:122] Setting up Scale46
I0925 16:13:17.712363  3006 net.cpp:129] Top shape: 100 64 8 8 (409600)
I0925 16:13:17.712365  3006 net.cpp:137] Memory required for data: 1087489200
I0925 16:13:17.712369  3006 layer_factory.hpp:77] Creating layer penlu44
I0925 16:13:17.712374  3006 net.cpp:84] Creating Layer penlu44
I0925 16:13:17.712378  3006 net.cpp:406] penlu44 <- Convolution46
I0925 16:13:17.712380  3006 net.cpp:367] penlu44 -> Convolution46 (in-place)
I0925 16:13:17.712514  3006 net.cpp:122] Setting up penlu44
I0925 16:13:17.712519  3006 net.cpp:129] Top shape: 100 64 8 8 (409600)
I0925 16:13:17.712522  3006 net.cpp:137] Memory required for data: 1089127600
I0925 16:13:17.712527  3006 layer_factory.hpp:77] Creating layer Convolution47
I0925 16:13:17.712543  3006 net.cpp:84] Creating Layer Convolution47
I0925 16:13:17.712545  3006 net.cpp:406] Convolution47 <- Convolution46
I0925 16:13:17.712548  3006 net.cpp:380] Convolution47 -> Convolution47
I0925 16:13:17.714445  3006 net.cpp:122] Setting up Convolution47
I0925 16:13:17.714454  3006 net.cpp:129] Top shape: 100 64 8 8 (409600)
I0925 16:13:17.714457  3006 net.cpp:137] Memory required for data: 1090766000
I0925 16:13:17.714462  3006 layer_factory.hpp:77] Creating layer BatchNorm47
I0925 16:13:17.714468  3006 net.cpp:84] Creating Layer BatchNorm47
I0925 16:13:17.714470  3006 net.cpp:406] BatchNorm47 <- Convolution47
I0925 16:13:17.714474  3006 net.cpp:367] BatchNorm47 -> Convolution47 (in-place)
I0925 16:13:17.714622  3006 net.cpp:122] Setting up BatchNorm47
I0925 16:13:17.714627  3006 net.cpp:129] Top shape: 100 64 8 8 (409600)
I0925 16:13:17.714629  3006 net.cpp:137] Memory required for data: 1092404400
I0925 16:13:17.714633  3006 layer_factory.hpp:77] Creating layer Scale47
I0925 16:13:17.714639  3006 net.cpp:84] Creating Layer Scale47
I0925 16:13:17.714642  3006 net.cpp:406] Scale47 <- Convolution47
I0925 16:13:17.714644  3006 net.cpp:367] Scale47 -> Convolution47 (in-place)
I0925 16:13:17.714673  3006 layer_factory.hpp:77] Creating layer Scale47
I0925 16:13:17.714752  3006 net.cpp:122] Setting up Scale47
I0925 16:13:17.714756  3006 net.cpp:129] Top shape: 100 64 8 8 (409600)
I0925 16:13:17.714758  3006 net.cpp:137] Memory required for data: 1094042800
I0925 16:13:17.714762  3006 layer_factory.hpp:77] Creating layer Eltwise22
I0925 16:13:17.714767  3006 net.cpp:84] Creating Layer Eltwise22
I0925 16:13:17.714771  3006 net.cpp:406] Eltwise22 <- Eltwise21_penlu43_0_split_1
I0925 16:13:17.714773  3006 net.cpp:406] Eltwise22 <- Convolution47
I0925 16:13:17.714777  3006 net.cpp:380] Eltwise22 -> Eltwise22
I0925 16:13:17.714794  3006 net.cpp:122] Setting up Eltwise22
I0925 16:13:17.714797  3006 net.cpp:129] Top shape: 100 64 8 8 (409600)
I0925 16:13:17.714799  3006 net.cpp:137] Memory required for data: 1095681200
I0925 16:13:17.714802  3006 layer_factory.hpp:77] Creating layer penlu45
I0925 16:13:17.714807  3006 net.cpp:84] Creating Layer penlu45
I0925 16:13:17.714809  3006 net.cpp:406] penlu45 <- Eltwise22
I0925 16:13:17.714812  3006 net.cpp:367] penlu45 -> Eltwise22 (in-place)
I0925 16:13:17.714927  3006 net.cpp:122] Setting up penlu45
I0925 16:13:17.714931  3006 net.cpp:129] Top shape: 100 64 8 8 (409600)
I0925 16:13:17.714933  3006 net.cpp:137] Memory required for data: 1097319600
I0925 16:13:17.714938  3006 layer_factory.hpp:77] Creating layer Eltwise22_penlu45_0_split
I0925 16:13:17.714942  3006 net.cpp:84] Creating Layer Eltwise22_penlu45_0_split
I0925 16:13:17.714944  3006 net.cpp:406] Eltwise22_penlu45_0_split <- Eltwise22
I0925 16:13:17.714947  3006 net.cpp:380] Eltwise22_penlu45_0_split -> Eltwise22_penlu45_0_split_0
I0925 16:13:17.714953  3006 net.cpp:380] Eltwise22_penlu45_0_split -> Eltwise22_penlu45_0_split_1
I0925 16:13:17.714977  3006 net.cpp:122] Setting up Eltwise22_penlu45_0_split
I0925 16:13:17.714982  3006 net.cpp:129] Top shape: 100 64 8 8 (409600)
I0925 16:13:17.714984  3006 net.cpp:129] Top shape: 100 64 8 8 (409600)
I0925 16:13:17.714987  3006 net.cpp:137] Memory required for data: 1100596400
I0925 16:13:17.714988  3006 layer_factory.hpp:77] Creating layer Convolution48
I0925 16:13:17.714994  3006 net.cpp:84] Creating Layer Convolution48
I0925 16:13:17.714998  3006 net.cpp:406] Convolution48 <- Eltwise22_penlu45_0_split_0
I0925 16:13:17.715001  3006 net.cpp:380] Convolution48 -> Convolution48
I0925 16:13:17.717032  3006 net.cpp:122] Setting up Convolution48
I0925 16:13:17.717041  3006 net.cpp:129] Top shape: 100 64 8 8 (409600)
I0925 16:13:17.717044  3006 net.cpp:137] Memory required for data: 1102234800
I0925 16:13:17.717048  3006 layer_factory.hpp:77] Creating layer BatchNorm48
I0925 16:13:17.717054  3006 net.cpp:84] Creating Layer BatchNorm48
I0925 16:13:17.717057  3006 net.cpp:406] BatchNorm48 <- Convolution48
I0925 16:13:17.717061  3006 net.cpp:367] BatchNorm48 -> Convolution48 (in-place)
I0925 16:13:17.717205  3006 net.cpp:122] Setting up BatchNorm48
I0925 16:13:17.717208  3006 net.cpp:129] Top shape: 100 64 8 8 (409600)
I0925 16:13:17.717211  3006 net.cpp:137] Memory required for data: 1103873200
I0925 16:13:17.717216  3006 layer_factory.hpp:77] Creating layer Scale48
I0925 16:13:17.717221  3006 net.cpp:84] Creating Layer Scale48
I0925 16:13:17.717222  3006 net.cpp:406] Scale48 <- Convolution48
I0925 16:13:17.717226  3006 net.cpp:367] Scale48 -> Convolution48 (in-place)
I0925 16:13:17.717254  3006 layer_factory.hpp:77] Creating layer Scale48
I0925 16:13:17.717336  3006 net.cpp:122] Setting up Scale48
I0925 16:13:17.717340  3006 net.cpp:129] Top shape: 100 64 8 8 (409600)
I0925 16:13:17.717350  3006 net.cpp:137] Memory required for data: 1105511600
I0925 16:13:17.717353  3006 layer_factory.hpp:77] Creating layer penlu46
I0925 16:13:17.717360  3006 net.cpp:84] Creating Layer penlu46
I0925 16:13:17.717361  3006 net.cpp:406] penlu46 <- Convolution48
I0925 16:13:17.717365  3006 net.cpp:367] penlu46 -> Convolution48 (in-place)
I0925 16:13:17.717483  3006 net.cpp:122] Setting up penlu46
I0925 16:13:17.717489  3006 net.cpp:129] Top shape: 100 64 8 8 (409600)
I0925 16:13:17.717490  3006 net.cpp:137] Memory required for data: 1107150000
I0925 16:13:17.717494  3006 layer_factory.hpp:77] Creating layer Convolution49
I0925 16:13:17.717501  3006 net.cpp:84] Creating Layer Convolution49
I0925 16:13:17.717504  3006 net.cpp:406] Convolution49 <- Convolution48
I0925 16:13:17.717509  3006 net.cpp:380] Convolution49 -> Convolution49
I0925 16:13:17.719528  3006 net.cpp:122] Setting up Convolution49
I0925 16:13:17.719537  3006 net.cpp:129] Top shape: 100 64 8 8 (409600)
I0925 16:13:17.719539  3006 net.cpp:137] Memory required for data: 1108788400
I0925 16:13:17.719544  3006 layer_factory.hpp:77] Creating layer BatchNorm49
I0925 16:13:17.719549  3006 net.cpp:84] Creating Layer BatchNorm49
I0925 16:13:17.719552  3006 net.cpp:406] BatchNorm49 <- Convolution49
I0925 16:13:17.719557  3006 net.cpp:367] BatchNorm49 -> Convolution49 (in-place)
I0925 16:13:17.719698  3006 net.cpp:122] Setting up BatchNorm49
I0925 16:13:17.719703  3006 net.cpp:129] Top shape: 100 64 8 8 (409600)
I0925 16:13:17.719705  3006 net.cpp:137] Memory required for data: 1110426800
I0925 16:13:17.719710  3006 layer_factory.hpp:77] Creating layer Scale49
I0925 16:13:17.719715  3006 net.cpp:84] Creating Layer Scale49
I0925 16:13:17.719717  3006 net.cpp:406] Scale49 <- Convolution49
I0925 16:13:17.719720  3006 net.cpp:367] Scale49 -> Convolution49 (in-place)
I0925 16:13:17.719748  3006 layer_factory.hpp:77] Creating layer Scale49
I0925 16:13:17.719830  3006 net.cpp:122] Setting up Scale49
I0925 16:13:17.719835  3006 net.cpp:129] Top shape: 100 64 8 8 (409600)
I0925 16:13:17.719836  3006 net.cpp:137] Memory required for data: 1112065200
I0925 16:13:17.719841  3006 layer_factory.hpp:77] Creating layer Eltwise23
I0925 16:13:17.719846  3006 net.cpp:84] Creating Layer Eltwise23
I0925 16:13:17.719848  3006 net.cpp:406] Eltwise23 <- Eltwise22_penlu45_0_split_1
I0925 16:13:17.719851  3006 net.cpp:406] Eltwise23 <- Convolution49
I0925 16:13:17.719854  3006 net.cpp:380] Eltwise23 -> Eltwise23
I0925 16:13:17.719872  3006 net.cpp:122] Setting up Eltwise23
I0925 16:13:17.719877  3006 net.cpp:129] Top shape: 100 64 8 8 (409600)
I0925 16:13:17.719878  3006 net.cpp:137] Memory required for data: 1113703600
I0925 16:13:17.719880  3006 layer_factory.hpp:77] Creating layer penlu47
I0925 16:13:17.719885  3006 net.cpp:84] Creating Layer penlu47
I0925 16:13:17.719888  3006 net.cpp:406] penlu47 <- Eltwise23
I0925 16:13:17.719892  3006 net.cpp:367] penlu47 -> Eltwise23 (in-place)
I0925 16:13:17.720008  3006 net.cpp:122] Setting up penlu47
I0925 16:13:17.720012  3006 net.cpp:129] Top shape: 100 64 8 8 (409600)
I0925 16:13:17.720015  3006 net.cpp:137] Memory required for data: 1115342000
I0925 16:13:17.720019  3006 layer_factory.hpp:77] Creating layer Eltwise23_penlu47_0_split
I0925 16:13:17.720022  3006 net.cpp:84] Creating Layer Eltwise23_penlu47_0_split
I0925 16:13:17.720026  3006 net.cpp:406] Eltwise23_penlu47_0_split <- Eltwise23
I0925 16:13:17.720028  3006 net.cpp:380] Eltwise23_penlu47_0_split -> Eltwise23_penlu47_0_split_0
I0925 16:13:17.720032  3006 net.cpp:380] Eltwise23_penlu47_0_split -> Eltwise23_penlu47_0_split_1
I0925 16:13:17.720057  3006 net.cpp:122] Setting up Eltwise23_penlu47_0_split
I0925 16:13:17.720062  3006 net.cpp:129] Top shape: 100 64 8 8 (409600)
I0925 16:13:17.720064  3006 net.cpp:129] Top shape: 100 64 8 8 (409600)
I0925 16:13:17.720067  3006 net.cpp:137] Memory required for data: 1118618800
I0925 16:13:17.720068  3006 layer_factory.hpp:77] Creating layer Convolution50
I0925 16:13:17.720074  3006 net.cpp:84] Creating Layer Convolution50
I0925 16:13:17.720082  3006 net.cpp:406] Convolution50 <- Eltwise23_penlu47_0_split_0
I0925 16:13:17.720088  3006 net.cpp:380] Convolution50 -> Convolution50
I0925 16:13:17.722633  3006 net.cpp:122] Setting up Convolution50
I0925 16:13:17.722642  3006 net.cpp:129] Top shape: 100 64 8 8 (409600)
I0925 16:13:17.722645  3006 net.cpp:137] Memory required for data: 1120257200
I0925 16:13:17.722649  3006 layer_factory.hpp:77] Creating layer BatchNorm50
I0925 16:13:17.722654  3006 net.cpp:84] Creating Layer BatchNorm50
I0925 16:13:17.722657  3006 net.cpp:406] BatchNorm50 <- Convolution50
I0925 16:13:17.722661  3006 net.cpp:367] BatchNorm50 -> Convolution50 (in-place)
I0925 16:13:17.722806  3006 net.cpp:122] Setting up BatchNorm50
I0925 16:13:17.722811  3006 net.cpp:129] Top shape: 100 64 8 8 (409600)
I0925 16:13:17.722813  3006 net.cpp:137] Memory required for data: 1121895600
I0925 16:13:17.722818  3006 layer_factory.hpp:77] Creating layer Scale50
I0925 16:13:17.722823  3006 net.cpp:84] Creating Layer Scale50
I0925 16:13:17.722826  3006 net.cpp:406] Scale50 <- Convolution50
I0925 16:13:17.722829  3006 net.cpp:367] Scale50 -> Convolution50 (in-place)
I0925 16:13:17.722857  3006 layer_factory.hpp:77] Creating layer Scale50
I0925 16:13:17.722939  3006 net.cpp:122] Setting up Scale50
I0925 16:13:17.722944  3006 net.cpp:129] Top shape: 100 64 8 8 (409600)
I0925 16:13:17.722945  3006 net.cpp:137] Memory required for data: 1123534000
I0925 16:13:17.722949  3006 layer_factory.hpp:77] Creating layer penlu48
I0925 16:13:17.722954  3006 net.cpp:84] Creating Layer penlu48
I0925 16:13:17.722956  3006 net.cpp:406] penlu48 <- Convolution50
I0925 16:13:17.722960  3006 net.cpp:367] penlu48 -> Convolution50 (in-place)
I0925 16:13:17.723078  3006 net.cpp:122] Setting up penlu48
I0925 16:13:17.723083  3006 net.cpp:129] Top shape: 100 64 8 8 (409600)
I0925 16:13:17.723084  3006 net.cpp:137] Memory required for data: 1125172400
I0925 16:13:17.723088  3006 layer_factory.hpp:77] Creating layer Convolution51
I0925 16:13:17.723096  3006 net.cpp:84] Creating Layer Convolution51
I0925 16:13:17.723098  3006 net.cpp:406] Convolution51 <- Convolution50
I0925 16:13:17.723103  3006 net.cpp:380] Convolution51 -> Convolution51
I0925 16:13:17.724797  3006 net.cpp:122] Setting up Convolution51
I0925 16:13:17.724807  3006 net.cpp:129] Top shape: 100 64 8 8 (409600)
I0925 16:13:17.724809  3006 net.cpp:137] Memory required for data: 1126810800
I0925 16:13:17.724813  3006 layer_factory.hpp:77] Creating layer BatchNorm51
I0925 16:13:17.724818  3006 net.cpp:84] Creating Layer BatchNorm51
I0925 16:13:17.724822  3006 net.cpp:406] BatchNorm51 <- Convolution51
I0925 16:13:17.724825  3006 net.cpp:367] BatchNorm51 -> Convolution51 (in-place)
I0925 16:13:17.724962  3006 net.cpp:122] Setting up BatchNorm51
I0925 16:13:17.724967  3006 net.cpp:129] Top shape: 100 64 8 8 (409600)
I0925 16:13:17.724969  3006 net.cpp:137] Memory required for data: 1128449200
I0925 16:13:17.724974  3006 layer_factory.hpp:77] Creating layer Scale51
I0925 16:13:17.724979  3006 net.cpp:84] Creating Layer Scale51
I0925 16:13:17.724982  3006 net.cpp:406] Scale51 <- Convolution51
I0925 16:13:17.724984  3006 net.cpp:367] Scale51 -> Convolution51 (in-place)
I0925 16:13:17.725013  3006 layer_factory.hpp:77] Creating layer Scale51
I0925 16:13:17.725092  3006 net.cpp:122] Setting up Scale51
I0925 16:13:17.725096  3006 net.cpp:129] Top shape: 100 64 8 8 (409600)
I0925 16:13:17.725098  3006 net.cpp:137] Memory required for data: 1130087600
I0925 16:13:17.725102  3006 layer_factory.hpp:77] Creating layer Eltwise24
I0925 16:13:17.725107  3006 net.cpp:84] Creating Layer Eltwise24
I0925 16:13:17.725109  3006 net.cpp:406] Eltwise24 <- Eltwise23_penlu47_0_split_1
I0925 16:13:17.725112  3006 net.cpp:406] Eltwise24 <- Convolution51
I0925 16:13:17.725116  3006 net.cpp:380] Eltwise24 -> Eltwise24
I0925 16:13:17.725133  3006 net.cpp:122] Setting up Eltwise24
I0925 16:13:17.725137  3006 net.cpp:129] Top shape: 100 64 8 8 (409600)
I0925 16:13:17.725139  3006 net.cpp:137] Memory required for data: 1131726000
I0925 16:13:17.725148  3006 layer_factory.hpp:77] Creating layer penlu49
I0925 16:13:17.725154  3006 net.cpp:84] Creating Layer penlu49
I0925 16:13:17.725157  3006 net.cpp:406] penlu49 <- Eltwise24
I0925 16:13:17.725160  3006 net.cpp:367] penlu49 -> Eltwise24 (in-place)
I0925 16:13:17.725276  3006 net.cpp:122] Setting up penlu49
I0925 16:13:17.725281  3006 net.cpp:129] Top shape: 100 64 8 8 (409600)
I0925 16:13:17.725282  3006 net.cpp:137] Memory required for data: 1133364400
I0925 16:13:17.725287  3006 layer_factory.hpp:77] Creating layer Eltwise24_penlu49_0_split
I0925 16:13:17.725291  3006 net.cpp:84] Creating Layer Eltwise24_penlu49_0_split
I0925 16:13:17.725293  3006 net.cpp:406] Eltwise24_penlu49_0_split <- Eltwise24
I0925 16:13:17.725296  3006 net.cpp:380] Eltwise24_penlu49_0_split -> Eltwise24_penlu49_0_split_0
I0925 16:13:17.725301  3006 net.cpp:380] Eltwise24_penlu49_0_split -> Eltwise24_penlu49_0_split_1
I0925 16:13:17.725337  3006 net.cpp:122] Setting up Eltwise24_penlu49_0_split
I0925 16:13:17.740494  3006 net.cpp:129] Top shape: 100 64 8 8 (409600)
I0925 16:13:17.740509  3006 net.cpp:129] Top shape: 100 64 8 8 (409600)
I0925 16:13:17.740512  3006 net.cpp:137] Memory required for data: 1136641200
I0925 16:13:17.740515  3006 layer_factory.hpp:77] Creating layer Convolution52
I0925 16:13:17.740525  3006 net.cpp:84] Creating Layer Convolution52
I0925 16:13:17.740527  3006 net.cpp:406] Convolution52 <- Eltwise24_penlu49_0_split_0
I0925 16:13:17.740533  3006 net.cpp:380] Convolution52 -> Convolution52
I0925 16:13:17.743057  3006 net.cpp:122] Setting up Convolution52
I0925 16:13:17.743067  3006 net.cpp:129] Top shape: 100 64 8 8 (409600)
I0925 16:13:17.743069  3006 net.cpp:137] Memory required for data: 1138279600
I0925 16:13:17.743074  3006 layer_factory.hpp:77] Creating layer BatchNorm52
I0925 16:13:17.743079  3006 net.cpp:84] Creating Layer BatchNorm52
I0925 16:13:17.743083  3006 net.cpp:406] BatchNorm52 <- Convolution52
I0925 16:13:17.743086  3006 net.cpp:367] BatchNorm52 -> Convolution52 (in-place)
I0925 16:13:17.743232  3006 net.cpp:122] Setting up BatchNorm52
I0925 16:13:17.743237  3006 net.cpp:129] Top shape: 100 64 8 8 (409600)
I0925 16:13:17.743238  3006 net.cpp:137] Memory required for data: 1139918000
I0925 16:13:17.743243  3006 layer_factory.hpp:77] Creating layer Scale52
I0925 16:13:17.743247  3006 net.cpp:84] Creating Layer Scale52
I0925 16:13:17.743250  3006 net.cpp:406] Scale52 <- Convolution52
I0925 16:13:17.743253  3006 net.cpp:367] Scale52 -> Convolution52 (in-place)
I0925 16:13:17.743283  3006 layer_factory.hpp:77] Creating layer Scale52
I0925 16:13:17.743365  3006 net.cpp:122] Setting up Scale52
I0925 16:13:17.743369  3006 net.cpp:129] Top shape: 100 64 8 8 (409600)
I0925 16:13:17.743371  3006 net.cpp:137] Memory required for data: 1141556400
I0925 16:13:17.743376  3006 layer_factory.hpp:77] Creating layer penlu50
I0925 16:13:17.743397  3006 net.cpp:84] Creating Layer penlu50
I0925 16:13:17.743401  3006 net.cpp:406] penlu50 <- Convolution52
I0925 16:13:17.743404  3006 net.cpp:367] penlu50 -> Convolution52 (in-place)
I0925 16:13:17.743522  3006 net.cpp:122] Setting up penlu50
I0925 16:13:17.743527  3006 net.cpp:129] Top shape: 100 64 8 8 (409600)
I0925 16:13:17.743530  3006 net.cpp:137] Memory required for data: 1143194800
I0925 16:13:17.743577  3006 layer_factory.hpp:77] Creating layer Convolution53
I0925 16:13:17.743587  3006 net.cpp:84] Creating Layer Convolution53
I0925 16:13:17.743592  3006 net.cpp:406] Convolution53 <- Convolution52
I0925 16:13:17.743597  3006 net.cpp:380] Convolution53 -> Convolution53
I0925 16:13:17.745496  3006 net.cpp:122] Setting up Convolution53
I0925 16:13:17.745507  3006 net.cpp:129] Top shape: 100 64 8 8 (409600)
I0925 16:13:17.745510  3006 net.cpp:137] Memory required for data: 1144833200
I0925 16:13:17.745514  3006 layer_factory.hpp:77] Creating layer BatchNorm53
I0925 16:13:17.745519  3006 net.cpp:84] Creating Layer BatchNorm53
I0925 16:13:17.745522  3006 net.cpp:406] BatchNorm53 <- Convolution53
I0925 16:13:17.745527  3006 net.cpp:367] BatchNorm53 -> Convolution53 (in-place)
I0925 16:13:17.745676  3006 net.cpp:122] Setting up BatchNorm53
I0925 16:13:17.745681  3006 net.cpp:129] Top shape: 100 64 8 8 (409600)
I0925 16:13:17.745682  3006 net.cpp:137] Memory required for data: 1146471600
I0925 16:13:17.745687  3006 layer_factory.hpp:77] Creating layer Scale53
I0925 16:13:17.745692  3006 net.cpp:84] Creating Layer Scale53
I0925 16:13:17.745694  3006 net.cpp:406] Scale53 <- Convolution53
I0925 16:13:17.745698  3006 net.cpp:367] Scale53 -> Convolution53 (in-place)
I0925 16:13:17.745725  3006 layer_factory.hpp:77] Creating layer Scale53
I0925 16:13:17.745806  3006 net.cpp:122] Setting up Scale53
I0925 16:13:17.745811  3006 net.cpp:129] Top shape: 100 64 8 8 (409600)
I0925 16:13:17.745813  3006 net.cpp:137] Memory required for data: 1148110000
I0925 16:13:17.745817  3006 layer_factory.hpp:77] Creating layer Eltwise25
I0925 16:13:17.745822  3006 net.cpp:84] Creating Layer Eltwise25
I0925 16:13:17.745826  3006 net.cpp:406] Eltwise25 <- Eltwise24_penlu49_0_split_1
I0925 16:13:17.745828  3006 net.cpp:406] Eltwise25 <- Convolution53
I0925 16:13:17.745832  3006 net.cpp:380] Eltwise25 -> Eltwise25
I0925 16:13:17.745849  3006 net.cpp:122] Setting up Eltwise25
I0925 16:13:17.745854  3006 net.cpp:129] Top shape: 100 64 8 8 (409600)
I0925 16:13:17.745857  3006 net.cpp:137] Memory required for data: 1149748400
I0925 16:13:17.745858  3006 layer_factory.hpp:77] Creating layer penlu51
I0925 16:13:17.745863  3006 net.cpp:84] Creating Layer penlu51
I0925 16:13:17.745865  3006 net.cpp:406] penlu51 <- Eltwise25
I0925 16:13:17.745869  3006 net.cpp:367] penlu51 -> Eltwise25 (in-place)
I0925 16:13:17.745985  3006 net.cpp:122] Setting up penlu51
I0925 16:13:17.745990  3006 net.cpp:129] Top shape: 100 64 8 8 (409600)
I0925 16:13:17.745992  3006 net.cpp:137] Memory required for data: 1151386800
I0925 16:13:17.745996  3006 layer_factory.hpp:77] Creating layer Eltwise25_penlu51_0_split
I0925 16:13:17.746001  3006 net.cpp:84] Creating Layer Eltwise25_penlu51_0_split
I0925 16:13:17.746002  3006 net.cpp:406] Eltwise25_penlu51_0_split <- Eltwise25
I0925 16:13:17.746006  3006 net.cpp:380] Eltwise25_penlu51_0_split -> Eltwise25_penlu51_0_split_0
I0925 16:13:17.746011  3006 net.cpp:380] Eltwise25_penlu51_0_split -> Eltwise25_penlu51_0_split_1
I0925 16:13:17.746034  3006 net.cpp:122] Setting up Eltwise25_penlu51_0_split
I0925 16:13:17.746037  3006 net.cpp:129] Top shape: 100 64 8 8 (409600)
I0925 16:13:17.746040  3006 net.cpp:129] Top shape: 100 64 8 8 (409600)
I0925 16:13:17.746042  3006 net.cpp:137] Memory required for data: 1154663600
I0925 16:13:17.746044  3006 layer_factory.hpp:77] Creating layer Convolution54
I0925 16:13:17.746050  3006 net.cpp:84] Creating Layer Convolution54
I0925 16:13:17.746053  3006 net.cpp:406] Convolution54 <- Eltwise25_penlu51_0_split_0
I0925 16:13:17.746057  3006 net.cpp:380] Convolution54 -> Convolution54
I0925 16:13:17.748075  3006 net.cpp:122] Setting up Convolution54
I0925 16:13:17.748085  3006 net.cpp:129] Top shape: 100 64 8 8 (409600)
I0925 16:13:17.748086  3006 net.cpp:137] Memory required for data: 1156302000
I0925 16:13:17.748091  3006 layer_factory.hpp:77] Creating layer BatchNorm54
I0925 16:13:17.748096  3006 net.cpp:84] Creating Layer BatchNorm54
I0925 16:13:17.748100  3006 net.cpp:406] BatchNorm54 <- Convolution54
I0925 16:13:17.748103  3006 net.cpp:367] BatchNorm54 -> Convolution54 (in-place)
I0925 16:13:17.748248  3006 net.cpp:122] Setting up BatchNorm54
I0925 16:13:17.748252  3006 net.cpp:129] Top shape: 100 64 8 8 (409600)
I0925 16:13:17.748255  3006 net.cpp:137] Memory required for data: 1157940400
I0925 16:13:17.748260  3006 layer_factory.hpp:77] Creating layer Scale54
I0925 16:13:17.748263  3006 net.cpp:84] Creating Layer Scale54
I0925 16:13:17.748266  3006 net.cpp:406] Scale54 <- Convolution54
I0925 16:13:17.748270  3006 net.cpp:367] Scale54 -> Convolution54 (in-place)
I0925 16:13:17.748298  3006 layer_factory.hpp:77] Creating layer Scale54
I0925 16:13:17.748379  3006 net.cpp:122] Setting up Scale54
I0925 16:13:17.748383  3006 net.cpp:129] Top shape: 100 64 8 8 (409600)
I0925 16:13:17.748391  3006 net.cpp:137] Memory required for data: 1159578800
I0925 16:13:17.748395  3006 layer_factory.hpp:77] Creating layer penlu52
I0925 16:13:17.748402  3006 net.cpp:84] Creating Layer penlu52
I0925 16:13:17.748404  3006 net.cpp:406] penlu52 <- Convolution54
I0925 16:13:17.748409  3006 net.cpp:367] penlu52 -> Convolution54 (in-place)
I0925 16:13:17.748531  3006 net.cpp:122] Setting up penlu52
I0925 16:13:17.748536  3006 net.cpp:129] Top shape: 100 64 8 8 (409600)
I0925 16:13:17.748538  3006 net.cpp:137] Memory required for data: 1161217200
I0925 16:13:17.748543  3006 layer_factory.hpp:77] Creating layer Convolution55
I0925 16:13:17.748550  3006 net.cpp:84] Creating Layer Convolution55
I0925 16:13:17.748553  3006 net.cpp:406] Convolution55 <- Convolution54
I0925 16:13:17.748556  3006 net.cpp:380] Convolution55 -> Convolution55
I0925 16:13:17.750308  3006 net.cpp:122] Setting up Convolution55
I0925 16:13:17.750318  3006 net.cpp:129] Top shape: 100 64 8 8 (409600)
I0925 16:13:17.750320  3006 net.cpp:137] Memory required for data: 1162855600
I0925 16:13:17.750324  3006 layer_factory.hpp:77] Creating layer BatchNorm55
I0925 16:13:17.750329  3006 net.cpp:84] Creating Layer BatchNorm55
I0925 16:13:17.750332  3006 net.cpp:406] BatchNorm55 <- Convolution55
I0925 16:13:17.750336  3006 net.cpp:367] BatchNorm55 -> Convolution55 (in-place)
I0925 16:13:17.750475  3006 net.cpp:122] Setting up BatchNorm55
I0925 16:13:17.750480  3006 net.cpp:129] Top shape: 100 64 8 8 (409600)
I0925 16:13:17.750483  3006 net.cpp:137] Memory required for data: 1164494000
I0925 16:13:17.750488  3006 layer_factory.hpp:77] Creating layer Scale55
I0925 16:13:17.750493  3006 net.cpp:84] Creating Layer Scale55
I0925 16:13:17.750494  3006 net.cpp:406] Scale55 <- Convolution55
I0925 16:13:17.750497  3006 net.cpp:367] Scale55 -> Convolution55 (in-place)
I0925 16:13:17.750525  3006 layer_factory.hpp:77] Creating layer Scale55
I0925 16:13:17.750610  3006 net.cpp:122] Setting up Scale55
I0925 16:13:17.750615  3006 net.cpp:129] Top shape: 100 64 8 8 (409600)
I0925 16:13:17.750617  3006 net.cpp:137] Memory required for data: 1166132400
I0925 16:13:17.750620  3006 layer_factory.hpp:77] Creating layer Eltwise26
I0925 16:13:17.750624  3006 net.cpp:84] Creating Layer Eltwise26
I0925 16:13:17.750627  3006 net.cpp:406] Eltwise26 <- Eltwise25_penlu51_0_split_1
I0925 16:13:17.750630  3006 net.cpp:406] Eltwise26 <- Convolution55
I0925 16:13:17.750634  3006 net.cpp:380] Eltwise26 -> Eltwise26
I0925 16:13:17.750650  3006 net.cpp:122] Setting up Eltwise26
I0925 16:13:17.750654  3006 net.cpp:129] Top shape: 100 64 8 8 (409600)
I0925 16:13:17.750656  3006 net.cpp:137] Memory required for data: 1167770800
I0925 16:13:17.750658  3006 layer_factory.hpp:77] Creating layer penlu53
I0925 16:13:17.750664  3006 net.cpp:84] Creating Layer penlu53
I0925 16:13:17.750666  3006 net.cpp:406] penlu53 <- Eltwise26
I0925 16:13:17.750669  3006 net.cpp:367] penlu53 -> Eltwise26 (in-place)
I0925 16:13:17.750787  3006 net.cpp:122] Setting up penlu53
I0925 16:13:17.750792  3006 net.cpp:129] Top shape: 100 64 8 8 (409600)
I0925 16:13:17.750793  3006 net.cpp:137] Memory required for data: 1169409200
I0925 16:13:17.750797  3006 layer_factory.hpp:77] Creating layer Eltwise26_penlu53_0_split
I0925 16:13:17.750802  3006 net.cpp:84] Creating Layer Eltwise26_penlu53_0_split
I0925 16:13:17.750803  3006 net.cpp:406] Eltwise26_penlu53_0_split <- Eltwise26
I0925 16:13:17.750808  3006 net.cpp:380] Eltwise26_penlu53_0_split -> Eltwise26_penlu53_0_split_0
I0925 16:13:17.750811  3006 net.cpp:380] Eltwise26_penlu53_0_split -> Eltwise26_penlu53_0_split_1
I0925 16:13:17.750835  3006 net.cpp:122] Setting up Eltwise26_penlu53_0_split
I0925 16:13:17.750838  3006 net.cpp:129] Top shape: 100 64 8 8 (409600)
I0925 16:13:17.750841  3006 net.cpp:129] Top shape: 100 64 8 8 (409600)
I0925 16:13:17.750844  3006 net.cpp:137] Memory required for data: 1172686000
I0925 16:13:17.750845  3006 layer_factory.hpp:77] Creating layer Convolution56
I0925 16:13:17.750852  3006 net.cpp:84] Creating Layer Convolution56
I0925 16:13:17.750861  3006 net.cpp:406] Convolution56 <- Eltwise26_penlu53_0_split_0
I0925 16:13:17.750865  3006 net.cpp:380] Convolution56 -> Convolution56
I0925 16:13:17.752552  3006 net.cpp:122] Setting up Convolution56
I0925 16:13:17.752559  3006 net.cpp:129] Top shape: 100 64 8 8 (409600)
I0925 16:13:17.752562  3006 net.cpp:137] Memory required for data: 1174324400
I0925 16:13:17.752568  3006 layer_factory.hpp:77] Creating layer BatchNorm56
I0925 16:13:17.752573  3006 net.cpp:84] Creating Layer BatchNorm56
I0925 16:13:17.752574  3006 net.cpp:406] BatchNorm56 <- Convolution56
I0925 16:13:17.752579  3006 net.cpp:367] BatchNorm56 -> Convolution56 (in-place)
I0925 16:13:17.752723  3006 net.cpp:122] Setting up BatchNorm56
I0925 16:13:17.752727  3006 net.cpp:129] Top shape: 100 64 8 8 (409600)
I0925 16:13:17.752730  3006 net.cpp:137] Memory required for data: 1175962800
I0925 16:13:17.752735  3006 layer_factory.hpp:77] Creating layer Scale56
I0925 16:13:17.752741  3006 net.cpp:84] Creating Layer Scale56
I0925 16:13:17.752743  3006 net.cpp:406] Scale56 <- Convolution56
I0925 16:13:17.752746  3006 net.cpp:367] Scale56 -> Convolution56 (in-place)
I0925 16:13:17.752775  3006 layer_factory.hpp:77] Creating layer Scale56
I0925 16:13:17.752858  3006 net.cpp:122] Setting up Scale56
I0925 16:13:17.752862  3006 net.cpp:129] Top shape: 100 64 8 8 (409600)
I0925 16:13:17.752864  3006 net.cpp:137] Memory required for data: 1177601200
I0925 16:13:17.752868  3006 layer_factory.hpp:77] Creating layer penlu54
I0925 16:13:17.752873  3006 net.cpp:84] Creating Layer penlu54
I0925 16:13:17.752876  3006 net.cpp:406] penlu54 <- Convolution56
I0925 16:13:17.752879  3006 net.cpp:367] penlu54 -> Convolution56 (in-place)
I0925 16:13:17.753001  3006 net.cpp:122] Setting up penlu54
I0925 16:13:17.753005  3006 net.cpp:129] Top shape: 100 64 8 8 (409600)
I0925 16:13:17.753007  3006 net.cpp:137] Memory required for data: 1179239600
I0925 16:13:17.753012  3006 layer_factory.hpp:77] Creating layer Convolution57
I0925 16:13:17.753018  3006 net.cpp:84] Creating Layer Convolution57
I0925 16:13:17.753021  3006 net.cpp:406] Convolution57 <- Convolution56
I0925 16:13:17.753026  3006 net.cpp:380] Convolution57 -> Convolution57
I0925 16:13:17.754712  3006 net.cpp:122] Setting up Convolution57
I0925 16:13:17.754721  3006 net.cpp:129] Top shape: 100 64 8 8 (409600)
I0925 16:13:17.754724  3006 net.cpp:137] Memory required for data: 1180878000
I0925 16:13:17.754727  3006 layer_factory.hpp:77] Creating layer BatchNorm57
I0925 16:13:17.754734  3006 net.cpp:84] Creating Layer BatchNorm57
I0925 16:13:17.754735  3006 net.cpp:406] BatchNorm57 <- Convolution57
I0925 16:13:17.754739  3006 net.cpp:367] BatchNorm57 -> Convolution57 (in-place)
I0925 16:13:17.754881  3006 net.cpp:122] Setting up BatchNorm57
I0925 16:13:17.754886  3006 net.cpp:129] Top shape: 100 64 8 8 (409600)
I0925 16:13:17.754889  3006 net.cpp:137] Memory required for data: 1182516400
I0925 16:13:17.754892  3006 layer_factory.hpp:77] Creating layer Scale57
I0925 16:13:17.754897  3006 net.cpp:84] Creating Layer Scale57
I0925 16:13:17.754900  3006 net.cpp:406] Scale57 <- Convolution57
I0925 16:13:17.754904  3006 net.cpp:367] Scale57 -> Convolution57 (in-place)
I0925 16:13:17.754932  3006 layer_factory.hpp:77] Creating layer Scale57
I0925 16:13:17.755013  3006 net.cpp:122] Setting up Scale57
I0925 16:13:17.755018  3006 net.cpp:129] Top shape: 100 64 8 8 (409600)
I0925 16:13:17.755020  3006 net.cpp:137] Memory required for data: 1184154800
I0925 16:13:17.755023  3006 layer_factory.hpp:77] Creating layer Eltwise27
I0925 16:13:17.755028  3006 net.cpp:84] Creating Layer Eltwise27
I0925 16:13:17.755031  3006 net.cpp:406] Eltwise27 <- Eltwise26_penlu53_0_split_1
I0925 16:13:17.755034  3006 net.cpp:406] Eltwise27 <- Convolution57
I0925 16:13:17.755038  3006 net.cpp:380] Eltwise27 -> Eltwise27
I0925 16:13:17.755054  3006 net.cpp:122] Setting up Eltwise27
I0925 16:13:17.755059  3006 net.cpp:129] Top shape: 100 64 8 8 (409600)
I0925 16:13:17.755060  3006 net.cpp:137] Memory required for data: 1185793200
I0925 16:13:17.755069  3006 layer_factory.hpp:77] Creating layer penlu55
I0925 16:13:17.755075  3006 net.cpp:84] Creating Layer penlu55
I0925 16:13:17.755077  3006 net.cpp:406] penlu55 <- Eltwise27
I0925 16:13:17.755080  3006 net.cpp:367] penlu55 -> Eltwise27 (in-place)
I0925 16:13:17.755203  3006 net.cpp:122] Setting up penlu55
I0925 16:13:17.755206  3006 net.cpp:129] Top shape: 100 64 8 8 (409600)
I0925 16:13:17.755209  3006 net.cpp:137] Memory required for data: 1187431600
I0925 16:13:17.755213  3006 layer_factory.hpp:77] Creating layer Pooling1
I0925 16:13:17.755218  3006 net.cpp:84] Creating Layer Pooling1
I0925 16:13:17.755220  3006 net.cpp:406] Pooling1 <- Eltwise27
I0925 16:13:17.755223  3006 net.cpp:380] Pooling1 -> Pooling1
I0925 16:13:17.755702  3006 net.cpp:122] Setting up Pooling1
I0925 16:13:17.755710  3006 net.cpp:129] Top shape: 100 64 1 1 (6400)
I0925 16:13:17.770817  3006 net.cpp:137] Memory required for data: 1187457200
I0925 16:13:17.770823  3006 layer_factory.hpp:77] Creating layer InnerProduct1
I0925 16:13:17.770831  3006 net.cpp:84] Creating Layer InnerProduct1
I0925 16:13:17.770836  3006 net.cpp:406] InnerProduct1 <- Pooling1
I0925 16:13:17.770843  3006 net.cpp:380] InnerProduct1 -> InnerProduct1
I0925 16:13:17.770968  3006 net.cpp:122] Setting up InnerProduct1
I0925 16:13:17.770974  3006 net.cpp:129] Top shape: 100 10 (1000)
I0925 16:13:17.770977  3006 net.cpp:137] Memory required for data: 1187461200
I0925 16:13:17.770982  3006 layer_factory.hpp:77] Creating layer InnerProduct1_InnerProduct1_0_split
I0925 16:13:17.770985  3006 net.cpp:84] Creating Layer InnerProduct1_InnerProduct1_0_split
I0925 16:13:17.770988  3006 net.cpp:406] InnerProduct1_InnerProduct1_0_split <- InnerProduct1
I0925 16:13:17.770992  3006 net.cpp:380] InnerProduct1_InnerProduct1_0_split -> InnerProduct1_InnerProduct1_0_split_0
I0925 16:13:17.770998  3006 net.cpp:380] InnerProduct1_InnerProduct1_0_split -> InnerProduct1_InnerProduct1_0_split_1
I0925 16:13:17.771026  3006 net.cpp:122] Setting up InnerProduct1_InnerProduct1_0_split
I0925 16:13:17.771030  3006 net.cpp:129] Top shape: 100 10 (1000)
I0925 16:13:17.771034  3006 net.cpp:129] Top shape: 100 10 (1000)
I0925 16:13:17.771035  3006 net.cpp:137] Memory required for data: 1187469200
I0925 16:13:17.771039  3006 layer_factory.hpp:77] Creating layer SoftmaxWithLoss1
I0925 16:13:17.771044  3006 net.cpp:84] Creating Layer SoftmaxWithLoss1
I0925 16:13:17.771046  3006 net.cpp:406] SoftmaxWithLoss1 <- InnerProduct1_InnerProduct1_0_split_0
I0925 16:13:17.771049  3006 net.cpp:406] SoftmaxWithLoss1 <- Data2_Data1_1_split_0
…
