…
I0925 20:24:05.222652  3532 net.cpp:294] The NetState phase (0) differed from the phase (1) specified by a rule in layer Accuracy1
I0925 20:24:05.223856  3532 net.cpp:51] Initializing net from parameters: 
name: "resnet_cifar10"
state {
  phase: TRAIN
  level: 0
  stage: ""
}
layer {
  name: "Data1"
  type: "Data"
  top: "Data1"
  top: "Data2"
  include {
    phase: TRAIN
  }
  transform_param {
    mirror: true
    crop_size: 28
    mean_file: "/home/x306/caffe/xn/PENLU/data/cifar10/mean.binaryproto"
  }
  data_param {
    source: "/home/x306/caffe/xn/PENLU/data/cifar10/cifar10_train_lmdb"
    batch_size: 100
    backend: LMDB
  }
}
layer {
  name: "Convolution1"
  type: "Convolution"
  bottom: "Data1"
  top: "Convolution1"
  param {
    lr_mult: 1
    decay_mult: 1
  }
  param {
    lr_mult: 2
    decay_mult: 0
  }
  convolution_param {
    num_output: 16
    pad: 1
    kernel_size: 3
    stride: 1
    weight_filler {
      type: "gaussian"
      std: 0.118
    }
    bias_filler {
      type: "constant"
      value: 0
    }
  }
}
layer {
  name: "BatchNorm1"
  type: "BatchNorm"
  bottom: "Convolution1"
  top: "Convolution1"
  param {
    lr_mult: 0
    decay_mult: 0
  }
  param {
    lr_mult: 0
    decay_mult: 0
  }
  param {
    lr_mult: 0
    decay_mult: 0
  }
}
layer {
  name: "Scale1"
  type: "Scale"
  bottom: "Convolution1"
  top: "Convolution1"
  scale_param {
    bias_term: true
  }
}
layer {
  name: "penlu1"
  type: "PENLU"
  bottom: "Convolution1"
  top: "Convolution1"
  param {
    lr_mult: 1
    decay_mult: 1
  }
  param {
    lr_mult: 1
    decay_mult: 1
  }
  param {
    lr_mult: 1
    decay_mult: 1
  }
  penlu_param {
    alpha_filler {
      type: "constant"
      value: 25
    }
    beta_filler {
      type: "constant"
      value: 0.01
    }
    eta_filler {
      type: "constant"
      value: 1
    }
  }
}
layer {
  name: "Convolution2"
  type: "Convolution"
  bottom: "Convolution1"
  top: "Convolution2"
  param {
    lr_mult: 1
    decay_mult: 1
  }
  param {
    lr_mult: 2
    decay_mult: 0
  }
  convolution_param {
    num_output: 16
    pad: 1
    kernel_size: 3
    stride: 1
    weight_filler {
      type: "gaussian"
      std: 0.118
    }
    bias_filler {
      type: "constant"
      value: 0
    }
  }
}
layer {
  name: "BatchNorm2"
  type: "BatchNorm"
  bottom: "Convolution2"
  top: "Convolution2"
  param {
    lr_mult: 0
    decay_mult: 0
  }
  param {
    lr_mult: 0
    decay_mult: 0
  }
  param {
    lr_mult: 0
    decay_mult: 0
  }
}
layer {
  name: "Scale2"
  type: "Scale"
  bottom: "Convolution2"
  top: "Convolution2"
  scale_param {
    bias_term: true
  }
}
layer {
  name: "penlu2"
  type: "PENLU"
  bottom: "Convolution2"
  top: "Convolution2"
  param {
    lr_mult: 1
    decay_mult: 1
  }
  param {
    lr_mult: 1
    decay_mult: 1
  }
  param {
    lr_mult: 1
    decay_mult: 1
  }
  penlu_param {
    alpha_filler {
      type: "constant"
      value: 25
    }
    beta_filler {
      type: "constant"
      value: 0.01
    }
    eta_filler {
      type: "constant"
      value: 1
    }
  }
}
layer {
  name: "Convolution3"
  type: "Convolution"
  bottom: "Convolution2"
  top: "Convolution3"
  param {
    lr_mult: 1
    decay_mult: 1
  }
  param {
    lr_mult: 2
    decay_mult: 0
  }
  convolution_param {
    num_output: 16
    pad: 1
    kernel_size: 3
    stride: 1
    weight_filler {
      type: "gaussian"
      std: 0.118
    }
    bias_filler {
      type: "constant"
      value: 0
    }
  }
}
layer {
  name: "BatchNorm3"
  type: "BatchNorm"
  bottom: "Convolution3"
  top: "Convolution3"
  param {
    lr_mult: 0
    decay_mult: 0
  }
  param {
    lr_mult: 0
    decay_mult: 0
  }
  param {
    lr_mult: 0
    decay_mult: 0
  }
}
layer {
  name: "Scale3"
  type: "Scale"
  bottom: "Convolution3"
  top: "Convolution3"
  scale_param {
    bias_term: true
  }
}
layer {
  name: "Eltwise1"
  type: "Eltwise"
  bottom: "Convolution1"
  bottom: "Convolution3"
  top: "Eltwise1"
  eltwise_param {
    operation: SUM
  }
}
layer {
  name: "penlu3"
  type: "PENLU"
  bottom: "Eltwise1"
  top: "Eltwise1"
  param {
    lr_mult: 1
    decay_mult: 1
  }
  param {
    lr_mult: 1
    decay_mult: 1
  }
  param {
    lr_mult: 1
    decay_mult: 1
  }
  penlu_param {
    alpha_filler {
      type: "constant"
      value: 25
    }
    beta_filler {
      type: "constant"
      value: 0.01
    }
    eta_filler {
      type: "constant"
      value: 1
    }
  }
}
layer {
  name: "Convolution4"
  type: "Convolution"
  bottom: "Eltwise1"
  top: "Convolution4"
  param {
    lr_mult: 1
    decay_mult: 1
  }
  param {
    lr_mult: 2
    decay_mult: 0
  }
  convolution_param {
    num_output: 16
    pad: 1
    kernel_size: 3
    stride: 1
    weight_filler {
      type: "gaussian"
      std: 0.118
    }
    bias_filler {
      type: "constant"
      value: 0
    }
  }
}
layer {
  name: "BatchNorm4"
  type: "BatchNorm"
  bottom: "Convolution4"
  top: "Convolution4"
  param {
    lr_mult: 0
    decay_mult: 0
  }
  param {
    lr_mult: 0
    decay_mult: 0
  }
  param {
    lr_mult: 0
    decay_mult: 0
  }
}
layer {
  name: "Scale4"
  type: "Scale"
  bottom: "Convolution4"
  top: "Convolution4"
  scale_param {
    bias_term: true
  }
}
layer {
  name: "penlu4"
  type: "PENLU"
  bottom: "Convolution4"
  top: "Convolution4"
  param {
    lr_mult: 1
    decay_mult: 1
  }
  param {
    lr_mult: 1
    decay_mult: 1
  }
  param {
    lr_mult: 1
    decay_mult: 1
  }
  penlu_param {
    alpha_filler {
      type: "constant"
      value: 25
    }
    beta_filler {
      type: "constant"
      value: 0.01
    }
    eta_filler {
      type: "constant"
      value: 1
    }
  }
}
layer {
  name: "Convolution5"
  type: "Convolution"
  bottom: "Convolution4"
  top: "Convolution5"
  param {
    lr_mult: 1
    decay_mult: 1
  }
  param {
    lr_mult: 2
    decay_mult: 0
  }
  convolution_param {
    num_output: 16
    pad: 1
    kernel_size: 3
    stride: 1
    weight_filler {
      type: "gaussian"
      std: 0.118
    }
    bias_filler {
      type: "constant"
      value: 0
    }
  }
}
layer {
  name: "BatchNorm5"
  type: "BatchNorm"
  bottom: "Convolution5"
  top: "Convolution5"
  param {
    lr_mult: 0
    decay_mult: 0
  }
  param {
    lr_mult: 0
    decay_mult: 0
  }
  param {
    lr_mult: 0
    decay_mult: 0
  }
}
layer {
  name: "Scale5"
  type: "Scale"
  bottom: "Convolution5"
  top: "Convolution5"
  scale_param {
    bias_term: true
  }
}
layer {
  name: "Eltwise2"
  type: "Eltwise"
  bottom: "Eltwise1"
  bottom: "Convolution5"
  top: "Eltwise2"
  eltwise_param {
    operation: SUM
  }
}
layer {
  name: "penlu5"
  type: "PENLU"
  bottom: "Eltwise2"
  top: "Eltwise2"
  param {
    lr_mult: 1
    decay_mult: 1
  }
  param {
    lr_mult: 1
    decay_mult: 1
  }
  param {
    lr_mult: 1
    decay_mult: 1
  }
  penlu_param {
    alpha_filler {
      type: "constant"
      value: 25
    }
    beta_filler {
      type: "constant"
      value: 0.01
    }
    eta_filler {
      type: "constant"
      value: 1
    }
  }
}
layer {
  name: "Convolution6"
  type: "Convolution"
  bottom: "Eltwise2"
  top: "Convolution6"
  param {
    lr_mult: 1
    decay_mult: 1
  }
  param {
    lr_mult: 2
    decay_mult: 0
  }
  convolution_param {
    num_output: 16
    pad: 1
    kernel_size: 3
    stride: 1
    weight_filler {
      type: "gaussian"
      std: 0.118
    }
    bias_filler {
      type: "constant"
      value: 0
    }
  }
}
layer {
  name: "BatchNorm6"
  type: "BatchNorm"
  bottom: "Convolution6"
  top: "Convolution6"
  param {
    lr_mult: 0
    decay_mult: 0
  }
  param {
    lr_mult: 0
    decay_mult: 0
  }
  param {
    lr_mult: 0
    decay_mult: 0
  }
}
layer {
  name: "Scale6"
  type: "Scale"
  bottom: "Convolution6"
  top: "Convolution6"
  scale_param {
    bias_term: true
  }
}
layer {
  name: "penlu6"
  type: "PENLU"
  bottom: "Convolution6"
  top: "Convolution6"
  param {
    lr_mult: 1
    decay_mult: 1
  }
  param {
    lr_mult: 1
    decay_mult: 1
  }
  param {
    lr_mult: 1
    decay_mult: 1
  }
  penlu_param {
    alpha_filler {
      type: "constant"
      value: 25
    }
    beta_filler {
      type: "constant"
      value: 0.01
    }
    eta_filler {
      type: "constant"
      value: 1
    }
  }
}
layer {
  name: "Convolution7"
  type: "Convolution"
  bottom: "Convolution6"
  top: "Convolution7"
  param {
    lr_mult: 1
    decay_mult: 1
  }
  param {
    lr_mult: 2
    decay_mult: 0
  }
  convolution_param {
    num_output: 16
    pad: 1
    kernel_size: 3
    stride: 1
    weight_filler {
      type: "gaussian"
      std: 0.118
    }
    bias_filler {
      type: "constant"
      value: 0
    }
  }
}
layer {
  name: "BatchNorm7"
  type: "BatchNorm"
  bottom: "Convolution7"
  top: "Convolution7"
  param {
    lr_mult: 0
    decay_mult: 0
  }
  param {
    lr_mult: 0
    decay_mult: 0
  }
  param {
    lr_mult: 0
    decay_mult: 0
  }
}
layer {
  name: "Scale7"
  type: "Scale"
  bottom: "Convolution7"
  top: "Convolution7"
  scale_param {
    bias_term: true
  }
}
layer {
  name: "Eltwise3"
  type: "Eltwise"
  bottom: "Eltwise2"
  bottom: "Convolution7"
  top: "Eltwise3"
  eltwise_param {
    operation: SUM
  }
}
layer {
  name: "penlu7"
  type: "PENLU"
  bottom: "Eltwise3"
  top: "Eltwise3"
  param {
    lr_mult: 1
    decay_mult: 1
  }
  param {
    lr_mult: 1
    decay_mult: 1
  }
  param {
    lr_mult: 1
    decay_mult: 1
  }
  penlu_param {
    alpha_filler {
      type: "constant"
      value: 25
    }
    beta_filler {
      type: "constant"
      value: 0.01
    }
    eta_filler {
      type: "constant"
      value: 1
    }
  }
}
layer {
  name: "Convolution8"
  type: "Convolution"
  bottom: "Eltwise3"
  top: "Convolution8"
  param {
    lr_mult: 1
    decay_mult: 1
  }
  param {
    lr_mult: 2
    decay_mult: 0
  }
  convolution_param {
    num_output: 16
    pad: 1
    kernel_size: 3
    stride: 1
    weight_filler {
      type: "gaussian"
      std: 0.118
    }
    bias_filler {
      type: "constant"
      value: 0
    }
  }
}
layer {
  name: "BatchNorm8"
  type: "BatchNorm"
  bottom: "Convolution8"
  top: "Convolution8"
  param {
    lr_mult: 0
    decay_mult: 0
  }
  param {
    lr_mult: 0
    decay_mult: 0
  }
  param {
    lr_mult: 0
    decay_mult: 0
  }
}
layer {
  name: "Scale8"
  type: "Scale"
  bottom: "Convolution8"
  top: "Convolution8"
  scale_param {
    bias_term: true
  }
}
layer {
  name: "penlu8"
  type: "PENLU"
  bottom: "Convolution8"
  top: "Convolution8"
  param {
    lr_mult: 1
    decay_mult: 1
  }
  param {
    lr_mult: 1
    decay_mult: 1
  }
  param {
    lr_mult: 1
    decay_mult: 1
  }
  penlu_param {
    alpha_filler {
      type: "constant"
      value: 25
    }
    beta_filler {
      type: "constant"
      value: 0.01
    }
    eta_filler {
      type: "constant"
      value: 1
    }
  }
}
layer {
  name: "Convolution9"
  type: "Convolution"
  bottom: "Convolution8"
  top: "Convolution9"
  param {
    lr_mult: 1
    decay_mult: 1
  }
  param {
    lr_mult: 2
    decay_mult: 0
  }
  convolution_param {
    num_output: 16
    pad: 1
    kernel_size: 3
    stride: 1
    weight_filler {
      type: "gaussian"
      std: 0.118
    }
    bias_filler {
      type: "constant"
      value: 0
    }
  }
}
layer {
  name: "BatchNorm9"
  type: "BatchNorm"
  bottom: "Convolution9"
  top: "Convolution9"
  param {
    lr_mult: 0
    decay_mult: 0
  }
  param {
    lr_mult: 0
    decay_mult: 0
  }
  param {
    lr_mult: 0
    decay_mult: 0
  }
}
layer {
  name: "Scale9"
  type: "Scale"
  bottom: "Convolution9"
  top: "Convolution9"
  scale_param {
    bias_term: true
  }
}
layer {
  name: "Eltwise4"
  type: "Eltwise"
  bottom: "Eltwise3"
  bottom: "Convolution9"
  top: "Eltwise4"
  eltwise_param {
    operation: SUM
  }
}
layer {
  name: "penlu9"
  type: "PENLU"
  bottom: "Eltwise4"
  top: "Eltwise4"
  param {
    lr_mult: 1
    decay_mult: 1
  }
  param {
    lr_mult: 1
    decay_mult: 1
  }
  param {
    lr_mult: 1
    decay_mult: 1
  }
  penlu_param {
    alpha_filler {
      type: "constant"
      value: 25
    }
    beta_filler {
      type: "constant"
      value: 0.01
    }
    eta_filler {
      type: "constant"
      value: 1
    }
  }
}
layer {
  name: "Convolution10"
  type: "Convolution"
  bottom: "Eltwise4"
  top: "Convolution10"
  param {
    lr_mult: 1
    decay_mult: 1
  }
  param {
    lr_mult: 2
    decay_mult: 0
  }
  convolution_param {
    num_output: 16
    pad: 1
    kernel_size: 3
    stride: 1
    weight_filler {
      type: "gaussian"
      std: 0.118
    }
    bias_filler {
      type: "constant"
      value: 0
    }
  }
}
layer {
  name: "BatchNorm10"
  type: "BatchNorm"
  bottom: "Convolution10"
  top: "Convolution10"
  param {
    lr_mult: 0
    decay_mult: 0
  }
  param {
    lr_mult: 0
    decay_mult: 0
  }
  param {
    lr_mult: 0
    decay_mult: 0
  }
}
layer {
  name: "Scale10"
  type: "Scale"
  bottom: "Convolution10"
  top: "Convolution10"
  scale_param {
    bias_term: true
  }
}
layer {
  name: "penlu10"
  type: "PENLU"
  bottom: "Convolution10"
  top: "Convolution10"
  param {
    lr_mult: 1
    decay_mult: 1
  }
  param {
    lr_mult: 1
    decay_mult: 1
  }
  param {
    lr_mult: 1
    decay_mult: 1
  }
  penlu_param {
    alpha_filler {
      type: "constant"
      value: 25
    }
    beta_filler {
      type: "constant"
      value: 0.01
    }
    eta_filler {
      type: "constant"
      value: 1
    }
  }
}
layer {
  name: "Convolution11"
  type: "Convolution"
  bottom: "Convolution10"
  top: "Convolution11"
  param {
    lr_mult: 1
    decay_mult: 1
  }
  param {
    lr_mult: 2
    decay_mult: 0
  }
  convolution_param {
    num_output: 16
    pad: 1
    kernel_size: 3
    stride: 1
    weight_filler {
      type: "gaussian"
      std: 0.118
    }
    bias_filler {
      type: "constant"
      value: 0
    }
  }
}
layer {
  name: "BatchNorm11"
  type: "BatchNorm"
  bottom: "Convolution11"
  top: "Convolution11"
  param {
    lr_mult: 0
    decay_mult: 0
  }
  param {
    lr_mult: 0
    decay_mult: 0
  }
  param {
    lr_mult: 0
    decay_mult: 0
  }
}
layer {
  name: "Scale11"
  type: "Scale"
  bottom: "Convolution11"
  top: "Convolution11"
  scale_param {
    bias_term: true
  }
}
layer {
  name: "Eltwise5"
  type: "Eltwise"
  bottom: "Eltwise4"
  bottom: "Convolution11"
  top: "Eltwise5"
  eltwise_param {
    operation: SUM
  }
}
layer {
  name: "penlu11"
  type: "PENLU"
  bottom: "Eltwise5"
  top: "Eltwise5"
  param {
    lr_mult: 1
    decay_mult: 1
  }
  param {
    lr_mult: 1
    decay_mult: 1
  }
  param {
    lr_mult: 1
    decay_mult: 1
  }
  penlu_param {
    alpha_filler {
      type: "constant"
      value: 25
    }
    beta_filler {
      type: "constant"
      value: 0.01
    }
    eta_filler {
      type: "constant"
      value: 1
    }
  }
}
layer {
  name: "Convolution12"
  type: "Convolution"
  bottom: "Eltwise5"
  top: "Convolution12"
  param {
    lr_mult: 1
    decay_mult: 1
  }
  param {
    lr_mult: 2
    decay_mult: 0
  }
  convolution_param {
    num_output: 16
    pad: 1
    kernel_size: 3
    stride: 1
    weight_filler {
      type: "gaussian"
      std: 0.118
    }
    bias_filler {
      type: "constant"
      value: 0
    }
  }
}
layer {
  name: "BatchNorm12"
  type: "BatchNorm"
  bottom: "Convolution12"
  top: "Convolution12"
  param {
    lr_mult: 0
    decay_mult: 0
  }
  param {
    lr_mult: 0
    decay_mult: 0
  }
  param {
    lr_mult: 0
    decay_mult: 0
  }
}
layer {
  name: "Scale12"
  type: "Scale"
  bottom: "Convolution12"
  top: "Convolution12"
  scale_param {
    bias_term: true
  }
}
layer {
  name: "penlu12"
  type: "PENLU"
  bottom: "Convolution12"
  top: "Convolution12"
  param {
    lr_mult: 1
    decay_mult: 1
  }
  param {
    lr_mult: 1
    decay_mult: 1
  }
  param {
    lr_mult: 1
    decay_mult: 1
  }
  penlu_param {
    alpha_filler {
      type: "constant"
      value: 25
    }
    beta_filler {
      type: "constant"
      value: 0.01
    }
    eta_filler {
      type: "constant"
      value: 1
    }
  }
}
layer {
  name: "Convolution13"
  type: "Convolution"
  bottom: "Convolution12"
  top: "Convolution13"
  param {
    lr_mult: 1
    decay_mult: 1
  }
  param {
    lr_mult: 2
    decay_mult: 0
  }
  convolution_param {
    num_output: 16
    pad: 1
    kernel_size: 3
    stride: 1
    weight_filler {
      type: "gaussian"
      std: 0.118
    }
    bias_filler {
      type: "constant"
      value: 0
    }
  }
}
layer {
  name: "BatchNorm13"
  type: "BatchNorm"
  bottom: "Convolution13"
  top: "Convolution13"
  param {
    lr_mult: 0
    decay_mult: 0
  }
  param {
    lr_mult: 0
    decay_mult: 0
  }
  param {
    lr_mult: 0
    decay_mult: 0
  }
}
layer {
  name: "Scale13"
  type: "Scale"
  bottom: "Convolution13"
  top: "Convolution13"
  scale_param {
    bias_term: true
  }
}
layer {
  name: "Eltwise6"
  type: "Eltwise"
  bottom: "Eltwise5"
  bottom: "Convolution13"
  top: "Eltwise6"
  eltwise_param {
    operation: SUM
  }
}
layer {
  name: "penlu13"
  type: "PENLU"
  bottom: "Eltwise6"
  top: "Eltwise6"
  param {
    lr_mult: 1
    decay_mult: 1
  }
  param {
    lr_mult: 1
    decay_mult: 1
  }
  param {
    lr_mult: 1
    decay_mult: 1
  }
  penlu_param {
    alpha_filler {
      type: "constant"
      value: 25
    }
    beta_filler {
      type: "constant"
      value: 0.01
    }
    eta_filler {
      type: "constant"
      value: 1
    }
  }
}
layer {
  name: "Convolution14"
  type: "Convolution"
  bottom: "Eltwise6"
  top: "Convolution14"
  param {
    lr_mult: 1
    decay_mult: 1
  }
  param {
    lr_mult: 2
    decay_mult: 0
  }
  convolution_param {
    num_output: 16
    pad: 1
    kernel_size: 3
    stride: 1
    weight_filler {
      type: "gaussian"
      std: 0.118
    }
    bias_filler {
      type: "constant"
      value: 0
    }
  }
}
layer {
  name: "BatchNorm14"
  type: "BatchNorm"
  bottom: "Convolution14"
  top: "Convolution14"
  param {
    lr_mult: 0
    decay_mult: 0
  }
  param {
    lr_mult: 0
    decay_mult: 0
  }
  param {
    lr_mult: 0
    decay_mult: 0
  }
}
layer {
  name: "Scale14"
  type: "Scale"
  bottom: "Convolution14"
  top: "Convolution14"
  scale_param {
    bias_term: true
  }
}
layer {
  name: "penlu14"
  type: "PENLU"
  bottom: "Convolution14"
  top: "Convolution14"
  param {
    lr_mult: 1
    decay_mult: 1
  }
  param {
    lr_mult: 1
    decay_mult: 1
  }
  param {
    lr_mult: 1
    decay_mult: 1
  }
  penlu_param {
    alpha_filler {
      type: "constant"
      value: 25
    }
    beta_filler {
      type: "constant"
      value: 0.01
    }
    eta_filler {
      type: "constant"
      value: 1
    }
  }
}
layer {
  name: "Convolution15"
  type: "Convolution"
  bottom: "Convolution14"
  top: "Convolution15"
  param {
    lr_mult: 1
    decay_mult: 1
  }
  param {
    lr_mult: 2
    decay_mult: 0
  }
  convolution_param {
    num_output: 16
    pad: 1
    kernel_size: 3
    stride: 1
    weight_filler {
      type: "gaussian"
      std: 0.118
    }
    bias_filler {
      type: "constant"
      value: 0
    }
  }
}
layer {
  name: "BatchNorm15"
  type: "BatchNorm"
  bottom: "Convolution15"
  top: "Convolution15"
  param {
    lr_mult: 0
    decay_mult: 0
  }
  param {
    lr_mult: 0
    decay_mult: 0
  }
  param {
    lr_mult: 0
    decay_mult: 0
  }
}
layer {
  name: "Scale15"
  type: "Scale"
  bottom: "Convolution15"
  top: "Convolution15"
  scale_param {
    bias_term: true
  }
}
layer {
  name: "Eltwise7"
  type: "Eltwise"
  bottom: "Eltwise6"
  bottom: "Convolution15"
  top: "Eltwise7"
  eltwise_param {
    operation: SUM
  }
}
layer {
  name: "penlu15"
  type: "PENLU"
  bottom: "Eltwise7"
  top: "Eltwise7"
  param {
    lr_mult: 1
    decay_mult: 1
  }
  param {
    lr_mult: 1
    decay_mult: 1
  }
  param {
    lr_mult: 1
    decay_mult: 1
  }
  penlu_param {
    alpha_filler {
      type: "constant"
      value: 25
    }
    beta_filler {
      type: "constant"
      value: 0.01
    }
    eta_filler {
      type: "constant"
      value: 1
    }
  }
}
layer {
  name: "Convolution16"
  type: "Convolution"
  bottom: "Eltwise7"
  top: "Convolution16"
  param {
    lr_mult: 1
    decay_mult: 1
  }
  param {
    lr_mult: 2
    decay_mult: 0
  }
  convolution_param {
    num_output: 16
    pad: 1
    kernel_size: 3
    stride: 1
    weight_filler {
      type: "gaussian"
      std: 0.118
    }
    bias_filler {
      type: "constant"
      value: 0
    }
  }
}
layer {
  name: "BatchNorm16"
  type: "BatchNorm"
  bottom: "Convolution16"
  top: "Convolution16"
  param {
    lr_mult: 0
    decay_mult: 0
  }
  param {
    lr_mult: 0
    decay_mult: 0
  }
  param {
    lr_mult: 0
    decay_mult: 0
  }
}
layer {
  name: "Scale16"
  type: "Scale"
  bottom: "Convolution16"
  top: "Convolution16"
  scale_param {
    bias_term: true
  }
}
layer {
  name: "penlu16"
  type: "PENLU"
  bottom: "Convolution16"
  top: "Convolution16"
  param {
    lr_mult: 1
    decay_mult: 1
  }
  param {
    lr_mult: 1
    decay_mult: 1
  }
  param {
    lr_mult: 1
    decay_mult: 1
  }
  penlu_param {
    alpha_filler {
      type: "constant"
      value: 25
    }
    beta_filler {
      type: "constant"
      value: 0.01
    }
    eta_filler {
      type: "constant"
      value: 1
    }
  }
}
layer {
  name: "Convolution17"
  type: "Convolution"
  bottom: "Convolution16"
  top: "Convolution17"
  param {
    lr_mult: 1
    decay_mult: 1
  }
  param {
    lr_mult: 2
    decay_mult: 0
  }
  convolution_param {
    num_output: 16
    pad: 1
    kernel_size: 3
    stride: 1
    weight_filler {
      type: "gaussian"
      std: 0.118
    }
    bias_filler {
      type: "constant"
      value: 0
    }
  }
}
layer {
  name: "BatchNorm17"
  type: "BatchNorm"
  bottom: "Convolution17"
  top: "Convolution17"
  param {
    lr_mult: 0
    decay_mult: 0
  }
  param {
    lr_mult: 0
    decay_mult: 0
  }
  param {
    lr_mult: 0
    decay_mult: 0
  }
}
layer {
  name: "Scale17"
  type: "Scale"
  bottom: "Convolution17"
  top: "Convolution17"
  scale_param {
    bias_term: true
  }
}
layer {
  name: "Eltwise8"
  type: "Eltwise"
  bottom: "Eltwise7"
  bottom: "Convolution17"
  top: "Eltwise8"
  eltwise_param {
    operation: SUM
  }
}
layer {
  name: "penlu17"
  type: "PENLU"
  bottom: "Eltwise8"
  top: "Eltwise8"
  param {
    lr_mult: 1
    decay_mult: 1
  }
  param {
    lr_mult: 1
    decay_mult: 1
  }
  param {
    lr_mult: 1
    decay_mult: 1
  }
  penlu_param {
    alpha_filler {
      type: "constant"
      value: 25
    }
    beta_filler {
      type: "constant"
      value: 0.01
    }
    eta_filler {
      type: "constant"
      value: 1
    }
  }
}
layer {
  name: "Convolution18"
  type: "Convolution"
  bottom: "Eltwise8"
  top: "Convolution18"
  param {
    lr_mult: 1
    decay_mult: 1
  }
  param {
    lr_mult: 2
    decay_mult: 0
  }
  convolution_param {
    num_output: 16
    pad: 1
    kernel_size: 3
    stride: 1
    weight_filler {
      type: "gaussian"
      std: 0.118
    }
    bias_filler {
      type: "constant"
      value: 0
    }
  }
}
layer {
  name: "BatchNorm18"
  type: "BatchNorm"
  bottom: "Convolution18"
  top: "Convolution18"
  param {
    lr_mult: 0
    decay_mult: 0
  }
  param {
    lr_mult: 0
    decay_mult: 0
  }
  param {
    lr_mult: 0
    decay_mult: 0
  }
}
layer {
  name: "Scale18"
  type: "Scale"
  bottom: "Convolution18"
  top: "Convolution18"
  scale_param {
    bias_term: true
  }
}
layer {
  name: "penlu18"
  type: "PENLU"
  bottom: "Convolution18"
  top: "Convolution18"
  param {
    lr_mult: 1
    decay_mult: 1
  }
  param {
    lr_mult: 1
    decay_mult: 1
  }
  param {
    lr_mult: 1
    decay_mult: 1
  }
  penlu_param {
    alpha_filler {
      type: "constant"
      value: 25
    }
    beta_filler {
      type: "constant"
      value: 0.01
    }
    eta_filler {
      type: "constant"
      value: 1
    }
  }
}
layer {
  name: "Convolution19"
  type: "Convolution"
  bottom: "Convolution18"
  top: "Convolution19"
  param {
    lr_mult: 1
    decay_mult: 1
  }
  param {
    lr_mult: 2
    decay_mult: 0
  }
  convolution_param {
    num_output: 16
    pad: 1
    kernel_size: 3
    stride: 1
    weight_filler {
      type: "gaussian"
      std: 0.118
    }
    bias_filler {
      type: "constant"
      value: 0
    }
  }
}
layer {
  name: "BatchNorm19"
  type: "BatchNorm"
  bottom: "Convolution19"
  top: "Convolution19"
  param {
    lr_mult: 0
    decay_mult: 0
  }
  param {
    lr_mult: 0
    decay_mult: 0
  }
  param {
    lr_mult: 0
    decay_mult: 0
  }
}
layer {
  name: "Scale19"
  type: "Scale"
  bottom: "Convolution19"
  top: "Convolution19"
  scale_param {
    bias_term: true
  }
}
layer {
  name: "Eltwise9"
  type: "Eltwise"
  bottom: "Eltwise8"
  bottom: "Convolution19"
  top: "Eltwise9"
  eltwise_param {
    operation: SUM
  }
}
layer {
  name: "penlu19"
  type: "PENLU"
  bottom: "Eltwise9"
  top: "Eltwise9"
  param {
    lr_mult: 1
    decay_mult: 1
  }
  param {
    lr_mult: 1
    decay_mult: 1
  }
  param {
    lr_mult: 1
    decay_mult: 1
  }
  penlu_param {
    alpha_filler {
      type: "constant"
      value: 25
    }
    beta_filler {
      type: "constant"
      value: 0.01
    }
    eta_filler {
      type: "constant"
      value: 1
    }
  }
}
layer {
  name: "Convolution20"
  type: "Convolution"
  bottom: "Eltwise9"
  top: "Convolution20"
  param {
    lr_mult: 1
    decay_mult: 1
  }
  param {
    lr_mult: 2
    decay_mult: 0
  }
  convolution_param {
    num_output: 32
    pad: 0
    kernel_size: 1
    stride: 2
    weight_filler {
      type: "gaussian"
      std: 0.25
    }
    bias_filler {
      type: "constant"
      value: 0
    }
  }
}
layer {
  name: "BatchNorm20"
  type: "BatchNorm"
  bottom: "Convolution20"
  top: "Convolution20"
  param {
    lr_mult: 0
    decay_mult: 0
  }
  param {
    lr_mult: 0
    decay_mult: 0
  }
  param {
    lr_mult: 0
    decay_mult: 0
  }
}
layer {
  name: "Scale20"
  type: "Scale"
  bottom: "Convolution20"
  top: "Convolution20"
  scale_param {
    bias_term: true
  }
}
layer {
  name: "Convolution21"
  type: "Convolution"
  bottom: "Eltwise9"
  top: "Convolution21"
  param {
    lr_mult: 1
    decay_mult: 1
  }
  param {
    lr_mult: 2
    decay_mult: 0
  }
  convolution_param {
    num_output: 32
    pad: 1
    kernel_size: 3
    stride: 2
    weight_filler {
      type: "gaussian"
      std: 0.083
    }
    bias_filler {
      type: "constant"
      value: 0
    }
  }
}
layer {
  name: "BatchNorm21"
  type: "BatchNorm"
  bottom: "Convolution21"
  top: "Convolution21"
  param {
    lr_mult: 0
    decay_mult: 0
  }
  param {
    lr_mult: 0
    decay_mult: 0
  }
  param {
    lr_mult: 0
    decay_mult: 0
  }
}
layer {
  name: "Scale21"
  type: "Scale"
  bottom: "Convolution21"
  top: "Convolution21"
  scale_param {
    bias_term: true
  }
}
layer {
  name: "penlu20"
  type: "PENLU"
  bottom: "Convolution21"
  top: "Convolution21"
  param {
    lr_mult: 1
    decay_mult: 1
  }
  param {
    lr_mult: 1
    decay_mult: 1
  }
  param {
    lr_mult: 1
    decay_mult: 1
  }
  penlu_param {
    alpha_filler {
      type: "constant"
      value: 25
    }
    beta_filler {
      type: "constant"
      value: 0.01
    }
    eta_filler {
      type: "constant"
      value: 1
    }
  }
}
layer {
  name: "Convolution22"
  type: "Convolution"
  bottom: "Convolution21"
  top: "Convolution22"
  param {
    lr_mult: 1
    decay_mult: 1
  }
  param {
    lr_mult: 2
    decay_mult: 0
  }
  convolution_param {
    num_output: 32
    pad: 1
    kernel_size: 3
    stride: 1
    weight_filler {
      type: "gaussian"
      std: 0.083
    }
    bias_filler {
      type: "constant"
      value: 0
    }
  }
}
layer {
  name: "BatchNorm22"
  type: "BatchNorm"
  bottom: "Convolution22"
  top: "Convolution22"
  param {
    lr_mult: 0
    decay_mult: 0
  }
  param {
    lr_mult: 0
    decay_mult: 0
  }
  param {
    lr_mult: 0
    decay_mult: 0
  }
}
layer {
  name: "Scale22"
  type: "Scale"
  bottom: "Convolution22"
  top: "Convolution22"
  scale_param {
    bias_term: true
  }
}
layer {
  name: "Eltwise10"
  type: "Eltwise"
  bottom: "Convolution20"
  bottom: "Convolution22"
  top: "Eltwise10"
  eltwise_param {
    operation: SUM
  }
}
layer {
  name: "penlu21"
  type: "PENLU"
  bottom: "Eltwise10"
  top: "Eltwise10"
  param {
    lr_mult: 1
    decay_mult: 1
  }
  param {
    lr_mult: 1
    decay_mult: 1
  }
  param {
    lr_mult: 1
    decay_mult: 1
  }
  penlu_param {
    alpha_filler {
      type: "constant"
      value: 25
    }
    beta_filler {
      type: "constant"
      value: 0.01
    }
    eta_filler {
      type: "constant"
      value: 1
    }
  }
}
layer {
  name: "Convolution23"
  type: "Convolution"
  bottom: "Eltwise10"
  top: "Convolution23"
  param {
    lr_mult: 1
    decay_mult: 1
  }
  param {
    lr_mult: 2
    decay_mult: 0
  }
  convolution_param {
    num_output: 32
    pad: 1
    kernel_size: 3
    stride: 1
    weight_filler {
      type: "gaussian"
      std: 0.083
    }
    bias_filler {
      type: "constant"
      value: 0
    }
  }
}
layer {
  name: "BatchNorm23"
  type: "BatchNorm"
  bottom: "Convolution23"
  top: "Convolution23"
  param {
    lr_mult: 0
    decay_mult: 0
  }
  param {
    lr_mult: 0
    decay_mult: 0
  }
  param {
    lr_mult: 0
    decay_mult: 0
  }
}
layer {
  name: "Scale23"
  type: "Scale"
  bottom: "Convolution23"
  top: "Convolution23"
  scale_param {
    bias_term: true
  }
}
layer {
  name: "penlu22"
  type: "PENLU"
  bottom: "Convolution23"
  top: "Convolution23"
  param {
    lr_mult: 1
    decay_mult: 1
  }
  param {
    lr_mult: 1
    decay_mult: 1
  }
  param {
    lr_mult: 1
    decay_mult: 1
  }
  penlu_param {
    alpha_filler {
      type: "constant"
      value: 25
    }
    beta_filler {
      type: "constant"
      value: 0.01
    }
    eta_filler {
      type: "constant"
      value: 1
    }
  }
}
layer {
  name: "Convolution24"
  type: "Convolution"
  bottom: "Convolution23"
  top: "Convolution24"
  param {
    lr_mult: 1
    decay_mult: 1
  }
  param {
    lr_mult: 2
    decay_mult: 0
  }
  convolution_param {
    num_output: 32
    pad:
I0925 20:24:05.224678  3532 layer_factory.hpp:77] Creating layer Data1
I0925 20:24:05.224752  3532 db_lmdb.cpp:35] Opened lmdb /home/x306/caffe/xn/PENLU/data/cifar10/cifar10_train_lmdb
I0925 20:24:05.224771  3532 net.cpp:84] Creating Layer Data1
I0925 20:24:05.224776  3532 net.cpp:380] Data1 -> Data1
I0925 20:24:05.224794  3532 net.cpp:380] Data1 -> Data2
I0925 20:24:05.224802  3532 data_transformer.cpp:25] Loading mean file from: /home/x306/caffe/xn/PENLU/data/cifar10/mean.binaryproto
I0925 20:24:05.226187  3532 data_layer.cpp:45] output data size: 100,3,28,28
I0925 20:24:05.228438  3532 net.cpp:122] Setting up Data1
I0925 20:24:05.228452  3532 net.cpp:129] Top shape: 100 3 28 28 (235200)
I0925 20:24:05.228456  3532 net.cpp:129] Top shape: 100 (100)
I0925 20:24:05.228458  3532 net.cpp:137] Memory required for data: 941200
I0925 20:24:05.228464  3532 layer_factory.hpp:77] Creating layer Convolution1
I0925 20:24:05.228483  3532 net.cpp:84] Creating Layer Convolution1
I0925 20:24:05.228487  3532 net.cpp:406] Convolution1 <- Data1
I0925 20:24:05.228502  3532 net.cpp:380] Convolution1 -> Convolution1
I0925 20:24:05.376078  3532 net.cpp:122] Setting up Convolution1
I0925 20:24:05.376116  3532 net.cpp:129] Top shape: 100 16 28 28 (1254400)
I0925 20:24:05.376118  3532 net.cpp:137] Memory required for data: 5958800
I0925 20:24:05.376144  3532 layer_factory.hpp:77] Creating layer BatchNorm1
I0925 20:24:05.376155  3532 net.cpp:84] Creating Layer BatchNorm1
I0925 20:24:05.376158  3532 net.cpp:406] BatchNorm1 <- Convolution1
I0925 20:24:05.376174  3532 net.cpp:367] BatchNorm1 -> Convolution1 (in-place)
I0925 20:24:05.376334  3532 net.cpp:122] Setting up BatchNorm1
I0925 20:24:05.376340  3532 net.cpp:129] Top shape: 100 16 28 28 (1254400)
I0925 20:24:05.376353  3532 net.cpp:137] Memory required for data: 10976400
I0925 20:24:05.376360  3532 layer_factory.hpp:77] Creating layer Scale1
I0925 20:24:05.376379  3532 net.cpp:84] Creating Layer Scale1
I0925 20:24:05.376381  3532 net.cpp:406] Scale1 <- Convolution1
I0925 20:24:05.376385  3532 net.cpp:367] Scale1 -> Convolution1 (in-place)
I0925 20:24:05.376444  3532 layer_factory.hpp:77] Creating layer Scale1
I0925 20:24:05.376605  3532 net.cpp:122] Setting up Scale1
I0925 20:24:05.376610  3532 net.cpp:129] Top shape: 100 16 28 28 (1254400)
I0925 20:24:05.376623  3532 net.cpp:137] Memory required for data: 15994000
I0925 20:24:05.376627  3532 layer_factory.hpp:77] Creating layer penlu1
I0925 20:24:05.376644  3532 net.cpp:84] Creating Layer penlu1
I0925 20:24:05.376647  3532 net.cpp:406] penlu1 <- Convolution1
I0925 20:24:05.376651  3532 net.cpp:367] penlu1 -> Convolution1 (in-place)
I0925 20:24:05.377282  3532 net.cpp:122] Setting up penlu1
I0925 20:24:05.377291  3532 net.cpp:129] Top shape: 100 16 28 28 (1254400)
I0925 20:24:05.377295  3532 net.cpp:137] Memory required for data: 21011600
I0925 20:24:05.377301  3532 layer_factory.hpp:77] Creating layer Convolution1_penlu1_0_split
I0925 20:24:05.377321  3532 net.cpp:84] Creating Layer Convolution1_penlu1_0_split
I0925 20:24:05.377323  3532 net.cpp:406] Convolution1_penlu1_0_split <- Convolution1
I0925 20:24:05.377328  3532 net.cpp:380] Convolution1_penlu1_0_split -> Convolution1_penlu1_0_split_0
I0925 20:24:05.377334  3532 net.cpp:380] Convolution1_penlu1_0_split -> Convolution1_penlu1_0_split_1
I0925 20:24:05.377367  3532 net.cpp:122] Setting up Convolution1_penlu1_0_split
I0925 20:24:05.377372  3532 net.cpp:129] Top shape: 100 16 28 28 (1254400)
I0925 20:24:05.377375  3532 net.cpp:129] Top shape: 100 16 28 28 (1254400)
I0925 20:24:05.377377  3532 net.cpp:137] Memory required for data: 31046800
I0925 20:24:05.377379  3532 layer_factory.hpp:77] Creating layer Convolution2
I0925 20:24:05.377388  3532 net.cpp:84] Creating Layer Convolution2
I0925 20:24:05.377389  3532 net.cpp:406] Convolution2 <- Convolution1_penlu1_0_split_0
I0925 20:24:05.377403  3532 net.cpp:380] Convolution2 -> Convolution2
I0925 20:24:05.378244  3532 net.cpp:122] Setting up Convolution2
I0925 20:24:05.378254  3532 net.cpp:129] Top shape: 100 16 28 28 (1254400)
I0925 20:24:05.378268  3532 net.cpp:137] Memory required for data: 36064400
I0925 20:24:05.378273  3532 layer_factory.hpp:77] Creating layer BatchNorm2
I0925 20:24:05.378288  3532 net.cpp:84] Creating Layer BatchNorm2
I0925 20:24:05.378289  3532 net.cpp:406] BatchNorm2 <- Convolution2
I0925 20:24:05.378295  3532 net.cpp:367] BatchNorm2 -> Convolution2 (in-place)
I0925 20:24:05.378427  3532 net.cpp:122] Setting up BatchNorm2
I0925 20:24:05.378432  3532 net.cpp:129] Top shape: 100 16 28 28 (1254400)
I0925 20:24:05.378433  3532 net.cpp:137] Memory required for data: 41082000
I0925 20:24:05.378448  3532 layer_factory.hpp:77] Creating layer Scale2
I0925 20:24:05.378453  3532 net.cpp:84] Creating Layer Scale2
I0925 20:24:05.378465  3532 net.cpp:406] Scale2 <- Convolution2
I0925 20:24:05.378469  3532 net.cpp:367] Scale2 -> Convolution2 (in-place)
I0925 20:24:05.378504  3532 layer_factory.hpp:77] Creating layer Scale2
I0925 20:24:05.378612  3532 net.cpp:122] Setting up Scale2
I0925 20:24:05.378617  3532 net.cpp:129] Top shape: 100 16 28 28 (1254400)
I0925 20:24:05.378618  3532 net.cpp:137] Memory required for data: 46099600
I0925 20:24:05.378634  3532 layer_factory.hpp:77] Creating layer penlu2
I0925 20:24:05.378639  3532 net.cpp:84] Creating Layer penlu2
I0925 20:24:05.378653  3532 net.cpp:406] penlu2 <- Convolution2
I0925 20:24:05.378656  3532 net.cpp:367] penlu2 -> Convolution2 (in-place)
I0925 20:24:05.378765  3532 net.cpp:122] Setting up penlu2
I0925 20:24:05.378770  3532 net.cpp:129] Top shape: 100 16 28 28 (1254400)
I0925 20:24:05.378790  3532 net.cpp:137] Memory required for data: 51117200
I0925 20:24:05.378805  3532 layer_factory.hpp:77] Creating layer Convolution3
I0925 20:24:05.378813  3532 net.cpp:84] Creating Layer Convolution3
I0925 20:24:05.378815  3532 net.cpp:406] Convolution3 <- Convolution2
I0925 20:24:05.378820  3532 net.cpp:380] Convolution3 -> Convolution3
I0925 20:24:05.379642  3532 net.cpp:122] Setting up Convolution3
I0925 20:24:05.379652  3532 net.cpp:129] Top shape: 100 16 28 28 (1254400)
I0925 20:24:05.379664  3532 net.cpp:137] Memory required for data: 56134800
I0925 20:24:05.379668  3532 layer_factory.hpp:77] Creating layer BatchNorm3
I0925 20:24:05.379684  3532 net.cpp:84] Creating Layer BatchNorm3
I0925 20:24:05.379688  3532 net.cpp:406] BatchNorm3 <- Convolution3
I0925 20:24:05.379691  3532 net.cpp:367] BatchNorm3 -> Convolution3 (in-place)
I0925 20:24:05.379822  3532 net.cpp:122] Setting up BatchNorm3
I0925 20:24:05.379827  3532 net.cpp:129] Top shape: 100 16 28 28 (1254400)
I0925 20:24:05.379838  3532 net.cpp:137] Memory required for data: 61152400
I0925 20:24:05.379843  3532 layer_factory.hpp:77] Creating layer Scale3
I0925 20:24:05.379858  3532 net.cpp:84] Creating Layer Scale3
I0925 20:24:05.379860  3532 net.cpp:406] Scale3 <- Convolution3
I0925 20:24:05.379864  3532 net.cpp:367] Scale3 -> Convolution3 (in-place)
I0925 20:24:05.379896  3532 layer_factory.hpp:77] Creating layer Scale3
I0925 20:24:05.380002  3532 net.cpp:122] Setting up Scale3
I0925 20:24:05.380007  3532 net.cpp:129] Top shape: 100 16 28 28 (1254400)
I0925 20:24:05.380010  3532 net.cpp:137] Memory required for data: 66170000
I0925 20:24:05.380024  3532 layer_factory.hpp:77] Creating layer Eltwise1
I0925 20:24:05.380029  3532 net.cpp:84] Creating Layer Eltwise1
I0925 20:24:05.380033  3532 net.cpp:406] Eltwise1 <- Convolution1_penlu1_0_split_1
I0925 20:24:05.380035  3532 net.cpp:406] Eltwise1 <- Convolution3
I0925 20:24:05.380038  3532 net.cpp:380] Eltwise1 -> Eltwise1
I0925 20:24:05.380075  3532 net.cpp:122] Setting up Eltwise1
I0925 20:24:05.380080  3532 net.cpp:129] Top shape: 100 16 28 28 (1254400)
I0925 20:24:05.380084  3532 net.cpp:137] Memory required for data: 71187600
I0925 20:24:05.380096  3532 layer_factory.hpp:77] Creating layer penlu3
I0925 20:24:05.380101  3532 net.cpp:84] Creating Layer penlu3
I0925 20:24:05.380115  3532 net.cpp:406] penlu3 <- Eltwise1
I0925 20:24:05.380118  3532 net.cpp:367] penlu3 -> Eltwise1 (in-place)
I0925 20:24:05.380221  3532 net.cpp:122] Setting up penlu3
I0925 20:24:05.380226  3532 net.cpp:129] Top shape: 100 16 28 28 (1254400)
I0925 20:24:05.380229  3532 net.cpp:137] Memory required for data: 76205200
I0925 20:24:05.380244  3532 layer_factory.hpp:77] Creating layer Eltwise1_penlu3_0_split
I0925 20:24:05.380249  3532 net.cpp:84] Creating Layer Eltwise1_penlu3_0_split
I0925 20:24:05.380251  3532 net.cpp:406] Eltwise1_penlu3_0_split <- Eltwise1
I0925 20:24:05.380255  3532 net.cpp:380] Eltwise1_penlu3_0_split -> Eltwise1_penlu3_0_split_0
I0925 20:24:05.380260  3532 net.cpp:380] Eltwise1_penlu3_0_split -> Eltwise1_penlu3_0_split_1
I0925 20:24:05.380291  3532 net.cpp:122] Setting up Eltwise1_penlu3_0_split
I0925 20:24:05.380296  3532 net.cpp:129] Top shape: 100 16 28 28 (1254400)
I0925 20:24:05.380300  3532 net.cpp:129] Top shape: 100 16 28 28 (1254400)
I0925 20:24:05.380312  3532 net.cpp:137] Memory required for data: 86240400
I0925 20:24:05.380316  3532 layer_factory.hpp:77] Creating layer Convolution4
I0925 20:24:05.380322  3532 net.cpp:84] Creating Layer Convolution4
I0925 20:24:05.380326  3532 net.cpp:406] Convolution4 <- Eltwise1_penlu3_0_split_0
I0925 20:24:05.380329  3532 net.cpp:380] Convolution4 -> Convolution4
I0925 20:24:05.381170  3532 net.cpp:122] Setting up Convolution4
I0925 20:24:05.381181  3532 net.cpp:129] Top shape: 100 16 28 28 (1254400)
I0925 20:24:05.381184  3532 net.cpp:137] Memory required for data: 91258000
I0925 20:24:05.381189  3532 layer_factory.hpp:77] Creating layer BatchNorm4
I0925 20:24:05.381194  3532 net.cpp:84] Creating Layer BatchNorm4
I0925 20:24:05.381204  3532 net.cpp:406] BatchNorm4 <- Convolution4
I0925 20:24:05.381211  3532 net.cpp:367] BatchNorm4 -> Convolution4 (in-place)
I0925 20:24:05.381325  3532 net.cpp:122] Setting up BatchNorm4
I0925 20:24:05.381330  3532 net.cpp:129] Top shape: 100 16 28 28 (1254400)
I0925 20:24:05.381333  3532 net.cpp:137] Memory required for data: 96275600
I0925 20:24:05.381341  3532 layer_factory.hpp:77] Creating layer Scale4
I0925 20:24:05.381346  3532 net.cpp:84] Creating Layer Scale4
I0925 20:24:05.381350  3532 net.cpp:406] Scale4 <- Convolution4
I0925 20:24:05.381352  3532 net.cpp:367] Scale4 -> Convolution4 (in-place)
I0925 20:24:05.381377  3532 layer_factory.hpp:77] Creating layer Scale4
I0925 20:24:05.381445  3532 net.cpp:122] Setting up Scale4
I0925 20:24:05.381450  3532 net.cpp:129] Top shape: 100 16 28 28 (1254400)
I0925 20:24:05.381453  3532 net.cpp:137] Memory required for data: 101293200
I0925 20:24:05.381458  3532 layer_factory.hpp:77] Creating layer penlu4
I0925 20:24:05.381464  3532 net.cpp:84] Creating Layer penlu4
I0925 20:24:05.381466  3532 net.cpp:406] penlu4 <- Convolution4
I0925 20:24:05.381470  3532 net.cpp:367] penlu4 -> Convolution4 (in-place)
I0925 20:24:05.381564  3532 net.cpp:122] Setting up penlu4
I0925 20:24:05.381569  3532 net.cpp:129] Top shape: 100 16 28 28 (1254400)
I0925 20:24:05.381572  3532 net.cpp:137] Memory required for data: 106310800
I0925 20:24:05.381577  3532 layer_factory.hpp:77] Creating layer Convolution5
I0925 20:24:05.381584  3532 net.cpp:84] Creating Layer Convolution5
I0925 20:24:05.381588  3532 net.cpp:406] Convolution5 <- Convolution4
I0925 20:24:05.381592  3532 net.cpp:380] Convolution5 -> Convolution5
I0925 20:24:05.382424  3532 net.cpp:122] Setting up Convolution5
I0925 20:24:05.382436  3532 net.cpp:129] Top shape: 100 16 28 28 (1254400)
I0925 20:24:05.382438  3532 net.cpp:137] Memory required for data: 111328400
I0925 20:24:05.382443  3532 layer_factory.hpp:77] Creating layer BatchNorm5
I0925 20:24:05.382449  3532 net.cpp:84] Creating Layer BatchNorm5
I0925 20:24:05.382452  3532 net.cpp:406] BatchNorm5 <- Convolution5
I0925 20:24:05.382457  3532 net.cpp:367] BatchNorm5 -> Convolution5 (in-place)
I0925 20:24:05.382573  3532 net.cpp:122] Setting up BatchNorm5
I0925 20:24:05.382578  3532 net.cpp:129] Top shape: 100 16 28 28 (1254400)
I0925 20:24:05.382582  3532 net.cpp:137] Memory required for data: 116346000
I0925 20:24:05.382587  3532 layer_factory.hpp:77] Creating layer Scale5
I0925 20:24:05.382591  3532 net.cpp:84] Creating Layer Scale5
I0925 20:24:05.382596  3532 net.cpp:406] Scale5 <- Convolution5
I0925 20:24:05.382598  3532 net.cpp:367] Scale5 -> Convolution5 (in-place)
I0925 20:24:05.382622  3532 layer_factory.hpp:77] Creating layer Scale5
I0925 20:24:05.382692  3532 net.cpp:122] Setting up Scale5
I0925 20:24:05.382697  3532 net.cpp:129] Top shape: 100 16 28 28 (1254400)
I0925 20:24:05.382700  3532 net.cpp:137] Memory required for data: 121363600
I0925 20:24:05.382704  3532 layer_factory.hpp:77] Creating layer Eltwise2
I0925 20:24:05.382709  3532 net.cpp:84] Creating Layer Eltwise2
I0925 20:24:05.382712  3532 net.cpp:406] Eltwise2 <- Eltwise1_penlu3_0_split_1
I0925 20:24:05.382716  3532 net.cpp:406] Eltwise2 <- Convolution5
I0925 20:24:05.382720  3532 net.cpp:380] Eltwise2 -> Eltwise2
I0925 20:24:05.382735  3532 net.cpp:122] Setting up Eltwise2
I0925 20:24:05.382740  3532 net.cpp:129] Top shape: 100 16 28 28 (1254400)
I0925 20:24:05.382742  3532 net.cpp:137] Memory required for data: 126381200
I0925 20:24:05.382745  3532 layer_factory.hpp:77] Creating layer penlu5
I0925 20:24:05.382750  3532 net.cpp:84] Creating Layer penlu5
I0925 20:24:05.382753  3532 net.cpp:406] penlu5 <- Eltwise2
I0925 20:24:05.382756  3532 net.cpp:367] penlu5 -> Eltwise2 (in-place)
I0925 20:24:05.382853  3532 net.cpp:122] Setting up penlu5
I0925 20:24:05.382858  3532 net.cpp:129] Top shape: 100 16 28 28 (1254400)
I0925 20:24:05.382861  3532 net.cpp:137] Memory required for data: 131398800
I0925 20:24:05.382865  3532 layer_factory.hpp:77] Creating layer Eltwise2_penlu5_0_split
I0925 20:24:05.382876  3532 net.cpp:84] Creating Layer Eltwise2_penlu5_0_split
I0925 20:24:05.382879  3532 net.cpp:406] Eltwise2_penlu5_0_split <- Eltwise2
I0925 20:24:05.382884  3532 net.cpp:380] Eltwise2_penlu5_0_split -> Eltwise2_penlu5_0_split_0
I0925 20:24:05.382889  3532 net.cpp:380] Eltwise2_penlu5_0_split -> Eltwise2_penlu5_0_split_1
I0925 20:24:05.382911  3532 net.cpp:122] Setting up Eltwise2_penlu5_0_split
I0925 20:24:05.382915  3532 net.cpp:129] Top shape: 100 16 28 28 (1254400)
I0925 20:24:05.382920  3532 net.cpp:129] Top shape: 100 16 28 28 (1254400)
I0925 20:24:05.382921  3532 net.cpp:137] Memory required for data: 141434000
I0925 20:24:05.382925  3532 layer_factory.hpp:77] Creating layer Convolution6
I0925 20:24:05.382931  3532 net.cpp:84] Creating Layer Convolution6
I0925 20:24:05.382935  3532 net.cpp:406] Convolution6 <- Eltwise2_penlu5_0_split_0
I0925 20:24:05.382938  3532 net.cpp:380] Convolution6 -> Convolution6
I0925 20:24:05.383777  3532 net.cpp:122] Setting up Convolution6
I0925 20:24:05.383788  3532 net.cpp:129] Top shape: 100 16 28 28 (1254400)
I0925 20:24:05.383792  3532 net.cpp:137] Memory required for data: 146451600
I0925 20:24:05.383797  3532 layer_factory.hpp:77] Creating layer BatchNorm6
I0925 20:24:05.383802  3532 net.cpp:84] Creating Layer BatchNorm6
I0925 20:24:05.383806  3532 net.cpp:406] BatchNorm6 <- Convolution6
I0925 20:24:05.383810  3532 net.cpp:367] BatchNorm6 -> Convolution6 (in-place)
I0925 20:24:05.383930  3532 net.cpp:122] Setting up BatchNorm6
I0925 20:24:05.383936  3532 net.cpp:129] Top shape: 100 16 28 28 (1254400)
I0925 20:24:05.383939  3532 net.cpp:137] Memory required for data: 151469200
I0925 20:24:05.383944  3532 layer_factory.hpp:77] Creating layer Scale6
I0925 20:24:05.383949  3532 net.cpp:84] Creating Layer Scale6
I0925 20:24:05.383952  3532 net.cpp:406] Scale6 <- Convolution6
I0925 20:24:05.383956  3532 net.cpp:367] Scale6 -> Convolution6 (in-place)
I0925 20:24:05.383980  3532 layer_factory.hpp:77] Creating layer Scale6
I0925 20:24:05.384052  3532 net.cpp:122] Setting up Scale6
I0925 20:24:05.384057  3532 net.cpp:129] Top shape: 100 16 28 28 (1254400)
I0925 20:24:05.384060  3532 net.cpp:137] Memory required for data: 156486800
I0925 20:24:05.384064  3532 layer_factory.hpp:77] Creating layer penlu6
I0925 20:24:05.384070  3532 net.cpp:84] Creating Layer penlu6
I0925 20:24:05.384073  3532 net.cpp:406] penlu6 <- Convolution6
I0925 20:24:05.384076  3532 net.cpp:367] penlu6 -> Convolution6 (in-place)
I0925 20:24:05.384174  3532 net.cpp:122] Setting up penlu6
I0925 20:24:05.384179  3532 net.cpp:129] Top shape: 100 16 28 28 (1254400)
I0925 20:24:05.384182  3532 net.cpp:137] Memory required for data: 161504400
I0925 20:24:05.384187  3532 layer_factory.hpp:77] Creating layer Convolution7
I0925 20:24:05.384194  3532 net.cpp:84] Creating Layer Convolution7
I0925 20:24:05.384197  3532 net.cpp:406] Convolution7 <- Convolution6
I0925 20:24:05.384202  3532 net.cpp:380] Convolution7 -> Convolution7
I0925 20:24:05.384717  3532 net.cpp:122] Setting up Convolution7
I0925 20:24:05.384727  3532 net.cpp:129] Top shape: 100 16 28 28 (1254400)
I0925 20:24:05.384730  3532 net.cpp:137] Memory required for data: 166522000
I0925 20:24:05.384734  3532 layer_factory.hpp:77] Creating layer BatchNorm7
I0925 20:24:05.384739  3532 net.cpp:84] Creating Layer BatchNorm7
I0925 20:24:05.384742  3532 net.cpp:406] BatchNorm7 <- Convolution7
I0925 20:24:05.384745  3532 net.cpp:367] BatchNorm7 -> Convolution7 (in-place)
I0925 20:24:05.384865  3532 net.cpp:122] Setting up BatchNorm7
I0925 20:24:05.384871  3532 net.cpp:129] Top shape: 100 16 28 28 (1254400)
I0925 20:24:05.384874  3532 net.cpp:137] Memory required for data: 171539600
I0925 20:24:05.384883  3532 layer_factory.hpp:77] Creating layer Scale7
I0925 20:24:05.384889  3532 net.cpp:84] Creating Layer Scale7
I0925 20:24:05.384902  3532 net.cpp:406] Scale7 <- Convolution7
I0925 20:24:05.384904  3532 net.cpp:367] Scale7 -> Convolution7 (in-place)
I0925 20:24:05.384948  3532 layer_factory.hpp:77] Creating layer Scale7
I0925 20:24:05.385035  3532 net.cpp:122] Setting up Scale7
I0925 20:24:05.385046  3532 net.cpp:129] Top shape: 100 16 28 28 (1254400)
I0925 20:24:05.385058  3532 net.cpp:137] Memory required for data: 176557200
I0925 20:24:05.385062  3532 layer_factory.hpp:77] Creating layer Eltwise3
I0925 20:24:05.385067  3532 net.cpp:84] Creating Layer Eltwise3
I0925 20:24:05.385071  3532 net.cpp:406] Eltwise3 <- Eltwise2_penlu5_0_split_1
I0925 20:24:05.385073  3532 net.cpp:406] Eltwise3 <- Convolution7
I0925 20:24:05.385077  3532 net.cpp:380] Eltwise3 -> Eltwise3
I0925 20:24:05.385093  3532 net.cpp:122] Setting up Eltwise3
I0925 20:24:05.385098  3532 net.cpp:129] Top shape: 100 16 28 28 (1254400)
I0925 20:24:05.385102  3532 net.cpp:137] Memory required for data: 181574800
I0925 20:24:05.385103  3532 layer_factory.hpp:77] Creating layer penlu7
I0925 20:24:05.385108  3532 net.cpp:84] Creating Layer penlu7
I0925 20:24:05.385112  3532 net.cpp:406] penlu7 <- Eltwise3
I0925 20:24:05.385115  3532 net.cpp:367] penlu7 -> Eltwise3 (in-place)
I0925 20:24:05.385215  3532 net.cpp:122] Setting up penlu7
I0925 20:24:05.385221  3532 net.cpp:129] Top shape: 100 16 28 28 (1254400)
I0925 20:24:05.385223  3532 net.cpp:137] Memory required for data: 186592400
I0925 20:24:05.385227  3532 layer_factory.hpp:77] Creating layer Eltwise3_penlu7_0_split
I0925 20:24:05.385232  3532 net.cpp:84] Creating Layer Eltwise3_penlu7_0_split
I0925 20:24:05.385236  3532 net.cpp:406] Eltwise3_penlu7_0_split <- Eltwise3
I0925 20:24:05.385238  3532 net.cpp:380] Eltwise3_penlu7_0_split -> Eltwise3_penlu7_0_split_0
I0925 20:24:05.385243  3532 net.cpp:380] Eltwise3_penlu7_0_split -> Eltwise3_penlu7_0_split_1
I0925 20:24:05.385264  3532 net.cpp:122] Setting up Eltwise3_penlu7_0_split
I0925 20:24:05.385269  3532 net.cpp:129] Top shape: 100 16 28 28 (1254400)
I0925 20:24:05.385272  3532 net.cpp:129] Top shape: 100 16 28 28 (1254400)
I0925 20:24:05.385275  3532 net.cpp:137] Memory required for data: 196627600
I0925 20:24:05.385277  3532 layer_factory.hpp:77] Creating layer Convolution8
I0925 20:24:05.385284  3532 net.cpp:84] Creating Layer Convolution8
I0925 20:24:05.385288  3532 net.cpp:406] Convolution8 <- Eltwise3_penlu7_0_split_0
I0925 20:24:05.385291  3532 net.cpp:380] Convolution8 -> Convolution8
I0925 20:24:05.386128  3532 net.cpp:122] Setting up Convolution8
I0925 20:24:05.386138  3532 net.cpp:129] Top shape: 100 16 28 28 (1254400)
I0925 20:24:05.386142  3532 net.cpp:137] Memory required for data: 201645200
I0925 20:24:05.386147  3532 layer_factory.hpp:77] Creating layer BatchNorm8
I0925 20:24:05.386153  3532 net.cpp:84] Creating Layer BatchNorm8
I0925 20:24:05.386157  3532 net.cpp:406] BatchNorm8 <- Convolution8
I0925 20:24:05.386162  3532 net.cpp:367] BatchNorm8 -> Convolution8 (in-place)
I0925 20:24:05.386281  3532 net.cpp:122] Setting up BatchNorm8
I0925 20:24:05.386286  3532 net.cpp:129] Top shape: 100 16 28 28 (1254400)
I0925 20:24:05.386288  3532 net.cpp:137] Memory required for data: 206662800
I0925 20:24:05.386293  3532 layer_factory.hpp:77] Creating layer Scale8
I0925 20:24:05.386298  3532 net.cpp:84] Creating Layer Scale8
I0925 20:24:05.386301  3532 net.cpp:406] Scale8 <- Convolution8
I0925 20:24:05.386306  3532 net.cpp:367] Scale8 -> Convolution8 (in-place)
I0925 20:24:05.386329  3532 layer_factory.hpp:77] Creating layer Scale8
I0925 20:24:05.386400  3532 net.cpp:122] Setting up Scale8
I0925 20:24:05.386405  3532 net.cpp:129] Top shape: 100 16 28 28 (1254400)
I0925 20:24:05.386409  3532 net.cpp:137] Memory required for data: 211680400
I0925 20:24:05.386413  3532 layer_factory.hpp:77] Creating layer penlu8
I0925 20:24:05.386420  3532 net.cpp:84] Creating Layer penlu8
I0925 20:24:05.386422  3532 net.cpp:406] penlu8 <- Convolution8
I0925 20:24:05.386426  3532 net.cpp:367] penlu8 -> Convolution8 (in-place)
I0925 20:24:05.386525  3532 net.cpp:122] Setting up penlu8
I0925 20:24:05.386531  3532 net.cpp:129] Top shape: 100 16 28 28 (1254400)
I0925 20:24:05.386534  3532 net.cpp:137] Memory required for data: 216698000
I0925 20:24:05.386538  3532 layer_factory.hpp:77] Creating layer Convolution9
I0925 20:24:05.386546  3532 net.cpp:84] Creating Layer Convolution9
I0925 20:24:05.386556  3532 net.cpp:406] Convolution9 <- Convolution8
I0925 20:24:05.386561  3532 net.cpp:380] Convolution9 -> Convolution9
I0925 20:24:05.387424  3532 net.cpp:122] Setting up Convolution9
I0925 20:24:05.387435  3532 net.cpp:129] Top shape: 100 16 28 28 (1254400)
I0925 20:24:05.387439  3532 net.cpp:137] Memory required for data: 221715600
I0925 20:24:05.387444  3532 layer_factory.hpp:77] Creating layer BatchNorm9
I0925 20:24:05.387449  3532 net.cpp:84] Creating Layer BatchNorm9
I0925 20:24:05.387452  3532 net.cpp:406] BatchNorm9 <- Convolution9
I0925 20:24:05.387456  3532 net.cpp:367] BatchNorm9 -> Convolution9 (in-place)
I0925 20:24:05.387600  3532 net.cpp:122] Setting up BatchNorm9
I0925 20:24:05.387609  3532 net.cpp:129] Top shape: 100 16 28 28 (1254400)
I0925 20:24:05.387611  3532 net.cpp:137] Memory required for data: 226733200
I0925 20:24:05.387617  3532 layer_factory.hpp:77] Creating layer Scale9
I0925 20:24:05.387622  3532 net.cpp:84] Creating Layer Scale9
I0925 20:24:05.387625  3532 net.cpp:406] Scale9 <- Convolution9
I0925 20:24:05.387630  3532 net.cpp:367] Scale9 -> Convolution9 (in-place)
I0925 20:24:05.387657  3532 layer_factory.hpp:77] Creating layer Scale9
I0925 20:24:05.387735  3532 net.cpp:122] Setting up Scale9
I0925 20:24:05.387742  3532 net.cpp:129] Top shape: 100 16 28 28 (1254400)
I0925 20:24:05.387744  3532 net.cpp:137] Memory required for data: 231750800
I0925 20:24:05.387748  3532 layer_factory.hpp:77] Creating layer Eltwise4
I0925 20:24:05.387753  3532 net.cpp:84] Creating Layer Eltwise4
I0925 20:24:05.387756  3532 net.cpp:406] Eltwise4 <- Eltwise3_penlu7_0_split_1
I0925 20:24:05.387759  3532 net.cpp:406] Eltwise4 <- Convolution9
I0925 20:24:05.387763  3532 net.cpp:380] Eltwise4 -> Eltwise4
I0925 20:24:05.387789  3532 net.cpp:122] Setting up Eltwise4
I0925 20:24:05.387797  3532 net.cpp:129] Top shape: 100 16 28 28 (1254400)
I0925 20:24:05.387802  3532 net.cpp:137] Memory required for data: 236768400
I0925 20:24:05.387807  3532 layer_factory.hpp:77] Creating layer penlu9
I0925 20:24:05.387817  3532 net.cpp:84] Creating Layer penlu9
I0925 20:24:05.387823  3532 net.cpp:406] penlu9 <- Eltwise4
I0925 20:24:05.387830  3532 net.cpp:367] penlu9 -> Eltwise4 (in-place)
I0925 20:24:05.387945  3532 net.cpp:122] Setting up penlu9
I0925 20:24:05.387951  3532 net.cpp:129] Top shape: 100 16 28 28 (1254400)
I0925 20:24:05.387954  3532 net.cpp:137] Memory required for data: 241786000
I0925 20:24:05.387959  3532 layer_factory.hpp:77] Creating layer Eltwise4_penlu9_0_split
I0925 20:24:05.387962  3532 net.cpp:84] Creating Layer Eltwise4_penlu9_0_split
I0925 20:24:05.387965  3532 net.cpp:406] Eltwise4_penlu9_0_split <- Eltwise4
I0925 20:24:05.387969  3532 net.cpp:380] Eltwise4_penlu9_0_split -> Eltwise4_penlu9_0_split_0
I0925 20:24:05.387974  3532 net.cpp:380] Eltwise4_penlu9_0_split -> Eltwise4_penlu9_0_split_1
I0925 20:24:05.387997  3532 net.cpp:122] Setting up Eltwise4_penlu9_0_split
I0925 20:24:05.388001  3532 net.cpp:129] Top shape: 100 16 28 28 (1254400)
I0925 20:24:05.388005  3532 net.cpp:129] Top shape: 100 16 28 28 (1254400)
I0925 20:24:05.388007  3532 net.cpp:137] Memory required for data: 251821200
I0925 20:24:05.388010  3532 layer_factory.hpp:77] Creating layer Convolution10
I0925 20:24:05.388016  3532 net.cpp:84] Creating Layer Convolution10
I0925 20:24:05.388020  3532 net.cpp:406] Convolution10 <- Eltwise4_penlu9_0_split_0
I0925 20:24:05.388023  3532 net.cpp:380] Convolution10 -> Convolution10
I0925 20:24:05.388922  3532 net.cpp:122] Setting up Convolution10
I0925 20:24:05.388933  3532 net.cpp:129] Top shape: 100 16 28 28 (1254400)
I0925 20:24:05.388936  3532 net.cpp:137] Memory required for data: 256838800
I0925 20:24:05.388942  3532 layer_factory.hpp:77] Creating layer BatchNorm10
I0925 20:24:05.388948  3532 net.cpp:84] Creating Layer BatchNorm10
I0925 20:24:05.388952  3532 net.cpp:406] BatchNorm10 <- Convolution10
I0925 20:24:05.388955  3532 net.cpp:367] BatchNorm10 -> Convolution10 (in-place)
I0925 20:24:05.389084  3532 net.cpp:122] Setting up BatchNorm10
I0925 20:24:05.389097  3532 net.cpp:129] Top shape: 100 16 28 28 (1254400)
I0925 20:24:05.389099  3532 net.cpp:137] Memory required for data: 261856400
I0925 20:24:05.389104  3532 layer_factory.hpp:77] Creating layer Scale10
I0925 20:24:05.389111  3532 net.cpp:84] Creating Layer Scale10
I0925 20:24:05.389114  3532 net.cpp:406] Scale10 <- Convolution10
I0925 20:24:05.389118  3532 net.cpp:367] Scale10 -> Convolution10 (in-place)
I0925 20:24:05.389144  3532 layer_factory.hpp:77] Creating layer Scale10
I0925 20:24:05.389221  3532 net.cpp:122] Setting up Scale10
I0925 20:24:05.389227  3532 net.cpp:129] Top shape: 100 16 28 28 (1254400)
I0925 20:24:05.389230  3532 net.cpp:137] Memory required for data: 266874000
I0925 20:24:05.389233  3532 layer_factory.hpp:77] Creating layer penlu10
I0925 20:24:05.389240  3532 net.cpp:84] Creating Layer penlu10
I0925 20:24:05.389242  3532 net.cpp:406] penlu10 <- Convolution10
I0925 20:24:05.389246  3532 net.cpp:367] penlu10 -> Convolution10 (in-place)
I0925 20:24:05.389350  3532 net.cpp:122] Setting up penlu10
I0925 20:24:05.389355  3532 net.cpp:129] Top shape: 100 16 28 28 (1254400)
I0925 20:24:05.389358  3532 net.cpp:137] Memory required for data: 271891600
I0925 20:24:05.389363  3532 layer_factory.hpp:77] Creating layer Convolution11
I0925 20:24:05.389370  3532 net.cpp:84] Creating Layer Convolution11
I0925 20:24:05.389374  3532 net.cpp:406] Convolution11 <- Convolution10
I0925 20:24:05.389377  3532 net.cpp:380] Convolution11 -> Convolution11
I0925 20:24:05.390291  3532 net.cpp:122] Setting up Convolution11
I0925 20:24:05.390301  3532 net.cpp:129] Top shape: 100 16 28 28 (1254400)
I0925 20:24:05.390305  3532 net.cpp:137] Memory required for data: 276909200
I0925 20:24:05.390310  3532 layer_factory.hpp:77] Creating layer BatchNorm11
I0925 20:24:05.390314  3532 net.cpp:84] Creating Layer BatchNorm11
I0925 20:24:05.390317  3532 net.cpp:406] BatchNorm11 <- Convolution11
I0925 20:24:05.390322  3532 net.cpp:367] BatchNorm11 -> Convolution11 (in-place)
I0925 20:24:05.390450  3532 net.cpp:122] Setting up BatchNorm11
I0925 20:24:05.390456  3532 net.cpp:129] Top shape: 100 16 28 28 (1254400)
I0925 20:24:05.390458  3532 net.cpp:137] Memory required for data: 281926800
I0925 20:24:05.390463  3532 layer_factory.hpp:77] Creating layer Scale11
I0925 20:24:05.390468  3532 net.cpp:84] Creating Layer Scale11
I0925 20:24:05.390471  3532 net.cpp:406] Scale11 <- Convolution11
I0925 20:24:05.390475  3532 net.cpp:367] Scale11 -> Convolution11 (in-place)
I0925 20:24:05.390501  3532 layer_factory.hpp:77] Creating layer Scale11
I0925 20:24:05.390578  3532 net.cpp:122] Setting up Scale11
I0925 20:24:05.390583  3532 net.cpp:129] Top shape: 100 16 28 28 (1254400)
I0925 20:24:05.390586  3532 net.cpp:137] Memory required for data: 286944400
I0925 20:24:05.390590  3532 layer_factory.hpp:77] Creating layer Eltwise5
I0925 20:24:05.390595  3532 net.cpp:84] Creating Layer Eltwise5
I0925 20:24:05.390599  3532 net.cpp:406] Eltwise5 <- Eltwise4_penlu9_0_split_1
I0925 20:24:05.390601  3532 net.cpp:406] Eltwise5 <- Convolution11
I0925 20:24:05.390605  3532 net.cpp:380] Eltwise5 -> Eltwise5
I0925 20:24:05.390624  3532 net.cpp:122] Setting up Eltwise5
I0925 20:24:05.390628  3532 net.cpp:129] Top shape: 100 16 28 28 (1254400)
I0925 20:24:05.390630  3532 net.cpp:137] Memory required for data: 291962000
I0925 20:24:05.390632  3532 layer_factory.hpp:77] Creating layer penlu11
I0925 20:24:05.390637  3532 net.cpp:84] Creating Layer penlu11
I0925 20:24:05.390640  3532 net.cpp:406] penlu11 <- Eltwise5
I0925 20:24:05.390645  3532 net.cpp:367] penlu11 -> Eltwise5 (in-place)
I0925 20:24:05.390751  3532 net.cpp:122] Setting up penlu11
I0925 20:24:05.390756  3532 net.cpp:129] Top shape: 100 16 28 28 (1254400)
I0925 20:24:05.390759  3532 net.cpp:137] Memory required for data: 296979600
I0925 20:24:05.390763  3532 layer_factory.hpp:77] Creating layer Eltwise5_penlu11_0_split
I0925 20:24:05.390767  3532 net.cpp:84] Creating Layer Eltwise5_penlu11_0_split
I0925 20:24:05.390770  3532 net.cpp:406] Eltwise5_penlu11_0_split <- Eltwise5
I0925 20:24:05.390780  3532 net.cpp:380] Eltwise5_penlu11_0_split -> Eltwise5_penlu11_0_split_0
I0925 20:24:05.390785  3532 net.cpp:380] Eltwise5_penlu11_0_split -> Eltwise5_penlu11_0_split_1
I0925 20:24:05.390807  3532 net.cpp:122] Setting up Eltwise5_penlu11_0_split
I0925 20:24:05.390812  3532 net.cpp:129] Top shape: 100 16 28 28 (1254400)
I0925 20:24:05.390815  3532 net.cpp:129] Top shape: 100 16 28 28 (1254400)
I0925 20:24:05.390817  3532 net.cpp:137] Memory required for data: 307014800
I0925 20:24:05.390820  3532 layer_factory.hpp:77] Creating layer Convolution12
I0925 20:24:05.390826  3532 net.cpp:84] Creating Layer Convolution12
I0925 20:24:05.390830  3532 net.cpp:406] Convolution12 <- Eltwise5_penlu11_0_split_0
I0925 20:24:05.390833  3532 net.cpp:380] Convolution12 -> Convolution12
I0925 20:24:05.391705  3532 net.cpp:122] Setting up Convolution12
I0925 20:24:05.391716  3532 net.cpp:129] Top shape: 100 16 28 28 (1254400)
I0925 20:24:05.391718  3532 net.cpp:137] Memory required for data: 312032400
I0925 20:24:05.391723  3532 layer_factory.hpp:77] Creating layer BatchNorm12
I0925 20:24:05.391728  3532 net.cpp:84] Creating Layer BatchNorm12
I0925 20:24:05.391731  3532 net.cpp:406] BatchNorm12 <- Convolution12
I0925 20:24:05.391736  3532 net.cpp:367] BatchNorm12 -> Convolution12 (in-place)
I0925 20:24:05.391865  3532 net.cpp:122] Setting up BatchNorm12
I0925 20:24:05.391871  3532 net.cpp:129] Top shape: 100 16 28 28 (1254400)
I0925 20:24:05.391883  3532 net.cpp:137] Memory required for data: 317050000
I0925 20:24:05.391888  3532 layer_factory.hpp:77] Creating layer Scale12
I0925 20:24:05.391892  3532 net.cpp:84] Creating Layer Scale12
I0925 20:24:05.391896  3532 net.cpp:406] Scale12 <- Convolution12
I0925 20:24:05.391898  3532 net.cpp:367] Scale12 -> Convolution12 (in-place)
I0925 20:24:05.391933  3532 layer_factory.hpp:77] Creating layer Scale12
I0925 20:24:05.392030  3532 net.cpp:122] Setting up Scale12
I0925 20:24:05.392035  3532 net.cpp:129] Top shape: 100 16 28 28 (1254400)
I0925 20:24:05.392047  3532 net.cpp:137] Memory required for data: 322067600
I0925 20:24:05.392052  3532 layer_factory.hpp:77] Creating layer penlu12
I0925 20:24:05.392057  3532 net.cpp:84] Creating Layer penlu12
I0925 20:24:05.392060  3532 net.cpp:406] penlu12 <- Convolution12
I0925 20:24:05.392063  3532 net.cpp:367] penlu12 -> Convolution12 (in-place)
I0925 20:24:05.392180  3532 net.cpp:122] Setting up penlu12
I0925 20:24:05.392185  3532 net.cpp:129] Top shape: 100 16 28 28 (1254400)
I0925 20:24:05.392187  3532 net.cpp:137] Memory required for data: 327085200
I0925 20:24:05.392202  3532 layer_factory.hpp:77] Creating layer Convolution13
I0925 20:24:05.392210  3532 net.cpp:84] Creating Layer Convolution13
I0925 20:24:05.392211  3532 net.cpp:406] Convolution13 <- Convolution12
I0925 20:24:05.392216  3532 net.cpp:380] Convolution13 -> Convolution13
I0925 20:24:05.393112  3532 net.cpp:122] Setting up Convolution13
I0925 20:24:05.393122  3532 net.cpp:129] Top shape: 100 16 28 28 (1254400)
I0925 20:24:05.393136  3532 net.cpp:137] Memory required for data: 332102800
I0925 20:24:05.393141  3532 layer_factory.hpp:77] Creating layer BatchNorm13
I0925 20:24:05.393146  3532 net.cpp:84] Creating Layer BatchNorm13
I0925 20:24:05.393148  3532 net.cpp:406] BatchNorm13 <- Convolution13
I0925 20:24:05.393152  3532 net.cpp:367] BatchNorm13 -> Convolution13 (in-place)
I0925 20:24:05.393291  3532 net.cpp:122] Setting up BatchNorm13
I0925 20:24:05.393296  3532 net.cpp:129] Top shape: 100 16 28 28 (1254400)
I0925 20:24:05.393308  3532 net.cpp:137] Memory required for data: 337120400
I0925 20:24:05.393313  3532 layer_factory.hpp:77] Creating layer Scale13
I0925 20:24:05.393317  3532 net.cpp:84] Creating Layer Scale13
I0925 20:24:05.393321  3532 net.cpp:406] Scale13 <- Convolution13
I0925 20:24:05.393323  3532 net.cpp:367] Scale13 -> Convolution13 (in-place)
I0925 20:24:05.393360  3532 layer_factory.hpp:77] Creating layer Scale13
I0925 20:24:05.393457  3532 net.cpp:122] Setting up Scale13
I0925 20:24:05.393462  3532 net.cpp:129] Top shape: 100 16 28 28 (1254400)
I0925 20:24:05.393481  3532 net.cpp:137] Memory required for data: 342138000
I0925 20:24:05.393486  3532 layer_factory.hpp:77] Creating layer Eltwise6
I0925 20:24:05.393491  3532 net.cpp:84] Creating Layer Eltwise6
I0925 20:24:05.393493  3532 net.cpp:406] Eltwise6 <- Eltwise5_penlu11_0_split_1
I0925 20:24:05.393496  3532 net.cpp:406] Eltwise6 <- Convolution13
I0925 20:24:05.393499  3532 net.cpp:380] Eltwise6 -> Eltwise6
I0925 20:24:05.393530  3532 net.cpp:122] Setting up Eltwise6
I0925 20:24:05.393535  3532 net.cpp:129] Top shape: 100 16 28 28 (1254400)
I0925 20:24:05.393537  3532 net.cpp:137] Memory required for data: 347155600
I0925 20:24:05.393549  3532 layer_factory.hpp:77] Creating layer penlu13
I0925 20:24:05.393558  3532 net.cpp:84] Creating Layer penlu13
I0925 20:24:05.393561  3532 net.cpp:406] penlu13 <- Eltwise6
I0925 20:24:05.393565  3532 net.cpp:367] penlu13 -> Eltwise6 (in-place)
I0925 20:24:05.393682  3532 net.cpp:122] Setting up penlu13
I0925 20:24:05.393687  3532 net.cpp:129] Top shape: 100 16 28 28 (1254400)
I0925 20:24:05.393689  3532 net.cpp:137] Memory required for data: 352173200
I0925 20:24:05.393712  3532 layer_factory.hpp:77] Creating layer Eltwise6_penlu13_0_split
I0925 20:24:05.393728  3532 net.cpp:84] Creating Layer Eltwise6_penlu13_0_split
I0925 20:24:05.393730  3532 net.cpp:406] Eltwise6_penlu13_0_split <- Eltwise6
I0925 20:24:05.393734  3532 net.cpp:380] Eltwise6_penlu13_0_split -> Eltwise6_penlu13_0_split_0
I0925 20:24:05.393748  3532 net.cpp:380] Eltwise6_penlu13_0_split -> Eltwise6_penlu13_0_split_1
I0925 20:24:05.393782  3532 net.cpp:122] Setting up Eltwise6_penlu13_0_split
I0925 20:24:05.393786  3532 net.cpp:129] Top shape: 100 16 28 28 (1254400)
I0925 20:24:05.393800  3532 net.cpp:129] Top shape: 100 16 28 28 (1254400)
I0925 20:24:05.393801  3532 net.cpp:137] Memory required for data: 362208400
I0925 20:24:05.393803  3532 layer_factory.hpp:77] Creating layer Convolution14
I0925 20:24:05.393811  3532 net.cpp:84] Creating Layer Convolution14
I0925 20:24:05.393813  3532 net.cpp:406] Convolution14 <- Eltwise6_penlu13_0_split_0
I0925 20:24:05.393827  3532 net.cpp:380] Convolution14 -> Convolution14
I0925 20:24:05.394706  3532 net.cpp:122] Setting up Convolution14
I0925 20:24:05.394713  3532 net.cpp:129] Top shape: 100 16 28 28 (1254400)
I0925 20:24:05.394716  3532 net.cpp:137] Memory required for data: 367226000
I0925 20:24:05.394721  3532 layer_factory.hpp:77] Creating layer BatchNorm14
I0925 20:24:05.394726  3532 net.cpp:84] Creating Layer BatchNorm14
I0925 20:24:05.394727  3532 net.cpp:406] BatchNorm14 <- Convolution14
I0925 20:24:05.394732  3532 net.cpp:367] BatchNorm14 -> Convolution14 (in-place)
I0925 20:24:05.394865  3532 net.cpp:122] Setting up BatchNorm14
I0925 20:24:05.394868  3532 net.cpp:129] Top shape: 100 16 28 28 (1254400)
I0925 20:24:05.394870  3532 net.cpp:137] Memory required for data: 372243600
I0925 20:24:05.394876  3532 layer_factory.hpp:77] Creating layer Scale14
I0925 20:24:05.394879  3532 net.cpp:84] Creating Layer Scale14
I0925 20:24:05.394882  3532 net.cpp:406] Scale14 <- Convolution14
I0925 20:24:05.394886  3532 net.cpp:367] Scale14 -> Convolution14 (in-place)
I0925 20:24:05.394911  3532 layer_factory.hpp:77] Creating layer Scale14
I0925 20:24:05.394986  3532 net.cpp:122] Setting up Scale14
I0925 20:24:05.394990  3532 net.cpp:129] Top shape: 100 16 28 28 (1254400)
I0925 20:24:05.394992  3532 net.cpp:137] Memory required for data: 377261200
I0925 20:24:05.394996  3532 layer_factory.hpp:77] Creating layer penlu14
I0925 20:24:05.395002  3532 net.cpp:84] Creating Layer penlu14
I0925 20:24:05.395004  3532 net.cpp:406] penlu14 <- Convolution14
I0925 20:24:05.395009  3532 net.cpp:367] penlu14 -> Convolution14 (in-place)
I0925 20:24:05.395114  3532 net.cpp:122] Setting up penlu14
I0925 20:24:05.395119  3532 net.cpp:129] Top shape: 100 16 28 28 (1254400)
I0925 20:24:05.395121  3532 net.cpp:137] Memory required for data: 382278800
I0925 20:24:05.395126  3532 layer_factory.hpp:77] Creating layer Convolution15
I0925 20:24:05.395133  3532 net.cpp:84] Creating Layer Convolution15
I0925 20:24:05.395140  3532 net.cpp:406] Convolution15 <- Convolution14
I0925 20:24:05.395145  3532 net.cpp:380] Convolution15 -> Convolution15
I0925 20:24:05.396021  3532 net.cpp:122] Setting up Convolution15
I0925 20:24:05.396031  3532 net.cpp:129] Top shape: 100 16 28 28 (1254400)
I0925 20:24:05.396034  3532 net.cpp:137] Memory required for data: 387296400
I0925 20:24:05.396039  3532 layer_factory.hpp:77] Creating layer BatchNorm15
I0925 20:24:05.396042  3532 net.cpp:84] Creating Layer BatchNorm15
I0925 20:24:05.396045  3532 net.cpp:406] BatchNorm15 <- Convolution15
I0925 20:24:05.396049  3532 net.cpp:367] BatchNorm15 -> Convolution15 (in-place)
I0925 20:24:05.396180  3532 net.cpp:122] Setting up BatchNorm15
I0925 20:24:05.396185  3532 net.cpp:129] Top shape: 100 16 28 28 (1254400)
I0925 20:24:05.396188  3532 net.cpp:137] Memory required for data: 392314000
I0925 20:24:05.396191  3532 layer_factory.hpp:77] Creating layer Scale15
I0925 20:24:05.396195  3532 net.cpp:84] Creating Layer Scale15
I0925 20:24:05.396198  3532 net.cpp:406] Scale15 <- Convolution15
I0925 20:24:05.396201  3532 net.cpp:367] Scale15 -> Convolution15 (in-place)
I0925 20:24:05.396226  3532 layer_factory.hpp:77] Creating layer Scale15
I0925 20:24:05.396302  3532 net.cpp:122] Setting up Scale15
I0925 20:24:05.396306  3532 net.cpp:129] Top shape: 100 16 28 28 (1254400)
I0925 20:24:05.396308  3532 net.cpp:137] Memory required for data: 397331600
I0925 20:24:05.396312  3532 layer_factory.hpp:77] Creating layer Eltwise7
I0925 20:24:05.396317  3532 net.cpp:84] Creating Layer Eltwise7
I0925 20:24:05.396318  3532 net.cpp:406] Eltwise7 <- Eltwise6_penlu13_0_split_1
I0925 20:24:05.396322  3532 net.cpp:406] Eltwise7 <- Convolution15
I0925 20:24:05.396325  3532 net.cpp:380] Eltwise7 -> Eltwise7
I0925 20:24:05.396339  3532 net.cpp:122] Setting up Eltwise7
I0925 20:24:05.396344  3532 net.cpp:129] Top shape: 100 16 28 28 (1254400)
I0925 20:24:05.396347  3532 net.cpp:137] Memory required for data: 402349200
I0925 20:24:05.396348  3532 layer_factory.hpp:77] Creating layer penlu15
I0925 20:24:05.396353  3532 net.cpp:84] Creating Layer penlu15
I0925 20:24:05.396355  3532 net.cpp:406] penlu15 <- Eltwise7
I0925 20:24:05.396360  3532 net.cpp:367] penlu15 -> Eltwise7 (in-place)
I0925 20:24:05.396467  3532 net.cpp:122] Setting up penlu15
I0925 20:24:05.396472  3532 net.cpp:129] Top shape: 100 16 28 28 (1254400)
I0925 20:24:05.396474  3532 net.cpp:137] Memory required for data: 407366800
I0925 20:24:05.396479  3532 layer_factory.hpp:77] Creating layer Eltwise7_penlu15_0_split
I0925 20:24:05.396482  3532 net.cpp:84] Creating Layer Eltwise7_penlu15_0_split
I0925 20:24:05.396486  3532 net.cpp:406] Eltwise7_penlu15_0_split <- Eltwise7
I0925 20:24:05.396488  3532 net.cpp:380] Eltwise7_penlu15_0_split -> Eltwise7_penlu15_0_split_0
I0925 20:24:05.396492  3532 net.cpp:380] Eltwise7_penlu15_0_split -> Eltwise7_penlu15_0_split_1
I0925 20:24:05.396520  3532 net.cpp:122] Setting up Eltwise7_penlu15_0_split
I0925 20:24:05.396525  3532 net.cpp:129] Top shape: 100 16 28 28 (1254400)
I0925 20:24:05.396528  3532 net.cpp:129] Top shape: 100 16 28 28 (1254400)
I0925 20:24:05.396530  3532 net.cpp:137] Memory required for data: 417402000
I0925 20:24:05.396533  3532 layer_factory.hpp:77] Creating layer Convolution16
I0925 20:24:05.396538  3532 net.cpp:84] Creating Layer Convolution16
I0925 20:24:05.396540  3532 net.cpp:406] Convolution16 <- Eltwise7_penlu15_0_split_0
I0925 20:24:05.396544  3532 net.cpp:380] Convolution16 -> Convolution16
I0925 20:24:05.397418  3532 net.cpp:122] Setting up Convolution16
I0925 20:24:05.397428  3532 net.cpp:129] Top shape: 100 16 28 28 (1254400)
I0925 20:24:05.397430  3532 net.cpp:137] Memory required for data: 422419600
I0925 20:24:05.397434  3532 layer_factory.hpp:77] Creating layer BatchNorm16
I0925 20:24:05.397439  3532 net.cpp:84] Creating Layer BatchNorm16
I0925 20:24:05.397441  3532 net.cpp:406] BatchNorm16 <- Convolution16
I0925 20:24:05.397445  3532 net.cpp:367] BatchNorm16 -> Convolution16 (in-place)
I0925 20:24:05.397577  3532 net.cpp:122] Setting up BatchNorm16
I0925 20:24:05.397588  3532 net.cpp:129] Top shape: 100 16 28 28 (1254400)
I0925 20:24:05.397589  3532 net.cpp:137] Memory required for data: 427437200
I0925 20:24:05.397594  3532 layer_factory.hpp:77] Creating layer Scale16
I0925 20:24:05.397598  3532 net.cpp:84] Creating Layer Scale16
I0925 20:24:05.397600  3532 net.cpp:406] Scale16 <- Convolution16
I0925 20:24:05.397604  3532 net.cpp:367] Scale16 -> Convolution16 (in-place)
I0925 20:24:05.397630  3532 layer_factory.hpp:77] Creating layer Scale16
I0925 20:24:05.397707  3532 net.cpp:122] Setting up Scale16
I0925 20:24:05.397711  3532 net.cpp:129] Top shape: 100 16 28 28 (1254400)
I0925 20:24:05.397713  3532 net.cpp:137] Memory required for data: 432454800
I0925 20:24:05.397717  3532 layer_factory.hpp:77] Creating layer penlu16
I0925 20:24:05.397722  3532 net.cpp:84] Creating Layer penlu16
I0925 20:24:05.397724  3532 net.cpp:406] penlu16 <- Convolution16
I0925 20:24:05.397728  3532 net.cpp:367] penlu16 -> Convolution16 (in-place)
I0925 20:24:05.397837  3532 net.cpp:122] Setting up penlu16
I0925 20:24:05.397841  3532 net.cpp:129] Top shape: 100 16 28 28 (1254400)
I0925 20:24:05.397843  3532 net.cpp:137] Memory required for data: 437472400
I0925 20:24:05.397847  3532 layer_factory.hpp:77] Creating layer Convolution17
I0925 20:24:05.397855  3532 net.cpp:84] Creating Layer Convolution17
I0925 20:24:05.397856  3532 net.cpp:406] Convolution17 <- Convolution16
I0925 20:24:05.397861  3532 net.cpp:380] Convolution17 -> Convolution17
I0925 20:24:05.398418  3532 net.cpp:122] Setting up Convolution17
I0925 20:24:05.398425  3532 net.cpp:129] Top shape: 100 16 28 28 (1254400)
I0925 20:24:05.398428  3532 net.cpp:137] Memory required for data: 442490000
I0925 20:24:05.398432  3532 layer_factory.hpp:77] Creating layer BatchNorm17
I0925 20:24:05.398437  3532 net.cpp:84] Creating Layer BatchNorm17
I0925 20:24:05.398440  3532 net.cpp:406] BatchNorm17 <- Convolution17
I0925 20:24:05.398443  3532 net.cpp:367] BatchNorm17 -> Convolution17 (in-place)
I0925 20:24:05.398573  3532 net.cpp:122] Setting up BatchNorm17
I0925 20:24:05.398577  3532 net.cpp:129] Top shape: 100 16 28 28 (1254400)
I0925 20:24:05.398579  3532 net.cpp:137] Memory required for data: 447507600
I0925 20:24:05.398583  3532 layer_factory.hpp:77] Creating layer Scale17
I0925 20:24:05.398588  3532 net.cpp:84] Creating Layer Scale17
I0925 20:24:05.398591  3532 net.cpp:406] Scale17 <- Convolution17
I0925 20:24:05.398593  3532 net.cpp:367] Scale17 -> Convolution17 (in-place)
I0925 20:24:05.398618  3532 layer_factory.hpp:77] Creating layer Scale17
I0925 20:24:05.398696  3532 net.cpp:122] Setting up Scale17
I0925 20:24:05.398700  3532 net.cpp:129] Top shape: 100 16 28 28 (1254400)
I0925 20:24:05.398702  3532 net.cpp:137] Memory required for data: 452525200
I0925 20:24:05.398706  3532 layer_factory.hpp:77] Creating layer Eltwise8
I0925 20:24:05.398711  3532 net.cpp:84] Creating Layer Eltwise8
I0925 20:24:05.398713  3532 net.cpp:406] Eltwise8 <- Eltwise7_penlu15_0_split_1
I0925 20:24:05.398716  3532 net.cpp:406] Eltwise8 <- Convolution17
I0925 20:24:05.398720  3532 net.cpp:380] Eltwise8 -> Eltwise8
I0925 20:24:05.398736  3532 net.cpp:122] Setting up Eltwise8
I0925 20:24:05.398738  3532 net.cpp:129] Top shape: 100 16 28 28 (1254400)
I0925 20:24:05.398741  3532 net.cpp:137] Memory required for data: 457542800
I0925 20:24:05.398742  3532 layer_factory.hpp:77] Creating layer penlu17
I0925 20:24:05.398748  3532 net.cpp:84] Creating Layer penlu17
I0925 20:24:05.398751  3532 net.cpp:406] penlu17 <- Eltwise8
I0925 20:24:05.398753  3532 net.cpp:367] penlu17 -> Eltwise8 (in-place)
I0925 20:24:05.398859  3532 net.cpp:122] Setting up penlu17
I0925 20:24:05.398864  3532 net.cpp:129] Top shape: 100 16 28 28 (1254400)
I0925 20:24:05.398865  3532 net.cpp:137] Memory required for data: 462560400
I0925 20:24:05.398869  3532 layer_factory.hpp:77] Creating layer Eltwise8_penlu17_0_split
I0925 20:24:05.398874  3532 net.cpp:84] Creating Layer Eltwise8_penlu17_0_split
I0925 20:24:05.398875  3532 net.cpp:406] Eltwise8_penlu17_0_split <- Eltwise8
I0925 20:24:05.398885  3532 net.cpp:380] Eltwise8_penlu17_0_split -> Eltwise8_penlu17_0_split_0
I0925 20:24:05.398890  3532 net.cpp:380] Eltwise8_penlu17_0_split -> Eltwise8_penlu17_0_split_1
I0925 20:24:05.398911  3532 net.cpp:122] Setting up Eltwise8_penlu17_0_split
I0925 20:24:05.398916  3532 net.cpp:129] Top shape: 100 16 28 28 (1254400)
I0925 20:24:05.398918  3532 net.cpp:129] Top shape: 100 16 28 28 (1254400)
I0925 20:24:05.398921  3532 net.cpp:137] Memory required for data: 472595600
I0925 20:24:05.398922  3532 layer_factory.hpp:77] Creating layer Convolution18
I0925 20:24:05.398929  3532 net.cpp:84] Creating Layer Convolution18
I0925 20:24:05.398931  3532 net.cpp:406] Convolution18 <- Eltwise8_penlu17_0_split_0
I0925 20:24:05.398936  3532 net.cpp:380] Convolution18 -> Convolution18
I0925 20:24:05.399806  3532 net.cpp:122] Setting up Convolution18
I0925 20:24:05.399816  3532 net.cpp:129] Top shape: 100 16 28 28 (1254400)
I0925 20:24:05.399817  3532 net.cpp:137] Memory required for data: 477613200
I0925 20:24:05.399822  3532 layer_factory.hpp:77] Creating layer BatchNorm18
I0925 20:24:05.399827  3532 net.cpp:84] Creating Layer BatchNorm18
I0925 20:24:05.399829  3532 net.cpp:406] BatchNorm18 <- Convolution18
I0925 20:24:05.399833  3532 net.cpp:367] BatchNorm18 -> Convolution18 (in-place)
I0925 20:24:05.399963  3532 net.cpp:122] Setting up BatchNorm18
I0925 20:24:05.399967  3532 net.cpp:129] Top shape: 100 16 28 28 (1254400)
I0925 20:24:05.399969  3532 net.cpp:137] Memory required for data: 482630800
I0925 20:24:05.399974  3532 layer_factory.hpp:77] Creating layer Scale18
I0925 20:24:05.399979  3532 net.cpp:84] Creating Layer Scale18
I0925 20:24:05.399981  3532 net.cpp:406] Scale18 <- Convolution18
I0925 20:24:05.399984  3532 net.cpp:367] Scale18 -> Convolution18 (in-place)
I0925 20:24:05.400010  3532 layer_factory.hpp:77] Creating layer Scale18
I0925 20:24:05.400086  3532 net.cpp:122] Setting up Scale18
I0925 20:24:05.400091  3532 net.cpp:129] Top shape: 100 16 28 28 (1254400)
I0925 20:24:05.400094  3532 net.cpp:137] Memory required for data: 487648400
I0925 20:24:05.400097  3532 layer_factory.hpp:77] Creating layer penlu18
I0925 20:24:05.400102  3532 net.cpp:84] Creating Layer penlu18
I0925 20:24:05.400104  3532 net.cpp:406] penlu18 <- Convolution18
I0925 20:24:05.400110  3532 net.cpp:367] penlu18 -> Convolution18 (in-place)
I0925 20:24:05.400215  3532 net.cpp:122] Setting up penlu18
I0925 20:24:05.400219  3532 net.cpp:129] Top shape: 100 16 28 28 (1254400)
I0925 20:24:05.400221  3532 net.cpp:137] Memory required for data: 492666000
I0925 20:24:05.400226  3532 layer_factory.hpp:77] Creating layer Convolution19
I0925 20:24:05.400233  3532 net.cpp:84] Creating Layer Convolution19
I0925 20:24:05.400235  3532 net.cpp:406] Convolution19 <- Convolution18
I0925 20:24:05.400239  3532 net.cpp:380] Convolution19 -> Convolution19
I0925 20:24:05.401135  3532 net.cpp:122] Setting up Convolution19
I0925 20:24:05.401144  3532 net.cpp:129] Top shape: 100 16 28 28 (1254400)
I0925 20:24:05.401146  3532 net.cpp:137] Memory required for data: 497683600
I0925 20:24:05.401151  3532 layer_factory.hpp:77] Creating layer BatchNorm19
I0925 20:24:05.401156  3532 net.cpp:84] Creating Layer BatchNorm19
I0925 20:24:05.401160  3532 net.cpp:406] BatchNorm19 <- Convolution19
I0925 20:24:05.401162  3532 net.cpp:367] BatchNorm19 -> Convolution19 (in-place)
I0925 20:24:05.401295  3532 net.cpp:122] Setting up BatchNorm19
I0925 20:24:05.401299  3532 net.cpp:129] Top shape: 100 16 28 28 (1254400)
I0925 20:24:05.401301  3532 net.cpp:137] Memory required for data: 502701200
I0925 20:24:05.401306  3532 layer_factory.hpp:77] Creating layer Scale19
I0925 20:24:05.401310  3532 net.cpp:84] Creating Layer Scale19
I0925 20:24:05.401312  3532 net.cpp:406] Scale19 <- Convolution19
I0925 20:24:05.401317  3532 net.cpp:367] Scale19 -> Convolution19 (in-place)
I0925 20:24:05.401341  3532 layer_factory.hpp:77] Creating layer Scale19
I0925 20:24:05.401417  3532 net.cpp:122] Setting up Scale19
I0925 20:24:05.401422  3532 net.cpp:129] Top shape: 100 16 28 28 (1254400)
I0925 20:24:05.401429  3532 net.cpp:137] Memory required for data: 507718800
I0925 20:24:05.401433  3532 layer_factory.hpp:77] Creating layer Eltwise9
I0925 20:24:05.401437  3532 net.cpp:84] Creating Layer Eltwise9
I0925 20:24:05.401440  3532 net.cpp:406] Eltwise9 <- Eltwise8_penlu17_0_split_1
I0925 20:24:05.401443  3532 net.cpp:406] Eltwise9 <- Convolution19
I0925 20:24:05.401448  3532 net.cpp:380] Eltwise9 -> Eltwise9
I0925 20:24:05.401463  3532 net.cpp:122] Setting up Eltwise9
I0925 20:24:05.401468  3532 net.cpp:129] Top shape: 100 16 28 28 (1254400)
I0925 20:24:05.401469  3532 net.cpp:137] Memory required for data: 512736400
I0925 20:24:05.401471  3532 layer_factory.hpp:77] Creating layer penlu19
I0925 20:24:05.401475  3532 net.cpp:84] Creating Layer penlu19
I0925 20:24:05.401479  3532 net.cpp:406] penlu19 <- Eltwise9
I0925 20:24:05.401482  3532 net.cpp:367] penlu19 -> Eltwise9 (in-place)
I0925 20:24:05.401589  3532 net.cpp:122] Setting up penlu19
I0925 20:24:05.401593  3532 net.cpp:129] Top shape: 100 16 28 28 (1254400)
I0925 20:24:05.401595  3532 net.cpp:137] Memory required for data: 517754000
I0925 20:24:05.401600  3532 layer_factory.hpp:77] Creating layer Eltwise9_penlu19_0_split
I0925 20:24:05.401603  3532 net.cpp:84] Creating Layer Eltwise9_penlu19_0_split
I0925 20:24:05.401605  3532 net.cpp:406] Eltwise9_penlu19_0_split <- Eltwise9
I0925 20:24:05.401609  3532 net.cpp:380] Eltwise9_penlu19_0_split -> Eltwise9_penlu19_0_split_0
I0925 20:24:05.401612  3532 net.cpp:380] Eltwise9_penlu19_0_split -> Eltwise9_penlu19_0_split_1
I0925 20:24:05.401635  3532 net.cpp:122] Setting up Eltwise9_penlu19_0_split
I0925 20:24:05.401638  3532 net.cpp:129] Top shape: 100 16 28 28 (1254400)
I0925 20:24:05.401641  3532 net.cpp:129] Top shape: 100 16 28 28 (1254400)
I0925 20:24:05.401643  3532 net.cpp:137] Memory required for data: 527789200
I0925 20:24:05.401646  3532 layer_factory.hpp:77] Creating layer Convolution20
I0925 20:24:05.401652  3532 net.cpp:84] Creating Layer Convolution20
I0925 20:24:05.401654  3532 net.cpp:406] Convolution20 <- Eltwise9_penlu19_0_split_0
I0925 20:24:05.401659  3532 net.cpp:380] Convolution20 -> Convolution20
I0925 20:24:05.402848  3532 net.cpp:122] Setting up Convolution20
I0925 20:24:05.402856  3532 net.cpp:129] Top shape: 100 32 14 14 (627200)
I0925 20:24:05.402859  3532 net.cpp:137] Memory required for data: 530298000
I0925 20:24:05.402863  3532 layer_factory.hpp:77] Creating layer BatchNorm20
I0925 20:24:05.402869  3532 net.cpp:84] Creating Layer BatchNorm20
I0925 20:24:05.402871  3532 net.cpp:406] BatchNorm20 <- Convolution20
I0925 20:24:05.402875  3532 net.cpp:367] BatchNorm20 -> Convolution20 (in-place)
I0925 20:24:05.403022  3532 net.cpp:122] Setting up BatchNorm20
I0925 20:24:05.403026  3532 net.cpp:129] Top shape: 100 32 14 14 (627200)
I0925 20:24:05.403028  3532 net.cpp:137] Memory required for data: 532806800
I0925 20:24:05.403033  3532 layer_factory.hpp:77] Creating layer Scale20
I0925 20:24:05.403038  3532 net.cpp:84] Creating Layer Scale20
I0925 20:24:05.403039  3532 net.cpp:406] Scale20 <- Convolution20
I0925 20:24:05.403043  3532 net.cpp:367] Scale20 -> Convolution20 (in-place)
I0925 20:24:05.403070  3532 layer_factory.hpp:77] Creating layer Scale20
I0925 20:24:05.403146  3532 net.cpp:122] Setting up Scale20
I0925 20:24:05.403151  3532 net.cpp:129] Top shape: 100 32 14 14 (627200)
I0925 20:24:05.403152  3532 net.cpp:137] Memory required for data: 535315600
I0925 20:24:05.403156  3532 layer_factory.hpp:77] Creating layer Convolution21
I0925 20:24:05.403163  3532 net.cpp:84] Creating Layer Convolution21
I0925 20:24:05.403165  3532 net.cpp:406] Convolution21 <- Eltwise9_penlu19_0_split_1
I0925 20:24:05.403170  3532 net.cpp:380] Convolution21 -> Convolution21
I0925 20:24:05.405071  3532 net.cpp:122] Setting up Convolution21
I0925 20:24:05.405081  3532 net.cpp:129] Top shape: 100 32 14 14 (627200)
I0925 20:24:05.405084  3532 net.cpp:137] Memory required for data: 537824400
I0925 20:24:05.405088  3532 layer_factory.hpp:77] Creating layer BatchNorm21
I0925 20:24:05.405093  3532 net.cpp:84] Creating Layer BatchNorm21
I0925 20:24:05.405102  3532 net.cpp:406] BatchNorm21 <- Convolution21
I0925 20:24:05.405107  3532 net.cpp:367] BatchNorm21 -> Convolution21 (in-place)
I0925 20:24:05.405244  3532 net.cpp:122] Setting up BatchNorm21
I0925 20:24:05.405248  3532 net.cpp:129] Top shape: 100 32 14 14 (627200)
I0925 20:24:05.405251  3532 net.cpp:137] Memory required for data: 540333200
I0925 20:24:05.405256  3532 layer_factory.hpp:77] Creating layer Scale21
I0925 20:24:05.405259  3532 net.cpp:84] Creating Layer Scale21
I0925 20:24:05.405261  3532 net.cpp:406] Scale21 <- Convolution21
I0925 20:24:05.405266  3532 net.cpp:367] Scale21 -> Convolution21 (in-place)
I0925 20:24:05.405292  3532 layer_factory.hpp:77] Creating layer Scale21
I0925 20:24:05.405369  3532 net.cpp:122] Setting up Scale21
I0925 20:24:05.405374  3532 net.cpp:129] Top shape: 100 32 14 14 (627200)
I0925 20:24:05.405375  3532 net.cpp:137] Memory required for data: 542842000
I0925 20:24:05.405380  3532 layer_factory.hpp:77] Creating layer penlu20
I0925 20:24:05.405395  3532 net.cpp:84] Creating Layer penlu20
I0925 20:24:05.405398  3532 net.cpp:406] penlu20 <- Convolution21
I0925 20:24:05.405401  3532 net.cpp:367] penlu20 -> Convolution21 (in-place)
I0925 20:24:05.405546  3532 net.cpp:122] Setting up penlu20
I0925 20:24:05.405550  3532 net.cpp:129] Top shape: 100 32 14 14 (627200)
I0925 20:24:05.405552  3532 net.cpp:137] Memory required for data: 545350800
I0925 20:24:05.405556  3532 layer_factory.hpp:77] Creating layer Convolution22
I0925 20:24:05.405563  3532 net.cpp:84] Creating Layer Convolution22
I0925 20:24:05.405565  3532 net.cpp:406] Convolution22 <- Convolution21
I0925 20:24:05.405570  3532 net.cpp:380] Convolution22 -> Convolution22
I0925 20:24:05.406684  3532 net.cpp:122] Setting up Convolution22
I0925 20:24:05.406692  3532 net.cpp:129] Top shape: 100 32 14 14 (627200)
I0925 20:24:05.406695  3532 net.cpp:137] Memory required for data: 547859600
I0925 20:24:05.406699  3532 layer_factory.hpp:77] Creating layer BatchNorm22
I0925 20:24:05.406705  3532 net.cpp:84] Creating Layer BatchNorm22
I0925 20:24:05.406708  3532 net.cpp:406] BatchNorm22 <- Convolution22
I0925 20:24:05.406711  3532 net.cpp:367] BatchNorm22 -> Convolution22 (in-place)
I0925 20:24:05.406841  3532 net.cpp:122] Setting up BatchNorm22
I0925 20:24:05.406844  3532 net.cpp:129] Top shape: 100 32 14 14 (627200)
I0925 20:24:05.406847  3532 net.cpp:137] Memory required for data: 550368400
I0925 20:24:05.406852  3532 layer_factory.hpp:77] Creating layer Scale22
I0925 20:24:05.406855  3532 net.cpp:84] Creating Layer Scale22
I0925 20:24:05.406857  3532 net.cpp:406] Scale22 <- Convolution22
I0925 20:24:05.406860  3532 net.cpp:367] Scale22 -> Convolution22 (in-place)
I0925 20:24:05.406886  3532 layer_factory.hpp:77] Creating layer Scale22
I0925 20:24:05.406958  3532 net.cpp:122] Setting up Scale22
I0925 20:24:05.406962  3532 net.cpp:129] Top shape: 100 32 14 14 (627200)
I0925 20:24:05.406965  3532 net.cpp:137] Memory required for data: 552877200
I0925 20:24:05.406968  3532 layer_factory.hpp:77] Creating layer Eltwise10
I0925 20:24:05.406973  3532 net.cpp:84] Creating Layer Eltwise10
I0925 20:24:05.406975  3532 net.cpp:406] Eltwise10 <- Convolution20
I0925 20:24:05.406978  3532 net.cpp:406] Eltwise10 <- Convolution22
I0925 20:24:05.406981  3532 net.cpp:380] Eltwise10 -> Eltwise10
I0925 20:24:05.406997  3532 net.cpp:122] Setting up Eltwise10
I0925 20:24:05.407001  3532 net.cpp:129] Top shape: 100 32 14 14 (627200)
I0925 20:24:05.407002  3532 net.cpp:137] Memory required for data: 555386000
I0925 20:24:05.407004  3532 layer_factory.hpp:77] Creating layer penlu21
I0925 20:24:05.407011  3532 net.cpp:84] Creating Layer penlu21
I0925 20:24:05.407012  3532 net.cpp:406] penlu21 <- Eltwise10
I0925 20:24:05.407016  3532 net.cpp:367] penlu21 -> Eltwise10 (in-place)
I0925 20:24:05.407119  3532 net.cpp:122] Setting up penlu21
I0925 20:24:05.407124  3532 net.cpp:129] Top shape: 100 32 14 14 (627200)
I0925 20:24:05.407126  3532 net.cpp:137] Memory required for data: 557894800
I0925 20:24:05.407130  3532 layer_factory.hpp:77] Creating layer Eltwise10_penlu21_0_split
I0925 20:24:05.407142  3532 net.cpp:84] Creating Layer Eltwise10_penlu21_0_split
I0925 20:24:05.407145  3532 net.cpp:406] Eltwise10_penlu21_0_split <- Eltwise10
I0925 20:24:05.407148  3532 net.cpp:380] Eltwise10_penlu21_0_split -> Eltwise10_penlu21_0_split_0
I0925 20:24:05.407152  3532 net.cpp:380] Eltwise10_penlu21_0_split -> Eltwise10_penlu21_0_split_1
I0925 20:24:05.407176  3532 net.cpp:122] Setting up Eltwise10_penlu21_0_split
I0925 20:24:05.407179  3532 net.cpp:129] Top shape: 100 32 14 14 (627200)
I0925 20:24:05.407181  3532 net.cpp:129] Top shape: 100 32 14 14 (627200)
I0925 20:24:05.407183  3532 net.cpp:137] Memory required for data: 562912400
I0925 20:24:05.407186  3532 layer_factory.hpp:77] Creating layer Convolution23
I0925 20:24:05.407191  3532 net.cpp:84] Creating Layer Convolution23
I0925 20:24:05.407193  3532 net.cpp:406] Convolution23 <- Eltwise10_penlu21_0_split_0
I0925 20:24:05.407198  3532 net.cpp:380] Convolution23 -> Convolution23
I0925 20:24:05.408541  3532 net.cpp:122] Setting up Convolution23
I0925 20:24:05.408550  3532 net.cpp:129] Top shape: 100 32 14 14 (627200)
I0925 20:24:05.408552  3532 net.cpp:137] Memory required for data: 565421200
I0925 20:24:05.408557  3532 layer_factory.hpp:77] Creating layer BatchNorm23
I0925 20:24:05.408562  3532 net.cpp:84] Creating Layer BatchNorm23
I0925 20:24:05.408565  3532 net.cpp:406] BatchNorm23 <- Convolution23
I0925 20:24:05.408568  3532 net.cpp:367] BatchNorm23 -> Convolution23 (in-place)
I0925 20:24:05.408701  3532 net.cpp:122] Setting up BatchNorm23
I0925 20:24:05.408706  3532 net.cpp:129] Top shape: 100 32 14 14 (627200)
I0925 20:24:05.408709  3532 net.cpp:137] Memory required for data: 567930000
I0925 20:24:05.408712  3532 layer_factory.hpp:77] Creating layer Scale23
I0925 20:24:05.408717  3532 net.cpp:84] Creating Layer Scale23
I0925 20:24:05.408720  3532 net.cpp:406] Scale23 <- Convolution23
I0925 20:24:05.408723  3532 net.cpp:367] Scale23 -> Convolution23 (in-place)
I0925 20:24:05.408751  3532 layer_factory.hpp:77] Creating layer Scale23
I0925 20:24:05.408824  3532 net.cpp:122] Setting up Scale23
I0925 20:24:05.408829  3532 net.cpp:129] Top shape: 100 32 14 14 (627200)
I0925 20:24:05.408831  3532 net.cpp:137] Memory required for data: 570438800
I0925 20:24:05.408834  3532 layer_factory.hpp:77] Creating layer penlu22
I0925 20:24:05.408840  3532 net.cpp:84] Creating Layer penlu22
I0925 20:24:05.408843  3532 net.cpp:406] penlu22 <- Convolution23
I0925 20:24:05.408846  3532 net.cpp:367] penlu22 -> Convolution23 (in-place)
I0925 20:24:05.408949  3532 net.cpp:122] Setting up penlu22
I0925 20:24:05.408953  3532 net.cpp:129] Top shape: 100 32 14 14 (627200)
I0925 20:24:05.408956  3532 net.cpp:137] Memory required for data: 572947600
I0925 20:24:05.408959  3532 layer_factory.hpp:77] Creating layer Convolution24
I0925 20:24:05.408965  3532 net.cpp:84] Creating Layer Convolution24
I0925 20:24:05.408968  3532 net.cpp:406] Convolution24 <- Convolution23
I0925 20:24:05.408972  3532 net.cpp:380] Convolution24 -> Convolution24
I0925 20:24:05.409997  3532 net.cpp:122] Setting up Convolution24
I0925 20:24:05.410006  3532 net.cpp:129] Top shape: 100 32 14 14 (627200)
I0925 20:24:05.410008  3532 net.cpp:137] Memory required for data: 575456400
I0925 20:24:05.410012  3532 layer_factory.hpp:77] Creating layer BatchNorm24
I0925 20:24:05.410018  3532 net.cpp:84] Creating Layer BatchNorm24
I0925 20:24:05.410020  3532 net.cpp:406] BatchNorm24 <- Convolution24
I0925 20:24:05.410024  3532 net.cpp:367] BatchNorm24 -> Convolution24 (in-place)
I0925 20:24:05.410156  3532 net.cpp:122] Setting up BatchNorm24
I0925 20:24:05.410161  3532 net.cpp:129] Top shape: 100 32 14 14 (627200)
I0925 20:24:05.410162  3532 net.cpp:137] Memory required for data: 577965200
I0925 20:24:05.410167  3532 layer_factory.hpp:77] Creating layer Scale24
I0925 20:24:05.410171  3532 net.cpp:84] Creating Layer Scale24
I0925 20:24:05.410174  3532 net.cpp:406] Scale24 <- Convolution24
I0925 20:24:05.410177  3532 net.cpp:367] Scale24 -> Convolution24 (in-place)
I0925 20:24:05.410210  3532 layer_factory.hpp:77] Creating layer Scale24
I0925 20:24:05.410285  3532 net.cpp:122] Setting up Scale24
I0925 20:24:05.410290  3532 net.cpp:129] Top shape: 100 32 14 14 (627200)
I0925 20:24:05.410292  3532 net.cpp:137] Memory required for data: 580474000
I0925 20:24:05.410296  3532 layer_factory.hpp:77] Creating layer Eltwise11
I0925 20:24:05.410300  3532 net.cpp:84] Creating Layer Eltwise11
I0925 20:24:05.410303  3532 net.cpp:406] Eltwise11 <- Eltwise10_penlu21_0_split_1
I0925 20:24:05.410305  3532 net.cpp:406] Eltwise11 <- Convolution24
I0925 20:24:05.410310  3532 net.cpp:380] Eltwise11 -> Eltwise11
I0925 20:24:05.410325  3532 net.cpp:122] Setting up Eltwise11
I0925 20:24:05.410328  3532 net.cpp:129] Top shape: 100 32 14 14 (627200)
I0925 20:24:05.410331  3532 net.cpp:137] Memory required for data: 582982800
I0925 20:24:05.410332  3532 layer_factory.hpp:77] Creating layer penlu23
I0925 20:24:05.410337  3532 net.cpp:84] Creating Layer penlu23
I0925 20:24:05.410339  3532 net.cpp:406] penlu23 <- Eltwise11
I0925 20:24:05.410342  3532 net.cpp:367] penlu23 -> Eltwise11 (in-place)
I0925 20:24:05.410445  3532 net.cpp:122] Setting up penlu23
I0925 20:24:05.410450  3532 net.cpp:129] Top shape: 100 32 14 14 (627200)
I0925 20:24:05.410452  3532 net.cpp:137] Memory required for data: 585491600
I0925 20:24:05.410456  3532 layer_factory.hpp:77] Creating layer Eltwise11_penlu23_0_split
I0925 20:24:05.410459  3532 net.cpp:84] Creating Layer Eltwise11_penlu23_0_split
I0925 20:24:05.410461  3532 net.cpp:406] Eltwise11_penlu23_0_split <- Eltwise11
I0925 20:24:05.410465  3532 net.cpp:380] Eltwise11_penlu23_0_split -> Eltwise11_penlu23_0_split_0
I0925 20:24:05.410470  3532 net.cpp:380] Eltwise11_penlu23_0_split -> Eltwise11_penlu23_0_split_1
I0925 20:24:05.410492  3532 net.cpp:122] Setting up Eltwise11_penlu23_0_split
I0925 20:24:05.410496  3532 net.cpp:129] Top shape: 100 32 14 14 (627200)
I0925 20:24:05.410500  3532 net.cpp:129] Top shape: 100 32 14 14 (627200)
I0925 20:24:05.410501  3532 net.cpp:137] Memory required for data: 590509200
I0925 20:24:05.410503  3532 layer_factory.hpp:77] Creating layer Convolution25
I0925 20:24:05.410509  3532 net.cpp:84] Creating Layer Convolution25
I0925 20:24:05.410511  3532 net.cpp:406] Convolution25 <- Eltwise11_penlu23_0_split_0
I0925 20:24:05.410516  3532 net.cpp:380] Convolution25 -> Convolution25
I0925 20:24:05.411531  3532 net.cpp:122] Setting up Convolution25
I0925 20:24:05.411540  3532 net.cpp:129] Top shape: 100 32 14 14 (627200)
I0925 20:24:05.411542  3532 net.cpp:137] Memory required for data: 593018000
I0925 20:24:05.411546  3532 layer_factory.hpp:77] Creating layer BatchNorm25
I0925 20:24:05.411551  3532 net.cpp:84] Creating Layer BatchNorm25
I0925 20:24:05.411553  3532 net.cpp:406] BatchNorm25 <- Convolution25
I0925 20:24:05.411559  3532 net.cpp:367] BatchNorm25 -> Convolution25 (in-place)
I0925 20:24:05.411691  3532 net.cpp:122] Setting up BatchNorm25
I0925 20:24:05.411696  3532 net.cpp:129] Top shape: 100 32 14 14 (627200)
I0925 20:24:05.411698  3532 net.cpp:137] Memory required for data: 595526800
I0925 20:24:05.411702  3532 layer_factory.hpp:77] Creating layer Scale25
I0925 20:24:05.411706  3532 net.cpp:84] Creating Layer Scale25
I0925 20:24:05.411708  3532 net.cpp:406] Scale25 <- Convolution25
I0925 20:24:05.411712  3532 net.cpp:367] Scale25 -> Convolution25 (in-place)
I0925 20:24:05.411737  3532 layer_factory.hpp:77] Creating layer Scale25
I0925 20:24:05.411813  3532 net.cpp:122] Setting up Scale25
I0925 20:24:05.411816  3532 net.cpp:129] Top shape: 100 32 14 14 (627200)
I0925 20:24:05.411818  3532 net.cpp:137] Memory required for data: 598035600
I0925 20:24:05.411823  3532 layer_factory.hpp:77] Creating layer penlu24
I0925 20:24:05.411828  3532 net.cpp:84] Creating Layer penlu24
I0925 20:24:05.411829  3532 net.cpp:406] penlu24 <- Convolution25
I0925 20:24:05.411834  3532 net.cpp:367] penlu24 -> Convolution25 (in-place)
I0925 20:24:05.411937  3532 net.cpp:122] Setting up penlu24
I0925 20:24:05.411942  3532 net.cpp:129] Top shape: 100 32 14 14 (627200)
I0925 20:24:05.411950  3532 net.cpp:137] Memory required for data: 600544400
I0925 20:24:05.411954  3532 layer_factory.hpp:77] Creating layer Convolution26
I0925 20:24:05.411962  3532 net.cpp:84] Creating Layer Convolution26
I0925 20:24:05.411963  3532 net.cpp:406] Convolution26 <- Convolution25
I0925 20:24:05.411967  3532 net.cpp:380] Convolution26 -> Convolution26
I0925 20:24:05.413012  3532 net.cpp:122] Setting up Convolution26
I0925 20:24:05.413022  3532 net.cpp:129] Top shape: 100 32 14 14 (627200)
I0925 20:24:05.413024  3532 net.cpp:137] Memory required for data: 603053200
I0925 20:24:05.413028  3532 layer_factory.hpp:77] Creating layer BatchNorm26
I0925 20:24:05.413033  3532 net.cpp:84] Creating Layer BatchNorm26
I0925 20:24:05.413035  3532 net.cpp:406] BatchNorm26 <- Convolution26
I0925 20:24:05.413039  3532 net.cpp:367] BatchNorm26 -> Convolution26 (in-place)
I0925 20:24:05.413173  3532 net.cpp:122] Setting up BatchNorm26
I0925 20:24:05.413177  3532 net.cpp:129] Top shape: 100 32 14 14 (627200)
I0925 20:24:05.413179  3532 net.cpp:137] Memory required for data: 605562000
I0925 20:24:05.413184  3532 layer_factory.hpp:77] Creating layer Scale26
I0925 20:24:05.413187  3532 net.cpp:84] Creating Layer Scale26
I0925 20:24:05.413190  3532 net.cpp:406] Scale26 <- Convolution26
I0925 20:24:05.413194  3532 net.cpp:367] Scale26 -> Convolution26 (in-place)
I0925 20:24:05.413218  3532 layer_factory.hpp:77] Creating layer Scale26
I0925 20:24:05.413296  3532 net.cpp:122] Setting up Scale26
I0925 20:24:05.413301  3532 net.cpp:129] Top shape: 100 32 14 14 (627200)
I0925 20:24:05.413303  3532 net.cpp:137] Memory required for data: 608070800
I0925 20:24:05.413307  3532 layer_factory.hpp:77] Creating layer Eltwise12
I0925 20:24:05.413311  3532 net.cpp:84] Creating Layer Eltwise12
I0925 20:24:05.413313  3532 net.cpp:406] Eltwise12 <- Eltwise11_penlu23_0_split_1
I0925 20:24:05.413316  3532 net.cpp:406] Eltwise12 <- Convolution26
I0925 20:24:05.413321  3532 net.cpp:380] Eltwise12 -> Eltwise12
I0925 20:24:05.413336  3532 net.cpp:122] Setting up Eltwise12
I0925 20:24:05.413339  3532 net.cpp:129] Top shape: 100 32 14 14 (627200)
I0925 20:24:05.413341  3532 net.cpp:137] Memory required for data: 610579600
I0925 20:24:05.413343  3532 layer_factory.hpp:77] Creating layer penlu25
I0925 20:24:05.413348  3532 net.cpp:84] Creating Layer penlu25
I0925 20:24:05.413350  3532 net.cpp:406] penlu25 <- Eltwise12
I0925 20:24:05.413354  3532 net.cpp:367] penlu25 -> Eltwise12 (in-place)
I0925 20:24:05.413460  3532 net.cpp:122] Setting up penlu25
I0925 20:24:05.413465  3532 net.cpp:129] Top shape: 100 32 14 14 (627200)
I0925 20:24:05.413466  3532 net.cpp:137] Memory required for data: 613088400
I0925 20:24:05.413487  3532 layer_factory.hpp:77] Creating layer Eltwise12_penlu25_0_split
I0925 20:24:05.413498  3532 net.cpp:84] Creating Layer Eltwise12_penlu25_0_split
I0925 20:24:05.413501  3532 net.cpp:406] Eltwise12_penlu25_0_split <- Eltwise12
I0925 20:24:05.413504  3532 net.cpp:380] Eltwise12_penlu25_0_split -> Eltwise12_penlu25_0_split_0
I0925 20:24:05.413512  3532 net.cpp:380] Eltwise12_penlu25_0_split -> Eltwise12_penlu25_0_split_1
I0925 20:24:05.413537  3532 net.cpp:122] Setting up Eltwise12_penlu25_0_split
I0925 20:24:05.413542  3532 net.cpp:129] Top shape: 100 32 14 14 (627200)
I0925 20:24:05.413544  3532 net.cpp:129] Top shape: 100 32 14 14 (627200)
I0925 20:24:05.413547  3532 net.cpp:137] Memory required for data: 618106000
I0925 20:24:05.413548  3532 layer_factory.hpp:77] Creating layer Convolution27
I0925 20:24:05.413554  3532 net.cpp:84] Creating Layer Convolution27
I0925 20:24:05.413558  3532 net.cpp:406] Convolution27 <- Eltwise12_penlu25_0_split_0
I0925 20:24:05.413561  3532 net.cpp:380] Convolution27 -> Convolution27
I0925 20:24:05.414260  3532 net.cpp:122] Setting up Convolution27
I0925 20:24:05.414268  3532 net.cpp:129] Top shape: 100 32 14 14 (627200)
I0925 20:24:05.414269  3532 net.cpp:137] Memory required for data: 620614800
I0925 20:24:05.414273  3532 layer_factory.hpp:77] Creating layer BatchNorm27
I0925 20:24:05.414279  3532 net.cpp:84] Creating Layer BatchNorm27
I0925 20:24:05.414288  3532 net.cpp:406] BatchNorm27 <- Convolution27
I0925 20:24:05.414291  3532 net.cpp:367] BatchNorm27 -> Convolution27 (in-place)
I0925 20:24:05.414427  3532 net.cpp:122] Setting up BatchNorm27
I0925 20:24:05.414430  3532 net.cpp:129] Top shape: 100 32 14 14 (627200)
I0925 20:24:05.414433  3532 net.cpp:137] Memory required for data: 623123600
I0925 20:24:05.414438  3532 layer_factory.hpp:77] Creating layer Scale27
I0925 20:24:05.414441  3532 net.cpp:84] Creating Layer Scale27
I0925 20:24:05.414444  3532 net.cpp:406] Scale27 <- Convolution27
I0925 20:24:05.414448  3532 net.cpp:367] Scale27 -> Convolution27 (in-place)
I0925 20:24:05.414472  3532 layer_factory.hpp:77] Creating layer Scale27
I0925 20:24:05.414547  3532 net.cpp:122] Setting up Scale27
I0925 20:24:05.414552  3532 net.cpp:129] Top shape: 100 32 14 14 (627200)
I0925 20:24:05.414554  3532 net.cpp:137] Memory required for data: 625632400
I0925 20:24:05.414557  3532 layer_factory.hpp:77] Creating layer penlu26
I0925 20:24:05.414562  3532 net.cpp:84] Creating Layer penlu26
I0925 20:24:05.414566  3532 net.cpp:406] penlu26 <- Convolution27
I0925 20:24:05.414568  3532 net.cpp:367] penlu26 -> Convolution27 (in-place)
I0925 20:24:05.414675  3532 net.cpp:122] Setting up penlu26
I0925 20:24:05.414680  3532 net.cpp:129] Top shape: 100 32 14 14 (627200)
I0925 20:24:05.414681  3532 net.cpp:137] Memory required for data: 628141200
I0925 20:24:05.414685  3532 layer_factory.hpp:77] Creating layer Convolution28
I0925 20:24:05.414692  3532 net.cpp:84] Creating Layer Convolution28
I0925 20:24:05.414695  3532 net.cpp:406] Convolution28 <- Convolution27
I0925 20:24:05.414698  3532 net.cpp:380] Convolution28 -> Convolution28
I0925 20:24:05.415709  3532 net.cpp:122] Setting up Convolution28
I0925 20:24:05.415717  3532 net.cpp:129] Top shape: 100 32 14 14 (627200)
I0925 20:24:05.415720  3532 net.cpp:137] Memory required for data: 630650000
I0925 20:24:05.415724  3532 layer_factory.hpp:77] Creating layer BatchNorm28
I0925 20:24:05.415729  3532 net.cpp:84] Creating Layer BatchNorm28
I0925 20:24:05.415731  3532 net.cpp:406] BatchNorm28 <- Convolution28
I0925 20:24:05.415735  3532 net.cpp:367] BatchNorm28 -> Convolution28 (in-place)
I0925 20:24:05.415868  3532 net.cpp:122] Setting up BatchNorm28
I0925 20:24:05.415873  3532 net.cpp:129] Top shape: 100 32 14 14 (627200)
I0925 20:24:05.415874  3532 net.cpp:137] Memory required for data: 633158800
I0925 20:24:05.415879  3532 layer_factory.hpp:77] Creating layer Scale28
I0925 20:24:05.415884  3532 net.cpp:84] Creating Layer Scale28
I0925 20:24:05.415885  3532 net.cpp:406] Scale28 <- Convolution28
I0925 20:24:05.415889  3532 net.cpp:367] Scale28 -> Convolution28 (in-place)
I0925 20:24:05.415915  3532 layer_factory.hpp:77] Creating layer Scale28
I0925 20:24:05.415992  3532 net.cpp:122] Setting up Scale28
I0925 20:24:05.415995  3532 net.cpp:129] Top shape: 100 32 14 14 (627200)
I0925 20:24:05.415997  3532 net.cpp:137] Memory required for data: 635667600
I0925 20:24:05.416002  3532 layer_factory.hpp:77] Creating layer Eltwise13
I0925 20:24:05.416005  3532 net.cpp:84] Creating Layer Eltwise13
I0925 20:24:05.416007  3532 net.cpp:406] Eltwise13 <- Eltwise12_penlu25_0_split_1
I0925 20:24:05.416010  3532 net.cpp:406] Eltwise13 <- Convolution28
I0925 20:24:05.416014  3532 net.cpp:380] Eltwise13 -> Eltwise13
I0925 20:24:05.416029  3532 net.cpp:122] Setting up Eltwise13
I0925 20:24:05.416033  3532 net.cpp:129] Top shape: 100 32 14 14 (627200)
I0925 20:24:05.416035  3532 net.cpp:137] Memory required for data: 638176400
I0925 20:24:05.416038  3532 layer_factory.hpp:77] Creating layer penlu27
I0925 20:24:05.416043  3532 net.cpp:84] Creating Layer penlu27
I0925 20:24:05.416044  3532 net.cpp:406] penlu27 <- Eltwise13
I0925 20:24:05.416049  3532 net.cpp:367] penlu27 -> Eltwise13 (in-place)
I0925 20:24:05.416153  3532 net.cpp:122] Setting up penlu27
I0925 20:24:05.416157  3532 net.cpp:129] Top shape: 100 32 14 14 (627200)
I0925 20:24:05.416159  3532 net.cpp:137] Memory required for data: 640685200
I0925 20:24:05.416163  3532 layer_factory.hpp:77] Creating layer Eltwise13_penlu27_0_split
I0925 20:24:05.416172  3532 net.cpp:84] Creating Layer Eltwise13_penlu27_0_split
I0925 20:24:05.416175  3532 net.cpp:406] Eltwise13_penlu27_0_split <- Eltwise13
I0925 20:24:05.416178  3532 net.cpp:380] Eltwise13_penlu27_0_split -> Eltwise13_penlu27_0_split_0
I0925 20:24:05.416182  3532 net.cpp:380] Eltwise13_penlu27_0_split -> Eltwise13_penlu27_0_split_1
I0925 20:24:05.416206  3532 net.cpp:122] Setting up Eltwise13_penlu27_0_split
I0925 20:24:05.416209  3532 net.cpp:129] Top shape: 100 32 14 14 (627200)
I0925 20:24:05.416213  3532 net.cpp:129] Top shape: 100 32 14 14 (627200)
I0925 20:24:05.416214  3532 net.cpp:137] Memory required for data: 645702800
I0925 20:24:05.416216  3532 layer_factory.hpp:77] Creating layer Convolution29
I0925 20:24:05.416223  3532 net.cpp:84] Creating Layer Convolution29
I0925 20:24:05.416225  3532 net.cpp:406] Convolution29 <- Eltwise13_penlu27_0_split_0
I0925 20:24:05.416229  3532 net.cpp:380] Convolution29 -> Convolution29
I0925 20:24:05.417273  3532 net.cpp:122] Setting up Convolution29
I0925 20:24:05.417281  3532 net.cpp:129] Top shape: 100 32 14 14 (627200)
I0925 20:24:05.417284  3532 net.cpp:137] Memory required for data: 648211600
I0925 20:24:05.417289  3532 layer_factory.hpp:77] Creating layer BatchNorm29
I0925 20:24:05.417292  3532 net.cpp:84] Creating Layer BatchNorm29
I0925 20:24:05.417295  3532 net.cpp:406] BatchNorm29 <- Convolution29
I0925 20:24:05.417299  3532 net.cpp:367] BatchNorm29 -> Convolution29 (in-place)
I0925 20:24:05.417431  3532 net.cpp:122] Setting up BatchNorm29
I0925 20:24:05.417436  3532 net.cpp:129] Top shape: 100 32 14 14 (627200)
I0925 20:24:05.417438  3532 net.cpp:137] Memory required for data: 650720400
I0925 20:24:05.417443  3532 layer_factory.hpp:77] Creating layer Scale29
I0925 20:24:05.417446  3532 net.cpp:84] Creating Layer Scale29
I0925 20:24:05.417449  3532 net.cpp:406] Scale29 <- Convolution29
I0925 20:24:05.417453  3532 net.cpp:367] Scale29 -> Convolution29 (in-place)
I0925 20:24:05.417479  3532 layer_factory.hpp:77] Creating layer Scale29
I0925 20:24:05.417554  3532 net.cpp:122] Setting up Scale29
I0925 20:24:05.417558  3532 net.cpp:129] Top shape: 100 32 14 14 (627200)
I0925 20:24:05.417562  3532 net.cpp:137] Memory required for data: 653229200
I0925 20:24:05.417564  3532 layer_factory.hpp:77] Creating layer penlu28
I0925 20:24:05.417570  3532 net.cpp:84] Creating Layer penlu28
I0925 20:24:05.417572  3532 net.cpp:406] penlu28 <- Convolution29
I0925 20:24:05.417577  3532 net.cpp:367] penlu28 -> Convolution29 (in-place)
I0925 20:24:05.417682  3532 net.cpp:122] Setting up penlu28
I0925 20:24:05.417687  3532 net.cpp:129] Top shape: 100 32 14 14 (627200)
I0925 20:24:05.417690  3532 net.cpp:137] Memory required for data: 655738000
I0925 20:24:05.417693  3532 layer_factory.hpp:77] Creating layer Convolution30
I0925 20:24:05.417699  3532 net.cpp:84] Creating Layer Convolution30
I0925 20:24:05.417701  3532 net.cpp:406] Convolution30 <- Convolution29
I0925 20:24:05.417706  3532 net.cpp:380] Convolution30 -> Convolution30
I0925 20:24:05.418722  3532 net.cpp:122] Setting up Convolution30
I0925 20:24:05.418730  3532 net.cpp:129] Top shape: 100 32 14 14 (627200)
I0925 20:24:05.418733  3532 net.cpp:137] Memory required for data: 658246800
I0925 20:24:05.418737  3532 layer_factory.hpp:77] Creating layer BatchNorm30
I0925 20:24:05.418742  3532 net.cpp:84] Creating Layer BatchNorm30
I0925 20:24:05.418745  3532 net.cpp:406] BatchNorm30 <- Convolution30
I0925 20:24:05.418748  3532 net.cpp:367] BatchNorm30 -> Convolution30 (in-place)
I0925 20:24:05.418881  3532 net.cpp:122] Setting up BatchNorm30
I0925 20:24:05.418885  3532 net.cpp:129] Top shape: 100 32 14 14 (627200)
I0925 20:24:05.418887  3532 net.cpp:137] Memory required for data: 660755600
I0925 20:24:05.418891  3532 layer_factory.hpp:77] Creating layer Scale30
I0925 20:24:05.418895  3532 net.cpp:84] Creating Layer Scale30
I0925 20:24:05.418898  3532 net.cpp:406] Scale30 <- Convolution30
I0925 20:24:05.418901  3532 net.cpp:367] Scale30 -> Convolution30 (in-place)
I0925 20:24:05.418936  3532 layer_factory.hpp:77] Creating layer Scale30
I0925 20:24:05.419011  3532 net.cpp:122] Setting up Scale30
I0925 20:24:05.419015  3532 net.cpp:129] Top shape: 100 32 14 14 (627200)
I0925 20:24:05.419018  3532 net.cpp:137] Memory required for data: 663264400
I0925 20:24:05.419021  3532 layer_factory.hpp:77] Creating layer Eltwise14
I0925 20:24:05.419025  3532 net.cpp:84] Creating Layer Eltwise14
I0925 20:24:05.419028  3532 net.cpp:406] Eltwise14 <- Eltwise13_penlu27_0_split_1
I0925 20:24:05.419031  3532 net.cpp:406] Eltwise14 <- Convolution30
I0925 20:24:05.419034  3532 net.cpp:380] Eltwise14 -> Eltwise14
I0925 20:24:05.419050  3532 net.cpp:122] Setting up Eltwise14
I0925 20:24:05.419054  3532 net.cpp:129] Top shape: 100 32 14 14 (627200)
I0925 20:24:05.419055  3532 net.cpp:137] Memory required for data: 665773200
I0925 20:24:05.419057  3532 layer_factory.hpp:77] Creating layer penlu29
I0925 20:24:05.419062  3532 net.cpp:84] Creating Layer penlu29
I0925 20:24:05.419065  3532 net.cpp:406] penlu29 <- Eltwise14
I0925 20:24:05.419068  3532 net.cpp:367] penlu29 -> Eltwise14 (in-place)
I0925 20:24:05.419173  3532 net.cpp:122] Setting up penlu29
I0925 20:24:05.419178  3532 net.cpp:129] Top shape: 100 32 14 14 (627200)
I0925 20:24:05.419179  3532 net.cpp:137] Memory required for data: 668282000
I0925 20:24:05.419184  3532 layer_factory.hpp:77] Creating layer Eltwise14_penlu29_0_split
I0925 20:24:05.419188  3532 net.cpp:84] Creating Layer Eltwise14_penlu29_0_split
I0925 20:24:05.419190  3532 net.cpp:406] Eltwise14_penlu29_0_split <- Eltwise14
I0925 20:24:05.419194  3532 net.cpp:380] Eltwise14_penlu29_0_split -> Eltwise14_penlu29_0_split_0
I0925 20:24:05.419198  3532 net.cpp:380] Eltwise14_penlu29_0_split -> Eltwise14_penlu29_0_split_1
I0925 20:24:05.419221  3532 net.cpp:122] Setting up Eltwise14_penlu29_0_split
I0925 20:24:05.419225  3532 net.cpp:129] Top shape: 100 32 14 14 (627200)
I0925 20:24:05.419227  3532 net.cpp:129] Top shape: 100 32 14 14 (627200)
I0925 20:24:05.419229  3532 net.cpp:137] Memory required for data: 673299600
I0925 20:24:05.419231  3532 layer_factory.hpp:77] Creating layer Convolution31
I0925 20:24:05.419237  3532 net.cpp:84] Creating Layer Convolution31
I0925 20:24:05.419239  3532 net.cpp:406] Convolution31 <- Eltwise14_penlu29_0_split_0
I0925 20:24:05.419245  3532 net.cpp:380] Convolution31 -> Convolution31
I0925 20:24:05.420270  3532 net.cpp:122] Setting up Convolution31
I0925 20:24:05.420279  3532 net.cpp:129] Top shape: 100 32 14 14 (627200)
I0925 20:24:05.420281  3532 net.cpp:137] Memory required for data: 675808400
I0925 20:24:05.420285  3532 layer_factory.hpp:77] Creating layer BatchNorm31
I0925 20:24:05.420290  3532 net.cpp:84] Creating Layer BatchNorm31
I0925 20:24:05.420294  3532 net.cpp:406] BatchNorm31 <- Convolution31
I0925 20:24:05.420296  3532 net.cpp:367] BatchNorm31 -> Convolution31 (in-place)
I0925 20:24:05.420433  3532 net.cpp:122] Setting up BatchNorm31
I0925 20:24:05.420436  3532 net.cpp:129] Top shape: 100 32 14 14 (627200)
I0925 20:24:05.420439  3532 net.cpp:137] Memory required for data: 678317200
I0925 20:24:05.420444  3532 layer_factory.hpp:77] Creating layer Scale31
I0925 20:24:05.420446  3532 net.cpp:84] Creating Layer Scale31
I0925 20:24:05.420449  3532 net.cpp:406] Scale31 <- Convolution31
I0925 20:24:05.420452  3532 net.cpp:367] Scale31 -> Convolution31 (in-place)
I0925 20:24:05.420480  3532 layer_factory.hpp:77] Creating layer Scale31
I0925 20:24:05.420589  3532 net.cpp:122] Setting up Scale31
I0925 20:24:05.420595  3532 net.cpp:129] Top shape: 100 32 14 14 (627200)
I0925 20:24:05.420598  3532 net.cpp:137] Memory required for data: 680826000
I0925 20:24:05.420601  3532 layer_factory.hpp:77] Creating layer penlu30
I0925 20:24:05.420608  3532 net.cpp:84] Creating Layer penlu30
I0925 20:24:05.420609  3532 net.cpp:406] penlu30 <- Convolution31
I0925 20:24:05.420614  3532 net.cpp:367] penlu30 -> Convolution31 (in-place)
I0925 20:24:05.420722  3532 net.cpp:122] Setting up penlu30
I0925 20:24:05.420727  3532 net.cpp:129] Top shape: 100 32 14 14 (627200)
I0925 20:24:05.420734  3532 net.cpp:137] Memory required for data: 683334800
I0925 20:24:05.420739  3532 layer_factory.hpp:77] Creating layer Convolution32
I0925 20:24:05.420747  3532 net.cpp:84] Creating Layer Convolution32
I0925 20:24:05.420748  3532 net.cpp:406] Convolution32 <- Convolution31
I0925 20:24:05.420753  3532 net.cpp:380] Convolution32 -> Convolution32
I0925 20:24:05.421777  3532 net.cpp:122] Setting up Convolution32
I0925 20:24:05.421784  3532 net.cpp:129] Top shape: 100 32 14 14 (627200)
I0925 20:24:05.421787  3532 net.cpp:137] Memory required for data: 685843600
I0925 20:24:05.421792  3532 layer_factory.hpp:77] Creating layer BatchNorm32
I0925 20:24:05.421797  3532 net.cpp:84] Creating Layer BatchNorm32
I0925 20:24:05.421799  3532 net.cpp:406] BatchNorm32 <- Convolution32
I0925 20:24:05.421802  3532 net.cpp:367] BatchNorm32 -> Convolution32 (in-place)
I0925 20:24:05.421936  3532 net.cpp:122] Setting up BatchNorm32
I0925 20:24:05.421941  3532 net.cpp:129] Top shape: 100 32 14 14 (627200)
I0925 20:24:05.421942  3532 net.cpp:137] Memory required for data: 688352400
I0925 20:24:05.421947  3532 layer_factory.hpp:77] Creating layer Scale32
I0925 20:24:05.421950  3532 net.cpp:84] Creating Layer Scale32
I0925 20:24:05.421953  3532 net.cpp:406] Scale32 <- Convolution32
I0925 20:24:05.421957  3532 net.cpp:367] Scale32 -> Convolution32 (in-place)
I0925 20:24:05.421983  3532 layer_factory.hpp:77] Creating layer Scale32
I0925 20:24:05.422061  3532 net.cpp:122] Setting up Scale32
I0925 20:24:05.422066  3532 net.cpp:129] Top shape: 100 32 14 14 (627200)
I0925 20:24:05.422068  3532 net.cpp:137] Memory required for data: 690861200
I0925 20:24:05.422072  3532 layer_factory.hpp:77] Creating layer Eltwise15
I0925 20:24:05.422076  3532 net.cpp:84] Creating Layer Eltwise15
I0925 20:24:05.422080  3532 net.cpp:406] Eltwise15 <- Eltwise14_penlu29_0_split_1
I0925 20:24:05.422081  3532 net.cpp:406] Eltwise15 <- Convolution32
I0925 20:24:05.422086  3532 net.cpp:380] Eltwise15 -> Eltwise15
I0925 20:24:05.422101  3532 net.cpp:122] Setting up Eltwise15
I0925 20:24:05.422106  3532 net.cpp:129] Top shape: 100 32 14 14 (627200)
I0925 20:24:05.422107  3532 net.cpp:137] Memory required for data: 693370000
I0925 20:24:05.422109  3532 layer_factory.hpp:77] Creating layer penlu31
I0925 20:24:05.422114  3532 net.cpp:84] Creating Layer penlu31
I0925 20:24:05.422116  3532 net.cpp:406] penlu31 <- Eltwise15
I0925 20:24:05.422119  3532 net.cpp:367] penlu31 -> Eltwise15 (in-place)
I0925 20:24:05.422226  3532 net.cpp:122] Setting up penlu31
I0925 20:24:05.422231  3532 net.cpp:129] Top shape: 100 32 14 14 (627200)
I0925 20:24:05.422233  3532 net.cpp:137] Memory required for data: 695878800
I0925 20:24:05.422237  3532 layer_factory.hpp:77] Creating layer Eltwise15_penlu31_0_split
I0925 20:24:05.422240  3532 net.cpp:84] Creating Layer Eltwise15_penlu31_0_split
I0925 20:24:05.422242  3532 net.cpp:406] Eltwise15_penlu31_0_split <- Eltwise15
I0925 20:24:05.422246  3532 net.cpp:380] Eltwise15_penlu31_0_split -> Eltwise15_penlu31_0_split_0
I0925 20:24:05.422250  3532 net.cpp:380] Eltwise15_penlu31_0_split -> Eltwise15_penlu31_0_split_1
I0925 20:24:05.422272  3532 net.cpp:122] Setting up Eltwise15_penlu31_0_split
I0925 20:24:05.422276  3532 net.cpp:129] Top shape: 100 32 14 14 (627200)
I0925 20:24:05.422278  3532 net.cpp:129] Top shape: 100 32 14 14 (627200)
I0925 20:24:05.422281  3532 net.cpp:137] Memory required for data: 700896400
I0925 20:24:05.422282  3532 layer_factory.hpp:77] Creating layer Convolution33
I0925 20:24:05.422289  3532 net.cpp:84] Creating Layer Convolution33
I0925 20:24:05.422291  3532 net.cpp:406] Convolution33 <- Eltwise15_penlu31_0_split_0
I0925 20:24:05.422296  3532 net.cpp:380] Convolution33 -> Convolution33
I0925 20:24:05.423629  3532 net.cpp:122] Setting up Convolution33
I0925 20:24:05.423637  3532 net.cpp:129] Top shape: 100 32 14 14 (627200)
I0925 20:24:05.423640  3532 net.cpp:137] Memory required for data: 703405200
I0925 20:24:05.423645  3532 layer_factory.hpp:77] Creating layer BatchNorm33
I0925 20:24:05.423648  3532 net.cpp:84] Creating Layer BatchNorm33
I0925 20:24:05.423656  3532 net.cpp:406] BatchNorm33 <- Convolution33
I0925 20:24:05.423661  3532 net.cpp:367] BatchNorm33 -> Convolution33 (in-place)
I0925 20:24:05.423801  3532 net.cpp:122] Setting up BatchNorm33
I0925 20:24:05.423805  3532 net.cpp:129] Top shape: 100 32 14 14 (627200)
I0925 20:24:05.423807  3532 net.cpp:137] Memory required for data: 705914000
I0925 20:24:05.423812  3532 layer_factory.hpp:77] Creating layer Scale33
I0925 20:24:05.423816  3532 net.cpp:84] Creating Layer Scale33
I0925 20:24:05.423818  3532 net.cpp:406] Scale33 <- Convolution33
I0925 20:24:05.423822  3532 net.cpp:367] Scale33 -> Convolution33 (in-place)
I0925 20:24:05.423848  3532 layer_factory.hpp:77] Creating layer Scale33
I0925 20:24:05.423926  3532 net.cpp:122] Setting up Scale33
I0925 20:24:05.423930  3532 net.cpp:129] Top shape: 100 32 14 14 (627200)
I0925 20:24:05.423933  3532 net.cpp:137] Memory required for data: 708422800
I0925 20:24:05.423936  3532 layer_factory.hpp:77] Creating layer penlu32
I0925 20:24:05.423941  3532 net.cpp:84] Creating Layer penlu32
I0925 20:24:05.423944  3532 net.cpp:406] penlu32 <- Convolution33
I0925 20:24:05.423949  3532 net.cpp:367] penlu32 -> Convolution33 (in-place)
I0925 20:24:05.424055  3532 net.cpp:122] Setting up penlu32
I0925 20:24:05.424059  3532 net.cpp:129] Top shape: 100 32 14 14 (627200)
I0925 20:24:05.424062  3532 net.cpp:137] Memory required for data: 710931600
I0925 20:24:05.424067  3532 layer_factory.hpp:77] Creating layer Convolution34
I0925 20:24:05.424072  3532 net.cpp:84] Creating Layer Convolution34
I0925 20:24:05.424075  3532 net.cpp:406] Convolution34 <- Convolution33
I0925 20:24:05.424078  3532 net.cpp:380] Convolution34 -> Convolution34
I0925 20:24:05.425138  3532 net.cpp:122] Setting up Convolution34
I0925 20:24:05.425148  3532 net.cpp:129] Top shape: 100 32 14 14 (627200)
I0925 20:24:05.425150  3532 net.cpp:137] Memory required for data: 713440400
I0925 20:24:05.425154  3532 layer_factory.hpp:77] Creating layer BatchNorm34
I0925 20:24:05.425159  3532 net.cpp:84] Creating Layer BatchNorm34
I0925 20:24:05.425161  3532 net.cpp:406] BatchNorm34 <- Convolution34
I0925 20:24:05.425166  3532 net.cpp:367] BatchNorm34 -> Convolution34 (in-place)
I0925 20:24:05.425300  3532 net.cpp:122] Setting up BatchNorm34
I0925 20:24:05.425304  3532 net.cpp:129] Top shape: 100 32 14 14 (627200)
I0925 20:24:05.425307  3532 net.cpp:137] Memory required for data: 715949200
I0925 20:24:05.425312  3532 layer_factory.hpp:77] Creating layer Scale34
I0925 20:24:05.425315  3532 net.cpp:84] Creating Layer Scale34
I0925 20:24:05.425318  3532 net.cpp:406] Scale34 <- Convolution34
I0925 20:24:05.425321  3532 net.cpp:367] Scale34 -> Convolution34 (in-place)
I0925 20:24:05.425346  3532 layer_factory.hpp:77] Creating layer Scale34
I0925 20:24:05.425423  3532 net.cpp:122] Setting up Scale34
I0925 20:24:05.425427  3532 net.cpp:129] Top shape: 100 32 14 14 (627200)
I0925 20:24:05.425429  3532 net.cpp:137] Memory required for data: 718458000
I0925 20:24:05.425433  3532 layer_factory.hpp:77] Creating layer Eltwise16
I0925 20:24:05.425437  3532 net.cpp:84] Creating Layer Eltwise16
I0925 20:24:05.425441  3532 net.cpp:406] Eltwise16 <- Eltwise15_penlu31_0_split_1
I0925 20:24:05.425442  3532 net.cpp:406] Eltwise16 <- Convolution34
I0925 20:24:05.425447  3532 net.cpp:380] Eltwise16 -> Eltwise16
I0925 20:24:05.425462  3532 net.cpp:122] Setting up Eltwise16
I0925 20:24:05.425467  3532 net.cpp:129] Top shape: 100 32 14 14 (627200)
I0925 20:24:05.425468  3532 net.cpp:137] Memory required for data: 720966800
I0925 20:24:05.425470  3532 layer_factory.hpp:77] Creating layer penlu33
I0925 20:24:05.425475  3532 net.cpp:84] Creating Layer penlu33
I0925 20:24:05.425477  3532 net.cpp:406] penlu33 <- Eltwise16
I0925 20:24:05.425482  3532 net.cpp:367] penlu33 -> Eltwise16 (in-place)
I0925 20:24:05.425587  3532 net.cpp:122] Setting up penlu33
I0925 20:24:05.425592  3532 net.cpp:129] Top shape: 100 32 14 14 (627200)
I0925 20:24:05.425595  3532 net.cpp:137] Memory required for data: 723475600
I0925 20:24:05.425604  3532 layer_factory.hpp:77] Creating layer Eltwise16_penlu33_0_split
I0925 20:24:05.425608  3532 net.cpp:84] Creating Layer Eltwise16_penlu33_0_split
I0925 20:24:05.425611  3532 net.cpp:406] Eltwise16_penlu33_0_split <- Eltwise16
I0925 20:24:05.425613  3532 net.cpp:380] Eltwise16_penlu33_0_split -> Eltwise16_penlu33_0_split_0
I0925 20:24:05.425618  3532 net.cpp:380] Eltwise16_penlu33_0_split -> Eltwise16_penlu33_0_split_1
I0925 20:24:05.425642  3532 net.cpp:122] Setting up Eltwise16_penlu33_0_split
I0925 20:24:05.425645  3532 net.cpp:129] Top shape: 100 32 14 14 (627200)
I0925 20:24:05.425648  3532 net.cpp:129] Top shape: 100 32 14 14 (627200)
I0925 20:24:05.425650  3532 net.cpp:137] Memory required for data: 728493200
I0925 20:24:05.425652  3532 layer_factory.hpp:77] Creating layer Convolution35
I0925 20:24:05.425658  3532 net.cpp:84] Creating Layer Convolution35
I0925 20:24:05.425660  3532 net.cpp:406] Convolution35 <- Eltwise16_penlu33_0_split_0
I0925 20:24:05.425664  3532 net.cpp:380] Convolution35 -> Convolution35
I0925 20:24:05.426694  3532 net.cpp:122] Setting up Convolution35
I0925 20:24:05.426702  3532 net.cpp:129] Top shape: 100 32 14 14 (627200)
I0925 20:24:05.426705  3532 net.cpp:137] Memory required for data: 731002000
I0925 20:24:05.426709  3532 layer_factory.hpp:77] Creating layer BatchNorm35
I0925 20:24:05.426713  3532 net.cpp:84] Creating Layer BatchNorm35
I0925 20:24:05.426717  3532 net.cpp:406] BatchNorm35 <- Convolution35
I0925 20:24:05.426720  3532 net.cpp:367] BatchNorm35 -> Convolution35 (in-place)
I0925 20:24:05.426854  3532 net.cpp:122] Setting up BatchNorm35
I0925 20:24:05.426858  3532 net.cpp:129] Top shape: 100 32 14 14 (627200)
I0925 20:24:05.426861  3532 net.cpp:137] Memory required for data: 733510800
I0925 20:24:05.426865  3532 layer_factory.hpp:77] Creating layer Scale35
I0925 20:24:05.426869  3532 net.cpp:84] Creating Layer Scale35
I0925 20:24:05.426872  3532 net.cpp:406] Scale35 <- Convolution35
I0925 20:24:05.426875  3532 net.cpp:367] Scale35 -> Convolution35 (in-place)
I0925 20:24:05.426900  3532 layer_factory.hpp:77] Creating layer Scale35
I0925 20:24:05.426977  3532 net.cpp:122] Setting up Scale35
I0925 20:24:05.426982  3532 net.cpp:129] Top shape: 100 32 14 14 (627200)
I0925 20:24:05.426985  3532 net.cpp:137] Memory required for data: 736019600
I0925 20:24:05.426988  3532 layer_factory.hpp:77] Creating layer penlu34
I0925 20:24:05.426993  3532 net.cpp:84] Creating Layer penlu34
I0925 20:24:05.426995  3532 net.cpp:406] penlu34 <- Convolution35
I0925 20:24:05.427000  3532 net.cpp:367] penlu34 -> Convolution35 (in-place)
I0925 20:24:05.427106  3532 net.cpp:122] Setting up penlu34
I0925 20:24:05.427110  3532 net.cpp:129] Top shape: 100 32 14 14 (627200)
I0925 20:24:05.427112  3532 net.cpp:137] Memory required for data: 738528400
I0925 20:24:05.427116  3532 layer_factory.hpp:77] Creating layer Convolution36
I0925 20:24:05.427124  3532 net.cpp:84] Creating Layer Convolution36
I0925 20:24:05.427125  3532 net.cpp:406] Convolution36 <- Convolution35
I0925 20:24:05.427130  3532 net.cpp:380] Convolution36 -> Convolution36
I0925 20:24:05.428156  3532 net.cpp:122] Setting up Convolution36
I0925 20:24:05.428164  3532 net.cpp:129] Top shape: 100 32 14 14 (627200)
I0925 20:24:05.428167  3532 net.cpp:137] Memory required for data: 741037200
I0925 20:24:05.428171  3532 layer_factory.hpp:77] Creating layer BatchNorm36
I0925 20:24:05.428176  3532 net.cpp:84] Creating Layer BatchNorm36
I0925 20:24:05.428179  3532 net.cpp:406] BatchNorm36 <- Convolution36
I0925 20:24:05.428182  3532 net.cpp:367] BatchNorm36 -> Convolution36 (in-place)
I0925 20:24:05.428316  3532 net.cpp:122] Setting up BatchNorm36
I0925 20:24:05.428320  3532 net.cpp:129] Top shape: 100 32 14 14 (627200)
I0925 20:24:05.428323  3532 net.cpp:137] Memory required for data: 743546000
I0925 20:24:05.428328  3532 layer_factory.hpp:77] Creating layer Scale36
I0925 20:24:05.428331  3532 net.cpp:84] Creating Layer Scale36
I0925 20:24:05.428333  3532 net.cpp:406] Scale36 <- Convolution36
I0925 20:24:05.428336  3532 net.cpp:367] Scale36 -> Convolution36 (in-place)
I0925 20:24:05.428372  3532 layer_factory.hpp:77] Creating layer Scale36
I0925 20:24:05.428448  3532 net.cpp:122] Setting up Scale36
I0925 20:24:05.428452  3532 net.cpp:129] Top shape: 100 32 14 14 (627200)
I0925 20:24:05.428455  3532 net.cpp:137] Memory required for data: 746054800
I0925 20:24:05.428458  3532 layer_factory.hpp:77] Creating layer Eltwise17
I0925 20:24:05.428463  3532 net.cpp:84] Creating Layer Eltwise17
I0925 20:24:05.428465  3532 net.cpp:406] Eltwise17 <- Eltwise16_penlu33_0_split_1
I0925 20:24:05.428468  3532 net.cpp:406] Eltwise17 <- Convolution36
I0925 20:24:05.428472  3532 net.cpp:380] Eltwise17 -> Eltwise17
I0925 20:24:05.428488  3532 net.cpp:122] Setting up Eltwise17
I0925 20:24:05.428491  3532 net.cpp:129] Top shape: 100 32 14 14 (627200)
I0925 20:24:05.428493  3532 net.cpp:137] Memory required for data: 748563600
I0925 20:24:05.428500  3532 layer_factory.hpp:77] Creating layer penlu35
I0925 20:24:05.428505  3532 net.cpp:84] Creating Layer penlu35
I0925 20:24:05.428508  3532 net.cpp:406] penlu35 <- Eltwise17
I0925 20:24:05.428511  3532 net.cpp:367] penlu35 -> Eltwise17 (in-place)
I0925 20:24:05.428618  3532 net.cpp:122] Setting up penlu35
I0925 20:24:05.428623  3532 net.cpp:129] Top shape: 100 32 14 14 (627200)
I0925 20:24:05.428625  3532 net.cpp:137] Memory required for data: 751072400
I0925 20:24:05.428630  3532 layer_factory.hpp:77] Creating layer Eltwise17_penlu35_0_split
I0925 20:24:05.428635  3532 net.cpp:84] Creating Layer Eltwise17_penlu35_0_split
I0925 20:24:05.428637  3532 net.cpp:406] Eltwise17_penlu35_0_split <- Eltwise17
I0925 20:24:05.428640  3532 net.cpp:380] Eltwise17_penlu35_0_split -> Eltwise17_penlu35_0_split_0
I0925 20:24:05.428644  3532 net.cpp:380] Eltwise17_penlu35_0_split -> Eltwise17_penlu35_0_split_1
I0925 20:24:05.428668  3532 net.cpp:122] Setting up Eltwise17_penlu35_0_split
I0925 20:24:05.428671  3532 net.cpp:129] Top shape: 100 32 14 14 (627200)
I0925 20:24:05.428673  3532 net.cpp:129] Top shape: 100 32 14 14 (627200)
I0925 20:24:05.428675  3532 net.cpp:137] Memory required for data: 756090000
I0925 20:24:05.428678  3532 layer_factory.hpp:77] Creating layer Convolution37
I0925 20:24:05.428683  3532 net.cpp:84] Creating Layer Convolution37
I0925 20:24:05.428685  3532 net.cpp:406] Convolution37 <- Eltwise17_penlu35_0_split_0
I0925 20:24:05.428690  3532 net.cpp:380] Convolution37 -> Convolution37
I0925 20:24:05.429397  3532 net.cpp:122] Setting up Convolution37
I0925 20:24:05.429404  3532 net.cpp:129] Top shape: 100 32 14 14 (627200)
I0925 20:24:05.429407  3532 net.cpp:137] Memory required for data: 758598800
I0925 20:24:05.429411  3532 layer_factory.hpp:77] Creating layer BatchNorm37
I0925 20:24:05.429416  3532 net.cpp:84] Creating Layer BatchNorm37
I0925 20:24:05.429419  3532 net.cpp:406] BatchNorm37 <- Convolution37
I0925 20:24:05.429422  3532 net.cpp:367] BatchNorm37 -> Convolution37 (in-place)
I0925 20:24:05.429556  3532 net.cpp:122] Setting up BatchNorm37
I0925 20:24:05.429560  3532 net.cpp:129] Top shape: 100 32 14 14 (627200)
I0925 20:24:05.429563  3532 net.cpp:137] Memory required for data: 761107600
I0925 20:24:05.429567  3532 layer_factory.hpp:77] Creating layer Scale37
I0925 20:24:05.429571  3532 net.cpp:84] Creating Layer Scale37
I0925 20:24:05.429574  3532 net.cpp:406] Scale37 <- Convolution37
I0925 20:24:05.429576  3532 net.cpp:367] Scale37 -> Convolution37 (in-place)
I0925 20:24:05.429603  3532 layer_factory.hpp:77] Creating layer Scale37
I0925 20:24:05.429678  3532 net.cpp:122] Setting up Scale37
I0925 20:24:05.429682  3532 net.cpp:129] Top shape: 100 32 14 14 (627200)
I0925 20:24:05.429684  3532 net.cpp:137] Memory required for data: 763616400
I0925 20:24:05.429688  3532 layer_factory.hpp:77] Creating layer penlu36
I0925 20:24:05.429693  3532 net.cpp:84] Creating Layer penlu36
I0925 20:24:05.429695  3532 net.cpp:406] penlu36 <- Convolution37
I0925 20:24:05.429699  3532 net.cpp:367] penlu36 -> Convolution37 (in-place)
I0925 20:24:05.429805  3532 net.cpp:122] Setting up penlu36
I0925 20:24:05.429808  3532 net.cpp:129] Top shape: 100 32 14 14 (627200)
I0925 20:24:05.429816  3532 net.cpp:137] Memory required for data: 766125200
I0925 20:24:05.429821  3532 layer_factory.hpp:77] Creating layer Convolution38
I0925 20:24:05.429827  3532 net.cpp:84] Creating Layer Convolution38
I0925 20:24:05.429831  3532 net.cpp:406] Convolution38 <- Convolution37
I0925 20:24:05.429834  3532 net.cpp:380] Convolution38 -> Convolution38
I0925 20:24:05.430872  3532 net.cpp:122] Setting up Convolution38
I0925 20:24:05.430881  3532 net.cpp:129] Top shape: 100 32 14 14 (627200)
I0925 20:24:05.430883  3532 net.cpp:137] Memory required for data: 768634000
I0925 20:24:05.430887  3532 layer_factory.hpp:77] Creating layer BatchNorm38
I0925 20:24:05.430892  3532 net.cpp:84] Creating Layer BatchNorm38
I0925 20:24:05.430894  3532 net.cpp:406] BatchNorm38 <- Convolution38
I0925 20:24:05.430898  3532 net.cpp:367] BatchNorm38 -> Convolution38 (in-place)
I0925 20:24:05.431035  3532 net.cpp:122] Setting up BatchNorm38
I0925 20:24:05.431040  3532 net.cpp:129] Top shape: 100 32 14 14 (627200)
I0925 20:24:05.431041  3532 net.cpp:137] Memory required for data: 771142800
I0925 20:24:05.431046  3532 layer_factory.hpp:77] Creating layer Scale38
I0925 20:24:05.431051  3532 net.cpp:84] Creating Layer Scale38
I0925 20:24:05.431052  3532 net.cpp:406] Scale38 <- Convolution38
I0925 20:24:05.431056  3532 net.cpp:367] Scale38 -> Convolution38 (in-place)
I0925 20:24:05.431083  3532 layer_factory.hpp:77] Creating layer Scale38
I0925 20:24:05.431160  3532 net.cpp:122] Setting up Scale38
I0925 20:24:05.431164  3532 net.cpp:129] Top shape: 100 32 14 14 (627200)
I0925 20:24:05.431166  3532 net.cpp:137] Memory required for data: 773651600
I0925 20:24:05.431170  3532 layer_factory.hpp:77] Creating layer Eltwise18
I0925 20:24:05.431174  3532 net.cpp:84] Creating Layer Eltwise18
I0925 20:24:05.431176  3532 net.cpp:406] Eltwise18 <- Eltwise17_penlu35_0_split_1
I0925 20:24:05.431180  3532 net.cpp:406] Eltwise18 <- Convolution38
I0925 20:24:05.431183  3532 net.cpp:380] Eltwise18 -> Eltwise18
I0925 20:24:05.431198  3532 net.cpp:122] Setting up Eltwise18
I0925 20:24:05.431202  3532 net.cpp:129] Top shape: 100 32 14 14 (627200)
I0925 20:24:05.431205  3532 net.cpp:137] Memory required for data: 776160400
I0925 20:24:05.431206  3532 layer_factory.hpp:77] Creating layer penlu37
I0925 20:24:05.431211  3532 net.cpp:84] Creating Layer penlu37
I0925 20:24:05.431213  3532 net.cpp:406] penlu37 <- Eltwise18
I0925 20:24:05.431217  3532 net.cpp:367] penlu37 -> Eltwise18 (in-place)
I0925 20:24:05.431326  3532 net.cpp:122] Setting up penlu37
I0925 20:24:05.431330  3532 net.cpp:129] Top shape: 100 32 14 14 (627200)
I0925 20:24:05.431332  3532 net.cpp:137] Memory required for data: 778669200
I0925 20:24:05.431336  3532 layer_factory.hpp:77] Creating layer Eltwise18_penlu37_0_split
I0925 20:24:05.431340  3532 net.cpp:84] Creating Layer Eltwise18_penlu37_0_split
I0925 20:24:05.431342  3532 net.cpp:406] Eltwise18_penlu37_0_split <- Eltwise18
I0925 20:24:05.431345  3532 net.cpp:380] Eltwise18_penlu37_0_split -> Eltwise18_penlu37_0_split_0
I0925 20:24:05.431349  3532 net.cpp:380] Eltwise18_penlu37_0_split -> Eltwise18_penlu37_0_split_1
I0925 20:24:05.431372  3532 net.cpp:122] Setting up Eltwise18_penlu37_0_split
I0925 20:24:05.431376  3532 net.cpp:129] Top shape: 100 32 14 14 (627200)
I0925 20:24:05.431378  3532 net.cpp:129] Top shape: 100 32 14 14 (627200)
I0925 20:24:05.431380  3532 net.cpp:137] Memory required for data: 783686800
I0925 20:24:05.431382  3532 layer_factory.hpp:77] Creating layer Convolution39
I0925 20:24:05.431390  3532 net.cpp:84] Creating Layer Convolution39
I0925 20:24:05.431391  3532 net.cpp:406] Convolution39 <- Eltwise18_penlu37_0_split_0
I0925 20:24:05.431396  3532 net.cpp:380] Convolution39 -> Convolution39
I0925 20:24:05.432276  3532 net.cpp:122] Setting up Convolution39
I0925 20:24:05.432284  3532 net.cpp:129] Top shape: 100 64 7 7 (313600)
I0925 20:24:05.432286  3532 net.cpp:137] Memory required for data: 784941200
I0925 20:24:05.432291  3532 layer_factory.hpp:77] Creating layer BatchNorm39
I0925 20:24:05.432301  3532 net.cpp:84] Creating Layer BatchNorm39
I0925 20:24:05.432304  3532 net.cpp:406] BatchNorm39 <- Convolution39
I0925 20:24:05.432308  3532 net.cpp:367] BatchNorm39 -> Convolution39 (in-place)
I0925 20:24:05.432441  3532 net.cpp:122] Setting up BatchNorm39
I0925 20:24:05.432446  3532 net.cpp:129] Top shape: 100 64 7 7 (313600)
I0925 20:24:05.432448  3532 net.cpp:137] Memory required for data: 786195600
I0925 20:24:05.432452  3532 layer_factory.hpp:77] Creating layer Scale39
I0925 20:24:05.432456  3532 net.cpp:84] Creating Layer Scale39
I0925 20:24:05.432458  3532 net.cpp:406] Scale39 <- Convolution39
I0925 20:24:05.432462  3532 net.cpp:367] Scale39 -> Convolution39 (in-place)
I0925 20:24:05.432487  3532 layer_factory.hpp:77] Creating layer Scale39
I0925 20:24:05.432570  3532 net.cpp:122] Setting up Scale39
I0925 20:24:05.432574  3532 net.cpp:129] Top shape: 100 64 7 7 (313600)
I0925 20:24:05.432577  3532 net.cpp:137] Memory required for data: 787450000
I0925 20:24:05.432580  3532 layer_factory.hpp:77] Creating layer Convolution40
I0925 20:24:05.432587  3532 net.cpp:84] Creating Layer Convolution40
I0925 20:24:05.432590  3532 net.cpp:406] Convolution40 <- Eltwise18_penlu37_0_split_1
I0925 20:24:05.432595  3532 net.cpp:380] Convolution40 -> Convolution40
I0925 20:24:05.434331  3532 net.cpp:122] Setting up Convolution40
I0925 20:24:05.434340  3532 net.cpp:129] Top shape: 100 64 7 7 (313600)
I0925 20:24:05.434343  3532 net.cpp:137] Memory required for data: 788704400
I0925 20:24:05.434347  3532 layer_factory.hpp:77] Creating layer BatchNorm40
I0925 20:24:05.434352  3532 net.cpp:84] Creating Layer BatchNorm40
I0925 20:24:05.434355  3532 net.cpp:406] BatchNorm40 <- Convolution40
I0925 20:24:05.434360  3532 net.cpp:367] BatchNorm40 -> Convolution40 (in-place)
I0925 20:24:05.434561  3532 net.cpp:122] Setting up BatchNorm40
I0925 20:24:05.434564  3532 net.cpp:129] Top shape: 100 64 7 7 (313600)
I0925 20:24:05.434567  3532 net.cpp:137] Memory required for data: 789958800
I0925 20:24:05.434571  3532 layer_factory.hpp:77] Creating layer Scale40
I0925 20:24:05.434576  3532 net.cpp:84] Creating Layer Scale40
I0925 20:24:05.434578  3532 net.cpp:406] Scale40 <- Convolution40
I0925 20:24:05.434582  3532 net.cpp:367] Scale40 -> Convolution40 (in-place)
I0925 20:24:05.434609  3532 layer_factory.hpp:77] Creating layer Scale40
I0925 20:24:05.434690  3532 net.cpp:122] Setting up Scale40
I0925 20:24:05.434695  3532 net.cpp:129] Top shape: 100 64 7 7 (313600)
I0925 20:24:05.434696  3532 net.cpp:137] Memory required for data: 791213200
I0925 20:24:05.434700  3532 layer_factory.hpp:77] Creating layer penlu38
I0925 20:24:05.434706  3532 net.cpp:84] Creating Layer penlu38
I0925 20:24:05.434708  3532 net.cpp:406] penlu38 <- Convolution40
I0925 20:24:05.434712  3532 net.cpp:367] penlu38 -> Convolution40 (in-place)
I0925 20:24:05.434823  3532 net.cpp:122] Setting up penlu38
I0925 20:24:05.434828  3532 net.cpp:129] Top shape: 100 64 7 7 (313600)
I0925 20:24:05.434831  3532 net.cpp:137] Memory required for data: 792467600
I0925 20:24:05.434835  3532 layer_factory.hpp:77] Creating layer Convolution41
I0925 20:24:05.434842  3532 net.cpp:84] Creating Layer Convolution41
I0925 20:24:05.434845  3532 net.cpp:406] Convolution41 <- Convolution40
I0925 20:24:05.434849  3532 net.cpp:380] Convolution41 -> Convolution41
I0925 20:24:05.437116  3532 net.cpp:122] Setting up Convolution41
I0925 20:24:05.437125  3532 net.cpp:129] Top shape: 100 64 7 7 (313600)
I0925 20:24:05.437129  3532 net.cpp:137] Memory required for data: 793722000
I0925 20:24:05.437134  3532 layer_factory.hpp:77] Creating layer BatchNorm41
I0925 20:24:05.437139  3532 net.cpp:84] Creating Layer BatchNorm41
I0925 20:24:05.437141  3532 net.cpp:406] BatchNorm41 <- Convolution41
I0925 20:24:05.437146  3532 net.cpp:367] BatchNorm41 -> Convolution41 (in-place)
I0925 20:24:05.437291  3532 net.cpp:122] Setting up BatchNorm41
I0925 20:24:05.437296  3532 net.cpp:129] Top shape: 100 64 7 7 (313600)
I0925 20:24:05.437299  3532 net.cpp:137] Memory required for data: 794976400
I0925 20:24:05.437304  3532 layer_factory.hpp:77] Creating layer Scale41
I0925 20:24:05.437315  3532 net.cpp:84] Creating Layer Scale41
I0925 20:24:05.437319  3532 net.cpp:406] Scale41 <- Convolution41
I0925 20:24:05.437322  3532 net.cpp:367] Scale41 -> Convolution41 (in-place)
I0925 20:24:05.437352  3532 layer_factory.hpp:77] Creating layer Scale41
I0925 20:24:05.437436  3532 net.cpp:122] Setting up Scale41
I0925 20:24:05.437441  3532 net.cpp:129] Top shape: 100 64 7 7 (313600)
I0925 20:24:05.437443  3532 net.cpp:137] Memory required for data: 796230800
I0925 20:24:05.437448  3532 layer_factory.hpp:77] Creating layer Eltwise19
I0925 20:24:05.437453  3532 net.cpp:84] Creating Layer Eltwise19
I0925 20:24:05.437455  3532 net.cpp:406] Eltwise19 <- Convolution39
I0925 20:24:05.437458  3532 net.cpp:406] Eltwise19 <- Convolution41
I0925 20:24:05.437463  3532 net.cpp:380] Eltwise19 -> Eltwise19
I0925 20:24:05.437479  3532 net.cpp:122] Setting up Eltwise19
I0925 20:24:05.437484  3532 net.cpp:129] Top shape: 100 64 7 7 (313600)
I0925 20:24:05.437485  3532 net.cpp:137] Memory required for data: 797485200
I0925 20:24:05.437487  3532 layer_factory.hpp:77] Creating layer penlu39
I0925 20:24:05.437494  3532 net.cpp:84] Creating Layer penlu39
I0925 20:24:05.437495  3532 net.cpp:406] penlu39 <- Eltwise19
I0925 20:24:05.437500  3532 net.cpp:367] penlu39 -> Eltwise19 (in-place)
I0925 20:24:05.437613  3532 net.cpp:122] Setting up penlu39
I0925 20:24:05.437618  3532 net.cpp:129] Top shape: 100 64 7 7 (313600)
I0925 20:24:05.437620  3532 net.cpp:137] Memory required for data: 798739600
I0925 20:24:05.437624  3532 layer_factory.hpp:77] Creating layer Eltwise19_penlu39_0_split
I0925 20:24:05.437628  3532 net.cpp:84] Creating Layer Eltwise19_penlu39_0_split
I0925 20:24:05.437630  3532 net.cpp:406] Eltwise19_penlu39_0_split <- Eltwise19
I0925 20:24:05.437635  3532 net.cpp:380] Eltwise19_penlu39_0_split -> Eltwise19_penlu39_0_split_0
I0925 20:24:05.437639  3532 net.cpp:380] Eltwise19_penlu39_0_split -> Eltwise19_penlu39_0_split_1
I0925 20:24:05.437662  3532 net.cpp:122] Setting up Eltwise19_penlu39_0_split
I0925 20:24:05.437666  3532 net.cpp:129] Top shape: 100 64 7 7 (313600)
I0925 20:24:05.437669  3532 net.cpp:129] Top shape: 100 64 7 7 (313600)
I0925 20:24:05.437671  3532 net.cpp:137] Memory required for data: 801248400
I0925 20:24:05.437674  3532 layer_factory.hpp:77] Creating layer Convolution42
I0925 20:24:05.437680  3532 net.cpp:84] Creating Layer Convolution42
I0925 20:24:05.437682  3532 net.cpp:406] Convolution42 <- Eltwise19_penlu39_0_split_0
I0925 20:24:05.437686  3532 net.cpp:380] Convolution42 -> Convolution42
I0925 20:24:05.439426  3532 net.cpp:122] Setting up Convolution42
I0925 20:24:05.439435  3532 net.cpp:129] Top shape: 100 64 7 7 (313600)
I0925 20:24:05.439438  3532 net.cpp:137] Memory required for data: 802502800
I0925 20:24:05.439442  3532 layer_factory.hpp:77] Creating layer BatchNorm42
I0925 20:24:05.439447  3532 net.cpp:84] Creating Layer BatchNorm42
I0925 20:24:05.439450  3532 net.cpp:406] BatchNorm42 <- Convolution42
I0925 20:24:05.439455  3532 net.cpp:367] BatchNorm42 -> Convolution42 (in-place)
I0925 20:24:05.439594  3532 net.cpp:122] Setting up BatchNorm42
I0925 20:24:05.439599  3532 net.cpp:129] Top shape: 100 64 7 7 (313600)
I0925 20:24:05.439601  3532 net.cpp:137] Memory required for data: 803757200
I0925 20:24:05.439605  3532 layer_factory.hpp:77] Creating layer Scale42
I0925 20:24:05.439610  3532 net.cpp:84] Creating Layer Scale42
I0925 20:24:05.439613  3532 net.cpp:406] Scale42 <- Convolution42
I0925 20:24:05.439616  3532 net.cpp:367] Scale42 -> Convolution42 (in-place)
I0925 20:24:05.439644  3532 layer_factory.hpp:77] Creating layer Scale42
I0925 20:24:05.439723  3532 net.cpp:122] Setting up Scale42
I0925 20:24:05.439728  3532 net.cpp:129] Top shape: 100 64 7 7 (313600)
I0925 20:24:05.439729  3532 net.cpp:137] Memory required for data: 805011600
I0925 20:24:05.439733  3532 layer_factory.hpp:77] Creating layer penlu40
I0925 20:24:05.439739  3532 net.cpp:84] Creating Layer penlu40
I0925 20:24:05.439741  3532 net.cpp:406] penlu40 <- Convolution42
I0925 20:24:05.439751  3532 net.cpp:367] penlu40 -> Convolution42 (in-place)
I0925 20:24:05.439864  3532 net.cpp:122] Setting up penlu40
I0925 20:24:05.439868  3532 net.cpp:129] Top shape: 100 64 7 7 (313600)
I0925 20:24:05.439872  3532 net.cpp:137] Memory required for data: 806266000
I0925 20:24:05.439875  3532 layer_factory.hpp:77] Creating layer Convolution43
I0925 20:24:05.439882  3532 net.cpp:84] Creating Layer Convolution43
I0925 20:24:05.439884  3532 net.cpp:406] Convolution43 <- Convolution42
I0925 20:24:05.439888  3532 net.cpp:380] Convolution43 -> Convolution43
I0925 20:24:05.442193  3532 net.cpp:122] Setting up Convolution43
I0925 20:24:05.442201  3532 net.cpp:129] Top shape: 100 64 7 7 (313600)
I0925 20:24:05.442204  3532 net.cpp:137] Memory required for data: 807520400
I0925 20:24:05.442209  3532 layer_factory.hpp:77] Creating layer BatchNorm43
I0925 20:24:05.442214  3532 net.cpp:84] Creating Layer BatchNorm43
I0925 20:24:05.442216  3532 net.cpp:406] BatchNorm43 <- Convolution43
I0925 20:24:05.442220  3532 net.cpp:367] BatchNorm43 -> Convolution43 (in-place)
I0925 20:24:05.442366  3532 net.cpp:122] Setting up BatchNorm43
I0925 20:24:05.442370  3532 net.cpp:129] Top shape: 100 64 7 7 (313600)
I0925 20:24:05.442373  3532 net.cpp:137] Memory required for data: 808774800
I0925 20:24:05.442378  3532 layer_factory.hpp:77] Creating layer Scale43
I0925 20:24:05.442381  3532 net.cpp:84] Creating Layer Scale43
I0925 20:24:05.442384  3532 net.cpp:406] Scale43 <- Convolution43
I0925 20:24:05.442387  3532 net.cpp:367] Scale43 -> Convolution43 (in-place)
I0925 20:24:05.442416  3532 layer_factory.hpp:77] Creating layer Scale43
I0925 20:24:05.442497  3532 net.cpp:122] Setting up Scale43
I0925 20:24:05.442500  3532 net.cpp:129] Top shape: 100 64 7 7 (313600)
I0925 20:24:05.442502  3532 net.cpp:137] Memory required for data: 810029200
I0925 20:24:05.442507  3532 layer_factory.hpp:77] Creating layer Eltwise20
I0925 20:24:05.442512  3532 net.cpp:84] Creating Layer Eltwise20
I0925 20:24:05.442513  3532 net.cpp:406] Eltwise20 <- Eltwise19_penlu39_0_split_1
I0925 20:24:05.442517  3532 net.cpp:406] Eltwise20 <- Convolution43
I0925 20:24:05.442520  3532 net.cpp:380] Eltwise20 -> Eltwise20
I0925 20:24:05.442538  3532 net.cpp:122] Setting up Eltwise20
I0925 20:24:05.442540  3532 net.cpp:129] Top shape: 100 64 7 7 (313600)
I0925 20:24:05.442543  3532 net.cpp:137] Memory required for data: 811283600
I0925 20:24:05.442544  3532 layer_factory.hpp:77] Creating layer penlu41
I0925 20:24:05.442550  3532 net.cpp:84] Creating Layer penlu41
I0925 20:24:05.442553  3532 net.cpp:406] penlu41 <- Eltwise20
I0925 20:24:05.442556  3532 net.cpp:367] penlu41 -> Eltwise20 (in-place)
I0925 20:24:05.442670  3532 net.cpp:122] Setting up penlu41
I0925 20:24:05.442674  3532 net.cpp:129] Top shape: 100 64 7 7 (313600)
I0925 20:24:05.442677  3532 net.cpp:137] Memory required for data: 812538000
I0925 20:24:05.442682  3532 layer_factory.hpp:77] Creating layer Eltwise20_penlu41_0_split
I0925 20:24:05.442685  3532 net.cpp:84] Creating Layer Eltwise20_penlu41_0_split
I0925 20:24:05.442687  3532 net.cpp:406] Eltwise20_penlu41_0_split <- Eltwise20
I0925 20:24:05.442690  3532 net.cpp:380] Eltwise20_penlu41_0_split -> Eltwise20_penlu41_0_split_0
I0925 20:24:05.442695  3532 net.cpp:380] Eltwise20_penlu41_0_split -> Eltwise20_penlu41_0_split_1
I0925 20:24:05.442719  3532 net.cpp:122] Setting up Eltwise20_penlu41_0_split
I0925 20:24:05.442723  3532 net.cpp:129] Top shape: 100 64 7 7 (313600)
I0925 20:24:05.442726  3532 net.cpp:129] Top shape: 100 64 7 7 (313600)
I0925 20:24:05.442728  3532 net.cpp:137] Memory required for data: 815046800
I0925 20:24:05.442730  3532 layer_factory.hpp:77] Creating layer Convolution44
I0925 20:24:05.442736  3532 net.cpp:84] Creating Layer Convolution44
I0925 20:24:05.442739  3532 net.cpp:406] Convolution44 <- Eltwise20_penlu41_0_split_0
I0925 20:24:05.442744  3532 net.cpp:380] Convolution44 -> Convolution44
I0925 20:24:05.444427  3532 net.cpp:122] Setting up Convolution44
I0925 20:24:05.444437  3532 net.cpp:129] Top shape: 100 64 7 7 (313600)
I0925 20:24:05.444445  3532 net.cpp:137] Memory required for data: 816301200
I0925 20:24:05.444450  3532 layer_factory.hpp:77] Creating layer BatchNorm44
I0925 20:24:05.444456  3532 net.cpp:84] Creating Layer BatchNorm44
I0925 20:24:05.444458  3532 net.cpp:406] BatchNorm44 <- Convolution44
I0925 20:24:05.444463  3532 net.cpp:367] BatchNorm44 -> Convolution44 (in-place)
I0925 20:24:05.444648  3532 net.cpp:122] Setting up BatchNorm44
I0925 20:24:05.444653  3532 net.cpp:129] Top shape: 100 64 7 7 (313600)
I0925 20:24:05.444655  3532 net.cpp:137] Memory required for data: 817555600
I0925 20:24:05.444659  3532 layer_factory.hpp:77] Creating layer Scale44
I0925 20:24:05.444664  3532 net.cpp:84] Creating Layer Scale44
I0925 20:24:05.444666  3532 net.cpp:406] Scale44 <- Convolution44
I0925 20:24:05.444669  3532 net.cpp:367] Scale44 -> Convolution44 (in-place)
I0925 20:24:05.444697  3532 layer_factory.hpp:77] Creating layer Scale44
I0925 20:24:05.444777  3532 net.cpp:122] Setting up Scale44
I0925 20:24:05.444782  3532 net.cpp:129] Top shape: 100 64 7 7 (313600)
I0925 20:24:05.444783  3532 net.cpp:137] Memory required for data: 818810000
I0925 20:24:05.444787  3532 layer_factory.hpp:77] Creating layer penlu42
I0925 20:24:05.444793  3532 net.cpp:84] Creating Layer penlu42
I0925 20:24:05.444797  3532 net.cpp:406] penlu42 <- Convolution44
I0925 20:24:05.444800  3532 net.cpp:367] penlu42 -> Convolution44 (in-place)
I0925 20:24:05.444910  3532 net.cpp:122] Setting up penlu42
I0925 20:24:05.444913  3532 net.cpp:129] Top shape: 100 64 7 7 (313600)
I0925 20:24:05.444916  3532 net.cpp:137] Memory required for data: 820064400
I0925 20:24:05.444921  3532 layer_factory.hpp:77] Creating layer Convolution45
I0925 20:24:05.444926  3532 net.cpp:84] Creating Layer Convolution45
I0925 20:24:05.444929  3532 net.cpp:406] Convolution45 <- Convolution44
I0925 20:24:05.444933  3532 net.cpp:380] Convolution45 -> Convolution45
I0925 20:24:05.446871  3532 net.cpp:122] Setting up Convolution45
I0925 20:24:05.446879  3532 net.cpp:129] Top shape: 100 64 7 7 (313600)
I0925 20:24:05.446882  3532 net.cpp:137] Memory required for data: 821318800
I0925 20:24:05.446885  3532 layer_factory.hpp:77] Creating layer BatchNorm45
I0925 20:24:05.446892  3532 net.cpp:84] Creating Layer BatchNorm45
I0925 20:24:05.446893  3532 net.cpp:406] BatchNorm45 <- Convolution45
I0925 20:24:05.446898  3532 net.cpp:367] BatchNorm45 -> Convolution45 (in-place)
I0925 20:24:05.447039  3532 net.cpp:122] Setting up BatchNorm45
I0925 20:24:05.447043  3532 net.cpp:129] Top shape: 100 64 7 7 (313600)
I0925 20:24:05.447046  3532 net.cpp:137] Memory required for data: 822573200
I0925 20:24:05.447051  3532 layer_factory.hpp:77] Creating layer Scale45
I0925 20:24:05.447055  3532 net.cpp:84] Creating Layer Scale45
I0925 20:24:05.447057  3532 net.cpp:406] Scale45 <- Convolution45
I0925 20:24:05.447060  3532 net.cpp:367] Scale45 -> Convolution45 (in-place)
I0925 20:24:05.447088  3532 layer_factory.hpp:77] Creating layer Scale45
I0925 20:24:05.447167  3532 net.cpp:122] Setting up Scale45
I0925 20:24:05.447172  3532 net.cpp:129] Top shape: 100 64 7 7 (313600)
I0925 20:24:05.447175  3532 net.cpp:137] Memory required for data: 823827600
I0925 20:24:05.447177  3532 layer_factory.hpp:77] Creating layer Eltwise21
I0925 20:24:05.447182  3532 net.cpp:84] Creating Layer Eltwise21
I0925 20:24:05.447185  3532 net.cpp:406] Eltwise21 <- Eltwise20_penlu41_0_split_1
I0925 20:24:05.447187  3532 net.cpp:406] Eltwise21 <- Convolution45
I0925 20:24:05.447190  3532 net.cpp:380] Eltwise21 -> Eltwise21
I0925 20:24:05.447209  3532 net.cpp:122] Setting up Eltwise21
…
I0925 20:24:05.803119  3532 net.cpp:137] Memory required for data: 1030145200
I0925 20:24:05.803123  3532 layer_factory.hpp:77] Creating layer BatchNorm40
I0925 20:24:05.803128  3532 net.cpp:84] Creating Layer BatchNorm40
I0925 20:24:05.803131  3532 net.cpp:406] BatchNorm40 <- Convolution40
I0925 20:24:05.803136  3532 net.cpp:367] BatchNorm40 -> Convolution40 (in-place)
I0925 20:24:05.803282  3532 net.cpp:122] Setting up BatchNorm40
I0925 20:24:05.803287  3532 net.cpp:129] Top shape: 100 64 8 8 (409600)
I0925 20:24:05.803288  3532 net.cpp:137] Memory required for data: 1031783600
I0925 20:24:05.803303  3532 layer_factory.hpp:77] Creating layer Scale40
I0925 20:24:05.803306  3532 net.cpp:84] Creating Layer Scale40
I0925 20:24:05.803309  3532 net.cpp:406] Scale40 <- Convolution40
I0925 20:24:05.803323  3532 net.cpp:367] Scale40 -> Convolution40 (in-place)
I0925 20:24:05.803351  3532 layer_factory.hpp:77] Creating layer Scale40
I0925 20:24:05.803433  3532 net.cpp:122] Setting up Scale40
I0925 20:24:05.803437  3532 net.cpp:129] Top shape: 100 64 8 8 (409600)
I0925 20:24:05.803439  3532 net.cpp:137] Memory required for data: 1033422000
I0925 20:24:05.803443  3532 layer_factory.hpp:77] Creating layer penlu38
I0925 20:24:05.803448  3532 net.cpp:84] Creating Layer penlu38
I0925 20:24:05.803452  3532 net.cpp:406] penlu38 <- Convolution40
I0925 20:24:05.803455  3532 net.cpp:367] penlu38 -> Convolution40 (in-place)
I0925 20:24:05.803577  3532 net.cpp:122] Setting up penlu38
I0925 20:24:05.803582  3532 net.cpp:129] Top shape: 100 64 8 8 (409600)
I0925 20:24:05.803584  3532 net.cpp:137] Memory required for data: 1035060400
I0925 20:24:05.803589  3532 layer_factory.hpp:77] Creating layer Convolution41
I0925 20:24:05.803606  3532 net.cpp:84] Creating Layer Convolution41
I0925 20:24:05.803609  3532 net.cpp:406] Convolution41 <- Convolution40
I0925 20:24:05.803613  3532 net.cpp:380] Convolution41 -> Convolution41
I0925 20:24:05.805373  3532 net.cpp:122] Setting up Convolution41
I0925 20:24:05.805382  3532 net.cpp:129] Top shape: 100 64 8 8 (409600)
I0925 20:24:05.805384  3532 net.cpp:137] Memory required for data: 1036698800
I0925 20:24:05.805389  3532 layer_factory.hpp:77] Creating layer BatchNorm41
I0925 20:24:05.805394  3532 net.cpp:84] Creating Layer BatchNorm41
I0925 20:24:05.805397  3532 net.cpp:406] BatchNorm41 <- Convolution41
I0925 20:24:05.805408  3532 net.cpp:367] BatchNorm41 -> Convolution41 (in-place)
I0925 20:24:05.805547  3532 net.cpp:122] Setting up BatchNorm41
I0925 20:24:05.805552  3532 net.cpp:129] Top shape: 100 64 8 8 (409600)
I0925 20:24:05.805553  3532 net.cpp:137] Memory required for data: 1038337200
I0925 20:24:05.805558  3532 layer_factory.hpp:77] Creating layer Scale41
I0925 20:24:05.805562  3532 net.cpp:84] Creating Layer Scale41
I0925 20:24:05.805564  3532 net.cpp:406] Scale41 <- Convolution41
I0925 20:24:05.805568  3532 net.cpp:367] Scale41 -> Convolution41 (in-place)
I0925 20:24:05.805598  3532 layer_factory.hpp:77] Creating layer Scale41
I0925 20:24:05.805677  3532 net.cpp:122] Setting up Scale41
I0925 20:24:05.805682  3532 net.cpp:129] Top shape: 100 64 8 8 (409600)
I0925 20:24:05.805685  3532 net.cpp:137] Memory required for data: 1039975600
I0925 20:24:05.805688  3532 layer_factory.hpp:77] Creating layer Eltwise19
I0925 20:24:05.805692  3532 net.cpp:84] Creating Layer Eltwise19
I0925 20:24:05.805694  3532 net.cpp:406] Eltwise19 <- Convolution39
I0925 20:24:05.805697  3532 net.cpp:406] Eltwise19 <- Convolution41
I0925 20:24:05.805701  3532 net.cpp:380] Eltwise19 -> Eltwise19
I0925 20:24:05.805717  3532 net.cpp:122] Setting up Eltwise19
I0925 20:24:05.805721  3532 net.cpp:129] Top shape: 100 64 8 8 (409600)
I0925 20:24:05.805723  3532 net.cpp:137] Memory required for data: 1041614000
I0925 20:24:05.805725  3532 layer_factory.hpp:77] Creating layer penlu39
I0925 20:24:05.805730  3532 net.cpp:84] Creating Layer penlu39
I0925 20:24:05.805733  3532 net.cpp:406] penlu39 <- Eltwise19
I0925 20:24:05.805737  3532 net.cpp:367] penlu39 -> Eltwise19 (in-place)
I0925 20:24:05.805855  3532 net.cpp:122] Setting up penlu39
I0925 20:24:05.805860  3532 net.cpp:129] Top shape: 100 64 8 8 (409600)
I0925 20:24:05.805861  3532 net.cpp:137] Memory required for data: 1043252400
I0925 20:24:05.805866  3532 layer_factory.hpp:77] Creating layer Eltwise19_penlu39_0_split
I0925 20:24:05.805871  3532 net.cpp:84] Creating Layer Eltwise19_penlu39_0_split
I0925 20:24:05.805872  3532 net.cpp:406] Eltwise19_penlu39_0_split <- Eltwise19
I0925 20:24:05.805876  3532 net.cpp:380] Eltwise19_penlu39_0_split -> Eltwise19_penlu39_0_split_0
I0925 20:24:05.805881  3532 net.cpp:380] Eltwise19_penlu39_0_split -> Eltwise19_penlu39_0_split_1
I0925 20:24:05.805905  3532 net.cpp:122] Setting up Eltwise19_penlu39_0_split
I0925 20:24:05.805908  3532 net.cpp:129] Top shape: 100 64 8 8 (409600)
I0925 20:24:05.805912  3532 net.cpp:129] Top shape: 100 64 8 8 (409600)
I0925 20:24:05.805913  3532 net.cpp:137] Memory required for data: 1046529200
I0925 20:24:05.805915  3532 layer_factory.hpp:77] Creating layer Convolution42
I0925 20:24:05.805922  3532 net.cpp:84] Creating Layer Convolution42
I0925 20:24:05.805923  3532 net.cpp:406] Convolution42 <- Eltwise19_penlu39_0_split_0
I0925 20:24:05.805928  3532 net.cpp:380] Convolution42 -> Convolution42
I0925 20:24:05.807689  3532 net.cpp:122] Setting up Convolution42
I0925 20:24:05.807698  3532 net.cpp:129] Top shape: 100 64 8 8 (409600)
I0925 20:24:05.807700  3532 net.cpp:137] Memory required for data: 1048167600
I0925 20:24:05.807704  3532 layer_factory.hpp:77] Creating layer BatchNorm42
I0925 20:24:05.807709  3532 net.cpp:84] Creating Layer BatchNorm42
I0925 20:24:05.807713  3532 net.cpp:406] BatchNorm42 <- Convolution42
I0925 20:24:05.807716  3532 net.cpp:367] BatchNorm42 -> Convolution42 (in-place)
I0925 20:24:05.807852  3532 net.cpp:122] Setting up BatchNorm42
I0925 20:24:05.807857  3532 net.cpp:129] Top shape: 100 64 8 8 (409600)
I0925 20:24:05.807858  3532 net.cpp:137] Memory required for data: 1049806000
I0925 20:24:05.807863  3532 layer_factory.hpp:77] Creating layer Scale42
I0925 20:24:05.807868  3532 net.cpp:84] Creating Layer Scale42
I0925 20:24:05.807869  3532 net.cpp:406] Scale42 <- Convolution42
I0925 20:24:05.807873  3532 net.cpp:367] Scale42 -> Convolution42 (in-place)
I0925 20:24:05.807900  3532 layer_factory.hpp:77] Creating layer Scale42
I0925 20:24:05.807978  3532 net.cpp:122] Setting up Scale42
I0925 20:24:05.807988  3532 net.cpp:129] Top shape: 100 64 8 8 (409600)
I0925 20:24:05.807991  3532 net.cpp:137] Memory required for data: 1051444400
I0925 20:24:05.807994  3532 layer_factory.hpp:77] Creating layer penlu40
I0925 20:24:05.807999  3532 net.cpp:84] Creating Layer penlu40
I0925 20:24:05.808002  3532 net.cpp:406] penlu40 <- Convolution42
I0925 20:24:05.808007  3532 net.cpp:367] penlu40 -> Convolution42 (in-place)
I0925 20:24:05.808120  3532 net.cpp:122] Setting up penlu40
I0925 20:24:05.808125  3532 net.cpp:129] Top shape: 100 64 8 8 (409600)
I0925 20:24:05.808127  3532 net.cpp:137] Memory required for data: 1053082800
I0925 20:24:05.808131  3532 layer_factory.hpp:77] Creating layer Convolution43
I0925 20:24:05.808138  3532 net.cpp:84] Creating Layer Convolution43
I0925 20:24:05.808141  3532 net.cpp:406] Convolution43 <- Convolution42
I0925 20:24:05.808145  3532 net.cpp:380] Convolution43 -> Convolution43
I0925 20:24:05.809909  3532 net.cpp:122] Setting up Convolution43
I0925 20:24:05.809919  3532 net.cpp:129] Top shape: 100 64 8 8 (409600)
I0925 20:24:05.809921  3532 net.cpp:137] Memory required for data: 1054721200
I0925 20:24:05.809926  3532 layer_factory.hpp:77] Creating layer BatchNorm43
I0925 20:24:05.809931  3532 net.cpp:84] Creating Layer BatchNorm43
I0925 20:24:05.809934  3532 net.cpp:406] BatchNorm43 <- Convolution43
I0925 20:24:05.809938  3532 net.cpp:367] BatchNorm43 -> Convolution43 (in-place)
I0925 20:24:05.810073  3532 net.cpp:122] Setting up BatchNorm43
I0925 20:24:05.810077  3532 net.cpp:129] Top shape: 100 64 8 8 (409600)
I0925 20:24:05.810079  3532 net.cpp:137] Memory required for data: 1056359600
I0925 20:24:05.810084  3532 layer_factory.hpp:77] Creating layer Scale43
I0925 20:24:05.810088  3532 net.cpp:84] Creating Layer Scale43
I0925 20:24:05.810091  3532 net.cpp:406] Scale43 <- Convolution43
I0925 20:24:05.810093  3532 net.cpp:367] Scale43 -> Convolution43 (in-place)
I0925 20:24:05.810122  3532 layer_factory.hpp:77] Creating layer Scale43
I0925 20:24:05.810199  3532 net.cpp:122] Setting up Scale43
I0925 20:24:05.810204  3532 net.cpp:129] Top shape: 100 64 8 8 (409600)
I0925 20:24:05.810205  3532 net.cpp:137] Memory required for data: 1057998000
I0925 20:24:05.810209  3532 layer_factory.hpp:77] Creating layer Eltwise20
I0925 20:24:05.810214  3532 net.cpp:84] Creating Layer Eltwise20
I0925 20:24:05.810217  3532 net.cpp:406] Eltwise20 <- Eltwise19_penlu39_0_split_1
I0925 20:24:05.810220  3532 net.cpp:406] Eltwise20 <- Convolution43
I0925 20:24:05.810223  3532 net.cpp:380] Eltwise20 -> Eltwise20
I0925 20:24:05.810240  3532 net.cpp:122] Setting up Eltwise20
I0925 20:24:05.810243  3532 net.cpp:129] Top shape: 100 64 8 8 (409600)
I0925 20:24:05.810245  3532 net.cpp:137] Memory required for data: 1059636400
I0925 20:24:05.810247  3532 layer_factory.hpp:77] Creating layer penlu41
I0925 20:24:05.810252  3532 net.cpp:84] Creating Layer penlu41
I0925 20:24:05.810255  3532 net.cpp:406] penlu41 <- Eltwise20
I0925 20:24:05.810257  3532 net.cpp:367] penlu41 -> Eltwise20 (in-place)
I0925 20:24:05.810371  3532 net.cpp:122] Setting up penlu41
I0925 20:24:05.810375  3532 net.cpp:129] Top shape: 100 64 8 8 (409600)
I0925 20:24:05.810377  3532 net.cpp:137] Memory required for data: 1061274800
I0925 20:24:05.810382  3532 layer_factory.hpp:77] Creating layer Eltwise20_penlu41_0_split
I0925 20:24:05.810385  3532 net.cpp:84] Creating Layer Eltwise20_penlu41_0_split
I0925 20:24:05.810387  3532 net.cpp:406] Eltwise20_penlu41_0_split <- Eltwise20
I0925 20:24:05.810391  3532 net.cpp:380] Eltwise20_penlu41_0_split -> Eltwise20_penlu41_0_split_0
I0925 20:24:05.810396  3532 net.cpp:380] Eltwise20_penlu41_0_split -> Eltwise20_penlu41_0_split_1
I0925 20:24:05.810418  3532 net.cpp:122] Setting up Eltwise20_penlu41_0_split
I0925 20:24:05.810422  3532 net.cpp:129] Top shape: 100 64 8 8 (409600)
I0925 20:24:05.810425  3532 net.cpp:129] Top shape: 100 64 8 8 (409600)
I0925 20:24:05.810426  3532 net.cpp:137] Memory required for data: 1064551600
I0925 20:24:05.810428  3532 layer_factory.hpp:77] Creating layer Convolution44
I0925 20:24:05.810436  3532 net.cpp:84] Creating Layer Convolution44
I0925 20:24:05.810444  3532 net.cpp:406] Convolution44 <- Eltwise20_penlu41_0_split_0
I0925 20:24:05.810448  3532 net.cpp:380] Convolution44 -> Convolution44
I0925 20:24:05.812455  3532 net.cpp:122] Setting up Convolution44
I0925 20:24:05.812463  3532 net.cpp:129] Top shape: 100 64 8 8 (409600)
I0925 20:24:05.812466  3532 net.cpp:137] Memory required for data: 1066190000
I0925 20:24:05.812470  3532 layer_factory.hpp:77] Creating layer BatchNorm44
I0925 20:24:05.812476  3532 net.cpp:84] Creating Layer BatchNorm44
I0925 20:24:05.812479  3532 net.cpp:406] BatchNorm44 <- Convolution44
I0925 20:24:05.812482  3532 net.cpp:367] BatchNorm44 -> Convolution44 (in-place)
I0925 20:24:05.812657  3532 net.cpp:122] Setting up BatchNorm44
I0925 20:24:05.812664  3532 net.cpp:129] Top shape: 100 64 8 8 (409600)
I0925 20:24:05.812665  3532 net.cpp:137] Memory required for data: 1067828400
I0925 20:24:05.812670  3532 layer_factory.hpp:77] Creating layer Scale44
I0925 20:24:05.812676  3532 net.cpp:84] Creating Layer Scale44
I0925 20:24:05.812680  3532 net.cpp:406] Scale44 <- Convolution44
I0925 20:24:05.812683  3532 net.cpp:367] Scale44 -> Convolution44 (in-place)
I0925 20:24:05.812714  3532 layer_factory.hpp:77] Creating layer Scale44
I0925 20:24:05.812801  3532 net.cpp:122] Setting up Scale44
I0925 20:24:05.812806  3532 net.cpp:129] Top shape: 100 64 8 8 (409600)
I0925 20:24:05.812808  3532 net.cpp:137] Memory required for data: 1069466800
I0925 20:24:05.812813  3532 layer_factory.hpp:77] Creating layer penlu42
I0925 20:24:05.812819  3532 net.cpp:84] Creating Layer penlu42
I0925 20:24:05.812821  3532 net.cpp:406] penlu42 <- Convolution44
I0925 20:24:05.812825  3532 net.cpp:367] penlu42 -> Convolution44 (in-place)
I0925 20:24:05.812950  3532 net.cpp:122] Setting up penlu42
I0925 20:24:05.812954  3532 net.cpp:129] Top shape: 100 64 8 8 (409600)
I0925 20:24:05.812958  3532 net.cpp:137] Memory required for data: 1071105200
I0925 20:24:05.812961  3532 layer_factory.hpp:77] Creating layer Convolution45
I0925 20:24:05.812969  3532 net.cpp:84] Creating Layer Convolution45
I0925 20:24:05.812971  3532 net.cpp:406] Convolution45 <- Convolution44
I0925 20:24:05.812975  3532 net.cpp:380] Convolution45 -> Convolution45
I0925 20:24:05.814780  3532 net.cpp:122] Setting up Convolution45
I0925 20:24:05.814790  3532 net.cpp:129] Top shape: 100 64 8 8 (409600)
I0925 20:24:05.814792  3532 net.cpp:137] Memory required for data: 1072743600
I0925 20:24:05.814796  3532 layer_factory.hpp:77] Creating layer BatchNorm45
I0925 20:24:05.814801  3532 net.cpp:84] Creating Layer BatchNorm45
I0925 20:24:05.814803  3532 net.cpp:406] BatchNorm45 <- Convolution45
I0925 20:24:05.814808  3532 net.cpp:367] BatchNorm45 -> Convolution45 (in-place)
I0925 20:24:05.814945  3532 net.cpp:122] Setting up BatchNorm45
I0925 20:24:05.814949  3532 net.cpp:129] Top shape: 100 64 8 8 (409600)
I0925 20:24:05.814951  3532 net.cpp:137] Memory required for data: 1074382000
I0925 20:24:05.814956  3532 layer_factory.hpp:77] Creating layer Scale45
I0925 20:24:05.814960  3532 net.cpp:84] Creating Layer Scale45
I0925 20:24:05.814962  3532 net.cpp:406] Scale45 <- Convolution45
I0925 20:24:05.814965  3532 net.cpp:367] Scale45 -> Convolution45 (in-place)
I0925 20:24:05.814993  3532 layer_factory.hpp:77] Creating layer Scale45
I0925 20:24:05.815070  3532 net.cpp:122] Setting up Scale45
I0925 20:24:05.815074  3532 net.cpp:129] Top shape: 100 64 8 8 (409600)
I0925 20:24:05.815076  3532 net.cpp:137] Memory required for data: 1076020400
I0925 20:24:05.815080  3532 layer_factory.hpp:77] Creating layer Eltwise21
I0925 20:24:05.815084  3532 net.cpp:84] Creating Layer Eltwise21
I0925 20:24:05.815086  3532 net.cpp:406] Eltwise21 <- Eltwise20_penlu41_0_split_1
I0925 20:24:05.815089  3532 net.cpp:406] Eltwise21 <- Convolution45
I0925 20:24:05.815093  3532 net.cpp:380] Eltwise21 -> Eltwise21
I0925 20:24:05.815110  3532 net.cpp:122] Setting up Eltwise21
I0925 20:24:05.815114  3532 net.cpp:129] Top shape: 100 64 8 8 (409600)
I0925 20:24:05.815116  3532 net.cpp:137] Memory required for data: 1077658800
I0925 20:24:05.815124  3532 layer_factory.hpp:77] Creating layer penlu43
I0925 20:24:05.815130  3532 net.cpp:84] Creating Layer penlu43
I0925 20:24:05.815132  3532 net.cpp:406] penlu43 <- Eltwise21
I0925 20:24:05.815136  3532 net.cpp:367] penlu43 -> Eltwise21 (in-place)
I0925 20:24:05.815253  3532 net.cpp:122] Setting up penlu43
I0925 20:24:05.815256  3532 net.cpp:129] Top shape: 100 64 8 8 (409600)
I0925 20:24:05.815258  3532 net.cpp:137] Memory required for data: 1079297200
I0925 20:24:05.815263  3532 layer_factory.hpp:77] Creating layer Eltwise21_penlu43_0_split
I0925 20:24:05.815266  3532 net.cpp:84] Creating Layer Eltwise21_penlu43_0_split
I0925 20:24:05.815268  3532 net.cpp:406] Eltwise21_penlu43_0_split <- Eltwise21
I0925 20:24:05.815273  3532 net.cpp:380] Eltwise21_penlu43_0_split -> Eltwise21_penlu43_0_split_0
I0925 20:24:05.815276  3532 net.cpp:380] Eltwise21_penlu43_0_split -> Eltwise21_penlu43_0_split_1
I0925 20:24:05.815299  3532 net.cpp:122] Setting up Eltwise21_penlu43_0_split
I0925 20:24:05.815304  3532 net.cpp:129] Top shape: 100 64 8 8 (409600)
I0925 20:24:05.815305  3532 net.cpp:129] Top shape: 100 64 8 8 (409600)
I0925 20:24:05.830343  3532 net.cpp:137] Memory required for data: 1082574000
I0925 20:24:05.830349  3532 layer_factory.hpp:77] Creating layer Convolution46
I0925 20:24:05.830358  3532 net.cpp:84] Creating Layer Convolution46
I0925 20:24:05.830360  3532 net.cpp:406] Convolution46 <- Eltwise21_penlu43_0_split_0
I0925 20:24:05.830368  3532 net.cpp:380] Convolution46 -> Convolution46
I0925 20:24:05.832279  3532 net.cpp:122] Setting up Convolution46
I0925 20:24:05.832288  3532 net.cpp:129] Top shape: 100 64 8 8 (409600)
I0925 20:24:05.832291  3532 net.cpp:137] Memory required for data: 1084212400
I0925 20:24:05.832296  3532 layer_factory.hpp:77] Creating layer BatchNorm46
I0925 20:24:05.832300  3532 net.cpp:84] Creating Layer BatchNorm46
I0925 20:24:05.832304  3532 net.cpp:406] BatchNorm46 <- Convolution46
I0925 20:24:05.832309  3532 net.cpp:367] BatchNorm46 -> Convolution46 (in-place)
I0925 20:24:05.832501  3532 net.cpp:122] Setting up BatchNorm46
I0925 20:24:05.832507  3532 net.cpp:129] Top shape: 100 64 8 8 (409600)
I0925 20:24:05.832509  3532 net.cpp:137] Memory required for data: 1085850800
I0925 20:24:05.832515  3532 layer_factory.hpp:77] Creating layer Scale46
I0925 20:24:05.832518  3532 net.cpp:84] Creating Layer Scale46
I0925 20:24:05.832521  3532 net.cpp:406] Scale46 <- Convolution46
I0925 20:24:05.832525  3532 net.cpp:367] Scale46 -> Convolution46 (in-place)
I0925 20:24:05.832554  3532 layer_factory.hpp:77] Creating layer Scale46
I0925 20:24:05.832638  3532 net.cpp:122] Setting up Scale46
I0925 20:24:05.832641  3532 net.cpp:129] Top shape: 100 64 8 8 (409600)
I0925 20:24:05.832643  3532 net.cpp:137] Memory required for data: 1087489200
I0925 20:24:05.832648  3532 layer_factory.hpp:77] Creating layer penlu44
I0925 20:24:05.832653  3532 net.cpp:84] Creating Layer penlu44
I0925 20:24:05.832655  3532 net.cpp:406] penlu44 <- Convolution46
I0925 20:24:05.832660  3532 net.cpp:367] penlu44 -> Convolution46 (in-place)
I0925 20:24:05.832779  3532 net.cpp:122] Setting up penlu44
I0925 20:24:05.832784  3532 net.cpp:129] Top shape: 100 64 8 8 (409600)
I0925 20:24:05.832787  3532 net.cpp:137] Memory required for data: 1089127600
I0925 20:24:05.832792  3532 layer_factory.hpp:77] Creating layer Convolution47
I0925 20:24:05.832798  3532 net.cpp:84] Creating Layer Convolution47
I0925 20:24:05.832800  3532 net.cpp:406] Convolution47 <- Convolution46
I0925 20:24:05.832804  3532 net.cpp:380] Convolution47 -> Convolution47
I0925 20:24:05.834777  3532 net.cpp:122] Setting up Convolution47
I0925 20:24:05.834789  3532 net.cpp:129] Top shape: 100 64 8 8 (409600)
I0925 20:24:05.834791  3532 net.cpp:137] Memory required for data: 1090766000
I0925 20:24:05.834796  3532 layer_factory.hpp:77] Creating layer BatchNorm47
I0925 20:24:05.834800  3532 net.cpp:84] Creating Layer BatchNorm47
I0925 20:24:05.834803  3532 net.cpp:406] BatchNorm47 <- Convolution47
I0925 20:24:05.834808  3532 net.cpp:367] BatchNorm47 -> Convolution47 (in-place)
I0925 20:24:05.834957  3532 net.cpp:122] Setting up BatchNorm47
I0925 20:24:05.834962  3532 net.cpp:129] Top shape: 100 64 8 8 (409600)
I0925 20:24:05.834965  3532 net.cpp:137] Memory required for data: 1092404400
I0925 20:24:05.834970  3532 layer_factory.hpp:77] Creating layer Scale47
I0925 20:24:05.834975  3532 net.cpp:84] Creating Layer Scale47
I0925 20:24:05.834976  3532 net.cpp:406] Scale47 <- Convolution47
I0925 20:24:05.834980  3532 net.cpp:367] Scale47 -> Convolution47 (in-place)
I0925 20:24:05.835008  3532 layer_factory.hpp:77] Creating layer Scale47
I0925 20:24:05.835088  3532 net.cpp:122] Setting up Scale47
I0925 20:24:05.835093  3532 net.cpp:129] Top shape: 100 64 8 8 (409600)
I0925 20:24:05.835094  3532 net.cpp:137] Memory required for data: 1094042800
I0925 20:24:05.835098  3532 layer_factory.hpp:77] Creating layer Eltwise22
I0925 20:24:05.835103  3532 net.cpp:84] Creating Layer Eltwise22
I0925 20:24:05.835105  3532 net.cpp:406] Eltwise22 <- Eltwise21_penlu43_0_split_1
I0925 20:24:05.835108  3532 net.cpp:406] Eltwise22 <- Convolution47
I0925 20:24:05.835113  3532 net.cpp:380] Eltwise22 -> Eltwise22
I0925 20:24:05.835129  3532 net.cpp:122] Setting up Eltwise22
I0925 20:24:05.835134  3532 net.cpp:129] Top shape: 100 64 8 8 (409600)
I0925 20:24:05.835136  3532 net.cpp:137] Memory required for data: 1095681200
I0925 20:24:05.835139  3532 layer_factory.hpp:77] Creating layer penlu45
I0925 20:24:05.835144  3532 net.cpp:84] Creating Layer penlu45
I0925 20:24:05.835145  3532 net.cpp:406] penlu45 <- Eltwise22
I0925 20:24:05.835150  3532 net.cpp:367] penlu45 -> Eltwise22 (in-place)
I0925 20:24:05.835268  3532 net.cpp:122] Setting up penlu45
I0925 20:24:05.835273  3532 net.cpp:129] Top shape: 100 64 8 8 (409600)
I0925 20:24:05.835274  3532 net.cpp:137] Memory required for data: 1097319600
I0925 20:24:05.835278  3532 layer_factory.hpp:77] Creating layer Eltwise22_penlu45_0_split
I0925 20:24:05.835283  3532 net.cpp:84] Creating Layer Eltwise22_penlu45_0_split
I0925 20:24:05.835284  3532 net.cpp:406] Eltwise22_penlu45_0_split <- Eltwise22
I0925 20:24:05.835288  3532 net.cpp:380] Eltwise22_penlu45_0_split -> Eltwise22_penlu45_0_split_0
I0925 20:24:05.835292  3532 net.cpp:380] Eltwise22_penlu45_0_split -> Eltwise22_penlu45_0_split_1
I0925 20:24:05.835316  3532 net.cpp:122] Setting up Eltwise22_penlu45_0_split
I0925 20:24:05.835320  3532 net.cpp:129] Top shape: 100 64 8 8 (409600)
I0925 20:24:05.835324  3532 net.cpp:129] Top shape: 100 64 8 8 (409600)
I0925 20:24:05.835325  3532 net.cpp:137] Memory required for data: 1100596400
I0925 20:24:05.835327  3532 layer_factory.hpp:77] Creating layer Convolution48
I0925 20:24:05.835333  3532 net.cpp:84] Creating Layer Convolution48
I0925 20:24:05.835335  3532 net.cpp:406] Convolution48 <- Eltwise22_penlu45_0_split_0
I0925 20:24:05.835340  3532 net.cpp:380] Convolution48 -> Convolution48
I0925 20:24:05.837430  3532 net.cpp:122] Setting up Convolution48
I0925 20:24:05.837438  3532 net.cpp:129] Top shape: 100 64 8 8 (409600)
I0925 20:24:05.837441  3532 net.cpp:137] Memory required for data: 1102234800
I0925 20:24:05.837446  3532 layer_factory.hpp:77] Creating layer BatchNorm48
I0925 20:24:05.837451  3532 net.cpp:84] Creating Layer BatchNorm48
I0925 20:24:05.837455  3532 net.cpp:406] BatchNorm48 <- Convolution48
I0925 20:24:05.837458  3532 net.cpp:367] BatchNorm48 -> Convolution48 (in-place)
I0925 20:24:05.837610  3532 net.cpp:122] Setting up BatchNorm48
I0925 20:24:05.837615  3532 net.cpp:129] Top shape: 100 64 8 8 (409600)
I0925 20:24:05.837616  3532 net.cpp:137] Memory required for data: 1103873200
I0925 20:24:05.837621  3532 layer_factory.hpp:77] Creating layer Scale48
I0925 20:24:05.837626  3532 net.cpp:84] Creating Layer Scale48
I0925 20:24:05.837628  3532 net.cpp:406] Scale48 <- Convolution48
I0925 20:24:05.837632  3532 net.cpp:367] Scale48 -> Convolution48 (in-place)
I0925 20:24:05.837661  3532 layer_factory.hpp:77] Creating layer Scale48
I0925 20:24:05.837748  3532 net.cpp:122] Setting up Scale48
I0925 20:24:05.837751  3532 net.cpp:129] Top shape: 100 64 8 8 (409600)
I0925 20:24:05.837760  3532 net.cpp:137] Memory required for data: 1105511600
I0925 20:24:05.837764  3532 layer_factory.hpp:77] Creating layer penlu46
I0925 20:24:05.837770  3532 net.cpp:84] Creating Layer penlu46
I0925 20:24:05.837774  3532 net.cpp:406] penlu46 <- Convolution48
I0925 20:24:05.837777  3532 net.cpp:367] penlu46 -> Convolution48 (in-place)
I0925 20:24:05.837900  3532 net.cpp:122] Setting up penlu46
I0925 20:24:05.837905  3532 net.cpp:129] Top shape: 100 64 8 8 (409600)
I0925 20:24:05.837908  3532 net.cpp:137] Memory required for data: 1107150000
I0925 20:24:05.837911  3532 layer_factory.hpp:77] Creating layer Convolution49
I0925 20:24:05.837918  3532 net.cpp:84] Creating Layer Convolution49
I0925 20:24:05.837921  3532 net.cpp:406] Convolution49 <- Convolution48
I0925 20:24:05.837925  3532 net.cpp:380] Convolution49 -> Convolution49
I0925 20:24:05.840021  3532 net.cpp:122] Setting up Convolution49
I0925 20:24:05.840030  3532 net.cpp:129] Top shape: 100 64 8 8 (409600)
I0925 20:24:05.840034  3532 net.cpp:137] Memory required for data: 1108788400
I0925 20:24:05.840037  3532 layer_factory.hpp:77] Creating layer BatchNorm49
I0925 20:24:05.840044  3532 net.cpp:84] Creating Layer BatchNorm49
I0925 20:24:05.840046  3532 net.cpp:406] BatchNorm49 <- Convolution49
I0925 20:24:05.840050  3532 net.cpp:367] BatchNorm49 -> Convolution49 (in-place)
I0925 20:24:05.840194  3532 net.cpp:122] Setting up BatchNorm49
I0925 20:24:05.840198  3532 net.cpp:129] Top shape: 100 64 8 8 (409600)
I0925 20:24:05.840201  3532 net.cpp:137] Memory required for data: 1110426800
I0925 20:24:05.840205  3532 layer_factory.hpp:77] Creating layer Scale49
I0925 20:24:05.840209  3532 net.cpp:84] Creating Layer Scale49
I0925 20:24:05.840212  3532 net.cpp:406] Scale49 <- Convolution49
I0925 20:24:05.840215  3532 net.cpp:367] Scale49 -> Convolution49 (in-place)
I0925 20:24:05.840245  3532 layer_factory.hpp:77] Creating layer Scale49
I0925 20:24:05.840327  3532 net.cpp:122] Setting up Scale49
I0925 20:24:05.840332  3532 net.cpp:129] Top shape: 100 64 8 8 (409600)
I0925 20:24:05.840333  3532 net.cpp:137] Memory required for data: 1112065200
I0925 20:24:05.840337  3532 layer_factory.hpp:77] Creating layer Eltwise23
I0925 20:24:05.840342  3532 net.cpp:84] Creating Layer Eltwise23
I0925 20:24:05.840344  3532 net.cpp:406] Eltwise23 <- Eltwise22_penlu45_0_split_1
I0925 20:24:05.840348  3532 net.cpp:406] Eltwise23 <- Convolution49
I0925 20:24:05.840351  3532 net.cpp:380] Eltwise23 -> Eltwise23
I0925 20:24:05.840369  3532 net.cpp:122] Setting up Eltwise23
I0925 20:24:05.840373  3532 net.cpp:129] Top shape: 100 64 8 8 (409600)
I0925 20:24:05.840375  3532 net.cpp:137] Memory required for data: 1113703600
I0925 20:24:05.840378  3532 layer_factory.hpp:77] Creating layer penlu47
I0925 20:24:05.840382  3532 net.cpp:84] Creating Layer penlu47
I0925 20:24:05.840384  3532 net.cpp:406] penlu47 <- Eltwise23
I0925 20:24:05.840389  3532 net.cpp:367] penlu47 -> Eltwise23 (in-place)
I0925 20:24:05.840515  3532 net.cpp:122] Setting up penlu47
I0925 20:24:05.840520  3532 net.cpp:129] Top shape: 100 64 8 8 (409600)
I0925 20:24:05.840523  3532 net.cpp:137] Memory required for data: 1115342000
I0925 20:24:05.840528  3532 layer_factory.hpp:77] Creating layer Eltwise23_penlu47_0_split
I0925 20:24:05.840531  3532 net.cpp:84] Creating Layer Eltwise23_penlu47_0_split
I0925 20:24:05.840534  3532 net.cpp:406] Eltwise23_penlu47_0_split <- Eltwise23
I0925 20:24:05.840538  3532 net.cpp:380] Eltwise23_penlu47_0_split -> Eltwise23_penlu47_0_split_0
I0925 20:24:05.840543  3532 net.cpp:380] Eltwise23_penlu47_0_split -> Eltwise23_penlu47_0_split_1
I0925 20:24:05.840567  3532 net.cpp:122] Setting up Eltwise23_penlu47_0_split
I0925 20:24:05.840571  3532 net.cpp:129] Top shape: 100 64 8 8 (409600)
I0925 20:24:05.840574  3532 net.cpp:129] Top shape: 100 64 8 8 (409600)
I0925 20:24:05.840576  3532 net.cpp:137] Memory required for data: 1118618800
I0925 20:24:05.840579  3532 layer_factory.hpp:77] Creating layer Convolution50
I0925 20:24:05.840584  3532 net.cpp:84] Creating Layer Convolution50
I0925 20:24:05.840593  3532 net.cpp:406] Convolution50 <- Eltwise23_penlu47_0_split_0
I0925 20:24:05.840598  3532 net.cpp:380] Convolution50 -> Convolution50
I0925 20:24:05.843179  3532 net.cpp:122] Setting up Convolution50
I0925 20:24:05.843189  3532 net.cpp:129] Top shape: 100 64 8 8 (409600)
I0925 20:24:05.843191  3532 net.cpp:137] Memory required for data: 1120257200
I0925 20:24:05.843197  3532 layer_factory.hpp:77] Creating layer BatchNorm50
I0925 20:24:05.843202  3532 net.cpp:84] Creating Layer BatchNorm50
I0925 20:24:05.843205  3532 net.cpp:406] BatchNorm50 <- Convolution50
I0925 20:24:05.843209  3532 net.cpp:367] BatchNorm50 -> Convolution50 (in-place)
I0925 20:24:05.843356  3532 net.cpp:122] Setting up BatchNorm50
I0925 20:24:05.843360  3532 net.cpp:129] Top shape: 100 64 8 8 (409600)
I0925 20:24:05.843364  3532 net.cpp:137] Memory required for data: 1121895600
I0925 20:24:05.843367  3532 layer_factory.hpp:77] Creating layer Scale50
I0925 20:24:05.843371  3532 net.cpp:84] Creating Layer Scale50
I0925 20:24:05.843374  3532 net.cpp:406] Scale50 <- Convolution50
I0925 20:24:05.843377  3532 net.cpp:367] Scale50 -> Convolution50 (in-place)
I0925 20:24:05.843407  3532 layer_factory.hpp:77] Creating layer Scale50
I0925 20:24:05.843488  3532 net.cpp:122] Setting up Scale50
I0925 20:24:05.843493  3532 net.cpp:129] Top shape: 100 64 8 8 (409600)
I0925 20:24:05.843497  3532 net.cpp:137] Memory required for data: 1123534000
I0925 20:24:05.843499  3532 layer_factory.hpp:77] Creating layer penlu48
I0925 20:24:05.843504  3532 net.cpp:84] Creating Layer penlu48
I0925 20:24:05.843508  3532 net.cpp:406] penlu48 <- Convolution50
I0925 20:24:05.843511  3532 net.cpp:367] penlu48 -> Convolution50 (in-place)
I0925 20:24:05.843629  3532 net.cpp:122] Setting up penlu48
I0925 20:24:05.843633  3532 net.cpp:129] Top shape: 100 64 8 8 (409600)
I0925 20:24:05.843636  3532 net.cpp:137] Memory required for data: 1125172400
I0925 20:24:05.843639  3532 layer_factory.hpp:77] Creating layer Convolution51
I0925 20:24:05.843647  3532 net.cpp:84] Creating Layer Convolution51
I0925 20:24:05.843650  3532 net.cpp:406] Convolution51 <- Convolution50
I0925 20:24:05.843657  3532 net.cpp:380] Convolution51 -> Convolution51
I0925 20:24:05.845387  3532 net.cpp:122] Setting up Convolution51
I0925 20:24:05.845396  3532 net.cpp:129] Top shape: 100 64 8 8 (409600)
I0925 20:24:05.845398  3532 net.cpp:137] Memory required for data: 1126810800
I0925 20:24:05.845403  3532 layer_factory.hpp:77] Creating layer BatchNorm51
I0925 20:24:05.845408  3532 net.cpp:84] Creating Layer BatchNorm51
I0925 20:24:05.845412  3532 net.cpp:406] BatchNorm51 <- Convolution51
I0925 20:24:05.845415  3532 net.cpp:367] BatchNorm51 -> Convolution51 (in-place)
I0925 20:24:05.845556  3532 net.cpp:122] Setting up BatchNorm51
I0925 20:24:05.845561  3532 net.cpp:129] Top shape: 100 64 8 8 (409600)
I0925 20:24:05.845562  3532 net.cpp:137] Memory required for data: 1128449200
I0925 20:24:05.845567  3532 layer_factory.hpp:77] Creating layer Scale51
I0925 20:24:05.845571  3532 net.cpp:84] Creating Layer Scale51
I0925 20:24:05.845573  3532 net.cpp:406] Scale51 <- Convolution51
I0925 20:24:05.845577  3532 net.cpp:367] Scale51 -> Convolution51 (in-place)
I0925 20:24:05.845607  3532 layer_factory.hpp:77] Creating layer Scale51
I0925 20:24:05.845686  3532 net.cpp:122] Setting up Scale51
I0925 20:24:05.845690  3532 net.cpp:129] Top shape: 100 64 8 8 (409600)
I0925 20:24:05.845692  3532 net.cpp:137] Memory required for data: 1130087600
I0925 20:24:05.845696  3532 layer_factory.hpp:77] Creating layer Eltwise24
I0925 20:24:05.845701  3532 net.cpp:84] Creating Layer Eltwise24
I0925 20:24:05.845703  3532 net.cpp:406] Eltwise24 <- Eltwise23_penlu47_0_split_1
I0925 20:24:05.845707  3532 net.cpp:406] Eltwise24 <- Convolution51
I0925 20:24:05.845710  3532 net.cpp:380] Eltwise24 -> Eltwise24
I0925 20:24:05.845727  3532 net.cpp:122] Setting up Eltwise24
I0925 20:24:05.845731  3532 net.cpp:129] Top shape: 100 64 8 8 (409600)
I0925 20:24:05.845733  3532 net.cpp:137] Memory required for data: 1131726000
I0925 20:24:05.845741  3532 layer_factory.hpp:77] Creating layer penlu49
I0925 20:24:05.845747  3532 net.cpp:84] Creating Layer penlu49
I0925 20:24:05.845751  3532 net.cpp:406] penlu49 <- Eltwise24
I0925 20:24:05.845753  3532 net.cpp:367] penlu49 -> Eltwise24 (in-place)
I0925 20:24:05.845872  3532 net.cpp:122] Setting up penlu49
I0925 20:24:05.845876  3532 net.cpp:129] Top shape: 100 64 8 8 (409600)
I0925 20:24:05.845880  3532 net.cpp:137] Memory required for data: 1133364400
I0925 20:24:05.845883  3532 layer_factory.hpp:77] Creating layer Eltwise24_penlu49_0_split
I0925 20:24:05.845888  3532 net.cpp:84] Creating Layer Eltwise24_penlu49_0_split
I0925 20:24:05.845891  3532 net.cpp:406] Eltwise24_penlu49_0_split <- Eltwise24
I0925 20:24:05.845894  3532 net.cpp:380] Eltwise24_penlu49_0_split -> Eltwise24_penlu49_0_split_0
I0925 20:24:05.845898  3532 net.cpp:380] Eltwise24_penlu49_0_split -> Eltwise24_penlu49_0_split_1
I0925 20:24:05.845933  3532 net.cpp:122] Setting up Eltwise24_penlu49_0_split
I0925 20:24:05.860750  3532 net.cpp:129] Top shape: 100 64 8 8 (409600)
I0925 20:24:05.860760  3532 net.cpp:129] Top shape: 100 64 8 8 (409600)
I0925 20:24:05.860764  3532 net.cpp:137] Memory required for data: 1136641200
I0925 20:24:05.860766  3532 layer_factory.hpp:77] Creating layer Convolution52
I0925 20:24:05.860774  3532 net.cpp:84] Creating Layer Convolution52
I0925 20:24:05.860777  3532 net.cpp:406] Convolution52 <- Eltwise24_penlu49_0_split_0
I0925 20:24:05.860782  3532 net.cpp:380] Convolution52 -> Convolution52
I0925 20:24:05.863034  3532 net.cpp:122] Setting up Convolution52
I0925 20:24:05.863044  3532 net.cpp:129] Top shape: 100 64 8 8 (409600)
I0925 20:24:05.863046  3532 net.cpp:137] Memory required for data: 1138279600
I0925 20:24:05.863051  3532 layer_factory.hpp:77] Creating layer BatchNorm52
I0925 20:24:05.863056  3532 net.cpp:84] Creating Layer BatchNorm52
I0925 20:24:05.863059  3532 net.cpp:406] BatchNorm52 <- Convolution52
I0925 20:24:05.863064  3532 net.cpp:367] BatchNorm52 -> Convolution52 (in-place)
I0925 20:24:05.863215  3532 net.cpp:122] Setting up BatchNorm52
I0925 20:24:05.863220  3532 net.cpp:129] Top shape: 100 64 8 8 (409600)
I0925 20:24:05.863222  3532 net.cpp:137] Memory required for data: 1139918000
I0925 20:24:05.863227  3532 layer_factory.hpp:77] Creating layer Scale52
I0925 20:24:05.863234  3532 net.cpp:84] Creating Layer Scale52
I0925 20:24:05.863236  3532 net.cpp:406] Scale52 <- Convolution52
I0925 20:24:05.863240  3532 net.cpp:367] Scale52 -> Convolution52 (in-place)
I0925 20:24:05.863268  3532 layer_factory.hpp:77] Creating layer Scale52
I0925 20:24:05.863348  3532 net.cpp:122] Setting up Scale52
I0925 20:24:05.863353  3532 net.cpp:129] Top shape: 100 64 8 8 (409600)
I0925 20:24:05.863354  3532 net.cpp:137] Memory required for data: 1141556400
I0925 20:24:05.863358  3532 layer_factory.hpp:77] Creating layer penlu50
I0925 20:24:05.863379  3532 net.cpp:84] Creating Layer penlu50
I0925 20:24:05.863382  3532 net.cpp:406] penlu50 <- Convolution52
I0925 20:24:05.863386  3532 net.cpp:367] penlu50 -> Convolution52 (in-place)
I0925 20:24:05.863507  3532 net.cpp:122] Setting up penlu50
I0925 20:24:05.863510  3532 net.cpp:129] Top shape: 100 64 8 8 (409600)
I0925 20:24:05.863512  3532 net.cpp:137] Memory required for data: 1143194800
I0925 20:24:05.863554  3532 layer_factory.hpp:77] Creating layer Convolution53
I0925 20:24:05.863560  3532 net.cpp:84] Creating Layer Convolution53
I0925 20:24:05.863564  3532 net.cpp:406] Convolution53 <- Convolution52
I0925 20:24:05.863567  3532 net.cpp:380] Convolution53 -> Convolution53
I0925 20:24:05.865504  3532 net.cpp:122] Setting up Convolution53
I0925 20:24:05.865512  3532 net.cpp:129] Top shape: 100 64 8 8 (409600)
I0925 20:24:05.865515  3532 net.cpp:137] Memory required for data: 1144833200
I0925 20:24:05.865520  3532 layer_factory.hpp:77] Creating layer BatchNorm53
I0925 20:24:05.865525  3532 net.cpp:84] Creating Layer BatchNorm53
I0925 20:24:05.865530  3532 net.cpp:406] BatchNorm53 <- Convolution53
I0925 20:24:05.865532  3532 net.cpp:367] BatchNorm53 -> Convolution53 (in-place)
I0925 20:24:05.865680  3532 net.cpp:122] Setting up BatchNorm53
I0925 20:24:05.865685  3532 net.cpp:129] Top shape: 100 64 8 8 (409600)
I0925 20:24:05.865687  3532 net.cpp:137] Memory required for data: 1146471600
I0925 20:24:05.865692  3532 layer_factory.hpp:77] Creating layer Scale53
I0925 20:24:05.865697  3532 net.cpp:84] Creating Layer Scale53
I0925 20:24:05.865700  3532 net.cpp:406] Scale53 <- Convolution53
I0925 20:24:05.865702  3532 net.cpp:367] Scale53 -> Convolution53 (in-place)
I0925 20:24:05.865731  3532 layer_factory.hpp:77] Creating layer Scale53
I0925 20:24:05.865813  3532 net.cpp:122] Setting up Scale53
I0925 20:24:05.865818  3532 net.cpp:129] Top shape: 100 64 8 8 (409600)
I0925 20:24:05.865819  3532 net.cpp:137] Memory required for data: 1148110000
I0925 20:24:05.865823  3532 layer_factory.hpp:77] Creating layer Eltwise25
I0925 20:24:05.865828  3532 net.cpp:84] Creating Layer Eltwise25
I0925 20:24:05.865831  3532 net.cpp:406] Eltwise25 <- Eltwise24_penlu49_0_split_1
I0925 20:24:05.865834  3532 net.cpp:406] Eltwise25 <- Convolution53
I0925 20:24:05.865839  3532 net.cpp:380] Eltwise25 -> Eltwise25
I0925 20:24:05.865854  3532 net.cpp:122] Setting up Eltwise25
I0925 20:24:05.865859  3532 net.cpp:129] Top shape: 100 64 8 8 (409600)
I0925 20:24:05.865860  3532 net.cpp:137] Memory required for data: 1149748400
I0925 20:24:05.865862  3532 layer_factory.hpp:77] Creating layer penlu51
I0925 20:24:05.865867  3532 net.cpp:84] Creating Layer penlu51
I0925 20:24:05.865870  3532 net.cpp:406] penlu51 <- Eltwise25
I0925 20:24:05.865873  3532 net.cpp:367] penlu51 -> Eltwise25 (in-place)
I0925 20:24:05.865989  3532 net.cpp:122] Setting up penlu51
I0925 20:24:05.865994  3532 net.cpp:129] Top shape: 100 64 8 8 (409600)
I0925 20:24:05.865996  3532 net.cpp:137] Memory required for data: 1151386800
I0925 20:24:05.866000  3532 layer_factory.hpp:77] Creating layer Eltwise25_penlu51_0_split
I0925 20:24:05.866004  3532 net.cpp:84] Creating Layer Eltwise25_penlu51_0_split
I0925 20:24:05.866006  3532 net.cpp:406] Eltwise25_penlu51_0_split <- Eltwise25
I0925 20:24:05.866010  3532 net.cpp:380] Eltwise25_penlu51_0_split -> Eltwise25_penlu51_0_split_0
I0925 20:24:05.866014  3532 net.cpp:380] Eltwise25_penlu51_0_split -> Eltwise25_penlu51_0_split_1
I0925 20:24:05.866037  3532 net.cpp:122] Setting up Eltwise25_penlu51_0_split
I0925 20:24:05.866041  3532 net.cpp:129] Top shape: 100 64 8 8 (409600)
I0925 20:24:05.866044  3532 net.cpp:129] Top shape: 100 64 8 8 (409600)
I0925 20:24:05.866046  3532 net.cpp:137] Memory required for data: 1154663600
I0925 20:24:05.866048  3532 layer_factory.hpp:77] Creating layer Convolution54
I0925 20:24:05.866055  3532 net.cpp:84] Creating Layer Convolution54
I0925 20:24:05.866057  3532 net.cpp:406] Convolution54 <- Eltwise25_penlu51_0_split_0
I0925 20:24:05.866061  3532 net.cpp:380] Convolution54 -> Convolution54
I0925 20:24:05.868072  3532 net.cpp:122] Setting up Convolution54
I0925 20:24:05.868082  3532 net.cpp:129] Top shape: 100 64 8 8 (409600)
I0925 20:24:05.868084  3532 net.cpp:137] Memory required for data: 1156302000
I0925 20:24:05.868088  3532 layer_factory.hpp:77] Creating layer BatchNorm54
I0925 20:24:05.868093  3532 net.cpp:84] Creating Layer BatchNorm54
I0925 20:24:05.868095  3532 net.cpp:406] BatchNorm54 <- Convolution54
I0925 20:24:05.868099  3532 net.cpp:367] BatchNorm54 -> Convolution54 (in-place)
I0925 20:24:05.868247  3532 net.cpp:122] Setting up BatchNorm54
I0925 20:24:05.868252  3532 net.cpp:129] Top shape: 100 64 8 8 (409600)
I0925 20:24:05.868253  3532 net.cpp:137] Memory required for data: 1157940400
I0925 20:24:05.868258  3532 layer_factory.hpp:77] Creating layer Scale54
I0925 20:24:05.868261  3532 net.cpp:84] Creating Layer Scale54
I0925 20:24:05.868264  3532 net.cpp:406] Scale54 <- Convolution54
I0925 20:24:05.868268  3532 net.cpp:367] Scale54 -> Convolution54 (in-place)
I0925 20:24:05.868296  3532 layer_factory.hpp:77] Creating layer Scale54
I0925 20:24:05.868377  3532 net.cpp:122] Setting up Scale54
I0925 20:24:05.868381  3532 net.cpp:129] Top shape: 100 64 8 8 (409600)
I0925 20:24:05.868389  3532 net.cpp:137] Memory required for data: 1159578800
I0925 20:24:05.868393  3532 layer_factory.hpp:77] Creating layer penlu52
I0925 20:24:05.868399  3532 net.cpp:84] Creating Layer penlu52
I0925 20:24:05.868402  3532 net.cpp:406] penlu52 <- Convolution54
I0925 20:24:05.868407  3532 net.cpp:367] penlu52 -> Convolution54 (in-place)
I0925 20:24:05.868551  3532 net.cpp:122] Setting up penlu52
I0925 20:24:05.868556  3532 net.cpp:129] Top shape: 100 64 8 8 (409600)
I0925 20:24:05.868557  3532 net.cpp:137] Memory required for data: 1161217200
I0925 20:24:05.868561  3532 layer_factory.hpp:77] Creating layer Convolution55
I0925 20:24:05.868568  3532 net.cpp:84] Creating Layer Convolution55
I0925 20:24:05.868571  3532 net.cpp:406] Convolution55 <- Convolution54
I0925 20:24:05.868574  3532 net.cpp:380] Convolution55 -> Convolution55
I0925 20:24:05.870280  3532 net.cpp:122] Setting up Convolution55
I0925 20:24:05.870287  3532 net.cpp:129] Top shape: 100 64 8 8 (409600)
I0925 20:24:05.870290  3532 net.cpp:137] Memory required for data: 1162855600
I0925 20:24:05.870295  3532 layer_factory.hpp:77] Creating layer BatchNorm55
I0925 20:24:05.870299  3532 net.cpp:84] Creating Layer BatchNorm55
I0925 20:24:05.870301  3532 net.cpp:406] BatchNorm55 <- Convolution55
I0925 20:24:05.870306  3532 net.cpp:367] BatchNorm55 -> Convolution55 (in-place)
I0925 20:24:05.870447  3532 net.cpp:122] Setting up BatchNorm55
I0925 20:24:05.870451  3532 net.cpp:129] Top shape: 100 64 8 8 (409600)
I0925 20:24:05.870453  3532 net.cpp:137] Memory required for data: 1164494000
I0925 20:24:05.870458  3532 layer_factory.hpp:77] Creating layer Scale55
I0925 20:24:05.870462  3532 net.cpp:84] Creating Layer Scale55
I0925 20:24:05.870465  3532 net.cpp:406] Scale55 <- Convolution55
I0925 20:24:05.870468  3532 net.cpp:367] Scale55 -> Convolution55 (in-place)
I0925 20:24:05.870496  3532 layer_factory.hpp:77] Creating layer Scale55
I0925 20:24:05.870576  3532 net.cpp:122] Setting up Scale55
I0925 20:24:05.870580  3532 net.cpp:129] Top shape: 100 64 8 8 (409600)
I0925 20:24:05.870582  3532 net.cpp:137] Memory required for data: 1166132400
I0925 20:24:05.870586  3532 layer_factory.hpp:77] Creating layer Eltwise26
I0925 20:24:05.870590  3532 net.cpp:84] Creating Layer Eltwise26
I0925 20:24:05.870594  3532 net.cpp:406] Eltwise26 <- Eltwise25_penlu51_0_split_1
I0925 20:24:05.870596  3532 net.cpp:406] Eltwise26 <- Convolution55
I0925 20:24:05.870600  3532 net.cpp:380] Eltwise26 -> Eltwise26
I0925 20:24:05.870616  3532 net.cpp:122] Setting up Eltwise26
I0925 20:24:05.870621  3532 net.cpp:129] Top shape: 100 64 8 8 (409600)
I0925 20:24:05.870623  3532 net.cpp:137] Memory required for data: 1167770800
I0925 20:24:05.870625  3532 layer_factory.hpp:77] Creating layer penlu53
I0925 20:24:05.870630  3532 net.cpp:84] Creating Layer penlu53
I0925 20:24:05.870631  3532 net.cpp:406] penlu53 <- Eltwise26
I0925 20:24:05.870635  3532 net.cpp:367] penlu53 -> Eltwise26 (in-place)
I0925 20:24:05.870754  3532 net.cpp:122] Setting up penlu53
I0925 20:24:05.870757  3532 net.cpp:129] Top shape: 100 64 8 8 (409600)
I0925 20:24:05.870759  3532 net.cpp:137] Memory required for data: 1169409200
I0925 20:24:05.870764  3532 layer_factory.hpp:77] Creating layer Eltwise26_penlu53_0_split
I0925 20:24:05.870767  3532 net.cpp:84] Creating Layer Eltwise26_penlu53_0_split
I0925 20:24:05.870769  3532 net.cpp:406] Eltwise26_penlu53_0_split <- Eltwise26
I0925 20:24:05.870774  3532 net.cpp:380] Eltwise26_penlu53_0_split -> Eltwise26_penlu53_0_split_0
I0925 20:24:05.870777  3532 net.cpp:380] Eltwise26_penlu53_0_split -> Eltwise26_penlu53_0_split_1
I0925 20:24:05.870801  3532 net.cpp:122] Setting up Eltwise26_penlu53_0_split
I0925 20:24:05.870805  3532 net.cpp:129] Top shape: 100 64 8 8 (409600)
I0925 20:24:05.870807  3532 net.cpp:129] Top shape: 100 64 8 8 (409600)
I0925 20:24:05.870810  3532 net.cpp:137] Memory required for data: 1172686000
I0925 20:24:05.870811  3532 layer_factory.hpp:77] Creating layer Convolution56
I0925 20:24:05.870818  3532 net.cpp:84] Creating Layer Convolution56
I0925 20:24:05.870828  3532 net.cpp:406] Convolution56 <- Eltwise26_penlu53_0_split_0
I0925 20:24:05.870833  3532 net.cpp:380] Convolution56 -> Convolution56
I0925 20:24:05.872525  3532 net.cpp:122] Setting up Convolution56
I0925 20:24:05.872544  3532 net.cpp:129] Top shape: 100 64 8 8 (409600)
I0925 20:24:05.872546  3532 net.cpp:137] Memory required for data: 1174324400
I0925 20:24:05.872550  3532 layer_factory.hpp:77] Creating layer BatchNorm56
I0925 20:24:05.872555  3532 net.cpp:84] Creating Layer BatchNorm56
I0925 20:24:05.872558  3532 net.cpp:406] BatchNorm56 <- Convolution56
I0925 20:24:05.872562  3532 net.cpp:367] BatchNorm56 -> Convolution56 (in-place)
I0925 20:24:05.872709  3532 net.cpp:122] Setting up BatchNorm56
I0925 20:24:05.872714  3532 net.cpp:129] Top shape: 100 64 8 8 (409600)
I0925 20:24:05.872715  3532 net.cpp:137] Memory required for data: 1175962800
I0925 20:24:05.872720  3532 layer_factory.hpp:77] Creating layer Scale56
I0925 20:24:05.872725  3532 net.cpp:84] Creating Layer Scale56
I0925 20:24:05.872726  3532 net.cpp:406] Scale56 <- Convolution56
I0925 20:24:05.872732  3532 net.cpp:367] Scale56 -> Convolution56 (in-place)
I0925 20:24:05.872761  3532 layer_factory.hpp:77] Creating layer Scale56
I0925 20:24:05.872840  3532 net.cpp:122] Setting up Scale56
I0925 20:24:05.872844  3532 net.cpp:129] Top shape: 100 64 8 8 (409600)
I0925 20:24:05.872846  3532 net.cpp:137] Memory required for data: 1177601200
I0925 20:24:05.872850  3532 layer_factory.hpp:77] Creating layer penlu54
I0925 20:24:05.872855  3532 net.cpp:84] Creating Layer penlu54
I0925 20:24:05.872859  3532 net.cpp:406] penlu54 <- Convolution56
I0925 20:24:05.872861  3532 net.cpp:367] penlu54 -> Convolution56 (in-place)
I0925 20:24:05.872982  3532 net.cpp:122] Setting up penlu54
I0925 20:24:05.872987  3532 net.cpp:129] Top shape: 100 64 8 8 (409600)
I0925 20:24:05.872989  3532 net.cpp:137] Memory required for data: 1179239600
I0925 20:24:05.872993  3532 layer_factory.hpp:77] Creating layer Convolution57
I0925 20:24:05.872999  3532 net.cpp:84] Creating Layer Convolution57
I0925 20:24:05.873003  3532 net.cpp:406] Convolution57 <- Convolution56
I0925 20:24:05.873006  3532 net.cpp:380] Convolution57 -> Convolution57
I0925 20:24:05.874689  3532 net.cpp:122] Setting up Convolution57
I0925 20:24:05.874698  3532 net.cpp:129] Top shape: 100 64 8 8 (409600)
I0925 20:24:05.874701  3532 net.cpp:137] Memory required for data: 1180878000
I0925 20:24:05.874706  3532 layer_factory.hpp:77] Creating layer BatchNorm57
I0925 20:24:05.874711  3532 net.cpp:84] Creating Layer BatchNorm57
I0925 20:24:05.874713  3532 net.cpp:406] BatchNorm57 <- Convolution57
I0925 20:24:05.874717  3532 net.cpp:367] BatchNorm57 -> Convolution57 (in-place)
I0925 20:24:05.874861  3532 net.cpp:122] Setting up BatchNorm57
I0925 20:24:05.874866  3532 net.cpp:129] Top shape: 100 64 8 8 (409600)
I0925 20:24:05.874867  3532 net.cpp:137] Memory required for data: 1182516400
I0925 20:24:05.874872  3532 layer_factory.hpp:77] Creating layer Scale57
I0925 20:24:05.874876  3532 net.cpp:84] Creating Layer Scale57
I0925 20:24:05.874878  3532 net.cpp:406] Scale57 <- Convolution57
I0925 20:24:05.874881  3532 net.cpp:367] Scale57 -> Convolution57 (in-place)
I0925 20:24:05.874909  3532 layer_factory.hpp:77] Creating layer Scale57
I0925 20:24:05.874991  3532 net.cpp:122] Setting up Scale57
I0925 20:24:05.874996  3532 net.cpp:129] Top shape: 100 64 8 8 (409600)
I0925 20:24:05.874999  3532 net.cpp:137] Memory required for data: 1184154800
I0925 20:24:05.875001  3532 layer_factory.hpp:77] Creating layer Eltwise27
I0925 20:24:05.875005  3532 net.cpp:84] Creating Layer Eltwise27
I0925 20:24:05.875008  3532 net.cpp:406] Eltwise27 <- Eltwise26_penlu53_0_split_1
I0925 20:24:05.875011  3532 net.cpp:406] Eltwise27 <- Convolution57
I0925 20:24:05.875015  3532 net.cpp:380] Eltwise27 -> Eltwise27
I0925 20:24:05.875031  3532 net.cpp:122] Setting up Eltwise27
I0925 20:24:05.875036  3532 net.cpp:129] Top shape: 100 64 8 8 (409600)
I0925 20:24:05.875037  3532 net.cpp:137] Memory required for data: 1185793200
I0925 20:24:05.875046  3532 layer_factory.hpp:77] Creating layer penlu55
I0925 20:24:05.875051  3532 net.cpp:84] Creating Layer penlu55
I0925 20:24:05.875053  3532 net.cpp:406] penlu55 <- Eltwise27
I0925 20:24:05.875057  3532 net.cpp:367] penlu55 -> Eltwise27 (in-place)
I0925 20:24:05.875180  3532 net.cpp:122] Setting up penlu55
I0925 20:24:05.875185  3532 net.cpp:129] Top shape: 100 64 8 8 (409600)
I0925 20:24:05.875186  3532 net.cpp:137] Memory required for data: 1187431600
I0925 20:24:05.875191  3532 layer_factory.hpp:77] Creating layer Pooling1
I0925 20:24:05.875195  3532 net.cpp:84] Creating Layer Pooling1
I0925 20:24:05.875198  3532 net.cpp:406] Pooling1 <- Eltwise27
I0925 20:24:05.875201  3532 net.cpp:380] Pooling1 -> Pooling1
I0925 20:24:05.875675  3532 net.cpp:122] Setting up Pooling1
I0925 20:24:05.875684  3532 net.cpp:129] Top shape: 100 64 1 1 (6400)
I0925 20:24:05.891211  3532 net.cpp:137] Memory required for data: 1187457200
I0925 20:24:05.891217  3532 layer_factory.hpp:77] Creating layer InnerProduct1
I0925 20:24:05.891227  3532 net.cpp:84] Creating Layer InnerProduct1
I0925 20:24:05.891229  3532 net.cpp:406] InnerProduct1 <- Pooling1
I0925 20:24:05.891234  3532 net.cpp:380] InnerProduct1 -> InnerProduct1
I0925 20:24:05.891366  3532 net.cpp:122] Setting up InnerProduct1
I0925 20:24:05.891371  3532 net.cpp:129] Top shape: 100 10 (1000)
I0925 20:24:05.891373  3532 net.cpp:137] Memory required for data: 1187461200
I0925 20:24:05.891377  3532 layer_factory.hpp:77] Creating layer InnerProduct1_InnerProduct1_0_split
I0925 20:24:05.891381  3532 net.cpp:84] Creating Layer InnerProduct1_InnerProduct1_0_split
I0925 20:24:05.891384  3532 net.cpp:406] InnerProduct1_InnerProduct1_0_split <- InnerProduct1
I0925 20:24:05.891388  3532 net.cpp:380] InnerProduct1_InnerProduct1_0_split -> InnerProduct1_InnerProduct1_0_split_0
I0925 20:24:05.891393  3532 net.cpp:380] InnerProduct1_InnerProduct1_0_split -> InnerProduct1_InnerProduct1_0_split_1
I0925 20:24:05.891423  3532 net.cpp:122] Setting up InnerProduct1_InnerProduct1_0_split
I0925 20:24:05.891428  3532 net.cpp:129] Top shape: 100 10 (1000)
I0925 20:24:05.891430  3532 net.cpp:129] Top shape: 100 10 (1000)
I0925 20:24:05.891433  3532 net.cpp:137] Memory required for data: 1187469200
I0925 20:24:05.891435  3532 layer_factory.hpp:77] Creating layer SoftmaxWithLoss1
I0925 20:24:05.891440  3532 net.cpp:84] Creating Layer SoftmaxWithLoss1
I0925 20:24:05.891443  3532 net.cpp:406] SoftmaxWithLoss1 <- InnerProduct1_InnerProduct1_0_split_0
I0925 20:24:05.891446  3532 net.cpp:406] SoftmaxWithLoss1 <- Data2_Data1_1_split_0
…
