…
I0925 11:03:16.441884  2600 net.cpp:294] The NetState phase (0) differed from the phase (1) specified by a rule in layer Accuracy1
I0925 11:03:16.443068  2600 net.cpp:51] Initializing net from parameters: 
name: "resnet_cifar10"
state {
  phase: TRAIN
  level: 0
  stage: ""
}
layer {
  name: "Data1"
  type: "Data"
  top: "Data1"
  top: "Data2"
  include {
    phase: TRAIN
  }
  transform_param {
    mirror: true
    crop_size: 28
    mean_file: "/home/x306/caffe/xn/PENLU/data/cifar10/mean.binaryproto"
  }
  data_param {
    source: "/home/x306/caffe/xn/PENLU/data/cifar10/cifar10_train_lmdb"
    batch_size: 100
    backend: LMDB
  }
}
layer {
  name: "Convolution1"
  type: "Convolution"
  bottom: "Data1"
  top: "Convolution1"
  param {
    lr_mult: 1
    decay_mult: 1
  }
  param {
    lr_mult: 2
    decay_mult: 0
  }
  convolution_param {
    num_output: 16
    pad: 1
    kernel_size: 3
    stride: 1
    weight_filler {
      type: "gaussian"
      std: 0.118
    }
    bias_filler {
      type: "constant"
      value: 0
    }
  }
}
layer {
  name: "BatchNorm1"
  type: "BatchNorm"
  bottom: "Convolution1"
  top: "Convolution1"
  param {
    lr_mult: 0
    decay_mult: 0
  }
  param {
    lr_mult: 0
    decay_mult: 0
  }
  param {
    lr_mult: 0
    decay_mult: 0
  }
}
layer {
  name: "Scale1"
  type: "Scale"
  bottom: "Convolution1"
  top: "Convolution1"
  scale_param {
    bias_term: true
  }
}
layer {
  name: "penlu1"
  type: "PENLU"
  bottom: "Convolution1"
  top: "Convolution1"
  param {
    lr_mult: 1
    decay_mult: 0
  }
  param {
    lr_mult: 1
    decay_mult: 0
  }
  param {
    lr_mult: 1
    decay_mult: 0
  }
  penlu_param {
    alpha_filler {
      type: "constant"
      value: 2
    }
    beta_filler {
      type: "constant"
      value: 1
    }
    eta_filler {
      type: "constant"
      value: 1
    }
  }
}
layer {
  name: "Convolution2"
  type: "Convolution"
  bottom: "Convolution1"
  top: "Convolution2"
  param {
    lr_mult: 1
    decay_mult: 1
  }
  param {
    lr_mult: 2
    decay_mult: 0
  }
  convolution_param {
    num_output: 16
    pad: 1
    kernel_size: 3
    stride: 1
    weight_filler {
      type: "gaussian"
      std: 0.118
    }
    bias_filler {
      type: "constant"
      value: 0
    }
  }
}
layer {
  name: "BatchNorm2"
  type: "BatchNorm"
  bottom: "Convolution2"
  top: "Convolution2"
  param {
    lr_mult: 0
    decay_mult: 0
  }
  param {
    lr_mult: 0
    decay_mult: 0
  }
  param {
    lr_mult: 0
    decay_mult: 0
  }
}
layer {
  name: "Scale2"
  type: "Scale"
  bottom: "Convolution2"
  top: "Convolution2"
  scale_param {
    bias_term: true
  }
}
layer {
  name: "penlu2"
  type: "PENLU"
  bottom: "Convolution2"
  top: "Convolution2"
  param {
    lr_mult: 1
    decay_mult: 0
  }
  param {
    lr_mult: 1
    decay_mult: 0
  }
  param {
    lr_mult: 1
    decay_mult: 0
  }
  penlu_param {
    alpha_filler {
      type: "constant"
      value: 2
    }
    beta_filler {
      type: "constant"
      value: 1
    }
    eta_filler {
      type: "constant"
      value: 1
    }
  }
}
layer {
  name: "Convolution3"
  type: "Convolution"
  bottom: "Convolution2"
  top: "Convolution3"
  param {
    lr_mult: 1
    decay_mult: 1
  }
  param {
    lr_mult: 2
    decay_mult: 0
  }
  convolution_param {
    num_output: 16
    pad: 1
    kernel_size: 3
    stride: 1
    weight_filler {
      type: "gaussian"
      std: 0.118
    }
    bias_filler {
      type: "constant"
      value: 0
    }
  }
}
layer {
  name: "BatchNorm3"
  type: "BatchNorm"
  bottom: "Convolution3"
  top: "Convolution3"
  param {
    lr_mult: 0
    decay_mult: 0
  }
  param {
    lr_mult: 0
    decay_mult: 0
  }
  param {
    lr_mult: 0
    decay_mult: 0
  }
}
layer {
  name: "Scale3"
  type: "Scale"
  bottom: "Convolution3"
  top: "Convolution3"
  scale_param {
    bias_term: true
  }
}
layer {
  name: "Eltwise1"
  type: "Eltwise"
  bottom: "Convolution1"
  bottom: "Convolution3"
  top: "Eltwise1"
  eltwise_param {
    operation: SUM
  }
}
layer {
  name: "penlu3"
  type: "PENLU"
  bottom: "Eltwise1"
  top: "Eltwise1"
  param {
    lr_mult: 1
    decay_mult: 0
  }
  param {
    lr_mult: 1
    decay_mult: 0
  }
  param {
    lr_mult: 1
    decay_mult: 0
  }
  penlu_param {
    alpha_filler {
      type: "constant"
      value: 2
    }
    beta_filler {
      type: "constant"
      value: 1
    }
    eta_filler {
      type: "constant"
      value: 1
    }
  }
}
layer {
  name: "Convolution4"
  type: "Convolution"
  bottom: "Eltwise1"
  top: "Convolution4"
  param {
    lr_mult: 1
    decay_mult: 1
  }
  param {
    lr_mult: 2
    decay_mult: 0
  }
  convolution_param {
    num_output: 16
    pad: 1
    kernel_size: 3
    stride: 1
    weight_filler {
      type: "gaussian"
      std: 0.118
    }
    bias_filler {
      type: "constant"
      value: 0
    }
  }
}
layer {
  name: "BatchNorm4"
  type: "BatchNorm"
  bottom: "Convolution4"
  top: "Convolution4"
  param {
    lr_mult: 0
    decay_mult: 0
  }
  param {
    lr_mult: 0
    decay_mult: 0
  }
  param {
    lr_mult: 0
    decay_mult: 0
  }
}
layer {
  name: "Scale4"
  type: "Scale"
  bottom: "Convolution4"
  top: "Convolution4"
  scale_param {
    bias_term: true
  }
}
layer {
  name: "penlu4"
  type: "PENLU"
  bottom: "Convolution4"
  top: "Convolution4"
  param {
    lr_mult: 1
    decay_mult: 0
  }
  param {
    lr_mult: 1
    decay_mult: 0
  }
  param {
    lr_mult: 1
    decay_mult: 0
  }
  penlu_param {
    alpha_filler {
      type: "constant"
      value: 2
    }
    beta_filler {
      type: "constant"
      value: 1
    }
    eta_filler {
      type: "constant"
      value: 1
    }
  }
}
layer {
  name: "Convolution5"
  type: "Convolution"
  bottom: "Convolution4"
  top: "Convolution5"
  param {
    lr_mult: 1
    decay_mult: 1
  }
  param {
    lr_mult: 2
    decay_mult: 0
  }
  convolution_param {
    num_output: 16
    pad: 1
    kernel_size: 3
    stride: 1
    weight_filler {
      type: "gaussian"
      std: 0.118
    }
    bias_filler {
      type: "constant"
      value: 0
    }
  }
}
layer {
  name: "BatchNorm5"
  type: "BatchNorm"
  bottom: "Convolution5"
  top: "Convolution5"
  param {
    lr_mult: 0
    decay_mult: 0
  }
  param {
    lr_mult: 0
    decay_mult: 0
  }
  param {
    lr_mult: 0
    decay_mult: 0
  }
}
layer {
  name: "Scale5"
  type: "Scale"
  bottom: "Convolution5"
  top: "Convolution5"
  scale_param {
    bias_term: true
  }
}
layer {
  name: "Eltwise2"
  type: "Eltwise"
  bottom: "Eltwise1"
  bottom: "Convolution5"
  top: "Eltwise2"
  eltwise_param {
    operation: SUM
  }
}
layer {
  name: "penlu5"
  type: "PENLU"
  bottom: "Eltwise2"
  top: "Eltwise2"
  param {
    lr_mult: 1
    decay_mult: 0
  }
  param {
    lr_mult: 1
    decay_mult: 0
  }
  param {
    lr_mult: 1
    decay_mult: 0
  }
  penlu_param {
    alpha_filler {
      type: "constant"
      value: 2
    }
    beta_filler {
      type: "constant"
      value: 1
    }
    eta_filler {
      type: "constant"
      value: 1
    }
  }
}
layer {
  name: "Convolution6"
  type: "Convolution"
  bottom: "Eltwise2"
  top: "Convolution6"
  param {
    lr_mult: 1
    decay_mult: 1
  }
  param {
    lr_mult: 2
    decay_mult: 0
  }
  convolution_param {
    num_output: 16
    pad: 1
    kernel_size: 3
    stride: 1
    weight_filler {
      type: "gaussian"
      std: 0.118
    }
    bias_filler {
      type: "constant"
      value: 0
    }
  }
}
layer {
  name: "BatchNorm6"
  type: "BatchNorm"
  bottom: "Convolution6"
  top: "Convolution6"
  param {
    lr_mult: 0
    decay_mult: 0
  }
  param {
    lr_mult: 0
    decay_mult: 0
  }
  param {
    lr_mult: 0
    decay_mult: 0
  }
}
layer {
  name: "Scale6"
  type: "Scale"
  bottom: "Convolution6"
  top: "Convolution6"
  scale_param {
    bias_term: true
  }
}
layer {
  name: "penlu6"
  type: "PENLU"
  bottom: "Convolution6"
  top: "Convolution6"
  param {
    lr_mult: 1
    decay_mult: 0
  }
  param {
    lr_mult: 1
    decay_mult: 0
  }
  param {
    lr_mult: 1
    decay_mult: 0
  }
  penlu_param {
    alpha_filler {
      type: "constant"
      value: 2
    }
    beta_filler {
      type: "constant"
      value: 1
    }
    eta_filler {
      type: "constant"
      value: 1
    }
  }
}
layer {
  name: "Convolution7"
  type: "Convolution"
  bottom: "Convolution6"
  top: "Convolution7"
  param {
    lr_mult: 1
    decay_mult: 1
  }
  param {
    lr_mult: 2
    decay_mult: 0
  }
  convolution_param {
    num_output: 16
    pad: 1
    kernel_size: 3
    stride: 1
    weight_filler {
      type: "gaussian"
      std: 0.118
    }
    bias_filler {
      type: "constant"
      value: 0
    }
  }
}
layer {
  name: "BatchNorm7"
  type: "BatchNorm"
  bottom: "Convolution7"
  top: "Convolution7"
  param {
    lr_mult: 0
    decay_mult: 0
  }
  param {
    lr_mult: 0
    decay_mult: 0
  }
  param {
    lr_mult: 0
    decay_mult: 0
  }
}
layer {
  name: "Scale7"
  type: "Scale"
  bottom: "Convolution7"
  top: "Convolution7"
  scale_param {
    bias_term: true
  }
}
layer {
  name: "Eltwise3"
  type: "Eltwise"
  bottom: "Eltwise2"
  bottom: "Convolution7"
  top: "Eltwise3"
  eltwise_param {
    operation: SUM
  }
}
layer {
  name: "penlu7"
  type: "PENLU"
  bottom: "Eltwise3"
  top: "Eltwise3"
  param {
    lr_mult: 1
    decay_mult: 0
  }
  param {
    lr_mult: 1
    decay_mult: 0
  }
  param {
    lr_mult: 1
    decay_mult: 0
  }
  penlu_param {
    alpha_filler {
      type: "constant"
      value: 2
    }
    beta_filler {
      type: "constant"
      value: 1
    }
    eta_filler {
      type: "constant"
      value: 1
    }
  }
}
layer {
  name: "Convolution8"
  type: "Convolution"
  bottom: "Eltwise3"
  top: "Convolution8"
  param {
    lr_mult: 1
    decay_mult: 1
  }
  param {
    lr_mult: 2
    decay_mult: 0
  }
  convolution_param {
    num_output: 16
    pad: 1
    kernel_size: 3
    stride: 1
    weight_filler {
      type: "gaussian"
      std: 0.118
    }
    bias_filler {
      type: "constant"
      value: 0
    }
  }
}
layer {
  name: "BatchNorm8"
  type: "BatchNorm"
  bottom: "Convolution8"
  top: "Convolution8"
  param {
    lr_mult: 0
    decay_mult: 0
  }
  param {
    lr_mult: 0
    decay_mult: 0
  }
  param {
    lr_mult: 0
    decay_mult: 0
  }
}
layer {
  name: "Scale8"
  type: "Scale"
  bottom: "Convolution8"
  top: "Convolution8"
  scale_param {
    bias_term: true
  }
}
layer {
  name: "penlu8"
  type: "PENLU"
  bottom: "Convolution8"
  top: "Convolution8"
  param {
    lr_mult: 1
    decay_mult: 0
  }
  param {
    lr_mult: 1
    decay_mult: 0
  }
  param {
    lr_mult: 1
    decay_mult: 0
  }
  penlu_param {
    alpha_filler {
      type: "constant"
      value: 2
    }
    beta_filler {
      type: "constant"
      value: 1
    }
    eta_filler {
      type: "constant"
      value: 1
    }
  }
}
layer {
  name: "Convolution9"
  type: "Convolution"
  bottom: "Convolution8"
  top: "Convolution9"
  param {
    lr_mult: 1
    decay_mult: 1
  }
  param {
    lr_mult: 2
    decay_mult: 0
  }
  convolution_param {
    num_output: 16
    pad: 1
    kernel_size: 3
    stride: 1
    weight_filler {
      type: "gaussian"
      std: 0.118
    }
    bias_filler {
      type: "constant"
      value: 0
    }
  }
}
layer {
  name: "BatchNorm9"
  type: "BatchNorm"
  bottom: "Convolution9"
  top: "Convolution9"
  param {
    lr_mult: 0
    decay_mult: 0
  }
  param {
    lr_mult: 0
    decay_mult: 0
  }
  param {
    lr_mult: 0
    decay_mult: 0
  }
}
layer {
  name: "Scale9"
  type: "Scale"
  bottom: "Convolution9"
  top: "Convolution9"
  scale_param {
    bias_term: true
  }
}
layer {
  name: "Eltwise4"
  type: "Eltwise"
  bottom: "Eltwise3"
  bottom: "Convolution9"
  top: "Eltwise4"
  eltwise_param {
    operation: SUM
  }
}
layer {
  name: "penlu9"
  type: "PENLU"
  bottom: "Eltwise4"
  top: "Eltwise4"
  param {
    lr_mult: 1
    decay_mult: 0
  }
  param {
    lr_mult: 1
    decay_mult: 0
  }
  param {
    lr_mult: 1
    decay_mult: 0
  }
  penlu_param {
    alpha_filler {
      type: "constant"
      value: 2
    }
    beta_filler {
      type: "constant"
      value: 1
    }
    eta_filler {
      type: "constant"
      value: 1
    }
  }
}
layer {
  name: "Convolution10"
  type: "Convolution"
  bottom: "Eltwise4"
  top: "Convolution10"
  param {
    lr_mult: 1
    decay_mult: 1
  }
  param {
    lr_mult: 2
    decay_mult: 0
  }
  convolution_param {
    num_output: 16
    pad: 1
    kernel_size: 3
    stride: 1
    weight_filler {
      type: "gaussian"
      std: 0.118
    }
    bias_filler {
      type: "constant"
      value: 0
    }
  }
}
layer {
  name: "BatchNorm10"
  type: "BatchNorm"
  bottom: "Convolution10"
  top: "Convolution10"
  param {
    lr_mult: 0
    decay_mult: 0
  }
  param {
    lr_mult: 0
    decay_mult: 0
  }
  param {
    lr_mult: 0
    decay_mult: 0
  }
}
layer {
  name: "Scale10"
  type: "Scale"
  bottom: "Convolution10"
  top: "Convolution10"
  scale_param {
    bias_term: true
  }
}
layer {
  name: "penlu10"
  type: "PENLU"
  bottom: "Convolution10"
  top: "Convolution10"
  param {
    lr_mult: 1
    decay_mult: 0
  }
  param {
    lr_mult: 1
    decay_mult: 0
  }
  param {
    lr_mult: 1
    decay_mult: 0
  }
  penlu_param {
    alpha_filler {
      type: "constant"
      value: 2
    }
    beta_filler {
      type: "constant"
      value: 1
    }
    eta_filler {
      type: "constant"
      value: 1
    }
  }
}
layer {
  name: "Convolution11"
  type: "Convolution"
  bottom: "Convolution10"
  top: "Convolution11"
  param {
    lr_mult: 1
    decay_mult: 1
  }
  param {
    lr_mult: 2
    decay_mult: 0
  }
  convolution_param {
    num_output: 16
    pad: 1
    kernel_size: 3
    stride: 1
    weight_filler {
      type: "gaussian"
      std: 0.118
    }
    bias_filler {
      type: "constant"
      value: 0
    }
  }
}
layer {
  name: "BatchNorm11"
  type: "BatchNorm"
  bottom: "Convolution11"
  top: "Convolution11"
  param {
    lr_mult: 0
    decay_mult: 0
  }
  param {
    lr_mult: 0
    decay_mult: 0
  }
  param {
    lr_mult: 0
    decay_mult: 0
  }
}
layer {
  name: "Scale11"
  type: "Scale"
  bottom: "Convolution11"
  top: "Convolution11"
  scale_param {
    bias_term: true
  }
}
layer {
  name: "Eltwise5"
  type: "Eltwise"
  bottom: "Eltwise4"
  bottom: "Convolution11"
  top: "Eltwise5"
  eltwise_param {
    operation: SUM
  }
}
layer {
  name: "penlu11"
  type: "PENLU"
  bottom: "Eltwise5"
  top: "Eltwise5"
  param {
    lr_mult: 1
    decay_mult: 0
  }
  param {
    lr_mult: 1
    decay_mult: 0
  }
  param {
    lr_mult: 1
    decay_mult: 0
  }
  penlu_param {
    alpha_filler {
      type: "constant"
      value: 2
    }
    beta_filler {
      type: "constant"
      value: 1
    }
    eta_filler {
      type: "constant"
      value: 1
    }
  }
}
layer {
  name: "Convolution12"
  type: "Convolution"
  bottom: "Eltwise5"
  top: "Convolution12"
  param {
    lr_mult: 1
    decay_mult: 1
  }
  param {
    lr_mult: 2
    decay_mult: 0
  }
  convolution_param {
    num_output: 16
    pad: 1
    kernel_size: 3
    stride: 1
    weight_filler {
      type: "gaussian"
      std: 0.118
    }
    bias_filler {
      type: "constant"
      value: 0
    }
  }
}
layer {
  name: "BatchNorm12"
  type: "BatchNorm"
  bottom: "Convolution12"
  top: "Convolution12"
  param {
    lr_mult: 0
    decay_mult: 0
  }
  param {
    lr_mult: 0
    decay_mult: 0
  }
  param {
    lr_mult: 0
    decay_mult: 0
  }
}
layer {
  name: "Scale12"
  type: "Scale"
  bottom: "Convolution12"
  top: "Convolution12"
  scale_param {
    bias_term: true
  }
}
layer {
  name: "penlu12"
  type: "PENLU"
  bottom: "Convolution12"
  top: "Convolution12"
  param {
    lr_mult: 1
    decay_mult: 0
  }
  param {
    lr_mult: 1
    decay_mult: 0
  }
  param {
    lr_mult: 1
    decay_mult: 0
  }
  penlu_param {
    alpha_filler {
      type: "constant"
      value: 2
    }
    beta_filler {
      type: "constant"
      value: 1
    }
    eta_filler {
      type: "constant"
      value: 1
    }
  }
}
layer {
  name: "Convolution13"
  type: "Convolution"
  bottom: "Convolution12"
  top: "Convolution13"
  param {
    lr_mult: 1
    decay_mult: 1
  }
  param {
    lr_mult: 2
    decay_mult: 0
  }
  convolution_param {
    num_output: 16
    pad: 1
    kernel_size: 3
    stride: 1
    weight_filler {
      type: "gaussian"
      std: 0.118
    }
    bias_filler {
      type: "constant"
      value: 0
    }
  }
}
layer {
  name: "BatchNorm13"
  type: "BatchNorm"
  bottom: "Convolution13"
  top: "Convolution13"
  param {
    lr_mult: 0
    decay_mult: 0
  }
  param {
    lr_mult: 0
    decay_mult: 0
  }
  param {
    lr_mult: 0
    decay_mult: 0
  }
}
layer {
  name: "Scale13"
  type: "Scale"
  bottom: "Convolution13"
  top: "Convolution13"
  scale_param {
    bias_term: true
  }
}
layer {
  name: "Eltwise6"
  type: "Eltwise"
  bottom: "Eltwise5"
  bottom: "Convolution13"
  top: "Eltwise6"
  eltwise_param {
    operation: SUM
  }
}
layer {
  name: "penlu13"
  type: "PENLU"
  bottom: "Eltwise6"
  top: "Eltwise6"
  param {
    lr_mult: 1
    decay_mult: 0
  }
  param {
    lr_mult: 1
    decay_mult: 0
  }
  param {
    lr_mult: 1
    decay_mult: 0
  }
  penlu_param {
    alpha_filler {
      type: "constant"
      value: 2
    }
    beta_filler {
      type: "constant"
      value: 1
    }
    eta_filler {
      type: "constant"
      value: 1
    }
  }
}
layer {
  name: "Convolution14"
  type: "Convolution"
  bottom: "Eltwise6"
  top: "Convolution14"
  param {
    lr_mult: 1
    decay_mult: 1
  }
  param {
    lr_mult: 2
    decay_mult: 0
  }
  convolution_param {
    num_output: 16
    pad: 1
    kernel_size: 3
    stride: 1
    weight_filler {
      type: "gaussian"
      std: 0.118
    }
    bias_filler {
      type: "constant"
      value: 0
    }
  }
}
layer {
  name: "BatchNorm14"
  type: "BatchNorm"
  bottom: "Convolution14"
  top: "Convolution14"
  param {
    lr_mult: 0
    decay_mult: 0
  }
  param {
    lr_mult: 0
    decay_mult: 0
  }
  param {
    lr_mult: 0
    decay_mult: 0
  }
}
layer {
  name: "Scale14"
  type: "Scale"
  bottom: "Convolution14"
  top: "Convolution14"
  scale_param {
    bias_term: true
  }
}
layer {
  name: "penlu14"
  type: "PENLU"
  bottom: "Convolution14"
  top: "Convolution14"
  param {
    lr_mult: 1
    decay_mult: 0
  }
  param {
    lr_mult: 1
    decay_mult: 0
  }
  param {
    lr_mult: 1
    decay_mult: 0
  }
  penlu_param {
    alpha_filler {
      type: "constant"
      value: 2
    }
    beta_filler {
      type: "constant"
      value: 1
    }
    eta_filler {
      type: "constant"
      value: 1
    }
  }
}
layer {
  name: "Convolution15"
  type: "Convolution"
  bottom: "Convolution14"
  top: "Convolution15"
  param {
    lr_mult: 1
    decay_mult: 1
  }
  param {
    lr_mult: 2
    decay_mult: 0
  }
  convolution_param {
    num_output: 16
    pad: 1
    kernel_size: 3
    stride: 1
    weight_filler {
      type: "gaussian"
      std: 0.118
    }
    bias_filler {
      type: "constant"
      value: 0
    }
  }
}
layer {
  name: "BatchNorm15"
  type: "BatchNorm"
  bottom: "Convolution15"
  top: "Convolution15"
  param {
    lr_mult: 0
    decay_mult: 0
  }
  param {
    lr_mult: 0
    decay_mult: 0
  }
  param {
    lr_mult: 0
    decay_mult: 0
  }
}
layer {
  name: "Scale15"
  type: "Scale"
  bottom: "Convolution15"
  top: "Convolution15"
  scale_param {
    bias_term: true
  }
}
layer {
  name: "Eltwise7"
  type: "Eltwise"
  bottom: "Eltwise6"
  bottom: "Convolution15"
  top: "Eltwise7"
  eltwise_param {
    operation: SUM
  }
}
layer {
  name: "penlu15"
  type: "PENLU"
  bottom: "Eltwise7"
  top: "Eltwise7"
  param {
    lr_mult: 1
    decay_mult: 0
  }
  param {
    lr_mult: 1
    decay_mult: 0
  }
  param {
    lr_mult: 1
    decay_mult: 0
  }
  penlu_param {
    alpha_filler {
      type: "constant"
      value: 2
    }
    beta_filler {
      type: "constant"
      value: 1
    }
    eta_filler {
      type: "constant"
      value: 1
    }
  }
}
layer {
  name: "Convolution16"
  type: "Convolution"
  bottom: "Eltwise7"
  top: "Convolution16"
  param {
    lr_mult: 1
    decay_mult: 1
  }
  param {
    lr_mult: 2
    decay_mult: 0
  }
  convolution_param {
    num_output: 16
    pad: 1
    kernel_size: 3
    stride: 1
    weight_filler {
      type: "gaussian"
      std: 0.118
    }
    bias_filler {
      type: "constant"
      value: 0
    }
  }
}
layer {
  name: "BatchNorm16"
  type: "BatchNorm"
  bottom: "Convolution16"
  top: "Convolution16"
  param {
    lr_mult: 0
    decay_mult: 0
  }
  param {
    lr_mult: 0
    decay_mult: 0
  }
  param {
    lr_mult: 0
    decay_mult: 0
  }
}
layer {
  name: "Scale16"
  type: "Scale"
  bottom: "Convolution16"
  top: "Convolution16"
  scale_param {
    bias_term: true
  }
}
layer {
  name: "penlu16"
  type: "PENLU"
  bottom: "Convolution16"
  top: "Convolution16"
  param {
    lr_mult: 1
    decay_mult: 0
  }
  param {
    lr_mult: 1
    decay_mult: 0
  }
  param {
    lr_mult: 1
    decay_mult: 0
  }
  penlu_param {
    alpha_filler {
      type: "constant"
      value: 2
    }
    beta_filler {
      type: "constant"
      value: 1
    }
    eta_filler {
      type: "constant"
      value: 1
    }
  }
}
layer {
  name: "Convolution17"
  type: "Convolution"
  bottom: "Convolution16"
  top: "Convolution17"
  param {
    lr_mult: 1
    decay_mult: 1
  }
  param {
    lr_mult: 2
    decay_mult: 0
  }
  convolution_param {
    num_output: 16
    pad: 1
    kernel_size: 3
    stride: 1
    weight_filler {
      type: "gaussian"
      std: 0.118
    }
    bias_filler {
      type: "constant"
      value: 0
    }
  }
}
layer {
  name: "BatchNorm17"
  type: "BatchNorm"
  bottom: "Convolution17"
  top: "Convolution17"
  param {
    lr_mult: 0
    decay_mult: 0
  }
  param {
    lr_mult: 0
    decay_mult: 0
  }
  param {
    lr_mult: 0
    decay_mult: 0
  }
}
layer {
  name: "Scale17"
  type: "Scale"
  bottom: "Convolution17"
  top: "Convolution17"
  scale_param {
    bias_term: true
  }
}
layer {
  name: "Eltwise8"
  type: "Eltwise"
  bottom: "Eltwise7"
  bottom: "Convolution17"
  top: "Eltwise8"
  eltwise_param {
    operation: SUM
  }
}
layer {
  name: "penlu17"
  type: "PENLU"
  bottom: "Eltwise8"
  top: "Eltwise8"
  param {
    lr_mult: 1
    decay_mult: 0
  }
  param {
    lr_mult: 1
    decay_mult: 0
  }
  param {
    lr_mult: 1
    decay_mult: 0
  }
  penlu_param {
    alpha_filler {
      type: "constant"
      value: 2
    }
    beta_filler {
      type: "constant"
      value: 1
    }
    eta_filler {
      type: "constant"
      value: 1
    }
  }
}
layer {
  name: "Convolution18"
  type: "Convolution"
  bottom: "Eltwise8"
  top: "Convolution18"
  param {
    lr_mult: 1
    decay_mult: 1
  }
  param {
    lr_mult: 2
    decay_mult: 0
  }
  convolution_param {
    num_output: 16
    pad: 1
    kernel_size: 3
    stride: 1
    weight_filler {
      type: "gaussian"
      std: 0.118
    }
    bias_filler {
      type: "constant"
      value: 0
    }
  }
}
layer {
  name: "BatchNorm18"
  type: "BatchNorm"
  bottom: "Convolution18"
  top: "Convolution18"
  param {
    lr_mult: 0
    decay_mult: 0
  }
  param {
    lr_mult: 0
    decay_mult: 0
  }
  param {
    lr_mult: 0
    decay_mult: 0
  }
}
layer {
  name: "Scale18"
  type: "Scale"
  bottom: "Convolution18"
  top: "Convolution18"
  scale_param {
    bias_term: true
  }
}
layer {
  name: "penlu18"
  type: "PENLU"
  bottom: "Convolution18"
  top: "Convolution18"
  param {
    lr_mult: 1
    decay_mult: 0
  }
  param {
    lr_mult: 1
    decay_mult: 0
  }
  param {
    lr_mult: 1
    decay_mult: 0
  }
  penlu_param {
    alpha_filler {
      type: "constant"
      value: 2
    }
    beta_filler {
      type: "constant"
      value: 1
    }
    eta_filler {
      type: "constant"
      value: 1
    }
  }
}
layer {
  name: "Convolution19"
  type: "Convolution"
  bottom: "Convolution18"
  top: "Convolution19"
  param {
    lr_mult: 1
    decay_mult: 1
  }
  param {
    lr_mult: 2
    decay_mult: 0
  }
  convolution_param {
    num_output: 16
    pad: 1
    kernel_size: 3
    stride: 1
    weight_filler {
      type: "gaussian"
      std: 0.118
    }
    bias_filler {
      type: "constant"
      value: 0
    }
  }
}
layer {
  name: "BatchNorm19"
  type: "BatchNorm"
  bottom: "Convolution19"
  top: "Convolution19"
  param {
    lr_mult: 0
    decay_mult: 0
  }
  param {
    lr_mult: 0
    decay_mult: 0
  }
  param {
    lr_mult: 0
    decay_mult: 0
  }
}
layer {
  name: "Scale19"
  type: "Scale"
  bottom: "Convolution19"
  top: "Convolution19"
  scale_param {
    bias_term: true
  }
}
layer {
  name: "Eltwise9"
  type: "Eltwise"
  bottom: "Eltwise8"
  bottom: "Convolution19"
  top: "Eltwise9"
  eltwise_param {
    operation: SUM
  }
}
layer {
  name: "penlu19"
  type: "PENLU"
  bottom: "Eltwise9"
  top: "Eltwise9"
  param {
    lr_mult: 1
    decay_mult: 0
  }
  param {
    lr_mult: 1
    decay_mult: 0
  }
  param {
    lr_mult: 1
    decay_mult: 0
  }
  penlu_param {
    alpha_filler {
      type: "constant"
      value: 2
    }
    beta_filler {
      type: "constant"
      value: 1
    }
    eta_filler {
      type: "constant"
      value: 1
    }
  }
}
layer {
  name: "Convolution20"
  type: "Convolution"
  bottom: "Eltwise9"
  top: "Convolution20"
  param {
    lr_mult: 1
    decay_mult: 1
  }
  param {
    lr_mult: 2
    decay_mult: 0
  }
  convolution_param {
    num_output: 32
    pad: 0
    kernel_size: 1
    stride: 2
    weight_filler {
      type: "gaussian"
      std: 0.25
    }
    bias_filler {
      type: "constant"
      value: 0
    }
  }
}
layer {
  name: "BatchNorm20"
  type: "BatchNorm"
  bottom: "Convolution20"
  top: "Convolution20"
  param {
    lr_mult: 0
    decay_mult: 0
  }
  param {
    lr_mult: 0
    decay_mult: 0
  }
  param {
    lr_mult: 0
    decay_mult: 0
  }
}
layer {
  name: "Scale20"
  type: "Scale"
  bottom: "Convolution20"
  top: "Convolution20"
  scale_param {
    bias_term: true
  }
}
layer {
  name: "Convolution21"
  type: "Convolution"
  bottom: "Eltwise9"
  top: "Convolution21"
  param {
    lr_mult: 1
    decay_mult: 1
  }
  param {
    lr_mult: 2
    decay_mult: 0
  }
  convolution_param {
    num_output: 32
    pad: 1
    kernel_size: 3
    stride: 2
    weight_filler {
      type: "gaussian"
      std: 0.083
    }
    bias_filler {
      type: "constant"
      value: 0
    }
  }
}
layer {
  name: "BatchNorm21"
  type: "BatchNorm"
  bottom: "Convolution21"
  top: "Convolution21"
  param {
    lr_mult: 0
    decay_mult: 0
  }
  param {
    lr_mult: 0
    decay_mult: 0
  }
  param {
    lr_mult: 0
    decay_mult: 0
  }
}
layer {
  name: "Scale21"
  type: "Scale"
  bottom: "Convolution21"
  top: "Convolution21"
  scale_param {
    bias_term: true
  }
}
layer {
  name: "penlu20"
  type: "PENLU"
  bottom: "Convolution21"
  top: "Convolution21"
  param {
    lr_mult: 1
    decay_mult: 0
  }
  param {
    lr_mult: 1
    decay_mult: 0
  }
  param {
    lr_mult: 1
    decay_mult: 0
  }
  penlu_param {
    alpha_filler {
      type: "constant"
      value: 2
    }
    beta_filler {
      type: "constant"
      value: 1
    }
    eta_filler {
      type: "constant"
      value: 1
    }
  }
}
layer {
  name: "Convolution22"
  type: "Convolution"
  bottom: "Convolution21"
  top: "Convolution22"
  param {
    lr_mult: 1
    decay_mult: 1
  }
  param {
    lr_mult: 2
    decay_mult: 0
  }
  convolution_param {
    num_output: 32
    pad: 1
    kernel_size: 3
    stride: 1
    weight_filler {
      type: "gaussian"
      std: 0.083
    }
    bias_filler {
      type: "constant"
      value: 0
    }
  }
}
layer {
  name: "BatchNorm22"
  type: "BatchNorm"
  bottom: "Convolution22"
  top: "Convolution22"
  param {
    lr_mult: 0
    decay_mult: 0
  }
  param {
    lr_mult: 0
    decay_mult: 0
  }
  param {
    lr_mult: 0
    decay_mult: 0
  }
}
layer {
  name: "Scale22"
  type: "Scale"
  bottom: "Convolution22"
  top: "Convolution22"
  scale_param {
    bias_term: true
  }
}
layer {
  name: "Eltwise10"
  type: "Eltwise"
  bottom: "Convolution20"
  bottom: "Convolution22"
  top: "Eltwise10"
  eltwise_param {
    operation: SUM
  }
}
layer {
  name: "penlu21"
  type: "PENLU"
  bottom: "Eltwise10"
  top: "Eltwise10"
  param {
    lr_mult: 1
    decay_mult: 0
  }
  param {
    lr_mult: 1
    decay_mult: 0
  }
  param {
    lr_mult: 1
    decay_mult: 0
  }
  penlu_param {
    alpha_filler {
      type: "constant"
      value: 2
    }
    beta_filler {
      type: "constant"
      value: 1
    }
    eta_filler {
      type: "constant"
      value: 1
    }
  }
}
layer {
  name: "Convolution23"
  type: "Convolution"
  bottom: "Eltwise10"
  top: "Convolution23"
  param {
    lr_mult: 1
    decay_mult: 1
  }
  param {
    lr_mult: 2
    decay_mult: 0
  }
  convolution_param {
    num_output: 32
    pad: 1
    kernel_size: 3
    stride: 1
    weight_filler {
      type: "gaussian"
      std: 0.083
    }
    bias_filler {
      type: "constant"
      value: 0
    }
  }
}
layer {
  name: "BatchNorm23"
  type: "BatchNorm"
  bottom: "Convolution23"
  top: "Convolution23"
  param {
    lr_mult: 0
    decay_mult: 0
  }
  param {
    lr_mult: 0
    decay_mult: 0
  }
  param {
    lr_mult: 0
    decay_mult: 0
  }
}
layer {
  name: "Scale23"
  type: "Scale"
  bottom: "Convolution23"
  top: "Convolution23"
  scale_param {
    bias_term: true
  }
}
layer {
  name: "penlu22"
  type: "PENLU"
  bottom: "Convolution23"
  top: "Convolution23"
  param {
    lr_mult: 1
    decay_mult: 0
  }
  param {
    lr_mult: 1
    decay_mult: 0
  }
  param {
    lr_mult: 1
    decay_mult: 0
  }
  penlu_param {
    alpha_filler {
      type: "constant"
      value: 2
    }
    beta_filler {
      type: "constant"
      value: 1
    }
    eta_filler {
      type: "constant"
      value: 1
    }
  }
}
layer {
  name: "Convolution24"
  type: "Convolution"
  bottom: "Convolution23"
  top: "Convolution24"
  param {
    lr_mult: 1
    decay_mult: 1
  }
  param {
    lr_mult: 2
    decay_mult: 0
  }
  convolution_param {
    num_output: 32
    pad: 1
    kernel_size: 3
    stride: 1
    weight_filler {
      type: "gaussian"
      std
I0925 11:03:16.443943  2600 layer_factory.hpp:77] Creating layer Data1
I0925 11:03:16.444020  2600 db_lmdb.cpp:35] Opened lmdb /home/x306/caffe/xn/PENLU/data/cifar10/cifar10_train_lmdb
I0925 11:03:16.444041  2600 net.cpp:84] Creating Layer Data1
I0925 11:03:16.444046  2600 net.cpp:380] Data1 -> Data1
I0925 11:03:16.444063  2600 net.cpp:380] Data1 -> Data2
I0925 11:03:16.444072  2600 data_transformer.cpp:25] Loading mean file from: /home/x306/caffe/xn/PENLU/data/cifar10/mean.binaryproto
I0925 11:03:16.445495  2600 data_layer.cpp:45] output data size: 100,3,28,28
I0925 11:03:16.447796  2600 net.cpp:122] Setting up Data1
I0925 11:03:16.447808  2600 net.cpp:129] Top shape: 100 3 28 28 (235200)
I0925 11:03:16.447813  2600 net.cpp:129] Top shape: 100 (100)
I0925 11:03:16.447815  2600 net.cpp:137] Memory required for data: 941200
I0925 11:03:16.447821  2600 layer_factory.hpp:77] Creating layer Convolution1
I0925 11:03:16.447839  2600 net.cpp:84] Creating Layer Convolution1
I0925 11:03:16.447844  2600 net.cpp:406] Convolution1 <- Data1
I0925 11:03:16.447852  2600 net.cpp:380] Convolution1 -> Convolution1
I0925 11:03:16.595898  2600 net.cpp:122] Setting up Convolution1
I0925 11:03:16.595926  2600 net.cpp:129] Top shape: 100 16 28 28 (1254400)
I0925 11:03:16.595928  2600 net.cpp:137] Memory required for data: 5958800
I0925 11:03:16.595943  2600 layer_factory.hpp:77] Creating layer BatchNorm1
I0925 11:03:16.595965  2600 net.cpp:84] Creating Layer BatchNorm1
I0925 11:03:16.595968  2600 net.cpp:406] BatchNorm1 <- Convolution1
I0925 11:03:16.596012  2600 net.cpp:367] BatchNorm1 -> Convolution1 (in-place)
I0925 11:03:16.596177  2600 net.cpp:122] Setting up BatchNorm1
I0925 11:03:16.596185  2600 net.cpp:129] Top shape: 100 16 28 28 (1254400)
I0925 11:03:16.596187  2600 net.cpp:137] Memory required for data: 10976400
I0925 11:03:16.596195  2600 layer_factory.hpp:77] Creating layer Scale1
I0925 11:03:16.596205  2600 net.cpp:84] Creating Layer Scale1
I0925 11:03:16.596218  2600 net.cpp:406] Scale1 <- Convolution1
I0925 11:03:16.596223  2600 net.cpp:367] Scale1 -> Convolution1 (in-place)
I0925 11:03:16.596273  2600 layer_factory.hpp:77] Creating layer Scale1
I0925 11:03:16.596380  2600 net.cpp:122] Setting up Scale1
I0925 11:03:16.596387  2600 net.cpp:129] Top shape: 100 16 28 28 (1254400)
I0925 11:03:16.596390  2600 net.cpp:137] Memory required for data: 15994000
I0925 11:03:16.596393  2600 layer_factory.hpp:77] Creating layer penlu1
I0925 11:03:16.596403  2600 net.cpp:84] Creating Layer penlu1
I0925 11:03:16.596415  2600 net.cpp:406] penlu1 <- Convolution1
I0925 11:03:16.596420  2600 net.cpp:367] penlu1 -> Convolution1 (in-place)
I0925 11:03:16.597040  2600 net.cpp:122] Setting up penlu1
I0925 11:03:16.597050  2600 net.cpp:129] Top shape: 100 16 28 28 (1254400)
I0925 11:03:16.597054  2600 net.cpp:137] Memory required for data: 21011600
I0925 11:03:16.597060  2600 layer_factory.hpp:77] Creating layer Convolution1_penlu1_0_split
I0925 11:03:16.597069  2600 net.cpp:84] Creating Layer Convolution1_penlu1_0_split
I0925 11:03:16.597081  2600 net.cpp:406] Convolution1_penlu1_0_split <- Convolution1
I0925 11:03:16.597085  2600 net.cpp:380] Convolution1_penlu1_0_split -> Convolution1_penlu1_0_split_0
I0925 11:03:16.597095  2600 net.cpp:380] Convolution1_penlu1_0_split -> Convolution1_penlu1_0_split_1
I0925 11:03:16.597136  2600 net.cpp:122] Setting up Convolution1_penlu1_0_split
I0925 11:03:16.597143  2600 net.cpp:129] Top shape: 100 16 28 28 (1254400)
I0925 11:03:16.597147  2600 net.cpp:129] Top shape: 100 16 28 28 (1254400)
I0925 11:03:16.597149  2600 net.cpp:137] Memory required for data: 31046800
I0925 11:03:16.597151  2600 layer_factory.hpp:77] Creating layer Convolution2
I0925 11:03:16.597158  2600 net.cpp:84] Creating Layer Convolution2
I0925 11:03:16.597162  2600 net.cpp:406] Convolution2 <- Convolution1_penlu1_0_split_0
I0925 11:03:16.597167  2600 net.cpp:380] Convolution2 -> Convolution2
I0925 11:03:16.598002  2600 net.cpp:122] Setting up Convolution2
I0925 11:03:16.598013  2600 net.cpp:129] Top shape: 100 16 28 28 (1254400)
I0925 11:03:16.598018  2600 net.cpp:137] Memory required for data: 36064400
I0925 11:03:16.598027  2600 layer_factory.hpp:77] Creating layer BatchNorm2
I0925 11:03:16.598036  2600 net.cpp:84] Creating Layer BatchNorm2
I0925 11:03:16.598042  2600 net.cpp:406] BatchNorm2 <- Convolution2
I0925 11:03:16.598048  2600 net.cpp:367] BatchNorm2 -> Convolution2 (in-place)
I0925 11:03:16.598170  2600 net.cpp:122] Setting up BatchNorm2
I0925 11:03:16.598177  2600 net.cpp:129] Top shape: 100 16 28 28 (1254400)
I0925 11:03:16.598181  2600 net.cpp:137] Memory required for data: 41082000
I0925 11:03:16.598189  2600 layer_factory.hpp:77] Creating layer Scale2
I0925 11:03:16.598198  2600 net.cpp:84] Creating Layer Scale2
I0925 11:03:16.598203  2600 net.cpp:406] Scale2 <- Convolution2
I0925 11:03:16.598211  2600 net.cpp:367] Scale2 -> Convolution2 (in-place)
I0925 11:03:16.598246  2600 layer_factory.hpp:77] Creating layer Scale2
I0925 11:03:16.598325  2600 net.cpp:122] Setting up Scale2
I0925 11:03:16.598331  2600 net.cpp:129] Top shape: 100 16 28 28 (1254400)
I0925 11:03:16.598335  2600 net.cpp:137] Memory required for data: 46099600
I0925 11:03:16.598346  2600 layer_factory.hpp:77] Creating layer penlu2
I0925 11:03:16.598356  2600 net.cpp:84] Creating Layer penlu2
I0925 11:03:16.598361  2600 net.cpp:406] penlu2 <- Convolution2
I0925 11:03:16.598364  2600 net.cpp:367] penlu2 -> Convolution2 (in-place)
I0925 11:03:16.598459  2600 net.cpp:122] Setting up penlu2
I0925 11:03:16.598465  2600 net.cpp:129] Top shape: 100 16 28 28 (1254400)
I0925 11:03:16.598475  2600 net.cpp:137] Memory required for data: 51117200
I0925 11:03:16.598481  2600 layer_factory.hpp:77] Creating layer Convolution3
I0925 11:03:16.598489  2600 net.cpp:84] Creating Layer Convolution3
I0925 11:03:16.598491  2600 net.cpp:406] Convolution3 <- Convolution2
I0925 11:03:16.598495  2600 net.cpp:380] Convolution3 -> Convolution3
I0925 11:03:16.599345  2600 net.cpp:122] Setting up Convolution3
I0925 11:03:16.599355  2600 net.cpp:129] Top shape: 100 16 28 28 (1254400)
I0925 11:03:16.599359  2600 net.cpp:137] Memory required for data: 56134800
I0925 11:03:16.599364  2600 layer_factory.hpp:77] Creating layer BatchNorm3
I0925 11:03:16.599370  2600 net.cpp:84] Creating Layer BatchNorm3
I0925 11:03:16.599373  2600 net.cpp:406] BatchNorm3 <- Convolution3
I0925 11:03:16.599376  2600 net.cpp:367] BatchNorm3 -> Convolution3 (in-place)
I0925 11:03:16.599498  2600 net.cpp:122] Setting up BatchNorm3
I0925 11:03:16.599504  2600 net.cpp:129] Top shape: 100 16 28 28 (1254400)
I0925 11:03:16.599508  2600 net.cpp:137] Memory required for data: 61152400
I0925 11:03:16.599512  2600 layer_factory.hpp:77] Creating layer Scale3
I0925 11:03:16.599517  2600 net.cpp:84] Creating Layer Scale3
I0925 11:03:16.599520  2600 net.cpp:406] Scale3 <- Convolution3
I0925 11:03:16.599524  2600 net.cpp:367] Scale3 -> Convolution3 (in-place)
I0925 11:03:16.599548  2600 layer_factory.hpp:77] Creating layer Scale3
I0925 11:03:16.599623  2600 net.cpp:122] Setting up Scale3
I0925 11:03:16.599629  2600 net.cpp:129] Top shape: 100 16 28 28 (1254400)
I0925 11:03:16.599632  2600 net.cpp:137] Memory required for data: 66170000
I0925 11:03:16.599637  2600 layer_factory.hpp:77] Creating layer Eltwise1
I0925 11:03:16.599642  2600 net.cpp:84] Creating Layer Eltwise1
I0925 11:03:16.599645  2600 net.cpp:406] Eltwise1 <- Convolution1_penlu1_0_split_1
I0925 11:03:16.599648  2600 net.cpp:406] Eltwise1 <- Convolution3
I0925 11:03:16.599653  2600 net.cpp:380] Eltwise1 -> Eltwise1
I0925 11:03:16.599669  2600 net.cpp:122] Setting up Eltwise1
I0925 11:03:16.599674  2600 net.cpp:129] Top shape: 100 16 28 28 (1254400)
I0925 11:03:16.599678  2600 net.cpp:137] Memory required for data: 71187600
I0925 11:03:16.599680  2600 layer_factory.hpp:77] Creating layer penlu3
I0925 11:03:16.599685  2600 net.cpp:84] Creating Layer penlu3
I0925 11:03:16.599689  2600 net.cpp:406] penlu3 <- Eltwise1
I0925 11:03:16.599692  2600 net.cpp:367] penlu3 -> Eltwise1 (in-place)
I0925 11:03:16.599789  2600 net.cpp:122] Setting up penlu3
I0925 11:03:16.599795  2600 net.cpp:129] Top shape: 100 16 28 28 (1254400)
I0925 11:03:16.599798  2600 net.cpp:137] Memory required for data: 76205200
I0925 11:03:16.599802  2600 layer_factory.hpp:77] Creating layer Eltwise1_penlu3_0_split
I0925 11:03:16.599807  2600 net.cpp:84] Creating Layer Eltwise1_penlu3_0_split
I0925 11:03:16.599810  2600 net.cpp:406] Eltwise1_penlu3_0_split <- Eltwise1
I0925 11:03:16.599813  2600 net.cpp:380] Eltwise1_penlu3_0_split -> Eltwise1_penlu3_0_split_0
I0925 11:03:16.599818  2600 net.cpp:380] Eltwise1_penlu3_0_split -> Eltwise1_penlu3_0_split_1
I0925 11:03:16.599839  2600 net.cpp:122] Setting up Eltwise1_penlu3_0_split
I0925 11:03:16.599844  2600 net.cpp:129] Top shape: 100 16 28 28 (1254400)
I0925 11:03:16.599849  2600 net.cpp:129] Top shape: 100 16 28 28 (1254400)
I0925 11:03:16.599851  2600 net.cpp:137] Memory required for data: 86240400
I0925 11:03:16.599853  2600 layer_factory.hpp:77] Creating layer Convolution4
I0925 11:03:16.599862  2600 net.cpp:84] Creating Layer Convolution4
I0925 11:03:16.599865  2600 net.cpp:406] Convolution4 <- Eltwise1_penlu3_0_split_0
I0925 11:03:16.599869  2600 net.cpp:380] Convolution4 -> Convolution4
I0925 11:03:16.600749  2600 net.cpp:122] Setting up Convolution4
I0925 11:03:16.600759  2600 net.cpp:129] Top shape: 100 16 28 28 (1254400)
I0925 11:03:16.600764  2600 net.cpp:137] Memory required for data: 91258000
I0925 11:03:16.600767  2600 layer_factory.hpp:77] Creating layer BatchNorm4
I0925 11:03:16.600775  2600 net.cpp:84] Creating Layer BatchNorm4
I0925 11:03:16.600783  2600 net.cpp:406] BatchNorm4 <- Convolution4
I0925 11:03:16.600788  2600 net.cpp:367] BatchNorm4 -> Convolution4 (in-place)
I0925 11:03:16.600908  2600 net.cpp:122] Setting up BatchNorm4
I0925 11:03:16.600914  2600 net.cpp:129] Top shape: 100 16 28 28 (1254400)
I0925 11:03:16.600916  2600 net.cpp:137] Memory required for data: 96275600
I0925 11:03:16.600925  2600 layer_factory.hpp:77] Creating layer Scale4
I0925 11:03:16.600930  2600 net.cpp:84] Creating Layer Scale4
I0925 11:03:16.600934  2600 net.cpp:406] Scale4 <- Convolution4
I0925 11:03:16.600936  2600 net.cpp:367] Scale4 -> Convolution4 (in-place)
I0925 11:03:16.600961  2600 layer_factory.hpp:77] Creating layer Scale4
I0925 11:03:16.601034  2600 net.cpp:122] Setting up Scale4
I0925 11:03:16.601040  2600 net.cpp:129] Top shape: 100 16 28 28 (1254400)
I0925 11:03:16.601043  2600 net.cpp:137] Memory required for data: 101293200
I0925 11:03:16.601047  2600 layer_factory.hpp:77] Creating layer penlu4
I0925 11:03:16.601053  2600 net.cpp:84] Creating Layer penlu4
I0925 11:03:16.601058  2600 net.cpp:406] penlu4 <- Convolution4
I0925 11:03:16.601061  2600 net.cpp:367] penlu4 -> Convolution4 (in-place)
I0925 11:03:16.601155  2600 net.cpp:122] Setting up penlu4
I0925 11:03:16.601161  2600 net.cpp:129] Top shape: 100 16 28 28 (1254400)
I0925 11:03:16.601164  2600 net.cpp:137] Memory required for data: 106310800
I0925 11:03:16.601168  2600 layer_factory.hpp:77] Creating layer Convolution5
I0925 11:03:16.601176  2600 net.cpp:84] Creating Layer Convolution5
I0925 11:03:16.601179  2600 net.cpp:406] Convolution5 <- Convolution4
I0925 11:03:16.601183  2600 net.cpp:380] Convolution5 -> Convolution5
I0925 11:03:16.602030  2600 net.cpp:122] Setting up Convolution5
I0925 11:03:16.602039  2600 net.cpp:129] Top shape: 100 16 28 28 (1254400)
I0925 11:03:16.602043  2600 net.cpp:137] Memory required for data: 111328400
I0925 11:03:16.602047  2600 layer_factory.hpp:77] Creating layer BatchNorm5
I0925 11:03:16.602053  2600 net.cpp:84] Creating Layer BatchNorm5
I0925 11:03:16.602057  2600 net.cpp:406] BatchNorm5 <- Convolution5
I0925 11:03:16.602061  2600 net.cpp:367] BatchNorm5 -> Convolution5 (in-place)
I0925 11:03:16.602183  2600 net.cpp:122] Setting up BatchNorm5
I0925 11:03:16.602190  2600 net.cpp:129] Top shape: 100 16 28 28 (1254400)
I0925 11:03:16.602191  2600 net.cpp:137] Memory required for data: 116346000
I0925 11:03:16.602196  2600 layer_factory.hpp:77] Creating layer Scale5
I0925 11:03:16.602202  2600 net.cpp:84] Creating Layer Scale5
I0925 11:03:16.602205  2600 net.cpp:406] Scale5 <- Convolution5
I0925 11:03:16.602208  2600 net.cpp:367] Scale5 -> Convolution5 (in-place)
I0925 11:03:16.602233  2600 layer_factory.hpp:77] Creating layer Scale5
I0925 11:03:16.602309  2600 net.cpp:122] Setting up Scale5
I0925 11:03:16.602315  2600 net.cpp:129] Top shape: 100 16 28 28 (1254400)
I0925 11:03:16.602319  2600 net.cpp:137] Memory required for data: 121363600
I0925 11:03:16.602322  2600 layer_factory.hpp:77] Creating layer Eltwise2
I0925 11:03:16.602327  2600 net.cpp:84] Creating Layer Eltwise2
I0925 11:03:16.602330  2600 net.cpp:406] Eltwise2 <- Eltwise1_penlu3_0_split_1
I0925 11:03:16.602334  2600 net.cpp:406] Eltwise2 <- Convolution5
I0925 11:03:16.602337  2600 net.cpp:380] Eltwise2 -> Eltwise2
I0925 11:03:16.602352  2600 net.cpp:122] Setting up Eltwise2
I0925 11:03:16.602357  2600 net.cpp:129] Top shape: 100 16 28 28 (1254400)
I0925 11:03:16.602360  2600 net.cpp:137] Memory required for data: 126381200
I0925 11:03:16.602362  2600 layer_factory.hpp:77] Creating layer penlu5
I0925 11:03:16.602368  2600 net.cpp:84] Creating Layer penlu5
I0925 11:03:16.602371  2600 net.cpp:406] penlu5 <- Eltwise2
I0925 11:03:16.602375  2600 net.cpp:367] penlu5 -> Eltwise2 (in-place)
I0925 11:03:16.602473  2600 net.cpp:122] Setting up penlu5
I0925 11:03:16.602478  2600 net.cpp:129] Top shape: 100 16 28 28 (1254400)
I0925 11:03:16.602481  2600 net.cpp:137] Memory required for data: 131398800
I0925 11:03:16.602485  2600 layer_factory.hpp:77] Creating layer Eltwise2_penlu5_0_split
I0925 11:03:16.602495  2600 net.cpp:84] Creating Layer Eltwise2_penlu5_0_split
I0925 11:03:16.602499  2600 net.cpp:406] Eltwise2_penlu5_0_split <- Eltwise2
I0925 11:03:16.602502  2600 net.cpp:380] Eltwise2_penlu5_0_split -> Eltwise2_penlu5_0_split_0
I0925 11:03:16.602509  2600 net.cpp:380] Eltwise2_penlu5_0_split -> Eltwise2_penlu5_0_split_1
I0925 11:03:16.602530  2600 net.cpp:122] Setting up Eltwise2_penlu5_0_split
I0925 11:03:16.602535  2600 net.cpp:129] Top shape: 100 16 28 28 (1254400)
I0925 11:03:16.602538  2600 net.cpp:129] Top shape: 100 16 28 28 (1254400)
I0925 11:03:16.602540  2600 net.cpp:137] Memory required for data: 141434000
I0925 11:03:16.602542  2600 layer_factory.hpp:77] Creating layer Convolution6
I0925 11:03:16.602550  2600 net.cpp:84] Creating Layer Convolution6
I0925 11:03:16.602552  2600 net.cpp:406] Convolution6 <- Eltwise2_penlu5_0_split_0
I0925 11:03:16.602556  2600 net.cpp:380] Convolution6 -> Convolution6
I0925 11:03:16.603407  2600 net.cpp:122] Setting up Convolution6
I0925 11:03:16.603417  2600 net.cpp:129] Top shape: 100 16 28 28 (1254400)
I0925 11:03:16.603420  2600 net.cpp:137] Memory required for data: 146451600
I0925 11:03:16.603425  2600 layer_factory.hpp:77] Creating layer BatchNorm6
I0925 11:03:16.603431  2600 net.cpp:84] Creating Layer BatchNorm6
I0925 11:03:16.603435  2600 net.cpp:406] BatchNorm6 <- Convolution6
I0925 11:03:16.603440  2600 net.cpp:367] BatchNorm6 -> Convolution6 (in-place)
I0925 11:03:16.603562  2600 net.cpp:122] Setting up BatchNorm6
I0925 11:03:16.603569  2600 net.cpp:129] Top shape: 100 16 28 28 (1254400)
I0925 11:03:16.603571  2600 net.cpp:137] Memory required for data: 151469200
I0925 11:03:16.603576  2600 layer_factory.hpp:77] Creating layer Scale6
I0925 11:03:16.603581  2600 net.cpp:84] Creating Layer Scale6
I0925 11:03:16.603585  2600 net.cpp:406] Scale6 <- Convolution6
I0925 11:03:16.603587  2600 net.cpp:367] Scale6 -> Convolution6 (in-place)
I0925 11:03:16.603613  2600 layer_factory.hpp:77] Creating layer Scale6
I0925 11:03:16.603688  2600 net.cpp:122] Setting up Scale6
I0925 11:03:16.603694  2600 net.cpp:129] Top shape: 100 16 28 28 (1254400)
I0925 11:03:16.603698  2600 net.cpp:137] Memory required for data: 156486800
I0925 11:03:16.603701  2600 layer_factory.hpp:77] Creating layer penlu6
I0925 11:03:16.603708  2600 net.cpp:84] Creating Layer penlu6
I0925 11:03:16.603710  2600 net.cpp:406] penlu6 <- Convolution6
I0925 11:03:16.603715  2600 net.cpp:367] penlu6 -> Convolution6 (in-place)
I0925 11:03:16.603814  2600 net.cpp:122] Setting up penlu6
I0925 11:03:16.603821  2600 net.cpp:129] Top shape: 100 16 28 28 (1254400)
I0925 11:03:16.603822  2600 net.cpp:137] Memory required for data: 161504400
I0925 11:03:16.603826  2600 layer_factory.hpp:77] Creating layer Convolution7
I0925 11:03:16.603834  2600 net.cpp:84] Creating Layer Convolution7
I0925 11:03:16.603837  2600 net.cpp:406] Convolution7 <- Convolution6
I0925 11:03:16.603840  2600 net.cpp:380] Convolution7 -> Convolution7
I0925 11:03:16.604375  2600 net.cpp:122] Setting up Convolution7
I0925 11:03:16.604384  2600 net.cpp:129] Top shape: 100 16 28 28 (1254400)
I0925 11:03:16.604389  2600 net.cpp:137] Memory required for data: 166522000
I0925 11:03:16.604393  2600 layer_factory.hpp:77] Creating layer BatchNorm7
I0925 11:03:16.604398  2600 net.cpp:84] Creating Layer BatchNorm7
I0925 11:03:16.604401  2600 net.cpp:406] BatchNorm7 <- Convolution7
I0925 11:03:16.604405  2600 net.cpp:367] BatchNorm7 -> Convolution7 (in-place)
I0925 11:03:16.604554  2600 net.cpp:122] Setting up BatchNorm7
I0925 11:03:16.604562  2600 net.cpp:129] Top shape: 100 16 28 28 (1254400)
I0925 11:03:16.604563  2600 net.cpp:137] Memory required for data: 171539600
I0925 11:03:16.604573  2600 layer_factory.hpp:77] Creating layer Scale7
I0925 11:03:16.604579  2600 net.cpp:84] Creating Layer Scale7
I0925 11:03:16.604583  2600 net.cpp:406] Scale7 <- Convolution7
I0925 11:03:16.604588  2600 net.cpp:367] Scale7 -> Convolution7 (in-place)
I0925 11:03:16.604614  2600 layer_factory.hpp:77] Creating layer Scale7
I0925 11:03:16.604688  2600 net.cpp:122] Setting up Scale7
I0925 11:03:16.604701  2600 net.cpp:129] Top shape: 100 16 28 28 (1254400)
I0925 11:03:16.604703  2600 net.cpp:137] Memory required for data: 176557200
I0925 11:03:16.604707  2600 layer_factory.hpp:77] Creating layer Eltwise3
I0925 11:03:16.604712  2600 net.cpp:84] Creating Layer Eltwise3
I0925 11:03:16.604715  2600 net.cpp:406] Eltwise3 <- Eltwise2_penlu5_0_split_1
I0925 11:03:16.604718  2600 net.cpp:406] Eltwise3 <- Convolution7
I0925 11:03:16.604722  2600 net.cpp:380] Eltwise3 -> Eltwise3
I0925 11:03:16.604738  2600 net.cpp:122] Setting up Eltwise3
I0925 11:03:16.604743  2600 net.cpp:129] Top shape: 100 16 28 28 (1254400)
I0925 11:03:16.604745  2600 net.cpp:137] Memory required for data: 181574800
I0925 11:03:16.604748  2600 layer_factory.hpp:77] Creating layer penlu7
I0925 11:03:16.604753  2600 net.cpp:84] Creating Layer penlu7
I0925 11:03:16.604755  2600 net.cpp:406] penlu7 <- Eltwise3
I0925 11:03:16.604760  2600 net.cpp:367] penlu7 -> Eltwise3 (in-place)
I0925 11:03:16.604862  2600 net.cpp:122] Setting up penlu7
I0925 11:03:16.604867  2600 net.cpp:129] Top shape: 100 16 28 28 (1254400)
I0925 11:03:16.604871  2600 net.cpp:137] Memory required for data: 186592400
I0925 11:03:16.604876  2600 layer_factory.hpp:77] Creating layer Eltwise3_penlu7_0_split
I0925 11:03:16.604879  2600 net.cpp:84] Creating Layer Eltwise3_penlu7_0_split
I0925 11:03:16.604882  2600 net.cpp:406] Eltwise3_penlu7_0_split <- Eltwise3
I0925 11:03:16.604887  2600 net.cpp:380] Eltwise3_penlu7_0_split -> Eltwise3_penlu7_0_split_0
I0925 11:03:16.604890  2600 net.cpp:380] Eltwise3_penlu7_0_split -> Eltwise3_penlu7_0_split_1
I0925 11:03:16.604912  2600 net.cpp:122] Setting up Eltwise3_penlu7_0_split
I0925 11:03:16.604918  2600 net.cpp:129] Top shape: 100 16 28 28 (1254400)
I0925 11:03:16.604919  2600 net.cpp:129] Top shape: 100 16 28 28 (1254400)
I0925 11:03:16.604923  2600 net.cpp:137] Memory required for data: 196627600
I0925 11:03:16.604924  2600 layer_factory.hpp:77] Creating layer Convolution8
I0925 11:03:16.604929  2600 net.cpp:84] Creating Layer Convolution8
I0925 11:03:16.604933  2600 net.cpp:406] Convolution8 <- Eltwise3_penlu7_0_split_0
I0925 11:03:16.604938  2600 net.cpp:380] Convolution8 -> Convolution8
I0925 11:03:16.605784  2600 net.cpp:122] Setting up Convolution8
I0925 11:03:16.605795  2600 net.cpp:129] Top shape: 100 16 28 28 (1254400)
I0925 11:03:16.605799  2600 net.cpp:137] Memory required for data: 201645200
I0925 11:03:16.605803  2600 layer_factory.hpp:77] Creating layer BatchNorm8
I0925 11:03:16.605809  2600 net.cpp:84] Creating Layer BatchNorm8
I0925 11:03:16.605813  2600 net.cpp:406] BatchNorm8 <- Convolution8
I0925 11:03:16.605816  2600 net.cpp:367] BatchNorm8 -> Convolution8 (in-place)
I0925 11:03:16.605940  2600 net.cpp:122] Setting up BatchNorm8
I0925 11:03:16.605947  2600 net.cpp:129] Top shape: 100 16 28 28 (1254400)
I0925 11:03:16.605949  2600 net.cpp:137] Memory required for data: 206662800
I0925 11:03:16.605954  2600 layer_factory.hpp:77] Creating layer Scale8
I0925 11:03:16.605959  2600 net.cpp:84] Creating Layer Scale8
I0925 11:03:16.605962  2600 net.cpp:406] Scale8 <- Convolution8
I0925 11:03:16.605967  2600 net.cpp:367] Scale8 -> Convolution8 (in-place)
I0925 11:03:16.605993  2600 layer_factory.hpp:77] Creating layer Scale8
I0925 11:03:16.606067  2600 net.cpp:122] Setting up Scale8
I0925 11:03:16.606073  2600 net.cpp:129] Top shape: 100 16 28 28 (1254400)
I0925 11:03:16.606076  2600 net.cpp:137] Memory required for data: 211680400
I0925 11:03:16.606081  2600 layer_factory.hpp:77] Creating layer penlu8
I0925 11:03:16.606096  2600 net.cpp:84] Creating Layer penlu8
I0925 11:03:16.606099  2600 net.cpp:406] penlu8 <- Convolution8
I0925 11:03:16.606103  2600 net.cpp:367] penlu8 -> Convolution8 (in-place)
I0925 11:03:16.606214  2600 net.cpp:122] Setting up penlu8
I0925 11:03:16.606220  2600 net.cpp:129] Top shape: 100 16 28 28 (1254400)
I0925 11:03:16.606222  2600 net.cpp:137] Memory required for data: 216698000
I0925 11:03:16.606236  2600 layer_factory.hpp:77] Creating layer Convolution9
I0925 11:03:16.606245  2600 net.cpp:84] Creating Layer Convolution9
I0925 11:03:16.606253  2600 net.cpp:406] Convolution9 <- Convolution8
I0925 11:03:16.606259  2600 net.cpp:380] Convolution9 -> Convolution9
I0925 11:03:16.607408  2600 net.cpp:122] Setting up Convolution9
I0925 11:03:16.607421  2600 net.cpp:129] Top shape: 100 16 28 28 (1254400)
I0925 11:03:16.607427  2600 net.cpp:137] Memory required for data: 221715600
I0925 11:03:16.607434  2600 layer_factory.hpp:77] Creating layer BatchNorm9
I0925 11:03:16.607444  2600 net.cpp:84] Creating Layer BatchNorm9
I0925 11:03:16.607448  2600 net.cpp:406] BatchNorm9 <- Convolution9
I0925 11:03:16.607455  2600 net.cpp:367] BatchNorm9 -> Convolution9 (in-place)
I0925 11:03:16.607635  2600 net.cpp:122] Setting up BatchNorm9
I0925 11:03:16.607645  2600 net.cpp:129] Top shape: 100 16 28 28 (1254400)
I0925 11:03:16.607657  2600 net.cpp:137] Memory required for data: 226733200
I0925 11:03:16.607662  2600 layer_factory.hpp:77] Creating layer Scale9
I0925 11:03:16.607667  2600 net.cpp:84] Creating Layer Scale9
I0925 11:03:16.607671  2600 net.cpp:406] Scale9 <- Convolution9
I0925 11:03:16.607676  2600 net.cpp:367] Scale9 -> Convolution9 (in-place)
I0925 11:03:16.607727  2600 layer_factory.hpp:77] Creating layer Scale9
I0925 11:03:16.607877  2600 net.cpp:122] Setting up Scale9
I0925 11:03:16.607897  2600 net.cpp:129] Top shape: 100 16 28 28 (1254400)
I0925 11:03:16.607902  2600 net.cpp:137] Memory required for data: 231750800
I0925 11:03:16.607918  2600 layer_factory.hpp:77] Creating layer Eltwise4
I0925 11:03:16.607926  2600 net.cpp:84] Creating Layer Eltwise4
I0925 11:03:16.607931  2600 net.cpp:406] Eltwise4 <- Eltwise3_penlu7_0_split_1
I0925 11:03:16.607936  2600 net.cpp:406] Eltwise4 <- Convolution9
I0925 11:03:16.607944  2600 net.cpp:380] Eltwise4 -> Eltwise4
I0925 11:03:16.607980  2600 net.cpp:122] Setting up Eltwise4
I0925 11:03:16.607988  2600 net.cpp:129] Top shape: 100 16 28 28 (1254400)
I0925 11:03:16.608001  2600 net.cpp:137] Memory required for data: 236768400
I0925 11:03:16.608006  2600 layer_factory.hpp:77] Creating layer penlu9
I0925 11:03:16.608014  2600 net.cpp:84] Creating Layer penlu9
I0925 11:03:16.608021  2600 net.cpp:406] penlu9 <- Eltwise4
I0925 11:03:16.608028  2600 net.cpp:367] penlu9 -> Eltwise4 (in-place)
I0925 11:03:16.608217  2600 net.cpp:122] Setting up penlu9
I0925 11:03:16.608230  2600 net.cpp:129] Top shape: 100 16 28 28 (1254400)
I0925 11:03:16.608235  2600 net.cpp:137] Memory required for data: 241786000
I0925 11:03:16.608243  2600 layer_factory.hpp:77] Creating layer Eltwise4_penlu9_0_split
I0925 11:03:16.608253  2600 net.cpp:84] Creating Layer Eltwise4_penlu9_0_split
I0925 11:03:16.608258  2600 net.cpp:406] Eltwise4_penlu9_0_split <- Eltwise4
I0925 11:03:16.608264  2600 net.cpp:380] Eltwise4_penlu9_0_split -> Eltwise4_penlu9_0_split_0
I0925 11:03:16.608271  2600 net.cpp:380] Eltwise4_penlu9_0_split -> Eltwise4_penlu9_0_split_1
I0925 11:03:16.608306  2600 net.cpp:122] Setting up Eltwise4_penlu9_0_split
I0925 11:03:16.608314  2600 net.cpp:129] Top shape: 100 16 28 28 (1254400)
I0925 11:03:16.608319  2600 net.cpp:129] Top shape: 100 16 28 28 (1254400)
I0925 11:03:16.608324  2600 net.cpp:137] Memory required for data: 251821200
I0925 11:03:16.608328  2600 layer_factory.hpp:77] Creating layer Convolution10
I0925 11:03:16.608345  2600 net.cpp:84] Creating Layer Convolution10
I0925 11:03:16.608350  2600 net.cpp:406] Convolution10 <- Eltwise4_penlu9_0_split_0
I0925 11:03:16.608355  2600 net.cpp:380] Convolution10 -> Convolution10
I0925 11:03:16.609247  2600 net.cpp:122] Setting up Convolution10
I0925 11:03:16.609258  2600 net.cpp:129] Top shape: 100 16 28 28 (1254400)
I0925 11:03:16.609263  2600 net.cpp:137] Memory required for data: 256838800
I0925 11:03:16.609272  2600 layer_factory.hpp:77] Creating layer BatchNorm10
I0925 11:03:16.609279  2600 net.cpp:84] Creating Layer BatchNorm10
I0925 11:03:16.609283  2600 net.cpp:406] BatchNorm10 <- Convolution10
I0925 11:03:16.609289  2600 net.cpp:367] BatchNorm10 -> Convolution10 (in-place)
I0925 11:03:16.609421  2600 net.cpp:122] Setting up BatchNorm10
I0925 11:03:16.609434  2600 net.cpp:129] Top shape: 100 16 28 28 (1254400)
I0925 11:03:16.609449  2600 net.cpp:137] Memory required for data: 261856400
I0925 11:03:16.609457  2600 layer_factory.hpp:77] Creating layer Scale10
I0925 11:03:16.609463  2600 net.cpp:84] Creating Layer Scale10
I0925 11:03:16.609468  2600 net.cpp:406] Scale10 <- Convolution10
I0925 11:03:16.609473  2600 net.cpp:367] Scale10 -> Convolution10 (in-place)
I0925 11:03:16.609513  2600 layer_factory.hpp:77] Creating layer Scale10
I0925 11:03:16.609614  2600 net.cpp:122] Setting up Scale10
I0925 11:03:16.609622  2600 net.cpp:129] Top shape: 100 16 28 28 (1254400)
I0925 11:03:16.609624  2600 net.cpp:137] Memory required for data: 266874000
I0925 11:03:16.609630  2600 layer_factory.hpp:77] Creating layer penlu10
I0925 11:03:16.609638  2600 net.cpp:84] Creating Layer penlu10
I0925 11:03:16.609642  2600 net.cpp:406] penlu10 <- Convolution10
I0925 11:03:16.609648  2600 net.cpp:367] penlu10 -> Convolution10 (in-place)
I0925 11:03:16.609760  2600 net.cpp:122] Setting up penlu10
I0925 11:03:16.609766  2600 net.cpp:129] Top shape: 100 16 28 28 (1254400)
I0925 11:03:16.609768  2600 net.cpp:137] Memory required for data: 271891600
I0925 11:03:16.609786  2600 layer_factory.hpp:77] Creating layer Convolution11
I0925 11:03:16.609794  2600 net.cpp:84] Creating Layer Convolution11
I0925 11:03:16.609798  2600 net.cpp:406] Convolution11 <- Convolution10
I0925 11:03:16.609804  2600 net.cpp:380] Convolution11 -> Convolution11
I0925 11:03:16.610743  2600 net.cpp:122] Setting up Convolution11
I0925 11:03:16.610754  2600 net.cpp:129] Top shape: 100 16 28 28 (1254400)
I0925 11:03:16.610756  2600 net.cpp:137] Memory required for data: 276909200
I0925 11:03:16.610764  2600 layer_factory.hpp:77] Creating layer BatchNorm11
I0925 11:03:16.610771  2600 net.cpp:84] Creating Layer BatchNorm11
I0925 11:03:16.610775  2600 net.cpp:406] BatchNorm11 <- Convolution11
I0925 11:03:16.610780  2600 net.cpp:367] BatchNorm11 -> Convolution11 (in-place)
I0925 11:03:16.610908  2600 net.cpp:122] Setting up BatchNorm11
I0925 11:03:16.610915  2600 net.cpp:129] Top shape: 100 16 28 28 (1254400)
I0925 11:03:16.610919  2600 net.cpp:137] Memory required for data: 281926800
I0925 11:03:16.610926  2600 layer_factory.hpp:77] Creating layer Scale11
I0925 11:03:16.610932  2600 net.cpp:84] Creating Layer Scale11
I0925 11:03:16.610936  2600 net.cpp:406] Scale11 <- Convolution11
I0925 11:03:16.610941  2600 net.cpp:367] Scale11 -> Convolution11 (in-place)
I0925 11:03:16.610971  2600 layer_factory.hpp:77] Creating layer Scale11
I0925 11:03:16.611048  2600 net.cpp:122] Setting up Scale11
I0925 11:03:16.611055  2600 net.cpp:129] Top shape: 100 16 28 28 (1254400)
I0925 11:03:16.611059  2600 net.cpp:137] Memory required for data: 286944400
I0925 11:03:16.611065  2600 layer_factory.hpp:77] Creating layer Eltwise5
I0925 11:03:16.611071  2600 net.cpp:84] Creating Layer Eltwise5
I0925 11:03:16.611075  2600 net.cpp:406] Eltwise5 <- Eltwise4_penlu9_0_split_1
I0925 11:03:16.611080  2600 net.cpp:406] Eltwise5 <- Convolution11
I0925 11:03:16.611086  2600 net.cpp:380] Eltwise5 -> Eltwise5
I0925 11:03:16.611105  2600 net.cpp:122] Setting up Eltwise5
I0925 11:03:16.611110  2600 net.cpp:129] Top shape: 100 16 28 28 (1254400)
I0925 11:03:16.611114  2600 net.cpp:137] Memory required for data: 291962000
I0925 11:03:16.611117  2600 layer_factory.hpp:77] Creating layer penlu11
I0925 11:03:16.611125  2600 net.cpp:84] Creating Layer penlu11
I0925 11:03:16.611129  2600 net.cpp:406] penlu11 <- Eltwise5
I0925 11:03:16.611133  2600 net.cpp:367] penlu11 -> Eltwise5 (in-place)
I0925 11:03:16.611243  2600 net.cpp:122] Setting up penlu11
I0925 11:03:16.611248  2600 net.cpp:129] Top shape: 100 16 28 28 (1254400)
I0925 11:03:16.611253  2600 net.cpp:137] Memory required for data: 296979600
I0925 11:03:16.611259  2600 layer_factory.hpp:77] Creating layer Eltwise5_penlu11_0_split
I0925 11:03:16.611263  2600 net.cpp:84] Creating Layer Eltwise5_penlu11_0_split
I0925 11:03:16.611268  2600 net.cpp:406] Eltwise5_penlu11_0_split <- Eltwise5
I0925 11:03:16.611281  2600 net.cpp:380] Eltwise5_penlu11_0_split -> Eltwise5_penlu11_0_split_0
I0925 11:03:16.611289  2600 net.cpp:380] Eltwise5_penlu11_0_split -> Eltwise5_penlu11_0_split_1
I0925 11:03:16.611313  2600 net.cpp:122] Setting up Eltwise5_penlu11_0_split
I0925 11:03:16.611320  2600 net.cpp:129] Top shape: 100 16 28 28 (1254400)
I0925 11:03:16.611325  2600 net.cpp:129] Top shape: 100 16 28 28 (1254400)
I0925 11:03:16.611328  2600 net.cpp:137] Memory required for data: 307014800
I0925 11:03:16.611331  2600 layer_factory.hpp:77] Creating layer Convolution12
I0925 11:03:16.611341  2600 net.cpp:84] Creating Layer Convolution12
I0925 11:03:16.611344  2600 net.cpp:406] Convolution12 <- Eltwise5_penlu11_0_split_0
I0925 11:03:16.611351  2600 net.cpp:380] Convolution12 -> Convolution12
I0925 11:03:16.612221  2600 net.cpp:122] Setting up Convolution12
I0925 11:03:16.612232  2600 net.cpp:129] Top shape: 100 16 28 28 (1254400)
I0925 11:03:16.612237  2600 net.cpp:137] Memory required for data: 312032400
I0925 11:03:16.612244  2600 layer_factory.hpp:77] Creating layer BatchNorm12
I0925 11:03:16.612252  2600 net.cpp:84] Creating Layer BatchNorm12
I0925 11:03:16.612257  2600 net.cpp:406] BatchNorm12 <- Convolution12
I0925 11:03:16.612262  2600 net.cpp:367] BatchNorm12 -> Convolution12 (in-place)
I0925 11:03:16.612390  2600 net.cpp:122] Setting up BatchNorm12
I0925 11:03:16.612396  2600 net.cpp:129] Top shape: 100 16 28 28 (1254400)
I0925 11:03:16.612401  2600 net.cpp:137] Memory required for data: 317050000
I0925 11:03:16.612408  2600 layer_factory.hpp:77] Creating layer Scale12
I0925 11:03:16.612416  2600 net.cpp:84] Creating Layer Scale12
I0925 11:03:16.612419  2600 net.cpp:406] Scale12 <- Convolution12
I0925 11:03:16.612424  2600 net.cpp:367] Scale12 -> Convolution12 (in-place)
I0925 11:03:16.612452  2600 layer_factory.hpp:77] Creating layer Scale12
I0925 11:03:16.612538  2600 net.cpp:122] Setting up Scale12
I0925 11:03:16.612545  2600 net.cpp:129] Top shape: 100 16 28 28 (1254400)
I0925 11:03:16.612550  2600 net.cpp:137] Memory required for data: 322067600
I0925 11:03:16.612556  2600 layer_factory.hpp:77] Creating layer penlu12
I0925 11:03:16.612565  2600 net.cpp:84] Creating Layer penlu12
I0925 11:03:16.612567  2600 net.cpp:406] penlu12 <- Convolution12
I0925 11:03:16.612572  2600 net.cpp:367] penlu12 -> Convolution12 (in-place)
I0925 11:03:16.612680  2600 net.cpp:122] Setting up penlu12
I0925 11:03:16.612687  2600 net.cpp:129] Top shape: 100 16 28 28 (1254400)
I0925 11:03:16.612691  2600 net.cpp:137] Memory required for data: 327085200
I0925 11:03:16.612699  2600 layer_factory.hpp:77] Creating layer Convolution13
I0925 11:03:16.612707  2600 net.cpp:84] Creating Layer Convolution13
I0925 11:03:16.612711  2600 net.cpp:406] Convolution13 <- Convolution12
I0925 11:03:16.612717  2600 net.cpp:380] Convolution13 -> Convolution13
I0925 11:03:16.613581  2600 net.cpp:122] Setting up Convolution13
I0925 11:03:16.613592  2600 net.cpp:129] Top shape: 100 16 28 28 (1254400)
I0925 11:03:16.613597  2600 net.cpp:137] Memory required for data: 332102800
I0925 11:03:16.613605  2600 layer_factory.hpp:77] Creating layer BatchNorm13
I0925 11:03:16.613612  2600 net.cpp:84] Creating Layer BatchNorm13
I0925 11:03:16.613616  2600 net.cpp:406] BatchNorm13 <- Convolution13
I0925 11:03:16.613623  2600 net.cpp:367] BatchNorm13 -> Convolution13 (in-place)
I0925 11:03:16.613762  2600 net.cpp:122] Setting up BatchNorm13
I0925 11:03:16.613770  2600 net.cpp:129] Top shape: 100 16 28 28 (1254400)
I0925 11:03:16.613773  2600 net.cpp:137] Memory required for data: 337120400
I0925 11:03:16.613790  2600 layer_factory.hpp:77] Creating layer Scale13
I0925 11:03:16.613796  2600 net.cpp:84] Creating Layer Scale13
I0925 11:03:16.613801  2600 net.cpp:406] Scale13 <- Convolution13
I0925 11:03:16.613806  2600 net.cpp:367] Scale13 -> Convolution13 (in-place)
I0925 11:03:16.613836  2600 layer_factory.hpp:77] Creating layer Scale13
I0925 11:03:16.613914  2600 net.cpp:122] Setting up Scale13
I0925 11:03:16.613920  2600 net.cpp:129] Top shape: 100 16 28 28 (1254400)
I0925 11:03:16.613931  2600 net.cpp:137] Memory required for data: 342138000
I0925 11:03:16.613939  2600 layer_factory.hpp:77] Creating layer Eltwise6
I0925 11:03:16.613945  2600 net.cpp:84] Creating Layer Eltwise6
I0925 11:03:16.613950  2600 net.cpp:406] Eltwise6 <- Eltwise5_penlu11_0_split_1
I0925 11:03:16.613955  2600 net.cpp:406] Eltwise6 <- Convolution13
I0925 11:03:16.613961  2600 net.cpp:380] Eltwise6 -> Eltwise6
I0925 11:03:16.613981  2600 net.cpp:122] Setting up Eltwise6
I0925 11:03:16.613989  2600 net.cpp:129] Top shape: 100 16 28 28 (1254400)
I0925 11:03:16.613992  2600 net.cpp:137] Memory required for data: 347155600
I0925 11:03:16.613996  2600 layer_factory.hpp:77] Creating layer penlu13
I0925 11:03:16.614006  2600 net.cpp:84] Creating Layer penlu13
I0925 11:03:16.614009  2600 net.cpp:406] penlu13 <- Eltwise6
I0925 11:03:16.614017  2600 net.cpp:367] penlu13 -> Eltwise6 (in-place)
I0925 11:03:16.614123  2600 net.cpp:122] Setting up penlu13
I0925 11:03:16.614131  2600 net.cpp:129] Top shape: 100 16 28 28 (1254400)
I0925 11:03:16.614135  2600 net.cpp:137] Memory required for data: 352173200
I0925 11:03:16.614151  2600 layer_factory.hpp:77] Creating layer Eltwise6_penlu13_0_split
I0925 11:03:16.614156  2600 net.cpp:84] Creating Layer Eltwise6_penlu13_0_split
I0925 11:03:16.614161  2600 net.cpp:406] Eltwise6_penlu13_0_split <- Eltwise6
I0925 11:03:16.614166  2600 net.cpp:380] Eltwise6_penlu13_0_split -> Eltwise6_penlu13_0_split_0
I0925 11:03:16.614173  2600 net.cpp:380] Eltwise6_penlu13_0_split -> Eltwise6_penlu13_0_split_1
I0925 11:03:16.614199  2600 net.cpp:122] Setting up Eltwise6_penlu13_0_split
I0925 11:03:16.614204  2600 net.cpp:129] Top shape: 100 16 28 28 (1254400)
I0925 11:03:16.614209  2600 net.cpp:129] Top shape: 100 16 28 28 (1254400)
I0925 11:03:16.614213  2600 net.cpp:137] Memory required for data: 362208400
I0925 11:03:16.614217  2600 layer_factory.hpp:77] Creating layer Convolution14
I0925 11:03:16.614224  2600 net.cpp:84] Creating Layer Convolution14
I0925 11:03:16.614228  2600 net.cpp:406] Convolution14 <- Eltwise6_penlu13_0_split_0
I0925 11:03:16.614233  2600 net.cpp:380] Convolution14 -> Convolution14
I0925 11:03:16.615093  2600 net.cpp:122] Setting up Convolution14
I0925 11:03:16.615103  2600 net.cpp:129] Top shape: 100 16 28 28 (1254400)
I0925 11:03:16.615105  2600 net.cpp:137] Memory required for data: 367226000
I0925 11:03:16.615110  2600 layer_factory.hpp:77] Creating layer BatchNorm14
I0925 11:03:16.615115  2600 net.cpp:84] Creating Layer BatchNorm14
I0925 11:03:16.615118  2600 net.cpp:406] BatchNorm14 <- Convolution14
I0925 11:03:16.615121  2600 net.cpp:367] BatchNorm14 -> Convolution14 (in-place)
I0925 11:03:16.615252  2600 net.cpp:122] Setting up BatchNorm14
I0925 11:03:16.615257  2600 net.cpp:129] Top shape: 100 16 28 28 (1254400)
I0925 11:03:16.615258  2600 net.cpp:137] Memory required for data: 372243600
I0925 11:03:16.615262  2600 layer_factory.hpp:77] Creating layer Scale14
I0925 11:03:16.615267  2600 net.cpp:84] Creating Layer Scale14
I0925 11:03:16.615269  2600 net.cpp:406] Scale14 <- Convolution14
I0925 11:03:16.615272  2600 net.cpp:367] Scale14 -> Convolution14 (in-place)
I0925 11:03:16.615298  2600 layer_factory.hpp:77] Creating layer Scale14
I0925 11:03:16.615371  2600 net.cpp:122] Setting up Scale14
I0925 11:03:16.615376  2600 net.cpp:129] Top shape: 100 16 28 28 (1254400)
I0925 11:03:16.615378  2600 net.cpp:137] Memory required for data: 377261200
I0925 11:03:16.615382  2600 layer_factory.hpp:77] Creating layer penlu14
I0925 11:03:16.615387  2600 net.cpp:84] Creating Layer penlu14
I0925 11:03:16.615391  2600 net.cpp:406] penlu14 <- Convolution14
I0925 11:03:16.615393  2600 net.cpp:367] penlu14 -> Convolution14 (in-place)
I0925 11:03:16.615495  2600 net.cpp:122] Setting up penlu14
I0925 11:03:16.615499  2600 net.cpp:129] Top shape: 100 16 28 28 (1254400)
I0925 11:03:16.615501  2600 net.cpp:137] Memory required for data: 382278800
I0925 11:03:16.615505  2600 layer_factory.hpp:77] Creating layer Convolution15
I0925 11:03:16.615512  2600 net.cpp:84] Creating Layer Convolution15
I0925 11:03:16.615521  2600 net.cpp:406] Convolution15 <- Convolution14
I0925 11:03:16.615525  2600 net.cpp:380] Convolution15 -> Convolution15
I0925 11:03:16.616405  2600 net.cpp:122] Setting up Convolution15
I0925 11:03:16.616415  2600 net.cpp:129] Top shape: 100 16 28 28 (1254400)
I0925 11:03:16.616417  2600 net.cpp:137] Memory required for data: 387296400
I0925 11:03:16.616421  2600 layer_factory.hpp:77] Creating layer BatchNorm15
I0925 11:03:16.616426  2600 net.cpp:84] Creating Layer BatchNorm15
I0925 11:03:16.616430  2600 net.cpp:406] BatchNorm15 <- Convolution15
I0925 11:03:16.616433  2600 net.cpp:367] BatchNorm15 -> Convolution15 (in-place)
I0925 11:03:16.616564  2600 net.cpp:122] Setting up BatchNorm15
I0925 11:03:16.616569  2600 net.cpp:129] Top shape: 100 16 28 28 (1254400)
I0925 11:03:16.616571  2600 net.cpp:137] Memory required for data: 392314000
I0925 11:03:16.616576  2600 layer_factory.hpp:77] Creating layer Scale15
I0925 11:03:16.616581  2600 net.cpp:84] Creating Layer Scale15
I0925 11:03:16.616585  2600 net.cpp:406] Scale15 <- Convolution15
I0925 11:03:16.616587  2600 net.cpp:367] Scale15 -> Convolution15 (in-place)
I0925 11:03:16.616612  2600 layer_factory.hpp:77] Creating layer Scale15
I0925 11:03:16.616688  2600 net.cpp:122] Setting up Scale15
I0925 11:03:16.616691  2600 net.cpp:129] Top shape: 100 16 28 28 (1254400)
I0925 11:03:16.616693  2600 net.cpp:137] Memory required for data: 397331600
I0925 11:03:16.616698  2600 layer_factory.hpp:77] Creating layer Eltwise7
I0925 11:03:16.616701  2600 net.cpp:84] Creating Layer Eltwise7
I0925 11:03:16.616703  2600 net.cpp:406] Eltwise7 <- Eltwise6_penlu13_0_split_1
I0925 11:03:16.616706  2600 net.cpp:406] Eltwise7 <- Convolution15
I0925 11:03:16.616710  2600 net.cpp:380] Eltwise7 -> Eltwise7
I0925 11:03:16.616725  2600 net.cpp:122] Setting up Eltwise7
I0925 11:03:16.616729  2600 net.cpp:129] Top shape: 100 16 28 28 (1254400)
I0925 11:03:16.616732  2600 net.cpp:137] Memory required for data: 402349200
I0925 11:03:16.616734  2600 layer_factory.hpp:77] Creating layer penlu15
I0925 11:03:16.616739  2600 net.cpp:84] Creating Layer penlu15
I0925 11:03:16.616741  2600 net.cpp:406] penlu15 <- Eltwise7
I0925 11:03:16.616745  2600 net.cpp:367] penlu15 -> Eltwise7 (in-place)
I0925 11:03:16.616848  2600 net.cpp:122] Setting up penlu15
I0925 11:03:16.616853  2600 net.cpp:129] Top shape: 100 16 28 28 (1254400)
I0925 11:03:16.616855  2600 net.cpp:137] Memory required for data: 407366800
I0925 11:03:16.616859  2600 layer_factory.hpp:77] Creating layer Eltwise7_penlu15_0_split
I0925 11:03:16.616863  2600 net.cpp:84] Creating Layer Eltwise7_penlu15_0_split
I0925 11:03:16.616865  2600 net.cpp:406] Eltwise7_penlu15_0_split <- Eltwise7
I0925 11:03:16.616868  2600 net.cpp:380] Eltwise7_penlu15_0_split -> Eltwise7_penlu15_0_split_0
I0925 11:03:16.616873  2600 net.cpp:380] Eltwise7_penlu15_0_split -> Eltwise7_penlu15_0_split_1
I0925 11:03:16.616894  2600 net.cpp:122] Setting up Eltwise7_penlu15_0_split
I0925 11:03:16.616899  2600 net.cpp:129] Top shape: 100 16 28 28 (1254400)
I0925 11:03:16.616900  2600 net.cpp:129] Top shape: 100 16 28 28 (1254400)
I0925 11:03:16.616902  2600 net.cpp:137] Memory required for data: 417402000
I0925 11:03:16.616904  2600 layer_factory.hpp:77] Creating layer Convolution16
I0925 11:03:16.616911  2600 net.cpp:84] Creating Layer Convolution16
I0925 11:03:16.616914  2600 net.cpp:406] Convolution16 <- Eltwise7_penlu15_0_split_0
I0925 11:03:16.616917  2600 net.cpp:380] Convolution16 -> Convolution16
I0925 11:03:16.617772  2600 net.cpp:122] Setting up Convolution16
I0925 11:03:16.617781  2600 net.cpp:129] Top shape: 100 16 28 28 (1254400)
I0925 11:03:16.617784  2600 net.cpp:137] Memory required for data: 422419600
I0925 11:03:16.617789  2600 layer_factory.hpp:77] Creating layer BatchNorm16
I0925 11:03:16.617794  2600 net.cpp:84] Creating Layer BatchNorm16
I0925 11:03:16.617795  2600 net.cpp:406] BatchNorm16 <- Convolution16
I0925 11:03:16.617800  2600 net.cpp:367] BatchNorm16 -> Convolution16 (in-place)
I0925 11:03:16.617926  2600 net.cpp:122] Setting up BatchNorm16
I0925 11:03:16.617938  2600 net.cpp:129] Top shape: 100 16 28 28 (1254400)
I0925 11:03:16.617940  2600 net.cpp:137] Memory required for data: 427437200
I0925 11:03:16.617945  2600 layer_factory.hpp:77] Creating layer Scale16
I0925 11:03:16.617950  2600 net.cpp:84] Creating Layer Scale16
I0925 11:03:16.617954  2600 net.cpp:406] Scale16 <- Convolution16
I0925 11:03:16.617956  2600 net.cpp:367] Scale16 -> Convolution16 (in-place)
I0925 11:03:16.617982  2600 layer_factory.hpp:77] Creating layer Scale16
I0925 11:03:16.618058  2600 net.cpp:122] Setting up Scale16
I0925 11:03:16.618063  2600 net.cpp:129] Top shape: 100 16 28 28 (1254400)
I0925 11:03:16.618065  2600 net.cpp:137] Memory required for data: 432454800
I0925 11:03:16.618069  2600 layer_factory.hpp:77] Creating layer penlu16
I0925 11:03:16.618074  2600 net.cpp:84] Creating Layer penlu16
I0925 11:03:16.618077  2600 net.cpp:406] penlu16 <- Convolution16
I0925 11:03:16.618079  2600 net.cpp:367] penlu16 -> Convolution16 (in-place)
I0925 11:03:16.618185  2600 net.cpp:122] Setting up penlu16
I0925 11:03:16.618190  2600 net.cpp:129] Top shape: 100 16 28 28 (1254400)
I0925 11:03:16.618191  2600 net.cpp:137] Memory required for data: 437472400
I0925 11:03:16.618196  2600 layer_factory.hpp:77] Creating layer Convolution17
I0925 11:03:16.618201  2600 net.cpp:84] Creating Layer Convolution17
I0925 11:03:16.618204  2600 net.cpp:406] Convolution17 <- Convolution16
I0925 11:03:16.618207  2600 net.cpp:380] Convolution17 -> Convolution17
I0925 11:03:16.618754  2600 net.cpp:122] Setting up Convolution17
I0925 11:03:16.618762  2600 net.cpp:129] Top shape: 100 16 28 28 (1254400)
I0925 11:03:16.618764  2600 net.cpp:137] Memory required for data: 442490000
I0925 11:03:16.618768  2600 layer_factory.hpp:77] Creating layer BatchNorm17
I0925 11:03:16.618773  2600 net.cpp:84] Creating Layer BatchNorm17
I0925 11:03:16.618777  2600 net.cpp:406] BatchNorm17 <- Convolution17
I0925 11:03:16.618779  2600 net.cpp:367] BatchNorm17 -> Convolution17 (in-place)
I0925 11:03:16.618906  2600 net.cpp:122] Setting up BatchNorm17
I0925 11:03:16.618911  2600 net.cpp:129] Top shape: 100 16 28 28 (1254400)
I0925 11:03:16.618912  2600 net.cpp:137] Memory required for data: 447507600
I0925 11:03:16.618917  2600 layer_factory.hpp:77] Creating layer Scale17
I0925 11:03:16.618921  2600 net.cpp:84] Creating Layer Scale17
I0925 11:03:16.618923  2600 net.cpp:406] Scale17 <- Convolution17
I0925 11:03:16.618927  2600 net.cpp:367] Scale17 -> Convolution17 (in-place)
I0925 11:03:16.618952  2600 layer_factory.hpp:77] Creating layer Scale17
I0925 11:03:16.619026  2600 net.cpp:122] Setting up Scale17
I0925 11:03:16.619031  2600 net.cpp:129] Top shape: 100 16 28 28 (1254400)
I0925 11:03:16.619033  2600 net.cpp:137] Memory required for data: 452525200
I0925 11:03:16.619037  2600 layer_factory.hpp:77] Creating layer Eltwise8
I0925 11:03:16.619042  2600 net.cpp:84] Creating Layer Eltwise8
I0925 11:03:16.619045  2600 net.cpp:406] Eltwise8 <- Eltwise7_penlu15_0_split_1
I0925 11:03:16.619047  2600 net.cpp:406] Eltwise8 <- Convolution17
I0925 11:03:16.619050  2600 net.cpp:380] Eltwise8 -> Eltwise8
I0925 11:03:16.619065  2600 net.cpp:122] Setting up Eltwise8
I0925 11:03:16.619069  2600 net.cpp:129] Top shape: 100 16 28 28 (1254400)
I0925 11:03:16.619071  2600 net.cpp:137] Memory required for data: 457542800
I0925 11:03:16.619073  2600 layer_factory.hpp:77] Creating layer penlu17
I0925 11:03:16.619078  2600 net.cpp:84] Creating Layer penlu17
I0925 11:03:16.619081  2600 net.cpp:406] penlu17 <- Eltwise8
I0925 11:03:16.619083  2600 net.cpp:367] penlu17 -> Eltwise8 (in-place)
I0925 11:03:16.619189  2600 net.cpp:122] Setting up penlu17
I0925 11:03:16.619194  2600 net.cpp:129] Top shape: 100 16 28 28 (1254400)
I0925 11:03:16.619195  2600 net.cpp:137] Memory required for data: 462560400
I0925 11:03:16.619200  2600 layer_factory.hpp:77] Creating layer Eltwise8_penlu17_0_split
I0925 11:03:16.619204  2600 net.cpp:84] Creating Layer Eltwise8_penlu17_0_split
I0925 11:03:16.619206  2600 net.cpp:406] Eltwise8_penlu17_0_split <- Eltwise8
I0925 11:03:16.619215  2600 net.cpp:380] Eltwise8_penlu17_0_split -> Eltwise8_penlu17_0_split_0
I0925 11:03:16.619220  2600 net.cpp:380] Eltwise8_penlu17_0_split -> Eltwise8_penlu17_0_split_1
I0925 11:03:16.619242  2600 net.cpp:122] Setting up Eltwise8_penlu17_0_split
I0925 11:03:16.619246  2600 net.cpp:129] Top shape: 100 16 28 28 (1254400)
I0925 11:03:16.619249  2600 net.cpp:129] Top shape: 100 16 28 28 (1254400)
I0925 11:03:16.619251  2600 net.cpp:137] Memory required for data: 472595600
I0925 11:03:16.619253  2600 layer_factory.hpp:77] Creating layer Convolution18
I0925 11:03:16.619258  2600 net.cpp:84] Creating Layer Convolution18
I0925 11:03:16.619261  2600 net.cpp:406] Convolution18 <- Eltwise8_penlu17_0_split_0
I0925 11:03:16.619266  2600 net.cpp:380] Convolution18 -> Convolution18
I0925 11:03:16.620124  2600 net.cpp:122] Setting up Convolution18
I0925 11:03:16.620132  2600 net.cpp:129] Top shape: 100 16 28 28 (1254400)
I0925 11:03:16.620136  2600 net.cpp:137] Memory required for data: 477613200
I0925 11:03:16.620139  2600 layer_factory.hpp:77] Creating layer BatchNorm18
I0925 11:03:16.620144  2600 net.cpp:84] Creating Layer BatchNorm18
I0925 11:03:16.620147  2600 net.cpp:406] BatchNorm18 <- Convolution18
I0925 11:03:16.620151  2600 net.cpp:367] BatchNorm18 -> Convolution18 (in-place)
I0925 11:03:16.620278  2600 net.cpp:122] Setting up BatchNorm18
I0925 11:03:16.620282  2600 net.cpp:129] Top shape: 100 16 28 28 (1254400)
I0925 11:03:16.620285  2600 net.cpp:137] Memory required for data: 482630800
I0925 11:03:16.620290  2600 layer_factory.hpp:77] Creating layer Scale18
I0925 11:03:16.620293  2600 net.cpp:84] Creating Layer Scale18
I0925 11:03:16.620296  2600 net.cpp:406] Scale18 <- Convolution18
I0925 11:03:16.620298  2600 net.cpp:367] Scale18 -> Convolution18 (in-place)
I0925 11:03:16.620326  2600 layer_factory.hpp:77] Creating layer Scale18
I0925 11:03:16.620400  2600 net.cpp:122] Setting up Scale18
I0925 11:03:16.620406  2600 net.cpp:129] Top shape: 100 16 28 28 (1254400)
I0925 11:03:16.620409  2600 net.cpp:137] Memory required for data: 487648400
I0925 11:03:16.620411  2600 layer_factory.hpp:77] Creating layer penlu18
I0925 11:03:16.620416  2600 net.cpp:84] Creating Layer penlu18
I0925 11:03:16.620419  2600 net.cpp:406] penlu18 <- Convolution18
I0925 11:03:16.620422  2600 net.cpp:367] penlu18 -> Convolution18 (in-place)
I0925 11:03:16.620533  2600 net.cpp:122] Setting up penlu18
I0925 11:03:16.620539  2600 net.cpp:129] Top shape: 100 16 28 28 (1254400)
I0925 11:03:16.620542  2600 net.cpp:137] Memory required for data: 492666000
I0925 11:03:16.620545  2600 layer_factory.hpp:77] Creating layer Convolution19
I0925 11:03:16.620553  2600 net.cpp:84] Creating Layer Convolution19
I0925 11:03:16.620554  2600 net.cpp:406] Convolution19 <- Convolution18
I0925 11:03:16.620558  2600 net.cpp:380] Convolution19 -> Convolution19
I0925 11:03:16.621434  2600 net.cpp:122] Setting up Convolution19
I0925 11:03:16.621443  2600 net.cpp:129] Top shape: 100 16 28 28 (1254400)
I0925 11:03:16.621445  2600 net.cpp:137] Memory required for data: 497683600
I0925 11:03:16.621449  2600 layer_factory.hpp:77] Creating layer BatchNorm19
I0925 11:03:16.621454  2600 net.cpp:84] Creating Layer BatchNorm19
I0925 11:03:16.621457  2600 net.cpp:406] BatchNorm19 <- Convolution19
I0925 11:03:16.621461  2600 net.cpp:367] BatchNorm19 -> Convolution19 (in-place)
I0925 11:03:16.621588  2600 net.cpp:122] Setting up BatchNorm19
I0925 11:03:16.621593  2600 net.cpp:129] Top shape: 100 16 28 28 (1254400)
I0925 11:03:16.621595  2600 net.cpp:137] Memory required for data: 502701200
I0925 11:03:16.621599  2600 layer_factory.hpp:77] Creating layer Scale19
I0925 11:03:16.621603  2600 net.cpp:84] Creating Layer Scale19
I0925 11:03:16.621606  2600 net.cpp:406] Scale19 <- Convolution19
I0925 11:03:16.621609  2600 net.cpp:367] Scale19 -> Convolution19 (in-place)
I0925 11:03:16.621635  2600 layer_factory.hpp:77] Creating layer Scale19
I0925 11:03:16.621711  2600 net.cpp:122] Setting up Scale19
I0925 11:03:16.621716  2600 net.cpp:129] Top shape: 100 16 28 28 (1254400)
I0925 11:03:16.621723  2600 net.cpp:137] Memory required for data: 507718800
I0925 11:03:16.621727  2600 layer_factory.hpp:77] Creating layer Eltwise9
I0925 11:03:16.621732  2600 net.cpp:84] Creating Layer Eltwise9
I0925 11:03:16.621736  2600 net.cpp:406] Eltwise9 <- Eltwise8_penlu17_0_split_1
I0925 11:03:16.621738  2600 net.cpp:406] Eltwise9 <- Convolution19
I0925 11:03:16.621742  2600 net.cpp:380] Eltwise9 -> Eltwise9
I0925 11:03:16.621757  2600 net.cpp:122] Setting up Eltwise9
I0925 11:03:16.621762  2600 net.cpp:129] Top shape: 100 16 28 28 (1254400)
I0925 11:03:16.621763  2600 net.cpp:137] Memory required for data: 512736400
I0925 11:03:16.621765  2600 layer_factory.hpp:77] Creating layer penlu19
I0925 11:03:16.621772  2600 net.cpp:84] Creating Layer penlu19
I0925 11:03:16.621773  2600 net.cpp:406] penlu19 <- Eltwise9
I0925 11:03:16.621776  2600 net.cpp:367] penlu19 -> Eltwise9 (in-place)
I0925 11:03:16.621883  2600 net.cpp:122] Setting up penlu19
I0925 11:03:16.621887  2600 net.cpp:129] Top shape: 100 16 28 28 (1254400)
I0925 11:03:16.621889  2600 net.cpp:137] Memory required for data: 517754000
I0925 11:03:16.621893  2600 layer_factory.hpp:77] Creating layer Eltwise9_penlu19_0_split
I0925 11:03:16.621897  2600 net.cpp:84] Creating Layer Eltwise9_penlu19_0_split
I0925 11:03:16.621899  2600 net.cpp:406] Eltwise9_penlu19_0_split <- Eltwise9
I0925 11:03:16.621903  2600 net.cpp:380] Eltwise9_penlu19_0_split -> Eltwise9_penlu19_0_split_0
I0925 11:03:16.621907  2600 net.cpp:380] Eltwise9_penlu19_0_split -> Eltwise9_penlu19_0_split_1
I0925 11:03:16.621928  2600 net.cpp:122] Setting up Eltwise9_penlu19_0_split
I0925 11:03:16.621933  2600 net.cpp:129] Top shape: 100 16 28 28 (1254400)
I0925 11:03:16.621937  2600 net.cpp:129] Top shape: 100 16 28 28 (1254400)
I0925 11:03:16.621938  2600 net.cpp:137] Memory required for data: 527789200
I0925 11:03:16.621940  2600 layer_factory.hpp:77] Creating layer Convolution20
I0925 11:03:16.621947  2600 net.cpp:84] Creating Layer Convolution20
I0925 11:03:16.621948  2600 net.cpp:406] Convolution20 <- Eltwise9_penlu19_0_split_0
I0925 11:03:16.621953  2600 net.cpp:380] Convolution20 -> Convolution20
I0925 11:03:16.623443  2600 net.cpp:122] Setting up Convolution20
I0925 11:03:16.623456  2600 net.cpp:129] Top shape: 100 32 14 14 (627200)
I0925 11:03:16.623459  2600 net.cpp:137] Memory required for data: 530298000
I0925 11:03:16.623467  2600 layer_factory.hpp:77] Creating layer BatchNorm20
I0925 11:03:16.623476  2600 net.cpp:84] Creating Layer BatchNorm20
I0925 11:03:16.623479  2600 net.cpp:406] BatchNorm20 <- Convolution20
I0925 11:03:16.623486  2600 net.cpp:367] BatchNorm20 -> Convolution20 (in-place)
I0925 11:03:16.623678  2600 net.cpp:122] Setting up BatchNorm20
I0925 11:03:16.623687  2600 net.cpp:129] Top shape: 100 32 14 14 (627200)
I0925 11:03:16.623690  2600 net.cpp:137] Memory required for data: 532806800
I0925 11:03:16.623699  2600 layer_factory.hpp:77] Creating layer Scale20
I0925 11:03:16.623708  2600 net.cpp:84] Creating Layer Scale20
I0925 11:03:16.623713  2600 net.cpp:406] Scale20 <- Convolution20
I0925 11:03:16.623718  2600 net.cpp:367] Scale20 -> Convolution20 (in-place)
I0925 11:03:16.623755  2600 layer_factory.hpp:77] Creating layer Scale20
I0925 11:03:16.623862  2600 net.cpp:122] Setting up Scale20
I0925 11:03:16.623869  2600 net.cpp:129] Top shape: 100 32 14 14 (627200)
I0925 11:03:16.623872  2600 net.cpp:137] Memory required for data: 535315600
I0925 11:03:16.623879  2600 layer_factory.hpp:77] Creating layer Convolution21
I0925 11:03:16.623890  2600 net.cpp:84] Creating Layer Convolution21
I0925 11:03:16.623894  2600 net.cpp:406] Convolution21 <- Eltwise9_penlu19_0_split_1
I0925 11:03:16.623901  2600 net.cpp:380] Convolution21 -> Convolution21
I0925 11:03:16.626010  2600 net.cpp:122] Setting up Convolution21
I0925 11:03:16.626020  2600 net.cpp:129] Top shape: 100 32 14 14 (627200)
I0925 11:03:16.626024  2600 net.cpp:137] Memory required for data: 537824400
I0925 11:03:16.626029  2600 layer_factory.hpp:77] Creating layer BatchNorm21
I0925 11:03:16.626034  2600 net.cpp:84] Creating Layer BatchNorm21
I0925 11:03:16.626044  2600 net.cpp:406] BatchNorm21 <- Convolution21
I0925 11:03:16.626047  2600 net.cpp:367] BatchNorm21 -> Convolution21 (in-place)
I0925 11:03:16.626180  2600 net.cpp:122] Setting up BatchNorm21
I0925 11:03:16.626185  2600 net.cpp:129] Top shape: 100 32 14 14 (627200)
I0925 11:03:16.626188  2600 net.cpp:137] Memory required for data: 540333200
I0925 11:03:16.626194  2600 layer_factory.hpp:77] Creating layer Scale21
I0925 11:03:16.626199  2600 net.cpp:84] Creating Layer Scale21
I0925 11:03:16.626200  2600 net.cpp:406] Scale21 <- Convolution21
I0925 11:03:16.626204  2600 net.cpp:367] Scale21 -> Convolution21 (in-place)
I0925 11:03:16.626230  2600 layer_factory.hpp:77] Creating layer Scale21
I0925 11:03:16.626305  2600 net.cpp:122] Setting up Scale21
I0925 11:03:16.626309  2600 net.cpp:129] Top shape: 100 32 14 14 (627200)
I0925 11:03:16.626312  2600 net.cpp:137] Memory required for data: 542842000
I0925 11:03:16.626315  2600 layer_factory.hpp:77] Creating layer penlu20
I0925 11:03:16.626322  2600 net.cpp:84] Creating Layer penlu20
I0925 11:03:16.626323  2600 net.cpp:406] penlu20 <- Convolution21
I0925 11:03:16.626327  2600 net.cpp:367] penlu20 -> Convolution21 (in-place)
I0925 11:03:16.626430  2600 net.cpp:122] Setting up penlu20
I0925 11:03:16.626435  2600 net.cpp:129] Top shape: 100 32 14 14 (627200)
I0925 11:03:16.626437  2600 net.cpp:137] Memory required for data: 545350800
I0925 11:03:16.626441  2600 layer_factory.hpp:77] Creating layer Convolution22
I0925 11:03:16.626448  2600 net.cpp:84] Creating Layer Convolution22
I0925 11:03:16.626451  2600 net.cpp:406] Convolution22 <- Convolution21
I0925 11:03:16.626454  2600 net.cpp:380] Convolution22 -> Convolution22
I0925 11:03:16.627667  2600 net.cpp:122] Setting up Convolution22
I0925 11:03:16.627677  2600 net.cpp:129] Top shape: 100 32 14 14 (627200)
I0925 11:03:16.627679  2600 net.cpp:137] Memory required for data: 547859600
I0925 11:03:16.627684  2600 layer_factory.hpp:77] Creating layer BatchNorm22
I0925 11:03:16.627691  2600 net.cpp:84] Creating Layer BatchNorm22
I0925 11:03:16.627694  2600 net.cpp:406] BatchNorm22 <- Convolution22
I0925 11:03:16.627698  2600 net.cpp:367] BatchNorm22 -> Convolution22 (in-place)
I0925 11:03:16.627832  2600 net.cpp:122] Setting up BatchNorm22
I0925 11:03:16.627837  2600 net.cpp:129] Top shape: 100 32 14 14 (627200)
I0925 11:03:16.627840  2600 net.cpp:137] Memory required for data: 550368400
I0925 11:03:16.627846  2600 layer_factory.hpp:77] Creating layer Scale22
I0925 11:03:16.627851  2600 net.cpp:84] Creating Layer Scale22
I0925 11:03:16.627852  2600 net.cpp:406] Scale22 <- Convolution22
I0925 11:03:16.627856  2600 net.cpp:367] Scale22 -> Convolution22 (in-place)
I0925 11:03:16.627884  2600 layer_factory.hpp:77] Creating layer Scale22
I0925 11:03:16.627960  2600 net.cpp:122] Setting up Scale22
I0925 11:03:16.627965  2600 net.cpp:129] Top shape: 100 32 14 14 (627200)
I0925 11:03:16.627967  2600 net.cpp:137] Memory required for data: 552877200
I0925 11:03:16.627971  2600 layer_factory.hpp:77] Creating layer Eltwise10
I0925 11:03:16.627976  2600 net.cpp:84] Creating Layer Eltwise10
I0925 11:03:16.627979  2600 net.cpp:406] Eltwise10 <- Convolution20
I0925 11:03:16.627981  2600 net.cpp:406] Eltwise10 <- Convolution22
I0925 11:03:16.627985  2600 net.cpp:380] Eltwise10 -> Eltwise10
I0925 11:03:16.628001  2600 net.cpp:122] Setting up Eltwise10
I0925 11:03:16.628005  2600 net.cpp:129] Top shape: 100 32 14 14 (627200)
I0925 11:03:16.628007  2600 net.cpp:137] Memory required for data: 555386000
I0925 11:03:16.628010  2600 layer_factory.hpp:77] Creating layer penlu21
I0925 11:03:16.628015  2600 net.cpp:84] Creating Layer penlu21
I0925 11:03:16.628017  2600 net.cpp:406] penlu21 <- Eltwise10
I0925 11:03:16.628021  2600 net.cpp:367] penlu21 -> Eltwise10 (in-place)
I0925 11:03:16.628126  2600 net.cpp:122] Setting up penlu21
I0925 11:03:16.628131  2600 net.cpp:129] Top shape: 100 32 14 14 (627200)
I0925 11:03:16.628134  2600 net.cpp:137] Memory required for data: 557894800
I0925 11:03:16.628139  2600 layer_factory.hpp:77] Creating layer Eltwise10_penlu21_0_split
I0925 11:03:16.628149  2600 net.cpp:84] Creating Layer Eltwise10_penlu21_0_split
I0925 11:03:16.628151  2600 net.cpp:406] Eltwise10_penlu21_0_split <- Eltwise10
I0925 11:03:16.628155  2600 net.cpp:380] Eltwise10_penlu21_0_split -> Eltwise10_penlu21_0_split_0
I0925 11:03:16.628159  2600 net.cpp:380] Eltwise10_penlu21_0_split -> Eltwise10_penlu21_0_split_1
I0925 11:03:16.628183  2600 net.cpp:122] Setting up Eltwise10_penlu21_0_split
I0925 11:03:16.628188  2600 net.cpp:129] Top shape: 100 32 14 14 (627200)
I0925 11:03:16.628190  2600 net.cpp:129] Top shape: 100 32 14 14 (627200)
I0925 11:03:16.628192  2600 net.cpp:137] Memory required for data: 562912400
I0925 11:03:16.628196  2600 layer_factory.hpp:77] Creating layer Convolution23
I0925 11:03:16.628201  2600 net.cpp:84] Creating Layer Convolution23
I0925 11:03:16.628203  2600 net.cpp:406] Convolution23 <- Eltwise10_penlu21_0_split_0
I0925 11:03:16.628207  2600 net.cpp:380] Convolution23 -> Convolution23
I0925 11:03:16.629585  2600 net.cpp:122] Setting up Convolution23
I0925 11:03:16.629595  2600 net.cpp:129] Top shape: 100 32 14 14 (627200)
I0925 11:03:16.629597  2600 net.cpp:137] Memory required for data: 565421200
I0925 11:03:16.629603  2600 layer_factory.hpp:77] Creating layer BatchNorm23
I0925 11:03:16.629607  2600 net.cpp:84] Creating Layer BatchNorm23
I0925 11:03:16.629611  2600 net.cpp:406] BatchNorm23 <- Convolution23
I0925 11:03:16.629614  2600 net.cpp:367] BatchNorm23 -> Convolution23 (in-place)
I0925 11:03:16.629753  2600 net.cpp:122] Setting up BatchNorm23
I0925 11:03:16.629758  2600 net.cpp:129] Top shape: 100 32 14 14 (627200)
I0925 11:03:16.629760  2600 net.cpp:137] Memory required for data: 567930000
I0925 11:03:16.629766  2600 layer_factory.hpp:77] Creating layer Scale23
I0925 11:03:16.629770  2600 net.cpp:84] Creating Layer Scale23
I0925 11:03:16.629772  2600 net.cpp:406] Scale23 <- Convolution23
I0925 11:03:16.629776  2600 net.cpp:367] Scale23 -> Convolution23 (in-place)
I0925 11:03:16.629802  2600 layer_factory.hpp:77] Creating layer Scale23
I0925 11:03:16.629884  2600 net.cpp:122] Setting up Scale23
I0925 11:03:16.629889  2600 net.cpp:129] Top shape: 100 32 14 14 (627200)
I0925 11:03:16.629890  2600 net.cpp:137] Memory required for data: 570438800
I0925 11:03:16.629894  2600 layer_factory.hpp:77] Creating layer penlu22
I0925 11:03:16.629899  2600 net.cpp:84] Creating Layer penlu22
I0925 11:03:16.629901  2600 net.cpp:406] penlu22 <- Convolution23
I0925 11:03:16.629905  2600 net.cpp:367] penlu22 -> Convolution23 (in-place)
I0925 11:03:16.630015  2600 net.cpp:122] Setting up penlu22
I0925 11:03:16.630020  2600 net.cpp:129] Top shape: 100 32 14 14 (627200)
I0925 11:03:16.630023  2600 net.cpp:137] Memory required for data: 572947600
I0925 11:03:16.630026  2600 layer_factory.hpp:77] Creating layer Convolution24
I0925 11:03:16.630033  2600 net.cpp:84] Creating Layer Convolution24
I0925 11:03:16.630035  2600 net.cpp:406] Convolution24 <- Convolution23
I0925 11:03:16.630039  2600 net.cpp:380] Convolution24 -> Convolution24
I0925 11:03:16.631098  2600 net.cpp:122] Setting up Convolution24
I0925 11:03:16.631108  2600 net.cpp:129] Top shape: 100 32 14 14 (627200)
I0925 11:03:16.631110  2600 net.cpp:137] Memory required for data: 575456400
I0925 11:03:16.631114  2600 layer_factory.hpp:77] Creating layer BatchNorm24
I0925 11:03:16.631119  2600 net.cpp:84] Creating Layer BatchNorm24
I0925 11:03:16.631122  2600 net.cpp:406] BatchNorm24 <- Convolution24
I0925 11:03:16.631126  2600 net.cpp:367] BatchNorm24 -> Convolution24 (in-place)
I0925 11:03:16.631264  2600 net.cpp:122] Setting up BatchNorm24
I0925 11:03:16.631269  2600 net.cpp:129] Top shape: 100 32 14 14 (627200)
I0925 11:03:16.631271  2600 net.cpp:137] Memory required for data: 577965200
I0925 11:03:16.631276  2600 layer_factory.hpp:77] Creating layer Scale24
I0925 11:03:16.631280  2600 net.cpp:84] Creating Layer Scale24
I0925 11:03:16.631283  2600 net.cpp:406] Scale24 <- Convolution24
I0925 11:03:16.631286  2600 net.cpp:367] Scale24 -> Convolution24 (in-place)
I0925 11:03:16.631322  2600 layer_factory.hpp:77] Creating layer Scale24
I0925 11:03:16.631402  2600 net.cpp:122] Setting up Scale24
I0925 11:03:16.631407  2600 net.cpp:129] Top shape: 100 32 14 14 (627200)
I0925 11:03:16.631410  2600 net.cpp:137] Memory required for data: 580474000
I0925 11:03:16.631414  2600 layer_factory.hpp:77] Creating layer Eltwise11
I0925 11:03:16.631417  2600 net.cpp:84] Creating Layer Eltwise11
I0925 11:03:16.631420  2600 net.cpp:406] Eltwise11 <- Eltwise10_penlu21_0_split_1
I0925 11:03:16.631423  2600 net.cpp:406] Eltwise11 <- Convolution24
I0925 11:03:16.631427  2600 net.cpp:380] Eltwise11 -> Eltwise11
I0925 11:03:16.631443  2600 net.cpp:122] Setting up Eltwise11
I0925 11:03:16.631448  2600 net.cpp:129] Top shape: 100 32 14 14 (627200)
I0925 11:03:16.631449  2600 net.cpp:137] Memory required for data: 582982800
I0925 11:03:16.631451  2600 layer_factory.hpp:77] Creating layer penlu23
I0925 11:03:16.631458  2600 net.cpp:84] Creating Layer penlu23
I0925 11:03:16.631459  2600 net.cpp:406] penlu23 <- Eltwise11
I0925 11:03:16.631464  2600 net.cpp:367] penlu23 -> Eltwise11 (in-place)
I0925 11:03:16.631574  2600 net.cpp:122] Setting up penlu23
I0925 11:03:16.631578  2600 net.cpp:129] Top shape: 100 32 14 14 (627200)
I0925 11:03:16.631580  2600 net.cpp:137] Memory required for data: 585491600
I0925 11:03:16.631585  2600 layer_factory.hpp:77] Creating layer Eltwise11_penlu23_0_split
I0925 11:03:16.631589  2600 net.cpp:84] Creating Layer Eltwise11_penlu23_0_split
I0925 11:03:16.631592  2600 net.cpp:406] Eltwise11_penlu23_0_split <- Eltwise11
I0925 11:03:16.631595  2600 net.cpp:380] Eltwise11_penlu23_0_split -> Eltwise11_penlu23_0_split_0
I0925 11:03:16.631600  2600 net.cpp:380] Eltwise11_penlu23_0_split -> Eltwise11_penlu23_0_split_1
I0925 11:03:16.631623  2600 net.cpp:122] Setting up Eltwise11_penlu23_0_split
I0925 11:03:16.631628  2600 net.cpp:129] Top shape: 100 32 14 14 (627200)
I0925 11:03:16.631630  2600 net.cpp:129] Top shape: 100 32 14 14 (627200)
I0925 11:03:16.631633  2600 net.cpp:137] Memory required for data: 590509200
I0925 11:03:16.631634  2600 layer_factory.hpp:77] Creating layer Convolution25
I0925 11:03:16.631640  2600 net.cpp:84] Creating Layer Convolution25
I0925 11:03:16.631642  2600 net.cpp:406] Convolution25 <- Eltwise11_penlu23_0_split_0
I0925 11:03:16.631647  2600 net.cpp:380] Convolution25 -> Convolution25
I0925 11:03:16.632740  2600 net.cpp:122] Setting up Convolution25
I0925 11:03:16.632748  2600 net.cpp:129] Top shape: 100 32 14 14 (627200)
I0925 11:03:16.632751  2600 net.cpp:137] Memory required for data: 593018000
I0925 11:03:16.632755  2600 layer_factory.hpp:77] Creating layer BatchNorm25
I0925 11:03:16.632761  2600 net.cpp:84] Creating Layer BatchNorm25
I0925 11:03:16.632763  2600 net.cpp:406] BatchNorm25 <- Convolution25
I0925 11:03:16.632767  2600 net.cpp:367] BatchNorm25 -> Convolution25 (in-place)
I0925 11:03:16.632901  2600 net.cpp:122] Setting up BatchNorm25
I0925 11:03:16.632905  2600 net.cpp:129] Top shape: 100 32 14 14 (627200)
I0925 11:03:16.632908  2600 net.cpp:137] Memory required for data: 595526800
I0925 11:03:16.632912  2600 layer_factory.hpp:77] Creating layer Scale25
I0925 11:03:16.632916  2600 net.cpp:84] Creating Layer Scale25
I0925 11:03:16.632920  2600 net.cpp:406] Scale25 <- Convolution25
I0925 11:03:16.632922  2600 net.cpp:367] Scale25 -> Convolution25 (in-place)
I0925 11:03:16.632949  2600 layer_factory.hpp:77] Creating layer Scale25
I0925 11:03:16.633024  2600 net.cpp:122] Setting up Scale25
I0925 11:03:16.633029  2600 net.cpp:129] Top shape: 100 32 14 14 (627200)
I0925 11:03:16.633031  2600 net.cpp:137] Memory required for data: 598035600
I0925 11:03:16.633035  2600 layer_factory.hpp:77] Creating layer penlu24
I0925 11:03:16.633040  2600 net.cpp:84] Creating Layer penlu24
I0925 11:03:16.633044  2600 net.cpp:406] penlu24 <- Convolution25
I0925 11:03:16.633047  2600 net.cpp:367] penlu24 -> Convolution25 (in-place)
I0925 11:03:16.633152  2600 net.cpp:122] Setting up penlu24
I0925 11:03:16.633157  2600 net.cpp:129] Top shape: 100 32 14 14 (627200)
I0925 11:03:16.633164  2600 net.cpp:137] Memory required for data: 600544400
I0925 11:03:16.633169  2600 layer_factory.hpp:77] Creating layer Convolution26
I0925 11:03:16.633177  2600 net.cpp:84] Creating Layer Convolution26
I0925 11:03:16.633179  2600 net.cpp:406] Convolution26 <- Convolution25
I0925 11:03:16.633183  2600 net.cpp:380] Convolution26 -> Convolution26
I0925 11:03:16.634213  2600 net.cpp:122] Setting up Convolution26
I0925 11:03:16.634222  2600 net.cpp:129] Top shape: 100 32 14 14 (627200)
I0925 11:03:16.634225  2600 net.cpp:137] Memory required for data: 603053200
I0925 11:03:16.634229  2600 layer_factory.hpp:77] Creating layer BatchNorm26
I0925 11:03:16.634234  2600 net.cpp:84] Creating Layer BatchNorm26
I0925 11:03:16.634238  2600 net.cpp:406] BatchNorm26 <- Convolution26
I0925 11:03:16.634241  2600 net.cpp:367] BatchNorm26 -> Convolution26 (in-place)
I0925 11:03:16.634376  2600 net.cpp:122] Setting up BatchNorm26
I0925 11:03:16.634380  2600 net.cpp:129] Top shape: 100 32 14 14 (627200)
I0925 11:03:16.634382  2600 net.cpp:137] Memory required for data: 605562000
I0925 11:03:16.634387  2600 layer_factory.hpp:77] Creating layer Scale26
I0925 11:03:16.634392  2600 net.cpp:84] Creating Layer Scale26
I0925 11:03:16.634394  2600 net.cpp:406] Scale26 <- Convolution26
I0925 11:03:16.634397  2600 net.cpp:367] Scale26 -> Convolution26 (in-place)
I0925 11:03:16.634423  2600 layer_factory.hpp:77] Creating layer Scale26
I0925 11:03:16.634502  2600 net.cpp:122] Setting up Scale26
I0925 11:03:16.634507  2600 net.cpp:129] Top shape: 100 32 14 14 (627200)
I0925 11:03:16.634519  2600 net.cpp:137] Memory required for data: 608070800
I0925 11:03:16.634524  2600 layer_factory.hpp:77] Creating layer Eltwise12
I0925 11:03:16.634527  2600 net.cpp:84] Creating Layer Eltwise12
I0925 11:03:16.634531  2600 net.cpp:406] Eltwise12 <- Eltwise11_penlu23_0_split_1
I0925 11:03:16.634533  2600 net.cpp:406] Eltwise12 <- Convolution26
I0925 11:03:16.634537  2600 net.cpp:380] Eltwise12 -> Eltwise12
I0925 11:03:16.634562  2600 net.cpp:122] Setting up Eltwise12
I0925 11:03:16.634567  2600 net.cpp:129] Top shape: 100 32 14 14 (627200)
I0925 11:03:16.634567  2600 net.cpp:137] Memory required for data: 610579600
I0925 11:03:16.634570  2600 layer_factory.hpp:77] Creating layer penlu25
I0925 11:03:16.634575  2600 net.cpp:84] Creating Layer penlu25
I0925 11:03:16.634577  2600 net.cpp:406] penlu25 <- Eltwise12
I0925 11:03:16.634580  2600 net.cpp:367] penlu25 -> Eltwise12 (in-place)
I0925 11:03:16.634690  2600 net.cpp:122] Setting up penlu25
I0925 11:03:16.634694  2600 net.cpp:129] Top shape: 100 32 14 14 (627200)
I0925 11:03:16.634696  2600 net.cpp:137] Memory required for data: 613088400
I0925 11:03:16.634718  2600 layer_factory.hpp:77] Creating layer Eltwise12_penlu25_0_split
I0925 11:03:16.634730  2600 net.cpp:84] Creating Layer Eltwise12_penlu25_0_split
I0925 11:03:16.634732  2600 net.cpp:406] Eltwise12_penlu25_0_split <- Eltwise12
I0925 11:03:16.634737  2600 net.cpp:380] Eltwise12_penlu25_0_split -> Eltwise12_penlu25_0_split_0
I0925 11:03:16.634744  2600 net.cpp:380] Eltwise12_penlu25_0_split -> Eltwise12_penlu25_0_split_1
I0925 11:03:16.634770  2600 net.cpp:122] Setting up Eltwise12_penlu25_0_split
I0925 11:03:16.634775  2600 net.cpp:129] Top shape: 100 32 14 14 (627200)
I0925 11:03:16.634778  2600 net.cpp:129] Top shape: 100 32 14 14 (627200)
I0925 11:03:16.634779  2600 net.cpp:137] Memory required for data: 618106000
I0925 11:03:16.634783  2600 layer_factory.hpp:77] Creating layer Convolution27
I0925 11:03:16.634788  2600 net.cpp:84] Creating Layer Convolution27
I0925 11:03:16.634791  2600 net.cpp:406] Convolution27 <- Eltwise12_penlu25_0_split_0
I0925 11:03:16.634794  2600 net.cpp:380] Convolution27 -> Convolution27
I0925 11:03:16.635519  2600 net.cpp:122] Setting up Convolution27
I0925 11:03:16.635526  2600 net.cpp:129] Top shape: 100 32 14 14 (627200)
I0925 11:03:16.635529  2600 net.cpp:137] Memory required for data: 620614800
I0925 11:03:16.635534  2600 layer_factory.hpp:77] Creating layer BatchNorm27
I0925 11:03:16.635540  2600 net.cpp:84] Creating Layer BatchNorm27
I0925 11:03:16.635550  2600 net.cpp:406] BatchNorm27 <- Convolution27
I0925 11:03:16.635553  2600 net.cpp:367] BatchNorm27 -> Convolution27 (in-place)
I0925 11:03:16.635705  2600 net.cpp:122] Setting up BatchNorm27
I0925 11:03:16.635711  2600 net.cpp:129] Top shape: 100 32 14 14 (627200)
I0925 11:03:16.635713  2600 net.cpp:137] Memory required for data: 623123600
I0925 11:03:16.635718  2600 layer_factory.hpp:77] Creating layer Scale27
I0925 11:03:16.635723  2600 net.cpp:84] Creating Layer Scale27
I0925 11:03:16.635725  2600 net.cpp:406] Scale27 <- Convolution27
I0925 11:03:16.635730  2600 net.cpp:367] Scale27 -> Convolution27 (in-place)
I0925 11:03:16.635759  2600 layer_factory.hpp:77] Creating layer Scale27
I0925 11:03:16.635844  2600 net.cpp:122] Setting up Scale27
I0925 11:03:16.635850  2600 net.cpp:129] Top shape: 100 32 14 14 (627200)
I0925 11:03:16.635852  2600 net.cpp:137] Memory required for data: 625632400
I0925 11:03:16.635856  2600 layer_factory.hpp:77] Creating layer penlu26
I0925 11:03:16.635861  2600 net.cpp:84] Creating Layer penlu26
I0925 11:03:16.635864  2600 net.cpp:406] penlu26 <- Convolution27
I0925 11:03:16.635867  2600 net.cpp:367] penlu26 -> Convolution27 (in-place)
I0925 11:03:16.635987  2600 net.cpp:122] Setting up penlu26
I0925 11:03:16.635993  2600 net.cpp:129] Top shape: 100 32 14 14 (627200)
I0925 11:03:16.635995  2600 net.cpp:137] Memory required for data: 628141200
I0925 11:03:16.635999  2600 layer_factory.hpp:77] Creating layer Convolution28
I0925 11:03:16.636006  2600 net.cpp:84] Creating Layer Convolution28
I0925 11:03:16.636009  2600 net.cpp:406] Convolution28 <- Convolution27
I0925 11:03:16.636014  2600 net.cpp:380] Convolution28 -> Convolution28
I0925 11:03:16.637112  2600 net.cpp:122] Setting up Convolution28
I0925 11:03:16.637121  2600 net.cpp:129] Top shape: 100 32 14 14 (627200)
I0925 11:03:16.637125  2600 net.cpp:137] Memory required for data: 630650000
I0925 11:03:16.637128  2600 layer_factory.hpp:77] Creating layer BatchNorm28
I0925 11:03:16.637135  2600 net.cpp:84] Creating Layer BatchNorm28
I0925 11:03:16.637137  2600 net.cpp:406] BatchNorm28 <- Convolution28
I0925 11:03:16.637141  2600 net.cpp:367] BatchNorm28 -> Convolution28 (in-place)
I0925 11:03:16.637279  2600 net.cpp:122] Setting up BatchNorm28
I0925 11:03:16.637282  2600 net.cpp:129] Top shape: 100 32 14 14 (627200)
I0925 11:03:16.637284  2600 net.cpp:137] Memory required for data: 633158800
I0925 11:03:16.637290  2600 layer_factory.hpp:77] Creating layer Scale28
I0925 11:03:16.637295  2600 net.cpp:84] Creating Layer Scale28
I0925 11:03:16.637296  2600 net.cpp:406] Scale28 <- Convolution28
I0925 11:03:16.637300  2600 net.cpp:367] Scale28 -> Convolution28 (in-place)
I0925 11:03:16.637326  2600 layer_factory.hpp:77] Creating layer Scale28
I0925 11:03:16.637404  2600 net.cpp:122] Setting up Scale28
I0925 11:03:16.637409  2600 net.cpp:129] Top shape: 100 32 14 14 (627200)
I0925 11:03:16.637411  2600 net.cpp:137] Memory required for data: 635667600
I0925 11:03:16.637415  2600 layer_factory.hpp:77] Creating layer Eltwise13
I0925 11:03:16.637419  2600 net.cpp:84] Creating Layer Eltwise13
I0925 11:03:16.637421  2600 net.cpp:406] Eltwise13 <- Eltwise12_penlu25_0_split_1
I0925 11:03:16.637424  2600 net.cpp:406] Eltwise13 <- Convolution28
I0925 11:03:16.637428  2600 net.cpp:380] Eltwise13 -> Eltwise13
I0925 11:03:16.637444  2600 net.cpp:122] Setting up Eltwise13
I0925 11:03:16.637447  2600 net.cpp:129] Top shape: 100 32 14 14 (627200)
I0925 11:03:16.637450  2600 net.cpp:137] Memory required for data: 638176400
I0925 11:03:16.637452  2600 layer_factory.hpp:77] Creating layer penlu27
I0925 11:03:16.637457  2600 net.cpp:84] Creating Layer penlu27
I0925 11:03:16.637459  2600 net.cpp:406] penlu27 <- Eltwise13
I0925 11:03:16.637462  2600 net.cpp:367] penlu27 -> Eltwise13 (in-place)
I0925 11:03:16.637570  2600 net.cpp:122] Setting up penlu27
I0925 11:03:16.637575  2600 net.cpp:129] Top shape: 100 32 14 14 (627200)
I0925 11:03:16.637578  2600 net.cpp:137] Memory required for data: 640685200
I0925 11:03:16.637581  2600 layer_factory.hpp:77] Creating layer Eltwise13_penlu27_0_split
I0925 11:03:16.637591  2600 net.cpp:84] Creating Layer Eltwise13_penlu27_0_split
I0925 11:03:16.637594  2600 net.cpp:406] Eltwise13_penlu27_0_split <- Eltwise13
I0925 11:03:16.637598  2600 net.cpp:380] Eltwise13_penlu27_0_split -> Eltwise13_penlu27_0_split_0
I0925 11:03:16.637603  2600 net.cpp:380] Eltwise13_penlu27_0_split -> Eltwise13_penlu27_0_split_1
I0925 11:03:16.637626  2600 net.cpp:122] Setting up Eltwise13_penlu27_0_split
I0925 11:03:16.637630  2600 net.cpp:129] Top shape: 100 32 14 14 (627200)
I0925 11:03:16.637632  2600 net.cpp:129] Top shape: 100 32 14 14 (627200)
I0925 11:03:16.637634  2600 net.cpp:137] Memory required for data: 645702800
I0925 11:03:16.637637  2600 layer_factory.hpp:77] Creating layer Convolution29
I0925 11:03:16.637643  2600 net.cpp:84] Creating Layer Convolution29
I0925 11:03:16.637645  2600 net.cpp:406] Convolution29 <- Eltwise13_penlu27_0_split_0
I0925 11:03:16.637650  2600 net.cpp:380] Convolution29 -> Convolution29
I0925 11:03:16.638682  2600 net.cpp:122] Setting up Convolution29
I0925 11:03:16.638691  2600 net.cpp:129] Top shape: 100 32 14 14 (627200)
I0925 11:03:16.638694  2600 net.cpp:137] Memory required for data: 648211600
I0925 11:03:16.638697  2600 layer_factory.hpp:77] Creating layer BatchNorm29
I0925 11:03:16.638703  2600 net.cpp:84] Creating Layer BatchNorm29
I0925 11:03:16.638706  2600 net.cpp:406] BatchNorm29 <- Convolution29
I0925 11:03:16.638710  2600 net.cpp:367] BatchNorm29 -> Convolution29 (in-place)
I0925 11:03:16.638846  2600 net.cpp:122] Setting up BatchNorm29
I0925 11:03:16.638850  2600 net.cpp:129] Top shape: 100 32 14 14 (627200)
I0925 11:03:16.638854  2600 net.cpp:137] Memory required for data: 650720400
I0925 11:03:16.638857  2600 layer_factory.hpp:77] Creating layer Scale29
I0925 11:03:16.638861  2600 net.cpp:84] Creating Layer Scale29
I0925 11:03:16.638864  2600 net.cpp:406] Scale29 <- Convolution29
I0925 11:03:16.638867  2600 net.cpp:367] Scale29 -> Convolution29 (in-place)
I0925 11:03:16.638895  2600 layer_factory.hpp:77] Creating layer Scale29
I0925 11:03:16.638973  2600 net.cpp:122] Setting up Scale29
I0925 11:03:16.638978  2600 net.cpp:129] Top shape: 100 32 14 14 (627200)
I0925 11:03:16.638980  2600 net.cpp:137] Memory required for data: 653229200
I0925 11:03:16.638984  2600 layer_factory.hpp:77] Creating layer penlu28
I0925 11:03:16.638990  2600 net.cpp:84] Creating Layer penlu28
I0925 11:03:16.638993  2600 net.cpp:406] penlu28 <- Convolution29
I0925 11:03:16.638995  2600 net.cpp:367] penlu28 -> Convolution29 (in-place)
I0925 11:03:16.639102  2600 net.cpp:122] Setting up penlu28
I0925 11:03:16.639107  2600 net.cpp:129] Top shape: 100 32 14 14 (627200)
I0925 11:03:16.639109  2600 net.cpp:137] Memory required for data: 655738000
I0925 11:03:16.639113  2600 layer_factory.hpp:77] Creating layer Convolution30
I0925 11:03:16.639122  2600 net.cpp:84] Creating Layer Convolution30
I0925 11:03:16.639123  2600 net.cpp:406] Convolution30 <- Convolution29
I0925 11:03:16.639127  2600 net.cpp:380] Convolution30 -> Convolution30
I0925 11:03:16.640159  2600 net.cpp:122] Setting up Convolution30
I0925 11:03:16.640167  2600 net.cpp:129] Top shape: 100 32 14 14 (627200)
I0925 11:03:16.640171  2600 net.cpp:137] Memory required for data: 658246800
I0925 11:03:16.640174  2600 layer_factory.hpp:77] Creating layer BatchNorm30
I0925 11:03:16.640180  2600 net.cpp:84] Creating Layer BatchNorm30
I0925 11:03:16.640182  2600 net.cpp:406] BatchNorm30 <- Convolution30
I0925 11:03:16.640187  2600 net.cpp:367] BatchNorm30 -> Convolution30 (in-place)
I0925 11:03:16.640321  2600 net.cpp:122] Setting up BatchNorm30
I0925 11:03:16.640326  2600 net.cpp:129] Top shape: 100 32 14 14 (627200)
I0925 11:03:16.640327  2600 net.cpp:137] Memory required for data: 660755600
I0925 11:03:16.640331  2600 layer_factory.hpp:77] Creating layer Scale30
I0925 11:03:16.640336  2600 net.cpp:84] Creating Layer Scale30
I0925 11:03:16.640338  2600 net.cpp:406] Scale30 <- Convolution30
I0925 11:03:16.640341  2600 net.cpp:367] Scale30 -> Convolution30 (in-place)
I0925 11:03:16.640377  2600 layer_factory.hpp:77] Creating layer Scale30
I0925 11:03:16.640456  2600 net.cpp:122] Setting up Scale30
I0925 11:03:16.640461  2600 net.cpp:129] Top shape: 100 32 14 14 (627200)
I0925 11:03:16.640463  2600 net.cpp:137] Memory required for data: 663264400
I0925 11:03:16.640467  2600 layer_factory.hpp:77] Creating layer Eltwise14
I0925 11:03:16.640471  2600 net.cpp:84] Creating Layer Eltwise14
I0925 11:03:16.640475  2600 net.cpp:406] Eltwise14 <- Eltwise13_penlu27_0_split_1
I0925 11:03:16.640476  2600 net.cpp:406] Eltwise14 <- Convolution30
I0925 11:03:16.640480  2600 net.cpp:380] Eltwise14 -> Eltwise14
I0925 11:03:16.640513  2600 net.cpp:122] Setting up Eltwise14
I0925 11:03:16.640521  2600 net.cpp:129] Top shape: 100 32 14 14 (627200)
I0925 11:03:16.640522  2600 net.cpp:137] Memory required for data: 665773200
I0925 11:03:16.640524  2600 layer_factory.hpp:77] Creating layer penlu29
I0925 11:03:16.640539  2600 net.cpp:84] Creating Layer penlu29
I0925 11:03:16.640542  2600 net.cpp:406] penlu29 <- Eltwise14
I0925 11:03:16.640544  2600 net.cpp:367] penlu29 -> Eltwise14 (in-place)
I0925 11:03:16.640657  2600 net.cpp:122] Setting up penlu29
I0925 11:03:16.640661  2600 net.cpp:129] Top shape: 100 32 14 14 (627200)
I0925 11:03:16.640663  2600 net.cpp:137] Memory required for data: 668282000
I0925 11:03:16.640668  2600 layer_factory.hpp:77] Creating layer Eltwise14_penlu29_0_split
I0925 11:03:16.640671  2600 net.cpp:84] Creating Layer Eltwise14_penlu29_0_split
I0925 11:03:16.640674  2600 net.cpp:406] Eltwise14_penlu29_0_split <- Eltwise14
I0925 11:03:16.640677  2600 net.cpp:380] Eltwise14_penlu29_0_split -> Eltwise14_penlu29_0_split_0
I0925 11:03:16.640681  2600 net.cpp:380] Eltwise14_penlu29_0_split -> Eltwise14_penlu29_0_split_1
I0925 11:03:16.640705  2600 net.cpp:122] Setting up Eltwise14_penlu29_0_split
I0925 11:03:16.640709  2600 net.cpp:129] Top shape: 100 32 14 14 (627200)
I0925 11:03:16.640712  2600 net.cpp:129] Top shape: 100 32 14 14 (627200)
I0925 11:03:16.640714  2600 net.cpp:137] Memory required for data: 673299600
I0925 11:03:16.640717  2600 layer_factory.hpp:77] Creating layer Convolution31
I0925 11:03:16.640722  2600 net.cpp:84] Creating Layer Convolution31
I0925 11:03:16.640724  2600 net.cpp:406] Convolution31 <- Eltwise14_penlu29_0_split_0
I0925 11:03:16.640728  2600 net.cpp:380] Convolution31 -> Convolution31
I0925 11:03:16.641783  2600 net.cpp:122] Setting up Convolution31
I0925 11:03:16.641793  2600 net.cpp:129] Top shape: 100 32 14 14 (627200)
I0925 11:03:16.641795  2600 net.cpp:137] Memory required for data: 675808400
I0925 11:03:16.641799  2600 layer_factory.hpp:77] Creating layer BatchNorm31
I0925 11:03:16.641805  2600 net.cpp:84] Creating Layer BatchNorm31
I0925 11:03:16.641808  2600 net.cpp:406] BatchNorm31 <- Convolution31
I0925 11:03:16.641813  2600 net.cpp:367] BatchNorm31 -> Convolution31 (in-place)
I0925 11:03:16.641952  2600 net.cpp:122] Setting up BatchNorm31
I0925 11:03:16.641957  2600 net.cpp:129] Top shape: 100 32 14 14 (627200)
I0925 11:03:16.641960  2600 net.cpp:137] Memory required for data: 678317200
I0925 11:03:16.641964  2600 layer_factory.hpp:77] Creating layer Scale31
I0925 11:03:16.641969  2600 net.cpp:84] Creating Layer Scale31
I0925 11:03:16.641973  2600 net.cpp:406] Scale31 <- Convolution31
I0925 11:03:16.641975  2600 net.cpp:367] Scale31 -> Convolution31 (in-place)
I0925 11:03:16.642004  2600 layer_factory.hpp:77] Creating layer Scale31
I0925 11:03:16.642083  2600 net.cpp:122] Setting up Scale31
I0925 11:03:16.642088  2600 net.cpp:129] Top shape: 100 32 14 14 (627200)
I0925 11:03:16.642091  2600 net.cpp:137] Memory required for data: 680826000
I0925 11:03:16.642094  2600 layer_factory.hpp:77] Creating layer penlu30
I0925 11:03:16.642101  2600 net.cpp:84] Creating Layer penlu30
I0925 11:03:16.642102  2600 net.cpp:406] penlu30 <- Convolution31
I0925 11:03:16.642107  2600 net.cpp:367] penlu30 -> Convolution31 (in-place)
I0925 11:03:16.642218  2600 net.cpp:122] Setting up penlu30
I0925 11:03:16.642223  2600 net.cpp:129] Top shape: 100 32 14 14 (627200)
I0925 11:03:16.642231  2600 net.cpp:137] Memory required for data: 683334800
I0925 11:03:16.642236  2600 layer_factory.hpp:77] Creating layer Convolution32
I0925 11:03:16.642243  2600 net.cpp:84] Creating Layer Convolution32
I0925 11:03:16.642246  2600 net.cpp:406] Convolution32 <- Convolution31
I0925 11:03:16.642249  2600 net.cpp:380] Convolution32 -> Convolution32
I0925 11:03:16.643314  2600 net.cpp:122] Setting up Convolution32
I0925 11:03:16.643323  2600 net.cpp:129] Top shape: 100 32 14 14 (627200)
I0925 11:03:16.643326  2600 net.cpp:137] Memory required for data: 685843600
I0925 11:03:16.643331  2600 layer_factory.hpp:77] Creating layer BatchNorm32
I0925 11:03:16.643335  2600 net.cpp:84] Creating Layer BatchNorm32
I0925 11:03:16.643338  2600 net.cpp:406] BatchNorm32 <- Convolution32
I0925 11:03:16.643342  2600 net.cpp:367] BatchNorm32 -> Convolution32 (in-place)
I0925 11:03:16.643489  2600 net.cpp:122] Setting up BatchNorm32
I0925 11:03:16.643494  2600 net.cpp:129] Top shape: 100 32 14 14 (627200)
I0925 11:03:16.643496  2600 net.cpp:137] Memory required for data: 688352400
I0925 11:03:16.643501  2600 layer_factory.hpp:77] Creating layer Scale32
I0925 11:03:16.643507  2600 net.cpp:84] Creating Layer Scale32
I0925 11:03:16.643509  2600 net.cpp:406] Scale32 <- Convolution32
I0925 11:03:16.643512  2600 net.cpp:367] Scale32 -> Convolution32 (in-place)
I0925 11:03:16.643539  2600 layer_factory.hpp:77] Creating layer Scale32
I0925 11:03:16.643618  2600 net.cpp:122] Setting up Scale32
I0925 11:03:16.643623  2600 net.cpp:129] Top shape: 100 32 14 14 (627200)
I0925 11:03:16.643625  2600 net.cpp:137] Memory required for data: 690861200
I0925 11:03:16.643630  2600 layer_factory.hpp:77] Creating layer Eltwise15
I0925 11:03:16.643635  2600 net.cpp:84] Creating Layer Eltwise15
I0925 11:03:16.643636  2600 net.cpp:406] Eltwise15 <- Eltwise14_penlu29_0_split_1
I0925 11:03:16.643640  2600 net.cpp:406] Eltwise15 <- Convolution32
I0925 11:03:16.643642  2600 net.cpp:380] Eltwise15 -> Eltwise15
I0925 11:03:16.643659  2600 net.cpp:122] Setting up Eltwise15
I0925 11:03:16.643663  2600 net.cpp:129] Top shape: 100 32 14 14 (627200)
I0925 11:03:16.643666  2600 net.cpp:137] Memory required for data: 693370000
I0925 11:03:16.643667  2600 layer_factory.hpp:77] Creating layer penlu31
I0925 11:03:16.643673  2600 net.cpp:84] Creating Layer penlu31
I0925 11:03:16.643676  2600 net.cpp:406] penlu31 <- Eltwise15
I0925 11:03:16.643678  2600 net.cpp:367] penlu31 -> Eltwise15 (in-place)
I0925 11:03:16.643787  2600 net.cpp:122] Setting up penlu31
I0925 11:03:16.643792  2600 net.cpp:129] Top shape: 100 32 14 14 (627200)
I0925 11:03:16.643795  2600 net.cpp:137] Memory required for data: 695878800
I0925 11:03:16.643798  2600 layer_factory.hpp:77] Creating layer Eltwise15_penlu31_0_split
I0925 11:03:16.643802  2600 net.cpp:84] Creating Layer Eltwise15_penlu31_0_split
I0925 11:03:16.643805  2600 net.cpp:406] Eltwise15_penlu31_0_split <- Eltwise15
I0925 11:03:16.643807  2600 net.cpp:380] Eltwise15_penlu31_0_split -> Eltwise15_penlu31_0_split_0
I0925 11:03:16.643811  2600 net.cpp:380] Eltwise15_penlu31_0_split -> Eltwise15_penlu31_0_split_1
I0925 11:03:16.643834  2600 net.cpp:122] Setting up Eltwise15_penlu31_0_split
I0925 11:03:16.643838  2600 net.cpp:129] Top shape: 100 32 14 14 (627200)
I0925 11:03:16.643841  2600 net.cpp:129] Top shape: 100 32 14 14 (627200)
I0925 11:03:16.643843  2600 net.cpp:137] Memory required for data: 700896400
I0925 11:03:16.643846  2600 layer_factory.hpp:77] Creating layer Convolution33
I0925 11:03:16.643852  2600 net.cpp:84] Creating Layer Convolution33
I0925 11:03:16.643854  2600 net.cpp:406] Convolution33 <- Eltwise15_penlu31_0_split_0
I0925 11:03:16.643858  2600 net.cpp:380] Convolution33 -> Convolution33
I0925 11:03:16.645303  2600 net.cpp:122] Setting up Convolution33
I0925 11:03:16.645313  2600 net.cpp:129] Top shape: 100 32 14 14 (627200)
I0925 11:03:16.645316  2600 net.cpp:137] Memory required for data: 703405200
I0925 11:03:16.645321  2600 layer_factory.hpp:77] Creating layer BatchNorm33
I0925 11:03:16.645326  2600 net.cpp:84] Creating Layer BatchNorm33
I0925 11:03:16.645336  2600 net.cpp:406] BatchNorm33 <- Convolution33
I0925 11:03:16.645341  2600 net.cpp:367] BatchNorm33 -> Convolution33 (in-place)
I0925 11:03:16.645503  2600 net.cpp:122] Setting up BatchNorm33
I0925 11:03:16.645508  2600 net.cpp:129] Top shape: 100 32 14 14 (627200)
I0925 11:03:16.645509  2600 net.cpp:137] Memory required for data: 705914000
I0925 11:03:16.645514  2600 layer_factory.hpp:77] Creating layer Scale33
I0925 11:03:16.645519  2600 net.cpp:84] Creating Layer Scale33
I0925 11:03:16.645520  2600 net.cpp:406] Scale33 <- Convolution33
I0925 11:03:16.645524  2600 net.cpp:367] Scale33 -> Convolution33 (in-place)
I0925 11:03:16.645551  2600 layer_factory.hpp:77] Creating layer Scale33
I0925 11:03:16.645630  2600 net.cpp:122] Setting up Scale33
I0925 11:03:16.645635  2600 net.cpp:129] Top shape: 100 32 14 14 (627200)
I0925 11:03:16.645637  2600 net.cpp:137] Memory required for data: 708422800
I0925 11:03:16.645642  2600 layer_factory.hpp:77] Creating layer penlu32
I0925 11:03:16.645647  2600 net.cpp:84] Creating Layer penlu32
I0925 11:03:16.645648  2600 net.cpp:406] penlu32 <- Convolution33
I0925 11:03:16.645653  2600 net.cpp:367] penlu32 -> Convolution33 (in-place)
I0925 11:03:16.645761  2600 net.cpp:122] Setting up penlu32
I0925 11:03:16.645766  2600 net.cpp:129] Top shape: 100 32 14 14 (627200)
I0925 11:03:16.645768  2600 net.cpp:137] Memory required for data: 710931600
I0925 11:03:16.645773  2600 layer_factory.hpp:77] Creating layer Convolution34
I0925 11:03:16.645781  2600 net.cpp:84] Creating Layer Convolution34
I0925 11:03:16.645782  2600 net.cpp:406] Convolution34 <- Convolution33
I0925 11:03:16.645787  2600 net.cpp:380] Convolution34 -> Convolution34
I0925 11:03:16.646850  2600 net.cpp:122] Setting up Convolution34
I0925 11:03:16.646859  2600 net.cpp:129] Top shape: 100 32 14 14 (627200)
I0925 11:03:16.646862  2600 net.cpp:137] Memory required for data: 713440400
I0925 11:03:16.646867  2600 layer_factory.hpp:77] Creating layer BatchNorm34
I0925 11:03:16.646872  2600 net.cpp:84] Creating Layer BatchNorm34
I0925 11:03:16.646875  2600 net.cpp:406] BatchNorm34 <- Convolution34
I0925 11:03:16.646879  2600 net.cpp:367] BatchNorm34 -> Convolution34 (in-place)
I0925 11:03:16.647022  2600 net.cpp:122] Setting up BatchNorm34
I0925 11:03:16.647027  2600 net.cpp:129] Top shape: 100 32 14 14 (627200)
I0925 11:03:16.647029  2600 net.cpp:137] Memory required for data: 715949200
I0925 11:03:16.647034  2600 layer_factory.hpp:77] Creating layer Scale34
I0925 11:03:16.647038  2600 net.cpp:84] Creating Layer Scale34
I0925 11:03:16.647042  2600 net.cpp:406] Scale34 <- Convolution34
I0925 11:03:16.647044  2600 net.cpp:367] Scale34 -> Convolution34 (in-place)
I0925 11:03:16.647073  2600 layer_factory.hpp:77] Creating layer Scale34
I0925 11:03:16.647152  2600 net.cpp:122] Setting up Scale34
I0925 11:03:16.647157  2600 net.cpp:129] Top shape: 100 32 14 14 (627200)
I0925 11:03:16.647159  2600 net.cpp:137] Memory required for data: 718458000
I0925 11:03:16.647163  2600 layer_factory.hpp:77] Creating layer Eltwise16
I0925 11:03:16.647167  2600 net.cpp:84] Creating Layer Eltwise16
I0925 11:03:16.647169  2600 net.cpp:406] Eltwise16 <- Eltwise15_penlu31_0_split_1
I0925 11:03:16.647172  2600 net.cpp:406] Eltwise16 <- Convolution34
I0925 11:03:16.647177  2600 net.cpp:380] Eltwise16 -> Eltwise16
I0925 11:03:16.647193  2600 net.cpp:122] Setting up Eltwise16
I0925 11:03:16.647197  2600 net.cpp:129] Top shape: 100 32 14 14 (627200)
I0925 11:03:16.647199  2600 net.cpp:137] Memory required for data: 720966800
I0925 11:03:16.647202  2600 layer_factory.hpp:77] Creating layer penlu33
I0925 11:03:16.647207  2600 net.cpp:84] Creating Layer penlu33
I0925 11:03:16.647209  2600 net.cpp:406] penlu33 <- Eltwise16
I0925 11:03:16.647212  2600 net.cpp:367] penlu33 -> Eltwise16 (in-place)
I0925 11:03:16.647325  2600 net.cpp:122] Setting up penlu33
I0925 11:03:16.647330  2600 net.cpp:129] Top shape: 100 32 14 14 (627200)
I0925 11:03:16.647331  2600 net.cpp:137] Memory required for data: 723475600
I0925 11:03:16.647342  2600 layer_factory.hpp:77] Creating layer Eltwise16_penlu33_0_split
I0925 11:03:16.647346  2600 net.cpp:84] Creating Layer Eltwise16_penlu33_0_split
I0925 11:03:16.647348  2600 net.cpp:406] Eltwise16_penlu33_0_split <- Eltwise16
I0925 11:03:16.647353  2600 net.cpp:380] Eltwise16_penlu33_0_split -> Eltwise16_penlu33_0_split_0
I0925 11:03:16.647357  2600 net.cpp:380] Eltwise16_penlu33_0_split -> Eltwise16_penlu33_0_split_1
I0925 11:03:16.647382  2600 net.cpp:122] Setting up Eltwise16_penlu33_0_split
I0925 11:03:16.647385  2600 net.cpp:129] Top shape: 100 32 14 14 (627200)
I0925 11:03:16.647388  2600 net.cpp:129] Top shape: 100 32 14 14 (627200)
I0925 11:03:16.647390  2600 net.cpp:137] Memory required for data: 728493200
I0925 11:03:16.647392  2600 layer_factory.hpp:77] Creating layer Convolution35
I0925 11:03:16.647399  2600 net.cpp:84] Creating Layer Convolution35
I0925 11:03:16.647402  2600 net.cpp:406] Convolution35 <- Eltwise16_penlu33_0_split_0
I0925 11:03:16.647405  2600 net.cpp:380] Convolution35 -> Convolution35
I0925 11:03:16.648460  2600 net.cpp:122] Setting up Convolution35
I0925 11:03:16.648469  2600 net.cpp:129] Top shape: 100 32 14 14 (627200)
I0925 11:03:16.648473  2600 net.cpp:137] Memory required for data: 731002000
I0925 11:03:16.648478  2600 layer_factory.hpp:77] Creating layer BatchNorm35
I0925 11:03:16.648483  2600 net.cpp:84] Creating Layer BatchNorm35
I0925 11:03:16.648485  2600 net.cpp:406] BatchNorm35 <- Convolution35
I0925 11:03:16.648489  2600 net.cpp:367] BatchNorm35 -> Convolution35 (in-place)
I0925 11:03:16.648658  2600 net.cpp:122] Setting up BatchNorm35
I0925 11:03:16.648663  2600 net.cpp:129] Top shape: 100 32 14 14 (627200)
I0925 11:03:16.648666  2600 net.cpp:137] Memory required for data: 733510800
I0925 11:03:16.648671  2600 layer_factory.hpp:77] Creating layer Scale35
I0925 11:03:16.648675  2600 net.cpp:84] Creating Layer Scale35
I0925 11:03:16.648679  2600 net.cpp:406] Scale35 <- Convolution35
I0925 11:03:16.648681  2600 net.cpp:367] Scale35 -> Convolution35 (in-place)
I0925 11:03:16.648715  2600 layer_factory.hpp:77] Creating layer Scale35
I0925 11:03:16.648802  2600 net.cpp:122] Setting up Scale35
I0925 11:03:16.648808  2600 net.cpp:129] Top shape: 100 32 14 14 (627200)
I0925 11:03:16.648809  2600 net.cpp:137] Memory required for data: 736019600
I0925 11:03:16.648813  2600 layer_factory.hpp:77] Creating layer penlu34
I0925 11:03:16.648819  2600 net.cpp:84] Creating Layer penlu34
I0925 11:03:16.648823  2600 net.cpp:406] penlu34 <- Convolution35
I0925 11:03:16.648825  2600 net.cpp:367] penlu34 -> Convolution35 (in-place)
I0925 11:03:16.648946  2600 net.cpp:122] Setting up penlu34
I0925 11:03:16.648950  2600 net.cpp:129] Top shape: 100 32 14 14 (627200)
I0925 11:03:16.648953  2600 net.cpp:137] Memory required for data: 738528400
I0925 11:03:16.648957  2600 layer_factory.hpp:77] Creating layer Convolution36
I0925 11:03:16.648965  2600 net.cpp:84] Creating Layer Convolution36
I0925 11:03:16.648968  2600 net.cpp:406] Convolution36 <- Convolution35
I0925 11:03:16.648972  2600 net.cpp:380] Convolution36 -> Convolution36
I0925 11:03:16.650069  2600 net.cpp:122] Setting up Convolution36
I0925 11:03:16.650079  2600 net.cpp:129] Top shape: 100 32 14 14 (627200)
I0925 11:03:16.650081  2600 net.cpp:137] Memory required for data: 741037200
I0925 11:03:16.650085  2600 layer_factory.hpp:77] Creating layer BatchNorm36
I0925 11:03:16.650090  2600 net.cpp:84] Creating Layer BatchNorm36
I0925 11:03:16.650094  2600 net.cpp:406] BatchNorm36 <- Convolution36
I0925 11:03:16.650097  2600 net.cpp:367] BatchNorm36 -> Convolution36 (in-place)
I0925 11:03:16.650233  2600 net.cpp:122] Setting up BatchNorm36
I0925 11:03:16.650238  2600 net.cpp:129] Top shape: 100 32 14 14 (627200)
I0925 11:03:16.650240  2600 net.cpp:137] Memory required for data: 743546000
I0925 11:03:16.650245  2600 layer_factory.hpp:77] Creating layer Scale36
I0925 11:03:16.650249  2600 net.cpp:84] Creating Layer Scale36
I0925 11:03:16.650252  2600 net.cpp:406] Scale36 <- Convolution36
I0925 11:03:16.650255  2600 net.cpp:367] Scale36 -> Convolution36 (in-place)
I0925 11:03:16.650290  2600 layer_factory.hpp:77] Creating layer Scale36
I0925 11:03:16.650372  2600 net.cpp:122] Setting up Scale36
I0925 11:03:16.650375  2600 net.cpp:129] Top shape: 100 32 14 14 (627200)
I0925 11:03:16.650378  2600 net.cpp:137] Memory required for data: 746054800
I0925 11:03:16.650382  2600 layer_factory.hpp:77] Creating layer Eltwise17
I0925 11:03:16.650387  2600 net.cpp:84] Creating Layer Eltwise17
I0925 11:03:16.650388  2600 net.cpp:406] Eltwise17 <- Eltwise16_penlu33_0_split_1
I0925 11:03:16.650391  2600 net.cpp:406] Eltwise17 <- Convolution36
I0925 11:03:16.650394  2600 net.cpp:380] Eltwise17 -> Eltwise17
I0925 11:03:16.650411  2600 net.cpp:122] Setting up Eltwise17
I0925 11:03:16.650415  2600 net.cpp:129] Top shape: 100 32 14 14 (627200)
I0925 11:03:16.650418  2600 net.cpp:137] Memory required for data: 748563600
I0925 11:03:16.650419  2600 layer_factory.hpp:77] Creating layer penlu35
I0925 11:03:16.650425  2600 net.cpp:84] Creating Layer penlu35
I0925 11:03:16.650427  2600 net.cpp:406] penlu35 <- Eltwise17
I0925 11:03:16.650430  2600 net.cpp:367] penlu35 -> Eltwise17 (in-place)
I0925 11:03:16.650552  2600 net.cpp:122] Setting up penlu35
I0925 11:03:16.650557  2600 net.cpp:129] Top shape: 100 32 14 14 (627200)
I0925 11:03:16.650558  2600 net.cpp:137] Memory required for data: 751072400
I0925 11:03:16.650563  2600 layer_factory.hpp:77] Creating layer Eltwise17_penlu35_0_split
I0925 11:03:16.650568  2600 net.cpp:84] Creating Layer Eltwise17_penlu35_0_split
I0925 11:03:16.650569  2600 net.cpp:406] Eltwise17_penlu35_0_split <- Eltwise17
I0925 11:03:16.650573  2600 net.cpp:380] Eltwise17_penlu35_0_split -> Eltwise17_penlu35_0_split_0
I0925 11:03:16.650578  2600 net.cpp:380] Eltwise17_penlu35_0_split -> Eltwise17_penlu35_0_split_1
I0925 11:03:16.650601  2600 net.cpp:122] Setting up Eltwise17_penlu35_0_split
I0925 11:03:16.650605  2600 net.cpp:129] Top shape: 100 32 14 14 (627200)
I0925 11:03:16.650609  2600 net.cpp:129] Top shape: 100 32 14 14 (627200)
I0925 11:03:16.650610  2600 net.cpp:137] Memory required for data: 756090000
I0925 11:03:16.650614  2600 layer_factory.hpp:77] Creating layer Convolution37
I0925 11:03:16.650619  2600 net.cpp:84] Creating Layer Convolution37
I0925 11:03:16.650621  2600 net.cpp:406] Convolution37 <- Eltwise17_penlu35_0_split_0
I0925 11:03:16.650625  2600 net.cpp:380] Convolution37 -> Convolution37
I0925 11:03:16.651356  2600 net.cpp:122] Setting up Convolution37
I0925 11:03:16.651365  2600 net.cpp:129] Top shape: 100 32 14 14 (627200)
I0925 11:03:16.651366  2600 net.cpp:137] Memory required for data: 758598800
I0925 11:03:16.651371  2600 layer_factory.hpp:77] Creating layer BatchNorm37
I0925 11:03:16.651376  2600 net.cpp:84] Creating Layer BatchNorm37
I0925 11:03:16.651378  2600 net.cpp:406] BatchNorm37 <- Convolution37
I0925 11:03:16.651382  2600 net.cpp:367] BatchNorm37 -> Convolution37 (in-place)
I0925 11:03:16.651525  2600 net.cpp:122] Setting up BatchNorm37
I0925 11:03:16.651530  2600 net.cpp:129] Top shape: 100 32 14 14 (627200)
I0925 11:03:16.651532  2600 net.cpp:137] Memory required for data: 761107600
I0925 11:03:16.651536  2600 layer_factory.hpp:77] Creating layer Scale37
I0925 11:03:16.651541  2600 net.cpp:84] Creating Layer Scale37
I0925 11:03:16.651543  2600 net.cpp:406] Scale37 <- Convolution37
I0925 11:03:16.651546  2600 net.cpp:367] Scale37 -> Convolution37 (in-place)
I0925 11:03:16.651576  2600 layer_factory.hpp:77] Creating layer Scale37
I0925 11:03:16.651656  2600 net.cpp:122] Setting up Scale37
I0925 11:03:16.651661  2600 net.cpp:129] Top shape: 100 32 14 14 (627200)
I0925 11:03:16.651664  2600 net.cpp:137] Memory required for data: 763616400
I0925 11:03:16.651667  2600 layer_factory.hpp:77] Creating layer penlu36
I0925 11:03:16.651672  2600 net.cpp:84] Creating Layer penlu36
I0925 11:03:16.651674  2600 net.cpp:406] penlu36 <- Convolution37
I0925 11:03:16.651679  2600 net.cpp:367] penlu36 -> Convolution37 (in-place)
I0925 11:03:16.651792  2600 net.cpp:122] Setting up penlu36
I0925 11:03:16.651796  2600 net.cpp:129] Top shape: 100 32 14 14 (627200)
I0925 11:03:16.651803  2600 net.cpp:137] Memory required for data: 766125200
I0925 11:03:16.651808  2600 layer_factory.hpp:77] Creating layer Convolution38
I0925 11:03:16.651815  2600 net.cpp:84] Creating Layer Convolution38
I0925 11:03:16.651818  2600 net.cpp:406] Convolution38 <- Convolution37
I0925 11:03:16.651823  2600 net.cpp:380] Convolution38 -> Convolution38
I0925 11:03:16.652909  2600 net.cpp:122] Setting up Convolution38
I0925 11:03:16.652918  2600 net.cpp:129] Top shape: 100 32 14 14 (627200)
I0925 11:03:16.652921  2600 net.cpp:137] Memory required for data: 768634000
I0925 11:03:16.652925  2600 layer_factory.hpp:77] Creating layer BatchNorm38
I0925 11:03:16.652930  2600 net.cpp:84] Creating Layer BatchNorm38
I0925 11:03:16.652933  2600 net.cpp:406] BatchNorm38 <- Convolution38
I0925 11:03:16.652937  2600 net.cpp:367] BatchNorm38 -> Convolution38 (in-place)
I0925 11:03:16.653077  2600 net.cpp:122] Setting up BatchNorm38
I0925 11:03:16.653082  2600 net.cpp:129] Top shape: 100 32 14 14 (627200)
I0925 11:03:16.653084  2600 net.cpp:137] Memory required for data: 771142800
I0925 11:03:16.653090  2600 layer_factory.hpp:77] Creating layer Scale38
I0925 11:03:16.653093  2600 net.cpp:84] Creating Layer Scale38
I0925 11:03:16.653095  2600 net.cpp:406] Scale38 <- Convolution38
I0925 11:03:16.653098  2600 net.cpp:367] Scale38 -> Convolution38 (in-place)
I0925 11:03:16.653128  2600 layer_factory.hpp:77] Creating layer Scale38
I0925 11:03:16.653208  2600 net.cpp:122] Setting up Scale38
I0925 11:03:16.653213  2600 net.cpp:129] Top shape: 100 32 14 14 (627200)
I0925 11:03:16.653214  2600 net.cpp:137] Memory required for data: 773651600
I0925 11:03:16.653218  2600 layer_factory.hpp:77] Creating layer Eltwise18
I0925 11:03:16.653223  2600 net.cpp:84] Creating Layer Eltwise18
I0925 11:03:16.653225  2600 net.cpp:406] Eltwise18 <- Eltwise17_penlu35_0_split_1
I0925 11:03:16.653228  2600 net.cpp:406] Eltwise18 <- Convolution38
I0925 11:03:16.653231  2600 net.cpp:380] Eltwise18 -> Eltwise18
I0925 11:03:16.653247  2600 net.cpp:122] Setting up Eltwise18
I0925 11:03:16.653251  2600 net.cpp:129] Top shape: 100 32 14 14 (627200)
I0925 11:03:16.653254  2600 net.cpp:137] Memory required for data: 776160400
I0925 11:03:16.653255  2600 layer_factory.hpp:77] Creating layer penlu37
I0925 11:03:16.653260  2600 net.cpp:84] Creating Layer penlu37
I0925 11:03:16.653262  2600 net.cpp:406] penlu37 <- Eltwise18
I0925 11:03:16.653266  2600 net.cpp:367] penlu37 -> Eltwise18 (in-place)
I0925 11:03:16.653376  2600 net.cpp:122] Setting up penlu37
I0925 11:03:16.653381  2600 net.cpp:129] Top shape: 100 32 14 14 (627200)
I0925 11:03:16.653383  2600 net.cpp:137] Memory required for data: 778669200
I0925 11:03:16.653388  2600 layer_factory.hpp:77] Creating layer Eltwise18_penlu37_0_split
I0925 11:03:16.653390  2600 net.cpp:84] Creating Layer Eltwise18_penlu37_0_split
I0925 11:03:16.653393  2600 net.cpp:406] Eltwise18_penlu37_0_split <- Eltwise18
I0925 11:03:16.653398  2600 net.cpp:380] Eltwise18_penlu37_0_split -> Eltwise18_penlu37_0_split_0
I0925 11:03:16.653401  2600 net.cpp:380] Eltwise18_penlu37_0_split -> Eltwise18_penlu37_0_split_1
I0925 11:03:16.653424  2600 net.cpp:122] Setting up Eltwise18_penlu37_0_split
I0925 11:03:16.653429  2600 net.cpp:129] Top shape: 100 32 14 14 (627200)
I0925 11:03:16.653430  2600 net.cpp:129] Top shape: 100 32 14 14 (627200)
I0925 11:03:16.653432  2600 net.cpp:137] Memory required for data: 783686800
I0925 11:03:16.653434  2600 layer_factory.hpp:77] Creating layer Convolution39
I0925 11:03:16.653441  2600 net.cpp:84] Creating Layer Convolution39
I0925 11:03:16.653443  2600 net.cpp:406] Convolution39 <- Eltwise18_penlu37_0_split_0
I0925 11:03:16.653447  2600 net.cpp:380] Convolution39 -> Convolution39
I0925 11:03:16.654336  2600 net.cpp:122] Setting up Convolution39
I0925 11:03:16.654345  2600 net.cpp:129] Top shape: 100 64 7 7 (313600)
I0925 11:03:16.654348  2600 net.cpp:137] Memory required for data: 784941200
I0925 11:03:16.654352  2600 layer_factory.hpp:77] Creating layer BatchNorm39
I0925 11:03:16.654364  2600 net.cpp:84] Creating Layer BatchNorm39
I0925 11:03:16.654367  2600 net.cpp:406] BatchNorm39 <- Convolution39
I0925 11:03:16.654371  2600 net.cpp:367] BatchNorm39 -> Convolution39 (in-place)
I0925 11:03:16.654506  2600 net.cpp:122] Setting up BatchNorm39
I0925 11:03:16.654510  2600 net.cpp:129] Top shape: 100 64 7 7 (313600)
I0925 11:03:16.654513  2600 net.cpp:137] Memory required for data: 786195600
I0925 11:03:16.654518  2600 layer_factory.hpp:77] Creating layer Scale39
I0925 11:03:16.654521  2600 net.cpp:84] Creating Layer Scale39
I0925 11:03:16.654525  2600 net.cpp:406] Scale39 <- Convolution39
I0925 11:03:16.654527  2600 net.cpp:367] Scale39 -> Convolution39 (in-place)
I0925 11:03:16.654556  2600 layer_factory.hpp:77] Creating layer Scale39
I0925 11:03:16.654633  2600 net.cpp:122] Setting up Scale39
I0925 11:03:16.654639  2600 net.cpp:129] Top shape: 100 64 7 7 (313600)
I0925 11:03:16.654640  2600 net.cpp:137] Memory required for data: 787450000
I0925 11:03:16.654644  2600 layer_factory.hpp:77] Creating layer Convolution40
I0925 11:03:16.654650  2600 net.cpp:84] Creating Layer Convolution40
I0925 11:03:16.654654  2600 net.cpp:406] Convolution40 <- Eltwise18_penlu37_0_split_1
I0925 11:03:16.654657  2600 net.cpp:380] Convolution40 -> Convolution40
I0925 11:03:16.656689  2600 net.cpp:122] Setting up Convolution40
I0925 11:03:16.656702  2600 net.cpp:129] Top shape: 100 64 7 7 (313600)
I0925 11:03:16.656707  2600 net.cpp:137] Memory required for data: 788704400
I0925 11:03:16.656713  2600 layer_factory.hpp:77] Creating layer BatchNorm40
I0925 11:03:16.656720  2600 net.cpp:84] Creating Layer BatchNorm40
I0925 11:03:16.656725  2600 net.cpp:406] BatchNorm40 <- Convolution40
I0925 11:03:16.656731  2600 net.cpp:367] BatchNorm40 -> Convolution40 (in-place)
I0925 11:03:16.656924  2600 net.cpp:122] Setting up BatchNorm40
I0925 11:03:16.656932  2600 net.cpp:129] Top shape: 100 64 7 7 (313600)
I0925 11:03:16.656936  2600 net.cpp:137] Memory required for data: 789958800
I0925 11:03:16.656944  2600 layer_factory.hpp:77] Creating layer Scale40
I0925 11:03:16.656951  2600 net.cpp:84] Creating Layer Scale40
I0925 11:03:16.656955  2600 net.cpp:406] Scale40 <- Convolution40
I0925 11:03:16.656960  2600 net.cpp:367] Scale40 -> Convolution40 (in-place)
I0925 11:03:16.657001  2600 layer_factory.hpp:77] Creating layer Scale40
I0925 11:03:16.657111  2600 net.cpp:122] Setting up Scale40
I0925 11:03:16.657119  2600 net.cpp:129] Top shape: 100 64 7 7 (313600)
I0925 11:03:16.657124  2600 net.cpp:137] Memory required for data: 791213200
I0925 11:03:16.657130  2600 layer_factory.hpp:77] Creating layer penlu38
I0925 11:03:16.657138  2600 net.cpp:84] Creating Layer penlu38
I0925 11:03:16.657142  2600 net.cpp:406] penlu38 <- Convolution40
I0925 11:03:16.657148  2600 net.cpp:367] penlu38 -> Convolution40 (in-place)
I0925 11:03:16.657307  2600 net.cpp:122] Setting up penlu38
I0925 11:03:16.657315  2600 net.cpp:129] Top shape: 100 64 7 7 (313600)
I0925 11:03:16.657318  2600 net.cpp:137] Memory required for data: 792467600
I0925 11:03:16.657326  2600 layer_factory.hpp:77] Creating layer Convolution41
I0925 11:03:16.657337  2600 net.cpp:84] Creating Layer Convolution41
I0925 11:03:16.657341  2600 net.cpp:406] Convolution41 <- Convolution40
I0925 11:03:16.657347  2600 net.cpp:380] Convolution41 -> Convolution41
I0925 11:03:16.659909  2600 net.cpp:122] Setting up Convolution41
I0925 11:03:16.659919  2600 net.cpp:129] Top shape: 100 64 7 7 (313600)
I0925 11:03:16.659921  2600 net.cpp:137] Memory required for data: 793722000
I0925 11:03:16.659926  2600 layer_factory.hpp:77] Creating layer BatchNorm41
I0925 11:03:16.659930  2600 net.cpp:84] Creating Layer BatchNorm41
I0925 11:03:16.659934  2600 net.cpp:406] BatchNorm41 <- Convolution41
I0925 11:03:16.659937  2600 net.cpp:367] BatchNorm41 -> Convolution41 (in-place)
I0925 11:03:16.660084  2600 net.cpp:122] Setting up BatchNorm41
I0925 11:03:16.660087  2600 net.cpp:129] Top shape: 100 64 7 7 (313600)
I0925 11:03:16.660090  2600 net.cpp:137] Memory required for data: 794976400
I0925 11:03:16.660101  2600 layer_factory.hpp:77] Creating layer Scale41
I0925 11:03:16.660106  2600 net.cpp:84] Creating Layer Scale41
I0925 11:03:16.660109  2600 net.cpp:406] Scale41 <- Convolution41
I0925 11:03:16.660112  2600 net.cpp:367] Scale41 -> Convolution41 (in-place)
I0925 11:03:16.660141  2600 layer_factory.hpp:77] Creating layer Scale41
I0925 11:03:16.660224  2600 net.cpp:122] Setting up Scale41
I0925 11:03:16.660229  2600 net.cpp:129] Top shape: 100 64 7 7 (313600)
I0925 11:03:16.660231  2600 net.cpp:137] Memory required for data: 796230800
I0925 11:03:16.660235  2600 layer_factory.hpp:77] Creating layer Eltwise19
I0925 11:03:16.660239  2600 net.cpp:84] Creating Layer Eltwise19
I0925 11:03:16.660241  2600 net.cpp:406] Eltwise19 <- Convolution39
I0925 11:03:16.660244  2600 net.cpp:406] Eltwise19 <- Convolution41
I0925 11:03:16.660249  2600 net.cpp:380] Eltwise19 -> Eltwise19
I0925 11:03:16.660266  2600 net.cpp:122] Setting up Eltwise19
I0925 11:03:16.660271  2600 net.cpp:129] Top shape: 100 64 7 7 (313600)
I0925 11:03:16.660274  2600 net.cpp:137] Memory required for data: 797485200
I0925 11:03:16.660275  2600 layer_factory.hpp:77] Creating layer penlu39
I0925 11:03:16.660280  2600 net.cpp:84] Creating Layer penlu39
I0925 11:03:16.660282  2600 net.cpp:406] penlu39 <- Eltwise19
I0925 11:03:16.660286  2600 net.cpp:367] penlu39 -> Eltwise19 (in-place)
I0925 11:03:16.660423  2600 net.cpp:122] Setting up penlu39
I0925 11:03:16.660436  2600 net.cpp:129] Top shape: 100 64 7 7 (313600)
I0925 11:03:16.660439  2600 net.cpp:137] Memory required for data: 798739600
I0925 11:03:16.660444  2600 layer_factory.hpp:77] Creating layer Eltwise19_penlu39_0_split
I0925 11:03:16.660446  2600 net.cpp:84] Creating Layer Eltwise19_penlu39_0_split
I0925 11:03:16.660449  2600 net.cpp:406] Eltwise19_penlu39_0_split <- Eltwise19
I0925 11:03:16.660452  2600 net.cpp:380] Eltwise19_penlu39_0_split -> Eltwise19_penlu39_0_split_0
I0925 11:03:16.660456  2600 net.cpp:380] Eltwise19_penlu39_0_split -> Eltwise19_penlu39_0_split_1
I0925 11:03:16.660491  2600 net.cpp:122] Setting up Eltwise19_penlu39_0_split
I0925 11:03:16.660501  2600 net.cpp:129] Top shape: 100 64 7 7 (313600)
I0925 11:03:16.660506  2600 net.cpp:129] Top shape: 100 64 7 7 (313600)
I0925 11:03:16.660507  2600 net.cpp:137] Memory required for data: 801248400
I0925 11:03:16.660509  2600 layer_factory.hpp:77] Creating layer Convolution42
I0925 11:03:16.660516  2600 net.cpp:84] Creating Layer Convolution42
I0925 11:03:16.660519  2600 net.cpp:406] Convolution42 <- Eltwise19_penlu39_0_split_0
I0925 11:03:16.660523  2600 net.cpp:380] Convolution42 -> Convolution42
I0925 11:03:16.662349  2600 net.cpp:122] Setting up Convolution42
I0925 11:03:16.662358  2600 net.cpp:129] Top shape: 100 64 7 7 (313600)
I0925 11:03:16.662361  2600 net.cpp:137] Memory required for data: 802502800
I0925 11:03:16.662366  2600 layer_factory.hpp:77] Creating layer BatchNorm42
I0925 11:03:16.662370  2600 net.cpp:84] Creating Layer BatchNorm42
I0925 11:03:16.662374  2600 net.cpp:406] BatchNorm42 <- Convolution42
I0925 11:03:16.662377  2600 net.cpp:367] BatchNorm42 -> Convolution42 (in-place)
I0925 11:03:16.662523  2600 net.cpp:122] Setting up BatchNorm42
I0925 11:03:16.662528  2600 net.cpp:129] Top shape: 100 64 7 7 (313600)
I0925 11:03:16.662530  2600 net.cpp:137] Memory required for data: 803757200
I0925 11:03:16.662534  2600 layer_factory.hpp:77] Creating layer Scale42
I0925 11:03:16.662539  2600 net.cpp:84] Creating Layer Scale42
I0925 11:03:16.662541  2600 net.cpp:406] Scale42 <- Convolution42
I0925 11:03:16.662545  2600 net.cpp:367] Scale42 -> Convolution42 (in-place)
I0925 11:03:16.662573  2600 layer_factory.hpp:77] Creating layer Scale42
I0925 11:03:16.662657  2600 net.cpp:122] Setting up Scale42
I0925 11:03:16.662662  2600 net.cpp:129] Top shape: 100 64 7 7 (313600)
I0925 11:03:16.662663  2600 net.cpp:137] Memory required for data: 805011600
I0925 11:03:16.662667  2600 layer_factory.hpp:77] Creating layer penlu40
I0925 11:03:16.662673  2600 net.cpp:84] Creating Layer penlu40
I0925 11:03:16.662675  2600 net.cpp:406] penlu40 <- Convolution42
I0925 11:03:16.662686  2600 net.cpp:367] penlu40 -> Convolution42 (in-place)
I0925 11:03:16.662806  2600 net.cpp:122] Setting up penlu40
I0925 11:03:16.662811  2600 net.cpp:129] Top shape: 100 64 7 7 (313600)
I0925 11:03:16.662813  2600 net.cpp:137] Memory required for data: 806266000
I0925 11:03:16.662817  2600 layer_factory.hpp:77] Creating layer Convolution43
I0925 11:03:16.662824  2600 net.cpp:84] Creating Layer Convolution43
I0925 11:03:16.662827  2600 net.cpp:406] Convolution43 <- Convolution42
I0925 11:03:16.662832  2600 net.cpp:380] Convolution43 -> Convolution43
I0925 11:03:16.665171  2600 net.cpp:122] Setting up Convolution43
I0925 11:03:16.665180  2600 net.cpp:129] Top shape: 100 64 7 7 (313600)
I0925 11:03:16.665184  2600 net.cpp:137] Memory required for data: 807520400
I0925 11:03:16.665187  2600 layer_factory.hpp:77] Creating layer BatchNorm43
I0925 11:03:16.665194  2600 net.cpp:84] Creating Layer BatchNorm43
I0925 11:03:16.665195  2600 net.cpp:406] BatchNorm43 <- Convolution43
I0925 11:03:16.665199  2600 net.cpp:367] BatchNorm43 -> Convolution43 (in-place)
I0925 11:03:16.665350  2600 net.cpp:122] Setting up BatchNorm43
I0925 11:03:16.665356  2600 net.cpp:129] Top shape: 100 64 7 7 (313600)
I0925 11:03:16.665359  2600 net.cpp:137] Memory required for data: 808774800
I0925 11:03:16.665364  2600 layer_factory.hpp:77] Creating layer Scale43
I0925 11:03:16.665369  2600 net.cpp:84] Creating Layer Scale43
I0925 11:03:16.665370  2600 net.cpp:406] Scale43 <- Convolution43
I0925 11:03:16.665374  2600 net.cpp:367] Scale43 -> Convolution43 (in-place)
I0925 11:03:16.665403  2600 layer_factory.hpp:77] Creating layer Scale43
I0925 11:03:16.665488  2600 net.cpp:122] Setting up Scale43
I0925 11:03:16.665493  2600 net.cpp:129] Top shape: 100 64 7 7 (313600)
I0925 11:03:16.665495  2600 net.cpp:137] Memory required for data: 810029200
I0925 11:03:16.665499  2600 layer_factory.hpp:77] Creating layer Eltwise20
I0925 11:03:16.665503  2600 net.cpp:84] Creating Layer Eltwise20
I0925 11:03:16.665506  2600 net.cpp:406] Eltwise20 <- Eltwise19_penlu39_0_split_1
I0925 11:03:16.665509  2600 net.cpp:406] Eltwise20 <- Convolution43
I0925 11:03:16.665513  2600 net.cpp:380] Eltwise20 -> Eltwise20
I0925 11:03:16.665531  2600 net.cpp:122] Setting up Eltwise20
I0925 11:03:16.665544  2600 net.cpp:129] Top shape: 100 64 7 7 (313600)
I0925 11:03:16.665545  2600 net.cpp:137] Memory required for data: 811283600
I0925 11:03:16.665547  2600 layer_factory.hpp:77] Creating layer penlu41
I0925 11:03:16.665552  2600 net.cpp:84] Creating Layer penlu41
I0925 11:03:16.665555  2600 net.cpp:406] penlu41 <- Eltwise20
I0925 11:03:16.665558  2600 net.cpp:367] penlu41 -> Eltwise20 (in-place)
I0925 11:03:16.665673  2600 net.cpp:122] Setting up penlu41
I0925 11:03:16.665678  2600 net.cpp:129] Top shape: 100 64 7 7 (313600)
I0925 11:03:16.665680  2600 net.cpp:137] Memory required for data: 812538000
I0925 11:03:16.665684  2600 layer_factory.hpp:77] Creating layer Eltwise20_penlu41_0_split
I0925 11:03:16.665688  2600 net.cpp:84] Creating Layer Eltwise20_penlu41_0_split
I0925 11:03:16.665690  2600 net.cpp:406] Eltwise20_penlu41_0_split <- Eltwise20
I0925 11:03:16.665693  2600 net.cpp:380] Eltwise20_penlu41_0_split -> Eltwise20_penlu41_0_split_0
I0925 11:03:16.665697  2600 net.cpp:380] Eltwise20_penlu41_0_split -> Eltwise20_penlu41_0_split_1
I0925 11:03:16.665722  2600 net.cpp:122] Setting up Eltwise20_penlu41_0_split
I0925 11:03:16.665726  2600 net.cpp:129] Top shape: 100 64 7 7 (313600)
I0925 11:03:16.665729  2600 net.cpp:129] Top shape: 100 64 7 7 (313600)
I0925 11:03:16.665731  2600 net.cpp:137] Memory required for data: 815046800
I0925 11:03:16.665733  2600 layer_factory.hpp:77] Creating layer Convolution44
I0925 11:03:16.665740  2600 net.cpp:84] Creating Layer Convolution44
I0925 11:03:16.665742  2600 net.cpp:406] Convolution44 <- Eltwise20_penlu41_0_split_0
I0925 11:03:16.665746  2600 net.cpp:380] Convolution44 -> Convolution44
I0925 11:03:16.667423  2600 net.cpp:122] Setting up Convolution44
I0925 11:03:16.667430  2600 net.cpp:129] Top shape: 100 64 7 7 (313600)
I0925 11:03:16.667441  2600 net.cpp:137] Memory required for data: 816301200
I0925 11:03:16.667446  2600 layer_factory.hpp:77] Creating layer BatchNorm44
I0925 11:03:16.667451  2600 net.cpp:84] Creating Layer BatchNorm44
I0925 11:03:16.667454  2600 net.cpp:406] BatchNorm44 <- Convolution44
I0925 11:03:16.667457  2600 net.cpp:367] BatchNorm44 -> Convolution44 (in-place)
I0925 11:03:16.667603  2600 net.cpp:122] Setting up BatchNorm44
I0925 11:03:16.667606  2600 net.cpp:129] Top shape: 100 64 7 7 (313600)
I0925 11:03:16.667609  2600 net.cpp:137] Memory required for data: 817555600
I0925 11:03:16.667613  2600 layer_factory.hpp:77] Creating layer Scale44
I0925 11:03:16.667620  2600 net.cpp:84] Creating Layer Scale44
I0925 11:03:16.667623  2600 net.cpp:406] Scale44 <- Convolution44
I0925 11:03:16.667625  2600 net.cpp:367] Scale44 -> Convolution44 (in-place)
I0925 11:03:16.667655  2600 layer_factory.hpp:77] Creating layer Scale44
I0925 11:03:16.667738  2600 net.cpp:122] Setting up Scale44
I0925 11:03:16.667743  2600 net.cpp:129] Top shape: 100 64 7 7 (313600)
I0925 11:03:16.667745  2600 net.cpp:137] Memory required for data: 818810000
I0925 11:03:16.667749  2600 layer_factory.hpp:77] Creating layer penlu42
I0925 11:03:16.667755  2600 net.cpp:84] Creating Layer penlu42
I0925 11:03:16.667757  2600 net.cpp:406] penlu42 <- Convolution44
I0925 11:03:16.667762  2600 net.cpp:367] penlu42 -> Convolution44 (in-place)
I0925 11:03:16.667876  2600 net.cpp:122] Setting up penlu42
I0925 11:03:16.667881  2600 net.cpp:129] Top shape: 100 64 7 7 (313600)
I0925 11:03:16.667882  2600 net.cpp:137] Memory required for data: 820064400
I0925 11:03:16.667886  2600 layer_factory.hpp:77] Creating layer Convolution45
I0925 11:03:16.667893  2600 net.cpp:84] Creating Layer Convolution45
I0925 11:03:16.667896  2600 net.cpp:406] Convolution45 <- Convolution44
I0925 11:03:16.667899  2600 net.cpp:380] Convolution45 -> Convolution45
I0925 11:03:16.669926  2600 net.cpp:122] Setting up Convolution45
I0925 11:03:16.669935  2600 net.cpp:129] Top shape: 100 64 7 7 (313600)
I0925 11:03:16.669937  2600 net.cpp:137] Memory required for data: 821318800
I0925 11:03:16.669944  2600 layer_factory.hpp:77] Creating layer BatchNorm45
I0925 11:03:16.669948  2600 net.cpp:84] Creating Layer BatchNorm45
I0925 11:03:16.669950  2600 net.cpp:406] BatchNorm45 <- Convolution45
I0925 11:03:16.669955  2600 net.cpp:367] BatchNorm45 -> Convolution45 (in-place)
I0925 11:03:16.670102  2600 net.cpp:122] Setting up BatchNorm45
I0925 11:03:16.670107  2600 net.cpp:129] Top shape: 100 64 7 7 (313600)
I0925 11:03:16.670109  2600 net.cpp:137] Memory required for data: 822573200
I0925 11:03:16.670114  2600 layer_factory.hpp:77] Creating layer Scale45
I0925 11:03:16.670119  2600 net.cpp:84] Creating Layer Scale45
I0925 11:03:16.670120  2600 net.cpp:406] Scale45 <- Convolution45
I0925 11:03:16.670123  2600 net.cpp:367] Scale45 -> Convolution45 (in-place)
I0925 11:03:16.670152  2600 layer_factory.hpp:77] Creating layer Scale45
I0925 11:03:16.670236  2600 net.cpp:122] Setting up Scale45
I0925 11:03:16.670240  2600 net.cpp:129] Top shape: 100 64 7 7 (313600)
I0925 11:03:16.670243  2600 net.cpp:137] Memory required for data: 823827600
I0925 11:03:16.670246  2600 layer_factory.hpp:77] Creating layer Eltwise21
I0925 11:03:16.670250  2600 net.cpp:84] Creating Layer Eltwise21
I0925 11:03:16.670253  2600 net.cpp:406] Eltwise21 <- Eltwise20_penlu41_0_split_1
I0925 11:03:16.670255  2600 net.cpp:406] Eltwise21 <- Convolution45
I0925 11:03:16.670259  2600 net.cpp:380] Eltwise21 -> Eltwise21
I0925 11:03:16.670276  2600 net.cpp:122] Setting up Eltwise21
…
I0925 11:03:17.027128  2600 net.cpp:137] Memory required for data: 1030145200
I0925 11:03:17.027133  2600 layer_factory.hpp:77] Creating layer BatchNorm40
I0925 11:03:17.027139  2600 net.cpp:84] Creating Layer BatchNorm40
I0925 11:03:17.027143  2600 net.cpp:406] BatchNorm40 <- Convolution40
I0925 11:03:17.027145  2600 net.cpp:367] BatchNorm40 -> Convolution40 (in-place)
I0925 11:03:17.027287  2600 net.cpp:122] Setting up BatchNorm40
I0925 11:03:17.027292  2600 net.cpp:129] Top shape: 100 64 8 8 (409600)
I0925 11:03:17.027295  2600 net.cpp:137] Memory required for data: 1031783600
I0925 11:03:17.027312  2600 layer_factory.hpp:77] Creating layer Scale40
I0925 11:03:17.027315  2600 net.cpp:84] Creating Layer Scale40
I0925 11:03:17.027318  2600 net.cpp:406] Scale40 <- Convolution40
I0925 11:03:17.027321  2600 net.cpp:367] Scale40 -> Convolution40 (in-place)
I0925 11:03:17.027360  2600 layer_factory.hpp:77] Creating layer Scale40
I0925 11:03:17.027463  2600 net.cpp:122] Setting up Scale40
I0925 11:03:17.027468  2600 net.cpp:129] Top shape: 100 64 8 8 (409600)
I0925 11:03:17.027470  2600 net.cpp:137] Memory required for data: 1033422000
I0925 11:03:17.027474  2600 layer_factory.hpp:77] Creating layer penlu38
I0925 11:03:17.027480  2600 net.cpp:84] Creating Layer penlu38
I0925 11:03:17.027482  2600 net.cpp:406] penlu38 <- Convolution40
I0925 11:03:17.027485  2600 net.cpp:367] penlu38 -> Convolution40 (in-place)
I0925 11:03:17.027626  2600 net.cpp:122] Setting up penlu38
I0925 11:03:17.027631  2600 net.cpp:129] Top shape: 100 64 8 8 (409600)
I0925 11:03:17.027632  2600 net.cpp:137] Memory required for data: 1035060400
I0925 11:03:17.027637  2600 layer_factory.hpp:77] Creating layer Convolution41
I0925 11:03:17.027644  2600 net.cpp:84] Creating Layer Convolution41
I0925 11:03:17.027647  2600 net.cpp:406] Convolution41 <- Convolution40
I0925 11:03:17.027650  2600 net.cpp:380] Convolution41 -> Convolution41
I0925 11:03:17.029456  2600 net.cpp:122] Setting up Convolution41
I0925 11:03:17.029465  2600 net.cpp:129] Top shape: 100 64 8 8 (409600)
I0925 11:03:17.029469  2600 net.cpp:137] Memory required for data: 1036698800
I0925 11:03:17.029472  2600 layer_factory.hpp:77] Creating layer BatchNorm41
I0925 11:03:17.029479  2600 net.cpp:84] Creating Layer BatchNorm41
I0925 11:03:17.029481  2600 net.cpp:406] BatchNorm41 <- Convolution41
I0925 11:03:17.029494  2600 net.cpp:367] BatchNorm41 -> Convolution41 (in-place)
I0925 11:03:17.029636  2600 net.cpp:122] Setting up BatchNorm41
I0925 11:03:17.029641  2600 net.cpp:129] Top shape: 100 64 8 8 (409600)
I0925 11:03:17.029644  2600 net.cpp:137] Memory required for data: 1038337200
I0925 11:03:17.029649  2600 layer_factory.hpp:77] Creating layer Scale41
I0925 11:03:17.029654  2600 net.cpp:84] Creating Layer Scale41
I0925 11:03:17.029657  2600 net.cpp:406] Scale41 <- Convolution41
I0925 11:03:17.029660  2600 net.cpp:367] Scale41 -> Convolution41 (in-place)
I0925 11:03:17.029690  2600 layer_factory.hpp:77] Creating layer Scale41
I0925 11:03:17.029774  2600 net.cpp:122] Setting up Scale41
I0925 11:03:17.029779  2600 net.cpp:129] Top shape: 100 64 8 8 (409600)
I0925 11:03:17.029781  2600 net.cpp:137] Memory required for data: 1039975600
I0925 11:03:17.029785  2600 layer_factory.hpp:77] Creating layer Eltwise19
I0925 11:03:17.029790  2600 net.cpp:84] Creating Layer Eltwise19
I0925 11:03:17.029793  2600 net.cpp:406] Eltwise19 <- Convolution39
I0925 11:03:17.029795  2600 net.cpp:406] Eltwise19 <- Convolution41
I0925 11:03:17.029799  2600 net.cpp:380] Eltwise19 -> Eltwise19
I0925 11:03:17.029816  2600 net.cpp:122] Setting up Eltwise19
I0925 11:03:17.029820  2600 net.cpp:129] Top shape: 100 64 8 8 (409600)
I0925 11:03:17.029822  2600 net.cpp:137] Memory required for data: 1041614000
I0925 11:03:17.029825  2600 layer_factory.hpp:77] Creating layer penlu39
I0925 11:03:17.029830  2600 net.cpp:84] Creating Layer penlu39
I0925 11:03:17.029834  2600 net.cpp:406] penlu39 <- Eltwise19
I0925 11:03:17.029836  2600 net.cpp:367] penlu39 -> Eltwise19 (in-place)
I0925 11:03:17.029958  2600 net.cpp:122] Setting up penlu39
I0925 11:03:17.029963  2600 net.cpp:129] Top shape: 100 64 8 8 (409600)
I0925 11:03:17.029965  2600 net.cpp:137] Memory required for data: 1043252400
I0925 11:03:17.029970  2600 layer_factory.hpp:77] Creating layer Eltwise19_penlu39_0_split
I0925 11:03:17.029973  2600 net.cpp:84] Creating Layer Eltwise19_penlu39_0_split
I0925 11:03:17.029976  2600 net.cpp:406] Eltwise19_penlu39_0_split <- Eltwise19
I0925 11:03:17.029979  2600 net.cpp:380] Eltwise19_penlu39_0_split -> Eltwise19_penlu39_0_split_0
I0925 11:03:17.029985  2600 net.cpp:380] Eltwise19_penlu39_0_split -> Eltwise19_penlu39_0_split_1
I0925 11:03:17.030009  2600 net.cpp:122] Setting up Eltwise19_penlu39_0_split
I0925 11:03:17.030014  2600 net.cpp:129] Top shape: 100 64 8 8 (409600)
I0925 11:03:17.030016  2600 net.cpp:129] Top shape: 100 64 8 8 (409600)
I0925 11:03:17.030019  2600 net.cpp:137] Memory required for data: 1046529200
I0925 11:03:17.030020  2600 layer_factory.hpp:77] Creating layer Convolution42
I0925 11:03:17.030028  2600 net.cpp:84] Creating Layer Convolution42
I0925 11:03:17.030030  2600 net.cpp:406] Convolution42 <- Eltwise19_penlu39_0_split_0
I0925 11:03:17.030035  2600 net.cpp:380] Convolution42 -> Convolution42
I0925 11:03:17.031792  2600 net.cpp:122] Setting up Convolution42
I0925 11:03:17.031801  2600 net.cpp:129] Top shape: 100 64 8 8 (409600)
I0925 11:03:17.031805  2600 net.cpp:137] Memory required for data: 1048167600
I0925 11:03:17.031808  2600 layer_factory.hpp:77] Creating layer BatchNorm42
I0925 11:03:17.031814  2600 net.cpp:84] Creating Layer BatchNorm42
I0925 11:03:17.031817  2600 net.cpp:406] BatchNorm42 <- Convolution42
I0925 11:03:17.031821  2600 net.cpp:367] BatchNorm42 -> Convolution42 (in-place)
I0925 11:03:17.031958  2600 net.cpp:122] Setting up BatchNorm42
I0925 11:03:17.031963  2600 net.cpp:129] Top shape: 100 64 8 8 (409600)
I0925 11:03:17.031965  2600 net.cpp:137] Memory required for data: 1049806000
I0925 11:03:17.031970  2600 layer_factory.hpp:77] Creating layer Scale42
I0925 11:03:17.031975  2600 net.cpp:84] Creating Layer Scale42
I0925 11:03:17.031977  2600 net.cpp:406] Scale42 <- Convolution42
I0925 11:03:17.031980  2600 net.cpp:367] Scale42 -> Convolution42 (in-place)
I0925 11:03:17.032011  2600 layer_factory.hpp:77] Creating layer Scale42
I0925 11:03:17.032090  2600 net.cpp:122] Setting up Scale42
I0925 11:03:17.032101  2600 net.cpp:129] Top shape: 100 64 8 8 (409600)
I0925 11:03:17.032104  2600 net.cpp:137] Memory required for data: 1051444400
I0925 11:03:17.032107  2600 layer_factory.hpp:77] Creating layer penlu40
I0925 11:03:17.032114  2600 net.cpp:84] Creating Layer penlu40
I0925 11:03:17.032116  2600 net.cpp:406] penlu40 <- Convolution42
I0925 11:03:17.032120  2600 net.cpp:367] penlu40 -> Convolution42 (in-place)
I0925 11:03:17.032238  2600 net.cpp:122] Setting up penlu40
I0925 11:03:17.032243  2600 net.cpp:129] Top shape: 100 64 8 8 (409600)
I0925 11:03:17.032245  2600 net.cpp:137] Memory required for data: 1053082800
I0925 11:03:17.032250  2600 layer_factory.hpp:77] Creating layer Convolution43
I0925 11:03:17.032258  2600 net.cpp:84] Creating Layer Convolution43
I0925 11:03:17.032259  2600 net.cpp:406] Convolution43 <- Convolution42
I0925 11:03:17.032263  2600 net.cpp:380] Convolution43 -> Convolution43
I0925 11:03:17.034008  2600 net.cpp:122] Setting up Convolution43
I0925 11:03:17.034018  2600 net.cpp:129] Top shape: 100 64 8 8 (409600)
I0925 11:03:17.034020  2600 net.cpp:137] Memory required for data: 1054721200
I0925 11:03:17.034025  2600 layer_factory.hpp:77] Creating layer BatchNorm43
I0925 11:03:17.034030  2600 net.cpp:84] Creating Layer BatchNorm43
I0925 11:03:17.034034  2600 net.cpp:406] BatchNorm43 <- Convolution43
I0925 11:03:17.034037  2600 net.cpp:367] BatchNorm43 -> Convolution43 (in-place)
I0925 11:03:17.034178  2600 net.cpp:122] Setting up BatchNorm43
I0925 11:03:17.034183  2600 net.cpp:129] Top shape: 100 64 8 8 (409600)
I0925 11:03:17.034186  2600 net.cpp:137] Memory required for data: 1056359600
I0925 11:03:17.034191  2600 layer_factory.hpp:77] Creating layer Scale43
I0925 11:03:17.034195  2600 net.cpp:84] Creating Layer Scale43
I0925 11:03:17.034198  2600 net.cpp:406] Scale43 <- Convolution43
I0925 11:03:17.034201  2600 net.cpp:367] Scale43 -> Convolution43 (in-place)
I0925 11:03:17.034229  2600 layer_factory.hpp:77] Creating layer Scale43
I0925 11:03:17.034310  2600 net.cpp:122] Setting up Scale43
I0925 11:03:17.034315  2600 net.cpp:129] Top shape: 100 64 8 8 (409600)
I0925 11:03:17.034318  2600 net.cpp:137] Memory required for data: 1057998000
I0925 11:03:17.034322  2600 layer_factory.hpp:77] Creating layer Eltwise20
I0925 11:03:17.034327  2600 net.cpp:84] Creating Layer Eltwise20
I0925 11:03:17.034330  2600 net.cpp:406] Eltwise20 <- Eltwise19_penlu39_0_split_1
I0925 11:03:17.034333  2600 net.cpp:406] Eltwise20 <- Convolution43
I0925 11:03:17.034337  2600 net.cpp:380] Eltwise20 -> Eltwise20
I0925 11:03:17.034354  2600 net.cpp:122] Setting up Eltwise20
I0925 11:03:17.034358  2600 net.cpp:129] Top shape: 100 64 8 8 (409600)
I0925 11:03:17.034360  2600 net.cpp:137] Memory required for data: 1059636400
I0925 11:03:17.034363  2600 layer_factory.hpp:77] Creating layer penlu41
I0925 11:03:17.034368  2600 net.cpp:84] Creating Layer penlu41
I0925 11:03:17.034370  2600 net.cpp:406] penlu41 <- Eltwise20
I0925 11:03:17.034373  2600 net.cpp:367] penlu41 -> Eltwise20 (in-place)
I0925 11:03:17.034489  2600 net.cpp:122] Setting up penlu41
I0925 11:03:17.034494  2600 net.cpp:129] Top shape: 100 64 8 8 (409600)
I0925 11:03:17.034497  2600 net.cpp:137] Memory required for data: 1061274800
I0925 11:03:17.034500  2600 layer_factory.hpp:77] Creating layer Eltwise20_penlu41_0_split
I0925 11:03:17.034504  2600 net.cpp:84] Creating Layer Eltwise20_penlu41_0_split
I0925 11:03:17.034507  2600 net.cpp:406] Eltwise20_penlu41_0_split <- Eltwise20
I0925 11:03:17.034510  2600 net.cpp:380] Eltwise20_penlu41_0_split -> Eltwise20_penlu41_0_split_0
I0925 11:03:17.034514  2600 net.cpp:380] Eltwise20_penlu41_0_split -> Eltwise20_penlu41_0_split_1
I0925 11:03:17.034538  2600 net.cpp:122] Setting up Eltwise20_penlu41_0_split
I0925 11:03:17.034543  2600 net.cpp:129] Top shape: 100 64 8 8 (409600)
I0925 11:03:17.034545  2600 net.cpp:129] Top shape: 100 64 8 8 (409600)
I0925 11:03:17.034548  2600 net.cpp:137] Memory required for data: 1064551600
I0925 11:03:17.034549  2600 layer_factory.hpp:77] Creating layer Convolution44
I0925 11:03:17.034564  2600 net.cpp:84] Creating Layer Convolution44
I0925 11:03:17.034566  2600 net.cpp:406] Convolution44 <- Eltwise20_penlu41_0_split_0
I0925 11:03:17.034570  2600 net.cpp:380] Convolution44 -> Convolution44
I0925 11:03:17.036639  2600 net.cpp:122] Setting up Convolution44
I0925 11:03:17.036648  2600 net.cpp:129] Top shape: 100 64 8 8 (409600)
I0925 11:03:17.036651  2600 net.cpp:137] Memory required for data: 1066190000
I0925 11:03:17.036658  2600 layer_factory.hpp:77] Creating layer BatchNorm44
I0925 11:03:17.036661  2600 net.cpp:84] Creating Layer BatchNorm44
I0925 11:03:17.036664  2600 net.cpp:406] BatchNorm44 <- Convolution44
I0925 11:03:17.036669  2600 net.cpp:367] BatchNorm44 -> Convolution44 (in-place)
I0925 11:03:17.036815  2600 net.cpp:122] Setting up BatchNorm44
I0925 11:03:17.036820  2600 net.cpp:129] Top shape: 100 64 8 8 (409600)
I0925 11:03:17.036823  2600 net.cpp:137] Memory required for data: 1067828400
I0925 11:03:17.036828  2600 layer_factory.hpp:77] Creating layer Scale44
I0925 11:03:17.036833  2600 net.cpp:84] Creating Layer Scale44
I0925 11:03:17.036834  2600 net.cpp:406] Scale44 <- Convolution44
I0925 11:03:17.036837  2600 net.cpp:367] Scale44 -> Convolution44 (in-place)
I0925 11:03:17.036869  2600 layer_factory.hpp:77] Creating layer Scale44
I0925 11:03:17.036949  2600 net.cpp:122] Setting up Scale44
I0925 11:03:17.036954  2600 net.cpp:129] Top shape: 100 64 8 8 (409600)
I0925 11:03:17.036957  2600 net.cpp:137] Memory required for data: 1069466800
I0925 11:03:17.036960  2600 layer_factory.hpp:77] Creating layer penlu42
I0925 11:03:17.036965  2600 net.cpp:84] Creating Layer penlu42
I0925 11:03:17.036968  2600 net.cpp:406] penlu42 <- Convolution44
I0925 11:03:17.036972  2600 net.cpp:367] penlu42 -> Convolution44 (in-place)
I0925 11:03:17.037089  2600 net.cpp:122] Setting up penlu42
I0925 11:03:17.037094  2600 net.cpp:129] Top shape: 100 64 8 8 (409600)
I0925 11:03:17.037096  2600 net.cpp:137] Memory required for data: 1071105200
I0925 11:03:17.037101  2600 layer_factory.hpp:77] Creating layer Convolution45
I0925 11:03:17.037107  2600 net.cpp:84] Creating Layer Convolution45
I0925 11:03:17.037111  2600 net.cpp:406] Convolution45 <- Convolution44
I0925 11:03:17.037114  2600 net.cpp:380] Convolution45 -> Convolution45
I0925 11:03:17.038863  2600 net.cpp:122] Setting up Convolution45
I0925 11:03:17.038872  2600 net.cpp:129] Top shape: 100 64 8 8 (409600)
I0925 11:03:17.038874  2600 net.cpp:137] Memory required for data: 1072743600
I0925 11:03:17.038879  2600 layer_factory.hpp:77] Creating layer BatchNorm45
I0925 11:03:17.038885  2600 net.cpp:84] Creating Layer BatchNorm45
I0925 11:03:17.038888  2600 net.cpp:406] BatchNorm45 <- Convolution45
I0925 11:03:17.038892  2600 net.cpp:367] BatchNorm45 -> Convolution45 (in-place)
I0925 11:03:17.039032  2600 net.cpp:122] Setting up BatchNorm45
I0925 11:03:17.039036  2600 net.cpp:129] Top shape: 100 64 8 8 (409600)
I0925 11:03:17.039039  2600 net.cpp:137] Memory required for data: 1074382000
I0925 11:03:17.039044  2600 layer_factory.hpp:77] Creating layer Scale45
I0925 11:03:17.039048  2600 net.cpp:84] Creating Layer Scale45
I0925 11:03:17.039052  2600 net.cpp:406] Scale45 <- Convolution45
I0925 11:03:17.039054  2600 net.cpp:367] Scale45 -> Convolution45 (in-place)
I0925 11:03:17.039084  2600 layer_factory.hpp:77] Creating layer Scale45
I0925 11:03:17.039165  2600 net.cpp:122] Setting up Scale45
I0925 11:03:17.039170  2600 net.cpp:129] Top shape: 100 64 8 8 (409600)
I0925 11:03:17.039171  2600 net.cpp:137] Memory required for data: 1076020400
I0925 11:03:17.039175  2600 layer_factory.hpp:77] Creating layer Eltwise21
I0925 11:03:17.039180  2600 net.cpp:84] Creating Layer Eltwise21
I0925 11:03:17.039181  2600 net.cpp:406] Eltwise21 <- Eltwise20_penlu41_0_split_1
I0925 11:03:17.039185  2600 net.cpp:406] Eltwise21 <- Convolution45
I0925 11:03:17.039189  2600 net.cpp:380] Eltwise21 -> Eltwise21
I0925 11:03:17.039206  2600 net.cpp:122] Setting up Eltwise21
I0925 11:03:17.039209  2600 net.cpp:129] Top shape: 100 64 8 8 (409600)
I0925 11:03:17.039211  2600 net.cpp:137] Memory required for data: 1077658800
I0925 11:03:17.039221  2600 layer_factory.hpp:77] Creating layer penlu43
I0925 11:03:17.039227  2600 net.cpp:84] Creating Layer penlu43
I0925 11:03:17.039229  2600 net.cpp:406] penlu43 <- Eltwise21
I0925 11:03:17.039232  2600 net.cpp:367] penlu43 -> Eltwise21 (in-place)
I0925 11:03:17.039351  2600 net.cpp:122] Setting up penlu43
I0925 11:03:17.039356  2600 net.cpp:129] Top shape: 100 64 8 8 (409600)
I0925 11:03:17.039358  2600 net.cpp:137] Memory required for data: 1079297200
I0925 11:03:17.039363  2600 layer_factory.hpp:77] Creating layer Eltwise21_penlu43_0_split
I0925 11:03:17.039366  2600 net.cpp:84] Creating Layer Eltwise21_penlu43_0_split
I0925 11:03:17.039369  2600 net.cpp:406] Eltwise21_penlu43_0_split <- Eltwise21
I0925 11:03:17.039373  2600 net.cpp:380] Eltwise21_penlu43_0_split -> Eltwise21_penlu43_0_split_0
I0925 11:03:17.039378  2600 net.cpp:380] Eltwise21_penlu43_0_split -> Eltwise21_penlu43_0_split_1
I0925 11:03:17.039402  2600 net.cpp:122] Setting up Eltwise21_penlu43_0_split
I0925 11:03:17.039407  2600 net.cpp:129] Top shape: 100 64 8 8 (409600)
I0925 11:03:17.039409  2600 net.cpp:129] Top shape: 100 64 8 8 (409600)
I0925 11:03:17.053500  2600 net.cpp:137] Memory required for data: 1082574000
I0925 11:03:17.053510  2600 layer_factory.hpp:77] Creating layer Convolution46
I0925 11:03:17.053524  2600 net.cpp:84] Creating Layer Convolution46
I0925 11:03:17.053529  2600 net.cpp:406] Convolution46 <- Eltwise21_penlu43_0_split_0
I0925 11:03:17.053536  2600 net.cpp:380] Convolution46 -> Convolution46
I0925 11:03:17.056174  2600 net.cpp:122] Setting up Convolution46
I0925 11:03:17.056185  2600 net.cpp:129] Top shape: 100 64 8 8 (409600)
I0925 11:03:17.056187  2600 net.cpp:137] Memory required for data: 1084212400
I0925 11:03:17.056201  2600 layer_factory.hpp:77] Creating layer BatchNorm46
I0925 11:03:17.056206  2600 net.cpp:84] Creating Layer BatchNorm46
I0925 11:03:17.056210  2600 net.cpp:406] BatchNorm46 <- Convolution46
I0925 11:03:17.056213  2600 net.cpp:367] BatchNorm46 -> Convolution46 (in-place)
I0925 11:03:17.056361  2600 net.cpp:122] Setting up BatchNorm46
I0925 11:03:17.056366  2600 net.cpp:129] Top shape: 100 64 8 8 (409600)
I0925 11:03:17.056368  2600 net.cpp:137] Memory required for data: 1085850800
I0925 11:03:17.056373  2600 layer_factory.hpp:77] Creating layer Scale46
I0925 11:03:17.056377  2600 net.cpp:84] Creating Layer Scale46
I0925 11:03:17.056380  2600 net.cpp:406] Scale46 <- Convolution46
I0925 11:03:17.056383  2600 net.cpp:367] Scale46 -> Convolution46 (in-place)
I0925 11:03:17.056414  2600 layer_factory.hpp:77] Creating layer Scale46
I0925 11:03:17.056506  2600 net.cpp:122] Setting up Scale46
I0925 11:03:17.056514  2600 net.cpp:129] Top shape: 100 64 8 8 (409600)
I0925 11:03:17.056515  2600 net.cpp:137] Memory required for data: 1087489200
I0925 11:03:17.056519  2600 layer_factory.hpp:77] Creating layer penlu44
I0925 11:03:17.056525  2600 net.cpp:84] Creating Layer penlu44
I0925 11:03:17.056529  2600 net.cpp:406] penlu44 <- Convolution46
I0925 11:03:17.056532  2600 net.cpp:367] penlu44 -> Convolution46 (in-place)
I0925 11:03:17.056706  2600 net.cpp:122] Setting up penlu44
I0925 11:03:17.056726  2600 net.cpp:129] Top shape: 100 64 8 8 (409600)
I0925 11:03:17.056730  2600 net.cpp:137] Memory required for data: 1089127600
I0925 11:03:17.056738  2600 layer_factory.hpp:77] Creating layer Convolution47
I0925 11:03:17.056746  2600 net.cpp:84] Creating Layer Convolution47
I0925 11:03:17.056749  2600 net.cpp:406] Convolution47 <- Convolution46
I0925 11:03:17.056753  2600 net.cpp:380] Convolution47 -> Convolution47
I0925 11:03:17.058627  2600 net.cpp:122] Setting up Convolution47
I0925 11:03:17.058636  2600 net.cpp:129] Top shape: 100 64 8 8 (409600)
I0925 11:03:17.058640  2600 net.cpp:137] Memory required for data: 1090766000
I0925 11:03:17.058643  2600 layer_factory.hpp:77] Creating layer BatchNorm47
I0925 11:03:17.058650  2600 net.cpp:84] Creating Layer BatchNorm47
I0925 11:03:17.058652  2600 net.cpp:406] BatchNorm47 <- Convolution47
I0925 11:03:17.058656  2600 net.cpp:367] BatchNorm47 -> Convolution47 (in-place)
I0925 11:03:17.058805  2600 net.cpp:122] Setting up BatchNorm47
I0925 11:03:17.058811  2600 net.cpp:129] Top shape: 100 64 8 8 (409600)
I0925 11:03:17.058814  2600 net.cpp:137] Memory required for data: 1092404400
I0925 11:03:17.058818  2600 layer_factory.hpp:77] Creating layer Scale47
I0925 11:03:17.058822  2600 net.cpp:84] Creating Layer Scale47
I0925 11:03:17.058825  2600 net.cpp:406] Scale47 <- Convolution47
I0925 11:03:17.058828  2600 net.cpp:367] Scale47 -> Convolution47 (in-place)
I0925 11:03:17.058857  2600 layer_factory.hpp:77] Creating layer Scale47
I0925 11:03:17.058939  2600 net.cpp:122] Setting up Scale47
I0925 11:03:17.058944  2600 net.cpp:129] Top shape: 100 64 8 8 (409600)
I0925 11:03:17.058946  2600 net.cpp:137] Memory required for data: 1094042800
I0925 11:03:17.058950  2600 layer_factory.hpp:77] Creating layer Eltwise22
I0925 11:03:17.058954  2600 net.cpp:84] Creating Layer Eltwise22
I0925 11:03:17.058957  2600 net.cpp:406] Eltwise22 <- Eltwise21_penlu43_0_split_1
I0925 11:03:17.058960  2600 net.cpp:406] Eltwise22 <- Convolution47
I0925 11:03:17.058964  2600 net.cpp:380] Eltwise22 -> Eltwise22
I0925 11:03:17.058981  2600 net.cpp:122] Setting up Eltwise22
I0925 11:03:17.058985  2600 net.cpp:129] Top shape: 100 64 8 8 (409600)
I0925 11:03:17.058987  2600 net.cpp:137] Memory required for data: 1095681200
I0925 11:03:17.058990  2600 layer_factory.hpp:77] Creating layer penlu45
I0925 11:03:17.058995  2600 net.cpp:84] Creating Layer penlu45
I0925 11:03:17.058997  2600 net.cpp:406] penlu45 <- Eltwise22
I0925 11:03:17.059001  2600 net.cpp:367] penlu45 -> Eltwise22 (in-place)
I0925 11:03:17.059120  2600 net.cpp:122] Setting up penlu45
I0925 11:03:17.059124  2600 net.cpp:129] Top shape: 100 64 8 8 (409600)
I0925 11:03:17.059126  2600 net.cpp:137] Memory required for data: 1097319600
I0925 11:03:17.059131  2600 layer_factory.hpp:77] Creating layer Eltwise22_penlu45_0_split
I0925 11:03:17.059135  2600 net.cpp:84] Creating Layer Eltwise22_penlu45_0_split
I0925 11:03:17.059137  2600 net.cpp:406] Eltwise22_penlu45_0_split <- Eltwise22
I0925 11:03:17.059144  2600 net.cpp:380] Eltwise22_penlu45_0_split -> Eltwise22_penlu45_0_split_0
I0925 11:03:17.059147  2600 net.cpp:380] Eltwise22_penlu45_0_split -> Eltwise22_penlu45_0_split_1
I0925 11:03:17.059171  2600 net.cpp:122] Setting up Eltwise22_penlu45_0_split
I0925 11:03:17.059175  2600 net.cpp:129] Top shape: 100 64 8 8 (409600)
I0925 11:03:17.059178  2600 net.cpp:129] Top shape: 100 64 8 8 (409600)
I0925 11:03:17.059180  2600 net.cpp:137] Memory required for data: 1100596400
I0925 11:03:17.059182  2600 layer_factory.hpp:77] Creating layer Convolution48
I0925 11:03:17.059190  2600 net.cpp:84] Creating Layer Convolution48
I0925 11:03:17.059191  2600 net.cpp:406] Convolution48 <- Eltwise22_penlu45_0_split_0
I0925 11:03:17.059195  2600 net.cpp:380] Convolution48 -> Convolution48
I0925 11:03:17.061264  2600 net.cpp:122] Setting up Convolution48
I0925 11:03:17.061272  2600 net.cpp:129] Top shape: 100 64 8 8 (409600)
I0925 11:03:17.061275  2600 net.cpp:137] Memory required for data: 1102234800
I0925 11:03:17.061281  2600 layer_factory.hpp:77] Creating layer BatchNorm48
I0925 11:03:17.061286  2600 net.cpp:84] Creating Layer BatchNorm48
I0925 11:03:17.061290  2600 net.cpp:406] BatchNorm48 <- Convolution48
I0925 11:03:17.061293  2600 net.cpp:367] BatchNorm48 -> Convolution48 (in-place)
I0925 11:03:17.061439  2600 net.cpp:122] Setting up BatchNorm48
I0925 11:03:17.061444  2600 net.cpp:129] Top shape: 100 64 8 8 (409600)
I0925 11:03:17.061446  2600 net.cpp:137] Memory required for data: 1103873200
I0925 11:03:17.061451  2600 layer_factory.hpp:77] Creating layer Scale48
I0925 11:03:17.061455  2600 net.cpp:84] Creating Layer Scale48
I0925 11:03:17.061458  2600 net.cpp:406] Scale48 <- Convolution48
I0925 11:03:17.061461  2600 net.cpp:367] Scale48 -> Convolution48 (in-place)
I0925 11:03:17.061491  2600 layer_factory.hpp:77] Creating layer Scale48
I0925 11:03:17.061575  2600 net.cpp:122] Setting up Scale48
I0925 11:03:17.061580  2600 net.cpp:129] Top shape: 100 64 8 8 (409600)
I0925 11:03:17.061589  2600 net.cpp:137] Memory required for data: 1105511600
I0925 11:03:17.061594  2600 layer_factory.hpp:77] Creating layer penlu46
I0925 11:03:17.061599  2600 net.cpp:84] Creating Layer penlu46
I0925 11:03:17.061600  2600 net.cpp:406] penlu46 <- Convolution48
I0925 11:03:17.061605  2600 net.cpp:367] penlu46 -> Convolution48 (in-place)
I0925 11:03:17.061725  2600 net.cpp:122] Setting up penlu46
I0925 11:03:17.061730  2600 net.cpp:129] Top shape: 100 64 8 8 (409600)
I0925 11:03:17.061733  2600 net.cpp:137] Memory required for data: 1107150000
I0925 11:03:17.061738  2600 layer_factory.hpp:77] Creating layer Convolution49
I0925 11:03:17.061743  2600 net.cpp:84] Creating Layer Convolution49
I0925 11:03:17.061746  2600 net.cpp:406] Convolution49 <- Convolution48
I0925 11:03:17.061750  2600 net.cpp:380] Convolution49 -> Convolution49
I0925 11:03:17.063844  2600 net.cpp:122] Setting up Convolution49
I0925 11:03:17.063853  2600 net.cpp:129] Top shape: 100 64 8 8 (409600)
I0925 11:03:17.063856  2600 net.cpp:137] Memory required for data: 1108788400
I0925 11:03:17.063861  2600 layer_factory.hpp:77] Creating layer BatchNorm49
I0925 11:03:17.063866  2600 net.cpp:84] Creating Layer BatchNorm49
I0925 11:03:17.063869  2600 net.cpp:406] BatchNorm49 <- Convolution49
I0925 11:03:17.063874  2600 net.cpp:367] BatchNorm49 -> Convolution49 (in-place)
I0925 11:03:17.064016  2600 net.cpp:122] Setting up BatchNorm49
I0925 11:03:17.064021  2600 net.cpp:129] Top shape: 100 64 8 8 (409600)
I0925 11:03:17.064023  2600 net.cpp:137] Memory required for data: 1110426800
I0925 11:03:17.064028  2600 layer_factory.hpp:77] Creating layer Scale49
I0925 11:03:17.064033  2600 net.cpp:84] Creating Layer Scale49
I0925 11:03:17.064035  2600 net.cpp:406] Scale49 <- Convolution49
I0925 11:03:17.064039  2600 net.cpp:367] Scale49 -> Convolution49 (in-place)
I0925 11:03:17.064067  2600 layer_factory.hpp:77] Creating layer Scale49
I0925 11:03:17.064151  2600 net.cpp:122] Setting up Scale49
I0925 11:03:17.064155  2600 net.cpp:129] Top shape: 100 64 8 8 (409600)
I0925 11:03:17.064157  2600 net.cpp:137] Memory required for data: 1112065200
I0925 11:03:17.064162  2600 layer_factory.hpp:77] Creating layer Eltwise23
I0925 11:03:17.064167  2600 net.cpp:84] Creating Layer Eltwise23
I0925 11:03:17.064168  2600 net.cpp:406] Eltwise23 <- Eltwise22_penlu45_0_split_1
I0925 11:03:17.064172  2600 net.cpp:406] Eltwise23 <- Convolution49
I0925 11:03:17.064175  2600 net.cpp:380] Eltwise23 -> Eltwise23
I0925 11:03:17.064193  2600 net.cpp:122] Setting up Eltwise23
I0925 11:03:17.064196  2600 net.cpp:129] Top shape: 100 64 8 8 (409600)
I0925 11:03:17.064198  2600 net.cpp:137] Memory required for data: 1113703600
I0925 11:03:17.064200  2600 layer_factory.hpp:77] Creating layer penlu47
I0925 11:03:17.064206  2600 net.cpp:84] Creating Layer penlu47
I0925 11:03:17.064208  2600 net.cpp:406] penlu47 <- Eltwise23
I0925 11:03:17.064213  2600 net.cpp:367] penlu47 -> Eltwise23 (in-place)
I0925 11:03:17.064330  2600 net.cpp:122] Setting up penlu47
I0925 11:03:17.064335  2600 net.cpp:129] Top shape: 100 64 8 8 (409600)
I0925 11:03:17.064337  2600 net.cpp:137] Memory required for data: 1115342000
I0925 11:03:17.064342  2600 layer_factory.hpp:77] Creating layer Eltwise23_penlu47_0_split
I0925 11:03:17.064345  2600 net.cpp:84] Creating Layer Eltwise23_penlu47_0_split
I0925 11:03:17.064348  2600 net.cpp:406] Eltwise23_penlu47_0_split <- Eltwise23
I0925 11:03:17.064352  2600 net.cpp:380] Eltwise23_penlu47_0_split -> Eltwise23_penlu47_0_split_0
I0925 11:03:17.064355  2600 net.cpp:380] Eltwise23_penlu47_0_split -> Eltwise23_penlu47_0_split_1
I0925 11:03:17.064381  2600 net.cpp:122] Setting up Eltwise23_penlu47_0_split
I0925 11:03:17.064385  2600 net.cpp:129] Top shape: 100 64 8 8 (409600)
I0925 11:03:17.064388  2600 net.cpp:129] Top shape: 100 64 8 8 (409600)
I0925 11:03:17.064390  2600 net.cpp:137] Memory required for data: 1118618800
I0925 11:03:17.064393  2600 layer_factory.hpp:77] Creating layer Convolution50
I0925 11:03:17.064399  2600 net.cpp:84] Creating Layer Convolution50
I0925 11:03:17.064407  2600 net.cpp:406] Convolution50 <- Eltwise23_penlu47_0_split_0
I0925 11:03:17.064412  2600 net.cpp:380] Convolution50 -> Convolution50
I0925 11:03:17.067004  2600 net.cpp:122] Setting up Convolution50
I0925 11:03:17.067014  2600 net.cpp:129] Top shape: 100 64 8 8 (409600)
I0925 11:03:17.067018  2600 net.cpp:137] Memory required for data: 1120257200
I0925 11:03:17.067021  2600 layer_factory.hpp:77] Creating layer BatchNorm50
I0925 11:03:17.067028  2600 net.cpp:84] Creating Layer BatchNorm50
I0925 11:03:17.067030  2600 net.cpp:406] BatchNorm50 <- Convolution50
I0925 11:03:17.067034  2600 net.cpp:367] BatchNorm50 -> Convolution50 (in-place)
I0925 11:03:17.067181  2600 net.cpp:122] Setting up BatchNorm50
I0925 11:03:17.067186  2600 net.cpp:129] Top shape: 100 64 8 8 (409600)
I0925 11:03:17.067188  2600 net.cpp:137] Memory required for data: 1121895600
I0925 11:03:17.067193  2600 layer_factory.hpp:77] Creating layer Scale50
I0925 11:03:17.067198  2600 net.cpp:84] Creating Layer Scale50
I0925 11:03:17.067201  2600 net.cpp:406] Scale50 <- Convolution50
I0925 11:03:17.067205  2600 net.cpp:367] Scale50 -> Convolution50 (in-place)
I0925 11:03:17.067235  2600 layer_factory.hpp:77] Creating layer Scale50
I0925 11:03:17.067318  2600 net.cpp:122] Setting up Scale50
I0925 11:03:17.067323  2600 net.cpp:129] Top shape: 100 64 8 8 (409600)
I0925 11:03:17.067325  2600 net.cpp:137] Memory required for data: 1123534000
I0925 11:03:17.067329  2600 layer_factory.hpp:77] Creating layer penlu48
I0925 11:03:17.067334  2600 net.cpp:84] Creating Layer penlu48
I0925 11:03:17.067337  2600 net.cpp:406] penlu48 <- Convolution50
I0925 11:03:17.067340  2600 net.cpp:367] penlu48 -> Convolution50 (in-place)
I0925 11:03:17.067457  2600 net.cpp:122] Setting up penlu48
I0925 11:03:17.067462  2600 net.cpp:129] Top shape: 100 64 8 8 (409600)
I0925 11:03:17.067464  2600 net.cpp:137] Memory required for data: 1125172400
I0925 11:03:17.067469  2600 layer_factory.hpp:77] Creating layer Convolution51
I0925 11:03:17.067477  2600 net.cpp:84] Creating Layer Convolution51
I0925 11:03:17.067479  2600 net.cpp:406] Convolution51 <- Convolution50
I0925 11:03:17.067483  2600 net.cpp:380] Convolution51 -> Convolution51
I0925 11:03:17.069226  2600 net.cpp:122] Setting up Convolution51
I0925 11:03:17.069236  2600 net.cpp:129] Top shape: 100 64 8 8 (409600)
I0925 11:03:17.069238  2600 net.cpp:137] Memory required for data: 1126810800
I0925 11:03:17.069242  2600 layer_factory.hpp:77] Creating layer BatchNorm51
I0925 11:03:17.069248  2600 net.cpp:84] Creating Layer BatchNorm51
I0925 11:03:17.069252  2600 net.cpp:406] BatchNorm51 <- Convolution51
I0925 11:03:17.069255  2600 net.cpp:367] BatchNorm51 -> Convolution51 (in-place)
I0925 11:03:17.069396  2600 net.cpp:122] Setting up BatchNorm51
I0925 11:03:17.069401  2600 net.cpp:129] Top shape: 100 64 8 8 (409600)
I0925 11:03:17.069403  2600 net.cpp:137] Memory required for data: 1128449200
I0925 11:03:17.069408  2600 layer_factory.hpp:77] Creating layer Scale51
I0925 11:03:17.069413  2600 net.cpp:84] Creating Layer Scale51
I0925 11:03:17.069416  2600 net.cpp:406] Scale51 <- Convolution51
I0925 11:03:17.069419  2600 net.cpp:367] Scale51 -> Convolution51 (in-place)
I0925 11:03:17.069448  2600 layer_factory.hpp:77] Creating layer Scale51
I0925 11:03:17.069531  2600 net.cpp:122] Setting up Scale51
I0925 11:03:17.069535  2600 net.cpp:129] Top shape: 100 64 8 8 (409600)
I0925 11:03:17.069538  2600 net.cpp:137] Memory required for data: 1130087600
I0925 11:03:17.069541  2600 layer_factory.hpp:77] Creating layer Eltwise24
I0925 11:03:17.069546  2600 net.cpp:84] Creating Layer Eltwise24
I0925 11:03:17.069550  2600 net.cpp:406] Eltwise24 <- Eltwise23_penlu47_0_split_1
I0925 11:03:17.069552  2600 net.cpp:406] Eltwise24 <- Convolution51
I0925 11:03:17.069556  2600 net.cpp:380] Eltwise24 -> Eltwise24
I0925 11:03:17.069573  2600 net.cpp:122] Setting up Eltwise24
I0925 11:03:17.069577  2600 net.cpp:129] Top shape: 100 64 8 8 (409600)
I0925 11:03:17.069579  2600 net.cpp:137] Memory required for data: 1131726000
I0925 11:03:17.069588  2600 layer_factory.hpp:77] Creating layer penlu49
I0925 11:03:17.069594  2600 net.cpp:84] Creating Layer penlu49
I0925 11:03:17.069597  2600 net.cpp:406] penlu49 <- Eltwise24
I0925 11:03:17.069600  2600 net.cpp:367] penlu49 -> Eltwise24 (in-place)
I0925 11:03:17.069720  2600 net.cpp:122] Setting up penlu49
I0925 11:03:17.069725  2600 net.cpp:129] Top shape: 100 64 8 8 (409600)
I0925 11:03:17.069726  2600 net.cpp:137] Memory required for data: 1133364400
I0925 11:03:17.069730  2600 layer_factory.hpp:77] Creating layer Eltwise24_penlu49_0_split
I0925 11:03:17.069735  2600 net.cpp:84] Creating Layer Eltwise24_penlu49_0_split
I0925 11:03:17.069736  2600 net.cpp:406] Eltwise24_penlu49_0_split <- Eltwise24
I0925 11:03:17.069741  2600 net.cpp:380] Eltwise24_penlu49_0_split -> Eltwise24_penlu49_0_split_0
I0925 11:03:17.069744  2600 net.cpp:380] Eltwise24_penlu49_0_split -> Eltwise24_penlu49_0_split_1
I0925 11:03:17.069780  2600 net.cpp:122] Setting up Eltwise24_penlu49_0_split
I0925 11:03:17.083916  2600 net.cpp:129] Top shape: 100 64 8 8 (409600)
I0925 11:03:17.083927  2600 net.cpp:129] Top shape: 100 64 8 8 (409600)
I0925 11:03:17.083932  2600 net.cpp:137] Memory required for data: 1136641200
I0925 11:03:17.083937  2600 layer_factory.hpp:77] Creating layer Convolution52
I0925 11:03:17.083950  2600 net.cpp:84] Creating Layer Convolution52
I0925 11:03:17.083955  2600 net.cpp:406] Convolution52 <- Eltwise24_penlu49_0_split_0
I0925 11:03:17.083963  2600 net.cpp:380] Convolution52 -> Convolution52
I0925 11:03:17.086920  2600 net.cpp:122] Setting up Convolution52
I0925 11:03:17.086930  2600 net.cpp:129] Top shape: 100 64 8 8 (409600)
I0925 11:03:17.086932  2600 net.cpp:137] Memory required for data: 1138279600
I0925 11:03:17.086938  2600 layer_factory.hpp:77] Creating layer BatchNorm52
I0925 11:03:17.086943  2600 net.cpp:84] Creating Layer BatchNorm52
I0925 11:03:17.086946  2600 net.cpp:406] BatchNorm52 <- Convolution52
I0925 11:03:17.086951  2600 net.cpp:367] BatchNorm52 -> Convolution52 (in-place)
I0925 11:03:17.087133  2600 net.cpp:122] Setting up BatchNorm52
I0925 11:03:17.087143  2600 net.cpp:129] Top shape: 100 64 8 8 (409600)
I0925 11:03:17.087148  2600 net.cpp:137] Memory required for data: 1139918000
I0925 11:03:17.087157  2600 layer_factory.hpp:77] Creating layer Scale52
I0925 11:03:17.087163  2600 net.cpp:84] Creating Layer Scale52
I0925 11:03:17.087168  2600 net.cpp:406] Scale52 <- Convolution52
I0925 11:03:17.087173  2600 net.cpp:367] Scale52 -> Convolution52 (in-place)
I0925 11:03:17.087208  2600 layer_factory.hpp:77] Creating layer Scale52
I0925 11:03:17.087293  2600 net.cpp:122] Setting up Scale52
I0925 11:03:17.087298  2600 net.cpp:129] Top shape: 100 64 8 8 (409600)
I0925 11:03:17.087301  2600 net.cpp:137] Memory required for data: 1141556400
I0925 11:03:17.087304  2600 layer_factory.hpp:77] Creating layer penlu50
I0925 11:03:17.087327  2600 net.cpp:84] Creating Layer penlu50
I0925 11:03:17.087330  2600 net.cpp:406] penlu50 <- Convolution52
I0925 11:03:17.087334  2600 net.cpp:367] penlu50 -> Convolution52 (in-place)
I0925 11:03:17.087457  2600 net.cpp:122] Setting up penlu50
I0925 11:03:17.087462  2600 net.cpp:129] Top shape: 100 64 8 8 (409600)
I0925 11:03:17.087465  2600 net.cpp:137] Memory required for data: 1143194800
I0925 11:03:17.087504  2600 layer_factory.hpp:77] Creating layer Convolution53
I0925 11:03:17.087512  2600 net.cpp:84] Creating Layer Convolution53
I0925 11:03:17.087514  2600 net.cpp:406] Convolution53 <- Convolution52
I0925 11:03:17.087518  2600 net.cpp:380] Convolution53 -> Convolution53
I0925 11:03:17.089376  2600 net.cpp:122] Setting up Convolution53
I0925 11:03:17.089385  2600 net.cpp:129] Top shape: 100 64 8 8 (409600)
I0925 11:03:17.089388  2600 net.cpp:137] Memory required for data: 1144833200
I0925 11:03:17.089392  2600 layer_factory.hpp:77] Creating layer BatchNorm53
I0925 11:03:17.089398  2600 net.cpp:84] Creating Layer BatchNorm53
I0925 11:03:17.089401  2600 net.cpp:406] BatchNorm53 <- Convolution53
I0925 11:03:17.089406  2600 net.cpp:367] BatchNorm53 -> Convolution53 (in-place)
I0925 11:03:17.089560  2600 net.cpp:122] Setting up BatchNorm53
I0925 11:03:17.089565  2600 net.cpp:129] Top shape: 100 64 8 8 (409600)
I0925 11:03:17.089566  2600 net.cpp:137] Memory required for data: 1146471600
I0925 11:03:17.089571  2600 layer_factory.hpp:77] Creating layer Scale53
I0925 11:03:17.089576  2600 net.cpp:84] Creating Layer Scale53
I0925 11:03:17.089578  2600 net.cpp:406] Scale53 <- Convolution53
I0925 11:03:17.089583  2600 net.cpp:367] Scale53 -> Convolution53 (in-place)
I0925 11:03:17.089612  2600 layer_factory.hpp:77] Creating layer Scale53
I0925 11:03:17.089696  2600 net.cpp:122] Setting up Scale53
I0925 11:03:17.089701  2600 net.cpp:129] Top shape: 100 64 8 8 (409600)
I0925 11:03:17.089704  2600 net.cpp:137] Memory required for data: 1148110000
I0925 11:03:17.089709  2600 layer_factory.hpp:77] Creating layer Eltwise25
I0925 11:03:17.089712  2600 net.cpp:84] Creating Layer Eltwise25
I0925 11:03:17.089715  2600 net.cpp:406] Eltwise25 <- Eltwise24_penlu49_0_split_1
I0925 11:03:17.089718  2600 net.cpp:406] Eltwise25 <- Convolution53
I0925 11:03:17.089723  2600 net.cpp:380] Eltwise25 -> Eltwise25
I0925 11:03:17.089741  2600 net.cpp:122] Setting up Eltwise25
I0925 11:03:17.089746  2600 net.cpp:129] Top shape: 100 64 8 8 (409600)
I0925 11:03:17.089748  2600 net.cpp:137] Memory required for data: 1149748400
I0925 11:03:17.089751  2600 layer_factory.hpp:77] Creating layer penlu51
I0925 11:03:17.089756  2600 net.cpp:84] Creating Layer penlu51
I0925 11:03:17.089757  2600 net.cpp:406] penlu51 <- Eltwise25
I0925 11:03:17.089761  2600 net.cpp:367] penlu51 -> Eltwise25 (in-place)
I0925 11:03:17.089882  2600 net.cpp:122] Setting up penlu51
I0925 11:03:17.089887  2600 net.cpp:129] Top shape: 100 64 8 8 (409600)
I0925 11:03:17.089890  2600 net.cpp:137] Memory required for data: 1151386800
I0925 11:03:17.089895  2600 layer_factory.hpp:77] Creating layer Eltwise25_penlu51_0_split
I0925 11:03:17.089897  2600 net.cpp:84] Creating Layer Eltwise25_penlu51_0_split
I0925 11:03:17.089900  2600 net.cpp:406] Eltwise25_penlu51_0_split <- Eltwise25
I0925 11:03:17.089903  2600 net.cpp:380] Eltwise25_penlu51_0_split -> Eltwise25_penlu51_0_split_0
I0925 11:03:17.089907  2600 net.cpp:380] Eltwise25_penlu51_0_split -> Eltwise25_penlu51_0_split_1
I0925 11:03:17.089932  2600 net.cpp:122] Setting up Eltwise25_penlu51_0_split
I0925 11:03:17.089937  2600 net.cpp:129] Top shape: 100 64 8 8 (409600)
I0925 11:03:17.089939  2600 net.cpp:129] Top shape: 100 64 8 8 (409600)
I0925 11:03:17.089942  2600 net.cpp:137] Memory required for data: 1154663600
I0925 11:03:17.089944  2600 layer_factory.hpp:77] Creating layer Convolution54
I0925 11:03:17.089951  2600 net.cpp:84] Creating Layer Convolution54
I0925 11:03:17.089953  2600 net.cpp:406] Convolution54 <- Eltwise25_penlu51_0_split_0
I0925 11:03:17.089957  2600 net.cpp:380] Convolution54 -> Convolution54
I0925 11:03:17.092027  2600 net.cpp:122] Setting up Convolution54
I0925 11:03:17.092036  2600 net.cpp:129] Top shape: 100 64 8 8 (409600)
I0925 11:03:17.092038  2600 net.cpp:137] Memory required for data: 1156302000
I0925 11:03:17.092043  2600 layer_factory.hpp:77] Creating layer BatchNorm54
I0925 11:03:17.092049  2600 net.cpp:84] Creating Layer BatchNorm54
I0925 11:03:17.092052  2600 net.cpp:406] BatchNorm54 <- Convolution54
I0925 11:03:17.092056  2600 net.cpp:367] BatchNorm54 -> Convolution54 (in-place)
I0925 11:03:17.092206  2600 net.cpp:122] Setting up BatchNorm54
I0925 11:03:17.092211  2600 net.cpp:129] Top shape: 100 64 8 8 (409600)
I0925 11:03:17.092214  2600 net.cpp:137] Memory required for data: 1157940400
I0925 11:03:17.092219  2600 layer_factory.hpp:77] Creating layer Scale54
I0925 11:03:17.092223  2600 net.cpp:84] Creating Layer Scale54
I0925 11:03:17.092226  2600 net.cpp:406] Scale54 <- Convolution54
I0925 11:03:17.092228  2600 net.cpp:367] Scale54 -> Convolution54 (in-place)
I0925 11:03:17.092260  2600 layer_factory.hpp:77] Creating layer Scale54
I0925 11:03:17.092342  2600 net.cpp:122] Setting up Scale54
I0925 11:03:17.092347  2600 net.cpp:129] Top shape: 100 64 8 8 (409600)
I0925 11:03:17.092355  2600 net.cpp:137] Memory required for data: 1159578800
I0925 11:03:17.092360  2600 layer_factory.hpp:77] Creating layer penlu52
I0925 11:03:17.092366  2600 net.cpp:84] Creating Layer penlu52
I0925 11:03:17.092368  2600 net.cpp:406] penlu52 <- Convolution54
I0925 11:03:17.092372  2600 net.cpp:367] penlu52 -> Convolution54 (in-place)
I0925 11:03:17.092504  2600 net.cpp:122] Setting up penlu52
I0925 11:03:17.092511  2600 net.cpp:129] Top shape: 100 64 8 8 (409600)
I0925 11:03:17.092514  2600 net.cpp:137] Memory required for data: 1161217200
I0925 11:03:17.092519  2600 layer_factory.hpp:77] Creating layer Convolution55
I0925 11:03:17.092525  2600 net.cpp:84] Creating Layer Convolution55
I0925 11:03:17.092527  2600 net.cpp:406] Convolution55 <- Convolution54
I0925 11:03:17.092540  2600 net.cpp:380] Convolution55 -> Convolution55
I0925 11:03:17.094339  2600 net.cpp:122] Setting up Convolution55
I0925 11:03:17.094348  2600 net.cpp:129] Top shape: 100 64 8 8 (409600)
I0925 11:03:17.094352  2600 net.cpp:137] Memory required for data: 1162855600
I0925 11:03:17.094357  2600 layer_factory.hpp:77] Creating layer BatchNorm55
I0925 11:03:17.094362  2600 net.cpp:84] Creating Layer BatchNorm55
I0925 11:03:17.094364  2600 net.cpp:406] BatchNorm55 <- Convolution55
I0925 11:03:17.094368  2600 net.cpp:367] BatchNorm55 -> Convolution55 (in-place)
I0925 11:03:17.094527  2600 net.cpp:122] Setting up BatchNorm55
I0925 11:03:17.094532  2600 net.cpp:129] Top shape: 100 64 8 8 (409600)
I0925 11:03:17.094533  2600 net.cpp:137] Memory required for data: 1164494000
I0925 11:03:17.094538  2600 layer_factory.hpp:77] Creating layer Scale55
I0925 11:03:17.094542  2600 net.cpp:84] Creating Layer Scale55
I0925 11:03:17.094544  2600 net.cpp:406] Scale55 <- Convolution55
I0925 11:03:17.094548  2600 net.cpp:367] Scale55 -> Convolution55 (in-place)
I0925 11:03:17.094578  2600 layer_factory.hpp:77] Creating layer Scale55
I0925 11:03:17.094661  2600 net.cpp:122] Setting up Scale55
I0925 11:03:17.094666  2600 net.cpp:129] Top shape: 100 64 8 8 (409600)
I0925 11:03:17.094668  2600 net.cpp:137] Memory required for data: 1166132400
I0925 11:03:17.094672  2600 layer_factory.hpp:77] Creating layer Eltwise26
I0925 11:03:17.094677  2600 net.cpp:84] Creating Layer Eltwise26
I0925 11:03:17.094681  2600 net.cpp:406] Eltwise26 <- Eltwise25_penlu51_0_split_1
I0925 11:03:17.094683  2600 net.cpp:406] Eltwise26 <- Convolution55
I0925 11:03:17.094687  2600 net.cpp:380] Eltwise26 -> Eltwise26
I0925 11:03:17.094704  2600 net.cpp:122] Setting up Eltwise26
I0925 11:03:17.094709  2600 net.cpp:129] Top shape: 100 64 8 8 (409600)
I0925 11:03:17.094712  2600 net.cpp:137] Memory required for data: 1167770800
I0925 11:03:17.094713  2600 layer_factory.hpp:77] Creating layer penlu53
I0925 11:03:17.094717  2600 net.cpp:84] Creating Layer penlu53
I0925 11:03:17.094720  2600 net.cpp:406] penlu53 <- Eltwise26
I0925 11:03:17.094723  2600 net.cpp:367] penlu53 -> Eltwise26 (in-place)
I0925 11:03:17.094846  2600 net.cpp:122] Setting up penlu53
I0925 11:03:17.094851  2600 net.cpp:129] Top shape: 100 64 8 8 (409600)
I0925 11:03:17.094852  2600 net.cpp:137] Memory required for data: 1169409200
I0925 11:03:17.094856  2600 layer_factory.hpp:77] Creating layer Eltwise26_penlu53_0_split
I0925 11:03:17.094861  2600 net.cpp:84] Creating Layer Eltwise26_penlu53_0_split
I0925 11:03:17.094862  2600 net.cpp:406] Eltwise26_penlu53_0_split <- Eltwise26
I0925 11:03:17.094866  2600 net.cpp:380] Eltwise26_penlu53_0_split -> Eltwise26_penlu53_0_split_0
I0925 11:03:17.094871  2600 net.cpp:380] Eltwise26_penlu53_0_split -> Eltwise26_penlu53_0_split_1
I0925 11:03:17.094894  2600 net.cpp:122] Setting up Eltwise26_penlu53_0_split
I0925 11:03:17.094898  2600 net.cpp:129] Top shape: 100 64 8 8 (409600)
I0925 11:03:17.094902  2600 net.cpp:129] Top shape: 100 64 8 8 (409600)
I0925 11:03:17.094903  2600 net.cpp:137] Memory required for data: 1172686000
I0925 11:03:17.094905  2600 layer_factory.hpp:77] Creating layer Convolution56
I0925 11:03:17.094913  2600 net.cpp:84] Creating Layer Convolution56
I0925 11:03:17.094923  2600 net.cpp:406] Convolution56 <- Eltwise26_penlu53_0_split_0
I0925 11:03:17.094928  2600 net.cpp:380] Convolution56 -> Convolution56
I0925 11:03:17.096662  2600 net.cpp:122] Setting up Convolution56
I0925 11:03:17.096671  2600 net.cpp:129] Top shape: 100 64 8 8 (409600)
I0925 11:03:17.096673  2600 net.cpp:137] Memory required for data: 1174324400
I0925 11:03:17.096679  2600 layer_factory.hpp:77] Creating layer BatchNorm56
I0925 11:03:17.096684  2600 net.cpp:84] Creating Layer BatchNorm56
I0925 11:03:17.096688  2600 net.cpp:406] BatchNorm56 <- Convolution56
I0925 11:03:17.096691  2600 net.cpp:367] BatchNorm56 -> Convolution56 (in-place)
I0925 11:03:17.096842  2600 net.cpp:122] Setting up BatchNorm56
I0925 11:03:17.096848  2600 net.cpp:129] Top shape: 100 64 8 8 (409600)
I0925 11:03:17.096849  2600 net.cpp:137] Memory required for data: 1175962800
I0925 11:03:17.096854  2600 layer_factory.hpp:77] Creating layer Scale56
I0925 11:03:17.096858  2600 net.cpp:84] Creating Layer Scale56
I0925 11:03:17.096861  2600 net.cpp:406] Scale56 <- Convolution56
I0925 11:03:17.096864  2600 net.cpp:367] Scale56 -> Convolution56 (in-place)
I0925 11:03:17.096895  2600 layer_factory.hpp:77] Creating layer Scale56
I0925 11:03:17.096977  2600 net.cpp:122] Setting up Scale56
I0925 11:03:17.096982  2600 net.cpp:129] Top shape: 100 64 8 8 (409600)
I0925 11:03:17.096984  2600 net.cpp:137] Memory required for data: 1177601200
I0925 11:03:17.096988  2600 layer_factory.hpp:77] Creating layer penlu54
I0925 11:03:17.096993  2600 net.cpp:84] Creating Layer penlu54
I0925 11:03:17.096997  2600 net.cpp:406] penlu54 <- Convolution56
I0925 11:03:17.096999  2600 net.cpp:367] penlu54 -> Convolution56 (in-place)
I0925 11:03:17.097122  2600 net.cpp:122] Setting up penlu54
I0925 11:03:17.097127  2600 net.cpp:129] Top shape: 100 64 8 8 (409600)
I0925 11:03:17.097129  2600 net.cpp:137] Memory required for data: 1179239600
I0925 11:03:17.097133  2600 layer_factory.hpp:77] Creating layer Convolution57
I0925 11:03:17.097141  2600 net.cpp:84] Creating Layer Convolution57
I0925 11:03:17.097143  2600 net.cpp:406] Convolution57 <- Convolution56
I0925 11:03:17.097147  2600 net.cpp:380] Convolution57 -> Convolution57
I0925 11:03:17.098882  2600 net.cpp:122] Setting up Convolution57
I0925 11:03:17.098891  2600 net.cpp:129] Top shape: 100 64 8 8 (409600)
I0925 11:03:17.098894  2600 net.cpp:137] Memory required for data: 1180878000
I0925 11:03:17.098898  2600 layer_factory.hpp:77] Creating layer BatchNorm57
I0925 11:03:17.098904  2600 net.cpp:84] Creating Layer BatchNorm57
I0925 11:03:17.098907  2600 net.cpp:406] BatchNorm57 <- Convolution57
I0925 11:03:17.098912  2600 net.cpp:367] BatchNorm57 -> Convolution57 (in-place)
I0925 11:03:17.099058  2600 net.cpp:122] Setting up BatchNorm57
I0925 11:03:17.099063  2600 net.cpp:129] Top shape: 100 64 8 8 (409600)
I0925 11:03:17.099066  2600 net.cpp:137] Memory required for data: 1182516400
I0925 11:03:17.099071  2600 layer_factory.hpp:77] Creating layer Scale57
I0925 11:03:17.099076  2600 net.cpp:84] Creating Layer Scale57
I0925 11:03:17.099077  2600 net.cpp:406] Scale57 <- Convolution57
I0925 11:03:17.099081  2600 net.cpp:367] Scale57 -> Convolution57 (in-place)
I0925 11:03:17.099112  2600 layer_factory.hpp:77] Creating layer Scale57
I0925 11:03:17.099196  2600 net.cpp:122] Setting up Scale57
I0925 11:03:17.099201  2600 net.cpp:129] Top shape: 100 64 8 8 (409600)
I0925 11:03:17.099203  2600 net.cpp:137] Memory required for data: 1184154800
I0925 11:03:17.099207  2600 layer_factory.hpp:77] Creating layer Eltwise27
I0925 11:03:17.099211  2600 net.cpp:84] Creating Layer Eltwise27
I0925 11:03:17.099215  2600 net.cpp:406] Eltwise27 <- Eltwise26_penlu53_0_split_1
I0925 11:03:17.099217  2600 net.cpp:406] Eltwise27 <- Convolution57
I0925 11:03:17.099221  2600 net.cpp:380] Eltwise27 -> Eltwise27
I0925 11:03:17.099238  2600 net.cpp:122] Setting up Eltwise27
I0925 11:03:17.099242  2600 net.cpp:129] Top shape: 100 64 8 8 (409600)
I0925 11:03:17.099244  2600 net.cpp:137] Memory required for data: 1185793200
I0925 11:03:17.099253  2600 layer_factory.hpp:77] Creating layer penlu55
I0925 11:03:17.099259  2600 net.cpp:84] Creating Layer penlu55
I0925 11:03:17.099262  2600 net.cpp:406] penlu55 <- Eltwise27
I0925 11:03:17.099265  2600 net.cpp:367] penlu55 -> Eltwise27 (in-place)
I0925 11:03:17.099390  2600 net.cpp:122] Setting up penlu55
I0925 11:03:17.099395  2600 net.cpp:129] Top shape: 100 64 8 8 (409600)
I0925 11:03:17.099397  2600 net.cpp:137] Memory required for data: 1187431600
I0925 11:03:17.099401  2600 layer_factory.hpp:77] Creating layer Pooling1
I0925 11:03:17.099406  2600 net.cpp:84] Creating Layer Pooling1
I0925 11:03:17.099409  2600 net.cpp:406] Pooling1 <- Eltwise27
I0925 11:03:17.099413  2600 net.cpp:380] Pooling1 -> Pooling1
I0925 11:03:17.099903  2600 net.cpp:122] Setting up Pooling1
I0925 11:03:17.099912  2600 net.cpp:129] Top shape: 100 64 1 1 (6400)
I0925 11:03:17.116574  2600 net.cpp:137] Memory required for data: 1187457200
I0925 11:03:17.116581  2600 layer_factory.hpp:77] Creating layer InnerProduct1
I0925 11:03:17.116600  2600 net.cpp:84] Creating Layer InnerProduct1
I0925 11:03:17.116602  2600 net.cpp:406] InnerProduct1 <- Pooling1
I0925 11:03:17.116606  2600 net.cpp:380] InnerProduct1 -> InnerProduct1
I0925 11:03:17.116739  2600 net.cpp:122] Setting up InnerProduct1
I0925 11:03:17.116744  2600 net.cpp:129] Top shape: 100 10 (1000)
I0925 11:03:17.116746  2600 net.cpp:137] Memory required for data: 1187461200
I0925 11:03:17.116750  2600 layer_factory.hpp:77] Creating layer InnerProduct1_InnerProduct1_0_split
I0925 11:03:17.116755  2600 net.cpp:84] Creating Layer InnerProduct1_InnerProduct1_0_split
I0925 11:03:17.116757  2600 net.cpp:406] InnerProduct1_InnerProduct1_0_split <- InnerProduct1
I0925 11:03:17.116761  2600 net.cpp:380] InnerProduct1_InnerProduct1_0_split -> InnerProduct1_InnerProduct1_0_split_0
I0925 11:03:17.116765  2600 net.cpp:380] InnerProduct1_InnerProduct1_0_split -> InnerProduct1_InnerProduct1_0_split_1
I0925 11:03:17.116792  2600 net.cpp:122] Setting up InnerProduct1_InnerProduct1_0_split
I0925 11:03:17.116797  2600 net.cpp:129] Top shape: 100 10 (1000)
I0925 11:03:17.116799  2600 net.cpp:129] Top shape: 100 10 (1000)
I0925 11:03:17.116801  2600 net.cpp:137] Memory required for data: 1187469200
I0925 11:03:17.116803  2600 layer_factory.hpp:77] Creating layer SoftmaxWithLoss1
I0925 11:03:17.116807  2600 net.cpp:84] Creating Layer SoftmaxWithLoss1
I0925 11:03:17.116811  2600 net.cpp:406] SoftmaxWithLoss1 <- InnerProduct1_InnerProduct1_0_split_0
I0925 11:03:17.116813  2600 net.cpp:406] SoftmaxWithLoss1 <- Data2_Data1_1_split_0
…
