…
I0930 11:17:09.838740  3537 net.cpp:294] The NetState phase (0) differed from the phase (1) specified by a rule in layer Accuracy1
I0930 11:17:09.839612  3537 net.cpp:51] Initializing net from parameters: 
name: "resnet_cifar10"
state {
  phase: TRAIN
  level: 0
  stage: ""
}
layer {
  name: "Data1"
  type: "Data"
  top: "Data1"
  top: "Data2"
  include {
    phase: TRAIN
  }
  transform_param {
    mirror: true
    crop_size: 28
    mean_file: "/home/x306/caffe/xn/PENLU/data/cifar10/mean.binaryproto"
  }
  data_param {
    source: "/home/x306/caffe/xn/PENLU/data/cifar10/cifar10_train_lmdb"
    batch_size: 100
    backend: LMDB
  }
}
layer {
  name: "Convolution1"
  type: "Convolution"
  bottom: "Data1"
  top: "Convolution1"
  param {
    lr_mult: 1
    decay_mult: 1
  }
  param {
    lr_mult: 2
    decay_mult: 0
  }
  convolution_param {
    num_output: 16
    pad: 1
    kernel_size: 3
    stride: 1
    weight_filler {
      type: "gaussian"
      std: 0.118
    }
    bias_filler {
      type: "constant"
      value: 0
    }
  }
}
layer {
  name: "BatchNorm1"
  type: "BatchNorm"
  bottom: "Convolution1"
  top: "Convolution1"
  param {
    lr_mult: 0
    decay_mult: 0
  }
  param {
    lr_mult: 0
    decay_mult: 0
  }
  param {
    lr_mult: 0
    decay_mult: 0
  }
}
layer {
  name: "Scale1"
  type: "Scale"
  bottom: "Convolution1"
  top: "Convolution1"
  scale_param {
    bias_term: true
  }
}
layer {
  name: "elu_conv1"
  type: "ELU"
  bottom: "Convolution1"
  top: "Convolution1"
  elu_param {
    alpha: 1
  }
}
layer {
  name: "Convolution2"
  type: "Convolution"
  bottom: "Convolution1"
  top: "Convolution2"
  param {
    lr_mult: 1
    decay_mult: 1
  }
  param {
    lr_mult: 2
    decay_mult: 0
  }
  convolution_param {
    num_output: 16
    pad: 1
    kernel_size: 3
    stride: 1
    weight_filler {
      type: "gaussian"
      std: 0.118
    }
    bias_filler {
      type: "constant"
      value: 0
    }
  }
}
layer {
  name: "BatchNorm2"
  type: "BatchNorm"
  bottom: "Convolution2"
  top: "Convolution2"
  param {
    lr_mult: 0
    decay_mult: 0
  }
  param {
    lr_mult: 0
    decay_mult: 0
  }
  param {
    lr_mult: 0
    decay_mult: 0
  }
}
layer {
  name: "Scale2"
  type: "Scale"
  bottom: "Convolution2"
  top: "Convolution2"
  scale_param {
    bias_term: true
  }
}
layer {
  name: "elu_conv2"
  type: "ELU"
  bottom: "Convolution2"
  top: "Convolution2"
  elu_param {
    alpha: 1
  }
}
layer {
  name: "Convolution3"
  type: "Convolution"
  bottom: "Convolution2"
  top: "Convolution3"
  param {
    lr_mult: 1
    decay_mult: 1
  }
  param {
    lr_mult: 2
    decay_mult: 0
  }
  convolution_param {
    num_output: 16
    pad: 1
    kernel_size: 3
    stride: 1
    weight_filler {
      type: "gaussian"
      std: 0.118
    }
    bias_filler {
      type: "constant"
      value: 0
    }
  }
}
layer {
  name: "BatchNorm3"
  type: "BatchNorm"
  bottom: "Convolution3"
  top: "Convolution3"
  param {
    lr_mult: 0
    decay_mult: 0
  }
  param {
    lr_mult: 0
    decay_mult: 0
  }
  param {
    lr_mult: 0
    decay_mult: 0
  }
}
layer {
  name: "Scale3"
  type: "Scale"
  bottom: "Convolution3"
  top: "Convolution3"
  scale_param {
    bias_term: true
  }
}
layer {
  name: "Eltwise1"
  type: "Eltwise"
  bottom: "Convolution1"
  bottom: "Convolution3"
  top: "Eltwise1"
  eltwise_param {
    operation: SUM
  }
}
layer {
  name: "elu_conv3"
  type: "ELU"
  bottom: "Eltwise1"
  top: "Eltwise1"
  elu_param {
    alpha: 1
  }
}
layer {
  name: "Convolution4"
  type: "Convolution"
  bottom: "Eltwise1"
  top: "Convolution4"
  param {
    lr_mult: 1
    decay_mult: 1
  }
  param {
    lr_mult: 2
    decay_mult: 0
  }
  convolution_param {
    num_output: 16
    pad: 1
    kernel_size: 3
    stride: 1
    weight_filler {
      type: "gaussian"
      std: 0.118
    }
    bias_filler {
      type: "constant"
      value: 0
    }
  }
}
layer {
  name: "BatchNorm4"
  type: "BatchNorm"
  bottom: "Convolution4"
  top: "Convolution4"
  param {
    lr_mult: 0
    decay_mult: 0
  }
  param {
    lr_mult: 0
    decay_mult: 0
  }
  param {
    lr_mult: 0
    decay_mult: 0
  }
}
layer {
  name: "Scale4"
  type: "Scale"
  bottom: "Convolution4"
  top: "Convolution4"
  scale_param {
    bias_term: true
  }
}
layer {
  name: "elu_conv4"
  type: "ELU"
  bottom: "Convolution4"
  top: "Convolution4"
  elu_param {
    alpha: 1
  }
}
layer {
  name: "Convolution5"
  type: "Convolution"
  bottom: "Convolution4"
  top: "Convolution5"
  param {
    lr_mult: 1
    decay_mult: 1
  }
  param {
    lr_mult: 2
    decay_mult: 0
  }
  convolution_param {
    num_output: 16
    pad: 1
    kernel_size: 3
    stride: 1
    weight_filler {
      type: "gaussian"
      std: 0.118
    }
    bias_filler {
      type: "constant"
      value: 0
    }
  }
}
layer {
  name: "BatchNorm5"
  type: "BatchNorm"
  bottom: "Convolution5"
  top: "Convolution5"
  param {
    lr_mult: 0
    decay_mult: 0
  }
  param {
    lr_mult: 0
    decay_mult: 0
  }
  param {
    lr_mult: 0
    decay_mult: 0
  }
}
layer {
  name: "Scale5"
  type: "Scale"
  bottom: "Convolution5"
  top: "Convolution5"
  scale_param {
    bias_term: true
  }
}
layer {
  name: "Eltwise2"
  type: "Eltwise"
  bottom: "Eltwise1"
  bottom: "Convolution5"
  top: "Eltwise2"
  eltwise_param {
    operation: SUM
  }
}
layer {
  name: "elu_conv5"
  type: "ELU"
  bottom: "Eltwise2"
  top: "Eltwise2"
  elu_param {
    alpha: 1
  }
}
layer {
  name: "Convolution6"
  type: "Convolution"
  bottom: "Eltwise2"
  top: "Convolution6"
  param {
    lr_mult: 1
    decay_mult: 1
  }
  param {
    lr_mult: 2
    decay_mult: 0
  }
  convolution_param {
    num_output: 16
    pad: 1
    kernel_size: 3
    stride: 1
    weight_filler {
      type: "gaussian"
      std: 0.118
    }
    bias_filler {
      type: "constant"
      value: 0
    }
  }
}
layer {
  name: "BatchNorm6"
  type: "BatchNorm"
  bottom: "Convolution6"
  top: "Convolution6"
  param {
    lr_mult: 0
    decay_mult: 0
  }
  param {
    lr_mult: 0
    decay_mult: 0
  }
  param {
    lr_mult: 0
    decay_mult: 0
  }
}
layer {
  name: "Scale6"
  type: "Scale"
  bottom: "Convolution6"
  top: "Convolution6"
  scale_param {
    bias_term: true
  }
}
layer {
  name: "elu_conv6"
  type: "ELU"
  bottom: "Convolution6"
  top: "Convolution6"
  elu_param {
    alpha: 1
  }
}
layer {
  name: "Convolution7"
  type: "Convolution"
  bottom: "Convolution6"
  top: "Convolution7"
  param {
    lr_mult: 1
    decay_mult: 1
  }
  param {
    lr_mult: 2
    decay_mult: 0
  }
  convolution_param {
    num_output: 16
    pad: 1
    kernel_size: 3
    stride: 1
    weight_filler {
      type: "gaussian"
      std: 0.118
    }
    bias_filler {
      type: "constant"
      value: 0
    }
  }
}
layer {
  name: "BatchNorm7"
  type: "BatchNorm"
  bottom: "Convolution7"
  top: "Convolution7"
  param {
    lr_mult: 0
    decay_mult: 0
  }
  param {
    lr_mult: 0
    decay_mult: 0
  }
  param {
    lr_mult: 0
    decay_mult: 0
  }
}
layer {
  name: "Scale7"
  type: "Scale"
  bottom: "Convolution7"
  top: "Convolution7"
  scale_param {
    bias_term: true
  }
}
layer {
  name: "Eltwise3"
  type: "Eltwise"
  bottom: "Eltwise2"
  bottom: "Convolution7"
  top: "Eltwise3"
  eltwise_param {
    operation: SUM
  }
}
layer {
  name: "elu_conv7"
  type: "ELU"
  bottom: "Eltwise3"
  top: "Eltwise3"
  elu_param {
    alpha: 1
  }
}
layer {
  name: "Convolution8"
  type: "Convolution"
  bottom: "Eltwise3"
  top: "Convolution8"
  param {
    lr_mult: 1
    decay_mult: 1
  }
  param {
    lr_mult: 2
    decay_mult: 0
  }
  convolution_param {
    num_output: 16
    pad: 1
    kernel_size: 3
    stride: 1
    weight_filler {
      type: "gaussian"
      std: 0.118
    }
    bias_filler {
      type: "constant"
      value: 0
    }
  }
}
layer {
  name: "BatchNorm8"
  type: "BatchNorm"
  bottom: "Convolution8"
  top: "Convolution8"
  param {
    lr_mult: 0
    decay_mult: 0
  }
  param {
    lr_mult: 0
    decay_mult: 0
  }
  param {
    lr_mult: 0
    decay_mult: 0
  }
}
layer {
  name: "Scale8"
  type: "Scale"
  bottom: "Convolution8"
  top: "Convolution8"
  scale_param {
    bias_term: true
  }
}
layer {
  name: "elu_conv8"
  type: "ELU"
  bottom: "Convolution8"
  top: "Convolution8"
  elu_param {
    alpha: 1
  }
}
layer {
  name: "Convolution9"
  type: "Convolution"
  bottom: "Convolution8"
  top: "Convolution9"
  param {
    lr_mult: 1
    decay_mult: 1
  }
  param {
    lr_mult: 2
    decay_mult: 0
  }
  convolution_param {
    num_output: 16
    pad: 1
    kernel_size: 3
    stride: 1
    weight_filler {
      type: "gaussian"
      std: 0.118
    }
    bias_filler {
      type: "constant"
      value: 0
    }
  }
}
layer {
  name: "BatchNorm9"
  type: "BatchNorm"
  bottom: "Convolution9"
  top: "Convolution9"
  param {
    lr_mult: 0
    decay_mult: 0
  }
  param {
    lr_mult: 0
    decay_mult: 0
  }
  param {
    lr_mult: 0
    decay_mult: 0
  }
}
layer {
  name: "Scale9"
  type: "Scale"
  bottom: "Convolution9"
  top: "Convolution9"
  scale_param {
    bias_term: true
  }
}
layer {
  name: "Eltwise4"
  type: "Eltwise"
  bottom: "Eltwise3"
  bottom: "Convolution9"
  top: "Eltwise4"
  eltwise_param {
    operation: SUM
  }
}
layer {
  name: "elu_conv9"
  type: "ELU"
  bottom: "Eltwise4"
  top: "Eltwise4"
  elu_param {
    alpha: 1
  }
}
layer {
  name: "Convolution10"
  type: "Convolution"
  bottom: "Eltwise4"
  top: "Convolution10"
  param {
    lr_mult: 1
    decay_mult: 1
  }
  param {
    lr_mult: 2
    decay_mult: 0
  }
  convolution_param {
    num_output: 16
    pad: 1
    kernel_size: 3
    stride: 1
    weight_filler {
      type: "gaussian"
      std: 0.118
    }
    bias_filler {
      type: "constant"
      value: 0
    }
  }
}
layer {
  name: "BatchNorm10"
  type: "BatchNorm"
  bottom: "Convolution10"
  top: "Convolution10"
  param {
    lr_mult: 0
    decay_mult: 0
  }
  param {
    lr_mult: 0
    decay_mult: 0
  }
  param {
    lr_mult: 0
    decay_mult: 0
  }
}
layer {
  name: "Scale10"
  type: "Scale"
  bottom: "Convolution10"
  top: "Convolution10"
  scale_param {
    bias_term: true
  }
}
layer {
  name: "elu_conv10"
  type: "ELU"
  bottom: "Convolution10"
  top: "Convolution10"
  elu_param {
    alpha: 1
  }
}
layer {
  name: "Convolution11"
  type: "Convolution"
  bottom: "Convolution10"
  top: "Convolution11"
  param {
    lr_mult: 1
    decay_mult: 1
  }
  param {
    lr_mult: 2
    decay_mult: 0
  }
  convolution_param {
    num_output: 16
    pad: 1
    kernel_size: 3
    stride: 1
    weight_filler {
      type: "gaussian"
      std: 0.118
    }
    bias_filler {
      type: "constant"
      value: 0
    }
  }
}
layer {
  name: "BatchNorm11"
  type: "BatchNorm"
  bottom: "Convolution11"
  top: "Convolution11"
  param {
    lr_mult: 0
    decay_mult: 0
  }
  param {
    lr_mult: 0
    decay_mult: 0
  }
  param {
    lr_mult: 0
    decay_mult: 0
  }
}
layer {
  name: "Scale11"
  type: "Scale"
  bottom: "Convolution11"
  top: "Convolution11"
  scale_param {
    bias_term: true
  }
}
layer {
  name: "Eltwise5"
  type: "Eltwise"
  bottom: "Eltwise4"
  bottom: "Convolution11"
  top: "Eltwise5"
  eltwise_param {
    operation: SUM
  }
}
layer {
  name: "elu_conv11"
  type: "ELU"
  bottom: "Eltwise5"
  top: "Eltwise5"
  elu_param {
    alpha: 1
  }
}
layer {
  name: "Convolution12"
  type: "Convolution"
  bottom: "Eltwise5"
  top: "Convolution12"
  param {
    lr_mult: 1
    decay_mult: 1
  }
  param {
    lr_mult: 2
    decay_mult: 0
  }
  convolution_param {
    num_output: 16
    pad: 1
    kernel_size: 3
    stride: 1
    weight_filler {
      type: "gaussian"
      std: 0.118
    }
    bias_filler {
      type: "constant"
      value: 0
    }
  }
}
layer {
  name: "BatchNorm12"
  type: "BatchNorm"
  bottom: "Convolution12"
  top: "Convolution12"
  param {
    lr_mult: 0
    decay_mult: 0
  }
  param {
    lr_mult: 0
    decay_mult: 0
  }
  param {
    lr_mult: 0
    decay_mult: 0
  }
}
layer {
  name: "Scale12"
  type: "Scale"
  bottom: "Convolution12"
  top: "Convolution12"
  scale_param {
    bias_term: true
  }
}
layer {
  name: "elu_conv12"
  type: "ELU"
  bottom: "Convolution12"
  top: "Convolution12"
  elu_param {
    alpha: 1
  }
}
layer {
  name: "Convolution13"
  type: "Convolution"
  bottom: "Convolution12"
  top: "Convolution13"
  param {
    lr_mult: 1
    decay_mult: 1
  }
  param {
    lr_mult: 2
    decay_mult: 0
  }
  convolution_param {
    num_output: 16
    pad: 1
    kernel_size: 3
    stride: 1
    weight_filler {
      type: "gaussian"
      std: 0.118
    }
    bias_filler {
      type: "constant"
      value: 0
    }
  }
}
layer {
  name: "BatchNorm13"
  type: "BatchNorm"
  bottom: "Convolution13"
  top: "Convolution13"
  param {
    lr_mult: 0
    decay_mult: 0
  }
  param {
    lr_mult: 0
    decay_mult: 0
  }
  param {
    lr_mult: 0
    decay_mult: 0
  }
}
layer {
  name: "Scale13"
  type: "Scale"
  bottom: "Convolution13"
  top: "Convolution13"
  scale_param {
    bias_term: true
  }
}
layer {
  name: "Eltwise6"
  type: "Eltwise"
  bottom: "Eltwise5"
  bottom: "Convolution13"
  top: "Eltwise6"
  eltwise_param {
    operation: SUM
  }
}
layer {
  name: "elu_conv13"
  type: "ELU"
  bottom: "Eltwise6"
  top: "Eltwise6"
  elu_param {
    alpha: 1
  }
}
layer {
  name: "Convolution14"
  type: "Convolution"
  bottom: "Eltwise6"
  top: "Convolution14"
  param {
    lr_mult: 1
    decay_mult: 1
  }
  param {
    lr_mult: 2
    decay_mult: 0
  }
  convolution_param {
    num_output: 16
    pad: 1
    kernel_size: 3
    stride: 1
    weight_filler {
      type: "gaussian"
      std: 0.118
    }
    bias_filler {
      type: "constant"
      value: 0
    }
  }
}
layer {
  name: "BatchNorm14"
  type: "BatchNorm"
  bottom: "Convolution14"
  top: "Convolution14"
  param {
    lr_mult: 0
    decay_mult: 0
  }
  param {
    lr_mult: 0
    decay_mult: 0
  }
  param {
    lr_mult: 0
    decay_mult: 0
  }
}
layer {
  name: "Scale14"
  type: "Scale"
  bottom: "Convolution14"
  top: "Convolution14"
  scale_param {
    bias_term: true
  }
}
layer {
  name: "elu_conv14"
  type: "ELU"
  bottom: "Convolution14"
  top: "Convolution14"
  elu_param {
    alpha: 1
  }
}
layer {
  name: "Convolution15"
  type: "Convolution"
  bottom: "Convolution14"
  top: "Convolution15"
  param {
    lr_mult: 1
    decay_mult: 1
  }
  param {
    lr_mult: 2
    decay_mult: 0
  }
  convolution_param {
    num_output: 16
    pad: 1
    kernel_size: 3
    stride: 1
    weight_filler {
      type: "gaussian"
      std: 0.118
    }
    bias_filler {
      type: "constant"
      value: 0
    }
  }
}
layer {
  name: "BatchNorm15"
  type: "BatchNorm"
  bottom: "Convolution15"
  top: "Convolution15"
  param {
    lr_mult: 0
    decay_mult: 0
  }
  param {
    lr_mult: 0
    decay_mult: 0
  }
  param {
    lr_mult: 0
    decay_mult: 0
  }
}
layer {
  name: "Scale15"
  type: "Scale"
  bottom: "Convolution15"
  top: "Convolution15"
  scale_param {
    bias_term: true
  }
}
layer {
  name: "Eltwise7"
  type: "Eltwise"
  bottom: "Eltwise6"
  bottom: "Convolution15"
  top: "Eltwise7"
  eltwise_param {
    operation: SUM
  }
}
layer {
  name: "elu_conv15"
  type: "ELU"
  bottom: "Eltwise7"
  top: "Eltwise7"
  elu_param {
    alpha: 1
  }
}
layer {
  name: "Convolution16"
  type: "Convolution"
  bottom: "Eltwise7"
  top: "Convolution16"
  param {
    lr_mult: 1
    decay_mult: 1
  }
  param {
    lr_mult: 2
    decay_mult: 0
  }
  convolution_param {
    num_output: 16
    pad: 1
    kernel_size: 3
    stride: 1
    weight_filler {
      type: "gaussian"
      std: 0.118
    }
    bias_filler {
      type: "constant"
      value: 0
    }
  }
}
layer {
  name: "BatchNorm16"
  type: "BatchNorm"
  bottom: "Convolution16"
  top: "Convolution16"
  param {
    lr_mult: 0
    decay_mult: 0
  }
  param {
    lr_mult: 0
    decay_mult: 0
  }
  param {
    lr_mult: 0
    decay_mult: 0
  }
}
layer {
  name: "Scale16"
  type: "Scale"
  bottom: "Convolution16"
  top: "Convolution16"
  scale_param {
    bias_term: true
  }
}
layer {
  name: "elu_conv16"
  type: "ELU"
  bottom: "Convolution16"
  top: "Convolution16"
  elu_param {
    alpha: 1
  }
}
layer {
  name: "Convolution17"
  type: "Convolution"
  bottom: "Convolution16"
  top: "Convolution17"
  param {
    lr_mult: 1
    decay_mult: 1
  }
  param {
    lr_mult: 2
    decay_mult: 0
  }
  convolution_param {
    num_output: 16
    pad: 1
    kernel_size: 3
    stride: 1
    weight_filler {
      type: "gaussian"
      std: 0.118
    }
    bias_filler {
      type: "constant"
      value: 0
    }
  }
}
layer {
  name: "BatchNorm17"
  type: "BatchNorm"
  bottom: "Convolution17"
  top: "Convolution17"
  param {
    lr_mult: 0
    decay_mult: 0
  }
  param {
    lr_mult: 0
    decay_mult: 0
  }
  param {
    lr_mult: 0
    decay_mult: 0
  }
}
layer {
  name: "Scale17"
  type: "Scale"
  bottom: "Convolution17"
  top: "Convolution17"
  scale_param {
    bias_term: true
  }
}
layer {
  name: "Eltwise8"
  type: "Eltwise"
  bottom: "Eltwise7"
  bottom: "Convolution17"
  top: "Eltwise8"
  eltwise_param {
    operation: SUM
  }
}
layer {
  name: "elu_conv17"
  type: "ELU"
  bottom: "Eltwise8"
  top: "Eltwise8"
  elu_param {
    alpha: 1
  }
}
layer {
  name: "Convolution18"
  type: "Convolution"
  bottom: "Eltwise8"
  top: "Convolution18"
  param {
    lr_mult: 1
    decay_mult: 1
  }
  param {
    lr_mult: 2
    decay_mult: 0
  }
  convolution_param {
    num_output: 16
    pad: 1
    kernel_size: 3
    stride: 1
    weight_filler {
      type: "gaussian"
      std: 0.118
    }
    bias_filler {
      type: "constant"
      value: 0
    }
  }
}
layer {
  name: "BatchNorm18"
  type: "BatchNorm"
  bottom: "Convolution18"
  top: "Convolution18"
  param {
    lr_mult: 0
    decay_mult: 0
  }
  param {
    lr_mult: 0
    decay_mult: 0
  }
  param {
    lr_mult: 0
    decay_mult: 0
  }
}
layer {
  name: "Scale18"
  type: "Scale"
  bottom: "Convolution18"
  top: "Convolution18"
  scale_param {
    bias_term: true
  }
}
layer {
  name: "elu_conv18"
  type: "ELU"
  bottom: "Convolution18"
  top: "Convolution18"
  elu_param {
    alpha: 1
  }
}
layer {
  name: "Convolution19"
  type: "Convolution"
  bottom: "Convolution18"
  top: "Convolution19"
  param {
    lr_mult: 1
    decay_mult: 1
  }
  param {
    lr_mult: 2
    decay_mult: 0
  }
  convolution_param {
    num_output: 16
    pad: 1
    kernel_size: 3
    stride: 1
    weight_filler {
      type: "gaussian"
      std: 0.118
    }
    bias_filler {
      type: "constant"
      value: 0
    }
  }
}
layer {
  name: "BatchNorm19"
  type: "BatchNorm"
  bottom: "Convolution19"
  top: "Convolution19"
  param {
    lr_mult: 0
    decay_mult: 0
  }
  param {
    lr_mult: 0
    decay_mult: 0
  }
  param {
    lr_mult: 0
    decay_mult: 0
  }
}
layer {
  name: "Scale19"
  type: "Scale"
  bottom: "Convolution19"
  top: "Convolution19"
  scale_param {
    bias_term: true
  }
}
layer {
  name: "Eltwise9"
  type: "Eltwise"
  bottom: "Eltwise8"
  bottom: "Convolution19"
  top: "Eltwise9"
  eltwise_param {
    operation: SUM
  }
}
layer {
  name: "elu_conv19"
  type: "ELU"
  bottom: "Eltwise9"
  top: "Eltwise9"
  elu_param {
    alpha: 1
  }
}
layer {
  name: "Convolution20"
  type: "Convolution"
  bottom: "Eltwise9"
  top: "Convolution20"
  param {
    lr_mult: 1
    decay_mult: 1
  }
  param {
    lr_mult: 2
    decay_mult: 0
  }
  convolution_param {
    num_output: 32
    pad: 0
    kernel_size: 1
    stride: 2
    weight_filler {
      type: "gaussian"
      std: 0.25
    }
    bias_filler {
      type: "constant"
      value: 0
    }
  }
}
layer {
  name: "BatchNorm20"
  type: "BatchNorm"
  bottom: "Convolution20"
  top: "Convolution20"
  param {
    lr_mult: 0
    decay_mult: 0
  }
  param {
    lr_mult: 0
    decay_mult: 0
  }
  param {
    lr_mult: 0
    decay_mult: 0
  }
}
layer {
  name: "Scale20"
  type: "Scale"
  bottom: "Convolution20"
  top: "Convolution20"
  scale_param {
    bias_term: true
  }
}
layer {
  name: "Convolution21"
  type: "Convolution"
  bottom: "Eltwise9"
  top: "Convolution21"
  param {
    lr_mult: 1
    decay_mult: 1
  }
  param {
    lr_mult: 2
    decay_mult: 0
  }
  convolution_param {
    num_output: 32
    pad: 1
    kernel_size: 3
    stride: 2
    weight_filler {
      type: "gaussian"
      std: 0.083
    }
    bias_filler {
      type: "constant"
      value: 0
    }
  }
}
layer {
  name: "BatchNorm21"
  type: "BatchNorm"
  bottom: "Convolution21"
  top: "Convolution21"
  param {
    lr_mult: 0
    decay_mult: 0
  }
  param {
    lr_mult: 0
    decay_mult: 0
  }
  param {
    lr_mult: 0
    decay_mult: 0
  }
}
layer {
  name: "Scale21"
  type: "Scale"
  bottom: "Convolution21"
  top: "Convolution21"
  scale_param {
    bias_term: true
  }
}
layer {
  name: "elu_conv20"
  type: "ELU"
  bottom: "Convolution21"
  top: "Convolution21"
  elu_param {
    alpha: 1
  }
}
layer {
  name: "Convolution22"
  type: "Convolution"
  bottom: "Convolution21"
  top: "Convolution22"
  param {
    lr_mult: 1
    decay_mult: 1
  }
  param {
    lr_mult: 2
    decay_mult: 0
  }
  convolution_param {
    num_output: 32
    pad: 1
    kernel_size: 3
    stride: 1
    weight_filler {
      type: "gaussian"
      std: 0.083
    }
    bias_filler {
      type: "constant"
      value: 0
    }
  }
}
layer {
  name: "BatchNorm22"
  type: "BatchNorm"
  bottom: "Convolution22"
  top: "Convolution22"
  param {
    lr_mult: 0
    decay_mult: 0
  }
  param {
    lr_mult: 0
    decay_mult: 0
  }
  param {
    lr_mult: 0
    decay_mult: 0
  }
}
layer {
  name: "Scale22"
  type: "Scale"
  bottom: "Convolution22"
  top: "Convolution22"
  scale_param {
    bias_term: true
  }
}
layer {
  name: "Eltwise10"
  type: "Eltwise"
  bottom: "Convolution20"
  bottom: "Convolution22"
  top: "Eltwise10"
  eltwise_param {
    operation: SUM
  }
}
layer {
  name: "elu_conv21"
  type: "ELU"
  bottom: "Eltwise10"
  top: "Eltwise10"
  elu_param {
    alpha: 1
  }
}
layer {
  name: "Convolution23"
  type: "Convolution"
  bottom: "Eltwise10"
  top: "Convolution23"
  param {
    lr_mult: 1
    decay_mult: 1
  }
  param {
    lr_mult: 2
    decay_mult: 0
  }
  convolution_param {
    num_output: 32
    pad: 1
    kernel_size: 3
    stride: 1
    weight_filler {
      type: "gaussian"
      std: 0.083
    }
    bias_filler {
      type: "constant"
      value: 0
    }
  }
}
layer {
  name: "BatchNorm23"
  type: "BatchNorm"
  bottom: "Convolution23"
  top: "Convolution23"
  param {
    lr_mult: 0
    decay_mult: 0
  }
  param {
    lr_mult: 0
    decay_mult: 0
  }
  param {
    lr_mult: 0
    decay_mult: 0
  }
}
layer {
  name: "Scale23"
  type: "Scale"
  bottom: "Convolution23"
  top: "Convolution23"
  scale_param {
    bias_term: true
  }
}
layer {
  name: "elu_conv22"
  type: "ELU"
  bottom: "Convolution23"
  top: "Convolution23"
  elu_param {
    alpha: 1
  }
}
layer {
  name: "Convolution24"
  type: "Convolution"
  bottom: "Convolution23"
  top: "Convolution24"
  param {
    lr_mult: 1
    decay_mult: 1
  }
  param {
    lr_mult: 2
    decay_mult: 0
  }
  convolution_param {
    num_output: 32
    pad: 1
    kernel_size: 3
    stride: 1
    weight_filler {
      type: "gaussian"
      std: 0.083
    }
    bias_filler {
      type: "constant"
      value: 0
    }
  }
}
layer {
  name: "BatchNorm24"
  type: "BatchNorm"
  bottom: "Convolution24"
  top: "Convolution24"
  param {
    lr_mult: 0
    decay_mult: 0
  }
  param {
    lr_mult: 0
    decay_mult: 0
  }
  param {
    lr_mult: 0
    decay_mult: 0
  }
}
layer {
  name: "Scale24"
  type: "Scale"
  bottom: "Convolution24"
  top: "Convolution24"
  scale_param {
    bias_term: true
  }
}
layer {
  name: "Eltwise11"
  type: "Eltwise"
  bottom: "Eltwise10"
  bottom: "Convolution24"
  top: "Eltwise11"
  eltwise_param {
    operation: SUM
  }
}
layer {
  name: "elu_conv23"
  type: "ELU"
  bottom: "Eltwise11"
  top: "Eltwise11"
  elu_param {
    alpha: 1
  }
}
layer {
  name: "Convolution25"
  type: "Convolution"
  bottom: "Eltwise11"
  top: "Convolution25"
  param {
    lr_mult: 1
    decay_mult: 1
  }
  param {
    lr_mult: 2
    decay_mult: 0
  }
  convolution_param {
    num_output: 32
    pad: 1
    kernel_size: 3
    stride: 1
    weight_filler {
      type: "gaussian"
      std: 0.083
    }
    bias_filler {
      type: "constant"
      value: 0
    }
  }
}
layer {
  name: "BatchNorm25"
  type: "BatchNorm"
  bottom: "Convolution25"
  top: "Convolution25"
  param {
    lr_mult: 0
    decay_mult: 0
  }
  param {
    lr_mult: 0
    decay_mult: 0
  }
  param {
    lr_mult: 0
    decay_mult: 0
  }
}
layer {
  name: "Scale25"
  type: "Scale"
  bottom: "Convolution25"
  top: "Convolution25"
  scale_param {
    bias_term: true
  }
}
layer {
  name: "elu_conv24"
  type: "ELU"
  bottom: "Convolution25"
  top: "Convolution25"
  elu_param {
    alpha: 1
  }
}
layer {
  name: "Convolution26"
  type: "Convolution"
  bottom: "Convolution25"
  top: "Convolution26"
  param {
    lr_mult: 1
    decay_mult: 1
  }
  param {
    lr_mult: 2
    decay_mult: 0
  }
  convolution_param {
    num_output: 32
    pad: 1
    kernel_size: 3
    stride: 1
    weight_filler {
      type: "gaussian"
      std: 0.083
    }
    bias_filler {
      type: "constant"
      value: 0
    }
  }
}
layer {
  name: "BatchNorm26"
  type: "BatchNorm"
  bottom: "Convolution26"
  top: "Convolution26"
  param {
    lr_mult: 0
    decay_mult: 0
  }
  param {
    lr_mult: 0
    decay_mult: 0
  }
  param {
    lr_mult: 0
    decay_mult: 0
  }
}
layer {
  name: "Scale26"
  type: "Scale"
  bottom: "Convolution26"
  top: "Convolution26"
  scale_param {
    bias_term: true
  }
}
layer {
  name: "Eltwise12"
  type: "Eltwise"
  bottom: "Eltwise11"
  bottom: "Convolution26"
  top: "Eltwise12"
  eltwise_param {
    operation: SUM
  }
}
layer {
  name: "elu_conv25"
  type: "ELU"
  bottom: "Eltwise12"
  top: "Eltwise12"
  elu_param {
    alpha: 1
  }
}
layer {
  name: "Convolution27"
  type: "Convolution"
  bottom: "Eltwise12"
  top: "Convolution27"
  param {
    lr_mult: 1
    decay_mult: 1
  }
  param {
    lr_mult: 2
    decay_mult: 0
  }
  convolution_param {
    num_output: 32
    pad: 1
    kernel_size: 3
    stride: 1
    weight_filler {
      type: "gaussian"
      std: 0.083
    }
    bias_filler {
      type: "constant"
      value: 0
    }
  }
}
layer {
  name: "BatchNorm27"
  type: "BatchNorm"
  bottom: "Convolution27"
  top: "Convolution27"
  param {
    lr_mult: 0
    decay_mult: 0
  }
  param {
    lr_mult: 0
    decay_mult: 0
  }
  param {
    lr_mult: 0
    decay_mult: 0
  }
}
layer {
  name: "Scale27"
  type: "Scale"
  bottom: "Convolution27"
  top: "Convolution27"
  scale_param {
    bias_term: true
  }
}
layer {
  name: "elu_conv26"
  type: "ELU"
  bottom: "Convolution27"
  top: "Convolution27"
  elu_param {
    alpha: 1
  }
}
layer {
  name: "Convolution28"
  type: "Convolution"
  bottom: "Convolution27"
  top: "Convolution28"
  param {
    lr_mult: 1
    decay_mult: 1
  }
  param {
    lr_mult: 2
    decay_mult: 0
  }
  convolution_param {
    num_output: 32
    pad: 1
    kernel_size: 3
    stride: 1
    weight_filler {
      type: "gaussian"
      std: 0.083
    }
    bias_filler {
      type: "constant"
      value: 0
    }
  }
}
layer {
  name: "BatchNorm28"
  type: "BatchNorm"
  bottom: "Convolution28"
  top: "Convolution28"
  param {
    lr_mult: 0
    decay_mult: 0
  }
  param {
    lr_mult: 0
    decay_mult: 0
  }
  param {
    lr_mult: 0
    decay_mult: 0
  }
}
layer {
  name: "Scale28"
  type: "Scale"
  bottom: "Convolution28"
  top: "Convolution28"
  scale_param {
    bias_term: true
  }
}
layer {
  name: "Eltwise13"
  type: "Eltwise"
  bottom: "Eltwise12"
  bottom: "Convolution28"
  top: "Eltwise13"
  eltwise_param {
    operation: SUM
  }
}
layer {
  name: "elu_conv27"
  type: "ELU"
  bottom: "Eltwise13"
  top: "Eltwise13"
  elu_param {
    alpha: 1
  }
}
layer {
  name: "Convolution29"
  type: "Convolution"
  bottom: "Eltwise13"
  top: "Convolution29"
  param {
    lr_mult: 1
    decay_mult: 1
  }
  param {
    lr_mult: 2
    decay_mult: 0
  }
  convolution_param {
    num_output: 32
    pad: 1
    kernel_size: 3
    stride: 1
    weight_filler {
      type: "gaussian"
      std: 0.083
    }
    bias_filler {
      type: "constant"
      value: 0
    }
  }
}
layer {
  name: "BatchNorm29"
  type: "BatchNorm"
  bottom: "Convolution29"
  top: "Convolution29"
  param {
    lr_mult: 0
    decay_mult: 0
  }
  param {
    lr_mult: 0
    decay_mult: 0
  }
  param {
    lr_mult: 0
    decay_mult: 0
  }
}
layer {
  name: "Scale29"
  type: "Scale"
  bottom: "Convolution29"
  top: "Convolution29"
  scale_param {
    bias_term: true
  }
}
layer {
  name: "elu_conv28"
  type: "ELU"
  bottom: "Convolution29"
  top: "Convolution29"
  elu_param {
    alpha: 1
  }
}
layer {
  name: "Convolution30"
  type: "Convolution"
  bottom: "Convolution29"
  top: "Convolution30"
  param {
    lr_mult: 1
    decay_mult: 1
  }
  param {
    lr_mult: 2
    decay_mult: 0
  }
  convolution_param {
    num_output: 32
    pad: 1
    kernel_size: 3
    stride: 1
    weight_filler {
      type: "gaussian"
      std: 0.083
    }
    bias_filler {
      type: "constant"
      value: 0
    }
  }
}
layer {
  name: "BatchNorm30"
  type: "BatchNorm"
  bottom: "Convolution30"
  top: "Convolution30"
  param {
    lr_mult: 0
    decay_mult: 0
  }
  param {
    lr_mult: 0
    decay_mult: 0
  }
  param {
    lr_mult: 0
    decay_mult: 0
  }
}
layer {
  name: "Scale30"
  type: "Scale"
  bottom: "Convolution30"
  top: "Convolution30"
  scale_param {
    bias_term: true
  }
}
layer {
  name: "Eltwise14"
  type: "Eltwise"
  bottom: "Eltwise13"
  bottom: "Convolution30"
  top: "Eltwise14"
  eltwise_param {
    operation: SUM
  }
}
layer {
  name: "elu_conv29"
  type: "ELU"
  bottom: "Eltwise14"
  top: "Eltwise14"
  elu_param {
    alpha: 1
  }
}
layer {
  name: "Convolution31"
  type: "Convolution"
  bottom: "Eltwise14"
  top: "Convolution31"
  param {
    lr_mult: 1
    decay_mult: 1
  }
  param {
    lr_mult: 2
    decay_mult: 0
  }
  convolution_param {
    num_output: 32
    pad: 1
    kernel_size: 3
    stri
I0930 11:17:09.840320  3537 layer_factory.hpp:77] Creating layer Data1
I0930 11:17:09.840402  3537 db_lmdb.cpp:35] Opened lmdb /home/x306/caffe/xn/PENLU/data/cifar10/cifar10_train_lmdb
I0930 11:17:09.840421  3537 net.cpp:84] Creating Layer Data1
I0930 11:17:09.840426  3537 net.cpp:380] Data1 -> Data1
I0930 11:17:09.840445  3537 net.cpp:380] Data1 -> Data2
I0930 11:17:09.840456  3537 data_transformer.cpp:25] Loading mean file from: /home/x306/caffe/xn/PENLU/data/cifar10/mean.binaryproto
I0930 11:17:09.841876  3537 data_layer.cpp:45] output data size: 100,3,28,28
I0930 11:17:09.844220  3537 net.cpp:122] Setting up Data1
I0930 11:17:09.844234  3537 net.cpp:129] Top shape: 100 3 28 28 (235200)
I0930 11:17:09.844238  3537 net.cpp:129] Top shape: 100 (100)
I0930 11:17:09.844241  3537 net.cpp:137] Memory required for data: 941200
I0930 11:17:09.844247  3537 layer_factory.hpp:77] Creating layer Convolution1
I0930 11:17:09.844265  3537 net.cpp:84] Creating Layer Convolution1
I0930 11:17:09.844269  3537 net.cpp:406] Convolution1 <- Data1
I0930 11:17:09.844277  3537 net.cpp:380] Convolution1 -> Convolution1
I0930 11:17:09.992652  3537 net.cpp:122] Setting up Convolution1
I0930 11:17:09.992686  3537 net.cpp:129] Top shape: 100 16 28 28 (1254400)
I0930 11:17:09.992689  3537 net.cpp:137] Memory required for data: 5958800
I0930 11:17:09.992704  3537 layer_factory.hpp:77] Creating layer BatchNorm1
I0930 11:17:09.992724  3537 net.cpp:84] Creating Layer BatchNorm1
I0930 11:17:09.992728  3537 net.cpp:406] BatchNorm1 <- Convolution1
I0930 11:17:09.992744  3537 net.cpp:367] BatchNorm1 -> Convolution1 (in-place)
I0930 11:17:09.992884  3537 net.cpp:122] Setting up BatchNorm1
I0930 11:17:09.992890  3537 net.cpp:129] Top shape: 100 16 28 28 (1254400)
I0930 11:17:09.992903  3537 net.cpp:137] Memory required for data: 10976400
I0930 11:17:09.992910  3537 layer_factory.hpp:77] Creating layer Scale1
I0930 11:17:09.992931  3537 net.cpp:84] Creating Layer Scale1
I0930 11:17:09.992934  3537 net.cpp:406] Scale1 <- Convolution1
I0930 11:17:09.992938  3537 net.cpp:367] Scale1 -> Convolution1 (in-place)
I0930 11:17:09.992990  3537 layer_factory.hpp:77] Creating layer Scale1
I0930 11:17:09.993103  3537 net.cpp:122] Setting up Scale1
I0930 11:17:09.993108  3537 net.cpp:129] Top shape: 100 16 28 28 (1254400)
I0930 11:17:09.993120  3537 net.cpp:137] Memory required for data: 15994000
I0930 11:17:09.993125  3537 layer_factory.hpp:77] Creating layer elu_conv1
I0930 11:17:09.993134  3537 net.cpp:84] Creating Layer elu_conv1
I0930 11:17:09.993145  3537 net.cpp:406] elu_conv1 <- Convolution1
I0930 11:17:09.993149  3537 net.cpp:367] elu_conv1 -> Convolution1 (in-place)
I0930 11:17:09.993155  3537 net.cpp:122] Setting up elu_conv1
I0930 11:17:09.993158  3537 net.cpp:129] Top shape: 100 16 28 28 (1254400)
I0930 11:17:09.993160  3537 net.cpp:137] Memory required for data: 21011600
I0930 11:17:09.993163  3537 layer_factory.hpp:77] Creating layer Convolution1_elu_conv1_0_split
I0930 11:17:09.993167  3537 net.cpp:84] Creating Layer Convolution1_elu_conv1_0_split
I0930 11:17:09.993170  3537 net.cpp:406] Convolution1_elu_conv1_0_split <- Convolution1
I0930 11:17:09.993172  3537 net.cpp:380] Convolution1_elu_conv1_0_split -> Convolution1_elu_conv1_0_split_0
I0930 11:17:09.993177  3537 net.cpp:380] Convolution1_elu_conv1_0_split -> Convolution1_elu_conv1_0_split_1
I0930 11:17:09.993213  3537 net.cpp:122] Setting up Convolution1_elu_conv1_0_split
I0930 11:17:09.993218  3537 net.cpp:129] Top shape: 100 16 28 28 (1254400)
I0930 11:17:09.993230  3537 net.cpp:129] Top shape: 100 16 28 28 (1254400)
I0930 11:17:09.993232  3537 net.cpp:137] Memory required for data: 31046800
I0930 11:17:09.993235  3537 layer_factory.hpp:77] Creating layer Convolution2
I0930 11:17:09.993253  3537 net.cpp:84] Creating Layer Convolution2
I0930 11:17:09.993255  3537 net.cpp:406] Convolution2 <- Convolution1_elu_conv1_0_split_0
I0930 11:17:09.993273  3537 net.cpp:380] Convolution2 -> Convolution2
I0930 11:17:09.994105  3537 net.cpp:122] Setting up Convolution2
I0930 11:17:09.994117  3537 net.cpp:129] Top shape: 100 16 28 28 (1254400)
I0930 11:17:09.994129  3537 net.cpp:137] Memory required for data: 36064400
I0930 11:17:09.994138  3537 layer_factory.hpp:77] Creating layer BatchNorm2
I0930 11:17:09.994156  3537 net.cpp:84] Creating Layer BatchNorm2
I0930 11:17:09.994159  3537 net.cpp:406] BatchNorm2 <- Convolution2
I0930 11:17:09.994173  3537 net.cpp:367] BatchNorm2 -> Convolution2 (in-place)
I0930 11:17:09.994315  3537 net.cpp:122] Setting up BatchNorm2
I0930 11:17:09.994321  3537 net.cpp:129] Top shape: 100 16 28 28 (1254400)
I0930 11:17:09.994333  3537 net.cpp:137] Memory required for data: 41082000
I0930 11:17:09.994340  3537 layer_factory.hpp:77] Creating layer Scale2
I0930 11:17:09.994359  3537 net.cpp:84] Creating Layer Scale2
I0930 11:17:09.994364  3537 net.cpp:406] Scale2 <- Convolution2
I0930 11:17:09.994369  3537 net.cpp:367] Scale2 -> Convolution2 (in-place)
I0930 11:17:09.994407  3537 layer_factory.hpp:77] Creating layer Scale2
I0930 11:17:09.994498  3537 net.cpp:122] Setting up Scale2
I0930 11:17:09.994503  3537 net.cpp:129] Top shape: 100 16 28 28 (1254400)
I0930 11:17:09.994508  3537 net.cpp:137] Memory required for data: 46099600
I0930 11:17:09.994532  3537 layer_factory.hpp:77] Creating layer elu_conv2
I0930 11:17:09.994545  3537 net.cpp:84] Creating Layer elu_conv2
I0930 11:17:09.994550  3537 net.cpp:406] elu_conv2 <- Convolution2
I0930 11:17:09.994555  3537 net.cpp:367] elu_conv2 -> Convolution2 (in-place)
I0930 11:17:09.994562  3537 net.cpp:122] Setting up elu_conv2
I0930 11:17:09.994593  3537 net.cpp:129] Top shape: 100 16 28 28 (1254400)
I0930 11:17:09.994597  3537 net.cpp:137] Memory required for data: 51117200
I0930 11:17:09.994602  3537 layer_factory.hpp:77] Creating layer Convolution3
I0930 11:17:09.994611  3537 net.cpp:84] Creating Layer Convolution3
I0930 11:17:09.994614  3537 net.cpp:406] Convolution3 <- Convolution2
I0930 11:17:09.994621  3537 net.cpp:380] Convolution3 -> Convolution3
I0930 11:17:09.995424  3537 net.cpp:122] Setting up Convolution3
I0930 11:17:09.995434  3537 net.cpp:129] Top shape: 100 16 28 28 (1254400)
I0930 11:17:09.995440  3537 net.cpp:137] Memory required for data: 56134800
I0930 11:17:09.995447  3537 layer_factory.hpp:77] Creating layer BatchNorm3
I0930 11:17:09.995455  3537 net.cpp:84] Creating Layer BatchNorm3
I0930 11:17:09.995458  3537 net.cpp:406] BatchNorm3 <- Convolution3
I0930 11:17:09.995465  3537 net.cpp:367] BatchNorm3 -> Convolution3 (in-place)
I0930 11:17:09.995575  3537 net.cpp:122] Setting up BatchNorm3
I0930 11:17:09.995581  3537 net.cpp:129] Top shape: 100 16 28 28 (1254400)
I0930 11:17:09.995585  3537 net.cpp:137] Memory required for data: 61152400
I0930 11:17:09.995595  3537 layer_factory.hpp:77] Creating layer Scale3
I0930 11:17:09.995601  3537 net.cpp:84] Creating Layer Scale3
I0930 11:17:09.995605  3537 net.cpp:406] Scale3 <- Convolution3
I0930 11:17:09.995611  3537 net.cpp:367] Scale3 -> Convolution3 (in-place)
I0930 11:17:09.995637  3537 layer_factory.hpp:77] Creating layer Scale3
I0930 11:17:09.995705  3537 net.cpp:122] Setting up Scale3
I0930 11:17:09.995710  3537 net.cpp:129] Top shape: 100 16 28 28 (1254400)
I0930 11:17:09.995715  3537 net.cpp:137] Memory required for data: 66170000
I0930 11:17:09.995721  3537 layer_factory.hpp:77] Creating layer Eltwise1
I0930 11:17:09.995728  3537 net.cpp:84] Creating Layer Eltwise1
I0930 11:17:09.995733  3537 net.cpp:406] Eltwise1 <- Convolution1_elu_conv1_0_split_1
I0930 11:17:09.995738  3537 net.cpp:406] Eltwise1 <- Convolution3
I0930 11:17:09.995743  3537 net.cpp:380] Eltwise1 -> Eltwise1
I0930 11:17:09.995761  3537 net.cpp:122] Setting up Eltwise1
I0930 11:17:09.995766  3537 net.cpp:129] Top shape: 100 16 28 28 (1254400)
I0930 11:17:09.995770  3537 net.cpp:137] Memory required for data: 71187600
I0930 11:17:09.995775  3537 layer_factory.hpp:77] Creating layer elu_conv3
I0930 11:17:09.995781  3537 net.cpp:84] Creating Layer elu_conv3
I0930 11:17:09.995785  3537 net.cpp:406] elu_conv3 <- Eltwise1
I0930 11:17:09.995790  3537 net.cpp:367] elu_conv3 -> Eltwise1 (in-place)
I0930 11:17:09.995796  3537 net.cpp:122] Setting up elu_conv3
I0930 11:17:09.995801  3537 net.cpp:129] Top shape: 100 16 28 28 (1254400)
I0930 11:17:09.995805  3537 net.cpp:137] Memory required for data: 76205200
I0930 11:17:09.995810  3537 layer_factory.hpp:77] Creating layer Eltwise1_elu_conv3_0_split
I0930 11:17:09.995815  3537 net.cpp:84] Creating Layer Eltwise1_elu_conv3_0_split
I0930 11:17:09.995820  3537 net.cpp:406] Eltwise1_elu_conv3_0_split <- Eltwise1
I0930 11:17:09.995824  3537 net.cpp:380] Eltwise1_elu_conv3_0_split -> Eltwise1_elu_conv3_0_split_0
I0930 11:17:09.995831  3537 net.cpp:380] Eltwise1_elu_conv3_0_split -> Eltwise1_elu_conv3_0_split_1
I0930 11:17:09.995854  3537 net.cpp:122] Setting up Eltwise1_elu_conv3_0_split
I0930 11:17:09.995859  3537 net.cpp:129] Top shape: 100 16 28 28 (1254400)
I0930 11:17:09.995864  3537 net.cpp:129] Top shape: 100 16 28 28 (1254400)
I0930 11:17:09.995868  3537 net.cpp:137] Memory required for data: 86240400
I0930 11:17:09.995872  3537 layer_factory.hpp:77] Creating layer Convolution4
I0930 11:17:09.995882  3537 net.cpp:84] Creating Layer Convolution4
I0930 11:17:09.995887  3537 net.cpp:406] Convolution4 <- Eltwise1_elu_conv3_0_split_0
I0930 11:17:09.995893  3537 net.cpp:380] Convolution4 -> Convolution4
I0930 11:17:09.996688  3537 net.cpp:122] Setting up Convolution4
I0930 11:17:09.996700  3537 net.cpp:129] Top shape: 100 16 28 28 (1254400)
I0930 11:17:09.996704  3537 net.cpp:137] Memory required for data: 91258000
I0930 11:17:09.996712  3537 layer_factory.hpp:77] Creating layer BatchNorm4
I0930 11:17:09.996726  3537 net.cpp:84] Creating Layer BatchNorm4
I0930 11:17:09.996729  3537 net.cpp:406] BatchNorm4 <- Convolution4
I0930 11:17:09.996736  3537 net.cpp:367] BatchNorm4 -> Convolution4 (in-place)
I0930 11:17:09.996845  3537 net.cpp:122] Setting up BatchNorm4
I0930 11:17:09.996851  3537 net.cpp:129] Top shape: 100 16 28 28 (1254400)
I0930 11:17:09.996856  3537 net.cpp:137] Memory required for data: 96275600
I0930 11:17:09.996865  3537 layer_factory.hpp:77] Creating layer Scale4
I0930 11:17:09.996870  3537 net.cpp:84] Creating Layer Scale4
I0930 11:17:09.996875  3537 net.cpp:406] Scale4 <- Convolution4
I0930 11:17:09.996879  3537 net.cpp:367] Scale4 -> Convolution4 (in-place)
I0930 11:17:09.996906  3537 layer_factory.hpp:77] Creating layer Scale4
I0930 11:17:09.996973  3537 net.cpp:122] Setting up Scale4
I0930 11:17:09.996978  3537 net.cpp:129] Top shape: 100 16 28 28 (1254400)
I0930 11:17:09.996982  3537 net.cpp:137] Memory required for data: 101293200
I0930 11:17:09.996989  3537 layer_factory.hpp:77] Creating layer elu_conv4
I0930 11:17:09.996994  3537 net.cpp:84] Creating Layer elu_conv4
I0930 11:17:09.996999  3537 net.cpp:406] elu_conv4 <- Convolution4
I0930 11:17:09.997004  3537 net.cpp:367] elu_conv4 -> Convolution4 (in-place)
I0930 11:17:09.997010  3537 net.cpp:122] Setting up elu_conv4
I0930 11:17:09.997015  3537 net.cpp:129] Top shape: 100 16 28 28 (1254400)
I0930 11:17:09.997020  3537 net.cpp:137] Memory required for data: 106310800
I0930 11:17:09.997023  3537 layer_factory.hpp:77] Creating layer Convolution5
I0930 11:17:09.997032  3537 net.cpp:84] Creating Layer Convolution5
I0930 11:17:09.997035  3537 net.cpp:406] Convolution5 <- Convolution4
I0930 11:17:09.997041  3537 net.cpp:380] Convolution5 -> Convolution5
I0930 11:17:09.997848  3537 net.cpp:122] Setting up Convolution5
I0930 11:17:09.997859  3537 net.cpp:129] Top shape: 100 16 28 28 (1254400)
I0930 11:17:09.997864  3537 net.cpp:137] Memory required for data: 111328400
I0930 11:17:09.997871  3537 layer_factory.hpp:77] Creating layer BatchNorm5
I0930 11:17:09.997879  3537 net.cpp:84] Creating Layer BatchNorm5
I0930 11:17:09.997882  3537 net.cpp:406] BatchNorm5 <- Convolution5
I0930 11:17:09.997889  3537 net.cpp:367] BatchNorm5 -> Convolution5 (in-place)
I0930 11:17:09.998008  3537 net.cpp:122] Setting up BatchNorm5
I0930 11:17:09.998014  3537 net.cpp:129] Top shape: 100 16 28 28 (1254400)
I0930 11:17:09.998018  3537 net.cpp:137] Memory required for data: 116346000
I0930 11:17:09.998029  3537 layer_factory.hpp:77] Creating layer Scale5
I0930 11:17:09.998035  3537 net.cpp:84] Creating Layer Scale5
I0930 11:17:09.998039  3537 net.cpp:406] Scale5 <- Convolution5
I0930 11:17:09.998044  3537 net.cpp:367] Scale5 -> Convolution5 (in-place)
I0930 11:17:09.998071  3537 layer_factory.hpp:77] Creating layer Scale5
I0930 11:17:09.998144  3537 net.cpp:122] Setting up Scale5
I0930 11:17:09.998149  3537 net.cpp:129] Top shape: 100 16 28 28 (1254400)
I0930 11:17:09.998153  3537 net.cpp:137] Memory required for data: 121363600
I0930 11:17:09.998160  3537 layer_factory.hpp:77] Creating layer Eltwise2
I0930 11:17:09.998167  3537 net.cpp:84] Creating Layer Eltwise2
I0930 11:17:09.998170  3537 net.cpp:406] Eltwise2 <- Eltwise1_elu_conv3_0_split_1
I0930 11:17:09.998175  3537 net.cpp:406] Eltwise2 <- Convolution5
I0930 11:17:09.998181  3537 net.cpp:380] Eltwise2 -> Eltwise2
I0930 11:17:09.998198  3537 net.cpp:122] Setting up Eltwise2
I0930 11:17:09.998203  3537 net.cpp:129] Top shape: 100 16 28 28 (1254400)
I0930 11:17:09.998208  3537 net.cpp:137] Memory required for data: 126381200
I0930 11:17:09.998211  3537 layer_factory.hpp:77] Creating layer elu_conv5
I0930 11:17:09.998217  3537 net.cpp:84] Creating Layer elu_conv5
I0930 11:17:09.998221  3537 net.cpp:406] elu_conv5 <- Eltwise2
I0930 11:17:09.998227  3537 net.cpp:367] elu_conv5 -> Eltwise2 (in-place)
I0930 11:17:09.998232  3537 net.cpp:122] Setting up elu_conv5
I0930 11:17:09.998237  3537 net.cpp:129] Top shape: 100 16 28 28 (1254400)
I0930 11:17:09.998241  3537 net.cpp:137] Memory required for data: 131398800
I0930 11:17:09.998252  3537 layer_factory.hpp:77] Creating layer Eltwise2_elu_conv5_0_split
I0930 11:17:09.998258  3537 net.cpp:84] Creating Layer Eltwise2_elu_conv5_0_split
I0930 11:17:09.998262  3537 net.cpp:406] Eltwise2_elu_conv5_0_split <- Eltwise2
I0930 11:17:09.998267  3537 net.cpp:380] Eltwise2_elu_conv5_0_split -> Eltwise2_elu_conv5_0_split_0
I0930 11:17:09.998273  3537 net.cpp:380] Eltwise2_elu_conv5_0_split -> Eltwise2_elu_conv5_0_split_1
I0930 11:17:09.998298  3537 net.cpp:122] Setting up Eltwise2_elu_conv5_0_split
I0930 11:17:09.998303  3537 net.cpp:129] Top shape: 100 16 28 28 (1254400)
I0930 11:17:09.998308  3537 net.cpp:129] Top shape: 100 16 28 28 (1254400)
I0930 11:17:09.998312  3537 net.cpp:137] Memory required for data: 141434000
I0930 11:17:09.998317  3537 layer_factory.hpp:77] Creating layer Convolution6
I0930 11:17:09.998325  3537 net.cpp:84] Creating Layer Convolution6
I0930 11:17:09.998328  3537 net.cpp:406] Convolution6 <- Eltwise2_elu_conv5_0_split_0
I0930 11:17:09.998337  3537 net.cpp:380] Convolution6 -> Convolution6
I0930 11:17:09.999189  3537 net.cpp:122] Setting up Convolution6
I0930 11:17:09.999199  3537 net.cpp:129] Top shape: 100 16 28 28 (1254400)
I0930 11:17:09.999205  3537 net.cpp:137] Memory required for data: 146451600
I0930 11:17:09.999212  3537 layer_factory.hpp:77] Creating layer BatchNorm6
I0930 11:17:09.999220  3537 net.cpp:84] Creating Layer BatchNorm6
I0930 11:17:09.999223  3537 net.cpp:406] BatchNorm6 <- Convolution6
I0930 11:17:09.999229  3537 net.cpp:367] BatchNorm6 -> Convolution6 (in-place)
I0930 11:17:09.999354  3537 net.cpp:122] Setting up BatchNorm6
I0930 11:17:09.999361  3537 net.cpp:129] Top shape: 100 16 28 28 (1254400)
I0930 11:17:09.999364  3537 net.cpp:137] Memory required for data: 151469200
I0930 11:17:09.999372  3537 layer_factory.hpp:77] Creating layer Scale6
I0930 11:17:09.999377  3537 net.cpp:84] Creating Layer Scale6
I0930 11:17:09.999382  3537 net.cpp:406] Scale6 <- Convolution6
I0930 11:17:09.999387  3537 net.cpp:367] Scale6 -> Convolution6 (in-place)
I0930 11:17:09.999415  3537 layer_factory.hpp:77] Creating layer Scale6
I0930 11:17:09.999487  3537 net.cpp:122] Setting up Scale6
I0930 11:17:09.999493  3537 net.cpp:129] Top shape: 100 16 28 28 (1254400)
I0930 11:17:09.999497  3537 net.cpp:137] Memory required for data: 156486800
I0930 11:17:09.999503  3537 layer_factory.hpp:77] Creating layer elu_conv6
I0930 11:17:09.999511  3537 net.cpp:84] Creating Layer elu_conv6
I0930 11:17:09.999514  3537 net.cpp:406] elu_conv6 <- Convolution6
I0930 11:17:09.999519  3537 net.cpp:367] elu_conv6 -> Convolution6 (in-place)
I0930 11:17:09.999526  3537 net.cpp:122] Setting up elu_conv6
I0930 11:17:09.999531  3537 net.cpp:129] Top shape: 100 16 28 28 (1254400)
I0930 11:17:09.999534  3537 net.cpp:137] Memory required for data: 161504400
I0930 11:17:09.999538  3537 layer_factory.hpp:77] Creating layer Convolution7
I0930 11:17:09.999548  3537 net.cpp:84] Creating Layer Convolution7
I0930 11:17:09.999552  3537 net.cpp:406] Convolution7 <- Convolution6
I0930 11:17:09.999557  3537 net.cpp:380] Convolution7 -> Convolution7
I0930 11:17:10.000075  3537 net.cpp:122] Setting up Convolution7
I0930 11:17:10.000084  3537 net.cpp:129] Top shape: 100 16 28 28 (1254400)
I0930 11:17:10.000089  3537 net.cpp:137] Memory required for data: 166522000
I0930 11:17:10.000097  3537 layer_factory.hpp:77] Creating layer BatchNorm7
I0930 11:17:10.000103  3537 net.cpp:84] Creating Layer BatchNorm7
I0930 11:17:10.000108  3537 net.cpp:406] BatchNorm7 <- Convolution7
I0930 11:17:10.000113  3537 net.cpp:367] BatchNorm7 -> Convolution7 (in-place)
I0930 11:17:10.000236  3537 net.cpp:122] Setting up BatchNorm7
I0930 11:17:10.000241  3537 net.cpp:129] Top shape: 100 16 28 28 (1254400)
I0930 11:17:10.000246  3537 net.cpp:137] Memory required for data: 171539600
I0930 11:17:10.000253  3537 layer_factory.hpp:77] Creating layer Scale7
I0930 11:17:10.000260  3537 net.cpp:84] Creating Layer Scale7
I0930 11:17:10.000263  3537 net.cpp:406] Scale7 <- Convolution7
I0930 11:17:10.000270  3537 net.cpp:367] Scale7 -> Convolution7 (in-place)
I0930 11:17:10.000305  3537 layer_factory.hpp:77] Creating layer Scale7
I0930 11:17:10.000380  3537 net.cpp:122] Setting up Scale7
I0930 11:17:10.000386  3537 net.cpp:129] Top shape: 100 16 28 28 (1254400)
I0930 11:17:10.000391  3537 net.cpp:137] Memory required for data: 176557200
I0930 11:17:10.000397  3537 layer_factory.hpp:77] Creating layer Eltwise3
I0930 11:17:10.000403  3537 net.cpp:84] Creating Layer Eltwise3
I0930 11:17:10.000407  3537 net.cpp:406] Eltwise3 <- Eltwise2_elu_conv5_0_split_1
I0930 11:17:10.000412  3537 net.cpp:406] Eltwise3 <- Convolution7
I0930 11:17:10.000418  3537 net.cpp:380] Eltwise3 -> Eltwise3
I0930 11:17:10.000435  3537 net.cpp:122] Setting up Eltwise3
I0930 11:17:10.000442  3537 net.cpp:129] Top shape: 100 16 28 28 (1254400)
I0930 11:17:10.000445  3537 net.cpp:137] Memory required for data: 181574800
I0930 11:17:10.000449  3537 layer_factory.hpp:77] Creating layer elu_conv7
I0930 11:17:10.000455  3537 net.cpp:84] Creating Layer elu_conv7
I0930 11:17:10.000459  3537 net.cpp:406] elu_conv7 <- Eltwise3
I0930 11:17:10.000464  3537 net.cpp:367] elu_conv7 -> Eltwise3 (in-place)
I0930 11:17:10.000470  3537 net.cpp:122] Setting up elu_conv7
I0930 11:17:10.000475  3537 net.cpp:129] Top shape: 100 16 28 28 (1254400)
I0930 11:17:10.000479  3537 net.cpp:137] Memory required for data: 186592400
I0930 11:17:10.000483  3537 layer_factory.hpp:77] Creating layer Eltwise3_elu_conv7_0_split
I0930 11:17:10.000489  3537 net.cpp:84] Creating Layer Eltwise3_elu_conv7_0_split
I0930 11:17:10.000493  3537 net.cpp:406] Eltwise3_elu_conv7_0_split <- Eltwise3
I0930 11:17:10.000499  3537 net.cpp:380] Eltwise3_elu_conv7_0_split -> Eltwise3_elu_conv7_0_split_0
I0930 11:17:10.000504  3537 net.cpp:380] Eltwise3_elu_conv7_0_split -> Eltwise3_elu_conv7_0_split_1
I0930 11:17:10.000526  3537 net.cpp:122] Setting up Eltwise3_elu_conv7_0_split
I0930 11:17:10.000531  3537 net.cpp:129] Top shape: 100 16 28 28 (1254400)
I0930 11:17:10.000536  3537 net.cpp:129] Top shape: 100 16 28 28 (1254400)
I0930 11:17:10.000540  3537 net.cpp:137] Memory required for data: 196627600
I0930 11:17:10.000545  3537 layer_factory.hpp:77] Creating layer Convolution8
I0930 11:17:10.000555  3537 net.cpp:84] Creating Layer Convolution8
I0930 11:17:10.000558  3537 net.cpp:406] Convolution8 <- Eltwise3_elu_conv7_0_split_0
I0930 11:17:10.000564  3537 net.cpp:380] Convolution8 -> Convolution8
I0930 11:17:10.001402  3537 net.cpp:122] Setting up Convolution8
I0930 11:17:10.001413  3537 net.cpp:129] Top shape: 100 16 28 28 (1254400)
I0930 11:17:10.001418  3537 net.cpp:137] Memory required for data: 201645200
I0930 11:17:10.001425  3537 layer_factory.hpp:77] Creating layer BatchNorm8
I0930 11:17:10.001433  3537 net.cpp:84] Creating Layer BatchNorm8
I0930 11:17:10.001436  3537 net.cpp:406] BatchNorm8 <- Convolution8
I0930 11:17:10.001442  3537 net.cpp:367] BatchNorm8 -> Convolution8 (in-place)
I0930 11:17:10.001569  3537 net.cpp:122] Setting up BatchNorm8
I0930 11:17:10.001574  3537 net.cpp:129] Top shape: 100 16 28 28 (1254400)
I0930 11:17:10.001579  3537 net.cpp:137] Memory required for data: 206662800
I0930 11:17:10.001586  3537 layer_factory.hpp:77] Creating layer Scale8
I0930 11:17:10.001592  3537 net.cpp:84] Creating Layer Scale8
I0930 11:17:10.001596  3537 net.cpp:406] Scale8 <- Convolution8
I0930 11:17:10.001601  3537 net.cpp:367] Scale8 -> Convolution8 (in-place)
I0930 11:17:10.001631  3537 layer_factory.hpp:77] Creating layer Scale8
I0930 11:17:10.001704  3537 net.cpp:122] Setting up Scale8
I0930 11:17:10.001709  3537 net.cpp:129] Top shape: 100 16 28 28 (1254400)
I0930 11:17:10.001713  3537 net.cpp:137] Memory required for data: 211680400
I0930 11:17:10.001720  3537 layer_factory.hpp:77] Creating layer elu_conv8
I0930 11:17:10.001725  3537 net.cpp:84] Creating Layer elu_conv8
I0930 11:17:10.001730  3537 net.cpp:406] elu_conv8 <- Convolution8
I0930 11:17:10.001736  3537 net.cpp:367] elu_conv8 -> Convolution8 (in-place)
I0930 11:17:10.001742  3537 net.cpp:122] Setting up elu_conv8
I0930 11:17:10.001747  3537 net.cpp:129] Top shape: 100 16 28 28 (1254400)
I0930 11:17:10.001757  3537 net.cpp:137] Memory required for data: 216698000
I0930 11:17:10.001762  3537 layer_factory.hpp:77] Creating layer Convolution9
I0930 11:17:10.001772  3537 net.cpp:84] Creating Layer Convolution9
I0930 11:17:10.001775  3537 net.cpp:406] Convolution9 <- Convolution8
I0930 11:17:10.001781  3537 net.cpp:380] Convolution9 -> Convolution9
I0930 11:17:10.002671  3537 net.cpp:122] Setting up Convolution9
I0930 11:17:10.002692  3537 net.cpp:129] Top shape: 100 16 28 28 (1254400)
I0930 11:17:10.002696  3537 net.cpp:137] Memory required for data: 221715600
I0930 11:17:10.002701  3537 layer_factory.hpp:77] Creating layer BatchNorm9
I0930 11:17:10.002707  3537 net.cpp:84] Creating Layer BatchNorm9
I0930 11:17:10.002712  3537 net.cpp:406] BatchNorm9 <- Convolution9
I0930 11:17:10.002719  3537 net.cpp:367] BatchNorm9 -> Convolution9 (in-place)
I0930 11:17:10.002856  3537 net.cpp:122] Setting up BatchNorm9
I0930 11:17:10.002861  3537 net.cpp:129] Top shape: 100 16 28 28 (1254400)
I0930 11:17:10.002873  3537 net.cpp:137] Memory required for data: 226733200
I0930 11:17:10.002879  3537 layer_factory.hpp:77] Creating layer Scale9
I0930 11:17:10.002885  3537 net.cpp:84] Creating Layer Scale9
I0930 11:17:10.002888  3537 net.cpp:406] Scale9 <- Convolution9
I0930 11:17:10.002893  3537 net.cpp:367] Scale9 -> Convolution9 (in-place)
I0930 11:17:10.002930  3537 layer_factory.hpp:77] Creating layer Scale9
I0930 11:17:10.003017  3537 net.cpp:122] Setting up Scale9
I0930 11:17:10.003023  3537 net.cpp:129] Top shape: 100 16 28 28 (1254400)
I0930 11:17:10.003027  3537 net.cpp:137] Memory required for data: 231750800
I0930 11:17:10.003034  3537 layer_factory.hpp:77] Creating layer Eltwise4
I0930 11:17:10.003041  3537 net.cpp:84] Creating Layer Eltwise4
I0930 11:17:10.003044  3537 net.cpp:406] Eltwise4 <- Eltwise3_elu_conv7_0_split_1
I0930 11:17:10.003049  3537 net.cpp:406] Eltwise4 <- Convolution9
I0930 11:17:10.003057  3537 net.cpp:380] Eltwise4 -> Eltwise4
I0930 11:17:10.003073  3537 net.cpp:122] Setting up Eltwise4
I0930 11:17:10.003079  3537 net.cpp:129] Top shape: 100 16 28 28 (1254400)
I0930 11:17:10.003083  3537 net.cpp:137] Memory required for data: 236768400
I0930 11:17:10.003087  3537 layer_factory.hpp:77] Creating layer elu_conv9
I0930 11:17:10.003090  3537 net.cpp:84] Creating Layer elu_conv9
I0930 11:17:10.003093  3537 net.cpp:406] elu_conv9 <- Eltwise4
I0930 11:17:10.003096  3537 net.cpp:367] elu_conv9 -> Eltwise4 (in-place)
I0930 11:17:10.003099  3537 net.cpp:122] Setting up elu_conv9
I0930 11:17:10.003103  3537 net.cpp:129] Top shape: 100 16 28 28 (1254400)
I0930 11:17:10.003105  3537 net.cpp:137] Memory required for data: 241786000
I0930 11:17:10.003108  3537 layer_factory.hpp:77] Creating layer Eltwise4_elu_conv9_0_split
I0930 11:17:10.003110  3537 net.cpp:84] Creating Layer Eltwise4_elu_conv9_0_split
I0930 11:17:10.003113  3537 net.cpp:406] Eltwise4_elu_conv9_0_split <- Eltwise4
I0930 11:17:10.003116  3537 net.cpp:380] Eltwise4_elu_conv9_0_split -> Eltwise4_elu_conv9_0_split_0
I0930 11:17:10.003120  3537 net.cpp:380] Eltwise4_elu_conv9_0_split -> Eltwise4_elu_conv9_0_split_1
I0930 11:17:10.003141  3537 net.cpp:122] Setting up Eltwise4_elu_conv9_0_split
I0930 11:17:10.003144  3537 net.cpp:129] Top shape: 100 16 28 28 (1254400)
I0930 11:17:10.003147  3537 net.cpp:129] Top shape: 100 16 28 28 (1254400)
I0930 11:17:10.003150  3537 net.cpp:137] Memory required for data: 251821200
I0930 11:17:10.003152  3537 layer_factory.hpp:77] Creating layer Convolution10
I0930 11:17:10.003159  3537 net.cpp:84] Creating Layer Convolution10
I0930 11:17:10.003161  3537 net.cpp:406] Convolution10 <- Eltwise4_elu_conv9_0_split_0
I0930 11:17:10.003165  3537 net.cpp:380] Convolution10 -> Convolution10
I0930 11:17:10.004057  3537 net.cpp:122] Setting up Convolution10
I0930 11:17:10.004067  3537 net.cpp:129] Top shape: 100 16 28 28 (1254400)
I0930 11:17:10.004081  3537 net.cpp:137] Memory required for data: 256838800
I0930 11:17:10.004093  3537 layer_factory.hpp:77] Creating layer BatchNorm10
I0930 11:17:10.004107  3537 net.cpp:84] Creating Layer BatchNorm10
I0930 11:17:10.004112  3537 net.cpp:406] BatchNorm10 <- Convolution10
I0930 11:17:10.004114  3537 net.cpp:367] BatchNorm10 -> Convolution10 (in-place)
I0930 11:17:10.004251  3537 net.cpp:122] Setting up BatchNorm10
I0930 11:17:10.004256  3537 net.cpp:129] Top shape: 100 16 28 28 (1254400)
I0930 11:17:10.004258  3537 net.cpp:137] Memory required for data: 261856400
I0930 11:17:10.004274  3537 layer_factory.hpp:77] Creating layer Scale10
I0930 11:17:10.004279  3537 net.cpp:84] Creating Layer Scale10
I0930 11:17:10.004281  3537 net.cpp:406] Scale10 <- Convolution10
I0930 11:17:10.004286  3537 net.cpp:367] Scale10 -> Convolution10 (in-place)
I0930 11:17:10.004324  3537 layer_factory.hpp:77] Creating layer Scale10
I0930 11:17:10.004431  3537 net.cpp:122] Setting up Scale10
I0930 11:17:10.004437  3537 net.cpp:129] Top shape: 100 16 28 28 (1254400)
I0930 11:17:10.004441  3537 net.cpp:137] Memory required for data: 266874000
I0930 11:17:10.004444  3537 layer_factory.hpp:77] Creating layer elu_conv10
I0930 11:17:10.004448  3537 net.cpp:84] Creating Layer elu_conv10
I0930 11:17:10.004451  3537 net.cpp:406] elu_conv10 <- Convolution10
I0930 11:17:10.004456  3537 net.cpp:367] elu_conv10 -> Convolution10 (in-place)
I0930 11:17:10.004461  3537 net.cpp:122] Setting up elu_conv10
I0930 11:17:10.004463  3537 net.cpp:129] Top shape: 100 16 28 28 (1254400)
I0930 11:17:10.004467  3537 net.cpp:137] Memory required for data: 271891600
I0930 11:17:10.004469  3537 layer_factory.hpp:77] Creating layer Convolution11
I0930 11:17:10.004477  3537 net.cpp:84] Creating Layer Convolution11
I0930 11:17:10.004480  3537 net.cpp:406] Convolution11 <- Convolution10
I0930 11:17:10.004484  3537 net.cpp:380] Convolution11 -> Convolution11
I0930 11:17:10.005434  3537 net.cpp:122] Setting up Convolution11
I0930 11:17:10.005445  3537 net.cpp:129] Top shape: 100 16 28 28 (1254400)
I0930 11:17:10.005448  3537 net.cpp:137] Memory required for data: 276909200
I0930 11:17:10.005453  3537 layer_factory.hpp:77] Creating layer BatchNorm11
I0930 11:17:10.005458  3537 net.cpp:84] Creating Layer BatchNorm11
I0930 11:17:10.005461  3537 net.cpp:406] BatchNorm11 <- Convolution11
I0930 11:17:10.005465  3537 net.cpp:367] BatchNorm11 -> Convolution11 (in-place)
I0930 11:17:10.005592  3537 net.cpp:122] Setting up BatchNorm11
I0930 11:17:10.005597  3537 net.cpp:129] Top shape: 100 16 28 28 (1254400)
I0930 11:17:10.005600  3537 net.cpp:137] Memory required for data: 281926800
I0930 11:17:10.005605  3537 layer_factory.hpp:77] Creating layer Scale11
I0930 11:17:10.005609  3537 net.cpp:84] Creating Layer Scale11
I0930 11:17:10.005612  3537 net.cpp:406] Scale11 <- Convolution11
I0930 11:17:10.005617  3537 net.cpp:367] Scale11 -> Convolution11 (in-place)
I0930 11:17:10.005641  3537 layer_factory.hpp:77] Creating layer Scale11
I0930 11:17:10.005714  3537 net.cpp:122] Setting up Scale11
I0930 11:17:10.005719  3537 net.cpp:129] Top shape: 100 16 28 28 (1254400)
I0930 11:17:10.005722  3537 net.cpp:137] Memory required for data: 286944400
I0930 11:17:10.005726  3537 layer_factory.hpp:77] Creating layer Eltwise5
I0930 11:17:10.005731  3537 net.cpp:84] Creating Layer Eltwise5
I0930 11:17:10.005734  3537 net.cpp:406] Eltwise5 <- Eltwise4_elu_conv9_0_split_1
I0930 11:17:10.005738  3537 net.cpp:406] Eltwise5 <- Convolution11
I0930 11:17:10.005743  3537 net.cpp:380] Eltwise5 -> Eltwise5
I0930 11:17:10.005756  3537 net.cpp:122] Setting up Eltwise5
I0930 11:17:10.005762  3537 net.cpp:129] Top shape: 100 16 28 28 (1254400)
I0930 11:17:10.005764  3537 net.cpp:137] Memory required for data: 291962000
I0930 11:17:10.005767  3537 layer_factory.hpp:77] Creating layer elu_conv11
I0930 11:17:10.005770  3537 net.cpp:84] Creating Layer elu_conv11
I0930 11:17:10.005774  3537 net.cpp:406] elu_conv11 <- Eltwise5
I0930 11:17:10.005776  3537 net.cpp:367] elu_conv11 -> Eltwise5 (in-place)
I0930 11:17:10.005780  3537 net.cpp:122] Setting up elu_conv11
I0930 11:17:10.005784  3537 net.cpp:129] Top shape: 100 16 28 28 (1254400)
I0930 11:17:10.005787  3537 net.cpp:137] Memory required for data: 296979600
I0930 11:17:10.005796  3537 layer_factory.hpp:77] Creating layer Eltwise5_elu_conv11_0_split
I0930 11:17:10.005800  3537 net.cpp:84] Creating Layer Eltwise5_elu_conv11_0_split
I0930 11:17:10.005802  3537 net.cpp:406] Eltwise5_elu_conv11_0_split <- Eltwise5
I0930 11:17:10.005807  3537 net.cpp:380] Eltwise5_elu_conv11_0_split -> Eltwise5_elu_conv11_0_split_0
I0930 11:17:10.005811  3537 net.cpp:380] Eltwise5_elu_conv11_0_split -> Eltwise5_elu_conv11_0_split_1
I0930 11:17:10.005833  3537 net.cpp:122] Setting up Eltwise5_elu_conv11_0_split
I0930 11:17:10.005837  3537 net.cpp:129] Top shape: 100 16 28 28 (1254400)
I0930 11:17:10.005841  3537 net.cpp:129] Top shape: 100 16 28 28 (1254400)
I0930 11:17:10.005844  3537 net.cpp:137] Memory required for data: 307014800
I0930 11:17:10.005847  3537 layer_factory.hpp:77] Creating layer Convolution12
I0930 11:17:10.005853  3537 net.cpp:84] Creating Layer Convolution12
I0930 11:17:10.005856  3537 net.cpp:406] Convolution12 <- Eltwise5_elu_conv11_0_split_0
I0930 11:17:10.005861  3537 net.cpp:380] Convolution12 -> Convolution12
I0930 11:17:10.006768  3537 net.cpp:122] Setting up Convolution12
I0930 11:17:10.006779  3537 net.cpp:129] Top shape: 100 16 28 28 (1254400)
I0930 11:17:10.006783  3537 net.cpp:137] Memory required for data: 312032400
I0930 11:17:10.006788  3537 layer_factory.hpp:77] Creating layer BatchNorm12
I0930 11:17:10.006794  3537 net.cpp:84] Creating Layer BatchNorm12
I0930 11:17:10.006798  3537 net.cpp:406] BatchNorm12 <- Convolution12
I0930 11:17:10.006803  3537 net.cpp:367] BatchNorm12 -> Convolution12 (in-place)
I0930 11:17:10.006930  3537 net.cpp:122] Setting up BatchNorm12
I0930 11:17:10.006937  3537 net.cpp:129] Top shape: 100 16 28 28 (1254400)
I0930 11:17:10.006939  3537 net.cpp:137] Memory required for data: 317050000
I0930 11:17:10.006944  3537 layer_factory.hpp:77] Creating layer Scale12
I0930 11:17:10.006949  3537 net.cpp:84] Creating Layer Scale12
I0930 11:17:10.006953  3537 net.cpp:406] Scale12 <- Convolution12
I0930 11:17:10.006956  3537 net.cpp:367] Scale12 -> Convolution12 (in-place)
I0930 11:17:10.006983  3537 layer_factory.hpp:77] Creating layer Scale12
I0930 11:17:10.007058  3537 net.cpp:122] Setting up Scale12
I0930 11:17:10.007063  3537 net.cpp:129] Top shape: 100 16 28 28 (1254400)
I0930 11:17:10.007066  3537 net.cpp:137] Memory required for data: 322067600
I0930 11:17:10.007071  3537 layer_factory.hpp:77] Creating layer elu_conv12
I0930 11:17:10.007076  3537 net.cpp:84] Creating Layer elu_conv12
I0930 11:17:10.007078  3537 net.cpp:406] elu_conv12 <- Convolution12
I0930 11:17:10.007081  3537 net.cpp:367] elu_conv12 -> Convolution12 (in-place)
I0930 11:17:10.007086  3537 net.cpp:122] Setting up elu_conv12
I0930 11:17:10.007091  3537 net.cpp:129] Top shape: 100 16 28 28 (1254400)
I0930 11:17:10.007092  3537 net.cpp:137] Memory required for data: 327085200
I0930 11:17:10.007095  3537 layer_factory.hpp:77] Creating layer Convolution13
I0930 11:17:10.007102  3537 net.cpp:84] Creating Layer Convolution13
I0930 11:17:10.007104  3537 net.cpp:406] Convolution13 <- Convolution12
I0930 11:17:10.007109  3537 net.cpp:380] Convolution13 -> Convolution13
I0930 11:17:10.007994  3537 net.cpp:122] Setting up Convolution13
I0930 11:17:10.008007  3537 net.cpp:129] Top shape: 100 16 28 28 (1254400)
I0930 11:17:10.008009  3537 net.cpp:137] Memory required for data: 332102800
I0930 11:17:10.008014  3537 layer_factory.hpp:77] Creating layer BatchNorm13
I0930 11:17:10.008019  3537 net.cpp:84] Creating Layer BatchNorm13
I0930 11:17:10.008023  3537 net.cpp:406] BatchNorm13 <- Convolution13
I0930 11:17:10.008028  3537 net.cpp:367] BatchNorm13 -> Convolution13 (in-place)
I0930 11:17:10.008157  3537 net.cpp:122] Setting up BatchNorm13
I0930 11:17:10.008162  3537 net.cpp:129] Top shape: 100 16 28 28 (1254400)
I0930 11:17:10.008165  3537 net.cpp:137] Memory required for data: 337120400
I0930 11:17:10.008170  3537 layer_factory.hpp:77] Creating layer Scale13
I0930 11:17:10.008175  3537 net.cpp:84] Creating Layer Scale13
I0930 11:17:10.008185  3537 net.cpp:406] Scale13 <- Convolution13
I0930 11:17:10.008190  3537 net.cpp:367] Scale13 -> Convolution13 (in-place)
I0930 11:17:10.008219  3537 layer_factory.hpp:77] Creating layer Scale13
I0930 11:17:10.008298  3537 net.cpp:122] Setting up Scale13
I0930 11:17:10.008303  3537 net.cpp:129] Top shape: 100 16 28 28 (1254400)
I0930 11:17:10.008306  3537 net.cpp:137] Memory required for data: 342138000
I0930 11:17:10.008311  3537 layer_factory.hpp:77] Creating layer Eltwise6
I0930 11:17:10.008316  3537 net.cpp:84] Creating Layer Eltwise6
I0930 11:17:10.008318  3537 net.cpp:406] Eltwise6 <- Eltwise5_elu_conv11_0_split_1
I0930 11:17:10.008322  3537 net.cpp:406] Eltwise6 <- Convolution13
I0930 11:17:10.008327  3537 net.cpp:380] Eltwise6 -> Eltwise6
I0930 11:17:10.008347  3537 net.cpp:122] Setting up Eltwise6
I0930 11:17:10.008352  3537 net.cpp:129] Top shape: 100 16 28 28 (1254400)
I0930 11:17:10.008355  3537 net.cpp:137] Memory required for data: 347155600
I0930 11:17:10.008358  3537 layer_factory.hpp:77] Creating layer elu_conv13
I0930 11:17:10.008365  3537 net.cpp:84] Creating Layer elu_conv13
I0930 11:17:10.008368  3537 net.cpp:406] elu_conv13 <- Eltwise6
I0930 11:17:10.008373  3537 net.cpp:367] elu_conv13 -> Eltwise6 (in-place)
I0930 11:17:10.008376  3537 net.cpp:122] Setting up elu_conv13
I0930 11:17:10.008380  3537 net.cpp:129] Top shape: 100 16 28 28 (1254400)
I0930 11:17:10.008383  3537 net.cpp:137] Memory required for data: 352173200
I0930 11:17:10.008385  3537 layer_factory.hpp:77] Creating layer Eltwise6_elu_conv13_0_split
I0930 11:17:10.008389  3537 net.cpp:84] Creating Layer Eltwise6_elu_conv13_0_split
I0930 11:17:10.008393  3537 net.cpp:406] Eltwise6_elu_conv13_0_split <- Eltwise6
I0930 11:17:10.008396  3537 net.cpp:380] Eltwise6_elu_conv13_0_split -> Eltwise6_elu_conv13_0_split_0
I0930 11:17:10.008400  3537 net.cpp:380] Eltwise6_elu_conv13_0_split -> Eltwise6_elu_conv13_0_split_1
I0930 11:17:10.008422  3537 net.cpp:122] Setting up Eltwise6_elu_conv13_0_split
I0930 11:17:10.008426  3537 net.cpp:129] Top shape: 100 16 28 28 (1254400)
I0930 11:17:10.008430  3537 net.cpp:129] Top shape: 100 16 28 28 (1254400)
I0930 11:17:10.008431  3537 net.cpp:137] Memory required for data: 362208400
I0930 11:17:10.008433  3537 layer_factory.hpp:77] Creating layer Convolution14
I0930 11:17:10.008441  3537 net.cpp:84] Creating Layer Convolution14
I0930 11:17:10.008445  3537 net.cpp:406] Convolution14 <- Eltwise6_elu_conv13_0_split_0
I0930 11:17:10.008450  3537 net.cpp:380] Convolution14 -> Convolution14
I0930 11:17:10.009341  3537 net.cpp:122] Setting up Convolution14
I0930 11:17:10.009351  3537 net.cpp:129] Top shape: 100 16 28 28 (1254400)
I0930 11:17:10.009353  3537 net.cpp:137] Memory required for data: 367226000
I0930 11:17:10.009357  3537 layer_factory.hpp:77] Creating layer BatchNorm14
I0930 11:17:10.009362  3537 net.cpp:84] Creating Layer BatchNorm14
I0930 11:17:10.009364  3537 net.cpp:406] BatchNorm14 <- Convolution14
I0930 11:17:10.009369  3537 net.cpp:367] BatchNorm14 -> Convolution14 (in-place)
I0930 11:17:10.009502  3537 net.cpp:122] Setting up BatchNorm14
I0930 11:17:10.009506  3537 net.cpp:129] Top shape: 100 16 28 28 (1254400)
I0930 11:17:10.009508  3537 net.cpp:137] Memory required for data: 372243600
I0930 11:17:10.009513  3537 layer_factory.hpp:77] Creating layer Scale14
I0930 11:17:10.009518  3537 net.cpp:84] Creating Layer Scale14
I0930 11:17:10.009521  3537 net.cpp:406] Scale14 <- Convolution14
I0930 11:17:10.009524  3537 net.cpp:367] Scale14 -> Convolution14 (in-place)
I0930 11:17:10.009549  3537 layer_factory.hpp:77] Creating layer Scale14
I0930 11:17:10.009626  3537 net.cpp:122] Setting up Scale14
I0930 11:17:10.009631  3537 net.cpp:129] Top shape: 100 16 28 28 (1254400)
I0930 11:17:10.009634  3537 net.cpp:137] Memory required for data: 377261200
I0930 11:17:10.009637  3537 layer_factory.hpp:77] Creating layer elu_conv14
I0930 11:17:10.009641  3537 net.cpp:84] Creating Layer elu_conv14
I0930 11:17:10.009644  3537 net.cpp:406] elu_conv14 <- Convolution14
I0930 11:17:10.009647  3537 net.cpp:367] elu_conv14 -> Convolution14 (in-place)
I0930 11:17:10.009658  3537 net.cpp:122] Setting up elu_conv14
I0930 11:17:10.009662  3537 net.cpp:129] Top shape: 100 16 28 28 (1254400)
I0930 11:17:10.009665  3537 net.cpp:137] Memory required for data: 382278800
I0930 11:17:10.009666  3537 layer_factory.hpp:77] Creating layer Convolution15
I0930 11:17:10.009675  3537 net.cpp:84] Creating Layer Convolution15
I0930 11:17:10.009676  3537 net.cpp:406] Convolution15 <- Convolution14
I0930 11:17:10.009680  3537 net.cpp:380] Convolution15 -> Convolution15
I0930 11:17:10.010584  3537 net.cpp:122] Setting up Convolution15
I0930 11:17:10.010592  3537 net.cpp:129] Top shape: 100 16 28 28 (1254400)
I0930 11:17:10.010596  3537 net.cpp:137] Memory required for data: 387296400
I0930 11:17:10.010601  3537 layer_factory.hpp:77] Creating layer BatchNorm15
I0930 11:17:10.010607  3537 net.cpp:84] Creating Layer BatchNorm15
I0930 11:17:10.010608  3537 net.cpp:406] BatchNorm15 <- Convolution15
I0930 11:17:10.010612  3537 net.cpp:367] BatchNorm15 -> Convolution15 (in-place)
I0930 11:17:10.010742  3537 net.cpp:122] Setting up BatchNorm15
I0930 11:17:10.010747  3537 net.cpp:129] Top shape: 100 16 28 28 (1254400)
I0930 11:17:10.010749  3537 net.cpp:137] Memory required for data: 392314000
I0930 11:17:10.010754  3537 layer_factory.hpp:77] Creating layer Scale15
I0930 11:17:10.010759  3537 net.cpp:84] Creating Layer Scale15
I0930 11:17:10.010761  3537 net.cpp:406] Scale15 <- Convolution15
I0930 11:17:10.010764  3537 net.cpp:367] Scale15 -> Convolution15 (in-place)
I0930 11:17:10.010789  3537 layer_factory.hpp:77] Creating layer Scale15
I0930 11:17:10.010872  3537 net.cpp:122] Setting up Scale15
I0930 11:17:10.010876  3537 net.cpp:129] Top shape: 100 16 28 28 (1254400)
I0930 11:17:10.010879  3537 net.cpp:137] Memory required for data: 397331600
I0930 11:17:10.010884  3537 layer_factory.hpp:77] Creating layer Eltwise7
I0930 11:17:10.010886  3537 net.cpp:84] Creating Layer Eltwise7
I0930 11:17:10.010890  3537 net.cpp:406] Eltwise7 <- Eltwise6_elu_conv13_0_split_1
I0930 11:17:10.010892  3537 net.cpp:406] Eltwise7 <- Convolution15
I0930 11:17:10.010896  3537 net.cpp:380] Eltwise7 -> Eltwise7
I0930 11:17:10.010910  3537 net.cpp:122] Setting up Eltwise7
I0930 11:17:10.010913  3537 net.cpp:129] Top shape: 100 16 28 28 (1254400)
I0930 11:17:10.010915  3537 net.cpp:137] Memory required for data: 402349200
I0930 11:17:10.010917  3537 layer_factory.hpp:77] Creating layer elu_conv15
I0930 11:17:10.010922  3537 net.cpp:84] Creating Layer elu_conv15
I0930 11:17:10.010924  3537 net.cpp:406] elu_conv15 <- Eltwise7
I0930 11:17:10.010927  3537 net.cpp:367] elu_conv15 -> Eltwise7 (in-place)
I0930 11:17:10.010931  3537 net.cpp:122] Setting up elu_conv15
I0930 11:17:10.010934  3537 net.cpp:129] Top shape: 100 16 28 28 (1254400)
I0930 11:17:10.010936  3537 net.cpp:137] Memory required for data: 407366800
I0930 11:17:10.010938  3537 layer_factory.hpp:77] Creating layer Eltwise7_elu_conv15_0_split
I0930 11:17:10.010941  3537 net.cpp:84] Creating Layer Eltwise7_elu_conv15_0_split
I0930 11:17:10.010943  3537 net.cpp:406] Eltwise7_elu_conv15_0_split <- Eltwise7
I0930 11:17:10.010946  3537 net.cpp:380] Eltwise7_elu_conv15_0_split -> Eltwise7_elu_conv15_0_split_0
I0930 11:17:10.010951  3537 net.cpp:380] Eltwise7_elu_conv15_0_split -> Eltwise7_elu_conv15_0_split_1
I0930 11:17:10.010972  3537 net.cpp:122] Setting up Eltwise7_elu_conv15_0_split
I0930 11:17:10.010975  3537 net.cpp:129] Top shape: 100 16 28 28 (1254400)
I0930 11:17:10.010977  3537 net.cpp:129] Top shape: 100 16 28 28 (1254400)
I0930 11:17:10.010979  3537 net.cpp:137] Memory required for data: 417402000
I0930 11:17:10.010982  3537 layer_factory.hpp:77] Creating layer Convolution16
I0930 11:17:10.010988  3537 net.cpp:84] Creating Layer Convolution16
I0930 11:17:10.010990  3537 net.cpp:406] Convolution16 <- Eltwise7_elu_conv15_0_split_0
I0930 11:17:10.010994  3537 net.cpp:380] Convolution16 -> Convolution16
I0930 11:17:10.011842  3537 net.cpp:122] Setting up Convolution16
I0930 11:17:10.011850  3537 net.cpp:129] Top shape: 100 16 28 28 (1254400)
I0930 11:17:10.011859  3537 net.cpp:137] Memory required for data: 422419600
I0930 11:17:10.011864  3537 layer_factory.hpp:77] Creating layer BatchNorm16
I0930 11:17:10.011869  3537 net.cpp:84] Creating Layer BatchNorm16
I0930 11:17:10.011873  3537 net.cpp:406] BatchNorm16 <- Convolution16
I0930 11:17:10.011875  3537 net.cpp:367] BatchNorm16 -> Convolution16 (in-place)
I0930 11:17:10.012004  3537 net.cpp:122] Setting up BatchNorm16
I0930 11:17:10.012008  3537 net.cpp:129] Top shape: 100 16 28 28 (1254400)
I0930 11:17:10.012012  3537 net.cpp:137] Memory required for data: 427437200
I0930 11:17:10.012015  3537 layer_factory.hpp:77] Creating layer Scale16
I0930 11:17:10.012019  3537 net.cpp:84] Creating Layer Scale16
I0930 11:17:10.012022  3537 net.cpp:406] Scale16 <- Convolution16
I0930 11:17:10.012027  3537 net.cpp:367] Scale16 -> Convolution16 (in-place)
I0930 11:17:10.012049  3537 layer_factory.hpp:77] Creating layer Scale16
I0930 11:17:10.012123  3537 net.cpp:122] Setting up Scale16
I0930 11:17:10.012127  3537 net.cpp:129] Top shape: 100 16 28 28 (1254400)
I0930 11:17:10.012130  3537 net.cpp:137] Memory required for data: 432454800
I0930 11:17:10.012133  3537 layer_factory.hpp:77] Creating layer elu_conv16
I0930 11:17:10.012136  3537 net.cpp:84] Creating Layer elu_conv16
I0930 11:17:10.012140  3537 net.cpp:406] elu_conv16 <- Convolution16
I0930 11:17:10.012143  3537 net.cpp:367] elu_conv16 -> Convolution16 (in-place)
I0930 11:17:10.012147  3537 net.cpp:122] Setting up elu_conv16
I0930 11:17:10.012151  3537 net.cpp:129] Top shape: 100 16 28 28 (1254400)
I0930 11:17:10.012152  3537 net.cpp:137] Memory required for data: 437472400
I0930 11:17:10.012154  3537 layer_factory.hpp:77] Creating layer Convolution17
I0930 11:17:10.012161  3537 net.cpp:84] Creating Layer Convolution17
I0930 11:17:10.012163  3537 net.cpp:406] Convolution17 <- Convolution16
I0930 11:17:10.012167  3537 net.cpp:380] Convolution17 -> Convolution17
I0930 11:17:10.012706  3537 net.cpp:122] Setting up Convolution17
I0930 11:17:10.012712  3537 net.cpp:129] Top shape: 100 16 28 28 (1254400)
I0930 11:17:10.012715  3537 net.cpp:137] Memory required for data: 442490000
I0930 11:17:10.012719  3537 layer_factory.hpp:77] Creating layer BatchNorm17
I0930 11:17:10.012723  3537 net.cpp:84] Creating Layer BatchNorm17
I0930 11:17:10.012725  3537 net.cpp:406] BatchNorm17 <- Convolution17
I0930 11:17:10.012729  3537 net.cpp:367] BatchNorm17 -> Convolution17 (in-place)
I0930 11:17:10.012856  3537 net.cpp:122] Setting up BatchNorm17
I0930 11:17:10.012859  3537 net.cpp:129] Top shape: 100 16 28 28 (1254400)
I0930 11:17:10.012861  3537 net.cpp:137] Memory required for data: 447507600
I0930 11:17:10.012866  3537 layer_factory.hpp:77] Creating layer Scale17
I0930 11:17:10.012869  3537 net.cpp:84] Creating Layer Scale17
I0930 11:17:10.012872  3537 net.cpp:406] Scale17 <- Convolution17
I0930 11:17:10.012876  3537 net.cpp:367] Scale17 -> Convolution17 (in-place)
I0930 11:17:10.012899  3537 layer_factory.hpp:77] Creating layer Scale17
I0930 11:17:10.012972  3537 net.cpp:122] Setting up Scale17
I0930 11:17:10.012976  3537 net.cpp:129] Top shape: 100 16 28 28 (1254400)
I0930 11:17:10.012979  3537 net.cpp:137] Memory required for data: 452525200
I0930 11:17:10.012982  3537 layer_factory.hpp:77] Creating layer Eltwise8
I0930 11:17:10.012986  3537 net.cpp:84] Creating Layer Eltwise8
I0930 11:17:10.012989  3537 net.cpp:406] Eltwise8 <- Eltwise7_elu_conv15_0_split_1
I0930 11:17:10.012991  3537 net.cpp:406] Eltwise8 <- Convolution17
I0930 11:17:10.012995  3537 net.cpp:380] Eltwise8 -> Eltwise8
I0930 11:17:10.013008  3537 net.cpp:122] Setting up Eltwise8
I0930 11:17:10.013013  3537 net.cpp:129] Top shape: 100 16 28 28 (1254400)
I0930 11:17:10.013015  3537 net.cpp:137] Memory required for data: 457542800
I0930 11:17:10.013017  3537 layer_factory.hpp:77] Creating layer elu_conv17
I0930 11:17:10.013020  3537 net.cpp:84] Creating Layer elu_conv17
I0930 11:17:10.013022  3537 net.cpp:406] elu_conv17 <- Eltwise8
I0930 11:17:10.013025  3537 net.cpp:367] elu_conv17 -> Eltwise8 (in-place)
I0930 11:17:10.013036  3537 net.cpp:122] Setting up elu_conv17
I0930 11:17:10.013038  3537 net.cpp:129] Top shape: 100 16 28 28 (1254400)
I0930 11:17:10.013041  3537 net.cpp:137] Memory required for data: 462560400
I0930 11:17:10.013042  3537 layer_factory.hpp:77] Creating layer Eltwise8_elu_conv17_0_split
I0930 11:17:10.013046  3537 net.cpp:84] Creating Layer Eltwise8_elu_conv17_0_split
I0930 11:17:10.013048  3537 net.cpp:406] Eltwise8_elu_conv17_0_split <- Eltwise8
I0930 11:17:10.013052  3537 net.cpp:380] Eltwise8_elu_conv17_0_split -> Eltwise8_elu_conv17_0_split_0
I0930 11:17:10.013056  3537 net.cpp:380] Eltwise8_elu_conv17_0_split -> Eltwise8_elu_conv17_0_split_1
I0930 11:17:10.013077  3537 net.cpp:122] Setting up Eltwise8_elu_conv17_0_split
I0930 11:17:10.013080  3537 net.cpp:129] Top shape: 100 16 28 28 (1254400)
I0930 11:17:10.013083  3537 net.cpp:129] Top shape: 100 16 28 28 (1254400)
I0930 11:17:10.013085  3537 net.cpp:137] Memory required for data: 472595600
I0930 11:17:10.013087  3537 layer_factory.hpp:77] Creating layer Convolution18
I0930 11:17:10.013094  3537 net.cpp:84] Creating Layer Convolution18
I0930 11:17:10.013097  3537 net.cpp:406] Convolution18 <- Eltwise8_elu_conv17_0_split_0
I0930 11:17:10.013100  3537 net.cpp:380] Convolution18 -> Convolution18
I0930 11:17:10.013947  3537 net.cpp:122] Setting up Convolution18
I0930 11:17:10.013954  3537 net.cpp:129] Top shape: 100 16 28 28 (1254400)
I0930 11:17:10.013957  3537 net.cpp:137] Memory required for data: 477613200
I0930 11:17:10.013962  3537 layer_factory.hpp:77] Creating layer BatchNorm18
I0930 11:17:10.013967  3537 net.cpp:84] Creating Layer BatchNorm18
I0930 11:17:10.013969  3537 net.cpp:406] BatchNorm18 <- Convolution18
I0930 11:17:10.013973  3537 net.cpp:367] BatchNorm18 -> Convolution18 (in-place)
I0930 11:17:10.014101  3537 net.cpp:122] Setting up BatchNorm18
I0930 11:17:10.014106  3537 net.cpp:129] Top shape: 100 16 28 28 (1254400)
I0930 11:17:10.014108  3537 net.cpp:137] Memory required for data: 482630800
I0930 11:17:10.014112  3537 layer_factory.hpp:77] Creating layer Scale18
I0930 11:17:10.014117  3537 net.cpp:84] Creating Layer Scale18
I0930 11:17:10.014119  3537 net.cpp:406] Scale18 <- Convolution18
I0930 11:17:10.014122  3537 net.cpp:367] Scale18 -> Convolution18 (in-place)
I0930 11:17:10.014147  3537 layer_factory.hpp:77] Creating layer Scale18
I0930 11:17:10.014221  3537 net.cpp:122] Setting up Scale18
I0930 11:17:10.014225  3537 net.cpp:129] Top shape: 100 16 28 28 (1254400)
I0930 11:17:10.014227  3537 net.cpp:137] Memory required for data: 487648400
I0930 11:17:10.014231  3537 layer_factory.hpp:77] Creating layer elu_conv18
I0930 11:17:10.014235  3537 net.cpp:84] Creating Layer elu_conv18
I0930 11:17:10.014238  3537 net.cpp:406] elu_conv18 <- Convolution18
I0930 11:17:10.014240  3537 net.cpp:367] elu_conv18 -> Convolution18 (in-place)
I0930 11:17:10.014256  3537 net.cpp:122] Setting up elu_conv18
I0930 11:17:10.014258  3537 net.cpp:129] Top shape: 100 16 28 28 (1254400)
I0930 11:17:10.014261  3537 net.cpp:137] Memory required for data: 492666000
I0930 11:17:10.014262  3537 layer_factory.hpp:77] Creating layer Convolution19
I0930 11:17:10.014279  3537 net.cpp:84] Creating Layer Convolution19
I0930 11:17:10.014281  3537 net.cpp:406] Convolution19 <- Convolution18
I0930 11:17:10.014286  3537 net.cpp:380] Convolution19 -> Convolution19
I0930 11:17:10.015174  3537 net.cpp:122] Setting up Convolution19
I0930 11:17:10.015183  3537 net.cpp:129] Top shape: 100 16 28 28 (1254400)
I0930 11:17:10.015187  3537 net.cpp:137] Memory required for data: 497683600
I0930 11:17:10.015190  3537 layer_factory.hpp:77] Creating layer BatchNorm19
I0930 11:17:10.015195  3537 net.cpp:84] Creating Layer BatchNorm19
I0930 11:17:10.015198  3537 net.cpp:406] BatchNorm19 <- Convolution19
I0930 11:17:10.015202  3537 net.cpp:367] BatchNorm19 -> Convolution19 (in-place)
I0930 11:17:10.015328  3537 net.cpp:122] Setting up BatchNorm19
I0930 11:17:10.015332  3537 net.cpp:129] Top shape: 100 16 28 28 (1254400)
I0930 11:17:10.015334  3537 net.cpp:137] Memory required for data: 502701200
I0930 11:17:10.015355  3537 layer_factory.hpp:77] Creating layer Scale19
I0930 11:17:10.015360  3537 net.cpp:84] Creating Layer Scale19
I0930 11:17:10.015363  3537 net.cpp:406] Scale19 <- Convolution19
I0930 11:17:10.015367  3537 net.cpp:367] Scale19 -> Convolution19 (in-place)
I0930 11:17:10.015393  3537 layer_factory.hpp:77] Creating layer Scale19
I0930 11:17:10.015470  3537 net.cpp:122] Setting up Scale19
I0930 11:17:10.015473  3537 net.cpp:129] Top shape: 100 16 28 28 (1254400)
I0930 11:17:10.015475  3537 net.cpp:137] Memory required for data: 507718800
I0930 11:17:10.015480  3537 layer_factory.hpp:77] Creating layer Eltwise9
I0930 11:17:10.015483  3537 net.cpp:84] Creating Layer Eltwise9
I0930 11:17:10.015486  3537 net.cpp:406] Eltwise9 <- Eltwise8_elu_conv17_0_split_1
I0930 11:17:10.015488  3537 net.cpp:406] Eltwise9 <- Convolution19
I0930 11:17:10.015491  3537 net.cpp:380] Eltwise9 -> Eltwise9
I0930 11:17:10.015506  3537 net.cpp:122] Setting up Eltwise9
I0930 11:17:10.015511  3537 net.cpp:129] Top shape: 100 16 28 28 (1254400)
I0930 11:17:10.015512  3537 net.cpp:137] Memory required for data: 512736400
I0930 11:17:10.015514  3537 layer_factory.hpp:77] Creating layer elu_conv19
I0930 11:17:10.015518  3537 net.cpp:84] Creating Layer elu_conv19
I0930 11:17:10.015521  3537 net.cpp:406] elu_conv19 <- Eltwise9
I0930 11:17:10.015523  3537 net.cpp:367] elu_conv19 -> Eltwise9 (in-place)
I0930 11:17:10.015527  3537 net.cpp:122] Setting up elu_conv19
I0930 11:17:10.015530  3537 net.cpp:129] Top shape: 100 16 28 28 (1254400)
I0930 11:17:10.015532  3537 net.cpp:137] Memory required for data: 517754000
I0930 11:17:10.015534  3537 layer_factory.hpp:77] Creating layer Eltwise9_elu_conv19_0_split
I0930 11:17:10.015537  3537 net.cpp:84] Creating Layer Eltwise9_elu_conv19_0_split
I0930 11:17:10.015540  3537 net.cpp:406] Eltwise9_elu_conv19_0_split <- Eltwise9
I0930 11:17:10.015543  3537 net.cpp:380] Eltwise9_elu_conv19_0_split -> Eltwise9_elu_conv19_0_split_0
I0930 11:17:10.015547  3537 net.cpp:380] Eltwise9_elu_conv19_0_split -> Eltwise9_elu_conv19_0_split_1
I0930 11:17:10.015568  3537 net.cpp:122] Setting up Eltwise9_elu_conv19_0_split
I0930 11:17:10.015571  3537 net.cpp:129] Top shape: 100 16 28 28 (1254400)
I0930 11:17:10.015574  3537 net.cpp:129] Top shape: 100 16 28 28 (1254400)
I0930 11:17:10.015576  3537 net.cpp:137] Memory required for data: 527789200
I0930 11:17:10.015578  3537 layer_factory.hpp:77] Creating layer Convolution20
I0930 11:17:10.015584  3537 net.cpp:84] Creating Layer Convolution20
I0930 11:17:10.015588  3537 net.cpp:406] Convolution20 <- Eltwise9_elu_conv19_0_split_0
I0930 11:17:10.015590  3537 net.cpp:380] Convolution20 -> Convolution20
I0930 11:17:10.016719  3537 net.cpp:122] Setting up Convolution20
I0930 11:17:10.016727  3537 net.cpp:129] Top shape: 100 32 14 14 (627200)
I0930 11:17:10.016731  3537 net.cpp:137] Memory required for data: 530298000
I0930 11:17:10.016736  3537 layer_factory.hpp:77] Creating layer BatchNorm20
I0930 11:17:10.016739  3537 net.cpp:84] Creating Layer BatchNorm20
I0930 11:17:10.016742  3537 net.cpp:406] BatchNorm20 <- Convolution20
I0930 11:17:10.016746  3537 net.cpp:367] BatchNorm20 -> Convolution20 (in-place)
I0930 11:17:10.016881  3537 net.cpp:122] Setting up BatchNorm20
I0930 11:17:10.016886  3537 net.cpp:129] Top shape: 100 32 14 14 (627200)
I0930 11:17:10.016888  3537 net.cpp:137] Memory required for data: 532806800
I0930 11:17:10.016893  3537 layer_factory.hpp:77] Creating layer Scale20
I0930 11:17:10.016897  3537 net.cpp:84] Creating Layer Scale20
I0930 11:17:10.016899  3537 net.cpp:406] Scale20 <- Convolution20
I0930 11:17:10.016903  3537 net.cpp:367] Scale20 -> Convolution20 (in-place)
I0930 11:17:10.016927  3537 layer_factory.hpp:77] Creating layer Scale20
I0930 11:17:10.016999  3537 net.cpp:122] Setting up Scale20
I0930 11:17:10.017004  3537 net.cpp:129] Top shape: 100 32 14 14 (627200)
I0930 11:17:10.017005  3537 net.cpp:137] Memory required for data: 535315600
I0930 11:17:10.017009  3537 layer_factory.hpp:77] Creating layer Convolution21
I0930 11:17:10.017021  3537 net.cpp:84] Creating Layer Convolution21
I0930 11:17:10.017024  3537 net.cpp:406] Convolution21 <- Eltwise9_elu_conv19_0_split_1
I0930 11:17:10.017029  3537 net.cpp:380] Convolution21 -> Convolution21
I0930 11:17:10.019111  3537 net.cpp:122] Setting up Convolution21
I0930 11:17:10.019132  3537 net.cpp:129] Top shape: 100 32 14 14 (627200)
I0930 11:17:10.019135  3537 net.cpp:137] Memory required for data: 537824400
I0930 11:17:10.019140  3537 layer_factory.hpp:77] Creating layer BatchNorm21
I0930 11:17:10.019145  3537 net.cpp:84] Creating Layer BatchNorm21
I0930 11:17:10.019157  3537 net.cpp:406] BatchNorm21 <- Convolution21
I0930 11:17:10.019161  3537 net.cpp:367] BatchNorm21 -> Convolution21 (in-place)
I0930 11:17:10.019297  3537 net.cpp:122] Setting up BatchNorm21
I0930 11:17:10.019302  3537 net.cpp:129] Top shape: 100 32 14 14 (627200)
I0930 11:17:10.019304  3537 net.cpp:137] Memory required for data: 540333200
I0930 11:17:10.019309  3537 layer_factory.hpp:77] Creating layer Scale21
I0930 11:17:10.019314  3537 net.cpp:84] Creating Layer Scale21
I0930 11:17:10.019315  3537 net.cpp:406] Scale21 <- Convolution21
I0930 11:17:10.019320  3537 net.cpp:367] Scale21 -> Convolution21 (in-place)
I0930 11:17:10.019345  3537 layer_factory.hpp:77] Creating layer Scale21
I0930 11:17:10.019423  3537 net.cpp:122] Setting up Scale21
I0930 11:17:10.019426  3537 net.cpp:129] Top shape: 100 32 14 14 (627200)
I0930 11:17:10.019428  3537 net.cpp:137] Memory required for data: 542842000
I0930 11:17:10.019433  3537 layer_factory.hpp:77] Creating layer elu_conv20
I0930 11:17:10.019436  3537 net.cpp:84] Creating Layer elu_conv20
I0930 11:17:10.019439  3537 net.cpp:406] elu_conv20 <- Convolution21
I0930 11:17:10.019443  3537 net.cpp:367] elu_conv20 -> Convolution21 (in-place)
I0930 11:17:10.019448  3537 net.cpp:122] Setting up elu_conv20
I0930 11:17:10.019450  3537 net.cpp:129] Top shape: 100 32 14 14 (627200)
I0930 11:17:10.019453  3537 net.cpp:137] Memory required for data: 545350800
I0930 11:17:10.019454  3537 layer_factory.hpp:77] Creating layer Convolution22
I0930 11:17:10.019461  3537 net.cpp:84] Creating Layer Convolution22
I0930 11:17:10.019464  3537 net.cpp:406] Convolution22 <- Convolution21
I0930 11:17:10.019467  3537 net.cpp:380] Convolution22 -> Convolution22
I0930 11:17:10.020562  3537 net.cpp:122] Setting up Convolution22
I0930 11:17:10.020582  3537 net.cpp:129] Top shape: 100 32 14 14 (627200)
I0930 11:17:10.020586  3537 net.cpp:137] Memory required for data: 547859600
I0930 11:17:10.020591  3537 layer_factory.hpp:77] Creating layer BatchNorm22
I0930 11:17:10.020596  3537 net.cpp:84] Creating Layer BatchNorm22
I0930 11:17:10.020598  3537 net.cpp:406] BatchNorm22 <- Convolution22
I0930 11:17:10.020603  3537 net.cpp:367] BatchNorm22 -> Convolution22 (in-place)
I0930 11:17:10.020740  3537 net.cpp:122] Setting up BatchNorm22
I0930 11:17:10.020745  3537 net.cpp:129] Top shape: 100 32 14 14 (627200)
I0930 11:17:10.020746  3537 net.cpp:137] Memory required for data: 550368400
I0930 11:17:10.020751  3537 layer_factory.hpp:77] Creating layer Scale22
I0930 11:17:10.020757  3537 net.cpp:84] Creating Layer Scale22
I0930 11:17:10.020759  3537 net.cpp:406] Scale22 <- Convolution22
I0930 11:17:10.020763  3537 net.cpp:367] Scale22 -> Convolution22 (in-place)
I0930 11:17:10.020790  3537 layer_factory.hpp:77] Creating layer Scale22
I0930 11:17:10.020886  3537 net.cpp:122] Setting up Scale22
I0930 11:17:10.020891  3537 net.cpp:129] Top shape: 100 32 14 14 (627200)
I0930 11:17:10.020894  3537 net.cpp:137] Memory required for data: 552877200
I0930 11:17:10.020897  3537 layer_factory.hpp:77] Creating layer Eltwise10
I0930 11:17:10.020903  3537 net.cpp:84] Creating Layer Eltwise10
I0930 11:17:10.020905  3537 net.cpp:406] Eltwise10 <- Convolution20
I0930 11:17:10.020908  3537 net.cpp:406] Eltwise10 <- Convolution22
I0930 11:17:10.020912  3537 net.cpp:380] Eltwise10 -> Eltwise10
I0930 11:17:10.020928  3537 net.cpp:122] Setting up Eltwise10
I0930 11:17:10.020932  3537 net.cpp:129] Top shape: 100 32 14 14 (627200)
I0930 11:17:10.020942  3537 net.cpp:137] Memory required for data: 555386000
I0930 11:17:10.020944  3537 layer_factory.hpp:77] Creating layer elu_conv21
I0930 11:17:10.020948  3537 net.cpp:84] Creating Layer elu_conv21
I0930 11:17:10.020951  3537 net.cpp:406] elu_conv21 <- Eltwise10
I0930 11:17:10.020954  3537 net.cpp:367] elu_conv21 -> Eltwise10 (in-place)
I0930 11:17:10.020959  3537 net.cpp:122] Setting up elu_conv21
I0930 11:17:10.020962  3537 net.cpp:129] Top shape: 100 32 14 14 (627200)
I0930 11:17:10.020964  3537 net.cpp:137] Memory required for data: 557894800
I0930 11:17:10.020967  3537 layer_factory.hpp:77] Creating layer Eltwise10_elu_conv21_0_split
I0930 11:17:10.020970  3537 net.cpp:84] Creating Layer Eltwise10_elu_conv21_0_split
I0930 11:17:10.020972  3537 net.cpp:406] Eltwise10_elu_conv21_0_split <- Eltwise10
I0930 11:17:10.020975  3537 net.cpp:380] Eltwise10_elu_conv21_0_split -> Eltwise10_elu_conv21_0_split_0
I0930 11:17:10.020979  3537 net.cpp:380] Eltwise10_elu_conv21_0_split -> Eltwise10_elu_conv21_0_split_1
I0930 11:17:10.021004  3537 net.cpp:122] Setting up Eltwise10_elu_conv21_0_split
I0930 11:17:10.021008  3537 net.cpp:129] Top shape: 100 32 14 14 (627200)
I0930 11:17:10.021011  3537 net.cpp:129] Top shape: 100 32 14 14 (627200)
I0930 11:17:10.021013  3537 net.cpp:137] Memory required for data: 562912400
I0930 11:17:10.021015  3537 layer_factory.hpp:77] Creating layer Convolution23
I0930 11:17:10.021021  3537 net.cpp:84] Creating Layer Convolution23
I0930 11:17:10.021024  3537 net.cpp:406] Convolution23 <- Eltwise10_elu_conv21_0_split_0
I0930 11:17:10.021029  3537 net.cpp:380] Convolution23 -> Convolution23
I0930 11:17:10.022457  3537 net.cpp:122] Setting up Convolution23
I0930 11:17:10.022465  3537 net.cpp:129] Top shape: 100 32 14 14 (627200)
I0930 11:17:10.022469  3537 net.cpp:137] Memory required for data: 565421200
I0930 11:17:10.022474  3537 layer_factory.hpp:77] Creating layer BatchNorm23
I0930 11:17:10.022480  3537 net.cpp:84] Creating Layer BatchNorm23
I0930 11:17:10.022481  3537 net.cpp:406] BatchNorm23 <- Convolution23
I0930 11:17:10.022485  3537 net.cpp:367] BatchNorm23 -> Convolution23 (in-place)
I0930 11:17:10.022656  3537 net.cpp:122] Setting up BatchNorm23
I0930 11:17:10.022662  3537 net.cpp:129] Top shape: 100 32 14 14 (627200)
I0930 11:17:10.022665  3537 net.cpp:137] Memory required for data: 567930000
I0930 11:17:10.022670  3537 layer_factory.hpp:77] Creating layer Scale23
I0930 11:17:10.022675  3537 net.cpp:84] Creating Layer Scale23
I0930 11:17:10.022676  3537 net.cpp:406] Scale23 <- Convolution23
I0930 11:17:10.022680  3537 net.cpp:367] Scale23 -> Convolution23 (in-place)
I0930 11:17:10.022714  3537 layer_factory.hpp:77] Creating layer Scale23
I0930 11:17:10.022789  3537 net.cpp:122] Setting up Scale23
I0930 11:17:10.022792  3537 net.cpp:129] Top shape: 100 32 14 14 (627200)
I0930 11:17:10.022794  3537 net.cpp:137] Memory required for data: 570438800
I0930 11:17:10.022799  3537 layer_factory.hpp:77] Creating layer elu_conv22
I0930 11:17:10.022802  3537 net.cpp:84] Creating Layer elu_conv22
I0930 11:17:10.022804  3537 net.cpp:406] elu_conv22 <- Convolution23
I0930 11:17:10.022809  3537 net.cpp:367] elu_conv22 -> Convolution23 (in-place)
I0930 11:17:10.022812  3537 net.cpp:122] Setting up elu_conv22
I0930 11:17:10.022815  3537 net.cpp:129] Top shape: 100 32 14 14 (627200)
I0930 11:17:10.022817  3537 net.cpp:137] Memory required for data: 572947600
I0930 11:17:10.022819  3537 layer_factory.hpp:77] Creating layer Convolution24
I0930 11:17:10.022827  3537 net.cpp:84] Creating Layer Convolution24
I0930 11:17:10.022830  3537 net.cpp:406] Convolution24 <- Convolution23
I0930 11:17:10.022833  3537 net.cpp:380] Convolution24 -> Convolution24
I0930 11:17:10.023965  3537 net.cpp:122] Setting up Convolution24
I0930 11:17:10.023973  3537 net.cpp:129] Top shape: 100 32 14 14 (627200)
I0930 11:17:10.023977  3537 net.cpp:137] Memory required for data: 575456400
I0930 11:17:10.023980  3537 layer_factory.hpp:77] Creating layer BatchNorm24
I0930 11:17:10.023985  3537 net.cpp:84] Creating Layer BatchNorm24
I0930 11:17:10.023995  3537 net.cpp:406] BatchNorm24 <- Convolution24
I0930 11:17:10.024001  3537 net.cpp:367] BatchNorm24 -> Convolution24 (in-place)
I0930 11:17:10.024132  3537 net.cpp:122] Setting up BatchNorm24
I0930 11:17:10.024137  3537 net.cpp:129] Top shape: 100 32 14 14 (627200)
I0930 11:17:10.024138  3537 net.cpp:137] Memory required for data: 577965200
I0930 11:17:10.024142  3537 layer_factory.hpp:77] Creating layer Scale24
I0930 11:17:10.024147  3537 net.cpp:84] Creating Layer Scale24
I0930 11:17:10.024149  3537 net.cpp:406] Scale24 <- Convolution24
I0930 11:17:10.024153  3537 net.cpp:367] Scale24 -> Convolution24 (in-place)
I0930 11:17:10.024178  3537 layer_factory.hpp:77] Creating layer Scale24
I0930 11:17:10.024251  3537 net.cpp:122] Setting up Scale24
I0930 11:17:10.024255  3537 net.cpp:129] Top shape: 100 32 14 14 (627200)
I0930 11:17:10.024257  3537 net.cpp:137] Memory required for data: 580474000
I0930 11:17:10.024261  3537 layer_factory.hpp:77] Creating layer Eltwise11
I0930 11:17:10.024266  3537 net.cpp:84] Creating Layer Eltwise11
I0930 11:17:10.024267  3537 net.cpp:406] Eltwise11 <- Eltwise10_elu_conv21_0_split_1
I0930 11:17:10.024271  3537 net.cpp:406] Eltwise11 <- Convolution24
I0930 11:17:10.024276  3537 net.cpp:380] Eltwise11 -> Eltwise11
I0930 11:17:10.024291  3537 net.cpp:122] Setting up Eltwise11
I0930 11:17:10.024296  3537 net.cpp:129] Top shape: 100 32 14 14 (627200)
I0930 11:17:10.024297  3537 net.cpp:137] Memory required for data: 582982800
I0930 11:17:10.024299  3537 layer_factory.hpp:77] Creating layer elu_conv23
I0930 11:17:10.024302  3537 net.cpp:84] Creating Layer elu_conv23
I0930 11:17:10.024305  3537 net.cpp:406] elu_conv23 <- Eltwise11
I0930 11:17:10.024307  3537 net.cpp:367] elu_conv23 -> Eltwise11 (in-place)
I0930 11:17:10.024312  3537 net.cpp:122] Setting up elu_conv23
I0930 11:17:10.024314  3537 net.cpp:129] Top shape: 100 32 14 14 (627200)
I0930 11:17:10.024317  3537 net.cpp:137] Memory required for data: 585491600
I0930 11:17:10.024318  3537 layer_factory.hpp:77] Creating layer Eltwise11_elu_conv23_0_split
I0930 11:17:10.024322  3537 net.cpp:84] Creating Layer Eltwise11_elu_conv23_0_split
I0930 11:17:10.024324  3537 net.cpp:406] Eltwise11_elu_conv23_0_split <- Eltwise11
I0930 11:17:10.024328  3537 net.cpp:380] Eltwise11_elu_conv23_0_split -> Eltwise11_elu_conv23_0_split_0
I0930 11:17:10.024333  3537 net.cpp:380] Eltwise11_elu_conv23_0_split -> Eltwise11_elu_conv23_0_split_1
I0930 11:17:10.024354  3537 net.cpp:122] Setting up Eltwise11_elu_conv23_0_split
I0930 11:17:10.024358  3537 net.cpp:129] Top shape: 100 32 14 14 (627200)
I0930 11:17:10.024360  3537 net.cpp:129] Top shape: 100 32 14 14 (627200)
I0930 11:17:10.024363  3537 net.cpp:137] Memory required for data: 590509200
I0930 11:17:10.024365  3537 layer_factory.hpp:77] Creating layer Convolution25
I0930 11:17:10.024370  3537 net.cpp:84] Creating Layer Convolution25
I0930 11:17:10.024374  3537 net.cpp:406] Convolution25 <- Eltwise11_elu_conv23_0_split_0
I0930 11:17:10.024377  3537 net.cpp:380] Convolution25 -> Convolution25
I0930 11:17:10.025388  3537 net.cpp:122] Setting up Convolution25
I0930 11:17:10.025398  3537 net.cpp:129] Top shape: 100 32 14 14 (627200)
I0930 11:17:10.025399  3537 net.cpp:137] Memory required for data: 593018000
I0930 11:17:10.025404  3537 layer_factory.hpp:77] Creating layer BatchNorm25
I0930 11:17:10.025409  3537 net.cpp:84] Creating Layer BatchNorm25
I0930 11:17:10.025413  3537 net.cpp:406] BatchNorm25 <- Convolution25
I0930 11:17:10.025416  3537 net.cpp:367] BatchNorm25 -> Convolution25 (in-place)
I0930 11:17:10.025547  3537 net.cpp:122] Setting up BatchNorm25
I0930 11:17:10.025550  3537 net.cpp:129] Top shape: 100 32 14 14 (627200)
I0930 11:17:10.025552  3537 net.cpp:137] Memory required for data: 595526800
I0930 11:17:10.025557  3537 layer_factory.hpp:77] Creating layer Scale25
I0930 11:17:10.025562  3537 net.cpp:84] Creating Layer Scale25
I0930 11:17:10.025564  3537 net.cpp:406] Scale25 <- Convolution25
I0930 11:17:10.025568  3537 net.cpp:367] Scale25 -> Convolution25 (in-place)
I0930 11:17:10.025600  3537 layer_factory.hpp:77] Creating layer Scale25
I0930 11:17:10.025674  3537 net.cpp:122] Setting up Scale25
I0930 11:17:10.025678  3537 net.cpp:129] Top shape: 100 32 14 14 (627200)
I0930 11:17:10.025681  3537 net.cpp:137] Memory required for data: 598035600
I0930 11:17:10.025684  3537 layer_factory.hpp:77] Creating layer elu_conv24
I0930 11:17:10.025688  3537 net.cpp:84] Creating Layer elu_conv24
I0930 11:17:10.025691  3537 net.cpp:406] elu_conv24 <- Convolution25
I0930 11:17:10.025694  3537 net.cpp:367] elu_conv24 -> Convolution25 (in-place)
I0930 11:17:10.025698  3537 net.cpp:122] Setting up elu_conv24
I0930 11:17:10.025701  3537 net.cpp:129] Top shape: 100 32 14 14 (627200)
I0930 11:17:10.025703  3537 net.cpp:137] Memory required for data: 600544400
I0930 11:17:10.025705  3537 layer_factory.hpp:77] Creating layer Convolution26
I0930 11:17:10.025713  3537 net.cpp:84] Creating Layer Convolution26
I0930 11:17:10.025715  3537 net.cpp:406] Convolution26 <- Convolution25
I0930 11:17:10.025719  3537 net.cpp:380] Convolution26 -> Convolution26
I0930 11:17:10.026764  3537 net.cpp:122] Setting up Convolution26
I0930 11:17:10.026772  3537 net.cpp:129] Top shape: 100 32 14 14 (627200)
I0930 11:17:10.026775  3537 net.cpp:137] Memory required for data: 603053200
I0930 11:17:10.026779  3537 layer_factory.hpp:77] Creating layer BatchNorm26
I0930 11:17:10.026784  3537 net.cpp:84] Creating Layer BatchNorm26
I0930 11:17:10.026787  3537 net.cpp:406] BatchNorm26 <- Convolution26
I0930 11:17:10.026790  3537 net.cpp:367] BatchNorm26 -> Convolution26 (in-place)
I0930 11:17:10.026924  3537 net.cpp:122] Setting up BatchNorm26
I0930 11:17:10.026929  3537 net.cpp:129] Top shape: 100 32 14 14 (627200)
I0930 11:17:10.026932  3537 net.cpp:137] Memory required for data: 605562000
I0930 11:17:10.026935  3537 layer_factory.hpp:77] Creating layer Scale26
I0930 11:17:10.026940  3537 net.cpp:84] Creating Layer Scale26
I0930 11:17:10.026942  3537 net.cpp:406] Scale26 <- Convolution26
I0930 11:17:10.026947  3537 net.cpp:367] Scale26 -> Convolution26 (in-place)
I0930 11:17:10.026971  3537 layer_factory.hpp:77] Creating layer Scale26
I0930 11:17:10.027046  3537 net.cpp:122] Setting up Scale26
I0930 11:17:10.027050  3537 net.cpp:129] Top shape: 100 32 14 14 (627200)
I0930 11:17:10.027052  3537 net.cpp:137] Memory required for data: 608070800
I0930 11:17:10.027055  3537 layer_factory.hpp:77] Creating layer Eltwise12
I0930 11:17:10.027060  3537 net.cpp:84] Creating Layer Eltwise12
I0930 11:17:10.027062  3537 net.cpp:406] Eltwise12 <- Eltwise11_elu_conv23_0_split_1
I0930 11:17:10.027065  3537 net.cpp:406] Eltwise12 <- Convolution26
I0930 11:17:10.027070  3537 net.cpp:380] Eltwise12 -> Eltwise12
I0930 11:17:10.027084  3537 net.cpp:122] Setting up Eltwise12
I0930 11:17:10.027088  3537 net.cpp:129] Top shape: 100 32 14 14 (627200)
I0930 11:17:10.027091  3537 net.cpp:137] Memory required for data: 610579600
I0930 11:17:10.027092  3537 layer_factory.hpp:77] Creating layer elu_conv25
I0930 11:17:10.027096  3537 net.cpp:84] Creating Layer elu_conv25
I0930 11:17:10.027098  3537 net.cpp:406] elu_conv25 <- Eltwise12
I0930 11:17:10.027101  3537 net.cpp:367] elu_conv25 -> Eltwise12 (in-place)
I0930 11:17:10.027104  3537 net.cpp:122] Setting up elu_conv25
I0930 11:17:10.027107  3537 net.cpp:129] Top shape: 100 32 14 14 (627200)
I0930 11:17:10.027109  3537 net.cpp:137] Memory required for data: 613088400
I0930 11:17:10.027112  3537 layer_factory.hpp:77] Creating layer Eltwise12_elu_conv25_0_split
I0930 11:17:10.027123  3537 net.cpp:84] Creating Layer Eltwise12_elu_conv25_0_split
I0930 11:17:10.027125  3537 net.cpp:406] Eltwise12_elu_conv25_0_split <- Eltwise12
I0930 11:17:10.027129  3537 net.cpp:380] Eltwise12_elu_conv25_0_split -> Eltwise12_elu_conv25_0_split_0
I0930 11:17:10.027137  3537 net.cpp:380] Eltwise12_elu_conv25_0_split -> Eltwise12_elu_conv25_0_split_1
I0930 11:17:10.027160  3537 net.cpp:122] Setting up Eltwise12_elu_conv25_0_split
I0930 11:17:10.027164  3537 net.cpp:129] Top shape: 100 32 14 14 (627200)
I0930 11:17:10.027168  3537 net.cpp:129] Top shape: 100 32 14 14 (627200)
I0930 11:17:10.027176  3537 net.cpp:137] Memory required for data: 618106000
I0930 11:17:10.027179  3537 layer_factory.hpp:77] Creating layer Convolution27
I0930 11:17:10.027186  3537 net.cpp:84] Creating Layer Convolution27
I0930 11:17:10.027189  3537 net.cpp:406] Convolution27 <- Eltwise12_elu_conv25_0_split_0
I0930 11:17:10.027194  3537 net.cpp:380] Convolution27 -> Convolution27
I0930 11:17:10.027894  3537 net.cpp:122] Setting up Convolution27
I0930 11:17:10.027900  3537 net.cpp:129] Top shape: 100 32 14 14 (627200)
I0930 11:17:10.027902  3537 net.cpp:137] Memory required for data: 620614800
I0930 11:17:10.027907  3537 layer_factory.hpp:77] Creating layer BatchNorm27
I0930 11:17:10.027912  3537 net.cpp:84] Creating Layer BatchNorm27
I0930 11:17:10.027915  3537 net.cpp:406] BatchNorm27 <- Convolution27
I0930 11:17:10.027918  3537 net.cpp:367] BatchNorm27 -> Convolution27 (in-place)
I0930 11:17:10.028048  3537 net.cpp:122] Setting up BatchNorm27
I0930 11:17:10.028053  3537 net.cpp:129] Top shape: 100 32 14 14 (627200)
I0930 11:17:10.028054  3537 net.cpp:137] Memory required for data: 623123600
I0930 11:17:10.028059  3537 layer_factory.hpp:77] Creating layer Scale27
I0930 11:17:10.028064  3537 net.cpp:84] Creating Layer Scale27
I0930 11:17:10.028066  3537 net.cpp:406] Scale27 <- Convolution27
I0930 11:17:10.028069  3537 net.cpp:367] Scale27 -> Convolution27 (in-place)
I0930 11:17:10.028095  3537 layer_factory.hpp:77] Creating layer Scale27
I0930 11:17:10.028170  3537 net.cpp:122] Setting up Scale27
I0930 11:17:10.028174  3537 net.cpp:129] Top shape: 100 32 14 14 (627200)
I0930 11:17:10.028177  3537 net.cpp:137] Memory required for data: 625632400
I0930 11:17:10.028180  3537 layer_factory.hpp:77] Creating layer elu_conv26
I0930 11:17:10.028184  3537 net.cpp:84] Creating Layer elu_conv26
I0930 11:17:10.028187  3537 net.cpp:406] elu_conv26 <- Convolution27
I0930 11:17:10.028190  3537 net.cpp:367] elu_conv26 -> Convolution27 (in-place)
I0930 11:17:10.028193  3537 net.cpp:122] Setting up elu_conv26
I0930 11:17:10.028197  3537 net.cpp:129] Top shape: 100 32 14 14 (627200)
I0930 11:17:10.028199  3537 net.cpp:137] Memory required for data: 628141200
I0930 11:17:10.028201  3537 layer_factory.hpp:77] Creating layer Convolution28
I0930 11:17:10.028208  3537 net.cpp:84] Creating Layer Convolution28
I0930 11:17:10.028209  3537 net.cpp:406] Convolution28 <- Convolution27
I0930 11:17:10.028215  3537 net.cpp:380] Convolution28 -> Convolution28
I0930 11:17:10.029264  3537 net.cpp:122] Setting up Convolution28
I0930 11:17:10.029273  3537 net.cpp:129] Top shape: 100 32 14 14 (627200)
I0930 11:17:10.029275  3537 net.cpp:137] Memory required for data: 630650000
I0930 11:17:10.029280  3537 layer_factory.hpp:77] Creating layer BatchNorm28
I0930 11:17:10.029284  3537 net.cpp:84] Creating Layer BatchNorm28
I0930 11:17:10.029287  3537 net.cpp:406] BatchNorm28 <- Convolution28
I0930 11:17:10.029291  3537 net.cpp:367] BatchNorm28 -> Convolution28 (in-place)
I0930 11:17:10.029422  3537 net.cpp:122] Setting up BatchNorm28
I0930 11:17:10.029425  3537 net.cpp:129] Top shape: 100 32 14 14 (627200)
I0930 11:17:10.029428  3537 net.cpp:137] Memory required for data: 633158800
I0930 11:17:10.029433  3537 layer_factory.hpp:77] Creating layer Scale28
I0930 11:17:10.029436  3537 net.cpp:84] Creating Layer Scale28
I0930 11:17:10.029439  3537 net.cpp:406] Scale28 <- Convolution28
I0930 11:17:10.029443  3537 net.cpp:367] Scale28 -> Convolution28 (in-place)
I0930 11:17:10.029469  3537 layer_factory.hpp:77] Creating layer Scale28
I0930 11:17:10.029542  3537 net.cpp:122] Setting up Scale28
I0930 11:17:10.029546  3537 net.cpp:129] Top shape: 100 32 14 14 (627200)
I0930 11:17:10.029548  3537 net.cpp:137] Memory required for data: 635667600
I0930 11:17:10.029552  3537 layer_factory.hpp:77] Creating layer Eltwise13
I0930 11:17:10.029556  3537 net.cpp:84] Creating Layer Eltwise13
I0930 11:17:10.029559  3537 net.cpp:406] Eltwise13 <- Eltwise12_elu_conv25_0_split_1
I0930 11:17:10.029562  3537 net.cpp:406] Eltwise13 <- Convolution28
I0930 11:17:10.029572  3537 net.cpp:380] Eltwise13 -> Eltwise13
I0930 11:17:10.029588  3537 net.cpp:122] Setting up Eltwise13
I0930 11:17:10.029592  3537 net.cpp:129] Top shape: 100 32 14 14 (627200)
I0930 11:17:10.029594  3537 net.cpp:137] Memory required for data: 638176400
I0930 11:17:10.029597  3537 layer_factory.hpp:77] Creating layer elu_conv27
I0930 11:17:10.029600  3537 net.cpp:84] Creating Layer elu_conv27
I0930 11:17:10.029603  3537 net.cpp:406] elu_conv27 <- Eltwise13
I0930 11:17:10.029606  3537 net.cpp:367] elu_conv27 -> Eltwise13 (in-place)
I0930 11:17:10.029609  3537 net.cpp:122] Setting up elu_conv27
I0930 11:17:10.029613  3537 net.cpp:129] Top shape: 100 32 14 14 (627200)
I0930 11:17:10.029614  3537 net.cpp:137] Memory required for data: 640685200
I0930 11:17:10.029618  3537 layer_factory.hpp:77] Creating layer Eltwise13_elu_conv27_0_split
I0930 11:17:10.029620  3537 net.cpp:84] Creating Layer Eltwise13_elu_conv27_0_split
I0930 11:17:10.029623  3537 net.cpp:406] Eltwise13_elu_conv27_0_split <- Eltwise13
I0930 11:17:10.029625  3537 net.cpp:380] Eltwise13_elu_conv27_0_split -> Eltwise13_elu_conv27_0_split_0
I0930 11:17:10.029629  3537 net.cpp:380] Eltwise13_elu_conv27_0_split -> Eltwise13_elu_conv27_0_split_1
I0930 11:17:10.029651  3537 net.cpp:122] Setting up Eltwise13_elu_conv27_0_split
I0930 11:17:10.029655  3537 net.cpp:129] Top shape: 100 32 14 14 (627200)
I0930 11:17:10.029659  3537 net.cpp:129] Top shape: 100 32 14 14 (627200)
I0930 11:17:10.029660  3537 net.cpp:137] Memory required for data: 645702800
I0930 11:17:10.029662  3537 layer_factory.hpp:77] Creating layer Convolution29
I0930 11:17:10.029670  3537 net.cpp:84] Creating Layer Convolution29
I0930 11:17:10.029671  3537 net.cpp:406] Convolution29 <- Eltwise13_elu_conv27_0_split_0
I0930 11:17:10.029675  3537 net.cpp:380] Convolution29 -> Convolution29
I0930 11:17:10.030716  3537 net.cpp:122] Setting up Convolution29
I0930 11:17:10.030725  3537 net.cpp:129] Top shape: 100 32 14 14 (627200)
I0930 11:17:10.030727  3537 net.cpp:137] Memory required for data: 648211600
I0930 11:17:10.030732  3537 layer_factory.hpp:77] Creating layer BatchNorm29
I0930 11:17:10.030737  3537 net.cpp:84] Creating Layer BatchNorm29
I0930 11:17:10.030740  3537 net.cpp:406] BatchNorm29 <- Convolution29
I0930 11:17:10.030745  3537 net.cpp:367] BatchNorm29 -> Convolution29 (in-place)
I0930 11:17:10.030879  3537 net.cpp:122] Setting up BatchNorm29
I0930 11:17:10.030882  3537 net.cpp:129] Top shape: 100 32 14 14 (627200)
I0930 11:17:10.030884  3537 net.cpp:137] Memory required for data: 650720400
I0930 11:17:10.030889  3537 layer_factory.hpp:77] Creating layer Scale29
I0930 11:17:10.030894  3537 net.cpp:84] Creating Layer Scale29
I0930 11:17:10.030896  3537 net.cpp:406] Scale29 <- Convolution29
I0930 11:17:10.030900  3537 net.cpp:367] Scale29 -> Convolution29 (in-place)
I0930 11:17:10.030925  3537 layer_factory.hpp:77] Creating layer Scale29
I0930 11:17:10.031002  3537 net.cpp:122] Setting up Scale29
I0930 11:17:10.031006  3537 net.cpp:129] Top shape: 100 32 14 14 (627200)
I0930 11:17:10.031008  3537 net.cpp:137] Memory required for data: 653229200
I0930 11:17:10.031013  3537 layer_factory.hpp:77] Creating layer elu_conv28
I0930 11:17:10.031016  3537 net.cpp:84] Creating Layer elu_conv28
I0930 11:17:10.031018  3537 net.cpp:406] elu_conv28 <- Convolution29
I0930 11:17:10.031021  3537 net.cpp:367] elu_conv28 -> Convolution29 (in-place)
I0930 11:17:10.031025  3537 net.cpp:122] Setting up elu_conv28
I0930 11:17:10.031028  3537 net.cpp:129] Top shape: 100 32 14 14 (627200)
I0930 11:17:10.031030  3537 net.cpp:137] Memory required for data: 655738000
I0930 11:17:10.031033  3537 layer_factory.hpp:77] Creating layer Convolution30
I0930 11:17:10.031039  3537 net.cpp:84] Creating Layer Convolution30
I0930 11:17:10.031041  3537 net.cpp:406] Convolution30 <- Convolution29
I0930 11:17:10.031045  3537 net.cpp:380] Convolution30 -> Convolution30
I0930 11:17:10.032059  3537 net.cpp:122] Setting up Convolution30
I0930 11:17:10.032068  3537 net.cpp:129] Top shape: 100 32 14 14 (627200)
I0930 11:17:10.032070  3537 net.cpp:137] Memory required for data: 658246800
I0930 11:17:10.032081  3537 layer_factory.hpp:77] Creating layer BatchNorm30
I0930 11:17:10.032088  3537 net.cpp:84] Creating Layer BatchNorm30
I0930 11:17:10.032090  3537 net.cpp:406] BatchNorm30 <- Convolution30
I0930 11:17:10.032094  3537 net.cpp:367] BatchNorm30 -> Convolution30 (in-place)
I0930 11:17:10.032227  3537 net.cpp:122] Setting up BatchNorm30
I0930 11:17:10.032232  3537 net.cpp:129] Top shape: 100 32 14 14 (627200)
I0930 11:17:10.032234  3537 net.cpp:137] Memory required for data: 660755600
I0930 11:17:10.032239  3537 layer_factory.hpp:77] Creating layer Scale30
I0930 11:17:10.032243  3537 net.cpp:84] Creating Layer Scale30
I0930 11:17:10.032245  3537 net.cpp:406] Scale30 <- Convolution30
I0930 11:17:10.032248  3537 net.cpp:367] Scale30 -> Convolution30 (in-place)
I0930 11:17:10.032275  3537 layer_factory.hpp:77] Creating layer Scale30
I0930 11:17:10.032351  3537 net.cpp:122] Setting up Scale30
I0930 11:17:10.032356  3537 net.cpp:129] Top shape: 100 32 14 14 (627200)
I0930 11:17:10.032358  3537 net.cpp:137] Memory required for data: 663264400
I0930 11:17:10.032361  3537 layer_factory.hpp:77] Creating layer Eltwise14
I0930 11:17:10.032367  3537 net.cpp:84] Creating Layer Eltwise14
I0930 11:17:10.032371  3537 net.cpp:406] Eltwise14 <- Eltwise13_elu_conv27_0_split_1
I0930 11:17:10.032372  3537 net.cpp:406] Eltwise14 <- Convolution30
I0930 11:17:10.032377  3537 net.cpp:380] Eltwise14 -> Eltwise14
I0930 11:17:10.032392  3537 net.cpp:122] Setting up Eltwise14
I0930 11:17:10.032395  3537 net.cpp:129] Top shape: 100 32 14 14 (627200)
I0930 11:17:10.032397  3537 net.cpp:137] Memory required for data: 665773200
I0930 11:17:10.032400  3537 layer_factory.hpp:77] Creating layer elu_conv29
I0930 11:17:10.032403  3537 net.cpp:84] Creating Layer elu_conv29
I0930 11:17:10.032407  3537 net.cpp:406] elu_conv29 <- Eltwise14
I0930 11:17:10.032409  3537 net.cpp:367] elu_conv29 -> Eltwise14 (in-place)
I0930 11:17:10.032413  3537 net.cpp:122] Setting up elu_conv29
I0930 11:17:10.032416  3537 net.cpp:129] Top shape: 100 32 14 14 (627200)
I0930 11:17:10.032418  3537 net.cpp:137] Memory required for data: 668282000
I0930 11:17:10.032420  3537 layer_factory.hpp:77] Creating layer Eltwise14_elu_conv29_0_split
I0930 11:17:10.032423  3537 net.cpp:84] Creating Layer Eltwise14_elu_conv29_0_split
I0930 11:17:10.032425  3537 net.cpp:406] Eltwise14_elu_conv29_0_split <- Eltwise14
I0930 11:17:10.032428  3537 net.cpp:380] Eltwise14_elu_conv29_0_split -> Eltwise14_elu_conv29_0_split_0
I0930 11:17:10.032433  3537 net.cpp:380] Eltwise14_elu_conv29_0_split -> Eltwise14_elu_conv29_0_split_1
I0930 11:17:10.032455  3537 net.cpp:122] Setting up Eltwise14_elu_conv29_0_split
I0930 11:17:10.032459  3537 net.cpp:129] Top shape: 100 32 14 14 (627200)
I0930 11:17:10.032461  3537 net.cpp:129] Top shape: 100 32 14 14 (627200)
I0930 11:17:10.032464  3537 net.cpp:137] Memory required for data: 673299600
I0930 11:17:10.032465  3537 layer_factory.hpp:77] Creating layer Convolution31
I0930 11:17:10.032472  3537 net.cpp:84] Creating Layer Convolution31
I0930 11:17:10.032474  3537 net.cpp:406] Convolution31 <- Eltwise14_elu_conv29_0_split_0
I0930 11:17:10.032479  3537 net.cpp:380] Convolution31 -> Convolution31
I0930 11:17:10.033501  3537 net.cpp:122] Setting up Convolution31
I0930 11:17:10.033510  3537 net.cpp:129] Top shape: 100 32 14 14 (627200)
I0930 11:17:10.033514  3537 net.cpp:137] Memory required for data: 675808400
I0930 11:17:10.033517  3537 layer_factory.hpp:77] Creating layer BatchNorm31
I0930 11:17:10.033524  3537 net.cpp:84] Creating Layer BatchNorm31
I0930 11:17:10.033525  3537 net.cpp:406] BatchNorm31 <- Convolution31
I0930 11:17:10.033530  3537 net.cpp:367] BatchNorm31 -> Convolution31 (in-place)
I0930 11:17:10.033663  3537 net.cpp:122] Setting up BatchNorm31
I0930 11:17:10.033668  3537 net.cpp:129] Top shape: 100 32 14 14 (627200)
I0930 11:17:10.033669  3537 net.cpp:137] Memory required for data: 678317200
I0930 11:17:10.033674  3537 layer_factory.hpp:77] Creating layer Scale31
I0930 11:17:10.033679  3537 net.cpp:84] Creating Layer Scale31
I0930 11:17:10.033687  3537 net.cpp:406] Scale31 <- Convolution31
I0930 11:17:10.033690  3537 net.cpp:367] Scale31 -> Convolution31 (in-place)
I0930 11:17:10.033718  3537 layer_factory.hpp:77] Creating layer Scale31
I0930 11:17:10.033793  3537 net.cpp:122] Setting up Scale31
I0930 11:17:10.033798  3537 net.cpp:129] Top shape: 100 32 14 14 (627200)
I0930 11:17:10.033800  3537 net.cpp:137] Memory required for data: 680826000
I0930 11:17:10.033803  3537 layer_factory.hpp:77] Creating layer elu_conv30
I0930 11:17:10.033808  3537 net.cpp:84] Creating Layer elu_conv30
I0930 11:17:10.033810  3537 net.cpp:406] elu_conv30 <- Convolution31
I0930 11:17:10.033813  3537 net.cpp:367] elu_conv30 -> Convolution31 (in-place)
I0930 11:17:10.033818  3537 net.cpp:122] Setting up elu_conv30
I0930 11:17:10.033820  3537 net.cpp:129] Top shape: 100 32 14 14 (627200)
I0930 11:17:10.033823  3537 net.cpp:137] Memory required for data: 683334800
I0930 11:17:10.033824  3537 layer_factory.hpp:77] Creating layer Convolution32
I0930 11:17:10.033830  3537 net.cpp:84] Creating Layer Convolution32
I0930 11:17:10.033833  3537 net.cpp:406] Convolution32 <- Convolution31
I0930 11:17:10.033838  3537 net.cpp:380] Convolution32 -> Convolution32
I0930 11:17:10.034885  3537 net.cpp:122] Setting up Convolution32
I0930 11:17:10.034893  3537 net.cpp:129] Top shape: 100 32 14 14 (627200)
I0930 11:17:10.034896  3537 net.cpp:137] Memory required for data: 685843600
I0930 11:17:10.034903  3537 layer_factory.hpp:77] Creating layer BatchNorm32
I0930 11:17:10.034907  3537 net.cpp:84] Creating Layer BatchNorm32
I0930 11:17:10.034910  3537 net.cpp:406] BatchNorm32 <- Convolution32
I0930 11:17:10.034914  3537 net.cpp:367] BatchNorm32 -> Convolution32 (in-place)
I0930 11:17:10.035048  3537 net.cpp:122] Setting up BatchNorm32
I0930 11:17:10.035053  3537 net.cpp:129] Top shape: 100 32 14 14 (627200)
I0930 11:17:10.035054  3537 net.cpp:137] Memory required for data: 688352400
I0930 11:17:10.035059  3537 layer_factory.hpp:77] Creating layer Scale32
I0930 11:17:10.035063  3537 net.cpp:84] Creating Layer Scale32
I0930 11:17:10.035065  3537 net.cpp:406] Scale32 <- Convolution32
I0930 11:17:10.035068  3537 net.cpp:367] Scale32 -> Convolution32 (in-place)
I0930 11:17:10.035095  3537 layer_factory.hpp:77] Creating layer Scale32
I0930 11:17:10.035171  3537 net.cpp:122] Setting up Scale32
I0930 11:17:10.035176  3537 net.cpp:129] Top shape: 100 32 14 14 (627200)
I0930 11:17:10.035178  3537 net.cpp:137] Memory required for data: 690861200
I0930 11:17:10.035182  3537 layer_factory.hpp:77] Creating layer Eltwise15
I0930 11:17:10.035187  3537 net.cpp:84] Creating Layer Eltwise15
I0930 11:17:10.035188  3537 net.cpp:406] Eltwise15 <- Eltwise14_elu_conv29_0_split_1
I0930 11:17:10.035192  3537 net.cpp:406] Eltwise15 <- Convolution32
I0930 11:17:10.035194  3537 net.cpp:380] Eltwise15 -> Eltwise15
I0930 11:17:10.035231  3537 net.cpp:122] Setting up Eltwise15
I0930 11:17:10.035235  3537 net.cpp:129] Top shape: 100 32 14 14 (627200)
I0930 11:17:10.035238  3537 net.cpp:137] Memory required for data: 693370000
I0930 11:17:10.035248  3537 layer_factory.hpp:77] Creating layer elu_conv31
I0930 11:17:10.035253  3537 net.cpp:84] Creating Layer elu_conv31
I0930 11:17:10.035255  3537 net.cpp:406] elu_conv31 <- Eltwise15
I0930 11:17:10.035259  3537 net.cpp:367] elu_conv31 -> Eltwise15 (in-place)
I0930 11:17:10.035262  3537 net.cpp:122] Setting up elu_conv31
I0930 11:17:10.035265  3537 net.cpp:129] Top shape: 100 32 14 14 (627200)
I0930 11:17:10.035267  3537 net.cpp:137] Memory required for data: 695878800
I0930 11:17:10.035269  3537 layer_factory.hpp:77] Creating layer Eltwise15_elu_conv31_0_split
I0930 11:17:10.035274  3537 net.cpp:84] Creating Layer Eltwise15_elu_conv31_0_split
I0930 11:17:10.035275  3537 net.cpp:406] Eltwise15_elu_conv31_0_split <- Eltwise15
I0930 11:17:10.035279  3537 net.cpp:380] Eltwise15_elu_conv31_0_split -> Eltwise15_elu_conv31_0_split_0
I0930 11:17:10.035282  3537 net.cpp:380] Eltwise15_elu_conv31_0_split -> Eltwise15_elu_conv31_0_split_1
I0930 11:17:10.035322  3537 net.cpp:122] Setting up Eltwise15_elu_conv31_0_split
I0930 11:17:10.035326  3537 net.cpp:129] Top shape: 100 32 14 14 (627200)
I0930 11:17:10.035329  3537 net.cpp:129] Top shape: 100 32 14 14 (627200)
I0930 11:17:10.035331  3537 net.cpp:137] Memory required for data: 700896400
I0930 11:17:10.035333  3537 layer_factory.hpp:77] Creating layer Convolution33
I0930 11:17:10.035341  3537 net.cpp:84] Creating Layer Convolution33
I0930 11:17:10.035342  3537 net.cpp:406] Convolution33 <- Eltwise15_elu_conv31_0_split_0
I0930 11:17:10.035346  3537 net.cpp:380] Convolution33 -> Convolution33
I0930 11:17:10.036680  3537 net.cpp:122] Setting up Convolution33
I0930 11:17:10.036689  3537 net.cpp:129] Top shape: 100 32 14 14 (627200)
I0930 11:17:10.036691  3537 net.cpp:137] Memory required for data: 703405200
I0930 11:17:10.036696  3537 layer_factory.hpp:77] Creating layer BatchNorm33
I0930 11:17:10.036701  3537 net.cpp:84] Creating Layer BatchNorm33
I0930 11:17:10.036703  3537 net.cpp:406] BatchNorm33 <- Convolution33
I0930 11:17:10.036707  3537 net.cpp:367] BatchNorm33 -> Convolution33 (in-place)
I0930 11:17:10.036847  3537 net.cpp:122] Setting up BatchNorm33
I0930 11:17:10.036851  3537 net.cpp:129] Top shape: 100 32 14 14 (627200)
I0930 11:17:10.036854  3537 net.cpp:137] Memory required for data: 705914000
I0930 11:17:10.036859  3537 layer_factory.hpp:77] Creating layer Scale33
I0930 11:17:10.036862  3537 net.cpp:84] Creating Layer Scale33
I0930 11:17:10.036865  3537 net.cpp:406] Scale33 <- Convolution33
I0930 11:17:10.036869  3537 net.cpp:367] Scale33 -> Convolution33 (in-place)
I0930 11:17:10.036895  3537 layer_factory.hpp:77] Creating layer Scale33
I0930 11:17:10.036972  3537 net.cpp:122] Setting up Scale33
I0930 11:17:10.036976  3537 net.cpp:129] Top shape: 100 32 14 14 (627200)
I0930 11:17:10.036979  3537 net.cpp:137] Memory required for data: 708422800
I0930 11:17:10.036983  3537 layer_factory.hpp:77] Creating layer elu_conv32
I0930 11:17:10.036986  3537 net.cpp:84] Creating Layer elu_conv32
I0930 11:17:10.036988  3537 net.cpp:406] elu_conv32 <- Convolution33
I0930 11:17:10.036991  3537 net.cpp:367] elu_conv32 -> Convolution33 (in-place)
I0930 11:17:10.036995  3537 net.cpp:122] Setting up elu_conv32
I0930 11:17:10.036998  3537 net.cpp:129] Top shape: 100 32 14 14 (627200)
I0930 11:17:10.037000  3537 net.cpp:137] Memory required for data: 710931600
I0930 11:17:10.037003  3537 layer_factory.hpp:77] Creating layer Convolution34
I0930 11:17:10.037010  3537 net.cpp:84] Creating Layer Convolution34
I0930 11:17:10.037012  3537 net.cpp:406] Convolution34 <- Convolution33
I0930 11:17:10.037027  3537 net.cpp:380] Convolution34 -> Convolution34
I0930 11:17:10.038069  3537 net.cpp:122] Setting up Convolution34
I0930 11:17:10.038077  3537 net.cpp:129] Top shape: 100 32 14 14 (627200)
I0930 11:17:10.038080  3537 net.cpp:137] Memory required for data: 713440400
I0930 11:17:10.038084  3537 layer_factory.hpp:77] Creating layer BatchNorm34
I0930 11:17:10.038090  3537 net.cpp:84] Creating Layer BatchNorm34
I0930 11:17:10.038094  3537 net.cpp:406] BatchNorm34 <- Convolution34
I0930 11:17:10.038097  3537 net.cpp:367] BatchNorm34 -> Convolution34 (in-place)
I0930 11:17:10.038231  3537 net.cpp:122] Setting up BatchNorm34
I0930 11:17:10.038235  3537 net.cpp:129] Top shape: 100 32 14 14 (627200)
I0930 11:17:10.038238  3537 net.cpp:137] Memory required for data: 715949200
I0930 11:17:10.038242  3537 layer_factory.hpp:77] Creating layer Scale34
I0930 11:17:10.038247  3537 net.cpp:84] Creating Layer Scale34
I0930 11:17:10.038249  3537 net.cpp:406] Scale34 <- Convolution34
I0930 11:17:10.038252  3537 net.cpp:367] Scale34 -> Convolution34 (in-place)
I0930 11:17:10.038278  3537 layer_factory.hpp:77] Creating layer Scale34
I0930 11:17:10.038354  3537 net.cpp:122] Setting up Scale34
I0930 11:17:10.038359  3537 net.cpp:129] Top shape: 100 32 14 14 (627200)
I0930 11:17:10.038362  3537 net.cpp:137] Memory required for data: 718458000
I0930 11:17:10.038365  3537 layer_factory.hpp:77] Creating layer Eltwise16
I0930 11:17:10.038369  3537 net.cpp:84] Creating Layer Eltwise16
I0930 11:17:10.038379  3537 net.cpp:406] Eltwise16 <- Eltwise15_elu_conv31_0_split_1
I0930 11:17:10.038383  3537 net.cpp:406] Eltwise16 <- Convolution34
I0930 11:17:10.038386  3537 net.cpp:380] Eltwise16 -> Eltwise16
I0930 11:17:10.038403  3537 net.cpp:122] Setting up Eltwise16
I0930 11:17:10.038408  3537 net.cpp:129] Top shape: 100 32 14 14 (627200)
I0930 11:17:10.038409  3537 net.cpp:137] Memory required for data: 720966800
I0930 11:17:10.038411  3537 layer_factory.hpp:77] Creating layer elu_conv33
I0930 11:17:10.038414  3537 net.cpp:84] Creating Layer elu_conv33
I0930 11:17:10.038417  3537 net.cpp:406] elu_conv33 <- Eltwise16
I0930 11:17:10.038421  3537 net.cpp:367] elu_conv33 -> Eltwise16 (in-place)
I0930 11:17:10.038424  3537 net.cpp:122] Setting up elu_conv33
I0930 11:17:10.038427  3537 net.cpp:129] Top shape: 100 32 14 14 (627200)
I0930 11:17:10.038429  3537 net.cpp:137] Memory required for data: 723475600
I0930 11:17:10.038432  3537 layer_factory.hpp:77] Creating layer Eltwise16_elu_conv33_0_split
I0930 11:17:10.038435  3537 net.cpp:84] Creating Layer Eltwise16_elu_conv33_0_split
I0930 11:17:10.038437  3537 net.cpp:406] Eltwise16_elu_conv33_0_split <- Eltwise16
I0930 11:17:10.038440  3537 net.cpp:380] Eltwise16_elu_conv33_0_split -> Eltwise16_elu_conv33_0_split_0
I0930 11:17:10.038444  3537 net.cpp:380] Eltwise16_elu_conv33_0_split -> Eltwise16_elu_conv33_0_split_1
I0930 11:17:10.038466  3537 net.cpp:122] Setting up Eltwise16_elu_conv33_0_split
I0930 11:17:10.038470  3537 net.cpp:129] Top shape: 100 32 14 14 (627200)
I0930 11:17:10.038473  3537 net.cpp:129] Top shape: 100 32 14 14 (627200)
I0930 11:17:10.038475  3537 net.cpp:137] Memory required for data: 728493200
I0930 11:17:10.038477  3537 layer_factory.hpp:77] Creating layer Convolution35
I0930 11:17:10.038483  3537 net.cpp:84] Creating Layer Convolution35
I0930 11:17:10.038486  3537 net.cpp:406] Convolution35 <- Eltwise16_elu_conv33_0_split_0
I0930 11:17:10.038491  3537 net.cpp:380] Convolution35 -> Convolution35
I0930 11:17:10.039543  3537 net.cpp:122] Setting up Convolution35
I0930 11:17:10.039552  3537 net.cpp:129] Top shape: 100 32 14 14 (627200)
I0930 11:17:10.039556  3537 net.cpp:137] Memory required for data: 731002000
I0930 11:17:10.039559  3537 layer_factory.hpp:77] Creating layer BatchNorm35
I0930 11:17:10.039564  3537 net.cpp:84] Creating Layer BatchNorm35
I0930 11:17:10.039566  3537 net.cpp:406] BatchNorm35 <- Convolution35
I0930 11:17:10.039571  3537 net.cpp:367] BatchNorm35 -> Convolution35 (in-place)
I0930 11:17:10.039707  3537 net.cpp:122] Setting up BatchNorm35
I0930 11:17:10.039711  3537 net.cpp:129] Top shape: 100 32 14 14 (627200)
I0930 11:17:10.039713  3537 net.cpp:137] Memory required for data: 733510800
I0930 11:17:10.039718  3537 layer_factory.hpp:77] Creating layer Scale35
I0930 11:17:10.039722  3537 net.cpp:84] Creating Layer Scale35
I0930 11:17:10.039724  3537 net.cpp:406] Scale35 <- Convolution35
I0930 11:17:10.039728  3537 net.cpp:367] Scale35 -> Convolution35 (in-place)
I0930 11:17:10.039754  3537 layer_factory.hpp:77] Creating layer Scale35
I0930 11:17:10.039830  3537 net.cpp:122] Setting up Scale35
I0930 11:17:10.039834  3537 net.cpp:129] Top shape: 100 32 14 14 (627200)
I0930 11:17:10.039836  3537 net.cpp:137] Memory required for data: 736019600
I0930 11:17:10.039839  3537 layer_factory.hpp:77] Creating layer elu_conv34
I0930 11:17:10.039844  3537 net.cpp:84] Creating Layer elu_conv34
I0930 11:17:10.039845  3537 net.cpp:406] elu_conv34 <- Convolution35
I0930 11:17:10.039849  3537 net.cpp:367] elu_conv34 -> Convolution35 (in-place)
I0930 11:17:10.039852  3537 net.cpp:122] Setting up elu_conv34
I0930 11:17:10.039855  3537 net.cpp:129] Top shape: 100 32 14 14 (627200)
I0930 11:17:10.039858  3537 net.cpp:137] Memory required for data: 738528400
I0930 11:17:10.039860  3537 layer_factory.hpp:77] Creating layer Convolution36
I0930 11:17:10.039867  3537 net.cpp:84] Creating Layer Convolution36
I0930 11:17:10.039870  3537 net.cpp:406] Convolution36 <- Convolution35
I0930 11:17:10.039873  3537 net.cpp:380] Convolution36 -> Convolution36
I0930 11:17:10.040915  3537 net.cpp:122] Setting up Convolution36
I0930 11:17:10.040923  3537 net.cpp:129] Top shape: 100 32 14 14 (627200)
I0930 11:17:10.040925  3537 net.cpp:137] Memory required for data: 741037200
I0930 11:17:10.040930  3537 layer_factory.hpp:77] Creating layer BatchNorm36
I0930 11:17:10.040935  3537 net.cpp:84] Creating Layer BatchNorm36
I0930 11:17:10.040938  3537 net.cpp:406] BatchNorm36 <- Convolution36
I0930 11:17:10.040942  3537 net.cpp:367] BatchNorm36 -> Convolution36 (in-place)
I0930 11:17:10.041079  3537 net.cpp:122] Setting up BatchNorm36
I0930 11:17:10.041083  3537 net.cpp:129] Top shape: 100 32 14 14 (627200)
I0930 11:17:10.041085  3537 net.cpp:137] Memory required for data: 743546000
I0930 11:17:10.041090  3537 layer_factory.hpp:77] Creating layer Scale36
I0930 11:17:10.041095  3537 net.cpp:84] Creating Layer Scale36
I0930 11:17:10.041097  3537 net.cpp:406] Scale36 <- Convolution36
I0930 11:17:10.041100  3537 net.cpp:367] Scale36 -> Convolution36 (in-place)
I0930 11:17:10.041127  3537 layer_factory.hpp:77] Creating layer Scale36
I0930 11:17:10.041204  3537 net.cpp:122] Setting up Scale36
I0930 11:17:10.041208  3537 net.cpp:129] Top shape: 100 32 14 14 (627200)
I0930 11:17:10.041210  3537 net.cpp:137] Memory required for data: 746054800
I0930 11:17:10.041214  3537 layer_factory.hpp:77] Creating layer Eltwise17
I0930 11:17:10.041219  3537 net.cpp:84] Creating Layer Eltwise17
I0930 11:17:10.041221  3537 net.cpp:406] Eltwise17 <- Eltwise16_elu_conv33_0_split_1
I0930 11:17:10.041224  3537 net.cpp:406] Eltwise17 <- Convolution36
I0930 11:17:10.041227  3537 net.cpp:380] Eltwise17 -> Eltwise17
I0930 11:17:10.041244  3537 net.cpp:122] Setting up Eltwise17
I0930 11:17:10.041247  3537 net.cpp:129] Top shape: 100 32 14 14 (627200)
I0930 11:17:10.041249  3537 net.cpp:137] Memory required for data: 748563600
I0930 11:17:10.041251  3537 layer_factory.hpp:77] Creating layer elu_conv35
I0930 11:17:10.041255  3537 net.cpp:84] Creating Layer elu_conv35
I0930 11:17:10.041257  3537 net.cpp:406] elu_conv35 <- Eltwise17
I0930 11:17:10.041260  3537 net.cpp:367] elu_conv35 -> Eltwise17 (in-place)
I0930 11:17:10.041265  3537 net.cpp:122] Setting up elu_conv35
I0930 11:17:10.041267  3537 net.cpp:129] Top shape: 100 32 14 14 (627200)
I0930 11:17:10.041270  3537 net.cpp:137] Memory required for data: 751072400
I0930 11:17:10.041271  3537 layer_factory.hpp:77] Creating layer Eltwise17_elu_conv35_0_split
I0930 11:17:10.041275  3537 net.cpp:84] Creating Layer Eltwise17_elu_conv35_0_split
I0930 11:17:10.041277  3537 net.cpp:406] Eltwise17_elu_conv35_0_split <- Eltwise17
I0930 11:17:10.041280  3537 net.cpp:380] Eltwise17_elu_conv35_0_split -> Eltwise17_elu_conv35_0_split_0
I0930 11:17:10.041283  3537 net.cpp:380] Eltwise17_elu_conv35_0_split -> Eltwise17_elu_conv35_0_split_1
I0930 11:17:10.041306  3537 net.cpp:122] Setting up Eltwise17_elu_conv35_0_split
I0930 11:17:10.041311  3537 net.cpp:129] Top shape: 100 32 14 14 (627200)
I0930 11:17:10.041312  3537 net.cpp:129] Top shape: 100 32 14 14 (627200)
I0930 11:17:10.041314  3537 net.cpp:137] Memory required for data: 756090000
I0930 11:17:10.041316  3537 layer_factory.hpp:77] Creating layer Convolution37
I0930 11:17:10.041322  3537 net.cpp:84] Creating Layer Convolution37
I0930 11:17:10.041324  3537 net.cpp:406] Convolution37 <- Eltwise17_elu_conv35_0_split_0
I0930 11:17:10.041329  3537 net.cpp:380] Convolution37 -> Convolution37
I0930 11:17:10.042037  3537 net.cpp:122] Setting up Convolution37
I0930 11:17:10.042044  3537 net.cpp:129] Top shape: 100 32 14 14 (627200)
I0930 11:17:10.042047  3537 net.cpp:137] Memory required for data: 758598800
I0930 11:17:10.042050  3537 layer_factory.hpp:77] Creating layer BatchNorm37
I0930 11:17:10.042055  3537 net.cpp:84] Creating Layer BatchNorm37
I0930 11:17:10.042058  3537 net.cpp:406] BatchNorm37 <- Convolution37
I0930 11:17:10.042062  3537 net.cpp:367] BatchNorm37 -> Convolution37 (in-place)
I0930 11:17:10.042196  3537 net.cpp:122] Setting up BatchNorm37
I0930 11:17:10.042201  3537 net.cpp:129] Top shape: 100 32 14 14 (627200)
I0930 11:17:10.042208  3537 net.cpp:137] Memory required for data: 761107600
I0930 11:17:10.042233  3537 layer_factory.hpp:77] Creating layer Scale37
I0930 11:17:10.042238  3537 net.cpp:84] Creating Layer Scale37
I0930 11:17:10.042242  3537 net.cpp:406] Scale37 <- Convolution37
I0930 11:17:10.042244  3537 net.cpp:367] Scale37 -> Convolution37 (in-place)
I0930 11:17:10.042273  3537 layer_factory.hpp:77] Creating layer Scale37
I0930 11:17:10.042351  3537 net.cpp:122] Setting up Scale37
I0930 11:17:10.042354  3537 net.cpp:129] Top shape: 100 32 14 14 (627200)
I0930 11:17:10.042357  3537 net.cpp:137] Memory required for data: 763616400
I0930 11:17:10.042361  3537 layer_factory.hpp:77] Creating layer elu_conv36
I0930 11:17:10.042364  3537 net.cpp:84] Creating Layer elu_conv36
I0930 11:17:10.042366  3537 net.cpp:406] elu_conv36 <- Convolution37
I0930 11:17:10.042371  3537 net.cpp:367] elu_conv36 -> Convolution37 (in-place)
I0930 11:17:10.042374  3537 net.cpp:122] Setting up elu_conv36
I0930 11:17:10.042377  3537 net.cpp:129] Top shape: 100 32 14 14 (627200)
I0930 11:17:10.042379  3537 net.cpp:137] Memory required for data: 766125200
I0930 11:17:10.042382  3537 layer_factory.hpp:77] Creating layer Convolution38
I0930 11:17:10.042388  3537 net.cpp:84] Creating Layer Convolution38
I0930 11:17:10.042390  3537 net.cpp:406] Convolution38 <- Convolution37
I0930 11:17:10.042394  3537 net.cpp:380] Convolution38 -> Convolution38
I0930 11:17:10.043483  3537 net.cpp:122] Setting up Convolution38
I0930 11:17:10.043493  3537 net.cpp:129] Top shape: 100 32 14 14 (627200)
I0930 11:17:10.043494  3537 net.cpp:137] Memory required for data: 768634000
I0930 11:17:10.043499  3537 layer_factory.hpp:77] Creating layer BatchNorm38
I0930 11:17:10.043504  3537 net.cpp:84] Creating Layer BatchNorm38
I0930 11:17:10.043507  3537 net.cpp:406] BatchNorm38 <- Convolution38
I0930 11:17:10.043511  3537 net.cpp:367] BatchNorm38 -> Convolution38 (in-place)
I0930 11:17:10.043647  3537 net.cpp:122] Setting up BatchNorm38
I0930 11:17:10.043650  3537 net.cpp:129] Top shape: 100 32 14 14 (627200)
I0930 11:17:10.043653  3537 net.cpp:137] Memory required for data: 771142800
I0930 11:17:10.043658  3537 layer_factory.hpp:77] Creating layer Scale38
I0930 11:17:10.043661  3537 net.cpp:84] Creating Layer Scale38
I0930 11:17:10.043664  3537 net.cpp:406] Scale38 <- Convolution38
I0930 11:17:10.043668  3537 net.cpp:367] Scale38 -> Convolution38 (in-place)
I0930 11:17:10.043694  3537 layer_factory.hpp:77] Creating layer Scale38
I0930 11:17:10.043771  3537 net.cpp:122] Setting up Scale38
I0930 11:17:10.043774  3537 net.cpp:129] Top shape: 100 32 14 14 (627200)
I0930 11:17:10.043777  3537 net.cpp:137] Memory required for data: 773651600
I0930 11:17:10.043781  3537 layer_factory.hpp:77] Creating layer Eltwise18
I0930 11:17:10.043786  3537 net.cpp:84] Creating Layer Eltwise18
I0930 11:17:10.043787  3537 net.cpp:406] Eltwise18 <- Eltwise17_elu_conv35_0_split_1
I0930 11:17:10.043790  3537 net.cpp:406] Eltwise18 <- Convolution38
I0930 11:17:10.043793  3537 net.cpp:380] Eltwise18 -> Eltwise18
I0930 11:17:10.043809  3537 net.cpp:122] Setting up Eltwise18
I0930 11:17:10.043812  3537 net.cpp:129] Top shape: 100 32 14 14 (627200)
I0930 11:17:10.043815  3537 net.cpp:137] Memory required for data: 776160400
I0930 11:17:10.043817  3537 layer_factory.hpp:77] Creating layer elu_conv37
I0930 11:17:10.043820  3537 net.cpp:84] Creating Layer elu_conv37
I0930 11:17:10.043823  3537 net.cpp:406] elu_conv37 <- Eltwise18
I0930 11:17:10.043828  3537 net.cpp:367] elu_conv37 -> Eltwise18 (in-place)
I0930 11:17:10.043830  3537 net.cpp:122] Setting up elu_conv37
I0930 11:17:10.043833  3537 net.cpp:129] Top shape: 100 32 14 14 (627200)
I0930 11:17:10.043835  3537 net.cpp:137] Memory required for data: 778669200
I0930 11:17:10.043838  3537 layer_factory.hpp:77] Creating layer Eltwise18_elu_conv37_0_split
I0930 11:17:10.043841  3537 net.cpp:84] Creating Layer Eltwise18_elu_conv37_0_split
I0930 11:17:10.043843  3537 net.cpp:406] Eltwise18_elu_conv37_0_split <- Eltwise18
I0930 11:17:10.043853  3537 net.cpp:380] Eltwise18_elu_conv37_0_split -> Eltwise18_elu_conv37_0_split_0
I0930 11:17:10.043857  3537 net.cpp:380] Eltwise18_elu_conv37_0_split -> Eltwise18_elu_conv37_0_split_1
I0930 11:17:10.043881  3537 net.cpp:122] Setting up Eltwise18_elu_conv37_0_split
I0930 11:17:10.043885  3537 net.cpp:129] Top shape: 100 32 14 14 (627200)
I0930 11:17:10.043889  3537 net.cpp:129] Top shape: 100 32 14 14 (627200)
I0930 11:17:10.043890  3537 net.cpp:137] Memory required for data: 783686800
I0930 11:17:10.043892  3537 layer_factory.hpp:77] Creating layer Convolution39
I0930 11:17:10.043898  3537 net.cpp:84] Creating Layer Convolution39
I0930 11:17:10.043900  3537 net.cpp:406] Convolution39 <- Eltwise18_elu_conv37_0_split_0
I0930 11:17:10.043905  3537 net.cpp:380] Convolution39 -> Convolution39
I0930 11:17:10.044783  3537 net.cpp:122] Setting up Convolution39
I0930 11:17:10.044792  3537 net.cpp:129] Top shape: 100 64 7 7 (313600)
I0930 11:17:10.044795  3537 net.cpp:137] Memory required for data: 784941200
I0930 11:17:10.044800  3537 layer_factory.hpp:77] Creating layer BatchNorm39
I0930 11:17:10.044805  3537 net.cpp:84] Creating Layer BatchNorm39
I0930 11:17:10.044807  3537 net.cpp:406] BatchNorm39 <- Convolution39
I0930 11:17:10.044811  3537 net.cpp:367] BatchNorm39 -> Convolution39 (in-place)
I0930 11:17:10.044948  3537 net.cpp:122] Setting up BatchNorm39
I0930 11:17:10.044952  3537 net.cpp:129] Top shape: 100 64 7 7 (313600)
I0930 11:17:10.044955  3537 net.cpp:137] Memory required for data: 786195600
I0930 11:17:10.044960  3537 layer_factory.hpp:77] Creating layer Scale39
I0930 11:17:10.044963  3537 net.cpp:84] Creating Layer Scale39
I0930 11:17:10.044966  3537 net.cpp:406] Scale39 <- Convolution39
I0930 11:17:10.044970  3537 net.cpp:367] Scale39 -> Convolution39 (in-place)
I0930 11:17:10.044996  3537 layer_factory.hpp:77] Creating layer Scale39
I0930 11:17:10.045074  3537 net.cpp:122] Setting up Scale39
I0930 11:17:10.045079  3537 net.cpp:129] Top shape: 100 64 7 7 (313600)
I0930 11:17:10.045081  3537 net.cpp:137] Memory required for data: 787450000
I0930 11:17:10.045085  3537 layer_factory.hpp:77] Creating layer Convolution40
I0930 11:17:10.045091  3537 net.cpp:84] Creating Layer Convolution40
I0930 11:17:10.045094  3537 net.cpp:406] Convolution40 <- Eltwise18_elu_conv37_0_split_1
I0930 11:17:10.045099  3537 net.cpp:380] Convolution40 -> Convolution40
I0930 11:17:10.046859  3537 net.cpp:122] Setting up Convolution40
I0930 11:17:10.046867  3537 net.cpp:129] Top shape: 100 64 7 7 (313600)
I0930 11:17:10.046870  3537 net.cpp:137] Memory required for data: 788704400
I0930 11:17:10.046875  3537 layer_factory.hpp:77] Creating layer BatchNorm40
I0930 11:17:10.046880  3537 net.cpp:84] Creating Layer BatchNorm40
I0930 11:17:10.046881  3537 net.cpp:406] BatchNorm40 <- Convolution40
I0930 11:17:10.046886  3537 net.cpp:367] BatchNorm40 -> Convolution40 (in-place)
I0930 11:17:10.047024  3537 net.cpp:122] Setting up BatchNorm40
I0930 11:17:10.047029  3537 net.cpp:129] Top shape: 100 64 7 7 (313600)
I0930 11:17:10.047030  3537 net.cpp:137] Memory required for data: 789958800
I0930 11:17:10.047035  3537 layer_factory.hpp:77] Creating layer Scale40
I0930 11:17:10.047039  3537 net.cpp:84] Creating Layer Scale40
I0930 11:17:10.047041  3537 net.cpp:406] Scale40 <- Convolution40
I0930 11:17:10.047045  3537 net.cpp:367] Scale40 -> Convolution40 (in-place)
I0930 11:17:10.047071  3537 layer_factory.hpp:77] Creating layer Scale40
I0930 11:17:10.047148  3537 net.cpp:122] Setting up Scale40
I0930 11:17:10.047152  3537 net.cpp:129] Top shape: 100 64 7 7 (313600)
I0930 11:17:10.047155  3537 net.cpp:137] Memory required for data: 791213200
I0930 11:17:10.047158  3537 layer_factory.hpp:77] Creating layer elu_conv38
I0930 11:17:10.047163  3537 net.cpp:84] Creating Layer elu_conv38
I0930 11:17:10.047164  3537 net.cpp:406] elu_conv38 <- Convolution40
I0930 11:17:10.047169  3537 net.cpp:367] elu_conv38 -> Convolution40 (in-place)
I0930 11:17:10.047173  3537 net.cpp:122] Setting up elu_conv38
I0930 11:17:10.047175  3537 net.cpp:129] Top shape: 100 64 7 7 (313600)
I0930 11:17:10.047184  3537 net.cpp:137] Memory required for data: 792467600
I0930 11:17:10.047186  3537 layer_factory.hpp:77] Creating layer Convolution41
I0930 11:17:10.047194  3537 net.cpp:84] Creating Layer Convolution41
I0930 11:17:10.047195  3537 net.cpp:406] Convolution41 <- Convolution40
I0930 11:17:10.047199  3537 net.cpp:380] Convolution41 -> Convolution41
I0930 11:17:10.049149  3537 net.cpp:122] Setting up Convolution41
I0930 11:17:10.049159  3537 net.cpp:129] Top shape: 100 64 7 7 (313600)
I0930 11:17:10.049161  3537 net.cpp:137] Memory required for data: 793722000
I0930 11:17:10.049166  3537 layer_factory.hpp:77] Creating layer BatchNorm41
I0930 11:17:10.049170  3537 net.cpp:84] Creating Layer BatchNorm41
I0930 11:17:10.049173  3537 net.cpp:406] BatchNorm41 <- Convolution41
I0930 11:17:10.049177  3537 net.cpp:367] BatchNorm41 -> Convolution41 (in-place)
I0930 11:17:10.049319  3537 net.cpp:122] Setting up BatchNorm41
I0930 11:17:10.049324  3537 net.cpp:129] Top shape: 100 64 7 7 (313600)
I0930 11:17:10.049326  3537 net.cpp:137] Memory required for data: 794976400
I0930 11:17:10.049330  3537 layer_factory.hpp:77] Creating layer Scale41
I0930 11:17:10.049335  3537 net.cpp:84] Creating Layer Scale41
I0930 11:17:10.049337  3537 net.cpp:406] Scale41 <- Convolution41
I0930 11:17:10.049342  3537 net.cpp:367] Scale41 -> Convolution41 (in-place)
I0930 11:17:10.049370  3537 layer_factory.hpp:77] Creating layer Scale41
I0930 11:17:10.049448  3537 net.cpp:122] Setting up Scale41
I0930 11:17:10.049453  3537 net.cpp:129] Top shape: 100 64 7 7 (313600)
I0930 11:17:10.049455  3537 net.cpp:137] Memory required for data: 796230800
I0930 11:17:10.049459  3537 layer_factory.hpp:77] Creating layer Eltwise19
I0930 11:17:10.049463  3537 net.cpp:84] Creating Layer Eltwise19
I0930 11:17:10.049465  3537 net.cpp:406] Eltwise19 <- Convolution39
I0930 11:17:10.049468  3537 net.cpp:406] Eltwise19 <- Convolution41
I0930 11:17:10.049473  3537 net.cpp:380] Eltwise19 -> Eltwise19
I0930 11:17:10.049489  3537 net.cpp:122] Setting up Eltwise19
I0930 11:17:10.049492  3537 net.cpp:129] Top shape: 100 64 7 7 (313600)
I0930 11:17:10.049494  3537 net.cpp:137] Memory required for data: 797485200
I0930 11:17:10.049496  3537 layer_factory.hpp:77] Creating layer elu_conv39
I0930 11:17:10.049500  3537 net.cpp:84] Creating Layer elu_conv39
I0930 11:17:10.049502  3537 net.cpp:406] elu_conv39 <- Eltwise19
I0930 11:17:10.049505  3537 net.cpp:367] elu_conv39 -> Eltwise19 (in-place)
I0930 11:17:10.049510  3537 net.cpp:122] Setting up elu_conv39
I0930 11:17:10.049512  3537 net.cpp:129] Top shape: 100 64 7 7 (313600)
I0930 11:17:10.049515  3537 net.cpp:137] Memory required for data: 798739600
I0930 11:17:10.049516  3537 layer_factory.hpp:77] Creating layer Eltwise19_elu_conv39_0_split
I0930 11:17:10.049520  3537 net.cpp:84] Creating Layer Eltwise19_elu_conv39_0_split
I0930 11:17:10.049521  3537 net.cpp:406] Eltwise19_elu_conv39_0_split <- Eltwise19
I0930 11:17:10.049526  3537 net.cpp:380] Eltwise19_elu_conv39_0_split -> Eltwise19_elu_conv39_0_split_0
I0930 11:17:10.049530  3537 net.cpp:380] Eltwise19_elu_conv39_0_split -> Eltwise19_elu_conv39_0_split_1
I0930 11:17:10.049552  3537 net.cpp:122] Setting up Eltwise19_elu_conv39_0_split
I0930 11:17:10.049556  3537 net.cpp:129] Top shape: 100 64 7 7 (313600)
I0930 11:17:10.049558  3537 net.cpp:129] Top shape: 100 64 7 7 (313600)
I0930 11:17:10.049561  3537 net.cpp:137] Memory required for data: 801248400
I0930 11:17:10.049563  3537 layer_factory.hpp:77] Creating layer Convolution42
I0930 11:17:10.049569  3537 net.cpp:84] Creating Layer Convolution42
I0930 11:17:10.049572  3537 net.cpp:406] Convolution42 <- Eltwise19_elu_conv39_0_split_0
I0930 11:17:10.049576  3537 net.cpp:380] Convolution42 -> Convolution42
I0930 11:17:10.051211  3537 net.cpp:122] Setting up Convolution42
I0930 11:17:10.051219  3537 net.cpp:129] Top shape: 100 64 7 7 (313600)
I0930 11:17:10.051223  3537 net.cpp:137] Memory required for data: 802502800
I0930 11:17:10.051228  3537 layer_factory.hpp:77] Creating layer BatchNorm42
I0930 11:17:10.051239  3537 net.cpp:84] Creating Layer BatchNorm42
I0930 11:17:10.051241  3537 net.cpp:406] BatchNorm42 <- Convolution42
I0930 11:17:10.051245  3537 net.cpp:367] BatchNorm42 -> Convolution42 (in-place)
I0930 11:17:10.051384  3537 net.cpp:122] Setting up BatchNorm42
I0930 11:17:10.051389  3537 net.cpp:129] Top shape: 100 64 7 7 (313600)
I0930 11:17:10.051391  3537 net.cpp:137] Memory required for data: 803757200
I0930 11:17:10.051396  3537 layer_factory.hpp:77] Creating layer Scale42
I0930 11:17:10.051400  3537 net.cpp:84] Creating Layer Scale42
I0930 11:17:10.051403  3537 net.cpp:406] Scale42 <- Convolution42
I0930 11:17:10.051406  3537 net.cpp:367] Scale42 -> Convolution42 (in-place)
I0930 11:17:10.051434  3537 layer_factory.hpp:77] Creating layer Scale42
I0930 11:17:10.051513  3537 net.cpp:122] Setting up Scale42
I0930 11:17:10.051517  3537 net.cpp:129] Top shape: 100 64 7 7 (313600)
I0930 11:17:10.051519  3537 net.cpp:137] Memory required for data: 805011600
I0930 11:17:10.051523  3537 layer_factory.hpp:77] Creating layer elu_conv40
I0930 11:17:10.051527  3537 net.cpp:84] Creating Layer elu_conv40
I0930 11:17:10.051529  3537 net.cpp:406] elu_conv40 <- Convolution42
I0930 11:17:10.051533  3537 net.cpp:367] elu_conv40 -> Convolution42 (in-place)
I0930 11:17:10.051537  3537 net.cpp:122] Setting up elu_conv40
I0930 11:17:10.051540  3537 net.cpp:129] Top shape: 100 64 7 7 (313600)
I0930 11:17:10.051542  3537 net.cpp:137] Memory required for data: 806266000
I0930 11:17:10.051544  3537 layer_factory.hpp:77] Creating layer Convolution43
I0930 11:17:10.051550  3537 net.cpp:84] Creating Layer Convolution43
I0930 11:17:10.051553  3537 net.cpp:406] Convolution43 <- Convolution42
I0930 11:17:10.051556  3537 net.cpp:380] Convolution43 -> Convolution43
I0930 11:17:10.054055  3537 net.cpp:122] Setting up Convolution43
I0930 11:17:10.054067  3537 net.cpp:129] Top shape: 100 64 7 7 (313600)
I0930 11:17:10.054070  3537 net.cpp:137] Memory required for data: 807520400
I0930 11:17:10.054076  3537 layer_factory.hpp:77] Creating layer BatchNorm43
I0930 11:17:10.054082  3537 net.cpp:84] Creating Layer BatchNorm43
I0930 11:17:10.054085  3537 net.cpp:406] BatchNorm43 <- Convolution43
I0930 11:17:10.054090  3537 net.cpp:367] BatchNorm43 -> Convolution43 (in-place)
I0930 11:17:10.054281  3537 net.cpp:122] Setting up BatchNorm43
I0930 11:17:10.054286  3537 net.cpp:129] Top shape: 100 64 7 7 (313600)
I0930 11:17:10.054289  3537 net.cpp:137] Memory required for data: 808774800
I0930 11:17:10.054293  3537 layer_factory.hpp:77] Creating layer Scale43
I0930 11:17:10.054298  3537 net.cpp:84] Creating Layer Scale43
I0930 11:17:10.054301  3537 net.cpp:406] Scale43 <- Convolution43
I0930 11:17:10.054306  3537 net.cpp:367] Scale43 -> Convolution43 (in-place)
I0930 11:17:10.054374  3537 layer_factory.hpp:77] Creating layer Scale43
I0930 11:17:10.054486  3537 net.cpp:122] Setting up Scale43
I0930 11:17:10.054491  3537 net.cpp:129] Top shape: 100 64 7 7 (313600)
I0930 11:17:10.054494  3537 net.cpp:137] Memory required for data: 810029200
I0930 11:17:10.054498  3537 layer_factory.hpp:77] Creating layer Eltwise20
I0930 11:17:10.054502  3537 net.cpp:84] Creating Layer Eltwise20
I0930 11:17:10.054505  3537 net.cpp:406] Eltwise20 <- Eltwise19_elu_conv39_0_split_1
I0930 11:17:10.054509  3537 net.cpp:406] Eltwise20 <- Convolution43
I0930 11:17:10.054528  3537 net.cpp:380] Eltwise20 -> Eltwise20
I0930 11:17:10.054548  3537 net.cpp:122] Setting up Eltwise20
I0930 11:17:10.054563  3537 net.cpp:129] Top shape: 100 64 7 7 (313600)
I0930 11:17:10.054564  3537 net.cpp:137] Memory required for data: 811283600
I0930 11:17:10.054566  3537 layer_factory.hpp:77] Creating layer elu_conv41
I0930 11:17:10.054570  3537 net.cpp:84] Creating Layer elu_conv41
I0930 11:17:10.054572  3537 net.cpp:406] elu_conv41 <- Eltwise20
I0930 11:17:10.054576  3537 net.cpp:367] elu_conv41 -> Eltwise20 (in-place)
I0930 11:17:10.054589  3537 net.cpp:122] Setting up elu_conv41
I0930 11:17:10.054592  3537 net.cpp:129] Top shape: 100 64 7 7 (313600)
I0930 11:17:10.054594  3537 net.cpp:137] Memory required for data: 812538000
I0930 11:17:10.054603  3537 layer_factory.hpp:77] Creating layer Eltwise20_elu_conv41_0_split
I0930 11:17:10.054607  3537 net.cpp:84] Creating Layer Eltwise20_elu_conv41_0_split
I0930 11:17:10.054610  3537 net.cpp:406] Eltwise20_elu_conv41_0_split <- Eltwise20
I0930 11:17:10.054612  3537 net.cpp:380] Eltwise20_elu_conv41_0_split -> Eltwise20_elu_conv41_0_split_0
I0930 11:17:10.054616  3537 net.cpp:380] Eltwise20_elu_conv41_0_split -> Eltwise20_elu_conv41_0_split_1
I0930 11:17:10.054642  3537 net.cpp:122] Setting up Eltwise20_elu_conv41_0_split
I0930 11:17:10.054646  3537 net.cpp:129] Top shape: 100 64 7 7 (313600)
I0930 11:17:10.054649  3537 net.cpp:129] Top shape: 100 64 7 7 (313600)
I0930 11:17:10.054651  3537 net.cpp:137] Memory required for data: 815046800
I0930 11:17:10.054653  3537 layer_factory.hpp:77] Creating layer Convolution44
I0930 11:17:10.054659  3537 net.cpp:84] Creating Layer Convolution44
I0930 11:17:10.054662  3537 net.cpp:406] Convolution44 <- Eltwise20_elu_conv41_0_split_0
I0930 11:17:10.054666  3537 net.cpp:380] Convolution44 -> Convolution44
I0930 11:17:10.056371  3537 net.cpp:122] Setting up Convolution44
I0930 11:17:10.056380  3537 net.cpp:129] Top shape: 100 64 7 7 (313600)
I0930 11:17:10.056382  3537 net.cpp:137] Memory required for data: 816301200
I0930 11:17:10.056387  3537 layer_factory.hpp:77] Creating layer BatchNorm44
I0930 11:17:10.056393  3537 net.cpp:84] Creating Layer BatchNorm44
I0930 11:17:10.056396  3537 net.cpp:406] BatchNorm44 <- Convolution44
I0930 11:17:10.056401  3537 net.cpp:367] BatchNorm44 -> Convolution44 (in-place)
I0930 11:17:10.056545  3537 net.cpp:122] Setting up BatchNorm44
I0930 11:17:10.056550  3537 net.cpp:129] Top shape: 100 64 7 7 (313600)
I0930 11:17:10.056552  3537 net.cpp:137] Memory required for data: 817555600
I0930 11:17:10.056557  3537 layer_factory.hpp:77] Creating layer Scale44
I0930 11:17:10.056561  3537 net.cpp:84] Creating Layer Scale44
I0930 11:17:10.056563  3537 net.cpp:406] Scale44 <- Convolution44
I0930 11:17:10.056567  3537 net.cpp:367] Scale44 -> Convolution44 (in-place)
I0930 11:17:10.056596  3537 layer_factory.hpp:77] Creating layer Scale44
I0930 11:17:10.056679  3537 net.cpp:122] Setting up Scale44
I0930 11:17:10.056682  3537 net.cpp:129] Top shape: 100 64 7 7 (313600)
I0930 11:17:10.056684  3537 net.cpp:137] Memory required for data: 818810000
I0930 11:17:10.056689  3537 layer_factory.hpp:77] Creating layer elu_conv42
I0930 11:17:10.056692  3537 net.cpp:84] Creating Layer elu_conv42
I0930 11:17:10.056695  3537 net.cpp:406] elu_conv42 <- Convolution44
I0930 11:17:10.056699  3537 net.cpp:367] elu_conv42 -> Convolution44 (in-place)
I0930 11:17:10.056702  3537 net.cpp:122] Setting up elu_conv42
I0930 11:17:10.056705  3537 net.cpp:129] Top shape: 100 64 7 7 (313600)
I0930 11:17:10.056707  3537 net.cpp:137] Memory required for data: 820064400
I0930 11:17:10.056710  3537 layer_factory.hpp:77] Creating layer Convolution45
I0930 11:17:10.056716  3537 net.cpp:84] Creating Layer Convolution45
I0930 11:17:10.056720  3537 net.cpp:406] Convolution45 <- Convolution44
I0930 11:17:10.056723  3537 net.cpp:380] Convolution45 -> Convolution45
I0930 11:17:10.058698  3537 net.cpp:122] Setting up Convolution45
I0930 11:17:10.058706  3537 net.cpp:129] Top shape: 100 64 7 7 (313600)
I0930 11:17:10.058709  3537 net.cpp:137] Memory required for data: 821318800
I0930 11:17:10.058714  3537 layer_factory.hpp:77] Creating layer BatchNorm45
I0930 11:17:10.058719  3537 net.cpp:84] Creating Layer BatchNorm45
I0930 11:17:10.058722  3537 net.cpp:406] BatchNorm45 <- Convolution45
…
I0930 11:17:10.426939  3537 net.cpp:137] Memory required for data: 1031783600
I0930 11:17:10.426944  3537 layer_factory.hpp:77] Creating layer Scale40
I0930 11:17:10.426947  3537 net.cpp:84] Creating Layer Scale40
I0930 11:17:10.426949  3537 net.cpp:406] Scale40 <- Convolution40
I0930 11:17:10.426954  3537 net.cpp:367] Scale40 -> Convolution40 (in-place)
I0930 11:17:10.426978  3537 layer_factory.hpp:77] Creating layer Scale40
I0930 11:17:10.427050  3537 net.cpp:122] Setting up Scale40
I0930 11:17:10.427054  3537 net.cpp:129] Top shape: 100 64 8 8 (409600)
I0930 11:17:10.427057  3537 net.cpp:137] Memory required for data: 1033422000
I0930 11:17:10.427060  3537 layer_factory.hpp:77] Creating layer elu_conv38
I0930 11:17:10.427063  3537 net.cpp:84] Creating Layer elu_conv38
I0930 11:17:10.427067  3537 net.cpp:406] elu_conv38 <- Convolution40
I0930 11:17:10.427069  3537 net.cpp:367] elu_conv38 -> Convolution40 (in-place)
I0930 11:17:10.427073  3537 net.cpp:122] Setting up elu_conv38
I0930 11:17:10.427076  3537 net.cpp:129] Top shape: 100 64 8 8 (409600)
I0930 11:17:10.427078  3537 net.cpp:137] Memory required for data: 1035060400
I0930 11:17:10.427081  3537 layer_factory.hpp:77] Creating layer Convolution41
I0930 11:17:10.427088  3537 net.cpp:84] Creating Layer Convolution41
I0930 11:17:10.427090  3537 net.cpp:406] Convolution41 <- Convolution40
I0930 11:17:10.427093  3537 net.cpp:380] Convolution41 -> Convolution41
I0930 11:17:10.428755  3537 net.cpp:122] Setting up Convolution41
I0930 11:17:10.428764  3537 net.cpp:129] Top shape: 100 64 8 8 (409600)
I0930 11:17:10.428766  3537 net.cpp:137] Memory required for data: 1036698800
I0930 11:17:10.428771  3537 layer_factory.hpp:77] Creating layer BatchNorm41
I0930 11:17:10.428776  3537 net.cpp:84] Creating Layer BatchNorm41
I0930 11:17:10.428779  3537 net.cpp:406] BatchNorm41 <- Convolution41
I0930 11:17:10.428783  3537 net.cpp:367] BatchNorm41 -> Convolution41 (in-place)
I0930 11:17:10.428907  3537 net.cpp:122] Setting up BatchNorm41
I0930 11:17:10.428911  3537 net.cpp:129] Top shape: 100 64 8 8 (409600)
I0930 11:17:10.428915  3537 net.cpp:137] Memory required for data: 1038337200
I0930 11:17:10.428918  3537 layer_factory.hpp:77] Creating layer Scale41
I0930 11:17:10.428922  3537 net.cpp:84] Creating Layer Scale41
I0930 11:17:10.428925  3537 net.cpp:406] Scale41 <- Convolution41
I0930 11:17:10.428928  3537 net.cpp:367] Scale41 -> Convolution41 (in-place)
I0930 11:17:10.428954  3537 layer_factory.hpp:77] Creating layer Scale41
I0930 11:17:10.429024  3537 net.cpp:122] Setting up Scale41
I0930 11:17:10.429028  3537 net.cpp:129] Top shape: 100 64 8 8 (409600)
I0930 11:17:10.429030  3537 net.cpp:137] Memory required for data: 1039975600
I0930 11:17:10.429034  3537 layer_factory.hpp:77] Creating layer Eltwise19
I0930 11:17:10.429039  3537 net.cpp:84] Creating Layer Eltwise19
I0930 11:17:10.429041  3537 net.cpp:406] Eltwise19 <- Convolution39
I0930 11:17:10.429050  3537 net.cpp:406] Eltwise19 <- Convolution41
I0930 11:17:10.429054  3537 net.cpp:380] Eltwise19 -> Eltwise19
I0930 11:17:10.429070  3537 net.cpp:122] Setting up Eltwise19
I0930 11:17:10.429075  3537 net.cpp:129] Top shape: 100 64 8 8 (409600)
I0930 11:17:10.429076  3537 net.cpp:137] Memory required for data: 1041614000
I0930 11:17:10.429078  3537 layer_factory.hpp:77] Creating layer elu_conv39
I0930 11:17:10.429082  3537 net.cpp:84] Creating Layer elu_conv39
I0930 11:17:10.429085  3537 net.cpp:406] elu_conv39 <- Eltwise19
I0930 11:17:10.429088  3537 net.cpp:367] elu_conv39 -> Eltwise19 (in-place)
I0930 11:17:10.429091  3537 net.cpp:122] Setting up elu_conv39
I0930 11:17:10.429095  3537 net.cpp:129] Top shape: 100 64 8 8 (409600)
I0930 11:17:10.429097  3537 net.cpp:137] Memory required for data: 1043252400
I0930 11:17:10.429100  3537 layer_factory.hpp:77] Creating layer Eltwise19_elu_conv39_0_split
I0930 11:17:10.429102  3537 net.cpp:84] Creating Layer Eltwise19_elu_conv39_0_split
I0930 11:17:10.429105  3537 net.cpp:406] Eltwise19_elu_conv39_0_split <- Eltwise19
I0930 11:17:10.429107  3537 net.cpp:380] Eltwise19_elu_conv39_0_split -> Eltwise19_elu_conv39_0_split_0
I0930 11:17:10.429111  3537 net.cpp:380] Eltwise19_elu_conv39_0_split -> Eltwise19_elu_conv39_0_split_1
I0930 11:17:10.429133  3537 net.cpp:122] Setting up Eltwise19_elu_conv39_0_split
I0930 11:17:10.429136  3537 net.cpp:129] Top shape: 100 64 8 8 (409600)
I0930 11:17:10.429139  3537 net.cpp:129] Top shape: 100 64 8 8 (409600)
I0930 11:17:10.429141  3537 net.cpp:137] Memory required for data: 1046529200
I0930 11:17:10.429143  3537 layer_factory.hpp:77] Creating layer Convolution42
I0930 11:17:10.429149  3537 net.cpp:84] Creating Layer Convolution42
I0930 11:17:10.429152  3537 net.cpp:406] Convolution42 <- Eltwise19_elu_conv39_0_split_0
I0930 11:17:10.429157  3537 net.cpp:380] Convolution42 -> Convolution42
I0930 11:17:10.430831  3537 net.cpp:122] Setting up Convolution42
I0930 11:17:10.430840  3537 net.cpp:129] Top shape: 100 64 8 8 (409600)
I0930 11:17:10.430843  3537 net.cpp:137] Memory required for data: 1048167600
I0930 11:17:10.430847  3537 layer_factory.hpp:77] Creating layer BatchNorm42
I0930 11:17:10.430852  3537 net.cpp:84] Creating Layer BatchNorm42
I0930 11:17:10.430855  3537 net.cpp:406] BatchNorm42 <- Convolution42
I0930 11:17:10.430860  3537 net.cpp:367] BatchNorm42 -> Convolution42 (in-place)
I0930 11:17:10.430984  3537 net.cpp:122] Setting up BatchNorm42
I0930 11:17:10.430987  3537 net.cpp:129] Top shape: 100 64 8 8 (409600)
I0930 11:17:10.430989  3537 net.cpp:137] Memory required for data: 1049806000
I0930 11:17:10.430994  3537 layer_factory.hpp:77] Creating layer Scale42
I0930 11:17:10.430999  3537 net.cpp:84] Creating Layer Scale42
I0930 11:17:10.431000  3537 net.cpp:406] Scale42 <- Convolution42
I0930 11:17:10.431005  3537 net.cpp:367] Scale42 -> Convolution42 (in-place)
I0930 11:17:10.431030  3537 layer_factory.hpp:77] Creating layer Scale42
I0930 11:17:10.431102  3537 net.cpp:122] Setting up Scale42
I0930 11:17:10.431107  3537 net.cpp:129] Top shape: 100 64 8 8 (409600)
I0930 11:17:10.431108  3537 net.cpp:137] Memory required for data: 1051444400
I0930 11:17:10.431113  3537 layer_factory.hpp:77] Creating layer elu_conv40
I0930 11:17:10.431115  3537 net.cpp:84] Creating Layer elu_conv40
I0930 11:17:10.431118  3537 net.cpp:406] elu_conv40 <- Convolution42
I0930 11:17:10.431121  3537 net.cpp:367] elu_conv40 -> Convolution42 (in-place)
I0930 11:17:10.431125  3537 net.cpp:122] Setting up elu_conv40
I0930 11:17:10.431128  3537 net.cpp:129] Top shape: 100 64 8 8 (409600)
I0930 11:17:10.431130  3537 net.cpp:137] Memory required for data: 1053082800
I0930 11:17:10.431133  3537 layer_factory.hpp:77] Creating layer Convolution43
I0930 11:17:10.431139  3537 net.cpp:84] Creating Layer Convolution43
I0930 11:17:10.431141  3537 net.cpp:406] Convolution43 <- Convolution42
I0930 11:17:10.431145  3537 net.cpp:380] Convolution43 -> Convolution43
I0930 11:17:10.432803  3537 net.cpp:122] Setting up Convolution43
I0930 11:17:10.432812  3537 net.cpp:129] Top shape: 100 64 8 8 (409600)
I0930 11:17:10.432821  3537 net.cpp:137] Memory required for data: 1054721200
I0930 11:17:10.432826  3537 layer_factory.hpp:77] Creating layer BatchNorm43
I0930 11:17:10.432832  3537 net.cpp:84] Creating Layer BatchNorm43
I0930 11:17:10.432834  3537 net.cpp:406] BatchNorm43 <- Convolution43
I0930 11:17:10.432838  3537 net.cpp:367] BatchNorm43 -> Convolution43 (in-place)
I0930 11:17:10.432965  3537 net.cpp:122] Setting up BatchNorm43
I0930 11:17:10.432968  3537 net.cpp:129] Top shape: 100 64 8 8 (409600)
I0930 11:17:10.432971  3537 net.cpp:137] Memory required for data: 1056359600
I0930 11:17:10.432976  3537 layer_factory.hpp:77] Creating layer Scale43
I0930 11:17:10.432979  3537 net.cpp:84] Creating Layer Scale43
I0930 11:17:10.432981  3537 net.cpp:406] Scale43 <- Convolution43
I0930 11:17:10.432984  3537 net.cpp:367] Scale43 -> Convolution43 (in-place)
I0930 11:17:10.433010  3537 layer_factory.hpp:77] Creating layer Scale43
I0930 11:17:10.433084  3537 net.cpp:122] Setting up Scale43
I0930 11:17:10.433089  3537 net.cpp:129] Top shape: 100 64 8 8 (409600)
I0930 11:17:10.433090  3537 net.cpp:137] Memory required for data: 1057998000
I0930 11:17:10.433094  3537 layer_factory.hpp:77] Creating layer Eltwise20
I0930 11:17:10.433099  3537 net.cpp:84] Creating Layer Eltwise20
I0930 11:17:10.433101  3537 net.cpp:406] Eltwise20 <- Eltwise19_elu_conv39_0_split_1
I0930 11:17:10.433104  3537 net.cpp:406] Eltwise20 <- Convolution43
I0930 11:17:10.433107  3537 net.cpp:380] Eltwise20 -> Eltwise20
I0930 11:17:10.433123  3537 net.cpp:122] Setting up Eltwise20
I0930 11:17:10.433126  3537 net.cpp:129] Top shape: 100 64 8 8 (409600)
I0930 11:17:10.433128  3537 net.cpp:137] Memory required for data: 1059636400
I0930 11:17:10.433130  3537 layer_factory.hpp:77] Creating layer elu_conv41
I0930 11:17:10.433135  3537 net.cpp:84] Creating Layer elu_conv41
I0930 11:17:10.433136  3537 net.cpp:406] elu_conv41 <- Eltwise20
I0930 11:17:10.433140  3537 net.cpp:367] elu_conv41 -> Eltwise20 (in-place)
I0930 11:17:10.433143  3537 net.cpp:122] Setting up elu_conv41
I0930 11:17:10.433146  3537 net.cpp:129] Top shape: 100 64 8 8 (409600)
I0930 11:17:10.433148  3537 net.cpp:137] Memory required for data: 1061274800
I0930 11:17:10.433151  3537 layer_factory.hpp:77] Creating layer Eltwise20_elu_conv41_0_split
I0930 11:17:10.433153  3537 net.cpp:84] Creating Layer Eltwise20_elu_conv41_0_split
I0930 11:17:10.433156  3537 net.cpp:406] Eltwise20_elu_conv41_0_split <- Eltwise20
I0930 11:17:10.433158  3537 net.cpp:380] Eltwise20_elu_conv41_0_split -> Eltwise20_elu_conv41_0_split_0
I0930 11:17:10.433162  3537 net.cpp:380] Eltwise20_elu_conv41_0_split -> Eltwise20_elu_conv41_0_split_1
I0930 11:17:10.433184  3537 net.cpp:122] Setting up Eltwise20_elu_conv41_0_split
I0930 11:17:10.433187  3537 net.cpp:129] Top shape: 100 64 8 8 (409600)
I0930 11:17:10.433190  3537 net.cpp:129] Top shape: 100 64 8 8 (409600)
I0930 11:17:10.450027  3537 net.cpp:137] Memory required for data: 1064551600
I0930 11:17:10.450036  3537 layer_factory.hpp:77] Creating layer Convolution44
I0930 11:17:10.450047  3537 net.cpp:84] Creating Layer Convolution44
I0930 11:17:10.450052  3537 net.cpp:406] Convolution44 <- Eltwise20_elu_conv41_0_split_0
I0930 11:17:10.450057  3537 net.cpp:380] Convolution44 -> Convolution44
I0930 11:17:10.452311  3537 net.cpp:122] Setting up Convolution44
I0930 11:17:10.452322  3537 net.cpp:129] Top shape: 100 64 8 8 (409600)
I0930 11:17:10.452323  3537 net.cpp:137] Memory required for data: 1066190000
I0930 11:17:10.452329  3537 layer_factory.hpp:77] Creating layer BatchNorm44
I0930 11:17:10.452343  3537 net.cpp:84] Creating Layer BatchNorm44
I0930 11:17:10.452347  3537 net.cpp:406] BatchNorm44 <- Convolution44
I0930 11:17:10.452350  3537 net.cpp:367] BatchNorm44 -> Convolution44 (in-place)
I0930 11:17:10.452504  3537 net.cpp:122] Setting up BatchNorm44
I0930 11:17:10.452508  3537 net.cpp:129] Top shape: 100 64 8 8 (409600)
I0930 11:17:10.452512  3537 net.cpp:137] Memory required for data: 1067828400
I0930 11:17:10.452515  3537 layer_factory.hpp:77] Creating layer Scale44
I0930 11:17:10.452527  3537 net.cpp:84] Creating Layer Scale44
I0930 11:17:10.452540  3537 net.cpp:406] Scale44 <- Convolution44
I0930 11:17:10.452544  3537 net.cpp:367] Scale44 -> Convolution44 (in-place)
I0930 11:17:10.452586  3537 layer_factory.hpp:77] Creating layer Scale44
I0930 11:17:10.452680  3537 net.cpp:122] Setting up Scale44
I0930 11:17:10.452687  3537 net.cpp:129] Top shape: 100 64 8 8 (409600)
I0930 11:17:10.452688  3537 net.cpp:137] Memory required for data: 1069466800
I0930 11:17:10.452692  3537 layer_factory.hpp:77] Creating layer elu_conv42
I0930 11:17:10.452697  3537 net.cpp:84] Creating Layer elu_conv42
I0930 11:17:10.452699  3537 net.cpp:406] elu_conv42 <- Convolution44
I0930 11:17:10.452702  3537 net.cpp:367] elu_conv42 -> Convolution44 (in-place)
I0930 11:17:10.452706  3537 net.cpp:122] Setting up elu_conv42
I0930 11:17:10.452709  3537 net.cpp:129] Top shape: 100 64 8 8 (409600)
I0930 11:17:10.452711  3537 net.cpp:137] Memory required for data: 1071105200
I0930 11:17:10.452713  3537 layer_factory.hpp:77] Creating layer Convolution45
I0930 11:17:10.452720  3537 net.cpp:84] Creating Layer Convolution45
I0930 11:17:10.452723  3537 net.cpp:406] Convolution45 <- Convolution44
I0930 11:17:10.452728  3537 net.cpp:380] Convolution45 -> Convolution45
I0930 11:17:10.454668  3537 net.cpp:122] Setting up Convolution45
I0930 11:17:10.454677  3537 net.cpp:129] Top shape: 100 64 8 8 (409600)
I0930 11:17:10.454680  3537 net.cpp:137] Memory required for data: 1072743600
I0930 11:17:10.454685  3537 layer_factory.hpp:77] Creating layer BatchNorm45
I0930 11:17:10.454692  3537 net.cpp:84] Creating Layer BatchNorm45
I0930 11:17:10.454695  3537 net.cpp:406] BatchNorm45 <- Convolution45
I0930 11:17:10.454699  3537 net.cpp:367] BatchNorm45 -> Convolution45 (in-place)
I0930 11:17:10.454828  3537 net.cpp:122] Setting up BatchNorm45
I0930 11:17:10.454833  3537 net.cpp:129] Top shape: 100 64 8 8 (409600)
I0930 11:17:10.454834  3537 net.cpp:137] Memory required for data: 1074382000
I0930 11:17:10.454839  3537 layer_factory.hpp:77] Creating layer Scale45
I0930 11:17:10.454843  3537 net.cpp:84] Creating Layer Scale45
I0930 11:17:10.454846  3537 net.cpp:406] Scale45 <- Convolution45
I0930 11:17:10.454849  3537 net.cpp:367] Scale45 -> Convolution45 (in-place)
I0930 11:17:10.454875  3537 layer_factory.hpp:77] Creating layer Scale45
I0930 11:17:10.454948  3537 net.cpp:122] Setting up Scale45
I0930 11:17:10.454952  3537 net.cpp:129] Top shape: 100 64 8 8 (409600)
I0930 11:17:10.454955  3537 net.cpp:137] Memory required for data: 1076020400
I0930 11:17:10.454958  3537 layer_factory.hpp:77] Creating layer Eltwise21
I0930 11:17:10.454963  3537 net.cpp:84] Creating Layer Eltwise21
I0930 11:17:10.454967  3537 net.cpp:406] Eltwise21 <- Eltwise20_elu_conv41_0_split_1
I0930 11:17:10.454969  3537 net.cpp:406] Eltwise21 <- Convolution45
I0930 11:17:10.454972  3537 net.cpp:380] Eltwise21 -> Eltwise21
I0930 11:17:10.454988  3537 net.cpp:122] Setting up Eltwise21
I0930 11:17:10.454993  3537 net.cpp:129] Top shape: 100 64 8 8 (409600)
I0930 11:17:10.454994  3537 net.cpp:137] Memory required for data: 1077658800
I0930 11:17:10.454996  3537 layer_factory.hpp:77] Creating layer elu_conv43
I0930 11:17:10.454999  3537 net.cpp:84] Creating Layer elu_conv43
I0930 11:17:10.455003  3537 net.cpp:406] elu_conv43 <- Eltwise21
I0930 11:17:10.455005  3537 net.cpp:367] elu_conv43 -> Eltwise21 (in-place)
I0930 11:17:10.455009  3537 net.cpp:122] Setting up elu_conv43
I0930 11:17:10.455013  3537 net.cpp:129] Top shape: 100 64 8 8 (409600)
I0930 11:17:10.455014  3537 net.cpp:137] Memory required for data: 1079297200
I0930 11:17:10.455016  3537 layer_factory.hpp:77] Creating layer Eltwise21_elu_conv43_0_split
I0930 11:17:10.455020  3537 net.cpp:84] Creating Layer Eltwise21_elu_conv43_0_split
I0930 11:17:10.455023  3537 net.cpp:406] Eltwise21_elu_conv43_0_split <- Eltwise21
I0930 11:17:10.455025  3537 net.cpp:380] Eltwise21_elu_conv43_0_split -> Eltwise21_elu_conv43_0_split_0
I0930 11:17:10.455029  3537 net.cpp:380] Eltwise21_elu_conv43_0_split -> Eltwise21_elu_conv43_0_split_1
I0930 11:17:10.455061  3537 net.cpp:122] Setting up Eltwise21_elu_conv43_0_split
I0930 11:17:10.455065  3537 net.cpp:129] Top shape: 100 64 8 8 (409600)
I0930 11:17:10.455068  3537 net.cpp:129] Top shape: 100 64 8 8 (409600)
I0930 11:17:10.455070  3537 net.cpp:137] Memory required for data: 1082574000
I0930 11:17:10.455073  3537 layer_factory.hpp:77] Creating layer Convolution46
I0930 11:17:10.455080  3537 net.cpp:84] Creating Layer Convolution46
I0930 11:17:10.455081  3537 net.cpp:406] Convolution46 <- Eltwise21_elu_conv43_0_split_0
I0930 11:17:10.455087  3537 net.cpp:380] Convolution46 -> Convolution46
I0930 11:17:10.456743  3537 net.cpp:122] Setting up Convolution46
I0930 11:17:10.456753  3537 net.cpp:129] Top shape: 100 64 8 8 (409600)
I0930 11:17:10.456754  3537 net.cpp:137] Memory required for data: 1084212400
I0930 11:17:10.456759  3537 layer_factory.hpp:77] Creating layer BatchNorm46
I0930 11:17:10.456764  3537 net.cpp:84] Creating Layer BatchNorm46
I0930 11:17:10.456766  3537 net.cpp:406] BatchNorm46 <- Convolution46
I0930 11:17:10.456771  3537 net.cpp:367] BatchNorm46 -> Convolution46 (in-place)
I0930 11:17:10.456902  3537 net.cpp:122] Setting up BatchNorm46
I0930 11:17:10.456905  3537 net.cpp:129] Top shape: 100 64 8 8 (409600)
I0930 11:17:10.456907  3537 net.cpp:137] Memory required for data: 1085850800
I0930 11:17:10.456912  3537 layer_factory.hpp:77] Creating layer Scale46
I0930 11:17:10.456917  3537 net.cpp:84] Creating Layer Scale46
I0930 11:17:10.456919  3537 net.cpp:406] Scale46 <- Convolution46
I0930 11:17:10.456923  3537 net.cpp:367] Scale46 -> Convolution46 (in-place)
I0930 11:17:10.456948  3537 layer_factory.hpp:77] Creating layer Scale46
I0930 11:17:10.457020  3537 net.cpp:122] Setting up Scale46
I0930 11:17:10.457026  3537 net.cpp:129] Top shape: 100 64 8 8 (409600)
I0930 11:17:10.457027  3537 net.cpp:137] Memory required for data: 1087489200
I0930 11:17:10.457031  3537 layer_factory.hpp:77] Creating layer elu_conv44
I0930 11:17:10.457034  3537 net.cpp:84] Creating Layer elu_conv44
I0930 11:17:10.457036  3537 net.cpp:406] elu_conv44 <- Convolution46
I0930 11:17:10.457039  3537 net.cpp:367] elu_conv44 -> Convolution46 (in-place)
I0930 11:17:10.457043  3537 net.cpp:122] Setting up elu_conv44
I0930 11:17:10.457046  3537 net.cpp:129] Top shape: 100 64 8 8 (409600)
I0930 11:17:10.457048  3537 net.cpp:137] Memory required for data: 1089127600
I0930 11:17:10.457051  3537 layer_factory.hpp:77] Creating layer Convolution47
I0930 11:17:10.457057  3537 net.cpp:84] Creating Layer Convolution47
I0930 11:17:10.457059  3537 net.cpp:406] Convolution47 <- Convolution46
I0930 11:17:10.457063  3537 net.cpp:380] Convolution47 -> Convolution47
I0930 11:17:10.458746  3537 net.cpp:122] Setting up Convolution47
I0930 11:17:10.458755  3537 net.cpp:129] Top shape: 100 64 8 8 (409600)
I0930 11:17:10.458758  3537 net.cpp:137] Memory required for data: 1090766000
I0930 11:17:10.458763  3537 layer_factory.hpp:77] Creating layer BatchNorm47
I0930 11:17:10.458768  3537 net.cpp:84] Creating Layer BatchNorm47
I0930 11:17:10.458771  3537 net.cpp:406] BatchNorm47 <- Convolution47
I0930 11:17:10.458775  3537 net.cpp:367] BatchNorm47 -> Convolution47 (in-place)
I0930 11:17:10.458900  3537 net.cpp:122] Setting up BatchNorm47
I0930 11:17:10.458905  3537 net.cpp:129] Top shape: 100 64 8 8 (409600)
I0930 11:17:10.458907  3537 net.cpp:137] Memory required for data: 1092404400
I0930 11:17:10.458911  3537 layer_factory.hpp:77] Creating layer Scale47
I0930 11:17:10.458916  3537 net.cpp:84] Creating Layer Scale47
I0930 11:17:10.458920  3537 net.cpp:406] Scale47 <- Convolution47
I0930 11:17:10.458922  3537 net.cpp:367] Scale47 -> Convolution47 (in-place)
I0930 11:17:10.458947  3537 layer_factory.hpp:77] Creating layer Scale47
I0930 11:17:10.459020  3537 net.cpp:122] Setting up Scale47
I0930 11:17:10.459024  3537 net.cpp:129] Top shape: 100 64 8 8 (409600)
I0930 11:17:10.459026  3537 net.cpp:137] Memory required for data: 1094042800
I0930 11:17:10.459030  3537 layer_factory.hpp:77] Creating layer Eltwise22
I0930 11:17:10.459041  3537 net.cpp:84] Creating Layer Eltwise22
I0930 11:17:10.459044  3537 net.cpp:406] Eltwise22 <- Eltwise21_elu_conv43_0_split_1
I0930 11:17:10.459046  3537 net.cpp:406] Eltwise22 <- Convolution47
I0930 11:17:10.459050  3537 net.cpp:380] Eltwise22 -> Eltwise22
I0930 11:17:10.459066  3537 net.cpp:122] Setting up Eltwise22
I0930 11:17:10.459070  3537 net.cpp:129] Top shape: 100 64 8 8 (409600)
I0930 11:17:10.459072  3537 net.cpp:137] Memory required for data: 1095681200
I0930 11:17:10.459074  3537 layer_factory.hpp:77] Creating layer elu_conv45
I0930 11:17:10.459079  3537 net.cpp:84] Creating Layer elu_conv45
I0930 11:17:10.459081  3537 net.cpp:406] elu_conv45 <- Eltwise22
I0930 11:17:10.459084  3537 net.cpp:367] elu_conv45 -> Eltwise22 (in-place)
I0930 11:17:10.459087  3537 net.cpp:122] Setting up elu_conv45
I0930 11:17:10.459090  3537 net.cpp:129] Top shape: 100 64 8 8 (409600)
I0930 11:17:10.459092  3537 net.cpp:137] Memory required for data: 1097319600
I0930 11:17:10.459095  3537 layer_factory.hpp:77] Creating layer Eltwise22_elu_conv45_0_split
I0930 11:17:10.459098  3537 net.cpp:84] Creating Layer Eltwise22_elu_conv45_0_split
I0930 11:17:10.459100  3537 net.cpp:406] Eltwise22_elu_conv45_0_split <- Eltwise22
I0930 11:17:10.459103  3537 net.cpp:380] Eltwise22_elu_conv45_0_split -> Eltwise22_elu_conv45_0_split_0
I0930 11:17:10.459107  3537 net.cpp:380] Eltwise22_elu_conv45_0_split -> Eltwise22_elu_conv45_0_split_1
I0930 11:17:10.459128  3537 net.cpp:122] Setting up Eltwise22_elu_conv45_0_split
I0930 11:17:10.459132  3537 net.cpp:129] Top shape: 100 64 8 8 (409600)
I0930 11:17:10.459136  3537 net.cpp:129] Top shape: 100 64 8 8 (409600)
I0930 11:17:10.459137  3537 net.cpp:137] Memory required for data: 1100596400
I0930 11:17:10.459139  3537 layer_factory.hpp:77] Creating layer Convolution48
I0930 11:17:10.459146  3537 net.cpp:84] Creating Layer Convolution48
I0930 11:17:10.459148  3537 net.cpp:406] Convolution48 <- Eltwise22_elu_conv45_0_split_0
I0930 11:17:10.459152  3537 net.cpp:380] Convolution48 -> Convolution48
I0930 11:17:10.461122  3537 net.cpp:122] Setting up Convolution48
I0930 11:17:10.461129  3537 net.cpp:129] Top shape: 100 64 8 8 (409600)
I0930 11:17:10.461133  3537 net.cpp:137] Memory required for data: 1102234800
I0930 11:17:10.461136  3537 layer_factory.hpp:77] Creating layer BatchNorm48
I0930 11:17:10.461143  3537 net.cpp:84] Creating Layer BatchNorm48
I0930 11:17:10.461145  3537 net.cpp:406] BatchNorm48 <- Convolution48
I0930 11:17:10.461149  3537 net.cpp:367] BatchNorm48 -> Convolution48 (in-place)
I0930 11:17:10.461278  3537 net.cpp:122] Setting up BatchNorm48
I0930 11:17:10.461283  3537 net.cpp:129] Top shape: 100 64 8 8 (409600)
I0930 11:17:10.461285  3537 net.cpp:137] Memory required for data: 1103873200
I0930 11:17:10.461290  3537 layer_factory.hpp:77] Creating layer Scale48
I0930 11:17:10.461295  3537 net.cpp:84] Creating Layer Scale48
I0930 11:17:10.461297  3537 net.cpp:406] Scale48 <- Convolution48
I0930 11:17:10.461300  3537 net.cpp:367] Scale48 -> Convolution48 (in-place)
I0930 11:17:10.461326  3537 layer_factory.hpp:77] Creating layer Scale48
I0930 11:17:10.461400  3537 net.cpp:122] Setting up Scale48
I0930 11:17:10.461403  3537 net.cpp:129] Top shape: 100 64 8 8 (409600)
I0930 11:17:10.461406  3537 net.cpp:137] Memory required for data: 1105511600
I0930 11:17:10.461410  3537 layer_factory.hpp:77] Creating layer elu_conv46
I0930 11:17:10.461413  3537 net.cpp:84] Creating Layer elu_conv46
I0930 11:17:10.461416  3537 net.cpp:406] elu_conv46 <- Convolution48
I0930 11:17:10.461419  3537 net.cpp:367] elu_conv46 -> Convolution48 (in-place)
I0930 11:17:10.461423  3537 net.cpp:122] Setting up elu_conv46
I0930 11:17:10.461426  3537 net.cpp:129] Top shape: 100 64 8 8 (409600)
I0930 11:17:10.461428  3537 net.cpp:137] Memory required for data: 1107150000
I0930 11:17:10.461431  3537 layer_factory.hpp:77] Creating layer Convolution49
I0930 11:17:10.461437  3537 net.cpp:84] Creating Layer Convolution49
I0930 11:17:10.461439  3537 net.cpp:406] Convolution49 <- Convolution48
I0930 11:17:10.461450  3537 net.cpp:380] Convolution49 -> Convolution49
I0930 11:17:10.463462  3537 net.cpp:122] Setting up Convolution49
I0930 11:17:10.463471  3537 net.cpp:129] Top shape: 100 64 8 8 (409600)
I0930 11:17:10.463474  3537 net.cpp:137] Memory required for data: 1108788400
I0930 11:17:10.463479  3537 layer_factory.hpp:77] Creating layer BatchNorm49
I0930 11:17:10.463485  3537 net.cpp:84] Creating Layer BatchNorm49
I0930 11:17:10.463487  3537 net.cpp:406] BatchNorm49 <- Convolution49
I0930 11:17:10.463491  3537 net.cpp:367] BatchNorm49 -> Convolution49 (in-place)
I0930 11:17:10.463618  3537 net.cpp:122] Setting up BatchNorm49
I0930 11:17:10.463623  3537 net.cpp:129] Top shape: 100 64 8 8 (409600)
I0930 11:17:10.463624  3537 net.cpp:137] Memory required for data: 1110426800
I0930 11:17:10.463629  3537 layer_factory.hpp:77] Creating layer Scale49
I0930 11:17:10.463634  3537 net.cpp:84] Creating Layer Scale49
I0930 11:17:10.463636  3537 net.cpp:406] Scale49 <- Convolution49
I0930 11:17:10.463640  3537 net.cpp:367] Scale49 -> Convolution49 (in-place)
I0930 11:17:10.463665  3537 layer_factory.hpp:77] Creating layer Scale49
I0930 11:17:10.463739  3537 net.cpp:122] Setting up Scale49
I0930 11:17:10.463743  3537 net.cpp:129] Top shape: 100 64 8 8 (409600)
I0930 11:17:10.463745  3537 net.cpp:137] Memory required for data: 1112065200
I0930 11:17:10.463749  3537 layer_factory.hpp:77] Creating layer Eltwise23
I0930 11:17:10.463753  3537 net.cpp:84] Creating Layer Eltwise23
I0930 11:17:10.463757  3537 net.cpp:406] Eltwise23 <- Eltwise22_elu_conv45_0_split_1
I0930 11:17:10.463758  3537 net.cpp:406] Eltwise23 <- Convolution49
I0930 11:17:10.463763  3537 net.cpp:380] Eltwise23 -> Eltwise23
I0930 11:17:10.463778  3537 net.cpp:122] Setting up Eltwise23
I0930 11:17:10.463781  3537 net.cpp:129] Top shape: 100 64 8 8 (409600)
I0930 11:17:10.463783  3537 net.cpp:137] Memory required for data: 1113703600
I0930 11:17:10.463785  3537 layer_factory.hpp:77] Creating layer elu_conv47
I0930 11:17:10.463789  3537 net.cpp:84] Creating Layer elu_conv47
I0930 11:17:10.463793  3537 net.cpp:406] elu_conv47 <- Eltwise23
I0930 11:17:10.463794  3537 net.cpp:367] elu_conv47 -> Eltwise23 (in-place)
I0930 11:17:10.463798  3537 net.cpp:122] Setting up elu_conv47
I0930 11:17:10.463801  3537 net.cpp:129] Top shape: 100 64 8 8 (409600)
I0930 11:17:10.463804  3537 net.cpp:137] Memory required for data: 1115342000
I0930 11:17:10.463805  3537 layer_factory.hpp:77] Creating layer Eltwise23_elu_conv47_0_split
I0930 11:17:10.463809  3537 net.cpp:84] Creating Layer Eltwise23_elu_conv47_0_split
I0930 11:17:10.463811  3537 net.cpp:406] Eltwise23_elu_conv47_0_split <- Eltwise23
I0930 11:17:10.463814  3537 net.cpp:380] Eltwise23_elu_conv47_0_split -> Eltwise23_elu_conv47_0_split_0
I0930 11:17:10.463819  3537 net.cpp:380] Eltwise23_elu_conv47_0_split -> Eltwise23_elu_conv47_0_split_1
I0930 11:17:10.480749  3537 net.cpp:122] Setting up Eltwise23_elu_conv47_0_split
I0930 11:17:10.480756  3537 net.cpp:129] Top shape: 100 64 8 8 (409600)
I0930 11:17:10.480760  3537 net.cpp:129] Top shape: 100 64 8 8 (409600)
I0930 11:17:10.480762  3537 net.cpp:137] Memory required for data: 1118618800
I0930 11:17:10.480764  3537 layer_factory.hpp:77] Creating layer Convolution50
I0930 11:17:10.480773  3537 net.cpp:84] Creating Layer Convolution50
I0930 11:17:10.480777  3537 net.cpp:406] Convolution50 <- Eltwise23_elu_conv47_0_split_0
I0930 11:17:10.480782  3537 net.cpp:380] Convolution50 -> Convolution50
I0930 11:17:10.483861  3537 net.cpp:122] Setting up Convolution50
I0930 11:17:10.483871  3537 net.cpp:129] Top shape: 100 64 8 8 (409600)
I0930 11:17:10.483875  3537 net.cpp:137] Memory required for data: 1120257200
I0930 11:17:10.483880  3537 layer_factory.hpp:77] Creating layer BatchNorm50
I0930 11:17:10.483886  3537 net.cpp:84] Creating Layer BatchNorm50
I0930 11:17:10.483887  3537 net.cpp:406] BatchNorm50 <- Convolution50
I0930 11:17:10.483891  3537 net.cpp:367] BatchNorm50 -> Convolution50 (in-place)
I0930 11:17:10.484027  3537 net.cpp:122] Setting up BatchNorm50
I0930 11:17:10.484032  3537 net.cpp:129] Top shape: 100 64 8 8 (409600)
I0930 11:17:10.484041  3537 net.cpp:137] Memory required for data: 1121895600
I0930 11:17:10.484046  3537 layer_factory.hpp:77] Creating layer Scale50
I0930 11:17:10.484051  3537 net.cpp:84] Creating Layer Scale50
I0930 11:17:10.484053  3537 net.cpp:406] Scale50 <- Convolution50
I0930 11:17:10.484057  3537 net.cpp:367] Scale50 -> Convolution50 (in-place)
I0930 11:17:10.484086  3537 layer_factory.hpp:77] Creating layer Scale50
I0930 11:17:10.484160  3537 net.cpp:122] Setting up Scale50
I0930 11:17:10.484164  3537 net.cpp:129] Top shape: 100 64 8 8 (409600)
I0930 11:17:10.484167  3537 net.cpp:137] Memory required for data: 1123534000
I0930 11:17:10.484170  3537 layer_factory.hpp:77] Creating layer elu_conv48
I0930 11:17:10.484174  3537 net.cpp:84] Creating Layer elu_conv48
I0930 11:17:10.484177  3537 net.cpp:406] elu_conv48 <- Convolution50
I0930 11:17:10.484180  3537 net.cpp:367] elu_conv48 -> Convolution50 (in-place)
I0930 11:17:10.484184  3537 net.cpp:122] Setting up elu_conv48
I0930 11:17:10.484187  3537 net.cpp:129] Top shape: 100 64 8 8 (409600)
I0930 11:17:10.484189  3537 net.cpp:137] Memory required for data: 1125172400
I0930 11:17:10.484191  3537 layer_factory.hpp:77] Creating layer Convolution51
I0930 11:17:10.484199  3537 net.cpp:84] Creating Layer Convolution51
I0930 11:17:10.484200  3537 net.cpp:406] Convolution51 <- Convolution50
I0930 11:17:10.484205  3537 net.cpp:380] Convolution51 -> Convolution51
I0930 11:17:10.486039  3537 net.cpp:122] Setting up Convolution51
I0930 11:17:10.486048  3537 net.cpp:129] Top shape: 100 64 8 8 (409600)
I0930 11:17:10.486050  3537 net.cpp:137] Memory required for data: 1126810800
I0930 11:17:10.486055  3537 layer_factory.hpp:77] Creating layer BatchNorm51
I0930 11:17:10.486060  3537 net.cpp:84] Creating Layer BatchNorm51
I0930 11:17:10.486063  3537 net.cpp:406] BatchNorm51 <- Convolution51
I0930 11:17:10.486068  3537 net.cpp:367] BatchNorm51 -> Convolution51 (in-place)
I0930 11:17:10.486194  3537 net.cpp:122] Setting up BatchNorm51
I0930 11:17:10.486198  3537 net.cpp:129] Top shape: 100 64 8 8 (409600)
I0930 11:17:10.486201  3537 net.cpp:137] Memory required for data: 1128449200
I0930 11:17:10.486205  3537 layer_factory.hpp:77] Creating layer Scale51
I0930 11:17:10.486209  3537 net.cpp:84] Creating Layer Scale51
I0930 11:17:10.486212  3537 net.cpp:406] Scale51 <- Convolution51
I0930 11:17:10.486215  3537 net.cpp:367] Scale51 -> Convolution51 (in-place)
I0930 11:17:10.486243  3537 layer_factory.hpp:77] Creating layer Scale51
I0930 11:17:10.486315  3537 net.cpp:122] Setting up Scale51
I0930 11:17:10.486320  3537 net.cpp:129] Top shape: 100 64 8 8 (409600)
I0930 11:17:10.486321  3537 net.cpp:137] Memory required for data: 1130087600
I0930 11:17:10.486325  3537 layer_factory.hpp:77] Creating layer Eltwise24
I0930 11:17:10.486331  3537 net.cpp:84] Creating Layer Eltwise24
I0930 11:17:10.486335  3537 net.cpp:406] Eltwise24 <- Eltwise23_elu_conv47_0_split_1
I0930 11:17:10.486337  3537 net.cpp:406] Eltwise24 <- Convolution51
I0930 11:17:10.486341  3537 net.cpp:380] Eltwise24 -> Eltwise24
I0930 11:17:10.486356  3537 net.cpp:122] Setting up Eltwise24
I0930 11:17:10.486361  3537 net.cpp:129] Top shape: 100 64 8 8 (409600)
I0930 11:17:10.486362  3537 net.cpp:137] Memory required for data: 1131726000
I0930 11:17:10.486364  3537 layer_factory.hpp:77] Creating layer elu_conv49
I0930 11:17:10.486368  3537 net.cpp:84] Creating Layer elu_conv49
I0930 11:17:10.486371  3537 net.cpp:406] elu_conv49 <- Eltwise24
I0930 11:17:10.486374  3537 net.cpp:367] elu_conv49 -> Eltwise24 (in-place)
I0930 11:17:10.486378  3537 net.cpp:122] Setting up elu_conv49
I0930 11:17:10.486382  3537 net.cpp:129] Top shape: 100 64 8 8 (409600)
I0930 11:17:10.486383  3537 net.cpp:137] Memory required for data: 1133364400
I0930 11:17:10.486385  3537 layer_factory.hpp:77] Creating layer Eltwise24_elu_conv49_0_split
I0930 11:17:10.486389  3537 net.cpp:84] Creating Layer Eltwise24_elu_conv49_0_split
I0930 11:17:10.486392  3537 net.cpp:406] Eltwise24_elu_conv49_0_split <- Eltwise24
I0930 11:17:10.486400  3537 net.cpp:380] Eltwise24_elu_conv49_0_split -> Eltwise24_elu_conv49_0_split_0
I0930 11:17:10.486404  3537 net.cpp:380] Eltwise24_elu_conv49_0_split -> Eltwise24_elu_conv49_0_split_1
I0930 11:17:10.486439  3537 net.cpp:122] Setting up Eltwise24_elu_conv49_0_split
I0930 11:17:10.486443  3537 net.cpp:129] Top shape: 100 64 8 8 (409600)
I0930 11:17:10.486448  3537 net.cpp:129] Top shape: 100 64 8 8 (409600)
I0930 11:17:10.486449  3537 net.cpp:137] Memory required for data: 1136641200
I0930 11:17:10.486452  3537 layer_factory.hpp:77] Creating layer Convolution52
I0930 11:17:10.486459  3537 net.cpp:84] Creating Layer Convolution52
I0930 11:17:10.486462  3537 net.cpp:406] Convolution52 <- Eltwise24_elu_conv49_0_split_0
I0930 11:17:10.486467  3537 net.cpp:380] Convolution52 -> Convolution52
I0930 11:17:10.488467  3537 net.cpp:122] Setting up Convolution52
I0930 11:17:10.488476  3537 net.cpp:129] Top shape: 100 64 8 8 (409600)
I0930 11:17:10.488478  3537 net.cpp:137] Memory required for data: 1138279600
I0930 11:17:10.488483  3537 layer_factory.hpp:77] Creating layer BatchNorm52
I0930 11:17:10.488488  3537 net.cpp:84] Creating Layer BatchNorm52
I0930 11:17:10.488492  3537 net.cpp:406] BatchNorm52 <- Convolution52
I0930 11:17:10.488495  3537 net.cpp:367] BatchNorm52 -> Convolution52 (in-place)
I0930 11:17:10.488629  3537 net.cpp:122] Setting up BatchNorm52
I0930 11:17:10.488634  3537 net.cpp:129] Top shape: 100 64 8 8 (409600)
I0930 11:17:10.488636  3537 net.cpp:137] Memory required for data: 1139918000
I0930 11:17:10.488641  3537 layer_factory.hpp:77] Creating layer Scale52
I0930 11:17:10.488644  3537 net.cpp:84] Creating Layer Scale52
I0930 11:17:10.488647  3537 net.cpp:406] Scale52 <- Convolution52
I0930 11:17:10.488651  3537 net.cpp:367] Scale52 -> Convolution52 (in-place)
I0930 11:17:10.488677  3537 layer_factory.hpp:77] Creating layer Scale52
I0930 11:17:10.488751  3537 net.cpp:122] Setting up Scale52
I0930 11:17:10.488755  3537 net.cpp:129] Top shape: 100 64 8 8 (409600)
I0930 11:17:10.488757  3537 net.cpp:137] Memory required for data: 1141556400
I0930 11:17:10.488761  3537 layer_factory.hpp:77] Creating layer elu_conv50
I0930 11:17:10.488790  3537 net.cpp:84] Creating Layer elu_conv50
I0930 11:17:10.488792  3537 net.cpp:406] elu_conv50 <- Convolution52
I0930 11:17:10.488795  3537 net.cpp:367] elu_conv50 -> Convolution52 (in-place)
I0930 11:17:10.488800  3537 net.cpp:122] Setting up elu_conv50
I0930 11:17:10.488802  3537 net.cpp:129] Top shape: 100 64 8 8 (409600)
I0930 11:17:10.488804  3537 net.cpp:137] Memory required for data: 1143194800
I0930 11:17:10.488807  3537 layer_factory.hpp:77] Creating layer Convolution53
I0930 11:17:10.488812  3537 net.cpp:84] Creating Layer Convolution53
I0930 11:17:10.488816  3537 net.cpp:406] Convolution53 <- Convolution52
I0930 11:17:10.488819  3537 net.cpp:380] Convolution53 -> Convolution53
I0930 11:17:10.490492  3537 net.cpp:122] Setting up Convolution53
I0930 11:17:10.490501  3537 net.cpp:129] Top shape: 100 64 8 8 (409600)
I0930 11:17:10.490504  3537 net.cpp:137] Memory required for data: 1144833200
I0930 11:17:10.490509  3537 layer_factory.hpp:77] Creating layer BatchNorm53
I0930 11:17:10.490515  3537 net.cpp:84] Creating Layer BatchNorm53
I0930 11:17:10.490519  3537 net.cpp:406] BatchNorm53 <- Convolution53
I0930 11:17:10.490525  3537 net.cpp:367] BatchNorm53 -> Convolution53 (in-place)
I0930 11:17:10.490655  3537 net.cpp:122] Setting up BatchNorm53
I0930 11:17:10.490659  3537 net.cpp:129] Top shape: 100 64 8 8 (409600)
I0930 11:17:10.490662  3537 net.cpp:137] Memory required for data: 1146471600
I0930 11:17:10.490666  3537 layer_factory.hpp:77] Creating layer Scale53
I0930 11:17:10.490670  3537 net.cpp:84] Creating Layer Scale53
I0930 11:17:10.490674  3537 net.cpp:406] Scale53 <- Convolution53
I0930 11:17:10.490676  3537 net.cpp:367] Scale53 -> Convolution53 (in-place)
I0930 11:17:10.490702  3537 layer_factory.hpp:77] Creating layer Scale53
I0930 11:17:10.490777  3537 net.cpp:122] Setting up Scale53
I0930 11:17:10.490780  3537 net.cpp:129] Top shape: 100 64 8 8 (409600)
I0930 11:17:10.490788  3537 net.cpp:137] Memory required for data: 1148110000
I0930 11:17:10.490793  3537 layer_factory.hpp:77] Creating layer Eltwise25
I0930 11:17:10.490797  3537 net.cpp:84] Creating Layer Eltwise25
I0930 11:17:10.490800  3537 net.cpp:406] Eltwise25 <- Eltwise24_elu_conv49_0_split_1
I0930 11:17:10.490803  3537 net.cpp:406] Eltwise25 <- Convolution53
I0930 11:17:10.490806  3537 net.cpp:380] Eltwise25 -> Eltwise25
I0930 11:17:10.490823  3537 net.cpp:122] Setting up Eltwise25
I0930 11:17:10.490828  3537 net.cpp:129] Top shape: 100 64 8 8 (409600)
I0930 11:17:10.490829  3537 net.cpp:137] Memory required for data: 1149748400
I0930 11:17:10.490831  3537 layer_factory.hpp:77] Creating layer elu_conv51
I0930 11:17:10.490834  3537 net.cpp:84] Creating Layer elu_conv51
I0930 11:17:10.490838  3537 net.cpp:406] elu_conv51 <- Eltwise25
I0930 11:17:10.490840  3537 net.cpp:367] elu_conv51 -> Eltwise25 (in-place)
I0930 11:17:10.490844  3537 net.cpp:122] Setting up elu_conv51
I0930 11:17:10.490846  3537 net.cpp:129] Top shape: 100 64 8 8 (409600)
I0930 11:17:10.490849  3537 net.cpp:137] Memory required for data: 1151386800
I0930 11:17:10.490851  3537 layer_factory.hpp:77] Creating layer Eltwise25_elu_conv51_0_split
I0930 11:17:10.490854  3537 net.cpp:84] Creating Layer Eltwise25_elu_conv51_0_split
I0930 11:17:10.490856  3537 net.cpp:406] Eltwise25_elu_conv51_0_split <- Eltwise25
I0930 11:17:10.490859  3537 net.cpp:380] Eltwise25_elu_conv51_0_split -> Eltwise25_elu_conv51_0_split_0
I0930 11:17:10.490864  3537 net.cpp:380] Eltwise25_elu_conv51_0_split -> Eltwise25_elu_conv51_0_split_1
I0930 11:17:10.490886  3537 net.cpp:122] Setting up Eltwise25_elu_conv51_0_split
I0930 11:17:10.490890  3537 net.cpp:129] Top shape: 100 64 8 8 (409600)
I0930 11:17:10.490893  3537 net.cpp:129] Top shape: 100 64 8 8 (409600)
I0930 11:17:10.490895  3537 net.cpp:137] Memory required for data: 1154663600
I0930 11:17:10.490897  3537 layer_factory.hpp:77] Creating layer Convolution54
I0930 11:17:10.490905  3537 net.cpp:84] Creating Layer Convolution54
I0930 11:17:10.490906  3537 net.cpp:406] Convolution54 <- Eltwise25_elu_conv51_0_split_0
I0930 11:17:10.490911  3537 net.cpp:380] Convolution54 -> Convolution54
I0930 11:17:10.492892  3537 net.cpp:122] Setting up Convolution54
I0930 11:17:10.492899  3537 net.cpp:129] Top shape: 100 64 8 8 (409600)
I0930 11:17:10.492902  3537 net.cpp:137] Memory required for data: 1156302000
I0930 11:17:10.492908  3537 layer_factory.hpp:77] Creating layer BatchNorm54
I0930 11:17:10.492913  3537 net.cpp:84] Creating Layer BatchNorm54
I0930 11:17:10.492915  3537 net.cpp:406] BatchNorm54 <- Convolution54
I0930 11:17:10.492919  3537 net.cpp:367] BatchNorm54 -> Convolution54 (in-place)
I0930 11:17:10.493055  3537 net.cpp:122] Setting up BatchNorm54
I0930 11:17:10.493060  3537 net.cpp:129] Top shape: 100 64 8 8 (409600)
I0930 11:17:10.493062  3537 net.cpp:137] Memory required for data: 1157940400
I0930 11:17:10.493067  3537 layer_factory.hpp:77] Creating layer Scale54
I0930 11:17:10.493072  3537 net.cpp:84] Creating Layer Scale54
I0930 11:17:10.493073  3537 net.cpp:406] Scale54 <- Convolution54
I0930 11:17:10.493077  3537 net.cpp:367] Scale54 -> Convolution54 (in-place)
I0930 11:17:10.493104  3537 layer_factory.hpp:77] Creating layer Scale54
I0930 11:17:10.493180  3537 net.cpp:122] Setting up Scale54
I0930 11:17:10.493185  3537 net.cpp:129] Top shape: 100 64 8 8 (409600)
I0930 11:17:10.493187  3537 net.cpp:137] Memory required for data: 1159578800
I0930 11:17:10.493191  3537 layer_factory.hpp:77] Creating layer elu_conv52
I0930 11:17:10.493196  3537 net.cpp:84] Creating Layer elu_conv52
I0930 11:17:10.493197  3537 net.cpp:406] elu_conv52 <- Convolution54
I0930 11:17:10.493201  3537 net.cpp:367] elu_conv52 -> Convolution54 (in-place)
I0930 11:17:10.493203  3537 net.cpp:122] Setting up elu_conv52
I0930 11:17:10.493207  3537 net.cpp:129] Top shape: 100 64 8 8 (409600)
I0930 11:17:10.493209  3537 net.cpp:137] Memory required for data: 1161217200
I0930 11:17:10.493211  3537 layer_factory.hpp:77] Creating layer Convolution55
I0930 11:17:10.493224  3537 net.cpp:84] Creating Layer Convolution55
I0930 11:17:10.493227  3537 net.cpp:406] Convolution55 <- Convolution54
I0930 11:17:10.493232  3537 net.cpp:380] Convolution55 -> Convolution55
I0930 11:17:10.494912  3537 net.cpp:122] Setting up Convolution55
I0930 11:17:10.494921  3537 net.cpp:129] Top shape: 100 64 8 8 (409600)
I0930 11:17:10.494923  3537 net.cpp:137] Memory required for data: 1162855600
I0930 11:17:10.494928  3537 layer_factory.hpp:77] Creating layer BatchNorm55
I0930 11:17:10.494933  3537 net.cpp:84] Creating Layer BatchNorm55
I0930 11:17:10.494936  3537 net.cpp:406] BatchNorm55 <- Convolution55
I0930 11:17:10.494940  3537 net.cpp:367] BatchNorm55 -> Convolution55 (in-place)
I0930 11:17:10.495072  3537 net.cpp:122] Setting up BatchNorm55
I0930 11:17:10.495076  3537 net.cpp:129] Top shape: 100 64 8 8 (409600)
I0930 11:17:10.495079  3537 net.cpp:137] Memory required for data: 1164494000
I0930 11:17:10.495084  3537 layer_factory.hpp:77] Creating layer Scale55
I0930 11:17:10.495088  3537 net.cpp:84] Creating Layer Scale55
I0930 11:17:10.495091  3537 net.cpp:406] Scale55 <- Convolution55
I0930 11:17:10.495095  3537 net.cpp:367] Scale55 -> Convolution55 (in-place)
I0930 11:17:10.495120  3537 layer_factory.hpp:77] Creating layer Scale55
I0930 11:17:10.495194  3537 net.cpp:122] Setting up Scale55
I0930 11:17:10.495198  3537 net.cpp:129] Top shape: 100 64 8 8 (409600)
I0930 11:17:10.495200  3537 net.cpp:137] Memory required for data: 1166132400
I0930 11:17:10.495204  3537 layer_factory.hpp:77] Creating layer Eltwise26
I0930 11:17:10.495208  3537 net.cpp:84] Creating Layer Eltwise26
I0930 11:17:10.495211  3537 net.cpp:406] Eltwise26 <- Eltwise25_elu_conv51_0_split_1
I0930 11:17:10.495214  3537 net.cpp:406] Eltwise26 <- Convolution55
I0930 11:17:10.495218  3537 net.cpp:380] Eltwise26 -> Eltwise26
I0930 11:17:10.495232  3537 net.cpp:122] Setting up Eltwise26
I0930 11:17:10.495236  3537 net.cpp:129] Top shape: 100 64 8 8 (409600)
I0930 11:17:10.495239  3537 net.cpp:137] Memory required for data: 1167770800
I0930 11:17:10.495240  3537 layer_factory.hpp:77] Creating layer elu_conv53
I0930 11:17:10.495244  3537 net.cpp:84] Creating Layer elu_conv53
I0930 11:17:10.495246  3537 net.cpp:406] elu_conv53 <- Eltwise26
I0930 11:17:10.495250  3537 net.cpp:367] elu_conv53 -> Eltwise26 (in-place)
I0930 11:17:10.495254  3537 net.cpp:122] Setting up elu_conv53
I0930 11:17:10.495257  3537 net.cpp:129] Top shape: 100 64 8 8 (409600)
I0930 11:17:10.495260  3537 net.cpp:137] Memory required for data: 1169409200
I0930 11:17:10.495261  3537 layer_factory.hpp:77] Creating layer Eltwise26_elu_conv53_0_split
I0930 11:17:10.495265  3537 net.cpp:84] Creating Layer Eltwise26_elu_conv53_0_split
I0930 11:17:10.511576  3537 net.cpp:406] Eltwise26_elu_conv53_0_split <- Eltwise26
I0930 11:17:10.511586  3537 net.cpp:380] Eltwise26_elu_conv53_0_split -> Eltwise26_elu_conv53_0_split_0
I0930 11:17:10.511593  3537 net.cpp:380] Eltwise26_elu_conv53_0_split -> Eltwise26_elu_conv53_0_split_1
I0930 11:17:10.511631  3537 net.cpp:122] Setting up Eltwise26_elu_conv53_0_split
I0930 11:17:10.511636  3537 net.cpp:129] Top shape: 100 64 8 8 (409600)
I0930 11:17:10.511639  3537 net.cpp:129] Top shape: 100 64 8 8 (409600)
I0930 11:17:10.511641  3537 net.cpp:137] Memory required for data: 1172686000
I0930 11:17:10.511644  3537 layer_factory.hpp:77] Creating layer Convolution56
I0930 11:17:10.511651  3537 net.cpp:84] Creating Layer Convolution56
I0930 11:17:10.511654  3537 net.cpp:406] Convolution56 <- Eltwise26_elu_conv53_0_split_0
I0930 11:17:10.511659  3537 net.cpp:380] Convolution56 -> Convolution56
I0930 11:17:10.513521  3537 net.cpp:122] Setting up Convolution56
I0930 11:17:10.513530  3537 net.cpp:129] Top shape: 100 64 8 8 (409600)
I0930 11:17:10.513533  3537 net.cpp:137] Memory required for data: 1174324400
I0930 11:17:10.513540  3537 layer_factory.hpp:77] Creating layer BatchNorm56
I0930 11:17:10.513545  3537 net.cpp:84] Creating Layer BatchNorm56
I0930 11:17:10.513548  3537 net.cpp:406] BatchNorm56 <- Convolution56
I0930 11:17:10.513561  3537 net.cpp:367] BatchNorm56 -> Convolution56 (in-place)
I0930 11:17:10.513702  3537 net.cpp:122] Setting up BatchNorm56
I0930 11:17:10.513707  3537 net.cpp:129] Top shape: 100 64 8 8 (409600)
I0930 11:17:10.513710  3537 net.cpp:137] Memory required for data: 1175962800
I0930 11:17:10.513715  3537 layer_factory.hpp:77] Creating layer Scale56
I0930 11:17:10.513720  3537 net.cpp:84] Creating Layer Scale56
I0930 11:17:10.513721  3537 net.cpp:406] Scale56 <- Convolution56
I0930 11:17:10.513725  3537 net.cpp:367] Scale56 -> Convolution56 (in-place)
I0930 11:17:10.513753  3537 layer_factory.hpp:77] Creating layer Scale56
I0930 11:17:10.513833  3537 net.cpp:122] Setting up Scale56
I0930 11:17:10.513836  3537 net.cpp:129] Top shape: 100 64 8 8 (409600)
I0930 11:17:10.513839  3537 net.cpp:137] Memory required for data: 1177601200
I0930 11:17:10.513842  3537 layer_factory.hpp:77] Creating layer elu_conv54
I0930 11:17:10.513846  3537 net.cpp:84] Creating Layer elu_conv54
I0930 11:17:10.513849  3537 net.cpp:406] elu_conv54 <- Convolution56
I0930 11:17:10.513852  3537 net.cpp:367] elu_conv54 -> Convolution56 (in-place)
I0930 11:17:10.513855  3537 net.cpp:122] Setting up elu_conv54
I0930 11:17:10.513859  3537 net.cpp:129] Top shape: 100 64 8 8 (409600)
I0930 11:17:10.513861  3537 net.cpp:137] Memory required for data: 1179239600
I0930 11:17:10.513864  3537 layer_factory.hpp:77] Creating layer Convolution57
I0930 11:17:10.513870  3537 net.cpp:84] Creating Layer Convolution57
I0930 11:17:10.513873  3537 net.cpp:406] Convolution57 <- Convolution56
I0930 11:17:10.513877  3537 net.cpp:380] Convolution57 -> Convolution57
I0930 11:17:10.516026  3537 net.cpp:122] Setting up Convolution57
I0930 11:17:10.516036  3537 net.cpp:129] Top shape: 100 64 8 8 (409600)
I0930 11:17:10.516039  3537 net.cpp:137] Memory required for data: 1180878000
I0930 11:17:10.516044  3537 layer_factory.hpp:77] Creating layer BatchNorm57
I0930 11:17:10.516050  3537 net.cpp:84] Creating Layer BatchNorm57
I0930 11:17:10.516053  3537 net.cpp:406] BatchNorm57 <- Convolution57
I0930 11:17:10.516057  3537 net.cpp:367] BatchNorm57 -> Convolution57 (in-place)
I0930 11:17:10.516191  3537 net.cpp:122] Setting up BatchNorm57
I0930 11:17:10.516196  3537 net.cpp:129] Top shape: 100 64 8 8 (409600)
I0930 11:17:10.516198  3537 net.cpp:137] Memory required for data: 1182516400
I0930 11:17:10.516202  3537 layer_factory.hpp:77] Creating layer Scale57
I0930 11:17:10.516207  3537 net.cpp:84] Creating Layer Scale57
I0930 11:17:10.516211  3537 net.cpp:406] Scale57 <- Convolution57
I0930 11:17:10.516213  3537 net.cpp:367] Scale57 -> Convolution57 (in-place)
I0930 11:17:10.516240  3537 layer_factory.hpp:77] Creating layer Scale57
I0930 11:17:10.516319  3537 net.cpp:122] Setting up Scale57
I0930 11:17:10.516322  3537 net.cpp:129] Top shape: 100 64 8 8 (409600)
I0930 11:17:10.516324  3537 net.cpp:137] Memory required for data: 1184154800
I0930 11:17:10.516329  3537 layer_factory.hpp:77] Creating layer Eltwise27
I0930 11:17:10.516333  3537 net.cpp:84] Creating Layer Eltwise27
I0930 11:17:10.516336  3537 net.cpp:406] Eltwise27 <- Eltwise26_elu_conv53_0_split_1
I0930 11:17:10.516340  3537 net.cpp:406] Eltwise27 <- Convolution57
I0930 11:17:10.516343  3537 net.cpp:380] Eltwise27 -> Eltwise27
I0930 11:17:10.516358  3537 net.cpp:122] Setting up Eltwise27
I0930 11:17:10.516362  3537 net.cpp:129] Top shape: 100 64 8 8 (409600)
I0930 11:17:10.516364  3537 net.cpp:137] Memory required for data: 1185793200
I0930 11:17:10.516366  3537 layer_factory.hpp:77] Creating layer elu_conv55
I0930 11:17:10.516371  3537 net.cpp:84] Creating Layer elu_conv55
I0930 11:17:10.516373  3537 net.cpp:406] elu_conv55 <- Eltwise27
I0930 11:17:10.516376  3537 net.cpp:367] elu_conv55 -> Eltwise27 (in-place)
I0930 11:17:10.516381  3537 net.cpp:122] Setting up elu_conv55
I0930 11:17:10.516383  3537 net.cpp:129] Top shape: 100 64 8 8 (409600)
I0930 11:17:10.516386  3537 net.cpp:137] Memory required for data: 1187431600
I0930 11:17:10.516387  3537 layer_factory.hpp:77] Creating layer Pooling1
I0930 11:17:10.516391  3537 net.cpp:84] Creating Layer Pooling1
I0930 11:17:10.516402  3537 net.cpp:406] Pooling1 <- Eltwise27
I0930 11:17:10.516405  3537 net.cpp:380] Pooling1 -> Pooling1
I0930 11:17:10.516904  3537 net.cpp:122] Setting up Pooling1
I0930 11:17:10.516913  3537 net.cpp:129] Top shape: 100 64 1 1 (6400)
I0930 11:17:10.516916  3537 net.cpp:137] Memory required for data: 1187457200
I0930 11:17:10.516918  3537 layer_factory.hpp:77] Creating layer InnerProduct1
I0930 11:17:10.516924  3537 net.cpp:84] Creating Layer InnerProduct1
I0930 11:17:10.516927  3537 net.cpp:406] InnerProduct1 <- Pooling1
I0930 11:17:10.516932  3537 net.cpp:380] InnerProduct1 -> InnerProduct1
I0930 11:17:10.517038  3537 net.cpp:122] Setting up InnerProduct1
I0930 11:17:10.517042  3537 net.cpp:129] Top shape: 100 10 (1000)
I0930 11:17:10.517045  3537 net.cpp:137] Memory required for data: 1187461200
I0930 11:17:10.517050  3537 layer_factory.hpp:77] Creating layer InnerProduct1_InnerProduct1_0_split
I0930 11:17:10.517053  3537 net.cpp:84] Creating Layer InnerProduct1_InnerProduct1_0_split
I0930 11:17:10.517056  3537 net.cpp:406] InnerProduct1_InnerProduct1_0_split <- InnerProduct1
I0930 11:17:10.517060  3537 net.cpp:380] InnerProduct1_InnerProduct1_0_split -> InnerProduct1_InnerProduct1_0_split_0
I0930 11:17:10.517065  3537 net.cpp:380] InnerProduct1_InnerProduct1_0_split -> InnerProduct1_InnerProduct1_0_split_1
I0930 11:17:10.517088  3537 net.cpp:122] Setting up InnerProduct1_InnerProduct1_0_split
I0930 11:17:10.517092  3537 net.cpp:129] Top shape: 100 10 (1000)
I0930 11:17:10.517096  3537 net.cpp:129] Top shape: 100 10 (1000)
I0930 11:17:10.517097  3537 net.cpp:137] Memory required for data: 1187469200
I0930 11:17:10.517099  3537 layer_factory.hpp:77] Creating layer SoftmaxWithLoss1
I0930 11:17:10.517104  3537 net.cpp:84] Creating Layer SoftmaxWithLoss1
I0930 11:17:10.517107  3537 net.cpp:406] SoftmaxWithLoss1 <- InnerProduct1_InnerProduct1_0_split_0
I0930 11:17:10.517109  3537 net.cpp:406] SoftmaxWithLoss1 <- Data2_Data1_1_split_0
…
