…
I0925 15:40:50.807312  2958 net.cpp:294] The NetState phase (0) differed from the phase (1) specified by a rule in layer Accuracy1
I0925 15:40:50.808486  2958 net.cpp:51] Initializing net from parameters: 
name: "resnet_cifar10"
state {
  phase: TRAIN
  level: 0
  stage: ""
}
layer {
  name: "Data1"
  type: "Data"
  top: "Data1"
  top: "Data2"
  include {
    phase: TRAIN
  }
  transform_param {
    mirror: true
    crop_size: 28
    mean_file: "/home/x306/caffe/xn/PENLU/data/cifar10/mean.binaryproto"
  }
  data_param {
    source: "/home/x306/caffe/xn/PENLU/data/cifar10/cifar10_train_lmdb"
    batch_size: 100
    backend: LMDB
  }
}
layer {
  name: "Convolution1"
  type: "Convolution"
  bottom: "Data1"
  top: "Convolution1"
  param {
    lr_mult: 1
    decay_mult: 1
  }
  param {
    lr_mult: 2
    decay_mult: 0
  }
  convolution_param {
    num_output: 16
    pad: 1
    kernel_size: 3
    stride: 1
    weight_filler {
      type: "gaussian"
      std: 0.118
    }
    bias_filler {
      type: "constant"
      value: 0
    }
  }
}
layer {
  name: "BatchNorm1"
  type: "BatchNorm"
  bottom: "Convolution1"
  top: "Convolution1"
  param {
    lr_mult: 0
    decay_mult: 0
  }
  param {
    lr_mult: 0
    decay_mult: 0
  }
  param {
    lr_mult: 0
    decay_mult: 0
  }
}
layer {
  name: "Scale1"
  type: "Scale"
  bottom: "Convolution1"
  top: "Convolution1"
  scale_param {
    bias_term: true
  }
}
layer {
  name: "penlu1"
  type: "PENLU"
  bottom: "Convolution1"
  top: "Convolution1"
  param {
    lr_mult: 1
    decay_mult: 0
  }
  param {
    lr_mult: 1
    decay_mult: 0
  }
  param {
    lr_mult: 1
    decay_mult: 0
  }
  penlu_param {
    alpha_filler {
      type: "constant"
      value: 3
    }
    beta_filler {
      type: "constant"
      value: 1
    }
    eta_filler {
      type: "constant"
      value: 1
    }
  }
}
layer {
  name: "Convolution2"
  type: "Convolution"
  bottom: "Convolution1"
  top: "Convolution2"
  param {
    lr_mult: 1
    decay_mult: 1
  }
  param {
    lr_mult: 2
    decay_mult: 0
  }
  convolution_param {
    num_output: 16
    pad: 1
    kernel_size: 3
    stride: 1
    weight_filler {
      type: "gaussian"
      std: 0.118
    }
    bias_filler {
      type: "constant"
      value: 0
    }
  }
}
layer {
  name: "BatchNorm2"
  type: "BatchNorm"
  bottom: "Convolution2"
  top: "Convolution2"
  param {
    lr_mult: 0
    decay_mult: 0
  }
  param {
    lr_mult: 0
    decay_mult: 0
  }
  param {
    lr_mult: 0
    decay_mult: 0
  }
}
layer {
  name: "Scale2"
  type: "Scale"
  bottom: "Convolution2"
  top: "Convolution2"
  scale_param {
    bias_term: true
  }
}
layer {
  name: "penlu2"
  type: "PENLU"
  bottom: "Convolution2"
  top: "Convolution2"
  param {
    lr_mult: 1
    decay_mult: 0
  }
  param {
    lr_mult: 1
    decay_mult: 0
  }
  param {
    lr_mult: 1
    decay_mult: 0
  }
  penlu_param {
    alpha_filler {
      type: "constant"
      value: 3
    }
    beta_filler {
      type: "constant"
      value: 1
    }
    eta_filler {
      type: "constant"
      value: 1
    }
  }
}
layer {
  name: "Convolution3"
  type: "Convolution"
  bottom: "Convolution2"
  top: "Convolution3"
  param {
    lr_mult: 1
    decay_mult: 1
  }
  param {
    lr_mult: 2
    decay_mult: 0
  }
  convolution_param {
    num_output: 16
    pad: 1
    kernel_size: 3
    stride: 1
    weight_filler {
      type: "gaussian"
      std: 0.118
    }
    bias_filler {
      type: "constant"
      value: 0
    }
  }
}
layer {
  name: "BatchNorm3"
  type: "BatchNorm"
  bottom: "Convolution3"
  top: "Convolution3"
  param {
    lr_mult: 0
    decay_mult: 0
  }
  param {
    lr_mult: 0
    decay_mult: 0
  }
  param {
    lr_mult: 0
    decay_mult: 0
  }
}
layer {
  name: "Scale3"
  type: "Scale"
  bottom: "Convolution3"
  top: "Convolution3"
  scale_param {
    bias_term: true
  }
}
layer {
  name: "Eltwise1"
  type: "Eltwise"
  bottom: "Convolution1"
  bottom: "Convolution3"
  top: "Eltwise1"
  eltwise_param {
    operation: SUM
  }
}
layer {
  name: "penlu3"
  type: "PENLU"
  bottom: "Eltwise1"
  top: "Eltwise1"
  param {
    lr_mult: 1
    decay_mult: 0
  }
  param {
    lr_mult: 1
    decay_mult: 0
  }
  param {
    lr_mult: 1
    decay_mult: 0
  }
  penlu_param {
    alpha_filler {
      type: "constant"
      value: 3
    }
    beta_filler {
      type: "constant"
      value: 1
    }
    eta_filler {
      type: "constant"
      value: 1
    }
  }
}
layer {
  name: "Convolution4"
  type: "Convolution"
  bottom: "Eltwise1"
  top: "Convolution4"
  param {
    lr_mult: 1
    decay_mult: 1
  }
  param {
    lr_mult: 2
    decay_mult: 0
  }
  convolution_param {
    num_output: 16
    pad: 1
    kernel_size: 3
    stride: 1
    weight_filler {
      type: "gaussian"
      std: 0.118
    }
    bias_filler {
      type: "constant"
      value: 0
    }
  }
}
layer {
  name: "BatchNorm4"
  type: "BatchNorm"
  bottom: "Convolution4"
  top: "Convolution4"
  param {
    lr_mult: 0
    decay_mult: 0
  }
  param {
    lr_mult: 0
    decay_mult: 0
  }
  param {
    lr_mult: 0
    decay_mult: 0
  }
}
layer {
  name: "Scale4"
  type: "Scale"
  bottom: "Convolution4"
  top: "Convolution4"
  scale_param {
    bias_term: true
  }
}
layer {
  name: "penlu4"
  type: "PENLU"
  bottom: "Convolution4"
  top: "Convolution4"
  param {
    lr_mult: 1
    decay_mult: 0
  }
  param {
    lr_mult: 1
    decay_mult: 0
  }
  param {
    lr_mult: 1
    decay_mult: 0
  }
  penlu_param {
    alpha_filler {
      type: "constant"
      value: 3
    }
    beta_filler {
      type: "constant"
      value: 1
    }
    eta_filler {
      type: "constant"
      value: 1
    }
  }
}
layer {
  name: "Convolution5"
  type: "Convolution"
  bottom: "Convolution4"
  top: "Convolution5"
  param {
    lr_mult: 1
    decay_mult: 1
  }
  param {
    lr_mult: 2
    decay_mult: 0
  }
  convolution_param {
    num_output: 16
    pad: 1
    kernel_size: 3
    stride: 1
    weight_filler {
      type: "gaussian"
      std: 0.118
    }
    bias_filler {
      type: "constant"
      value: 0
    }
  }
}
layer {
  name: "BatchNorm5"
  type: "BatchNorm"
  bottom: "Convolution5"
  top: "Convolution5"
  param {
    lr_mult: 0
    decay_mult: 0
  }
  param {
    lr_mult: 0
    decay_mult: 0
  }
  param {
    lr_mult: 0
    decay_mult: 0
  }
}
layer {
  name: "Scale5"
  type: "Scale"
  bottom: "Convolution5"
  top: "Convolution5"
  scale_param {
    bias_term: true
  }
}
layer {
  name: "Eltwise2"
  type: "Eltwise"
  bottom: "Eltwise1"
  bottom: "Convolution5"
  top: "Eltwise2"
  eltwise_param {
    operation: SUM
  }
}
layer {
  name: "penlu5"
  type: "PENLU"
  bottom: "Eltwise2"
  top: "Eltwise2"
  param {
    lr_mult: 1
    decay_mult: 0
  }
  param {
    lr_mult: 1
    decay_mult: 0
  }
  param {
    lr_mult: 1
    decay_mult: 0
  }
  penlu_param {
    alpha_filler {
      type: "constant"
      value: 3
    }
    beta_filler {
      type: "constant"
      value: 1
    }
    eta_filler {
      type: "constant"
      value: 1
    }
  }
}
layer {
  name: "Convolution6"
  type: "Convolution"
  bottom: "Eltwise2"
  top: "Convolution6"
  param {
    lr_mult: 1
    decay_mult: 1
  }
  param {
    lr_mult: 2
    decay_mult: 0
  }
  convolution_param {
    num_output: 16
    pad: 1
    kernel_size: 3
    stride: 1
    weight_filler {
      type: "gaussian"
      std: 0.118
    }
    bias_filler {
      type: "constant"
      value: 0
    }
  }
}
layer {
  name: "BatchNorm6"
  type: "BatchNorm"
  bottom: "Convolution6"
  top: "Convolution6"
  param {
    lr_mult: 0
    decay_mult: 0
  }
  param {
    lr_mult: 0
    decay_mult: 0
  }
  param {
    lr_mult: 0
    decay_mult: 0
  }
}
layer {
  name: "Scale6"
  type: "Scale"
  bottom: "Convolution6"
  top: "Convolution6"
  scale_param {
    bias_term: true
  }
}
layer {
  name: "penlu6"
  type: "PENLU"
  bottom: "Convolution6"
  top: "Convolution6"
  param {
    lr_mult: 1
    decay_mult: 0
  }
  param {
    lr_mult: 1
    decay_mult: 0
  }
  param {
    lr_mult: 1
    decay_mult: 0
  }
  penlu_param {
    alpha_filler {
      type: "constant"
      value: 3
    }
    beta_filler {
      type: "constant"
      value: 1
    }
    eta_filler {
      type: "constant"
      value: 1
    }
  }
}
layer {
  name: "Convolution7"
  type: "Convolution"
  bottom: "Convolution6"
  top: "Convolution7"
  param {
    lr_mult: 1
    decay_mult: 1
  }
  param {
    lr_mult: 2
    decay_mult: 0
  }
  convolution_param {
    num_output: 16
    pad: 1
    kernel_size: 3
    stride: 1
    weight_filler {
      type: "gaussian"
      std: 0.118
    }
    bias_filler {
      type: "constant"
      value: 0
    }
  }
}
layer {
  name: "BatchNorm7"
  type: "BatchNorm"
  bottom: "Convolution7"
  top: "Convolution7"
  param {
    lr_mult: 0
    decay_mult: 0
  }
  param {
    lr_mult: 0
    decay_mult: 0
  }
  param {
    lr_mult: 0
    decay_mult: 0
  }
}
layer {
  name: "Scale7"
  type: "Scale"
  bottom: "Convolution7"
  top: "Convolution7"
  scale_param {
    bias_term: true
  }
}
layer {
  name: "Eltwise3"
  type: "Eltwise"
  bottom: "Eltwise2"
  bottom: "Convolution7"
  top: "Eltwise3"
  eltwise_param {
    operation: SUM
  }
}
layer {
  name: "penlu7"
  type: "PENLU"
  bottom: "Eltwise3"
  top: "Eltwise3"
  param {
    lr_mult: 1
    decay_mult: 0
  }
  param {
    lr_mult: 1
    decay_mult: 0
  }
  param {
    lr_mult: 1
    decay_mult: 0
  }
  penlu_param {
    alpha_filler {
      type: "constant"
      value: 3
    }
    beta_filler {
      type: "constant"
      value: 1
    }
    eta_filler {
      type: "constant"
      value: 1
    }
  }
}
layer {
  name: "Convolution8"
  type: "Convolution"
  bottom: "Eltwise3"
  top: "Convolution8"
  param {
    lr_mult: 1
    decay_mult: 1
  }
  param {
    lr_mult: 2
    decay_mult: 0
  }
  convolution_param {
    num_output: 16
    pad: 1
    kernel_size: 3
    stride: 1
    weight_filler {
      type: "gaussian"
      std: 0.118
    }
    bias_filler {
      type: "constant"
      value: 0
    }
  }
}
layer {
  name: "BatchNorm8"
  type: "BatchNorm"
  bottom: "Convolution8"
  top: "Convolution8"
  param {
    lr_mult: 0
    decay_mult: 0
  }
  param {
    lr_mult: 0
    decay_mult: 0
  }
  param {
    lr_mult: 0
    decay_mult: 0
  }
}
layer {
  name: "Scale8"
  type: "Scale"
  bottom: "Convolution8"
  top: "Convolution8"
  scale_param {
    bias_term: true
  }
}
layer {
  name: "penlu8"
  type: "PENLU"
  bottom: "Convolution8"
  top: "Convolution8"
  param {
    lr_mult: 1
    decay_mult: 0
  }
  param {
    lr_mult: 1
    decay_mult: 0
  }
  param {
    lr_mult: 1
    decay_mult: 0
  }
  penlu_param {
    alpha_filler {
      type: "constant"
      value: 3
    }
    beta_filler {
      type: "constant"
      value: 1
    }
    eta_filler {
      type: "constant"
      value: 1
    }
  }
}
layer {
  name: "Convolution9"
  type: "Convolution"
  bottom: "Convolution8"
  top: "Convolution9"
  param {
    lr_mult: 1
    decay_mult: 1
  }
  param {
    lr_mult: 2
    decay_mult: 0
  }
  convolution_param {
    num_output: 16
    pad: 1
    kernel_size: 3
    stride: 1
    weight_filler {
      type: "gaussian"
      std: 0.118
    }
    bias_filler {
      type: "constant"
      value: 0
    }
  }
}
layer {
  name: "BatchNorm9"
  type: "BatchNorm"
  bottom: "Convolution9"
  top: "Convolution9"
  param {
    lr_mult: 0
    decay_mult: 0
  }
  param {
    lr_mult: 0
    decay_mult: 0
  }
  param {
    lr_mult: 0
    decay_mult: 0
  }
}
layer {
  name: "Scale9"
  type: "Scale"
  bottom: "Convolution9"
  top: "Convolution9"
  scale_param {
    bias_term: true
  }
}
layer {
  name: "Eltwise4"
  type: "Eltwise"
  bottom: "Eltwise3"
  bottom: "Convolution9"
  top: "Eltwise4"
  eltwise_param {
    operation: SUM
  }
}
layer {
  name: "penlu9"
  type: "PENLU"
  bottom: "Eltwise4"
  top: "Eltwise4"
  param {
    lr_mult: 1
    decay_mult: 0
  }
  param {
    lr_mult: 1
    decay_mult: 0
  }
  param {
    lr_mult: 1
    decay_mult: 0
  }
  penlu_param {
    alpha_filler {
      type: "constant"
      value: 3
    }
    beta_filler {
      type: "constant"
      value: 1
    }
    eta_filler {
      type: "constant"
      value: 1
    }
  }
}
layer {
  name: "Convolution10"
  type: "Convolution"
  bottom: "Eltwise4"
  top: "Convolution10"
  param {
    lr_mult: 1
    decay_mult: 1
  }
  param {
    lr_mult: 2
    decay_mult: 0
  }
  convolution_param {
    num_output: 16
    pad: 1
    kernel_size: 3
    stride: 1
    weight_filler {
      type: "gaussian"
      std: 0.118
    }
    bias_filler {
      type: "constant"
      value: 0
    }
  }
}
layer {
  name: "BatchNorm10"
  type: "BatchNorm"
  bottom: "Convolution10"
  top: "Convolution10"
  param {
    lr_mult: 0
    decay_mult: 0
  }
  param {
    lr_mult: 0
    decay_mult: 0
  }
  param {
    lr_mult: 0
    decay_mult: 0
  }
}
layer {
  name: "Scale10"
  type: "Scale"
  bottom: "Convolution10"
  top: "Convolution10"
  scale_param {
    bias_term: true
  }
}
layer {
  name: "penlu10"
  type: "PENLU"
  bottom: "Convolution10"
  top: "Convolution10"
  param {
    lr_mult: 1
    decay_mult: 0
  }
  param {
    lr_mult: 1
    decay_mult: 0
  }
  param {
    lr_mult: 1
    decay_mult: 0
  }
  penlu_param {
    alpha_filler {
      type: "constant"
      value: 3
    }
    beta_filler {
      type: "constant"
      value: 1
    }
    eta_filler {
      type: "constant"
      value: 1
    }
  }
}
layer {
  name: "Convolution11"
  type: "Convolution"
  bottom: "Convolution10"
  top: "Convolution11"
  param {
    lr_mult: 1
    decay_mult: 1
  }
  param {
    lr_mult: 2
    decay_mult: 0
  }
  convolution_param {
    num_output: 16
    pad: 1
    kernel_size: 3
    stride: 1
    weight_filler {
      type: "gaussian"
      std: 0.118
    }
    bias_filler {
      type: "constant"
      value: 0
    }
  }
}
layer {
  name: "BatchNorm11"
  type: "BatchNorm"
  bottom: "Convolution11"
  top: "Convolution11"
  param {
    lr_mult: 0
    decay_mult: 0
  }
  param {
    lr_mult: 0
    decay_mult: 0
  }
  param {
    lr_mult: 0
    decay_mult: 0
  }
}
layer {
  name: "Scale11"
  type: "Scale"
  bottom: "Convolution11"
  top: "Convolution11"
  scale_param {
    bias_term: true
  }
}
layer {
  name: "Eltwise5"
  type: "Eltwise"
  bottom: "Eltwise4"
  bottom: "Convolution11"
  top: "Eltwise5"
  eltwise_param {
    operation: SUM
  }
}
layer {
  name: "penlu11"
  type: "PENLU"
  bottom: "Eltwise5"
  top: "Eltwise5"
  param {
    lr_mult: 1
    decay_mult: 0
  }
  param {
    lr_mult: 1
    decay_mult: 0
  }
  param {
    lr_mult: 1
    decay_mult: 0
  }
  penlu_param {
    alpha_filler {
      type: "constant"
      value: 3
    }
    beta_filler {
      type: "constant"
      value: 1
    }
    eta_filler {
      type: "constant"
      value: 1
    }
  }
}
layer {
  name: "Convolution12"
  type: "Convolution"
  bottom: "Eltwise5"
  top: "Convolution12"
  param {
    lr_mult: 1
    decay_mult: 1
  }
  param {
    lr_mult: 2
    decay_mult: 0
  }
  convolution_param {
    num_output: 16
    pad: 1
    kernel_size: 3
    stride: 1
    weight_filler {
      type: "gaussian"
      std: 0.118
    }
    bias_filler {
      type: "constant"
      value: 0
    }
  }
}
layer {
  name: "BatchNorm12"
  type: "BatchNorm"
  bottom: "Convolution12"
  top: "Convolution12"
  param {
    lr_mult: 0
    decay_mult: 0
  }
  param {
    lr_mult: 0
    decay_mult: 0
  }
  param {
    lr_mult: 0
    decay_mult: 0
  }
}
layer {
  name: "Scale12"
  type: "Scale"
  bottom: "Convolution12"
  top: "Convolution12"
  scale_param {
    bias_term: true
  }
}
layer {
  name: "penlu12"
  type: "PENLU"
  bottom: "Convolution12"
  top: "Convolution12"
  param {
    lr_mult: 1
    decay_mult: 0
  }
  param {
    lr_mult: 1
    decay_mult: 0
  }
  param {
    lr_mult: 1
    decay_mult: 0
  }
  penlu_param {
    alpha_filler {
      type: "constant"
      value: 3
    }
    beta_filler {
      type: "constant"
      value: 1
    }
    eta_filler {
      type: "constant"
      value: 1
    }
  }
}
layer {
  name: "Convolution13"
  type: "Convolution"
  bottom: "Convolution12"
  top: "Convolution13"
  param {
    lr_mult: 1
    decay_mult: 1
  }
  param {
    lr_mult: 2
    decay_mult: 0
  }
  convolution_param {
    num_output: 16
    pad: 1
    kernel_size: 3
    stride: 1
    weight_filler {
      type: "gaussian"
      std: 0.118
    }
    bias_filler {
      type: "constant"
      value: 0
    }
  }
}
layer {
  name: "BatchNorm13"
  type: "BatchNorm"
  bottom: "Convolution13"
  top: "Convolution13"
  param {
    lr_mult: 0
    decay_mult: 0
  }
  param {
    lr_mult: 0
    decay_mult: 0
  }
  param {
    lr_mult: 0
    decay_mult: 0
  }
}
layer {
  name: "Scale13"
  type: "Scale"
  bottom: "Convolution13"
  top: "Convolution13"
  scale_param {
    bias_term: true
  }
}
layer {
  name: "Eltwise6"
  type: "Eltwise"
  bottom: "Eltwise5"
  bottom: "Convolution13"
  top: "Eltwise6"
  eltwise_param {
    operation: SUM
  }
}
layer {
  name: "penlu13"
  type: "PENLU"
  bottom: "Eltwise6"
  top: "Eltwise6"
  param {
    lr_mult: 1
    decay_mult: 0
  }
  param {
    lr_mult: 1
    decay_mult: 0
  }
  param {
    lr_mult: 1
    decay_mult: 0
  }
  penlu_param {
    alpha_filler {
      type: "constant"
      value: 3
    }
    beta_filler {
      type: "constant"
      value: 1
    }
    eta_filler {
      type: "constant"
      value: 1
    }
  }
}
layer {
  name: "Convolution14"
  type: "Convolution"
  bottom: "Eltwise6"
  top: "Convolution14"
  param {
    lr_mult: 1
    decay_mult: 1
  }
  param {
    lr_mult: 2
    decay_mult: 0
  }
  convolution_param {
    num_output: 16
    pad: 1
    kernel_size: 3
    stride: 1
    weight_filler {
      type: "gaussian"
      std: 0.118
    }
    bias_filler {
      type: "constant"
      value: 0
    }
  }
}
layer {
  name: "BatchNorm14"
  type: "BatchNorm"
  bottom: "Convolution14"
  top: "Convolution14"
  param {
    lr_mult: 0
    decay_mult: 0
  }
  param {
    lr_mult: 0
    decay_mult: 0
  }
  param {
    lr_mult: 0
    decay_mult: 0
  }
}
layer {
  name: "Scale14"
  type: "Scale"
  bottom: "Convolution14"
  top: "Convolution14"
  scale_param {
    bias_term: true
  }
}
layer {
  name: "penlu14"
  type: "PENLU"
  bottom: "Convolution14"
  top: "Convolution14"
  param {
    lr_mult: 1
    decay_mult: 0
  }
  param {
    lr_mult: 1
    decay_mult: 0
  }
  param {
    lr_mult: 1
    decay_mult: 0
  }
  penlu_param {
    alpha_filler {
      type: "constant"
      value: 3
    }
    beta_filler {
      type: "constant"
      value: 1
    }
    eta_filler {
      type: "constant"
      value: 1
    }
  }
}
layer {
  name: "Convolution15"
  type: "Convolution"
  bottom: "Convolution14"
  top: "Convolution15"
  param {
    lr_mult: 1
    decay_mult: 1
  }
  param {
    lr_mult: 2
    decay_mult: 0
  }
  convolution_param {
    num_output: 16
    pad: 1
    kernel_size: 3
    stride: 1
    weight_filler {
      type: "gaussian"
      std: 0.118
    }
    bias_filler {
      type: "constant"
      value: 0
    }
  }
}
layer {
  name: "BatchNorm15"
  type: "BatchNorm"
  bottom: "Convolution15"
  top: "Convolution15"
  param {
    lr_mult: 0
    decay_mult: 0
  }
  param {
    lr_mult: 0
    decay_mult: 0
  }
  param {
    lr_mult: 0
    decay_mult: 0
  }
}
layer {
  name: "Scale15"
  type: "Scale"
  bottom: "Convolution15"
  top: "Convolution15"
  scale_param {
    bias_term: true
  }
}
layer {
  name: "Eltwise7"
  type: "Eltwise"
  bottom: "Eltwise6"
  bottom: "Convolution15"
  top: "Eltwise7"
  eltwise_param {
    operation: SUM
  }
}
layer {
  name: "penlu15"
  type: "PENLU"
  bottom: "Eltwise7"
  top: "Eltwise7"
  param {
    lr_mult: 1
    decay_mult: 0
  }
  param {
    lr_mult: 1
    decay_mult: 0
  }
  param {
    lr_mult: 1
    decay_mult: 0
  }
  penlu_param {
    alpha_filler {
      type: "constant"
      value: 3
    }
    beta_filler {
      type: "constant"
      value: 1
    }
    eta_filler {
      type: "constant"
      value: 1
    }
  }
}
layer {
  name: "Convolution16"
  type: "Convolution"
  bottom: "Eltwise7"
  top: "Convolution16"
  param {
    lr_mult: 1
    decay_mult: 1
  }
  param {
    lr_mult: 2
    decay_mult: 0
  }
  convolution_param {
    num_output: 16
    pad: 1
    kernel_size: 3
    stride: 1
    weight_filler {
      type: "gaussian"
      std: 0.118
    }
    bias_filler {
      type: "constant"
      value: 0
    }
  }
}
layer {
  name: "BatchNorm16"
  type: "BatchNorm"
  bottom: "Convolution16"
  top: "Convolution16"
  param {
    lr_mult: 0
    decay_mult: 0
  }
  param {
    lr_mult: 0
    decay_mult: 0
  }
  param {
    lr_mult: 0
    decay_mult: 0
  }
}
layer {
  name: "Scale16"
  type: "Scale"
  bottom: "Convolution16"
  top: "Convolution16"
  scale_param {
    bias_term: true
  }
}
layer {
  name: "penlu16"
  type: "PENLU"
  bottom: "Convolution16"
  top: "Convolution16"
  param {
    lr_mult: 1
    decay_mult: 0
  }
  param {
    lr_mult: 1
    decay_mult: 0
  }
  param {
    lr_mult: 1
    decay_mult: 0
  }
  penlu_param {
    alpha_filler {
      type: "constant"
      value: 3
    }
    beta_filler {
      type: "constant"
      value: 1
    }
    eta_filler {
      type: "constant"
      value: 1
    }
  }
}
layer {
  name: "Convolution17"
  type: "Convolution"
  bottom: "Convolution16"
  top: "Convolution17"
  param {
    lr_mult: 1
    decay_mult: 1
  }
  param {
    lr_mult: 2
    decay_mult: 0
  }
  convolution_param {
    num_output: 16
    pad: 1
    kernel_size: 3
    stride: 1
    weight_filler {
      type: "gaussian"
      std: 0.118
    }
    bias_filler {
      type: "constant"
      value: 0
    }
  }
}
layer {
  name: "BatchNorm17"
  type: "BatchNorm"
  bottom: "Convolution17"
  top: "Convolution17"
  param {
    lr_mult: 0
    decay_mult: 0
  }
  param {
    lr_mult: 0
    decay_mult: 0
  }
  param {
    lr_mult: 0
    decay_mult: 0
  }
}
layer {
  name: "Scale17"
  type: "Scale"
  bottom: "Convolution17"
  top: "Convolution17"
  scale_param {
    bias_term: true
  }
}
layer {
  name: "Eltwise8"
  type: "Eltwise"
  bottom: "Eltwise7"
  bottom: "Convolution17"
  top: "Eltwise8"
  eltwise_param {
    operation: SUM
  }
}
layer {
  name: "penlu17"
  type: "PENLU"
  bottom: "Eltwise8"
  top: "Eltwise8"
  param {
    lr_mult: 1
    decay_mult: 0
  }
  param {
    lr_mult: 1
    decay_mult: 0
  }
  param {
    lr_mult: 1
    decay_mult: 0
  }
  penlu_param {
    alpha_filler {
      type: "constant"
      value: 3
    }
    beta_filler {
      type: "constant"
      value: 1
    }
    eta_filler {
      type: "constant"
      value: 1
    }
  }
}
layer {
  name: "Convolution18"
  type: "Convolution"
  bottom: "Eltwise8"
  top: "Convolution18"
  param {
    lr_mult: 1
    decay_mult: 1
  }
  param {
    lr_mult: 2
    decay_mult: 0
  }
  convolution_param {
    num_output: 16
    pad: 1
    kernel_size: 3
    stride: 1
    weight_filler {
      type: "gaussian"
      std: 0.118
    }
    bias_filler {
      type: "constant"
      value: 0
    }
  }
}
layer {
  name: "BatchNorm18"
  type: "BatchNorm"
  bottom: "Convolution18"
  top: "Convolution18"
  param {
    lr_mult: 0
    decay_mult: 0
  }
  param {
    lr_mult: 0
    decay_mult: 0
  }
  param {
    lr_mult: 0
    decay_mult: 0
  }
}
layer {
  name: "Scale18"
  type: "Scale"
  bottom: "Convolution18"
  top: "Convolution18"
  scale_param {
    bias_term: true
  }
}
layer {
  name: "penlu18"
  type: "PENLU"
  bottom: "Convolution18"
  top: "Convolution18"
  param {
    lr_mult: 1
    decay_mult: 0
  }
  param {
    lr_mult: 1
    decay_mult: 0
  }
  param {
    lr_mult: 1
    decay_mult: 0
  }
  penlu_param {
    alpha_filler {
      type: "constant"
      value: 3
    }
    beta_filler {
      type: "constant"
      value: 1
    }
    eta_filler {
      type: "constant"
      value: 1
    }
  }
}
layer {
  name: "Convolution19"
  type: "Convolution"
  bottom: "Convolution18"
  top: "Convolution19"
  param {
    lr_mult: 1
    decay_mult: 1
  }
  param {
    lr_mult: 2
    decay_mult: 0
  }
  convolution_param {
    num_output: 16
    pad: 1
    kernel_size: 3
    stride: 1
    weight_filler {
      type: "gaussian"
      std: 0.118
    }
    bias_filler {
      type: "constant"
      value: 0
    }
  }
}
layer {
  name: "BatchNorm19"
  type: "BatchNorm"
  bottom: "Convolution19"
  top: "Convolution19"
  param {
    lr_mult: 0
    decay_mult: 0
  }
  param {
    lr_mult: 0
    decay_mult: 0
  }
  param {
    lr_mult: 0
    decay_mult: 0
  }
}
layer {
  name: "Scale19"
  type: "Scale"
  bottom: "Convolution19"
  top: "Convolution19"
  scale_param {
    bias_term: true
  }
}
layer {
  name: "Eltwise9"
  type: "Eltwise"
  bottom: "Eltwise8"
  bottom: "Convolution19"
  top: "Eltwise9"
  eltwise_param {
    operation: SUM
  }
}
layer {
  name: "penlu19"
  type: "PENLU"
  bottom: "Eltwise9"
  top: "Eltwise9"
  param {
    lr_mult: 1
    decay_mult: 0
  }
  param {
    lr_mult: 1
    decay_mult: 0
  }
  param {
    lr_mult: 1
    decay_mult: 0
  }
  penlu_param {
    alpha_filler {
      type: "constant"
      value: 3
    }
    beta_filler {
      type: "constant"
      value: 1
    }
    eta_filler {
      type: "constant"
      value: 1
    }
  }
}
layer {
  name: "Convolution20"
  type: "Convolution"
  bottom: "Eltwise9"
  top: "Convolution20"
  param {
    lr_mult: 1
    decay_mult: 1
  }
  param {
    lr_mult: 2
    decay_mult: 0
  }
  convolution_param {
    num_output: 32
    pad: 0
    kernel_size: 1
    stride: 2
    weight_filler {
      type: "gaussian"
      std: 0.25
    }
    bias_filler {
      type: "constant"
      value: 0
    }
  }
}
layer {
  name: "BatchNorm20"
  type: "BatchNorm"
  bottom: "Convolution20"
  top: "Convolution20"
  param {
    lr_mult: 0
    decay_mult: 0
  }
  param {
    lr_mult: 0
    decay_mult: 0
  }
  param {
    lr_mult: 0
    decay_mult: 0
  }
}
layer {
  name: "Scale20"
  type: "Scale"
  bottom: "Convolution20"
  top: "Convolution20"
  scale_param {
    bias_term: true
  }
}
layer {
  name: "Convolution21"
  type: "Convolution"
  bottom: "Eltwise9"
  top: "Convolution21"
  param {
    lr_mult: 1
    decay_mult: 1
  }
  param {
    lr_mult: 2
    decay_mult: 0
  }
  convolution_param {
    num_output: 32
    pad: 1
    kernel_size: 3
    stride: 2
    weight_filler {
      type: "gaussian"
      std: 0.083
    }
    bias_filler {
      type: "constant"
      value: 0
    }
  }
}
layer {
  name: "BatchNorm21"
  type: "BatchNorm"
  bottom: "Convolution21"
  top: "Convolution21"
  param {
    lr_mult: 0
    decay_mult: 0
  }
  param {
    lr_mult: 0
    decay_mult: 0
  }
  param {
    lr_mult: 0
    decay_mult: 0
  }
}
layer {
  name: "Scale21"
  type: "Scale"
  bottom: "Convolution21"
  top: "Convolution21"
  scale_param {
    bias_term: true
  }
}
layer {
  name: "penlu20"
  type: "PENLU"
  bottom: "Convolution21"
  top: "Convolution21"
  param {
    lr_mult: 1
    decay_mult: 0
  }
  param {
    lr_mult: 1
    decay_mult: 0
  }
  param {
    lr_mult: 1
    decay_mult: 0
  }
  penlu_param {
    alpha_filler {
      type: "constant"
      value: 3
    }
    beta_filler {
      type: "constant"
      value: 1
    }
    eta_filler {
      type: "constant"
      value: 1
    }
  }
}
layer {
  name: "Convolution22"
  type: "Convolution"
  bottom: "Convolution21"
  top: "Convolution22"
  param {
    lr_mult: 1
    decay_mult: 1
  }
  param {
    lr_mult: 2
    decay_mult: 0
  }
  convolution_param {
    num_output: 32
    pad: 1
    kernel_size: 3
    stride: 1
    weight_filler {
      type: "gaussian"
      std: 0.083
    }
    bias_filler {
      type: "constant"
      value: 0
    }
  }
}
layer {
  name: "BatchNorm22"
  type: "BatchNorm"
  bottom: "Convolution22"
  top: "Convolution22"
  param {
    lr_mult: 0
    decay_mult: 0
  }
  param {
    lr_mult: 0
    decay_mult: 0
  }
  param {
    lr_mult: 0
    decay_mult: 0
  }
}
layer {
  name: "Scale22"
  type: "Scale"
  bottom: "Convolution22"
  top: "Convolution22"
  scale_param {
    bias_term: true
  }
}
layer {
  name: "Eltwise10"
  type: "Eltwise"
  bottom: "Convolution20"
  bottom: "Convolution22"
  top: "Eltwise10"
  eltwise_param {
    operation: SUM
  }
}
layer {
  name: "penlu21"
  type: "PENLU"
  bottom: "Eltwise10"
  top: "Eltwise10"
  param {
    lr_mult: 1
    decay_mult: 0
  }
  param {
    lr_mult: 1
    decay_mult: 0
  }
  param {
    lr_mult: 1
    decay_mult: 0
  }
  penlu_param {
    alpha_filler {
      type: "constant"
      value: 3
    }
    beta_filler {
      type: "constant"
      value: 1
    }
    eta_filler {
      type: "constant"
      value: 1
    }
  }
}
layer {
  name: "Convolution23"
  type: "Convolution"
  bottom: "Eltwise10"
  top: "Convolution23"
  param {
    lr_mult: 1
    decay_mult: 1
  }
  param {
    lr_mult: 2
    decay_mult: 0
  }
  convolution_param {
    num_output: 32
    pad: 1
    kernel_size: 3
    stride: 1
    weight_filler {
      type: "gaussian"
      std: 0.083
    }
    bias_filler {
      type: "constant"
      value: 0
    }
  }
}
layer {
  name: "BatchNorm23"
  type: "BatchNorm"
  bottom: "Convolution23"
  top: "Convolution23"
  param {
    lr_mult: 0
    decay_mult: 0
  }
  param {
    lr_mult: 0
    decay_mult: 0
  }
  param {
    lr_mult: 0
    decay_mult: 0
  }
}
layer {
  name: "Scale23"
  type: "Scale"
  bottom: "Convolution23"
  top: "Convolution23"
  scale_param {
    bias_term: true
  }
}
layer {
  name: "penlu22"
  type: "PENLU"
  bottom: "Convolution23"
  top: "Convolution23"
  param {
    lr_mult: 1
    decay_mult: 0
  }
  param {
    lr_mult: 1
    decay_mult: 0
  }
  param {
    lr_mult: 1
    decay_mult: 0
  }
  penlu_param {
    alpha_filler {
      type: "constant"
      value: 3
    }
    beta_filler {
      type: "constant"
      value: 1
    }
    eta_filler {
      type: "constant"
      value: 1
    }
  }
}
layer {
  name: "Convolution24"
  type: "Convolution"
  bottom: "Convolution23"
  top: "Convolution24"
  param {
    lr_mult: 1
    decay_mult: 1
  }
  param {
    lr_mult: 2
    decay_mult: 0
  }
  convolution_param {
    num_output: 32
    pad: 1
    kernel_size: 3
    stride: 1
    weight_filler {
      type: "gaussian"
      std
I0925 15:40:50.809320  2958 layer_factory.hpp:77] Creating layer Data1
I0925 15:40:50.809397  2958 db_lmdb.cpp:35] Opened lmdb /home/x306/caffe/xn/PENLU/data/cifar10/cifar10_train_lmdb
I0925 15:40:50.809417  2958 net.cpp:84] Creating Layer Data1
I0925 15:40:50.809422  2958 net.cpp:380] Data1 -> Data1
I0925 15:40:50.809439  2958 net.cpp:380] Data1 -> Data2
I0925 15:40:50.809448  2958 data_transformer.cpp:25] Loading mean file from: /home/x306/caffe/xn/PENLU/data/cifar10/mean.binaryproto
I0925 15:40:50.810801  2958 data_layer.cpp:45] output data size: 100,3,28,28
I0925 15:40:50.813082  2958 net.cpp:122] Setting up Data1
I0925 15:40:50.813105  2958 net.cpp:129] Top shape: 100 3 28 28 (235200)
I0925 15:40:50.813109  2958 net.cpp:129] Top shape: 100 (100)
I0925 15:40:50.813112  2958 net.cpp:137] Memory required for data: 941200
I0925 15:40:50.813118  2958 layer_factory.hpp:77] Creating layer Convolution1
I0925 15:40:50.813138  2958 net.cpp:84] Creating Layer Convolution1
I0925 15:40:50.813143  2958 net.cpp:406] Convolution1 <- Data1
I0925 15:40:50.813151  2958 net.cpp:380] Convolution1 -> Convolution1
I0925 15:40:50.958829  2958 net.cpp:122] Setting up Convolution1
I0925 15:40:50.958854  2958 net.cpp:129] Top shape: 100 16 28 28 (1254400)
I0925 15:40:50.958858  2958 net.cpp:137] Memory required for data: 5958800
I0925 15:40:50.958873  2958 layer_factory.hpp:77] Creating layer BatchNorm1
I0925 15:40:50.958892  2958 net.cpp:84] Creating Layer BatchNorm1
I0925 15:40:50.958895  2958 net.cpp:406] BatchNorm1 <- Convolution1
I0925 15:40:50.958922  2958 net.cpp:367] BatchNorm1 -> Convolution1 (in-place)
I0925 15:40:50.959064  2958 net.cpp:122] Setting up BatchNorm1
I0925 15:40:50.959069  2958 net.cpp:129] Top shape: 100 16 28 28 (1254400)
I0925 15:40:50.959071  2958 net.cpp:137] Memory required for data: 10976400
I0925 15:40:50.959079  2958 layer_factory.hpp:77] Creating layer Scale1
I0925 15:40:50.959087  2958 net.cpp:84] Creating Layer Scale1
I0925 15:40:50.959100  2958 net.cpp:406] Scale1 <- Convolution1
I0925 15:40:50.959103  2958 net.cpp:367] Scale1 -> Convolution1 (in-place)
I0925 15:40:50.959162  2958 layer_factory.hpp:77] Creating layer Scale1
I0925 15:40:50.959300  2958 net.cpp:122] Setting up Scale1
I0925 15:40:50.959306  2958 net.cpp:129] Top shape: 100 16 28 28 (1254400)
I0925 15:40:50.959307  2958 net.cpp:137] Memory required for data: 15994000
I0925 15:40:50.959312  2958 layer_factory.hpp:77] Creating layer penlu1
I0925 15:40:50.959318  2958 net.cpp:84] Creating Layer penlu1
I0925 15:40:50.959321  2958 net.cpp:406] penlu1 <- Convolution1
I0925 15:40:50.959324  2958 net.cpp:367] penlu1 -> Convolution1 (in-place)
I0925 15:40:50.959947  2958 net.cpp:122] Setting up penlu1
I0925 15:40:50.959956  2958 net.cpp:129] Top shape: 100 16 28 28 (1254400)
I0925 15:40:50.959959  2958 net.cpp:137] Memory required for data: 21011600
I0925 15:40:50.959966  2958 layer_factory.hpp:77] Creating layer Convolution1_penlu1_0_split
I0925 15:40:50.959974  2958 net.cpp:84] Creating Layer Convolution1_penlu1_0_split
I0925 15:40:50.959975  2958 net.cpp:406] Convolution1_penlu1_0_split <- Convolution1
I0925 15:40:50.959990  2958 net.cpp:380] Convolution1_penlu1_0_split -> Convolution1_penlu1_0_split_0
I0925 15:40:50.959995  2958 net.cpp:380] Convolution1_penlu1_0_split -> Convolution1_penlu1_0_split_1
I0925 15:40:50.960049  2958 net.cpp:122] Setting up Convolution1_penlu1_0_split
I0925 15:40:50.960054  2958 net.cpp:129] Top shape: 100 16 28 28 (1254400)
I0925 15:40:50.960067  2958 net.cpp:129] Top shape: 100 16 28 28 (1254400)
I0925 15:40:50.960068  2958 net.cpp:137] Memory required for data: 31046800
I0925 15:40:50.960070  2958 layer_factory.hpp:77] Creating layer Convolution2
I0925 15:40:50.960088  2958 net.cpp:84] Creating Layer Convolution2
I0925 15:40:50.960091  2958 net.cpp:406] Convolution2 <- Convolution1_penlu1_0_split_0
I0925 15:40:50.960104  2958 net.cpp:380] Convolution2 -> Convolution2
I0925 15:40:50.960980  2958 net.cpp:122] Setting up Convolution2
I0925 15:40:50.960990  2958 net.cpp:129] Top shape: 100 16 28 28 (1254400)
I0925 15:40:50.960992  2958 net.cpp:137] Memory required for data: 36064400
I0925 15:40:50.960997  2958 layer_factory.hpp:77] Creating layer BatchNorm2
I0925 15:40:50.961002  2958 net.cpp:84] Creating Layer BatchNorm2
I0925 15:40:50.961004  2958 net.cpp:406] BatchNorm2 <- Convolution2
I0925 15:40:50.961009  2958 net.cpp:367] BatchNorm2 -> Convolution2 (in-place)
I0925 15:40:50.961166  2958 net.cpp:122] Setting up BatchNorm2
I0925 15:40:50.961171  2958 net.cpp:129] Top shape: 100 16 28 28 (1254400)
I0925 15:40:50.961174  2958 net.cpp:137] Memory required for data: 41082000
I0925 15:40:50.961179  2958 layer_factory.hpp:77] Creating layer Scale2
I0925 15:40:50.961184  2958 net.cpp:84] Creating Layer Scale2
I0925 15:40:50.961185  2958 net.cpp:406] Scale2 <- Convolution2
I0925 15:40:50.961189  2958 net.cpp:367] Scale2 -> Convolution2 (in-place)
I0925 15:40:50.961232  2958 layer_factory.hpp:77] Creating layer Scale2
I0925 15:40:50.961319  2958 net.cpp:122] Setting up Scale2
I0925 15:40:50.961324  2958 net.cpp:129] Top shape: 100 16 28 28 (1254400)
I0925 15:40:50.961326  2958 net.cpp:137] Memory required for data: 46099600
I0925 15:40:50.961333  2958 layer_factory.hpp:77] Creating layer penlu2
I0925 15:40:50.961338  2958 net.cpp:84] Creating Layer penlu2
I0925 15:40:50.961339  2958 net.cpp:406] penlu2 <- Convolution2
I0925 15:40:50.961344  2958 net.cpp:367] penlu2 -> Convolution2 (in-place)
I0925 15:40:50.961454  2958 net.cpp:122] Setting up penlu2
I0925 15:40:50.961459  2958 net.cpp:129] Top shape: 100 16 28 28 (1254400)
I0925 15:40:50.961468  2958 net.cpp:137] Memory required for data: 51117200
I0925 15:40:50.961473  2958 layer_factory.hpp:77] Creating layer Convolution3
I0925 15:40:50.961489  2958 net.cpp:84] Creating Layer Convolution3
I0925 15:40:50.961493  2958 net.cpp:406] Convolution3 <- Convolution2
I0925 15:40:50.961496  2958 net.cpp:380] Convolution3 -> Convolution3
I0925 15:40:50.962321  2958 net.cpp:122] Setting up Convolution3
I0925 15:40:50.962330  2958 net.cpp:129] Top shape: 100 16 28 28 (1254400)
I0925 15:40:50.962333  2958 net.cpp:137] Memory required for data: 56134800
I0925 15:40:50.962340  2958 layer_factory.hpp:77] Creating layer BatchNorm3
I0925 15:40:50.962347  2958 net.cpp:84] Creating Layer BatchNorm3
I0925 15:40:50.962362  2958 net.cpp:406] BatchNorm3 <- Convolution3
I0925 15:40:50.962365  2958 net.cpp:367] BatchNorm3 -> Convolution3 (in-place)
I0925 15:40:50.962502  2958 net.cpp:122] Setting up BatchNorm3
I0925 15:40:50.962508  2958 net.cpp:129] Top shape: 100 16 28 28 (1254400)
I0925 15:40:50.962510  2958 net.cpp:137] Memory required for data: 61152400
I0925 15:40:50.962515  2958 layer_factory.hpp:77] Creating layer Scale3
I0925 15:40:50.962520  2958 net.cpp:84] Creating Layer Scale3
I0925 15:40:50.962522  2958 net.cpp:406] Scale3 <- Convolution3
I0925 15:40:50.962525  2958 net.cpp:367] Scale3 -> Convolution3 (in-place)
I0925 15:40:50.962569  2958 layer_factory.hpp:77] Creating layer Scale3
I0925 15:40:50.962657  2958 net.cpp:122] Setting up Scale3
I0925 15:40:50.962661  2958 net.cpp:129] Top shape: 100 16 28 28 (1254400)
I0925 15:40:50.962664  2958 net.cpp:137] Memory required for data: 66170000
I0925 15:40:50.962667  2958 layer_factory.hpp:77] Creating layer Eltwise1
I0925 15:40:50.962672  2958 net.cpp:84] Creating Layer Eltwise1
I0925 15:40:50.962676  2958 net.cpp:406] Eltwise1 <- Convolution1_penlu1_0_split_1
I0925 15:40:50.962678  2958 net.cpp:406] Eltwise1 <- Convolution3
I0925 15:40:50.962690  2958 net.cpp:380] Eltwise1 -> Eltwise1
I0925 15:40:50.962719  2958 net.cpp:122] Setting up Eltwise1
I0925 15:40:50.962733  2958 net.cpp:129] Top shape: 100 16 28 28 (1254400)
I0925 15:40:50.962735  2958 net.cpp:137] Memory required for data: 71187600
I0925 15:40:50.962738  2958 layer_factory.hpp:77] Creating layer penlu3
I0925 15:40:50.962754  2958 net.cpp:84] Creating Layer penlu3
I0925 15:40:50.962755  2958 net.cpp:406] penlu3 <- Eltwise1
I0925 15:40:50.962759  2958 net.cpp:367] penlu3 -> Eltwise1 (in-place)
I0925 15:40:50.962872  2958 net.cpp:122] Setting up penlu3
I0925 15:40:50.962877  2958 net.cpp:129] Top shape: 100 16 28 28 (1254400)
I0925 15:40:50.962878  2958 net.cpp:137] Memory required for data: 76205200
I0925 15:40:50.962882  2958 layer_factory.hpp:77] Creating layer Eltwise1_penlu3_0_split
I0925 15:40:50.962887  2958 net.cpp:84] Creating Layer Eltwise1_penlu3_0_split
I0925 15:40:50.962888  2958 net.cpp:406] Eltwise1_penlu3_0_split <- Eltwise1
I0925 15:40:50.962891  2958 net.cpp:380] Eltwise1_penlu3_0_split -> Eltwise1_penlu3_0_split_0
I0925 15:40:50.962906  2958 net.cpp:380] Eltwise1_penlu3_0_split -> Eltwise1_penlu3_0_split_1
I0925 15:40:50.962949  2958 net.cpp:122] Setting up Eltwise1_penlu3_0_split
I0925 15:40:50.962952  2958 net.cpp:129] Top shape: 100 16 28 28 (1254400)
I0925 15:40:50.962965  2958 net.cpp:129] Top shape: 100 16 28 28 (1254400)
I0925 15:40:50.962967  2958 net.cpp:137] Memory required for data: 86240400
I0925 15:40:50.962970  2958 layer_factory.hpp:77] Creating layer Convolution4
I0925 15:40:50.962975  2958 net.cpp:84] Creating Layer Convolution4
I0925 15:40:50.962977  2958 net.cpp:406] Convolution4 <- Eltwise1_penlu3_0_split_0
I0925 15:40:50.962981  2958 net.cpp:380] Convolution4 -> Convolution4
I0925 15:40:50.963837  2958 net.cpp:122] Setting up Convolution4
I0925 15:40:50.963846  2958 net.cpp:129] Top shape: 100 16 28 28 (1254400)
I0925 15:40:50.963860  2958 net.cpp:137] Memory required for data: 91258000
I0925 15:40:50.963863  2958 layer_factory.hpp:77] Creating layer BatchNorm4
I0925 15:40:50.963881  2958 net.cpp:84] Creating Layer BatchNorm4
I0925 15:40:50.963891  2958 net.cpp:406] BatchNorm4 <- Convolution4
I0925 15:40:50.963903  2958 net.cpp:367] BatchNorm4 -> Convolution4 (in-place)
I0925 15:40:50.964053  2958 net.cpp:122] Setting up BatchNorm4
I0925 15:40:50.964058  2958 net.cpp:129] Top shape: 100 16 28 28 (1254400)
I0925 15:40:50.964071  2958 net.cpp:137] Memory required for data: 96275600
I0925 15:40:50.964079  2958 layer_factory.hpp:77] Creating layer Scale4
I0925 15:40:50.964093  2958 net.cpp:84] Creating Layer Scale4
I0925 15:40:50.964095  2958 net.cpp:406] Scale4 <- Convolution4
I0925 15:40:50.964098  2958 net.cpp:367] Scale4 -> Convolution4 (in-place)
I0925 15:40:50.964146  2958 layer_factory.hpp:77] Creating layer Scale4
I0925 15:40:50.964236  2958 net.cpp:122] Setting up Scale4
I0925 15:40:50.964241  2958 net.cpp:129] Top shape: 100 16 28 28 (1254400)
I0925 15:40:50.964252  2958 net.cpp:137] Memory required for data: 101293200
I0925 15:40:50.964257  2958 layer_factory.hpp:77] Creating layer penlu4
I0925 15:40:50.964262  2958 net.cpp:84] Creating Layer penlu4
I0925 15:40:50.964265  2958 net.cpp:406] penlu4 <- Convolution4
I0925 15:40:50.964269  2958 net.cpp:367] penlu4 -> Convolution4 (in-place)
I0925 15:40:50.964372  2958 net.cpp:122] Setting up penlu4
I0925 15:40:50.964377  2958 net.cpp:129] Top shape: 100 16 28 28 (1254400)
I0925 15:40:50.964388  2958 net.cpp:137] Memory required for data: 106310800
I0925 15:40:50.964393  2958 layer_factory.hpp:77] Creating layer Convolution5
I0925 15:40:50.964401  2958 net.cpp:84] Creating Layer Convolution5
I0925 15:40:50.964403  2958 net.cpp:406] Convolution5 <- Convolution4
I0925 15:40:50.964407  2958 net.cpp:380] Convolution5 -> Convolution5
I0925 15:40:50.965283  2958 net.cpp:122] Setting up Convolution5
I0925 15:40:50.965293  2958 net.cpp:129] Top shape: 100 16 28 28 (1254400)
I0925 15:40:50.965306  2958 net.cpp:137] Memory required for data: 111328400
I0925 15:40:50.965309  2958 layer_factory.hpp:77] Creating layer BatchNorm5
I0925 15:40:50.965317  2958 net.cpp:84] Creating Layer BatchNorm5
I0925 15:40:50.965320  2958 net.cpp:406] BatchNorm5 <- Convolution5
I0925 15:40:50.965324  2958 net.cpp:367] BatchNorm5 -> Convolution5 (in-place)
I0925 15:40:50.965456  2958 net.cpp:122] Setting up BatchNorm5
I0925 15:40:50.965461  2958 net.cpp:129] Top shape: 100 16 28 28 (1254400)
I0925 15:40:50.965463  2958 net.cpp:137] Memory required for data: 116346000
I0925 15:40:50.965477  2958 layer_factory.hpp:77] Creating layer Scale5
I0925 15:40:50.965482  2958 net.cpp:84] Creating Layer Scale5
I0925 15:40:50.965486  2958 net.cpp:406] Scale5 <- Convolution5
I0925 15:40:50.965488  2958 net.cpp:367] Scale5 -> Convolution5 (in-place)
I0925 15:40:50.965523  2958 layer_factory.hpp:77] Creating layer Scale5
I0925 15:40:50.965615  2958 net.cpp:122] Setting up Scale5
I0925 15:40:50.965620  2958 net.cpp:129] Top shape: 100 16 28 28 (1254400)
I0925 15:40:50.965631  2958 net.cpp:137] Memory required for data: 121363600
I0925 15:40:50.965634  2958 layer_factory.hpp:77] Creating layer Eltwise2
I0925 15:40:50.965638  2958 net.cpp:84] Creating Layer Eltwise2
I0925 15:40:50.965641  2958 net.cpp:406] Eltwise2 <- Eltwise1_penlu3_0_split_1
I0925 15:40:50.965644  2958 net.cpp:406] Eltwise2 <- Convolution5
I0925 15:40:50.965648  2958 net.cpp:380] Eltwise2 -> Eltwise2
I0925 15:40:50.965663  2958 net.cpp:122] Setting up Eltwise2
I0925 15:40:50.965667  2958 net.cpp:129] Top shape: 100 16 28 28 (1254400)
I0925 15:40:50.965669  2958 net.cpp:137] Memory required for data: 126381200
I0925 15:40:50.965672  2958 layer_factory.hpp:77] Creating layer penlu5
I0925 15:40:50.965677  2958 net.cpp:84] Creating Layer penlu5
I0925 15:40:50.965680  2958 net.cpp:406] penlu5 <- Eltwise2
I0925 15:40:50.965684  2958 net.cpp:367] penlu5 -> Eltwise2 (in-place)
I0925 15:40:50.965786  2958 net.cpp:122] Setting up penlu5
I0925 15:40:50.965791  2958 net.cpp:129] Top shape: 100 16 28 28 (1254400)
I0925 15:40:50.965793  2958 net.cpp:137] Memory required for data: 131398800
I0925 15:40:50.965798  2958 layer_factory.hpp:77] Creating layer Eltwise2_penlu5_0_split
I0925 15:40:50.965802  2958 net.cpp:84] Creating Layer Eltwise2_penlu5_0_split
I0925 15:40:50.965811  2958 net.cpp:406] Eltwise2_penlu5_0_split <- Eltwise2
I0925 15:40:50.965816  2958 net.cpp:380] Eltwise2_penlu5_0_split -> Eltwise2_penlu5_0_split_0
I0925 15:40:50.965821  2958 net.cpp:380] Eltwise2_penlu5_0_split -> Eltwise2_penlu5_0_split_1
I0925 15:40:50.965843  2958 net.cpp:122] Setting up Eltwise2_penlu5_0_split
I0925 15:40:50.965848  2958 net.cpp:129] Top shape: 100 16 28 28 (1254400)
I0925 15:40:50.965852  2958 net.cpp:129] Top shape: 100 16 28 28 (1254400)
I0925 15:40:50.965854  2958 net.cpp:137] Memory required for data: 141434000
I0925 15:40:50.965857  2958 layer_factory.hpp:77] Creating layer Convolution6
I0925 15:40:50.965862  2958 net.cpp:84] Creating Layer Convolution6
I0925 15:40:50.965867  2958 net.cpp:406] Convolution6 <- Eltwise2_penlu5_0_split_0
I0925 15:40:50.965870  2958 net.cpp:380] Convolution6 -> Convolution6
I0925 15:40:50.966739  2958 net.cpp:122] Setting up Convolution6
I0925 15:40:50.966748  2958 net.cpp:129] Top shape: 100 16 28 28 (1254400)
I0925 15:40:50.966751  2958 net.cpp:137] Memory required for data: 146451600
I0925 15:40:50.966756  2958 layer_factory.hpp:77] Creating layer BatchNorm6
I0925 15:40:50.966763  2958 net.cpp:84] Creating Layer BatchNorm6
I0925 15:40:50.966765  2958 net.cpp:406] BatchNorm6 <- Convolution6
I0925 15:40:50.966769  2958 net.cpp:367] BatchNorm6 -> Convolution6 (in-place)
I0925 15:40:50.966898  2958 net.cpp:122] Setting up BatchNorm6
I0925 15:40:50.966903  2958 net.cpp:129] Top shape: 100 16 28 28 (1254400)
I0925 15:40:50.966907  2958 net.cpp:137] Memory required for data: 151469200
I0925 15:40:50.966912  2958 layer_factory.hpp:77] Creating layer Scale6
I0925 15:40:50.966917  2958 net.cpp:84] Creating Layer Scale6
I0925 15:40:50.966919  2958 net.cpp:406] Scale6 <- Convolution6
I0925 15:40:50.966922  2958 net.cpp:367] Scale6 -> Convolution6 (in-place)
I0925 15:40:50.966949  2958 layer_factory.hpp:77] Creating layer Scale6
I0925 15:40:50.967025  2958 net.cpp:122] Setting up Scale6
I0925 15:40:50.967030  2958 net.cpp:129] Top shape: 100 16 28 28 (1254400)
I0925 15:40:50.967032  2958 net.cpp:137] Memory required for data: 156486800
I0925 15:40:50.967036  2958 layer_factory.hpp:77] Creating layer penlu6
I0925 15:40:50.967043  2958 net.cpp:84] Creating Layer penlu6
I0925 15:40:50.967046  2958 net.cpp:406] penlu6 <- Convolution6
I0925 15:40:50.967049  2958 net.cpp:367] penlu6 -> Convolution6 (in-place)
I0925 15:40:50.967152  2958 net.cpp:122] Setting up penlu6
I0925 15:40:50.967157  2958 net.cpp:129] Top shape: 100 16 28 28 (1254400)
I0925 15:40:50.967159  2958 net.cpp:137] Memory required for data: 161504400
I0925 15:40:50.967164  2958 layer_factory.hpp:77] Creating layer Convolution7
I0925 15:40:50.967171  2958 net.cpp:84] Creating Layer Convolution7
I0925 15:40:50.967175  2958 net.cpp:406] Convolution7 <- Convolution6
I0925 15:40:50.967178  2958 net.cpp:380] Convolution7 -> Convolution7
I0925 15:40:50.967725  2958 net.cpp:122] Setting up Convolution7
I0925 15:40:50.967734  2958 net.cpp:129] Top shape: 100 16 28 28 (1254400)
I0925 15:40:50.967737  2958 net.cpp:137] Memory required for data: 166522000
I0925 15:40:50.967741  2958 layer_factory.hpp:77] Creating layer BatchNorm7
I0925 15:40:50.967746  2958 net.cpp:84] Creating Layer BatchNorm7
I0925 15:40:50.967749  2958 net.cpp:406] BatchNorm7 <- Convolution7
I0925 15:40:50.967754  2958 net.cpp:367] BatchNorm7 -> Convolution7 (in-place)
I0925 15:40:50.967880  2958 net.cpp:122] Setting up BatchNorm7
I0925 15:40:50.967885  2958 net.cpp:129] Top shape: 100 16 28 28 (1254400)
I0925 15:40:50.967887  2958 net.cpp:137] Memory required for data: 171539600
I0925 15:40:50.967897  2958 layer_factory.hpp:77] Creating layer Scale7
I0925 15:40:50.967903  2958 net.cpp:84] Creating Layer Scale7
I0925 15:40:50.967906  2958 net.cpp:406] Scale7 <- Convolution7
I0925 15:40:50.967911  2958 net.cpp:367] Scale7 -> Convolution7 (in-place)
I0925 15:40:50.967936  2958 layer_factory.hpp:77] Creating layer Scale7
I0925 15:40:50.968011  2958 net.cpp:122] Setting up Scale7
I0925 15:40:50.968022  2958 net.cpp:129] Top shape: 100 16 28 28 (1254400)
I0925 15:40:50.968025  2958 net.cpp:137] Memory required for data: 176557200
I0925 15:40:50.968029  2958 layer_factory.hpp:77] Creating layer Eltwise3
I0925 15:40:50.968034  2958 net.cpp:84] Creating Layer Eltwise3
I0925 15:40:50.968037  2958 net.cpp:406] Eltwise3 <- Eltwise2_penlu5_0_split_1
I0925 15:40:50.968040  2958 net.cpp:406] Eltwise3 <- Convolution7
I0925 15:40:50.968044  2958 net.cpp:380] Eltwise3 -> Eltwise3
I0925 15:40:50.968060  2958 net.cpp:122] Setting up Eltwise3
I0925 15:40:50.968065  2958 net.cpp:129] Top shape: 100 16 28 28 (1254400)
I0925 15:40:50.968066  2958 net.cpp:137] Memory required for data: 181574800
I0925 15:40:50.968070  2958 layer_factory.hpp:77] Creating layer penlu7
I0925 15:40:50.968075  2958 net.cpp:84] Creating Layer penlu7
I0925 15:40:50.968077  2958 net.cpp:406] penlu7 <- Eltwise3
I0925 15:40:50.968081  2958 net.cpp:367] penlu7 -> Eltwise3 (in-place)
I0925 15:40:50.968184  2958 net.cpp:122] Setting up penlu7
I0925 15:40:50.968190  2958 net.cpp:129] Top shape: 100 16 28 28 (1254400)
I0925 15:40:50.968192  2958 net.cpp:137] Memory required for data: 186592400
I0925 15:40:50.968197  2958 layer_factory.hpp:77] Creating layer Eltwise3_penlu7_0_split
I0925 15:40:50.968201  2958 net.cpp:84] Creating Layer Eltwise3_penlu7_0_split
I0925 15:40:50.968204  2958 net.cpp:406] Eltwise3_penlu7_0_split <- Eltwise3
I0925 15:40:50.968207  2958 net.cpp:380] Eltwise3_penlu7_0_split -> Eltwise3_penlu7_0_split_0
I0925 15:40:50.968211  2958 net.cpp:380] Eltwise3_penlu7_0_split -> Eltwise3_penlu7_0_split_1
I0925 15:40:50.968233  2958 net.cpp:122] Setting up Eltwise3_penlu7_0_split
I0925 15:40:50.968238  2958 net.cpp:129] Top shape: 100 16 28 28 (1254400)
I0925 15:40:50.968240  2958 net.cpp:129] Top shape: 100 16 28 28 (1254400)
I0925 15:40:50.968243  2958 net.cpp:137] Memory required for data: 196627600
I0925 15:40:50.968245  2958 layer_factory.hpp:77] Creating layer Convolution8
I0925 15:40:50.968252  2958 net.cpp:84] Creating Layer Convolution8
I0925 15:40:50.968255  2958 net.cpp:406] Convolution8 <- Eltwise3_penlu7_0_split_0
I0925 15:40:50.968260  2958 net.cpp:380] Convolution8 -> Convolution8
I0925 15:40:50.969142  2958 net.cpp:122] Setting up Convolution8
I0925 15:40:50.969152  2958 net.cpp:129] Top shape: 100 16 28 28 (1254400)
I0925 15:40:50.969156  2958 net.cpp:137] Memory required for data: 201645200
I0925 15:40:50.969161  2958 layer_factory.hpp:77] Creating layer BatchNorm8
I0925 15:40:50.969175  2958 net.cpp:84] Creating Layer BatchNorm8
I0925 15:40:50.969178  2958 net.cpp:406] BatchNorm8 <- Convolution8
I0925 15:40:50.969183  2958 net.cpp:367] BatchNorm8 -> Convolution8 (in-place)
I0925 15:40:50.969318  2958 net.cpp:122] Setting up BatchNorm8
I0925 15:40:50.969324  2958 net.cpp:129] Top shape: 100 16 28 28 (1254400)
I0925 15:40:50.969326  2958 net.cpp:137] Memory required for data: 206662800
I0925 15:40:50.969341  2958 layer_factory.hpp:77] Creating layer Scale8
I0925 15:40:50.969347  2958 net.cpp:84] Creating Layer Scale8
I0925 15:40:50.969349  2958 net.cpp:406] Scale8 <- Convolution8
I0925 15:40:50.969354  2958 net.cpp:367] Scale8 -> Convolution8 (in-place)
I0925 15:40:50.969388  2958 layer_factory.hpp:77] Creating layer Scale8
I0925 15:40:50.969502  2958 net.cpp:122] Setting up Scale8
I0925 15:40:50.969507  2958 net.cpp:129] Top shape: 100 16 28 28 (1254400)
I0925 15:40:50.969509  2958 net.cpp:137] Memory required for data: 211680400
I0925 15:40:50.969523  2958 layer_factory.hpp:77] Creating layer penlu8
I0925 15:40:50.969529  2958 net.cpp:84] Creating Layer penlu8
I0925 15:40:50.969533  2958 net.cpp:406] penlu8 <- Convolution8
I0925 15:40:50.969537  2958 net.cpp:367] penlu8 -> Convolution8 (in-place)
I0925 15:40:50.969640  2958 net.cpp:122] Setting up penlu8
I0925 15:40:50.969646  2958 net.cpp:129] Top shape: 100 16 28 28 (1254400)
I0925 15:40:50.969648  2958 net.cpp:137] Memory required for data: 216698000
I0925 15:40:50.969653  2958 layer_factory.hpp:77] Creating layer Convolution9
I0925 15:40:50.969660  2958 net.cpp:84] Creating Layer Convolution9
I0925 15:40:50.969669  2958 net.cpp:406] Convolution9 <- Convolution8
I0925 15:40:50.969676  2958 net.cpp:380] Convolution9 -> Convolution9
I0925 15:40:50.970582  2958 net.cpp:122] Setting up Convolution9
I0925 15:40:50.970592  2958 net.cpp:129] Top shape: 100 16 28 28 (1254400)
I0925 15:40:50.970595  2958 net.cpp:137] Memory required for data: 221715600
I0925 15:40:50.970599  2958 layer_factory.hpp:77] Creating layer BatchNorm9
I0925 15:40:50.970605  2958 net.cpp:84] Creating Layer BatchNorm9
I0925 15:40:50.970610  2958 net.cpp:406] BatchNorm9 <- Convolution9
I0925 15:40:50.970614  2958 net.cpp:367] BatchNorm9 -> Convolution9 (in-place)
I0925 15:40:50.970746  2958 net.cpp:122] Setting up BatchNorm9
I0925 15:40:50.970760  2958 net.cpp:129] Top shape: 100 16 28 28 (1254400)
I0925 15:40:50.970763  2958 net.cpp:137] Memory required for data: 226733200
I0925 15:40:50.970768  2958 layer_factory.hpp:77] Creating layer Scale9
I0925 15:40:50.970782  2958 net.cpp:84] Creating Layer Scale9
I0925 15:40:50.970785  2958 net.cpp:406] Scale9 <- Convolution9
I0925 15:40:50.970788  2958 net.cpp:367] Scale9 -> Convolution9 (in-place)
I0925 15:40:50.970846  2958 layer_factory.hpp:77] Creating layer Scale9
I0925 15:40:50.970970  2958 net.cpp:122] Setting up Scale9
I0925 15:40:50.970976  2958 net.cpp:129] Top shape: 100 16 28 28 (1254400)
I0925 15:40:50.970988  2958 net.cpp:137] Memory required for data: 231750800
I0925 15:40:50.970993  2958 layer_factory.hpp:77] Creating layer Eltwise4
I0925 15:40:50.970996  2958 net.cpp:84] Creating Layer Eltwise4
I0925 15:40:50.970999  2958 net.cpp:406] Eltwise4 <- Eltwise3_penlu7_0_split_1
I0925 15:40:50.971011  2958 net.cpp:406] Eltwise4 <- Convolution9
I0925 15:40:50.971014  2958 net.cpp:380] Eltwise4 -> Eltwise4
I0925 15:40:50.971041  2958 net.cpp:122] Setting up Eltwise4
I0925 15:40:50.971045  2958 net.cpp:129] Top shape: 100 16 28 28 (1254400)
I0925 15:40:50.971047  2958 net.cpp:137] Memory required for data: 236768400
I0925 15:40:50.971050  2958 layer_factory.hpp:77] Creating layer penlu9
I0925 15:40:50.971065  2958 net.cpp:84] Creating Layer penlu9
I0925 15:40:50.971067  2958 net.cpp:406] penlu9 <- Eltwise4
I0925 15:40:50.971071  2958 net.cpp:367] penlu9 -> Eltwise4 (in-place)
I0925 15:40:50.971179  2958 net.cpp:122] Setting up penlu9
I0925 15:40:50.971184  2958 net.cpp:129] Top shape: 100 16 28 28 (1254400)
I0925 15:40:50.971186  2958 net.cpp:137] Memory required for data: 241786000
I0925 15:40:50.971190  2958 layer_factory.hpp:77] Creating layer Eltwise4_penlu9_0_split
I0925 15:40:50.971195  2958 net.cpp:84] Creating Layer Eltwise4_penlu9_0_split
I0925 15:40:50.971199  2958 net.cpp:406] Eltwise4_penlu9_0_split <- Eltwise4
I0925 15:40:50.971201  2958 net.cpp:380] Eltwise4_penlu9_0_split -> Eltwise4_penlu9_0_split_0
I0925 15:40:50.971205  2958 net.cpp:380] Eltwise4_penlu9_0_split -> Eltwise4_penlu9_0_split_1
I0925 15:40:50.971237  2958 net.cpp:122] Setting up Eltwise4_penlu9_0_split
I0925 15:40:50.971242  2958 net.cpp:129] Top shape: 100 16 28 28 (1254400)
I0925 15:40:50.971254  2958 net.cpp:129] Top shape: 100 16 28 28 (1254400)
I0925 15:40:50.971256  2958 net.cpp:137] Memory required for data: 251821200
I0925 15:40:50.971259  2958 layer_factory.hpp:77] Creating layer Convolution10
I0925 15:40:50.971264  2958 net.cpp:84] Creating Layer Convolution10
I0925 15:40:50.971267  2958 net.cpp:406] Convolution10 <- Eltwise4_penlu9_0_split_0
I0925 15:40:50.971273  2958 net.cpp:380] Convolution10 -> Convolution10
I0925 15:40:50.972168  2958 net.cpp:122] Setting up Convolution10
I0925 15:40:50.972179  2958 net.cpp:129] Top shape: 100 16 28 28 (1254400)
I0925 15:40:50.972182  2958 net.cpp:137] Memory required for data: 256838800
I0925 15:40:50.972187  2958 layer_factory.hpp:77] Creating layer BatchNorm10
I0925 15:40:50.972192  2958 net.cpp:84] Creating Layer BatchNorm10
I0925 15:40:50.972195  2958 net.cpp:406] BatchNorm10 <- Convolution10
I0925 15:40:50.972199  2958 net.cpp:367] BatchNorm10 -> Convolution10 (in-place)
I0925 15:40:50.972329  2958 net.cpp:122] Setting up BatchNorm10
I0925 15:40:50.972343  2958 net.cpp:129] Top shape: 100 16 28 28 (1254400)
I0925 15:40:50.972347  2958 net.cpp:137] Memory required for data: 261856400
I0925 15:40:50.972352  2958 layer_factory.hpp:77] Creating layer Scale10
I0925 15:40:50.972357  2958 net.cpp:84] Creating Layer Scale10
I0925 15:40:50.972360  2958 net.cpp:406] Scale10 <- Convolution10
I0925 15:40:50.972364  2958 net.cpp:367] Scale10 -> Convolution10 (in-place)
I0925 15:40:50.972393  2958 layer_factory.hpp:77] Creating layer Scale10
I0925 15:40:50.972474  2958 net.cpp:122] Setting up Scale10
I0925 15:40:50.972484  2958 net.cpp:129] Top shape: 100 16 28 28 (1254400)
I0925 15:40:50.972487  2958 net.cpp:137] Memory required for data: 266874000
I0925 15:40:50.972492  2958 layer_factory.hpp:77] Creating layer penlu10
I0925 15:40:50.972502  2958 net.cpp:84] Creating Layer penlu10
I0925 15:40:50.972506  2958 net.cpp:406] penlu10 <- Convolution10
I0925 15:40:50.972510  2958 net.cpp:367] penlu10 -> Convolution10 (in-place)
I0925 15:40:50.972621  2958 net.cpp:122] Setting up penlu10
I0925 15:40:50.972626  2958 net.cpp:129] Top shape: 100 16 28 28 (1254400)
I0925 15:40:50.972630  2958 net.cpp:137] Memory required for data: 271891600
I0925 15:40:50.972635  2958 layer_factory.hpp:77] Creating layer Convolution11
I0925 15:40:50.972641  2958 net.cpp:84] Creating Layer Convolution11
I0925 15:40:50.972645  2958 net.cpp:406] Convolution11 <- Convolution10
I0925 15:40:50.972649  2958 net.cpp:380] Convolution11 -> Convolution11
I0925 15:40:50.973568  2958 net.cpp:122] Setting up Convolution11
I0925 15:40:50.973578  2958 net.cpp:129] Top shape: 100 16 28 28 (1254400)
I0925 15:40:50.973582  2958 net.cpp:137] Memory required for data: 276909200
I0925 15:40:50.973587  2958 layer_factory.hpp:77] Creating layer BatchNorm11
I0925 15:40:50.973592  2958 net.cpp:84] Creating Layer BatchNorm11
I0925 15:40:50.973595  2958 net.cpp:406] BatchNorm11 <- Convolution11
I0925 15:40:50.973599  2958 net.cpp:367] BatchNorm11 -> Convolution11 (in-place)
I0925 15:40:50.973734  2958 net.cpp:122] Setting up BatchNorm11
I0925 15:40:50.973739  2958 net.cpp:129] Top shape: 100 16 28 28 (1254400)
I0925 15:40:50.973742  2958 net.cpp:137] Memory required for data: 281926800
I0925 15:40:50.973747  2958 layer_factory.hpp:77] Creating layer Scale11
I0925 15:40:50.973752  2958 net.cpp:84] Creating Layer Scale11
I0925 15:40:50.973755  2958 net.cpp:406] Scale11 <- Convolution11
I0925 15:40:50.973758  2958 net.cpp:367] Scale11 -> Convolution11 (in-place)
I0925 15:40:50.973786  2958 layer_factory.hpp:77] Creating layer Scale11
I0925 15:40:50.973865  2958 net.cpp:122] Setting up Scale11
I0925 15:40:50.973870  2958 net.cpp:129] Top shape: 100 16 28 28 (1254400)
I0925 15:40:50.973872  2958 net.cpp:137] Memory required for data: 286944400
I0925 15:40:50.973876  2958 layer_factory.hpp:77] Creating layer Eltwise5
I0925 15:40:50.973882  2958 net.cpp:84] Creating Layer Eltwise5
I0925 15:40:50.973886  2958 net.cpp:406] Eltwise5 <- Eltwise4_penlu9_0_split_1
I0925 15:40:50.973888  2958 net.cpp:406] Eltwise5 <- Convolution11
I0925 15:40:50.973891  2958 net.cpp:380] Eltwise5 -> Eltwise5
I0925 15:40:50.973907  2958 net.cpp:122] Setting up Eltwise5
I0925 15:40:50.973912  2958 net.cpp:129] Top shape: 100 16 28 28 (1254400)
I0925 15:40:50.973914  2958 net.cpp:137] Memory required for data: 291962000
I0925 15:40:50.973917  2958 layer_factory.hpp:77] Creating layer penlu11
I0925 15:40:50.973922  2958 net.cpp:84] Creating Layer penlu11
I0925 15:40:50.973925  2958 net.cpp:406] penlu11 <- Eltwise5
I0925 15:40:50.973928  2958 net.cpp:367] penlu11 -> Eltwise5 (in-place)
I0925 15:40:50.974040  2958 net.cpp:122] Setting up penlu11
I0925 15:40:50.974045  2958 net.cpp:129] Top shape: 100 16 28 28 (1254400)
I0925 15:40:50.974048  2958 net.cpp:137] Memory required for data: 296979600
I0925 15:40:50.974052  2958 layer_factory.hpp:77] Creating layer Eltwise5_penlu11_0_split
I0925 15:40:50.974058  2958 net.cpp:84] Creating Layer Eltwise5_penlu11_0_split
I0925 15:40:50.974061  2958 net.cpp:406] Eltwise5_penlu11_0_split <- Eltwise5
I0925 15:40:50.974072  2958 net.cpp:380] Eltwise5_penlu11_0_split -> Eltwise5_penlu11_0_split_0
I0925 15:40:50.974076  2958 net.cpp:380] Eltwise5_penlu11_0_split -> Eltwise5_penlu11_0_split_1
I0925 15:40:50.974102  2958 net.cpp:122] Setting up Eltwise5_penlu11_0_split
I0925 15:40:50.974105  2958 net.cpp:129] Top shape: 100 16 28 28 (1254400)
I0925 15:40:50.974109  2958 net.cpp:129] Top shape: 100 16 28 28 (1254400)
I0925 15:40:50.974112  2958 net.cpp:137] Memory required for data: 307014800
I0925 15:40:50.974114  2958 layer_factory.hpp:77] Creating layer Convolution12
I0925 15:40:50.974119  2958 net.cpp:84] Creating Layer Convolution12
I0925 15:40:50.974123  2958 net.cpp:406] Convolution12 <- Eltwise5_penlu11_0_split_0
I0925 15:40:50.974128  2958 net.cpp:380] Convolution12 -> Convolution12
I0925 15:40:50.975034  2958 net.cpp:122] Setting up Convolution12
I0925 15:40:50.975044  2958 net.cpp:129] Top shape: 100 16 28 28 (1254400)
I0925 15:40:50.975047  2958 net.cpp:137] Memory required for data: 312032400
I0925 15:40:50.975052  2958 layer_factory.hpp:77] Creating layer BatchNorm12
I0925 15:40:50.975059  2958 net.cpp:84] Creating Layer BatchNorm12
I0925 15:40:50.975062  2958 net.cpp:406] BatchNorm12 <- Convolution12
I0925 15:40:50.975066  2958 net.cpp:367] BatchNorm12 -> Convolution12 (in-place)
I0925 15:40:50.975204  2958 net.cpp:122] Setting up BatchNorm12
I0925 15:40:50.975209  2958 net.cpp:129] Top shape: 100 16 28 28 (1254400)
I0925 15:40:50.975213  2958 net.cpp:137] Memory required for data: 317050000
I0925 15:40:50.975217  2958 layer_factory.hpp:77] Creating layer Scale12
I0925 15:40:50.975222  2958 net.cpp:84] Creating Layer Scale12
I0925 15:40:50.975226  2958 net.cpp:406] Scale12 <- Convolution12
I0925 15:40:50.975229  2958 net.cpp:367] Scale12 -> Convolution12 (in-place)
I0925 15:40:50.975258  2958 layer_factory.hpp:77] Creating layer Scale12
I0925 15:40:50.975338  2958 net.cpp:122] Setting up Scale12
I0925 15:40:50.975343  2958 net.cpp:129] Top shape: 100 16 28 28 (1254400)
I0925 15:40:50.975347  2958 net.cpp:137] Memory required for data: 322067600
I0925 15:40:50.975350  2958 layer_factory.hpp:77] Creating layer penlu12
I0925 15:40:50.975356  2958 net.cpp:84] Creating Layer penlu12
I0925 15:40:50.975359  2958 net.cpp:406] penlu12 <- Convolution12
I0925 15:40:50.975363  2958 net.cpp:367] penlu12 -> Convolution12 (in-place)
I0925 15:40:50.975474  2958 net.cpp:122] Setting up penlu12
I0925 15:40:50.975479  2958 net.cpp:129] Top shape: 100 16 28 28 (1254400)
I0925 15:40:50.975482  2958 net.cpp:137] Memory required for data: 327085200
I0925 15:40:50.975486  2958 layer_factory.hpp:77] Creating layer Convolution13
I0925 15:40:50.975494  2958 net.cpp:84] Creating Layer Convolution13
I0925 15:40:50.975497  2958 net.cpp:406] Convolution13 <- Convolution12
I0925 15:40:50.975502  2958 net.cpp:380] Convolution13 -> Convolution13
I0925 15:40:50.976405  2958 net.cpp:122] Setting up Convolution13
I0925 15:40:50.976415  2958 net.cpp:129] Top shape: 100 16 28 28 (1254400)
I0925 15:40:50.976419  2958 net.cpp:137] Memory required for data: 332102800
I0925 15:40:50.976423  2958 layer_factory.hpp:77] Creating layer BatchNorm13
I0925 15:40:50.976429  2958 net.cpp:84] Creating Layer BatchNorm13
I0925 15:40:50.976433  2958 net.cpp:406] BatchNorm13 <- Convolution13
I0925 15:40:50.976438  2958 net.cpp:367] BatchNorm13 -> Convolution13 (in-place)
I0925 15:40:50.976577  2958 net.cpp:122] Setting up BatchNorm13
I0925 15:40:50.976583  2958 net.cpp:129] Top shape: 100 16 28 28 (1254400)
I0925 15:40:50.976585  2958 net.cpp:137] Memory required for data: 337120400
I0925 15:40:50.976590  2958 layer_factory.hpp:77] Creating layer Scale13
I0925 15:40:50.976596  2958 net.cpp:84] Creating Layer Scale13
I0925 15:40:50.976599  2958 net.cpp:406] Scale13 <- Convolution13
I0925 15:40:50.976603  2958 net.cpp:367] Scale13 -> Convolution13 (in-place)
I0925 15:40:50.976630  2958 layer_factory.hpp:77] Creating layer Scale13
I0925 15:40:50.976712  2958 net.cpp:122] Setting up Scale13
I0925 15:40:50.976717  2958 net.cpp:129] Top shape: 100 16 28 28 (1254400)
I0925 15:40:50.976727  2958 net.cpp:137] Memory required for data: 342138000
I0925 15:40:50.976732  2958 layer_factory.hpp:77] Creating layer Eltwise6
I0925 15:40:50.976737  2958 net.cpp:84] Creating Layer Eltwise6
I0925 15:40:50.976739  2958 net.cpp:406] Eltwise6 <- Eltwise5_penlu11_0_split_1
I0925 15:40:50.976742  2958 net.cpp:406] Eltwise6 <- Convolution13
I0925 15:40:50.976747  2958 net.cpp:380] Eltwise6 -> Eltwise6
I0925 15:40:50.976766  2958 net.cpp:122] Setting up Eltwise6
I0925 15:40:50.976773  2958 net.cpp:129] Top shape: 100 16 28 28 (1254400)
I0925 15:40:50.976775  2958 net.cpp:137] Memory required for data: 347155600
I0925 15:40:50.976778  2958 layer_factory.hpp:77] Creating layer penlu13
I0925 15:40:50.976785  2958 net.cpp:84] Creating Layer penlu13
I0925 15:40:50.976788  2958 net.cpp:406] penlu13 <- Eltwise6
I0925 15:40:50.976794  2958 net.cpp:367] penlu13 -> Eltwise6 (in-place)
I0925 15:40:50.976905  2958 net.cpp:122] Setting up penlu13
I0925 15:40:50.976912  2958 net.cpp:129] Top shape: 100 16 28 28 (1254400)
I0925 15:40:50.976913  2958 net.cpp:137] Memory required for data: 352173200
I0925 15:40:50.976927  2958 layer_factory.hpp:77] Creating layer Eltwise6_penlu13_0_split
I0925 15:40:50.976932  2958 net.cpp:84] Creating Layer Eltwise6_penlu13_0_split
I0925 15:40:50.976934  2958 net.cpp:406] Eltwise6_penlu13_0_split <- Eltwise6
I0925 15:40:50.976938  2958 net.cpp:380] Eltwise6_penlu13_0_split -> Eltwise6_penlu13_0_split_0
I0925 15:40:50.976943  2958 net.cpp:380] Eltwise6_penlu13_0_split -> Eltwise6_penlu13_0_split_1
I0925 15:40:50.976969  2958 net.cpp:122] Setting up Eltwise6_penlu13_0_split
I0925 15:40:50.976974  2958 net.cpp:129] Top shape: 100 16 28 28 (1254400)
I0925 15:40:50.976977  2958 net.cpp:129] Top shape: 100 16 28 28 (1254400)
I0925 15:40:50.976979  2958 net.cpp:137] Memory required for data: 362208400
I0925 15:40:50.976981  2958 layer_factory.hpp:77] Creating layer Convolution14
I0925 15:40:50.976987  2958 net.cpp:84] Creating Layer Convolution14
I0925 15:40:50.976990  2958 net.cpp:406] Convolution14 <- Eltwise6_penlu13_0_split_0
I0925 15:40:50.976995  2958 net.cpp:380] Convolution14 -> Convolution14
I0925 15:40:50.977905  2958 net.cpp:122] Setting up Convolution14
I0925 15:40:50.977912  2958 net.cpp:129] Top shape: 100 16 28 28 (1254400)
I0925 15:40:50.977916  2958 net.cpp:137] Memory required for data: 367226000
I0925 15:40:50.977919  2958 layer_factory.hpp:77] Creating layer BatchNorm14
I0925 15:40:50.977926  2958 net.cpp:84] Creating Layer BatchNorm14
I0925 15:40:50.977928  2958 net.cpp:406] BatchNorm14 <- Convolution14
I0925 15:40:50.977932  2958 net.cpp:367] BatchNorm14 -> Convolution14 (in-place)
I0925 15:40:50.978067  2958 net.cpp:122] Setting up BatchNorm14
I0925 15:40:50.978072  2958 net.cpp:129] Top shape: 100 16 28 28 (1254400)
I0925 15:40:50.978075  2958 net.cpp:137] Memory required for data: 372243600
I0925 15:40:50.978080  2958 layer_factory.hpp:77] Creating layer Scale14
I0925 15:40:50.978083  2958 net.cpp:84] Creating Layer Scale14
I0925 15:40:50.978085  2958 net.cpp:406] Scale14 <- Convolution14
I0925 15:40:50.978090  2958 net.cpp:367] Scale14 -> Convolution14 (in-place)
I0925 15:40:50.978116  2958 layer_factory.hpp:77] Creating layer Scale14
I0925 15:40:50.978195  2958 net.cpp:122] Setting up Scale14
I0925 15:40:50.978200  2958 net.cpp:129] Top shape: 100 16 28 28 (1254400)
I0925 15:40:50.978202  2958 net.cpp:137] Memory required for data: 377261200
I0925 15:40:50.978206  2958 layer_factory.hpp:77] Creating layer penlu14
I0925 15:40:50.978211  2958 net.cpp:84] Creating Layer penlu14
I0925 15:40:50.978214  2958 net.cpp:406] penlu14 <- Convolution14
I0925 15:40:50.978219  2958 net.cpp:367] penlu14 -> Convolution14 (in-place)
I0925 15:40:50.978330  2958 net.cpp:122] Setting up penlu14
I0925 15:40:50.978334  2958 net.cpp:129] Top shape: 100 16 28 28 (1254400)
I0925 15:40:50.978337  2958 net.cpp:137] Memory required for data: 382278800
I0925 15:40:50.978341  2958 layer_factory.hpp:77] Creating layer Convolution15
I0925 15:40:50.978348  2958 net.cpp:84] Creating Layer Convolution15
I0925 15:40:50.978356  2958 net.cpp:406] Convolution15 <- Convolution14
I0925 15:40:50.978361  2958 net.cpp:380] Convolution15 -> Convolution15
I0925 15:40:50.979267  2958 net.cpp:122] Setting up Convolution15
I0925 15:40:50.979275  2958 net.cpp:129] Top shape: 100 16 28 28 (1254400)
I0925 15:40:50.979279  2958 net.cpp:137] Memory required for data: 387296400
I0925 15:40:50.979282  2958 layer_factory.hpp:77] Creating layer BatchNorm15
I0925 15:40:50.979288  2958 net.cpp:84] Creating Layer BatchNorm15
I0925 15:40:50.979291  2958 net.cpp:406] BatchNorm15 <- Convolution15
I0925 15:40:50.979295  2958 net.cpp:367] BatchNorm15 -> Convolution15 (in-place)
I0925 15:40:50.979430  2958 net.cpp:122] Setting up BatchNorm15
I0925 15:40:50.979435  2958 net.cpp:129] Top shape: 100 16 28 28 (1254400)
I0925 15:40:50.979437  2958 net.cpp:137] Memory required for data: 392314000
I0925 15:40:50.979444  2958 layer_factory.hpp:77] Creating layer Scale15
I0925 15:40:50.979447  2958 net.cpp:84] Creating Layer Scale15
I0925 15:40:50.979449  2958 net.cpp:406] Scale15 <- Convolution15
I0925 15:40:50.979454  2958 net.cpp:367] Scale15 -> Convolution15 (in-place)
I0925 15:40:50.979480  2958 layer_factory.hpp:77] Creating layer Scale15
I0925 15:40:50.979557  2958 net.cpp:122] Setting up Scale15
I0925 15:40:50.979562  2958 net.cpp:129] Top shape: 100 16 28 28 (1254400)
I0925 15:40:50.979564  2958 net.cpp:137] Memory required for data: 397331600
I0925 15:40:50.979568  2958 layer_factory.hpp:77] Creating layer Eltwise7
I0925 15:40:50.979573  2958 net.cpp:84] Creating Layer Eltwise7
I0925 15:40:50.979574  2958 net.cpp:406] Eltwise7 <- Eltwise6_penlu13_0_split_1
I0925 15:40:50.979578  2958 net.cpp:406] Eltwise7 <- Convolution15
I0925 15:40:50.979581  2958 net.cpp:380] Eltwise7 -> Eltwise7
I0925 15:40:50.979595  2958 net.cpp:122] Setting up Eltwise7
I0925 15:40:50.979599  2958 net.cpp:129] Top shape: 100 16 28 28 (1254400)
I0925 15:40:50.979601  2958 net.cpp:137] Memory required for data: 402349200
I0925 15:40:50.979604  2958 layer_factory.hpp:77] Creating layer penlu15
I0925 15:40:50.979609  2958 net.cpp:84] Creating Layer penlu15
I0925 15:40:50.979612  2958 net.cpp:406] penlu15 <- Eltwise7
I0925 15:40:50.979615  2958 net.cpp:367] penlu15 -> Eltwise7 (in-place)
I0925 15:40:50.979727  2958 net.cpp:122] Setting up penlu15
I0925 15:40:50.979730  2958 net.cpp:129] Top shape: 100 16 28 28 (1254400)
I0925 15:40:50.979732  2958 net.cpp:137] Memory required for data: 407366800
I0925 15:40:50.979737  2958 layer_factory.hpp:77] Creating layer Eltwise7_penlu15_0_split
I0925 15:40:50.979742  2958 net.cpp:84] Creating Layer Eltwise7_penlu15_0_split
I0925 15:40:50.979743  2958 net.cpp:406] Eltwise7_penlu15_0_split <- Eltwise7
I0925 15:40:50.979748  2958 net.cpp:380] Eltwise7_penlu15_0_split -> Eltwise7_penlu15_0_split_0
I0925 15:40:50.979751  2958 net.cpp:380] Eltwise7_penlu15_0_split -> Eltwise7_penlu15_0_split_1
I0925 15:40:50.979773  2958 net.cpp:122] Setting up Eltwise7_penlu15_0_split
I0925 15:40:50.979776  2958 net.cpp:129] Top shape: 100 16 28 28 (1254400)
I0925 15:40:50.979779  2958 net.cpp:129] Top shape: 100 16 28 28 (1254400)
I0925 15:40:50.979780  2958 net.cpp:137] Memory required for data: 417402000
I0925 15:40:50.979782  2958 layer_factory.hpp:77] Creating layer Convolution16
I0925 15:40:50.979789  2958 net.cpp:84] Creating Layer Convolution16
I0925 15:40:50.979791  2958 net.cpp:406] Convolution16 <- Eltwise7_penlu15_0_split_0
I0925 15:40:50.979795  2958 net.cpp:380] Convolution16 -> Convolution16
I0925 15:40:50.980710  2958 net.cpp:122] Setting up Convolution16
I0925 15:40:50.980720  2958 net.cpp:129] Top shape: 100 16 28 28 (1254400)
I0925 15:40:50.980722  2958 net.cpp:137] Memory required for data: 422419600
I0925 15:40:50.980726  2958 layer_factory.hpp:77] Creating layer BatchNorm16
I0925 15:40:50.980732  2958 net.cpp:84] Creating Layer BatchNorm16
I0925 15:40:50.980736  2958 net.cpp:406] BatchNorm16 <- Convolution16
I0925 15:40:50.980739  2958 net.cpp:367] BatchNorm16 -> Convolution16 (in-place)
I0925 15:40:50.980877  2958 net.cpp:122] Setting up BatchNorm16
I0925 15:40:50.980890  2958 net.cpp:129] Top shape: 100 16 28 28 (1254400)
I0925 15:40:50.980891  2958 net.cpp:137] Memory required for data: 427437200
I0925 15:40:50.980896  2958 layer_factory.hpp:77] Creating layer Scale16
I0925 15:40:50.980901  2958 net.cpp:84] Creating Layer Scale16
I0925 15:40:50.980903  2958 net.cpp:406] Scale16 <- Convolution16
I0925 15:40:50.980906  2958 net.cpp:367] Scale16 -> Convolution16 (in-place)
I0925 15:40:50.980934  2958 layer_factory.hpp:77] Creating layer Scale16
I0925 15:40:50.981014  2958 net.cpp:122] Setting up Scale16
I0925 15:40:50.981017  2958 net.cpp:129] Top shape: 100 16 28 28 (1254400)
I0925 15:40:50.981019  2958 net.cpp:137] Memory required for data: 432454800
I0925 15:40:50.981024  2958 layer_factory.hpp:77] Creating layer penlu16
I0925 15:40:50.981029  2958 net.cpp:84] Creating Layer penlu16
I0925 15:40:50.981031  2958 net.cpp:406] penlu16 <- Convolution16
I0925 15:40:50.981034  2958 net.cpp:367] penlu16 -> Convolution16 (in-place)
I0925 15:40:50.981148  2958 net.cpp:122] Setting up penlu16
I0925 15:40:50.981153  2958 net.cpp:129] Top shape: 100 16 28 28 (1254400)
I0925 15:40:50.981154  2958 net.cpp:137] Memory required for data: 437472400
I0925 15:40:50.981158  2958 layer_factory.hpp:77] Creating layer Convolution17
I0925 15:40:50.981166  2958 net.cpp:84] Creating Layer Convolution17
I0925 15:40:50.981168  2958 net.cpp:406] Convolution17 <- Convolution16
I0925 15:40:50.981173  2958 net.cpp:380] Convolution17 -> Convolution17
I0925 15:40:50.981761  2958 net.cpp:122] Setting up Convolution17
I0925 15:40:50.981770  2958 net.cpp:129] Top shape: 100 16 28 28 (1254400)
I0925 15:40:50.981772  2958 net.cpp:137] Memory required for data: 442490000
I0925 15:40:50.981776  2958 layer_factory.hpp:77] Creating layer BatchNorm17
I0925 15:40:50.981781  2958 net.cpp:84] Creating Layer BatchNorm17
I0925 15:40:50.981784  2958 net.cpp:406] BatchNorm17 <- Convolution17
I0925 15:40:50.981788  2958 net.cpp:367] BatchNorm17 -> Convolution17 (in-place)
I0925 15:40:50.981925  2958 net.cpp:122] Setting up BatchNorm17
I0925 15:40:50.981930  2958 net.cpp:129] Top shape: 100 16 28 28 (1254400)
I0925 15:40:50.981932  2958 net.cpp:137] Memory required for data: 447507600
I0925 15:40:50.981937  2958 layer_factory.hpp:77] Creating layer Scale17
I0925 15:40:50.981941  2958 net.cpp:84] Creating Layer Scale17
I0925 15:40:50.981943  2958 net.cpp:406] Scale17 <- Convolution17
I0925 15:40:50.981946  2958 net.cpp:367] Scale17 -> Convolution17 (in-place)
I0925 15:40:50.981973  2958 layer_factory.hpp:77] Creating layer Scale17
I0925 15:40:50.982051  2958 net.cpp:122] Setting up Scale17
I0925 15:40:50.982056  2958 net.cpp:129] Top shape: 100 16 28 28 (1254400)
I0925 15:40:50.982059  2958 net.cpp:137] Memory required for data: 452525200
I0925 15:40:50.982062  2958 layer_factory.hpp:77] Creating layer Eltwise8
I0925 15:40:50.982066  2958 net.cpp:84] Creating Layer Eltwise8
I0925 15:40:50.982069  2958 net.cpp:406] Eltwise8 <- Eltwise7_penlu15_0_split_1
I0925 15:40:50.982072  2958 net.cpp:406] Eltwise8 <- Convolution17
I0925 15:40:50.982075  2958 net.cpp:380] Eltwise8 -> Eltwise8
I0925 15:40:50.982090  2958 net.cpp:122] Setting up Eltwise8
I0925 15:40:50.982095  2958 net.cpp:129] Top shape: 100 16 28 28 (1254400)
I0925 15:40:50.982096  2958 net.cpp:137] Memory required for data: 457542800
I0925 15:40:50.982098  2958 layer_factory.hpp:77] Creating layer penlu17
I0925 15:40:50.982103  2958 net.cpp:84] Creating Layer penlu17
I0925 15:40:50.982106  2958 net.cpp:406] penlu17 <- Eltwise8
I0925 15:40:50.982110  2958 net.cpp:367] penlu17 -> Eltwise8 (in-place)
I0925 15:40:50.982220  2958 net.cpp:122] Setting up penlu17
I0925 15:40:50.982225  2958 net.cpp:129] Top shape: 100 16 28 28 (1254400)
I0925 15:40:50.982228  2958 net.cpp:137] Memory required for data: 462560400
I0925 15:40:50.982231  2958 layer_factory.hpp:77] Creating layer Eltwise8_penlu17_0_split
I0925 15:40:50.982235  2958 net.cpp:84] Creating Layer Eltwise8_penlu17_0_split
I0925 15:40:50.982239  2958 net.cpp:406] Eltwise8_penlu17_0_split <- Eltwise8
I0925 15:40:50.982247  2958 net.cpp:380] Eltwise8_penlu17_0_split -> Eltwise8_penlu17_0_split_0
I0925 15:40:50.982252  2958 net.cpp:380] Eltwise8_penlu17_0_split -> Eltwise8_penlu17_0_split_1
I0925 15:40:50.982275  2958 net.cpp:122] Setting up Eltwise8_penlu17_0_split
I0925 15:40:50.982280  2958 net.cpp:129] Top shape: 100 16 28 28 (1254400)
I0925 15:40:50.982282  2958 net.cpp:129] Top shape: 100 16 28 28 (1254400)
I0925 15:40:50.982285  2958 net.cpp:137] Memory required for data: 472595600
I0925 15:40:50.982286  2958 layer_factory.hpp:77] Creating layer Convolution18
I0925 15:40:50.982292  2958 net.cpp:84] Creating Layer Convolution18
I0925 15:40:50.982295  2958 net.cpp:406] Convolution18 <- Eltwise8_penlu17_0_split_0
I0925 15:40:50.982300  2958 net.cpp:380] Convolution18 -> Convolution18
I0925 15:40:50.983199  2958 net.cpp:122] Setting up Convolution18
I0925 15:40:50.983207  2958 net.cpp:129] Top shape: 100 16 28 28 (1254400)
I0925 15:40:50.983211  2958 net.cpp:137] Memory required for data: 477613200
I0925 15:40:50.983214  2958 layer_factory.hpp:77] Creating layer BatchNorm18
I0925 15:40:50.983220  2958 net.cpp:84] Creating Layer BatchNorm18
I0925 15:40:50.983222  2958 net.cpp:406] BatchNorm18 <- Convolution18
I0925 15:40:50.983227  2958 net.cpp:367] BatchNorm18 -> Convolution18 (in-place)
I0925 15:40:50.983364  2958 net.cpp:122] Setting up BatchNorm18
I0925 15:40:50.983368  2958 net.cpp:129] Top shape: 100 16 28 28 (1254400)
I0925 15:40:50.983371  2958 net.cpp:137] Memory required for data: 482630800
I0925 15:40:50.983376  2958 layer_factory.hpp:77] Creating layer Scale18
I0925 15:40:50.983381  2958 net.cpp:84] Creating Layer Scale18
I0925 15:40:50.983382  2958 net.cpp:406] Scale18 <- Convolution18
I0925 15:40:50.983386  2958 net.cpp:367] Scale18 -> Convolution18 (in-place)
I0925 15:40:50.983412  2958 layer_factory.hpp:77] Creating layer Scale18
I0925 15:40:50.983494  2958 net.cpp:122] Setting up Scale18
I0925 15:40:50.983500  2958 net.cpp:129] Top shape: 100 16 28 28 (1254400)
I0925 15:40:50.983501  2958 net.cpp:137] Memory required for data: 487648400
I0925 15:40:50.983505  2958 layer_factory.hpp:77] Creating layer penlu18
I0925 15:40:50.983510  2958 net.cpp:84] Creating Layer penlu18
I0925 15:40:50.983513  2958 net.cpp:406] penlu18 <- Convolution18
I0925 15:40:50.983517  2958 net.cpp:367] penlu18 -> Convolution18 (in-place)
I0925 15:40:50.983629  2958 net.cpp:122] Setting up penlu18
I0925 15:40:50.983633  2958 net.cpp:129] Top shape: 100 16 28 28 (1254400)
I0925 15:40:50.983635  2958 net.cpp:137] Memory required for data: 492666000
I0925 15:40:50.983640  2958 layer_factory.hpp:77] Creating layer Convolution19
I0925 15:40:50.983646  2958 net.cpp:84] Creating Layer Convolution19
I0925 15:40:50.983649  2958 net.cpp:406] Convolution19 <- Convolution18
I0925 15:40:50.983654  2958 net.cpp:380] Convolution19 -> Convolution19
I0925 15:40:50.984586  2958 net.cpp:122] Setting up Convolution19
I0925 15:40:50.984594  2958 net.cpp:129] Top shape: 100 16 28 28 (1254400)
I0925 15:40:50.984597  2958 net.cpp:137] Memory required for data: 497683600
I0925 15:40:50.984601  2958 layer_factory.hpp:77] Creating layer BatchNorm19
I0925 15:40:50.984606  2958 net.cpp:84] Creating Layer BatchNorm19
I0925 15:40:50.984609  2958 net.cpp:406] BatchNorm19 <- Convolution19
I0925 15:40:50.984612  2958 net.cpp:367] BatchNorm19 -> Convolution19 (in-place)
I0925 15:40:50.984781  2958 net.cpp:122] Setting up BatchNorm19
I0925 15:40:50.984786  2958 net.cpp:129] Top shape: 100 16 28 28 (1254400)
I0925 15:40:50.984797  2958 net.cpp:137] Memory required for data: 502701200
I0925 15:40:50.984802  2958 layer_factory.hpp:77] Creating layer Scale19
I0925 15:40:50.984817  2958 net.cpp:84] Creating Layer Scale19
I0925 15:40:50.984818  2958 net.cpp:406] Scale19 <- Convolution19
I0925 15:40:50.984822  2958 net.cpp:367] Scale19 -> Convolution19 (in-place)
I0925 15:40:50.984849  2958 layer_factory.hpp:77] Creating layer Scale19
I0925 15:40:50.984928  2958 net.cpp:122] Setting up Scale19
I0925 15:40:50.984933  2958 net.cpp:129] Top shape: 100 16 28 28 (1254400)
I0925 15:40:50.984935  2958 net.cpp:137] Memory required for data: 507718800
I0925 15:40:50.984946  2958 layer_factory.hpp:77] Creating layer Eltwise9
I0925 15:40:50.984951  2958 net.cpp:84] Creating Layer Eltwise9
I0925 15:40:50.984954  2958 net.cpp:406] Eltwise9 <- Eltwise8_penlu17_0_split_1
I0925 15:40:50.984956  2958 net.cpp:406] Eltwise9 <- Convolution19
I0925 15:40:50.984961  2958 net.cpp:380] Eltwise9 -> Eltwise9
I0925 15:40:50.984977  2958 net.cpp:122] Setting up Eltwise9
I0925 15:40:50.984982  2958 net.cpp:129] Top shape: 100 16 28 28 (1254400)
I0925 15:40:50.984983  2958 net.cpp:137] Memory required for data: 512736400
I0925 15:40:50.984985  2958 layer_factory.hpp:77] Creating layer penlu19
I0925 15:40:50.984990  2958 net.cpp:84] Creating Layer penlu19
I0925 15:40:50.984993  2958 net.cpp:406] penlu19 <- Eltwise9
I0925 15:40:50.984997  2958 net.cpp:367] penlu19 -> Eltwise9 (in-place)
I0925 15:40:50.985110  2958 net.cpp:122] Setting up penlu19
I0925 15:40:50.985114  2958 net.cpp:129] Top shape: 100 16 28 28 (1254400)
I0925 15:40:50.985116  2958 net.cpp:137] Memory required for data: 517754000
I0925 15:40:50.985121  2958 layer_factory.hpp:77] Creating layer Eltwise9_penlu19_0_split
I0925 15:40:50.985126  2958 net.cpp:84] Creating Layer Eltwise9_penlu19_0_split
I0925 15:40:50.985128  2958 net.cpp:406] Eltwise9_penlu19_0_split <- Eltwise9
I0925 15:40:50.985132  2958 net.cpp:380] Eltwise9_penlu19_0_split -> Eltwise9_penlu19_0_split_0
I0925 15:40:50.985136  2958 net.cpp:380] Eltwise9_penlu19_0_split -> Eltwise9_penlu19_0_split_1
I0925 15:40:50.985160  2958 net.cpp:122] Setting up Eltwise9_penlu19_0_split
I0925 15:40:50.985164  2958 net.cpp:129] Top shape: 100 16 28 28 (1254400)
I0925 15:40:50.985167  2958 net.cpp:129] Top shape: 100 16 28 28 (1254400)
I0925 15:40:50.985168  2958 net.cpp:137] Memory required for data: 527789200
I0925 15:40:50.985172  2958 layer_factory.hpp:77] Creating layer Convolution20
I0925 15:40:50.985177  2958 net.cpp:84] Creating Layer Convolution20
I0925 15:40:50.985179  2958 net.cpp:406] Convolution20 <- Eltwise9_penlu19_0_split_0
I0925 15:40:50.985183  2958 net.cpp:380] Convolution20 -> Convolution20
I0925 15:40:50.986379  2958 net.cpp:122] Setting up Convolution20
I0925 15:40:50.986388  2958 net.cpp:129] Top shape: 100 32 14 14 (627200)
I0925 15:40:50.986392  2958 net.cpp:137] Memory required for data: 530298000
I0925 15:40:50.986395  2958 layer_factory.hpp:77] Creating layer BatchNorm20
I0925 15:40:50.986402  2958 net.cpp:84] Creating Layer BatchNorm20
I0925 15:40:50.986404  2958 net.cpp:406] BatchNorm20 <- Convolution20
I0925 15:40:50.986408  2958 net.cpp:367] BatchNorm20 -> Convolution20 (in-place)
I0925 15:40:50.986557  2958 net.cpp:122] Setting up BatchNorm20
I0925 15:40:50.986562  2958 net.cpp:129] Top shape: 100 32 14 14 (627200)
I0925 15:40:50.986563  2958 net.cpp:137] Memory required for data: 532806800
I0925 15:40:50.986568  2958 layer_factory.hpp:77] Creating layer Scale20
I0925 15:40:50.986573  2958 net.cpp:84] Creating Layer Scale20
I0925 15:40:50.986577  2958 net.cpp:406] Scale20 <- Convolution20
I0925 15:40:50.986579  2958 net.cpp:367] Scale20 -> Convolution20 (in-place)
I0925 15:40:50.986606  2958 layer_factory.hpp:77] Creating layer Scale20
I0925 15:40:50.986685  2958 net.cpp:122] Setting up Scale20
I0925 15:40:50.986688  2958 net.cpp:129] Top shape: 100 32 14 14 (627200)
I0925 15:40:50.986690  2958 net.cpp:137] Memory required for data: 535315600
I0925 15:40:50.986694  2958 layer_factory.hpp:77] Creating layer Convolution21
I0925 15:40:50.986702  2958 net.cpp:84] Creating Layer Convolution21
I0925 15:40:50.986704  2958 net.cpp:406] Convolution21 <- Eltwise9_penlu19_0_split_1
I0925 15:40:50.986708  2958 net.cpp:380] Convolution21 -> Convolution21
I0925 15:40:50.988345  2958 net.cpp:122] Setting up Convolution21
I0925 15:40:50.988354  2958 net.cpp:129] Top shape: 100 32 14 14 (627200)
I0925 15:40:50.988356  2958 net.cpp:137] Memory required for data: 537824400
I0925 15:40:50.988363  2958 layer_factory.hpp:77] Creating layer BatchNorm21
I0925 15:40:50.988368  2958 net.cpp:84] Creating Layer BatchNorm21
I0925 15:40:50.988376  2958 net.cpp:406] BatchNorm21 <- Convolution21
I0925 15:40:50.988380  2958 net.cpp:367] BatchNorm21 -> Convolution21 (in-place)
I0925 15:40:50.988545  2958 net.cpp:122] Setting up BatchNorm21
I0925 15:40:50.988559  2958 net.cpp:129] Top shape: 100 32 14 14 (627200)
I0925 15:40:50.988561  2958 net.cpp:137] Memory required for data: 540333200
I0925 15:40:50.988565  2958 layer_factory.hpp:77] Creating layer Scale21
I0925 15:40:50.988569  2958 net.cpp:84] Creating Layer Scale21
I0925 15:40:50.988572  2958 net.cpp:406] Scale21 <- Convolution21
I0925 15:40:50.988575  2958 net.cpp:367] Scale21 -> Convolution21 (in-place)
I0925 15:40:50.988602  2958 layer_factory.hpp:77] Creating layer Scale21
I0925 15:40:50.988677  2958 net.cpp:122] Setting up Scale21
I0925 15:40:50.988682  2958 net.cpp:129] Top shape: 100 32 14 14 (627200)
I0925 15:40:50.988683  2958 net.cpp:137] Memory required for data: 542842000
I0925 15:40:50.988687  2958 layer_factory.hpp:77] Creating layer penlu20
I0925 15:40:50.988692  2958 net.cpp:84] Creating Layer penlu20
I0925 15:40:50.988694  2958 net.cpp:406] penlu20 <- Convolution21
I0925 15:40:50.988698  2958 net.cpp:367] penlu20 -> Convolution21 (in-place)
I0925 15:40:50.988804  2958 net.cpp:122] Setting up penlu20
I0925 15:40:50.988808  2958 net.cpp:129] Top shape: 100 32 14 14 (627200)
I0925 15:40:50.988811  2958 net.cpp:137] Memory required for data: 545350800
I0925 15:40:50.988814  2958 layer_factory.hpp:77] Creating layer Convolution22
I0925 15:40:50.988822  2958 net.cpp:84] Creating Layer Convolution22
I0925 15:40:50.988824  2958 net.cpp:406] Convolution22 <- Convolution21
I0925 15:40:50.988828  2958 net.cpp:380] Convolution22 -> Convolution22
I0925 15:40:50.989856  2958 net.cpp:122] Setting up Convolution22
I0925 15:40:50.989864  2958 net.cpp:129] Top shape: 100 32 14 14 (627200)
I0925 15:40:50.989866  2958 net.cpp:137] Memory required for data: 547859600
I0925 15:40:50.989871  2958 layer_factory.hpp:77] Creating layer BatchNorm22
I0925 15:40:50.989876  2958 net.cpp:84] Creating Layer BatchNorm22
I0925 15:40:50.989878  2958 net.cpp:406] BatchNorm22 <- Convolution22
I0925 15:40:50.989883  2958 net.cpp:367] BatchNorm22 -> Convolution22 (in-place)
I0925 15:40:50.990013  2958 net.cpp:122] Setting up BatchNorm22
I0925 15:40:50.990017  2958 net.cpp:129] Top shape: 100 32 14 14 (627200)
I0925 15:40:50.990020  2958 net.cpp:137] Memory required for data: 550368400
I0925 15:40:50.990025  2958 layer_factory.hpp:77] Creating layer Scale22
I0925 15:40:50.990028  2958 net.cpp:84] Creating Layer Scale22
I0925 15:40:50.990031  2958 net.cpp:406] Scale22 <- Convolution22
I0925 15:40:50.990034  2958 net.cpp:367] Scale22 -> Convolution22 (in-place)
I0925 15:40:50.990059  2958 layer_factory.hpp:77] Creating layer Scale22
I0925 15:40:50.990134  2958 net.cpp:122] Setting up Scale22
I0925 15:40:50.990137  2958 net.cpp:129] Top shape: 100 32 14 14 (627200)
I0925 15:40:50.990139  2958 net.cpp:137] Memory required for data: 552877200
I0925 15:40:50.990144  2958 layer_factory.hpp:77] Creating layer Eltwise10
I0925 15:40:50.990147  2958 net.cpp:84] Creating Layer Eltwise10
I0925 15:40:50.990149  2958 net.cpp:406] Eltwise10 <- Convolution20
I0925 15:40:50.990152  2958 net.cpp:406] Eltwise10 <- Convolution22
I0925 15:40:50.990155  2958 net.cpp:380] Eltwise10 -> Eltwise10
I0925 15:40:50.990170  2958 net.cpp:122] Setting up Eltwise10
I0925 15:40:50.990175  2958 net.cpp:129] Top shape: 100 32 14 14 (627200)
I0925 15:40:50.990176  2958 net.cpp:137] Memory required for data: 555386000
I0925 15:40:50.990178  2958 layer_factory.hpp:77] Creating layer penlu21
I0925 15:40:50.990183  2958 net.cpp:84] Creating Layer penlu21
I0925 15:40:50.990185  2958 net.cpp:406] penlu21 <- Eltwise10
I0925 15:40:50.990188  2958 net.cpp:367] penlu21 -> Eltwise10 (in-place)
I0925 15:40:50.990293  2958 net.cpp:122] Setting up penlu21
I0925 15:40:50.990296  2958 net.cpp:129] Top shape: 100 32 14 14 (627200)
I0925 15:40:50.990298  2958 net.cpp:137] Memory required for data: 557894800
I0925 15:40:50.990303  2958 layer_factory.hpp:77] Creating layer Eltwise10_penlu21_0_split
I0925 15:40:50.990314  2958 net.cpp:84] Creating Layer Eltwise10_penlu21_0_split
I0925 15:40:50.990315  2958 net.cpp:406] Eltwise10_penlu21_0_split <- Eltwise10
I0925 15:40:50.990319  2958 net.cpp:380] Eltwise10_penlu21_0_split -> Eltwise10_penlu21_0_split_0
I0925 15:40:50.990324  2958 net.cpp:380] Eltwise10_penlu21_0_split -> Eltwise10_penlu21_0_split_1
I0925 15:40:50.990346  2958 net.cpp:122] Setting up Eltwise10_penlu21_0_split
I0925 15:40:50.990350  2958 net.cpp:129] Top shape: 100 32 14 14 (627200)
I0925 15:40:50.990353  2958 net.cpp:129] Top shape: 100 32 14 14 (627200)
I0925 15:40:50.990355  2958 net.cpp:137] Memory required for data: 562912400
I0925 15:40:50.990357  2958 layer_factory.hpp:77] Creating layer Convolution23
I0925 15:40:50.990363  2958 net.cpp:84] Creating Layer Convolution23
I0925 15:40:50.990365  2958 net.cpp:406] Convolution23 <- Eltwise10_penlu21_0_split_0
I0925 15:40:50.990370  2958 net.cpp:380] Convolution23 -> Convolution23
I0925 15:40:50.991693  2958 net.cpp:122] Setting up Convolution23
I0925 15:40:50.991701  2958 net.cpp:129] Top shape: 100 32 14 14 (627200)
I0925 15:40:50.991703  2958 net.cpp:137] Memory required for data: 565421200
I0925 15:40:50.991708  2958 layer_factory.hpp:77] Creating layer BatchNorm23
I0925 15:40:50.991713  2958 net.cpp:84] Creating Layer BatchNorm23
I0925 15:40:50.991714  2958 net.cpp:406] BatchNorm23 <- Convolution23
I0925 15:40:50.991719  2958 net.cpp:367] BatchNorm23 -> Convolution23 (in-place)
I0925 15:40:50.991868  2958 net.cpp:122] Setting up BatchNorm23
I0925 15:40:50.991874  2958 net.cpp:129] Top shape: 100 32 14 14 (627200)
I0925 15:40:50.991876  2958 net.cpp:137] Memory required for data: 567930000
I0925 15:40:50.991881  2958 layer_factory.hpp:77] Creating layer Scale23
I0925 15:40:50.991885  2958 net.cpp:84] Creating Layer Scale23
I0925 15:40:50.991888  2958 net.cpp:406] Scale23 <- Convolution23
I0925 15:40:50.991891  2958 net.cpp:367] Scale23 -> Convolution23 (in-place)
I0925 15:40:50.991919  2958 layer_factory.hpp:77] Creating layer Scale23
I0925 15:40:50.991994  2958 net.cpp:122] Setting up Scale23
I0925 15:40:50.991998  2958 net.cpp:129] Top shape: 100 32 14 14 (627200)
I0925 15:40:50.992000  2958 net.cpp:137] Memory required for data: 570438800
I0925 15:40:50.992004  2958 layer_factory.hpp:77] Creating layer penlu22
I0925 15:40:50.992009  2958 net.cpp:84] Creating Layer penlu22
I0925 15:40:50.992012  2958 net.cpp:406] penlu22 <- Convolution23
I0925 15:40:50.992015  2958 net.cpp:367] penlu22 -> Convolution23 (in-place)
I0925 15:40:50.992120  2958 net.cpp:122] Setting up penlu22
I0925 15:40:50.992125  2958 net.cpp:129] Top shape: 100 32 14 14 (627200)
I0925 15:40:50.992126  2958 net.cpp:137] Memory required for data: 572947600
I0925 15:40:50.992130  2958 layer_factory.hpp:77] Creating layer Convolution24
I0925 15:40:50.992137  2958 net.cpp:84] Creating Layer Convolution24
I0925 15:40:50.992139  2958 net.cpp:406] Convolution24 <- Convolution23
I0925 15:40:50.992143  2958 net.cpp:380] Convolution24 -> Convolution24
I0925 15:40:50.993196  2958 net.cpp:122] Setting up Convolution24
I0925 15:40:50.993203  2958 net.cpp:129] Top shape: 100 32 14 14 (627200)
I0925 15:40:50.993206  2958 net.cpp:137] Memory required for data: 575456400
I0925 15:40:50.993211  2958 layer_factory.hpp:77] Creating layer BatchNorm24
I0925 15:40:50.993216  2958 net.cpp:84] Creating Layer BatchNorm24
I0925 15:40:50.993218  2958 net.cpp:406] BatchNorm24 <- Convolution24
I0925 15:40:50.993221  2958 net.cpp:367] BatchNorm24 -> Convolution24 (in-place)
I0925 15:40:50.993357  2958 net.cpp:122] Setting up BatchNorm24
I0925 15:40:50.993361  2958 net.cpp:129] Top shape: 100 32 14 14 (627200)
I0925 15:40:50.993363  2958 net.cpp:137] Memory required for data: 577965200
I0925 15:40:50.993368  2958 layer_factory.hpp:77] Creating layer Scale24
I0925 15:40:50.993372  2958 net.cpp:84] Creating Layer Scale24
I0925 15:40:50.993374  2958 net.cpp:406] Scale24 <- Convolution24
I0925 15:40:50.993377  2958 net.cpp:367] Scale24 -> Convolution24 (in-place)
I0925 15:40:50.993412  2958 layer_factory.hpp:77] Creating layer Scale24
I0925 15:40:50.993487  2958 net.cpp:122] Setting up Scale24
I0925 15:40:50.993492  2958 net.cpp:129] Top shape: 100 32 14 14 (627200)
I0925 15:40:50.993495  2958 net.cpp:137] Memory required for data: 580474000
I0925 15:40:50.993499  2958 layer_factory.hpp:77] Creating layer Eltwise11
I0925 15:40:50.993502  2958 net.cpp:84] Creating Layer Eltwise11
I0925 15:40:50.993505  2958 net.cpp:406] Eltwise11 <- Eltwise10_penlu21_0_split_1
I0925 15:40:50.993507  2958 net.cpp:406] Eltwise11 <- Convolution24
I0925 15:40:50.993510  2958 net.cpp:380] Eltwise11 -> Eltwise11
I0925 15:40:50.993526  2958 net.cpp:122] Setting up Eltwise11
I0925 15:40:50.993530  2958 net.cpp:129] Top shape: 100 32 14 14 (627200)
I0925 15:40:50.993531  2958 net.cpp:137] Memory required for data: 582982800
I0925 15:40:50.993533  2958 layer_factory.hpp:77] Creating layer penlu23
I0925 15:40:50.993538  2958 net.cpp:84] Creating Layer penlu23
I0925 15:40:50.993541  2958 net.cpp:406] penlu23 <- Eltwise11
I0925 15:40:50.993544  2958 net.cpp:367] penlu23 -> Eltwise11 (in-place)
I0925 15:40:50.993649  2958 net.cpp:122] Setting up penlu23
I0925 15:40:50.993654  2958 net.cpp:129] Top shape: 100 32 14 14 (627200)
I0925 15:40:50.993655  2958 net.cpp:137] Memory required for data: 585491600
I0925 15:40:50.993659  2958 layer_factory.hpp:77] Creating layer Eltwise11_penlu23_0_split
I0925 15:40:50.993665  2958 net.cpp:84] Creating Layer Eltwise11_penlu23_0_split
I0925 15:40:50.993667  2958 net.cpp:406] Eltwise11_penlu23_0_split <- Eltwise11
I0925 15:40:50.993670  2958 net.cpp:380] Eltwise11_penlu23_0_split -> Eltwise11_penlu23_0_split_0
I0925 15:40:50.993675  2958 net.cpp:380] Eltwise11_penlu23_0_split -> Eltwise11_penlu23_0_split_1
I0925 15:40:50.993698  2958 net.cpp:122] Setting up Eltwise11_penlu23_0_split
I0925 15:40:50.993702  2958 net.cpp:129] Top shape: 100 32 14 14 (627200)
I0925 15:40:50.993705  2958 net.cpp:129] Top shape: 100 32 14 14 (627200)
I0925 15:40:50.993706  2958 net.cpp:137] Memory required for data: 590509200
I0925 15:40:50.993710  2958 layer_factory.hpp:77] Creating layer Convolution25
I0925 15:40:50.993715  2958 net.cpp:84] Creating Layer Convolution25
I0925 15:40:50.993716  2958 net.cpp:406] Convolution25 <- Eltwise11_penlu23_0_split_0
I0925 15:40:50.993721  2958 net.cpp:380] Convolution25 -> Convolution25
I0925 15:40:50.994731  2958 net.cpp:122] Setting up Convolution25
I0925 15:40:50.994740  2958 net.cpp:129] Top shape: 100 32 14 14 (627200)
I0925 15:40:50.994742  2958 net.cpp:137] Memory required for data: 593018000
I0925 15:40:50.994746  2958 layer_factory.hpp:77] Creating layer BatchNorm25
I0925 15:40:50.994751  2958 net.cpp:84] Creating Layer BatchNorm25
I0925 15:40:50.994753  2958 net.cpp:406] BatchNorm25 <- Convolution25
I0925 15:40:50.994757  2958 net.cpp:367] BatchNorm25 -> Convolution25 (in-place)
I0925 15:40:50.994907  2958 net.cpp:122] Setting up BatchNorm25
I0925 15:40:50.994912  2958 net.cpp:129] Top shape: 100 32 14 14 (627200)
I0925 15:40:50.994915  2958 net.cpp:137] Memory required for data: 595526800
I0925 15:40:50.994920  2958 layer_factory.hpp:77] Creating layer Scale25
I0925 15:40:50.994923  2958 net.cpp:84] Creating Layer Scale25
I0925 15:40:50.994925  2958 net.cpp:406] Scale25 <- Convolution25
I0925 15:40:50.994937  2958 net.cpp:367] Scale25 -> Convolution25 (in-place)
I0925 15:40:50.994964  2958 layer_factory.hpp:77] Creating layer Scale25
I0925 15:40:50.995039  2958 net.cpp:122] Setting up Scale25
I0925 15:40:50.995043  2958 net.cpp:129] Top shape: 100 32 14 14 (627200)
I0925 15:40:50.995045  2958 net.cpp:137] Memory required for data: 598035600
I0925 15:40:50.995049  2958 layer_factory.hpp:77] Creating layer penlu24
I0925 15:40:50.995054  2958 net.cpp:84] Creating Layer penlu24
I0925 15:40:50.995056  2958 net.cpp:406] penlu24 <- Convolution25
I0925 15:40:50.995060  2958 net.cpp:367] penlu24 -> Convolution25 (in-place)
I0925 15:40:50.995165  2958 net.cpp:122] Setting up penlu24
I0925 15:40:50.995169  2958 net.cpp:129] Top shape: 100 32 14 14 (627200)
I0925 15:40:50.995177  2958 net.cpp:137] Memory required for data: 600544400
I0925 15:40:50.995182  2958 layer_factory.hpp:77] Creating layer Convolution26
I0925 15:40:50.995188  2958 net.cpp:84] Creating Layer Convolution26
I0925 15:40:50.995190  2958 net.cpp:406] Convolution26 <- Convolution25
I0925 15:40:50.995194  2958 net.cpp:380] Convolution26 -> Convolution26
I0925 15:40:50.996248  2958 net.cpp:122] Setting up Convolution26
I0925 15:40:50.996258  2958 net.cpp:129] Top shape: 100 32 14 14 (627200)
I0925 15:40:50.996259  2958 net.cpp:137] Memory required for data: 603053200
I0925 15:40:50.996264  2958 layer_factory.hpp:77] Creating layer BatchNorm26
I0925 15:40:50.996269  2958 net.cpp:84] Creating Layer BatchNorm26
I0925 15:40:50.996273  2958 net.cpp:406] BatchNorm26 <- Convolution26
I0925 15:40:50.996275  2958 net.cpp:367] BatchNorm26 -> Convolution26 (in-place)
I0925 15:40:50.996417  2958 net.cpp:122] Setting up BatchNorm26
I0925 15:40:50.996421  2958 net.cpp:129] Top shape: 100 32 14 14 (627200)
I0925 15:40:50.996423  2958 net.cpp:137] Memory required for data: 605562000
I0925 15:40:50.996428  2958 layer_factory.hpp:77] Creating layer Scale26
I0925 15:40:50.996433  2958 net.cpp:84] Creating Layer Scale26
I0925 15:40:50.996434  2958 net.cpp:406] Scale26 <- Convolution26
I0925 15:40:50.996438  2958 net.cpp:367] Scale26 -> Convolution26 (in-place)
I0925 15:40:50.996464  2958 layer_factory.hpp:77] Creating layer Scale26
I0925 15:40:50.996568  2958 net.cpp:122] Setting up Scale26
I0925 15:40:50.996573  2958 net.cpp:129] Top shape: 100 32 14 14 (627200)
I0925 15:40:50.996575  2958 net.cpp:137] Memory required for data: 608070800
I0925 15:40:50.996579  2958 layer_factory.hpp:77] Creating layer Eltwise12
I0925 15:40:50.996584  2958 net.cpp:84] Creating Layer Eltwise12
I0925 15:40:50.996587  2958 net.cpp:406] Eltwise12 <- Eltwise11_penlu23_0_split_1
I0925 15:40:50.996589  2958 net.cpp:406] Eltwise12 <- Convolution26
I0925 15:40:50.996592  2958 net.cpp:380] Eltwise12 -> Eltwise12
I0925 15:40:50.996608  2958 net.cpp:122] Setting up Eltwise12
I0925 15:40:50.996613  2958 net.cpp:129] Top shape: 100 32 14 14 (627200)
I0925 15:40:50.996613  2958 net.cpp:137] Memory required for data: 610579600
I0925 15:40:50.996615  2958 layer_factory.hpp:77] Creating layer penlu25
I0925 15:40:50.996621  2958 net.cpp:84] Creating Layer penlu25
I0925 15:40:50.996623  2958 net.cpp:406] penlu25 <- Eltwise12
I0925 15:40:50.996626  2958 net.cpp:367] penlu25 -> Eltwise12 (in-place)
I0925 15:40:50.996733  2958 net.cpp:122] Setting up penlu25
I0925 15:40:50.996737  2958 net.cpp:129] Top shape: 100 32 14 14 (627200)
I0925 15:40:50.996739  2958 net.cpp:137] Memory required for data: 613088400
I0925 15:40:50.996760  2958 layer_factory.hpp:77] Creating layer Eltwise12_penlu25_0_split
I0925 15:40:50.996772  2958 net.cpp:84] Creating Layer Eltwise12_penlu25_0_split
I0925 15:40:50.996774  2958 net.cpp:406] Eltwise12_penlu25_0_split <- Eltwise12
I0925 15:40:50.996778  2958 net.cpp:380] Eltwise12_penlu25_0_split -> Eltwise12_penlu25_0_split_0
I0925 15:40:50.996785  2958 net.cpp:380] Eltwise12_penlu25_0_split -> Eltwise12_penlu25_0_split_1
I0925 15:40:50.996811  2958 net.cpp:122] Setting up Eltwise12_penlu25_0_split
I0925 15:40:50.996815  2958 net.cpp:129] Top shape: 100 32 14 14 (627200)
I0925 15:40:50.996817  2958 net.cpp:129] Top shape: 100 32 14 14 (627200)
I0925 15:40:50.996819  2958 net.cpp:137] Memory required for data: 618106000
I0925 15:40:50.996822  2958 layer_factory.hpp:77] Creating layer Convolution27
I0925 15:40:50.996829  2958 net.cpp:84] Creating Layer Convolution27
I0925 15:40:50.996830  2958 net.cpp:406] Convolution27 <- Eltwise12_penlu25_0_split_0
I0925 15:40:50.996834  2958 net.cpp:380] Convolution27 -> Convolution27
I0925 15:40:50.997539  2958 net.cpp:122] Setting up Convolution27
I0925 15:40:50.997546  2958 net.cpp:129] Top shape: 100 32 14 14 (627200)
I0925 15:40:50.997548  2958 net.cpp:137] Memory required for data: 620614800
I0925 15:40:50.997552  2958 layer_factory.hpp:77] Creating layer BatchNorm27
I0925 15:40:50.997557  2958 net.cpp:84] Creating Layer BatchNorm27
I0925 15:40:50.997566  2958 net.cpp:406] BatchNorm27 <- Convolution27
I0925 15:40:50.997570  2958 net.cpp:367] BatchNorm27 -> Convolution27 (in-place)
I0925 15:40:50.997709  2958 net.cpp:122] Setting up BatchNorm27
I0925 15:40:50.997714  2958 net.cpp:129] Top shape: 100 32 14 14 (627200)
I0925 15:40:50.997715  2958 net.cpp:137] Memory required for data: 623123600
I0925 15:40:50.997720  2958 layer_factory.hpp:77] Creating layer Scale27
I0925 15:40:50.997723  2958 net.cpp:84] Creating Layer Scale27
I0925 15:40:50.997726  2958 net.cpp:406] Scale27 <- Convolution27
I0925 15:40:50.997730  2958 net.cpp:367] Scale27 -> Convolution27 (in-place)
I0925 15:40:50.997756  2958 layer_factory.hpp:77] Creating layer Scale27
I0925 15:40:50.997833  2958 net.cpp:122] Setting up Scale27
I0925 15:40:50.997838  2958 net.cpp:129] Top shape: 100 32 14 14 (627200)
I0925 15:40:50.997839  2958 net.cpp:137] Memory required for data: 625632400
I0925 15:40:50.997843  2958 layer_factory.hpp:77] Creating layer penlu26
I0925 15:40:50.997848  2958 net.cpp:84] Creating Layer penlu26
I0925 15:40:50.997849  2958 net.cpp:406] penlu26 <- Convolution27
I0925 15:40:50.997853  2958 net.cpp:367] penlu26 -> Convolution27 (in-place)
I0925 15:40:50.997962  2958 net.cpp:122] Setting up penlu26
I0925 15:40:50.997967  2958 net.cpp:129] Top shape: 100 32 14 14 (627200)
I0925 15:40:50.997968  2958 net.cpp:137] Memory required for data: 628141200
I0925 15:40:50.997972  2958 layer_factory.hpp:77] Creating layer Convolution28
I0925 15:40:50.997979  2958 net.cpp:84] Creating Layer Convolution28
I0925 15:40:50.997982  2958 net.cpp:406] Convolution28 <- Convolution27
I0925 15:40:50.997987  2958 net.cpp:380] Convolution28 -> Convolution28
I0925 15:40:50.998998  2958 net.cpp:122] Setting up Convolution28
I0925 15:40:50.999007  2958 net.cpp:129] Top shape: 100 32 14 14 (627200)
I0925 15:40:50.999009  2958 net.cpp:137] Memory required for data: 630650000
I0925 15:40:50.999013  2958 layer_factory.hpp:77] Creating layer BatchNorm28
I0925 15:40:50.999018  2958 net.cpp:84] Creating Layer BatchNorm28
I0925 15:40:50.999022  2958 net.cpp:406] BatchNorm28 <- Convolution28
I0925 15:40:50.999025  2958 net.cpp:367] BatchNorm28 -> Convolution28 (in-place)
I0925 15:40:50.999161  2958 net.cpp:122] Setting up BatchNorm28
I0925 15:40:50.999164  2958 net.cpp:129] Top shape: 100 32 14 14 (627200)
I0925 15:40:50.999166  2958 net.cpp:137] Memory required for data: 633158800
I0925 15:40:50.999171  2958 layer_factory.hpp:77] Creating layer Scale28
I0925 15:40:50.999174  2958 net.cpp:84] Creating Layer Scale28
I0925 15:40:50.999177  2958 net.cpp:406] Scale28 <- Convolution28
I0925 15:40:50.999181  2958 net.cpp:367] Scale28 -> Convolution28 (in-place)
I0925 15:40:50.999207  2958 layer_factory.hpp:77] Creating layer Scale28
I0925 15:40:50.999284  2958 net.cpp:122] Setting up Scale28
I0925 15:40:50.999287  2958 net.cpp:129] Top shape: 100 32 14 14 (627200)
I0925 15:40:50.999289  2958 net.cpp:137] Memory required for data: 635667600
I0925 15:40:50.999294  2958 layer_factory.hpp:77] Creating layer Eltwise13
I0925 15:40:50.999297  2958 net.cpp:84] Creating Layer Eltwise13
I0925 15:40:50.999300  2958 net.cpp:406] Eltwise13 <- Eltwise12_penlu25_0_split_1
I0925 15:40:50.999303  2958 net.cpp:406] Eltwise13 <- Convolution28
I0925 15:40:50.999306  2958 net.cpp:380] Eltwise13 -> Eltwise13
I0925 15:40:50.999321  2958 net.cpp:122] Setting up Eltwise13
I0925 15:40:50.999325  2958 net.cpp:129] Top shape: 100 32 14 14 (627200)
I0925 15:40:50.999326  2958 net.cpp:137] Memory required for data: 638176400
I0925 15:40:50.999328  2958 layer_factory.hpp:77] Creating layer penlu27
I0925 15:40:50.999333  2958 net.cpp:84] Creating Layer penlu27
I0925 15:40:50.999336  2958 net.cpp:406] penlu27 <- Eltwise13
I0925 15:40:50.999339  2958 net.cpp:367] penlu27 -> Eltwise13 (in-place)
I0925 15:40:50.999449  2958 net.cpp:122] Setting up penlu27
I0925 15:40:50.999452  2958 net.cpp:129] Top shape: 100 32 14 14 (627200)
I0925 15:40:50.999454  2958 net.cpp:137] Memory required for data: 640685200
I0925 15:40:50.999459  2958 layer_factory.hpp:77] Creating layer Eltwise13_penlu27_0_split
I0925 15:40:50.999467  2958 net.cpp:84] Creating Layer Eltwise13_penlu27_0_split
I0925 15:40:50.999470  2958 net.cpp:406] Eltwise13_penlu27_0_split <- Eltwise13
I0925 15:40:50.999475  2958 net.cpp:380] Eltwise13_penlu27_0_split -> Eltwise13_penlu27_0_split_0
I0925 15:40:50.999478  2958 net.cpp:380] Eltwise13_penlu27_0_split -> Eltwise13_penlu27_0_split_1
I0925 15:40:50.999501  2958 net.cpp:122] Setting up Eltwise13_penlu27_0_split
I0925 15:40:50.999505  2958 net.cpp:129] Top shape: 100 32 14 14 (627200)
I0925 15:40:50.999507  2958 net.cpp:129] Top shape: 100 32 14 14 (627200)
I0925 15:40:50.999510  2958 net.cpp:137] Memory required for data: 645702800
I0925 15:40:50.999511  2958 layer_factory.hpp:77] Creating layer Convolution29
I0925 15:40:50.999518  2958 net.cpp:84] Creating Layer Convolution29
I0925 15:40:50.999521  2958 net.cpp:406] Convolution29 <- Eltwise13_penlu27_0_split_0
I0925 15:40:50.999524  2958 net.cpp:380] Convolution29 -> Convolution29
I0925 15:40:51.000576  2958 net.cpp:122] Setting up Convolution29
I0925 15:40:51.000583  2958 net.cpp:129] Top shape: 100 32 14 14 (627200)
I0925 15:40:51.000586  2958 net.cpp:137] Memory required for data: 648211600
I0925 15:40:51.000591  2958 layer_factory.hpp:77] Creating layer BatchNorm29
I0925 15:40:51.000596  2958 net.cpp:84] Creating Layer BatchNorm29
I0925 15:40:51.000598  2958 net.cpp:406] BatchNorm29 <- Convolution29
I0925 15:40:51.000602  2958 net.cpp:367] BatchNorm29 -> Convolution29 (in-place)
I0925 15:40:51.000735  2958 net.cpp:122] Setting up BatchNorm29
I0925 15:40:51.000739  2958 net.cpp:129] Top shape: 100 32 14 14 (627200)
I0925 15:40:51.000742  2958 net.cpp:137] Memory required for data: 650720400
I0925 15:40:51.000746  2958 layer_factory.hpp:77] Creating layer Scale29
I0925 15:40:51.000751  2958 net.cpp:84] Creating Layer Scale29
I0925 15:40:51.000753  2958 net.cpp:406] Scale29 <- Convolution29
I0925 15:40:51.000756  2958 net.cpp:367] Scale29 -> Convolution29 (in-place)
I0925 15:40:51.000784  2958 layer_factory.hpp:77] Creating layer Scale29
I0925 15:40:51.000861  2958 net.cpp:122] Setting up Scale29
I0925 15:40:51.000865  2958 net.cpp:129] Top shape: 100 32 14 14 (627200)
I0925 15:40:51.000867  2958 net.cpp:137] Memory required for data: 653229200
I0925 15:40:51.000871  2958 layer_factory.hpp:77] Creating layer penlu28
I0925 15:40:51.000876  2958 net.cpp:84] Creating Layer penlu28
I0925 15:40:51.000879  2958 net.cpp:406] penlu28 <- Convolution29
I0925 15:40:51.000882  2958 net.cpp:367] penlu28 -> Convolution29 (in-place)
I0925 15:40:51.000988  2958 net.cpp:122] Setting up penlu28
I0925 15:40:51.000991  2958 net.cpp:129] Top shape: 100 32 14 14 (627200)
I0925 15:40:51.000993  2958 net.cpp:137] Memory required for data: 655738000
I0925 15:40:51.000998  2958 layer_factory.hpp:77] Creating layer Convolution30
I0925 15:40:51.001004  2958 net.cpp:84] Creating Layer Convolution30
I0925 15:40:51.001006  2958 net.cpp:406] Convolution30 <- Convolution29
I0925 15:40:51.001010  2958 net.cpp:380] Convolution30 -> Convolution30
I0925 15:40:51.002049  2958 net.cpp:122] Setting up Convolution30
I0925 15:40:51.002058  2958 net.cpp:129] Top shape: 100 32 14 14 (627200)
I0925 15:40:51.002059  2958 net.cpp:137] Memory required for data: 658246800
I0925 15:40:51.002064  2958 layer_factory.hpp:77] Creating layer BatchNorm30
I0925 15:40:51.002069  2958 net.cpp:84] Creating Layer BatchNorm30
I0925 15:40:51.002071  2958 net.cpp:406] BatchNorm30 <- Convolution30
I0925 15:40:51.002076  2958 net.cpp:367] BatchNorm30 -> Convolution30 (in-place)
I0925 15:40:51.002210  2958 net.cpp:122] Setting up BatchNorm30
I0925 15:40:51.002214  2958 net.cpp:129] Top shape: 100 32 14 14 (627200)
I0925 15:40:51.002218  2958 net.cpp:137] Memory required for data: 660755600
I0925 15:40:51.002221  2958 layer_factory.hpp:77] Creating layer Scale30
I0925 15:40:51.002226  2958 net.cpp:84] Creating Layer Scale30
I0925 15:40:51.002228  2958 net.cpp:406] Scale30 <- Convolution30
I0925 15:40:51.002231  2958 net.cpp:367] Scale30 -> Convolution30 (in-place)
I0925 15:40:51.002265  2958 layer_factory.hpp:77] Creating layer Scale30
I0925 15:40:51.002342  2958 net.cpp:122] Setting up Scale30
I0925 15:40:51.002346  2958 net.cpp:129] Top shape: 100 32 14 14 (627200)
I0925 15:40:51.002349  2958 net.cpp:137] Memory required for data: 663264400
I0925 15:40:51.002352  2958 layer_factory.hpp:77] Creating layer Eltwise14
I0925 15:40:51.002357  2958 net.cpp:84] Creating Layer Eltwise14
I0925 15:40:51.002359  2958 net.cpp:406] Eltwise14 <- Eltwise13_penlu27_0_split_1
I0925 15:40:51.002362  2958 net.cpp:406] Eltwise14 <- Convolution30
I0925 15:40:51.002365  2958 net.cpp:380] Eltwise14 -> Eltwise14
I0925 15:40:51.002382  2958 net.cpp:122] Setting up Eltwise14
I0925 15:40:51.002384  2958 net.cpp:129] Top shape: 100 32 14 14 (627200)
I0925 15:40:51.002387  2958 net.cpp:137] Memory required for data: 665773200
I0925 15:40:51.002388  2958 layer_factory.hpp:77] Creating layer penlu29
I0925 15:40:51.002394  2958 net.cpp:84] Creating Layer penlu29
I0925 15:40:51.002396  2958 net.cpp:406] penlu29 <- Eltwise14
I0925 15:40:51.002399  2958 net.cpp:367] penlu29 -> Eltwise14 (in-place)
I0925 15:40:51.002506  2958 net.cpp:122] Setting up penlu29
I0925 15:40:51.002511  2958 net.cpp:129] Top shape: 100 32 14 14 (627200)
I0925 15:40:51.002513  2958 net.cpp:137] Memory required for data: 668282000
I0925 15:40:51.002517  2958 layer_factory.hpp:77] Creating layer Eltwise14_penlu29_0_split
I0925 15:40:51.002521  2958 net.cpp:84] Creating Layer Eltwise14_penlu29_0_split
I0925 15:40:51.002523  2958 net.cpp:406] Eltwise14_penlu29_0_split <- Eltwise14
I0925 15:40:51.002526  2958 net.cpp:380] Eltwise14_penlu29_0_split -> Eltwise14_penlu29_0_split_0
I0925 15:40:51.002530  2958 net.cpp:380] Eltwise14_penlu29_0_split -> Eltwise14_penlu29_0_split_1
I0925 15:40:51.002553  2958 net.cpp:122] Setting up Eltwise14_penlu29_0_split
I0925 15:40:51.002557  2958 net.cpp:129] Top shape: 100 32 14 14 (627200)
I0925 15:40:51.002560  2958 net.cpp:129] Top shape: 100 32 14 14 (627200)
I0925 15:40:51.002562  2958 net.cpp:137] Memory required for data: 673299600
I0925 15:40:51.002564  2958 layer_factory.hpp:77] Creating layer Convolution31
I0925 15:40:51.002569  2958 net.cpp:84] Creating Layer Convolution31
I0925 15:40:51.002573  2958 net.cpp:406] Convolution31 <- Eltwise14_penlu29_0_split_0
I0925 15:40:51.002576  2958 net.cpp:380] Convolution31 -> Convolution31
I0925 15:40:51.003609  2958 net.cpp:122] Setting up Convolution31
I0925 15:40:51.003618  2958 net.cpp:129] Top shape: 100 32 14 14 (627200)
I0925 15:40:51.003620  2958 net.cpp:137] Memory required for data: 675808400
I0925 15:40:51.003624  2958 layer_factory.hpp:77] Creating layer BatchNorm31
I0925 15:40:51.003629  2958 net.cpp:84] Creating Layer BatchNorm31
I0925 15:40:51.003633  2958 net.cpp:406] BatchNorm31 <- Convolution31
I0925 15:40:51.003636  2958 net.cpp:367] BatchNorm31 -> Convolution31 (in-place)
I0925 15:40:51.003774  2958 net.cpp:122] Setting up BatchNorm31
I0925 15:40:51.003778  2958 net.cpp:129] Top shape: 100 32 14 14 (627200)
I0925 15:40:51.003780  2958 net.cpp:137] Memory required for data: 678317200
I0925 15:40:51.003785  2958 layer_factory.hpp:77] Creating layer Scale31
I0925 15:40:51.003789  2958 net.cpp:84] Creating Layer Scale31
I0925 15:40:51.003793  2958 net.cpp:406] Scale31 <- Convolution31
I0925 15:40:51.003795  2958 net.cpp:367] Scale31 -> Convolution31 (in-place)
I0925 15:40:51.003821  2958 layer_factory.hpp:77] Creating layer Scale31
I0925 15:40:51.003898  2958 net.cpp:122] Setting up Scale31
I0925 15:40:51.003902  2958 net.cpp:129] Top shape: 100 32 14 14 (627200)
I0925 15:40:51.003904  2958 net.cpp:137] Memory required for data: 680826000
I0925 15:40:51.003908  2958 layer_factory.hpp:77] Creating layer penlu30
I0925 15:40:51.003913  2958 net.cpp:84] Creating Layer penlu30
I0925 15:40:51.003916  2958 net.cpp:406] penlu30 <- Convolution31
I0925 15:40:51.003919  2958 net.cpp:367] penlu30 -> Convolution31 (in-place)
I0925 15:40:51.004029  2958 net.cpp:122] Setting up penlu30
I0925 15:40:51.004032  2958 net.cpp:129] Top shape: 100 32 14 14 (627200)
I0925 15:40:51.004040  2958 net.cpp:137] Memory required for data: 683334800
I0925 15:40:51.004045  2958 layer_factory.hpp:77] Creating layer Convolution32
I0925 15:40:51.004051  2958 net.cpp:84] Creating Layer Convolution32
I0925 15:40:51.004055  2958 net.cpp:406] Convolution32 <- Convolution31
I0925 15:40:51.004058  2958 net.cpp:380] Convolution32 -> Convolution32
I0925 15:40:51.005120  2958 net.cpp:122] Setting up Convolution32
I0925 15:40:51.005128  2958 net.cpp:129] Top shape: 100 32 14 14 (627200)
I0925 15:40:51.005131  2958 net.cpp:137] Memory required for data: 685843600
I0925 15:40:51.005134  2958 layer_factory.hpp:77] Creating layer BatchNorm32
I0925 15:40:51.005141  2958 net.cpp:84] Creating Layer BatchNorm32
I0925 15:40:51.005142  2958 net.cpp:406] BatchNorm32 <- Convolution32
I0925 15:40:51.005146  2958 net.cpp:367] BatchNorm32 -> Convolution32 (in-place)
I0925 15:40:51.005283  2958 net.cpp:122] Setting up BatchNorm32
I0925 15:40:51.005287  2958 net.cpp:129] Top shape: 100 32 14 14 (627200)
I0925 15:40:51.005290  2958 net.cpp:137] Memory required for data: 688352400
I0925 15:40:51.005295  2958 layer_factory.hpp:77] Creating layer Scale32
I0925 15:40:51.005300  2958 net.cpp:84] Creating Layer Scale32
I0925 15:40:51.005302  2958 net.cpp:406] Scale32 <- Convolution32
I0925 15:40:51.005306  2958 net.cpp:367] Scale32 -> Convolution32 (in-place)
I0925 15:40:51.005332  2958 layer_factory.hpp:77] Creating layer Scale32
I0925 15:40:51.005411  2958 net.cpp:122] Setting up Scale32
I0925 15:40:51.005416  2958 net.cpp:129] Top shape: 100 32 14 14 (627200)
I0925 15:40:51.005419  2958 net.cpp:137] Memory required for data: 690861200
I0925 15:40:51.005422  2958 layer_factory.hpp:77] Creating layer Eltwise15
I0925 15:40:51.005426  2958 net.cpp:84] Creating Layer Eltwise15
I0925 15:40:51.005429  2958 net.cpp:406] Eltwise15 <- Eltwise14_penlu29_0_split_1
I0925 15:40:51.005431  2958 net.cpp:406] Eltwise15 <- Convolution32
I0925 15:40:51.005434  2958 net.cpp:380] Eltwise15 -> Eltwise15
I0925 15:40:51.005451  2958 net.cpp:122] Setting up Eltwise15
I0925 15:40:51.005455  2958 net.cpp:129] Top shape: 100 32 14 14 (627200)
I0925 15:40:51.005457  2958 net.cpp:137] Memory required for data: 693370000
I0925 15:40:51.005460  2958 layer_factory.hpp:77] Creating layer penlu31
I0925 15:40:51.005465  2958 net.cpp:84] Creating Layer penlu31
I0925 15:40:51.005466  2958 net.cpp:406] penlu31 <- Eltwise15
I0925 15:40:51.005470  2958 net.cpp:367] penlu31 -> Eltwise15 (in-place)
I0925 15:40:51.005579  2958 net.cpp:122] Setting up penlu31
I0925 15:40:51.005584  2958 net.cpp:129] Top shape: 100 32 14 14 (627200)
I0925 15:40:51.005585  2958 net.cpp:137] Memory required for data: 695878800
I0925 15:40:51.005589  2958 layer_factory.hpp:77] Creating layer Eltwise15_penlu31_0_split
I0925 15:40:51.005592  2958 net.cpp:84] Creating Layer Eltwise15_penlu31_0_split
I0925 15:40:51.005595  2958 net.cpp:406] Eltwise15_penlu31_0_split <- Eltwise15
I0925 15:40:51.005599  2958 net.cpp:380] Eltwise15_penlu31_0_split -> Eltwise15_penlu31_0_split_0
I0925 15:40:51.005602  2958 net.cpp:380] Eltwise15_penlu31_0_split -> Eltwise15_penlu31_0_split_1
I0925 15:40:51.005625  2958 net.cpp:122] Setting up Eltwise15_penlu31_0_split
I0925 15:40:51.005628  2958 net.cpp:129] Top shape: 100 32 14 14 (627200)
I0925 15:40:51.005631  2958 net.cpp:129] Top shape: 100 32 14 14 (627200)
I0925 15:40:51.005633  2958 net.cpp:137] Memory required for data: 700896400
I0925 15:40:51.005635  2958 layer_factory.hpp:77] Creating layer Convolution33
I0925 15:40:51.005641  2958 net.cpp:84] Creating Layer Convolution33
I0925 15:40:51.005643  2958 net.cpp:406] Convolution33 <- Eltwise15_penlu31_0_split_0
I0925 15:40:51.005647  2958 net.cpp:380] Convolution33 -> Convolution33
I0925 15:40:51.006994  2958 net.cpp:122] Setting up Convolution33
I0925 15:40:51.007002  2958 net.cpp:129] Top shape: 100 32 14 14 (627200)
I0925 15:40:51.007005  2958 net.cpp:137] Memory required for data: 703405200
I0925 15:40:51.007010  2958 layer_factory.hpp:77] Creating layer BatchNorm33
I0925 15:40:51.007015  2958 net.cpp:84] Creating Layer BatchNorm33
I0925 15:40:51.007025  2958 net.cpp:406] BatchNorm33 <- Convolution33
I0925 15:40:51.007028  2958 net.cpp:367] BatchNorm33 -> Convolution33 (in-place)
I0925 15:40:51.007174  2958 net.cpp:122] Setting up BatchNorm33
I0925 15:40:51.007179  2958 net.cpp:129] Top shape: 100 32 14 14 (627200)
I0925 15:40:51.007180  2958 net.cpp:137] Memory required for data: 705914000
I0925 15:40:51.007185  2958 layer_factory.hpp:77] Creating layer Scale33
I0925 15:40:51.007189  2958 net.cpp:84] Creating Layer Scale33
I0925 15:40:51.007191  2958 net.cpp:406] Scale33 <- Convolution33
I0925 15:40:51.007194  2958 net.cpp:367] Scale33 -> Convolution33 (in-place)
I0925 15:40:51.007222  2958 layer_factory.hpp:77] Creating layer Scale33
I0925 15:40:51.007303  2958 net.cpp:122] Setting up Scale33
I0925 15:40:51.007308  2958 net.cpp:129] Top shape: 100 32 14 14 (627200)
I0925 15:40:51.007309  2958 net.cpp:137] Memory required for data: 708422800
I0925 15:40:51.007313  2958 layer_factory.hpp:77] Creating layer penlu32
I0925 15:40:51.007318  2958 net.cpp:84] Creating Layer penlu32
I0925 15:40:51.007320  2958 net.cpp:406] penlu32 <- Convolution33
I0925 15:40:51.007324  2958 net.cpp:367] penlu32 -> Convolution33 (in-place)
I0925 15:40:51.007434  2958 net.cpp:122] Setting up penlu32
I0925 15:40:51.007438  2958 net.cpp:129] Top shape: 100 32 14 14 (627200)
I0925 15:40:51.007441  2958 net.cpp:137] Memory required for data: 710931600
I0925 15:40:51.007444  2958 layer_factory.hpp:77] Creating layer Convolution34
I0925 15:40:51.007452  2958 net.cpp:84] Creating Layer Convolution34
I0925 15:40:51.007453  2958 net.cpp:406] Convolution34 <- Convolution33
I0925 15:40:51.007457  2958 net.cpp:380] Convolution34 -> Convolution34
I0925 15:40:51.008518  2958 net.cpp:122] Setting up Convolution34
I0925 15:40:51.008527  2958 net.cpp:129] Top shape: 100 32 14 14 (627200)
I0925 15:40:51.008538  2958 net.cpp:137] Memory required for data: 713440400
I0925 15:40:51.008543  2958 layer_factory.hpp:77] Creating layer BatchNorm34
I0925 15:40:51.008548  2958 net.cpp:84] Creating Layer BatchNorm34
I0925 15:40:51.008551  2958 net.cpp:406] BatchNorm34 <- Convolution34
I0925 15:40:51.008554  2958 net.cpp:367] BatchNorm34 -> Convolution34 (in-place)
I0925 15:40:51.008692  2958 net.cpp:122] Setting up BatchNorm34
I0925 15:40:51.008697  2958 net.cpp:129] Top shape: 100 32 14 14 (627200)
I0925 15:40:51.008698  2958 net.cpp:137] Memory required for data: 715949200
I0925 15:40:51.008703  2958 layer_factory.hpp:77] Creating layer Scale34
I0925 15:40:51.008708  2958 net.cpp:84] Creating Layer Scale34
I0925 15:40:51.008710  2958 net.cpp:406] Scale34 <- Convolution34
I0925 15:40:51.008713  2958 net.cpp:367] Scale34 -> Convolution34 (in-place)
I0925 15:40:51.008740  2958 layer_factory.hpp:77] Creating layer Scale34
I0925 15:40:51.008816  2958 net.cpp:122] Setting up Scale34
I0925 15:40:51.008821  2958 net.cpp:129] Top shape: 100 32 14 14 (627200)
I0925 15:40:51.008822  2958 net.cpp:137] Memory required for data: 718458000
I0925 15:40:51.008826  2958 layer_factory.hpp:77] Creating layer Eltwise16
I0925 15:40:51.008831  2958 net.cpp:84] Creating Layer Eltwise16
I0925 15:40:51.008833  2958 net.cpp:406] Eltwise16 <- Eltwise15_penlu31_0_split_1
I0925 15:40:51.008836  2958 net.cpp:406] Eltwise16 <- Convolution34
I0925 15:40:51.008839  2958 net.cpp:380] Eltwise16 -> Eltwise16
I0925 15:40:51.008854  2958 net.cpp:122] Setting up Eltwise16
I0925 15:40:51.008858  2958 net.cpp:129] Top shape: 100 32 14 14 (627200)
I0925 15:40:51.008860  2958 net.cpp:137] Memory required for data: 720966800
I0925 15:40:51.008862  2958 layer_factory.hpp:77] Creating layer penlu33
I0925 15:40:51.008867  2958 net.cpp:84] Creating Layer penlu33
I0925 15:40:51.008869  2958 net.cpp:406] penlu33 <- Eltwise16
I0925 15:40:51.008873  2958 net.cpp:367] penlu33 -> Eltwise16 (in-place)
I0925 15:40:51.008981  2958 net.cpp:122] Setting up penlu33
I0925 15:40:51.008985  2958 net.cpp:129] Top shape: 100 32 14 14 (627200)
I0925 15:40:51.008987  2958 net.cpp:137] Memory required for data: 723475600
I0925 15:40:51.008998  2958 layer_factory.hpp:77] Creating layer Eltwise16_penlu33_0_split
I0925 15:40:51.009002  2958 net.cpp:84] Creating Layer Eltwise16_penlu33_0_split
I0925 15:40:51.009006  2958 net.cpp:406] Eltwise16_penlu33_0_split <- Eltwise16
I0925 15:40:51.009009  2958 net.cpp:380] Eltwise16_penlu33_0_split -> Eltwise16_penlu33_0_split_0
I0925 15:40:51.009013  2958 net.cpp:380] Eltwise16_penlu33_0_split -> Eltwise16_penlu33_0_split_1
I0925 15:40:51.009037  2958 net.cpp:122] Setting up Eltwise16_penlu33_0_split
I0925 15:40:51.009039  2958 net.cpp:129] Top shape: 100 32 14 14 (627200)
I0925 15:40:51.009042  2958 net.cpp:129] Top shape: 100 32 14 14 (627200)
I0925 15:40:51.009044  2958 net.cpp:137] Memory required for data: 728493200
I0925 15:40:51.009047  2958 layer_factory.hpp:77] Creating layer Convolution35
I0925 15:40:51.009053  2958 net.cpp:84] Creating Layer Convolution35
I0925 15:40:51.009055  2958 net.cpp:406] Convolution35 <- Eltwise16_penlu33_0_split_0
I0925 15:40:51.009059  2958 net.cpp:380] Convolution35 -> Convolution35
I0925 15:40:51.010098  2958 net.cpp:122] Setting up Convolution35
I0925 15:40:51.010107  2958 net.cpp:129] Top shape: 100 32 14 14 (627200)
I0925 15:40:51.010109  2958 net.cpp:137] Memory required for data: 731002000
I0925 15:40:51.010113  2958 layer_factory.hpp:77] Creating layer BatchNorm35
I0925 15:40:51.010118  2958 net.cpp:84] Creating Layer BatchNorm35
I0925 15:40:51.010121  2958 net.cpp:406] BatchNorm35 <- Convolution35
I0925 15:40:51.010124  2958 net.cpp:367] BatchNorm35 -> Convolution35 (in-place)
I0925 15:40:51.010260  2958 net.cpp:122] Setting up BatchNorm35
I0925 15:40:51.010265  2958 net.cpp:129] Top shape: 100 32 14 14 (627200)
I0925 15:40:51.010267  2958 net.cpp:137] Memory required for data: 733510800
I0925 15:40:51.010272  2958 layer_factory.hpp:77] Creating layer Scale35
I0925 15:40:51.010275  2958 net.cpp:84] Creating Layer Scale35
I0925 15:40:51.010278  2958 net.cpp:406] Scale35 <- Convolution35
I0925 15:40:51.010282  2958 net.cpp:367] Scale35 -> Convolution35 (in-place)
I0925 15:40:51.010309  2958 layer_factory.hpp:77] Creating layer Scale35
I0925 15:40:51.010386  2958 net.cpp:122] Setting up Scale35
I0925 15:40:51.010391  2958 net.cpp:129] Top shape: 100 32 14 14 (627200)
I0925 15:40:51.010393  2958 net.cpp:137] Memory required for data: 736019600
I0925 15:40:51.010396  2958 layer_factory.hpp:77] Creating layer penlu34
I0925 15:40:51.010402  2958 net.cpp:84] Creating Layer penlu34
I0925 15:40:51.010404  2958 net.cpp:406] penlu34 <- Convolution35
I0925 15:40:51.010408  2958 net.cpp:367] penlu34 -> Convolution35 (in-place)
I0925 15:40:51.010514  2958 net.cpp:122] Setting up penlu34
I0925 15:40:51.010519  2958 net.cpp:129] Top shape: 100 32 14 14 (627200)
I0925 15:40:51.010520  2958 net.cpp:137] Memory required for data: 738528400
I0925 15:40:51.010524  2958 layer_factory.hpp:77] Creating layer Convolution36
I0925 15:40:51.010531  2958 net.cpp:84] Creating Layer Convolution36
I0925 15:40:51.010534  2958 net.cpp:406] Convolution36 <- Convolution35
I0925 15:40:51.010537  2958 net.cpp:380] Convolution36 -> Convolution36
I0925 15:40:51.011584  2958 net.cpp:122] Setting up Convolution36
I0925 15:40:51.011592  2958 net.cpp:129] Top shape: 100 32 14 14 (627200)
I0925 15:40:51.011595  2958 net.cpp:137] Memory required for data: 741037200
I0925 15:40:51.011600  2958 layer_factory.hpp:77] Creating layer BatchNorm36
I0925 15:40:51.011605  2958 net.cpp:84] Creating Layer BatchNorm36
I0925 15:40:51.011606  2958 net.cpp:406] BatchNorm36 <- Convolution36
I0925 15:40:51.011611  2958 net.cpp:367] BatchNorm36 -> Convolution36 (in-place)
I0925 15:40:51.011745  2958 net.cpp:122] Setting up BatchNorm36
I0925 15:40:51.011750  2958 net.cpp:129] Top shape: 100 32 14 14 (627200)
I0925 15:40:51.011752  2958 net.cpp:137] Memory required for data: 743546000
I0925 15:40:51.011756  2958 layer_factory.hpp:77] Creating layer Scale36
I0925 15:40:51.011761  2958 net.cpp:84] Creating Layer Scale36
I0925 15:40:51.011764  2958 net.cpp:406] Scale36 <- Convolution36
I0925 15:40:51.011766  2958 net.cpp:367] Scale36 -> Convolution36 (in-place)
I0925 15:40:51.011801  2958 layer_factory.hpp:77] Creating layer Scale36
I0925 15:40:51.011879  2958 net.cpp:122] Setting up Scale36
I0925 15:40:51.011883  2958 net.cpp:129] Top shape: 100 32 14 14 (627200)
I0925 15:40:51.011885  2958 net.cpp:137] Memory required for data: 746054800
I0925 15:40:51.011889  2958 layer_factory.hpp:77] Creating layer Eltwise17
I0925 15:40:51.011893  2958 net.cpp:84] Creating Layer Eltwise17
I0925 15:40:51.011896  2958 net.cpp:406] Eltwise17 <- Eltwise16_penlu33_0_split_1
I0925 15:40:51.011899  2958 net.cpp:406] Eltwise17 <- Convolution36
I0925 15:40:51.011904  2958 net.cpp:380] Eltwise17 -> Eltwise17
I0925 15:40:51.011919  2958 net.cpp:122] Setting up Eltwise17
I0925 15:40:51.011922  2958 net.cpp:129] Top shape: 100 32 14 14 (627200)
I0925 15:40:51.011924  2958 net.cpp:137] Memory required for data: 748563600
I0925 15:40:51.011926  2958 layer_factory.hpp:77] Creating layer penlu35
I0925 15:40:51.011931  2958 net.cpp:84] Creating Layer penlu35
I0925 15:40:51.011934  2958 net.cpp:406] penlu35 <- Eltwise17
I0925 15:40:51.011936  2958 net.cpp:367] penlu35 -> Eltwise17 (in-place)
I0925 15:40:51.012044  2958 net.cpp:122] Setting up penlu35
I0925 15:40:51.012048  2958 net.cpp:129] Top shape: 100 32 14 14 (627200)
I0925 15:40:51.012050  2958 net.cpp:137] Memory required for data: 751072400
I0925 15:40:51.012055  2958 layer_factory.hpp:77] Creating layer Eltwise17_penlu35_0_split
I0925 15:40:51.012058  2958 net.cpp:84] Creating Layer Eltwise17_penlu35_0_split
I0925 15:40:51.012061  2958 net.cpp:406] Eltwise17_penlu35_0_split <- Eltwise17
I0925 15:40:51.012064  2958 net.cpp:380] Eltwise17_penlu35_0_split -> Eltwise17_penlu35_0_split_0
I0925 15:40:51.012068  2958 net.cpp:380] Eltwise17_penlu35_0_split -> Eltwise17_penlu35_0_split_1
I0925 15:40:51.012097  2958 net.cpp:122] Setting up Eltwise17_penlu35_0_split
I0925 15:40:51.012104  2958 net.cpp:129] Top shape: 100 32 14 14 (627200)
I0925 15:40:51.012105  2958 net.cpp:129] Top shape: 100 32 14 14 (627200)
I0925 15:40:51.012107  2958 net.cpp:137] Memory required for data: 756090000
I0925 15:40:51.012110  2958 layer_factory.hpp:77] Creating layer Convolution37
I0925 15:40:51.012115  2958 net.cpp:84] Creating Layer Convolution37
I0925 15:40:51.012118  2958 net.cpp:406] Convolution37 <- Eltwise17_penlu35_0_split_0
I0925 15:40:51.012122  2958 net.cpp:380] Convolution37 -> Convolution37
I0925 15:40:51.012862  2958 net.cpp:122] Setting up Convolution37
I0925 15:40:51.012871  2958 net.cpp:129] Top shape: 100 32 14 14 (627200)
I0925 15:40:51.012872  2958 net.cpp:137] Memory required for data: 758598800
I0925 15:40:51.012876  2958 layer_factory.hpp:77] Creating layer BatchNorm37
I0925 15:40:51.012881  2958 net.cpp:84] Creating Layer BatchNorm37
I0925 15:40:51.012884  2958 net.cpp:406] BatchNorm37 <- Convolution37
I0925 15:40:51.012888  2958 net.cpp:367] BatchNorm37 -> Convolution37 (in-place)
I0925 15:40:51.013025  2958 net.cpp:122] Setting up BatchNorm37
I0925 15:40:51.013028  2958 net.cpp:129] Top shape: 100 32 14 14 (627200)
I0925 15:40:51.013031  2958 net.cpp:137] Memory required for data: 761107600
I0925 15:40:51.013034  2958 layer_factory.hpp:77] Creating layer Scale37
I0925 15:40:51.013038  2958 net.cpp:84] Creating Layer Scale37
I0925 15:40:51.013041  2958 net.cpp:406] Scale37 <- Convolution37
I0925 15:40:51.013044  2958 net.cpp:367] Scale37 -> Convolution37 (in-place)
I0925 15:40:51.013070  2958 layer_factory.hpp:77] Creating layer Scale37
I0925 15:40:51.013146  2958 net.cpp:122] Setting up Scale37
I0925 15:40:51.013150  2958 net.cpp:129] Top shape: 100 32 14 14 (627200)
I0925 15:40:51.013152  2958 net.cpp:137] Memory required for data: 763616400
I0925 15:40:51.013156  2958 layer_factory.hpp:77] Creating layer penlu36
I0925 15:40:51.013160  2958 net.cpp:84] Creating Layer penlu36
I0925 15:40:51.013164  2958 net.cpp:406] penlu36 <- Convolution37
I0925 15:40:51.013166  2958 net.cpp:367] penlu36 -> Convolution37 (in-place)
I0925 15:40:51.013273  2958 net.cpp:122] Setting up penlu36
I0925 15:40:51.013278  2958 net.cpp:129] Top shape: 100 32 14 14 (627200)
I0925 15:40:51.013285  2958 net.cpp:137] Memory required for data: 766125200
I0925 15:40:51.013290  2958 layer_factory.hpp:77] Creating layer Convolution38
I0925 15:40:51.013296  2958 net.cpp:84] Creating Layer Convolution38
I0925 15:40:51.013299  2958 net.cpp:406] Convolution38 <- Convolution37
I0925 15:40:51.013303  2958 net.cpp:380] Convolution38 -> Convolution38
I0925 15:40:51.014355  2958 net.cpp:122] Setting up Convolution38
I0925 15:40:51.014364  2958 net.cpp:129] Top shape: 100 32 14 14 (627200)
I0925 15:40:51.014366  2958 net.cpp:137] Memory required for data: 768634000
I0925 15:40:51.014371  2958 layer_factory.hpp:77] Creating layer BatchNorm38
I0925 15:40:51.014376  2958 net.cpp:84] Creating Layer BatchNorm38
I0925 15:40:51.014379  2958 net.cpp:406] BatchNorm38 <- Convolution38
I0925 15:40:51.014382  2958 net.cpp:367] BatchNorm38 -> Convolution38 (in-place)
I0925 15:40:51.014519  2958 net.cpp:122] Setting up BatchNorm38
I0925 15:40:51.014524  2958 net.cpp:129] Top shape: 100 32 14 14 (627200)
I0925 15:40:51.014526  2958 net.cpp:137] Memory required for data: 771142800
I0925 15:40:51.014531  2958 layer_factory.hpp:77] Creating layer Scale38
I0925 15:40:51.014535  2958 net.cpp:84] Creating Layer Scale38
I0925 15:40:51.014538  2958 net.cpp:406] Scale38 <- Convolution38
I0925 15:40:51.014540  2958 net.cpp:367] Scale38 -> Convolution38 (in-place)
I0925 15:40:51.014569  2958 layer_factory.hpp:77] Creating layer Scale38
I0925 15:40:51.014645  2958 net.cpp:122] Setting up Scale38
I0925 15:40:51.014649  2958 net.cpp:129] Top shape: 100 32 14 14 (627200)
I0925 15:40:51.014652  2958 net.cpp:137] Memory required for data: 773651600
I0925 15:40:51.014655  2958 layer_factory.hpp:77] Creating layer Eltwise18
I0925 15:40:51.014659  2958 net.cpp:84] Creating Layer Eltwise18
I0925 15:40:51.014662  2958 net.cpp:406] Eltwise18 <- Eltwise17_penlu35_0_split_1
I0925 15:40:51.014665  2958 net.cpp:406] Eltwise18 <- Convolution38
I0925 15:40:51.014668  2958 net.cpp:380] Eltwise18 -> Eltwise18
I0925 15:40:51.014684  2958 net.cpp:122] Setting up Eltwise18
I0925 15:40:51.014688  2958 net.cpp:129] Top shape: 100 32 14 14 (627200)
I0925 15:40:51.014689  2958 net.cpp:137] Memory required for data: 776160400
I0925 15:40:51.014691  2958 layer_factory.hpp:77] Creating layer penlu37
I0925 15:40:51.014696  2958 net.cpp:84] Creating Layer penlu37
I0925 15:40:51.014698  2958 net.cpp:406] penlu37 <- Eltwise18
I0925 15:40:51.014701  2958 net.cpp:367] penlu37 -> Eltwise18 (in-place)
I0925 15:40:51.014811  2958 net.cpp:122] Setting up penlu37
I0925 15:40:51.014816  2958 net.cpp:129] Top shape: 100 32 14 14 (627200)
I0925 15:40:51.014817  2958 net.cpp:137] Memory required for data: 778669200
I0925 15:40:51.014822  2958 layer_factory.hpp:77] Creating layer Eltwise18_penlu37_0_split
I0925 15:40:51.014824  2958 net.cpp:84] Creating Layer Eltwise18_penlu37_0_split
I0925 15:40:51.014827  2958 net.cpp:406] Eltwise18_penlu37_0_split <- Eltwise18
I0925 15:40:51.014832  2958 net.cpp:380] Eltwise18_penlu37_0_split -> Eltwise18_penlu37_0_split_0
I0925 15:40:51.014835  2958 net.cpp:380] Eltwise18_penlu37_0_split -> Eltwise18_penlu37_0_split_1
I0925 15:40:51.014858  2958 net.cpp:122] Setting up Eltwise18_penlu37_0_split
I0925 15:40:51.014860  2958 net.cpp:129] Top shape: 100 32 14 14 (627200)
I0925 15:40:51.014863  2958 net.cpp:129] Top shape: 100 32 14 14 (627200)
I0925 15:40:51.014865  2958 net.cpp:137] Memory required for data: 783686800
I0925 15:40:51.014868  2958 layer_factory.hpp:77] Creating layer Convolution39
I0925 15:40:51.014873  2958 net.cpp:84] Creating Layer Convolution39
I0925 15:40:51.014876  2958 net.cpp:406] Convolution39 <- Eltwise18_penlu37_0_split_0
I0925 15:40:51.014880  2958 net.cpp:380] Convolution39 -> Convolution39
I0925 15:40:51.015769  2958 net.cpp:122] Setting up Convolution39
I0925 15:40:51.015779  2958 net.cpp:129] Top shape: 100 64 7 7 (313600)
I0925 15:40:51.015780  2958 net.cpp:137] Memory required for data: 784941200
I0925 15:40:51.015784  2958 layer_factory.hpp:77] Creating layer BatchNorm39
I0925 15:40:51.015796  2958 net.cpp:84] Creating Layer BatchNorm39
I0925 15:40:51.015799  2958 net.cpp:406] BatchNorm39 <- Convolution39
I0925 15:40:51.015802  2958 net.cpp:367] BatchNorm39 -> Convolution39 (in-place)
I0925 15:40:51.015938  2958 net.cpp:122] Setting up BatchNorm39
I0925 15:40:51.015944  2958 net.cpp:129] Top shape: 100 64 7 7 (313600)
I0925 15:40:51.015945  2958 net.cpp:137] Memory required for data: 786195600
I0925 15:40:51.015949  2958 layer_factory.hpp:77] Creating layer Scale39
I0925 15:40:51.015954  2958 net.cpp:84] Creating Layer Scale39
I0925 15:40:51.015956  2958 net.cpp:406] Scale39 <- Convolution39
I0925 15:40:51.015959  2958 net.cpp:367] Scale39 -> Convolution39 (in-place)
I0925 15:40:51.015986  2958 layer_factory.hpp:77] Creating layer Scale39
I0925 15:40:51.016063  2958 net.cpp:122] Setting up Scale39
I0925 15:40:51.016067  2958 net.cpp:129] Top shape: 100 64 7 7 (313600)
I0925 15:40:51.016069  2958 net.cpp:137] Memory required for data: 787450000
I0925 15:40:51.016073  2958 layer_factory.hpp:77] Creating layer Convolution40
I0925 15:40:51.016079  2958 net.cpp:84] Creating Layer Convolution40
I0925 15:40:51.016083  2958 net.cpp:406] Convolution40 <- Eltwise18_penlu37_0_split_1
I0925 15:40:51.016086  2958 net.cpp:380] Convolution40 -> Convolution40
I0925 15:40:51.017902  2958 net.cpp:122] Setting up Convolution40
I0925 15:40:51.017910  2958 net.cpp:129] Top shape: 100 64 7 7 (313600)
I0925 15:40:51.017913  2958 net.cpp:137] Memory required for data: 788704400
I0925 15:40:51.017918  2958 layer_factory.hpp:77] Creating layer BatchNorm40
I0925 15:40:51.017923  2958 net.cpp:84] Creating Layer BatchNorm40
I0925 15:40:51.017926  2958 net.cpp:406] BatchNorm40 <- Convolution40
I0925 15:40:51.017930  2958 net.cpp:367] BatchNorm40 -> Convolution40 (in-place)
I0925 15:40:51.018066  2958 net.cpp:122] Setting up BatchNorm40
I0925 15:40:51.018070  2958 net.cpp:129] Top shape: 100 64 7 7 (313600)
I0925 15:40:51.018072  2958 net.cpp:137] Memory required for data: 789958800
I0925 15:40:51.018077  2958 layer_factory.hpp:77] Creating layer Scale40
I0925 15:40:51.018081  2958 net.cpp:84] Creating Layer Scale40
I0925 15:40:51.018085  2958 net.cpp:406] Scale40 <- Convolution40
I0925 15:40:51.018087  2958 net.cpp:367] Scale40 -> Convolution40 (in-place)
I0925 15:40:51.018115  2958 layer_factory.hpp:77] Creating layer Scale40
I0925 15:40:51.018213  2958 net.cpp:122] Setting up Scale40
I0925 15:40:51.018226  2958 net.cpp:129] Top shape: 100 64 7 7 (313600)
I0925 15:40:51.018229  2958 net.cpp:137] Memory required for data: 791213200
I0925 15:40:51.018232  2958 layer_factory.hpp:77] Creating layer penlu38
I0925 15:40:51.018239  2958 net.cpp:84] Creating Layer penlu38
I0925 15:40:51.018241  2958 net.cpp:406] penlu38 <- Convolution40
I0925 15:40:51.018254  2958 net.cpp:367] penlu38 -> Convolution40 (in-place)
I0925 15:40:51.018375  2958 net.cpp:122] Setting up penlu38
I0925 15:40:51.018379  2958 net.cpp:129] Top shape: 100 64 7 7 (313600)
I0925 15:40:51.018381  2958 net.cpp:137] Memory required for data: 792467600
I0925 15:40:51.018385  2958 layer_factory.hpp:77] Creating layer Convolution41
I0925 15:40:51.018393  2958 net.cpp:84] Creating Layer Convolution41
I0925 15:40:51.018394  2958 net.cpp:406] Convolution41 <- Convolution40
I0925 15:40:51.018399  2958 net.cpp:380] Convolution41 -> Convolution41
I0925 15:40:51.020680  2958 net.cpp:122] Setting up Convolution41
I0925 15:40:51.020689  2958 net.cpp:129] Top shape: 100 64 7 7 (313600)
I0925 15:40:51.020691  2958 net.cpp:137] Memory required for data: 793722000
I0925 15:40:51.020696  2958 layer_factory.hpp:77] Creating layer BatchNorm41
I0925 15:40:51.020701  2958 net.cpp:84] Creating Layer BatchNorm41
I0925 15:40:51.020704  2958 net.cpp:406] BatchNorm41 <- Convolution41
I0925 15:40:51.020707  2958 net.cpp:367] BatchNorm41 -> Convolution41 (in-place)
I0925 15:40:51.020850  2958 net.cpp:122] Setting up BatchNorm41
I0925 15:40:51.020854  2958 net.cpp:129] Top shape: 100 64 7 7 (313600)
I0925 15:40:51.020856  2958 net.cpp:137] Memory required for data: 794976400
I0925 15:40:51.020861  2958 layer_factory.hpp:77] Creating layer Scale41
I0925 15:40:51.020872  2958 net.cpp:84] Creating Layer Scale41
I0925 15:40:51.020875  2958 net.cpp:406] Scale41 <- Convolution41
I0925 15:40:51.020879  2958 net.cpp:367] Scale41 -> Convolution41 (in-place)
I0925 15:40:51.020908  2958 layer_factory.hpp:77] Creating layer Scale41
I0925 15:40:51.020989  2958 net.cpp:122] Setting up Scale41
I0925 15:40:51.020993  2958 net.cpp:129] Top shape: 100 64 7 7 (313600)
I0925 15:40:51.020995  2958 net.cpp:137] Memory required for data: 796230800
I0925 15:40:51.020999  2958 layer_factory.hpp:77] Creating layer Eltwise19
I0925 15:40:51.021003  2958 net.cpp:84] Creating Layer Eltwise19
I0925 15:40:51.021006  2958 net.cpp:406] Eltwise19 <- Convolution39
I0925 15:40:51.021009  2958 net.cpp:406] Eltwise19 <- Convolution41
I0925 15:40:51.021013  2958 net.cpp:380] Eltwise19 -> Eltwise19
I0925 15:40:51.021031  2958 net.cpp:122] Setting up Eltwise19
I0925 15:40:51.021035  2958 net.cpp:129] Top shape: 100 64 7 7 (313600)
I0925 15:40:51.021037  2958 net.cpp:137] Memory required for data: 797485200
I0925 15:40:51.021039  2958 layer_factory.hpp:77] Creating layer penlu39
I0925 15:40:51.021054  2958 net.cpp:84] Creating Layer penlu39
I0925 15:40:51.021056  2958 net.cpp:406] penlu39 <- Eltwise19
I0925 15:40:51.021060  2958 net.cpp:367] penlu39 -> Eltwise19 (in-place)
I0925 15:40:51.021186  2958 net.cpp:122] Setting up penlu39
I0925 15:40:51.021190  2958 net.cpp:129] Top shape: 100 64 7 7 (313600)
I0925 15:40:51.021193  2958 net.cpp:137] Memory required for data: 798739600
I0925 15:40:51.021196  2958 layer_factory.hpp:77] Creating layer Eltwise19_penlu39_0_split
I0925 15:40:51.021200  2958 net.cpp:84] Creating Layer Eltwise19_penlu39_0_split
I0925 15:40:51.021203  2958 net.cpp:406] Eltwise19_penlu39_0_split <- Eltwise19
I0925 15:40:51.021205  2958 net.cpp:380] Eltwise19_penlu39_0_split -> Eltwise19_penlu39_0_split_0
I0925 15:40:51.021209  2958 net.cpp:380] Eltwise19_penlu39_0_split -> Eltwise19_penlu39_0_split_1
I0925 15:40:51.021234  2958 net.cpp:122] Setting up Eltwise19_penlu39_0_split
I0925 15:40:51.021237  2958 net.cpp:129] Top shape: 100 64 7 7 (313600)
I0925 15:40:51.021239  2958 net.cpp:129] Top shape: 100 64 7 7 (313600)
I0925 15:40:51.021241  2958 net.cpp:137] Memory required for data: 801248400
I0925 15:40:51.021244  2958 layer_factory.hpp:77] Creating layer Convolution42
I0925 15:40:51.021250  2958 net.cpp:84] Creating Layer Convolution42
I0925 15:40:51.021252  2958 net.cpp:406] Convolution42 <- Eltwise19_penlu39_0_split_0
I0925 15:40:51.021256  2958 net.cpp:380] Convolution42 -> Convolution42
I0925 15:40:51.022918  2958 net.cpp:122] Setting up Convolution42
I0925 15:40:51.022927  2958 net.cpp:129] Top shape: 100 64 7 7 (313600)
I0925 15:40:51.022929  2958 net.cpp:137] Memory required for data: 802502800
I0925 15:40:51.022934  2958 layer_factory.hpp:77] Creating layer BatchNorm42
I0925 15:40:51.022938  2958 net.cpp:84] Creating Layer BatchNorm42
I0925 15:40:51.022941  2958 net.cpp:406] BatchNorm42 <- Convolution42
I0925 15:40:51.022945  2958 net.cpp:367] BatchNorm42 -> Convolution42 (in-place)
I0925 15:40:51.023084  2958 net.cpp:122] Setting up BatchNorm42
I0925 15:40:51.023088  2958 net.cpp:129] Top shape: 100 64 7 7 (313600)
I0925 15:40:51.023090  2958 net.cpp:137] Memory required for data: 803757200
I0925 15:40:51.023095  2958 layer_factory.hpp:77] Creating layer Scale42
I0925 15:40:51.023099  2958 net.cpp:84] Creating Layer Scale42
I0925 15:40:51.023102  2958 net.cpp:406] Scale42 <- Convolution42
I0925 15:40:51.023105  2958 net.cpp:367] Scale42 -> Convolution42 (in-place)
I0925 15:40:51.023133  2958 layer_factory.hpp:77] Creating layer Scale42
I0925 15:40:51.023211  2958 net.cpp:122] Setting up Scale42
I0925 15:40:51.023216  2958 net.cpp:129] Top shape: 100 64 7 7 (313600)
I0925 15:40:51.023217  2958 net.cpp:137] Memory required for data: 805011600
I0925 15:40:51.023221  2958 layer_factory.hpp:77] Creating layer penlu40
I0925 15:40:51.023227  2958 net.cpp:84] Creating Layer penlu40
I0925 15:40:51.023229  2958 net.cpp:406] penlu40 <- Convolution42
I0925 15:40:51.023239  2958 net.cpp:367] penlu40 -> Convolution42 (in-place)
I0925 15:40:51.023352  2958 net.cpp:122] Setting up penlu40
I0925 15:40:51.023356  2958 net.cpp:129] Top shape: 100 64 7 7 (313600)
I0925 15:40:51.023358  2958 net.cpp:137] Memory required for data: 806266000
I0925 15:40:51.023363  2958 layer_factory.hpp:77] Creating layer Convolution43
I0925 15:40:51.023370  2958 net.cpp:84] Creating Layer Convolution43
I0925 15:40:51.023372  2958 net.cpp:406] Convolution43 <- Convolution42
I0925 15:40:51.023376  2958 net.cpp:380] Convolution43 -> Convolution43
I0925 15:40:51.025660  2958 net.cpp:122] Setting up Convolution43
I0925 15:40:51.025667  2958 net.cpp:129] Top shape: 100 64 7 7 (313600)
I0925 15:40:51.025671  2958 net.cpp:137] Memory required for data: 807520400
I0925 15:40:51.025674  2958 layer_factory.hpp:77] Creating layer BatchNorm43
I0925 15:40:51.025681  2958 net.cpp:84] Creating Layer BatchNorm43
I0925 15:40:51.025682  2958 net.cpp:406] BatchNorm43 <- Convolution43
I0925 15:40:51.025687  2958 net.cpp:367] BatchNorm43 -> Convolution43 (in-place)
I0925 15:40:51.025830  2958 net.cpp:122] Setting up BatchNorm43
I0925 15:40:51.025833  2958 net.cpp:129] Top shape: 100 64 7 7 (313600)
I0925 15:40:51.025836  2958 net.cpp:137] Memory required for data: 808774800
I0925 15:40:51.025840  2958 layer_factory.hpp:77] Creating layer Scale43
I0925 15:40:51.025846  2958 net.cpp:84] Creating Layer Scale43
I0925 15:40:51.025847  2958 net.cpp:406] Scale43 <- Convolution43
I0925 15:40:51.025851  2958 net.cpp:367] Scale43 -> Convolution43 (in-place)
I0925 15:40:51.025879  2958 layer_factory.hpp:77] Creating layer Scale43
I0925 15:40:51.025960  2958 net.cpp:122] Setting up Scale43
I0925 15:40:51.025964  2958 net.cpp:129] Top shape: 100 64 7 7 (313600)
I0925 15:40:51.025966  2958 net.cpp:137] Memory required for data: 810029200
I0925 15:40:51.025970  2958 layer_factory.hpp:77] Creating layer Eltwise20
I0925 15:40:51.025974  2958 net.cpp:84] Creating Layer Eltwise20
I0925 15:40:51.025977  2958 net.cpp:406] Eltwise20 <- Eltwise19_penlu39_0_split_1
I0925 15:40:51.025980  2958 net.cpp:406] Eltwise20 <- Convolution43
I0925 15:40:51.025984  2958 net.cpp:380] Eltwise20 -> Eltwise20
I0925 15:40:51.026000  2958 net.cpp:122] Setting up Eltwise20
I0925 15:40:51.026003  2958 net.cpp:129] Top shape: 100 64 7 7 (313600)
I0925 15:40:51.026005  2958 net.cpp:137] Memory required for data: 811283600
I0925 15:40:51.026007  2958 layer_factory.hpp:77] Creating layer penlu41
I0925 15:40:51.026013  2958 net.cpp:84] Creating Layer penlu41
I0925 15:40:51.026015  2958 net.cpp:406] penlu41 <- Eltwise20
I0925 15:40:51.026018  2958 net.cpp:367] penlu41 -> Eltwise20 (in-place)
I0925 15:40:51.026131  2958 net.cpp:122] Setting up penlu41
I0925 15:40:51.026135  2958 net.cpp:129] Top shape: 100 64 7 7 (313600)
I0925 15:40:51.026137  2958 net.cpp:137] Memory required for data: 812538000
I0925 15:40:51.026141  2958 layer_factory.hpp:77] Creating layer Eltwise20_penlu41_0_split
I0925 15:40:51.026144  2958 net.cpp:84] Creating Layer Eltwise20_penlu41_0_split
I0925 15:40:51.026147  2958 net.cpp:406] Eltwise20_penlu41_0_split <- Eltwise20
I0925 15:40:51.026150  2958 net.cpp:380] Eltwise20_penlu41_0_split -> Eltwise20_penlu41_0_split_0
I0925 15:40:51.026155  2958 net.cpp:380] Eltwise20_penlu41_0_split -> Eltwise20_penlu41_0_split_1
I0925 15:40:51.026178  2958 net.cpp:122] Setting up Eltwise20_penlu41_0_split
I0925 15:40:51.026182  2958 net.cpp:129] Top shape: 100 64 7 7 (313600)
I0925 15:40:51.026185  2958 net.cpp:129] Top shape: 100 64 7 7 (313600)
I0925 15:40:51.026186  2958 net.cpp:137] Memory required for data: 815046800
I0925 15:40:51.026188  2958 layer_factory.hpp:77] Creating layer Convolution44
I0925 15:40:51.026195  2958 net.cpp:84] Creating Layer Convolution44
I0925 15:40:51.026197  2958 net.cpp:406] Convolution44 <- Eltwise20_penlu41_0_split_0
I0925 15:40:51.026201  2958 net.cpp:380] Convolution44 -> Convolution44
I0925 15:40:51.027889  2958 net.cpp:122] Setting up Convolution44
I0925 15:40:51.027897  2958 net.cpp:129] Top shape: 100 64 7 7 (313600)
I0925 15:40:51.027907  2958 net.cpp:137] Memory required for data: 816301200
I0925 15:40:51.027912  2958 layer_factory.hpp:77] Creating layer BatchNorm44
I0925 15:40:51.027917  2958 net.cpp:84] Creating Layer BatchNorm44
I0925 15:40:51.027920  2958 net.cpp:406] BatchNorm44 <- Convolution44
I0925 15:40:51.027925  2958 net.cpp:367] BatchNorm44 -> Convolution44 (in-place)
I0925 15:40:51.028067  2958 net.cpp:122] Setting up BatchNorm44
I0925 15:40:51.028072  2958 net.cpp:129] Top shape: 100 64 7 7 (313600)
I0925 15:40:51.028074  2958 net.cpp:137] Memory required for data: 817555600
I0925 15:40:51.028079  2958 layer_factory.hpp:77] Creating layer Scale44
I0925 15:40:51.028085  2958 net.cpp:84] Creating Layer Scale44
I0925 15:40:51.028087  2958 net.cpp:406] Scale44 <- Convolution44
I0925 15:40:51.028090  2958 net.cpp:367] Scale44 -> Convolution44 (in-place)
I0925 15:40:51.028120  2958 layer_factory.hpp:77] Creating layer Scale44
I0925 15:40:51.028205  2958 net.cpp:122] Setting up Scale44
I0925 15:40:51.028210  2958 net.cpp:129] Top shape: 100 64 7 7 (313600)
I0925 15:40:51.028213  2958 net.cpp:137] Memory required for data: 818810000
I0925 15:40:51.028216  2958 layer_factory.hpp:77] Creating layer penlu42
I0925 15:40:51.028221  2958 net.cpp:84] Creating Layer penlu42
I0925 15:40:51.028224  2958 net.cpp:406] penlu42 <- Convolution44
I0925 15:40:51.028228  2958 net.cpp:367] penlu42 -> Convolution44 (in-place)
I0925 15:40:51.028342  2958 net.cpp:122] Setting up penlu42
I0925 15:40:51.028347  2958 net.cpp:129] Top shape: 100 64 7 7 (313600)
I0925 15:40:51.028348  2958 net.cpp:137] Memory required for data: 820064400
I0925 15:40:51.028352  2958 layer_factory.hpp:77] Creating layer Convolution45
I0925 15:40:51.028358  2958 net.cpp:84] Creating Layer Convolution45
I0925 15:40:51.028362  2958 net.cpp:406] Convolution45 <- Convolution44
I0925 15:40:51.028365  2958 net.cpp:380] Convolution45 -> Convolution45
I0925 15:40:51.030347  2958 net.cpp:122] Setting up Convolution45
I0925 15:40:51.030355  2958 net.cpp:129] Top shape: 100 64 7 7 (313600)
I0925 15:40:51.030359  2958 net.cpp:137] Memory required for data: 821318800
I0925 15:40:51.030364  2958 layer_factory.hpp:77] Creating layer BatchNorm45
I0925 15:40:51.030369  2958 net.cpp:84] Creating Layer BatchNorm45
I0925 15:40:51.030370  2958 net.cpp:406] BatchNorm45 <- Convolution45
I0925 15:40:51.030375  2958 net.cpp:367] BatchNorm45 -> Convolution45 (in-place)
I0925 15:40:51.030519  2958 net.cpp:122] Setting up BatchNorm45
I0925 15:40:51.030522  2958 net.cpp:129] Top shape: 100 64 7 7 (313600)
I0925 15:40:51.030524  2958 net.cpp:137] Memory required for data: 822573200
I0925 15:40:51.030529  2958 layer_factory.hpp:77] Creating layer Scale45
I0925 15:40:51.030534  2958 net.cpp:84] Creating Layer Scale45
I0925 15:40:51.030535  2958 net.cpp:406] Scale45 <- Convolution45
I0925 15:40:51.030539  2958 net.cpp:367] Scale45 -> Convolution45 (in-place)
I0925 15:40:51.030566  2958 layer_factory.hpp:77] Creating layer Scale45
I0925 15:40:51.030647  2958 net.cpp:122] Setting up Scale45
I0925 15:40:51.030650  2958 net.cpp:129] Top shape: 100 64 7 7 (313600)
I0925 15:40:51.030652  2958 net.cpp:137] Memory required for data: 823827600
I0925 15:40:51.030656  2958 layer_factory.hpp:77] Creating layer Eltwise21
I0925 15:40:51.030660  2958 net.cpp:84] Creating Layer Eltwise21
I0925 15:40:51.030663  2958 net.cpp:406] Eltwise21 <- Eltwise20_penlu41_0_split_1
I0925 15:40:51.030665  2958 net.cpp:406] Eltwise21 <- Convolution45
I0925 15:40:51.030668  2958 net.cpp:380] Eltwise21 -> Eltwise21
I0925 15:40:51.030685  2958 net.cpp:122] Setting up Eltwise21
…
I0925 15:40:51.385264  2958 net.cpp:137] Memory required for data: 1030145200
I0925 15:40:51.385269  2958 layer_factory.hpp:77] Creating layer BatchNorm40
I0925 15:40:51.385275  2958 net.cpp:84] Creating Layer BatchNorm40
I0925 15:40:51.385277  2958 net.cpp:406] BatchNorm40 <- Convolution40
I0925 15:40:51.385282  2958 net.cpp:367] BatchNorm40 -> Convolution40 (in-place)
I0925 15:40:51.385426  2958 net.cpp:122] Setting up BatchNorm40
I0925 15:40:51.385432  2958 net.cpp:129] Top shape: 100 64 8 8 (409600)
I0925 15:40:51.385433  2958 net.cpp:137] Memory required for data: 1031783600
I0925 15:40:51.385438  2958 layer_factory.hpp:77] Creating layer Scale40
I0925 15:40:51.385442  2958 net.cpp:84] Creating Layer Scale40
I0925 15:40:51.385445  2958 net.cpp:406] Scale40 <- Convolution40
I0925 15:40:51.385448  2958 net.cpp:367] Scale40 -> Convolution40 (in-place)
I0925 15:40:51.385478  2958 layer_factory.hpp:77] Creating layer Scale40
I0925 15:40:51.385560  2958 net.cpp:122] Setting up Scale40
I0925 15:40:51.385563  2958 net.cpp:129] Top shape: 100 64 8 8 (409600)
I0925 15:40:51.385565  2958 net.cpp:137] Memory required for data: 1033422000
I0925 15:40:51.385570  2958 layer_factory.hpp:77] Creating layer penlu38
I0925 15:40:51.385576  2958 net.cpp:84] Creating Layer penlu38
I0925 15:40:51.385577  2958 net.cpp:406] penlu38 <- Convolution40
I0925 15:40:51.385581  2958 net.cpp:367] penlu38 -> Convolution40 (in-place)
I0925 15:40:51.385704  2958 net.cpp:122] Setting up penlu38
I0925 15:40:51.385707  2958 net.cpp:129] Top shape: 100 64 8 8 (409600)
I0925 15:40:51.385710  2958 net.cpp:137] Memory required for data: 1035060400
I0925 15:40:51.385715  2958 layer_factory.hpp:77] Creating layer Convolution41
I0925 15:40:51.385722  2958 net.cpp:84] Creating Layer Convolution41
I0925 15:40:51.385725  2958 net.cpp:406] Convolution41 <- Convolution40
I0925 15:40:51.385728  2958 net.cpp:380] Convolution41 -> Convolution41
I0925 15:40:51.387509  2958 net.cpp:122] Setting up Convolution41
I0925 15:40:51.387518  2958 net.cpp:129] Top shape: 100 64 8 8 (409600)
I0925 15:40:51.387521  2958 net.cpp:137] Memory required for data: 1036698800
I0925 15:40:51.387526  2958 layer_factory.hpp:77] Creating layer BatchNorm41
I0925 15:40:51.387531  2958 net.cpp:84] Creating Layer BatchNorm41
I0925 15:40:51.387533  2958 net.cpp:406] BatchNorm41 <- Convolution41
I0925 15:40:51.387547  2958 net.cpp:367] BatchNorm41 -> Convolution41 (in-place)
I0925 15:40:51.387688  2958 net.cpp:122] Setting up BatchNorm41
I0925 15:40:51.387693  2958 net.cpp:129] Top shape: 100 64 8 8 (409600)
I0925 15:40:51.387696  2958 net.cpp:137] Memory required for data: 1038337200
I0925 15:40:51.387701  2958 layer_factory.hpp:77] Creating layer Scale41
I0925 15:40:51.387706  2958 net.cpp:84] Creating Layer Scale41
I0925 15:40:51.387708  2958 net.cpp:406] Scale41 <- Convolution41
I0925 15:40:51.387712  2958 net.cpp:367] Scale41 -> Convolution41 (in-place)
I0925 15:40:51.387739  2958 layer_factory.hpp:77] Creating layer Scale41
I0925 15:40:51.387822  2958 net.cpp:122] Setting up Scale41
I0925 15:40:51.387826  2958 net.cpp:129] Top shape: 100 64 8 8 (409600)
I0925 15:40:51.387828  2958 net.cpp:137] Memory required for data: 1039975600
I0925 15:40:51.387832  2958 layer_factory.hpp:77] Creating layer Eltwise19
I0925 15:40:51.387836  2958 net.cpp:84] Creating Layer Eltwise19
I0925 15:40:51.387838  2958 net.cpp:406] Eltwise19 <- Convolution39
I0925 15:40:51.387841  2958 net.cpp:406] Eltwise19 <- Convolution41
I0925 15:40:51.387846  2958 net.cpp:380] Eltwise19 -> Eltwise19
I0925 15:40:51.387863  2958 net.cpp:122] Setting up Eltwise19
I0925 15:40:51.387866  2958 net.cpp:129] Top shape: 100 64 8 8 (409600)
I0925 15:40:51.387868  2958 net.cpp:137] Memory required for data: 1041614000
I0925 15:40:51.387871  2958 layer_factory.hpp:77] Creating layer penlu39
I0925 15:40:51.387876  2958 net.cpp:84] Creating Layer penlu39
I0925 15:40:51.387878  2958 net.cpp:406] penlu39 <- Eltwise19
I0925 15:40:51.387882  2958 net.cpp:367] penlu39 -> Eltwise19 (in-place)
I0925 15:40:51.388003  2958 net.cpp:122] Setting up penlu39
I0925 15:40:51.388007  2958 net.cpp:129] Top shape: 100 64 8 8 (409600)
I0925 15:40:51.388010  2958 net.cpp:137] Memory required for data: 1043252400
I0925 15:40:51.388015  2958 layer_factory.hpp:77] Creating layer Eltwise19_penlu39_0_split
I0925 15:40:51.388018  2958 net.cpp:84] Creating Layer Eltwise19_penlu39_0_split
I0925 15:40:51.388021  2958 net.cpp:406] Eltwise19_penlu39_0_split <- Eltwise19
I0925 15:40:51.388025  2958 net.cpp:380] Eltwise19_penlu39_0_split -> Eltwise19_penlu39_0_split_0
I0925 15:40:51.388029  2958 net.cpp:380] Eltwise19_penlu39_0_split -> Eltwise19_penlu39_0_split_1
I0925 15:40:51.388053  2958 net.cpp:122] Setting up Eltwise19_penlu39_0_split
I0925 15:40:51.388057  2958 net.cpp:129] Top shape: 100 64 8 8 (409600)
I0925 15:40:51.388061  2958 net.cpp:129] Top shape: 100 64 8 8 (409600)
I0925 15:40:51.388062  2958 net.cpp:137] Memory required for data: 1046529200
I0925 15:40:51.388064  2958 layer_factory.hpp:77] Creating layer Convolution42
I0925 15:40:51.388072  2958 net.cpp:84] Creating Layer Convolution42
I0925 15:40:51.388073  2958 net.cpp:406] Convolution42 <- Eltwise19_penlu39_0_split_0
I0925 15:40:51.388077  2958 net.cpp:380] Convolution42 -> Convolution42
I0925 15:40:51.389859  2958 net.cpp:122] Setting up Convolution42
I0925 15:40:51.389868  2958 net.cpp:129] Top shape: 100 64 8 8 (409600)
I0925 15:40:51.389871  2958 net.cpp:137] Memory required for data: 1048167600
I0925 15:40:51.389875  2958 layer_factory.hpp:77] Creating layer BatchNorm42
I0925 15:40:51.389880  2958 net.cpp:84] Creating Layer BatchNorm42
I0925 15:40:51.389883  2958 net.cpp:406] BatchNorm42 <- Convolution42
I0925 15:40:51.389889  2958 net.cpp:367] BatchNorm42 -> Convolution42 (in-place)
I0925 15:40:51.390028  2958 net.cpp:122] Setting up BatchNorm42
I0925 15:40:51.390033  2958 net.cpp:129] Top shape: 100 64 8 8 (409600)
I0925 15:40:51.390035  2958 net.cpp:137] Memory required for data: 1049806000
I0925 15:40:51.390040  2958 layer_factory.hpp:77] Creating layer Scale42
I0925 15:40:51.390045  2958 net.cpp:84] Creating Layer Scale42
I0925 15:40:51.390048  2958 net.cpp:406] Scale42 <- Convolution42
I0925 15:40:51.390051  2958 net.cpp:367] Scale42 -> Convolution42 (in-place)
I0925 15:40:51.390080  2958 layer_factory.hpp:77] Creating layer Scale42
I0925 15:40:51.390161  2958 net.cpp:122] Setting up Scale42
I0925 15:40:51.390166  2958 net.cpp:129] Top shape: 100 64 8 8 (409600)
I0925 15:40:51.390173  2958 net.cpp:137] Memory required for data: 1051444400
I0925 15:40:51.390178  2958 layer_factory.hpp:77] Creating layer penlu40
I0925 15:40:51.390184  2958 net.cpp:84] Creating Layer penlu40
I0925 15:40:51.390187  2958 net.cpp:406] penlu40 <- Convolution42
I0925 15:40:51.390192  2958 net.cpp:367] penlu40 -> Convolution42 (in-place)
I0925 15:40:51.390311  2958 net.cpp:122] Setting up penlu40
I0925 15:40:51.390316  2958 net.cpp:129] Top shape: 100 64 8 8 (409600)
I0925 15:40:51.390318  2958 net.cpp:137] Memory required for data: 1053082800
I0925 15:40:51.390322  2958 layer_factory.hpp:77] Creating layer Convolution43
I0925 15:40:51.390329  2958 net.cpp:84] Creating Layer Convolution43
I0925 15:40:51.390332  2958 net.cpp:406] Convolution43 <- Convolution42
I0925 15:40:51.390336  2958 net.cpp:380] Convolution43 -> Convolution43
I0925 15:40:51.392122  2958 net.cpp:122] Setting up Convolution43
I0925 15:40:51.392132  2958 net.cpp:129] Top shape: 100 64 8 8 (409600)
I0925 15:40:51.392134  2958 net.cpp:137] Memory required for data: 1054721200
I0925 15:40:51.392138  2958 layer_factory.hpp:77] Creating layer BatchNorm43
I0925 15:40:51.392144  2958 net.cpp:84] Creating Layer BatchNorm43
I0925 15:40:51.392148  2958 net.cpp:406] BatchNorm43 <- Convolution43
I0925 15:40:51.392150  2958 net.cpp:367] BatchNorm43 -> Convolution43 (in-place)
I0925 15:40:51.392295  2958 net.cpp:122] Setting up BatchNorm43
I0925 15:40:51.392299  2958 net.cpp:129] Top shape: 100 64 8 8 (409600)
I0925 15:40:51.392302  2958 net.cpp:137] Memory required for data: 1056359600
I0925 15:40:51.392307  2958 layer_factory.hpp:77] Creating layer Scale43
I0925 15:40:51.392313  2958 net.cpp:84] Creating Layer Scale43
I0925 15:40:51.392315  2958 net.cpp:406] Scale43 <- Convolution43
I0925 15:40:51.392318  2958 net.cpp:367] Scale43 -> Convolution43 (in-place)
I0925 15:40:51.392347  2958 layer_factory.hpp:77] Creating layer Scale43
I0925 15:40:51.392431  2958 net.cpp:122] Setting up Scale43
I0925 15:40:51.392436  2958 net.cpp:129] Top shape: 100 64 8 8 (409600)
I0925 15:40:51.392437  2958 net.cpp:137] Memory required for data: 1057998000
I0925 15:40:51.392441  2958 layer_factory.hpp:77] Creating layer Eltwise20
I0925 15:40:51.392446  2958 net.cpp:84] Creating Layer Eltwise20
I0925 15:40:51.392449  2958 net.cpp:406] Eltwise20 <- Eltwise19_penlu39_0_split_1
I0925 15:40:51.392452  2958 net.cpp:406] Eltwise20 <- Convolution43
I0925 15:40:51.392455  2958 net.cpp:380] Eltwise20 -> Eltwise20
I0925 15:40:51.392473  2958 net.cpp:122] Setting up Eltwise20
I0925 15:40:51.392477  2958 net.cpp:129] Top shape: 100 64 8 8 (409600)
I0925 15:40:51.392479  2958 net.cpp:137] Memory required for data: 1059636400
I0925 15:40:51.392482  2958 layer_factory.hpp:77] Creating layer penlu41
I0925 15:40:51.392488  2958 net.cpp:84] Creating Layer penlu41
I0925 15:40:51.392489  2958 net.cpp:406] penlu41 <- Eltwise20
I0925 15:40:51.392493  2958 net.cpp:367] penlu41 -> Eltwise20 (in-place)
I0925 15:40:51.392619  2958 net.cpp:122] Setting up penlu41
I0925 15:40:51.392624  2958 net.cpp:129] Top shape: 100 64 8 8 (409600)
I0925 15:40:51.392627  2958 net.cpp:137] Memory required for data: 1061274800
I0925 15:40:51.392630  2958 layer_factory.hpp:77] Creating layer Eltwise20_penlu41_0_split
I0925 15:40:51.392634  2958 net.cpp:84] Creating Layer Eltwise20_penlu41_0_split
I0925 15:40:51.392637  2958 net.cpp:406] Eltwise20_penlu41_0_split <- Eltwise20
I0925 15:40:51.392640  2958 net.cpp:380] Eltwise20_penlu41_0_split -> Eltwise20_penlu41_0_split_0
I0925 15:40:51.392644  2958 net.cpp:380] Eltwise20_penlu41_0_split -> Eltwise20_penlu41_0_split_1
I0925 15:40:51.392669  2958 net.cpp:122] Setting up Eltwise20_penlu41_0_split
I0925 15:40:51.392673  2958 net.cpp:129] Top shape: 100 64 8 8 (409600)
I0925 15:40:51.392675  2958 net.cpp:129] Top shape: 100 64 8 8 (409600)
I0925 15:40:51.392678  2958 net.cpp:137] Memory required for data: 1064551600
I0925 15:40:51.392680  2958 layer_factory.hpp:77] Creating layer Convolution44
I0925 15:40:51.392686  2958 net.cpp:84] Creating Layer Convolution44
I0925 15:40:51.392695  2958 net.cpp:406] Convolution44 <- Eltwise20_penlu41_0_split_0
I0925 15:40:51.392700  2958 net.cpp:380] Convolution44 -> Convolution44
I0925 15:40:51.394821  2958 net.cpp:122] Setting up Convolution44
I0925 15:40:51.394830  2958 net.cpp:129] Top shape: 100 64 8 8 (409600)
I0925 15:40:51.394834  2958 net.cpp:137] Memory required for data: 1066190000
I0925 15:40:51.394839  2958 layer_factory.hpp:77] Creating layer BatchNorm44
I0925 15:40:51.394843  2958 net.cpp:84] Creating Layer BatchNorm44
I0925 15:40:51.394846  2958 net.cpp:406] BatchNorm44 <- Convolution44
I0925 15:40:51.394850  2958 net.cpp:367] BatchNorm44 -> Convolution44 (in-place)
I0925 15:40:51.394999  2958 net.cpp:122] Setting up BatchNorm44
I0925 15:40:51.395004  2958 net.cpp:129] Top shape: 100 64 8 8 (409600)
I0925 15:40:51.395005  2958 net.cpp:137] Memory required for data: 1067828400
I0925 15:40:51.395010  2958 layer_factory.hpp:77] Creating layer Scale44
I0925 15:40:51.395015  2958 net.cpp:84] Creating Layer Scale44
I0925 15:40:51.395017  2958 net.cpp:406] Scale44 <- Convolution44
I0925 15:40:51.395020  2958 net.cpp:367] Scale44 -> Convolution44 (in-place)
I0925 15:40:51.395051  2958 layer_factory.hpp:77] Creating layer Scale44
I0925 15:40:51.395133  2958 net.cpp:122] Setting up Scale44
I0925 15:40:51.395139  2958 net.cpp:129] Top shape: 100 64 8 8 (409600)
I0925 15:40:51.395141  2958 net.cpp:137] Memory required for data: 1069466800
I0925 15:40:51.395145  2958 layer_factory.hpp:77] Creating layer penlu42
I0925 15:40:51.395150  2958 net.cpp:84] Creating Layer penlu42
I0925 15:40:51.395153  2958 net.cpp:406] penlu42 <- Convolution44
I0925 15:40:51.395156  2958 net.cpp:367] penlu42 -> Convolution44 (in-place)
I0925 15:40:51.395277  2958 net.cpp:122] Setting up penlu42
I0925 15:40:51.395282  2958 net.cpp:129] Top shape: 100 64 8 8 (409600)
I0925 15:40:51.395283  2958 net.cpp:137] Memory required for data: 1071105200
I0925 15:40:51.395287  2958 layer_factory.hpp:77] Creating layer Convolution45
I0925 15:40:51.395294  2958 net.cpp:84] Creating Layer Convolution45
I0925 15:40:51.395298  2958 net.cpp:406] Convolution45 <- Convolution44
I0925 15:40:51.395301  2958 net.cpp:380] Convolution45 -> Convolution45
I0925 15:40:51.397096  2958 net.cpp:122] Setting up Convolution45
I0925 15:40:51.397104  2958 net.cpp:129] Top shape: 100 64 8 8 (409600)
I0925 15:40:51.397107  2958 net.cpp:137] Memory required for data: 1072743600
I0925 15:40:51.397112  2958 layer_factory.hpp:77] Creating layer BatchNorm45
I0925 15:40:51.397117  2958 net.cpp:84] Creating Layer BatchNorm45
I0925 15:40:51.397120  2958 net.cpp:406] BatchNorm45 <- Convolution45
I0925 15:40:51.397125  2958 net.cpp:367] BatchNorm45 -> Convolution45 (in-place)
I0925 15:40:51.397269  2958 net.cpp:122] Setting up BatchNorm45
I0925 15:40:51.397272  2958 net.cpp:129] Top shape: 100 64 8 8 (409600)
I0925 15:40:51.397275  2958 net.cpp:137] Memory required for data: 1074382000
I0925 15:40:51.397279  2958 layer_factory.hpp:77] Creating layer Scale45
I0925 15:40:51.397284  2958 net.cpp:84] Creating Layer Scale45
I0925 15:40:51.397286  2958 net.cpp:406] Scale45 <- Convolution45
I0925 15:40:51.397289  2958 net.cpp:367] Scale45 -> Convolution45 (in-place)
I0925 15:40:51.397320  2958 layer_factory.hpp:77] Creating layer Scale45
I0925 15:40:51.397400  2958 net.cpp:122] Setting up Scale45
I0925 15:40:51.397404  2958 net.cpp:129] Top shape: 100 64 8 8 (409600)
I0925 15:40:51.397406  2958 net.cpp:137] Memory required for data: 1076020400
I0925 15:40:51.397410  2958 layer_factory.hpp:77] Creating layer Eltwise21
I0925 15:40:51.397414  2958 net.cpp:84] Creating Layer Eltwise21
I0925 15:40:51.397418  2958 net.cpp:406] Eltwise21 <- Eltwise20_penlu41_0_split_1
I0925 15:40:51.397420  2958 net.cpp:406] Eltwise21 <- Convolution45
I0925 15:40:51.397424  2958 net.cpp:380] Eltwise21 -> Eltwise21
I0925 15:40:51.397440  2958 net.cpp:122] Setting up Eltwise21
I0925 15:40:51.397444  2958 net.cpp:129] Top shape: 100 64 8 8 (409600)
I0925 15:40:51.397446  2958 net.cpp:137] Memory required for data: 1077658800
I0925 15:40:51.397455  2958 layer_factory.hpp:77] Creating layer penlu43
I0925 15:40:51.397461  2958 net.cpp:84] Creating Layer penlu43
I0925 15:40:51.397464  2958 net.cpp:406] penlu43 <- Eltwise21
I0925 15:40:51.397467  2958 net.cpp:367] penlu43 -> Eltwise21 (in-place)
I0925 15:40:51.397590  2958 net.cpp:122] Setting up penlu43
I0925 15:40:51.397595  2958 net.cpp:129] Top shape: 100 64 8 8 (409600)
I0925 15:40:51.397598  2958 net.cpp:137] Memory required for data: 1079297200
I0925 15:40:51.397601  2958 layer_factory.hpp:77] Creating layer Eltwise21_penlu43_0_split
I0925 15:40:51.397605  2958 net.cpp:84] Creating Layer Eltwise21_penlu43_0_split
I0925 15:40:51.397608  2958 net.cpp:406] Eltwise21_penlu43_0_split <- Eltwise21
I0925 15:40:51.397611  2958 net.cpp:380] Eltwise21_penlu43_0_split -> Eltwise21_penlu43_0_split_0
I0925 15:40:51.397616  2958 net.cpp:380] Eltwise21_penlu43_0_split -> Eltwise21_penlu43_0_split_1
I0925 15:40:51.397640  2958 net.cpp:122] Setting up Eltwise21_penlu43_0_split
I0925 15:40:51.397644  2958 net.cpp:129] Top shape: 100 64 8 8 (409600)
I0925 15:40:51.397646  2958 net.cpp:129] Top shape: 100 64 8 8 (409600)
I0925 15:40:51.412214  2958 net.cpp:137] Memory required for data: 1082574000
I0925 15:40:51.412223  2958 layer_factory.hpp:77] Creating layer Convolution46
I0925 15:40:51.412233  2958 net.cpp:84] Creating Layer Convolution46
I0925 15:40:51.412237  2958 net.cpp:406] Convolution46 <- Eltwise21_penlu43_0_split_0
I0925 15:40:51.412242  2958 net.cpp:380] Convolution46 -> Convolution46
I0925 15:40:51.414189  2958 net.cpp:122] Setting up Convolution46
I0925 15:40:51.414199  2958 net.cpp:129] Top shape: 100 64 8 8 (409600)
I0925 15:40:51.414202  2958 net.cpp:137] Memory required for data: 1084212400
I0925 15:40:51.414207  2958 layer_factory.hpp:77] Creating layer BatchNorm46
I0925 15:40:51.414213  2958 net.cpp:84] Creating Layer BatchNorm46
I0925 15:40:51.414216  2958 net.cpp:406] BatchNorm46 <- Convolution46
I0925 15:40:51.414219  2958 net.cpp:367] BatchNorm46 -> Convolution46 (in-place)
I0925 15:40:51.414369  2958 net.cpp:122] Setting up BatchNorm46
I0925 15:40:51.414373  2958 net.cpp:129] Top shape: 100 64 8 8 (409600)
I0925 15:40:51.414376  2958 net.cpp:137] Memory required for data: 1085850800
I0925 15:40:51.414381  2958 layer_factory.hpp:77] Creating layer Scale46
I0925 15:40:51.414386  2958 net.cpp:84] Creating Layer Scale46
I0925 15:40:51.414388  2958 net.cpp:406] Scale46 <- Convolution46
I0925 15:40:51.414392  2958 net.cpp:367] Scale46 -> Convolution46 (in-place)
I0925 15:40:51.414424  2958 layer_factory.hpp:77] Creating layer Scale46
I0925 15:40:51.414510  2958 net.cpp:122] Setting up Scale46
I0925 15:40:51.414513  2958 net.cpp:129] Top shape: 100 64 8 8 (409600)
I0925 15:40:51.414515  2958 net.cpp:137] Memory required for data: 1087489200
I0925 15:40:51.414520  2958 layer_factory.hpp:77] Creating layer penlu44
I0925 15:40:51.414525  2958 net.cpp:84] Creating Layer penlu44
I0925 15:40:51.414528  2958 net.cpp:406] penlu44 <- Convolution46
I0925 15:40:51.414532  2958 net.cpp:367] penlu44 -> Convolution46 (in-place)
I0925 15:40:51.414655  2958 net.cpp:122] Setting up penlu44
I0925 15:40:51.414660  2958 net.cpp:129] Top shape: 100 64 8 8 (409600)
I0925 15:40:51.414662  2958 net.cpp:137] Memory required for data: 1089127600
I0925 15:40:51.414667  2958 layer_factory.hpp:77] Creating layer Convolution47
I0925 15:40:51.414674  2958 net.cpp:84] Creating Layer Convolution47
I0925 15:40:51.414677  2958 net.cpp:406] Convolution47 <- Convolution46
I0925 15:40:51.414681  2958 net.cpp:380] Convolution47 -> Convolution47
I0925 15:40:51.416563  2958 net.cpp:122] Setting up Convolution47
I0925 15:40:51.416573  2958 net.cpp:129] Top shape: 100 64 8 8 (409600)
I0925 15:40:51.416575  2958 net.cpp:137] Memory required for data: 1090766000
I0925 15:40:51.416580  2958 layer_factory.hpp:77] Creating layer BatchNorm47
I0925 15:40:51.416585  2958 net.cpp:84] Creating Layer BatchNorm47
I0925 15:40:51.416589  2958 net.cpp:406] BatchNorm47 <- Convolution47
I0925 15:40:51.416592  2958 net.cpp:367] BatchNorm47 -> Convolution47 (in-place)
I0925 15:40:51.416746  2958 net.cpp:122] Setting up BatchNorm47
I0925 15:40:51.416751  2958 net.cpp:129] Top shape: 100 64 8 8 (409600)
I0925 15:40:51.416754  2958 net.cpp:137] Memory required for data: 1092404400
I0925 15:40:51.416759  2958 layer_factory.hpp:77] Creating layer Scale47
I0925 15:40:51.416762  2958 net.cpp:84] Creating Layer Scale47
I0925 15:40:51.416765  2958 net.cpp:406] Scale47 <- Convolution47
I0925 15:40:51.416769  2958 net.cpp:367] Scale47 -> Convolution47 (in-place)
I0925 15:40:51.416798  2958 layer_factory.hpp:77] Creating layer Scale47
I0925 15:40:51.416880  2958 net.cpp:122] Setting up Scale47
I0925 15:40:51.416885  2958 net.cpp:129] Top shape: 100 64 8 8 (409600)
I0925 15:40:51.416887  2958 net.cpp:137] Memory required for data: 1094042800
I0925 15:40:51.416891  2958 layer_factory.hpp:77] Creating layer Eltwise22
I0925 15:40:51.416895  2958 net.cpp:84] Creating Layer Eltwise22
I0925 15:40:51.416898  2958 net.cpp:406] Eltwise22 <- Eltwise21_penlu43_0_split_1
I0925 15:40:51.416901  2958 net.cpp:406] Eltwise22 <- Convolution47
I0925 15:40:51.416905  2958 net.cpp:380] Eltwise22 -> Eltwise22
I0925 15:40:51.416923  2958 net.cpp:122] Setting up Eltwise22
I0925 15:40:51.416926  2958 net.cpp:129] Top shape: 100 64 8 8 (409600)
I0925 15:40:51.416929  2958 net.cpp:137] Memory required for data: 1095681200
I0925 15:40:51.416930  2958 layer_factory.hpp:77] Creating layer penlu45
I0925 15:40:51.416936  2958 net.cpp:84] Creating Layer penlu45
I0925 15:40:51.416939  2958 net.cpp:406] penlu45 <- Eltwise22
I0925 15:40:51.416942  2958 net.cpp:367] penlu45 -> Eltwise22 (in-place)
I0925 15:40:51.417064  2958 net.cpp:122] Setting up penlu45
I0925 15:40:51.417068  2958 net.cpp:129] Top shape: 100 64 8 8 (409600)
I0925 15:40:51.417070  2958 net.cpp:137] Memory required for data: 1097319600
I0925 15:40:51.417074  2958 layer_factory.hpp:77] Creating layer Eltwise22_penlu45_0_split
I0925 15:40:51.417078  2958 net.cpp:84] Creating Layer Eltwise22_penlu45_0_split
I0925 15:40:51.417081  2958 net.cpp:406] Eltwise22_penlu45_0_split <- Eltwise22
I0925 15:40:51.417086  2958 net.cpp:380] Eltwise22_penlu45_0_split -> Eltwise22_penlu45_0_split_0
I0925 15:40:51.417091  2958 net.cpp:380] Eltwise22_penlu45_0_split -> Eltwise22_penlu45_0_split_1
I0925 15:40:51.417116  2958 net.cpp:122] Setting up Eltwise22_penlu45_0_split
I0925 15:40:51.417120  2958 net.cpp:129] Top shape: 100 64 8 8 (409600)
I0925 15:40:51.417124  2958 net.cpp:129] Top shape: 100 64 8 8 (409600)
I0925 15:40:51.417125  2958 net.cpp:137] Memory required for data: 1100596400
I0925 15:40:51.417127  2958 layer_factory.hpp:77] Creating layer Convolution48
I0925 15:40:51.417135  2958 net.cpp:84] Creating Layer Convolution48
I0925 15:40:51.417136  2958 net.cpp:406] Convolution48 <- Eltwise22_penlu45_0_split_0
I0925 15:40:51.417140  2958 net.cpp:380] Convolution48 -> Convolution48
I0925 15:40:51.419245  2958 net.cpp:122] Setting up Convolution48
I0925 15:40:51.419255  2958 net.cpp:129] Top shape: 100 64 8 8 (409600)
I0925 15:40:51.419256  2958 net.cpp:137] Memory required for data: 1102234800
I0925 15:40:51.419262  2958 layer_factory.hpp:77] Creating layer BatchNorm48
I0925 15:40:51.419267  2958 net.cpp:84] Creating Layer BatchNorm48
I0925 15:40:51.419270  2958 net.cpp:406] BatchNorm48 <- Convolution48
I0925 15:40:51.419275  2958 net.cpp:367] BatchNorm48 -> Convolution48 (in-place)
I0925 15:40:51.419426  2958 net.cpp:122] Setting up BatchNorm48
I0925 15:40:51.419430  2958 net.cpp:129] Top shape: 100 64 8 8 (409600)
I0925 15:40:51.419432  2958 net.cpp:137] Memory required for data: 1103873200
I0925 15:40:51.419437  2958 layer_factory.hpp:77] Creating layer Scale48
I0925 15:40:51.419442  2958 net.cpp:84] Creating Layer Scale48
I0925 15:40:51.419445  2958 net.cpp:406] Scale48 <- Convolution48
I0925 15:40:51.419448  2958 net.cpp:367] Scale48 -> Convolution48 (in-place)
I0925 15:40:51.419477  2958 layer_factory.hpp:77] Creating layer Scale48
I0925 15:40:51.419562  2958 net.cpp:122] Setting up Scale48
I0925 15:40:51.419566  2958 net.cpp:129] Top shape: 100 64 8 8 (409600)
I0925 15:40:51.419574  2958 net.cpp:137] Memory required for data: 1105511600
I0925 15:40:51.419579  2958 layer_factory.hpp:77] Creating layer penlu46
I0925 15:40:51.419584  2958 net.cpp:84] Creating Layer penlu46
I0925 15:40:51.419586  2958 net.cpp:406] penlu46 <- Convolution48
I0925 15:40:51.419591  2958 net.cpp:367] penlu46 -> Convolution48 (in-place)
I0925 15:40:51.419714  2958 net.cpp:122] Setting up penlu46
I0925 15:40:51.419719  2958 net.cpp:129] Top shape: 100 64 8 8 (409600)
I0925 15:40:51.419721  2958 net.cpp:137] Memory required for data: 1107150000
I0925 15:40:51.419725  2958 layer_factory.hpp:77] Creating layer Convolution49
I0925 15:40:51.419733  2958 net.cpp:84] Creating Layer Convolution49
I0925 15:40:51.419735  2958 net.cpp:406] Convolution49 <- Convolution48
I0925 15:40:51.419739  2958 net.cpp:380] Convolution49 -> Convolution49
I0925 15:40:51.421864  2958 net.cpp:122] Setting up Convolution49
I0925 15:40:51.421872  2958 net.cpp:129] Top shape: 100 64 8 8 (409600)
I0925 15:40:51.421875  2958 net.cpp:137] Memory required for data: 1108788400
I0925 15:40:51.421880  2958 layer_factory.hpp:77] Creating layer BatchNorm49
I0925 15:40:51.421885  2958 net.cpp:84] Creating Layer BatchNorm49
I0925 15:40:51.421888  2958 net.cpp:406] BatchNorm49 <- Convolution49
I0925 15:40:51.421892  2958 net.cpp:367] BatchNorm49 -> Convolution49 (in-place)
I0925 15:40:51.422039  2958 net.cpp:122] Setting up BatchNorm49
I0925 15:40:51.422044  2958 net.cpp:129] Top shape: 100 64 8 8 (409600)
I0925 15:40:51.422046  2958 net.cpp:137] Memory required for data: 1110426800
I0925 15:40:51.422051  2958 layer_factory.hpp:77] Creating layer Scale49
I0925 15:40:51.422056  2958 net.cpp:84] Creating Layer Scale49
I0925 15:40:51.422058  2958 net.cpp:406] Scale49 <- Convolution49
I0925 15:40:51.422062  2958 net.cpp:367] Scale49 -> Convolution49 (in-place)
I0925 15:40:51.422091  2958 layer_factory.hpp:77] Creating layer Scale49
I0925 15:40:51.422178  2958 net.cpp:122] Setting up Scale49
I0925 15:40:51.422183  2958 net.cpp:129] Top shape: 100 64 8 8 (409600)
I0925 15:40:51.422184  2958 net.cpp:137] Memory required for data: 1112065200
I0925 15:40:51.422188  2958 layer_factory.hpp:77] Creating layer Eltwise23
I0925 15:40:51.422194  2958 net.cpp:84] Creating Layer Eltwise23
I0925 15:40:51.422196  2958 net.cpp:406] Eltwise23 <- Eltwise22_penlu45_0_split_1
I0925 15:40:51.422199  2958 net.cpp:406] Eltwise23 <- Convolution49
I0925 15:40:51.422204  2958 net.cpp:380] Eltwise23 -> Eltwise23
I0925 15:40:51.422220  2958 net.cpp:122] Setting up Eltwise23
I0925 15:40:51.422224  2958 net.cpp:129] Top shape: 100 64 8 8 (409600)
I0925 15:40:51.422226  2958 net.cpp:137] Memory required for data: 1113703600
I0925 15:40:51.422228  2958 layer_factory.hpp:77] Creating layer penlu47
I0925 15:40:51.422235  2958 net.cpp:84] Creating Layer penlu47
I0925 15:40:51.422236  2958 net.cpp:406] penlu47 <- Eltwise23
I0925 15:40:51.422240  2958 net.cpp:367] penlu47 -> Eltwise23 (in-place)
I0925 15:40:51.422379  2958 net.cpp:122] Setting up penlu47
I0925 15:40:51.422384  2958 net.cpp:129] Top shape: 100 64 8 8 (409600)
I0925 15:40:51.422386  2958 net.cpp:137] Memory required for data: 1115342000
I0925 15:40:51.422391  2958 layer_factory.hpp:77] Creating layer Eltwise23_penlu47_0_split
I0925 15:40:51.422394  2958 net.cpp:84] Creating Layer Eltwise23_penlu47_0_split
I0925 15:40:51.422397  2958 net.cpp:406] Eltwise23_penlu47_0_split <- Eltwise23
I0925 15:40:51.422401  2958 net.cpp:380] Eltwise23_penlu47_0_split -> Eltwise23_penlu47_0_split_0
I0925 15:40:51.422405  2958 net.cpp:380] Eltwise23_penlu47_0_split -> Eltwise23_penlu47_0_split_1
I0925 15:40:51.422431  2958 net.cpp:122] Setting up Eltwise23_penlu47_0_split
I0925 15:40:51.422435  2958 net.cpp:129] Top shape: 100 64 8 8 (409600)
I0925 15:40:51.422438  2958 net.cpp:129] Top shape: 100 64 8 8 (409600)
I0925 15:40:51.422441  2958 net.cpp:137] Memory required for data: 1118618800
I0925 15:40:51.422442  2958 layer_factory.hpp:77] Creating layer Convolution50
I0925 15:40:51.422449  2958 net.cpp:84] Creating Layer Convolution50
I0925 15:40:51.422459  2958 net.cpp:406] Convolution50 <- Eltwise23_penlu47_0_split_0
I0925 15:40:51.422464  2958 net.cpp:380] Convolution50 -> Convolution50
I0925 15:40:51.425113  2958 net.cpp:122] Setting up Convolution50
I0925 15:40:51.425123  2958 net.cpp:129] Top shape: 100 64 8 8 (409600)
I0925 15:40:51.425125  2958 net.cpp:137] Memory required for data: 1120257200
I0925 15:40:51.425130  2958 layer_factory.hpp:77] Creating layer BatchNorm50
I0925 15:40:51.425137  2958 net.cpp:84] Creating Layer BatchNorm50
I0925 15:40:51.425139  2958 net.cpp:406] BatchNorm50 <- Convolution50
I0925 15:40:51.425143  2958 net.cpp:367] BatchNorm50 -> Convolution50 (in-place)
I0925 15:40:51.425294  2958 net.cpp:122] Setting up BatchNorm50
I0925 15:40:51.425299  2958 net.cpp:129] Top shape: 100 64 8 8 (409600)
I0925 15:40:51.425302  2958 net.cpp:137] Memory required for data: 1121895600
I0925 15:40:51.425307  2958 layer_factory.hpp:77] Creating layer Scale50
I0925 15:40:51.425312  2958 net.cpp:84] Creating Layer Scale50
I0925 15:40:51.425313  2958 net.cpp:406] Scale50 <- Convolution50
I0925 15:40:51.425318  2958 net.cpp:367] Scale50 -> Convolution50 (in-place)
I0925 15:40:51.425348  2958 layer_factory.hpp:77] Creating layer Scale50
I0925 15:40:51.425432  2958 net.cpp:122] Setting up Scale50
I0925 15:40:51.425437  2958 net.cpp:129] Top shape: 100 64 8 8 (409600)
I0925 15:40:51.425439  2958 net.cpp:137] Memory required for data: 1123534000
I0925 15:40:51.425443  2958 layer_factory.hpp:77] Creating layer penlu48
I0925 15:40:51.425449  2958 net.cpp:84] Creating Layer penlu48
I0925 15:40:51.425451  2958 net.cpp:406] penlu48 <- Convolution50
I0925 15:40:51.425456  2958 net.cpp:367] penlu48 -> Convolution50 (in-place)
I0925 15:40:51.425576  2958 net.cpp:122] Setting up penlu48
I0925 15:40:51.425580  2958 net.cpp:129] Top shape: 100 64 8 8 (409600)
I0925 15:40:51.425582  2958 net.cpp:137] Memory required for data: 1125172400
I0925 15:40:51.425587  2958 layer_factory.hpp:77] Creating layer Convolution51
I0925 15:40:51.425595  2958 net.cpp:84] Creating Layer Convolution51
I0925 15:40:51.425597  2958 net.cpp:406] Convolution51 <- Convolution50
I0925 15:40:51.425601  2958 net.cpp:380] Convolution51 -> Convolution51
I0925 15:40:51.427374  2958 net.cpp:122] Setting up Convolution51
I0925 15:40:51.427383  2958 net.cpp:129] Top shape: 100 64 8 8 (409600)
I0925 15:40:51.427386  2958 net.cpp:137] Memory required for data: 1126810800
I0925 15:40:51.427390  2958 layer_factory.hpp:77] Creating layer BatchNorm51
I0925 15:40:51.427397  2958 net.cpp:84] Creating Layer BatchNorm51
I0925 15:40:51.427399  2958 net.cpp:406] BatchNorm51 <- Convolution51
I0925 15:40:51.427403  2958 net.cpp:367] BatchNorm51 -> Convolution51 (in-place)
I0925 15:40:51.427551  2958 net.cpp:122] Setting up BatchNorm51
I0925 15:40:51.427556  2958 net.cpp:129] Top shape: 100 64 8 8 (409600)
I0925 15:40:51.427557  2958 net.cpp:137] Memory required for data: 1128449200
I0925 15:40:51.427561  2958 layer_factory.hpp:77] Creating layer Scale51
I0925 15:40:51.427567  2958 net.cpp:84] Creating Layer Scale51
I0925 15:40:51.427569  2958 net.cpp:406] Scale51 <- Convolution51
I0925 15:40:51.427573  2958 net.cpp:367] Scale51 -> Convolution51 (in-place)
I0925 15:40:51.427603  2958 layer_factory.hpp:77] Creating layer Scale51
I0925 15:40:51.427685  2958 net.cpp:122] Setting up Scale51
I0925 15:40:51.427690  2958 net.cpp:129] Top shape: 100 64 8 8 (409600)
I0925 15:40:51.427692  2958 net.cpp:137] Memory required for data: 1130087600
I0925 15:40:51.427695  2958 layer_factory.hpp:77] Creating layer Eltwise24
I0925 15:40:51.427700  2958 net.cpp:84] Creating Layer Eltwise24
I0925 15:40:51.427703  2958 net.cpp:406] Eltwise24 <- Eltwise23_penlu47_0_split_1
I0925 15:40:51.427706  2958 net.cpp:406] Eltwise24 <- Convolution51
I0925 15:40:51.427711  2958 net.cpp:380] Eltwise24 -> Eltwise24
I0925 15:40:51.427727  2958 net.cpp:122] Setting up Eltwise24
I0925 15:40:51.427731  2958 net.cpp:129] Top shape: 100 64 8 8 (409600)
I0925 15:40:51.427733  2958 net.cpp:137] Memory required for data: 1131726000
I0925 15:40:51.427744  2958 layer_factory.hpp:77] Creating layer penlu49
I0925 15:40:51.427750  2958 net.cpp:84] Creating Layer penlu49
I0925 15:40:51.427753  2958 net.cpp:406] penlu49 <- Eltwise24
I0925 15:40:51.427757  2958 net.cpp:367] penlu49 -> Eltwise24 (in-place)
I0925 15:40:51.427878  2958 net.cpp:122] Setting up penlu49
I0925 15:40:51.427883  2958 net.cpp:129] Top shape: 100 64 8 8 (409600)
I0925 15:40:51.427886  2958 net.cpp:137] Memory required for data: 1133364400
I0925 15:40:51.427889  2958 layer_factory.hpp:77] Creating layer Eltwise24_penlu49_0_split
I0925 15:40:51.427893  2958 net.cpp:84] Creating Layer Eltwise24_penlu49_0_split
I0925 15:40:51.427896  2958 net.cpp:406] Eltwise24_penlu49_0_split <- Eltwise24
I0925 15:40:51.427899  2958 net.cpp:380] Eltwise24_penlu49_0_split -> Eltwise24_penlu49_0_split_0
I0925 15:40:51.427903  2958 net.cpp:380] Eltwise24_penlu49_0_split -> Eltwise24_penlu49_0_split_1
I0925 15:40:51.427939  2958 net.cpp:122] Setting up Eltwise24_penlu49_0_split
I0925 15:40:51.442526  2958 net.cpp:129] Top shape: 100 64 8 8 (409600)
I0925 15:40:51.442538  2958 net.cpp:129] Top shape: 100 64 8 8 (409600)
I0925 15:40:51.442540  2958 net.cpp:137] Memory required for data: 1136641200
I0925 15:40:51.442543  2958 layer_factory.hpp:77] Creating layer Convolution52
I0925 15:40:51.442553  2958 net.cpp:84] Creating Layer Convolution52
I0925 15:40:51.442556  2958 net.cpp:406] Convolution52 <- Eltwise24_penlu49_0_split_0
I0925 15:40:51.442562  2958 net.cpp:380] Convolution52 -> Convolution52
I0925 15:40:51.445128  2958 net.cpp:122] Setting up Convolution52
I0925 15:40:51.445137  2958 net.cpp:129] Top shape: 100 64 8 8 (409600)
I0925 15:40:51.445140  2958 net.cpp:137] Memory required for data: 1138279600
I0925 15:40:51.445147  2958 layer_factory.hpp:77] Creating layer BatchNorm52
I0925 15:40:51.445152  2958 net.cpp:84] Creating Layer BatchNorm52
I0925 15:40:51.445154  2958 net.cpp:406] BatchNorm52 <- Convolution52
I0925 15:40:51.445158  2958 net.cpp:367] BatchNorm52 -> Convolution52 (in-place)
I0925 15:40:51.445308  2958 net.cpp:122] Setting up BatchNorm52
I0925 15:40:51.445313  2958 net.cpp:129] Top shape: 100 64 8 8 (409600)
I0925 15:40:51.445315  2958 net.cpp:137] Memory required for data: 1139918000
I0925 15:40:51.445320  2958 layer_factory.hpp:77] Creating layer Scale52
I0925 15:40:51.445324  2958 net.cpp:84] Creating Layer Scale52
I0925 15:40:51.445327  2958 net.cpp:406] Scale52 <- Convolution52
I0925 15:40:51.445330  2958 net.cpp:367] Scale52 -> Convolution52 (in-place)
I0925 15:40:51.445361  2958 layer_factory.hpp:77] Creating layer Scale52
I0925 15:40:51.445444  2958 net.cpp:122] Setting up Scale52
I0925 15:40:51.445448  2958 net.cpp:129] Top shape: 100 64 8 8 (409600)
I0925 15:40:51.445451  2958 net.cpp:137] Memory required for data: 1141556400
I0925 15:40:51.445454  2958 layer_factory.hpp:77] Creating layer penlu50
I0925 15:40:51.445475  2958 net.cpp:84] Creating Layer penlu50
I0925 15:40:51.445478  2958 net.cpp:406] penlu50 <- Convolution52
I0925 15:40:51.445482  2958 net.cpp:367] penlu50 -> Convolution52 (in-place)
I0925 15:40:51.445605  2958 net.cpp:122] Setting up penlu50
I0925 15:40:51.445610  2958 net.cpp:129] Top shape: 100 64 8 8 (409600)
I0925 15:40:51.445611  2958 net.cpp:137] Memory required for data: 1143194800
I0925 15:40:51.445655  2958 layer_factory.hpp:77] Creating layer Convolution53
I0925 15:40:51.445662  2958 net.cpp:84] Creating Layer Convolution53
I0925 15:40:51.445664  2958 net.cpp:406] Convolution53 <- Convolution52
I0925 15:40:51.445668  2958 net.cpp:380] Convolution53 -> Convolution53
I0925 15:40:51.447434  2958 net.cpp:122] Setting up Convolution53
I0925 15:40:51.447443  2958 net.cpp:129] Top shape: 100 64 8 8 (409600)
I0925 15:40:51.447445  2958 net.cpp:137] Memory required for data: 1144833200
I0925 15:40:51.447450  2958 layer_factory.hpp:77] Creating layer BatchNorm53
I0925 15:40:51.447455  2958 net.cpp:84] Creating Layer BatchNorm53
I0925 15:40:51.447458  2958 net.cpp:406] BatchNorm53 <- Convolution53
I0925 15:40:51.447463  2958 net.cpp:367] BatchNorm53 -> Convolution53 (in-place)
I0925 15:40:51.447616  2958 net.cpp:122] Setting up BatchNorm53
I0925 15:40:51.447621  2958 net.cpp:129] Top shape: 100 64 8 8 (409600)
I0925 15:40:51.447623  2958 net.cpp:137] Memory required for data: 1146471600
I0925 15:40:51.447628  2958 layer_factory.hpp:77] Creating layer Scale53
I0925 15:40:51.447633  2958 net.cpp:84] Creating Layer Scale53
I0925 15:40:51.447635  2958 net.cpp:406] Scale53 <- Convolution53
I0925 15:40:51.447639  2958 net.cpp:367] Scale53 -> Convolution53 (in-place)
I0925 15:40:51.447667  2958 layer_factory.hpp:77] Creating layer Scale53
I0925 15:40:51.447751  2958 net.cpp:122] Setting up Scale53
I0925 15:40:51.447757  2958 net.cpp:129] Top shape: 100 64 8 8 (409600)
I0925 15:40:51.447758  2958 net.cpp:137] Memory required for data: 1148110000
I0925 15:40:51.447762  2958 layer_factory.hpp:77] Creating layer Eltwise25
I0925 15:40:51.447767  2958 net.cpp:84] Creating Layer Eltwise25
I0925 15:40:51.447769  2958 net.cpp:406] Eltwise25 <- Eltwise24_penlu49_0_split_1
I0925 15:40:51.447772  2958 net.cpp:406] Eltwise25 <- Convolution53
I0925 15:40:51.447777  2958 net.cpp:380] Eltwise25 -> Eltwise25
I0925 15:40:51.447795  2958 net.cpp:122] Setting up Eltwise25
I0925 15:40:51.447798  2958 net.cpp:129] Top shape: 100 64 8 8 (409600)
I0925 15:40:51.447800  2958 net.cpp:137] Memory required for data: 1149748400
I0925 15:40:51.447803  2958 layer_factory.hpp:77] Creating layer penlu51
I0925 15:40:51.447808  2958 net.cpp:84] Creating Layer penlu51
I0925 15:40:51.447810  2958 net.cpp:406] penlu51 <- Eltwise25
I0925 15:40:51.447814  2958 net.cpp:367] penlu51 -> Eltwise25 (in-place)
I0925 15:40:51.447934  2958 net.cpp:122] Setting up penlu51
I0925 15:40:51.447938  2958 net.cpp:129] Top shape: 100 64 8 8 (409600)
I0925 15:40:51.447940  2958 net.cpp:137] Memory required for data: 1151386800
I0925 15:40:51.447945  2958 layer_factory.hpp:77] Creating layer Eltwise25_penlu51_0_split
I0925 15:40:51.447949  2958 net.cpp:84] Creating Layer Eltwise25_penlu51_0_split
I0925 15:40:51.447952  2958 net.cpp:406] Eltwise25_penlu51_0_split <- Eltwise25
I0925 15:40:51.447954  2958 net.cpp:380] Eltwise25_penlu51_0_split -> Eltwise25_penlu51_0_split_0
I0925 15:40:51.447958  2958 net.cpp:380] Eltwise25_penlu51_0_split -> Eltwise25_penlu51_0_split_1
I0925 15:40:51.447983  2958 net.cpp:122] Setting up Eltwise25_penlu51_0_split
I0925 15:40:51.447986  2958 net.cpp:129] Top shape: 100 64 8 8 (409600)
I0925 15:40:51.447989  2958 net.cpp:129] Top shape: 100 64 8 8 (409600)
I0925 15:40:51.447991  2958 net.cpp:137] Memory required for data: 1154663600
I0925 15:40:51.447993  2958 layer_factory.hpp:77] Creating layer Convolution54
I0925 15:40:51.448000  2958 net.cpp:84] Creating Layer Convolution54
I0925 15:40:51.448004  2958 net.cpp:406] Convolution54 <- Eltwise25_penlu51_0_split_0
I0925 15:40:51.448006  2958 net.cpp:380] Convolution54 -> Convolution54
I0925 15:40:51.450073  2958 net.cpp:122] Setting up Convolution54
I0925 15:40:51.450081  2958 net.cpp:129] Top shape: 100 64 8 8 (409600)
I0925 15:40:51.450084  2958 net.cpp:137] Memory required for data: 1156302000
I0925 15:40:51.450088  2958 layer_factory.hpp:77] Creating layer BatchNorm54
I0925 15:40:51.450093  2958 net.cpp:84] Creating Layer BatchNorm54
I0925 15:40:51.450096  2958 net.cpp:406] BatchNorm54 <- Convolution54
I0925 15:40:51.450100  2958 net.cpp:367] BatchNorm54 -> Convolution54 (in-place)
I0925 15:40:51.450249  2958 net.cpp:122] Setting up BatchNorm54
I0925 15:40:51.450254  2958 net.cpp:129] Top shape: 100 64 8 8 (409600)
I0925 15:40:51.450256  2958 net.cpp:137] Memory required for data: 1157940400
I0925 15:40:51.450261  2958 layer_factory.hpp:77] Creating layer Scale54
I0925 15:40:51.450265  2958 net.cpp:84] Creating Layer Scale54
I0925 15:40:51.450268  2958 net.cpp:406] Scale54 <- Convolution54
I0925 15:40:51.450271  2958 net.cpp:367] Scale54 -> Convolution54 (in-place)
I0925 15:40:51.450301  2958 layer_factory.hpp:77] Creating layer Scale54
I0925 15:40:51.450383  2958 net.cpp:122] Setting up Scale54
I0925 15:40:51.450387  2958 net.cpp:129] Top shape: 100 64 8 8 (409600)
I0925 15:40:51.450397  2958 net.cpp:137] Memory required for data: 1159578800
I0925 15:40:51.450400  2958 layer_factory.hpp:77] Creating layer penlu52
I0925 15:40:51.450407  2958 net.cpp:84] Creating Layer penlu52
I0925 15:40:51.450409  2958 net.cpp:406] penlu52 <- Convolution54
I0925 15:40:51.450413  2958 net.cpp:367] penlu52 -> Convolution54 (in-place)
I0925 15:40:51.450538  2958 net.cpp:122] Setting up penlu52
I0925 15:40:51.450542  2958 net.cpp:129] Top shape: 100 64 8 8 (409600)
I0925 15:40:51.450544  2958 net.cpp:137] Memory required for data: 1161217200
I0925 15:40:51.450548  2958 layer_factory.hpp:77] Creating layer Convolution55
I0925 15:40:51.450556  2958 net.cpp:84] Creating Layer Convolution55
I0925 15:40:51.450558  2958 net.cpp:406] Convolution55 <- Convolution54
I0925 15:40:51.450562  2958 net.cpp:380] Convolution55 -> Convolution55
I0925 15:40:51.452307  2958 net.cpp:122] Setting up Convolution55
I0925 15:40:51.452316  2958 net.cpp:129] Top shape: 100 64 8 8 (409600)
I0925 15:40:51.452319  2958 net.cpp:137] Memory required for data: 1162855600
I0925 15:40:51.452323  2958 layer_factory.hpp:77] Creating layer BatchNorm55
I0925 15:40:51.452329  2958 net.cpp:84] Creating Layer BatchNorm55
I0925 15:40:51.452332  2958 net.cpp:406] BatchNorm55 <- Convolution55
I0925 15:40:51.452335  2958 net.cpp:367] BatchNorm55 -> Convolution55 (in-place)
I0925 15:40:51.452481  2958 net.cpp:122] Setting up BatchNorm55
I0925 15:40:51.452484  2958 net.cpp:129] Top shape: 100 64 8 8 (409600)
I0925 15:40:51.452486  2958 net.cpp:137] Memory required for data: 1164494000
I0925 15:40:51.452491  2958 layer_factory.hpp:77] Creating layer Scale55
I0925 15:40:51.452502  2958 net.cpp:84] Creating Layer Scale55
I0925 15:40:51.452504  2958 net.cpp:406] Scale55 <- Convolution55
I0925 15:40:51.452507  2958 net.cpp:367] Scale55 -> Convolution55 (in-place)
I0925 15:40:51.452538  2958 layer_factory.hpp:77] Creating layer Scale55
I0925 15:40:51.452637  2958 net.cpp:122] Setting up Scale55
I0925 15:40:51.452643  2958 net.cpp:129] Top shape: 100 64 8 8 (409600)
I0925 15:40:51.452646  2958 net.cpp:137] Memory required for data: 1166132400
I0925 15:40:51.452649  2958 layer_factory.hpp:77] Creating layer Eltwise26
I0925 15:40:51.452654  2958 net.cpp:84] Creating Layer Eltwise26
I0925 15:40:51.452657  2958 net.cpp:406] Eltwise26 <- Eltwise25_penlu51_0_split_1
I0925 15:40:51.452661  2958 net.cpp:406] Eltwise26 <- Convolution55
I0925 15:40:51.452663  2958 net.cpp:380] Eltwise26 -> Eltwise26
I0925 15:40:51.452682  2958 net.cpp:122] Setting up Eltwise26
I0925 15:40:51.452685  2958 net.cpp:129] Top shape: 100 64 8 8 (409600)
I0925 15:40:51.452687  2958 net.cpp:137] Memory required for data: 1167770800
I0925 15:40:51.452689  2958 layer_factory.hpp:77] Creating layer penlu53
I0925 15:40:51.452694  2958 net.cpp:84] Creating Layer penlu53
I0925 15:40:51.452697  2958 net.cpp:406] penlu53 <- Eltwise26
I0925 15:40:51.452700  2958 net.cpp:367] penlu53 -> Eltwise26 (in-place)
I0925 15:40:51.452823  2958 net.cpp:122] Setting up penlu53
I0925 15:40:51.452827  2958 net.cpp:129] Top shape: 100 64 8 8 (409600)
I0925 15:40:51.452829  2958 net.cpp:137] Memory required for data: 1169409200
I0925 15:40:51.452834  2958 layer_factory.hpp:77] Creating layer Eltwise26_penlu53_0_split
I0925 15:40:51.452837  2958 net.cpp:84] Creating Layer Eltwise26_penlu53_0_split
I0925 15:40:51.452841  2958 net.cpp:406] Eltwise26_penlu53_0_split <- Eltwise26
I0925 15:40:51.452844  2958 net.cpp:380] Eltwise26_penlu53_0_split -> Eltwise26_penlu53_0_split_0
I0925 15:40:51.452848  2958 net.cpp:380] Eltwise26_penlu53_0_split -> Eltwise26_penlu53_0_split_1
I0925 15:40:51.452872  2958 net.cpp:122] Setting up Eltwise26_penlu53_0_split
I0925 15:40:51.452875  2958 net.cpp:129] Top shape: 100 64 8 8 (409600)
I0925 15:40:51.452878  2958 net.cpp:129] Top shape: 100 64 8 8 (409600)
I0925 15:40:51.452880  2958 net.cpp:137] Memory required for data: 1172686000
I0925 15:40:51.452883  2958 layer_factory.hpp:77] Creating layer Convolution56
I0925 15:40:51.452889  2958 net.cpp:84] Creating Layer Convolution56
I0925 15:40:51.452898  2958 net.cpp:406] Convolution56 <- Eltwise26_penlu53_0_split_0
I0925 15:40:51.452903  2958 net.cpp:380] Convolution56 -> Convolution56
I0925 15:40:51.454632  2958 net.cpp:122] Setting up Convolution56
I0925 15:40:51.454641  2958 net.cpp:129] Top shape: 100 64 8 8 (409600)
I0925 15:40:51.454644  2958 net.cpp:137] Memory required for data: 1174324400
I0925 15:40:51.454648  2958 layer_factory.hpp:77] Creating layer BatchNorm56
I0925 15:40:51.454654  2958 net.cpp:84] Creating Layer BatchNorm56
I0925 15:40:51.454658  2958 net.cpp:406] BatchNorm56 <- Convolution56
I0925 15:40:51.454660  2958 net.cpp:367] BatchNorm56 -> Convolution56 (in-place)
I0925 15:40:51.454812  2958 net.cpp:122] Setting up BatchNorm56
I0925 15:40:51.454816  2958 net.cpp:129] Top shape: 100 64 8 8 (409600)
I0925 15:40:51.454818  2958 net.cpp:137] Memory required for data: 1175962800
I0925 15:40:51.454823  2958 layer_factory.hpp:77] Creating layer Scale56
I0925 15:40:51.454828  2958 net.cpp:84] Creating Layer Scale56
I0925 15:40:51.454830  2958 net.cpp:406] Scale56 <- Convolution56
I0925 15:40:51.454833  2958 net.cpp:367] Scale56 -> Convolution56 (in-place)
I0925 15:40:51.454864  2958 layer_factory.hpp:77] Creating layer Scale56
I0925 15:40:51.454946  2958 net.cpp:122] Setting up Scale56
I0925 15:40:51.454951  2958 net.cpp:129] Top shape: 100 64 8 8 (409600)
I0925 15:40:51.454953  2958 net.cpp:137] Memory required for data: 1177601200
I0925 15:40:51.454957  2958 layer_factory.hpp:77] Creating layer penlu54
I0925 15:40:51.454962  2958 net.cpp:84] Creating Layer penlu54
I0925 15:40:51.454964  2958 net.cpp:406] penlu54 <- Convolution56
I0925 15:40:51.454968  2958 net.cpp:367] penlu54 -> Convolution56 (in-place)
I0925 15:40:51.455091  2958 net.cpp:122] Setting up penlu54
I0925 15:40:51.455096  2958 net.cpp:129] Top shape: 100 64 8 8 (409600)
I0925 15:40:51.455097  2958 net.cpp:137] Memory required for data: 1179239600
I0925 15:40:51.455102  2958 layer_factory.hpp:77] Creating layer Convolution57
I0925 15:40:51.455109  2958 net.cpp:84] Creating Layer Convolution57
I0925 15:40:51.455112  2958 net.cpp:406] Convolution57 <- Convolution56
I0925 15:40:51.455116  2958 net.cpp:380] Convolution57 -> Convolution57
I0925 15:40:51.456854  2958 net.cpp:122] Setting up Convolution57
I0925 15:40:51.456863  2958 net.cpp:129] Top shape: 100 64 8 8 (409600)
I0925 15:40:51.456866  2958 net.cpp:137] Memory required for data: 1180878000
I0925 15:40:51.456871  2958 layer_factory.hpp:77] Creating layer BatchNorm57
I0925 15:40:51.456876  2958 net.cpp:84] Creating Layer BatchNorm57
I0925 15:40:51.456878  2958 net.cpp:406] BatchNorm57 <- Convolution57
I0925 15:40:51.456882  2958 net.cpp:367] BatchNorm57 -> Convolution57 (in-place)
I0925 15:40:51.457026  2958 net.cpp:122] Setting up BatchNorm57
I0925 15:40:51.457031  2958 net.cpp:129] Top shape: 100 64 8 8 (409600)
I0925 15:40:51.457032  2958 net.cpp:137] Memory required for data: 1182516400
I0925 15:40:51.457037  2958 layer_factory.hpp:77] Creating layer Scale57
I0925 15:40:51.457041  2958 net.cpp:84] Creating Layer Scale57
I0925 15:40:51.457044  2958 net.cpp:406] Scale57 <- Convolution57
I0925 15:40:51.457047  2958 net.cpp:367] Scale57 -> Convolution57 (in-place)
I0925 15:40:51.457077  2958 layer_factory.hpp:77] Creating layer Scale57
I0925 15:40:51.457157  2958 net.cpp:122] Setting up Scale57
I0925 15:40:51.457162  2958 net.cpp:129] Top shape: 100 64 8 8 (409600)
I0925 15:40:51.457165  2958 net.cpp:137] Memory required for data: 1184154800
I0925 15:40:51.457167  2958 layer_factory.hpp:77] Creating layer Eltwise27
I0925 15:40:51.457171  2958 net.cpp:84] Creating Layer Eltwise27
I0925 15:40:51.457175  2958 net.cpp:406] Eltwise27 <- Eltwise26_penlu53_0_split_1
I0925 15:40:51.457177  2958 net.cpp:406] Eltwise27 <- Convolution57
I0925 15:40:51.457181  2958 net.cpp:380] Eltwise27 -> Eltwise27
I0925 15:40:51.457197  2958 net.cpp:122] Setting up Eltwise27
I0925 15:40:51.457201  2958 net.cpp:129] Top shape: 100 64 8 8 (409600)
I0925 15:40:51.457202  2958 net.cpp:137] Memory required for data: 1185793200
I0925 15:40:51.457211  2958 layer_factory.hpp:77] Creating layer penlu55
I0925 15:40:51.457216  2958 net.cpp:84] Creating Layer penlu55
I0925 15:40:51.457219  2958 net.cpp:406] penlu55 <- Eltwise27
I0925 15:40:51.457222  2958 net.cpp:367] penlu55 -> Eltwise27 (in-place)
I0925 15:40:51.457343  2958 net.cpp:122] Setting up penlu55
I0925 15:40:51.457348  2958 net.cpp:129] Top shape: 100 64 8 8 (409600)
I0925 15:40:51.457350  2958 net.cpp:137] Memory required for data: 1187431600
I0925 15:40:51.457355  2958 layer_factory.hpp:77] Creating layer Pooling1
I0925 15:40:51.457360  2958 net.cpp:84] Creating Layer Pooling1
I0925 15:40:51.457361  2958 net.cpp:406] Pooling1 <- Eltwise27
I0925 15:40:51.457365  2958 net.cpp:380] Pooling1 -> Pooling1
I0925 15:40:51.457839  2958 net.cpp:122] Setting up Pooling1
I0925 15:40:51.457847  2958 net.cpp:129] Top shape: 100 64 1 1 (6400)
I0925 15:40:51.472913  2958 net.cpp:137] Memory required for data: 1187457200
I0925 15:40:51.472923  2958 layer_factory.hpp:77] Creating layer InnerProduct1
I0925 15:40:51.472934  2958 net.cpp:84] Creating Layer InnerProduct1
I0925 15:40:51.472936  2958 net.cpp:406] InnerProduct1 <- Pooling1
I0925 15:40:51.472940  2958 net.cpp:380] InnerProduct1 -> InnerProduct1
I0925 15:40:51.473070  2958 net.cpp:122] Setting up InnerProduct1
I0925 15:40:51.473076  2958 net.cpp:129] Top shape: 100 10 (1000)
I0925 15:40:51.473078  2958 net.cpp:137] Memory required for data: 1187461200
I0925 15:40:51.473083  2958 layer_factory.hpp:77] Creating layer InnerProduct1_InnerProduct1_0_split
I0925 15:40:51.473088  2958 net.cpp:84] Creating Layer InnerProduct1_InnerProduct1_0_split
I0925 15:40:51.473090  2958 net.cpp:406] InnerProduct1_InnerProduct1_0_split <- InnerProduct1
I0925 15:40:51.473094  2958 net.cpp:380] InnerProduct1_InnerProduct1_0_split -> InnerProduct1_InnerProduct1_0_split_0
I0925 15:40:51.473099  2958 net.cpp:380] InnerProduct1_InnerProduct1_0_split -> InnerProduct1_InnerProduct1_0_split_1
I0925 15:40:51.473129  2958 net.cpp:122] Setting up InnerProduct1_InnerProduct1_0_split
I0925 15:40:51.473134  2958 net.cpp:129] Top shape: 100 10 (1000)
I0925 15:40:51.473136  2958 net.cpp:129] Top shape: 100 10 (1000)
I0925 15:40:51.473139  2958 net.cpp:137] Memory required for data: 1187469200
I0925 15:40:51.473141  2958 layer_factory.hpp:77] Creating layer SoftmaxWithLoss1
I0925 15:40:51.473145  2958 net.cpp:84] Creating Layer SoftmaxWithLoss1
I0925 15:40:51.473147  2958 net.cpp:406] SoftmaxWithLoss1 <- InnerProduct1_InnerProduct1_0_split_0
I0925 15:40:51.473151  2958 net.cpp:406] SoftmaxWithLoss1 <- Data2_Data1_1_split_0
…
