…
I0925 16:46:18.421891  3079 net.cpp:294] The NetState phase (0) differed from the phase (1) specified by a rule in layer Accuracy1
I0925 16:46:18.423040  3079 net.cpp:51] Initializing net from parameters: 
name: "resnet_cifar10"
state {
  phase: TRAIN
  level: 0
  stage: ""
}
layer {
  name: "Data1"
  type: "Data"
  top: "Data1"
  top: "Data2"
  include {
    phase: TRAIN
  }
  transform_param {
    mirror: true
    crop_size: 28
    mean_file: "/home/x306/caffe/xn/PENLU/data/cifar10/mean.binaryproto"
  }
  data_param {
    source: "/home/x306/caffe/xn/PENLU/data/cifar10/cifar10_train_lmdb"
    batch_size: 100
    backend: LMDB
  }
}
layer {
  name: "Convolution1"
  type: "Convolution"
  bottom: "Data1"
  top: "Convolution1"
  param {
    lr_mult: 1
    decay_mult: 1
  }
  param {
    lr_mult: 2
    decay_mult: 0
  }
  convolution_param {
    num_output: 16
    pad: 1
    kernel_size: 3
    stride: 1
    weight_filler {
      type: "gaussian"
      std: 0.118
    }
    bias_filler {
      type: "constant"
      value: 0
    }
  }
}
layer {
  name: "BatchNorm1"
  type: "BatchNorm"
  bottom: "Convolution1"
  top: "Convolution1"
  param {
    lr_mult: 0
    decay_mult: 0
  }
  param {
    lr_mult: 0
    decay_mult: 0
  }
  param {
    lr_mult: 0
    decay_mult: 0
  }
}
layer {
  name: "Scale1"
  type: "Scale"
  bottom: "Convolution1"
  top: "Convolution1"
  scale_param {
    bias_term: true
  }
}
layer {
  name: "penlu1"
  type: "PENLU"
  bottom: "Convolution1"
  top: "Convolution1"
  param {
    lr_mult: 2
    decay_mult: 0
  }
  param {
    lr_mult: 2
    decay_mult: 0
  }
  param {
    lr_mult: 2
    decay_mult: 0
  }
  penlu_param {
    alpha_filler {
      type: "constant"
      value: 98
    }
    beta_filler {
      type: "constant"
      value: 0.01
    }
    eta_filler {
      type: "constant"
      value: 1
    }
  }
}
layer {
  name: "Convolution2"
  type: "Convolution"
  bottom: "Convolution1"
  top: "Convolution2"
  param {
    lr_mult: 1
    decay_mult: 1
  }
  param {
    lr_mult: 2
    decay_mult: 0
  }
  convolution_param {
    num_output: 16
    pad: 1
    kernel_size: 3
    stride: 1
    weight_filler {
      type: "gaussian"
      std: 0.118
    }
    bias_filler {
      type: "constant"
      value: 0
    }
  }
}
layer {
  name: "BatchNorm2"
  type: "BatchNorm"
  bottom: "Convolution2"
  top: "Convolution2"
  param {
    lr_mult: 0
    decay_mult: 0
  }
  param {
    lr_mult: 0
    decay_mult: 0
  }
  param {
    lr_mult: 0
    decay_mult: 0
  }
}
layer {
  name: "Scale2"
  type: "Scale"
  bottom: "Convolution2"
  top: "Convolution2"
  scale_param {
    bias_term: true
  }
}
layer {
  name: "penlu2"
  type: "PENLU"
  bottom: "Convolution2"
  top: "Convolution2"
  param {
    lr_mult: 2
    decay_mult: 0
  }
  param {
    lr_mult: 2
    decay_mult: 0
  }
  param {
    lr_mult: 2
    decay_mult: 0
  }
  penlu_param {
    alpha_filler {
      type: "constant"
      value: 98
    }
    beta_filler {
      type: "constant"
      value: 0.01
    }
    eta_filler {
      type: "constant"
      value: 1
    }
  }
}
layer {
  name: "Convolution3"
  type: "Convolution"
  bottom: "Convolution2"
  top: "Convolution3"
  param {
    lr_mult: 1
    decay_mult: 1
  }
  param {
    lr_mult: 2
    decay_mult: 0
  }
  convolution_param {
    num_output: 16
    pad: 1
    kernel_size: 3
    stride: 1
    weight_filler {
      type: "gaussian"
      std: 0.118
    }
    bias_filler {
      type: "constant"
      value: 0
    }
  }
}
layer {
  name: "BatchNorm3"
  type: "BatchNorm"
  bottom: "Convolution3"
  top: "Convolution3"
  param {
    lr_mult: 0
    decay_mult: 0
  }
  param {
    lr_mult: 0
    decay_mult: 0
  }
  param {
    lr_mult: 0
    decay_mult: 0
  }
}
layer {
  name: "Scale3"
  type: "Scale"
  bottom: "Convolution3"
  top: "Convolution3"
  scale_param {
    bias_term: true
  }
}
layer {
  name: "Eltwise1"
  type: "Eltwise"
  bottom: "Convolution1"
  bottom: "Convolution3"
  top: "Eltwise1"
  eltwise_param {
    operation: SUM
  }
}
layer {
  name: "penlu3"
  type: "PENLU"
  bottom: "Eltwise1"
  top: "Eltwise1"
  param {
    lr_mult: 2
    decay_mult: 0
  }
  param {
    lr_mult: 2
    decay_mult: 0
  }
  param {
    lr_mult: 2
    decay_mult: 0
  }
  penlu_param {
    alpha_filler {
      type: "constant"
      value: 98
    }
    beta_filler {
      type: "constant"
      value: 0.01
    }
    eta_filler {
      type: "constant"
      value: 1
    }
  }
}
layer {
  name: "Convolution4"
  type: "Convolution"
  bottom: "Eltwise1"
  top: "Convolution4"
  param {
    lr_mult: 1
    decay_mult: 1
  }
  param {
    lr_mult: 2
    decay_mult: 0
  }
  convolution_param {
    num_output: 16
    pad: 1
    kernel_size: 3
    stride: 1
    weight_filler {
      type: "gaussian"
      std: 0.118
    }
    bias_filler {
      type: "constant"
      value: 0
    }
  }
}
layer {
  name: "BatchNorm4"
  type: "BatchNorm"
  bottom: "Convolution4"
  top: "Convolution4"
  param {
    lr_mult: 0
    decay_mult: 0
  }
  param {
    lr_mult: 0
    decay_mult: 0
  }
  param {
    lr_mult: 0
    decay_mult: 0
  }
}
layer {
  name: "Scale4"
  type: "Scale"
  bottom: "Convolution4"
  top: "Convolution4"
  scale_param {
    bias_term: true
  }
}
layer {
  name: "penlu4"
  type: "PENLU"
  bottom: "Convolution4"
  top: "Convolution4"
  param {
    lr_mult: 2
    decay_mult: 0
  }
  param {
    lr_mult: 2
    decay_mult: 0
  }
  param {
    lr_mult: 2
    decay_mult: 0
  }
  penlu_param {
    alpha_filler {
      type: "constant"
      value: 98
    }
    beta_filler {
      type: "constant"
      value: 0.01
    }
    eta_filler {
      type: "constant"
      value: 1
    }
  }
}
layer {
  name: "Convolution5"
  type: "Convolution"
  bottom: "Convolution4"
  top: "Convolution5"
  param {
    lr_mult: 1
    decay_mult: 1
  }
  param {
    lr_mult: 2
    decay_mult: 0
  }
  convolution_param {
    num_output: 16
    pad: 1
    kernel_size: 3
    stride: 1
    weight_filler {
      type: "gaussian"
      std: 0.118
    }
    bias_filler {
      type: "constant"
      value: 0
    }
  }
}
layer {
  name: "BatchNorm5"
  type: "BatchNorm"
  bottom: "Convolution5"
  top: "Convolution5"
  param {
    lr_mult: 0
    decay_mult: 0
  }
  param {
    lr_mult: 0
    decay_mult: 0
  }
  param {
    lr_mult: 0
    decay_mult: 0
  }
}
layer {
  name: "Scale5"
  type: "Scale"
  bottom: "Convolution5"
  top: "Convolution5"
  scale_param {
    bias_term: true
  }
}
layer {
  name: "Eltwise2"
  type: "Eltwise"
  bottom: "Eltwise1"
  bottom: "Convolution5"
  top: "Eltwise2"
  eltwise_param {
    operation: SUM
  }
}
layer {
  name: "penlu5"
  type: "PENLU"
  bottom: "Eltwise2"
  top: "Eltwise2"
  param {
    lr_mult: 2
    decay_mult: 0
  }
  param {
    lr_mult: 2
    decay_mult: 0
  }
  param {
    lr_mult: 2
    decay_mult: 0
  }
  penlu_param {
    alpha_filler {
      type: "constant"
      value: 98
    }
    beta_filler {
      type: "constant"
      value: 0.01
    }
    eta_filler {
      type: "constant"
      value: 1
    }
  }
}
layer {
  name: "Convolution6"
  type: "Convolution"
  bottom: "Eltwise2"
  top: "Convolution6"
  param {
    lr_mult: 1
    decay_mult: 1
  }
  param {
    lr_mult: 2
    decay_mult: 0
  }
  convolution_param {
    num_output: 16
    pad: 1
    kernel_size: 3
    stride: 1
    weight_filler {
      type: "gaussian"
      std: 0.118
    }
    bias_filler {
      type: "constant"
      value: 0
    }
  }
}
layer {
  name: "BatchNorm6"
  type: "BatchNorm"
  bottom: "Convolution6"
  top: "Convolution6"
  param {
    lr_mult: 0
    decay_mult: 0
  }
  param {
    lr_mult: 0
    decay_mult: 0
  }
  param {
    lr_mult: 0
    decay_mult: 0
  }
}
layer {
  name: "Scale6"
  type: "Scale"
  bottom: "Convolution6"
  top: "Convolution6"
  scale_param {
    bias_term: true
  }
}
layer {
  name: "penlu6"
  type: "PENLU"
  bottom: "Convolution6"
  top: "Convolution6"
  param {
    lr_mult: 2
    decay_mult: 0
  }
  param {
    lr_mult: 2
    decay_mult: 0
  }
  param {
    lr_mult: 2
    decay_mult: 0
  }
  penlu_param {
    alpha_filler {
      type: "constant"
      value: 98
    }
    beta_filler {
      type: "constant"
      value: 0.01
    }
    eta_filler {
      type: "constant"
      value: 1
    }
  }
}
layer {
  name: "Convolution7"
  type: "Convolution"
  bottom: "Convolution6"
  top: "Convolution7"
  param {
    lr_mult: 1
    decay_mult: 1
  }
  param {
    lr_mult: 2
    decay_mult: 0
  }
  convolution_param {
    num_output: 16
    pad: 1
    kernel_size: 3
    stride: 1
    weight_filler {
      type: "gaussian"
      std: 0.118
    }
    bias_filler {
      type: "constant"
      value: 0
    }
  }
}
layer {
  name: "BatchNorm7"
  type: "BatchNorm"
  bottom: "Convolution7"
  top: "Convolution7"
  param {
    lr_mult: 0
    decay_mult: 0
  }
  param {
    lr_mult: 0
    decay_mult: 0
  }
  param {
    lr_mult: 0
    decay_mult: 0
  }
}
layer {
  name: "Scale7"
  type: "Scale"
  bottom: "Convolution7"
  top: "Convolution7"
  scale_param {
    bias_term: true
  }
}
layer {
  name: "Eltwise3"
  type: "Eltwise"
  bottom: "Eltwise2"
  bottom: "Convolution7"
  top: "Eltwise3"
  eltwise_param {
    operation: SUM
  }
}
layer {
  name: "penlu7"
  type: "PENLU"
  bottom: "Eltwise3"
  top: "Eltwise3"
  param {
    lr_mult: 2
    decay_mult: 0
  }
  param {
    lr_mult: 2
    decay_mult: 0
  }
  param {
    lr_mult: 2
    decay_mult: 0
  }
  penlu_param {
    alpha_filler {
      type: "constant"
      value: 98
    }
    beta_filler {
      type: "constant"
      value: 0.01
    }
    eta_filler {
      type: "constant"
      value: 1
    }
  }
}
layer {
  name: "Convolution8"
  type: "Convolution"
  bottom: "Eltwise3"
  top: "Convolution8"
  param {
    lr_mult: 1
    decay_mult: 1
  }
  param {
    lr_mult: 2
    decay_mult: 0
  }
  convolution_param {
    num_output: 16
    pad: 1
    kernel_size: 3
    stride: 1
    weight_filler {
      type: "gaussian"
      std: 0.118
    }
    bias_filler {
      type: "constant"
      value: 0
    }
  }
}
layer {
  name: "BatchNorm8"
  type: "BatchNorm"
  bottom: "Convolution8"
  top: "Convolution8"
  param {
    lr_mult: 0
    decay_mult: 0
  }
  param {
    lr_mult: 0
    decay_mult: 0
  }
  param {
    lr_mult: 0
    decay_mult: 0
  }
}
layer {
  name: "Scale8"
  type: "Scale"
  bottom: "Convolution8"
  top: "Convolution8"
  scale_param {
    bias_term: true
  }
}
layer {
  name: "penlu8"
  type: "PENLU"
  bottom: "Convolution8"
  top: "Convolution8"
  param {
    lr_mult: 2
    decay_mult: 0
  }
  param {
    lr_mult: 2
    decay_mult: 0
  }
  param {
    lr_mult: 2
    decay_mult: 0
  }
  penlu_param {
    alpha_filler {
      type: "constant"
      value: 98
    }
    beta_filler {
      type: "constant"
      value: 0.01
    }
    eta_filler {
      type: "constant"
      value: 1
    }
  }
}
layer {
  name: "Convolution9"
  type: "Convolution"
  bottom: "Convolution8"
  top: "Convolution9"
  param {
    lr_mult: 1
    decay_mult: 1
  }
  param {
    lr_mult: 2
    decay_mult: 0
  }
  convolution_param {
    num_output: 16
    pad: 1
    kernel_size: 3
    stride: 1
    weight_filler {
      type: "gaussian"
      std: 0.118
    }
    bias_filler {
      type: "constant"
      value: 0
    }
  }
}
layer {
  name: "BatchNorm9"
  type: "BatchNorm"
  bottom: "Convolution9"
  top: "Convolution9"
  param {
    lr_mult: 0
    decay_mult: 0
  }
  param {
    lr_mult: 0
    decay_mult: 0
  }
  param {
    lr_mult: 0
    decay_mult: 0
  }
}
layer {
  name: "Scale9"
  type: "Scale"
  bottom: "Convolution9"
  top: "Convolution9"
  scale_param {
    bias_term: true
  }
}
layer {
  name: "Eltwise4"
  type: "Eltwise"
  bottom: "Eltwise3"
  bottom: "Convolution9"
  top: "Eltwise4"
  eltwise_param {
    operation: SUM
  }
}
layer {
  name: "penlu9"
  type: "PENLU"
  bottom: "Eltwise4"
  top: "Eltwise4"
  param {
    lr_mult: 2
    decay_mult: 0
  }
  param {
    lr_mult: 2
    decay_mult: 0
  }
  param {
    lr_mult: 2
    decay_mult: 0
  }
  penlu_param {
    alpha_filler {
      type: "constant"
      value: 98
    }
    beta_filler {
      type: "constant"
      value: 0.01
    }
    eta_filler {
      type: "constant"
      value: 1
    }
  }
}
layer {
  name: "Convolution10"
  type: "Convolution"
  bottom: "Eltwise4"
  top: "Convolution10"
  param {
    lr_mult: 1
    decay_mult: 1
  }
  param {
    lr_mult: 2
    decay_mult: 0
  }
  convolution_param {
    num_output: 16
    pad: 1
    kernel_size: 3
    stride: 1
    weight_filler {
      type: "gaussian"
      std: 0.118
    }
    bias_filler {
      type: "constant"
      value: 0
    }
  }
}
layer {
  name: "BatchNorm10"
  type: "BatchNorm"
  bottom: "Convolution10"
  top: "Convolution10"
  param {
    lr_mult: 0
    decay_mult: 0
  }
  param {
    lr_mult: 0
    decay_mult: 0
  }
  param {
    lr_mult: 0
    decay_mult: 0
  }
}
layer {
  name: "Scale10"
  type: "Scale"
  bottom: "Convolution10"
  top: "Convolution10"
  scale_param {
    bias_term: true
  }
}
layer {
  name: "penlu10"
  type: "PENLU"
  bottom: "Convolution10"
  top: "Convolution10"
  param {
    lr_mult: 2
    decay_mult: 0
  }
  param {
    lr_mult: 2
    decay_mult: 0
  }
  param {
    lr_mult: 2
    decay_mult: 0
  }
  penlu_param {
    alpha_filler {
      type: "constant"
      value: 98
    }
    beta_filler {
      type: "constant"
      value: 0.01
    }
    eta_filler {
      type: "constant"
      value: 1
    }
  }
}
layer {
  name: "Convolution11"
  type: "Convolution"
  bottom: "Convolution10"
  top: "Convolution11"
  param {
    lr_mult: 1
    decay_mult: 1
  }
  param {
    lr_mult: 2
    decay_mult: 0
  }
  convolution_param {
    num_output: 16
    pad: 1
    kernel_size: 3
    stride: 1
    weight_filler {
      type: "gaussian"
      std: 0.118
    }
    bias_filler {
      type: "constant"
      value: 0
    }
  }
}
layer {
  name: "BatchNorm11"
  type: "BatchNorm"
  bottom: "Convolution11"
  top: "Convolution11"
  param {
    lr_mult: 0
    decay_mult: 0
  }
  param {
    lr_mult: 0
    decay_mult: 0
  }
  param {
    lr_mult: 0
    decay_mult: 0
  }
}
layer {
  name: "Scale11"
  type: "Scale"
  bottom: "Convolution11"
  top: "Convolution11"
  scale_param {
    bias_term: true
  }
}
layer {
  name: "Eltwise5"
  type: "Eltwise"
  bottom: "Eltwise4"
  bottom: "Convolution11"
  top: "Eltwise5"
  eltwise_param {
    operation: SUM
  }
}
layer {
  name: "penlu11"
  type: "PENLU"
  bottom: "Eltwise5"
  top: "Eltwise5"
  param {
    lr_mult: 2
    decay_mult: 0
  }
  param {
    lr_mult: 2
    decay_mult: 0
  }
  param {
    lr_mult: 2
    decay_mult: 0
  }
  penlu_param {
    alpha_filler {
      type: "constant"
      value: 98
    }
    beta_filler {
      type: "constant"
      value: 0.01
    }
    eta_filler {
      type: "constant"
      value: 1
    }
  }
}
layer {
  name: "Convolution12"
  type: "Convolution"
  bottom: "Eltwise5"
  top: "Convolution12"
  param {
    lr_mult: 1
    decay_mult: 1
  }
  param {
    lr_mult: 2
    decay_mult: 0
  }
  convolution_param {
    num_output: 16
    pad: 1
    kernel_size: 3
    stride: 1
    weight_filler {
      type: "gaussian"
      std: 0.118
    }
    bias_filler {
      type: "constant"
      value: 0
    }
  }
}
layer {
  name: "BatchNorm12"
  type: "BatchNorm"
  bottom: "Convolution12"
  top: "Convolution12"
  param {
    lr_mult: 0
    decay_mult: 0
  }
  param {
    lr_mult: 0
    decay_mult: 0
  }
  param {
    lr_mult: 0
    decay_mult: 0
  }
}
layer {
  name: "Scale12"
  type: "Scale"
  bottom: "Convolution12"
  top: "Convolution12"
  scale_param {
    bias_term: true
  }
}
layer {
  name: "penlu12"
  type: "PENLU"
  bottom: "Convolution12"
  top: "Convolution12"
  param {
    lr_mult: 2
    decay_mult: 0
  }
  param {
    lr_mult: 2
    decay_mult: 0
  }
  param {
    lr_mult: 2
    decay_mult: 0
  }
  penlu_param {
    alpha_filler {
      type: "constant"
      value: 98
    }
    beta_filler {
      type: "constant"
      value: 0.01
    }
    eta_filler {
      type: "constant"
      value: 1
    }
  }
}
layer {
  name: "Convolution13"
  type: "Convolution"
  bottom: "Convolution12"
  top: "Convolution13"
  param {
    lr_mult: 1
    decay_mult: 1
  }
  param {
    lr_mult: 2
    decay_mult: 0
  }
  convolution_param {
    num_output: 16
    pad: 1
    kernel_size: 3
    stride: 1
    weight_filler {
      type: "gaussian"
      std: 0.118
    }
    bias_filler {
      type: "constant"
      value: 0
    }
  }
}
layer {
  name: "BatchNorm13"
  type: "BatchNorm"
  bottom: "Convolution13"
  top: "Convolution13"
  param {
    lr_mult: 0
    decay_mult: 0
  }
  param {
    lr_mult: 0
    decay_mult: 0
  }
  param {
    lr_mult: 0
    decay_mult: 0
  }
}
layer {
  name: "Scale13"
  type: "Scale"
  bottom: "Convolution13"
  top: "Convolution13"
  scale_param {
    bias_term: true
  }
}
layer {
  name: "Eltwise6"
  type: "Eltwise"
  bottom: "Eltwise5"
  bottom: "Convolution13"
  top: "Eltwise6"
  eltwise_param {
    operation: SUM
  }
}
layer {
  name: "penlu13"
  type: "PENLU"
  bottom: "Eltwise6"
  top: "Eltwise6"
  param {
    lr_mult: 2
    decay_mult: 0
  }
  param {
    lr_mult: 2
    decay_mult: 0
  }
  param {
    lr_mult: 2
    decay_mult: 0
  }
  penlu_param {
    alpha_filler {
      type: "constant"
      value: 98
    }
    beta_filler {
      type: "constant"
      value: 0.01
    }
    eta_filler {
      type: "constant"
      value: 1
    }
  }
}
layer {
  name: "Convolution14"
  type: "Convolution"
  bottom: "Eltwise6"
  top: "Convolution14"
  param {
    lr_mult: 1
    decay_mult: 1
  }
  param {
    lr_mult: 2
    decay_mult: 0
  }
  convolution_param {
    num_output: 16
    pad: 1
    kernel_size: 3
    stride: 1
    weight_filler {
      type: "gaussian"
      std: 0.118
    }
    bias_filler {
      type: "constant"
      value: 0
    }
  }
}
layer {
  name: "BatchNorm14"
  type: "BatchNorm"
  bottom: "Convolution14"
  top: "Convolution14"
  param {
    lr_mult: 0
    decay_mult: 0
  }
  param {
    lr_mult: 0
    decay_mult: 0
  }
  param {
    lr_mult: 0
    decay_mult: 0
  }
}
layer {
  name: "Scale14"
  type: "Scale"
  bottom: "Convolution14"
  top: "Convolution14"
  scale_param {
    bias_term: true
  }
}
layer {
  name: "penlu14"
  type: "PENLU"
  bottom: "Convolution14"
  top: "Convolution14"
  param {
    lr_mult: 2
    decay_mult: 0
  }
  param {
    lr_mult: 2
    decay_mult: 0
  }
  param {
    lr_mult: 2
    decay_mult: 0
  }
  penlu_param {
    alpha_filler {
      type: "constant"
      value: 98
    }
    beta_filler {
      type: "constant"
      value: 0.01
    }
    eta_filler {
      type: "constant"
      value: 1
    }
  }
}
layer {
  name: "Convolution15"
  type: "Convolution"
  bottom: "Convolution14"
  top: "Convolution15"
  param {
    lr_mult: 1
    decay_mult: 1
  }
  param {
    lr_mult: 2
    decay_mult: 0
  }
  convolution_param {
    num_output: 16
    pad: 1
    kernel_size: 3
    stride: 1
    weight_filler {
      type: "gaussian"
      std: 0.118
    }
    bias_filler {
      type: "constant"
      value: 0
    }
  }
}
layer {
  name: "BatchNorm15"
  type: "BatchNorm"
  bottom: "Convolution15"
  top: "Convolution15"
  param {
    lr_mult: 0
    decay_mult: 0
  }
  param {
    lr_mult: 0
    decay_mult: 0
  }
  param {
    lr_mult: 0
    decay_mult: 0
  }
}
layer {
  name: "Scale15"
  type: "Scale"
  bottom: "Convolution15"
  top: "Convolution15"
  scale_param {
    bias_term: true
  }
}
layer {
  name: "Eltwise7"
  type: "Eltwise"
  bottom: "Eltwise6"
  bottom: "Convolution15"
  top: "Eltwise7"
  eltwise_param {
    operation: SUM
  }
}
layer {
  name: "penlu15"
  type: "PENLU"
  bottom: "Eltwise7"
  top: "Eltwise7"
  param {
    lr_mult: 2
    decay_mult: 0
  }
  param {
    lr_mult: 2
    decay_mult: 0
  }
  param {
    lr_mult: 2
    decay_mult: 0
  }
  penlu_param {
    alpha_filler {
      type: "constant"
      value: 98
    }
    beta_filler {
      type: "constant"
      value: 0.01
    }
    eta_filler {
      type: "constant"
      value: 1
    }
  }
}
layer {
  name: "Convolution16"
  type: "Convolution"
  bottom: "Eltwise7"
  top: "Convolution16"
  param {
    lr_mult: 1
    decay_mult: 1
  }
  param {
    lr_mult: 2
    decay_mult: 0
  }
  convolution_param {
    num_output: 16
    pad: 1
    kernel_size: 3
    stride: 1
    weight_filler {
      type: "gaussian"
      std: 0.118
    }
    bias_filler {
      type: "constant"
      value: 0
    }
  }
}
layer {
  name: "BatchNorm16"
  type: "BatchNorm"
  bottom: "Convolution16"
  top: "Convolution16"
  param {
    lr_mult: 0
    decay_mult: 0
  }
  param {
    lr_mult: 0
    decay_mult: 0
  }
  param {
    lr_mult: 0
    decay_mult: 0
  }
}
layer {
  name: "Scale16"
  type: "Scale"
  bottom: "Convolution16"
  top: "Convolution16"
  scale_param {
    bias_term: true
  }
}
layer {
  name: "penlu16"
  type: "PENLU"
  bottom: "Convolution16"
  top: "Convolution16"
  param {
    lr_mult: 2
    decay_mult: 0
  }
  param {
    lr_mult: 2
    decay_mult: 0
  }
  param {
    lr_mult: 2
    decay_mult: 0
  }
  penlu_param {
    alpha_filler {
      type: "constant"
      value: 98
    }
    beta_filler {
      type: "constant"
      value: 0.01
    }
    eta_filler {
      type: "constant"
      value: 1
    }
  }
}
layer {
  name: "Convolution17"
  type: "Convolution"
  bottom: "Convolution16"
  top: "Convolution17"
  param {
    lr_mult: 1
    decay_mult: 1
  }
  param {
    lr_mult: 2
    decay_mult: 0
  }
  convolution_param {
    num_output: 16
    pad: 1
    kernel_size: 3
    stride: 1
    weight_filler {
      type: "gaussian"
      std: 0.118
    }
    bias_filler {
      type: "constant"
      value: 0
    }
  }
}
layer {
  name: "BatchNorm17"
  type: "BatchNorm"
  bottom: "Convolution17"
  top: "Convolution17"
  param {
    lr_mult: 0
    decay_mult: 0
  }
  param {
    lr_mult: 0
    decay_mult: 0
  }
  param {
    lr_mult: 0
    decay_mult: 0
  }
}
layer {
  name: "Scale17"
  type: "Scale"
  bottom: "Convolution17"
  top: "Convolution17"
  scale_param {
    bias_term: true
  }
}
layer {
  name: "Eltwise8"
  type: "Eltwise"
  bottom: "Eltwise7"
  bottom: "Convolution17"
  top: "Eltwise8"
  eltwise_param {
    operation: SUM
  }
}
layer {
  name: "penlu17"
  type: "PENLU"
  bottom: "Eltwise8"
  top: "Eltwise8"
  param {
    lr_mult: 2
    decay_mult: 0
  }
  param {
    lr_mult: 2
    decay_mult: 0
  }
  param {
    lr_mult: 2
    decay_mult: 0
  }
  penlu_param {
    alpha_filler {
      type: "constant"
      value: 98
    }
    beta_filler {
      type: "constant"
      value: 0.01
    }
    eta_filler {
      type: "constant"
      value: 1
    }
  }
}
layer {
  name: "Convolution18"
  type: "Convolution"
  bottom: "Eltwise8"
  top: "Convolution18"
  param {
    lr_mult: 1
    decay_mult: 1
  }
  param {
    lr_mult: 2
    decay_mult: 0
  }
  convolution_param {
    num_output: 16
    pad: 1
    kernel_size: 3
    stride: 1
    weight_filler {
      type: "gaussian"
      std: 0.118
    }
    bias_filler {
      type: "constant"
      value: 0
    }
  }
}
layer {
  name: "BatchNorm18"
  type: "BatchNorm"
  bottom: "Convolution18"
  top: "Convolution18"
  param {
    lr_mult: 0
    decay_mult: 0
  }
  param {
    lr_mult: 0
    decay_mult: 0
  }
  param {
    lr_mult: 0
    decay_mult: 0
  }
}
layer {
  name: "Scale18"
  type: "Scale"
  bottom: "Convolution18"
  top: "Convolution18"
  scale_param {
    bias_term: true
  }
}
layer {
  name: "penlu18"
  type: "PENLU"
  bottom: "Convolution18"
  top: "Convolution18"
  param {
    lr_mult: 2
    decay_mult: 0
  }
  param {
    lr_mult: 2
    decay_mult: 0
  }
  param {
    lr_mult: 2
    decay_mult: 0
  }
  penlu_param {
    alpha_filler {
      type: "constant"
      value: 98
    }
    beta_filler {
      type: "constant"
      value: 0.01
    }
    eta_filler {
      type: "constant"
      value: 1
    }
  }
}
layer {
  name: "Convolution19"
  type: "Convolution"
  bottom: "Convolution18"
  top: "Convolution19"
  param {
    lr_mult: 1
    decay_mult: 1
  }
  param {
    lr_mult: 2
    decay_mult: 0
  }
  convolution_param {
    num_output: 16
    pad: 1
    kernel_size: 3
    stride: 1
    weight_filler {
      type: "gaussian"
      std: 0.118
    }
    bias_filler {
      type: "constant"
      value: 0
    }
  }
}
layer {
  name: "BatchNorm19"
  type: "BatchNorm"
  bottom: "Convolution19"
  top: "Convolution19"
  param {
    lr_mult: 0
    decay_mult: 0
  }
  param {
    lr_mult: 0
    decay_mult: 0
  }
  param {
    lr_mult: 0
    decay_mult: 0
  }
}
layer {
  name: "Scale19"
  type: "Scale"
  bottom: "Convolution19"
  top: "Convolution19"
  scale_param {
    bias_term: true
  }
}
layer {
  name: "Eltwise9"
  type: "Eltwise"
  bottom: "Eltwise8"
  bottom: "Convolution19"
  top: "Eltwise9"
  eltwise_param {
    operation: SUM
  }
}
layer {
  name: "penlu19"
  type: "PENLU"
  bottom: "Eltwise9"
  top: "Eltwise9"
  param {
    lr_mult: 2
    decay_mult: 0
  }
  param {
    lr_mult: 2
    decay_mult: 0
  }
  param {
    lr_mult: 2
    decay_mult: 0
  }
  penlu_param {
    alpha_filler {
      type: "constant"
      value: 98
    }
    beta_filler {
      type: "constant"
      value: 0.01
    }
    eta_filler {
      type: "constant"
      value: 1
    }
  }
}
layer {
  name: "Convolution20"
  type: "Convolution"
  bottom: "Eltwise9"
  top: "Convolution20"
  param {
    lr_mult: 1
    decay_mult: 1
  }
  param {
    lr_mult: 2
    decay_mult: 0
  }
  convolution_param {
    num_output: 32
    pad: 0
    kernel_size: 1
    stride: 2
    weight_filler {
      type: "gaussian"
      std: 0.25
    }
    bias_filler {
      type: "constant"
      value: 0
    }
  }
}
layer {
  name: "BatchNorm20"
  type: "BatchNorm"
  bottom: "Convolution20"
  top: "Convolution20"
  param {
    lr_mult: 0
    decay_mult: 0
  }
  param {
    lr_mult: 0
    decay_mult: 0
  }
  param {
    lr_mult: 0
    decay_mult: 0
  }
}
layer {
  name: "Scale20"
  type: "Scale"
  bottom: "Convolution20"
  top: "Convolution20"
  scale_param {
    bias_term: true
  }
}
layer {
  name: "Convolution21"
  type: "Convolution"
  bottom: "Eltwise9"
  top: "Convolution21"
  param {
    lr_mult: 1
    decay_mult: 1
  }
  param {
    lr_mult: 2
    decay_mult: 0
  }
  convolution_param {
    num_output: 32
    pad: 1
    kernel_size: 3
    stride: 2
    weight_filler {
      type: "gaussian"
      std: 0.083
    }
    bias_filler {
      type: "constant"
      value: 0
    }
  }
}
layer {
  name: "BatchNorm21"
  type: "BatchNorm"
  bottom: "Convolution21"
  top: "Convolution21"
  param {
    lr_mult: 0
    decay_mult: 0
  }
  param {
    lr_mult: 0
    decay_mult: 0
  }
  param {
    lr_mult: 0
    decay_mult: 0
  }
}
layer {
  name: "Scale21"
  type: "Scale"
  bottom: "Convolution21"
  top: "Convolution21"
  scale_param {
    bias_term: true
  }
}
layer {
  name: "penlu20"
  type: "PENLU"
  bottom: "Convolution21"
  top: "Convolution21"
  param {
    lr_mult: 2
    decay_mult: 0
  }
  param {
    lr_mult: 2
    decay_mult: 0
  }
  param {
    lr_mult: 2
    decay_mult: 0
  }
  penlu_param {
    alpha_filler {
      type: "constant"
      value: 98
    }
    beta_filler {
      type: "constant"
      value: 0.01
    }
    eta_filler {
      type: "constant"
      value: 1
    }
  }
}
layer {
  name: "Convolution22"
  type: "Convolution"
  bottom: "Convolution21"
  top: "Convolution22"
  param {
    lr_mult: 1
    decay_mult: 1
  }
  param {
    lr_mult: 2
    decay_mult: 0
  }
  convolution_param {
    num_output: 32
    pad: 1
    kernel_size: 3
    stride: 1
    weight_filler {
      type: "gaussian"
      std: 0.083
    }
    bias_filler {
      type: "constant"
      value: 0
    }
  }
}
layer {
  name: "BatchNorm22"
  type: "BatchNorm"
  bottom: "Convolution22"
  top: "Convolution22"
  param {
    lr_mult: 0
    decay_mult: 0
  }
  param {
    lr_mult: 0
    decay_mult: 0
  }
  param {
    lr_mult: 0
    decay_mult: 0
  }
}
layer {
  name: "Scale22"
  type: "Scale"
  bottom: "Convolution22"
  top: "Convolution22"
  scale_param {
    bias_term: true
  }
}
layer {
  name: "Eltwise10"
  type: "Eltwise"
  bottom: "Convolution20"
  bottom: "Convolution22"
  top: "Eltwise10"
  eltwise_param {
    operation: SUM
  }
}
layer {
  name: "penlu21"
  type: "PENLU"
  bottom: "Eltwise10"
  top: "Eltwise10"
  param {
    lr_mult: 2
    decay_mult: 0
  }
  param {
    lr_mult: 2
    decay_mult: 0
  }
  param {
    lr_mult: 2
    decay_mult: 0
  }
  penlu_param {
    alpha_filler {
      type: "constant"
      value: 98
    }
    beta_filler {
      type: "constant"
      value: 0.01
    }
    eta_filler {
      type: "constant"
      value: 1
    }
  }
}
layer {
  name: "Convolution23"
  type: "Convolution"
  bottom: "Eltwise10"
  top: "Convolution23"
  param {
    lr_mult: 1
    decay_mult: 1
  }
  param {
    lr_mult: 2
    decay_mult: 0
  }
  convolution_param {
    num_output: 32
    pad: 1
    kernel_size: 3
    stride: 1
    weight_filler {
      type: "gaussian"
      std: 0.083
    }
    bias_filler {
      type: "constant"
      value: 0
    }
  }
}
layer {
  name: "BatchNorm23"
  type: "BatchNorm"
  bottom: "Convolution23"
  top: "Convolution23"
  param {
    lr_mult: 0
    decay_mult: 0
  }
  param {
    lr_mult: 0
    decay_mult: 0
  }
  param {
    lr_mult: 0
    decay_mult: 0
  }
}
layer {
  name: "Scale23"
  type: "Scale"
  bottom: "Convolution23"
  top: "Convolution23"
  scale_param {
    bias_term: true
  }
}
layer {
  name: "penlu22"
  type: "PENLU"
  bottom: "Convolution23"
  top: "Convolution23"
  param {
    lr_mult: 2
    decay_mult: 0
  }
  param {
    lr_mult: 2
    decay_mult: 0
  }
  param {
    lr_mult: 2
    decay_mult: 0
  }
  penlu_param {
    alpha_filler {
      type: "constant"
      value: 98
    }
    beta_filler {
      type: "constant"
      value: 0.01
    }
    eta_filler {
      type: "constant"
      value: 1
    }
  }
}
layer {
  name: "Convolution24"
  type: "Convolution"
  bottom: "Convolution23"
  top: "Convolution24"
  param {
    lr_mult: 1
    decay_mult: 1
  }
  param {
    lr_mult: 2
    decay_mult: 0
  }
  convolution_param {
    num_output: 32
    pad:
I0925 16:46:18.424129  3079 layer_factory.hpp:77] Creating layer Data1
I0925 16:46:18.424211  3079 db_lmdb.cpp:35] Opened lmdb /home/x306/caffe/xn/PENLU/data/cifar10/cifar10_train_lmdb
I0925 16:46:18.424230  3079 net.cpp:84] Creating Layer Data1
I0925 16:46:18.424235  3079 net.cpp:380] Data1 -> Data1
I0925 16:46:18.424253  3079 net.cpp:380] Data1 -> Data2
I0925 16:46:18.424265  3079 data_transformer.cpp:25] Loading mean file from: /home/x306/caffe/xn/PENLU/data/cifar10/mean.binaryproto
I0925 16:46:18.425688  3079 data_layer.cpp:45] output data size: 100,3,28,28
I0925 16:46:18.427918  3079 net.cpp:122] Setting up Data1
I0925 16:46:18.427932  3079 net.cpp:129] Top shape: 100 3 28 28 (235200)
I0925 16:46:18.427935  3079 net.cpp:129] Top shape: 100 (100)
I0925 16:46:18.427938  3079 net.cpp:137] Memory required for data: 941200
I0925 16:46:18.427943  3079 layer_factory.hpp:77] Creating layer Convolution1
I0925 16:46:18.427961  3079 net.cpp:84] Creating Layer Convolution1
I0925 16:46:18.427964  3079 net.cpp:406] Convolution1 <- Data1
I0925 16:46:18.427973  3079 net.cpp:380] Convolution1 -> Convolution1
I0925 16:46:18.573794  3079 net.cpp:122] Setting up Convolution1
I0925 16:46:18.573817  3079 net.cpp:129] Top shape: 100 16 28 28 (1254400)
I0925 16:46:18.573820  3079 net.cpp:137] Memory required for data: 5958800
I0925 16:46:18.573833  3079 layer_factory.hpp:77] Creating layer BatchNorm1
I0925 16:46:18.573854  3079 net.cpp:84] Creating Layer BatchNorm1
I0925 16:46:18.573858  3079 net.cpp:406] BatchNorm1 <- Convolution1
I0925 16:46:18.573901  3079 net.cpp:367] BatchNorm1 -> Convolution1 (in-place)
I0925 16:46:18.574087  3079 net.cpp:122] Setting up BatchNorm1
I0925 16:46:18.574093  3079 net.cpp:129] Top shape: 100 16 28 28 (1254400)
I0925 16:46:18.574095  3079 net.cpp:137] Memory required for data: 10976400
I0925 16:46:18.574102  3079 layer_factory.hpp:77] Creating layer Scale1
I0925 16:46:18.574111  3079 net.cpp:84] Creating Layer Scale1
I0925 16:46:18.574124  3079 net.cpp:406] Scale1 <- Convolution1
I0925 16:46:18.574129  3079 net.cpp:367] Scale1 -> Convolution1 (in-place)
I0925 16:46:18.574199  3079 layer_factory.hpp:77] Creating layer Scale1
I0925 16:46:18.574303  3079 net.cpp:122] Setting up Scale1
I0925 16:46:18.574309  3079 net.cpp:129] Top shape: 100 16 28 28 (1254400)
I0925 16:46:18.574311  3079 net.cpp:137] Memory required for data: 15994000
I0925 16:46:18.574316  3079 layer_factory.hpp:77] Creating layer penlu1
I0925 16:46:18.574326  3079 net.cpp:84] Creating Layer penlu1
I0925 16:46:18.574331  3079 net.cpp:406] penlu1 <- Convolution1
I0925 16:46:18.574347  3079 net.cpp:367] penlu1 -> Convolution1 (in-place)
I0925 16:46:18.574991  3079 net.cpp:122] Setting up penlu1
I0925 16:46:18.575001  3079 net.cpp:129] Top shape: 100 16 28 28 (1254400)
I0925 16:46:18.575003  3079 net.cpp:137] Memory required for data: 21011600
I0925 16:46:18.575011  3079 layer_factory.hpp:77] Creating layer Convolution1_penlu1_0_split
I0925 16:46:18.575016  3079 net.cpp:84] Creating Layer Convolution1_penlu1_0_split
I0925 16:46:18.575018  3079 net.cpp:406] Convolution1_penlu1_0_split <- Convolution1
I0925 16:46:18.575034  3079 net.cpp:380] Convolution1_penlu1_0_split -> Convolution1_penlu1_0_split_0
I0925 16:46:18.575043  3079 net.cpp:380] Convolution1_penlu1_0_split -> Convolution1_penlu1_0_split_1
I0925 16:46:18.575083  3079 net.cpp:122] Setting up Convolution1_penlu1_0_split
I0925 16:46:18.575088  3079 net.cpp:129] Top shape: 100 16 28 28 (1254400)
I0925 16:46:18.575093  3079 net.cpp:129] Top shape: 100 16 28 28 (1254400)
I0925 16:46:18.575094  3079 net.cpp:137] Memory required for data: 31046800
I0925 16:46:18.575096  3079 layer_factory.hpp:77] Creating layer Convolution2
I0925 16:46:18.575103  3079 net.cpp:84] Creating Layer Convolution2
I0925 16:46:18.575106  3079 net.cpp:406] Convolution2 <- Convolution1_penlu1_0_split_0
I0925 16:46:18.575124  3079 net.cpp:380] Convolution2 -> Convolution2
I0925 16:46:18.575999  3079 net.cpp:122] Setting up Convolution2
I0925 16:46:18.576009  3079 net.cpp:129] Top shape: 100 16 28 28 (1254400)
I0925 16:46:18.576011  3079 net.cpp:137] Memory required for data: 36064400
I0925 16:46:18.576015  3079 layer_factory.hpp:77] Creating layer BatchNorm2
I0925 16:46:18.576020  3079 net.cpp:84] Creating Layer BatchNorm2
I0925 16:46:18.576023  3079 net.cpp:406] BatchNorm2 <- Convolution2
I0925 16:46:18.576030  3079 net.cpp:367] BatchNorm2 -> Convolution2 (in-place)
I0925 16:46:18.576174  3079 net.cpp:122] Setting up BatchNorm2
I0925 16:46:18.576179  3079 net.cpp:129] Top shape: 100 16 28 28 (1254400)
I0925 16:46:18.576181  3079 net.cpp:137] Memory required for data: 41082000
I0925 16:46:18.576186  3079 layer_factory.hpp:77] Creating layer Scale2
I0925 16:46:18.576191  3079 net.cpp:84] Creating Layer Scale2
I0925 16:46:18.576194  3079 net.cpp:406] Scale2 <- Convolution2
I0925 16:46:18.576200  3079 net.cpp:367] Scale2 -> Convolution2 (in-place)
I0925 16:46:18.576246  3079 layer_factory.hpp:77] Creating layer Scale2
I0925 16:46:18.576364  3079 net.cpp:122] Setting up Scale2
I0925 16:46:18.576369  3079 net.cpp:129] Top shape: 100 16 28 28 (1254400)
I0925 16:46:18.576370  3079 net.cpp:137] Memory required for data: 46099600
I0925 16:46:18.576377  3079 layer_factory.hpp:77] Creating layer penlu2
I0925 16:46:18.576382  3079 net.cpp:84] Creating Layer penlu2
I0925 16:46:18.576385  3079 net.cpp:406] penlu2 <- Convolution2
I0925 16:46:18.576402  3079 net.cpp:367] penlu2 -> Convolution2 (in-place)
I0925 16:46:18.576521  3079 net.cpp:122] Setting up penlu2
I0925 16:46:18.576527  3079 net.cpp:129] Top shape: 100 16 28 28 (1254400)
I0925 16:46:18.576536  3079 net.cpp:137] Memory required for data: 51117200
I0925 16:46:18.576544  3079 layer_factory.hpp:77] Creating layer Convolution3
I0925 16:46:18.576552  3079 net.cpp:84] Creating Layer Convolution3
I0925 16:46:18.576556  3079 net.cpp:406] Convolution3 <- Convolution2
I0925 16:46:18.576560  3079 net.cpp:380] Convolution3 -> Convolution3
I0925 16:46:18.577430  3079 net.cpp:122] Setting up Convolution3
I0925 16:46:18.577438  3079 net.cpp:129] Top shape: 100 16 28 28 (1254400)
I0925 16:46:18.577441  3079 net.cpp:137] Memory required for data: 56134800
I0925 16:46:18.577445  3079 layer_factory.hpp:77] Creating layer BatchNorm3
I0925 16:46:18.577451  3079 net.cpp:84] Creating Layer BatchNorm3
I0925 16:46:18.577455  3079 net.cpp:406] BatchNorm3 <- Convolution3
I0925 16:46:18.577461  3079 net.cpp:367] BatchNorm3 -> Convolution3 (in-place)
I0925 16:46:18.577582  3079 net.cpp:122] Setting up BatchNorm3
I0925 16:46:18.577587  3079 net.cpp:129] Top shape: 100 16 28 28 (1254400)
I0925 16:46:18.577589  3079 net.cpp:137] Memory required for data: 61152400
I0925 16:46:18.577594  3079 layer_factory.hpp:77] Creating layer Scale3
I0925 16:46:18.577599  3079 net.cpp:84] Creating Layer Scale3
I0925 16:46:18.577600  3079 net.cpp:406] Scale3 <- Convolution3
I0925 16:46:18.577605  3079 net.cpp:367] Scale3 -> Convolution3 (in-place)
I0925 16:46:18.577632  3079 layer_factory.hpp:77] Creating layer Scale3
I0925 16:46:18.577708  3079 net.cpp:122] Setting up Scale3
I0925 16:46:18.577714  3079 net.cpp:129] Top shape: 100 16 28 28 (1254400)
I0925 16:46:18.577716  3079 net.cpp:137] Memory required for data: 66170000
I0925 16:46:18.577720  3079 layer_factory.hpp:77] Creating layer Eltwise1
I0925 16:46:18.577726  3079 net.cpp:84] Creating Layer Eltwise1
I0925 16:46:18.577730  3079 net.cpp:406] Eltwise1 <- Convolution1_penlu1_0_split_1
I0925 16:46:18.577735  3079 net.cpp:406] Eltwise1 <- Convolution3
I0925 16:46:18.577740  3079 net.cpp:380] Eltwise1 -> Eltwise1
I0925 16:46:18.577761  3079 net.cpp:122] Setting up Eltwise1
I0925 16:46:18.577766  3079 net.cpp:129] Top shape: 100 16 28 28 (1254400)
I0925 16:46:18.577770  3079 net.cpp:137] Memory required for data: 71187600
I0925 16:46:18.577774  3079 layer_factory.hpp:77] Creating layer penlu3
I0925 16:46:18.577781  3079 net.cpp:84] Creating Layer penlu3
I0925 16:46:18.577785  3079 net.cpp:406] penlu3 <- Eltwise1
I0925 16:46:18.577790  3079 net.cpp:367] penlu3 -> Eltwise1 (in-place)
I0925 16:46:18.577890  3079 net.cpp:122] Setting up penlu3
I0925 16:46:18.577895  3079 net.cpp:129] Top shape: 100 16 28 28 (1254400)
I0925 16:46:18.577900  3079 net.cpp:137] Memory required for data: 76205200
I0925 16:46:18.577906  3079 layer_factory.hpp:77] Creating layer Eltwise1_penlu3_0_split
I0925 16:46:18.577913  3079 net.cpp:84] Creating Layer Eltwise1_penlu3_0_split
I0925 16:46:18.577916  3079 net.cpp:406] Eltwise1_penlu3_0_split <- Eltwise1
I0925 16:46:18.577920  3079 net.cpp:380] Eltwise1_penlu3_0_split -> Eltwise1_penlu3_0_split_0
I0925 16:46:18.577927  3079 net.cpp:380] Eltwise1_penlu3_0_split -> Eltwise1_penlu3_0_split_1
I0925 16:46:18.577950  3079 net.cpp:122] Setting up Eltwise1_penlu3_0_split
I0925 16:46:18.577956  3079 net.cpp:129] Top shape: 100 16 28 28 (1254400)
I0925 16:46:18.577960  3079 net.cpp:129] Top shape: 100 16 28 28 (1254400)
I0925 16:46:18.577965  3079 net.cpp:137] Memory required for data: 86240400
I0925 16:46:18.577968  3079 layer_factory.hpp:77] Creating layer Convolution4
I0925 16:46:18.577977  3079 net.cpp:84] Creating Layer Convolution4
I0925 16:46:18.577980  3079 net.cpp:406] Convolution4 <- Eltwise1_penlu3_0_split_0
I0925 16:46:18.577987  3079 net.cpp:380] Convolution4 -> Convolution4
I0925 16:46:18.578836  3079 net.cpp:122] Setting up Convolution4
I0925 16:46:18.578846  3079 net.cpp:129] Top shape: 100 16 28 28 (1254400)
I0925 16:46:18.578851  3079 net.cpp:137] Memory required for data: 91258000
I0925 16:46:18.578860  3079 layer_factory.hpp:77] Creating layer BatchNorm4
I0925 16:46:18.578866  3079 net.cpp:84] Creating Layer BatchNorm4
I0925 16:46:18.578876  3079 net.cpp:406] BatchNorm4 <- Convolution4
I0925 16:46:18.578883  3079 net.cpp:367] BatchNorm4 -> Convolution4 (in-place)
I0925 16:46:18.579005  3079 net.cpp:122] Setting up BatchNorm4
I0925 16:46:18.579010  3079 net.cpp:129] Top shape: 100 16 28 28 (1254400)
I0925 16:46:18.579015  3079 net.cpp:137] Memory required for data: 96275600
I0925 16:46:18.579023  3079 layer_factory.hpp:77] Creating layer Scale4
I0925 16:46:18.579030  3079 net.cpp:84] Creating Layer Scale4
I0925 16:46:18.579033  3079 net.cpp:406] Scale4 <- Convolution4
I0925 16:46:18.579038  3079 net.cpp:367] Scale4 -> Convolution4 (in-place)
I0925 16:46:18.579066  3079 layer_factory.hpp:77] Creating layer Scale4
I0925 16:46:18.579139  3079 net.cpp:122] Setting up Scale4
I0925 16:46:18.579145  3079 net.cpp:129] Top shape: 100 16 28 28 (1254400)
I0925 16:46:18.579149  3079 net.cpp:137] Memory required for data: 101293200
I0925 16:46:18.579155  3079 layer_factory.hpp:77] Creating layer penlu4
I0925 16:46:18.579162  3079 net.cpp:84] Creating Layer penlu4
I0925 16:46:18.579165  3079 net.cpp:406] penlu4 <- Convolution4
I0925 16:46:18.579171  3079 net.cpp:367] penlu4 -> Convolution4 (in-place)
I0925 16:46:18.579268  3079 net.cpp:122] Setting up penlu4
I0925 16:46:18.579274  3079 net.cpp:129] Top shape: 100 16 28 28 (1254400)
I0925 16:46:18.579278  3079 net.cpp:137] Memory required for data: 106310800
I0925 16:46:18.579284  3079 layer_factory.hpp:77] Creating layer Convolution5
I0925 16:46:18.579293  3079 net.cpp:84] Creating Layer Convolution5
I0925 16:46:18.579298  3079 net.cpp:406] Convolution5 <- Convolution4
I0925 16:46:18.579303  3079 net.cpp:380] Convolution5 -> Convolution5
I0925 16:46:18.580152  3079 net.cpp:122] Setting up Convolution5
I0925 16:46:18.580163  3079 net.cpp:129] Top shape: 100 16 28 28 (1254400)
I0925 16:46:18.580168  3079 net.cpp:137] Memory required for data: 111328400
I0925 16:46:18.580175  3079 layer_factory.hpp:77] Creating layer BatchNorm5
I0925 16:46:18.580183  3079 net.cpp:84] Creating Layer BatchNorm5
I0925 16:46:18.580186  3079 net.cpp:406] BatchNorm5 <- Convolution5
I0925 16:46:18.580191  3079 net.cpp:367] BatchNorm5 -> Convolution5 (in-place)
I0925 16:46:18.580315  3079 net.cpp:122] Setting up BatchNorm5
I0925 16:46:18.580322  3079 net.cpp:129] Top shape: 100 16 28 28 (1254400)
I0925 16:46:18.580325  3079 net.cpp:137] Memory required for data: 116346000
I0925 16:46:18.580332  3079 layer_factory.hpp:77] Creating layer Scale5
I0925 16:46:18.580338  3079 net.cpp:84] Creating Layer Scale5
I0925 16:46:18.580341  3079 net.cpp:406] Scale5 <- Convolution5
I0925 16:46:18.580348  3079 net.cpp:367] Scale5 -> Convolution5 (in-place)
I0925 16:46:18.580374  3079 layer_factory.hpp:77] Creating layer Scale5
I0925 16:46:18.580449  3079 net.cpp:122] Setting up Scale5
I0925 16:46:18.580454  3079 net.cpp:129] Top shape: 100 16 28 28 (1254400)
I0925 16:46:18.580458  3079 net.cpp:137] Memory required for data: 121363600
I0925 16:46:18.580464  3079 layer_factory.hpp:77] Creating layer Eltwise2
I0925 16:46:18.580469  3079 net.cpp:84] Creating Layer Eltwise2
I0925 16:46:18.580473  3079 net.cpp:406] Eltwise2 <- Eltwise1_penlu3_0_split_1
I0925 16:46:18.580478  3079 net.cpp:406] Eltwise2 <- Convolution5
I0925 16:46:18.580484  3079 net.cpp:380] Eltwise2 -> Eltwise2
I0925 16:46:18.580507  3079 net.cpp:122] Setting up Eltwise2
I0925 16:46:18.580513  3079 net.cpp:129] Top shape: 100 16 28 28 (1254400)
I0925 16:46:18.580515  3079 net.cpp:137] Memory required for data: 126381200
I0925 16:46:18.580519  3079 layer_factory.hpp:77] Creating layer penlu5
I0925 16:46:18.580525  3079 net.cpp:84] Creating Layer penlu5
I0925 16:46:18.580529  3079 net.cpp:406] penlu5 <- Eltwise2
I0925 16:46:18.580534  3079 net.cpp:367] penlu5 -> Eltwise2 (in-place)
I0925 16:46:18.580637  3079 net.cpp:122] Setting up penlu5
I0925 16:46:18.580643  3079 net.cpp:129] Top shape: 100 16 28 28 (1254400)
I0925 16:46:18.580647  3079 net.cpp:137] Memory required for data: 131398800
I0925 16:46:18.580653  3079 layer_factory.hpp:77] Creating layer Eltwise2_penlu5_0_split
I0925 16:46:18.580665  3079 net.cpp:84] Creating Layer Eltwise2_penlu5_0_split
I0925 16:46:18.580669  3079 net.cpp:406] Eltwise2_penlu5_0_split <- Eltwise2
I0925 16:46:18.580674  3079 net.cpp:380] Eltwise2_penlu5_0_split -> Eltwise2_penlu5_0_split_0
I0925 16:46:18.580680  3079 net.cpp:380] Eltwise2_penlu5_0_split -> Eltwise2_penlu5_0_split_1
I0925 16:46:18.580705  3079 net.cpp:122] Setting up Eltwise2_penlu5_0_split
I0925 16:46:18.580710  3079 net.cpp:129] Top shape: 100 16 28 28 (1254400)
I0925 16:46:18.580715  3079 net.cpp:129] Top shape: 100 16 28 28 (1254400)
I0925 16:46:18.580718  3079 net.cpp:137] Memory required for data: 141434000
I0925 16:46:18.580721  3079 layer_factory.hpp:77] Creating layer Convolution6
I0925 16:46:18.580731  3079 net.cpp:84] Creating Layer Convolution6
I0925 16:46:18.580734  3079 net.cpp:406] Convolution6 <- Eltwise2_penlu5_0_split_0
I0925 16:46:18.580739  3079 net.cpp:380] Convolution6 -> Convolution6
I0925 16:46:18.581594  3079 net.cpp:122] Setting up Convolution6
I0925 16:46:18.581606  3079 net.cpp:129] Top shape: 100 16 28 28 (1254400)
I0925 16:46:18.581610  3079 net.cpp:137] Memory required for data: 146451600
I0925 16:46:18.581619  3079 layer_factory.hpp:77] Creating layer BatchNorm6
I0925 16:46:18.581624  3079 net.cpp:84] Creating Layer BatchNorm6
I0925 16:46:18.581629  3079 net.cpp:406] BatchNorm6 <- Convolution6
I0925 16:46:18.581635  3079 net.cpp:367] BatchNorm6 -> Convolution6 (in-place)
I0925 16:46:18.581763  3079 net.cpp:122] Setting up BatchNorm6
I0925 16:46:18.581768  3079 net.cpp:129] Top shape: 100 16 28 28 (1254400)
I0925 16:46:18.581771  3079 net.cpp:137] Memory required for data: 151469200
I0925 16:46:18.581779  3079 layer_factory.hpp:77] Creating layer Scale6
I0925 16:46:18.581784  3079 net.cpp:84] Creating Layer Scale6
I0925 16:46:18.581787  3079 net.cpp:406] Scale6 <- Convolution6
I0925 16:46:18.581794  3079 net.cpp:367] Scale6 -> Convolution6 (in-place)
I0925 16:46:18.581821  3079 layer_factory.hpp:77] Creating layer Scale6
I0925 16:46:18.581897  3079 net.cpp:122] Setting up Scale6
I0925 16:46:18.581902  3079 net.cpp:129] Top shape: 100 16 28 28 (1254400)
I0925 16:46:18.581907  3079 net.cpp:137] Memory required for data: 156486800
I0925 16:46:18.581912  3079 layer_factory.hpp:77] Creating layer penlu6
I0925 16:46:18.581919  3079 net.cpp:84] Creating Layer penlu6
I0925 16:46:18.581923  3079 net.cpp:406] penlu6 <- Convolution6
I0925 16:46:18.581928  3079 net.cpp:367] penlu6 -> Convolution6 (in-place)
I0925 16:46:18.582031  3079 net.cpp:122] Setting up penlu6
I0925 16:46:18.582036  3079 net.cpp:129] Top shape: 100 16 28 28 (1254400)
I0925 16:46:18.582041  3079 net.cpp:137] Memory required for data: 161504400
I0925 16:46:18.582047  3079 layer_factory.hpp:77] Creating layer Convolution7
I0925 16:46:18.582056  3079 net.cpp:84] Creating Layer Convolution7
I0925 16:46:18.582059  3079 net.cpp:406] Convolution7 <- Convolution6
I0925 16:46:18.582065  3079 net.cpp:380] Convolution7 -> Convolution7
I0925 16:46:18.582603  3079 net.cpp:122] Setting up Convolution7
I0925 16:46:18.582612  3079 net.cpp:129] Top shape: 100 16 28 28 (1254400)
I0925 16:46:18.582617  3079 net.cpp:137] Memory required for data: 166522000
I0925 16:46:18.582624  3079 layer_factory.hpp:77] Creating layer BatchNorm7
I0925 16:46:18.582631  3079 net.cpp:84] Creating Layer BatchNorm7
I0925 16:46:18.582635  3079 net.cpp:406] BatchNorm7 <- Convolution7
I0925 16:46:18.582640  3079 net.cpp:367] BatchNorm7 -> Convolution7 (in-place)
I0925 16:46:18.582765  3079 net.cpp:122] Setting up BatchNorm7
I0925 16:46:18.582770  3079 net.cpp:129] Top shape: 100 16 28 28 (1254400)
I0925 16:46:18.582774  3079 net.cpp:137] Memory required for data: 171539600
I0925 16:46:18.582787  3079 layer_factory.hpp:77] Creating layer Scale7
I0925 16:46:18.582794  3079 net.cpp:84] Creating Layer Scale7
I0925 16:46:18.582798  3079 net.cpp:406] Scale7 <- Convolution7
I0925 16:46:18.582803  3079 net.cpp:367] Scale7 -> Convolution7 (in-place)
I0925 16:46:18.582831  3079 layer_factory.hpp:77] Creating layer Scale7
I0925 16:46:18.582907  3079 net.cpp:122] Setting up Scale7
I0925 16:46:18.582918  3079 net.cpp:129] Top shape: 100 16 28 28 (1254400)
I0925 16:46:18.582922  3079 net.cpp:137] Memory required for data: 176557200
I0925 16:46:18.582928  3079 layer_factory.hpp:77] Creating layer Eltwise3
I0925 16:46:18.582933  3079 net.cpp:84] Creating Layer Eltwise3
I0925 16:46:18.582937  3079 net.cpp:406] Eltwise3 <- Eltwise2_penlu5_0_split_1
I0925 16:46:18.582943  3079 net.cpp:406] Eltwise3 <- Convolution7
I0925 16:46:18.582948  3079 net.cpp:380] Eltwise3 -> Eltwise3
I0925 16:46:18.582965  3079 net.cpp:122] Setting up Eltwise3
I0925 16:46:18.582970  3079 net.cpp:129] Top shape: 100 16 28 28 (1254400)
I0925 16:46:18.582974  3079 net.cpp:137] Memory required for data: 181574800
I0925 16:46:18.582978  3079 layer_factory.hpp:77] Creating layer penlu7
I0925 16:46:18.582985  3079 net.cpp:84] Creating Layer penlu7
I0925 16:46:18.582988  3079 net.cpp:406] penlu7 <- Eltwise3
I0925 16:46:18.582993  3079 net.cpp:367] penlu7 -> Eltwise3 (in-place)
I0925 16:46:18.583099  3079 net.cpp:122] Setting up penlu7
I0925 16:46:18.583104  3079 net.cpp:129] Top shape: 100 16 28 28 (1254400)
I0925 16:46:18.583108  3079 net.cpp:137] Memory required for data: 186592400
I0925 16:46:18.583115  3079 layer_factory.hpp:77] Creating layer Eltwise3_penlu7_0_split
I0925 16:46:18.583120  3079 net.cpp:84] Creating Layer Eltwise3_penlu7_0_split
I0925 16:46:18.583124  3079 net.cpp:406] Eltwise3_penlu7_0_split <- Eltwise3
I0925 16:46:18.583129  3079 net.cpp:380] Eltwise3_penlu7_0_split -> Eltwise3_penlu7_0_split_0
I0925 16:46:18.583135  3079 net.cpp:380] Eltwise3_penlu7_0_split -> Eltwise3_penlu7_0_split_1
I0925 16:46:18.583158  3079 net.cpp:122] Setting up Eltwise3_penlu7_0_split
I0925 16:46:18.583163  3079 net.cpp:129] Top shape: 100 16 28 28 (1254400)
I0925 16:46:18.583168  3079 net.cpp:129] Top shape: 100 16 28 28 (1254400)
I0925 16:46:18.583171  3079 net.cpp:137] Memory required for data: 196627600
I0925 16:46:18.583174  3079 layer_factory.hpp:77] Creating layer Convolution8
I0925 16:46:18.583184  3079 net.cpp:84] Creating Layer Convolution8
I0925 16:46:18.583187  3079 net.cpp:406] Convolution8 <- Eltwise3_penlu7_0_split_0
I0925 16:46:18.583194  3079 net.cpp:380] Convolution8 -> Convolution8
I0925 16:46:18.584053  3079 net.cpp:122] Setting up Convolution8
I0925 16:46:18.584064  3079 net.cpp:129] Top shape: 100 16 28 28 (1254400)
I0925 16:46:18.584079  3079 net.cpp:137] Memory required for data: 201645200
I0925 16:46:18.584085  3079 layer_factory.hpp:77] Creating layer BatchNorm8
I0925 16:46:18.584092  3079 net.cpp:84] Creating Layer BatchNorm8
I0925 16:46:18.584096  3079 net.cpp:406] BatchNorm8 <- Convolution8
I0925 16:46:18.584102  3079 net.cpp:367] BatchNorm8 -> Convolution8 (in-place)
I0925 16:46:18.584235  3079 net.cpp:122] Setting up BatchNorm8
I0925 16:46:18.584241  3079 net.cpp:129] Top shape: 100 16 28 28 (1254400)
I0925 16:46:18.584245  3079 net.cpp:137] Memory required for data: 206662800
I0925 16:46:18.584252  3079 layer_factory.hpp:77] Creating layer Scale8
I0925 16:46:18.584257  3079 net.cpp:84] Creating Layer Scale8
I0925 16:46:18.584261  3079 net.cpp:406] Scale8 <- Convolution8
I0925 16:46:18.584266  3079 net.cpp:367] Scale8 -> Convolution8 (in-place)
I0925 16:46:18.584295  3079 layer_factory.hpp:77] Creating layer Scale8
I0925 16:46:18.584372  3079 net.cpp:122] Setting up Scale8
I0925 16:46:18.584378  3079 net.cpp:129] Top shape: 100 16 28 28 (1254400)
I0925 16:46:18.584381  3079 net.cpp:137] Memory required for data: 211680400
I0925 16:46:18.584388  3079 layer_factory.hpp:77] Creating layer penlu8
I0925 16:46:18.584396  3079 net.cpp:84] Creating Layer penlu8
I0925 16:46:18.584399  3079 net.cpp:406] penlu8 <- Convolution8
I0925 16:46:18.584404  3079 net.cpp:367] penlu8 -> Convolution8 (in-place)
I0925 16:46:18.584525  3079 net.cpp:122] Setting up penlu8
I0925 16:46:18.584532  3079 net.cpp:129] Top shape: 100 16 28 28 (1254400)
I0925 16:46:18.584537  3079 net.cpp:137] Memory required for data: 216698000
I0925 16:46:18.584543  3079 layer_factory.hpp:77] Creating layer Convolution9
I0925 16:46:18.584553  3079 net.cpp:84] Creating Layer Convolution9
I0925 16:46:18.584563  3079 net.cpp:406] Convolution9 <- Convolution8
I0925 16:46:18.584571  3079 net.cpp:380] Convolution9 -> Convolution9
I0925 16:46:18.585482  3079 net.cpp:122] Setting up Convolution9
I0925 16:46:18.585492  3079 net.cpp:129] Top shape: 100 16 28 28 (1254400)
I0925 16:46:18.585496  3079 net.cpp:137] Memory required for data: 221715600
I0925 16:46:18.585515  3079 layer_factory.hpp:77] Creating layer BatchNorm9
I0925 16:46:18.585522  3079 net.cpp:84] Creating Layer BatchNorm9
I0925 16:46:18.585526  3079 net.cpp:406] BatchNorm9 <- Convolution9
I0925 16:46:18.585532  3079 net.cpp:367] BatchNorm9 -> Convolution9 (in-place)
I0925 16:46:18.585707  3079 net.cpp:122] Setting up BatchNorm9
I0925 16:46:18.585716  3079 net.cpp:129] Top shape: 100 16 28 28 (1254400)
I0925 16:46:18.585718  3079 net.cpp:137] Memory required for data: 226733200
I0925 16:46:18.585723  3079 layer_factory.hpp:77] Creating layer Scale9
I0925 16:46:18.585729  3079 net.cpp:84] Creating Layer Scale9
I0925 16:46:18.585731  3079 net.cpp:406] Scale9 <- Convolution9
I0925 16:46:18.585736  3079 net.cpp:367] Scale9 -> Convolution9 (in-place)
I0925 16:46:18.585762  3079 layer_factory.hpp:77] Creating layer Scale9
I0925 16:46:18.585865  3079 net.cpp:122] Setting up Scale9
I0925 16:46:18.585870  3079 net.cpp:129] Top shape: 100 16 28 28 (1254400)
I0925 16:46:18.585872  3079 net.cpp:137] Memory required for data: 231750800
I0925 16:46:18.585876  3079 layer_factory.hpp:77] Creating layer Eltwise4
I0925 16:46:18.585896  3079 net.cpp:84] Creating Layer Eltwise4
I0925 16:46:18.585898  3079 net.cpp:406] Eltwise4 <- Eltwise3_penlu7_0_split_1
I0925 16:46:18.585901  3079 net.cpp:406] Eltwise4 <- Convolution9
I0925 16:46:18.585914  3079 net.cpp:380] Eltwise4 -> Eltwise4
I0925 16:46:18.585940  3079 net.cpp:122] Setting up Eltwise4
I0925 16:46:18.585944  3079 net.cpp:129] Top shape: 100 16 28 28 (1254400)
I0925 16:46:18.585947  3079 net.cpp:137] Memory required for data: 236768400
I0925 16:46:18.585958  3079 layer_factory.hpp:77] Creating layer penlu9
I0925 16:46:18.585964  3079 net.cpp:84] Creating Layer penlu9
I0925 16:46:18.585978  3079 net.cpp:406] penlu9 <- Eltwise4
I0925 16:46:18.585981  3079 net.cpp:367] penlu9 -> Eltwise4 (in-place)
I0925 16:46:18.586114  3079 net.cpp:122] Setting up penlu9
I0925 16:46:18.586119  3079 net.cpp:129] Top shape: 100 16 28 28 (1254400)
I0925 16:46:18.586122  3079 net.cpp:137] Memory required for data: 241786000
I0925 16:46:18.586127  3079 layer_factory.hpp:77] Creating layer Eltwise4_penlu9_0_split
I0925 16:46:18.586130  3079 net.cpp:84] Creating Layer Eltwise4_penlu9_0_split
I0925 16:46:18.586133  3079 net.cpp:406] Eltwise4_penlu9_0_split <- Eltwise4
I0925 16:46:18.586138  3079 net.cpp:380] Eltwise4_penlu9_0_split -> Eltwise4_penlu9_0_split_0
I0925 16:46:18.586141  3079 net.cpp:380] Eltwise4_penlu9_0_split -> Eltwise4_penlu9_0_split_1
I0925 16:46:18.586163  3079 net.cpp:122] Setting up Eltwise4_penlu9_0_split
I0925 16:46:18.586168  3079 net.cpp:129] Top shape: 100 16 28 28 (1254400)
I0925 16:46:18.586170  3079 net.cpp:129] Top shape: 100 16 28 28 (1254400)
I0925 16:46:18.586174  3079 net.cpp:137] Memory required for data: 251821200
I0925 16:46:18.586175  3079 layer_factory.hpp:77] Creating layer Convolution10
I0925 16:46:18.586181  3079 net.cpp:84] Creating Layer Convolution10
I0925 16:46:18.586184  3079 net.cpp:406] Convolution10 <- Eltwise4_penlu9_0_split_0
I0925 16:46:18.586189  3079 net.cpp:380] Convolution10 -> Convolution10
I0925 16:46:18.587090  3079 net.cpp:122] Setting up Convolution10
I0925 16:46:18.587100  3079 net.cpp:129] Top shape: 100 16 28 28 (1254400)
I0925 16:46:18.587102  3079 net.cpp:137] Memory required for data: 256838800
I0925 16:46:18.587117  3079 layer_factory.hpp:77] Creating layer BatchNorm10
I0925 16:46:18.587123  3079 net.cpp:84] Creating Layer BatchNorm10
I0925 16:46:18.587126  3079 net.cpp:406] BatchNorm10 <- Convolution10
I0925 16:46:18.587131  3079 net.cpp:367] BatchNorm10 -> Convolution10 (in-place)
I0925 16:46:18.587266  3079 net.cpp:122] Setting up BatchNorm10
I0925 16:46:18.587278  3079 net.cpp:129] Top shape: 100 16 28 28 (1254400)
I0925 16:46:18.587280  3079 net.cpp:137] Memory required for data: 261856400
I0925 16:46:18.587286  3079 layer_factory.hpp:77] Creating layer Scale10
I0925 16:46:18.587291  3079 net.cpp:84] Creating Layer Scale10
I0925 16:46:18.587296  3079 net.cpp:406] Scale10 <- Convolution10
I0925 16:46:18.587298  3079 net.cpp:367] Scale10 -> Convolution10 (in-place)
I0925 16:46:18.587324  3079 layer_factory.hpp:77] Creating layer Scale10
I0925 16:46:18.587400  3079 net.cpp:122] Setting up Scale10
I0925 16:46:18.587405  3079 net.cpp:129] Top shape: 100 16 28 28 (1254400)
I0925 16:46:18.587407  3079 net.cpp:137] Memory required for data: 266874000
I0925 16:46:18.587411  3079 layer_factory.hpp:77] Creating layer penlu10
I0925 16:46:18.587417  3079 net.cpp:84] Creating Layer penlu10
I0925 16:46:18.587420  3079 net.cpp:406] penlu10 <- Convolution10
I0925 16:46:18.587425  3079 net.cpp:367] penlu10 -> Convolution10 (in-place)
I0925 16:46:18.587527  3079 net.cpp:122] Setting up penlu10
I0925 16:46:18.587532  3079 net.cpp:129] Top shape: 100 16 28 28 (1254400)
I0925 16:46:18.587534  3079 net.cpp:137] Memory required for data: 271891600
I0925 16:46:18.587539  3079 layer_factory.hpp:77] Creating layer Convolution11
I0925 16:46:18.587548  3079 net.cpp:84] Creating Layer Convolution11
I0925 16:46:18.587550  3079 net.cpp:406] Convolution11 <- Convolution10
I0925 16:46:18.587554  3079 net.cpp:380] Convolution11 -> Convolution11
I0925 16:46:18.588464  3079 net.cpp:122] Setting up Convolution11
I0925 16:46:18.588474  3079 net.cpp:129] Top shape: 100 16 28 28 (1254400)
I0925 16:46:18.588477  3079 net.cpp:137] Memory required for data: 276909200
I0925 16:46:18.588481  3079 layer_factory.hpp:77] Creating layer BatchNorm11
I0925 16:46:18.588487  3079 net.cpp:84] Creating Layer BatchNorm11
I0925 16:46:18.588490  3079 net.cpp:406] BatchNorm11 <- Convolution11
I0925 16:46:18.588495  3079 net.cpp:367] BatchNorm11 -> Convolution11 (in-place)
I0925 16:46:18.588629  3079 net.cpp:122] Setting up BatchNorm11
I0925 16:46:18.588635  3079 net.cpp:129] Top shape: 100 16 28 28 (1254400)
I0925 16:46:18.588637  3079 net.cpp:137] Memory required for data: 281926800
I0925 16:46:18.588642  3079 layer_factory.hpp:77] Creating layer Scale11
I0925 16:46:18.588647  3079 net.cpp:84] Creating Layer Scale11
I0925 16:46:18.588650  3079 net.cpp:406] Scale11 <- Convolution11
I0925 16:46:18.588654  3079 net.cpp:367] Scale11 -> Convolution11 (in-place)
I0925 16:46:18.588678  3079 layer_factory.hpp:77] Creating layer Scale11
I0925 16:46:18.588757  3079 net.cpp:122] Setting up Scale11
I0925 16:46:18.588762  3079 net.cpp:129] Top shape: 100 16 28 28 (1254400)
I0925 16:46:18.588763  3079 net.cpp:137] Memory required for data: 286944400
I0925 16:46:18.588768  3079 layer_factory.hpp:77] Creating layer Eltwise5
I0925 16:46:18.588773  3079 net.cpp:84] Creating Layer Eltwise5
I0925 16:46:18.588776  3079 net.cpp:406] Eltwise5 <- Eltwise4_penlu9_0_split_1
I0925 16:46:18.588779  3079 net.cpp:406] Eltwise5 <- Convolution11
I0925 16:46:18.588783  3079 net.cpp:380] Eltwise5 -> Eltwise5
I0925 16:46:18.588798  3079 net.cpp:122] Setting up Eltwise5
I0925 16:46:18.588802  3079 net.cpp:129] Top shape: 100 16 28 28 (1254400)
I0925 16:46:18.588804  3079 net.cpp:137] Memory required for data: 291962000
I0925 16:46:18.588806  3079 layer_factory.hpp:77] Creating layer penlu11
I0925 16:46:18.588812  3079 net.cpp:84] Creating Layer penlu11
I0925 16:46:18.588815  3079 net.cpp:406] penlu11 <- Eltwise5
I0925 16:46:18.588819  3079 net.cpp:367] penlu11 -> Eltwise5 (in-place)
I0925 16:46:18.588925  3079 net.cpp:122] Setting up penlu11
I0925 16:46:18.588930  3079 net.cpp:129] Top shape: 100 16 28 28 (1254400)
I0925 16:46:18.588932  3079 net.cpp:137] Memory required for data: 296979600
I0925 16:46:18.588937  3079 layer_factory.hpp:77] Creating layer Eltwise5_penlu11_0_split
I0925 16:46:18.588942  3079 net.cpp:84] Creating Layer Eltwise5_penlu11_0_split
I0925 16:46:18.588945  3079 net.cpp:406] Eltwise5_penlu11_0_split <- Eltwise5
I0925 16:46:18.588956  3079 net.cpp:380] Eltwise5_penlu11_0_split -> Eltwise5_penlu11_0_split_0
I0925 16:46:18.588960  3079 net.cpp:380] Eltwise5_penlu11_0_split -> Eltwise5_penlu11_0_split_1
I0925 16:46:18.588984  3079 net.cpp:122] Setting up Eltwise5_penlu11_0_split
I0925 16:46:18.588989  3079 net.cpp:129] Top shape: 100 16 28 28 (1254400)
I0925 16:46:18.588992  3079 net.cpp:129] Top shape: 100 16 28 28 (1254400)
I0925 16:46:18.588994  3079 net.cpp:137] Memory required for data: 307014800
I0925 16:46:18.588996  3079 layer_factory.hpp:77] Creating layer Convolution12
I0925 16:46:18.589002  3079 net.cpp:84] Creating Layer Convolution12
I0925 16:46:18.589005  3079 net.cpp:406] Convolution12 <- Eltwise5_penlu11_0_split_0
I0925 16:46:18.589010  3079 net.cpp:380] Convolution12 -> Convolution12
I0925 16:46:18.589895  3079 net.cpp:122] Setting up Convolution12
I0925 16:46:18.589905  3079 net.cpp:129] Top shape: 100 16 28 28 (1254400)
I0925 16:46:18.589908  3079 net.cpp:137] Memory required for data: 312032400
I0925 16:46:18.589913  3079 layer_factory.hpp:77] Creating layer BatchNorm12
I0925 16:46:18.589917  3079 net.cpp:84] Creating Layer BatchNorm12
I0925 16:46:18.589921  3079 net.cpp:406] BatchNorm12 <- Convolution12
I0925 16:46:18.589926  3079 net.cpp:367] BatchNorm12 -> Convolution12 (in-place)
I0925 16:46:18.590059  3079 net.cpp:122] Setting up BatchNorm12
I0925 16:46:18.590064  3079 net.cpp:129] Top shape: 100 16 28 28 (1254400)
I0925 16:46:18.590065  3079 net.cpp:137] Memory required for data: 317050000
I0925 16:46:18.590070  3079 layer_factory.hpp:77] Creating layer Scale12
I0925 16:46:18.590075  3079 net.cpp:84] Creating Layer Scale12
I0925 16:46:18.590078  3079 net.cpp:406] Scale12 <- Convolution12
I0925 16:46:18.590085  3079 net.cpp:367] Scale12 -> Convolution12 (in-place)
I0925 16:46:18.590111  3079 layer_factory.hpp:77] Creating layer Scale12
I0925 16:46:18.590188  3079 net.cpp:122] Setting up Scale12
I0925 16:46:18.590193  3079 net.cpp:129] Top shape: 100 16 28 28 (1254400)
I0925 16:46:18.590195  3079 net.cpp:137] Memory required for data: 322067600
I0925 16:46:18.590199  3079 layer_factory.hpp:77] Creating layer penlu12
I0925 16:46:18.590206  3079 net.cpp:84] Creating Layer penlu12
I0925 16:46:18.590209  3079 net.cpp:406] penlu12 <- Convolution12
I0925 16:46:18.590214  3079 net.cpp:367] penlu12 -> Convolution12 (in-place)
I0925 16:46:18.590322  3079 net.cpp:122] Setting up penlu12
I0925 16:46:18.590327  3079 net.cpp:129] Top shape: 100 16 28 28 (1254400)
I0925 16:46:18.590329  3079 net.cpp:137] Memory required for data: 327085200
I0925 16:46:18.590334  3079 layer_factory.hpp:77] Creating layer Convolution13
I0925 16:46:18.590342  3079 net.cpp:84] Creating Layer Convolution13
I0925 16:46:18.590344  3079 net.cpp:406] Convolution13 <- Convolution12
I0925 16:46:18.590348  3079 net.cpp:380] Convolution13 -> Convolution13
I0925 16:46:18.591238  3079 net.cpp:122] Setting up Convolution13
I0925 16:46:18.591246  3079 net.cpp:129] Top shape: 100 16 28 28 (1254400)
I0925 16:46:18.591250  3079 net.cpp:137] Memory required for data: 332102800
I0925 16:46:18.591254  3079 layer_factory.hpp:77] Creating layer BatchNorm13
I0925 16:46:18.591259  3079 net.cpp:84] Creating Layer BatchNorm13
I0925 16:46:18.591262  3079 net.cpp:406] BatchNorm13 <- Convolution13
I0925 16:46:18.591267  3079 net.cpp:367] BatchNorm13 -> Convolution13 (in-place)
I0925 16:46:18.591399  3079 net.cpp:122] Setting up BatchNorm13
I0925 16:46:18.591404  3079 net.cpp:129] Top shape: 100 16 28 28 (1254400)
I0925 16:46:18.591408  3079 net.cpp:137] Memory required for data: 337120400
I0925 16:46:18.591411  3079 layer_factory.hpp:77] Creating layer Scale13
I0925 16:46:18.591416  3079 net.cpp:84] Creating Layer Scale13
I0925 16:46:18.591419  3079 net.cpp:406] Scale13 <- Convolution13
I0925 16:46:18.591424  3079 net.cpp:367] Scale13 -> Convolution13 (in-place)
I0925 16:46:18.591449  3079 layer_factory.hpp:77] Creating layer Scale13
I0925 16:46:18.591527  3079 net.cpp:122] Setting up Scale13
I0925 16:46:18.591533  3079 net.cpp:129] Top shape: 100 16 28 28 (1254400)
I0925 16:46:18.591542  3079 net.cpp:137] Memory required for data: 342138000
I0925 16:46:18.591547  3079 layer_factory.hpp:77] Creating layer Eltwise6
I0925 16:46:18.591550  3079 net.cpp:84] Creating Layer Eltwise6
I0925 16:46:18.591553  3079 net.cpp:406] Eltwise6 <- Eltwise5_penlu11_0_split_1
I0925 16:46:18.591557  3079 net.cpp:406] Eltwise6 <- Convolution13
I0925 16:46:18.591560  3079 net.cpp:380] Eltwise6 -> Eltwise6
I0925 16:46:18.591579  3079 net.cpp:122] Setting up Eltwise6
I0925 16:46:18.591584  3079 net.cpp:129] Top shape: 100 16 28 28 (1254400)
I0925 16:46:18.591586  3079 net.cpp:137] Memory required for data: 347155600
I0925 16:46:18.591588  3079 layer_factory.hpp:77] Creating layer penlu13
I0925 16:46:18.591596  3079 net.cpp:84] Creating Layer penlu13
I0925 16:46:18.591599  3079 net.cpp:406] penlu13 <- Eltwise6
I0925 16:46:18.591603  3079 net.cpp:367] penlu13 -> Eltwise6 (in-place)
I0925 16:46:18.591713  3079 net.cpp:122] Setting up penlu13
I0925 16:46:18.591719  3079 net.cpp:129] Top shape: 100 16 28 28 (1254400)
I0925 16:46:18.591722  3079 net.cpp:137] Memory required for data: 352173200
I0925 16:46:18.591734  3079 layer_factory.hpp:77] Creating layer Eltwise6_penlu13_0_split
I0925 16:46:18.591739  3079 net.cpp:84] Creating Layer Eltwise6_penlu13_0_split
I0925 16:46:18.591742  3079 net.cpp:406] Eltwise6_penlu13_0_split <- Eltwise6
I0925 16:46:18.591747  3079 net.cpp:380] Eltwise6_penlu13_0_split -> Eltwise6_penlu13_0_split_0
I0925 16:46:18.591751  3079 net.cpp:380] Eltwise6_penlu13_0_split -> Eltwise6_penlu13_0_split_1
I0925 16:46:18.591775  3079 net.cpp:122] Setting up Eltwise6_penlu13_0_split
I0925 16:46:18.591779  3079 net.cpp:129] Top shape: 100 16 28 28 (1254400)
I0925 16:46:18.591783  3079 net.cpp:129] Top shape: 100 16 28 28 (1254400)
I0925 16:46:18.591784  3079 net.cpp:137] Memory required for data: 362208400
I0925 16:46:18.591786  3079 layer_factory.hpp:77] Creating layer Convolution14
I0925 16:46:18.591794  3079 net.cpp:84] Creating Layer Convolution14
I0925 16:46:18.591795  3079 net.cpp:406] Convolution14 <- Eltwise6_penlu13_0_split_0
I0925 16:46:18.591800  3079 net.cpp:380] Convolution14 -> Convolution14
I0925 16:46:18.592691  3079 net.cpp:122] Setting up Convolution14
I0925 16:46:18.592700  3079 net.cpp:129] Top shape: 100 16 28 28 (1254400)
I0925 16:46:18.592703  3079 net.cpp:137] Memory required for data: 367226000
I0925 16:46:18.592707  3079 layer_factory.hpp:77] Creating layer BatchNorm14
I0925 16:46:18.592713  3079 net.cpp:84] Creating Layer BatchNorm14
I0925 16:46:18.592716  3079 net.cpp:406] BatchNorm14 <- Convolution14
I0925 16:46:18.592720  3079 net.cpp:367] BatchNorm14 -> Convolution14 (in-place)
I0925 16:46:18.592854  3079 net.cpp:122] Setting up BatchNorm14
I0925 16:46:18.592857  3079 net.cpp:129] Top shape: 100 16 28 28 (1254400)
I0925 16:46:18.592860  3079 net.cpp:137] Memory required for data: 372243600
I0925 16:46:18.592864  3079 layer_factory.hpp:77] Creating layer Scale14
I0925 16:46:18.592869  3079 net.cpp:84] Creating Layer Scale14
I0925 16:46:18.592871  3079 net.cpp:406] Scale14 <- Convolution14
I0925 16:46:18.592875  3079 net.cpp:367] Scale14 -> Convolution14 (in-place)
I0925 16:46:18.592901  3079 layer_factory.hpp:77] Creating layer Scale14
I0925 16:46:18.592979  3079 net.cpp:122] Setting up Scale14
I0925 16:46:18.592983  3079 net.cpp:129] Top shape: 100 16 28 28 (1254400)
I0925 16:46:18.592985  3079 net.cpp:137] Memory required for data: 377261200
I0925 16:46:18.592989  3079 layer_factory.hpp:77] Creating layer penlu14
I0925 16:46:18.592995  3079 net.cpp:84] Creating Layer penlu14
I0925 16:46:18.592998  3079 net.cpp:406] penlu14 <- Convolution14
I0925 16:46:18.593001  3079 net.cpp:367] penlu14 -> Convolution14 (in-place)
I0925 16:46:18.593109  3079 net.cpp:122] Setting up penlu14
I0925 16:46:18.593113  3079 net.cpp:129] Top shape: 100 16 28 28 (1254400)
I0925 16:46:18.593116  3079 net.cpp:137] Memory required for data: 382278800
I0925 16:46:18.593119  3079 layer_factory.hpp:77] Creating layer Convolution15
I0925 16:46:18.593127  3079 net.cpp:84] Creating Layer Convolution15
I0925 16:46:18.593135  3079 net.cpp:406] Convolution15 <- Convolution14
I0925 16:46:18.593140  3079 net.cpp:380] Convolution15 -> Convolution15
I0925 16:46:18.594022  3079 net.cpp:122] Setting up Convolution15
I0925 16:46:18.594030  3079 net.cpp:129] Top shape: 100 16 28 28 (1254400)
I0925 16:46:18.594033  3079 net.cpp:137] Memory required for data: 387296400
I0925 16:46:18.594038  3079 layer_factory.hpp:77] Creating layer BatchNorm15
I0925 16:46:18.594043  3079 net.cpp:84] Creating Layer BatchNorm15
I0925 16:46:18.594045  3079 net.cpp:406] BatchNorm15 <- Convolution15
I0925 16:46:18.594049  3079 net.cpp:367] BatchNorm15 -> Convolution15 (in-place)
I0925 16:46:18.594182  3079 net.cpp:122] Setting up BatchNorm15
I0925 16:46:18.594185  3079 net.cpp:129] Top shape: 100 16 28 28 (1254400)
I0925 16:46:18.594188  3079 net.cpp:137] Memory required for data: 392314000
I0925 16:46:18.594192  3079 layer_factory.hpp:77] Creating layer Scale15
I0925 16:46:18.594197  3079 net.cpp:84] Creating Layer Scale15
I0925 16:46:18.594199  3079 net.cpp:406] Scale15 <- Convolution15
I0925 16:46:18.594203  3079 net.cpp:367] Scale15 -> Convolution15 (in-place)
I0925 16:46:18.594228  3079 layer_factory.hpp:77] Creating layer Scale15
I0925 16:46:18.594305  3079 net.cpp:122] Setting up Scale15
I0925 16:46:18.594310  3079 net.cpp:129] Top shape: 100 16 28 28 (1254400)
I0925 16:46:18.594311  3079 net.cpp:137] Memory required for data: 397331600
I0925 16:46:18.594316  3079 layer_factory.hpp:77] Creating layer Eltwise7
I0925 16:46:18.594319  3079 net.cpp:84] Creating Layer Eltwise7
I0925 16:46:18.594321  3079 net.cpp:406] Eltwise7 <- Eltwise6_penlu13_0_split_1
I0925 16:46:18.594324  3079 net.cpp:406] Eltwise7 <- Convolution15
I0925 16:46:18.594328  3079 net.cpp:380] Eltwise7 -> Eltwise7
I0925 16:46:18.594344  3079 net.cpp:122] Setting up Eltwise7
I0925 16:46:18.594348  3079 net.cpp:129] Top shape: 100 16 28 28 (1254400)
I0925 16:46:18.594350  3079 net.cpp:137] Memory required for data: 402349200
I0925 16:46:18.594352  3079 layer_factory.hpp:77] Creating layer penlu15
I0925 16:46:18.594357  3079 net.cpp:84] Creating Layer penlu15
I0925 16:46:18.594359  3079 net.cpp:406] penlu15 <- Eltwise7
I0925 16:46:18.594364  3079 net.cpp:367] penlu15 -> Eltwise7 (in-place)
I0925 16:46:18.594471  3079 net.cpp:122] Setting up penlu15
I0925 16:46:18.594476  3079 net.cpp:129] Top shape: 100 16 28 28 (1254400)
I0925 16:46:18.594477  3079 net.cpp:137] Memory required for data: 407366800
I0925 16:46:18.594482  3079 layer_factory.hpp:77] Creating layer Eltwise7_penlu15_0_split
I0925 16:46:18.594486  3079 net.cpp:84] Creating Layer Eltwise7_penlu15_0_split
I0925 16:46:18.594488  3079 net.cpp:406] Eltwise7_penlu15_0_split <- Eltwise7
I0925 16:46:18.594491  3079 net.cpp:380] Eltwise7_penlu15_0_split -> Eltwise7_penlu15_0_split_0
I0925 16:46:18.594496  3079 net.cpp:380] Eltwise7_penlu15_0_split -> Eltwise7_penlu15_0_split_1
I0925 16:46:18.594517  3079 net.cpp:122] Setting up Eltwise7_penlu15_0_split
I0925 16:46:18.594521  3079 net.cpp:129] Top shape: 100 16 28 28 (1254400)
I0925 16:46:18.594523  3079 net.cpp:129] Top shape: 100 16 28 28 (1254400)
I0925 16:46:18.594525  3079 net.cpp:137] Memory required for data: 417402000
I0925 16:46:18.594527  3079 layer_factory.hpp:77] Creating layer Convolution16
I0925 16:46:18.594533  3079 net.cpp:84] Creating Layer Convolution16
I0925 16:46:18.594535  3079 net.cpp:406] Convolution16 <- Eltwise7_penlu15_0_split_0
I0925 16:46:18.594539  3079 net.cpp:380] Convolution16 -> Convolution16
I0925 16:46:18.595417  3079 net.cpp:122] Setting up Convolution16
I0925 16:46:18.595427  3079 net.cpp:129] Top shape: 100 16 28 28 (1254400)
I0925 16:46:18.595428  3079 net.cpp:137] Memory required for data: 422419600
I0925 16:46:18.595433  3079 layer_factory.hpp:77] Creating layer BatchNorm16
I0925 16:46:18.595438  3079 net.cpp:84] Creating Layer BatchNorm16
I0925 16:46:18.595440  3079 net.cpp:406] BatchNorm16 <- Convolution16
I0925 16:46:18.595444  3079 net.cpp:367] BatchNorm16 -> Convolution16 (in-place)
I0925 16:46:18.595576  3079 net.cpp:122] Setting up BatchNorm16
I0925 16:46:18.595587  3079 net.cpp:129] Top shape: 100 16 28 28 (1254400)
I0925 16:46:18.595588  3079 net.cpp:137] Memory required for data: 427437200
I0925 16:46:18.595593  3079 layer_factory.hpp:77] Creating layer Scale16
I0925 16:46:18.595597  3079 net.cpp:84] Creating Layer Scale16
I0925 16:46:18.595600  3079 net.cpp:406] Scale16 <- Convolution16
I0925 16:46:18.595604  3079 net.cpp:367] Scale16 -> Convolution16 (in-place)
I0925 16:46:18.595630  3079 layer_factory.hpp:77] Creating layer Scale16
I0925 16:46:18.595707  3079 net.cpp:122] Setting up Scale16
I0925 16:46:18.595712  3079 net.cpp:129] Top shape: 100 16 28 28 (1254400)
I0925 16:46:18.595715  3079 net.cpp:137] Memory required for data: 432454800
I0925 16:46:18.595718  3079 layer_factory.hpp:77] Creating layer penlu16
I0925 16:46:18.595723  3079 net.cpp:84] Creating Layer penlu16
I0925 16:46:18.595726  3079 net.cpp:406] penlu16 <- Convolution16
I0925 16:46:18.595729  3079 net.cpp:367] penlu16 -> Convolution16 (in-place)
I0925 16:46:18.595841  3079 net.cpp:122] Setting up penlu16
I0925 16:46:18.595845  3079 net.cpp:129] Top shape: 100 16 28 28 (1254400)
I0925 16:46:18.595847  3079 net.cpp:137] Memory required for data: 437472400
I0925 16:46:18.595851  3079 layer_factory.hpp:77] Creating layer Convolution17
I0925 16:46:18.595859  3079 net.cpp:84] Creating Layer Convolution17
I0925 16:46:18.595860  3079 net.cpp:406] Convolution17 <- Convolution16
I0925 16:46:18.595865  3079 net.cpp:380] Convolution17 -> Convolution17
I0925 16:46:18.596427  3079 net.cpp:122] Setting up Convolution17
I0925 16:46:18.596436  3079 net.cpp:129] Top shape: 100 16 28 28 (1254400)
I0925 16:46:18.596437  3079 net.cpp:137] Memory required for data: 442490000
I0925 16:46:18.596441  3079 layer_factory.hpp:77] Creating layer BatchNorm17
I0925 16:46:18.596446  3079 net.cpp:84] Creating Layer BatchNorm17
I0925 16:46:18.596449  3079 net.cpp:406] BatchNorm17 <- Convolution17
I0925 16:46:18.596453  3079 net.cpp:367] BatchNorm17 -> Convolution17 (in-place)
I0925 16:46:18.596588  3079 net.cpp:122] Setting up BatchNorm17
I0925 16:46:18.596595  3079 net.cpp:129] Top shape: 100 16 28 28 (1254400)
I0925 16:46:18.596596  3079 net.cpp:137] Memory required for data: 447507600
I0925 16:46:18.596601  3079 layer_factory.hpp:77] Creating layer Scale17
I0925 16:46:18.596606  3079 net.cpp:84] Creating Layer Scale17
I0925 16:46:18.596608  3079 net.cpp:406] Scale17 <- Convolution17
I0925 16:46:18.596611  3079 net.cpp:367] Scale17 -> Convolution17 (in-place)
I0925 16:46:18.596637  3079 layer_factory.hpp:77] Creating layer Scale17
I0925 16:46:18.596714  3079 net.cpp:122] Setting up Scale17
I0925 16:46:18.596717  3079 net.cpp:129] Top shape: 100 16 28 28 (1254400)
I0925 16:46:18.596719  3079 net.cpp:137] Memory required for data: 452525200
I0925 16:46:18.596722  3079 layer_factory.hpp:77] Creating layer Eltwise8
I0925 16:46:18.596727  3079 net.cpp:84] Creating Layer Eltwise8
I0925 16:46:18.596729  3079 net.cpp:406] Eltwise8 <- Eltwise7_penlu15_0_split_1
I0925 16:46:18.596732  3079 net.cpp:406] Eltwise8 <- Convolution17
I0925 16:46:18.596736  3079 net.cpp:380] Eltwise8 -> Eltwise8
I0925 16:46:18.596751  3079 net.cpp:122] Setting up Eltwise8
I0925 16:46:18.596755  3079 net.cpp:129] Top shape: 100 16 28 28 (1254400)
I0925 16:46:18.596756  3079 net.cpp:137] Memory required for data: 457542800
I0925 16:46:18.596758  3079 layer_factory.hpp:77] Creating layer penlu17
I0925 16:46:18.596765  3079 net.cpp:84] Creating Layer penlu17
I0925 16:46:18.596766  3079 net.cpp:406] penlu17 <- Eltwise8
I0925 16:46:18.596770  3079 net.cpp:367] penlu17 -> Eltwise8 (in-place)
I0925 16:46:18.596897  3079 net.cpp:122] Setting up penlu17
I0925 16:46:18.596901  3079 net.cpp:129] Top shape: 100 16 28 28 (1254400)
I0925 16:46:18.596904  3079 net.cpp:137] Memory required for data: 462560400
I0925 16:46:18.596907  3079 layer_factory.hpp:77] Creating layer Eltwise8_penlu17_0_split
I0925 16:46:18.596911  3079 net.cpp:84] Creating Layer Eltwise8_penlu17_0_split
I0925 16:46:18.596913  3079 net.cpp:406] Eltwise8_penlu17_0_split <- Eltwise8
I0925 16:46:18.596923  3079 net.cpp:380] Eltwise8_penlu17_0_split -> Eltwise8_penlu17_0_split_0
I0925 16:46:18.596927  3079 net.cpp:380] Eltwise8_penlu17_0_split -> Eltwise8_penlu17_0_split_1
I0925 16:46:18.596951  3079 net.cpp:122] Setting up Eltwise8_penlu17_0_split
I0925 16:46:18.596954  3079 net.cpp:129] Top shape: 100 16 28 28 (1254400)
I0925 16:46:18.596957  3079 net.cpp:129] Top shape: 100 16 28 28 (1254400)
I0925 16:46:18.596959  3079 net.cpp:137] Memory required for data: 472595600
I0925 16:46:18.596961  3079 layer_factory.hpp:77] Creating layer Convolution18
I0925 16:46:18.596967  3079 net.cpp:84] Creating Layer Convolution18
I0925 16:46:18.596969  3079 net.cpp:406] Convolution18 <- Eltwise8_penlu17_0_split_0
I0925 16:46:18.596973  3079 net.cpp:380] Convolution18 -> Convolution18
I0925 16:46:18.597853  3079 net.cpp:122] Setting up Convolution18
I0925 16:46:18.597862  3079 net.cpp:129] Top shape: 100 16 28 28 (1254400)
I0925 16:46:18.597864  3079 net.cpp:137] Memory required for data: 477613200
I0925 16:46:18.597868  3079 layer_factory.hpp:77] Creating layer BatchNorm18
I0925 16:46:18.597874  3079 net.cpp:84] Creating Layer BatchNorm18
I0925 16:46:18.597877  3079 net.cpp:406] BatchNorm18 <- Convolution18
I0925 16:46:18.597882  3079 net.cpp:367] BatchNorm18 -> Convolution18 (in-place)
I0925 16:46:18.598012  3079 net.cpp:122] Setting up BatchNorm18
I0925 16:46:18.598016  3079 net.cpp:129] Top shape: 100 16 28 28 (1254400)
I0925 16:46:18.598018  3079 net.cpp:137] Memory required for data: 482630800
I0925 16:46:18.598023  3079 layer_factory.hpp:77] Creating layer Scale18
I0925 16:46:18.598028  3079 net.cpp:84] Creating Layer Scale18
I0925 16:46:18.598031  3079 net.cpp:406] Scale18 <- Convolution18
I0925 16:46:18.598034  3079 net.cpp:367] Scale18 -> Convolution18 (in-place)
I0925 16:46:18.598062  3079 layer_factory.hpp:77] Creating layer Scale18
I0925 16:46:18.598140  3079 net.cpp:122] Setting up Scale18
I0925 16:46:18.598145  3079 net.cpp:129] Top shape: 100 16 28 28 (1254400)
I0925 16:46:18.598146  3079 net.cpp:137] Memory required for data: 487648400
I0925 16:46:18.598150  3079 layer_factory.hpp:77] Creating layer penlu18
I0925 16:46:18.598156  3079 net.cpp:84] Creating Layer penlu18
I0925 16:46:18.598158  3079 net.cpp:406] penlu18 <- Convolution18
I0925 16:46:18.598162  3079 net.cpp:367] penlu18 -> Convolution18 (in-place)
I0925 16:46:18.598269  3079 net.cpp:122] Setting up penlu18
I0925 16:46:18.598273  3079 net.cpp:129] Top shape: 100 16 28 28 (1254400)
I0925 16:46:18.598275  3079 net.cpp:137] Memory required for data: 492666000
I0925 16:46:18.598280  3079 layer_factory.hpp:77] Creating layer Convolution19
I0925 16:46:18.598287  3079 net.cpp:84] Creating Layer Convolution19
I0925 16:46:18.598289  3079 net.cpp:406] Convolution19 <- Convolution18
I0925 16:46:18.598294  3079 net.cpp:380] Convolution19 -> Convolution19
I0925 16:46:18.599185  3079 net.cpp:122] Setting up Convolution19
I0925 16:46:18.599195  3079 net.cpp:129] Top shape: 100 16 28 28 (1254400)
I0925 16:46:18.599197  3079 net.cpp:137] Memory required for data: 497683600
I0925 16:46:18.599201  3079 layer_factory.hpp:77] Creating layer BatchNorm19
I0925 16:46:18.599206  3079 net.cpp:84] Creating Layer BatchNorm19
I0925 16:46:18.599210  3079 net.cpp:406] BatchNorm19 <- Convolution19
I0925 16:46:18.599213  3079 net.cpp:367] BatchNorm19 -> Convolution19 (in-place)
I0925 16:46:18.599347  3079 net.cpp:122] Setting up BatchNorm19
I0925 16:46:18.599352  3079 net.cpp:129] Top shape: 100 16 28 28 (1254400)
I0925 16:46:18.599354  3079 net.cpp:137] Memory required for data: 502701200
I0925 16:46:18.599359  3079 layer_factory.hpp:77] Creating layer Scale19
I0925 16:46:18.599364  3079 net.cpp:84] Creating Layer Scale19
I0925 16:46:18.599367  3079 net.cpp:406] Scale19 <- Convolution19
I0925 16:46:18.599370  3079 net.cpp:367] Scale19 -> Convolution19 (in-place)
I0925 16:46:18.599396  3079 layer_factory.hpp:77] Creating layer Scale19
I0925 16:46:18.599474  3079 net.cpp:122] Setting up Scale19
I0925 16:46:18.599478  3079 net.cpp:129] Top shape: 100 16 28 28 (1254400)
I0925 16:46:18.599486  3079 net.cpp:137] Memory required for data: 507718800
I0925 16:46:18.599490  3079 layer_factory.hpp:77] Creating layer Eltwise9
I0925 16:46:18.599495  3079 net.cpp:84] Creating Layer Eltwise9
I0925 16:46:18.599498  3079 net.cpp:406] Eltwise9 <- Eltwise8_penlu17_0_split_1
I0925 16:46:18.599501  3079 net.cpp:406] Eltwise9 <- Convolution19
I0925 16:46:18.599504  3079 net.cpp:380] Eltwise9 -> Eltwise9
I0925 16:46:18.599520  3079 net.cpp:122] Setting up Eltwise9
I0925 16:46:18.599524  3079 net.cpp:129] Top shape: 100 16 28 28 (1254400)
I0925 16:46:18.599526  3079 net.cpp:137] Memory required for data: 512736400
I0925 16:46:18.599529  3079 layer_factory.hpp:77] Creating layer penlu19
I0925 16:46:18.599534  3079 net.cpp:84] Creating Layer penlu19
I0925 16:46:18.599536  3079 net.cpp:406] penlu19 <- Eltwise9
I0925 16:46:18.599539  3079 net.cpp:367] penlu19 -> Eltwise9 (in-place)
I0925 16:46:18.599647  3079 net.cpp:122] Setting up penlu19
I0925 16:46:18.599651  3079 net.cpp:129] Top shape: 100 16 28 28 (1254400)
I0925 16:46:18.599653  3079 net.cpp:137] Memory required for data: 517754000
I0925 16:46:18.599658  3079 layer_factory.hpp:77] Creating layer Eltwise9_penlu19_0_split
I0925 16:46:18.599661  3079 net.cpp:84] Creating Layer Eltwise9_penlu19_0_split
I0925 16:46:18.599663  3079 net.cpp:406] Eltwise9_penlu19_0_split <- Eltwise9
I0925 16:46:18.599666  3079 net.cpp:380] Eltwise9_penlu19_0_split -> Eltwise9_penlu19_0_split_0
I0925 16:46:18.599670  3079 net.cpp:380] Eltwise9_penlu19_0_split -> Eltwise9_penlu19_0_split_1
I0925 16:46:18.599694  3079 net.cpp:122] Setting up Eltwise9_penlu19_0_split
I0925 16:46:18.599699  3079 net.cpp:129] Top shape: 100 16 28 28 (1254400)
I0925 16:46:18.599701  3079 net.cpp:129] Top shape: 100 16 28 28 (1254400)
I0925 16:46:18.599704  3079 net.cpp:137] Memory required for data: 527789200
I0925 16:46:18.599705  3079 layer_factory.hpp:77] Creating layer Convolution20
I0925 16:46:18.599712  3079 net.cpp:84] Creating Layer Convolution20
I0925 16:46:18.599714  3079 net.cpp:406] Convolution20 <- Eltwise9_penlu19_0_split_0
I0925 16:46:18.599719  3079 net.cpp:380] Convolution20 -> Convolution20
I0925 16:46:18.600965  3079 net.cpp:122] Setting up Convolution20
I0925 16:46:18.600975  3079 net.cpp:129] Top shape: 100 32 14 14 (627200)
I0925 16:46:18.600976  3079 net.cpp:137] Memory required for data: 530298000
I0925 16:46:18.600982  3079 layer_factory.hpp:77] Creating layer BatchNorm20
I0925 16:46:18.600986  3079 net.cpp:84] Creating Layer BatchNorm20
I0925 16:46:18.600989  3079 net.cpp:406] BatchNorm20 <- Convolution20
I0925 16:46:18.600993  3079 net.cpp:367] BatchNorm20 -> Convolution20 (in-place)
I0925 16:46:18.601136  3079 net.cpp:122] Setting up BatchNorm20
I0925 16:46:18.601142  3079 net.cpp:129] Top shape: 100 32 14 14 (627200)
I0925 16:46:18.601146  3079 net.cpp:137] Memory required for data: 532806800
I0925 16:46:18.601153  3079 layer_factory.hpp:77] Creating layer Scale20
I0925 16:46:18.601160  3079 net.cpp:84] Creating Layer Scale20
I0925 16:46:18.601173  3079 net.cpp:406] Scale20 <- Convolution20
I0925 16:46:18.601179  3079 net.cpp:367] Scale20 -> Convolution20 (in-place)
I0925 16:46:18.601212  3079 layer_factory.hpp:77] Creating layer Scale20
I0925 16:46:18.601300  3079 net.cpp:122] Setting up Scale20
I0925 16:46:18.601305  3079 net.cpp:129] Top shape: 100 32 14 14 (627200)
I0925 16:46:18.601307  3079 net.cpp:137] Memory required for data: 535315600
I0925 16:46:18.601311  3079 layer_factory.hpp:77] Creating layer Convolution21
I0925 16:46:18.601318  3079 net.cpp:84] Creating Layer Convolution21
I0925 16:46:18.601320  3079 net.cpp:406] Convolution21 <- Eltwise9_penlu19_0_split_1
I0925 16:46:18.601336  3079 net.cpp:380] Convolution21 -> Convolution21
I0925 16:46:18.603009  3079 net.cpp:122] Setting up Convolution21
I0925 16:46:18.603018  3079 net.cpp:129] Top shape: 100 32 14 14 (627200)
I0925 16:46:18.603021  3079 net.cpp:137] Memory required for data: 537824400
I0925 16:46:18.603025  3079 layer_factory.hpp:77] Creating layer BatchNorm21
I0925 16:46:18.603031  3079 net.cpp:84] Creating Layer BatchNorm21
I0925 16:46:18.603040  3079 net.cpp:406] BatchNorm21 <- Convolution21
I0925 16:46:18.603044  3079 net.cpp:367] BatchNorm21 -> Convolution21 (in-place)
I0925 16:46:18.603193  3079 net.cpp:122] Setting up BatchNorm21
I0925 16:46:18.603197  3079 net.cpp:129] Top shape: 100 32 14 14 (627200)
I0925 16:46:18.603199  3079 net.cpp:137] Memory required for data: 540333200
I0925 16:46:18.603205  3079 layer_factory.hpp:77] Creating layer Scale21
I0925 16:46:18.603209  3079 net.cpp:84] Creating Layer Scale21
I0925 16:46:18.603212  3079 net.cpp:406] Scale21 <- Convolution21
I0925 16:46:18.603216  3079 net.cpp:367] Scale21 -> Convolution21 (in-place)
I0925 16:46:18.603242  3079 layer_factory.hpp:77] Creating layer Scale21
I0925 16:46:18.603343  3079 net.cpp:122] Setting up Scale21
I0925 16:46:18.603346  3079 net.cpp:129] Top shape: 100 32 14 14 (627200)
I0925 16:46:18.603348  3079 net.cpp:137] Memory required for data: 542842000
I0925 16:46:18.603353  3079 layer_factory.hpp:77] Creating layer penlu20
I0925 16:46:18.603358  3079 net.cpp:84] Creating Layer penlu20
I0925 16:46:18.603361  3079 net.cpp:406] penlu20 <- Convolution21
I0925 16:46:18.603366  3079 net.cpp:367] penlu20 -> Convolution21 (in-place)
I0925 16:46:18.603498  3079 net.cpp:122] Setting up penlu20
I0925 16:46:18.603502  3079 net.cpp:129] Top shape: 100 32 14 14 (627200)
I0925 16:46:18.603505  3079 net.cpp:137] Memory required for data: 545350800
I0925 16:46:18.603509  3079 layer_factory.hpp:77] Creating layer Convolution22
I0925 16:46:18.603518  3079 net.cpp:84] Creating Layer Convolution22
I0925 16:46:18.603519  3079 net.cpp:406] Convolution22 <- Convolution21
I0925 16:46:18.603523  3079 net.cpp:380] Convolution22 -> Convolution22
I0925 16:46:18.604619  3079 net.cpp:122] Setting up Convolution22
I0925 16:46:18.604627  3079 net.cpp:129] Top shape: 100 32 14 14 (627200)
I0925 16:46:18.604630  3079 net.cpp:137] Memory required for data: 547859600
I0925 16:46:18.604635  3079 layer_factory.hpp:77] Creating layer BatchNorm22
I0925 16:46:18.604640  3079 net.cpp:84] Creating Layer BatchNorm22
I0925 16:46:18.604641  3079 net.cpp:406] BatchNorm22 <- Convolution22
I0925 16:46:18.604645  3079 net.cpp:367] BatchNorm22 -> Convolution22 (in-place)
I0925 16:46:18.604776  3079 net.cpp:122] Setting up BatchNorm22
I0925 16:46:18.604781  3079 net.cpp:129] Top shape: 100 32 14 14 (627200)
I0925 16:46:18.604784  3079 net.cpp:137] Memory required for data: 550368400
I0925 16:46:18.604787  3079 layer_factory.hpp:77] Creating layer Scale22
I0925 16:46:18.604791  3079 net.cpp:84] Creating Layer Scale22
I0925 16:46:18.604794  3079 net.cpp:406] Scale22 <- Convolution22
I0925 16:46:18.604797  3079 net.cpp:367] Scale22 -> Convolution22 (in-place)
I0925 16:46:18.604823  3079 layer_factory.hpp:77] Creating layer Scale22
I0925 16:46:18.604897  3079 net.cpp:122] Setting up Scale22
I0925 16:46:18.604902  3079 net.cpp:129] Top shape: 100 32 14 14 (627200)
I0925 16:46:18.604903  3079 net.cpp:137] Memory required for data: 552877200
I0925 16:46:18.604907  3079 layer_factory.hpp:77] Creating layer Eltwise10
I0925 16:46:18.604912  3079 net.cpp:84] Creating Layer Eltwise10
I0925 16:46:18.604913  3079 net.cpp:406] Eltwise10 <- Convolution20
I0925 16:46:18.604917  3079 net.cpp:406] Eltwise10 <- Convolution22
I0925 16:46:18.604919  3079 net.cpp:380] Eltwise10 -> Eltwise10
I0925 16:46:18.604935  3079 net.cpp:122] Setting up Eltwise10
I0925 16:46:18.604939  3079 net.cpp:129] Top shape: 100 32 14 14 (627200)
I0925 16:46:18.604940  3079 net.cpp:137] Memory required for data: 555386000
I0925 16:46:18.604943  3079 layer_factory.hpp:77] Creating layer penlu21
I0925 16:46:18.604948  3079 net.cpp:84] Creating Layer penlu21
I0925 16:46:18.604950  3079 net.cpp:406] penlu21 <- Eltwise10
I0925 16:46:18.604954  3079 net.cpp:367] penlu21 -> Eltwise10 (in-place)
I0925 16:46:18.605062  3079 net.cpp:122] Setting up penlu21
I0925 16:46:18.605065  3079 net.cpp:129] Top shape: 100 32 14 14 (627200)
I0925 16:46:18.605067  3079 net.cpp:137] Memory required for data: 557894800
I0925 16:46:18.605072  3079 layer_factory.hpp:77] Creating layer Eltwise10_penlu21_0_split
I0925 16:46:18.605082  3079 net.cpp:84] Creating Layer Eltwise10_penlu21_0_split
I0925 16:46:18.605084  3079 net.cpp:406] Eltwise10_penlu21_0_split <- Eltwise10
I0925 16:46:18.605087  3079 net.cpp:380] Eltwise10_penlu21_0_split -> Eltwise10_penlu21_0_split_0
I0925 16:46:18.605092  3079 net.cpp:380] Eltwise10_penlu21_0_split -> Eltwise10_penlu21_0_split_1
I0925 16:46:18.605115  3079 net.cpp:122] Setting up Eltwise10_penlu21_0_split
I0925 16:46:18.605118  3079 net.cpp:129] Top shape: 100 32 14 14 (627200)
I0925 16:46:18.605121  3079 net.cpp:129] Top shape: 100 32 14 14 (627200)
I0925 16:46:18.605123  3079 net.cpp:137] Memory required for data: 562912400
I0925 16:46:18.605125  3079 layer_factory.hpp:77] Creating layer Convolution23
I0925 16:46:18.605130  3079 net.cpp:84] Creating Layer Convolution23
I0925 16:46:18.605134  3079 net.cpp:406] Convolution23 <- Eltwise10_penlu21_0_split_0
I0925 16:46:18.605137  3079 net.cpp:380] Convolution23 -> Convolution23
I0925 16:46:18.606482  3079 net.cpp:122] Setting up Convolution23
I0925 16:46:18.606489  3079 net.cpp:129] Top shape: 100 32 14 14 (627200)
I0925 16:46:18.606492  3079 net.cpp:137] Memory required for data: 565421200
I0925 16:46:18.606498  3079 layer_factory.hpp:77] Creating layer BatchNorm23
I0925 16:46:18.606503  3079 net.cpp:84] Creating Layer BatchNorm23
I0925 16:46:18.606505  3079 net.cpp:406] BatchNorm23 <- Convolution23
I0925 16:46:18.606509  3079 net.cpp:367] BatchNorm23 -> Convolution23 (in-place)
I0925 16:46:18.606643  3079 net.cpp:122] Setting up BatchNorm23
I0925 16:46:18.606647  3079 net.cpp:129] Top shape: 100 32 14 14 (627200)
I0925 16:46:18.606649  3079 net.cpp:137] Memory required for data: 567930000
I0925 16:46:18.606655  3079 layer_factory.hpp:77] Creating layer Scale23
I0925 16:46:18.606659  3079 net.cpp:84] Creating Layer Scale23
I0925 16:46:18.606662  3079 net.cpp:406] Scale23 <- Convolution23
I0925 16:46:18.606665  3079 net.cpp:367] Scale23 -> Convolution23 (in-place)
I0925 16:46:18.606693  3079 layer_factory.hpp:77] Creating layer Scale23
I0925 16:46:18.606770  3079 net.cpp:122] Setting up Scale23
I0925 16:46:18.606775  3079 net.cpp:129] Top shape: 100 32 14 14 (627200)
I0925 16:46:18.606776  3079 net.cpp:137] Memory required for data: 570438800
I0925 16:46:18.606779  3079 layer_factory.hpp:77] Creating layer penlu22
I0925 16:46:18.606786  3079 net.cpp:84] Creating Layer penlu22
I0925 16:46:18.606787  3079 net.cpp:406] penlu22 <- Convolution23
I0925 16:46:18.606791  3079 net.cpp:367] penlu22 -> Convolution23 (in-place)
I0925 16:46:18.606894  3079 net.cpp:122] Setting up penlu22
I0925 16:46:18.606899  3079 net.cpp:129] Top shape: 100 32 14 14 (627200)
I0925 16:46:18.606900  3079 net.cpp:137] Memory required for data: 572947600
I0925 16:46:18.606905  3079 layer_factory.hpp:77] Creating layer Convolution24
I0925 16:46:18.606911  3079 net.cpp:84] Creating Layer Convolution24
I0925 16:46:18.606914  3079 net.cpp:406] Convolution24 <- Convolution23
I0925 16:46:18.606917  3079 net.cpp:380] Convolution24 -> Convolution24
I0925 16:46:18.607944  3079 net.cpp:122] Setting up Convolution24
I0925 16:46:18.607951  3079 net.cpp:129] Top shape: 100 32 14 14 (627200)
I0925 16:46:18.607954  3079 net.cpp:137] Memory required for data: 575456400
I0925 16:46:18.607959  3079 layer_factory.hpp:77] Creating layer BatchNorm24
I0925 16:46:18.607964  3079 net.cpp:84] Creating Layer BatchNorm24
I0925 16:46:18.607966  3079 net.cpp:406] BatchNorm24 <- Convolution24
I0925 16:46:18.607972  3079 net.cpp:367] BatchNorm24 -> Convolution24 (in-place)
I0925 16:46:18.608105  3079 net.cpp:122] Setting up BatchNorm24
I0925 16:46:18.608109  3079 net.cpp:129] Top shape: 100 32 14 14 (627200)
I0925 16:46:18.608111  3079 net.cpp:137] Memory required for data: 577965200
I0925 16:46:18.608116  3079 layer_factory.hpp:77] Creating layer Scale24
I0925 16:46:18.608121  3079 net.cpp:84] Creating Layer Scale24
I0925 16:46:18.608124  3079 net.cpp:406] Scale24 <- Convolution24
I0925 16:46:18.608126  3079 net.cpp:367] Scale24 -> Convolution24 (in-place)
I0925 16:46:18.608160  3079 layer_factory.hpp:77] Creating layer Scale24
I0925 16:46:18.608237  3079 net.cpp:122] Setting up Scale24
I0925 16:46:18.608242  3079 net.cpp:129] Top shape: 100 32 14 14 (627200)
I0925 16:46:18.608243  3079 net.cpp:137] Memory required for data: 580474000
I0925 16:46:18.608247  3079 layer_factory.hpp:77] Creating layer Eltwise11
I0925 16:46:18.608252  3079 net.cpp:84] Creating Layer Eltwise11
I0925 16:46:18.608254  3079 net.cpp:406] Eltwise11 <- Eltwise10_penlu21_0_split_1
I0925 16:46:18.608258  3079 net.cpp:406] Eltwise11 <- Convolution24
I0925 16:46:18.608260  3079 net.cpp:380] Eltwise11 -> Eltwise11
I0925 16:46:18.608276  3079 net.cpp:122] Setting up Eltwise11
I0925 16:46:18.608279  3079 net.cpp:129] Top shape: 100 32 14 14 (627200)
I0925 16:46:18.608281  3079 net.cpp:137] Memory required for data: 582982800
I0925 16:46:18.608283  3079 layer_factory.hpp:77] Creating layer penlu23
I0925 16:46:18.608289  3079 net.cpp:84] Creating Layer penlu23
I0925 16:46:18.608291  3079 net.cpp:406] penlu23 <- Eltwise11
I0925 16:46:18.608294  3079 net.cpp:367] penlu23 -> Eltwise11 (in-place)
I0925 16:46:18.608398  3079 net.cpp:122] Setting up penlu23
I0925 16:46:18.608402  3079 net.cpp:129] Top shape: 100 32 14 14 (627200)
I0925 16:46:18.608404  3079 net.cpp:137] Memory required for data: 585491600
I0925 16:46:18.608408  3079 layer_factory.hpp:77] Creating layer Eltwise11_penlu23_0_split
I0925 16:46:18.608412  3079 net.cpp:84] Creating Layer Eltwise11_penlu23_0_split
I0925 16:46:18.608414  3079 net.cpp:406] Eltwise11_penlu23_0_split <- Eltwise11
I0925 16:46:18.608417  3079 net.cpp:380] Eltwise11_penlu23_0_split -> Eltwise11_penlu23_0_split_0
I0925 16:46:18.608422  3079 net.cpp:380] Eltwise11_penlu23_0_split -> Eltwise11_penlu23_0_split_1
I0925 16:46:18.608445  3079 net.cpp:122] Setting up Eltwise11_penlu23_0_split
I0925 16:46:18.608449  3079 net.cpp:129] Top shape: 100 32 14 14 (627200)
I0925 16:46:18.608451  3079 net.cpp:129] Top shape: 100 32 14 14 (627200)
I0925 16:46:18.608453  3079 net.cpp:137] Memory required for data: 590509200
I0925 16:46:18.608455  3079 layer_factory.hpp:77] Creating layer Convolution25
I0925 16:46:18.608461  3079 net.cpp:84] Creating Layer Convolution25
I0925 16:46:18.608464  3079 net.cpp:406] Convolution25 <- Eltwise11_penlu23_0_split_0
I0925 16:46:18.608467  3079 net.cpp:380] Convolution25 -> Convolution25
I0925 16:46:18.609540  3079 net.cpp:122] Setting up Convolution25
I0925 16:46:18.609549  3079 net.cpp:129] Top shape: 100 32 14 14 (627200)
I0925 16:46:18.609552  3079 net.cpp:137] Memory required for data: 593018000
I0925 16:46:18.609556  3079 layer_factory.hpp:77] Creating layer BatchNorm25
I0925 16:46:18.609562  3079 net.cpp:84] Creating Layer BatchNorm25
I0925 16:46:18.609565  3079 net.cpp:406] BatchNorm25 <- Convolution25
I0925 16:46:18.609568  3079 net.cpp:367] BatchNorm25 -> Convolution25 (in-place)
I0925 16:46:18.609707  3079 net.cpp:122] Setting up BatchNorm25
I0925 16:46:18.609711  3079 net.cpp:129] Top shape: 100 32 14 14 (627200)
I0925 16:46:18.609714  3079 net.cpp:137] Memory required for data: 595526800
I0925 16:46:18.609719  3079 layer_factory.hpp:77] Creating layer Scale25
I0925 16:46:18.609724  3079 net.cpp:84] Creating Layer Scale25
I0925 16:46:18.609726  3079 net.cpp:406] Scale25 <- Convolution25
I0925 16:46:18.609730  3079 net.cpp:367] Scale25 -> Convolution25 (in-place)
I0925 16:46:18.609756  3079 layer_factory.hpp:77] Creating layer Scale25
I0925 16:46:18.609843  3079 net.cpp:122] Setting up Scale25
I0925 16:46:18.609846  3079 net.cpp:129] Top shape: 100 32 14 14 (627200)
I0925 16:46:18.609848  3079 net.cpp:137] Memory required for data: 598035600
I0925 16:46:18.609853  3079 layer_factory.hpp:77] Creating layer penlu24
I0925 16:46:18.609858  3079 net.cpp:84] Creating Layer penlu24
I0925 16:46:18.609860  3079 net.cpp:406] penlu24 <- Convolution25
I0925 16:46:18.609864  3079 net.cpp:367] penlu24 -> Convolution25 (in-place)
I0925 16:46:18.609980  3079 net.cpp:122] Setting up penlu24
I0925 16:46:18.609984  3079 net.cpp:129] Top shape: 100 32 14 14 (627200)
I0925 16:46:18.609993  3079 net.cpp:137] Memory required for data: 600544400
I0925 16:46:18.609997  3079 layer_factory.hpp:77] Creating layer Convolution26
I0925 16:46:18.610014  3079 net.cpp:84] Creating Layer Convolution26
I0925 16:46:18.610016  3079 net.cpp:406] Convolution26 <- Convolution25
I0925 16:46:18.610020  3079 net.cpp:380] Convolution26 -> Convolution26
I0925 16:46:18.611044  3079 net.cpp:122] Setting up Convolution26
I0925 16:46:18.611052  3079 net.cpp:129] Top shape: 100 32 14 14 (627200)
I0925 16:46:18.611055  3079 net.cpp:137] Memory required for data: 603053200
I0925 16:46:18.611059  3079 layer_factory.hpp:77] Creating layer BatchNorm26
I0925 16:46:18.611064  3079 net.cpp:84] Creating Layer BatchNorm26
I0925 16:46:18.611068  3079 net.cpp:406] BatchNorm26 <- Convolution26
I0925 16:46:18.611070  3079 net.cpp:367] BatchNorm26 -> Convolution26 (in-place)
I0925 16:46:18.611205  3079 net.cpp:122] Setting up BatchNorm26
I0925 16:46:18.611210  3079 net.cpp:129] Top shape: 100 32 14 14 (627200)
I0925 16:46:18.611212  3079 net.cpp:137] Memory required for data: 605562000
I0925 16:46:18.611217  3079 layer_factory.hpp:77] Creating layer Scale26
I0925 16:46:18.611220  3079 net.cpp:84] Creating Layer Scale26
I0925 16:46:18.611223  3079 net.cpp:406] Scale26 <- Convolution26
I0925 16:46:18.611227  3079 net.cpp:367] Scale26 -> Convolution26 (in-place)
I0925 16:46:18.611253  3079 layer_factory.hpp:77] Creating layer Scale26
I0925 16:46:18.611333  3079 net.cpp:122] Setting up Scale26
I0925 16:46:18.611337  3079 net.cpp:129] Top shape: 100 32 14 14 (627200)
I0925 16:46:18.611340  3079 net.cpp:137] Memory required for data: 608070800
I0925 16:46:18.611343  3079 layer_factory.hpp:77] Creating layer Eltwise12
I0925 16:46:18.611347  3079 net.cpp:84] Creating Layer Eltwise12
I0925 16:46:18.611349  3079 net.cpp:406] Eltwise12 <- Eltwise11_penlu23_0_split_1
I0925 16:46:18.611352  3079 net.cpp:406] Eltwise12 <- Convolution26
I0925 16:46:18.611356  3079 net.cpp:380] Eltwise12 -> Eltwise12
I0925 16:46:18.611372  3079 net.cpp:122] Setting up Eltwise12
I0925 16:46:18.611377  3079 net.cpp:129] Top shape: 100 32 14 14 (627200)
I0925 16:46:18.611378  3079 net.cpp:137] Memory required for data: 610579600
I0925 16:46:18.611380  3079 layer_factory.hpp:77] Creating layer penlu25
I0925 16:46:18.611385  3079 net.cpp:84] Creating Layer penlu25
I0925 16:46:18.611387  3079 net.cpp:406] penlu25 <- Eltwise12
I0925 16:46:18.611390  3079 net.cpp:367] penlu25 -> Eltwise12 (in-place)
I0925 16:46:18.611497  3079 net.cpp:122] Setting up penlu25
I0925 16:46:18.611501  3079 net.cpp:129] Top shape: 100 32 14 14 (627200)
I0925 16:46:18.611503  3079 net.cpp:137] Memory required for data: 613088400
I0925 16:46:18.611526  3079 layer_factory.hpp:77] Creating layer Eltwise12_penlu25_0_split
I0925 16:46:18.611536  3079 net.cpp:84] Creating Layer Eltwise12_penlu25_0_split
I0925 16:46:18.611539  3079 net.cpp:406] Eltwise12_penlu25_0_split <- Eltwise12
I0925 16:46:18.611543  3079 net.cpp:380] Eltwise12_penlu25_0_split -> Eltwise12_penlu25_0_split_0
I0925 16:46:18.611551  3079 net.cpp:380] Eltwise12_penlu25_0_split -> Eltwise12_penlu25_0_split_1
I0925 16:46:18.611577  3079 net.cpp:122] Setting up Eltwise12_penlu25_0_split
I0925 16:46:18.611580  3079 net.cpp:129] Top shape: 100 32 14 14 (627200)
I0925 16:46:18.611583  3079 net.cpp:129] Top shape: 100 32 14 14 (627200)
I0925 16:46:18.611584  3079 net.cpp:137] Memory required for data: 618106000
I0925 16:46:18.611588  3079 layer_factory.hpp:77] Creating layer Convolution27
I0925 16:46:18.611593  3079 net.cpp:84] Creating Layer Convolution27
I0925 16:46:18.611596  3079 net.cpp:406] Convolution27 <- Eltwise12_penlu25_0_split_0
I0925 16:46:18.611600  3079 net.cpp:380] Convolution27 -> Convolution27
I0925 16:46:18.612305  3079 net.cpp:122] Setting up Convolution27
I0925 16:46:18.612313  3079 net.cpp:129] Top shape: 100 32 14 14 (627200)
I0925 16:46:18.612314  3079 net.cpp:137] Memory required for data: 620614800
I0925 16:46:18.612318  3079 layer_factory.hpp:77] Creating layer BatchNorm27
I0925 16:46:18.612324  3079 net.cpp:84] Creating Layer BatchNorm27
I0925 16:46:18.612332  3079 net.cpp:406] BatchNorm27 <- Convolution27
I0925 16:46:18.612336  3079 net.cpp:367] BatchNorm27 -> Convolution27 (in-place)
I0925 16:46:18.612473  3079 net.cpp:122] Setting up BatchNorm27
I0925 16:46:18.612478  3079 net.cpp:129] Top shape: 100 32 14 14 (627200)
I0925 16:46:18.612479  3079 net.cpp:137] Memory required for data: 623123600
I0925 16:46:18.612484  3079 layer_factory.hpp:77] Creating layer Scale27
I0925 16:46:18.612488  3079 net.cpp:84] Creating Layer Scale27
I0925 16:46:18.612491  3079 net.cpp:406] Scale27 <- Convolution27
I0925 16:46:18.612509  3079 net.cpp:367] Scale27 -> Convolution27 (in-place)
I0925 16:46:18.612548  3079 layer_factory.hpp:77] Creating layer Scale27
I0925 16:46:18.612627  3079 net.cpp:122] Setting up Scale27
I0925 16:46:18.612630  3079 net.cpp:129] Top shape: 100 32 14 14 (627200)
I0925 16:46:18.612632  3079 net.cpp:137] Memory required for data: 625632400
I0925 16:46:18.612637  3079 layer_factory.hpp:77] Creating layer penlu26
I0925 16:46:18.612643  3079 net.cpp:84] Creating Layer penlu26
I0925 16:46:18.612645  3079 net.cpp:406] penlu26 <- Convolution27
I0925 16:46:18.612648  3079 net.cpp:367] penlu26 -> Convolution27 (in-place)
I0925 16:46:18.612756  3079 net.cpp:122] Setting up penlu26
I0925 16:46:18.612761  3079 net.cpp:129] Top shape: 100 32 14 14 (627200)
I0925 16:46:18.612762  3079 net.cpp:137] Memory required for data: 628141200
I0925 16:46:18.612766  3079 layer_factory.hpp:77] Creating layer Convolution28
I0925 16:46:18.612773  3079 net.cpp:84] Creating Layer Convolution28
I0925 16:46:18.612776  3079 net.cpp:406] Convolution28 <- Convolution27
I0925 16:46:18.612779  3079 net.cpp:380] Convolution28 -> Convolution28
I0925 16:46:18.613795  3079 net.cpp:122] Setting up Convolution28
I0925 16:46:18.613803  3079 net.cpp:129] Top shape: 100 32 14 14 (627200)
I0925 16:46:18.613806  3079 net.cpp:137] Memory required for data: 630650000
I0925 16:46:18.613811  3079 layer_factory.hpp:77] Creating layer BatchNorm28
I0925 16:46:18.613816  3079 net.cpp:84] Creating Layer BatchNorm28
I0925 16:46:18.613818  3079 net.cpp:406] BatchNorm28 <- Convolution28
I0925 16:46:18.613822  3079 net.cpp:367] BatchNorm28 -> Convolution28 (in-place)
I0925 16:46:18.613955  3079 net.cpp:122] Setting up BatchNorm28
I0925 16:46:18.613960  3079 net.cpp:129] Top shape: 100 32 14 14 (627200)
I0925 16:46:18.613962  3079 net.cpp:137] Memory required for data: 633158800
I0925 16:46:18.613967  3079 layer_factory.hpp:77] Creating layer Scale28
I0925 16:46:18.613970  3079 net.cpp:84] Creating Layer Scale28
I0925 16:46:18.613973  3079 net.cpp:406] Scale28 <- Convolution28
I0925 16:46:18.613976  3079 net.cpp:367] Scale28 -> Convolution28 (in-place)
I0925 16:46:18.614002  3079 layer_factory.hpp:77] Creating layer Scale28
I0925 16:46:18.614079  3079 net.cpp:122] Setting up Scale28
I0925 16:46:18.614084  3079 net.cpp:129] Top shape: 100 32 14 14 (627200)
I0925 16:46:18.614085  3079 net.cpp:137] Memory required for data: 635667600
I0925 16:46:18.614089  3079 layer_factory.hpp:77] Creating layer Eltwise13
I0925 16:46:18.614094  3079 net.cpp:84] Creating Layer Eltwise13
I0925 16:46:18.614095  3079 net.cpp:406] Eltwise13 <- Eltwise12_penlu25_0_split_1
I0925 16:46:18.614099  3079 net.cpp:406] Eltwise13 <- Convolution28
I0925 16:46:18.614102  3079 net.cpp:380] Eltwise13 -> Eltwise13
I0925 16:46:18.614118  3079 net.cpp:122] Setting up Eltwise13
I0925 16:46:18.614122  3079 net.cpp:129] Top shape: 100 32 14 14 (627200)
I0925 16:46:18.614125  3079 net.cpp:137] Memory required for data: 638176400
I0925 16:46:18.614126  3079 layer_factory.hpp:77] Creating layer penlu27
I0925 16:46:18.614132  3079 net.cpp:84] Creating Layer penlu27
I0925 16:46:18.614135  3079 net.cpp:406] penlu27 <- Eltwise13
I0925 16:46:18.614137  3079 net.cpp:367] penlu27 -> Eltwise13 (in-place)
I0925 16:46:18.614245  3079 net.cpp:122] Setting up penlu27
I0925 16:46:18.614249  3079 net.cpp:129] Top shape: 100 32 14 14 (627200)
I0925 16:46:18.614251  3079 net.cpp:137] Memory required for data: 640685200
I0925 16:46:18.614255  3079 layer_factory.hpp:77] Creating layer Eltwise13_penlu27_0_split
I0925 16:46:18.614265  3079 net.cpp:84] Creating Layer Eltwise13_penlu27_0_split
I0925 16:46:18.614267  3079 net.cpp:406] Eltwise13_penlu27_0_split <- Eltwise13
I0925 16:46:18.614271  3079 net.cpp:380] Eltwise13_penlu27_0_split -> Eltwise13_penlu27_0_split_0
I0925 16:46:18.614275  3079 net.cpp:380] Eltwise13_penlu27_0_split -> Eltwise13_penlu27_0_split_1
I0925 16:46:18.614300  3079 net.cpp:122] Setting up Eltwise13_penlu27_0_split
I0925 16:46:18.614303  3079 net.cpp:129] Top shape: 100 32 14 14 (627200)
I0925 16:46:18.614306  3079 net.cpp:129] Top shape: 100 32 14 14 (627200)
I0925 16:46:18.614307  3079 net.cpp:137] Memory required for data: 645702800
I0925 16:46:18.614310  3079 layer_factory.hpp:77] Creating layer Convolution29
I0925 16:46:18.614315  3079 net.cpp:84] Creating Layer Convolution29
I0925 16:46:18.614318  3079 net.cpp:406] Convolution29 <- Eltwise13_penlu27_0_split_0
I0925 16:46:18.614322  3079 net.cpp:380] Convolution29 -> Convolution29
I0925 16:46:18.615350  3079 net.cpp:122] Setting up Convolution29
I0925 16:46:18.615360  3079 net.cpp:129] Top shape: 100 32 14 14 (627200)
I0925 16:46:18.615361  3079 net.cpp:137] Memory required for data: 648211600
I0925 16:46:18.615366  3079 layer_factory.hpp:77] Creating layer BatchNorm29
I0925 16:46:18.615371  3079 net.cpp:84] Creating Layer BatchNorm29
I0925 16:46:18.615373  3079 net.cpp:406] BatchNorm29 <- Convolution29
I0925 16:46:18.615377  3079 net.cpp:367] BatchNorm29 -> Convolution29 (in-place)
I0925 16:46:18.615511  3079 net.cpp:122] Setting up BatchNorm29
I0925 16:46:18.615515  3079 net.cpp:129] Top shape: 100 32 14 14 (627200)
I0925 16:46:18.615517  3079 net.cpp:137] Memory required for data: 650720400
I0925 16:46:18.615522  3079 layer_factory.hpp:77] Creating layer Scale29
I0925 16:46:18.615525  3079 net.cpp:84] Creating Layer Scale29
I0925 16:46:18.615528  3079 net.cpp:406] Scale29 <- Convolution29
I0925 16:46:18.615532  3079 net.cpp:367] Scale29 -> Convolution29 (in-place)
I0925 16:46:18.615559  3079 layer_factory.hpp:77] Creating layer Scale29
I0925 16:46:18.615636  3079 net.cpp:122] Setting up Scale29
I0925 16:46:18.615641  3079 net.cpp:129] Top shape: 100 32 14 14 (627200)
I0925 16:46:18.615643  3079 net.cpp:137] Memory required for data: 653229200
I0925 16:46:18.615648  3079 layer_factory.hpp:77] Creating layer penlu28
I0925 16:46:18.615653  3079 net.cpp:84] Creating Layer penlu28
I0925 16:46:18.615654  3079 net.cpp:406] penlu28 <- Convolution29
I0925 16:46:18.615658  3079 net.cpp:367] penlu28 -> Convolution29 (in-place)
I0925 16:46:18.615764  3079 net.cpp:122] Setting up penlu28
I0925 16:46:18.615769  3079 net.cpp:129] Top shape: 100 32 14 14 (627200)
I0925 16:46:18.615772  3079 net.cpp:137] Memory required for data: 655738000
I0925 16:46:18.615775  3079 layer_factory.hpp:77] Creating layer Convolution30
I0925 16:46:18.615782  3079 net.cpp:84] Creating Layer Convolution30
I0925 16:46:18.615785  3079 net.cpp:406] Convolution30 <- Convolution29
I0925 16:46:18.615789  3079 net.cpp:380] Convolution30 -> Convolution30
I0925 16:46:18.616858  3079 net.cpp:122] Setting up Convolution30
I0925 16:46:18.616868  3079 net.cpp:129] Top shape: 100 32 14 14 (627200)
I0925 16:46:18.616871  3079 net.cpp:137] Memory required for data: 658246800
I0925 16:46:18.616875  3079 layer_factory.hpp:77] Creating layer BatchNorm30
I0925 16:46:18.616879  3079 net.cpp:84] Creating Layer BatchNorm30
I0925 16:46:18.616883  3079 net.cpp:406] BatchNorm30 <- Convolution30
I0925 16:46:18.616886  3079 net.cpp:367] BatchNorm30 -> Convolution30 (in-place)
I0925 16:46:18.617020  3079 net.cpp:122] Setting up BatchNorm30
I0925 16:46:18.617025  3079 net.cpp:129] Top shape: 100 32 14 14 (627200)
I0925 16:46:18.617027  3079 net.cpp:137] Memory required for data: 660755600
I0925 16:46:18.617033  3079 layer_factory.hpp:77] Creating layer Scale30
I0925 16:46:18.617035  3079 net.cpp:84] Creating Layer Scale30
I0925 16:46:18.617038  3079 net.cpp:406] Scale30 <- Convolution30
I0925 16:46:18.617041  3079 net.cpp:367] Scale30 -> Convolution30 (in-place)
I0925 16:46:18.617076  3079 layer_factory.hpp:77] Creating layer Scale30
I0925 16:46:18.617154  3079 net.cpp:122] Setting up Scale30
I0925 16:46:18.617159  3079 net.cpp:129] Top shape: 100 32 14 14 (627200)
I0925 16:46:18.617161  3079 net.cpp:137] Memory required for data: 663264400
I0925 16:46:18.617164  3079 layer_factory.hpp:77] Creating layer Eltwise14
I0925 16:46:18.617168  3079 net.cpp:84] Creating Layer Eltwise14
I0925 16:46:18.617172  3079 net.cpp:406] Eltwise14 <- Eltwise13_penlu27_0_split_1
I0925 16:46:18.617173  3079 net.cpp:406] Eltwise14 <- Convolution30
I0925 16:46:18.617177  3079 net.cpp:380] Eltwise14 -> Eltwise14
I0925 16:46:18.617193  3079 net.cpp:122] Setting up Eltwise14
I0925 16:46:18.617197  3079 net.cpp:129] Top shape: 100 32 14 14 (627200)
I0925 16:46:18.617199  3079 net.cpp:137] Memory required for data: 665773200
I0925 16:46:18.617200  3079 layer_factory.hpp:77] Creating layer penlu29
I0925 16:46:18.617207  3079 net.cpp:84] Creating Layer penlu29
I0925 16:46:18.617208  3079 net.cpp:406] penlu29 <- Eltwise14
I0925 16:46:18.617213  3079 net.cpp:367] penlu29 -> Eltwise14 (in-place)
I0925 16:46:18.617321  3079 net.cpp:122] Setting up penlu29
I0925 16:46:18.617326  3079 net.cpp:129] Top shape: 100 32 14 14 (627200)
I0925 16:46:18.617327  3079 net.cpp:137] Memory required for data: 668282000
I0925 16:46:18.617331  3079 layer_factory.hpp:77] Creating layer Eltwise14_penlu29_0_split
I0925 16:46:18.617336  3079 net.cpp:84] Creating Layer Eltwise14_penlu29_0_split
I0925 16:46:18.617337  3079 net.cpp:406] Eltwise14_penlu29_0_split <- Eltwise14
I0925 16:46:18.617341  3079 net.cpp:380] Eltwise14_penlu29_0_split -> Eltwise14_penlu29_0_split_0
I0925 16:46:18.617346  3079 net.cpp:380] Eltwise14_penlu29_0_split -> Eltwise14_penlu29_0_split_1
I0925 16:46:18.617369  3079 net.cpp:122] Setting up Eltwise14_penlu29_0_split
I0925 16:46:18.617373  3079 net.cpp:129] Top shape: 100 32 14 14 (627200)
I0925 16:46:18.617375  3079 net.cpp:129] Top shape: 100 32 14 14 (627200)
I0925 16:46:18.617377  3079 net.cpp:137] Memory required for data: 673299600
I0925 16:46:18.617379  3079 layer_factory.hpp:77] Creating layer Convolution31
I0925 16:46:18.617385  3079 net.cpp:84] Creating Layer Convolution31
I0925 16:46:18.617388  3079 net.cpp:406] Convolution31 <- Eltwise14_penlu29_0_split_0
I0925 16:46:18.617393  3079 net.cpp:380] Convolution31 -> Convolution31
I0925 16:46:18.618420  3079 net.cpp:122] Setting up Convolution31
I0925 16:46:18.618430  3079 net.cpp:129] Top shape: 100 32 14 14 (627200)
I0925 16:46:18.618433  3079 net.cpp:137] Memory required for data: 675808400
I0925 16:46:18.618438  3079 layer_factory.hpp:77] Creating layer BatchNorm31
I0925 16:46:18.618441  3079 net.cpp:84] Creating Layer BatchNorm31
I0925 16:46:18.618444  3079 net.cpp:406] BatchNorm31 <- Convolution31
I0925 16:46:18.618448  3079 net.cpp:367] BatchNorm31 -> Convolution31 (in-place)
I0925 16:46:18.618585  3079 net.cpp:122] Setting up BatchNorm31
I0925 16:46:18.618589  3079 net.cpp:129] Top shape: 100 32 14 14 (627200)
I0925 16:46:18.618592  3079 net.cpp:137] Memory required for data: 678317200
I0925 16:46:18.618597  3079 layer_factory.hpp:77] Creating layer Scale31
I0925 16:46:18.618600  3079 net.cpp:84] Creating Layer Scale31
I0925 16:46:18.618603  3079 net.cpp:406] Scale31 <- Convolution31
I0925 16:46:18.618607  3079 net.cpp:367] Scale31 -> Convolution31 (in-place)
I0925 16:46:18.618633  3079 layer_factory.hpp:77] Creating layer Scale31
I0925 16:46:18.618710  3079 net.cpp:122] Setting up Scale31
I0925 16:46:18.618715  3079 net.cpp:129] Top shape: 100 32 14 14 (627200)
I0925 16:46:18.618716  3079 net.cpp:137] Memory required for data: 680826000
I0925 16:46:18.618721  3079 layer_factory.hpp:77] Creating layer penlu30
I0925 16:46:18.618726  3079 net.cpp:84] Creating Layer penlu30
I0925 16:46:18.618727  3079 net.cpp:406] penlu30 <- Convolution31
I0925 16:46:18.618731  3079 net.cpp:367] penlu30 -> Convolution31 (in-place)
I0925 16:46:18.618839  3079 net.cpp:122] Setting up penlu30
I0925 16:46:18.618842  3079 net.cpp:129] Top shape: 100 32 14 14 (627200)
I0925 16:46:18.618851  3079 net.cpp:137] Memory required for data: 683334800
I0925 16:46:18.618855  3079 layer_factory.hpp:77] Creating layer Convolution32
I0925 16:46:18.618862  3079 net.cpp:84] Creating Layer Convolution32
I0925 16:46:18.618865  3079 net.cpp:406] Convolution32 <- Convolution31
I0925 16:46:18.618870  3079 net.cpp:380] Convolution32 -> Convolution32
I0925 16:46:18.619904  3079 net.cpp:122] Setting up Convolution32
I0925 16:46:18.619913  3079 net.cpp:129] Top shape: 100 32 14 14 (627200)
I0925 16:46:18.619915  3079 net.cpp:137] Memory required for data: 685843600
I0925 16:46:18.619920  3079 layer_factory.hpp:77] Creating layer BatchNorm32
I0925 16:46:18.619925  3079 net.cpp:84] Creating Layer BatchNorm32
I0925 16:46:18.619927  3079 net.cpp:406] BatchNorm32 <- Convolution32
I0925 16:46:18.619931  3079 net.cpp:367] BatchNorm32 -> Convolution32 (in-place)
I0925 16:46:18.620067  3079 net.cpp:122] Setting up BatchNorm32
I0925 16:46:18.620071  3079 net.cpp:129] Top shape: 100 32 14 14 (627200)
I0925 16:46:18.620074  3079 net.cpp:137] Memory required for data: 688352400
I0925 16:46:18.620079  3079 layer_factory.hpp:77] Creating layer Scale32
I0925 16:46:18.620082  3079 net.cpp:84] Creating Layer Scale32
I0925 16:46:18.620085  3079 net.cpp:406] Scale32 <- Convolution32
I0925 16:46:18.620087  3079 net.cpp:367] Scale32 -> Convolution32 (in-place)
I0925 16:46:18.620115  3079 layer_factory.hpp:77] Creating layer Scale32
I0925 16:46:18.620194  3079 net.cpp:122] Setting up Scale32
I0925 16:46:18.620199  3079 net.cpp:129] Top shape: 100 32 14 14 (627200)
I0925 16:46:18.620201  3079 net.cpp:137] Memory required for data: 690861200
I0925 16:46:18.620205  3079 layer_factory.hpp:77] Creating layer Eltwise15
I0925 16:46:18.620209  3079 net.cpp:84] Creating Layer Eltwise15
I0925 16:46:18.620211  3079 net.cpp:406] Eltwise15 <- Eltwise14_penlu29_0_split_1
I0925 16:46:18.620214  3079 net.cpp:406] Eltwise15 <- Convolution32
I0925 16:46:18.620218  3079 net.cpp:380] Eltwise15 -> Eltwise15
I0925 16:46:18.620234  3079 net.cpp:122] Setting up Eltwise15
I0925 16:46:18.620239  3079 net.cpp:129] Top shape: 100 32 14 14 (627200)
I0925 16:46:18.620240  3079 net.cpp:137] Memory required for data: 693370000
I0925 16:46:18.620242  3079 layer_factory.hpp:77] Creating layer penlu31
I0925 16:46:18.620247  3079 net.cpp:84] Creating Layer penlu31
I0925 16:46:18.620249  3079 net.cpp:406] penlu31 <- Eltwise15
I0925 16:46:18.620254  3079 net.cpp:367] penlu31 -> Eltwise15 (in-place)
I0925 16:46:18.620362  3079 net.cpp:122] Setting up penlu31
I0925 16:46:18.620367  3079 net.cpp:129] Top shape: 100 32 14 14 (627200)
I0925 16:46:18.620368  3079 net.cpp:137] Memory required for data: 695878800
I0925 16:46:18.620373  3079 layer_factory.hpp:77] Creating layer Eltwise15_penlu31_0_split
I0925 16:46:18.620378  3079 net.cpp:84] Creating Layer Eltwise15_penlu31_0_split
I0925 16:46:18.620379  3079 net.cpp:406] Eltwise15_penlu31_0_split <- Eltwise15
I0925 16:46:18.620383  3079 net.cpp:380] Eltwise15_penlu31_0_split -> Eltwise15_penlu31_0_split_0
I0925 16:46:18.620388  3079 net.cpp:380] Eltwise15_penlu31_0_split -> Eltwise15_penlu31_0_split_1
I0925 16:46:18.620409  3079 net.cpp:122] Setting up Eltwise15_penlu31_0_split
I0925 16:46:18.620414  3079 net.cpp:129] Top shape: 100 32 14 14 (627200)
I0925 16:46:18.620416  3079 net.cpp:129] Top shape: 100 32 14 14 (627200)
I0925 16:46:18.620417  3079 net.cpp:137] Memory required for data: 700896400
I0925 16:46:18.620419  3079 layer_factory.hpp:77] Creating layer Convolution33
I0925 16:46:18.620425  3079 net.cpp:84] Creating Layer Convolution33
I0925 16:46:18.620427  3079 net.cpp:406] Convolution33 <- Eltwise15_penlu31_0_split_0
I0925 16:46:18.620431  3079 net.cpp:380] Convolution33 -> Convolution33
I0925 16:46:18.621822  3079 net.cpp:122] Setting up Convolution33
I0925 16:46:18.621830  3079 net.cpp:129] Top shape: 100 32 14 14 (627200)
I0925 16:46:18.621834  3079 net.cpp:137] Memory required for data: 703405200
I0925 16:46:18.621837  3079 layer_factory.hpp:77] Creating layer BatchNorm33
I0925 16:46:18.621843  3079 net.cpp:84] Creating Layer BatchNorm33
I0925 16:46:18.621852  3079 net.cpp:406] BatchNorm33 <- Convolution33
I0925 16:46:18.621856  3079 net.cpp:367] BatchNorm33 -> Convolution33 (in-place)
I0925 16:46:18.621997  3079 net.cpp:122] Setting up BatchNorm33
I0925 16:46:18.622002  3079 net.cpp:129] Top shape: 100 32 14 14 (627200)
I0925 16:46:18.622004  3079 net.cpp:137] Memory required for data: 705914000
I0925 16:46:18.622009  3079 layer_factory.hpp:77] Creating layer Scale33
I0925 16:46:18.622015  3079 net.cpp:84] Creating Layer Scale33
I0925 16:46:18.622017  3079 net.cpp:406] Scale33 <- Convolution33
I0925 16:46:18.622021  3079 net.cpp:367] Scale33 -> Convolution33 (in-place)
I0925 16:46:18.622048  3079 layer_factory.hpp:77] Creating layer Scale33
I0925 16:46:18.622128  3079 net.cpp:122] Setting up Scale33
I0925 16:46:18.622133  3079 net.cpp:129] Top shape: 100 32 14 14 (627200)
I0925 16:46:18.622134  3079 net.cpp:137] Memory required for data: 708422800
I0925 16:46:18.622138  3079 layer_factory.hpp:77] Creating layer penlu32
I0925 16:46:18.622144  3079 net.cpp:84] Creating Layer penlu32
I0925 16:46:18.622146  3079 net.cpp:406] penlu32 <- Convolution33
I0925 16:46:18.622150  3079 net.cpp:367] penlu32 -> Convolution33 (in-place)
I0925 16:46:18.622258  3079 net.cpp:122] Setting up penlu32
I0925 16:46:18.622262  3079 net.cpp:129] Top shape: 100 32 14 14 (627200)
I0925 16:46:18.622264  3079 net.cpp:137] Memory required for data: 710931600
I0925 16:46:18.622269  3079 layer_factory.hpp:77] Creating layer Convolution34
I0925 16:46:18.622275  3079 net.cpp:84] Creating Layer Convolution34
I0925 16:46:18.622278  3079 net.cpp:406] Convolution34 <- Convolution33
I0925 16:46:18.622282  3079 net.cpp:380] Convolution34 -> Convolution34
I0925 16:46:18.623327  3079 net.cpp:122] Setting up Convolution34
I0925 16:46:18.623334  3079 net.cpp:129] Top shape: 100 32 14 14 (627200)
I0925 16:46:18.623337  3079 net.cpp:137] Memory required for data: 713440400
I0925 16:46:18.623342  3079 layer_factory.hpp:77] Creating layer BatchNorm34
I0925 16:46:18.623347  3079 net.cpp:84] Creating Layer BatchNorm34
I0925 16:46:18.623349  3079 net.cpp:406] BatchNorm34 <- Convolution34
I0925 16:46:18.623353  3079 net.cpp:367] BatchNorm34 -> Convolution34 (in-place)
I0925 16:46:18.623489  3079 net.cpp:122] Setting up BatchNorm34
I0925 16:46:18.623493  3079 net.cpp:129] Top shape: 100 32 14 14 (627200)
I0925 16:46:18.623495  3079 net.cpp:137] Memory required for data: 715949200
I0925 16:46:18.623500  3079 layer_factory.hpp:77] Creating layer Scale34
I0925 16:46:18.623504  3079 net.cpp:84] Creating Layer Scale34
I0925 16:46:18.623507  3079 net.cpp:406] Scale34 <- Convolution34
I0925 16:46:18.623510  3079 net.cpp:367] Scale34 -> Convolution34 (in-place)
I0925 16:46:18.623538  3079 layer_factory.hpp:77] Creating layer Scale34
I0925 16:46:18.623615  3079 net.cpp:122] Setting up Scale34
I0925 16:46:18.623618  3079 net.cpp:129] Top shape: 100 32 14 14 (627200)
I0925 16:46:18.623620  3079 net.cpp:137] Memory required for data: 718458000
I0925 16:46:18.623625  3079 layer_factory.hpp:77] Creating layer Eltwise16
I0925 16:46:18.623631  3079 net.cpp:84] Creating Layer Eltwise16
I0925 16:46:18.623632  3079 net.cpp:406] Eltwise16 <- Eltwise15_penlu31_0_split_1
I0925 16:46:18.623636  3079 net.cpp:406] Eltwise16 <- Convolution34
I0925 16:46:18.623638  3079 net.cpp:380] Eltwise16 -> Eltwise16
I0925 16:46:18.623656  3079 net.cpp:122] Setting up Eltwise16
I0925 16:46:18.623658  3079 net.cpp:129] Top shape: 100 32 14 14 (627200)
I0925 16:46:18.623661  3079 net.cpp:137] Memory required for data: 720966800
I0925 16:46:18.623662  3079 layer_factory.hpp:77] Creating layer penlu33
I0925 16:46:18.623667  3079 net.cpp:84] Creating Layer penlu33
I0925 16:46:18.623670  3079 net.cpp:406] penlu33 <- Eltwise16
I0925 16:46:18.623673  3079 net.cpp:367] penlu33 -> Eltwise16 (in-place)
I0925 16:46:18.623780  3079 net.cpp:122] Setting up penlu33
I0925 16:46:18.623785  3079 net.cpp:129] Top shape: 100 32 14 14 (627200)
I0925 16:46:18.623786  3079 net.cpp:137] Memory required for data: 723475600
I0925 16:46:18.623797  3079 layer_factory.hpp:77] Creating layer Eltwise16_penlu33_0_split
I0925 16:46:18.623801  3079 net.cpp:84] Creating Layer Eltwise16_penlu33_0_split
I0925 16:46:18.623803  3079 net.cpp:406] Eltwise16_penlu33_0_split <- Eltwise16
I0925 16:46:18.623806  3079 net.cpp:380] Eltwise16_penlu33_0_split -> Eltwise16_penlu33_0_split_0
I0925 16:46:18.623811  3079 net.cpp:380] Eltwise16_penlu33_0_split -> Eltwise16_penlu33_0_split_1
I0925 16:46:18.623834  3079 net.cpp:122] Setting up Eltwise16_penlu33_0_split
I0925 16:46:18.623838  3079 net.cpp:129] Top shape: 100 32 14 14 (627200)
I0925 16:46:18.623842  3079 net.cpp:129] Top shape: 100 32 14 14 (627200)
I0925 16:46:18.623842  3079 net.cpp:137] Memory required for data: 728493200
I0925 16:46:18.623844  3079 layer_factory.hpp:77] Creating layer Convolution35
I0925 16:46:18.623852  3079 net.cpp:84] Creating Layer Convolution35
I0925 16:46:18.623853  3079 net.cpp:406] Convolution35 <- Eltwise16_penlu33_0_split_0
I0925 16:46:18.623857  3079 net.cpp:380] Convolution35 -> Convolution35
I0925 16:46:18.624940  3079 net.cpp:122] Setting up Convolution35
I0925 16:46:18.624948  3079 net.cpp:129] Top shape: 100 32 14 14 (627200)
I0925 16:46:18.624951  3079 net.cpp:137] Memory required for data: 731002000
I0925 16:46:18.624955  3079 layer_factory.hpp:77] Creating layer BatchNorm35
I0925 16:46:18.624960  3079 net.cpp:84] Creating Layer BatchNorm35
I0925 16:46:18.624963  3079 net.cpp:406] BatchNorm35 <- Convolution35
I0925 16:46:18.624966  3079 net.cpp:367] BatchNorm35 -> Convolution35 (in-place)
I0925 16:46:18.625104  3079 net.cpp:122] Setting up BatchNorm35
I0925 16:46:18.625108  3079 net.cpp:129] Top shape: 100 32 14 14 (627200)
I0925 16:46:18.625110  3079 net.cpp:137] Memory required for data: 733510800
I0925 16:46:18.625115  3079 layer_factory.hpp:77] Creating layer Scale35
I0925 16:46:18.625120  3079 net.cpp:84] Creating Layer Scale35
I0925 16:46:18.625123  3079 net.cpp:406] Scale35 <- Convolution35
I0925 16:46:18.625125  3079 net.cpp:367] Scale35 -> Convolution35 (in-place)
I0925 16:46:18.625154  3079 layer_factory.hpp:77] Creating layer Scale35
I0925 16:46:18.625232  3079 net.cpp:122] Setting up Scale35
I0925 16:46:18.625237  3079 net.cpp:129] Top shape: 100 32 14 14 (627200)
I0925 16:46:18.625239  3079 net.cpp:137] Memory required for data: 736019600
I0925 16:46:18.625242  3079 layer_factory.hpp:77] Creating layer penlu34
I0925 16:46:18.625248  3079 net.cpp:84] Creating Layer penlu34
I0925 16:46:18.625250  3079 net.cpp:406] penlu34 <- Convolution35
I0925 16:46:18.625254  3079 net.cpp:367] penlu34 -> Convolution35 (in-place)
I0925 16:46:18.625365  3079 net.cpp:122] Setting up penlu34
I0925 16:46:18.625368  3079 net.cpp:129] Top shape: 100 32 14 14 (627200)
I0925 16:46:18.625370  3079 net.cpp:137] Memory required for data: 738528400
I0925 16:46:18.625375  3079 layer_factory.hpp:77] Creating layer Convolution36
I0925 16:46:18.625381  3079 net.cpp:84] Creating Layer Convolution36
I0925 16:46:18.625383  3079 net.cpp:406] Convolution36 <- Convolution35
I0925 16:46:18.625387  3079 net.cpp:380] Convolution36 -> Convolution36
I0925 16:46:18.626423  3079 net.cpp:122] Setting up Convolution36
I0925 16:46:18.626432  3079 net.cpp:129] Top shape: 100 32 14 14 (627200)
I0925 16:46:18.626435  3079 net.cpp:137] Memory required for data: 741037200
I0925 16:46:18.626438  3079 layer_factory.hpp:77] Creating layer BatchNorm36
I0925 16:46:18.626443  3079 net.cpp:84] Creating Layer BatchNorm36
I0925 16:46:18.626446  3079 net.cpp:406] BatchNorm36 <- Convolution36
I0925 16:46:18.626451  3079 net.cpp:367] BatchNorm36 -> Convolution36 (in-place)
I0925 16:46:18.626586  3079 net.cpp:122] Setting up BatchNorm36
I0925 16:46:18.626590  3079 net.cpp:129] Top shape: 100 32 14 14 (627200)
I0925 16:46:18.626592  3079 net.cpp:137] Memory required for data: 743546000
I0925 16:46:18.626597  3079 layer_factory.hpp:77] Creating layer Scale36
I0925 16:46:18.626601  3079 net.cpp:84] Creating Layer Scale36
I0925 16:46:18.626603  3079 net.cpp:406] Scale36 <- Convolution36
I0925 16:46:18.626606  3079 net.cpp:367] Scale36 -> Convolution36 (in-place)
I0925 16:46:18.626642  3079 layer_factory.hpp:77] Creating layer Scale36
I0925 16:46:18.626721  3079 net.cpp:122] Setting up Scale36
I0925 16:46:18.626725  3079 net.cpp:129] Top shape: 100 32 14 14 (627200)
I0925 16:46:18.626727  3079 net.cpp:137] Memory required for data: 746054800
I0925 16:46:18.626731  3079 layer_factory.hpp:77] Creating layer Eltwise17
I0925 16:46:18.626735  3079 net.cpp:84] Creating Layer Eltwise17
I0925 16:46:18.626737  3079 net.cpp:406] Eltwise17 <- Eltwise16_penlu33_0_split_1
I0925 16:46:18.626740  3079 net.cpp:406] Eltwise17 <- Convolution36
I0925 16:46:18.626744  3079 net.cpp:380] Eltwise17 -> Eltwise17
I0925 16:46:18.626760  3079 net.cpp:122] Setting up Eltwise17
I0925 16:46:18.626765  3079 net.cpp:129] Top shape: 100 32 14 14 (627200)
I0925 16:46:18.626766  3079 net.cpp:137] Memory required for data: 748563600
I0925 16:46:18.626768  3079 layer_factory.hpp:77] Creating layer penlu35
I0925 16:46:18.626773  3079 net.cpp:84] Creating Layer penlu35
I0925 16:46:18.626776  3079 net.cpp:406] penlu35 <- Eltwise17
I0925 16:46:18.626780  3079 net.cpp:367] penlu35 -> Eltwise17 (in-place)
I0925 16:46:18.626890  3079 net.cpp:122] Setting up penlu35
I0925 16:46:18.626894  3079 net.cpp:129] Top shape: 100 32 14 14 (627200)
I0925 16:46:18.626896  3079 net.cpp:137] Memory required for data: 751072400
I0925 16:46:18.626901  3079 layer_factory.hpp:77] Creating layer Eltwise17_penlu35_0_split
I0925 16:46:18.626904  3079 net.cpp:84] Creating Layer Eltwise17_penlu35_0_split
I0925 16:46:18.626906  3079 net.cpp:406] Eltwise17_penlu35_0_split <- Eltwise17
I0925 16:46:18.626910  3079 net.cpp:380] Eltwise17_penlu35_0_split -> Eltwise17_penlu35_0_split_0
I0925 16:46:18.626914  3079 net.cpp:380] Eltwise17_penlu35_0_split -> Eltwise17_penlu35_0_split_1
I0925 16:46:18.626937  3079 net.cpp:122] Setting up Eltwise17_penlu35_0_split
I0925 16:46:18.626941  3079 net.cpp:129] Top shape: 100 32 14 14 (627200)
I0925 16:46:18.626945  3079 net.cpp:129] Top shape: 100 32 14 14 (627200)
I0925 16:46:18.626945  3079 net.cpp:137] Memory required for data: 756090000
I0925 16:46:18.626948  3079 layer_factory.hpp:77] Creating layer Convolution37
I0925 16:46:18.626953  3079 net.cpp:84] Creating Layer Convolution37
I0925 16:46:18.626955  3079 net.cpp:406] Convolution37 <- Eltwise17_penlu35_0_split_0
I0925 16:46:18.626960  3079 net.cpp:380] Convolution37 -> Convolution37
I0925 16:46:18.627673  3079 net.cpp:122] Setting up Convolution37
I0925 16:46:18.627681  3079 net.cpp:129] Top shape: 100 32 14 14 (627200)
I0925 16:46:18.627682  3079 net.cpp:137] Memory required for data: 758598800
I0925 16:46:18.627686  3079 layer_factory.hpp:77] Creating layer BatchNorm37
I0925 16:46:18.627691  3079 net.cpp:84] Creating Layer BatchNorm37
I0925 16:46:18.627693  3079 net.cpp:406] BatchNorm37 <- Convolution37
I0925 16:46:18.627697  3079 net.cpp:367] BatchNorm37 -> Convolution37 (in-place)
I0925 16:46:18.627835  3079 net.cpp:122] Setting up BatchNorm37
I0925 16:46:18.627838  3079 net.cpp:129] Top shape: 100 32 14 14 (627200)
I0925 16:46:18.627840  3079 net.cpp:137] Memory required for data: 761107600
I0925 16:46:18.627846  3079 layer_factory.hpp:77] Creating layer Scale37
I0925 16:46:18.627849  3079 net.cpp:84] Creating Layer Scale37
I0925 16:46:18.627852  3079 net.cpp:406] Scale37 <- Convolution37
I0925 16:46:18.627856  3079 net.cpp:367] Scale37 -> Convolution37 (in-place)
I0925 16:46:18.627882  3079 layer_factory.hpp:77] Creating layer Scale37
I0925 16:46:18.627959  3079 net.cpp:122] Setting up Scale37
I0925 16:46:18.627964  3079 net.cpp:129] Top shape: 100 32 14 14 (627200)
I0925 16:46:18.627965  3079 net.cpp:137] Memory required for data: 763616400
I0925 16:46:18.627969  3079 layer_factory.hpp:77] Creating layer penlu36
I0925 16:46:18.627974  3079 net.cpp:84] Creating Layer penlu36
I0925 16:46:18.627976  3079 net.cpp:406] penlu36 <- Convolution37
I0925 16:46:18.627979  3079 net.cpp:367] penlu36 -> Convolution37 (in-place)
I0925 16:46:18.628087  3079 net.cpp:122] Setting up penlu36
I0925 16:46:18.628092  3079 net.cpp:129] Top shape: 100 32 14 14 (627200)
I0925 16:46:18.628099  3079 net.cpp:137] Memory required for data: 766125200
I0925 16:46:18.628103  3079 layer_factory.hpp:77] Creating layer Convolution38
I0925 16:46:18.628110  3079 net.cpp:84] Creating Layer Convolution38
I0925 16:46:18.628113  3079 net.cpp:406] Convolution38 <- Convolution37
I0925 16:46:18.628116  3079 net.cpp:380] Convolution38 -> Convolution38
I0925 16:46:18.629189  3079 net.cpp:122] Setting up Convolution38
I0925 16:46:18.629199  3079 net.cpp:129] Top shape: 100 32 14 14 (627200)
I0925 16:46:18.629200  3079 net.cpp:137] Memory required for data: 768634000
I0925 16:46:18.629205  3079 layer_factory.hpp:77] Creating layer BatchNorm38
I0925 16:46:18.629210  3079 net.cpp:84] Creating Layer BatchNorm38
I0925 16:46:18.629212  3079 net.cpp:406] BatchNorm38 <- Convolution38
I0925 16:46:18.629216  3079 net.cpp:367] BatchNorm38 -> Convolution38 (in-place)
I0925 16:46:18.629357  3079 net.cpp:122] Setting up BatchNorm38
I0925 16:46:18.629361  3079 net.cpp:129] Top shape: 100 32 14 14 (627200)
I0925 16:46:18.629364  3079 net.cpp:137] Memory required for data: 771142800
I0925 16:46:18.629369  3079 layer_factory.hpp:77] Creating layer Scale38
I0925 16:46:18.629374  3079 net.cpp:84] Creating Layer Scale38
I0925 16:46:18.629375  3079 net.cpp:406] Scale38 <- Convolution38
I0925 16:46:18.629379  3079 net.cpp:367] Scale38 -> Convolution38 (in-place)
I0925 16:46:18.629406  3079 layer_factory.hpp:77] Creating layer Scale38
I0925 16:46:18.629484  3079 net.cpp:122] Setting up Scale38
I0925 16:46:18.629488  3079 net.cpp:129] Top shape: 100 32 14 14 (627200)
I0925 16:46:18.629490  3079 net.cpp:137] Memory required for data: 773651600
I0925 16:46:18.629494  3079 layer_factory.hpp:77] Creating layer Eltwise18
I0925 16:46:18.629498  3079 net.cpp:84] Creating Layer Eltwise18
I0925 16:46:18.629501  3079 net.cpp:406] Eltwise18 <- Eltwise17_penlu35_0_split_1
I0925 16:46:18.629504  3079 net.cpp:406] Eltwise18 <- Convolution38
I0925 16:46:18.629508  3079 net.cpp:380] Eltwise18 -> Eltwise18
I0925 16:46:18.629523  3079 net.cpp:122] Setting up Eltwise18
I0925 16:46:18.629528  3079 net.cpp:129] Top shape: 100 32 14 14 (627200)
I0925 16:46:18.629529  3079 net.cpp:137] Memory required for data: 776160400
I0925 16:46:18.629531  3079 layer_factory.hpp:77] Creating layer penlu37
I0925 16:46:18.629536  3079 net.cpp:84] Creating Layer penlu37
I0925 16:46:18.629539  3079 net.cpp:406] penlu37 <- Eltwise18
I0925 16:46:18.629542  3079 net.cpp:367] penlu37 -> Eltwise18 (in-place)
I0925 16:46:18.629652  3079 net.cpp:122] Setting up penlu37
I0925 16:46:18.629655  3079 net.cpp:129] Top shape: 100 32 14 14 (627200)
I0925 16:46:18.629657  3079 net.cpp:137] Memory required for data: 778669200
I0925 16:46:18.629662  3079 layer_factory.hpp:77] Creating layer Eltwise18_penlu37_0_split
I0925 16:46:18.629665  3079 net.cpp:84] Creating Layer Eltwise18_penlu37_0_split
I0925 16:46:18.629667  3079 net.cpp:406] Eltwise18_penlu37_0_split <- Eltwise18
I0925 16:46:18.629670  3079 net.cpp:380] Eltwise18_penlu37_0_split -> Eltwise18_penlu37_0_split_0
I0925 16:46:18.629674  3079 net.cpp:380] Eltwise18_penlu37_0_split -> Eltwise18_penlu37_0_split_1
I0925 16:46:18.629698  3079 net.cpp:122] Setting up Eltwise18_penlu37_0_split
I0925 16:46:18.629701  3079 net.cpp:129] Top shape: 100 32 14 14 (627200)
I0925 16:46:18.629703  3079 net.cpp:129] Top shape: 100 32 14 14 (627200)
I0925 16:46:18.629705  3079 net.cpp:137] Memory required for data: 783686800
I0925 16:46:18.629707  3079 layer_factory.hpp:77] Creating layer Convolution39
I0925 16:46:18.629714  3079 net.cpp:84] Creating Layer Convolution39
I0925 16:46:18.629716  3079 net.cpp:406] Convolution39 <- Eltwise18_penlu37_0_split_0
I0925 16:46:18.629720  3079 net.cpp:380] Convolution39 -> Convolution39
I0925 16:46:18.630604  3079 net.cpp:122] Setting up Convolution39
I0925 16:46:18.630612  3079 net.cpp:129] Top shape: 100 64 7 7 (313600)
I0925 16:46:18.630614  3079 net.cpp:137] Memory required for data: 784941200
I0925 16:46:18.630620  3079 layer_factory.hpp:77] Creating layer BatchNorm39
I0925 16:46:18.630631  3079 net.cpp:84] Creating Layer BatchNorm39
I0925 16:46:18.630635  3079 net.cpp:406] BatchNorm39 <- Convolution39
I0925 16:46:18.630638  3079 net.cpp:367] BatchNorm39 -> Convolution39 (in-place)
I0925 16:46:18.630775  3079 net.cpp:122] Setting up BatchNorm39
I0925 16:46:18.630779  3079 net.cpp:129] Top shape: 100 64 7 7 (313600)
I0925 16:46:18.630781  3079 net.cpp:137] Memory required for data: 786195600
I0925 16:46:18.630786  3079 layer_factory.hpp:77] Creating layer Scale39
I0925 16:46:18.630791  3079 net.cpp:84] Creating Layer Scale39
I0925 16:46:18.630794  3079 net.cpp:406] Scale39 <- Convolution39
I0925 16:46:18.630797  3079 net.cpp:367] Scale39 -> Convolution39 (in-place)
I0925 16:46:18.630823  3079 layer_factory.hpp:77] Creating layer Scale39
I0925 16:46:18.630903  3079 net.cpp:122] Setting up Scale39
I0925 16:46:18.630906  3079 net.cpp:129] Top shape: 100 64 7 7 (313600)
I0925 16:46:18.630908  3079 net.cpp:137] Memory required for data: 787450000
I0925 16:46:18.630913  3079 layer_factory.hpp:77] Creating layer Convolution40
I0925 16:46:18.630919  3079 net.cpp:84] Creating Layer Convolution40
I0925 16:46:18.630921  3079 net.cpp:406] Convolution40 <- Eltwise18_penlu37_0_split_1
I0925 16:46:18.630926  3079 net.cpp:380] Convolution40 -> Convolution40
I0925 16:46:18.632719  3079 net.cpp:122] Setting up Convolution40
I0925 16:46:18.632728  3079 net.cpp:129] Top shape: 100 64 7 7 (313600)
I0925 16:46:18.632731  3079 net.cpp:137] Memory required for data: 788704400
I0925 16:46:18.632735  3079 layer_factory.hpp:77] Creating layer BatchNorm40
I0925 16:46:18.632742  3079 net.cpp:84] Creating Layer BatchNorm40
I0925 16:46:18.632745  3079 net.cpp:406] BatchNorm40 <- Convolution40
I0925 16:46:18.632748  3079 net.cpp:367] BatchNorm40 -> Convolution40 (in-place)
I0925 16:46:18.632889  3079 net.cpp:122] Setting up BatchNorm40
I0925 16:46:18.632894  3079 net.cpp:129] Top shape: 100 64 7 7 (313600)
I0925 16:46:18.632896  3079 net.cpp:137] Memory required for data: 789958800
I0925 16:46:18.632901  3079 layer_factory.hpp:77] Creating layer Scale40
I0925 16:46:18.632905  3079 net.cpp:84] Creating Layer Scale40
I0925 16:46:18.632908  3079 net.cpp:406] Scale40 <- Convolution40
I0925 16:46:18.632911  3079 net.cpp:367] Scale40 -> Convolution40 (in-place)
I0925 16:46:18.632939  3079 layer_factory.hpp:77] Creating layer Scale40
I0925 16:46:18.633021  3079 net.cpp:122] Setting up Scale40
I0925 16:46:18.633025  3079 net.cpp:129] Top shape: 100 64 7 7 (313600)
I0925 16:46:18.633028  3079 net.cpp:137] Memory required for data: 791213200
I0925 16:46:18.633031  3079 layer_factory.hpp:77] Creating layer penlu38
I0925 16:46:18.633038  3079 net.cpp:84] Creating Layer penlu38
I0925 16:46:18.633039  3079 net.cpp:406] penlu38 <- Convolution40
I0925 16:46:18.633044  3079 net.cpp:367] penlu38 -> Convolution40 (in-place)
I0925 16:46:18.633153  3079 net.cpp:122] Setting up penlu38
I0925 16:46:18.633157  3079 net.cpp:129] Top shape: 100 64 7 7 (313600)
I0925 16:46:18.633159  3079 net.cpp:137] Memory required for data: 792467600
I0925 16:46:18.633163  3079 layer_factory.hpp:77] Creating layer Convolution41
I0925 16:46:18.633170  3079 net.cpp:84] Creating Layer Convolution41
I0925 16:46:18.633172  3079 net.cpp:406] Convolution41 <- Convolution40
I0925 16:46:18.633177  3079 net.cpp:380] Convolution41 -> Convolution41
I0925 16:46:18.635363  3079 net.cpp:122] Setting up Convolution41
I0925 16:46:18.635373  3079 net.cpp:129] Top shape: 100 64 7 7 (313600)
I0925 16:46:18.635375  3079 net.cpp:137] Memory required for data: 793722000
I0925 16:46:18.635380  3079 layer_factory.hpp:77] Creating layer BatchNorm41
I0925 16:46:18.635385  3079 net.cpp:84] Creating Layer BatchNorm41
I0925 16:46:18.635388  3079 net.cpp:406] BatchNorm41 <- Convolution41
I0925 16:46:18.635392  3079 net.cpp:367] BatchNorm41 -> Convolution41 (in-place)
I0925 16:46:18.635535  3079 net.cpp:122] Setting up BatchNorm41
I0925 16:46:18.635540  3079 net.cpp:129] Top shape: 100 64 7 7 (313600)
I0925 16:46:18.635542  3079 net.cpp:137] Memory required for data: 794976400
I0925 16:46:18.635546  3079 layer_factory.hpp:77] Creating layer Scale41
I0925 16:46:18.635557  3079 net.cpp:84] Creating Layer Scale41
I0925 16:46:18.635560  3079 net.cpp:406] Scale41 <- Convolution41
I0925 16:46:18.635563  3079 net.cpp:367] Scale41 -> Convolution41 (in-place)
I0925 16:46:18.635593  3079 layer_factory.hpp:77] Creating layer Scale41
I0925 16:46:18.635685  3079 net.cpp:122] Setting up Scale41
I0925 16:46:18.635689  3079 net.cpp:129] Top shape: 100 64 7 7 (313600)
I0925 16:46:18.635692  3079 net.cpp:137] Memory required for data: 796230800
I0925 16:46:18.635695  3079 layer_factory.hpp:77] Creating layer Eltwise19
I0925 16:46:18.635710  3079 net.cpp:84] Creating Layer Eltwise19
I0925 16:46:18.635713  3079 net.cpp:406] Eltwise19 <- Convolution39
I0925 16:46:18.635716  3079 net.cpp:406] Eltwise19 <- Convolution41
I0925 16:46:18.635720  3079 net.cpp:380] Eltwise19 -> Eltwise19
I0925 16:46:18.635737  3079 net.cpp:122] Setting up Eltwise19
I0925 16:46:18.635741  3079 net.cpp:129] Top shape: 100 64 7 7 (313600)
I0925 16:46:18.635743  3079 net.cpp:137] Memory required for data: 797485200
I0925 16:46:18.635746  3079 layer_factory.hpp:77] Creating layer penlu39
I0925 16:46:18.635761  3079 net.cpp:84] Creating Layer penlu39
I0925 16:46:18.635762  3079 net.cpp:406] penlu39 <- Eltwise19
I0925 16:46:18.635766  3079 net.cpp:367] penlu39 -> Eltwise19 (in-place)
I0925 16:46:18.635923  3079 net.cpp:122] Setting up penlu39
I0925 16:46:18.635927  3079 net.cpp:129] Top shape: 100 64 7 7 (313600)
I0925 16:46:18.635929  3079 net.cpp:137] Memory required for data: 798739600
I0925 16:46:18.635933  3079 layer_factory.hpp:77] Creating layer Eltwise19_penlu39_0_split
I0925 16:46:18.635938  3079 net.cpp:84] Creating Layer Eltwise19_penlu39_0_split
I0925 16:46:18.635941  3079 net.cpp:406] Eltwise19_penlu39_0_split <- Eltwise19
I0925 16:46:18.635943  3079 net.cpp:380] Eltwise19_penlu39_0_split -> Eltwise19_penlu39_0_split_0
I0925 16:46:18.635947  3079 net.cpp:380] Eltwise19_penlu39_0_split -> Eltwise19_penlu39_0_split_1
I0925 16:46:18.635972  3079 net.cpp:122] Setting up Eltwise19_penlu39_0_split
I0925 16:46:18.635975  3079 net.cpp:129] Top shape: 100 64 7 7 (313600)
I0925 16:46:18.635978  3079 net.cpp:129] Top shape: 100 64 7 7 (313600)
I0925 16:46:18.635980  3079 net.cpp:137] Memory required for data: 801248400
I0925 16:46:18.635982  3079 layer_factory.hpp:77] Creating layer Convolution42
I0925 16:46:18.635987  3079 net.cpp:84] Creating Layer Convolution42
I0925 16:46:18.635990  3079 net.cpp:406] Convolution42 <- Eltwise19_penlu39_0_split_0
I0925 16:46:18.635995  3079 net.cpp:380] Convolution42 -> Convolution42
I0925 16:46:18.637766  3079 net.cpp:122] Setting up Convolution42
I0925 16:46:18.637775  3079 net.cpp:129] Top shape: 100 64 7 7 (313600)
I0925 16:46:18.637778  3079 net.cpp:137] Memory required for data: 802502800
I0925 16:46:18.637783  3079 layer_factory.hpp:77] Creating layer BatchNorm42
I0925 16:46:18.637787  3079 net.cpp:84] Creating Layer BatchNorm42
I0925 16:46:18.637790  3079 net.cpp:406] BatchNorm42 <- Convolution42
I0925 16:46:18.637794  3079 net.cpp:367] BatchNorm42 -> Convolution42 (in-place)
I0925 16:46:18.637934  3079 net.cpp:122] Setting up BatchNorm42
I0925 16:46:18.637939  3079 net.cpp:129] Top shape: 100 64 7 7 (313600)
I0925 16:46:18.637941  3079 net.cpp:137] Memory required for data: 803757200
I0925 16:46:18.637945  3079 layer_factory.hpp:77] Creating layer Scale42
I0925 16:46:18.637949  3079 net.cpp:84] Creating Layer Scale42
I0925 16:46:18.637953  3079 net.cpp:406] Scale42 <- Convolution42
I0925 16:46:18.637955  3079 net.cpp:367] Scale42 -> Convolution42 (in-place)
I0925 16:46:18.637984  3079 layer_factory.hpp:77] Creating layer Scale42
I0925 16:46:18.638062  3079 net.cpp:122] Setting up Scale42
I0925 16:46:18.638067  3079 net.cpp:129] Top shape: 100 64 7 7 (313600)
I0925 16:46:18.638068  3079 net.cpp:137] Memory required for data: 805011600
I0925 16:46:18.638072  3079 layer_factory.hpp:77] Creating layer penlu40
I0925 16:46:18.638077  3079 net.cpp:84] Creating Layer penlu40
I0925 16:46:18.638079  3079 net.cpp:406] penlu40 <- Convolution42
I0925 16:46:18.638090  3079 net.cpp:367] penlu40 -> Convolution42 (in-place)
I0925 16:46:18.638204  3079 net.cpp:122] Setting up penlu40
I0925 16:46:18.638208  3079 net.cpp:129] Top shape: 100 64 7 7 (313600)
I0925 16:46:18.638211  3079 net.cpp:137] Memory required for data: 806266000
I0925 16:46:18.638214  3079 layer_factory.hpp:77] Creating layer Convolution43
I0925 16:46:18.638221  3079 net.cpp:84] Creating Layer Convolution43
I0925 16:46:18.638224  3079 net.cpp:406] Convolution43 <- Convolution42
I0925 16:46:18.638227  3079 net.cpp:380] Convolution43 -> Convolution43
I0925 16:46:18.640494  3079 net.cpp:122] Setting up Convolution43
I0925 16:46:18.640518  3079 net.cpp:129] Top shape: 100 64 7 7 (313600)
I0925 16:46:18.640521  3079 net.cpp:137] Memory required for data: 807520400
I0925 16:46:18.640527  3079 layer_factory.hpp:77] Creating layer BatchNorm43
I0925 16:46:18.640532  3079 net.cpp:84] Creating Layer BatchNorm43
I0925 16:46:18.640543  3079 net.cpp:406] BatchNorm43 <- Convolution43
I0925 16:46:18.640547  3079 net.cpp:367] BatchNorm43 -> Convolution43 (in-place)
I0925 16:46:18.640702  3079 net.cpp:122] Setting up BatchNorm43
I0925 16:46:18.640707  3079 net.cpp:129] Top shape: 100 64 7 7 (313600)
I0925 16:46:18.640708  3079 net.cpp:137] Memory required for data: 808774800
I0925 16:46:18.640713  3079 layer_factory.hpp:77] Creating layer Scale43
I0925 16:46:18.640717  3079 net.cpp:84] Creating Layer Scale43
I0925 16:46:18.640719  3079 net.cpp:406] Scale43 <- Convolution43
I0925 16:46:18.640722  3079 net.cpp:367] Scale43 -> Convolution43 (in-place)
I0925 16:46:18.640751  3079 layer_factory.hpp:77] Creating layer Scale43
I0925 16:46:18.640833  3079 net.cpp:122] Setting up Scale43
I0925 16:46:18.640838  3079 net.cpp:129] Top shape: 100 64 7 7 (313600)
I0925 16:46:18.640841  3079 net.cpp:137] Memory required for data: 810029200
I0925 16:46:18.640844  3079 layer_factory.hpp:77] Creating layer Eltwise20
I0925 16:46:18.640848  3079 net.cpp:84] Creating Layer Eltwise20
I0925 16:46:18.640851  3079 net.cpp:406] Eltwise20 <- Eltwise19_penlu39_0_split_1
I0925 16:46:18.640853  3079 net.cpp:406] Eltwise20 <- Convolution43
I0925 16:46:18.640857  3079 net.cpp:380] Eltwise20 -> Eltwise20
I0925 16:46:18.640874  3079 net.cpp:122] Setting up Eltwise20
I0925 16:46:18.640877  3079 net.cpp:129] Top shape: 100 64 7 7 (313600)
I0925 16:46:18.640879  3079 net.cpp:137] Memory required for data: 811283600
I0925 16:46:18.640882  3079 layer_factory.hpp:77] Creating layer penlu41
I0925 16:46:18.640887  3079 net.cpp:84] Creating Layer penlu41
I0925 16:46:18.640889  3079 net.cpp:406] penlu41 <- Eltwise20
I0925 16:46:18.640892  3079 net.cpp:367] penlu41 -> Eltwise20 (in-place)
I0925 16:46:18.641008  3079 net.cpp:122] Setting up penlu41
I0925 16:46:18.641012  3079 net.cpp:129] Top shape: 100 64 7 7 (313600)
I0925 16:46:18.641014  3079 net.cpp:137] Memory required for data: 812538000
I0925 16:46:18.641019  3079 layer_factory.hpp:77] Creating layer Eltwise20_penlu41_0_split
I0925 16:46:18.641022  3079 net.cpp:84] Creating Layer Eltwise20_penlu41_0_split
I0925 16:46:18.641024  3079 net.cpp:406] Eltwise20_penlu41_0_split <- Eltwise20
I0925 16:46:18.641027  3079 net.cpp:380] Eltwise20_penlu41_0_split -> Eltwise20_penlu41_0_split_0
I0925 16:46:18.641031  3079 net.cpp:380] Eltwise20_penlu41_0_split -> Eltwise20_penlu41_0_split_1
I0925 16:46:18.641057  3079 net.cpp:122] Setting up Eltwise20_penlu41_0_split
I0925 16:46:18.641059  3079 net.cpp:129] Top shape: 100 64 7 7 (313600)
I0925 16:46:18.641062  3079 net.cpp:129] Top shape: 100 64 7 7 (313600)
I0925 16:46:18.641064  3079 net.cpp:137] Memory required for data: 815046800
I0925 16:46:18.641067  3079 layer_factory.hpp:77] Creating layer Convolution44
I0925 16:46:18.641072  3079 net.cpp:84] Creating Layer Convolution44
I0925 16:46:18.641074  3079 net.cpp:406] Convolution44 <- Eltwise20_penlu41_0_split_0
I0925 16:46:18.641078  3079 net.cpp:380] Convolution44 -> Convolution44
I0925 16:46:18.642751  3079 net.cpp:122] Setting up Convolution44
I0925 16:46:18.642760  3079 net.cpp:129] Top shape: 100 64 7 7 (313600)
I0925 16:46:18.642768  3079 net.cpp:137] Memory required for data: 816301200
I0925 16:46:18.642773  3079 layer_factory.hpp:77] Creating layer BatchNorm44
I0925 16:46:18.642779  3079 net.cpp:84] Creating Layer BatchNorm44
I0925 16:46:18.642782  3079 net.cpp:406] BatchNorm44 <- Convolution44
I0925 16:46:18.642786  3079 net.cpp:367] BatchNorm44 -> Convolution44 (in-place)
I0925 16:46:18.642928  3079 net.cpp:122] Setting up BatchNorm44
I0925 16:46:18.642932  3079 net.cpp:129] Top shape: 100 64 7 7 (313600)
I0925 16:46:18.642935  3079 net.cpp:137] Memory required for data: 817555600
I0925 16:46:18.642940  3079 layer_factory.hpp:77] Creating layer Scale44
I0925 16:46:18.642943  3079 net.cpp:84] Creating Layer Scale44
I0925 16:46:18.642946  3079 net.cpp:406] Scale44 <- Convolution44
I0925 16:46:18.642948  3079 net.cpp:367] Scale44 -> Convolution44 (in-place)
I0925 16:46:18.642979  3079 layer_factory.hpp:77] Creating layer Scale44
I0925 16:46:18.643060  3079 net.cpp:122] Setting up Scale44
I0925 16:46:18.643067  3079 net.cpp:129] Top shape: 100 64 7 7 (313600)
I0925 16:46:18.643069  3079 net.cpp:137] Memory required for data: 818810000
I0925 16:46:18.643074  3079 layer_factory.hpp:77] Creating layer penlu42
I0925 16:46:18.643079  3079 net.cpp:84] Creating Layer penlu42
I0925 16:46:18.643080  3079 net.cpp:406] penlu42 <- Convolution44
I0925 16:46:18.643085  3079 net.cpp:367] penlu42 -> Convolution44 (in-place)
I0925 16:46:18.643198  3079 net.cpp:122] Setting up penlu42
I0925 16:46:18.643203  3079 net.cpp:129] Top shape: 100 64 7 7 (313600)
I0925 16:46:18.643205  3079 net.cpp:137] Memory required for data: 820064400
I0925 16:46:18.643209  3079 layer_factory.hpp:77] Creating layer Convolution45
I0925 16:46:18.643215  3079 net.cpp:84] Creating Layer Convolution45
I0925 16:46:18.643218  3079 net.cpp:406] Convolution45 <- Convolution44
I0925 16:46:18.643223  3079 net.cpp:380] Convolution45 -> Convolution45
I0925 16:46:18.645221  3079 net.cpp:122] Setting up Convolution45
I0925 16:46:18.645231  3079 net.cpp:129] Top shape: 100 64 7 7 (313600)
I0925 16:46:18.645232  3079 net.cpp:137] Memory required for data: 821318800
I0925 16:46:18.645237  3079 layer_factory.hpp:77] Creating layer BatchNorm45
I0925 16:46:18.645242  3079 net.cpp:84] Creating Layer BatchNorm45
I0925 16:46:18.645246  3079 net.cpp:406] BatchNorm45 <- Convolution45
I0925 16:46:18.645249  3079 net.cpp:367] BatchNorm45 -> Convolution45 (in-place)
I0925 16:46:18.645395  3079 net.cpp:122] Setting up BatchNorm45
I0925 16:46:18.645398  3079 net.cpp:129] Top shape: 100 64 7 7 (313600)
I0925 16:46:18.645401  3079 net.cpp:137] Memory required for data: 822573200
I0925 16:46:18.645406  3079 layer_factory.hpp:77] Creating layer Scale45
I0925 16:46:18.645411  3079 net.cpp:84] Creating Layer Scale45
I0925 16:46:18.645412  3079 net.cpp:406] Scale45 <- Convolution45
I0925 16:46:18.645416  3079 net.cpp:367] Scale45 -> Convolution45 (in-place)
I0925 16:46:18.645443  3079 layer_factory.hpp:77] Creating layer Scale45
I0925 16:46:18.645526  3079 net.cpp:122] Setting up Scale45
I0925 16:46:18.645530  3079 net.cpp:129] Top shape: 100 64 7 7 (313600)
I0925 16:46:18.645532  3079 net.cpp:137] Memory required for data: 823827600
I0925 16:46:18.645536  3079 layer_factory.hpp:77] Creating layer Eltwise21
I0925 16:46:18.645540  3079 net.cpp:84] Creating Layer Eltwise21
I0925 16:46:18.645542  3079 net.cpp:406] Eltwise21 <- Eltwise20_penlu41_0_split_1
I0925 16:46:18.645545  3079 net.cpp:406] Eltwise21 <- Convolution45
I0925 16:46:18.645550  3079 net.cpp:380] Eltwise21 -> Eltwise21
I0925 16:46:18.645565  3079 net.cpp:122] Setting up Eltwise21
…
I0925 16:46:19.000866  3079 net.cpp:137] Memory required for data: 1030145200
I0925 16:46:19.000870  3079 layer_factory.hpp:77] Creating layer BatchNorm40
I0925 16:46:19.000876  3079 net.cpp:84] Creating Layer BatchNorm40
I0925 16:46:19.000880  3079 net.cpp:406] BatchNorm40 <- Convolution40
I0925 16:46:19.000882  3079 net.cpp:367] BatchNorm40 -> Convolution40 (in-place)
I0925 16:46:19.001106  3079 net.cpp:122] Setting up BatchNorm40
I0925 16:46:19.001111  3079 net.cpp:129] Top shape: 100 64 8 8 (409600)
I0925 16:46:19.001112  3079 net.cpp:137] Memory required for data: 1031783600
I0925 16:46:19.001117  3079 layer_factory.hpp:77] Creating layer Scale40
I0925 16:46:19.001122  3079 net.cpp:84] Creating Layer Scale40
I0925 16:46:19.001124  3079 net.cpp:406] Scale40 <- Convolution40
I0925 16:46:19.001128  3079 net.cpp:367] Scale40 -> Convolution40 (in-place)
I0925 16:46:19.001155  3079 layer_factory.hpp:77] Creating layer Scale40
I0925 16:46:19.001235  3079 net.cpp:122] Setting up Scale40
I0925 16:46:19.001238  3079 net.cpp:129] Top shape: 100 64 8 8 (409600)
I0925 16:46:19.001240  3079 net.cpp:137] Memory required for data: 1033422000
I0925 16:46:19.001245  3079 layer_factory.hpp:77] Creating layer penlu38
I0925 16:46:19.001250  3079 net.cpp:84] Creating Layer penlu38
I0925 16:46:19.001252  3079 net.cpp:406] penlu38 <- Convolution40
I0925 16:46:19.001256  3079 net.cpp:367] penlu38 -> Convolution40 (in-place)
I0925 16:46:19.001440  3079 net.cpp:122] Setting up penlu38
I0925 16:46:19.001444  3079 net.cpp:129] Top shape: 100 64 8 8 (409600)
I0925 16:46:19.001446  3079 net.cpp:137] Memory required for data: 1035060400
I0925 16:46:19.001451  3079 layer_factory.hpp:77] Creating layer Convolution41
I0925 16:46:19.001458  3079 net.cpp:84] Creating Layer Convolution41
I0925 16:46:19.001461  3079 net.cpp:406] Convolution41 <- Convolution40
I0925 16:46:19.001464  3079 net.cpp:380] Convolution41 -> Convolution41
I0925 16:46:19.003235  3079 net.cpp:122] Setting up Convolution41
I0925 16:46:19.003244  3079 net.cpp:129] Top shape: 100 64 8 8 (409600)
I0925 16:46:19.003247  3079 net.cpp:137] Memory required for data: 1036698800
I0925 16:46:19.003252  3079 layer_factory.hpp:77] Creating layer BatchNorm41
I0925 16:46:19.003255  3079 net.cpp:84] Creating Layer BatchNorm41
I0925 16:46:19.003258  3079 net.cpp:406] BatchNorm41 <- Convolution41
I0925 16:46:19.003271  3079 net.cpp:367] BatchNorm41 -> Convolution41 (in-place)
I0925 16:46:19.003412  3079 net.cpp:122] Setting up BatchNorm41
I0925 16:46:19.003417  3079 net.cpp:129] Top shape: 100 64 8 8 (409600)
I0925 16:46:19.003418  3079 net.cpp:137] Memory required for data: 1038337200
I0925 16:46:19.003423  3079 layer_factory.hpp:77] Creating layer Scale41
I0925 16:46:19.003427  3079 net.cpp:84] Creating Layer Scale41
I0925 16:46:19.003429  3079 net.cpp:406] Scale41 <- Convolution41
I0925 16:46:19.003433  3079 net.cpp:367] Scale41 -> Convolution41 (in-place)
I0925 16:46:19.003460  3079 layer_factory.hpp:77] Creating layer Scale41
I0925 16:46:19.003540  3079 net.cpp:122] Setting up Scale41
I0925 16:46:19.003545  3079 net.cpp:129] Top shape: 100 64 8 8 (409600)
I0925 16:46:19.003546  3079 net.cpp:137] Memory required for data: 1039975600
I0925 16:46:19.003551  3079 layer_factory.hpp:77] Creating layer Eltwise19
I0925 16:46:19.003554  3079 net.cpp:84] Creating Layer Eltwise19
I0925 16:46:19.003556  3079 net.cpp:406] Eltwise19 <- Convolution39
I0925 16:46:19.003559  3079 net.cpp:406] Eltwise19 <- Convolution41
I0925 16:46:19.003563  3079 net.cpp:380] Eltwise19 -> Eltwise19
I0925 16:46:19.003579  3079 net.cpp:122] Setting up Eltwise19
I0925 16:46:19.003583  3079 net.cpp:129] Top shape: 100 64 8 8 (409600)
I0925 16:46:19.027796  3079 net.cpp:137] Memory required for data: 1041614000
I0925 16:46:19.027806  3079 layer_factory.hpp:77] Creating layer penlu39
I0925 16:46:19.027815  3079 net.cpp:84] Creating Layer penlu39
I0925 16:46:19.027820  3079 net.cpp:406] penlu39 <- Eltwise19
I0925 16:46:19.027827  3079 net.cpp:367] penlu39 -> Eltwise19 (in-place)
I0925 16:46:19.027983  3079 net.cpp:122] Setting up penlu39
I0925 16:46:19.027989  3079 net.cpp:129] Top shape: 100 64 8 8 (409600)
I0925 16:46:19.027992  3079 net.cpp:137] Memory required for data: 1043252400
I0925 16:46:19.027997  3079 layer_factory.hpp:77] Creating layer Eltwise19_penlu39_0_split
I0925 16:46:19.028002  3079 net.cpp:84] Creating Layer Eltwise19_penlu39_0_split
I0925 16:46:19.028004  3079 net.cpp:406] Eltwise19_penlu39_0_split <- Eltwise19
I0925 16:46:19.028008  3079 net.cpp:380] Eltwise19_penlu39_0_split -> Eltwise19_penlu39_0_split_0
I0925 16:46:19.028013  3079 net.cpp:380] Eltwise19_penlu39_0_split -> Eltwise19_penlu39_0_split_1
I0925 16:46:19.028041  3079 net.cpp:122] Setting up Eltwise19_penlu39_0_split
I0925 16:46:19.028045  3079 net.cpp:129] Top shape: 100 64 8 8 (409600)
I0925 16:46:19.028048  3079 net.cpp:129] Top shape: 100 64 8 8 (409600)
I0925 16:46:19.028050  3079 net.cpp:137] Memory required for data: 1046529200
I0925 16:46:19.028053  3079 layer_factory.hpp:77] Creating layer Convolution42
I0925 16:46:19.028059  3079 net.cpp:84] Creating Layer Convolution42
I0925 16:46:19.028062  3079 net.cpp:406] Convolution42 <- Eltwise19_penlu39_0_split_0
I0925 16:46:19.028067  3079 net.cpp:380] Convolution42 -> Convolution42
I0925 16:46:19.030196  3079 net.cpp:122] Setting up Convolution42
I0925 16:46:19.030206  3079 net.cpp:129] Top shape: 100 64 8 8 (409600)
I0925 16:46:19.030208  3079 net.cpp:137] Memory required for data: 1048167600
I0925 16:46:19.030213  3079 layer_factory.hpp:77] Creating layer BatchNorm42
I0925 16:46:19.030218  3079 net.cpp:84] Creating Layer BatchNorm42
I0925 16:46:19.030221  3079 net.cpp:406] BatchNorm42 <- Convolution42
I0925 16:46:19.030226  3079 net.cpp:367] BatchNorm42 -> Convolution42 (in-place)
I0925 16:46:19.030365  3079 net.cpp:122] Setting up BatchNorm42
I0925 16:46:19.030370  3079 net.cpp:129] Top shape: 100 64 8 8 (409600)
I0925 16:46:19.030372  3079 net.cpp:137] Memory required for data: 1049806000
I0925 16:46:19.030377  3079 layer_factory.hpp:77] Creating layer Scale42
I0925 16:46:19.030381  3079 net.cpp:84] Creating Layer Scale42
I0925 16:46:19.030383  3079 net.cpp:406] Scale42 <- Convolution42
I0925 16:46:19.030387  3079 net.cpp:367] Scale42 -> Convolution42 (in-place)
I0925 16:46:19.030416  3079 layer_factory.hpp:77] Creating layer Scale42
I0925 16:46:19.030498  3079 net.cpp:122] Setting up Scale42
I0925 16:46:19.030501  3079 net.cpp:129] Top shape: 100 64 8 8 (409600)
I0925 16:46:19.030510  3079 net.cpp:137] Memory required for data: 1051444400
I0925 16:46:19.030515  3079 layer_factory.hpp:77] Creating layer penlu40
I0925 16:46:19.030520  3079 net.cpp:84] Creating Layer penlu40
I0925 16:46:19.030522  3079 net.cpp:406] penlu40 <- Convolution42
I0925 16:46:19.030527  3079 net.cpp:367] penlu40 -> Convolution42 (in-place)
I0925 16:46:19.030645  3079 net.cpp:122] Setting up penlu40
I0925 16:46:19.030650  3079 net.cpp:129] Top shape: 100 64 8 8 (409600)
I0925 16:46:19.030652  3079 net.cpp:137] Memory required for data: 1053082800
I0925 16:46:19.030658  3079 layer_factory.hpp:77] Creating layer Convolution43
I0925 16:46:19.030663  3079 net.cpp:84] Creating Layer Convolution43
I0925 16:46:19.030666  3079 net.cpp:406] Convolution43 <- Convolution42
I0925 16:46:19.030670  3079 net.cpp:380] Convolution43 -> Convolution43
I0925 16:46:19.032574  3079 net.cpp:122] Setting up Convolution43
I0925 16:46:19.032583  3079 net.cpp:129] Top shape: 100 64 8 8 (409600)
I0925 16:46:19.032586  3079 net.cpp:137] Memory required for data: 1054721200
I0925 16:46:19.032590  3079 layer_factory.hpp:77] Creating layer BatchNorm43
I0925 16:46:19.032595  3079 net.cpp:84] Creating Layer BatchNorm43
I0925 16:46:19.032598  3079 net.cpp:406] BatchNorm43 <- Convolution43
I0925 16:46:19.032603  3079 net.cpp:367] BatchNorm43 -> Convolution43 (in-place)
I0925 16:46:19.032739  3079 net.cpp:122] Setting up BatchNorm43
I0925 16:46:19.032743  3079 net.cpp:129] Top shape: 100 64 8 8 (409600)
I0925 16:46:19.032745  3079 net.cpp:137] Memory required for data: 1056359600
I0925 16:46:19.032750  3079 layer_factory.hpp:77] Creating layer Scale43
I0925 16:46:19.032754  3079 net.cpp:84] Creating Layer Scale43
I0925 16:46:19.032757  3079 net.cpp:406] Scale43 <- Convolution43
I0925 16:46:19.032760  3079 net.cpp:367] Scale43 -> Convolution43 (in-place)
I0925 16:46:19.032788  3079 layer_factory.hpp:77] Creating layer Scale43
I0925 16:46:19.032866  3079 net.cpp:122] Setting up Scale43
I0925 16:46:19.032871  3079 net.cpp:129] Top shape: 100 64 8 8 (409600)
I0925 16:46:19.032873  3079 net.cpp:137] Memory required for data: 1057998000
I0925 16:46:19.032877  3079 layer_factory.hpp:77] Creating layer Eltwise20
I0925 16:46:19.032881  3079 net.cpp:84] Creating Layer Eltwise20
I0925 16:46:19.032884  3079 net.cpp:406] Eltwise20 <- Eltwise19_penlu39_0_split_1
I0925 16:46:19.032887  3079 net.cpp:406] Eltwise20 <- Convolution43
I0925 16:46:19.032891  3079 net.cpp:380] Eltwise20 -> Eltwise20
I0925 16:46:19.032907  3079 net.cpp:122] Setting up Eltwise20
I0925 16:46:19.032912  3079 net.cpp:129] Top shape: 100 64 8 8 (409600)
I0925 16:46:19.032913  3079 net.cpp:137] Memory required for data: 1059636400
I0925 16:46:19.032915  3079 layer_factory.hpp:77] Creating layer penlu41
I0925 16:46:19.032920  3079 net.cpp:84] Creating Layer penlu41
I0925 16:46:19.032923  3079 net.cpp:406] penlu41 <- Eltwise20
I0925 16:46:19.032927  3079 net.cpp:367] penlu41 -> Eltwise20 (in-place)
I0925 16:46:19.033041  3079 net.cpp:122] Setting up penlu41
I0925 16:46:19.033046  3079 net.cpp:129] Top shape: 100 64 8 8 (409600)
I0925 16:46:19.033046  3079 net.cpp:137] Memory required for data: 1061274800
I0925 16:46:19.033051  3079 layer_factory.hpp:77] Creating layer Eltwise20_penlu41_0_split
I0925 16:46:19.033056  3079 net.cpp:84] Creating Layer Eltwise20_penlu41_0_split
I0925 16:46:19.033058  3079 net.cpp:406] Eltwise20_penlu41_0_split <- Eltwise20
I0925 16:46:19.033061  3079 net.cpp:380] Eltwise20_penlu41_0_split -> Eltwise20_penlu41_0_split_0
I0925 16:46:19.033066  3079 net.cpp:380] Eltwise20_penlu41_0_split -> Eltwise20_penlu41_0_split_1
I0925 16:46:19.033088  3079 net.cpp:122] Setting up Eltwise20_penlu41_0_split
I0925 16:46:19.033092  3079 net.cpp:129] Top shape: 100 64 8 8 (409600)
I0925 16:46:19.033095  3079 net.cpp:129] Top shape: 100 64 8 8 (409600)
I0925 16:46:19.033097  3079 net.cpp:137] Memory required for data: 1064551600
I0925 16:46:19.033099  3079 layer_factory.hpp:77] Creating layer Convolution44
I0925 16:46:19.033104  3079 net.cpp:84] Creating Layer Convolution44
I0925 16:46:19.033113  3079 net.cpp:406] Convolution44 <- Eltwise20_penlu41_0_split_0
I0925 16:46:19.033119  3079 net.cpp:380] Convolution44 -> Convolution44
I0925 16:46:19.035166  3079 net.cpp:122] Setting up Convolution44
I0925 16:46:19.035174  3079 net.cpp:129] Top shape: 100 64 8 8 (409600)
I0925 16:46:19.035176  3079 net.cpp:137] Memory required for data: 1066190000
I0925 16:46:19.035181  3079 layer_factory.hpp:77] Creating layer BatchNorm44
I0925 16:46:19.035187  3079 net.cpp:84] Creating Layer BatchNorm44
I0925 16:46:19.035189  3079 net.cpp:406] BatchNorm44 <- Convolution44
I0925 16:46:19.035193  3079 net.cpp:367] BatchNorm44 -> Convolution44 (in-place)
I0925 16:46:19.035336  3079 net.cpp:122] Setting up BatchNorm44
I0925 16:46:19.035341  3079 net.cpp:129] Top shape: 100 64 8 8 (409600)
I0925 16:46:19.035342  3079 net.cpp:137] Memory required for data: 1067828400
I0925 16:46:19.035347  3079 layer_factory.hpp:77] Creating layer Scale44
I0925 16:46:19.035351  3079 net.cpp:84] Creating Layer Scale44
I0925 16:46:19.035354  3079 net.cpp:406] Scale44 <- Convolution44
I0925 16:46:19.035357  3079 net.cpp:367] Scale44 -> Convolution44 (in-place)
I0925 16:46:19.035385  3079 layer_factory.hpp:77] Creating layer Scale44
I0925 16:46:19.035465  3079 net.cpp:122] Setting up Scale44
I0925 16:46:19.035468  3079 net.cpp:129] Top shape: 100 64 8 8 (409600)
I0925 16:46:19.035470  3079 net.cpp:137] Memory required for data: 1069466800
I0925 16:46:19.035475  3079 layer_factory.hpp:77] Creating layer penlu42
I0925 16:46:19.035480  3079 net.cpp:84] Creating Layer penlu42
I0925 16:46:19.035483  3079 net.cpp:406] penlu42 <- Convolution44
I0925 16:46:19.035486  3079 net.cpp:367] penlu42 -> Convolution44 (in-place)
I0925 16:46:19.035598  3079 net.cpp:122] Setting up penlu42
I0925 16:46:19.035604  3079 net.cpp:129] Top shape: 100 64 8 8 (409600)
I0925 16:46:19.035605  3079 net.cpp:137] Memory required for data: 1071105200
I0925 16:46:19.035609  3079 layer_factory.hpp:77] Creating layer Convolution45
I0925 16:46:19.035615  3079 net.cpp:84] Creating Layer Convolution45
I0925 16:46:19.035619  3079 net.cpp:406] Convolution45 <- Convolution44
I0925 16:46:19.035622  3079 net.cpp:380] Convolution45 -> Convolution45
I0925 16:46:19.037421  3079 net.cpp:122] Setting up Convolution45
I0925 16:46:19.037431  3079 net.cpp:129] Top shape: 100 64 8 8 (409600)
I0925 16:46:19.037433  3079 net.cpp:137] Memory required for data: 1072743600
I0925 16:46:19.037437  3079 layer_factory.hpp:77] Creating layer BatchNorm45
I0925 16:46:19.037443  3079 net.cpp:84] Creating Layer BatchNorm45
I0925 16:46:19.037446  3079 net.cpp:406] BatchNorm45 <- Convolution45
I0925 16:46:19.037449  3079 net.cpp:367] BatchNorm45 -> Convolution45 (in-place)
I0925 16:46:19.037587  3079 net.cpp:122] Setting up BatchNorm45
I0925 16:46:19.037591  3079 net.cpp:129] Top shape: 100 64 8 8 (409600)
I0925 16:46:19.037593  3079 net.cpp:137] Memory required for data: 1074382000
I0925 16:46:19.037598  3079 layer_factory.hpp:77] Creating layer Scale45
I0925 16:46:19.037602  3079 net.cpp:84] Creating Layer Scale45
I0925 16:46:19.037606  3079 net.cpp:406] Scale45 <- Convolution45
I0925 16:46:19.037609  3079 net.cpp:367] Scale45 -> Convolution45 (in-place)
I0925 16:46:19.037637  3079 layer_factory.hpp:77] Creating layer Scale45
I0925 16:46:19.037716  3079 net.cpp:122] Setting up Scale45
I0925 16:46:19.037720  3079 net.cpp:129] Top shape: 100 64 8 8 (409600)
I0925 16:46:19.037722  3079 net.cpp:137] Memory required for data: 1076020400
I0925 16:46:19.037726  3079 layer_factory.hpp:77] Creating layer Eltwise21
I0925 16:46:19.037729  3079 net.cpp:84] Creating Layer Eltwise21
I0925 16:46:19.037732  3079 net.cpp:406] Eltwise21 <- Eltwise20_penlu41_0_split_1
I0925 16:46:19.037736  3079 net.cpp:406] Eltwise21 <- Convolution45
I0925 16:46:19.037739  3079 net.cpp:380] Eltwise21 -> Eltwise21
I0925 16:46:19.037755  3079 net.cpp:122] Setting up Eltwise21
I0925 16:46:19.037760  3079 net.cpp:129] Top shape: 100 64 8 8 (409600)
I0925 16:46:19.037761  3079 net.cpp:137] Memory required for data: 1077658800
I0925 16:46:19.037770  3079 layer_factory.hpp:77] Creating layer penlu43
I0925 16:46:19.037775  3079 net.cpp:84] Creating Layer penlu43
I0925 16:46:19.037778  3079 net.cpp:406] penlu43 <- Eltwise21
I0925 16:46:19.037781  3079 net.cpp:367] penlu43 -> Eltwise21 (in-place)
I0925 16:46:19.037916  3079 net.cpp:122] Setting up penlu43
I0925 16:46:19.037920  3079 net.cpp:129] Top shape: 100 64 8 8 (409600)
I0925 16:46:19.037922  3079 net.cpp:137] Memory required for data: 1079297200
I0925 16:46:19.037926  3079 layer_factory.hpp:77] Creating layer Eltwise21_penlu43_0_split
I0925 16:46:19.037930  3079 net.cpp:84] Creating Layer Eltwise21_penlu43_0_split
I0925 16:46:19.037932  3079 net.cpp:406] Eltwise21_penlu43_0_split <- Eltwise21
I0925 16:46:19.037935  3079 net.cpp:380] Eltwise21_penlu43_0_split -> Eltwise21_penlu43_0_split_0
I0925 16:46:19.037940  3079 net.cpp:380] Eltwise21_penlu43_0_split -> Eltwise21_penlu43_0_split_1
I0925 16:46:19.037963  3079 net.cpp:122] Setting up Eltwise21_penlu43_0_split
I0925 16:46:19.037967  3079 net.cpp:129] Top shape: 100 64 8 8 (409600)
I0925 16:46:19.037969  3079 net.cpp:129] Top shape: 100 64 8 8 (409600)
I0925 16:46:19.037971  3079 net.cpp:137] Memory required for data: 1082574000
I0925 16:46:19.037973  3079 layer_factory.hpp:77] Creating layer Convolution46
I0925 16:46:19.037979  3079 net.cpp:84] Creating Layer Convolution46
I0925 16:46:19.037982  3079 net.cpp:406] Convolution46 <- Eltwise21_penlu43_0_split_0
I0925 16:46:19.037986  3079 net.cpp:380] Convolution46 -> Convolution46
I0925 16:46:19.039705  3079 net.cpp:122] Setting up Convolution46
I0925 16:46:19.039714  3079 net.cpp:129] Top shape: 100 64 8 8 (409600)
I0925 16:46:19.039716  3079 net.cpp:137] Memory required for data: 1084212400
I0925 16:46:19.039721  3079 layer_factory.hpp:77] Creating layer BatchNorm46
I0925 16:46:19.039726  3079 net.cpp:84] Creating Layer BatchNorm46
I0925 16:46:19.039729  3079 net.cpp:406] BatchNorm46 <- Convolution46
I0925 16:46:19.039733  3079 net.cpp:367] BatchNorm46 -> Convolution46 (in-place)
I0925 16:46:19.039875  3079 net.cpp:122] Setting up BatchNorm46
I0925 16:46:19.039880  3079 net.cpp:129] Top shape: 100 64 8 8 (409600)
I0925 16:46:19.039881  3079 net.cpp:137] Memory required for data: 1085850800
I0925 16:46:19.039886  3079 layer_factory.hpp:77] Creating layer Scale46
I0925 16:46:19.039891  3079 net.cpp:84] Creating Layer Scale46
I0925 16:46:19.039893  3079 net.cpp:406] Scale46 <- Convolution46
I0925 16:46:19.039896  3079 net.cpp:367] Scale46 -> Convolution46 (in-place)
I0925 16:46:19.039925  3079 layer_factory.hpp:77] Creating layer Scale46
I0925 16:46:19.040005  3079 net.cpp:122] Setting up Scale46
I0925 16:46:19.040009  3079 net.cpp:129] Top shape: 100 64 8 8 (409600)
I0925 16:46:19.040011  3079 net.cpp:137] Memory required for data: 1087489200
I0925 16:46:19.040015  3079 layer_factory.hpp:77] Creating layer penlu44
I0925 16:46:19.040020  3079 net.cpp:84] Creating Layer penlu44
I0925 16:46:19.040024  3079 net.cpp:406] penlu44 <- Convolution46
I0925 16:46:19.040029  3079 net.cpp:367] penlu44 -> Convolution46 (in-place)
I0925 16:46:19.040143  3079 net.cpp:122] Setting up penlu44
I0925 16:46:19.040148  3079 net.cpp:129] Top shape: 100 64 8 8 (409600)
I0925 16:46:19.040150  3079 net.cpp:137] Memory required for data: 1089127600
I0925 16:46:19.040154  3079 layer_factory.hpp:77] Creating layer Convolution47
I0925 16:46:19.040160  3079 net.cpp:84] Creating Layer Convolution47
I0925 16:46:19.040163  3079 net.cpp:406] Convolution47 <- Convolution46
I0925 16:46:19.040168  3079 net.cpp:380] Convolution47 -> Convolution47
I0925 16:46:19.041929  3079 net.cpp:122] Setting up Convolution47
I0925 16:46:19.041937  3079 net.cpp:129] Top shape: 100 64 8 8 (409600)
I0925 16:46:19.041939  3079 net.cpp:137] Memory required for data: 1090766000
I0925 16:46:19.041944  3079 layer_factory.hpp:77] Creating layer BatchNorm47
I0925 16:46:19.041949  3079 net.cpp:84] Creating Layer BatchNorm47
I0925 16:46:19.041952  3079 net.cpp:406] BatchNorm47 <- Convolution47
I0925 16:46:19.041955  3079 net.cpp:367] BatchNorm47 -> Convolution47 (in-place)
I0925 16:46:19.042102  3079 net.cpp:122] Setting up BatchNorm47
I0925 16:46:19.042106  3079 net.cpp:129] Top shape: 100 64 8 8 (409600)
I0925 16:46:19.042109  3079 net.cpp:137] Memory required for data: 1092404400
I0925 16:46:19.042114  3079 layer_factory.hpp:77] Creating layer Scale47
I0925 16:46:19.042119  3079 net.cpp:84] Creating Layer Scale47
I0925 16:46:19.042121  3079 net.cpp:406] Scale47 <- Convolution47
I0925 16:46:19.042124  3079 net.cpp:367] Scale47 -> Convolution47 (in-place)
I0925 16:46:19.042152  3079 layer_factory.hpp:77] Creating layer Scale47
I0925 16:46:19.042232  3079 net.cpp:122] Setting up Scale47
I0925 16:46:19.042235  3079 net.cpp:129] Top shape: 100 64 8 8 (409600)
I0925 16:46:19.042237  3079 net.cpp:137] Memory required for data: 1094042800
I0925 16:46:19.042242  3079 layer_factory.hpp:77] Creating layer Eltwise22
I0925 16:46:19.042246  3079 net.cpp:84] Creating Layer Eltwise22
I0925 16:46:19.042248  3079 net.cpp:406] Eltwise22 <- Eltwise21_penlu43_0_split_1
I0925 16:46:19.042251  3079 net.cpp:406] Eltwise22 <- Convolution47
I0925 16:46:19.042255  3079 net.cpp:380] Eltwise22 -> Eltwise22
I0925 16:46:19.042273  3079 net.cpp:122] Setting up Eltwise22
I0925 16:46:19.042275  3079 net.cpp:129] Top shape: 100 64 8 8 (409600)
I0925 16:46:19.042277  3079 net.cpp:137] Memory required for data: 1095681200
I0925 16:46:19.042279  3079 layer_factory.hpp:77] Creating layer penlu45
I0925 16:46:19.042284  3079 net.cpp:84] Creating Layer penlu45
I0925 16:46:19.042287  3079 net.cpp:406] penlu45 <- Eltwise22
I0925 16:46:19.042290  3079 net.cpp:367] penlu45 -> Eltwise22 (in-place)
I0925 16:46:19.042405  3079 net.cpp:122] Setting up penlu45
I0925 16:46:19.042409  3079 net.cpp:129] Top shape: 100 64 8 8 (409600)
I0925 16:46:19.042412  3079 net.cpp:137] Memory required for data: 1097319600
I0925 16:46:19.042417  3079 layer_factory.hpp:77] Creating layer Eltwise22_penlu45_0_split
I0925 16:46:19.042419  3079 net.cpp:84] Creating Layer Eltwise22_penlu45_0_split
I0925 16:46:19.042421  3079 net.cpp:406] Eltwise22_penlu45_0_split <- Eltwise22
I0925 16:46:19.042425  3079 net.cpp:380] Eltwise22_penlu45_0_split -> Eltwise22_penlu45_0_split_0
I0925 16:46:19.042429  3079 net.cpp:380] Eltwise22_penlu45_0_split -> Eltwise22_penlu45_0_split_1
I0925 16:46:19.042454  3079 net.cpp:122] Setting up Eltwise22_penlu45_0_split
I0925 16:46:19.042459  3079 net.cpp:129] Top shape: 100 64 8 8 (409600)
I0925 16:46:19.042460  3079 net.cpp:129] Top shape: 100 64 8 8 (409600)
I0925 16:46:19.042462  3079 net.cpp:137] Memory required for data: 1100596400
I0925 16:46:19.042464  3079 layer_factory.hpp:77] Creating layer Convolution48
I0925 16:46:19.042472  3079 net.cpp:84] Creating Layer Convolution48
I0925 16:46:19.042474  3079 net.cpp:406] Convolution48 <- Eltwise22_penlu45_0_split_0
I0925 16:46:19.042479  3079 net.cpp:380] Convolution48 -> Convolution48
I0925 16:46:19.044550  3079 net.cpp:122] Setting up Convolution48
I0925 16:46:19.044559  3079 net.cpp:129] Top shape: 100 64 8 8 (409600)
I0925 16:46:19.044561  3079 net.cpp:137] Memory required for data: 1102234800
I0925 16:46:19.044566  3079 layer_factory.hpp:77] Creating layer BatchNorm48
I0925 16:46:19.044571  3079 net.cpp:84] Creating Layer BatchNorm48
I0925 16:46:19.044574  3079 net.cpp:406] BatchNorm48 <- Convolution48
I0925 16:46:19.044579  3079 net.cpp:367] BatchNorm48 -> Convolution48 (in-place)
I0925 16:46:19.044723  3079 net.cpp:122] Setting up BatchNorm48
I0925 16:46:19.044728  3079 net.cpp:129] Top shape: 100 64 8 8 (409600)
I0925 16:46:19.044729  3079 net.cpp:137] Memory required for data: 1103873200
I0925 16:46:19.044734  3079 layer_factory.hpp:77] Creating layer Scale48
I0925 16:46:19.044739  3079 net.cpp:84] Creating Layer Scale48
I0925 16:46:19.044741  3079 net.cpp:406] Scale48 <- Convolution48
I0925 16:46:19.044744  3079 net.cpp:367] Scale48 -> Convolution48 (in-place)
I0925 16:46:19.044772  3079 layer_factory.hpp:77] Creating layer Scale48
I0925 16:46:19.044854  3079 net.cpp:122] Setting up Scale48
I0925 16:46:19.044859  3079 net.cpp:129] Top shape: 100 64 8 8 (409600)
I0925 16:46:19.044867  3079 net.cpp:137] Memory required for data: 1105511600
I0925 16:46:19.044872  3079 layer_factory.hpp:77] Creating layer penlu46
I0925 16:46:19.044878  3079 net.cpp:84] Creating Layer penlu46
I0925 16:46:19.044880  3079 net.cpp:406] penlu46 <- Convolution48
I0925 16:46:19.044883  3079 net.cpp:367] penlu46 -> Convolution48 (in-place)
I0925 16:46:19.045001  3079 net.cpp:122] Setting up penlu46
I0925 16:46:19.045006  3079 net.cpp:129] Top shape: 100 64 8 8 (409600)
I0925 16:46:19.045007  3079 net.cpp:137] Memory required for data: 1107150000
I0925 16:46:19.045011  3079 layer_factory.hpp:77] Creating layer Convolution49
I0925 16:46:19.045018  3079 net.cpp:84] Creating Layer Convolution49
I0925 16:46:19.045020  3079 net.cpp:406] Convolution49 <- Convolution48
I0925 16:46:19.045024  3079 net.cpp:380] Convolution49 -> Convolution49
I0925 16:46:19.047082  3079 net.cpp:122] Setting up Convolution49
I0925 16:46:19.047092  3079 net.cpp:129] Top shape: 100 64 8 8 (409600)
I0925 16:46:19.047094  3079 net.cpp:137] Memory required for data: 1108788400
I0925 16:46:19.047101  3079 layer_factory.hpp:77] Creating layer BatchNorm49
I0925 16:46:19.047104  3079 net.cpp:84] Creating Layer BatchNorm49
I0925 16:46:19.047107  3079 net.cpp:406] BatchNorm49 <- Convolution49
I0925 16:46:19.047113  3079 net.cpp:367] BatchNorm49 -> Convolution49 (in-place)
I0925 16:46:19.047255  3079 net.cpp:122] Setting up BatchNorm49
I0925 16:46:19.047260  3079 net.cpp:129] Top shape: 100 64 8 8 (409600)
I0925 16:46:19.047261  3079 net.cpp:137] Memory required for data: 1110426800
I0925 16:46:19.047266  3079 layer_factory.hpp:77] Creating layer Scale49
I0925 16:46:19.047271  3079 net.cpp:84] Creating Layer Scale49
I0925 16:46:19.047273  3079 net.cpp:406] Scale49 <- Convolution49
I0925 16:46:19.047277  3079 net.cpp:367] Scale49 -> Convolution49 (in-place)
I0925 16:46:19.047304  3079 layer_factory.hpp:77] Creating layer Scale49
I0925 16:46:19.047385  3079 net.cpp:122] Setting up Scale49
I0925 16:46:19.047390  3079 net.cpp:129] Top shape: 100 64 8 8 (409600)
I0925 16:46:19.047392  3079 net.cpp:137] Memory required for data: 1112065200
I0925 16:46:19.047395  3079 layer_factory.hpp:77] Creating layer Eltwise23
I0925 16:46:19.047400  3079 net.cpp:84] Creating Layer Eltwise23
I0925 16:46:19.047402  3079 net.cpp:406] Eltwise23 <- Eltwise22_penlu45_0_split_1
I0925 16:46:19.047405  3079 net.cpp:406] Eltwise23 <- Convolution49
I0925 16:46:19.047410  3079 net.cpp:380] Eltwise23 -> Eltwise23
I0925 16:46:19.047426  3079 net.cpp:122] Setting up Eltwise23
I0925 16:46:19.047430  3079 net.cpp:129] Top shape: 100 64 8 8 (409600)
I0925 16:46:19.047432  3079 net.cpp:137] Memory required for data: 1113703600
I0925 16:46:19.047435  3079 layer_factory.hpp:77] Creating layer penlu47
I0925 16:46:19.047439  3079 net.cpp:84] Creating Layer penlu47
I0925 16:46:19.047441  3079 net.cpp:406] penlu47 <- Eltwise23
I0925 16:46:19.047446  3079 net.cpp:367] penlu47 -> Eltwise23 (in-place)
I0925 16:46:19.047564  3079 net.cpp:122] Setting up penlu47
I0925 16:46:19.047567  3079 net.cpp:129] Top shape: 100 64 8 8 (409600)
I0925 16:46:19.047569  3079 net.cpp:137] Memory required for data: 1115342000
I0925 16:46:19.047574  3079 layer_factory.hpp:77] Creating layer Eltwise23_penlu47_0_split
I0925 16:46:19.047577  3079 net.cpp:84] Creating Layer Eltwise23_penlu47_0_split
I0925 16:46:19.047580  3079 net.cpp:406] Eltwise23_penlu47_0_split <- Eltwise23
I0925 16:46:19.047582  3079 net.cpp:380] Eltwise23_penlu47_0_split -> Eltwise23_penlu47_0_split_0
I0925 16:46:19.047586  3079 net.cpp:380] Eltwise23_penlu47_0_split -> Eltwise23_penlu47_0_split_1
I0925 16:46:19.047611  3079 net.cpp:122] Setting up Eltwise23_penlu47_0_split
I0925 16:46:19.047614  3079 net.cpp:129] Top shape: 100 64 8 8 (409600)
I0925 16:46:19.047617  3079 net.cpp:129] Top shape: 100 64 8 8 (409600)
I0925 16:46:19.047619  3079 net.cpp:137] Memory required for data: 1118618800
I0925 16:46:19.047621  3079 layer_factory.hpp:77] Creating layer Convolution50
I0925 16:46:19.047627  3079 net.cpp:84] Creating Layer Convolution50
I0925 16:46:19.047637  3079 net.cpp:406] Convolution50 <- Eltwise23_penlu47_0_split_0
I0925 16:46:19.047642  3079 net.cpp:380] Convolution50 -> Convolution50
I0925 16:46:19.050241  3079 net.cpp:122] Setting up Convolution50
I0925 16:46:19.050251  3079 net.cpp:129] Top shape: 100 64 8 8 (409600)
I0925 16:46:19.050253  3079 net.cpp:137] Memory required for data: 1120257200
I0925 16:46:19.050258  3079 layer_factory.hpp:77] Creating layer BatchNorm50
I0925 16:46:19.050263  3079 net.cpp:84] Creating Layer BatchNorm50
I0925 16:46:19.050266  3079 net.cpp:406] BatchNorm50 <- Convolution50
I0925 16:46:19.050271  3079 net.cpp:367] BatchNorm50 -> Convolution50 (in-place)
I0925 16:46:19.050416  3079 net.cpp:122] Setting up BatchNorm50
I0925 16:46:19.050420  3079 net.cpp:129] Top shape: 100 64 8 8 (409600)
I0925 16:46:19.050422  3079 net.cpp:137] Memory required for data: 1121895600
I0925 16:46:19.050427  3079 layer_factory.hpp:77] Creating layer Scale50
I0925 16:46:19.050431  3079 net.cpp:84] Creating Layer Scale50
I0925 16:46:19.050434  3079 net.cpp:406] Scale50 <- Convolution50
I0925 16:46:19.050438  3079 net.cpp:367] Scale50 -> Convolution50 (in-place)
I0925 16:46:19.050467  3079 layer_factory.hpp:77] Creating layer Scale50
I0925 16:46:19.050549  3079 net.cpp:122] Setting up Scale50
I0925 16:46:19.050552  3079 net.cpp:129] Top shape: 100 64 8 8 (409600)
I0925 16:46:19.050554  3079 net.cpp:137] Memory required for data: 1123534000
I0925 16:46:19.050559  3079 layer_factory.hpp:77] Creating layer penlu48
I0925 16:46:19.050564  3079 net.cpp:84] Creating Layer penlu48
I0925 16:46:19.050566  3079 net.cpp:406] penlu48 <- Convolution50
I0925 16:46:19.050570  3079 net.cpp:367] penlu48 -> Convolution50 (in-place)
I0925 16:46:19.050684  3079 net.cpp:122] Setting up penlu48
I0925 16:46:19.050689  3079 net.cpp:129] Top shape: 100 64 8 8 (409600)
I0925 16:46:19.050691  3079 net.cpp:137] Memory required for data: 1125172400
I0925 16:46:19.050696  3079 layer_factory.hpp:77] Creating layer Convolution51
I0925 16:46:19.050701  3079 net.cpp:84] Creating Layer Convolution51
I0925 16:46:19.050704  3079 net.cpp:406] Convolution51 <- Convolution50
I0925 16:46:19.050710  3079 net.cpp:380] Convolution51 -> Convolution51
I0925 16:46:19.052472  3079 net.cpp:122] Setting up Convolution51
I0925 16:46:19.052481  3079 net.cpp:129] Top shape: 100 64 8 8 (409600)
I0925 16:46:19.052484  3079 net.cpp:137] Memory required for data: 1126810800
I0925 16:46:19.052489  3079 layer_factory.hpp:77] Creating layer BatchNorm51
I0925 16:46:19.052494  3079 net.cpp:84] Creating Layer BatchNorm51
I0925 16:46:19.052511  3079 net.cpp:406] BatchNorm51 <- Convolution51
I0925 16:46:19.052516  3079 net.cpp:367] BatchNorm51 -> Convolution51 (in-place)
I0925 16:46:19.052666  3079 net.cpp:122] Setting up BatchNorm51
I0925 16:46:19.052671  3079 net.cpp:129] Top shape: 100 64 8 8 (409600)
I0925 16:46:19.052673  3079 net.cpp:137] Memory required for data: 1128449200
I0925 16:46:19.052678  3079 layer_factory.hpp:77] Creating layer Scale51
I0925 16:46:19.052682  3079 net.cpp:84] Creating Layer Scale51
I0925 16:46:19.052685  3079 net.cpp:406] Scale51 <- Convolution51
I0925 16:46:19.052690  3079 net.cpp:367] Scale51 -> Convolution51 (in-place)
I0925 16:46:19.052716  3079 layer_factory.hpp:77] Creating layer Scale51
I0925 16:46:19.052796  3079 net.cpp:122] Setting up Scale51
I0925 16:46:19.052800  3079 net.cpp:129] Top shape: 100 64 8 8 (409600)
I0925 16:46:19.052803  3079 net.cpp:137] Memory required for data: 1130087600
I0925 16:46:19.052806  3079 layer_factory.hpp:77] Creating layer Eltwise24
I0925 16:46:19.052810  3079 net.cpp:84] Creating Layer Eltwise24
I0925 16:46:19.052814  3079 net.cpp:406] Eltwise24 <- Eltwise23_penlu47_0_split_1
I0925 16:46:19.052816  3079 net.cpp:406] Eltwise24 <- Convolution51
I0925 16:46:19.052820  3079 net.cpp:380] Eltwise24 -> Eltwise24
I0925 16:46:19.052836  3079 net.cpp:122] Setting up Eltwise24
I0925 16:46:19.052840  3079 net.cpp:129] Top shape: 100 64 8 8 (409600)
I0925 16:46:19.052842  3079 net.cpp:137] Memory required for data: 1131726000
I0925 16:46:19.052851  3079 layer_factory.hpp:77] Creating layer penlu49
I0925 16:46:19.052856  3079 net.cpp:84] Creating Layer penlu49
I0925 16:46:19.052858  3079 net.cpp:406] penlu49 <- Eltwise24
I0925 16:46:19.052862  3079 net.cpp:367] penlu49 -> Eltwise24 (in-place)
I0925 16:46:19.052980  3079 net.cpp:122] Setting up penlu49
I0925 16:46:19.052985  3079 net.cpp:129] Top shape: 100 64 8 8 (409600)
I0925 16:46:19.052987  3079 net.cpp:137] Memory required for data: 1133364400
I0925 16:46:19.052992  3079 layer_factory.hpp:77] Creating layer Eltwise24_penlu49_0_split
I0925 16:46:19.052995  3079 net.cpp:84] Creating Layer Eltwise24_penlu49_0_split
I0925 16:46:19.052999  3079 net.cpp:406] Eltwise24_penlu49_0_split <- Eltwise24
I0925 16:46:19.053001  3079 net.cpp:380] Eltwise24_penlu49_0_split -> Eltwise24_penlu49_0_split_0
I0925 16:46:19.053005  3079 net.cpp:380] Eltwise24_penlu49_0_split -> Eltwise24_penlu49_0_split_1
I0925 16:46:19.053040  3079 net.cpp:122] Setting up Eltwise24_penlu49_0_split
I0925 16:46:19.058344  3079 net.cpp:129] Top shape: 100 64 8 8 (409600)
I0925 16:46:19.058356  3079 net.cpp:129] Top shape: 100 64 8 8 (409600)
I0925 16:46:19.058359  3079 net.cpp:137] Memory required for data: 1136641200
I0925 16:46:19.058364  3079 layer_factory.hpp:77] Creating layer Convolution52
I0925 16:46:19.058373  3079 net.cpp:84] Creating Layer Convolution52
I0925 16:46:19.058377  3079 net.cpp:406] Convolution52 <- Eltwise24_penlu49_0_split_0
I0925 16:46:19.058384  3079 net.cpp:380] Convolution52 -> Convolution52
I0925 16:46:19.061130  3079 net.cpp:122] Setting up Convolution52
I0925 16:46:19.061138  3079 net.cpp:129] Top shape: 100 64 8 8 (409600)
I0925 16:46:19.061141  3079 net.cpp:137] Memory required for data: 1138279600
I0925 16:46:19.061146  3079 layer_factory.hpp:77] Creating layer BatchNorm52
I0925 16:46:19.061151  3079 net.cpp:84] Creating Layer BatchNorm52
I0925 16:46:19.061154  3079 net.cpp:406] BatchNorm52 <- Convolution52
I0925 16:46:19.061159  3079 net.cpp:367] BatchNorm52 -> Convolution52 (in-place)
I0925 16:46:19.061305  3079 net.cpp:122] Setting up BatchNorm52
I0925 16:46:19.061308  3079 net.cpp:129] Top shape: 100 64 8 8 (409600)
I0925 16:46:19.061311  3079 net.cpp:137] Memory required for data: 1139918000
I0925 16:46:19.061316  3079 layer_factory.hpp:77] Creating layer Scale52
I0925 16:46:19.061322  3079 net.cpp:84] Creating Layer Scale52
I0925 16:46:19.061324  3079 net.cpp:406] Scale52 <- Convolution52
I0925 16:46:19.061328  3079 net.cpp:367] Scale52 -> Convolution52 (in-place)
I0925 16:46:19.061359  3079 layer_factory.hpp:77] Creating layer Scale52
I0925 16:46:19.061442  3079 net.cpp:122] Setting up Scale52
I0925 16:46:19.061446  3079 net.cpp:129] Top shape: 100 64 8 8 (409600)
I0925 16:46:19.061449  3079 net.cpp:137] Memory required for data: 1141556400
I0925 16:46:19.061452  3079 layer_factory.hpp:77] Creating layer penlu50
I0925 16:46:19.061475  3079 net.cpp:84] Creating Layer penlu50
I0925 16:46:19.061477  3079 net.cpp:406] penlu50 <- Convolution52
I0925 16:46:19.061480  3079 net.cpp:367] penlu50 -> Convolution52 (in-place)
I0925 16:46:19.061601  3079 net.cpp:122] Setting up penlu50
I0925 16:46:19.061606  3079 net.cpp:129] Top shape: 100 64 8 8 (409600)
I0925 16:46:19.061609  3079 net.cpp:137] Memory required for data: 1143194800
I0925 16:46:19.061653  3079 layer_factory.hpp:77] Creating layer Convolution53
I0925 16:46:19.061671  3079 net.cpp:84] Creating Layer Convolution53
I0925 16:46:19.061673  3079 net.cpp:406] Convolution53 <- Convolution52
I0925 16:46:19.061677  3079 net.cpp:380] Convolution53 -> Convolution53
I0925 16:46:19.063527  3079 net.cpp:122] Setting up Convolution53
I0925 16:46:19.063536  3079 net.cpp:129] Top shape: 100 64 8 8 (409600)
I0925 16:46:19.063539  3079 net.cpp:137] Memory required for data: 1144833200
I0925 16:46:19.063544  3079 layer_factory.hpp:77] Creating layer BatchNorm53
I0925 16:46:19.063549  3079 net.cpp:84] Creating Layer BatchNorm53
I0925 16:46:19.063552  3079 net.cpp:406] BatchNorm53 <- Convolution53
I0925 16:46:19.063556  3079 net.cpp:367] BatchNorm53 -> Convolution53 (in-place)
I0925 16:46:19.063711  3079 net.cpp:122] Setting up BatchNorm53
I0925 16:46:19.063716  3079 net.cpp:129] Top shape: 100 64 8 8 (409600)
I0925 16:46:19.063719  3079 net.cpp:137] Memory required for data: 1146471600
I0925 16:46:19.063724  3079 layer_factory.hpp:77] Creating layer Scale53
I0925 16:46:19.063729  3079 net.cpp:84] Creating Layer Scale53
I0925 16:46:19.063730  3079 net.cpp:406] Scale53 <- Convolution53
I0925 16:46:19.063735  3079 net.cpp:367] Scale53 -> Convolution53 (in-place)
I0925 16:46:19.063763  3079 layer_factory.hpp:77] Creating layer Scale53
I0925 16:46:19.063848  3079 net.cpp:122] Setting up Scale53
I0925 16:46:19.063853  3079 net.cpp:129] Top shape: 100 64 8 8 (409600)
I0925 16:46:19.063854  3079 net.cpp:137] Memory required for data: 1148110000
I0925 16:46:19.063858  3079 layer_factory.hpp:77] Creating layer Eltwise25
I0925 16:46:19.063864  3079 net.cpp:84] Creating Layer Eltwise25
I0925 16:46:19.063868  3079 net.cpp:406] Eltwise25 <- Eltwise24_penlu49_0_split_1
I0925 16:46:19.063870  3079 net.cpp:406] Eltwise25 <- Convolution53
I0925 16:46:19.063874  3079 net.cpp:380] Eltwise25 -> Eltwise25
I0925 16:46:19.063891  3079 net.cpp:122] Setting up Eltwise25
I0925 16:46:19.063895  3079 net.cpp:129] Top shape: 100 64 8 8 (409600)
I0925 16:46:19.063897  3079 net.cpp:137] Memory required for data: 1149748400
I0925 16:46:19.063899  3079 layer_factory.hpp:77] Creating layer penlu51
I0925 16:46:19.063905  3079 net.cpp:84] Creating Layer penlu51
I0925 16:46:19.063907  3079 net.cpp:406] penlu51 <- Eltwise25
I0925 16:46:19.063911  3079 net.cpp:367] penlu51 -> Eltwise25 (in-place)
I0925 16:46:19.064033  3079 net.cpp:122] Setting up penlu51
I0925 16:46:19.064038  3079 net.cpp:129] Top shape: 100 64 8 8 (409600)
I0925 16:46:19.064039  3079 net.cpp:137] Memory required for data: 1151386800
I0925 16:46:19.064044  3079 layer_factory.hpp:77] Creating layer Eltwise25_penlu51_0_split
I0925 16:46:19.064049  3079 net.cpp:84] Creating Layer Eltwise25_penlu51_0_split
I0925 16:46:19.064051  3079 net.cpp:406] Eltwise25_penlu51_0_split <- Eltwise25
I0925 16:46:19.064055  3079 net.cpp:380] Eltwise25_penlu51_0_split -> Eltwise25_penlu51_0_split_0
I0925 16:46:19.064059  3079 net.cpp:380] Eltwise25_penlu51_0_split -> Eltwise25_penlu51_0_split_1
I0925 16:46:19.064083  3079 net.cpp:122] Setting up Eltwise25_penlu51_0_split
I0925 16:46:19.064087  3079 net.cpp:129] Top shape: 100 64 8 8 (409600)
I0925 16:46:19.064090  3079 net.cpp:129] Top shape: 100 64 8 8 (409600)
I0925 16:46:19.064092  3079 net.cpp:137] Memory required for data: 1154663600
I0925 16:46:19.064095  3079 layer_factory.hpp:77] Creating layer Convolution54
I0925 16:46:19.064100  3079 net.cpp:84] Creating Layer Convolution54
I0925 16:46:19.064102  3079 net.cpp:406] Convolution54 <- Eltwise25_penlu51_0_split_0
I0925 16:46:19.064108  3079 net.cpp:380] Convolution54 -> Convolution54
I0925 16:46:19.066227  3079 net.cpp:122] Setting up Convolution54
I0925 16:46:19.066236  3079 net.cpp:129] Top shape: 100 64 8 8 (409600)
I0925 16:46:19.066239  3079 net.cpp:137] Memory required for data: 1156302000
I0925 16:46:19.066244  3079 layer_factory.hpp:77] Creating layer BatchNorm54
I0925 16:46:19.066249  3079 net.cpp:84] Creating Layer BatchNorm54
I0925 16:46:19.066252  3079 net.cpp:406] BatchNorm54 <- Convolution54
I0925 16:46:19.066256  3079 net.cpp:367] BatchNorm54 -> Convolution54 (in-place)
I0925 16:46:19.066409  3079 net.cpp:122] Setting up BatchNorm54
I0925 16:46:19.066414  3079 net.cpp:129] Top shape: 100 64 8 8 (409600)
I0925 16:46:19.066416  3079 net.cpp:137] Memory required for data: 1157940400
I0925 16:46:19.066421  3079 layer_factory.hpp:77] Creating layer Scale54
I0925 16:46:19.066426  3079 net.cpp:84] Creating Layer Scale54
I0925 16:46:19.066428  3079 net.cpp:406] Scale54 <- Convolution54
I0925 16:46:19.066431  3079 net.cpp:367] Scale54 -> Convolution54 (in-place)
I0925 16:46:19.066462  3079 layer_factory.hpp:77] Creating layer Scale54
I0925 16:46:19.066546  3079 net.cpp:122] Setting up Scale54
I0925 16:46:19.066551  3079 net.cpp:129] Top shape: 100 64 8 8 (409600)
I0925 16:46:19.066561  3079 net.cpp:137] Memory required for data: 1159578800
I0925 16:46:19.066565  3079 layer_factory.hpp:77] Creating layer penlu52
I0925 16:46:19.066572  3079 net.cpp:84] Creating Layer penlu52
I0925 16:46:19.066575  3079 net.cpp:406] penlu52 <- Convolution54
I0925 16:46:19.066578  3079 net.cpp:367] penlu52 -> Convolution54 (in-place)
I0925 16:46:19.066702  3079 net.cpp:122] Setting up penlu52
I0925 16:46:19.066706  3079 net.cpp:129] Top shape: 100 64 8 8 (409600)
I0925 16:46:19.066709  3079 net.cpp:137] Memory required for data: 1161217200
I0925 16:46:19.066714  3079 layer_factory.hpp:77] Creating layer Convolution55
I0925 16:46:19.066720  3079 net.cpp:84] Creating Layer Convolution55
I0925 16:46:19.066722  3079 net.cpp:406] Convolution55 <- Convolution54
I0925 16:46:19.066726  3079 net.cpp:380] Convolution55 -> Convolution55
I0925 16:46:19.068539  3079 net.cpp:122] Setting up Convolution55
I0925 16:46:19.068548  3079 net.cpp:129] Top shape: 100 64 8 8 (409600)
I0925 16:46:19.068552  3079 net.cpp:137] Memory required for data: 1162855600
I0925 16:46:19.068555  3079 layer_factory.hpp:77] Creating layer BatchNorm55
I0925 16:46:19.068560  3079 net.cpp:84] Creating Layer BatchNorm55
I0925 16:46:19.068563  3079 net.cpp:406] BatchNorm55 <- Convolution55
I0925 16:46:19.068567  3079 net.cpp:367] BatchNorm55 -> Convolution55 (in-place)
I0925 16:46:19.068711  3079 net.cpp:122] Setting up BatchNorm55
I0925 16:46:19.068717  3079 net.cpp:129] Top shape: 100 64 8 8 (409600)
I0925 16:46:19.068718  3079 net.cpp:137] Memory required for data: 1164494000
I0925 16:46:19.068723  3079 layer_factory.hpp:77] Creating layer Scale55
I0925 16:46:19.068728  3079 net.cpp:84] Creating Layer Scale55
I0925 16:46:19.068732  3079 net.cpp:406] Scale55 <- Convolution55
I0925 16:46:19.068734  3079 net.cpp:367] Scale55 -> Convolution55 (in-place)
I0925 16:46:19.068763  3079 layer_factory.hpp:77] Creating layer Scale55
I0925 16:46:19.068845  3079 net.cpp:122] Setting up Scale55
I0925 16:46:19.068850  3079 net.cpp:129] Top shape: 100 64 8 8 (409600)
I0925 16:46:19.068851  3079 net.cpp:137] Memory required for data: 1166132400
I0925 16:46:19.068856  3079 layer_factory.hpp:77] Creating layer Eltwise26
I0925 16:46:19.068861  3079 net.cpp:84] Creating Layer Eltwise26
I0925 16:46:19.068862  3079 net.cpp:406] Eltwise26 <- Eltwise25_penlu51_0_split_1
I0925 16:46:19.068866  3079 net.cpp:406] Eltwise26 <- Convolution55
I0925 16:46:19.068868  3079 net.cpp:380] Eltwise26 -> Eltwise26
I0925 16:46:19.068886  3079 net.cpp:122] Setting up Eltwise26
I0925 16:46:19.068889  3079 net.cpp:129] Top shape: 100 64 8 8 (409600)
I0925 16:46:19.068892  3079 net.cpp:137] Memory required for data: 1167770800
I0925 16:46:19.068893  3079 layer_factory.hpp:77] Creating layer penlu53
I0925 16:46:19.068898  3079 net.cpp:84] Creating Layer penlu53
I0925 16:46:19.068902  3079 net.cpp:406] penlu53 <- Eltwise26
I0925 16:46:19.068904  3079 net.cpp:367] penlu53 -> Eltwise26 (in-place)
I0925 16:46:19.069053  3079 net.cpp:122] Setting up penlu53
I0925 16:46:19.069059  3079 net.cpp:129] Top shape: 100 64 8 8 (409600)
I0925 16:46:19.069061  3079 net.cpp:137] Memory required for data: 1169409200
I0925 16:46:19.069067  3079 layer_factory.hpp:77] Creating layer Eltwise26_penlu53_0_split
I0925 16:46:19.069069  3079 net.cpp:84] Creating Layer Eltwise26_penlu53_0_split
I0925 16:46:19.069072  3079 net.cpp:406] Eltwise26_penlu53_0_split <- Eltwise26
I0925 16:46:19.069075  3079 net.cpp:380] Eltwise26_penlu53_0_split -> Eltwise26_penlu53_0_split_0
I0925 16:46:19.069079  3079 net.cpp:380] Eltwise26_penlu53_0_split -> Eltwise26_penlu53_0_split_1
I0925 16:46:19.069105  3079 net.cpp:122] Setting up Eltwise26_penlu53_0_split
I0925 16:46:19.069109  3079 net.cpp:129] Top shape: 100 64 8 8 (409600)
I0925 16:46:19.069113  3079 net.cpp:129] Top shape: 100 64 8 8 (409600)
I0925 16:46:19.069114  3079 net.cpp:137] Memory required for data: 1172686000
I0925 16:46:19.069116  3079 layer_factory.hpp:77] Creating layer Convolution56
I0925 16:46:19.069123  3079 net.cpp:84] Creating Layer Convolution56
I0925 16:46:19.069131  3079 net.cpp:406] Convolution56 <- Eltwise26_penlu53_0_split_0
I0925 16:46:19.069135  3079 net.cpp:380] Convolution56 -> Convolution56
I0925 16:46:19.070904  3079 net.cpp:122] Setting up Convolution56
I0925 16:46:19.070912  3079 net.cpp:129] Top shape: 100 64 8 8 (409600)
I0925 16:46:19.070915  3079 net.cpp:137] Memory required for data: 1174324400
I0925 16:46:19.070919  3079 layer_factory.hpp:77] Creating layer BatchNorm56
I0925 16:46:19.070924  3079 net.cpp:84] Creating Layer BatchNorm56
I0925 16:46:19.070927  3079 net.cpp:406] BatchNorm56 <- Convolution56
I0925 16:46:19.070931  3079 net.cpp:367] BatchNorm56 -> Convolution56 (in-place)
I0925 16:46:19.071079  3079 net.cpp:122] Setting up BatchNorm56
I0925 16:46:19.071084  3079 net.cpp:129] Top shape: 100 64 8 8 (409600)
I0925 16:46:19.071085  3079 net.cpp:137] Memory required for data: 1175962800
I0925 16:46:19.071090  3079 layer_factory.hpp:77] Creating layer Scale56
I0925 16:46:19.071096  3079 net.cpp:84] Creating Layer Scale56
I0925 16:46:19.071099  3079 net.cpp:406] Scale56 <- Convolution56
I0925 16:46:19.071102  3079 net.cpp:367] Scale56 -> Convolution56 (in-place)
I0925 16:46:19.071131  3079 layer_factory.hpp:77] Creating layer Scale56
I0925 16:46:19.071213  3079 net.cpp:122] Setting up Scale56
I0925 16:46:19.071218  3079 net.cpp:129] Top shape: 100 64 8 8 (409600)
I0925 16:46:19.071219  3079 net.cpp:137] Memory required for data: 1177601200
I0925 16:46:19.071223  3079 layer_factory.hpp:77] Creating layer penlu54
I0925 16:46:19.071229  3079 net.cpp:84] Creating Layer penlu54
I0925 16:46:19.071231  3079 net.cpp:406] penlu54 <- Convolution56
I0925 16:46:19.071235  3079 net.cpp:367] penlu54 -> Convolution56 (in-place)
I0925 16:46:19.071355  3079 net.cpp:122] Setting up penlu54
I0925 16:46:19.071360  3079 net.cpp:129] Top shape: 100 64 8 8 (409600)
I0925 16:46:19.071362  3079 net.cpp:137] Memory required for data: 1179239600
I0925 16:46:19.071367  3079 layer_factory.hpp:77] Creating layer Convolution57
I0925 16:46:19.071373  3079 net.cpp:84] Creating Layer Convolution57
I0925 16:46:19.071377  3079 net.cpp:406] Convolution57 <- Convolution56
I0925 16:46:19.071380  3079 net.cpp:380] Convolution57 -> Convolution57
I0925 16:46:19.073122  3079 net.cpp:122] Setting up Convolution57
I0925 16:46:19.073130  3079 net.cpp:129] Top shape: 100 64 8 8 (409600)
I0925 16:46:19.073133  3079 net.cpp:137] Memory required for data: 1180878000
I0925 16:46:19.073137  3079 layer_factory.hpp:77] Creating layer BatchNorm57
I0925 16:46:19.073143  3079 net.cpp:84] Creating Layer BatchNorm57
I0925 16:46:19.073146  3079 net.cpp:406] BatchNorm57 <- Convolution57
I0925 16:46:19.073150  3079 net.cpp:367] BatchNorm57 -> Convolution57 (in-place)
I0925 16:46:19.073294  3079 net.cpp:122] Setting up BatchNorm57
I0925 16:46:19.073299  3079 net.cpp:129] Top shape: 100 64 8 8 (409600)
I0925 16:46:19.073302  3079 net.cpp:137] Memory required for data: 1182516400
I0925 16:46:19.073307  3079 layer_factory.hpp:77] Creating layer Scale57
I0925 16:46:19.073310  3079 net.cpp:84] Creating Layer Scale57
I0925 16:46:19.073312  3079 net.cpp:406] Scale57 <- Convolution57
I0925 16:46:19.073317  3079 net.cpp:367] Scale57 -> Convolution57 (in-place)
I0925 16:46:19.073344  3079 layer_factory.hpp:77] Creating layer Scale57
I0925 16:46:19.073428  3079 net.cpp:122] Setting up Scale57
I0925 16:46:19.073432  3079 net.cpp:129] Top shape: 100 64 8 8 (409600)
I0925 16:46:19.073434  3079 net.cpp:137] Memory required for data: 1184154800
I0925 16:46:19.073438  3079 layer_factory.hpp:77] Creating layer Eltwise27
I0925 16:46:19.073442  3079 net.cpp:84] Creating Layer Eltwise27
I0925 16:46:19.073446  3079 net.cpp:406] Eltwise27 <- Eltwise26_penlu53_0_split_1
I0925 16:46:19.073448  3079 net.cpp:406] Eltwise27 <- Convolution57
I0925 16:46:19.073452  3079 net.cpp:380] Eltwise27 -> Eltwise27
I0925 16:46:19.073469  3079 net.cpp:122] Setting up Eltwise27
I0925 16:46:19.073472  3079 net.cpp:129] Top shape: 100 64 8 8 (409600)
I0925 16:46:19.073474  3079 net.cpp:137] Memory required for data: 1185793200
I0925 16:46:19.073483  3079 layer_factory.hpp:77] Creating layer penlu55
I0925 16:46:19.073488  3079 net.cpp:84] Creating Layer penlu55
I0925 16:46:19.073490  3079 net.cpp:406] penlu55 <- Eltwise27
I0925 16:46:19.073494  3079 net.cpp:367] penlu55 -> Eltwise27 (in-place)
I0925 16:46:19.073616  3079 net.cpp:122] Setting up penlu55
I0925 16:46:19.073621  3079 net.cpp:129] Top shape: 100 64 8 8 (409600)
I0925 16:46:19.073623  3079 net.cpp:137] Memory required for data: 1187431600
I0925 16:46:19.073628  3079 layer_factory.hpp:77] Creating layer Pooling1
I0925 16:46:19.073632  3079 net.cpp:84] Creating Layer Pooling1
I0925 16:46:19.073635  3079 net.cpp:406] Pooling1 <- Eltwise27
I0925 16:46:19.073638  3079 net.cpp:380] Pooling1 -> Pooling1
I0925 16:46:19.074115  3079 net.cpp:122] Setting up Pooling1
I0925 16:46:19.074123  3079 net.cpp:129] Top shape: 100 64 1 1 (6400)
I0925 16:46:19.088868  3079 net.cpp:137] Memory required for data: 1187457200
I0925 16:46:19.088876  3079 layer_factory.hpp:77] Creating layer InnerProduct1
I0925 16:46:19.088883  3079 net.cpp:84] Creating Layer InnerProduct1
I0925 16:46:19.088886  3079 net.cpp:406] InnerProduct1 <- Pooling1
I0925 16:46:19.088892  3079 net.cpp:380] InnerProduct1 -> InnerProduct1
I0925 16:46:19.089025  3079 net.cpp:122] Setting up InnerProduct1
I0925 16:46:19.089030  3079 net.cpp:129] Top shape: 100 10 (1000)
I0925 16:46:19.089032  3079 net.cpp:137] Memory required for data: 1187461200
I0925 16:46:19.089037  3079 layer_factory.hpp:77] Creating layer InnerProduct1_InnerProduct1_0_split
I0925 16:46:19.089041  3079 net.cpp:84] Creating Layer InnerProduct1_InnerProduct1_0_split
I0925 16:46:19.089045  3079 net.cpp:406] InnerProduct1_InnerProduct1_0_split <- InnerProduct1
I0925 16:46:19.089048  3079 net.cpp:380] InnerProduct1_InnerProduct1_0_split -> InnerProduct1_InnerProduct1_0_split_0
I0925 16:46:19.089053  3079 net.cpp:380] InnerProduct1_InnerProduct1_0_split -> InnerProduct1_InnerProduct1_0_split_1
I0925 16:46:19.089083  3079 net.cpp:122] Setting up InnerProduct1_InnerProduct1_0_split
I0925 16:46:19.089087  3079 net.cpp:129] Top shape: 100 10 (1000)
I0925 16:46:19.089090  3079 net.cpp:129] Top shape: 100 10 (1000)
I0925 16:46:19.089092  3079 net.cpp:137] Memory required for data: 1187469200
I0925 16:46:19.089094  3079 layer_factory.hpp:77] Creating layer SoftmaxWithLoss1
I0925 16:46:19.089100  3079 net.cpp:84] Creating Layer SoftmaxWithLoss1
I0925 16:46:19.089102  3079 net.cpp:406] SoftmaxWithLoss1 <- InnerProduct1_InnerProduct1_0_split_0
I0925 16:46:19.089107  3079 net.cpp:406] SoftmaxWithLoss1 <- Data2_Data1_1_split_0
…
