…
I0927 10:14:38.772351  3315 net.cpp:294] The NetState phase (0) differed from the phase (1) specified by a rule in layer Accuracy1
I0927 10:14:38.773550  3315 net.cpp:51] Initializing net from parameters: 
name: "resnet_cifar10"
state {
  phase: TRAIN
  level: 0
  stage: ""
}
layer {
  name: "Data1"
  type: "Data"
  top: "Data1"
  top: "Data2"
  include {
    phase: TRAIN
  }
  transform_param {
    mirror: true
    crop_size: 28
    mean_file: "/home/x306/caffe/xn/PENLU/data/cifar10/mean.binaryproto"
  }
  data_param {
    source: "/home/x306/caffe/xn/PENLU/data/cifar10/cifar10_train_lmdb"
    batch_size: 100
    backend: LMDB
  }
}
layer {
  name: "Convolution1"
  type: "Convolution"
  bottom: "Data1"
  top: "Convolution1"
  param {
    lr_mult: 1
    decay_mult: 1
  }
  param {
    lr_mult: 2
    decay_mult: 0
  }
  convolution_param {
    num_output: 16
    pad: 1
    kernel_size: 3
    stride: 1
    weight_filler {
      type: "gaussian"
      std: 0.118
    }
    bias_filler {
      type: "constant"
      value: 0
    }
  }
}
layer {
  name: "BatchNorm1"
  type: "BatchNorm"
  bottom: "Convolution1"
  top: "Convolution1"
  param {
    lr_mult: 0
    decay_mult: 0
  }
  param {
    lr_mult: 0
    decay_mult: 0
  }
  param {
    lr_mult: 0
    decay_mult: 0
  }
}
layer {
  name: "Scale1"
  type: "Scale"
  bottom: "Convolution1"
  top: "Convolution1"
  scale_param {
    bias_term: true
  }
}
layer {
  name: "penlu1"
  type: "PENLU"
  bottom: "Convolution1"
  top: "Convolution1"
  param {
    lr_mult: 1
    decay_mult: 0
  }
  param {
    lr_mult: 1
    decay_mult: 0
  }
  param {
    lr_mult: 0
    decay_mult: 0
  }
  penlu_param {
    alpha_filler {
      type: "constant"
      value: 2
    }
    beta_filler {
      type: "constant"
      value: 1
    }
    eta_filler {
      type: "constant"
      value: 1
    }
  }
}
layer {
  name: "Convolution2"
  type: "Convolution"
  bottom: "Convolution1"
  top: "Convolution2"
  param {
    lr_mult: 1
    decay_mult: 1
  }
  param {
    lr_mult: 2
    decay_mult: 0
  }
  convolution_param {
    num_output: 16
    pad: 1
    kernel_size: 3
    stride: 1
    weight_filler {
      type: "gaussian"
      std: 0.118
    }
    bias_filler {
      type: "constant"
      value: 0
    }
  }
}
layer {
  name: "BatchNorm2"
  type: "BatchNorm"
  bottom: "Convolution2"
  top: "Convolution2"
  param {
    lr_mult: 0
    decay_mult: 0
  }
  param {
    lr_mult: 0
    decay_mult: 0
  }
  param {
    lr_mult: 0
    decay_mult: 0
  }
}
layer {
  name: "Scale2"
  type: "Scale"
  bottom: "Convolution2"
  top: "Convolution2"
  scale_param {
    bias_term: true
  }
}
layer {
  name: "penlu2"
  type: "PENLU"
  bottom: "Convolution2"
  top: "Convolution2"
  param {
    lr_mult: 1
    decay_mult: 0
  }
  param {
    lr_mult: 1
    decay_mult: 0
  }
  param {
    lr_mult: 0
    decay_mult: 0
  }
  penlu_param {
    alpha_filler {
      type: "constant"
      value: 2
    }
    beta_filler {
      type: "constant"
      value: 1
    }
    eta_filler {
      type: "constant"
      value: 1
    }
  }
}
layer {
  name: "Convolution3"
  type: "Convolution"
  bottom: "Convolution2"
  top: "Convolution3"
  param {
    lr_mult: 1
    decay_mult: 1
  }
  param {
    lr_mult: 2
    decay_mult: 0
  }
  convolution_param {
    num_output: 16
    pad: 1
    kernel_size: 3
    stride: 1
    weight_filler {
      type: "gaussian"
      std: 0.118
    }
    bias_filler {
      type: "constant"
      value: 0
    }
  }
}
layer {
  name: "BatchNorm3"
  type: "BatchNorm"
  bottom: "Convolution3"
  top: "Convolution3"
  param {
    lr_mult: 0
    decay_mult: 0
  }
  param {
    lr_mult: 0
    decay_mult: 0
  }
  param {
    lr_mult: 0
    decay_mult: 0
  }
}
layer {
  name: "Scale3"
  type: "Scale"
  bottom: "Convolution3"
  top: "Convolution3"
  scale_param {
    bias_term: true
  }
}
layer {
  name: "Eltwise1"
  type: "Eltwise"
  bottom: "Convolution1"
  bottom: "Convolution3"
  top: "Eltwise1"
  eltwise_param {
    operation: SUM
  }
}
layer {
  name: "penlu3"
  type: "PENLU"
  bottom: "Eltwise1"
  top: "Eltwise1"
  param {
    lr_mult: 1
    decay_mult: 0
  }
  param {
    lr_mult: 1
    decay_mult: 0
  }
  param {
    lr_mult: 0
    decay_mult: 0
  }
  penlu_param {
    alpha_filler {
      type: "constant"
      value: 2
    }
    beta_filler {
      type: "constant"
      value: 1
    }
    eta_filler {
      type: "constant"
      value: 1
    }
  }
}
layer {
  name: "Convolution4"
  type: "Convolution"
  bottom: "Eltwise1"
  top: "Convolution4"
  param {
    lr_mult: 1
    decay_mult: 1
  }
  param {
    lr_mult: 2
    decay_mult: 0
  }
  convolution_param {
    num_output: 16
    pad: 1
    kernel_size: 3
    stride: 1
    weight_filler {
      type: "gaussian"
      std: 0.118
    }
    bias_filler {
      type: "constant"
      value: 0
    }
  }
}
layer {
  name: "BatchNorm4"
  type: "BatchNorm"
  bottom: "Convolution4"
  top: "Convolution4"
  param {
    lr_mult: 0
    decay_mult: 0
  }
  param {
    lr_mult: 0
    decay_mult: 0
  }
  param {
    lr_mult: 0
    decay_mult: 0
  }
}
layer {
  name: "Scale4"
  type: "Scale"
  bottom: "Convolution4"
  top: "Convolution4"
  scale_param {
    bias_term: true
  }
}
layer {
  name: "penlu4"
  type: "PENLU"
  bottom: "Convolution4"
  top: "Convolution4"
  param {
    lr_mult: 1
    decay_mult: 0
  }
  param {
    lr_mult: 1
    decay_mult: 0
  }
  param {
    lr_mult: 0
    decay_mult: 0
  }
  penlu_param {
    alpha_filler {
      type: "constant"
      value: 2
    }
    beta_filler {
      type: "constant"
      value: 1
    }
    eta_filler {
      type: "constant"
      value: 1
    }
  }
}
layer {
  name: "Convolution5"
  type: "Convolution"
  bottom: "Convolution4"
  top: "Convolution5"
  param {
    lr_mult: 1
    decay_mult: 1
  }
  param {
    lr_mult: 2
    decay_mult: 0
  }
  convolution_param {
    num_output: 16
    pad: 1
    kernel_size: 3
    stride: 1
    weight_filler {
      type: "gaussian"
      std: 0.118
    }
    bias_filler {
      type: "constant"
      value: 0
    }
  }
}
layer {
  name: "BatchNorm5"
  type: "BatchNorm"
  bottom: "Convolution5"
  top: "Convolution5"
  param {
    lr_mult: 0
    decay_mult: 0
  }
  param {
    lr_mult: 0
    decay_mult: 0
  }
  param {
    lr_mult: 0
    decay_mult: 0
  }
}
layer {
  name: "Scale5"
  type: "Scale"
  bottom: "Convolution5"
  top: "Convolution5"
  scale_param {
    bias_term: true
  }
}
layer {
  name: "Eltwise2"
  type: "Eltwise"
  bottom: "Eltwise1"
  bottom: "Convolution5"
  top: "Eltwise2"
  eltwise_param {
    operation: SUM
  }
}
layer {
  name: "penlu5"
  type: "PENLU"
  bottom: "Eltwise2"
  top: "Eltwise2"
  param {
    lr_mult: 1
    decay_mult: 0
  }
  param {
    lr_mult: 1
    decay_mult: 0
  }
  param {
    lr_mult: 0
    decay_mult: 0
  }
  penlu_param {
    alpha_filler {
      type: "constant"
      value: 2
    }
    beta_filler {
      type: "constant"
      value: 1
    }
    eta_filler {
      type: "constant"
      value: 1
    }
  }
}
layer {
  name: "Convolution6"
  type: "Convolution"
  bottom: "Eltwise2"
  top: "Convolution6"
  param {
    lr_mult: 1
    decay_mult: 1
  }
  param {
    lr_mult: 2
    decay_mult: 0
  }
  convolution_param {
    num_output: 16
    pad: 1
    kernel_size: 3
    stride: 1
    weight_filler {
      type: "gaussian"
      std: 0.118
    }
    bias_filler {
      type: "constant"
      value: 0
    }
  }
}
layer {
  name: "BatchNorm6"
  type: "BatchNorm"
  bottom: "Convolution6"
  top: "Convolution6"
  param {
    lr_mult: 0
    decay_mult: 0
  }
  param {
    lr_mult: 0
    decay_mult: 0
  }
  param {
    lr_mult: 0
    decay_mult: 0
  }
}
layer {
  name: "Scale6"
  type: "Scale"
  bottom: "Convolution6"
  top: "Convolution6"
  scale_param {
    bias_term: true
  }
}
layer {
  name: "penlu6"
  type: "PENLU"
  bottom: "Convolution6"
  top: "Convolution6"
  param {
    lr_mult: 1
    decay_mult: 0
  }
  param {
    lr_mult: 1
    decay_mult: 0
  }
  param {
    lr_mult: 0
    decay_mult: 0
  }
  penlu_param {
    alpha_filler {
      type: "constant"
      value: 2
    }
    beta_filler {
      type: "constant"
      value: 1
    }
    eta_filler {
      type: "constant"
      value: 1
    }
  }
}
layer {
  name: "Convolution7"
  type: "Convolution"
  bottom: "Convolution6"
  top: "Convolution7"
  param {
    lr_mult: 1
    decay_mult: 1
  }
  param {
    lr_mult: 2
    decay_mult: 0
  }
  convolution_param {
    num_output: 16
    pad: 1
    kernel_size: 3
    stride: 1
    weight_filler {
      type: "gaussian"
      std: 0.118
    }
    bias_filler {
      type: "constant"
      value: 0
    }
  }
}
layer {
  name: "BatchNorm7"
  type: "BatchNorm"
  bottom: "Convolution7"
  top: "Convolution7"
  param {
    lr_mult: 0
    decay_mult: 0
  }
  param {
    lr_mult: 0
    decay_mult: 0
  }
  param {
    lr_mult: 0
    decay_mult: 0
  }
}
layer {
  name: "Scale7"
  type: "Scale"
  bottom: "Convolution7"
  top: "Convolution7"
  scale_param {
    bias_term: true
  }
}
layer {
  name: "Eltwise3"
  type: "Eltwise"
  bottom: "Eltwise2"
  bottom: "Convolution7"
  top: "Eltwise3"
  eltwise_param {
    operation: SUM
  }
}
layer {
  name: "penlu7"
  type: "PENLU"
  bottom: "Eltwise3"
  top: "Eltwise3"
  param {
    lr_mult: 1
    decay_mult: 0
  }
  param {
    lr_mult: 1
    decay_mult: 0
  }
  param {
    lr_mult: 0
    decay_mult: 0
  }
  penlu_param {
    alpha_filler {
      type: "constant"
      value: 2
    }
    beta_filler {
      type: "constant"
      value: 1
    }
    eta_filler {
      type: "constant"
      value: 1
    }
  }
}
layer {
  name: "Convolution8"
  type: "Convolution"
  bottom: "Eltwise3"
  top: "Convolution8"
  param {
    lr_mult: 1
    decay_mult: 1
  }
  param {
    lr_mult: 2
    decay_mult: 0
  }
  convolution_param {
    num_output: 16
    pad: 1
    kernel_size: 3
    stride: 1
    weight_filler {
      type: "gaussian"
      std: 0.118
    }
    bias_filler {
      type: "constant"
      value: 0
    }
  }
}
layer {
  name: "BatchNorm8"
  type: "BatchNorm"
  bottom: "Convolution8"
  top: "Convolution8"
  param {
    lr_mult: 0
    decay_mult: 0
  }
  param {
    lr_mult: 0
    decay_mult: 0
  }
  param {
    lr_mult: 0
    decay_mult: 0
  }
}
layer {
  name: "Scale8"
  type: "Scale"
  bottom: "Convolution8"
  top: "Convolution8"
  scale_param {
    bias_term: true
  }
}
layer {
  name: "penlu8"
  type: "PENLU"
  bottom: "Convolution8"
  top: "Convolution8"
  param {
    lr_mult: 1
    decay_mult: 0
  }
  param {
    lr_mult: 1
    decay_mult: 0
  }
  param {
    lr_mult: 0
    decay_mult: 0
  }
  penlu_param {
    alpha_filler {
      type: "constant"
      value: 2
    }
    beta_filler {
      type: "constant"
      value: 1
    }
    eta_filler {
      type: "constant"
      value: 1
    }
  }
}
layer {
  name: "Convolution9"
  type: "Convolution"
  bottom: "Convolution8"
  top: "Convolution9"
  param {
    lr_mult: 1
    decay_mult: 1
  }
  param {
    lr_mult: 2
    decay_mult: 0
  }
  convolution_param {
    num_output: 16
    pad: 1
    kernel_size: 3
    stride: 1
    weight_filler {
      type: "gaussian"
      std: 0.118
    }
    bias_filler {
      type: "constant"
      value: 0
    }
  }
}
layer {
  name: "BatchNorm9"
  type: "BatchNorm"
  bottom: "Convolution9"
  top: "Convolution9"
  param {
    lr_mult: 0
    decay_mult: 0
  }
  param {
    lr_mult: 0
    decay_mult: 0
  }
  param {
    lr_mult: 0
    decay_mult: 0
  }
}
layer {
  name: "Scale9"
  type: "Scale"
  bottom: "Convolution9"
  top: "Convolution9"
  scale_param {
    bias_term: true
  }
}
layer {
  name: "Eltwise4"
  type: "Eltwise"
  bottom: "Eltwise3"
  bottom: "Convolution9"
  top: "Eltwise4"
  eltwise_param {
    operation: SUM
  }
}
layer {
  name: "penlu9"
  type: "PENLU"
  bottom: "Eltwise4"
  top: "Eltwise4"
  param {
    lr_mult: 1
    decay_mult: 0
  }
  param {
    lr_mult: 1
    decay_mult: 0
  }
  param {
    lr_mult: 0
    decay_mult: 0
  }
  penlu_param {
    alpha_filler {
      type: "constant"
      value: 2
    }
    beta_filler {
      type: "constant"
      value: 1
    }
    eta_filler {
      type: "constant"
      value: 1
    }
  }
}
layer {
  name: "Convolution10"
  type: "Convolution"
  bottom: "Eltwise4"
  top: "Convolution10"
  param {
    lr_mult: 1
    decay_mult: 1
  }
  param {
    lr_mult: 2
    decay_mult: 0
  }
  convolution_param {
    num_output: 16
    pad: 1
    kernel_size: 3
    stride: 1
    weight_filler {
      type: "gaussian"
      std: 0.118
    }
    bias_filler {
      type: "constant"
      value: 0
    }
  }
}
layer {
  name: "BatchNorm10"
  type: "BatchNorm"
  bottom: "Convolution10"
  top: "Convolution10"
  param {
    lr_mult: 0
    decay_mult: 0
  }
  param {
    lr_mult: 0
    decay_mult: 0
  }
  param {
    lr_mult: 0
    decay_mult: 0
  }
}
layer {
  name: "Scale10"
  type: "Scale"
  bottom: "Convolution10"
  top: "Convolution10"
  scale_param {
    bias_term: true
  }
}
layer {
  name: "penlu10"
  type: "PENLU"
  bottom: "Convolution10"
  top: "Convolution10"
  param {
    lr_mult: 1
    decay_mult: 0
  }
  param {
    lr_mult: 1
    decay_mult: 0
  }
  param {
    lr_mult: 0
    decay_mult: 0
  }
  penlu_param {
    alpha_filler {
      type: "constant"
      value: 2
    }
    beta_filler {
      type: "constant"
      value: 1
    }
    eta_filler {
      type: "constant"
      value: 1
    }
  }
}
layer {
  name: "Convolution11"
  type: "Convolution"
  bottom: "Convolution10"
  top: "Convolution11"
  param {
    lr_mult: 1
    decay_mult: 1
  }
  param {
    lr_mult: 2
    decay_mult: 0
  }
  convolution_param {
    num_output: 16
    pad: 1
    kernel_size: 3
    stride: 1
    weight_filler {
      type: "gaussian"
      std: 0.118
    }
    bias_filler {
      type: "constant"
      value: 0
    }
  }
}
layer {
  name: "BatchNorm11"
  type: "BatchNorm"
  bottom: "Convolution11"
  top: "Convolution11"
  param {
    lr_mult: 0
    decay_mult: 0
  }
  param {
    lr_mult: 0
    decay_mult: 0
  }
  param {
    lr_mult: 0
    decay_mult: 0
  }
}
layer {
  name: "Scale11"
  type: "Scale"
  bottom: "Convolution11"
  top: "Convolution11"
  scale_param {
    bias_term: true
  }
}
layer {
  name: "Eltwise5"
  type: "Eltwise"
  bottom: "Eltwise4"
  bottom: "Convolution11"
  top: "Eltwise5"
  eltwise_param {
    operation: SUM
  }
}
layer {
  name: "penlu11"
  type: "PENLU"
  bottom: "Eltwise5"
  top: "Eltwise5"
  param {
    lr_mult: 1
    decay_mult: 0
  }
  param {
    lr_mult: 1
    decay_mult: 0
  }
  param {
    lr_mult: 0
    decay_mult: 0
  }
  penlu_param {
    alpha_filler {
      type: "constant"
      value: 2
    }
    beta_filler {
      type: "constant"
      value: 1
    }
    eta_filler {
      type: "constant"
      value: 1
    }
  }
}
layer {
  name: "Convolution12"
  type: "Convolution"
  bottom: "Eltwise5"
  top: "Convolution12"
  param {
    lr_mult: 1
    decay_mult: 1
  }
  param {
    lr_mult: 2
    decay_mult: 0
  }
  convolution_param {
    num_output: 16
    pad: 1
    kernel_size: 3
    stride: 1
    weight_filler {
      type: "gaussian"
      std: 0.118
    }
    bias_filler {
      type: "constant"
      value: 0
    }
  }
}
layer {
  name: "BatchNorm12"
  type: "BatchNorm"
  bottom: "Convolution12"
  top: "Convolution12"
  param {
    lr_mult: 0
    decay_mult: 0
  }
  param {
    lr_mult: 0
    decay_mult: 0
  }
  param {
    lr_mult: 0
    decay_mult: 0
  }
}
layer {
  name: "Scale12"
  type: "Scale"
  bottom: "Convolution12"
  top: "Convolution12"
  scale_param {
    bias_term: true
  }
}
layer {
  name: "penlu12"
  type: "PENLU"
  bottom: "Convolution12"
  top: "Convolution12"
  param {
    lr_mult: 1
    decay_mult: 0
  }
  param {
    lr_mult: 1
    decay_mult: 0
  }
  param {
    lr_mult: 0
    decay_mult: 0
  }
  penlu_param {
    alpha_filler {
      type: "constant"
      value: 2
    }
    beta_filler {
      type: "constant"
      value: 1
    }
    eta_filler {
      type: "constant"
      value: 1
    }
  }
}
layer {
  name: "Convolution13"
  type: "Convolution"
  bottom: "Convolution12"
  top: "Convolution13"
  param {
    lr_mult: 1
    decay_mult: 1
  }
  param {
    lr_mult: 2
    decay_mult: 0
  }
  convolution_param {
    num_output: 16
    pad: 1
    kernel_size: 3
    stride: 1
    weight_filler {
      type: "gaussian"
      std: 0.118
    }
    bias_filler {
      type: "constant"
      value: 0
    }
  }
}
layer {
  name: "BatchNorm13"
  type: "BatchNorm"
  bottom: "Convolution13"
  top: "Convolution13"
  param {
    lr_mult: 0
    decay_mult: 0
  }
  param {
    lr_mult: 0
    decay_mult: 0
  }
  param {
    lr_mult: 0
    decay_mult: 0
  }
}
layer {
  name: "Scale13"
  type: "Scale"
  bottom: "Convolution13"
  top: "Convolution13"
  scale_param {
    bias_term: true
  }
}
layer {
  name: "Eltwise6"
  type: "Eltwise"
  bottom: "Eltwise5"
  bottom: "Convolution13"
  top: "Eltwise6"
  eltwise_param {
    operation: SUM
  }
}
layer {
  name: "penlu13"
  type: "PENLU"
  bottom: "Eltwise6"
  top: "Eltwise6"
  param {
    lr_mult: 1
    decay_mult: 0
  }
  param {
    lr_mult: 1
    decay_mult: 0
  }
  param {
    lr_mult: 0
    decay_mult: 0
  }
  penlu_param {
    alpha_filler {
      type: "constant"
      value: 2
    }
    beta_filler {
      type: "constant"
      value: 1
    }
    eta_filler {
      type: "constant"
      value: 1
    }
  }
}
layer {
  name: "Convolution14"
  type: "Convolution"
  bottom: "Eltwise6"
  top: "Convolution14"
  param {
    lr_mult: 1
    decay_mult: 1
  }
  param {
    lr_mult: 2
    decay_mult: 0
  }
  convolution_param {
    num_output: 16
    pad: 1
    kernel_size: 3
    stride: 1
    weight_filler {
      type: "gaussian"
      std: 0.118
    }
    bias_filler {
      type: "constant"
      value: 0
    }
  }
}
layer {
  name: "BatchNorm14"
  type: "BatchNorm"
  bottom: "Convolution14"
  top: "Convolution14"
  param {
    lr_mult: 0
    decay_mult: 0
  }
  param {
    lr_mult: 0
    decay_mult: 0
  }
  param {
    lr_mult: 0
    decay_mult: 0
  }
}
layer {
  name: "Scale14"
  type: "Scale"
  bottom: "Convolution14"
  top: "Convolution14"
  scale_param {
    bias_term: true
  }
}
layer {
  name: "penlu14"
  type: "PENLU"
  bottom: "Convolution14"
  top: "Convolution14"
  param {
    lr_mult: 1
    decay_mult: 0
  }
  param {
    lr_mult: 1
    decay_mult: 0
  }
  param {
    lr_mult: 0
    decay_mult: 0
  }
  penlu_param {
    alpha_filler {
      type: "constant"
      value: 2
    }
    beta_filler {
      type: "constant"
      value: 1
    }
    eta_filler {
      type: "constant"
      value: 1
    }
  }
}
layer {
  name: "Convolution15"
  type: "Convolution"
  bottom: "Convolution14"
  top: "Convolution15"
  param {
    lr_mult: 1
    decay_mult: 1
  }
  param {
    lr_mult: 2
    decay_mult: 0
  }
  convolution_param {
    num_output: 16
    pad: 1
    kernel_size: 3
    stride: 1
    weight_filler {
      type: "gaussian"
      std: 0.118
    }
    bias_filler {
      type: "constant"
      value: 0
    }
  }
}
layer {
  name: "BatchNorm15"
  type: "BatchNorm"
  bottom: "Convolution15"
  top: "Convolution15"
  param {
    lr_mult: 0
    decay_mult: 0
  }
  param {
    lr_mult: 0
    decay_mult: 0
  }
  param {
    lr_mult: 0
    decay_mult: 0
  }
}
layer {
  name: "Scale15"
  type: "Scale"
  bottom: "Convolution15"
  top: "Convolution15"
  scale_param {
    bias_term: true
  }
}
layer {
  name: "Eltwise7"
  type: "Eltwise"
  bottom: "Eltwise6"
  bottom: "Convolution15"
  top: "Eltwise7"
  eltwise_param {
    operation: SUM
  }
}
layer {
  name: "penlu15"
  type: "PENLU"
  bottom: "Eltwise7"
  top: "Eltwise7"
  param {
    lr_mult: 1
    decay_mult: 0
  }
  param {
    lr_mult: 1
    decay_mult: 0
  }
  param {
    lr_mult: 0
    decay_mult: 0
  }
  penlu_param {
    alpha_filler {
      type: "constant"
      value: 2
    }
    beta_filler {
      type: "constant"
      value: 1
    }
    eta_filler {
      type: "constant"
      value: 1
    }
  }
}
layer {
  name: "Convolution16"
  type: "Convolution"
  bottom: "Eltwise7"
  top: "Convolution16"
  param {
    lr_mult: 1
    decay_mult: 1
  }
  param {
    lr_mult: 2
    decay_mult: 0
  }
  convolution_param {
    num_output: 16
    pad: 1
    kernel_size: 3
    stride: 1
    weight_filler {
      type: "gaussian"
      std: 0.118
    }
    bias_filler {
      type: "constant"
      value: 0
    }
  }
}
layer {
  name: "BatchNorm16"
  type: "BatchNorm"
  bottom: "Convolution16"
  top: "Convolution16"
  param {
    lr_mult: 0
    decay_mult: 0
  }
  param {
    lr_mult: 0
    decay_mult: 0
  }
  param {
    lr_mult: 0
    decay_mult: 0
  }
}
layer {
  name: "Scale16"
  type: "Scale"
  bottom: "Convolution16"
  top: "Convolution16"
  scale_param {
    bias_term: true
  }
}
layer {
  name: "penlu16"
  type: "PENLU"
  bottom: "Convolution16"
  top: "Convolution16"
  param {
    lr_mult: 1
    decay_mult: 0
  }
  param {
    lr_mult: 1
    decay_mult: 0
  }
  param {
    lr_mult: 0
    decay_mult: 0
  }
  penlu_param {
    alpha_filler {
      type: "constant"
      value: 2
    }
    beta_filler {
      type: "constant"
      value: 1
    }
    eta_filler {
      type: "constant"
      value: 1
    }
  }
}
layer {
  name: "Convolution17"
  type: "Convolution"
  bottom: "Convolution16"
  top: "Convolution17"
  param {
    lr_mult: 1
    decay_mult: 1
  }
  param {
    lr_mult: 2
    decay_mult: 0
  }
  convolution_param {
    num_output: 16
    pad: 1
    kernel_size: 3
    stride: 1
    weight_filler {
      type: "gaussian"
      std: 0.118
    }
    bias_filler {
      type: "constant"
      value: 0
    }
  }
}
layer {
  name: "BatchNorm17"
  type: "BatchNorm"
  bottom: "Convolution17"
  top: "Convolution17"
  param {
    lr_mult: 0
    decay_mult: 0
  }
  param {
    lr_mult: 0
    decay_mult: 0
  }
  param {
    lr_mult: 0
    decay_mult: 0
  }
}
layer {
  name: "Scale17"
  type: "Scale"
  bottom: "Convolution17"
  top: "Convolution17"
  scale_param {
    bias_term: true
  }
}
layer {
  name: "Eltwise8"
  type: "Eltwise"
  bottom: "Eltwise7"
  bottom: "Convolution17"
  top: "Eltwise8"
  eltwise_param {
    operation: SUM
  }
}
layer {
  name: "penlu17"
  type: "PENLU"
  bottom: "Eltwise8"
  top: "Eltwise8"
  param {
    lr_mult: 1
    decay_mult: 0
  }
  param {
    lr_mult: 1
    decay_mult: 0
  }
  param {
    lr_mult: 0
    decay_mult: 0
  }
  penlu_param {
    alpha_filler {
      type: "constant"
      value: 2
    }
    beta_filler {
      type: "constant"
      value: 1
    }
    eta_filler {
      type: "constant"
      value: 1
    }
  }
}
layer {
  name: "Convolution18"
  type: "Convolution"
  bottom: "Eltwise8"
  top: "Convolution18"
  param {
    lr_mult: 1
    decay_mult: 1
  }
  param {
    lr_mult: 2
    decay_mult: 0
  }
  convolution_param {
    num_output: 16
    pad: 1
    kernel_size: 3
    stride: 1
    weight_filler {
      type: "gaussian"
      std: 0.118
    }
    bias_filler {
      type: "constant"
      value: 0
    }
  }
}
layer {
  name: "BatchNorm18"
  type: "BatchNorm"
  bottom: "Convolution18"
  top: "Convolution18"
  param {
    lr_mult: 0
    decay_mult: 0
  }
  param {
    lr_mult: 0
    decay_mult: 0
  }
  param {
    lr_mult: 0
    decay_mult: 0
  }
}
layer {
  name: "Scale18"
  type: "Scale"
  bottom: "Convolution18"
  top: "Convolution18"
  scale_param {
    bias_term: true
  }
}
layer {
  name: "penlu18"
  type: "PENLU"
  bottom: "Convolution18"
  top: "Convolution18"
  param {
    lr_mult: 1
    decay_mult: 0
  }
  param {
    lr_mult: 1
    decay_mult: 0
  }
  param {
    lr_mult: 0
    decay_mult: 0
  }
  penlu_param {
    alpha_filler {
      type: "constant"
      value: 2
    }
    beta_filler {
      type: "constant"
      value: 1
    }
    eta_filler {
      type: "constant"
      value: 1
    }
  }
}
layer {
  name: "Convolution19"
  type: "Convolution"
  bottom: "Convolution18"
  top: "Convolution19"
  param {
    lr_mult: 1
    decay_mult: 1
  }
  param {
    lr_mult: 2
    decay_mult: 0
  }
  convolution_param {
    num_output: 16
    pad: 1
    kernel_size: 3
    stride: 1
    weight_filler {
      type: "gaussian"
      std: 0.118
    }
    bias_filler {
      type: "constant"
      value: 0
    }
  }
}
layer {
  name: "BatchNorm19"
  type: "BatchNorm"
  bottom: "Convolution19"
  top: "Convolution19"
  param {
    lr_mult: 0
    decay_mult: 0
  }
  param {
    lr_mult: 0
    decay_mult: 0
  }
  param {
    lr_mult: 0
    decay_mult: 0
  }
}
layer {
  name: "Scale19"
  type: "Scale"
  bottom: "Convolution19"
  top: "Convolution19"
  scale_param {
    bias_term: true
  }
}
layer {
  name: "Eltwise9"
  type: "Eltwise"
  bottom: "Eltwise8"
  bottom: "Convolution19"
  top: "Eltwise9"
  eltwise_param {
    operation: SUM
  }
}
layer {
  name: "penlu19"
  type: "PENLU"
  bottom: "Eltwise9"
  top: "Eltwise9"
  param {
    lr_mult: 1
    decay_mult: 0
  }
  param {
    lr_mult: 1
    decay_mult: 0
  }
  param {
    lr_mult: 0
    decay_mult: 0
  }
  penlu_param {
    alpha_filler {
      type: "constant"
      value: 2
    }
    beta_filler {
      type: "constant"
      value: 1
    }
    eta_filler {
      type: "constant"
      value: 1
    }
  }
}
layer {
  name: "Convolution20"
  type: "Convolution"
  bottom: "Eltwise9"
  top: "Convolution20"
  param {
    lr_mult: 1
    decay_mult: 1
  }
  param {
    lr_mult: 2
    decay_mult: 0
  }
  convolution_param {
    num_output: 32
    pad: 0
    kernel_size: 1
    stride: 2
    weight_filler {
      type: "gaussian"
      std: 0.25
    }
    bias_filler {
      type: "constant"
      value: 0
    }
  }
}
layer {
  name: "BatchNorm20"
  type: "BatchNorm"
  bottom: "Convolution20"
  top: "Convolution20"
  param {
    lr_mult: 0
    decay_mult: 0
  }
  param {
    lr_mult: 0
    decay_mult: 0
  }
  param {
    lr_mult: 0
    decay_mult: 0
  }
}
layer {
  name: "Scale20"
  type: "Scale"
  bottom: "Convolution20"
  top: "Convolution20"
  scale_param {
    bias_term: true
  }
}
layer {
  name: "Convolution21"
  type: "Convolution"
  bottom: "Eltwise9"
  top: "Convolution21"
  param {
    lr_mult: 1
    decay_mult: 1
  }
  param {
    lr_mult: 2
    decay_mult: 0
  }
  convolution_param {
    num_output: 32
    pad: 1
    kernel_size: 3
    stride: 2
    weight_filler {
      type: "gaussian"
      std: 0.083
    }
    bias_filler {
      type: "constant"
      value: 0
    }
  }
}
layer {
  name: "BatchNorm21"
  type: "BatchNorm"
  bottom: "Convolution21"
  top: "Convolution21"
  param {
    lr_mult: 0
    decay_mult: 0
  }
  param {
    lr_mult: 0
    decay_mult: 0
  }
  param {
    lr_mult: 0
    decay_mult: 0
  }
}
layer {
  name: "Scale21"
  type: "Scale"
  bottom: "Convolution21"
  top: "Convolution21"
  scale_param {
    bias_term: true
  }
}
layer {
  name: "penlu20"
  type: "PENLU"
  bottom: "Convolution21"
  top: "Convolution21"
  param {
    lr_mult: 1
    decay_mult: 0
  }
  param {
    lr_mult: 1
    decay_mult: 0
  }
  param {
    lr_mult: 0
    decay_mult: 0
  }
  penlu_param {
    alpha_filler {
      type: "constant"
      value: 2
    }
    beta_filler {
      type: "constant"
      value: 1
    }
    eta_filler {
      type: "constant"
      value: 1
    }
  }
}
layer {
  name: "Convolution22"
  type: "Convolution"
  bottom: "Convolution21"
  top: "Convolution22"
  param {
    lr_mult: 1
    decay_mult: 1
  }
  param {
    lr_mult: 2
    decay_mult: 0
  }
  convolution_param {
    num_output: 32
    pad: 1
    kernel_size: 3
    stride: 1
    weight_filler {
      type: "gaussian"
      std: 0.083
    }
    bias_filler {
      type: "constant"
      value: 0
    }
  }
}
layer {
  name: "BatchNorm22"
  type: "BatchNorm"
  bottom: "Convolution22"
  top: "Convolution22"
  param {
    lr_mult: 0
    decay_mult: 0
  }
  param {
    lr_mult: 0
    decay_mult: 0
  }
  param {
    lr_mult: 0
    decay_mult: 0
  }
}
layer {
  name: "Scale22"
  type: "Scale"
  bottom: "Convolution22"
  top: "Convolution22"
  scale_param {
    bias_term: true
  }
}
layer {
  name: "Eltwise10"
  type: "Eltwise"
  bottom: "Convolution20"
  bottom: "Convolution22"
  top: "Eltwise10"
  eltwise_param {
    operation: SUM
  }
}
layer {
  name: "penlu21"
  type: "PENLU"
  bottom: "Eltwise10"
  top: "Eltwise10"
  param {
    lr_mult: 1
    decay_mult: 0
  }
  param {
    lr_mult: 1
    decay_mult: 0
  }
  param {
    lr_mult: 0
    decay_mult: 0
  }
  penlu_param {
    alpha_filler {
      type: "constant"
      value: 2
    }
    beta_filler {
      type: "constant"
      value: 1
    }
    eta_filler {
      type: "constant"
      value: 1
    }
  }
}
layer {
  name: "Convolution23"
  type: "Convolution"
  bottom: "Eltwise10"
  top: "Convolution23"
  param {
    lr_mult: 1
    decay_mult: 1
  }
  param {
    lr_mult: 2
    decay_mult: 0
  }
  convolution_param {
    num_output: 32
    pad: 1
    kernel_size: 3
    stride: 1
    weight_filler {
      type: "gaussian"
      std: 0.083
    }
    bias_filler {
      type: "constant"
      value: 0
    }
  }
}
layer {
  name: "BatchNorm23"
  type: "BatchNorm"
  bottom: "Convolution23"
  top: "Convolution23"
  param {
    lr_mult: 0
    decay_mult: 0
  }
  param {
    lr_mult: 0
    decay_mult: 0
  }
  param {
    lr_mult: 0
    decay_mult: 0
  }
}
layer {
  name: "Scale23"
  type: "Scale"
  bottom: "Convolution23"
  top: "Convolution23"
  scale_param {
    bias_term: true
  }
}
layer {
  name: "penlu22"
  type: "PENLU"
  bottom: "Convolution23"
  top: "Convolution23"
  param {
    lr_mult: 1
    decay_mult: 0
  }
  param {
    lr_mult: 1
    decay_mult: 0
  }
  param {
    lr_mult: 0
    decay_mult: 0
  }
  penlu_param {
    alpha_filler {
      type: "constant"
      value: 2
    }
    beta_filler {
      type: "constant"
      value: 1
    }
    eta_filler {
      type: "constant"
      value: 1
    }
  }
}
layer {
  name: "Convolution24"
  type: "Convolution"
  bottom: "Convolution23"
  top: "Convolution24"
  param {
    lr_mult: 1
    decay_mult: 1
  }
  param {
    lr_mult: 2
    decay_mult: 0
  }
  convolution_param {
    num_output: 32
    pad: 1
    kernel_size: 3
    stride: 1
    weight_filler {
      type: "gaussian"
      std
I0927 10:14:38.774325  3315 layer_factory.hpp:77] Creating layer Data1
I0927 10:14:38.774412  3315 db_lmdb.cpp:35] Opened lmdb /home/x306/caffe/xn/PENLU/data/cifar10/cifar10_train_lmdb
I0927 10:14:38.774432  3315 net.cpp:84] Creating Layer Data1
I0927 10:14:38.774437  3315 net.cpp:380] Data1 -> Data1
I0927 10:14:38.774454  3315 net.cpp:380] Data1 -> Data2
I0927 10:14:38.774463  3315 data_transformer.cpp:25] Loading mean file from: /home/x306/caffe/xn/PENLU/data/cifar10/mean.binaryproto
I0927 10:14:38.775861  3315 data_layer.cpp:45] output data size: 100,3,28,28
I0927 10:14:38.778107  3315 net.cpp:122] Setting up Data1
I0927 10:14:38.778120  3315 net.cpp:129] Top shape: 100 3 28 28 (235200)
I0927 10:14:38.778123  3315 net.cpp:129] Top shape: 100 (100)
I0927 10:14:38.778126  3315 net.cpp:137] Memory required for data: 941200
I0927 10:14:38.778132  3315 layer_factory.hpp:77] Creating layer Convolution1
I0927 10:14:38.778151  3315 net.cpp:84] Creating Layer Convolution1
I0927 10:14:38.778154  3315 net.cpp:406] Convolution1 <- Data1
I0927 10:14:38.778163  3315 net.cpp:380] Convolution1 -> Convolution1
I0927 10:14:38.923311  3315 net.cpp:122] Setting up Convolution1
I0927 10:14:38.923336  3315 net.cpp:129] Top shape: 100 16 28 28 (1254400)
I0927 10:14:38.923339  3315 net.cpp:137] Memory required for data: 5958800
I0927 10:14:38.923353  3315 layer_factory.hpp:77] Creating layer BatchNorm1
I0927 10:14:38.923373  3315 net.cpp:84] Creating Layer BatchNorm1
I0927 10:14:38.923377  3315 net.cpp:406] BatchNorm1 <- Convolution1
I0927 10:14:38.923393  3315 net.cpp:367] BatchNorm1 -> Convolution1 (in-place)
I0927 10:14:38.923526  3315 net.cpp:122] Setting up BatchNorm1
I0927 10:14:38.923532  3315 net.cpp:129] Top shape: 100 16 28 28 (1254400)
I0927 10:14:38.923533  3315 net.cpp:137] Memory required for data: 10976400
I0927 10:14:38.923540  3315 layer_factory.hpp:77] Creating layer Scale1
I0927 10:14:38.923550  3315 net.cpp:84] Creating Layer Scale1
I0927 10:14:38.923563  3315 net.cpp:406] Scale1 <- Convolution1
I0927 10:14:38.923566  3315 net.cpp:367] Scale1 -> Convolution1 (in-place)
I0927 10:14:38.923596  3315 layer_factory.hpp:77] Creating layer Scale1
I0927 10:14:38.923702  3315 net.cpp:122] Setting up Scale1
I0927 10:14:38.923708  3315 net.cpp:129] Top shape: 100 16 28 28 (1254400)
I0927 10:14:38.923710  3315 net.cpp:137] Memory required for data: 15994000
I0927 10:14:38.923725  3315 layer_factory.hpp:77] Creating layer penlu1
I0927 10:14:38.923732  3315 net.cpp:84] Creating Layer penlu1
I0927 10:14:38.923735  3315 net.cpp:406] penlu1 <- Convolution1
I0927 10:14:38.923739  3315 net.cpp:367] penlu1 -> Convolution1 (in-place)
I0927 10:14:38.924355  3315 net.cpp:122] Setting up penlu1
I0927 10:14:38.924365  3315 net.cpp:129] Top shape: 100 16 28 28 (1254400)
I0927 10:14:38.924367  3315 net.cpp:137] Memory required for data: 21011600
I0927 10:14:38.924386  3315 layer_factory.hpp:77] Creating layer Convolution1_penlu1_0_split
I0927 10:14:38.924407  3315 net.cpp:84] Creating Layer Convolution1_penlu1_0_split
I0927 10:14:38.924412  3315 net.cpp:406] Convolution1_penlu1_0_split <- Convolution1
I0927 10:14:38.924424  3315 net.cpp:380] Convolution1_penlu1_0_split -> Convolution1_penlu1_0_split_0
I0927 10:14:38.924443  3315 net.cpp:380] Convolution1_penlu1_0_split -> Convolution1_penlu1_0_split_1
I0927 10:14:38.924485  3315 net.cpp:122] Setting up Convolution1_penlu1_0_split
I0927 10:14:38.924499  3315 net.cpp:129] Top shape: 100 16 28 28 (1254400)
I0927 10:14:38.924504  3315 net.cpp:129] Top shape: 100 16 28 28 (1254400)
I0927 10:14:38.924516  3315 net.cpp:137] Memory required for data: 31046800
I0927 10:14:38.924520  3315 layer_factory.hpp:77] Creating layer Convolution2
I0927 10:14:38.924537  3315 net.cpp:84] Creating Layer Convolution2
I0927 10:14:38.924540  3315 net.cpp:406] Convolution2 <- Convolution1_penlu1_0_split_0
I0927 10:14:38.924545  3315 net.cpp:380] Convolution2 -> Convolution2
I0927 10:14:38.925397  3315 net.cpp:122] Setting up Convolution2
I0927 10:14:38.925407  3315 net.cpp:129] Top shape: 100 16 28 28 (1254400)
I0927 10:14:38.925421  3315 net.cpp:137] Memory required for data: 36064400
I0927 10:14:38.925427  3315 layer_factory.hpp:77] Creating layer BatchNorm2
I0927 10:14:38.925447  3315 net.cpp:84] Creating Layer BatchNorm2
I0927 10:14:38.925451  3315 net.cpp:406] BatchNorm2 <- Convolution2
I0927 10:14:38.925464  3315 net.cpp:367] BatchNorm2 -> Convolution2 (in-place)
I0927 10:14:38.925628  3315 net.cpp:122] Setting up BatchNorm2
I0927 10:14:38.925633  3315 net.cpp:129] Top shape: 100 16 28 28 (1254400)
I0927 10:14:38.925637  3315 net.cpp:137] Memory required for data: 41082000
I0927 10:14:38.925652  3315 layer_factory.hpp:77] Creating layer Scale2
I0927 10:14:38.925657  3315 net.cpp:84] Creating Layer Scale2
I0927 10:14:38.925670  3315 net.cpp:406] Scale2 <- Convolution2
I0927 10:14:38.925674  3315 net.cpp:367] Scale2 -> Convolution2 (in-place)
I0927 10:14:38.925709  3315 layer_factory.hpp:77] Creating layer Scale2
I0927 10:14:38.925827  3315 net.cpp:122] Setting up Scale2
I0927 10:14:38.925832  3315 net.cpp:129] Top shape: 100 16 28 28 (1254400)
I0927 10:14:38.925834  3315 net.cpp:137] Memory required for data: 46099600
I0927 10:14:38.925850  3315 layer_factory.hpp:77] Creating layer penlu2
I0927 10:14:38.925866  3315 net.cpp:84] Creating Layer penlu2
I0927 10:14:38.925869  3315 net.cpp:406] penlu2 <- Convolution2
I0927 10:14:38.925873  3315 net.cpp:367] penlu2 -> Convolution2 (in-place)
I0927 10:14:38.925981  3315 net.cpp:122] Setting up penlu2
I0927 10:14:38.925987  3315 net.cpp:129] Top shape: 100 16 28 28 (1254400)
I0927 10:14:38.925997  3315 net.cpp:137] Memory required for data: 51117200
I0927 10:14:38.926002  3315 layer_factory.hpp:77] Creating layer Convolution3
I0927 10:14:38.926008  3315 net.cpp:84] Creating Layer Convolution3
I0927 10:14:38.926012  3315 net.cpp:406] Convolution3 <- Convolution2
I0927 10:14:38.926015  3315 net.cpp:380] Convolution3 -> Convolution3
I0927 10:14:38.926821  3315 net.cpp:122] Setting up Convolution3
I0927 10:14:38.926831  3315 net.cpp:129] Top shape: 100 16 28 28 (1254400)
I0927 10:14:38.926836  3315 net.cpp:137] Memory required for data: 56134800
I0927 10:14:38.926839  3315 layer_factory.hpp:77] Creating layer BatchNorm3
I0927 10:14:38.926846  3315 net.cpp:84] Creating Layer BatchNorm3
I0927 10:14:38.926848  3315 net.cpp:406] BatchNorm3 <- Convolution3
I0927 10:14:38.926852  3315 net.cpp:367] BatchNorm3 -> Convolution3 (in-place)
I0927 10:14:38.926961  3315 net.cpp:122] Setting up BatchNorm3
I0927 10:14:38.926966  3315 net.cpp:129] Top shape: 100 16 28 28 (1254400)
I0927 10:14:38.926970  3315 net.cpp:137] Memory required for data: 61152400
I0927 10:14:38.926975  3315 layer_factory.hpp:77] Creating layer Scale3
I0927 10:14:38.926978  3315 net.cpp:84] Creating Layer Scale3
I0927 10:14:38.926982  3315 net.cpp:406] Scale3 <- Convolution3
I0927 10:14:38.926985  3315 net.cpp:367] Scale3 -> Convolution3 (in-place)
I0927 10:14:38.927008  3315 layer_factory.hpp:77] Creating layer Scale3
I0927 10:14:38.927073  3315 net.cpp:122] Setting up Scale3
I0927 10:14:38.927078  3315 net.cpp:129] Top shape: 100 16 28 28 (1254400)
I0927 10:14:38.927080  3315 net.cpp:137] Memory required for data: 66170000
I0927 10:14:38.927084  3315 layer_factory.hpp:77] Creating layer Eltwise1
I0927 10:14:38.927089  3315 net.cpp:84] Creating Layer Eltwise1
I0927 10:14:38.927093  3315 net.cpp:406] Eltwise1 <- Convolution1_penlu1_0_split_1
I0927 10:14:38.927095  3315 net.cpp:406] Eltwise1 <- Convolution3
I0927 10:14:38.927099  3315 net.cpp:380] Eltwise1 -> Eltwise1
I0927 10:14:38.927115  3315 net.cpp:122] Setting up Eltwise1
I0927 10:14:38.927120  3315 net.cpp:129] Top shape: 100 16 28 28 (1254400)
I0927 10:14:38.927124  3315 net.cpp:137] Memory required for data: 71187600
I0927 10:14:38.927125  3315 layer_factory.hpp:77] Creating layer penlu3
I0927 10:14:38.927130  3315 net.cpp:84] Creating Layer penlu3
I0927 10:14:38.927134  3315 net.cpp:406] penlu3 <- Eltwise1
I0927 10:14:38.927136  3315 net.cpp:367] penlu3 -> Eltwise1 (in-place)
I0927 10:14:38.927227  3315 net.cpp:122] Setting up penlu3
I0927 10:14:38.927232  3315 net.cpp:129] Top shape: 100 16 28 28 (1254400)
I0927 10:14:38.927234  3315 net.cpp:137] Memory required for data: 76205200
I0927 10:14:38.927239  3315 layer_factory.hpp:77] Creating layer Eltwise1_penlu3_0_split
I0927 10:14:38.927243  3315 net.cpp:84] Creating Layer Eltwise1_penlu3_0_split
I0927 10:14:38.927247  3315 net.cpp:406] Eltwise1_penlu3_0_split <- Eltwise1
I0927 10:14:38.927249  3315 net.cpp:380] Eltwise1_penlu3_0_split -> Eltwise1_penlu3_0_split_0
I0927 10:14:38.927255  3315 net.cpp:380] Eltwise1_penlu3_0_split -> Eltwise1_penlu3_0_split_1
I0927 10:14:38.927275  3315 net.cpp:122] Setting up Eltwise1_penlu3_0_split
I0927 10:14:38.927280  3315 net.cpp:129] Top shape: 100 16 28 28 (1254400)
I0927 10:14:38.927284  3315 net.cpp:129] Top shape: 100 16 28 28 (1254400)
I0927 10:14:38.927286  3315 net.cpp:137] Memory required for data: 86240400
I0927 10:14:38.927289  3315 layer_factory.hpp:77] Creating layer Convolution4
I0927 10:14:38.927295  3315 net.cpp:84] Creating Layer Convolution4
I0927 10:14:38.927299  3315 net.cpp:406] Convolution4 <- Eltwise1_penlu3_0_split_0
I0927 10:14:38.927301  3315 net.cpp:380] Convolution4 -> Convolution4
I0927 10:14:38.928094  3315 net.cpp:122] Setting up Convolution4
I0927 10:14:38.928104  3315 net.cpp:129] Top shape: 100 16 28 28 (1254400)
I0927 10:14:38.928108  3315 net.cpp:137] Memory required for data: 91258000
I0927 10:14:38.928112  3315 layer_factory.hpp:77] Creating layer BatchNorm4
I0927 10:14:38.928118  3315 net.cpp:84] Creating Layer BatchNorm4
I0927 10:14:38.928128  3315 net.cpp:406] BatchNorm4 <- Convolution4
I0927 10:14:38.928133  3315 net.cpp:367] BatchNorm4 -> Convolution4 (in-place)
I0927 10:14:38.928242  3315 net.cpp:122] Setting up BatchNorm4
I0927 10:14:38.928247  3315 net.cpp:129] Top shape: 100 16 28 28 (1254400)
I0927 10:14:38.928251  3315 net.cpp:137] Memory required for data: 96275600
I0927 10:14:38.928258  3315 layer_factory.hpp:77] Creating layer Scale4
I0927 10:14:38.928262  3315 net.cpp:84] Creating Layer Scale4
I0927 10:14:38.928267  3315 net.cpp:406] Scale4 <- Convolution4
I0927 10:14:38.928269  3315 net.cpp:367] Scale4 -> Convolution4 (in-place)
I0927 10:14:38.928292  3315 layer_factory.hpp:77] Creating layer Scale4
I0927 10:14:38.928356  3315 net.cpp:122] Setting up Scale4
I0927 10:14:38.928361  3315 net.cpp:129] Top shape: 100 16 28 28 (1254400)
I0927 10:14:38.928364  3315 net.cpp:137] Memory required for data: 101293200
I0927 10:14:38.928369  3315 layer_factory.hpp:77] Creating layer penlu4
I0927 10:14:38.928375  3315 net.cpp:84] Creating Layer penlu4
I0927 10:14:38.928377  3315 net.cpp:406] penlu4 <- Convolution4
I0927 10:14:38.928381  3315 net.cpp:367] penlu4 -> Convolution4 (in-place)
I0927 10:14:38.928473  3315 net.cpp:122] Setting up penlu4
I0927 10:14:38.928479  3315 net.cpp:129] Top shape: 100 16 28 28 (1254400)
I0927 10:14:38.928483  3315 net.cpp:137] Memory required for data: 106310800
I0927 10:14:38.928488  3315 layer_factory.hpp:77] Creating layer Convolution5
I0927 10:14:38.928494  3315 net.cpp:84] Creating Layer Convolution5
I0927 10:14:38.928498  3315 net.cpp:406] Convolution5 <- Convolution4
I0927 10:14:38.928501  3315 net.cpp:380] Convolution5 -> Convolution5
I0927 10:14:38.929329  3315 net.cpp:122] Setting up Convolution5
I0927 10:14:38.929339  3315 net.cpp:129] Top shape: 100 16 28 28 (1254400)
I0927 10:14:38.929342  3315 net.cpp:137] Memory required for data: 111328400
I0927 10:14:38.929347  3315 layer_factory.hpp:77] Creating layer BatchNorm5
I0927 10:14:38.929352  3315 net.cpp:84] Creating Layer BatchNorm5
I0927 10:14:38.929356  3315 net.cpp:406] BatchNorm5 <- Convolution5
I0927 10:14:38.929360  3315 net.cpp:367] BatchNorm5 -> Convolution5 (in-place)
I0927 10:14:38.929479  3315 net.cpp:122] Setting up BatchNorm5
I0927 10:14:38.929484  3315 net.cpp:129] Top shape: 100 16 28 28 (1254400)
I0927 10:14:38.929487  3315 net.cpp:137] Memory required for data: 116346000
I0927 10:14:38.929492  3315 layer_factory.hpp:77] Creating layer Scale5
I0927 10:14:38.929497  3315 net.cpp:84] Creating Layer Scale5
I0927 10:14:38.929499  3315 net.cpp:406] Scale5 <- Convolution5
I0927 10:14:38.929503  3315 net.cpp:367] Scale5 -> Convolution5 (in-place)
I0927 10:14:38.929529  3315 layer_factory.hpp:77] Creating layer Scale5
I0927 10:14:38.929600  3315 net.cpp:122] Setting up Scale5
I0927 10:14:38.929605  3315 net.cpp:129] Top shape: 100 16 28 28 (1254400)
I0927 10:14:38.929606  3315 net.cpp:137] Memory required for data: 121363600
I0927 10:14:38.929610  3315 layer_factory.hpp:77] Creating layer Eltwise2
I0927 10:14:38.929616  3315 net.cpp:84] Creating Layer Eltwise2
I0927 10:14:38.929620  3315 net.cpp:406] Eltwise2 <- Eltwise1_penlu3_0_split_1
I0927 10:14:38.929622  3315 net.cpp:406] Eltwise2 <- Convolution5
I0927 10:14:38.929625  3315 net.cpp:380] Eltwise2 -> Eltwise2
I0927 10:14:38.929641  3315 net.cpp:122] Setting up Eltwise2
I0927 10:14:38.929644  3315 net.cpp:129] Top shape: 100 16 28 28 (1254400)
I0927 10:14:38.929646  3315 net.cpp:137] Memory required for data: 126381200
I0927 10:14:38.929648  3315 layer_factory.hpp:77] Creating layer penlu5
I0927 10:14:38.929654  3315 net.cpp:84] Creating Layer penlu5
I0927 10:14:38.929657  3315 net.cpp:406] penlu5 <- Eltwise2
I0927 10:14:38.929661  3315 net.cpp:367] penlu5 -> Eltwise2 (in-place)
I0927 10:14:38.929759  3315 net.cpp:122] Setting up penlu5
I0927 10:14:38.929764  3315 net.cpp:129] Top shape: 100 16 28 28 (1254400)
I0927 10:14:38.929766  3315 net.cpp:137] Memory required for data: 131398800
I0927 10:14:38.929770  3315 layer_factory.hpp:77] Creating layer Eltwise2_penlu5_0_split
I0927 10:14:38.929783  3315 net.cpp:84] Creating Layer Eltwise2_penlu5_0_split
I0927 10:14:38.929785  3315 net.cpp:406] Eltwise2_penlu5_0_split <- Eltwise2
I0927 10:14:38.929790  3315 net.cpp:380] Eltwise2_penlu5_0_split -> Eltwise2_penlu5_0_split_0
I0927 10:14:38.929795  3315 net.cpp:380] Eltwise2_penlu5_0_split -> Eltwise2_penlu5_0_split_1
I0927 10:14:38.929816  3315 net.cpp:122] Setting up Eltwise2_penlu5_0_split
I0927 10:14:38.929821  3315 net.cpp:129] Top shape: 100 16 28 28 (1254400)
I0927 10:14:38.929823  3315 net.cpp:129] Top shape: 100 16 28 28 (1254400)
I0927 10:14:38.929826  3315 net.cpp:137] Memory required for data: 141434000
I0927 10:14:38.929828  3315 layer_factory.hpp:77] Creating layer Convolution6
I0927 10:14:38.929834  3315 net.cpp:84] Creating Layer Convolution6
I0927 10:14:38.929837  3315 net.cpp:406] Convolution6 <- Eltwise2_penlu5_0_split_0
I0927 10:14:38.929842  3315 net.cpp:380] Convolution6 -> Convolution6
I0927 10:14:38.930678  3315 net.cpp:122] Setting up Convolution6
I0927 10:14:38.930688  3315 net.cpp:129] Top shape: 100 16 28 28 (1254400)
I0927 10:14:38.930692  3315 net.cpp:137] Memory required for data: 146451600
I0927 10:14:38.930696  3315 layer_factory.hpp:77] Creating layer BatchNorm6
I0927 10:14:38.930702  3315 net.cpp:84] Creating Layer BatchNorm6
I0927 10:14:38.930706  3315 net.cpp:406] BatchNorm6 <- Convolution6
I0927 10:14:38.930711  3315 net.cpp:367] BatchNorm6 -> Convolution6 (in-place)
I0927 10:14:38.930832  3315 net.cpp:122] Setting up BatchNorm6
I0927 10:14:38.930837  3315 net.cpp:129] Top shape: 100 16 28 28 (1254400)
I0927 10:14:38.930840  3315 net.cpp:137] Memory required for data: 151469200
I0927 10:14:38.930845  3315 layer_factory.hpp:77] Creating layer Scale6
I0927 10:14:38.930850  3315 net.cpp:84] Creating Layer Scale6
I0927 10:14:38.930853  3315 net.cpp:406] Scale6 <- Convolution6
I0927 10:14:38.930856  3315 net.cpp:367] Scale6 -> Convolution6 (in-place)
I0927 10:14:38.930882  3315 layer_factory.hpp:77] Creating layer Scale6
I0927 10:14:38.930954  3315 net.cpp:122] Setting up Scale6
I0927 10:14:38.930959  3315 net.cpp:129] Top shape: 100 16 28 28 (1254400)
I0927 10:14:38.930963  3315 net.cpp:137] Memory required for data: 156486800
I0927 10:14:38.930966  3315 layer_factory.hpp:77] Creating layer penlu6
I0927 10:14:38.930972  3315 net.cpp:84] Creating Layer penlu6
I0927 10:14:38.930975  3315 net.cpp:406] penlu6 <- Convolution6
I0927 10:14:38.930979  3315 net.cpp:367] penlu6 -> Convolution6 (in-place)
I0927 10:14:38.931076  3315 net.cpp:122] Setting up penlu6
I0927 10:14:38.931080  3315 net.cpp:129] Top shape: 100 16 28 28 (1254400)
I0927 10:14:38.931083  3315 net.cpp:137] Memory required for data: 161504400
I0927 10:14:38.931088  3315 layer_factory.hpp:77] Creating layer Convolution7
I0927 10:14:38.931097  3315 net.cpp:84] Creating Layer Convolution7
I0927 10:14:38.931099  3315 net.cpp:406] Convolution7 <- Convolution6
I0927 10:14:38.931103  3315 net.cpp:380] Convolution7 -> Convolution7
I0927 10:14:38.931622  3315 net.cpp:122] Setting up Convolution7
I0927 10:14:38.931630  3315 net.cpp:129] Top shape: 100 16 28 28 (1254400)
I0927 10:14:38.931634  3315 net.cpp:137] Memory required for data: 166522000
I0927 10:14:38.931638  3315 layer_factory.hpp:77] Creating layer BatchNorm7
I0927 10:14:38.931643  3315 net.cpp:84] Creating Layer BatchNorm7
I0927 10:14:38.931645  3315 net.cpp:406] BatchNorm7 <- Convolution7
I0927 10:14:38.931650  3315 net.cpp:367] BatchNorm7 -> Convolution7 (in-place)
I0927 10:14:38.931771  3315 net.cpp:122] Setting up BatchNorm7
I0927 10:14:38.931777  3315 net.cpp:129] Top shape: 100 16 28 28 (1254400)
I0927 10:14:38.931780  3315 net.cpp:137] Memory required for data: 171539600
I0927 10:14:38.931789  3315 layer_factory.hpp:77] Creating layer Scale7
I0927 10:14:38.931797  3315 net.cpp:84] Creating Layer Scale7
I0927 10:14:38.931799  3315 net.cpp:406] Scale7 <- Convolution7
I0927 10:14:38.931803  3315 net.cpp:367] Scale7 -> Convolution7 (in-place)
I0927 10:14:38.931828  3315 layer_factory.hpp:77] Creating layer Scale7
I0927 10:14:38.931900  3315 net.cpp:122] Setting up Scale7
I0927 10:14:38.931910  3315 net.cpp:129] Top shape: 100 16 28 28 (1254400)
I0927 10:14:38.931913  3315 net.cpp:137] Memory required for data: 176557200
I0927 10:14:38.931917  3315 layer_factory.hpp:77] Creating layer Eltwise3
I0927 10:14:38.931922  3315 net.cpp:84] Creating Layer Eltwise3
I0927 10:14:38.931926  3315 net.cpp:406] Eltwise3 <- Eltwise2_penlu5_0_split_1
I0927 10:14:38.931929  3315 net.cpp:406] Eltwise3 <- Convolution7
I0927 10:14:38.931933  3315 net.cpp:380] Eltwise3 -> Eltwise3
I0927 10:14:38.931949  3315 net.cpp:122] Setting up Eltwise3
I0927 10:14:38.931953  3315 net.cpp:129] Top shape: 100 16 28 28 (1254400)
I0927 10:14:38.931955  3315 net.cpp:137] Memory required for data: 181574800
I0927 10:14:38.931957  3315 layer_factory.hpp:77] Creating layer penlu7
I0927 10:14:38.931963  3315 net.cpp:84] Creating Layer penlu7
I0927 10:14:38.931967  3315 net.cpp:406] penlu7 <- Eltwise3
I0927 10:14:38.931969  3315 net.cpp:367] penlu7 -> Eltwise3 (in-place)
I0927 10:14:38.932070  3315 net.cpp:122] Setting up penlu7
I0927 10:14:38.932076  3315 net.cpp:129] Top shape: 100 16 28 28 (1254400)
I0927 10:14:38.932078  3315 net.cpp:137] Memory required for data: 186592400
I0927 10:14:38.932083  3315 layer_factory.hpp:77] Creating layer Eltwise3_penlu7_0_split
I0927 10:14:38.932087  3315 net.cpp:84] Creating Layer Eltwise3_penlu7_0_split
I0927 10:14:38.932090  3315 net.cpp:406] Eltwise3_penlu7_0_split <- Eltwise3
I0927 10:14:38.932093  3315 net.cpp:380] Eltwise3_penlu7_0_split -> Eltwise3_penlu7_0_split_0
I0927 10:14:38.932098  3315 net.cpp:380] Eltwise3_penlu7_0_split -> Eltwise3_penlu7_0_split_1
I0927 10:14:38.932121  3315 net.cpp:122] Setting up Eltwise3_penlu7_0_split
I0927 10:14:38.932124  3315 net.cpp:129] Top shape: 100 16 28 28 (1254400)
I0927 10:14:38.932127  3315 net.cpp:129] Top shape: 100 16 28 28 (1254400)
I0927 10:14:38.932130  3315 net.cpp:137] Memory required for data: 196627600
I0927 10:14:38.932132  3315 layer_factory.hpp:77] Creating layer Convolution8
I0927 10:14:38.932138  3315 net.cpp:84] Creating Layer Convolution8
I0927 10:14:38.932142  3315 net.cpp:406] Convolution8 <- Eltwise3_penlu7_0_split_0
I0927 10:14:38.932145  3315 net.cpp:380] Convolution8 -> Convolution8
I0927 10:14:38.932976  3315 net.cpp:122] Setting up Convolution8
I0927 10:14:38.932986  3315 net.cpp:129] Top shape: 100 16 28 28 (1254400)
I0927 10:14:38.932989  3315 net.cpp:137] Memory required for data: 201645200
I0927 10:14:38.932993  3315 layer_factory.hpp:77] Creating layer BatchNorm8
I0927 10:14:38.932999  3315 net.cpp:84] Creating Layer BatchNorm8
I0927 10:14:38.933003  3315 net.cpp:406] BatchNorm8 <- Convolution8
I0927 10:14:38.933007  3315 net.cpp:367] BatchNorm8 -> Convolution8 (in-place)
I0927 10:14:38.933130  3315 net.cpp:122] Setting up BatchNorm8
I0927 10:14:38.933135  3315 net.cpp:129] Top shape: 100 16 28 28 (1254400)
I0927 10:14:38.933137  3315 net.cpp:137] Memory required for data: 206662800
I0927 10:14:38.933142  3315 layer_factory.hpp:77] Creating layer Scale8
I0927 10:14:38.933146  3315 net.cpp:84] Creating Layer Scale8
I0927 10:14:38.933149  3315 net.cpp:406] Scale8 <- Convolution8
I0927 10:14:38.933154  3315 net.cpp:367] Scale8 -> Convolution8 (in-place)
I0927 10:14:38.933179  3315 layer_factory.hpp:77] Creating layer Scale8
I0927 10:14:38.933251  3315 net.cpp:122] Setting up Scale8
I0927 10:14:38.933256  3315 net.cpp:129] Top shape: 100 16 28 28 (1254400)
I0927 10:14:38.933259  3315 net.cpp:137] Memory required for data: 211680400
I0927 10:14:38.933262  3315 layer_factory.hpp:77] Creating layer penlu8
I0927 10:14:38.933269  3315 net.cpp:84] Creating Layer penlu8
I0927 10:14:38.933271  3315 net.cpp:406] penlu8 <- Convolution8
I0927 10:14:38.933276  3315 net.cpp:367] penlu8 -> Convolution8 (in-place)
I0927 10:14:38.933374  3315 net.cpp:122] Setting up penlu8
I0927 10:14:38.933379  3315 net.cpp:129] Top shape: 100 16 28 28 (1254400)
I0927 10:14:38.933382  3315 net.cpp:137] Memory required for data: 216698000
I0927 10:14:38.933387  3315 layer_factory.hpp:77] Creating layer Convolution9
I0927 10:14:38.933394  3315 net.cpp:84] Creating Layer Convolution9
I0927 10:14:38.933403  3315 net.cpp:406] Convolution9 <- Convolution8
I0927 10:14:38.933408  3315 net.cpp:380] Convolution9 -> Convolution9
I0927 10:14:38.934269  3315 net.cpp:122] Setting up Convolution9
I0927 10:14:38.934280  3315 net.cpp:129] Top shape: 100 16 28 28 (1254400)
I0927 10:14:38.934284  3315 net.cpp:137] Memory required for data: 221715600
I0927 10:14:38.934288  3315 layer_factory.hpp:77] Creating layer BatchNorm9
I0927 10:14:38.934293  3315 net.cpp:84] Creating Layer BatchNorm9
I0927 10:14:38.934296  3315 net.cpp:406] BatchNorm9 <- Convolution9
I0927 10:14:38.934301  3315 net.cpp:367] BatchNorm9 -> Convolution9 (in-place)
I0927 10:14:38.934429  3315 net.cpp:122] Setting up BatchNorm9
I0927 10:14:38.934434  3315 net.cpp:129] Top shape: 100 16 28 28 (1254400)
I0927 10:14:38.934438  3315 net.cpp:137] Memory required for data: 226733200
I0927 10:14:38.934443  3315 layer_factory.hpp:77] Creating layer Scale9
I0927 10:14:38.934448  3315 net.cpp:84] Creating Layer Scale9
I0927 10:14:38.934451  3315 net.cpp:406] Scale9 <- Convolution9
I0927 10:14:38.934454  3315 net.cpp:367] Scale9 -> Convolution9 (in-place)
I0927 10:14:38.934481  3315 layer_factory.hpp:77] Creating layer Scale9
I0927 10:14:38.934564  3315 net.cpp:122] Setting up Scale9
I0927 10:14:38.934571  3315 net.cpp:129] Top shape: 100 16 28 28 (1254400)
I0927 10:14:38.934573  3315 net.cpp:137] Memory required for data: 231750800
I0927 10:14:38.934577  3315 layer_factory.hpp:77] Creating layer Eltwise4
I0927 10:14:38.934582  3315 net.cpp:84] Creating Layer Eltwise4
I0927 10:14:38.934586  3315 net.cpp:406] Eltwise4 <- Eltwise3_penlu7_0_split_1
I0927 10:14:38.934588  3315 net.cpp:406] Eltwise4 <- Convolution9
I0927 10:14:38.934593  3315 net.cpp:380] Eltwise4 -> Eltwise4
I0927 10:14:38.934609  3315 net.cpp:122] Setting up Eltwise4
I0927 10:14:38.934614  3315 net.cpp:129] Top shape: 100 16 28 28 (1254400)
I0927 10:14:38.934617  3315 net.cpp:137] Memory required for data: 236768400
I0927 10:14:38.934618  3315 layer_factory.hpp:77] Creating layer penlu9
I0927 10:14:38.934623  3315 net.cpp:84] Creating Layer penlu9
I0927 10:14:38.934628  3315 net.cpp:406] penlu9 <- Eltwise4
I0927 10:14:38.934631  3315 net.cpp:367] penlu9 -> Eltwise4 (in-place)
I0927 10:14:38.934736  3315 net.cpp:122] Setting up penlu9
I0927 10:14:38.934741  3315 net.cpp:129] Top shape: 100 16 28 28 (1254400)
I0927 10:14:38.934744  3315 net.cpp:137] Memory required for data: 241786000
I0927 10:14:38.934749  3315 layer_factory.hpp:77] Creating layer Eltwise4_penlu9_0_split
I0927 10:14:38.934753  3315 net.cpp:84] Creating Layer Eltwise4_penlu9_0_split
I0927 10:14:38.934756  3315 net.cpp:406] Eltwise4_penlu9_0_split <- Eltwise4
I0927 10:14:38.934761  3315 net.cpp:380] Eltwise4_penlu9_0_split -> Eltwise4_penlu9_0_split_0
I0927 10:14:38.934764  3315 net.cpp:380] Eltwise4_penlu9_0_split -> Eltwise4_penlu9_0_split_1
I0927 10:14:38.934787  3315 net.cpp:122] Setting up Eltwise4_penlu9_0_split
I0927 10:14:38.934790  3315 net.cpp:129] Top shape: 100 16 28 28 (1254400)
I0927 10:14:38.934793  3315 net.cpp:129] Top shape: 100 16 28 28 (1254400)
I0927 10:14:38.934797  3315 net.cpp:137] Memory required for data: 251821200
I0927 10:14:38.934798  3315 layer_factory.hpp:77] Creating layer Convolution10
I0927 10:14:38.934804  3315 net.cpp:84] Creating Layer Convolution10
I0927 10:14:38.934808  3315 net.cpp:406] Convolution10 <- Eltwise4_penlu9_0_split_0
I0927 10:14:38.934813  3315 net.cpp:380] Convolution10 -> Convolution10
I0927 10:14:38.935781  3315 net.cpp:122] Setting up Convolution10
I0927 10:14:38.935791  3315 net.cpp:129] Top shape: 100 16 28 28 (1254400)
I0927 10:14:38.935794  3315 net.cpp:137] Memory required for data: 256838800
I0927 10:14:38.935798  3315 layer_factory.hpp:77] Creating layer BatchNorm10
I0927 10:14:38.935803  3315 net.cpp:84] Creating Layer BatchNorm10
I0927 10:14:38.935806  3315 net.cpp:406] BatchNorm10 <- Convolution10
I0927 10:14:38.935811  3315 net.cpp:367] BatchNorm10 -> Convolution10 (in-place)
I0927 10:14:38.935935  3315 net.cpp:122] Setting up BatchNorm10
I0927 10:14:38.935947  3315 net.cpp:129] Top shape: 100 16 28 28 (1254400)
I0927 10:14:38.935950  3315 net.cpp:137] Memory required for data: 261856400
I0927 10:14:38.935956  3315 layer_factory.hpp:77] Creating layer Scale10
I0927 10:14:38.935961  3315 net.cpp:84] Creating Layer Scale10
I0927 10:14:38.935963  3315 net.cpp:406] Scale10 <- Convolution10
I0927 10:14:38.935966  3315 net.cpp:367] Scale10 -> Convolution10 (in-place)
I0927 10:14:38.935993  3315 layer_factory.hpp:77] Creating layer Scale10
I0927 10:14:38.936067  3315 net.cpp:122] Setting up Scale10
I0927 10:14:38.936074  3315 net.cpp:129] Top shape: 100 16 28 28 (1254400)
I0927 10:14:38.936076  3315 net.cpp:137] Memory required for data: 266874000
I0927 10:14:38.936080  3315 layer_factory.hpp:77] Creating layer penlu10
I0927 10:14:38.936085  3315 net.cpp:84] Creating Layer penlu10
I0927 10:14:38.936089  3315 net.cpp:406] penlu10 <- Convolution10
I0927 10:14:38.936094  3315 net.cpp:367] penlu10 -> Convolution10 (in-place)
I0927 10:14:38.936194  3315 net.cpp:122] Setting up penlu10
I0927 10:14:38.936200  3315 net.cpp:129] Top shape: 100 16 28 28 (1254400)
I0927 10:14:38.936203  3315 net.cpp:137] Memory required for data: 271891600
I0927 10:14:38.936208  3315 layer_factory.hpp:77] Creating layer Convolution11
I0927 10:14:38.936214  3315 net.cpp:84] Creating Layer Convolution11
I0927 10:14:38.936218  3315 net.cpp:406] Convolution11 <- Convolution10
I0927 10:14:38.936223  3315 net.cpp:380] Convolution11 -> Convolution11
I0927 10:14:38.937117  3315 net.cpp:122] Setting up Convolution11
I0927 10:14:38.937127  3315 net.cpp:129] Top shape: 100 16 28 28 (1254400)
I0927 10:14:38.937130  3315 net.cpp:137] Memory required for data: 276909200
I0927 10:14:38.937134  3315 layer_factory.hpp:77] Creating layer BatchNorm11
I0927 10:14:38.937140  3315 net.cpp:84] Creating Layer BatchNorm11
I0927 10:14:38.937144  3315 net.cpp:406] BatchNorm11 <- Convolution11
I0927 10:14:38.937147  3315 net.cpp:367] BatchNorm11 -> Convolution11 (in-place)
I0927 10:14:38.937275  3315 net.cpp:122] Setting up BatchNorm11
I0927 10:14:38.937281  3315 net.cpp:129] Top shape: 100 16 28 28 (1254400)
I0927 10:14:38.937283  3315 net.cpp:137] Memory required for data: 281926800
I0927 10:14:38.937288  3315 layer_factory.hpp:77] Creating layer Scale11
I0927 10:14:38.937292  3315 net.cpp:84] Creating Layer Scale11
I0927 10:14:38.937295  3315 net.cpp:406] Scale11 <- Convolution11
I0927 10:14:38.937300  3315 net.cpp:367] Scale11 -> Convolution11 (in-place)
I0927 10:14:38.937326  3315 layer_factory.hpp:77] Creating layer Scale11
I0927 10:14:38.937402  3315 net.cpp:122] Setting up Scale11
I0927 10:14:38.937407  3315 net.cpp:129] Top shape: 100 16 28 28 (1254400)
I0927 10:14:38.937410  3315 net.cpp:137] Memory required for data: 286944400
I0927 10:14:38.937414  3315 layer_factory.hpp:77] Creating layer Eltwise5
I0927 10:14:38.937419  3315 net.cpp:84] Creating Layer Eltwise5
I0927 10:14:38.937423  3315 net.cpp:406] Eltwise5 <- Eltwise4_penlu9_0_split_1
I0927 10:14:38.937427  3315 net.cpp:406] Eltwise5 <- Convolution11
I0927 10:14:38.937430  3315 net.cpp:380] Eltwise5 -> Eltwise5
I0927 10:14:38.937448  3315 net.cpp:122] Setting up Eltwise5
I0927 10:14:38.937453  3315 net.cpp:129] Top shape: 100 16 28 28 (1254400)
I0927 10:14:38.937454  3315 net.cpp:137] Memory required for data: 291962000
I0927 10:14:38.937456  3315 layer_factory.hpp:77] Creating layer penlu11
I0927 10:14:38.937461  3315 net.cpp:84] Creating Layer penlu11
I0927 10:14:38.937465  3315 net.cpp:406] penlu11 <- Eltwise5
I0927 10:14:38.937469  3315 net.cpp:367] penlu11 -> Eltwise5 (in-place)
I0927 10:14:38.937577  3315 net.cpp:122] Setting up penlu11
I0927 10:14:38.937583  3315 net.cpp:129] Top shape: 100 16 28 28 (1254400)
I0927 10:14:38.937587  3315 net.cpp:137] Memory required for data: 296979600
I0927 10:14:38.937590  3315 layer_factory.hpp:77] Creating layer Eltwise5_penlu11_0_split
I0927 10:14:38.937597  3315 net.cpp:84] Creating Layer Eltwise5_penlu11_0_split
I0927 10:14:38.937599  3315 net.cpp:406] Eltwise5_penlu11_0_split <- Eltwise5
I0927 10:14:38.937609  3315 net.cpp:380] Eltwise5_penlu11_0_split -> Eltwise5_penlu11_0_split_0
I0927 10:14:38.937614  3315 net.cpp:380] Eltwise5_penlu11_0_split -> Eltwise5_penlu11_0_split_1
I0927 10:14:38.937638  3315 net.cpp:122] Setting up Eltwise5_penlu11_0_split
I0927 10:14:38.937644  3315 net.cpp:129] Top shape: 100 16 28 28 (1254400)
I0927 10:14:38.937646  3315 net.cpp:129] Top shape: 100 16 28 28 (1254400)
I0927 10:14:38.937649  3315 net.cpp:137] Memory required for data: 307014800
I0927 10:14:38.937651  3315 layer_factory.hpp:77] Creating layer Convolution12
I0927 10:14:38.937657  3315 net.cpp:84] Creating Layer Convolution12
I0927 10:14:38.937660  3315 net.cpp:406] Convolution12 <- Eltwise5_penlu11_0_split_0
I0927 10:14:38.937665  3315 net.cpp:380] Convolution12 -> Convolution12
I0927 10:14:38.938549  3315 net.cpp:122] Setting up Convolution12
I0927 10:14:38.938560  3315 net.cpp:129] Top shape: 100 16 28 28 (1254400)
I0927 10:14:38.938563  3315 net.cpp:137] Memory required for data: 312032400
I0927 10:14:38.938568  3315 layer_factory.hpp:77] Creating layer BatchNorm12
I0927 10:14:38.938575  3315 net.cpp:84] Creating Layer BatchNorm12
I0927 10:14:38.938578  3315 net.cpp:406] BatchNorm12 <- Convolution12
I0927 10:14:38.938582  3315 net.cpp:367] BatchNorm12 -> Convolution12 (in-place)
I0927 10:14:38.938710  3315 net.cpp:122] Setting up BatchNorm12
I0927 10:14:38.938716  3315 net.cpp:129] Top shape: 100 16 28 28 (1254400)
I0927 10:14:38.938719  3315 net.cpp:137] Memory required for data: 317050000
I0927 10:14:38.938724  3315 layer_factory.hpp:77] Creating layer Scale12
I0927 10:14:38.938730  3315 net.cpp:84] Creating Layer Scale12
I0927 10:14:38.938732  3315 net.cpp:406] Scale12 <- Convolution12
I0927 10:14:38.938735  3315 net.cpp:367] Scale12 -> Convolution12 (in-place)
I0927 10:14:38.938765  3315 layer_factory.hpp:77] Creating layer Scale12
I0927 10:14:38.938840  3315 net.cpp:122] Setting up Scale12
I0927 10:14:38.938846  3315 net.cpp:129] Top shape: 100 16 28 28 (1254400)
I0927 10:14:38.938849  3315 net.cpp:137] Memory required for data: 322067600
I0927 10:14:38.938853  3315 layer_factory.hpp:77] Creating layer penlu12
I0927 10:14:38.938859  3315 net.cpp:84] Creating Layer penlu12
I0927 10:14:38.938863  3315 net.cpp:406] penlu12 <- Convolution12
I0927 10:14:38.938868  3315 net.cpp:367] penlu12 -> Convolution12 (in-place)
I0927 10:14:38.938973  3315 net.cpp:122] Setting up penlu12
I0927 10:14:38.938978  3315 net.cpp:129] Top shape: 100 16 28 28 (1254400)
I0927 10:14:38.938982  3315 net.cpp:137] Memory required for data: 327085200
I0927 10:14:38.938987  3315 layer_factory.hpp:77] Creating layer Convolution13
I0927 10:14:38.938995  3315 net.cpp:84] Creating Layer Convolution13
I0927 10:14:38.938998  3315 net.cpp:406] Convolution13 <- Convolution12
I0927 10:14:38.939002  3315 net.cpp:380] Convolution13 -> Convolution13
I0927 10:14:38.939879  3315 net.cpp:122] Setting up Convolution13
I0927 10:14:38.939889  3315 net.cpp:129] Top shape: 100 16 28 28 (1254400)
I0927 10:14:38.939893  3315 net.cpp:137] Memory required for data: 332102800
I0927 10:14:38.939898  3315 layer_factory.hpp:77] Creating layer BatchNorm13
I0927 10:14:38.939904  3315 net.cpp:84] Creating Layer BatchNorm13
I0927 10:14:38.939908  3315 net.cpp:406] BatchNorm13 <- Convolution13
I0927 10:14:38.939911  3315 net.cpp:367] BatchNorm13 -> Convolution13 (in-place)
I0927 10:14:38.940039  3315 net.cpp:122] Setting up BatchNorm13
I0927 10:14:38.940044  3315 net.cpp:129] Top shape: 100 16 28 28 (1254400)
I0927 10:14:38.940047  3315 net.cpp:137] Memory required for data: 337120400
I0927 10:14:38.940052  3315 layer_factory.hpp:77] Creating layer Scale13
I0927 10:14:38.940057  3315 net.cpp:84] Creating Layer Scale13
I0927 10:14:38.940060  3315 net.cpp:406] Scale13 <- Convolution13
I0927 10:14:38.940063  3315 net.cpp:367] Scale13 -> Convolution13 (in-place)
I0927 10:14:38.940091  3315 layer_factory.hpp:77] Creating layer Scale13
I0927 10:14:38.940167  3315 net.cpp:122] Setting up Scale13
I0927 10:14:38.940173  3315 net.cpp:129] Top shape: 100 16 28 28 (1254400)
I0927 10:14:38.940182  3315 net.cpp:137] Memory required for data: 342138000
I0927 10:14:38.940186  3315 layer_factory.hpp:77] Creating layer Eltwise6
I0927 10:14:38.940191  3315 net.cpp:84] Creating Layer Eltwise6
I0927 10:14:38.940196  3315 net.cpp:406] Eltwise6 <- Eltwise5_penlu11_0_split_1
I0927 10:14:38.940198  3315 net.cpp:406] Eltwise6 <- Convolution13
I0927 10:14:38.940201  3315 net.cpp:380] Eltwise6 -> Eltwise6
I0927 10:14:38.940220  3315 net.cpp:122] Setting up Eltwise6
I0927 10:14:38.940227  3315 net.cpp:129] Top shape: 100 16 28 28 (1254400)
I0927 10:14:38.940229  3315 net.cpp:137] Memory required for data: 347155600
I0927 10:14:38.940232  3315 layer_factory.hpp:77] Creating layer penlu13
I0927 10:14:38.940239  3315 net.cpp:84] Creating Layer penlu13
I0927 10:14:38.940243  3315 net.cpp:406] penlu13 <- Eltwise6
I0927 10:14:38.940248  3315 net.cpp:367] penlu13 -> Eltwise6 (in-place)
I0927 10:14:38.940356  3315 net.cpp:122] Setting up penlu13
I0927 10:14:38.940362  3315 net.cpp:129] Top shape: 100 16 28 28 (1254400)
I0927 10:14:38.940366  3315 net.cpp:137] Memory required for data: 352173200
I0927 10:14:38.940378  3315 layer_factory.hpp:77] Creating layer Eltwise6_penlu13_0_split
I0927 10:14:38.940383  3315 net.cpp:84] Creating Layer Eltwise6_penlu13_0_split
I0927 10:14:38.940387  3315 net.cpp:406] Eltwise6_penlu13_0_split <- Eltwise6
I0927 10:14:38.940390  3315 net.cpp:380] Eltwise6_penlu13_0_split -> Eltwise6_penlu13_0_split_0
I0927 10:14:38.940397  3315 net.cpp:380] Eltwise6_penlu13_0_split -> Eltwise6_penlu13_0_split_1
I0927 10:14:38.940420  3315 net.cpp:122] Setting up Eltwise6_penlu13_0_split
I0927 10:14:38.940425  3315 net.cpp:129] Top shape: 100 16 28 28 (1254400)
I0927 10:14:38.940429  3315 net.cpp:129] Top shape: 100 16 28 28 (1254400)
I0927 10:14:38.940433  3315 net.cpp:137] Memory required for data: 362208400
I0927 10:14:38.940434  3315 layer_factory.hpp:77] Creating layer Convolution14
I0927 10:14:38.940440  3315 net.cpp:84] Creating Layer Convolution14
I0927 10:14:38.940443  3315 net.cpp:406] Convolution14 <- Eltwise6_penlu13_0_split_0
I0927 10:14:38.940448  3315 net.cpp:380] Convolution14 -> Convolution14
I0927 10:14:38.941328  3315 net.cpp:122] Setting up Convolution14
I0927 10:14:38.941335  3315 net.cpp:129] Top shape: 100 16 28 28 (1254400)
I0927 10:14:38.941339  3315 net.cpp:137] Memory required for data: 367226000
I0927 10:14:38.941342  3315 layer_factory.hpp:77] Creating layer BatchNorm14
I0927 10:14:38.941347  3315 net.cpp:84] Creating Layer BatchNorm14
I0927 10:14:38.941350  3315 net.cpp:406] BatchNorm14 <- Convolution14
I0927 10:14:38.941354  3315 net.cpp:367] BatchNorm14 -> Convolution14 (in-place)
I0927 10:14:38.941484  3315 net.cpp:122] Setting up BatchNorm14
I0927 10:14:38.941489  3315 net.cpp:129] Top shape: 100 16 28 28 (1254400)
I0927 10:14:38.941491  3315 net.cpp:137] Memory required for data: 372243600
I0927 10:14:38.941496  3315 layer_factory.hpp:77] Creating layer Scale14
I0927 10:14:38.941500  3315 net.cpp:84] Creating Layer Scale14
I0927 10:14:38.941503  3315 net.cpp:406] Scale14 <- Convolution14
I0927 10:14:38.941505  3315 net.cpp:367] Scale14 -> Convolution14 (in-place)
I0927 10:14:38.941531  3315 layer_factory.hpp:77] Creating layer Scale14
I0927 10:14:38.941606  3315 net.cpp:122] Setting up Scale14
I0927 10:14:38.941612  3315 net.cpp:129] Top shape: 100 16 28 28 (1254400)
I0927 10:14:38.941613  3315 net.cpp:137] Memory required for data: 377261200
I0927 10:14:38.941617  3315 layer_factory.hpp:77] Creating layer penlu14
I0927 10:14:38.941622  3315 net.cpp:84] Creating Layer penlu14
I0927 10:14:38.941624  3315 net.cpp:406] penlu14 <- Convolution14
I0927 10:14:38.941629  3315 net.cpp:367] penlu14 -> Convolution14 (in-place)
I0927 10:14:38.941736  3315 net.cpp:122] Setting up penlu14
I0927 10:14:38.941741  3315 net.cpp:129] Top shape: 100 16 28 28 (1254400)
I0927 10:14:38.941743  3315 net.cpp:137] Memory required for data: 382278800
I0927 10:14:38.941747  3315 layer_factory.hpp:77] Creating layer Convolution15
I0927 10:14:38.941753  3315 net.cpp:84] Creating Layer Convolution15
I0927 10:14:38.941762  3315 net.cpp:406] Convolution15 <- Convolution14
I0927 10:14:38.941767  3315 net.cpp:380] Convolution15 -> Convolution15
I0927 10:14:38.942651  3315 net.cpp:122] Setting up Convolution15
I0927 10:14:38.942659  3315 net.cpp:129] Top shape: 100 16 28 28 (1254400)
I0927 10:14:38.942662  3315 net.cpp:137] Memory required for data: 387296400
I0927 10:14:38.942667  3315 layer_factory.hpp:77] Creating layer BatchNorm15
I0927 10:14:38.942672  3315 net.cpp:84] Creating Layer BatchNorm15
I0927 10:14:38.942674  3315 net.cpp:406] BatchNorm15 <- Convolution15
I0927 10:14:38.942678  3315 net.cpp:367] BatchNorm15 -> Convolution15 (in-place)
I0927 10:14:38.942806  3315 net.cpp:122] Setting up BatchNorm15
I0927 10:14:38.942811  3315 net.cpp:129] Top shape: 100 16 28 28 (1254400)
I0927 10:14:38.942812  3315 net.cpp:137] Memory required for data: 392314000
I0927 10:14:38.942817  3315 layer_factory.hpp:77] Creating layer Scale15
I0927 10:14:38.942821  3315 net.cpp:84] Creating Layer Scale15
I0927 10:14:38.942823  3315 net.cpp:406] Scale15 <- Convolution15
I0927 10:14:38.942826  3315 net.cpp:367] Scale15 -> Convolution15 (in-place)
I0927 10:14:38.942852  3315 layer_factory.hpp:77] Creating layer Scale15
I0927 10:14:38.942924  3315 net.cpp:122] Setting up Scale15
I0927 10:14:38.942929  3315 net.cpp:129] Top shape: 100 16 28 28 (1254400)
I0927 10:14:38.942930  3315 net.cpp:137] Memory required for data: 397331600
I0927 10:14:38.942934  3315 layer_factory.hpp:77] Creating layer Eltwise7
I0927 10:14:38.942939  3315 net.cpp:84] Creating Layer Eltwise7
I0927 10:14:38.942940  3315 net.cpp:406] Eltwise7 <- Eltwise6_penlu13_0_split_1
I0927 10:14:38.942944  3315 net.cpp:406] Eltwise7 <- Convolution15
I0927 10:14:38.942946  3315 net.cpp:380] Eltwise7 -> Eltwise7
I0927 10:14:38.942961  3315 net.cpp:122] Setting up Eltwise7
I0927 10:14:38.942965  3315 net.cpp:129] Top shape: 100 16 28 28 (1254400)
I0927 10:14:38.942967  3315 net.cpp:137] Memory required for data: 402349200
I0927 10:14:38.942970  3315 layer_factory.hpp:77] Creating layer penlu15
I0927 10:14:38.942975  3315 net.cpp:84] Creating Layer penlu15
I0927 10:14:38.942976  3315 net.cpp:406] penlu15 <- Eltwise7
I0927 10:14:38.942981  3315 net.cpp:367] penlu15 -> Eltwise7 (in-place)
I0927 10:14:38.943084  3315 net.cpp:122] Setting up penlu15
I0927 10:14:38.943089  3315 net.cpp:129] Top shape: 100 16 28 28 (1254400)
I0927 10:14:38.943090  3315 net.cpp:137] Memory required for data: 407366800
I0927 10:14:38.943094  3315 layer_factory.hpp:77] Creating layer Eltwise7_penlu15_0_split
I0927 10:14:38.943099  3315 net.cpp:84] Creating Layer Eltwise7_penlu15_0_split
I0927 10:14:38.943101  3315 net.cpp:406] Eltwise7_penlu15_0_split <- Eltwise7
I0927 10:14:38.943104  3315 net.cpp:380] Eltwise7_penlu15_0_split -> Eltwise7_penlu15_0_split_0
I0927 10:14:38.943109  3315 net.cpp:380] Eltwise7_penlu15_0_split -> Eltwise7_penlu15_0_split_1
I0927 10:14:38.943128  3315 net.cpp:122] Setting up Eltwise7_penlu15_0_split
I0927 10:14:38.943132  3315 net.cpp:129] Top shape: 100 16 28 28 (1254400)
I0927 10:14:38.943135  3315 net.cpp:129] Top shape: 100 16 28 28 (1254400)
I0927 10:14:38.943137  3315 net.cpp:137] Memory required for data: 417402000
I0927 10:14:38.943140  3315 layer_factory.hpp:77] Creating layer Convolution16
I0927 10:14:38.943145  3315 net.cpp:84] Creating Layer Convolution16
I0927 10:14:38.943146  3315 net.cpp:406] Convolution16 <- Eltwise7_penlu15_0_split_0
I0927 10:14:38.943151  3315 net.cpp:380] Convolution16 -> Convolution16
I0927 10:14:38.944001  3315 net.cpp:122] Setting up Convolution16
I0927 10:14:38.944010  3315 net.cpp:129] Top shape: 100 16 28 28 (1254400)
I0927 10:14:38.944012  3315 net.cpp:137] Memory required for data: 422419600
I0927 10:14:38.944016  3315 layer_factory.hpp:77] Creating layer BatchNorm16
I0927 10:14:38.944021  3315 net.cpp:84] Creating Layer BatchNorm16
I0927 10:14:38.944025  3315 net.cpp:406] BatchNorm16 <- Convolution16
I0927 10:14:38.944027  3315 net.cpp:367] BatchNorm16 -> Convolution16 (in-place)
I0927 10:14:38.944154  3315 net.cpp:122] Setting up BatchNorm16
I0927 10:14:38.944165  3315 net.cpp:129] Top shape: 100 16 28 28 (1254400)
I0927 10:14:38.944167  3315 net.cpp:137] Memory required for data: 427437200
I0927 10:14:38.944172  3315 layer_factory.hpp:77] Creating layer Scale16
I0927 10:14:38.944176  3315 net.cpp:84] Creating Layer Scale16
I0927 10:14:38.944178  3315 net.cpp:406] Scale16 <- Convolution16
I0927 10:14:38.944182  3315 net.cpp:367] Scale16 -> Convolution16 (in-place)
I0927 10:14:38.944209  3315 layer_factory.hpp:77] Creating layer Scale16
I0927 10:14:38.944283  3315 net.cpp:122] Setting up Scale16
I0927 10:14:38.944286  3315 net.cpp:129] Top shape: 100 16 28 28 (1254400)
I0927 10:14:38.944288  3315 net.cpp:137] Memory required for data: 432454800
I0927 10:14:38.944293  3315 layer_factory.hpp:77] Creating layer penlu16
I0927 10:14:38.944298  3315 net.cpp:84] Creating Layer penlu16
I0927 10:14:38.944299  3315 net.cpp:406] penlu16 <- Convolution16
I0927 10:14:38.944303  3315 net.cpp:367] penlu16 -> Convolution16 (in-place)
I0927 10:14:38.944411  3315 net.cpp:122] Setting up penlu16
I0927 10:14:38.944416  3315 net.cpp:129] Top shape: 100 16 28 28 (1254400)
I0927 10:14:38.944417  3315 net.cpp:137] Memory required for data: 437472400
I0927 10:14:38.944422  3315 layer_factory.hpp:77] Creating layer Convolution17
I0927 10:14:38.944428  3315 net.cpp:84] Creating Layer Convolution17
I0927 10:14:38.944432  3315 net.cpp:406] Convolution17 <- Convolution16
I0927 10:14:38.944434  3315 net.cpp:380] Convolution17 -> Convolution17
I0927 10:14:38.944978  3315 net.cpp:122] Setting up Convolution17
I0927 10:14:38.944986  3315 net.cpp:129] Top shape: 100 16 28 28 (1254400)
I0927 10:14:38.944988  3315 net.cpp:137] Memory required for data: 442490000
I0927 10:14:38.944993  3315 layer_factory.hpp:77] Creating layer BatchNorm17
I0927 10:14:38.944998  3315 net.cpp:84] Creating Layer BatchNorm17
I0927 10:14:38.944999  3315 net.cpp:406] BatchNorm17 <- Convolution17
I0927 10:14:38.945003  3315 net.cpp:367] BatchNorm17 -> Convolution17 (in-place)
I0927 10:14:38.945130  3315 net.cpp:122] Setting up BatchNorm17
I0927 10:14:38.945134  3315 net.cpp:129] Top shape: 100 16 28 28 (1254400)
I0927 10:14:38.945137  3315 net.cpp:137] Memory required for data: 447507600
I0927 10:14:38.945142  3315 layer_factory.hpp:77] Creating layer Scale17
I0927 10:14:38.945144  3315 net.cpp:84] Creating Layer Scale17
I0927 10:14:38.945147  3315 net.cpp:406] Scale17 <- Convolution17
I0927 10:14:38.945150  3315 net.cpp:367] Scale17 -> Convolution17 (in-place)
I0927 10:14:38.945175  3315 layer_factory.hpp:77] Creating layer Scale17
I0927 10:14:38.945269  3315 net.cpp:122] Setting up Scale17
I0927 10:14:38.945273  3315 net.cpp:129] Top shape: 100 16 28 28 (1254400)
I0927 10:14:38.945276  3315 net.cpp:137] Memory required for data: 452525200
I0927 10:14:38.945279  3315 layer_factory.hpp:77] Creating layer Eltwise8
I0927 10:14:38.945282  3315 net.cpp:84] Creating Layer Eltwise8
I0927 10:14:38.945286  3315 net.cpp:406] Eltwise8 <- Eltwise7_penlu15_0_split_1
I0927 10:14:38.945287  3315 net.cpp:406] Eltwise8 <- Convolution17
I0927 10:14:38.945291  3315 net.cpp:380] Eltwise8 -> Eltwise8
I0927 10:14:38.945305  3315 net.cpp:122] Setting up Eltwise8
I0927 10:14:38.945309  3315 net.cpp:129] Top shape: 100 16 28 28 (1254400)
I0927 10:14:38.945312  3315 net.cpp:137] Memory required for data: 457542800
I0927 10:14:38.945313  3315 layer_factory.hpp:77] Creating layer penlu17
I0927 10:14:38.945318  3315 net.cpp:84] Creating Layer penlu17
I0927 10:14:38.945320  3315 net.cpp:406] penlu17 <- Eltwise8
I0927 10:14:38.945324  3315 net.cpp:367] penlu17 -> Eltwise8 (in-place)
I0927 10:14:38.945428  3315 net.cpp:122] Setting up penlu17
I0927 10:14:38.945432  3315 net.cpp:129] Top shape: 100 16 28 28 (1254400)
I0927 10:14:38.945435  3315 net.cpp:137] Memory required for data: 462560400
I0927 10:14:38.945439  3315 layer_factory.hpp:77] Creating layer Eltwise8_penlu17_0_split
I0927 10:14:38.945442  3315 net.cpp:84] Creating Layer Eltwise8_penlu17_0_split
I0927 10:14:38.945444  3315 net.cpp:406] Eltwise8_penlu17_0_split <- Eltwise8
I0927 10:14:38.945453  3315 net.cpp:380] Eltwise8_penlu17_0_split -> Eltwise8_penlu17_0_split_0
I0927 10:14:38.945457  3315 net.cpp:380] Eltwise8_penlu17_0_split -> Eltwise8_penlu17_0_split_1
I0927 10:14:38.945480  3315 net.cpp:122] Setting up Eltwise8_penlu17_0_split
I0927 10:14:38.945484  3315 net.cpp:129] Top shape: 100 16 28 28 (1254400)
I0927 10:14:38.945487  3315 net.cpp:129] Top shape: 100 16 28 28 (1254400)
I0927 10:14:38.945488  3315 net.cpp:137] Memory required for data: 472595600
I0927 10:14:38.945490  3315 layer_factory.hpp:77] Creating layer Convolution18
I0927 10:14:38.945497  3315 net.cpp:84] Creating Layer Convolution18
I0927 10:14:38.945498  3315 net.cpp:406] Convolution18 <- Eltwise8_penlu17_0_split_0
I0927 10:14:38.945503  3315 net.cpp:380] Convolution18 -> Convolution18
I0927 10:14:38.946358  3315 net.cpp:122] Setting up Convolution18
I0927 10:14:38.946368  3315 net.cpp:129] Top shape: 100 16 28 28 (1254400)
I0927 10:14:38.946370  3315 net.cpp:137] Memory required for data: 477613200
I0927 10:14:38.946374  3315 layer_factory.hpp:77] Creating layer BatchNorm18
I0927 10:14:38.946379  3315 net.cpp:84] Creating Layer BatchNorm18
I0927 10:14:38.946382  3315 net.cpp:406] BatchNorm18 <- Convolution18
I0927 10:14:38.946386  3315 net.cpp:367] BatchNorm18 -> Convolution18 (in-place)
I0927 10:14:38.946512  3315 net.cpp:122] Setting up BatchNorm18
I0927 10:14:38.946517  3315 net.cpp:129] Top shape: 100 16 28 28 (1254400)
I0927 10:14:38.946519  3315 net.cpp:137] Memory required for data: 482630800
I0927 10:14:38.946539  3315 layer_factory.hpp:77] Creating layer Scale18
I0927 10:14:38.946543  3315 net.cpp:84] Creating Layer Scale18
I0927 10:14:38.946547  3315 net.cpp:406] Scale18 <- Convolution18
I0927 10:14:38.946550  3315 net.cpp:367] Scale18 -> Convolution18 (in-place)
I0927 10:14:38.946584  3315 layer_factory.hpp:77] Creating layer Scale18
I0927 10:14:38.946662  3315 net.cpp:122] Setting up Scale18
I0927 10:14:38.946667  3315 net.cpp:129] Top shape: 100 16 28 28 (1254400)
I0927 10:14:38.946669  3315 net.cpp:137] Memory required for data: 487648400
I0927 10:14:38.946672  3315 layer_factory.hpp:77] Creating layer penlu18
I0927 10:14:38.946678  3315 net.cpp:84] Creating Layer penlu18
I0927 10:14:38.946681  3315 net.cpp:406] penlu18 <- Convolution18
I0927 10:14:38.946684  3315 net.cpp:367] penlu18 -> Convolution18 (in-place)
I0927 10:14:38.946787  3315 net.cpp:122] Setting up penlu18
I0927 10:14:38.946792  3315 net.cpp:129] Top shape: 100 16 28 28 (1254400)
I0927 10:14:38.946794  3315 net.cpp:137] Memory required for data: 492666000
I0927 10:14:38.946799  3315 layer_factory.hpp:77] Creating layer Convolution19
I0927 10:14:38.946805  3315 net.cpp:84] Creating Layer Convolution19
I0927 10:14:38.946807  3315 net.cpp:406] Convolution19 <- Convolution18
I0927 10:14:38.946811  3315 net.cpp:380] Convolution19 -> Convolution19
I0927 10:14:38.947676  3315 net.cpp:122] Setting up Convolution19
I0927 10:14:38.947685  3315 net.cpp:129] Top shape: 100 16 28 28 (1254400)
I0927 10:14:38.947687  3315 net.cpp:137] Memory required for data: 497683600
I0927 10:14:38.947692  3315 layer_factory.hpp:77] Creating layer BatchNorm19
I0927 10:14:38.947697  3315 net.cpp:84] Creating Layer BatchNorm19
I0927 10:14:38.947700  3315 net.cpp:406] BatchNorm19 <- Convolution19
I0927 10:14:38.947705  3315 net.cpp:367] BatchNorm19 -> Convolution19 (in-place)
I0927 10:14:38.947831  3315 net.cpp:122] Setting up BatchNorm19
I0927 10:14:38.947835  3315 net.cpp:129] Top shape: 100 16 28 28 (1254400)
I0927 10:14:38.947839  3315 net.cpp:137] Memory required for data: 502701200
I0927 10:14:38.947842  3315 layer_factory.hpp:77] Creating layer Scale19
I0927 10:14:38.947846  3315 net.cpp:84] Creating Layer Scale19
I0927 10:14:38.947849  3315 net.cpp:406] Scale19 <- Convolution19
I0927 10:14:38.947851  3315 net.cpp:367] Scale19 -> Convolution19 (in-place)
I0927 10:14:38.947877  3315 layer_factory.hpp:77] Creating layer Scale19
I0927 10:14:38.947952  3315 net.cpp:122] Setting up Scale19
I0927 10:14:38.947955  3315 net.cpp:129] Top shape: 100 16 28 28 (1254400)
I0927 10:14:38.947963  3315 net.cpp:137] Memory required for data: 507718800
I0927 10:14:38.947968  3315 layer_factory.hpp:77] Creating layer Eltwise9
I0927 10:14:38.947971  3315 net.cpp:84] Creating Layer Eltwise9
I0927 10:14:38.947974  3315 net.cpp:406] Eltwise9 <- Eltwise8_penlu17_0_split_1
I0927 10:14:38.947978  3315 net.cpp:406] Eltwise9 <- Convolution19
I0927 10:14:38.947980  3315 net.cpp:380] Eltwise9 -> Eltwise9
I0927 10:14:38.947998  3315 net.cpp:122] Setting up Eltwise9
I0927 10:14:38.948001  3315 net.cpp:129] Top shape: 100 16 28 28 (1254400)
I0927 10:14:38.948004  3315 net.cpp:137] Memory required for data: 512736400
I0927 10:14:38.948005  3315 layer_factory.hpp:77] Creating layer penlu19
I0927 10:14:38.948010  3315 net.cpp:84] Creating Layer penlu19
I0927 10:14:38.948012  3315 net.cpp:406] penlu19 <- Eltwise9
I0927 10:14:38.948016  3315 net.cpp:367] penlu19 -> Eltwise9 (in-place)
I0927 10:14:38.948122  3315 net.cpp:122] Setting up penlu19
I0927 10:14:38.948127  3315 net.cpp:129] Top shape: 100 16 28 28 (1254400)
I0927 10:14:38.948129  3315 net.cpp:137] Memory required for data: 517754000
I0927 10:14:38.948133  3315 layer_factory.hpp:77] Creating layer Eltwise9_penlu19_0_split
I0927 10:14:38.948137  3315 net.cpp:84] Creating Layer Eltwise9_penlu19_0_split
I0927 10:14:38.948139  3315 net.cpp:406] Eltwise9_penlu19_0_split <- Eltwise9
I0927 10:14:38.948143  3315 net.cpp:380] Eltwise9_penlu19_0_split -> Eltwise9_penlu19_0_split_0
I0927 10:14:38.948146  3315 net.cpp:380] Eltwise9_penlu19_0_split -> Eltwise9_penlu19_0_split_1
I0927 10:14:38.948168  3315 net.cpp:122] Setting up Eltwise9_penlu19_0_split
I0927 10:14:38.948173  3315 net.cpp:129] Top shape: 100 16 28 28 (1254400)
I0927 10:14:38.948174  3315 net.cpp:129] Top shape: 100 16 28 28 (1254400)
I0927 10:14:38.948176  3315 net.cpp:137] Memory required for data: 527789200
I0927 10:14:38.948179  3315 layer_factory.hpp:77] Creating layer Convolution20
I0927 10:14:38.948184  3315 net.cpp:84] Creating Layer Convolution20
I0927 10:14:38.948186  3315 net.cpp:406] Convolution20 <- Eltwise9_penlu19_0_split_0
I0927 10:14:38.948191  3315 net.cpp:380] Convolution20 -> Convolution20
I0927 10:14:38.949355  3315 net.cpp:122] Setting up Convolution20
I0927 10:14:38.949364  3315 net.cpp:129] Top shape: 100 32 14 14 (627200)
I0927 10:14:38.949368  3315 net.cpp:137] Memory required for data: 530298000
I0927 10:14:38.949371  3315 layer_factory.hpp:77] Creating layer BatchNorm20
I0927 10:14:38.949378  3315 net.cpp:84] Creating Layer BatchNorm20
I0927 10:14:38.949379  3315 net.cpp:406] BatchNorm20 <- Convolution20
I0927 10:14:38.949383  3315 net.cpp:367] BatchNorm20 -> Convolution20 (in-place)
I0927 10:14:38.949519  3315 net.cpp:122] Setting up BatchNorm20
I0927 10:14:38.949524  3315 net.cpp:129] Top shape: 100 32 14 14 (627200)
I0927 10:14:38.949527  3315 net.cpp:137] Memory required for data: 532806800
I0927 10:14:38.949532  3315 layer_factory.hpp:77] Creating layer Scale20
I0927 10:14:38.949537  3315 net.cpp:84] Creating Layer Scale20
I0927 10:14:38.949538  3315 net.cpp:406] Scale20 <- Convolution20
I0927 10:14:38.949542  3315 net.cpp:367] Scale20 -> Convolution20 (in-place)
I0927 10:14:38.949568  3315 layer_factory.hpp:77] Creating layer Scale20
I0927 10:14:38.949642  3315 net.cpp:122] Setting up Scale20
I0927 10:14:38.949646  3315 net.cpp:129] Top shape: 100 32 14 14 (627200)
I0927 10:14:38.949648  3315 net.cpp:137] Memory required for data: 535315600
I0927 10:14:38.949652  3315 layer_factory.hpp:77] Creating layer Convolution21
I0927 10:14:38.949659  3315 net.cpp:84] Creating Layer Convolution21
I0927 10:14:38.949661  3315 net.cpp:406] Convolution21 <- Eltwise9_penlu19_0_split_1
I0927 10:14:38.949666  3315 net.cpp:380] Convolution21 -> Convolution21
I0927 10:14:38.951334  3315 net.cpp:122] Setting up Convolution21
I0927 10:14:38.951344  3315 net.cpp:129] Top shape: 100 32 14 14 (627200)
I0927 10:14:38.951346  3315 net.cpp:137] Memory required for data: 537824400
I0927 10:14:38.951351  3315 layer_factory.hpp:77] Creating layer BatchNorm21
I0927 10:14:38.951356  3315 net.cpp:84] Creating Layer BatchNorm21
I0927 10:14:38.951366  3315 net.cpp:406] BatchNorm21 <- Convolution21
I0927 10:14:38.951370  3315 net.cpp:367] BatchNorm21 -> Convolution21 (in-place)
I0927 10:14:38.951508  3315 net.cpp:122] Setting up BatchNorm21
I0927 10:14:38.951511  3315 net.cpp:129] Top shape: 100 32 14 14 (627200)
I0927 10:14:38.951514  3315 net.cpp:137] Memory required for data: 540333200
I0927 10:14:38.951519  3315 layer_factory.hpp:77] Creating layer Scale21
I0927 10:14:38.951524  3315 net.cpp:84] Creating Layer Scale21
I0927 10:14:38.951525  3315 net.cpp:406] Scale21 <- Convolution21
I0927 10:14:38.951529  3315 net.cpp:367] Scale21 -> Convolution21 (in-place)
I0927 10:14:38.951556  3315 layer_factory.hpp:77] Creating layer Scale21
I0927 10:14:38.951673  3315 net.cpp:122] Setting up Scale21
I0927 10:14:38.951678  3315 net.cpp:129] Top shape: 100 32 14 14 (627200)
I0927 10:14:38.951680  3315 net.cpp:137] Memory required for data: 542842000
I0927 10:14:38.951684  3315 layer_factory.hpp:77] Creating layer penlu20
I0927 10:14:38.951689  3315 net.cpp:84] Creating Layer penlu20
I0927 10:14:38.951691  3315 net.cpp:406] penlu20 <- Convolution21
I0927 10:14:38.951696  3315 net.cpp:367] penlu20 -> Convolution21 (in-place)
I0927 10:14:38.951812  3315 net.cpp:122] Setting up penlu20
I0927 10:14:38.951817  3315 net.cpp:129] Top shape: 100 32 14 14 (627200)
I0927 10:14:38.951818  3315 net.cpp:137] Memory required for data: 545350800
I0927 10:14:38.951823  3315 layer_factory.hpp:77] Creating layer Convolution22
I0927 10:14:38.951829  3315 net.cpp:84] Creating Layer Convolution22
I0927 10:14:38.951833  3315 net.cpp:406] Convolution22 <- Convolution21
I0927 10:14:38.951835  3315 net.cpp:380] Convolution22 -> Convolution22
I0927 10:14:38.952886  3315 net.cpp:122] Setting up Convolution22
I0927 10:14:38.952895  3315 net.cpp:129] Top shape: 100 32 14 14 (627200)
I0927 10:14:38.952898  3315 net.cpp:137] Memory required for data: 547859600
I0927 10:14:38.952903  3315 layer_factory.hpp:77] Creating layer BatchNorm22
I0927 10:14:38.952908  3315 net.cpp:84] Creating Layer BatchNorm22
I0927 10:14:38.952910  3315 net.cpp:406] BatchNorm22 <- Convolution22
I0927 10:14:38.952914  3315 net.cpp:367] BatchNorm22 -> Convolution22 (in-place)
I0927 10:14:38.953044  3315 net.cpp:122] Setting up BatchNorm22
I0927 10:14:38.953048  3315 net.cpp:129] Top shape: 100 32 14 14 (627200)
I0927 10:14:38.953050  3315 net.cpp:137] Memory required for data: 550368400
I0927 10:14:38.953055  3315 layer_factory.hpp:77] Creating layer Scale22
I0927 10:14:38.953060  3315 net.cpp:84] Creating Layer Scale22
I0927 10:14:38.953063  3315 net.cpp:406] Scale22 <- Convolution22
I0927 10:14:38.953065  3315 net.cpp:367] Scale22 -> Convolution22 (in-place)
I0927 10:14:38.953091  3315 layer_factory.hpp:77] Creating layer Scale22
I0927 10:14:38.953164  3315 net.cpp:122] Setting up Scale22
I0927 10:14:38.953168  3315 net.cpp:129] Top shape: 100 32 14 14 (627200)
I0927 10:14:38.953171  3315 net.cpp:137] Memory required for data: 552877200
I0927 10:14:38.953174  3315 layer_factory.hpp:77] Creating layer Eltwise10
I0927 10:14:38.953177  3315 net.cpp:84] Creating Layer Eltwise10
I0927 10:14:38.953181  3315 net.cpp:406] Eltwise10 <- Convolution20
I0927 10:14:38.953182  3315 net.cpp:406] Eltwise10 <- Convolution22
I0927 10:14:38.953186  3315 net.cpp:380] Eltwise10 -> Eltwise10
I0927 10:14:38.953202  3315 net.cpp:122] Setting up Eltwise10
I0927 10:14:38.953205  3315 net.cpp:129] Top shape: 100 32 14 14 (627200)
I0927 10:14:38.953207  3315 net.cpp:137] Memory required for data: 555386000
I0927 10:14:38.953209  3315 layer_factory.hpp:77] Creating layer penlu21
I0927 10:14:38.953214  3315 net.cpp:84] Creating Layer penlu21
I0927 10:14:38.953217  3315 net.cpp:406] penlu21 <- Eltwise10
I0927 10:14:38.953220  3315 net.cpp:367] penlu21 -> Eltwise10 (in-place)
I0927 10:14:38.953342  3315 net.cpp:122] Setting up penlu21
I0927 10:14:38.953346  3315 net.cpp:129] Top shape: 100 32 14 14 (627200)
I0927 10:14:38.953348  3315 net.cpp:137] Memory required for data: 557894800
I0927 10:14:38.953353  3315 layer_factory.hpp:77] Creating layer Eltwise10_penlu21_0_split
I0927 10:14:38.953363  3315 net.cpp:84] Creating Layer Eltwise10_penlu21_0_split
I0927 10:14:38.953366  3315 net.cpp:406] Eltwise10_penlu21_0_split <- Eltwise10
I0927 10:14:38.953369  3315 net.cpp:380] Eltwise10_penlu21_0_split -> Eltwise10_penlu21_0_split_0
I0927 10:14:38.953374  3315 net.cpp:380] Eltwise10_penlu21_0_split -> Eltwise10_penlu21_0_split_1
I0927 10:14:38.953397  3315 net.cpp:122] Setting up Eltwise10_penlu21_0_split
I0927 10:14:38.953402  3315 net.cpp:129] Top shape: 100 32 14 14 (627200)
I0927 10:14:38.953403  3315 net.cpp:129] Top shape: 100 32 14 14 (627200)
I0927 10:14:38.953405  3315 net.cpp:137] Memory required for data: 562912400
I0927 10:14:38.953408  3315 layer_factory.hpp:77] Creating layer Convolution23
I0927 10:14:38.953414  3315 net.cpp:84] Creating Layer Convolution23
I0927 10:14:38.953416  3315 net.cpp:406] Convolution23 <- Eltwise10_penlu21_0_split_0
I0927 10:14:38.953420  3315 net.cpp:380] Convolution23 -> Convolution23
I0927 10:14:38.954762  3315 net.cpp:122] Setting up Convolution23
I0927 10:14:38.954771  3315 net.cpp:129] Top shape: 100 32 14 14 (627200)
I0927 10:14:38.954773  3315 net.cpp:137] Memory required for data: 565421200
I0927 10:14:38.954778  3315 layer_factory.hpp:77] Creating layer BatchNorm23
I0927 10:14:38.954782  3315 net.cpp:84] Creating Layer BatchNorm23
I0927 10:14:38.954784  3315 net.cpp:406] BatchNorm23 <- Convolution23
I0927 10:14:38.954789  3315 net.cpp:367] BatchNorm23 -> Convolution23 (in-place)
I0927 10:14:38.954923  3315 net.cpp:122] Setting up BatchNorm23
I0927 10:14:38.954927  3315 net.cpp:129] Top shape: 100 32 14 14 (627200)
I0927 10:14:38.954931  3315 net.cpp:137] Memory required for data: 567930000
I0927 10:14:38.954936  3315 layer_factory.hpp:77] Creating layer Scale23
I0927 10:14:38.954939  3315 net.cpp:84] Creating Layer Scale23
I0927 10:14:38.954941  3315 net.cpp:406] Scale23 <- Convolution23
I0927 10:14:38.954946  3315 net.cpp:367] Scale23 -> Convolution23 (in-place)
I0927 10:14:38.954972  3315 layer_factory.hpp:77] Creating layer Scale23
I0927 10:14:38.955046  3315 net.cpp:122] Setting up Scale23
I0927 10:14:38.955050  3315 net.cpp:129] Top shape: 100 32 14 14 (627200)
I0927 10:14:38.955052  3315 net.cpp:137] Memory required for data: 570438800
I0927 10:14:38.955056  3315 layer_factory.hpp:77] Creating layer penlu22
I0927 10:14:38.955061  3315 net.cpp:84] Creating Layer penlu22
I0927 10:14:38.955065  3315 net.cpp:406] penlu22 <- Convolution23
I0927 10:14:38.955068  3315 net.cpp:367] penlu22 -> Convolution23 (in-place)
I0927 10:14:38.955170  3315 net.cpp:122] Setting up penlu22
I0927 10:14:38.955175  3315 net.cpp:129] Top shape: 100 32 14 14 (627200)
I0927 10:14:38.955178  3315 net.cpp:137] Memory required for data: 572947600
I0927 10:14:38.955183  3315 layer_factory.hpp:77] Creating layer Convolution24
I0927 10:14:38.955188  3315 net.cpp:84] Creating Layer Convolution24
I0927 10:14:38.955191  3315 net.cpp:406] Convolution24 <- Convolution23
I0927 10:14:38.955194  3315 net.cpp:380] Convolution24 -> Convolution24
I0927 10:14:38.956218  3315 net.cpp:122] Setting up Convolution24
I0927 10:14:38.956226  3315 net.cpp:129] Top shape: 100 32 14 14 (627200)
I0927 10:14:38.956229  3315 net.cpp:137] Memory required for data: 575456400
I0927 10:14:38.956233  3315 layer_factory.hpp:77] Creating layer BatchNorm24
I0927 10:14:38.956238  3315 net.cpp:84] Creating Layer BatchNorm24
I0927 10:14:38.956239  3315 net.cpp:406] BatchNorm24 <- Convolution24
I0927 10:14:38.956244  3315 net.cpp:367] BatchNorm24 -> Convolution24 (in-place)
I0927 10:14:38.956377  3315 net.cpp:122] Setting up BatchNorm24
I0927 10:14:38.956382  3315 net.cpp:129] Top shape: 100 32 14 14 (627200)
I0927 10:14:38.956383  3315 net.cpp:137] Memory required for data: 577965200
I0927 10:14:38.956387  3315 layer_factory.hpp:77] Creating layer Scale24
I0927 10:14:38.956392  3315 net.cpp:84] Creating Layer Scale24
I0927 10:14:38.956394  3315 net.cpp:406] Scale24 <- Convolution24
I0927 10:14:38.956398  3315 net.cpp:367] Scale24 -> Convolution24 (in-place)
I0927 10:14:38.956430  3315 layer_factory.hpp:77] Creating layer Scale24
I0927 10:14:38.956506  3315 net.cpp:122] Setting up Scale24
I0927 10:14:38.956511  3315 net.cpp:129] Top shape: 100 32 14 14 (627200)
I0927 10:14:38.956512  3315 net.cpp:137] Memory required for data: 580474000
I0927 10:14:38.956516  3315 layer_factory.hpp:77] Creating layer Eltwise11
I0927 10:14:38.956519  3315 net.cpp:84] Creating Layer Eltwise11
I0927 10:14:38.956522  3315 net.cpp:406] Eltwise11 <- Eltwise10_penlu21_0_split_1
I0927 10:14:38.956524  3315 net.cpp:406] Eltwise11 <- Convolution24
I0927 10:14:38.956529  3315 net.cpp:380] Eltwise11 -> Eltwise11
I0927 10:14:38.956544  3315 net.cpp:122] Setting up Eltwise11
I0927 10:14:38.956548  3315 net.cpp:129] Top shape: 100 32 14 14 (627200)
I0927 10:14:38.956550  3315 net.cpp:137] Memory required for data: 582982800
I0927 10:14:38.956552  3315 layer_factory.hpp:77] Creating layer penlu23
I0927 10:14:38.956557  3315 net.cpp:84] Creating Layer penlu23
I0927 10:14:38.956559  3315 net.cpp:406] penlu23 <- Eltwise11
I0927 10:14:38.956563  3315 net.cpp:367] penlu23 -> Eltwise11 (in-place)
I0927 10:14:38.956668  3315 net.cpp:122] Setting up penlu23
I0927 10:14:38.956673  3315 net.cpp:129] Top shape: 100 32 14 14 (627200)
I0927 10:14:38.956676  3315 net.cpp:137] Memory required for data: 585491600
I0927 10:14:38.956679  3315 layer_factory.hpp:77] Creating layer Eltwise11_penlu23_0_split
I0927 10:14:38.956683  3315 net.cpp:84] Creating Layer Eltwise11_penlu23_0_split
I0927 10:14:38.956686  3315 net.cpp:406] Eltwise11_penlu23_0_split <- Eltwise11
I0927 10:14:38.956688  3315 net.cpp:380] Eltwise11_penlu23_0_split -> Eltwise11_penlu23_0_split_0
I0927 10:14:38.956692  3315 net.cpp:380] Eltwise11_penlu23_0_split -> Eltwise11_penlu23_0_split_1
I0927 10:14:38.956715  3315 net.cpp:122] Setting up Eltwise11_penlu23_0_split
I0927 10:14:38.956719  3315 net.cpp:129] Top shape: 100 32 14 14 (627200)
I0927 10:14:38.956722  3315 net.cpp:129] Top shape: 100 32 14 14 (627200)
I0927 10:14:38.956724  3315 net.cpp:137] Memory required for data: 590509200
I0927 10:14:38.956727  3315 layer_factory.hpp:77] Creating layer Convolution25
I0927 10:14:38.956732  3315 net.cpp:84] Creating Layer Convolution25
I0927 10:14:38.956735  3315 net.cpp:406] Convolution25 <- Eltwise11_penlu23_0_split_0
I0927 10:14:38.956739  3315 net.cpp:380] Convolution25 -> Convolution25
I0927 10:14:38.957759  3315 net.cpp:122] Setting up Convolution25
I0927 10:14:38.957768  3315 net.cpp:129] Top shape: 100 32 14 14 (627200)
I0927 10:14:38.957770  3315 net.cpp:137] Memory required for data: 593018000
I0927 10:14:38.957774  3315 layer_factory.hpp:77] Creating layer BatchNorm25
I0927 10:14:38.957779  3315 net.cpp:84] Creating Layer BatchNorm25
I0927 10:14:38.957782  3315 net.cpp:406] BatchNorm25 <- Convolution25
I0927 10:14:38.957787  3315 net.cpp:367] BatchNorm25 -> Convolution25 (in-place)
I0927 10:14:38.957918  3315 net.cpp:122] Setting up BatchNorm25
I0927 10:14:38.957922  3315 net.cpp:129] Top shape: 100 32 14 14 (627200)
I0927 10:14:38.957924  3315 net.cpp:137] Memory required for data: 595526800
I0927 10:14:38.957929  3315 layer_factory.hpp:77] Creating layer Scale25
I0927 10:14:38.957933  3315 net.cpp:84] Creating Layer Scale25
I0927 10:14:38.957936  3315 net.cpp:406] Scale25 <- Convolution25
I0927 10:14:38.957938  3315 net.cpp:367] Scale25 -> Convolution25 (in-place)
I0927 10:14:38.957965  3315 layer_factory.hpp:77] Creating layer Scale25
I0927 10:14:38.958039  3315 net.cpp:122] Setting up Scale25
I0927 10:14:38.958045  3315 net.cpp:129] Top shape: 100 32 14 14 (627200)
I0927 10:14:38.958046  3315 net.cpp:137] Memory required for data: 598035600
I0927 10:14:38.958050  3315 layer_factory.hpp:77] Creating layer penlu24
I0927 10:14:38.958055  3315 net.cpp:84] Creating Layer penlu24
I0927 10:14:38.958056  3315 net.cpp:406] penlu24 <- Convolution25
I0927 10:14:38.958060  3315 net.cpp:367] penlu24 -> Convolution25 (in-place)
I0927 10:14:38.958165  3315 net.cpp:122] Setting up penlu24
I0927 10:14:38.958170  3315 net.cpp:129] Top shape: 100 32 14 14 (627200)
I0927 10:14:38.958178  3315 net.cpp:137] Memory required for data: 600544400
I0927 10:14:38.958184  3315 layer_factory.hpp:77] Creating layer Convolution26
I0927 10:14:38.958190  3315 net.cpp:84] Creating Layer Convolution26
I0927 10:14:38.958192  3315 net.cpp:406] Convolution26 <- Convolution25
I0927 10:14:38.958196  3315 net.cpp:380] Convolution26 -> Convolution26
I0927 10:14:38.959244  3315 net.cpp:122] Setting up Convolution26
I0927 10:14:38.959254  3315 net.cpp:129] Top shape: 100 32 14 14 (627200)
I0927 10:14:38.959255  3315 net.cpp:137] Memory required for data: 603053200
I0927 10:14:38.959260  3315 layer_factory.hpp:77] Creating layer BatchNorm26
I0927 10:14:38.959265  3315 net.cpp:84] Creating Layer BatchNorm26
I0927 10:14:38.959267  3315 net.cpp:406] BatchNorm26 <- Convolution26
I0927 10:14:38.959271  3315 net.cpp:367] BatchNorm26 -> Convolution26 (in-place)
I0927 10:14:38.959404  3315 net.cpp:122] Setting up BatchNorm26
I0927 10:14:38.959409  3315 net.cpp:129] Top shape: 100 32 14 14 (627200)
I0927 10:14:38.959411  3315 net.cpp:137] Memory required for data: 605562000
I0927 10:14:38.959415  3315 layer_factory.hpp:77] Creating layer Scale26
I0927 10:14:38.959419  3315 net.cpp:84] Creating Layer Scale26
I0927 10:14:38.959422  3315 net.cpp:406] Scale26 <- Convolution26
I0927 10:14:38.959425  3315 net.cpp:367] Scale26 -> Convolution26 (in-place)
I0927 10:14:38.959451  3315 layer_factory.hpp:77] Creating layer Scale26
I0927 10:14:38.959527  3315 net.cpp:122] Setting up Scale26
I0927 10:14:38.959532  3315 net.cpp:129] Top shape: 100 32 14 14 (627200)
I0927 10:14:38.959534  3315 net.cpp:137] Memory required for data: 608070800
I0927 10:14:38.959538  3315 layer_factory.hpp:77] Creating layer Eltwise12
I0927 10:14:38.959542  3315 net.cpp:84] Creating Layer Eltwise12
I0927 10:14:38.959545  3315 net.cpp:406] Eltwise12 <- Eltwise11_penlu23_0_split_1
I0927 10:14:38.959547  3315 net.cpp:406] Eltwise12 <- Convolution26
I0927 10:14:38.959550  3315 net.cpp:380] Eltwise12 -> Eltwise12
I0927 10:14:38.959568  3315 net.cpp:122] Setting up Eltwise12
I0927 10:14:38.959570  3315 net.cpp:129] Top shape: 100 32 14 14 (627200)
I0927 10:14:38.959573  3315 net.cpp:137] Memory required for data: 610579600
I0927 10:14:38.959574  3315 layer_factory.hpp:77] Creating layer penlu25
I0927 10:14:38.959580  3315 net.cpp:84] Creating Layer penlu25
I0927 10:14:38.959583  3315 net.cpp:406] penlu25 <- Eltwise12
I0927 10:14:38.959585  3315 net.cpp:367] penlu25 -> Eltwise12 (in-place)
I0927 10:14:38.959692  3315 net.cpp:122] Setting up penlu25
I0927 10:14:38.959697  3315 net.cpp:129] Top shape: 100 32 14 14 (627200)
I0927 10:14:38.959699  3315 net.cpp:137] Memory required for data: 613088400
I0927 10:14:38.959722  3315 layer_factory.hpp:77] Creating layer Eltwise12_penlu25_0_split
I0927 10:14:38.959733  3315 net.cpp:84] Creating Layer Eltwise12_penlu25_0_split
I0927 10:14:38.959735  3315 net.cpp:406] Eltwise12_penlu25_0_split <- Eltwise12
I0927 10:14:38.959739  3315 net.cpp:380] Eltwise12_penlu25_0_split -> Eltwise12_penlu25_0_split_0
I0927 10:14:38.959748  3315 net.cpp:380] Eltwise12_penlu25_0_split -> Eltwise12_penlu25_0_split_1
I0927 10:14:38.959772  3315 net.cpp:122] Setting up Eltwise12_penlu25_0_split
I0927 10:14:38.959776  3315 net.cpp:129] Top shape: 100 32 14 14 (627200)
I0927 10:14:38.959779  3315 net.cpp:129] Top shape: 100 32 14 14 (627200)
I0927 10:14:38.959780  3315 net.cpp:137] Memory required for data: 618106000
I0927 10:14:38.959784  3315 layer_factory.hpp:77] Creating layer Convolution27
I0927 10:14:38.959789  3315 net.cpp:84] Creating Layer Convolution27
I0927 10:14:38.959792  3315 net.cpp:406] Convolution27 <- Eltwise12_penlu25_0_split_0
I0927 10:14:38.959796  3315 net.cpp:380] Convolution27 -> Convolution27
I0927 10:14:38.960499  3315 net.cpp:122] Setting up Convolution27
I0927 10:14:38.960507  3315 net.cpp:129] Top shape: 100 32 14 14 (627200)
I0927 10:14:38.960510  3315 net.cpp:137] Memory required for data: 620614800
I0927 10:14:38.960513  3315 layer_factory.hpp:77] Creating layer BatchNorm27
I0927 10:14:38.960517  3315 net.cpp:84] Creating Layer BatchNorm27
I0927 10:14:38.960526  3315 net.cpp:406] BatchNorm27 <- Convolution27
I0927 10:14:38.960531  3315 net.cpp:367] BatchNorm27 -> Convolution27 (in-place)
I0927 10:14:38.960664  3315 net.cpp:122] Setting up BatchNorm27
I0927 10:14:38.960669  3315 net.cpp:129] Top shape: 100 32 14 14 (627200)
I0927 10:14:38.960671  3315 net.cpp:137] Memory required for data: 623123600
I0927 10:14:38.960675  3315 layer_factory.hpp:77] Creating layer Scale27
I0927 10:14:38.960680  3315 net.cpp:84] Creating Layer Scale27
I0927 10:14:38.960681  3315 net.cpp:406] Scale27 <- Convolution27
I0927 10:14:38.960685  3315 net.cpp:367] Scale27 -> Convolution27 (in-place)
I0927 10:14:38.960711  3315 layer_factory.hpp:77] Creating layer Scale27
I0927 10:14:38.960786  3315 net.cpp:122] Setting up Scale27
I0927 10:14:38.960790  3315 net.cpp:129] Top shape: 100 32 14 14 (627200)
I0927 10:14:38.960793  3315 net.cpp:137] Memory required for data: 625632400
I0927 10:14:38.960796  3315 layer_factory.hpp:77] Creating layer penlu26
I0927 10:14:38.960801  3315 net.cpp:84] Creating Layer penlu26
I0927 10:14:38.960803  3315 net.cpp:406] penlu26 <- Convolution27
I0927 10:14:38.960806  3315 net.cpp:367] penlu26 -> Convolution27 (in-place)
I0927 10:14:38.960913  3315 net.cpp:122] Setting up penlu26
I0927 10:14:38.960918  3315 net.cpp:129] Top shape: 100 32 14 14 (627200)
I0927 10:14:38.960921  3315 net.cpp:137] Memory required for data: 628141200
I0927 10:14:38.960924  3315 layer_factory.hpp:77] Creating layer Convolution28
I0927 10:14:38.960932  3315 net.cpp:84] Creating Layer Convolution28
I0927 10:14:38.960933  3315 net.cpp:406] Convolution28 <- Convolution27
I0927 10:14:38.960938  3315 net.cpp:380] Convolution28 -> Convolution28
I0927 10:14:38.961951  3315 net.cpp:122] Setting up Convolution28
I0927 10:14:38.961958  3315 net.cpp:129] Top shape: 100 32 14 14 (627200)
I0927 10:14:38.961961  3315 net.cpp:137] Memory required for data: 630650000
I0927 10:14:38.961966  3315 layer_factory.hpp:77] Creating layer BatchNorm28
I0927 10:14:38.961971  3315 net.cpp:84] Creating Layer BatchNorm28
I0927 10:14:38.961972  3315 net.cpp:406] BatchNorm28 <- Convolution28
I0927 10:14:38.961977  3315 net.cpp:367] BatchNorm28 -> Convolution28 (in-place)
I0927 10:14:38.962108  3315 net.cpp:122] Setting up BatchNorm28
I0927 10:14:38.962112  3315 net.cpp:129] Top shape: 100 32 14 14 (627200)
I0927 10:14:38.962115  3315 net.cpp:137] Memory required for data: 633158800
I0927 10:14:38.962119  3315 layer_factory.hpp:77] Creating layer Scale28
I0927 10:14:38.962123  3315 net.cpp:84] Creating Layer Scale28
I0927 10:14:38.962126  3315 net.cpp:406] Scale28 <- Convolution28
I0927 10:14:38.962128  3315 net.cpp:367] Scale28 -> Convolution28 (in-place)
I0927 10:14:38.962155  3315 layer_factory.hpp:77] Creating layer Scale28
I0927 10:14:38.962231  3315 net.cpp:122] Setting up Scale28
I0927 10:14:38.962235  3315 net.cpp:129] Top shape: 100 32 14 14 (627200)
I0927 10:14:38.962237  3315 net.cpp:137] Memory required for data: 635667600
I0927 10:14:38.962241  3315 layer_factory.hpp:77] Creating layer Eltwise13
I0927 10:14:38.962245  3315 net.cpp:84] Creating Layer Eltwise13
I0927 10:14:38.962247  3315 net.cpp:406] Eltwise13 <- Eltwise12_penlu25_0_split_1
I0927 10:14:38.962250  3315 net.cpp:406] Eltwise13 <- Convolution28
I0927 10:14:38.962254  3315 net.cpp:380] Eltwise13 -> Eltwise13
I0927 10:14:38.962270  3315 net.cpp:122] Setting up Eltwise13
I0927 10:14:38.962273  3315 net.cpp:129] Top shape: 100 32 14 14 (627200)
I0927 10:14:38.962275  3315 net.cpp:137] Memory required for data: 638176400
I0927 10:14:38.962277  3315 layer_factory.hpp:77] Creating layer penlu27
I0927 10:14:38.962282  3315 net.cpp:84] Creating Layer penlu27
I0927 10:14:38.962285  3315 net.cpp:406] penlu27 <- Eltwise13
I0927 10:14:38.962288  3315 net.cpp:367] penlu27 -> Eltwise13 (in-place)
I0927 10:14:38.962394  3315 net.cpp:122] Setting up penlu27
I0927 10:14:38.962399  3315 net.cpp:129] Top shape: 100 32 14 14 (627200)
I0927 10:14:38.962400  3315 net.cpp:137] Memory required for data: 640685200
I0927 10:14:38.962404  3315 layer_factory.hpp:77] Creating layer Eltwise13_penlu27_0_split
I0927 10:14:38.962414  3315 net.cpp:84] Creating Layer Eltwise13_penlu27_0_split
I0927 10:14:38.962417  3315 net.cpp:406] Eltwise13_penlu27_0_split <- Eltwise13
I0927 10:14:38.962420  3315 net.cpp:380] Eltwise13_penlu27_0_split -> Eltwise13_penlu27_0_split_0
I0927 10:14:38.962425  3315 net.cpp:380] Eltwise13_penlu27_0_split -> Eltwise13_penlu27_0_split_1
I0927 10:14:38.962448  3315 net.cpp:122] Setting up Eltwise13_penlu27_0_split
I0927 10:14:38.962452  3315 net.cpp:129] Top shape: 100 32 14 14 (627200)
I0927 10:14:38.962455  3315 net.cpp:129] Top shape: 100 32 14 14 (627200)
I0927 10:14:38.962457  3315 net.cpp:137] Memory required for data: 645702800
I0927 10:14:38.962460  3315 layer_factory.hpp:77] Creating layer Convolution29
I0927 10:14:38.962465  3315 net.cpp:84] Creating Layer Convolution29
I0927 10:14:38.962467  3315 net.cpp:406] Convolution29 <- Eltwise13_penlu27_0_split_0
I0927 10:14:38.962471  3315 net.cpp:380] Convolution29 -> Convolution29
I0927 10:14:38.963521  3315 net.cpp:122] Setting up Convolution29
I0927 10:14:38.963528  3315 net.cpp:129] Top shape: 100 32 14 14 (627200)
I0927 10:14:38.963531  3315 net.cpp:137] Memory required for data: 648211600
I0927 10:14:38.963536  3315 layer_factory.hpp:77] Creating layer BatchNorm29
I0927 10:14:38.963541  3315 net.cpp:84] Creating Layer BatchNorm29
I0927 10:14:38.963543  3315 net.cpp:406] BatchNorm29 <- Convolution29
I0927 10:14:38.963547  3315 net.cpp:367] BatchNorm29 -> Convolution29 (in-place)
I0927 10:14:38.963680  3315 net.cpp:122] Setting up BatchNorm29
I0927 10:14:38.963685  3315 net.cpp:129] Top shape: 100 32 14 14 (627200)
I0927 10:14:38.963686  3315 net.cpp:137] Memory required for data: 650720400
I0927 10:14:38.963690  3315 layer_factory.hpp:77] Creating layer Scale29
I0927 10:14:38.963695  3315 net.cpp:84] Creating Layer Scale29
I0927 10:14:38.963696  3315 net.cpp:406] Scale29 <- Convolution29
I0927 10:14:38.963701  3315 net.cpp:367] Scale29 -> Convolution29 (in-place)
I0927 10:14:38.963726  3315 layer_factory.hpp:77] Creating layer Scale29
I0927 10:14:38.963802  3315 net.cpp:122] Setting up Scale29
I0927 10:14:38.963807  3315 net.cpp:129] Top shape: 100 32 14 14 (627200)
I0927 10:14:38.963809  3315 net.cpp:137] Memory required for data: 653229200
I0927 10:14:38.963812  3315 layer_factory.hpp:77] Creating layer penlu28
I0927 10:14:38.963819  3315 net.cpp:84] Creating Layer penlu28
I0927 10:14:38.963820  3315 net.cpp:406] penlu28 <- Convolution29
I0927 10:14:38.963824  3315 net.cpp:367] penlu28 -> Convolution29 (in-place)
I0927 10:14:38.963932  3315 net.cpp:122] Setting up penlu28
I0927 10:14:38.963935  3315 net.cpp:129] Top shape: 100 32 14 14 (627200)
I0927 10:14:38.963937  3315 net.cpp:137] Memory required for data: 655738000
I0927 10:14:38.963943  3315 layer_factory.hpp:77] Creating layer Convolution30
I0927 10:14:38.963948  3315 net.cpp:84] Creating Layer Convolution30
I0927 10:14:38.963950  3315 net.cpp:406] Convolution30 <- Convolution29
I0927 10:14:38.963954  3315 net.cpp:380] Convolution30 -> Convolution30
I0927 10:14:38.964975  3315 net.cpp:122] Setting up Convolution30
I0927 10:14:38.964983  3315 net.cpp:129] Top shape: 100 32 14 14 (627200)
I0927 10:14:38.964987  3315 net.cpp:137] Memory required for data: 658246800
I0927 10:14:38.964990  3315 layer_factory.hpp:77] Creating layer BatchNorm30
I0927 10:14:38.964996  3315 net.cpp:84] Creating Layer BatchNorm30
I0927 10:14:38.964999  3315 net.cpp:406] BatchNorm30 <- Convolution30
I0927 10:14:38.965003  3315 net.cpp:367] BatchNorm30 -> Convolution30 (in-place)
I0927 10:14:38.965134  3315 net.cpp:122] Setting up BatchNorm30
I0927 10:14:38.965138  3315 net.cpp:129] Top shape: 100 32 14 14 (627200)
I0927 10:14:38.965142  3315 net.cpp:137] Memory required for data: 660755600
I0927 10:14:38.965145  3315 layer_factory.hpp:77] Creating layer Scale30
I0927 10:14:38.965150  3315 net.cpp:84] Creating Layer Scale30
I0927 10:14:38.965152  3315 net.cpp:406] Scale30 <- Convolution30
I0927 10:14:38.965155  3315 net.cpp:367] Scale30 -> Convolution30 (in-place)
I0927 10:14:38.965190  3315 layer_factory.hpp:77] Creating layer Scale30
I0927 10:14:38.965267  3315 net.cpp:122] Setting up Scale30
I0927 10:14:38.965271  3315 net.cpp:129] Top shape: 100 32 14 14 (627200)
I0927 10:14:38.965273  3315 net.cpp:137] Memory required for data: 663264400
I0927 10:14:38.965277  3315 layer_factory.hpp:77] Creating layer Eltwise14
I0927 10:14:38.965281  3315 net.cpp:84] Creating Layer Eltwise14
I0927 10:14:38.965283  3315 net.cpp:406] Eltwise14 <- Eltwise13_penlu27_0_split_1
I0927 10:14:38.965286  3315 net.cpp:406] Eltwise14 <- Convolution30
I0927 10:14:38.965291  3315 net.cpp:380] Eltwise14 -> Eltwise14
I0927 10:14:38.965306  3315 net.cpp:122] Setting up Eltwise14
I0927 10:14:38.965309  3315 net.cpp:129] Top shape: 100 32 14 14 (627200)
I0927 10:14:38.965312  3315 net.cpp:137] Memory required for data: 665773200
I0927 10:14:38.965313  3315 layer_factory.hpp:77] Creating layer penlu29
I0927 10:14:38.965318  3315 net.cpp:84] Creating Layer penlu29
I0927 10:14:38.965322  3315 net.cpp:406] penlu29 <- Eltwise14
I0927 10:14:38.965324  3315 net.cpp:367] penlu29 -> Eltwise14 (in-place)
I0927 10:14:38.965428  3315 net.cpp:122] Setting up penlu29
I0927 10:14:38.965432  3315 net.cpp:129] Top shape: 100 32 14 14 (627200)
I0927 10:14:38.965435  3315 net.cpp:137] Memory required for data: 668282000
I0927 10:14:38.965438  3315 layer_factory.hpp:77] Creating layer Eltwise14_penlu29_0_split
I0927 10:14:38.965442  3315 net.cpp:84] Creating Layer Eltwise14_penlu29_0_split
I0927 10:14:38.965445  3315 net.cpp:406] Eltwise14_penlu29_0_split <- Eltwise14
I0927 10:14:38.965448  3315 net.cpp:380] Eltwise14_penlu29_0_split -> Eltwise14_penlu29_0_split_0
I0927 10:14:38.965453  3315 net.cpp:380] Eltwise14_penlu29_0_split -> Eltwise14_penlu29_0_split_1
I0927 10:14:38.965476  3315 net.cpp:122] Setting up Eltwise14_penlu29_0_split
I0927 10:14:38.965478  3315 net.cpp:129] Top shape: 100 32 14 14 (627200)
I0927 10:14:38.965481  3315 net.cpp:129] Top shape: 100 32 14 14 (627200)
I0927 10:14:38.965483  3315 net.cpp:137] Memory required for data: 673299600
I0927 10:14:38.965486  3315 layer_factory.hpp:77] Creating layer Convolution31
I0927 10:14:38.965492  3315 net.cpp:84] Creating Layer Convolution31
I0927 10:14:38.965494  3315 net.cpp:406] Convolution31 <- Eltwise14_penlu29_0_split_0
I0927 10:14:38.965497  3315 net.cpp:380] Convolution31 -> Convolution31
I0927 10:14:38.966540  3315 net.cpp:122] Setting up Convolution31
I0927 10:14:38.966549  3315 net.cpp:129] Top shape: 100 32 14 14 (627200)
I0927 10:14:38.966552  3315 net.cpp:137] Memory required for data: 675808400
I0927 10:14:38.966565  3315 layer_factory.hpp:77] Creating layer BatchNorm31
I0927 10:14:38.966570  3315 net.cpp:84] Creating Layer BatchNorm31
I0927 10:14:38.966573  3315 net.cpp:406] BatchNorm31 <- Convolution31
I0927 10:14:38.966578  3315 net.cpp:367] BatchNorm31 -> Convolution31 (in-place)
I0927 10:14:38.966712  3315 net.cpp:122] Setting up BatchNorm31
I0927 10:14:38.966717  3315 net.cpp:129] Top shape: 100 32 14 14 (627200)
I0927 10:14:38.966718  3315 net.cpp:137] Memory required for data: 678317200
I0927 10:14:38.966723  3315 layer_factory.hpp:77] Creating layer Scale31
I0927 10:14:38.966728  3315 net.cpp:84] Creating Layer Scale31
I0927 10:14:38.966730  3315 net.cpp:406] Scale31 <- Convolution31
I0927 10:14:38.966733  3315 net.cpp:367] Scale31 -> Convolution31 (in-place)
I0927 10:14:38.966759  3315 layer_factory.hpp:77] Creating layer Scale31
I0927 10:14:38.966836  3315 net.cpp:122] Setting up Scale31
I0927 10:14:38.966841  3315 net.cpp:129] Top shape: 100 32 14 14 (627200)
I0927 10:14:38.966843  3315 net.cpp:137] Memory required for data: 680826000
I0927 10:14:38.966846  3315 layer_factory.hpp:77] Creating layer penlu30
I0927 10:14:38.966852  3315 net.cpp:84] Creating Layer penlu30
I0927 10:14:38.966855  3315 net.cpp:406] penlu30 <- Convolution31
I0927 10:14:38.966857  3315 net.cpp:367] penlu30 -> Convolution31 (in-place)
I0927 10:14:38.966964  3315 net.cpp:122] Setting up penlu30
I0927 10:14:38.966969  3315 net.cpp:129] Top shape: 100 32 14 14 (627200)
I0927 10:14:38.966976  3315 net.cpp:137] Memory required for data: 683334800
I0927 10:14:38.966980  3315 layer_factory.hpp:77] Creating layer Convolution32
I0927 10:14:38.966987  3315 net.cpp:84] Creating Layer Convolution32
I0927 10:14:38.966989  3315 net.cpp:406] Convolution32 <- Convolution31
I0927 10:14:38.966994  3315 net.cpp:380] Convolution32 -> Convolution32
I0927 10:14:38.968024  3315 net.cpp:122] Setting up Convolution32
I0927 10:14:38.968032  3315 net.cpp:129] Top shape: 100 32 14 14 (627200)
I0927 10:14:38.968034  3315 net.cpp:137] Memory required for data: 685843600
I0927 10:14:38.968039  3315 layer_factory.hpp:77] Creating layer BatchNorm32
I0927 10:14:38.968044  3315 net.cpp:84] Creating Layer BatchNorm32
I0927 10:14:38.968047  3315 net.cpp:406] BatchNorm32 <- Convolution32
I0927 10:14:38.968051  3315 net.cpp:367] BatchNorm32 -> Convolution32 (in-place)
I0927 10:14:38.968183  3315 net.cpp:122] Setting up BatchNorm32
I0927 10:14:38.968189  3315 net.cpp:129] Top shape: 100 32 14 14 (627200)
I0927 10:14:38.968190  3315 net.cpp:137] Memory required for data: 688352400
I0927 10:14:38.968194  3315 layer_factory.hpp:77] Creating layer Scale32
I0927 10:14:38.968200  3315 net.cpp:84] Creating Layer Scale32
I0927 10:14:38.968202  3315 net.cpp:406] Scale32 <- Convolution32
I0927 10:14:38.968205  3315 net.cpp:367] Scale32 -> Convolution32 (in-place)
I0927 10:14:38.968231  3315 layer_factory.hpp:77] Creating layer Scale32
I0927 10:14:38.968312  3315 net.cpp:122] Setting up Scale32
I0927 10:14:38.968315  3315 net.cpp:129] Top shape: 100 32 14 14 (627200)
I0927 10:14:38.968317  3315 net.cpp:137] Memory required for data: 690861200
I0927 10:14:38.968322  3315 layer_factory.hpp:77] Creating layer Eltwise15
I0927 10:14:38.968325  3315 net.cpp:84] Creating Layer Eltwise15
I0927 10:14:38.968328  3315 net.cpp:406] Eltwise15 <- Eltwise14_penlu29_0_split_1
I0927 10:14:38.968331  3315 net.cpp:406] Eltwise15 <- Convolution32
I0927 10:14:38.968334  3315 net.cpp:380] Eltwise15 -> Eltwise15
I0927 10:14:38.968350  3315 net.cpp:122] Setting up Eltwise15
I0927 10:14:38.968354  3315 net.cpp:129] Top shape: 100 32 14 14 (627200)
I0927 10:14:38.968356  3315 net.cpp:137] Memory required for data: 693370000
I0927 10:14:38.968358  3315 layer_factory.hpp:77] Creating layer penlu31
I0927 10:14:38.968364  3315 net.cpp:84] Creating Layer penlu31
I0927 10:14:38.968365  3315 net.cpp:406] penlu31 <- Eltwise15
I0927 10:14:38.968369  3315 net.cpp:367] penlu31 -> Eltwise15 (in-place)
I0927 10:14:38.968475  3315 net.cpp:122] Setting up penlu31
I0927 10:14:38.968479  3315 net.cpp:129] Top shape: 100 32 14 14 (627200)
I0927 10:14:38.968482  3315 net.cpp:137] Memory required for data: 695878800
I0927 10:14:38.968485  3315 layer_factory.hpp:77] Creating layer Eltwise15_penlu31_0_split
I0927 10:14:38.968489  3315 net.cpp:84] Creating Layer Eltwise15_penlu31_0_split
I0927 10:14:38.968492  3315 net.cpp:406] Eltwise15_penlu31_0_split <- Eltwise15
I0927 10:14:38.968494  3315 net.cpp:380] Eltwise15_penlu31_0_split -> Eltwise15_penlu31_0_split_0
I0927 10:14:38.968498  3315 net.cpp:380] Eltwise15_penlu31_0_split -> Eltwise15_penlu31_0_split_1
I0927 10:14:38.968521  3315 net.cpp:122] Setting up Eltwise15_penlu31_0_split
I0927 10:14:38.968525  3315 net.cpp:129] Top shape: 100 32 14 14 (627200)
I0927 10:14:38.968528  3315 net.cpp:129] Top shape: 100 32 14 14 (627200)
I0927 10:14:38.968529  3315 net.cpp:137] Memory required for data: 700896400
I0927 10:14:38.968531  3315 layer_factory.hpp:77] Creating layer Convolution33
I0927 10:14:38.968538  3315 net.cpp:84] Creating Layer Convolution33
I0927 10:14:38.968540  3315 net.cpp:406] Convolution33 <- Eltwise15_penlu31_0_split_0
I0927 10:14:38.968544  3315 net.cpp:380] Convolution33 -> Convolution33
I0927 10:14:38.969884  3315 net.cpp:122] Setting up Convolution33
I0927 10:14:38.969892  3315 net.cpp:129] Top shape: 100 32 14 14 (627200)
I0927 10:14:38.969894  3315 net.cpp:137] Memory required for data: 703405200
I0927 10:14:38.969900  3315 layer_factory.hpp:77] Creating layer BatchNorm33
I0927 10:14:38.969904  3315 net.cpp:84] Creating Layer BatchNorm33
I0927 10:14:38.969913  3315 net.cpp:406] BatchNorm33 <- Convolution33
I0927 10:14:38.969918  3315 net.cpp:367] BatchNorm33 -> Convolution33 (in-place)
I0927 10:14:38.970057  3315 net.cpp:122] Setting up BatchNorm33
I0927 10:14:38.970060  3315 net.cpp:129] Top shape: 100 32 14 14 (627200)
I0927 10:14:38.970062  3315 net.cpp:137] Memory required for data: 705914000
I0927 10:14:38.970067  3315 layer_factory.hpp:77] Creating layer Scale33
I0927 10:14:38.970072  3315 net.cpp:84] Creating Layer Scale33
I0927 10:14:38.970073  3315 net.cpp:406] Scale33 <- Convolution33
I0927 10:14:38.970077  3315 net.cpp:367] Scale33 -> Convolution33 (in-place)
I0927 10:14:38.970103  3315 layer_factory.hpp:77] Creating layer Scale33
I0927 10:14:38.970181  3315 net.cpp:122] Setting up Scale33
I0927 10:14:38.970186  3315 net.cpp:129] Top shape: 100 32 14 14 (627200)
I0927 10:14:38.970188  3315 net.cpp:137] Memory required for data: 708422800
I0927 10:14:38.970192  3315 layer_factory.hpp:77] Creating layer penlu32
I0927 10:14:38.970196  3315 net.cpp:84] Creating Layer penlu32
I0927 10:14:38.970198  3315 net.cpp:406] penlu32 <- Convolution33
I0927 10:14:38.970203  3315 net.cpp:367] penlu32 -> Convolution33 (in-place)
I0927 10:14:38.970312  3315 net.cpp:122] Setting up penlu32
I0927 10:14:38.970316  3315 net.cpp:129] Top shape: 100 32 14 14 (627200)
I0927 10:14:38.970319  3315 net.cpp:137] Memory required for data: 710931600
I0927 10:14:38.970322  3315 layer_factory.hpp:77] Creating layer Convolution34
I0927 10:14:38.970329  3315 net.cpp:84] Creating Layer Convolution34
I0927 10:14:38.970332  3315 net.cpp:406] Convolution34 <- Convolution33
I0927 10:14:38.970337  3315 net.cpp:380] Convolution34 -> Convolution34
I0927 10:14:38.971405  3315 net.cpp:122] Setting up Convolution34
I0927 10:14:38.971412  3315 net.cpp:129] Top shape: 100 32 14 14 (627200)
I0927 10:14:38.971415  3315 net.cpp:137] Memory required for data: 713440400
I0927 10:14:38.971420  3315 layer_factory.hpp:77] Creating layer BatchNorm34
I0927 10:14:38.971424  3315 net.cpp:84] Creating Layer BatchNorm34
I0927 10:14:38.971427  3315 net.cpp:406] BatchNorm34 <- Convolution34
I0927 10:14:38.971431  3315 net.cpp:367] BatchNorm34 -> Convolution34 (in-place)
I0927 10:14:38.971566  3315 net.cpp:122] Setting up BatchNorm34
I0927 10:14:38.971571  3315 net.cpp:129] Top shape: 100 32 14 14 (627200)
I0927 10:14:38.971573  3315 net.cpp:137] Memory required for data: 715949200
I0927 10:14:38.971577  3315 layer_factory.hpp:77] Creating layer Scale34
I0927 10:14:38.971581  3315 net.cpp:84] Creating Layer Scale34
I0927 10:14:38.971585  3315 net.cpp:406] Scale34 <- Convolution34
I0927 10:14:38.971587  3315 net.cpp:367] Scale34 -> Convolution34 (in-place)
I0927 10:14:38.971614  3315 layer_factory.hpp:77] Creating layer Scale34
I0927 10:14:38.971688  3315 net.cpp:122] Setting up Scale34
I0927 10:14:38.971693  3315 net.cpp:129] Top shape: 100 32 14 14 (627200)
I0927 10:14:38.971695  3315 net.cpp:137] Memory required for data: 718458000
I0927 10:14:38.971699  3315 layer_factory.hpp:77] Creating layer Eltwise16
I0927 10:14:38.971704  3315 net.cpp:84] Creating Layer Eltwise16
I0927 10:14:38.971705  3315 net.cpp:406] Eltwise16 <- Eltwise15_penlu31_0_split_1
I0927 10:14:38.971709  3315 net.cpp:406] Eltwise16 <- Convolution34
I0927 10:14:38.971711  3315 net.cpp:380] Eltwise16 -> Eltwise16
I0927 10:14:38.971729  3315 net.cpp:122] Setting up Eltwise16
I0927 10:14:38.971732  3315 net.cpp:129] Top shape: 100 32 14 14 (627200)
I0927 10:14:38.971735  3315 net.cpp:137] Memory required for data: 720966800
I0927 10:14:38.971736  3315 layer_factory.hpp:77] Creating layer penlu33
I0927 10:14:38.971741  3315 net.cpp:84] Creating Layer penlu33
I0927 10:14:38.971743  3315 net.cpp:406] penlu33 <- Eltwise16
I0927 10:14:38.971746  3315 net.cpp:367] penlu33 -> Eltwise16 (in-place)
I0927 10:14:38.971853  3315 net.cpp:122] Setting up penlu33
I0927 10:14:38.971858  3315 net.cpp:129] Top shape: 100 32 14 14 (627200)
I0927 10:14:38.971859  3315 net.cpp:137] Memory required for data: 723475600
I0927 10:14:38.971871  3315 layer_factory.hpp:77] Creating layer Eltwise16_penlu33_0_split
I0927 10:14:38.971877  3315 net.cpp:84] Creating Layer Eltwise16_penlu33_0_split
I0927 10:14:38.971879  3315 net.cpp:406] Eltwise16_penlu33_0_split <- Eltwise16
I0927 10:14:38.971882  3315 net.cpp:380] Eltwise16_penlu33_0_split -> Eltwise16_penlu33_0_split_0
I0927 10:14:38.971886  3315 net.cpp:380] Eltwise16_penlu33_0_split -> Eltwise16_penlu33_0_split_1
I0927 10:14:38.971910  3315 net.cpp:122] Setting up Eltwise16_penlu33_0_split
I0927 10:14:38.971915  3315 net.cpp:129] Top shape: 100 32 14 14 (627200)
I0927 10:14:38.971917  3315 net.cpp:129] Top shape: 100 32 14 14 (627200)
I0927 10:14:38.971918  3315 net.cpp:137] Memory required for data: 728493200
I0927 10:14:38.971921  3315 layer_factory.hpp:77] Creating layer Convolution35
I0927 10:14:38.971926  3315 net.cpp:84] Creating Layer Convolution35
I0927 10:14:38.971928  3315 net.cpp:406] Convolution35 <- Eltwise16_penlu33_0_split_0
I0927 10:14:38.971933  3315 net.cpp:380] Convolution35 -> Convolution35
I0927 10:14:38.972966  3315 net.cpp:122] Setting up Convolution35
I0927 10:14:38.972975  3315 net.cpp:129] Top shape: 100 32 14 14 (627200)
I0927 10:14:38.972977  3315 net.cpp:137] Memory required for data: 731002000
I0927 10:14:38.972981  3315 layer_factory.hpp:77] Creating layer BatchNorm35
I0927 10:14:38.972986  3315 net.cpp:84] Creating Layer BatchNorm35
I0927 10:14:38.972990  3315 net.cpp:406] BatchNorm35 <- Convolution35
I0927 10:14:38.972993  3315 net.cpp:367] BatchNorm35 -> Convolution35 (in-place)
I0927 10:14:38.973129  3315 net.cpp:122] Setting up BatchNorm35
I0927 10:14:38.973134  3315 net.cpp:129] Top shape: 100 32 14 14 (627200)
I0927 10:14:38.973135  3315 net.cpp:137] Memory required for data: 733510800
I0927 10:14:38.973140  3315 layer_factory.hpp:77] Creating layer Scale35
I0927 10:14:38.973143  3315 net.cpp:84] Creating Layer Scale35
I0927 10:14:38.973145  3315 net.cpp:406] Scale35 <- Convolution35
I0927 10:14:38.973148  3315 net.cpp:367] Scale35 -> Convolution35 (in-place)
I0927 10:14:38.973176  3315 layer_factory.hpp:77] Creating layer Scale35
I0927 10:14:38.973253  3315 net.cpp:122] Setting up Scale35
I0927 10:14:38.973258  3315 net.cpp:129] Top shape: 100 32 14 14 (627200)
I0927 10:14:38.973259  3315 net.cpp:137] Memory required for data: 736019600
I0927 10:14:38.973263  3315 layer_factory.hpp:77] Creating layer penlu34
I0927 10:14:38.973268  3315 net.cpp:84] Creating Layer penlu34
I0927 10:14:38.973270  3315 net.cpp:406] penlu34 <- Convolution35
I0927 10:14:38.973274  3315 net.cpp:367] penlu34 -> Convolution35 (in-place)
I0927 10:14:38.973381  3315 net.cpp:122] Setting up penlu34
I0927 10:14:38.973387  3315 net.cpp:129] Top shape: 100 32 14 14 (627200)
I0927 10:14:38.973388  3315 net.cpp:137] Memory required for data: 738528400
I0927 10:14:38.973392  3315 layer_factory.hpp:77] Creating layer Convolution36
I0927 10:14:38.973399  3315 net.cpp:84] Creating Layer Convolution36
I0927 10:14:38.973402  3315 net.cpp:406] Convolution36 <- Convolution35
I0927 10:14:38.973405  3315 net.cpp:380] Convolution36 -> Convolution36
I0927 10:14:38.974440  3315 net.cpp:122] Setting up Convolution36
I0927 10:14:38.974448  3315 net.cpp:129] Top shape: 100 32 14 14 (627200)
I0927 10:14:38.974452  3315 net.cpp:137] Memory required for data: 741037200
I0927 10:14:38.974455  3315 layer_factory.hpp:77] Creating layer BatchNorm36
I0927 10:14:38.974460  3315 net.cpp:84] Creating Layer BatchNorm36
I0927 10:14:38.974464  3315 net.cpp:406] BatchNorm36 <- Convolution36
I0927 10:14:38.974467  3315 net.cpp:367] BatchNorm36 -> Convolution36 (in-place)
I0927 10:14:38.974627  3315 net.cpp:122] Setting up BatchNorm36
I0927 10:14:38.974632  3315 net.cpp:129] Top shape: 100 32 14 14 (627200)
I0927 10:14:38.974633  3315 net.cpp:137] Memory required for data: 743546000
I0927 10:14:38.974638  3315 layer_factory.hpp:77] Creating layer Scale36
I0927 10:14:38.974643  3315 net.cpp:84] Creating Layer Scale36
I0927 10:14:38.974645  3315 net.cpp:406] Scale36 <- Convolution36
I0927 10:14:38.974648  3315 net.cpp:367] Scale36 -> Convolution36 (in-place)
I0927 10:14:38.974684  3315 layer_factory.hpp:77] Creating layer Scale36
I0927 10:14:38.974761  3315 net.cpp:122] Setting up Scale36
I0927 10:14:38.974766  3315 net.cpp:129] Top shape: 100 32 14 14 (627200)
I0927 10:14:38.974767  3315 net.cpp:137] Memory required for data: 746054800
I0927 10:14:38.974771  3315 layer_factory.hpp:77] Creating layer Eltwise17
I0927 10:14:38.974774  3315 net.cpp:84] Creating Layer Eltwise17
I0927 10:14:38.974777  3315 net.cpp:406] Eltwise17 <- Eltwise16_penlu33_0_split_1
I0927 10:14:38.974781  3315 net.cpp:406] Eltwise17 <- Convolution36
I0927 10:14:38.974784  3315 net.cpp:380] Eltwise17 -> Eltwise17
I0927 10:14:38.974799  3315 net.cpp:122] Setting up Eltwise17
I0927 10:14:38.974802  3315 net.cpp:129] Top shape: 100 32 14 14 (627200)
I0927 10:14:38.974804  3315 net.cpp:137] Memory required for data: 748563600
I0927 10:14:38.974807  3315 layer_factory.hpp:77] Creating layer penlu35
I0927 10:14:38.974812  3315 net.cpp:84] Creating Layer penlu35
I0927 10:14:38.974814  3315 net.cpp:406] penlu35 <- Eltwise17
I0927 10:14:38.974817  3315 net.cpp:367] penlu35 -> Eltwise17 (in-place)
I0927 10:14:38.974921  3315 net.cpp:122] Setting up penlu35
I0927 10:14:38.974926  3315 net.cpp:129] Top shape: 100 32 14 14 (627200)
I0927 10:14:38.974928  3315 net.cpp:137] Memory required for data: 751072400
I0927 10:14:38.974932  3315 layer_factory.hpp:77] Creating layer Eltwise17_penlu35_0_split
I0927 10:14:38.974936  3315 net.cpp:84] Creating Layer Eltwise17_penlu35_0_split
I0927 10:14:38.974938  3315 net.cpp:406] Eltwise17_penlu35_0_split <- Eltwise17
I0927 10:14:38.974942  3315 net.cpp:380] Eltwise17_penlu35_0_split -> Eltwise17_penlu35_0_split_0
I0927 10:14:38.974946  3315 net.cpp:380] Eltwise17_penlu35_0_split -> Eltwise17_penlu35_0_split_1
I0927 10:14:38.974968  3315 net.cpp:122] Setting up Eltwise17_penlu35_0_split
I0927 10:14:38.974972  3315 net.cpp:129] Top shape: 100 32 14 14 (627200)
I0927 10:14:38.974974  3315 net.cpp:129] Top shape: 100 32 14 14 (627200)
I0927 10:14:38.974977  3315 net.cpp:137] Memory required for data: 756090000
I0927 10:14:38.974978  3315 layer_factory.hpp:77] Creating layer Convolution37
I0927 10:14:38.974984  3315 net.cpp:84] Creating Layer Convolution37
I0927 10:14:38.974987  3315 net.cpp:406] Convolution37 <- Eltwise17_penlu35_0_split_0
I0927 10:14:38.974990  3315 net.cpp:380] Convolution37 -> Convolution37
I0927 10:14:38.975703  3315 net.cpp:122] Setting up Convolution37
I0927 10:14:38.975709  3315 net.cpp:129] Top shape: 100 32 14 14 (627200)
I0927 10:14:38.975713  3315 net.cpp:137] Memory required for data: 758598800
I0927 10:14:38.975716  3315 layer_factory.hpp:77] Creating layer BatchNorm37
I0927 10:14:38.975720  3315 net.cpp:84] Creating Layer BatchNorm37
I0927 10:14:38.975723  3315 net.cpp:406] BatchNorm37 <- Convolution37
I0927 10:14:38.975728  3315 net.cpp:367] BatchNorm37 -> Convolution37 (in-place)
I0927 10:14:38.975862  3315 net.cpp:122] Setting up BatchNorm37
I0927 10:14:38.975867  3315 net.cpp:129] Top shape: 100 32 14 14 (627200)
I0927 10:14:38.975868  3315 net.cpp:137] Memory required for data: 761107600
I0927 10:14:38.975873  3315 layer_factory.hpp:77] Creating layer Scale37
I0927 10:14:38.975877  3315 net.cpp:84] Creating Layer Scale37
I0927 10:14:38.975879  3315 net.cpp:406] Scale37 <- Convolution37
I0927 10:14:38.975883  3315 net.cpp:367] Scale37 -> Convolution37 (in-place)
I0927 10:14:38.975908  3315 layer_factory.hpp:77] Creating layer Scale37
I0927 10:14:38.975983  3315 net.cpp:122] Setting up Scale37
I0927 10:14:38.975987  3315 net.cpp:129] Top shape: 100 32 14 14 (627200)
I0927 10:14:38.975989  3315 net.cpp:137] Memory required for data: 763616400
I0927 10:14:38.975993  3315 layer_factory.hpp:77] Creating layer penlu36
I0927 10:14:38.975998  3315 net.cpp:84] Creating Layer penlu36
I0927 10:14:38.976001  3315 net.cpp:406] penlu36 <- Convolution37
I0927 10:14:38.976004  3315 net.cpp:367] penlu36 -> Convolution37 (in-place)
I0927 10:14:38.976110  3315 net.cpp:122] Setting up penlu36
I0927 10:14:38.976115  3315 net.cpp:129] Top shape: 100 32 14 14 (627200)
I0927 10:14:38.976122  3315 net.cpp:137] Memory required for data: 766125200
I0927 10:14:38.976127  3315 layer_factory.hpp:77] Creating layer Convolution38
I0927 10:14:38.976133  3315 net.cpp:84] Creating Layer Convolution38
I0927 10:14:38.976135  3315 net.cpp:406] Convolution38 <- Convolution37
I0927 10:14:38.976140  3315 net.cpp:380] Convolution38 -> Convolution38
I0927 10:14:38.977181  3315 net.cpp:122] Setting up Convolution38
I0927 10:14:38.977190  3315 net.cpp:129] Top shape: 100 32 14 14 (627200)
I0927 10:14:38.977192  3315 net.cpp:137] Memory required for data: 768634000
I0927 10:14:38.977196  3315 layer_factory.hpp:77] Creating layer BatchNorm38
I0927 10:14:38.977202  3315 net.cpp:84] Creating Layer BatchNorm38
I0927 10:14:38.977205  3315 net.cpp:406] BatchNorm38 <- Convolution38
I0927 10:14:38.977208  3315 net.cpp:367] BatchNorm38 -> Convolution38 (in-place)
I0927 10:14:38.977346  3315 net.cpp:122] Setting up BatchNorm38
I0927 10:14:38.977351  3315 net.cpp:129] Top shape: 100 32 14 14 (627200)
I0927 10:14:38.977354  3315 net.cpp:137] Memory required for data: 771142800
I0927 10:14:38.977357  3315 layer_factory.hpp:77] Creating layer Scale38
I0927 10:14:38.977361  3315 net.cpp:84] Creating Layer Scale38
I0927 10:14:38.977365  3315 net.cpp:406] Scale38 <- Convolution38
I0927 10:14:38.977367  3315 net.cpp:367] Scale38 -> Convolution38 (in-place)
I0927 10:14:38.977396  3315 layer_factory.hpp:77] Creating layer Scale38
I0927 10:14:38.977470  3315 net.cpp:122] Setting up Scale38
I0927 10:14:38.977475  3315 net.cpp:129] Top shape: 100 32 14 14 (627200)
I0927 10:14:38.977478  3315 net.cpp:137] Memory required for data: 773651600
I0927 10:14:38.977481  3315 layer_factory.hpp:77] Creating layer Eltwise18
I0927 10:14:38.977485  3315 net.cpp:84] Creating Layer Eltwise18
I0927 10:14:38.977488  3315 net.cpp:406] Eltwise18 <- Eltwise17_penlu35_0_split_1
I0927 10:14:38.977490  3315 net.cpp:406] Eltwise18 <- Convolution38
I0927 10:14:38.977494  3315 net.cpp:380] Eltwise18 -> Eltwise18
I0927 10:14:38.977509  3315 net.cpp:122] Setting up Eltwise18
I0927 10:14:38.977514  3315 net.cpp:129] Top shape: 100 32 14 14 (627200)
I0927 10:14:38.977515  3315 net.cpp:137] Memory required for data: 776160400
I0927 10:14:38.977517  3315 layer_factory.hpp:77] Creating layer penlu37
I0927 10:14:38.977522  3315 net.cpp:84] Creating Layer penlu37
I0927 10:14:38.977525  3315 net.cpp:406] penlu37 <- Eltwise18
I0927 10:14:38.977530  3315 net.cpp:367] penlu37 -> Eltwise18 (in-place)
I0927 10:14:38.977638  3315 net.cpp:122] Setting up penlu37
I0927 10:14:38.977641  3315 net.cpp:129] Top shape: 100 32 14 14 (627200)
I0927 10:14:38.977643  3315 net.cpp:137] Memory required for data: 778669200
I0927 10:14:38.977648  3315 layer_factory.hpp:77] Creating layer Eltwise18_penlu37_0_split
I0927 10:14:38.977653  3315 net.cpp:84] Creating Layer Eltwise18_penlu37_0_split
I0927 10:14:38.977654  3315 net.cpp:406] Eltwise18_penlu37_0_split <- Eltwise18
I0927 10:14:38.977658  3315 net.cpp:380] Eltwise18_penlu37_0_split -> Eltwise18_penlu37_0_split_0
I0927 10:14:38.977661  3315 net.cpp:380] Eltwise18_penlu37_0_split -> Eltwise18_penlu37_0_split_1
I0927 10:14:38.977684  3315 net.cpp:122] Setting up Eltwise18_penlu37_0_split
I0927 10:14:38.977689  3315 net.cpp:129] Top shape: 100 32 14 14 (627200)
I0927 10:14:38.977691  3315 net.cpp:129] Top shape: 100 32 14 14 (627200)
I0927 10:14:38.977694  3315 net.cpp:137] Memory required for data: 783686800
I0927 10:14:38.977695  3315 layer_factory.hpp:77] Creating layer Convolution39
I0927 10:14:38.977700  3315 net.cpp:84] Creating Layer Convolution39
I0927 10:14:38.977704  3315 net.cpp:406] Convolution39 <- Eltwise18_penlu37_0_split_0
I0927 10:14:38.977707  3315 net.cpp:380] Convolution39 -> Convolution39
I0927 10:14:38.978611  3315 net.cpp:122] Setting up Convolution39
I0927 10:14:38.978619  3315 net.cpp:129] Top shape: 100 64 7 7 (313600)
I0927 10:14:38.978622  3315 net.cpp:137] Memory required for data: 784941200
I0927 10:14:38.978626  3315 layer_factory.hpp:77] Creating layer BatchNorm39
I0927 10:14:38.978637  3315 net.cpp:84] Creating Layer BatchNorm39
I0927 10:14:38.978641  3315 net.cpp:406] BatchNorm39 <- Convolution39
I0927 10:14:38.978644  3315 net.cpp:367] BatchNorm39 -> Convolution39 (in-place)
I0927 10:14:38.978778  3315 net.cpp:122] Setting up BatchNorm39
I0927 10:14:38.978782  3315 net.cpp:129] Top shape: 100 64 7 7 (313600)
I0927 10:14:38.978785  3315 net.cpp:137] Memory required for data: 786195600
I0927 10:14:38.978790  3315 layer_factory.hpp:77] Creating layer Scale39
I0927 10:14:38.978793  3315 net.cpp:84] Creating Layer Scale39
I0927 10:14:38.978796  3315 net.cpp:406] Scale39 <- Convolution39
I0927 10:14:38.978798  3315 net.cpp:367] Scale39 -> Convolution39 (in-place)
I0927 10:14:38.978826  3315 layer_factory.hpp:77] Creating layer Scale39
I0927 10:14:38.978902  3315 net.cpp:122] Setting up Scale39
I0927 10:14:38.978907  3315 net.cpp:129] Top shape: 100 64 7 7 (313600)
I0927 10:14:38.978909  3315 net.cpp:137] Memory required for data: 787450000
I0927 10:14:38.978914  3315 layer_factory.hpp:77] Creating layer Convolution40
I0927 10:14:38.978919  3315 net.cpp:84] Creating Layer Convolution40
I0927 10:14:38.978922  3315 net.cpp:406] Convolution40 <- Eltwise18_penlu37_0_split_1
I0927 10:14:38.978926  3315 net.cpp:380] Convolution40 -> Convolution40
I0927 10:14:38.980659  3315 net.cpp:122] Setting up Convolution40
I0927 10:14:38.980667  3315 net.cpp:129] Top shape: 100 64 7 7 (313600)
I0927 10:14:38.980669  3315 net.cpp:137] Memory required for data: 788704400
I0927 10:14:38.980674  3315 layer_factory.hpp:77] Creating layer BatchNorm40
I0927 10:14:38.980679  3315 net.cpp:84] Creating Layer BatchNorm40
I0927 10:14:38.980681  3315 net.cpp:406] BatchNorm40 <- Convolution40
I0927 10:14:38.980686  3315 net.cpp:367] BatchNorm40 -> Convolution40 (in-place)
I0927 10:14:38.980824  3315 net.cpp:122] Setting up BatchNorm40
I0927 10:14:38.980829  3315 net.cpp:129] Top shape: 100 64 7 7 (313600)
I0927 10:14:38.980830  3315 net.cpp:137] Memory required for data: 789958800
I0927 10:14:38.980835  3315 layer_factory.hpp:77] Creating layer Scale40
I0927 10:14:38.980839  3315 net.cpp:84] Creating Layer Scale40
I0927 10:14:38.980841  3315 net.cpp:406] Scale40 <- Convolution40
I0927 10:14:38.980844  3315 net.cpp:367] Scale40 -> Convolution40 (in-place)
I0927 10:14:38.980871  3315 layer_factory.hpp:77] Creating layer Scale40
I0927 10:14:38.980948  3315 net.cpp:122] Setting up Scale40
I0927 10:14:38.980952  3315 net.cpp:129] Top shape: 100 64 7 7 (313600)
I0927 10:14:38.980954  3315 net.cpp:137] Memory required for data: 791213200
I0927 10:14:38.980958  3315 layer_factory.hpp:77] Creating layer penlu38
I0927 10:14:38.980962  3315 net.cpp:84] Creating Layer penlu38
I0927 10:14:38.980965  3315 net.cpp:406] penlu38 <- Convolution40
I0927 10:14:38.980969  3315 net.cpp:367] penlu38 -> Convolution40 (in-place)
I0927 10:14:38.981076  3315 net.cpp:122] Setting up penlu38
I0927 10:14:38.981081  3315 net.cpp:129] Top shape: 100 64 7 7 (313600)
I0927 10:14:38.981082  3315 net.cpp:137] Memory required for data: 792467600
I0927 10:14:38.981086  3315 layer_factory.hpp:77] Creating layer Convolution41
I0927 10:14:38.981092  3315 net.cpp:84] Creating Layer Convolution41
I0927 10:14:38.981096  3315 net.cpp:406] Convolution41 <- Convolution40
I0927 10:14:38.981099  3315 net.cpp:380] Convolution41 -> Convolution41
I0927 10:14:38.983196  3315 net.cpp:122] Setting up Convolution41
I0927 10:14:38.983206  3315 net.cpp:129] Top shape: 100 64 7 7 (313600)
I0927 10:14:38.983208  3315 net.cpp:137] Memory required for data: 793722000
I0927 10:14:38.983213  3315 layer_factory.hpp:77] Creating layer BatchNorm41
I0927 10:14:38.983219  3315 net.cpp:84] Creating Layer BatchNorm41
I0927 10:14:38.983222  3315 net.cpp:406] BatchNorm41 <- Convolution41
I0927 10:14:38.983225  3315 net.cpp:367] BatchNorm41 -> Convolution41 (in-place)
I0927 10:14:38.983383  3315 net.cpp:122] Setting up BatchNorm41
I0927 10:14:38.983392  3315 net.cpp:129] Top shape: 100 64 7 7 (313600)
I0927 10:14:38.983397  3315 net.cpp:137] Memory required for data: 794976400
I0927 10:14:38.983415  3315 layer_factory.hpp:77] Creating layer Scale41
I0927 10:14:38.983425  3315 net.cpp:84] Creating Layer Scale41
I0927 10:14:38.983428  3315 net.cpp:406] Scale41 <- Convolution41
I0927 10:14:38.983433  3315 net.cpp:367] Scale41 -> Convolution41 (in-place)
I0927 10:14:38.983465  3315 layer_factory.hpp:77] Creating layer Scale41
I0927 10:14:38.983566  3315 net.cpp:122] Setting up Scale41
I0927 10:14:38.983575  3315 net.cpp:129] Top shape: 100 64 7 7 (313600)
I0927 10:14:38.983579  3315 net.cpp:137] Memory required for data: 796230800
I0927 10:14:38.983587  3315 layer_factory.hpp:77] Creating layer Eltwise19
I0927 10:14:38.983594  3315 net.cpp:84] Creating Layer Eltwise19
I0927 10:14:38.983599  3315 net.cpp:406] Eltwise19 <- Convolution39
I0927 10:14:38.983603  3315 net.cpp:406] Eltwise19 <- Convolution41
I0927 10:14:38.983608  3315 net.cpp:380] Eltwise19 -> Eltwise19
I0927 10:14:38.983628  3315 net.cpp:122] Setting up Eltwise19
I0927 10:14:38.983633  3315 net.cpp:129] Top shape: 100 64 7 7 (313600)
I0927 10:14:38.983634  3315 net.cpp:137] Memory required for data: 797485200
I0927 10:14:38.983636  3315 layer_factory.hpp:77] Creating layer penlu39
I0927 10:14:38.983642  3315 net.cpp:84] Creating Layer penlu39
I0927 10:14:38.983645  3315 net.cpp:406] penlu39 <- Eltwise19
I0927 10:14:38.983649  3315 net.cpp:367] penlu39 -> Eltwise19 (in-place)
I0927 10:14:38.983773  3315 net.cpp:122] Setting up penlu39
I0927 10:14:38.983777  3315 net.cpp:129] Top shape: 100 64 7 7 (313600)
I0927 10:14:38.983779  3315 net.cpp:137] Memory required for data: 798739600
I0927 10:14:38.983784  3315 layer_factory.hpp:77] Creating layer Eltwise19_penlu39_0_split
I0927 10:14:38.983788  3315 net.cpp:84] Creating Layer Eltwise19_penlu39_0_split
I0927 10:14:38.983790  3315 net.cpp:406] Eltwise19_penlu39_0_split <- Eltwise19
I0927 10:14:38.983793  3315 net.cpp:380] Eltwise19_penlu39_0_split -> Eltwise19_penlu39_0_split_0
I0927 10:14:38.983798  3315 net.cpp:380] Eltwise19_penlu39_0_split -> Eltwise19_penlu39_0_split_1
I0927 10:14:38.983821  3315 net.cpp:122] Setting up Eltwise19_penlu39_0_split
I0927 10:14:38.983825  3315 net.cpp:129] Top shape: 100 64 7 7 (313600)
I0927 10:14:38.983827  3315 net.cpp:129] Top shape: 100 64 7 7 (313600)
I0927 10:14:38.983829  3315 net.cpp:137] Memory required for data: 801248400
I0927 10:14:38.983832  3315 layer_factory.hpp:77] Creating layer Convolution42
I0927 10:14:38.983839  3315 net.cpp:84] Creating Layer Convolution42
I0927 10:14:38.983841  3315 net.cpp:406] Convolution42 <- Eltwise19_penlu39_0_split_0
I0927 10:14:38.983845  3315 net.cpp:380] Convolution42 -> Convolution42
I0927 10:14:38.985611  3315 net.cpp:122] Setting up Convolution42
I0927 10:14:38.985620  3315 net.cpp:129] Top shape: 100 64 7 7 (313600)
I0927 10:14:38.985623  3315 net.cpp:137] Memory required for data: 802502800
I0927 10:14:38.985627  3315 layer_factory.hpp:77] Creating layer BatchNorm42
I0927 10:14:38.985632  3315 net.cpp:84] Creating Layer BatchNorm42
I0927 10:14:38.985635  3315 net.cpp:406] BatchNorm42 <- Convolution42
I0927 10:14:38.985640  3315 net.cpp:367] BatchNorm42 -> Convolution42 (in-place)
I0927 10:14:38.985780  3315 net.cpp:122] Setting up BatchNorm42
I0927 10:14:38.985785  3315 net.cpp:129] Top shape: 100 64 7 7 (313600)
I0927 10:14:38.985787  3315 net.cpp:137] Memory required for data: 803757200
I0927 10:14:38.985791  3315 layer_factory.hpp:77] Creating layer Scale42
I0927 10:14:38.985796  3315 net.cpp:84] Creating Layer Scale42
I0927 10:14:38.985800  3315 net.cpp:406] Scale42 <- Convolution42
I0927 10:14:38.985802  3315 net.cpp:367] Scale42 -> Convolution42 (in-place)
I0927 10:14:38.985831  3315 layer_factory.hpp:77] Creating layer Scale42
I0927 10:14:38.985911  3315 net.cpp:122] Setting up Scale42
I0927 10:14:38.985916  3315 net.cpp:129] Top shape: 100 64 7 7 (313600)
I0927 10:14:38.985918  3315 net.cpp:137] Memory required for data: 805011600
I0927 10:14:38.985922  3315 layer_factory.hpp:77] Creating layer penlu40
I0927 10:14:38.985927  3315 net.cpp:84] Creating Layer penlu40
I0927 10:14:38.985930  3315 net.cpp:406] penlu40 <- Convolution42
I0927 10:14:38.985940  3315 net.cpp:367] penlu40 -> Convolution42 (in-place)
I0927 10:14:38.986055  3315 net.cpp:122] Setting up penlu40
I0927 10:14:38.986059  3315 net.cpp:129] Top shape: 100 64 7 7 (313600)
I0927 10:14:38.986062  3315 net.cpp:137] Memory required for data: 806266000
I0927 10:14:38.986066  3315 layer_factory.hpp:77] Creating layer Convolution43
I0927 10:14:38.986073  3315 net.cpp:84] Creating Layer Convolution43
I0927 10:14:38.986075  3315 net.cpp:406] Convolution43 <- Convolution42
I0927 10:14:38.986079  3315 net.cpp:380] Convolution43 -> Convolution43
I0927 10:14:38.988389  3315 net.cpp:122] Setting up Convolution43
I0927 10:14:38.988399  3315 net.cpp:129] Top shape: 100 64 7 7 (313600)
I0927 10:14:38.988400  3315 net.cpp:137] Memory required for data: 807520400
I0927 10:14:38.988405  3315 layer_factory.hpp:77] Creating layer BatchNorm43
I0927 10:14:38.988410  3315 net.cpp:84] Creating Layer BatchNorm43
I0927 10:14:38.988414  3315 net.cpp:406] BatchNorm43 <- Convolution43
I0927 10:14:38.988417  3315 net.cpp:367] BatchNorm43 -> Convolution43 (in-place)
I0927 10:14:38.988560  3315 net.cpp:122] Setting up BatchNorm43
I0927 10:14:38.988564  3315 net.cpp:129] Top shape: 100 64 7 7 (313600)
I0927 10:14:38.988566  3315 net.cpp:137] Memory required for data: 808774800
I0927 10:14:38.988571  3315 layer_factory.hpp:77] Creating layer Scale43
I0927 10:14:38.988575  3315 net.cpp:84] Creating Layer Scale43
I0927 10:14:38.988579  3315 net.cpp:406] Scale43 <- Convolution43
I0927 10:14:38.988581  3315 net.cpp:367] Scale43 -> Convolution43 (in-place)
I0927 10:14:38.988610  3315 layer_factory.hpp:77] Creating layer Scale43
I0927 10:14:38.988690  3315 net.cpp:122] Setting up Scale43
I0927 10:14:38.988694  3315 net.cpp:129] Top shape: 100 64 7 7 (313600)
I0927 10:14:38.988696  3315 net.cpp:137] Memory required for data: 810029200
I0927 10:14:38.988700  3315 layer_factory.hpp:77] Creating layer Eltwise20
I0927 10:14:38.988704  3315 net.cpp:84] Creating Layer Eltwise20
I0927 10:14:38.988706  3315 net.cpp:406] Eltwise20 <- Eltwise19_penlu39_0_split_1
I0927 10:14:38.988709  3315 net.cpp:406] Eltwise20 <- Convolution43
I0927 10:14:38.988713  3315 net.cpp:380] Eltwise20 -> Eltwise20
I0927 10:14:38.988729  3315 net.cpp:122] Setting up Eltwise20
I0927 10:14:38.988734  3315 net.cpp:129] Top shape: 100 64 7 7 (313600)
I0927 10:14:38.988735  3315 net.cpp:137] Memory required for data: 811283600
I0927 10:14:38.988737  3315 layer_factory.hpp:77] Creating layer penlu41
I0927 10:14:38.988744  3315 net.cpp:84] Creating Layer penlu41
I0927 10:14:38.988745  3315 net.cpp:406] penlu41 <- Eltwise20
I0927 10:14:38.988749  3315 net.cpp:367] penlu41 -> Eltwise20 (in-place)
I0927 10:14:38.988862  3315 net.cpp:122] Setting up penlu41
I0927 10:14:38.988865  3315 net.cpp:129] Top shape: 100 64 7 7 (313600)
I0927 10:14:38.988867  3315 net.cpp:137] Memory required for data: 812538000
I0927 10:14:38.988871  3315 layer_factory.hpp:77] Creating layer Eltwise20_penlu41_0_split
I0927 10:14:38.988874  3315 net.cpp:84] Creating Layer Eltwise20_penlu41_0_split
I0927 10:14:38.988878  3315 net.cpp:406] Eltwise20_penlu41_0_split <- Eltwise20
I0927 10:14:38.988881  3315 net.cpp:380] Eltwise20_penlu41_0_split -> Eltwise20_penlu41_0_split_0
I0927 10:14:38.988885  3315 net.cpp:380] Eltwise20_penlu41_0_split -> Eltwise20_penlu41_0_split_1
I0927 10:14:38.988909  3315 net.cpp:122] Setting up Eltwise20_penlu41_0_split
I0927 10:14:38.988911  3315 net.cpp:129] Top shape: 100 64 7 7 (313600)
I0927 10:14:38.988914  3315 net.cpp:129] Top shape: 100 64 7 7 (313600)
I0927 10:14:38.988916  3315 net.cpp:137] Memory required for data: 815046800
I0927 10:14:38.988919  3315 layer_factory.hpp:77] Creating layer Convolution44
I0927 10:14:38.988924  3315 net.cpp:84] Creating Layer Convolution44
I0927 10:14:38.988927  3315 net.cpp:406] Convolution44 <- Eltwise20_penlu41_0_split_0
I0927 10:14:38.988931  3315 net.cpp:380] Convolution44 -> Convolution44
I0927 10:14:38.990605  3315 net.cpp:122] Setting up Convolution44
I0927 10:14:38.990613  3315 net.cpp:129] Top shape: 100 64 7 7 (313600)
I0927 10:14:38.990624  3315 net.cpp:137] Memory required for data: 816301200
I0927 10:14:38.990629  3315 layer_factory.hpp:77] Creating layer BatchNorm44
I0927 10:14:38.990635  3315 net.cpp:84] Creating Layer BatchNorm44
I0927 10:14:38.990638  3315 net.cpp:406] BatchNorm44 <- Convolution44
I0927 10:14:38.990643  3315 net.cpp:367] BatchNorm44 -> Convolution44 (in-place)
I0927 10:14:38.990780  3315 net.cpp:122] Setting up BatchNorm44
I0927 10:14:38.990785  3315 net.cpp:129] Top shape: 100 64 7 7 (313600)
I0927 10:14:38.990787  3315 net.cpp:137] Memory required for data: 817555600
I0927 10:14:38.990792  3315 layer_factory.hpp:77] Creating layer Scale44
I0927 10:14:38.990798  3315 net.cpp:84] Creating Layer Scale44
I0927 10:14:38.990800  3315 net.cpp:406] Scale44 <- Convolution44
I0927 10:14:38.990803  3315 net.cpp:367] Scale44 -> Convolution44 (in-place)
I0927 10:14:38.990833  3315 layer_factory.hpp:77] Creating layer Scale44
I0927 10:14:38.990912  3315 net.cpp:122] Setting up Scale44
I0927 10:14:38.990916  3315 net.cpp:129] Top shape: 100 64 7 7 (313600)
I0927 10:14:38.990918  3315 net.cpp:137] Memory required for data: 818810000
I0927 10:14:38.990922  3315 layer_factory.hpp:77] Creating layer penlu42
I0927 10:14:38.990928  3315 net.cpp:84] Creating Layer penlu42
I0927 10:14:38.990931  3315 net.cpp:406] penlu42 <- Convolution44
I0927 10:14:38.990933  3315 net.cpp:367] penlu42 -> Convolution44 (in-place)
I0927 10:14:38.991044  3315 net.cpp:122] Setting up penlu42
I0927 10:14:38.991048  3315 net.cpp:129] Top shape: 100 64 7 7 (313600)
I0927 10:14:38.991050  3315 net.cpp:137] Memory required for data: 820064400
I0927 10:14:38.991055  3315 layer_factory.hpp:77] Creating layer Convolution45
I0927 10:14:38.991061  3315 net.cpp:84] Creating Layer Convolution45
I0927 10:14:38.991065  3315 net.cpp:406] Convolution45 <- Convolution44
I0927 10:14:38.991067  3315 net.cpp:380] Convolution45 -> Convolution45
I0927 10:14:38.993010  3315 net.cpp:122] Setting up Convolution45
I0927 10:14:38.993019  3315 net.cpp:129] Top shape: 100 64 7 7 (313600)
I0927 10:14:38.993021  3315 net.cpp:137] Memory required for data: 821318800
I0927 10:14:38.993026  3315 layer_factory.hpp:77] Creating layer BatchNorm45
I0927 10:14:38.993031  3315 net.cpp:84] Creating Layer BatchNorm45
I0927 10:14:38.993032  3315 net.cpp:406] BatchNorm45 <- Convolution45
I0927 10:14:38.993037  3315 net.cpp:367] BatchNorm45 -> Convolution45 (in-place)
I0927 10:14:38.993180  3315 net.cpp:122] Setting up BatchNorm45
I0927 10:14:38.993185  3315 net.cpp:129] Top shape: 100 64 7 7 (313600)
I0927 10:14:38.993186  3315 net.cpp:137] Memory required for data: 822573200
I0927 10:14:38.993191  3315 layer_factory.hpp:77] Creating layer Scale45
I0927 10:14:38.993196  3315 net.cpp:84] Creating Layer Scale45
I0927 10:14:38.993197  3315 net.cpp:406] Scale45 <- Convolution45
I0927 10:14:38.993201  3315 net.cpp:367] Scale45 -> Convolution45 (in-place)
I0927 10:14:38.993228  3315 layer_factory.hpp:77] Creating layer Scale45
I0927 10:14:38.993309  3315 net.cpp:122] Setting up Scale45
I0927 10:14:38.993314  3315 net.cpp:129] Top shape: 100 64 7 7 (313600)
I0927 10:14:38.993315  3315 net.cpp:137] Memory required for data: 823827600
I0927 10:14:38.993319  3315 layer_factory.hpp:77] Creating layer Eltwise21
I0927 10:14:38.993324  3315 net.cpp:84] Creating Layer Eltwise21
I0927 10:14:38.993325  3315 net.cpp:406] Eltwise21 <- Eltwise20_penlu41_0_split_1
I0927 10:14:38.993329  3315 net.cpp:406] Eltwise21 <- Convolution45
I0927 10:14:38.993332  3315 net.cpp:380] Eltwise21 -> Eltwise21
I0927 10:14:38.993350  3315 net.cpp:122] Setting up Eltwise21
…
I0927 10:14:39.354003  3315 net.cpp:137] Memory required for data: 1030145200
I0927 10:14:39.354007  3315 layer_factory.hpp:77] Creating layer BatchNorm40
I0927 10:14:39.354013  3315 net.cpp:84] Creating Layer BatchNorm40
I0927 10:14:39.354017  3315 net.cpp:406] BatchNorm40 <- Convolution40
I0927 10:14:39.354020  3315 net.cpp:367] BatchNorm40 -> Convolution40 (in-place)
I0927 10:14:39.354161  3315 net.cpp:122] Setting up BatchNorm40
I0927 10:14:39.354166  3315 net.cpp:129] Top shape: 100 64 8 8 (409600)
I0927 10:14:39.354168  3315 net.cpp:137] Memory required for data: 1031783600
I0927 10:14:39.354173  3315 layer_factory.hpp:77] Creating layer Scale40
I0927 10:14:39.354177  3315 net.cpp:84] Creating Layer Scale40
I0927 10:14:39.354180  3315 net.cpp:406] Scale40 <- Convolution40
I0927 10:14:39.354183  3315 net.cpp:367] Scale40 -> Convolution40 (in-place)
I0927 10:14:39.354212  3315 layer_factory.hpp:77] Creating layer Scale40
I0927 10:14:39.354316  3315 net.cpp:122] Setting up Scale40
I0927 10:14:39.354322  3315 net.cpp:129] Top shape: 100 64 8 8 (409600)
I0927 10:14:39.354324  3315 net.cpp:137] Memory required for data: 1033422000
I0927 10:14:39.354329  3315 layer_factory.hpp:77] Creating layer penlu38
I0927 10:14:39.354334  3315 net.cpp:84] Creating Layer penlu38
I0927 10:14:39.354336  3315 net.cpp:406] penlu38 <- Convolution40
I0927 10:14:39.354341  3315 net.cpp:367] penlu38 -> Convolution40 (in-place)
I0927 10:14:39.354461  3315 net.cpp:122] Setting up penlu38
I0927 10:14:39.354466  3315 net.cpp:129] Top shape: 100 64 8 8 (409600)
I0927 10:14:39.354468  3315 net.cpp:137] Memory required for data: 1035060400
I0927 10:14:39.354472  3315 layer_factory.hpp:77] Creating layer Convolution41
I0927 10:14:39.354480  3315 net.cpp:84] Creating Layer Convolution41
I0927 10:14:39.354482  3315 net.cpp:406] Convolution41 <- Convolution40
I0927 10:14:39.354486  3315 net.cpp:380] Convolution41 -> Convolution41
I0927 10:14:39.356250  3315 net.cpp:122] Setting up Convolution41
I0927 10:14:39.356259  3315 net.cpp:129] Top shape: 100 64 8 8 (409600)
I0927 10:14:39.356261  3315 net.cpp:137] Memory required for data: 1036698800
I0927 10:14:39.356266  3315 layer_factory.hpp:77] Creating layer BatchNorm41
I0927 10:14:39.356271  3315 net.cpp:84] Creating Layer BatchNorm41
I0927 10:14:39.356274  3315 net.cpp:406] BatchNorm41 <- Convolution41
I0927 10:14:39.356286  3315 net.cpp:367] BatchNorm41 -> Convolution41 (in-place)
I0927 10:14:39.356422  3315 net.cpp:122] Setting up BatchNorm41
I0927 10:14:39.356427  3315 net.cpp:129] Top shape: 100 64 8 8 (409600)
I0927 10:14:39.356429  3315 net.cpp:137] Memory required for data: 1038337200
I0927 10:14:39.356434  3315 layer_factory.hpp:77] Creating layer Scale41
I0927 10:14:39.356438  3315 net.cpp:84] Creating Layer Scale41
I0927 10:14:39.356441  3315 net.cpp:406] Scale41 <- Convolution41
I0927 10:14:39.356444  3315 net.cpp:367] Scale41 -> Convolution41 (in-place)
I0927 10:14:39.356473  3315 layer_factory.hpp:77] Creating layer Scale41
I0927 10:14:39.356552  3315 net.cpp:122] Setting up Scale41
I0927 10:14:39.356557  3315 net.cpp:129] Top shape: 100 64 8 8 (409600)
I0927 10:14:39.356559  3315 net.cpp:137] Memory required for data: 1039975600
I0927 10:14:39.356564  3315 layer_factory.hpp:77] Creating layer Eltwise19
I0927 10:14:39.356567  3315 net.cpp:84] Creating Layer Eltwise19
I0927 10:14:39.356570  3315 net.cpp:406] Eltwise19 <- Convolution39
I0927 10:14:39.356573  3315 net.cpp:406] Eltwise19 <- Convolution41
I0927 10:14:39.356576  3315 net.cpp:380] Eltwise19 -> Eltwise19
I0927 10:14:39.356593  3315 net.cpp:122] Setting up Eltwise19
I0927 10:14:39.356597  3315 net.cpp:129] Top shape: 100 64 8 8 (409600)
I0927 10:14:39.356600  3315 net.cpp:137] Memory required for data: 1041614000
I0927 10:14:39.356601  3315 layer_factory.hpp:77] Creating layer penlu39
I0927 10:14:39.356606  3315 net.cpp:84] Creating Layer penlu39
I0927 10:14:39.356609  3315 net.cpp:406] penlu39 <- Eltwise19
I0927 10:14:39.356612  3315 net.cpp:367] penlu39 -> Eltwise19 (in-place)
I0927 10:14:39.356729  3315 net.cpp:122] Setting up penlu39
I0927 10:14:39.356734  3315 net.cpp:129] Top shape: 100 64 8 8 (409600)
I0927 10:14:39.356735  3315 net.cpp:137] Memory required for data: 1043252400
I0927 10:14:39.356740  3315 layer_factory.hpp:77] Creating layer Eltwise19_penlu39_0_split
I0927 10:14:39.356745  3315 net.cpp:84] Creating Layer Eltwise19_penlu39_0_split
I0927 10:14:39.356746  3315 net.cpp:406] Eltwise19_penlu39_0_split <- Eltwise19
I0927 10:14:39.356750  3315 net.cpp:380] Eltwise19_penlu39_0_split -> Eltwise19_penlu39_0_split_0
I0927 10:14:39.356755  3315 net.cpp:380] Eltwise19_penlu39_0_split -> Eltwise19_penlu39_0_split_1
I0927 10:14:39.356778  3315 net.cpp:122] Setting up Eltwise19_penlu39_0_split
I0927 10:14:39.356783  3315 net.cpp:129] Top shape: 100 64 8 8 (409600)
I0927 10:14:39.356786  3315 net.cpp:129] Top shape: 100 64 8 8 (409600)
I0927 10:14:39.356788  3315 net.cpp:137] Memory required for data: 1046529200
I0927 10:14:39.356791  3315 layer_factory.hpp:77] Creating layer Convolution42
I0927 10:14:39.356796  3315 net.cpp:84] Creating Layer Convolution42
I0927 10:14:39.356798  3315 net.cpp:406] Convolution42 <- Eltwise19_penlu39_0_split_0
I0927 10:14:39.356802  3315 net.cpp:380] Convolution42 -> Convolution42
I0927 10:14:39.358542  3315 net.cpp:122] Setting up Convolution42
I0927 10:14:39.358551  3315 net.cpp:129] Top shape: 100 64 8 8 (409600)
I0927 10:14:39.358554  3315 net.cpp:137] Memory required for data: 1048167600
I0927 10:14:39.358568  3315 layer_factory.hpp:77] Creating layer BatchNorm42
I0927 10:14:39.358574  3315 net.cpp:84] Creating Layer BatchNorm42
I0927 10:14:39.358577  3315 net.cpp:406] BatchNorm42 <- Convolution42
I0927 10:14:39.358580  3315 net.cpp:367] BatchNorm42 -> Convolution42 (in-place)
I0927 10:14:39.358718  3315 net.cpp:122] Setting up BatchNorm42
I0927 10:14:39.358722  3315 net.cpp:129] Top shape: 100 64 8 8 (409600)
I0927 10:14:39.358726  3315 net.cpp:137] Memory required for data: 1049806000
I0927 10:14:39.358729  3315 layer_factory.hpp:77] Creating layer Scale42
I0927 10:14:39.358734  3315 net.cpp:84] Creating Layer Scale42
I0927 10:14:39.358736  3315 net.cpp:406] Scale42 <- Convolution42
I0927 10:14:39.358741  3315 net.cpp:367] Scale42 -> Convolution42 (in-place)
I0927 10:14:39.358767  3315 layer_factory.hpp:77] Creating layer Scale42
I0927 10:14:39.358847  3315 net.cpp:122] Setting up Scale42
I0927 10:14:39.358858  3315 net.cpp:129] Top shape: 100 64 8 8 (409600)
I0927 10:14:39.358860  3315 net.cpp:137] Memory required for data: 1051444400
I0927 10:14:39.358865  3315 layer_factory.hpp:77] Creating layer penlu40
I0927 10:14:39.358870  3315 net.cpp:84] Creating Layer penlu40
I0927 10:14:39.358872  3315 net.cpp:406] penlu40 <- Convolution42
I0927 10:14:39.358876  3315 net.cpp:367] penlu40 -> Convolution42 (in-place)
I0927 10:14:39.358994  3315 net.cpp:122] Setting up penlu40
I0927 10:14:39.358997  3315 net.cpp:129] Top shape: 100 64 8 8 (409600)
I0927 10:14:39.358999  3315 net.cpp:137] Memory required for data: 1053082800
I0927 10:14:39.359004  3315 layer_factory.hpp:77] Creating layer Convolution43
I0927 10:14:39.359011  3315 net.cpp:84] Creating Layer Convolution43
I0927 10:14:39.359014  3315 net.cpp:406] Convolution43 <- Convolution42
I0927 10:14:39.359019  3315 net.cpp:380] Convolution43 -> Convolution43
I0927 10:14:39.360779  3315 net.cpp:122] Setting up Convolution43
I0927 10:14:39.360787  3315 net.cpp:129] Top shape: 100 64 8 8 (409600)
I0927 10:14:39.360790  3315 net.cpp:137] Memory required for data: 1054721200
I0927 10:14:39.360795  3315 layer_factory.hpp:77] Creating layer BatchNorm43
I0927 10:14:39.360800  3315 net.cpp:84] Creating Layer BatchNorm43
I0927 10:14:39.360802  3315 net.cpp:406] BatchNorm43 <- Convolution43
I0927 10:14:39.360807  3315 net.cpp:367] BatchNorm43 -> Convolution43 (in-place)
I0927 10:14:39.360944  3315 net.cpp:122] Setting up BatchNorm43
I0927 10:14:39.360949  3315 net.cpp:129] Top shape: 100 64 8 8 (409600)
I0927 10:14:39.360951  3315 net.cpp:137] Memory required for data: 1056359600
I0927 10:14:39.360956  3315 layer_factory.hpp:77] Creating layer Scale43
I0927 10:14:39.360961  3315 net.cpp:84] Creating Layer Scale43
I0927 10:14:39.360963  3315 net.cpp:406] Scale43 <- Convolution43
I0927 10:14:39.360967  3315 net.cpp:367] Scale43 -> Convolution43 (in-place)
I0927 10:14:39.360994  3315 layer_factory.hpp:77] Creating layer Scale43
I0927 10:14:39.361074  3315 net.cpp:122] Setting up Scale43
I0927 10:14:39.361079  3315 net.cpp:129] Top shape: 100 64 8 8 (409600)
I0927 10:14:39.361081  3315 net.cpp:137] Memory required for data: 1057998000
I0927 10:14:39.361084  3315 layer_factory.hpp:77] Creating layer Eltwise20
I0927 10:14:39.361090  3315 net.cpp:84] Creating Layer Eltwise20
I0927 10:14:39.361093  3315 net.cpp:406] Eltwise20 <- Eltwise19_penlu39_0_split_1
I0927 10:14:39.361096  3315 net.cpp:406] Eltwise20 <- Convolution43
I0927 10:14:39.361100  3315 net.cpp:380] Eltwise20 -> Eltwise20
I0927 10:14:39.361116  3315 net.cpp:122] Setting up Eltwise20
I0927 10:14:39.361120  3315 net.cpp:129] Top shape: 100 64 8 8 (409600)
I0927 10:14:39.361122  3315 net.cpp:137] Memory required for data: 1059636400
I0927 10:14:39.361124  3315 layer_factory.hpp:77] Creating layer penlu41
I0927 10:14:39.361129  3315 net.cpp:84] Creating Layer penlu41
I0927 10:14:39.361132  3315 net.cpp:406] penlu41 <- Eltwise20
I0927 10:14:39.361135  3315 net.cpp:367] penlu41 -> Eltwise20 (in-place)
I0927 10:14:39.361250  3315 net.cpp:122] Setting up penlu41
I0927 10:14:39.361255  3315 net.cpp:129] Top shape: 100 64 8 8 (409600)
I0927 10:14:39.361258  3315 net.cpp:137] Memory required for data: 1061274800
I0927 10:14:39.361261  3315 layer_factory.hpp:77] Creating layer Eltwise20_penlu41_0_split
I0927 10:14:39.361265  3315 net.cpp:84] Creating Layer Eltwise20_penlu41_0_split
I0927 10:14:39.361268  3315 net.cpp:406] Eltwise20_penlu41_0_split <- Eltwise20
I0927 10:14:39.361271  3315 net.cpp:380] Eltwise20_penlu41_0_split -> Eltwise20_penlu41_0_split_0
I0927 10:14:39.361276  3315 net.cpp:380] Eltwise20_penlu41_0_split -> Eltwise20_penlu41_0_split_1
I0927 10:14:39.361299  3315 net.cpp:122] Setting up Eltwise20_penlu41_0_split
I0927 10:14:39.361304  3315 net.cpp:129] Top shape: 100 64 8 8 (409600)
I0927 10:14:39.361306  3315 net.cpp:129] Top shape: 100 64 8 8 (409600)
I0927 10:14:39.361308  3315 net.cpp:137] Memory required for data: 1064551600
I0927 10:14:39.361310  3315 layer_factory.hpp:77] Creating layer Convolution44
I0927 10:14:39.361323  3315 net.cpp:84] Creating Layer Convolution44
I0927 10:14:39.361326  3315 net.cpp:406] Convolution44 <- Eltwise20_penlu41_0_split_0
I0927 10:14:39.361330  3315 net.cpp:380] Convolution44 -> Convolution44
I0927 10:14:39.363405  3315 net.cpp:122] Setting up Convolution44
I0927 10:14:39.363415  3315 net.cpp:129] Top shape: 100 64 8 8 (409600)
I0927 10:14:39.363416  3315 net.cpp:137] Memory required for data: 1066190000
I0927 10:14:39.363430  3315 layer_factory.hpp:77] Creating layer BatchNorm44
I0927 10:14:39.363435  3315 net.cpp:84] Creating Layer BatchNorm44
I0927 10:14:39.363437  3315 net.cpp:406] BatchNorm44 <- Convolution44
I0927 10:14:39.363441  3315 net.cpp:367] BatchNorm44 -> Convolution44 (in-place)
I0927 10:14:39.363590  3315 net.cpp:122] Setting up BatchNorm44
I0927 10:14:39.363595  3315 net.cpp:129] Top shape: 100 64 8 8 (409600)
I0927 10:14:39.363597  3315 net.cpp:137] Memory required for data: 1067828400
I0927 10:14:39.363602  3315 layer_factory.hpp:77] Creating layer Scale44
I0927 10:14:39.363606  3315 net.cpp:84] Creating Layer Scale44
I0927 10:14:39.363608  3315 net.cpp:406] Scale44 <- Convolution44
I0927 10:14:39.363613  3315 net.cpp:367] Scale44 -> Convolution44 (in-place)
I0927 10:14:39.363641  3315 layer_factory.hpp:77] Creating layer Scale44
I0927 10:14:39.363723  3315 net.cpp:122] Setting up Scale44
I0927 10:14:39.363729  3315 net.cpp:129] Top shape: 100 64 8 8 (409600)
I0927 10:14:39.363730  3315 net.cpp:137] Memory required for data: 1069466800
I0927 10:14:39.363734  3315 layer_factory.hpp:77] Creating layer penlu42
I0927 10:14:39.363740  3315 net.cpp:84] Creating Layer penlu42
I0927 10:14:39.363742  3315 net.cpp:406] penlu42 <- Convolution44
I0927 10:14:39.363747  3315 net.cpp:367] penlu42 -> Convolution44 (in-place)
I0927 10:14:39.363864  3315 net.cpp:122] Setting up penlu42
I0927 10:14:39.363870  3315 net.cpp:129] Top shape: 100 64 8 8 (409600)
I0927 10:14:39.363873  3315 net.cpp:137] Memory required for data: 1071105200
I0927 10:14:39.363876  3315 layer_factory.hpp:77] Creating layer Convolution45
I0927 10:14:39.363883  3315 net.cpp:84] Creating Layer Convolution45
I0927 10:14:39.363885  3315 net.cpp:406] Convolution45 <- Convolution44
I0927 10:14:39.363890  3315 net.cpp:380] Convolution45 -> Convolution45
I0927 10:14:39.365653  3315 net.cpp:122] Setting up Convolution45
I0927 10:14:39.365662  3315 net.cpp:129] Top shape: 100 64 8 8 (409600)
I0927 10:14:39.365664  3315 net.cpp:137] Memory required for data: 1072743600
I0927 10:14:39.365669  3315 layer_factory.hpp:77] Creating layer BatchNorm45
I0927 10:14:39.365674  3315 net.cpp:84] Creating Layer BatchNorm45
I0927 10:14:39.365677  3315 net.cpp:406] BatchNorm45 <- Convolution45
I0927 10:14:39.365681  3315 net.cpp:367] BatchNorm45 -> Convolution45 (in-place)
I0927 10:14:39.365820  3315 net.cpp:122] Setting up BatchNorm45
I0927 10:14:39.365825  3315 net.cpp:129] Top shape: 100 64 8 8 (409600)
I0927 10:14:39.365828  3315 net.cpp:137] Memory required for data: 1074382000
I0927 10:14:39.365833  3315 layer_factory.hpp:77] Creating layer Scale45
I0927 10:14:39.365836  3315 net.cpp:84] Creating Layer Scale45
I0927 10:14:39.365839  3315 net.cpp:406] Scale45 <- Convolution45
I0927 10:14:39.365841  3315 net.cpp:367] Scale45 -> Convolution45 (in-place)
I0927 10:14:39.365870  3315 layer_factory.hpp:77] Creating layer Scale45
I0927 10:14:39.365949  3315 net.cpp:122] Setting up Scale45
I0927 10:14:39.365954  3315 net.cpp:129] Top shape: 100 64 8 8 (409600)
I0927 10:14:39.365957  3315 net.cpp:137] Memory required for data: 1076020400
I0927 10:14:39.365960  3315 layer_factory.hpp:77] Creating layer Eltwise21
I0927 10:14:39.365964  3315 net.cpp:84] Creating Layer Eltwise21
I0927 10:14:39.365967  3315 net.cpp:406] Eltwise21 <- Eltwise20_penlu41_0_split_1
I0927 10:14:39.365969  3315 net.cpp:406] Eltwise21 <- Convolution45
I0927 10:14:39.365973  3315 net.cpp:380] Eltwise21 -> Eltwise21
I0927 10:14:39.365990  3315 net.cpp:122] Setting up Eltwise21
I0927 10:14:39.365994  3315 net.cpp:129] Top shape: 100 64 8 8 (409600)
I0927 10:14:39.365996  3315 net.cpp:137] Memory required for data: 1077658800
I0927 10:14:39.366004  3315 layer_factory.hpp:77] Creating layer penlu43
I0927 10:14:39.366010  3315 net.cpp:84] Creating Layer penlu43
I0927 10:14:39.366014  3315 net.cpp:406] penlu43 <- Eltwise21
I0927 10:14:39.366017  3315 net.cpp:367] penlu43 -> Eltwise21 (in-place)
I0927 10:14:39.366135  3315 net.cpp:122] Setting up penlu43
I0927 10:14:39.366140  3315 net.cpp:129] Top shape: 100 64 8 8 (409600)
I0927 10:14:39.366142  3315 net.cpp:137] Memory required for data: 1079297200
I0927 10:14:39.366147  3315 layer_factory.hpp:77] Creating layer Eltwise21_penlu43_0_split
I0927 10:14:39.366152  3315 net.cpp:84] Creating Layer Eltwise21_penlu43_0_split
I0927 10:14:39.366153  3315 net.cpp:406] Eltwise21_penlu43_0_split <- Eltwise21
I0927 10:14:39.366158  3315 net.cpp:380] Eltwise21_penlu43_0_split -> Eltwise21_penlu43_0_split_0
I0927 10:14:39.366161  3315 net.cpp:380] Eltwise21_penlu43_0_split -> Eltwise21_penlu43_0_split_1
I0927 10:14:39.366186  3315 net.cpp:122] Setting up Eltwise21_penlu43_0_split
I0927 10:14:39.366189  3315 net.cpp:129] Top shape: 100 64 8 8 (409600)
I0927 10:14:39.366192  3315 net.cpp:129] Top shape: 100 64 8 8 (409600)
I0927 10:14:39.381393  3315 net.cpp:137] Memory required for data: 1082574000
I0927 10:14:39.381400  3315 layer_factory.hpp:77] Creating layer Convolution46
I0927 10:14:39.381408  3315 net.cpp:84] Creating Layer Convolution46
I0927 10:14:39.381412  3315 net.cpp:406] Convolution46 <- Eltwise21_penlu43_0_split_0
I0927 10:14:39.381419  3315 net.cpp:380] Convolution46 -> Convolution46
I0927 10:14:39.383359  3315 net.cpp:122] Setting up Convolution46
I0927 10:14:39.383368  3315 net.cpp:129] Top shape: 100 64 8 8 (409600)
I0927 10:14:39.383371  3315 net.cpp:137] Memory required for data: 1084212400
I0927 10:14:39.383378  3315 layer_factory.hpp:77] Creating layer BatchNorm46
I0927 10:14:39.383383  3315 net.cpp:84] Creating Layer BatchNorm46
I0927 10:14:39.383385  3315 net.cpp:406] BatchNorm46 <- Convolution46
I0927 10:14:39.383389  3315 net.cpp:367] BatchNorm46 -> Convolution46 (in-place)
I0927 10:14:39.383535  3315 net.cpp:122] Setting up BatchNorm46
I0927 10:14:39.383540  3315 net.cpp:129] Top shape: 100 64 8 8 (409600)
I0927 10:14:39.383543  3315 net.cpp:137] Memory required for data: 1085850800
I0927 10:14:39.383548  3315 layer_factory.hpp:77] Creating layer Scale46
I0927 10:14:39.383551  3315 net.cpp:84] Creating Layer Scale46
I0927 10:14:39.383554  3315 net.cpp:406] Scale46 <- Convolution46
I0927 10:14:39.383558  3315 net.cpp:367] Scale46 -> Convolution46 (in-place)
I0927 10:14:39.383585  3315 layer_factory.hpp:77] Creating layer Scale46
I0927 10:14:39.383697  3315 net.cpp:122] Setting up Scale46
I0927 10:14:39.383713  3315 net.cpp:129] Top shape: 100 64 8 8 (409600)
I0927 10:14:39.383714  3315 net.cpp:137] Memory required for data: 1087489200
I0927 10:14:39.383718  3315 layer_factory.hpp:77] Creating layer penlu44
I0927 10:14:39.383723  3315 net.cpp:84] Creating Layer penlu44
I0927 10:14:39.383725  3315 net.cpp:406] penlu44 <- Convolution46
I0927 10:14:39.383729  3315 net.cpp:367] penlu44 -> Convolution46 (in-place)
I0927 10:14:39.383849  3315 net.cpp:122] Setting up penlu44
I0927 10:14:39.383853  3315 net.cpp:129] Top shape: 100 64 8 8 (409600)
I0927 10:14:39.383855  3315 net.cpp:137] Memory required for data: 1089127600
I0927 10:14:39.383860  3315 layer_factory.hpp:77] Creating layer Convolution47
I0927 10:14:39.383867  3315 net.cpp:84] Creating Layer Convolution47
I0927 10:14:39.383869  3315 net.cpp:406] Convolution47 <- Convolution46
I0927 10:14:39.383874  3315 net.cpp:380] Convolution47 -> Convolution47
I0927 10:14:39.385668  3315 net.cpp:122] Setting up Convolution47
I0927 10:14:39.385677  3315 net.cpp:129] Top shape: 100 64 8 8 (409600)
I0927 10:14:39.385679  3315 net.cpp:137] Memory required for data: 1090766000
I0927 10:14:39.385684  3315 layer_factory.hpp:77] Creating layer BatchNorm47
I0927 10:14:39.385689  3315 net.cpp:84] Creating Layer BatchNorm47
I0927 10:14:39.385692  3315 net.cpp:406] BatchNorm47 <- Convolution47
I0927 10:14:39.385696  3315 net.cpp:367] BatchNorm47 -> Convolution47 (in-place)
I0927 10:14:39.385846  3315 net.cpp:122] Setting up BatchNorm47
I0927 10:14:39.385851  3315 net.cpp:129] Top shape: 100 64 8 8 (409600)
I0927 10:14:39.385854  3315 net.cpp:137] Memory required for data: 1092404400
I0927 10:14:39.385859  3315 layer_factory.hpp:77] Creating layer Scale47
I0927 10:14:39.385862  3315 net.cpp:84] Creating Layer Scale47
I0927 10:14:39.385865  3315 net.cpp:406] Scale47 <- Convolution47
I0927 10:14:39.385869  3315 net.cpp:367] Scale47 -> Convolution47 (in-place)
I0927 10:14:39.385897  3315 layer_factory.hpp:77] Creating layer Scale47
I0927 10:14:39.385977  3315 net.cpp:122] Setting up Scale47
I0927 10:14:39.385982  3315 net.cpp:129] Top shape: 100 64 8 8 (409600)
I0927 10:14:39.385984  3315 net.cpp:137] Memory required for data: 1094042800
I0927 10:14:39.385988  3315 layer_factory.hpp:77] Creating layer Eltwise22
I0927 10:14:39.385993  3315 net.cpp:84] Creating Layer Eltwise22
I0927 10:14:39.385995  3315 net.cpp:406] Eltwise22 <- Eltwise21_penlu43_0_split_1
I0927 10:14:39.385998  3315 net.cpp:406] Eltwise22 <- Convolution47
I0927 10:14:39.386001  3315 net.cpp:380] Eltwise22 -> Eltwise22
I0927 10:14:39.386019  3315 net.cpp:122] Setting up Eltwise22
I0927 10:14:39.386023  3315 net.cpp:129] Top shape: 100 64 8 8 (409600)
I0927 10:14:39.386025  3315 net.cpp:137] Memory required for data: 1095681200
I0927 10:14:39.386027  3315 layer_factory.hpp:77] Creating layer penlu45
I0927 10:14:39.386032  3315 net.cpp:84] Creating Layer penlu45
I0927 10:14:39.386035  3315 net.cpp:406] penlu45 <- Eltwise22
I0927 10:14:39.386039  3315 net.cpp:367] penlu45 -> Eltwise22 (in-place)
I0927 10:14:39.386157  3315 net.cpp:122] Setting up penlu45
I0927 10:14:39.386162  3315 net.cpp:129] Top shape: 100 64 8 8 (409600)
I0927 10:14:39.386163  3315 net.cpp:137] Memory required for data: 1097319600
I0927 10:14:39.386168  3315 layer_factory.hpp:77] Creating layer Eltwise22_penlu45_0_split
I0927 10:14:39.386173  3315 net.cpp:84] Creating Layer Eltwise22_penlu45_0_split
I0927 10:14:39.386175  3315 net.cpp:406] Eltwise22_penlu45_0_split <- Eltwise22
I0927 10:14:39.386178  3315 net.cpp:380] Eltwise22_penlu45_0_split -> Eltwise22_penlu45_0_split_0
I0927 10:14:39.386183  3315 net.cpp:380] Eltwise22_penlu45_0_split -> Eltwise22_penlu45_0_split_1
I0927 10:14:39.386207  3315 net.cpp:122] Setting up Eltwise22_penlu45_0_split
I0927 10:14:39.386211  3315 net.cpp:129] Top shape: 100 64 8 8 (409600)
I0927 10:14:39.386214  3315 net.cpp:129] Top shape: 100 64 8 8 (409600)
I0927 10:14:39.386216  3315 net.cpp:137] Memory required for data: 1100596400
I0927 10:14:39.386219  3315 layer_factory.hpp:77] Creating layer Convolution48
I0927 10:14:39.386224  3315 net.cpp:84] Creating Layer Convolution48
I0927 10:14:39.386226  3315 net.cpp:406] Convolution48 <- Eltwise22_penlu45_0_split_0
I0927 10:14:39.386231  3315 net.cpp:380] Convolution48 -> Convolution48
I0927 10:14:39.388319  3315 net.cpp:122] Setting up Convolution48
I0927 10:14:39.388329  3315 net.cpp:129] Top shape: 100 64 8 8 (409600)
I0927 10:14:39.388330  3315 net.cpp:137] Memory required for data: 1102234800
I0927 10:14:39.388335  3315 layer_factory.hpp:77] Creating layer BatchNorm48
I0927 10:14:39.388340  3315 net.cpp:84] Creating Layer BatchNorm48
I0927 10:14:39.388344  3315 net.cpp:406] BatchNorm48 <- Convolution48
I0927 10:14:39.388348  3315 net.cpp:367] BatchNorm48 -> Convolution48 (in-place)
I0927 10:14:39.388495  3315 net.cpp:122] Setting up BatchNorm48
I0927 10:14:39.388499  3315 net.cpp:129] Top shape: 100 64 8 8 (409600)
I0927 10:14:39.388501  3315 net.cpp:137] Memory required for data: 1103873200
I0927 10:14:39.388506  3315 layer_factory.hpp:77] Creating layer Scale48
I0927 10:14:39.388510  3315 net.cpp:84] Creating Layer Scale48
I0927 10:14:39.388512  3315 net.cpp:406] Scale48 <- Convolution48
I0927 10:14:39.388516  3315 net.cpp:367] Scale48 -> Convolution48 (in-place)
I0927 10:14:39.388545  3315 layer_factory.hpp:77] Creating layer Scale48
I0927 10:14:39.388629  3315 net.cpp:122] Setting up Scale48
I0927 10:14:39.388633  3315 net.cpp:129] Top shape: 100 64 8 8 (409600)
I0927 10:14:39.388643  3315 net.cpp:137] Memory required for data: 1105511600
I0927 10:14:39.388646  3315 layer_factory.hpp:77] Creating layer penlu46
I0927 10:14:39.388653  3315 net.cpp:84] Creating Layer penlu46
I0927 10:14:39.388655  3315 net.cpp:406] penlu46 <- Convolution48
I0927 10:14:39.388659  3315 net.cpp:367] penlu46 -> Convolution48 (in-place)
I0927 10:14:39.388779  3315 net.cpp:122] Setting up penlu46
I0927 10:14:39.388783  3315 net.cpp:129] Top shape: 100 64 8 8 (409600)
I0927 10:14:39.388785  3315 net.cpp:137] Memory required for data: 1107150000
I0927 10:14:39.388790  3315 layer_factory.hpp:77] Creating layer Convolution49
I0927 10:14:39.388797  3315 net.cpp:84] Creating Layer Convolution49
I0927 10:14:39.388799  3315 net.cpp:406] Convolution49 <- Convolution48
I0927 10:14:39.388803  3315 net.cpp:380] Convolution49 -> Convolution49
I0927 10:14:39.390890  3315 net.cpp:122] Setting up Convolution49
I0927 10:14:39.390899  3315 net.cpp:129] Top shape: 100 64 8 8 (409600)
I0927 10:14:39.390902  3315 net.cpp:137] Memory required for data: 1108788400
I0927 10:14:39.390907  3315 layer_factory.hpp:77] Creating layer BatchNorm49
I0927 10:14:39.390913  3315 net.cpp:84] Creating Layer BatchNorm49
I0927 10:14:39.390915  3315 net.cpp:406] BatchNorm49 <- Convolution49
I0927 10:14:39.390919  3315 net.cpp:367] BatchNorm49 -> Convolution49 (in-place)
I0927 10:14:39.391062  3315 net.cpp:122] Setting up BatchNorm49
I0927 10:14:39.391067  3315 net.cpp:129] Top shape: 100 64 8 8 (409600)
I0927 10:14:39.391069  3315 net.cpp:137] Memory required for data: 1110426800
I0927 10:14:39.391074  3315 layer_factory.hpp:77] Creating layer Scale49
I0927 10:14:39.391078  3315 net.cpp:84] Creating Layer Scale49
I0927 10:14:39.391080  3315 net.cpp:406] Scale49 <- Convolution49
I0927 10:14:39.391083  3315 net.cpp:367] Scale49 -> Convolution49 (in-place)
I0927 10:14:39.391113  3315 layer_factory.hpp:77] Creating layer Scale49
I0927 10:14:39.391196  3315 net.cpp:122] Setting up Scale49
I0927 10:14:39.391199  3315 net.cpp:129] Top shape: 100 64 8 8 (409600)
I0927 10:14:39.391201  3315 net.cpp:137] Memory required for data: 1112065200
I0927 10:14:39.391206  3315 layer_factory.hpp:77] Creating layer Eltwise23
I0927 10:14:39.391211  3315 net.cpp:84] Creating Layer Eltwise23
I0927 10:14:39.391213  3315 net.cpp:406] Eltwise23 <- Eltwise22_penlu45_0_split_1
I0927 10:14:39.391216  3315 net.cpp:406] Eltwise23 <- Convolution49
I0927 10:14:39.391219  3315 net.cpp:380] Eltwise23 -> Eltwise23
I0927 10:14:39.391235  3315 net.cpp:122] Setting up Eltwise23
I0927 10:14:39.391239  3315 net.cpp:129] Top shape: 100 64 8 8 (409600)
I0927 10:14:39.391242  3315 net.cpp:137] Memory required for data: 1113703600
I0927 10:14:39.391243  3315 layer_factory.hpp:77] Creating layer penlu47
I0927 10:14:39.391249  3315 net.cpp:84] Creating Layer penlu47
I0927 10:14:39.391252  3315 net.cpp:406] penlu47 <- Eltwise23
I0927 10:14:39.391255  3315 net.cpp:367] penlu47 -> Eltwise23 (in-place)
I0927 10:14:39.391374  3315 net.cpp:122] Setting up penlu47
I0927 10:14:39.391379  3315 net.cpp:129] Top shape: 100 64 8 8 (409600)
I0927 10:14:39.391381  3315 net.cpp:137] Memory required for data: 1115342000
I0927 10:14:39.391386  3315 layer_factory.hpp:77] Creating layer Eltwise23_penlu47_0_split
I0927 10:14:39.391389  3315 net.cpp:84] Creating Layer Eltwise23_penlu47_0_split
I0927 10:14:39.391391  3315 net.cpp:406] Eltwise23_penlu47_0_split <- Eltwise23
I0927 10:14:39.391396  3315 net.cpp:380] Eltwise23_penlu47_0_split -> Eltwise23_penlu47_0_split_0
I0927 10:14:39.391400  3315 net.cpp:380] Eltwise23_penlu47_0_split -> Eltwise23_penlu47_0_split_1
I0927 10:14:39.391425  3315 net.cpp:122] Setting up Eltwise23_penlu47_0_split
I0927 10:14:39.391428  3315 net.cpp:129] Top shape: 100 64 8 8 (409600)
I0927 10:14:39.391432  3315 net.cpp:129] Top shape: 100 64 8 8 (409600)
I0927 10:14:39.391433  3315 net.cpp:137] Memory required for data: 1118618800
I0927 10:14:39.391435  3315 layer_factory.hpp:77] Creating layer Convolution50
I0927 10:14:39.391443  3315 net.cpp:84] Creating Layer Convolution50
I0927 10:14:39.391451  3315 net.cpp:406] Convolution50 <- Eltwise23_penlu47_0_split_0
I0927 10:14:39.391456  3315 net.cpp:380] Convolution50 -> Convolution50
I0927 10:14:39.394032  3315 net.cpp:122] Setting up Convolution50
I0927 10:14:39.394039  3315 net.cpp:129] Top shape: 100 64 8 8 (409600)
I0927 10:14:39.394042  3315 net.cpp:137] Memory required for data: 1120257200
I0927 10:14:39.394047  3315 layer_factory.hpp:77] Creating layer BatchNorm50
I0927 10:14:39.394052  3315 net.cpp:84] Creating Layer BatchNorm50
I0927 10:14:39.394055  3315 net.cpp:406] BatchNorm50 <- Convolution50
I0927 10:14:39.394058  3315 net.cpp:367] BatchNorm50 -> Convolution50 (in-place)
I0927 10:14:39.394207  3315 net.cpp:122] Setting up BatchNorm50
I0927 10:14:39.394210  3315 net.cpp:129] Top shape: 100 64 8 8 (409600)
I0927 10:14:39.394213  3315 net.cpp:137] Memory required for data: 1121895600
I0927 10:14:39.394217  3315 layer_factory.hpp:77] Creating layer Scale50
I0927 10:14:39.394222  3315 net.cpp:84] Creating Layer Scale50
I0927 10:14:39.394224  3315 net.cpp:406] Scale50 <- Convolution50
I0927 10:14:39.394227  3315 net.cpp:367] Scale50 -> Convolution50 (in-place)
I0927 10:14:39.394258  3315 layer_factory.hpp:77] Creating layer Scale50
I0927 10:14:39.394340  3315 net.cpp:122] Setting up Scale50
I0927 10:14:39.394345  3315 net.cpp:129] Top shape: 100 64 8 8 (409600)
I0927 10:14:39.394346  3315 net.cpp:137] Memory required for data: 1123534000
I0927 10:14:39.394351  3315 layer_factory.hpp:77] Creating layer penlu48
I0927 10:14:39.394356  3315 net.cpp:84] Creating Layer penlu48
I0927 10:14:39.394358  3315 net.cpp:406] penlu48 <- Convolution50
I0927 10:14:39.394362  3315 net.cpp:367] penlu48 -> Convolution50 (in-place)
I0927 10:14:39.394481  3315 net.cpp:122] Setting up penlu48
I0927 10:14:39.394486  3315 net.cpp:129] Top shape: 100 64 8 8 (409600)
I0927 10:14:39.394489  3315 net.cpp:137] Memory required for data: 1125172400
I0927 10:14:39.394492  3315 layer_factory.hpp:77] Creating layer Convolution51
I0927 10:14:39.394500  3315 net.cpp:84] Creating Layer Convolution51
I0927 10:14:39.394502  3315 net.cpp:406] Convolution51 <- Convolution50
I0927 10:14:39.394506  3315 net.cpp:380] Convolution51 -> Convolution51
I0927 10:14:39.396266  3315 net.cpp:122] Setting up Convolution51
I0927 10:14:39.396275  3315 net.cpp:129] Top shape: 100 64 8 8 (409600)
I0927 10:14:39.396278  3315 net.cpp:137] Memory required for data: 1126810800
I0927 10:14:39.396283  3315 layer_factory.hpp:77] Creating layer BatchNorm51
I0927 10:14:39.396288  3315 net.cpp:84] Creating Layer BatchNorm51
I0927 10:14:39.396291  3315 net.cpp:406] BatchNorm51 <- Convolution51
I0927 10:14:39.396294  3315 net.cpp:367] BatchNorm51 -> Convolution51 (in-place)
I0927 10:14:39.396437  3315 net.cpp:122] Setting up BatchNorm51
I0927 10:14:39.396441  3315 net.cpp:129] Top shape: 100 64 8 8 (409600)
I0927 10:14:39.396443  3315 net.cpp:137] Memory required for data: 1128449200
I0927 10:14:39.396448  3315 layer_factory.hpp:77] Creating layer Scale51
I0927 10:14:39.396452  3315 net.cpp:84] Creating Layer Scale51
I0927 10:14:39.396456  3315 net.cpp:406] Scale51 <- Convolution51
I0927 10:14:39.396458  3315 net.cpp:367] Scale51 -> Convolution51 (in-place)
I0927 10:14:39.396488  3315 layer_factory.hpp:77] Creating layer Scale51
I0927 10:14:39.396569  3315 net.cpp:122] Setting up Scale51
I0927 10:14:39.396572  3315 net.cpp:129] Top shape: 100 64 8 8 (409600)
I0927 10:14:39.396574  3315 net.cpp:137] Memory required for data: 1130087600
I0927 10:14:39.396579  3315 layer_factory.hpp:77] Creating layer Eltwise24
I0927 10:14:39.396582  3315 net.cpp:84] Creating Layer Eltwise24
I0927 10:14:39.396586  3315 net.cpp:406] Eltwise24 <- Eltwise23_penlu47_0_split_1
I0927 10:14:39.396589  3315 net.cpp:406] Eltwise24 <- Convolution51
I0927 10:14:39.396592  3315 net.cpp:380] Eltwise24 -> Eltwise24
I0927 10:14:39.396610  3315 net.cpp:122] Setting up Eltwise24
I0927 10:14:39.396612  3315 net.cpp:129] Top shape: 100 64 8 8 (409600)
I0927 10:14:39.396615  3315 net.cpp:137] Memory required for data: 1131726000
I0927 10:14:39.396623  3315 layer_factory.hpp:77] Creating layer penlu49
I0927 10:14:39.396630  3315 net.cpp:84] Creating Layer penlu49
I0927 10:14:39.396632  3315 net.cpp:406] penlu49 <- Eltwise24
I0927 10:14:39.396636  3315 net.cpp:367] penlu49 -> Eltwise24 (in-place)
I0927 10:14:39.396754  3315 net.cpp:122] Setting up penlu49
I0927 10:14:39.396759  3315 net.cpp:129] Top shape: 100 64 8 8 (409600)
I0927 10:14:39.396760  3315 net.cpp:137] Memory required for data: 1133364400
I0927 10:14:39.396765  3315 layer_factory.hpp:77] Creating layer Eltwise24_penlu49_0_split
I0927 10:14:39.396770  3315 net.cpp:84] Creating Layer Eltwise24_penlu49_0_split
I0927 10:14:39.396771  3315 net.cpp:406] Eltwise24_penlu49_0_split <- Eltwise24
I0927 10:14:39.396775  3315 net.cpp:380] Eltwise24_penlu49_0_split -> Eltwise24_penlu49_0_split_0
I0927 10:14:39.396780  3315 net.cpp:380] Eltwise24_penlu49_0_split -> Eltwise24_penlu49_0_split_1
I0927 10:14:39.396816  3315 net.cpp:122] Setting up Eltwise24_penlu49_0_split
I0927 10:14:39.412001  3315 net.cpp:129] Top shape: 100 64 8 8 (409600)
I0927 10:14:39.412009  3315 net.cpp:129] Top shape: 100 64 8 8 (409600)
I0927 10:14:39.412012  3315 net.cpp:137] Memory required for data: 1136641200
I0927 10:14:39.412015  3315 layer_factory.hpp:77] Creating layer Convolution52
I0927 10:14:39.412025  3315 net.cpp:84] Creating Layer Convolution52
I0927 10:14:39.412029  3315 net.cpp:406] Convolution52 <- Eltwise24_penlu49_0_split_0
I0927 10:14:39.412034  3315 net.cpp:380] Convolution52 -> Convolution52
I0927 10:14:39.414355  3315 net.cpp:122] Setting up Convolution52
I0927 10:14:39.414363  3315 net.cpp:129] Top shape: 100 64 8 8 (409600)
I0927 10:14:39.414366  3315 net.cpp:137] Memory required for data: 1138279600
I0927 10:14:39.414371  3315 layer_factory.hpp:77] Creating layer BatchNorm52
I0927 10:14:39.414376  3315 net.cpp:84] Creating Layer BatchNorm52
I0927 10:14:39.414378  3315 net.cpp:406] BatchNorm52 <- Convolution52
I0927 10:14:39.414383  3315 net.cpp:367] BatchNorm52 -> Convolution52 (in-place)
I0927 10:14:39.414593  3315 net.cpp:122] Setting up BatchNorm52
I0927 10:14:39.414599  3315 net.cpp:129] Top shape: 100 64 8 8 (409600)
I0927 10:14:39.414611  3315 net.cpp:137] Memory required for data: 1139918000
I0927 10:14:39.414616  3315 layer_factory.hpp:77] Creating layer Scale52
I0927 10:14:39.414621  3315 net.cpp:84] Creating Layer Scale52
I0927 10:14:39.414635  3315 net.cpp:406] Scale52 <- Convolution52
I0927 10:14:39.414639  3315 net.cpp:367] Scale52 -> Convolution52 (in-place)
I0927 10:14:39.414680  3315 layer_factory.hpp:77] Creating layer Scale52
I0927 10:14:39.414762  3315 net.cpp:122] Setting up Scale52
I0927 10:14:39.414765  3315 net.cpp:129] Top shape: 100 64 8 8 (409600)
I0927 10:14:39.414767  3315 net.cpp:137] Memory required for data: 1141556400
I0927 10:14:39.414780  3315 layer_factory.hpp:77] Creating layer penlu50
I0927 10:14:39.414801  3315 net.cpp:84] Creating Layer penlu50
I0927 10:14:39.414804  3315 net.cpp:406] penlu50 <- Convolution52
I0927 10:14:39.414808  3315 net.cpp:367] penlu50 -> Convolution52 (in-place)
I0927 10:14:39.414927  3315 net.cpp:122] Setting up penlu50
I0927 10:14:39.414932  3315 net.cpp:129] Top shape: 100 64 8 8 (409600)
I0927 10:14:39.414934  3315 net.cpp:137] Memory required for data: 1143194800
I0927 10:14:39.414975  3315 layer_factory.hpp:77] Creating layer Convolution53
I0927 10:14:39.414983  3315 net.cpp:84] Creating Layer Convolution53
I0927 10:14:39.414985  3315 net.cpp:406] Convolution53 <- Convolution52
I0927 10:14:39.414989  3315 net.cpp:380] Convolution53 -> Convolution53
I0927 10:14:39.416787  3315 net.cpp:122] Setting up Convolution53
I0927 10:14:39.416796  3315 net.cpp:129] Top shape: 100 64 8 8 (409600)
I0927 10:14:39.416798  3315 net.cpp:137] Memory required for data: 1144833200
I0927 10:14:39.416803  3315 layer_factory.hpp:77] Creating layer BatchNorm53
I0927 10:14:39.416810  3315 net.cpp:84] Creating Layer BatchNorm53
I0927 10:14:39.416812  3315 net.cpp:406] BatchNorm53 <- Convolution53
I0927 10:14:39.416817  3315 net.cpp:367] BatchNorm53 -> Convolution53 (in-place)
I0927 10:14:39.416965  3315 net.cpp:122] Setting up BatchNorm53
I0927 10:14:39.416970  3315 net.cpp:129] Top shape: 100 64 8 8 (409600)
I0927 10:14:39.416971  3315 net.cpp:137] Memory required for data: 1146471600
I0927 10:14:39.416976  3315 layer_factory.hpp:77] Creating layer Scale53
I0927 10:14:39.416981  3315 net.cpp:84] Creating Layer Scale53
I0927 10:14:39.416985  3315 net.cpp:406] Scale53 <- Convolution53
I0927 10:14:39.416987  3315 net.cpp:367] Scale53 -> Convolution53 (in-place)
I0927 10:14:39.417016  3315 layer_factory.hpp:77] Creating layer Scale53
I0927 10:14:39.417098  3315 net.cpp:122] Setting up Scale53
I0927 10:14:39.417101  3315 net.cpp:129] Top shape: 100 64 8 8 (409600)
I0927 10:14:39.417104  3315 net.cpp:137] Memory required for data: 1148110000
I0927 10:14:39.417107  3315 layer_factory.hpp:77] Creating layer Eltwise25
I0927 10:14:39.417112  3315 net.cpp:84] Creating Layer Eltwise25
I0927 10:14:39.417115  3315 net.cpp:406] Eltwise25 <- Eltwise24_penlu49_0_split_1
I0927 10:14:39.417119  3315 net.cpp:406] Eltwise25 <- Convolution53
I0927 10:14:39.417121  3315 net.cpp:380] Eltwise25 -> Eltwise25
I0927 10:14:39.417138  3315 net.cpp:122] Setting up Eltwise25
I0927 10:14:39.417142  3315 net.cpp:129] Top shape: 100 64 8 8 (409600)
I0927 10:14:39.417145  3315 net.cpp:137] Memory required for data: 1149748400
I0927 10:14:39.417146  3315 layer_factory.hpp:77] Creating layer penlu51
I0927 10:14:39.417151  3315 net.cpp:84] Creating Layer penlu51
I0927 10:14:39.417155  3315 net.cpp:406] penlu51 <- Eltwise25
I0927 10:14:39.417157  3315 net.cpp:367] penlu51 -> Eltwise25 (in-place)
I0927 10:14:39.417273  3315 net.cpp:122] Setting up penlu51
I0927 10:14:39.417277  3315 net.cpp:129] Top shape: 100 64 8 8 (409600)
I0927 10:14:39.417279  3315 net.cpp:137] Memory required for data: 1151386800
I0927 10:14:39.417284  3315 layer_factory.hpp:77] Creating layer Eltwise25_penlu51_0_split
I0927 10:14:39.417287  3315 net.cpp:84] Creating Layer Eltwise25_penlu51_0_split
I0927 10:14:39.417289  3315 net.cpp:406] Eltwise25_penlu51_0_split <- Eltwise25
I0927 10:14:39.417292  3315 net.cpp:380] Eltwise25_penlu51_0_split -> Eltwise25_penlu51_0_split_0
I0927 10:14:39.417296  3315 net.cpp:380] Eltwise25_penlu51_0_split -> Eltwise25_penlu51_0_split_1
I0927 10:14:39.417321  3315 net.cpp:122] Setting up Eltwise25_penlu51_0_split
I0927 10:14:39.417325  3315 net.cpp:129] Top shape: 100 64 8 8 (409600)
I0927 10:14:39.417327  3315 net.cpp:129] Top shape: 100 64 8 8 (409600)
I0927 10:14:39.417330  3315 net.cpp:137] Memory required for data: 1154663600
I0927 10:14:39.417331  3315 layer_factory.hpp:77] Creating layer Convolution54
I0927 10:14:39.417337  3315 net.cpp:84] Creating Layer Convolution54
I0927 10:14:39.417340  3315 net.cpp:406] Convolution54 <- Eltwise25_penlu51_0_split_0
I0927 10:14:39.417345  3315 net.cpp:380] Convolution54 -> Convolution54
I0927 10:14:39.419390  3315 net.cpp:122] Setting up Convolution54
I0927 10:14:39.419399  3315 net.cpp:129] Top shape: 100 64 8 8 (409600)
I0927 10:14:39.419402  3315 net.cpp:137] Memory required for data: 1156302000
I0927 10:14:39.419407  3315 layer_factory.hpp:77] Creating layer BatchNorm54
I0927 10:14:39.419411  3315 net.cpp:84] Creating Layer BatchNorm54
I0927 10:14:39.419414  3315 net.cpp:406] BatchNorm54 <- Convolution54
I0927 10:14:39.419420  3315 net.cpp:367] BatchNorm54 -> Convolution54 (in-place)
I0927 10:14:39.419579  3315 net.cpp:122] Setting up BatchNorm54
I0927 10:14:39.419582  3315 net.cpp:129] Top shape: 100 64 8 8 (409600)
I0927 10:14:39.419584  3315 net.cpp:137] Memory required for data: 1157940400
I0927 10:14:39.419589  3315 layer_factory.hpp:77] Creating layer Scale54
I0927 10:14:39.419594  3315 net.cpp:84] Creating Layer Scale54
I0927 10:14:39.419596  3315 net.cpp:406] Scale54 <- Convolution54
I0927 10:14:39.419600  3315 net.cpp:367] Scale54 -> Convolution54 (in-place)
I0927 10:14:39.419627  3315 layer_factory.hpp:77] Creating layer Scale54
I0927 10:14:39.419708  3315 net.cpp:122] Setting up Scale54
I0927 10:14:39.419713  3315 net.cpp:129] Top shape: 100 64 8 8 (409600)
I0927 10:14:39.419720  3315 net.cpp:137] Memory required for data: 1159578800
I0927 10:14:39.419725  3315 layer_factory.hpp:77] Creating layer penlu52
I0927 10:14:39.419729  3315 net.cpp:84] Creating Layer penlu52
I0927 10:14:39.419733  3315 net.cpp:406] penlu52 <- Convolution54
I0927 10:14:39.419736  3315 net.cpp:367] penlu52 -> Convolution54 (in-place)
I0927 10:14:39.419857  3315 net.cpp:122] Setting up penlu52
I0927 10:14:39.419862  3315 net.cpp:129] Top shape: 100 64 8 8 (409600)
I0927 10:14:39.419863  3315 net.cpp:137] Memory required for data: 1161217200
I0927 10:14:39.419867  3315 layer_factory.hpp:77] Creating layer Convolution55
I0927 10:14:39.419874  3315 net.cpp:84] Creating Layer Convolution55
I0927 10:14:39.419878  3315 net.cpp:406] Convolution55 <- Convolution54
I0927 10:14:39.419881  3315 net.cpp:380] Convolution55 -> Convolution55
I0927 10:14:39.421578  3315 net.cpp:122] Setting up Convolution55
I0927 10:14:39.421587  3315 net.cpp:129] Top shape: 100 64 8 8 (409600)
I0927 10:14:39.421591  3315 net.cpp:137] Memory required for data: 1162855600
I0927 10:14:39.421594  3315 layer_factory.hpp:77] Creating layer BatchNorm55
I0927 10:14:39.421599  3315 net.cpp:84] Creating Layer BatchNorm55
I0927 10:14:39.421602  3315 net.cpp:406] BatchNorm55 <- Convolution55
I0927 10:14:39.421607  3315 net.cpp:367] BatchNorm55 -> Convolution55 (in-place)
I0927 10:14:39.421746  3315 net.cpp:122] Setting up BatchNorm55
I0927 10:14:39.421751  3315 net.cpp:129] Top shape: 100 64 8 8 (409600)
I0927 10:14:39.421752  3315 net.cpp:137] Memory required for data: 1164494000
I0927 10:14:39.421757  3315 layer_factory.hpp:77] Creating layer Scale55
I0927 10:14:39.421761  3315 net.cpp:84] Creating Layer Scale55
I0927 10:14:39.421763  3315 net.cpp:406] Scale55 <- Convolution55
I0927 10:14:39.421766  3315 net.cpp:367] Scale55 -> Convolution55 (in-place)
I0927 10:14:39.421794  3315 layer_factory.hpp:77] Creating layer Scale55
I0927 10:14:39.421875  3315 net.cpp:122] Setting up Scale55
I0927 10:14:39.421880  3315 net.cpp:129] Top shape: 100 64 8 8 (409600)
I0927 10:14:39.421882  3315 net.cpp:137] Memory required for data: 1166132400
I0927 10:14:39.421885  3315 layer_factory.hpp:77] Creating layer Eltwise26
I0927 10:14:39.421890  3315 net.cpp:84] Creating Layer Eltwise26
I0927 10:14:39.421892  3315 net.cpp:406] Eltwise26 <- Eltwise25_penlu51_0_split_1
I0927 10:14:39.421895  3315 net.cpp:406] Eltwise26 <- Convolution55
I0927 10:14:39.421898  3315 net.cpp:380] Eltwise26 -> Eltwise26
I0927 10:14:39.421916  3315 net.cpp:122] Setting up Eltwise26
I0927 10:14:39.421919  3315 net.cpp:129] Top shape: 100 64 8 8 (409600)
I0927 10:14:39.421921  3315 net.cpp:137] Memory required for data: 1167770800
I0927 10:14:39.421922  3315 layer_factory.hpp:77] Creating layer penlu53
I0927 10:14:39.421928  3315 net.cpp:84] Creating Layer penlu53
I0927 10:14:39.421931  3315 net.cpp:406] penlu53 <- Eltwise26
I0927 10:14:39.421934  3315 net.cpp:367] penlu53 -> Eltwise26 (in-place)
I0927 10:14:39.422052  3315 net.cpp:122] Setting up penlu53
I0927 10:14:39.422056  3315 net.cpp:129] Top shape: 100 64 8 8 (409600)
I0927 10:14:39.422058  3315 net.cpp:137] Memory required for data: 1169409200
I0927 10:14:39.422062  3315 layer_factory.hpp:77] Creating layer Eltwise26_penlu53_0_split
I0927 10:14:39.422066  3315 net.cpp:84] Creating Layer Eltwise26_penlu53_0_split
I0927 10:14:39.422068  3315 net.cpp:406] Eltwise26_penlu53_0_split <- Eltwise26
I0927 10:14:39.422071  3315 net.cpp:380] Eltwise26_penlu53_0_split -> Eltwise26_penlu53_0_split_0
I0927 10:14:39.422076  3315 net.cpp:380] Eltwise26_penlu53_0_split -> Eltwise26_penlu53_0_split_1
I0927 10:14:39.422099  3315 net.cpp:122] Setting up Eltwise26_penlu53_0_split
I0927 10:14:39.422103  3315 net.cpp:129] Top shape: 100 64 8 8 (409600)
I0927 10:14:39.422106  3315 net.cpp:129] Top shape: 100 64 8 8 (409600)
I0927 10:14:39.422108  3315 net.cpp:137] Memory required for data: 1172686000
I0927 10:14:39.422111  3315 layer_factory.hpp:77] Creating layer Convolution56
I0927 10:14:39.422116  3315 net.cpp:84] Creating Layer Convolution56
I0927 10:14:39.422124  3315 net.cpp:406] Convolution56 <- Eltwise26_penlu53_0_split_0
I0927 10:14:39.422129  3315 net.cpp:380] Convolution56 -> Convolution56
I0927 10:14:39.423848  3315 net.cpp:122] Setting up Convolution56
I0927 10:14:39.423857  3315 net.cpp:129] Top shape: 100 64 8 8 (409600)
I0927 10:14:39.423861  3315 net.cpp:137] Memory required for data: 1174324400
I0927 10:14:39.423866  3315 layer_factory.hpp:77] Creating layer BatchNorm56
I0927 10:14:39.423871  3315 net.cpp:84] Creating Layer BatchNorm56
I0927 10:14:39.423873  3315 net.cpp:406] BatchNorm56 <- Convolution56
I0927 10:14:39.423877  3315 net.cpp:367] BatchNorm56 -> Convolution56 (in-place)
I0927 10:14:39.424026  3315 net.cpp:122] Setting up BatchNorm56
I0927 10:14:39.424031  3315 net.cpp:129] Top shape: 100 64 8 8 (409600)
I0927 10:14:39.424033  3315 net.cpp:137] Memory required for data: 1175962800
I0927 10:14:39.424038  3315 layer_factory.hpp:77] Creating layer Scale56
I0927 10:14:39.424042  3315 net.cpp:84] Creating Layer Scale56
I0927 10:14:39.424044  3315 net.cpp:406] Scale56 <- Convolution56
I0927 10:14:39.424048  3315 net.cpp:367] Scale56 -> Convolution56 (in-place)
I0927 10:14:39.424079  3315 layer_factory.hpp:77] Creating layer Scale56
I0927 10:14:39.424162  3315 net.cpp:122] Setting up Scale56
I0927 10:14:39.424168  3315 net.cpp:129] Top shape: 100 64 8 8 (409600)
I0927 10:14:39.424170  3315 net.cpp:137] Memory required for data: 1177601200
I0927 10:14:39.424175  3315 layer_factory.hpp:77] Creating layer penlu54
I0927 10:14:39.424178  3315 net.cpp:84] Creating Layer penlu54
I0927 10:14:39.424181  3315 net.cpp:406] penlu54 <- Convolution56
I0927 10:14:39.424185  3315 net.cpp:367] penlu54 -> Convolution56 (in-place)
I0927 10:14:39.424309  3315 net.cpp:122] Setting up penlu54
I0927 10:14:39.424314  3315 net.cpp:129] Top shape: 100 64 8 8 (409600)
I0927 10:14:39.424315  3315 net.cpp:137] Memory required for data: 1179239600
I0927 10:14:39.424319  3315 layer_factory.hpp:77] Creating layer Convolution57
I0927 10:14:39.424326  3315 net.cpp:84] Creating Layer Convolution57
I0927 10:14:39.424329  3315 net.cpp:406] Convolution57 <- Convolution56
I0927 10:14:39.424334  3315 net.cpp:380] Convolution57 -> Convolution57
I0927 10:14:39.426030  3315 net.cpp:122] Setting up Convolution57
I0927 10:14:39.426039  3315 net.cpp:129] Top shape: 100 64 8 8 (409600)
I0927 10:14:39.426041  3315 net.cpp:137] Memory required for data: 1180878000
I0927 10:14:39.426045  3315 layer_factory.hpp:77] Creating layer BatchNorm57
I0927 10:14:39.426051  3315 net.cpp:84] Creating Layer BatchNorm57
I0927 10:14:39.426054  3315 net.cpp:406] BatchNorm57 <- Convolution57
I0927 10:14:39.426057  3315 net.cpp:367] BatchNorm57 -> Convolution57 (in-place)
I0927 10:14:39.426199  3315 net.cpp:122] Setting up BatchNorm57
I0927 10:14:39.426204  3315 net.cpp:129] Top shape: 100 64 8 8 (409600)
I0927 10:14:39.426206  3315 net.cpp:137] Memory required for data: 1182516400
I0927 10:14:39.426210  3315 layer_factory.hpp:77] Creating layer Scale57
I0927 10:14:39.426214  3315 net.cpp:84] Creating Layer Scale57
I0927 10:14:39.426216  3315 net.cpp:406] Scale57 <- Convolution57
I0927 10:14:39.426220  3315 net.cpp:367] Scale57 -> Convolution57 (in-place)
I0927 10:14:39.426249  3315 layer_factory.hpp:77] Creating layer Scale57
I0927 10:14:39.426331  3315 net.cpp:122] Setting up Scale57
I0927 10:14:39.426334  3315 net.cpp:129] Top shape: 100 64 8 8 (409600)
I0927 10:14:39.426337  3315 net.cpp:137] Memory required for data: 1184154800
I0927 10:14:39.426340  3315 layer_factory.hpp:77] Creating layer Eltwise27
I0927 10:14:39.426344  3315 net.cpp:84] Creating Layer Eltwise27
I0927 10:14:39.426347  3315 net.cpp:406] Eltwise27 <- Eltwise26_penlu53_0_split_1
I0927 10:14:39.426350  3315 net.cpp:406] Eltwise27 <- Convolution57
I0927 10:14:39.426353  3315 net.cpp:380] Eltwise27 -> Eltwise27
I0927 10:14:39.426370  3315 net.cpp:122] Setting up Eltwise27
I0927 10:14:39.426374  3315 net.cpp:129] Top shape: 100 64 8 8 (409600)
I0927 10:14:39.426376  3315 net.cpp:137] Memory required for data: 1185793200
I0927 10:14:39.426385  3315 layer_factory.hpp:77] Creating layer penlu55
I0927 10:14:39.426390  3315 net.cpp:84] Creating Layer penlu55
I0927 10:14:39.426393  3315 net.cpp:406] penlu55 <- Eltwise27
I0927 10:14:39.426396  3315 net.cpp:367] penlu55 -> Eltwise27 (in-place)
I0927 10:14:39.426517  3315 net.cpp:122] Setting up penlu55
I0927 10:14:39.426525  3315 net.cpp:129] Top shape: 100 64 8 8 (409600)
I0927 10:14:39.426527  3315 net.cpp:137] Memory required for data: 1187431600
I0927 10:14:39.426532  3315 layer_factory.hpp:77] Creating layer Pooling1
I0927 10:14:39.426539  3315 net.cpp:84] Creating Layer Pooling1
I0927 10:14:39.426542  3315 net.cpp:406] Pooling1 <- Eltwise27
I0927 10:14:39.426545  3315 net.cpp:380] Pooling1 -> Pooling1
I0927 10:14:39.427021  3315 net.cpp:122] Setting up Pooling1
I0927 10:14:39.427029  3315 net.cpp:129] Top shape: 100 64 1 1 (6400)
I0927 10:14:39.442881  3315 net.cpp:137] Memory required for data: 1187457200
I0927 10:14:39.442888  3315 layer_factory.hpp:77] Creating layer InnerProduct1
I0927 10:14:39.442898  3315 net.cpp:84] Creating Layer InnerProduct1
I0927 10:14:39.442900  3315 net.cpp:406] InnerProduct1 <- Pooling1
I0927 10:14:39.442906  3315 net.cpp:380] InnerProduct1 -> InnerProduct1
I0927 10:14:39.443033  3315 net.cpp:122] Setting up InnerProduct1
I0927 10:14:39.443039  3315 net.cpp:129] Top shape: 100 10 (1000)
I0927 10:14:39.443042  3315 net.cpp:137] Memory required for data: 1187461200
I0927 10:14:39.443047  3315 layer_factory.hpp:77] Creating layer InnerProduct1_InnerProduct1_0_split
I0927 10:14:39.443051  3315 net.cpp:84] Creating Layer InnerProduct1_InnerProduct1_0_split
I0927 10:14:39.443053  3315 net.cpp:406] InnerProduct1_InnerProduct1_0_split <- InnerProduct1
I0927 10:14:39.443058  3315 net.cpp:380] InnerProduct1_InnerProduct1_0_split -> InnerProduct1_InnerProduct1_0_split_0
I0927 10:14:39.443063  3315 net.cpp:380] InnerProduct1_InnerProduct1_0_split -> InnerProduct1_InnerProduct1_0_split_1
I0927 10:14:39.443091  3315 net.cpp:122] Setting up InnerProduct1_InnerProduct1_0_split
I0927 10:14:39.443096  3315 net.cpp:129] Top shape: 100 10 (1000)
I0927 10:14:39.443099  3315 net.cpp:129] Top shape: 100 10 (1000)
I0927 10:14:39.443101  3315 net.cpp:137] Memory required for data: 1187469200
I0927 10:14:39.443104  3315 layer_factory.hpp:77] Creating layer SoftmaxWithLoss1
I0927 10:14:39.443109  3315 net.cpp:84] Creating Layer SoftmaxWithLoss1
I0927 10:14:39.443110  3315 net.cpp:406] SoftmaxWithLoss1 <- InnerProduct1_InnerProduct1_0_split_0
I0927 10:14:39.443114  3315 net.cpp:406] SoftmaxWithLoss1 <- Data2_Data1_1_split_0
…
