…
I0928 19:59:16.949394  5237 net.cpp:294] The NetState phase (0) differed from the phase (1) specified by a rule in layer Accuracy1
I0928 19:59:16.950556  5237 net.cpp:51] Initializing net from parameters: 
name: "resnet_cifar10"
state {
  phase: TRAIN
  level: 0
  stage: ""
}
layer {
  name: "Data1"
  type: "Data"
  top: "Data1"
  top: "Data2"
  include {
    phase: TRAIN
  }
  transform_param {
    mirror: true
    crop_size: 28
    mean_file: "/home/x306/caffe/xn/PENLU/data/cifar10/mean.binaryproto"
  }
  data_param {
    source: "/home/x306/caffe/xn/PENLU/data/cifar10/cifar10_train_lmdb"
    batch_size: 100
    backend: LMDB
  }
}
layer {
  name: "Convolution1"
  type: "Convolution"
  bottom: "Data1"
  top: "Convolution1"
  param {
    lr_mult: 1
    decay_mult: 1
  }
  param {
    lr_mult: 2
    decay_mult: 0
  }
  convolution_param {
    num_output: 16
    pad: 1
    kernel_size: 3
    stride: 1
    weight_filler {
      type: "gaussian"
      std: 0.118
    }
    bias_filler {
      type: "constant"
      value: 0
    }
  }
}
layer {
  name: "BatchNorm1"
  type: "BatchNorm"
  bottom: "Convolution1"
  top: "Convolution1"
  param {
    lr_mult: 0
    decay_mult: 0
  }
  param {
    lr_mult: 0
    decay_mult: 0
  }
  param {
    lr_mult: 0
    decay_mult: 0
  }
}
layer {
  name: "Scale1"
  type: "Scale"
  bottom: "Convolution1"
  top: "Convolution1"
  scale_param {
    bias_term: true
  }
}
layer {
  name: "penlu1"
  type: "PENLU"
  bottom: "Convolution1"
  top: "Convolution1"
  param {
    lr_mult: 2
    decay_mult: 0
  }
  param {
    lr_mult: 2
    decay_mult: 0
  }
  param {
    lr_mult: 0
    decay_mult: 0
  }
  penlu_param {
    alpha_filler {
      type: "constant"
      value: 2
    }
    beta_filler {
      type: "constant"
      value: 1
    }
    eta_filler {
      type: "constant"
      value: 1
    }
  }
}
layer {
  name: "Convolution2"
  type: "Convolution"
  bottom: "Convolution1"
  top: "Convolution2"
  param {
    lr_mult: 1
    decay_mult: 1
  }
  param {
    lr_mult: 2
    decay_mult: 0
  }
  convolution_param {
    num_output: 16
    pad: 1
    kernel_size: 3
    stride: 1
    weight_filler {
      type: "gaussian"
      std: 0.118
    }
    bias_filler {
      type: "constant"
      value: 0
    }
  }
}
layer {
  name: "BatchNorm2"
  type: "BatchNorm"
  bottom: "Convolution2"
  top: "Convolution2"
  param {
    lr_mult: 0
    decay_mult: 0
  }
  param {
    lr_mult: 0
    decay_mult: 0
  }
  param {
    lr_mult: 0
    decay_mult: 0
  }
}
layer {
  name: "Scale2"
  type: "Scale"
  bottom: "Convolution2"
  top: "Convolution2"
  scale_param {
    bias_term: true
  }
}
layer {
  name: "penlu2"
  type: "PENLU"
  bottom: "Convolution2"
  top: "Convolution2"
  param {
    lr_mult: 2
    decay_mult: 0
  }
  param {
    lr_mult: 2
    decay_mult: 0
  }
  param {
    lr_mult: 0
    decay_mult: 0
  }
  penlu_param {
    alpha_filler {
      type: "constant"
      value: 2
    }
    beta_filler {
      type: "constant"
      value: 1
    }
    eta_filler {
      type: "constant"
      value: 1
    }
  }
}
layer {
  name: "Convolution3"
  type: "Convolution"
  bottom: "Convolution2"
  top: "Convolution3"
  param {
    lr_mult: 1
    decay_mult: 1
  }
  param {
    lr_mult: 2
    decay_mult: 0
  }
  convolution_param {
    num_output: 16
    pad: 1
    kernel_size: 3
    stride: 1
    weight_filler {
      type: "gaussian"
      std: 0.118
    }
    bias_filler {
      type: "constant"
      value: 0
    }
  }
}
layer {
  name: "BatchNorm3"
  type: "BatchNorm"
  bottom: "Convolution3"
  top: "Convolution3"
  param {
    lr_mult: 0
    decay_mult: 0
  }
  param {
    lr_mult: 0
    decay_mult: 0
  }
  param {
    lr_mult: 0
    decay_mult: 0
  }
}
layer {
  name: "Scale3"
  type: "Scale"
  bottom: "Convolution3"
  top: "Convolution3"
  scale_param {
    bias_term: true
  }
}
layer {
  name: "Eltwise1"
  type: "Eltwise"
  bottom: "Convolution1"
  bottom: "Convolution3"
  top: "Eltwise1"
  eltwise_param {
    operation: SUM
  }
}
layer {
  name: "penlu3"
  type: "PENLU"
  bottom: "Eltwise1"
  top: "Eltwise1"
  param {
    lr_mult: 2
    decay_mult: 0
  }
  param {
    lr_mult: 2
    decay_mult: 0
  }
  param {
    lr_mult: 0
    decay_mult: 0
  }
  penlu_param {
    alpha_filler {
      type: "constant"
      value: 2
    }
    beta_filler {
      type: "constant"
      value: 1
    }
    eta_filler {
      type: "constant"
      value: 1
    }
  }
}
layer {
  name: "Convolution4"
  type: "Convolution"
  bottom: "Eltwise1"
  top: "Convolution4"
  param {
    lr_mult: 1
    decay_mult: 1
  }
  param {
    lr_mult: 2
    decay_mult: 0
  }
  convolution_param {
    num_output: 16
    pad: 1
    kernel_size: 3
    stride: 1
    weight_filler {
      type: "gaussian"
      std: 0.118
    }
    bias_filler {
      type: "constant"
      value: 0
    }
  }
}
layer {
  name: "BatchNorm4"
  type: "BatchNorm"
  bottom: "Convolution4"
  top: "Convolution4"
  param {
    lr_mult: 0
    decay_mult: 0
  }
  param {
    lr_mult: 0
    decay_mult: 0
  }
  param {
    lr_mult: 0
    decay_mult: 0
  }
}
layer {
  name: "Scale4"
  type: "Scale"
  bottom: "Convolution4"
  top: "Convolution4"
  scale_param {
    bias_term: true
  }
}
layer {
  name: "penlu4"
  type: "PENLU"
  bottom: "Convolution4"
  top: "Convolution4"
  param {
    lr_mult: 2
    decay_mult: 0
  }
  param {
    lr_mult: 2
    decay_mult: 0
  }
  param {
    lr_mult: 0
    decay_mult: 0
  }
  penlu_param {
    alpha_filler {
      type: "constant"
      value: 2
    }
    beta_filler {
      type: "constant"
      value: 1
    }
    eta_filler {
      type: "constant"
      value: 1
    }
  }
}
layer {
  name: "Convolution5"
  type: "Convolution"
  bottom: "Convolution4"
  top: "Convolution5"
  param {
    lr_mult: 1
    decay_mult: 1
  }
  param {
    lr_mult: 2
    decay_mult: 0
  }
  convolution_param {
    num_output: 16
    pad: 1
    kernel_size: 3
    stride: 1
    weight_filler {
      type: "gaussian"
      std: 0.118
    }
    bias_filler {
      type: "constant"
      value: 0
    }
  }
}
layer {
  name: "BatchNorm5"
  type: "BatchNorm"
  bottom: "Convolution5"
  top: "Convolution5"
  param {
    lr_mult: 0
    decay_mult: 0
  }
  param {
    lr_mult: 0
    decay_mult: 0
  }
  param {
    lr_mult: 0
    decay_mult: 0
  }
}
layer {
  name: "Scale5"
  type: "Scale"
  bottom: "Convolution5"
  top: "Convolution5"
  scale_param {
    bias_term: true
  }
}
layer {
  name: "Eltwise2"
  type: "Eltwise"
  bottom: "Eltwise1"
  bottom: "Convolution5"
  top: "Eltwise2"
  eltwise_param {
    operation: SUM
  }
}
layer {
  name: "penlu5"
  type: "PENLU"
  bottom: "Eltwise2"
  top: "Eltwise2"
  param {
    lr_mult: 2
    decay_mult: 0
  }
  param {
    lr_mult: 2
    decay_mult: 0
  }
  param {
    lr_mult: 0
    decay_mult: 0
  }
  penlu_param {
    alpha_filler {
      type: "constant"
      value: 2
    }
    beta_filler {
      type: "constant"
      value: 1
    }
    eta_filler {
      type: "constant"
      value: 1
    }
  }
}
layer {
  name: "Convolution6"
  type: "Convolution"
  bottom: "Eltwise2"
  top: "Convolution6"
  param {
    lr_mult: 1
    decay_mult: 1
  }
  param {
    lr_mult: 2
    decay_mult: 0
  }
  convolution_param {
    num_output: 16
    pad: 1
    kernel_size: 3
    stride: 1
    weight_filler {
      type: "gaussian"
      std: 0.118
    }
    bias_filler {
      type: "constant"
      value: 0
    }
  }
}
layer {
  name: "BatchNorm6"
  type: "BatchNorm"
  bottom: "Convolution6"
  top: "Convolution6"
  param {
    lr_mult: 0
    decay_mult: 0
  }
  param {
    lr_mult: 0
    decay_mult: 0
  }
  param {
    lr_mult: 0
    decay_mult: 0
  }
}
layer {
  name: "Scale6"
  type: "Scale"
  bottom: "Convolution6"
  top: "Convolution6"
  scale_param {
    bias_term: true
  }
}
layer {
  name: "penlu6"
  type: "PENLU"
  bottom: "Convolution6"
  top: "Convolution6"
  param {
    lr_mult: 2
    decay_mult: 0
  }
  param {
    lr_mult: 2
    decay_mult: 0
  }
  param {
    lr_mult: 0
    decay_mult: 0
  }
  penlu_param {
    alpha_filler {
      type: "constant"
      value: 2
    }
    beta_filler {
      type: "constant"
      value: 1
    }
    eta_filler {
      type: "constant"
      value: 1
    }
  }
}
layer {
  name: "Convolution7"
  type: "Convolution"
  bottom: "Convolution6"
  top: "Convolution7"
  param {
    lr_mult: 1
    decay_mult: 1
  }
  param {
    lr_mult: 2
    decay_mult: 0
  }
  convolution_param {
    num_output: 16
    pad: 1
    kernel_size: 3
    stride: 1
    weight_filler {
      type: "gaussian"
      std: 0.118
    }
    bias_filler {
      type: "constant"
      value: 0
    }
  }
}
layer {
  name: "BatchNorm7"
  type: "BatchNorm"
  bottom: "Convolution7"
  top: "Convolution7"
  param {
    lr_mult: 0
    decay_mult: 0
  }
  param {
    lr_mult: 0
    decay_mult: 0
  }
  param {
    lr_mult: 0
    decay_mult: 0
  }
}
layer {
  name: "Scale7"
  type: "Scale"
  bottom: "Convolution7"
  top: "Convolution7"
  scale_param {
    bias_term: true
  }
}
layer {
  name: "Eltwise3"
  type: "Eltwise"
  bottom: "Eltwise2"
  bottom: "Convolution7"
  top: "Eltwise3"
  eltwise_param {
    operation: SUM
  }
}
layer {
  name: "penlu7"
  type: "PENLU"
  bottom: "Eltwise3"
  top: "Eltwise3"
  param {
    lr_mult: 2
    decay_mult: 0
  }
  param {
    lr_mult: 2
    decay_mult: 0
  }
  param {
    lr_mult: 0
    decay_mult: 0
  }
  penlu_param {
    alpha_filler {
      type: "constant"
      value: 2
    }
    beta_filler {
      type: "constant"
      value: 1
    }
    eta_filler {
      type: "constant"
      value: 1
    }
  }
}
layer {
  name: "Convolution8"
  type: "Convolution"
  bottom: "Eltwise3"
  top: "Convolution8"
  param {
    lr_mult: 1
    decay_mult: 1
  }
  param {
    lr_mult: 2
    decay_mult: 0
  }
  convolution_param {
    num_output: 16
    pad: 1
    kernel_size: 3
    stride: 1
    weight_filler {
      type: "gaussian"
      std: 0.118
    }
    bias_filler {
      type: "constant"
      value: 0
    }
  }
}
layer {
  name: "BatchNorm8"
  type: "BatchNorm"
  bottom: "Convolution8"
  top: "Convolution8"
  param {
    lr_mult: 0
    decay_mult: 0
  }
  param {
    lr_mult: 0
    decay_mult: 0
  }
  param {
    lr_mult: 0
    decay_mult: 0
  }
}
layer {
  name: "Scale8"
  type: "Scale"
  bottom: "Convolution8"
  top: "Convolution8"
  scale_param {
    bias_term: true
  }
}
layer {
  name: "penlu8"
  type: "PENLU"
  bottom: "Convolution8"
  top: "Convolution8"
  param {
    lr_mult: 2
    decay_mult: 0
  }
  param {
    lr_mult: 2
    decay_mult: 0
  }
  param {
    lr_mult: 0
    decay_mult: 0
  }
  penlu_param {
    alpha_filler {
      type: "constant"
      value: 2
    }
    beta_filler {
      type: "constant"
      value: 1
    }
    eta_filler {
      type: "constant"
      value: 1
    }
  }
}
layer {
  name: "Convolution9"
  type: "Convolution"
  bottom: "Convolution8"
  top: "Convolution9"
  param {
    lr_mult: 1
    decay_mult: 1
  }
  param {
    lr_mult: 2
    decay_mult: 0
  }
  convolution_param {
    num_output: 16
    pad: 1
    kernel_size: 3
    stride: 1
    weight_filler {
      type: "gaussian"
      std: 0.118
    }
    bias_filler {
      type: "constant"
      value: 0
    }
  }
}
layer {
  name: "BatchNorm9"
  type: "BatchNorm"
  bottom: "Convolution9"
  top: "Convolution9"
  param {
    lr_mult: 0
    decay_mult: 0
  }
  param {
    lr_mult: 0
    decay_mult: 0
  }
  param {
    lr_mult: 0
    decay_mult: 0
  }
}
layer {
  name: "Scale9"
  type: "Scale"
  bottom: "Convolution9"
  top: "Convolution9"
  scale_param {
    bias_term: true
  }
}
layer {
  name: "Eltwise4"
  type: "Eltwise"
  bottom: "Eltwise3"
  bottom: "Convolution9"
  top: "Eltwise4"
  eltwise_param {
    operation: SUM
  }
}
layer {
  name: "penlu9"
  type: "PENLU"
  bottom: "Eltwise4"
  top: "Eltwise4"
  param {
    lr_mult: 2
    decay_mult: 0
  }
  param {
    lr_mult: 2
    decay_mult: 0
  }
  param {
    lr_mult: 0
    decay_mult: 0
  }
  penlu_param {
    alpha_filler {
      type: "constant"
      value: 2
    }
    beta_filler {
      type: "constant"
      value: 1
    }
    eta_filler {
      type: "constant"
      value: 1
    }
  }
}
layer {
  name: "Convolution10"
  type: "Convolution"
  bottom: "Eltwise4"
  top: "Convolution10"
  param {
    lr_mult: 1
    decay_mult: 1
  }
  param {
    lr_mult: 2
    decay_mult: 0
  }
  convolution_param {
    num_output: 16
    pad: 1
    kernel_size: 3
    stride: 1
    weight_filler {
      type: "gaussian"
      std: 0.118
    }
    bias_filler {
      type: "constant"
      value: 0
    }
  }
}
layer {
  name: "BatchNorm10"
  type: "BatchNorm"
  bottom: "Convolution10"
  top: "Convolution10"
  param {
    lr_mult: 0
    decay_mult: 0
  }
  param {
    lr_mult: 0
    decay_mult: 0
  }
  param {
    lr_mult: 0
    decay_mult: 0
  }
}
layer {
  name: "Scale10"
  type: "Scale"
  bottom: "Convolution10"
  top: "Convolution10"
  scale_param {
    bias_term: true
  }
}
layer {
  name: "penlu10"
  type: "PENLU"
  bottom: "Convolution10"
  top: "Convolution10"
  param {
    lr_mult: 2
    decay_mult: 0
  }
  param {
    lr_mult: 2
    decay_mult: 0
  }
  param {
    lr_mult: 0
    decay_mult: 0
  }
  penlu_param {
    alpha_filler {
      type: "constant"
      value: 2
    }
    beta_filler {
      type: "constant"
      value: 1
    }
    eta_filler {
      type: "constant"
      value: 1
    }
  }
}
layer {
  name: "Convolution11"
  type: "Convolution"
  bottom: "Convolution10"
  top: "Convolution11"
  param {
    lr_mult: 1
    decay_mult: 1
  }
  param {
    lr_mult: 2
    decay_mult: 0
  }
  convolution_param {
    num_output: 16
    pad: 1
    kernel_size: 3
    stride: 1
    weight_filler {
      type: "gaussian"
      std: 0.118
    }
    bias_filler {
      type: "constant"
      value: 0
    }
  }
}
layer {
  name: "BatchNorm11"
  type: "BatchNorm"
  bottom: "Convolution11"
  top: "Convolution11"
  param {
    lr_mult: 0
    decay_mult: 0
  }
  param {
    lr_mult: 0
    decay_mult: 0
  }
  param {
    lr_mult: 0
    decay_mult: 0
  }
}
layer {
  name: "Scale11"
  type: "Scale"
  bottom: "Convolution11"
  top: "Convolution11"
  scale_param {
    bias_term: true
  }
}
layer {
  name: "Eltwise5"
  type: "Eltwise"
  bottom: "Eltwise4"
  bottom: "Convolution11"
  top: "Eltwise5"
  eltwise_param {
    operation: SUM
  }
}
layer {
  name: "penlu11"
  type: "PENLU"
  bottom: "Eltwise5"
  top: "Eltwise5"
  param {
    lr_mult: 2
    decay_mult: 0
  }
  param {
    lr_mult: 2
    decay_mult: 0
  }
  param {
    lr_mult: 0
    decay_mult: 0
  }
  penlu_param {
    alpha_filler {
      type: "constant"
      value: 2
    }
    beta_filler {
      type: "constant"
      value: 1
    }
    eta_filler {
      type: "constant"
      value: 1
    }
  }
}
layer {
  name: "Convolution12"
  type: "Convolution"
  bottom: "Eltwise5"
  top: "Convolution12"
  param {
    lr_mult: 1
    decay_mult: 1
  }
  param {
    lr_mult: 2
    decay_mult: 0
  }
  convolution_param {
    num_output: 16
    pad: 1
    kernel_size: 3
    stride: 1
    weight_filler {
      type: "gaussian"
      std: 0.118
    }
    bias_filler {
      type: "constant"
      value: 0
    }
  }
}
layer {
  name: "BatchNorm12"
  type: "BatchNorm"
  bottom: "Convolution12"
  top: "Convolution12"
  param {
    lr_mult: 0
    decay_mult: 0
  }
  param {
    lr_mult: 0
    decay_mult: 0
  }
  param {
    lr_mult: 0
    decay_mult: 0
  }
}
layer {
  name: "Scale12"
  type: "Scale"
  bottom: "Convolution12"
  top: "Convolution12"
  scale_param {
    bias_term: true
  }
}
layer {
  name: "penlu12"
  type: "PENLU"
  bottom: "Convolution12"
  top: "Convolution12"
  param {
    lr_mult: 2
    decay_mult: 0
  }
  param {
    lr_mult: 2
    decay_mult: 0
  }
  param {
    lr_mult: 0
    decay_mult: 0
  }
  penlu_param {
    alpha_filler {
      type: "constant"
      value: 2
    }
    beta_filler {
      type: "constant"
      value: 1
    }
    eta_filler {
      type: "constant"
      value: 1
    }
  }
}
layer {
  name: "Convolution13"
  type: "Convolution"
  bottom: "Convolution12"
  top: "Convolution13"
  param {
    lr_mult: 1
    decay_mult: 1
  }
  param {
    lr_mult: 2
    decay_mult: 0
  }
  convolution_param {
    num_output: 16
    pad: 1
    kernel_size: 3
    stride: 1
    weight_filler {
      type: "gaussian"
      std: 0.118
    }
    bias_filler {
      type: "constant"
      value: 0
    }
  }
}
layer {
  name: "BatchNorm13"
  type: "BatchNorm"
  bottom: "Convolution13"
  top: "Convolution13"
  param {
    lr_mult: 0
    decay_mult: 0
  }
  param {
    lr_mult: 0
    decay_mult: 0
  }
  param {
    lr_mult: 0
    decay_mult: 0
  }
}
layer {
  name: "Scale13"
  type: "Scale"
  bottom: "Convolution13"
  top: "Convolution13"
  scale_param {
    bias_term: true
  }
}
layer {
  name: "Eltwise6"
  type: "Eltwise"
  bottom: "Eltwise5"
  bottom: "Convolution13"
  top: "Eltwise6"
  eltwise_param {
    operation: SUM
  }
}
layer {
  name: "penlu13"
  type: "PENLU"
  bottom: "Eltwise6"
  top: "Eltwise6"
  param {
    lr_mult: 2
    decay_mult: 0
  }
  param {
    lr_mult: 2
    decay_mult: 0
  }
  param {
    lr_mult: 0
    decay_mult: 0
  }
  penlu_param {
    alpha_filler {
      type: "constant"
      value: 2
    }
    beta_filler {
      type: "constant"
      value: 1
    }
    eta_filler {
      type: "constant"
      value: 1
    }
  }
}
layer {
  name: "Convolution14"
  type: "Convolution"
  bottom: "Eltwise6"
  top: "Convolution14"
  param {
    lr_mult: 1
    decay_mult: 1
  }
  param {
    lr_mult: 2
    decay_mult: 0
  }
  convolution_param {
    num_output: 16
    pad: 1
    kernel_size: 3
    stride: 1
    weight_filler {
      type: "gaussian"
      std: 0.118
    }
    bias_filler {
      type: "constant"
      value: 0
    }
  }
}
layer {
  name: "BatchNorm14"
  type: "BatchNorm"
  bottom: "Convolution14"
  top: "Convolution14"
  param {
    lr_mult: 0
    decay_mult: 0
  }
  param {
    lr_mult: 0
    decay_mult: 0
  }
  param {
    lr_mult: 0
    decay_mult: 0
  }
}
layer {
  name: "Scale14"
  type: "Scale"
  bottom: "Convolution14"
  top: "Convolution14"
  scale_param {
    bias_term: true
  }
}
layer {
  name: "penlu14"
  type: "PENLU"
  bottom: "Convolution14"
  top: "Convolution14"
  param {
    lr_mult: 2
    decay_mult: 0
  }
  param {
    lr_mult: 2
    decay_mult: 0
  }
  param {
    lr_mult: 0
    decay_mult: 0
  }
  penlu_param {
    alpha_filler {
      type: "constant"
      value: 2
    }
    beta_filler {
      type: "constant"
      value: 1
    }
    eta_filler {
      type: "constant"
      value: 1
    }
  }
}
layer {
  name: "Convolution15"
  type: "Convolution"
  bottom: "Convolution14"
  top: "Convolution15"
  param {
    lr_mult: 1
    decay_mult: 1
  }
  param {
    lr_mult: 2
    decay_mult: 0
  }
  convolution_param {
    num_output: 16
    pad: 1
    kernel_size: 3
    stride: 1
    weight_filler {
      type: "gaussian"
      std: 0.118
    }
    bias_filler {
      type: "constant"
      value: 0
    }
  }
}
layer {
  name: "BatchNorm15"
  type: "BatchNorm"
  bottom: "Convolution15"
  top: "Convolution15"
  param {
    lr_mult: 0
    decay_mult: 0
  }
  param {
    lr_mult: 0
    decay_mult: 0
  }
  param {
    lr_mult: 0
    decay_mult: 0
  }
}
layer {
  name: "Scale15"
  type: "Scale"
  bottom: "Convolution15"
  top: "Convolution15"
  scale_param {
    bias_term: true
  }
}
layer {
  name: "Eltwise7"
  type: "Eltwise"
  bottom: "Eltwise6"
  bottom: "Convolution15"
  top: "Eltwise7"
  eltwise_param {
    operation: SUM
  }
}
layer {
  name: "penlu15"
  type: "PENLU"
  bottom: "Eltwise7"
  top: "Eltwise7"
  param {
    lr_mult: 2
    decay_mult: 0
  }
  param {
    lr_mult: 2
    decay_mult: 0
  }
  param {
    lr_mult: 0
    decay_mult: 0
  }
  penlu_param {
    alpha_filler {
      type: "constant"
      value: 2
    }
    beta_filler {
      type: "constant"
      value: 1
    }
    eta_filler {
      type: "constant"
      value: 1
    }
  }
}
layer {
  name: "Convolution16"
  type: "Convolution"
  bottom: "Eltwise7"
  top: "Convolution16"
  param {
    lr_mult: 1
    decay_mult: 1
  }
  param {
    lr_mult: 2
    decay_mult: 0
  }
  convolution_param {
    num_output: 16
    pad: 1
    kernel_size: 3
    stride: 1
    weight_filler {
      type: "gaussian"
      std: 0.118
    }
    bias_filler {
      type: "constant"
      value: 0
    }
  }
}
layer {
  name: "BatchNorm16"
  type: "BatchNorm"
  bottom: "Convolution16"
  top: "Convolution16"
  param {
    lr_mult: 0
    decay_mult: 0
  }
  param {
    lr_mult: 0
    decay_mult: 0
  }
  param {
    lr_mult: 0
    decay_mult: 0
  }
}
layer {
  name: "Scale16"
  type: "Scale"
  bottom: "Convolution16"
  top: "Convolution16"
  scale_param {
    bias_term: true
  }
}
layer {
  name: "penlu16"
  type: "PENLU"
  bottom: "Convolution16"
  top: "Convolution16"
  param {
    lr_mult: 2
    decay_mult: 0
  }
  param {
    lr_mult: 2
    decay_mult: 0
  }
  param {
    lr_mult: 0
    decay_mult: 0
  }
  penlu_param {
    alpha_filler {
      type: "constant"
      value: 2
    }
    beta_filler {
      type: "constant"
      value: 1
    }
    eta_filler {
      type: "constant"
      value: 1
    }
  }
}
layer {
  name: "Convolution17"
  type: "Convolution"
  bottom: "Convolution16"
  top: "Convolution17"
  param {
    lr_mult: 1
    decay_mult: 1
  }
  param {
    lr_mult: 2
    decay_mult: 0
  }
  convolution_param {
    num_output: 16
    pad: 1
    kernel_size: 3
    stride: 1
    weight_filler {
      type: "gaussian"
      std: 0.118
    }
    bias_filler {
      type: "constant"
      value: 0
    }
  }
}
layer {
  name: "BatchNorm17"
  type: "BatchNorm"
  bottom: "Convolution17"
  top: "Convolution17"
  param {
    lr_mult: 0
    decay_mult: 0
  }
  param {
    lr_mult: 0
    decay_mult: 0
  }
  param {
    lr_mult: 0
    decay_mult: 0
  }
}
layer {
  name: "Scale17"
  type: "Scale"
  bottom: "Convolution17"
  top: "Convolution17"
  scale_param {
    bias_term: true
  }
}
layer {
  name: "Eltwise8"
  type: "Eltwise"
  bottom: "Eltwise7"
  bottom: "Convolution17"
  top: "Eltwise8"
  eltwise_param {
    operation: SUM
  }
}
layer {
  name: "penlu17"
  type: "PENLU"
  bottom: "Eltwise8"
  top: "Eltwise8"
  param {
    lr_mult: 2
    decay_mult: 0
  }
  param {
    lr_mult: 2
    decay_mult: 0
  }
  param {
    lr_mult: 0
    decay_mult: 0
  }
  penlu_param {
    alpha_filler {
      type: "constant"
      value: 2
    }
    beta_filler {
      type: "constant"
      value: 1
    }
    eta_filler {
      type: "constant"
      value: 1
    }
  }
}
layer {
  name: "Convolution18"
  type: "Convolution"
  bottom: "Eltwise8"
  top: "Convolution18"
  param {
    lr_mult: 1
    decay_mult: 1
  }
  param {
    lr_mult: 2
    decay_mult: 0
  }
  convolution_param {
    num_output: 16
    pad: 1
    kernel_size: 3
    stride: 1
    weight_filler {
      type: "gaussian"
      std: 0.118
    }
    bias_filler {
      type: "constant"
      value: 0
    }
  }
}
layer {
  name: "BatchNorm18"
  type: "BatchNorm"
  bottom: "Convolution18"
  top: "Convolution18"
  param {
    lr_mult: 0
    decay_mult: 0
  }
  param {
    lr_mult: 0
    decay_mult: 0
  }
  param {
    lr_mult: 0
    decay_mult: 0
  }
}
layer {
  name: "Scale18"
  type: "Scale"
  bottom: "Convolution18"
  top: "Convolution18"
  scale_param {
    bias_term: true
  }
}
layer {
  name: "penlu18"
  type: "PENLU"
  bottom: "Convolution18"
  top: "Convolution18"
  param {
    lr_mult: 2
    decay_mult: 0
  }
  param {
    lr_mult: 2
    decay_mult: 0
  }
  param {
    lr_mult: 0
    decay_mult: 0
  }
  penlu_param {
    alpha_filler {
      type: "constant"
      value: 2
    }
    beta_filler {
      type: "constant"
      value: 1
    }
    eta_filler {
      type: "constant"
      value: 1
    }
  }
}
layer {
  name: "Convolution19"
  type: "Convolution"
  bottom: "Convolution18"
  top: "Convolution19"
  param {
    lr_mult: 1
    decay_mult: 1
  }
  param {
    lr_mult: 2
    decay_mult: 0
  }
  convolution_param {
    num_output: 16
    pad: 1
    kernel_size: 3
    stride: 1
    weight_filler {
      type: "gaussian"
      std: 0.118
    }
    bias_filler {
      type: "constant"
      value: 0
    }
  }
}
layer {
  name: "BatchNorm19"
  type: "BatchNorm"
  bottom: "Convolution19"
  top: "Convolution19"
  param {
    lr_mult: 0
    decay_mult: 0
  }
  param {
    lr_mult: 0
    decay_mult: 0
  }
  param {
    lr_mult: 0
    decay_mult: 0
  }
}
layer {
  name: "Scale19"
  type: "Scale"
  bottom: "Convolution19"
  top: "Convolution19"
  scale_param {
    bias_term: true
  }
}
layer {
  name: "Eltwise9"
  type: "Eltwise"
  bottom: "Eltwise8"
  bottom: "Convolution19"
  top: "Eltwise9"
  eltwise_param {
    operation: SUM
  }
}
layer {
  name: "penlu19"
  type: "PENLU"
  bottom: "Eltwise9"
  top: "Eltwise9"
  param {
    lr_mult: 2
    decay_mult: 0
  }
  param {
    lr_mult: 2
    decay_mult: 0
  }
  param {
    lr_mult: 0
    decay_mult: 0
  }
  penlu_param {
    alpha_filler {
      type: "constant"
      value: 2
    }
    beta_filler {
      type: "constant"
      value: 1
    }
    eta_filler {
      type: "constant"
      value: 1
    }
  }
}
layer {
  name: "Convolution20"
  type: "Convolution"
  bottom: "Eltwise9"
  top: "Convolution20"
  param {
    lr_mult: 1
    decay_mult: 1
  }
  param {
    lr_mult: 2
    decay_mult: 0
  }
  convolution_param {
    num_output: 32
    pad: 0
    kernel_size: 1
    stride: 2
    weight_filler {
      type: "gaussian"
      std: 0.25
    }
    bias_filler {
      type: "constant"
      value: 0
    }
  }
}
layer {
  name: "BatchNorm20"
  type: "BatchNorm"
  bottom: "Convolution20"
  top: "Convolution20"
  param {
    lr_mult: 0
    decay_mult: 0
  }
  param {
    lr_mult: 0
    decay_mult: 0
  }
  param {
    lr_mult: 0
    decay_mult: 0
  }
}
layer {
  name: "Scale20"
  type: "Scale"
  bottom: "Convolution20"
  top: "Convolution20"
  scale_param {
    bias_term: true
  }
}
layer {
  name: "Convolution21"
  type: "Convolution"
  bottom: "Eltwise9"
  top: "Convolution21"
  param {
    lr_mult: 1
    decay_mult: 1
  }
  param {
    lr_mult: 2
    decay_mult: 0
  }
  convolution_param {
    num_output: 32
    pad: 1
    kernel_size: 3
    stride: 2
    weight_filler {
      type: "gaussian"
      std: 0.083
    }
    bias_filler {
      type: "constant"
      value: 0
    }
  }
}
layer {
  name: "BatchNorm21"
  type: "BatchNorm"
  bottom: "Convolution21"
  top: "Convolution21"
  param {
    lr_mult: 0
    decay_mult: 0
  }
  param {
    lr_mult: 0
    decay_mult: 0
  }
  param {
    lr_mult: 0
    decay_mult: 0
  }
}
layer {
  name: "Scale21"
  type: "Scale"
  bottom: "Convolution21"
  top: "Convolution21"
  scale_param {
    bias_term: true
  }
}
layer {
  name: "penlu20"
  type: "PENLU"
  bottom: "Convolution21"
  top: "Convolution21"
  param {
    lr_mult: 2
    decay_mult: 0
  }
  param {
    lr_mult: 2
    decay_mult: 0
  }
  param {
    lr_mult: 0
    decay_mult: 0
  }
  penlu_param {
    alpha_filler {
      type: "constant"
      value: 2
    }
    beta_filler {
      type: "constant"
      value: 1
    }
    eta_filler {
      type: "constant"
      value: 1
    }
  }
}
layer {
  name: "Convolution22"
  type: "Convolution"
  bottom: "Convolution21"
  top: "Convolution22"
  param {
    lr_mult: 1
    decay_mult: 1
  }
  param {
    lr_mult: 2
    decay_mult: 0
  }
  convolution_param {
    num_output: 32
    pad: 1
    kernel_size: 3
    stride: 1
    weight_filler {
      type: "gaussian"
      std: 0.083
    }
    bias_filler {
      type: "constant"
      value: 0
    }
  }
}
layer {
  name: "BatchNorm22"
  type: "BatchNorm"
  bottom: "Convolution22"
  top: "Convolution22"
  param {
    lr_mult: 0
    decay_mult: 0
  }
  param {
    lr_mult: 0
    decay_mult: 0
  }
  param {
    lr_mult: 0
    decay_mult: 0
  }
}
layer {
  name: "Scale22"
  type: "Scale"
  bottom: "Convolution22"
  top: "Convolution22"
  scale_param {
    bias_term: true
  }
}
layer {
  name: "Eltwise10"
  type: "Eltwise"
  bottom: "Convolution20"
  bottom: "Convolution22"
  top: "Eltwise10"
  eltwise_param {
    operation: SUM
  }
}
layer {
  name: "penlu21"
  type: "PENLU"
  bottom: "Eltwise10"
  top: "Eltwise10"
  param {
    lr_mult: 2
    decay_mult: 0
  }
  param {
    lr_mult: 2
    decay_mult: 0
  }
  param {
    lr_mult: 0
    decay_mult: 0
  }
  penlu_param {
    alpha_filler {
      type: "constant"
      value: 2
    }
    beta_filler {
      type: "constant"
      value: 1
    }
    eta_filler {
      type: "constant"
      value: 1
    }
  }
}
layer {
  name: "Convolution23"
  type: "Convolution"
  bottom: "Eltwise10"
  top: "Convolution23"
  param {
    lr_mult: 1
    decay_mult: 1
  }
  param {
    lr_mult: 2
    decay_mult: 0
  }
  convolution_param {
    num_output: 32
    pad: 1
    kernel_size: 3
    stride: 1
    weight_filler {
      type: "gaussian"
      std: 0.083
    }
    bias_filler {
      type: "constant"
      value: 0
    }
  }
}
layer {
  name: "BatchNorm23"
  type: "BatchNorm"
  bottom: "Convolution23"
  top: "Convolution23"
  param {
    lr_mult: 0
    decay_mult: 0
  }
  param {
    lr_mult: 0
    decay_mult: 0
  }
  param {
    lr_mult: 0
    decay_mult: 0
  }
}
layer {
  name: "Scale23"
  type: "Scale"
  bottom: "Convolution23"
  top: "Convolution23"
  scale_param {
    bias_term: true
  }
}
layer {
  name: "penlu22"
  type: "PENLU"
  bottom: "Convolution23"
  top: "Convolution23"
  param {
    lr_mult: 2
    decay_mult: 0
  }
  param {
    lr_mult: 2
    decay_mult: 0
  }
  param {
    lr_mult: 0
    decay_mult: 0
  }
  penlu_param {
    alpha_filler {
      type: "constant"
      value: 2
    }
    beta_filler {
      type: "constant"
      value: 1
    }
    eta_filler {
      type: "constant"
      value: 1
    }
  }
}
layer {
  name: "Convolution24"
  type: "Convolution"
  bottom: "Convolution23"
  top: "Convolution24"
  param {
    lr_mult: 1
    decay_mult: 1
  }
  param {
    lr_mult: 2
    decay_mult: 0
  }
  convolution_param {
    num_output: 32
    pad: 1
    kernel_size: 3
    stride: 1
    weight_filler {
      type: "gaussian"
      std
I0928 19:59:16.951336  5237 layer_factory.hpp:77] Creating layer Data1
I0928 19:59:16.951409  5237 db_lmdb.cpp:35] Opened lmdb /home/x306/caffe/xn/PENLU/data/cifar10/cifar10_train_lmdb
I0928 19:59:16.951428  5237 net.cpp:84] Creating Layer Data1
I0928 19:59:16.951433  5237 net.cpp:380] Data1 -> Data1
I0928 19:59:16.951452  5237 net.cpp:380] Data1 -> Data2
I0928 19:59:16.951459  5237 data_transformer.cpp:25] Loading mean file from: /home/x306/caffe/xn/PENLU/data/cifar10/mean.binaryproto
I0928 19:59:16.952881  5237 data_layer.cpp:45] output data size: 100,3,28,28
I0928 19:59:16.955180  5237 net.cpp:122] Setting up Data1
I0928 19:59:16.955194  5237 net.cpp:129] Top shape: 100 3 28 28 (235200)
I0928 19:59:16.955199  5237 net.cpp:129] Top shape: 100 (100)
I0928 19:59:16.955200  5237 net.cpp:137] Memory required for data: 941200
I0928 19:59:16.955206  5237 layer_factory.hpp:77] Creating layer Convolution1
I0928 19:59:16.955224  5237 net.cpp:84] Creating Layer Convolution1
I0928 19:59:16.955229  5237 net.cpp:406] Convolution1 <- Data1
I0928 19:59:16.955237  5237 net.cpp:380] Convolution1 -> Convolution1
I0928 19:59:17.101800  5237 net.cpp:122] Setting up Convolution1
I0928 19:59:17.101824  5237 net.cpp:129] Top shape: 100 16 28 28 (1254400)
I0928 19:59:17.101828  5237 net.cpp:137] Memory required for data: 5958800
I0928 19:59:17.101843  5237 layer_factory.hpp:77] Creating layer BatchNorm1
I0928 19:59:17.101867  5237 net.cpp:84] Creating Layer BatchNorm1
I0928 19:59:17.101893  5237 net.cpp:406] BatchNorm1 <- Convolution1
I0928 19:59:17.101909  5237 net.cpp:367] BatchNorm1 -> Convolution1 (in-place)
I0928 19:59:17.102066  5237 net.cpp:122] Setting up BatchNorm1
I0928 19:59:17.102071  5237 net.cpp:129] Top shape: 100 16 28 28 (1254400)
I0928 19:59:17.102072  5237 net.cpp:137] Memory required for data: 10976400
I0928 19:59:17.102080  5237 layer_factory.hpp:77] Creating layer Scale1
I0928 19:59:17.102103  5237 net.cpp:84] Creating Layer Scale1
I0928 19:59:17.102107  5237 net.cpp:406] Scale1 <- Convolution1
I0928 19:59:17.102119  5237 net.cpp:367] Scale1 -> Convolution1 (in-place)
I0928 19:59:17.102181  5237 layer_factory.hpp:77] Creating layer Scale1
I0928 19:59:17.102315  5237 net.cpp:122] Setting up Scale1
I0928 19:59:17.102319  5237 net.cpp:129] Top shape: 100 16 28 28 (1254400)
I0928 19:59:17.102331  5237 net.cpp:137] Memory required for data: 15994000
I0928 19:59:17.102336  5237 layer_factory.hpp:77] Creating layer penlu1
I0928 19:59:17.102355  5237 net.cpp:84] Creating Layer penlu1
I0928 19:59:17.102358  5237 net.cpp:406] penlu1 <- Convolution1
I0928 19:59:17.102362  5237 net.cpp:367] penlu1 -> Convolution1 (in-place)
I0928 19:59:17.102982  5237 net.cpp:122] Setting up penlu1
I0928 19:59:17.102991  5237 net.cpp:129] Top shape: 100 16 28 28 (1254400)
I0928 19:59:17.103004  5237 net.cpp:137] Memory required for data: 21011600
I0928 19:59:17.103011  5237 layer_factory.hpp:77] Creating layer Convolution1_penlu1_0_split
I0928 19:59:17.103016  5237 net.cpp:84] Creating Layer Convolution1_penlu1_0_split
I0928 19:59:17.103034  5237 net.cpp:406] Convolution1_penlu1_0_split <- Convolution1
I0928 19:59:17.103037  5237 net.cpp:380] Convolution1_penlu1_0_split -> Convolution1_penlu1_0_split_0
I0928 19:59:17.103044  5237 net.cpp:380] Convolution1_penlu1_0_split -> Convolution1_penlu1_0_split_1
I0928 19:59:17.103080  5237 net.cpp:122] Setting up Convolution1_penlu1_0_split
I0928 19:59:17.103085  5237 net.cpp:129] Top shape: 100 16 28 28 (1254400)
I0928 19:59:17.103096  5237 net.cpp:129] Top shape: 100 16 28 28 (1254400)
I0928 19:59:17.103098  5237 net.cpp:137] Memory required for data: 31046800
I0928 19:59:17.103101  5237 layer_factory.hpp:77] Creating layer Convolution2
I0928 19:59:17.103117  5237 net.cpp:84] Creating Layer Convolution2
I0928 19:59:17.103119  5237 net.cpp:406] Convolution2 <- Convolution1_penlu1_0_split_0
I0928 19:59:17.103123  5237 net.cpp:380] Convolution2 -> Convolution2
I0928 19:59:17.103996  5237 net.cpp:122] Setting up Convolution2
I0928 19:59:17.104007  5237 net.cpp:129] Top shape: 100 16 28 28 (1254400)
I0928 19:59:17.104019  5237 net.cpp:137] Memory required for data: 36064400
I0928 19:59:17.104024  5237 layer_factory.hpp:77] Creating layer BatchNorm2
I0928 19:59:17.104029  5237 net.cpp:84] Creating Layer BatchNorm2
I0928 19:59:17.104032  5237 net.cpp:406] BatchNorm2 <- Convolution2
I0928 19:59:17.104037  5237 net.cpp:367] BatchNorm2 -> Convolution2 (in-place)
I0928 19:59:17.104171  5237 net.cpp:122] Setting up BatchNorm2
I0928 19:59:17.104176  5237 net.cpp:129] Top shape: 100 16 28 28 (1254400)
I0928 19:59:17.104188  5237 net.cpp:137] Memory required for data: 41082000
I0928 19:59:17.104193  5237 layer_factory.hpp:77] Creating layer Scale2
I0928 19:59:17.104198  5237 net.cpp:84] Creating Layer Scale2
I0928 19:59:17.104210  5237 net.cpp:406] Scale2 <- Convolution2
I0928 19:59:17.104215  5237 net.cpp:367] Scale2 -> Convolution2 (in-place)
I0928 19:59:17.104259  5237 layer_factory.hpp:77] Creating layer Scale2
I0928 19:59:17.104357  5237 net.cpp:122] Setting up Scale2
I0928 19:59:17.104362  5237 net.cpp:129] Top shape: 100 16 28 28 (1254400)
I0928 19:59:17.104374  5237 net.cpp:137] Memory required for data: 46099600
I0928 19:59:17.104380  5237 layer_factory.hpp:77] Creating layer penlu2
I0928 19:59:17.104385  5237 net.cpp:84] Creating Layer penlu2
I0928 19:59:17.104398  5237 net.cpp:406] penlu2 <- Convolution2
I0928 19:59:17.104401  5237 net.cpp:367] penlu2 -> Convolution2 (in-place)
I0928 19:59:17.104506  5237 net.cpp:122] Setting up penlu2
I0928 19:59:17.104511  5237 net.cpp:129] Top shape: 100 16 28 28 (1254400)
I0928 19:59:17.104531  5237 net.cpp:137] Memory required for data: 51117200
I0928 19:59:17.104535  5237 layer_factory.hpp:77] Creating layer Convolution3
I0928 19:59:17.104542  5237 net.cpp:84] Creating Layer Convolution3
I0928 19:59:17.104554  5237 net.cpp:406] Convolution3 <- Convolution2
I0928 19:59:17.104558  5237 net.cpp:380] Convolution3 -> Convolution3
I0928 19:59:17.107545  5237 net.cpp:122] Setting up Convolution3
I0928 19:59:17.107558  5237 net.cpp:129] Top shape: 100 16 28 28 (1254400)
I0928 19:59:17.107560  5237 net.cpp:137] Memory required for data: 56134800
I0928 19:59:17.107565  5237 layer_factory.hpp:77] Creating layer BatchNorm3
I0928 19:59:17.107570  5237 net.cpp:84] Creating Layer BatchNorm3
I0928 19:59:17.107573  5237 net.cpp:406] BatchNorm3 <- Convolution3
I0928 19:59:17.107576  5237 net.cpp:367] BatchNorm3 -> Convolution3 (in-place)
I0928 19:59:17.107708  5237 net.cpp:122] Setting up BatchNorm3
I0928 19:59:17.107713  5237 net.cpp:129] Top shape: 100 16 28 28 (1254400)
I0928 19:59:17.107717  5237 net.cpp:137] Memory required for data: 61152400
I0928 19:59:17.107722  5237 layer_factory.hpp:77] Creating layer Scale3
I0928 19:59:17.107727  5237 net.cpp:84] Creating Layer Scale3
I0928 19:59:17.107728  5237 net.cpp:406] Scale3 <- Convolution3
I0928 19:59:17.107733  5237 net.cpp:367] Scale3 -> Convolution3 (in-place)
I0928 19:59:17.107756  5237 layer_factory.hpp:77] Creating layer Scale3
I0928 19:59:17.107830  5237 net.cpp:122] Setting up Scale3
I0928 19:59:17.107834  5237 net.cpp:129] Top shape: 100 16 28 28 (1254400)
I0928 19:59:17.107837  5237 net.cpp:137] Memory required for data: 66170000
I0928 19:59:17.107841  5237 layer_factory.hpp:77] Creating layer Eltwise1
I0928 19:59:17.107846  5237 net.cpp:84] Creating Layer Eltwise1
I0928 19:59:17.107849  5237 net.cpp:406] Eltwise1 <- Convolution1_penlu1_0_split_1
I0928 19:59:17.107852  5237 net.cpp:406] Eltwise1 <- Convolution3
I0928 19:59:17.107856  5237 net.cpp:380] Eltwise1 -> Eltwise1
I0928 19:59:17.107874  5237 net.cpp:122] Setting up Eltwise1
I0928 19:59:17.107878  5237 net.cpp:129] Top shape: 100 16 28 28 (1254400)
I0928 19:59:17.107882  5237 net.cpp:137] Memory required for data: 71187600
I0928 19:59:17.107883  5237 layer_factory.hpp:77] Creating layer penlu3
I0928 19:59:17.107888  5237 net.cpp:84] Creating Layer penlu3
I0928 19:59:17.107892  5237 net.cpp:406] penlu3 <- Eltwise1
I0928 19:59:17.107894  5237 net.cpp:367] penlu3 -> Eltwise1 (in-place)
I0928 19:59:17.108000  5237 net.cpp:122] Setting up penlu3
I0928 19:59:17.108005  5237 net.cpp:129] Top shape: 100 16 28 28 (1254400)
I0928 19:59:17.108007  5237 net.cpp:137] Memory required for data: 76205200
I0928 19:59:17.108011  5237 layer_factory.hpp:77] Creating layer Eltwise1_penlu3_0_split
I0928 19:59:17.108016  5237 net.cpp:84] Creating Layer Eltwise1_penlu3_0_split
I0928 19:59:17.108018  5237 net.cpp:406] Eltwise1_penlu3_0_split <- Eltwise1
I0928 19:59:17.108021  5237 net.cpp:380] Eltwise1_penlu3_0_split -> Eltwise1_penlu3_0_split_0
I0928 19:59:17.108026  5237 net.cpp:380] Eltwise1_penlu3_0_split -> Eltwise1_penlu3_0_split_1
I0928 19:59:17.108048  5237 net.cpp:122] Setting up Eltwise1_penlu3_0_split
I0928 19:59:17.108053  5237 net.cpp:129] Top shape: 100 16 28 28 (1254400)
I0928 19:59:17.108057  5237 net.cpp:129] Top shape: 100 16 28 28 (1254400)
I0928 19:59:17.108058  5237 net.cpp:137] Memory required for data: 86240400
I0928 19:59:17.108060  5237 layer_factory.hpp:77] Creating layer Convolution4
I0928 19:59:17.108067  5237 net.cpp:84] Creating Layer Convolution4
I0928 19:59:17.108070  5237 net.cpp:406] Convolution4 <- Eltwise1_penlu3_0_split_0
I0928 19:59:17.108074  5237 net.cpp:380] Convolution4 -> Convolution4
I0928 19:59:17.108961  5237 net.cpp:122] Setting up Convolution4
I0928 19:59:17.108971  5237 net.cpp:129] Top shape: 100 16 28 28 (1254400)
I0928 19:59:17.108974  5237 net.cpp:137] Memory required for data: 91258000
I0928 19:59:17.108978  5237 layer_factory.hpp:77] Creating layer BatchNorm4
I0928 19:59:17.108983  5237 net.cpp:84] Creating Layer BatchNorm4
I0928 19:59:17.109002  5237 net.cpp:406] BatchNorm4 <- Convolution4
I0928 19:59:17.109009  5237 net.cpp:367] BatchNorm4 -> Convolution4 (in-place)
I0928 19:59:17.109153  5237 net.cpp:122] Setting up BatchNorm4
I0928 19:59:17.109158  5237 net.cpp:129] Top shape: 100 16 28 28 (1254400)
I0928 19:59:17.109160  5237 net.cpp:137] Memory required for data: 96275600
I0928 19:59:17.109169  5237 layer_factory.hpp:77] Creating layer Scale4
I0928 19:59:17.109174  5237 net.cpp:84] Creating Layer Scale4
I0928 19:59:17.109175  5237 net.cpp:406] Scale4 <- Convolution4
I0928 19:59:17.109189  5237 net.cpp:367] Scale4 -> Convolution4 (in-place)
I0928 19:59:17.109223  5237 layer_factory.hpp:77] Creating layer Scale4
I0928 19:59:17.109310  5237 net.cpp:122] Setting up Scale4
I0928 19:59:17.109315  5237 net.cpp:129] Top shape: 100 16 28 28 (1254400)
I0928 19:59:17.109318  5237 net.cpp:137] Memory required for data: 101293200
I0928 19:59:17.109331  5237 layer_factory.hpp:77] Creating layer penlu4
I0928 19:59:17.109335  5237 net.cpp:84] Creating Layer penlu4
I0928 19:59:17.109338  5237 net.cpp:406] penlu4 <- Convolution4
I0928 19:59:17.109342  5237 net.cpp:367] penlu4 -> Convolution4 (in-place)
I0928 19:59:17.109448  5237 net.cpp:122] Setting up penlu4
I0928 19:59:17.109453  5237 net.cpp:129] Top shape: 100 16 28 28 (1254400)
I0928 19:59:17.109465  5237 net.cpp:137] Memory required for data: 106310800
I0928 19:59:17.109470  5237 layer_factory.hpp:77] Creating layer Convolution5
I0928 19:59:17.109478  5237 net.cpp:84] Creating Layer Convolution5
I0928 19:59:17.109480  5237 net.cpp:406] Convolution5 <- Convolution4
I0928 19:59:17.109485  5237 net.cpp:380] Convolution5 -> Convolution5
I0928 19:59:17.110342  5237 net.cpp:122] Setting up Convolution5
I0928 19:59:17.110352  5237 net.cpp:129] Top shape: 100 16 28 28 (1254400)
I0928 19:59:17.110364  5237 net.cpp:137] Memory required for data: 111328400
I0928 19:59:17.110369  5237 layer_factory.hpp:77] Creating layer BatchNorm5
I0928 19:59:17.110374  5237 net.cpp:84] Creating Layer BatchNorm5
I0928 19:59:17.110378  5237 net.cpp:406] BatchNorm5 <- Convolution5
I0928 19:59:17.110380  5237 net.cpp:367] BatchNorm5 -> Convolution5 (in-place)
I0928 19:59:17.110509  5237 net.cpp:122] Setting up BatchNorm5
I0928 19:59:17.110514  5237 net.cpp:129] Top shape: 100 16 28 28 (1254400)
I0928 19:59:17.110533  5237 net.cpp:137] Memory required for data: 116346000
I0928 19:59:17.110539  5237 layer_factory.hpp:77] Creating layer Scale5
I0928 19:59:17.110543  5237 net.cpp:84] Creating Layer Scale5
I0928 19:59:17.110546  5237 net.cpp:406] Scale5 <- Convolution5
I0928 19:59:17.110559  5237 net.cpp:367] Scale5 -> Convolution5 (in-place)
I0928 19:59:17.110585  5237 layer_factory.hpp:77] Creating layer Scale5
I0928 19:59:17.110657  5237 net.cpp:122] Setting up Scale5
I0928 19:59:17.110662  5237 net.cpp:129] Top shape: 100 16 28 28 (1254400)
I0928 19:59:17.110664  5237 net.cpp:137] Memory required for data: 121363600
I0928 19:59:17.110667  5237 layer_factory.hpp:77] Creating layer Eltwise2
I0928 19:59:17.110672  5237 net.cpp:84] Creating Layer Eltwise2
I0928 19:59:17.110676  5237 net.cpp:406] Eltwise2 <- Eltwise1_penlu3_0_split_1
I0928 19:59:17.110678  5237 net.cpp:406] Eltwise2 <- Convolution5
I0928 19:59:17.110682  5237 net.cpp:380] Eltwise2 -> Eltwise2
I0928 19:59:17.110697  5237 net.cpp:122] Setting up Eltwise2
I0928 19:59:17.110700  5237 net.cpp:129] Top shape: 100 16 28 28 (1254400)
I0928 19:59:17.110702  5237 net.cpp:137] Memory required for data: 126381200
I0928 19:59:17.110704  5237 layer_factory.hpp:77] Creating layer penlu5
I0928 19:59:17.110709  5237 net.cpp:84] Creating Layer penlu5
I0928 19:59:17.110713  5237 net.cpp:406] penlu5 <- Eltwise2
I0928 19:59:17.110716  5237 net.cpp:367] penlu5 -> Eltwise2 (in-place)
I0928 19:59:17.110816  5237 net.cpp:122] Setting up penlu5
I0928 19:59:17.110821  5237 net.cpp:129] Top shape: 100 16 28 28 (1254400)
I0928 19:59:17.110823  5237 net.cpp:137] Memory required for data: 131398800
I0928 19:59:17.110827  5237 layer_factory.hpp:77] Creating layer Eltwise2_penlu5_0_split
I0928 19:59:17.110839  5237 net.cpp:84] Creating Layer Eltwise2_penlu5_0_split
I0928 19:59:17.110842  5237 net.cpp:406] Eltwise2_penlu5_0_split <- Eltwise2
I0928 19:59:17.110846  5237 net.cpp:380] Eltwise2_penlu5_0_split -> Eltwise2_penlu5_0_split_0
I0928 19:59:17.110849  5237 net.cpp:380] Eltwise2_penlu5_0_split -> Eltwise2_penlu5_0_split_1
I0928 19:59:17.110870  5237 net.cpp:122] Setting up Eltwise2_penlu5_0_split
I0928 19:59:17.110875  5237 net.cpp:129] Top shape: 100 16 28 28 (1254400)
I0928 19:59:17.110877  5237 net.cpp:129] Top shape: 100 16 28 28 (1254400)
I0928 19:59:17.110879  5237 net.cpp:137] Memory required for data: 141434000
I0928 19:59:17.110882  5237 layer_factory.hpp:77] Creating layer Convolution6
I0928 19:59:17.110888  5237 net.cpp:84] Creating Layer Convolution6
I0928 19:59:17.110890  5237 net.cpp:406] Convolution6 <- Eltwise2_penlu5_0_split_0
I0928 19:59:17.110895  5237 net.cpp:380] Convolution6 -> Convolution6
I0928 19:59:17.111743  5237 net.cpp:122] Setting up Convolution6
I0928 19:59:17.111752  5237 net.cpp:129] Top shape: 100 16 28 28 (1254400)
I0928 19:59:17.111757  5237 net.cpp:137] Memory required for data: 146451600
I0928 19:59:17.111760  5237 layer_factory.hpp:77] Creating layer BatchNorm6
I0928 19:59:17.111766  5237 net.cpp:84] Creating Layer BatchNorm6
I0928 19:59:17.111769  5237 net.cpp:406] BatchNorm6 <- Convolution6
I0928 19:59:17.111773  5237 net.cpp:367] BatchNorm6 -> Convolution6 (in-place)
I0928 19:59:17.111896  5237 net.cpp:122] Setting up BatchNorm6
I0928 19:59:17.111901  5237 net.cpp:129] Top shape: 100 16 28 28 (1254400)
I0928 19:59:17.111904  5237 net.cpp:137] Memory required for data: 151469200
I0928 19:59:17.111909  5237 layer_factory.hpp:77] Creating layer Scale6
I0928 19:59:17.111913  5237 net.cpp:84] Creating Layer Scale6
I0928 19:59:17.111917  5237 net.cpp:406] Scale6 <- Convolution6
I0928 19:59:17.111919  5237 net.cpp:367] Scale6 -> Convolution6 (in-place)
I0928 19:59:17.111945  5237 layer_factory.hpp:77] Creating layer Scale6
I0928 19:59:17.112018  5237 net.cpp:122] Setting up Scale6
I0928 19:59:17.112022  5237 net.cpp:129] Top shape: 100 16 28 28 (1254400)
I0928 19:59:17.112026  5237 net.cpp:137] Memory required for data: 156486800
I0928 19:59:17.112030  5237 layer_factory.hpp:77] Creating layer penlu6
I0928 19:59:17.112036  5237 net.cpp:84] Creating Layer penlu6
I0928 19:59:17.112038  5237 net.cpp:406] penlu6 <- Convolution6
I0928 19:59:17.112042  5237 net.cpp:367] penlu6 -> Convolution6 (in-place)
I0928 19:59:17.112143  5237 net.cpp:122] Setting up penlu6
I0928 19:59:17.112148  5237 net.cpp:129] Top shape: 100 16 28 28 (1254400)
I0928 19:59:17.112149  5237 net.cpp:137] Memory required for data: 161504400
I0928 19:59:17.112154  5237 layer_factory.hpp:77] Creating layer Convolution7
I0928 19:59:17.112161  5237 net.cpp:84] Creating Layer Convolution7
I0928 19:59:17.112164  5237 net.cpp:406] Convolution7 <- Convolution6
I0928 19:59:17.112169  5237 net.cpp:380] Convolution7 -> Convolution7
I0928 19:59:17.112716  5237 net.cpp:122] Setting up Convolution7
I0928 19:59:17.112725  5237 net.cpp:129] Top shape: 100 16 28 28 (1254400)
I0928 19:59:17.112728  5237 net.cpp:137] Memory required for data: 166522000
I0928 19:59:17.112732  5237 layer_factory.hpp:77] Creating layer BatchNorm7
I0928 19:59:17.112738  5237 net.cpp:84] Creating Layer BatchNorm7
I0928 19:59:17.112741  5237 net.cpp:406] BatchNorm7 <- Convolution7
I0928 19:59:17.112746  5237 net.cpp:367] BatchNorm7 -> Convolution7 (in-place)
I0928 19:59:17.112871  5237 net.cpp:122] Setting up BatchNorm7
I0928 19:59:17.112876  5237 net.cpp:129] Top shape: 100 16 28 28 (1254400)
I0928 19:59:17.112879  5237 net.cpp:137] Memory required for data: 171539600
I0928 19:59:17.112888  5237 layer_factory.hpp:77] Creating layer Scale7
I0928 19:59:17.112895  5237 net.cpp:84] Creating Layer Scale7
I0928 19:59:17.112898  5237 net.cpp:406] Scale7 <- Convolution7
I0928 19:59:17.112902  5237 net.cpp:367] Scale7 -> Convolution7 (in-place)
I0928 19:59:17.112928  5237 layer_factory.hpp:77] Creating layer Scale7
I0928 19:59:17.113001  5237 net.cpp:122] Setting up Scale7
I0928 19:59:17.113013  5237 net.cpp:129] Top shape: 100 16 28 28 (1254400)
I0928 19:59:17.113016  5237 net.cpp:137] Memory required for data: 176557200
I0928 19:59:17.113020  5237 layer_factory.hpp:77] Creating layer Eltwise3
I0928 19:59:17.113025  5237 net.cpp:84] Creating Layer Eltwise3
I0928 19:59:17.113029  5237 net.cpp:406] Eltwise3 <- Eltwise2_penlu5_0_split_1
I0928 19:59:17.113031  5237 net.cpp:406] Eltwise3 <- Convolution7
I0928 19:59:17.113034  5237 net.cpp:380] Eltwise3 -> Eltwise3
I0928 19:59:17.113049  5237 net.cpp:122] Setting up Eltwise3
I0928 19:59:17.113054  5237 net.cpp:129] Top shape: 100 16 28 28 (1254400)
I0928 19:59:17.113055  5237 net.cpp:137] Memory required for data: 181574800
I0928 19:59:17.113059  5237 layer_factory.hpp:77] Creating layer penlu7
I0928 19:59:17.113065  5237 net.cpp:84] Creating Layer penlu7
I0928 19:59:17.113067  5237 net.cpp:406] penlu7 <- Eltwise3
I0928 19:59:17.113070  5237 net.cpp:367] penlu7 -> Eltwise3 (in-place)
I0928 19:59:17.113173  5237 net.cpp:122] Setting up penlu7
I0928 19:59:17.113178  5237 net.cpp:129] Top shape: 100 16 28 28 (1254400)
I0928 19:59:17.113181  5237 net.cpp:137] Memory required for data: 186592400
I0928 19:59:17.113185  5237 layer_factory.hpp:77] Creating layer Eltwise3_penlu7_0_split
I0928 19:59:17.113190  5237 net.cpp:84] Creating Layer Eltwise3_penlu7_0_split
I0928 19:59:17.113193  5237 net.cpp:406] Eltwise3_penlu7_0_split <- Eltwise3
I0928 19:59:17.113196  5237 net.cpp:380] Eltwise3_penlu7_0_split -> Eltwise3_penlu7_0_split_0
I0928 19:59:17.113200  5237 net.cpp:380] Eltwise3_penlu7_0_split -> Eltwise3_penlu7_0_split_1
I0928 19:59:17.113241  5237 net.cpp:122] Setting up Eltwise3_penlu7_0_split
I0928 19:59:17.113246  5237 net.cpp:129] Top shape: 100 16 28 28 (1254400)
I0928 19:59:17.113248  5237 net.cpp:129] Top shape: 100 16 28 28 (1254400)
I0928 19:59:17.113251  5237 net.cpp:137] Memory required for data: 196627600
I0928 19:59:17.113253  5237 layer_factory.hpp:77] Creating layer Convolution8
I0928 19:59:17.113260  5237 net.cpp:84] Creating Layer Convolution8
I0928 19:59:17.113263  5237 net.cpp:406] Convolution8 <- Eltwise3_penlu7_0_split_0
I0928 19:59:17.113266  5237 net.cpp:380] Convolution8 -> Convolution8
I0928 19:59:17.114253  5237 net.cpp:122] Setting up Convolution8
I0928 19:59:17.114264  5237 net.cpp:129] Top shape: 100 16 28 28 (1254400)
I0928 19:59:17.114266  5237 net.cpp:137] Memory required for data: 201645200
I0928 19:59:17.114271  5237 layer_factory.hpp:77] Creating layer BatchNorm8
I0928 19:59:17.114276  5237 net.cpp:84] Creating Layer BatchNorm8
I0928 19:59:17.114280  5237 net.cpp:406] BatchNorm8 <- Convolution8
I0928 19:59:17.114285  5237 net.cpp:367] BatchNorm8 -> Convolution8 (in-place)
I0928 19:59:17.114408  5237 net.cpp:122] Setting up BatchNorm8
I0928 19:59:17.114413  5237 net.cpp:129] Top shape: 100 16 28 28 (1254400)
I0928 19:59:17.114416  5237 net.cpp:137] Memory required for data: 206662800
I0928 19:59:17.114421  5237 layer_factory.hpp:77] Creating layer Scale8
I0928 19:59:17.114428  5237 net.cpp:84] Creating Layer Scale8
I0928 19:59:17.114430  5237 net.cpp:406] Scale8 <- Convolution8
I0928 19:59:17.114434  5237 net.cpp:367] Scale8 -> Convolution8 (in-place)
I0928 19:59:17.114459  5237 layer_factory.hpp:77] Creating layer Scale8
I0928 19:59:17.114547  5237 net.cpp:122] Setting up Scale8
I0928 19:59:17.114552  5237 net.cpp:129] Top shape: 100 16 28 28 (1254400)
I0928 19:59:17.114563  5237 net.cpp:137] Memory required for data: 211680400
I0928 19:59:17.114567  5237 layer_factory.hpp:77] Creating layer penlu8
I0928 19:59:17.114573  5237 net.cpp:84] Creating Layer penlu8
I0928 19:59:17.114576  5237 net.cpp:406] penlu8 <- Convolution8
I0928 19:59:17.114580  5237 net.cpp:367] penlu8 -> Convolution8 (in-place)
I0928 19:59:17.114681  5237 net.cpp:122] Setting up penlu8
I0928 19:59:17.114686  5237 net.cpp:129] Top shape: 100 16 28 28 (1254400)
I0928 19:59:17.114688  5237 net.cpp:137] Memory required for data: 216698000
I0928 19:59:17.114693  5237 layer_factory.hpp:77] Creating layer Convolution9
I0928 19:59:17.114707  5237 net.cpp:84] Creating Layer Convolution9
I0928 19:59:17.114711  5237 net.cpp:406] Convolution9 <- Convolution8
I0928 19:59:17.114714  5237 net.cpp:380] Convolution9 -> Convolution9
I0928 19:59:17.115725  5237 net.cpp:122] Setting up Convolution9
I0928 19:59:17.115736  5237 net.cpp:129] Top shape: 100 16 28 28 (1254400)
I0928 19:59:17.115738  5237 net.cpp:137] Memory required for data: 221715600
I0928 19:59:17.115742  5237 layer_factory.hpp:77] Creating layer BatchNorm9
I0928 19:59:17.115748  5237 net.cpp:84] Creating Layer BatchNorm9
I0928 19:59:17.115751  5237 net.cpp:406] BatchNorm9 <- Convolution9
I0928 19:59:17.115756  5237 net.cpp:367] BatchNorm9 -> Convolution9 (in-place)
I0928 19:59:17.115885  5237 net.cpp:122] Setting up BatchNorm9
I0928 19:59:17.115890  5237 net.cpp:129] Top shape: 100 16 28 28 (1254400)
I0928 19:59:17.115892  5237 net.cpp:137] Memory required for data: 226733200
I0928 19:59:17.115897  5237 layer_factory.hpp:77] Creating layer Scale9
I0928 19:59:17.115901  5237 net.cpp:84] Creating Layer Scale9
I0928 19:59:17.115905  5237 net.cpp:406] Scale9 <- Convolution9
I0928 19:59:17.115908  5237 net.cpp:367] Scale9 -> Convolution9 (in-place)
I0928 19:59:17.115933  5237 layer_factory.hpp:77] Creating layer Scale9
I0928 19:59:17.116014  5237 net.cpp:122] Setting up Scale9
I0928 19:59:17.116019  5237 net.cpp:129] Top shape: 100 16 28 28 (1254400)
I0928 19:59:17.116021  5237 net.cpp:137] Memory required for data: 231750800
I0928 19:59:17.116025  5237 layer_factory.hpp:77] Creating layer Eltwise4
I0928 19:59:17.116030  5237 net.cpp:84] Creating Layer Eltwise4
I0928 19:59:17.116034  5237 net.cpp:406] Eltwise4 <- Eltwise3_penlu7_0_split_1
I0928 19:59:17.116036  5237 net.cpp:406] Eltwise4 <- Convolution9
I0928 19:59:17.116040  5237 net.cpp:380] Eltwise4 -> Eltwise4
I0928 19:59:17.116056  5237 net.cpp:122] Setting up Eltwise4
I0928 19:59:17.116060  5237 net.cpp:129] Top shape: 100 16 28 28 (1254400)
I0928 19:59:17.116062  5237 net.cpp:137] Memory required for data: 236768400
I0928 19:59:17.116065  5237 layer_factory.hpp:77] Creating layer penlu9
I0928 19:59:17.116070  5237 net.cpp:84] Creating Layer penlu9
I0928 19:59:17.116072  5237 net.cpp:406] penlu9 <- Eltwise4
I0928 19:59:17.116076  5237 net.cpp:367] penlu9 -> Eltwise4 (in-place)
I0928 19:59:17.116181  5237 net.cpp:122] Setting up penlu9
I0928 19:59:17.116186  5237 net.cpp:129] Top shape: 100 16 28 28 (1254400)
I0928 19:59:17.116189  5237 net.cpp:137] Memory required for data: 241786000
I0928 19:59:17.116194  5237 layer_factory.hpp:77] Creating layer Eltwise4_penlu9_0_split
I0928 19:59:17.116197  5237 net.cpp:84] Creating Layer Eltwise4_penlu9_0_split
I0928 19:59:17.116200  5237 net.cpp:406] Eltwise4_penlu9_0_split <- Eltwise4
I0928 19:59:17.116204  5237 net.cpp:380] Eltwise4_penlu9_0_split -> Eltwise4_penlu9_0_split_0
I0928 19:59:17.116209  5237 net.cpp:380] Eltwise4_penlu9_0_split -> Eltwise4_penlu9_0_split_1
I0928 19:59:17.116230  5237 net.cpp:122] Setting up Eltwise4_penlu9_0_split
I0928 19:59:17.116235  5237 net.cpp:129] Top shape: 100 16 28 28 (1254400)
I0928 19:59:17.116237  5237 net.cpp:129] Top shape: 100 16 28 28 (1254400)
I0928 19:59:17.116240  5237 net.cpp:137] Memory required for data: 251821200
I0928 19:59:17.116241  5237 layer_factory.hpp:77] Creating layer Convolution10
I0928 19:59:17.116248  5237 net.cpp:84] Creating Layer Convolution10
I0928 19:59:17.116251  5237 net.cpp:406] Convolution10 <- Eltwise4_penlu9_0_split_0
I0928 19:59:17.116255  5237 net.cpp:380] Convolution10 -> Convolution10
I0928 19:59:17.117133  5237 net.cpp:122] Setting up Convolution10
I0928 19:59:17.117143  5237 net.cpp:129] Top shape: 100 16 28 28 (1254400)
I0928 19:59:17.117146  5237 net.cpp:137] Memory required for data: 256838800
I0928 19:59:17.117151  5237 layer_factory.hpp:77] Creating layer BatchNorm10
I0928 19:59:17.117156  5237 net.cpp:84] Creating Layer BatchNorm10
I0928 19:59:17.117159  5237 net.cpp:406] BatchNorm10 <- Convolution10
I0928 19:59:17.117163  5237 net.cpp:367] BatchNorm10 -> Convolution10 (in-place)
I0928 19:59:17.117290  5237 net.cpp:122] Setting up BatchNorm10
I0928 19:59:17.117301  5237 net.cpp:129] Top shape: 100 16 28 28 (1254400)
I0928 19:59:17.117305  5237 net.cpp:137] Memory required for data: 261856400
I0928 19:59:17.117310  5237 layer_factory.hpp:77] Creating layer Scale10
I0928 19:59:17.117314  5237 net.cpp:84] Creating Layer Scale10
I0928 19:59:17.117318  5237 net.cpp:406] Scale10 <- Convolution10
I0928 19:59:17.117322  5237 net.cpp:367] Scale10 -> Convolution10 (in-place)
I0928 19:59:17.117347  5237 layer_factory.hpp:77] Creating layer Scale10
I0928 19:59:17.117422  5237 net.cpp:122] Setting up Scale10
I0928 19:59:17.117427  5237 net.cpp:129] Top shape: 100 16 28 28 (1254400)
I0928 19:59:17.117430  5237 net.cpp:137] Memory required for data: 266874000
I0928 19:59:17.117434  5237 layer_factory.hpp:77] Creating layer penlu10
I0928 19:59:17.117441  5237 net.cpp:84] Creating Layer penlu10
I0928 19:59:17.117444  5237 net.cpp:406] penlu10 <- Convolution10
I0928 19:59:17.117449  5237 net.cpp:367] penlu10 -> Convolution10 (in-place)
I0928 19:59:17.117553  5237 net.cpp:122] Setting up penlu10
I0928 19:59:17.117559  5237 net.cpp:129] Top shape: 100 16 28 28 (1254400)
I0928 19:59:17.117561  5237 net.cpp:137] Memory required for data: 271891600
I0928 19:59:17.117566  5237 layer_factory.hpp:77] Creating layer Convolution11
I0928 19:59:17.117575  5237 net.cpp:84] Creating Layer Convolution11
I0928 19:59:17.117578  5237 net.cpp:406] Convolution11 <- Convolution10
I0928 19:59:17.117583  5237 net.cpp:380] Convolution11 -> Convolution11
I0928 19:59:17.118463  5237 net.cpp:122] Setting up Convolution11
I0928 19:59:17.118474  5237 net.cpp:129] Top shape: 100 16 28 28 (1254400)
I0928 19:59:17.118477  5237 net.cpp:137] Memory required for data: 276909200
I0928 19:59:17.118481  5237 layer_factory.hpp:77] Creating layer BatchNorm11
I0928 19:59:17.118487  5237 net.cpp:84] Creating Layer BatchNorm11
I0928 19:59:17.118490  5237 net.cpp:406] BatchNorm11 <- Convolution11
I0928 19:59:17.118494  5237 net.cpp:367] BatchNorm11 -> Convolution11 (in-place)
I0928 19:59:17.118655  5237 net.cpp:122] Setting up BatchNorm11
I0928 19:59:17.118661  5237 net.cpp:129] Top shape: 100 16 28 28 (1254400)
I0928 19:59:17.118664  5237 net.cpp:137] Memory required for data: 281926800
I0928 19:59:17.118669  5237 layer_factory.hpp:77] Creating layer Scale11
I0928 19:59:17.118674  5237 net.cpp:84] Creating Layer Scale11
I0928 19:59:17.118676  5237 net.cpp:406] Scale11 <- Convolution11
I0928 19:59:17.118681  5237 net.cpp:367] Scale11 -> Convolution11 (in-place)
I0928 19:59:17.118706  5237 layer_factory.hpp:77] Creating layer Scale11
I0928 19:59:17.118783  5237 net.cpp:122] Setting up Scale11
I0928 19:59:17.118788  5237 net.cpp:129] Top shape: 100 16 28 28 (1254400)
I0928 19:59:17.118790  5237 net.cpp:137] Memory required for data: 286944400
I0928 19:59:17.118794  5237 layer_factory.hpp:77] Creating layer Eltwise5
I0928 19:59:17.118798  5237 net.cpp:84] Creating Layer Eltwise5
I0928 19:59:17.118801  5237 net.cpp:406] Eltwise5 <- Eltwise4_penlu9_0_split_1
I0928 19:59:17.118804  5237 net.cpp:406] Eltwise5 <- Convolution11
I0928 19:59:17.118808  5237 net.cpp:380] Eltwise5 -> Eltwise5
I0928 19:59:17.118824  5237 net.cpp:122] Setting up Eltwise5
I0928 19:59:17.118829  5237 net.cpp:129] Top shape: 100 16 28 28 (1254400)
I0928 19:59:17.118831  5237 net.cpp:137] Memory required for data: 291962000
I0928 19:59:17.118834  5237 layer_factory.hpp:77] Creating layer penlu11
I0928 19:59:17.118837  5237 net.cpp:84] Creating Layer penlu11
I0928 19:59:17.118840  5237 net.cpp:406] penlu11 <- Eltwise5
I0928 19:59:17.118844  5237 net.cpp:367] penlu11 -> Eltwise5 (in-place)
I0928 19:59:17.118953  5237 net.cpp:122] Setting up penlu11
I0928 19:59:17.118958  5237 net.cpp:129] Top shape: 100 16 28 28 (1254400)
I0928 19:59:17.118960  5237 net.cpp:137] Memory required for data: 296979600
I0928 19:59:17.118965  5237 layer_factory.hpp:77] Creating layer Eltwise5_penlu11_0_split
I0928 19:59:17.118969  5237 net.cpp:84] Creating Layer Eltwise5_penlu11_0_split
I0928 19:59:17.118971  5237 net.cpp:406] Eltwise5_penlu11_0_split <- Eltwise5
I0928 19:59:17.118983  5237 net.cpp:380] Eltwise5_penlu11_0_split -> Eltwise5_penlu11_0_split_0
I0928 19:59:17.118988  5237 net.cpp:380] Eltwise5_penlu11_0_split -> Eltwise5_penlu11_0_split_1
I0928 19:59:17.119012  5237 net.cpp:122] Setting up Eltwise5_penlu11_0_split
I0928 19:59:17.119016  5237 net.cpp:129] Top shape: 100 16 28 28 (1254400)
I0928 19:59:17.119019  5237 net.cpp:129] Top shape: 100 16 28 28 (1254400)
I0928 19:59:17.119022  5237 net.cpp:137] Memory required for data: 307014800
I0928 19:59:17.119024  5237 layer_factory.hpp:77] Creating layer Convolution12
I0928 19:59:17.119031  5237 net.cpp:84] Creating Layer Convolution12
I0928 19:59:17.119035  5237 net.cpp:406] Convolution12 <- Eltwise5_penlu11_0_split_0
I0928 19:59:17.119038  5237 net.cpp:380] Convolution12 -> Convolution12
I0928 19:59:17.119922  5237 net.cpp:122] Setting up Convolution12
I0928 19:59:17.119932  5237 net.cpp:129] Top shape: 100 16 28 28 (1254400)
I0928 19:59:17.119935  5237 net.cpp:137] Memory required for data: 312032400
I0928 19:59:17.119940  5237 layer_factory.hpp:77] Creating layer BatchNorm12
I0928 19:59:17.119946  5237 net.cpp:84] Creating Layer BatchNorm12
I0928 19:59:17.119948  5237 net.cpp:406] BatchNorm12 <- Convolution12
I0928 19:59:17.119952  5237 net.cpp:367] BatchNorm12 -> Convolution12 (in-place)
I0928 19:59:17.120082  5237 net.cpp:122] Setting up BatchNorm12
I0928 19:59:17.120088  5237 net.cpp:129] Top shape: 100 16 28 28 (1254400)
I0928 19:59:17.120090  5237 net.cpp:137] Memory required for data: 317050000
I0928 19:59:17.120095  5237 layer_factory.hpp:77] Creating layer Scale12
I0928 19:59:17.120100  5237 net.cpp:84] Creating Layer Scale12
I0928 19:59:17.120103  5237 net.cpp:406] Scale12 <- Convolution12
I0928 19:59:17.120106  5237 net.cpp:367] Scale12 -> Convolution12 (in-place)
I0928 19:59:17.120136  5237 layer_factory.hpp:77] Creating layer Scale12
I0928 19:59:17.120213  5237 net.cpp:122] Setting up Scale12
I0928 19:59:17.120218  5237 net.cpp:129] Top shape: 100 16 28 28 (1254400)
I0928 19:59:17.120221  5237 net.cpp:137] Memory required for data: 322067600
I0928 19:59:17.120225  5237 layer_factory.hpp:77] Creating layer penlu12
I0928 19:59:17.120230  5237 net.cpp:84] Creating Layer penlu12
I0928 19:59:17.120234  5237 net.cpp:406] penlu12 <- Convolution12
I0928 19:59:17.120237  5237 net.cpp:367] penlu12 -> Convolution12 (in-place)
I0928 19:59:17.120344  5237 net.cpp:122] Setting up penlu12
I0928 19:59:17.120349  5237 net.cpp:129] Top shape: 100 16 28 28 (1254400)
I0928 19:59:17.120352  5237 net.cpp:137] Memory required for data: 327085200
I0928 19:59:17.120357  5237 layer_factory.hpp:77] Creating layer Convolution13
I0928 19:59:17.120364  5237 net.cpp:84] Creating Layer Convolution13
I0928 19:59:17.120368  5237 net.cpp:406] Convolution13 <- Convolution12
I0928 19:59:17.120373  5237 net.cpp:380] Convolution13 -> Convolution13
I0928 19:59:17.121250  5237 net.cpp:122] Setting up Convolution13
I0928 19:59:17.121260  5237 net.cpp:129] Top shape: 100 16 28 28 (1254400)
I0928 19:59:17.121263  5237 net.cpp:137] Memory required for data: 332102800
I0928 19:59:17.121268  5237 layer_factory.hpp:77] Creating layer BatchNorm13
I0928 19:59:17.121274  5237 net.cpp:84] Creating Layer BatchNorm13
I0928 19:59:17.121278  5237 net.cpp:406] BatchNorm13 <- Convolution13
I0928 19:59:17.121281  5237 net.cpp:367] BatchNorm13 -> Convolution13 (in-place)
I0928 19:59:17.121412  5237 net.cpp:122] Setting up BatchNorm13
I0928 19:59:17.121418  5237 net.cpp:129] Top shape: 100 16 28 28 (1254400)
I0928 19:59:17.121420  5237 net.cpp:137] Memory required for data: 337120400
I0928 19:59:17.121424  5237 layer_factory.hpp:77] Creating layer Scale13
I0928 19:59:17.121429  5237 net.cpp:84] Creating Layer Scale13
I0928 19:59:17.121431  5237 net.cpp:406] Scale13 <- Convolution13
I0928 19:59:17.121435  5237 net.cpp:367] Scale13 -> Convolution13 (in-place)
I0928 19:59:17.121461  5237 layer_factory.hpp:77] Creating layer Scale13
I0928 19:59:17.121538  5237 net.cpp:122] Setting up Scale13
I0928 19:59:17.121543  5237 net.cpp:129] Top shape: 100 16 28 28 (1254400)
I0928 19:59:17.121552  5237 net.cpp:137] Memory required for data: 342138000
I0928 19:59:17.121556  5237 layer_factory.hpp:77] Creating layer Eltwise6
I0928 19:59:17.121562  5237 net.cpp:84] Creating Layer Eltwise6
I0928 19:59:17.121565  5237 net.cpp:406] Eltwise6 <- Eltwise5_penlu11_0_split_1
I0928 19:59:17.121568  5237 net.cpp:406] Eltwise6 <- Convolution13
I0928 19:59:17.121572  5237 net.cpp:380] Eltwise6 -> Eltwise6
I0928 19:59:17.121590  5237 net.cpp:122] Setting up Eltwise6
I0928 19:59:17.121595  5237 net.cpp:129] Top shape: 100 16 28 28 (1254400)
I0928 19:59:17.121598  5237 net.cpp:137] Memory required for data: 347155600
I0928 19:59:17.121600  5237 layer_factory.hpp:77] Creating layer penlu13
I0928 19:59:17.121609  5237 net.cpp:84] Creating Layer penlu13
I0928 19:59:17.121613  5237 net.cpp:406] penlu13 <- Eltwise6
I0928 19:59:17.121616  5237 net.cpp:367] penlu13 -> Eltwise6 (in-place)
I0928 19:59:17.121726  5237 net.cpp:122] Setting up penlu13
I0928 19:59:17.121732  5237 net.cpp:129] Top shape: 100 16 28 28 (1254400)
I0928 19:59:17.121736  5237 net.cpp:137] Memory required for data: 352173200
I0928 19:59:17.121748  5237 layer_factory.hpp:77] Creating layer Eltwise6_penlu13_0_split
I0928 19:59:17.121753  5237 net.cpp:84] Creating Layer Eltwise6_penlu13_0_split
I0928 19:59:17.121757  5237 net.cpp:406] Eltwise6_penlu13_0_split <- Eltwise6
I0928 19:59:17.121762  5237 net.cpp:380] Eltwise6_penlu13_0_split -> Eltwise6_penlu13_0_split_0
I0928 19:59:17.121767  5237 net.cpp:380] Eltwise6_penlu13_0_split -> Eltwise6_penlu13_0_split_1
I0928 19:59:17.121790  5237 net.cpp:122] Setting up Eltwise6_penlu13_0_split
I0928 19:59:17.121794  5237 net.cpp:129] Top shape: 100 16 28 28 (1254400)
I0928 19:59:17.121798  5237 net.cpp:129] Top shape: 100 16 28 28 (1254400)
I0928 19:59:17.121800  5237 net.cpp:137] Memory required for data: 362208400
I0928 19:59:17.121803  5237 layer_factory.hpp:77] Creating layer Convolution14
I0928 19:59:17.121809  5237 net.cpp:84] Creating Layer Convolution14
I0928 19:59:17.121811  5237 net.cpp:406] Convolution14 <- Eltwise6_penlu13_0_split_0
I0928 19:59:17.121815  5237 net.cpp:380] Convolution14 -> Convolution14
I0928 19:59:17.122743  5237 net.cpp:122] Setting up Convolution14
I0928 19:59:17.122753  5237 net.cpp:129] Top shape: 100 16 28 28 (1254400)
I0928 19:59:17.122756  5237 net.cpp:137] Memory required for data: 367226000
I0928 19:59:17.122761  5237 layer_factory.hpp:77] Creating layer BatchNorm14
I0928 19:59:17.122764  5237 net.cpp:84] Creating Layer BatchNorm14
I0928 19:59:17.122767  5237 net.cpp:406] BatchNorm14 <- Convolution14
I0928 19:59:17.122772  5237 net.cpp:367] BatchNorm14 -> Convolution14 (in-place)
I0928 19:59:17.122905  5237 net.cpp:122] Setting up BatchNorm14
I0928 19:59:17.122910  5237 net.cpp:129] Top shape: 100 16 28 28 (1254400)
I0928 19:59:17.122911  5237 net.cpp:137] Memory required for data: 372243600
I0928 19:59:17.122916  5237 layer_factory.hpp:77] Creating layer Scale14
I0928 19:59:17.122920  5237 net.cpp:84] Creating Layer Scale14
I0928 19:59:17.122922  5237 net.cpp:406] Scale14 <- Convolution14
I0928 19:59:17.122926  5237 net.cpp:367] Scale14 -> Convolution14 (in-place)
I0928 19:59:17.122951  5237 layer_factory.hpp:77] Creating layer Scale14
I0928 19:59:17.123028  5237 net.cpp:122] Setting up Scale14
I0928 19:59:17.123031  5237 net.cpp:129] Top shape: 100 16 28 28 (1254400)
I0928 19:59:17.123034  5237 net.cpp:137] Memory required for data: 377261200
I0928 19:59:17.123037  5237 layer_factory.hpp:77] Creating layer penlu14
I0928 19:59:17.123041  5237 net.cpp:84] Creating Layer penlu14
I0928 19:59:17.123044  5237 net.cpp:406] penlu14 <- Convolution14
I0928 19:59:17.123049  5237 net.cpp:367] penlu14 -> Convolution14 (in-place)
I0928 19:59:17.123155  5237 net.cpp:122] Setting up penlu14
I0928 19:59:17.123160  5237 net.cpp:129] Top shape: 100 16 28 28 (1254400)
I0928 19:59:17.123162  5237 net.cpp:137] Memory required for data: 382278800
I0928 19:59:17.123167  5237 layer_factory.hpp:77] Creating layer Convolution15
I0928 19:59:17.123172  5237 net.cpp:84] Creating Layer Convolution15
I0928 19:59:17.123181  5237 net.cpp:406] Convolution15 <- Convolution14
I0928 19:59:17.123188  5237 net.cpp:380] Convolution15 -> Convolution15
I0928 19:59:17.124065  5237 net.cpp:122] Setting up Convolution15
I0928 19:59:17.124074  5237 net.cpp:129] Top shape: 100 16 28 28 (1254400)
I0928 19:59:17.124078  5237 net.cpp:137] Memory required for data: 387296400
I0928 19:59:17.124081  5237 layer_factory.hpp:77] Creating layer BatchNorm15
I0928 19:59:17.124086  5237 net.cpp:84] Creating Layer BatchNorm15
I0928 19:59:17.124089  5237 net.cpp:406] BatchNorm15 <- Convolution15
I0928 19:59:17.124094  5237 net.cpp:367] BatchNorm15 -> Convolution15 (in-place)
I0928 19:59:17.124225  5237 net.cpp:122] Setting up BatchNorm15
I0928 19:59:17.124229  5237 net.cpp:129] Top shape: 100 16 28 28 (1254400)
I0928 19:59:17.124231  5237 net.cpp:137] Memory required for data: 392314000
I0928 19:59:17.124236  5237 layer_factory.hpp:77] Creating layer Scale15
I0928 19:59:17.124240  5237 net.cpp:84] Creating Layer Scale15
I0928 19:59:17.124243  5237 net.cpp:406] Scale15 <- Convolution15
I0928 19:59:17.124246  5237 net.cpp:367] Scale15 -> Convolution15 (in-place)
I0928 19:59:17.124272  5237 layer_factory.hpp:77] Creating layer Scale15
I0928 19:59:17.124348  5237 net.cpp:122] Setting up Scale15
I0928 19:59:17.124352  5237 net.cpp:129] Top shape: 100 16 28 28 (1254400)
I0928 19:59:17.124354  5237 net.cpp:137] Memory required for data: 397331600
I0928 19:59:17.124358  5237 layer_factory.hpp:77] Creating layer Eltwise7
I0928 19:59:17.124362  5237 net.cpp:84] Creating Layer Eltwise7
I0928 19:59:17.124364  5237 net.cpp:406] Eltwise7 <- Eltwise6_penlu13_0_split_1
I0928 19:59:17.124367  5237 net.cpp:406] Eltwise7 <- Convolution15
I0928 19:59:17.124370  5237 net.cpp:380] Eltwise7 -> Eltwise7
I0928 19:59:17.124385  5237 net.cpp:122] Setting up Eltwise7
I0928 19:59:17.124388  5237 net.cpp:129] Top shape: 100 16 28 28 (1254400)
I0928 19:59:17.124392  5237 net.cpp:137] Memory required for data: 402349200
I0928 19:59:17.124393  5237 layer_factory.hpp:77] Creating layer penlu15
I0928 19:59:17.124398  5237 net.cpp:84] Creating Layer penlu15
I0928 19:59:17.124400  5237 net.cpp:406] penlu15 <- Eltwise7
I0928 19:59:17.124404  5237 net.cpp:367] penlu15 -> Eltwise7 (in-place)
I0928 19:59:17.124512  5237 net.cpp:122] Setting up penlu15
I0928 19:59:17.124516  5237 net.cpp:129] Top shape: 100 16 28 28 (1254400)
I0928 19:59:17.124518  5237 net.cpp:137] Memory required for data: 407366800
I0928 19:59:17.124523  5237 layer_factory.hpp:77] Creating layer Eltwise7_penlu15_0_split
I0928 19:59:17.124526  5237 net.cpp:84] Creating Layer Eltwise7_penlu15_0_split
I0928 19:59:17.124528  5237 net.cpp:406] Eltwise7_penlu15_0_split <- Eltwise7
I0928 19:59:17.124531  5237 net.cpp:380] Eltwise7_penlu15_0_split -> Eltwise7_penlu15_0_split_0
I0928 19:59:17.124536  5237 net.cpp:380] Eltwise7_penlu15_0_split -> Eltwise7_penlu15_0_split_1
I0928 19:59:17.124557  5237 net.cpp:122] Setting up Eltwise7_penlu15_0_split
I0928 19:59:17.124560  5237 net.cpp:129] Top shape: 100 16 28 28 (1254400)
I0928 19:59:17.124563  5237 net.cpp:129] Top shape: 100 16 28 28 (1254400)
I0928 19:59:17.124565  5237 net.cpp:137] Memory required for data: 417402000
I0928 19:59:17.124567  5237 layer_factory.hpp:77] Creating layer Convolution16
I0928 19:59:17.124572  5237 net.cpp:84] Creating Layer Convolution16
I0928 19:59:17.124575  5237 net.cpp:406] Convolution16 <- Eltwise7_penlu15_0_split_0
I0928 19:59:17.124580  5237 net.cpp:380] Convolution16 -> Convolution16
I0928 19:59:17.125452  5237 net.cpp:122] Setting up Convolution16
I0928 19:59:17.125460  5237 net.cpp:129] Top shape: 100 16 28 28 (1254400)
I0928 19:59:17.125463  5237 net.cpp:137] Memory required for data: 422419600
I0928 19:59:17.125468  5237 layer_factory.hpp:77] Creating layer BatchNorm16
I0928 19:59:17.125473  5237 net.cpp:84] Creating Layer BatchNorm16
I0928 19:59:17.125475  5237 net.cpp:406] BatchNorm16 <- Convolution16
I0928 19:59:17.125479  5237 net.cpp:367] BatchNorm16 -> Convolution16 (in-place)
I0928 19:59:17.125610  5237 net.cpp:122] Setting up BatchNorm16
I0928 19:59:17.125620  5237 net.cpp:129] Top shape: 100 16 28 28 (1254400)
I0928 19:59:17.125623  5237 net.cpp:137] Memory required for data: 427437200
I0928 19:59:17.125628  5237 layer_factory.hpp:77] Creating layer Scale16
I0928 19:59:17.125633  5237 net.cpp:84] Creating Layer Scale16
I0928 19:59:17.125634  5237 net.cpp:406] Scale16 <- Convolution16
I0928 19:59:17.125638  5237 net.cpp:367] Scale16 -> Convolution16 (in-place)
I0928 19:59:17.125664  5237 layer_factory.hpp:77] Creating layer Scale16
I0928 19:59:17.125741  5237 net.cpp:122] Setting up Scale16
I0928 19:59:17.125746  5237 net.cpp:129] Top shape: 100 16 28 28 (1254400)
I0928 19:59:17.125747  5237 net.cpp:137] Memory required for data: 432454800
I0928 19:59:17.125751  5237 layer_factory.hpp:77] Creating layer penlu16
I0928 19:59:17.125756  5237 net.cpp:84] Creating Layer penlu16
I0928 19:59:17.125758  5237 net.cpp:406] penlu16 <- Convolution16
I0928 19:59:17.125762  5237 net.cpp:367] penlu16 -> Convolution16 (in-place)
I0928 19:59:17.125874  5237 net.cpp:122] Setting up penlu16
I0928 19:59:17.125879  5237 net.cpp:129] Top shape: 100 16 28 28 (1254400)
I0928 19:59:17.125880  5237 net.cpp:137] Memory required for data: 437472400
I0928 19:59:17.125885  5237 layer_factory.hpp:77] Creating layer Convolution17
I0928 19:59:17.125891  5237 net.cpp:84] Creating Layer Convolution17
I0928 19:59:17.125895  5237 net.cpp:406] Convolution17 <- Convolution16
I0928 19:59:17.125898  5237 net.cpp:380] Convolution17 -> Convolution17
I0928 19:59:17.126457  5237 net.cpp:122] Setting up Convolution17
I0928 19:59:17.126464  5237 net.cpp:129] Top shape: 100 16 28 28 (1254400)
I0928 19:59:17.126466  5237 net.cpp:137] Memory required for data: 442490000
I0928 19:59:17.126471  5237 layer_factory.hpp:77] Creating layer BatchNorm17
I0928 19:59:17.126474  5237 net.cpp:84] Creating Layer BatchNorm17
I0928 19:59:17.126477  5237 net.cpp:406] BatchNorm17 <- Convolution17
I0928 19:59:17.126482  5237 net.cpp:367] BatchNorm17 -> Convolution17 (in-place)
I0928 19:59:17.126638  5237 net.cpp:122] Setting up BatchNorm17
I0928 19:59:17.126643  5237 net.cpp:129] Top shape: 100 16 28 28 (1254400)
I0928 19:59:17.126646  5237 net.cpp:137] Memory required for data: 447507600
I0928 19:59:17.126651  5237 layer_factory.hpp:77] Creating layer Scale17
I0928 19:59:17.126654  5237 net.cpp:84] Creating Layer Scale17
I0928 19:59:17.126657  5237 net.cpp:406] Scale17 <- Convolution17
I0928 19:59:17.126660  5237 net.cpp:367] Scale17 -> Convolution17 (in-place)
I0928 19:59:17.126684  5237 layer_factory.hpp:77] Creating layer Scale17
I0928 19:59:17.126760  5237 net.cpp:122] Setting up Scale17
I0928 19:59:17.126765  5237 net.cpp:129] Top shape: 100 16 28 28 (1254400)
I0928 19:59:17.126766  5237 net.cpp:137] Memory required for data: 452525200
I0928 19:59:17.126770  5237 layer_factory.hpp:77] Creating layer Eltwise8
I0928 19:59:17.126773  5237 net.cpp:84] Creating Layer Eltwise8
I0928 19:59:17.126776  5237 net.cpp:406] Eltwise8 <- Eltwise7_penlu15_0_split_1
I0928 19:59:17.126778  5237 net.cpp:406] Eltwise8 <- Convolution17
I0928 19:59:17.126782  5237 net.cpp:380] Eltwise8 -> Eltwise8
I0928 19:59:17.126797  5237 net.cpp:122] Setting up Eltwise8
I0928 19:59:17.126801  5237 net.cpp:129] Top shape: 100 16 28 28 (1254400)
I0928 19:59:17.126803  5237 net.cpp:137] Memory required for data: 457542800
I0928 19:59:17.126806  5237 layer_factory.hpp:77] Creating layer penlu17
I0928 19:59:17.126809  5237 net.cpp:84] Creating Layer penlu17
I0928 19:59:17.126811  5237 net.cpp:406] penlu17 <- Eltwise8
I0928 19:59:17.126816  5237 net.cpp:367] penlu17 -> Eltwise8 (in-place)
I0928 19:59:17.126924  5237 net.cpp:122] Setting up penlu17
I0928 19:59:17.126929  5237 net.cpp:129] Top shape: 100 16 28 28 (1254400)
I0928 19:59:17.126930  5237 net.cpp:137] Memory required for data: 462560400
I0928 19:59:17.126935  5237 layer_factory.hpp:77] Creating layer Eltwise8_penlu17_0_split
I0928 19:59:17.126937  5237 net.cpp:84] Creating Layer Eltwise8_penlu17_0_split
I0928 19:59:17.126940  5237 net.cpp:406] Eltwise8_penlu17_0_split <- Eltwise8
I0928 19:59:17.126950  5237 net.cpp:380] Eltwise8_penlu17_0_split -> Eltwise8_penlu17_0_split_0
I0928 19:59:17.126955  5237 net.cpp:380] Eltwise8_penlu17_0_split -> Eltwise8_penlu17_0_split_1
I0928 19:59:17.126977  5237 net.cpp:122] Setting up Eltwise8_penlu17_0_split
I0928 19:59:17.126981  5237 net.cpp:129] Top shape: 100 16 28 28 (1254400)
I0928 19:59:17.126983  5237 net.cpp:129] Top shape: 100 16 28 28 (1254400)
I0928 19:59:17.126986  5237 net.cpp:137] Memory required for data: 472595600
I0928 19:59:17.126987  5237 layer_factory.hpp:77] Creating layer Convolution18
I0928 19:59:17.126994  5237 net.cpp:84] Creating Layer Convolution18
I0928 19:59:17.126996  5237 net.cpp:406] Convolution18 <- Eltwise8_penlu17_0_split_0
I0928 19:59:17.127001  5237 net.cpp:380] Convolution18 -> Convolution18
I0928 19:59:17.127918  5237 net.cpp:122] Setting up Convolution18
I0928 19:59:17.127928  5237 net.cpp:129] Top shape: 100 16 28 28 (1254400)
I0928 19:59:17.127929  5237 net.cpp:137] Memory required for data: 477613200
I0928 19:59:17.127933  5237 layer_factory.hpp:77] Creating layer BatchNorm18
I0928 19:59:17.127939  5237 net.cpp:84] Creating Layer BatchNorm18
I0928 19:59:17.127941  5237 net.cpp:406] BatchNorm18 <- Convolution18
I0928 19:59:17.127945  5237 net.cpp:367] BatchNorm18 -> Convolution18 (in-place)
I0928 19:59:17.128077  5237 net.cpp:122] Setting up BatchNorm18
I0928 19:59:17.128080  5237 net.cpp:129] Top shape: 100 16 28 28 (1254400)
I0928 19:59:17.128082  5237 net.cpp:137] Memory required for data: 482630800
I0928 19:59:17.128087  5237 layer_factory.hpp:77] Creating layer Scale18
I0928 19:59:17.128090  5237 net.cpp:84] Creating Layer Scale18
I0928 19:59:17.128093  5237 net.cpp:406] Scale18 <- Convolution18
I0928 19:59:17.128098  5237 net.cpp:367] Scale18 -> Convolution18 (in-place)
I0928 19:59:17.128123  5237 layer_factory.hpp:77] Creating layer Scale18
I0928 19:59:17.128201  5237 net.cpp:122] Setting up Scale18
I0928 19:59:17.128206  5237 net.cpp:129] Top shape: 100 16 28 28 (1254400)
I0928 19:59:17.128207  5237 net.cpp:137] Memory required for data: 487648400
I0928 19:59:17.128211  5237 layer_factory.hpp:77] Creating layer penlu18
I0928 19:59:17.128216  5237 net.cpp:84] Creating Layer penlu18
I0928 19:59:17.128219  5237 net.cpp:406] penlu18 <- Convolution18
I0928 19:59:17.128223  5237 net.cpp:367] penlu18 -> Convolution18 (in-place)
I0928 19:59:17.128331  5237 net.cpp:122] Setting up penlu18
I0928 19:59:17.128335  5237 net.cpp:129] Top shape: 100 16 28 28 (1254400)
I0928 19:59:17.128337  5237 net.cpp:137] Memory required for data: 492666000
I0928 19:59:17.128341  5237 layer_factory.hpp:77] Creating layer Convolution19
I0928 19:59:17.128348  5237 net.cpp:84] Creating Layer Convolution19
I0928 19:59:17.128351  5237 net.cpp:406] Convolution19 <- Convolution18
I0928 19:59:17.128355  5237 net.cpp:380] Convolution19 -> Convolution19
I0928 19:59:17.129297  5237 net.cpp:122] Setting up Convolution19
I0928 19:59:17.129308  5237 net.cpp:129] Top shape: 100 16 28 28 (1254400)
I0928 19:59:17.129313  5237 net.cpp:137] Memory required for data: 497683600
I0928 19:59:17.129329  5237 layer_factory.hpp:77] Creating layer BatchNorm19
I0928 19:59:17.129335  5237 net.cpp:84] Creating Layer BatchNorm19
I0928 19:59:17.129340  5237 net.cpp:406] BatchNorm19 <- Convolution19
I0928 19:59:17.129348  5237 net.cpp:367] BatchNorm19 -> Convolution19 (in-place)
I0928 19:59:17.129535  5237 net.cpp:122] Setting up BatchNorm19
I0928 19:59:17.129542  5237 net.cpp:129] Top shape: 100 16 28 28 (1254400)
I0928 19:59:17.129544  5237 net.cpp:137] Memory required for data: 502701200
I0928 19:59:17.129550  5237 layer_factory.hpp:77] Creating layer Scale19
I0928 19:59:17.129554  5237 net.cpp:84] Creating Layer Scale19
I0928 19:59:17.129557  5237 net.cpp:406] Scale19 <- Convolution19
I0928 19:59:17.129561  5237 net.cpp:367] Scale19 -> Convolution19 (in-place)
I0928 19:59:17.129588  5237 layer_factory.hpp:77] Creating layer Scale19
I0928 19:59:17.129667  5237 net.cpp:122] Setting up Scale19
I0928 19:59:17.129672  5237 net.cpp:129] Top shape: 100 16 28 28 (1254400)
I0928 19:59:17.129680  5237 net.cpp:137] Memory required for data: 507718800
I0928 19:59:17.129684  5237 layer_factory.hpp:77] Creating layer Eltwise9
I0928 19:59:17.129689  5237 net.cpp:84] Creating Layer Eltwise9
I0928 19:59:17.129691  5237 net.cpp:406] Eltwise9 <- Eltwise8_penlu17_0_split_1
I0928 19:59:17.129694  5237 net.cpp:406] Eltwise9 <- Convolution19
I0928 19:59:17.129698  5237 net.cpp:380] Eltwise9 -> Eltwise9
I0928 19:59:17.129716  5237 net.cpp:122] Setting up Eltwise9
I0928 19:59:17.129719  5237 net.cpp:129] Top shape: 100 16 28 28 (1254400)
I0928 19:59:17.129721  5237 net.cpp:137] Memory required for data: 512736400
I0928 19:59:17.129724  5237 layer_factory.hpp:77] Creating layer penlu19
I0928 19:59:17.129729  5237 net.cpp:84] Creating Layer penlu19
I0928 19:59:17.129730  5237 net.cpp:406] penlu19 <- Eltwise9
I0928 19:59:17.129734  5237 net.cpp:367] penlu19 -> Eltwise9 (in-place)
I0928 19:59:17.129850  5237 net.cpp:122] Setting up penlu19
I0928 19:59:17.129854  5237 net.cpp:129] Top shape: 100 16 28 28 (1254400)
I0928 19:59:17.129856  5237 net.cpp:137] Memory required for data: 517754000
I0928 19:59:17.129861  5237 layer_factory.hpp:77] Creating layer Eltwise9_penlu19_0_split
I0928 19:59:17.129864  5237 net.cpp:84] Creating Layer Eltwise9_penlu19_0_split
I0928 19:59:17.129868  5237 net.cpp:406] Eltwise9_penlu19_0_split <- Eltwise9
I0928 19:59:17.129870  5237 net.cpp:380] Eltwise9_penlu19_0_split -> Eltwise9_penlu19_0_split_0
I0928 19:59:17.129874  5237 net.cpp:380] Eltwise9_penlu19_0_split -> Eltwise9_penlu19_0_split_1
I0928 19:59:17.129899  5237 net.cpp:122] Setting up Eltwise9_penlu19_0_split
I0928 19:59:17.129901  5237 net.cpp:129] Top shape: 100 16 28 28 (1254400)
I0928 19:59:17.129904  5237 net.cpp:129] Top shape: 100 16 28 28 (1254400)
I0928 19:59:17.129906  5237 net.cpp:137] Memory required for data: 527789200
I0928 19:59:17.129909  5237 layer_factory.hpp:77] Creating layer Convolution20
I0928 19:59:17.129915  5237 net.cpp:84] Creating Layer Convolution20
I0928 19:59:17.129918  5237 net.cpp:406] Convolution20 <- Eltwise9_penlu19_0_split_0
I0928 19:59:17.129922  5237 net.cpp:380] Convolution20 -> Convolution20
I0928 19:59:17.131167  5237 net.cpp:122] Setting up Convolution20
I0928 19:59:17.131176  5237 net.cpp:129] Top shape: 100 32 14 14 (627200)
I0928 19:59:17.131180  5237 net.cpp:137] Memory required for data: 530298000
I0928 19:59:17.131183  5237 layer_factory.hpp:77] Creating layer BatchNorm20
I0928 19:59:17.131188  5237 net.cpp:84] Creating Layer BatchNorm20
I0928 19:59:17.131191  5237 net.cpp:406] BatchNorm20 <- Convolution20
I0928 19:59:17.131194  5237 net.cpp:367] BatchNorm20 -> Convolution20 (in-place)
I0928 19:59:17.131345  5237 net.cpp:122] Setting up BatchNorm20
I0928 19:59:17.131348  5237 net.cpp:129] Top shape: 100 32 14 14 (627200)
I0928 19:59:17.131351  5237 net.cpp:137] Memory required for data: 532806800
I0928 19:59:17.131356  5237 layer_factory.hpp:77] Creating layer Scale20
I0928 19:59:17.131359  5237 net.cpp:84] Creating Layer Scale20
I0928 19:59:17.131362  5237 net.cpp:406] Scale20 <- Convolution20
I0928 19:59:17.131366  5237 net.cpp:367] Scale20 -> Convolution20 (in-place)
I0928 19:59:17.131392  5237 layer_factory.hpp:77] Creating layer Scale20
I0928 19:59:17.131469  5237 net.cpp:122] Setting up Scale20
I0928 19:59:17.131474  5237 net.cpp:129] Top shape: 100 32 14 14 (627200)
I0928 19:59:17.131475  5237 net.cpp:137] Memory required for data: 535315600
I0928 19:59:17.131479  5237 layer_factory.hpp:77] Creating layer Convolution21
I0928 19:59:17.131485  5237 net.cpp:84] Creating Layer Convolution21
I0928 19:59:17.131489  5237 net.cpp:406] Convolution21 <- Eltwise9_penlu19_0_split_1
I0928 19:59:17.131492  5237 net.cpp:380] Convolution21 -> Convolution21
I0928 19:59:17.133090  5237 net.cpp:122] Setting up Convolution21
I0928 19:59:17.133098  5237 net.cpp:129] Top shape: 100 32 14 14 (627200)
I0928 19:59:17.133101  5237 net.cpp:137] Memory required for data: 537824400
I0928 19:59:17.133106  5237 layer_factory.hpp:77] Creating layer BatchNorm21
I0928 19:59:17.133111  5237 net.cpp:84] Creating Layer BatchNorm21
I0928 19:59:17.133121  5237 net.cpp:406] BatchNorm21 <- Convolution21
I0928 19:59:17.133126  5237 net.cpp:367] BatchNorm21 -> Convolution21 (in-place)
I0928 19:59:17.133265  5237 net.cpp:122] Setting up BatchNorm21
I0928 19:59:17.133270  5237 net.cpp:129] Top shape: 100 32 14 14 (627200)
I0928 19:59:17.133271  5237 net.cpp:137] Memory required for data: 540333200
I0928 19:59:17.133276  5237 layer_factory.hpp:77] Creating layer Scale21
I0928 19:59:17.133280  5237 net.cpp:84] Creating Layer Scale21
I0928 19:59:17.133282  5237 net.cpp:406] Scale21 <- Convolution21
I0928 19:59:17.133285  5237 net.cpp:367] Scale21 -> Convolution21 (in-place)
I0928 19:59:17.133313  5237 layer_factory.hpp:77] Creating layer Scale21
I0928 19:59:17.133391  5237 net.cpp:122] Setting up Scale21
I0928 19:59:17.133395  5237 net.cpp:129] Top shape: 100 32 14 14 (627200)
I0928 19:59:17.133397  5237 net.cpp:137] Memory required for data: 542842000
I0928 19:59:17.133401  5237 layer_factory.hpp:77] Creating layer penlu20
I0928 19:59:17.133406  5237 net.cpp:84] Creating Layer penlu20
I0928 19:59:17.133409  5237 net.cpp:406] penlu20 <- Convolution21
I0928 19:59:17.133412  5237 net.cpp:367] penlu20 -> Convolution21 (in-place)
I0928 19:59:17.133522  5237 net.cpp:122] Setting up penlu20
I0928 19:59:17.133527  5237 net.cpp:129] Top shape: 100 32 14 14 (627200)
I0928 19:59:17.133528  5237 net.cpp:137] Memory required for data: 545350800
I0928 19:59:17.133533  5237 layer_factory.hpp:77] Creating layer Convolution22
I0928 19:59:17.133540  5237 net.cpp:84] Creating Layer Convolution22
I0928 19:59:17.133543  5237 net.cpp:406] Convolution22 <- Convolution21
I0928 19:59:17.133548  5237 net.cpp:380] Convolution22 -> Convolution22
I0928 19:59:17.134624  5237 net.cpp:122] Setting up Convolution22
I0928 19:59:17.134631  5237 net.cpp:129] Top shape: 100 32 14 14 (627200)
I0928 19:59:17.134634  5237 net.cpp:137] Memory required for data: 547859600
I0928 19:59:17.134639  5237 layer_factory.hpp:77] Creating layer BatchNorm22
I0928 19:59:17.134644  5237 net.cpp:84] Creating Layer BatchNorm22
I0928 19:59:17.134646  5237 net.cpp:406] BatchNorm22 <- Convolution22
I0928 19:59:17.134649  5237 net.cpp:367] BatchNorm22 -> Convolution22 (in-place)
I0928 19:59:17.134781  5237 net.cpp:122] Setting up BatchNorm22
I0928 19:59:17.134785  5237 net.cpp:129] Top shape: 100 32 14 14 (627200)
I0928 19:59:17.134788  5237 net.cpp:137] Memory required for data: 550368400
I0928 19:59:17.134791  5237 layer_factory.hpp:77] Creating layer Scale22
I0928 19:59:17.134795  5237 net.cpp:84] Creating Layer Scale22
I0928 19:59:17.134798  5237 net.cpp:406] Scale22 <- Convolution22
I0928 19:59:17.134800  5237 net.cpp:367] Scale22 -> Convolution22 (in-place)
I0928 19:59:17.134827  5237 layer_factory.hpp:77] Creating layer Scale22
I0928 19:59:17.134901  5237 net.cpp:122] Setting up Scale22
I0928 19:59:17.134904  5237 net.cpp:129] Top shape: 100 32 14 14 (627200)
I0928 19:59:17.134907  5237 net.cpp:137] Memory required for data: 552877200
I0928 19:59:17.134910  5237 layer_factory.hpp:77] Creating layer Eltwise10
I0928 19:59:17.134915  5237 net.cpp:84] Creating Layer Eltwise10
I0928 19:59:17.134917  5237 net.cpp:406] Eltwise10 <- Convolution20
I0928 19:59:17.134920  5237 net.cpp:406] Eltwise10 <- Convolution22
I0928 19:59:17.134923  5237 net.cpp:380] Eltwise10 -> Eltwise10
I0928 19:59:17.134938  5237 net.cpp:122] Setting up Eltwise10
I0928 19:59:17.134943  5237 net.cpp:129] Top shape: 100 32 14 14 (627200)
I0928 19:59:17.134944  5237 net.cpp:137] Memory required for data: 555386000
I0928 19:59:17.134946  5237 layer_factory.hpp:77] Creating layer penlu21
I0928 19:59:17.134951  5237 net.cpp:84] Creating Layer penlu21
I0928 19:59:17.134953  5237 net.cpp:406] penlu21 <- Eltwise10
I0928 19:59:17.134956  5237 net.cpp:367] penlu21 -> Eltwise10 (in-place)
I0928 19:59:17.135061  5237 net.cpp:122] Setting up penlu21
I0928 19:59:17.135066  5237 net.cpp:129] Top shape: 100 32 14 14 (627200)
I0928 19:59:17.135067  5237 net.cpp:137] Memory required for data: 557894800
I0928 19:59:17.135071  5237 layer_factory.hpp:77] Creating layer Eltwise10_penlu21_0_split
I0928 19:59:17.135082  5237 net.cpp:84] Creating Layer Eltwise10_penlu21_0_split
I0928 19:59:17.135084  5237 net.cpp:406] Eltwise10_penlu21_0_split <- Eltwise10
I0928 19:59:17.135088  5237 net.cpp:380] Eltwise10_penlu21_0_split -> Eltwise10_penlu21_0_split_0
I0928 19:59:17.135092  5237 net.cpp:380] Eltwise10_penlu21_0_split -> Eltwise10_penlu21_0_split_1
I0928 19:59:17.135115  5237 net.cpp:122] Setting up Eltwise10_penlu21_0_split
I0928 19:59:17.135118  5237 net.cpp:129] Top shape: 100 32 14 14 (627200)
I0928 19:59:17.135121  5237 net.cpp:129] Top shape: 100 32 14 14 (627200)
I0928 19:59:17.135123  5237 net.cpp:137] Memory required for data: 562912400
I0928 19:59:17.135125  5237 layer_factory.hpp:77] Creating layer Convolution23
I0928 19:59:17.135131  5237 net.cpp:84] Creating Layer Convolution23
I0928 19:59:17.135134  5237 net.cpp:406] Convolution23 <- Eltwise10_penlu21_0_split_0
I0928 19:59:17.135138  5237 net.cpp:380] Convolution23 -> Convolution23
I0928 19:59:17.136461  5237 net.cpp:122] Setting up Convolution23
I0928 19:59:17.136469  5237 net.cpp:129] Top shape: 100 32 14 14 (627200)
I0928 19:59:17.136472  5237 net.cpp:137] Memory required for data: 565421200
I0928 19:59:17.136476  5237 layer_factory.hpp:77] Creating layer BatchNorm23
I0928 19:59:17.136482  5237 net.cpp:84] Creating Layer BatchNorm23
I0928 19:59:17.136484  5237 net.cpp:406] BatchNorm23 <- Convolution23
I0928 19:59:17.136488  5237 net.cpp:367] BatchNorm23 -> Convolution23 (in-place)
I0928 19:59:17.136624  5237 net.cpp:122] Setting up BatchNorm23
I0928 19:59:17.136628  5237 net.cpp:129] Top shape: 100 32 14 14 (627200)
I0928 19:59:17.136631  5237 net.cpp:137] Memory required for data: 567930000
I0928 19:59:17.136636  5237 layer_factory.hpp:77] Creating layer Scale23
I0928 19:59:17.136642  5237 net.cpp:84] Creating Layer Scale23
I0928 19:59:17.136644  5237 net.cpp:406] Scale23 <- Convolution23
I0928 19:59:17.136647  5237 net.cpp:367] Scale23 -> Convolution23 (in-place)
I0928 19:59:17.136674  5237 layer_factory.hpp:77] Creating layer Scale23
I0928 19:59:17.136750  5237 net.cpp:122] Setting up Scale23
I0928 19:59:17.136754  5237 net.cpp:129] Top shape: 100 32 14 14 (627200)
I0928 19:59:17.136756  5237 net.cpp:137] Memory required for data: 570438800
I0928 19:59:17.136760  5237 layer_factory.hpp:77] Creating layer penlu22
I0928 19:59:17.136765  5237 net.cpp:84] Creating Layer penlu22
I0928 19:59:17.136768  5237 net.cpp:406] penlu22 <- Convolution23
I0928 19:59:17.136772  5237 net.cpp:367] penlu22 -> Convolution23 (in-place)
I0928 19:59:17.136878  5237 net.cpp:122] Setting up penlu22
I0928 19:59:17.136881  5237 net.cpp:129] Top shape: 100 32 14 14 (627200)
I0928 19:59:17.136883  5237 net.cpp:137] Memory required for data: 572947600
I0928 19:59:17.136888  5237 layer_factory.hpp:77] Creating layer Convolution24
I0928 19:59:17.136894  5237 net.cpp:84] Creating Layer Convolution24
I0928 19:59:17.136896  5237 net.cpp:406] Convolution24 <- Convolution23
I0928 19:59:17.136900  5237 net.cpp:380] Convolution24 -> Convolution24
I0928 19:59:17.137928  5237 net.cpp:122] Setting up Convolution24
I0928 19:59:17.137938  5237 net.cpp:129] Top shape: 100 32 14 14 (627200)
I0928 19:59:17.137939  5237 net.cpp:137] Memory required for data: 575456400
I0928 19:59:17.137943  5237 layer_factory.hpp:77] Creating layer BatchNorm24
I0928 19:59:17.137949  5237 net.cpp:84] Creating Layer BatchNorm24
I0928 19:59:17.137951  5237 net.cpp:406] BatchNorm24 <- Convolution24
I0928 19:59:17.137955  5237 net.cpp:367] BatchNorm24 -> Convolution24 (in-place)
I0928 19:59:17.138088  5237 net.cpp:122] Setting up BatchNorm24
I0928 19:59:17.138092  5237 net.cpp:129] Top shape: 100 32 14 14 (627200)
I0928 19:59:17.138094  5237 net.cpp:137] Memory required for data: 577965200
I0928 19:59:17.138098  5237 layer_factory.hpp:77] Creating layer Scale24
I0928 19:59:17.138103  5237 net.cpp:84] Creating Layer Scale24
I0928 19:59:17.138105  5237 net.cpp:406] Scale24 <- Convolution24
I0928 19:59:17.138108  5237 net.cpp:367] Scale24 -> Convolution24 (in-place)
I0928 19:59:17.138141  5237 layer_factory.hpp:77] Creating layer Scale24
I0928 19:59:17.138217  5237 net.cpp:122] Setting up Scale24
I0928 19:59:17.138222  5237 net.cpp:129] Top shape: 100 32 14 14 (627200)
I0928 19:59:17.138223  5237 net.cpp:137] Memory required for data: 580474000
I0928 19:59:17.138227  5237 layer_factory.hpp:77] Creating layer Eltwise11
I0928 19:59:17.138231  5237 net.cpp:84] Creating Layer Eltwise11
I0928 19:59:17.138234  5237 net.cpp:406] Eltwise11 <- Eltwise10_penlu21_0_split_1
I0928 19:59:17.138237  5237 net.cpp:406] Eltwise11 <- Convolution24
I0928 19:59:17.138240  5237 net.cpp:380] Eltwise11 -> Eltwise11
I0928 19:59:17.138257  5237 net.cpp:122] Setting up Eltwise11
I0928 19:59:17.138260  5237 net.cpp:129] Top shape: 100 32 14 14 (627200)
I0928 19:59:17.138262  5237 net.cpp:137] Memory required for data: 582982800
I0928 19:59:17.138264  5237 layer_factory.hpp:77] Creating layer penlu23
I0928 19:59:17.138270  5237 net.cpp:84] Creating Layer penlu23
I0928 19:59:17.138273  5237 net.cpp:406] penlu23 <- Eltwise11
I0928 19:59:17.138276  5237 net.cpp:367] penlu23 -> Eltwise11 (in-place)
I0928 19:59:17.138383  5237 net.cpp:122] Setting up penlu23
I0928 19:59:17.138387  5237 net.cpp:129] Top shape: 100 32 14 14 (627200)
I0928 19:59:17.138389  5237 net.cpp:137] Memory required for data: 585491600
I0928 19:59:17.138394  5237 layer_factory.hpp:77] Creating layer Eltwise11_penlu23_0_split
I0928 19:59:17.138397  5237 net.cpp:84] Creating Layer Eltwise11_penlu23_0_split
I0928 19:59:17.138399  5237 net.cpp:406] Eltwise11_penlu23_0_split <- Eltwise11
I0928 19:59:17.138402  5237 net.cpp:380] Eltwise11_penlu23_0_split -> Eltwise11_penlu23_0_split_0
I0928 19:59:17.138407  5237 net.cpp:380] Eltwise11_penlu23_0_split -> Eltwise11_penlu23_0_split_1
I0928 19:59:17.138429  5237 net.cpp:122] Setting up Eltwise11_penlu23_0_split
I0928 19:59:17.138433  5237 net.cpp:129] Top shape: 100 32 14 14 (627200)
I0928 19:59:17.138435  5237 net.cpp:129] Top shape: 100 32 14 14 (627200)
I0928 19:59:17.138438  5237 net.cpp:137] Memory required for data: 590509200
I0928 19:59:17.138440  5237 layer_factory.hpp:77] Creating layer Convolution25
I0928 19:59:17.138447  5237 net.cpp:84] Creating Layer Convolution25
I0928 19:59:17.138448  5237 net.cpp:406] Convolution25 <- Eltwise11_penlu23_0_split_0
I0928 19:59:17.138453  5237 net.cpp:380] Convolution25 -> Convolution25
I0928 19:59:17.139508  5237 net.cpp:122] Setting up Convolution25
I0928 19:59:17.139515  5237 net.cpp:129] Top shape: 100 32 14 14 (627200)
I0928 19:59:17.139518  5237 net.cpp:137] Memory required for data: 593018000
I0928 19:59:17.139523  5237 layer_factory.hpp:77] Creating layer BatchNorm25
I0928 19:59:17.139526  5237 net.cpp:84] Creating Layer BatchNorm25
I0928 19:59:17.139529  5237 net.cpp:406] BatchNorm25 <- Convolution25
I0928 19:59:17.139533  5237 net.cpp:367] BatchNorm25 -> Convolution25 (in-place)
I0928 19:59:17.139678  5237 net.cpp:122] Setting up BatchNorm25
I0928 19:59:17.139683  5237 net.cpp:129] Top shape: 100 32 14 14 (627200)
I0928 19:59:17.139685  5237 net.cpp:137] Memory required for data: 595526800
I0928 19:59:17.139690  5237 layer_factory.hpp:77] Creating layer Scale25
I0928 19:59:17.139694  5237 net.cpp:84] Creating Layer Scale25
I0928 19:59:17.139696  5237 net.cpp:406] Scale25 <- Convolution25
I0928 19:59:17.139700  5237 net.cpp:367] Scale25 -> Convolution25 (in-place)
I0928 19:59:17.139727  5237 layer_factory.hpp:77] Creating layer Scale25
I0928 19:59:17.139802  5237 net.cpp:122] Setting up Scale25
I0928 19:59:17.139806  5237 net.cpp:129] Top shape: 100 32 14 14 (627200)
I0928 19:59:17.139807  5237 net.cpp:137] Memory required for data: 598035600
I0928 19:59:17.139811  5237 layer_factory.hpp:77] Creating layer penlu24
I0928 19:59:17.139816  5237 net.cpp:84] Creating Layer penlu24
I0928 19:59:17.139819  5237 net.cpp:406] penlu24 <- Convolution25
I0928 19:59:17.139822  5237 net.cpp:367] penlu24 -> Convolution25 (in-place)
I0928 19:59:17.139927  5237 net.cpp:122] Setting up penlu24
I0928 19:59:17.139931  5237 net.cpp:129] Top shape: 100 32 14 14 (627200)
I0928 19:59:17.139940  5237 net.cpp:137] Memory required for data: 600544400
I0928 19:59:17.139945  5237 layer_factory.hpp:77] Creating layer Convolution26
I0928 19:59:17.139952  5237 net.cpp:84] Creating Layer Convolution26
I0928 19:59:17.139955  5237 net.cpp:406] Convolution26 <- Convolution25
I0928 19:59:17.139960  5237 net.cpp:380] Convolution26 -> Convolution26
I0928 19:59:17.140981  5237 net.cpp:122] Setting up Convolution26
I0928 19:59:17.140990  5237 net.cpp:129] Top shape: 100 32 14 14 (627200)
I0928 19:59:17.140993  5237 net.cpp:137] Memory required for data: 603053200
I0928 19:59:17.140997  5237 layer_factory.hpp:77] Creating layer BatchNorm26
I0928 19:59:17.141002  5237 net.cpp:84] Creating Layer BatchNorm26
I0928 19:59:17.141005  5237 net.cpp:406] BatchNorm26 <- Convolution26
I0928 19:59:17.141010  5237 net.cpp:367] BatchNorm26 -> Convolution26 (in-place)
I0928 19:59:17.141144  5237 net.cpp:122] Setting up BatchNorm26
I0928 19:59:17.141149  5237 net.cpp:129] Top shape: 100 32 14 14 (627200)
I0928 19:59:17.141150  5237 net.cpp:137] Memory required for data: 605562000
I0928 19:59:17.141155  5237 layer_factory.hpp:77] Creating layer Scale26
I0928 19:59:17.141158  5237 net.cpp:84] Creating Layer Scale26
I0928 19:59:17.141161  5237 net.cpp:406] Scale26 <- Convolution26
I0928 19:59:17.141165  5237 net.cpp:367] Scale26 -> Convolution26 (in-place)
I0928 19:59:17.141191  5237 layer_factory.hpp:77] Creating layer Scale26
I0928 19:59:17.141268  5237 net.cpp:122] Setting up Scale26
I0928 19:59:17.141273  5237 net.cpp:129] Top shape: 100 32 14 14 (627200)
I0928 19:59:17.141274  5237 net.cpp:137] Memory required for data: 608070800
I0928 19:59:17.141278  5237 layer_factory.hpp:77] Creating layer Eltwise12
I0928 19:59:17.141283  5237 net.cpp:84] Creating Layer Eltwise12
I0928 19:59:17.141284  5237 net.cpp:406] Eltwise12 <- Eltwise11_penlu23_0_split_1
I0928 19:59:17.141288  5237 net.cpp:406] Eltwise12 <- Convolution26
I0928 19:59:17.141290  5237 net.cpp:380] Eltwise12 -> Eltwise12
I0928 19:59:17.141306  5237 net.cpp:122] Setting up Eltwise12
I0928 19:59:17.141310  5237 net.cpp:129] Top shape: 100 32 14 14 (627200)
I0928 19:59:17.141312  5237 net.cpp:137] Memory required for data: 610579600
I0928 19:59:17.141314  5237 layer_factory.hpp:77] Creating layer penlu25
I0928 19:59:17.141319  5237 net.cpp:84] Creating Layer penlu25
I0928 19:59:17.141321  5237 net.cpp:406] penlu25 <- Eltwise12
I0928 19:59:17.141325  5237 net.cpp:367] penlu25 -> Eltwise12 (in-place)
I0928 19:59:17.141434  5237 net.cpp:122] Setting up penlu25
I0928 19:59:17.141438  5237 net.cpp:129] Top shape: 100 32 14 14 (627200)
I0928 19:59:17.141440  5237 net.cpp:137] Memory required for data: 613088400
I0928 19:59:17.141463  5237 layer_factory.hpp:77] Creating layer Eltwise12_penlu25_0_split
I0928 19:59:17.141474  5237 net.cpp:84] Creating Layer Eltwise12_penlu25_0_split
I0928 19:59:17.141476  5237 net.cpp:406] Eltwise12_penlu25_0_split <- Eltwise12
I0928 19:59:17.141479  5237 net.cpp:380] Eltwise12_penlu25_0_split -> Eltwise12_penlu25_0_split_0
I0928 19:59:17.141489  5237 net.cpp:380] Eltwise12_penlu25_0_split -> Eltwise12_penlu25_0_split_1
I0928 19:59:17.141512  5237 net.cpp:122] Setting up Eltwise12_penlu25_0_split
I0928 19:59:17.141517  5237 net.cpp:129] Top shape: 100 32 14 14 (627200)
I0928 19:59:17.141520  5237 net.cpp:129] Top shape: 100 32 14 14 (627200)
I0928 19:59:17.141521  5237 net.cpp:137] Memory required for data: 618106000
I0928 19:59:17.141525  5237 layer_factory.hpp:77] Creating layer Convolution27
I0928 19:59:17.141530  5237 net.cpp:84] Creating Layer Convolution27
I0928 19:59:17.141533  5237 net.cpp:406] Convolution27 <- Eltwise12_penlu25_0_split_0
I0928 19:59:17.141536  5237 net.cpp:380] Convolution27 -> Convolution27
I0928 19:59:17.142242  5237 net.cpp:122] Setting up Convolution27
I0928 19:59:17.142248  5237 net.cpp:129] Top shape: 100 32 14 14 (627200)
I0928 19:59:17.142251  5237 net.cpp:137] Memory required for data: 620614800
I0928 19:59:17.142256  5237 layer_factory.hpp:77] Creating layer BatchNorm27
I0928 19:59:17.142259  5237 net.cpp:84] Creating Layer BatchNorm27
I0928 19:59:17.142268  5237 net.cpp:406] BatchNorm27 <- Convolution27
I0928 19:59:17.142272  5237 net.cpp:367] BatchNorm27 -> Convolution27 (in-place)
I0928 19:59:17.142408  5237 net.cpp:122] Setting up BatchNorm27
I0928 19:59:17.142412  5237 net.cpp:129] Top shape: 100 32 14 14 (627200)
I0928 19:59:17.142415  5237 net.cpp:137] Memory required for data: 623123600
I0928 19:59:17.142419  5237 layer_factory.hpp:77] Creating layer Scale27
I0928 19:59:17.142422  5237 net.cpp:84] Creating Layer Scale27
I0928 19:59:17.142426  5237 net.cpp:406] Scale27 <- Convolution27
I0928 19:59:17.142428  5237 net.cpp:367] Scale27 -> Convolution27 (in-place)
I0928 19:59:17.142454  5237 layer_factory.hpp:77] Creating layer Scale27
I0928 19:59:17.142546  5237 net.cpp:122] Setting up Scale27
I0928 19:59:17.142551  5237 net.cpp:129] Top shape: 100 32 14 14 (627200)
I0928 19:59:17.142554  5237 net.cpp:137] Memory required for data: 625632400
I0928 19:59:17.142566  5237 layer_factory.hpp:77] Creating layer penlu26
I0928 19:59:17.142571  5237 net.cpp:84] Creating Layer penlu26
I0928 19:59:17.142575  5237 net.cpp:406] penlu26 <- Convolution27
I0928 19:59:17.142578  5237 net.cpp:367] penlu26 -> Convolution27 (in-place)
I0928 19:59:17.142688  5237 net.cpp:122] Setting up penlu26
I0928 19:59:17.142693  5237 net.cpp:129] Top shape: 100 32 14 14 (627200)
I0928 19:59:17.142694  5237 net.cpp:137] Memory required for data: 628141200
I0928 19:59:17.142699  5237 layer_factory.hpp:77] Creating layer Convolution28
I0928 19:59:17.142704  5237 net.cpp:84] Creating Layer Convolution28
I0928 19:59:17.142707  5237 net.cpp:406] Convolution28 <- Convolution27
I0928 19:59:17.142711  5237 net.cpp:380] Convolution28 -> Convolution28
I0928 19:59:17.143726  5237 net.cpp:122] Setting up Convolution28
I0928 19:59:17.143735  5237 net.cpp:129] Top shape: 100 32 14 14 (627200)
I0928 19:59:17.143738  5237 net.cpp:137] Memory required for data: 630650000
I0928 19:59:17.143743  5237 layer_factory.hpp:77] Creating layer BatchNorm28
I0928 19:59:17.143746  5237 net.cpp:84] Creating Layer BatchNorm28
I0928 19:59:17.143748  5237 net.cpp:406] BatchNorm28 <- Convolution28
I0928 19:59:17.143754  5237 net.cpp:367] BatchNorm28 -> Convolution28 (in-place)
I0928 19:59:17.143889  5237 net.cpp:122] Setting up BatchNorm28
I0928 19:59:17.143893  5237 net.cpp:129] Top shape: 100 32 14 14 (627200)
I0928 19:59:17.143895  5237 net.cpp:137] Memory required for data: 633158800
I0928 19:59:17.143900  5237 layer_factory.hpp:77] Creating layer Scale28
I0928 19:59:17.143904  5237 net.cpp:84] Creating Layer Scale28
I0928 19:59:17.143906  5237 net.cpp:406] Scale28 <- Convolution28
I0928 19:59:17.143909  5237 net.cpp:367] Scale28 -> Convolution28 (in-place)
I0928 19:59:17.143935  5237 layer_factory.hpp:77] Creating layer Scale28
I0928 19:59:17.144012  5237 net.cpp:122] Setting up Scale28
I0928 19:59:17.144016  5237 net.cpp:129] Top shape: 100 32 14 14 (627200)
I0928 19:59:17.144018  5237 net.cpp:137] Memory required for data: 635667600
I0928 19:59:17.144022  5237 layer_factory.hpp:77] Creating layer Eltwise13
I0928 19:59:17.144026  5237 net.cpp:84] Creating Layer Eltwise13
I0928 19:59:17.144028  5237 net.cpp:406] Eltwise13 <- Eltwise12_penlu25_0_split_1
I0928 19:59:17.144032  5237 net.cpp:406] Eltwise13 <- Convolution28
I0928 19:59:17.144034  5237 net.cpp:380] Eltwise13 -> Eltwise13
I0928 19:59:17.144050  5237 net.cpp:122] Setting up Eltwise13
I0928 19:59:17.144053  5237 net.cpp:129] Top shape: 100 32 14 14 (627200)
I0928 19:59:17.144055  5237 net.cpp:137] Memory required for data: 638176400
I0928 19:59:17.144057  5237 layer_factory.hpp:77] Creating layer penlu27
I0928 19:59:17.144063  5237 net.cpp:84] Creating Layer penlu27
I0928 19:59:17.144065  5237 net.cpp:406] penlu27 <- Eltwise13
I0928 19:59:17.144069  5237 net.cpp:367] penlu27 -> Eltwise13 (in-place)
I0928 19:59:17.144177  5237 net.cpp:122] Setting up penlu27
I0928 19:59:17.144181  5237 net.cpp:129] Top shape: 100 32 14 14 (627200)
I0928 19:59:17.144183  5237 net.cpp:137] Memory required for data: 640685200
I0928 19:59:17.144194  5237 layer_factory.hpp:77] Creating layer Eltwise13_penlu27_0_split
I0928 19:59:17.144198  5237 net.cpp:84] Creating Layer Eltwise13_penlu27_0_split
I0928 19:59:17.144201  5237 net.cpp:406] Eltwise13_penlu27_0_split <- Eltwise13
I0928 19:59:17.144203  5237 net.cpp:380] Eltwise13_penlu27_0_split -> Eltwise13_penlu27_0_split_0
I0928 19:59:17.144207  5237 net.cpp:380] Eltwise13_penlu27_0_split -> Eltwise13_penlu27_0_split_1
I0928 19:59:17.144232  5237 net.cpp:122] Setting up Eltwise13_penlu27_0_split
I0928 19:59:17.144235  5237 net.cpp:129] Top shape: 100 32 14 14 (627200)
I0928 19:59:17.144238  5237 net.cpp:129] Top shape: 100 32 14 14 (627200)
I0928 19:59:17.144239  5237 net.cpp:137] Memory required for data: 645702800
I0928 19:59:17.144243  5237 layer_factory.hpp:77] Creating layer Convolution29
I0928 19:59:17.144248  5237 net.cpp:84] Creating Layer Convolution29
I0928 19:59:17.144249  5237 net.cpp:406] Convolution29 <- Eltwise13_penlu27_0_split_0
I0928 19:59:17.144254  5237 net.cpp:380] Convolution29 -> Convolution29
I0928 19:59:17.145274  5237 net.cpp:122] Setting up Convolution29
I0928 19:59:17.145283  5237 net.cpp:129] Top shape: 100 32 14 14 (627200)
I0928 19:59:17.145287  5237 net.cpp:137] Memory required for data: 648211600
I0928 19:59:17.145290  5237 layer_factory.hpp:77] Creating layer BatchNorm29
I0928 19:59:17.145294  5237 net.cpp:84] Creating Layer BatchNorm29
I0928 19:59:17.145298  5237 net.cpp:406] BatchNorm29 <- Convolution29
I0928 19:59:17.145301  5237 net.cpp:367] BatchNorm29 -> Convolution29 (in-place)
I0928 19:59:17.145437  5237 net.cpp:122] Setting up BatchNorm29
I0928 19:59:17.145440  5237 net.cpp:129] Top shape: 100 32 14 14 (627200)
I0928 19:59:17.145442  5237 net.cpp:137] Memory required for data: 650720400
I0928 19:59:17.145447  5237 layer_factory.hpp:77] Creating layer Scale29
I0928 19:59:17.145452  5237 net.cpp:84] Creating Layer Scale29
I0928 19:59:17.145453  5237 net.cpp:406] Scale29 <- Convolution29
I0928 19:59:17.145457  5237 net.cpp:367] Scale29 -> Convolution29 (in-place)
I0928 19:59:17.145483  5237 layer_factory.hpp:77] Creating layer Scale29
I0928 19:59:17.145561  5237 net.cpp:122] Setting up Scale29
I0928 19:59:17.145565  5237 net.cpp:129] Top shape: 100 32 14 14 (627200)
I0928 19:59:17.145567  5237 net.cpp:137] Memory required for data: 653229200
I0928 19:59:17.145571  5237 layer_factory.hpp:77] Creating layer penlu28
I0928 19:59:17.145576  5237 net.cpp:84] Creating Layer penlu28
I0928 19:59:17.145578  5237 net.cpp:406] penlu28 <- Convolution29
I0928 19:59:17.145582  5237 net.cpp:367] penlu28 -> Convolution29 (in-place)
I0928 19:59:17.145690  5237 net.cpp:122] Setting up penlu28
I0928 19:59:17.145695  5237 net.cpp:129] Top shape: 100 32 14 14 (627200)
I0928 19:59:17.145697  5237 net.cpp:137] Memory required for data: 655738000
I0928 19:59:17.145701  5237 layer_factory.hpp:77] Creating layer Convolution30
I0928 19:59:17.145707  5237 net.cpp:84] Creating Layer Convolution30
I0928 19:59:17.145710  5237 net.cpp:406] Convolution30 <- Convolution29
I0928 19:59:17.145714  5237 net.cpp:380] Convolution30 -> Convolution30
I0928 19:59:17.146742  5237 net.cpp:122] Setting up Convolution30
I0928 19:59:17.146750  5237 net.cpp:129] Top shape: 100 32 14 14 (627200)
I0928 19:59:17.146754  5237 net.cpp:137] Memory required for data: 658246800
I0928 19:59:17.146757  5237 layer_factory.hpp:77] Creating layer BatchNorm30
I0928 19:59:17.146762  5237 net.cpp:84] Creating Layer BatchNorm30
I0928 19:59:17.146765  5237 net.cpp:406] BatchNorm30 <- Convolution30
I0928 19:59:17.146769  5237 net.cpp:367] BatchNorm30 -> Convolution30 (in-place)
I0928 19:59:17.146901  5237 net.cpp:122] Setting up BatchNorm30
I0928 19:59:17.146905  5237 net.cpp:129] Top shape: 100 32 14 14 (627200)
I0928 19:59:17.146908  5237 net.cpp:137] Memory required for data: 660755600
I0928 19:59:17.146912  5237 layer_factory.hpp:77] Creating layer Scale30
I0928 19:59:17.146916  5237 net.cpp:84] Creating Layer Scale30
I0928 19:59:17.146919  5237 net.cpp:406] Scale30 <- Convolution30
I0928 19:59:17.146921  5237 net.cpp:367] Scale30 -> Convolution30 (in-place)
I0928 19:59:17.146956  5237 layer_factory.hpp:77] Creating layer Scale30
I0928 19:59:17.147033  5237 net.cpp:122] Setting up Scale30
I0928 19:59:17.147037  5237 net.cpp:129] Top shape: 100 32 14 14 (627200)
I0928 19:59:17.147039  5237 net.cpp:137] Memory required for data: 663264400
I0928 19:59:17.147043  5237 layer_factory.hpp:77] Creating layer Eltwise14
I0928 19:59:17.147048  5237 net.cpp:84] Creating Layer Eltwise14
I0928 19:59:17.147050  5237 net.cpp:406] Eltwise14 <- Eltwise13_penlu27_0_split_1
I0928 19:59:17.147053  5237 net.cpp:406] Eltwise14 <- Convolution30
I0928 19:59:17.147056  5237 net.cpp:380] Eltwise14 -> Eltwise14
I0928 19:59:17.147073  5237 net.cpp:122] Setting up Eltwise14
I0928 19:59:17.147075  5237 net.cpp:129] Top shape: 100 32 14 14 (627200)
I0928 19:59:17.147078  5237 net.cpp:137] Memory required for data: 665773200
I0928 19:59:17.147079  5237 layer_factory.hpp:77] Creating layer penlu29
I0928 19:59:17.147085  5237 net.cpp:84] Creating Layer penlu29
I0928 19:59:17.147088  5237 net.cpp:406] penlu29 <- Eltwise14
I0928 19:59:17.147090  5237 net.cpp:367] penlu29 -> Eltwise14 (in-place)
I0928 19:59:17.147197  5237 net.cpp:122] Setting up penlu29
I0928 19:59:17.147202  5237 net.cpp:129] Top shape: 100 32 14 14 (627200)
I0928 19:59:17.147203  5237 net.cpp:137] Memory required for data: 668282000
I0928 19:59:17.147207  5237 layer_factory.hpp:77] Creating layer Eltwise14_penlu29_0_split
I0928 19:59:17.147210  5237 net.cpp:84] Creating Layer Eltwise14_penlu29_0_split
I0928 19:59:17.147213  5237 net.cpp:406] Eltwise14_penlu29_0_split <- Eltwise14
I0928 19:59:17.147217  5237 net.cpp:380] Eltwise14_penlu29_0_split -> Eltwise14_penlu29_0_split_0
I0928 19:59:17.147222  5237 net.cpp:380] Eltwise14_penlu29_0_split -> Eltwise14_penlu29_0_split_1
I0928 19:59:17.147243  5237 net.cpp:122] Setting up Eltwise14_penlu29_0_split
I0928 19:59:17.147246  5237 net.cpp:129] Top shape: 100 32 14 14 (627200)
I0928 19:59:17.147249  5237 net.cpp:129] Top shape: 100 32 14 14 (627200)
I0928 19:59:17.147251  5237 net.cpp:137] Memory required for data: 673299600
I0928 19:59:17.147253  5237 layer_factory.hpp:77] Creating layer Convolution31
I0928 19:59:17.147258  5237 net.cpp:84] Creating Layer Convolution31
I0928 19:59:17.147261  5237 net.cpp:406] Convolution31 <- Eltwise14_penlu29_0_split_0
I0928 19:59:17.147265  5237 net.cpp:380] Convolution31 -> Convolution31
I0928 19:59:17.148291  5237 net.cpp:122] Setting up Convolution31
I0928 19:59:17.148299  5237 net.cpp:129] Top shape: 100 32 14 14 (627200)
I0928 19:59:17.148301  5237 net.cpp:137] Memory required for data: 675808400
I0928 19:59:17.148306  5237 layer_factory.hpp:77] Creating layer BatchNorm31
I0928 19:59:17.148311  5237 net.cpp:84] Creating Layer BatchNorm31
I0928 19:59:17.148314  5237 net.cpp:406] BatchNorm31 <- Convolution31
I0928 19:59:17.148317  5237 net.cpp:367] BatchNorm31 -> Convolution31 (in-place)
I0928 19:59:17.148454  5237 net.cpp:122] Setting up BatchNorm31
I0928 19:59:17.148458  5237 net.cpp:129] Top shape: 100 32 14 14 (627200)
I0928 19:59:17.148460  5237 net.cpp:137] Memory required for data: 678317200
I0928 19:59:17.148465  5237 layer_factory.hpp:77] Creating layer Scale31
I0928 19:59:17.148469  5237 net.cpp:84] Creating Layer Scale31
I0928 19:59:17.148471  5237 net.cpp:406] Scale31 <- Convolution31
I0928 19:59:17.148474  5237 net.cpp:367] Scale31 -> Convolution31 (in-place)
I0928 19:59:17.148500  5237 layer_factory.hpp:77] Creating layer Scale31
I0928 19:59:17.148576  5237 net.cpp:122] Setting up Scale31
I0928 19:59:17.148581  5237 net.cpp:129] Top shape: 100 32 14 14 (627200)
I0928 19:59:17.148582  5237 net.cpp:137] Memory required for data: 680826000
I0928 19:59:17.148586  5237 layer_factory.hpp:77] Creating layer penlu30
I0928 19:59:17.148591  5237 net.cpp:84] Creating Layer penlu30
I0928 19:59:17.148594  5237 net.cpp:406] penlu30 <- Convolution31
I0928 19:59:17.148598  5237 net.cpp:367] penlu30 -> Convolution31 (in-place)
I0928 19:59:17.148706  5237 net.cpp:122] Setting up penlu30
I0928 19:59:17.148711  5237 net.cpp:129] Top shape: 100 32 14 14 (627200)
I0928 19:59:17.148718  5237 net.cpp:137] Memory required for data: 683334800
I0928 19:59:17.148723  5237 layer_factory.hpp:77] Creating layer Convolution32
I0928 19:59:17.148730  5237 net.cpp:84] Creating Layer Convolution32
I0928 19:59:17.148733  5237 net.cpp:406] Convolution32 <- Convolution31
I0928 19:59:17.148737  5237 net.cpp:380] Convolution32 -> Convolution32
I0928 19:59:17.149767  5237 net.cpp:122] Setting up Convolution32
I0928 19:59:17.149776  5237 net.cpp:129] Top shape: 100 32 14 14 (627200)
I0928 19:59:17.149778  5237 net.cpp:137] Memory required for data: 685843600
I0928 19:59:17.149783  5237 layer_factory.hpp:77] Creating layer BatchNorm32
I0928 19:59:17.149788  5237 net.cpp:84] Creating Layer BatchNorm32
I0928 19:59:17.149791  5237 net.cpp:406] BatchNorm32 <- Convolution32
I0928 19:59:17.149794  5237 net.cpp:367] BatchNorm32 -> Convolution32 (in-place)
I0928 19:59:17.149930  5237 net.cpp:122] Setting up BatchNorm32
I0928 19:59:17.149933  5237 net.cpp:129] Top shape: 100 32 14 14 (627200)
I0928 19:59:17.149935  5237 net.cpp:137] Memory required for data: 688352400
I0928 19:59:17.149940  5237 layer_factory.hpp:77] Creating layer Scale32
I0928 19:59:17.149945  5237 net.cpp:84] Creating Layer Scale32
I0928 19:59:17.149946  5237 net.cpp:406] Scale32 <- Convolution32
I0928 19:59:17.149950  5237 net.cpp:367] Scale32 -> Convolution32 (in-place)
I0928 19:59:17.149976  5237 layer_factory.hpp:77] Creating layer Scale32
I0928 19:59:17.150054  5237 net.cpp:122] Setting up Scale32
I0928 19:59:17.150058  5237 net.cpp:129] Top shape: 100 32 14 14 (627200)
I0928 19:59:17.150060  5237 net.cpp:137] Memory required for data: 690861200
I0928 19:59:17.150064  5237 layer_factory.hpp:77] Creating layer Eltwise15
I0928 19:59:17.150068  5237 net.cpp:84] Creating Layer Eltwise15
I0928 19:59:17.150071  5237 net.cpp:406] Eltwise15 <- Eltwise14_penlu29_0_split_1
I0928 19:59:17.150074  5237 net.cpp:406] Eltwise15 <- Convolution32
I0928 19:59:17.150077  5237 net.cpp:380] Eltwise15 -> Eltwise15
I0928 19:59:17.150094  5237 net.cpp:122] Setting up Eltwise15
I0928 19:59:17.150097  5237 net.cpp:129] Top shape: 100 32 14 14 (627200)
I0928 19:59:17.150099  5237 net.cpp:137] Memory required for data: 693370000
I0928 19:59:17.150101  5237 layer_factory.hpp:77] Creating layer penlu31
I0928 19:59:17.150106  5237 net.cpp:84] Creating Layer penlu31
I0928 19:59:17.150108  5237 net.cpp:406] penlu31 <- Eltwise15
I0928 19:59:17.150111  5237 net.cpp:367] penlu31 -> Eltwise15 (in-place)
I0928 19:59:17.150220  5237 net.cpp:122] Setting up penlu31
I0928 19:59:17.150224  5237 net.cpp:129] Top shape: 100 32 14 14 (627200)
I0928 19:59:17.150226  5237 net.cpp:137] Memory required for data: 695878800
I0928 19:59:17.150230  5237 layer_factory.hpp:77] Creating layer Eltwise15_penlu31_0_split
I0928 19:59:17.150234  5237 net.cpp:84] Creating Layer Eltwise15_penlu31_0_split
I0928 19:59:17.150236  5237 net.cpp:406] Eltwise15_penlu31_0_split <- Eltwise15
I0928 19:59:17.150240  5237 net.cpp:380] Eltwise15_penlu31_0_split -> Eltwise15_penlu31_0_split_0
I0928 19:59:17.150244  5237 net.cpp:380] Eltwise15_penlu31_0_split -> Eltwise15_penlu31_0_split_1
I0928 19:59:17.150266  5237 net.cpp:122] Setting up Eltwise15_penlu31_0_split
I0928 19:59:17.150269  5237 net.cpp:129] Top shape: 100 32 14 14 (627200)
I0928 19:59:17.150272  5237 net.cpp:129] Top shape: 100 32 14 14 (627200)
I0928 19:59:17.150274  5237 net.cpp:137] Memory required for data: 700896400
I0928 19:59:17.150276  5237 layer_factory.hpp:77] Creating layer Convolution33
I0928 19:59:17.150283  5237 net.cpp:84] Creating Layer Convolution33
I0928 19:59:17.150286  5237 net.cpp:406] Convolution33 <- Eltwise15_penlu31_0_split_0
I0928 19:59:17.150290  5237 net.cpp:380] Convolution33 -> Convolution33
I0928 19:59:17.151659  5237 net.cpp:122] Setting up Convolution33
I0928 19:59:17.151669  5237 net.cpp:129] Top shape: 100 32 14 14 (627200)
I0928 19:59:17.151671  5237 net.cpp:137] Memory required for data: 703405200
I0928 19:59:17.151675  5237 layer_factory.hpp:77] Creating layer BatchNorm33
I0928 19:59:17.151686  5237 net.cpp:84] Creating Layer BatchNorm33
I0928 19:59:17.151690  5237 net.cpp:406] BatchNorm33 <- Convolution33
I0928 19:59:17.151693  5237 net.cpp:367] BatchNorm33 -> Convolution33 (in-place)
I0928 19:59:17.151834  5237 net.cpp:122] Setting up BatchNorm33
I0928 19:59:17.151837  5237 net.cpp:129] Top shape: 100 32 14 14 (627200)
I0928 19:59:17.151839  5237 net.cpp:137] Memory required for data: 705914000
I0928 19:59:17.151844  5237 layer_factory.hpp:77] Creating layer Scale33
I0928 19:59:17.151849  5237 net.cpp:84] Creating Layer Scale33
I0928 19:59:17.151850  5237 net.cpp:406] Scale33 <- Convolution33
I0928 19:59:17.151854  5237 net.cpp:367] Scale33 -> Convolution33 (in-place)
I0928 19:59:17.151880  5237 layer_factory.hpp:77] Creating layer Scale33
I0928 19:59:17.151958  5237 net.cpp:122] Setting up Scale33
I0928 19:59:17.151962  5237 net.cpp:129] Top shape: 100 32 14 14 (627200)
I0928 19:59:17.151964  5237 net.cpp:137] Memory required for data: 708422800
I0928 19:59:17.151968  5237 layer_factory.hpp:77] Creating layer penlu32
I0928 19:59:17.151973  5237 net.cpp:84] Creating Layer penlu32
I0928 19:59:17.151975  5237 net.cpp:406] penlu32 <- Convolution33
I0928 19:59:17.151979  5237 net.cpp:367] penlu32 -> Convolution33 (in-place)
I0928 19:59:17.152087  5237 net.cpp:122] Setting up penlu32
I0928 19:59:17.152092  5237 net.cpp:129] Top shape: 100 32 14 14 (627200)
I0928 19:59:17.152094  5237 net.cpp:137] Memory required for data: 710931600
I0928 19:59:17.152098  5237 layer_factory.hpp:77] Creating layer Convolution34
I0928 19:59:17.152104  5237 net.cpp:84] Creating Layer Convolution34
I0928 19:59:17.152107  5237 net.cpp:406] Convolution34 <- Convolution33
I0928 19:59:17.152110  5237 net.cpp:380] Convolution34 -> Convolution34
I0928 19:59:17.153149  5237 net.cpp:122] Setting up Convolution34
I0928 19:59:17.153158  5237 net.cpp:129] Top shape: 100 32 14 14 (627200)
I0928 19:59:17.153161  5237 net.cpp:137] Memory required for data: 713440400
I0928 19:59:17.153165  5237 layer_factory.hpp:77] Creating layer BatchNorm34
I0928 19:59:17.153169  5237 net.cpp:84] Creating Layer BatchNorm34
I0928 19:59:17.153172  5237 net.cpp:406] BatchNorm34 <- Convolution34
I0928 19:59:17.153178  5237 net.cpp:367] BatchNorm34 -> Convolution34 (in-place)
I0928 19:59:17.153316  5237 net.cpp:122] Setting up BatchNorm34
I0928 19:59:17.153321  5237 net.cpp:129] Top shape: 100 32 14 14 (627200)
I0928 19:59:17.153322  5237 net.cpp:137] Memory required for data: 715949200
I0928 19:59:17.153326  5237 layer_factory.hpp:77] Creating layer Scale34
I0928 19:59:17.153331  5237 net.cpp:84] Creating Layer Scale34
I0928 19:59:17.153332  5237 net.cpp:406] Scale34 <- Convolution34
I0928 19:59:17.153336  5237 net.cpp:367] Scale34 -> Convolution34 (in-place)
I0928 19:59:17.153362  5237 layer_factory.hpp:77] Creating layer Scale34
I0928 19:59:17.153439  5237 net.cpp:122] Setting up Scale34
I0928 19:59:17.153442  5237 net.cpp:129] Top shape: 100 32 14 14 (627200)
I0928 19:59:17.153445  5237 net.cpp:137] Memory required for data: 718458000
I0928 19:59:17.153448  5237 layer_factory.hpp:77] Creating layer Eltwise16
I0928 19:59:17.153451  5237 net.cpp:84] Creating Layer Eltwise16
I0928 19:59:17.153455  5237 net.cpp:406] Eltwise16 <- Eltwise15_penlu31_0_split_1
I0928 19:59:17.153457  5237 net.cpp:406] Eltwise16 <- Convolution34
I0928 19:59:17.153460  5237 net.cpp:380] Eltwise16 -> Eltwise16
I0928 19:59:17.153476  5237 net.cpp:122] Setting up Eltwise16
I0928 19:59:17.153481  5237 net.cpp:129] Top shape: 100 32 14 14 (627200)
I0928 19:59:17.153481  5237 net.cpp:137] Memory required for data: 720966800
I0928 19:59:17.153484  5237 layer_factory.hpp:77] Creating layer penlu33
I0928 19:59:17.153489  5237 net.cpp:84] Creating Layer penlu33
I0928 19:59:17.153491  5237 net.cpp:406] penlu33 <- Eltwise16
I0928 19:59:17.153496  5237 net.cpp:367] penlu33 -> Eltwise16 (in-place)
I0928 19:59:17.153604  5237 net.cpp:122] Setting up penlu33
I0928 19:59:17.153609  5237 net.cpp:129] Top shape: 100 32 14 14 (627200)
I0928 19:59:17.153610  5237 net.cpp:137] Memory required for data: 723475600
I0928 19:59:17.153620  5237 layer_factory.hpp:77] Creating layer Eltwise16_penlu33_0_split
I0928 19:59:17.153625  5237 net.cpp:84] Creating Layer Eltwise16_penlu33_0_split
I0928 19:59:17.153627  5237 net.cpp:406] Eltwise16_penlu33_0_split <- Eltwise16
I0928 19:59:17.153630  5237 net.cpp:380] Eltwise16_penlu33_0_split -> Eltwise16_penlu33_0_split_0
I0928 19:59:17.153635  5237 net.cpp:380] Eltwise16_penlu33_0_split -> Eltwise16_penlu33_0_split_1
I0928 19:59:17.153658  5237 net.cpp:122] Setting up Eltwise16_penlu33_0_split
I0928 19:59:17.153662  5237 net.cpp:129] Top shape: 100 32 14 14 (627200)
I0928 19:59:17.153664  5237 net.cpp:129] Top shape: 100 32 14 14 (627200)
I0928 19:59:17.153666  5237 net.cpp:137] Memory required for data: 728493200
I0928 19:59:17.153669  5237 layer_factory.hpp:77] Creating layer Convolution35
I0928 19:59:17.153674  5237 net.cpp:84] Creating Layer Convolution35
I0928 19:59:17.153676  5237 net.cpp:406] Convolution35 <- Eltwise16_penlu33_0_split_0
I0928 19:59:17.153681  5237 net.cpp:380] Convolution35 -> Convolution35
I0928 19:59:17.154721  5237 net.cpp:122] Setting up Convolution35
I0928 19:59:17.154729  5237 net.cpp:129] Top shape: 100 32 14 14 (627200)
I0928 19:59:17.154732  5237 net.cpp:137] Memory required for data: 731002000
I0928 19:59:17.154736  5237 layer_factory.hpp:77] Creating layer BatchNorm35
I0928 19:59:17.154741  5237 net.cpp:84] Creating Layer BatchNorm35
I0928 19:59:17.154743  5237 net.cpp:406] BatchNorm35 <- Convolution35
I0928 19:59:17.154748  5237 net.cpp:367] BatchNorm35 -> Convolution35 (in-place)
I0928 19:59:17.154891  5237 net.cpp:122] Setting up BatchNorm35
I0928 19:59:17.154896  5237 net.cpp:129] Top shape: 100 32 14 14 (627200)
I0928 19:59:17.154898  5237 net.cpp:137] Memory required for data: 733510800
I0928 19:59:17.154903  5237 layer_factory.hpp:77] Creating layer Scale35
I0928 19:59:17.154906  5237 net.cpp:84] Creating Layer Scale35
I0928 19:59:17.154909  5237 net.cpp:406] Scale35 <- Convolution35
I0928 19:59:17.154912  5237 net.cpp:367] Scale35 -> Convolution35 (in-place)
I0928 19:59:17.154939  5237 layer_factory.hpp:77] Creating layer Scale35
I0928 19:59:17.155019  5237 net.cpp:122] Setting up Scale35
I0928 19:59:17.155025  5237 net.cpp:129] Top shape: 100 32 14 14 (627200)
I0928 19:59:17.155025  5237 net.cpp:137] Memory required for data: 736019600
I0928 19:59:17.155030  5237 layer_factory.hpp:77] Creating layer penlu34
I0928 19:59:17.155035  5237 net.cpp:84] Creating Layer penlu34
I0928 19:59:17.155036  5237 net.cpp:406] penlu34 <- Convolution35
I0928 19:59:17.155040  5237 net.cpp:367] penlu34 -> Convolution35 (in-place)
I0928 19:59:17.155149  5237 net.cpp:122] Setting up penlu34
I0928 19:59:17.155153  5237 net.cpp:129] Top shape: 100 32 14 14 (627200)
I0928 19:59:17.155155  5237 net.cpp:137] Memory required for data: 738528400
I0928 19:59:17.155160  5237 layer_factory.hpp:77] Creating layer Convolution36
I0928 19:59:17.155166  5237 net.cpp:84] Creating Layer Convolution36
I0928 19:59:17.155169  5237 net.cpp:406] Convolution36 <- Convolution35
I0928 19:59:17.155174  5237 net.cpp:380] Convolution36 -> Convolution36
I0928 19:59:17.156213  5237 net.cpp:122] Setting up Convolution36
I0928 19:59:17.156222  5237 net.cpp:129] Top shape: 100 32 14 14 (627200)
I0928 19:59:17.156224  5237 net.cpp:137] Memory required for data: 741037200
I0928 19:59:17.156229  5237 layer_factory.hpp:77] Creating layer BatchNorm36
I0928 19:59:17.156234  5237 net.cpp:84] Creating Layer BatchNorm36
I0928 19:59:17.156236  5237 net.cpp:406] BatchNorm36 <- Convolution36
I0928 19:59:17.156240  5237 net.cpp:367] BatchNorm36 -> Convolution36 (in-place)
I0928 19:59:17.156376  5237 net.cpp:122] Setting up BatchNorm36
I0928 19:59:17.156380  5237 net.cpp:129] Top shape: 100 32 14 14 (627200)
I0928 19:59:17.156383  5237 net.cpp:137] Memory required for data: 743546000
I0928 19:59:17.156388  5237 layer_factory.hpp:77] Creating layer Scale36
I0928 19:59:17.156391  5237 net.cpp:84] Creating Layer Scale36
I0928 19:59:17.156394  5237 net.cpp:406] Scale36 <- Convolution36
I0928 19:59:17.156396  5237 net.cpp:367] Scale36 -> Convolution36 (in-place)
I0928 19:59:17.156432  5237 layer_factory.hpp:77] Creating layer Scale36
I0928 19:59:17.156510  5237 net.cpp:122] Setting up Scale36
I0928 19:59:17.156514  5237 net.cpp:129] Top shape: 100 32 14 14 (627200)
I0928 19:59:17.156517  5237 net.cpp:137] Memory required for data: 746054800
I0928 19:59:17.156520  5237 layer_factory.hpp:77] Creating layer Eltwise17
I0928 19:59:17.156524  5237 net.cpp:84] Creating Layer Eltwise17
I0928 19:59:17.156527  5237 net.cpp:406] Eltwise17 <- Eltwise16_penlu33_0_split_1
I0928 19:59:17.156530  5237 net.cpp:406] Eltwise17 <- Convolution36
I0928 19:59:17.156533  5237 net.cpp:380] Eltwise17 -> Eltwise17
I0928 19:59:17.156550  5237 net.cpp:122] Setting up Eltwise17
I0928 19:59:17.156554  5237 net.cpp:129] Top shape: 100 32 14 14 (627200)
I0928 19:59:17.156556  5237 net.cpp:137] Memory required for data: 748563600
I0928 19:59:17.156558  5237 layer_factory.hpp:77] Creating layer penlu35
I0928 19:59:17.156563  5237 net.cpp:84] Creating Layer penlu35
I0928 19:59:17.156565  5237 net.cpp:406] penlu35 <- Eltwise17
I0928 19:59:17.156569  5237 net.cpp:367] penlu35 -> Eltwise17 (in-place)
I0928 19:59:17.156677  5237 net.cpp:122] Setting up penlu35
I0928 19:59:17.156682  5237 net.cpp:129] Top shape: 100 32 14 14 (627200)
I0928 19:59:17.156683  5237 net.cpp:137] Memory required for data: 751072400
I0928 19:59:17.156688  5237 layer_factory.hpp:77] Creating layer Eltwise17_penlu35_0_split
I0928 19:59:17.156692  5237 net.cpp:84] Creating Layer Eltwise17_penlu35_0_split
I0928 19:59:17.156694  5237 net.cpp:406] Eltwise17_penlu35_0_split <- Eltwise17
I0928 19:59:17.156697  5237 net.cpp:380] Eltwise17_penlu35_0_split -> Eltwise17_penlu35_0_split_0
I0928 19:59:17.156702  5237 net.cpp:380] Eltwise17_penlu35_0_split -> Eltwise17_penlu35_0_split_1
I0928 19:59:17.156723  5237 net.cpp:122] Setting up Eltwise17_penlu35_0_split
I0928 19:59:17.156728  5237 net.cpp:129] Top shape: 100 32 14 14 (627200)
I0928 19:59:17.156730  5237 net.cpp:129] Top shape: 100 32 14 14 (627200)
I0928 19:59:17.156733  5237 net.cpp:137] Memory required for data: 756090000
I0928 19:59:17.156734  5237 layer_factory.hpp:77] Creating layer Convolution37
I0928 19:59:17.156740  5237 net.cpp:84] Creating Layer Convolution37
I0928 19:59:17.156743  5237 net.cpp:406] Convolution37 <- Eltwise17_penlu35_0_split_0
I0928 19:59:17.156746  5237 net.cpp:380] Convolution37 -> Convolution37
I0928 19:59:17.157460  5237 net.cpp:122] Setting up Convolution37
I0928 19:59:17.157467  5237 net.cpp:129] Top shape: 100 32 14 14 (627200)
I0928 19:59:17.157470  5237 net.cpp:137] Memory required for data: 758598800
I0928 19:59:17.157474  5237 layer_factory.hpp:77] Creating layer BatchNorm37
I0928 19:59:17.157480  5237 net.cpp:84] Creating Layer BatchNorm37
I0928 19:59:17.157481  5237 net.cpp:406] BatchNorm37 <- Convolution37
I0928 19:59:17.157485  5237 net.cpp:367] BatchNorm37 -> Convolution37 (in-place)
I0928 19:59:17.157621  5237 net.cpp:122] Setting up BatchNorm37
I0928 19:59:17.157625  5237 net.cpp:129] Top shape: 100 32 14 14 (627200)
I0928 19:59:17.157627  5237 net.cpp:137] Memory required for data: 761107600
I0928 19:59:17.157631  5237 layer_factory.hpp:77] Creating layer Scale37
I0928 19:59:17.157636  5237 net.cpp:84] Creating Layer Scale37
I0928 19:59:17.157639  5237 net.cpp:406] Scale37 <- Convolution37
I0928 19:59:17.157641  5237 net.cpp:367] Scale37 -> Convolution37 (in-place)
I0928 19:59:17.157667  5237 layer_factory.hpp:77] Creating layer Scale37
I0928 19:59:17.157744  5237 net.cpp:122] Setting up Scale37
I0928 19:59:17.157748  5237 net.cpp:129] Top shape: 100 32 14 14 (627200)
I0928 19:59:17.157750  5237 net.cpp:137] Memory required for data: 763616400
I0928 19:59:17.157753  5237 layer_factory.hpp:77] Creating layer penlu36
I0928 19:59:17.157759  5237 net.cpp:84] Creating Layer penlu36
I0928 19:59:17.157762  5237 net.cpp:406] penlu36 <- Convolution37
I0928 19:59:17.157765  5237 net.cpp:367] penlu36 -> Convolution37 (in-place)
I0928 19:59:17.157872  5237 net.cpp:122] Setting up penlu36
I0928 19:59:17.157876  5237 net.cpp:129] Top shape: 100 32 14 14 (627200)
I0928 19:59:17.157886  5237 net.cpp:137] Memory required for data: 766125200
I0928 19:59:17.157891  5237 layer_factory.hpp:77] Creating layer Convolution38
I0928 19:59:17.157896  5237 net.cpp:84] Creating Layer Convolution38
I0928 19:59:17.157899  5237 net.cpp:406] Convolution38 <- Convolution37
I0928 19:59:17.157902  5237 net.cpp:380] Convolution38 -> Convolution38
I0928 19:59:17.158953  5237 net.cpp:122] Setting up Convolution38
I0928 19:59:17.158962  5237 net.cpp:129] Top shape: 100 32 14 14 (627200)
I0928 19:59:17.158964  5237 net.cpp:137] Memory required for data: 768634000
I0928 19:59:17.158969  5237 layer_factory.hpp:77] Creating layer BatchNorm38
I0928 19:59:17.158973  5237 net.cpp:84] Creating Layer BatchNorm38
I0928 19:59:17.158975  5237 net.cpp:406] BatchNorm38 <- Convolution38
I0928 19:59:17.158980  5237 net.cpp:367] BatchNorm38 -> Convolution38 (in-place)
I0928 19:59:17.159119  5237 net.cpp:122] Setting up BatchNorm38
I0928 19:59:17.159124  5237 net.cpp:129] Top shape: 100 32 14 14 (627200)
I0928 19:59:17.159126  5237 net.cpp:137] Memory required for data: 771142800
I0928 19:59:17.159132  5237 layer_factory.hpp:77] Creating layer Scale38
I0928 19:59:17.159134  5237 net.cpp:84] Creating Layer Scale38
I0928 19:59:17.159137  5237 net.cpp:406] Scale38 <- Convolution38
I0928 19:59:17.159140  5237 net.cpp:367] Scale38 -> Convolution38 (in-place)
I0928 19:59:17.159168  5237 layer_factory.hpp:77] Creating layer Scale38
I0928 19:59:17.159245  5237 net.cpp:122] Setting up Scale38
I0928 19:59:17.159250  5237 net.cpp:129] Top shape: 100 32 14 14 (627200)
I0928 19:59:17.159251  5237 net.cpp:137] Memory required for data: 773651600
I0928 19:59:17.159255  5237 layer_factory.hpp:77] Creating layer Eltwise18
I0928 19:59:17.159258  5237 net.cpp:84] Creating Layer Eltwise18
I0928 19:59:17.159261  5237 net.cpp:406] Eltwise18 <- Eltwise17_penlu35_0_split_1
I0928 19:59:17.159263  5237 net.cpp:406] Eltwise18 <- Convolution38
I0928 19:59:17.159267  5237 net.cpp:380] Eltwise18 -> Eltwise18
I0928 19:59:17.159282  5237 net.cpp:122] Setting up Eltwise18
I0928 19:59:17.159286  5237 net.cpp:129] Top shape: 100 32 14 14 (627200)
I0928 19:59:17.159288  5237 net.cpp:137] Memory required for data: 776160400
I0928 19:59:17.159291  5237 layer_factory.hpp:77] Creating layer penlu37
I0928 19:59:17.159296  5237 net.cpp:84] Creating Layer penlu37
I0928 19:59:17.159297  5237 net.cpp:406] penlu37 <- Eltwise18
I0928 19:59:17.159301  5237 net.cpp:367] penlu37 -> Eltwise18 (in-place)
I0928 19:59:17.159411  5237 net.cpp:122] Setting up penlu37
I0928 19:59:17.159415  5237 net.cpp:129] Top shape: 100 32 14 14 (627200)
I0928 19:59:17.159417  5237 net.cpp:137] Memory required for data: 778669200
I0928 19:59:17.159422  5237 layer_factory.hpp:77] Creating layer Eltwise18_penlu37_0_split
I0928 19:59:17.159425  5237 net.cpp:84] Creating Layer Eltwise18_penlu37_0_split
I0928 19:59:17.159427  5237 net.cpp:406] Eltwise18_penlu37_0_split <- Eltwise18
I0928 19:59:17.159431  5237 net.cpp:380] Eltwise18_penlu37_0_split -> Eltwise18_penlu37_0_split_0
I0928 19:59:17.159435  5237 net.cpp:380] Eltwise18_penlu37_0_split -> Eltwise18_penlu37_0_split_1
I0928 19:59:17.159458  5237 net.cpp:122] Setting up Eltwise18_penlu37_0_split
I0928 19:59:17.159461  5237 net.cpp:129] Top shape: 100 32 14 14 (627200)
I0928 19:59:17.159464  5237 net.cpp:129] Top shape: 100 32 14 14 (627200)
I0928 19:59:17.159466  5237 net.cpp:137] Memory required for data: 783686800
I0928 19:59:17.159468  5237 layer_factory.hpp:77] Creating layer Convolution39
I0928 19:59:17.159473  5237 net.cpp:84] Creating Layer Convolution39
I0928 19:59:17.159476  5237 net.cpp:406] Convolution39 <- Eltwise18_penlu37_0_split_0
I0928 19:59:17.159481  5237 net.cpp:380] Convolution39 -> Convolution39
I0928 19:59:17.160411  5237 net.cpp:122] Setting up Convolution39
I0928 19:59:17.160429  5237 net.cpp:129] Top shape: 100 64 7 7 (313600)
I0928 19:59:17.160442  5237 net.cpp:137] Memory required for data: 784941200
I0928 19:59:17.160447  5237 layer_factory.hpp:77] Creating layer BatchNorm39
I0928 19:59:17.160459  5237 net.cpp:84] Creating Layer BatchNorm39
I0928 19:59:17.160461  5237 net.cpp:406] BatchNorm39 <- Convolution39
I0928 19:59:17.160465  5237 net.cpp:367] BatchNorm39 -> Convolution39 (in-place)
I0928 19:59:17.160620  5237 net.cpp:122] Setting up BatchNorm39
I0928 19:59:17.160625  5237 net.cpp:129] Top shape: 100 64 7 7 (313600)
I0928 19:59:17.160627  5237 net.cpp:137] Memory required for data: 786195600
I0928 19:59:17.160631  5237 layer_factory.hpp:77] Creating layer Scale39
I0928 19:59:17.160635  5237 net.cpp:84] Creating Layer Scale39
I0928 19:59:17.160639  5237 net.cpp:406] Scale39 <- Convolution39
I0928 19:59:17.160641  5237 net.cpp:367] Scale39 -> Convolution39 (in-place)
I0928 19:59:17.160667  5237 layer_factory.hpp:77] Creating layer Scale39
I0928 19:59:17.160745  5237 net.cpp:122] Setting up Scale39
I0928 19:59:17.160749  5237 net.cpp:129] Top shape: 100 64 7 7 (313600)
I0928 19:59:17.160751  5237 net.cpp:137] Memory required for data: 787450000
I0928 19:59:17.160755  5237 layer_factory.hpp:77] Creating layer Convolution40
I0928 19:59:17.160761  5237 net.cpp:84] Creating Layer Convolution40
I0928 19:59:17.160764  5237 net.cpp:406] Convolution40 <- Eltwise18_penlu37_0_split_1
I0928 19:59:17.160768  5237 net.cpp:380] Convolution40 -> Convolution40
I0928 19:59:17.163326  5237 net.cpp:122] Setting up Convolution40
I0928 19:59:17.163336  5237 net.cpp:129] Top shape: 100 64 7 7 (313600)
I0928 19:59:17.163339  5237 net.cpp:137] Memory required for data: 788704400
I0928 19:59:17.163344  5237 layer_factory.hpp:77] Creating layer BatchNorm40
I0928 19:59:17.163349  5237 net.cpp:84] Creating Layer BatchNorm40
I0928 19:59:17.163352  5237 net.cpp:406] BatchNorm40 <- Convolution40
I0928 19:59:17.163357  5237 net.cpp:367] BatchNorm40 -> Convolution40 (in-place)
I0928 19:59:17.163494  5237 net.cpp:122] Setting up BatchNorm40
I0928 19:59:17.163498  5237 net.cpp:129] Top shape: 100 64 7 7 (313600)
I0928 19:59:17.163501  5237 net.cpp:137] Memory required for data: 789958800
I0928 19:59:17.163506  5237 layer_factory.hpp:77] Creating layer Scale40
I0928 19:59:17.163509  5237 net.cpp:84] Creating Layer Scale40
I0928 19:59:17.163511  5237 net.cpp:406] Scale40 <- Convolution40
I0928 19:59:17.163516  5237 net.cpp:367] Scale40 -> Convolution40 (in-place)
I0928 19:59:17.163542  5237 layer_factory.hpp:77] Creating layer Scale40
I0928 19:59:17.163619  5237 net.cpp:122] Setting up Scale40
I0928 19:59:17.163624  5237 net.cpp:129] Top shape: 100 64 7 7 (313600)
I0928 19:59:17.163625  5237 net.cpp:137] Memory required for data: 791213200
I0928 19:59:17.163630  5237 layer_factory.hpp:77] Creating layer penlu38
I0928 19:59:17.163635  5237 net.cpp:84] Creating Layer penlu38
I0928 19:59:17.163637  5237 net.cpp:406] penlu38 <- Convolution40
I0928 19:59:17.163641  5237 net.cpp:367] penlu38 -> Convolution40 (in-place)
I0928 19:59:17.163749  5237 net.cpp:122] Setting up penlu38
I0928 19:59:17.163754  5237 net.cpp:129] Top shape: 100 64 7 7 (313600)
I0928 19:59:17.163756  5237 net.cpp:137] Memory required for data: 792467600
I0928 19:59:17.163760  5237 layer_factory.hpp:77] Creating layer Convolution41
I0928 19:59:17.163766  5237 net.cpp:84] Creating Layer Convolution41
I0928 19:59:17.163769  5237 net.cpp:406] Convolution41 <- Convolution40
I0928 19:59:17.163774  5237 net.cpp:380] Convolution41 -> Convolution41
I0928 19:59:17.165879  5237 net.cpp:122] Setting up Convolution41
I0928 19:59:17.165889  5237 net.cpp:129] Top shape: 100 64 7 7 (313600)
I0928 19:59:17.165891  5237 net.cpp:137] Memory required for data: 793722000
I0928 19:59:17.165896  5237 layer_factory.hpp:77] Creating layer BatchNorm41
I0928 19:59:17.165901  5237 net.cpp:84] Creating Layer BatchNorm41
I0928 19:59:17.165904  5237 net.cpp:406] BatchNorm41 <- Convolution41
I0928 19:59:17.165908  5237 net.cpp:367] BatchNorm41 -> Convolution41 (in-place)
I0928 19:59:17.166052  5237 net.cpp:122] Setting up BatchNorm41
I0928 19:59:17.166057  5237 net.cpp:129] Top shape: 100 64 7 7 (313600)
I0928 19:59:17.166059  5237 net.cpp:137] Memory required for data: 794976400
I0928 19:59:17.166071  5237 layer_factory.hpp:77] Creating layer Scale41
I0928 19:59:17.166077  5237 net.cpp:84] Creating Layer Scale41
I0928 19:59:17.166079  5237 net.cpp:406] Scale41 <- Convolution41
I0928 19:59:17.166083  5237 net.cpp:367] Scale41 -> Convolution41 (in-place)
I0928 19:59:17.166112  5237 layer_factory.hpp:77] Creating layer Scale41
I0928 19:59:17.166195  5237 net.cpp:122] Setting up Scale41
I0928 19:59:17.166200  5237 net.cpp:129] Top shape: 100 64 7 7 (313600)
I0928 19:59:17.166203  5237 net.cpp:137] Memory required for data: 796230800
I0928 19:59:17.166206  5237 layer_factory.hpp:77] Creating layer Eltwise19
I0928 19:59:17.166211  5237 net.cpp:84] Creating Layer Eltwise19
I0928 19:59:17.166214  5237 net.cpp:406] Eltwise19 <- Convolution39
I0928 19:59:17.166218  5237 net.cpp:406] Eltwise19 <- Convolution41
I0928 19:59:17.166221  5237 net.cpp:380] Eltwise19 -> Eltwise19
I0928 19:59:17.166239  5237 net.cpp:122] Setting up Eltwise19
I0928 19:59:17.166242  5237 net.cpp:129] Top shape: 100 64 7 7 (313600)
I0928 19:59:17.166244  5237 net.cpp:137] Memory required for data: 797485200
I0928 19:59:17.166246  5237 layer_factory.hpp:77] Creating layer penlu39
I0928 19:59:17.166252  5237 net.cpp:84] Creating Layer penlu39
I0928 19:59:17.166254  5237 net.cpp:406] penlu39 <- Eltwise19
I0928 19:59:17.166257  5237 net.cpp:367] penlu39 -> Eltwise19 (in-place)
I0928 19:59:17.166371  5237 net.cpp:122] Setting up penlu39
I0928 19:59:17.166375  5237 net.cpp:129] Top shape: 100 64 7 7 (313600)
I0928 19:59:17.166378  5237 net.cpp:137] Memory required for data: 798739600
I0928 19:59:17.166383  5237 layer_factory.hpp:77] Creating layer Eltwise19_penlu39_0_split
I0928 19:59:17.166385  5237 net.cpp:84] Creating Layer Eltwise19_penlu39_0_split
I0928 19:59:17.166388  5237 net.cpp:406] Eltwise19_penlu39_0_split <- Eltwise19
I0928 19:59:17.166393  5237 net.cpp:380] Eltwise19_penlu39_0_split -> Eltwise19_penlu39_0_split_0
I0928 19:59:17.166396  5237 net.cpp:380] Eltwise19_penlu39_0_split -> Eltwise19_penlu39_0_split_1
I0928 19:59:17.166419  5237 net.cpp:122] Setting up Eltwise19_penlu39_0_split
I0928 19:59:17.166422  5237 net.cpp:129] Top shape: 100 64 7 7 (313600)
I0928 19:59:17.166425  5237 net.cpp:129] Top shape: 100 64 7 7 (313600)
I0928 19:59:17.166427  5237 net.cpp:137] Memory required for data: 801248400
I0928 19:59:17.166429  5237 layer_factory.hpp:77] Creating layer Convolution42
I0928 19:59:17.166437  5237 net.cpp:84] Creating Layer Convolution42
I0928 19:59:17.166440  5237 net.cpp:406] Convolution42 <- Eltwise19_penlu39_0_split_0
I0928 19:59:17.166443  5237 net.cpp:380] Convolution42 -> Convolution42
I0928 19:59:17.168107  5237 net.cpp:122] Setting up Convolution42
I0928 19:59:17.168117  5237 net.cpp:129] Top shape: 100 64 7 7 (313600)
I0928 19:59:17.168118  5237 net.cpp:137] Memory required for data: 802502800
I0928 19:59:17.168123  5237 layer_factory.hpp:77] Creating layer BatchNorm42
I0928 19:59:17.168128  5237 net.cpp:84] Creating Layer BatchNorm42
I0928 19:59:17.168130  5237 net.cpp:406] BatchNorm42 <- Convolution42
I0928 19:59:17.168135  5237 net.cpp:367] BatchNorm42 -> Convolution42 (in-place)
I0928 19:59:17.168272  5237 net.cpp:122] Setting up BatchNorm42
I0928 19:59:17.168277  5237 net.cpp:129] Top shape: 100 64 7 7 (313600)
I0928 19:59:17.168278  5237 net.cpp:137] Memory required for data: 803757200
I0928 19:59:17.168283  5237 layer_factory.hpp:77] Creating layer Scale42
I0928 19:59:17.168288  5237 net.cpp:84] Creating Layer Scale42
I0928 19:59:17.168290  5237 net.cpp:406] Scale42 <- Convolution42
I0928 19:59:17.168293  5237 net.cpp:367] Scale42 -> Convolution42 (in-place)
I0928 19:59:17.168320  5237 layer_factory.hpp:77] Creating layer Scale42
I0928 19:59:17.168398  5237 net.cpp:122] Setting up Scale42
I0928 19:59:17.168402  5237 net.cpp:129] Top shape: 100 64 7 7 (313600)
I0928 19:59:17.168404  5237 net.cpp:137] Memory required for data: 805011600
I0928 19:59:17.168408  5237 layer_factory.hpp:77] Creating layer penlu40
I0928 19:59:17.168413  5237 net.cpp:84] Creating Layer penlu40
I0928 19:59:17.168416  5237 net.cpp:406] penlu40 <- Convolution42
I0928 19:59:17.168426  5237 net.cpp:367] penlu40 -> Convolution42 (in-place)
I0928 19:59:17.168539  5237 net.cpp:122] Setting up penlu40
I0928 19:59:17.168542  5237 net.cpp:129] Top shape: 100 64 7 7 (313600)
I0928 19:59:17.168545  5237 net.cpp:137] Memory required for data: 806266000
I0928 19:59:17.168548  5237 layer_factory.hpp:77] Creating layer Convolution43
I0928 19:59:17.168555  5237 net.cpp:84] Creating Layer Convolution43
I0928 19:59:17.168558  5237 net.cpp:406] Convolution43 <- Convolution42
I0928 19:59:17.168561  5237 net.cpp:380] Convolution43 -> Convolution43
I0928 19:59:17.170811  5237 net.cpp:122] Setting up Convolution43
I0928 19:59:17.170820  5237 net.cpp:129] Top shape: 100 64 7 7 (313600)
I0928 19:59:17.170824  5237 net.cpp:137] Memory required for data: 807520400
I0928 19:59:17.170828  5237 layer_factory.hpp:77] Creating layer BatchNorm43
I0928 19:59:17.170835  5237 net.cpp:84] Creating Layer BatchNorm43
I0928 19:59:17.170837  5237 net.cpp:406] BatchNorm43 <- Convolution43
I0928 19:59:17.170840  5237 net.cpp:367] BatchNorm43 -> Convolution43 (in-place)
I0928 19:59:17.170984  5237 net.cpp:122] Setting up BatchNorm43
I0928 19:59:17.170989  5237 net.cpp:129] Top shape: 100 64 7 7 (313600)
I0928 19:59:17.170991  5237 net.cpp:137] Memory required for data: 808774800
I0928 19:59:17.170996  5237 layer_factory.hpp:77] Creating layer Scale43
I0928 19:59:17.171000  5237 net.cpp:84] Creating Layer Scale43
I0928 19:59:17.171003  5237 net.cpp:406] Scale43 <- Convolution43
I0928 19:59:17.171006  5237 net.cpp:367] Scale43 -> Convolution43 (in-place)
I0928 19:59:17.171034  5237 layer_factory.hpp:77] Creating layer Scale43
I0928 19:59:17.171115  5237 net.cpp:122] Setting up Scale43
I0928 19:59:17.171119  5237 net.cpp:129] Top shape: 100 64 7 7 (313600)
I0928 19:59:17.171121  5237 net.cpp:137] Memory required for data: 810029200
I0928 19:59:17.171125  5237 layer_factory.hpp:77] Creating layer Eltwise20
I0928 19:59:17.171129  5237 net.cpp:84] Creating Layer Eltwise20
I0928 19:59:17.171133  5237 net.cpp:406] Eltwise20 <- Eltwise19_penlu39_0_split_1
I0928 19:59:17.171135  5237 net.cpp:406] Eltwise20 <- Convolution43
I0928 19:59:17.171139  5237 net.cpp:380] Eltwise20 -> Eltwise20
I0928 19:59:17.171154  5237 net.cpp:122] Setting up Eltwise20
I0928 19:59:17.171157  5237 net.cpp:129] Top shape: 100 64 7 7 (313600)
I0928 19:59:17.171159  5237 net.cpp:137] Memory required for data: 811283600
I0928 19:59:17.171161  5237 layer_factory.hpp:77] Creating layer penlu41
I0928 19:59:17.171166  5237 net.cpp:84] Creating Layer penlu41
I0928 19:59:17.171169  5237 net.cpp:406] penlu41 <- Eltwise20
I0928 19:59:17.171172  5237 net.cpp:367] penlu41 -> Eltwise20 (in-place)
I0928 19:59:17.171285  5237 net.cpp:122] Setting up penlu41
I0928 19:59:17.171290  5237 net.cpp:129] Top shape: 100 64 7 7 (313600)
I0928 19:59:17.171293  5237 net.cpp:137] Memory required for data: 812538000
I0928 19:59:17.171296  5237 layer_factory.hpp:77] Creating layer Eltwise20_penlu41_0_split
I0928 19:59:17.171300  5237 net.cpp:84] Creating Layer Eltwise20_penlu41_0_split
I0928 19:59:17.171303  5237 net.cpp:406] Eltwise20_penlu41_0_split <- Eltwise20
I0928 19:59:17.171306  5237 net.cpp:380] Eltwise20_penlu41_0_split -> Eltwise20_penlu41_0_split_0
I0928 19:59:17.171310  5237 net.cpp:380] Eltwise20_penlu41_0_split -> Eltwise20_penlu41_0_split_1
I0928 19:59:17.171334  5237 net.cpp:122] Setting up Eltwise20_penlu41_0_split
I0928 19:59:17.171339  5237 net.cpp:129] Top shape: 100 64 7 7 (313600)
I0928 19:59:17.171340  5237 net.cpp:129] Top shape: 100 64 7 7 (313600)
I0928 19:59:17.171342  5237 net.cpp:137] Memory required for data: 815046800
I0928 19:59:17.171345  5237 layer_factory.hpp:77] Creating layer Convolution44
I0928 19:59:17.171350  5237 net.cpp:84] Creating Layer Convolution44
I0928 19:59:17.171352  5237 net.cpp:406] Convolution44 <- Eltwise20_penlu41_0_split_0
I0928 19:59:17.171357  5237 net.cpp:380] Convolution44 -> Convolution44
I0928 19:59:17.173012  5237 net.cpp:122] Setting up Convolution44
I0928 19:59:17.173020  5237 net.cpp:129] Top shape: 100 64 7 7 (313600)
I0928 19:59:17.173030  5237 net.cpp:137] Memory required for data: 816301200
I0928 19:59:17.173035  5237 layer_factory.hpp:77] Creating layer BatchNorm44
I0928 19:59:17.173040  5237 net.cpp:84] Creating Layer BatchNorm44
I0928 19:59:17.173043  5237 net.cpp:406] BatchNorm44 <- Convolution44
I0928 19:59:17.173048  5237 net.cpp:367] BatchNorm44 -> Convolution44 (in-place)
I0928 19:59:17.173189  5237 net.cpp:122] Setting up BatchNorm44
I0928 19:59:17.173193  5237 net.cpp:129] Top shape: 100 64 7 7 (313600)
I0928 19:59:17.173195  5237 net.cpp:137] Memory required for data: 817555600
I0928 19:59:17.173200  5237 layer_factory.hpp:77] Creating layer Scale44
I0928 19:59:17.173204  5237 net.cpp:84] Creating Layer Scale44
I0928 19:59:17.173207  5237 net.cpp:406] Scale44 <- Convolution44
I0928 19:59:17.173209  5237 net.cpp:367] Scale44 -> Convolution44 (in-place)
I0928 19:59:17.173238  5237 layer_factory.hpp:77] Creating layer Scale44
I0928 19:59:17.173317  5237 net.cpp:122] Setting up Scale44
I0928 19:59:17.173322  5237 net.cpp:129] Top shape: 100 64 7 7 (313600)
I0928 19:59:17.173323  5237 net.cpp:137] Memory required for data: 818810000
I0928 19:59:17.173327  5237 layer_factory.hpp:77] Creating layer penlu42
I0928 19:59:17.173333  5237 net.cpp:84] Creating Layer penlu42
I0928 19:59:17.173336  5237 net.cpp:406] penlu42 <- Convolution44
I0928 19:59:17.173339  5237 net.cpp:367] penlu42 -> Convolution44 (in-place)
I0928 19:59:17.173452  5237 net.cpp:122] Setting up penlu42
I0928 19:59:17.173456  5237 net.cpp:129] Top shape: 100 64 7 7 (313600)
I0928 19:59:17.173458  5237 net.cpp:137] Memory required for data: 820064400
I0928 19:59:17.173462  5237 layer_factory.hpp:77] Creating layer Convolution45
I0928 19:59:17.173468  5237 net.cpp:84] Creating Layer Convolution45
I0928 19:59:17.173471  5237 net.cpp:406] Convolution45 <- Convolution44
I0928 19:59:17.173475  5237 net.cpp:380] Convolution45 -> Convolution45
I0928 19:59:17.175423  5237 net.cpp:122] Setting up Convolution45
I0928 19:59:17.175431  5237 net.cpp:129] Top shape: 100 64 7 7 (313600)
I0928 19:59:17.175434  5237 net.cpp:137] Memory required for data: 821318800
I0928 19:59:17.175439  5237 layer_factory.hpp:77] Creating layer BatchNorm45
I0928 19:59:17.175444  5237 net.cpp:84] Creating Layer BatchNorm45
I0928 19:59:17.175447  5237 net.cpp:406] BatchNorm45 <- Convolution45
I0928 19:59:17.175451  5237 net.cpp:367] BatchNorm45 -> Convolution45 (in-place)
I0928 19:59:17.175595  5237 net.cpp:122] Setting up BatchNorm45
I0928 19:59:17.175599  5237 net.cpp:129] Top shape: 100 64 7 7 (313600)
I0928 19:59:17.175601  5237 net.cpp:137] Memory required for data: 822573200
I0928 19:59:17.175606  5237 layer_factory.hpp:77] Creating layer Scale45
I0928 19:59:17.175611  5237 net.cpp:84] Creating Layer Scale45
I0928 19:59:17.175613  5237 net.cpp:406] Scale45 <- Convolution45
I0928 19:59:17.175616  5237 net.cpp:367] Scale45 -> Convolution45 (in-place)
I0928 19:59:17.175644  5237 layer_factory.hpp:77] Creating layer Scale45
I0928 19:59:17.175726  5237 net.cpp:122] Setting up Scale45
I0928 19:59:17.175730  5237 net.cpp:129] Top shape: 100 64 7 7 (313600)
I0928 19:59:17.175734  5237 net.cpp:137] Memory required for data: 823827600
I0928 19:59:17.175736  5237 layer_factory.hpp:77] Creating layer Eltwise21
I0928 19:59:17.175741  5237 net.cpp:84] Creating Layer Eltwise21
I0928 19:59:17.175745  5237 net.cpp:406] Eltwise21 <- Eltwise20_penlu41_0_split_1
I0928 19:59:17.175746  5237 net.cpp:406] Eltwise21 <- Convolution45
I0928 19:59:17.175750  5237 net.cpp:380] Eltwise21 -> Eltwise21
I0928 19:59:17.175766  5237 net.cpp:122] Setting up Eltwise21
…
I0928 19:59:17.532917  5237 net.cpp:137] Memory required for data: 1030145200
I0928 19:59:17.532922  5237 layer_factory.hpp:77] Creating layer BatchNorm40
I0928 19:59:17.532927  5237 net.cpp:84] Creating Layer BatchNorm40
I0928 19:59:17.532928  5237 net.cpp:406] BatchNorm40 <- Convolution40
I0928 19:59:17.532933  5237 net.cpp:367] BatchNorm40 -> Convolution40 (in-place)
I0928 19:59:17.533125  5237 net.cpp:122] Setting up BatchNorm40
I0928 19:59:17.533133  5237 net.cpp:129] Top shape: 100 64 8 8 (409600)
I0928 19:59:17.533134  5237 net.cpp:137] Memory required for data: 1031783600
I0928 19:59:17.533139  5237 layer_factory.hpp:77] Creating layer Scale40
I0928 19:59:17.533143  5237 net.cpp:84] Creating Layer Scale40
I0928 19:59:17.533146  5237 net.cpp:406] Scale40 <- Convolution40
I0928 19:59:17.533150  5237 net.cpp:367] Scale40 -> Convolution40 (in-place)
I0928 19:59:17.533177  5237 layer_factory.hpp:77] Creating layer Scale40
I0928 19:59:17.533267  5237 net.cpp:122] Setting up Scale40
I0928 19:59:17.533270  5237 net.cpp:129] Top shape: 100 64 8 8 (409600)
I0928 19:59:17.533272  5237 net.cpp:137] Memory required for data: 1033422000
I0928 19:59:17.533277  5237 layer_factory.hpp:77] Creating layer penlu38
I0928 19:59:17.533282  5237 net.cpp:84] Creating Layer penlu38
I0928 19:59:17.533284  5237 net.cpp:406] penlu38 <- Convolution40
I0928 19:59:17.533288  5237 net.cpp:367] penlu38 -> Convolution40 (in-place)
I0928 19:59:17.533417  5237 net.cpp:122] Setting up penlu38
I0928 19:59:17.533422  5237 net.cpp:129] Top shape: 100 64 8 8 (409600)
I0928 19:59:17.533424  5237 net.cpp:137] Memory required for data: 1035060400
I0928 19:59:17.533429  5237 layer_factory.hpp:77] Creating layer Convolution41
I0928 19:59:17.533434  5237 net.cpp:84] Creating Layer Convolution41
I0928 19:59:17.533437  5237 net.cpp:406] Convolution41 <- Convolution40
I0928 19:59:17.533442  5237 net.cpp:380] Convolution41 -> Convolution41
I0928 19:59:17.535187  5237 net.cpp:122] Setting up Convolution41
I0928 19:59:17.535197  5237 net.cpp:129] Top shape: 100 64 8 8 (409600)
I0928 19:59:17.535198  5237 net.cpp:137] Memory required for data: 1036698800
I0928 19:59:17.535203  5237 layer_factory.hpp:77] Creating layer BatchNorm41
I0928 19:59:17.535207  5237 net.cpp:84] Creating Layer BatchNorm41
I0928 19:59:17.535210  5237 net.cpp:406] BatchNorm41 <- Convolution41
I0928 19:59:17.535223  5237 net.cpp:367] BatchNorm41 -> Convolution41 (in-place)
I0928 19:59:17.535357  5237 net.cpp:122] Setting up BatchNorm41
I0928 19:59:17.535362  5237 net.cpp:129] Top shape: 100 64 8 8 (409600)
I0928 19:59:17.535363  5237 net.cpp:137] Memory required for data: 1038337200
I0928 19:59:17.535368  5237 layer_factory.hpp:77] Creating layer Scale41
I0928 19:59:17.535372  5237 net.cpp:84] Creating Layer Scale41
I0928 19:59:17.535374  5237 net.cpp:406] Scale41 <- Convolution41
I0928 19:59:17.535377  5237 net.cpp:367] Scale41 -> Convolution41 (in-place)
I0928 19:59:17.535405  5237 layer_factory.hpp:77] Creating layer Scale41
I0928 19:59:17.535482  5237 net.cpp:122] Setting up Scale41
I0928 19:59:17.535486  5237 net.cpp:129] Top shape: 100 64 8 8 (409600)
I0928 19:59:17.535488  5237 net.cpp:137] Memory required for data: 1039975600
I0928 19:59:17.535492  5237 layer_factory.hpp:77] Creating layer Eltwise19
I0928 19:59:17.535496  5237 net.cpp:84] Creating Layer Eltwise19
I0928 19:59:17.535500  5237 net.cpp:406] Eltwise19 <- Convolution39
I0928 19:59:17.535501  5237 net.cpp:406] Eltwise19 <- Convolution41
I0928 19:59:17.535506  5237 net.cpp:380] Eltwise19 -> Eltwise19
I0928 19:59:17.535521  5237 net.cpp:122] Setting up Eltwise19
I0928 19:59:17.535524  5237 net.cpp:129] Top shape: 100 64 8 8 (409600)
I0928 19:59:17.560232  5237 net.cpp:137] Memory required for data: 1041614000
I0928 19:59:17.560240  5237 layer_factory.hpp:77] Creating layer penlu39
I0928 19:59:17.560248  5237 net.cpp:84] Creating Layer penlu39
I0928 19:59:17.560251  5237 net.cpp:406] penlu39 <- Eltwise19
I0928 19:59:17.560257  5237 net.cpp:367] penlu39 -> Eltwise19 (in-place)
I0928 19:59:17.560408  5237 net.cpp:122] Setting up penlu39
I0928 19:59:17.560415  5237 net.cpp:129] Top shape: 100 64 8 8 (409600)
I0928 19:59:17.560417  5237 net.cpp:137] Memory required for data: 1043252400
I0928 19:59:17.560422  5237 layer_factory.hpp:77] Creating layer Eltwise19_penlu39_0_split
I0928 19:59:17.560427  5237 net.cpp:84] Creating Layer Eltwise19_penlu39_0_split
I0928 19:59:17.560430  5237 net.cpp:406] Eltwise19_penlu39_0_split <- Eltwise19
I0928 19:59:17.560433  5237 net.cpp:380] Eltwise19_penlu39_0_split -> Eltwise19_penlu39_0_split_0
I0928 19:59:17.560438  5237 net.cpp:380] Eltwise19_penlu39_0_split -> Eltwise19_penlu39_0_split_1
I0928 19:59:17.560465  5237 net.cpp:122] Setting up Eltwise19_penlu39_0_split
I0928 19:59:17.560469  5237 net.cpp:129] Top shape: 100 64 8 8 (409600)
I0928 19:59:17.560472  5237 net.cpp:129] Top shape: 100 64 8 8 (409600)
I0928 19:59:17.560475  5237 net.cpp:137] Memory required for data: 1046529200
I0928 19:59:17.560477  5237 layer_factory.hpp:77] Creating layer Convolution42
I0928 19:59:17.560483  5237 net.cpp:84] Creating Layer Convolution42
I0928 19:59:17.560487  5237 net.cpp:406] Convolution42 <- Eltwise19_penlu39_0_split_0
I0928 19:59:17.560492  5237 net.cpp:380] Convolution42 -> Convolution42
I0928 19:59:17.562680  5237 net.cpp:122] Setting up Convolution42
I0928 19:59:17.562690  5237 net.cpp:129] Top shape: 100 64 8 8 (409600)
I0928 19:59:17.562692  5237 net.cpp:137] Memory required for data: 1048167600
I0928 19:59:17.562696  5237 layer_factory.hpp:77] Creating layer BatchNorm42
I0928 19:59:17.562702  5237 net.cpp:84] Creating Layer BatchNorm42
I0928 19:59:17.562705  5237 net.cpp:406] BatchNorm42 <- Convolution42
I0928 19:59:17.562710  5237 net.cpp:367] BatchNorm42 -> Convolution42 (in-place)
I0928 19:59:17.562847  5237 net.cpp:122] Setting up BatchNorm42
I0928 19:59:17.562851  5237 net.cpp:129] Top shape: 100 64 8 8 (409600)
I0928 19:59:17.562853  5237 net.cpp:137] Memory required for data: 1049806000
I0928 19:59:17.562858  5237 layer_factory.hpp:77] Creating layer Scale42
I0928 19:59:17.562862  5237 net.cpp:84] Creating Layer Scale42
I0928 19:59:17.562865  5237 net.cpp:406] Scale42 <- Convolution42
I0928 19:59:17.562867  5237 net.cpp:367] Scale42 -> Convolution42 (in-place)
I0928 19:59:17.562897  5237 layer_factory.hpp:77] Creating layer Scale42
I0928 19:59:17.562975  5237 net.cpp:122] Setting up Scale42
I0928 19:59:17.562988  5237 net.cpp:129] Top shape: 100 64 8 8 (409600)
I0928 19:59:17.562990  5237 net.cpp:137] Memory required for data: 1051444400
I0928 19:59:17.562994  5237 layer_factory.hpp:77] Creating layer penlu40
I0928 19:59:17.562999  5237 net.cpp:84] Creating Layer penlu40
I0928 19:59:17.563001  5237 net.cpp:406] penlu40 <- Convolution42
I0928 19:59:17.563005  5237 net.cpp:367] penlu40 -> Convolution42 (in-place)
I0928 19:59:17.563127  5237 net.cpp:122] Setting up penlu40
I0928 19:59:17.563132  5237 net.cpp:129] Top shape: 100 64 8 8 (409600)
I0928 19:59:17.563133  5237 net.cpp:137] Memory required for data: 1053082800
I0928 19:59:17.563138  5237 layer_factory.hpp:77] Creating layer Convolution43
I0928 19:59:17.563144  5237 net.cpp:84] Creating Layer Convolution43
I0928 19:59:17.563148  5237 net.cpp:406] Convolution43 <- Convolution42
I0928 19:59:17.563151  5237 net.cpp:380] Convolution43 -> Convolution43
I0928 19:59:17.564981  5237 net.cpp:122] Setting up Convolution43
I0928 19:59:17.564990  5237 net.cpp:129] Top shape: 100 64 8 8 (409600)
I0928 19:59:17.564992  5237 net.cpp:137] Memory required for data: 1054721200
I0928 19:59:17.564996  5237 layer_factory.hpp:77] Creating layer BatchNorm43
I0928 19:59:17.565001  5237 net.cpp:84] Creating Layer BatchNorm43
I0928 19:59:17.565006  5237 net.cpp:406] BatchNorm43 <- Convolution43
I0928 19:59:17.565008  5237 net.cpp:367] BatchNorm43 -> Convolution43 (in-place)
I0928 19:59:17.565145  5237 net.cpp:122] Setting up BatchNorm43
I0928 19:59:17.565148  5237 net.cpp:129] Top shape: 100 64 8 8 (409600)
I0928 19:59:17.565151  5237 net.cpp:137] Memory required for data: 1056359600
I0928 19:59:17.565155  5237 layer_factory.hpp:77] Creating layer Scale43
I0928 19:59:17.565160  5237 net.cpp:84] Creating Layer Scale43
I0928 19:59:17.565162  5237 net.cpp:406] Scale43 <- Convolution43
I0928 19:59:17.565165  5237 net.cpp:367] Scale43 -> Convolution43 (in-place)
I0928 19:59:17.565193  5237 layer_factory.hpp:77] Creating layer Scale43
I0928 19:59:17.565270  5237 net.cpp:122] Setting up Scale43
I0928 19:59:17.565274  5237 net.cpp:129] Top shape: 100 64 8 8 (409600)
I0928 19:59:17.565276  5237 net.cpp:137] Memory required for data: 1057998000
I0928 19:59:17.565280  5237 layer_factory.hpp:77] Creating layer Eltwise20
I0928 19:59:17.565285  5237 net.cpp:84] Creating Layer Eltwise20
I0928 19:59:17.565289  5237 net.cpp:406] Eltwise20 <- Eltwise19_penlu39_0_split_1
I0928 19:59:17.565291  5237 net.cpp:406] Eltwise20 <- Convolution43
I0928 19:59:17.565294  5237 net.cpp:380] Eltwise20 -> Eltwise20
I0928 19:59:17.565311  5237 net.cpp:122] Setting up Eltwise20
I0928 19:59:17.565315  5237 net.cpp:129] Top shape: 100 64 8 8 (409600)
I0928 19:59:17.565317  5237 net.cpp:137] Memory required for data: 1059636400
I0928 19:59:17.565318  5237 layer_factory.hpp:77] Creating layer penlu41
I0928 19:59:17.565325  5237 net.cpp:84] Creating Layer penlu41
I0928 19:59:17.565326  5237 net.cpp:406] penlu41 <- Eltwise20
I0928 19:59:17.565330  5237 net.cpp:367] penlu41 -> Eltwise20 (in-place)
I0928 19:59:17.565448  5237 net.cpp:122] Setting up penlu41
I0928 19:59:17.565451  5237 net.cpp:129] Top shape: 100 64 8 8 (409600)
I0928 19:59:17.565454  5237 net.cpp:137] Memory required for data: 1061274800
I0928 19:59:17.565457  5237 layer_factory.hpp:77] Creating layer Eltwise20_penlu41_0_split
I0928 19:59:17.565461  5237 net.cpp:84] Creating Layer Eltwise20_penlu41_0_split
I0928 19:59:17.565464  5237 net.cpp:406] Eltwise20_penlu41_0_split <- Eltwise20
I0928 19:59:17.565467  5237 net.cpp:380] Eltwise20_penlu41_0_split -> Eltwise20_penlu41_0_split_0
I0928 19:59:17.565472  5237 net.cpp:380] Eltwise20_penlu41_0_split -> Eltwise20_penlu41_0_split_1
I0928 19:59:17.565495  5237 net.cpp:122] Setting up Eltwise20_penlu41_0_split
I0928 19:59:17.565498  5237 net.cpp:129] Top shape: 100 64 8 8 (409600)
I0928 19:59:17.565501  5237 net.cpp:129] Top shape: 100 64 8 8 (409600)
I0928 19:59:17.565503  5237 net.cpp:137] Memory required for data: 1064551600
I0928 19:59:17.565505  5237 layer_factory.hpp:77] Creating layer Convolution44
I0928 19:59:17.565517  5237 net.cpp:84] Creating Layer Convolution44
I0928 19:59:17.565521  5237 net.cpp:406] Convolution44 <- Eltwise20_penlu41_0_split_0
I0928 19:59:17.565526  5237 net.cpp:380] Convolution44 -> Convolution44
I0928 19:59:17.567589  5237 net.cpp:122] Setting up Convolution44
I0928 19:59:17.567596  5237 net.cpp:129] Top shape: 100 64 8 8 (409600)
I0928 19:59:17.567600  5237 net.cpp:137] Memory required for data: 1066190000
I0928 19:59:17.567605  5237 layer_factory.hpp:77] Creating layer BatchNorm44
I0928 19:59:17.567610  5237 net.cpp:84] Creating Layer BatchNorm44
I0928 19:59:17.567612  5237 net.cpp:406] BatchNorm44 <- Convolution44
I0928 19:59:17.567616  5237 net.cpp:367] BatchNorm44 -> Convolution44 (in-place)
I0928 19:59:17.567761  5237 net.cpp:122] Setting up BatchNorm44
I0928 19:59:17.567765  5237 net.cpp:129] Top shape: 100 64 8 8 (409600)
I0928 19:59:17.567769  5237 net.cpp:137] Memory required for data: 1067828400
I0928 19:59:17.567772  5237 layer_factory.hpp:77] Creating layer Scale44
I0928 19:59:17.567777  5237 net.cpp:84] Creating Layer Scale44
I0928 19:59:17.567780  5237 net.cpp:406] Scale44 <- Convolution44
I0928 19:59:17.567783  5237 net.cpp:367] Scale44 -> Convolution44 (in-place)
I0928 19:59:17.567811  5237 layer_factory.hpp:77] Creating layer Scale44
I0928 19:59:17.567898  5237 net.cpp:122] Setting up Scale44
I0928 19:59:17.567903  5237 net.cpp:129] Top shape: 100 64 8 8 (409600)
I0928 19:59:17.567905  5237 net.cpp:137] Memory required for data: 1069466800
I0928 19:59:17.567909  5237 layer_factory.hpp:77] Creating layer penlu42
I0928 19:59:17.567914  5237 net.cpp:84] Creating Layer penlu42
I0928 19:59:17.567916  5237 net.cpp:406] penlu42 <- Convolution44
I0928 19:59:17.567920  5237 net.cpp:367] penlu42 -> Convolution44 (in-place)
I0928 19:59:17.568034  5237 net.cpp:122] Setting up penlu42
I0928 19:59:17.568038  5237 net.cpp:129] Top shape: 100 64 8 8 (409600)
I0928 19:59:17.568040  5237 net.cpp:137] Memory required for data: 1071105200
I0928 19:59:17.568044  5237 layer_factory.hpp:77] Creating layer Convolution45
I0928 19:59:17.568051  5237 net.cpp:84] Creating Layer Convolution45
I0928 19:59:17.568053  5237 net.cpp:406] Convolution45 <- Convolution44
I0928 19:59:17.568058  5237 net.cpp:380] Convolution45 -> Convolution45
I0928 19:59:17.569761  5237 net.cpp:122] Setting up Convolution45
I0928 19:59:17.569769  5237 net.cpp:129] Top shape: 100 64 8 8 (409600)
I0928 19:59:17.569772  5237 net.cpp:137] Memory required for data: 1072743600
I0928 19:59:17.569777  5237 layer_factory.hpp:77] Creating layer BatchNorm45
I0928 19:59:17.569780  5237 net.cpp:84] Creating Layer BatchNorm45
I0928 19:59:17.569783  5237 net.cpp:406] BatchNorm45 <- Convolution45
I0928 19:59:17.569787  5237 net.cpp:367] BatchNorm45 -> Convolution45 (in-place)
I0928 19:59:17.569923  5237 net.cpp:122] Setting up BatchNorm45
I0928 19:59:17.569927  5237 net.cpp:129] Top shape: 100 64 8 8 (409600)
I0928 19:59:17.569929  5237 net.cpp:137] Memory required for data: 1074382000
I0928 19:59:17.569934  5237 layer_factory.hpp:77] Creating layer Scale45
I0928 19:59:17.569938  5237 net.cpp:84] Creating Layer Scale45
I0928 19:59:17.569941  5237 net.cpp:406] Scale45 <- Convolution45
I0928 19:59:17.569944  5237 net.cpp:367] Scale45 -> Convolution45 (in-place)
I0928 19:59:17.569970  5237 layer_factory.hpp:77] Creating layer Scale45
I0928 19:59:17.570047  5237 net.cpp:122] Setting up Scale45
I0928 19:59:17.570051  5237 net.cpp:129] Top shape: 100 64 8 8 (409600)
I0928 19:59:17.570053  5237 net.cpp:137] Memory required for data: 1076020400
I0928 19:59:17.570057  5237 layer_factory.hpp:77] Creating layer Eltwise21
I0928 19:59:17.570061  5237 net.cpp:84] Creating Layer Eltwise21
I0928 19:59:17.570063  5237 net.cpp:406] Eltwise21 <- Eltwise20_penlu41_0_split_1
I0928 19:59:17.570066  5237 net.cpp:406] Eltwise21 <- Convolution45
I0928 19:59:17.570070  5237 net.cpp:380] Eltwise21 -> Eltwise21
I0928 19:59:17.570086  5237 net.cpp:122] Setting up Eltwise21
I0928 19:59:17.570091  5237 net.cpp:129] Top shape: 100 64 8 8 (409600)
I0928 19:59:17.570099  5237 net.cpp:137] Memory required for data: 1077658800
I0928 19:59:17.570101  5237 layer_factory.hpp:77] Creating layer penlu43
I0928 19:59:17.570106  5237 net.cpp:84] Creating Layer penlu43
I0928 19:59:17.570108  5237 net.cpp:406] penlu43 <- Eltwise21
I0928 19:59:17.570112  5237 net.cpp:367] penlu43 -> Eltwise21 (in-place)
I0928 19:59:17.570228  5237 net.cpp:122] Setting up penlu43
I0928 19:59:17.570233  5237 net.cpp:129] Top shape: 100 64 8 8 (409600)
I0928 19:59:17.570235  5237 net.cpp:137] Memory required for data: 1079297200
I0928 19:59:17.570240  5237 layer_factory.hpp:77] Creating layer Eltwise21_penlu43_0_split
I0928 19:59:17.570243  5237 net.cpp:84] Creating Layer Eltwise21_penlu43_0_split
I0928 19:59:17.570245  5237 net.cpp:406] Eltwise21_penlu43_0_split <- Eltwise21
I0928 19:59:17.570248  5237 net.cpp:380] Eltwise21_penlu43_0_split -> Eltwise21_penlu43_0_split_0
I0928 19:59:17.570253  5237 net.cpp:380] Eltwise21_penlu43_0_split -> Eltwise21_penlu43_0_split_1
I0928 19:59:17.570276  5237 net.cpp:122] Setting up Eltwise21_penlu43_0_split
I0928 19:59:17.570281  5237 net.cpp:129] Top shape: 100 64 8 8 (409600)
I0928 19:59:17.570282  5237 net.cpp:129] Top shape: 100 64 8 8 (409600)
I0928 19:59:17.570284  5237 net.cpp:137] Memory required for data: 1082574000
I0928 19:59:17.570286  5237 layer_factory.hpp:77] Creating layer Convolution46
I0928 19:59:17.570293  5237 net.cpp:84] Creating Layer Convolution46
I0928 19:59:17.570296  5237 net.cpp:406] Convolution46 <- Eltwise21_penlu43_0_split_0
I0928 19:59:17.570299  5237 net.cpp:380] Convolution46 -> Convolution46
I0928 19:59:17.572041  5237 net.cpp:122] Setting up Convolution46
I0928 19:59:17.572049  5237 net.cpp:129] Top shape: 100 64 8 8 (409600)
I0928 19:59:17.572052  5237 net.cpp:137] Memory required for data: 1084212400
I0928 19:59:17.572057  5237 layer_factory.hpp:77] Creating layer BatchNorm46
I0928 19:59:17.572062  5237 net.cpp:84] Creating Layer BatchNorm46
I0928 19:59:17.572064  5237 net.cpp:406] BatchNorm46 <- Convolution46
I0928 19:59:17.572068  5237 net.cpp:367] BatchNorm46 -> Convolution46 (in-place)
I0928 19:59:17.572207  5237 net.cpp:122] Setting up BatchNorm46
I0928 19:59:17.572212  5237 net.cpp:129] Top shape: 100 64 8 8 (409600)
I0928 19:59:17.572214  5237 net.cpp:137] Memory required for data: 1085850800
I0928 19:59:17.572219  5237 layer_factory.hpp:77] Creating layer Scale46
I0928 19:59:17.572222  5237 net.cpp:84] Creating Layer Scale46
I0928 19:59:17.572226  5237 net.cpp:406] Scale46 <- Convolution46
I0928 19:59:17.572229  5237 net.cpp:367] Scale46 -> Convolution46 (in-place)
I0928 19:59:17.572255  5237 layer_factory.hpp:77] Creating layer Scale46
I0928 19:59:17.572335  5237 net.cpp:122] Setting up Scale46
I0928 19:59:17.572338  5237 net.cpp:129] Top shape: 100 64 8 8 (409600)
I0928 19:59:17.572340  5237 net.cpp:137] Memory required for data: 1087489200
I0928 19:59:17.572345  5237 layer_factory.hpp:77] Creating layer penlu44
I0928 19:59:17.572350  5237 net.cpp:84] Creating Layer penlu44
I0928 19:59:17.572352  5237 net.cpp:406] penlu44 <- Convolution46
I0928 19:59:17.572355  5237 net.cpp:367] penlu44 -> Convolution46 (in-place)
I0928 19:59:17.572473  5237 net.cpp:122] Setting up penlu44
I0928 19:59:17.572476  5237 net.cpp:129] Top shape: 100 64 8 8 (409600)
I0928 19:59:17.572479  5237 net.cpp:137] Memory required for data: 1089127600
I0928 19:59:17.572484  5237 layer_factory.hpp:77] Creating layer Convolution47
I0928 19:59:17.572489  5237 net.cpp:84] Creating Layer Convolution47
I0928 19:59:17.572492  5237 net.cpp:406] Convolution47 <- Convolution46
I0928 19:59:17.572495  5237 net.cpp:380] Convolution47 -> Convolution47
I0928 19:59:17.574180  5237 net.cpp:122] Setting up Convolution47
I0928 19:59:17.574189  5237 net.cpp:129] Top shape: 100 64 8 8 (409600)
I0928 19:59:17.574192  5237 net.cpp:137] Memory required for data: 1090766000
I0928 19:59:17.574196  5237 layer_factory.hpp:77] Creating layer BatchNorm47
I0928 19:59:17.574200  5237 net.cpp:84] Creating Layer BatchNorm47
I0928 19:59:17.574203  5237 net.cpp:406] BatchNorm47 <- Convolution47
I0928 19:59:17.574214  5237 net.cpp:367] BatchNorm47 -> Convolution47 (in-place)
I0928 19:59:17.574352  5237 net.cpp:122] Setting up BatchNorm47
I0928 19:59:17.574357  5237 net.cpp:129] Top shape: 100 64 8 8 (409600)
I0928 19:59:17.574358  5237 net.cpp:137] Memory required for data: 1092404400
I0928 19:59:17.574362  5237 layer_factory.hpp:77] Creating layer Scale47
I0928 19:59:17.574367  5237 net.cpp:84] Creating Layer Scale47
I0928 19:59:17.574369  5237 net.cpp:406] Scale47 <- Convolution47
I0928 19:59:17.574373  5237 net.cpp:367] Scale47 -> Convolution47 (in-place)
I0928 19:59:17.574399  5237 layer_factory.hpp:77] Creating layer Scale47
I0928 19:59:17.574476  5237 net.cpp:122] Setting up Scale47
I0928 19:59:17.574481  5237 net.cpp:129] Top shape: 100 64 8 8 (409600)
I0928 19:59:17.574482  5237 net.cpp:137] Memory required for data: 1094042800
I0928 19:59:17.574486  5237 layer_factory.hpp:77] Creating layer Eltwise22
I0928 19:59:17.574489  5237 net.cpp:84] Creating Layer Eltwise22
I0928 19:59:17.574492  5237 net.cpp:406] Eltwise22 <- Eltwise21_penlu43_0_split_1
I0928 19:59:17.574496  5237 net.cpp:406] Eltwise22 <- Convolution47
I0928 19:59:17.574499  5237 net.cpp:380] Eltwise22 -> Eltwise22
I0928 19:59:17.574517  5237 net.cpp:122] Setting up Eltwise22
I0928 19:59:17.574534  5237 net.cpp:129] Top shape: 100 64 8 8 (409600)
I0928 19:59:17.574537  5237 net.cpp:137] Memory required for data: 1095681200
I0928 19:59:17.574539  5237 layer_factory.hpp:77] Creating layer penlu45
I0928 19:59:17.574544  5237 net.cpp:84] Creating Layer penlu45
I0928 19:59:17.574546  5237 net.cpp:406] penlu45 <- Eltwise22
I0928 19:59:17.574550  5237 net.cpp:367] penlu45 -> Eltwise22 (in-place)
I0928 19:59:17.574676  5237 net.cpp:122] Setting up penlu45
I0928 19:59:17.574681  5237 net.cpp:129] Top shape: 100 64 8 8 (409600)
I0928 19:59:17.574682  5237 net.cpp:137] Memory required for data: 1097319600
I0928 19:59:17.574687  5237 layer_factory.hpp:77] Creating layer Eltwise22_penlu45_0_split
I0928 19:59:17.574689  5237 net.cpp:84] Creating Layer Eltwise22_penlu45_0_split
I0928 19:59:17.574692  5237 net.cpp:406] Eltwise22_penlu45_0_split <- Eltwise22
I0928 19:59:17.574695  5237 net.cpp:380] Eltwise22_penlu45_0_split -> Eltwise22_penlu45_0_split_0
I0928 19:59:17.574699  5237 net.cpp:380] Eltwise22_penlu45_0_split -> Eltwise22_penlu45_0_split_1
I0928 19:59:17.574723  5237 net.cpp:122] Setting up Eltwise22_penlu45_0_split
I0928 19:59:17.574728  5237 net.cpp:129] Top shape: 100 64 8 8 (409600)
I0928 19:59:17.574729  5237 net.cpp:129] Top shape: 100 64 8 8 (409600)
I0928 19:59:17.574731  5237 net.cpp:137] Memory required for data: 1100596400
I0928 19:59:17.574733  5237 layer_factory.hpp:77] Creating layer Convolution48
I0928 19:59:17.574740  5237 net.cpp:84] Creating Layer Convolution48
I0928 19:59:17.574743  5237 net.cpp:406] Convolution48 <- Eltwise22_penlu45_0_split_0
I0928 19:59:17.574746  5237 net.cpp:380] Convolution48 -> Convolution48
I0928 19:59:17.576788  5237 net.cpp:122] Setting up Convolution48
I0928 19:59:17.576797  5237 net.cpp:129] Top shape: 100 64 8 8 (409600)
I0928 19:59:17.576799  5237 net.cpp:137] Memory required for data: 1102234800
I0928 19:59:17.576804  5237 layer_factory.hpp:77] Creating layer BatchNorm48
I0928 19:59:17.576809  5237 net.cpp:84] Creating Layer BatchNorm48
I0928 19:59:17.576812  5237 net.cpp:406] BatchNorm48 <- Convolution48
I0928 19:59:17.576817  5237 net.cpp:367] BatchNorm48 -> Convolution48 (in-place)
I0928 19:59:17.576957  5237 net.cpp:122] Setting up BatchNorm48
I0928 19:59:17.576962  5237 net.cpp:129] Top shape: 100 64 8 8 (409600)
I0928 19:59:17.576964  5237 net.cpp:137] Memory required for data: 1103873200
I0928 19:59:17.576969  5237 layer_factory.hpp:77] Creating layer Scale48
I0928 19:59:17.576973  5237 net.cpp:84] Creating Layer Scale48
I0928 19:59:17.576977  5237 net.cpp:406] Scale48 <- Convolution48
I0928 19:59:17.576979  5237 net.cpp:367] Scale48 -> Convolution48 (in-place)
I0928 19:59:17.577006  5237 layer_factory.hpp:77] Creating layer Scale48
I0928 19:59:17.577087  5237 net.cpp:122] Setting up Scale48
I0928 19:59:17.577098  5237 net.cpp:129] Top shape: 100 64 8 8 (409600)
I0928 19:59:17.577100  5237 net.cpp:137] Memory required for data: 1105511600
I0928 19:59:17.577105  5237 layer_factory.hpp:77] Creating layer penlu46
I0928 19:59:17.577111  5237 net.cpp:84] Creating Layer penlu46
I0928 19:59:17.577112  5237 net.cpp:406] penlu46 <- Convolution48
I0928 19:59:17.577116  5237 net.cpp:367] penlu46 -> Convolution48 (in-place)
I0928 19:59:17.577232  5237 net.cpp:122] Setting up penlu46
I0928 19:59:17.577237  5237 net.cpp:129] Top shape: 100 64 8 8 (409600)
I0928 19:59:17.577239  5237 net.cpp:137] Memory required for data: 1107150000
I0928 19:59:17.577244  5237 layer_factory.hpp:77] Creating layer Convolution49
I0928 19:59:17.577250  5237 net.cpp:84] Creating Layer Convolution49
I0928 19:59:17.577252  5237 net.cpp:406] Convolution49 <- Convolution48
I0928 19:59:17.577256  5237 net.cpp:380] Convolution49 -> Convolution49
I0928 19:59:17.579313  5237 net.cpp:122] Setting up Convolution49
I0928 19:59:17.579321  5237 net.cpp:129] Top shape: 100 64 8 8 (409600)
I0928 19:59:17.579324  5237 net.cpp:137] Memory required for data: 1108788400
I0928 19:59:17.579329  5237 layer_factory.hpp:77] Creating layer BatchNorm49
I0928 19:59:17.579334  5237 net.cpp:84] Creating Layer BatchNorm49
I0928 19:59:17.579336  5237 net.cpp:406] BatchNorm49 <- Convolution49
I0928 19:59:17.579340  5237 net.cpp:367] BatchNorm49 -> Convolution49 (in-place)
I0928 19:59:17.579479  5237 net.cpp:122] Setting up BatchNorm49
I0928 19:59:17.579484  5237 net.cpp:129] Top shape: 100 64 8 8 (409600)
I0928 19:59:17.579486  5237 net.cpp:137] Memory required for data: 1110426800
I0928 19:59:17.579490  5237 layer_factory.hpp:77] Creating layer Scale49
I0928 19:59:17.579494  5237 net.cpp:84] Creating Layer Scale49
I0928 19:59:17.579497  5237 net.cpp:406] Scale49 <- Convolution49
I0928 19:59:17.579500  5237 net.cpp:367] Scale49 -> Convolution49 (in-place)
I0928 19:59:17.579529  5237 layer_factory.hpp:77] Creating layer Scale49
I0928 19:59:17.579607  5237 net.cpp:122] Setting up Scale49
I0928 19:59:17.579612  5237 net.cpp:129] Top shape: 100 64 8 8 (409600)
I0928 19:59:17.579614  5237 net.cpp:137] Memory required for data: 1112065200
I0928 19:59:17.579617  5237 layer_factory.hpp:77] Creating layer Eltwise23
I0928 19:59:17.579622  5237 net.cpp:84] Creating Layer Eltwise23
I0928 19:59:17.579624  5237 net.cpp:406] Eltwise23 <- Eltwise22_penlu45_0_split_1
I0928 19:59:17.579627  5237 net.cpp:406] Eltwise23 <- Convolution49
I0928 19:59:17.579630  5237 net.cpp:380] Eltwise23 -> Eltwise23
I0928 19:59:17.579648  5237 net.cpp:122] Setting up Eltwise23
I0928 19:59:17.579650  5237 net.cpp:129] Top shape: 100 64 8 8 (409600)
I0928 19:59:17.579653  5237 net.cpp:137] Memory required for data: 1113703600
I0928 19:59:17.579654  5237 layer_factory.hpp:77] Creating layer penlu47
I0928 19:59:17.579660  5237 net.cpp:84] Creating Layer penlu47
I0928 19:59:17.579663  5237 net.cpp:406] penlu47 <- Eltwise23
I0928 19:59:17.579666  5237 net.cpp:367] penlu47 -> Eltwise23 (in-place)
I0928 19:59:17.579783  5237 net.cpp:122] Setting up penlu47
I0928 19:59:17.579787  5237 net.cpp:129] Top shape: 100 64 8 8 (409600)
I0928 19:59:17.579789  5237 net.cpp:137] Memory required for data: 1115342000
I0928 19:59:17.579793  5237 layer_factory.hpp:77] Creating layer Eltwise23_penlu47_0_split
I0928 19:59:17.579797  5237 net.cpp:84] Creating Layer Eltwise23_penlu47_0_split
I0928 19:59:17.579800  5237 net.cpp:406] Eltwise23_penlu47_0_split <- Eltwise23
I0928 19:59:17.579803  5237 net.cpp:380] Eltwise23_penlu47_0_split -> Eltwise23_penlu47_0_split_0
I0928 19:59:17.579807  5237 net.cpp:380] Eltwise23_penlu47_0_split -> Eltwise23_penlu47_0_split_1
I0928 19:59:17.579833  5237 net.cpp:122] Setting up Eltwise23_penlu47_0_split
I0928 19:59:17.579835  5237 net.cpp:129] Top shape: 100 64 8 8 (409600)
I0928 19:59:17.579838  5237 net.cpp:129] Top shape: 100 64 8 8 (409600)
I0928 19:59:17.579840  5237 net.cpp:137] Memory required for data: 1118618800
I0928 19:59:17.579843  5237 layer_factory.hpp:77] Creating layer Convolution50
I0928 19:59:17.579854  5237 net.cpp:84] Creating Layer Convolution50
I0928 19:59:17.579857  5237 net.cpp:406] Convolution50 <- Eltwise23_penlu47_0_split_0
I0928 19:59:17.579862  5237 net.cpp:380] Convolution50 -> Convolution50
I0928 19:59:17.582412  5237 net.cpp:122] Setting up Convolution50
I0928 19:59:17.582420  5237 net.cpp:129] Top shape: 100 64 8 8 (409600)
I0928 19:59:17.582423  5237 net.cpp:137] Memory required for data: 1120257200
I0928 19:59:17.582427  5237 layer_factory.hpp:77] Creating layer BatchNorm50
I0928 19:59:17.582432  5237 net.cpp:84] Creating Layer BatchNorm50
I0928 19:59:17.582435  5237 net.cpp:406] BatchNorm50 <- Convolution50
I0928 19:59:17.582439  5237 net.cpp:367] BatchNorm50 -> Convolution50 (in-place)
I0928 19:59:17.582618  5237 net.cpp:122] Setting up BatchNorm50
I0928 19:59:17.582624  5237 net.cpp:129] Top shape: 100 64 8 8 (409600)
I0928 19:59:17.582626  5237 net.cpp:137] Memory required for data: 1121895600
I0928 19:59:17.582631  5237 layer_factory.hpp:77] Creating layer Scale50
I0928 19:59:17.582635  5237 net.cpp:84] Creating Layer Scale50
I0928 19:59:17.582638  5237 net.cpp:406] Scale50 <- Convolution50
I0928 19:59:17.582641  5237 net.cpp:367] Scale50 -> Convolution50 (in-place)
I0928 19:59:17.582669  5237 layer_factory.hpp:77] Creating layer Scale50
I0928 19:59:17.582749  5237 net.cpp:122] Setting up Scale50
I0928 19:59:17.582753  5237 net.cpp:129] Top shape: 100 64 8 8 (409600)
I0928 19:59:17.582756  5237 net.cpp:137] Memory required for data: 1123534000
I0928 19:59:17.582759  5237 layer_factory.hpp:77] Creating layer penlu48
I0928 19:59:17.582763  5237 net.cpp:84] Creating Layer penlu48
I0928 19:59:17.582767  5237 net.cpp:406] penlu48 <- Convolution50
I0928 19:59:17.582770  5237 net.cpp:367] penlu48 -> Convolution50 (in-place)
I0928 19:59:17.582886  5237 net.cpp:122] Setting up penlu48
I0928 19:59:17.582890  5237 net.cpp:129] Top shape: 100 64 8 8 (409600)
I0928 19:59:17.582892  5237 net.cpp:137] Memory required for data: 1125172400
I0928 19:59:17.582896  5237 layer_factory.hpp:77] Creating layer Convolution51
I0928 19:59:17.582903  5237 net.cpp:84] Creating Layer Convolution51
I0928 19:59:17.582906  5237 net.cpp:406] Convolution51 <- Convolution50
I0928 19:59:17.582911  5237 net.cpp:380] Convolution51 -> Convolution51
I0928 19:59:17.584604  5237 net.cpp:122] Setting up Convolution51
I0928 19:59:17.584611  5237 net.cpp:129] Top shape: 100 64 8 8 (409600)
I0928 19:59:17.584614  5237 net.cpp:137] Memory required for data: 1126810800
I0928 19:59:17.584619  5237 layer_factory.hpp:77] Creating layer BatchNorm51
I0928 19:59:17.584623  5237 net.cpp:84] Creating Layer BatchNorm51
I0928 19:59:17.584626  5237 net.cpp:406] BatchNorm51 <- Convolution51
I0928 19:59:17.584630  5237 net.cpp:367] BatchNorm51 -> Convolution51 (in-place)
I0928 19:59:17.584765  5237 net.cpp:122] Setting up BatchNorm51
I0928 19:59:17.584769  5237 net.cpp:129] Top shape: 100 64 8 8 (409600)
I0928 19:59:17.584771  5237 net.cpp:137] Memory required for data: 1128449200
I0928 19:59:17.584776  5237 layer_factory.hpp:77] Creating layer Scale51
I0928 19:59:17.584779  5237 net.cpp:84] Creating Layer Scale51
I0928 19:59:17.584782  5237 net.cpp:406] Scale51 <- Convolution51
I0928 19:59:17.584785  5237 net.cpp:367] Scale51 -> Convolution51 (in-place)
I0928 19:59:17.584813  5237 layer_factory.hpp:77] Creating layer Scale51
I0928 19:59:17.584890  5237 net.cpp:122] Setting up Scale51
I0928 19:59:17.584895  5237 net.cpp:129] Top shape: 100 64 8 8 (409600)
I0928 19:59:17.584897  5237 net.cpp:137] Memory required for data: 1130087600
I0928 19:59:17.584902  5237 layer_factory.hpp:77] Creating layer Eltwise24
I0928 19:59:17.584905  5237 net.cpp:84] Creating Layer Eltwise24
I0928 19:59:17.584908  5237 net.cpp:406] Eltwise24 <- Eltwise23_penlu47_0_split_1
I0928 19:59:17.584910  5237 net.cpp:406] Eltwise24 <- Convolution51
I0928 19:59:17.584914  5237 net.cpp:380] Eltwise24 -> Eltwise24
I0928 19:59:17.584930  5237 net.cpp:122] Setting up Eltwise24
I0928 19:59:17.584934  5237 net.cpp:129] Top shape: 100 64 8 8 (409600)
I0928 19:59:17.584935  5237 net.cpp:137] Memory required for data: 1131726000
I0928 19:59:17.584944  5237 layer_factory.hpp:77] Creating layer penlu49
I0928 19:59:17.584950  5237 net.cpp:84] Creating Layer penlu49
I0928 19:59:17.584954  5237 net.cpp:406] penlu49 <- Eltwise24
I0928 19:59:17.584957  5237 net.cpp:367] penlu49 -> Eltwise24 (in-place)
I0928 19:59:17.585073  5237 net.cpp:122] Setting up penlu49
I0928 19:59:17.585078  5237 net.cpp:129] Top shape: 100 64 8 8 (409600)
I0928 19:59:17.585079  5237 net.cpp:137] Memory required for data: 1133364400
I0928 19:59:17.585084  5237 layer_factory.hpp:77] Creating layer Eltwise24_penlu49_0_split
I0928 19:59:17.585088  5237 net.cpp:84] Creating Layer Eltwise24_penlu49_0_split
I0928 19:59:17.585090  5237 net.cpp:406] Eltwise24_penlu49_0_split <- Eltwise24
I0928 19:59:17.585094  5237 net.cpp:380] Eltwise24_penlu49_0_split -> Eltwise24_penlu49_0_split_0
I0928 19:59:17.585098  5237 net.cpp:380] Eltwise24_penlu49_0_split -> Eltwise24_penlu49_0_split_1
I0928 19:59:17.585132  5237 net.cpp:122] Setting up Eltwise24_penlu49_0_split
I0928 19:59:17.590718  5237 net.cpp:129] Top shape: 100 64 8 8 (409600)
I0928 19:59:17.590729  5237 net.cpp:129] Top shape: 100 64 8 8 (409600)
I0928 19:59:17.590732  5237 net.cpp:137] Memory required for data: 1136641200
I0928 19:59:17.590735  5237 layer_factory.hpp:77] Creating layer Convolution52
I0928 19:59:17.590744  5237 net.cpp:84] Creating Layer Convolution52
I0928 19:59:17.590746  5237 net.cpp:406] Convolution52 <- Eltwise24_penlu49_0_split_0
I0928 19:59:17.590752  5237 net.cpp:380] Convolution52 -> Convolution52
I0928 19:59:17.592988  5237 net.cpp:122] Setting up Convolution52
I0928 19:59:17.592998  5237 net.cpp:129] Top shape: 100 64 8 8 (409600)
I0928 19:59:17.593000  5237 net.cpp:137] Memory required for data: 1138279600
I0928 19:59:17.593005  5237 layer_factory.hpp:77] Creating layer BatchNorm52
I0928 19:59:17.593011  5237 net.cpp:84] Creating Layer BatchNorm52
I0928 19:59:17.593014  5237 net.cpp:406] BatchNorm52 <- Convolution52
I0928 19:59:17.593019  5237 net.cpp:367] BatchNorm52 -> Convolution52 (in-place)
I0928 19:59:17.593209  5237 net.cpp:122] Setting up BatchNorm52
I0928 19:59:17.593214  5237 net.cpp:129] Top shape: 100 64 8 8 (409600)
I0928 19:59:17.593215  5237 net.cpp:137] Memory required for data: 1139918000
I0928 19:59:17.593220  5237 layer_factory.hpp:77] Creating layer Scale52
I0928 19:59:17.593226  5237 net.cpp:84] Creating Layer Scale52
I0928 19:59:17.593230  5237 net.cpp:406] Scale52 <- Convolution52
I0928 19:59:17.593233  5237 net.cpp:367] Scale52 -> Convolution52 (in-place)
I0928 19:59:17.593263  5237 layer_factory.hpp:77] Creating layer Scale52
I0928 19:59:17.593348  5237 net.cpp:122] Setting up Scale52
I0928 19:59:17.593351  5237 net.cpp:129] Top shape: 100 64 8 8 (409600)
I0928 19:59:17.593353  5237 net.cpp:137] Memory required for data: 1141556400
I0928 19:59:17.593358  5237 layer_factory.hpp:77] Creating layer penlu50
I0928 19:59:17.593379  5237 net.cpp:84] Creating Layer penlu50
I0928 19:59:17.593382  5237 net.cpp:406] penlu50 <- Convolution52
I0928 19:59:17.593386  5237 net.cpp:367] penlu50 -> Convolution52 (in-place)
I0928 19:59:17.593510  5237 net.cpp:122] Setting up penlu50
I0928 19:59:17.593515  5237 net.cpp:129] Top shape: 100 64 8 8 (409600)
I0928 19:59:17.593518  5237 net.cpp:137] Memory required for data: 1143194800
I0928 19:59:17.593561  5237 layer_factory.hpp:77] Creating layer Convolution53
I0928 19:59:17.593569  5237 net.cpp:84] Creating Layer Convolution53
I0928 19:59:17.593572  5237 net.cpp:406] Convolution53 <- Convolution52
I0928 19:59:17.593576  5237 net.cpp:380] Convolution53 -> Convolution53
I0928 19:59:17.595423  5237 net.cpp:122] Setting up Convolution53
I0928 19:59:17.595432  5237 net.cpp:129] Top shape: 100 64 8 8 (409600)
I0928 19:59:17.595435  5237 net.cpp:137] Memory required for data: 1144833200
I0928 19:59:17.595439  5237 layer_factory.hpp:77] Creating layer BatchNorm53
I0928 19:59:17.595445  5237 net.cpp:84] Creating Layer BatchNorm53
I0928 19:59:17.595448  5237 net.cpp:406] BatchNorm53 <- Convolution53
I0928 19:59:17.595460  5237 net.cpp:367] BatchNorm53 -> Convolution53 (in-place)
I0928 19:59:17.595603  5237 net.cpp:122] Setting up BatchNorm53
I0928 19:59:17.595608  5237 net.cpp:129] Top shape: 100 64 8 8 (409600)
I0928 19:59:17.595610  5237 net.cpp:137] Memory required for data: 1146471600
I0928 19:59:17.595615  5237 layer_factory.hpp:77] Creating layer Scale53
I0928 19:59:17.595619  5237 net.cpp:84] Creating Layer Scale53
I0928 19:59:17.595623  5237 net.cpp:406] Scale53 <- Convolution53
I0928 19:59:17.595625  5237 net.cpp:367] Scale53 -> Convolution53 (in-place)
I0928 19:59:17.595654  5237 layer_factory.hpp:77] Creating layer Scale53
I0928 19:59:17.595737  5237 net.cpp:122] Setting up Scale53
I0928 19:59:17.595741  5237 net.cpp:129] Top shape: 100 64 8 8 (409600)
I0928 19:59:17.595744  5237 net.cpp:137] Memory required for data: 1148110000
I0928 19:59:17.595747  5237 layer_factory.hpp:77] Creating layer Eltwise25
I0928 19:59:17.595752  5237 net.cpp:84] Creating Layer Eltwise25
I0928 19:59:17.595755  5237 net.cpp:406] Eltwise25 <- Eltwise24_penlu49_0_split_1
I0928 19:59:17.595759  5237 net.cpp:406] Eltwise25 <- Convolution53
I0928 19:59:17.595762  5237 net.cpp:380] Eltwise25 -> Eltwise25
I0928 19:59:17.595779  5237 net.cpp:122] Setting up Eltwise25
I0928 19:59:17.595783  5237 net.cpp:129] Top shape: 100 64 8 8 (409600)
I0928 19:59:17.595784  5237 net.cpp:137] Memory required for data: 1149748400
I0928 19:59:17.595788  5237 layer_factory.hpp:77] Creating layer penlu51
I0928 19:59:17.595793  5237 net.cpp:84] Creating Layer penlu51
I0928 19:59:17.595795  5237 net.cpp:406] penlu51 <- Eltwise25
I0928 19:59:17.595798  5237 net.cpp:367] penlu51 -> Eltwise25 (in-place)
I0928 19:59:17.595919  5237 net.cpp:122] Setting up penlu51
I0928 19:59:17.595924  5237 net.cpp:129] Top shape: 100 64 8 8 (409600)
I0928 19:59:17.595927  5237 net.cpp:137] Memory required for data: 1151386800
I0928 19:59:17.595930  5237 layer_factory.hpp:77] Creating layer Eltwise25_penlu51_0_split
I0928 19:59:17.595934  5237 net.cpp:84] Creating Layer Eltwise25_penlu51_0_split
I0928 19:59:17.595937  5237 net.cpp:406] Eltwise25_penlu51_0_split <- Eltwise25
I0928 19:59:17.595940  5237 net.cpp:380] Eltwise25_penlu51_0_split -> Eltwise25_penlu51_0_split_0
I0928 19:59:17.595944  5237 net.cpp:380] Eltwise25_penlu51_0_split -> Eltwise25_penlu51_0_split_1
I0928 19:59:17.595968  5237 net.cpp:122] Setting up Eltwise25_penlu51_0_split
I0928 19:59:17.595971  5237 net.cpp:129] Top shape: 100 64 8 8 (409600)
I0928 19:59:17.595974  5237 net.cpp:129] Top shape: 100 64 8 8 (409600)
I0928 19:59:17.595976  5237 net.cpp:137] Memory required for data: 1154663600
I0928 19:59:17.595978  5237 layer_factory.hpp:77] Creating layer Convolution54
I0928 19:59:17.595985  5237 net.cpp:84] Creating Layer Convolution54
I0928 19:59:17.595988  5237 net.cpp:406] Convolution54 <- Eltwise25_penlu51_0_split_0
I0928 19:59:17.595991  5237 net.cpp:380] Convolution54 -> Convolution54
I0928 19:59:17.598053  5237 net.cpp:122] Setting up Convolution54
I0928 19:59:17.598062  5237 net.cpp:129] Top shape: 100 64 8 8 (409600)
I0928 19:59:17.598065  5237 net.cpp:137] Memory required for data: 1156302000
I0928 19:59:17.598069  5237 layer_factory.hpp:77] Creating layer BatchNorm54
I0928 19:59:17.598075  5237 net.cpp:84] Creating Layer BatchNorm54
I0928 19:59:17.598078  5237 net.cpp:406] BatchNorm54 <- Convolution54
I0928 19:59:17.598081  5237 net.cpp:367] BatchNorm54 -> Convolution54 (in-place)
I0928 19:59:17.598230  5237 net.cpp:122] Setting up BatchNorm54
I0928 19:59:17.598234  5237 net.cpp:129] Top shape: 100 64 8 8 (409600)
I0928 19:59:17.598237  5237 net.cpp:137] Memory required for data: 1157940400
I0928 19:59:17.598242  5237 layer_factory.hpp:77] Creating layer Scale54
I0928 19:59:17.598246  5237 net.cpp:84] Creating Layer Scale54
I0928 19:59:17.598249  5237 net.cpp:406] Scale54 <- Convolution54
I0928 19:59:17.598253  5237 net.cpp:367] Scale54 -> Convolution54 (in-place)
I0928 19:59:17.598281  5237 layer_factory.hpp:77] Creating layer Scale54
I0928 19:59:17.598363  5237 net.cpp:122] Setting up Scale54
I0928 19:59:17.598374  5237 net.cpp:129] Top shape: 100 64 8 8 (409600)
I0928 19:59:17.598377  5237 net.cpp:137] Memory required for data: 1159578800
I0928 19:59:17.598381  5237 layer_factory.hpp:77] Creating layer penlu52
I0928 19:59:17.598387  5237 net.cpp:84] Creating Layer penlu52
I0928 19:59:17.598389  5237 net.cpp:406] penlu52 <- Convolution54
I0928 19:59:17.598393  5237 net.cpp:367] penlu52 -> Convolution54 (in-place)
I0928 19:59:17.598515  5237 net.cpp:122] Setting up penlu52
I0928 19:59:17.598520  5237 net.cpp:129] Top shape: 100 64 8 8 (409600)
I0928 19:59:17.598536  5237 net.cpp:137] Memory required for data: 1161217200
I0928 19:59:17.598541  5237 layer_factory.hpp:77] Creating layer Convolution55
I0928 19:59:17.598558  5237 net.cpp:84] Creating Layer Convolution55
I0928 19:59:17.598562  5237 net.cpp:406] Convolution55 <- Convolution54
I0928 19:59:17.598565  5237 net.cpp:380] Convolution55 -> Convolution55
I0928 19:59:17.600273  5237 net.cpp:122] Setting up Convolution55
I0928 19:59:17.600281  5237 net.cpp:129] Top shape: 100 64 8 8 (409600)
I0928 19:59:17.600284  5237 net.cpp:137] Memory required for data: 1162855600
I0928 19:59:17.600288  5237 layer_factory.hpp:77] Creating layer BatchNorm55
I0928 19:59:17.600294  5237 net.cpp:84] Creating Layer BatchNorm55
I0928 19:59:17.600296  5237 net.cpp:406] BatchNorm55 <- Convolution55
I0928 19:59:17.600301  5237 net.cpp:367] BatchNorm55 -> Convolution55 (in-place)
I0928 19:59:17.600441  5237 net.cpp:122] Setting up BatchNorm55
I0928 19:59:17.600445  5237 net.cpp:129] Top shape: 100 64 8 8 (409600)
I0928 19:59:17.600447  5237 net.cpp:137] Memory required for data: 1164494000
I0928 19:59:17.600452  5237 layer_factory.hpp:77] Creating layer Scale55
I0928 19:59:17.600456  5237 net.cpp:84] Creating Layer Scale55
I0928 19:59:17.600458  5237 net.cpp:406] Scale55 <- Convolution55
I0928 19:59:17.600462  5237 net.cpp:367] Scale55 -> Convolution55 (in-place)
I0928 19:59:17.600489  5237 layer_factory.hpp:77] Creating layer Scale55
I0928 19:59:17.600569  5237 net.cpp:122] Setting up Scale55
I0928 19:59:17.600574  5237 net.cpp:129] Top shape: 100 64 8 8 (409600)
I0928 19:59:17.600575  5237 net.cpp:137] Memory required for data: 1166132400
I0928 19:59:17.600579  5237 layer_factory.hpp:77] Creating layer Eltwise26
I0928 19:59:17.600582  5237 net.cpp:84] Creating Layer Eltwise26
I0928 19:59:17.600585  5237 net.cpp:406] Eltwise26 <- Eltwise25_penlu51_0_split_1
I0928 19:59:17.600589  5237 net.cpp:406] Eltwise26 <- Convolution55
I0928 19:59:17.600591  5237 net.cpp:380] Eltwise26 -> Eltwise26
I0928 19:59:17.600608  5237 net.cpp:122] Setting up Eltwise26
I0928 19:59:17.600612  5237 net.cpp:129] Top shape: 100 64 8 8 (409600)
I0928 19:59:17.600613  5237 net.cpp:137] Memory required for data: 1167770800
I0928 19:59:17.600615  5237 layer_factory.hpp:77] Creating layer penlu53
I0928 19:59:17.600620  5237 net.cpp:84] Creating Layer penlu53
I0928 19:59:17.600622  5237 net.cpp:406] penlu53 <- Eltwise26
I0928 19:59:17.600626  5237 net.cpp:367] penlu53 -> Eltwise26 (in-place)
I0928 19:59:17.600744  5237 net.cpp:122] Setting up penlu53
I0928 19:59:17.600749  5237 net.cpp:129] Top shape: 100 64 8 8 (409600)
I0928 19:59:17.600750  5237 net.cpp:137] Memory required for data: 1169409200
I0928 19:59:17.600754  5237 layer_factory.hpp:77] Creating layer Eltwise26_penlu53_0_split
I0928 19:59:17.600757  5237 net.cpp:84] Creating Layer Eltwise26_penlu53_0_split
I0928 19:59:17.600760  5237 net.cpp:406] Eltwise26_penlu53_0_split <- Eltwise26
I0928 19:59:17.600764  5237 net.cpp:380] Eltwise26_penlu53_0_split -> Eltwise26_penlu53_0_split_0
I0928 19:59:17.600767  5237 net.cpp:380] Eltwise26_penlu53_0_split -> Eltwise26_penlu53_0_split_1
I0928 19:59:17.600791  5237 net.cpp:122] Setting up Eltwise26_penlu53_0_split
I0928 19:59:17.600795  5237 net.cpp:129] Top shape: 100 64 8 8 (409600)
I0928 19:59:17.600797  5237 net.cpp:129] Top shape: 100 64 8 8 (409600)
I0928 19:59:17.600800  5237 net.cpp:137] Memory required for data: 1172686000
I0928 19:59:17.600801  5237 layer_factory.hpp:77] Creating layer Convolution56
I0928 19:59:17.600814  5237 net.cpp:84] Creating Layer Convolution56
I0928 19:59:17.600817  5237 net.cpp:406] Convolution56 <- Eltwise26_penlu53_0_split_0
I0928 19:59:17.600832  5237 net.cpp:380] Convolution56 -> Convolution56
I0928 19:59:17.602537  5237 net.cpp:122] Setting up Convolution56
I0928 19:59:17.602546  5237 net.cpp:129] Top shape: 100 64 8 8 (409600)
I0928 19:59:17.602550  5237 net.cpp:137] Memory required for data: 1174324400
I0928 19:59:17.602553  5237 layer_factory.hpp:77] Creating layer BatchNorm56
I0928 19:59:17.602567  5237 net.cpp:84] Creating Layer BatchNorm56
I0928 19:59:17.602571  5237 net.cpp:406] BatchNorm56 <- Convolution56
I0928 19:59:17.602574  5237 net.cpp:367] BatchNorm56 -> Convolution56 (in-place)
I0928 19:59:17.602720  5237 net.cpp:122] Setting up BatchNorm56
I0928 19:59:17.602725  5237 net.cpp:129] Top shape: 100 64 8 8 (409600)
I0928 19:59:17.602726  5237 net.cpp:137] Memory required for data: 1175962800
I0928 19:59:17.602731  5237 layer_factory.hpp:77] Creating layer Scale56
I0928 19:59:17.602735  5237 net.cpp:84] Creating Layer Scale56
I0928 19:59:17.602737  5237 net.cpp:406] Scale56 <- Convolution56
I0928 19:59:17.602742  5237 net.cpp:367] Scale56 -> Convolution56 (in-place)
I0928 19:59:17.602771  5237 layer_factory.hpp:77] Creating layer Scale56
I0928 19:59:17.602849  5237 net.cpp:122] Setting up Scale56
I0928 19:59:17.602854  5237 net.cpp:129] Top shape: 100 64 8 8 (409600)
I0928 19:59:17.602856  5237 net.cpp:137] Memory required for data: 1177601200
I0928 19:59:17.602859  5237 layer_factory.hpp:77] Creating layer penlu54
I0928 19:59:17.602865  5237 net.cpp:84] Creating Layer penlu54
I0928 19:59:17.602867  5237 net.cpp:406] penlu54 <- Convolution56
I0928 19:59:17.602871  5237 net.cpp:367] penlu54 -> Convolution56 (in-place)
I0928 19:59:17.603013  5237 net.cpp:122] Setting up penlu54
I0928 19:59:17.603019  5237 net.cpp:129] Top shape: 100 64 8 8 (409600)
I0928 19:59:17.603021  5237 net.cpp:137] Memory required for data: 1179239600
I0928 19:59:17.603025  5237 layer_factory.hpp:77] Creating layer Convolution57
I0928 19:59:17.603031  5237 net.cpp:84] Creating Layer Convolution57
I0928 19:59:17.603034  5237 net.cpp:406] Convolution57 <- Convolution56
I0928 19:59:17.603039  5237 net.cpp:380] Convolution57 -> Convolution57
I0928 19:59:17.604718  5237 net.cpp:122] Setting up Convolution57
I0928 19:59:17.604727  5237 net.cpp:129] Top shape: 100 64 8 8 (409600)
I0928 19:59:17.604729  5237 net.cpp:137] Memory required for data: 1180878000
I0928 19:59:17.604734  5237 layer_factory.hpp:77] Creating layer BatchNorm57
I0928 19:59:17.604738  5237 net.cpp:84] Creating Layer BatchNorm57
I0928 19:59:17.604742  5237 net.cpp:406] BatchNorm57 <- Convolution57
I0928 19:59:17.604745  5237 net.cpp:367] BatchNorm57 -> Convolution57 (in-place)
I0928 19:59:17.604887  5237 net.cpp:122] Setting up BatchNorm57
I0928 19:59:17.604890  5237 net.cpp:129] Top shape: 100 64 8 8 (409600)
I0928 19:59:17.604892  5237 net.cpp:137] Memory required for data: 1182516400
I0928 19:59:17.604897  5237 layer_factory.hpp:77] Creating layer Scale57
I0928 19:59:17.604902  5237 net.cpp:84] Creating Layer Scale57
I0928 19:59:17.604903  5237 net.cpp:406] Scale57 <- Convolution57
I0928 19:59:17.604907  5237 net.cpp:367] Scale57 -> Convolution57 (in-place)
I0928 19:59:17.604934  5237 layer_factory.hpp:77] Creating layer Scale57
I0928 19:59:17.605015  5237 net.cpp:122] Setting up Scale57
I0928 19:59:17.605020  5237 net.cpp:129] Top shape: 100 64 8 8 (409600)
I0928 19:59:17.605021  5237 net.cpp:137] Memory required for data: 1184154800
I0928 19:59:17.605026  5237 layer_factory.hpp:77] Creating layer Eltwise27
I0928 19:59:17.605031  5237 net.cpp:84] Creating Layer Eltwise27
I0928 19:59:17.605033  5237 net.cpp:406] Eltwise27 <- Eltwise26_penlu53_0_split_1
I0928 19:59:17.605036  5237 net.cpp:406] Eltwise27 <- Convolution57
I0928 19:59:17.605039  5237 net.cpp:380] Eltwise27 -> Eltwise27
I0928 19:59:17.605057  5237 net.cpp:122] Setting up Eltwise27
I0928 19:59:17.605060  5237 net.cpp:129] Top shape: 100 64 8 8 (409600)
I0928 19:59:17.605062  5237 net.cpp:137] Memory required for data: 1185793200
I0928 19:59:17.605070  5237 layer_factory.hpp:77] Creating layer penlu55
I0928 19:59:17.605077  5237 net.cpp:84] Creating Layer penlu55
I0928 19:59:17.605078  5237 net.cpp:406] penlu55 <- Eltwise27
I0928 19:59:17.605082  5237 net.cpp:367] penlu55 -> Eltwise27 (in-place)
I0928 19:59:17.605204  5237 net.cpp:122] Setting up penlu55
I0928 19:59:17.605208  5237 net.cpp:129] Top shape: 100 64 8 8 (409600)
I0928 19:59:17.605211  5237 net.cpp:137] Memory required for data: 1187431600
I0928 19:59:17.605216  5237 layer_factory.hpp:77] Creating layer Pooling1
I0928 19:59:17.605221  5237 net.cpp:84] Creating Layer Pooling1
I0928 19:59:17.605222  5237 net.cpp:406] Pooling1 <- Eltwise27
I0928 19:59:17.605226  5237 net.cpp:380] Pooling1 -> Pooling1
I0928 19:59:17.605700  5237 net.cpp:122] Setting up Pooling1
I0928 19:59:17.605708  5237 net.cpp:129] Top shape: 100 64 1 1 (6400)
I0928 19:59:17.621479  5237 net.cpp:137] Memory required for data: 1187457200
I0928 19:59:17.621486  5237 layer_factory.hpp:77] Creating layer InnerProduct1
I0928 19:59:17.621495  5237 net.cpp:84] Creating Layer InnerProduct1
I0928 19:59:17.621497  5237 net.cpp:406] InnerProduct1 <- Pooling1
I0928 19:59:17.621502  5237 net.cpp:380] InnerProduct1 -> InnerProduct1
I0928 19:59:17.621630  5237 net.cpp:122] Setting up InnerProduct1
I0928 19:59:17.621636  5237 net.cpp:129] Top shape: 100 10 (1000)
I0928 19:59:17.621639  5237 net.cpp:137] Memory required for data: 1187461200
I0928 19:59:17.621644  5237 layer_factory.hpp:77] Creating layer InnerProduct1_InnerProduct1_0_split
I0928 19:59:17.621647  5237 net.cpp:84] Creating Layer InnerProduct1_InnerProduct1_0_split
I0928 19:59:17.621650  5237 net.cpp:406] InnerProduct1_InnerProduct1_0_split <- InnerProduct1
I0928 19:59:17.621654  5237 net.cpp:380] InnerProduct1_InnerProduct1_0_split -> InnerProduct1_InnerProduct1_0_split_0
I0928 19:59:17.621659  5237 net.cpp:380] InnerProduct1_InnerProduct1_0_split -> InnerProduct1_InnerProduct1_0_split_1
I0928 19:59:17.621688  5237 net.cpp:122] Setting up InnerProduct1_InnerProduct1_0_split
I0928 19:59:17.621692  5237 net.cpp:129] Top shape: 100 10 (1000)
I0928 19:59:17.621695  5237 net.cpp:129] Top shape: 100 10 (1000)
I0928 19:59:17.621697  5237 net.cpp:137] Memory required for data: 1187469200
I0928 19:59:17.621701  5237 layer_factory.hpp:77] Creating layer SoftmaxWithLoss1
I0928 19:59:17.621706  5237 net.cpp:84] Creating Layer SoftmaxWithLoss1
I0928 19:59:17.621707  5237 net.cpp:406] SoftmaxWithLoss1 <- InnerProduct1_InnerProduct1_0_split_0
I0928 19:59:17.621711  5237 net.cpp:406] SoftmaxWithLoss1 <- Data2_Data1_1_split_0
…
