…
I1001 19:09:21.849710  5547 net.cpp:294] The NetState phase (0) differed from the phase (1) specified by a rule in layer Accuracy1
I1001 19:09:21.850801  5547 net.cpp:51] Initializing net from parameters: 
name: "resnet_cifar10"
state {
  phase: TRAIN
  level: 0
  stage: ""
}
layer {
  name: "Data1"
  type: "Data"
  top: "Data1"
  top: "Data2"
  include {
    phase: TRAIN
  }
  transform_param {
    mirror: true
    crop_size: 28
    mean_file: "/home/x306/caffe/xn/PENLU/data/cifar10/mean.binaryproto"
  }
  data_param {
    source: "/home/x306/caffe/xn/PENLU/data/cifar10/cifar10_train_lmdb"
    batch_size: 100
    backend: LMDB
  }
}
layer {
  name: "Convolution1"
  type: "Convolution"
  bottom: "Data1"
  top: "Convolution1"
  param {
    lr_mult: 1
    decay_mult: 1
  }
  param {
    lr_mult: 2
    decay_mult: 0
  }
  convolution_param {
    num_output: 16
    pad: 1
    kernel_size: 3
    stride: 1
    weight_filler {
      type: "gaussian"
      std: 0.118
    }
    bias_filler {
      type: "constant"
      value: 0
    }
  }
}
layer {
  name: "BatchNorm1"
  type: "BatchNorm"
  bottom: "Convolution1"
  top: "Convolution1"
  param {
    lr_mult: 0
    decay_mult: 0
  }
  param {
    lr_mult: 0
    decay_mult: 0
  }
  param {
    lr_mult: 0
    decay_mult: 0
  }
}
layer {
  name: "Scale1"
  type: "Scale"
  bottom: "Convolution1"
  top: "Convolution1"
  scale_param {
    bias_term: true
  }
}
layer {
  name: "M2PELU1"
  type: "M2PELU"
  bottom: "Convolution1"
  top: "Convolution1"
  param {
    lr_mult: 2
    decay_mult: 2
  }
  param {
    lr_mult: 2
    decay_mult: 2
  }
  m2pelu_param {
    alpha_filler {
      type: "constant"
      value: 1
    }
    beta_filler {
      type: "constant"
      value: 1
    }
  }
}
layer {
  name: "Convolution2"
  type: "Convolution"
  bottom: "Convolution1"
  top: "Convolution2"
  param {
    lr_mult: 1
    decay_mult: 1
  }
  param {
    lr_mult: 2
    decay_mult: 0
  }
  convolution_param {
    num_output: 16
    pad: 1
    kernel_size: 3
    stride: 1
    weight_filler {
      type: "gaussian"
      std: 0.118
    }
    bias_filler {
      type: "constant"
      value: 0
    }
  }
}
layer {
  name: "BatchNorm2"
  type: "BatchNorm"
  bottom: "Convolution2"
  top: "Convolution2"
  param {
    lr_mult: 0
    decay_mult: 0
  }
  param {
    lr_mult: 0
    decay_mult: 0
  }
  param {
    lr_mult: 0
    decay_mult: 0
  }
}
layer {
  name: "Scale2"
  type: "Scale"
  bottom: "Convolution2"
  top: "Convolution2"
  scale_param {
    bias_term: true
  }
}
layer {
  name: "M2PELU2"
  type: "M2PELU"
  bottom: "Convolution2"
  top: "Convolution2"
  param {
    lr_mult: 2
    decay_mult: 2
  }
  param {
    lr_mult: 2
    decay_mult: 2
  }
  m2pelu_param {
    alpha_filler {
      type: "constant"
      value: 1
    }
    beta_filler {
      type: "constant"
      value: 1
    }
  }
}
layer {
  name: "Convolution3"
  type: "Convolution"
  bottom: "Convolution2"
  top: "Convolution3"
  param {
    lr_mult: 1
    decay_mult: 1
  }
  param {
    lr_mult: 2
    decay_mult: 0
  }
  convolution_param {
    num_output: 16
    pad: 1
    kernel_size: 3
    stride: 1
    weight_filler {
      type: "gaussian"
      std: 0.118
    }
    bias_filler {
      type: "constant"
      value: 0
    }
  }
}
layer {
  name: "BatchNorm3"
  type: "BatchNorm"
  bottom: "Convolution3"
  top: "Convolution3"
  param {
    lr_mult: 0
    decay_mult: 0
  }
  param {
    lr_mult: 0
    decay_mult: 0
  }
  param {
    lr_mult: 0
    decay_mult: 0
  }
}
layer {
  name: "Scale3"
  type: "Scale"
  bottom: "Convolution3"
  top: "Convolution3"
  scale_param {
    bias_term: true
  }
}
layer {
  name: "Eltwise1"
  type: "Eltwise"
  bottom: "Convolution1"
  bottom: "Convolution3"
  top: "Eltwise1"
  eltwise_param {
    operation: SUM
  }
}
layer {
  name: "M2PELU3"
  type: "M2PELU"
  bottom: "Eltwise1"
  top: "Eltwise1"
  param {
    lr_mult: 2
    decay_mult: 2
  }
  param {
    lr_mult: 2
    decay_mult: 2
  }
  m2pelu_param {
    alpha_filler {
      type: "constant"
      value: 1
    }
    beta_filler {
      type: "constant"
      value: 1
    }
  }
}
layer {
  name: "Convolution4"
  type: "Convolution"
  bottom: "Eltwise1"
  top: "Convolution4"
  param {
    lr_mult: 1
    decay_mult: 1
  }
  param {
    lr_mult: 2
    decay_mult: 0
  }
  convolution_param {
    num_output: 16
    pad: 1
    kernel_size: 3
    stride: 1
    weight_filler {
      type: "gaussian"
      std: 0.118
    }
    bias_filler {
      type: "constant"
      value: 0
    }
  }
}
layer {
  name: "BatchNorm4"
  type: "BatchNorm"
  bottom: "Convolution4"
  top: "Convolution4"
  param {
    lr_mult: 0
    decay_mult: 0
  }
  param {
    lr_mult: 0
    decay_mult: 0
  }
  param {
    lr_mult: 0
    decay_mult: 0
  }
}
layer {
  name: "Scale4"
  type: "Scale"
  bottom: "Convolution4"
  top: "Convolution4"
  scale_param {
    bias_term: true
  }
}
layer {
  name: "M2PELU4"
  type: "M2PELU"
  bottom: "Convolution4"
  top: "Convolution4"
  param {
    lr_mult: 2
    decay_mult: 2
  }
  param {
    lr_mult: 2
    decay_mult: 2
  }
  m2pelu_param {
    alpha_filler {
      type: "constant"
      value: 1
    }
    beta_filler {
      type: "constant"
      value: 1
    }
  }
}
layer {
  name: "Convolution5"
  type: "Convolution"
  bottom: "Convolution4"
  top: "Convolution5"
  param {
    lr_mult: 1
    decay_mult: 1
  }
  param {
    lr_mult: 2
    decay_mult: 0
  }
  convolution_param {
    num_output: 16
    pad: 1
    kernel_size: 3
    stride: 1
    weight_filler {
      type: "gaussian"
      std: 0.118
    }
    bias_filler {
      type: "constant"
      value: 0
    }
  }
}
layer {
  name: "BatchNorm5"
  type: "BatchNorm"
  bottom: "Convolution5"
  top: "Convolution5"
  param {
    lr_mult: 0
    decay_mult: 0
  }
  param {
    lr_mult: 0
    decay_mult: 0
  }
  param {
    lr_mult: 0
    decay_mult: 0
  }
}
layer {
  name: "Scale5"
  type: "Scale"
  bottom: "Convolution5"
  top: "Convolution5"
  scale_param {
    bias_term: true
  }
}
layer {
  name: "Eltwise2"
  type: "Eltwise"
  bottom: "Eltwise1"
  bottom: "Convolution5"
  top: "Eltwise2"
  eltwise_param {
    operation: SUM
  }
}
layer {
  name: "M2PELU5"
  type: "M2PELU"
  bottom: "Eltwise2"
  top: "Eltwise2"
  param {
    lr_mult: 2
    decay_mult: 2
  }
  param {
    lr_mult: 2
    decay_mult: 2
  }
  m2pelu_param {
    alpha_filler {
      type: "constant"
      value: 1
    }
    beta_filler {
      type: "constant"
      value: 1
    }
  }
}
layer {
  name: "Convolution6"
  type: "Convolution"
  bottom: "Eltwise2"
  top: "Convolution6"
  param {
    lr_mult: 1
    decay_mult: 1
  }
  param {
    lr_mult: 2
    decay_mult: 0
  }
  convolution_param {
    num_output: 16
    pad: 1
    kernel_size: 3
    stride: 1
    weight_filler {
      type: "gaussian"
      std: 0.118
    }
    bias_filler {
      type: "constant"
      value: 0
    }
  }
}
layer {
  name: "BatchNorm6"
  type: "BatchNorm"
  bottom: "Convolution6"
  top: "Convolution6"
  param {
    lr_mult: 0
    decay_mult: 0
  }
  param {
    lr_mult: 0
    decay_mult: 0
  }
  param {
    lr_mult: 0
    decay_mult: 0
  }
}
layer {
  name: "Scale6"
  type: "Scale"
  bottom: "Convolution6"
  top: "Convolution6"
  scale_param {
    bias_term: true
  }
}
layer {
  name: "M2PELU6"
  type: "M2PELU"
  bottom: "Convolution6"
  top: "Convolution6"
  param {
    lr_mult: 2
    decay_mult: 2
  }
  param {
    lr_mult: 2
    decay_mult: 2
  }
  m2pelu_param {
    alpha_filler {
      type: "constant"
      value: 1
    }
    beta_filler {
      type: "constant"
      value: 1
    }
  }
}
layer {
  name: "Convolution7"
  type: "Convolution"
  bottom: "Convolution6"
  top: "Convolution7"
  param {
    lr_mult: 1
    decay_mult: 1
  }
  param {
    lr_mult: 2
    decay_mult: 0
  }
  convolution_param {
    num_output: 16
    pad: 1
    kernel_size: 3
    stride: 1
    weight_filler {
      type: "gaussian"
      std: 0.118
    }
    bias_filler {
      type: "constant"
      value: 0
    }
  }
}
layer {
  name: "BatchNorm7"
  type: "BatchNorm"
  bottom: "Convolution7"
  top: "Convolution7"
  param {
    lr_mult: 0
    decay_mult: 0
  }
  param {
    lr_mult: 0
    decay_mult: 0
  }
  param {
    lr_mult: 0
    decay_mult: 0
  }
}
layer {
  name: "Scale7"
  type: "Scale"
  bottom: "Convolution7"
  top: "Convolution7"
  scale_param {
    bias_term: true
  }
}
layer {
  name: "Eltwise3"
  type: "Eltwise"
  bottom: "Eltwise2"
  bottom: "Convolution7"
  top: "Eltwise3"
  eltwise_param {
    operation: SUM
  }
}
layer {
  name: "M2PELU7"
  type: "M2PELU"
  bottom: "Eltwise3"
  top: "Eltwise3"
  param {
    lr_mult: 2
    decay_mult: 2
  }
  param {
    lr_mult: 2
    decay_mult: 2
  }
  m2pelu_param {
    alpha_filler {
      type: "constant"
      value: 1
    }
    beta_filler {
      type: "constant"
      value: 1
    }
  }
}
layer {
  name: "Convolution8"
  type: "Convolution"
  bottom: "Eltwise3"
  top: "Convolution8"
  param {
    lr_mult: 1
    decay_mult: 1
  }
  param {
    lr_mult: 2
    decay_mult: 0
  }
  convolution_param {
    num_output: 16
    pad: 1
    kernel_size: 3
    stride: 1
    weight_filler {
      type: "gaussian"
      std: 0.118
    }
    bias_filler {
      type: "constant"
      value: 0
    }
  }
}
layer {
  name: "BatchNorm8"
  type: "BatchNorm"
  bottom: "Convolution8"
  top: "Convolution8"
  param {
    lr_mult: 0
    decay_mult: 0
  }
  param {
    lr_mult: 0
    decay_mult: 0
  }
  param {
    lr_mult: 0
    decay_mult: 0
  }
}
layer {
  name: "Scale8"
  type: "Scale"
  bottom: "Convolution8"
  top: "Convolution8"
  scale_param {
    bias_term: true
  }
}
layer {
  name: "M2PELU8"
  type: "M2PELU"
  bottom: "Convolution8"
  top: "Convolution8"
  param {
    lr_mult: 2
    decay_mult: 2
  }
  param {
    lr_mult: 2
    decay_mult: 2
  }
  m2pelu_param {
    alpha_filler {
      type: "constant"
      value: 1
    }
    beta_filler {
      type: "constant"
      value: 1
    }
  }
}
layer {
  name: "Convolution9"
  type: "Convolution"
  bottom: "Convolution8"
  top: "Convolution9"
  param {
    lr_mult: 1
    decay_mult: 1
  }
  param {
    lr_mult: 2
    decay_mult: 0
  }
  convolution_param {
    num_output: 16
    pad: 1
    kernel_size: 3
    stride: 1
    weight_filler {
      type: "gaussian"
      std: 0.118
    }
    bias_filler {
      type: "constant"
      value: 0
    }
  }
}
layer {
  name: "BatchNorm9"
  type: "BatchNorm"
  bottom: "Convolution9"
  top: "Convolution9"
  param {
    lr_mult: 0
    decay_mult: 0
  }
  param {
    lr_mult: 0
    decay_mult: 0
  }
  param {
    lr_mult: 0
    decay_mult: 0
  }
}
layer {
  name: "Scale9"
  type: "Scale"
  bottom: "Convolution9"
  top: "Convolution9"
  scale_param {
    bias_term: true
  }
}
layer {
  name: "Eltwise4"
  type: "Eltwise"
  bottom: "Eltwise3"
  bottom: "Convolution9"
  top: "Eltwise4"
  eltwise_param {
    operation: SUM
  }
}
layer {
  name: "M2PELU9"
  type: "M2PELU"
  bottom: "Eltwise4"
  top: "Eltwise4"
  param {
    lr_mult: 2
    decay_mult: 2
  }
  param {
    lr_mult: 2
    decay_mult: 2
  }
  m2pelu_param {
    alpha_filler {
      type: "constant"
      value: 1
    }
    beta_filler {
      type: "constant"
      value: 1
    }
  }
}
layer {
  name: "Convolution10"
  type: "Convolution"
  bottom: "Eltwise4"
  top: "Convolution10"
  param {
    lr_mult: 1
    decay_mult: 1
  }
  param {
    lr_mult: 2
    decay_mult: 0
  }
  convolution_param {
    num_output: 16
    pad: 1
    kernel_size: 3
    stride: 1
    weight_filler {
      type: "gaussian"
      std: 0.118
    }
    bias_filler {
      type: "constant"
      value: 0
    }
  }
}
layer {
  name: "BatchNorm10"
  type: "BatchNorm"
  bottom: "Convolution10"
  top: "Convolution10"
  param {
    lr_mult: 0
    decay_mult: 0
  }
  param {
    lr_mult: 0
    decay_mult: 0
  }
  param {
    lr_mult: 0
    decay_mult: 0
  }
}
layer {
  name: "Scale10"
  type: "Scale"
  bottom: "Convolution10"
  top: "Convolution10"
  scale_param {
    bias_term: true
  }
}
layer {
  name: "M2PELU10"
  type: "M2PELU"
  bottom: "Convolution10"
  top: "Convolution10"
  param {
    lr_mult: 2
    decay_mult: 2
  }
  param {
    lr_mult: 2
    decay_mult: 2
  }
  m2pelu_param {
    alpha_filler {
      type: "constant"
      value: 1
    }
    beta_filler {
      type: "constant"
      value: 1
    }
  }
}
layer {
  name: "Convolution11"
  type: "Convolution"
  bottom: "Convolution10"
  top: "Convolution11"
  param {
    lr_mult: 1
    decay_mult: 1
  }
  param {
    lr_mult: 2
    decay_mult: 0
  }
  convolution_param {
    num_output: 16
    pad: 1
    kernel_size: 3
    stride: 1
    weight_filler {
      type: "gaussian"
      std: 0.118
    }
    bias_filler {
      type: "constant"
      value: 0
    }
  }
}
layer {
  name: "BatchNorm11"
  type: "BatchNorm"
  bottom: "Convolution11"
  top: "Convolution11"
  param {
    lr_mult: 0
    decay_mult: 0
  }
  param {
    lr_mult: 0
    decay_mult: 0
  }
  param {
    lr_mult: 0
    decay_mult: 0
  }
}
layer {
  name: "Scale11"
  type: "Scale"
  bottom: "Convolution11"
  top: "Convolution11"
  scale_param {
    bias_term: true
  }
}
layer {
  name: "Eltwise5"
  type: "Eltwise"
  bottom: "Eltwise4"
  bottom: "Convolution11"
  top: "Eltwise5"
  eltwise_param {
    operation: SUM
  }
}
layer {
  name: "M2PELU11"
  type: "M2PELU"
  bottom: "Eltwise5"
  top: "Eltwise5"
  param {
    lr_mult: 2
    decay_mult: 2
  }
  param {
    lr_mult: 2
    decay_mult: 2
  }
  m2pelu_param {
    alpha_filler {
      type: "constant"
      value: 1
    }
    beta_filler {
      type: "constant"
      value: 1
    }
  }
}
layer {
  name: "Convolution12"
  type: "Convolution"
  bottom: "Eltwise5"
  top: "Convolution12"
  param {
    lr_mult: 1
    decay_mult: 1
  }
  param {
    lr_mult: 2
    decay_mult: 0
  }
  convolution_param {
    num_output: 16
    pad: 1
    kernel_size: 3
    stride: 1
    weight_filler {
      type: "gaussian"
      std: 0.118
    }
    bias_filler {
      type: "constant"
      value: 0
    }
  }
}
layer {
  name: "BatchNorm12"
  type: "BatchNorm"
  bottom: "Convolution12"
  top: "Convolution12"
  param {
    lr_mult: 0
    decay_mult: 0
  }
  param {
    lr_mult: 0
    decay_mult: 0
  }
  param {
    lr_mult: 0
    decay_mult: 0
  }
}
layer {
  name: "Scale12"
  type: "Scale"
  bottom: "Convolution12"
  top: "Convolution12"
  scale_param {
    bias_term: true
  }
}
layer {
  name: "M2PELU12"
  type: "M2PELU"
  bottom: "Convolution12"
  top: "Convolution12"
  param {
    lr_mult: 2
    decay_mult: 2
  }
  param {
    lr_mult: 2
    decay_mult: 2
  }
  m2pelu_param {
    alpha_filler {
      type: "constant"
      value: 1
    }
    beta_filler {
      type: "constant"
      value: 1
    }
  }
}
layer {
  name: "Convolution13"
  type: "Convolution"
  bottom: "Convolution12"
  top: "Convolution13"
  param {
    lr_mult: 1
    decay_mult: 1
  }
  param {
    lr_mult: 2
    decay_mult: 0
  }
  convolution_param {
    num_output: 16
    pad: 1
    kernel_size: 3
    stride: 1
    weight_filler {
      type: "gaussian"
      std: 0.118
    }
    bias_filler {
      type: "constant"
      value: 0
    }
  }
}
layer {
  name: "BatchNorm13"
  type: "BatchNorm"
  bottom: "Convolution13"
  top: "Convolution13"
  param {
    lr_mult: 0
    decay_mult: 0
  }
  param {
    lr_mult: 0
    decay_mult: 0
  }
  param {
    lr_mult: 0
    decay_mult: 0
  }
}
layer {
  name: "Scale13"
  type: "Scale"
  bottom: "Convolution13"
  top: "Convolution13"
  scale_param {
    bias_term: true
  }
}
layer {
  name: "Eltwise6"
  type: "Eltwise"
  bottom: "Eltwise5"
  bottom: "Convolution13"
  top: "Eltwise6"
  eltwise_param {
    operation: SUM
  }
}
layer {
  name: "M2PELU13"
  type: "M2PELU"
  bottom: "Eltwise6"
  top: "Eltwise6"
  param {
    lr_mult: 2
    decay_mult: 2
  }
  param {
    lr_mult: 2
    decay_mult: 2
  }
  m2pelu_param {
    alpha_filler {
      type: "constant"
      value: 1
    }
    beta_filler {
      type: "constant"
      value: 1
    }
  }
}
layer {
  name: "Convolution14"
  type: "Convolution"
  bottom: "Eltwise6"
  top: "Convolution14"
  param {
    lr_mult: 1
    decay_mult: 1
  }
  param {
    lr_mult: 2
    decay_mult: 0
  }
  convolution_param {
    num_output: 16
    pad: 1
    kernel_size: 3
    stride: 1
    weight_filler {
      type: "gaussian"
      std: 0.118
    }
    bias_filler {
      type: "constant"
      value: 0
    }
  }
}
layer {
  name: "BatchNorm14"
  type: "BatchNorm"
  bottom: "Convolution14"
  top: "Convolution14"
  param {
    lr_mult: 0
    decay_mult: 0
  }
  param {
    lr_mult: 0
    decay_mult: 0
  }
  param {
    lr_mult: 0
    decay_mult: 0
  }
}
layer {
  name: "Scale14"
  type: "Scale"
  bottom: "Convolution14"
  top: "Convolution14"
  scale_param {
    bias_term: true
  }
}
layer {
  name: "M2PELU14"
  type: "M2PELU"
  bottom: "Convolution14"
  top: "Convolution14"
  param {
    lr_mult: 2
    decay_mult: 2
  }
  param {
    lr_mult: 2
    decay_mult: 2
  }
  m2pelu_param {
    alpha_filler {
      type: "constant"
      value: 1
    }
    beta_filler {
      type: "constant"
      value: 1
    }
  }
}
layer {
  name: "Convolution15"
  type: "Convolution"
  bottom: "Convolution14"
  top: "Convolution15"
  param {
    lr_mult: 1
    decay_mult: 1
  }
  param {
    lr_mult: 2
    decay_mult: 0
  }
  convolution_param {
    num_output: 16
    pad: 1
    kernel_size: 3
    stride: 1
    weight_filler {
      type: "gaussian"
      std: 0.118
    }
    bias_filler {
      type: "constant"
      value: 0
    }
  }
}
layer {
  name: "BatchNorm15"
  type: "BatchNorm"
  bottom: "Convolution15"
  top: "Convolution15"
  param {
    lr_mult: 0
    decay_mult: 0
  }
  param {
    lr_mult: 0
    decay_mult: 0
  }
  param {
    lr_mult: 0
    decay_mult: 0
  }
}
layer {
  name: "Scale15"
  type: "Scale"
  bottom: "Convolution15"
  top: "Convolution15"
  scale_param {
    bias_term: true
  }
}
layer {
  name: "Eltwise7"
  type: "Eltwise"
  bottom: "Eltwise6"
  bottom: "Convolution15"
  top: "Eltwise7"
  eltwise_param {
    operation: SUM
  }
}
layer {
  name: "M2PELU15"
  type: "M2PELU"
  bottom: "Eltwise7"
  top: "Eltwise7"
  param {
    lr_mult: 2
    decay_mult: 2
  }
  param {
    lr_mult: 2
    decay_mult: 2
  }
  m2pelu_param {
    alpha_filler {
      type: "constant"
      value: 1
    }
    beta_filler {
      type: "constant"
      value: 1
    }
  }
}
layer {
  name: "Convolution16"
  type: "Convolution"
  bottom: "Eltwise7"
  top: "Convolution16"
  param {
    lr_mult: 1
    decay_mult: 1
  }
  param {
    lr_mult: 2
    decay_mult: 0
  }
  convolution_param {
    num_output: 16
    pad: 1
    kernel_size: 3
    stride: 1
    weight_filler {
      type: "gaussian"
      std: 0.118
    }
    bias_filler {
      type: "constant"
      value: 0
    }
  }
}
layer {
  name: "BatchNorm16"
  type: "BatchNorm"
  bottom: "Convolution16"
  top: "Convolution16"
  param {
    lr_mult: 0
    decay_mult: 0
  }
  param {
    lr_mult: 0
    decay_mult: 0
  }
  param {
    lr_mult: 0
    decay_mult: 0
  }
}
layer {
  name: "Scale16"
  type: "Scale"
  bottom: "Convolution16"
  top: "Convolution16"
  scale_param {
    bias_term: true
  }
}
layer {
  name: "M2PELU16"
  type: "M2PELU"
  bottom: "Convolution16"
  top: "Convolution16"
  param {
    lr_mult: 2
    decay_mult: 2
  }
  param {
    lr_mult: 2
    decay_mult: 2
  }
  m2pelu_param {
    alpha_filler {
      type: "constant"
      value: 1
    }
    beta_filler {
      type: "constant"
      value: 1
    }
  }
}
layer {
  name: "Convolution17"
  type: "Convolution"
  bottom: "Convolution16"
  top: "Convolution17"
  param {
    lr_mult: 1
    decay_mult: 1
  }
  param {
    lr_mult: 2
    decay_mult: 0
  }
  convolution_param {
    num_output: 16
    pad: 1
    kernel_size: 3
    stride: 1
    weight_filler {
      type: "gaussian"
      std: 0.118
    }
    bias_filler {
      type: "constant"
      value: 0
    }
  }
}
layer {
  name: "BatchNorm17"
  type: "BatchNorm"
  bottom: "Convolution17"
  top: "Convolution17"
  param {
    lr_mult: 0
    decay_mult: 0
  }
  param {
    lr_mult: 0
    decay_mult: 0
  }
  param {
    lr_mult: 0
    decay_mult: 0
  }
}
layer {
  name: "Scale17"
  type: "Scale"
  bottom: "Convolution17"
  top: "Convolution17"
  scale_param {
    bias_term: true
  }
}
layer {
  name: "Eltwise8"
  type: "Eltwise"
  bottom: "Eltwise7"
  bottom: "Convolution17"
  top: "Eltwise8"
  eltwise_param {
    operation: SUM
  }
}
layer {
  name: "M2PELU17"
  type: "M2PELU"
  bottom: "Eltwise8"
  top: "Eltwise8"
  param {
    lr_mult: 2
    decay_mult: 2
  }
  param {
    lr_mult: 2
    decay_mult: 2
  }
  m2pelu_param {
    alpha_filler {
      type: "constant"
      value: 1
    }
    beta_filler {
      type: "constant"
      value: 1
    }
  }
}
layer {
  name: "Convolution18"
  type: "Convolution"
  bottom: "Eltwise8"
  top: "Convolution18"
  param {
    lr_mult: 1
    decay_mult: 1
  }
  param {
    lr_mult: 2
    decay_mult: 0
  }
  convolution_param {
    num_output: 16
    pad: 1
    kernel_size: 3
    stride: 1
    weight_filler {
      type: "gaussian"
      std: 0.118
    }
    bias_filler {
      type: "constant"
      value: 0
    }
  }
}
layer {
  name: "BatchNorm18"
  type: "BatchNorm"
  bottom: "Convolution18"
  top: "Convolution18"
  param {
    lr_mult: 0
    decay_mult: 0
  }
  param {
    lr_mult: 0
    decay_mult: 0
  }
  param {
    lr_mult: 0
    decay_mult: 0
  }
}
layer {
  name: "Scale18"
  type: "Scale"
  bottom: "Convolution18"
  top: "Convolution18"
  scale_param {
    bias_term: true
  }
}
layer {
  name: "M2PELU18"
  type: "M2PELU"
  bottom: "Convolution18"
  top: "Convolution18"
  param {
    lr_mult: 2
    decay_mult: 2
  }
  param {
    lr_mult: 2
    decay_mult: 2
  }
  m2pelu_param {
    alpha_filler {
      type: "constant"
      value: 1
    }
    beta_filler {
      type: "constant"
      value: 1
    }
  }
}
layer {
  name: "Convolution19"
  type: "Convolution"
  bottom: "Convolution18"
  top: "Convolution19"
  param {
    lr_mult: 1
    decay_mult: 1
  }
  param {
    lr_mult: 2
    decay_mult: 0
  }
  convolution_param {
    num_output: 16
    pad: 1
    kernel_size: 3
    stride: 1
    weight_filler {
      type: "gaussian"
      std: 0.118
    }
    bias_filler {
      type: "constant"
      value: 0
    }
  }
}
layer {
  name: "BatchNorm19"
  type: "BatchNorm"
  bottom: "Convolution19"
  top: "Convolution19"
  param {
    lr_mult: 0
    decay_mult: 0
  }
  param {
    lr_mult: 0
    decay_mult: 0
  }
  param {
    lr_mult: 0
    decay_mult: 0
  }
}
layer {
  name: "Scale19"
  type: "Scale"
  bottom: "Convolution19"
  top: "Convolution19"
  scale_param {
    bias_term: true
  }
}
layer {
  name: "Eltwise9"
  type: "Eltwise"
  bottom: "Eltwise8"
  bottom: "Convolution19"
  top: "Eltwise9"
  eltwise_param {
    operation: SUM
  }
}
layer {
  name: "M2PELU19"
  type: "M2PELU"
  bottom: "Eltwise9"
  top: "Eltwise9"
  param {
    lr_mult: 2
    decay_mult: 2
  }
  param {
    lr_mult: 2
    decay_mult: 2
  }
  m2pelu_param {
    alpha_filler {
      type: "constant"
      value: 1
    }
    beta_filler {
      type: "constant"
      value: 1
    }
  }
}
layer {
  name: "Convolution20"
  type: "Convolution"
  bottom: "Eltwise9"
  top: "Convolution20"
  param {
    lr_mult: 1
    decay_mult: 1
  }
  param {
    lr_mult: 2
    decay_mult: 0
  }
  convolution_param {
    num_output: 32
    pad: 0
    kernel_size: 1
    stride: 2
    weight_filler {
      type: "gaussian"
      std: 0.25
    }
    bias_filler {
      type: "constant"
      value: 0
    }
  }
}
layer {
  name: "BatchNorm20"
  type: "BatchNorm"
  bottom: "Convolution20"
  top: "Convolution20"
  param {
    lr_mult: 0
    decay_mult: 0
  }
  param {
    lr_mult: 0
    decay_mult: 0
  }
  param {
    lr_mult: 0
    decay_mult: 0
  }
}
layer {
  name: "Scale20"
  type: "Scale"
  bottom: "Convolution20"
  top: "Convolution20"
  scale_param {
    bias_term: true
  }
}
layer {
  name: "Convolution21"
  type: "Convolution"
  bottom: "Eltwise9"
  top: "Convolution21"
  param {
    lr_mult: 1
    decay_mult: 1
  }
  param {
    lr_mult: 2
    decay_mult: 0
  }
  convolution_param {
    num_output: 32
    pad: 1
    kernel_size: 3
    stride: 2
    weight_filler {
      type: "gaussian"
      std: 0.083
    }
    bias_filler {
      type: "constant"
      value: 0
    }
  }
}
layer {
  name: "BatchNorm21"
  type: "BatchNorm"
  bottom: "Convolution21"
  top: "Convolution21"
  param {
    lr_mult: 0
    decay_mult: 0
  }
  param {
    lr_mult: 0
    decay_mult: 0
  }
  param {
    lr_mult: 0
    decay_mult: 0
  }
}
layer {
  name: "Scale21"
  type: "Scale"
  bottom: "Convolution21"
  top: "Convolution21"
  scale_param {
    bias_term: true
  }
}
layer {
  name: "M2PELU20"
  type: "M2PELU"
  bottom: "Convolution21"
  top: "Convolution21"
  param {
    lr_mult: 2
    decay_mult: 2
  }
  param {
    lr_mult: 2
    decay_mult: 2
  }
  m2pelu_param {
    alpha_filler {
      type: "constant"
      value: 1
    }
    beta_filler {
      type: "constant"
      value: 1
    }
  }
}
layer {
  name: "Convolution22"
  type: "Convolution"
  bottom: "Convolution21"
  top: "Convolution22"
  param {
    lr_mult: 1
    decay_mult: 1
  }
  param {
    lr_mult: 2
    decay_mult: 0
  }
  convolution_param {
    num_output: 32
    pad: 1
    kernel_size: 3
    stride: 1
    weight_filler {
      type: "gaussian"
      std: 0.083
    }
    bias_filler {
      type: "constant"
      value: 0
    }
  }
}
layer {
  name: "BatchNorm22"
  type: "BatchNorm"
  bottom: "Convolution22"
  top: "Convolution22"
  param {
    lr_mult: 0
    decay_mult: 0
  }
  param {
    lr_mult: 0
    decay_mult: 0
  }
  param {
    lr_mult: 0
    decay_mult: 0
  }
}
layer {
  name: "Scale22"
  type: "Scale"
  bottom: "Convolution22"
  top: "Convolution22"
  scale_param {
    bias_term: true
  }
}
layer {
  name: "Eltwise10"
  type: "Eltwise"
  bottom: "Convolution20"
  bottom: "Convolution22"
  top: "Eltwise10"
  eltwise_param {
    operation: SUM
  }
}
layer {
  name: "M2PELU21"
  type: "M2PELU"
  bottom: "Eltwise10"
  top: "Eltwise10"
  param {
    lr_mult: 2
    decay_mult: 2
  }
  param {
    lr_mult: 2
    decay_mult: 2
  }
  m2pelu_param {
    alpha_filler {
      type: "constant"
      value: 1
    }
    beta_filler {
      type: "constant"
      value: 1
    }
  }
}
layer {
  name: "Convolution23"
  type: "Convolution"
  bottom: "Eltwise10"
  top: "Convolution23"
  param {
    lr_mult: 1
    decay_mult: 1
  }
  param {
    lr_mult: 2
    decay_mult: 0
  }
  convolution_param {
    num_output: 32
    pad: 1
    kernel_size: 3
    stride: 1
    weight_filler {
      type: "gaussian"
      std: 0.083
    }
    bias_filler {
      type: "constant"
      value: 0
    }
  }
}
layer {
  name: "BatchNorm23"
  type: "BatchNorm"
  bottom: "Convolution23"
  top: "Convolution23"
  param {
    lr_mult: 0
    decay_mult: 0
  }
  param {
    lr_mult: 0
    decay_mult: 0
  }
  param {
    lr_mult: 0
    decay_mult: 0
  }
}
layer {
  name: "Scale23"
  type: "Scale"
  bottom: "Convolution23"
  top: "Convolution23"
  scale_param {
    bias_term: true
  }
}
layer {
  name: "M2PELU22"
  type: "M2PELU"
  bottom: "Convolution23"
  top: "Convolution23"
  param {
    lr_mult: 2
    decay_mult: 2
  }
  param {
    lr_mult: 2
    decay_mult: 2
  }
  m2pelu_param {
    alpha_filler {
      type: "constant"
      value: 1
    }
    beta_filler {
      type: "constant"
      value: 1
    }
  }
}
layer {
  name: "Convolution24"
  type: "Convolution"
  bottom: "Convolution23"
  top: "Convolution24"
  param {
    lr_mult: 1
    decay_mult: 1
  }
  param {
    lr_mult: 2
    decay_mult: 0
  }
  convolution_param {
    num_output: 32
    pad: 1
    kernel_size: 3
    stride: 1
    weight_filler {
      type: "gaussian"
      std: 0.083
    }
    bias_filler {
      type: "constant"
      value: 0
    }
  }
}
layer {
  name: "BatchNorm24"
  type: "BatchNorm"
  bottom: "Convolution24"
  top: "Convolution24"
  param {
    lr_mult: 0
    decay_mult: 0
  }
  param {
    lr_mult: 0
    decay_mult: 0
  }
  param {
    lr_mult: 0
    decay_mult: 0
  }
}
layer {
  name: "Scale24"
  type: "Scale"
  bottom: "Convolution24"
  top: "Convolution24"
  scale_param {
    bias_term: true
  }
}
layer {
  name: "Eltwise11"
  type: "Eltwise"
  bottom: "Eltwise10"
  bottom: "Convolution24"
  top: "Eltwise11"
  eltwise_param {
    operation: SUM
  }
}
layer {
  name: "M2PELU23"
  type: "M2PELU"
  bottom: "Eltwise11"
  top: "Eltwise11"
  param {
    lr_mult: 2
    decay_mult: 2
  }
  param {
    lr_mult: 2
    decay_mult: 2
  }
  m2pelu_param {
    alpha_filler {
      type: "constant"
      value: 1
    }
    beta_filler {
      type: "constant"
      value: 1
    }
  }
}
layer {
  name: "Convolution25"
  type: "Convolution"
  bottom: "Eltwise11"
  top: "Convolution25"
  param {
    lr_mult: 1
    decay_mult: 1
  }
  param {
    lr_mult: 2
    decay_mult: 0
  }
  convolution_param {
    num_output: 32
    pad: 1
    kernel_size: 3
    stride: 1
    weight_filler {
      type: "gaussian"
      std: 0.083
    }
    bias_filler {
      type: "constant"
      value: 0
    }
  }
}
layer {
  name: "BatchNorm25"
  type: "BatchNorm"
  bottom: "Convolution25"
  top: "Convolution25"
  param {
    lr_mult: 0
    decay_mult: 0
  }
  param {
    lr_mult: 0
    decay_mult: 0
  }
  param {
    lr_mult: 0
    decay_mult: 0
  }
}
layer {
  name: "Scale25"
  type: "Scale"
  bottom: "Convolution25"
  top: "Convolution25"
  scale_param {
    bias_term: true
  }
}
layer {
  name: "M2PELU24"
  type: "M2PELU"
  bottom: "Convolution25"
  top: "Convolution25"
  param {
    lr_mult: 2
    decay_mult: 2
  }
  param {
    lr_mult: 2
    decay_mult: 2
  }
  m2pelu_param {
    alpha_filler {
      type: "constant"
      value: 1
    }
    beta_filler {
      type: "constant"
      value: 1
    }
  }
}
layer {
  name: "Convolution26"
  type: "Convolution"
  bottom: "Convolution25"
  top: "Convolution26"
  param {
    lr_mult: 1
    decay_mult: 1
  }
  param {
    lr_mult: 2
    decay_mult: 0
  }
  convolution_param {
    num_output: 32
    pad: 1
I1001 19:09:21.851615  5547 layer_factory.hpp:77] Creating layer Data1
I1001 19:09:21.851702  5547 db_lmdb.cpp:35] Opened lmdb /home/x306/caffe/xn/PENLU/data/cifar10/cifar10_train_lmdb
I1001 19:09:21.851722  5547 net.cpp:84] Creating Layer Data1
I1001 19:09:21.851728  5547 net.cpp:380] Data1 -> Data1
I1001 19:09:21.851744  5547 net.cpp:380] Data1 -> Data2
I1001 19:09:21.851763  5547 data_transformer.cpp:25] Loading mean file from: /home/x306/caffe/xn/PENLU/data/cifar10/mean.binaryproto
I1001 19:09:21.853214  5547 data_layer.cpp:45] output data size: 100,3,28,28
I1001 19:09:21.855530  5547 net.cpp:122] Setting up Data1
I1001 19:09:21.855553  5547 net.cpp:129] Top shape: 100 3 28 28 (235200)
I1001 19:09:21.855558  5547 net.cpp:129] Top shape: 100 (100)
I1001 19:09:21.855561  5547 net.cpp:137] Memory required for data: 941200
I1001 19:09:21.855566  5547 layer_factory.hpp:77] Creating layer Convolution1
I1001 19:09:21.855584  5547 net.cpp:84] Creating Layer Convolution1
I1001 19:09:21.855589  5547 net.cpp:406] Convolution1 <- Data1
I1001 19:09:21.855598  5547 net.cpp:380] Convolution1 -> Convolution1
I1001 19:09:22.007545  5547 net.cpp:122] Setting up Convolution1
I1001 19:09:22.007570  5547 net.cpp:129] Top shape: 100 16 28 28 (1254400)
I1001 19:09:22.007573  5547 net.cpp:137] Memory required for data: 5958800
I1001 19:09:22.007598  5547 layer_factory.hpp:77] Creating layer BatchNorm1
I1001 19:09:22.007608  5547 net.cpp:84] Creating Layer BatchNorm1
I1001 19:09:22.007635  5547 net.cpp:406] BatchNorm1 <- Convolution1
I1001 19:09:22.007642  5547 net.cpp:367] BatchNorm1 -> Convolution1 (in-place)
I1001 19:09:22.007791  5547 net.cpp:122] Setting up BatchNorm1
I1001 19:09:22.007797  5547 net.cpp:129] Top shape: 100 16 28 28 (1254400)
I1001 19:09:22.007800  5547 net.cpp:137] Memory required for data: 10976400
I1001 19:09:22.007807  5547 layer_factory.hpp:77] Creating layer Scale1
I1001 19:09:22.007827  5547 net.cpp:84] Creating Layer Scale1
I1001 19:09:22.007832  5547 net.cpp:406] Scale1 <- Convolution1
I1001 19:09:22.007834  5547 net.cpp:367] Scale1 -> Convolution1 (in-place)
I1001 19:09:22.007894  5547 layer_factory.hpp:77] Creating layer Scale1
I1001 19:09:22.008014  5547 net.cpp:122] Setting up Scale1
I1001 19:09:22.008019  5547 net.cpp:129] Top shape: 100 16 28 28 (1254400)
I1001 19:09:22.008021  5547 net.cpp:137] Memory required for data: 15994000
I1001 19:09:22.008025  5547 layer_factory.hpp:77] Creating layer M2PELU1
I1001 19:09:22.008034  5547 net.cpp:84] Creating Layer M2PELU1
I1001 19:09:22.008036  5547 net.cpp:406] M2PELU1 <- Convolution1
I1001 19:09:22.008040  5547 net.cpp:367] M2PELU1 -> Convolution1 (in-place)
I1001 19:09:22.008677  5547 net.cpp:122] Setting up M2PELU1
I1001 19:09:22.008685  5547 net.cpp:129] Top shape: 100 16 28 28 (1254400)
I1001 19:09:22.008688  5547 net.cpp:137] Memory required for data: 21011600
I1001 19:09:22.008695  5547 layer_factory.hpp:77] Creating layer Convolution1_M2PELU1_0_split
I1001 19:09:22.008700  5547 net.cpp:84] Creating Layer Convolution1_M2PELU1_0_split
I1001 19:09:22.008702  5547 net.cpp:406] Convolution1_M2PELU1_0_split <- Convolution1
I1001 19:09:22.008707  5547 net.cpp:380] Convolution1_M2PELU1_0_split -> Convolution1_M2PELU1_0_split_0
I1001 19:09:22.008723  5547 net.cpp:380] Convolution1_M2PELU1_0_split -> Convolution1_M2PELU1_0_split_1
I1001 19:09:22.008754  5547 net.cpp:122] Setting up Convolution1_M2PELU1_0_split
I1001 19:09:22.008759  5547 net.cpp:129] Top shape: 100 16 28 28 (1254400)
I1001 19:09:22.008772  5547 net.cpp:129] Top shape: 100 16 28 28 (1254400)
I1001 19:09:22.008774  5547 net.cpp:137] Memory required for data: 31046800
I1001 19:09:22.008776  5547 layer_factory.hpp:77] Creating layer Convolution2
I1001 19:09:22.008792  5547 net.cpp:84] Creating Layer Convolution2
I1001 19:09:22.008795  5547 net.cpp:406] Convolution2 <- Convolution1_M2PELU1_0_split_0
I1001 19:09:22.008810  5547 net.cpp:380] Convolution2 -> Convolution2
I1001 19:09:22.009665  5547 net.cpp:122] Setting up Convolution2
I1001 19:09:22.009675  5547 net.cpp:129] Top shape: 100 16 28 28 (1254400)
I1001 19:09:22.009678  5547 net.cpp:137] Memory required for data: 36064400
I1001 19:09:22.009693  5547 layer_factory.hpp:77] Creating layer BatchNorm2
I1001 19:09:22.009698  5547 net.cpp:84] Creating Layer BatchNorm2
I1001 19:09:22.009701  5547 net.cpp:406] BatchNorm2 <- Convolution2
I1001 19:09:22.009706  5547 net.cpp:367] BatchNorm2 -> Convolution2 (in-place)
I1001 19:09:22.009829  5547 net.cpp:122] Setting up BatchNorm2
I1001 19:09:22.009833  5547 net.cpp:129] Top shape: 100 16 28 28 (1254400)
I1001 19:09:22.009836  5547 net.cpp:137] Memory required for data: 41082000
I1001 19:09:22.009850  5547 layer_factory.hpp:77] Creating layer Scale2
I1001 19:09:22.009857  5547 net.cpp:84] Creating Layer Scale2
I1001 19:09:22.009860  5547 net.cpp:406] Scale2 <- Convolution2
I1001 19:09:22.009863  5547 net.cpp:367] Scale2 -> Convolution2 (in-place)
I1001 19:09:22.009901  5547 layer_factory.hpp:77] Creating layer Scale2
I1001 19:09:22.009989  5547 net.cpp:122] Setting up Scale2
I1001 19:09:22.009994  5547 net.cpp:129] Top shape: 100 16 28 28 (1254400)
I1001 19:09:22.009996  5547 net.cpp:137] Memory required for data: 46099600
I1001 19:09:22.010010  5547 layer_factory.hpp:77] Creating layer M2PELU2
I1001 19:09:22.010016  5547 net.cpp:84] Creating Layer M2PELU2
I1001 19:09:22.010020  5547 net.cpp:406] M2PELU2 <- Convolution2
I1001 19:09:22.010022  5547 net.cpp:367] M2PELU2 -> Convolution2 (in-place)
I1001 19:09:22.010107  5547 net.cpp:122] Setting up M2PELU2
I1001 19:09:22.010120  5547 net.cpp:129] Top shape: 100 16 28 28 (1254400)
I1001 19:09:22.010123  5547 net.cpp:137] Memory required for data: 51117200
I1001 19:09:22.010129  5547 layer_factory.hpp:77] Creating layer Convolution3
I1001 19:09:22.010138  5547 net.cpp:84] Creating Layer Convolution3
I1001 19:09:22.010140  5547 net.cpp:406] Convolution3 <- Convolution2
I1001 19:09:22.010144  5547 net.cpp:380] Convolution3 -> Convolution3
I1001 19:09:22.011001  5547 net.cpp:122] Setting up Convolution3
I1001 19:09:22.011011  5547 net.cpp:129] Top shape: 100 16 28 28 (1254400)
I1001 19:09:22.011015  5547 net.cpp:137] Memory required for data: 56134800
I1001 19:09:22.011020  5547 layer_factory.hpp:77] Creating layer BatchNorm3
I1001 19:09:22.011025  5547 net.cpp:84] Creating Layer BatchNorm3
I1001 19:09:22.011029  5547 net.cpp:406] BatchNorm3 <- Convolution3
I1001 19:09:22.011034  5547 net.cpp:367] BatchNorm3 -> Convolution3 (in-place)
I1001 19:09:22.011150  5547 net.cpp:122] Setting up BatchNorm3
I1001 19:09:22.011155  5547 net.cpp:129] Top shape: 100 16 28 28 (1254400)
I1001 19:09:22.011157  5547 net.cpp:137] Memory required for data: 61152400
I1001 19:09:22.011162  5547 layer_factory.hpp:77] Creating layer Scale3
I1001 19:09:22.011168  5547 net.cpp:84] Creating Layer Scale3
I1001 19:09:22.011169  5547 net.cpp:406] Scale3 <- Convolution3
I1001 19:09:22.011173  5547 net.cpp:367] Scale3 -> Convolution3 (in-place)
I1001 19:09:22.011198  5547 layer_factory.hpp:77] Creating layer Scale3
I1001 19:09:22.011265  5547 net.cpp:122] Setting up Scale3
I1001 19:09:22.011270  5547 net.cpp:129] Top shape: 100 16 28 28 (1254400)
I1001 19:09:22.011272  5547 net.cpp:137] Memory required for data: 66170000
I1001 19:09:22.011276  5547 layer_factory.hpp:77] Creating layer Eltwise1
I1001 19:09:22.011281  5547 net.cpp:84] Creating Layer Eltwise1
I1001 19:09:22.011284  5547 net.cpp:406] Eltwise1 <- Convolution1_M2PELU1_0_split_1
I1001 19:09:22.011287  5547 net.cpp:406] Eltwise1 <- Convolution3
I1001 19:09:22.011291  5547 net.cpp:380] Eltwise1 -> Eltwise1
I1001 19:09:22.011307  5547 net.cpp:122] Setting up Eltwise1
I1001 19:09:22.011310  5547 net.cpp:129] Top shape: 100 16 28 28 (1254400)
I1001 19:09:22.011313  5547 net.cpp:137] Memory required for data: 71187600
I1001 19:09:22.011315  5547 layer_factory.hpp:77] Creating layer M2PELU3
I1001 19:09:22.011319  5547 net.cpp:84] Creating Layer M2PELU3
I1001 19:09:22.011323  5547 net.cpp:406] M2PELU3 <- Eltwise1
I1001 19:09:22.011327  5547 net.cpp:367] M2PELU3 -> Eltwise1 (in-place)
I1001 19:09:22.011407  5547 net.cpp:122] Setting up M2PELU3
I1001 19:09:22.011412  5547 net.cpp:129] Top shape: 100 16 28 28 (1254400)
I1001 19:09:22.011415  5547 net.cpp:137] Memory required for data: 76205200
I1001 19:09:22.011420  5547 layer_factory.hpp:77] Creating layer Eltwise1_M2PELU3_0_split
I1001 19:09:22.011425  5547 net.cpp:84] Creating Layer Eltwise1_M2PELU3_0_split
I1001 19:09:22.011426  5547 net.cpp:406] Eltwise1_M2PELU3_0_split <- Eltwise1
I1001 19:09:22.011430  5547 net.cpp:380] Eltwise1_M2PELU3_0_split -> Eltwise1_M2PELU3_0_split_0
I1001 19:09:22.011435  5547 net.cpp:380] Eltwise1_M2PELU3_0_split -> Eltwise1_M2PELU3_0_split_1
I1001 19:09:22.011456  5547 net.cpp:122] Setting up Eltwise1_M2PELU3_0_split
I1001 19:09:22.011461  5547 net.cpp:129] Top shape: 100 16 28 28 (1254400)
I1001 19:09:22.011466  5547 net.cpp:129] Top shape: 100 16 28 28 (1254400)
I1001 19:09:22.011467  5547 net.cpp:137] Memory required for data: 86240400
I1001 19:09:22.011469  5547 layer_factory.hpp:77] Creating layer Convolution4
I1001 19:09:22.011477  5547 net.cpp:84] Creating Layer Convolution4
I1001 19:09:22.011481  5547 net.cpp:406] Convolution4 <- Eltwise1_M2PELU3_0_split_0
I1001 19:09:22.011484  5547 net.cpp:380] Convolution4 -> Convolution4
I1001 19:09:22.012331  5547 net.cpp:122] Setting up Convolution4
I1001 19:09:22.012341  5547 net.cpp:129] Top shape: 100 16 28 28 (1254400)
I1001 19:09:22.012343  5547 net.cpp:137] Memory required for data: 91258000
I1001 19:09:22.012348  5547 layer_factory.hpp:77] Creating layer BatchNorm4
I1001 19:09:22.012362  5547 net.cpp:84] Creating Layer BatchNorm4
I1001 19:09:22.012365  5547 net.cpp:406] BatchNorm4 <- Convolution4
I1001 19:09:22.012369  5547 net.cpp:367] BatchNorm4 -> Convolution4 (in-place)
I1001 19:09:22.012488  5547 net.cpp:122] Setting up BatchNorm4
I1001 19:09:22.012493  5547 net.cpp:129] Top shape: 100 16 28 28 (1254400)
I1001 19:09:22.012496  5547 net.cpp:137] Memory required for data: 96275600
I1001 19:09:22.012501  5547 layer_factory.hpp:77] Creating layer Scale4
I1001 19:09:22.012506  5547 net.cpp:84] Creating Layer Scale4
I1001 19:09:22.012509  5547 net.cpp:406] Scale4 <- Convolution4
I1001 19:09:22.012512  5547 net.cpp:367] Scale4 -> Convolution4 (in-place)
I1001 19:09:22.012537  5547 layer_factory.hpp:77] Creating layer Scale4
I1001 19:09:22.012606  5547 net.cpp:122] Setting up Scale4
I1001 19:09:22.012611  5547 net.cpp:129] Top shape: 100 16 28 28 (1254400)
I1001 19:09:22.012614  5547 net.cpp:137] Memory required for data: 101293200
I1001 19:09:22.012622  5547 layer_factory.hpp:77] Creating layer M2PELU4
I1001 19:09:22.012627  5547 net.cpp:84] Creating Layer M2PELU4
I1001 19:09:22.012630  5547 net.cpp:406] M2PELU4 <- Convolution4
I1001 19:09:22.012634  5547 net.cpp:367] M2PELU4 -> Convolution4 (in-place)
I1001 19:09:22.012712  5547 net.cpp:122] Setting up M2PELU4
I1001 19:09:22.012717  5547 net.cpp:129] Top shape: 100 16 28 28 (1254400)
I1001 19:09:22.012720  5547 net.cpp:137] Memory required for data: 106310800
I1001 19:09:22.012724  5547 layer_factory.hpp:77] Creating layer Convolution5
I1001 19:09:22.012732  5547 net.cpp:84] Creating Layer Convolution5
I1001 19:09:22.012735  5547 net.cpp:406] Convolution5 <- Convolution4
I1001 19:09:22.012739  5547 net.cpp:380] Convolution5 -> Convolution5
I1001 19:09:22.013583  5547 net.cpp:122] Setting up Convolution5
I1001 19:09:22.013593  5547 net.cpp:129] Top shape: 100 16 28 28 (1254400)
I1001 19:09:22.013597  5547 net.cpp:137] Memory required for data: 111328400
I1001 19:09:22.013602  5547 layer_factory.hpp:77] Creating layer BatchNorm5
I1001 19:09:22.013607  5547 net.cpp:84] Creating Layer BatchNorm5
I1001 19:09:22.013610  5547 net.cpp:406] BatchNorm5 <- Convolution5
I1001 19:09:22.013614  5547 net.cpp:367] BatchNorm5 -> Convolution5 (in-place)
I1001 19:09:22.013736  5547 net.cpp:122] Setting up BatchNorm5
I1001 19:09:22.013741  5547 net.cpp:129] Top shape: 100 16 28 28 (1254400)
I1001 19:09:22.013744  5547 net.cpp:137] Memory required for data: 116346000
I1001 19:09:22.013749  5547 layer_factory.hpp:77] Creating layer Scale5
I1001 19:09:22.013754  5547 net.cpp:84] Creating Layer Scale5
I1001 19:09:22.013757  5547 net.cpp:406] Scale5 <- Convolution5
I1001 19:09:22.013761  5547 net.cpp:367] Scale5 -> Convolution5 (in-place)
I1001 19:09:22.013787  5547 layer_factory.hpp:77] Creating layer Scale5
I1001 19:09:22.013859  5547 net.cpp:122] Setting up Scale5
I1001 19:09:22.013862  5547 net.cpp:129] Top shape: 100 16 28 28 (1254400)
I1001 19:09:22.013866  5547 net.cpp:137] Memory required for data: 121363600
I1001 19:09:22.013870  5547 layer_factory.hpp:77] Creating layer Eltwise2
I1001 19:09:22.013875  5547 net.cpp:84] Creating Layer Eltwise2
I1001 19:09:22.013878  5547 net.cpp:406] Eltwise2 <- Eltwise1_M2PELU3_0_split_1
I1001 19:09:22.013880  5547 net.cpp:406] Eltwise2 <- Convolution5
I1001 19:09:22.013885  5547 net.cpp:380] Eltwise2 -> Eltwise2
I1001 19:09:22.013898  5547 net.cpp:122] Setting up Eltwise2
I1001 19:09:22.013902  5547 net.cpp:129] Top shape: 100 16 28 28 (1254400)
I1001 19:09:22.013906  5547 net.cpp:137] Memory required for data: 126381200
I1001 19:09:22.013907  5547 layer_factory.hpp:77] Creating layer M2PELU5
I1001 19:09:22.013912  5547 net.cpp:84] Creating Layer M2PELU5
I1001 19:09:22.013916  5547 net.cpp:406] M2PELU5 <- Eltwise2
I1001 19:09:22.013918  5547 net.cpp:367] M2PELU5 -> Eltwise2 (in-place)
I1001 19:09:22.013996  5547 net.cpp:122] Setting up M2PELU5
I1001 19:09:22.014001  5547 net.cpp:129] Top shape: 100 16 28 28 (1254400)
I1001 19:09:22.014003  5547 net.cpp:137] Memory required for data: 131398800
I1001 19:09:22.014008  5547 layer_factory.hpp:77] Creating layer Eltwise2_M2PELU5_0_split
I1001 19:09:22.014017  5547 net.cpp:84] Creating Layer Eltwise2_M2PELU5_0_split
I1001 19:09:22.014020  5547 net.cpp:406] Eltwise2_M2PELU5_0_split <- Eltwise2
I1001 19:09:22.014024  5547 net.cpp:380] Eltwise2_M2PELU5_0_split -> Eltwise2_M2PELU5_0_split_0
I1001 19:09:22.014029  5547 net.cpp:380] Eltwise2_M2PELU5_0_split -> Eltwise2_M2PELU5_0_split_1
I1001 19:09:22.014051  5547 net.cpp:122] Setting up Eltwise2_M2PELU5_0_split
I1001 19:09:22.014055  5547 net.cpp:129] Top shape: 100 16 28 28 (1254400)
I1001 19:09:22.014060  5547 net.cpp:129] Top shape: 100 16 28 28 (1254400)
I1001 19:09:22.014063  5547 net.cpp:137] Memory required for data: 141434000
I1001 19:09:22.014065  5547 layer_factory.hpp:77] Creating layer Convolution6
I1001 19:09:22.014071  5547 net.cpp:84] Creating Layer Convolution6
I1001 19:09:22.014075  5547 net.cpp:406] Convolution6 <- Eltwise2_M2PELU5_0_split_0
I1001 19:09:22.014080  5547 net.cpp:380] Convolution6 -> Convolution6
I1001 19:09:22.014961  5547 net.cpp:122] Setting up Convolution6
I1001 19:09:22.014971  5547 net.cpp:129] Top shape: 100 16 28 28 (1254400)
I1001 19:09:22.014976  5547 net.cpp:137] Memory required for data: 146451600
I1001 19:09:22.014981  5547 layer_factory.hpp:77] Creating layer BatchNorm6
I1001 19:09:22.014986  5547 net.cpp:84] Creating Layer BatchNorm6
I1001 19:09:22.014989  5547 net.cpp:406] BatchNorm6 <- Convolution6
I1001 19:09:22.014992  5547 net.cpp:367] BatchNorm6 -> Convolution6 (in-place)
I1001 19:09:22.015116  5547 net.cpp:122] Setting up BatchNorm6
I1001 19:09:22.015121  5547 net.cpp:129] Top shape: 100 16 28 28 (1254400)
I1001 19:09:22.015125  5547 net.cpp:137] Memory required for data: 151469200
I1001 19:09:22.015130  5547 layer_factory.hpp:77] Creating layer Scale6
I1001 19:09:22.015135  5547 net.cpp:84] Creating Layer Scale6
I1001 19:09:22.015137  5547 net.cpp:406] Scale6 <- Convolution6
I1001 19:09:22.015141  5547 net.cpp:367] Scale6 -> Convolution6 (in-place)
I1001 19:09:22.015166  5547 layer_factory.hpp:77] Creating layer Scale6
I1001 19:09:22.015239  5547 net.cpp:122] Setting up Scale6
I1001 19:09:22.015245  5547 net.cpp:129] Top shape: 100 16 28 28 (1254400)
I1001 19:09:22.015249  5547 net.cpp:137] Memory required for data: 156486800
I1001 19:09:22.015252  5547 layer_factory.hpp:77] Creating layer M2PELU6
I1001 19:09:22.015257  5547 net.cpp:84] Creating Layer M2PELU6
I1001 19:09:22.015260  5547 net.cpp:406] M2PELU6 <- Convolution6
I1001 19:09:22.015264  5547 net.cpp:367] M2PELU6 -> Convolution6 (in-place)
I1001 19:09:22.015347  5547 net.cpp:122] Setting up M2PELU6
I1001 19:09:22.015352  5547 net.cpp:129] Top shape: 100 16 28 28 (1254400)
I1001 19:09:22.015353  5547 net.cpp:137] Memory required for data: 161504400
I1001 19:09:22.015357  5547 layer_factory.hpp:77] Creating layer Convolution7
I1001 19:09:22.015365  5547 net.cpp:84] Creating Layer Convolution7
I1001 19:09:22.015368  5547 net.cpp:406] Convolution7 <- Convolution6
I1001 19:09:22.015372  5547 net.cpp:380] Convolution7 -> Convolution7
I1001 19:09:22.015907  5547 net.cpp:122] Setting up Convolution7
I1001 19:09:22.015916  5547 net.cpp:129] Top shape: 100 16 28 28 (1254400)
I1001 19:09:22.015919  5547 net.cpp:137] Memory required for data: 166522000
I1001 19:09:22.015924  5547 layer_factory.hpp:77] Creating layer BatchNorm7
I1001 19:09:22.015929  5547 net.cpp:84] Creating Layer BatchNorm7
I1001 19:09:22.015933  5547 net.cpp:406] BatchNorm7 <- Convolution7
I1001 19:09:22.015936  5547 net.cpp:367] BatchNorm7 -> Convolution7 (in-place)
I1001 19:09:22.016060  5547 net.cpp:122] Setting up BatchNorm7
I1001 19:09:22.016065  5547 net.cpp:129] Top shape: 100 16 28 28 (1254400)
I1001 19:09:22.016068  5547 net.cpp:137] Memory required for data: 171539600
I1001 19:09:22.016073  5547 layer_factory.hpp:77] Creating layer Scale7
I1001 19:09:22.016079  5547 net.cpp:84] Creating Layer Scale7
I1001 19:09:22.016083  5547 net.cpp:406] Scale7 <- Convolution7
I1001 19:09:22.016086  5547 net.cpp:367] Scale7 -> Convolution7 (in-place)
I1001 19:09:22.016111  5547 layer_factory.hpp:77] Creating layer Scale7
I1001 19:09:22.016192  5547 net.cpp:122] Setting up Scale7
I1001 19:09:22.016197  5547 net.cpp:129] Top shape: 100 16 28 28 (1254400)
I1001 19:09:22.016201  5547 net.cpp:137] Memory required for data: 176557200
I1001 19:09:22.016206  5547 layer_factory.hpp:77] Creating layer Eltwise3
I1001 19:09:22.016209  5547 net.cpp:84] Creating Layer Eltwise3
I1001 19:09:22.016212  5547 net.cpp:406] Eltwise3 <- Eltwise2_M2PELU5_0_split_1
I1001 19:09:22.016216  5547 net.cpp:406] Eltwise3 <- Convolution7
I1001 19:09:22.016221  5547 net.cpp:380] Eltwise3 -> Eltwise3
I1001 19:09:22.016237  5547 net.cpp:122] Setting up Eltwise3
I1001 19:09:22.016242  5547 net.cpp:129] Top shape: 100 16 28 28 (1254400)
I1001 19:09:22.016243  5547 net.cpp:137] Memory required for data: 181574800
I1001 19:09:22.016245  5547 layer_factory.hpp:77] Creating layer M2PELU7
I1001 19:09:22.016250  5547 net.cpp:84] Creating Layer M2PELU7
I1001 19:09:22.016253  5547 net.cpp:406] M2PELU7 <- Eltwise3
I1001 19:09:22.016258  5547 net.cpp:367] M2PELU7 -> Eltwise3 (in-place)
I1001 19:09:22.016338  5547 net.cpp:122] Setting up M2PELU7
I1001 19:09:22.016343  5547 net.cpp:129] Top shape: 100 16 28 28 (1254400)
I1001 19:09:22.016345  5547 net.cpp:137] Memory required for data: 186592400
I1001 19:09:22.016348  5547 layer_factory.hpp:77] Creating layer Eltwise3_M2PELU7_0_split
I1001 19:09:22.016355  5547 net.cpp:84] Creating Layer Eltwise3_M2PELU7_0_split
I1001 19:09:22.016357  5547 net.cpp:406] Eltwise3_M2PELU7_0_split <- Eltwise3
I1001 19:09:22.016360  5547 net.cpp:380] Eltwise3_M2PELU7_0_split -> Eltwise3_M2PELU7_0_split_0
I1001 19:09:22.016364  5547 net.cpp:380] Eltwise3_M2PELU7_0_split -> Eltwise3_M2PELU7_0_split_1
I1001 19:09:22.016386  5547 net.cpp:122] Setting up Eltwise3_M2PELU7_0_split
I1001 19:09:22.016391  5547 net.cpp:129] Top shape: 100 16 28 28 (1254400)
I1001 19:09:22.016393  5547 net.cpp:129] Top shape: 100 16 28 28 (1254400)
I1001 19:09:22.016396  5547 net.cpp:137] Memory required for data: 196627600
I1001 19:09:22.016399  5547 layer_factory.hpp:77] Creating layer Convolution8
I1001 19:09:22.016404  5547 net.cpp:84] Creating Layer Convolution8
I1001 19:09:22.016407  5547 net.cpp:406] Convolution8 <- Eltwise3_M2PELU7_0_split_0
I1001 19:09:22.016412  5547 net.cpp:380] Convolution8 -> Convolution8
I1001 19:09:22.017251  5547 net.cpp:122] Setting up Convolution8
I1001 19:09:22.017261  5547 net.cpp:129] Top shape: 100 16 28 28 (1254400)
I1001 19:09:22.017264  5547 net.cpp:137] Memory required for data: 201645200
I1001 19:09:22.017274  5547 layer_factory.hpp:77] Creating layer BatchNorm8
I1001 19:09:22.017280  5547 net.cpp:84] Creating Layer BatchNorm8
I1001 19:09:22.017284  5547 net.cpp:406] BatchNorm8 <- Convolution8
I1001 19:09:22.017287  5547 net.cpp:367] BatchNorm8 -> Convolution8 (in-place)
I1001 19:09:22.017410  5547 net.cpp:122] Setting up BatchNorm8
I1001 19:09:22.017416  5547 net.cpp:129] Top shape: 100 16 28 28 (1254400)
I1001 19:09:22.017418  5547 net.cpp:137] Memory required for data: 206662800
I1001 19:09:22.017433  5547 layer_factory.hpp:77] Creating layer Scale8
I1001 19:09:22.017438  5547 net.cpp:84] Creating Layer Scale8
I1001 19:09:22.017441  5547 net.cpp:406] Scale8 <- Convolution8
I1001 19:09:22.017446  5547 net.cpp:367] Scale8 -> Convolution8 (in-place)
I1001 19:09:22.017480  5547 layer_factory.hpp:77] Creating layer Scale8
I1001 19:09:22.017572  5547 net.cpp:122] Setting up Scale8
I1001 19:09:22.017577  5547 net.cpp:129] Top shape: 100 16 28 28 (1254400)
I1001 19:09:22.017580  5547 net.cpp:137] Memory required for data: 211680400
I1001 19:09:22.017594  5547 layer_factory.hpp:77] Creating layer M2PELU8
I1001 19:09:22.017601  5547 net.cpp:84] Creating Layer M2PELU8
I1001 19:09:22.017603  5547 net.cpp:406] M2PELU8 <- Convolution8
I1001 19:09:22.017607  5547 net.cpp:367] M2PELU8 -> Convolution8 (in-place)
I1001 19:09:22.017688  5547 net.cpp:122] Setting up M2PELU8
I1001 19:09:22.017693  5547 net.cpp:129] Top shape: 100 16 28 28 (1254400)
I1001 19:09:22.017696  5547 net.cpp:137] Memory required for data: 216698000
I1001 19:09:22.017706  5547 layer_factory.hpp:77] Creating layer Convolution9
I1001 19:09:22.017714  5547 net.cpp:84] Creating Layer Convolution9
I1001 19:09:22.017717  5547 net.cpp:406] Convolution9 <- Convolution8
I1001 19:09:22.017722  5547 net.cpp:380] Convolution9 -> Convolution9
I1001 19:09:22.018630  5547 net.cpp:122] Setting up Convolution9
I1001 19:09:22.018640  5547 net.cpp:129] Top shape: 100 16 28 28 (1254400)
I1001 19:09:22.018643  5547 net.cpp:137] Memory required for data: 221715600
I1001 19:09:22.018648  5547 layer_factory.hpp:77] Creating layer BatchNorm9
I1001 19:09:22.018653  5547 net.cpp:84] Creating Layer BatchNorm9
I1001 19:09:22.018657  5547 net.cpp:406] BatchNorm9 <- Convolution9
I1001 19:09:22.018662  5547 net.cpp:367] BatchNorm9 -> Convolution9 (in-place)
I1001 19:09:22.018793  5547 net.cpp:122] Setting up BatchNorm9
I1001 19:09:22.018798  5547 net.cpp:129] Top shape: 100 16 28 28 (1254400)
I1001 19:09:22.018801  5547 net.cpp:137] Memory required for data: 226733200
I1001 19:09:22.018806  5547 layer_factory.hpp:77] Creating layer Scale9
I1001 19:09:22.018811  5547 net.cpp:84] Creating Layer Scale9
I1001 19:09:22.018815  5547 net.cpp:406] Scale9 <- Convolution9
I1001 19:09:22.018818  5547 net.cpp:367] Scale9 -> Convolution9 (in-place)
I1001 19:09:22.018844  5547 layer_factory.hpp:77] Creating layer Scale9
I1001 19:09:22.018924  5547 net.cpp:122] Setting up Scale9
I1001 19:09:22.018929  5547 net.cpp:129] Top shape: 100 16 28 28 (1254400)
I1001 19:09:22.018934  5547 net.cpp:137] Memory required for data: 231750800
I1001 19:09:22.018937  5547 layer_factory.hpp:77] Creating layer Eltwise4
I1001 19:09:22.018941  5547 net.cpp:84] Creating Layer Eltwise4
I1001 19:09:22.018944  5547 net.cpp:406] Eltwise4 <- Eltwise3_M2PELU7_0_split_1
I1001 19:09:22.018947  5547 net.cpp:406] Eltwise4 <- Convolution9
I1001 19:09:22.018954  5547 net.cpp:380] Eltwise4 -> Eltwise4
I1001 19:09:22.018968  5547 net.cpp:122] Setting up Eltwise4
I1001 19:09:22.018973  5547 net.cpp:129] Top shape: 100 16 28 28 (1254400)
I1001 19:09:22.018975  5547 net.cpp:137] Memory required for data: 236768400
I1001 19:09:22.018978  5547 layer_factory.hpp:77] Creating layer M2PELU9
I1001 19:09:22.018983  5547 net.cpp:84] Creating Layer M2PELU9
I1001 19:09:22.018985  5547 net.cpp:406] M2PELU9 <- Eltwise4
I1001 19:09:22.018990  5547 net.cpp:367] M2PELU9 -> Eltwise4 (in-place)
I1001 19:09:22.019074  5547 net.cpp:122] Setting up M2PELU9
I1001 19:09:22.019079  5547 net.cpp:129] Top shape: 100 16 28 28 (1254400)
I1001 19:09:22.019083  5547 net.cpp:137] Memory required for data: 241786000
I1001 19:09:22.019085  5547 layer_factory.hpp:77] Creating layer Eltwise4_M2PELU9_0_split
I1001 19:09:22.019089  5547 net.cpp:84] Creating Layer Eltwise4_M2PELU9_0_split
I1001 19:09:22.019091  5547 net.cpp:406] Eltwise4_M2PELU9_0_split <- Eltwise4
I1001 19:09:22.019095  5547 net.cpp:380] Eltwise4_M2PELU9_0_split -> Eltwise4_M2PELU9_0_split_0
I1001 19:09:22.019099  5547 net.cpp:380] Eltwise4_M2PELU9_0_split -> Eltwise4_M2PELU9_0_split_1
I1001 19:09:22.019121  5547 net.cpp:122] Setting up Eltwise4_M2PELU9_0_split
I1001 19:09:22.019126  5547 net.cpp:129] Top shape: 100 16 28 28 (1254400)
I1001 19:09:22.019129  5547 net.cpp:129] Top shape: 100 16 28 28 (1254400)
I1001 19:09:22.019131  5547 net.cpp:137] Memory required for data: 251821200
I1001 19:09:22.019134  5547 layer_factory.hpp:77] Creating layer Convolution10
I1001 19:09:22.019142  5547 net.cpp:84] Creating Layer Convolution10
I1001 19:09:22.019145  5547 net.cpp:406] Convolution10 <- Eltwise4_M2PELU9_0_split_0
I1001 19:09:22.019150  5547 net.cpp:380] Convolution10 -> Convolution10
I1001 19:09:22.020115  5547 net.cpp:122] Setting up Convolution10
I1001 19:09:22.020126  5547 net.cpp:129] Top shape: 100 16 28 28 (1254400)
I1001 19:09:22.020129  5547 net.cpp:137] Memory required for data: 256838800
I1001 19:09:22.020143  5547 layer_factory.hpp:77] Creating layer BatchNorm10
I1001 19:09:22.020150  5547 net.cpp:84] Creating Layer BatchNorm10
I1001 19:09:22.020153  5547 net.cpp:406] BatchNorm10 <- Convolution10
I1001 19:09:22.020166  5547 net.cpp:367] BatchNorm10 -> Convolution10 (in-place)
I1001 19:09:22.020323  5547 net.cpp:122] Setting up BatchNorm10
I1001 19:09:22.020328  5547 net.cpp:129] Top shape: 100 16 28 28 (1254400)
I1001 19:09:22.020330  5547 net.cpp:137] Memory required for data: 261856400
I1001 19:09:22.020346  5547 layer_factory.hpp:77] Creating layer Scale10
I1001 19:09:22.020351  5547 net.cpp:84] Creating Layer Scale10
I1001 19:09:22.020354  5547 net.cpp:406] Scale10 <- Convolution10
I1001 19:09:22.020359  5547 net.cpp:367] Scale10 -> Convolution10 (in-place)
I1001 19:09:22.020395  5547 layer_factory.hpp:77] Creating layer Scale10
I1001 19:09:22.020491  5547 net.cpp:122] Setting up Scale10
I1001 19:09:22.020496  5547 net.cpp:129] Top shape: 100 16 28 28 (1254400)
I1001 19:09:22.020509  5547 net.cpp:137] Memory required for data: 266874000
I1001 19:09:22.020514  5547 layer_factory.hpp:77] Creating layer M2PELU10
I1001 19:09:22.020519  5547 net.cpp:84] Creating Layer M2PELU10
I1001 19:09:22.020521  5547 net.cpp:406] M2PELU10 <- Convolution10
I1001 19:09:22.020524  5547 net.cpp:367] M2PELU10 -> Convolution10 (in-place)
I1001 19:09:22.020608  5547 net.cpp:122] Setting up M2PELU10
I1001 19:09:22.020614  5547 net.cpp:129] Top shape: 100 16 28 28 (1254400)
I1001 19:09:22.020617  5547 net.cpp:137] Memory required for data: 271891600
I1001 19:09:22.020620  5547 layer_factory.hpp:77] Creating layer Convolution11
I1001 19:09:22.020629  5547 net.cpp:84] Creating Layer Convolution11
I1001 19:09:22.020632  5547 net.cpp:406] Convolution11 <- Convolution10
I1001 19:09:22.020637  5547 net.cpp:380] Convolution11 -> Convolution11
I1001 19:09:22.021555  5547 net.cpp:122] Setting up Convolution11
I1001 19:09:22.021566  5547 net.cpp:129] Top shape: 100 16 28 28 (1254400)
I1001 19:09:22.021569  5547 net.cpp:137] Memory required for data: 276909200
I1001 19:09:22.021574  5547 layer_factory.hpp:77] Creating layer BatchNorm11
I1001 19:09:22.021580  5547 net.cpp:84] Creating Layer BatchNorm11
I1001 19:09:22.021584  5547 net.cpp:406] BatchNorm11 <- Convolution11
I1001 19:09:22.021587  5547 net.cpp:367] BatchNorm11 -> Convolution11 (in-place)
I1001 19:09:22.021728  5547 net.cpp:122] Setting up BatchNorm11
I1001 19:09:22.021733  5547 net.cpp:129] Top shape: 100 16 28 28 (1254400)
I1001 19:09:22.021736  5547 net.cpp:137] Memory required for data: 281926800
I1001 19:09:22.021750  5547 layer_factory.hpp:77] Creating layer Scale11
I1001 19:09:22.021755  5547 net.cpp:84] Creating Layer Scale11
I1001 19:09:22.021759  5547 net.cpp:406] Scale11 <- Convolution11
I1001 19:09:22.021772  5547 net.cpp:367] Scale11 -> Convolution11 (in-place)
I1001 19:09:22.021798  5547 layer_factory.hpp:77] Creating layer Scale11
I1001 19:09:22.021877  5547 net.cpp:122] Setting up Scale11
I1001 19:09:22.021883  5547 net.cpp:129] Top shape: 100 16 28 28 (1254400)
I1001 19:09:22.021885  5547 net.cpp:137] Memory required for data: 286944400
I1001 19:09:22.021889  5547 layer_factory.hpp:77] Creating layer Eltwise5
I1001 19:09:22.021893  5547 net.cpp:84] Creating Layer Eltwise5
I1001 19:09:22.021898  5547 net.cpp:406] Eltwise5 <- Eltwise4_M2PELU9_0_split_1
I1001 19:09:22.021900  5547 net.cpp:406] Eltwise5 <- Convolution11
I1001 19:09:22.021904  5547 net.cpp:380] Eltwise5 -> Eltwise5
I1001 19:09:22.021921  5547 net.cpp:122] Setting up Eltwise5
I1001 19:09:22.021925  5547 net.cpp:129] Top shape: 100 16 28 28 (1254400)
I1001 19:09:22.021929  5547 net.cpp:137] Memory required for data: 291962000
I1001 19:09:22.021931  5547 layer_factory.hpp:77] Creating layer M2PELU11
I1001 19:09:22.021935  5547 net.cpp:84] Creating Layer M2PELU11
I1001 19:09:22.021939  5547 net.cpp:406] M2PELU11 <- Eltwise5
I1001 19:09:22.021942  5547 net.cpp:367] M2PELU11 -> Eltwise5 (in-place)
I1001 19:09:22.022027  5547 net.cpp:122] Setting up M2PELU11
I1001 19:09:22.022032  5547 net.cpp:129] Top shape: 100 16 28 28 (1254400)
I1001 19:09:22.022035  5547 net.cpp:137] Memory required for data: 296979600
I1001 19:09:22.022039  5547 layer_factory.hpp:77] Creating layer Eltwise5_M2PELU11_0_split
I1001 19:09:22.022044  5547 net.cpp:84] Creating Layer Eltwise5_M2PELU11_0_split
I1001 19:09:22.022053  5547 net.cpp:406] Eltwise5_M2PELU11_0_split <- Eltwise5
I1001 19:09:22.022058  5547 net.cpp:380] Eltwise5_M2PELU11_0_split -> Eltwise5_M2PELU11_0_split_0
I1001 19:09:22.022063  5547 net.cpp:380] Eltwise5_M2PELU11_0_split -> Eltwise5_M2PELU11_0_split_1
I1001 19:09:22.022086  5547 net.cpp:122] Setting up Eltwise5_M2PELU11_0_split
I1001 19:09:22.022091  5547 net.cpp:129] Top shape: 100 16 28 28 (1254400)
I1001 19:09:22.022095  5547 net.cpp:129] Top shape: 100 16 28 28 (1254400)
I1001 19:09:22.022097  5547 net.cpp:137] Memory required for data: 307014800
I1001 19:09:22.022101  5547 layer_factory.hpp:77] Creating layer Convolution12
I1001 19:09:22.022106  5547 net.cpp:84] Creating Layer Convolution12
I1001 19:09:22.022110  5547 net.cpp:406] Convolution12 <- Eltwise5_M2PELU11_0_split_0
I1001 19:09:22.022114  5547 net.cpp:380] Convolution12 -> Convolution12
I1001 19:09:22.023027  5547 net.cpp:122] Setting up Convolution12
I1001 19:09:22.023038  5547 net.cpp:129] Top shape: 100 16 28 28 (1254400)
I1001 19:09:22.023041  5547 net.cpp:137] Memory required for data: 312032400
I1001 19:09:22.023046  5547 layer_factory.hpp:77] Creating layer BatchNorm12
I1001 19:09:22.023052  5547 net.cpp:84] Creating Layer BatchNorm12
I1001 19:09:22.023056  5547 net.cpp:406] BatchNorm12 <- Convolution12
I1001 19:09:22.023059  5547 net.cpp:367] BatchNorm12 -> Convolution12 (in-place)
I1001 19:09:22.023191  5547 net.cpp:122] Setting up BatchNorm12
I1001 19:09:22.023197  5547 net.cpp:129] Top shape: 100 16 28 28 (1254400)
I1001 19:09:22.023200  5547 net.cpp:137] Memory required for data: 317050000
I1001 19:09:22.023205  5547 layer_factory.hpp:77] Creating layer Scale12
I1001 19:09:22.023210  5547 net.cpp:84] Creating Layer Scale12
I1001 19:09:22.023213  5547 net.cpp:406] Scale12 <- Convolution12
I1001 19:09:22.023216  5547 net.cpp:367] Scale12 -> Convolution12 (in-place)
I1001 19:09:22.023243  5547 layer_factory.hpp:77] Creating layer Scale12
I1001 19:09:22.023320  5547 net.cpp:122] Setting up Scale12
I1001 19:09:22.023325  5547 net.cpp:129] Top shape: 100 16 28 28 (1254400)
I1001 19:09:22.023329  5547 net.cpp:137] Memory required for data: 322067600
I1001 19:09:22.023332  5547 layer_factory.hpp:77] Creating layer M2PELU12
I1001 19:09:22.023339  5547 net.cpp:84] Creating Layer M2PELU12
I1001 19:09:22.023341  5547 net.cpp:406] M2PELU12 <- Convolution12
I1001 19:09:22.023345  5547 net.cpp:367] M2PELU12 -> Convolution12 (in-place)
I1001 19:09:22.023428  5547 net.cpp:122] Setting up M2PELU12
I1001 19:09:22.023433  5547 net.cpp:129] Top shape: 100 16 28 28 (1254400)
I1001 19:09:22.023437  5547 net.cpp:137] Memory required for data: 327085200
I1001 19:09:22.023440  5547 layer_factory.hpp:77] Creating layer Convolution13
I1001 19:09:22.023448  5547 net.cpp:84] Creating Layer Convolution13
I1001 19:09:22.023452  5547 net.cpp:406] Convolution13 <- Convolution12
I1001 19:09:22.023455  5547 net.cpp:380] Convolution13 -> Convolution13
I1001 19:09:22.024343  5547 net.cpp:122] Setting up Convolution13
I1001 19:09:22.024353  5547 net.cpp:129] Top shape: 100 16 28 28 (1254400)
I1001 19:09:22.024356  5547 net.cpp:137] Memory required for data: 332102800
I1001 19:09:22.024360  5547 layer_factory.hpp:77] Creating layer BatchNorm13
I1001 19:09:22.024369  5547 net.cpp:84] Creating Layer BatchNorm13
I1001 19:09:22.024371  5547 net.cpp:406] BatchNorm13 <- Convolution13
I1001 19:09:22.024375  5547 net.cpp:367] BatchNorm13 -> Convolution13 (in-place)
I1001 19:09:22.024507  5547 net.cpp:122] Setting up BatchNorm13
I1001 19:09:22.024511  5547 net.cpp:129] Top shape: 100 16 28 28 (1254400)
I1001 19:09:22.024514  5547 net.cpp:137] Memory required for data: 337120400
I1001 19:09:22.024519  5547 layer_factory.hpp:77] Creating layer Scale13
I1001 19:09:22.024524  5547 net.cpp:84] Creating Layer Scale13
I1001 19:09:22.024528  5547 net.cpp:406] Scale13 <- Convolution13
I1001 19:09:22.024533  5547 net.cpp:367] Scale13 -> Convolution13 (in-place)
I1001 19:09:22.024559  5547 layer_factory.hpp:77] Creating layer Scale13
I1001 19:09:22.024646  5547 net.cpp:122] Setting up Scale13
I1001 19:09:22.024652  5547 net.cpp:129] Top shape: 100 16 28 28 (1254400)
I1001 19:09:22.024654  5547 net.cpp:137] Memory required for data: 342138000
I1001 19:09:22.024658  5547 layer_factory.hpp:77] Creating layer Eltwise6
I1001 19:09:22.024662  5547 net.cpp:84] Creating Layer Eltwise6
I1001 19:09:22.024667  5547 net.cpp:406] Eltwise6 <- Eltwise5_M2PELU11_0_split_1
I1001 19:09:22.024669  5547 net.cpp:406] Eltwise6 <- Convolution13
I1001 19:09:22.024673  5547 net.cpp:380] Eltwise6 -> Eltwise6
I1001 19:09:22.024691  5547 net.cpp:122] Setting up Eltwise6
I1001 19:09:22.024696  5547 net.cpp:129] Top shape: 100 16 28 28 (1254400)
I1001 19:09:22.024699  5547 net.cpp:137] Memory required for data: 347155600
I1001 19:09:22.024703  5547 layer_factory.hpp:77] Creating layer M2PELU13
I1001 19:09:22.024711  5547 net.cpp:84] Creating Layer M2PELU13
I1001 19:09:22.024714  5547 net.cpp:406] M2PELU13 <- Eltwise6
I1001 19:09:22.024718  5547 net.cpp:367] M2PELU13 -> Eltwise6 (in-place)
I1001 19:09:22.024806  5547 net.cpp:122] Setting up M2PELU13
I1001 19:09:22.024811  5547 net.cpp:129] Top shape: 100 16 28 28 (1254400)
I1001 19:09:22.024813  5547 net.cpp:137] Memory required for data: 352173200
I1001 19:09:22.024817  5547 layer_factory.hpp:77] Creating layer Eltwise6_M2PELU13_0_split
I1001 19:09:22.024821  5547 net.cpp:84] Creating Layer Eltwise6_M2PELU13_0_split
I1001 19:09:22.024824  5547 net.cpp:406] Eltwise6_M2PELU13_0_split <- Eltwise6
I1001 19:09:22.024828  5547 net.cpp:380] Eltwise6_M2PELU13_0_split -> Eltwise6_M2PELU13_0_split_0
I1001 19:09:22.024832  5547 net.cpp:380] Eltwise6_M2PELU13_0_split -> Eltwise6_M2PELU13_0_split_1
I1001 19:09:22.024855  5547 net.cpp:122] Setting up Eltwise6_M2PELU13_0_split
I1001 19:09:22.024860  5547 net.cpp:129] Top shape: 100 16 28 28 (1254400)
I1001 19:09:22.024863  5547 net.cpp:129] Top shape: 100 16 28 28 (1254400)
I1001 19:09:22.024866  5547 net.cpp:137] Memory required for data: 362208400
I1001 19:09:22.024868  5547 layer_factory.hpp:77] Creating layer Convolution14
I1001 19:09:22.024875  5547 net.cpp:84] Creating Layer Convolution14
I1001 19:09:22.024878  5547 net.cpp:406] Convolution14 <- Eltwise6_M2PELU13_0_split_0
I1001 19:09:22.024881  5547 net.cpp:380] Convolution14 -> Convolution14
I1001 19:09:22.025764  5547 net.cpp:122] Setting up Convolution14
I1001 19:09:22.025774  5547 net.cpp:129] Top shape: 100 16 28 28 (1254400)
I1001 19:09:22.025775  5547 net.cpp:137] Memory required for data: 367226000
I1001 19:09:22.025780  5547 layer_factory.hpp:77] Creating layer BatchNorm14
I1001 19:09:22.025786  5547 net.cpp:84] Creating Layer BatchNorm14
I1001 19:09:22.025789  5547 net.cpp:406] BatchNorm14 <- Convolution14
I1001 19:09:22.025792  5547 net.cpp:367] BatchNorm14 -> Convolution14 (in-place)
I1001 19:09:22.025924  5547 net.cpp:122] Setting up BatchNorm14
I1001 19:09:22.025928  5547 net.cpp:129] Top shape: 100 16 28 28 (1254400)
I1001 19:09:22.025930  5547 net.cpp:137] Memory required for data: 372243600
I1001 19:09:22.025935  5547 layer_factory.hpp:77] Creating layer Scale14
I1001 19:09:22.025940  5547 net.cpp:84] Creating Layer Scale14
I1001 19:09:22.025943  5547 net.cpp:406] Scale14 <- Convolution14
I1001 19:09:22.025945  5547 net.cpp:367] Scale14 -> Convolution14 (in-place)
I1001 19:09:22.025971  5547 layer_factory.hpp:77] Creating layer Scale14
I1001 19:09:22.026051  5547 net.cpp:122] Setting up Scale14
I1001 19:09:22.026055  5547 net.cpp:129] Top shape: 100 16 28 28 (1254400)
I1001 19:09:22.026058  5547 net.cpp:137] Memory required for data: 377261200
I1001 19:09:22.026062  5547 layer_factory.hpp:77] Creating layer M2PELU14
I1001 19:09:22.026067  5547 net.cpp:84] Creating Layer M2PELU14
I1001 19:09:22.026069  5547 net.cpp:406] M2PELU14 <- Convolution14
I1001 19:09:22.026073  5547 net.cpp:367] M2PELU14 -> Convolution14 (in-place)
I1001 19:09:22.026156  5547 net.cpp:122] Setting up M2PELU14
I1001 19:09:22.026160  5547 net.cpp:129] Top shape: 100 16 28 28 (1254400)
I1001 19:09:22.026162  5547 net.cpp:137] Memory required for data: 382278800
I1001 19:09:22.026172  5547 layer_factory.hpp:77] Creating layer Convolution15
I1001 19:09:22.026180  5547 net.cpp:84] Creating Layer Convolution15
I1001 19:09:22.026182  5547 net.cpp:406] Convolution15 <- Convolution14
I1001 19:09:22.026186  5547 net.cpp:380] Convolution15 -> Convolution15
I1001 19:09:22.027076  5547 net.cpp:122] Setting up Convolution15
I1001 19:09:22.027086  5547 net.cpp:129] Top shape: 100 16 28 28 (1254400)
I1001 19:09:22.027088  5547 net.cpp:137] Memory required for data: 387296400
I1001 19:09:22.027092  5547 layer_factory.hpp:77] Creating layer BatchNorm15
I1001 19:09:22.027098  5547 net.cpp:84] Creating Layer BatchNorm15
I1001 19:09:22.027101  5547 net.cpp:406] BatchNorm15 <- Convolution15
I1001 19:09:22.027104  5547 net.cpp:367] BatchNorm15 -> Convolution15 (in-place)
I1001 19:09:22.027236  5547 net.cpp:122] Setting up BatchNorm15
I1001 19:09:22.027240  5547 net.cpp:129] Top shape: 100 16 28 28 (1254400)
I1001 19:09:22.027242  5547 net.cpp:137] Memory required for data: 392314000
I1001 19:09:22.027258  5547 layer_factory.hpp:77] Creating layer Scale15
I1001 19:09:22.027262  5547 net.cpp:84] Creating Layer Scale15
I1001 19:09:22.027264  5547 net.cpp:406] Scale15 <- Convolution15
I1001 19:09:22.027268  5547 net.cpp:367] Scale15 -> Convolution15 (in-place)
I1001 19:09:22.027295  5547 layer_factory.hpp:77] Creating layer Scale15
I1001 19:09:22.027374  5547 net.cpp:122] Setting up Scale15
I1001 19:09:22.027379  5547 net.cpp:129] Top shape: 100 16 28 28 (1254400)
I1001 19:09:22.027381  5547 net.cpp:137] Memory required for data: 397331600
I1001 19:09:22.027384  5547 layer_factory.hpp:77] Creating layer Eltwise7
I1001 19:09:22.027389  5547 net.cpp:84] Creating Layer Eltwise7
I1001 19:09:22.027391  5547 net.cpp:406] Eltwise7 <- Eltwise6_M2PELU13_0_split_1
I1001 19:09:22.027395  5547 net.cpp:406] Eltwise7 <- Convolution15
I1001 19:09:22.027397  5547 net.cpp:380] Eltwise7 -> Eltwise7
I1001 19:09:22.027411  5547 net.cpp:122] Setting up Eltwise7
I1001 19:09:22.027415  5547 net.cpp:129] Top shape: 100 16 28 28 (1254400)
I1001 19:09:22.027417  5547 net.cpp:137] Memory required for data: 402349200
I1001 19:09:22.027420  5547 layer_factory.hpp:77] Creating layer M2PELU15
I1001 19:09:22.027425  5547 net.cpp:84] Creating Layer M2PELU15
I1001 19:09:22.027426  5547 net.cpp:406] M2PELU15 <- Eltwise7
I1001 19:09:22.027431  5547 net.cpp:367] M2PELU15 -> Eltwise7 (in-place)
I1001 19:09:22.027518  5547 net.cpp:122] Setting up M2PELU15
I1001 19:09:22.027521  5547 net.cpp:129] Top shape: 100 16 28 28 (1254400)
I1001 19:09:22.027523  5547 net.cpp:137] Memory required for data: 407366800
I1001 19:09:22.027526  5547 layer_factory.hpp:77] Creating layer Eltwise7_M2PELU15_0_split
I1001 19:09:22.027530  5547 net.cpp:84] Creating Layer Eltwise7_M2PELU15_0_split
I1001 19:09:22.027534  5547 net.cpp:406] Eltwise7_M2PELU15_0_split <- Eltwise7
I1001 19:09:22.027536  5547 net.cpp:380] Eltwise7_M2PELU15_0_split -> Eltwise7_M2PELU15_0_split_0
I1001 19:09:22.027540  5547 net.cpp:380] Eltwise7_M2PELU15_0_split -> Eltwise7_M2PELU15_0_split_1
I1001 19:09:22.027562  5547 net.cpp:122] Setting up Eltwise7_M2PELU15_0_split
I1001 19:09:22.027566  5547 net.cpp:129] Top shape: 100 16 28 28 (1254400)
I1001 19:09:22.027570  5547 net.cpp:129] Top shape: 100 16 28 28 (1254400)
I1001 19:09:22.027571  5547 net.cpp:137] Memory required for data: 417402000
I1001 19:09:22.027573  5547 layer_factory.hpp:77] Creating layer Convolution16
I1001 19:09:22.027580  5547 net.cpp:84] Creating Layer Convolution16
I1001 19:09:22.027582  5547 net.cpp:406] Convolution16 <- Eltwise7_M2PELU15_0_split_0
I1001 19:09:22.027586  5547 net.cpp:380] Convolution16 -> Convolution16
I1001 19:09:22.028468  5547 net.cpp:122] Setting up Convolution16
I1001 19:09:22.028477  5547 net.cpp:129] Top shape: 100 16 28 28 (1254400)
I1001 19:09:22.028481  5547 net.cpp:137] Memory required for data: 422419600
I1001 19:09:22.028484  5547 layer_factory.hpp:77] Creating layer BatchNorm16
I1001 19:09:22.028489  5547 net.cpp:84] Creating Layer BatchNorm16
I1001 19:09:22.028491  5547 net.cpp:406] BatchNorm16 <- Convolution16
I1001 19:09:22.028502  5547 net.cpp:367] BatchNorm16 -> Convolution16 (in-place)
I1001 19:09:22.028637  5547 net.cpp:122] Setting up BatchNorm16
I1001 19:09:22.028642  5547 net.cpp:129] Top shape: 100 16 28 28 (1254400)
I1001 19:09:22.028645  5547 net.cpp:137] Memory required for data: 427437200
I1001 19:09:22.028650  5547 layer_factory.hpp:77] Creating layer Scale16
I1001 19:09:22.028653  5547 net.cpp:84] Creating Layer Scale16
I1001 19:09:22.028656  5547 net.cpp:406] Scale16 <- Convolution16
I1001 19:09:22.028659  5547 net.cpp:367] Scale16 -> Convolution16 (in-place)
I1001 19:09:22.028684  5547 layer_factory.hpp:77] Creating layer Scale16
I1001 19:09:22.028761  5547 net.cpp:122] Setting up Scale16
I1001 19:09:22.028765  5547 net.cpp:129] Top shape: 100 16 28 28 (1254400)
I1001 19:09:22.028767  5547 net.cpp:137] Memory required for data: 432454800
I1001 19:09:22.028771  5547 layer_factory.hpp:77] Creating layer M2PELU16
I1001 19:09:22.028776  5547 net.cpp:84] Creating Layer M2PELU16
I1001 19:09:22.028779  5547 net.cpp:406] M2PELU16 <- Convolution16
I1001 19:09:22.028782  5547 net.cpp:367] M2PELU16 -> Convolution16 (in-place)
I1001 19:09:22.028869  5547 net.cpp:122] Setting up M2PELU16
I1001 19:09:22.028873  5547 net.cpp:129] Top shape: 100 16 28 28 (1254400)
I1001 19:09:22.028875  5547 net.cpp:137] Memory required for data: 437472400
I1001 19:09:22.028879  5547 layer_factory.hpp:77] Creating layer Convolution17
I1001 19:09:22.028885  5547 net.cpp:84] Creating Layer Convolution17
I1001 19:09:22.028888  5547 net.cpp:406] Convolution17 <- Convolution16
I1001 19:09:22.028892  5547 net.cpp:380] Convolution17 -> Convolution17
I1001 19:09:22.029451  5547 net.cpp:122] Setting up Convolution17
I1001 19:09:22.029459  5547 net.cpp:129] Top shape: 100 16 28 28 (1254400)
I1001 19:09:22.029462  5547 net.cpp:137] Memory required for data: 442490000
I1001 19:09:22.029466  5547 layer_factory.hpp:77] Creating layer BatchNorm17
I1001 19:09:22.029470  5547 net.cpp:84] Creating Layer BatchNorm17
I1001 19:09:22.029474  5547 net.cpp:406] BatchNorm17 <- Convolution17
I1001 19:09:22.029477  5547 net.cpp:367] BatchNorm17 -> Convolution17 (in-place)
I1001 19:09:22.029608  5547 net.cpp:122] Setting up BatchNorm17
I1001 19:09:22.029613  5547 net.cpp:129] Top shape: 100 16 28 28 (1254400)
I1001 19:09:22.029614  5547 net.cpp:137] Memory required for data: 447507600
I1001 19:09:22.029619  5547 layer_factory.hpp:77] Creating layer Scale17
I1001 19:09:22.029623  5547 net.cpp:84] Creating Layer Scale17
I1001 19:09:22.029625  5547 net.cpp:406] Scale17 <- Convolution17
I1001 19:09:22.029629  5547 net.cpp:367] Scale17 -> Convolution17 (in-place)
I1001 19:09:22.029654  5547 layer_factory.hpp:77] Creating layer Scale17
I1001 19:09:22.029731  5547 net.cpp:122] Setting up Scale17
I1001 19:09:22.029736  5547 net.cpp:129] Top shape: 100 16 28 28 (1254400)
I1001 19:09:22.029737  5547 net.cpp:137] Memory required for data: 452525200
I1001 19:09:22.029742  5547 layer_factory.hpp:77] Creating layer Eltwise8
I1001 19:09:22.029745  5547 net.cpp:84] Creating Layer Eltwise8
I1001 19:09:22.029748  5547 net.cpp:406] Eltwise8 <- Eltwise7_M2PELU15_0_split_1
I1001 19:09:22.029750  5547 net.cpp:406] Eltwise8 <- Convolution17
I1001 19:09:22.029754  5547 net.cpp:380] Eltwise8 -> Eltwise8
I1001 19:09:22.029769  5547 net.cpp:122] Setting up Eltwise8
I1001 19:09:22.029773  5547 net.cpp:129] Top shape: 100 16 28 28 (1254400)
I1001 19:09:22.029775  5547 net.cpp:137] Memory required for data: 457542800
I1001 19:09:22.029778  5547 layer_factory.hpp:77] Creating layer M2PELU17
I1001 19:09:22.029783  5547 net.cpp:84] Creating Layer M2PELU17
I1001 19:09:22.029784  5547 net.cpp:406] M2PELU17 <- Eltwise8
I1001 19:09:22.029788  5547 net.cpp:367] M2PELU17 -> Eltwise8 (in-place)
I1001 19:09:22.029875  5547 net.cpp:122] Setting up M2PELU17
I1001 19:09:22.029878  5547 net.cpp:129] Top shape: 100 16 28 28 (1254400)
I1001 19:09:22.029881  5547 net.cpp:137] Memory required for data: 462560400
I1001 19:09:22.029884  5547 layer_factory.hpp:77] Creating layer Eltwise8_M2PELU17_0_split
I1001 19:09:22.029893  5547 net.cpp:84] Creating Layer Eltwise8_M2PELU17_0_split
I1001 19:09:22.029896  5547 net.cpp:406] Eltwise8_M2PELU17_0_split <- Eltwise8
I1001 19:09:22.029901  5547 net.cpp:380] Eltwise8_M2PELU17_0_split -> Eltwise8_M2PELU17_0_split_0
I1001 19:09:22.029904  5547 net.cpp:380] Eltwise8_M2PELU17_0_split -> Eltwise8_M2PELU17_0_split_1
I1001 19:09:22.029927  5547 net.cpp:122] Setting up Eltwise8_M2PELU17_0_split
I1001 19:09:22.029932  5547 net.cpp:129] Top shape: 100 16 28 28 (1254400)
I1001 19:09:22.029934  5547 net.cpp:129] Top shape: 100 16 28 28 (1254400)
I1001 19:09:22.029937  5547 net.cpp:137] Memory required for data: 472595600
I1001 19:09:22.029938  5547 layer_factory.hpp:77] Creating layer Convolution18
I1001 19:09:22.029944  5547 net.cpp:84] Creating Layer Convolution18
I1001 19:09:22.029947  5547 net.cpp:406] Convolution18 <- Eltwise8_M2PELU17_0_split_0
I1001 19:09:22.029950  5547 net.cpp:380] Convolution18 -> Convolution18
I1001 19:09:22.030839  5547 net.cpp:122] Setting up Convolution18
I1001 19:09:22.030848  5547 net.cpp:129] Top shape: 100 16 28 28 (1254400)
I1001 19:09:22.030851  5547 net.cpp:137] Memory required for data: 477613200
I1001 19:09:22.030855  5547 layer_factory.hpp:77] Creating layer BatchNorm18
I1001 19:09:22.030860  5547 net.cpp:84] Creating Layer BatchNorm18
I1001 19:09:22.030864  5547 net.cpp:406] BatchNorm18 <- Convolution18
I1001 19:09:22.030867  5547 net.cpp:367] BatchNorm18 -> Convolution18 (in-place)
I1001 19:09:22.030998  5547 net.cpp:122] Setting up BatchNorm18
I1001 19:09:22.031003  5547 net.cpp:129] Top shape: 100 16 28 28 (1254400)
I1001 19:09:22.031005  5547 net.cpp:137] Memory required for data: 482630800
I1001 19:09:22.031009  5547 layer_factory.hpp:77] Creating layer Scale18
I1001 19:09:22.031014  5547 net.cpp:84] Creating Layer Scale18
I1001 19:09:22.031016  5547 net.cpp:406] Scale18 <- Convolution18
I1001 19:09:22.031019  5547 net.cpp:367] Scale18 -> Convolution18 (in-place)
I1001 19:09:22.031045  5547 layer_factory.hpp:77] Creating layer Scale18
I1001 19:09:22.031123  5547 net.cpp:122] Setting up Scale18
I1001 19:09:22.031127  5547 net.cpp:129] Top shape: 100 16 28 28 (1254400)
I1001 19:09:22.031129  5547 net.cpp:137] Memory required for data: 487648400
I1001 19:09:22.031133  5547 layer_factory.hpp:77] Creating layer M2PELU18
I1001 19:09:22.031138  5547 net.cpp:84] Creating Layer M2PELU18
I1001 19:09:22.031141  5547 net.cpp:406] M2PELU18 <- Convolution18
I1001 19:09:22.031143  5547 net.cpp:367] M2PELU18 -> Convolution18 (in-place)
I1001 19:09:22.031226  5547 net.cpp:122] Setting up M2PELU18
I1001 19:09:22.031231  5547 net.cpp:129] Top shape: 100 16 28 28 (1254400)
I1001 19:09:22.031234  5547 net.cpp:137] Memory required for data: 492666000
I1001 19:09:22.031236  5547 layer_factory.hpp:77] Creating layer Convolution19
I1001 19:09:22.031244  5547 net.cpp:84] Creating Layer Convolution19
I1001 19:09:22.031246  5547 net.cpp:406] Convolution19 <- Convolution18
I1001 19:09:22.031250  5547 net.cpp:380] Convolution19 -> Convolution19
I1001 19:09:22.032148  5547 net.cpp:122] Setting up Convolution19
I1001 19:09:22.032157  5547 net.cpp:129] Top shape: 100 16 28 28 (1254400)
I1001 19:09:22.032160  5547 net.cpp:137] Memory required for data: 497683600
I1001 19:09:22.032165  5547 layer_factory.hpp:77] Creating layer BatchNorm19
I1001 19:09:22.032169  5547 net.cpp:84] Creating Layer BatchNorm19
I1001 19:09:22.032172  5547 net.cpp:406] BatchNorm19 <- Convolution19
I1001 19:09:22.032176  5547 net.cpp:367] BatchNorm19 -> Convolution19 (in-place)
I1001 19:09:22.032310  5547 net.cpp:122] Setting up BatchNorm19
I1001 19:09:22.032315  5547 net.cpp:129] Top shape: 100 16 28 28 (1254400)
I1001 19:09:22.032317  5547 net.cpp:137] Memory required for data: 502701200
I1001 19:09:22.032321  5547 layer_factory.hpp:77] Creating layer Scale19
I1001 19:09:22.032325  5547 net.cpp:84] Creating Layer Scale19
I1001 19:09:22.032328  5547 net.cpp:406] Scale19 <- Convolution19
I1001 19:09:22.032332  5547 net.cpp:367] Scale19 -> Convolution19 (in-place)
I1001 19:09:22.032366  5547 layer_factory.hpp:77] Creating layer Scale19
I1001 19:09:22.032444  5547 net.cpp:122] Setting up Scale19
I1001 19:09:22.032447  5547 net.cpp:129] Top shape: 100 16 28 28 (1254400)
I1001 19:09:22.032449  5547 net.cpp:137] Memory required for data: 507718800
I1001 19:09:22.032454  5547 layer_factory.hpp:77] Creating layer Eltwise9
I1001 19:09:22.032457  5547 net.cpp:84] Creating Layer Eltwise9
I1001 19:09:22.032460  5547 net.cpp:406] Eltwise9 <- Eltwise8_M2PELU17_0_split_1
I1001 19:09:22.032464  5547 net.cpp:406] Eltwise9 <- Convolution19
I1001 19:09:22.032466  5547 net.cpp:380] Eltwise9 -> Eltwise9
I1001 19:09:22.032482  5547 net.cpp:122] Setting up Eltwise9
I1001 19:09:22.032485  5547 net.cpp:129] Top shape: 100 16 28 28 (1254400)
I1001 19:09:22.032487  5547 net.cpp:137] Memory required for data: 512736400
I1001 19:09:22.032490  5547 layer_factory.hpp:77] Creating layer M2PELU19
I1001 19:09:22.032495  5547 net.cpp:84] Creating Layer M2PELU19
I1001 19:09:22.032496  5547 net.cpp:406] M2PELU19 <- Eltwise9
I1001 19:09:22.032500  5547 net.cpp:367] M2PELU19 -> Eltwise9 (in-place)
I1001 19:09:22.032584  5547 net.cpp:122] Setting up M2PELU19
I1001 19:09:22.032589  5547 net.cpp:129] Top shape: 100 16 28 28 (1254400)
I1001 19:09:22.032591  5547 net.cpp:137] Memory required for data: 517754000
I1001 19:09:22.032594  5547 layer_factory.hpp:77] Creating layer Eltwise9_M2PELU19_0_split
I1001 19:09:22.032599  5547 net.cpp:84] Creating Layer Eltwise9_M2PELU19_0_split
I1001 19:09:22.032601  5547 net.cpp:406] Eltwise9_M2PELU19_0_split <- Eltwise9
I1001 19:09:22.032604  5547 net.cpp:380] Eltwise9_M2PELU19_0_split -> Eltwise9_M2PELU19_0_split_0
I1001 19:09:22.032608  5547 net.cpp:380] Eltwise9_M2PELU19_0_split -> Eltwise9_M2PELU19_0_split_1
I1001 19:09:22.032632  5547 net.cpp:122] Setting up Eltwise9_M2PELU19_0_split
I1001 19:09:22.032636  5547 net.cpp:129] Top shape: 100 16 28 28 (1254400)
I1001 19:09:22.032639  5547 net.cpp:129] Top shape: 100 16 28 28 (1254400)
I1001 19:09:22.032641  5547 net.cpp:137] Memory required for data: 527789200
I1001 19:09:22.032644  5547 layer_factory.hpp:77] Creating layer Convolution20
I1001 19:09:22.032649  5547 net.cpp:84] Creating Layer Convolution20
I1001 19:09:22.032651  5547 net.cpp:406] Convolution20 <- Eltwise9_M2PELU19_0_split_0
I1001 19:09:22.032655  5547 net.cpp:380] Convolution20 -> Convolution20
I1001 19:09:22.033843  5547 net.cpp:122] Setting up Convolution20
I1001 19:09:22.033850  5547 net.cpp:129] Top shape: 100 32 14 14 (627200)
I1001 19:09:22.033854  5547 net.cpp:137] Memory required for data: 530298000
I1001 19:09:22.033859  5547 layer_factory.hpp:77] Creating layer BatchNorm20
I1001 19:09:22.033864  5547 net.cpp:84] Creating Layer BatchNorm20
I1001 19:09:22.033866  5547 net.cpp:406] BatchNorm20 <- Convolution20
I1001 19:09:22.033871  5547 net.cpp:367] BatchNorm20 -> Convolution20 (in-place)
I1001 19:09:22.034013  5547 net.cpp:122] Setting up BatchNorm20
I1001 19:09:22.034018  5547 net.cpp:129] Top shape: 100 32 14 14 (627200)
I1001 19:09:22.034020  5547 net.cpp:137] Memory required for data: 532806800
I1001 19:09:22.034025  5547 layer_factory.hpp:77] Creating layer Scale20
I1001 19:09:22.034031  5547 net.cpp:84] Creating Layer Scale20
I1001 19:09:22.034034  5547 net.cpp:406] Scale20 <- Convolution20
I1001 19:09:22.034037  5547 net.cpp:367] Scale20 -> Convolution20 (in-place)
I1001 19:09:22.034066  5547 layer_factory.hpp:77] Creating layer Scale20
I1001 19:09:22.034145  5547 net.cpp:122] Setting up Scale20
I1001 19:09:22.034149  5547 net.cpp:129] Top shape: 100 32 14 14 (627200)
I1001 19:09:22.034152  5547 net.cpp:137] Memory required for data: 535315600
I1001 19:09:22.034157  5547 layer_factory.hpp:77] Creating layer Convolution21
I1001 19:09:22.034163  5547 net.cpp:84] Creating Layer Convolution21
I1001 19:09:22.034166  5547 net.cpp:406] Convolution21 <- Eltwise9_M2PELU19_0_split_1
I1001 19:09:22.034170  5547 net.cpp:380] Convolution21 -> Convolution21
I1001 19:09:22.035851  5547 net.cpp:122] Setting up Convolution21
I1001 19:09:22.035861  5547 net.cpp:129] Top shape: 100 32 14 14 (627200)
I1001 19:09:22.035871  5547 net.cpp:137] Memory required for data: 537824400
I1001 19:09:22.035876  5547 layer_factory.hpp:77] Creating layer BatchNorm21
I1001 19:09:22.035882  5547 net.cpp:84] Creating Layer BatchNorm21
I1001 19:09:22.035886  5547 net.cpp:406] BatchNorm21 <- Convolution21
I1001 19:09:22.035888  5547 net.cpp:367] BatchNorm21 -> Convolution21 (in-place)
I1001 19:09:22.036026  5547 net.cpp:122] Setting up BatchNorm21
I1001 19:09:22.036031  5547 net.cpp:129] Top shape: 100 32 14 14 (627200)
I1001 19:09:22.036032  5547 net.cpp:137] Memory required for data: 540333200
I1001 19:09:22.036037  5547 layer_factory.hpp:77] Creating layer Scale21
I1001 19:09:22.036041  5547 net.cpp:84] Creating Layer Scale21
I1001 19:09:22.036043  5547 net.cpp:406] Scale21 <- Convolution21
I1001 19:09:22.036046  5547 net.cpp:367] Scale21 -> Convolution21 (in-place)
I1001 19:09:22.036073  5547 layer_factory.hpp:77] Creating layer Scale21
I1001 19:09:22.036149  5547 net.cpp:122] Setting up Scale21
I1001 19:09:22.036154  5547 net.cpp:129] Top shape: 100 32 14 14 (627200)
I1001 19:09:22.036155  5547 net.cpp:137] Memory required for data: 542842000
I1001 19:09:22.036159  5547 layer_factory.hpp:77] Creating layer M2PELU20
I1001 19:09:22.036164  5547 net.cpp:84] Creating Layer M2PELU20
I1001 19:09:22.036167  5547 net.cpp:406] M2PELU20 <- Convolution21
I1001 19:09:22.036170  5547 net.cpp:367] M2PELU20 -> Convolution21 (in-place)
I1001 19:09:22.036252  5547 net.cpp:122] Setting up M2PELU20
I1001 19:09:22.036257  5547 net.cpp:129] Top shape: 100 32 14 14 (627200)
I1001 19:09:22.036258  5547 net.cpp:137] Memory required for data: 545350800
I1001 19:09:22.036262  5547 layer_factory.hpp:77] Creating layer Convolution22
I1001 19:09:22.036269  5547 net.cpp:84] Creating Layer Convolution22
I1001 19:09:22.036272  5547 net.cpp:406] Convolution22 <- Convolution21
I1001 19:09:22.036278  5547 net.cpp:380] Convolution22 -> Convolution22
I1001 19:09:22.037430  5547 net.cpp:122] Setting up Convolution22
I1001 19:09:22.037448  5547 net.cpp:129] Top shape: 100 32 14 14 (627200)
I1001 19:09:22.037451  5547 net.cpp:137] Memory required for data: 547859600
I1001 19:09:22.037456  5547 layer_factory.hpp:77] Creating layer BatchNorm22
I1001 19:09:22.037461  5547 net.cpp:84] Creating Layer BatchNorm22
I1001 19:09:22.037463  5547 net.cpp:406] BatchNorm22 <- Convolution22
I1001 19:09:22.037467  5547 net.cpp:367] BatchNorm22 -> Convolution22 (in-place)
I1001 19:09:22.037609  5547 net.cpp:122] Setting up BatchNorm22
I1001 19:09:22.037614  5547 net.cpp:129] Top shape: 100 32 14 14 (627200)
I1001 19:09:22.037616  5547 net.cpp:137] Memory required for data: 550368400
I1001 19:09:22.037621  5547 layer_factory.hpp:77] Creating layer Scale22
I1001 19:09:22.037624  5547 net.cpp:84] Creating Layer Scale22
I1001 19:09:22.037627  5547 net.cpp:406] Scale22 <- Convolution22
I1001 19:09:22.037631  5547 net.cpp:367] Scale22 -> Convolution22 (in-place)
I1001 19:09:22.037657  5547 layer_factory.hpp:77] Creating layer Scale22
I1001 19:09:22.037730  5547 net.cpp:122] Setting up Scale22
I1001 19:09:22.037734  5547 net.cpp:129] Top shape: 100 32 14 14 (627200)
I1001 19:09:22.037736  5547 net.cpp:137] Memory required for data: 552877200
I1001 19:09:22.037740  5547 layer_factory.hpp:77] Creating layer Eltwise10
I1001 19:09:22.037744  5547 net.cpp:84] Creating Layer Eltwise10
I1001 19:09:22.037746  5547 net.cpp:406] Eltwise10 <- Convolution20
I1001 19:09:22.037750  5547 net.cpp:406] Eltwise10 <- Convolution22
I1001 19:09:22.037753  5547 net.cpp:380] Eltwise10 -> Eltwise10
I1001 19:09:22.037767  5547 net.cpp:122] Setting up Eltwise10
I1001 19:09:22.037772  5547 net.cpp:129] Top shape: 100 32 14 14 (627200)
I1001 19:09:22.037775  5547 net.cpp:137] Memory required for data: 555386000
I1001 19:09:22.037776  5547 layer_factory.hpp:77] Creating layer M2PELU21
I1001 19:09:22.037781  5547 net.cpp:84] Creating Layer M2PELU21
I1001 19:09:22.037782  5547 net.cpp:406] M2PELU21 <- Eltwise10
I1001 19:09:22.037786  5547 net.cpp:367] M2PELU21 -> Eltwise10 (in-place)
I1001 19:09:22.037868  5547 net.cpp:122] Setting up M2PELU21
I1001 19:09:22.037878  5547 net.cpp:129] Top shape: 100 32 14 14 (627200)
I1001 19:09:22.037880  5547 net.cpp:137] Memory required for data: 557894800
I1001 19:09:22.037884  5547 layer_factory.hpp:77] Creating layer Eltwise10_M2PELU21_0_split
I1001 19:09:22.037889  5547 net.cpp:84] Creating Layer Eltwise10_M2PELU21_0_split
I1001 19:09:22.037890  5547 net.cpp:406] Eltwise10_M2PELU21_0_split <- Eltwise10
I1001 19:09:22.037895  5547 net.cpp:380] Eltwise10_M2PELU21_0_split -> Eltwise10_M2PELU21_0_split_0
I1001 19:09:22.037899  5547 net.cpp:380] Eltwise10_M2PELU21_0_split -> Eltwise10_M2PELU21_0_split_1
I1001 19:09:22.037922  5547 net.cpp:122] Setting up Eltwise10_M2PELU21_0_split
I1001 19:09:22.037926  5547 net.cpp:129] Top shape: 100 32 14 14 (627200)
I1001 19:09:22.037928  5547 net.cpp:129] Top shape: 100 32 14 14 (627200)
I1001 19:09:22.037930  5547 net.cpp:137] Memory required for data: 562912400
I1001 19:09:22.037933  5547 layer_factory.hpp:77] Creating layer Convolution23
I1001 19:09:22.037940  5547 net.cpp:84] Creating Layer Convolution23
I1001 19:09:22.037941  5547 net.cpp:406] Convolution23 <- Eltwise10_M2PELU21_0_split_0
I1001 19:09:22.037945  5547 net.cpp:380] Convolution23 -> Convolution23
I1001 19:09:22.039279  5547 net.cpp:122] Setting up Convolution23
I1001 19:09:22.039288  5547 net.cpp:129] Top shape: 100 32 14 14 (627200)
I1001 19:09:22.039290  5547 net.cpp:137] Memory required for data: 565421200
I1001 19:09:22.039295  5547 layer_factory.hpp:77] Creating layer BatchNorm23
I1001 19:09:22.039301  5547 net.cpp:84] Creating Layer BatchNorm23
I1001 19:09:22.039304  5547 net.cpp:406] BatchNorm23 <- Convolution23
I1001 19:09:22.039309  5547 net.cpp:367] BatchNorm23 -> Convolution23 (in-place)
I1001 19:09:22.039444  5547 net.cpp:122] Setting up BatchNorm23
I1001 19:09:22.039448  5547 net.cpp:129] Top shape: 100 32 14 14 (627200)
I1001 19:09:22.039450  5547 net.cpp:137] Memory required for data: 567930000
I1001 19:09:22.039455  5547 layer_factory.hpp:77] Creating layer Scale23
I1001 19:09:22.039459  5547 net.cpp:84] Creating Layer Scale23
I1001 19:09:22.039461  5547 net.cpp:406] Scale23 <- Convolution23
I1001 19:09:22.039465  5547 net.cpp:367] Scale23 -> Convolution23 (in-place)
I1001 19:09:22.039490  5547 layer_factory.hpp:77] Creating layer Scale23
I1001 19:09:22.039566  5547 net.cpp:122] Setting up Scale23
I1001 19:09:22.039571  5547 net.cpp:129] Top shape: 100 32 14 14 (627200)
I1001 19:09:22.039572  5547 net.cpp:137] Memory required for data: 570438800
I1001 19:09:22.039577  5547 layer_factory.hpp:77] Creating layer M2PELU22
I1001 19:09:22.039582  5547 net.cpp:84] Creating Layer M2PELU22
I1001 19:09:22.039583  5547 net.cpp:406] M2PELU22 <- Convolution23
I1001 19:09:22.039587  5547 net.cpp:367] M2PELU22 -> Convolution23 (in-place)
I1001 19:09:22.039669  5547 net.cpp:122] Setting up M2PELU22
I1001 19:09:22.039674  5547 net.cpp:129] Top shape: 100 32 14 14 (627200)
I1001 19:09:22.039675  5547 net.cpp:137] Memory required for data: 572947600
I1001 19:09:22.039679  5547 layer_factory.hpp:77] Creating layer Convolution24
I1001 19:09:22.039685  5547 net.cpp:84] Creating Layer Convolution24
I1001 19:09:22.039687  5547 net.cpp:406] Convolution24 <- Convolution23
I1001 19:09:22.039692  5547 net.cpp:380] Convolution24 -> Convolution24
I1001 19:09:22.040721  5547 net.cpp:122] Setting up Convolution24
I1001 19:09:22.040730  5547 net.cpp:129] Top shape: 100 32 14 14 (627200)
I1001 19:09:22.040732  5547 net.cpp:137] Memory required for data: 575456400
I1001 19:09:22.040737  5547 layer_factory.hpp:77] Creating layer BatchNorm24
I1001 19:09:22.040742  5547 net.cpp:84] Creating Layer BatchNorm24
I1001 19:09:22.040745  5547 net.cpp:406] BatchNorm24 <- Convolution24
I1001 19:09:22.040748  5547 net.cpp:367] BatchNorm24 -> Convolution24 (in-place)
I1001 19:09:22.040882  5547 net.cpp:122] Setting up BatchNorm24
I1001 19:09:22.040887  5547 net.cpp:129] Top shape: 100 32 14 14 (627200)
I1001 19:09:22.040889  5547 net.cpp:137] Memory required for data: 577965200
I1001 19:09:22.040894  5547 layer_factory.hpp:77] Creating layer Scale24
I1001 19:09:22.040904  5547 net.cpp:84] Creating Layer Scale24
I1001 19:09:22.040906  5547 net.cpp:406] Scale24 <- Convolution24
I1001 19:09:22.040910  5547 net.cpp:367] Scale24 -> Convolution24 (in-place)
I1001 19:09:22.040940  5547 layer_factory.hpp:77] Creating layer Scale24
I1001 19:09:22.041016  5547 net.cpp:122] Setting up Scale24
I1001 19:09:22.041020  5547 net.cpp:129] Top shape: 100 32 14 14 (627200)
I1001 19:09:22.041023  5547 net.cpp:137] Memory required for data: 580474000
I1001 19:09:22.041026  5547 layer_factory.hpp:77] Creating layer Eltwise11
I1001 19:09:22.041031  5547 net.cpp:84] Creating Layer Eltwise11
I1001 19:09:22.041034  5547 net.cpp:406] Eltwise11 <- Eltwise10_M2PELU21_0_split_1
I1001 19:09:22.041036  5547 net.cpp:406] Eltwise11 <- Convolution24
I1001 19:09:22.041039  5547 net.cpp:380] Eltwise11 -> Eltwise11
I1001 19:09:22.041055  5547 net.cpp:122] Setting up Eltwise11
I1001 19:09:22.041059  5547 net.cpp:129] Top shape: 100 32 14 14 (627200)
I1001 19:09:22.041061  5547 net.cpp:137] Memory required for data: 582982800
I1001 19:09:22.041064  5547 layer_factory.hpp:77] Creating layer M2PELU23
I1001 19:09:22.041069  5547 net.cpp:84] Creating Layer M2PELU23
I1001 19:09:22.041070  5547 net.cpp:406] M2PELU23 <- Eltwise11
I1001 19:09:22.041074  5547 net.cpp:367] M2PELU23 -> Eltwise11 (in-place)
I1001 19:09:22.041157  5547 net.cpp:122] Setting up M2PELU23
I1001 19:09:22.041160  5547 net.cpp:129] Top shape: 100 32 14 14 (627200)
I1001 19:09:22.041162  5547 net.cpp:137] Memory required for data: 585491600
I1001 19:09:22.041167  5547 layer_factory.hpp:77] Creating layer Eltwise11_M2PELU23_0_split
I1001 19:09:22.041169  5547 net.cpp:84] Creating Layer Eltwise11_M2PELU23_0_split
I1001 19:09:22.041172  5547 net.cpp:406] Eltwise11_M2PELU23_0_split <- Eltwise11
I1001 19:09:22.041175  5547 net.cpp:380] Eltwise11_M2PELU23_0_split -> Eltwise11_M2PELU23_0_split_0
I1001 19:09:22.041178  5547 net.cpp:380] Eltwise11_M2PELU23_0_split -> Eltwise11_M2PELU23_0_split_1
I1001 19:09:22.041201  5547 net.cpp:122] Setting up Eltwise11_M2PELU23_0_split
I1001 19:09:22.041205  5547 net.cpp:129] Top shape: 100 32 14 14 (627200)
I1001 19:09:22.041208  5547 net.cpp:129] Top shape: 100 32 14 14 (627200)
I1001 19:09:22.041210  5547 net.cpp:137] Memory required for data: 590509200
I1001 19:09:22.041213  5547 layer_factory.hpp:77] Creating layer Convolution25
I1001 19:09:22.041218  5547 net.cpp:84] Creating Layer Convolution25
I1001 19:09:22.041221  5547 net.cpp:406] Convolution25 <- Eltwise11_M2PELU23_0_split_0
I1001 19:09:22.041224  5547 net.cpp:380] Convolution25 -> Convolution25
I1001 19:09:22.042249  5547 net.cpp:122] Setting up Convolution25
I1001 19:09:22.042258  5547 net.cpp:129] Top shape: 100 32 14 14 (627200)
I1001 19:09:22.042260  5547 net.cpp:137] Memory required for data: 593018000
I1001 19:09:22.042264  5547 layer_factory.hpp:77] Creating layer BatchNorm25
I1001 19:09:22.042269  5547 net.cpp:84] Creating Layer BatchNorm25
I1001 19:09:22.042273  5547 net.cpp:406] BatchNorm25 <- Convolution25
I1001 19:09:22.042275  5547 net.cpp:367] BatchNorm25 -> Convolution25 (in-place)
I1001 19:09:22.042419  5547 net.cpp:122] Setting up BatchNorm25
I1001 19:09:22.042425  5547 net.cpp:129] Top shape: 100 32 14 14 (627200)
I1001 19:09:22.042428  5547 net.cpp:137] Memory required for data: 595526800
I1001 19:09:22.042433  5547 layer_factory.hpp:77] Creating layer Scale25
I1001 19:09:22.042438  5547 net.cpp:84] Creating Layer Scale25
I1001 19:09:22.042439  5547 net.cpp:406] Scale25 <- Convolution25
I1001 19:09:22.042443  5547 net.cpp:367] Scale25 -> Convolution25 (in-place)
I1001 19:09:22.042469  5547 layer_factory.hpp:77] Creating layer Scale25
I1001 19:09:22.042562  5547 net.cpp:122] Setting up Scale25
I1001 19:09:22.042567  5547 net.cpp:129] Top shape: 100 32 14 14 (627200)
I1001 19:09:22.042569  5547 net.cpp:137] Memory required for data: 598035600
I1001 19:09:22.042573  5547 layer_factory.hpp:77] Creating layer M2PELU24
I1001 19:09:22.042579  5547 net.cpp:84] Creating Layer M2PELU24
I1001 19:09:22.042582  5547 net.cpp:406] M2PELU24 <- Convolution25
I1001 19:09:22.042593  5547 net.cpp:367] M2PELU24 -> Convolution25 (in-place)
I1001 19:09:22.042678  5547 net.cpp:122] Setting up M2PELU24
I1001 19:09:22.042682  5547 net.cpp:129] Top shape: 100 32 14 14 (627200)
I1001 19:09:22.042685  5547 net.cpp:137] Memory required for data: 600544400
I1001 19:09:22.042688  5547 layer_factory.hpp:77] Creating layer Convolution26
I1001 19:09:22.042695  5547 net.cpp:84] Creating Layer Convolution26
I1001 19:09:22.042697  5547 net.cpp:406] Convolution26 <- Convolution25
I1001 19:09:22.042701  5547 net.cpp:380] Convolution26 -> Convolution26
I1001 19:09:22.043728  5547 net.cpp:122] Setting up Convolution26
I1001 19:09:22.043736  5547 net.cpp:129] Top shape: 100 32 14 14 (627200)
I1001 19:09:22.043740  5547 net.cpp:137] Memory required for data: 603053200
I1001 19:09:22.043743  5547 layer_factory.hpp:77] Creating layer BatchNorm26
I1001 19:09:22.043748  5547 net.cpp:84] Creating Layer BatchNorm26
I1001 19:09:22.043751  5547 net.cpp:406] BatchNorm26 <- Convolution26
I1001 19:09:22.043756  5547 net.cpp:367] BatchNorm26 -> Convolution26 (in-place)
I1001 19:09:22.043887  5547 net.cpp:122] Setting up BatchNorm26
I1001 19:09:22.043892  5547 net.cpp:129] Top shape: 100 32 14 14 (627200)
I1001 19:09:22.043895  5547 net.cpp:137] Memory required for data: 605562000
I1001 19:09:22.043898  5547 layer_factory.hpp:77] Creating layer Scale26
I1001 19:09:22.043902  5547 net.cpp:84] Creating Layer Scale26
I1001 19:09:22.043905  5547 net.cpp:406] Scale26 <- Convolution26
I1001 19:09:22.043907  5547 net.cpp:367] Scale26 -> Convolution26 (in-place)
I1001 19:09:22.043934  5547 layer_factory.hpp:77] Creating layer Scale26
I1001 19:09:22.044010  5547 net.cpp:122] Setting up Scale26
I1001 19:09:22.044014  5547 net.cpp:129] Top shape: 100 32 14 14 (627200)
I1001 19:09:22.044016  5547 net.cpp:137] Memory required for data: 608070800
I1001 19:09:22.044020  5547 layer_factory.hpp:77] Creating layer Eltwise12
I1001 19:09:22.044024  5547 net.cpp:84] Creating Layer Eltwise12
I1001 19:09:22.044028  5547 net.cpp:406] Eltwise12 <- Eltwise11_M2PELU23_0_split_1
I1001 19:09:22.044029  5547 net.cpp:406] Eltwise12 <- Convolution26
I1001 19:09:22.044034  5547 net.cpp:380] Eltwise12 -> Eltwise12
I1001 19:09:22.044049  5547 net.cpp:122] Setting up Eltwise12
I1001 19:09:22.044051  5547 net.cpp:129] Top shape: 100 32 14 14 (627200)
I1001 19:09:22.044054  5547 net.cpp:137] Memory required for data: 610579600
I1001 19:09:22.044055  5547 layer_factory.hpp:77] Creating layer M2PELU25
I1001 19:09:22.044060  5547 net.cpp:84] Creating Layer M2PELU25
I1001 19:09:22.044064  5547 net.cpp:406] M2PELU25 <- Eltwise12
I1001 19:09:22.044066  5547 net.cpp:367] M2PELU25 -> Eltwise12 (in-place)
I1001 19:09:22.044148  5547 net.cpp:122] Setting up M2PELU25
I1001 19:09:22.044153  5547 net.cpp:129] Top shape: 100 32 14 14 (627200)
I1001 19:09:22.044155  5547 net.cpp:137] Memory required for data: 613088400
I1001 19:09:22.044159  5547 layer_factory.hpp:77] Creating layer Eltwise12_M2PELU25_0_split
I1001 19:09:22.044175  5547 net.cpp:84] Creating Layer Eltwise12_M2PELU25_0_split
I1001 19:09:22.044178  5547 net.cpp:406] Eltwise12_M2PELU25_0_split <- Eltwise12
I1001 19:09:22.044181  5547 net.cpp:380] Eltwise12_M2PELU25_0_split -> Eltwise12_M2PELU25_0_split_0
I1001 19:09:22.044189  5547 net.cpp:380] Eltwise12_M2PELU25_0_split -> Eltwise12_M2PELU25_0_split_1
I1001 19:09:22.044212  5547 net.cpp:122] Setting up Eltwise12_M2PELU25_0_split
I1001 19:09:22.044216  5547 net.cpp:129] Top shape: 100 32 14 14 (627200)
I1001 19:09:22.044219  5547 net.cpp:129] Top shape: 100 32 14 14 (627200)
I1001 19:09:22.044221  5547 net.cpp:137] Memory required for data: 618106000
I1001 19:09:22.044224  5547 layer_factory.hpp:77] Creating layer Convolution27
I1001 19:09:22.044230  5547 net.cpp:84] Creating Layer Convolution27
I1001 19:09:22.044232  5547 net.cpp:406] Convolution27 <- Eltwise12_M2PELU25_0_split_0
I1001 19:09:22.044236  5547 net.cpp:380] Convolution27 -> Convolution27
I1001 19:09:22.044940  5547 net.cpp:122] Setting up Convolution27
I1001 19:09:22.044955  5547 net.cpp:129] Top shape: 100 32 14 14 (627200)
I1001 19:09:22.044957  5547 net.cpp:137] Memory required for data: 620614800
I1001 19:09:22.044961  5547 layer_factory.hpp:77] Creating layer BatchNorm27
I1001 19:09:22.044965  5547 net.cpp:84] Creating Layer BatchNorm27
I1001 19:09:22.044968  5547 net.cpp:406] BatchNorm27 <- Convolution27
I1001 19:09:22.044973  5547 net.cpp:367] BatchNorm27 -> Convolution27 (in-place)
I1001 19:09:22.045109  5547 net.cpp:122] Setting up BatchNorm27
I1001 19:09:22.045114  5547 net.cpp:129] Top shape: 100 32 14 14 (627200)
I1001 19:09:22.045116  5547 net.cpp:137] Memory required for data: 623123600
I1001 19:09:22.045120  5547 layer_factory.hpp:77] Creating layer Scale27
I1001 19:09:22.045125  5547 net.cpp:84] Creating Layer Scale27
I1001 19:09:22.045127  5547 net.cpp:406] Scale27 <- Convolution27
I1001 19:09:22.045130  5547 net.cpp:367] Scale27 -> Convolution27 (in-place)
I1001 19:09:22.045156  5547 layer_factory.hpp:77] Creating layer Scale27
I1001 19:09:22.045231  5547 net.cpp:122] Setting up Scale27
I1001 19:09:22.045235  5547 net.cpp:129] Top shape: 100 32 14 14 (627200)
I1001 19:09:22.045238  5547 net.cpp:137] Memory required for data: 625632400
I1001 19:09:22.045241  5547 layer_factory.hpp:77] Creating layer M2PELU26
I1001 19:09:22.045245  5547 net.cpp:84] Creating Layer M2PELU26
I1001 19:09:22.045248  5547 net.cpp:406] M2PELU26 <- Convolution27
I1001 19:09:22.045251  5547 net.cpp:367] M2PELU26 -> Convolution27 (in-place)
I1001 19:09:22.045334  5547 net.cpp:122] Setting up M2PELU26
I1001 19:09:22.045338  5547 net.cpp:129] Top shape: 100 32 14 14 (627200)
I1001 19:09:22.045341  5547 net.cpp:137] Memory required for data: 628141200
I1001 19:09:22.045344  5547 layer_factory.hpp:77] Creating layer Convolution28
I1001 19:09:22.045351  5547 net.cpp:84] Creating Layer Convolution28
I1001 19:09:22.045354  5547 net.cpp:406] Convolution28 <- Convolution27
I1001 19:09:22.045357  5547 net.cpp:380] Convolution28 -> Convolution28
I1001 19:09:22.046378  5547 net.cpp:122] Setting up Convolution28
I1001 19:09:22.046386  5547 net.cpp:129] Top shape: 100 32 14 14 (627200)
I1001 19:09:22.046389  5547 net.cpp:137] Memory required for data: 630650000
I1001 19:09:22.046393  5547 layer_factory.hpp:77] Creating layer BatchNorm28
I1001 19:09:22.046399  5547 net.cpp:84] Creating Layer BatchNorm28
I1001 19:09:22.046401  5547 net.cpp:406] BatchNorm28 <- Convolution28
I1001 19:09:22.046406  5547 net.cpp:367] BatchNorm28 -> Convolution28 (in-place)
I1001 19:09:22.046546  5547 net.cpp:122] Setting up BatchNorm28
I1001 19:09:22.046551  5547 net.cpp:129] Top shape: 100 32 14 14 (627200)
I1001 19:09:22.046553  5547 net.cpp:137] Memory required for data: 633158800
I1001 19:09:22.046558  5547 layer_factory.hpp:77] Creating layer Scale28
I1001 19:09:22.046563  5547 net.cpp:84] Creating Layer Scale28
I1001 19:09:22.046566  5547 net.cpp:406] Scale28 <- Convolution28
I1001 19:09:22.046568  5547 net.cpp:367] Scale28 -> Convolution28 (in-place)
I1001 19:09:22.046596  5547 layer_factory.hpp:77] Creating layer Scale28
I1001 19:09:22.046671  5547 net.cpp:122] Setting up Scale28
I1001 19:09:22.046675  5547 net.cpp:129] Top shape: 100 32 14 14 (627200)
I1001 19:09:22.046677  5547 net.cpp:137] Memory required for data: 635667600
I1001 19:09:22.046681  5547 layer_factory.hpp:77] Creating layer Eltwise13
I1001 19:09:22.046686  5547 net.cpp:84] Creating Layer Eltwise13
I1001 19:09:22.046689  5547 net.cpp:406] Eltwise13 <- Eltwise12_M2PELU25_0_split_1
I1001 19:09:22.046692  5547 net.cpp:406] Eltwise13 <- Convolution28
I1001 19:09:22.046696  5547 net.cpp:380] Eltwise13 -> Eltwise13
I1001 19:09:22.046711  5547 net.cpp:122] Setting up Eltwise13
I1001 19:09:22.046715  5547 net.cpp:129] Top shape: 100 32 14 14 (627200)
I1001 19:09:22.046717  5547 net.cpp:137] Memory required for data: 638176400
I1001 19:09:22.046720  5547 layer_factory.hpp:77] Creating layer M2PELU27
I1001 19:09:22.046725  5547 net.cpp:84] Creating Layer M2PELU27
I1001 19:09:22.046726  5547 net.cpp:406] M2PELU27 <- Eltwise13
I1001 19:09:22.046730  5547 net.cpp:367] M2PELU27 -> Eltwise13 (in-place)
I1001 19:09:22.046821  5547 net.cpp:122] Setting up M2PELU27
I1001 19:09:22.046825  5547 net.cpp:129] Top shape: 100 32 14 14 (627200)
I1001 19:09:22.046828  5547 net.cpp:137] Memory required for data: 640685200
I1001 19:09:22.046831  5547 layer_factory.hpp:77] Creating layer Eltwise13_M2PELU27_0_split
I1001 19:09:22.046835  5547 net.cpp:84] Creating Layer Eltwise13_M2PELU27_0_split
I1001 19:09:22.046838  5547 net.cpp:406] Eltwise13_M2PELU27_0_split <- Eltwise13
I1001 19:09:22.046841  5547 net.cpp:380] Eltwise13_M2PELU27_0_split -> Eltwise13_M2PELU27_0_split_0
I1001 19:09:22.046845  5547 net.cpp:380] Eltwise13_M2PELU27_0_split -> Eltwise13_M2PELU27_0_split_1
I1001 19:09:22.046869  5547 net.cpp:122] Setting up Eltwise13_M2PELU27_0_split
I1001 19:09:22.046871  5547 net.cpp:129] Top shape: 100 32 14 14 (627200)
I1001 19:09:22.046875  5547 net.cpp:129] Top shape: 100 32 14 14 (627200)
I1001 19:09:22.046876  5547 net.cpp:137] Memory required for data: 645702800
I1001 19:09:22.046878  5547 layer_factory.hpp:77] Creating layer Convolution29
I1001 19:09:22.046885  5547 net.cpp:84] Creating Layer Convolution29
I1001 19:09:22.046887  5547 net.cpp:406] Convolution29 <- Eltwise13_M2PELU27_0_split_0
I1001 19:09:22.046891  5547 net.cpp:380] Convolution29 -> Convolution29
I1001 19:09:22.047924  5547 net.cpp:122] Setting up Convolution29
I1001 19:09:22.047932  5547 net.cpp:129] Top shape: 100 32 14 14 (627200)
I1001 19:09:22.047935  5547 net.cpp:137] Memory required for data: 648211600
I1001 19:09:22.047940  5547 layer_factory.hpp:77] Creating layer BatchNorm29
I1001 19:09:22.047945  5547 net.cpp:84] Creating Layer BatchNorm29
I1001 19:09:22.047947  5547 net.cpp:406] BatchNorm29 <- Convolution29
I1001 19:09:22.047951  5547 net.cpp:367] BatchNorm29 -> Convolution29 (in-place)
I1001 19:09:22.048087  5547 net.cpp:122] Setting up BatchNorm29
I1001 19:09:22.048092  5547 net.cpp:129] Top shape: 100 32 14 14 (627200)
I1001 19:09:22.048094  5547 net.cpp:137] Memory required for data: 650720400
I1001 19:09:22.048099  5547 layer_factory.hpp:77] Creating layer Scale29
I1001 19:09:22.048102  5547 net.cpp:84] Creating Layer Scale29
I1001 19:09:22.048105  5547 net.cpp:406] Scale29 <- Convolution29
I1001 19:09:22.048110  5547 net.cpp:367] Scale29 -> Convolution29 (in-place)
I1001 19:09:22.048135  5547 layer_factory.hpp:77] Creating layer Scale29
I1001 19:09:22.048213  5547 net.cpp:122] Setting up Scale29
I1001 19:09:22.048218  5547 net.cpp:129] Top shape: 100 32 14 14 (627200)
I1001 19:09:22.048219  5547 net.cpp:137] Memory required for data: 653229200
I1001 19:09:22.048243  5547 layer_factory.hpp:77] Creating layer M2PELU28
I1001 19:09:22.048247  5547 net.cpp:84] Creating Layer M2PELU28
I1001 19:09:22.048249  5547 net.cpp:406] M2PELU28 <- Convolution29
I1001 19:09:22.048254  5547 net.cpp:367] M2PELU28 -> Convolution29 (in-place)
I1001 19:09:22.048339  5547 net.cpp:122] Setting up M2PELU28
I1001 19:09:22.048343  5547 net.cpp:129] Top shape: 100 32 14 14 (627200)
I1001 19:09:22.048346  5547 net.cpp:137] Memory required for data: 655738000
I1001 19:09:22.048349  5547 layer_factory.hpp:77] Creating layer Convolution30
I1001 19:09:22.048355  5547 net.cpp:84] Creating Layer Convolution30
I1001 19:09:22.048358  5547 net.cpp:406] Convolution30 <- Convolution29
I1001 19:09:22.048362  5547 net.cpp:380] Convolution30 -> Convolution30
I1001 19:09:22.049402  5547 net.cpp:122] Setting up Convolution30
I1001 19:09:22.049412  5547 net.cpp:129] Top shape: 100 32 14 14 (627200)
I1001 19:09:22.049414  5547 net.cpp:137] Memory required for data: 658246800
I1001 19:09:22.049418  5547 layer_factory.hpp:77] Creating layer BatchNorm30
I1001 19:09:22.049424  5547 net.cpp:84] Creating Layer BatchNorm30
I1001 19:09:22.049427  5547 net.cpp:406] BatchNorm30 <- Convolution30
I1001 19:09:22.049432  5547 net.cpp:367] BatchNorm30 -> Convolution30 (in-place)
I1001 19:09:22.049567  5547 net.cpp:122] Setting up BatchNorm30
I1001 19:09:22.049571  5547 net.cpp:129] Top shape: 100 32 14 14 (627200)
I1001 19:09:22.049574  5547 net.cpp:137] Memory required for data: 660755600
I1001 19:09:22.049584  5547 layer_factory.hpp:77] Creating layer Scale30
I1001 19:09:22.049588  5547 net.cpp:84] Creating Layer Scale30
I1001 19:09:22.049592  5547 net.cpp:406] Scale30 <- Convolution30
I1001 19:09:22.049594  5547 net.cpp:367] Scale30 -> Convolution30 (in-place)
I1001 19:09:22.049623  5547 layer_factory.hpp:77] Creating layer Scale30
I1001 19:09:22.049702  5547 net.cpp:122] Setting up Scale30
I1001 19:09:22.049706  5547 net.cpp:129] Top shape: 100 32 14 14 (627200)
I1001 19:09:22.049710  5547 net.cpp:137] Memory required for data: 663264400
I1001 19:09:22.049712  5547 layer_factory.hpp:77] Creating layer Eltwise14
I1001 19:09:22.049716  5547 net.cpp:84] Creating Layer Eltwise14
I1001 19:09:22.049720  5547 net.cpp:406] Eltwise14 <- Eltwise13_M2PELU27_0_split_1
I1001 19:09:22.049721  5547 net.cpp:406] Eltwise14 <- Convolution30
I1001 19:09:22.049726  5547 net.cpp:380] Eltwise14 -> Eltwise14
I1001 19:09:22.049741  5547 net.cpp:122] Setting up Eltwise14
I1001 19:09:22.049744  5547 net.cpp:129] Top shape: 100 32 14 14 (627200)
I1001 19:09:22.049746  5547 net.cpp:137] Memory required for data: 665773200
I1001 19:09:22.049748  5547 layer_factory.hpp:77] Creating layer M2PELU29
I1001 19:09:22.049753  5547 net.cpp:84] Creating Layer M2PELU29
I1001 19:09:22.049756  5547 net.cpp:406] M2PELU29 <- Eltwise14
I1001 19:09:22.049758  5547 net.cpp:367] M2PELU29 -> Eltwise14 (in-place)
I1001 19:09:22.049842  5547 net.cpp:122] Setting up M2PELU29
I1001 19:09:22.049847  5547 net.cpp:129] Top shape: 100 32 14 14 (627200)
I1001 19:09:22.049849  5547 net.cpp:137] Memory required for data: 668282000
I1001 19:09:22.049852  5547 layer_factory.hpp:77] Creating layer Eltwise14_M2PELU29_0_split
I1001 19:09:22.049856  5547 net.cpp:84] Creating Layer Eltwise14_M2PELU29_0_split
I1001 19:09:22.049859  5547 net.cpp:406] Eltwise14_M2PELU29_0_split <- Eltwise14
I1001 19:09:22.049861  5547 net.cpp:380] Eltwise14_M2PELU29_0_split -> Eltwise14_M2PELU29_0_split_0
I1001 19:09:22.049866  5547 net.cpp:380] Eltwise14_M2PELU29_0_split -> Eltwise14_M2PELU29_0_split_1
I1001 19:09:22.049890  5547 net.cpp:122] Setting up Eltwise14_M2PELU29_0_split
I1001 19:09:22.049892  5547 net.cpp:129] Top shape: 100 32 14 14 (627200)
I1001 19:09:22.049896  5547 net.cpp:129] Top shape: 100 32 14 14 (627200)
I1001 19:09:22.049897  5547 net.cpp:137] Memory required for data: 673299600
I1001 19:09:22.049899  5547 layer_factory.hpp:77] Creating layer Convolution31
I1001 19:09:22.049906  5547 net.cpp:84] Creating Layer Convolution31
I1001 19:09:22.049908  5547 net.cpp:406] Convolution31 <- Eltwise14_M2PELU29_0_split_0
I1001 19:09:22.049912  5547 net.cpp:380] Convolution31 -> Convolution31
I1001 19:09:22.050947  5547 net.cpp:122] Setting up Convolution31
I1001 19:09:22.050956  5547 net.cpp:129] Top shape: 100 32 14 14 (627200)
I1001 19:09:22.050958  5547 net.cpp:137] Memory required for data: 675808400
I1001 19:09:22.050963  5547 layer_factory.hpp:77] Creating layer BatchNorm31
I1001 19:09:22.050968  5547 net.cpp:84] Creating Layer BatchNorm31
I1001 19:09:22.050971  5547 net.cpp:406] BatchNorm31 <- Convolution31
I1001 19:09:22.050976  5547 net.cpp:367] BatchNorm31 -> Convolution31 (in-place)
I1001 19:09:22.051110  5547 net.cpp:122] Setting up BatchNorm31
I1001 19:09:22.051115  5547 net.cpp:129] Top shape: 100 32 14 14 (627200)
I1001 19:09:22.051116  5547 net.cpp:137] Memory required for data: 678317200
I1001 19:09:22.051120  5547 layer_factory.hpp:77] Creating layer Scale31
I1001 19:09:22.051126  5547 net.cpp:84] Creating Layer Scale31
I1001 19:09:22.051128  5547 net.cpp:406] Scale31 <- Convolution31
I1001 19:09:22.051131  5547 net.cpp:367] Scale31 -> Convolution31 (in-place)
I1001 19:09:22.051157  5547 layer_factory.hpp:77] Creating layer Scale31
I1001 19:09:22.051236  5547 net.cpp:122] Setting up Scale31
I1001 19:09:22.051240  5547 net.cpp:129] Top shape: 100 32 14 14 (627200)
I1001 19:09:22.051242  5547 net.cpp:137] Memory required for data: 680826000
I1001 19:09:22.051246  5547 layer_factory.hpp:77] Creating layer M2PELU30
I1001 19:09:22.051259  5547 net.cpp:84] Creating Layer M2PELU30
I1001 19:09:22.051261  5547 net.cpp:406] M2PELU30 <- Convolution31
I1001 19:09:22.051265  5547 net.cpp:367] M2PELU30 -> Convolution31 (in-place)
I1001 19:09:22.051349  5547 net.cpp:122] Setting up M2PELU30
I1001 19:09:22.051354  5547 net.cpp:129] Top shape: 100 32 14 14 (627200)
I1001 19:09:22.051357  5547 net.cpp:137] Memory required for data: 683334800
I1001 19:09:22.051360  5547 layer_factory.hpp:77] Creating layer Convolution32
I1001 19:09:22.051367  5547 net.cpp:84] Creating Layer Convolution32
I1001 19:09:22.051369  5547 net.cpp:406] Convolution32 <- Convolution31
I1001 19:09:22.051373  5547 net.cpp:380] Convolution32 -> Convolution32
I1001 19:09:22.052403  5547 net.cpp:122] Setting up Convolution32
I1001 19:09:22.052412  5547 net.cpp:129] Top shape: 100 32 14 14 (627200)
I1001 19:09:22.052414  5547 net.cpp:137] Memory required for data: 685843600
I1001 19:09:22.052419  5547 layer_factory.hpp:77] Creating layer BatchNorm32
I1001 19:09:22.052424  5547 net.cpp:84] Creating Layer BatchNorm32
I1001 19:09:22.052426  5547 net.cpp:406] BatchNorm32 <- Convolution32
I1001 19:09:22.052431  5547 net.cpp:367] BatchNorm32 -> Convolution32 (in-place)
I1001 19:09:22.052565  5547 net.cpp:122] Setting up BatchNorm32
I1001 19:09:22.052570  5547 net.cpp:129] Top shape: 100 32 14 14 (627200)
I1001 19:09:22.052572  5547 net.cpp:137] Memory required for data: 688352400
I1001 19:09:22.052577  5547 layer_factory.hpp:77] Creating layer Scale32
I1001 19:09:22.052582  5547 net.cpp:84] Creating Layer Scale32
I1001 19:09:22.052583  5547 net.cpp:406] Scale32 <- Convolution32
I1001 19:09:22.052587  5547 net.cpp:367] Scale32 -> Convolution32 (in-place)
I1001 19:09:22.052613  5547 layer_factory.hpp:77] Creating layer Scale32
I1001 19:09:22.052690  5547 net.cpp:122] Setting up Scale32
I1001 19:09:22.052693  5547 net.cpp:129] Top shape: 100 32 14 14 (627200)
I1001 19:09:22.052695  5547 net.cpp:137] Memory required for data: 690861200
I1001 19:09:22.052698  5547 layer_factory.hpp:77] Creating layer Eltwise15
I1001 19:09:22.052702  5547 net.cpp:84] Creating Layer Eltwise15
I1001 19:09:22.052706  5547 net.cpp:406] Eltwise15 <- Eltwise14_M2PELU29_0_split_1
I1001 19:09:22.052707  5547 net.cpp:406] Eltwise15 <- Convolution32
I1001 19:09:22.052711  5547 net.cpp:380] Eltwise15 -> Eltwise15
I1001 19:09:22.052726  5547 net.cpp:122] Setting up Eltwise15
I1001 19:09:22.052731  5547 net.cpp:129] Top shape: 100 32 14 14 (627200)
I1001 19:09:22.052733  5547 net.cpp:137] Memory required for data: 693370000
I1001 19:09:22.052736  5547 layer_factory.hpp:77] Creating layer M2PELU31
I1001 19:09:22.052739  5547 net.cpp:84] Creating Layer M2PELU31
I1001 19:09:22.052742  5547 net.cpp:406] M2PELU31 <- Eltwise15
I1001 19:09:22.052745  5547 net.cpp:367] M2PELU31 -> Eltwise15 (in-place)
I1001 19:09:22.052829  5547 net.cpp:122] Setting up M2PELU31
I1001 19:09:22.052832  5547 net.cpp:129] Top shape: 100 32 14 14 (627200)
I1001 19:09:22.052834  5547 net.cpp:137] Memory required for data: 695878800
I1001 19:09:22.052839  5547 layer_factory.hpp:77] Creating layer Eltwise15_M2PELU31_0_split
I1001 19:09:22.052841  5547 net.cpp:84] Creating Layer Eltwise15_M2PELU31_0_split
I1001 19:09:22.052844  5547 net.cpp:406] Eltwise15_M2PELU31_0_split <- Eltwise15
I1001 19:09:22.052847  5547 net.cpp:380] Eltwise15_M2PELU31_0_split -> Eltwise15_M2PELU31_0_split_0
I1001 19:09:22.052851  5547 net.cpp:380] Eltwise15_M2PELU31_0_split -> Eltwise15_M2PELU31_0_split_1
I1001 19:09:22.052875  5547 net.cpp:122] Setting up Eltwise15_M2PELU31_0_split
I1001 19:09:22.052878  5547 net.cpp:129] Top shape: 100 32 14 14 (627200)
I1001 19:09:22.052881  5547 net.cpp:129] Top shape: 100 32 14 14 (627200)
I1001 19:09:22.052883  5547 net.cpp:137] Memory required for data: 700896400
I1001 19:09:22.052886  5547 layer_factory.hpp:77] Creating layer Convolution33
I1001 19:09:22.052891  5547 net.cpp:84] Creating Layer Convolution33
I1001 19:09:22.052894  5547 net.cpp:406] Convolution33 <- Eltwise15_M2PELU31_0_split_0
I1001 19:09:22.052898  5547 net.cpp:380] Convolution33 -> Convolution33
I1001 19:09:22.054252  5547 net.cpp:122] Setting up Convolution33
I1001 19:09:22.054260  5547 net.cpp:129] Top shape: 100 32 14 14 (627200)
I1001 19:09:22.054263  5547 net.cpp:137] Memory required for data: 703405200
I1001 19:09:22.054268  5547 layer_factory.hpp:77] Creating layer BatchNorm33
I1001 19:09:22.054273  5547 net.cpp:84] Creating Layer BatchNorm33
I1001 19:09:22.054275  5547 net.cpp:406] BatchNorm33 <- Convolution33
I1001 19:09:22.054280  5547 net.cpp:367] BatchNorm33 -> Convolution33 (in-place)
I1001 19:09:22.054420  5547 net.cpp:122] Setting up BatchNorm33
I1001 19:09:22.054425  5547 net.cpp:129] Top shape: 100 32 14 14 (627200)
I1001 19:09:22.054427  5547 net.cpp:137] Memory required for data: 705914000
I1001 19:09:22.054431  5547 layer_factory.hpp:77] Creating layer Scale33
I1001 19:09:22.054435  5547 net.cpp:84] Creating Layer Scale33
I1001 19:09:22.054438  5547 net.cpp:406] Scale33 <- Convolution33
I1001 19:09:22.054441  5547 net.cpp:367] Scale33 -> Convolution33 (in-place)
I1001 19:09:22.054467  5547 layer_factory.hpp:77] Creating layer Scale33
I1001 19:09:22.054579  5547 net.cpp:122] Setting up Scale33
I1001 19:09:22.054584  5547 net.cpp:129] Top shape: 100 32 14 14 (627200)
I1001 19:09:22.054585  5547 net.cpp:137] Memory required for data: 708422800
I1001 19:09:22.054589  5547 layer_factory.hpp:77] Creating layer M2PELU32
I1001 19:09:22.054595  5547 net.cpp:84] Creating Layer M2PELU32
I1001 19:09:22.054597  5547 net.cpp:406] M2PELU32 <- Convolution33
I1001 19:09:22.054601  5547 net.cpp:367] M2PELU32 -> Convolution33 (in-place)
I1001 19:09:22.054694  5547 net.cpp:122] Setting up M2PELU32
I1001 19:09:22.054699  5547 net.cpp:129] Top shape: 100 32 14 14 (627200)
I1001 19:09:22.054702  5547 net.cpp:137] Memory required for data: 710931600
I1001 19:09:22.054705  5547 layer_factory.hpp:77] Creating layer Convolution34
I1001 19:09:22.054713  5547 net.cpp:84] Creating Layer Convolution34
I1001 19:09:22.054715  5547 net.cpp:406] Convolution34 <- Convolution33
I1001 19:09:22.054719  5547 net.cpp:380] Convolution34 -> Convolution34
I1001 19:09:22.055765  5547 net.cpp:122] Setting up Convolution34
I1001 19:09:22.055773  5547 net.cpp:129] Top shape: 100 32 14 14 (627200)
I1001 19:09:22.055776  5547 net.cpp:137] Memory required for data: 713440400
I1001 19:09:22.055780  5547 layer_factory.hpp:77] Creating layer BatchNorm34
I1001 19:09:22.055786  5547 net.cpp:84] Creating Layer BatchNorm34
I1001 19:09:22.055789  5547 net.cpp:406] BatchNorm34 <- Convolution34
I1001 19:09:22.055793  5547 net.cpp:367] BatchNorm34 -> Convolution34 (in-place)
I1001 19:09:22.055930  5547 net.cpp:122] Setting up BatchNorm34
I1001 19:09:22.055934  5547 net.cpp:129] Top shape: 100 32 14 14 (627200)
I1001 19:09:22.055936  5547 net.cpp:137] Memory required for data: 715949200
I1001 19:09:22.055941  5547 layer_factory.hpp:77] Creating layer Scale34
I1001 19:09:22.055945  5547 net.cpp:84] Creating Layer Scale34
I1001 19:09:22.055948  5547 net.cpp:406] Scale34 <- Convolution34
I1001 19:09:22.055950  5547 net.cpp:367] Scale34 -> Convolution34 (in-place)
I1001 19:09:22.055977  5547 layer_factory.hpp:77] Creating layer Scale34
I1001 19:09:22.056053  5547 net.cpp:122] Setting up Scale34
I1001 19:09:22.056058  5547 net.cpp:129] Top shape: 100 32 14 14 (627200)
I1001 19:09:22.056061  5547 net.cpp:137] Memory required for data: 718458000
I1001 19:09:22.056064  5547 layer_factory.hpp:77] Creating layer Eltwise16
I1001 19:09:22.056068  5547 net.cpp:84] Creating Layer Eltwise16
I1001 19:09:22.056071  5547 net.cpp:406] Eltwise16 <- Eltwise15_M2PELU31_0_split_1
I1001 19:09:22.056074  5547 net.cpp:406] Eltwise16 <- Convolution34
I1001 19:09:22.056077  5547 net.cpp:380] Eltwise16 -> Eltwise16
I1001 19:09:22.056092  5547 net.cpp:122] Setting up Eltwise16
I1001 19:09:22.056097  5547 net.cpp:129] Top shape: 100 32 14 14 (627200)
I1001 19:09:22.056098  5547 net.cpp:137] Memory required for data: 720966800
I1001 19:09:22.056100  5547 layer_factory.hpp:77] Creating layer M2PELU33
I1001 19:09:22.056105  5547 net.cpp:84] Creating Layer M2PELU33
I1001 19:09:22.056114  5547 net.cpp:406] M2PELU33 <- Eltwise16
I1001 19:09:22.056118  5547 net.cpp:367] M2PELU33 -> Eltwise16 (in-place)
I1001 19:09:22.056202  5547 net.cpp:122] Setting up M2PELU33
I1001 19:09:22.056207  5547 net.cpp:129] Top shape: 100 32 14 14 (627200)
I1001 19:09:22.056210  5547 net.cpp:137] Memory required for data: 723475600
I1001 19:09:22.056213  5547 layer_factory.hpp:77] Creating layer Eltwise16_M2PELU33_0_split
I1001 19:09:22.056217  5547 net.cpp:84] Creating Layer Eltwise16_M2PELU33_0_split
I1001 19:09:22.056219  5547 net.cpp:406] Eltwise16_M2PELU33_0_split <- Eltwise16
I1001 19:09:22.056222  5547 net.cpp:380] Eltwise16_M2PELU33_0_split -> Eltwise16_M2PELU33_0_split_0
I1001 19:09:22.056226  5547 net.cpp:380] Eltwise16_M2PELU33_0_split -> Eltwise16_M2PELU33_0_split_1
I1001 19:09:22.056249  5547 net.cpp:122] Setting up Eltwise16_M2PELU33_0_split
I1001 19:09:22.056253  5547 net.cpp:129] Top shape: 100 32 14 14 (627200)
I1001 19:09:22.056257  5547 net.cpp:129] Top shape: 100 32 14 14 (627200)
I1001 19:09:22.056258  5547 net.cpp:137] Memory required for data: 728493200
I1001 19:09:22.056260  5547 layer_factory.hpp:77] Creating layer Convolution35
I1001 19:09:22.056267  5547 net.cpp:84] Creating Layer Convolution35
I1001 19:09:22.056269  5547 net.cpp:406] Convolution35 <- Eltwise16_M2PELU33_0_split_0
I1001 19:09:22.056273  5547 net.cpp:380] Convolution35 -> Convolution35
I1001 19:09:22.057309  5547 net.cpp:122] Setting up Convolution35
I1001 19:09:22.057318  5547 net.cpp:129] Top shape: 100 32 14 14 (627200)
I1001 19:09:22.057322  5547 net.cpp:137] Memory required for data: 731002000
I1001 19:09:22.057325  5547 layer_factory.hpp:77] Creating layer BatchNorm35
I1001 19:09:22.057330  5547 net.cpp:84] Creating Layer BatchNorm35
I1001 19:09:22.057333  5547 net.cpp:406] BatchNorm35 <- Convolution35
I1001 19:09:22.057337  5547 net.cpp:367] BatchNorm35 -> Convolution35 (in-place)
I1001 19:09:22.057472  5547 net.cpp:122] Setting up BatchNorm35
I1001 19:09:22.057477  5547 net.cpp:129] Top shape: 100 32 14 14 (627200)
I1001 19:09:22.057479  5547 net.cpp:137] Memory required for data: 733510800
I1001 19:09:22.057483  5547 layer_factory.hpp:77] Creating layer Scale35
I1001 19:09:22.057488  5547 net.cpp:84] Creating Layer Scale35
I1001 19:09:22.057490  5547 net.cpp:406] Scale35 <- Convolution35
I1001 19:09:22.057493  5547 net.cpp:367] Scale35 -> Convolution35 (in-place)
I1001 19:09:22.057519  5547 layer_factory.hpp:77] Creating layer Scale35
I1001 19:09:22.057597  5547 net.cpp:122] Setting up Scale35
I1001 19:09:22.057601  5547 net.cpp:129] Top shape: 100 32 14 14 (627200)
I1001 19:09:22.057605  5547 net.cpp:137] Memory required for data: 736019600
I1001 19:09:22.057607  5547 layer_factory.hpp:77] Creating layer M2PELU34
I1001 19:09:22.057612  5547 net.cpp:84] Creating Layer M2PELU34
I1001 19:09:22.057615  5547 net.cpp:406] M2PELU34 <- Convolution35
I1001 19:09:22.057620  5547 net.cpp:367] M2PELU34 -> Convolution35 (in-place)
I1001 19:09:22.057701  5547 net.cpp:122] Setting up M2PELU34
I1001 19:09:22.057705  5547 net.cpp:129] Top shape: 100 32 14 14 (627200)
I1001 19:09:22.057708  5547 net.cpp:137] Memory required for data: 738528400
I1001 19:09:22.057710  5547 layer_factory.hpp:77] Creating layer Convolution36
I1001 19:09:22.057718  5547 net.cpp:84] Creating Layer Convolution36
I1001 19:09:22.057719  5547 net.cpp:406] Convolution36 <- Convolution35
I1001 19:09:22.057723  5547 net.cpp:380] Convolution36 -> Convolution36
I1001 19:09:22.058765  5547 net.cpp:122] Setting up Convolution36
I1001 19:09:22.058775  5547 net.cpp:129] Top shape: 100 32 14 14 (627200)
I1001 19:09:22.058778  5547 net.cpp:137] Memory required for data: 741037200
I1001 19:09:22.058782  5547 layer_factory.hpp:77] Creating layer BatchNorm36
I1001 19:09:22.058787  5547 net.cpp:84] Creating Layer BatchNorm36
I1001 19:09:22.058789  5547 net.cpp:406] BatchNorm36 <- Convolution36
I1001 19:09:22.058794  5547 net.cpp:367] BatchNorm36 -> Convolution36 (in-place)
I1001 19:09:22.058929  5547 net.cpp:122] Setting up BatchNorm36
I1001 19:09:22.058933  5547 net.cpp:129] Top shape: 100 32 14 14 (627200)
I1001 19:09:22.058943  5547 net.cpp:137] Memory required for data: 743546000
I1001 19:09:22.058948  5547 layer_factory.hpp:77] Creating layer Scale36
I1001 19:09:22.058951  5547 net.cpp:84] Creating Layer Scale36
I1001 19:09:22.058954  5547 net.cpp:406] Scale36 <- Convolution36
I1001 19:09:22.058957  5547 net.cpp:367] Scale36 -> Convolution36 (in-place)
I1001 19:09:22.058985  5547 layer_factory.hpp:77] Creating layer Scale36
I1001 19:09:22.059062  5547 net.cpp:122] Setting up Scale36
I1001 19:09:22.059067  5547 net.cpp:129] Top shape: 100 32 14 14 (627200)
I1001 19:09:22.059068  5547 net.cpp:137] Memory required for data: 746054800
I1001 19:09:22.059072  5547 layer_factory.hpp:77] Creating layer Eltwise17
I1001 19:09:22.059077  5547 net.cpp:84] Creating Layer Eltwise17
I1001 19:09:22.059079  5547 net.cpp:406] Eltwise17 <- Eltwise16_M2PELU33_0_split_1
I1001 19:09:22.059082  5547 net.cpp:406] Eltwise17 <- Convolution36
I1001 19:09:22.059085  5547 net.cpp:380] Eltwise17 -> Eltwise17
I1001 19:09:22.059100  5547 net.cpp:122] Setting up Eltwise17
I1001 19:09:22.059104  5547 net.cpp:129] Top shape: 100 32 14 14 (627200)
I1001 19:09:22.059106  5547 net.cpp:137] Memory required for data: 748563600
I1001 19:09:22.059108  5547 layer_factory.hpp:77] Creating layer M2PELU35
I1001 19:09:22.059113  5547 net.cpp:84] Creating Layer M2PELU35
I1001 19:09:22.059116  5547 net.cpp:406] M2PELU35 <- Eltwise17
I1001 19:09:22.059119  5547 net.cpp:367] M2PELU35 -> Eltwise17 (in-place)
I1001 19:09:22.059204  5547 net.cpp:122] Setting up M2PELU35
I1001 19:09:22.059208  5547 net.cpp:129] Top shape: 100 32 14 14 (627200)
I1001 19:09:22.059211  5547 net.cpp:137] Memory required for data: 751072400
I1001 19:09:22.059214  5547 layer_factory.hpp:77] Creating layer Eltwise17_M2PELU35_0_split
I1001 19:09:22.059218  5547 net.cpp:84] Creating Layer Eltwise17_M2PELU35_0_split
I1001 19:09:22.059221  5547 net.cpp:406] Eltwise17_M2PELU35_0_split <- Eltwise17
I1001 19:09:22.059223  5547 net.cpp:380] Eltwise17_M2PELU35_0_split -> Eltwise17_M2PELU35_0_split_0
I1001 19:09:22.059227  5547 net.cpp:380] Eltwise17_M2PELU35_0_split -> Eltwise17_M2PELU35_0_split_1
I1001 19:09:22.059252  5547 net.cpp:122] Setting up Eltwise17_M2PELU35_0_split
I1001 19:09:22.059254  5547 net.cpp:129] Top shape: 100 32 14 14 (627200)
I1001 19:09:22.059257  5547 net.cpp:129] Top shape: 100 32 14 14 (627200)
I1001 19:09:22.059259  5547 net.cpp:137] Memory required for data: 756090000
I1001 19:09:22.059262  5547 layer_factory.hpp:77] Creating layer Convolution37
I1001 19:09:22.059267  5547 net.cpp:84] Creating Layer Convolution37
I1001 19:09:22.059270  5547 net.cpp:406] Convolution37 <- Eltwise17_M2PELU35_0_split_0
I1001 19:09:22.059274  5547 net.cpp:380] Convolution37 -> Convolution37
I1001 19:09:22.059989  5547 net.cpp:122] Setting up Convolution37
I1001 19:09:22.059998  5547 net.cpp:129] Top shape: 100 32 14 14 (627200)
I1001 19:09:22.059999  5547 net.cpp:137] Memory required for data: 758598800
I1001 19:09:22.060003  5547 layer_factory.hpp:77] Creating layer BatchNorm37
I1001 19:09:22.060009  5547 net.cpp:84] Creating Layer BatchNorm37
I1001 19:09:22.060011  5547 net.cpp:406] BatchNorm37 <- Convolution37
I1001 19:09:22.060014  5547 net.cpp:367] BatchNorm37 -> Convolution37 (in-place)
I1001 19:09:22.060149  5547 net.cpp:122] Setting up BatchNorm37
I1001 19:09:22.060153  5547 net.cpp:129] Top shape: 100 32 14 14 (627200)
I1001 19:09:22.060156  5547 net.cpp:137] Memory required for data: 761107600
I1001 19:09:22.060160  5547 layer_factory.hpp:77] Creating layer Scale37
I1001 19:09:22.060164  5547 net.cpp:84] Creating Layer Scale37
I1001 19:09:22.060166  5547 net.cpp:406] Scale37 <- Convolution37
I1001 19:09:22.060169  5547 net.cpp:367] Scale37 -> Convolution37 (in-place)
I1001 19:09:22.060195  5547 layer_factory.hpp:77] Creating layer Scale37
I1001 19:09:22.060271  5547 net.cpp:122] Setting up Scale37
I1001 19:09:22.060276  5547 net.cpp:129] Top shape: 100 32 14 14 (627200)
I1001 19:09:22.060277  5547 net.cpp:137] Memory required for data: 763616400
I1001 19:09:22.060286  5547 layer_factory.hpp:77] Creating layer M2PELU36
I1001 19:09:22.060292  5547 net.cpp:84] Creating Layer M2PELU36
I1001 19:09:22.060294  5547 net.cpp:406] M2PELU36 <- Convolution37
I1001 19:09:22.060298  5547 net.cpp:367] M2PELU36 -> Convolution37 (in-place)
I1001 19:09:22.060384  5547 net.cpp:122] Setting up M2PELU36
I1001 19:09:22.060387  5547 net.cpp:129] Top shape: 100 32 14 14 (627200)
I1001 19:09:22.060389  5547 net.cpp:137] Memory required for data: 766125200
I1001 19:09:22.060394  5547 layer_factory.hpp:77] Creating layer Convolution38
I1001 19:09:22.060401  5547 net.cpp:84] Creating Layer Convolution38
I1001 19:09:22.060405  5547 net.cpp:406] Convolution38 <- Convolution37
I1001 19:09:22.060408  5547 net.cpp:380] Convolution38 -> Convolution38
I1001 19:09:22.061463  5547 net.cpp:122] Setting up Convolution38
I1001 19:09:22.061471  5547 net.cpp:129] Top shape: 100 32 14 14 (627200)
I1001 19:09:22.061475  5547 net.cpp:137] Memory required for data: 768634000
I1001 19:09:22.061478  5547 layer_factory.hpp:77] Creating layer BatchNorm38
I1001 19:09:22.061483  5547 net.cpp:84] Creating Layer BatchNorm38
I1001 19:09:22.061486  5547 net.cpp:406] BatchNorm38 <- Convolution38
I1001 19:09:22.061491  5547 net.cpp:367] BatchNorm38 -> Convolution38 (in-place)
I1001 19:09:22.061626  5547 net.cpp:122] Setting up BatchNorm38
I1001 19:09:22.061630  5547 net.cpp:129] Top shape: 100 32 14 14 (627200)
I1001 19:09:22.061632  5547 net.cpp:137] Memory required for data: 771142800
I1001 19:09:22.061637  5547 layer_factory.hpp:77] Creating layer Scale38
I1001 19:09:22.061640  5547 net.cpp:84] Creating Layer Scale38
I1001 19:09:22.061643  5547 net.cpp:406] Scale38 <- Convolution38
I1001 19:09:22.061646  5547 net.cpp:367] Scale38 -> Convolution38 (in-place)
I1001 19:09:22.061672  5547 layer_factory.hpp:77] Creating layer Scale38
I1001 19:09:22.061749  5547 net.cpp:122] Setting up Scale38
I1001 19:09:22.061753  5547 net.cpp:129] Top shape: 100 32 14 14 (627200)
I1001 19:09:22.061755  5547 net.cpp:137] Memory required for data: 773651600
I1001 19:09:22.061758  5547 layer_factory.hpp:77] Creating layer Eltwise18
I1001 19:09:22.061763  5547 net.cpp:84] Creating Layer Eltwise18
I1001 19:09:22.061765  5547 net.cpp:406] Eltwise18 <- Eltwise17_M2PELU35_0_split_1
I1001 19:09:22.061767  5547 net.cpp:406] Eltwise18 <- Convolution38
I1001 19:09:22.061771  5547 net.cpp:380] Eltwise18 -> Eltwise18
I1001 19:09:22.061787  5547 net.cpp:122] Setting up Eltwise18
I1001 19:09:22.061791  5547 net.cpp:129] Top shape: 100 32 14 14 (627200)
I1001 19:09:22.061794  5547 net.cpp:137] Memory required for data: 776160400
I1001 19:09:22.061795  5547 layer_factory.hpp:77] Creating layer M2PELU37
I1001 19:09:22.061800  5547 net.cpp:84] Creating Layer M2PELU37
I1001 19:09:22.061801  5547 net.cpp:406] M2PELU37 <- Eltwise18
I1001 19:09:22.061805  5547 net.cpp:367] M2PELU37 -> Eltwise18 (in-place)
I1001 19:09:22.061890  5547 net.cpp:122] Setting up M2PELU37
I1001 19:09:22.061894  5547 net.cpp:129] Top shape: 100 32 14 14 (627200)
I1001 19:09:22.061897  5547 net.cpp:137] Memory required for data: 778669200
I1001 19:09:22.061899  5547 layer_factory.hpp:77] Creating layer Eltwise18_M2PELU37_0_split
I1001 19:09:22.061903  5547 net.cpp:84] Creating Layer Eltwise18_M2PELU37_0_split
I1001 19:09:22.061905  5547 net.cpp:406] Eltwise18_M2PELU37_0_split <- Eltwise18
I1001 19:09:22.061909  5547 net.cpp:380] Eltwise18_M2PELU37_0_split -> Eltwise18_M2PELU37_0_split_0
I1001 19:09:22.061913  5547 net.cpp:380] Eltwise18_M2PELU37_0_split -> Eltwise18_M2PELU37_0_split_1
I1001 19:09:22.061936  5547 net.cpp:122] Setting up Eltwise18_M2PELU37_0_split
I1001 19:09:22.061940  5547 net.cpp:129] Top shape: 100 32 14 14 (627200)
I1001 19:09:22.061944  5547 net.cpp:129] Top shape: 100 32 14 14 (627200)
I1001 19:09:22.061945  5547 net.cpp:137] Memory required for data: 783686800
I1001 19:09:22.061947  5547 layer_factory.hpp:77] Creating layer Convolution39
I1001 19:09:22.061952  5547 net.cpp:84] Creating Layer Convolution39
I1001 19:09:22.061955  5547 net.cpp:406] Convolution39 <- Eltwise18_M2PELU37_0_split_0
I1001 19:09:22.061967  5547 net.cpp:380] Convolution39 -> Convolution39
I1001 19:09:22.062862  5547 net.cpp:122] Setting up Convolution39
I1001 19:09:22.062870  5547 net.cpp:129] Top shape: 100 64 7 7 (313600)
I1001 19:09:22.062873  5547 net.cpp:137] Memory required for data: 784941200
I1001 19:09:22.062878  5547 layer_factory.hpp:77] Creating layer BatchNorm39
I1001 19:09:22.062883  5547 net.cpp:84] Creating Layer BatchNorm39
I1001 19:09:22.062886  5547 net.cpp:406] BatchNorm39 <- Convolution39
I1001 19:09:22.062889  5547 net.cpp:367] BatchNorm39 -> Convolution39 (in-place)
I1001 19:09:22.063024  5547 net.cpp:122] Setting up BatchNorm39
I1001 19:09:22.063030  5547 net.cpp:129] Top shape: 100 64 7 7 (313600)
I1001 19:09:22.063031  5547 net.cpp:137] Memory required for data: 786195600
I1001 19:09:22.063035  5547 layer_factory.hpp:77] Creating layer Scale39
I1001 19:09:22.063040  5547 net.cpp:84] Creating Layer Scale39
I1001 19:09:22.063042  5547 net.cpp:406] Scale39 <- Convolution39
I1001 19:09:22.063045  5547 net.cpp:367] Scale39 -> Convolution39 (in-place)
I1001 19:09:22.063071  5547 layer_factory.hpp:77] Creating layer Scale39
I1001 19:09:22.063148  5547 net.cpp:122] Setting up Scale39
I1001 19:09:22.063153  5547 net.cpp:129] Top shape: 100 64 7 7 (313600)
I1001 19:09:22.063154  5547 net.cpp:137] Memory required for data: 787450000
I1001 19:09:22.063158  5547 layer_factory.hpp:77] Creating layer Convolution40
I1001 19:09:22.063164  5547 net.cpp:84] Creating Layer Convolution40
I1001 19:09:22.063168  5547 net.cpp:406] Convolution40 <- Eltwise18_M2PELU37_0_split_1
I1001 19:09:22.063171  5547 net.cpp:380] Convolution40 -> Convolution40
I1001 19:09:22.064927  5547 net.cpp:122] Setting up Convolution40
I1001 19:09:22.064936  5547 net.cpp:129] Top shape: 100 64 7 7 (313600)
I1001 19:09:22.064939  5547 net.cpp:137] Memory required for data: 788704400
I1001 19:09:22.064944  5547 layer_factory.hpp:77] Creating layer BatchNorm40
I1001 19:09:22.064949  5547 net.cpp:84] Creating Layer BatchNorm40
I1001 19:09:22.064951  5547 net.cpp:406] BatchNorm40 <- Convolution40
I1001 19:09:22.064955  5547 net.cpp:367] BatchNorm40 -> Convolution40 (in-place)
I1001 19:09:22.065089  5547 net.cpp:122] Setting up BatchNorm40
I1001 19:09:22.065094  5547 net.cpp:129] Top shape: 100 64 7 7 (313600)
I1001 19:09:22.065096  5547 net.cpp:137] Memory required for data: 789958800
I1001 19:09:22.065101  5547 layer_factory.hpp:77] Creating layer Scale40
I1001 19:09:22.065105  5547 net.cpp:84] Creating Layer Scale40
I1001 19:09:22.065107  5547 net.cpp:406] Scale40 <- Convolution40
I1001 19:09:22.065110  5547 net.cpp:367] Scale40 -> Convolution40 (in-place)
I1001 19:09:22.065138  5547 layer_factory.hpp:77] Creating layer Scale40
I1001 19:09:22.065215  5547 net.cpp:122] Setting up Scale40
I1001 19:09:22.065222  5547 net.cpp:129] Top shape: 100 64 7 7 (313600)
I1001 19:09:22.065223  5547 net.cpp:137] Memory required for data: 791213200
I1001 19:09:22.065227  5547 layer_factory.hpp:77] Creating layer M2PELU38
I1001 19:09:22.065232  5547 net.cpp:84] Creating Layer M2PELU38
I1001 19:09:22.065233  5547 net.cpp:406] M2PELU38 <- Convolution40
I1001 19:09:22.065237  5547 net.cpp:367] M2PELU38 -> Convolution40 (in-place)
I1001 19:09:22.065323  5547 net.cpp:122] Setting up M2PELU38
I1001 19:09:22.065327  5547 net.cpp:129] Top shape: 100 64 7 7 (313600)
I1001 19:09:22.065330  5547 net.cpp:137] Memory required for data: 792467600
I1001 19:09:22.065333  5547 layer_factory.hpp:77] Creating layer Convolution41
I1001 19:09:22.065340  5547 net.cpp:84] Creating Layer Convolution41
I1001 19:09:22.065342  5547 net.cpp:406] Convolution41 <- Convolution40
I1001 19:09:22.065347  5547 net.cpp:380] Convolution41 -> Convolution41
I1001 19:09:22.067487  5547 net.cpp:122] Setting up Convolution41
I1001 19:09:22.067495  5547 net.cpp:129] Top shape: 100 64 7 7 (313600)
I1001 19:09:22.067498  5547 net.cpp:137] Memory required for data: 793722000
I1001 19:09:22.067503  5547 layer_factory.hpp:77] Creating layer BatchNorm41
I1001 19:09:22.067508  5547 net.cpp:84] Creating Layer BatchNorm41
I1001 19:09:22.067519  5547 net.cpp:406] BatchNorm41 <- Convolution41
I1001 19:09:22.067523  5547 net.cpp:367] BatchNorm41 -> Convolution41 (in-place)
I1001 19:09:22.067719  5547 net.cpp:122] Setting up BatchNorm41
I1001 19:09:22.067726  5547 net.cpp:129] Top shape: 100 64 7 7 (313600)
I1001 19:09:22.067728  5547 net.cpp:137] Memory required for data: 794976400
I1001 19:09:22.067734  5547 layer_factory.hpp:77] Creating layer Scale41
I1001 19:09:22.067739  5547 net.cpp:84] Creating Layer Scale41
I1001 19:09:22.067740  5547 net.cpp:406] Scale41 <- Convolution41
I1001 19:09:22.067744  5547 net.cpp:367] Scale41 -> Convolution41 (in-place)
I1001 19:09:22.067783  5547 layer_factory.hpp:77] Creating layer Scale41
I1001 19:09:22.067873  5547 net.cpp:122] Setting up Scale41
I1001 19:09:22.067890  5547 net.cpp:129] Top shape: 100 64 7 7 (313600)
I1001 19:09:22.067893  5547 net.cpp:137] Memory required for data: 796230800
I1001 19:09:22.067896  5547 layer_factory.hpp:77] Creating layer Eltwise19
I1001 19:09:22.067901  5547 net.cpp:84] Creating Layer Eltwise19
I1001 19:09:22.067919  5547 net.cpp:406] Eltwise19 <- Convolution39
I1001 19:09:22.067921  5547 net.cpp:406] Eltwise19 <- Convolution41
I1001 19:09:22.067925  5547 net.cpp:380] Eltwise19 -> Eltwise19
I1001 19:09:22.067944  5547 net.cpp:122] Setting up Eltwise19
I1001 19:09:22.067946  5547 net.cpp:129] Top shape: 100 64 7 7 (313600)
I1001 19:09:22.067950  5547 net.cpp:137] Memory required for data: 797485200
I1001 19:09:22.067951  5547 layer_factory.hpp:77] Creating layer M2PELU39
I1001 19:09:22.067956  5547 net.cpp:84] Creating Layer M2PELU39
I1001 19:09:22.067958  5547 net.cpp:406] M2PELU39 <- Eltwise19
I1001 19:09:22.067962  5547 net.cpp:367] M2PELU39 -> Eltwise19 (in-place)
I1001 19:09:22.068061  5547 net.cpp:122] Setting up M2PELU39
I1001 19:09:22.068065  5547 net.cpp:129] Top shape: 100 64 7 7 (313600)
I1001 19:09:22.068068  5547 net.cpp:137] Memory required for data: 798739600
I1001 19:09:22.068071  5547 layer_factory.hpp:77] Creating layer Eltwise19_M2PELU39_0_split
I1001 19:09:22.068074  5547 net.cpp:84] Creating Layer Eltwise19_M2PELU39_0_split
I1001 19:09:22.068078  5547 net.cpp:406] Eltwise19_M2PELU39_0_split <- Eltwise19
I1001 19:09:22.068080  5547 net.cpp:380] Eltwise19_M2PELU39_0_split -> Eltwise19_M2PELU39_0_split_0
I1001 19:09:22.068085  5547 net.cpp:380] Eltwise19_M2PELU39_0_split -> Eltwise19_M2PELU39_0_split_1
I1001 19:09:22.068109  5547 net.cpp:122] Setting up Eltwise19_M2PELU39_0_split
I1001 19:09:22.068112  5547 net.cpp:129] Top shape: 100 64 7 7 (313600)
I1001 19:09:22.068115  5547 net.cpp:129] Top shape: 100 64 7 7 (313600)
I1001 19:09:22.068117  5547 net.cpp:137] Memory required for data: 801248400
I1001 19:09:22.068120  5547 layer_factory.hpp:77] Creating layer Convolution42
I1001 19:09:22.068126  5547 net.cpp:84] Creating Layer Convolution42
I1001 19:09:22.068128  5547 net.cpp:406] Convolution42 <- Eltwise19_M2PELU39_0_split_0
I1001 19:09:22.068132  5547 net.cpp:380] Convolution42 -> Convolution42
I1001 19:09:22.069937  5547 net.cpp:122] Setting up Convolution42
I1001 19:09:22.069947  5547 net.cpp:129] Top shape: 100 64 7 7 (313600)
I1001 19:09:22.069950  5547 net.cpp:137] Memory required for data: 802502800
I1001 19:09:22.069954  5547 layer_factory.hpp:77] Creating layer BatchNorm42
I1001 19:09:22.069959  5547 net.cpp:84] Creating Layer BatchNorm42
I1001 19:09:22.069962  5547 net.cpp:406] BatchNorm42 <- Convolution42
I1001 19:09:22.069967  5547 net.cpp:367] BatchNorm42 -> Convolution42 (in-place)
I1001 19:09:22.070111  5547 net.cpp:122] Setting up BatchNorm42
I1001 19:09:22.070116  5547 net.cpp:129] Top shape: 100 64 7 7 (313600)
I1001 19:09:22.070117  5547 net.cpp:137] Memory required for data: 803757200
I1001 19:09:22.070122  5547 layer_factory.hpp:77] Creating layer Scale42
I1001 19:09:22.070127  5547 net.cpp:84] Creating Layer Scale42
I1001 19:09:22.070129  5547 net.cpp:406] Scale42 <- Convolution42
I1001 19:09:22.070132  5547 net.cpp:367] Scale42 -> Convolution42 (in-place)
I1001 19:09:22.070160  5547 layer_factory.hpp:77] Creating layer Scale42
I1001 19:09:22.070252  5547 net.cpp:122] Setting up Scale42
I1001 19:09:22.070258  5547 net.cpp:129] Top shape: 100 64 7 7 (313600)
I1001 19:09:22.070261  5547 net.cpp:137] Memory required for data: 805011600
I1001 19:09:22.070264  5547 layer_factory.hpp:77] Creating layer M2PELU40
I1001 19:09:22.070269  5547 net.cpp:84] Creating Layer M2PELU40
I1001 19:09:22.070271  5547 net.cpp:406] M2PELU40 <- Convolution42
I1001 19:09:22.070276  5547 net.cpp:367] M2PELU40 -> Convolution42 (in-place)
I1001 19:09:22.070363  5547 net.cpp:122] Setting up M2PELU40
I1001 19:09:22.070369  5547 net.cpp:129] Top shape: 100 64 7 7 (313600)
I1001 19:09:22.070370  5547 net.cpp:137] Memory required for data: 806266000
I1001 19:09:22.070374  5547 layer_factory.hpp:77] Creating layer Convolution43
I1001 19:09:22.070380  5547 net.cpp:84] Creating Layer Convolution43
I1001 19:09:22.070384  5547 net.cpp:406] Convolution43 <- Convolution42
I1001 19:09:22.070386  5547 net.cpp:380] Convolution43 -> Convolution43
I1001 19:09:22.072692  5547 net.cpp:122] Setting up Convolution43
I1001 19:09:22.072700  5547 net.cpp:129] Top shape: 100 64 7 7 (313600)
I1001 19:09:22.072703  5547 net.cpp:137] Memory required for data: 807520400
I1001 19:09:22.072708  5547 layer_factory.hpp:77] Creating layer BatchNorm43
I1001 19:09:22.072715  5547 net.cpp:84] Creating Layer BatchNorm43
I1001 19:09:22.072717  5547 net.cpp:406] BatchNorm43 <- Convolution43
I1001 19:09:22.072721  5547 net.cpp:367] BatchNorm43 -> Convolution43 (in-place)
I1001 19:09:22.072863  5547 net.cpp:122] Setting up BatchNorm43
I1001 19:09:22.072868  5547 net.cpp:129] Top shape: 100 64 7 7 (313600)
I1001 19:09:22.072870  5547 net.cpp:137] Memory required for data: 808774800
I1001 19:09:22.072875  5547 layer_factory.hpp:77] Creating layer Scale43
I1001 19:09:22.072880  5547 net.cpp:84] Creating Layer Scale43
I1001 19:09:22.072882  5547 net.cpp:406] Scale43 <- Convolution43
I1001 19:09:22.072885  5547 net.cpp:367] Scale43 -> Convolution43 (in-place)
I1001 19:09:22.072912  5547 layer_factory.hpp:77] Creating layer Scale43
I1001 19:09:22.072993  5547 net.cpp:122] Setting up Scale43
I1001 19:09:22.072998  5547 net.cpp:129] Top shape: 100 64 7 7 (313600)
I1001 19:09:22.072999  5547 net.cpp:137] Memory required for data: 810029200
I1001 19:09:22.073004  5547 layer_factory.hpp:77] Creating layer Eltwise20
I1001 19:09:22.073009  5547 net.cpp:84] Creating Layer Eltwise20
I1001 19:09:22.073010  5547 net.cpp:406] Eltwise20 <- Eltwise19_M2PELU39_0_split_1
I1001 19:09:22.073014  5547 net.cpp:406] Eltwise20 <- Convolution43
I1001 19:09:22.073016  5547 net.cpp:380] Eltwise20 -> Eltwise20
I1001 19:09:22.073034  5547 net.cpp:122] Setting up Eltwise20
I1001 19:09:22.073037  5547 net.cpp:129] Top shape: 100 64 7 7 (313600)
I1001 19:09:22.073040  5547 net.cpp:137] Memory required for data: 811283600
I1001 19:09:22.073041  5547 layer_factory.hpp:77] Creating layer M2PELU41
I1001 19:09:22.073045  5547 net.cpp:84] Creating Layer M2PELU41
I1001 19:09:22.073048  5547 net.cpp:406] M2PELU41 <- Eltwise20
I1001 19:09:22.073051  5547 net.cpp:367] M2PELU41 -> Eltwise20 (in-place)
I1001 19:09:22.073138  5547 net.cpp:122] Setting up M2PELU41
I1001 19:09:22.073143  5547 net.cpp:129] Top shape: 100 64 7 7 (313600)
I1001 19:09:22.073144  5547 net.cpp:137] Memory required for data: 812538000
I1001 19:09:22.073148  5547 layer_factory.hpp:77] Creating layer Eltwise20_M2PELU41_0_split
I1001 19:09:22.073151  5547 net.cpp:84] Creating Layer Eltwise20_M2PELU41_0_split
I1001 19:09:22.073153  5547 net.cpp:406] Eltwise20_M2PELU41_0_split <- Eltwise20
I1001 19:09:22.073158  5547 net.cpp:380] Eltwise20_M2PELU41_0_split -> Eltwise20_M2PELU41_0_split_0
I1001 19:09:22.073161  5547 net.cpp:380] Eltwise20_M2PELU41_0_split -> Eltwise20_M2PELU41_0_split_1
I1001 19:09:22.073184  5547 net.cpp:122] Setting up Eltwise20_M2PELU41_0_split
I1001 19:09:22.073189  5547 net.cpp:129] Top shape: 100 64 7 7 (313600)
I1001 19:09:22.073191  5547 net.cpp:129] Top shape: 100 64 7 7 (313600)
I1001 19:09:22.073194  5547 net.cpp:137] Memory required for data: 815046800
I1001 19:09:22.073201  5547 layer_factory.hpp:77] Creating layer Convolution44
I1001 19:09:22.073207  5547 net.cpp:84] Creating Layer Convolution44
I1001 19:09:22.073210  5547 net.cpp:406] Convolution44 <- Eltwise20_M2PELU41_0_split_0
I1001 19:09:22.073215  5547 net.cpp:380] Convolution44 -> Convolution44
I1001 19:09:22.074895  5547 net.cpp:122] Setting up Convolution44
I1001 19:09:22.074904  5547 net.cpp:129] Top shape: 100 64 7 7 (313600)
I1001 19:09:22.074908  5547 net.cpp:137] Memory required for data: 816301200
I1001 19:09:22.074911  5547 layer_factory.hpp:77] Creating layer BatchNorm44
I1001 19:09:22.074916  5547 net.cpp:84] Creating Layer BatchNorm44
I1001 19:09:22.074919  5547 net.cpp:406] BatchNorm44 <- Convolution44
I1001 19:09:22.074923  5547 net.cpp:367] BatchNorm44 -> Convolution44 (in-place)
I1001 19:09:22.075065  5547 net.cpp:122] Setting up BatchNorm44
I1001 19:09:22.075069  5547 net.cpp:129] Top shape: 100 64 7 7 (313600)
I1001 19:09:22.075073  5547 net.cpp:137] Memory required for data: 817555600
I1001 19:09:22.075076  5547 layer_factory.hpp:77] Creating layer Scale44
I1001 19:09:22.075080  5547 net.cpp:84] Creating Layer Scale44
I1001 19:09:22.075083  5547 net.cpp:406] Scale44 <- Convolution44
I1001 19:09:22.075086  5547 net.cpp:367] Scale44 -> Convolution44 (in-place)
I1001 19:09:22.075114  5547 layer_factory.hpp:77] Creating layer Scale44
I1001 19:09:22.075193  5547 net.cpp:122] Setting up Scale44
I1001 19:09:22.075198  5547 net.cpp:129] Top shape: 100 64 7 7 (313600)
I1001 19:09:22.075201  5547 net.cpp:137] Memory required for data: 818810000
I1001 19:09:22.075204  5547 layer_factory.hpp:77] Creating layer M2PELU42
I1001 19:09:22.075208  5547 net.cpp:84] Creating Layer M2PELU42
I1001 19:09:22.075212  5547 net.cpp:406] M2PELU42 <- Convolution44
I1001 19:09:22.075215  5547 net.cpp:367] M2PELU42 -> Convolution44 (in-place)
I1001 19:09:22.075304  5547 net.cpp:122] Setting up M2PELU42
I1001 19:09:22.075309  5547 net.cpp:129] Top shape: 100 64 7 7 (313600)
I1001 19:09:22.075310  5547 net.cpp:137] Memory required for data: 820064400
I1001 19:09:22.075314  5547 layer_factory.hpp:77] Creating layer Convolution45
I1001 19:09:22.075321  5547 net.cpp:84] Creating Layer Convolution45
I1001 19:09:22.075323  5547 net.cpp:406] Convolution45 <- Convolution44
I1001 19:09:22.075327  5547 net.cpp:380] Convolution45 -> Convolution45
I1001 19:09:22.077323  5547 net.cpp:122] Setting up Convolution45
I1001 19:09:22.077332  5547 net.cpp:129] Top shape: 100 64 7 7 (313600)
I1001 19:09:22.077334  5547 net.cpp:137] Memory required for data: 821318800
I1001 19:09:22.077339  5547 layer_factory.hpp:77] Creating layer BatchNorm45
I1001 19:09:22.077343  5547 net.cpp:84] Creating Layer BatchNorm45
I1001 19:09:22.077347  5547 net.cpp:406] BatchNorm45 <- Convolution45
I1001 19:09:22.077350  5547 net.cpp:367] BatchNorm45 -> Convolution45 (in-place)
I1001 19:09:22.077505  5547 net.cpp:122] Setting up BatchNorm45
I1001 19:09:22.077510  5547 net.cpp:129] Top shape: 100 64 7 7 (313600)
I1001 19:09:22.077512  5547 net.cpp:137] Memory required for data: 822573200
I1001 19:09:22.077517  5547 layer_factory.hpp:77] Creating layer Scale45
I1001 19:09:22.077520  5547 net.cpp:84] Creating Layer Scale45
I1001 19:09:22.077523  5547 net.cpp:406] Scale45 <- Convolution45
I1001 19:09:22.077527  5547 net.cpp:367] Scale45 -> Convolution45 (in-place)
I1001 19:09:22.077554  5547 layer_factory.hpp:77] Creating layer Scale45
I1001 19:09:22.077637  5547 net.cpp:122] Setting up Scale45
I1001 19:09:22.077642  5547 net.cpp:129] Top shape: 100 64 7 7 (313600)
I1001 19:09:22.077644  5547 net.cpp:137] Memory required for data: 823827600
…
I1001 19:09:22.433710  5547 net.cpp:84] Creating Layer BatchNorm40
I1001 19:09:22.433713  5547 net.cpp:406] BatchNorm40 <- Convolution40
I1001 19:09:22.433717  5547 net.cpp:367] BatchNorm40 -> Convolution40 (in-place)
I1001 19:09:22.433848  5547 net.cpp:122] Setting up BatchNorm40
I1001 19:09:22.433852  5547 net.cpp:129] Top shape: 100 64 8 8 (409600)
I1001 19:09:22.433854  5547 net.cpp:137] Memory required for data: 1031783600
I1001 19:09:22.433859  5547 layer_factory.hpp:77] Creating layer Scale40
I1001 19:09:22.433863  5547 net.cpp:84] Creating Layer Scale40
I1001 19:09:22.433866  5547 net.cpp:406] Scale40 <- Convolution40
I1001 19:09:22.433868  5547 net.cpp:367] Scale40 -> Convolution40 (in-place)
I1001 19:09:22.433895  5547 layer_factory.hpp:77] Creating layer Scale40
I1001 19:09:22.434007  5547 net.cpp:122] Setting up Scale40
I1001 19:09:22.434026  5547 net.cpp:129] Top shape: 100 64 8 8 (409600)
I1001 19:09:22.434028  5547 net.cpp:137] Memory required for data: 1033422000
I1001 19:09:22.434041  5547 layer_factory.hpp:77] Creating layer M2PELU38
I1001 19:09:22.434046  5547 net.cpp:84] Creating Layer M2PELU38
I1001 19:09:22.434047  5547 net.cpp:406] M2PELU38 <- Convolution40
I1001 19:09:22.434068  5547 net.cpp:367] M2PELU38 -> Convolution40 (in-place)
I1001 19:09:22.434171  5547 net.cpp:122] Setting up M2PELU38
I1001 19:09:22.434175  5547 net.cpp:129] Top shape: 100 64 8 8 (409600)
I1001 19:09:22.434177  5547 net.cpp:137] Memory required for data: 1035060400
I1001 19:09:22.434180  5547 layer_factory.hpp:77] Creating layer Convolution41
I1001 19:09:22.434188  5547 net.cpp:84] Creating Layer Convolution41
I1001 19:09:22.434191  5547 net.cpp:406] Convolution41 <- Convolution40
I1001 19:09:22.434195  5547 net.cpp:380] Convolution41 -> Convolution41
I1001 19:09:22.435935  5547 net.cpp:122] Setting up Convolution41
I1001 19:09:22.435943  5547 net.cpp:129] Top shape: 100 64 8 8 (409600)
I1001 19:09:22.435946  5547 net.cpp:137] Memory required for data: 1036698800
I1001 19:09:22.435950  5547 layer_factory.hpp:77] Creating layer BatchNorm41
I1001 19:09:22.435956  5547 net.cpp:84] Creating Layer BatchNorm41
I1001 19:09:22.435958  5547 net.cpp:406] BatchNorm41 <- Convolution41
I1001 19:09:22.435963  5547 net.cpp:367] BatchNorm41 -> Convolution41 (in-place)
I1001 19:09:22.436092  5547 net.cpp:122] Setting up BatchNorm41
I1001 19:09:22.436096  5547 net.cpp:129] Top shape: 100 64 8 8 (409600)
I1001 19:09:22.436098  5547 net.cpp:137] Memory required for data: 1038337200
I1001 19:09:22.436103  5547 layer_factory.hpp:77] Creating layer Scale41
I1001 19:09:22.436108  5547 net.cpp:84] Creating Layer Scale41
I1001 19:09:22.436110  5547 net.cpp:406] Scale41 <- Convolution41
I1001 19:09:22.436113  5547 net.cpp:367] Scale41 -> Convolution41 (in-place)
I1001 19:09:22.436139  5547 layer_factory.hpp:77] Creating layer Scale41
I1001 19:09:22.436214  5547 net.cpp:122] Setting up Scale41
I1001 19:09:22.436218  5547 net.cpp:129] Top shape: 100 64 8 8 (409600)
I1001 19:09:22.436220  5547 net.cpp:137] Memory required for data: 1039975600
I1001 19:09:22.436224  5547 layer_factory.hpp:77] Creating layer Eltwise19
I1001 19:09:22.436228  5547 net.cpp:84] Creating Layer Eltwise19
I1001 19:09:22.436231  5547 net.cpp:406] Eltwise19 <- Convolution39
I1001 19:09:22.436234  5547 net.cpp:406] Eltwise19 <- Convolution41
I1001 19:09:22.436239  5547 net.cpp:380] Eltwise19 -> Eltwise19
I1001 19:09:22.436254  5547 net.cpp:122] Setting up Eltwise19
I1001 19:09:22.436256  5547 net.cpp:129] Top shape: 100 64 8 8 (409600)
I1001 19:09:22.436259  5547 net.cpp:137] Memory required for data: 1041614000
I1001 19:09:22.436260  5547 layer_factory.hpp:77] Creating layer M2PELU39
I1001 19:09:22.436265  5547 net.cpp:84] Creating Layer M2PELU39
I1001 19:09:22.436269  5547 net.cpp:406] M2PELU39 <- Eltwise19
I1001 19:09:22.436271  5547 net.cpp:367] M2PELU39 -> Eltwise19 (in-place)
I1001 19:09:22.436365  5547 net.cpp:122] Setting up M2PELU39
I1001 19:09:22.436373  5547 net.cpp:129] Top shape: 100 64 8 8 (409600)
I1001 19:09:22.436377  5547 net.cpp:137] Memory required for data: 1043252400
I1001 19:09:22.436383  5547 layer_factory.hpp:77] Creating layer Eltwise19_M2PELU39_0_split
I1001 19:09:22.436388  5547 net.cpp:84] Creating Layer Eltwise19_M2PELU39_0_split
I1001 19:09:22.436393  5547 net.cpp:406] Eltwise19_M2PELU39_0_split <- Eltwise19
I1001 19:09:22.436399  5547 net.cpp:380] Eltwise19_M2PELU39_0_split -> Eltwise19_M2PELU39_0_split_0
I1001 19:09:22.436406  5547 net.cpp:380] Eltwise19_M2PELU39_0_split -> Eltwise19_M2PELU39_0_split_1
I1001 19:09:22.436439  5547 net.cpp:122] Setting up Eltwise19_M2PELU39_0_split
I1001 19:09:22.436444  5547 net.cpp:129] Top shape: 100 64 8 8 (409600)
I1001 19:09:22.436446  5547 net.cpp:129] Top shape: 100 64 8 8 (409600)
I1001 19:09:22.436449  5547 net.cpp:137] Memory required for data: 1046529200
I1001 19:09:22.436450  5547 layer_factory.hpp:77] Creating layer Convolution42
I1001 19:09:22.436458  5547 net.cpp:84] Creating Layer Convolution42
I1001 19:09:22.436461  5547 net.cpp:406] Convolution42 <- Eltwise19_M2PELU39_0_split_0
I1001 19:09:22.436465  5547 net.cpp:380] Convolution42 -> Convolution42
I1001 19:09:22.438150  5547 net.cpp:122] Setting up Convolution42
I1001 19:09:22.438158  5547 net.cpp:129] Top shape: 100 64 8 8 (409600)
I1001 19:09:22.438169  5547 net.cpp:137] Memory required for data: 1048167600
I1001 19:09:22.438174  5547 layer_factory.hpp:77] Creating layer BatchNorm42
I1001 19:09:22.438179  5547 net.cpp:84] Creating Layer BatchNorm42
I1001 19:09:22.438181  5547 net.cpp:406] BatchNorm42 <- Convolution42
I1001 19:09:22.438185  5547 net.cpp:367] BatchNorm42 -> Convolution42 (in-place)
I1001 19:09:22.438316  5547 net.cpp:122] Setting up BatchNorm42
I1001 19:09:22.438320  5547 net.cpp:129] Top shape: 100 64 8 8 (409600)
I1001 19:09:22.438323  5547 net.cpp:137] Memory required for data: 1049806000
I1001 19:09:22.438328  5547 layer_factory.hpp:77] Creating layer Scale42
I1001 19:09:22.438331  5547 net.cpp:84] Creating Layer Scale42
I1001 19:09:22.438333  5547 net.cpp:406] Scale42 <- Convolution42
I1001 19:09:22.438336  5547 net.cpp:367] Scale42 -> Convolution42 (in-place)
I1001 19:09:22.438364  5547 layer_factory.hpp:77] Creating layer Scale42
I1001 19:09:22.438438  5547 net.cpp:122] Setting up Scale42
I1001 19:09:22.438442  5547 net.cpp:129] Top shape: 100 64 8 8 (409600)
I1001 19:09:22.438444  5547 net.cpp:137] Memory required for data: 1051444400
I1001 19:09:22.438448  5547 layer_factory.hpp:77] Creating layer M2PELU40
I1001 19:09:22.438452  5547 net.cpp:84] Creating Layer M2PELU40
I1001 19:09:22.438454  5547 net.cpp:406] M2PELU40 <- Convolution42
I1001 19:09:22.438458  5547 net.cpp:367] M2PELU40 -> Convolution42 (in-place)
I1001 19:09:22.438549  5547 net.cpp:122] Setting up M2PELU40
I1001 19:09:22.438555  5547 net.cpp:129] Top shape: 100 64 8 8 (409600)
I1001 19:09:22.438556  5547 net.cpp:137] Memory required for data: 1053082800
I1001 19:09:22.438560  5547 layer_factory.hpp:77] Creating layer Convolution43
I1001 19:09:22.438567  5547 net.cpp:84] Creating Layer Convolution43
I1001 19:09:22.438570  5547 net.cpp:406] Convolution43 <- Convolution42
I1001 19:09:22.438573  5547 net.cpp:380] Convolution43 -> Convolution43
I1001 19:09:22.440251  5547 net.cpp:122] Setting up Convolution43
I1001 19:09:22.440260  5547 net.cpp:129] Top shape: 100 64 8 8 (409600)
I1001 19:09:22.440263  5547 net.cpp:137] Memory required for data: 1054721200
I1001 19:09:22.440268  5547 layer_factory.hpp:77] Creating layer BatchNorm43
I1001 19:09:22.440274  5547 net.cpp:84] Creating Layer BatchNorm43
I1001 19:09:22.440275  5547 net.cpp:406] BatchNorm43 <- Convolution43
I1001 19:09:22.440280  5547 net.cpp:367] BatchNorm43 -> Convolution43 (in-place)
I1001 19:09:22.440410  5547 net.cpp:122] Setting up BatchNorm43
I1001 19:09:22.440414  5547 net.cpp:129] Top shape: 100 64 8 8 (409600)
I1001 19:09:22.440418  5547 net.cpp:137] Memory required for data: 1056359600
I1001 19:09:22.440421  5547 layer_factory.hpp:77] Creating layer Scale43
I1001 19:09:22.440426  5547 net.cpp:84] Creating Layer Scale43
I1001 19:09:22.440428  5547 net.cpp:406] Scale43 <- Convolution43
I1001 19:09:22.440431  5547 net.cpp:367] Scale43 -> Convolution43 (in-place)
I1001 19:09:22.440457  5547 layer_factory.hpp:77] Creating layer Scale43
I1001 19:09:22.440531  5547 net.cpp:122] Setting up Scale43
I1001 19:09:22.440536  5547 net.cpp:129] Top shape: 100 64 8 8 (409600)
I1001 19:09:22.440537  5547 net.cpp:137] Memory required for data: 1057998000
I1001 19:09:22.440541  5547 layer_factory.hpp:77] Creating layer Eltwise20
I1001 19:09:22.440548  5547 net.cpp:84] Creating Layer Eltwise20
I1001 19:09:22.440551  5547 net.cpp:406] Eltwise20 <- Eltwise19_M2PELU39_0_split_1
I1001 19:09:22.440553  5547 net.cpp:406] Eltwise20 <- Convolution43
I1001 19:09:22.440557  5547 net.cpp:380] Eltwise20 -> Eltwise20
I1001 19:09:22.440572  5547 net.cpp:122] Setting up Eltwise20
I1001 19:09:22.440577  5547 net.cpp:129] Top shape: 100 64 8 8 (409600)
I1001 19:09:22.440578  5547 net.cpp:137] Memory required for data: 1059636400
I1001 19:09:22.440580  5547 layer_factory.hpp:77] Creating layer M2PELU41
I1001 19:09:22.440585  5547 net.cpp:84] Creating Layer M2PELU41
I1001 19:09:22.440588  5547 net.cpp:406] M2PELU41 <- Eltwise20
I1001 19:09:22.440592  5547 net.cpp:367] M2PELU41 -> Eltwise20 (in-place)
I1001 19:09:22.440687  5547 net.cpp:122] Setting up M2PELU41
I1001 19:09:22.440691  5547 net.cpp:129] Top shape: 100 64 8 8 (409600)
I1001 19:09:22.440693  5547 net.cpp:137] Memory required for data: 1061274800
I1001 19:09:22.440697  5547 layer_factory.hpp:77] Creating layer Eltwise20_M2PELU41_0_split
I1001 19:09:22.440701  5547 net.cpp:84] Creating Layer Eltwise20_M2PELU41_0_split
I1001 19:09:22.440703  5547 net.cpp:406] Eltwise20_M2PELU41_0_split <- Eltwise20
I1001 19:09:22.440707  5547 net.cpp:380] Eltwise20_M2PELU41_0_split -> Eltwise20_M2PELU41_0_split_0
I1001 19:09:22.440711  5547 net.cpp:380] Eltwise20_M2PELU41_0_split -> Eltwise20_M2PELU41_0_split_1
I1001 19:09:22.440734  5547 net.cpp:122] Setting up Eltwise20_M2PELU41_0_split
I1001 19:09:22.440737  5547 net.cpp:129] Top shape: 100 64 8 8 (409600)
I1001 19:09:22.440740  5547 net.cpp:129] Top shape: 100 64 8 8 (409600)
I1001 19:09:22.440742  5547 net.cpp:137] Memory required for data: 1064551600
I1001 19:09:22.440744  5547 layer_factory.hpp:77] Creating layer Convolution44
I1001 19:09:22.440750  5547 net.cpp:84] Creating Layer Convolution44
I1001 19:09:22.440753  5547 net.cpp:406] Convolution44 <- Eltwise20_M2PELU41_0_split_0
I1001 19:09:22.440757  5547 net.cpp:380] Convolution44 -> Convolution44
I1001 19:09:22.442781  5547 net.cpp:122] Setting up Convolution44
I1001 19:09:22.442790  5547 net.cpp:129] Top shape: 100 64 8 8 (409600)
I1001 19:09:22.442792  5547 net.cpp:137] Memory required for data: 1066190000
I1001 19:09:22.442797  5547 layer_factory.hpp:77] Creating layer BatchNorm44
I1001 19:09:22.442802  5547 net.cpp:84] Creating Layer BatchNorm44
I1001 19:09:22.442806  5547 net.cpp:406] BatchNorm44 <- Convolution44
I1001 19:09:22.442808  5547 net.cpp:367] BatchNorm44 -> Convolution44 (in-place)
I1001 19:09:22.442945  5547 net.cpp:122] Setting up BatchNorm44
I1001 19:09:22.442950  5547 net.cpp:129] Top shape: 100 64 8 8 (409600)
I1001 19:09:22.442952  5547 net.cpp:137] Memory required for data: 1067828400
I1001 19:09:22.460767  5547 layer_factory.hpp:77] Creating layer Scale44
I1001 19:09:22.460779  5547 net.cpp:84] Creating Layer Scale44
I1001 19:09:22.460784  5547 net.cpp:406] Scale44 <- Convolution44
I1001 19:09:22.460790  5547 net.cpp:367] Scale44 -> Convolution44 (in-place)
I1001 19:09:22.460835  5547 layer_factory.hpp:77] Creating layer Scale44
I1001 19:09:22.460927  5547 net.cpp:122] Setting up Scale44
I1001 19:09:22.460932  5547 net.cpp:129] Top shape: 100 64 8 8 (409600)
I1001 19:09:22.460934  5547 net.cpp:137] Memory required for data: 1069466800
I1001 19:09:22.460939  5547 layer_factory.hpp:77] Creating layer M2PELU42
I1001 19:09:22.460944  5547 net.cpp:84] Creating Layer M2PELU42
I1001 19:09:22.460947  5547 net.cpp:406] M2PELU42 <- Convolution44
I1001 19:09:22.460952  5547 net.cpp:367] M2PELU42 -> Convolution44 (in-place)
I1001 19:09:22.461050  5547 net.cpp:122] Setting up M2PELU42
I1001 19:09:22.461053  5547 net.cpp:129] Top shape: 100 64 8 8 (409600)
I1001 19:09:22.461056  5547 net.cpp:137] Memory required for data: 1071105200
I1001 19:09:22.461061  5547 layer_factory.hpp:77] Creating layer Convolution45
I1001 19:09:22.461067  5547 net.cpp:84] Creating Layer Convolution45
I1001 19:09:22.461071  5547 net.cpp:406] Convolution45 <- Convolution44
I1001 19:09:22.461076  5547 net.cpp:380] Convolution45 -> Convolution45
I1001 19:09:22.463064  5547 net.cpp:122] Setting up Convolution45
I1001 19:09:22.463075  5547 net.cpp:129] Top shape: 100 64 8 8 (409600)
I1001 19:09:22.463079  5547 net.cpp:137] Memory required for data: 1072743600
I1001 19:09:22.463086  5547 layer_factory.hpp:77] Creating layer BatchNorm45
I1001 19:09:22.463091  5547 net.cpp:84] Creating Layer BatchNorm45
I1001 19:09:22.463104  5547 net.cpp:406] BatchNorm45 <- Convolution45
I1001 19:09:22.463114  5547 net.cpp:367] BatchNorm45 -> Convolution45 (in-place)
I1001 19:09:22.463264  5547 net.cpp:122] Setting up BatchNorm45
I1001 19:09:22.463269  5547 net.cpp:129] Top shape: 100 64 8 8 (409600)
I1001 19:09:22.463273  5547 net.cpp:137] Memory required for data: 1074382000
I1001 19:09:22.463284  5547 layer_factory.hpp:77] Creating layer Scale45
I1001 19:09:22.463289  5547 net.cpp:84] Creating Layer Scale45
I1001 19:09:22.463291  5547 net.cpp:406] Scale45 <- Convolution45
I1001 19:09:22.463295  5547 net.cpp:367] Scale45 -> Convolution45 (in-place)
I1001 19:09:22.463325  5547 layer_factory.hpp:77] Creating layer Scale45
I1001 19:09:22.463402  5547 net.cpp:122] Setting up Scale45
I1001 19:09:22.463405  5547 net.cpp:129] Top shape: 100 64 8 8 (409600)
I1001 19:09:22.463408  5547 net.cpp:137] Memory required for data: 1076020400
I1001 19:09:22.463412  5547 layer_factory.hpp:77] Creating layer Eltwise21
I1001 19:09:22.463415  5547 net.cpp:84] Creating Layer Eltwise21
I1001 19:09:22.463418  5547 net.cpp:406] Eltwise21 <- Eltwise20_M2PELU41_0_split_1
I1001 19:09:22.463421  5547 net.cpp:406] Eltwise21 <- Convolution45
I1001 19:09:22.463425  5547 net.cpp:380] Eltwise21 -> Eltwise21
I1001 19:09:22.463441  5547 net.cpp:122] Setting up Eltwise21
I1001 19:09:22.463445  5547 net.cpp:129] Top shape: 100 64 8 8 (409600)
I1001 19:09:22.463448  5547 net.cpp:137] Memory required for data: 1077658800
I1001 19:09:22.463450  5547 layer_factory.hpp:77] Creating layer M2PELU43
I1001 19:09:22.463454  5547 net.cpp:84] Creating Layer M2PELU43
I1001 19:09:22.463456  5547 net.cpp:406] M2PELU43 <- Eltwise21
I1001 19:09:22.463460  5547 net.cpp:367] M2PELU43 -> Eltwise21 (in-place)
I1001 19:09:22.463552  5547 net.cpp:122] Setting up M2PELU43
I1001 19:09:22.463557  5547 net.cpp:129] Top shape: 100 64 8 8 (409600)
I1001 19:09:22.463558  5547 net.cpp:137] Memory required for data: 1079297200
I1001 19:09:22.463562  5547 layer_factory.hpp:77] Creating layer Eltwise21_M2PELU43_0_split
I1001 19:09:22.463567  5547 net.cpp:84] Creating Layer Eltwise21_M2PELU43_0_split
I1001 19:09:22.463568  5547 net.cpp:406] Eltwise21_M2PELU43_0_split <- Eltwise21
I1001 19:09:22.463572  5547 net.cpp:380] Eltwise21_M2PELU43_0_split -> Eltwise21_M2PELU43_0_split_0
I1001 19:09:22.463577  5547 net.cpp:380] Eltwise21_M2PELU43_0_split -> Eltwise21_M2PELU43_0_split_1
I1001 19:09:22.463600  5547 net.cpp:122] Setting up Eltwise21_M2PELU43_0_split
I1001 19:09:22.463604  5547 net.cpp:129] Top shape: 100 64 8 8 (409600)
I1001 19:09:22.463606  5547 net.cpp:129] Top shape: 100 64 8 8 (409600)
I1001 19:09:22.463609  5547 net.cpp:137] Memory required for data: 1082574000
I1001 19:09:22.463611  5547 layer_factory.hpp:77] Creating layer Convolution46
I1001 19:09:22.463618  5547 net.cpp:84] Creating Layer Convolution46
I1001 19:09:22.463620  5547 net.cpp:406] Convolution46 <- Eltwise21_M2PELU43_0_split_0
I1001 19:09:22.463624  5547 net.cpp:380] Convolution46 -> Convolution46
I1001 19:09:22.465432  5547 net.cpp:122] Setting up Convolution46
I1001 19:09:22.465440  5547 net.cpp:129] Top shape: 100 64 8 8 (409600)
I1001 19:09:22.465443  5547 net.cpp:137] Memory required for data: 1084212400
I1001 19:09:22.465448  5547 layer_factory.hpp:77] Creating layer BatchNorm46
I1001 19:09:22.465453  5547 net.cpp:84] Creating Layer BatchNorm46
I1001 19:09:22.465456  5547 net.cpp:406] BatchNorm46 <- Convolution46
I1001 19:09:22.465461  5547 net.cpp:367] BatchNorm46 -> Convolution46 (in-place)
I1001 19:09:22.465598  5547 net.cpp:122] Setting up BatchNorm46
I1001 19:09:22.465602  5547 net.cpp:129] Top shape: 100 64 8 8 (409600)
I1001 19:09:22.465605  5547 net.cpp:137] Memory required for data: 1085850800
I1001 19:09:22.465610  5547 layer_factory.hpp:77] Creating layer Scale46
I1001 19:09:22.465613  5547 net.cpp:84] Creating Layer Scale46
I1001 19:09:22.465615  5547 net.cpp:406] Scale46 <- Convolution46
I1001 19:09:22.465618  5547 net.cpp:367] Scale46 -> Convolution46 (in-place)
I1001 19:09:22.465646  5547 layer_factory.hpp:77] Creating layer Scale46
I1001 19:09:22.465723  5547 net.cpp:122] Setting up Scale46
I1001 19:09:22.465728  5547 net.cpp:129] Top shape: 100 64 8 8 (409600)
I1001 19:09:22.465730  5547 net.cpp:137] Memory required for data: 1087489200
I1001 19:09:22.465734  5547 layer_factory.hpp:77] Creating layer M2PELU44
I1001 19:09:22.465739  5547 net.cpp:84] Creating Layer M2PELU44
I1001 19:09:22.465749  5547 net.cpp:406] M2PELU44 <- Convolution46
I1001 19:09:22.465752  5547 net.cpp:367] M2PELU44 -> Convolution46 (in-place)
I1001 19:09:22.465843  5547 net.cpp:122] Setting up M2PELU44
I1001 19:09:22.465848  5547 net.cpp:129] Top shape: 100 64 8 8 (409600)
I1001 19:09:22.465850  5547 net.cpp:137] Memory required for data: 1089127600
I1001 19:09:22.465853  5547 layer_factory.hpp:77] Creating layer Convolution47
I1001 19:09:22.465860  5547 net.cpp:84] Creating Layer Convolution47
I1001 19:09:22.465862  5547 net.cpp:406] Convolution47 <- Convolution46
I1001 19:09:22.465867  5547 net.cpp:380] Convolution47 -> Convolution47
I1001 19:09:22.467551  5547 net.cpp:122] Setting up Convolution47
I1001 19:09:22.467561  5547 net.cpp:129] Top shape: 100 64 8 8 (409600)
I1001 19:09:22.467563  5547 net.cpp:137] Memory required for data: 1090766000
I1001 19:09:22.467567  5547 layer_factory.hpp:77] Creating layer BatchNorm47
I1001 19:09:22.467573  5547 net.cpp:84] Creating Layer BatchNorm47
I1001 19:09:22.467576  5547 net.cpp:406] BatchNorm47 <- Convolution47
I1001 19:09:22.467579  5547 net.cpp:367] BatchNorm47 -> Convolution47 (in-place)
I1001 19:09:22.467710  5547 net.cpp:122] Setting up BatchNorm47
I1001 19:09:22.467715  5547 net.cpp:129] Top shape: 100 64 8 8 (409600)
I1001 19:09:22.467716  5547 net.cpp:137] Memory required for data: 1092404400
I1001 19:09:22.467720  5547 layer_factory.hpp:77] Creating layer Scale47
I1001 19:09:22.467725  5547 net.cpp:84] Creating Layer Scale47
I1001 19:09:22.467728  5547 net.cpp:406] Scale47 <- Convolution47
I1001 19:09:22.467731  5547 net.cpp:367] Scale47 -> Convolution47 (in-place)
I1001 19:09:22.467757  5547 layer_factory.hpp:77] Creating layer Scale47
I1001 19:09:22.467834  5547 net.cpp:122] Setting up Scale47
I1001 19:09:22.467839  5547 net.cpp:129] Top shape: 100 64 8 8 (409600)
I1001 19:09:22.467840  5547 net.cpp:137] Memory required for data: 1094042800
I1001 19:09:22.467844  5547 layer_factory.hpp:77] Creating layer Eltwise22
I1001 19:09:22.467849  5547 net.cpp:84] Creating Layer Eltwise22
I1001 19:09:22.467852  5547 net.cpp:406] Eltwise22 <- Eltwise21_M2PELU43_0_split_1
I1001 19:09:22.467855  5547 net.cpp:406] Eltwise22 <- Convolution47
I1001 19:09:22.467859  5547 net.cpp:380] Eltwise22 -> Eltwise22
I1001 19:09:22.467875  5547 net.cpp:122] Setting up Eltwise22
I1001 19:09:22.467880  5547 net.cpp:129] Top shape: 100 64 8 8 (409600)
I1001 19:09:22.467881  5547 net.cpp:137] Memory required for data: 1095681200
I1001 19:09:22.467883  5547 layer_factory.hpp:77] Creating layer M2PELU45
I1001 19:09:22.467887  5547 net.cpp:84] Creating Layer M2PELU45
I1001 19:09:22.467890  5547 net.cpp:406] M2PELU45 <- Eltwise22
I1001 19:09:22.467893  5547 net.cpp:367] M2PELU45 -> Eltwise22 (in-place)
I1001 19:09:22.467980  5547 net.cpp:122] Setting up M2PELU45
I1001 19:09:22.467984  5547 net.cpp:129] Top shape: 100 64 8 8 (409600)
I1001 19:09:22.467986  5547 net.cpp:137] Memory required for data: 1097319600
I1001 19:09:22.467990  5547 layer_factory.hpp:77] Creating layer Eltwise22_M2PELU45_0_split
I1001 19:09:22.467994  5547 net.cpp:84] Creating Layer Eltwise22_M2PELU45_0_split
I1001 19:09:22.467998  5547 net.cpp:406] Eltwise22_M2PELU45_0_split <- Eltwise22
I1001 19:09:22.468000  5547 net.cpp:380] Eltwise22_M2PELU45_0_split -> Eltwise22_M2PELU45_0_split_0
I1001 19:09:22.468005  5547 net.cpp:380] Eltwise22_M2PELU45_0_split -> Eltwise22_M2PELU45_0_split_1
I1001 19:09:22.468027  5547 net.cpp:122] Setting up Eltwise22_M2PELU45_0_split
I1001 19:09:22.468031  5547 net.cpp:129] Top shape: 100 64 8 8 (409600)
I1001 19:09:22.468034  5547 net.cpp:129] Top shape: 100 64 8 8 (409600)
I1001 19:09:22.468036  5547 net.cpp:137] Memory required for data: 1100596400
I1001 19:09:22.468039  5547 layer_factory.hpp:77] Creating layer Convolution48
I1001 19:09:22.468044  5547 net.cpp:84] Creating Layer Convolution48
I1001 19:09:22.468046  5547 net.cpp:406] Convolution48 <- Eltwise22_M2PELU45_0_split_0
I1001 19:09:22.468051  5547 net.cpp:380] Convolution48 -> Convolution48
I1001 19:09:22.470037  5547 net.cpp:122] Setting up Convolution48
I1001 19:09:22.470052  5547 net.cpp:129] Top shape: 100 64 8 8 (409600)
I1001 19:09:22.470055  5547 net.cpp:137] Memory required for data: 1102234800
I1001 19:09:22.470060  5547 layer_factory.hpp:77] Creating layer BatchNorm48
I1001 19:09:22.470067  5547 net.cpp:84] Creating Layer BatchNorm48
I1001 19:09:22.470070  5547 net.cpp:406] BatchNorm48 <- Convolution48
I1001 19:09:22.470073  5547 net.cpp:367] BatchNorm48 -> Convolution48 (in-place)
I1001 19:09:22.470211  5547 net.cpp:122] Setting up BatchNorm48
I1001 19:09:22.470216  5547 net.cpp:129] Top shape: 100 64 8 8 (409600)
I1001 19:09:22.470217  5547 net.cpp:137] Memory required for data: 1103873200
I1001 19:09:22.470221  5547 layer_factory.hpp:77] Creating layer Scale48
I1001 19:09:22.470226  5547 net.cpp:84] Creating Layer Scale48
I1001 19:09:22.470228  5547 net.cpp:406] Scale48 <- Convolution48
I1001 19:09:22.470232  5547 net.cpp:367] Scale48 -> Convolution48 (in-place)
I1001 19:09:22.470258  5547 layer_factory.hpp:77] Creating layer Scale48
I1001 19:09:22.470335  5547 net.cpp:122] Setting up Scale48
I1001 19:09:22.470340  5547 net.cpp:129] Top shape: 100 64 8 8 (409600)
I1001 19:09:22.470341  5547 net.cpp:137] Memory required for data: 1105511600
I1001 19:09:22.470345  5547 layer_factory.hpp:77] Creating layer M2PELU46
I1001 19:09:22.470350  5547 net.cpp:84] Creating Layer M2PELU46
I1001 19:09:22.470353  5547 net.cpp:406] M2PELU46 <- Convolution48
I1001 19:09:22.470356  5547 net.cpp:367] M2PELU46 -> Convolution48 (in-place)
I1001 19:09:22.470446  5547 net.cpp:122] Setting up M2PELU46
I1001 19:09:22.470451  5547 net.cpp:129] Top shape: 100 64 8 8 (409600)
I1001 19:09:22.470453  5547 net.cpp:137] Memory required for data: 1107150000
I1001 19:09:22.470456  5547 layer_factory.hpp:77] Creating layer Convolution49
I1001 19:09:22.470463  5547 net.cpp:84] Creating Layer Convolution49
I1001 19:09:22.470465  5547 net.cpp:406] Convolution49 <- Convolution48
I1001 19:09:22.470469  5547 net.cpp:380] Convolution49 -> Convolution49
I1001 19:09:22.472529  5547 net.cpp:122] Setting up Convolution49
I1001 19:09:22.472542  5547 net.cpp:129] Top shape: 100 64 8 8 (409600)
I1001 19:09:22.472544  5547 net.cpp:137] Memory required for data: 1108788400
I1001 19:09:22.472549  5547 layer_factory.hpp:77] Creating layer BatchNorm49
I1001 19:09:22.472554  5547 net.cpp:84] Creating Layer BatchNorm49
I1001 19:09:22.472558  5547 net.cpp:406] BatchNorm49 <- Convolution49
I1001 19:09:22.472560  5547 net.cpp:367] BatchNorm49 -> Convolution49 (in-place)
I1001 19:09:22.472695  5547 net.cpp:122] Setting up BatchNorm49
I1001 19:09:22.472699  5547 net.cpp:129] Top shape: 100 64 8 8 (409600)
I1001 19:09:22.472702  5547 net.cpp:137] Memory required for data: 1110426800
I1001 19:09:22.472707  5547 layer_factory.hpp:77] Creating layer Scale49
I1001 19:09:22.472712  5547 net.cpp:84] Creating Layer Scale49
I1001 19:09:22.472713  5547 net.cpp:406] Scale49 <- Convolution49
I1001 19:09:22.472717  5547 net.cpp:367] Scale49 -> Convolution49 (in-place)
I1001 19:09:22.472743  5547 layer_factory.hpp:77] Creating layer Scale49
I1001 19:09:22.472820  5547 net.cpp:122] Setting up Scale49
I1001 19:09:22.472825  5547 net.cpp:129] Top shape: 100 64 8 8 (409600)
I1001 19:09:22.472826  5547 net.cpp:137] Memory required for data: 1112065200
I1001 19:09:22.472831  5547 layer_factory.hpp:77] Creating layer Eltwise23
I1001 19:09:22.472836  5547 net.cpp:84] Creating Layer Eltwise23
I1001 19:09:22.472839  5547 net.cpp:406] Eltwise23 <- Eltwise22_M2PELU45_0_split_1
I1001 19:09:22.472842  5547 net.cpp:406] Eltwise23 <- Convolution49
I1001 19:09:22.472846  5547 net.cpp:380] Eltwise23 -> Eltwise23
I1001 19:09:22.472862  5547 net.cpp:122] Setting up Eltwise23
I1001 19:09:22.472867  5547 net.cpp:129] Top shape: 100 64 8 8 (409600)
I1001 19:09:22.472868  5547 net.cpp:137] Memory required for data: 1113703600
I1001 19:09:22.472870  5547 layer_factory.hpp:77] Creating layer M2PELU47
I1001 19:09:22.472877  5547 net.cpp:84] Creating Layer M2PELU47
I1001 19:09:22.472878  5547 net.cpp:406] M2PELU47 <- Eltwise23
I1001 19:09:22.472882  5547 net.cpp:367] M2PELU47 -> Eltwise23 (in-place)
I1001 19:09:22.472980  5547 net.cpp:122] Setting up M2PELU47
I1001 19:09:22.472985  5547 net.cpp:129] Top shape: 100 64 8 8 (409600)
I1001 19:09:22.472987  5547 net.cpp:137] Memory required for data: 1115342000
I1001 19:09:22.472991  5547 layer_factory.hpp:77] Creating layer Eltwise23_M2PELU47_0_split
I1001 19:09:22.472995  5547 net.cpp:84] Creating Layer Eltwise23_M2PELU47_0_split
I1001 19:09:22.472997  5547 net.cpp:406] Eltwise23_M2PELU47_0_split <- Eltwise23
I1001 19:09:22.473001  5547 net.cpp:380] Eltwise23_M2PELU47_0_split -> Eltwise23_M2PELU47_0_split_0
I1001 19:09:22.473006  5547 net.cpp:380] Eltwise23_M2PELU47_0_split -> Eltwise23_M2PELU47_0_split_1
I1001 19:09:22.473028  5547 net.cpp:122] Setting up Eltwise23_M2PELU47_0_split
I1001 19:09:22.473032  5547 net.cpp:129] Top shape: 100 64 8 8 (409600)
I1001 19:09:22.473036  5547 net.cpp:129] Top shape: 100 64 8 8 (409600)
I1001 19:09:22.473037  5547 net.cpp:137] Memory required for data: 1118618800
I1001 19:09:22.473039  5547 layer_factory.hpp:77] Creating layer Convolution50
I1001 19:09:22.473044  5547 net.cpp:84] Creating Layer Convolution50
I1001 19:09:22.473047  5547 net.cpp:406] Convolution50 <- Eltwise23_M2PELU47_0_split_0
I1001 19:09:22.473052  5547 net.cpp:380] Convolution50 -> Convolution50
I1001 19:09:22.475798  5547 net.cpp:122] Setting up Convolution50
I1001 19:09:22.475810  5547 net.cpp:129] Top shape: 100 64 8 8 (409600)
I1001 19:09:22.475812  5547 net.cpp:137] Memory required for data: 1120257200
I1001 19:09:22.475817  5547 layer_factory.hpp:77] Creating layer BatchNorm50
I1001 19:09:22.475822  5547 net.cpp:84] Creating Layer BatchNorm50
I1001 19:09:22.475826  5547 net.cpp:406] BatchNorm50 <- Convolution50
I1001 19:09:22.475831  5547 net.cpp:367] BatchNorm50 -> Convolution50 (in-place)
I1001 19:09:22.491492  5547 net.cpp:122] Setting up BatchNorm50
I1001 19:09:22.491502  5547 net.cpp:129] Top shape: 100 64 8 8 (409600)
I1001 19:09:22.491504  5547 net.cpp:137] Memory required for data: 1121895600
I1001 19:09:22.491510  5547 layer_factory.hpp:77] Creating layer Scale50
I1001 19:09:22.491515  5547 net.cpp:84] Creating Layer Scale50
I1001 19:09:22.491518  5547 net.cpp:406] Scale50 <- Convolution50
I1001 19:09:22.491523  5547 net.cpp:367] Scale50 -> Convolution50 (in-place)
I1001 19:09:22.491555  5547 layer_factory.hpp:77] Creating layer Scale50
I1001 19:09:22.491644  5547 net.cpp:122] Setting up Scale50
I1001 19:09:22.491649  5547 net.cpp:129] Top shape: 100 64 8 8 (409600)
I1001 19:09:22.491652  5547 net.cpp:137] Memory required for data: 1123534000
I1001 19:09:22.491655  5547 layer_factory.hpp:77] Creating layer M2PELU48
I1001 19:09:22.491660  5547 net.cpp:84] Creating Layer M2PELU48
I1001 19:09:22.491663  5547 net.cpp:406] M2PELU48 <- Convolution50
I1001 19:09:22.491667  5547 net.cpp:367] M2PELU48 -> Convolution50 (in-place)
I1001 19:09:22.491770  5547 net.cpp:122] Setting up M2PELU48
I1001 19:09:22.491775  5547 net.cpp:129] Top shape: 100 64 8 8 (409600)
I1001 19:09:22.491776  5547 net.cpp:137] Memory required for data: 1125172400
I1001 19:09:22.491780  5547 layer_factory.hpp:77] Creating layer Convolution51
I1001 19:09:22.491789  5547 net.cpp:84] Creating Layer Convolution51
I1001 19:09:22.491792  5547 net.cpp:406] Convolution51 <- Convolution50
I1001 19:09:22.491796  5547 net.cpp:380] Convolution51 -> Convolution51
I1001 19:09:22.493644  5547 net.cpp:122] Setting up Convolution51
I1001 19:09:22.493654  5547 net.cpp:129] Top shape: 100 64 8 8 (409600)
I1001 19:09:22.493657  5547 net.cpp:137] Memory required for data: 1126810800
I1001 19:09:22.493662  5547 layer_factory.hpp:77] Creating layer BatchNorm51
I1001 19:09:22.493669  5547 net.cpp:84] Creating Layer BatchNorm51
I1001 19:09:22.493672  5547 net.cpp:406] BatchNorm51 <- Convolution51
I1001 19:09:22.493677  5547 net.cpp:367] BatchNorm51 -> Convolution51 (in-place)
I1001 19:09:22.493821  5547 net.cpp:122] Setting up BatchNorm51
I1001 19:09:22.493825  5547 net.cpp:129] Top shape: 100 64 8 8 (409600)
I1001 19:09:22.493827  5547 net.cpp:137] Memory required for data: 1128449200
I1001 19:09:22.493841  5547 layer_factory.hpp:77] Creating layer Scale51
I1001 19:09:22.493846  5547 net.cpp:84] Creating Layer Scale51
I1001 19:09:22.493849  5547 net.cpp:406] Scale51 <- Convolution51
I1001 19:09:22.493852  5547 net.cpp:367] Scale51 -> Convolution51 (in-place)
I1001 19:09:22.493883  5547 layer_factory.hpp:77] Creating layer Scale51
I1001 19:09:22.493968  5547 net.cpp:122] Setting up Scale51
I1001 19:09:22.493973  5547 net.cpp:129] Top shape: 100 64 8 8 (409600)
I1001 19:09:22.493974  5547 net.cpp:137] Memory required for data: 1130087600
I1001 19:09:22.493978  5547 layer_factory.hpp:77] Creating layer Eltwise24
I1001 19:09:22.493983  5547 net.cpp:84] Creating Layer Eltwise24
I1001 19:09:22.493985  5547 net.cpp:406] Eltwise24 <- Eltwise23_M2PELU47_0_split_1
I1001 19:09:22.493988  5547 net.cpp:406] Eltwise24 <- Convolution51
I1001 19:09:22.493993  5547 net.cpp:380] Eltwise24 -> Eltwise24
I1001 19:09:22.494009  5547 net.cpp:122] Setting up Eltwise24
I1001 19:09:22.494014  5547 net.cpp:129] Top shape: 100 64 8 8 (409600)
I1001 19:09:22.494015  5547 net.cpp:137] Memory required for data: 1131726000
I1001 19:09:22.494017  5547 layer_factory.hpp:77] Creating layer M2PELU49
I1001 19:09:22.494024  5547 net.cpp:84] Creating Layer M2PELU49
I1001 19:09:22.494025  5547 net.cpp:406] M2PELU49 <- Eltwise24
I1001 19:09:22.494029  5547 net.cpp:367] M2PELU49 -> Eltwise24 (in-place)
I1001 19:09:22.494127  5547 net.cpp:122] Setting up M2PELU49
I1001 19:09:22.494130  5547 net.cpp:129] Top shape: 100 64 8 8 (409600)
I1001 19:09:22.494132  5547 net.cpp:137] Memory required for data: 1133364400
I1001 19:09:22.494137  5547 layer_factory.hpp:77] Creating layer Eltwise24_M2PELU49_0_split
I1001 19:09:22.494140  5547 net.cpp:84] Creating Layer Eltwise24_M2PELU49_0_split
I1001 19:09:22.494144  5547 net.cpp:406] Eltwise24_M2PELU49_0_split <- Eltwise24
I1001 19:09:22.494148  5547 net.cpp:380] Eltwise24_M2PELU49_0_split -> Eltwise24_M2PELU49_0_split_0
I1001 19:09:22.494151  5547 net.cpp:380] Eltwise24_M2PELU49_0_split -> Eltwise24_M2PELU49_0_split_1
I1001 19:09:22.494189  5547 net.cpp:122] Setting up Eltwise24_M2PELU49_0_split
I1001 19:09:22.494192  5547 net.cpp:129] Top shape: 100 64 8 8 (409600)
I1001 19:09:22.494196  5547 net.cpp:129] Top shape: 100 64 8 8 (409600)
I1001 19:09:22.494199  5547 net.cpp:137] Memory required for data: 1136641200
I1001 19:09:22.494201  5547 layer_factory.hpp:77] Creating layer Convolution52
I1001 19:09:22.494207  5547 net.cpp:84] Creating Layer Convolution52
I1001 19:09:22.494210  5547 net.cpp:406] Convolution52 <- Eltwise24_M2PELU49_0_split_0
I1001 19:09:22.494215  5547 net.cpp:380] Convolution52 -> Convolution52
I1001 19:09:22.496351  5547 net.cpp:122] Setting up Convolution52
I1001 19:09:22.496359  5547 net.cpp:129] Top shape: 100 64 8 8 (409600)
I1001 19:09:22.496362  5547 net.cpp:137] Memory required for data: 1138279600
I1001 19:09:22.496368  5547 layer_factory.hpp:77] Creating layer BatchNorm52
I1001 19:09:22.496373  5547 net.cpp:84] Creating Layer BatchNorm52
I1001 19:09:22.496377  5547 net.cpp:406] BatchNorm52 <- Convolution52
I1001 19:09:22.496381  5547 net.cpp:367] BatchNorm52 -> Convolution52 (in-place)
I1001 19:09:22.496531  5547 net.cpp:122] Setting up BatchNorm52
I1001 19:09:22.496536  5547 net.cpp:129] Top shape: 100 64 8 8 (409600)
I1001 19:09:22.496537  5547 net.cpp:137] Memory required for data: 1139918000
I1001 19:09:22.496542  5547 layer_factory.hpp:77] Creating layer Scale52
I1001 19:09:22.496546  5547 net.cpp:84] Creating Layer Scale52
I1001 19:09:22.496549  5547 net.cpp:406] Scale52 <- Convolution52
I1001 19:09:22.496552  5547 net.cpp:367] Scale52 -> Convolution52 (in-place)
I1001 19:09:22.496582  5547 layer_factory.hpp:77] Creating layer Scale52
I1001 19:09:22.496667  5547 net.cpp:122] Setting up Scale52
I1001 19:09:22.496672  5547 net.cpp:129] Top shape: 100 64 8 8 (409600)
I1001 19:09:22.496675  5547 net.cpp:137] Memory required for data: 1141556400
I1001 19:09:22.496678  5547 layer_factory.hpp:77] Creating layer M2PELU50
I1001 19:09:22.496701  5547 net.cpp:84] Creating Layer M2PELU50
I1001 19:09:22.496711  5547 net.cpp:406] M2PELU50 <- Convolution52
I1001 19:09:22.496716  5547 net.cpp:367] M2PELU50 -> Convolution52 (in-place)
I1001 19:09:22.496819  5547 net.cpp:122] Setting up M2PELU50
I1001 19:09:22.496824  5547 net.cpp:129] Top shape: 100 64 8 8 (409600)
I1001 19:09:22.496826  5547 net.cpp:137] Memory required for data: 1143194800
I1001 19:09:22.496830  5547 layer_factory.hpp:77] Creating layer Convolution53
I1001 19:09:22.496837  5547 net.cpp:84] Creating Layer Convolution53
I1001 19:09:22.496840  5547 net.cpp:406] Convolution53 <- Convolution52
I1001 19:09:22.496845  5547 net.cpp:380] Convolution53 -> Convolution53
I1001 19:09:22.498639  5547 net.cpp:122] Setting up Convolution53
I1001 19:09:22.498648  5547 net.cpp:129] Top shape: 100 64 8 8 (409600)
I1001 19:09:22.498651  5547 net.cpp:137] Memory required for data: 1144833200
I1001 19:09:22.498656  5547 layer_factory.hpp:77] Creating layer BatchNorm53
I1001 19:09:22.498662  5547 net.cpp:84] Creating Layer BatchNorm53
I1001 19:09:22.498666  5547 net.cpp:406] BatchNorm53 <- Convolution53
I1001 19:09:22.498672  5547 net.cpp:367] BatchNorm53 -> Convolution53 (in-place)
I1001 19:09:22.498814  5547 net.cpp:122] Setting up BatchNorm53
I1001 19:09:22.498819  5547 net.cpp:129] Top shape: 100 64 8 8 (409600)
I1001 19:09:22.498821  5547 net.cpp:137] Memory required for data: 1146471600
I1001 19:09:22.498826  5547 layer_factory.hpp:77] Creating layer Scale53
I1001 19:09:22.498831  5547 net.cpp:84] Creating Layer Scale53
I1001 19:09:22.498833  5547 net.cpp:406] Scale53 <- Convolution53
I1001 19:09:22.498836  5547 net.cpp:367] Scale53 -> Convolution53 (in-place)
I1001 19:09:22.498864  5547 layer_factory.hpp:77] Creating layer Scale53
I1001 19:09:22.498950  5547 net.cpp:122] Setting up Scale53
I1001 19:09:22.498955  5547 net.cpp:129] Top shape: 100 64 8 8 (409600)
I1001 19:09:22.498956  5547 net.cpp:137] Memory required for data: 1148110000
I1001 19:09:22.498960  5547 layer_factory.hpp:77] Creating layer Eltwise25
I1001 19:09:22.498965  5547 net.cpp:84] Creating Layer Eltwise25
I1001 19:09:22.498967  5547 net.cpp:406] Eltwise25 <- Eltwise24_M2PELU49_0_split_1
I1001 19:09:22.498970  5547 net.cpp:406] Eltwise25 <- Convolution53
I1001 19:09:22.498975  5547 net.cpp:380] Eltwise25 -> Eltwise25
I1001 19:09:22.498991  5547 net.cpp:122] Setting up Eltwise25
I1001 19:09:22.498996  5547 net.cpp:129] Top shape: 100 64 8 8 (409600)
I1001 19:09:22.498997  5547 net.cpp:137] Memory required for data: 1149748400
I1001 19:09:22.499001  5547 layer_factory.hpp:77] Creating layer M2PELU51
I1001 19:09:22.499006  5547 net.cpp:84] Creating Layer M2PELU51
I1001 19:09:22.499007  5547 net.cpp:406] M2PELU51 <- Eltwise25
I1001 19:09:22.499011  5547 net.cpp:367] M2PELU51 -> Eltwise25 (in-place)
I1001 19:09:22.499106  5547 net.cpp:122] Setting up M2PELU51
I1001 19:09:22.499111  5547 net.cpp:129] Top shape: 100 64 8 8 (409600)
I1001 19:09:22.499114  5547 net.cpp:137] Memory required for data: 1151386800
I1001 19:09:22.499117  5547 layer_factory.hpp:77] Creating layer Eltwise25_M2PELU51_0_split
I1001 19:09:22.499121  5547 net.cpp:84] Creating Layer Eltwise25_M2PELU51_0_split
I1001 19:09:22.499124  5547 net.cpp:406] Eltwise25_M2PELU51_0_split <- Eltwise25
I1001 19:09:22.499127  5547 net.cpp:380] Eltwise25_M2PELU51_0_split -> Eltwise25_M2PELU51_0_split_0
I1001 19:09:22.499131  5547 net.cpp:380] Eltwise25_M2PELU51_0_split -> Eltwise25_M2PELU51_0_split_1
I1001 19:09:22.499156  5547 net.cpp:122] Setting up Eltwise25_M2PELU51_0_split
I1001 19:09:22.499161  5547 net.cpp:129] Top shape: 100 64 8 8 (409600)
I1001 19:09:22.499163  5547 net.cpp:129] Top shape: 100 64 8 8 (409600)
I1001 19:09:22.499166  5547 net.cpp:137] Memory required for data: 1154663600
I1001 19:09:22.499167  5547 layer_factory.hpp:77] Creating layer Convolution54
I1001 19:09:22.499174  5547 net.cpp:84] Creating Layer Convolution54
I1001 19:09:22.499177  5547 net.cpp:406] Convolution54 <- Eltwise25_M2PELU51_0_split_0
I1001 19:09:22.499181  5547 net.cpp:380] Convolution54 -> Convolution54
I1001 19:09:22.501302  5547 net.cpp:122] Setting up Convolution54
I1001 19:09:22.501310  5547 net.cpp:129] Top shape: 100 64 8 8 (409600)
I1001 19:09:22.501313  5547 net.cpp:137] Memory required for data: 1156302000
I1001 19:09:22.501318  5547 layer_factory.hpp:77] Creating layer BatchNorm54
I1001 19:09:22.501323  5547 net.cpp:84] Creating Layer BatchNorm54
I1001 19:09:22.501327  5547 net.cpp:406] BatchNorm54 <- Convolution54
I1001 19:09:22.501330  5547 net.cpp:367] BatchNorm54 -> Convolution54 (in-place)
I1001 19:09:22.501482  5547 net.cpp:122] Setting up BatchNorm54
I1001 19:09:22.501487  5547 net.cpp:129] Top shape: 100 64 8 8 (409600)
I1001 19:09:22.501488  5547 net.cpp:137] Memory required for data: 1157940400
I1001 19:09:22.501493  5547 layer_factory.hpp:77] Creating layer Scale54
I1001 19:09:22.501497  5547 net.cpp:84] Creating Layer Scale54
I1001 19:09:22.501500  5547 net.cpp:406] Scale54 <- Convolution54
I1001 19:09:22.501503  5547 net.cpp:367] Scale54 -> Convolution54 (in-place)
I1001 19:09:22.501533  5547 layer_factory.hpp:77] Creating layer Scale54
I1001 19:09:22.501617  5547 net.cpp:122] Setting up Scale54
I1001 19:09:22.501621  5547 net.cpp:129] Top shape: 100 64 8 8 (409600)
I1001 19:09:22.501623  5547 net.cpp:137] Memory required for data: 1159578800
I1001 19:09:22.501627  5547 layer_factory.hpp:77] Creating layer M2PELU52
I1001 19:09:22.501633  5547 net.cpp:84] Creating Layer M2PELU52
I1001 19:09:22.501636  5547 net.cpp:406] M2PELU52 <- Convolution54
I1001 19:09:22.501639  5547 net.cpp:367] M2PELU52 -> Convolution54 (in-place)
I1001 19:09:22.501736  5547 net.cpp:122] Setting up M2PELU52
I1001 19:09:22.501740  5547 net.cpp:129] Top shape: 100 64 8 8 (409600)
I1001 19:09:22.501742  5547 net.cpp:137] Memory required for data: 1161217200
I1001 19:09:22.501746  5547 layer_factory.hpp:77] Creating layer Convolution55
I1001 19:09:22.501754  5547 net.cpp:84] Creating Layer Convolution55
I1001 19:09:22.501756  5547 net.cpp:406] Convolution55 <- Convolution54
I1001 19:09:22.501760  5547 net.cpp:380] Convolution55 -> Convolution55
I1001 19:09:22.503556  5547 net.cpp:122] Setting up Convolution55
I1001 19:09:22.503566  5547 net.cpp:129] Top shape: 100 64 8 8 (409600)
I1001 19:09:22.503567  5547 net.cpp:137] Memory required for data: 1162855600
I1001 19:09:22.503572  5547 layer_factory.hpp:77] Creating layer BatchNorm55
I1001 19:09:22.503578  5547 net.cpp:84] Creating Layer BatchNorm55
I1001 19:09:22.503582  5547 net.cpp:406] BatchNorm55 <- Convolution55
I1001 19:09:22.503585  5547 net.cpp:367] BatchNorm55 -> Convolution55 (in-place)
I1001 19:09:22.503731  5547 net.cpp:122] Setting up BatchNorm55
I1001 19:09:22.503736  5547 net.cpp:129] Top shape: 100 64 8 8 (409600)
I1001 19:09:22.503738  5547 net.cpp:137] Memory required for data: 1164494000
I1001 19:09:22.503743  5547 layer_factory.hpp:77] Creating layer Scale55
I1001 19:09:22.503747  5547 net.cpp:84] Creating Layer Scale55
I1001 19:09:22.503751  5547 net.cpp:406] Scale55 <- Convolution55
I1001 19:09:22.503753  5547 net.cpp:367] Scale55 -> Convolution55 (in-place)
I1001 19:09:22.503782  5547 layer_factory.hpp:77] Creating layer Scale55
I1001 19:09:22.503868  5547 net.cpp:122] Setting up Scale55
I1001 19:09:22.503873  5547 net.cpp:129] Top shape: 100 64 8 8 (409600)
I1001 19:09:22.503875  5547 net.cpp:137] Memory required for data: 1166132400
I1001 19:09:22.503880  5547 layer_factory.hpp:77] Creating layer Eltwise26
I1001 19:09:22.503885  5547 net.cpp:84] Creating Layer Eltwise26
I1001 19:09:22.503887  5547 net.cpp:406] Eltwise26 <- Eltwise25_M2PELU51_0_split_1
I1001 19:09:22.503890  5547 net.cpp:406] Eltwise26 <- Convolution55
I1001 19:09:22.503893  5547 net.cpp:380] Eltwise26 -> Eltwise26
I1001 19:09:22.503911  5547 net.cpp:122] Setting up Eltwise26
I1001 19:09:22.503916  5547 net.cpp:129] Top shape: 100 64 8 8 (409600)
I1001 19:09:22.503917  5547 net.cpp:137] Memory required for data: 1167770800
I1001 19:09:22.503919  5547 layer_factory.hpp:77] Creating layer M2PELU53
I1001 19:09:22.503924  5547 net.cpp:84] Creating Layer M2PELU53
I1001 19:09:22.503927  5547 net.cpp:406] M2PELU53 <- Eltwise26
I1001 19:09:22.503938  5547 net.cpp:367] M2PELU53 -> Eltwise26 (in-place)
I1001 19:09:22.504037  5547 net.cpp:122] Setting up M2PELU53
I1001 19:09:22.504041  5547 net.cpp:129] Top shape: 100 64 8 8 (409600)
I1001 19:09:22.504045  5547 net.cpp:137] Memory required for data: 1169409200
I1001 19:09:22.504048  5547 layer_factory.hpp:77] Creating layer Eltwise26_M2PELU53_0_split
I1001 19:09:22.504052  5547 net.cpp:84] Creating Layer Eltwise26_M2PELU53_0_split
I1001 19:09:22.504055  5547 net.cpp:406] Eltwise26_M2PELU53_0_split <- Eltwise26
I1001 19:09:22.504058  5547 net.cpp:380] Eltwise26_M2PELU53_0_split -> Eltwise26_M2PELU53_0_split_0
I1001 19:09:22.504062  5547 net.cpp:380] Eltwise26_M2PELU53_0_split -> Eltwise26_M2PELU53_0_split_1
I1001 19:09:22.504088  5547 net.cpp:122] Setting up Eltwise26_M2PELU53_0_split
I1001 19:09:22.504092  5547 net.cpp:129] Top shape: 100 64 8 8 (409600)
I1001 19:09:22.504096  5547 net.cpp:129] Top shape: 100 64 8 8 (409600)
I1001 19:09:22.504097  5547 net.cpp:137] Memory required for data: 1172686000
I1001 19:09:22.504099  5547 layer_factory.hpp:77] Creating layer Convolution56
I1001 19:09:22.504106  5547 net.cpp:84] Creating Layer Convolution56
I1001 19:09:22.504108  5547 net.cpp:406] Convolution56 <- Eltwise26_M2PELU53_0_split_0
I1001 19:09:22.504113  5547 net.cpp:380] Convolution56 -> Convolution56
I1001 19:09:22.505884  5547 net.cpp:122] Setting up Convolution56
I1001 19:09:22.505893  5547 net.cpp:129] Top shape: 100 64 8 8 (409600)
I1001 19:09:22.505895  5547 net.cpp:137] Memory required for data: 1174324400
I1001 19:09:22.505900  5547 layer_factory.hpp:77] Creating layer BatchNorm56
I1001 19:09:22.521754  5547 net.cpp:84] Creating Layer BatchNorm56
I1001 19:09:22.521762  5547 net.cpp:406] BatchNorm56 <- Convolution56
I1001 19:09:22.521766  5547 net.cpp:367] BatchNorm56 -> Convolution56 (in-place)
I1001 19:09:22.521934  5547 net.cpp:122] Setting up BatchNorm56
I1001 19:09:22.521940  5547 net.cpp:129] Top shape: 100 64 8 8 (409600)
I1001 19:09:22.521944  5547 net.cpp:137] Memory required for data: 1175962800
I1001 19:09:22.521950  5547 layer_factory.hpp:77] Creating layer Scale56
I1001 19:09:22.521953  5547 net.cpp:84] Creating Layer Scale56
I1001 19:09:22.521956  5547 net.cpp:406] Scale56 <- Convolution56
I1001 19:09:22.521960  5547 net.cpp:367] Scale56 -> Convolution56 (in-place)
I1001 19:09:22.521992  5547 layer_factory.hpp:77] Creating layer Scale56
I1001 19:09:22.522080  5547 net.cpp:122] Setting up Scale56
I1001 19:09:22.522086  5547 net.cpp:129] Top shape: 100 64 8 8 (409600)
I1001 19:09:22.522089  5547 net.cpp:137] Memory required for data: 1177601200
I1001 19:09:22.522092  5547 layer_factory.hpp:77] Creating layer M2PELU54
I1001 19:09:22.522097  5547 net.cpp:84] Creating Layer M2PELU54
I1001 19:09:22.522100  5547 net.cpp:406] M2PELU54 <- Convolution56
I1001 19:09:22.522104  5547 net.cpp:367] M2PELU54 -> Convolution56 (in-place)
I1001 19:09:22.522209  5547 net.cpp:122] Setting up M2PELU54
I1001 19:09:22.522214  5547 net.cpp:129] Top shape: 100 64 8 8 (409600)
I1001 19:09:22.522217  5547 net.cpp:137] Memory required for data: 1179239600
I1001 19:09:22.522220  5547 layer_factory.hpp:77] Creating layer Convolution57
I1001 19:09:22.522228  5547 net.cpp:84] Creating Layer Convolution57
I1001 19:09:22.522230  5547 net.cpp:406] Convolution57 <- Convolution56
I1001 19:09:22.522235  5547 net.cpp:380] Convolution57 -> Convolution57
I1001 19:09:22.524227  5547 net.cpp:122] Setting up Convolution57
I1001 19:09:22.524237  5547 net.cpp:129] Top shape: 100 64 8 8 (409600)
I1001 19:09:22.524240  5547 net.cpp:137] Memory required for data: 1180878000
I1001 19:09:22.524245  5547 layer_factory.hpp:77] Creating layer BatchNorm57
I1001 19:09:22.524251  5547 net.cpp:84] Creating Layer BatchNorm57
I1001 19:09:22.524255  5547 net.cpp:406] BatchNorm57 <- Convolution57
I1001 19:09:22.524258  5547 net.cpp:367] BatchNorm57 -> Convolution57 (in-place)
I1001 19:09:22.524405  5547 net.cpp:122] Setting up BatchNorm57
I1001 19:09:22.524408  5547 net.cpp:129] Top shape: 100 64 8 8 (409600)
I1001 19:09:22.524417  5547 net.cpp:137] Memory required for data: 1182516400
I1001 19:09:22.524422  5547 layer_factory.hpp:77] Creating layer Scale57
I1001 19:09:22.524428  5547 net.cpp:84] Creating Layer Scale57
I1001 19:09:22.524430  5547 net.cpp:406] Scale57 <- Convolution57
I1001 19:09:22.524433  5547 net.cpp:367] Scale57 -> Convolution57 (in-place)
I1001 19:09:22.524464  5547 layer_factory.hpp:77] Creating layer Scale57
I1001 19:09:22.524549  5547 net.cpp:122] Setting up Scale57
I1001 19:09:22.524552  5547 net.cpp:129] Top shape: 100 64 8 8 (409600)
I1001 19:09:22.524554  5547 net.cpp:137] Memory required for data: 1184154800
I1001 19:09:22.524559  5547 layer_factory.hpp:77] Creating layer Eltwise27
I1001 19:09:22.524564  5547 net.cpp:84] Creating Layer Eltwise27
I1001 19:09:22.524566  5547 net.cpp:406] Eltwise27 <- Eltwise26_M2PELU53_0_split_1
I1001 19:09:22.524569  5547 net.cpp:406] Eltwise27 <- Convolution57
I1001 19:09:22.524572  5547 net.cpp:380] Eltwise27 -> Eltwise27
I1001 19:09:22.524590  5547 net.cpp:122] Setting up Eltwise27
I1001 19:09:22.524595  5547 net.cpp:129] Top shape: 100 64 8 8 (409600)
I1001 19:09:22.524596  5547 net.cpp:137] Memory required for data: 1185793200
I1001 19:09:22.524598  5547 layer_factory.hpp:77] Creating layer M2PELU55
I1001 19:09:22.524603  5547 net.cpp:84] Creating Layer M2PELU55
I1001 19:09:22.524605  5547 net.cpp:406] M2PELU55 <- Eltwise27
I1001 19:09:22.524610  5547 net.cpp:367] M2PELU55 -> Eltwise27 (in-place)
I1001 19:09:22.524706  5547 net.cpp:122] Setting up M2PELU55
I1001 19:09:22.524710  5547 net.cpp:129] Top shape: 100 64 8 8 (409600)
I1001 19:09:22.524713  5547 net.cpp:137] Memory required for data: 1187431600
I1001 19:09:22.524716  5547 layer_factory.hpp:77] Creating layer Pooling1
I1001 19:09:22.524721  5547 net.cpp:84] Creating Layer Pooling1
I1001 19:09:22.524724  5547 net.cpp:406] Pooling1 <- Eltwise27
I1001 19:09:22.524727  5547 net.cpp:380] Pooling1 -> Pooling1
I1001 19:09:22.525359  5547 net.cpp:122] Setting up Pooling1
I1001 19:09:22.525367  5547 net.cpp:129] Top shape: 100 64 1 1 (6400)
I1001 19:09:22.525370  5547 net.cpp:137] Memory required for data: 1187457200
I1001 19:09:22.525373  5547 layer_factory.hpp:77] Creating layer InnerProduct1
I1001 19:09:22.525379  5547 net.cpp:84] Creating Layer InnerProduct1
I1001 19:09:22.525382  5547 net.cpp:406] InnerProduct1 <- Pooling1
I1001 19:09:22.525385  5547 net.cpp:380] InnerProduct1 -> InnerProduct1
I1001 19:09:22.525498  5547 net.cpp:122] Setting up InnerProduct1
I1001 19:09:22.525503  5547 net.cpp:129] Top shape: 100 10 (1000)
I1001 19:09:22.525506  5547 net.cpp:137] Memory required for data: 1187461200
I1001 19:09:22.525509  5547 layer_factory.hpp:77] Creating layer InnerProduct1_InnerProduct1_0_split
I1001 19:09:22.525513  5547 net.cpp:84] Creating Layer InnerProduct1_InnerProduct1_0_split
I1001 19:09:22.525516  5547 net.cpp:406] InnerProduct1_InnerProduct1_0_split <- InnerProduct1
I1001 19:09:22.525519  5547 net.cpp:380] InnerProduct1_InnerProduct1_0_split -> InnerProduct1_InnerProduct1_0_split_0
I1001 19:09:22.525523  5547 net.cpp:380] InnerProduct1_InnerProduct1_0_split -> InnerProduct1_InnerProduct1_0_split_1
I1001 19:09:22.525550  5547 net.cpp:122] Setting up InnerProduct1_InnerProduct1_0_split
I1001 19:09:22.525554  5547 net.cpp:129] Top shape: 100 10 (1000)
I1001 19:09:22.525557  5547 net.cpp:129] Top shape: 100 10 (1000)
I1001 19:09:22.525559  5547 net.cpp:137] Memory required for data: 1187469200
I1001 19:09:22.525562  5547 layer_factory.hpp:77] Creating layer SoftmaxWithLoss1
I1001 19:09:22.525566  5547 net.cpp:84] Creating Layer SoftmaxWithLoss1
I1001 19:09:22.525568  5547 net.cpp:406] SoftmaxWithLoss1 <- InnerProduct1_InnerProduct1_0_split_0
I1001 19:09:22.525573  5547 net.cpp:406] SoftmaxWithLoss1 <- Data2_Data1_1_split_0
…
