…
I0924 21:06:10.818996  2642 net.cpp:294] The NetState phase (0) differed from the phase (1) specified by a rule in layer Accuracy1
I0924 21:06:10.823436  2642 net.cpp:51] Initializing net from parameters: 
name: "resnet_cifar10"
state {
  phase: TRAIN
  level: 0
  stage: ""
}
layer {
  name: "Data1"
  type: "Data"
  top: "Data1"
  top: "Data2"
  include {
    phase: TRAIN
  }
  transform_param {
    mirror: true
    crop_size: 28
    mean_file: "/home/x306/caffe/xn/PENLU/data/cifar10/mean.binaryproto"
  }
  data_param {
    source: "/home/x306/caffe/xn/PENLU/data/cifar10/cifar10_train_lmdb"
    batch_size: 100
    backend: LMDB
  }
}
layer {
  name: "Convolution1"
  type: "Convolution"
  bottom: "Data1"
  top: "Convolution1"
  param {
    lr_mult: 1
    decay_mult: 1
  }
  param {
    lr_mult: 2
    decay_mult: 0
  }
  convolution_param {
    num_output: 16
    pad: 1
    kernel_size: 3
    stride: 1
    weight_filler {
      type: "gaussian"
      std: 0.118
    }
    bias_filler {
      type: "constant"
      value: 0
    }
  }
}
layer {
  name: "BatchNorm1"
  type: "BatchNorm"
  bottom: "Convolution1"
  top: "Convolution1"
  param {
    lr_mult: 0
    decay_mult: 0
  }
  param {
    lr_mult: 0
    decay_mult: 0
  }
  param {
    lr_mult: 0
    decay_mult: 0
  }
}
layer {
  name: "Scale1"
  type: "Scale"
  bottom: "Convolution1"
  top: "Convolution1"
  scale_param {
    bias_term: true
  }
}
layer {
  name: "ReLU1"
  type: "ReLU"
  bottom: "Convolution1"
  top: "Convolution1"
}
layer {
  name: "Convolution2"
  type: "Convolution"
  bottom: "Convolution1"
  top: "Convolution2"
  param {
    lr_mult: 1
    decay_mult: 1
  }
  param {
    lr_mult: 2
    decay_mult: 0
  }
  convolution_param {
    num_output: 16
    pad: 1
    kernel_size: 3
    stride: 1
    weight_filler {
      type: "gaussian"
      std: 0.118
    }
    bias_filler {
      type: "constant"
      value: 0
    }
  }
}
layer {
  name: "BatchNorm2"
  type: "BatchNorm"
  bottom: "Convolution2"
  top: "Convolution2"
  param {
    lr_mult: 0
    decay_mult: 0
  }
  param {
    lr_mult: 0
    decay_mult: 0
  }
  param {
    lr_mult: 0
    decay_mult: 0
  }
}
layer {
  name: "Scale2"
  type: "Scale"
  bottom: "Convolution2"
  top: "Convolution2"
  scale_param {
    bias_term: true
  }
}
layer {
  name: "ReLU2"
  type: "ReLU"
  bottom: "Convolution2"
  top: "Convolution2"
}
layer {
  name: "Convolution3"
  type: "Convolution"
  bottom: "Convolution2"
  top: "Convolution3"
  param {
    lr_mult: 1
    decay_mult: 1
  }
  param {
    lr_mult: 2
    decay_mult: 0
  }
  convolution_param {
    num_output: 16
    pad: 1
    kernel_size: 3
    stride: 1
    weight_filler {
      type: "gaussian"
      std: 0.118
    }
    bias_filler {
      type: "constant"
      value: 0
    }
  }
}
layer {
  name: "BatchNorm3"
  type: "BatchNorm"
  bottom: "Convolution3"
  top: "Convolution3"
  param {
    lr_mult: 0
    decay_mult: 0
  }
  param {
    lr_mult: 0
    decay_mult: 0
  }
  param {
    lr_mult: 0
    decay_mult: 0
  }
}
layer {
  name: "Scale3"
  type: "Scale"
  bottom: "Convolution3"
  top: "Convolution3"
  scale_param {
    bias_term: true
  }
}
layer {
  name: "Eltwise1"
  type: "Eltwise"
  bottom: "Convolution1"
  bottom: "Convolution3"
  top: "Eltwise1"
  eltwise_param {
    operation: SUM
  }
}
layer {
  name: "ReLU3"
  type: "ReLU"
  bottom: "Eltwise1"
  top: "Eltwise1"
}
layer {
  name: "Convolution4"
  type: "Convolution"
  bottom: "Eltwise1"
  top: "Convolution4"
  param {
    lr_mult: 1
    decay_mult: 1
  }
  param {
    lr_mult: 2
    decay_mult: 0
  }
  convolution_param {
    num_output: 16
    pad: 1
    kernel_size: 3
    stride: 1
    weight_filler {
      type: "gaussian"
      std: 0.118
    }
    bias_filler {
      type: "constant"
      value: 0
    }
  }
}
layer {
  name: "BatchNorm4"
  type: "BatchNorm"
  bottom: "Convolution4"
  top: "Convolution4"
  param {
    lr_mult: 0
    decay_mult: 0
  }
  param {
    lr_mult: 0
    decay_mult: 0
  }
  param {
    lr_mult: 0
    decay_mult: 0
  }
}
layer {
  name: "Scale4"
  type: "Scale"
  bottom: "Convolution4"
  top: "Convolution4"
  scale_param {
    bias_term: true
  }
}
layer {
  name: "ReLU4"
  type: "ReLU"
  bottom: "Convolution4"
  top: "Convolution4"
}
layer {
  name: "Convolution5"
  type: "Convolution"
  bottom: "Convolution4"
  top: "Convolution5"
  param {
    lr_mult: 1
    decay_mult: 1
  }
  param {
    lr_mult: 2
    decay_mult: 0
  }
  convolution_param {
    num_output: 16
    pad: 1
    kernel_size: 3
    stride: 1
    weight_filler {
      type: "gaussian"
      std: 0.118
    }
    bias_filler {
      type: "constant"
      value: 0
    }
  }
}
layer {
  name: "BatchNorm5"
  type: "BatchNorm"
  bottom: "Convolution5"
  top: "Convolution5"
  param {
    lr_mult: 0
    decay_mult: 0
  }
  param {
    lr_mult: 0
    decay_mult: 0
  }
  param {
    lr_mult: 0
    decay_mult: 0
  }
}
layer {
  name: "Scale5"
  type: "Scale"
  bottom: "Convolution5"
  top: "Convolution5"
  scale_param {
    bias_term: true
  }
}
layer {
  name: "Eltwise2"
  type: "Eltwise"
  bottom: "Eltwise1"
  bottom: "Convolution5"
  top: "Eltwise2"
  eltwise_param {
    operation: SUM
  }
}
layer {
  name: "ReLU5"
  type: "ReLU"
  bottom: "Eltwise2"
  top: "Eltwise2"
}
layer {
  name: "Convolution6"
  type: "Convolution"
  bottom: "Eltwise2"
  top: "Convolution6"
  param {
    lr_mult: 1
    decay_mult: 1
  }
  param {
    lr_mult: 2
    decay_mult: 0
  }
  convolution_param {
    num_output: 16
    pad: 1
    kernel_size: 3
    stride: 1
    weight_filler {
      type: "gaussian"
      std: 0.118
    }
    bias_filler {
      type: "constant"
      value: 0
    }
  }
}
layer {
  name: "BatchNorm6"
  type: "BatchNorm"
  bottom: "Convolution6"
  top: "Convolution6"
  param {
    lr_mult: 0
    decay_mult: 0
  }
  param {
    lr_mult: 0
    decay_mult: 0
  }
  param {
    lr_mult: 0
    decay_mult: 0
  }
}
layer {
  name: "Scale6"
  type: "Scale"
  bottom: "Convolution6"
  top: "Convolution6"
  scale_param {
    bias_term: true
  }
}
layer {
  name: "ReLU6"
  type: "ReLU"
  bottom: "Convolution6"
  top: "Convolution6"
}
layer {
  name: "Convolution7"
  type: "Convolution"
  bottom: "Convolution6"
  top: "Convolution7"
  param {
    lr_mult: 1
    decay_mult: 1
  }
  param {
    lr_mult: 2
    decay_mult: 0
  }
  convolution_param {
    num_output: 16
    pad: 1
    kernel_size: 3
    stride: 1
    weight_filler {
      type: "gaussian"
      std: 0.118
    }
    bias_filler {
      type: "constant"
      value: 0
    }
  }
}
layer {
  name: "BatchNorm7"
  type: "BatchNorm"
  bottom: "Convolution7"
  top: "Convolution7"
  param {
    lr_mult: 0
    decay_mult: 0
  }
  param {
    lr_mult: 0
    decay_mult: 0
  }
  param {
    lr_mult: 0
    decay_mult: 0
  }
}
layer {
  name: "Scale7"
  type: "Scale"
  bottom: "Convolution7"
  top: "Convolution7"
  scale_param {
    bias_term: true
  }
}
layer {
  name: "Eltwise3"
  type: "Eltwise"
  bottom: "Eltwise2"
  bottom: "Convolution7"
  top: "Eltwise3"
  eltwise_param {
    operation: SUM
  }
}
layer {
  name: "ReLU7"
  type: "ReLU"
  bottom: "Eltwise3"
  top: "Eltwise3"
}
layer {
  name: "Convolution8"
  type: "Convolution"
  bottom: "Eltwise3"
  top: "Convolution8"
  param {
    lr_mult: 1
    decay_mult: 1
  }
  param {
    lr_mult: 2
    decay_mult: 0
  }
  convolution_param {
    num_output: 16
    pad: 1
    kernel_size: 3
    stride: 1
    weight_filler {
      type: "gaussian"
      std: 0.118
    }
    bias_filler {
      type: "constant"
      value: 0
    }
  }
}
layer {
  name: "BatchNorm8"
  type: "BatchNorm"
  bottom: "Convolution8"
  top: "Convolution8"
  param {
    lr_mult: 0
    decay_mult: 0
  }
  param {
    lr_mult: 0
    decay_mult: 0
  }
  param {
    lr_mult: 0
    decay_mult: 0
  }
}
layer {
  name: "Scale8"
  type: "Scale"
  bottom: "Convolution8"
  top: "Convolution8"
  scale_param {
    bias_term: true
  }
}
layer {
  name: "ReLU8"
  type: "ReLU"
  bottom: "Convolution8"
  top: "Convolution8"
}
layer {
  name: "Convolution9"
  type: "Convolution"
  bottom: "Convolution8"
  top: "Convolution9"
  param {
    lr_mult: 1
    decay_mult: 1
  }
  param {
    lr_mult: 2
    decay_mult: 0
  }
  convolution_param {
    num_output: 16
    pad: 1
    kernel_size: 3
    stride: 1
    weight_filler {
      type: "gaussian"
      std: 0.118
    }
    bias_filler {
      type: "constant"
      value: 0
    }
  }
}
layer {
  name: "BatchNorm9"
  type: "BatchNorm"
  bottom: "Convolution9"
  top: "Convolution9"
  param {
    lr_mult: 0
    decay_mult: 0
  }
  param {
    lr_mult: 0
    decay_mult: 0
  }
  param {
    lr_mult: 0
    decay_mult: 0
  }
}
layer {
  name: "Scale9"
  type: "Scale"
  bottom: "Convolution9"
  top: "Convolution9"
  scale_param {
    bias_term: true
  }
}
layer {
  name: "Eltwise4"
  type: "Eltwise"
  bottom: "Eltwise3"
  bottom: "Convolution9"
  top: "Eltwise4"
  eltwise_param {
    operation: SUM
  }
}
layer {
  name: "ReLU9"
  type: "ReLU"
  bottom: "Eltwise4"
  top: "Eltwise4"
}
layer {
  name: "Convolution10"
  type: "Convolution"
  bottom: "Eltwise4"
  top: "Convolution10"
  param {
    lr_mult: 1
    decay_mult: 1
  }
  param {
    lr_mult: 2
    decay_mult: 0
  }
  convolution_param {
    num_output: 16
    pad: 1
    kernel_size: 3
    stride: 1
    weight_filler {
      type: "gaussian"
      std: 0.118
    }
    bias_filler {
      type: "constant"
      value: 0
    }
  }
}
layer {
  name: "BatchNorm10"
  type: "BatchNorm"
  bottom: "Convolution10"
  top: "Convolution10"
  param {
    lr_mult: 0
    decay_mult: 0
  }
  param {
    lr_mult: 0
    decay_mult: 0
  }
  param {
    lr_mult: 0
    decay_mult: 0
  }
}
layer {
  name: "Scale10"
  type: "Scale"
  bottom: "Convolution10"
  top: "Convolution10"
  scale_param {
    bias_term: true
  }
}
layer {
  name: "ReLU10"
  type: "ReLU"
  bottom: "Convolution10"
  top: "Convolution10"
}
layer {
  name: "Convolution11"
  type: "Convolution"
  bottom: "Convolution10"
  top: "Convolution11"
  param {
    lr_mult: 1
    decay_mult: 1
  }
  param {
    lr_mult: 2
    decay_mult: 0
  }
  convolution_param {
    num_output: 16
    pad: 1
    kernel_size: 3
    stride: 1
    weight_filler {
      type: "gaussian"
      std: 0.118
    }
    bias_filler {
      type: "constant"
      value: 0
    }
  }
}
layer {
  name: "BatchNorm11"
  type: "BatchNorm"
  bottom: "Convolution11"
  top: "Convolution11"
  param {
    lr_mult: 0
    decay_mult: 0
  }
  param {
    lr_mult: 0
    decay_mult: 0
  }
  param {
    lr_mult: 0
    decay_mult: 0
  }
}
layer {
  name: "Scale11"
  type: "Scale"
  bottom: "Convolution11"
  top: "Convolution11"
  scale_param {
    bias_term: true
  }
}
layer {
  name: "Eltwise5"
  type: "Eltwise"
  bottom: "Eltwise4"
  bottom: "Convolution11"
  top: "Eltwise5"
  eltwise_param {
    operation: SUM
  }
}
layer {
  name: "ReLU11"
  type: "ReLU"
  bottom: "Eltwise5"
  top: "Eltwise5"
}
layer {
  name: "Convolution12"
  type: "Convolution"
  bottom: "Eltwise5"
  top: "Convolution12"
  param {
    lr_mult: 1
    decay_mult: 1
  }
  param {
    lr_mult: 2
    decay_mult: 0
  }
  convolution_param {
    num_output: 16
    pad: 1
    kernel_size: 3
    stride: 1
    weight_filler {
      type: "gaussian"
      std: 0.118
    }
    bias_filler {
      type: "constant"
      value: 0
    }
  }
}
layer {
  name: "BatchNorm12"
  type: "BatchNorm"
  bottom: "Convolution12"
  top: "Convolution12"
  param {
    lr_mult: 0
    decay_mult: 0
  }
  param {
    lr_mult: 0
    decay_mult: 0
  }
  param {
    lr_mult: 0
    decay_mult: 0
  }
}
layer {
  name: "Scale12"
  type: "Scale"
  bottom: "Convolution12"
  top: "Convolution12"
  scale_param {
    bias_term: true
  }
}
layer {
  name: "ReLU12"
  type: "ReLU"
  bottom: "Convolution12"
  top: "Convolution12"
}
layer {
  name: "Convolution13"
  type: "Convolution"
  bottom: "Convolution12"
  top: "Convolution13"
  param {
    lr_mult: 1
    decay_mult: 1
  }
  param {
    lr_mult: 2
    decay_mult: 0
  }
  convolution_param {
    num_output: 16
    pad: 1
    kernel_size: 3
    stride: 1
    weight_filler {
      type: "gaussian"
      std: 0.118
    }
    bias_filler {
      type: "constant"
      value: 0
    }
  }
}
layer {
  name: "BatchNorm13"
  type: "BatchNorm"
  bottom: "Convolution13"
  top: "Convolution13"
  param {
    lr_mult: 0
    decay_mult: 0
  }
  param {
    lr_mult: 0
    decay_mult: 0
  }
  param {
    lr_mult: 0
    decay_mult: 0
  }
}
layer {
  name: "Scale13"
  type: "Scale"
  bottom: "Convolution13"
  top: "Convolution13"
  scale_param {
    bias_term: true
  }
}
layer {
  name: "Eltwise6"
  type: "Eltwise"
  bottom: "Eltwise5"
  bottom: "Convolution13"
  top: "Eltwise6"
  eltwise_param {
    operation: SUM
  }
}
layer {
  name: "ReLU13"
  type: "ReLU"
  bottom: "Eltwise6"
  top: "Eltwise6"
}
layer {
  name: "Convolution14"
  type: "Convolution"
  bottom: "Eltwise6"
  top: "Convolution14"
  param {
    lr_mult: 1
    decay_mult: 1
  }
  param {
    lr_mult: 2
    decay_mult: 0
  }
  convolution_param {
    num_output: 16
    pad: 1
    kernel_size: 3
    stride: 1
    weight_filler {
      type: "gaussian"
      std: 0.118
    }
    bias_filler {
      type: "constant"
      value: 0
    }
  }
}
layer {
  name: "BatchNorm14"
  type: "BatchNorm"
  bottom: "Convolution14"
  top: "Convolution14"
  param {
    lr_mult: 0
    decay_mult: 0
  }
  param {
    lr_mult: 0
    decay_mult: 0
  }
  param {
    lr_mult: 0
    decay_mult: 0
  }
}
layer {
  name: "Scale14"
  type: "Scale"
  bottom: "Convolution14"
  top: "Convolution14"
  scale_param {
    bias_term: true
  }
}
layer {
  name: "ReLU14"
  type: "ReLU"
  bottom: "Convolution14"
  top: "Convolution14"
}
layer {
  name: "Convolution15"
  type: "Convolution"
  bottom: "Convolution14"
  top: "Convolution15"
  param {
    lr_mult: 1
    decay_mult: 1
  }
  param {
    lr_mult: 2
    decay_mult: 0
  }
  convolution_param {
    num_output: 16
    pad: 1
    kernel_size: 3
    stride: 1
    weight_filler {
      type: "gaussian"
      std: 0.118
    }
    bias_filler {
      type: "constant"
      value: 0
    }
  }
}
layer {
  name: "BatchNorm15"
  type: "BatchNorm"
  bottom: "Convolution15"
  top: "Convolution15"
  param {
    lr_mult: 0
    decay_mult: 0
  }
  param {
    lr_mult: 0
    decay_mult: 0
  }
  param {
    lr_mult: 0
    decay_mult: 0
  }
}
layer {
  name: "Scale15"
  type: "Scale"
  bottom: "Convolution15"
  top: "Convolution15"
  scale_param {
    bias_term: true
  }
}
layer {
  name: "Eltwise7"
  type: "Eltwise"
  bottom: "Eltwise6"
  bottom: "Convolution15"
  top: "Eltwise7"
  eltwise_param {
    operation: SUM
  }
}
layer {
  name: "ReLU15"
  type: "ReLU"
  bottom: "Eltwise7"
  top: "Eltwise7"
}
layer {
  name: "Convolution16"
  type: "Convolution"
  bottom: "Eltwise7"
  top: "Convolution16"
  param {
    lr_mult: 1
    decay_mult: 1
  }
  param {
    lr_mult: 2
    decay_mult: 0
  }
  convolution_param {
    num_output: 16
    pad: 1
    kernel_size: 3
    stride: 1
    weight_filler {
      type: "gaussian"
      std: 0.118
    }
    bias_filler {
      type: "constant"
      value: 0
    }
  }
}
layer {
  name: "BatchNorm16"
  type: "BatchNorm"
  bottom: "Convolution16"
  top: "Convolution16"
  param {
    lr_mult: 0
    decay_mult: 0
  }
  param {
    lr_mult: 0
    decay_mult: 0
  }
  param {
    lr_mult: 0
    decay_mult: 0
  }
}
layer {
  name: "Scale16"
  type: "Scale"
  bottom: "Convolution16"
  top: "Convolution16"
  scale_param {
    bias_term: true
  }
}
layer {
  name: "ReLU16"
  type: "ReLU"
  bottom: "Convolution16"
  top: "Convolution16"
}
layer {
  name: "Convolution17"
  type: "Convolution"
  bottom: "Convolution16"
  top: "Convolution17"
  param {
    lr_mult: 1
    decay_mult: 1
  }
  param {
    lr_mult: 2
    decay_mult: 0
  }
  convolution_param {
    num_output: 16
    pad: 1
    kernel_size: 3
    stride: 1
    weight_filler {
      type: "gaussian"
      std: 0.118
    }
    bias_filler {
      type: "constant"
      value: 0
    }
  }
}
layer {
  name: "BatchNorm17"
  type: "BatchNorm"
  bottom: "Convolution17"
  top: "Convolution17"
  param {
    lr_mult: 0
    decay_mult: 0
  }
  param {
    lr_mult: 0
    decay_mult: 0
  }
  param {
    lr_mult: 0
    decay_mult: 0
  }
}
layer {
  name: "Scale17"
  type: "Scale"
  bottom: "Convolution17"
  top: "Convolution17"
  scale_param {
    bias_term: true
  }
}
layer {
  name: "Eltwise8"
  type: "Eltwise"
  bottom: "Eltwise7"
  bottom: "Convolution17"
  top: "Eltwise8"
  eltwise_param {
    operation: SUM
  }
}
layer {
  name: "ReLU17"
  type: "ReLU"
  bottom: "Eltwise8"
  top: "Eltwise8"
}
layer {
  name: "Convolution18"
  type: "Convolution"
  bottom: "Eltwise8"
  top: "Convolution18"
  param {
    lr_mult: 1
    decay_mult: 1
  }
  param {
    lr_mult: 2
    decay_mult: 0
  }
  convolution_param {
    num_output: 16
    pad: 1
    kernel_size: 3
    stride: 1
    weight_filler {
      type: "gaussian"
      std: 0.118
    }
    bias_filler {
      type: "constant"
      value: 0
    }
  }
}
layer {
  name: "BatchNorm18"
  type: "BatchNorm"
  bottom: "Convolution18"
  top: "Convolution18"
  param {
    lr_mult: 0
    decay_mult: 0
  }
  param {
    lr_mult: 0
    decay_mult: 0
  }
  param {
    lr_mult: 0
    decay_mult: 0
  }
}
layer {
  name: "Scale18"
  type: "Scale"
  bottom: "Convolution18"
  top: "Convolution18"
  scale_param {
    bias_term: true
  }
}
layer {
  name: "ReLU18"
  type: "ReLU"
  bottom: "Convolution18"
  top: "Convolution18"
}
layer {
  name: "Convolution19"
  type: "Convolution"
  bottom: "Convolution18"
  top: "Convolution19"
  param {
    lr_mult: 1
    decay_mult: 1
  }
  param {
    lr_mult: 2
    decay_mult: 0
  }
  convolution_param {
    num_output: 16
    pad: 1
    kernel_size: 3
    stride: 1
    weight_filler {
      type: "gaussian"
      std: 0.118
    }
    bias_filler {
      type: "constant"
      value: 0
    }
  }
}
layer {
  name: "BatchNorm19"
  type: "BatchNorm"
  bottom: "Convolution19"
  top: "Convolution19"
  param {
    lr_mult: 0
    decay_mult: 0
  }
  param {
    lr_mult: 0
    decay_mult: 0
  }
  param {
    lr_mult: 0
    decay_mult: 0
  }
}
layer {
  name: "Scale19"
  type: "Scale"
  bottom: "Convolution19"
  top: "Convolution19"
  scale_param {
    bias_term: true
  }
}
layer {
  name: "Eltwise9"
  type: "Eltwise"
  bottom: "Eltwise8"
  bottom: "Convolution19"
  top: "Eltwise9"
  eltwise_param {
    operation: SUM
  }
}
layer {
  name: "ReLU19"
  type: "ReLU"
  bottom: "Eltwise9"
  top: "Eltwise9"
}
layer {
  name: "Convolution20"
  type: "Convolution"
  bottom: "Eltwise9"
  top: "Convolution20"
  param {
    lr_mult: 1
    decay_mult: 1
  }
  param {
    lr_mult: 2
    decay_mult: 0
  }
  convolution_param {
    num_output: 32
    pad: 0
    kernel_size: 1
    stride: 2
    weight_filler {
      type: "gaussian"
      std: 0.25
    }
    bias_filler {
      type: "constant"
      value: 0
    }
  }
}
layer {
  name: "BatchNorm20"
  type: "BatchNorm"
  bottom: "Convolution20"
  top: "Convolution20"
  param {
    lr_mult: 0
    decay_mult: 0
  }
  param {
    lr_mult: 0
    decay_mult: 0
  }
  param {
    lr_mult: 0
    decay_mult: 0
  }
}
layer {
  name: "Scale20"
  type: "Scale"
  bottom: "Convolution20"
  top: "Convolution20"
  scale_param {
    bias_term: true
  }
}
layer {
  name: "Convolution21"
  type: "Convolution"
  bottom: "Eltwise9"
  top: "Convolution21"
  param {
    lr_mult: 1
    decay_mult: 1
  }
  param {
    lr_mult: 2
    decay_mult: 0
  }
  convolution_param {
    num_output: 32
    pad: 1
    kernel_size: 3
    stride: 2
    weight_filler {
      type: "gaussian"
      std: 0.083
    }
    bias_filler {
      type: "constant"
      value: 0
    }
  }
}
layer {
  name: "BatchNorm21"
  type: "BatchNorm"
  bottom: "Convolution21"
  top: "Convolution21"
  param {
    lr_mult: 0
    decay_mult: 0
  }
  param {
    lr_mult: 0
    decay_mult: 0
  }
  param {
    lr_mult: 0
    decay_mult: 0
  }
}
layer {
  name: "Scale21"
  type: "Scale"
  bottom: "Convolution21"
  top: "Convolution21"
  scale_param {
    bias_term: true
  }
}
layer {
  name: "ReLU20"
  type: "ReLU"
  bottom: "Convolution21"
  top: "Convolution21"
}
layer {
  name: "Convolution22"
  type: "Convolution"
  bottom: "Convolution21"
  top: "Convolution22"
  param {
    lr_mult: 1
    decay_mult: 1
  }
  param {
    lr_mult: 2
    decay_mult: 0
  }
  convolution_param {
    num_output: 32
    pad: 1
    kernel_size: 3
    stride: 1
    weight_filler {
      type: "gaussian"
      std: 0.083
    }
    bias_filler {
      type: "constant"
      value: 0
    }
  }
}
layer {
  name: "BatchNorm22"
  type: "BatchNorm"
  bottom: "Convolution22"
  top: "Convolution22"
  param {
    lr_mult: 0
    decay_mult: 0
  }
  param {
    lr_mult: 0
    decay_mult: 0
  }
  param {
    lr_mult: 0
    decay_mult: 0
  }
}
layer {
  name: "Scale22"
  type: "Scale"
  bottom: "Convolution22"
  top: "Convolution22"
  scale_param {
    bias_term: true
  }
}
layer {
  name: "Eltwise10"
  type: "Eltwise"
  bottom: "Convolution20"
  bottom: "Convolution22"
  top: "Eltwise10"
  eltwise_param {
    operation: SUM
  }
}
layer {
  name: "ReLU21"
  type: "ReLU"
  bottom: "Eltwise10"
  top: "Eltwise10"
}
layer {
  name: "Convolution23"
  type: "Convolution"
  bottom: "Eltwise10"
  top: "Convolution23"
  param {
    lr_mult: 1
    decay_mult: 1
  }
  param {
    lr_mult: 2
    decay_mult: 0
  }
  convolution_param {
    num_output: 32
    pad: 1
    kernel_size: 3
    stride: 1
    weight_filler {
      type: "gaussian"
      std: 0.083
    }
    bias_filler {
      type: "constant"
      value: 0
    }
  }
}
layer {
  name: "BatchNorm23"
  type: "BatchNorm"
  bottom: "Convolution23"
  top: "Convolution23"
  param {
    lr_mult: 0
    decay_mult: 0
  }
  param {
    lr_mult: 0
    decay_mult: 0
  }
  param {
    lr_mult: 0
    decay_mult: 0
  }
}
layer {
  name: "Scale23"
  type: "Scale"
  bottom: "Convolution23"
  top: "Convolution23"
  scale_param {
    bias_term: true
  }
}
layer {
  name: "ReLU22"
  type: "ReLU"
  bottom: "Convolution23"
  top: "Convolution23"
}
layer {
  name: "Convolution24"
  type: "Convolution"
  bottom: "Convolution23"
  top: "Convolution24"
  param {
    lr_mult: 1
    decay_mult: 1
  }
  param {
    lr_mult: 2
    decay_mult: 0
  }
  convolution_param {
    num_output: 32
    pad: 1
    kernel_size: 3
    stride: 1
    weight_filler {
      type: "gaussian"
      std: 0.083
    }
    bias_filler {
      type: "constant"
      value: 0
    }
  }
}
layer {
  name: "BatchNorm24"
  type: "BatchNorm"
  bottom: "Convolution24"
  top: "Convolution24"
  param {
    lr_mult: 0
    decay_mult: 0
  }
  param {
    lr_mult: 0
    decay_mult: 0
  }
  param {
    lr_mult: 0
    decay_mult: 0
  }
}
layer {
  name: "Scale24"
  type: "Scale"
  bottom: "Convolution24"
  top: "Convolution24"
  scale_param {
    bias_term: true
  }
}
layer {
  name: "Eltwise11"
  type: "Eltwise"
  bottom: "Eltwise10"
  bottom: "Convolution24"
  top: "Eltwise11"
  eltwise_param {
    operation: SUM
  }
}
layer {
  name: "ReLU23"
  type: "ReLU"
  bottom: "Eltwise11"
  top: "Eltwise11"
}
layer {
  name: "Convolution25"
  type: "Convolution"
  bottom: "Eltwise11"
  top: "Convolution25"
  param {
    lr_mult: 1
    decay_mult: 1
  }
  param {
    lr_mult: 2
    decay_mult: 0
  }
  convolution_param {
    num_output: 32
    pad: 1
    kernel_size: 3
    stride: 1
    weight_filler {
      type: "gaussian"
      std: 0.083
    }
    bias_filler {
      type: "constant"
      value: 0
    }
  }
}
layer {
  name: "BatchNorm25"
  type: "BatchNorm"
  bottom: "Convolution25"
  top: "Convolution25"
  param {
    lr_mult: 0
    decay_mult: 0
  }
  param {
    lr_mult: 0
    decay_mult: 0
  }
  param {
    lr_mult: 0
    decay_mult: 0
  }
}
layer {
  name: "Scale25"
  type: "Scale"
  bottom: "Convolution25"
  top: "Convolution25"
  scale_param {
    bias_term: true
  }
}
layer {
  name: "ReLU24"
  type: "ReLU"
  bottom: "Convolution25"
  top: "Convolution25"
}
layer {
  name: "Convolution26"
  type: "Convolution"
  bottom: "Convolution25"
  top: "Convolution26"
  param {
    lr_mult: 1
    decay_mult: 1
  }
  param {
    lr_mult: 2
    decay_mult: 0
  }
  convolution_param {
    num_output: 32
    pad: 1
    kernel_size: 3
    stride: 1
    weight_filler {
      type: "gaussian"
      std: 0.083
    }
    bias_filler {
      type: "constant"
      value: 0
    }
  }
}
layer {
  name: "BatchNorm26"
  type: "BatchNorm"
  bottom: "Convolution26"
  top: "Convolution26"
  param {
    lr_mult: 0
    decay_mult: 0
  }
  param {
    lr_mult: 0
    decay_mult: 0
  }
  param {
    lr_mult: 0
    decay_mult: 0
  }
}
layer {
  name: "Scale26"
  type: "Scale"
  bottom: "Convolution26"
  top: "Convolution26"
  scale_param {
    bias_term: true
  }
}
layer {
  name: "Eltwise12"
  type: "Eltwise"
  bottom: "Eltwise11"
  bottom: "Convolution26"
  top: "Eltwise12"
  eltwise_param {
    operation: SUM
  }
}
layer {
  name: "ReLU25"
  type: "ReLU"
  bottom: "Eltwise12"
  top: "Eltwise12"
}
layer {
  name: "Convolution27"
  type: "Convolution"
  bottom: "Eltwise12"
  top: "Convolution27"
  param {
    lr_mult: 1
    decay_mult: 1
  }
  param {
    lr_mult: 2
    decay_mult: 0
  }
  convolution_param {
    num_output: 32
    pad: 1
    kernel_size: 3
    stride: 1
    weight_filler {
      type: "gaussian"
      std: 0.083
    }
    bias_filler {
      type: "constant"
      value: 0
    }
  }
}
layer {
  name: "BatchNorm27"
  type: "BatchNorm"
  bottom: "Convolution27"
  top: "Convolution27"
  param {
    lr_mult: 0
    decay_mult: 0
  }
  param {
    lr_mult: 0
    decay_mult: 0
  }
  param {
    lr_mult: 0
    decay_mult: 0
  }
}
layer {
  name: "Scale27"
  type: "Scale"
  bottom: "Convolution27"
  top: "Convolution27"
  scale_param {
    bias_term: true
  }
}
layer {
  name: "ReLU26"
  type: "ReLU"
  bottom: "Convolution27"
  top: "Convolution27"
}
layer {
  name: "Convolution28"
  type: "Convolution"
  bottom: "Convolution27"
  top: "Convolution28"
  param {
    lr_mult: 1
    decay_mult: 1
  }
  param {
    lr_mult: 2
    decay_mult: 0
  }
  convolution_param {
    num_output: 32
    pad: 1
    kernel_size: 3
    stride: 1
    weight_filler {
      type: "gaussian"
      std: 0.083
    }
    bias_filler {
      type: "constant"
      value: 0
    }
  }
}
layer {
  name: "BatchNorm28"
  type: "BatchNorm"
  bottom: "Convolution28"
  top: "Convolution28"
  param {
    lr_mult: 0
    decay_mult: 0
  }
  param {
    lr_mult: 0
    decay_mult: 0
  }
  param {
    lr_mult: 0
    decay_mult: 0
  }
}
layer {
  name: "Scale28"
  type: "Scale"
  bottom: "Convolution28"
  top: "Convolution28"
  scale_param {
    bias_term: true
  }
}
layer {
  name: "Eltwise13"
  type: "Eltwise"
  bottom: "Eltwise12"
  bottom: "Convolution28"
  top: "Eltwise13"
  eltwise_param {
    operation: SUM
  }
}
layer {
  name: "ReLU27"
  type: "ReLU"
  bottom: "Eltwise13"
  top: "Eltwise13"
}
layer {
  name: "Convolution29"
  type: "Convolution"
  bottom: "Eltwise13"
  top: "Convolution29"
  param {
    lr_mult: 1
    decay_mult: 1
  }
  param {
    lr_mult: 2
    decay_mult: 0
  }
  convolution_param {
    num_output: 32
    pad: 1
    kernel_size: 3
    stride: 1
    weight_filler {
      type: "gaussian"
      std: 0.083
    }
    bias_filler {
      type: "constant"
      value: 0
    }
  }
}
layer {
  name: "BatchNorm29"
  type: "BatchNorm"
  bottom: "Convolution29"
  top: "Convolution29"
  param {
    lr_mult: 0
    decay_mult: 0
  }
  param {
    lr_mult: 0
    decay_mult: 0
  }
  param {
    lr_mult: 0
    decay_mult: 0
  }
}
layer {
  name: "Scale29"
  type: "Scale"
  bottom: "Convolution29"
  top: "Convolution29"
  scale_param {
    bias_term: true
  }
}
layer {
  name: "ReLU28"
  type: "ReLU"
  bottom: "Convolution29"
  top: "Convolution29"
}
layer {
  name: "Convolution30"
  type: "Convolution"
  bottom: "Convolution29"
  top: "Convolution30"
  param {
    lr_mult: 1
    decay_mult: 1
  }
  param {
    lr_mult: 2
    decay_mult: 0
  }
  convolution_param {
    num_output: 32
    pad: 1
    kernel_size: 3
    stride: 1
    weight_filler {
      type: "gaussian"
      std: 0.083
    }
    bias_filler {
      type: "constant"
      value: 0
    }
  }
}
layer {
  name: "BatchNorm30"
  type: "BatchNorm"
  bottom: "Convolution30"
  top: "Convolution30"
  param {
    lr_mult: 0
    decay_mult: 0
  }
  param {
    lr_mult: 0
    decay_mult: 0
  }
  param {
    lr_mult: 0
    decay_mult: 0
  }
}
layer {
  name: "Scale30"
  type: "Scale"
  bottom: "Convolution30"
  top: "Convolution30"
  scale_param {
    bias_term: true
  }
}
layer {
  name: "Eltwise14"
  type: "Eltwise"
  bottom: "Eltwise13"
  bottom: "Convolution30"
  top: "Eltwise14"
  eltwise_param {
    operation: SUM
  }
}
layer {
  name: "ReLU29"
  type: "ReLU"
  bottom: "Eltwise14"
  top: "Eltwise14"
}
layer {
  name: "Convolution31"
  type: "Convolution"
  bottom: "Eltwise14"
  top: "Convolution31"
  param {
    lr_mult: 1
    decay_mult: 1
  }
  param {
    lr_mult: 2
    decay_mult: 0
  }
  convolution_param {
    num_output: 32
    pad: 1
    kernel_size: 3
    stride: 1
    weight_filler {
      type: "gaussian"
      std: 0.083
    }
    bias_filler {
      type: "constant"
      value: 0
    }
  }
}
layer {
  name: "BatchNorm31"
  type: "BatchNorm"
  bottom: "Convolution31"
  top: "Convolution31"
  param {
    lr_mult: 0
    decay_mult: 0
  }
  param {
    lr_mult: 0
    decay_mult: 0
  }
  param {
    lr_mult: 0
    decay_mult: 0
  }
}
layer {
  name: "Scale31"
  type: "Scale"
  bottom: "Convolution31"
  top: "Convolution31"
  scale_param {
    bias_term: true
  }
}
layer {
  name: "ReLU30"
  type: "ReLU"
  bottom: "Convolution31"
  top: "Convolution31"
}
layer {
  name: "Convolution32"
  type: "Convolution"
  bottom: "Convolution31"
  top: "Convolution32"
  param {
    lr_mult: 1
    decay_mult: 1
  }
  param {
    lr_mult: 2
    decay_mult: 0
  }
  convolution_param {
    num_output: 32
    pad: 1
    kernel_size: 3
    stride: 1
    weight_filler {
      type: "gaussian"
      std: 0.083
    }
    bias_filler {
      type: "c
I0924 21:06:10.825698  2642 layer_factory.hpp:77] Creating layer Data1
I0924 21:06:10.886000  2642 db_lmdb.cpp:35] Opened lmdb /home/x306/caffe/xn/PENLU/data/cifar10/cifar10_train_lmdb
I0924 21:06:10.907925  2642 net.cpp:84] Creating Layer Data1
I0924 21:06:10.907939  2642 net.cpp:380] Data1 -> Data1
I0924 21:06:10.921319  2642 net.cpp:380] Data1 -> Data2
I0924 21:06:10.921337  2642 data_transformer.cpp:25] Loading mean file from: /home/x306/caffe/xn/PENLU/data/cifar10/mean.binaryproto
I0924 21:06:10.923339  2642 data_layer.cpp:45] output data size: 100,3,28,28
I0924 21:06:10.925916  2642 net.cpp:122] Setting up Data1
I0924 21:06:10.925935  2642 net.cpp:129] Top shape: 100 3 28 28 (235200)
I0924 21:06:10.925940  2642 net.cpp:129] Top shape: 100 (100)
I0924 21:06:10.925942  2642 net.cpp:137] Memory required for data: 941200
I0924 21:06:10.925951  2642 layer_factory.hpp:77] Creating layer Convolution1
I0924 21:06:10.926544  2642 net.cpp:84] Creating Layer Convolution1
I0924 21:06:10.926556  2642 net.cpp:406] Convolution1 <- Data1
I0924 21:06:10.926568  2642 net.cpp:380] Convolution1 -> Convolution1
I0924 21:06:13.593547  2642 net.cpp:122] Setting up Convolution1
I0924 21:06:13.593576  2642 net.cpp:129] Top shape: 100 16 28 28 (1254400)
I0924 21:06:13.593581  2642 net.cpp:137] Memory required for data: 5958800
I0924 21:06:13.593600  2642 layer_factory.hpp:77] Creating layer BatchNorm1
I0924 21:06:13.593612  2642 net.cpp:84] Creating Layer BatchNorm1
I0924 21:06:13.593618  2642 net.cpp:406] BatchNorm1 <- Convolution1
I0924 21:06:13.593642  2642 net.cpp:367] BatchNorm1 -> Convolution1 (in-place)
I0924 21:06:13.593828  2642 net.cpp:122] Setting up BatchNorm1
I0924 21:06:13.593837  2642 net.cpp:129] Top shape: 100 16 28 28 (1254400)
I0924 21:06:13.593840  2642 net.cpp:137] Memory required for data: 10976400
I0924 21:06:13.593852  2642 layer_factory.hpp:77] Creating layer Scale1
I0924 21:06:13.593863  2642 net.cpp:84] Creating Layer Scale1
I0924 21:06:13.593868  2642 net.cpp:406] Scale1 <- Convolution1
I0924 21:06:13.593873  2642 net.cpp:367] Scale1 -> Convolution1 (in-place)
I0924 21:06:13.593916  2642 layer_factory.hpp:77] Creating layer Scale1
I0924 21:06:13.611248  2642 net.cpp:122] Setting up Scale1
I0924 21:06:13.611260  2642 net.cpp:129] Top shape: 100 16 28 28 (1254400)
I0924 21:06:13.611263  2642 net.cpp:137] Memory required for data: 15994000
I0924 21:06:13.611268  2642 layer_factory.hpp:77] Creating layer ReLU1
I0924 21:06:13.611275  2642 net.cpp:84] Creating Layer ReLU1
I0924 21:06:13.611279  2642 net.cpp:406] ReLU1 <- Convolution1
I0924 21:06:13.611282  2642 net.cpp:367] ReLU1 -> Convolution1 (in-place)
I0924 21:06:13.611423  2642 net.cpp:122] Setting up ReLU1
I0924 21:06:13.611433  2642 net.cpp:129] Top shape: 100 16 28 28 (1254400)
I0924 21:06:13.611435  2642 net.cpp:137] Memory required for data: 21011600
I0924 21:06:13.611438  2642 layer_factory.hpp:77] Creating layer Convolution1_ReLU1_0_split
I0924 21:06:13.615128  2642 net.cpp:84] Creating Layer Convolution1_ReLU1_0_split
I0924 21:06:13.615139  2642 net.cpp:406] Convolution1_ReLU1_0_split <- Convolution1
I0924 21:06:13.615142  2642 net.cpp:380] Convolution1_ReLU1_0_split -> Convolution1_ReLU1_0_split_0
I0924 21:06:13.615149  2642 net.cpp:380] Convolution1_ReLU1_0_split -> Convolution1_ReLU1_0_split_1
I0924 21:06:13.615185  2642 net.cpp:122] Setting up Convolution1_ReLU1_0_split
I0924 21:06:13.615196  2642 net.cpp:129] Top shape: 100 16 28 28 (1254400)
I0924 21:06:13.615203  2642 net.cpp:129] Top shape: 100 16 28 28 (1254400)
I0924 21:06:13.615206  2642 net.cpp:137] Memory required for data: 31046800
I0924 21:06:13.615208  2642 layer_factory.hpp:77] Creating layer Convolution2
I0924 21:06:13.615217  2642 net.cpp:84] Creating Layer Convolution2
I0924 21:06:13.615221  2642 net.cpp:406] Convolution2 <- Convolution1_ReLU1_0_split_0
I0924 21:06:13.615226  2642 net.cpp:380] Convolution2 -> Convolution2
I0924 21:06:13.632261  2642 net.cpp:122] Setting up Convolution2
I0924 21:06:13.632273  2642 net.cpp:129] Top shape: 100 16 28 28 (1254400)
I0924 21:06:13.632277  2642 net.cpp:137] Memory required for data: 36064400
I0924 21:06:13.632284  2642 layer_factory.hpp:77] Creating layer BatchNorm2
I0924 21:06:13.632290  2642 net.cpp:84] Creating Layer BatchNorm2
I0924 21:06:13.632293  2642 net.cpp:406] BatchNorm2 <- Convolution2
I0924 21:06:13.632297  2642 net.cpp:367] BatchNorm2 -> Convolution2 (in-place)
I0924 21:06:13.632441  2642 net.cpp:122] Setting up BatchNorm2
I0924 21:06:13.632449  2642 net.cpp:129] Top shape: 100 16 28 28 (1254400)
I0924 21:06:13.632452  2642 net.cpp:137] Memory required for data: 41082000
I0924 21:06:13.632457  2642 layer_factory.hpp:77] Creating layer Scale2
I0924 21:06:13.632463  2642 net.cpp:84] Creating Layer Scale2
I0924 21:06:13.632467  2642 net.cpp:406] Scale2 <- Convolution2
I0924 21:06:13.632472  2642 net.cpp:367] Scale2 -> Convolution2 (in-place)
I0924 21:06:13.632509  2642 layer_factory.hpp:77] Creating layer Scale2
I0924 21:06:13.632596  2642 net.cpp:122] Setting up Scale2
I0924 21:06:13.632603  2642 net.cpp:129] Top shape: 100 16 28 28 (1254400)
I0924 21:06:13.632606  2642 net.cpp:137] Memory required for data: 46099600
I0924 21:06:13.632611  2642 layer_factory.hpp:77] Creating layer ReLU2
I0924 21:06:13.632616  2642 net.cpp:84] Creating Layer ReLU2
I0924 21:06:13.632617  2642 net.cpp:406] ReLU2 <- Convolution2
I0924 21:06:13.632622  2642 net.cpp:367] ReLU2 -> Convolution2 (in-place)
I0924 21:06:13.633116  2642 net.cpp:122] Setting up ReLU2
I0924 21:06:13.633126  2642 net.cpp:129] Top shape: 100 16 28 28 (1254400)
I0924 21:06:13.633138  2642 net.cpp:137] Memory required for data: 51117200
I0924 21:06:13.633142  2642 layer_factory.hpp:77] Creating layer Convolution3
I0924 21:06:13.633152  2642 net.cpp:84] Creating Layer Convolution3
I0924 21:06:13.633159  2642 net.cpp:406] Convolution3 <- Convolution2
I0924 21:06:13.633167  2642 net.cpp:380] Convolution3 -> Convolution3
I0924 21:06:13.633705  2642 net.cpp:122] Setting up Convolution3
I0924 21:06:13.633714  2642 net.cpp:129] Top shape: 100 16 28 28 (1254400)
I0924 21:06:13.633728  2642 net.cpp:137] Memory required for data: 56134800
I0924 21:06:13.633733  2642 layer_factory.hpp:77] Creating layer BatchNorm3
I0924 21:06:13.633738  2642 net.cpp:84] Creating Layer BatchNorm3
I0924 21:06:13.633744  2642 net.cpp:406] BatchNorm3 <- Convolution3
I0924 21:06:13.633764  2642 net.cpp:367] BatchNorm3 -> Convolution3 (in-place)
I0924 21:06:13.633904  2642 net.cpp:122] Setting up BatchNorm3
I0924 21:06:13.633911  2642 net.cpp:129] Top shape: 100 16 28 28 (1254400)
I0924 21:06:13.633924  2642 net.cpp:137] Memory required for data: 61152400
I0924 21:06:13.633930  2642 layer_factory.hpp:77] Creating layer Scale3
I0924 21:06:13.633945  2642 net.cpp:84] Creating Layer Scale3
I0924 21:06:13.633949  2642 net.cpp:406] Scale3 <- Convolution3
I0924 21:06:13.633952  2642 net.cpp:367] Scale3 -> Convolution3 (in-place)
I0924 21:06:13.634006  2642 layer_factory.hpp:77] Creating layer Scale3
I0924 21:06:13.634100  2642 net.cpp:122] Setting up Scale3
I0924 21:06:13.634106  2642 net.cpp:129] Top shape: 100 16 28 28 (1254400)
I0924 21:06:13.634110  2642 net.cpp:137] Memory required for data: 66170000
I0924 21:06:13.634117  2642 layer_factory.hpp:77] Creating layer Eltwise1
I0924 21:06:13.634125  2642 net.cpp:84] Creating Layer Eltwise1
I0924 21:06:13.634143  2642 net.cpp:406] Eltwise1 <- Convolution1_ReLU1_0_split_1
I0924 21:06:13.634150  2642 net.cpp:406] Eltwise1 <- Convolution3
I0924 21:06:13.634157  2642 net.cpp:380] Eltwise1 -> Eltwise1
I0924 21:06:13.634203  2642 net.cpp:122] Setting up Eltwise1
I0924 21:06:13.634218  2642 net.cpp:129] Top shape: 100 16 28 28 (1254400)
I0924 21:06:13.634222  2642 net.cpp:137] Memory required for data: 71187600
I0924 21:06:13.634234  2642 layer_factory.hpp:77] Creating layer ReLU3
I0924 21:06:13.634239  2642 net.cpp:84] Creating Layer ReLU3
I0924 21:06:13.634243  2642 net.cpp:406] ReLU3 <- Eltwise1
I0924 21:06:13.634250  2642 net.cpp:367] ReLU3 -> Eltwise1 (in-place)
I0924 21:06:13.634698  2642 net.cpp:122] Setting up ReLU3
I0924 21:06:13.634708  2642 net.cpp:129] Top shape: 100 16 28 28 (1254400)
I0924 21:06:13.634711  2642 net.cpp:137] Memory required for data: 76205200
I0924 21:06:13.634714  2642 layer_factory.hpp:77] Creating layer Eltwise1_ReLU3_0_split
I0924 21:06:13.634719  2642 net.cpp:84] Creating Layer Eltwise1_ReLU3_0_split
I0924 21:06:13.634722  2642 net.cpp:406] Eltwise1_ReLU3_0_split <- Eltwise1
I0924 21:06:13.634727  2642 net.cpp:380] Eltwise1_ReLU3_0_split -> Eltwise1_ReLU3_0_split_0
I0924 21:06:13.634732  2642 net.cpp:380] Eltwise1_ReLU3_0_split -> Eltwise1_ReLU3_0_split_1
I0924 21:06:13.634759  2642 net.cpp:122] Setting up Eltwise1_ReLU3_0_split
I0924 21:06:13.634764  2642 net.cpp:129] Top shape: 100 16 28 28 (1254400)
I0924 21:06:13.634768  2642 net.cpp:129] Top shape: 100 16 28 28 (1254400)
I0924 21:06:13.634770  2642 net.cpp:137] Memory required for data: 86240400
I0924 21:06:13.634773  2642 layer_factory.hpp:77] Creating layer Convolution4
I0924 21:06:13.634781  2642 net.cpp:84] Creating Layer Convolution4
I0924 21:06:13.634784  2642 net.cpp:406] Convolution4 <- Eltwise1_ReLU3_0_split_0
I0924 21:06:13.634788  2642 net.cpp:380] Convolution4 -> Convolution4
I0924 21:06:13.635651  2642 net.cpp:122] Setting up Convolution4
I0924 21:06:13.635661  2642 net.cpp:129] Top shape: 100 16 28 28 (1254400)
I0924 21:06:13.635665  2642 net.cpp:137] Memory required for data: 91258000
I0924 21:06:13.635670  2642 layer_factory.hpp:77] Creating layer BatchNorm4
I0924 21:06:13.635675  2642 net.cpp:84] Creating Layer BatchNorm4
I0924 21:06:13.635679  2642 net.cpp:406] BatchNorm4 <- Convolution4
I0924 21:06:13.635690  2642 net.cpp:367] BatchNorm4 -> Convolution4 (in-place)
I0924 21:06:13.635818  2642 net.cpp:122] Setting up BatchNorm4
I0924 21:06:13.635823  2642 net.cpp:129] Top shape: 100 16 28 28 (1254400)
I0924 21:06:13.635826  2642 net.cpp:137] Memory required for data: 96275600
I0924 21:06:13.635831  2642 layer_factory.hpp:77] Creating layer Scale4
I0924 21:06:13.635836  2642 net.cpp:84] Creating Layer Scale4
I0924 21:06:13.635839  2642 net.cpp:406] Scale4 <- Convolution4
I0924 21:06:13.635843  2642 net.cpp:367] Scale4 -> Convolution4 (in-place)
I0924 21:06:13.635869  2642 layer_factory.hpp:77] Creating layer Scale4
I0924 21:06:13.635941  2642 net.cpp:122] Setting up Scale4
I0924 21:06:13.635946  2642 net.cpp:129] Top shape: 100 16 28 28 (1254400)
I0924 21:06:13.635949  2642 net.cpp:137] Memory required for data: 101293200
I0924 21:06:13.635953  2642 layer_factory.hpp:77] Creating layer ReLU4
I0924 21:06:13.635957  2642 net.cpp:84] Creating Layer ReLU4
I0924 21:06:13.635960  2642 net.cpp:406] ReLU4 <- Convolution4
I0924 21:06:13.635964  2642 net.cpp:367] ReLU4 -> Convolution4 (in-place)
I0924 21:06:13.636082  2642 net.cpp:122] Setting up ReLU4
I0924 21:06:13.636090  2642 net.cpp:129] Top shape: 100 16 28 28 (1254400)
I0924 21:06:13.636092  2642 net.cpp:137] Memory required for data: 106310800
I0924 21:06:13.636095  2642 layer_factory.hpp:77] Creating layer Convolution5
I0924 21:06:13.636103  2642 net.cpp:84] Creating Layer Convolution5
I0924 21:06:13.636107  2642 net.cpp:406] Convolution5 <- Convolution4
I0924 21:06:13.636111  2642 net.cpp:380] Convolution5 -> Convolution5
I0924 21:06:13.637006  2642 net.cpp:122] Setting up Convolution5
I0924 21:06:13.637017  2642 net.cpp:129] Top shape: 100 16 28 28 (1254400)
I0924 21:06:13.637019  2642 net.cpp:137] Memory required for data: 111328400
I0924 21:06:13.637024  2642 layer_factory.hpp:77] Creating layer BatchNorm5
I0924 21:06:13.637029  2642 net.cpp:84] Creating Layer BatchNorm5
I0924 21:06:13.637033  2642 net.cpp:406] BatchNorm5 <- Convolution5
I0924 21:06:13.637039  2642 net.cpp:367] BatchNorm5 -> Convolution5 (in-place)
I0924 21:06:13.637169  2642 net.cpp:122] Setting up BatchNorm5
I0924 21:06:13.637174  2642 net.cpp:129] Top shape: 100 16 28 28 (1254400)
I0924 21:06:13.637177  2642 net.cpp:137] Memory required for data: 116346000
I0924 21:06:13.637187  2642 layer_factory.hpp:77] Creating layer Scale5
I0924 21:06:13.637192  2642 net.cpp:84] Creating Layer Scale5
I0924 21:06:13.637194  2642 net.cpp:406] Scale5 <- Convolution5
I0924 21:06:13.637197  2642 net.cpp:367] Scale5 -> Convolution5 (in-place)
I0924 21:06:13.637225  2642 layer_factory.hpp:77] Creating layer Scale5
I0924 21:06:13.637303  2642 net.cpp:122] Setting up Scale5
I0924 21:06:13.637308  2642 net.cpp:129] Top shape: 100 16 28 28 (1254400)
I0924 21:06:13.637311  2642 net.cpp:137] Memory required for data: 121363600
I0924 21:06:13.637315  2642 layer_factory.hpp:77] Creating layer Eltwise2
I0924 21:06:13.637320  2642 net.cpp:84] Creating Layer Eltwise2
I0924 21:06:13.637323  2642 net.cpp:406] Eltwise2 <- Eltwise1_ReLU3_0_split_1
I0924 21:06:13.637326  2642 net.cpp:406] Eltwise2 <- Convolution5
I0924 21:06:13.637331  2642 net.cpp:380] Eltwise2 -> Eltwise2
I0924 21:06:13.637346  2642 net.cpp:122] Setting up Eltwise2
I0924 21:06:13.637351  2642 net.cpp:129] Top shape: 100 16 28 28 (1254400)
I0924 21:06:13.637353  2642 net.cpp:137] Memory required for data: 126381200
I0924 21:06:13.637356  2642 layer_factory.hpp:77] Creating layer ReLU5
I0924 21:06:13.637359  2642 net.cpp:84] Creating Layer ReLU5
I0924 21:06:13.637362  2642 net.cpp:406] ReLU5 <- Eltwise2
I0924 21:06:13.637365  2642 net.cpp:367] ReLU5 -> Eltwise2 (in-place)
I0924 21:06:13.637482  2642 net.cpp:122] Setting up ReLU5
I0924 21:06:13.637490  2642 net.cpp:129] Top shape: 100 16 28 28 (1254400)
I0924 21:06:13.637493  2642 net.cpp:137] Memory required for data: 131398800
I0924 21:06:13.637495  2642 layer_factory.hpp:77] Creating layer Eltwise2_ReLU5_0_split
I0924 21:06:13.637501  2642 net.cpp:84] Creating Layer Eltwise2_ReLU5_0_split
I0924 21:06:13.637509  2642 net.cpp:406] Eltwise2_ReLU5_0_split <- Eltwise2
I0924 21:06:13.637513  2642 net.cpp:380] Eltwise2_ReLU5_0_split -> Eltwise2_ReLU5_0_split_0
I0924 21:06:13.637518  2642 net.cpp:380] Eltwise2_ReLU5_0_split -> Eltwise2_ReLU5_0_split_1
I0924 21:06:13.637547  2642 net.cpp:122] Setting up Eltwise2_ReLU5_0_split
I0924 21:06:13.637552  2642 net.cpp:129] Top shape: 100 16 28 28 (1254400)
I0924 21:06:13.637554  2642 net.cpp:129] Top shape: 100 16 28 28 (1254400)
I0924 21:06:13.637557  2642 net.cpp:137] Memory required for data: 141434000
I0924 21:06:13.637560  2642 layer_factory.hpp:77] Creating layer Convolution6
I0924 21:06:13.637567  2642 net.cpp:84] Creating Layer Convolution6
I0924 21:06:13.637570  2642 net.cpp:406] Convolution6 <- Eltwise2_ReLU5_0_split_0
I0924 21:06:13.637575  2642 net.cpp:380] Convolution6 -> Convolution6
I0924 21:06:13.638468  2642 net.cpp:122] Setting up Convolution6
I0924 21:06:13.638478  2642 net.cpp:129] Top shape: 100 16 28 28 (1254400)
I0924 21:06:13.638481  2642 net.cpp:137] Memory required for data: 146451600
I0924 21:06:13.638485  2642 layer_factory.hpp:77] Creating layer BatchNorm6
I0924 21:06:13.638492  2642 net.cpp:84] Creating Layer BatchNorm6
I0924 21:06:13.638495  2642 net.cpp:406] BatchNorm6 <- Convolution6
I0924 21:06:13.638500  2642 net.cpp:367] BatchNorm6 -> Convolution6 (in-place)
I0924 21:06:13.638633  2642 net.cpp:122] Setting up BatchNorm6
I0924 21:06:13.638638  2642 net.cpp:129] Top shape: 100 16 28 28 (1254400)
I0924 21:06:13.638640  2642 net.cpp:137] Memory required for data: 151469200
I0924 21:06:13.638645  2642 layer_factory.hpp:77] Creating layer Scale6
I0924 21:06:13.638650  2642 net.cpp:84] Creating Layer Scale6
I0924 21:06:13.638653  2642 net.cpp:406] Scale6 <- Convolution6
I0924 21:06:13.638659  2642 net.cpp:367] Scale6 -> Convolution6 (in-place)
I0924 21:06:13.638685  2642 layer_factory.hpp:77] Creating layer Scale6
I0924 21:06:13.638764  2642 net.cpp:122] Setting up Scale6
I0924 21:06:13.638769  2642 net.cpp:129] Top shape: 100 16 28 28 (1254400)
I0924 21:06:13.638772  2642 net.cpp:137] Memory required for data: 156486800
I0924 21:06:13.638777  2642 layer_factory.hpp:77] Creating layer ReLU6
I0924 21:06:13.638780  2642 net.cpp:84] Creating Layer ReLU6
I0924 21:06:13.638783  2642 net.cpp:406] ReLU6 <- Convolution6
I0924 21:06:13.638787  2642 net.cpp:367] ReLU6 -> Convolution6 (in-place)
I0924 21:06:13.638903  2642 net.cpp:122] Setting up ReLU6
I0924 21:06:13.638909  2642 net.cpp:129] Top shape: 100 16 28 28 (1254400)
I0924 21:06:13.638912  2642 net.cpp:137] Memory required for data: 161504400
I0924 21:06:13.638916  2642 layer_factory.hpp:77] Creating layer Convolution7
I0924 21:06:13.638923  2642 net.cpp:84] Creating Layer Convolution7
I0924 21:06:13.638927  2642 net.cpp:406] Convolution7 <- Convolution6
I0924 21:06:13.638931  2642 net.cpp:380] Convolution7 -> Convolution7
I0924 21:06:13.639832  2642 net.cpp:122] Setting up Convolution7
I0924 21:06:13.639844  2642 net.cpp:129] Top shape: 100 16 28 28 (1254400)
I0924 21:06:13.639847  2642 net.cpp:137] Memory required for data: 166522000
I0924 21:06:13.639853  2642 layer_factory.hpp:77] Creating layer BatchNorm7
I0924 21:06:13.639858  2642 net.cpp:84] Creating Layer BatchNorm7
I0924 21:06:13.639863  2642 net.cpp:406] BatchNorm7 <- Convolution7
I0924 21:06:13.639866  2642 net.cpp:367] BatchNorm7 -> Convolution7 (in-place)
I0924 21:06:13.639999  2642 net.cpp:122] Setting up BatchNorm7
I0924 21:06:13.640005  2642 net.cpp:129] Top shape: 100 16 28 28 (1254400)
I0924 21:06:13.640008  2642 net.cpp:137] Memory required for data: 171539600
I0924 21:06:13.640013  2642 layer_factory.hpp:77] Creating layer Scale7
I0924 21:06:13.640019  2642 net.cpp:84] Creating Layer Scale7
I0924 21:06:13.640023  2642 net.cpp:406] Scale7 <- Convolution7
I0924 21:06:13.640027  2642 net.cpp:367] Scale7 -> Convolution7 (in-place)
I0924 21:06:13.640054  2642 layer_factory.hpp:77] Creating layer Scale7
I0924 21:06:13.640131  2642 net.cpp:122] Setting up Scale7
I0924 21:06:13.640137  2642 net.cpp:129] Top shape: 100 16 28 28 (1254400)
I0924 21:06:13.640147  2642 net.cpp:137] Memory required for data: 176557200
I0924 21:06:13.640151  2642 layer_factory.hpp:77] Creating layer Eltwise3
I0924 21:06:13.640156  2642 net.cpp:84] Creating Layer Eltwise3
I0924 21:06:13.640161  2642 net.cpp:406] Eltwise3 <- Eltwise2_ReLU5_0_split_1
I0924 21:06:13.640163  2642 net.cpp:406] Eltwise3 <- Convolution7
I0924 21:06:13.640167  2642 net.cpp:380] Eltwise3 -> Eltwise3
I0924 21:06:13.640184  2642 net.cpp:122] Setting up Eltwise3
I0924 21:06:13.640189  2642 net.cpp:129] Top shape: 100 16 28 28 (1254400)
I0924 21:06:13.640192  2642 net.cpp:137] Memory required for data: 181574800
I0924 21:06:13.640194  2642 layer_factory.hpp:77] Creating layer ReLU7
I0924 21:06:13.640198  2642 net.cpp:84] Creating Layer ReLU7
I0924 21:06:13.640202  2642 net.cpp:406] ReLU7 <- Eltwise3
I0924 21:06:13.640204  2642 net.cpp:367] ReLU7 -> Eltwise3 (in-place)
I0924 21:06:13.640322  2642 net.cpp:122] Setting up ReLU7
I0924 21:06:13.640329  2642 net.cpp:129] Top shape: 100 16 28 28 (1254400)
I0924 21:06:13.640332  2642 net.cpp:137] Memory required for data: 186592400
I0924 21:06:13.640336  2642 layer_factory.hpp:77] Creating layer Eltwise3_ReLU7_0_split
I0924 21:06:13.640341  2642 net.cpp:84] Creating Layer Eltwise3_ReLU7_0_split
I0924 21:06:13.640343  2642 net.cpp:406] Eltwise3_ReLU7_0_split <- Eltwise3
I0924 21:06:13.640347  2642 net.cpp:380] Eltwise3_ReLU7_0_split -> Eltwise3_ReLU7_0_split_0
I0924 21:06:13.640352  2642 net.cpp:380] Eltwise3_ReLU7_0_split -> Eltwise3_ReLU7_0_split_1
I0924 21:06:13.640378  2642 net.cpp:122] Setting up Eltwise3_ReLU7_0_split
I0924 21:06:13.640383  2642 net.cpp:129] Top shape: 100 16 28 28 (1254400)
I0924 21:06:13.640386  2642 net.cpp:129] Top shape: 100 16 28 28 (1254400)
I0924 21:06:13.640389  2642 net.cpp:137] Memory required for data: 196627600
I0924 21:06:13.640391  2642 layer_factory.hpp:77] Creating layer Convolution8
I0924 21:06:13.640398  2642 net.cpp:84] Creating Layer Convolution8
I0924 21:06:13.640403  2642 net.cpp:406] Convolution8 <- Eltwise3_ReLU7_0_split_0
I0924 21:06:13.640408  2642 net.cpp:380] Convolution8 -> Convolution8
I0924 21:06:13.641286  2642 net.cpp:122] Setting up Convolution8
I0924 21:06:13.641296  2642 net.cpp:129] Top shape: 100 16 28 28 (1254400)
I0924 21:06:13.641299  2642 net.cpp:137] Memory required for data: 201645200
I0924 21:06:13.641304  2642 layer_factory.hpp:77] Creating layer BatchNorm8
I0924 21:06:13.641310  2642 net.cpp:84] Creating Layer BatchNorm8
I0924 21:06:13.641314  2642 net.cpp:406] BatchNorm8 <- Convolution8
I0924 21:06:13.641319  2642 net.cpp:367] BatchNorm8 -> Convolution8 (in-place)
I0924 21:06:13.641450  2642 net.cpp:122] Setting up BatchNorm8
I0924 21:06:13.641455  2642 net.cpp:129] Top shape: 100 16 28 28 (1254400)
I0924 21:06:13.641458  2642 net.cpp:137] Memory required for data: 206662800
I0924 21:06:13.641463  2642 layer_factory.hpp:77] Creating layer Scale8
I0924 21:06:13.641468  2642 net.cpp:84] Creating Layer Scale8
I0924 21:06:13.641470  2642 net.cpp:406] Scale8 <- Convolution8
I0924 21:06:13.641474  2642 net.cpp:367] Scale8 -> Convolution8 (in-place)
I0924 21:06:13.641500  2642 layer_factory.hpp:77] Creating layer Scale8
I0924 21:06:13.641580  2642 net.cpp:122] Setting up Scale8
I0924 21:06:13.641587  2642 net.cpp:129] Top shape: 100 16 28 28 (1254400)
I0924 21:06:13.641589  2642 net.cpp:137] Memory required for data: 211680400
I0924 21:06:13.641593  2642 layer_factory.hpp:77] Creating layer ReLU8
I0924 21:06:13.641597  2642 net.cpp:84] Creating Layer ReLU8
I0924 21:06:13.641600  2642 net.cpp:406] ReLU8 <- Convolution8
I0924 21:06:13.641605  2642 net.cpp:367] ReLU8 -> Convolution8 (in-place)
I0924 21:06:13.642050  2642 net.cpp:122] Setting up ReLU8
I0924 21:06:13.642060  2642 net.cpp:129] Top shape: 100 16 28 28 (1254400)
I0924 21:06:13.642062  2642 net.cpp:137] Memory required for data: 216698000
I0924 21:06:13.642066  2642 layer_factory.hpp:77] Creating layer Convolution9
I0924 21:06:13.642073  2642 net.cpp:84] Creating Layer Convolution9
I0924 21:06:13.642077  2642 net.cpp:406] Convolution9 <- Convolution8
I0924 21:06:13.642091  2642 net.cpp:380] Convolution9 -> Convolution9
I0924 21:06:13.642668  2642 net.cpp:122] Setting up Convolution9
I0924 21:06:13.642675  2642 net.cpp:129] Top shape: 100 16 28 28 (1254400)
I0924 21:06:13.642678  2642 net.cpp:137] Memory required for data: 221715600
I0924 21:06:13.642683  2642 layer_factory.hpp:77] Creating layer BatchNorm9
I0924 21:06:13.642689  2642 net.cpp:84] Creating Layer BatchNorm9
I0924 21:06:13.642693  2642 net.cpp:406] BatchNorm9 <- Convolution9
I0924 21:06:13.642696  2642 net.cpp:367] BatchNorm9 -> Convolution9 (in-place)
I0924 21:06:13.642828  2642 net.cpp:122] Setting up BatchNorm9
I0924 21:06:13.642833  2642 net.cpp:129] Top shape: 100 16 28 28 (1254400)
I0924 21:06:13.642837  2642 net.cpp:137] Memory required for data: 226733200
I0924 21:06:13.642841  2642 layer_factory.hpp:77] Creating layer Scale9
I0924 21:06:13.642846  2642 net.cpp:84] Creating Layer Scale9
I0924 21:06:13.642849  2642 net.cpp:406] Scale9 <- Convolution9
I0924 21:06:13.642853  2642 net.cpp:367] Scale9 -> Convolution9 (in-place)
I0924 21:06:13.642879  2642 layer_factory.hpp:77] Creating layer Scale9
I0924 21:06:13.642958  2642 net.cpp:122] Setting up Scale9
I0924 21:06:13.642963  2642 net.cpp:129] Top shape: 100 16 28 28 (1254400)
I0924 21:06:13.642966  2642 net.cpp:137] Memory required for data: 231750800
I0924 21:06:13.642971  2642 layer_factory.hpp:77] Creating layer Eltwise4
I0924 21:06:13.642976  2642 net.cpp:84] Creating Layer Eltwise4
I0924 21:06:13.642979  2642 net.cpp:406] Eltwise4 <- Eltwise3_ReLU7_0_split_1
I0924 21:06:13.642982  2642 net.cpp:406] Eltwise4 <- Convolution9
I0924 21:06:13.642987  2642 net.cpp:380] Eltwise4 -> Eltwise4
I0924 21:06:13.643003  2642 net.cpp:122] Setting up Eltwise4
I0924 21:06:13.643008  2642 net.cpp:129] Top shape: 100 16 28 28 (1254400)
I0924 21:06:13.643012  2642 net.cpp:137] Memory required for data: 236768400
I0924 21:06:13.643013  2642 layer_factory.hpp:77] Creating layer ReLU9
I0924 21:06:13.643018  2642 net.cpp:84] Creating Layer ReLU9
I0924 21:06:13.643020  2642 net.cpp:406] ReLU9 <- Eltwise4
I0924 21:06:13.643024  2642 net.cpp:367] ReLU9 -> Eltwise4 (in-place)
I0924 21:06:13.643468  2642 net.cpp:122] Setting up ReLU9
I0924 21:06:13.643478  2642 net.cpp:129] Top shape: 100 16 28 28 (1254400)
I0924 21:06:13.643481  2642 net.cpp:137] Memory required for data: 241786000
I0924 21:06:13.643484  2642 layer_factory.hpp:77] Creating layer Eltwise4_ReLU9_0_split
I0924 21:06:13.643489  2642 net.cpp:84] Creating Layer Eltwise4_ReLU9_0_split
I0924 21:06:13.643493  2642 net.cpp:406] Eltwise4_ReLU9_0_split <- Eltwise4
I0924 21:06:13.643496  2642 net.cpp:380] Eltwise4_ReLU9_0_split -> Eltwise4_ReLU9_0_split_0
I0924 21:06:13.643502  2642 net.cpp:380] Eltwise4_ReLU9_0_split -> Eltwise4_ReLU9_0_split_1
I0924 21:06:13.643530  2642 net.cpp:122] Setting up Eltwise4_ReLU9_0_split
I0924 21:06:13.643535  2642 net.cpp:129] Top shape: 100 16 28 28 (1254400)
I0924 21:06:13.643538  2642 net.cpp:129] Top shape: 100 16 28 28 (1254400)
I0924 21:06:13.643541  2642 net.cpp:137] Memory required for data: 251821200
I0924 21:06:13.643543  2642 layer_factory.hpp:77] Creating layer Convolution10
I0924 21:06:13.643550  2642 net.cpp:84] Creating Layer Convolution10
I0924 21:06:13.643554  2642 net.cpp:406] Convolution10 <- Eltwise4_ReLU9_0_split_0
I0924 21:06:13.643559  2642 net.cpp:380] Convolution10 -> Convolution10
I0924 21:06:13.644456  2642 net.cpp:122] Setting up Convolution10
I0924 21:06:13.644466  2642 net.cpp:129] Top shape: 100 16 28 28 (1254400)
I0924 21:06:13.644469  2642 net.cpp:137] Memory required for data: 256838800
I0924 21:06:13.644480  2642 layer_factory.hpp:77] Creating layer BatchNorm10
I0924 21:06:13.644486  2642 net.cpp:84] Creating Layer BatchNorm10
I0924 21:06:13.644490  2642 net.cpp:406] BatchNorm10 <- Convolution10
I0924 21:06:13.644495  2642 net.cpp:367] BatchNorm10 -> Convolution10 (in-place)
I0924 21:06:13.644629  2642 net.cpp:122] Setting up BatchNorm10
I0924 21:06:13.644634  2642 net.cpp:129] Top shape: 100 16 28 28 (1254400)
I0924 21:06:13.644636  2642 net.cpp:137] Memory required for data: 261856400
I0924 21:06:13.644649  2642 layer_factory.hpp:77] Creating layer Scale10
I0924 21:06:13.644654  2642 net.cpp:84] Creating Layer Scale10
I0924 21:06:13.644657  2642 net.cpp:406] Scale10 <- Convolution10
I0924 21:06:13.644661  2642 net.cpp:367] Scale10 -> Convolution10 (in-place)
I0924 21:06:13.644688  2642 layer_factory.hpp:77] Creating layer Scale10
I0924 21:06:13.644767  2642 net.cpp:122] Setting up Scale10
I0924 21:06:13.644771  2642 net.cpp:129] Top shape: 100 16 28 28 (1254400)
I0924 21:06:13.644774  2642 net.cpp:137] Memory required for data: 266874000
I0924 21:06:13.644778  2642 layer_factory.hpp:77] Creating layer ReLU10
I0924 21:06:13.644783  2642 net.cpp:84] Creating Layer ReLU10
I0924 21:06:13.644785  2642 net.cpp:406] ReLU10 <- Convolution10
I0924 21:06:13.644789  2642 net.cpp:367] ReLU10 -> Convolution10 (in-place)
I0924 21:06:13.644909  2642 net.cpp:122] Setting up ReLU10
I0924 21:06:13.644920  2642 net.cpp:129] Top shape: 100 16 28 28 (1254400)
I0924 21:06:13.644923  2642 net.cpp:137] Memory required for data: 271891600
I0924 21:06:13.644927  2642 layer_factory.hpp:77] Creating layer Convolution11
I0924 21:06:13.644933  2642 net.cpp:84] Creating Layer Convolution11
I0924 21:06:13.644937  2642 net.cpp:406] Convolution11 <- Convolution10
I0924 21:06:13.644942  2642 net.cpp:380] Convolution11 -> Convolution11
I0924 21:06:13.645843  2642 net.cpp:122] Setting up Convolution11
I0924 21:06:13.645853  2642 net.cpp:129] Top shape: 100 16 28 28 (1254400)
I0924 21:06:13.645855  2642 net.cpp:137] Memory required for data: 276909200
I0924 21:06:13.645859  2642 layer_factory.hpp:77] Creating layer BatchNorm11
I0924 21:06:13.645865  2642 net.cpp:84] Creating Layer BatchNorm11
I0924 21:06:13.645867  2642 net.cpp:406] BatchNorm11 <- Convolution11
I0924 21:06:13.645872  2642 net.cpp:367] BatchNorm11 -> Convolution11 (in-place)
I0924 21:06:13.646005  2642 net.cpp:122] Setting up BatchNorm11
I0924 21:06:13.646010  2642 net.cpp:129] Top shape: 100 16 28 28 (1254400)
I0924 21:06:13.646013  2642 net.cpp:137] Memory required for data: 281926800
I0924 21:06:13.646018  2642 layer_factory.hpp:77] Creating layer Scale11
I0924 21:06:13.646023  2642 net.cpp:84] Creating Layer Scale11
I0924 21:06:13.646025  2642 net.cpp:406] Scale11 <- Convolution11
I0924 21:06:13.646028  2642 net.cpp:367] Scale11 -> Convolution11 (in-place)
I0924 21:06:13.646055  2642 layer_factory.hpp:77] Creating layer Scale11
I0924 21:06:13.646132  2642 net.cpp:122] Setting up Scale11
I0924 21:06:13.646136  2642 net.cpp:129] Top shape: 100 16 28 28 (1254400)
I0924 21:06:13.646138  2642 net.cpp:137] Memory required for data: 286944400
I0924 21:06:13.646142  2642 layer_factory.hpp:77] Creating layer Eltwise5
I0924 21:06:13.646147  2642 net.cpp:84] Creating Layer Eltwise5
I0924 21:06:13.646149  2642 net.cpp:406] Eltwise5 <- Eltwise4_ReLU9_0_split_1
I0924 21:06:13.646152  2642 net.cpp:406] Eltwise5 <- Convolution11
I0924 21:06:13.646155  2642 net.cpp:380] Eltwise5 -> Eltwise5
I0924 21:06:13.646173  2642 net.cpp:122] Setting up Eltwise5
I0924 21:06:13.646175  2642 net.cpp:129] Top shape: 100 16 28 28 (1254400)
I0924 21:06:13.646178  2642 net.cpp:137] Memory required for data: 291962000
I0924 21:06:13.646180  2642 layer_factory.hpp:77] Creating layer ReLU11
I0924 21:06:13.646183  2642 net.cpp:84] Creating Layer ReLU11
I0924 21:06:13.646185  2642 net.cpp:406] ReLU11 <- Eltwise5
I0924 21:06:13.646189  2642 net.cpp:367] ReLU11 -> Eltwise5 (in-place)
I0924 21:06:13.646306  2642 net.cpp:122] Setting up ReLU11
I0924 21:06:13.646312  2642 net.cpp:129] Top shape: 100 16 28 28 (1254400)
I0924 21:06:13.646315  2642 net.cpp:137] Memory required for data: 296979600
I0924 21:06:13.646317  2642 layer_factory.hpp:77] Creating layer Eltwise5_ReLU11_0_split
I0924 21:06:13.646322  2642 net.cpp:84] Creating Layer Eltwise5_ReLU11_0_split
I0924 21:06:13.646323  2642 net.cpp:406] Eltwise5_ReLU11_0_split <- Eltwise5
I0924 21:06:13.646327  2642 net.cpp:380] Eltwise5_ReLU11_0_split -> Eltwise5_ReLU11_0_split_0
I0924 21:06:13.646332  2642 net.cpp:380] Eltwise5_ReLU11_0_split -> Eltwise5_ReLU11_0_split_1
I0924 21:06:13.646365  2642 net.cpp:122] Setting up Eltwise5_ReLU11_0_split
I0924 21:06:13.646370  2642 net.cpp:129] Top shape: 100 16 28 28 (1254400)
I0924 21:06:13.646373  2642 net.cpp:129] Top shape: 100 16 28 28 (1254400)
I0924 21:06:13.646375  2642 net.cpp:137] Memory required for data: 307014800
I0924 21:06:13.646378  2642 layer_factory.hpp:77] Creating layer Convolution12
I0924 21:06:13.646384  2642 net.cpp:84] Creating Layer Convolution12
I0924 21:06:13.646386  2642 net.cpp:406] Convolution12 <- Eltwise5_ReLU11_0_split_0
I0924 21:06:13.646391  2642 net.cpp:380] Convolution12 -> Convolution12
I0924 21:06:13.647294  2642 net.cpp:122] Setting up Convolution12
I0924 21:06:13.647302  2642 net.cpp:129] Top shape: 100 16 28 28 (1254400)
I0924 21:06:13.647305  2642 net.cpp:137] Memory required for data: 312032400
I0924 21:06:13.647310  2642 layer_factory.hpp:77] Creating layer BatchNorm12
I0924 21:06:13.647315  2642 net.cpp:84] Creating Layer BatchNorm12
I0924 21:06:13.647318  2642 net.cpp:406] BatchNorm12 <- Convolution12
I0924 21:06:13.647322  2642 net.cpp:367] BatchNorm12 -> Convolution12 (in-place)
I0924 21:06:13.647454  2642 net.cpp:122] Setting up BatchNorm12
I0924 21:06:13.647457  2642 net.cpp:129] Top shape: 100 16 28 28 (1254400)
I0924 21:06:13.647460  2642 net.cpp:137] Memory required for data: 317050000
I0924 21:06:13.647466  2642 layer_factory.hpp:77] Creating layer Scale12
I0924 21:06:13.647470  2642 net.cpp:84] Creating Layer Scale12
I0924 21:06:13.647472  2642 net.cpp:406] Scale12 <- Convolution12
I0924 21:06:13.647476  2642 net.cpp:367] Scale12 -> Convolution12 (in-place)
I0924 21:06:13.647502  2642 layer_factory.hpp:77] Creating layer Scale12
I0924 21:06:13.647581  2642 net.cpp:122] Setting up Scale12
I0924 21:06:13.647586  2642 net.cpp:129] Top shape: 100 16 28 28 (1254400)
I0924 21:06:13.647588  2642 net.cpp:137] Memory required for data: 322067600
I0924 21:06:13.647593  2642 layer_factory.hpp:77] Creating layer ReLU12
I0924 21:06:13.647596  2642 net.cpp:84] Creating Layer ReLU12
I0924 21:06:13.647598  2642 net.cpp:406] ReLU12 <- Convolution12
I0924 21:06:13.647603  2642 net.cpp:367] ReLU12 -> Convolution12 (in-place)
I0924 21:06:13.647719  2642 net.cpp:122] Setting up ReLU12
I0924 21:06:13.647725  2642 net.cpp:129] Top shape: 100 16 28 28 (1254400)
I0924 21:06:13.647727  2642 net.cpp:137] Memory required for data: 327085200
I0924 21:06:13.647729  2642 layer_factory.hpp:77] Creating layer Convolution13
I0924 21:06:13.647737  2642 net.cpp:84] Creating Layer Convolution13
I0924 21:06:13.647739  2642 net.cpp:406] Convolution13 <- Convolution12
I0924 21:06:13.647744  2642 net.cpp:380] Convolution13 -> Convolution13
I0924 21:06:13.648648  2642 net.cpp:122] Setting up Convolution13
I0924 21:06:13.648658  2642 net.cpp:129] Top shape: 100 16 28 28 (1254400)
I0924 21:06:13.648660  2642 net.cpp:137] Memory required for data: 332102800
I0924 21:06:13.648664  2642 layer_factory.hpp:77] Creating layer BatchNorm13
I0924 21:06:13.648670  2642 net.cpp:84] Creating Layer BatchNorm13
I0924 21:06:13.648672  2642 net.cpp:406] BatchNorm13 <- Convolution13
I0924 21:06:13.648676  2642 net.cpp:367] BatchNorm13 -> Convolution13 (in-place)
I0924 21:06:13.648811  2642 net.cpp:122] Setting up BatchNorm13
I0924 21:06:13.648816  2642 net.cpp:129] Top shape: 100 16 28 28 (1254400)
I0924 21:06:13.648818  2642 net.cpp:137] Memory required for data: 337120400
I0924 21:06:13.648823  2642 layer_factory.hpp:77] Creating layer Scale13
I0924 21:06:13.648828  2642 net.cpp:84] Creating Layer Scale13
I0924 21:06:13.648829  2642 net.cpp:406] Scale13 <- Convolution13
I0924 21:06:13.648833  2642 net.cpp:367] Scale13 -> Convolution13 (in-place)
I0924 21:06:13.648860  2642 layer_factory.hpp:77] Creating layer Scale13
I0924 21:06:13.648955  2642 net.cpp:122] Setting up Scale13
I0924 21:06:13.648962  2642 net.cpp:129] Top shape: 100 16 28 28 (1254400)
I0924 21:06:13.648963  2642 net.cpp:137] Memory required for data: 342138000
I0924 21:06:13.648967  2642 layer_factory.hpp:77] Creating layer Eltwise6
I0924 21:06:13.648978  2642 net.cpp:84] Creating Layer Eltwise6
I0924 21:06:13.648982  2642 net.cpp:406] Eltwise6 <- Eltwise5_ReLU11_0_split_1
I0924 21:06:13.648984  2642 net.cpp:406] Eltwise6 <- Convolution13
I0924 21:06:13.648988  2642 net.cpp:380] Eltwise6 -> Eltwise6
I0924 21:06:13.649005  2642 net.cpp:122] Setting up Eltwise6
I0924 21:06:13.649010  2642 net.cpp:129] Top shape: 100 16 28 28 (1254400)
I0924 21:06:13.649013  2642 net.cpp:137] Memory required for data: 347155600
I0924 21:06:13.649014  2642 layer_factory.hpp:77] Creating layer ReLU13
I0924 21:06:13.649021  2642 net.cpp:84] Creating Layer ReLU13
I0924 21:06:13.649024  2642 net.cpp:406] ReLU13 <- Eltwise6
I0924 21:06:13.649027  2642 net.cpp:367] ReLU13 -> Eltwise6 (in-place)
I0924 21:06:13.649147  2642 net.cpp:122] Setting up ReLU13
I0924 21:06:13.649153  2642 net.cpp:129] Top shape: 100 16 28 28 (1254400)
I0924 21:06:13.649157  2642 net.cpp:137] Memory required for data: 352173200
I0924 21:06:13.649159  2642 layer_factory.hpp:77] Creating layer Eltwise6_ReLU13_0_split
I0924 21:06:13.649163  2642 net.cpp:84] Creating Layer Eltwise6_ReLU13_0_split
I0924 21:06:13.649165  2642 net.cpp:406] Eltwise6_ReLU13_0_split <- Eltwise6
I0924 21:06:13.649168  2642 net.cpp:380] Eltwise6_ReLU13_0_split -> Eltwise6_ReLU13_0_split_0
I0924 21:06:13.649173  2642 net.cpp:380] Eltwise6_ReLU13_0_split -> Eltwise6_ReLU13_0_split_1
I0924 21:06:13.649199  2642 net.cpp:122] Setting up Eltwise6_ReLU13_0_split
I0924 21:06:13.649202  2642 net.cpp:129] Top shape: 100 16 28 28 (1254400)
I0924 21:06:13.649205  2642 net.cpp:129] Top shape: 100 16 28 28 (1254400)
I0924 21:06:13.649207  2642 net.cpp:137] Memory required for data: 362208400
I0924 21:06:13.649209  2642 layer_factory.hpp:77] Creating layer Convolution14
I0924 21:06:13.649215  2642 net.cpp:84] Creating Layer Convolution14
I0924 21:06:13.649219  2642 net.cpp:406] Convolution14 <- Eltwise6_ReLU13_0_split_0
I0924 21:06:13.649222  2642 net.cpp:380] Convolution14 -> Convolution14
I0924 21:06:13.650140  2642 net.cpp:122] Setting up Convolution14
I0924 21:06:13.650148  2642 net.cpp:129] Top shape: 100 16 28 28 (1254400)
I0924 21:06:13.650151  2642 net.cpp:137] Memory required for data: 367226000
I0924 21:06:13.650156  2642 layer_factory.hpp:77] Creating layer BatchNorm14
I0924 21:06:13.650161  2642 net.cpp:84] Creating Layer BatchNorm14
I0924 21:06:13.650163  2642 net.cpp:406] BatchNorm14 <- Convolution14
I0924 21:06:13.650167  2642 net.cpp:367] BatchNorm14 -> Convolution14 (in-place)
I0924 21:06:13.650302  2642 net.cpp:122] Setting up BatchNorm14
I0924 21:06:13.650306  2642 net.cpp:129] Top shape: 100 16 28 28 (1254400)
I0924 21:06:13.650308  2642 net.cpp:137] Memory required for data: 372243600
I0924 21:06:13.650313  2642 layer_factory.hpp:77] Creating layer Scale14
I0924 21:06:13.650317  2642 net.cpp:84] Creating Layer Scale14
I0924 21:06:13.650321  2642 net.cpp:406] Scale14 <- Convolution14
I0924 21:06:13.650323  2642 net.cpp:367] Scale14 -> Convolution14 (in-place)
I0924 21:06:13.650351  2642 layer_factory.hpp:77] Creating layer Scale14
I0924 21:06:13.650429  2642 net.cpp:122] Setting up Scale14
I0924 21:06:13.650434  2642 net.cpp:129] Top shape: 100 16 28 28 (1254400)
I0924 21:06:13.650435  2642 net.cpp:137] Memory required for data: 377261200
I0924 21:06:13.650439  2642 layer_factory.hpp:77] Creating layer ReLU14
I0924 21:06:13.650444  2642 net.cpp:84] Creating Layer ReLU14
I0924 21:06:13.650446  2642 net.cpp:406] ReLU14 <- Convolution14
I0924 21:06:13.650449  2642 net.cpp:367] ReLU14 -> Convolution14 (in-place)
I0924 21:06:13.650894  2642 net.cpp:122] Setting up ReLU14
I0924 21:06:13.650902  2642 net.cpp:129] Top shape: 100 16 28 28 (1254400)
I0924 21:06:13.650905  2642 net.cpp:137] Memory required for data: 382278800
I0924 21:06:13.650907  2642 layer_factory.hpp:77] Creating layer Convolution15
I0924 21:06:13.650915  2642 net.cpp:84] Creating Layer Convolution15
I0924 21:06:13.650918  2642 net.cpp:406] Convolution15 <- Convolution14
I0924 21:06:13.650923  2642 net.cpp:380] Convolution15 -> Convolution15
I0924 21:06:13.651612  2642 net.cpp:122] Setting up Convolution15
I0924 21:06:13.651630  2642 net.cpp:129] Top shape: 100 16 28 28 (1254400)
I0924 21:06:13.651634  2642 net.cpp:137] Memory required for data: 387296400
I0924 21:06:13.651643  2642 layer_factory.hpp:77] Creating layer BatchNorm15
I0924 21:06:13.651648  2642 net.cpp:84] Creating Layer BatchNorm15
I0924 21:06:13.651654  2642 net.cpp:406] BatchNorm15 <- Convolution15
I0924 21:06:13.651659  2642 net.cpp:367] BatchNorm15 -> Convolution15 (in-place)
I0924 21:06:13.651849  2642 net.cpp:122] Setting up BatchNorm15
I0924 21:06:13.651857  2642 net.cpp:129] Top shape: 100 16 28 28 (1254400)
I0924 21:06:13.651861  2642 net.cpp:137] Memory required for data: 392314000
I0924 21:06:13.651870  2642 layer_factory.hpp:77] Creating layer Scale15
I0924 21:06:13.651875  2642 net.cpp:84] Creating Layer Scale15
I0924 21:06:13.651880  2642 net.cpp:406] Scale15 <- Convolution15
I0924 21:06:13.651885  2642 net.cpp:367] Scale15 -> Convolution15 (in-place)
I0924 21:06:13.651922  2642 layer_factory.hpp:77] Creating layer Scale15
I0924 21:06:13.652035  2642 net.cpp:122] Setting up Scale15
I0924 21:06:13.652043  2642 net.cpp:129] Top shape: 100 16 28 28 (1254400)
I0924 21:06:13.652047  2642 net.cpp:137] Memory required for data: 397331600
I0924 21:06:13.652053  2642 layer_factory.hpp:77] Creating layer Eltwise7
I0924 21:06:13.652060  2642 net.cpp:84] Creating Layer Eltwise7
I0924 21:06:13.652065  2642 net.cpp:406] Eltwise7 <- Eltwise6_ReLU13_0_split_1
I0924 21:06:13.652070  2642 net.cpp:406] Eltwise7 <- Convolution15
I0924 21:06:13.652074  2642 net.cpp:380] Eltwise7 -> Eltwise7
I0924 21:06:13.652096  2642 net.cpp:122] Setting up Eltwise7
I0924 21:06:13.652102  2642 net.cpp:129] Top shape: 100 16 28 28 (1254400)
I0924 21:06:13.652107  2642 net.cpp:137] Memory required for data: 402349200
I0924 21:06:13.652110  2642 layer_factory.hpp:77] Creating layer ReLU15
I0924 21:06:13.652117  2642 net.cpp:84] Creating Layer ReLU15
I0924 21:06:13.652120  2642 net.cpp:406] ReLU15 <- Eltwise7
I0924 21:06:13.652125  2642 net.cpp:367] ReLU15 -> Eltwise7 (in-place)
I0924 21:06:13.652740  2642 net.cpp:122] Setting up ReLU15
I0924 21:06:13.652751  2642 net.cpp:129] Top shape: 100 16 28 28 (1254400)
I0924 21:06:13.652756  2642 net.cpp:137] Memory required for data: 407366800
I0924 21:06:13.652760  2642 layer_factory.hpp:77] Creating layer Eltwise7_ReLU15_0_split
I0924 21:06:13.652768  2642 net.cpp:84] Creating Layer Eltwise7_ReLU15_0_split
I0924 21:06:13.652773  2642 net.cpp:406] Eltwise7_ReLU15_0_split <- Eltwise7
I0924 21:06:13.652779  2642 net.cpp:380] Eltwise7_ReLU15_0_split -> Eltwise7_ReLU15_0_split_0
I0924 21:06:13.652787  2642 net.cpp:380] Eltwise7_ReLU15_0_split -> Eltwise7_ReLU15_0_split_1
I0924 21:06:13.652830  2642 net.cpp:122] Setting up Eltwise7_ReLU15_0_split
I0924 21:06:13.652837  2642 net.cpp:129] Top shape: 100 16 28 28 (1254400)
I0924 21:06:13.652842  2642 net.cpp:129] Top shape: 100 16 28 28 (1254400)
I0924 21:06:13.652846  2642 net.cpp:137] Memory required for data: 417402000
I0924 21:06:13.652850  2642 layer_factory.hpp:77] Creating layer Convolution16
I0924 21:06:13.652860  2642 net.cpp:84] Creating Layer Convolution16
I0924 21:06:13.652864  2642 net.cpp:406] Convolution16 <- Eltwise7_ReLU15_0_split_0
I0924 21:06:13.652873  2642 net.cpp:380] Convolution16 -> Convolution16
I0924 21:06:13.654517  2642 net.cpp:122] Setting up Convolution16
I0924 21:06:13.654527  2642 net.cpp:129] Top shape: 100 16 28 28 (1254400)
I0924 21:06:13.654531  2642 net.cpp:137] Memory required for data: 422419600
I0924 21:06:13.654534  2642 layer_factory.hpp:77] Creating layer BatchNorm16
I0924 21:06:13.654541  2642 net.cpp:84] Creating Layer BatchNorm16
I0924 21:06:13.654543  2642 net.cpp:406] BatchNorm16 <- Convolution16
I0924 21:06:13.654547  2642 net.cpp:367] BatchNorm16 -> Convolution16 (in-place)
I0924 21:06:13.654683  2642 net.cpp:122] Setting up BatchNorm16
I0924 21:06:13.654688  2642 net.cpp:129] Top shape: 100 16 28 28 (1254400)
I0924 21:06:13.654690  2642 net.cpp:137] Memory required for data: 427437200
I0924 21:06:13.654695  2642 layer_factory.hpp:77] Creating layer Scale16
I0924 21:06:13.654708  2642 net.cpp:84] Creating Layer Scale16
I0924 21:06:13.654711  2642 net.cpp:406] Scale16 <- Convolution16
I0924 21:06:13.654714  2642 net.cpp:367] Scale16 -> Convolution16 (in-place)
I0924 21:06:13.654743  2642 layer_factory.hpp:77] Creating layer Scale16
I0924 21:06:13.654824  2642 net.cpp:122] Setting up Scale16
I0924 21:06:13.654829  2642 net.cpp:129] Top shape: 100 16 28 28 (1254400)
I0924 21:06:13.654831  2642 net.cpp:137] Memory required for data: 432454800
I0924 21:06:13.654836  2642 layer_factory.hpp:77] Creating layer ReLU16
I0924 21:06:13.654840  2642 net.cpp:84] Creating Layer ReLU16
I0924 21:06:13.654844  2642 net.cpp:406] ReLU16 <- Convolution16
I0924 21:06:13.654846  2642 net.cpp:367] ReLU16 -> Convolution16 (in-place)
I0924 21:06:13.654968  2642 net.cpp:122] Setting up ReLU16
I0924 21:06:13.654974  2642 net.cpp:129] Top shape: 100 16 28 28 (1254400)
I0924 21:06:13.654976  2642 net.cpp:137] Memory required for data: 437472400
I0924 21:06:13.654978  2642 layer_factory.hpp:77] Creating layer Convolution17
I0924 21:06:13.654988  2642 net.cpp:84] Creating Layer Convolution17
I0924 21:06:13.654989  2642 net.cpp:406] Convolution17 <- Convolution16
I0924 21:06:13.654994  2642 net.cpp:380] Convolution17 -> Convolution17
I0924 21:06:13.655916  2642 net.cpp:122] Setting up Convolution17
I0924 21:06:13.655925  2642 net.cpp:129] Top shape: 100 16 28 28 (1254400)
I0924 21:06:13.655928  2642 net.cpp:137] Memory required for data: 442490000
I0924 21:06:13.655932  2642 layer_factory.hpp:77] Creating layer BatchNorm17
I0924 21:06:13.655937  2642 net.cpp:84] Creating Layer BatchNorm17
I0924 21:06:13.655941  2642 net.cpp:406] BatchNorm17 <- Convolution17
I0924 21:06:13.655946  2642 net.cpp:367] BatchNorm17 -> Convolution17 (in-place)
I0924 21:06:13.656078  2642 net.cpp:122] Setting up BatchNorm17
I0924 21:06:13.656083  2642 net.cpp:129] Top shape: 100 16 28 28 (1254400)
I0924 21:06:13.656085  2642 net.cpp:137] Memory required for data: 447507600
I0924 21:06:13.656090  2642 layer_factory.hpp:77] Creating layer Scale17
I0924 21:06:13.656095  2642 net.cpp:84] Creating Layer Scale17
I0924 21:06:13.656097  2642 net.cpp:406] Scale17 <- Convolution17
I0924 21:06:13.656100  2642 net.cpp:367] Scale17 -> Convolution17 (in-place)
I0924 21:06:13.656126  2642 layer_factory.hpp:77] Creating layer Scale17
I0924 21:06:13.656204  2642 net.cpp:122] Setting up Scale17
I0924 21:06:13.656209  2642 net.cpp:129] Top shape: 100 16 28 28 (1254400)
I0924 21:06:13.656211  2642 net.cpp:137] Memory required for data: 452525200
I0924 21:06:13.656214  2642 layer_factory.hpp:77] Creating layer Eltwise8
I0924 21:06:13.656219  2642 net.cpp:84] Creating Layer Eltwise8
I0924 21:06:13.656222  2642 net.cpp:406] Eltwise8 <- Eltwise7_ReLU15_0_split_1
I0924 21:06:13.656225  2642 net.cpp:406] Eltwise8 <- Convolution17
I0924 21:06:13.656229  2642 net.cpp:380] Eltwise8 -> Eltwise8
I0924 21:06:13.656244  2642 net.cpp:122] Setting up Eltwise8
I0924 21:06:13.656247  2642 net.cpp:129] Top shape: 100 16 28 28 (1254400)
I0924 21:06:13.656250  2642 net.cpp:137] Memory required for data: 457542800
I0924 21:06:13.656251  2642 layer_factory.hpp:77] Creating layer ReLU17
I0924 21:06:13.656255  2642 net.cpp:84] Creating Layer ReLU17
I0924 21:06:13.656257  2642 net.cpp:406] ReLU17 <- Eltwise8
I0924 21:06:13.656261  2642 net.cpp:367] ReLU17 -> Eltwise8 (in-place)
I0924 21:06:13.656375  2642 net.cpp:122] Setting up ReLU17
I0924 21:06:13.656381  2642 net.cpp:129] Top shape: 100 16 28 28 (1254400)
I0924 21:06:13.656383  2642 net.cpp:137] Memory required for data: 462560400
I0924 21:06:13.656385  2642 layer_factory.hpp:77] Creating layer Eltwise8_ReLU17_0_split
I0924 21:06:13.656390  2642 net.cpp:84] Creating Layer Eltwise8_ReLU17_0_split
I0924 21:06:13.656392  2642 net.cpp:406] Eltwise8_ReLU17_0_split <- Eltwise8
I0924 21:06:13.656395  2642 net.cpp:380] Eltwise8_ReLU17_0_split -> Eltwise8_ReLU17_0_split_0
I0924 21:06:13.656399  2642 net.cpp:380] Eltwise8_ReLU17_0_split -> Eltwise8_ReLU17_0_split_1
I0924 21:06:13.656435  2642 net.cpp:122] Setting up Eltwise8_ReLU17_0_split
I0924 21:06:13.656440  2642 net.cpp:129] Top shape: 100 16 28 28 (1254400)
I0924 21:06:13.656442  2642 net.cpp:129] Top shape: 100 16 28 28 (1254400)
I0924 21:06:13.656445  2642 net.cpp:137] Memory required for data: 472595600
I0924 21:06:13.656446  2642 layer_factory.hpp:77] Creating layer Convolution18
I0924 21:06:13.656452  2642 net.cpp:84] Creating Layer Convolution18
I0924 21:06:13.656455  2642 net.cpp:406] Convolution18 <- Eltwise8_ReLU17_0_split_0
I0924 21:06:13.656460  2642 net.cpp:380] Convolution18 -> Convolution18
I0924 21:06:13.657356  2642 net.cpp:122] Setting up Convolution18
I0924 21:06:13.657366  2642 net.cpp:129] Top shape: 100 16 28 28 (1254400)
I0924 21:06:13.657368  2642 net.cpp:137] Memory required for data: 477613200
I0924 21:06:13.657372  2642 layer_factory.hpp:77] Creating layer BatchNorm18
I0924 21:06:13.657377  2642 net.cpp:84] Creating Layer BatchNorm18
I0924 21:06:13.657380  2642 net.cpp:406] BatchNorm18 <- Convolution18
I0924 21:06:13.657384  2642 net.cpp:367] BatchNorm18 -> Convolution18 (in-place)
I0924 21:06:13.657521  2642 net.cpp:122] Setting up BatchNorm18
I0924 21:06:13.657524  2642 net.cpp:129] Top shape: 100 16 28 28 (1254400)
I0924 21:06:13.657526  2642 net.cpp:137] Memory required for data: 482630800
I0924 21:06:13.657531  2642 layer_factory.hpp:77] Creating layer Scale18
I0924 21:06:13.657536  2642 net.cpp:84] Creating Layer Scale18
I0924 21:06:13.657538  2642 net.cpp:406] Scale18 <- Convolution18
I0924 21:06:13.657541  2642 net.cpp:367] Scale18 -> Convolution18 (in-place)
I0924 21:06:13.657568  2642 layer_factory.hpp:77] Creating layer Scale18
I0924 21:06:13.657646  2642 net.cpp:122] Setting up Scale18
I0924 21:06:13.657651  2642 net.cpp:129] Top shape: 100 16 28 28 (1254400)
I0924 21:06:13.657654  2642 net.cpp:137] Memory required for data: 487648400
I0924 21:06:13.657657  2642 layer_factory.hpp:77] Creating layer ReLU18
I0924 21:06:13.657660  2642 net.cpp:84] Creating Layer ReLU18
I0924 21:06:13.657663  2642 net.cpp:406] ReLU18 <- Convolution18
I0924 21:06:13.657665  2642 net.cpp:367] ReLU18 -> Convolution18 (in-place)
I0924 21:06:13.657780  2642 net.cpp:122] Setting up ReLU18
I0924 21:06:13.657786  2642 net.cpp:129] Top shape: 100 16 28 28 (1254400)
I0924 21:06:13.657788  2642 net.cpp:137] Memory required for data: 492666000
I0924 21:06:13.657791  2642 layer_factory.hpp:77] Creating layer Convolution19
I0924 21:06:13.657797  2642 net.cpp:84] Creating Layer Convolution19
I0924 21:06:13.657800  2642 net.cpp:406] Convolution19 <- Convolution18
I0924 21:06:13.657804  2642 net.cpp:380] Convolution19 -> Convolution19
I0924 21:06:13.658695  2642 net.cpp:122] Setting up Convolution19
I0924 21:06:13.658704  2642 net.cpp:129] Top shape: 100 16 28 28 (1254400)
I0924 21:06:13.658706  2642 net.cpp:137] Memory required for data: 497683600
I0924 21:06:13.658710  2642 layer_factory.hpp:77] Creating layer BatchNorm19
I0924 21:06:13.658715  2642 net.cpp:84] Creating Layer BatchNorm19
I0924 21:06:13.658717  2642 net.cpp:406] BatchNorm19 <- Convolution19
I0924 21:06:13.658722  2642 net.cpp:367] BatchNorm19 -> Convolution19 (in-place)
I0924 21:06:13.658859  2642 net.cpp:122] Setting up BatchNorm19
I0924 21:06:13.658864  2642 net.cpp:129] Top shape: 100 16 28 28 (1254400)
I0924 21:06:13.658866  2642 net.cpp:137] Memory required for data: 502701200
I0924 21:06:13.658882  2642 layer_factory.hpp:77] Creating layer Scale19
I0924 21:06:13.658888  2642 net.cpp:84] Creating Layer Scale19
I0924 21:06:13.658890  2642 net.cpp:406] Scale19 <- Convolution19
I0924 21:06:13.658893  2642 net.cpp:367] Scale19 -> Convolution19 (in-place)
I0924 21:06:13.658922  2642 layer_factory.hpp:77] Creating layer Scale19
I0924 21:06:13.659003  2642 net.cpp:122] Setting up Scale19
I0924 21:06:13.659006  2642 net.cpp:129] Top shape: 100 16 28 28 (1254400)
I0924 21:06:13.659009  2642 net.cpp:137] Memory required for data: 507718800
I0924 21:06:13.659013  2642 layer_factory.hpp:77] Creating layer Eltwise9
I0924 21:06:13.659016  2642 net.cpp:84] Creating Layer Eltwise9
I0924 21:06:13.659025  2642 net.cpp:406] Eltwise9 <- Eltwise8_ReLU17_0_split_1
I0924 21:06:13.659029  2642 net.cpp:406] Eltwise9 <- Convolution19
I0924 21:06:13.659032  2642 net.cpp:380] Eltwise9 -> Eltwise9
I0924 21:06:13.659050  2642 net.cpp:122] Setting up Eltwise9
I0924 21:06:13.659054  2642 net.cpp:129] Top shape: 100 16 28 28 (1254400)
I0924 21:06:13.659056  2642 net.cpp:137] Memory required for data: 512736400
I0924 21:06:13.659059  2642 layer_factory.hpp:77] Creating layer ReLU19
I0924 21:06:13.659061  2642 net.cpp:84] Creating Layer ReLU19
I0924 21:06:13.659065  2642 net.cpp:406] ReLU19 <- Eltwise9
I0924 21:06:13.659067  2642 net.cpp:367] ReLU19 -> Eltwise9 (in-place)
I0924 21:06:13.659183  2642 net.cpp:122] Setting up ReLU19
I0924 21:06:13.659188  2642 net.cpp:129] Top shape: 100 16 28 28 (1254400)
I0924 21:06:13.659190  2642 net.cpp:137] Memory required for data: 517754000
I0924 21:06:13.659193  2642 layer_factory.hpp:77] Creating layer Eltwise9_ReLU19_0_split
I0924 21:06:13.659198  2642 net.cpp:84] Creating Layer Eltwise9_ReLU19_0_split
I0924 21:06:13.659199  2642 net.cpp:406] Eltwise9_ReLU19_0_split <- Eltwise9
I0924 21:06:13.659204  2642 net.cpp:380] Eltwise9_ReLU19_0_split -> Eltwise9_ReLU19_0_split_0
I0924 21:06:13.659207  2642 net.cpp:380] Eltwise9_ReLU19_0_split -> Eltwise9_ReLU19_0_split_1
I0924 21:06:13.659235  2642 net.cpp:122] Setting up Eltwise9_ReLU19_0_split
I0924 21:06:13.659237  2642 net.cpp:129] Top shape: 100 16 28 28 (1254400)
I0924 21:06:13.659240  2642 net.cpp:129] Top shape: 100 16 28 28 (1254400)
I0924 21:06:13.659242  2642 net.cpp:137] Memory required for data: 527789200
I0924 21:06:13.659245  2642 layer_factory.hpp:77] Creating layer Convolution20
I0924 21:06:13.659252  2642 net.cpp:84] Creating Layer Convolution20
I0924 21:06:13.659255  2642 net.cpp:406] Convolution20 <- Eltwise9_ReLU19_0_split_0
I0924 21:06:13.659260  2642 net.cpp:380] Convolution20 -> Convolution20
I0924 21:06:13.660429  2642 net.cpp:122] Setting up Convolution20
I0924 21:06:13.660436  2642 net.cpp:129] Top shape: 100 32 14 14 (627200)
I0924 21:06:13.660439  2642 net.cpp:137] Memory required for data: 530298000
I0924 21:06:13.660444  2642 layer_factory.hpp:77] Creating layer BatchNorm20
I0924 21:06:13.660449  2642 net.cpp:84] Creating Layer BatchNorm20
I0924 21:06:13.660451  2642 net.cpp:406] BatchNorm20 <- Convolution20
I0924 21:06:13.660455  2642 net.cpp:367] BatchNorm20 -> Convolution20 (in-place)
I0924 21:06:13.660600  2642 net.cpp:122] Setting up BatchNorm20
I0924 21:06:13.660604  2642 net.cpp:129] Top shape: 100 32 14 14 (627200)
I0924 21:06:13.660607  2642 net.cpp:137] Memory required for data: 532806800
I0924 21:06:13.660611  2642 layer_factory.hpp:77] Creating layer Scale20
I0924 21:06:13.660615  2642 net.cpp:84] Creating Layer Scale20
I0924 21:06:13.660619  2642 net.cpp:406] Scale20 <- Convolution20
I0924 21:06:13.660621  2642 net.cpp:367] Scale20 -> Convolution20 (in-place)
I0924 21:06:13.660648  2642 layer_factory.hpp:77] Creating layer Scale20
I0924 21:06:13.660727  2642 net.cpp:122] Setting up Scale20
I0924 21:06:13.660732  2642 net.cpp:129] Top shape: 100 32 14 14 (627200)
I0924 21:06:13.660733  2642 net.cpp:137] Memory required for data: 535315600
I0924 21:06:13.660737  2642 layer_factory.hpp:77] Creating layer Convolution21
I0924 21:06:13.660743  2642 net.cpp:84] Creating Layer Convolution21
I0924 21:06:13.660746  2642 net.cpp:406] Convolution21 <- Eltwise9_ReLU19_0_split_1
I0924 21:06:13.660750  2642 net.cpp:380] Convolution21 -> Convolution21
I0924 21:06:13.662506  2642 net.cpp:122] Setting up Convolution21
I0924 21:06:13.662515  2642 net.cpp:129] Top shape: 100 32 14 14 (627200)
I0924 21:06:13.662518  2642 net.cpp:137] Memory required for data: 537824400
I0924 21:06:13.662523  2642 layer_factory.hpp:77] Creating layer BatchNorm21
I0924 21:06:13.662528  2642 net.cpp:84] Creating Layer BatchNorm21
I0924 21:06:13.662531  2642 net.cpp:406] BatchNorm21 <- Convolution21
I0924 21:06:13.662534  2642 net.cpp:367] BatchNorm21 -> Convolution21 (in-place)
I0924 21:06:13.662675  2642 net.cpp:122] Setting up BatchNorm21
I0924 21:06:13.662686  2642 net.cpp:129] Top shape: 100 32 14 14 (627200)
I0924 21:06:13.662689  2642 net.cpp:137] Memory required for data: 540333200
I0924 21:06:13.662694  2642 layer_factory.hpp:77] Creating layer Scale21
I0924 21:06:13.662699  2642 net.cpp:84] Creating Layer Scale21
I0924 21:06:13.662701  2642 net.cpp:406] Scale21 <- Convolution21
I0924 21:06:13.662705  2642 net.cpp:367] Scale21 -> Convolution21 (in-place)
I0924 21:06:13.662734  2642 layer_factory.hpp:77] Creating layer Scale21
I0924 21:06:13.662812  2642 net.cpp:122] Setting up Scale21
I0924 21:06:13.662817  2642 net.cpp:129] Top shape: 100 32 14 14 (627200)
I0924 21:06:13.662818  2642 net.cpp:137] Memory required for data: 542842000
I0924 21:06:13.662822  2642 layer_factory.hpp:77] Creating layer ReLU20
I0924 21:06:13.662825  2642 net.cpp:84] Creating Layer ReLU20
I0924 21:06:13.662828  2642 net.cpp:406] ReLU20 <- Convolution21
I0924 21:06:13.662832  2642 net.cpp:367] ReLU20 -> Convolution21 (in-place)
I0924 21:06:13.662948  2642 net.cpp:122] Setting up ReLU20
I0924 21:06:13.662955  2642 net.cpp:129] Top shape: 100 32 14 14 (627200)
I0924 21:06:13.662956  2642 net.cpp:137] Memory required for data: 545350800
I0924 21:06:13.662958  2642 layer_factory.hpp:77] Creating layer Convolution22
I0924 21:06:13.662966  2642 net.cpp:84] Creating Layer Convolution22
I0924 21:06:13.662968  2642 net.cpp:406] Convolution22 <- Convolution21
I0924 21:06:13.662972  2642 net.cpp:380] Convolution22 -> Convolution22
I0924 21:06:13.674268  2642 net.cpp:122] Setting up Convolution22
I0924 21:06:13.674278  2642 net.cpp:129] Top shape: 100 32 14 14 (627200)
I0924 21:06:13.674280  2642 net.cpp:137] Memory required for data: 547859600
I0924 21:06:13.674285  2642 layer_factory.hpp:77] Creating layer BatchNorm22
I0924 21:06:13.674291  2642 net.cpp:84] Creating Layer BatchNorm22
I0924 21:06:13.674294  2642 net.cpp:406] BatchNorm22 <- Convolution22
I0924 21:06:13.674299  2642 net.cpp:367] BatchNorm22 -> Convolution22 (in-place)
I0924 21:06:13.674453  2642 net.cpp:122] Setting up BatchNorm22
I0924 21:06:13.674458  2642 net.cpp:129] Top shape: 100 32 14 14 (627200)
I0924 21:06:13.674459  2642 net.cpp:137] Memory required for data: 550368400
I0924 21:06:13.674465  2642 layer_factory.hpp:77] Creating layer Scale22
I0924 21:06:13.674470  2642 net.cpp:84] Creating Layer Scale22
I0924 21:06:13.674474  2642 net.cpp:406] Scale22 <- Convolution22
I0924 21:06:13.674476  2642 net.cpp:367] Scale22 -> Convolution22 (in-place)
I0924 21:06:13.674506  2642 layer_factory.hpp:77] Creating layer Scale22
I0924 21:06:13.674592  2642 net.cpp:122] Setting up Scale22
I0924 21:06:13.674597  2642 net.cpp:129] Top shape: 100 32 14 14 (627200)
I0924 21:06:13.674599  2642 net.cpp:137] Memory required for data: 552877200
I0924 21:06:13.674603  2642 layer_factory.hpp:77] Creating layer Eltwise10
I0924 21:06:13.674608  2642 net.cpp:84] Creating Layer Eltwise10
I0924 21:06:13.674610  2642 net.cpp:406] Eltwise10 <- Convolution20
I0924 21:06:13.674614  2642 net.cpp:406] Eltwise10 <- Convolution22
I0924 21:06:13.674618  2642 net.cpp:380] Eltwise10 -> Eltwise10
I0924 21:06:13.674635  2642 net.cpp:122] Setting up Eltwise10
I0924 21:06:13.674639  2642 net.cpp:129] Top shape: 100 32 14 14 (627200)
I0924 21:06:13.674643  2642 net.cpp:137] Memory required for data: 555386000
I0924 21:06:13.674644  2642 layer_factory.hpp:77] Creating layer ReLU21
I0924 21:06:13.674649  2642 net.cpp:84] Creating Layer ReLU21
I0924 21:06:13.674650  2642 net.cpp:406] ReLU21 <- Eltwise10
I0924 21:06:13.674654  2642 net.cpp:367] ReLU21 -> Eltwise10 (in-place)
I0924 21:06:13.675130  2642 net.cpp:122] Setting up ReLU21
I0924 21:06:13.675139  2642 net.cpp:129] Top shape: 100 32 14 14 (627200)
I0924 21:06:13.675142  2642 net.cpp:137] Memory required for data: 557894800
I0924 21:06:13.675144  2642 layer_factory.hpp:77] Creating layer Eltwise10_ReLU21_0_split
I0924 21:06:13.675149  2642 net.cpp:84] Creating Layer Eltwise10_ReLU21_0_split
I0924 21:06:13.675153  2642 net.cpp:406] Eltwise10_ReLU21_0_split <- Eltwise10
I0924 21:06:13.675156  2642 net.cpp:380] Eltwise10_ReLU21_0_split -> Eltwise10_ReLU21_0_split_0
I0924 21:06:13.675170  2642 net.cpp:380] Eltwise10_ReLU21_0_split -> Eltwise10_ReLU21_0_split_1
I0924 21:06:13.675204  2642 net.cpp:122] Setting up Eltwise10_ReLU21_0_split
I0924 21:06:13.675209  2642 net.cpp:129] Top shape: 100 32 14 14 (627200)
I0924 21:06:13.675210  2642 net.cpp:129] Top shape: 100 32 14 14 (627200)
I0924 21:06:13.675213  2642 net.cpp:137] Memory required for data: 562912400
I0924 21:06:13.675215  2642 layer_factory.hpp:77] Creating layer Convolution23
I0924 21:06:13.675222  2642 net.cpp:84] Creating Layer Convolution23
I0924 21:06:13.675225  2642 net.cpp:406] Convolution23 <- Eltwise10_ReLU21_0_split_0
I0924 21:06:13.675230  2642 net.cpp:380] Convolution23 -> Convolution23
I0924 21:06:13.676332  2642 net.cpp:122] Setting up Convolution23
I0924 21:06:13.676342  2642 net.cpp:129] Top shape: 100 32 14 14 (627200)
I0924 21:06:13.676343  2642 net.cpp:137] Memory required for data: 565421200
I0924 21:06:13.676347  2642 layer_factory.hpp:77] Creating layer BatchNorm23
I0924 21:06:13.676353  2642 net.cpp:84] Creating Layer BatchNorm23
I0924 21:06:13.676355  2642 net.cpp:406] BatchNorm23 <- Convolution23
I0924 21:06:13.676359  2642 net.cpp:367] BatchNorm23 -> Convolution23 (in-place)
I0924 21:06:13.676494  2642 net.cpp:122] Setting up BatchNorm23
I0924 21:06:13.676499  2642 net.cpp:129] Top shape: 100 32 14 14 (627200)
I0924 21:06:13.676501  2642 net.cpp:137] Memory required for data: 567930000
I0924 21:06:13.676506  2642 layer_factory.hpp:77] Creating layer Scale23
I0924 21:06:13.676511  2642 net.cpp:84] Creating Layer Scale23
I0924 21:06:13.676513  2642 net.cpp:406] Scale23 <- Convolution23
I0924 21:06:13.676517  2642 net.cpp:367] Scale23 -> Convolution23 (in-place)
I0924 21:06:13.676542  2642 layer_factory.hpp:77] Creating layer Scale23
I0924 21:06:13.676620  2642 net.cpp:122] Setting up Scale23
I0924 21:06:13.676623  2642 net.cpp:129] Top shape: 100 32 14 14 (627200)
I0924 21:06:13.676625  2642 net.cpp:137] Memory required for data: 570438800
I0924 21:06:13.676630  2642 layer_factory.hpp:77] Creating layer ReLU22
I0924 21:06:13.676633  2642 net.cpp:84] Creating Layer ReLU22
I0924 21:06:13.676636  2642 net.cpp:406] ReLU22 <- Convolution23
I0924 21:06:13.676640  2642 net.cpp:367] ReLU22 -> Convolution23 (in-place)
I0924 21:06:13.677073  2642 net.cpp:122] Setting up ReLU22
I0924 21:06:13.677081  2642 net.cpp:129] Top shape: 100 32 14 14 (627200)
I0924 21:06:13.677083  2642 net.cpp:137] Memory required for data: 572947600
I0924 21:06:13.677086  2642 layer_factory.hpp:77] Creating layer Convolution24
I0924 21:06:13.677093  2642 net.cpp:84] Creating Layer Convolution24
I0924 21:06:13.677096  2642 net.cpp:406] Convolution24 <- Convolution23
I0924 21:06:13.677100  2642 net.cpp:380] Convolution24 -> Convolution24
I0924 21:06:13.678136  2642 net.cpp:122] Setting up Convolution24
I0924 21:06:13.678144  2642 net.cpp:129] Top shape: 100 32 14 14 (627200)
I0924 21:06:13.678146  2642 net.cpp:137] Memory required for data: 575456400
I0924 21:06:13.678151  2642 layer_factory.hpp:77] Creating layer BatchNorm24
I0924 21:06:13.678155  2642 net.cpp:84] Creating Layer BatchNorm24
I0924 21:06:13.678158  2642 net.cpp:406] BatchNorm24 <- Convolution24
I0924 21:06:13.678164  2642 net.cpp:367] BatchNorm24 -> Convolution24 (in-place)
I0924 21:06:13.678298  2642 net.cpp:122] Setting up BatchNorm24
I0924 21:06:13.678303  2642 net.cpp:129] Top shape: 100 32 14 14 (627200)
I0924 21:06:13.678304  2642 net.cpp:137] Memory required for data: 577965200
I0924 21:06:13.678309  2642 layer_factory.hpp:77] Creating layer Scale24
I0924 21:06:13.678313  2642 net.cpp:84] Creating Layer Scale24
I0924 21:06:13.678315  2642 net.cpp:406] Scale24 <- Convolution24
I0924 21:06:13.678319  2642 net.cpp:367] Scale24 -> Convolution24 (in-place)
I0924 21:06:13.678345  2642 layer_factory.hpp:77] Creating layer Scale24
I0924 21:06:13.678421  2642 net.cpp:122] Setting up Scale24
I0924 21:06:13.678424  2642 net.cpp:129] Top shape: 100 32 14 14 (627200)
I0924 21:06:13.678426  2642 net.cpp:137] Memory required for data: 580474000
I0924 21:06:13.678436  2642 layer_factory.hpp:77] Creating layer Eltwise11
I0924 21:06:13.678442  2642 net.cpp:84] Creating Layer Eltwise11
I0924 21:06:13.678443  2642 net.cpp:406] Eltwise11 <- Eltwise10_ReLU21_0_split_1
I0924 21:06:13.678447  2642 net.cpp:406] Eltwise11 <- Convolution24
I0924 21:06:13.678450  2642 net.cpp:380] Eltwise11 -> Eltwise11
I0924 21:06:13.678467  2642 net.cpp:122] Setting up Eltwise11
I0924 21:06:13.678472  2642 net.cpp:129] Top shape: 100 32 14 14 (627200)
I0924 21:06:13.678473  2642 net.cpp:137] Memory required for data: 582982800
I0924 21:06:13.678475  2642 layer_factory.hpp:77] Creating layer ReLU23
I0924 21:06:13.678478  2642 net.cpp:84] Creating Layer ReLU23
I0924 21:06:13.678480  2642 net.cpp:406] ReLU23 <- Eltwise11
I0924 21:06:13.678483  2642 net.cpp:367] ReLU23 -> Eltwise11 (in-place)
I0924 21:06:13.678601  2642 net.cpp:122] Setting up ReLU23
I0924 21:06:13.678606  2642 net.cpp:129] Top shape: 100 32 14 14 (627200)
I0924 21:06:13.678607  2642 net.cpp:137] Memory required for data: 585491600
I0924 21:06:13.678611  2642 layer_factory.hpp:77] Creating layer Eltwise11_ReLU23_0_split
I0924 21:06:13.678613  2642 net.cpp:84] Creating Layer Eltwise11_ReLU23_0_split
I0924 21:06:13.678616  2642 net.cpp:406] Eltwise11_ReLU23_0_split <- Eltwise11
I0924 21:06:13.678619  2642 net.cpp:380] Eltwise11_ReLU23_0_split -> Eltwise11_ReLU23_0_split_0
I0924 21:06:13.678624  2642 net.cpp:380] Eltwise11_ReLU23_0_split -> Eltwise11_ReLU23_0_split_1
I0924 21:06:13.678650  2642 net.cpp:122] Setting up Eltwise11_ReLU23_0_split
I0924 21:06:13.678654  2642 net.cpp:129] Top shape: 100 32 14 14 (627200)
I0924 21:06:13.678658  2642 net.cpp:129] Top shape: 100 32 14 14 (627200)
I0924 21:06:13.678658  2642 net.cpp:137] Memory required for data: 590509200
I0924 21:06:13.678660  2642 layer_factory.hpp:77] Creating layer Convolution25
I0924 21:06:13.678668  2642 net.cpp:84] Creating Layer Convolution25
I0924 21:06:13.678670  2642 net.cpp:406] Convolution25 <- Eltwise11_ReLU23_0_split_0
I0924 21:06:13.678674  2642 net.cpp:380] Convolution25 -> Convolution25
I0924 21:06:13.679702  2642 net.cpp:122] Setting up Convolution25
I0924 21:06:13.679709  2642 net.cpp:129] Top shape: 100 32 14 14 (627200)
I0924 21:06:13.679711  2642 net.cpp:137] Memory required for data: 593018000
I0924 21:06:13.679716  2642 layer_factory.hpp:77] Creating layer BatchNorm25
I0924 21:06:13.679721  2642 net.cpp:84] Creating Layer BatchNorm25
I0924 21:06:13.679724  2642 net.cpp:406] BatchNorm25 <- Convolution25
I0924 21:06:13.679728  2642 net.cpp:367] BatchNorm25 -> Convolution25 (in-place)
I0924 21:06:13.679863  2642 net.cpp:122] Setting up BatchNorm25
I0924 21:06:13.679868  2642 net.cpp:129] Top shape: 100 32 14 14 (627200)
I0924 21:06:13.679870  2642 net.cpp:137] Memory required for data: 595526800
I0924 21:06:13.679875  2642 layer_factory.hpp:77] Creating layer Scale25
I0924 21:06:13.679879  2642 net.cpp:84] Creating Layer Scale25
I0924 21:06:13.679882  2642 net.cpp:406] Scale25 <- Convolution25
I0924 21:06:13.679885  2642 net.cpp:367] Scale25 -> Convolution25 (in-place)
I0924 21:06:13.679911  2642 layer_factory.hpp:77] Creating layer Scale25
I0924 21:06:13.679989  2642 net.cpp:122] Setting up Scale25
I0924 21:06:13.679993  2642 net.cpp:129] Top shape: 100 32 14 14 (627200)
I0924 21:06:13.679996  2642 net.cpp:137] Memory required for data: 598035600
I0924 21:06:13.679998  2642 layer_factory.hpp:77] Creating layer ReLU24
I0924 21:06:13.680002  2642 net.cpp:84] Creating Layer ReLU24
I0924 21:06:13.680006  2642 net.cpp:406] ReLU24 <- Convolution25
I0924 21:06:13.680008  2642 net.cpp:367] ReLU24 -> Convolution25 (in-place)
I0924 21:06:13.680121  2642 net.cpp:122] Setting up ReLU24
I0924 21:06:13.680127  2642 net.cpp:129] Top shape: 100 32 14 14 (627200)
I0924 21:06:13.680130  2642 net.cpp:137] Memory required for data: 600544400
I0924 21:06:13.680131  2642 layer_factory.hpp:77] Creating layer Convolution26
I0924 21:06:13.680138  2642 net.cpp:84] Creating Layer Convolution26
I0924 21:06:13.680141  2642 net.cpp:406] Convolution26 <- Convolution25
I0924 21:06:13.680151  2642 net.cpp:380] Convolution26 -> Convolution26
I0924 21:06:13.681193  2642 net.cpp:122] Setting up Convolution26
I0924 21:06:13.681202  2642 net.cpp:129] Top shape: 100 32 14 14 (627200)
I0924 21:06:13.681205  2642 net.cpp:137] Memory required for data: 603053200
I0924 21:06:13.681210  2642 layer_factory.hpp:77] Creating layer BatchNorm26
I0924 21:06:13.681216  2642 net.cpp:84] Creating Layer BatchNorm26
I0924 21:06:13.681217  2642 net.cpp:406] BatchNorm26 <- Convolution26
I0924 21:06:13.681221  2642 net.cpp:367] BatchNorm26 -> Convolution26 (in-place)
I0924 21:06:13.681360  2642 net.cpp:122] Setting up BatchNorm26
I0924 21:06:13.681365  2642 net.cpp:129] Top shape: 100 32 14 14 (627200)
I0924 21:06:13.681366  2642 net.cpp:137] Memory required for data: 605562000
I0924 21:06:13.681371  2642 layer_factory.hpp:77] Creating layer Scale26
I0924 21:06:13.681375  2642 net.cpp:84] Creating Layer Scale26
I0924 21:06:13.681377  2642 net.cpp:406] Scale26 <- Convolution26
I0924 21:06:13.681380  2642 net.cpp:367] Scale26 -> Convolution26 (in-place)
I0924 21:06:13.681408  2642 layer_factory.hpp:77] Creating layer Scale26
I0924 21:06:13.681485  2642 net.cpp:122] Setting up Scale26
I0924 21:06:13.681489  2642 net.cpp:129] Top shape: 100 32 14 14 (627200)
I0924 21:06:13.681491  2642 net.cpp:137] Memory required for data: 608070800
I0924 21:06:13.681495  2642 layer_factory.hpp:77] Creating layer Eltwise12
I0924 21:06:13.681499  2642 net.cpp:84] Creating Layer Eltwise12
I0924 21:06:13.681502  2642 net.cpp:406] Eltwise12 <- Eltwise11_ReLU23_0_split_1
I0924 21:06:13.681505  2642 net.cpp:406] Eltwise12 <- Convolution26
I0924 21:06:13.681509  2642 net.cpp:380] Eltwise12 -> Eltwise12
I0924 21:06:13.681524  2642 net.cpp:122] Setting up Eltwise12
I0924 21:06:13.681527  2642 net.cpp:129] Top shape: 100 32 14 14 (627200)
I0924 21:06:13.681529  2642 net.cpp:137] Memory required for data: 610579600
I0924 21:06:13.681531  2642 layer_factory.hpp:77] Creating layer ReLU25
I0924 21:06:13.681535  2642 net.cpp:84] Creating Layer ReLU25
I0924 21:06:13.681537  2642 net.cpp:406] ReLU25 <- Eltwise12
I0924 21:06:13.681540  2642 net.cpp:367] ReLU25 -> Eltwise12 (in-place)
I0924 21:06:13.681655  2642 net.cpp:122] Setting up ReLU25
I0924 21:06:13.681661  2642 net.cpp:129] Top shape: 100 32 14 14 (627200)
I0924 21:06:13.681664  2642 net.cpp:137] Memory required for data: 613088400
I0924 21:06:13.681666  2642 layer_factory.hpp:77] Creating layer Eltwise12_ReLU25_0_split
I0924 21:06:13.681676  2642 net.cpp:84] Creating Layer Eltwise12_ReLU25_0_split
I0924 21:06:13.681679  2642 net.cpp:406] Eltwise12_ReLU25_0_split <- Eltwise12
I0924 21:06:13.681684  2642 net.cpp:380] Eltwise12_ReLU25_0_split -> Eltwise12_ReLU25_0_split_0
I0924 21:06:13.681691  2642 net.cpp:380] Eltwise12_ReLU25_0_split -> Eltwise12_ReLU25_0_split_1
I0924 21:06:13.681721  2642 net.cpp:122] Setting up Eltwise12_ReLU25_0_split
I0924 21:06:13.681727  2642 net.cpp:129] Top shape: 100 32 14 14 (627200)
I0924 21:06:13.681730  2642 net.cpp:129] Top shape: 100 32 14 14 (627200)
I0924 21:06:13.681731  2642 net.cpp:137] Memory required for data: 618106000
I0924 21:06:13.681735  2642 layer_factory.hpp:77] Creating layer Convolution27
I0924 21:06:13.681751  2642 net.cpp:84] Creating Layer Convolution27
I0924 21:06:13.681753  2642 net.cpp:406] Convolution27 <- Eltwise12_ReLU25_0_split_0
I0924 21:06:13.681772  2642 net.cpp:380] Convolution27 -> Convolution27
I0924 21:06:13.682854  2642 net.cpp:122] Setting up Convolution27
I0924 21:06:13.682863  2642 net.cpp:129] Top shape: 100 32 14 14 (627200)
I0924 21:06:13.682865  2642 net.cpp:137] Memory required for data: 620614800
I0924 21:06:13.682870  2642 layer_factory.hpp:77] Creating layer BatchNorm27
I0924 21:06:13.682875  2642 net.cpp:84] Creating Layer BatchNorm27
I0924 21:06:13.682878  2642 net.cpp:406] BatchNorm27 <- Convolution27
I0924 21:06:13.682881  2642 net.cpp:367] BatchNorm27 -> Convolution27 (in-place)
I0924 21:06:13.683051  2642 net.cpp:122] Setting up BatchNorm27
I0924 21:06:13.683056  2642 net.cpp:129] Top shape: 100 32 14 14 (627200)
I0924 21:06:13.683075  2642 net.cpp:137] Memory required for data: 623123600
I0924 21:06:13.683081  2642 layer_factory.hpp:77] Creating layer Scale27
I0924 21:06:13.683085  2642 net.cpp:84] Creating Layer Scale27
I0924 21:06:13.683087  2642 net.cpp:406] Scale27 <- Convolution27
I0924 21:06:13.683092  2642 net.cpp:367] Scale27 -> Convolution27 (in-place)
I0924 21:06:13.683120  2642 layer_factory.hpp:77] Creating layer Scale27
I0924 21:06:13.683214  2642 net.cpp:122] Setting up Scale27
I0924 21:06:13.683219  2642 net.cpp:129] Top shape: 100 32 14 14 (627200)
I0924 21:06:13.683221  2642 net.cpp:137] Memory required for data: 625632400
I0924 21:06:13.683225  2642 layer_factory.hpp:77] Creating layer ReLU26
I0924 21:06:13.683229  2642 net.cpp:84] Creating Layer ReLU26
I0924 21:06:13.683231  2642 net.cpp:406] ReLU26 <- Convolution27
I0924 21:06:13.683235  2642 net.cpp:367] ReLU26 -> Convolution27 (in-place)
I0924 21:06:13.683357  2642 net.cpp:122] Setting up ReLU26
I0924 21:06:13.683362  2642 net.cpp:129] Top shape: 100 32 14 14 (627200)
I0924 21:06:13.683364  2642 net.cpp:137] Memory required for data: 628141200
I0924 21:06:13.683367  2642 layer_factory.hpp:77] Creating layer Convolution28
I0924 21:06:13.683374  2642 net.cpp:84] Creating Layer Convolution28
I0924 21:06:13.683385  2642 net.cpp:406] Convolution28 <- Convolution27
I0924 21:06:13.683390  2642 net.cpp:380] Convolution28 -> Convolution28
I0924 21:06:13.684643  2642 net.cpp:122] Setting up Convolution28
I0924 21:06:13.684653  2642 net.cpp:129] Top shape: 100 32 14 14 (627200)
I0924 21:06:13.684654  2642 net.cpp:137] Memory required for data: 630650000
I0924 21:06:13.684659  2642 layer_factory.hpp:77] Creating layer BatchNorm28
I0924 21:06:13.684664  2642 net.cpp:84] Creating Layer BatchNorm28
I0924 21:06:13.684667  2642 net.cpp:406] BatchNorm28 <- Convolution28
I0924 21:06:13.684671  2642 net.cpp:367] BatchNorm28 -> Convolution28 (in-place)
I0924 21:06:13.684809  2642 net.cpp:122] Setting up BatchNorm28
I0924 21:06:13.684814  2642 net.cpp:129] Top shape: 100 32 14 14 (627200)
I0924 21:06:13.684816  2642 net.cpp:137] Memory required for data: 633158800
I0924 21:06:13.684821  2642 layer_factory.hpp:77] Creating layer Scale28
I0924 21:06:13.684825  2642 net.cpp:84] Creating Layer Scale28
I0924 21:06:13.684828  2642 net.cpp:406] Scale28 <- Convolution28
I0924 21:06:13.684831  2642 net.cpp:367] Scale28 -> Convolution28 (in-place)
I0924 21:06:13.684859  2642 layer_factory.hpp:77] Creating layer Scale28
I0924 21:06:13.684962  2642 net.cpp:122] Setting up Scale28
I0924 21:06:13.684968  2642 net.cpp:129] Top shape: 100 32 14 14 (627200)
I0924 21:06:13.684970  2642 net.cpp:137] Memory required for data: 635667600
I0924 21:06:13.684973  2642 layer_factory.hpp:77] Creating layer Eltwise13
I0924 21:06:13.684978  2642 net.cpp:84] Creating Layer Eltwise13
I0924 21:06:13.684981  2642 net.cpp:406] Eltwise13 <- Eltwise12_ReLU25_0_split_1
I0924 21:06:13.684984  2642 net.cpp:406] Eltwise13 <- Convolution28
I0924 21:06:13.684988  2642 net.cpp:380] Eltwise13 -> Eltwise13
I0924 21:06:13.685004  2642 net.cpp:122] Setting up Eltwise13
I0924 21:06:13.685009  2642 net.cpp:129] Top shape: 100 32 14 14 (627200)
I0924 21:06:13.685010  2642 net.cpp:137] Memory required for data: 638176400
I0924 21:06:13.685012  2642 layer_factory.hpp:77] Creating layer ReLU27
I0924 21:06:13.685016  2642 net.cpp:84] Creating Layer ReLU27
I0924 21:06:13.685019  2642 net.cpp:406] ReLU27 <- Eltwise13
I0924 21:06:13.685022  2642 net.cpp:367] ReLU27 -> Eltwise13 (in-place)
I0924 21:06:13.685518  2642 net.cpp:122] Setting up ReLU27
I0924 21:06:13.685525  2642 net.cpp:129] Top shape: 100 32 14 14 (627200)
I0924 21:06:13.685528  2642 net.cpp:137] Memory required for data: 640685200
I0924 21:06:13.685531  2642 layer_factory.hpp:77] Creating layer Eltwise13_ReLU27_0_split
I0924 21:06:13.685536  2642 net.cpp:84] Creating Layer Eltwise13_ReLU27_0_split
I0924 21:06:13.685539  2642 net.cpp:406] Eltwise13_ReLU27_0_split <- Eltwise13
I0924 21:06:13.685542  2642 net.cpp:380] Eltwise13_ReLU27_0_split -> Eltwise13_ReLU27_0_split_0
I0924 21:06:13.685554  2642 net.cpp:380] Eltwise13_ReLU27_0_split -> Eltwise13_ReLU27_0_split_1
I0924 21:06:13.685585  2642 net.cpp:122] Setting up Eltwise13_ReLU27_0_split
I0924 21:06:13.685590  2642 net.cpp:129] Top shape: 100 32 14 14 (627200)
I0924 21:06:13.685592  2642 net.cpp:129] Top shape: 100 32 14 14 (627200)
I0924 21:06:13.685595  2642 net.cpp:137] Memory required for data: 645702800
I0924 21:06:13.685597  2642 layer_factory.hpp:77] Creating layer Convolution29
I0924 21:06:13.685605  2642 net.cpp:84] Creating Layer Convolution29
I0924 21:06:13.685606  2642 net.cpp:406] Convolution29 <- Eltwise13_ReLU27_0_split_0
I0924 21:06:13.685611  2642 net.cpp:380] Convolution29 -> Convolution29
I0924 21:06:13.686352  2642 net.cpp:122] Setting up Convolution29
I0924 21:06:13.686359  2642 net.cpp:129] Top shape: 100 32 14 14 (627200)
I0924 21:06:13.686362  2642 net.cpp:137] Memory required for data: 648211600
I0924 21:06:13.686367  2642 layer_factory.hpp:77] Creating layer BatchNorm29
I0924 21:06:13.686372  2642 net.cpp:84] Creating Layer BatchNorm29
I0924 21:06:13.686374  2642 net.cpp:406] BatchNorm29 <- Convolution29
I0924 21:06:13.686378  2642 net.cpp:367] BatchNorm29 -> Convolution29 (in-place)
I0924 21:06:13.686512  2642 net.cpp:122] Setting up BatchNorm29
I0924 21:06:13.686517  2642 net.cpp:129] Top shape: 100 32 14 14 (627200)
I0924 21:06:13.686519  2642 net.cpp:137] Memory required for data: 650720400
I0924 21:06:13.686523  2642 layer_factory.hpp:77] Creating layer Scale29
I0924 21:06:13.686527  2642 net.cpp:84] Creating Layer Scale29
I0924 21:06:13.686530  2642 net.cpp:406] Scale29 <- Convolution29
I0924 21:06:13.686533  2642 net.cpp:367] Scale29 -> Convolution29 (in-place)
I0924 21:06:13.686560  2642 layer_factory.hpp:77] Creating layer Scale29
I0924 21:06:13.686638  2642 net.cpp:122] Setting up Scale29
I0924 21:06:13.686642  2642 net.cpp:129] Top shape: 100 32 14 14 (627200)
I0924 21:06:13.686645  2642 net.cpp:137] Memory required for data: 653229200
I0924 21:06:13.686648  2642 layer_factory.hpp:77] Creating layer ReLU28
I0924 21:06:13.686653  2642 net.cpp:84] Creating Layer ReLU28
I0924 21:06:13.686655  2642 net.cpp:406] ReLU28 <- Convolution29
I0924 21:06:13.686658  2642 net.cpp:367] ReLU28 -> Convolution29 (in-place)
I0924 21:06:13.687084  2642 net.cpp:122] Setting up ReLU28
I0924 21:06:13.687093  2642 net.cpp:129] Top shape: 100 32 14 14 (627200)
I0924 21:06:13.687095  2642 net.cpp:137] Memory required for data: 655738000
I0924 21:06:13.687098  2642 layer_factory.hpp:77] Creating layer Convolution30
I0924 21:06:13.687104  2642 net.cpp:84] Creating Layer Convolution30
I0924 21:06:13.687108  2642 net.cpp:406] Convolution30 <- Convolution29
I0924 21:06:13.687111  2642 net.cpp:380] Convolution30 -> Convolution30
I0924 21:06:13.688170  2642 net.cpp:122] Setting up Convolution30
I0924 21:06:13.688179  2642 net.cpp:129] Top shape: 100 32 14 14 (627200)
I0924 21:06:13.688181  2642 net.cpp:137] Memory required for data: 658246800
I0924 21:06:13.688185  2642 layer_factory.hpp:77] Creating layer BatchNorm30
I0924 21:06:13.688191  2642 net.cpp:84] Creating Layer BatchNorm30
I0924 21:06:13.688194  2642 net.cpp:406] BatchNorm30 <- Convolution30
I0924 21:06:13.688199  2642 net.cpp:367] BatchNorm30 -> Convolution30 (in-place)
I0924 21:06:13.688335  2642 net.cpp:122] Setting up BatchNorm30
I0924 21:06:13.688340  2642 net.cpp:129] Top shape: 100 32 14 14 (627200)
I0924 21:06:13.688343  2642 net.cpp:137] Memory required for data: 660755600
I0924 21:06:13.688346  2642 layer_factory.hpp:77] Creating layer Scale30
I0924 21:06:13.688351  2642 net.cpp:84] Creating Layer Scale30
I0924 21:06:13.688354  2642 net.cpp:406] Scale30 <- Convolution30
I0924 21:06:13.688357  2642 net.cpp:367] Scale30 -> Convolution30 (in-place)
I0924 21:06:13.688385  2642 layer_factory.hpp:77] Creating layer Scale30
I0924 21:06:13.688462  2642 net.cpp:122] Setting up Scale30
I0924 21:06:13.688467  2642 net.cpp:129] Top shape: 100 32 14 14 (627200)
I0924 21:06:13.688468  2642 net.cpp:137] Memory required for data: 663264400
I0924 21:06:13.688477  2642 layer_factory.hpp:77] Creating layer Eltwise14
I0924 21:06:13.688484  2642 net.cpp:84] Creating Layer Eltwise14
I0924 21:06:13.688488  2642 net.cpp:406] Eltwise14 <- Eltwise13_ReLU27_0_split_1
I0924 21:06:13.688490  2642 net.cpp:406] Eltwise14 <- Convolution30
I0924 21:06:13.688493  2642 net.cpp:380] Eltwise14 -> Eltwise14
I0924 21:06:13.688513  2642 net.cpp:122] Setting up Eltwise14
I0924 21:06:13.688516  2642 net.cpp:129] Top shape: 100 32 14 14 (627200)
I0924 21:06:13.688519  2642 net.cpp:137] Memory required for data: 665773200
I0924 21:06:13.688520  2642 layer_factory.hpp:77] Creating layer ReLU29
I0924 21:06:13.688524  2642 net.cpp:84] Creating Layer ReLU29
I0924 21:06:13.688525  2642 net.cpp:406] ReLU29 <- Eltwise14
I0924 21:06:13.688529  2642 net.cpp:367] ReLU29 -> Eltwise14 (in-place)
I0924 21:06:13.688643  2642 net.cpp:122] Setting up ReLU29
I0924 21:06:13.688649  2642 net.cpp:129] Top shape: 100 32 14 14 (627200)
I0924 21:06:13.688652  2642 net.cpp:137] Memory required for data: 668282000
I0924 21:06:13.688653  2642 layer_factory.hpp:77] Creating layer Eltwise14_ReLU29_0_split
I0924 21:06:13.688657  2642 net.cpp:84] Creating Layer Eltwise14_ReLU29_0_split
I0924 21:06:13.688659  2642 net.cpp:406] Eltwise14_ReLU29_0_split <- Eltwise14
I0924 21:06:13.688663  2642 net.cpp:380] Eltwise14_ReLU29_0_split -> Eltwise14_ReLU29_0_split_0
I0924 21:06:13.688668  2642 net.cpp:380] Eltwise14_ReLU29_0_split -> Eltwise14_ReLU29_0_split_1
I0924 21:06:13.688694  2642 net.cpp:122] Setting up Eltwise14_ReLU29_0_split
I0924 21:06:13.688699  2642 net.cpp:129] Top shape: 100 32 14 14 (627200)
I0924 21:06:13.688701  2642 net.cpp:129] Top shape: 100 32 14 14 (627200)
I0924 21:06:13.688702  2642 net.cpp:137] Memory required for data: 673299600
I0924 21:06:13.688705  2642 layer_factory.hpp:77] Creating layer Convolution31
I0924 21:06:13.688711  2642 net.cpp:84] Creating Layer Convolution31
I0924 21:06:13.688714  2642 net.cpp:406] Convolution31 <- Eltwise14_ReLU29_0_split_0
I0924 21:06:13.688719  2642 net.cpp:380] Convolution31 -> Convolution31
I0924 21:06:13.689764  2642 net.cpp:122] Setting up Convolution31
I0924 21:06:13.689772  2642 net.cpp:129] Top shape: 100 32 14 14 (627200)
I0924 21:06:13.689774  2642 net.cpp:137] Memory required for data: 675808400
I0924 21:06:13.689779  2642 layer_factory.hpp:77] Creating layer BatchNorm31
I0924 21:06:13.689785  2642 net.cpp:84] Creating Layer BatchNorm31
I0924 21:06:13.689786  2642 net.cpp:406] BatchNorm31 <- Convolution31
I0924 21:06:13.689790  2642 net.cpp:367] BatchNorm31 -> Convolution31 (in-place)
I0924 21:06:13.689926  2642 net.cpp:122] Setting up BatchNorm31
I0924 21:06:13.689930  2642 net.cpp:129] Top shape: 100 32 14 14 (627200)
I0924 21:06:13.689934  2642 net.cpp:137] Memory required for data: 678317200
I0924 21:06:13.689937  2642 layer_factory.hpp:77] Creating layer Scale31
I0924 21:06:13.689941  2642 net.cpp:84] Creating Layer Scale31
I0924 21:06:13.689944  2642 net.cpp:406] Scale31 <- Convolution31
I0924 21:06:13.689947  2642 net.cpp:367] Scale31 -> Convolution31 (in-place)
I0924 21:06:13.689975  2642 layer_factory.hpp:77] Creating layer Scale31
I0924 21:06:13.690054  2642 net.cpp:122] Setting up Scale31
I0924 21:06:13.690058  2642 net.cpp:129] Top shape: 100 32 14 14 (627200)
I0924 21:06:13.690060  2642 net.cpp:137] Memory required for data: 680826000
I0924 21:06:13.690064  2642 layer_factory.hpp:77] Creating layer ReLU30
I0924 21:06:13.690068  2642 net.cpp:84] Creating Layer ReLU30
I0924 21:06:13.690070  2642 net.cpp:406] ReLU30 <- Convolution31
I0924 21:06:13.690073  2642 net.cpp:367] ReLU30 -> Convolution31 (in-place)
I0924 21:06:13.690191  2642 net.cpp:122] Setting up ReLU30
I0924 21:06:13.690196  2642 net.cpp:129] Top shape: 100 32 14 14 (627200)
I0924 21:06:13.690198  2642 net.cpp:137] Memory required for data: 683334800
I0924 21:06:13.690201  2642 layer_factory.hpp:77] Creating layer Convolution32
I0924 21:06:13.690207  2642 net.cpp:84] Creating Layer Convolution32
I0924 21:06:13.690209  2642 net.cpp:406] Convolution32 <- Convolution31
I0924 21:06:13.690214  2642 net.cpp:380] Convolution32 -> Convolution32
I0924 21:06:13.691262  2642 net.cpp:122] Setting up Convolution32
I0924 21:06:13.691269  2642 net.cpp:129] Top shape: 100 32 14 14 (627200)
I0924 21:06:13.691272  2642 net.cpp:137] Memory required for data: 685843600
I0924 21:06:13.691277  2642 layer_factory.hpp:77] Creating layer BatchNorm32
I0924 21:06:13.691282  2642 net.cpp:84] Creating Layer BatchNorm32
I0924 21:06:13.691284  2642 net.cpp:406] BatchNorm32 <- Convolution32
I0924 21:06:13.691288  2642 net.cpp:367] BatchNorm32 -> Convolution32 (in-place)
I0924 21:06:13.691426  2642 net.cpp:122] Setting up BatchNorm32
I0924 21:06:13.691429  2642 net.cpp:129] Top shape: 100 32 14 14 (627200)
I0924 21:06:13.691432  2642 net.cpp:137] Memory required for data: 688352400
I0924 21:06:13.691437  2642 layer_factory.hpp:77] Creating layer Scale32
I0924 21:06:13.691440  2642 net.cpp:84] Creating Layer Scale32
I0924 21:06:13.691443  2642 net.cpp:406] Scale32 <- Convolution32
I0924 21:06:13.691447  2642 net.cpp:367] Scale32 -> Convolution32 (in-place)
I0924 21:06:13.691475  2642 layer_factory.hpp:77] Creating layer Scale32
I0924 21:06:13.691553  2642 net.cpp:122] Setting up Scale32
I0924 21:06:13.691558  2642 net.cpp:129] Top shape: 100 32 14 14 (627200)
I0924 21:06:13.691560  2642 net.cpp:137] Memory required for data: 690861200
I0924 21:06:13.691565  2642 layer_factory.hpp:77] Creating layer Eltwise15
I0924 21:06:13.691567  2642 net.cpp:84] Creating Layer Eltwise15
I0924 21:06:13.691570  2642 net.cpp:406] Eltwise15 <- Eltwise14_ReLU29_0_split_1
I0924 21:06:13.691573  2642 net.cpp:406] Eltwise15 <- Convolution32
I0924 21:06:13.691576  2642 net.cpp:380] Eltwise15 -> Eltwise15
I0924 21:06:13.691593  2642 net.cpp:122] Setting up Eltwise15
I0924 21:06:13.691596  2642 net.cpp:129] Top shape: 100 32 14 14 (627200)
I0924 21:06:13.691598  2642 net.cpp:137] Memory required for data: 693370000
I0924 21:06:13.691601  2642 layer_factory.hpp:77] Creating layer ReLU31
I0924 21:06:13.691604  2642 net.cpp:84] Creating Layer ReLU31
I0924 21:06:13.691607  2642 net.cpp:406] ReLU31 <- Eltwise15
I0924 21:06:13.691610  2642 net.cpp:367] ReLU31 -> Eltwise15 (in-place)
I0924 21:06:13.692031  2642 net.cpp:122] Setting up ReLU31
I0924 21:06:13.692039  2642 net.cpp:129] Top shape: 100 32 14 14 (627200)
I0924 21:06:13.692042  2642 net.cpp:137] Memory required for data: 695878800
I0924 21:06:13.692044  2642 layer_factory.hpp:77] Creating layer Eltwise15_ReLU31_0_split
I0924 21:06:13.692049  2642 net.cpp:84] Creating Layer Eltwise15_ReLU31_0_split
I0924 21:06:13.692051  2642 net.cpp:406] Eltwise15_ReLU31_0_split <- Eltwise15
I0924 21:06:13.692055  2642 net.cpp:380] Eltwise15_ReLU31_0_split -> Eltwise15_ReLU31_0_split_0
I0924 21:06:13.692059  2642 net.cpp:380] Eltwise15_ReLU31_0_split -> Eltwise15_ReLU31_0_split_1
I0924 21:06:13.692090  2642 net.cpp:122] Setting up Eltwise15_ReLU31_0_split
I0924 21:06:13.692093  2642 net.cpp:129] Top shape: 100 32 14 14 (627200)
I0924 21:06:13.692095  2642 net.cpp:129] Top shape: 100 32 14 14 (627200)
I0924 21:06:13.692098  2642 net.cpp:137] Memory required for data: 700896400
I0924 21:06:13.692101  2642 layer_factory.hpp:77] Creating layer Convolution33
I0924 21:06:13.692106  2642 net.cpp:84] Creating Layer Convolution33
I0924 21:06:13.692108  2642 net.cpp:406] Convolution33 <- Eltwise15_ReLU31_0_split_0
I0924 21:06:13.692113  2642 net.cpp:380] Convolution33 -> Convolution33
I0924 21:06:13.693457  2642 net.cpp:122] Setting up Convolution33
I0924 21:06:13.693466  2642 net.cpp:129] Top shape: 100 32 14 14 (627200)
I0924 21:06:13.693469  2642 net.cpp:137] Memory required for data: 703405200
I0924 21:06:13.693472  2642 layer_factory.hpp:77] Creating layer BatchNorm33
I0924 21:06:13.693478  2642 net.cpp:84] Creating Layer BatchNorm33
I0924 21:06:13.693480  2642 net.cpp:406] BatchNorm33 <- Convolution33
I0924 21:06:13.693485  2642 net.cpp:367] BatchNorm33 -> Convolution33 (in-place)
I0924 21:06:13.693629  2642 net.cpp:122] Setting up BatchNorm33
I0924 21:06:13.693634  2642 net.cpp:129] Top shape: 100 32 14 14 (627200)
I0924 21:06:13.693641  2642 net.cpp:137] Memory required for data: 705914000
I0924 21:06:13.693646  2642 layer_factory.hpp:77] Creating layer Scale33
I0924 21:06:13.693652  2642 net.cpp:84] Creating Layer Scale33
I0924 21:06:13.693655  2642 net.cpp:406] Scale33 <- Convolution33
I0924 21:06:13.693658  2642 net.cpp:367] Scale33 -> Convolution33 (in-place)
I0924 21:06:13.693687  2642 layer_factory.hpp:77] Creating layer Scale33
I0924 21:06:13.693768  2642 net.cpp:122] Setting up Scale33
I0924 21:06:13.693773  2642 net.cpp:129] Top shape: 100 32 14 14 (627200)
I0924 21:06:13.693774  2642 net.cpp:137] Memory required for data: 708422800
I0924 21:06:13.693778  2642 layer_factory.hpp:77] Creating layer ReLU32
I0924 21:06:13.693781  2642 net.cpp:84] Creating Layer ReLU32
I0924 21:06:13.693784  2642 net.cpp:406] ReLU32 <- Convolution33
I0924 21:06:13.693787  2642 net.cpp:367] ReLU32 -> Convolution33 (in-place)
I0924 21:06:13.693904  2642 net.cpp:122] Setting up ReLU32
I0924 21:06:13.693909  2642 net.cpp:129] Top shape: 100 32 14 14 (627200)
I0924 21:06:13.693912  2642 net.cpp:137] Memory required for data: 710931600
I0924 21:06:13.693914  2642 layer_factory.hpp:77] Creating layer Convolution34
I0924 21:06:13.693922  2642 net.cpp:84] Creating Layer Convolution34
I0924 21:06:13.693924  2642 net.cpp:406] Convolution34 <- Convolution33
I0924 21:06:13.693928  2642 net.cpp:380] Convolution34 -> Convolution34
I0924 21:06:13.694972  2642 net.cpp:122] Setting up Convolution34
I0924 21:06:13.694979  2642 net.cpp:129] Top shape: 100 32 14 14 (627200)
I0924 21:06:13.694983  2642 net.cpp:137] Memory required for data: 713440400
I0924 21:06:13.694986  2642 layer_factory.hpp:77] Creating layer BatchNorm34
I0924 21:06:13.694991  2642 net.cpp:84] Creating Layer BatchNorm34
I0924 21:06:13.694994  2642 net.cpp:406] BatchNorm34 <- Convolution34
I0924 21:06:13.694998  2642 net.cpp:367] BatchNorm34 -> Convolution34 (in-place)
I0924 21:06:13.695138  2642 net.cpp:122] Setting up BatchNorm34
I0924 21:06:13.695142  2642 net.cpp:129] Top shape: 100 32 14 14 (627200)
I0924 21:06:13.695144  2642 net.cpp:137] Memory required for data: 715949200
I0924 21:06:13.695149  2642 layer_factory.hpp:77] Creating layer Scale34
I0924 21:06:13.695154  2642 net.cpp:84] Creating Layer Scale34
I0924 21:06:13.695156  2642 net.cpp:406] Scale34 <- Convolution34
I0924 21:06:13.695159  2642 net.cpp:367] Scale34 -> Convolution34 (in-place)
I0924 21:06:13.695188  2642 layer_factory.hpp:77] Creating layer Scale34
I0924 21:06:13.695267  2642 net.cpp:122] Setting up Scale34
I0924 21:06:13.695271  2642 net.cpp:129] Top shape: 100 32 14 14 (627200)
I0924 21:06:13.695273  2642 net.cpp:137] Memory required for data: 718458000
I0924 21:06:13.695277  2642 layer_factory.hpp:77] Creating layer Eltwise16
I0924 21:06:13.695281  2642 net.cpp:84] Creating Layer Eltwise16
I0924 21:06:13.695283  2642 net.cpp:406] Eltwise16 <- Eltwise15_ReLU31_0_split_1
I0924 21:06:13.695286  2642 net.cpp:406] Eltwise16 <- Convolution34
I0924 21:06:13.695291  2642 net.cpp:380] Eltwise16 -> Eltwise16
I0924 21:06:13.695307  2642 net.cpp:122] Setting up Eltwise16
I0924 21:06:13.695310  2642 net.cpp:129] Top shape: 100 32 14 14 (627200)
I0924 21:06:13.695312  2642 net.cpp:137] Memory required for data: 720966800
I0924 21:06:13.695314  2642 layer_factory.hpp:77] Creating layer ReLU33
I0924 21:06:13.695318  2642 net.cpp:84] Creating Layer ReLU33
I0924 21:06:13.695320  2642 net.cpp:406] ReLU33 <- Eltwise16
I0924 21:06:13.695323  2642 net.cpp:367] ReLU33 -> Eltwise16 (in-place)
I0924 21:06:13.695750  2642 net.cpp:122] Setting up ReLU33
I0924 21:06:13.695758  2642 net.cpp:129] Top shape: 100 32 14 14 (627200)
I0924 21:06:13.695761  2642 net.cpp:137] Memory required for data: 723475600
I0924 21:06:13.695763  2642 layer_factory.hpp:77] Creating layer Eltwise16_ReLU33_0_split
I0924 21:06:13.695767  2642 net.cpp:84] Creating Layer Eltwise16_ReLU33_0_split
I0924 21:06:13.695770  2642 net.cpp:406] Eltwise16_ReLU33_0_split <- Eltwise16
I0924 21:06:13.695773  2642 net.cpp:380] Eltwise16_ReLU33_0_split -> Eltwise16_ReLU33_0_split_0
I0924 21:06:13.695785  2642 net.cpp:380] Eltwise16_ReLU33_0_split -> Eltwise16_ReLU33_0_split_1
I0924 21:06:13.695816  2642 net.cpp:122] Setting up Eltwise16_ReLU33_0_split
I0924 21:06:13.695819  2642 net.cpp:129] Top shape: 100 32 14 14 (627200)
I0924 21:06:13.695822  2642 net.cpp:129] Top shape: 100 32 14 14 (627200)
I0924 21:06:13.695823  2642 net.cpp:137] Memory required for data: 728493200
I0924 21:06:13.695827  2642 layer_factory.hpp:77] Creating layer Convolution35
I0924 21:06:13.695832  2642 net.cpp:84] Creating Layer Convolution35
I0924 21:06:13.695834  2642 net.cpp:406] Convolution35 <- Eltwise16_ReLU33_0_split_0
I0924 21:06:13.695839  2642 net.cpp:380] Convolution35 -> Convolution35
I0924 21:06:13.696555  2642 net.cpp:122] Setting up Convolution35
I0924 21:06:13.696563  2642 net.cpp:129] Top shape: 100 32 14 14 (627200)
I0924 21:06:13.696565  2642 net.cpp:137] Memory required for data: 731002000
I0924 21:06:13.696570  2642 layer_factory.hpp:77] Creating layer BatchNorm35
I0924 21:06:13.696574  2642 net.cpp:84] Creating Layer BatchNorm35
I0924 21:06:13.696578  2642 net.cpp:406] BatchNorm35 <- Convolution35
I0924 21:06:13.696581  2642 net.cpp:367] BatchNorm35 -> Convolution35 (in-place)
I0924 21:06:13.696719  2642 net.cpp:122] Setting up BatchNorm35
I0924 21:06:13.696723  2642 net.cpp:129] Top shape: 100 32 14 14 (627200)
I0924 21:06:13.696725  2642 net.cpp:137] Memory required for data: 733510800
I0924 21:06:13.696730  2642 layer_factory.hpp:77] Creating layer Scale35
I0924 21:06:13.696734  2642 net.cpp:84] Creating Layer Scale35
I0924 21:06:13.696737  2642 net.cpp:406] Scale35 <- Convolution35
I0924 21:06:13.696739  2642 net.cpp:367] Scale35 -> Convolution35 (in-place)
I0924 21:06:13.696766  2642 layer_factory.hpp:77] Creating layer Scale35
I0924 21:06:13.696846  2642 net.cpp:122] Setting up Scale35
I0924 21:06:13.696851  2642 net.cpp:129] Top shape: 100 32 14 14 (627200)
I0924 21:06:13.696852  2642 net.cpp:137] Memory required for data: 736019600
I0924 21:06:13.696856  2642 layer_factory.hpp:77] Creating layer ReLU34
I0924 21:06:13.696859  2642 net.cpp:84] Creating Layer ReLU34
I0924 21:06:13.696862  2642 net.cpp:406] ReLU34 <- Convolution35
I0924 21:06:13.696866  2642 net.cpp:367] ReLU34 -> Convolution35 (in-place)
I0924 21:06:13.697295  2642 net.cpp:122] Setting up ReLU34
I0924 21:06:13.697304  2642 net.cpp:129] Top shape: 100 32 14 14 (627200)
I0924 21:06:13.697306  2642 net.cpp:137] Memory required for data: 738528400
I0924 21:06:13.697309  2642 layer_factory.hpp:77] Creating layer Convolution36
I0924 21:06:13.697316  2642 net.cpp:84] Creating Layer Convolution36
I0924 21:06:13.697319  2642 net.cpp:406] Convolution36 <- Convolution35
I0924 21:06:13.697324  2642 net.cpp:380] Convolution36 -> Convolution36
I0924 21:06:13.698362  2642 net.cpp:122] Setting up Convolution36
I0924 21:06:13.698370  2642 net.cpp:129] Top shape: 100 32 14 14 (627200)
I0924 21:06:13.698374  2642 net.cpp:137] Memory required for data: 741037200
I0924 21:06:13.698377  2642 layer_factory.hpp:77] Creating layer BatchNorm36
I0924 21:06:13.698382  2642 net.cpp:84] Creating Layer BatchNorm36
I0924 21:06:13.698385  2642 net.cpp:406] BatchNorm36 <- Convolution36
I0924 21:06:13.698390  2642 net.cpp:367] BatchNorm36 -> Convolution36 (in-place)
I0924 21:06:13.698530  2642 net.cpp:122] Setting up BatchNorm36
I0924 21:06:13.698535  2642 net.cpp:129] Top shape: 100 32 14 14 (627200)
I0924 21:06:13.698537  2642 net.cpp:137] Memory required for data: 743546000
I0924 21:06:13.698542  2642 layer_factory.hpp:77] Creating layer Scale36
I0924 21:06:13.698546  2642 net.cpp:84] Creating Layer Scale36
I0924 21:06:13.698549  2642 net.cpp:406] Scale36 <- Convolution36
I0924 21:06:13.698552  2642 net.cpp:367] Scale36 -> Convolution36 (in-place)
I0924 21:06:13.698580  2642 layer_factory.hpp:77] Creating layer Scale36
I0924 21:06:13.698662  2642 net.cpp:122] Setting up Scale36
I0924 21:06:13.698665  2642 net.cpp:129] Top shape: 100 32 14 14 (627200)
I0924 21:06:13.698668  2642 net.cpp:137] Memory required for data: 746054800
I0924 21:06:13.698670  2642 layer_factory.hpp:77] Creating layer Eltwise17
I0924 21:06:13.698680  2642 net.cpp:84] Creating Layer Eltwise17
I0924 21:06:13.698684  2642 net.cpp:406] Eltwise17 <- Eltwise16_ReLU33_0_split_1
I0924 21:06:13.698688  2642 net.cpp:406] Eltwise17 <- Convolution36
I0924 21:06:13.698691  2642 net.cpp:380] Eltwise17 -> Eltwise17
I0924 21:06:13.698709  2642 net.cpp:122] Setting up Eltwise17
I0924 21:06:13.698712  2642 net.cpp:129] Top shape: 100 32 14 14 (627200)
I0924 21:06:13.698714  2642 net.cpp:137] Memory required for data: 748563600
I0924 21:06:13.698716  2642 layer_factory.hpp:77] Creating layer ReLU35
I0924 21:06:13.698721  2642 net.cpp:84] Creating Layer ReLU35
I0924 21:06:13.698724  2642 net.cpp:406] ReLU35 <- Eltwise17
I0924 21:06:13.698726  2642 net.cpp:367] ReLU35 -> Eltwise17 (in-place)
I0924 21:06:13.698839  2642 net.cpp:122] Setting up ReLU35
I0924 21:06:13.698844  2642 net.cpp:129] Top shape: 100 32 14 14 (627200)
I0924 21:06:13.698848  2642 net.cpp:137] Memory required for data: 751072400
I0924 21:06:13.698849  2642 layer_factory.hpp:77] Creating layer Eltwise17_ReLU35_0_split
I0924 21:06:13.698853  2642 net.cpp:84] Creating Layer Eltwise17_ReLU35_0_split
I0924 21:06:13.698855  2642 net.cpp:406] Eltwise17_ReLU35_0_split <- Eltwise17
I0924 21:06:13.698858  2642 net.cpp:380] Eltwise17_ReLU35_0_split -> Eltwise17_ReLU35_0_split_0
I0924 21:06:13.698863  2642 net.cpp:380] Eltwise17_ReLU35_0_split -> Eltwise17_ReLU35_0_split_1
I0924 21:06:13.698890  2642 net.cpp:122] Setting up Eltwise17_ReLU35_0_split
I0924 21:06:13.698894  2642 net.cpp:129] Top shape: 100 32 14 14 (627200)
I0924 21:06:13.698897  2642 net.cpp:129] Top shape: 100 32 14 14 (627200)
I0924 21:06:13.698899  2642 net.cpp:137] Memory required for data: 756090000
I0924 21:06:13.698900  2642 layer_factory.hpp:77] Creating layer Convolution37
I0924 21:06:13.698907  2642 net.cpp:84] Creating Layer Convolution37
I0924 21:06:13.698909  2642 net.cpp:406] Convolution37 <- Eltwise17_ReLU35_0_split_0
I0924 21:06:13.698915  2642 net.cpp:380] Convolution37 -> Convolution37
I0924 21:06:13.699951  2642 net.cpp:122] Setting up Convolution37
I0924 21:06:13.699959  2642 net.cpp:129] Top shape: 100 32 14 14 (627200)
I0924 21:06:13.699962  2642 net.cpp:137] Memory required for data: 758598800
I0924 21:06:13.699966  2642 layer_factory.hpp:77] Creating layer BatchNorm37
I0924 21:06:13.699971  2642 net.cpp:84] Creating Layer BatchNorm37
I0924 21:06:13.699975  2642 net.cpp:406] BatchNorm37 <- Convolution37
I0924 21:06:13.699978  2642 net.cpp:367] BatchNorm37 -> Convolution37 (in-place)
I0924 21:06:13.700120  2642 net.cpp:122] Setting up BatchNorm37
I0924 21:06:13.700125  2642 net.cpp:129] Top shape: 100 32 14 14 (627200)
I0924 21:06:13.700127  2642 net.cpp:137] Memory required for data: 761107600
I0924 21:06:13.700150  2642 layer_factory.hpp:77] Creating layer Scale37
I0924 21:06:13.700155  2642 net.cpp:84] Creating Layer Scale37
I0924 21:06:13.700157  2642 net.cpp:406] Scale37 <- Convolution37
I0924 21:06:13.700160  2642 net.cpp:367] Scale37 -> Convolution37 (in-place)
I0924 21:06:13.700191  2642 layer_factory.hpp:77] Creating layer Scale37
I0924 21:06:13.700271  2642 net.cpp:122] Setting up Scale37
I0924 21:06:13.700275  2642 net.cpp:129] Top shape: 100 32 14 14 (627200)
I0924 21:06:13.700278  2642 net.cpp:137] Memory required for data: 763616400
I0924 21:06:13.700281  2642 layer_factory.hpp:77] Creating layer ReLU36
I0924 21:06:13.700285  2642 net.cpp:84] Creating Layer ReLU36
I0924 21:06:13.700287  2642 net.cpp:406] ReLU36 <- Convolution37
I0924 21:06:13.700290  2642 net.cpp:367] ReLU36 -> Convolution37 (in-place)
I0924 21:06:13.700407  2642 net.cpp:122] Setting up ReLU36
I0924 21:06:13.700414  2642 net.cpp:129] Top shape: 100 32 14 14 (627200)
I0924 21:06:13.700417  2642 net.cpp:137] Memory required for data: 766125200
I0924 21:06:13.700418  2642 layer_factory.hpp:77] Creating layer Convolution38
I0924 21:06:13.700425  2642 net.cpp:84] Creating Layer Convolution38
I0924 21:06:13.700428  2642 net.cpp:406] Convolution38 <- Convolution37
I0924 21:06:13.700431  2642 net.cpp:380] Convolution38 -> Convolution38
I0924 21:06:13.701493  2642 net.cpp:122] Setting up Convolution38
I0924 21:06:13.701503  2642 net.cpp:129] Top shape: 100 32 14 14 (627200)
I0924 21:06:13.701505  2642 net.cpp:137] Memory required for data: 768634000
I0924 21:06:13.701509  2642 layer_factory.hpp:77] Creating layer BatchNorm38
I0924 21:06:13.701514  2642 net.cpp:84] Creating Layer BatchNorm38
I0924 21:06:13.701519  2642 net.cpp:406] BatchNorm38 <- Convolution38
I0924 21:06:13.701522  2642 net.cpp:367] BatchNorm38 -> Convolution38 (in-place)
I0924 21:06:13.701663  2642 net.cpp:122] Setting up BatchNorm38
I0924 21:06:13.701668  2642 net.cpp:129] Top shape: 100 32 14 14 (627200)
I0924 21:06:13.701669  2642 net.cpp:137] Memory required for data: 771142800
I0924 21:06:13.701674  2642 layer_factory.hpp:77] Creating layer Scale38
I0924 21:06:13.701678  2642 net.cpp:84] Creating Layer Scale38
I0924 21:06:13.701681  2642 net.cpp:406] Scale38 <- Convolution38
I0924 21:06:13.701684  2642 net.cpp:367] Scale38 -> Convolution38 (in-place)
I0924 21:06:13.701712  2642 layer_factory.hpp:77] Creating layer Scale38
I0924 21:06:13.701797  2642 net.cpp:122] Setting up Scale38
I0924 21:06:13.701802  2642 net.cpp:129] Top shape: 100 32 14 14 (627200)
I0924 21:06:13.701803  2642 net.cpp:137] Memory required for data: 773651600
I0924 21:06:13.701807  2642 layer_factory.hpp:77] Creating layer Eltwise18
I0924 21:06:13.701810  2642 net.cpp:84] Creating Layer Eltwise18
I0924 21:06:13.701813  2642 net.cpp:406] Eltwise18 <- Eltwise17_ReLU35_0_split_1
I0924 21:06:13.701817  2642 net.cpp:406] Eltwise18 <- Convolution38
I0924 21:06:13.701820  2642 net.cpp:380] Eltwise18 -> Eltwise18
I0924 21:06:13.701838  2642 net.cpp:122] Setting up Eltwise18
I0924 21:06:13.701840  2642 net.cpp:129] Top shape: 100 32 14 14 (627200)
I0924 21:06:13.701843  2642 net.cpp:137] Memory required for data: 776160400
I0924 21:06:13.701844  2642 layer_factory.hpp:77] Creating layer ReLU37
I0924 21:06:13.701848  2642 net.cpp:84] Creating Layer ReLU37
I0924 21:06:13.701851  2642 net.cpp:406] ReLU37 <- Eltwise18
I0924 21:06:13.701853  2642 net.cpp:367] ReLU37 -> Eltwise18 (in-place)
I0924 21:06:13.701970  2642 net.cpp:122] Setting up ReLU37
I0924 21:06:13.701977  2642 net.cpp:129] Top shape: 100 32 14 14 (627200)
I0924 21:06:13.701978  2642 net.cpp:137] Memory required for data: 778669200
I0924 21:06:13.701982  2642 layer_factory.hpp:77] Creating layer Eltwise18_ReLU37_0_split
I0924 21:06:13.701985  2642 net.cpp:84] Creating Layer Eltwise18_ReLU37_0_split
I0924 21:06:13.701987  2642 net.cpp:406] Eltwise18_ReLU37_0_split <- Eltwise18
I0924 21:06:13.701990  2642 net.cpp:380] Eltwise18_ReLU37_0_split -> Eltwise18_ReLU37_0_split_0
I0924 21:06:13.701995  2642 net.cpp:380] Eltwise18_ReLU37_0_split -> Eltwise18_ReLU37_0_split_1
I0924 21:06:13.702023  2642 net.cpp:122] Setting up Eltwise18_ReLU37_0_split
I0924 21:06:13.702028  2642 net.cpp:129] Top shape: 100 32 14 14 (627200)
I0924 21:06:13.702029  2642 net.cpp:129] Top shape: 100 32 14 14 (627200)
I0924 21:06:13.702031  2642 net.cpp:137] Memory required for data: 783686800
I0924 21:06:13.702033  2642 layer_factory.hpp:77] Creating layer Convolution39
I0924 21:06:13.702040  2642 net.cpp:84] Creating Layer Convolution39
I0924 21:06:13.702042  2642 net.cpp:406] Convolution39 <- Eltwise18_ReLU37_0_split_0
I0924 21:06:13.702047  2642 net.cpp:380] Convolution39 -> Convolution39
I0924 21:06:13.702941  2642 net.cpp:122] Setting up Convolution39
I0924 21:06:13.702950  2642 net.cpp:129] Top shape: 100 64 7 7 (313600)
I0924 21:06:13.702953  2642 net.cpp:137] Memory required for data: 784941200
I0924 21:06:13.702957  2642 layer_factory.hpp:77] Creating layer BatchNorm39
I0924 21:06:13.702961  2642 net.cpp:84] Creating Layer BatchNorm39
I0924 21:06:13.702965  2642 net.cpp:406] BatchNorm39 <- Convolution39
I0924 21:06:13.702968  2642 net.cpp:367] BatchNorm39 -> Convolution39 (in-place)
I0924 21:06:13.703107  2642 net.cpp:122] Setting up BatchNorm39
I0924 21:06:13.703111  2642 net.cpp:129] Top shape: 100 64 7 7 (313600)
I0924 21:06:13.703114  2642 net.cpp:137] Memory required for data: 786195600
I0924 21:06:13.703125  2642 layer_factory.hpp:77] Creating layer Scale39
I0924 21:06:13.703130  2642 net.cpp:84] Creating Layer Scale39
I0924 21:06:13.703131  2642 net.cpp:406] Scale39 <- Convolution39
I0924 21:06:13.703135  2642 net.cpp:367] Scale39 -> Convolution39 (in-place)
I0924 21:06:13.703163  2642 layer_factory.hpp:77] Creating layer Scale39
I0924 21:06:13.703244  2642 net.cpp:122] Setting up Scale39
I0924 21:06:13.703248  2642 net.cpp:129] Top shape: 100 64 7 7 (313600)
I0924 21:06:13.703250  2642 net.cpp:137] Memory required for data: 787450000
I0924 21:06:13.703254  2642 layer_factory.hpp:77] Creating layer Convolution40
I0924 21:06:13.703263  2642 net.cpp:84] Creating Layer Convolution40
I0924 21:06:13.703264  2642 net.cpp:406] Convolution40 <- Eltwise18_ReLU37_0_split_1
I0924 21:06:13.703269  2642 net.cpp:380] Convolution40 -> Convolution40
I0924 21:06:13.705024  2642 net.cpp:122] Setting up Convolution40
I0924 21:06:13.705032  2642 net.cpp:129] Top shape: 100 64 7 7 (313600)
I0924 21:06:13.705035  2642 net.cpp:137] Memory required for data: 788704400
I0924 21:06:13.705039  2642 layer_factory.hpp:77] Creating layer BatchNorm40
I0924 21:06:13.705044  2642 net.cpp:84] Creating Layer BatchNorm40
I0924 21:06:13.705046  2642 net.cpp:406] BatchNorm40 <- Convolution40
I0924 21:06:13.705051  2642 net.cpp:367] BatchNorm40 -> Convolution40 (in-place)
I0924 21:06:13.705193  2642 net.cpp:122] Setting up BatchNorm40
I0924 21:06:13.705198  2642 net.cpp:129] Top shape: 100 64 7 7 (313600)
I0924 21:06:13.705199  2642 net.cpp:137] Memory required for data: 789958800
I0924 21:06:13.705204  2642 layer_factory.hpp:77] Creating layer Scale40
I0924 21:06:13.705207  2642 net.cpp:84] Creating Layer Scale40
I0924 21:06:13.705210  2642 net.cpp:406] Scale40 <- Convolution40
I0924 21:06:13.705214  2642 net.cpp:367] Scale40 -> Convolution40 (in-place)
I0924 21:06:13.705241  2642 layer_factory.hpp:77] Creating layer Scale40
I0924 21:06:13.705322  2642 net.cpp:122] Setting up Scale40
I0924 21:06:13.705327  2642 net.cpp:129] Top shape: 100 64 7 7 (313600)
I0924 21:06:13.705328  2642 net.cpp:137] Memory required for data: 791213200
I0924 21:06:13.705332  2642 layer_factory.hpp:77] Creating layer ReLU38
I0924 21:06:13.705335  2642 net.cpp:84] Creating Layer ReLU38
I0924 21:06:13.705338  2642 net.cpp:406] ReLU38 <- Convolution40
I0924 21:06:13.705340  2642 net.cpp:367] ReLU38 -> Convolution40 (in-place)
I0924 21:06:13.705461  2642 net.cpp:122] Setting up ReLU38
I0924 21:06:13.705466  2642 net.cpp:129] Top shape: 100 64 7 7 (313600)
I0924 21:06:13.705467  2642 net.cpp:137] Memory required for data: 792467600
I0924 21:06:13.705471  2642 layer_factory.hpp:77] Creating layer Convolution41
I0924 21:06:13.705476  2642 net.cpp:84] Creating Layer Convolution41
I0924 21:06:13.705479  2642 net.cpp:406] Convolution41 <- Convolution40
I0924 21:06:13.705484  2642 net.cpp:380] Convolution41 -> Convolution41
I0924 21:06:13.707430  2642 net.cpp:122] Setting up Convolution41
I0924 21:06:13.707438  2642 net.cpp:129] Top shape: 100 64 7 7 (313600)
I0924 21:06:13.707440  2642 net.cpp:137] Memory required for data: 793722000
I0924 21:06:13.707445  2642 layer_factory.hpp:77] Creating layer BatchNorm41
I0924 21:06:13.707450  2642 net.cpp:84] Creating Layer BatchNorm41
I0924 21:06:13.707453  2642 net.cpp:406] BatchNorm41 <- Convolution41
I0924 21:06:13.707456  2642 net.cpp:367] BatchNorm41 -> Convolution41 (in-place)
I0924 21:06:13.707602  2642 net.cpp:122] Setting up BatchNorm41
I0924 21:06:13.707607  2642 net.cpp:129] Top shape: 100 64 7 7 (313600)
I0924 21:06:13.707608  2642 net.cpp:137] Memory required for data: 794976400
I0924 21:06:13.707613  2642 layer_factory.hpp:77] Creating layer Scale41
I0924 21:06:13.707617  2642 net.cpp:84] Creating Layer Scale41
I0924 21:06:13.707619  2642 net.cpp:406] Scale41 <- Convolution41
I0924 21:06:13.707623  2642 net.cpp:367] Scale41 -> Convolution41 (in-place)
I0924 21:06:13.707653  2642 layer_factory.hpp:77] Creating layer Scale41
I0924 21:06:13.707736  2642 net.cpp:122] Setting up Scale41
I0924 21:06:13.707746  2642 net.cpp:129] Top shape: 100 64 7 7 (313600)
I0924 21:06:13.707748  2642 net.cpp:137] Memory required for data: 796230800
I0924 21:06:13.707752  2642 layer_factory.hpp:77] Creating layer Eltwise19
I0924 21:06:13.707757  2642 net.cpp:84] Creating Layer Eltwise19
I0924 21:06:13.707759  2642 net.cpp:406] Eltwise19 <- Convolution39
I0924 21:06:13.707762  2642 net.cpp:406] Eltwise19 <- Convolution41
I0924 21:06:13.707765  2642 net.cpp:380] Eltwise19 -> Eltwise19
I0924 21:06:13.707784  2642 net.cpp:122] Setting up Eltwise19
I0924 21:06:13.707788  2642 net.cpp:129] Top shape: 100 64 7 7 (313600)
I0924 21:06:13.707790  2642 net.cpp:137] Memory required for data: 797485200
I0924 21:06:13.707792  2642 layer_factory.hpp:77] Creating layer ReLU39
I0924 21:06:13.707795  2642 net.cpp:84] Creating Layer ReLU39
I0924 21:06:13.707798  2642 net.cpp:406] ReLU39 <- Eltwise19
I0924 21:06:13.707801  2642 net.cpp:367] ReLU39 -> Eltwise19 (in-place)
I0924 21:06:13.707921  2642 net.cpp:122] Setting up ReLU39
I0924 21:06:13.707926  2642 net.cpp:129] Top shape: 100 64 7 7 (313600)
I0924 21:06:13.707928  2642 net.cpp:137] Memory required for data: 798739600
I0924 21:06:13.707931  2642 layer_factory.hpp:77] Creating layer Eltwise19_ReLU39_0_split
I0924 21:06:13.707934  2642 net.cpp:84] Creating Layer Eltwise19_ReLU39_0_split
I0924 21:06:13.707937  2642 net.cpp:406] Eltwise19_ReLU39_0_split <- Eltwise19
I0924 21:06:13.707942  2642 net.cpp:380] Eltwise19_ReLU39_0_split -> Eltwise19_ReLU39_0_split_0
I0924 21:06:13.707945  2642 net.cpp:380] Eltwise19_ReLU39_0_split -> Eltwise19_ReLU39_0_split_1
I0924 21:06:13.707973  2642 net.cpp:122] Setting up Eltwise19_ReLU39_0_split
I0924 21:06:13.707978  2642 net.cpp:129] Top shape: 100 64 7 7 (313600)
I0924 21:06:13.707980  2642 net.cpp:129] Top shape: 100 64 7 7 (313600)
I0924 21:06:13.707983  2642 net.cpp:137] Memory required for data: 801248400
I0924 21:06:13.707984  2642 layer_factory.hpp:77] Creating layer Convolution42
I0924 21:06:13.707991  2642 net.cpp:84] Creating Layer Convolution42
I0924 21:06:13.707993  2642 net.cpp:406] Convolution42 <- Eltwise19_ReLU39_0_split_0
I0924 21:06:13.707998  2642 net.cpp:380] Convolution42 -> Convolution42
I0924 21:06:13.709633  2642 net.cpp:122] Setting up Convolution42
I0924 21:06:13.709641  2642 net.cpp:129] Top shape: 100 64 7 7 (313600)
I0924 21:06:13.709645  2642 net.cpp:137] Memory required for data: 802502800
I0924 21:06:13.709648  2642 layer_factory.hpp:77] Creating layer BatchNorm42
I0924 21:06:13.709652  2642 net.cpp:84] Creating Layer BatchNorm42
I0924 21:06:13.709656  2642 net.cpp:406] BatchNorm42 <- Convolution42
I0924 21:06:13.709659  2642 net.cpp:367] BatchNorm42 -> Convolution42 (in-place)
I0924 21:06:13.709800  2642 net.cpp:122] Setting up BatchNorm42
I0924 21:06:13.709805  2642 net.cpp:129] Top shape: 100 64 7 7 (313600)
I0924 21:06:13.709807  2642 net.cpp:137] Memory required for data: 803757200
I0924 21:06:13.709812  2642 layer_factory.hpp:77] Creating layer Scale42
I0924 21:06:13.709816  2642 net.cpp:84] Creating Layer Scale42
I0924 21:06:13.709820  2642 net.cpp:406] Scale42 <- Convolution42
I0924 21:06:13.709822  2642 net.cpp:367] Scale42 -> Convolution42 (in-place)
I0924 21:06:13.709851  2642 layer_factory.hpp:77] Creating layer Scale42
I0924 21:06:13.709931  2642 net.cpp:122] Setting up Scale42
I0924 21:06:13.709936  2642 net.cpp:129] Top shape: 100 64 7 7 (313600)
I0924 21:06:13.709939  2642 net.cpp:137] Memory required for data: 805011600
I0924 21:06:13.709941  2642 layer_factory.hpp:77] Creating layer ReLU40
I0924 21:06:13.709945  2642 net.cpp:84] Creating Layer ReLU40
I0924 21:06:13.709947  2642 net.cpp:406] ReLU40 <- Convolution42
I0924 21:06:13.709952  2642 net.cpp:367] ReLU40 -> Convolution42 (in-place)
I0924 21:06:13.710391  2642 net.cpp:122] Setting up ReLU40
I0924 21:06:13.710399  2642 net.cpp:129] Top shape: 100 64 7 7 (313600)
I0924 21:06:13.710402  2642 net.cpp:137] Memory required for data: 806266000
I0924 21:06:13.710404  2642 layer_factory.hpp:77] Creating layer Convolution43
I0924 21:06:13.710410  2642 net.cpp:84] Creating Layer Convolution43
I0924 21:06:13.710420  2642 net.cpp:406] Convolution43 <- Convolution42
I0924 21:06:13.710425  2642 net.cpp:380] Convolution43 -> Convolution43
I0924 21:06:13.712419  2642 net.cpp:122] Setting up Convolution43
I0924 21:06:13.712427  2642 net.cpp:129] Top shape: 100 64 7 7 (313600)
I0924 21:06:13.712430  2642 net.cpp:137] Memory required for data: 807520400
I0924 21:06:13.712435  2642 layer_factory.hpp:77] Creating layer BatchNorm43
I0924 21:06:13.712440  2642 net.cpp:84] Creating Layer BatchNorm43
I0924 21:06:13.712442  2642 net.cpp:406] BatchNorm43 <- Convolution43
I0924 21:06:13.712447  2642 net.cpp:367] BatchNorm43 -> Convolution43 (in-place)
I0924 21:06:13.712602  2642 net.cpp:122] Setting up BatchNorm43
I0924 21:06:13.712607  2642 net.cpp:129] Top shape: 100 64 7 7 (313600)
I0924 21:06:13.712610  2642 net.cpp:137] Memory required for data: 808774800
I0924 21:06:13.712615  2642 layer_factory.hpp:77] Creating layer Scale43
I0924 21:06:13.712620  2642 net.cpp:84] Creating Layer Scale43
I0924 21:06:13.712622  2642 net.cpp:406] Scale43 <- Convolution43
I0924 21:06:13.712625  2642 net.cpp:367] Scale43 -> Convolution43 (in-place)
I0924 21:06:13.712656  2642 layer_factory.hpp:77] Creating layer Scale43
I0924 21:06:13.712743  2642 net.cpp:122] Setting up Scale43
I0924 21:06:13.712748  2642 net.cpp:129] Top shape: 100 64 7 7 (313600)
I0924 21:06:13.712749  2642 net.cpp:137] Memory required for data: 810029200
I0924 21:06:13.712754  2642 layer_factory.hpp:77] Creating layer Eltwise20
I0924 21:06:13.712759  2642 net.cpp:84] Creating Layer Eltwise20
I0924 21:06:13.712761  2642 net.cpp:406] Eltwise20 <- Eltwise19_ReLU39_0_split_1
I0924 21:06:13.712764  2642 net.cpp:406] Eltwise20 <- Convolution43
I0924 21:06:13.712769  2642 net.cpp:380] Eltwise20 -> Eltwise20
I0924 21:06:13.712785  2642 net.cpp:122] Setting up Eltwise20
I0924 21:06:13.712790  2642 net.cpp:129] Top shape: 100 64 7 7 (313600)
I0924 21:06:13.712791  2642 net.cpp:137] Memory required for data: 811283600
I0924 21:06:13.712793  2642 layer_factory.hpp:77] Creating layer ReLU41
I0924 21:06:13.712797  2642 net.cpp:84] Creating Layer ReLU41
I0924 21:06:13.712800  2642 net.cpp:406] ReLU41 <- Eltwise20
I0924 21:06:13.712803  2642 net.cpp:367] ReLU41 -> Eltwise20 (in-place)
I0924 21:06:13.712939  2642 net.cpp:122] Setting up ReLU41
I0924 21:06:13.712945  2642 net.cpp:129] Top shape: 100 64 7 7 (313600)
I0924 21:06:13.712947  2642 net.cpp:137] Memory required for data: 812538000
I0924 21:06:13.712950  2642 layer_factory.hpp:77] Creating layer Eltwise20_ReLU41_0_split
I0924 21:06:13.712954  2642 net.cpp:84] Creating Layer Eltwise20_ReLU41_0_split
I0924 21:06:13.712957  2642 net.cpp:406] Eltwise20_ReLU41_0_split <- Eltwise20
I0924 21:06:13.712960  2642 net.cpp:380] Eltwise20_ReLU41_0_split -> Eltwise20_ReLU41_0_split_0
I0924 21:06:13.712965  2642 net.cpp:380] Eltwise20_ReLU41_0_split -> Eltwise20_ReLU41_0_split_1
I0924 21:06:13.712996  2642 net.cpp:122] Setting up Eltwise20_ReLU41_0_split
I0924 21:06:13.713001  2642 net.cpp:129] Top shape: 100 64 7 7 (313600)
I0924 21:06:13.713003  2642 net.cpp:129] Top shape: 100 64 7 7 (313600)
I0924 21:06:13.713006  2642 net.cpp:137] Memory required for data: 815046800
I0924 21:06:13.713007  2642 layer_factory.hpp:77] Creating layer Convolution44
I0924 21:06:13.713013  2642 net.cpp:84] Creating Layer Convolution44
I0924 21:06:13.713016  2642 net.cpp:406] Convolution44 <- Eltwise20_ReLU41_0_split_0
I0924 21:06:13.713021  2642 net.cpp:380] Convolution44 -> Convolution44
I0924 21:06:13.715062  2642 net.cpp:122] Setting up Convolution44
I0924 21:06:13.715071  2642 net.cpp:129] Top shape: 100 64 7 7 (313600)
I0924 21:06:13.715075  2642 net.cpp:137] Memory required for data: 816301200
I0924 21:06:13.715078  2642 layer_factory.hpp:77] Creating layer BatchNorm44
I0924 21:06:13.715085  2642 net.cpp:84] Creating Layer BatchNorm44
I0924 21:06:13.715087  2642 net.cpp:406] BatchNorm44 <- Convolution44
I0924 21:06:13.715090  2642 net.cpp:367] BatchNorm44 -> Convolution44 (in-place)
I0924 21:06:13.715242  2642 net.cpp:122] Setting up BatchNorm44
I0924 21:06:13.715255  2642 net.cpp:129] Top shape: 100 64 7 7 (313600)
I0924 21:06:13.715256  2642 net.cpp:137] Memory required for data: 817555600
I0924 21:06:13.715261  2642 layer_factory.hpp:77] Creating layer Scale44
I0924 21:06:13.715266  2642 net.cpp:84] Creating Layer Scale44
I0924 21:06:13.715270  2642 net.cpp:406] Scale44 <- Convolution44
I0924 21:06:13.715272  2642 net.cpp:367] Scale44 -> Convolution44 (in-place)
I0924 21:06:13.715304  2642 layer_factory.hpp:77] Creating layer Scale44
I0924 21:06:13.715390  2642 net.cpp:122] Setting up Scale44
I0924 21:06:13.715394  2642 net.cpp:129] Top shape: 100 64 7 7 (313600)
I0924 21:06:13.715396  2642 net.cpp:137] Memory required for data: 818810000
I0924 21:06:13.715400  2642 layer_factory.hpp:77] Creating layer ReLU42
I0924 21:06:13.715404  2642 net.cpp:84] Creating Layer ReLU42
I0924 21:06:13.715407  2642 net.cpp:406] ReLU42 <- Convolution44
I0924 21:06:13.715410  2642 net.cpp:367] ReLU42 -> Convolution44 (in-place)
I0924 21:06:13.715538  2642 net.cpp:122] Setting up ReLU42
I0924 21:06:13.715543  2642 net.cpp:129] Top shape: 100 64 7 7 (313600)
I0924 21:06:13.715545  2642 net.cpp:137] Memory required for data: 820064400
I0924 21:06:13.715548  2642 layer_factory.hpp:77] Creating layer Convolution45
I0924 21:06:13.715554  2642 net.cpp:84] Creating Layer Convolution45
I0924 21:06:13.715557  2642 net.cpp:406] Convolution45 <- Convolution44
I0924 21:06:13.715562  2642 net.cpp:380] Convolution45 -> Convolution45
I0924 21:06:13.717584  2642 net.cpp:122] Setting up Convolution45
I0924 21:06:13.717593  2642 net.cpp:129] Top shape: 100 64 7 7 (313600)
I0924 21:06:13.717595  2642 net.cpp:137] Memory required for data: 821318800
I0924 21:06:13.717602  2642 layer_factory.hpp:77] Creating layer BatchNorm45
I0924 21:06:13.717605  2642 net.cpp:84] Creating Layer BatchNorm45
I0924 21:06:13.717608  2642 net.cpp:406] BatchNorm45 <- Convolution45
I0924 21:06:13.717612  2642 net.cpp:367] BatchNorm45 -> Convolution45 (in-place)
I0924 21:06:13.717759  2642 net.cpp:122] Setting up BatchNorm45
I0924 21:06:13.717764  2642 net.cpp:129] Top shape: 100 64 7 7 (313600)
I0924 21:06:13.717767  2642 net.cpp:137] Memory required for data: 822573200
I0924 21:06:13.717770  2642 layer_factory.hpp:77] Creating layer Scale45
I0924 21:06:13.717777  2642 net.cpp:84] Creating Layer Scale45
I0924 21:06:13.717779  2642 net.cpp:406] Scale45 <- Convolution45
I0924 21:06:13.717782  2642 net.cpp:367] Scale45 -> Convolution45 (in-place)
I0924 21:06:13.717813  2642 layer_factory.hpp:77] Creating layer Scale45
I0924 21:06:13.717896  2642 net.cpp:122] Setting up Scale45
I0924 21:06:13.717900  2642 net.cpp:129] Top shape: 100 64 7 7 (313600)
I0924 21:06:13.717902  2642 net.cpp:137] Memory required for data: 823827600
I0924 21:06:13.717906  2642 layer_factory.hpp:77] Creating layer Eltwise21
I0924 21:06:13.717911  2642 net.cpp:84] Creating Layer Eltwise21
I0924 21:06:13.717912  2642 net.cpp:406] Eltwise21 <- Eltwise20_ReLU41_0_split_1
I0924 21:06:13.717916  2642 net.cpp:406] Eltwise21 <- Convolution45
I0924 21:06:13.717919  2642 net.cpp:380] Eltwise21 -> Eltwise21
I0924 21:06:13.717936  2642 net.cpp:122] Setting up Eltwise21
I0924 21:06:13.717941  2642 net.cpp:129] Top shape: 100 64 7 7 (313600)
I0924 21:06:13.717941  2642 net.cpp:137] Memory required for data: 825082000
I0924 21:06:13.717944  2642 layer_factory.hpp:77] Creating layer ReLU43
I0924 21:06:13.717948  2642 net.cpp:84] Creating Layer ReLU43
I0924 21:06:13.717950  2642 net.cpp:406] ReLU43 <- Eltwise21
I0924 21:06:13.717953  2642 net.cpp:367] ReLU43 -> Eltwise21 (in-place)
…
I0924 21:06:14.057339  2642 net.cpp:380] Convolution40 -> Convolution40
I0924 21:06:14.058639  2642 net.cpp:122] Setting up Convolution40
I0924 21:06:14.058646  2642 net.cpp:129] Top shape: 100 64 8 8 (409600)
I0924 21:06:14.058650  2642 net.cpp:137] Memory required for data: 1030145200
I0924 21:06:14.058653  2642 layer_factory.hpp:77] Creating layer BatchNorm40
I0924 21:06:14.058660  2642 net.cpp:84] Creating Layer BatchNorm40
I0924 21:06:14.058662  2642 net.cpp:406] BatchNorm40 <- Convolution40
I0924 21:06:14.058665  2642 net.cpp:367] BatchNorm40 -> Convolution40 (in-place)
I0924 21:06:14.058794  2642 net.cpp:122] Setting up BatchNorm40
I0924 21:06:14.058799  2642 net.cpp:129] Top shape: 100 64 8 8 (409600)
I0924 21:06:14.058801  2642 net.cpp:137] Memory required for data: 1031783600
I0924 21:06:14.058805  2642 layer_factory.hpp:77] Creating layer Scale40
I0924 21:06:14.058809  2642 net.cpp:84] Creating Layer Scale40
I0924 21:06:14.058811  2642 net.cpp:406] Scale40 <- Convolution40
I0924 21:06:14.058815  2642 net.cpp:367] Scale40 -> Convolution40 (in-place)
I0924 21:06:14.058842  2642 layer_factory.hpp:77] Creating layer Scale40
I0924 21:06:14.058914  2642 net.cpp:122] Setting up Scale40
I0924 21:06:14.058918  2642 net.cpp:129] Top shape: 100 64 8 8 (409600)
I0924 21:06:14.058920  2642 net.cpp:137] Memory required for data: 1033422000
I0924 21:06:14.058923  2642 layer_factory.hpp:77] Creating layer ReLU38
I0924 21:06:14.058928  2642 net.cpp:84] Creating Layer ReLU38
I0924 21:06:14.058930  2642 net.cpp:406] ReLU38 <- Convolution40
I0924 21:06:14.058933  2642 net.cpp:367] ReLU38 -> Convolution40 (in-place)
I0924 21:06:14.059062  2642 net.cpp:122] Setting up ReLU38
I0924 21:06:14.059067  2642 net.cpp:129] Top shape: 100 64 8 8 (409600)
I0924 21:06:14.059070  2642 net.cpp:137] Memory required for data: 1035060400
I0924 21:06:14.059072  2642 layer_factory.hpp:77] Creating layer Convolution41
I0924 21:06:14.059079  2642 net.cpp:84] Creating Layer Convolution41
I0924 21:06:14.059082  2642 net.cpp:406] Convolution41 <- Convolution40
I0924 21:06:14.059087  2642 net.cpp:380] Convolution41 -> Convolution41
I0924 21:06:14.060765  2642 net.cpp:122] Setting up Convolution41
I0924 21:06:14.060773  2642 net.cpp:129] Top shape: 100 64 8 8 (409600)
I0924 21:06:14.060775  2642 net.cpp:137] Memory required for data: 1036698800
I0924 21:06:14.060781  2642 layer_factory.hpp:77] Creating layer BatchNorm41
I0924 21:06:14.060786  2642 net.cpp:84] Creating Layer BatchNorm41
I0924 21:06:14.060787  2642 net.cpp:406] BatchNorm41 <- Convolution41
I0924 21:06:14.060792  2642 net.cpp:367] BatchNorm41 -> Convolution41 (in-place)
I0924 21:06:14.060940  2642 net.cpp:122] Setting up BatchNorm41
I0924 21:06:14.060945  2642 net.cpp:129] Top shape: 100 64 8 8 (409600)
I0924 21:06:14.060947  2642 net.cpp:137] Memory required for data: 1038337200
I0924 21:06:14.060961  2642 layer_factory.hpp:77] Creating layer Scale41
I0924 21:06:14.060966  2642 net.cpp:84] Creating Layer Scale41
I0924 21:06:14.060968  2642 net.cpp:406] Scale41 <- Convolution41
I0924 21:06:14.060972  2642 net.cpp:367] Scale41 -> Convolution41 (in-place)
I0924 21:06:14.060997  2642 layer_factory.hpp:77] Creating layer Scale41
I0924 21:06:14.061069  2642 net.cpp:122] Setting up Scale41
I0924 21:06:14.061074  2642 net.cpp:129] Top shape: 100 64 8 8 (409600)
I0924 21:06:14.061076  2642 net.cpp:137] Memory required for data: 1039975600
I0924 21:06:14.061079  2642 layer_factory.hpp:77] Creating layer Eltwise19
I0924 21:06:14.061084  2642 net.cpp:84] Creating Layer Eltwise19
I0924 21:06:14.061085  2642 net.cpp:406] Eltwise19 <- Convolution39
I0924 21:06:14.061095  2642 net.cpp:406] Eltwise19 <- Convolution41
I0924 21:06:14.061100  2642 net.cpp:380] Eltwise19 -> Eltwise19
I0924 21:06:14.061117  2642 net.cpp:122] Setting up Eltwise19
I0924 21:06:14.061121  2642 net.cpp:129] Top shape: 100 64 8 8 (409600)
I0924 21:06:14.061123  2642 net.cpp:137] Memory required for data: 1041614000
I0924 21:06:14.061125  2642 layer_factory.hpp:77] Creating layer ReLU39
I0924 21:06:14.061130  2642 net.cpp:84] Creating Layer ReLU39
I0924 21:06:14.061131  2642 net.cpp:406] ReLU39 <- Eltwise19
I0924 21:06:14.061134  2642 net.cpp:367] ReLU39 -> Eltwise19 (in-place)
I0924 21:06:14.061264  2642 net.cpp:122] Setting up ReLU39
I0924 21:06:14.061269  2642 net.cpp:129] Top shape: 100 64 8 8 (409600)
I0924 21:06:14.061271  2642 net.cpp:137] Memory required for data: 1043252400
I0924 21:06:14.078743  2642 layer_factory.hpp:77] Creating layer Eltwise19_ReLU39_0_split
I0924 21:06:14.078753  2642 net.cpp:84] Creating Layer Eltwise19_ReLU39_0_split
I0924 21:06:14.078757  2642 net.cpp:406] Eltwise19_ReLU39_0_split <- Eltwise19
I0924 21:06:14.078760  2642 net.cpp:380] Eltwise19_ReLU39_0_split -> Eltwise19_ReLU39_0_split_0
I0924 21:06:14.078766  2642 net.cpp:380] Eltwise19_ReLU39_0_split -> Eltwise19_ReLU39_0_split_1
I0924 21:06:14.078802  2642 net.cpp:122] Setting up Eltwise19_ReLU39_0_split
I0924 21:06:14.078809  2642 net.cpp:129] Top shape: 100 64 8 8 (409600)
I0924 21:06:14.078811  2642 net.cpp:129] Top shape: 100 64 8 8 (409600)
I0924 21:06:14.078814  2642 net.cpp:137] Memory required for data: 1046529200
I0924 21:06:14.078816  2642 layer_factory.hpp:77] Creating layer Convolution42
I0924 21:06:14.078824  2642 net.cpp:84] Creating Layer Convolution42
I0924 21:06:14.078826  2642 net.cpp:406] Convolution42 <- Eltwise19_ReLU39_0_split_0
I0924 21:06:14.078831  2642 net.cpp:380] Convolution42 -> Convolution42
I0924 21:06:14.081010  2642 net.cpp:122] Setting up Convolution42
I0924 21:06:14.081020  2642 net.cpp:129] Top shape: 100 64 8 8 (409600)
I0924 21:06:14.081022  2642 net.cpp:137] Memory required for data: 1048167600
I0924 21:06:14.081027  2642 layer_factory.hpp:77] Creating layer BatchNorm42
I0924 21:06:14.081033  2642 net.cpp:84] Creating Layer BatchNorm42
I0924 21:06:14.081037  2642 net.cpp:406] BatchNorm42 <- Convolution42
I0924 21:06:14.081040  2642 net.cpp:367] BatchNorm42 -> Convolution42 (in-place)
I0924 21:06:14.081181  2642 net.cpp:122] Setting up BatchNorm42
I0924 21:06:14.081185  2642 net.cpp:129] Top shape: 100 64 8 8 (409600)
I0924 21:06:14.081188  2642 net.cpp:137] Memory required for data: 1049806000
I0924 21:06:14.081192  2642 layer_factory.hpp:77] Creating layer Scale42
I0924 21:06:14.081198  2642 net.cpp:84] Creating Layer Scale42
I0924 21:06:14.081200  2642 net.cpp:406] Scale42 <- Convolution42
I0924 21:06:14.081204  2642 net.cpp:367] Scale42 -> Convolution42 (in-place)
I0924 21:06:14.081233  2642 layer_factory.hpp:77] Creating layer Scale42
I0924 21:06:14.081308  2642 net.cpp:122] Setting up Scale42
I0924 21:06:14.081312  2642 net.cpp:129] Top shape: 100 64 8 8 (409600)
I0924 21:06:14.081315  2642 net.cpp:137] Memory required for data: 1051444400
I0924 21:06:14.081318  2642 layer_factory.hpp:77] Creating layer ReLU40
I0924 21:06:14.081321  2642 net.cpp:84] Creating Layer ReLU40
I0924 21:06:14.081324  2642 net.cpp:406] ReLU40 <- Convolution42
I0924 21:06:14.081328  2642 net.cpp:367] ReLU40 -> Convolution42 (in-place)
I0924 21:06:14.081459  2642 net.cpp:122] Setting up ReLU40
I0924 21:06:14.081465  2642 net.cpp:129] Top shape: 100 64 8 8 (409600)
I0924 21:06:14.081467  2642 net.cpp:137] Memory required for data: 1053082800
I0924 21:06:14.081470  2642 layer_factory.hpp:77] Creating layer Convolution43
I0924 21:06:14.081478  2642 net.cpp:84] Creating Layer Convolution43
I0924 21:06:14.081481  2642 net.cpp:406] Convolution43 <- Convolution42
I0924 21:06:14.081485  2642 net.cpp:380] Convolution43 -> Convolution43
I0924 21:06:14.083353  2642 net.cpp:122] Setting up Convolution43
I0924 21:06:14.083361  2642 net.cpp:129] Top shape: 100 64 8 8 (409600)
I0924 21:06:14.083371  2642 net.cpp:137] Memory required for data: 1054721200
I0924 21:06:14.083376  2642 layer_factory.hpp:77] Creating layer BatchNorm43
I0924 21:06:14.083381  2642 net.cpp:84] Creating Layer BatchNorm43
I0924 21:06:14.083384  2642 net.cpp:406] BatchNorm43 <- Convolution43
I0924 21:06:14.083389  2642 net.cpp:367] BatchNorm43 -> Convolution43 (in-place)
I0924 21:06:14.083516  2642 net.cpp:122] Setting up BatchNorm43
I0924 21:06:14.083521  2642 net.cpp:129] Top shape: 100 64 8 8 (409600)
I0924 21:06:14.083523  2642 net.cpp:137] Memory required for data: 1056359600
I0924 21:06:14.083528  2642 layer_factory.hpp:77] Creating layer Scale43
I0924 21:06:14.083533  2642 net.cpp:84] Creating Layer Scale43
I0924 21:06:14.083535  2642 net.cpp:406] Scale43 <- Convolution43
I0924 21:06:14.083539  2642 net.cpp:367] Scale43 -> Convolution43 (in-place)
I0924 21:06:14.083564  2642 layer_factory.hpp:77] Creating layer Scale43
I0924 21:06:14.083638  2642 net.cpp:122] Setting up Scale43
I0924 21:06:14.083642  2642 net.cpp:129] Top shape: 100 64 8 8 (409600)
I0924 21:06:14.083644  2642 net.cpp:137] Memory required for data: 1057998000
I0924 21:06:14.083648  2642 layer_factory.hpp:77] Creating layer Eltwise20
I0924 21:06:14.083652  2642 net.cpp:84] Creating Layer Eltwise20
I0924 21:06:14.083654  2642 net.cpp:406] Eltwise20 <- Eltwise19_ReLU39_0_split_1
I0924 21:06:14.083657  2642 net.cpp:406] Eltwise20 <- Convolution43
I0924 21:06:14.083662  2642 net.cpp:380] Eltwise20 -> Eltwise20
I0924 21:06:14.083676  2642 net.cpp:122] Setting up Eltwise20
I0924 21:06:14.083680  2642 net.cpp:129] Top shape: 100 64 8 8 (409600)
I0924 21:06:14.083683  2642 net.cpp:137] Memory required for data: 1059636400
I0924 21:06:14.083684  2642 layer_factory.hpp:77] Creating layer ReLU41
I0924 21:06:14.083688  2642 net.cpp:84] Creating Layer ReLU41
I0924 21:06:14.083691  2642 net.cpp:406] ReLU41 <- Eltwise20
I0924 21:06:14.083693  2642 net.cpp:367] ReLU41 -> Eltwise20 (in-place)
I0924 21:06:14.083822  2642 net.cpp:122] Setting up ReLU41
I0924 21:06:14.083827  2642 net.cpp:129] Top shape: 100 64 8 8 (409600)
I0924 21:06:14.083830  2642 net.cpp:137] Memory required for data: 1061274800
I0924 21:06:14.083832  2642 layer_factory.hpp:77] Creating layer Eltwise20_ReLU41_0_split
I0924 21:06:14.083837  2642 net.cpp:84] Creating Layer Eltwise20_ReLU41_0_split
I0924 21:06:14.083839  2642 net.cpp:406] Eltwise20_ReLU41_0_split <- Eltwise20
I0924 21:06:14.083842  2642 net.cpp:380] Eltwise20_ReLU41_0_split -> Eltwise20_ReLU41_0_split_0
I0924 21:06:14.083847  2642 net.cpp:380] Eltwise20_ReLU41_0_split -> Eltwise20_ReLU41_0_split_1
I0924 21:06:14.083873  2642 net.cpp:122] Setting up Eltwise20_ReLU41_0_split
I0924 21:06:14.083876  2642 net.cpp:129] Top shape: 100 64 8 8 (409600)
I0924 21:06:14.083878  2642 net.cpp:129] Top shape: 100 64 8 8 (409600)
I0924 21:06:14.083880  2642 net.cpp:137] Memory required for data: 1064551600
I0924 21:06:14.083883  2642 layer_factory.hpp:77] Creating layer Convolution44
I0924 21:06:14.083889  2642 net.cpp:84] Creating Layer Convolution44
I0924 21:06:14.083891  2642 net.cpp:406] Convolution44 <- Eltwise20_ReLU41_0_split_0
I0924 21:06:14.083896  2642 net.cpp:380] Convolution44 -> Convolution44
I0924 21:06:14.085911  2642 net.cpp:122] Setting up Convolution44
I0924 21:06:14.085919  2642 net.cpp:129] Top shape: 100 64 8 8 (409600)
I0924 21:06:14.085922  2642 net.cpp:137] Memory required for data: 1066190000
I0924 21:06:14.085927  2642 layer_factory.hpp:77] Creating layer BatchNorm44
I0924 21:06:14.085932  2642 net.cpp:84] Creating Layer BatchNorm44
I0924 21:06:14.085934  2642 net.cpp:406] BatchNorm44 <- Convolution44
I0924 21:06:14.085938  2642 net.cpp:367] BatchNorm44 -> Convolution44 (in-place)
I0924 21:06:14.086069  2642 net.cpp:122] Setting up BatchNorm44
I0924 21:06:14.086073  2642 net.cpp:129] Top shape: 100 64 8 8 (409600)
I0924 21:06:14.086076  2642 net.cpp:137] Memory required for data: 1067828400
I0924 21:06:14.086081  2642 layer_factory.hpp:77] Creating layer Scale44
I0924 21:06:14.086084  2642 net.cpp:84] Creating Layer Scale44
I0924 21:06:14.086094  2642 net.cpp:406] Scale44 <- Convolution44
I0924 21:06:14.086098  2642 net.cpp:367] Scale44 -> Convolution44 (in-place)
I0924 21:06:14.086127  2642 layer_factory.hpp:77] Creating layer Scale44
I0924 21:06:14.086202  2642 net.cpp:122] Setting up Scale44
I0924 21:06:14.086206  2642 net.cpp:129] Top shape: 100 64 8 8 (409600)
I0924 21:06:14.086208  2642 net.cpp:137] Memory required for data: 1069466800
I0924 21:06:14.086212  2642 layer_factory.hpp:77] Creating layer ReLU42
I0924 21:06:14.086215  2642 net.cpp:84] Creating Layer ReLU42
I0924 21:06:14.086218  2642 net.cpp:406] ReLU42 <- Convolution44
I0924 21:06:14.086221  2642 net.cpp:367] ReLU42 -> Convolution44 (in-place)
I0924 21:06:14.086678  2642 net.cpp:122] Setting up ReLU42
I0924 21:06:14.086685  2642 net.cpp:129] Top shape: 100 64 8 8 (409600)
I0924 21:06:14.086688  2642 net.cpp:137] Memory required for data: 1071105200
I0924 21:06:14.086690  2642 layer_factory.hpp:77] Creating layer Convolution45
I0924 21:06:14.086697  2642 net.cpp:84] Creating Layer Convolution45
I0924 21:06:14.086700  2642 net.cpp:406] Convolution45 <- Convolution44
I0924 21:06:14.086705  2642 net.cpp:380] Convolution45 -> Convolution45
I0924 21:06:14.088048  2642 net.cpp:122] Setting up Convolution45
I0924 21:06:14.088057  2642 net.cpp:129] Top shape: 100 64 8 8 (409600)
I0924 21:06:14.088058  2642 net.cpp:137] Memory required for data: 1072743600
I0924 21:06:14.088063  2642 layer_factory.hpp:77] Creating layer BatchNorm45
I0924 21:06:14.088068  2642 net.cpp:84] Creating Layer BatchNorm45
I0924 21:06:14.088070  2642 net.cpp:406] BatchNorm45 <- Convolution45
I0924 21:06:14.088073  2642 net.cpp:367] BatchNorm45 -> Convolution45 (in-place)
I0924 21:06:14.088202  2642 net.cpp:122] Setting up BatchNorm45
I0924 21:06:14.088207  2642 net.cpp:129] Top shape: 100 64 8 8 (409600)
I0924 21:06:14.088208  2642 net.cpp:137] Memory required for data: 1074382000
I0924 21:06:14.088213  2642 layer_factory.hpp:77] Creating layer Scale45
I0924 21:06:14.088217  2642 net.cpp:84] Creating Layer Scale45
I0924 21:06:14.088219  2642 net.cpp:406] Scale45 <- Convolution45
I0924 21:06:14.088222  2642 net.cpp:367] Scale45 -> Convolution45 (in-place)
I0924 21:06:14.088248  2642 layer_factory.hpp:77] Creating layer Scale45
I0924 21:06:14.088320  2642 net.cpp:122] Setting up Scale45
I0924 21:06:14.088325  2642 net.cpp:129] Top shape: 100 64 8 8 (409600)
I0924 21:06:14.088326  2642 net.cpp:137] Memory required for data: 1076020400
I0924 21:06:14.088330  2642 layer_factory.hpp:77] Creating layer Eltwise21
I0924 21:06:14.088333  2642 net.cpp:84] Creating Layer Eltwise21
I0924 21:06:14.088337  2642 net.cpp:406] Eltwise21 <- Eltwise20_ReLU41_0_split_1
I0924 21:06:14.088340  2642 net.cpp:406] Eltwise21 <- Convolution45
I0924 21:06:14.088343  2642 net.cpp:380] Eltwise21 -> Eltwise21
I0924 21:06:14.088358  2642 net.cpp:122] Setting up Eltwise21
I0924 21:06:14.088361  2642 net.cpp:129] Top shape: 100 64 8 8 (409600)
I0924 21:06:14.088363  2642 net.cpp:137] Memory required for data: 1077658800
I0924 21:06:14.088366  2642 layer_factory.hpp:77] Creating layer ReLU43
I0924 21:06:14.088371  2642 net.cpp:84] Creating Layer ReLU43
I0924 21:06:14.088372  2642 net.cpp:406] ReLU43 <- Eltwise21
I0924 21:06:14.088376  2642 net.cpp:367] ReLU43 -> Eltwise21 (in-place)
I0924 21:06:14.088831  2642 net.cpp:122] Setting up ReLU43
I0924 21:06:14.088840  2642 net.cpp:129] Top shape: 100 64 8 8 (409600)
I0924 21:06:14.088841  2642 net.cpp:137] Memory required for data: 1079297200
I0924 21:06:14.088845  2642 layer_factory.hpp:77] Creating layer Eltwise21_ReLU43_0_split
I0924 21:06:14.088848  2642 net.cpp:84] Creating Layer Eltwise21_ReLU43_0_split
I0924 21:06:14.088850  2642 net.cpp:406] Eltwise21_ReLU43_0_split <- Eltwise21
I0924 21:06:14.088855  2642 net.cpp:380] Eltwise21_ReLU43_0_split -> Eltwise21_ReLU43_0_split_0
I0924 21:06:14.088860  2642 net.cpp:380] Eltwise21_ReLU43_0_split -> Eltwise21_ReLU43_0_split_1
I0924 21:06:14.088887  2642 net.cpp:122] Setting up Eltwise21_ReLU43_0_split
I0924 21:06:14.088891  2642 net.cpp:129] Top shape: 100 64 8 8 (409600)
I0924 21:06:14.088901  2642 net.cpp:129] Top shape: 100 64 8 8 (409600)
I0924 21:06:14.088902  2642 net.cpp:137] Memory required for data: 1082574000
I0924 21:06:14.088904  2642 layer_factory.hpp:77] Creating layer Convolution46
I0924 21:06:14.088912  2642 net.cpp:84] Creating Layer Convolution46
I0924 21:06:14.088914  2642 net.cpp:406] Convolution46 <- Eltwise21_ReLU43_0_split_0
I0924 21:06:14.088934  2642 net.cpp:380] Convolution46 -> Convolution46
I0924 21:06:14.090947  2642 net.cpp:122] Setting up Convolution46
I0924 21:06:14.090956  2642 net.cpp:129] Top shape: 100 64 8 8 (409600)
I0924 21:06:14.090958  2642 net.cpp:137] Memory required for data: 1084212400
I0924 21:06:14.090963  2642 layer_factory.hpp:77] Creating layer BatchNorm46
I0924 21:06:14.090967  2642 net.cpp:84] Creating Layer BatchNorm46
I0924 21:06:14.090970  2642 net.cpp:406] BatchNorm46 <- Convolution46
I0924 21:06:14.090975  2642 net.cpp:367] BatchNorm46 -> Convolution46 (in-place)
I0924 21:06:14.091112  2642 net.cpp:122] Setting up BatchNorm46
I0924 21:06:14.091117  2642 net.cpp:129] Top shape: 100 64 8 8 (409600)
I0924 21:06:14.091120  2642 net.cpp:137] Memory required for data: 1085850800
I0924 21:06:14.091125  2642 layer_factory.hpp:77] Creating layer Scale46
I0924 21:06:14.091128  2642 net.cpp:84] Creating Layer Scale46
I0924 21:06:14.091131  2642 net.cpp:406] Scale46 <- Convolution46
I0924 21:06:14.091135  2642 net.cpp:367] Scale46 -> Convolution46 (in-place)
I0924 21:06:14.091161  2642 layer_factory.hpp:77] Creating layer Scale46
I0924 21:06:14.091235  2642 net.cpp:122] Setting up Scale46
I0924 21:06:14.091240  2642 net.cpp:129] Top shape: 100 64 8 8 (409600)
I0924 21:06:14.091243  2642 net.cpp:137] Memory required for data: 1087489200
I0924 21:06:14.091245  2642 layer_factory.hpp:77] Creating layer ReLU44
I0924 21:06:14.091249  2642 net.cpp:84] Creating Layer ReLU44
I0924 21:06:14.091251  2642 net.cpp:406] ReLU44 <- Convolution46
I0924 21:06:14.091255  2642 net.cpp:367] ReLU44 -> Convolution46 (in-place)
I0924 21:06:14.091390  2642 net.cpp:122] Setting up ReLU44
I0924 21:06:14.091397  2642 net.cpp:129] Top shape: 100 64 8 8 (409600)
I0924 21:06:14.091398  2642 net.cpp:137] Memory required for data: 1089127600
I0924 21:06:14.091400  2642 layer_factory.hpp:77] Creating layer Convolution47
I0924 21:06:14.091408  2642 net.cpp:84] Creating Layer Convolution47
I0924 21:06:14.091410  2642 net.cpp:406] Convolution47 <- Convolution46
I0924 21:06:14.091414  2642 net.cpp:380] Convolution47 -> Convolution47
I0924 21:06:14.093123  2642 net.cpp:122] Setting up Convolution47
I0924 21:06:14.093132  2642 net.cpp:129] Top shape: 100 64 8 8 (409600)
I0924 21:06:14.093135  2642 net.cpp:137] Memory required for data: 1090766000
I0924 21:06:14.093139  2642 layer_factory.hpp:77] Creating layer BatchNorm47
I0924 21:06:14.093144  2642 net.cpp:84] Creating Layer BatchNorm47
I0924 21:06:14.093147  2642 net.cpp:406] BatchNorm47 <- Convolution47
I0924 21:06:14.093152  2642 net.cpp:367] BatchNorm47 -> Convolution47 (in-place)
I0924 21:06:14.093279  2642 net.cpp:122] Setting up BatchNorm47
I0924 21:06:14.093284  2642 net.cpp:129] Top shape: 100 64 8 8 (409600)
I0924 21:06:14.093286  2642 net.cpp:137] Memory required for data: 1092404400
I0924 21:06:14.093291  2642 layer_factory.hpp:77] Creating layer Scale47
I0924 21:06:14.093296  2642 net.cpp:84] Creating Layer Scale47
I0924 21:06:14.093298  2642 net.cpp:406] Scale47 <- Convolution47
I0924 21:06:14.093302  2642 net.cpp:367] Scale47 -> Convolution47 (in-place)
I0924 21:06:14.093327  2642 layer_factory.hpp:77] Creating layer Scale47
I0924 21:06:14.093402  2642 net.cpp:122] Setting up Scale47
I0924 21:06:14.093406  2642 net.cpp:129] Top shape: 100 64 8 8 (409600)
I0924 21:06:14.093408  2642 net.cpp:137] Memory required for data: 1094042800
I0924 21:06:14.093412  2642 layer_factory.hpp:77] Creating layer Eltwise22
I0924 21:06:14.093416  2642 net.cpp:84] Creating Layer Eltwise22
I0924 21:06:14.093420  2642 net.cpp:406] Eltwise22 <- Eltwise21_ReLU43_0_split_1
I0924 21:06:14.093422  2642 net.cpp:406] Eltwise22 <- Convolution47
I0924 21:06:14.093433  2642 net.cpp:380] Eltwise22 -> Eltwise22
I0924 21:06:14.093451  2642 net.cpp:122] Setting up Eltwise22
I0924 21:06:14.093454  2642 net.cpp:129] Top shape: 100 64 8 8 (409600)
I0924 21:06:14.093456  2642 net.cpp:137] Memory required for data: 1095681200
I0924 21:06:14.093458  2642 layer_factory.hpp:77] Creating layer ReLU45
I0924 21:06:14.093462  2642 net.cpp:84] Creating Layer ReLU45
I0924 21:06:14.093464  2642 net.cpp:406] ReLU45 <- Eltwise22
I0924 21:06:14.093468  2642 net.cpp:367] ReLU45 -> Eltwise22 (in-place)
I0924 21:06:14.093606  2642 net.cpp:122] Setting up ReLU45
I0924 21:06:14.093612  2642 net.cpp:129] Top shape: 100 64 8 8 (409600)
I0924 21:06:14.109143  2642 net.cpp:137] Memory required for data: 1097319600
I0924 21:06:14.109150  2642 layer_factory.hpp:77] Creating layer Eltwise22_ReLU45_0_split
I0924 21:06:14.109155  2642 net.cpp:84] Creating Layer Eltwise22_ReLU45_0_split
I0924 21:06:14.109158  2642 net.cpp:406] Eltwise22_ReLU45_0_split <- Eltwise22
I0924 21:06:14.109165  2642 net.cpp:380] Eltwise22_ReLU45_0_split -> Eltwise22_ReLU45_0_split_0
I0924 21:06:14.109171  2642 net.cpp:380] Eltwise22_ReLU45_0_split -> Eltwise22_ReLU45_0_split_1
I0924 21:06:14.109207  2642 net.cpp:122] Setting up Eltwise22_ReLU45_0_split
I0924 21:06:14.109212  2642 net.cpp:129] Top shape: 100 64 8 8 (409600)
I0924 21:06:14.109216  2642 net.cpp:129] Top shape: 100 64 8 8 (409600)
I0924 21:06:14.109218  2642 net.cpp:137] Memory required for data: 1100596400
I0924 21:06:14.109220  2642 layer_factory.hpp:77] Creating layer Convolution48
I0924 21:06:14.109227  2642 net.cpp:84] Creating Layer Convolution48
I0924 21:06:14.109230  2642 net.cpp:406] Convolution48 <- Eltwise22_ReLU45_0_split_0
I0924 21:06:14.109236  2642 net.cpp:380] Convolution48 -> Convolution48
I0924 21:06:14.111629  2642 net.cpp:122] Setting up Convolution48
I0924 21:06:14.111637  2642 net.cpp:129] Top shape: 100 64 8 8 (409600)
I0924 21:06:14.111640  2642 net.cpp:137] Memory required for data: 1102234800
I0924 21:06:14.111645  2642 layer_factory.hpp:77] Creating layer BatchNorm48
I0924 21:06:14.111650  2642 net.cpp:84] Creating Layer BatchNorm48
I0924 21:06:14.111654  2642 net.cpp:406] BatchNorm48 <- Convolution48
I0924 21:06:14.111657  2642 net.cpp:367] BatchNorm48 -> Convolution48 (in-place)
I0924 21:06:14.111794  2642 net.cpp:122] Setting up BatchNorm48
I0924 21:06:14.111799  2642 net.cpp:129] Top shape: 100 64 8 8 (409600)
I0924 21:06:14.111801  2642 net.cpp:137] Memory required for data: 1103873200
I0924 21:06:14.111806  2642 layer_factory.hpp:77] Creating layer Scale48
I0924 21:06:14.111810  2642 net.cpp:84] Creating Layer Scale48
I0924 21:06:14.111814  2642 net.cpp:406] Scale48 <- Convolution48
I0924 21:06:14.111817  2642 net.cpp:367] Scale48 -> Convolution48 (in-place)
I0924 21:06:14.111845  2642 layer_factory.hpp:77] Creating layer Scale48
I0924 21:06:14.111922  2642 net.cpp:122] Setting up Scale48
I0924 21:06:14.111927  2642 net.cpp:129] Top shape: 100 64 8 8 (409600)
I0924 21:06:14.111928  2642 net.cpp:137] Memory required for data: 1105511600
I0924 21:06:14.111932  2642 layer_factory.hpp:77] Creating layer ReLU46
I0924 21:06:14.111935  2642 net.cpp:84] Creating Layer ReLU46
I0924 21:06:14.111938  2642 net.cpp:406] ReLU46 <- Convolution48
I0924 21:06:14.111941  2642 net.cpp:367] ReLU46 -> Convolution48 (in-place)
I0924 21:06:14.112084  2642 net.cpp:122] Setting up ReLU46
I0924 21:06:14.112090  2642 net.cpp:129] Top shape: 100 64 8 8 (409600)
I0924 21:06:14.112092  2642 net.cpp:137] Memory required for data: 1107150000
I0924 21:06:14.112095  2642 layer_factory.hpp:77] Creating layer Convolution49
I0924 21:06:14.112102  2642 net.cpp:84] Creating Layer Convolution49
I0924 21:06:14.112105  2642 net.cpp:406] Convolution49 <- Convolution48
I0924 21:06:14.112109  2642 net.cpp:380] Convolution49 -> Convolution49
I0924 21:06:14.113963  2642 net.cpp:122] Setting up Convolution49
I0924 21:06:14.113972  2642 net.cpp:129] Top shape: 100 64 8 8 (409600)
I0924 21:06:14.113975  2642 net.cpp:137] Memory required for data: 1108788400
I0924 21:06:14.113987  2642 layer_factory.hpp:77] Creating layer BatchNorm49
I0924 21:06:14.113993  2642 net.cpp:84] Creating Layer BatchNorm49
I0924 21:06:14.113996  2642 net.cpp:406] BatchNorm49 <- Convolution49
I0924 21:06:14.114001  2642 net.cpp:367] BatchNorm49 -> Convolution49 (in-place)
I0924 21:06:14.114136  2642 net.cpp:122] Setting up BatchNorm49
I0924 21:06:14.114140  2642 net.cpp:129] Top shape: 100 64 8 8 (409600)
I0924 21:06:14.114142  2642 net.cpp:137] Memory required for data: 1110426800
I0924 21:06:14.114147  2642 layer_factory.hpp:77] Creating layer Scale49
I0924 21:06:14.114152  2642 net.cpp:84] Creating Layer Scale49
I0924 21:06:14.114156  2642 net.cpp:406] Scale49 <- Convolution49
I0924 21:06:14.114158  2642 net.cpp:367] Scale49 -> Convolution49 (in-place)
I0924 21:06:14.114187  2642 layer_factory.hpp:77] Creating layer Scale49
I0924 21:06:14.114261  2642 net.cpp:122] Setting up Scale49
I0924 21:06:14.114266  2642 net.cpp:129] Top shape: 100 64 8 8 (409600)
I0924 21:06:14.114269  2642 net.cpp:137] Memory required for data: 1112065200
I0924 21:06:14.114272  2642 layer_factory.hpp:77] Creating layer Eltwise23
I0924 21:06:14.114276  2642 net.cpp:84] Creating Layer Eltwise23
I0924 21:06:14.114279  2642 net.cpp:406] Eltwise23 <- Eltwise22_ReLU45_0_split_1
I0924 21:06:14.114284  2642 net.cpp:406] Eltwise23 <- Convolution49
I0924 21:06:14.114287  2642 net.cpp:380] Eltwise23 -> Eltwise23
I0924 21:06:14.114303  2642 net.cpp:122] Setting up Eltwise23
I0924 21:06:14.114306  2642 net.cpp:129] Top shape: 100 64 8 8 (409600)
I0924 21:06:14.114308  2642 net.cpp:137] Memory required for data: 1113703600
I0924 21:06:14.114310  2642 layer_factory.hpp:77] Creating layer ReLU47
I0924 21:06:14.114315  2642 net.cpp:84] Creating Layer ReLU47
I0924 21:06:14.114317  2642 net.cpp:406] ReLU47 <- Eltwise23
I0924 21:06:14.114320  2642 net.cpp:367] ReLU47 -> Eltwise23 (in-place)
I0924 21:06:14.114451  2642 net.cpp:122] Setting up ReLU47
I0924 21:06:14.114457  2642 net.cpp:129] Top shape: 100 64 8 8 (409600)
I0924 21:06:14.114459  2642 net.cpp:137] Memory required for data: 1115342000
I0924 21:06:14.114461  2642 layer_factory.hpp:77] Creating layer Eltwise23_ReLU47_0_split
I0924 21:06:14.114467  2642 net.cpp:84] Creating Layer Eltwise23_ReLU47_0_split
I0924 21:06:14.114470  2642 net.cpp:406] Eltwise23_ReLU47_0_split <- Eltwise23
I0924 21:06:14.114473  2642 net.cpp:380] Eltwise23_ReLU47_0_split -> Eltwise23_ReLU47_0_split_0
I0924 21:06:14.114477  2642 net.cpp:380] Eltwise23_ReLU47_0_split -> Eltwise23_ReLU47_0_split_1
I0924 21:06:14.114506  2642 net.cpp:122] Setting up Eltwise23_ReLU47_0_split
I0924 21:06:14.114508  2642 net.cpp:129] Top shape: 100 64 8 8 (409600)
I0924 21:06:14.114511  2642 net.cpp:129] Top shape: 100 64 8 8 (409600)
I0924 21:06:14.114513  2642 net.cpp:137] Memory required for data: 1118618800
I0924 21:06:14.114516  2642 layer_factory.hpp:77] Creating layer Convolution50
I0924 21:06:14.114522  2642 net.cpp:84] Creating Layer Convolution50
I0924 21:06:14.114524  2642 net.cpp:406] Convolution50 <- Eltwise23_ReLU47_0_split_0
I0924 21:06:14.114529  2642 net.cpp:380] Convolution50 -> Convolution50
I0924 21:06:14.117118  2642 net.cpp:122] Setting up Convolution50
I0924 21:06:14.117127  2642 net.cpp:129] Top shape: 100 64 8 8 (409600)
I0924 21:06:14.117130  2642 net.cpp:137] Memory required for data: 1120257200
I0924 21:06:14.117136  2642 layer_factory.hpp:77] Creating layer BatchNorm50
I0924 21:06:14.117141  2642 net.cpp:84] Creating Layer BatchNorm50
I0924 21:06:14.117143  2642 net.cpp:406] BatchNorm50 <- Convolution50
I0924 21:06:14.117147  2642 net.cpp:367] BatchNorm50 -> Convolution50 (in-place)
I0924 21:06:14.117290  2642 net.cpp:122] Setting up BatchNorm50
I0924 21:06:14.117295  2642 net.cpp:129] Top shape: 100 64 8 8 (409600)
I0924 21:06:14.117296  2642 net.cpp:137] Memory required for data: 1121895600
I0924 21:06:14.117301  2642 layer_factory.hpp:77] Creating layer Scale50
I0924 21:06:14.117305  2642 net.cpp:84] Creating Layer Scale50
I0924 21:06:14.117307  2642 net.cpp:406] Scale50 <- Convolution50
I0924 21:06:14.117318  2642 net.cpp:367] Scale50 -> Convolution50 (in-place)
I0924 21:06:14.117348  2642 layer_factory.hpp:77] Creating layer Scale50
I0924 21:06:14.117425  2642 net.cpp:122] Setting up Scale50
I0924 21:06:14.117429  2642 net.cpp:129] Top shape: 100 64 8 8 (409600)
I0924 21:06:14.117431  2642 net.cpp:137] Memory required for data: 1123534000
I0924 21:06:14.117435  2642 layer_factory.hpp:77] Creating layer ReLU48
I0924 21:06:14.117439  2642 net.cpp:84] Creating Layer ReLU48
I0924 21:06:14.117442  2642 net.cpp:406] ReLU48 <- Convolution50
I0924 21:06:14.117445  2642 net.cpp:367] ReLU48 -> Convolution50 (in-place)
I0924 21:06:14.139860  2642 net.cpp:122] Setting up ReLU48
I0924 21:06:14.139870  2642 net.cpp:129] Top shape: 100 64 8 8 (409600)
I0924 21:06:14.139873  2642 net.cpp:137] Memory required for data: 1125172400
I0924 21:06:14.139876  2642 layer_factory.hpp:77] Creating layer Convolution51
I0924 21:06:14.139885  2642 net.cpp:84] Creating Layer Convolution51
I0924 21:06:14.139889  2642 net.cpp:406] Convolution51 <- Convolution50
I0924 21:06:14.139894  2642 net.cpp:380] Convolution51 -> Convolution51
I0924 21:06:14.141671  2642 net.cpp:122] Setting up Convolution51
I0924 21:06:14.141680  2642 net.cpp:129] Top shape: 100 64 8 8 (409600)
I0924 21:06:14.141682  2642 net.cpp:137] Memory required for data: 1126810800
I0924 21:06:14.141686  2642 layer_factory.hpp:77] Creating layer BatchNorm51
I0924 21:06:14.141692  2642 net.cpp:84] Creating Layer BatchNorm51
I0924 21:06:14.141695  2642 net.cpp:406] BatchNorm51 <- Convolution51
I0924 21:06:14.141698  2642 net.cpp:367] BatchNorm51 -> Convolution51 (in-place)
I0924 21:06:14.141830  2642 net.cpp:122] Setting up BatchNorm51
I0924 21:06:14.141834  2642 net.cpp:129] Top shape: 100 64 8 8 (409600)
I0924 21:06:14.141836  2642 net.cpp:137] Memory required for data: 1128449200
I0924 21:06:14.141841  2642 layer_factory.hpp:77] Creating layer Scale51
I0924 21:06:14.141845  2642 net.cpp:84] Creating Layer Scale51
I0924 21:06:14.141847  2642 net.cpp:406] Scale51 <- Convolution51
I0924 21:06:14.141852  2642 net.cpp:367] Scale51 -> Convolution51 (in-place)
I0924 21:06:14.141878  2642 layer_factory.hpp:77] Creating layer Scale51
I0924 21:06:14.141953  2642 net.cpp:122] Setting up Scale51
I0924 21:06:14.141957  2642 net.cpp:129] Top shape: 100 64 8 8 (409600)
I0924 21:06:14.141959  2642 net.cpp:137] Memory required for data: 1130087600
I0924 21:06:14.141963  2642 layer_factory.hpp:77] Creating layer Eltwise24
I0924 21:06:14.141968  2642 net.cpp:84] Creating Layer Eltwise24
I0924 21:06:14.141970  2642 net.cpp:406] Eltwise24 <- Eltwise23_ReLU47_0_split_1
I0924 21:06:14.141973  2642 net.cpp:406] Eltwise24 <- Convolution51
I0924 21:06:14.141978  2642 net.cpp:380] Eltwise24 -> Eltwise24
I0924 21:06:14.141994  2642 net.cpp:122] Setting up Eltwise24
I0924 21:06:14.141997  2642 net.cpp:129] Top shape: 100 64 8 8 (409600)
I0924 21:06:14.141999  2642 net.cpp:137] Memory required for data: 1131726000
I0924 21:06:14.142001  2642 layer_factory.hpp:77] Creating layer ReLU49
I0924 21:06:14.142005  2642 net.cpp:84] Creating Layer ReLU49
I0924 21:06:14.142007  2642 net.cpp:406] ReLU49 <- Eltwise24
I0924 21:06:14.142010  2642 net.cpp:367] ReLU49 -> Eltwise24 (in-place)
I0924 21:06:14.142489  2642 net.cpp:122] Setting up ReLU49
I0924 21:06:14.142498  2642 net.cpp:129] Top shape: 100 64 8 8 (409600)
I0924 21:06:14.142499  2642 net.cpp:137] Memory required for data: 1133364400
I0924 21:06:14.142503  2642 layer_factory.hpp:77] Creating layer Eltwise24_ReLU49_0_split
I0924 21:06:14.142506  2642 net.cpp:84] Creating Layer Eltwise24_ReLU49_0_split
I0924 21:06:14.142508  2642 net.cpp:406] Eltwise24_ReLU49_0_split <- Eltwise24
I0924 21:06:14.142513  2642 net.cpp:380] Eltwise24_ReLU49_0_split -> Eltwise24_ReLU49_0_split_0
I0924 21:06:14.142518  2642 net.cpp:380] Eltwise24_ReLU49_0_split -> Eltwise24_ReLU49_0_split_1
I0924 21:06:14.142566  2642 net.cpp:122] Setting up Eltwise24_ReLU49_0_split
I0924 21:06:14.142570  2642 net.cpp:129] Top shape: 100 64 8 8 (409600)
I0924 21:06:14.142575  2642 net.cpp:129] Top shape: 100 64 8 8 (409600)
I0924 21:06:14.142583  2642 net.cpp:137] Memory required for data: 1136641200
I0924 21:06:14.142586  2642 layer_factory.hpp:77] Creating layer Convolution52
I0924 21:06:14.142593  2642 net.cpp:84] Creating Layer Convolution52
I0924 21:06:14.142596  2642 net.cpp:406] Convolution52 <- Eltwise24_ReLU49_0_split_0
I0924 21:06:14.142611  2642 net.cpp:380] Convolution52 -> Convolution52
I0924 21:06:14.144738  2642 net.cpp:122] Setting up Convolution52
I0924 21:06:14.144747  2642 net.cpp:129] Top shape: 100 64 8 8 (409600)
I0924 21:06:14.144749  2642 net.cpp:137] Memory required for data: 1138279600
I0924 21:06:14.144754  2642 layer_factory.hpp:77] Creating layer BatchNorm52
I0924 21:06:14.144759  2642 net.cpp:84] Creating Layer BatchNorm52
I0924 21:06:14.144762  2642 net.cpp:406] BatchNorm52 <- Convolution52
I0924 21:06:14.144767  2642 net.cpp:367] BatchNorm52 -> Convolution52 (in-place)
I0924 21:06:14.144901  2642 net.cpp:122] Setting up BatchNorm52
I0924 21:06:14.144906  2642 net.cpp:129] Top shape: 100 64 8 8 (409600)
I0924 21:06:14.144908  2642 net.cpp:137] Memory required for data: 1139918000
I0924 21:06:14.144912  2642 layer_factory.hpp:77] Creating layer Scale52
I0924 21:06:14.144932  2642 net.cpp:84] Creating Layer Scale52
I0924 21:06:14.144934  2642 net.cpp:406] Scale52 <- Convolution52
I0924 21:06:14.144937  2642 net.cpp:367] Scale52 -> Convolution52 (in-place)
I0924 21:06:14.144975  2642 layer_factory.hpp:77] Creating layer Scale52
I0924 21:06:14.145051  2642 net.cpp:122] Setting up Scale52
I0924 21:06:14.145056  2642 net.cpp:129] Top shape: 100 64 8 8 (409600)
I0924 21:06:14.145057  2642 net.cpp:137] Memory required for data: 1141556400
I0924 21:06:14.145061  2642 layer_factory.hpp:77] Creating layer ReLU50
I0924 21:06:14.145082  2642 net.cpp:84] Creating Layer ReLU50
I0924 21:06:14.145086  2642 net.cpp:406] ReLU50 <- Convolution52
I0924 21:06:14.145089  2642 net.cpp:367] ReLU50 -> Convolution52 (in-place)
I0924 21:06:14.145228  2642 net.cpp:122] Setting up ReLU50
I0924 21:06:14.145234  2642 net.cpp:129] Top shape: 100 64 8 8 (409600)
I0924 21:06:14.145236  2642 net.cpp:137] Memory required for data: 1143194800
I0924 21:06:14.145239  2642 layer_factory.hpp:77] Creating layer Convolution53
I0924 21:06:14.145246  2642 net.cpp:84] Creating Layer Convolution53
I0924 21:06:14.145248  2642 net.cpp:406] Convolution53 <- Convolution52
I0924 21:06:14.145253  2642 net.cpp:380] Convolution53 -> Convolution53
I0924 21:06:14.146946  2642 net.cpp:122] Setting up Convolution53
I0924 21:06:14.146955  2642 net.cpp:129] Top shape: 100 64 8 8 (409600)
I0924 21:06:14.146957  2642 net.cpp:137] Memory required for data: 1144833200
I0924 21:06:14.146961  2642 layer_factory.hpp:77] Creating layer BatchNorm53
I0924 21:06:14.146966  2642 net.cpp:84] Creating Layer BatchNorm53
I0924 21:06:14.146970  2642 net.cpp:406] BatchNorm53 <- Convolution53
I0924 21:06:14.146973  2642 net.cpp:367] BatchNorm53 -> Convolution53 (in-place)
I0924 21:06:14.147104  2642 net.cpp:122] Setting up BatchNorm53
I0924 21:06:14.147109  2642 net.cpp:129] Top shape: 100 64 8 8 (409600)
I0924 21:06:14.147111  2642 net.cpp:137] Memory required for data: 1146471600
I0924 21:06:14.147115  2642 layer_factory.hpp:77] Creating layer Scale53
I0924 21:06:14.147119  2642 net.cpp:84] Creating Layer Scale53
I0924 21:06:14.147122  2642 net.cpp:406] Scale53 <- Convolution53
I0924 21:06:14.147127  2642 net.cpp:367] Scale53 -> Convolution53 (in-place)
I0924 21:06:14.147153  2642 layer_factory.hpp:77] Creating layer Scale53
I0924 21:06:14.147228  2642 net.cpp:122] Setting up Scale53
I0924 21:06:14.147233  2642 net.cpp:129] Top shape: 100 64 8 8 (409600)
I0924 21:06:14.147234  2642 net.cpp:137] Memory required for data: 1148110000
I0924 21:06:14.147238  2642 layer_factory.hpp:77] Creating layer Eltwise25
I0924 21:06:14.147243  2642 net.cpp:84] Creating Layer Eltwise25
I0924 21:06:14.147245  2642 net.cpp:406] Eltwise25 <- Eltwise24_ReLU49_0_split_1
I0924 21:06:14.147248  2642 net.cpp:406] Eltwise25 <- Convolution53
I0924 21:06:14.147253  2642 net.cpp:380] Eltwise25 -> Eltwise25
I0924 21:06:14.147277  2642 net.cpp:122] Setting up Eltwise25
I0924 21:06:14.147281  2642 net.cpp:129] Top shape: 100 64 8 8 (409600)
I0924 21:06:14.147284  2642 net.cpp:137] Memory required for data: 1149748400
I0924 21:06:14.147285  2642 layer_factory.hpp:77] Creating layer ReLU51
I0924 21:06:14.147289  2642 net.cpp:84] Creating Layer ReLU51
I0924 21:06:14.147291  2642 net.cpp:406] ReLU51 <- Eltwise25
I0924 21:06:14.147294  2642 net.cpp:367] ReLU51 -> Eltwise25 (in-place)
I0924 21:06:14.147428  2642 net.cpp:122] Setting up ReLU51
I0924 21:06:14.147433  2642 net.cpp:129] Top shape: 100 64 8 8 (409600)
I0924 21:06:14.147436  2642 net.cpp:137] Memory required for data: 1151386800
I0924 21:06:14.147439  2642 layer_factory.hpp:77] Creating layer Eltwise25_ReLU51_0_split
I0924 21:06:14.147442  2642 net.cpp:84] Creating Layer Eltwise25_ReLU51_0_split
I0924 21:06:14.147444  2642 net.cpp:406] Eltwise25_ReLU51_0_split <- Eltwise25
I0924 21:06:14.147449  2642 net.cpp:380] Eltwise25_ReLU51_0_split -> Eltwise25_ReLU51_0_split_0
I0924 21:06:14.147454  2642 net.cpp:380] Eltwise25_ReLU51_0_split -> Eltwise25_ReLU51_0_split_1
I0924 21:06:14.147480  2642 net.cpp:122] Setting up Eltwise25_ReLU51_0_split
I0924 21:06:14.147483  2642 net.cpp:129] Top shape: 100 64 8 8 (409600)
I0924 21:06:14.147485  2642 net.cpp:129] Top shape: 100 64 8 8 (409600)
I0924 21:06:14.147487  2642 net.cpp:137] Memory required for data: 1154663600
I0924 21:06:14.147490  2642 layer_factory.hpp:77] Creating layer Convolution54
I0924 21:06:14.147496  2642 net.cpp:84] Creating Layer Convolution54
I0924 21:06:14.147500  2642 net.cpp:406] Convolution54 <- Eltwise25_ReLU51_0_split_0
I0924 21:06:14.147503  2642 net.cpp:380] Convolution54 -> Convolution54
I0924 21:06:14.149528  2642 net.cpp:122] Setting up Convolution54
I0924 21:06:14.149536  2642 net.cpp:129] Top shape: 100 64 8 8 (409600)
I0924 21:06:14.149538  2642 net.cpp:137] Memory required for data: 1156302000
I0924 21:06:14.149544  2642 layer_factory.hpp:77] Creating layer BatchNorm54
I0924 21:06:14.149547  2642 net.cpp:84] Creating Layer BatchNorm54
I0924 21:06:14.149550  2642 net.cpp:406] BatchNorm54 <- Convolution54
I0924 21:06:14.149554  2642 net.cpp:367] BatchNorm54 -> Convolution54 (in-place)
I0924 21:06:14.149705  2642 net.cpp:122] Setting up BatchNorm54
I0924 21:06:14.149709  2642 net.cpp:129] Top shape: 100 64 8 8 (409600)
I0924 21:06:14.149711  2642 net.cpp:137] Memory required for data: 1157940400
I0924 21:06:14.149716  2642 layer_factory.hpp:77] Creating layer Scale54
I0924 21:06:14.149720  2642 net.cpp:84] Creating Layer Scale54
I0924 21:06:14.149724  2642 net.cpp:406] Scale54 <- Convolution54
I0924 21:06:14.149729  2642 net.cpp:367] Scale54 -> Convolution54 (in-place)
I0924 21:06:14.149756  2642 layer_factory.hpp:77] Creating layer Scale54
I0924 21:06:14.149843  2642 net.cpp:122] Setting up Scale54
I0924 21:06:14.149847  2642 net.cpp:129] Top shape: 100 64 8 8 (409600)
I0924 21:06:14.149849  2642 net.cpp:137] Memory required for data: 1159578800
I0924 21:06:14.149853  2642 layer_factory.hpp:77] Creating layer ReLU52
I0924 21:06:14.149857  2642 net.cpp:84] Creating Layer ReLU52
I0924 21:06:14.149859  2642 net.cpp:406] ReLU52 <- Convolution54
I0924 21:06:14.149863  2642 net.cpp:367] ReLU52 -> Convolution54 (in-place)
I0924 21:06:14.149998  2642 net.cpp:122] Setting up ReLU52
I0924 21:06:14.150004  2642 net.cpp:129] Top shape: 100 64 8 8 (409600)
I0924 21:06:14.150007  2642 net.cpp:137] Memory required for data: 1161217200
I0924 21:06:14.150009  2642 layer_factory.hpp:77] Creating layer Convolution55
I0924 21:06:14.150017  2642 net.cpp:84] Creating Layer Convolution55
I0924 21:06:14.150019  2642 net.cpp:406] Convolution55 <- Convolution54
I0924 21:06:14.150023  2642 net.cpp:380] Convolution55 -> Convolution55
I0924 21:06:14.151736  2642 net.cpp:122] Setting up Convolution55
I0924 21:06:14.151744  2642 net.cpp:129] Top shape: 100 64 8 8 (409600)
I0924 21:06:14.151747  2642 net.cpp:137] Memory required for data: 1162855600
I0924 21:06:14.151751  2642 layer_factory.hpp:77] Creating layer BatchNorm55
I0924 21:06:14.151763  2642 net.cpp:84] Creating Layer BatchNorm55
I0924 21:06:14.151767  2642 net.cpp:406] BatchNorm55 <- Convolution55
I0924 21:06:14.151770  2642 net.cpp:367] BatchNorm55 -> Convolution55 (in-place)
I0924 21:06:14.151919  2642 net.cpp:122] Setting up BatchNorm55
I0924 21:06:14.151932  2642 net.cpp:129] Top shape: 100 64 8 8 (409600)
I0924 21:06:14.151934  2642 net.cpp:137] Memory required for data: 1164494000
I0924 21:06:14.151939  2642 layer_factory.hpp:77] Creating layer Scale55
I0924 21:06:14.151944  2642 net.cpp:84] Creating Layer Scale55
I0924 21:06:14.151947  2642 net.cpp:406] Scale55 <- Convolution55
I0924 21:06:14.151950  2642 net.cpp:367] Scale55 -> Convolution55 (in-place)
I0924 21:06:14.151978  2642 layer_factory.hpp:77] Creating layer Scale55
I0924 21:06:14.152055  2642 net.cpp:122] Setting up Scale55
I0924 21:06:14.152058  2642 net.cpp:129] Top shape: 100 64 8 8 (409600)
I0924 21:06:14.152060  2642 net.cpp:137] Memory required for data: 1166132400
I0924 21:06:14.152065  2642 layer_factory.hpp:77] Creating layer Eltwise26
I0924 21:06:14.152070  2642 net.cpp:84] Creating Layer Eltwise26
I0924 21:06:14.152072  2642 net.cpp:406] Eltwise26 <- Eltwise25_ReLU51_0_split_1
I0924 21:06:14.152076  2642 net.cpp:406] Eltwise26 <- Convolution55
I0924 21:06:14.152078  2642 net.cpp:380] Eltwise26 -> Eltwise26
I0924 21:06:14.152094  2642 net.cpp:122] Setting up Eltwise26
I0924 21:06:14.152098  2642 net.cpp:129] Top shape: 100 64 8 8 (409600)
I0924 21:06:14.152101  2642 net.cpp:137] Memory required for data: 1167770800
I0924 21:06:14.152102  2642 layer_factory.hpp:77] Creating layer ReLU53
I0924 21:06:14.152107  2642 net.cpp:84] Creating Layer ReLU53
I0924 21:06:14.152108  2642 net.cpp:406] ReLU53 <- Eltwise26
I0924 21:06:14.152112  2642 net.cpp:367] ReLU53 -> Eltwise26 (in-place)
I0924 21:06:14.152560  2642 net.cpp:122] Setting up ReLU53
I0924 21:06:14.152568  2642 net.cpp:129] Top shape: 100 64 8 8 (409600)
I0924 21:06:14.152570  2642 net.cpp:137] Memory required for data: 1169409200
I0924 21:06:14.152572  2642 layer_factory.hpp:77] Creating layer Eltwise26_ReLU53_0_split
I0924 21:06:14.152577  2642 net.cpp:84] Creating Layer Eltwise26_ReLU53_0_split
I0924 21:06:14.152580  2642 net.cpp:406] Eltwise26_ReLU53_0_split <- Eltwise26
I0924 21:06:14.152583  2642 net.cpp:380] Eltwise26_ReLU53_0_split -> Eltwise26_ReLU53_0_split_0
I0924 21:06:14.152588  2642 net.cpp:380] Eltwise26_ReLU53_0_split -> Eltwise26_ReLU53_0_split_1
I0924 21:06:14.152618  2642 net.cpp:122] Setting up Eltwise26_ReLU53_0_split
I0924 21:06:14.152622  2642 net.cpp:129] Top shape: 100 64 8 8 (409600)
I0924 21:06:14.152624  2642 net.cpp:129] Top shape: 100 64 8 8 (409600)
I0924 21:06:14.152626  2642 net.cpp:137] Memory required for data: 1172686000
I0924 21:06:14.152628  2642 layer_factory.hpp:77] Creating layer Convolution56
I0924 21:06:14.152635  2642 net.cpp:84] Creating Layer Convolution56
I0924 21:06:14.152637  2642 net.cpp:406] Convolution56 <- Eltwise26_ReLU53_0_split_0
I0924 21:06:14.152642  2642 net.cpp:380] Convolution56 -> Convolution56
I0924 21:06:14.154673  2642 net.cpp:122] Setting up Convolution56
I0924 21:06:14.154682  2642 net.cpp:129] Top shape: 100 64 8 8 (409600)
I0924 21:06:14.154685  2642 net.cpp:137] Memory required for data: 1174324400
I0924 21:06:14.154690  2642 layer_factory.hpp:77] Creating layer BatchNorm56
I0924 21:06:14.154695  2642 net.cpp:84] Creating Layer BatchNorm56
I0924 21:06:14.154697  2642 net.cpp:406] BatchNorm56 <- Convolution56
I0924 21:06:14.154701  2642 net.cpp:367] BatchNorm56 -> Convolution56 (in-place)
I0924 21:06:14.154839  2642 net.cpp:122] Setting up BatchNorm56
I0924 21:06:14.154844  2642 net.cpp:129] Top shape: 100 64 8 8 (409600)
I0924 21:06:14.154846  2642 net.cpp:137] Memory required for data: 1175962800
I0924 21:06:14.154850  2642 layer_factory.hpp:77] Creating layer Scale56
I0924 21:06:14.154855  2642 net.cpp:84] Creating Layer Scale56
I0924 21:06:14.154857  2642 net.cpp:406] Scale56 <- Convolution56
I0924 21:06:14.154860  2642 net.cpp:367] Scale56 -> Convolution56 (in-place)
I0924 21:06:14.154897  2642 layer_factory.hpp:77] Creating layer Scale56
I0924 21:06:14.154976  2642 net.cpp:122] Setting up Scale56
I0924 21:06:14.154980  2642 net.cpp:129] Top shape: 100 64 8 8 (409600)
I0924 21:06:14.154983  2642 net.cpp:137] Memory required for data: 1177601200
I0924 21:06:14.154986  2642 layer_factory.hpp:77] Creating layer ReLU54
I0924 21:06:14.154990  2642 net.cpp:84] Creating Layer ReLU54
I0924 21:06:14.154994  2642 net.cpp:406] ReLU54 <- Convolution56
I0924 21:06:14.169700  2642 net.cpp:367] ReLU54 -> Convolution56 (in-place)
I0924 21:06:14.170235  2642 net.cpp:122] Setting up ReLU54
I0924 21:06:14.170245  2642 net.cpp:129] Top shape: 100 64 8 8 (409600)
I0924 21:06:14.170248  2642 net.cpp:137] Memory required for data: 1179239600
I0924 21:06:14.170250  2642 layer_factory.hpp:77] Creating layer Convolution57
I0924 21:06:14.170259  2642 net.cpp:84] Creating Layer Convolution57
I0924 21:06:14.170262  2642 net.cpp:406] Convolution57 <- Convolution56
I0924 21:06:14.170267  2642 net.cpp:380] Convolution57 -> Convolution57
I0924 21:06:14.172089  2642 net.cpp:122] Setting up Convolution57
I0924 21:06:14.172098  2642 net.cpp:129] Top shape: 100 64 8 8 (409600)
I0924 21:06:14.172101  2642 net.cpp:137] Memory required for data: 1180878000
I0924 21:06:14.172106  2642 layer_factory.hpp:77] Creating layer BatchNorm57
I0924 21:06:14.172109  2642 net.cpp:84] Creating Layer BatchNorm57
I0924 21:06:14.172112  2642 net.cpp:406] BatchNorm57 <- Convolution57
I0924 21:06:14.172117  2642 net.cpp:367] BatchNorm57 -> Convolution57 (in-place)
I0924 21:06:14.172256  2642 net.cpp:122] Setting up BatchNorm57
I0924 21:06:14.172261  2642 net.cpp:129] Top shape: 100 64 8 8 (409600)
I0924 21:06:14.172263  2642 net.cpp:137] Memory required for data: 1182516400
I0924 21:06:14.172267  2642 layer_factory.hpp:77] Creating layer Scale57
I0924 21:06:14.172271  2642 net.cpp:84] Creating Layer Scale57
I0924 21:06:14.172274  2642 net.cpp:406] Scale57 <- Convolution57
I0924 21:06:14.172277  2642 net.cpp:367] Scale57 -> Convolution57 (in-place)
I0924 21:06:14.172305  2642 layer_factory.hpp:77] Creating layer Scale57
I0924 21:06:14.172385  2642 net.cpp:122] Setting up Scale57
I0924 21:06:14.172390  2642 net.cpp:129] Top shape: 100 64 8 8 (409600)
I0924 21:06:14.172392  2642 net.cpp:137] Memory required for data: 1184154800
I0924 21:06:14.172396  2642 layer_factory.hpp:77] Creating layer Eltwise27
I0924 21:06:14.172399  2642 net.cpp:84] Creating Layer Eltwise27
I0924 21:06:14.172402  2642 net.cpp:406] Eltwise27 <- Eltwise26_ReLU53_0_split_1
I0924 21:06:14.172405  2642 net.cpp:406] Eltwise27 <- Convolution57
I0924 21:06:14.172410  2642 net.cpp:380] Eltwise27 -> Eltwise27
I0924 21:06:14.172426  2642 net.cpp:122] Setting up Eltwise27
I0924 21:06:14.172431  2642 net.cpp:129] Top shape: 100 64 8 8 (409600)
I0924 21:06:14.172433  2642 net.cpp:137] Memory required for data: 1185793200
I0924 21:06:14.172435  2642 layer_factory.hpp:77] Creating layer ReLU55
I0924 21:06:14.172439  2642 net.cpp:84] Creating Layer ReLU55
I0924 21:06:14.172441  2642 net.cpp:406] ReLU55 <- Eltwise27
I0924 21:06:14.172444  2642 net.cpp:367] ReLU55 -> Eltwise27 (in-place)
I0924 21:06:14.172927  2642 net.cpp:122] Setting up ReLU55
I0924 21:06:14.172936  2642 net.cpp:129] Top shape: 100 64 8 8 (409600)
I0924 21:06:14.172938  2642 net.cpp:137] Memory required for data: 1187431600
I0924 21:06:14.172941  2642 layer_factory.hpp:77] Creating layer Pooling1
I0924 21:06:14.172947  2642 net.cpp:84] Creating Layer Pooling1
I0924 21:06:14.172950  2642 net.cpp:406] Pooling1 <- Eltwise27
I0924 21:06:14.172955  2642 net.cpp:380] Pooling1 -> Pooling1
I0924 21:06:14.173122  2642 net.cpp:122] Setting up Pooling1
I0924 21:06:14.173130  2642 net.cpp:129] Top shape: 100 64 1 1 (6400)
I0924 21:06:14.173131  2642 net.cpp:137] Memory required for data: 1187457200
I0924 21:06:14.173133  2642 layer_factory.hpp:77] Creating layer InnerProduct1
I0924 21:06:14.173140  2642 net.cpp:84] Creating Layer InnerProduct1
I0924 21:06:14.173141  2642 net.cpp:406] InnerProduct1 <- Pooling1
I0924 21:06:14.173147  2642 net.cpp:380] InnerProduct1 -> InnerProduct1
I0924 21:06:14.173271  2642 net.cpp:122] Setting up InnerProduct1
I0924 21:06:14.173276  2642 net.cpp:129] Top shape: 100 10 (1000)
I0924 21:06:14.173279  2642 net.cpp:137] Memory required for data: 1187461200
I0924 21:06:14.173282  2642 layer_factory.hpp:77] Creating layer InnerProduct1_InnerProduct1_0_split
I0924 21:06:14.173288  2642 net.cpp:84] Creating Layer InnerProduct1_InnerProduct1_0_split
I0924 21:06:14.173290  2642 net.cpp:406] InnerProduct1_InnerProduct1_0_split <- InnerProduct1
I0924 21:06:14.173295  2642 net.cpp:380] InnerProduct1_InnerProduct1_0_split -> InnerProduct1_InnerProduct1_0_split_0
I0924 21:06:14.173300  2642 net.cpp:380] InnerProduct1_InnerProduct1_0_split -> InnerProduct1_InnerProduct1_0_split_1
I0924 21:06:14.173324  2642 net.cpp:122] Setting up InnerProduct1_InnerProduct1_0_split
I0924 21:06:14.173328  2642 net.cpp:129] Top shape: 100 10 (1000)
I0924 21:06:14.173331  2642 net.cpp:129] Top shape: 100 10 (1000)
I0924 21:06:14.173333  2642 net.cpp:137] Memory required for data: 1187469200
I0924 21:06:14.173336  2642 layer_factory.hpp:77] Creating layer SoftmaxWithLoss1
I0924 21:06:14.173339  2642 net.cpp:84] Creating Layer SoftmaxWithLoss1
I0924 21:06:14.173342  2642 net.cpp:406] SoftmaxWithLoss1 <- InnerProduct1_InnerProduct1_0_split_0
I0924 21:06:14.173346  2642 net.cpp:406] SoftmaxWithLoss1 <- Data2_Data1_1_split_0
…
