…
I0928 09:32:12.397989  4247 net.cpp:294] The NetState phase (0) differed from the phase (1) specified by a rule in layer Accuracy1
I0928 09:32:12.399047  4247 net.cpp:51] Initializing net from parameters: 
name: "resnet_cifar10"
state {
  phase: TRAIN
  level: 0
  stage: ""
}
layer {
  name: "Data1"
  type: "Data"
  top: "Data1"
  top: "Data2"
  include {
    phase: TRAIN
  }
  transform_param {
    mirror: true
    crop_size: 28
    mean_file: "/home/x306/caffe/xn/PENLU/data/cifar10/mean.binaryproto"
  }
  data_param {
    source: "/home/x306/caffe/xn/PENLU/data/cifar10/cifar10_train_lmdb"
    batch_size: 100
    backend: LMDB
  }
}
layer {
  name: "Convolution1"
  type: "Convolution"
  bottom: "Data1"
  top: "Convolution1"
  param {
    lr_mult: 1
    decay_mult: 1
  }
  param {
    lr_mult: 2
    decay_mult: 0
  }
  convolution_param {
    num_output: 16
    pad: 1
    kernel_size: 3
    stride: 1
    weight_filler {
      type: "gaussian"
      std: 0.118
    }
    bias_filler {
      type: "constant"
      value: 0
    }
  }
}
layer {
  name: "BatchNorm1"
  type: "BatchNorm"
  bottom: "Convolution1"
  top: "Convolution1"
  param {
    lr_mult: 0
    decay_mult: 0
  }
  param {
    lr_mult: 0
    decay_mult: 0
  }
  param {
    lr_mult: 0
    decay_mult: 0
  }
}
layer {
  name: "Scale1"
  type: "Scale"
  bottom: "Convolution1"
  top: "Convolution1"
  scale_param {
    bias_term: true
  }
}
layer {
  name: "M2PELU1"
  type: "M2PELU"
  bottom: "Convolution1"
  top: "Convolution1"
  param {
    lr_mult: 2
    decay_mult: 0
  }
  param {
    lr_mult: 2
    decay_mult: 0
  }
  m2pelu_param {
    alpha_filler {
      type: "constant"
      value: 1
    }
    beta_filler {
      type: "constant"
      value: 1
    }
  }
}
layer {
  name: "Convolution2"
  type: "Convolution"
  bottom: "Convolution1"
  top: "Convolution2"
  param {
    lr_mult: 1
    decay_mult: 1
  }
  param {
    lr_mult: 2
    decay_mult: 0
  }
  convolution_param {
    num_output: 16
    pad: 1
    kernel_size: 3
    stride: 1
    weight_filler {
      type: "gaussian"
      std: 0.118
    }
    bias_filler {
      type: "constant"
      value: 0
    }
  }
}
layer {
  name: "BatchNorm2"
  type: "BatchNorm"
  bottom: "Convolution2"
  top: "Convolution2"
  param {
    lr_mult: 0
    decay_mult: 0
  }
  param {
    lr_mult: 0
    decay_mult: 0
  }
  param {
    lr_mult: 0
    decay_mult: 0
  }
}
layer {
  name: "Scale2"
  type: "Scale"
  bottom: "Convolution2"
  top: "Convolution2"
  scale_param {
    bias_term: true
  }
}
layer {
  name: "M2PELU2"
  type: "M2PELU"
  bottom: "Convolution2"
  top: "Convolution2"
  param {
    lr_mult: 2
    decay_mult: 0
  }
  param {
    lr_mult: 2
    decay_mult: 0
  }
  m2pelu_param {
    alpha_filler {
      type: "constant"
      value: 1
    }
    beta_filler {
      type: "constant"
      value: 1
    }
  }
}
layer {
  name: "Convolution3"
  type: "Convolution"
  bottom: "Convolution2"
  top: "Convolution3"
  param {
    lr_mult: 1
    decay_mult: 1
  }
  param {
    lr_mult: 2
    decay_mult: 0
  }
  convolution_param {
    num_output: 16
    pad: 1
    kernel_size: 3
    stride: 1
    weight_filler {
      type: "gaussian"
      std: 0.118
    }
    bias_filler {
      type: "constant"
      value: 0
    }
  }
}
layer {
  name: "BatchNorm3"
  type: "BatchNorm"
  bottom: "Convolution3"
  top: "Convolution3"
  param {
    lr_mult: 0
    decay_mult: 0
  }
  param {
    lr_mult: 0
    decay_mult: 0
  }
  param {
    lr_mult: 0
    decay_mult: 0
  }
}
layer {
  name: "Scale3"
  type: "Scale"
  bottom: "Convolution3"
  top: "Convolution3"
  scale_param {
    bias_term: true
  }
}
layer {
  name: "Eltwise1"
  type: "Eltwise"
  bottom: "Convolution1"
  bottom: "Convolution3"
  top: "Eltwise1"
  eltwise_param {
    operation: SUM
  }
}
layer {
  name: "M2PELU3"
  type: "M2PELU"
  bottom: "Eltwise1"
  top: "Eltwise1"
  param {
    lr_mult: 2
    decay_mult: 0
  }
  param {
    lr_mult: 2
    decay_mult: 0
  }
  m2pelu_param {
    alpha_filler {
      type: "constant"
      value: 1
    }
    beta_filler {
      type: "constant"
      value: 1
    }
  }
}
layer {
  name: "Convolution4"
  type: "Convolution"
  bottom: "Eltwise1"
  top: "Convolution4"
  param {
    lr_mult: 1
    decay_mult: 1
  }
  param {
    lr_mult: 2
    decay_mult: 0
  }
  convolution_param {
    num_output: 16
    pad: 1
    kernel_size: 3
    stride: 1
    weight_filler {
      type: "gaussian"
      std: 0.118
    }
    bias_filler {
      type: "constant"
      value: 0
    }
  }
}
layer {
  name: "BatchNorm4"
  type: "BatchNorm"
  bottom: "Convolution4"
  top: "Convolution4"
  param {
    lr_mult: 0
    decay_mult: 0
  }
  param {
    lr_mult: 0
    decay_mult: 0
  }
  param {
    lr_mult: 0
    decay_mult: 0
  }
}
layer {
  name: "Scale4"
  type: "Scale"
  bottom: "Convolution4"
  top: "Convolution4"
  scale_param {
    bias_term: true
  }
}
layer {
  name: "M2PELU4"
  type: "M2PELU"
  bottom: "Convolution4"
  top: "Convolution4"
  param {
    lr_mult: 2
    decay_mult: 0
  }
  param {
    lr_mult: 2
    decay_mult: 0
  }
  m2pelu_param {
    alpha_filler {
      type: "constant"
      value: 1
    }
    beta_filler {
      type: "constant"
      value: 1
    }
  }
}
layer {
  name: "Convolution5"
  type: "Convolution"
  bottom: "Convolution4"
  top: "Convolution5"
  param {
    lr_mult: 1
    decay_mult: 1
  }
  param {
    lr_mult: 2
    decay_mult: 0
  }
  convolution_param {
    num_output: 16
    pad: 1
    kernel_size: 3
    stride: 1
    weight_filler {
      type: "gaussian"
      std: 0.118
    }
    bias_filler {
      type: "constant"
      value: 0
    }
  }
}
layer {
  name: "BatchNorm5"
  type: "BatchNorm"
  bottom: "Convolution5"
  top: "Convolution5"
  param {
    lr_mult: 0
    decay_mult: 0
  }
  param {
    lr_mult: 0
    decay_mult: 0
  }
  param {
    lr_mult: 0
    decay_mult: 0
  }
}
layer {
  name: "Scale5"
  type: "Scale"
  bottom: "Convolution5"
  top: "Convolution5"
  scale_param {
    bias_term: true
  }
}
layer {
  name: "Eltwise2"
  type: "Eltwise"
  bottom: "Eltwise1"
  bottom: "Convolution5"
  top: "Eltwise2"
  eltwise_param {
    operation: SUM
  }
}
layer {
  name: "M2PELU5"
  type: "M2PELU"
  bottom: "Eltwise2"
  top: "Eltwise2"
  param {
    lr_mult: 2
    decay_mult: 0
  }
  param {
    lr_mult: 2
    decay_mult: 0
  }
  m2pelu_param {
    alpha_filler {
      type: "constant"
      value: 1
    }
    beta_filler {
      type: "constant"
      value: 1
    }
  }
}
layer {
  name: "Convolution6"
  type: "Convolution"
  bottom: "Eltwise2"
  top: "Convolution6"
  param {
    lr_mult: 1
    decay_mult: 1
  }
  param {
    lr_mult: 2
    decay_mult: 0
  }
  convolution_param {
    num_output: 16
    pad: 1
    kernel_size: 3
    stride: 1
    weight_filler {
      type: "gaussian"
      std: 0.118
    }
    bias_filler {
      type: "constant"
      value: 0
    }
  }
}
layer {
  name: "BatchNorm6"
  type: "BatchNorm"
  bottom: "Convolution6"
  top: "Convolution6"
  param {
    lr_mult: 0
    decay_mult: 0
  }
  param {
    lr_mult: 0
    decay_mult: 0
  }
  param {
    lr_mult: 0
    decay_mult: 0
  }
}
layer {
  name: "Scale6"
  type: "Scale"
  bottom: "Convolution6"
  top: "Convolution6"
  scale_param {
    bias_term: true
  }
}
layer {
  name: "M2PELU6"
  type: "M2PELU"
  bottom: "Convolution6"
  top: "Convolution6"
  param {
    lr_mult: 2
    decay_mult: 0
  }
  param {
    lr_mult: 2
    decay_mult: 0
  }
  m2pelu_param {
    alpha_filler {
      type: "constant"
      value: 1
    }
    beta_filler {
      type: "constant"
      value: 1
    }
  }
}
layer {
  name: "Convolution7"
  type: "Convolution"
  bottom: "Convolution6"
  top: "Convolution7"
  param {
    lr_mult: 1
    decay_mult: 1
  }
  param {
    lr_mult: 2
    decay_mult: 0
  }
  convolution_param {
    num_output: 16
    pad: 1
    kernel_size: 3
    stride: 1
    weight_filler {
      type: "gaussian"
      std: 0.118
    }
    bias_filler {
      type: "constant"
      value: 0
    }
  }
}
layer {
  name: "BatchNorm7"
  type: "BatchNorm"
  bottom: "Convolution7"
  top: "Convolution7"
  param {
    lr_mult: 0
    decay_mult: 0
  }
  param {
    lr_mult: 0
    decay_mult: 0
  }
  param {
    lr_mult: 0
    decay_mult: 0
  }
}
layer {
  name: "Scale7"
  type: "Scale"
  bottom: "Convolution7"
  top: "Convolution7"
  scale_param {
    bias_term: true
  }
}
layer {
  name: "Eltwise3"
  type: "Eltwise"
  bottom: "Eltwise2"
  bottom: "Convolution7"
  top: "Eltwise3"
  eltwise_param {
    operation: SUM
  }
}
layer {
  name: "M2PELU7"
  type: "M2PELU"
  bottom: "Eltwise3"
  top: "Eltwise3"
  param {
    lr_mult: 2
    decay_mult: 0
  }
  param {
    lr_mult: 2
    decay_mult: 0
  }
  m2pelu_param {
    alpha_filler {
      type: "constant"
      value: 1
    }
    beta_filler {
      type: "constant"
      value: 1
    }
  }
}
layer {
  name: "Convolution8"
  type: "Convolution"
  bottom: "Eltwise3"
  top: "Convolution8"
  param {
    lr_mult: 1
    decay_mult: 1
  }
  param {
    lr_mult: 2
    decay_mult: 0
  }
  convolution_param {
    num_output: 16
    pad: 1
    kernel_size: 3
    stride: 1
    weight_filler {
      type: "gaussian"
      std: 0.118
    }
    bias_filler {
      type: "constant"
      value: 0
    }
  }
}
layer {
  name: "BatchNorm8"
  type: "BatchNorm"
  bottom: "Convolution8"
  top: "Convolution8"
  param {
    lr_mult: 0
    decay_mult: 0
  }
  param {
    lr_mult: 0
    decay_mult: 0
  }
  param {
    lr_mult: 0
    decay_mult: 0
  }
}
layer {
  name: "Scale8"
  type: "Scale"
  bottom: "Convolution8"
  top: "Convolution8"
  scale_param {
    bias_term: true
  }
}
layer {
  name: "M2PELU8"
  type: "M2PELU"
  bottom: "Convolution8"
  top: "Convolution8"
  param {
    lr_mult: 2
    decay_mult: 0
  }
  param {
    lr_mult: 2
    decay_mult: 0
  }
  m2pelu_param {
    alpha_filler {
      type: "constant"
      value: 1
    }
    beta_filler {
      type: "constant"
      value: 1
    }
  }
}
layer {
  name: "Convolution9"
  type: "Convolution"
  bottom: "Convolution8"
  top: "Convolution9"
  param {
    lr_mult: 1
    decay_mult: 1
  }
  param {
    lr_mult: 2
    decay_mult: 0
  }
  convolution_param {
    num_output: 16
    pad: 1
    kernel_size: 3
    stride: 1
    weight_filler {
      type: "gaussian"
      std: 0.118
    }
    bias_filler {
      type: "constant"
      value: 0
    }
  }
}
layer {
  name: "BatchNorm9"
  type: "BatchNorm"
  bottom: "Convolution9"
  top: "Convolution9"
  param {
    lr_mult: 0
    decay_mult: 0
  }
  param {
    lr_mult: 0
    decay_mult: 0
  }
  param {
    lr_mult: 0
    decay_mult: 0
  }
}
layer {
  name: "Scale9"
  type: "Scale"
  bottom: "Convolution9"
  top: "Convolution9"
  scale_param {
    bias_term: true
  }
}
layer {
  name: "Eltwise4"
  type: "Eltwise"
  bottom: "Eltwise3"
  bottom: "Convolution9"
  top: "Eltwise4"
  eltwise_param {
    operation: SUM
  }
}
layer {
  name: "M2PELU9"
  type: "M2PELU"
  bottom: "Eltwise4"
  top: "Eltwise4"
  param {
    lr_mult: 2
    decay_mult: 0
  }
  param {
    lr_mult: 2
    decay_mult: 0
  }
  m2pelu_param {
    alpha_filler {
      type: "constant"
      value: 1
    }
    beta_filler {
      type: "constant"
      value: 1
    }
  }
}
layer {
  name: "Convolution10"
  type: "Convolution"
  bottom: "Eltwise4"
  top: "Convolution10"
  param {
    lr_mult: 1
    decay_mult: 1
  }
  param {
    lr_mult: 2
    decay_mult: 0
  }
  convolution_param {
    num_output: 16
    pad: 1
    kernel_size: 3
    stride: 1
    weight_filler {
      type: "gaussian"
      std: 0.118
    }
    bias_filler {
      type: "constant"
      value: 0
    }
  }
}
layer {
  name: "BatchNorm10"
  type: "BatchNorm"
  bottom: "Convolution10"
  top: "Convolution10"
  param {
    lr_mult: 0
    decay_mult: 0
  }
  param {
    lr_mult: 0
    decay_mult: 0
  }
  param {
    lr_mult: 0
    decay_mult: 0
  }
}
layer {
  name: "Scale10"
  type: "Scale"
  bottom: "Convolution10"
  top: "Convolution10"
  scale_param {
    bias_term: true
  }
}
layer {
  name: "M2PELU10"
  type: "M2PELU"
  bottom: "Convolution10"
  top: "Convolution10"
  param {
    lr_mult: 2
    decay_mult: 0
  }
  param {
    lr_mult: 2
    decay_mult: 0
  }
  m2pelu_param {
    alpha_filler {
      type: "constant"
      value: 1
    }
    beta_filler {
      type: "constant"
      value: 1
    }
  }
}
layer {
  name: "Convolution11"
  type: "Convolution"
  bottom: "Convolution10"
  top: "Convolution11"
  param {
    lr_mult: 1
    decay_mult: 1
  }
  param {
    lr_mult: 2
    decay_mult: 0
  }
  convolution_param {
    num_output: 16
    pad: 1
    kernel_size: 3
    stride: 1
    weight_filler {
      type: "gaussian"
      std: 0.118
    }
    bias_filler {
      type: "constant"
      value: 0
    }
  }
}
layer {
  name: "BatchNorm11"
  type: "BatchNorm"
  bottom: "Convolution11"
  top: "Convolution11"
  param {
    lr_mult: 0
    decay_mult: 0
  }
  param {
    lr_mult: 0
    decay_mult: 0
  }
  param {
    lr_mult: 0
    decay_mult: 0
  }
}
layer {
  name: "Scale11"
  type: "Scale"
  bottom: "Convolution11"
  top: "Convolution11"
  scale_param {
    bias_term: true
  }
}
layer {
  name: "Eltwise5"
  type: "Eltwise"
  bottom: "Eltwise4"
  bottom: "Convolution11"
  top: "Eltwise5"
  eltwise_param {
    operation: SUM
  }
}
layer {
  name: "M2PELU11"
  type: "M2PELU"
  bottom: "Eltwise5"
  top: "Eltwise5"
  param {
    lr_mult: 2
    decay_mult: 0
  }
  param {
    lr_mult: 2
    decay_mult: 0
  }
  m2pelu_param {
    alpha_filler {
      type: "constant"
      value: 1
    }
    beta_filler {
      type: "constant"
      value: 1
    }
  }
}
layer {
  name: "Convolution12"
  type: "Convolution"
  bottom: "Eltwise5"
  top: "Convolution12"
  param {
    lr_mult: 1
    decay_mult: 1
  }
  param {
    lr_mult: 2
    decay_mult: 0
  }
  convolution_param {
    num_output: 16
    pad: 1
    kernel_size: 3
    stride: 1
    weight_filler {
      type: "gaussian"
      std: 0.118
    }
    bias_filler {
      type: "constant"
      value: 0
    }
  }
}
layer {
  name: "BatchNorm12"
  type: "BatchNorm"
  bottom: "Convolution12"
  top: "Convolution12"
  param {
    lr_mult: 0
    decay_mult: 0
  }
  param {
    lr_mult: 0
    decay_mult: 0
  }
  param {
    lr_mult: 0
    decay_mult: 0
  }
}
layer {
  name: "Scale12"
  type: "Scale"
  bottom: "Convolution12"
  top: "Convolution12"
  scale_param {
    bias_term: true
  }
}
layer {
  name: "M2PELU12"
  type: "M2PELU"
  bottom: "Convolution12"
  top: "Convolution12"
  param {
    lr_mult: 2
    decay_mult: 0
  }
  param {
    lr_mult: 2
    decay_mult: 0
  }
  m2pelu_param {
    alpha_filler {
      type: "constant"
      value: 1
    }
    beta_filler {
      type: "constant"
      value: 1
    }
  }
}
layer {
  name: "Convolution13"
  type: "Convolution"
  bottom: "Convolution12"
  top: "Convolution13"
  param {
    lr_mult: 1
    decay_mult: 1
  }
  param {
    lr_mult: 2
    decay_mult: 0
  }
  convolution_param {
    num_output: 16
    pad: 1
    kernel_size: 3
    stride: 1
    weight_filler {
      type: "gaussian"
      std: 0.118
    }
    bias_filler {
      type: "constant"
      value: 0
    }
  }
}
layer {
  name: "BatchNorm13"
  type: "BatchNorm"
  bottom: "Convolution13"
  top: "Convolution13"
  param {
    lr_mult: 0
    decay_mult: 0
  }
  param {
    lr_mult: 0
    decay_mult: 0
  }
  param {
    lr_mult: 0
    decay_mult: 0
  }
}
layer {
  name: "Scale13"
  type: "Scale"
  bottom: "Convolution13"
  top: "Convolution13"
  scale_param {
    bias_term: true
  }
}
layer {
  name: "Eltwise6"
  type: "Eltwise"
  bottom: "Eltwise5"
  bottom: "Convolution13"
  top: "Eltwise6"
  eltwise_param {
    operation: SUM
  }
}
layer {
  name: "M2PELU13"
  type: "M2PELU"
  bottom: "Eltwise6"
  top: "Eltwise6"
  param {
    lr_mult: 2
    decay_mult: 0
  }
  param {
    lr_mult: 2
    decay_mult: 0
  }
  m2pelu_param {
    alpha_filler {
      type: "constant"
      value: 1
    }
    beta_filler {
      type: "constant"
      value: 1
    }
  }
}
layer {
  name: "Convolution14"
  type: "Convolution"
  bottom: "Eltwise6"
  top: "Convolution14"
  param {
    lr_mult: 1
    decay_mult: 1
  }
  param {
    lr_mult: 2
    decay_mult: 0
  }
  convolution_param {
    num_output: 16
    pad: 1
    kernel_size: 3
    stride: 1
    weight_filler {
      type: "gaussian"
      std: 0.118
    }
    bias_filler {
      type: "constant"
      value: 0
    }
  }
}
layer {
  name: "BatchNorm14"
  type: "BatchNorm"
  bottom: "Convolution14"
  top: "Convolution14"
  param {
    lr_mult: 0
    decay_mult: 0
  }
  param {
    lr_mult: 0
    decay_mult: 0
  }
  param {
    lr_mult: 0
    decay_mult: 0
  }
}
layer {
  name: "Scale14"
  type: "Scale"
  bottom: "Convolution14"
  top: "Convolution14"
  scale_param {
    bias_term: true
  }
}
layer {
  name: "M2PELU14"
  type: "M2PELU"
  bottom: "Convolution14"
  top: "Convolution14"
  param {
    lr_mult: 2
    decay_mult: 0
  }
  param {
    lr_mult: 2
    decay_mult: 0
  }
  m2pelu_param {
    alpha_filler {
      type: "constant"
      value: 1
    }
    beta_filler {
      type: "constant"
      value: 1
    }
  }
}
layer {
  name: "Convolution15"
  type: "Convolution"
  bottom: "Convolution14"
  top: "Convolution15"
  param {
    lr_mult: 1
    decay_mult: 1
  }
  param {
    lr_mult: 2
    decay_mult: 0
  }
  convolution_param {
    num_output: 16
    pad: 1
    kernel_size: 3
    stride: 1
    weight_filler {
      type: "gaussian"
      std: 0.118
    }
    bias_filler {
      type: "constant"
      value: 0
    }
  }
}
layer {
  name: "BatchNorm15"
  type: "BatchNorm"
  bottom: "Convolution15"
  top: "Convolution15"
  param {
    lr_mult: 0
    decay_mult: 0
  }
  param {
    lr_mult: 0
    decay_mult: 0
  }
  param {
    lr_mult: 0
    decay_mult: 0
  }
}
layer {
  name: "Scale15"
  type: "Scale"
  bottom: "Convolution15"
  top: "Convolution15"
  scale_param {
    bias_term: true
  }
}
layer {
  name: "Eltwise7"
  type: "Eltwise"
  bottom: "Eltwise6"
  bottom: "Convolution15"
  top: "Eltwise7"
  eltwise_param {
    operation: SUM
  }
}
layer {
  name: "M2PELU15"
  type: "M2PELU"
  bottom: "Eltwise7"
  top: "Eltwise7"
  param {
    lr_mult: 2
    decay_mult: 0
  }
  param {
    lr_mult: 2
    decay_mult: 0
  }
  m2pelu_param {
    alpha_filler {
      type: "constant"
      value: 1
    }
    beta_filler {
      type: "constant"
      value: 1
    }
  }
}
layer {
  name: "Convolution16"
  type: "Convolution"
  bottom: "Eltwise7"
  top: "Convolution16"
  param {
    lr_mult: 1
    decay_mult: 1
  }
  param {
    lr_mult: 2
    decay_mult: 0
  }
  convolution_param {
    num_output: 16
    pad: 1
    kernel_size: 3
    stride: 1
    weight_filler {
      type: "gaussian"
      std: 0.118
    }
    bias_filler {
      type: "constant"
      value: 0
    }
  }
}
layer {
  name: "BatchNorm16"
  type: "BatchNorm"
  bottom: "Convolution16"
  top: "Convolution16"
  param {
    lr_mult: 0
    decay_mult: 0
  }
  param {
    lr_mult: 0
    decay_mult: 0
  }
  param {
    lr_mult: 0
    decay_mult: 0
  }
}
layer {
  name: "Scale16"
  type: "Scale"
  bottom: "Convolution16"
  top: "Convolution16"
  scale_param {
    bias_term: true
  }
}
layer {
  name: "M2PELU16"
  type: "M2PELU"
  bottom: "Convolution16"
  top: "Convolution16"
  param {
    lr_mult: 2
    decay_mult: 0
  }
  param {
    lr_mult: 2
    decay_mult: 0
  }
  m2pelu_param {
    alpha_filler {
      type: "constant"
      value: 1
    }
    beta_filler {
      type: "constant"
      value: 1
    }
  }
}
layer {
  name: "Convolution17"
  type: "Convolution"
  bottom: "Convolution16"
  top: "Convolution17"
  param {
    lr_mult: 1
    decay_mult: 1
  }
  param {
    lr_mult: 2
    decay_mult: 0
  }
  convolution_param {
    num_output: 16
    pad: 1
    kernel_size: 3
    stride: 1
    weight_filler {
      type: "gaussian"
      std: 0.118
    }
    bias_filler {
      type: "constant"
      value: 0
    }
  }
}
layer {
  name: "BatchNorm17"
  type: "BatchNorm"
  bottom: "Convolution17"
  top: "Convolution17"
  param {
    lr_mult: 0
    decay_mult: 0
  }
  param {
    lr_mult: 0
    decay_mult: 0
  }
  param {
    lr_mult: 0
    decay_mult: 0
  }
}
layer {
  name: "Scale17"
  type: "Scale"
  bottom: "Convolution17"
  top: "Convolution17"
  scale_param {
    bias_term: true
  }
}
layer {
  name: "Eltwise8"
  type: "Eltwise"
  bottom: "Eltwise7"
  bottom: "Convolution17"
  top: "Eltwise8"
  eltwise_param {
    operation: SUM
  }
}
layer {
  name: "M2PELU17"
  type: "M2PELU"
  bottom: "Eltwise8"
  top: "Eltwise8"
  param {
    lr_mult: 2
    decay_mult: 0
  }
  param {
    lr_mult: 2
    decay_mult: 0
  }
  m2pelu_param {
    alpha_filler {
      type: "constant"
      value: 1
    }
    beta_filler {
      type: "constant"
      value: 1
    }
  }
}
layer {
  name: "Convolution18"
  type: "Convolution"
  bottom: "Eltwise8"
  top: "Convolution18"
  param {
    lr_mult: 1
    decay_mult: 1
  }
  param {
    lr_mult: 2
    decay_mult: 0
  }
  convolution_param {
    num_output: 16
    pad: 1
    kernel_size: 3
    stride: 1
    weight_filler {
      type: "gaussian"
      std: 0.118
    }
    bias_filler {
      type: "constant"
      value: 0
    }
  }
}
layer {
  name: "BatchNorm18"
  type: "BatchNorm"
  bottom: "Convolution18"
  top: "Convolution18"
  param {
    lr_mult: 0
    decay_mult: 0
  }
  param {
    lr_mult: 0
    decay_mult: 0
  }
  param {
    lr_mult: 0
    decay_mult: 0
  }
}
layer {
  name: "Scale18"
  type: "Scale"
  bottom: "Convolution18"
  top: "Convolution18"
  scale_param {
    bias_term: true
  }
}
layer {
  name: "M2PELU18"
  type: "M2PELU"
  bottom: "Convolution18"
  top: "Convolution18"
  param {
    lr_mult: 2
    decay_mult: 0
  }
  param {
    lr_mult: 2
    decay_mult: 0
  }
  m2pelu_param {
    alpha_filler {
      type: "constant"
      value: 1
    }
    beta_filler {
      type: "constant"
      value: 1
    }
  }
}
layer {
  name: "Convolution19"
  type: "Convolution"
  bottom: "Convolution18"
  top: "Convolution19"
  param {
    lr_mult: 1
    decay_mult: 1
  }
  param {
    lr_mult: 2
    decay_mult: 0
  }
  convolution_param {
    num_output: 16
    pad: 1
    kernel_size: 3
    stride: 1
    weight_filler {
      type: "gaussian"
      std: 0.118
    }
    bias_filler {
      type: "constant"
      value: 0
    }
  }
}
layer {
  name: "BatchNorm19"
  type: "BatchNorm"
  bottom: "Convolution19"
  top: "Convolution19"
  param {
    lr_mult: 0
    decay_mult: 0
  }
  param {
    lr_mult: 0
    decay_mult: 0
  }
  param {
    lr_mult: 0
    decay_mult: 0
  }
}
layer {
  name: "Scale19"
  type: "Scale"
  bottom: "Convolution19"
  top: "Convolution19"
  scale_param {
    bias_term: true
  }
}
layer {
  name: "Eltwise9"
  type: "Eltwise"
  bottom: "Eltwise8"
  bottom: "Convolution19"
  top: "Eltwise9"
  eltwise_param {
    operation: SUM
  }
}
layer {
  name: "M2PELU19"
  type: "M2PELU"
  bottom: "Eltwise9"
  top: "Eltwise9"
  param {
    lr_mult: 2
    decay_mult: 0
  }
  param {
    lr_mult: 2
    decay_mult: 0
  }
  m2pelu_param {
    alpha_filler {
      type: "constant"
      value: 1
    }
    beta_filler {
      type: "constant"
      value: 1
    }
  }
}
layer {
  name: "Convolution20"
  type: "Convolution"
  bottom: "Eltwise9"
  top: "Convolution20"
  param {
    lr_mult: 1
    decay_mult: 1
  }
  param {
    lr_mult: 2
    decay_mult: 0
  }
  convolution_param {
    num_output: 32
    pad: 0
    kernel_size: 1
    stride: 2
    weight_filler {
      type: "gaussian"
      std: 0.25
    }
    bias_filler {
      type: "constant"
      value: 0
    }
  }
}
layer {
  name: "BatchNorm20"
  type: "BatchNorm"
  bottom: "Convolution20"
  top: "Convolution20"
  param {
    lr_mult: 0
    decay_mult: 0
  }
  param {
    lr_mult: 0
    decay_mult: 0
  }
  param {
    lr_mult: 0
    decay_mult: 0
  }
}
layer {
  name: "Scale20"
  type: "Scale"
  bottom: "Convolution20"
  top: "Convolution20"
  scale_param {
    bias_term: true
  }
}
layer {
  name: "Convolution21"
  type: "Convolution"
  bottom: "Eltwise9"
  top: "Convolution21"
  param {
    lr_mult: 1
    decay_mult: 1
  }
  param {
    lr_mult: 2
    decay_mult: 0
  }
  convolution_param {
    num_output: 32
    pad: 1
    kernel_size: 3
    stride: 2
    weight_filler {
      type: "gaussian"
      std: 0.083
    }
    bias_filler {
      type: "constant"
      value: 0
    }
  }
}
layer {
  name: "BatchNorm21"
  type: "BatchNorm"
  bottom: "Convolution21"
  top: "Convolution21"
  param {
    lr_mult: 0
    decay_mult: 0
  }
  param {
    lr_mult: 0
    decay_mult: 0
  }
  param {
    lr_mult: 0
    decay_mult: 0
  }
}
layer {
  name: "Scale21"
  type: "Scale"
  bottom: "Convolution21"
  top: "Convolution21"
  scale_param {
    bias_term: true
  }
}
layer {
  name: "M2PELU20"
  type: "M2PELU"
  bottom: "Convolution21"
  top: "Convolution21"
  param {
    lr_mult: 2
    decay_mult: 0
  }
  param {
    lr_mult: 2
    decay_mult: 0
  }
  m2pelu_param {
    alpha_filler {
      type: "constant"
      value: 1
    }
    beta_filler {
      type: "constant"
      value: 1
    }
  }
}
layer {
  name: "Convolution22"
  type: "Convolution"
  bottom: "Convolution21"
  top: "Convolution22"
  param {
    lr_mult: 1
    decay_mult: 1
  }
  param {
    lr_mult: 2
    decay_mult: 0
  }
  convolution_param {
    num_output: 32
    pad: 1
    kernel_size: 3
    stride: 1
    weight_filler {
      type: "gaussian"
      std: 0.083
    }
    bias_filler {
      type: "constant"
      value: 0
    }
  }
}
layer {
  name: "BatchNorm22"
  type: "BatchNorm"
  bottom: "Convolution22"
  top: "Convolution22"
  param {
    lr_mult: 0
    decay_mult: 0
  }
  param {
    lr_mult: 0
    decay_mult: 0
  }
  param {
    lr_mult: 0
    decay_mult: 0
  }
}
layer {
  name: "Scale22"
  type: "Scale"
  bottom: "Convolution22"
  top: "Convolution22"
  scale_param {
    bias_term: true
  }
}
layer {
  name: "Eltwise10"
  type: "Eltwise"
  bottom: "Convolution20"
  bottom: "Convolution22"
  top: "Eltwise10"
  eltwise_param {
    operation: SUM
  }
}
layer {
  name: "M2PELU21"
  type: "M2PELU"
  bottom: "Eltwise10"
  top: "Eltwise10"
  param {
    lr_mult: 2
    decay_mult: 0
  }
  param {
    lr_mult: 2
    decay_mult: 0
  }
  m2pelu_param {
    alpha_filler {
      type: "constant"
      value: 1
    }
    beta_filler {
      type: "constant"
      value: 1
    }
  }
}
layer {
  name: "Convolution23"
  type: "Convolution"
  bottom: "Eltwise10"
  top: "Convolution23"
  param {
    lr_mult: 1
    decay_mult: 1
  }
  param {
    lr_mult: 2
    decay_mult: 0
  }
  convolution_param {
    num_output: 32
    pad: 1
    kernel_size: 3
    stride: 1
    weight_filler {
      type: "gaussian"
      std: 0.083
    }
    bias_filler {
      type: "constant"
      value: 0
    }
  }
}
layer {
  name: "BatchNorm23"
  type: "BatchNorm"
  bottom: "Convolution23"
  top: "Convolution23"
  param {
    lr_mult: 0
    decay_mult: 0
  }
  param {
    lr_mult: 0
    decay_mult: 0
  }
  param {
    lr_mult: 0
    decay_mult: 0
  }
}
layer {
  name: "Scale23"
  type: "Scale"
  bottom: "Convolution23"
  top: "Convolution23"
  scale_param {
    bias_term: true
  }
}
layer {
  name: "M2PELU22"
  type: "M2PELU"
  bottom: "Convolution23"
  top: "Convolution23"
  param {
    lr_mult: 2
    decay_mult: 0
  }
  param {
    lr_mult: 2
    decay_mult: 0
  }
  m2pelu_param {
    alpha_filler {
      type: "constant"
      value: 1
    }
    beta_filler {
      type: "constant"
      value: 1
    }
  }
}
layer {
  name: "Convolution24"
  type: "Convolution"
  bottom: "Convolution23"
  top: "Convolution24"
  param {
    lr_mult: 1
    decay_mult: 1
  }
  param {
    lr_mult: 2
    decay_mult: 0
  }
  convolution_param {
    num_output: 32
    pad: 1
    kernel_size: 3
    stride: 1
    weight_filler {
      type: "gaussian"
      std: 0.083
    }
    bias_filler {
      type: "constant"
      value: 0
    }
  }
}
layer {
  name: "BatchNorm24"
  type: "BatchNorm"
  bottom: "Convolution24"
  top: "Convolution24"
  param {
    lr_mult: 0
    decay_mult: 0
  }
  param {
    lr_mult: 0
    decay_mult: 0
  }
  param {
    lr_mult: 0
    decay_mult: 0
  }
}
layer {
  name: "Scale24"
  type: "Scale"
  bottom: "Convolution24"
  top: "Convolution24"
  scale_param {
    bias_term: true
  }
}
layer {
  name: "Eltwise11"
  type: "Eltwise"
  bottom: "Eltwise10"
  bottom: "Convolution24"
  top: "Eltwise11"
  eltwise_param {
    operation: SUM
  }
}
layer {
  name: "M2PELU23"
  type: "M2PELU"
  bottom: "Eltwise11"
  top: "Eltwise11"
  param {
    lr_mult: 2
    decay_mult: 0
  }
  param {
    lr_mult: 2
    decay_mult: 0
  }
  m2pelu_param {
    alpha_filler {
      type: "constant"
      value: 1
    }
    beta_filler {
      type: "constant"
      value: 1
    }
  }
}
layer {
  name: "Convolution25"
  type: "Convolution"
  bottom: "Eltwise11"
  top: "Convolution25"
  param {
    lr_mult: 1
    decay_mult: 1
  }
  param {
    lr_mult: 2
    decay_mult: 0
  }
  convolution_param {
    num_output: 32
    pad: 1
    kernel_size: 3
    stride: 1
    weight_filler {
      type: "gaussian"
      std: 0.083
    }
    bias_filler {
      type: "constant"
      value: 0
    }
  }
}
layer {
  name: "BatchNorm25"
  type: "BatchNorm"
  bottom: "Convolution25"
  top: "Convolution25"
  param {
    lr_mult: 0
    decay_mult: 0
  }
  param {
    lr_mult: 0
    decay_mult: 0
  }
  param {
    lr_mult: 0
    decay_mult: 0
  }
}
layer {
  name: "Scale25"
  type: "Scale"
  bottom: "Convolution25"
  top: "Convolution25"
  scale_param {
    bias_term: true
  }
}
layer {
  name: "M2PELU24"
  type: "M2PELU"
  bottom: "Convolution25"
  top: "Convolution25"
  param {
    lr_mult: 2
    decay_mult: 0
  }
  param {
    lr_mult: 2
    decay_mult: 0
  }
  m2pelu_param {
    alpha_filler {
      type: "constant"
      value: 1
    }
    beta_filler {
      type: "constant"
      value: 1
    }
  }
}
layer {
  name: "Convolution26"
  type: "Convolution"
  bottom: "Convolution25"
  top: "Convolution26"
  param {
    lr_mult: 1
    decay_mult: 1
  }
  param {
    lr_mult: 2
    decay_mult: 0
  }
  convolution_param {
    num_output: 32
    pad: 1
I0928 09:32:12.399811  4247 layer_factory.hpp:77] Creating layer Data1
I0928 09:32:12.399888  4247 db_lmdb.cpp:35] Opened lmdb /home/x306/caffe/xn/PENLU/data/cifar10/cifar10_train_lmdb
I0928 09:32:12.399906  4247 net.cpp:84] Creating Layer Data1
I0928 09:32:12.399912  4247 net.cpp:380] Data1 -> Data1
I0928 09:32:12.399927  4247 net.cpp:380] Data1 -> Data2
I0928 09:32:12.399935  4247 data_transformer.cpp:25] Loading mean file from: /home/x306/caffe/xn/PENLU/data/cifar10/mean.binaryproto
I0928 09:32:12.401321  4247 data_layer.cpp:45] output data size: 100,3,28,28
I0928 09:32:12.403609  4247 net.cpp:122] Setting up Data1
I0928 09:32:12.403631  4247 net.cpp:129] Top shape: 100 3 28 28 (235200)
I0928 09:32:12.403635  4247 net.cpp:129] Top shape: 100 (100)
I0928 09:32:12.403638  4247 net.cpp:137] Memory required for data: 941200
I0928 09:32:12.403645  4247 layer_factory.hpp:77] Creating layer Convolution1
I0928 09:32:12.403662  4247 net.cpp:84] Creating Layer Convolution1
I0928 09:32:12.403666  4247 net.cpp:406] Convolution1 <- Data1
I0928 09:32:12.403676  4247 net.cpp:380] Convolution1 -> Convolution1
I0928 09:32:12.549075  4247 net.cpp:122] Setting up Convolution1
I0928 09:32:12.549098  4247 net.cpp:129] Top shape: 100 16 28 28 (1254400)
I0928 09:32:12.549103  4247 net.cpp:137] Memory required for data: 5958800
I0928 09:32:12.549116  4247 layer_factory.hpp:77] Creating layer BatchNorm1
I0928 09:32:12.549127  4247 net.cpp:84] Creating Layer BatchNorm1
I0928 09:32:12.549141  4247 net.cpp:406] BatchNorm1 <- Convolution1
I0928 09:32:12.549157  4247 net.cpp:367] BatchNorm1 -> Convolution1 (in-place)
I0928 09:32:12.549290  4247 net.cpp:122] Setting up BatchNorm1
I0928 09:32:12.549295  4247 net.cpp:129] Top shape: 100 16 28 28 (1254400)
I0928 09:32:12.549298  4247 net.cpp:137] Memory required for data: 10976400
I0928 09:32:12.549304  4247 layer_factory.hpp:77] Creating layer Scale1
I0928 09:32:12.549314  4247 net.cpp:84] Creating Layer Scale1
I0928 09:32:12.549316  4247 net.cpp:406] Scale1 <- Convolution1
I0928 09:32:12.549329  4247 net.cpp:367] Scale1 -> Convolution1 (in-place)
I0928 09:32:12.549368  4247 layer_factory.hpp:77] Creating layer Scale1
I0928 09:32:12.549464  4247 net.cpp:122] Setting up Scale1
I0928 09:32:12.549469  4247 net.cpp:129] Top shape: 100 16 28 28 (1254400)
I0928 09:32:12.549471  4247 net.cpp:137] Memory required for data: 15994000
I0928 09:32:12.549475  4247 layer_factory.hpp:77] Creating layer M2PELU1
I0928 09:32:12.549484  4247 net.cpp:84] Creating Layer M2PELU1
I0928 09:32:12.549486  4247 net.cpp:406] M2PELU1 <- Convolution1
I0928 09:32:12.549490  4247 net.cpp:367] M2PELU1 -> Convolution1 (in-place)
I0928 09:32:12.550078  4247 net.cpp:122] Setting up M2PELU1
I0928 09:32:12.550087  4247 net.cpp:129] Top shape: 100 16 28 28 (1254400)
I0928 09:32:12.550091  4247 net.cpp:137] Memory required for data: 21011600
I0928 09:32:12.550107  4247 layer_factory.hpp:77] Creating layer Convolution1_M2PELU1_0_split
I0928 09:32:12.550112  4247 net.cpp:84] Creating Layer Convolution1_M2PELU1_0_split
I0928 09:32:12.550115  4247 net.cpp:406] Convolution1_M2PELU1_0_split <- Convolution1
I0928 09:32:12.550118  4247 net.cpp:380] Convolution1_M2PELU1_0_split -> Convolution1_M2PELU1_0_split_0
I0928 09:32:12.550125  4247 net.cpp:380] Convolution1_M2PELU1_0_split -> Convolution1_M2PELU1_0_split_1
I0928 09:32:12.550148  4247 net.cpp:122] Setting up Convolution1_M2PELU1_0_split
I0928 09:32:12.550153  4247 net.cpp:129] Top shape: 100 16 28 28 (1254400)
I0928 09:32:12.550165  4247 net.cpp:129] Top shape: 100 16 28 28 (1254400)
I0928 09:32:12.550168  4247 net.cpp:137] Memory required for data: 31046800
I0928 09:32:12.550169  4247 layer_factory.hpp:77] Creating layer Convolution2
I0928 09:32:12.550186  4247 net.cpp:84] Creating Layer Convolution2
I0928 09:32:12.550189  4247 net.cpp:406] Convolution2 <- Convolution1_M2PELU1_0_split_0
I0928 09:32:12.550194  4247 net.cpp:380] Convolution2 -> Convolution2
I0928 09:32:12.551065  4247 net.cpp:122] Setting up Convolution2
I0928 09:32:12.551075  4247 net.cpp:129] Top shape: 100 16 28 28 (1254400)
I0928 09:32:12.551079  4247 net.cpp:137] Memory required for data: 36064400
I0928 09:32:12.551095  4247 layer_factory.hpp:77] Creating layer BatchNorm2
I0928 09:32:12.551110  4247 net.cpp:84] Creating Layer BatchNorm2
I0928 09:32:12.551115  4247 net.cpp:406] BatchNorm2 <- Convolution2
I0928 09:32:12.551117  4247 net.cpp:367] BatchNorm2 -> Convolution2 (in-place)
I0928 09:32:12.551250  4247 net.cpp:122] Setting up BatchNorm2
I0928 09:32:12.551255  4247 net.cpp:129] Top shape: 100 16 28 28 (1254400)
I0928 09:32:12.551259  4247 net.cpp:137] Memory required for data: 41082000
I0928 09:32:12.551273  4247 layer_factory.hpp:77] Creating layer Scale2
I0928 09:32:12.551280  4247 net.cpp:84] Creating Layer Scale2
I0928 09:32:12.551282  4247 net.cpp:406] Scale2 <- Convolution2
I0928 09:32:12.551285  4247 net.cpp:367] Scale2 -> Convolution2 (in-place)
I0928 09:32:12.551311  4247 layer_factory.hpp:77] Creating layer Scale2
I0928 09:32:12.551407  4247 net.cpp:122] Setting up Scale2
I0928 09:32:12.551412  4247 net.cpp:129] Top shape: 100 16 28 28 (1254400)
I0928 09:32:12.551415  4247 net.cpp:137] Memory required for data: 46099600
I0928 09:32:12.551429  4247 layer_factory.hpp:77] Creating layer M2PELU2
I0928 09:32:12.551434  4247 net.cpp:84] Creating Layer M2PELU2
I0928 09:32:12.551437  4247 net.cpp:406] M2PELU2 <- Convolution2
I0928 09:32:12.551441  4247 net.cpp:367] M2PELU2 -> Convolution2 (in-place)
I0928 09:32:12.551522  4247 net.cpp:122] Setting up M2PELU2
I0928 09:32:12.551527  4247 net.cpp:129] Top shape: 100 16 28 28 (1254400)
I0928 09:32:12.551537  4247 net.cpp:137] Memory required for data: 51117200
I0928 09:32:12.551543  4247 layer_factory.hpp:77] Creating layer Convolution3
I0928 09:32:12.551550  4247 net.cpp:84] Creating Layer Convolution3
I0928 09:32:12.551553  4247 net.cpp:406] Convolution3 <- Convolution2
I0928 09:32:12.551558  4247 net.cpp:380] Convolution3 -> Convolution3
I0928 09:32:12.552371  4247 net.cpp:122] Setting up Convolution3
I0928 09:32:12.552381  4247 net.cpp:129] Top shape: 100 16 28 28 (1254400)
I0928 09:32:12.552384  4247 net.cpp:137] Memory required for data: 56134800
I0928 09:32:12.552389  4247 layer_factory.hpp:77] Creating layer BatchNorm3
I0928 09:32:12.552394  4247 net.cpp:84] Creating Layer BatchNorm3
I0928 09:32:12.552397  4247 net.cpp:406] BatchNorm3 <- Convolution3
I0928 09:32:12.552402  4247 net.cpp:367] BatchNorm3 -> Convolution3 (in-place)
I0928 09:32:12.552515  4247 net.cpp:122] Setting up BatchNorm3
I0928 09:32:12.552520  4247 net.cpp:129] Top shape: 100 16 28 28 (1254400)
I0928 09:32:12.552523  4247 net.cpp:137] Memory required for data: 61152400
I0928 09:32:12.552528  4247 layer_factory.hpp:77] Creating layer Scale3
I0928 09:32:12.552533  4247 net.cpp:84] Creating Layer Scale3
I0928 09:32:12.552536  4247 net.cpp:406] Scale3 <- Convolution3
I0928 09:32:12.552539  4247 net.cpp:367] Scale3 -> Convolution3 (in-place)
I0928 09:32:12.552562  4247 layer_factory.hpp:77] Creating layer Scale3
I0928 09:32:12.552629  4247 net.cpp:122] Setting up Scale3
I0928 09:32:12.552634  4247 net.cpp:129] Top shape: 100 16 28 28 (1254400)
I0928 09:32:12.552637  4247 net.cpp:137] Memory required for data: 66170000
I0928 09:32:12.552641  4247 layer_factory.hpp:77] Creating layer Eltwise1
I0928 09:32:12.552646  4247 net.cpp:84] Creating Layer Eltwise1
I0928 09:32:12.552649  4247 net.cpp:406] Eltwise1 <- Convolution1_M2PELU1_0_split_1
I0928 09:32:12.552652  4247 net.cpp:406] Eltwise1 <- Convolution3
I0928 09:32:12.552656  4247 net.cpp:380] Eltwise1 -> Eltwise1
I0928 09:32:12.552671  4247 net.cpp:122] Setting up Eltwise1
I0928 09:32:12.552676  4247 net.cpp:129] Top shape: 100 16 28 28 (1254400)
I0928 09:32:12.552678  4247 net.cpp:137] Memory required for data: 71187600
I0928 09:32:12.552680  4247 layer_factory.hpp:77] Creating layer M2PELU3
I0928 09:32:12.552685  4247 net.cpp:84] Creating Layer M2PELU3
I0928 09:32:12.552688  4247 net.cpp:406] M2PELU3 <- Eltwise1
I0928 09:32:12.552691  4247 net.cpp:367] M2PELU3 -> Eltwise1 (in-place)
I0928 09:32:12.552764  4247 net.cpp:122] Setting up M2PELU3
I0928 09:32:12.552769  4247 net.cpp:129] Top shape: 100 16 28 28 (1254400)
I0928 09:32:12.552772  4247 net.cpp:137] Memory required for data: 76205200
I0928 09:32:12.552776  4247 layer_factory.hpp:77] Creating layer Eltwise1_M2PELU3_0_split
I0928 09:32:12.552781  4247 net.cpp:84] Creating Layer Eltwise1_M2PELU3_0_split
I0928 09:32:12.552783  4247 net.cpp:406] Eltwise1_M2PELU3_0_split <- Eltwise1
I0928 09:32:12.552786  4247 net.cpp:380] Eltwise1_M2PELU3_0_split -> Eltwise1_M2PELU3_0_split_0
I0928 09:32:12.552791  4247 net.cpp:380] Eltwise1_M2PELU3_0_split -> Eltwise1_M2PELU3_0_split_1
I0928 09:32:12.552812  4247 net.cpp:122] Setting up Eltwise1_M2PELU3_0_split
I0928 09:32:12.552816  4247 net.cpp:129] Top shape: 100 16 28 28 (1254400)
I0928 09:32:12.552820  4247 net.cpp:129] Top shape: 100 16 28 28 (1254400)
I0928 09:32:12.552822  4247 net.cpp:137] Memory required for data: 86240400
I0928 09:32:12.552824  4247 layer_factory.hpp:77] Creating layer Convolution4
I0928 09:32:12.552831  4247 net.cpp:84] Creating Layer Convolution4
I0928 09:32:12.552834  4247 net.cpp:406] Convolution4 <- Eltwise1_M2PELU3_0_split_0
I0928 09:32:12.552837  4247 net.cpp:380] Convolution4 -> Convolution4
I0928 09:32:12.553668  4247 net.cpp:122] Setting up Convolution4
I0928 09:32:12.553678  4247 net.cpp:129] Top shape: 100 16 28 28 (1254400)
I0928 09:32:12.553683  4247 net.cpp:137] Memory required for data: 91258000
I0928 09:32:12.553686  4247 layer_factory.hpp:77] Creating layer BatchNorm4
I0928 09:32:12.553691  4247 net.cpp:84] Creating Layer BatchNorm4
I0928 09:32:12.553701  4247 net.cpp:406] BatchNorm4 <- Convolution4
I0928 09:32:12.553706  4247 net.cpp:367] BatchNorm4 -> Convolution4 (in-place)
I0928 09:32:12.553818  4247 net.cpp:122] Setting up BatchNorm4
I0928 09:32:12.553824  4247 net.cpp:129] Top shape: 100 16 28 28 (1254400)
I0928 09:32:12.553828  4247 net.cpp:137] Memory required for data: 96275600
I0928 09:32:12.553831  4247 layer_factory.hpp:77] Creating layer Scale4
I0928 09:32:12.553836  4247 net.cpp:84] Creating Layer Scale4
I0928 09:32:12.553839  4247 net.cpp:406] Scale4 <- Convolution4
I0928 09:32:12.553843  4247 net.cpp:367] Scale4 -> Convolution4 (in-place)
I0928 09:32:12.553865  4247 layer_factory.hpp:77] Creating layer Scale4
I0928 09:32:12.553930  4247 net.cpp:122] Setting up Scale4
I0928 09:32:12.553936  4247 net.cpp:129] Top shape: 100 16 28 28 (1254400)
I0928 09:32:12.553938  4247 net.cpp:137] Memory required for data: 101293200
I0928 09:32:12.553944  4247 layer_factory.hpp:77] Creating layer M2PELU4
I0928 09:32:12.553951  4247 net.cpp:84] Creating Layer M2PELU4
I0928 09:32:12.553953  4247 net.cpp:406] M2PELU4 <- Convolution4
I0928 09:32:12.553956  4247 net.cpp:367] M2PELU4 -> Convolution4 (in-place)
I0928 09:32:12.554030  4247 net.cpp:122] Setting up M2PELU4
I0928 09:32:12.554036  4247 net.cpp:129] Top shape: 100 16 28 28 (1254400)
I0928 09:32:12.554039  4247 net.cpp:137] Memory required for data: 106310800
I0928 09:32:12.554042  4247 layer_factory.hpp:77] Creating layer Convolution5
I0928 09:32:12.554049  4247 net.cpp:84] Creating Layer Convolution5
I0928 09:32:12.554052  4247 net.cpp:406] Convolution5 <- Convolution4
I0928 09:32:12.554056  4247 net.cpp:380] Convolution5 -> Convolution5
I0928 09:32:12.554916  4247 net.cpp:122] Setting up Convolution5
I0928 09:32:12.554926  4247 net.cpp:129] Top shape: 100 16 28 28 (1254400)
I0928 09:32:12.554930  4247 net.cpp:137] Memory required for data: 111328400
I0928 09:32:12.554935  4247 layer_factory.hpp:77] Creating layer BatchNorm5
I0928 09:32:12.554940  4247 net.cpp:84] Creating Layer BatchNorm5
I0928 09:32:12.554944  4247 net.cpp:406] BatchNorm5 <- Convolution5
I0928 09:32:12.554947  4247 net.cpp:367] BatchNorm5 -> Convolution5 (in-place)
I0928 09:32:12.555066  4247 net.cpp:122] Setting up BatchNorm5
I0928 09:32:12.555071  4247 net.cpp:129] Top shape: 100 16 28 28 (1254400)
I0928 09:32:12.555074  4247 net.cpp:137] Memory required for data: 116346000
I0928 09:32:12.555078  4247 layer_factory.hpp:77] Creating layer Scale5
I0928 09:32:12.555083  4247 net.cpp:84] Creating Layer Scale5
I0928 09:32:12.555086  4247 net.cpp:406] Scale5 <- Convolution5
I0928 09:32:12.555089  4247 net.cpp:367] Scale5 -> Convolution5 (in-place)
I0928 09:32:12.555114  4247 layer_factory.hpp:77] Creating layer Scale5
I0928 09:32:12.555184  4247 net.cpp:122] Setting up Scale5
I0928 09:32:12.555189  4247 net.cpp:129] Top shape: 100 16 28 28 (1254400)
I0928 09:32:12.555191  4247 net.cpp:137] Memory required for data: 121363600
I0928 09:32:12.555196  4247 layer_factory.hpp:77] Creating layer Eltwise2
I0928 09:32:12.555199  4247 net.cpp:84] Creating Layer Eltwise2
I0928 09:32:12.555202  4247 net.cpp:406] Eltwise2 <- Eltwise1_M2PELU3_0_split_1
I0928 09:32:12.555205  4247 net.cpp:406] Eltwise2 <- Convolution5
I0928 09:32:12.555208  4247 net.cpp:380] Eltwise2 -> Eltwise2
I0928 09:32:12.555224  4247 net.cpp:122] Setting up Eltwise2
I0928 09:32:12.555228  4247 net.cpp:129] Top shape: 100 16 28 28 (1254400)
I0928 09:32:12.555230  4247 net.cpp:137] Memory required for data: 126381200
I0928 09:32:12.555233  4247 layer_factory.hpp:77] Creating layer M2PELU5
I0928 09:32:12.555238  4247 net.cpp:84] Creating Layer M2PELU5
I0928 09:32:12.555240  4247 net.cpp:406] M2PELU5 <- Eltwise2
I0928 09:32:12.555244  4247 net.cpp:367] M2PELU5 -> Eltwise2 (in-place)
I0928 09:32:12.555320  4247 net.cpp:122] Setting up M2PELU5
I0928 09:32:12.555325  4247 net.cpp:129] Top shape: 100 16 28 28 (1254400)
I0928 09:32:12.555328  4247 net.cpp:137] Memory required for data: 131398800
I0928 09:32:12.555332  4247 layer_factory.hpp:77] Creating layer Eltwise2_M2PELU5_0_split
I0928 09:32:12.555342  4247 net.cpp:84] Creating Layer Eltwise2_M2PELU5_0_split
I0928 09:32:12.555346  4247 net.cpp:406] Eltwise2_M2PELU5_0_split <- Eltwise2
I0928 09:32:12.555349  4247 net.cpp:380] Eltwise2_M2PELU5_0_split -> Eltwise2_M2PELU5_0_split_0
I0928 09:32:12.555354  4247 net.cpp:380] Eltwise2_M2PELU5_0_split -> Eltwise2_M2PELU5_0_split_1
I0928 09:32:12.555377  4247 net.cpp:122] Setting up Eltwise2_M2PELU5_0_split
I0928 09:32:12.555380  4247 net.cpp:129] Top shape: 100 16 28 28 (1254400)
I0928 09:32:12.555383  4247 net.cpp:129] Top shape: 100 16 28 28 (1254400)
I0928 09:32:12.555387  4247 net.cpp:137] Memory required for data: 141434000
I0928 09:32:12.555388  4247 layer_factory.hpp:77] Creating layer Convolution6
I0928 09:32:12.555397  4247 net.cpp:84] Creating Layer Convolution6
I0928 09:32:12.555399  4247 net.cpp:406] Convolution6 <- Eltwise2_M2PELU5_0_split_0
I0928 09:32:12.555403  4247 net.cpp:380] Convolution6 -> Convolution6
I0928 09:32:12.556244  4247 net.cpp:122] Setting up Convolution6
I0928 09:32:12.556253  4247 net.cpp:129] Top shape: 100 16 28 28 (1254400)
I0928 09:32:12.556257  4247 net.cpp:137] Memory required for data: 146451600
I0928 09:32:12.556262  4247 layer_factory.hpp:77] Creating layer BatchNorm6
I0928 09:32:12.556267  4247 net.cpp:84] Creating Layer BatchNorm6
I0928 09:32:12.556270  4247 net.cpp:406] BatchNorm6 <- Convolution6
I0928 09:32:12.556274  4247 net.cpp:367] BatchNorm6 -> Convolution6 (in-place)
I0928 09:32:12.556397  4247 net.cpp:122] Setting up BatchNorm6
I0928 09:32:12.556403  4247 net.cpp:129] Top shape: 100 16 28 28 (1254400)
I0928 09:32:12.556406  4247 net.cpp:137] Memory required for data: 151469200
I0928 09:32:12.556411  4247 layer_factory.hpp:77] Creating layer Scale6
I0928 09:32:12.556416  4247 net.cpp:84] Creating Layer Scale6
I0928 09:32:12.556418  4247 net.cpp:406] Scale6 <- Convolution6
I0928 09:32:12.556422  4247 net.cpp:367] Scale6 -> Convolution6 (in-place)
I0928 09:32:12.556445  4247 layer_factory.hpp:77] Creating layer Scale6
I0928 09:32:12.556519  4247 net.cpp:122] Setting up Scale6
I0928 09:32:12.556524  4247 net.cpp:129] Top shape: 100 16 28 28 (1254400)
I0928 09:32:12.556525  4247 net.cpp:137] Memory required for data: 156486800
I0928 09:32:12.556529  4247 layer_factory.hpp:77] Creating layer M2PELU6
I0928 09:32:12.556535  4247 net.cpp:84] Creating Layer M2PELU6
I0928 09:32:12.556538  4247 net.cpp:406] M2PELU6 <- Convolution6
I0928 09:32:12.556541  4247 net.cpp:367] M2PELU6 -> Convolution6 (in-place)
I0928 09:32:12.556619  4247 net.cpp:122] Setting up M2PELU6
I0928 09:32:12.556624  4247 net.cpp:129] Top shape: 100 16 28 28 (1254400)
I0928 09:32:12.556627  4247 net.cpp:137] Memory required for data: 161504400
I0928 09:32:12.556630  4247 layer_factory.hpp:77] Creating layer Convolution7
I0928 09:32:12.556638  4247 net.cpp:84] Creating Layer Convolution7
I0928 09:32:12.556640  4247 net.cpp:406] Convolution7 <- Convolution6
I0928 09:32:12.556646  4247 net.cpp:380] Convolution7 -> Convolution7
I0928 09:32:12.557175  4247 net.cpp:122] Setting up Convolution7
I0928 09:32:12.557183  4247 net.cpp:129] Top shape: 100 16 28 28 (1254400)
I0928 09:32:12.557186  4247 net.cpp:137] Memory required for data: 166522000
I0928 09:32:12.557190  4247 layer_factory.hpp:77] Creating layer BatchNorm7
I0928 09:32:12.557196  4247 net.cpp:84] Creating Layer BatchNorm7
I0928 09:32:12.557199  4247 net.cpp:406] BatchNorm7 <- Convolution7
I0928 09:32:12.557204  4247 net.cpp:367] BatchNorm7 -> Convolution7 (in-place)
I0928 09:32:12.557327  4247 net.cpp:122] Setting up BatchNorm7
I0928 09:32:12.557332  4247 net.cpp:129] Top shape: 100 16 28 28 (1254400)
I0928 09:32:12.557334  4247 net.cpp:137] Memory required for data: 171539600
I0928 09:32:12.557339  4247 layer_factory.hpp:77] Creating layer Scale7
I0928 09:32:12.557346  4247 net.cpp:84] Creating Layer Scale7
I0928 09:32:12.557349  4247 net.cpp:406] Scale7 <- Convolution7
I0928 09:32:12.557353  4247 net.cpp:367] Scale7 -> Convolution7 (in-place)
I0928 09:32:12.557377  4247 layer_factory.hpp:77] Creating layer Scale7
I0928 09:32:12.557458  4247 net.cpp:122] Setting up Scale7
I0928 09:32:12.557463  4247 net.cpp:129] Top shape: 100 16 28 28 (1254400)
I0928 09:32:12.557466  4247 net.cpp:137] Memory required for data: 176557200
I0928 09:32:12.557471  4247 layer_factory.hpp:77] Creating layer Eltwise3
I0928 09:32:12.557476  4247 net.cpp:84] Creating Layer Eltwise3
I0928 09:32:12.557478  4247 net.cpp:406] Eltwise3 <- Eltwise2_M2PELU5_0_split_1
I0928 09:32:12.557482  4247 net.cpp:406] Eltwise3 <- Convolution7
I0928 09:32:12.557485  4247 net.cpp:380] Eltwise3 -> Eltwise3
I0928 09:32:12.557500  4247 net.cpp:122] Setting up Eltwise3
I0928 09:32:12.557504  4247 net.cpp:129] Top shape: 100 16 28 28 (1254400)
I0928 09:32:12.557507  4247 net.cpp:137] Memory required for data: 181574800
I0928 09:32:12.557508  4247 layer_factory.hpp:77] Creating layer M2PELU7
I0928 09:32:12.557513  4247 net.cpp:84] Creating Layer M2PELU7
I0928 09:32:12.557516  4247 net.cpp:406] M2PELU7 <- Eltwise3
I0928 09:32:12.557519  4247 net.cpp:367] M2PELU7 -> Eltwise3 (in-place)
I0928 09:32:12.557596  4247 net.cpp:122] Setting up M2PELU7
I0928 09:32:12.557601  4247 net.cpp:129] Top shape: 100 16 28 28 (1254400)
I0928 09:32:12.557605  4247 net.cpp:137] Memory required for data: 186592400
I0928 09:32:12.557608  4247 layer_factory.hpp:77] Creating layer Eltwise3_M2PELU7_0_split
I0928 09:32:12.557612  4247 net.cpp:84] Creating Layer Eltwise3_M2PELU7_0_split
I0928 09:32:12.557615  4247 net.cpp:406] Eltwise3_M2PELU7_0_split <- Eltwise3
I0928 09:32:12.557618  4247 net.cpp:380] Eltwise3_M2PELU7_0_split -> Eltwise3_M2PELU7_0_split_0
I0928 09:32:12.557622  4247 net.cpp:380] Eltwise3_M2PELU7_0_split -> Eltwise3_M2PELU7_0_split_1
I0928 09:32:12.557646  4247 net.cpp:122] Setting up Eltwise3_M2PELU7_0_split
I0928 09:32:12.557649  4247 net.cpp:129] Top shape: 100 16 28 28 (1254400)
I0928 09:32:12.557652  4247 net.cpp:129] Top shape: 100 16 28 28 (1254400)
I0928 09:32:12.557654  4247 net.cpp:137] Memory required for data: 196627600
I0928 09:32:12.557657  4247 layer_factory.hpp:77] Creating layer Convolution8
I0928 09:32:12.557662  4247 net.cpp:84] Creating Layer Convolution8
I0928 09:32:12.557665  4247 net.cpp:406] Convolution8 <- Eltwise3_M2PELU7_0_split_0
I0928 09:32:12.557669  4247 net.cpp:380] Convolution8 -> Convolution8
I0928 09:32:12.558508  4247 net.cpp:122] Setting up Convolution8
I0928 09:32:12.558518  4247 net.cpp:129] Top shape: 100 16 28 28 (1254400)
I0928 09:32:12.558537  4247 net.cpp:137] Memory required for data: 201645200
I0928 09:32:12.558547  4247 layer_factory.hpp:77] Creating layer BatchNorm8
I0928 09:32:12.558554  4247 net.cpp:84] Creating Layer BatchNorm8
I0928 09:32:12.558567  4247 net.cpp:406] BatchNorm8 <- Convolution8
I0928 09:32:12.558570  4247 net.cpp:367] BatchNorm8 -> Convolution8 (in-place)
I0928 09:32:12.558713  4247 net.cpp:122] Setting up BatchNorm8
I0928 09:32:12.558718  4247 net.cpp:129] Top shape: 100 16 28 28 (1254400)
I0928 09:32:12.558722  4247 net.cpp:137] Memory required for data: 206662800
I0928 09:32:12.558727  4247 layer_factory.hpp:77] Creating layer Scale8
I0928 09:32:12.558732  4247 net.cpp:84] Creating Layer Scale8
I0928 09:32:12.558735  4247 net.cpp:406] Scale8 <- Convolution8
I0928 09:32:12.558738  4247 net.cpp:367] Scale8 -> Convolution8 (in-place)
I0928 09:32:12.558763  4247 layer_factory.hpp:77] Creating layer Scale8
I0928 09:32:12.558836  4247 net.cpp:122] Setting up Scale8
I0928 09:32:12.558841  4247 net.cpp:129] Top shape: 100 16 28 28 (1254400)
I0928 09:32:12.558845  4247 net.cpp:137] Memory required for data: 211680400
I0928 09:32:12.558848  4247 layer_factory.hpp:77] Creating layer M2PELU8
I0928 09:32:12.558854  4247 net.cpp:84] Creating Layer M2PELU8
I0928 09:32:12.558857  4247 net.cpp:406] M2PELU8 <- Convolution8
I0928 09:32:12.558861  4247 net.cpp:367] M2PELU8 -> Convolution8 (in-place)
I0928 09:32:12.558956  4247 net.cpp:122] Setting up M2PELU8
I0928 09:32:12.558961  4247 net.cpp:129] Top shape: 100 16 28 28 (1254400)
I0928 09:32:12.558964  4247 net.cpp:137] Memory required for data: 216698000
I0928 09:32:12.558969  4247 layer_factory.hpp:77] Creating layer Convolution9
I0928 09:32:12.558982  4247 net.cpp:84] Creating Layer Convolution9
I0928 09:32:12.558985  4247 net.cpp:406] Convolution9 <- Convolution8
I0928 09:32:12.558990  4247 net.cpp:380] Convolution9 -> Convolution9
I0928 09:32:12.559856  4247 net.cpp:122] Setting up Convolution9
I0928 09:32:12.559866  4247 net.cpp:129] Top shape: 100 16 28 28 (1254400)
I0928 09:32:12.559870  4247 net.cpp:137] Memory required for data: 221715600
I0928 09:32:12.559875  4247 layer_factory.hpp:77] Creating layer BatchNorm9
I0928 09:32:12.559883  4247 net.cpp:84] Creating Layer BatchNorm9
I0928 09:32:12.559886  4247 net.cpp:406] BatchNorm9 <- Convolution9
I0928 09:32:12.559890  4247 net.cpp:367] BatchNorm9 -> Convolution9 (in-place)
I0928 09:32:12.560020  4247 net.cpp:122] Setting up BatchNorm9
I0928 09:32:12.560025  4247 net.cpp:129] Top shape: 100 16 28 28 (1254400)
I0928 09:32:12.560027  4247 net.cpp:137] Memory required for data: 226733200
I0928 09:32:12.560032  4247 layer_factory.hpp:77] Creating layer Scale9
I0928 09:32:12.560037  4247 net.cpp:84] Creating Layer Scale9
I0928 09:32:12.560050  4247 net.cpp:406] Scale9 <- Convolution9
I0928 09:32:12.560053  4247 net.cpp:367] Scale9 -> Convolution9 (in-place)
I0928 09:32:12.560088  4247 layer_factory.hpp:77] Creating layer Scale9
I0928 09:32:12.560165  4247 net.cpp:122] Setting up Scale9
I0928 09:32:12.560170  4247 net.cpp:129] Top shape: 100 16 28 28 (1254400)
I0928 09:32:12.560173  4247 net.cpp:137] Memory required for data: 231750800
I0928 09:32:12.560178  4247 layer_factory.hpp:77] Creating layer Eltwise4
I0928 09:32:12.560183  4247 net.cpp:84] Creating Layer Eltwise4
I0928 09:32:12.560185  4247 net.cpp:406] Eltwise4 <- Eltwise3_M2PELU7_0_split_1
I0928 09:32:12.560189  4247 net.cpp:406] Eltwise4 <- Convolution9
I0928 09:32:12.560194  4247 net.cpp:380] Eltwise4 -> Eltwise4
I0928 09:32:12.560209  4247 net.cpp:122] Setting up Eltwise4
I0928 09:32:12.560212  4247 net.cpp:129] Top shape: 100 16 28 28 (1254400)
I0928 09:32:12.560214  4247 net.cpp:137] Memory required for data: 236768400
I0928 09:32:12.560216  4247 layer_factory.hpp:77] Creating layer M2PELU9
I0928 09:32:12.560221  4247 net.cpp:84] Creating Layer M2PELU9
I0928 09:32:12.560225  4247 net.cpp:406] M2PELU9 <- Eltwise4
I0928 09:32:12.560228  4247 net.cpp:367] M2PELU9 -> Eltwise4 (in-place)
I0928 09:32:12.560312  4247 net.cpp:122] Setting up M2PELU9
I0928 09:32:12.560317  4247 net.cpp:129] Top shape: 100 16 28 28 (1254400)
I0928 09:32:12.560319  4247 net.cpp:137] Memory required for data: 241786000
I0928 09:32:12.560323  4247 layer_factory.hpp:77] Creating layer Eltwise4_M2PELU9_0_split
I0928 09:32:12.560328  4247 net.cpp:84] Creating Layer Eltwise4_M2PELU9_0_split
I0928 09:32:12.560331  4247 net.cpp:406] Eltwise4_M2PELU9_0_split <- Eltwise4
I0928 09:32:12.560334  4247 net.cpp:380] Eltwise4_M2PELU9_0_split -> Eltwise4_M2PELU9_0_split_0
I0928 09:32:12.560338  4247 net.cpp:380] Eltwise4_M2PELU9_0_split -> Eltwise4_M2PELU9_0_split_1
I0928 09:32:12.560361  4247 net.cpp:122] Setting up Eltwise4_M2PELU9_0_split
I0928 09:32:12.560375  4247 net.cpp:129] Top shape: 100 16 28 28 (1254400)
I0928 09:32:12.560379  4247 net.cpp:129] Top shape: 100 16 28 28 (1254400)
I0928 09:32:12.560382  4247 net.cpp:137] Memory required for data: 251821200
I0928 09:32:12.560384  4247 layer_factory.hpp:77] Creating layer Convolution10
I0928 09:32:12.560391  4247 net.cpp:84] Creating Layer Convolution10
I0928 09:32:12.560395  4247 net.cpp:406] Convolution10 <- Eltwise4_M2PELU9_0_split_0
I0928 09:32:12.560400  4247 net.cpp:380] Convolution10 -> Convolution10
I0928 09:32:12.561460  4247 net.cpp:122] Setting up Convolution10
I0928 09:32:12.561470  4247 net.cpp:129] Top shape: 100 16 28 28 (1254400)
I0928 09:32:12.561473  4247 net.cpp:137] Memory required for data: 256838800
I0928 09:32:12.561478  4247 layer_factory.hpp:77] Creating layer BatchNorm10
I0928 09:32:12.561483  4247 net.cpp:84] Creating Layer BatchNorm10
I0928 09:32:12.561487  4247 net.cpp:406] BatchNorm10 <- Convolution10
I0928 09:32:12.561491  4247 net.cpp:367] BatchNorm10 -> Convolution10 (in-place)
I0928 09:32:12.561624  4247 net.cpp:122] Setting up BatchNorm10
I0928 09:32:12.561628  4247 net.cpp:129] Top shape: 100 16 28 28 (1254400)
I0928 09:32:12.561631  4247 net.cpp:137] Memory required for data: 261856400
I0928 09:32:12.561635  4247 layer_factory.hpp:77] Creating layer Scale10
I0928 09:32:12.561641  4247 net.cpp:84] Creating Layer Scale10
I0928 09:32:12.561645  4247 net.cpp:406] Scale10 <- Convolution10
I0928 09:32:12.561647  4247 net.cpp:367] Scale10 -> Convolution10 (in-place)
I0928 09:32:12.561674  4247 layer_factory.hpp:77] Creating layer Scale10
I0928 09:32:12.561749  4247 net.cpp:122] Setting up Scale10
I0928 09:32:12.561754  4247 net.cpp:129] Top shape: 100 16 28 28 (1254400)
I0928 09:32:12.561758  4247 net.cpp:137] Memory required for data: 266874000
I0928 09:32:12.561761  4247 layer_factory.hpp:77] Creating layer M2PELU10
I0928 09:32:12.561767  4247 net.cpp:84] Creating Layer M2PELU10
I0928 09:32:12.561770  4247 net.cpp:406] M2PELU10 <- Convolution10
I0928 09:32:12.561774  4247 net.cpp:367] M2PELU10 -> Convolution10 (in-place)
I0928 09:32:12.561852  4247 net.cpp:122] Setting up M2PELU10
I0928 09:32:12.561857  4247 net.cpp:129] Top shape: 100 16 28 28 (1254400)
I0928 09:32:12.561861  4247 net.cpp:137] Memory required for data: 271891600
I0928 09:32:12.561864  4247 layer_factory.hpp:77] Creating layer Convolution11
I0928 09:32:12.561882  4247 net.cpp:84] Creating Layer Convolution11
I0928 09:32:12.561884  4247 net.cpp:406] Convolution11 <- Convolution10
I0928 09:32:12.561889  4247 net.cpp:380] Convolution11 -> Convolution11
I0928 09:32:12.562906  4247 net.cpp:122] Setting up Convolution11
I0928 09:32:12.562916  4247 net.cpp:129] Top shape: 100 16 28 28 (1254400)
I0928 09:32:12.562918  4247 net.cpp:137] Memory required for data: 276909200
I0928 09:32:12.562922  4247 layer_factory.hpp:77] Creating layer BatchNorm11
I0928 09:32:12.562928  4247 net.cpp:84] Creating Layer BatchNorm11
I0928 09:32:12.562932  4247 net.cpp:406] BatchNorm11 <- Convolution11
I0928 09:32:12.562935  4247 net.cpp:367] BatchNorm11 -> Convolution11 (in-place)
I0928 09:32:12.563061  4247 net.cpp:122] Setting up BatchNorm11
I0928 09:32:12.563066  4247 net.cpp:129] Top shape: 100 16 28 28 (1254400)
I0928 09:32:12.563068  4247 net.cpp:137] Memory required for data: 281926800
I0928 09:32:12.563072  4247 layer_factory.hpp:77] Creating layer Scale11
I0928 09:32:12.563076  4247 net.cpp:84] Creating Layer Scale11
I0928 09:32:12.563079  4247 net.cpp:406] Scale11 <- Convolution11
I0928 09:32:12.563082  4247 net.cpp:367] Scale11 -> Convolution11 (in-place)
I0928 09:32:12.563107  4247 layer_factory.hpp:77] Creating layer Scale11
I0928 09:32:12.563184  4247 net.cpp:122] Setting up Scale11
I0928 09:32:12.563189  4247 net.cpp:129] Top shape: 100 16 28 28 (1254400)
I0928 09:32:12.563191  4247 net.cpp:137] Memory required for data: 286944400
I0928 09:32:12.563194  4247 layer_factory.hpp:77] Creating layer Eltwise5
I0928 09:32:12.563200  4247 net.cpp:84] Creating Layer Eltwise5
I0928 09:32:12.563204  4247 net.cpp:406] Eltwise5 <- Eltwise4_M2PELU9_0_split_1
I0928 09:32:12.563206  4247 net.cpp:406] Eltwise5 <- Convolution11
I0928 09:32:12.563210  4247 net.cpp:380] Eltwise5 -> Eltwise5
I0928 09:32:12.563225  4247 net.cpp:122] Setting up Eltwise5
I0928 09:32:12.563230  4247 net.cpp:129] Top shape: 100 16 28 28 (1254400)
I0928 09:32:12.563231  4247 net.cpp:137] Memory required for data: 291962000
I0928 09:32:12.563233  4247 layer_factory.hpp:77] Creating layer M2PELU11
I0928 09:32:12.563238  4247 net.cpp:84] Creating Layer M2PELU11
I0928 09:32:12.563241  4247 net.cpp:406] M2PELU11 <- Eltwise5
I0928 09:32:12.563244  4247 net.cpp:367] M2PELU11 -> Eltwise5 (in-place)
I0928 09:32:12.563326  4247 net.cpp:122] Setting up M2PELU11
I0928 09:32:12.563331  4247 net.cpp:129] Top shape: 100 16 28 28 (1254400)
I0928 09:32:12.563334  4247 net.cpp:137] Memory required for data: 296979600
I0928 09:32:12.563338  4247 layer_factory.hpp:77] Creating layer Eltwise5_M2PELU11_0_split
I0928 09:32:12.563344  4247 net.cpp:84] Creating Layer Eltwise5_M2PELU11_0_split
I0928 09:32:12.563352  4247 net.cpp:406] Eltwise5_M2PELU11_0_split <- Eltwise5
I0928 09:32:12.563356  4247 net.cpp:380] Eltwise5_M2PELU11_0_split -> Eltwise5_M2PELU11_0_split_0
I0928 09:32:12.563361  4247 net.cpp:380] Eltwise5_M2PELU11_0_split -> Eltwise5_M2PELU11_0_split_1
I0928 09:32:12.563385  4247 net.cpp:122] Setting up Eltwise5_M2PELU11_0_split
I0928 09:32:12.563390  4247 net.cpp:129] Top shape: 100 16 28 28 (1254400)
I0928 09:32:12.563393  4247 net.cpp:129] Top shape: 100 16 28 28 (1254400)
I0928 09:32:12.563396  4247 net.cpp:137] Memory required for data: 307014800
I0928 09:32:12.563398  4247 layer_factory.hpp:77] Creating layer Convolution12
I0928 09:32:12.563405  4247 net.cpp:84] Creating Layer Convolution12
I0928 09:32:12.563407  4247 net.cpp:406] Convolution12 <- Eltwise5_M2PELU11_0_split_0
I0928 09:32:12.563411  4247 net.cpp:380] Convolution12 -> Convolution12
I0928 09:32:12.564272  4247 net.cpp:122] Setting up Convolution12
I0928 09:32:12.564282  4247 net.cpp:129] Top shape: 100 16 28 28 (1254400)
I0928 09:32:12.564286  4247 net.cpp:137] Memory required for data: 312032400
I0928 09:32:12.564291  4247 layer_factory.hpp:77] Creating layer BatchNorm12
I0928 09:32:12.564296  4247 net.cpp:84] Creating Layer BatchNorm12
I0928 09:32:12.564301  4247 net.cpp:406] BatchNorm12 <- Convolution12
I0928 09:32:12.564303  4247 net.cpp:367] BatchNorm12 -> Convolution12 (in-place)
I0928 09:32:12.564432  4247 net.cpp:122] Setting up BatchNorm12
I0928 09:32:12.564437  4247 net.cpp:129] Top shape: 100 16 28 28 (1254400)
I0928 09:32:12.564440  4247 net.cpp:137] Memory required for data: 317050000
I0928 09:32:12.564445  4247 layer_factory.hpp:77] Creating layer Scale12
I0928 09:32:12.564450  4247 net.cpp:84] Creating Layer Scale12
I0928 09:32:12.564452  4247 net.cpp:406] Scale12 <- Convolution12
I0928 09:32:12.564456  4247 net.cpp:367] Scale12 -> Convolution12 (in-place)
I0928 09:32:12.564482  4247 layer_factory.hpp:77] Creating layer Scale12
I0928 09:32:12.564558  4247 net.cpp:122] Setting up Scale12
I0928 09:32:12.564563  4247 net.cpp:129] Top shape: 100 16 28 28 (1254400)
I0928 09:32:12.564565  4247 net.cpp:137] Memory required for data: 322067600
I0928 09:32:12.564569  4247 layer_factory.hpp:77] Creating layer M2PELU12
I0928 09:32:12.564574  4247 net.cpp:84] Creating Layer M2PELU12
I0928 09:32:12.564577  4247 net.cpp:406] M2PELU12 <- Convolution12
I0928 09:32:12.564581  4247 net.cpp:367] M2PELU12 -> Convolution12 (in-place)
I0928 09:32:12.564664  4247 net.cpp:122] Setting up M2PELU12
I0928 09:32:12.564669  4247 net.cpp:129] Top shape: 100 16 28 28 (1254400)
I0928 09:32:12.564672  4247 net.cpp:137] Memory required for data: 327085200
I0928 09:32:12.564676  4247 layer_factory.hpp:77] Creating layer Convolution13
I0928 09:32:12.564682  4247 net.cpp:84] Creating Layer Convolution13
I0928 09:32:12.564685  4247 net.cpp:406] Convolution13 <- Convolution12
I0928 09:32:12.564689  4247 net.cpp:380] Convolution13 -> Convolution13
I0928 09:32:12.565548  4247 net.cpp:122] Setting up Convolution13
I0928 09:32:12.565558  4247 net.cpp:129] Top shape: 100 16 28 28 (1254400)
I0928 09:32:12.565562  4247 net.cpp:137] Memory required for data: 332102800
I0928 09:32:12.565567  4247 layer_factory.hpp:77] Creating layer BatchNorm13
I0928 09:32:12.565572  4247 net.cpp:84] Creating Layer BatchNorm13
I0928 09:32:12.565575  4247 net.cpp:406] BatchNorm13 <- Convolution13
I0928 09:32:12.565579  4247 net.cpp:367] BatchNorm13 -> Convolution13 (in-place)
I0928 09:32:12.565706  4247 net.cpp:122] Setting up BatchNorm13
I0928 09:32:12.565711  4247 net.cpp:129] Top shape: 100 16 28 28 (1254400)
I0928 09:32:12.565713  4247 net.cpp:137] Memory required for data: 337120400
I0928 09:32:12.565718  4247 layer_factory.hpp:77] Creating layer Scale13
I0928 09:32:12.565722  4247 net.cpp:84] Creating Layer Scale13
I0928 09:32:12.565726  4247 net.cpp:406] Scale13 <- Convolution13
I0928 09:32:12.565728  4247 net.cpp:367] Scale13 -> Convolution13 (in-place)
I0928 09:32:12.565754  4247 layer_factory.hpp:77] Creating layer Scale13
I0928 09:32:12.565830  4247 net.cpp:122] Setting up Scale13
I0928 09:32:12.565841  4247 net.cpp:129] Top shape: 100 16 28 28 (1254400)
I0928 09:32:12.565845  4247 net.cpp:137] Memory required for data: 342138000
I0928 09:32:12.565848  4247 layer_factory.hpp:77] Creating layer Eltwise6
I0928 09:32:12.565855  4247 net.cpp:84] Creating Layer Eltwise6
I0928 09:32:12.565857  4247 net.cpp:406] Eltwise6 <- Eltwise5_M2PELU11_0_split_1
I0928 09:32:12.565860  4247 net.cpp:406] Eltwise6 <- Convolution13
I0928 09:32:12.565863  4247 net.cpp:380] Eltwise6 -> Eltwise6
I0928 09:32:12.565882  4247 net.cpp:122] Setting up Eltwise6
I0928 09:32:12.565887  4247 net.cpp:129] Top shape: 100 16 28 28 (1254400)
I0928 09:32:12.565891  4247 net.cpp:137] Memory required for data: 347155600
I0928 09:32:12.565892  4247 layer_factory.hpp:77] Creating layer M2PELU13
I0928 09:32:12.565901  4247 net.cpp:84] Creating Layer M2PELU13
I0928 09:32:12.565903  4247 net.cpp:406] M2PELU13 <- Eltwise6
I0928 09:32:12.565907  4247 net.cpp:367] M2PELU13 -> Eltwise6 (in-place)
I0928 09:32:12.565992  4247 net.cpp:122] Setting up M2PELU13
I0928 09:32:12.565997  4247 net.cpp:129] Top shape: 100 16 28 28 (1254400)
I0928 09:32:12.566000  4247 net.cpp:137] Memory required for data: 352173200
I0928 09:32:12.566004  4247 layer_factory.hpp:77] Creating layer Eltwise6_M2PELU13_0_split
I0928 09:32:12.566009  4247 net.cpp:84] Creating Layer Eltwise6_M2PELU13_0_split
I0928 09:32:12.566011  4247 net.cpp:406] Eltwise6_M2PELU13_0_split <- Eltwise6
I0928 09:32:12.566015  4247 net.cpp:380] Eltwise6_M2PELU13_0_split -> Eltwise6_M2PELU13_0_split_0
I0928 09:32:12.566020  4247 net.cpp:380] Eltwise6_M2PELU13_0_split -> Eltwise6_M2PELU13_0_split_1
I0928 09:32:12.566043  4247 net.cpp:122] Setting up Eltwise6_M2PELU13_0_split
I0928 09:32:12.566048  4247 net.cpp:129] Top shape: 100 16 28 28 (1254400)
I0928 09:32:12.566051  4247 net.cpp:129] Top shape: 100 16 28 28 (1254400)
I0928 09:32:12.566053  4247 net.cpp:137] Memory required for data: 362208400
I0928 09:32:12.566056  4247 layer_factory.hpp:77] Creating layer Convolution14
I0928 09:32:12.566061  4247 net.cpp:84] Creating Layer Convolution14
I0928 09:32:12.566063  4247 net.cpp:406] Convolution14 <- Eltwise6_M2PELU13_0_split_0
I0928 09:32:12.566067  4247 net.cpp:380] Convolution14 -> Convolution14
I0928 09:32:12.566949  4247 net.cpp:122] Setting up Convolution14
I0928 09:32:12.566958  4247 net.cpp:129] Top shape: 100 16 28 28 (1254400)
I0928 09:32:12.566961  4247 net.cpp:137] Memory required for data: 367226000
I0928 09:32:12.566964  4247 layer_factory.hpp:77] Creating layer BatchNorm14
I0928 09:32:12.566970  4247 net.cpp:84] Creating Layer BatchNorm14
I0928 09:32:12.566972  4247 net.cpp:406] BatchNorm14 <- Convolution14
I0928 09:32:12.566977  4247 net.cpp:367] BatchNorm14 -> Convolution14 (in-place)
I0928 09:32:12.567106  4247 net.cpp:122] Setting up BatchNorm14
I0928 09:32:12.567111  4247 net.cpp:129] Top shape: 100 16 28 28 (1254400)
I0928 09:32:12.567112  4247 net.cpp:137] Memory required for data: 372243600
I0928 09:32:12.567117  4247 layer_factory.hpp:77] Creating layer Scale14
I0928 09:32:12.567121  4247 net.cpp:84] Creating Layer Scale14
I0928 09:32:12.567123  4247 net.cpp:406] Scale14 <- Convolution14
I0928 09:32:12.567126  4247 net.cpp:367] Scale14 -> Convolution14 (in-place)
I0928 09:32:12.567152  4247 layer_factory.hpp:77] Creating layer Scale14
I0928 09:32:12.567227  4247 net.cpp:122] Setting up Scale14
I0928 09:32:12.567231  4247 net.cpp:129] Top shape: 100 16 28 28 (1254400)
I0928 09:32:12.567234  4247 net.cpp:137] Memory required for data: 377261200
I0928 09:32:12.567237  4247 layer_factory.hpp:77] Creating layer M2PELU14
I0928 09:32:12.567242  4247 net.cpp:84] Creating Layer M2PELU14
I0928 09:32:12.567245  4247 net.cpp:406] M2PELU14 <- Convolution14
I0928 09:32:12.567248  4247 net.cpp:367] M2PELU14 -> Convolution14 (in-place)
I0928 09:32:12.567332  4247 net.cpp:122] Setting up M2PELU14
I0928 09:32:12.567337  4247 net.cpp:129] Top shape: 100 16 28 28 (1254400)
I0928 09:32:12.567338  4247 net.cpp:137] Memory required for data: 382278800
I0928 09:32:12.567348  4247 layer_factory.hpp:77] Creating layer Convolution15
I0928 09:32:12.567356  4247 net.cpp:84] Creating Layer Convolution15
I0928 09:32:12.567358  4247 net.cpp:406] Convolution15 <- Convolution14
I0928 09:32:12.567363  4247 net.cpp:380] Convolution15 -> Convolution15
I0928 09:32:12.568224  4247 net.cpp:122] Setting up Convolution15
I0928 09:32:12.568233  4247 net.cpp:129] Top shape: 100 16 28 28 (1254400)
I0928 09:32:12.568235  4247 net.cpp:137] Memory required for data: 387296400
I0928 09:32:12.568239  4247 layer_factory.hpp:77] Creating layer BatchNorm15
I0928 09:32:12.568245  4247 net.cpp:84] Creating Layer BatchNorm15
I0928 09:32:12.568248  4247 net.cpp:406] BatchNorm15 <- Convolution15
I0928 09:32:12.568253  4247 net.cpp:367] BatchNorm15 -> Convolution15 (in-place)
I0928 09:32:12.568382  4247 net.cpp:122] Setting up BatchNorm15
I0928 09:32:12.568387  4247 net.cpp:129] Top shape: 100 16 28 28 (1254400)
I0928 09:32:12.568388  4247 net.cpp:137] Memory required for data: 392314000
I0928 09:32:12.568403  4247 layer_factory.hpp:77] Creating layer Scale15
I0928 09:32:12.568408  4247 net.cpp:84] Creating Layer Scale15
I0928 09:32:12.568409  4247 net.cpp:406] Scale15 <- Convolution15
I0928 09:32:12.568413  4247 net.cpp:367] Scale15 -> Convolution15 (in-place)
I0928 09:32:12.568439  4247 layer_factory.hpp:77] Creating layer Scale15
I0928 09:32:12.568513  4247 net.cpp:122] Setting up Scale15
I0928 09:32:12.568518  4247 net.cpp:129] Top shape: 100 16 28 28 (1254400)
I0928 09:32:12.568521  4247 net.cpp:137] Memory required for data: 397331600
I0928 09:32:12.568523  4247 layer_factory.hpp:77] Creating layer Eltwise7
I0928 09:32:12.568527  4247 net.cpp:84] Creating Layer Eltwise7
I0928 09:32:12.568529  4247 net.cpp:406] Eltwise7 <- Eltwise6_M2PELU13_0_split_1
I0928 09:32:12.568532  4247 net.cpp:406] Eltwise7 <- Convolution15
I0928 09:32:12.568537  4247 net.cpp:380] Eltwise7 -> Eltwise7
I0928 09:32:12.568552  4247 net.cpp:122] Setting up Eltwise7
I0928 09:32:12.568557  4247 net.cpp:129] Top shape: 100 16 28 28 (1254400)
I0928 09:32:12.568558  4247 net.cpp:137] Memory required for data: 402349200
I0928 09:32:12.568560  4247 layer_factory.hpp:77] Creating layer M2PELU15
I0928 09:32:12.568564  4247 net.cpp:84] Creating Layer M2PELU15
I0928 09:32:12.568567  4247 net.cpp:406] M2PELU15 <- Eltwise7
I0928 09:32:12.568570  4247 net.cpp:367] M2PELU15 -> Eltwise7 (in-place)
I0928 09:32:12.568653  4247 net.cpp:122] Setting up M2PELU15
I0928 09:32:12.568657  4247 net.cpp:129] Top shape: 100 16 28 28 (1254400)
I0928 09:32:12.568660  4247 net.cpp:137] Memory required for data: 407366800
I0928 09:32:12.568663  4247 layer_factory.hpp:77] Creating layer Eltwise7_M2PELU15_0_split
I0928 09:32:12.568666  4247 net.cpp:84] Creating Layer Eltwise7_M2PELU15_0_split
I0928 09:32:12.568668  4247 net.cpp:406] Eltwise7_M2PELU15_0_split <- Eltwise7
I0928 09:32:12.568672  4247 net.cpp:380] Eltwise7_M2PELU15_0_split -> Eltwise7_M2PELU15_0_split_0
I0928 09:32:12.568676  4247 net.cpp:380] Eltwise7_M2PELU15_0_split -> Eltwise7_M2PELU15_0_split_1
I0928 09:32:12.568697  4247 net.cpp:122] Setting up Eltwise7_M2PELU15_0_split
I0928 09:32:12.568701  4247 net.cpp:129] Top shape: 100 16 28 28 (1254400)
I0928 09:32:12.568704  4247 net.cpp:129] Top shape: 100 16 28 28 (1254400)
I0928 09:32:12.568706  4247 net.cpp:137] Memory required for data: 417402000
I0928 09:32:12.568708  4247 layer_factory.hpp:77] Creating layer Convolution16
I0928 09:32:12.568714  4247 net.cpp:84] Creating Layer Convolution16
I0928 09:32:12.568717  4247 net.cpp:406] Convolution16 <- Eltwise7_M2PELU15_0_split_0
I0928 09:32:12.568720  4247 net.cpp:380] Convolution16 -> Convolution16
I0928 09:32:12.569572  4247 net.cpp:122] Setting up Convolution16
I0928 09:32:12.569581  4247 net.cpp:129] Top shape: 100 16 28 28 (1254400)
I0928 09:32:12.569583  4247 net.cpp:137] Memory required for data: 422419600
I0928 09:32:12.569587  4247 layer_factory.hpp:77] Creating layer BatchNorm16
I0928 09:32:12.569592  4247 net.cpp:84] Creating Layer BatchNorm16
I0928 09:32:12.569595  4247 net.cpp:406] BatchNorm16 <- Convolution16
I0928 09:32:12.569604  4247 net.cpp:367] BatchNorm16 -> Convolution16 (in-place)
I0928 09:32:12.569735  4247 net.cpp:122] Setting up BatchNorm16
I0928 09:32:12.569738  4247 net.cpp:129] Top shape: 100 16 28 28 (1254400)
I0928 09:32:12.569741  4247 net.cpp:137] Memory required for data: 427437200
I0928 09:32:12.569746  4247 layer_factory.hpp:77] Creating layer Scale16
I0928 09:32:12.569749  4247 net.cpp:84] Creating Layer Scale16
I0928 09:32:12.569751  4247 net.cpp:406] Scale16 <- Convolution16
I0928 09:32:12.569754  4247 net.cpp:367] Scale16 -> Convolution16 (in-place)
I0928 09:32:12.569782  4247 layer_factory.hpp:77] Creating layer Scale16
I0928 09:32:12.569857  4247 net.cpp:122] Setting up Scale16
I0928 09:32:12.569861  4247 net.cpp:129] Top shape: 100 16 28 28 (1254400)
I0928 09:32:12.569864  4247 net.cpp:137] Memory required for data: 432454800
I0928 09:32:12.569867  4247 layer_factory.hpp:77] Creating layer M2PELU16
I0928 09:32:12.569872  4247 net.cpp:84] Creating Layer M2PELU16
I0928 09:32:12.569875  4247 net.cpp:406] M2PELU16 <- Convolution16
I0928 09:32:12.569877  4247 net.cpp:367] M2PELU16 -> Convolution16 (in-place)
I0928 09:32:12.569958  4247 net.cpp:122] Setting up M2PELU16
I0928 09:32:12.569963  4247 net.cpp:129] Top shape: 100 16 28 28 (1254400)
I0928 09:32:12.569965  4247 net.cpp:137] Memory required for data: 437472400
I0928 09:32:12.569968  4247 layer_factory.hpp:77] Creating layer Convolution17
I0928 09:32:12.569975  4247 net.cpp:84] Creating Layer Convolution17
I0928 09:32:12.569977  4247 net.cpp:406] Convolution17 <- Convolution16
I0928 09:32:12.569983  4247 net.cpp:380] Convolution17 -> Convolution17
I0928 09:32:12.570543  4247 net.cpp:122] Setting up Convolution17
I0928 09:32:12.570550  4247 net.cpp:129] Top shape: 100 16 28 28 (1254400)
I0928 09:32:12.570554  4247 net.cpp:137] Memory required for data: 442490000
I0928 09:32:12.570566  4247 layer_factory.hpp:77] Creating layer BatchNorm17
I0928 09:32:12.570571  4247 net.cpp:84] Creating Layer BatchNorm17
I0928 09:32:12.570574  4247 net.cpp:406] BatchNorm17 <- Convolution17
I0928 09:32:12.570577  4247 net.cpp:367] BatchNorm17 -> Convolution17 (in-place)
I0928 09:32:12.570704  4247 net.cpp:122] Setting up BatchNorm17
I0928 09:32:12.570708  4247 net.cpp:129] Top shape: 100 16 28 28 (1254400)
I0928 09:32:12.570710  4247 net.cpp:137] Memory required for data: 447507600
I0928 09:32:12.570714  4247 layer_factory.hpp:77] Creating layer Scale17
I0928 09:32:12.570719  4247 net.cpp:84] Creating Layer Scale17
I0928 09:32:12.570721  4247 net.cpp:406] Scale17 <- Convolution17
I0928 09:32:12.570724  4247 net.cpp:367] Scale17 -> Convolution17 (in-place)
I0928 09:32:12.570749  4247 layer_factory.hpp:77] Creating layer Scale17
I0928 09:32:12.570823  4247 net.cpp:122] Setting up Scale17
I0928 09:32:12.570827  4247 net.cpp:129] Top shape: 100 16 28 28 (1254400)
I0928 09:32:12.570829  4247 net.cpp:137] Memory required for data: 452525200
I0928 09:32:12.570832  4247 layer_factory.hpp:77] Creating layer Eltwise8
I0928 09:32:12.570837  4247 net.cpp:84] Creating Layer Eltwise8
I0928 09:32:12.570838  4247 net.cpp:406] Eltwise8 <- Eltwise7_M2PELU15_0_split_1
I0928 09:32:12.570842  4247 net.cpp:406] Eltwise8 <- Convolution17
I0928 09:32:12.570845  4247 net.cpp:380] Eltwise8 -> Eltwise8
I0928 09:32:12.570859  4247 net.cpp:122] Setting up Eltwise8
I0928 09:32:12.570863  4247 net.cpp:129] Top shape: 100 16 28 28 (1254400)
I0928 09:32:12.570864  4247 net.cpp:137] Memory required for data: 457542800
I0928 09:32:12.570866  4247 layer_factory.hpp:77] Creating layer M2PELU17
I0928 09:32:12.570871  4247 net.cpp:84] Creating Layer M2PELU17
I0928 09:32:12.570873  4247 net.cpp:406] M2PELU17 <- Eltwise8
I0928 09:32:12.570876  4247 net.cpp:367] M2PELU17 -> Eltwise8 (in-place)
I0928 09:32:12.570960  4247 net.cpp:122] Setting up M2PELU17
I0928 09:32:12.570964  4247 net.cpp:129] Top shape: 100 16 28 28 (1254400)
I0928 09:32:12.570966  4247 net.cpp:137] Memory required for data: 462560400
I0928 09:32:12.570969  4247 layer_factory.hpp:77] Creating layer Eltwise8_M2PELU17_0_split
I0928 09:32:12.570981  4247 net.cpp:84] Creating Layer Eltwise8_M2PELU17_0_split
I0928 09:32:12.570983  4247 net.cpp:406] Eltwise8_M2PELU17_0_split <- Eltwise8
I0928 09:32:12.570986  4247 net.cpp:380] Eltwise8_M2PELU17_0_split -> Eltwise8_M2PELU17_0_split_0
I0928 09:32:12.570991  4247 net.cpp:380] Eltwise8_M2PELU17_0_split -> Eltwise8_M2PELU17_0_split_1
I0928 09:32:12.571012  4247 net.cpp:122] Setting up Eltwise8_M2PELU17_0_split
I0928 09:32:12.571017  4247 net.cpp:129] Top shape: 100 16 28 28 (1254400)
I0928 09:32:12.571019  4247 net.cpp:129] Top shape: 100 16 28 28 (1254400)
I0928 09:32:12.571022  4247 net.cpp:137] Memory required for data: 472595600
I0928 09:32:12.571023  4247 layer_factory.hpp:77] Creating layer Convolution18
I0928 09:32:12.571029  4247 net.cpp:84] Creating Layer Convolution18
I0928 09:32:12.571032  4247 net.cpp:406] Convolution18 <- Eltwise8_M2PELU17_0_split_0
I0928 09:32:12.571035  4247 net.cpp:380] Convolution18 -> Convolution18
I0928 09:32:12.571889  4247 net.cpp:122] Setting up Convolution18
I0928 09:32:12.571897  4247 net.cpp:129] Top shape: 100 16 28 28 (1254400)
I0928 09:32:12.571899  4247 net.cpp:137] Memory required for data: 477613200
I0928 09:32:12.571904  4247 layer_factory.hpp:77] Creating layer BatchNorm18
I0928 09:32:12.571909  4247 net.cpp:84] Creating Layer BatchNorm18
I0928 09:32:12.571912  4247 net.cpp:406] BatchNorm18 <- Convolution18
I0928 09:32:12.571915  4247 net.cpp:367] BatchNorm18 -> Convolution18 (in-place)
I0928 09:32:12.572046  4247 net.cpp:122] Setting up BatchNorm18
I0928 09:32:12.572051  4247 net.cpp:129] Top shape: 100 16 28 28 (1254400)
I0928 09:32:12.572052  4247 net.cpp:137] Memory required for data: 482630800
I0928 09:32:12.572057  4247 layer_factory.hpp:77] Creating layer Scale18
I0928 09:32:12.572062  4247 net.cpp:84] Creating Layer Scale18
I0928 09:32:12.572064  4247 net.cpp:406] Scale18 <- Convolution18
I0928 09:32:12.572067  4247 net.cpp:367] Scale18 -> Convolution18 (in-place)
I0928 09:32:12.572093  4247 layer_factory.hpp:77] Creating layer Scale18
I0928 09:32:12.572167  4247 net.cpp:122] Setting up Scale18
I0928 09:32:12.572172  4247 net.cpp:129] Top shape: 100 16 28 28 (1254400)
I0928 09:32:12.572175  4247 net.cpp:137] Memory required for data: 487648400
I0928 09:32:12.572177  4247 layer_factory.hpp:77] Creating layer M2PELU18
I0928 09:32:12.572182  4247 net.cpp:84] Creating Layer M2PELU18
I0928 09:32:12.572185  4247 net.cpp:406] M2PELU18 <- Convolution18
I0928 09:32:12.572188  4247 net.cpp:367] M2PELU18 -> Convolution18 (in-place)
I0928 09:32:12.572271  4247 net.cpp:122] Setting up M2PELU18
I0928 09:32:12.572275  4247 net.cpp:129] Top shape: 100 16 28 28 (1254400)
I0928 09:32:12.572278  4247 net.cpp:137] Memory required for data: 492666000
I0928 09:32:12.572281  4247 layer_factory.hpp:77] Creating layer Convolution19
I0928 09:32:12.572288  4247 net.cpp:84] Creating Layer Convolution19
I0928 09:32:12.572289  4247 net.cpp:406] Convolution19 <- Convolution18
I0928 09:32:12.572293  4247 net.cpp:380] Convolution19 -> Convolution19
I0928 09:32:12.573165  4247 net.cpp:122] Setting up Convolution19
I0928 09:32:12.573174  4247 net.cpp:129] Top shape: 100 16 28 28 (1254400)
I0928 09:32:12.573176  4247 net.cpp:137] Memory required for data: 497683600
I0928 09:32:12.573181  4247 layer_factory.hpp:77] Creating layer BatchNorm19
I0928 09:32:12.573186  4247 net.cpp:84] Creating Layer BatchNorm19
I0928 09:32:12.573189  4247 net.cpp:406] BatchNorm19 <- Convolution19
I0928 09:32:12.573192  4247 net.cpp:367] BatchNorm19 -> Convolution19 (in-place)
I0928 09:32:12.573321  4247 net.cpp:122] Setting up BatchNorm19
I0928 09:32:12.573325  4247 net.cpp:129] Top shape: 100 16 28 28 (1254400)
I0928 09:32:12.573328  4247 net.cpp:137] Memory required for data: 502701200
I0928 09:32:12.573333  4247 layer_factory.hpp:77] Creating layer Scale19
I0928 09:32:12.573335  4247 net.cpp:84] Creating Layer Scale19
I0928 09:32:12.573338  4247 net.cpp:406] Scale19 <- Convolution19
I0928 09:32:12.573341  4247 net.cpp:367] Scale19 -> Convolution19 (in-place)
I0928 09:32:12.573367  4247 layer_factory.hpp:77] Creating layer Scale19
I0928 09:32:12.573451  4247 net.cpp:122] Setting up Scale19
I0928 09:32:12.573454  4247 net.cpp:129] Top shape: 100 16 28 28 (1254400)
I0928 09:32:12.573457  4247 net.cpp:137] Memory required for data: 507718800
I0928 09:32:12.573460  4247 layer_factory.hpp:77] Creating layer Eltwise9
I0928 09:32:12.573465  4247 net.cpp:84] Creating Layer Eltwise9
I0928 09:32:12.573467  4247 net.cpp:406] Eltwise9 <- Eltwise8_M2PELU17_0_split_1
I0928 09:32:12.573470  4247 net.cpp:406] Eltwise9 <- Convolution19
I0928 09:32:12.573473  4247 net.cpp:380] Eltwise9 -> Eltwise9
I0928 09:32:12.573488  4247 net.cpp:122] Setting up Eltwise9
I0928 09:32:12.573493  4247 net.cpp:129] Top shape: 100 16 28 28 (1254400)
I0928 09:32:12.573494  4247 net.cpp:137] Memory required for data: 512736400
I0928 09:32:12.573496  4247 layer_factory.hpp:77] Creating layer M2PELU19
I0928 09:32:12.573500  4247 net.cpp:84] Creating Layer M2PELU19
I0928 09:32:12.573503  4247 net.cpp:406] M2PELU19 <- Eltwise9
I0928 09:32:12.573505  4247 net.cpp:367] M2PELU19 -> Eltwise9 (in-place)
I0928 09:32:12.573587  4247 net.cpp:122] Setting up M2PELU19
I0928 09:32:12.573592  4247 net.cpp:129] Top shape: 100 16 28 28 (1254400)
I0928 09:32:12.573595  4247 net.cpp:137] Memory required for data: 517754000
I0928 09:32:12.573597  4247 layer_factory.hpp:77] Creating layer Eltwise9_M2PELU19_0_split
I0928 09:32:12.573601  4247 net.cpp:84] Creating Layer Eltwise9_M2PELU19_0_split
I0928 09:32:12.573603  4247 net.cpp:406] Eltwise9_M2PELU19_0_split <- Eltwise9
I0928 09:32:12.573606  4247 net.cpp:380] Eltwise9_M2PELU19_0_split -> Eltwise9_M2PELU19_0_split_0
I0928 09:32:12.573611  4247 net.cpp:380] Eltwise9_M2PELU19_0_split -> Eltwise9_M2PELU19_0_split_1
I0928 09:32:12.573633  4247 net.cpp:122] Setting up Eltwise9_M2PELU19_0_split
I0928 09:32:12.573637  4247 net.cpp:129] Top shape: 100 16 28 28 (1254400)
I0928 09:32:12.573639  4247 net.cpp:129] Top shape: 100 16 28 28 (1254400)
I0928 09:32:12.573642  4247 net.cpp:137] Memory required for data: 527789200
I0928 09:32:12.573643  4247 layer_factory.hpp:77] Creating layer Convolution20
I0928 09:32:12.573650  4247 net.cpp:84] Creating Layer Convolution20
I0928 09:32:12.573653  4247 net.cpp:406] Convolution20 <- Eltwise9_M2PELU19_0_split_0
I0928 09:32:12.573657  4247 net.cpp:380] Convolution20 -> Convolution20
I0928 09:32:12.574836  4247 net.cpp:122] Setting up Convolution20
I0928 09:32:12.574853  4247 net.cpp:129] Top shape: 100 32 14 14 (627200)
I0928 09:32:12.574856  4247 net.cpp:137] Memory required for data: 530298000
I0928 09:32:12.574861  4247 layer_factory.hpp:77] Creating layer BatchNorm20
I0928 09:32:12.574875  4247 net.cpp:84] Creating Layer BatchNorm20
I0928 09:32:12.574878  4247 net.cpp:406] BatchNorm20 <- Convolution20
I0928 09:32:12.574882  4247 net.cpp:367] BatchNorm20 -> Convolution20 (in-place)
I0928 09:32:12.575033  4247 net.cpp:122] Setting up BatchNorm20
I0928 09:32:12.575038  4247 net.cpp:129] Top shape: 100 32 14 14 (627200)
I0928 09:32:12.575040  4247 net.cpp:137] Memory required for data: 532806800
I0928 09:32:12.575045  4247 layer_factory.hpp:77] Creating layer Scale20
I0928 09:32:12.575049  4247 net.cpp:84] Creating Layer Scale20
I0928 09:32:12.575052  4247 net.cpp:406] Scale20 <- Convolution20
I0928 09:32:12.575054  4247 net.cpp:367] Scale20 -> Convolution20 (in-place)
I0928 09:32:12.575081  4247 layer_factory.hpp:77] Creating layer Scale20
I0928 09:32:12.575156  4247 net.cpp:122] Setting up Scale20
I0928 09:32:12.575161  4247 net.cpp:129] Top shape: 100 32 14 14 (627200)
I0928 09:32:12.575163  4247 net.cpp:137] Memory required for data: 535315600
I0928 09:32:12.575167  4247 layer_factory.hpp:77] Creating layer Convolution21
I0928 09:32:12.575173  4247 net.cpp:84] Creating Layer Convolution21
I0928 09:32:12.575176  4247 net.cpp:406] Convolution21 <- Eltwise9_M2PELU19_0_split_1
I0928 09:32:12.575181  4247 net.cpp:380] Convolution21 -> Convolution21
I0928 09:32:12.576954  4247 net.cpp:122] Setting up Convolution21
I0928 09:32:12.576963  4247 net.cpp:129] Top shape: 100 32 14 14 (627200)
I0928 09:32:12.576972  4247 net.cpp:137] Memory required for data: 537824400
I0928 09:32:12.576977  4247 layer_factory.hpp:77] Creating layer BatchNorm21
I0928 09:32:12.576982  4247 net.cpp:84] Creating Layer BatchNorm21
I0928 09:32:12.576985  4247 net.cpp:406] BatchNorm21 <- Convolution21
I0928 09:32:12.576989  4247 net.cpp:367] BatchNorm21 -> Convolution21 (in-place)
I0928 09:32:12.577124  4247 net.cpp:122] Setting up BatchNorm21
I0928 09:32:12.577139  4247 net.cpp:129] Top shape: 100 32 14 14 (627200)
I0928 09:32:12.577142  4247 net.cpp:137] Memory required for data: 540333200
I0928 09:32:12.577147  4247 layer_factory.hpp:77] Creating layer Scale21
I0928 09:32:12.577150  4247 net.cpp:84] Creating Layer Scale21
I0928 09:32:12.577153  4247 net.cpp:406] Scale21 <- Convolution21
I0928 09:32:12.577157  4247 net.cpp:367] Scale21 -> Convolution21 (in-place)
I0928 09:32:12.577183  4247 layer_factory.hpp:77] Creating layer Scale21
I0928 09:32:12.577312  4247 net.cpp:122] Setting up Scale21
I0928 09:32:12.577316  4247 net.cpp:129] Top shape: 100 32 14 14 (627200)
I0928 09:32:12.577318  4247 net.cpp:137] Memory required for data: 542842000
I0928 09:32:12.577323  4247 layer_factory.hpp:77] Creating layer M2PELU20
I0928 09:32:12.577337  4247 net.cpp:84] Creating Layer M2PELU20
I0928 09:32:12.577339  4247 net.cpp:406] M2PELU20 <- Convolution21
I0928 09:32:12.577342  4247 net.cpp:367] M2PELU20 -> Convolution21 (in-place)
I0928 09:32:12.577428  4247 net.cpp:122] Setting up M2PELU20
I0928 09:32:12.577433  4247 net.cpp:129] Top shape: 100 32 14 14 (627200)
I0928 09:32:12.577435  4247 net.cpp:137] Memory required for data: 545350800
I0928 09:32:12.577438  4247 layer_factory.hpp:77] Creating layer Convolution22
I0928 09:32:12.577445  4247 net.cpp:84] Creating Layer Convolution22
I0928 09:32:12.577448  4247 net.cpp:406] Convolution22 <- Convolution21
I0928 09:32:12.577451  4247 net.cpp:380] Convolution22 -> Convolution22
I0928 09:32:12.578514  4247 net.cpp:122] Setting up Convolution22
I0928 09:32:12.578527  4247 net.cpp:129] Top shape: 100 32 14 14 (627200)
I0928 09:32:12.578531  4247 net.cpp:137] Memory required for data: 547859600
I0928 09:32:12.578536  4247 layer_factory.hpp:77] Creating layer BatchNorm22
I0928 09:32:12.578541  4247 net.cpp:84] Creating Layer BatchNorm22
I0928 09:32:12.578543  4247 net.cpp:406] BatchNorm22 <- Convolution22
I0928 09:32:12.578557  4247 net.cpp:367] BatchNorm22 -> Convolution22 (in-place)
I0928 09:32:12.578709  4247 net.cpp:122] Setting up BatchNorm22
I0928 09:32:12.578714  4247 net.cpp:129] Top shape: 100 32 14 14 (627200)
I0928 09:32:12.578716  4247 net.cpp:137] Memory required for data: 550368400
I0928 09:32:12.578722  4247 layer_factory.hpp:77] Creating layer Scale22
I0928 09:32:12.578727  4247 net.cpp:84] Creating Layer Scale22
I0928 09:32:12.578728  4247 net.cpp:406] Scale22 <- Convolution22
I0928 09:32:12.578732  4247 net.cpp:367] Scale22 -> Convolution22 (in-place)
I0928 09:32:12.578758  4247 layer_factory.hpp:77] Creating layer Scale22
I0928 09:32:12.578832  4247 net.cpp:122] Setting up Scale22
I0928 09:32:12.578836  4247 net.cpp:129] Top shape: 100 32 14 14 (627200)
I0928 09:32:12.578848  4247 net.cpp:137] Memory required for data: 552877200
I0928 09:32:12.578852  4247 layer_factory.hpp:77] Creating layer Eltwise10
I0928 09:32:12.578856  4247 net.cpp:84] Creating Layer Eltwise10
I0928 09:32:12.578860  4247 net.cpp:406] Eltwise10 <- Convolution20
I0928 09:32:12.578861  4247 net.cpp:406] Eltwise10 <- Convolution22
I0928 09:32:12.578866  4247 net.cpp:380] Eltwise10 -> Eltwise10
I0928 09:32:12.578881  4247 net.cpp:122] Setting up Eltwise10
I0928 09:32:12.578886  4247 net.cpp:129] Top shape: 100 32 14 14 (627200)
I0928 09:32:12.578887  4247 net.cpp:137] Memory required for data: 555386000
I0928 09:32:12.578889  4247 layer_factory.hpp:77] Creating layer M2PELU21
I0928 09:32:12.578894  4247 net.cpp:84] Creating Layer M2PELU21
I0928 09:32:12.578896  4247 net.cpp:406] M2PELU21 <- Eltwise10
I0928 09:32:12.578899  4247 net.cpp:367] M2PELU21 -> Eltwise10 (in-place)
I0928 09:32:12.578984  4247 net.cpp:122] Setting up M2PELU21
I0928 09:32:12.578995  4247 net.cpp:129] Top shape: 100 32 14 14 (627200)
I0928 09:32:12.578997  4247 net.cpp:137] Memory required for data: 557894800
I0928 09:32:12.579001  4247 layer_factory.hpp:77] Creating layer Eltwise10_M2PELU21_0_split
I0928 09:32:12.579005  4247 net.cpp:84] Creating Layer Eltwise10_M2PELU21_0_split
I0928 09:32:12.579007  4247 net.cpp:406] Eltwise10_M2PELU21_0_split <- Eltwise10
I0928 09:32:12.579012  4247 net.cpp:380] Eltwise10_M2PELU21_0_split -> Eltwise10_M2PELU21_0_split_0
I0928 09:32:12.579016  4247 net.cpp:380] Eltwise10_M2PELU21_0_split -> Eltwise10_M2PELU21_0_split_1
I0928 09:32:12.579041  4247 net.cpp:122] Setting up Eltwise10_M2PELU21_0_split
I0928 09:32:12.579044  4247 net.cpp:129] Top shape: 100 32 14 14 (627200)
I0928 09:32:12.579046  4247 net.cpp:129] Top shape: 100 32 14 14 (627200)
I0928 09:32:12.579048  4247 net.cpp:137] Memory required for data: 562912400
I0928 09:32:12.579051  4247 layer_factory.hpp:77] Creating layer Convolution23
I0928 09:32:12.579057  4247 net.cpp:84] Creating Layer Convolution23
I0928 09:32:12.579059  4247 net.cpp:406] Convolution23 <- Eltwise10_M2PELU21_0_split_0
I0928 09:32:12.579063  4247 net.cpp:380] Convolution23 -> Convolution23
I0928 09:32:12.580418  4247 net.cpp:122] Setting up Convolution23
I0928 09:32:12.580427  4247 net.cpp:129] Top shape: 100 32 14 14 (627200)
I0928 09:32:12.580430  4247 net.cpp:137] Memory required for data: 565421200
I0928 09:32:12.580435  4247 layer_factory.hpp:77] Creating layer BatchNorm23
I0928 09:32:12.580440  4247 net.cpp:84] Creating Layer BatchNorm23
I0928 09:32:12.580442  4247 net.cpp:406] BatchNorm23 <- Convolution23
I0928 09:32:12.580446  4247 net.cpp:367] BatchNorm23 -> Convolution23 (in-place)
I0928 09:32:12.580584  4247 net.cpp:122] Setting up BatchNorm23
I0928 09:32:12.580587  4247 net.cpp:129] Top shape: 100 32 14 14 (627200)
I0928 09:32:12.580590  4247 net.cpp:137] Memory required for data: 567930000
I0928 09:32:12.580595  4247 layer_factory.hpp:77] Creating layer Scale23
I0928 09:32:12.580598  4247 net.cpp:84] Creating Layer Scale23
I0928 09:32:12.580600  4247 net.cpp:406] Scale23 <- Convolution23
I0928 09:32:12.580605  4247 net.cpp:367] Scale23 -> Convolution23 (in-place)
I0928 09:32:12.580631  4247 layer_factory.hpp:77] Creating layer Scale23
I0928 09:32:12.580708  4247 net.cpp:122] Setting up Scale23
I0928 09:32:12.580713  4247 net.cpp:129] Top shape: 100 32 14 14 (627200)
I0928 09:32:12.580715  4247 net.cpp:137] Memory required for data: 570438800
I0928 09:32:12.580719  4247 layer_factory.hpp:77] Creating layer M2PELU22
I0928 09:32:12.580724  4247 net.cpp:84] Creating Layer M2PELU22
I0928 09:32:12.580727  4247 net.cpp:406] M2PELU22 <- Convolution23
I0928 09:32:12.580730  4247 net.cpp:367] M2PELU22 -> Convolution23 (in-place)
I0928 09:32:12.580813  4247 net.cpp:122] Setting up M2PELU22
I0928 09:32:12.580818  4247 net.cpp:129] Top shape: 100 32 14 14 (627200)
I0928 09:32:12.580821  4247 net.cpp:137] Memory required for data: 572947600
I0928 09:32:12.580824  4247 layer_factory.hpp:77] Creating layer Convolution24
I0928 09:32:12.580831  4247 net.cpp:84] Creating Layer Convolution24
I0928 09:32:12.580832  4247 net.cpp:406] Convolution24 <- Convolution23
I0928 09:32:12.580837  4247 net.cpp:380] Convolution24 -> Convolution24
I0928 09:32:12.581887  4247 net.cpp:122] Setting up Convolution24
I0928 09:32:12.581894  4247 net.cpp:129] Top shape: 100 32 14 14 (627200)
I0928 09:32:12.581897  4247 net.cpp:137] Memory required for data: 575456400
I0928 09:32:12.581902  4247 layer_factory.hpp:77] Creating layer BatchNorm24
I0928 09:32:12.581907  4247 net.cpp:84] Creating Layer BatchNorm24
I0928 09:32:12.581910  4247 net.cpp:406] BatchNorm24 <- Convolution24
I0928 09:32:12.581913  4247 net.cpp:367] BatchNorm24 -> Convolution24 (in-place)
I0928 09:32:12.582051  4247 net.cpp:122] Setting up BatchNorm24
I0928 09:32:12.582056  4247 net.cpp:129] Top shape: 100 32 14 14 (627200)
I0928 09:32:12.582057  4247 net.cpp:137] Memory required for data: 577965200
I0928 09:32:12.582062  4247 layer_factory.hpp:77] Creating layer Scale24
I0928 09:32:12.582073  4247 net.cpp:84] Creating Layer Scale24
I0928 09:32:12.582077  4247 net.cpp:406] Scale24 <- Convolution24
I0928 09:32:12.582079  4247 net.cpp:367] Scale24 -> Convolution24 (in-place)
I0928 09:32:12.582106  4247 layer_factory.hpp:77] Creating layer Scale24
I0928 09:32:12.582185  4247 net.cpp:122] Setting up Scale24
I0928 09:32:12.582190  4247 net.cpp:129] Top shape: 100 32 14 14 (627200)
I0928 09:32:12.582191  4247 net.cpp:137] Memory required for data: 580474000
I0928 09:32:12.582195  4247 layer_factory.hpp:77] Creating layer Eltwise11
I0928 09:32:12.582200  4247 net.cpp:84] Creating Layer Eltwise11
I0928 09:32:12.582202  4247 net.cpp:406] Eltwise11 <- Eltwise10_M2PELU21_0_split_1
I0928 09:32:12.582206  4247 net.cpp:406] Eltwise11 <- Convolution24
I0928 09:32:12.582208  4247 net.cpp:380] Eltwise11 -> Eltwise11
I0928 09:32:12.582224  4247 net.cpp:122] Setting up Eltwise11
I0928 09:32:12.582228  4247 net.cpp:129] Top shape: 100 32 14 14 (627200)
I0928 09:32:12.582231  4247 net.cpp:137] Memory required for data: 582982800
I0928 09:32:12.582232  4247 layer_factory.hpp:77] Creating layer M2PELU23
I0928 09:32:12.582237  4247 net.cpp:84] Creating Layer M2PELU23
I0928 09:32:12.582239  4247 net.cpp:406] M2PELU23 <- Eltwise11
I0928 09:32:12.582243  4247 net.cpp:367] M2PELU23 -> Eltwise11 (in-place)
I0928 09:32:12.582327  4247 net.cpp:122] Setting up M2PELU23
I0928 09:32:12.582332  4247 net.cpp:129] Top shape: 100 32 14 14 (627200)
I0928 09:32:12.582334  4247 net.cpp:137] Memory required for data: 585491600
I0928 09:32:12.582337  4247 layer_factory.hpp:77] Creating layer Eltwise11_M2PELU23_0_split
I0928 09:32:12.582342  4247 net.cpp:84] Creating Layer Eltwise11_M2PELU23_0_split
I0928 09:32:12.582345  4247 net.cpp:406] Eltwise11_M2PELU23_0_split <- Eltwise11
I0928 09:32:12.582348  4247 net.cpp:380] Eltwise11_M2PELU23_0_split -> Eltwise11_M2PELU23_0_split_0
I0928 09:32:12.582352  4247 net.cpp:380] Eltwise11_M2PELU23_0_split -> Eltwise11_M2PELU23_0_split_1
I0928 09:32:12.582376  4247 net.cpp:122] Setting up Eltwise11_M2PELU23_0_split
I0928 09:32:12.582381  4247 net.cpp:129] Top shape: 100 32 14 14 (627200)
I0928 09:32:12.582382  4247 net.cpp:129] Top shape: 100 32 14 14 (627200)
I0928 09:32:12.582384  4247 net.cpp:137] Memory required for data: 590509200
I0928 09:32:12.582386  4247 layer_factory.hpp:77] Creating layer Convolution25
I0928 09:32:12.582392  4247 net.cpp:84] Creating Layer Convolution25
I0928 09:32:12.582394  4247 net.cpp:406] Convolution25 <- Eltwise11_M2PELU23_0_split_0
I0928 09:32:12.582399  4247 net.cpp:380] Convolution25 -> Convolution25
I0928 09:32:12.583441  4247 net.cpp:122] Setting up Convolution25
I0928 09:32:12.583451  4247 net.cpp:129] Top shape: 100 32 14 14 (627200)
I0928 09:32:12.583453  4247 net.cpp:137] Memory required for data: 593018000
I0928 09:32:12.583457  4247 layer_factory.hpp:77] Creating layer BatchNorm25
I0928 09:32:12.583463  4247 net.cpp:84] Creating Layer BatchNorm25
I0928 09:32:12.583465  4247 net.cpp:406] BatchNorm25 <- Convolution25
I0928 09:32:12.583469  4247 net.cpp:367] BatchNorm25 -> Convolution25 (in-place)
I0928 09:32:12.583602  4247 net.cpp:122] Setting up BatchNorm25
I0928 09:32:12.583607  4247 net.cpp:129] Top shape: 100 32 14 14 (627200)
I0928 09:32:12.583609  4247 net.cpp:137] Memory required for data: 595526800
I0928 09:32:12.583614  4247 layer_factory.hpp:77] Creating layer Scale25
I0928 09:32:12.583618  4247 net.cpp:84] Creating Layer Scale25
I0928 09:32:12.583621  4247 net.cpp:406] Scale25 <- Convolution25
I0928 09:32:12.583623  4247 net.cpp:367] Scale25 -> Convolution25 (in-place)
I0928 09:32:12.583650  4247 layer_factory.hpp:77] Creating layer Scale25
I0928 09:32:12.583725  4247 net.cpp:122] Setting up Scale25
I0928 09:32:12.583729  4247 net.cpp:129] Top shape: 100 32 14 14 (627200)
I0928 09:32:12.583731  4247 net.cpp:137] Memory required for data: 598035600
I0928 09:32:12.583735  4247 layer_factory.hpp:77] Creating layer M2PELU24
I0928 09:32:12.583740  4247 net.cpp:84] Creating Layer M2PELU24
I0928 09:32:12.583742  4247 net.cpp:406] M2PELU24 <- Convolution25
I0928 09:32:12.583753  4247 net.cpp:367] M2PELU24 -> Convolution25 (in-place)
I0928 09:32:12.583839  4247 net.cpp:122] Setting up M2PELU24
I0928 09:32:12.583843  4247 net.cpp:129] Top shape: 100 32 14 14 (627200)
I0928 09:32:12.583845  4247 net.cpp:137] Memory required for data: 600544400
I0928 09:32:12.583849  4247 layer_factory.hpp:77] Creating layer Convolution26
I0928 09:32:12.583856  4247 net.cpp:84] Creating Layer Convolution26
I0928 09:32:12.583858  4247 net.cpp:406] Convolution26 <- Convolution25
I0928 09:32:12.583863  4247 net.cpp:380] Convolution26 -> Convolution26
I0928 09:32:12.584883  4247 net.cpp:122] Setting up Convolution26
I0928 09:32:12.584892  4247 net.cpp:129] Top shape: 100 32 14 14 (627200)
I0928 09:32:12.584893  4247 net.cpp:137] Memory required for data: 603053200
I0928 09:32:12.584898  4247 layer_factory.hpp:77] Creating layer BatchNorm26
I0928 09:32:12.584903  4247 net.cpp:84] Creating Layer BatchNorm26
I0928 09:32:12.584905  4247 net.cpp:406] BatchNorm26 <- Convolution26
I0928 09:32:12.584909  4247 net.cpp:367] BatchNorm26 -> Convolution26 (in-place)
I0928 09:32:12.585042  4247 net.cpp:122] Setting up BatchNorm26
I0928 09:32:12.585047  4247 net.cpp:129] Top shape: 100 32 14 14 (627200)
I0928 09:32:12.585048  4247 net.cpp:137] Memory required for data: 605562000
I0928 09:32:12.585053  4247 layer_factory.hpp:77] Creating layer Scale26
I0928 09:32:12.585057  4247 net.cpp:84] Creating Layer Scale26
I0928 09:32:12.585060  4247 net.cpp:406] Scale26 <- Convolution26
I0928 09:32:12.585063  4247 net.cpp:367] Scale26 -> Convolution26 (in-place)
I0928 09:32:12.585089  4247 layer_factory.hpp:77] Creating layer Scale26
I0928 09:32:12.585165  4247 net.cpp:122] Setting up Scale26
I0928 09:32:12.585170  4247 net.cpp:129] Top shape: 100 32 14 14 (627200)
I0928 09:32:12.585172  4247 net.cpp:137] Memory required for data: 608070800
I0928 09:32:12.585175  4247 layer_factory.hpp:77] Creating layer Eltwise12
I0928 09:32:12.585180  4247 net.cpp:84] Creating Layer Eltwise12
I0928 09:32:12.585183  4247 net.cpp:406] Eltwise12 <- Eltwise11_M2PELU23_0_split_1
I0928 09:32:12.585186  4247 net.cpp:406] Eltwise12 <- Convolution26
I0928 09:32:12.585188  4247 net.cpp:380] Eltwise12 -> Eltwise12
I0928 09:32:12.585204  4247 net.cpp:122] Setting up Eltwise12
I0928 09:32:12.585208  4247 net.cpp:129] Top shape: 100 32 14 14 (627200)
I0928 09:32:12.585211  4247 net.cpp:137] Memory required for data: 610579600
I0928 09:32:12.585212  4247 layer_factory.hpp:77] Creating layer M2PELU25
I0928 09:32:12.585216  4247 net.cpp:84] Creating Layer M2PELU25
I0928 09:32:12.585218  4247 net.cpp:406] M2PELU25 <- Eltwise12
I0928 09:32:12.585222  4247 net.cpp:367] M2PELU25 -> Eltwise12 (in-place)
I0928 09:32:12.585304  4247 net.cpp:122] Setting up M2PELU25
I0928 09:32:12.585309  4247 net.cpp:129] Top shape: 100 32 14 14 (627200)
I0928 09:32:12.585311  4247 net.cpp:137] Memory required for data: 613088400
I0928 09:32:12.585314  4247 layer_factory.hpp:77] Creating layer Eltwise12_M2PELU25_0_split
I0928 09:32:12.585326  4247 net.cpp:84] Creating Layer Eltwise12_M2PELU25_0_split
I0928 09:32:12.585330  4247 net.cpp:406] Eltwise12_M2PELU25_0_split <- Eltwise12
I0928 09:32:12.585333  4247 net.cpp:380] Eltwise12_M2PELU25_0_split -> Eltwise12_M2PELU25_0_split_0
I0928 09:32:12.585341  4247 net.cpp:380] Eltwise12_M2PELU25_0_split -> Eltwise12_M2PELU25_0_split_1
I0928 09:32:12.585366  4247 net.cpp:122] Setting up Eltwise12_M2PELU25_0_split
I0928 09:32:12.585371  4247 net.cpp:129] Top shape: 100 32 14 14 (627200)
I0928 09:32:12.585373  4247 net.cpp:129] Top shape: 100 32 14 14 (627200)
I0928 09:32:12.585376  4247 net.cpp:137] Memory required for data: 618106000
I0928 09:32:12.585378  4247 layer_factory.hpp:77] Creating layer Convolution27
I0928 09:32:12.585384  4247 net.cpp:84] Creating Layer Convolution27
I0928 09:32:12.585386  4247 net.cpp:406] Convolution27 <- Eltwise12_M2PELU25_0_split_0
I0928 09:32:12.585391  4247 net.cpp:380] Convolution27 -> Convolution27
I0928 09:32:12.586087  4247 net.cpp:122] Setting up Convolution27
I0928 09:32:12.586094  4247 net.cpp:129] Top shape: 100 32 14 14 (627200)
I0928 09:32:12.586103  4247 net.cpp:137] Memory required for data: 620614800
I0928 09:32:12.586107  4247 layer_factory.hpp:77] Creating layer BatchNorm27
I0928 09:32:12.586113  4247 net.cpp:84] Creating Layer BatchNorm27
I0928 09:32:12.586117  4247 net.cpp:406] BatchNorm27 <- Convolution27
I0928 09:32:12.586119  4247 net.cpp:367] BatchNorm27 -> Convolution27 (in-place)
I0928 09:32:12.586253  4247 net.cpp:122] Setting up BatchNorm27
I0928 09:32:12.586258  4247 net.cpp:129] Top shape: 100 32 14 14 (627200)
I0928 09:32:12.586261  4247 net.cpp:137] Memory required for data: 623123600
I0928 09:32:12.586264  4247 layer_factory.hpp:77] Creating layer Scale27
I0928 09:32:12.586269  4247 net.cpp:84] Creating Layer Scale27
I0928 09:32:12.586272  4247 net.cpp:406] Scale27 <- Convolution27
I0928 09:32:12.586274  4247 net.cpp:367] Scale27 -> Convolution27 (in-place)
I0928 09:32:12.586300  4247 layer_factory.hpp:77] Creating layer Scale27
I0928 09:32:12.586375  4247 net.cpp:122] Setting up Scale27
I0928 09:32:12.586380  4247 net.cpp:129] Top shape: 100 32 14 14 (627200)
I0928 09:32:12.586381  4247 net.cpp:137] Memory required for data: 625632400
I0928 09:32:12.586385  4247 layer_factory.hpp:77] Creating layer M2PELU26
I0928 09:32:12.586390  4247 net.cpp:84] Creating Layer M2PELU26
I0928 09:32:12.586392  4247 net.cpp:406] M2PELU26 <- Convolution27
I0928 09:32:12.586396  4247 net.cpp:367] M2PELU26 -> Convolution27 (in-place)
I0928 09:32:12.586478  4247 net.cpp:122] Setting up M2PELU26
I0928 09:32:12.586483  4247 net.cpp:129] Top shape: 100 32 14 14 (627200)
I0928 09:32:12.586484  4247 net.cpp:137] Memory required for data: 628141200
I0928 09:32:12.586488  4247 layer_factory.hpp:77] Creating layer Convolution28
I0928 09:32:12.586494  4247 net.cpp:84] Creating Layer Convolution28
I0928 09:32:12.586496  4247 net.cpp:406] Convolution28 <- Convolution27
I0928 09:32:12.586500  4247 net.cpp:380] Convolution28 -> Convolution28
I0928 09:32:12.587569  4247 net.cpp:122] Setting up Convolution28
I0928 09:32:12.587579  4247 net.cpp:129] Top shape: 100 32 14 14 (627200)
I0928 09:32:12.587581  4247 net.cpp:137] Memory required for data: 630650000
I0928 09:32:12.587586  4247 layer_factory.hpp:77] Creating layer BatchNorm28
I0928 09:32:12.587590  4247 net.cpp:84] Creating Layer BatchNorm28
I0928 09:32:12.587594  4247 net.cpp:406] BatchNorm28 <- Convolution28
I0928 09:32:12.587597  4247 net.cpp:367] BatchNorm28 -> Convolution28 (in-place)
I0928 09:32:12.587735  4247 net.cpp:122] Setting up BatchNorm28
I0928 09:32:12.587739  4247 net.cpp:129] Top shape: 100 32 14 14 (627200)
I0928 09:32:12.587741  4247 net.cpp:137] Memory required for data: 633158800
I0928 09:32:12.587746  4247 layer_factory.hpp:77] Creating layer Scale28
I0928 09:32:12.587750  4247 net.cpp:84] Creating Layer Scale28
I0928 09:32:12.587752  4247 net.cpp:406] Scale28 <- Convolution28
I0928 09:32:12.587755  4247 net.cpp:367] Scale28 -> Convolution28 (in-place)
I0928 09:32:12.587783  4247 layer_factory.hpp:77] Creating layer Scale28
I0928 09:32:12.587862  4247 net.cpp:122] Setting up Scale28
I0928 09:32:12.587867  4247 net.cpp:129] Top shape: 100 32 14 14 (627200)
I0928 09:32:12.587868  4247 net.cpp:137] Memory required for data: 635667600
I0928 09:32:12.587872  4247 layer_factory.hpp:77] Creating layer Eltwise13
I0928 09:32:12.587877  4247 net.cpp:84] Creating Layer Eltwise13
I0928 09:32:12.587879  4247 net.cpp:406] Eltwise13 <- Eltwise12_M2PELU25_0_split_1
I0928 09:32:12.587882  4247 net.cpp:406] Eltwise13 <- Convolution28
I0928 09:32:12.587885  4247 net.cpp:380] Eltwise13 -> Eltwise13
I0928 09:32:12.587903  4247 net.cpp:122] Setting up Eltwise13
I0928 09:32:12.587905  4247 net.cpp:129] Top shape: 100 32 14 14 (627200)
I0928 09:32:12.587908  4247 net.cpp:137] Memory required for data: 638176400
I0928 09:32:12.587909  4247 layer_factory.hpp:77] Creating layer M2PELU27
I0928 09:32:12.587914  4247 net.cpp:84] Creating Layer M2PELU27
I0928 09:32:12.587918  4247 net.cpp:406] M2PELU27 <- Eltwise13
I0928 09:32:12.587920  4247 net.cpp:367] M2PELU27 -> Eltwise13 (in-place)
I0928 09:32:12.588014  4247 net.cpp:122] Setting up M2PELU27
I0928 09:32:12.588019  4247 net.cpp:129] Top shape: 100 32 14 14 (627200)
I0928 09:32:12.588021  4247 net.cpp:137] Memory required for data: 640685200
I0928 09:32:12.588026  4247 layer_factory.hpp:77] Creating layer Eltwise13_M2PELU27_0_split
I0928 09:32:12.588028  4247 net.cpp:84] Creating Layer Eltwise13_M2PELU27_0_split
I0928 09:32:12.588032  4247 net.cpp:406] Eltwise13_M2PELU27_0_split <- Eltwise13
I0928 09:32:12.588035  4247 net.cpp:380] Eltwise13_M2PELU27_0_split -> Eltwise13_M2PELU27_0_split_0
I0928 09:32:12.588039  4247 net.cpp:380] Eltwise13_M2PELU27_0_split -> Eltwise13_M2PELU27_0_split_1
I0928 09:32:12.588063  4247 net.cpp:122] Setting up Eltwise13_M2PELU27_0_split
I0928 09:32:12.588066  4247 net.cpp:129] Top shape: 100 32 14 14 (627200)
I0928 09:32:12.588069  4247 net.cpp:129] Top shape: 100 32 14 14 (627200)
I0928 09:32:12.588071  4247 net.cpp:137] Memory required for data: 645702800
I0928 09:32:12.588073  4247 layer_factory.hpp:77] Creating layer Convolution29
I0928 09:32:12.588079  4247 net.cpp:84] Creating Layer Convolution29
I0928 09:32:12.588083  4247 net.cpp:406] Convolution29 <- Eltwise13_M2PELU27_0_split_0
I0928 09:32:12.588086  4247 net.cpp:380] Convolution29 -> Convolution29
I0928 09:32:12.589133  4247 net.cpp:122] Setting up Convolution29
I0928 09:32:12.589141  4247 net.cpp:129] Top shape: 100 32 14 14 (627200)
I0928 09:32:12.589143  4247 net.cpp:137] Memory required for data: 648211600
I0928 09:32:12.589148  4247 layer_factory.hpp:77] Creating layer BatchNorm29
I0928 09:32:12.589154  4247 net.cpp:84] Creating Layer BatchNorm29
I0928 09:32:12.589156  4247 net.cpp:406] BatchNorm29 <- Convolution29
I0928 09:32:12.589160  4247 net.cpp:367] BatchNorm29 -> Convolution29 (in-place)
I0928 09:32:12.589294  4247 net.cpp:122] Setting up BatchNorm29
I0928 09:32:12.589298  4247 net.cpp:129] Top shape: 100 32 14 14 (627200)
I0928 09:32:12.589300  4247 net.cpp:137] Memory required for data: 650720400
I0928 09:32:12.589305  4247 layer_factory.hpp:77] Creating layer Scale29
I0928 09:32:12.589309  4247 net.cpp:84] Creating Layer Scale29
I0928 09:32:12.589313  4247 net.cpp:406] Scale29 <- Convolution29
I0928 09:32:12.589315  4247 net.cpp:367] Scale29 -> Convolution29 (in-place)
I0928 09:32:12.589341  4247 layer_factory.hpp:77] Creating layer Scale29
I0928 09:32:12.589421  4247 net.cpp:122] Setting up Scale29
I0928 09:32:12.589426  4247 net.cpp:129] Top shape: 100 32 14 14 (627200)
I0928 09:32:12.589427  4247 net.cpp:137] Memory required for data: 653229200
I0928 09:32:12.589447  4247 layer_factory.hpp:77] Creating layer M2PELU28
I0928 09:32:12.589453  4247 net.cpp:84] Creating Layer M2PELU28
I0928 09:32:12.589455  4247 net.cpp:406] M2PELU28 <- Convolution29
I0928 09:32:12.589459  4247 net.cpp:367] M2PELU28 -> Convolution29 (in-place)
I0928 09:32:12.589545  4247 net.cpp:122] Setting up M2PELU28
I0928 09:32:12.589550  4247 net.cpp:129] Top shape: 100 32 14 14 (627200)
I0928 09:32:12.589551  4247 net.cpp:137] Memory required for data: 655738000
I0928 09:32:12.589555  4247 layer_factory.hpp:77] Creating layer Convolution30
I0928 09:32:12.589562  4247 net.cpp:84] Creating Layer Convolution30
I0928 09:32:12.589565  4247 net.cpp:406] Convolution30 <- Convolution29
I0928 09:32:12.589568  4247 net.cpp:380] Convolution30 -> Convolution30
I0928 09:32:12.590620  4247 net.cpp:122] Setting up Convolution30
I0928 09:32:12.590629  4247 net.cpp:129] Top shape: 100 32 14 14 (627200)
I0928 09:32:12.590631  4247 net.cpp:137] Memory required for data: 658246800
I0928 09:32:12.590636  4247 layer_factory.hpp:77] Creating layer BatchNorm30
I0928 09:32:12.590641  4247 net.cpp:84] Creating Layer BatchNorm30
I0928 09:32:12.590644  4247 net.cpp:406] BatchNorm30 <- Convolution30
I0928 09:32:12.590648  4247 net.cpp:367] BatchNorm30 -> Convolution30 (in-place)
I0928 09:32:12.590783  4247 net.cpp:122] Setting up BatchNorm30
I0928 09:32:12.590787  4247 net.cpp:129] Top shape: 100 32 14 14 (627200)
I0928 09:32:12.590790  4247 net.cpp:137] Memory required for data: 660755600
I0928 09:32:12.590801  4247 layer_factory.hpp:77] Creating layer Scale30
I0928 09:32:12.590806  4247 net.cpp:84] Creating Layer Scale30
I0928 09:32:12.590809  4247 net.cpp:406] Scale30 <- Convolution30
I0928 09:32:12.590812  4247 net.cpp:367] Scale30 -> Convolution30 (in-place)
I0928 09:32:12.590839  4247 layer_factory.hpp:77] Creating layer Scale30
I0928 09:32:12.590917  4247 net.cpp:122] Setting up Scale30
I0928 09:32:12.590921  4247 net.cpp:129] Top shape: 100 32 14 14 (627200)
I0928 09:32:12.590924  4247 net.cpp:137] Memory required for data: 663264400
I0928 09:32:12.590927  4247 layer_factory.hpp:77] Creating layer Eltwise14
I0928 09:32:12.590931  4247 net.cpp:84] Creating Layer Eltwise14
I0928 09:32:12.590934  4247 net.cpp:406] Eltwise14 <- Eltwise13_M2PELU27_0_split_1
I0928 09:32:12.590936  4247 net.cpp:406] Eltwise14 <- Convolution30
I0928 09:32:12.590941  4247 net.cpp:380] Eltwise14 -> Eltwise14
I0928 09:32:12.590956  4247 net.cpp:122] Setting up Eltwise14
I0928 09:32:12.590960  4247 net.cpp:129] Top shape: 100 32 14 14 (627200)
I0928 09:32:12.590962  4247 net.cpp:137] Memory required for data: 665773200
I0928 09:32:12.590965  4247 layer_factory.hpp:77] Creating layer M2PELU29
I0928 09:32:12.590970  4247 net.cpp:84] Creating Layer M2PELU29
I0928 09:32:12.590971  4247 net.cpp:406] M2PELU29 <- Eltwise14
I0928 09:32:12.590975  4247 net.cpp:367] M2PELU29 -> Eltwise14 (in-place)
I0928 09:32:12.591058  4247 net.cpp:122] Setting up M2PELU29
I0928 09:32:12.591063  4247 net.cpp:129] Top shape: 100 32 14 14 (627200)
I0928 09:32:12.591064  4247 net.cpp:137] Memory required for data: 668282000
I0928 09:32:12.591068  4247 layer_factory.hpp:77] Creating layer Eltwise14_M2PELU29_0_split
I0928 09:32:12.591071  4247 net.cpp:84] Creating Layer Eltwise14_M2PELU29_0_split
I0928 09:32:12.591073  4247 net.cpp:406] Eltwise14_M2PELU29_0_split <- Eltwise14
I0928 09:32:12.591078  4247 net.cpp:380] Eltwise14_M2PELU29_0_split -> Eltwise14_M2PELU29_0_split_0
I0928 09:32:12.591081  4247 net.cpp:380] Eltwise14_M2PELU29_0_split -> Eltwise14_M2PELU29_0_split_1
I0928 09:32:12.591104  4247 net.cpp:122] Setting up Eltwise14_M2PELU29_0_split
I0928 09:32:12.591107  4247 net.cpp:129] Top shape: 100 32 14 14 (627200)
I0928 09:32:12.591110  4247 net.cpp:129] Top shape: 100 32 14 14 (627200)
I0928 09:32:12.591112  4247 net.cpp:137] Memory required for data: 673299600
I0928 09:32:12.591114  4247 layer_factory.hpp:77] Creating layer Convolution31
I0928 09:32:12.591120  4247 net.cpp:84] Creating Layer Convolution31
I0928 09:32:12.591122  4247 net.cpp:406] Convolution31 <- Eltwise14_M2PELU29_0_split_0
I0928 09:32:12.591125  4247 net.cpp:380] Convolution31 -> Convolution31
I0928 09:32:12.592150  4247 net.cpp:122] Setting up Convolution31
I0928 09:32:12.592159  4247 net.cpp:129] Top shape: 100 32 14 14 (627200)
I0928 09:32:12.592161  4247 net.cpp:137] Memory required for data: 675808400
I0928 09:32:12.592165  4247 layer_factory.hpp:77] Creating layer BatchNorm31
I0928 09:32:12.592170  4247 net.cpp:84] Creating Layer BatchNorm31
I0928 09:32:12.592172  4247 net.cpp:406] BatchNorm31 <- Convolution31
I0928 09:32:12.592176  4247 net.cpp:367] BatchNorm31 -> Convolution31 (in-place)
I0928 09:32:12.592312  4247 net.cpp:122] Setting up BatchNorm31
I0928 09:32:12.592317  4247 net.cpp:129] Top shape: 100 32 14 14 (627200)
I0928 09:32:12.592319  4247 net.cpp:137] Memory required for data: 678317200
I0928 09:32:12.592324  4247 layer_factory.hpp:77] Creating layer Scale31
I0928 09:32:12.592327  4247 net.cpp:84] Creating Layer Scale31
I0928 09:32:12.592329  4247 net.cpp:406] Scale31 <- Convolution31
I0928 09:32:12.592334  4247 net.cpp:367] Scale31 -> Convolution31 (in-place)
I0928 09:32:12.592360  4247 layer_factory.hpp:77] Creating layer Scale31
I0928 09:32:12.592437  4247 net.cpp:122] Setting up Scale31
I0928 09:32:12.592442  4247 net.cpp:129] Top shape: 100 32 14 14 (627200)
I0928 09:32:12.592444  4247 net.cpp:137] Memory required for data: 680826000
I0928 09:32:12.592448  4247 layer_factory.hpp:77] Creating layer M2PELU30
I0928 09:32:12.592453  4247 net.cpp:84] Creating Layer M2PELU30
I0928 09:32:12.592460  4247 net.cpp:406] M2PELU30 <- Convolution31
I0928 09:32:12.592465  4247 net.cpp:367] M2PELU30 -> Convolution31 (in-place)
I0928 09:32:12.592551  4247 net.cpp:122] Setting up M2PELU30
I0928 09:32:12.592555  4247 net.cpp:129] Top shape: 100 32 14 14 (627200)
I0928 09:32:12.592557  4247 net.cpp:137] Memory required for data: 683334800
I0928 09:32:12.592561  4247 layer_factory.hpp:77] Creating layer Convolution32
I0928 09:32:12.592568  4247 net.cpp:84] Creating Layer Convolution32
I0928 09:32:12.592571  4247 net.cpp:406] Convolution32 <- Convolution31
I0928 09:32:12.592574  4247 net.cpp:380] Convolution32 -> Convolution32
I0928 09:32:12.593601  4247 net.cpp:122] Setting up Convolution32
I0928 09:32:12.593611  4247 net.cpp:129] Top shape: 100 32 14 14 (627200)
I0928 09:32:12.593613  4247 net.cpp:137] Memory required for data: 685843600
I0928 09:32:12.593617  4247 layer_factory.hpp:77] Creating layer BatchNorm32
I0928 09:32:12.593622  4247 net.cpp:84] Creating Layer BatchNorm32
I0928 09:32:12.593626  4247 net.cpp:406] BatchNorm32 <- Convolution32
I0928 09:32:12.593628  4247 net.cpp:367] BatchNorm32 -> Convolution32 (in-place)
I0928 09:32:12.593762  4247 net.cpp:122] Setting up BatchNorm32
I0928 09:32:12.593767  4247 net.cpp:129] Top shape: 100 32 14 14 (627200)
I0928 09:32:12.593770  4247 net.cpp:137] Memory required for data: 688352400
I0928 09:32:12.593773  4247 layer_factory.hpp:77] Creating layer Scale32
I0928 09:32:12.593778  4247 net.cpp:84] Creating Layer Scale32
I0928 09:32:12.593781  4247 net.cpp:406] Scale32 <- Convolution32
I0928 09:32:12.593785  4247 net.cpp:367] Scale32 -> Convolution32 (in-place)
I0928 09:32:12.593811  4247 layer_factory.hpp:77] Creating layer Scale32
I0928 09:32:12.593886  4247 net.cpp:122] Setting up Scale32
I0928 09:32:12.593891  4247 net.cpp:129] Top shape: 100 32 14 14 (627200)
I0928 09:32:12.593894  4247 net.cpp:137] Memory required for data: 690861200
I0928 09:32:12.593896  4247 layer_factory.hpp:77] Creating layer Eltwise15
I0928 09:32:12.593900  4247 net.cpp:84] Creating Layer Eltwise15
I0928 09:32:12.593904  4247 net.cpp:406] Eltwise15 <- Eltwise14_M2PELU29_0_split_1
I0928 09:32:12.593905  4247 net.cpp:406] Eltwise15 <- Convolution32
I0928 09:32:12.593909  4247 net.cpp:380] Eltwise15 -> Eltwise15
I0928 09:32:12.593924  4247 net.cpp:122] Setting up Eltwise15
I0928 09:32:12.593928  4247 net.cpp:129] Top shape: 100 32 14 14 (627200)
I0928 09:32:12.593930  4247 net.cpp:137] Memory required for data: 693370000
I0928 09:32:12.593932  4247 layer_factory.hpp:77] Creating layer M2PELU31
I0928 09:32:12.593937  4247 net.cpp:84] Creating Layer M2PELU31
I0928 09:32:12.593940  4247 net.cpp:406] M2PELU31 <- Eltwise15
I0928 09:32:12.593942  4247 net.cpp:367] M2PELU31 -> Eltwise15 (in-place)
I0928 09:32:12.594025  4247 net.cpp:122] Setting up M2PELU31
I0928 09:32:12.594029  4247 net.cpp:129] Top shape: 100 32 14 14 (627200)
I0928 09:32:12.594032  4247 net.cpp:137] Memory required for data: 695878800
I0928 09:32:12.594034  4247 layer_factory.hpp:77] Creating layer Eltwise15_M2PELU31_0_split
I0928 09:32:12.594039  4247 net.cpp:84] Creating Layer Eltwise15_M2PELU31_0_split
I0928 09:32:12.594041  4247 net.cpp:406] Eltwise15_M2PELU31_0_split <- Eltwise15
I0928 09:32:12.594044  4247 net.cpp:380] Eltwise15_M2PELU31_0_split -> Eltwise15_M2PELU31_0_split_0
I0928 09:32:12.594048  4247 net.cpp:380] Eltwise15_M2PELU31_0_split -> Eltwise15_M2PELU31_0_split_1
I0928 09:32:12.594071  4247 net.cpp:122] Setting up Eltwise15_M2PELU31_0_split
I0928 09:32:12.594075  4247 net.cpp:129] Top shape: 100 32 14 14 (627200)
I0928 09:32:12.594077  4247 net.cpp:129] Top shape: 100 32 14 14 (627200)
I0928 09:32:12.594079  4247 net.cpp:137] Memory required for data: 700896400
I0928 09:32:12.594081  4247 layer_factory.hpp:77] Creating layer Convolution33
I0928 09:32:12.594089  4247 net.cpp:84] Creating Layer Convolution33
I0928 09:32:12.594090  4247 net.cpp:406] Convolution33 <- Eltwise15_M2PELU31_0_split_0
I0928 09:32:12.594094  4247 net.cpp:380] Convolution33 -> Convolution33
I0928 09:32:12.595466  4247 net.cpp:122] Setting up Convolution33
I0928 09:32:12.595476  4247 net.cpp:129] Top shape: 100 32 14 14 (627200)
I0928 09:32:12.595479  4247 net.cpp:137] Memory required for data: 703405200
I0928 09:32:12.595484  4247 layer_factory.hpp:77] Creating layer BatchNorm33
I0928 09:32:12.595489  4247 net.cpp:84] Creating Layer BatchNorm33
I0928 09:32:12.595491  4247 net.cpp:406] BatchNorm33 <- Convolution33
I0928 09:32:12.595495  4247 net.cpp:367] BatchNorm33 -> Convolution33 (in-place)
I0928 09:32:12.595636  4247 net.cpp:122] Setting up BatchNorm33
I0928 09:32:12.595641  4247 net.cpp:129] Top shape: 100 32 14 14 (627200)
I0928 09:32:12.595643  4247 net.cpp:137] Memory required for data: 705914000
I0928 09:32:12.595649  4247 layer_factory.hpp:77] Creating layer Scale33
I0928 09:32:12.595652  4247 net.cpp:84] Creating Layer Scale33
I0928 09:32:12.595654  4247 net.cpp:406] Scale33 <- Convolution33
I0928 09:32:12.595657  4247 net.cpp:367] Scale33 -> Convolution33 (in-place)
I0928 09:32:12.595685  4247 layer_factory.hpp:77] Creating layer Scale33
I0928 09:32:12.595762  4247 net.cpp:122] Setting up Scale33
I0928 09:32:12.595767  4247 net.cpp:129] Top shape: 100 32 14 14 (627200)
I0928 09:32:12.595768  4247 net.cpp:137] Memory required for data: 708422800
I0928 09:32:12.595772  4247 layer_factory.hpp:77] Creating layer M2PELU32
I0928 09:32:12.595777  4247 net.cpp:84] Creating Layer M2PELU32
I0928 09:32:12.595779  4247 net.cpp:406] M2PELU32 <- Convolution33
I0928 09:32:12.595782  4247 net.cpp:367] M2PELU32 -> Convolution33 (in-place)
I0928 09:32:12.595866  4247 net.cpp:122] Setting up M2PELU32
I0928 09:32:12.595870  4247 net.cpp:129] Top shape: 100 32 14 14 (627200)
I0928 09:32:12.595872  4247 net.cpp:137] Memory required for data: 710931600
I0928 09:32:12.595876  4247 layer_factory.hpp:77] Creating layer Convolution34
I0928 09:32:12.595882  4247 net.cpp:84] Creating Layer Convolution34
I0928 09:32:12.595885  4247 net.cpp:406] Convolution34 <- Convolution33
I0928 09:32:12.595890  4247 net.cpp:380] Convolution34 -> Convolution34
I0928 09:32:12.596927  4247 net.cpp:122] Setting up Convolution34
I0928 09:32:12.596936  4247 net.cpp:129] Top shape: 100 32 14 14 (627200)
I0928 09:32:12.596940  4247 net.cpp:137] Memory required for data: 713440400
I0928 09:32:12.596943  4247 layer_factory.hpp:77] Creating layer BatchNorm34
I0928 09:32:12.596949  4247 net.cpp:84] Creating Layer BatchNorm34
I0928 09:32:12.596951  4247 net.cpp:406] BatchNorm34 <- Convolution34
I0928 09:32:12.596956  4247 net.cpp:367] BatchNorm34 -> Convolution34 (in-place)
I0928 09:32:12.597092  4247 net.cpp:122] Setting up BatchNorm34
I0928 09:32:12.597096  4247 net.cpp:129] Top shape: 100 32 14 14 (627200)
I0928 09:32:12.597098  4247 net.cpp:137] Memory required for data: 715949200
I0928 09:32:12.597103  4247 layer_factory.hpp:77] Creating layer Scale34
I0928 09:32:12.597107  4247 net.cpp:84] Creating Layer Scale34
I0928 09:32:12.597110  4247 net.cpp:406] Scale34 <- Convolution34
I0928 09:32:12.597113  4247 net.cpp:367] Scale34 -> Convolution34 (in-place)
I0928 09:32:12.597139  4247 layer_factory.hpp:77] Creating layer Scale34
I0928 09:32:12.597215  4247 net.cpp:122] Setting up Scale34
I0928 09:32:12.597219  4247 net.cpp:129] Top shape: 100 32 14 14 (627200)
I0928 09:32:12.597221  4247 net.cpp:137] Memory required for data: 718458000
I0928 09:32:12.597225  4247 layer_factory.hpp:77] Creating layer Eltwise16
I0928 09:32:12.597229  4247 net.cpp:84] Creating Layer Eltwise16
I0928 09:32:12.597231  4247 net.cpp:406] Eltwise16 <- Eltwise15_M2PELU31_0_split_1
I0928 09:32:12.597234  4247 net.cpp:406] Eltwise16 <- Convolution34
I0928 09:32:12.597240  4247 net.cpp:380] Eltwise16 -> Eltwise16
I0928 09:32:12.597257  4247 net.cpp:122] Setting up Eltwise16
I0928 09:32:12.597260  4247 net.cpp:129] Top shape: 100 32 14 14 (627200)
I0928 09:32:12.597262  4247 net.cpp:137] Memory required for data: 720966800
I0928 09:32:12.597265  4247 layer_factory.hpp:77] Creating layer M2PELU33
I0928 09:32:12.597268  4247 net.cpp:84] Creating Layer M2PELU33
I0928 09:32:12.597271  4247 net.cpp:406] M2PELU33 <- Eltwise16
I0928 09:32:12.597282  4247 net.cpp:367] M2PELU33 -> Eltwise16 (in-place)
I0928 09:32:12.597368  4247 net.cpp:122] Setting up M2PELU33
I0928 09:32:12.597373  4247 net.cpp:129] Top shape: 100 32 14 14 (627200)
I0928 09:32:12.597374  4247 net.cpp:137] Memory required for data: 723475600
I0928 09:32:12.597378  4247 layer_factory.hpp:77] Creating layer Eltwise16_M2PELU33_0_split
I0928 09:32:12.597383  4247 net.cpp:84] Creating Layer Eltwise16_M2PELU33_0_split
I0928 09:32:12.597385  4247 net.cpp:406] Eltwise16_M2PELU33_0_split <- Eltwise16
I0928 09:32:12.597388  4247 net.cpp:380] Eltwise16_M2PELU33_0_split -> Eltwise16_M2PELU33_0_split_0
I0928 09:32:12.597393  4247 net.cpp:380] Eltwise16_M2PELU33_0_split -> Eltwise16_M2PELU33_0_split_1
I0928 09:32:12.597415  4247 net.cpp:122] Setting up Eltwise16_M2PELU33_0_split
I0928 09:32:12.597419  4247 net.cpp:129] Top shape: 100 32 14 14 (627200)
I0928 09:32:12.597421  4247 net.cpp:129] Top shape: 100 32 14 14 (627200)
I0928 09:32:12.597424  4247 net.cpp:137] Memory required for data: 728493200
I0928 09:32:12.597425  4247 layer_factory.hpp:77] Creating layer Convolution35
I0928 09:32:12.597431  4247 net.cpp:84] Creating Layer Convolution35
I0928 09:32:12.597434  4247 net.cpp:406] Convolution35 <- Eltwise16_M2PELU33_0_split_0
I0928 09:32:12.597439  4247 net.cpp:380] Convolution35 -> Convolution35
I0928 09:32:12.598466  4247 net.cpp:122] Setting up Convolution35
I0928 09:32:12.598474  4247 net.cpp:129] Top shape: 100 32 14 14 (627200)
I0928 09:32:12.598477  4247 net.cpp:137] Memory required for data: 731002000
I0928 09:32:12.598481  4247 layer_factory.hpp:77] Creating layer BatchNorm35
I0928 09:32:12.598486  4247 net.cpp:84] Creating Layer BatchNorm35
I0928 09:32:12.598489  4247 net.cpp:406] BatchNorm35 <- Convolution35
I0928 09:32:12.598492  4247 net.cpp:367] BatchNorm35 -> Convolution35 (in-place)
I0928 09:32:12.598654  4247 net.cpp:122] Setting up BatchNorm35
I0928 09:32:12.598659  4247 net.cpp:129] Top shape: 100 32 14 14 (627200)
I0928 09:32:12.598660  4247 net.cpp:137] Memory required for data: 733510800
I0928 09:32:12.598665  4247 layer_factory.hpp:77] Creating layer Scale35
I0928 09:32:12.598670  4247 net.cpp:84] Creating Layer Scale35
I0928 09:32:12.598671  4247 net.cpp:406] Scale35 <- Convolution35
I0928 09:32:12.598675  4247 net.cpp:367] Scale35 -> Convolution35 (in-place)
I0928 09:32:12.598702  4247 layer_factory.hpp:77] Creating layer Scale35
I0928 09:32:12.598778  4247 net.cpp:122] Setting up Scale35
I0928 09:32:12.598783  4247 net.cpp:129] Top shape: 100 32 14 14 (627200)
I0928 09:32:12.598784  4247 net.cpp:137] Memory required for data: 736019600
I0928 09:32:12.598788  4247 layer_factory.hpp:77] Creating layer M2PELU34
I0928 09:32:12.598793  4247 net.cpp:84] Creating Layer M2PELU34
I0928 09:32:12.598795  4247 net.cpp:406] M2PELU34 <- Convolution35
I0928 09:32:12.598799  4247 net.cpp:367] M2PELU34 -> Convolution35 (in-place)
I0928 09:32:12.598896  4247 net.cpp:122] Setting up M2PELU34
I0928 09:32:12.598899  4247 net.cpp:129] Top shape: 100 32 14 14 (627200)
I0928 09:32:12.598901  4247 net.cpp:137] Memory required for data: 738528400
I0928 09:32:12.598906  4247 layer_factory.hpp:77] Creating layer Convolution36
I0928 09:32:12.598912  4247 net.cpp:84] Creating Layer Convolution36
I0928 09:32:12.598914  4247 net.cpp:406] Convolution36 <- Convolution35
I0928 09:32:12.598918  4247 net.cpp:380] Convolution36 -> Convolution36
I0928 09:32:12.599982  4247 net.cpp:122] Setting up Convolution36
I0928 09:32:12.599990  4247 net.cpp:129] Top shape: 100 32 14 14 (627200)
I0928 09:32:12.599992  4247 net.cpp:137] Memory required for data: 741037200
I0928 09:32:12.599997  4247 layer_factory.hpp:77] Creating layer BatchNorm36
I0928 09:32:12.600002  4247 net.cpp:84] Creating Layer BatchNorm36
I0928 09:32:12.600004  4247 net.cpp:406] BatchNorm36 <- Convolution36
I0928 09:32:12.600008  4247 net.cpp:367] BatchNorm36 -> Convolution36 (in-place)
I0928 09:32:12.600144  4247 net.cpp:122] Setting up BatchNorm36
I0928 09:32:12.600148  4247 net.cpp:129] Top shape: 100 32 14 14 (627200)
I0928 09:32:12.600157  4247 net.cpp:137] Memory required for data: 743546000
I0928 09:32:12.600162  4247 layer_factory.hpp:77] Creating layer Scale36
I0928 09:32:12.600165  4247 net.cpp:84] Creating Layer Scale36
I0928 09:32:12.600168  4247 net.cpp:406] Scale36 <- Convolution36
I0928 09:32:12.600172  4247 net.cpp:367] Scale36 -> Convolution36 (in-place)
I0928 09:32:12.600199  4247 layer_factory.hpp:77] Creating layer Scale36
I0928 09:32:12.600277  4247 net.cpp:122] Setting up Scale36
I0928 09:32:12.600281  4247 net.cpp:129] Top shape: 100 32 14 14 (627200)
I0928 09:32:12.600283  4247 net.cpp:137] Memory required for data: 746054800
I0928 09:32:12.600287  4247 layer_factory.hpp:77] Creating layer Eltwise17
I0928 09:32:12.600291  4247 net.cpp:84] Creating Layer Eltwise17
I0928 09:32:12.600293  4247 net.cpp:406] Eltwise17 <- Eltwise16_M2PELU33_0_split_1
I0928 09:32:12.600296  4247 net.cpp:406] Eltwise17 <- Convolution36
I0928 09:32:12.600301  4247 net.cpp:380] Eltwise17 -> Eltwise17
I0928 09:32:12.600317  4247 net.cpp:122] Setting up Eltwise17
I0928 09:32:12.600322  4247 net.cpp:129] Top shape: 100 32 14 14 (627200)
I0928 09:32:12.600323  4247 net.cpp:137] Memory required for data: 748563600
I0928 09:32:12.600325  4247 layer_factory.hpp:77] Creating layer M2PELU35
I0928 09:32:12.600329  4247 net.cpp:84] Creating Layer M2PELU35
I0928 09:32:12.600332  4247 net.cpp:406] M2PELU35 <- Eltwise17
I0928 09:32:12.600335  4247 net.cpp:367] M2PELU35 -> Eltwise17 (in-place)
I0928 09:32:12.600420  4247 net.cpp:122] Setting up M2PELU35
I0928 09:32:12.600425  4247 net.cpp:129] Top shape: 100 32 14 14 (627200)
I0928 09:32:12.600426  4247 net.cpp:137] Memory required for data: 751072400
I0928 09:32:12.600430  4247 layer_factory.hpp:77] Creating layer Eltwise17_M2PELU35_0_split
I0928 09:32:12.600435  4247 net.cpp:84] Creating Layer Eltwise17_M2PELU35_0_split
I0928 09:32:12.600437  4247 net.cpp:406] Eltwise17_M2PELU35_0_split <- Eltwise17
I0928 09:32:12.600440  4247 net.cpp:380] Eltwise17_M2PELU35_0_split -> Eltwise17_M2PELU35_0_split_0
I0928 09:32:12.600445  4247 net.cpp:380] Eltwise17_M2PELU35_0_split -> Eltwise17_M2PELU35_0_split_1
I0928 09:32:12.600468  4247 net.cpp:122] Setting up Eltwise17_M2PELU35_0_split
I0928 09:32:12.600471  4247 net.cpp:129] Top shape: 100 32 14 14 (627200)
I0928 09:32:12.600474  4247 net.cpp:129] Top shape: 100 32 14 14 (627200)
I0928 09:32:12.600476  4247 net.cpp:137] Memory required for data: 756090000
I0928 09:32:12.600478  4247 layer_factory.hpp:77] Creating layer Convolution37
I0928 09:32:12.600483  4247 net.cpp:84] Creating Layer Convolution37
I0928 09:32:12.600486  4247 net.cpp:406] Convolution37 <- Eltwise17_M2PELU35_0_split_0
I0928 09:32:12.600491  4247 net.cpp:380] Convolution37 -> Convolution37
I0928 09:32:12.601217  4247 net.cpp:122] Setting up Convolution37
I0928 09:32:12.601223  4247 net.cpp:129] Top shape: 100 32 14 14 (627200)
I0928 09:32:12.601225  4247 net.cpp:137] Memory required for data: 758598800
I0928 09:32:12.601229  4247 layer_factory.hpp:77] Creating layer BatchNorm37
I0928 09:32:12.601234  4247 net.cpp:84] Creating Layer BatchNorm37
I0928 09:32:12.601238  4247 net.cpp:406] BatchNorm37 <- Convolution37
I0928 09:32:12.601241  4247 net.cpp:367] BatchNorm37 -> Convolution37 (in-place)
I0928 09:32:12.601380  4247 net.cpp:122] Setting up BatchNorm37
I0928 09:32:12.601384  4247 net.cpp:129] Top shape: 100 32 14 14 (627200)
I0928 09:32:12.601387  4247 net.cpp:137] Memory required for data: 761107600
I0928 09:32:12.601392  4247 layer_factory.hpp:77] Creating layer Scale37
I0928 09:32:12.601397  4247 net.cpp:84] Creating Layer Scale37
I0928 09:32:12.601398  4247 net.cpp:406] Scale37 <- Convolution37
I0928 09:32:12.601402  4247 net.cpp:367] Scale37 -> Convolution37 (in-place)
I0928 09:32:12.601428  4247 layer_factory.hpp:77] Creating layer Scale37
I0928 09:32:12.601507  4247 net.cpp:122] Setting up Scale37
I0928 09:32:12.601512  4247 net.cpp:129] Top shape: 100 32 14 14 (627200)
I0928 09:32:12.601514  4247 net.cpp:137] Memory required for data: 763616400
I0928 09:32:12.601518  4247 layer_factory.hpp:77] Creating layer M2PELU36
I0928 09:32:12.601528  4247 net.cpp:84] Creating Layer M2PELU36
I0928 09:32:12.601531  4247 net.cpp:406] M2PELU36 <- Convolution37
I0928 09:32:12.601536  4247 net.cpp:367] M2PELU36 -> Convolution37 (in-place)
I0928 09:32:12.601621  4247 net.cpp:122] Setting up M2PELU36
I0928 09:32:12.601626  4247 net.cpp:129] Top shape: 100 32 14 14 (627200)
I0928 09:32:12.601629  4247 net.cpp:137] Memory required for data: 766125200
I0928 09:32:12.601632  4247 layer_factory.hpp:77] Creating layer Convolution38
I0928 09:32:12.601639  4247 net.cpp:84] Creating Layer Convolution38
I0928 09:32:12.601641  4247 net.cpp:406] Convolution38 <- Convolution37
I0928 09:32:12.601647  4247 net.cpp:380] Convolution38 -> Convolution38
I0928 09:32:12.602735  4247 net.cpp:122] Setting up Convolution38
I0928 09:32:12.602744  4247 net.cpp:129] Top shape: 100 32 14 14 (627200)
I0928 09:32:12.602746  4247 net.cpp:137] Memory required for data: 768634000
I0928 09:32:12.602751  4247 layer_factory.hpp:77] Creating layer BatchNorm38
I0928 09:32:12.602756  4247 net.cpp:84] Creating Layer BatchNorm38
I0928 09:32:12.602759  4247 net.cpp:406] BatchNorm38 <- Convolution38
I0928 09:32:12.602762  4247 net.cpp:367] BatchNorm38 -> Convolution38 (in-place)
I0928 09:32:12.602910  4247 net.cpp:122] Setting up BatchNorm38
I0928 09:32:12.602913  4247 net.cpp:129] Top shape: 100 32 14 14 (627200)
I0928 09:32:12.602916  4247 net.cpp:137] Memory required for data: 771142800
I0928 09:32:12.602921  4247 layer_factory.hpp:77] Creating layer Scale38
I0928 09:32:12.602924  4247 net.cpp:84] Creating Layer Scale38
I0928 09:32:12.602927  4247 net.cpp:406] Scale38 <- Convolution38
I0928 09:32:12.602931  4247 net.cpp:367] Scale38 -> Convolution38 (in-place)
I0928 09:32:12.602957  4247 layer_factory.hpp:77] Creating layer Scale38
I0928 09:32:12.603035  4247 net.cpp:122] Setting up Scale38
I0928 09:32:12.603040  4247 net.cpp:129] Top shape: 100 32 14 14 (627200)
I0928 09:32:12.603042  4247 net.cpp:137] Memory required for data: 773651600
I0928 09:32:12.603045  4247 layer_factory.hpp:77] Creating layer Eltwise18
I0928 09:32:12.603050  4247 net.cpp:84] Creating Layer Eltwise18
I0928 09:32:12.603054  4247 net.cpp:406] Eltwise18 <- Eltwise17_M2PELU35_0_split_1
I0928 09:32:12.603055  4247 net.cpp:406] Eltwise18 <- Convolution38
I0928 09:32:12.603060  4247 net.cpp:380] Eltwise18 -> Eltwise18
I0928 09:32:12.603075  4247 net.cpp:122] Setting up Eltwise18
I0928 09:32:12.603078  4247 net.cpp:129] Top shape: 100 32 14 14 (627200)
I0928 09:32:12.603080  4247 net.cpp:137] Memory required for data: 776160400
I0928 09:32:12.603082  4247 layer_factory.hpp:77] Creating layer M2PELU37
I0928 09:32:12.603087  4247 net.cpp:84] Creating Layer M2PELU37
I0928 09:32:12.603090  4247 net.cpp:406] M2PELU37 <- Eltwise18
I0928 09:32:12.603092  4247 net.cpp:367] M2PELU37 -> Eltwise18 (in-place)
I0928 09:32:12.603178  4247 net.cpp:122] Setting up M2PELU37
I0928 09:32:12.603183  4247 net.cpp:129] Top shape: 100 32 14 14 (627200)
I0928 09:32:12.603185  4247 net.cpp:137] Memory required for data: 778669200
I0928 09:32:12.603189  4247 layer_factory.hpp:77] Creating layer Eltwise18_M2PELU37_0_split
I0928 09:32:12.603193  4247 net.cpp:84] Creating Layer Eltwise18_M2PELU37_0_split
I0928 09:32:12.603194  4247 net.cpp:406] Eltwise18_M2PELU37_0_split <- Eltwise18
I0928 09:32:12.603199  4247 net.cpp:380] Eltwise18_M2PELU37_0_split -> Eltwise18_M2PELU37_0_split_0
I0928 09:32:12.603202  4247 net.cpp:380] Eltwise18_M2PELU37_0_split -> Eltwise18_M2PELU37_0_split_1
I0928 09:32:12.603226  4247 net.cpp:122] Setting up Eltwise18_M2PELU37_0_split
I0928 09:32:12.603230  4247 net.cpp:129] Top shape: 100 32 14 14 (627200)
I0928 09:32:12.603233  4247 net.cpp:129] Top shape: 100 32 14 14 (627200)
I0928 09:32:12.603235  4247 net.cpp:137] Memory required for data: 783686800
I0928 09:32:12.603237  4247 layer_factory.hpp:77] Creating layer Convolution39
I0928 09:32:12.603243  4247 net.cpp:84] Creating Layer Convolution39
I0928 09:32:12.603245  4247 net.cpp:406] Convolution39 <- Eltwise18_M2PELU37_0_split_0
I0928 09:32:12.603256  4247 net.cpp:380] Convolution39 -> Convolution39
I0928 09:32:12.604164  4247 net.cpp:122] Setting up Convolution39
I0928 09:32:12.604172  4247 net.cpp:129] Top shape: 100 64 7 7 (313600)
I0928 09:32:12.604176  4247 net.cpp:137] Memory required for data: 784941200
I0928 09:32:12.604179  4247 layer_factory.hpp:77] Creating layer BatchNorm39
I0928 09:32:12.604184  4247 net.cpp:84] Creating Layer BatchNorm39
I0928 09:32:12.604187  4247 net.cpp:406] BatchNorm39 <- Convolution39
I0928 09:32:12.604190  4247 net.cpp:367] BatchNorm39 -> Convolution39 (in-place)
I0928 09:32:12.604326  4247 net.cpp:122] Setting up BatchNorm39
I0928 09:32:12.604329  4247 net.cpp:129] Top shape: 100 64 7 7 (313600)
I0928 09:32:12.604331  4247 net.cpp:137] Memory required for data: 786195600
I0928 09:32:12.604336  4247 layer_factory.hpp:77] Creating layer Scale39
I0928 09:32:12.604341  4247 net.cpp:84] Creating Layer Scale39
I0928 09:32:12.604343  4247 net.cpp:406] Scale39 <- Convolution39
I0928 09:32:12.604346  4247 net.cpp:367] Scale39 -> Convolution39 (in-place)
I0928 09:32:12.604372  4247 layer_factory.hpp:77] Creating layer Scale39
I0928 09:32:12.604449  4247 net.cpp:122] Setting up Scale39
I0928 09:32:12.604454  4247 net.cpp:129] Top shape: 100 64 7 7 (313600)
I0928 09:32:12.604455  4247 net.cpp:137] Memory required for data: 787450000
I0928 09:32:12.604460  4247 layer_factory.hpp:77] Creating layer Convolution40
I0928 09:32:12.604466  4247 net.cpp:84] Creating Layer Convolution40
I0928 09:32:12.604470  4247 net.cpp:406] Convolution40 <- Eltwise18_M2PELU37_0_split_1
I0928 09:32:12.604473  4247 net.cpp:380] Convolution40 -> Convolution40
I0928 09:32:12.606199  4247 net.cpp:122] Setting up Convolution40
I0928 09:32:12.606209  4247 net.cpp:129] Top shape: 100 64 7 7 (313600)
I0928 09:32:12.606211  4247 net.cpp:137] Memory required for data: 788704400
I0928 09:32:12.606215  4247 layer_factory.hpp:77] Creating layer BatchNorm40
I0928 09:32:12.606221  4247 net.cpp:84] Creating Layer BatchNorm40
I0928 09:32:12.606225  4247 net.cpp:406] BatchNorm40 <- Convolution40
I0928 09:32:12.606227  4247 net.cpp:367] BatchNorm40 -> Convolution40 (in-place)
I0928 09:32:12.606362  4247 net.cpp:122] Setting up BatchNorm40
I0928 09:32:12.606366  4247 net.cpp:129] Top shape: 100 64 7 7 (313600)
I0928 09:32:12.606369  4247 net.cpp:137] Memory required for data: 789958800
I0928 09:32:12.606374  4247 layer_factory.hpp:77] Creating layer Scale40
I0928 09:32:12.606377  4247 net.cpp:84] Creating Layer Scale40
I0928 09:32:12.606380  4247 net.cpp:406] Scale40 <- Convolution40
I0928 09:32:12.606384  4247 net.cpp:367] Scale40 -> Convolution40 (in-place)
I0928 09:32:12.606410  4247 layer_factory.hpp:77] Creating layer Scale40
I0928 09:32:12.606488  4247 net.cpp:122] Setting up Scale40
I0928 09:32:12.606492  4247 net.cpp:129] Top shape: 100 64 7 7 (313600)
I0928 09:32:12.606494  4247 net.cpp:137] Memory required for data: 791213200
I0928 09:32:12.606498  4247 layer_factory.hpp:77] Creating layer M2PELU38
I0928 09:32:12.606503  4247 net.cpp:84] Creating Layer M2PELU38
I0928 09:32:12.606505  4247 net.cpp:406] M2PELU38 <- Convolution40
I0928 09:32:12.606509  4247 net.cpp:367] M2PELU38 -> Convolution40 (in-place)
I0928 09:32:12.606621  4247 net.cpp:122] Setting up M2PELU38
I0928 09:32:12.606626  4247 net.cpp:129] Top shape: 100 64 7 7 (313600)
I0928 09:32:12.606627  4247 net.cpp:137] Memory required for data: 792467600
I0928 09:32:12.606631  4247 layer_factory.hpp:77] Creating layer Convolution41
I0928 09:32:12.606638  4247 net.cpp:84] Creating Layer Convolution41
I0928 09:32:12.606640  4247 net.cpp:406] Convolution41 <- Convolution40
I0928 09:32:12.606644  4247 net.cpp:380] Convolution41 -> Convolution41
I0928 09:32:12.608662  4247 net.cpp:122] Setting up Convolution41
I0928 09:32:12.608674  4247 net.cpp:129] Top shape: 100 64 7 7 (313600)
I0928 09:32:12.608677  4247 net.cpp:137] Memory required for data: 793722000
I0928 09:32:12.608685  4247 layer_factory.hpp:77] Creating layer BatchNorm41
I0928 09:32:12.608693  4247 net.cpp:84] Creating Layer BatchNorm41
I0928 09:32:12.608706  4247 net.cpp:406] BatchNorm41 <- Convolution41
I0928 09:32:12.608713  4247 net.cpp:367] BatchNorm41 -> Convolution41 (in-place)
I0928 09:32:12.608930  4247 net.cpp:122] Setting up BatchNorm41
I0928 09:32:12.608942  4247 net.cpp:129] Top shape: 100 64 7 7 (313600)
I0928 09:32:12.608945  4247 net.cpp:137] Memory required for data: 794976400
I0928 09:32:12.608954  4247 layer_factory.hpp:77] Creating layer Scale41
I0928 09:32:12.608963  4247 net.cpp:84] Creating Layer Scale41
I0928 09:32:12.608968  4247 net.cpp:406] Scale41 <- Convolution41
I0928 09:32:12.608971  4247 net.cpp:367] Scale41 -> Convolution41 (in-place)
I0928 09:32:12.609004  4247 layer_factory.hpp:77] Creating layer Scale41
I0928 09:32:12.609122  4247 net.cpp:122] Setting up Scale41
I0928 09:32:12.609131  4247 net.cpp:129] Top shape: 100 64 7 7 (313600)
I0928 09:32:12.609135  4247 net.cpp:137] Memory required for data: 796230800
I0928 09:32:12.609143  4247 layer_factory.hpp:77] Creating layer Eltwise19
I0928 09:32:12.609151  4247 net.cpp:84] Creating Layer Eltwise19
I0928 09:32:12.609156  4247 net.cpp:406] Eltwise19 <- Convolution39
I0928 09:32:12.609161  4247 net.cpp:406] Eltwise19 <- Convolution41
I0928 09:32:12.609167  4247 net.cpp:380] Eltwise19 -> Eltwise19
I0928 09:32:12.609190  4247 net.cpp:122] Setting up Eltwise19
I0928 09:32:12.609195  4247 net.cpp:129] Top shape: 100 64 7 7 (313600)
I0928 09:32:12.609197  4247 net.cpp:137] Memory required for data: 797485200
I0928 09:32:12.609200  4247 layer_factory.hpp:77] Creating layer M2PELU39
I0928 09:32:12.609205  4247 net.cpp:84] Creating Layer M2PELU39
I0928 09:32:12.609207  4247 net.cpp:406] M2PELU39 <- Eltwise19
I0928 09:32:12.609211  4247 net.cpp:367] M2PELU39 -> Eltwise19 (in-place)
I0928 09:32:12.609300  4247 net.cpp:122] Setting up M2PELU39
I0928 09:32:12.609304  4247 net.cpp:129] Top shape: 100 64 7 7 (313600)
I0928 09:32:12.609307  4247 net.cpp:137] Memory required for data: 798739600
I0928 09:32:12.609310  4247 layer_factory.hpp:77] Creating layer Eltwise19_M2PELU39_0_split
I0928 09:32:12.609314  4247 net.cpp:84] Creating Layer Eltwise19_M2PELU39_0_split
I0928 09:32:12.609316  4247 net.cpp:406] Eltwise19_M2PELU39_0_split <- Eltwise19
I0928 09:32:12.609320  4247 net.cpp:380] Eltwise19_M2PELU39_0_split -> Eltwise19_M2PELU39_0_split_0
I0928 09:32:12.609324  4247 net.cpp:380] Eltwise19_M2PELU39_0_split -> Eltwise19_M2PELU39_0_split_1
I0928 09:32:12.609349  4247 net.cpp:122] Setting up Eltwise19_M2PELU39_0_split
I0928 09:32:12.609352  4247 net.cpp:129] Top shape: 100 64 7 7 (313600)
I0928 09:32:12.609354  4247 net.cpp:129] Top shape: 100 64 7 7 (313600)
I0928 09:32:12.609357  4247 net.cpp:137] Memory required for data: 801248400
I0928 09:32:12.609359  4247 layer_factory.hpp:77] Creating layer Convolution42
I0928 09:32:12.609365  4247 net.cpp:84] Creating Layer Convolution42
I0928 09:32:12.609367  4247 net.cpp:406] Convolution42 <- Eltwise19_M2PELU39_0_split_0
I0928 09:32:12.609371  4247 net.cpp:380] Convolution42 -> Convolution42
I0928 09:32:12.611191  4247 net.cpp:122] Setting up Convolution42
I0928 09:32:12.611199  4247 net.cpp:129] Top shape: 100 64 7 7 (313600)
I0928 09:32:12.611202  4247 net.cpp:137] Memory required for data: 802502800
I0928 09:32:12.611207  4247 layer_factory.hpp:77] Creating layer BatchNorm42
I0928 09:32:12.611212  4247 net.cpp:84] Creating Layer BatchNorm42
I0928 09:32:12.611214  4247 net.cpp:406] BatchNorm42 <- Convolution42
I0928 09:32:12.611218  4247 net.cpp:367] BatchNorm42 -> Convolution42 (in-place)
I0928 09:32:12.611377  4247 net.cpp:122] Setting up BatchNorm42
I0928 09:32:12.611382  4247 net.cpp:129] Top shape: 100 64 7 7 (313600)
I0928 09:32:12.611384  4247 net.cpp:137] Memory required for data: 803757200
I0928 09:32:12.611389  4247 layer_factory.hpp:77] Creating layer Scale42
I0928 09:32:12.611393  4247 net.cpp:84] Creating Layer Scale42
I0928 09:32:12.611395  4247 net.cpp:406] Scale42 <- Convolution42
I0928 09:32:12.611398  4247 net.cpp:367] Scale42 -> Convolution42 (in-place)
I0928 09:32:12.611428  4247 layer_factory.hpp:77] Creating layer Scale42
I0928 09:32:12.611527  4247 net.cpp:122] Setting up Scale42
I0928 09:32:12.611532  4247 net.cpp:129] Top shape: 100 64 7 7 (313600)
I0928 09:32:12.611534  4247 net.cpp:137] Memory required for data: 805011600
I0928 09:32:12.611538  4247 layer_factory.hpp:77] Creating layer M2PELU40
I0928 09:32:12.611543  4247 net.cpp:84] Creating Layer M2PELU40
I0928 09:32:12.611546  4247 net.cpp:406] M2PELU40 <- Convolution42
I0928 09:32:12.611549  4247 net.cpp:367] M2PELU40 -> Convolution42 (in-place)
I0928 09:32:12.611646  4247 net.cpp:122] Setting up M2PELU40
I0928 09:32:12.611650  4247 net.cpp:129] Top shape: 100 64 7 7 (313600)
I0928 09:32:12.611652  4247 net.cpp:137] Memory required for data: 806266000
I0928 09:32:12.611656  4247 layer_factory.hpp:77] Creating layer Convolution43
I0928 09:32:12.611663  4247 net.cpp:84] Creating Layer Convolution43
I0928 09:32:12.611665  4247 net.cpp:406] Convolution43 <- Convolution42
I0928 09:32:12.611670  4247 net.cpp:380] Convolution43 -> Convolution43
I0928 09:32:12.613916  4247 net.cpp:122] Setting up Convolution43
I0928 09:32:12.613925  4247 net.cpp:129] Top shape: 100 64 7 7 (313600)
I0928 09:32:12.613927  4247 net.cpp:137] Memory required for data: 807520400
I0928 09:32:12.613932  4247 layer_factory.hpp:77] Creating layer BatchNorm43
I0928 09:32:12.613939  4247 net.cpp:84] Creating Layer BatchNorm43
I0928 09:32:12.613940  4247 net.cpp:406] BatchNorm43 <- Convolution43
I0928 09:32:12.613945  4247 net.cpp:367] BatchNorm43 -> Convolution43 (in-place)
I0928 09:32:12.614085  4247 net.cpp:122] Setting up BatchNorm43
I0928 09:32:12.614089  4247 net.cpp:129] Top shape: 100 64 7 7 (313600)
I0928 09:32:12.614091  4247 net.cpp:137] Memory required for data: 808774800
I0928 09:32:12.614096  4247 layer_factory.hpp:77] Creating layer Scale43
I0928 09:32:12.614100  4247 net.cpp:84] Creating Layer Scale43
I0928 09:32:12.614104  4247 net.cpp:406] Scale43 <- Convolution43
I0928 09:32:12.614106  4247 net.cpp:367] Scale43 -> Convolution43 (in-place)
I0928 09:32:12.614135  4247 layer_factory.hpp:77] Creating layer Scale43
I0928 09:32:12.614213  4247 net.cpp:122] Setting up Scale43
I0928 09:32:12.614217  4247 net.cpp:129] Top shape: 100 64 7 7 (313600)
I0928 09:32:12.614219  4247 net.cpp:137] Memory required for data: 810029200
I0928 09:32:12.614223  4247 layer_factory.hpp:77] Creating layer Eltwise20
I0928 09:32:12.614228  4247 net.cpp:84] Creating Layer Eltwise20
I0928 09:32:12.614231  4247 net.cpp:406] Eltwise20 <- Eltwise19_M2PELU39_0_split_1
I0928 09:32:12.614233  4247 net.cpp:406] Eltwise20 <- Convolution43
I0928 09:32:12.614238  4247 net.cpp:380] Eltwise20 -> Eltwise20
I0928 09:32:12.614254  4247 net.cpp:122] Setting up Eltwise20
I0928 09:32:12.614258  4247 net.cpp:129] Top shape: 100 64 7 7 (313600)
I0928 09:32:12.614259  4247 net.cpp:137] Memory required for data: 811283600
I0928 09:32:12.614261  4247 layer_factory.hpp:77] Creating layer M2PELU41
I0928 09:32:12.614266  4247 net.cpp:84] Creating Layer M2PELU41
I0928 09:32:12.614269  4247 net.cpp:406] M2PELU41 <- Eltwise20
I0928 09:32:12.614272  4247 net.cpp:367] M2PELU41 -> Eltwise20 (in-place)
I0928 09:32:12.614361  4247 net.cpp:122] Setting up M2PELU41
I0928 09:32:12.614364  4247 net.cpp:129] Top shape: 100 64 7 7 (313600)
I0928 09:32:12.614367  4247 net.cpp:137] Memory required for data: 812538000
I0928 09:32:12.614370  4247 layer_factory.hpp:77] Creating layer Eltwise20_M2PELU41_0_split
I0928 09:32:12.614373  4247 net.cpp:84] Creating Layer Eltwise20_M2PELU41_0_split
I0928 09:32:12.614377  4247 net.cpp:406] Eltwise20_M2PELU41_0_split <- Eltwise20
I0928 09:32:12.614379  4247 net.cpp:380] Eltwise20_M2PELU41_0_split -> Eltwise20_M2PELU41_0_split_0
I0928 09:32:12.614383  4247 net.cpp:380] Eltwise20_M2PELU41_0_split -> Eltwise20_M2PELU41_0_split_1
I0928 09:32:12.614408  4247 net.cpp:122] Setting up Eltwise20_M2PELU41_0_split
I0928 09:32:12.614411  4247 net.cpp:129] Top shape: 100 64 7 7 (313600)
I0928 09:32:12.614414  4247 net.cpp:129] Top shape: 100 64 7 7 (313600)
I0928 09:32:12.614416  4247 net.cpp:137] Memory required for data: 815046800
I0928 09:32:12.614423  4247 layer_factory.hpp:77] Creating layer Convolution44
I0928 09:32:12.614430  4247 net.cpp:84] Creating Layer Convolution44
I0928 09:32:12.614434  4247 net.cpp:406] Convolution44 <- Eltwise20_M2PELU41_0_split_0
I0928 09:32:12.614437  4247 net.cpp:380] Convolution44 -> Convolution44
I0928 09:32:12.616106  4247 net.cpp:122] Setting up Convolution44
I0928 09:32:12.616116  4247 net.cpp:129] Top shape: 100 64 7 7 (313600)
I0928 09:32:12.616118  4247 net.cpp:137] Memory required for data: 816301200
I0928 09:32:12.616122  4247 layer_factory.hpp:77] Creating layer BatchNorm44
I0928 09:32:12.616128  4247 net.cpp:84] Creating Layer BatchNorm44
I0928 09:32:12.616132  4247 net.cpp:406] BatchNorm44 <- Convolution44
I0928 09:32:12.616135  4247 net.cpp:367] BatchNorm44 -> Convolution44 (in-place)
I0928 09:32:12.616276  4247 net.cpp:122] Setting up BatchNorm44
I0928 09:32:12.616279  4247 net.cpp:129] Top shape: 100 64 7 7 (313600)
I0928 09:32:12.616281  4247 net.cpp:137] Memory required for data: 817555600
I0928 09:32:12.616286  4247 layer_factory.hpp:77] Creating layer Scale44
I0928 09:32:12.616291  4247 net.cpp:84] Creating Layer Scale44
I0928 09:32:12.616293  4247 net.cpp:406] Scale44 <- Convolution44
I0928 09:32:12.616297  4247 net.cpp:367] Scale44 -> Convolution44 (in-place)
I0928 09:32:12.616324  4247 layer_factory.hpp:77] Creating layer Scale44
I0928 09:32:12.616403  4247 net.cpp:122] Setting up Scale44
I0928 09:32:12.616407  4247 net.cpp:129] Top shape: 100 64 7 7 (313600)
I0928 09:32:12.616410  4247 net.cpp:137] Memory required for data: 818810000
I0928 09:32:12.616413  4247 layer_factory.hpp:77] Creating layer M2PELU42
I0928 09:32:12.616418  4247 net.cpp:84] Creating Layer M2PELU42
I0928 09:32:12.616420  4247 net.cpp:406] M2PELU42 <- Convolution44
I0928 09:32:12.616425  4247 net.cpp:367] M2PELU42 -> Convolution44 (in-place)
I0928 09:32:12.616510  4247 net.cpp:122] Setting up M2PELU42
I0928 09:32:12.616515  4247 net.cpp:129] Top shape: 100 64 7 7 (313600)
I0928 09:32:12.616518  4247 net.cpp:137] Memory required for data: 820064400
I0928 09:32:12.616520  4247 layer_factory.hpp:77] Creating layer Convolution45
I0928 09:32:12.616526  4247 net.cpp:84] Creating Layer Convolution45
I0928 09:32:12.616528  4247 net.cpp:406] Convolution45 <- Convolution44
I0928 09:32:12.616533  4247 net.cpp:380] Convolution45 -> Convolution45
I0928 09:32:12.618466  4247 net.cpp:122] Setting up Convolution45
I0928 09:32:12.618475  4247 net.cpp:129] Top shape: 100 64 7 7 (313600)
I0928 09:32:12.618477  4247 net.cpp:137] Memory required for data: 821318800
I0928 09:32:12.618482  4247 layer_factory.hpp:77] Creating layer BatchNorm45
I0928 09:32:12.618489  4247 net.cpp:84] Creating Layer BatchNorm45
I0928 09:32:12.618490  4247 net.cpp:406] BatchNorm45 <- Convolution45
I0928 09:32:12.618494  4247 net.cpp:367] BatchNorm45 -> Convolution45 (in-place)
I0928 09:32:12.618664  4247 net.cpp:122] Setting up BatchNorm45
I0928 09:32:12.618670  4247 net.cpp:129] Top shape: 100 64 7 7 (313600)
I0928 09:32:12.618672  4247 net.cpp:137] Memory required for data: 822573200
I0928 09:32:12.618677  4247 layer_factory.hpp:77] Creating layer Scale45
I0928 09:32:12.618680  4247 net.cpp:84] Creating Layer Scale45
I0928 09:32:12.618683  4247 net.cpp:406] Scale45 <- Convolution45
I0928 09:32:12.618686  4247 net.cpp:367] Scale45 -> Convolution45 (in-place)
I0928 09:32:12.618715  4247 layer_factory.hpp:77] Creating layer Scale45
I0928 09:32:12.618798  4247 net.cpp:122] Setting up Scale45
I0928 09:32:12.618803  4247 net.cpp:129] Top shape: 100 64 7 7 (313600)
I0928 09:32:12.618804  4247 net.cpp:137] Memory required for data: 823827600
…
I0928 09:32:12.980005  4247 net.cpp:84] Creating Layer BatchNorm40
I0928 09:32:12.980008  4247 net.cpp:406] BatchNorm40 <- Convolution40
I0928 09:32:12.980012  4247 net.cpp:367] BatchNorm40 -> Convolution40 (in-place)
I0928 09:32:12.980159  4247 net.cpp:122] Setting up BatchNorm40
I0928 09:32:12.980162  4247 net.cpp:129] Top shape: 100 64 8 8 (409600)
I0928 09:32:12.980165  4247 net.cpp:137] Memory required for data: 1031783600
I0928 09:32:12.980170  4247 layer_factory.hpp:77] Creating layer Scale40
I0928 09:32:12.980175  4247 net.cpp:84] Creating Layer Scale40
I0928 09:32:12.980176  4247 net.cpp:406] Scale40 <- Convolution40
I0928 09:32:12.980180  4247 net.cpp:367] Scale40 -> Convolution40 (in-place)
I0928 09:32:12.980217  4247 layer_factory.hpp:77] Creating layer Scale40
I0928 09:32:12.980305  4247 net.cpp:122] Setting up Scale40
I0928 09:32:12.980309  4247 net.cpp:129] Top shape: 100 64 8 8 (409600)
I0928 09:32:12.980311  4247 net.cpp:137] Memory required for data: 1033422000
I0928 09:32:12.980315  4247 layer_factory.hpp:77] Creating layer M2PELU38
I0928 09:32:12.980320  4247 net.cpp:84] Creating Layer M2PELU38
I0928 09:32:12.980324  4247 net.cpp:406] M2PELU38 <- Convolution40
I0928 09:32:12.980335  4247 net.cpp:367] M2PELU38 -> Convolution40 (in-place)
I0928 09:32:12.980428  4247 net.cpp:122] Setting up M2PELU38
I0928 09:32:12.980433  4247 net.cpp:129] Top shape: 100 64 8 8 (409600)
I0928 09:32:12.980435  4247 net.cpp:137] Memory required for data: 1035060400
I0928 09:32:12.980439  4247 layer_factory.hpp:77] Creating layer Convolution41
I0928 09:32:12.980445  4247 net.cpp:84] Creating Layer Convolution41
I0928 09:32:12.980448  4247 net.cpp:406] Convolution41 <- Convolution40
I0928 09:32:12.980453  4247 net.cpp:380] Convolution41 -> Convolution41
I0928 09:32:12.982208  4247 net.cpp:122] Setting up Convolution41
I0928 09:32:12.982216  4247 net.cpp:129] Top shape: 100 64 8 8 (409600)
I0928 09:32:12.982219  4247 net.cpp:137] Memory required for data: 1036698800
I0928 09:32:12.982223  4247 layer_factory.hpp:77] Creating layer BatchNorm41
I0928 09:32:12.982229  4247 net.cpp:84] Creating Layer BatchNorm41
I0928 09:32:12.982233  4247 net.cpp:406] BatchNorm41 <- Convolution41
I0928 09:32:12.982236  4247 net.cpp:367] BatchNorm41 -> Convolution41 (in-place)
I0928 09:32:12.982373  4247 net.cpp:122] Setting up BatchNorm41
I0928 09:32:12.982378  4247 net.cpp:129] Top shape: 100 64 8 8 (409600)
I0928 09:32:12.982380  4247 net.cpp:137] Memory required for data: 1038337200
I0928 09:32:12.982384  4247 layer_factory.hpp:77] Creating layer Scale41
I0928 09:32:12.982388  4247 net.cpp:84] Creating Layer Scale41
I0928 09:32:12.982390  4247 net.cpp:406] Scale41 <- Convolution41
I0928 09:32:12.982394  4247 net.cpp:367] Scale41 -> Convolution41 (in-place)
I0928 09:32:12.982421  4247 layer_factory.hpp:77] Creating layer Scale41
I0928 09:32:12.982501  4247 net.cpp:122] Setting up Scale41
I0928 09:32:12.982504  4247 net.cpp:129] Top shape: 100 64 8 8 (409600)
I0928 09:32:12.982506  4247 net.cpp:137] Memory required for data: 1039975600
I0928 09:32:12.982511  4247 layer_factory.hpp:77] Creating layer Eltwise19
I0928 09:32:12.982514  4247 net.cpp:84] Creating Layer Eltwise19
I0928 09:32:12.982517  4247 net.cpp:406] Eltwise19 <- Convolution39
I0928 09:32:12.982519  4247 net.cpp:406] Eltwise19 <- Convolution41
I0928 09:32:12.982527  4247 net.cpp:380] Eltwise19 -> Eltwise19
I0928 09:32:12.982555  4247 net.cpp:122] Setting up Eltwise19
I0928 09:32:12.982559  4247 net.cpp:129] Top shape: 100 64 8 8 (409600)
I0928 09:32:12.982561  4247 net.cpp:137] Memory required for data: 1041614000
I0928 09:32:12.982563  4247 layer_factory.hpp:77] Creating layer M2PELU39
I0928 09:32:12.982568  4247 net.cpp:84] Creating Layer M2PELU39
I0928 09:32:12.982570  4247 net.cpp:406] M2PELU39 <- Eltwise19
I0928 09:32:12.982573  4247 net.cpp:367] M2PELU39 -> Eltwise19 (in-place)
I0928 09:32:12.982661  4247 net.cpp:122] Setting up M2PELU39
I0928 09:32:12.982666  4247 net.cpp:129] Top shape: 100 64 8 8 (409600)
I0928 09:32:12.982668  4247 net.cpp:137] Memory required for data: 1043252400
I0928 09:32:12.982671  4247 layer_factory.hpp:77] Creating layer Eltwise19_M2PELU39_0_split
I0928 09:32:12.982676  4247 net.cpp:84] Creating Layer Eltwise19_M2PELU39_0_split
I0928 09:32:12.982677  4247 net.cpp:406] Eltwise19_M2PELU39_0_split <- Eltwise19
I0928 09:32:12.982681  4247 net.cpp:380] Eltwise19_M2PELU39_0_split -> Eltwise19_M2PELU39_0_split_0
I0928 09:32:12.982686  4247 net.cpp:380] Eltwise19_M2PELU39_0_split -> Eltwise19_M2PELU39_0_split_1
I0928 09:32:12.982709  4247 net.cpp:122] Setting up Eltwise19_M2PELU39_0_split
I0928 09:32:12.982712  4247 net.cpp:129] Top shape: 100 64 8 8 (409600)
I0928 09:32:12.982715  4247 net.cpp:129] Top shape: 100 64 8 8 (409600)
I0928 09:32:12.982717  4247 net.cpp:137] Memory required for data: 1046529200
I0928 09:32:12.982719  4247 layer_factory.hpp:77] Creating layer Convolution42
I0928 09:32:12.982725  4247 net.cpp:84] Creating Layer Convolution42
I0928 09:32:12.982728  4247 net.cpp:406] Convolution42 <- Eltwise19_M2PELU39_0_split_0
I0928 09:32:12.982731  4247 net.cpp:380] Convolution42 -> Convolution42
I0928 09:32:12.984416  4247 net.cpp:122] Setting up Convolution42
I0928 09:32:12.984426  4247 net.cpp:129] Top shape: 100 64 8 8 (409600)
I0928 09:32:12.984433  4247 net.cpp:137] Memory required for data: 1048167600
I0928 09:32:12.984438  4247 layer_factory.hpp:77] Creating layer BatchNorm42
I0928 09:32:12.984443  4247 net.cpp:84] Creating Layer BatchNorm42
I0928 09:32:12.984447  4247 net.cpp:406] BatchNorm42 <- Convolution42
I0928 09:32:12.984452  4247 net.cpp:367] BatchNorm42 -> Convolution42 (in-place)
I0928 09:32:12.984583  4247 net.cpp:122] Setting up BatchNorm42
I0928 09:32:12.984588  4247 net.cpp:129] Top shape: 100 64 8 8 (409600)
I0928 09:32:12.984591  4247 net.cpp:137] Memory required for data: 1049806000
I0928 09:32:12.984594  4247 layer_factory.hpp:77] Creating layer Scale42
I0928 09:32:12.984601  4247 net.cpp:84] Creating Layer Scale42
I0928 09:32:12.984603  4247 net.cpp:406] Scale42 <- Convolution42
I0928 09:32:12.984606  4247 net.cpp:367] Scale42 -> Convolution42 (in-place)
I0928 09:32:12.984632  4247 layer_factory.hpp:77] Creating layer Scale42
I0928 09:32:12.984709  4247 net.cpp:122] Setting up Scale42
I0928 09:32:12.984712  4247 net.cpp:129] Top shape: 100 64 8 8 (409600)
I0928 09:32:12.984714  4247 net.cpp:137] Memory required for data: 1051444400
I0928 09:32:12.984719  4247 layer_factory.hpp:77] Creating layer M2PELU40
I0928 09:32:12.984724  4247 net.cpp:84] Creating Layer M2PELU40
I0928 09:32:12.984725  4247 net.cpp:406] M2PELU40 <- Convolution42
I0928 09:32:12.984730  4247 net.cpp:367] M2PELU40 -> Convolution42 (in-place)
I0928 09:32:12.984815  4247 net.cpp:122] Setting up M2PELU40
I0928 09:32:12.984819  4247 net.cpp:129] Top shape: 100 64 8 8 (409600)
I0928 09:32:12.984822  4247 net.cpp:137] Memory required for data: 1053082800
I0928 09:32:12.984825  4247 layer_factory.hpp:77] Creating layer Convolution43
I0928 09:32:12.984832  4247 net.cpp:84] Creating Layer Convolution43
I0928 09:32:12.984833  4247 net.cpp:406] Convolution43 <- Convolution42
I0928 09:32:12.984838  4247 net.cpp:380] Convolution43 -> Convolution43
I0928 09:32:12.986515  4247 net.cpp:122] Setting up Convolution43
I0928 09:32:12.986538  4247 net.cpp:129] Top shape: 100 64 8 8 (409600)
I0928 09:32:12.986541  4247 net.cpp:137] Memory required for data: 1054721200
I0928 09:32:12.986546  4247 layer_factory.hpp:77] Creating layer BatchNorm43
I0928 09:32:12.986563  4247 net.cpp:84] Creating Layer BatchNorm43
I0928 09:32:12.986567  4247 net.cpp:406] BatchNorm43 <- Convolution43
I0928 09:32:12.986569  4247 net.cpp:367] BatchNorm43 -> Convolution43 (in-place)
I0928 09:32:12.986707  4247 net.cpp:122] Setting up BatchNorm43
I0928 09:32:12.986711  4247 net.cpp:129] Top shape: 100 64 8 8 (409600)
I0928 09:32:12.986713  4247 net.cpp:137] Memory required for data: 1056359600
I0928 09:32:12.986718  4247 layer_factory.hpp:77] Creating layer Scale43
I0928 09:32:12.986722  4247 net.cpp:84] Creating Layer Scale43
I0928 09:32:12.986724  4247 net.cpp:406] Scale43 <- Convolution43
I0928 09:32:12.986727  4247 net.cpp:367] Scale43 -> Convolution43 (in-place)
I0928 09:32:12.986755  4247 layer_factory.hpp:77] Creating layer Scale43
I0928 09:32:12.986831  4247 net.cpp:122] Setting up Scale43
I0928 09:32:12.986835  4247 net.cpp:129] Top shape: 100 64 8 8 (409600)
I0928 09:32:12.986837  4247 net.cpp:137] Memory required for data: 1057998000
I0928 09:32:12.986841  4247 layer_factory.hpp:77] Creating layer Eltwise20
I0928 09:32:12.986845  4247 net.cpp:84] Creating Layer Eltwise20
I0928 09:32:12.986848  4247 net.cpp:406] Eltwise20 <- Eltwise19_M2PELU39_0_split_1
I0928 09:32:12.986850  4247 net.cpp:406] Eltwise20 <- Convolution43
I0928 09:32:12.986855  4247 net.cpp:380] Eltwise20 -> Eltwise20
I0928 09:32:12.986871  4247 net.cpp:122] Setting up Eltwise20
I0928 09:32:12.986873  4247 net.cpp:129] Top shape: 100 64 8 8 (409600)
I0928 09:32:12.986876  4247 net.cpp:137] Memory required for data: 1059636400
I0928 09:32:12.986877  4247 layer_factory.hpp:77] Creating layer M2PELU41
I0928 09:32:12.986883  4247 net.cpp:84] Creating Layer M2PELU41
I0928 09:32:12.986886  4247 net.cpp:406] M2PELU41 <- Eltwise20
I0928 09:32:12.986888  4247 net.cpp:367] M2PELU41 -> Eltwise20 (in-place)
I0928 09:32:12.986977  4247 net.cpp:122] Setting up M2PELU41
I0928 09:32:12.986989  4247 net.cpp:129] Top shape: 100 64 8 8 (409600)
I0928 09:32:12.986990  4247 net.cpp:137] Memory required for data: 1061274800
I0928 09:32:12.986994  4247 layer_factory.hpp:77] Creating layer Eltwise20_M2PELU41_0_split
I0928 09:32:12.986999  4247 net.cpp:84] Creating Layer Eltwise20_M2PELU41_0_split
I0928 09:32:12.987000  4247 net.cpp:406] Eltwise20_M2PELU41_0_split <- Eltwise20
I0928 09:32:12.987004  4247 net.cpp:380] Eltwise20_M2PELU41_0_split -> Eltwise20_M2PELU41_0_split_0
I0928 09:32:12.987010  4247 net.cpp:380] Eltwise20_M2PELU41_0_split -> Eltwise20_M2PELU41_0_split_1
I0928 09:32:12.987035  4247 net.cpp:122] Setting up Eltwise20_M2PELU41_0_split
I0928 09:32:12.987037  4247 net.cpp:129] Top shape: 100 64 8 8 (409600)
I0928 09:32:12.987040  4247 net.cpp:129] Top shape: 100 64 8 8 (409600)
I0928 09:32:12.987042  4247 net.cpp:137] Memory required for data: 1064551600
I0928 09:32:12.987045  4247 layer_factory.hpp:77] Creating layer Convolution44
I0928 09:32:12.987051  4247 net.cpp:84] Creating Layer Convolution44
I0928 09:32:12.987052  4247 net.cpp:406] Convolution44 <- Eltwise20_M2PELU41_0_split_0
I0928 09:32:12.987056  4247 net.cpp:380] Convolution44 -> Convolution44
I0928 09:32:12.989042  4247 net.cpp:122] Setting up Convolution44
I0928 09:32:12.989049  4247 net.cpp:129] Top shape: 100 64 8 8 (409600)
I0928 09:32:12.989053  4247 net.cpp:137] Memory required for data: 1066190000
I0928 09:32:12.989056  4247 layer_factory.hpp:77] Creating layer BatchNorm44
I0928 09:32:12.989061  4247 net.cpp:84] Creating Layer BatchNorm44
I0928 09:32:12.989064  4247 net.cpp:406] BatchNorm44 <- Convolution44
I0928 09:32:12.989068  4247 net.cpp:367] BatchNorm44 -> Convolution44 (in-place)
I0928 09:32:12.989207  4247 net.cpp:122] Setting up BatchNorm44
I0928 09:32:12.989212  4247 net.cpp:129] Top shape: 100 64 8 8 (409600)
I0928 09:32:12.989213  4247 net.cpp:137] Memory required for data: 1067828400
I0928 09:32:13.009703  4247 layer_factory.hpp:77] Creating layer Scale44
I0928 09:32:13.009713  4247 net.cpp:84] Creating Layer Scale44
I0928 09:32:13.009716  4247 net.cpp:406] Scale44 <- Convolution44
I0928 09:32:13.009723  4247 net.cpp:367] Scale44 -> Convolution44 (in-place)
I0928 09:32:13.009765  4247 layer_factory.hpp:77] Creating layer Scale44
I0928 09:32:13.009857  4247 net.cpp:122] Setting up Scale44
I0928 09:32:13.009862  4247 net.cpp:129] Top shape: 100 64 8 8 (409600)
I0928 09:32:13.009865  4247 net.cpp:137] Memory required for data: 1069466800
I0928 09:32:13.009869  4247 layer_factory.hpp:77] Creating layer M2PELU42
I0928 09:32:13.009876  4247 net.cpp:84] Creating Layer M2PELU42
I0928 09:32:13.009878  4247 net.cpp:406] M2PELU42 <- Convolution44
I0928 09:32:13.009881  4247 net.cpp:367] M2PELU42 -> Convolution44 (in-place)
I0928 09:32:13.009984  4247 net.cpp:122] Setting up M2PELU42
I0928 09:32:13.009989  4247 net.cpp:129] Top shape: 100 64 8 8 (409600)
I0928 09:32:13.009991  4247 net.cpp:137] Memory required for data: 1071105200
I0928 09:32:13.009995  4247 layer_factory.hpp:77] Creating layer Convolution45
I0928 09:32:13.010004  4247 net.cpp:84] Creating Layer Convolution45
I0928 09:32:13.010006  4247 net.cpp:406] Convolution45 <- Convolution44
I0928 09:32:13.010010  4247 net.cpp:380] Convolution45 -> Convolution45
I0928 09:32:13.011886  4247 net.cpp:122] Setting up Convolution45
I0928 09:32:13.011895  4247 net.cpp:129] Top shape: 100 64 8 8 (409600)
I0928 09:32:13.011898  4247 net.cpp:137] Memory required for data: 1072743600
I0928 09:32:13.011903  4247 layer_factory.hpp:77] Creating layer BatchNorm45
I0928 09:32:13.011907  4247 net.cpp:84] Creating Layer BatchNorm45
I0928 09:32:13.011910  4247 net.cpp:406] BatchNorm45 <- Convolution45
I0928 09:32:13.011914  4247 net.cpp:367] BatchNorm45 -> Convolution45 (in-place)
I0928 09:32:13.012049  4247 net.cpp:122] Setting up BatchNorm45
I0928 09:32:13.012053  4247 net.cpp:129] Top shape: 100 64 8 8 (409600)
I0928 09:32:13.012055  4247 net.cpp:137] Memory required for data: 1074382000
I0928 09:32:13.012060  4247 layer_factory.hpp:77] Creating layer Scale45
I0928 09:32:13.012073  4247 net.cpp:84] Creating Layer Scale45
I0928 09:32:13.012076  4247 net.cpp:406] Scale45 <- Convolution45
I0928 09:32:13.012079  4247 net.cpp:367] Scale45 -> Convolution45 (in-place)
I0928 09:32:13.012107  4247 layer_factory.hpp:77] Creating layer Scale45
I0928 09:32:13.012187  4247 net.cpp:122] Setting up Scale45
I0928 09:32:13.012190  4247 net.cpp:129] Top shape: 100 64 8 8 (409600)
I0928 09:32:13.012192  4247 net.cpp:137] Memory required for data: 1076020400
I0928 09:32:13.012197  4247 layer_factory.hpp:77] Creating layer Eltwise21
I0928 09:32:13.012200  4247 net.cpp:84] Creating Layer Eltwise21
I0928 09:32:13.012203  4247 net.cpp:406] Eltwise21 <- Eltwise20_M2PELU41_0_split_1
I0928 09:32:13.012207  4247 net.cpp:406] Eltwise21 <- Convolution45
I0928 09:32:13.012210  4247 net.cpp:380] Eltwise21 -> Eltwise21
I0928 09:32:13.012226  4247 net.cpp:122] Setting up Eltwise21
I0928 09:32:13.012230  4247 net.cpp:129] Top shape: 100 64 8 8 (409600)
I0928 09:32:13.012233  4247 net.cpp:137] Memory required for data: 1077658800
I0928 09:32:13.012234  4247 layer_factory.hpp:77] Creating layer M2PELU43
I0928 09:32:13.012239  4247 net.cpp:84] Creating Layer M2PELU43
I0928 09:32:13.012241  4247 net.cpp:406] M2PELU43 <- Eltwise21
I0928 09:32:13.012244  4247 net.cpp:367] M2PELU43 -> Eltwise21 (in-place)
I0928 09:32:13.012333  4247 net.cpp:122] Setting up M2PELU43
I0928 09:32:13.012338  4247 net.cpp:129] Top shape: 100 64 8 8 (409600)
I0928 09:32:13.012341  4247 net.cpp:137] Memory required for data: 1079297200
I0928 09:32:13.012343  4247 layer_factory.hpp:77] Creating layer Eltwise21_M2PELU43_0_split
I0928 09:32:13.012347  4247 net.cpp:84] Creating Layer Eltwise21_M2PELU43_0_split
I0928 09:32:13.012349  4247 net.cpp:406] Eltwise21_M2PELU43_0_split <- Eltwise21
I0928 09:32:13.012353  4247 net.cpp:380] Eltwise21_M2PELU43_0_split -> Eltwise21_M2PELU43_0_split_0
I0928 09:32:13.012357  4247 net.cpp:380] Eltwise21_M2PELU43_0_split -> Eltwise21_M2PELU43_0_split_1
I0928 09:32:13.012382  4247 net.cpp:122] Setting up Eltwise21_M2PELU43_0_split
I0928 09:32:13.012384  4247 net.cpp:129] Top shape: 100 64 8 8 (409600)
I0928 09:32:13.012387  4247 net.cpp:129] Top shape: 100 64 8 8 (409600)
I0928 09:32:13.012389  4247 net.cpp:137] Memory required for data: 1082574000
I0928 09:32:13.012392  4247 layer_factory.hpp:77] Creating layer Convolution46
I0928 09:32:13.012398  4247 net.cpp:84] Creating Layer Convolution46
I0928 09:32:13.012399  4247 net.cpp:406] Convolution46 <- Eltwise21_M2PELU43_0_split_0
I0928 09:32:13.012403  4247 net.cpp:380] Convolution46 -> Convolution46
I0928 09:32:13.014072  4247 net.cpp:122] Setting up Convolution46
I0928 09:32:13.014081  4247 net.cpp:129] Top shape: 100 64 8 8 (409600)
I0928 09:32:13.014083  4247 net.cpp:137] Memory required for data: 1084212400
I0928 09:32:13.014087  4247 layer_factory.hpp:77] Creating layer BatchNorm46
I0928 09:32:13.014092  4247 net.cpp:84] Creating Layer BatchNorm46
I0928 09:32:13.014096  4247 net.cpp:406] BatchNorm46 <- Convolution46
I0928 09:32:13.014099  4247 net.cpp:367] BatchNorm46 -> Convolution46 (in-place)
I0928 09:32:13.014238  4247 net.cpp:122] Setting up BatchNorm46
I0928 09:32:13.014243  4247 net.cpp:129] Top shape: 100 64 8 8 (409600)
I0928 09:32:13.014245  4247 net.cpp:137] Memory required for data: 1085850800
I0928 09:32:13.014250  4247 layer_factory.hpp:77] Creating layer Scale46
I0928 09:32:13.014253  4247 net.cpp:84] Creating Layer Scale46
I0928 09:32:13.014256  4247 net.cpp:406] Scale46 <- Convolution46
I0928 09:32:13.014259  4247 net.cpp:367] Scale46 -> Convolution46 (in-place)
I0928 09:32:13.014287  4247 layer_factory.hpp:77] Creating layer Scale46
I0928 09:32:13.014364  4247 net.cpp:122] Setting up Scale46
I0928 09:32:13.014369  4247 net.cpp:129] Top shape: 100 64 8 8 (409600)
I0928 09:32:13.014371  4247 net.cpp:137] Memory required for data: 1087489200
I0928 09:32:13.014375  4247 layer_factory.hpp:77] Creating layer M2PELU44
I0928 09:32:13.014380  4247 net.cpp:84] Creating Layer M2PELU44
I0928 09:32:13.014382  4247 net.cpp:406] M2PELU44 <- Convolution46
I0928 09:32:13.014392  4247 net.cpp:367] M2PELU44 -> Convolution46 (in-place)
I0928 09:32:13.014482  4247 net.cpp:122] Setting up M2PELU44
I0928 09:32:13.014485  4247 net.cpp:129] Top shape: 100 64 8 8 (409600)
I0928 09:32:13.014487  4247 net.cpp:137] Memory required for data: 1089127600
I0928 09:32:13.014492  4247 layer_factory.hpp:77] Creating layer Convolution47
I0928 09:32:13.014497  4247 net.cpp:84] Creating Layer Convolution47
I0928 09:32:13.014500  4247 net.cpp:406] Convolution47 <- Convolution46
I0928 09:32:13.014504  4247 net.cpp:380] Convolution47 -> Convolution47
I0928 09:32:13.016191  4247 net.cpp:122] Setting up Convolution47
I0928 09:32:13.016199  4247 net.cpp:129] Top shape: 100 64 8 8 (409600)
I0928 09:32:13.016202  4247 net.cpp:137] Memory required for data: 1090766000
I0928 09:32:13.016206  4247 layer_factory.hpp:77] Creating layer BatchNorm47
I0928 09:32:13.016211  4247 net.cpp:84] Creating Layer BatchNorm47
I0928 09:32:13.016214  4247 net.cpp:406] BatchNorm47 <- Convolution47
I0928 09:32:13.016218  4247 net.cpp:367] BatchNorm47 -> Convolution47 (in-place)
I0928 09:32:13.016351  4247 net.cpp:122] Setting up BatchNorm47
I0928 09:32:13.016356  4247 net.cpp:129] Top shape: 100 64 8 8 (409600)
I0928 09:32:13.016358  4247 net.cpp:137] Memory required for data: 1092404400
I0928 09:32:13.016362  4247 layer_factory.hpp:77] Creating layer Scale47
I0928 09:32:13.016366  4247 net.cpp:84] Creating Layer Scale47
I0928 09:32:13.016368  4247 net.cpp:406] Scale47 <- Convolution47
I0928 09:32:13.016371  4247 net.cpp:367] Scale47 -> Convolution47 (in-place)
I0928 09:32:13.016399  4247 layer_factory.hpp:77] Creating layer Scale47
I0928 09:32:13.016476  4247 net.cpp:122] Setting up Scale47
I0928 09:32:13.016480  4247 net.cpp:129] Top shape: 100 64 8 8 (409600)
I0928 09:32:13.016482  4247 net.cpp:137] Memory required for data: 1094042800
I0928 09:32:13.016486  4247 layer_factory.hpp:77] Creating layer Eltwise22
I0928 09:32:13.016490  4247 net.cpp:84] Creating Layer Eltwise22
I0928 09:32:13.016494  4247 net.cpp:406] Eltwise22 <- Eltwise21_M2PELU43_0_split_1
I0928 09:32:13.016496  4247 net.cpp:406] Eltwise22 <- Convolution47
I0928 09:32:13.016499  4247 net.cpp:380] Eltwise22 -> Eltwise22
I0928 09:32:13.016515  4247 net.cpp:122] Setting up Eltwise22
I0928 09:32:13.016520  4247 net.cpp:129] Top shape: 100 64 8 8 (409600)
I0928 09:32:13.016521  4247 net.cpp:137] Memory required for data: 1095681200
I0928 09:32:13.016523  4247 layer_factory.hpp:77] Creating layer M2PELU45
I0928 09:32:13.016528  4247 net.cpp:84] Creating Layer M2PELU45
I0928 09:32:13.016530  4247 net.cpp:406] M2PELU45 <- Eltwise22
I0928 09:32:13.016533  4247 net.cpp:367] M2PELU45 -> Eltwise22 (in-place)
I0928 09:32:13.016623  4247 net.cpp:122] Setting up M2PELU45
I0928 09:32:13.016628  4247 net.cpp:129] Top shape: 100 64 8 8 (409600)
I0928 09:32:13.016629  4247 net.cpp:137] Memory required for data: 1097319600
I0928 09:32:13.016633  4247 layer_factory.hpp:77] Creating layer Eltwise22_M2PELU45_0_split
I0928 09:32:13.016636  4247 net.cpp:84] Creating Layer Eltwise22_M2PELU45_0_split
I0928 09:32:13.016639  4247 net.cpp:406] Eltwise22_M2PELU45_0_split <- Eltwise22
I0928 09:32:13.016643  4247 net.cpp:380] Eltwise22_M2PELU45_0_split -> Eltwise22_M2PELU45_0_split_0
I0928 09:32:13.016646  4247 net.cpp:380] Eltwise22_M2PELU45_0_split -> Eltwise22_M2PELU45_0_split_1
I0928 09:32:13.016670  4247 net.cpp:122] Setting up Eltwise22_M2PELU45_0_split
I0928 09:32:13.016674  4247 net.cpp:129] Top shape: 100 64 8 8 (409600)
I0928 09:32:13.016676  4247 net.cpp:129] Top shape: 100 64 8 8 (409600)
I0928 09:32:13.016679  4247 net.cpp:137] Memory required for data: 1100596400
I0928 09:32:13.016680  4247 layer_factory.hpp:77] Creating layer Convolution48
I0928 09:32:13.016686  4247 net.cpp:84] Creating Layer Convolution48
I0928 09:32:13.016690  4247 net.cpp:406] Convolution48 <- Eltwise22_M2PELU45_0_split_0
I0928 09:32:13.016693  4247 net.cpp:380] Convolution48 -> Convolution48
I0928 09:32:13.018690  4247 net.cpp:122] Setting up Convolution48
I0928 09:32:13.018699  4247 net.cpp:129] Top shape: 100 64 8 8 (409600)
I0928 09:32:13.018708  4247 net.cpp:137] Memory required for data: 1102234800
I0928 09:32:13.018713  4247 layer_factory.hpp:77] Creating layer BatchNorm48
I0928 09:32:13.018719  4247 net.cpp:84] Creating Layer BatchNorm48
I0928 09:32:13.018723  4247 net.cpp:406] BatchNorm48 <- Convolution48
I0928 09:32:13.018725  4247 net.cpp:367] BatchNorm48 -> Convolution48 (in-place)
I0928 09:32:13.018865  4247 net.cpp:122] Setting up BatchNorm48
I0928 09:32:13.018869  4247 net.cpp:129] Top shape: 100 64 8 8 (409600)
I0928 09:32:13.018872  4247 net.cpp:137] Memory required for data: 1103873200
I0928 09:32:13.018877  4247 layer_factory.hpp:77] Creating layer Scale48
I0928 09:32:13.018880  4247 net.cpp:84] Creating Layer Scale48
I0928 09:32:13.018883  4247 net.cpp:406] Scale48 <- Convolution48
I0928 09:32:13.018887  4247 net.cpp:367] Scale48 -> Convolution48 (in-place)
I0928 09:32:13.018914  4247 layer_factory.hpp:77] Creating layer Scale48
I0928 09:32:13.018991  4247 net.cpp:122] Setting up Scale48
I0928 09:32:13.018996  4247 net.cpp:129] Top shape: 100 64 8 8 (409600)
I0928 09:32:13.018998  4247 net.cpp:137] Memory required for data: 1105511600
I0928 09:32:13.019002  4247 layer_factory.hpp:77] Creating layer M2PELU46
I0928 09:32:13.019007  4247 net.cpp:84] Creating Layer M2PELU46
I0928 09:32:13.019011  4247 net.cpp:406] M2PELU46 <- Convolution48
I0928 09:32:13.019013  4247 net.cpp:367] M2PELU46 -> Convolution48 (in-place)
I0928 09:32:13.019103  4247 net.cpp:122] Setting up M2PELU46
I0928 09:32:13.019106  4247 net.cpp:129] Top shape: 100 64 8 8 (409600)
I0928 09:32:13.019109  4247 net.cpp:137] Memory required for data: 1107150000
I0928 09:32:13.019112  4247 layer_factory.hpp:77] Creating layer Convolution49
I0928 09:32:13.019119  4247 net.cpp:84] Creating Layer Convolution49
I0928 09:32:13.019121  4247 net.cpp:406] Convolution49 <- Convolution48
I0928 09:32:13.019126  4247 net.cpp:380] Convolution49 -> Convolution49
I0928 09:32:13.021133  4247 net.cpp:122] Setting up Convolution49
I0928 09:32:13.021142  4247 net.cpp:129] Top shape: 100 64 8 8 (409600)
I0928 09:32:13.021144  4247 net.cpp:137] Memory required for data: 1108788400
I0928 09:32:13.021148  4247 layer_factory.hpp:77] Creating layer BatchNorm49
I0928 09:32:13.021153  4247 net.cpp:84] Creating Layer BatchNorm49
I0928 09:32:13.021157  4247 net.cpp:406] BatchNorm49 <- Convolution49
I0928 09:32:13.021160  4247 net.cpp:367] BatchNorm49 -> Convolution49 (in-place)
I0928 09:32:13.021297  4247 net.cpp:122] Setting up BatchNorm49
I0928 09:32:13.021301  4247 net.cpp:129] Top shape: 100 64 8 8 (409600)
I0928 09:32:13.021303  4247 net.cpp:137] Memory required for data: 1110426800
I0928 09:32:13.021308  4247 layer_factory.hpp:77] Creating layer Scale49
I0928 09:32:13.021312  4247 net.cpp:84] Creating Layer Scale49
I0928 09:32:13.021314  4247 net.cpp:406] Scale49 <- Convolution49
I0928 09:32:13.021318  4247 net.cpp:367] Scale49 -> Convolution49 (in-place)
I0928 09:32:13.021347  4247 layer_factory.hpp:77] Creating layer Scale49
I0928 09:32:13.021426  4247 net.cpp:122] Setting up Scale49
I0928 09:32:13.021430  4247 net.cpp:129] Top shape: 100 64 8 8 (409600)
I0928 09:32:13.021432  4247 net.cpp:137] Memory required for data: 1112065200
I0928 09:32:13.021436  4247 layer_factory.hpp:77] Creating layer Eltwise23
I0928 09:32:13.021440  4247 net.cpp:84] Creating Layer Eltwise23
I0928 09:32:13.021443  4247 net.cpp:406] Eltwise23 <- Eltwise22_M2PELU45_0_split_1
I0928 09:32:13.021446  4247 net.cpp:406] Eltwise23 <- Convolution49
I0928 09:32:13.021450  4247 net.cpp:380] Eltwise23 -> Eltwise23
I0928 09:32:13.021467  4247 net.cpp:122] Setting up Eltwise23
I0928 09:32:13.021471  4247 net.cpp:129] Top shape: 100 64 8 8 (409600)
I0928 09:32:13.021472  4247 net.cpp:137] Memory required for data: 1113703600
I0928 09:32:13.021474  4247 layer_factory.hpp:77] Creating layer M2PELU47
I0928 09:32:13.021479  4247 net.cpp:84] Creating Layer M2PELU47
I0928 09:32:13.021482  4247 net.cpp:406] M2PELU47 <- Eltwise23
I0928 09:32:13.021486  4247 net.cpp:367] M2PELU47 -> Eltwise23 (in-place)
I0928 09:32:13.021584  4247 net.cpp:122] Setting up M2PELU47
I0928 09:32:13.021589  4247 net.cpp:129] Top shape: 100 64 8 8 (409600)
I0928 09:32:13.021591  4247 net.cpp:137] Memory required for data: 1115342000
I0928 09:32:13.021595  4247 layer_factory.hpp:77] Creating layer Eltwise23_M2PELU47_0_split
I0928 09:32:13.021598  4247 net.cpp:84] Creating Layer Eltwise23_M2PELU47_0_split
I0928 09:32:13.021600  4247 net.cpp:406] Eltwise23_M2PELU47_0_split <- Eltwise23
I0928 09:32:13.021605  4247 net.cpp:380] Eltwise23_M2PELU47_0_split -> Eltwise23_M2PELU47_0_split_0
I0928 09:32:13.021608  4247 net.cpp:380] Eltwise23_M2PELU47_0_split -> Eltwise23_M2PELU47_0_split_1
I0928 09:32:13.021633  4247 net.cpp:122] Setting up Eltwise23_M2PELU47_0_split
I0928 09:32:13.021637  4247 net.cpp:129] Top shape: 100 64 8 8 (409600)
I0928 09:32:13.021639  4247 net.cpp:129] Top shape: 100 64 8 8 (409600)
I0928 09:32:13.021641  4247 net.cpp:137] Memory required for data: 1118618800
I0928 09:32:13.021643  4247 layer_factory.hpp:77] Creating layer Convolution50
I0928 09:32:13.021651  4247 net.cpp:84] Creating Layer Convolution50
I0928 09:32:13.021652  4247 net.cpp:406] Convolution50 <- Eltwise23_M2PELU47_0_split_0
I0928 09:32:13.021656  4247 net.cpp:380] Convolution50 -> Convolution50
I0928 09:32:13.024191  4247 net.cpp:122] Setting up Convolution50
I0928 09:32:13.024200  4247 net.cpp:129] Top shape: 100 64 8 8 (409600)
I0928 09:32:13.024204  4247 net.cpp:137] Memory required for data: 1120257200
I0928 09:32:13.024207  4247 layer_factory.hpp:77] Creating layer BatchNorm50
I0928 09:32:13.024212  4247 net.cpp:84] Creating Layer BatchNorm50
I0928 09:32:13.024215  4247 net.cpp:406] BatchNorm50 <- Convolution50
I0928 09:32:13.024220  4247 net.cpp:367] BatchNorm50 -> Convolution50 (in-place)
I0928 09:32:13.038033  4247 net.cpp:122] Setting up BatchNorm50
I0928 09:32:13.038043  4247 net.cpp:129] Top shape: 100 64 8 8 (409600)
I0928 09:32:13.038045  4247 net.cpp:137] Memory required for data: 1121895600
I0928 09:32:13.038051  4247 layer_factory.hpp:77] Creating layer Scale50
I0928 09:32:13.038058  4247 net.cpp:84] Creating Layer Scale50
I0928 09:32:13.038060  4247 net.cpp:406] Scale50 <- Convolution50
I0928 09:32:13.038064  4247 net.cpp:367] Scale50 -> Convolution50 (in-place)
I0928 09:32:13.038096  4247 layer_factory.hpp:77] Creating layer Scale50
I0928 09:32:13.038183  4247 net.cpp:122] Setting up Scale50
I0928 09:32:13.038188  4247 net.cpp:129] Top shape: 100 64 8 8 (409600)
I0928 09:32:13.038192  4247 net.cpp:137] Memory required for data: 1123534000
I0928 09:32:13.038195  4247 layer_factory.hpp:77] Creating layer M2PELU48
I0928 09:32:13.038202  4247 net.cpp:84] Creating Layer M2PELU48
I0928 09:32:13.038203  4247 net.cpp:406] M2PELU48 <- Convolution50
I0928 09:32:13.038208  4247 net.cpp:367] M2PELU48 -> Convolution50 (in-place)
I0928 09:32:13.038306  4247 net.cpp:122] Setting up M2PELU48
I0928 09:32:13.038312  4247 net.cpp:129] Top shape: 100 64 8 8 (409600)
I0928 09:32:13.038314  4247 net.cpp:137] Memory required for data: 1125172400
I0928 09:32:13.038318  4247 layer_factory.hpp:77] Creating layer Convolution51
I0928 09:32:13.038326  4247 net.cpp:84] Creating Layer Convolution51
I0928 09:32:13.038327  4247 net.cpp:406] Convolution51 <- Convolution50
I0928 09:32:13.038332  4247 net.cpp:380] Convolution51 -> Convolution51
I0928 09:32:13.040599  4247 net.cpp:122] Setting up Convolution51
I0928 09:32:13.040609  4247 net.cpp:129] Top shape: 100 64 8 8 (409600)
I0928 09:32:13.040612  4247 net.cpp:137] Memory required for data: 1126810800
I0928 09:32:13.040616  4247 layer_factory.hpp:77] Creating layer BatchNorm51
I0928 09:32:13.040621  4247 net.cpp:84] Creating Layer BatchNorm51
I0928 09:32:13.040623  4247 net.cpp:406] BatchNorm51 <- Convolution51
I0928 09:32:13.040628  4247 net.cpp:367] BatchNorm51 -> Convolution51 (in-place)
I0928 09:32:13.040766  4247 net.cpp:122] Setting up BatchNorm51
I0928 09:32:13.040771  4247 net.cpp:129] Top shape: 100 64 8 8 (409600)
I0928 09:32:13.040773  4247 net.cpp:137] Memory required for data: 1128449200
I0928 09:32:13.040786  4247 layer_factory.hpp:77] Creating layer Scale51
I0928 09:32:13.040791  4247 net.cpp:84] Creating Layer Scale51
I0928 09:32:13.040793  4247 net.cpp:406] Scale51 <- Convolution51
I0928 09:32:13.040796  4247 net.cpp:367] Scale51 -> Convolution51 (in-place)
I0928 09:32:13.040825  4247 layer_factory.hpp:77] Creating layer Scale51
I0928 09:32:13.040904  4247 net.cpp:122] Setting up Scale51
I0928 09:32:13.040908  4247 net.cpp:129] Top shape: 100 64 8 8 (409600)
I0928 09:32:13.040910  4247 net.cpp:137] Memory required for data: 1130087600
I0928 09:32:13.040915  4247 layer_factory.hpp:77] Creating layer Eltwise24
I0928 09:32:13.040918  4247 net.cpp:84] Creating Layer Eltwise24
I0928 09:32:13.040921  4247 net.cpp:406] Eltwise24 <- Eltwise23_M2PELU47_0_split_1
I0928 09:32:13.040925  4247 net.cpp:406] Eltwise24 <- Convolution51
I0928 09:32:13.040927  4247 net.cpp:380] Eltwise24 -> Eltwise24
I0928 09:32:13.040944  4247 net.cpp:122] Setting up Eltwise24
I0928 09:32:13.040948  4247 net.cpp:129] Top shape: 100 64 8 8 (409600)
I0928 09:32:13.040951  4247 net.cpp:137] Memory required for data: 1131726000
I0928 09:32:13.040952  4247 layer_factory.hpp:77] Creating layer M2PELU49
I0928 09:32:13.040957  4247 net.cpp:84] Creating Layer M2PELU49
I0928 09:32:13.040961  4247 net.cpp:406] M2PELU49 <- Eltwise24
I0928 09:32:13.040964  4247 net.cpp:367] M2PELU49 -> Eltwise24 (in-place)
I0928 09:32:13.041057  4247 net.cpp:122] Setting up M2PELU49
I0928 09:32:13.041062  4247 net.cpp:129] Top shape: 100 64 8 8 (409600)
I0928 09:32:13.041064  4247 net.cpp:137] Memory required for data: 1133364400
I0928 09:32:13.041067  4247 layer_factory.hpp:77] Creating layer Eltwise24_M2PELU49_0_split
I0928 09:32:13.041071  4247 net.cpp:84] Creating Layer Eltwise24_M2PELU49_0_split
I0928 09:32:13.041074  4247 net.cpp:406] Eltwise24_M2PELU49_0_split <- Eltwise24
I0928 09:32:13.041077  4247 net.cpp:380] Eltwise24_M2PELU49_0_split -> Eltwise24_M2PELU49_0_split_0
I0928 09:32:13.041082  4247 net.cpp:380] Eltwise24_M2PELU49_0_split -> Eltwise24_M2PELU49_0_split_1
I0928 09:32:13.041116  4247 net.cpp:122] Setting up Eltwise24_M2PELU49_0_split
I0928 09:32:13.041121  4247 net.cpp:129] Top shape: 100 64 8 8 (409600)
I0928 09:32:13.041124  4247 net.cpp:129] Top shape: 100 64 8 8 (409600)
I0928 09:32:13.041126  4247 net.cpp:137] Memory required for data: 1136641200
I0928 09:32:13.041128  4247 layer_factory.hpp:77] Creating layer Convolution52
I0928 09:32:13.041134  4247 net.cpp:84] Creating Layer Convolution52
I0928 09:32:13.041137  4247 net.cpp:406] Convolution52 <- Eltwise24_M2PELU49_0_split_0
I0928 09:32:13.041141  4247 net.cpp:380] Convolution52 -> Convolution52
I0928 09:32:13.043287  4247 net.cpp:122] Setting up Convolution52
I0928 09:32:13.043296  4247 net.cpp:129] Top shape: 100 64 8 8 (409600)
I0928 09:32:13.043299  4247 net.cpp:137] Memory required for data: 1138279600
I0928 09:32:13.043303  4247 layer_factory.hpp:77] Creating layer BatchNorm52
I0928 09:32:13.043308  4247 net.cpp:84] Creating Layer BatchNorm52
I0928 09:32:13.043310  4247 net.cpp:406] BatchNorm52 <- Convolution52
I0928 09:32:13.043315  4247 net.cpp:367] BatchNorm52 -> Convolution52 (in-place)
I0928 09:32:13.043462  4247 net.cpp:122] Setting up BatchNorm52
I0928 09:32:13.043465  4247 net.cpp:129] Top shape: 100 64 8 8 (409600)
I0928 09:32:13.043467  4247 net.cpp:137] Memory required for data: 1139918000
I0928 09:32:13.043473  4247 layer_factory.hpp:77] Creating layer Scale52
I0928 09:32:13.043476  4247 net.cpp:84] Creating Layer Scale52
I0928 09:32:13.043479  4247 net.cpp:406] Scale52 <- Convolution52
I0928 09:32:13.043483  4247 net.cpp:367] Scale52 -> Convolution52 (in-place)
I0928 09:32:13.043510  4247 layer_factory.hpp:77] Creating layer Scale52
I0928 09:32:13.043592  4247 net.cpp:122] Setting up Scale52
I0928 09:32:13.043596  4247 net.cpp:129] Top shape: 100 64 8 8 (409600)
I0928 09:32:13.043598  4247 net.cpp:137] Memory required for data: 1141556400
I0928 09:32:13.043602  4247 layer_factory.hpp:77] Creating layer M2PELU50
I0928 09:32:13.043623  4247 net.cpp:84] Creating Layer M2PELU50
I0928 09:32:13.043633  4247 net.cpp:406] M2PELU50 <- Convolution52
I0928 09:32:13.043637  4247 net.cpp:367] M2PELU50 -> Convolution52 (in-place)
I0928 09:32:13.043735  4247 net.cpp:122] Setting up M2PELU50
I0928 09:32:13.043740  4247 net.cpp:129] Top shape: 100 64 8 8 (409600)
I0928 09:32:13.043741  4247 net.cpp:137] Memory required for data: 1143194800
I0928 09:32:13.043745  4247 layer_factory.hpp:77] Creating layer Convolution53
I0928 09:32:13.043751  4247 net.cpp:84] Creating Layer Convolution53
I0928 09:32:13.043754  4247 net.cpp:406] Convolution53 <- Convolution52
I0928 09:32:13.043758  4247 net.cpp:380] Convolution53 -> Convolution53
I0928 09:32:13.045456  4247 net.cpp:122] Setting up Convolution53
I0928 09:32:13.045465  4247 net.cpp:129] Top shape: 100 64 8 8 (409600)
I0928 09:32:13.045469  4247 net.cpp:137] Memory required for data: 1144833200
I0928 09:32:13.045473  4247 layer_factory.hpp:77] Creating layer BatchNorm53
I0928 09:32:13.045477  4247 net.cpp:84] Creating Layer BatchNorm53
I0928 09:32:13.045480  4247 net.cpp:406] BatchNorm53 <- Convolution53
I0928 09:32:13.045485  4247 net.cpp:367] BatchNorm53 -> Convolution53 (in-place)
I0928 09:32:13.045625  4247 net.cpp:122] Setting up BatchNorm53
I0928 09:32:13.045629  4247 net.cpp:129] Top shape: 100 64 8 8 (409600)
I0928 09:32:13.045631  4247 net.cpp:137] Memory required for data: 1146471600
I0928 09:32:13.045636  4247 layer_factory.hpp:77] Creating layer Scale53
I0928 09:32:13.045640  4247 net.cpp:84] Creating Layer Scale53
I0928 09:32:13.045644  4247 net.cpp:406] Scale53 <- Convolution53
I0928 09:32:13.045646  4247 net.cpp:367] Scale53 -> Convolution53 (in-place)
I0928 09:32:13.045673  4247 layer_factory.hpp:77] Creating layer Scale53
I0928 09:32:13.045753  4247 net.cpp:122] Setting up Scale53
I0928 09:32:13.045756  4247 net.cpp:129] Top shape: 100 64 8 8 (409600)
I0928 09:32:13.045758  4247 net.cpp:137] Memory required for data: 1148110000
I0928 09:32:13.045763  4247 layer_factory.hpp:77] Creating layer Eltwise25
I0928 09:32:13.045766  4247 net.cpp:84] Creating Layer Eltwise25
I0928 09:32:13.045768  4247 net.cpp:406] Eltwise25 <- Eltwise24_M2PELU49_0_split_1
I0928 09:32:13.045771  4247 net.cpp:406] Eltwise25 <- Convolution53
I0928 09:32:13.045774  4247 net.cpp:380] Eltwise25 -> Eltwise25
I0928 09:32:13.045791  4247 net.cpp:122] Setting up Eltwise25
I0928 09:32:13.045795  4247 net.cpp:129] Top shape: 100 64 8 8 (409600)
I0928 09:32:13.045797  4247 net.cpp:137] Memory required for data: 1149748400
I0928 09:32:13.045799  4247 layer_factory.hpp:77] Creating layer M2PELU51
I0928 09:32:13.045805  4247 net.cpp:84] Creating Layer M2PELU51
I0928 09:32:13.045807  4247 net.cpp:406] M2PELU51 <- Eltwise25
I0928 09:32:13.045810  4247 net.cpp:367] M2PELU51 -> Eltwise25 (in-place)
I0928 09:32:13.045902  4247 net.cpp:122] Setting up M2PELU51
I0928 09:32:13.045907  4247 net.cpp:129] Top shape: 100 64 8 8 (409600)
I0928 09:32:13.045908  4247 net.cpp:137] Memory required for data: 1151386800
I0928 09:32:13.045912  4247 layer_factory.hpp:77] Creating layer Eltwise25_M2PELU51_0_split
I0928 09:32:13.045915  4247 net.cpp:84] Creating Layer Eltwise25_M2PELU51_0_split
I0928 09:32:13.045918  4247 net.cpp:406] Eltwise25_M2PELU51_0_split <- Eltwise25
I0928 09:32:13.045922  4247 net.cpp:380] Eltwise25_M2PELU51_0_split -> Eltwise25_M2PELU51_0_split_0
I0928 09:32:13.045927  4247 net.cpp:380] Eltwise25_M2PELU51_0_split -> Eltwise25_M2PELU51_0_split_1
I0928 09:32:13.045949  4247 net.cpp:122] Setting up Eltwise25_M2PELU51_0_split
I0928 09:32:13.045953  4247 net.cpp:129] Top shape: 100 64 8 8 (409600)
I0928 09:32:13.045956  4247 net.cpp:129] Top shape: 100 64 8 8 (409600)
I0928 09:32:13.045958  4247 net.cpp:137] Memory required for data: 1154663600
I0928 09:32:13.045960  4247 layer_factory.hpp:77] Creating layer Convolution54
I0928 09:32:13.045966  4247 net.cpp:84] Creating Layer Convolution54
I0928 09:32:13.045969  4247 net.cpp:406] Convolution54 <- Eltwise25_M2PELU51_0_split_0
I0928 09:32:13.045972  4247 net.cpp:380] Convolution54 -> Convolution54
I0928 09:32:13.047971  4247 net.cpp:122] Setting up Convolution54
I0928 09:32:13.047986  4247 net.cpp:129] Top shape: 100 64 8 8 (409600)
I0928 09:32:13.047988  4247 net.cpp:137] Memory required for data: 1156302000
I0928 09:32:13.047993  4247 layer_factory.hpp:77] Creating layer BatchNorm54
I0928 09:32:13.047997  4247 net.cpp:84] Creating Layer BatchNorm54
I0928 09:32:13.048001  4247 net.cpp:406] BatchNorm54 <- Convolution54
I0928 09:32:13.048004  4247 net.cpp:367] BatchNorm54 -> Convolution54 (in-place)
I0928 09:32:13.048151  4247 net.cpp:122] Setting up BatchNorm54
I0928 09:32:13.048156  4247 net.cpp:129] Top shape: 100 64 8 8 (409600)
I0928 09:32:13.048157  4247 net.cpp:137] Memory required for data: 1157940400
I0928 09:32:13.048162  4247 layer_factory.hpp:77] Creating layer Scale54
I0928 09:32:13.048166  4247 net.cpp:84] Creating Layer Scale54
I0928 09:32:13.048169  4247 net.cpp:406] Scale54 <- Convolution54
I0928 09:32:13.048172  4247 net.cpp:367] Scale54 -> Convolution54 (in-place)
I0928 09:32:13.048200  4247 layer_factory.hpp:77] Creating layer Scale54
I0928 09:32:13.048280  4247 net.cpp:122] Setting up Scale54
I0928 09:32:13.048285  4247 net.cpp:129] Top shape: 100 64 8 8 (409600)
I0928 09:32:13.048286  4247 net.cpp:137] Memory required for data: 1159578800
I0928 09:32:13.048290  4247 layer_factory.hpp:77] Creating layer M2PELU52
I0928 09:32:13.048295  4247 net.cpp:84] Creating Layer M2PELU52
I0928 09:32:13.048298  4247 net.cpp:406] M2PELU52 <- Convolution54
I0928 09:32:13.048301  4247 net.cpp:367] M2PELU52 -> Convolution54 (in-place)
I0928 09:32:13.048393  4247 net.cpp:122] Setting up M2PELU52
I0928 09:32:13.048398  4247 net.cpp:129] Top shape: 100 64 8 8 (409600)
I0928 09:32:13.048400  4247 net.cpp:137] Memory required for data: 1161217200
I0928 09:32:13.048404  4247 layer_factory.hpp:77] Creating layer Convolution55
I0928 09:32:13.048410  4247 net.cpp:84] Creating Layer Convolution55
I0928 09:32:13.048413  4247 net.cpp:406] Convolution55 <- Convolution54
I0928 09:32:13.048416  4247 net.cpp:380] Convolution55 -> Convolution55
I0928 09:32:13.050113  4247 net.cpp:122] Setting up Convolution55
I0928 09:32:13.050122  4247 net.cpp:129] Top shape: 100 64 8 8 (409600)
I0928 09:32:13.050125  4247 net.cpp:137] Memory required for data: 1162855600
I0928 09:32:13.050129  4247 layer_factory.hpp:77] Creating layer BatchNorm55
I0928 09:32:13.050134  4247 net.cpp:84] Creating Layer BatchNorm55
I0928 09:32:13.050137  4247 net.cpp:406] BatchNorm55 <- Convolution55
I0928 09:32:13.050142  4247 net.cpp:367] BatchNorm55 -> Convolution55 (in-place)
I0928 09:32:13.050281  4247 net.cpp:122] Setting up BatchNorm55
I0928 09:32:13.050284  4247 net.cpp:129] Top shape: 100 64 8 8 (409600)
I0928 09:32:13.050287  4247 net.cpp:137] Memory required for data: 1164494000
I0928 09:32:13.050292  4247 layer_factory.hpp:77] Creating layer Scale55
I0928 09:32:13.050294  4247 net.cpp:84] Creating Layer Scale55
I0928 09:32:13.050297  4247 net.cpp:406] Scale55 <- Convolution55
I0928 09:32:13.050300  4247 net.cpp:367] Scale55 -> Convolution55 (in-place)
I0928 09:32:13.050329  4247 layer_factory.hpp:77] Creating layer Scale55
I0928 09:32:13.050410  4247 net.cpp:122] Setting up Scale55
I0928 09:32:13.050415  4247 net.cpp:129] Top shape: 100 64 8 8 (409600)
I0928 09:32:13.050416  4247 net.cpp:137] Memory required for data: 1166132400
I0928 09:32:13.050420  4247 layer_factory.hpp:77] Creating layer Eltwise26
I0928 09:32:13.050424  4247 net.cpp:84] Creating Layer Eltwise26
I0928 09:32:13.050427  4247 net.cpp:406] Eltwise26 <- Eltwise25_M2PELU51_0_split_1
I0928 09:32:13.050431  4247 net.cpp:406] Eltwise26 <- Convolution55
I0928 09:32:13.050433  4247 net.cpp:380] Eltwise26 -> Eltwise26
I0928 09:32:13.050451  4247 net.cpp:122] Setting up Eltwise26
I0928 09:32:13.050454  4247 net.cpp:129] Top shape: 100 64 8 8 (409600)
I0928 09:32:13.050457  4247 net.cpp:137] Memory required for data: 1167770800
I0928 09:32:13.050458  4247 layer_factory.hpp:77] Creating layer M2PELU53
I0928 09:32:13.050462  4247 net.cpp:84] Creating Layer M2PELU53
I0928 09:32:13.050464  4247 net.cpp:406] M2PELU53 <- Eltwise26
I0928 09:32:13.050473  4247 net.cpp:367] M2PELU53 -> Eltwise26 (in-place)
I0928 09:32:13.050572  4247 net.cpp:122] Setting up M2PELU53
I0928 09:32:13.050580  4247 net.cpp:129] Top shape: 100 64 8 8 (409600)
I0928 09:32:13.050581  4247 net.cpp:137] Memory required for data: 1169409200
I0928 09:32:13.050585  4247 layer_factory.hpp:77] Creating layer Eltwise26_M2PELU53_0_split
I0928 09:32:13.050588  4247 net.cpp:84] Creating Layer Eltwise26_M2PELU53_0_split
I0928 09:32:13.050590  4247 net.cpp:406] Eltwise26_M2PELU53_0_split <- Eltwise26
I0928 09:32:13.050595  4247 net.cpp:380] Eltwise26_M2PELU53_0_split -> Eltwise26_M2PELU53_0_split_0
I0928 09:32:13.050598  4247 net.cpp:380] Eltwise26_M2PELU53_0_split -> Eltwise26_M2PELU53_0_split_1
I0928 09:32:13.050623  4247 net.cpp:122] Setting up Eltwise26_M2PELU53_0_split
I0928 09:32:13.050627  4247 net.cpp:129] Top shape: 100 64 8 8 (409600)
I0928 09:32:13.050631  4247 net.cpp:129] Top shape: 100 64 8 8 (409600)
I0928 09:32:13.050632  4247 net.cpp:137] Memory required for data: 1172686000
I0928 09:32:13.050633  4247 layer_factory.hpp:77] Creating layer Convolution56
I0928 09:32:13.050640  4247 net.cpp:84] Creating Layer Convolution56
I0928 09:32:13.050642  4247 net.cpp:406] Convolution56 <- Eltwise26_M2PELU53_0_split_0
I0928 09:32:13.050647  4247 net.cpp:380] Convolution56 -> Convolution56
I0928 09:32:13.052319  4247 net.cpp:122] Setting up Convolution56
I0928 09:32:13.052327  4247 net.cpp:129] Top shape: 100 64 8 8 (409600)
I0928 09:32:13.052330  4247 net.cpp:137] Memory required for data: 1174324400
I0928 09:32:13.052335  4247 layer_factory.hpp:77] Creating layer BatchNorm56
I0928 09:32:13.068684  4247 net.cpp:84] Creating Layer BatchNorm56
I0928 09:32:13.068692  4247 net.cpp:406] BatchNorm56 <- Convolution56
I0928 09:32:13.068697  4247 net.cpp:367] BatchNorm56 -> Convolution56 (in-place)
I0928 09:32:13.068866  4247 net.cpp:122] Setting up BatchNorm56
I0928 09:32:13.068871  4247 net.cpp:129] Top shape: 100 64 8 8 (409600)
I0928 09:32:13.068874  4247 net.cpp:137] Memory required for data: 1175962800
I0928 09:32:13.068881  4247 layer_factory.hpp:77] Creating layer Scale56
I0928 09:32:13.068886  4247 net.cpp:84] Creating Layer Scale56
I0928 09:32:13.068888  4247 net.cpp:406] Scale56 <- Convolution56
I0928 09:32:13.068892  4247 net.cpp:367] Scale56 -> Convolution56 (in-place)
I0928 09:32:13.068923  4247 layer_factory.hpp:77] Creating layer Scale56
I0928 09:32:13.069013  4247 net.cpp:122] Setting up Scale56
I0928 09:32:13.069018  4247 net.cpp:129] Top shape: 100 64 8 8 (409600)
I0928 09:32:13.069020  4247 net.cpp:137] Memory required for data: 1177601200
I0928 09:32:13.069025  4247 layer_factory.hpp:77] Creating layer M2PELU54
I0928 09:32:13.069031  4247 net.cpp:84] Creating Layer M2PELU54
I0928 09:32:13.069033  4247 net.cpp:406] M2PELU54 <- Convolution56
I0928 09:32:13.069037  4247 net.cpp:367] M2PELU54 -> Convolution56 (in-place)
I0928 09:32:13.069138  4247 net.cpp:122] Setting up M2PELU54
I0928 09:32:13.069142  4247 net.cpp:129] Top shape: 100 64 8 8 (409600)
I0928 09:32:13.069145  4247 net.cpp:137] Memory required for data: 1179239600
I0928 09:32:13.069149  4247 layer_factory.hpp:77] Creating layer Convolution57
I0928 09:32:13.069156  4247 net.cpp:84] Creating Layer Convolution57
I0928 09:32:13.069159  4247 net.cpp:406] Convolution57 <- Convolution56
I0928 09:32:13.069164  4247 net.cpp:380] Convolution57 -> Convolution57
I0928 09:32:13.071415  4247 net.cpp:122] Setting up Convolution57
I0928 09:32:13.071425  4247 net.cpp:129] Top shape: 100 64 8 8 (409600)
I0928 09:32:13.071427  4247 net.cpp:137] Memory required for data: 1180878000
I0928 09:32:13.071432  4247 layer_factory.hpp:77] Creating layer BatchNorm57
I0928 09:32:13.071437  4247 net.cpp:84] Creating Layer BatchNorm57
I0928 09:32:13.071440  4247 net.cpp:406] BatchNorm57 <- Convolution57
I0928 09:32:13.071444  4247 net.cpp:367] BatchNorm57 -> Convolution57 (in-place)
I0928 09:32:13.071586  4247 net.cpp:122] Setting up BatchNorm57
I0928 09:32:13.071591  4247 net.cpp:129] Top shape: 100 64 8 8 (409600)
I0928 09:32:13.071593  4247 net.cpp:137] Memory required for data: 1182516400
I0928 09:32:13.071606  4247 layer_factory.hpp:77] Creating layer Scale57
I0928 09:32:13.071610  4247 net.cpp:84] Creating Layer Scale57
I0928 09:32:13.071614  4247 net.cpp:406] Scale57 <- Convolution57
I0928 09:32:13.071616  4247 net.cpp:367] Scale57 -> Convolution57 (in-place)
I0928 09:32:13.071647  4247 layer_factory.hpp:77] Creating layer Scale57
I0928 09:32:13.071727  4247 net.cpp:122] Setting up Scale57
I0928 09:32:13.071732  4247 net.cpp:129] Top shape: 100 64 8 8 (409600)
I0928 09:32:13.071733  4247 net.cpp:137] Memory required for data: 1184154800
I0928 09:32:13.071738  4247 layer_factory.hpp:77] Creating layer Eltwise27
I0928 09:32:13.071743  4247 net.cpp:84] Creating Layer Eltwise27
I0928 09:32:13.071745  4247 net.cpp:406] Eltwise27 <- Eltwise26_M2PELU53_0_split_1
I0928 09:32:13.071748  4247 net.cpp:406] Eltwise27 <- Convolution57
I0928 09:32:13.071751  4247 net.cpp:380] Eltwise27 -> Eltwise27
I0928 09:32:13.071768  4247 net.cpp:122] Setting up Eltwise27
I0928 09:32:13.071772  4247 net.cpp:129] Top shape: 100 64 8 8 (409600)
I0928 09:32:13.071774  4247 net.cpp:137] Memory required for data: 1185793200
I0928 09:32:13.071776  4247 layer_factory.hpp:77] Creating layer M2PELU55
I0928 09:32:13.071781  4247 net.cpp:84] Creating Layer M2PELU55
I0928 09:32:13.071784  4247 net.cpp:406] M2PELU55 <- Eltwise27
I0928 09:32:13.071786  4247 net.cpp:367] M2PELU55 -> Eltwise27 (in-place)
I0928 09:32:13.071880  4247 net.cpp:122] Setting up M2PELU55
I0928 09:32:13.071884  4247 net.cpp:129] Top shape: 100 64 8 8 (409600)
I0928 09:32:13.071887  4247 net.cpp:137] Memory required for data: 1187431600
I0928 09:32:13.071890  4247 layer_factory.hpp:77] Creating layer Pooling1
I0928 09:32:13.071894  4247 net.cpp:84] Creating Layer Pooling1
I0928 09:32:13.071897  4247 net.cpp:406] Pooling1 <- Eltwise27
I0928 09:32:13.071900  4247 net.cpp:380] Pooling1 -> Pooling1
I0928 09:32:13.072715  4247 net.cpp:122] Setting up Pooling1
I0928 09:32:13.072723  4247 net.cpp:129] Top shape: 100 64 1 1 (6400)
I0928 09:32:13.072726  4247 net.cpp:137] Memory required for data: 1187457200
I0928 09:32:13.072738  4247 layer_factory.hpp:77] Creating layer InnerProduct1
I0928 09:32:13.072744  4247 net.cpp:84] Creating Layer InnerProduct1
I0928 09:32:13.072746  4247 net.cpp:406] InnerProduct1 <- Pooling1
I0928 09:32:13.072751  4247 net.cpp:380] InnerProduct1 -> InnerProduct1
I0928 09:32:13.072863  4247 net.cpp:122] Setting up InnerProduct1
I0928 09:32:13.072868  4247 net.cpp:129] Top shape: 100 10 (1000)
I0928 09:32:13.072870  4247 net.cpp:137] Memory required for data: 1187461200
I0928 09:32:13.072875  4247 layer_factory.hpp:77] Creating layer InnerProduct1_InnerProduct1_0_split
I0928 09:32:13.072880  4247 net.cpp:84] Creating Layer InnerProduct1_InnerProduct1_0_split
I0928 09:32:13.072881  4247 net.cpp:406] InnerProduct1_InnerProduct1_0_split <- InnerProduct1
I0928 09:32:13.072885  4247 net.cpp:380] InnerProduct1_InnerProduct1_0_split -> InnerProduct1_InnerProduct1_0_split_0
I0928 09:32:13.072890  4247 net.cpp:380] InnerProduct1_InnerProduct1_0_split -> InnerProduct1_InnerProduct1_0_split_1
I0928 09:32:13.072916  4247 net.cpp:122] Setting up InnerProduct1_InnerProduct1_0_split
I0928 09:32:13.072919  4247 net.cpp:129] Top shape: 100 10 (1000)
I0928 09:32:13.072922  4247 net.cpp:129] Top shape: 100 10 (1000)
I0928 09:32:13.072924  4247 net.cpp:137] Memory required for data: 1187469200
I0928 09:32:13.072926  4247 layer_factory.hpp:77] Creating layer SoftmaxWithLoss1
I0928 09:32:13.072930  4247 net.cpp:84] Creating Layer SoftmaxWithLoss1
I0928 09:32:13.072933  4247 net.cpp:406] SoftmaxWithLoss1 <- InnerProduct1_InnerProduct1_0_split_0
I0928 09:32:13.072937  4247 net.cpp:406] SoftmaxWithLoss1 <- Data2_Data1_1_split_0
…
