…
I0919 21:48:36.080174  3129 net.cpp:294] The NetState phase (0) differed from the phase (1) specified by a rule in layer cifar
I0919 21:48:36.080381  3129 net.cpp:51] Initializing net from parameters: 
name: "nin"
state {
  phase: TRAIN
  level: 0
  stage: ""
}
layer {
  name: "cifar"
  type: "Data"
  top: "data"
  top: "label"
  include {
    phase: TRAIN
  }
  transform_param {
    mirror: true
    crop_size: 28
    mean_file: "/home/x306/caffe/xn/PENLU/data/cifar10/mean.binaryproto"
  }
  data_param {
    source: "/home/x306/caffe/xn/PENLU/data/cifar10/cifar10_train_lmdb"
    batch_size: 64
    backend: LMDB
  }
  image_data_param {
    shuffle: true
  }
}
layer {
  name: "conv1"
  type: "Convolution"
  bottom: "data"
  top: "conv1"
  param {
    lr_mult: 1
    decay_mult: 1
  }
  param {
    lr_mult: 2
    decay_mult: 0
  }
  convolution_param {
    num_output: 192
    pad: 2
    kernel_size: 5
    weight_filler {
      type: "gaussian"
      std: 0.05
    }
    bias_filler {
      type: "constant"
      value: 0
    }
  }
}
layer {
  name: "penlu_conv1"
  type: "PENLU"
  bottom: "conv1"
  top: "penlu_conv1"
  param {
    lr_mult: 1
    decay_mult: 0
  }
  param {
    lr_mult: 1
    decay_mult: 0
  }
  param {
    lr_mult: 1
    decay_mult: 0
  }
  penlu_param {
    alpha_filler {
      type: "constant"
      value: 3
    }
    beta_filler {
      type: "constant"
      value: 1
    }
    eta_filler {
      type: "constant"
      value: 1
    }
  }
}
layer {
  name: "cccp1"
  type: "Convolution"
  bottom: "penlu_conv1"
  top: "cccp1"
  param {
    lr_mult: 1
    decay_mult: 1
  }
  param {
    lr_mult: 2
    decay_mult: 0
  }
  convolution_param {
    num_output: 160
    kernel_size: 1
    weight_filler {
      type: "gaussian"
      std: 0.05
    }
    bias_filler {
      type: "constant"
      value: 0
    }
  }
}
layer {
  name: "penlu_cccp1"
  type: "PENLU"
  bottom: "cccp1"
  top: "penlu_cccp1"
  param {
    lr_mult: 1
    decay_mult: 0
  }
  param {
    lr_mult: 1
    decay_mult: 0
  }
  param {
    lr_mult: 1
    decay_mult: 0
  }
  penlu_param {
    alpha_filler {
      type: "constant"
      value: 3
    }
    beta_filler {
      type: "constant"
      value: 1
    }
    eta_filler {
      type: "constant"
      value: 1
    }
  }
}
layer {
  name: "cccp2"
  type: "Convolution"
  bottom: "penlu_cccp1"
  top: "cccp2"
  param {
    lr_mult: 1
    decay_mult: 1
  }
  param {
    lr_mult: 2
    decay_mult: 0
  }
  convolution_param {
    num_output: 96
    kernel_size: 1
    weight_filler {
      type: "gaussian"
      std: 0.05
    }
    bias_filler {
      type: "constant"
      value: 0
    }
  }
}
layer {
  name: "penlu_cccp2"
  type: "PENLU"
  bottom: "cccp2"
  top: "penlu_cccp2"
  param {
    lr_mult: 1
    decay_mult: 0
  }
  param {
    lr_mult: 1
    decay_mult: 0
  }
  param {
    lr_mult: 1
    decay_mult: 0
  }
  penlu_param {
    alpha_filler {
      type: "constant"
      value: 3
    }
    beta_filler {
      type: "constant"
      value: 1
    }
    eta_filler {
      type: "constant"
      value: 1
    }
  }
}
layer {
  name: "pool1"
  type: "Pooling"
  bottom: "penlu_cccp2"
  top: "pool1"
  pooling_param {
    pool: MAX
    kernel_size: 3
    stride: 2
  }
}
layer {
  name: "dropout1"
  type: "Dropout"
  bottom: "pool1"
  top: "dropout1"
  dropout_param {
    dropout_ratio: 0.5
  }
}
layer {
  name: "conv2"
  type: "Convolution"
  bottom: "dropout1"
  top: "conv2"
  param {
    lr_mult: 1
    decay_mult: 1
  }
  param {
    lr_mult: 2
    decay_mult: 0
  }
  convolution_param {
    num_output: 192
    pad: 2
    kernel_size: 5
    weight_filler {
      type: "gaussian"
      std: 0.05
    }
    bias_filler {
      type: "constant"
      value: 0
    }
  }
}
layer {
  name: "penlu_conv2"
  type: "PENLU"
  bottom: "conv2"
  top: "penlu_conv2"
  param {
    lr_mult: 1
    decay_mult: 0
  }
  param {
    lr_mult: 1
    decay_mult: 0
  }
  param {
    lr_mult: 1
    decay_mult: 0
  }
  penlu_param {
    alpha_filler {
      type: "constant"
      value: 3
    }
    beta_filler {
      type: "constant"
      value: 1
    }
    eta_filler {
      type: "constant"
      value: 1
    }
  }
}
layer {
  name: "cccp3"
  type: "Convolution"
  bottom: "penlu_conv2"
  top: "cccp3"
  param {
    lr_mult: 1
    decay_mult: 1
  }
  param {
    lr_mult: 2
    decay_mult: 0
  }
  convolution_param {
    num_output: 192
    kernel_size: 1
    weight_filler {
      type: "gaussian"
      std: 0.05
    }
    bias_filler {
      type: "constant"
      value: 0
    }
  }
}
layer {
  name: "penlu_cccp3"
  type: "PENLU"
  bottom: "cccp3"
  top: "penlu_cccp3"
  param {
    lr_mult: 1
    decay_mult: 0
  }
  param {
    lr_mult: 1
    decay_mult: 0
  }
  param {
    lr_mult: 1
    decay_mult: 0
  }
  penlu_param {
    alpha_filler {
      type: "constant"
      value: 3
    }
    beta_filler {
      type: "constant"
      value: 1
    }
    eta_filler {
      type: "constant"
      value: 1
    }
  }
}
layer {
  name: "cccp4"
  type: "Convolution"
  bottom: "penlu_cccp3"
  top: "cccp4"
  param {
    lr_mult: 1
    decay_mult: 1
  }
  param {
    lr_mult: 2
    decay_mult: 0
  }
  convolution_param {
    num_output: 192
    kernel_size: 1
    weight_filler {
      type: "gaussian"
      std: 0.05
    }
    bias_filler {
      type: "constant"
      value: 0
    }
  }
}
layer {
  name: "penlu_cccp4"
  type: "PENLU"
  bottom: "cccp4"
  top: "penlu_cccp4"
  param {
    lr_mult: 1
    decay_mult: 0
  }
  param {
    lr_mult: 1
    decay_mult: 0
  }
  param {
    lr_mult: 1
    decay_mult: 0
  }
  penlu_param {
    alpha_filler {
      type: "constant"
      value: 3
    }
    beta_filler {
      type: "constant"
      value: 1
    }
    eta_filler {
      type: "constant"
      value: 1
    }
  }
}
layer {
  name: "pool2"
  type: "Pooling"
  bottom: "penlu_cccp4"
  top: "pool2"
  pooling_param {
    pool: AVE
    kernel_size: 3
    stride: 2
  }
}
layer {
  name: "dropout2"
  type: "Dropout"
  bottom: "pool2"
  top: "dropout2"
  dropout_param {
    dropout_ratio: 0.5
  }
}
layer {
  name: "conv3"
  type: "Convolution"
  bottom: "dropout2"
  top: "conv3"
  param {
    lr_mult: 1
    decay_mult: 1
  }
  param {
    lr_mult: 2
    decay_mult: 0
  }
  convolution_param {
    num_output: 192
    pad: 1
    kernel_size: 3
    weight_filler {
      type: "gaussian"
      std: 0.05
    }
    bias_filler {
      type: "constant"
      value: 0
    }
  }
}
layer {
  name: "penlu_conv3"
  type: "PENLU"
  bottom: "conv3"
  top: "penlu_conv3"
  param {
    lr_mult: 1
    decay_mult: 0
  }
  param {
    lr_mult: 1
    decay_mult: 0
  }
  param {
    lr_mult: 1
    decay_mult: 0
  }
  penlu_param {
    alpha_filler {
      type: "constant"
      value: 3
    }
    beta_filler {
      type: "constant"
      value: 1
    }
    eta_filler {
      type: "constant"
      value: 1
    }
  }
}
layer {
  name: "cccp5"
  type: "Convolution"
  bottom: "penlu_conv3"
  top: "cccp5"
  param {
    lr_mult: 1
    decay_mult: 1
  }
  param {
    lr_mult: 2
    decay_mult: 0
  }
  convolution_param {
    num_output: 192
    kernel_size: 1
    weight_filler {
      type: "gaussian"
      std: 0.05
    }
    bias_filler {
      type: "constant"
      value: 0
    }
  }
}
layer {
  name: "penlu_cccp5"
  type: "PENLU"
  bottom: "cccp5"
  top: "penlu_cccp5"
  param {
    lr_mult: 1
    decay_mult: 0
  }
  param {
    lr_mult: 1
    decay_mult: 0
  }
  param {
    lr_mult: 1
    decay_mult: 0
  }
  penlu_param {
    alpha_filler {
      type: "constant"
      value: 3
    }
    beta_filler {
      type: "constant"
      value: 1
    }
    eta_filler {
      type: "constant"
      value: 1
    }
  }
}
layer {
  name: "cccp6"
  type: "Convolution"
  bottom: "penlu_cccp5"
  top: "cccp6"
  param {
    lr_mult: 0.1
    decay_mult: 1
  }
  param {
    lr_mult: 0.1
    decay_mult: 0
  }
  convolution_param {
    num_output: 10
    kernel_size: 1
    weight_filler {
      type: "gaussian"
      std: 0.05
    }
    bias_filler {
      type: "constant"
      value: 0
    }
  }
}
layer {
  name: "penlu_cccp6"
  type: "PENLU"
  bottom: "cccp6"
  top: "penlu_cccp6"
  param {
    lr_mult: 1
    decay_mult: 0
  }
  param {
    lr_mult: 1
    decay_mult: 0
  }
  param {
    lr_mult: 1
    decay_mult: 0
  }
  penlu_param {
    alpha_filler {
      type: "constant"
      value: 3
    }
    beta_filler {
      type: "constant"
      value: 1
    }
    eta_filler {
      type: "constant"
      value: 1
    }
  }
}
layer {
  name: "pool3"
  type: "Pooling"
  bottom: "penlu_cccp6"
  top: "pool3"
  pooling_param {
    pool: AVE
    kernel_size: 7
    stride: 1
  }
}
layer {
  name: "accuracy"
  type: "Accuracy"
  bottom: "pool3"
  bottom: "label"
  top: "accuracy"
}
layer {
  name: "loss"
  type: "SoftmaxWithLoss"
  bottom: "pool3"
  bottom: "label"
  top: "loss"
}
I0919 21:48:36.080515  3129 layer_factory.hpp:77] Creating layer cifar
I0919 21:48:36.080600  3129 db_lmdb.cpp:35] Opened lmdb /home/x306/caffe/xn/PENLU/data/cifar10/cifar10_train_lmdb
I0919 21:48:36.080627  3129 net.cpp:84] Creating Layer cifar
I0919 21:48:36.080633  3129 net.cpp:380] cifar -> data
I0919 21:48:36.080649  3129 net.cpp:380] cifar -> label
I0919 21:48:36.080658  3129 data_transformer.cpp:25] Loading mean file from: /home/x306/caffe/xn/PENLU/data/cifar10/mean.binaryproto
I0919 21:48:36.082024  3129 data_layer.cpp:45] output data size: 64,3,28,28
I0919 21:48:36.084091  3129 net.cpp:122] Setting up cifar
I0919 21:48:36.084115  3129 net.cpp:129] Top shape: 64 3 28 28 (150528)
I0919 21:48:36.084118  3129 net.cpp:129] Top shape: 64 (64)
I0919 21:48:36.084121  3129 net.cpp:137] Memory required for data: 602368
I0919 21:48:36.084127  3129 layer_factory.hpp:77] Creating layer label_cifar_1_split
I0919 21:48:36.084138  3129 net.cpp:84] Creating Layer label_cifar_1_split
I0919 21:48:36.084142  3129 net.cpp:406] label_cifar_1_split <- label
I0919 21:48:36.084159  3129 net.cpp:380] label_cifar_1_split -> label_cifar_1_split_0
I0919 21:48:36.084177  3129 net.cpp:380] label_cifar_1_split -> label_cifar_1_split_1
I0919 21:48:36.084223  3129 net.cpp:122] Setting up label_cifar_1_split
I0919 21:48:36.084229  3129 net.cpp:129] Top shape: 64 (64)
I0919 21:48:36.084242  3129 net.cpp:129] Top shape: 64 (64)
I0919 21:48:36.084244  3129 net.cpp:137] Memory required for data: 602880
I0919 21:48:36.084246  3129 layer_factory.hpp:77] Creating layer conv1
I0919 21:48:36.084257  3129 net.cpp:84] Creating Layer conv1
I0919 21:48:36.084260  3129 net.cpp:406] conv1 <- data
I0919 21:48:36.084264  3129 net.cpp:380] conv1 -> conv1
I0919 21:48:36.234453  3129 net.cpp:122] Setting up conv1
I0919 21:48:36.234479  3129 net.cpp:129] Top shape: 64 192 28 28 (9633792)
I0919 21:48:36.234483  3129 net.cpp:137] Memory required for data: 39138048
I0919 21:48:36.234498  3129 layer_factory.hpp:77] Creating layer penlu_conv1
I0919 21:48:36.234522  3129 net.cpp:84] Creating Layer penlu_conv1
I0919 21:48:36.234527  3129 net.cpp:406] penlu_conv1 <- conv1
I0919 21:48:36.234534  3129 net.cpp:380] penlu_conv1 -> penlu_conv1
I0919 21:48:36.234750  3129 net.cpp:122] Setting up penlu_conv1
I0919 21:48:36.234756  3129 net.cpp:129] Top shape: 64 192 28 28 (9633792)
I0919 21:48:36.234758  3129 net.cpp:137] Memory required for data: 77673216
I0919 21:48:36.234776  3129 layer_factory.hpp:77] Creating layer cccp1
I0919 21:48:36.234786  3129 net.cpp:84] Creating Layer cccp1
I0919 21:48:36.234787  3129 net.cpp:406] cccp1 <- penlu_conv1
I0919 21:48:36.234791  3129 net.cpp:380] cccp1 -> cccp1
I0919 21:48:36.236732  3129 net.cpp:122] Setting up cccp1
I0919 21:48:36.236749  3129 net.cpp:129] Top shape: 64 160 28 28 (8028160)
I0919 21:48:36.236753  3129 net.cpp:137] Memory required for data: 109785856
I0919 21:48:36.236757  3129 layer_factory.hpp:77] Creating layer penlu_cccp1
I0919 21:48:36.236763  3129 net.cpp:84] Creating Layer penlu_cccp1
I0919 21:48:36.236766  3129 net.cpp:406] penlu_cccp1 <- cccp1
I0919 21:48:36.236781  3129 net.cpp:380] penlu_cccp1 -> penlu_cccp1
I0919 21:48:36.236989  3129 net.cpp:122] Setting up penlu_cccp1
I0919 21:48:36.236994  3129 net.cpp:129] Top shape: 64 160 28 28 (8028160)
I0919 21:48:36.236996  3129 net.cpp:137] Memory required for data: 141898496
I0919 21:48:36.237002  3129 layer_factory.hpp:77] Creating layer cccp2
I0919 21:48:36.237009  3129 net.cpp:84] Creating Layer cccp2
I0919 21:48:36.237011  3129 net.cpp:406] cccp2 <- penlu_cccp1
I0919 21:48:36.237025  3129 net.cpp:380] cccp2 -> cccp2
I0919 21:48:36.238230  3129 net.cpp:122] Setting up cccp2
I0919 21:48:36.238241  3129 net.cpp:129] Top shape: 64 96 28 28 (4816896)
I0919 21:48:36.238255  3129 net.cpp:137] Memory required for data: 161166080
I0919 21:48:36.238260  3129 layer_factory.hpp:77] Creating layer penlu_cccp2
I0919 21:48:36.238268  3129 net.cpp:84] Creating Layer penlu_cccp2
I0919 21:48:36.238271  3129 net.cpp:406] penlu_cccp2 <- cccp2
I0919 21:48:36.238276  3129 net.cpp:380] penlu_cccp2 -> penlu_cccp2
I0919 21:48:36.238445  3129 net.cpp:122] Setting up penlu_cccp2
I0919 21:48:36.238451  3129 net.cpp:129] Top shape: 64 96 28 28 (4816896)
I0919 21:48:36.238454  3129 net.cpp:137] Memory required for data: 180433664
I0919 21:48:36.238468  3129 layer_factory.hpp:77] Creating layer pool1
I0919 21:48:36.238476  3129 net.cpp:84] Creating Layer pool1
I0919 21:48:36.238481  3129 net.cpp:406] pool1 <- penlu_cccp2
I0919 21:48:36.238484  3129 net.cpp:380] pool1 -> pool1
I0919 21:48:36.238526  3129 net.cpp:122] Setting up pool1
I0919 21:48:36.238533  3129 net.cpp:129] Top shape: 64 96 14 14 (1204224)
I0919 21:48:36.238534  3129 net.cpp:137] Memory required for data: 185250560
I0919 21:48:36.238536  3129 layer_factory.hpp:77] Creating layer dropout1
I0919 21:48:36.238551  3129 net.cpp:84] Creating Layer dropout1
I0919 21:48:36.238554  3129 net.cpp:406] dropout1 <- pool1
I0919 21:48:36.238557  3129 net.cpp:380] dropout1 -> dropout1
I0919 21:48:36.238585  3129 net.cpp:122] Setting up dropout1
I0919 21:48:36.238591  3129 net.cpp:129] Top shape: 64 96 14 14 (1204224)
I0919 21:48:36.238595  3129 net.cpp:137] Memory required for data: 190067456
I0919 21:48:36.238596  3129 layer_factory.hpp:77] Creating layer conv2
I0919 21:48:36.238602  3129 net.cpp:84] Creating Layer conv2
I0919 21:48:36.238605  3129 net.cpp:406] conv2 <- dropout1
I0919 21:48:36.238610  3129 net.cpp:380] conv2 -> conv2
I0919 21:48:36.250699  3129 net.cpp:122] Setting up conv2
I0919 21:48:36.250720  3129 net.cpp:129] Top shape: 64 192 14 14 (2408448)
I0919 21:48:36.250723  3129 net.cpp:137] Memory required for data: 199701248
I0919 21:48:36.250744  3129 layer_factory.hpp:77] Creating layer penlu_conv2
I0919 21:48:36.250756  3129 net.cpp:84] Creating Layer penlu_conv2
I0919 21:48:36.250761  3129 net.cpp:406] penlu_conv2 <- conv2
I0919 21:48:36.250766  3129 net.cpp:380] penlu_conv2 -> penlu_conv2
I0919 21:48:36.250957  3129 net.cpp:122] Setting up penlu_conv2
I0919 21:48:36.250964  3129 net.cpp:129] Top shape: 64 192 14 14 (2408448)
I0919 21:48:36.250977  3129 net.cpp:137] Memory required for data: 209335040
I0919 21:48:36.250980  3129 layer_factory.hpp:77] Creating layer cccp3
I0919 21:48:36.250989  3129 net.cpp:84] Creating Layer cccp3
I0919 21:48:36.250993  3129 net.cpp:406] cccp3 <- penlu_conv2
I0919 21:48:36.250998  3129 net.cpp:380] cccp3 -> cccp3
I0919 21:48:36.252629  3129 net.cpp:122] Setting up cccp3
I0919 21:48:36.252638  3129 net.cpp:129] Top shape: 64 192 14 14 (2408448)
I0919 21:48:36.252651  3129 net.cpp:137] Memory required for data: 218968832
I0919 21:48:36.252656  3129 layer_factory.hpp:77] Creating layer penlu_cccp3
I0919 21:48:36.252662  3129 net.cpp:84] Creating Layer penlu_cccp3
I0919 21:48:36.252676  3129 net.cpp:406] penlu_cccp3 <- cccp3
I0919 21:48:36.252691  3129 net.cpp:380] penlu_cccp3 -> penlu_cccp3
I0919 21:48:36.252848  3129 net.cpp:122] Setting up penlu_cccp3
I0919 21:48:36.252854  3129 net.cpp:129] Top shape: 64 192 14 14 (2408448)
I0919 21:48:36.252867  3129 net.cpp:137] Memory required for data: 228602624
I0919 21:48:36.252871  3129 layer_factory.hpp:77] Creating layer cccp4
I0919 21:48:36.252878  3129 net.cpp:84] Creating Layer cccp4
I0919 21:48:36.252882  3129 net.cpp:406] cccp4 <- penlu_cccp3
I0919 21:48:36.252885  3129 net.cpp:380] cccp4 -> cccp4
I0919 21:48:36.254691  3129 net.cpp:122] Setting up cccp4
I0919 21:48:36.254710  3129 net.cpp:129] Top shape: 64 192 14 14 (2408448)
I0919 21:48:36.254714  3129 net.cpp:137] Memory required for data: 238236416
I0919 21:48:36.254729  3129 layer_factory.hpp:77] Creating layer penlu_cccp4
I0919 21:48:36.254739  3129 net.cpp:84] Creating Layer penlu_cccp4
I0919 21:48:36.254743  3129 net.cpp:406] penlu_cccp4 <- cccp4
I0919 21:48:36.254750  3129 net.cpp:380] penlu_cccp4 -> penlu_cccp4
I0919 21:48:36.254886  3129 net.cpp:122] Setting up penlu_cccp4
I0919 21:48:36.254892  3129 net.cpp:129] Top shape: 64 192 14 14 (2408448)
I0919 21:48:36.254894  3129 net.cpp:137] Memory required for data: 247870208
I0919 21:48:36.254909  3129 layer_factory.hpp:77] Creating layer pool2
I0919 21:48:36.254917  3129 net.cpp:84] Creating Layer pool2
I0919 21:48:36.254920  3129 net.cpp:406] pool2 <- penlu_cccp4
I0919 21:48:36.254925  3129 net.cpp:380] pool2 -> pool2
I0919 21:48:36.255076  3129 net.cpp:122] Setting up pool2
I0919 21:48:36.255084  3129 net.cpp:129] Top shape: 64 192 7 7 (602112)
I0919 21:48:36.255086  3129 net.cpp:137] Memory required for data: 250278656
I0919 21:48:36.255100  3129 layer_factory.hpp:77] Creating layer dropout2
I0919 21:48:36.255106  3129 net.cpp:84] Creating Layer dropout2
I0919 21:48:36.255120  3129 net.cpp:406] dropout2 <- pool2
I0919 21:48:36.255125  3129 net.cpp:380] dropout2 -> dropout2
I0919 21:48:36.255158  3129 net.cpp:122] Setting up dropout2
I0919 21:48:36.255162  3129 net.cpp:129] Top shape: 64 192 7 7 (602112)
I0919 21:48:36.255174  3129 net.cpp:137] Memory required for data: 252687104
I0919 21:48:36.255177  3129 layer_factory.hpp:77] Creating layer conv3
I0919 21:48:36.255194  3129 net.cpp:84] Creating Layer conv3
I0919 21:48:36.255198  3129 net.cpp:406] conv3 <- dropout2
I0919 21:48:36.255201  3129 net.cpp:380] conv3 -> conv3
I0919 21:48:36.264129  3129 net.cpp:122] Setting up conv3
I0919 21:48:36.264153  3129 net.cpp:129] Top shape: 64 192 7 7 (602112)
I0919 21:48:36.264165  3129 net.cpp:137] Memory required for data: 255095552
I0919 21:48:36.264171  3129 layer_factory.hpp:77] Creating layer penlu_conv3
I0919 21:48:36.264189  3129 net.cpp:84] Creating Layer penlu_conv3
I0919 21:48:36.264192  3129 net.cpp:406] penlu_conv3 <- conv3
I0919 21:48:36.264197  3129 net.cpp:380] penlu_conv3 -> penlu_conv3
I0919 21:48:36.264334  3129 net.cpp:122] Setting up penlu_conv3
I0919 21:48:36.264339  3129 net.cpp:129] Top shape: 64 192 7 7 (602112)
I0919 21:48:36.264343  3129 net.cpp:137] Memory required for data: 257504000
I0919 21:48:36.264350  3129 layer_factory.hpp:77] Creating layer cccp5
I0919 21:48:36.264369  3129 net.cpp:84] Creating Layer cccp5
I0919 21:48:36.264371  3129 net.cpp:406] cccp5 <- penlu_conv3
I0919 21:48:36.264375  3129 net.cpp:380] cccp5 -> cccp5
I0919 21:48:36.266048  3129 net.cpp:122] Setting up cccp5
I0919 21:48:36.266058  3129 net.cpp:129] Top shape: 64 192 7 7 (602112)
I0919 21:48:36.266062  3129 net.cpp:137] Memory required for data: 259912448
I0919 21:48:36.266077  3129 layer_factory.hpp:77] Creating layer penlu_cccp5
I0919 21:48:36.266083  3129 net.cpp:84] Creating Layer penlu_cccp5
I0919 21:48:36.266086  3129 net.cpp:406] penlu_cccp5 <- cccp5
I0919 21:48:36.266091  3129 net.cpp:380] penlu_cccp5 -> penlu_cccp5
I0919 21:48:36.266219  3129 net.cpp:122] Setting up penlu_cccp5
I0919 21:48:36.266235  3129 net.cpp:129] Top shape: 64 192 7 7 (602112)
I0919 21:48:36.266237  3129 net.cpp:137] Memory required for data: 262320896
I0919 21:48:36.266261  3129 layer_factory.hpp:77] Creating layer cccp6
I0919 21:48:36.266268  3129 net.cpp:84] Creating Layer cccp6
I0919 21:48:36.266271  3129 net.cpp:406] cccp6 <- penlu_cccp5
I0919 21:48:36.266275  3129 net.cpp:380] cccp6 -> cccp6
I0919 21:48:36.267165  3129 net.cpp:122] Setting up cccp6
I0919 21:48:36.267176  3129 net.cpp:129] Top shape: 64 10 7 7 (31360)
I0919 21:48:36.267189  3129 net.cpp:137] Memory required for data: 262446336
I0919 21:48:36.267194  3129 layer_factory.hpp:77] Creating layer penlu_cccp6
I0919 21:48:36.267210  3129 net.cpp:84] Creating Layer penlu_cccp6
I0919 21:48:36.267215  3129 net.cpp:406] penlu_cccp6 <- cccp6
I0919 21:48:36.267220  3129 net.cpp:380] penlu_cccp6 -> penlu_cccp6
I0919 21:48:36.267364  3129 net.cpp:122] Setting up penlu_cccp6
I0919 21:48:36.267369  3129 net.cpp:129] Top shape: 64 10 7 7 (31360)
I0919 21:48:36.267381  3129 net.cpp:137] Memory required for data: 262571776
I0919 21:48:36.267386  3129 layer_factory.hpp:77] Creating layer pool3
I0919 21:48:36.267392  3129 net.cpp:84] Creating Layer pool3
I0919 21:48:36.267405  3129 net.cpp:406] pool3 <- penlu_cccp6
I0919 21:48:36.267410  3129 net.cpp:380] pool3 -> pool3
I0919 21:48:36.267539  3129 net.cpp:122] Setting up pool3
I0919 21:48:36.267546  3129 net.cpp:129] Top shape: 64 10 1 1 (640)
I0919 21:48:36.267549  3129 net.cpp:137] Memory required for data: 262574336
I0919 21:48:36.267552  3129 layer_factory.hpp:77] Creating layer pool3_pool3_0_split
I0919 21:48:36.267566  3129 net.cpp:84] Creating Layer pool3_pool3_0_split
I0919 21:48:36.267570  3129 net.cpp:406] pool3_pool3_0_split <- pool3
I0919 21:48:36.267575  3129 net.cpp:380] pool3_pool3_0_split -> pool3_pool3_0_split_0
I0919 21:48:36.267580  3129 net.cpp:380] pool3_pool3_0_split -> pool3_pool3_0_split_1
I0919 21:48:36.267612  3129 net.cpp:122] Setting up pool3_pool3_0_split
I0919 21:48:36.267617  3129 net.cpp:129] Top shape: 64 10 1 1 (640)
I0919 21:48:36.267621  3129 net.cpp:129] Top shape: 64 10 1 1 (640)
I0919 21:48:36.267633  3129 net.cpp:137] Memory required for data: 262579456
I0919 21:48:36.267635  3129 layer_factory.hpp:77] Creating layer accuracy
I0919 21:48:36.267642  3129 net.cpp:84] Creating Layer accuracy
I0919 21:48:36.267644  3129 net.cpp:406] accuracy <- pool3_pool3_0_split_0
I0919 21:48:36.267647  3129 net.cpp:406] accuracy <- label_cifar_1_split_0
I0919 21:48:36.267652  3129 net.cpp:380] accuracy -> accuracy
…
I0919 21:48:36.268676  3129 net.cpp:294] The NetState phase (1) differed from the phase (0) specified by a rule in layer cifar
I0919 21:48:36.268852  3129 net.cpp:51] Initializing net from parameters: 
name: "nin"
state {
  phase: TEST
}
layer {
  name: "cifar"
  type: "Data"
  top: "data"
  top: "label"
  include {
    phase: TEST
  }
  transform_param {
    mirror: false
    crop_size: 28
    mean_file: "/home/x306/caffe/xn/PENLU/data/cifar10/mean.binaryproto"
  }
  data_param {
    source: "/home/x306/caffe/xn/PENLU/data/cifar10/cifar10_test_lmdb"
    batch_size: 50
    backend: LMDB
  }
}
layer {
  name: "conv1"
  type: "Convolution"
  bottom: "data"
  top: "conv1"
  param {
    lr_mult: 1
    decay_mult: 1
  }
  param {
    lr_mult: 2
    decay_mult: 0
  }
  convolution_param {
    num_output: 192
    pad: 2
    kernel_size: 5
    weight_filler {
      type: "gaussian"
      std: 0.05
    }
    bias_filler {
      type: "constant"
      value: 0
    }
  }
}
layer {
  name: "penlu_conv1"
  type: "PENLU"
  bottom: "conv1"
  top: "penlu_conv1"
  param {
    lr_mult: 1
    decay_mult: 0
  }
  param {
    lr_mult: 1
    decay_mult: 0
  }
  param {
    lr_mult: 1
    decay_mult: 0
  }
  penlu_param {
    alpha_filler {
      type: "constant"
      value: 3
    }
    beta_filler {
      type: "constant"
      value: 1
    }
    eta_filler {
      type: "constant"
      value: 1
    }
  }
}
layer {
  name: "cccp1"
  type: "Convolution"
  bottom: "penlu_conv1"
  top: "cccp1"
  param {
    lr_mult: 1
    decay_mult: 1
  }
  param {
    lr_mult: 2
    decay_mult: 0
  }
  convolution_param {
    num_output: 160
    kernel_size: 1
    weight_filler {
      type: "gaussian"
      std: 0.05
    }
    bias_filler {
      type: "constant"
      value: 0
    }
  }
}
layer {
  name: "penlu_cccp1"
  type: "PENLU"
  bottom: "cccp1"
  top: "penlu_cccp1"
  param {
    lr_mult: 1
    decay_mult: 0
  }
  param {
    lr_mult: 1
    decay_mult: 0
  }
  param {
    lr_mult: 1
    decay_mult: 0
  }
  penlu_param {
    alpha_filler {
      type: "constant"
      value: 3
    }
    beta_filler {
      type: "constant"
      value: 1
    }
    eta_filler {
      type: "constant"
      value: 1
    }
  }
}
layer {
  name: "cccp2"
  type: "Convolution"
  bottom: "penlu_cccp1"
  top: "cccp2"
  param {
    lr_mult: 1
    decay_mult: 1
  }
  param {
    lr_mult: 2
    decay_mult: 0
  }
  convolution_param {
    num_output: 96
    kernel_size: 1
    weight_filler {
      type: "gaussian"
      std: 0.05
    }
    bias_filler {
      type: "constant"
      value: 0
    }
  }
}
layer {
  name: "penlu_cccp2"
  type: "PENLU"
  bottom: "cccp2"
  top: "penlu_cccp2"
  param {
    lr_mult: 1
    decay_mult: 0
  }
  param {
    lr_mult: 1
    decay_mult: 0
  }
  param {
    lr_mult: 1
    decay_mult: 0
  }
  penlu_param {
    alpha_filler {
      type: "constant"
      value: 3
    }
    beta_filler {
      type: "constant"
      value: 1
    }
    eta_filler {
      type: "constant"
      value: 1
    }
  }
}
layer {
  name: "pool1"
  type: "Pooling"
  bottom: "penlu_cccp2"
  top: "pool1"
  pooling_param {
    pool: MAX
    kernel_size: 3
    stride: 2
  }
}
layer {
  name: "dropout1"
  type: "Dropout"
  bottom: "pool1"
  top: "dropout1"
  dropout_param {
    dropout_ratio: 0.5
  }
}
layer {
  name: "conv2"
  type: "Convolution"
  bottom: "dropout1"
  top: "conv2"
  param {
    lr_mult: 1
    decay_mult: 1
  }
  param {
    lr_mult: 2
    decay_mult: 0
  }
  convolution_param {
    num_output: 192
    pad: 2
    kernel_size: 5
    weight_filler {
      type: "gaussian"
      std: 0.05
    }
    bias_filler {
      type: "constant"
      value: 0
    }
  }
}
layer {
  name: "penlu_conv2"
  type: "PENLU"
  bottom: "conv2"
  top: "penlu_conv2"
  param {
    lr_mult: 1
    decay_mult: 0
  }
  param {
    lr_mult: 1
    decay_mult: 0
  }
  param {
    lr_mult: 1
    decay_mult: 0
  }
  penlu_param {
    alpha_filler {
      type: "constant"
      value: 3
    }
    beta_filler {
      type: "constant"
      value: 1
    }
    eta_filler {
      type: "constant"
      value: 1
    }
  }
}
layer {
  name: "cccp3"
  type: "Convolution"
  bottom: "penlu_conv2"
  top: "cccp3"
  param {
    lr_mult: 1
    decay_mult: 1
  }
  param {
    lr_mult: 2
    decay_mult: 0
  }
  convolution_param {
    num_output: 192
    kernel_size: 1
    weight_filler {
      type: "gaussian"
      std: 0.05
    }
    bias_filler {
      type: "constant"
      value: 0
    }
  }
}
layer {
  name: "penlu_cccp3"
  type: "PENLU"
  bottom: "cccp3"
  top: "penlu_cccp3"
  param {
    lr_mult: 1
    decay_mult: 0
  }
  param {
    lr_mult: 1
    decay_mult: 0
  }
  param {
    lr_mult: 1
    decay_mult: 0
  }
  penlu_param {
    alpha_filler {
      type: "constant"
      value: 3
    }
    beta_filler {
      type: "constant"
      value: 1
    }
    eta_filler {
      type: "constant"
      value: 1
    }
  }
}
layer {
  name: "cccp4"
  type: "Convolution"
  bottom: "penlu_cccp3"
  top: "cccp4"
  param {
    lr_mult: 1
    decay_mult: 1
  }
  param {
    lr_mult: 2
    decay_mult: 0
  }
  convolution_param {
    num_output: 192
    kernel_size: 1
    weight_filler {
      type: "gaussian"
      std: 0.05
    }
    bias_filler {
      type: "constant"
      value: 0
    }
  }
}
layer {
  name: "penlu_cccp4"
  type: "PENLU"
  bottom: "cccp4"
  top: "penlu_cccp4"
  param {
    lr_mult: 1
    decay_mult: 0
  }
  param {
    lr_mult: 1
    decay_mult: 0
  }
  param {
    lr_mult: 1
    decay_mult: 0
  }
  penlu_param {
    alpha_filler {
      type: "constant"
      value: 3
    }
    beta_filler {
      type: "constant"
      value: 1
    }
    eta_filler {
      type: "constant"
      value: 1
    }
  }
}
layer {
  name: "pool2"
  type: "Pooling"
  bottom: "penlu_cccp4"
  top: "pool2"
  pooling_param {
    pool: AVE
    kernel_size: 3
    stride: 2
  }
}
layer {
  name: "dropout2"
  type: "Dropout"
  bottom: "pool2"
  top: "dropout2"
  dropout_param {
    dropout_ratio: 0.5
  }
}
layer {
  name: "conv3"
  type: "Convolution"
  bottom: "dropout2"
  top: "conv3"
  param {
    lr_mult: 1
    decay_mult: 1
  }
  param {
    lr_mult: 2
    decay_mult: 0
  }
  convolution_param {
    num_output: 192
    pad: 1
    kernel_size: 3
    weight_filler {
      type: "gaussian"
      std: 0.05
    }
    bias_filler {
      type: "constant"
      value: 0
    }
  }
}
layer {
  name: "penlu_conv3"
  type: "PENLU"
  bottom: "conv3"
  top: "penlu_conv3"
  param {
    lr_mult: 1
    decay_mult: 0
  }
  param {
    lr_mult: 1
    decay_mult: 0
  }
  param {
    lr_mult: 1
    decay_mult: 0
  }
  penlu_param {
    alpha_filler {
      type: "constant"
      value: 3
    }
    beta_filler {
      type: "constant"
      value: 1
    }
    eta_filler {
      type: "constant"
      value: 1
    }
  }
}
layer {
  name: "cccp5"
  type: "Convolution"
  bottom: "penlu_conv3"
  top: "cccp5"
  param {
    lr_mult: 1
    decay_mult: 1
  }
  param {
    lr_mult: 2
    decay_mult: 0
  }
  convolution_param {
    num_output: 192
    kernel_size: 1
    weight_filler {
      type: "gaussian"
      std: 0.05
    }
    bias_filler {
      type: "constant"
      value: 0
    }
  }
}
layer {
  name: "penlu_cccp5"
  type: "PENLU"
  bottom: "cccp5"
  top: "penlu_cccp5"
  param {
    lr_mult: 1
    decay_mult: 0
  }
  param {
    lr_mult: 1
    decay_mult: 0
  }
  param {
    lr_mult: 1
    decay_mult: 0
  }
  penlu_param {
    alpha_filler {
      type: "constant"
      value: 3
    }
    beta_filler {
      type: "constant"
      value: 1
    }
    eta_filler {
      type: "constant"
      value: 1
    }
  }
}
layer {
  name: "cccp6"
  type: "Convolution"
  bottom: "penlu_cccp5"
  top: "cccp6"
  param {
    lr_mult: 0.1
    decay_mult: 1
  }
  param {
    lr_mult: 0.1
    decay_mult: 0
  }
  convolution_param {
    num_output: 10
    kernel_size: 1
    weight_filler {
      type: "gaussian"
      std: 0.05
    }
    bias_filler {
      type: "constant"
      value: 0
    }
  }
}
layer {
  name: "penlu_cccp6"
  type: "PENLU"
  bottom: "cccp6"
  top: "penlu_cccp6"
  param {
    lr_mult: 1
    decay_mult: 0
  }
  param {
    lr_mult: 1
    decay_mult: 0
  }
  param {
    lr_mult: 1
    decay_mult: 0
  }
  penlu_param {
    alpha_filler {
      type: "constant"
      value: 3
    }
    beta_filler {
      type: "constant"
      value: 1
    }
    eta_filler {
      type: "constant"
      value: 1
    }
  }
}
layer {
  name: "pool3"
  type: "Pooling"
  bottom: "penlu_cccp6"
  top: "pool3"
  pooling_param {
    pool: AVE
    kernel_size: 7
    stride: 1
  }
}
layer {
  name: "accuracy"
  type: "Accuracy"
  bottom: "pool3"
  bottom: "label"
  top: "accuracy"
}
layer {
  name: "loss"
  type: "SoftmaxWithLoss"
  bottom: "pool3"
  bottom: "label"
  top: "loss"
}
I0919 21:48:36.268939  3129 layer_factory.hpp:77] Creating layer cifar
I0919 21:48:36.268978  3129 db_lmdb.cpp:35] Opened lmdb /home/x306/caffe/xn/PENLU/data/cifar10/cifar10_test_lmdb
I0919 21:48:36.268988  3129 net.cpp:84] Creating Layer cifar
I0919 21:48:36.268992  3129 net.cpp:380] cifar -> data
I0919 21:48:36.268998  3129 net.cpp:380] cifar -> label
I0919 21:48:36.269004  3129 data_transformer.cpp:25] Loading mean file from: /home/x306/caffe/xn/PENLU/data/cifar10/mean.binaryproto
I0919 21:48:36.269104  3129 data_layer.cpp:45] output data size: 50,3,28,28
I0919 21:48:36.270265  3129 net.cpp:122] Setting up cifar
I0919 21:48:36.270277  3129 net.cpp:129] Top shape: 50 3 28 28 (117600)
I0919 21:48:36.270282  3129 net.cpp:129] Top shape: 50 (50)
I0919 21:48:36.270293  3129 net.cpp:137] Memory required for data: 470600
I0919 21:48:36.270298  3129 layer_factory.hpp:77] Creating layer label_cifar_1_split
I0919 21:48:36.270303  3129 net.cpp:84] Creating Layer label_cifar_1_split
I0919 21:48:36.270306  3129 net.cpp:406] label_cifar_1_split <- label
I0919 21:48:36.270310  3129 net.cpp:380] label_cifar_1_split -> label_cifar_1_split_0
I0919 21:48:36.270316  3129 net.cpp:380] label_cifar_1_split -> label_cifar_1_split_1
I0919 21:48:36.270366  3129 net.cpp:122] Setting up label_cifar_1_split
I0919 21:48:36.270372  3129 net.cpp:129] Top shape: 50 (50)
I0919 21:48:36.270375  3129 net.cpp:129] Top shape: 50 (50)
I0919 21:48:36.270377  3129 net.cpp:137] Memory required for data: 471000
I0919 21:48:36.270390  3129 layer_factory.hpp:77] Creating layer conv1
I0919 21:48:36.270397  3129 net.cpp:84] Creating Layer conv1
I0919 21:48:36.270401  3129 net.cpp:406] conv1 <- data
I0919 21:48:36.270404  3129 net.cpp:380] conv1 -> conv1
I0919 21:48:36.271773  3129 net.cpp:122] Setting up conv1
I0919 21:48:36.271785  3129 net.cpp:129] Top shape: 50 192 28 28 (7526400)
I0919 21:48:36.271787  3129 net.cpp:137] Memory required for data: 30576600
I0919 21:48:36.271795  3129 layer_factory.hpp:77] Creating layer penlu_conv1
I0919 21:48:36.271806  3129 net.cpp:84] Creating Layer penlu_conv1
I0919 21:48:36.271811  3129 net.cpp:406] penlu_conv1 <- conv1
I0919 21:48:36.271816  3129 net.cpp:380] penlu_conv1 -> penlu_conv1
I0919 21:48:36.271996  3129 net.cpp:122] Setting up penlu_conv1
I0919 21:48:36.272002  3129 net.cpp:129] Top shape: 50 192 28 28 (7526400)
I0919 21:48:36.272008  3129 net.cpp:137] Memory required for data: 60682200
I0919 21:48:36.272016  3129 layer_factory.hpp:77] Creating layer cccp1
I0919 21:48:36.272022  3129 net.cpp:84] Creating Layer cccp1
I0919 21:48:36.272025  3129 net.cpp:406] cccp1 <- penlu_conv1
I0919 21:48:36.272032  3129 net.cpp:380] cccp1 -> cccp1
I0919 21:48:36.273566  3129 net.cpp:122] Setting up cccp1
I0919 21:48:36.273576  3129 net.cpp:129] Top shape: 50 160 28 28 (6272000)
I0919 21:48:36.273579  3129 net.cpp:137] Memory required for data: 85770200
I0919 21:48:36.273584  3129 layer_factory.hpp:77] Creating layer penlu_cccp1
I0919 21:48:36.273591  3129 net.cpp:84] Creating Layer penlu_cccp1
I0919 21:48:36.273607  3129 net.cpp:406] penlu_cccp1 <- cccp1
I0919 21:48:36.273615  3129 net.cpp:380] penlu_cccp1 -> penlu_cccp1
I0919 21:48:36.274269  3129 net.cpp:122] Setting up penlu_cccp1
I0919 21:48:36.274279  3129 net.cpp:129] Top shape: 50 160 28 28 (6272000)
I0919 21:48:36.274282  3129 net.cpp:137] Memory required for data: 110858200
I0919 21:48:36.274291  3129 layer_factory.hpp:77] Creating layer cccp2
I0919 21:48:36.274297  3129 net.cpp:84] Creating Layer cccp2
I0919 21:48:36.274302  3129 net.cpp:406] cccp2 <- penlu_cccp1
I0919 21:48:36.274305  3129 net.cpp:380] cccp2 -> cccp2
I0919 21:48:36.275463  3129 net.cpp:122] Setting up cccp2
I0919 21:48:36.275473  3129 net.cpp:129] Top shape: 50 96 28 28 (3763200)
I0919 21:48:36.275477  3129 net.cpp:137] Memory required for data: 125911000
I0919 21:48:36.275482  3129 layer_factory.hpp:77] Creating layer penlu_cccp2
I0919 21:48:36.275488  3129 net.cpp:84] Creating Layer penlu_cccp2
I0919 21:48:36.275491  3129 net.cpp:406] penlu_cccp2 <- cccp2
I0919 21:48:36.275496  3129 net.cpp:380] penlu_cccp2 -> penlu_cccp2
I0919 21:48:36.275630  3129 net.cpp:122] Setting up penlu_cccp2
I0919 21:48:36.275636  3129 net.cpp:129] Top shape: 50 96 28 28 (3763200)
I0919 21:48:36.275640  3129 net.cpp:137] Memory required for data: 140963800
I0919 21:48:36.275643  3129 layer_factory.hpp:77] Creating layer pool1
I0919 21:48:36.275650  3129 net.cpp:84] Creating Layer pool1
I0919 21:48:36.275653  3129 net.cpp:406] pool1 <- penlu_cccp2
I0919 21:48:36.275657  3129 net.cpp:380] pool1 -> pool1
I0919 21:48:36.275681  3129 net.cpp:122] Setting up pool1
I0919 21:48:36.275686  3129 net.cpp:129] Top shape: 50 96 14 14 (940800)
I0919 21:48:36.275689  3129 net.cpp:137] Memory required for data: 144727000
I0919 21:48:36.275691  3129 layer_factory.hpp:77] Creating layer dropout1
I0919 21:48:36.275696  3129 net.cpp:84] Creating Layer dropout1
I0919 21:48:36.275699  3129 net.cpp:406] dropout1 <- pool1
I0919 21:48:36.275702  3129 net.cpp:380] dropout1 -> dropout1
I0919 21:48:36.275724  3129 net.cpp:122] Setting up dropout1
I0919 21:48:36.275729  3129 net.cpp:129] Top shape: 50 96 14 14 (940800)
I0919 21:48:36.275732  3129 net.cpp:137] Memory required for data: 148490200
I0919 21:48:36.275734  3129 layer_factory.hpp:77] Creating layer conv2
I0919 21:48:36.275739  3129 net.cpp:84] Creating Layer conv2
I0919 21:48:36.275743  3129 net.cpp:406] conv2 <- dropout1
I0919 21:48:36.275746  3129 net.cpp:380] conv2 -> conv2
I0919 21:48:36.287256  3129 net.cpp:122] Setting up conv2
I0919 21:48:36.287276  3129 net.cpp:129] Top shape: 50 192 14 14 (1881600)
I0919 21:48:36.287291  3129 net.cpp:137] Memory required for data: 156016600
I0919 21:48:36.287302  3129 layer_factory.hpp:77] Creating layer penlu_conv2
I0919 21:48:36.287341  3129 net.cpp:84] Creating Layer penlu_conv2
I0919 21:48:36.287346  3129 net.cpp:406] penlu_conv2 <- conv2
I0919 21:48:36.287353  3129 net.cpp:380] penlu_conv2 -> penlu_conv2
I0919 21:48:36.287499  3129 net.cpp:122] Setting up penlu_conv2
I0919 21:48:36.287505  3129 net.cpp:129] Top shape: 50 192 14 14 (1881600)
I0919 21:48:36.287508  3129 net.cpp:137] Memory required for data: 163543000
I0919 21:48:36.287523  3129 layer_factory.hpp:77] Creating layer cccp3
I0919 21:48:36.287531  3129 net.cpp:84] Creating Layer cccp3
I0919 21:48:36.287535  3129 net.cpp:406] cccp3 <- penlu_conv2
I0919 21:48:36.287540  3129 net.cpp:380] cccp3 -> cccp3
I0919 21:48:36.289136  3129 net.cpp:122] Setting up cccp3
I0919 21:48:36.289146  3129 net.cpp:129] Top shape: 50 192 14 14 (1881600)
I0919 21:48:36.289150  3129 net.cpp:137] Memory required for data: 171069400
I0919 21:48:36.289155  3129 layer_factory.hpp:77] Creating layer penlu_cccp3
I0919 21:48:36.289160  3129 net.cpp:84] Creating Layer penlu_cccp3
I0919 21:48:36.289163  3129 net.cpp:406] penlu_cccp3 <- cccp3
I0919 21:48:36.289167  3129 net.cpp:380] penlu_cccp3 -> penlu_cccp3
I0919 21:48:36.289294  3129 net.cpp:122] Setting up penlu_cccp3
I0919 21:48:36.289299  3129 net.cpp:129] Top shape: 50 192 14 14 (1881600)
I0919 21:48:36.289300  3129 net.cpp:137] Memory required for data: 178595800
I0919 21:48:36.289305  3129 layer_factory.hpp:77] Creating layer cccp4
I0919 21:48:36.289310  3129 net.cpp:84] Creating Layer cccp4
I0919 21:48:36.289314  3129 net.cpp:406] cccp4 <- penlu_cccp3
I0919 21:48:36.289317  3129 net.cpp:380] cccp4 -> cccp4
I0919 21:48:36.290942  3129 net.cpp:122] Setting up cccp4
I0919 21:48:36.290952  3129 net.cpp:129] Top shape: 50 192 14 14 (1881600)
I0919 21:48:36.290956  3129 net.cpp:137] Memory required for data: 186122200
I0919 21:48:36.290959  3129 layer_factory.hpp:77] Creating layer penlu_cccp4
I0919 21:48:36.290966  3129 net.cpp:84] Creating Layer penlu_cccp4
I0919 21:48:36.290967  3129 net.cpp:406] penlu_cccp4 <- cccp4
I0919 21:48:36.290972  3129 net.cpp:380] penlu_cccp4 -> penlu_cccp4
I0919 21:48:36.291100  3129 net.cpp:122] Setting up penlu_cccp4
I0919 21:48:36.291105  3129 net.cpp:129] Top shape: 50 192 14 14 (1881600)
I0919 21:48:36.291106  3129 net.cpp:137] Memory required for data: 193648600
I0919 21:48:36.291111  3129 layer_factory.hpp:77] Creating layer pool2
I0919 21:48:36.291117  3129 net.cpp:84] Creating Layer pool2
I0919 21:48:36.291121  3129 net.cpp:406] pool2 <- penlu_cccp4
I0919 21:48:36.291123  3129 net.cpp:380] pool2 -> pool2
I0919 21:48:36.291244  3129 net.cpp:122] Setting up pool2
I0919 21:48:36.291249  3129 net.cpp:129] Top shape: 50 192 7 7 (470400)
I0919 21:48:36.291251  3129 net.cpp:137] Memory required for data: 195530200
I0919 21:48:36.291254  3129 layer_factory.hpp:77] Creating layer dropout2
I0919 21:48:36.291260  3129 net.cpp:84] Creating Layer dropout2
I0919 21:48:36.291261  3129 net.cpp:406] dropout2 <- pool2
I0919 21:48:36.291265  3129 net.cpp:380] dropout2 -> dropout2
I0919 21:48:36.291288  3129 net.cpp:122] Setting up dropout2
I0919 21:48:36.291292  3129 net.cpp:129] Top shape: 50 192 7 7 (470400)
I0919 21:48:36.291294  3129 net.cpp:137] Memory required for data: 197411800
I0919 21:48:36.291296  3129 layer_factory.hpp:77] Creating layer conv3
I0919 21:48:36.291302  3129 net.cpp:84] Creating Layer conv3
I0919 21:48:36.291304  3129 net.cpp:406] conv3 <- dropout2
I0919 21:48:36.291308  3129 net.cpp:380] conv3 -> conv3
I0919 21:48:36.300580  3129 net.cpp:122] Setting up conv3
I0919 21:48:36.300602  3129 net.cpp:129] Top shape: 50 192 7 7 (470400)
I0919 21:48:36.300606  3129 net.cpp:137] Memory required for data: 199293400
I0919 21:48:36.300622  3129 layer_factory.hpp:77] Creating layer penlu_conv3
I0919 21:48:36.300632  3129 net.cpp:84] Creating Layer penlu_conv3
I0919 21:48:36.300637  3129 net.cpp:406] penlu_conv3 <- conv3
I0919 21:48:36.300650  3129 net.cpp:380] penlu_conv3 -> penlu_conv3
I0919 21:48:36.300786  3129 net.cpp:122] Setting up penlu_conv3
I0919 21:48:36.300791  3129 net.cpp:129] Top shape: 50 192 7 7 (470400)
I0919 21:48:36.300813  3129 net.cpp:137] Memory required for data: 201175000
I0919 21:48:36.300823  3129 layer_factory.hpp:77] Creating layer cccp5
I0919 21:48:36.300832  3129 net.cpp:84] Creating Layer cccp5
I0919 21:48:36.300835  3129 net.cpp:406] cccp5 <- penlu_conv3
I0919 21:48:36.300839  3129 net.cpp:380] cccp5 -> cccp5
I0919 21:48:36.302495  3129 net.cpp:122] Setting up cccp5
I0919 21:48:36.302505  3129 net.cpp:129] Top shape: 50 192 7 7 (470400)
I0919 21:48:36.302508  3129 net.cpp:137] Memory required for data: 203056600
I0919 21:48:36.302513  3129 layer_factory.hpp:77] Creating layer penlu_cccp5
I0919 21:48:36.302520  3129 net.cpp:84] Creating Layer penlu_cccp5
I0919 21:48:36.302522  3129 net.cpp:406] penlu_cccp5 <- cccp5
I0919 21:48:36.302527  3129 net.cpp:380] penlu_cccp5 -> penlu_cccp5
I0919 21:48:36.302639  3129 net.cpp:122] Setting up penlu_cccp5
I0919 21:48:36.302644  3129 net.cpp:129] Top shape: 50 192 7 7 (470400)
I0919 21:48:36.302647  3129 net.cpp:137] Memory required for data: 204938200
I0919 21:48:36.302651  3129 layer_factory.hpp:77] Creating layer cccp6
I0919 21:48:36.302659  3129 net.cpp:84] Creating Layer cccp6
I0919 21:48:36.302661  3129 net.cpp:406] cccp6 <- penlu_cccp5
I0919 21:48:36.302665  3129 net.cpp:380] cccp6 -> cccp6
I0919 21:48:36.303530  3129 net.cpp:122] Setting up cccp6
I0919 21:48:36.303540  3129 net.cpp:129] Top shape: 50 10 7 7 (24500)
I0919 21:48:36.303544  3129 net.cpp:137] Memory required for data: 205036200
I0919 21:48:36.303548  3129 layer_factory.hpp:77] Creating layer penlu_cccp6
I0919 21:48:36.303555  3129 net.cpp:84] Creating Layer penlu_cccp6
I0919 21:48:36.303557  3129 net.cpp:406] penlu_cccp6 <- cccp6
I0919 21:48:36.303562  3129 net.cpp:380] penlu_cccp6 -> penlu_cccp6
I0919 21:48:36.303668  3129 net.cpp:122] Setting up penlu_cccp6
I0919 21:48:36.303673  3129 net.cpp:129] Top shape: 50 10 7 7 (24500)
I0919 21:48:36.303675  3129 net.cpp:137] Memory required for data: 205134200
I0919 21:48:36.303680  3129 layer_factory.hpp:77] Creating layer pool3
I0919 21:48:36.303685  3129 net.cpp:84] Creating Layer pool3
I0919 21:48:36.303689  3129 net.cpp:406] pool3 <- penlu_cccp6
I0919 21:48:36.303694  3129 net.cpp:380] pool3 -> pool3
I0919 21:48:36.304138  3129 net.cpp:122] Setting up pool3
I0919 21:48:36.304148  3129 net.cpp:129] Top shape: 50 10 1 1 (500)
I0919 21:48:36.304152  3129 net.cpp:137] Memory required for data: 205136200
I0919 21:48:36.304154  3129 layer_factory.hpp:77] Creating layer pool3_pool3_0_split
I0919 21:48:36.304159  3129 net.cpp:84] Creating Layer pool3_pool3_0_split
I0919 21:48:36.304162  3129 net.cpp:406] pool3_pool3_0_split <- pool3
I0919 21:48:36.304167  3129 net.cpp:380] pool3_pool3_0_split -> pool3_pool3_0_split_0
I0919 21:48:36.304172  3129 net.cpp:380] pool3_pool3_0_split -> pool3_pool3_0_split_1
I0919 21:48:36.304198  3129 net.cpp:122] Setting up pool3_pool3_0_split
I0919 21:48:36.304203  3129 net.cpp:129] Top shape: 50 10 1 1 (500)
I0919 21:48:36.304205  3129 net.cpp:129] Top shape: 50 10 1 1 (500)
I0919 21:48:36.304208  3129 net.cpp:137] Memory required for data: 205140200
I0919 21:48:36.304211  3129 layer_factory.hpp:77] Creating layer accuracy
I0919 21:48:36.304215  3129 net.cpp:84] Creating Layer accuracy
I0919 21:48:36.304219  3129 net.cpp:406] accuracy <- pool3_pool3_0_split_0
I0919 21:48:36.304221  3129 net.cpp:406] accuracy <- label_cifar_1_split_0
I0919 21:48:36.304225  3129 net.cpp:380] accuracy -> accuracy
…
