…
I0916 20:07:17.030230  6490 net.cpp:294] The NetState phase (0) differed from the phase (1) specified by a rule in layer cifar
I0916 20:07:17.030441  6490 net.cpp:51] Initializing net from parameters: 
name: "nin"
state {
  phase: TRAIN
  level: 0
  stage: ""
}
layer {
  name: "cifar"
  type: "Data"
  top: "data"
  top: "label"
  include {
    phase: TRAIN
  }
  transform_param {
    mirror: true
    crop_size: 28
    mean_file: "/home/x306/caffe/xn/PENLU/data/cifar10/mean.binaryproto"
  }
  data_param {
    source: "/home/x306/caffe/xn/PENLU/data/cifar10/cifar10_train_lmdb"
    batch_size: 64
    backend: LMDB
  }
  image_data_param {
    shuffle: true
  }
}
layer {
  name: "conv1"
  type: "Convolution"
  bottom: "data"
  top: "conv1"
  param {
    lr_mult: 1
    decay_mult: 1
  }
  param {
    lr_mult: 2
    decay_mult: 0
  }
  convolution_param {
    num_output: 192
    pad: 2
    kernel_size: 5
    weight_filler {
      type: "gaussian"
      std: 0.05
    }
    bias_filler {
      type: "constant"
      value: 0
    }
  }
}
layer {
  name: "penlu_conv1"
  type: "PENLU"
  bottom: "conv1"
  top: "penlu_conv1"
  param {
    lr_mult: 2
    decay_mult: 0
  }
  param {
    lr_mult: 2
    decay_mult: 0
  }
  param {
    lr_mult: 2
    decay_mult: 0
  }
  penlu_param {
    alpha_filler {
      type: "constant"
      value: 0.25
    }
    beta_filler {
      type: "constant"
      value: 1
    }
    eta_filler {
      type: "constant"
      value: 1.05
    }
  }
}
layer {
  name: "cccp1"
  type: "Convolution"
  bottom: "penlu_conv1"
  top: "cccp1"
  param {
    lr_mult: 1
    decay_mult: 1
  }
  param {
    lr_mult: 2
    decay_mult: 0
  }
  convolution_param {
    num_output: 160
    kernel_size: 1
    weight_filler {
      type: "gaussian"
      std: 0.05
    }
    bias_filler {
      type: "constant"
      value: 0
    }
  }
}
layer {
  name: "penlu_cccp1"
  type: "PENLU"
  bottom: "cccp1"
  top: "penlu_cccp1"
  param {
    lr_mult: 2
    decay_mult: 0
  }
  param {
    lr_mult: 2
    decay_mult: 0
  }
  param {
    lr_mult: 2
    decay_mult: 0
  }
  penlu_param {
    alpha_filler {
      type: "constant"
      value: 0.25
    }
    beta_filler {
      type: "constant"
      value: 1
    }
    eta_filler {
      type: "constant"
      value: 1.05
    }
  }
}
layer {
  name: "cccp2"
  type: "Convolution"
  bottom: "penlu_cccp1"
  top: "cccp2"
  param {
    lr_mult: 1
    decay_mult: 1
  }
  param {
    lr_mult: 2
    decay_mult: 0
  }
  convolution_param {
    num_output: 96
    kernel_size: 1
    weight_filler {
      type: "gaussian"
      std: 0.05
    }
    bias_filler {
      type: "constant"
      value: 0
    }
  }
}
layer {
  name: "penlu_cccp2"
  type: "PENLU"
  bottom: "cccp2"
  top: "penlu_cccp2"
  param {
    lr_mult: 2
    decay_mult: 0
  }
  param {
    lr_mult: 2
    decay_mult: 0
  }
  param {
    lr_mult: 2
    decay_mult: 0
  }
  penlu_param {
    alpha_filler {
      type: "constant"
      value: 0.25
    }
    beta_filler {
      type: "constant"
      value: 1
    }
    eta_filler {
      type: "constant"
      value: 1.05
    }
  }
}
layer {
  name: "pool1"
  type: "Pooling"
  bottom: "penlu_cccp2"
  top: "pool1"
  pooling_param {
    pool: MAX
    kernel_size: 3
    stride: 2
  }
}
layer {
  name: "dropout1"
  type: "Dropout"
  bottom: "pool1"
  top: "dropout1"
  dropout_param {
    dropout_ratio: 0.5
  }
}
layer {
  name: "conv2"
  type: "Convolution"
  bottom: "dropout1"
  top: "conv2"
  param {
    lr_mult: 1
    decay_mult: 1
  }
  param {
    lr_mult: 2
    decay_mult: 0
  }
  convolution_param {
    num_output: 192
    pad: 2
    kernel_size: 5
    weight_filler {
      type: "gaussian"
      std: 0.05
    }
    bias_filler {
      type: "constant"
      value: 0
    }
  }
}
layer {
  name: "penlu_conv2"
  type: "PENLU"
  bottom: "conv2"
  top: "penlu_conv2"
  param {
    lr_mult: 2
    decay_mult: 0
  }
  param {
    lr_mult: 2
    decay_mult: 0
  }
  param {
    lr_mult: 2
    decay_mult: 0
  }
  penlu_param {
    alpha_filler {
      type: "constant"
      value: 0.25
    }
    beta_filler {
      type: "constant"
      value: 1
    }
    eta_filler {
      type: "constant"
      value: 1.05
    }
  }
}
layer {
  name: "cccp3"
  type: "Convolution"
  bottom: "penlu_conv2"
  top: "cccp3"
  param {
    lr_mult: 1
    decay_mult: 1
  }
  param {
    lr_mult: 2
    decay_mult: 0
  }
  convolution_param {
    num_output: 192
    kernel_size: 1
    weight_filler {
      type: "gaussian"
      std: 0.05
    }
    bias_filler {
      type: "constant"
      value: 0
    }
  }
}
layer {
  name: "penlu_cccp3"
  type: "PENLU"
  bottom: "cccp3"
  top: "penlu_cccp3"
  param {
    lr_mult: 2
    decay_mult: 0
  }
  param {
    lr_mult: 2
    decay_mult: 0
  }
  param {
    lr_mult: 2
    decay_mult: 0
  }
  penlu_param {
    alpha_filler {
      type: "constant"
      value: 0.25
    }
    beta_filler {
      type: "constant"
      value: 1
    }
    eta_filler {
      type: "constant"
      value: 1.05
    }
  }
}
layer {
  name: "cccp4"
  type: "Convolution"
  bottom: "penlu_cccp3"
  top: "cccp4"
  param {
    lr_mult: 1
    decay_mult: 1
  }
  param {
    lr_mult: 2
    decay_mult: 0
  }
  convolution_param {
    num_output: 192
    kernel_size: 1
    weight_filler {
      type: "gaussian"
      std: 0.05
    }
    bias_filler {
      type: "constant"
      value: 0
    }
  }
}
layer {
  name: "penlu_cccp4"
  type: "PENLU"
  bottom: "cccp4"
  top: "penlu_cccp4"
  param {
    lr_mult: 2
    decay_mult: 0
  }
  param {
    lr_mult: 2
    decay_mult: 0
  }
  param {
    lr_mult: 2
    decay_mult: 0
  }
  penlu_param {
    alpha_filler {
      type: "constant"
      value: 0.25
    }
    beta_filler {
      type: "constant"
      value: 1
    }
    eta_filler {
      type: "constant"
      value: 1.05
    }
  }
}
layer {
  name: "pool2"
  type: "Pooling"
  bottom: "penlu_cccp4"
  top: "pool2"
  pooling_param {
    pool: AVE
    kernel_size: 3
    stride: 2
  }
}
layer {
  name: "dropout2"
  type: "Dropout"
  bottom: "pool2"
  top: "dropout2"
  dropout_param {
    dropout_ratio: 0.5
  }
}
layer {
  name: "conv3"
  type: "Convolution"
  bottom: "dropout2"
  top: "conv3"
  param {
    lr_mult: 1
    decay_mult: 1
  }
  param {
    lr_mult: 2
    decay_mult: 0
  }
  convolution_param {
    num_output: 192
    pad: 1
    kernel_size: 3
    weight_filler {
      type: "gaussian"
      std: 0.05
    }
    bias_filler {
      type: "constant"
      value: 0
    }
  }
}
layer {
  name: "penlu_conv3"
  type: "PENLU"
  bottom: "conv3"
  top: "penlu_conv3"
  param {
    lr_mult: 2
    decay_mult: 0
  }
  param {
    lr_mult: 2
    decay_mult: 0
  }
  param {
    lr_mult: 2
    decay_mult: 0
  }
  penlu_param {
    alpha_filler {
      type: "constant"
      value: 0.25
    }
    beta_filler {
      type: "constant"
      value: 1
    }
    eta_filler {
      type: "constant"
      value: 1.05
    }
  }
}
layer {
  name: "cccp5"
  type: "Convolution"
  bottom: "penlu_conv3"
  top: "cccp5"
  param {
    lr_mult: 1
    decay_mult: 1
  }
  param {
    lr_mult: 2
    decay_mult: 0
  }
  convolution_param {
    num_output: 192
    kernel_size: 1
    weight_filler {
      type: "gaussian"
      std: 0.05
    }
    bias_filler {
      type: "constant"
      value: 0
    }
  }
}
layer {
  name: "penlu_cccp5"
  type: "PENLU"
  bottom: "cccp5"
  top: "penlu_cccp5"
  param {
    lr_mult: 2
    decay_mult: 0
  }
  param {
    lr_mult: 2
    decay_mult: 0
  }
  param {
    lr_mult: 2
    decay_mult: 0
  }
  penlu_param {
    alpha_filler {
      type: "constant"
      value: 1
    }
    beta_filler {
      type: "constant"
      value: 1
    }
    eta_filler {
      type: "constant"
      value: 1.05
    }
  }
}
layer {
  name: "cccp6"
  type: "Convolution"
  bottom: "penlu_cccp5"
  top: "cccp6"
  param {
    lr_mult: 0.1
    decay_mult: 1
  }
  param {
    lr_mult: 0.1
    decay_mult: 0
  }
  convolution_param {
    num_output: 10
    kernel_size: 1
    weight_filler {
      type: "gaussian"
      std: 0.05
    }
    bias_filler {
      type: "constant"
      value: 0
    }
  }
}
layer {
  name: "penlu_cccp6"
  type: "PENLU"
  bottom: "cccp6"
  top: "penlu_cccp6"
  param {
    lr_mult: 2
    decay_mult: 0
  }
  param {
    lr_mult: 2
    decay_mult: 0
  }
  param {
    lr_mult: 2
    decay_mult: 0
  }
  penlu_param {
    alpha_filler {
      type: "constant"
      value: 0.25
    }
    beta_filler {
      type: "constant"
      value: 1
    }
    eta_filler {
      type: "constant"
      value: 1.05
    }
  }
}
layer {
  name: "pool3"
  type: "Pooling"
  bottom: "penlu_cccp6"
  top: "pool3"
  pooling_param {
    pool: AVE
    kernel_size: 7
    stride: 1
  }
}
layer {
  name: "accuracy"
  type: "Accuracy"
  bottom: "pool3"
  bottom: "label"
  top: "accuracy"
}
layer {
  name: "loss"
  type: "SoftmaxWithLoss"
  bottom: "pool3"
  bottom: "label"
  top: "loss"
}
I0916 20:07:17.030573  6490 layer_factory.hpp:77] Creating layer cifar
I0916 20:07:17.030666  6490 db_lmdb.cpp:35] Opened lmdb /home/x306/caffe/xn/PENLU/data/cifar10/cifar10_train_lmdb
I0916 20:07:17.030685  6490 net.cpp:84] Creating Layer cifar
I0916 20:07:17.030691  6490 net.cpp:380] cifar -> data
I0916 20:07:17.030710  6490 net.cpp:380] cifar -> label
I0916 20:07:17.030721  6490 data_transformer.cpp:25] Loading mean file from: /home/x306/caffe/xn/PENLU/data/cifar10/mean.binaryproto
I0916 20:07:17.032119  6490 data_layer.cpp:45] output data size: 64,3,28,28
I0916 20:07:17.034214  6490 net.cpp:122] Setting up cifar
I0916 20:07:17.034226  6490 net.cpp:129] Top shape: 64 3 28 28 (150528)
I0916 20:07:17.034230  6490 net.cpp:129] Top shape: 64 (64)
I0916 20:07:17.034232  6490 net.cpp:137] Memory required for data: 602368
I0916 20:07:17.034240  6490 layer_factory.hpp:77] Creating layer label_cifar_1_split
I0916 20:07:17.034250  6490 net.cpp:84] Creating Layer label_cifar_1_split
I0916 20:07:17.034253  6490 net.cpp:406] label_cifar_1_split <- label
I0916 20:07:17.034261  6490 net.cpp:380] label_cifar_1_split -> label_cifar_1_split_0
I0916 20:07:17.034268  6490 net.cpp:380] label_cifar_1_split -> label_cifar_1_split_1
I0916 20:07:17.034324  6490 net.cpp:122] Setting up label_cifar_1_split
I0916 20:07:17.034332  6490 net.cpp:129] Top shape: 64 (64)
I0916 20:07:17.034334  6490 net.cpp:129] Top shape: 64 (64)
I0916 20:07:17.034337  6490 net.cpp:137] Memory required for data: 602880
I0916 20:07:17.034339  6490 layer_factory.hpp:77] Creating layer conv1
I0916 20:07:17.034350  6490 net.cpp:84] Creating Layer conv1
I0916 20:07:17.034353  6490 net.cpp:406] conv1 <- data
I0916 20:07:17.034358  6490 net.cpp:380] conv1 -> conv1
I0916 20:07:17.178714  6490 net.cpp:122] Setting up conv1
I0916 20:07:17.178740  6490 net.cpp:129] Top shape: 64 192 28 28 (9633792)
I0916 20:07:17.178742  6490 net.cpp:137] Memory required for data: 39138048
I0916 20:07:17.178757  6490 layer_factory.hpp:77] Creating layer penlu_conv1
I0916 20:07:17.178781  6490 net.cpp:84] Creating Layer penlu_conv1
I0916 20:07:17.178786  6490 net.cpp:406] penlu_conv1 <- conv1
I0916 20:07:17.178800  6490 net.cpp:380] penlu_conv1 -> penlu_conv1
I0916 20:07:17.179024  6490 net.cpp:122] Setting up penlu_conv1
I0916 20:07:17.179031  6490 net.cpp:129] Top shape: 64 192 28 28 (9633792)
I0916 20:07:17.179033  6490 net.cpp:137] Memory required for data: 77673216
I0916 20:07:17.179040  6490 layer_factory.hpp:77] Creating layer cccp1
I0916 20:07:17.179049  6490 net.cpp:84] Creating Layer cccp1
I0916 20:07:17.179050  6490 net.cpp:406] cccp1 <- penlu_conv1
I0916 20:07:17.179054  6490 net.cpp:380] cccp1 -> cccp1
I0916 20:07:17.181012  6490 net.cpp:122] Setting up cccp1
I0916 20:07:17.181022  6490 net.cpp:129] Top shape: 64 160 28 28 (8028160)
I0916 20:07:17.181025  6490 net.cpp:137] Memory required for data: 109785856
I0916 20:07:17.181030  6490 layer_factory.hpp:77] Creating layer penlu_cccp1
I0916 20:07:17.181036  6490 net.cpp:84] Creating Layer penlu_cccp1
I0916 20:07:17.181038  6490 net.cpp:406] penlu_cccp1 <- cccp1
I0916 20:07:17.181043  6490 net.cpp:380] penlu_cccp1 -> penlu_cccp1
I0916 20:07:17.181239  6490 net.cpp:122] Setting up penlu_cccp1
I0916 20:07:17.181246  6490 net.cpp:129] Top shape: 64 160 28 28 (8028160)
I0916 20:07:17.181247  6490 net.cpp:137] Memory required for data: 141898496
I0916 20:07:17.181254  6490 layer_factory.hpp:77] Creating layer cccp2
I0916 20:07:17.181260  6490 net.cpp:84] Creating Layer cccp2
I0916 20:07:17.181262  6490 net.cpp:406] cccp2 <- penlu_cccp1
I0916 20:07:17.181267  6490 net.cpp:380] cccp2 -> cccp2
I0916 20:07:17.182385  6490 net.cpp:122] Setting up cccp2
I0916 20:07:17.182396  6490 net.cpp:129] Top shape: 64 96 28 28 (4816896)
I0916 20:07:17.182399  6490 net.cpp:137] Memory required for data: 161166080
I0916 20:07:17.182415  6490 layer_factory.hpp:77] Creating layer penlu_cccp2
I0916 20:07:17.182420  6490 net.cpp:84] Creating Layer penlu_cccp2
I0916 20:07:17.182425  6490 net.cpp:406] penlu_cccp2 <- cccp2
I0916 20:07:17.182428  6490 net.cpp:380] penlu_cccp2 -> penlu_cccp2
I0916 20:07:17.182582  6490 net.cpp:122] Setting up penlu_cccp2
I0916 20:07:17.182588  6490 net.cpp:129] Top shape: 64 96 28 28 (4816896)
I0916 20:07:17.182590  6490 net.cpp:137] Memory required for data: 180433664
I0916 20:07:17.182605  6490 layer_factory.hpp:77] Creating layer pool1
I0916 20:07:17.182611  6490 net.cpp:84] Creating Layer pool1
I0916 20:07:17.182615  6490 net.cpp:406] pool1 <- penlu_cccp2
I0916 20:07:17.182618  6490 net.cpp:380] pool1 -> pool1
I0916 20:07:17.182667  6490 net.cpp:122] Setting up pool1
I0916 20:07:17.182672  6490 net.cpp:129] Top shape: 64 96 14 14 (1204224)
I0916 20:07:17.182683  6490 net.cpp:137] Memory required for data: 185250560
I0916 20:07:17.182687  6490 layer_factory.hpp:77] Creating layer dropout1
I0916 20:07:17.182692  6490 net.cpp:84] Creating Layer dropout1
I0916 20:07:17.182705  6490 net.cpp:406] dropout1 <- pool1
I0916 20:07:17.182708  6490 net.cpp:380] dropout1 -> dropout1
I0916 20:07:17.182755  6490 net.cpp:122] Setting up dropout1
I0916 20:07:17.182760  6490 net.cpp:129] Top shape: 64 96 14 14 (1204224)
I0916 20:07:17.182762  6490 net.cpp:137] Memory required for data: 190067456
I0916 20:07:17.182775  6490 layer_factory.hpp:77] Creating layer conv2
I0916 20:07:17.182782  6490 net.cpp:84] Creating Layer conv2
I0916 20:07:17.182795  6490 net.cpp:406] conv2 <- dropout1
I0916 20:07:17.182798  6490 net.cpp:380] conv2 -> conv2
I0916 20:07:17.194761  6490 net.cpp:122] Setting up conv2
I0916 20:07:17.194777  6490 net.cpp:129] Top shape: 64 192 14 14 (2408448)
I0916 20:07:17.194780  6490 net.cpp:137] Memory required for data: 199701248
I0916 20:07:17.194789  6490 layer_factory.hpp:77] Creating layer penlu_conv2
I0916 20:07:17.194797  6490 net.cpp:84] Creating Layer penlu_conv2
I0916 20:07:17.194810  6490 net.cpp:406] penlu_conv2 <- conv2
I0916 20:07:17.194814  6490 net.cpp:380] penlu_conv2 -> penlu_conv2
I0916 20:07:17.194978  6490 net.cpp:122] Setting up penlu_conv2
I0916 20:07:17.194984  6490 net.cpp:129] Top shape: 64 192 14 14 (2408448)
I0916 20:07:17.194986  6490 net.cpp:137] Memory required for data: 209335040
I0916 20:07:17.194991  6490 layer_factory.hpp:77] Creating layer cccp3
I0916 20:07:17.194998  6490 net.cpp:84] Creating Layer cccp3
I0916 20:07:17.195000  6490 net.cpp:406] cccp3 <- penlu_conv2
I0916 20:07:17.195004  6490 net.cpp:380] cccp3 -> cccp3
I0916 20:07:17.196604  6490 net.cpp:122] Setting up cccp3
I0916 20:07:17.196614  6490 net.cpp:129] Top shape: 64 192 14 14 (2408448)
I0916 20:07:17.196617  6490 net.cpp:137] Memory required for data: 218968832
I0916 20:07:17.196622  6490 layer_factory.hpp:77] Creating layer penlu_cccp3
I0916 20:07:17.196627  6490 net.cpp:84] Creating Layer penlu_cccp3
I0916 20:07:17.196650  6490 net.cpp:406] penlu_cccp3 <- cccp3
I0916 20:07:17.196655  6490 net.cpp:380] penlu_cccp3 -> penlu_cccp3
I0916 20:07:17.196784  6490 net.cpp:122] Setting up penlu_cccp3
I0916 20:07:17.196789  6490 net.cpp:129] Top shape: 64 192 14 14 (2408448)
I0916 20:07:17.196792  6490 net.cpp:137] Memory required for data: 228602624
I0916 20:07:17.196796  6490 layer_factory.hpp:77] Creating layer cccp4
I0916 20:07:17.196802  6490 net.cpp:84] Creating Layer cccp4
I0916 20:07:17.196805  6490 net.cpp:406] cccp4 <- penlu_cccp3
I0916 20:07:17.196808  6490 net.cpp:380] cccp4 -> cccp4
I0916 20:07:17.198395  6490 net.cpp:122] Setting up cccp4
I0916 20:07:17.198405  6490 net.cpp:129] Top shape: 64 192 14 14 (2408448)
I0916 20:07:17.198407  6490 net.cpp:137] Memory required for data: 238236416
I0916 20:07:17.198411  6490 layer_factory.hpp:77] Creating layer penlu_cccp4
I0916 20:07:17.198416  6490 net.cpp:84] Creating Layer penlu_cccp4
I0916 20:07:17.198420  6490 net.cpp:406] penlu_cccp4 <- cccp4
I0916 20:07:17.198423  6490 net.cpp:380] penlu_cccp4 -> penlu_cccp4
I0916 20:07:17.198561  6490 net.cpp:122] Setting up penlu_cccp4
I0916 20:07:17.198566  6490 net.cpp:129] Top shape: 64 192 14 14 (2408448)
I0916 20:07:17.198568  6490 net.cpp:137] Memory required for data: 247870208
I0916 20:07:17.198573  6490 layer_factory.hpp:77] Creating layer pool2
I0916 20:07:17.198580  6490 net.cpp:84] Creating Layer pool2
I0916 20:07:17.198582  6490 net.cpp:406] pool2 <- penlu_cccp4
I0916 20:07:17.198585  6490 net.cpp:380] pool2 -> pool2
I0916 20:07:17.198729  6490 net.cpp:122] Setting up pool2
I0916 20:07:17.198735  6490 net.cpp:129] Top shape: 64 192 7 7 (602112)
I0916 20:07:17.198737  6490 net.cpp:137] Memory required for data: 250278656
I0916 20:07:17.198740  6490 layer_factory.hpp:77] Creating layer dropout2
I0916 20:07:17.198745  6490 net.cpp:84] Creating Layer dropout2
I0916 20:07:17.198746  6490 net.cpp:406] dropout2 <- pool2
I0916 20:07:17.198750  6490 net.cpp:380] dropout2 -> dropout2
I0916 20:07:17.198783  6490 net.cpp:122] Setting up dropout2
I0916 20:07:17.198796  6490 net.cpp:129] Top shape: 64 192 7 7 (602112)
I0916 20:07:17.198798  6490 net.cpp:137] Memory required for data: 252687104
I0916 20:07:17.198801  6490 layer_factory.hpp:77] Creating layer conv3
I0916 20:07:17.198822  6490 net.cpp:84] Creating Layer conv3
I0916 20:07:17.198823  6490 net.cpp:406] conv3 <- dropout2
I0916 20:07:17.198837  6490 net.cpp:380] conv3 -> conv3
I0916 20:07:17.208165  6490 net.cpp:122] Setting up conv3
I0916 20:07:17.208181  6490 net.cpp:129] Top shape: 64 192 7 7 (602112)
I0916 20:07:17.208184  6490 net.cpp:137] Memory required for data: 255095552
I0916 20:07:17.208189  6490 layer_factory.hpp:77] Creating layer penlu_conv3
I0916 20:07:17.208199  6490 net.cpp:84] Creating Layer penlu_conv3
I0916 20:07:17.208201  6490 net.cpp:406] penlu_conv3 <- conv3
I0916 20:07:17.208216  6490 net.cpp:380] penlu_conv3 -> penlu_conv3
I0916 20:07:17.208360  6490 net.cpp:122] Setting up penlu_conv3
I0916 20:07:17.208367  6490 net.cpp:129] Top shape: 64 192 7 7 (602112)
I0916 20:07:17.208379  6490 net.cpp:137] Memory required for data: 257504000
I0916 20:07:17.208389  6490 layer_factory.hpp:77] Creating layer cccp5
I0916 20:07:17.208396  6490 net.cpp:84] Creating Layer cccp5
I0916 20:07:17.208401  6490 net.cpp:406] cccp5 <- penlu_conv3
I0916 20:07:17.208405  6490 net.cpp:380] cccp5 -> cccp5
I0916 20:07:17.210029  6490 net.cpp:122] Setting up cccp5
I0916 20:07:17.210039  6490 net.cpp:129] Top shape: 64 192 7 7 (602112)
I0916 20:07:17.210042  6490 net.cpp:137] Memory required for data: 259912448
I0916 20:07:17.210047  6490 layer_factory.hpp:77] Creating layer penlu_cccp5
I0916 20:07:17.210053  6490 net.cpp:84] Creating Layer penlu_cccp5
I0916 20:07:17.210055  6490 net.cpp:406] penlu_cccp5 <- cccp5
I0916 20:07:17.210070  6490 net.cpp:380] penlu_cccp5 -> penlu_cccp5
I0916 20:07:17.210193  6490 net.cpp:122] Setting up penlu_cccp5
I0916 20:07:17.210198  6490 net.cpp:129] Top shape: 64 192 7 7 (602112)
I0916 20:07:17.210201  6490 net.cpp:137] Memory required for data: 262320896
I0916 20:07:17.210214  6490 layer_factory.hpp:77] Creating layer cccp6
I0916 20:07:17.210232  6490 net.cpp:84] Creating Layer cccp6
I0916 20:07:17.210235  6490 net.cpp:406] cccp6 <- penlu_cccp5
I0916 20:07:17.210249  6490 net.cpp:380] cccp6 -> cccp6
I0916 20:07:17.211132  6490 net.cpp:122] Setting up cccp6
I0916 20:07:17.211140  6490 net.cpp:129] Top shape: 64 10 7 7 (31360)
I0916 20:07:17.211143  6490 net.cpp:137] Memory required for data: 262446336
I0916 20:07:17.211148  6490 layer_factory.hpp:77] Creating layer penlu_cccp6
I0916 20:07:17.211154  6490 net.cpp:84] Creating Layer penlu_cccp6
I0916 20:07:17.211156  6490 net.cpp:406] penlu_cccp6 <- cccp6
I0916 20:07:17.211170  6490 net.cpp:380] penlu_cccp6 -> penlu_cccp6
I0916 20:07:17.211287  6490 net.cpp:122] Setting up penlu_cccp6
I0916 20:07:17.211293  6490 net.cpp:129] Top shape: 64 10 7 7 (31360)
I0916 20:07:17.211295  6490 net.cpp:137] Memory required for data: 262571776
I0916 20:07:17.211299  6490 layer_factory.hpp:77] Creating layer pool3
I0916 20:07:17.211304  6490 net.cpp:84] Creating Layer pool3
I0916 20:07:17.211307  6490 net.cpp:406] pool3 <- penlu_cccp6
I0916 20:07:17.211323  6490 net.cpp:380] pool3 -> pool3
I0916 20:07:17.211454  6490 net.cpp:122] Setting up pool3
I0916 20:07:17.211462  6490 net.cpp:129] Top shape: 64 10 1 1 (640)
I0916 20:07:17.211463  6490 net.cpp:137] Memory required for data: 262574336
I0916 20:07:17.211465  6490 layer_factory.hpp:77] Creating layer pool3_pool3_0_split
I0916 20:07:17.211469  6490 net.cpp:84] Creating Layer pool3_pool3_0_split
I0916 20:07:17.211472  6490 net.cpp:406] pool3_pool3_0_split <- pool3
I0916 20:07:17.211488  6490 net.cpp:380] pool3_pool3_0_split -> pool3_pool3_0_split_0
I0916 20:07:17.211493  6490 net.cpp:380] pool3_pool3_0_split -> pool3_pool3_0_split_1
I0916 20:07:17.211524  6490 net.cpp:122] Setting up pool3_pool3_0_split
I0916 20:07:17.211529  6490 net.cpp:129] Top shape: 64 10 1 1 (640)
I0916 20:07:17.211531  6490 net.cpp:129] Top shape: 64 10 1 1 (640)
I0916 20:07:17.211534  6490 net.cpp:137] Memory required for data: 262579456
I0916 20:07:17.211535  6490 layer_factory.hpp:77] Creating layer accuracy
I0916 20:07:17.211550  6490 net.cpp:84] Creating Layer accuracy
I0916 20:07:17.211554  6490 net.cpp:406] accuracy <- pool3_pool3_0_split_0
I0916 20:07:17.211556  6490 net.cpp:406] accuracy <- label_cifar_1_split_0
I0916 20:07:17.211560  6490 net.cpp:380] accuracy -> accuracy
…
I0916 20:07:17.212553  6490 net.cpp:294] The NetState phase (1) differed from the phase (0) specified by a rule in layer cifar
I0916 20:07:17.212730  6490 net.cpp:51] Initializing net from parameters: 
name: "nin"
state {
  phase: TEST
}
layer {
  name: "cifar"
  type: "Data"
  top: "data"
  top: "label"
  include {
    phase: TEST
  }
  transform_param {
    mirror: false
    crop_size: 28
    mean_file: "/home/x306/caffe/xn/PENLU/data/cifar10/mean.binaryproto"
  }
  data_param {
    source: "/home/x306/caffe/xn/PENLU/data/cifar10/cifar10_test_lmdb"
    batch_size: 50
    backend: LMDB
  }
}
layer {
  name: "conv1"
  type: "Convolution"
  bottom: "data"
  top: "conv1"
  param {
    lr_mult: 1
    decay_mult: 1
  }
  param {
    lr_mult: 2
    decay_mult: 0
  }
  convolution_param {
    num_output: 192
    pad: 2
    kernel_size: 5
    weight_filler {
      type: "gaussian"
      std: 0.05
    }
    bias_filler {
      type: "constant"
      value: 0
    }
  }
}
layer {
  name: "penlu_conv1"
  type: "PENLU"
  bottom: "conv1"
  top: "penlu_conv1"
  param {
    lr_mult: 2
    decay_mult: 0
  }
  param {
    lr_mult: 2
    decay_mult: 0
  }
  param {
    lr_mult: 2
    decay_mult: 0
  }
  penlu_param {
    alpha_filler {
      type: "constant"
      value: 0.25
    }
    beta_filler {
      type: "constant"
      value: 1
    }
    eta_filler {
      type: "constant"
      value: 1.05
    }
  }
}
layer {
  name: "cccp1"
  type: "Convolution"
  bottom: "penlu_conv1"
  top: "cccp1"
  param {
    lr_mult: 1
    decay_mult: 1
  }
  param {
    lr_mult: 2
    decay_mult: 0
  }
  convolution_param {
    num_output: 160
    kernel_size: 1
    weight_filler {
      type: "gaussian"
      std: 0.05
    }
    bias_filler {
      type: "constant"
      value: 0
    }
  }
}
layer {
  name: "penlu_cccp1"
  type: "PENLU"
  bottom: "cccp1"
  top: "penlu_cccp1"
  param {
    lr_mult: 2
    decay_mult: 0
  }
  param {
    lr_mult: 2
    decay_mult: 0
  }
  param {
    lr_mult: 2
    decay_mult: 0
  }
  penlu_param {
    alpha_filler {
      type: "constant"
      value: 0.25
    }
    beta_filler {
      type: "constant"
      value: 1
    }
    eta_filler {
      type: "constant"
      value: 1.05
    }
  }
}
layer {
  name: "cccp2"
  type: "Convolution"
  bottom: "penlu_cccp1"
  top: "cccp2"
  param {
    lr_mult: 1
    decay_mult: 1
  }
  param {
    lr_mult: 2
    decay_mult: 0
  }
  convolution_param {
    num_output: 96
    kernel_size: 1
    weight_filler {
      type: "gaussian"
      std: 0.05
    }
    bias_filler {
      type: "constant"
      value: 0
    }
  }
}
layer {
  name: "penlu_cccp2"
  type: "PENLU"
  bottom: "cccp2"
  top: "penlu_cccp2"
  param {
    lr_mult: 2
    decay_mult: 0
  }
  param {
    lr_mult: 2
    decay_mult: 0
  }
  param {
    lr_mult: 2
    decay_mult: 0
  }
  penlu_param {
    alpha_filler {
      type: "constant"
      value: 0.25
    }
    beta_filler {
      type: "constant"
      value: 1
    }
    eta_filler {
      type: "constant"
      value: 1.05
    }
  }
}
layer {
  name: "pool1"
  type: "Pooling"
  bottom: "penlu_cccp2"
  top: "pool1"
  pooling_param {
    pool: MAX
    kernel_size: 3
    stride: 2
  }
}
layer {
  name: "dropout1"
  type: "Dropout"
  bottom: "pool1"
  top: "dropout1"
  dropout_param {
    dropout_ratio: 0.5
  }
}
layer {
  name: "conv2"
  type: "Convolution"
  bottom: "dropout1"
  top: "conv2"
  param {
    lr_mult: 1
    decay_mult: 1
  }
  param {
    lr_mult: 2
    decay_mult: 0
  }
  convolution_param {
    num_output: 192
    pad: 2
    kernel_size: 5
    weight_filler {
      type: "gaussian"
      std: 0.05
    }
    bias_filler {
      type: "constant"
      value: 0
    }
  }
}
layer {
  name: "penlu_conv2"
  type: "PENLU"
  bottom: "conv2"
  top: "penlu_conv2"
  param {
    lr_mult: 2
    decay_mult: 0
  }
  param {
    lr_mult: 2
    decay_mult: 0
  }
  param {
    lr_mult: 2
    decay_mult: 0
  }
  penlu_param {
    alpha_filler {
      type: "constant"
      value: 0.25
    }
    beta_filler {
      type: "constant"
      value: 1
    }
    eta_filler {
      type: "constant"
      value: 1.05
    }
  }
}
layer {
  name: "cccp3"
  type: "Convolution"
  bottom: "penlu_conv2"
  top: "cccp3"
  param {
    lr_mult: 1
    decay_mult: 1
  }
  param {
    lr_mult: 2
    decay_mult: 0
  }
  convolution_param {
    num_output: 192
    kernel_size: 1
    weight_filler {
      type: "gaussian"
      std: 0.05
    }
    bias_filler {
      type: "constant"
      value: 0
    }
  }
}
layer {
  name: "penlu_cccp3"
  type: "PENLU"
  bottom: "cccp3"
  top: "penlu_cccp3"
  param {
    lr_mult: 2
    decay_mult: 0
  }
  param {
    lr_mult: 2
    decay_mult: 0
  }
  param {
    lr_mult: 2
    decay_mult: 0
  }
  penlu_param {
    alpha_filler {
      type: "constant"
      value: 0.25
    }
    beta_filler {
      type: "constant"
      value: 1
    }
    eta_filler {
      type: "constant"
      value: 1.05
    }
  }
}
layer {
  name: "cccp4"
  type: "Convolution"
  bottom: "penlu_cccp3"
  top: "cccp4"
  param {
    lr_mult: 1
    decay_mult: 1
  }
  param {
    lr_mult: 2
    decay_mult: 0
  }
  convolution_param {
    num_output: 192
    kernel_size: 1
    weight_filler {
      type: "gaussian"
      std: 0.05
    }
    bias_filler {
      type: "constant"
      value: 0
    }
  }
}
layer {
  name: "penlu_cccp4"
  type: "PENLU"
  bottom: "cccp4"
  top: "penlu_cccp4"
  param {
    lr_mult: 2
    decay_mult: 0
  }
  param {
    lr_mult: 2
    decay_mult: 0
  }
  param {
    lr_mult: 2
    decay_mult: 0
  }
  penlu_param {
    alpha_filler {
      type: "constant"
      value: 0.25
    }
    beta_filler {
      type: "constant"
      value: 1
    }
    eta_filler {
      type: "constant"
      value: 1.05
    }
  }
}
layer {
  name: "pool2"
  type: "Pooling"
  bottom: "penlu_cccp4"
  top: "pool2"
  pooling_param {
    pool: AVE
    kernel_size: 3
    stride: 2
  }
}
layer {
  name: "dropout2"
  type: "Dropout"
  bottom: "pool2"
  top: "dropout2"
  dropout_param {
    dropout_ratio: 0.5
  }
}
layer {
  name: "conv3"
  type: "Convolution"
  bottom: "dropout2"
  top: "conv3"
  param {
    lr_mult: 1
    decay_mult: 1
  }
  param {
    lr_mult: 2
    decay_mult: 0
  }
  convolution_param {
    num_output: 192
    pad: 1
    kernel_size: 3
    weight_filler {
      type: "gaussian"
      std: 0.05
    }
    bias_filler {
      type: "constant"
      value: 0
    }
  }
}
layer {
  name: "penlu_conv3"
  type: "PENLU"
  bottom: "conv3"
  top: "penlu_conv3"
  param {
    lr_mult: 2
    decay_mult: 0
  }
  param {
    lr_mult: 2
    decay_mult: 0
  }
  param {
    lr_mult: 2
    decay_mult: 0
  }
  penlu_param {
    alpha_filler {
      type: "constant"
      value: 0.25
    }
    beta_filler {
      type: "constant"
      value: 1
    }
    eta_filler {
      type: "constant"
      value: 1.05
    }
  }
}
layer {
  name: "cccp5"
  type: "Convolution"
  bottom: "penlu_conv3"
  top: "cccp5"
  param {
    lr_mult: 1
    decay_mult: 1
  }
  param {
    lr_mult: 2
    decay_mult: 0
  }
  convolution_param {
    num_output: 192
    kernel_size: 1
    weight_filler {
      type: "gaussian"
      std: 0.05
    }
    bias_filler {
      type: "constant"
      value: 0
    }
  }
}
layer {
  name: "penlu_cccp5"
  type: "PENLU"
  bottom: "cccp5"
  top: "penlu_cccp5"
  param {
    lr_mult: 2
    decay_mult: 0
  }
  param {
    lr_mult: 2
    decay_mult: 0
  }
  param {
    lr_mult: 2
    decay_mult: 0
  }
  penlu_param {
    alpha_filler {
      type: "constant"
      value: 1
    }
    beta_filler {
      type: "constant"
      value: 1
    }
    eta_filler {
      type: "constant"
      value: 1.05
    }
  }
}
layer {
  name: "cccp6"
  type: "Convolution"
  bottom: "penlu_cccp5"
  top: "cccp6"
  param {
    lr_mult: 0.1
    decay_mult: 1
  }
  param {
    lr_mult: 0.1
    decay_mult: 0
  }
  convolution_param {
    num_output: 10
    kernel_size: 1
    weight_filler {
      type: "gaussian"
      std: 0.05
    }
    bias_filler {
      type: "constant"
      value: 0
    }
  }
}
layer {
  name: "penlu_cccp6"
  type: "PENLU"
  bottom: "cccp6"
  top: "penlu_cccp6"
  param {
    lr_mult: 2
    decay_mult: 0
  }
  param {
    lr_mult: 2
    decay_mult: 0
  }
  param {
    lr_mult: 2
    decay_mult: 0
  }
  penlu_param {
    alpha_filler {
      type: "constant"
      value: 0.25
    }
    beta_filler {
      type: "constant"
      value: 1
    }
    eta_filler {
      type: "constant"
      value: 1.05
    }
  }
}
layer {
  name: "pool3"
  type: "Pooling"
  bottom: "penlu_cccp6"
  top: "pool3"
  pooling_param {
    pool: AVE
    kernel_size: 7
    stride: 1
  }
}
layer {
  name: "accuracy"
  type: "Accuracy"
  bottom: "pool3"
  bottom: "label"
  top: "accuracy"
}
layer {
  name: "loss"
  type: "SoftmaxWithLoss"
  bottom: "pool3"
  bottom: "label"
  top: "loss"
}
I0916 20:07:17.212831  6490 layer_factory.hpp:77] Creating layer cifar
I0916 20:07:17.212867  6490 db_lmdb.cpp:35] Opened lmdb /home/x306/caffe/xn/PENLU/data/cifar10/cifar10_test_lmdb
I0916 20:07:17.212878  6490 net.cpp:84] Creating Layer cifar
I0916 20:07:17.212882  6490 net.cpp:380] cifar -> data
I0916 20:07:17.212888  6490 net.cpp:380] cifar -> label
I0916 20:07:17.212893  6490 data_transformer.cpp:25] Loading mean file from: /home/x306/caffe/xn/PENLU/data/cifar10/mean.binaryproto
I0916 20:07:17.213001  6490 data_layer.cpp:45] output data size: 50,3,28,28
I0916 20:07:17.214011  6490 net.cpp:122] Setting up cifar
I0916 20:07:17.214021  6490 net.cpp:129] Top shape: 50 3 28 28 (117600)
I0916 20:07:17.214035  6490 net.cpp:129] Top shape: 50 (50)
I0916 20:07:17.214038  6490 net.cpp:137] Memory required for data: 470600
I0916 20:07:17.214041  6490 layer_factory.hpp:77] Creating layer label_cifar_1_split
I0916 20:07:17.214046  6490 net.cpp:84] Creating Layer label_cifar_1_split
I0916 20:07:17.214048  6490 net.cpp:406] label_cifar_1_split <- label
I0916 20:07:17.214051  6490 net.cpp:380] label_cifar_1_split -> label_cifar_1_split_0
I0916 20:07:17.214058  6490 net.cpp:380] label_cifar_1_split -> label_cifar_1_split_1
I0916 20:07:17.214126  6490 net.cpp:122] Setting up label_cifar_1_split
I0916 20:07:17.214133  6490 net.cpp:129] Top shape: 50 (50)
I0916 20:07:17.214145  6490 net.cpp:129] Top shape: 50 (50)
I0916 20:07:17.214148  6490 net.cpp:137] Memory required for data: 471000
I0916 20:07:17.214149  6490 layer_factory.hpp:77] Creating layer conv1
I0916 20:07:17.214157  6490 net.cpp:84] Creating Layer conv1
I0916 20:07:17.214167  6490 net.cpp:406] conv1 <- data
I0916 20:07:17.214172  6490 net.cpp:380] conv1 -> conv1
I0916 20:07:17.215530  6490 net.cpp:122] Setting up conv1
I0916 20:07:17.215541  6490 net.cpp:129] Top shape: 50 192 28 28 (7526400)
I0916 20:07:17.215553  6490 net.cpp:137] Memory required for data: 30576600
I0916 20:07:17.215560  6490 layer_factory.hpp:77] Creating layer penlu_conv1
I0916 20:07:17.215571  6490 net.cpp:84] Creating Layer penlu_conv1
I0916 20:07:17.215575  6490 net.cpp:406] penlu_conv1 <- conv1
I0916 20:07:17.215579  6490 net.cpp:380] penlu_conv1 -> penlu_conv1
I0916 20:07:17.215762  6490 net.cpp:122] Setting up penlu_conv1
I0916 20:07:17.215770  6490 net.cpp:129] Top shape: 50 192 28 28 (7526400)
I0916 20:07:17.215772  6490 net.cpp:137] Memory required for data: 60682200
I0916 20:07:17.215780  6490 layer_factory.hpp:77] Creating layer cccp1
I0916 20:07:17.215787  6490 net.cpp:84] Creating Layer cccp1
I0916 20:07:17.215790  6490 net.cpp:406] cccp1 <- penlu_conv1
I0916 20:07:17.215795  6490 net.cpp:380] cccp1 -> cccp1
I0916 20:07:17.217403  6490 net.cpp:122] Setting up cccp1
I0916 20:07:17.217413  6490 net.cpp:129] Top shape: 50 160 28 28 (6272000)
I0916 20:07:17.217417  6490 net.cpp:137] Memory required for data: 85770200
I0916 20:07:17.217422  6490 layer_factory.hpp:77] Creating layer penlu_cccp1
I0916 20:07:17.217428  6490 net.cpp:84] Creating Layer penlu_cccp1
I0916 20:07:17.217432  6490 net.cpp:406] penlu_cccp1 <- cccp1
I0916 20:07:17.217437  6490 net.cpp:380] penlu_cccp1 -> penlu_cccp1
I0916 20:07:17.218116  6490 net.cpp:122] Setting up penlu_cccp1
I0916 20:07:17.218127  6490 net.cpp:129] Top shape: 50 160 28 28 (6272000)
I0916 20:07:17.218130  6490 net.cpp:137] Memory required for data: 110858200
I0916 20:07:17.218137  6490 layer_factory.hpp:77] Creating layer cccp2
I0916 20:07:17.218145  6490 net.cpp:84] Creating Layer cccp2
I0916 20:07:17.218148  6490 net.cpp:406] cccp2 <- penlu_cccp1
I0916 20:07:17.218153  6490 net.cpp:380] cccp2 -> cccp2
I0916 20:07:17.219391  6490 net.cpp:122] Setting up cccp2
I0916 20:07:17.219403  6490 net.cpp:129] Top shape: 50 96 28 28 (3763200)
I0916 20:07:17.219405  6490 net.cpp:137] Memory required for data: 125911000
I0916 20:07:17.219410  6490 layer_factory.hpp:77] Creating layer penlu_cccp2
I0916 20:07:17.219418  6490 net.cpp:84] Creating Layer penlu_cccp2
I0916 20:07:17.219420  6490 net.cpp:406] penlu_cccp2 <- cccp2
I0916 20:07:17.219426  6490 net.cpp:380] penlu_cccp2 -> penlu_cccp2
I0916 20:07:17.219571  6490 net.cpp:122] Setting up penlu_cccp2
I0916 20:07:17.219578  6490 net.cpp:129] Top shape: 50 96 28 28 (3763200)
I0916 20:07:17.219581  6490 net.cpp:137] Memory required for data: 140963800
I0916 20:07:17.219585  6490 layer_factory.hpp:77] Creating layer pool1
I0916 20:07:17.219593  6490 net.cpp:84] Creating Layer pool1
I0916 20:07:17.219595  6490 net.cpp:406] pool1 <- penlu_cccp2
I0916 20:07:17.219599  6490 net.cpp:380] pool1 -> pool1
I0916 20:07:17.219625  6490 net.cpp:122] Setting up pool1
I0916 20:07:17.219630  6490 net.cpp:129] Top shape: 50 96 14 14 (940800)
I0916 20:07:17.219632  6490 net.cpp:137] Memory required for data: 144727000
I0916 20:07:17.219635  6490 layer_factory.hpp:77] Creating layer dropout1
I0916 20:07:17.219640  6490 net.cpp:84] Creating Layer dropout1
I0916 20:07:17.219643  6490 net.cpp:406] dropout1 <- pool1
I0916 20:07:17.219646  6490 net.cpp:380] dropout1 -> dropout1
I0916 20:07:17.219671  6490 net.cpp:122] Setting up dropout1
I0916 20:07:17.219674  6490 net.cpp:129] Top shape: 50 96 14 14 (940800)
I0916 20:07:17.219677  6490 net.cpp:137] Memory required for data: 148490200
I0916 20:07:17.219681  6490 layer_factory.hpp:77] Creating layer conv2
I0916 20:07:17.219686  6490 net.cpp:84] Creating Layer conv2
I0916 20:07:17.219689  6490 net.cpp:406] conv2 <- dropout1
I0916 20:07:17.219694  6490 net.cpp:380] conv2 -> conv2
I0916 20:07:17.231323  6490 net.cpp:122] Setting up conv2
I0916 20:07:17.231335  6490 net.cpp:129] Top shape: 50 192 14 14 (1881600)
I0916 20:07:17.231348  6490 net.cpp:137] Memory required for data: 156016600
I0916 20:07:17.231366  6490 layer_factory.hpp:77] Creating layer penlu_conv2
I0916 20:07:17.231374  6490 net.cpp:84] Creating Layer penlu_conv2
I0916 20:07:17.231379  6490 net.cpp:406] penlu_conv2 <- conv2
I0916 20:07:17.231384  6490 net.cpp:380] penlu_conv2 -> penlu_conv2
I0916 20:07:17.231533  6490 net.cpp:122] Setting up penlu_conv2
I0916 20:07:17.231539  6490 net.cpp:129] Top shape: 50 192 14 14 (1881600)
I0916 20:07:17.231540  6490 net.cpp:137] Memory required for data: 163543000
I0916 20:07:17.231545  6490 layer_factory.hpp:77] Creating layer cccp3
I0916 20:07:17.231551  6490 net.cpp:84] Creating Layer cccp3
I0916 20:07:17.231554  6490 net.cpp:406] cccp3 <- penlu_conv2
I0916 20:07:17.231557  6490 net.cpp:380] cccp3 -> cccp3
I0916 20:07:17.233213  6490 net.cpp:122] Setting up cccp3
I0916 20:07:17.233222  6490 net.cpp:129] Top shape: 50 192 14 14 (1881600)
I0916 20:07:17.233225  6490 net.cpp:137] Memory required for data: 171069400
I0916 20:07:17.233229  6490 layer_factory.hpp:77] Creating layer penlu_cccp3
I0916 20:07:17.233235  6490 net.cpp:84] Creating Layer penlu_cccp3
I0916 20:07:17.233237  6490 net.cpp:406] penlu_cccp3 <- cccp3
I0916 20:07:17.233242  6490 net.cpp:380] penlu_cccp3 -> penlu_cccp3
I0916 20:07:17.233371  6490 net.cpp:122] Setting up penlu_cccp3
I0916 20:07:17.233376  6490 net.cpp:129] Top shape: 50 192 14 14 (1881600)
I0916 20:07:17.233378  6490 net.cpp:137] Memory required for data: 178595800
I0916 20:07:17.233383  6490 layer_factory.hpp:77] Creating layer cccp4
I0916 20:07:17.233389  6490 net.cpp:84] Creating Layer cccp4
I0916 20:07:17.233392  6490 net.cpp:406] cccp4 <- penlu_cccp3
I0916 20:07:17.233395  6490 net.cpp:380] cccp4 -> cccp4
I0916 20:07:17.235013  6490 net.cpp:122] Setting up cccp4
I0916 20:07:17.235021  6490 net.cpp:129] Top shape: 50 192 14 14 (1881600)
I0916 20:07:17.235023  6490 net.cpp:137] Memory required for data: 186122200
I0916 20:07:17.235028  6490 layer_factory.hpp:77] Creating layer penlu_cccp4
I0916 20:07:17.235034  6490 net.cpp:84] Creating Layer penlu_cccp4
I0916 20:07:17.235036  6490 net.cpp:406] penlu_cccp4 <- cccp4
I0916 20:07:17.235040  6490 net.cpp:380] penlu_cccp4 -> penlu_cccp4
I0916 20:07:17.235172  6490 net.cpp:122] Setting up penlu_cccp4
I0916 20:07:17.235177  6490 net.cpp:129] Top shape: 50 192 14 14 (1881600)
I0916 20:07:17.235178  6490 net.cpp:137] Memory required for data: 193648600
I0916 20:07:17.235183  6490 layer_factory.hpp:77] Creating layer pool2
I0916 20:07:17.235189  6490 net.cpp:84] Creating Layer pool2
I0916 20:07:17.235191  6490 net.cpp:406] pool2 <- penlu_cccp4
I0916 20:07:17.235195  6490 net.cpp:380] pool2 -> pool2
I0916 20:07:17.235321  6490 net.cpp:122] Setting up pool2
I0916 20:07:17.235327  6490 net.cpp:129] Top shape: 50 192 7 7 (470400)
I0916 20:07:17.235329  6490 net.cpp:137] Memory required for data: 195530200
I0916 20:07:17.235332  6490 layer_factory.hpp:77] Creating layer dropout2
I0916 20:07:17.235335  6490 net.cpp:84] Creating Layer dropout2
I0916 20:07:17.235337  6490 net.cpp:406] dropout2 <- pool2
I0916 20:07:17.235342  6490 net.cpp:380] dropout2 -> dropout2
I0916 20:07:17.235365  6490 net.cpp:122] Setting up dropout2
I0916 20:07:17.235368  6490 net.cpp:129] Top shape: 50 192 7 7 (470400)
I0916 20:07:17.235370  6490 net.cpp:137] Memory required for data: 197411800
I0916 20:07:17.235373  6490 layer_factory.hpp:77] Creating layer conv3
I0916 20:07:17.235379  6490 net.cpp:84] Creating Layer conv3
I0916 20:07:17.235381  6490 net.cpp:406] conv3 <- dropout2
I0916 20:07:17.235384  6490 net.cpp:380] conv3 -> conv3
I0916 20:07:17.244653  6490 net.cpp:122] Setting up conv3
I0916 20:07:17.244668  6490 net.cpp:129] Top shape: 50 192 7 7 (470400)
I0916 20:07:17.244671  6490 net.cpp:137] Memory required for data: 199293400
I0916 20:07:17.244676  6490 layer_factory.hpp:77] Creating layer penlu_conv3
I0916 20:07:17.244684  6490 net.cpp:84] Creating Layer penlu_conv3
I0916 20:07:17.244698  6490 net.cpp:406] penlu_conv3 <- conv3
I0916 20:07:17.244704  6490 net.cpp:380] penlu_conv3 -> penlu_conv3
I0916 20:07:17.244858  6490 net.cpp:122] Setting up penlu_conv3
I0916 20:07:17.244873  6490 net.cpp:129] Top shape: 50 192 7 7 (470400)
I0916 20:07:17.244874  6490 net.cpp:137] Memory required for data: 201175000
I0916 20:07:17.244884  6490 layer_factory.hpp:77] Creating layer cccp5
I0916 20:07:17.244904  6490 net.cpp:84] Creating Layer cccp5
I0916 20:07:17.244906  6490 net.cpp:406] cccp5 <- penlu_conv3
I0916 20:07:17.244910  6490 net.cpp:380] cccp5 -> cccp5
I0916 20:07:17.246562  6490 net.cpp:122] Setting up cccp5
I0916 20:07:17.246572  6490 net.cpp:129] Top shape: 50 192 7 7 (470400)
I0916 20:07:17.246575  6490 net.cpp:137] Memory required for data: 203056600
I0916 20:07:17.246580  6490 layer_factory.hpp:77] Creating layer penlu_cccp5
I0916 20:07:17.246585  6490 net.cpp:84] Creating Layer penlu_cccp5
I0916 20:07:17.246587  6490 net.cpp:406] penlu_cccp5 <- cccp5
I0916 20:07:17.246603  6490 net.cpp:380] penlu_cccp5 -> penlu_cccp5
I0916 20:07:17.246733  6490 net.cpp:122] Setting up penlu_cccp5
I0916 20:07:17.246739  6490 net.cpp:129] Top shape: 50 192 7 7 (470400)
I0916 20:07:17.246742  6490 net.cpp:137] Memory required for data: 204938200
I0916 20:07:17.246747  6490 layer_factory.hpp:77] Creating layer cccp6
I0916 20:07:17.246752  6490 net.cpp:84] Creating Layer cccp6
I0916 20:07:17.246754  6490 net.cpp:406] cccp6 <- penlu_cccp5
I0916 20:07:17.246769  6490 net.cpp:380] cccp6 -> cccp6
I0916 20:07:17.247668  6490 net.cpp:122] Setting up cccp6
I0916 20:07:17.247678  6490 net.cpp:129] Top shape: 50 10 7 7 (24500)
I0916 20:07:17.247680  6490 net.cpp:137] Memory required for data: 205036200
I0916 20:07:17.247685  6490 layer_factory.hpp:77] Creating layer penlu_cccp6
I0916 20:07:17.247691  6490 net.cpp:84] Creating Layer penlu_cccp6
I0916 20:07:17.247694  6490 net.cpp:406] penlu_cccp6 <- cccp6
I0916 20:07:17.247709  6490 net.cpp:380] penlu_cccp6 -> penlu_cccp6
I0916 20:07:17.247830  6490 net.cpp:122] Setting up penlu_cccp6
I0916 20:07:17.247836  6490 net.cpp:129] Top shape: 50 10 7 7 (24500)
I0916 20:07:17.247839  6490 net.cpp:137] Memory required for data: 205134200
I0916 20:07:17.247853  6490 layer_factory.hpp:77] Creating layer pool3
I0916 20:07:17.247859  6490 net.cpp:84] Creating Layer pool3
I0916 20:07:17.247864  6490 net.cpp:406] pool3 <- penlu_cccp6
I0916 20:07:17.247867  6490 net.cpp:380] pool3 -> pool3
I0916 20:07:17.248347  6490 net.cpp:122] Setting up pool3
I0916 20:07:17.248356  6490 net.cpp:129] Top shape: 50 10 1 1 (500)
I0916 20:07:17.248370  6490 net.cpp:137] Memory required for data: 205136200
I0916 20:07:17.248373  6490 layer_factory.hpp:77] Creating layer pool3_pool3_0_split
I0916 20:07:17.248378  6490 net.cpp:84] Creating Layer pool3_pool3_0_split
I0916 20:07:17.248381  6490 net.cpp:406] pool3_pool3_0_split <- pool3
I0916 20:07:17.248385  6490 net.cpp:380] pool3_pool3_0_split -> pool3_pool3_0_split_0
I0916 20:07:17.248391  6490 net.cpp:380] pool3_pool3_0_split -> pool3_pool3_0_split_1
I0916 20:07:17.248417  6490 net.cpp:122] Setting up pool3_pool3_0_split
I0916 20:07:17.248422  6490 net.cpp:129] Top shape: 50 10 1 1 (500)
I0916 20:07:17.248425  6490 net.cpp:129] Top shape: 50 10 1 1 (500)
I0916 20:07:17.248427  6490 net.cpp:137] Memory required for data: 205140200
I0916 20:07:17.248430  6490 layer_factory.hpp:77] Creating layer accuracy
I0916 20:07:17.248435  6490 net.cpp:84] Creating Layer accuracy
I0916 20:07:17.248438  6490 net.cpp:406] accuracy <- pool3_pool3_0_split_0
I0916 20:07:17.248441  6490 net.cpp:406] accuracy <- label_cifar_1_split_0
I0916 20:07:17.248445  6490 net.cpp:380] accuracy -> accuracy
…
