…
I0917 12:18:58.428649 10270 net.cpp:294] The NetState phase (0) differed from the phase (1) specified by a rule in layer cifar
I0917 12:18:58.428865 10270 net.cpp:51] Initializing net from parameters: 
name: "nin"
state {
  phase: TRAIN
  level: 0
  stage: ""
}
layer {
  name: "cifar"
  type: "Data"
  top: "data"
  top: "label"
  include {
    phase: TRAIN
  }
  transform_param {
    mirror: true
    crop_size: 28
    mean_file: "/home/x306/caffe/xn/PENLU/data/cifar10/mean.binaryproto"
  }
  data_param {
    source: "/home/x306/caffe/xn/PENLU/data/cifar10/cifar10_train_lmdb"
    batch_size: 64
    backend: LMDB
  }
  image_data_param {
    shuffle: true
  }
}
layer {
  name: "conv1"
  type: "Convolution"
  bottom: "data"
  top: "conv1"
  param {
    lr_mult: 1
    decay_mult: 1
  }
  param {
    lr_mult: 2
    decay_mult: 0
  }
  convolution_param {
    num_output: 192
    pad: 2
    kernel_size: 5
    weight_filler {
      type: "gaussian"
      std: 0.05
    }
    bias_filler {
      type: "constant"
      value: 0
    }
  }
}
layer {
  name: "penlu_conv1"
  type: "PENLU"
  bottom: "conv1"
  top: "penlu_conv1"
  param {
    lr_mult: 2
    decay_mult: 0
  }
  param {
    lr_mult: 2
    decay_mult: 0
  }
  param {
    lr_mult: 2
    decay_mult: 0
  }
  penlu_param {
    alpha_filler {
      type: "constant"
      value: 0.25
    }
    beta_filler {
      type: "constant"
      value: 1
    }
    eta_filler {
      type: "constant"
      value: 0.8
    }
  }
}
layer {
  name: "cccp1"
  type: "Convolution"
  bottom: "penlu_conv1"
  top: "cccp1"
  param {
    lr_mult: 1
    decay_mult: 1
  }
  param {
    lr_mult: 2
    decay_mult: 0
  }
  convolution_param {
    num_output: 160
    kernel_size: 1
    weight_filler {
      type: "gaussian"
      std: 0.05
    }
    bias_filler {
      type: "constant"
      value: 0
    }
  }
}
layer {
  name: "penlu_cccp1"
  type: "PENLU"
  bottom: "cccp1"
  top: "penlu_cccp1"
  param {
    lr_mult: 2
    decay_mult: 0
  }
  param {
    lr_mult: 2
    decay_mult: 0
  }
  param {
    lr_mult: 2
    decay_mult: 0
  }
  penlu_param {
    alpha_filler {
      type: "constant"
      value: 0.25
    }
    beta_filler {
      type: "constant"
      value: 1
    }
    eta_filler {
      type: "constant"
      value: 0.8
    }
  }
}
layer {
  name: "cccp2"
  type: "Convolution"
  bottom: "penlu_cccp1"
  top: "cccp2"
  param {
    lr_mult: 1
    decay_mult: 1
  }
  param {
    lr_mult: 2
    decay_mult: 0
  }
  convolution_param {
    num_output: 96
    kernel_size: 1
    weight_filler {
      type: "gaussian"
      std: 0.05
    }
    bias_filler {
      type: "constant"
      value: 0
    }
  }
}
layer {
  name: "penlu_cccp2"
  type: "PENLU"
  bottom: "cccp2"
  top: "penlu_cccp2"
  param {
    lr_mult: 2
    decay_mult: 0
  }
  param {
    lr_mult: 2
    decay_mult: 0
  }
  param {
    lr_mult: 2
    decay_mult: 0
  }
  penlu_param {
    alpha_filler {
      type: "constant"
      value: 0.25
    }
    beta_filler {
      type: "constant"
      value: 1
    }
    eta_filler {
      type: "constant"
      value: 0.8
    }
  }
}
layer {
  name: "pool1"
  type: "Pooling"
  bottom: "penlu_cccp2"
  top: "pool1"
  pooling_param {
    pool: MAX
    kernel_size: 3
    stride: 2
  }
}
layer {
  name: "dropout1"
  type: "Dropout"
  bottom: "pool1"
  top: "dropout1"
  dropout_param {
    dropout_ratio: 0.5
  }
}
layer {
  name: "conv2"
  type: "Convolution"
  bottom: "dropout1"
  top: "conv2"
  param {
    lr_mult: 1
    decay_mult: 1
  }
  param {
    lr_mult: 2
    decay_mult: 0
  }
  convolution_param {
    num_output: 192
    pad: 2
    kernel_size: 5
    weight_filler {
      type: "gaussian"
      std: 0.05
    }
    bias_filler {
      type: "constant"
      value: 0
    }
  }
}
layer {
  name: "penlu_conv2"
  type: "PENLU"
  bottom: "conv2"
  top: "penlu_conv2"
  param {
    lr_mult: 2
    decay_mult: 0
  }
  param {
    lr_mult: 2
    decay_mult: 0
  }
  param {
    lr_mult: 2
    decay_mult: 0
  }
  penlu_param {
    alpha_filler {
      type: "constant"
      value: 0.25
    }
    beta_filler {
      type: "constant"
      value: 1
    }
    eta_filler {
      type: "constant"
      value: 0.8
    }
  }
}
layer {
  name: "cccp3"
  type: "Convolution"
  bottom: "penlu_conv2"
  top: "cccp3"
  param {
    lr_mult: 1
    decay_mult: 1
  }
  param {
    lr_mult: 2
    decay_mult: 0
  }
  convolution_param {
    num_output: 192
    kernel_size: 1
    weight_filler {
      type: "gaussian"
      std: 0.05
    }
    bias_filler {
      type: "constant"
      value: 0
    }
  }
}
layer {
  name: "penlu_cccp3"
  type: "PENLU"
  bottom: "cccp3"
  top: "penlu_cccp3"
  param {
    lr_mult: 2
    decay_mult: 0
  }
  param {
    lr_mult: 2
    decay_mult: 0
  }
  param {
    lr_mult: 2
    decay_mult: 0
  }
  penlu_param {
    alpha_filler {
      type: "constant"
      value: 0.25
    }
    beta_filler {
      type: "constant"
      value: 1
    }
    eta_filler {
      type: "constant"
      value: 0.8
    }
  }
}
layer {
  name: "cccp4"
  type: "Convolution"
  bottom: "penlu_cccp3"
  top: "cccp4"
  param {
    lr_mult: 1
    decay_mult: 1
  }
  param {
    lr_mult: 2
    decay_mult: 0
  }
  convolution_param {
    num_output: 192
    kernel_size: 1
    weight_filler {
      type: "gaussian"
      std: 0.05
    }
    bias_filler {
      type: "constant"
      value: 0
    }
  }
}
layer {
  name: "penlu_cccp4"
  type: "PENLU"
  bottom: "cccp4"
  top: "penlu_cccp4"
  param {
    lr_mult: 2
    decay_mult: 0
  }
  param {
    lr_mult: 2
    decay_mult: 0
  }
  param {
    lr_mult: 2
    decay_mult: 0
  }
  penlu_param {
    alpha_filler {
      type: "constant"
      value: 0.25
    }
    beta_filler {
      type: "constant"
      value: 1
    }
    eta_filler {
      type: "constant"
      value: 0.8
    }
  }
}
layer {
  name: "pool2"
  type: "Pooling"
  bottom: "penlu_cccp4"
  top: "pool2"
  pooling_param {
    pool: AVE
    kernel_size: 3
    stride: 2
  }
}
layer {
  name: "dropout2"
  type: "Dropout"
  bottom: "pool2"
  top: "dropout2"
  dropout_param {
    dropout_ratio: 0.5
  }
}
layer {
  name: "conv3"
  type: "Convolution"
  bottom: "dropout2"
  top: "conv3"
  param {
    lr_mult: 1
    decay_mult: 1
  }
  param {
    lr_mult: 2
    decay_mult: 0
  }
  convolution_param {
    num_output: 192
    pad: 1
    kernel_size: 3
    weight_filler {
      type: "gaussian"
      std: 0.05
    }
    bias_filler {
      type: "constant"
      value: 0
    }
  }
}
layer {
  name: "penlu_conv3"
  type: "PENLU"
  bottom: "conv3"
  top: "penlu_conv3"
  param {
    lr_mult: 2
    decay_mult: 0
  }
  param {
    lr_mult: 2
    decay_mult: 0
  }
  param {
    lr_mult: 2
    decay_mult: 0
  }
  penlu_param {
    alpha_filler {
      type: "constant"
      value: 0.25
    }
    beta_filler {
      type: "constant"
      value: 1
    }
    eta_filler {
      type: "constant"
      value: 0.8
    }
  }
}
layer {
  name: "cccp5"
  type: "Convolution"
  bottom: "penlu_conv3"
  top: "cccp5"
  param {
    lr_mult: 1
    decay_mult: 1
  }
  param {
    lr_mult: 2
    decay_mult: 0
  }
  convolution_param {
    num_output: 192
    kernel_size: 1
    weight_filler {
      type: "gaussian"
      std: 0.05
    }
    bias_filler {
      type: "constant"
      value: 0
    }
  }
}
layer {
  name: "penlu_cccp5"
  type: "PENLU"
  bottom: "cccp5"
  top: "penlu_cccp5"
  param {
    lr_mult: 2
    decay_mult: 0
  }
  param {
    lr_mult: 2
    decay_mult: 0
  }
  param {
    lr_mult: 2
    decay_mult: 0
  }
  penlu_param {
    alpha_filler {
      type: "constant"
      value: 1
    }
    beta_filler {
      type: "constant"
      value: 1
    }
    eta_filler {
      type: "constant"
      value: 0.8
    }
  }
}
layer {
  name: "cccp6"
  type: "Convolution"
  bottom: "penlu_cccp5"
  top: "cccp6"
  param {
    lr_mult: 0.1
    decay_mult: 1
  }
  param {
    lr_mult: 0.1
    decay_mult: 0
  }
  convolution_param {
    num_output: 10
    kernel_size: 1
    weight_filler {
      type: "gaussian"
      std: 0.05
    }
    bias_filler {
      type: "constant"
      value: 0
    }
  }
}
layer {
  name: "penlu_cccp6"
  type: "PENLU"
  bottom: "cccp6"
  top: "penlu_cccp6"
  param {
    lr_mult: 2
    decay_mult: 0
  }
  param {
    lr_mult: 2
    decay_mult: 0
  }
  param {
    lr_mult: 2
    decay_mult: 0
  }
  penlu_param {
    alpha_filler {
      type: "constant"
      value: 0.25
    }
    beta_filler {
      type: "constant"
      value: 1
    }
    eta_filler {
      type: "constant"
      value: 0.8
    }
  }
}
layer {
  name: "pool3"
  type: "Pooling"
  bottom: "penlu_cccp6"
  top: "pool3"
  pooling_param {
    pool: AVE
    kernel_size: 7
    stride: 1
  }
}
layer {
  name: "accuracy"
  type: "Accuracy"
  bottom: "pool3"
  bottom: "label"
  top: "accuracy"
}
layer {
  name: "loss"
  type: "SoftmaxWithLoss"
  bottom: "pool3"
  bottom: "label"
  top: "loss"
}
I0917 12:18:58.429054 10270 layer_factory.hpp:77] Creating layer cifar
I0917 12:18:58.429183 10270 db_lmdb.cpp:35] Opened lmdb /home/x306/caffe/xn/PENLU/data/cifar10/cifar10_train_lmdb
I0917 12:18:58.429203 10270 net.cpp:84] Creating Layer cifar
I0917 12:18:58.429208 10270 net.cpp:380] cifar -> data
I0917 12:18:58.429245 10270 net.cpp:380] cifar -> label
I0917 12:18:58.429255 10270 data_transformer.cpp:25] Loading mean file from: /home/x306/caffe/xn/PENLU/data/cifar10/mean.binaryproto
I0917 12:18:58.430627 10270 data_layer.cpp:45] output data size: 64,3,28,28
I0917 12:18:58.432713 10270 net.cpp:122] Setting up cifar
I0917 12:18:58.432726 10270 net.cpp:129] Top shape: 64 3 28 28 (150528)
I0917 12:18:58.432732 10270 net.cpp:129] Top shape: 64 (64)
I0917 12:18:58.432736 10270 net.cpp:137] Memory required for data: 602368
I0917 12:18:58.432746 10270 layer_factory.hpp:77] Creating layer label_cifar_1_split
I0917 12:18:58.432760 10270 net.cpp:84] Creating Layer label_cifar_1_split
I0917 12:18:58.432765 10270 net.cpp:406] label_cifar_1_split <- label
I0917 12:18:58.432775 10270 net.cpp:380] label_cifar_1_split -> label_cifar_1_split_0
I0917 12:18:58.432783 10270 net.cpp:380] label_cifar_1_split -> label_cifar_1_split_1
I0917 12:18:58.432821 10270 net.cpp:122] Setting up label_cifar_1_split
I0917 12:18:58.432827 10270 net.cpp:129] Top shape: 64 (64)
I0917 12:18:58.432831 10270 net.cpp:129] Top shape: 64 (64)
I0917 12:18:58.432833 10270 net.cpp:137] Memory required for data: 602880
I0917 12:18:58.432837 10270 layer_factory.hpp:77] Creating layer conv1
I0917 12:18:58.432852 10270 net.cpp:84] Creating Layer conv1
I0917 12:18:58.432857 10270 net.cpp:406] conv1 <- data
I0917 12:18:58.432862 10270 net.cpp:380] conv1 -> conv1
I0917 12:18:58.579064 10270 net.cpp:122] Setting up conv1
I0917 12:18:58.579089 10270 net.cpp:129] Top shape: 64 192 28 28 (9633792)
I0917 12:18:58.579093 10270 net.cpp:137] Memory required for data: 39138048
I0917 12:18:58.579107 10270 layer_factory.hpp:77] Creating layer penlu_conv1
I0917 12:18:58.579136 10270 net.cpp:84] Creating Layer penlu_conv1
I0917 12:18:58.579141 10270 net.cpp:406] penlu_conv1 <- conv1
I0917 12:18:58.579146 10270 net.cpp:380] penlu_conv1 -> penlu_conv1
I0917 12:18:58.579370 10270 net.cpp:122] Setting up penlu_conv1
I0917 12:18:58.579376 10270 net.cpp:129] Top shape: 64 192 28 28 (9633792)
I0917 12:18:58.579378 10270 net.cpp:137] Memory required for data: 77673216
I0917 12:18:58.579385 10270 layer_factory.hpp:77] Creating layer cccp1
I0917 12:18:58.579396 10270 net.cpp:84] Creating Layer cccp1
I0917 12:18:58.579411 10270 net.cpp:406] cccp1 <- penlu_conv1
I0917 12:18:58.579417 10270 net.cpp:380] cccp1 -> cccp1
I0917 12:18:58.581473 10270 net.cpp:122] Setting up cccp1
I0917 12:18:58.581485 10270 net.cpp:129] Top shape: 64 160 28 28 (8028160)
I0917 12:18:58.581487 10270 net.cpp:137] Memory required for data: 109785856
I0917 12:18:58.581492 10270 layer_factory.hpp:77] Creating layer penlu_cccp1
I0917 12:18:58.581499 10270 net.cpp:84] Creating Layer penlu_cccp1
I0917 12:18:58.581502 10270 net.cpp:406] penlu_cccp1 <- cccp1
I0917 12:18:58.581506 10270 net.cpp:380] penlu_cccp1 -> penlu_cccp1
I0917 12:18:58.581717 10270 net.cpp:122] Setting up penlu_cccp1
I0917 12:18:58.581724 10270 net.cpp:129] Top shape: 64 160 28 28 (8028160)
I0917 12:18:58.581727 10270 net.cpp:137] Memory required for data: 141898496
I0917 12:18:58.581732 10270 layer_factory.hpp:77] Creating layer cccp2
I0917 12:18:58.581739 10270 net.cpp:84] Creating Layer cccp2
I0917 12:18:58.581743 10270 net.cpp:406] cccp2 <- penlu_cccp1
I0917 12:18:58.581746 10270 net.cpp:380] cccp2 -> cccp2
I0917 12:18:58.582921 10270 net.cpp:122] Setting up cccp2
I0917 12:18:58.582931 10270 net.cpp:129] Top shape: 64 96 28 28 (4816896)
I0917 12:18:58.582933 10270 net.cpp:137] Memory required for data: 161166080
I0917 12:18:58.582937 10270 layer_factory.hpp:77] Creating layer penlu_cccp2
I0917 12:18:58.582943 10270 net.cpp:84] Creating Layer penlu_cccp2
I0917 12:18:58.582947 10270 net.cpp:406] penlu_cccp2 <- cccp2
I0917 12:18:58.582962 10270 net.cpp:380] penlu_cccp2 -> penlu_cccp2
I0917 12:18:58.583133 10270 net.cpp:122] Setting up penlu_cccp2
I0917 12:18:58.583139 10270 net.cpp:129] Top shape: 64 96 28 28 (4816896)
I0917 12:18:58.583142 10270 net.cpp:137] Memory required for data: 180433664
I0917 12:18:58.583147 10270 layer_factory.hpp:77] Creating layer pool1
I0917 12:18:58.583153 10270 net.cpp:84] Creating Layer pool1
I0917 12:18:58.583155 10270 net.cpp:406] pool1 <- penlu_cccp2
I0917 12:18:58.583170 10270 net.cpp:380] pool1 -> pool1
I0917 12:18:58.583225 10270 net.cpp:122] Setting up pool1
I0917 12:18:58.583231 10270 net.cpp:129] Top shape: 64 96 14 14 (1204224)
I0917 12:18:58.583243 10270 net.cpp:137] Memory required for data: 185250560
I0917 12:18:58.583245 10270 layer_factory.hpp:77] Creating layer dropout1
I0917 12:18:58.583250 10270 net.cpp:84] Creating Layer dropout1
I0917 12:18:58.583263 10270 net.cpp:406] dropout1 <- pool1
I0917 12:18:58.583268 10270 net.cpp:380] dropout1 -> dropout1
I0917 12:18:58.583344 10270 net.cpp:122] Setting up dropout1
I0917 12:18:58.583350 10270 net.cpp:129] Top shape: 64 96 14 14 (1204224)
I0917 12:18:58.583353 10270 net.cpp:137] Memory required for data: 190067456
I0917 12:18:58.583354 10270 layer_factory.hpp:77] Creating layer conv2
I0917 12:18:58.583360 10270 net.cpp:84] Creating Layer conv2
I0917 12:18:58.583364 10270 net.cpp:406] conv2 <- dropout1
I0917 12:18:58.583367 10270 net.cpp:380] conv2 -> conv2
I0917 12:18:58.595403 10270 net.cpp:122] Setting up conv2
I0917 12:18:58.595418 10270 net.cpp:129] Top shape: 64 192 14 14 (2408448)
I0917 12:18:58.595422 10270 net.cpp:137] Memory required for data: 199701248
I0917 12:18:58.595430 10270 layer_factory.hpp:77] Creating layer penlu_conv2
I0917 12:18:58.595448 10270 net.cpp:84] Creating Layer penlu_conv2
I0917 12:18:58.595451 10270 net.cpp:406] penlu_conv2 <- conv2
I0917 12:18:58.595465 10270 net.cpp:380] penlu_conv2 -> penlu_conv2
I0917 12:18:58.595625 10270 net.cpp:122] Setting up penlu_conv2
I0917 12:18:58.595633 10270 net.cpp:129] Top shape: 64 192 14 14 (2408448)
I0917 12:18:58.595634 10270 net.cpp:137] Memory required for data: 209335040
I0917 12:18:58.595639 10270 layer_factory.hpp:77] Creating layer cccp3
I0917 12:18:58.595645 10270 net.cpp:84] Creating Layer cccp3
I0917 12:18:58.595649 10270 net.cpp:406] cccp3 <- penlu_conv2
I0917 12:18:58.595662 10270 net.cpp:380] cccp3 -> cccp3
I0917 12:18:58.597311 10270 net.cpp:122] Setting up cccp3
I0917 12:18:58.597321 10270 net.cpp:129] Top shape: 64 192 14 14 (2408448)
I0917 12:18:58.597323 10270 net.cpp:137] Memory required for data: 218968832
I0917 12:18:58.597327 10270 layer_factory.hpp:77] Creating layer penlu_cccp3
I0917 12:18:58.597355 10270 net.cpp:84] Creating Layer penlu_cccp3
I0917 12:18:58.597360 10270 net.cpp:406] penlu_cccp3 <- cccp3
I0917 12:18:58.597368 10270 net.cpp:380] penlu_cccp3 -> penlu_cccp3
I0917 12:18:58.597558 10270 net.cpp:122] Setting up penlu_cccp3
I0917 12:18:58.597563 10270 net.cpp:129] Top shape: 64 192 14 14 (2408448)
I0917 12:18:58.597566 10270 net.cpp:137] Memory required for data: 228602624
I0917 12:18:58.597570 10270 layer_factory.hpp:77] Creating layer cccp4
I0917 12:18:58.597578 10270 net.cpp:84] Creating Layer cccp4
I0917 12:18:58.597579 10270 net.cpp:406] cccp4 <- penlu_cccp3
I0917 12:18:58.597594 10270 net.cpp:380] cccp4 -> cccp4
I0917 12:18:58.599226 10270 net.cpp:122] Setting up cccp4
I0917 12:18:58.599236 10270 net.cpp:129] Top shape: 64 192 14 14 (2408448)
I0917 12:18:58.599239 10270 net.cpp:137] Memory required for data: 238236416
I0917 12:18:58.599244 10270 layer_factory.hpp:77] Creating layer penlu_cccp4
I0917 12:18:58.599249 10270 net.cpp:84] Creating Layer penlu_cccp4
I0917 12:18:58.599251 10270 net.cpp:406] penlu_cccp4 <- cccp4
I0917 12:18:58.599267 10270 net.cpp:380] penlu_cccp4 -> penlu_cccp4
I0917 12:18:58.599409 10270 net.cpp:122] Setting up penlu_cccp4
I0917 12:18:58.599416 10270 net.cpp:129] Top shape: 64 192 14 14 (2408448)
I0917 12:18:58.599418 10270 net.cpp:137] Memory required for data: 247870208
I0917 12:18:58.599422 10270 layer_factory.hpp:77] Creating layer pool2
I0917 12:18:58.599429 10270 net.cpp:84] Creating Layer pool2
I0917 12:18:58.599431 10270 net.cpp:406] pool2 <- penlu_cccp4
I0917 12:18:58.599444 10270 net.cpp:380] pool2 -> pool2
I0917 12:18:58.599604 10270 net.cpp:122] Setting up pool2
I0917 12:18:58.599611 10270 net.cpp:129] Top shape: 64 192 7 7 (602112)
I0917 12:18:58.599613 10270 net.cpp:137] Memory required for data: 250278656
I0917 12:18:58.599617 10270 layer_factory.hpp:77] Creating layer dropout2
I0917 12:18:58.599622 10270 net.cpp:84] Creating Layer dropout2
I0917 12:18:58.599623 10270 net.cpp:406] dropout2 <- pool2
I0917 12:18:58.599627 10270 net.cpp:380] dropout2 -> dropout2
I0917 12:18:58.599685 10270 net.cpp:122] Setting up dropout2
I0917 12:18:58.599690 10270 net.cpp:129] Top shape: 64 192 7 7 (602112)
I0917 12:18:58.599702 10270 net.cpp:137] Memory required for data: 252687104
I0917 12:18:58.599704 10270 layer_factory.hpp:77] Creating layer conv3
I0917 12:18:58.599722 10270 net.cpp:84] Creating Layer conv3
I0917 12:18:58.599728 10270 net.cpp:406] conv3 <- dropout2
I0917 12:18:58.599746 10270 net.cpp:380] conv3 -> conv3
I0917 12:18:58.608844 10270 net.cpp:122] Setting up conv3
I0917 12:18:58.608858 10270 net.cpp:129] Top shape: 64 192 7 7 (602112)
I0917 12:18:58.608861 10270 net.cpp:137] Memory required for data: 255095552
I0917 12:18:58.608868 10270 layer_factory.hpp:77] Creating layer penlu_conv3
I0917 12:18:58.608888 10270 net.cpp:84] Creating Layer penlu_conv3
I0917 12:18:58.608908 10270 net.cpp:406] penlu_conv3 <- conv3
I0917 12:18:58.608913 10270 net.cpp:380] penlu_conv3 -> penlu_conv3
I0917 12:18:58.609071 10270 net.cpp:122] Setting up penlu_conv3
I0917 12:18:58.609076 10270 net.cpp:129] Top shape: 64 192 7 7 (602112)
I0917 12:18:58.609078 10270 net.cpp:137] Memory required for data: 257504000
I0917 12:18:58.609087 10270 layer_factory.hpp:77] Creating layer cccp5
I0917 12:18:58.609097 10270 net.cpp:84] Creating Layer cccp5
I0917 12:18:58.609112 10270 net.cpp:406] cccp5 <- penlu_conv3
I0917 12:18:58.609118 10270 net.cpp:380] cccp5 -> cccp5
I0917 12:18:58.610754 10270 net.cpp:122] Setting up cccp5
I0917 12:18:58.610764 10270 net.cpp:129] Top shape: 64 192 7 7 (602112)
I0917 12:18:58.610766 10270 net.cpp:137] Memory required for data: 259912448
I0917 12:18:58.610770 10270 layer_factory.hpp:77] Creating layer penlu_cccp5
I0917 12:18:58.610779 10270 net.cpp:84] Creating Layer penlu_cccp5
I0917 12:18:58.610783 10270 net.cpp:406] penlu_cccp5 <- cccp5
I0917 12:18:58.610802 10270 net.cpp:380] penlu_cccp5 -> penlu_cccp5
I0917 12:18:58.610949 10270 net.cpp:122] Setting up penlu_cccp5
I0917 12:18:58.610955 10270 net.cpp:129] Top shape: 64 192 7 7 (602112)
I0917 12:18:58.610966 10270 net.cpp:137] Memory required for data: 262320896
I0917 12:18:58.610971 10270 layer_factory.hpp:77] Creating layer cccp6
I0917 12:18:58.610988 10270 net.cpp:84] Creating Layer cccp6
I0917 12:18:58.610991 10270 net.cpp:406] cccp6 <- penlu_cccp5
I0917 12:18:58.611016 10270 net.cpp:380] cccp6 -> cccp6
I0917 12:18:58.611897 10270 net.cpp:122] Setting up cccp6
I0917 12:18:58.611907 10270 net.cpp:129] Top shape: 64 10 7 7 (31360)
I0917 12:18:58.611909 10270 net.cpp:137] Memory required for data: 262446336
I0917 12:18:58.611914 10270 layer_factory.hpp:77] Creating layer penlu_cccp6
I0917 12:18:58.611920 10270 net.cpp:84] Creating Layer penlu_cccp6
I0917 12:18:58.611923 10270 net.cpp:406] penlu_cccp6 <- cccp6
I0917 12:18:58.611941 10270 net.cpp:380] penlu_cccp6 -> penlu_cccp6
I0917 12:18:58.612090 10270 net.cpp:122] Setting up penlu_cccp6
I0917 12:18:58.612097 10270 net.cpp:129] Top shape: 64 10 7 7 (31360)
I0917 12:18:58.612099 10270 net.cpp:137] Memory required for data: 262571776
I0917 12:18:58.612104 10270 layer_factory.hpp:77] Creating layer pool3
I0917 12:18:58.612108 10270 net.cpp:84] Creating Layer pool3
I0917 12:18:58.612112 10270 net.cpp:406] pool3 <- penlu_cccp6
I0917 12:18:58.612118 10270 net.cpp:380] pool3 -> pool3
I0917 12:18:58.612265 10270 net.cpp:122] Setting up pool3
I0917 12:18:58.612272 10270 net.cpp:129] Top shape: 64 10 1 1 (640)
I0917 12:18:58.612274 10270 net.cpp:137] Memory required for data: 262574336
I0917 12:18:58.612277 10270 layer_factory.hpp:77] Creating layer pool3_pool3_0_split
I0917 12:18:58.612282 10270 net.cpp:84] Creating Layer pool3_pool3_0_split
I0917 12:18:58.612283 10270 net.cpp:406] pool3_pool3_0_split <- pool3
I0917 12:18:58.612287 10270 net.cpp:380] pool3_pool3_0_split -> pool3_pool3_0_split_0
I0917 12:18:58.612294 10270 net.cpp:380] pool3_pool3_0_split -> pool3_pool3_0_split_1
I0917 12:18:58.612341 10270 net.cpp:122] Setting up pool3_pool3_0_split
I0917 12:18:58.612346 10270 net.cpp:129] Top shape: 64 10 1 1 (640)
I0917 12:18:58.612349 10270 net.cpp:129] Top shape: 64 10 1 1 (640)
I0917 12:18:58.612351 10270 net.cpp:137] Memory required for data: 262579456
I0917 12:18:58.612354 10270 layer_factory.hpp:77] Creating layer accuracy
I0917 12:18:58.612357 10270 net.cpp:84] Creating Layer accuracy
I0917 12:18:58.612360 10270 net.cpp:406] accuracy <- pool3_pool3_0_split_0
I0917 12:18:58.612362 10270 net.cpp:406] accuracy <- label_cifar_1_split_0
I0917 12:18:58.612365 10270 net.cpp:380] accuracy -> accuracy
…
I0917 12:18:58.613464 10270 net.cpp:294] The NetState phase (1) differed from the phase (0) specified by a rule in layer cifar
I0917 12:18:58.613646 10270 net.cpp:51] Initializing net from parameters: 
name: "nin"
state {
  phase: TEST
}
layer {
  name: "cifar"
  type: "Data"
  top: "data"
  top: "label"
  include {
    phase: TEST
  }
  transform_param {
    mirror: false
    crop_size: 28
    mean_file: "/home/x306/caffe/xn/PENLU/data/cifar10/mean.binaryproto"
  }
  data_param {
    source: "/home/x306/caffe/xn/PENLU/data/cifar10/cifar10_test_lmdb"
    batch_size: 50
    backend: LMDB
  }
}
layer {
  name: "conv1"
  type: "Convolution"
  bottom: "data"
  top: "conv1"
  param {
    lr_mult: 1
    decay_mult: 1
  }
  param {
    lr_mult: 2
    decay_mult: 0
  }
  convolution_param {
    num_output: 192
    pad: 2
    kernel_size: 5
    weight_filler {
      type: "gaussian"
      std: 0.05
    }
    bias_filler {
      type: "constant"
      value: 0
    }
  }
}
layer {
  name: "penlu_conv1"
  type: "PENLU"
  bottom: "conv1"
  top: "penlu_conv1"
  param {
    lr_mult: 2
    decay_mult: 0
  }
  param {
    lr_mult: 2
    decay_mult: 0
  }
  param {
    lr_mult: 2
    decay_mult: 0
  }
  penlu_param {
    alpha_filler {
      type: "constant"
      value: 0.25
    }
    beta_filler {
      type: "constant"
      value: 1
    }
    eta_filler {
      type: "constant"
      value: 0.8
    }
  }
}
layer {
  name: "cccp1"
  type: "Convolution"
  bottom: "penlu_conv1"
  top: "cccp1"
  param {
    lr_mult: 1
    decay_mult: 1
  }
  param {
    lr_mult: 2
    decay_mult: 0
  }
  convolution_param {
    num_output: 160
    kernel_size: 1
    weight_filler {
      type: "gaussian"
      std: 0.05
    }
    bias_filler {
      type: "constant"
      value: 0
    }
  }
}
layer {
  name: "penlu_cccp1"
  type: "PENLU"
  bottom: "cccp1"
  top: "penlu_cccp1"
  param {
    lr_mult: 2
    decay_mult: 0
  }
  param {
    lr_mult: 2
    decay_mult: 0
  }
  param {
    lr_mult: 2
    decay_mult: 0
  }
  penlu_param {
    alpha_filler {
      type: "constant"
      value: 0.25
    }
    beta_filler {
      type: "constant"
      value: 1
    }
    eta_filler {
      type: "constant"
      value: 0.8
    }
  }
}
layer {
  name: "cccp2"
  type: "Convolution"
  bottom: "penlu_cccp1"
  top: "cccp2"
  param {
    lr_mult: 1
    decay_mult: 1
  }
  param {
    lr_mult: 2
    decay_mult: 0
  }
  convolution_param {
    num_output: 96
    kernel_size: 1
    weight_filler {
      type: "gaussian"
      std: 0.05
    }
    bias_filler {
      type: "constant"
      value: 0
    }
  }
}
layer {
  name: "penlu_cccp2"
  type: "PENLU"
  bottom: "cccp2"
  top: "penlu_cccp2"
  param {
    lr_mult: 2
    decay_mult: 0
  }
  param {
    lr_mult: 2
    decay_mult: 0
  }
  param {
    lr_mult: 2
    decay_mult: 0
  }
  penlu_param {
    alpha_filler {
      type: "constant"
      value: 0.25
    }
    beta_filler {
      type: "constant"
      value: 1
    }
    eta_filler {
      type: "constant"
      value: 0.8
    }
  }
}
layer {
  name: "pool1"
  type: "Pooling"
  bottom: "penlu_cccp2"
  top: "pool1"
  pooling_param {
    pool: MAX
    kernel_size: 3
    stride: 2
  }
}
layer {
  name: "dropout1"
  type: "Dropout"
  bottom: "pool1"
  top: "dropout1"
  dropout_param {
    dropout_ratio: 0.5
  }
}
layer {
  name: "conv2"
  type: "Convolution"
  bottom: "dropout1"
  top: "conv2"
  param {
    lr_mult: 1
    decay_mult: 1
  }
  param {
    lr_mult: 2
    decay_mult: 0
  }
  convolution_param {
    num_output: 192
    pad: 2
    kernel_size: 5
    weight_filler {
      type: "gaussian"
      std: 0.05
    }
    bias_filler {
      type: "constant"
      value: 0
    }
  }
}
layer {
  name: "penlu_conv2"
  type: "PENLU"
  bottom: "conv2"
  top: "penlu_conv2"
  param {
    lr_mult: 2
    decay_mult: 0
  }
  param {
    lr_mult: 2
    decay_mult: 0
  }
  param {
    lr_mult: 2
    decay_mult: 0
  }
  penlu_param {
    alpha_filler {
      type: "constant"
      value: 0.25
    }
    beta_filler {
      type: "constant"
      value: 1
    }
    eta_filler {
      type: "constant"
      value: 0.8
    }
  }
}
layer {
  name: "cccp3"
  type: "Convolution"
  bottom: "penlu_conv2"
  top: "cccp3"
  param {
    lr_mult: 1
    decay_mult: 1
  }
  param {
    lr_mult: 2
    decay_mult: 0
  }
  convolution_param {
    num_output: 192
    kernel_size: 1
    weight_filler {
      type: "gaussian"
      std: 0.05
    }
    bias_filler {
      type: "constant"
      value: 0
    }
  }
}
layer {
  name: "penlu_cccp3"
  type: "PENLU"
  bottom: "cccp3"
  top: "penlu_cccp3"
  param {
    lr_mult: 2
    decay_mult: 0
  }
  param {
    lr_mult: 2
    decay_mult: 0
  }
  param {
    lr_mult: 2
    decay_mult: 0
  }
  penlu_param {
    alpha_filler {
      type: "constant"
      value: 0.25
    }
    beta_filler {
      type: "constant"
      value: 1
    }
    eta_filler {
      type: "constant"
      value: 0.8
    }
  }
}
layer {
  name: "cccp4"
  type: "Convolution"
  bottom: "penlu_cccp3"
  top: "cccp4"
  param {
    lr_mult: 1
    decay_mult: 1
  }
  param {
    lr_mult: 2
    decay_mult: 0
  }
  convolution_param {
    num_output: 192
    kernel_size: 1
    weight_filler {
      type: "gaussian"
      std: 0.05
    }
    bias_filler {
      type: "constant"
      value: 0
    }
  }
}
layer {
  name: "penlu_cccp4"
  type: "PENLU"
  bottom: "cccp4"
  top: "penlu_cccp4"
  param {
    lr_mult: 2
    decay_mult: 0
  }
  param {
    lr_mult: 2
    decay_mult: 0
  }
  param {
    lr_mult: 2
    decay_mult: 0
  }
  penlu_param {
    alpha_filler {
      type: "constant"
      value: 0.25
    }
    beta_filler {
      type: "constant"
      value: 1
    }
    eta_filler {
      type: "constant"
      value: 0.8
    }
  }
}
layer {
  name: "pool2"
  type: "Pooling"
  bottom: "penlu_cccp4"
  top: "pool2"
  pooling_param {
    pool: AVE
    kernel_size: 3
    stride: 2
  }
}
layer {
  name: "dropout2"
  type: "Dropout"
  bottom: "pool2"
  top: "dropout2"
  dropout_param {
    dropout_ratio: 0.5
  }
}
layer {
  name: "conv3"
  type: "Convolution"
  bottom: "dropout2"
  top: "conv3"
  param {
    lr_mult: 1
    decay_mult: 1
  }
  param {
    lr_mult: 2
    decay_mult: 0
  }
  convolution_param {
    num_output: 192
    pad: 1
    kernel_size: 3
    weight_filler {
      type: "gaussian"
      std: 0.05
    }
    bias_filler {
      type: "constant"
      value: 0
    }
  }
}
layer {
  name: "penlu_conv3"
  type: "PENLU"
  bottom: "conv3"
  top: "penlu_conv3"
  param {
    lr_mult: 2
    decay_mult: 0
  }
  param {
    lr_mult: 2
    decay_mult: 0
  }
  param {
    lr_mult: 2
    decay_mult: 0
  }
  penlu_param {
    alpha_filler {
      type: "constant"
      value: 0.25
    }
    beta_filler {
      type: "constant"
      value: 1
    }
    eta_filler {
      type: "constant"
      value: 0.8
    }
  }
}
layer {
  name: "cccp5"
  type: "Convolution"
  bottom: "penlu_conv3"
  top: "cccp5"
  param {
    lr_mult: 1
    decay_mult: 1
  }
  param {
    lr_mult: 2
    decay_mult: 0
  }
  convolution_param {
    num_output: 192
    kernel_size: 1
    weight_filler {
      type: "gaussian"
      std: 0.05
    }
    bias_filler {
      type: "constant"
      value: 0
    }
  }
}
layer {
  name: "penlu_cccp5"
  type: "PENLU"
  bottom: "cccp5"
  top: "penlu_cccp5"
  param {
    lr_mult: 2
    decay_mult: 0
  }
  param {
    lr_mult: 2
    decay_mult: 0
  }
  param {
    lr_mult: 2
    decay_mult: 0
  }
  penlu_param {
    alpha_filler {
      type: "constant"
      value: 1
    }
    beta_filler {
      type: "constant"
      value: 1
    }
    eta_filler {
      type: "constant"
      value: 0.8
    }
  }
}
layer {
  name: "cccp6"
  type: "Convolution"
  bottom: "penlu_cccp5"
  top: "cccp6"
  param {
    lr_mult: 0.1
    decay_mult: 1
  }
  param {
    lr_mult: 0.1
    decay_mult: 0
  }
  convolution_param {
    num_output: 10
    kernel_size: 1
    weight_filler {
      type: "gaussian"
      std: 0.05
    }
    bias_filler {
      type: "constant"
      value: 0
    }
  }
}
layer {
  name: "penlu_cccp6"
  type: "PENLU"
  bottom: "cccp6"
  top: "penlu_cccp6"
  param {
    lr_mult: 2
    decay_mult: 0
  }
  param {
    lr_mult: 2
    decay_mult: 0
  }
  param {
    lr_mult: 2
    decay_mult: 0
  }
  penlu_param {
    alpha_filler {
      type: "constant"
      value: 0.25
    }
    beta_filler {
      type: "constant"
      value: 1
    }
    eta_filler {
      type: "constant"
      value: 0.8
    }
  }
}
layer {
  name: "pool3"
  type: "Pooling"
  bottom: "penlu_cccp6"
  top: "pool3"
  pooling_param {
    pool: AVE
    kernel_size: 7
    stride: 1
  }
}
layer {
  name: "accuracy"
  type: "Accuracy"
  bottom: "pool3"
  bottom: "label"
  top: "accuracy"
}
layer {
  name: "loss"
  type: "SoftmaxWithLoss"
  bottom: "pool3"
  bottom: "label"
  top: "loss"
}
I0917 12:18:58.613771 10270 layer_factory.hpp:77] Creating layer cifar
I0917 12:18:58.613817 10270 db_lmdb.cpp:35] Opened lmdb /home/x306/caffe/xn/PENLU/data/cifar10/cifar10_test_lmdb
I0917 12:18:58.613831 10270 net.cpp:84] Creating Layer cifar
I0917 12:18:58.613837 10270 net.cpp:380] cifar -> data
I0917 12:18:58.613845 10270 net.cpp:380] cifar -> label
I0917 12:18:58.613852 10270 data_transformer.cpp:25] Loading mean file from: /home/x306/caffe/xn/PENLU/data/cifar10/mean.binaryproto
I0917 12:18:58.613978 10270 data_layer.cpp:45] output data size: 50,3,28,28
I0917 12:18:58.614985 10270 net.cpp:122] Setting up cifar
I0917 12:18:58.614997 10270 net.cpp:129] Top shape: 50 3 28 28 (117600)
I0917 12:18:58.615002 10270 net.cpp:129] Top shape: 50 (50)
I0917 12:18:58.615007 10270 net.cpp:137] Memory required for data: 470600
I0917 12:18:58.615011 10270 layer_factory.hpp:77] Creating layer label_cifar_1_split
I0917 12:18:58.615020 10270 net.cpp:84] Creating Layer label_cifar_1_split
I0917 12:18:58.615025 10270 net.cpp:406] label_cifar_1_split <- label
I0917 12:18:58.615030 10270 net.cpp:380] label_cifar_1_split -> label_cifar_1_split_0
I0917 12:18:58.615038 10270 net.cpp:380] label_cifar_1_split -> label_cifar_1_split_1
I0917 12:18:58.615090 10270 net.cpp:122] Setting up label_cifar_1_split
I0917 12:18:58.615095 10270 net.cpp:129] Top shape: 50 (50)
I0917 12:18:58.615098 10270 net.cpp:129] Top shape: 50 (50)
I0917 12:18:58.615103 10270 net.cpp:137] Memory required for data: 471000
I0917 12:18:58.615106 10270 layer_factory.hpp:77] Creating layer conv1
I0917 12:18:58.615116 10270 net.cpp:84] Creating Layer conv1
I0917 12:18:58.615126 10270 net.cpp:406] conv1 <- data
I0917 12:18:58.615134 10270 net.cpp:380] conv1 -> conv1
I0917 12:18:58.616518 10270 net.cpp:122] Setting up conv1
I0917 12:18:58.616529 10270 net.cpp:129] Top shape: 50 192 28 28 (7526400)
I0917 12:18:58.616533 10270 net.cpp:137] Memory required for data: 30576600
I0917 12:18:58.616544 10270 layer_factory.hpp:77] Creating layer penlu_conv1
I0917 12:18:58.616550 10270 net.cpp:84] Creating Layer penlu_conv1
I0917 12:18:58.616556 10270 net.cpp:406] penlu_conv1 <- conv1
I0917 12:18:58.616562 10270 net.cpp:380] penlu_conv1 -> penlu_conv1
I0917 12:18:58.616765 10270 net.cpp:122] Setting up penlu_conv1
I0917 12:18:58.616771 10270 net.cpp:129] Top shape: 50 192 28 28 (7526400)
I0917 12:18:58.616775 10270 net.cpp:137] Memory required for data: 60682200
I0917 12:18:58.616786 10270 layer_factory.hpp:77] Creating layer cccp1
I0917 12:18:58.616796 10270 net.cpp:84] Creating Layer cccp1
I0917 12:18:58.616801 10270 net.cpp:406] cccp1 <- penlu_conv1
I0917 12:18:58.616806 10270 net.cpp:380] cccp1 -> cccp1
I0917 12:18:58.618455 10270 net.cpp:122] Setting up cccp1
I0917 12:18:58.618465 10270 net.cpp:129] Top shape: 50 160 28 28 (6272000)
I0917 12:18:58.618469 10270 net.cpp:137] Memory required for data: 85770200
I0917 12:18:58.618476 10270 layer_factory.hpp:77] Creating layer penlu_cccp1
I0917 12:18:58.618484 10270 net.cpp:84] Creating Layer penlu_cccp1
I0917 12:18:58.618486 10270 net.cpp:406] penlu_cccp1 <- cccp1
I0917 12:18:58.618491 10270 net.cpp:380] penlu_cccp1 -> penlu_cccp1
I0917 12:18:58.619153 10270 net.cpp:122] Setting up penlu_cccp1
I0917 12:18:58.619163 10270 net.cpp:129] Top shape: 50 160 28 28 (6272000)
I0917 12:18:58.619166 10270 net.cpp:137] Memory required for data: 110858200
I0917 12:18:58.619174 10270 layer_factory.hpp:77] Creating layer cccp2
I0917 12:18:58.619182 10270 net.cpp:84] Creating Layer cccp2
I0917 12:18:58.619185 10270 net.cpp:406] cccp2 <- penlu_cccp1
I0917 12:18:58.619189 10270 net.cpp:380] cccp2 -> cccp2
I0917 12:18:58.620430 10270 net.cpp:122] Setting up cccp2
I0917 12:18:58.620442 10270 net.cpp:129] Top shape: 50 96 28 28 (3763200)
I0917 12:18:58.620446 10270 net.cpp:137] Memory required for data: 125911000
I0917 12:18:58.620450 10270 layer_factory.hpp:77] Creating layer penlu_cccp2
I0917 12:18:58.620457 10270 net.cpp:84] Creating Layer penlu_cccp2
I0917 12:18:58.620460 10270 net.cpp:406] penlu_cccp2 <- cccp2
I0917 12:18:58.620465 10270 net.cpp:380] penlu_cccp2 -> penlu_cccp2
I0917 12:18:58.620607 10270 net.cpp:122] Setting up penlu_cccp2
I0917 12:18:58.620613 10270 net.cpp:129] Top shape: 50 96 28 28 (3763200)
I0917 12:18:58.620616 10270 net.cpp:137] Memory required for data: 140963800
I0917 12:18:58.620621 10270 layer_factory.hpp:77] Creating layer pool1
I0917 12:18:58.620628 10270 net.cpp:84] Creating Layer pool1
I0917 12:18:58.620631 10270 net.cpp:406] pool1 <- penlu_cccp2
I0917 12:18:58.620635 10270 net.cpp:380] pool1 -> pool1
I0917 12:18:58.620661 10270 net.cpp:122] Setting up pool1
I0917 12:18:58.620666 10270 net.cpp:129] Top shape: 50 96 14 14 (940800)
I0917 12:18:58.620668 10270 net.cpp:137] Memory required for data: 144727000
I0917 12:18:58.620671 10270 layer_factory.hpp:77] Creating layer dropout1
I0917 12:18:58.620674 10270 net.cpp:84] Creating Layer dropout1
I0917 12:18:58.620677 10270 net.cpp:406] dropout1 <- pool1
I0917 12:18:58.620681 10270 net.cpp:380] dropout1 -> dropout1
I0917 12:18:58.620703 10270 net.cpp:122] Setting up dropout1
I0917 12:18:58.620708 10270 net.cpp:129] Top shape: 50 96 14 14 (940800)
I0917 12:18:58.620712 10270 net.cpp:137] Memory required for data: 148490200
I0917 12:18:58.620713 10270 layer_factory.hpp:77] Creating layer conv2
I0917 12:18:58.620720 10270 net.cpp:84] Creating Layer conv2
I0917 12:18:58.620723 10270 net.cpp:406] conv2 <- dropout1
I0917 12:18:58.620728 10270 net.cpp:380] conv2 -> conv2
I0917 12:18:58.632143 10270 net.cpp:122] Setting up conv2
I0917 12:18:58.632153 10270 net.cpp:129] Top shape: 50 192 14 14 (1881600)
I0917 12:18:58.632158 10270 net.cpp:137] Memory required for data: 156016600
I0917 12:18:58.632174 10270 layer_factory.hpp:77] Creating layer penlu_conv2
I0917 12:18:58.632182 10270 net.cpp:84] Creating Layer penlu_conv2
I0917 12:18:58.632185 10270 net.cpp:406] penlu_conv2 <- conv2
I0917 12:18:58.632191 10270 net.cpp:380] penlu_conv2 -> penlu_conv2
I0917 12:18:58.632330 10270 net.cpp:122] Setting up penlu_conv2
I0917 12:18:58.632338 10270 net.cpp:129] Top shape: 50 192 14 14 (1881600)
I0917 12:18:58.632340 10270 net.cpp:137] Memory required for data: 163543000
I0917 12:18:58.632344 10270 layer_factory.hpp:77] Creating layer cccp3
I0917 12:18:58.632352 10270 net.cpp:84] Creating Layer cccp3
I0917 12:18:58.632355 10270 net.cpp:406] cccp3 <- penlu_conv2
I0917 12:18:58.632359 10270 net.cpp:380] cccp3 -> cccp3
I0917 12:18:58.634021 10270 net.cpp:122] Setting up cccp3
I0917 12:18:58.634030 10270 net.cpp:129] Top shape: 50 192 14 14 (1881600)
I0917 12:18:58.634034 10270 net.cpp:137] Memory required for data: 171069400
I0917 12:18:58.634039 10270 layer_factory.hpp:77] Creating layer penlu_cccp3
I0917 12:18:58.634047 10270 net.cpp:84] Creating Layer penlu_cccp3
I0917 12:18:58.634049 10270 net.cpp:406] penlu_cccp3 <- cccp3
I0917 12:18:58.634054 10270 net.cpp:380] penlu_cccp3 -> penlu_cccp3
I0917 12:18:58.634189 10270 net.cpp:122] Setting up penlu_cccp3
I0917 12:18:58.634194 10270 net.cpp:129] Top shape: 50 192 14 14 (1881600)
I0917 12:18:58.634196 10270 net.cpp:137] Memory required for data: 178595800
I0917 12:18:58.634202 10270 layer_factory.hpp:77] Creating layer cccp4
I0917 12:18:58.634207 10270 net.cpp:84] Creating Layer cccp4
I0917 12:18:58.634210 10270 net.cpp:406] cccp4 <- penlu_cccp3
I0917 12:18:58.634213 10270 net.cpp:380] cccp4 -> cccp4
I0917 12:18:58.635876 10270 net.cpp:122] Setting up cccp4
I0917 12:18:58.635885 10270 net.cpp:129] Top shape: 50 192 14 14 (1881600)
I0917 12:18:58.635887 10270 net.cpp:137] Memory required for data: 186122200
I0917 12:18:58.635892 10270 layer_factory.hpp:77] Creating layer penlu_cccp4
I0917 12:18:58.635898 10270 net.cpp:84] Creating Layer penlu_cccp4
I0917 12:18:58.635901 10270 net.cpp:406] penlu_cccp4 <- cccp4
I0917 12:18:58.635905 10270 net.cpp:380] penlu_cccp4 -> penlu_cccp4
I0917 12:18:58.636044 10270 net.cpp:122] Setting up penlu_cccp4
I0917 12:18:58.636049 10270 net.cpp:129] Top shape: 50 192 14 14 (1881600)
I0917 12:18:58.636051 10270 net.cpp:137] Memory required for data: 193648600
I0917 12:18:58.636055 10270 layer_factory.hpp:77] Creating layer pool2
I0917 12:18:58.636060 10270 net.cpp:84] Creating Layer pool2
I0917 12:18:58.636063 10270 net.cpp:406] pool2 <- penlu_cccp4
I0917 12:18:58.636067 10270 net.cpp:380] pool2 -> pool2
I0917 12:18:58.636196 10270 net.cpp:122] Setting up pool2
I0917 12:18:58.636203 10270 net.cpp:129] Top shape: 50 192 7 7 (470400)
I0917 12:18:58.636204 10270 net.cpp:137] Memory required for data: 195530200
I0917 12:18:58.636206 10270 layer_factory.hpp:77] Creating layer dropout2
I0917 12:18:58.636210 10270 net.cpp:84] Creating Layer dropout2
I0917 12:18:58.636212 10270 net.cpp:406] dropout2 <- pool2
I0917 12:18:58.636217 10270 net.cpp:380] dropout2 -> dropout2
I0917 12:18:58.636241 10270 net.cpp:122] Setting up dropout2
I0917 12:18:58.636245 10270 net.cpp:129] Top shape: 50 192 7 7 (470400)
I0917 12:18:58.636247 10270 net.cpp:137] Memory required for data: 197411800
I0917 12:18:58.636250 10270 layer_factory.hpp:77] Creating layer conv3
I0917 12:18:58.636255 10270 net.cpp:84] Creating Layer conv3
I0917 12:18:58.636257 10270 net.cpp:406] conv3 <- dropout2
I0917 12:18:58.636261 10270 net.cpp:380] conv3 -> conv3
I0917 12:18:58.645643 10270 net.cpp:122] Setting up conv3
I0917 12:18:58.645658 10270 net.cpp:129] Top shape: 50 192 7 7 (470400)
I0917 12:18:58.645661 10270 net.cpp:137] Memory required for data: 199293400
I0917 12:18:58.645668 10270 layer_factory.hpp:77] Creating layer penlu_conv3
I0917 12:18:58.645686 10270 net.cpp:84] Creating Layer penlu_conv3
I0917 12:18:58.645691 10270 net.cpp:406] penlu_conv3 <- conv3
I0917 12:18:58.645697 10270 net.cpp:380] penlu_conv3 -> penlu_conv3
I0917 12:18:58.645853 10270 net.cpp:122] Setting up penlu_conv3
I0917 12:18:58.645869 10270 net.cpp:129] Top shape: 50 192 7 7 (470400)
I0917 12:18:58.645871 10270 net.cpp:137] Memory required for data: 201175000
I0917 12:18:58.645880 10270 layer_factory.hpp:77] Creating layer cccp5
I0917 12:18:58.645897 10270 net.cpp:84] Creating Layer cccp5
I0917 12:18:58.645901 10270 net.cpp:406] cccp5 <- penlu_conv3
I0917 12:18:58.645906 10270 net.cpp:380] cccp5 -> cccp5
I0917 12:18:58.647588 10270 net.cpp:122] Setting up cccp5
I0917 12:18:58.647598 10270 net.cpp:129] Top shape: 50 192 7 7 (470400)
I0917 12:18:58.647601 10270 net.cpp:137] Memory required for data: 203056600
I0917 12:18:58.647605 10270 layer_factory.hpp:77] Creating layer penlu_cccp5
I0917 12:18:58.647613 10270 net.cpp:84] Creating Layer penlu_cccp5
I0917 12:18:58.647615 10270 net.cpp:406] penlu_cccp5 <- cccp5
I0917 12:18:58.647630 10270 net.cpp:380] penlu_cccp5 -> penlu_cccp5
I0917 12:18:58.647783 10270 net.cpp:122] Setting up penlu_cccp5
I0917 12:18:58.647789 10270 net.cpp:129] Top shape: 50 192 7 7 (470400)
I0917 12:18:58.647790 10270 net.cpp:137] Memory required for data: 204938200
I0917 12:18:58.647794 10270 layer_factory.hpp:77] Creating layer cccp6
I0917 12:18:58.647801 10270 net.cpp:84] Creating Layer cccp6
I0917 12:18:58.647815 10270 net.cpp:406] cccp6 <- penlu_cccp5
I0917 12:18:58.647819 10270 net.cpp:380] cccp6 -> cccp6
I0917 12:18:58.648749 10270 net.cpp:122] Setting up cccp6
I0917 12:18:58.648759 10270 net.cpp:129] Top shape: 50 10 7 7 (24500)
I0917 12:18:58.648762 10270 net.cpp:137] Memory required for data: 205036200
I0917 12:18:58.648766 10270 layer_factory.hpp:77] Creating layer penlu_cccp6
I0917 12:18:58.648772 10270 net.cpp:84] Creating Layer penlu_cccp6
I0917 12:18:58.648775 10270 net.cpp:406] penlu_cccp6 <- cccp6
I0917 12:18:58.648789 10270 net.cpp:380] penlu_cccp6 -> penlu_cccp6
I0917 12:18:58.648912 10270 net.cpp:122] Setting up penlu_cccp6
I0917 12:18:58.648918 10270 net.cpp:129] Top shape: 50 10 7 7 (24500)
I0917 12:18:58.648921 10270 net.cpp:137] Memory required for data: 205134200
I0917 12:18:58.648926 10270 layer_factory.hpp:77] Creating layer pool3
I0917 12:18:58.648931 10270 net.cpp:84] Creating Layer pool3
I0917 12:18:58.648932 10270 net.cpp:406] pool3 <- penlu_cccp6
I0917 12:18:58.648936 10270 net.cpp:380] pool3 -> pool3
I0917 12:18:58.649401 10270 net.cpp:122] Setting up pool3
I0917 12:18:58.649410 10270 net.cpp:129] Top shape: 50 10 1 1 (500)
I0917 12:18:58.649413 10270 net.cpp:137] Memory required for data: 205136200
I0917 12:18:58.649415 10270 layer_factory.hpp:77] Creating layer pool3_pool3_0_split
I0917 12:18:58.649420 10270 net.cpp:84] Creating Layer pool3_pool3_0_split
I0917 12:18:58.649422 10270 net.cpp:406] pool3_pool3_0_split <- pool3
I0917 12:18:58.649426 10270 net.cpp:380] pool3_pool3_0_split -> pool3_pool3_0_split_0
I0917 12:18:58.649441 10270 net.cpp:380] pool3_pool3_0_split -> pool3_pool3_0_split_1
I0917 12:18:58.649482 10270 net.cpp:122] Setting up pool3_pool3_0_split
I0917 12:18:58.649487 10270 net.cpp:129] Top shape: 50 10 1 1 (500)
I0917 12:18:58.649489 10270 net.cpp:129] Top shape: 50 10 1 1 (500)
I0917 12:18:58.649492 10270 net.cpp:137] Memory required for data: 205140200
I0917 12:18:58.649494 10270 layer_factory.hpp:77] Creating layer accuracy
I0917 12:18:58.649497 10270 net.cpp:84] Creating Layer accuracy
I0917 12:18:58.649500 10270 net.cpp:406] accuracy <- pool3_pool3_0_split_0
I0917 12:18:58.649503 10270 net.cpp:406] accuracy <- label_cifar_1_split_0
I0917 12:18:58.649509 10270 net.cpp:380] accuracy -> accuracy
…
