…
I0918 17:16:04.165868   523 net.cpp:294] The NetState phase (0) differed from the phase (1) specified by a rule in layer cifar
I0918 17:16:04.166085   523 net.cpp:51] Initializing net from parameters: 
name: "nin"
state {
  phase: TRAIN
  level: 0
  stage: ""
}
layer {
  name: "cifar"
  type: "Data"
  top: "data"
  top: "label"
  include {
    phase: TRAIN
  }
  transform_param {
    mirror: true
    crop_size: 28
    mean_file: "/home/x306/caffe/xn/PENLU/data/cifar10/mean.binaryproto"
  }
  data_param {
    source: "/home/x306/caffe/xn/PENLU/data/cifar10/cifar10_train_lmdb"
    batch_size: 64
    backend: LMDB
  }
  image_data_param {
    shuffle: true
  }
}
layer {
  name: "conv1"
  type: "Convolution"
  bottom: "data"
  top: "conv1"
  param {
    lr_mult: 1
    decay_mult: 1
  }
  param {
    lr_mult: 2
    decay_mult: 0
  }
  convolution_param {
    num_output: 192
    pad: 2
    kernel_size: 5
    weight_filler {
      type: "gaussian"
      std: 0.05
    }
    bias_filler {
      type: "constant"
      value: 0
    }
  }
}
layer {
  name: "penlu_conv1"
  type: "PENLU"
  bottom: "conv1"
  top: "penlu_conv1"
  param {
    lr_mult: 1
    decay_mult: 0
  }
  param {
    lr_mult: 1
    decay_mult: 0
  }
  param {
    lr_mult: 1
    decay_mult: 0
  }
  penlu_param {
    alpha_filler {
      type: "constant"
      value: 2
    }
    beta_filler {
      type: "constant"
      value: 1
    }
    eta_filler {
      type: "constant"
      value: 0.95
    }
  }
}
layer {
  name: "cccp1"
  type: "Convolution"
  bottom: "penlu_conv1"
  top: "cccp1"
  param {
    lr_mult: 1
    decay_mult: 1
  }
  param {
    lr_mult: 2
    decay_mult: 0
  }
  convolution_param {
    num_output: 160
    kernel_size: 1
    weight_filler {
      type: "gaussian"
      std: 0.05
    }
    bias_filler {
      type: "constant"
      value: 0
    }
  }
}
layer {
  name: "penlu_cccp1"
  type: "PENLU"
  bottom: "cccp1"
  top: "penlu_cccp1"
  param {
    lr_mult: 1
    decay_mult: 0
  }
  param {
    lr_mult: 1
    decay_mult: 0
  }
  param {
    lr_mult: 1
    decay_mult: 0
  }
  penlu_param {
    alpha_filler {
      type: "constant"
      value: 2
    }
    beta_filler {
      type: "constant"
      value: 1
    }
    eta_filler {
      type: "constant"
      value: 0.95
    }
  }
}
layer {
  name: "cccp2"
  type: "Convolution"
  bottom: "penlu_cccp1"
  top: "cccp2"
  param {
    lr_mult: 1
    decay_mult: 1
  }
  param {
    lr_mult: 2
    decay_mult: 0
  }
  convolution_param {
    num_output: 96
    kernel_size: 1
    weight_filler {
      type: "gaussian"
      std: 0.05
    }
    bias_filler {
      type: "constant"
      value: 0
    }
  }
}
layer {
  name: "penlu_cccp2"
  type: "PENLU"
  bottom: "cccp2"
  top: "penlu_cccp2"
  param {
    lr_mult: 1
    decay_mult: 0
  }
  param {
    lr_mult: 1
    decay_mult: 0
  }
  param {
    lr_mult: 1
    decay_mult: 0
  }
  penlu_param {
    alpha_filler {
      type: "constant"
      value: 2
    }
    beta_filler {
      type: "constant"
      value: 1
    }
    eta_filler {
      type: "constant"
      value: 0.95
    }
  }
}
layer {
  name: "pool1"
  type: "Pooling"
  bottom: "penlu_cccp2"
  top: "pool1"
  pooling_param {
    pool: MAX
    kernel_size: 3
    stride: 2
  }
}
layer {
  name: "dropout1"
  type: "Dropout"
  bottom: "pool1"
  top: "dropout1"
  dropout_param {
    dropout_ratio: 0.5
  }
}
layer {
  name: "conv2"
  type: "Convolution"
  bottom: "dropout1"
  top: "conv2"
  param {
    lr_mult: 1
    decay_mult: 1
  }
  param {
    lr_mult: 2
    decay_mult: 0
  }
  convolution_param {
    num_output: 192
    pad: 2
    kernel_size: 5
    weight_filler {
      type: "gaussian"
      std: 0.05
    }
    bias_filler {
      type: "constant"
      value: 0
    }
  }
}
layer {
  name: "penlu_conv2"
  type: "PENLU"
  bottom: "conv2"
  top: "penlu_conv2"
  param {
    lr_mult: 1
    decay_mult: 0
  }
  param {
    lr_mult: 1
    decay_mult: 0
  }
  param {
    lr_mult: 1
    decay_mult: 0
  }
  penlu_param {
    alpha_filler {
      type: "constant"
      value: 2
    }
    beta_filler {
      type: "constant"
      value: 1
    }
    eta_filler {
      type: "constant"
      value: 0.95
    }
  }
}
layer {
  name: "cccp3"
  type: "Convolution"
  bottom: "penlu_conv2"
  top: "cccp3"
  param {
    lr_mult: 1
    decay_mult: 1
  }
  param {
    lr_mult: 2
    decay_mult: 0
  }
  convolution_param {
    num_output: 192
    kernel_size: 1
    weight_filler {
      type: "gaussian"
      std: 0.05
    }
    bias_filler {
      type: "constant"
      value: 0
    }
  }
}
layer {
  name: "penlu_cccp3"
  type: "PENLU"
  bottom: "cccp3"
  top: "penlu_cccp3"
  param {
    lr_mult: 1
    decay_mult: 0
  }
  param {
    lr_mult: 1
    decay_mult: 0
  }
  param {
    lr_mult: 1
    decay_mult: 0
  }
  penlu_param {
    alpha_filler {
      type: "constant"
      value: 2
    }
    beta_filler {
      type: "constant"
      value: 1
    }
    eta_filler {
      type: "constant"
      value: 0.95
    }
  }
}
layer {
  name: "cccp4"
  type: "Convolution"
  bottom: "penlu_cccp3"
  top: "cccp4"
  param {
    lr_mult: 1
    decay_mult: 1
  }
  param {
    lr_mult: 2
    decay_mult: 0
  }
  convolution_param {
    num_output: 192
    kernel_size: 1
    weight_filler {
      type: "gaussian"
      std: 0.05
    }
    bias_filler {
      type: "constant"
      value: 0
    }
  }
}
layer {
  name: "penlu_cccp4"
  type: "PENLU"
  bottom: "cccp4"
  top: "penlu_cccp4"
  param {
    lr_mult: 1
    decay_mult: 0
  }
  param {
    lr_mult: 1
    decay_mult: 0
  }
  param {
    lr_mult: 1
    decay_mult: 0
  }
  penlu_param {
    alpha_filler {
      type: "constant"
      value: 2
    }
    beta_filler {
      type: "constant"
      value: 1
    }
    eta_filler {
      type: "constant"
      value: 0.95
    }
  }
}
layer {
  name: "pool2"
  type: "Pooling"
  bottom: "penlu_cccp4"
  top: "pool2"
  pooling_param {
    pool: AVE
    kernel_size: 3
    stride: 2
  }
}
layer {
  name: "dropout2"
  type: "Dropout"
  bottom: "pool2"
  top: "dropout2"
  dropout_param {
    dropout_ratio: 0.5
  }
}
layer {
  name: "conv3"
  type: "Convolution"
  bottom: "dropout2"
  top: "conv3"
  param {
    lr_mult: 1
    decay_mult: 1
  }
  param {
    lr_mult: 2
    decay_mult: 0
  }
  convolution_param {
    num_output: 192
    pad: 1
    kernel_size: 3
    weight_filler {
      type: "gaussian"
      std: 0.05
    }
    bias_filler {
      type: "constant"
      value: 0
    }
  }
}
layer {
  name: "penlu_conv3"
  type: "PENLU"
  bottom: "conv3"
  top: "penlu_conv3"
  param {
    lr_mult: 1
    decay_mult: 0
  }
  param {
    lr_mult: 1
    decay_mult: 0
  }
  param {
    lr_mult: 1
    decay_mult: 0
  }
  penlu_param {
    alpha_filler {
      type: "constant"
      value: 2
    }
    beta_filler {
      type: "constant"
      value: 1
    }
    eta_filler {
      type: "constant"
      value: 0.95
    }
  }
}
layer {
  name: "cccp5"
  type: "Convolution"
  bottom: "penlu_conv3"
  top: "cccp5"
  param {
    lr_mult: 1
    decay_mult: 1
  }
  param {
    lr_mult: 2
    decay_mult: 0
  }
  convolution_param {
    num_output: 192
    kernel_size: 1
    weight_filler {
      type: "gaussian"
      std: 0.05
    }
    bias_filler {
      type: "constant"
      value: 0
    }
  }
}
layer {
  name: "penlu_cccp5"
  type: "PENLU"
  bottom: "cccp5"
  top: "penlu_cccp5"
  param {
    lr_mult: 1
    decay_mult: 0
  }
  param {
    lr_mult: 1
    decay_mult: 0
  }
  param {
    lr_mult: 1
    decay_mult: 0
  }
  penlu_param {
    alpha_filler {
      type: "constant"
      value: 2
    }
    beta_filler {
      type: "constant"
      value: 1
    }
    eta_filler {
      type: "constant"
      value: 0.95
    }
  }
}
layer {
  name: "cccp6"
  type: "Convolution"
  bottom: "penlu_cccp5"
  top: "cccp6"
  param {
    lr_mult: 0.1
    decay_mult: 1
  }
  param {
    lr_mult: 0.1
    decay_mult: 0
  }
  convolution_param {
    num_output: 10
    kernel_size: 1
    weight_filler {
      type: "gaussian"
      std: 0.05
    }
    bias_filler {
      type: "constant"
      value: 0
    }
  }
}
layer {
  name: "penlu_cccp6"
  type: "PENLU"
  bottom: "cccp6"
  top: "penlu_cccp6"
  param {
    lr_mult: 1
    decay_mult: 0
  }
  param {
    lr_mult: 1
    decay_mult: 0
  }
  param {
    lr_mult: 1
    decay_mult: 0
  }
  penlu_param {
    alpha_filler {
      type: "constant"
      value: 2
    }
    beta_filler {
      type: "constant"
      value: 1
    }
    eta_filler {
      type: "constant"
      value: 0.95
    }
  }
}
layer {
  name: "pool3"
  type: "Pooling"
  bottom: "penlu_cccp6"
  top: "pool3"
  pooling_param {
    pool: AVE
    kernel_size: 7
    stride: 1
  }
}
layer {
  name: "accuracy"
  type: "Accuracy"
  bottom: "pool3"
  bottom: "label"
  top: "accuracy"
}
layer {
  name: "loss"
  type: "SoftmaxWithLoss"
  bottom: "pool3"
  bottom: "label"
  top: "loss"
}
I0918 17:16:04.166219   523 layer_factory.hpp:77] Creating layer cifar
I0918 17:16:04.166297   523 db_lmdb.cpp:35] Opened lmdb /home/x306/caffe/xn/PENLU/data/cifar10/cifar10_train_lmdb
I0918 17:16:04.166327   523 net.cpp:84] Creating Layer cifar
I0918 17:16:04.166342   523 net.cpp:380] cifar -> data
I0918 17:16:04.166370   523 net.cpp:380] cifar -> label
I0918 17:16:04.166389   523 data_transformer.cpp:25] Loading mean file from: /home/x306/caffe/xn/PENLU/data/cifar10/mean.binaryproto
I0918 17:16:04.167770   523 data_layer.cpp:45] output data size: 64,3,28,28
I0918 17:16:04.169842   523 net.cpp:122] Setting up cifar
I0918 17:16:04.169878   523 net.cpp:129] Top shape: 64 3 28 28 (150528)
I0918 17:16:04.169881   523 net.cpp:129] Top shape: 64 (64)
I0918 17:16:04.169884   523 net.cpp:137] Memory required for data: 602368
I0918 17:16:04.169890   523 layer_factory.hpp:77] Creating layer label_cifar_1_split
I0918 17:16:04.169903   523 net.cpp:84] Creating Layer label_cifar_1_split
I0918 17:16:04.169908   523 net.cpp:406] label_cifar_1_split <- label
I0918 17:16:04.169924   523 net.cpp:380] label_cifar_1_split -> label_cifar_1_split_0
I0918 17:16:04.169931   523 net.cpp:380] label_cifar_1_split -> label_cifar_1_split_1
I0918 17:16:04.169999   523 net.cpp:122] Setting up label_cifar_1_split
I0918 17:16:04.170006   523 net.cpp:129] Top shape: 64 (64)
I0918 17:16:04.170022   523 net.cpp:129] Top shape: 64 (64)
I0918 17:16:04.170023   523 net.cpp:137] Memory required for data: 602880
I0918 17:16:04.170025   523 layer_factory.hpp:77] Creating layer conv1
I0918 17:16:04.170048   523 net.cpp:84] Creating Layer conv1
I0918 17:16:04.170051   523 net.cpp:406] conv1 <- data
I0918 17:16:04.170058   523 net.cpp:380] conv1 -> conv1
I0918 17:16:04.317044   523 net.cpp:122] Setting up conv1
I0918 17:16:04.317067   523 net.cpp:129] Top shape: 64 192 28 28 (9633792)
I0918 17:16:04.317070   523 net.cpp:137] Memory required for data: 39138048
I0918 17:16:04.317085   523 layer_factory.hpp:77] Creating layer penlu_conv1
I0918 17:16:04.317107   523 net.cpp:84] Creating Layer penlu_conv1
I0918 17:16:04.317111   523 net.cpp:406] penlu_conv1 <- conv1
I0918 17:16:04.317129   523 net.cpp:380] penlu_conv1 -> penlu_conv1
I0918 17:16:04.317354   523 net.cpp:122] Setting up penlu_conv1
I0918 17:16:04.317360   523 net.cpp:129] Top shape: 64 192 28 28 (9633792)
I0918 17:16:04.317363   523 net.cpp:137] Memory required for data: 77673216
I0918 17:16:04.317369   523 layer_factory.hpp:77] Creating layer cccp1
I0918 17:16:04.317379   523 net.cpp:84] Creating Layer cccp1
I0918 17:16:04.317392   523 net.cpp:406] cccp1 <- penlu_conv1
I0918 17:16:04.317397   523 net.cpp:380] cccp1 -> cccp1
I0918 17:16:04.319375   523 net.cpp:122] Setting up cccp1
I0918 17:16:04.319386   523 net.cpp:129] Top shape: 64 160 28 28 (8028160)
I0918 17:16:04.319388   523 net.cpp:137] Memory required for data: 109785856
I0918 17:16:04.319393   523 layer_factory.hpp:77] Creating layer penlu_cccp1
I0918 17:16:04.319399   523 net.cpp:84] Creating Layer penlu_cccp1
I0918 17:16:04.319402   523 net.cpp:406] penlu_cccp1 <- cccp1
I0918 17:16:04.319416   523 net.cpp:380] penlu_cccp1 -> penlu_cccp1
I0918 17:16:04.319658   523 net.cpp:122] Setting up penlu_cccp1
I0918 17:16:04.319663   523 net.cpp:129] Top shape: 64 160 28 28 (8028160)
I0918 17:16:04.319665   523 net.cpp:137] Memory required for data: 141898496
I0918 17:16:04.319671   523 layer_factory.hpp:77] Creating layer cccp2
I0918 17:16:04.319689   523 net.cpp:84] Creating Layer cccp2
I0918 17:16:04.319692   523 net.cpp:406] cccp2 <- penlu_cccp1
I0918 17:16:04.319696   523 net.cpp:380] cccp2 -> cccp2
I0918 17:16:04.320865   523 net.cpp:122] Setting up cccp2
I0918 17:16:04.320875   523 net.cpp:129] Top shape: 64 96 28 28 (4816896)
I0918 17:16:04.320878   523 net.cpp:137] Memory required for data: 161166080
I0918 17:16:04.320883   523 layer_factory.hpp:77] Creating layer penlu_cccp2
I0918 17:16:04.320888   523 net.cpp:84] Creating Layer penlu_cccp2
I0918 17:16:04.320891   523 net.cpp:406] penlu_cccp2 <- cccp2
I0918 17:16:04.320906   523 net.cpp:380] penlu_cccp2 -> penlu_cccp2
I0918 17:16:04.321094   523 net.cpp:122] Setting up penlu_cccp2
I0918 17:16:04.321100   523 net.cpp:129] Top shape: 64 96 28 28 (4816896)
I0918 17:16:04.321102   523 net.cpp:137] Memory required for data: 180433664
I0918 17:16:04.321106   523 layer_factory.hpp:77] Creating layer pool1
I0918 17:16:04.321115   523 net.cpp:84] Creating Layer pool1
I0918 17:16:04.321131   523 net.cpp:406] pool1 <- penlu_cccp2
I0918 17:16:04.321135   523 net.cpp:380] pool1 -> pool1
I0918 17:16:04.321208   523 net.cpp:122] Setting up pool1
I0918 17:16:04.321213   523 net.cpp:129] Top shape: 64 96 14 14 (1204224)
I0918 17:16:04.321214   523 net.cpp:137] Memory required for data: 185250560
I0918 17:16:04.321226   523 layer_factory.hpp:77] Creating layer dropout1
I0918 17:16:04.321230   523 net.cpp:84] Creating Layer dropout1
I0918 17:16:04.321233   523 net.cpp:406] dropout1 <- pool1
I0918 17:16:04.321246   523 net.cpp:380] dropout1 -> dropout1
I0918 17:16:04.321300   523 net.cpp:122] Setting up dropout1
I0918 17:16:04.321305   523 net.cpp:129] Top shape: 64 96 14 14 (1204224)
I0918 17:16:04.321306   523 net.cpp:137] Memory required for data: 190067456
I0918 17:16:04.321319   523 layer_factory.hpp:77] Creating layer conv2
I0918 17:16:04.321326   523 net.cpp:84] Creating Layer conv2
I0918 17:16:04.321338   523 net.cpp:406] conv2 <- dropout1
I0918 17:16:04.321342   523 net.cpp:380] conv2 -> conv2
I0918 17:16:04.333369   523 net.cpp:122] Setting up conv2
I0918 17:16:04.333386   523 net.cpp:129] Top shape: 64 192 14 14 (2408448)
I0918 17:16:04.333389   523 net.cpp:137] Memory required for data: 199701248
I0918 17:16:04.333410   523 layer_factory.hpp:77] Creating layer penlu_conv2
I0918 17:16:04.333420   523 net.cpp:84] Creating Layer penlu_conv2
I0918 17:16:04.333423   523 net.cpp:406] penlu_conv2 <- conv2
I0918 17:16:04.333429   523 net.cpp:380] penlu_conv2 -> penlu_conv2
I0918 17:16:04.333572   523 net.cpp:122] Setting up penlu_conv2
I0918 17:16:04.333578   523 net.cpp:129] Top shape: 64 192 14 14 (2408448)
I0918 17:16:04.333580   523 net.cpp:137] Memory required for data: 209335040
I0918 17:16:04.333596   523 layer_factory.hpp:77] Creating layer cccp3
I0918 17:16:04.333606   523 net.cpp:84] Creating Layer cccp3
I0918 17:16:04.333608   523 net.cpp:406] cccp3 <- penlu_conv2
I0918 17:16:04.333613   523 net.cpp:380] cccp3 -> cccp3
I0918 17:16:04.335247   523 net.cpp:122] Setting up cccp3
I0918 17:16:04.335258   523 net.cpp:129] Top shape: 64 192 14 14 (2408448)
I0918 17:16:04.335273   523 net.cpp:137] Memory required for data: 218968832
I0918 17:16:04.335278   523 layer_factory.hpp:77] Creating layer penlu_cccp3
I0918 17:16:04.335299   523 net.cpp:84] Creating Layer penlu_cccp3
I0918 17:16:04.335333   523 net.cpp:406] penlu_cccp3 <- cccp3
I0918 17:16:04.335340   523 net.cpp:380] penlu_cccp3 -> penlu_cccp3
I0918 17:16:04.335480   523 net.cpp:122] Setting up penlu_cccp3
I0918 17:16:04.335486   523 net.cpp:129] Top shape: 64 192 14 14 (2408448)
I0918 17:16:04.335489   523 net.cpp:137] Memory required for data: 228602624
I0918 17:16:04.335505   523 layer_factory.hpp:77] Creating layer cccp4
I0918 17:16:04.335513   523 net.cpp:84] Creating Layer cccp4
I0918 17:16:04.335516   523 net.cpp:406] cccp4 <- penlu_cccp3
I0918 17:16:04.335521   523 net.cpp:380] cccp4 -> cccp4
I0918 17:16:04.337199   523 net.cpp:122] Setting up cccp4
I0918 17:16:04.337210   523 net.cpp:129] Top shape: 64 192 14 14 (2408448)
I0918 17:16:04.337213   523 net.cpp:137] Memory required for data: 238236416
I0918 17:16:04.337218   523 layer_factory.hpp:77] Creating layer penlu_cccp4
I0918 17:16:04.337225   523 net.cpp:84] Creating Layer penlu_cccp4
I0918 17:16:04.337229   523 net.cpp:406] penlu_cccp4 <- cccp4
I0918 17:16:04.337234   523 net.cpp:380] penlu_cccp4 -> penlu_cccp4
I0918 17:16:04.337363   523 net.cpp:122] Setting up penlu_cccp4
I0918 17:16:04.337369   523 net.cpp:129] Top shape: 64 192 14 14 (2408448)
I0918 17:16:04.337373   523 net.cpp:137] Memory required for data: 247870208
I0918 17:16:04.337378   523 layer_factory.hpp:77] Creating layer pool2
I0918 17:16:04.337385   523 net.cpp:84] Creating Layer pool2
I0918 17:16:04.337388   523 net.cpp:406] pool2 <- penlu_cccp4
I0918 17:16:04.337393   523 net.cpp:380] pool2 -> pool2
I0918 17:16:04.337524   523 net.cpp:122] Setting up pool2
I0918 17:16:04.337532   523 net.cpp:129] Top shape: 64 192 7 7 (602112)
I0918 17:16:04.337535   523 net.cpp:137] Memory required for data: 250278656
I0918 17:16:04.337538   523 layer_factory.hpp:77] Creating layer dropout2
I0918 17:16:04.337543   523 net.cpp:84] Creating Layer dropout2
I0918 17:16:04.337546   523 net.cpp:406] dropout2 <- pool2
I0918 17:16:04.337550   523 net.cpp:380] dropout2 -> dropout2
I0918 17:16:04.337575   523 net.cpp:122] Setting up dropout2
I0918 17:16:04.337580   523 net.cpp:129] Top shape: 64 192 7 7 (602112)
I0918 17:16:04.337584   523 net.cpp:137] Memory required for data: 252687104
I0918 17:16:04.337585   523 layer_factory.hpp:77] Creating layer conv3
I0918 17:16:04.337594   523 net.cpp:84] Creating Layer conv3
I0918 17:16:04.337596   523 net.cpp:406] conv3 <- dropout2
I0918 17:16:04.337600   523 net.cpp:380] conv3 -> conv3
I0918 17:16:04.346570   523 net.cpp:122] Setting up conv3
I0918 17:16:04.346591   523 net.cpp:129] Top shape: 64 192 7 7 (602112)
I0918 17:16:04.346595   523 net.cpp:137] Memory required for data: 255095552
I0918 17:16:04.346601   523 layer_factory.hpp:77] Creating layer penlu_conv3
I0918 17:16:04.346607   523 net.cpp:84] Creating Layer penlu_conv3
I0918 17:16:04.346611   523 net.cpp:406] penlu_conv3 <- conv3
I0918 17:16:04.346616   523 net.cpp:380] penlu_conv3 -> penlu_conv3
I0918 17:16:04.346761   523 net.cpp:122] Setting up penlu_conv3
I0918 17:16:04.346777   523 net.cpp:129] Top shape: 64 192 7 7 (602112)
I0918 17:16:04.346779   523 net.cpp:137] Memory required for data: 257504000
I0918 17:16:04.346798   523 layer_factory.hpp:77] Creating layer cccp5
I0918 17:16:04.346807   523 net.cpp:84] Creating Layer cccp5
I0918 17:16:04.346812   523 net.cpp:406] cccp5 <- penlu_conv3
I0918 17:16:04.346817   523 net.cpp:380] cccp5 -> cccp5
I0918 17:16:04.348597   523 net.cpp:122] Setting up cccp5
I0918 17:16:04.348608   523 net.cpp:129] Top shape: 64 192 7 7 (602112)
I0918 17:16:04.348611   523 net.cpp:137] Memory required for data: 259912448
I0918 17:16:04.348629   523 layer_factory.hpp:77] Creating layer penlu_cccp5
I0918 17:16:04.348640   523 net.cpp:84] Creating Layer penlu_cccp5
I0918 17:16:04.348645   523 net.cpp:406] penlu_cccp5 <- cccp5
I0918 17:16:04.348655   523 net.cpp:380] penlu_cccp5 -> penlu_cccp5
I0918 17:16:04.348803   523 net.cpp:122] Setting up penlu_cccp5
I0918 17:16:04.348810   523 net.cpp:129] Top shape: 64 192 7 7 (602112)
I0918 17:16:04.348814   523 net.cpp:137] Memory required for data: 262320896
I0918 17:16:04.348856   523 layer_factory.hpp:77] Creating layer cccp6
I0918 17:16:04.348892   523 net.cpp:84] Creating Layer cccp6
I0918 17:16:04.348897   523 net.cpp:406] cccp6 <- penlu_cccp5
I0918 17:16:04.348913   523 net.cpp:380] cccp6 -> cccp6
I0918 17:16:04.349810   523 net.cpp:122] Setting up cccp6
I0918 17:16:04.349822   523 net.cpp:129] Top shape: 64 10 7 7 (31360)
I0918 17:16:04.349825   523 net.cpp:137] Memory required for data: 262446336
I0918 17:16:04.349843   523 layer_factory.hpp:77] Creating layer penlu_cccp6
I0918 17:16:04.349864   523 net.cpp:84] Creating Layer penlu_cccp6
I0918 17:16:04.349869   523 net.cpp:406] penlu_cccp6 <- cccp6
I0918 17:16:04.349880   523 net.cpp:380] penlu_cccp6 -> penlu_cccp6
I0918 17:16:04.350003   523 net.cpp:122] Setting up penlu_cccp6
I0918 17:16:04.350010   523 net.cpp:129] Top shape: 64 10 7 7 (31360)
I0918 17:16:04.350014   523 net.cpp:137] Memory required for data: 262571776
I0918 17:16:04.350033   523 layer_factory.hpp:77] Creating layer pool3
I0918 17:16:04.350041   523 net.cpp:84] Creating Layer pool3
I0918 17:16:04.350046   523 net.cpp:406] pool3 <- penlu_cccp6
I0918 17:16:04.350055   523 net.cpp:380] pool3 -> pool3
I0918 17:16:04.350193   523 net.cpp:122] Setting up pool3
I0918 17:16:04.350203   523 net.cpp:129] Top shape: 64 10 1 1 (640)
I0918 17:16:04.350206   523 net.cpp:137] Memory required for data: 262574336
I0918 17:16:04.350220   523 layer_factory.hpp:77] Creating layer pool3_pool3_0_split
I0918 17:16:04.350229   523 net.cpp:84] Creating Layer pool3_pool3_0_split
I0918 17:16:04.350234   523 net.cpp:406] pool3_pool3_0_split <- pool3
I0918 17:16:04.350242   523 net.cpp:380] pool3_pool3_0_split -> pool3_pool3_0_split_0
I0918 17:16:04.350250   523 net.cpp:380] pool3_pool3_0_split -> pool3_pool3_0_split_1
I0918 17:16:04.350291   523 net.cpp:122] Setting up pool3_pool3_0_split
I0918 17:16:04.350299   523 net.cpp:129] Top shape: 64 10 1 1 (640)
I0918 17:16:04.350316   523 net.cpp:129] Top shape: 64 10 1 1 (640)
I0918 17:16:04.350320   523 net.cpp:137] Memory required for data: 262579456
I0918 17:16:04.350324   523 layer_factory.hpp:77] Creating layer accuracy
I0918 17:16:04.350332   523 net.cpp:84] Creating Layer accuracy
I0918 17:16:04.350337   523 net.cpp:406] accuracy <- pool3_pool3_0_split_0
I0918 17:16:04.350343   523 net.cpp:406] accuracy <- label_cifar_1_split_0
I0918 17:16:04.350350   523 net.cpp:380] accuracy -> accuracy
…
I0918 17:16:04.351476   523 net.cpp:294] The NetState phase (1) differed from the phase (0) specified by a rule in layer cifar
I0918 17:16:04.351665   523 net.cpp:51] Initializing net from parameters: 
name: "nin"
state {
  phase: TEST
}
layer {
  name: "cifar"
  type: "Data"
  top: "data"
  top: "label"
  include {
    phase: TEST
  }
  transform_param {
    mirror: false
    crop_size: 28
    mean_file: "/home/x306/caffe/xn/PENLU/data/cifar10/mean.binaryproto"
  }
  data_param {
    source: "/home/x306/caffe/xn/PENLU/data/cifar10/cifar10_test_lmdb"
    batch_size: 50
    backend: LMDB
  }
}
layer {
  name: "conv1"
  type: "Convolution"
  bottom: "data"
  top: "conv1"
  param {
    lr_mult: 1
    decay_mult: 1
  }
  param {
    lr_mult: 2
    decay_mult: 0
  }
  convolution_param {
    num_output: 192
    pad: 2
    kernel_size: 5
    weight_filler {
      type: "gaussian"
      std: 0.05
    }
    bias_filler {
      type: "constant"
      value: 0
    }
  }
}
layer {
  name: "penlu_conv1"
  type: "PENLU"
  bottom: "conv1"
  top: "penlu_conv1"
  param {
    lr_mult: 1
    decay_mult: 0
  }
  param {
    lr_mult: 1
    decay_mult: 0
  }
  param {
    lr_mult: 1
    decay_mult: 0
  }
  penlu_param {
    alpha_filler {
      type: "constant"
      value: 2
    }
    beta_filler {
      type: "constant"
      value: 1
    }
    eta_filler {
      type: "constant"
      value: 0.95
    }
  }
}
layer {
  name: "cccp1"
  type: "Convolution"
  bottom: "penlu_conv1"
  top: "cccp1"
  param {
    lr_mult: 1
    decay_mult: 1
  }
  param {
    lr_mult: 2
    decay_mult: 0
  }
  convolution_param {
    num_output: 160
    kernel_size: 1
    weight_filler {
      type: "gaussian"
      std: 0.05
    }
    bias_filler {
      type: "constant"
      value: 0
    }
  }
}
layer {
  name: "penlu_cccp1"
  type: "PENLU"
  bottom: "cccp1"
  top: "penlu_cccp1"
  param {
    lr_mult: 1
    decay_mult: 0
  }
  param {
    lr_mult: 1
    decay_mult: 0
  }
  param {
    lr_mult: 1
    decay_mult: 0
  }
  penlu_param {
    alpha_filler {
      type: "constant"
      value: 2
    }
    beta_filler {
      type: "constant"
      value: 1
    }
    eta_filler {
      type: "constant"
      value: 0.95
    }
  }
}
layer {
  name: "cccp2"
  type: "Convolution"
  bottom: "penlu_cccp1"
  top: "cccp2"
  param {
    lr_mult: 1
    decay_mult: 1
  }
  param {
    lr_mult: 2
    decay_mult: 0
  }
  convolution_param {
    num_output: 96
    kernel_size: 1
    weight_filler {
      type: "gaussian"
      std: 0.05
    }
    bias_filler {
      type: "constant"
      value: 0
    }
  }
}
layer {
  name: "penlu_cccp2"
  type: "PENLU"
  bottom: "cccp2"
  top: "penlu_cccp2"
  param {
    lr_mult: 1
    decay_mult: 0
  }
  param {
    lr_mult: 1
    decay_mult: 0
  }
  param {
    lr_mult: 1
    decay_mult: 0
  }
  penlu_param {
    alpha_filler {
      type: "constant"
      value: 2
    }
    beta_filler {
      type: "constant"
      value: 1
    }
    eta_filler {
      type: "constant"
      value: 0.95
    }
  }
}
layer {
  name: "pool1"
  type: "Pooling"
  bottom: "penlu_cccp2"
  top: "pool1"
  pooling_param {
    pool: MAX
    kernel_size: 3
    stride: 2
  }
}
layer {
  name: "dropout1"
  type: "Dropout"
  bottom: "pool1"
  top: "dropout1"
  dropout_param {
    dropout_ratio: 0.5
  }
}
layer {
  name: "conv2"
  type: "Convolution"
  bottom: "dropout1"
  top: "conv2"
  param {
    lr_mult: 1
    decay_mult: 1
  }
  param {
    lr_mult: 2
    decay_mult: 0
  }
  convolution_param {
    num_output: 192
    pad: 2
    kernel_size: 5
    weight_filler {
      type: "gaussian"
      std: 0.05
    }
    bias_filler {
      type: "constant"
      value: 0
    }
  }
}
layer {
  name: "penlu_conv2"
  type: "PENLU"
  bottom: "conv2"
  top: "penlu_conv2"
  param {
    lr_mult: 1
    decay_mult: 0
  }
  param {
    lr_mult: 1
    decay_mult: 0
  }
  param {
    lr_mult: 1
    decay_mult: 0
  }
  penlu_param {
    alpha_filler {
      type: "constant"
      value: 2
    }
    beta_filler {
      type: "constant"
      value: 1
    }
    eta_filler {
      type: "constant"
      value: 0.95
    }
  }
}
layer {
  name: "cccp3"
  type: "Convolution"
  bottom: "penlu_conv2"
  top: "cccp3"
  param {
    lr_mult: 1
    decay_mult: 1
  }
  param {
    lr_mult: 2
    decay_mult: 0
  }
  convolution_param {
    num_output: 192
    kernel_size: 1
    weight_filler {
      type: "gaussian"
      std: 0.05
    }
    bias_filler {
      type: "constant"
      value: 0
    }
  }
}
layer {
  name: "penlu_cccp3"
  type: "PENLU"
  bottom: "cccp3"
  top: "penlu_cccp3"
  param {
    lr_mult: 1
    decay_mult: 0
  }
  param {
    lr_mult: 1
    decay_mult: 0
  }
  param {
    lr_mult: 1
    decay_mult: 0
  }
  penlu_param {
    alpha_filler {
      type: "constant"
      value: 2
    }
    beta_filler {
      type: "constant"
      value: 1
    }
    eta_filler {
      type: "constant"
      value: 0.95
    }
  }
}
layer {
  name: "cccp4"
  type: "Convolution"
  bottom: "penlu_cccp3"
  top: "cccp4"
  param {
    lr_mult: 1
    decay_mult: 1
  }
  param {
    lr_mult: 2
    decay_mult: 0
  }
  convolution_param {
    num_output: 192
    kernel_size: 1
    weight_filler {
      type: "gaussian"
      std: 0.05
    }
    bias_filler {
      type: "constant"
      value: 0
    }
  }
}
layer {
  name: "penlu_cccp4"
  type: "PENLU"
  bottom: "cccp4"
  top: "penlu_cccp4"
  param {
    lr_mult: 1
    decay_mult: 0
  }
  param {
    lr_mult: 1
    decay_mult: 0
  }
  param {
    lr_mult: 1
    decay_mult: 0
  }
  penlu_param {
    alpha_filler {
      type: "constant"
      value: 2
    }
    beta_filler {
      type: "constant"
      value: 1
    }
    eta_filler {
      type: "constant"
      value: 0.95
    }
  }
}
layer {
  name: "pool2"
  type: "Pooling"
  bottom: "penlu_cccp4"
  top: "pool2"
  pooling_param {
    pool: AVE
    kernel_size: 3
    stride: 2
  }
}
layer {
  name: "dropout2"
  type: "Dropout"
  bottom: "pool2"
  top: "dropout2"
  dropout_param {
    dropout_ratio: 0.5
  }
}
layer {
  name: "conv3"
  type: "Convolution"
  bottom: "dropout2"
  top: "conv3"
  param {
    lr_mult: 1
    decay_mult: 1
  }
  param {
    lr_mult: 2
    decay_mult: 0
  }
  convolution_param {
    num_output: 192
    pad: 1
    kernel_size: 3
    weight_filler {
      type: "gaussian"
      std: 0.05
    }
    bias_filler {
      type: "constant"
      value: 0
    }
  }
}
layer {
  name: "penlu_conv3"
  type: "PENLU"
  bottom: "conv3"
  top: "penlu_conv3"
  param {
    lr_mult: 1
    decay_mult: 0
  }
  param {
    lr_mult: 1
    decay_mult: 0
  }
  param {
    lr_mult: 1
    decay_mult: 0
  }
  penlu_param {
    alpha_filler {
      type: "constant"
      value: 2
    }
    beta_filler {
      type: "constant"
      value: 1
    }
    eta_filler {
      type: "constant"
      value: 0.95
    }
  }
}
layer {
  name: "cccp5"
  type: "Convolution"
  bottom: "penlu_conv3"
  top: "cccp5"
  param {
    lr_mult: 1
    decay_mult: 1
  }
  param {
    lr_mult: 2
    decay_mult: 0
  }
  convolution_param {
    num_output: 192
    kernel_size: 1
    weight_filler {
      type: "gaussian"
      std: 0.05
    }
    bias_filler {
      type: "constant"
      value: 0
    }
  }
}
layer {
  name: "penlu_cccp5"
  type: "PENLU"
  bottom: "cccp5"
  top: "penlu_cccp5"
  param {
    lr_mult: 1
    decay_mult: 0
  }
  param {
    lr_mult: 1
    decay_mult: 0
  }
  param {
    lr_mult: 1
    decay_mult: 0
  }
  penlu_param {
    alpha_filler {
      type: "constant"
      value: 2
    }
    beta_filler {
      type: "constant"
      value: 1
    }
    eta_filler {
      type: "constant"
      value: 0.95
    }
  }
}
layer {
  name: "cccp6"
  type: "Convolution"
  bottom: "penlu_cccp5"
  top: "cccp6"
  param {
    lr_mult: 0.1
    decay_mult: 1
  }
  param {
    lr_mult: 0.1
    decay_mult: 0
  }
  convolution_param {
    num_output: 10
    kernel_size: 1
    weight_filler {
      type: "gaussian"
      std: 0.05
    }
    bias_filler {
      type: "constant"
      value: 0
    }
  }
}
layer {
  name: "penlu_cccp6"
  type: "PENLU"
  bottom: "cccp6"
  top: "penlu_cccp6"
  param {
    lr_mult: 1
    decay_mult: 0
  }
  param {
    lr_mult: 1
    decay_mult: 0
  }
  param {
    lr_mult: 1
    decay_mult: 0
  }
  penlu_param {
    alpha_filler {
      type: "constant"
      value: 2
    }
    beta_filler {
      type: "constant"
      value: 1
    }
    eta_filler {
      type: "constant"
      value: 0.95
    }
  }
}
layer {
  name: "pool3"
  type: "Pooling"
  bottom: "penlu_cccp6"
  top: "pool3"
  pooling_param {
    pool: AVE
    kernel_size: 7
    stride: 1
  }
}
layer {
  name: "accuracy"
  type: "Accuracy"
  bottom: "pool3"
  bottom: "label"
  top: "accuracy"
}
layer {
  name: "loss"
  type: "SoftmaxWithLoss"
  bottom: "pool3"
  bottom: "label"
  top: "loss"
}
I0918 17:16:04.351799   523 layer_factory.hpp:77] Creating layer cifar
I0918 17:16:04.351845   523 db_lmdb.cpp:35] Opened lmdb /home/x306/caffe/xn/PENLU/data/cifar10/cifar10_test_lmdb
I0918 17:16:04.351858   523 net.cpp:84] Creating Layer cifar
I0918 17:16:04.351864   523 net.cpp:380] cifar -> data
I0918 17:16:04.351873   523 net.cpp:380] cifar -> label
I0918 17:16:04.351881   523 data_transformer.cpp:25] Loading mean file from: /home/x306/caffe/xn/PENLU/data/cifar10/mean.binaryproto
I0918 17:16:04.352030   523 data_layer.cpp:45] output data size: 50,3,28,28
I0918 17:16:04.353157   523 net.cpp:122] Setting up cifar
I0918 17:16:04.353170   523 net.cpp:129] Top shape: 50 3 28 28 (117600)
I0918 17:16:04.353176   523 net.cpp:129] Top shape: 50 (50)
I0918 17:16:04.353181   523 net.cpp:137] Memory required for data: 470600
I0918 17:16:04.353186   523 layer_factory.hpp:77] Creating layer label_cifar_1_split
I0918 17:16:04.353196   523 net.cpp:84] Creating Layer label_cifar_1_split
I0918 17:16:04.353202   523 net.cpp:406] label_cifar_1_split <- label
I0918 17:16:04.353209   523 net.cpp:380] label_cifar_1_split -> label_cifar_1_split_0
I0918 17:16:04.353220   523 net.cpp:380] label_cifar_1_split -> label_cifar_1_split_1
I0918 17:16:04.353266   523 net.cpp:122] Setting up label_cifar_1_split
I0918 17:16:04.353273   523 net.cpp:129] Top shape: 50 (50)
I0918 17:16:04.353279   523 net.cpp:129] Top shape: 50 (50)
I0918 17:16:04.353284   523 net.cpp:137] Memory required for data: 471000
I0918 17:16:04.353291   523 layer_factory.hpp:77] Creating layer conv1
I0918 17:16:04.353302   523 net.cpp:84] Creating Layer conv1
I0918 17:16:04.353307   523 net.cpp:406] conv1 <- data
I0918 17:16:04.353324   523 net.cpp:380] conv1 -> conv1
I0918 17:16:04.354691   523 net.cpp:122] Setting up conv1
I0918 17:16:04.354704   523 net.cpp:129] Top shape: 50 192 28 28 (7526400)
I0918 17:16:04.354709   523 net.cpp:137] Memory required for data: 30576600
I0918 17:16:04.354723   523 layer_factory.hpp:77] Creating layer penlu_conv1
I0918 17:16:04.354733   523 net.cpp:84] Creating Layer penlu_conv1
I0918 17:16:04.354739   523 net.cpp:406] penlu_conv1 <- conv1
I0918 17:16:04.354748   523 net.cpp:380] penlu_conv1 -> penlu_conv1
I0918 17:16:04.354948   523 net.cpp:122] Setting up penlu_conv1
I0918 17:16:04.354956   523 net.cpp:129] Top shape: 50 192 28 28 (7526400)
I0918 17:16:04.354962   523 net.cpp:137] Memory required for data: 60682200
I0918 17:16:04.354976   523 layer_factory.hpp:77] Creating layer cccp1
I0918 17:16:04.354991   523 net.cpp:84] Creating Layer cccp1
I0918 17:16:04.354996   523 net.cpp:406] cccp1 <- penlu_conv1
I0918 17:16:04.355007   523 net.cpp:380] cccp1 -> cccp1
I0918 17:16:04.356634   523 net.cpp:122] Setting up cccp1
I0918 17:16:04.356645   523 net.cpp:129] Top shape: 50 160 28 28 (6272000)
I0918 17:16:04.356650   523 net.cpp:137] Memory required for data: 85770200
I0918 17:16:04.356658   523 layer_factory.hpp:77] Creating layer penlu_cccp1
I0918 17:16:04.356667   523 net.cpp:84] Creating Layer penlu_cccp1
I0918 17:16:04.356673   523 net.cpp:406] penlu_cccp1 <- cccp1
I0918 17:16:04.356681   523 net.cpp:380] penlu_cccp1 -> penlu_cccp1
I0918 17:16:04.357354   523 net.cpp:122] Setting up penlu_cccp1
I0918 17:16:04.357365   523 net.cpp:129] Top shape: 50 160 28 28 (6272000)
I0918 17:16:04.357370   523 net.cpp:137] Memory required for data: 110858200
I0918 17:16:04.357381   523 layer_factory.hpp:77] Creating layer cccp2
I0918 17:16:04.357393   523 net.cpp:84] Creating Layer cccp2
I0918 17:16:04.357398   523 net.cpp:406] cccp2 <- penlu_cccp1
I0918 17:16:04.357405   523 net.cpp:380] cccp2 -> cccp2
I0918 17:16:04.358611   523 net.cpp:122] Setting up cccp2
I0918 17:16:04.358623   523 net.cpp:129] Top shape: 50 96 28 28 (3763200)
I0918 17:16:04.358629   523 net.cpp:137] Memory required for data: 125911000
I0918 17:16:04.358639   523 layer_factory.hpp:77] Creating layer penlu_cccp2
I0918 17:16:04.358649   523 net.cpp:84] Creating Layer penlu_cccp2
I0918 17:16:04.358654   523 net.cpp:406] penlu_cccp2 <- cccp2
I0918 17:16:04.358664   523 net.cpp:380] penlu_cccp2 -> penlu_cccp2
I0918 17:16:04.358809   523 net.cpp:122] Setting up penlu_cccp2
I0918 17:16:04.358817   523 net.cpp:129] Top shape: 50 96 28 28 (3763200)
I0918 17:16:04.358821   523 net.cpp:137] Memory required for data: 140963800
I0918 17:16:04.358831   523 layer_factory.hpp:77] Creating layer pool1
I0918 17:16:04.358841   523 net.cpp:84] Creating Layer pool1
I0918 17:16:04.358845   523 net.cpp:406] pool1 <- penlu_cccp2
I0918 17:16:04.358852   523 net.cpp:380] pool1 -> pool1
I0918 17:16:04.358882   523 net.cpp:122] Setting up pool1
I0918 17:16:04.358889   523 net.cpp:129] Top shape: 50 96 14 14 (940800)
I0918 17:16:04.358894   523 net.cpp:137] Memory required for data: 144727000
I0918 17:16:04.358899   523 layer_factory.hpp:77] Creating layer dropout1
I0918 17:16:04.358907   523 net.cpp:84] Creating Layer dropout1
I0918 17:16:04.358912   523 net.cpp:406] dropout1 <- pool1
I0918 17:16:04.358918   523 net.cpp:380] dropout1 -> dropout1
I0918 17:16:04.358947   523 net.cpp:122] Setting up dropout1
I0918 17:16:04.358953   523 net.cpp:129] Top shape: 50 96 14 14 (940800)
I0918 17:16:04.358958   523 net.cpp:137] Memory required for data: 148490200
I0918 17:16:04.358963   523 layer_factory.hpp:77] Creating layer conv2
I0918 17:16:04.358975   523 net.cpp:84] Creating Layer conv2
I0918 17:16:04.358980   523 net.cpp:406] conv2 <- dropout1
I0918 17:16:04.358989   523 net.cpp:380] conv2 -> conv2
I0918 17:16:04.370429   523 net.cpp:122] Setting up conv2
I0918 17:16:04.370441   523 net.cpp:129] Top shape: 50 192 14 14 (1881600)
I0918 17:16:04.370445   523 net.cpp:137] Memory required for data: 156016600
I0918 17:16:04.370456   523 layer_factory.hpp:77] Creating layer penlu_conv2
I0918 17:16:04.370476   523 net.cpp:84] Creating Layer penlu_conv2
I0918 17:16:04.370482   523 net.cpp:406] penlu_conv2 <- conv2
I0918 17:16:04.370491   523 net.cpp:380] penlu_conv2 -> penlu_conv2
I0918 17:16:04.370633   523 net.cpp:122] Setting up penlu_conv2
I0918 17:16:04.370641   523 net.cpp:129] Top shape: 50 192 14 14 (1881600)
I0918 17:16:04.370645   523 net.cpp:137] Memory required for data: 163543000
I0918 17:16:04.370652   523 layer_factory.hpp:77] Creating layer cccp3
I0918 17:16:04.370659   523 net.cpp:84] Creating Layer cccp3
I0918 17:16:04.370662   523 net.cpp:406] cccp3 <- penlu_conv2
I0918 17:16:04.370666   523 net.cpp:380] cccp3 -> cccp3
I0918 17:16:04.372347   523 net.cpp:122] Setting up cccp3
I0918 17:16:04.372356   523 net.cpp:129] Top shape: 50 192 14 14 (1881600)
I0918 17:16:04.372359   523 net.cpp:137] Memory required for data: 171069400
I0918 17:16:04.372364   523 layer_factory.hpp:77] Creating layer penlu_cccp3
I0918 17:16:04.372370   523 net.cpp:84] Creating Layer penlu_cccp3
I0918 17:16:04.372372   523 net.cpp:406] penlu_cccp3 <- cccp3
I0918 17:16:04.372376   523 net.cpp:380] penlu_cccp3 -> penlu_cccp3
I0918 17:16:04.372508   523 net.cpp:122] Setting up penlu_cccp3
I0918 17:16:04.372524   523 net.cpp:129] Top shape: 50 192 14 14 (1881600)
I0918 17:16:04.372525   523 net.cpp:137] Memory required for data: 178595800
I0918 17:16:04.372530   523 layer_factory.hpp:77] Creating layer cccp4
I0918 17:16:04.372536   523 net.cpp:84] Creating Layer cccp4
I0918 17:16:04.372539   523 net.cpp:406] cccp4 <- penlu_cccp3
I0918 17:16:04.372544   523 net.cpp:380] cccp4 -> cccp4
I0918 17:16:04.374358   523 net.cpp:122] Setting up cccp4
I0918 17:16:04.374367   523 net.cpp:129] Top shape: 50 192 14 14 (1881600)
I0918 17:16:04.374370   523 net.cpp:137] Memory required for data: 186122200
I0918 17:16:04.374374   523 layer_factory.hpp:77] Creating layer penlu_cccp4
I0918 17:16:04.374382   523 net.cpp:84] Creating Layer penlu_cccp4
I0918 17:16:04.374383   523 net.cpp:406] penlu_cccp4 <- cccp4
I0918 17:16:04.374388   523 net.cpp:380] penlu_cccp4 -> penlu_cccp4
I0918 17:16:04.374529   523 net.cpp:122] Setting up penlu_cccp4
I0918 17:16:04.374534   523 net.cpp:129] Top shape: 50 192 14 14 (1881600)
I0918 17:16:04.374546   523 net.cpp:137] Memory required for data: 193648600
I0918 17:16:04.374550   523 layer_factory.hpp:77] Creating layer pool2
I0918 17:16:04.374567   523 net.cpp:84] Creating Layer pool2
I0918 17:16:04.374569   523 net.cpp:406] pool2 <- penlu_cccp4
I0918 17:16:04.374572   523 net.cpp:380] pool2 -> pool2
I0918 17:16:04.374727   523 net.cpp:122] Setting up pool2
I0918 17:16:04.374732   523 net.cpp:129] Top shape: 50 192 7 7 (470400)
I0918 17:16:04.374734   523 net.cpp:137] Memory required for data: 195530200
I0918 17:16:04.374737   523 layer_factory.hpp:77] Creating layer dropout2
I0918 17:16:04.374742   523 net.cpp:84] Creating Layer dropout2
I0918 17:16:04.374744   523 net.cpp:406] dropout2 <- pool2
I0918 17:16:04.374749   523 net.cpp:380] dropout2 -> dropout2
I0918 17:16:04.374773   523 net.cpp:122] Setting up dropout2
I0918 17:16:04.374776   523 net.cpp:129] Top shape: 50 192 7 7 (470400)
I0918 17:16:04.374778   523 net.cpp:137] Memory required for data: 197411800
I0918 17:16:04.374780   523 layer_factory.hpp:77] Creating layer conv3
I0918 17:16:04.374786   523 net.cpp:84] Creating Layer conv3
I0918 17:16:04.374789   523 net.cpp:406] conv3 <- dropout2
I0918 17:16:04.374792   523 net.cpp:380] conv3 -> conv3
I0918 17:16:04.383837   523 net.cpp:122] Setting up conv3
I0918 17:16:04.383852   523 net.cpp:129] Top shape: 50 192 7 7 (470400)
I0918 17:16:04.383857   523 net.cpp:137] Memory required for data: 199293400
I0918 17:16:04.383864   523 layer_factory.hpp:77] Creating layer penlu_conv3
I0918 17:16:04.383877   523 net.cpp:84] Creating Layer penlu_conv3
I0918 17:16:04.383882   523 net.cpp:406] penlu_conv3 <- conv3
I0918 17:16:04.383891   523 net.cpp:380] penlu_conv3 -> penlu_conv3
I0918 17:16:04.384022   523 net.cpp:122] Setting up penlu_conv3
I0918 17:16:04.384030   523 net.cpp:129] Top shape: 50 192 7 7 (470400)
I0918 17:16:04.384045   523 net.cpp:137] Memory required for data: 201175000
I0918 17:16:04.384059   523 layer_factory.hpp:77] Creating layer cccp5
I0918 17:16:04.384069   523 net.cpp:84] Creating Layer cccp5
I0918 17:16:04.384075   523 net.cpp:406] cccp5 <- penlu_conv3
I0918 17:16:04.384081   523 net.cpp:380] cccp5 -> cccp5
I0918 17:16:04.385725   523 net.cpp:122] Setting up cccp5
I0918 17:16:04.385736   523 net.cpp:129] Top shape: 50 192 7 7 (470400)
I0918 17:16:04.385740   523 net.cpp:137] Memory required for data: 203056600
I0918 17:16:04.385748   523 layer_factory.hpp:77] Creating layer penlu_cccp5
I0918 17:16:04.385758   523 net.cpp:84] Creating Layer penlu_cccp5
I0918 17:16:04.385763   523 net.cpp:406] penlu_cccp5 <- cccp5
I0918 17:16:04.385771   523 net.cpp:380] penlu_cccp5 -> penlu_cccp5
I0918 17:16:04.385893   523 net.cpp:122] Setting up penlu_cccp5
I0918 17:16:04.385900   523 net.cpp:129] Top shape: 50 192 7 7 (470400)
I0918 17:16:04.385905   523 net.cpp:137] Memory required for data: 204938200
I0918 17:16:04.385913   523 layer_factory.hpp:77] Creating layer cccp6
I0918 17:16:04.385924   523 net.cpp:84] Creating Layer cccp6
I0918 17:16:04.385928   523 net.cpp:406] cccp6 <- penlu_cccp5
I0918 17:16:04.385936   523 net.cpp:380] cccp6 -> cccp6
I0918 17:16:04.386822   523 net.cpp:122] Setting up cccp6
I0918 17:16:04.386833   523 net.cpp:129] Top shape: 50 10 7 7 (24500)
I0918 17:16:04.386837   523 net.cpp:137] Memory required for data: 205036200
I0918 17:16:04.386845   523 layer_factory.hpp:77] Creating layer penlu_cccp6
I0918 17:16:04.386855   523 net.cpp:84] Creating Layer penlu_cccp6
I0918 17:16:04.386860   523 net.cpp:406] penlu_cccp6 <- cccp6
I0918 17:16:04.386868   523 net.cpp:380] penlu_cccp6 -> penlu_cccp6
I0918 17:16:04.386984   523 net.cpp:122] Setting up penlu_cccp6
I0918 17:16:04.386991   523 net.cpp:129] Top shape: 50 10 7 7 (24500)
I0918 17:16:04.386996   523 net.cpp:137] Memory required for data: 205134200
I0918 17:16:04.387006   523 layer_factory.hpp:77] Creating layer pool3
I0918 17:16:04.387012   523 net.cpp:84] Creating Layer pool3
I0918 17:16:04.387017   523 net.cpp:406] pool3 <- penlu_cccp6
I0918 17:16:04.387024   523 net.cpp:380] pool3 -> pool3
I0918 17:16:04.387473   523 net.cpp:122] Setting up pool3
I0918 17:16:04.387485   523 net.cpp:129] Top shape: 50 10 1 1 (500)
I0918 17:16:04.387490   523 net.cpp:137] Memory required for data: 205136200
I0918 17:16:04.387493   523 layer_factory.hpp:77] Creating layer pool3_pool3_0_split
I0918 17:16:04.387501   523 net.cpp:84] Creating Layer pool3_pool3_0_split
I0918 17:16:04.387506   523 net.cpp:406] pool3_pool3_0_split <- pool3
I0918 17:16:04.387512   523 net.cpp:380] pool3_pool3_0_split -> pool3_pool3_0_split_0
I0918 17:16:04.387521   523 net.cpp:380] pool3_pool3_0_split -> pool3_pool3_0_split_1
I0918 17:16:04.387549   523 net.cpp:122] Setting up pool3_pool3_0_split
I0918 17:16:04.387557   523 net.cpp:129] Top shape: 50 10 1 1 (500)
I0918 17:16:04.387563   523 net.cpp:129] Top shape: 50 10 1 1 (500)
I0918 17:16:04.387568   523 net.cpp:137] Memory required for data: 205140200
I0918 17:16:04.387573   523 layer_factory.hpp:77] Creating layer accuracy
I0918 17:16:04.387579   523 net.cpp:84] Creating Layer accuracy
I0918 17:16:04.387584   523 net.cpp:406] accuracy <- pool3_pool3_0_split_0
I0918 17:16:04.387589   523 net.cpp:406] accuracy <- label_cifar_1_split_0
I0918 17:16:04.387595   523 net.cpp:380] accuracy -> accuracy
…
