…
I0916 15:00:23.014647  5444 net.cpp:294] The NetState phase (0) differed from the phase (1) specified by a rule in layer cifar
I0916 15:00:23.014842  5444 net.cpp:51] Initializing net from parameters: 
name: "nin"
state {
  phase: TRAIN
  level: 0
  stage: ""
}
layer {
  name: "cifar"
  type: "Data"
  top: "data"
  top: "label"
  include {
    phase: TRAIN
  }
  transform_param {
    mirror: true
    crop_size: 28
    mean_file: "/home/x306/caffe/xn/PENLU/data/cifar10/mean.binaryproto"
  }
  data_param {
    source: "/home/x306/caffe/xn/PENLU/data/cifar10/cifar10_train_lmdb"
    batch_size: 64
    backend: LMDB
  }
  image_data_param {
    shuffle: true
  }
}
layer {
  name: "conv1"
  type: "Convolution"
  bottom: "data"
  top: "conv1"
  param {
    lr_mult: 1
    decay_mult: 1
  }
  param {
    lr_mult: 2
    decay_mult: 0
  }
  convolution_param {
    num_output: 192
    pad: 2
    kernel_size: 5
    weight_filler {
      type: "gaussian"
      std: 0.05
    }
    bias_filler {
      type: "constant"
      value: 0
    }
  }
}
layer {
  name: "penlu_conv1"
  type: "PENLU"
  bottom: "conv1"
  top: "penlu_conv1"
  param {
    lr_mult: 2
    decay_mult: 0
  }
  param {
    lr_mult: 2
    decay_mult: 0
  }
  param {
    lr_mult: 2
    decay_mult: 0
  }
  penlu_param {
    alpha_filler {
      type: "constant"
      value: 0.25
    }
    beta_filler {
      type: "constant"
      value: 1
    }
    eta_filler {
      type: "constant"
      value: 0.85
    }
  }
}
layer {
  name: "cccp1"
  type: "Convolution"
  bottom: "penlu_conv1"
  top: "cccp1"
  param {
    lr_mult: 1
    decay_mult: 1
  }
  param {
    lr_mult: 2
    decay_mult: 0
  }
  convolution_param {
    num_output: 160
    kernel_size: 1
    weight_filler {
      type: "gaussian"
      std: 0.05
    }
    bias_filler {
      type: "constant"
      value: 0
    }
  }
}
layer {
  name: "penlu_cccp1"
  type: "PENLU"
  bottom: "cccp1"
  top: "penlu_cccp1"
  param {
    lr_mult: 2
    decay_mult: 0
  }
  param {
    lr_mult: 2
    decay_mult: 0
  }
  param {
    lr_mult: 2
    decay_mult: 0
  }
  penlu_param {
    alpha_filler {
      type: "constant"
      value: 0.25
    }
    beta_filler {
      type: "constant"
      value: 1
    }
    eta_filler {
      type: "constant"
      value: 0.85
    }
  }
}
layer {
  name: "cccp2"
  type: "Convolution"
  bottom: "penlu_cccp1"
  top: "cccp2"
  param {
    lr_mult: 1
    decay_mult: 1
  }
  param {
    lr_mult: 2
    decay_mult: 0
  }
  convolution_param {
    num_output: 96
    kernel_size: 1
    weight_filler {
      type: "gaussian"
      std: 0.05
    }
    bias_filler {
      type: "constant"
      value: 0
    }
  }
}
layer {
  name: "penlu_cccp2"
  type: "PENLU"
  bottom: "cccp2"
  top: "penlu_cccp2"
  param {
    lr_mult: 2
    decay_mult: 0
  }
  param {
    lr_mult: 2
    decay_mult: 0
  }
  param {
    lr_mult: 2
    decay_mult: 0
  }
  penlu_param {
    alpha_filler {
      type: "constant"
      value: 0.25
    }
    beta_filler {
      type: "constant"
      value: 1
    }
    eta_filler {
      type: "constant"
      value: 0.85
    }
  }
}
layer {
  name: "pool1"
  type: "Pooling"
  bottom: "penlu_cccp2"
  top: "pool1"
  pooling_param {
    pool: MAX
    kernel_size: 3
    stride: 2
  }
}
layer {
  name: "dropout1"
  type: "Dropout"
  bottom: "pool1"
  top: "dropout1"
  dropout_param {
    dropout_ratio: 0.5
  }
}
layer {
  name: "conv2"
  type: "Convolution"
  bottom: "dropout1"
  top: "conv2"
  param {
    lr_mult: 1
    decay_mult: 1
  }
  param {
    lr_mult: 2
    decay_mult: 0
  }
  convolution_param {
    num_output: 192
    pad: 2
    kernel_size: 5
    weight_filler {
      type: "gaussian"
      std: 0.05
    }
    bias_filler {
      type: "constant"
      value: 0
    }
  }
}
layer {
  name: "penlu_conv2"
  type: "PENLU"
  bottom: "conv2"
  top: "penlu_conv2"
  param {
    lr_mult: 2
    decay_mult: 0
  }
  param {
    lr_mult: 2
    decay_mult: 0
  }
  param {
    lr_mult: 2
    decay_mult: 0
  }
  penlu_param {
    alpha_filler {
      type: "constant"
      value: 0.25
    }
    beta_filler {
      type: "constant"
      value: 1
    }
    eta_filler {
      type: "constant"
      value: 0.85
    }
  }
}
layer {
  name: "cccp3"
  type: "Convolution"
  bottom: "penlu_conv2"
  top: "cccp3"
  param {
    lr_mult: 1
    decay_mult: 1
  }
  param {
    lr_mult: 2
    decay_mult: 0
  }
  convolution_param {
    num_output: 192
    kernel_size: 1
    weight_filler {
      type: "gaussian"
      std: 0.05
    }
    bias_filler {
      type: "constant"
      value: 0
    }
  }
}
layer {
  name: "penlu_cccp3"
  type: "PENLU"
  bottom: "cccp3"
  top: "penlu_cccp3"
  param {
    lr_mult: 2
    decay_mult: 0
  }
  param {
    lr_mult: 2
    decay_mult: 0
  }
  param {
    lr_mult: 2
    decay_mult: 0
  }
  penlu_param {
    alpha_filler {
      type: "constant"
      value: 0.25
    }
    beta_filler {
      type: "constant"
      value: 1
    }
    eta_filler {
      type: "constant"
      value: 0.85
    }
  }
}
layer {
  name: "cccp4"
  type: "Convolution"
  bottom: "penlu_cccp3"
  top: "cccp4"
  param {
    lr_mult: 1
    decay_mult: 1
  }
  param {
    lr_mult: 2
    decay_mult: 0
  }
  convolution_param {
    num_output: 192
    kernel_size: 1
    weight_filler {
      type: "gaussian"
      std: 0.05
    }
    bias_filler {
      type: "constant"
      value: 0
    }
  }
}
layer {
  name: "penlu_cccp4"
  type: "PENLU"
  bottom: "cccp4"
  top: "penlu_cccp4"
  param {
    lr_mult: 2
    decay_mult: 0
  }
  param {
    lr_mult: 2
    decay_mult: 0
  }
  param {
    lr_mult: 2
    decay_mult: 0
  }
  penlu_param {
    alpha_filler {
      type: "constant"
      value: 0.25
    }
    beta_filler {
      type: "constant"
      value: 1
    }
    eta_filler {
      type: "constant"
      value: 0.85
    }
  }
}
layer {
  name: "pool2"
  type: "Pooling"
  bottom: "penlu_cccp4"
  top: "pool2"
  pooling_param {
    pool: AVE
    kernel_size: 3
    stride: 2
  }
}
layer {
  name: "dropout2"
  type: "Dropout"
  bottom: "pool2"
  top: "dropout2"
  dropout_param {
    dropout_ratio: 0.5
  }
}
layer {
  name: "conv3"
  type: "Convolution"
  bottom: "dropout2"
  top: "conv3"
  param {
    lr_mult: 1
    decay_mult: 1
  }
  param {
    lr_mult: 2
    decay_mult: 0
  }
  convolution_param {
    num_output: 192
    pad: 1
    kernel_size: 3
    weight_filler {
      type: "gaussian"
      std: 0.05
    }
    bias_filler {
      type: "constant"
      value: 0
    }
  }
}
layer {
  name: "penlu_conv3"
  type: "PENLU"
  bottom: "conv3"
  top: "penlu_conv3"
  param {
    lr_mult: 2
    decay_mult: 0
  }
  param {
    lr_mult: 2
    decay_mult: 0
  }
  param {
    lr_mult: 2
    decay_mult: 0
  }
  penlu_param {
    alpha_filler {
      type: "constant"
      value: 0.25
    }
    beta_filler {
      type: "constant"
      value: 1
    }
    eta_filler {
      type: "constant"
      value: 0.85
    }
  }
}
layer {
  name: "cccp5"
  type: "Convolution"
  bottom: "penlu_conv3"
  top: "cccp5"
  param {
    lr_mult: 1
    decay_mult: 1
  }
  param {
    lr_mult: 2
    decay_mult: 0
  }
  convolution_param {
    num_output: 192
    kernel_size: 1
    weight_filler {
      type: "gaussian"
      std: 0.05
    }
    bias_filler {
      type: "constant"
      value: 0
    }
  }
}
layer {
  name: "penlu_cccp5"
  type: "PENLU"
  bottom: "cccp5"
  top: "penlu_cccp5"
  param {
    lr_mult: 2
    decay_mult: 0
  }
  param {
    lr_mult: 2
    decay_mult: 0
  }
  param {
    lr_mult: 2
    decay_mult: 0
  }
  penlu_param {
    alpha_filler {
      type: "constant"
      value: 0.25
    }
    beta_filler {
      type: "constant"
      value: 1
    }
    eta_filler {
      type: "constant"
      value: 0.85
    }
  }
}
layer {
  name: "cccp6"
  type: "Convolution"
  bottom: "penlu_cccp5"
  top: "cccp6"
  param {
    lr_mult: 0.1
    decay_mult: 1
  }
  param {
    lr_mult: 0.1
    decay_mult: 0
  }
  convolution_param {
    num_output: 10
    kernel_size: 1
    weight_filler {
      type: "gaussian"
      std: 0.05
    }
    bias_filler {
      type: "constant"
      value: 0
    }
  }
}
layer {
  name: "penlu_cccp6"
  type: "PENLU"
  bottom: "cccp6"
  top: "penlu_cccp6"
  param {
    lr_mult: 2
    decay_mult: 0
  }
  param {
    lr_mult: 2
    decay_mult: 0
  }
  param {
    lr_mult: 2
    decay_mult: 0
  }
  penlu_param {
    alpha_filler {
      type: "constant"
      value: 0.25
    }
    beta_filler {
      type: "constant"
      value: 1
    }
    eta_filler {
      type: "constant"
      value: 0.85
    }
  }
}
layer {
  name: "pool3"
  type: "Pooling"
  bottom: "penlu_cccp6"
  top: "pool3"
  pooling_param {
    pool: AVE
    kernel_size: 7
    stride: 1
  }
}
layer {
  name: "accuracy"
  type: "Accuracy"
  bottom: "pool3"
  bottom: "label"
  top: "accuracy"
}
layer {
  name: "loss"
  type: "SoftmaxWithLoss"
  bottom: "pool3"
  bottom: "label"
  top: "loss"
}
I0916 15:00:23.014969  5444 layer_factory.hpp:77] Creating layer cifar
I0916 15:00:23.015054  5444 db_lmdb.cpp:35] Opened lmdb /home/x306/caffe/xn/PENLU/data/cifar10/cifar10_train_lmdb
I0916 15:00:23.015074  5444 net.cpp:84] Creating Layer cifar
I0916 15:00:23.015089  5444 net.cpp:380] cifar -> data
I0916 15:00:23.015117  5444 net.cpp:380] cifar -> label
I0916 15:00:23.015127  5444 data_transformer.cpp:25] Loading mean file from: /home/x306/caffe/xn/PENLU/data/cifar10/mean.binaryproto
I0916 15:00:23.016527  5444 data_layer.cpp:45] output data size: 64,3,28,28
I0916 15:00:23.018606  5444 net.cpp:122] Setting up cifar
I0916 15:00:23.018640  5444 net.cpp:129] Top shape: 64 3 28 28 (150528)
I0916 15:00:23.018646  5444 net.cpp:129] Top shape: 64 (64)
I0916 15:00:23.018648  5444 net.cpp:137] Memory required for data: 602368
I0916 15:00:23.018654  5444 layer_factory.hpp:77] Creating layer label_cifar_1_split
I0916 15:00:23.018664  5444 net.cpp:84] Creating Layer label_cifar_1_split
I0916 15:00:23.018669  5444 net.cpp:406] label_cifar_1_split <- label
I0916 15:00:23.018677  5444 net.cpp:380] label_cifar_1_split -> label_cifar_1_split_0
I0916 15:00:23.018684  5444 net.cpp:380] label_cifar_1_split -> label_cifar_1_split_1
I0916 15:00:23.018725  5444 net.cpp:122] Setting up label_cifar_1_split
I0916 15:00:23.018740  5444 net.cpp:129] Top shape: 64 (64)
I0916 15:00:23.018744  5444 net.cpp:129] Top shape: 64 (64)
I0916 15:00:23.018746  5444 net.cpp:137] Memory required for data: 602880
I0916 15:00:23.018749  5444 layer_factory.hpp:77] Creating layer conv1
I0916 15:00:23.018762  5444 net.cpp:84] Creating Layer conv1
I0916 15:00:23.018766  5444 net.cpp:406] conv1 <- data
I0916 15:00:23.018770  5444 net.cpp:380] conv1 -> conv1
I0916 15:00:23.166132  5444 net.cpp:122] Setting up conv1
I0916 15:00:23.166157  5444 net.cpp:129] Top shape: 64 192 28 28 (9633792)
I0916 15:00:23.166160  5444 net.cpp:137] Memory required for data: 39138048
I0916 15:00:23.166174  5444 layer_factory.hpp:77] Creating layer penlu_conv1
I0916 15:00:23.166199  5444 net.cpp:84] Creating Layer penlu_conv1
I0916 15:00:23.166203  5444 net.cpp:406] penlu_conv1 <- conv1
I0916 15:00:23.166218  5444 net.cpp:380] penlu_conv1 -> penlu_conv1
I0916 15:00:23.166442  5444 net.cpp:122] Setting up penlu_conv1
I0916 15:00:23.166448  5444 net.cpp:129] Top shape: 64 192 28 28 (9633792)
I0916 15:00:23.166451  5444 net.cpp:137] Memory required for data: 77673216
I0916 15:00:23.166457  5444 layer_factory.hpp:77] Creating layer cccp1
I0916 15:00:23.166466  5444 net.cpp:84] Creating Layer cccp1
I0916 15:00:23.166479  5444 net.cpp:406] cccp1 <- penlu_conv1
I0916 15:00:23.166483  5444 net.cpp:380] cccp1 -> cccp1
I0916 15:00:23.168484  5444 net.cpp:122] Setting up cccp1
I0916 15:00:23.168495  5444 net.cpp:129] Top shape: 64 160 28 28 (8028160)
I0916 15:00:23.168498  5444 net.cpp:137] Memory required for data: 109785856
I0916 15:00:23.168503  5444 layer_factory.hpp:77] Creating layer penlu_cccp1
I0916 15:00:23.168509  5444 net.cpp:84] Creating Layer penlu_cccp1
I0916 15:00:23.168510  5444 net.cpp:406] penlu_cccp1 <- cccp1
I0916 15:00:23.168525  5444 net.cpp:380] penlu_cccp1 -> penlu_cccp1
I0916 15:00:23.168735  5444 net.cpp:122] Setting up penlu_cccp1
I0916 15:00:23.168740  5444 net.cpp:129] Top shape: 64 160 28 28 (8028160)
I0916 15:00:23.168742  5444 net.cpp:137] Memory required for data: 141898496
I0916 15:00:23.168748  5444 layer_factory.hpp:77] Creating layer cccp2
I0916 15:00:23.168754  5444 net.cpp:84] Creating Layer cccp2
I0916 15:00:23.168757  5444 net.cpp:406] cccp2 <- penlu_cccp1
I0916 15:00:23.168771  5444 net.cpp:380] cccp2 -> cccp2
I0916 15:00:23.169904  5444 net.cpp:122] Setting up cccp2
I0916 15:00:23.169914  5444 net.cpp:129] Top shape: 64 96 28 28 (4816896)
I0916 15:00:23.169917  5444 net.cpp:137] Memory required for data: 161166080
I0916 15:00:23.169922  5444 layer_factory.hpp:77] Creating layer penlu_cccp2
I0916 15:00:23.169927  5444 net.cpp:84] Creating Layer penlu_cccp2
I0916 15:00:23.169930  5444 net.cpp:406] penlu_cccp2 <- cccp2
I0916 15:00:23.169945  5444 net.cpp:380] penlu_cccp2 -> penlu_cccp2
I0916 15:00:23.170119  5444 net.cpp:122] Setting up penlu_cccp2
I0916 15:00:23.170123  5444 net.cpp:129] Top shape: 64 96 28 28 (4816896)
I0916 15:00:23.170125  5444 net.cpp:137] Memory required for data: 180433664
I0916 15:00:23.170130  5444 layer_factory.hpp:77] Creating layer pool1
I0916 15:00:23.170136  5444 net.cpp:84] Creating Layer pool1
I0916 15:00:23.170140  5444 net.cpp:406] pool1 <- penlu_cccp2
I0916 15:00:23.170142  5444 net.cpp:380] pool1 -> pool1
I0916 15:00:23.170207  5444 net.cpp:122] Setting up pool1
I0916 15:00:23.170212  5444 net.cpp:129] Top shape: 64 96 14 14 (1204224)
I0916 15:00:23.170227  5444 net.cpp:137] Memory required for data: 185250560
I0916 15:00:23.170228  5444 layer_factory.hpp:77] Creating layer dropout1
I0916 15:00:23.170233  5444 net.cpp:84] Creating Layer dropout1
I0916 15:00:23.170244  5444 net.cpp:406] dropout1 <- pool1
I0916 15:00:23.170248  5444 net.cpp:380] dropout1 -> dropout1
I0916 15:00:23.170305  5444 net.cpp:122] Setting up dropout1
I0916 15:00:23.170310  5444 net.cpp:129] Top shape: 64 96 14 14 (1204224)
I0916 15:00:23.170312  5444 net.cpp:137] Memory required for data: 190067456
I0916 15:00:23.170315  5444 layer_factory.hpp:77] Creating layer conv2
I0916 15:00:23.170331  5444 net.cpp:84] Creating Layer conv2
I0916 15:00:23.170332  5444 net.cpp:406] conv2 <- dropout1
I0916 15:00:23.170336  5444 net.cpp:380] conv2 -> conv2
I0916 15:00:23.182461  5444 net.cpp:122] Setting up conv2
I0916 15:00:23.182479  5444 net.cpp:129] Top shape: 64 192 14 14 (2408448)
I0916 15:00:23.182482  5444 net.cpp:137] Memory required for data: 199701248
I0916 15:00:23.182492  5444 layer_factory.hpp:77] Creating layer penlu_conv2
I0916 15:00:23.182512  5444 net.cpp:84] Creating Layer penlu_conv2
I0916 15:00:23.182514  5444 net.cpp:406] penlu_conv2 <- conv2
I0916 15:00:23.182529  5444 net.cpp:380] penlu_conv2 -> penlu_conv2
I0916 15:00:23.182678  5444 net.cpp:122] Setting up penlu_conv2
I0916 15:00:23.182683  5444 net.cpp:129] Top shape: 64 192 14 14 (2408448)
I0916 15:00:23.182687  5444 net.cpp:137] Memory required for data: 209335040
I0916 15:00:23.182690  5444 layer_factory.hpp:77] Creating layer cccp3
I0916 15:00:23.182698  5444 net.cpp:84] Creating Layer cccp3
I0916 15:00:23.182700  5444 net.cpp:406] cccp3 <- penlu_conv2
I0916 15:00:23.182714  5444 net.cpp:380] cccp3 -> cccp3
I0916 15:00:23.184325  5444 net.cpp:122] Setting up cccp3
I0916 15:00:23.184335  5444 net.cpp:129] Top shape: 64 192 14 14 (2408448)
I0916 15:00:23.184339  5444 net.cpp:137] Memory required for data: 218968832
I0916 15:00:23.184342  5444 layer_factory.hpp:77] Creating layer penlu_cccp3
I0916 15:00:23.184347  5444 net.cpp:84] Creating Layer penlu_cccp3
I0916 15:00:23.184371  5444 net.cpp:406] penlu_cccp3 <- cccp3
I0916 15:00:23.184388  5444 net.cpp:380] penlu_cccp3 -> penlu_cccp3
I0916 15:00:23.184527  5444 net.cpp:122] Setting up penlu_cccp3
I0916 15:00:23.184533  5444 net.cpp:129] Top shape: 64 192 14 14 (2408448)
I0916 15:00:23.184535  5444 net.cpp:137] Memory required for data: 228602624
I0916 15:00:23.184540  5444 layer_factory.hpp:77] Creating layer cccp4
I0916 15:00:23.184545  5444 net.cpp:84] Creating Layer cccp4
I0916 15:00:23.184548  5444 net.cpp:406] cccp4 <- penlu_cccp3
I0916 15:00:23.184562  5444 net.cpp:380] cccp4 -> cccp4
I0916 15:00:23.186149  5444 net.cpp:122] Setting up cccp4
I0916 15:00:23.186159  5444 net.cpp:129] Top shape: 64 192 14 14 (2408448)
I0916 15:00:23.186162  5444 net.cpp:137] Memory required for data: 238236416
I0916 15:00:23.186167  5444 layer_factory.hpp:77] Creating layer penlu_cccp4
I0916 15:00:23.186172  5444 net.cpp:84] Creating Layer penlu_cccp4
I0916 15:00:23.186174  5444 net.cpp:406] penlu_cccp4 <- cccp4
I0916 15:00:23.186189  5444 net.cpp:380] penlu_cccp4 -> penlu_cccp4
I0916 15:00:23.186339  5444 net.cpp:122] Setting up penlu_cccp4
I0916 15:00:23.186344  5444 net.cpp:129] Top shape: 64 192 14 14 (2408448)
I0916 15:00:23.186347  5444 net.cpp:137] Memory required for data: 247870208
I0916 15:00:23.186352  5444 layer_factory.hpp:77] Creating layer pool2
I0916 15:00:23.186357  5444 net.cpp:84] Creating Layer pool2
I0916 15:00:23.186359  5444 net.cpp:406] pool2 <- penlu_cccp4
I0916 15:00:23.186363  5444 net.cpp:380] pool2 -> pool2
I0916 15:00:23.186518  5444 net.cpp:122] Setting up pool2
I0916 15:00:23.186525  5444 net.cpp:129] Top shape: 64 192 7 7 (602112)
I0916 15:00:23.186527  5444 net.cpp:137] Memory required for data: 250278656
I0916 15:00:23.186529  5444 layer_factory.hpp:77] Creating layer dropout2
I0916 15:00:23.186534  5444 net.cpp:84] Creating Layer dropout2
I0916 15:00:23.186537  5444 net.cpp:406] dropout2 <- pool2
I0916 15:00:23.186540  5444 net.cpp:380] dropout2 -> dropout2
I0916 15:00:23.186586  5444 net.cpp:122] Setting up dropout2
I0916 15:00:23.186599  5444 net.cpp:129] Top shape: 64 192 7 7 (602112)
I0916 15:00:23.186602  5444 net.cpp:137] Memory required for data: 252687104
I0916 15:00:23.186604  5444 layer_factory.hpp:77] Creating layer conv3
I0916 15:00:23.186620  5444 net.cpp:84] Creating Layer conv3
I0916 15:00:23.186622  5444 net.cpp:406] conv3 <- dropout2
I0916 15:00:23.186626  5444 net.cpp:380] conv3 -> conv3
I0916 15:00:23.195680  5444 net.cpp:122] Setting up conv3
I0916 15:00:23.195706  5444 net.cpp:129] Top shape: 64 192 7 7 (602112)
I0916 15:00:23.195709  5444 net.cpp:137] Memory required for data: 255095552
I0916 15:00:23.195715  5444 layer_factory.hpp:77] Creating layer penlu_conv3
I0916 15:00:23.195734  5444 net.cpp:84] Creating Layer penlu_conv3
I0916 15:00:23.195737  5444 net.cpp:406] penlu_conv3 <- conv3
I0916 15:00:23.195742  5444 net.cpp:380] penlu_conv3 -> penlu_conv3
I0916 15:00:23.195873  5444 net.cpp:122] Setting up penlu_conv3
I0916 15:00:23.195878  5444 net.cpp:129] Top shape: 64 192 7 7 (602112)
I0916 15:00:23.195890  5444 net.cpp:137] Memory required for data: 257504000
I0916 15:00:23.195899  5444 layer_factory.hpp:77] Creating layer cccp5
I0916 15:00:23.195916  5444 net.cpp:84] Creating Layer cccp5
I0916 15:00:23.195920  5444 net.cpp:406] cccp5 <- penlu_conv3
I0916 15:00:23.195924  5444 net.cpp:380] cccp5 -> cccp5
I0916 15:00:23.197612  5444 net.cpp:122] Setting up cccp5
I0916 15:00:23.197621  5444 net.cpp:129] Top shape: 64 192 7 7 (602112)
I0916 15:00:23.197624  5444 net.cpp:137] Memory required for data: 259912448
I0916 15:00:23.197629  5444 layer_factory.hpp:77] Creating layer penlu_cccp5
I0916 15:00:23.197634  5444 net.cpp:84] Creating Layer penlu_cccp5
I0916 15:00:23.197638  5444 net.cpp:406] penlu_cccp5 <- cccp5
I0916 15:00:23.197651  5444 net.cpp:380] penlu_cccp5 -> penlu_cccp5
I0916 15:00:23.197787  5444 net.cpp:122] Setting up penlu_cccp5
I0916 15:00:23.197791  5444 net.cpp:129] Top shape: 64 192 7 7 (602112)
I0916 15:00:23.197803  5444 net.cpp:137] Memory required for data: 262320896
I0916 15:00:23.197808  5444 layer_factory.hpp:77] Creating layer cccp6
I0916 15:00:23.197824  5444 net.cpp:84] Creating Layer cccp6
I0916 15:00:23.197826  5444 net.cpp:406] cccp6 <- penlu_cccp5
I0916 15:00:23.197840  5444 net.cpp:380] cccp6 -> cccp6
I0916 15:00:23.198686  5444 net.cpp:122] Setting up cccp6
I0916 15:00:23.198695  5444 net.cpp:129] Top shape: 64 10 7 7 (31360)
I0916 15:00:23.198698  5444 net.cpp:137] Memory required for data: 262446336
I0916 15:00:23.198703  5444 layer_factory.hpp:77] Creating layer penlu_cccp6
I0916 15:00:23.198709  5444 net.cpp:84] Creating Layer penlu_cccp6
I0916 15:00:23.198711  5444 net.cpp:406] penlu_cccp6 <- cccp6
I0916 15:00:23.198724  5444 net.cpp:380] penlu_cccp6 -> penlu_cccp6
I0916 15:00:23.198844  5444 net.cpp:122] Setting up penlu_cccp6
I0916 15:00:23.198850  5444 net.cpp:129] Top shape: 64 10 7 7 (31360)
I0916 15:00:23.198853  5444 net.cpp:137] Memory required for data: 262571776
I0916 15:00:23.198856  5444 layer_factory.hpp:77] Creating layer pool3
I0916 15:00:23.198861  5444 net.cpp:84] Creating Layer pool3
I0916 15:00:23.198863  5444 net.cpp:406] pool3 <- penlu_cccp6
I0916 15:00:23.198868  5444 net.cpp:380] pool3 -> pool3
I0916 15:00:23.199012  5444 net.cpp:122] Setting up pool3
I0916 15:00:23.199019  5444 net.cpp:129] Top shape: 64 10 1 1 (640)
I0916 15:00:23.199021  5444 net.cpp:137] Memory required for data: 262574336
I0916 15:00:23.199023  5444 layer_factory.hpp:77] Creating layer pool3_pool3_0_split
I0916 15:00:23.199028  5444 net.cpp:84] Creating Layer pool3_pool3_0_split
I0916 15:00:23.199030  5444 net.cpp:406] pool3_pool3_0_split <- pool3
I0916 15:00:23.199033  5444 net.cpp:380] pool3_pool3_0_split -> pool3_pool3_0_split_0
I0916 15:00:23.199038  5444 net.cpp:380] pool3_pool3_0_split -> pool3_pool3_0_split_1
I0916 15:00:23.199093  5444 net.cpp:122] Setting up pool3_pool3_0_split
I0916 15:00:23.199097  5444 net.cpp:129] Top shape: 64 10 1 1 (640)
I0916 15:00:23.199110  5444 net.cpp:129] Top shape: 64 10 1 1 (640)
I0916 15:00:23.199112  5444 net.cpp:137] Memory required for data: 262579456
I0916 15:00:23.199115  5444 layer_factory.hpp:77] Creating layer accuracy
I0916 15:00:23.199118  5444 net.cpp:84] Creating Layer accuracy
I0916 15:00:23.199121  5444 net.cpp:406] accuracy <- pool3_pool3_0_split_0
I0916 15:00:23.199133  5444 net.cpp:406] accuracy <- label_cifar_1_split_0
I0916 15:00:23.199139  5444 net.cpp:380] accuracy -> accuracy
…
I0916 15:00:23.200224  5444 net.cpp:294] The NetState phase (1) differed from the phase (0) specified by a rule in layer cifar
I0916 15:00:23.200403  5444 net.cpp:51] Initializing net from parameters: 
name: "nin"
state {
  phase: TEST
}
layer {
  name: "cifar"
  type: "Data"
  top: "data"
  top: "label"
  include {
    phase: TEST
  }
  transform_param {
    mirror: false
    crop_size: 28
    mean_file: "/home/x306/caffe/xn/PENLU/data/cifar10/mean.binaryproto"
  }
  data_param {
    source: "/home/x306/caffe/xn/PENLU/data/cifar10/cifar10_test_lmdb"
    batch_size: 50
    backend: LMDB
  }
}
layer {
  name: "conv1"
  type: "Convolution"
  bottom: "data"
  top: "conv1"
  param {
    lr_mult: 1
    decay_mult: 1
  }
  param {
    lr_mult: 2
    decay_mult: 0
  }
  convolution_param {
    num_output: 192
    pad: 2
    kernel_size: 5
    weight_filler {
      type: "gaussian"
      std: 0.05
    }
    bias_filler {
      type: "constant"
      value: 0
    }
  }
}
layer {
  name: "penlu_conv1"
  type: "PENLU"
  bottom: "conv1"
  top: "penlu_conv1"
  param {
    lr_mult: 2
    decay_mult: 0
  }
  param {
    lr_mult: 2
    decay_mult: 0
  }
  param {
    lr_mult: 2
    decay_mult: 0
  }
  penlu_param {
    alpha_filler {
      type: "constant"
      value: 0.25
    }
    beta_filler {
      type: "constant"
      value: 1
    }
    eta_filler {
      type: "constant"
      value: 0.85
    }
  }
}
layer {
  name: "cccp1"
  type: "Convolution"
  bottom: "penlu_conv1"
  top: "cccp1"
  param {
    lr_mult: 1
    decay_mult: 1
  }
  param {
    lr_mult: 2
    decay_mult: 0
  }
  convolution_param {
    num_output: 160
    kernel_size: 1
    weight_filler {
      type: "gaussian"
      std: 0.05
    }
    bias_filler {
      type: "constant"
      value: 0
    }
  }
}
layer {
  name: "penlu_cccp1"
  type: "PENLU"
  bottom: "cccp1"
  top: "penlu_cccp1"
  param {
    lr_mult: 2
    decay_mult: 0
  }
  param {
    lr_mult: 2
    decay_mult: 0
  }
  param {
    lr_mult: 2
    decay_mult: 0
  }
  penlu_param {
    alpha_filler {
      type: "constant"
      value: 0.25
    }
    beta_filler {
      type: "constant"
      value: 1
    }
    eta_filler {
      type: "constant"
      value: 0.85
    }
  }
}
layer {
  name: "cccp2"
  type: "Convolution"
  bottom: "penlu_cccp1"
  top: "cccp2"
  param {
    lr_mult: 1
    decay_mult: 1
  }
  param {
    lr_mult: 2
    decay_mult: 0
  }
  convolution_param {
    num_output: 96
    kernel_size: 1
    weight_filler {
      type: "gaussian"
      std: 0.05
    }
    bias_filler {
      type: "constant"
      value: 0
    }
  }
}
layer {
  name: "penlu_cccp2"
  type: "PENLU"
  bottom: "cccp2"
  top: "penlu_cccp2"
  param {
    lr_mult: 2
    decay_mult: 0
  }
  param {
    lr_mult: 2
    decay_mult: 0
  }
  param {
    lr_mult: 2
    decay_mult: 0
  }
  penlu_param {
    alpha_filler {
      type: "constant"
      value: 0.25
    }
    beta_filler {
      type: "constant"
      value: 1
    }
    eta_filler {
      type: "constant"
      value: 0.85
    }
  }
}
layer {
  name: "pool1"
  type: "Pooling"
  bottom: "penlu_cccp2"
  top: "pool1"
  pooling_param {
    pool: MAX
    kernel_size: 3
    stride: 2
  }
}
layer {
  name: "dropout1"
  type: "Dropout"
  bottom: "pool1"
  top: "dropout1"
  dropout_param {
    dropout_ratio: 0.5
  }
}
layer {
  name: "conv2"
  type: "Convolution"
  bottom: "dropout1"
  top: "conv2"
  param {
    lr_mult: 1
    decay_mult: 1
  }
  param {
    lr_mult: 2
    decay_mult: 0
  }
  convolution_param {
    num_output: 192
    pad: 2
    kernel_size: 5
    weight_filler {
      type: "gaussian"
      std: 0.05
    }
    bias_filler {
      type: "constant"
      value: 0
    }
  }
}
layer {
  name: "penlu_conv2"
  type: "PENLU"
  bottom: "conv2"
  top: "penlu_conv2"
  param {
    lr_mult: 2
    decay_mult: 0
  }
  param {
    lr_mult: 2
    decay_mult: 0
  }
  param {
    lr_mult: 2
    decay_mult: 0
  }
  penlu_param {
    alpha_filler {
      type: "constant"
      value: 0.25
    }
    beta_filler {
      type: "constant"
      value: 1
    }
    eta_filler {
      type: "constant"
      value: 0.85
    }
  }
}
layer {
  name: "cccp3"
  type: "Convolution"
  bottom: "penlu_conv2"
  top: "cccp3"
  param {
    lr_mult: 1
    decay_mult: 1
  }
  param {
    lr_mult: 2
    decay_mult: 0
  }
  convolution_param {
    num_output: 192
    kernel_size: 1
    weight_filler {
      type: "gaussian"
      std: 0.05
    }
    bias_filler {
      type: "constant"
      value: 0
    }
  }
}
layer {
  name: "penlu_cccp3"
  type: "PENLU"
  bottom: "cccp3"
  top: "penlu_cccp3"
  param {
    lr_mult: 2
    decay_mult: 0
  }
  param {
    lr_mult: 2
    decay_mult: 0
  }
  param {
    lr_mult: 2
    decay_mult: 0
  }
  penlu_param {
    alpha_filler {
      type: "constant"
      value: 0.25
    }
    beta_filler {
      type: "constant"
      value: 1
    }
    eta_filler {
      type: "constant"
      value: 0.85
    }
  }
}
layer {
  name: "cccp4"
  type: "Convolution"
  bottom: "penlu_cccp3"
  top: "cccp4"
  param {
    lr_mult: 1
    decay_mult: 1
  }
  param {
    lr_mult: 2
    decay_mult: 0
  }
  convolution_param {
    num_output: 192
    kernel_size: 1
    weight_filler {
      type: "gaussian"
      std: 0.05
    }
    bias_filler {
      type: "constant"
      value: 0
    }
  }
}
layer {
  name: "penlu_cccp4"
  type: "PENLU"
  bottom: "cccp4"
  top: "penlu_cccp4"
  param {
    lr_mult: 2
    decay_mult: 0
  }
  param {
    lr_mult: 2
    decay_mult: 0
  }
  param {
    lr_mult: 2
    decay_mult: 0
  }
  penlu_param {
    alpha_filler {
      type: "constant"
      value: 0.25
    }
    beta_filler {
      type: "constant"
      value: 1
    }
    eta_filler {
      type: "constant"
      value: 0.85
    }
  }
}
layer {
  name: "pool2"
  type: "Pooling"
  bottom: "penlu_cccp4"
  top: "pool2"
  pooling_param {
    pool: AVE
    kernel_size: 3
    stride: 2
  }
}
layer {
  name: "dropout2"
  type: "Dropout"
  bottom: "pool2"
  top: "dropout2"
  dropout_param {
    dropout_ratio: 0.5
  }
}
layer {
  name: "conv3"
  type: "Convolution"
  bottom: "dropout2"
  top: "conv3"
  param {
    lr_mult: 1
    decay_mult: 1
  }
  param {
    lr_mult: 2
    decay_mult: 0
  }
  convolution_param {
    num_output: 192
    pad: 1
    kernel_size: 3
    weight_filler {
      type: "gaussian"
      std: 0.05
    }
    bias_filler {
      type: "constant"
      value: 0
    }
  }
}
layer {
  name: "penlu_conv3"
  type: "PENLU"
  bottom: "conv3"
  top: "penlu_conv3"
  param {
    lr_mult: 2
    decay_mult: 0
  }
  param {
    lr_mult: 2
    decay_mult: 0
  }
  param {
    lr_mult: 2
    decay_mult: 0
  }
  penlu_param {
    alpha_filler {
      type: "constant"
      value: 0.25
    }
    beta_filler {
      type: "constant"
      value: 1
    }
    eta_filler {
      type: "constant"
      value: 0.85
    }
  }
}
layer {
  name: "cccp5"
  type: "Convolution"
  bottom: "penlu_conv3"
  top: "cccp5"
  param {
    lr_mult: 1
    decay_mult: 1
  }
  param {
    lr_mult: 2
    decay_mult: 0
  }
  convolution_param {
    num_output: 192
    kernel_size: 1
    weight_filler {
      type: "gaussian"
      std: 0.05
    }
    bias_filler {
      type: "constant"
      value: 0
    }
  }
}
layer {
  name: "penlu_cccp5"
  type: "PENLU"
  bottom: "cccp5"
  top: "penlu_cccp5"
  param {
    lr_mult: 2
    decay_mult: 0
  }
  param {
    lr_mult: 2
    decay_mult: 0
  }
  param {
    lr_mult: 2
    decay_mult: 0
  }
  penlu_param {
    alpha_filler {
      type: "constant"
      value: 0.25
    }
    beta_filler {
      type: "constant"
      value: 1
    }
    eta_filler {
      type: "constant"
      value: 0.85
    }
  }
}
layer {
  name: "cccp6"
  type: "Convolution"
  bottom: "penlu_cccp5"
  top: "cccp6"
  param {
    lr_mult: 0.1
    decay_mult: 1
  }
  param {
    lr_mult: 0.1
    decay_mult: 0
  }
  convolution_param {
    num_output: 10
    kernel_size: 1
    weight_filler {
      type: "gaussian"
      std: 0.05
    }
    bias_filler {
      type: "constant"
      value: 0
    }
  }
}
layer {
  name: "penlu_cccp6"
  type: "PENLU"
  bottom: "cccp6"
  top: "penlu_cccp6"
  param {
    lr_mult: 2
    decay_mult: 0
  }
  param {
    lr_mult: 2
    decay_mult: 0
  }
  param {
    lr_mult: 2
    decay_mult: 0
  }
  penlu_param {
    alpha_filler {
      type: "constant"
      value: 0.25
    }
    beta_filler {
      type: "constant"
      value: 1
    }
    eta_filler {
      type: "constant"
      value: 0.85
    }
  }
}
layer {
  name: "pool3"
  type: "Pooling"
  bottom: "penlu_cccp6"
  top: "pool3"
  pooling_param {
    pool: AVE
    kernel_size: 7
    stride: 1
  }
}
layer {
  name: "accuracy"
  type: "Accuracy"
  bottom: "pool3"
  bottom: "label"
  top: "accuracy"
}
layer {
  name: "loss"
  type: "SoftmaxWithLoss"
  bottom: "pool3"
  bottom: "label"
  top: "loss"
}
I0916 15:00:23.200489  5444 layer_factory.hpp:77] Creating layer cifar
I0916 15:00:23.200526  5444 db_lmdb.cpp:35] Opened lmdb /home/x306/caffe/xn/PENLU/data/cifar10/cifar10_test_lmdb
I0916 15:00:23.200536  5444 net.cpp:84] Creating Layer cifar
I0916 15:00:23.200541  5444 net.cpp:380] cifar -> data
I0916 15:00:23.200546  5444 net.cpp:380] cifar -> label
I0916 15:00:23.200551  5444 data_transformer.cpp:25] Loading mean file from: /home/x306/caffe/xn/PENLU/data/cifar10/mean.binaryproto
I0916 15:00:23.200649  5444 data_layer.cpp:45] output data size: 50,3,28,28
I0916 15:00:23.201685  5444 net.cpp:122] Setting up cifar
I0916 15:00:23.201706  5444 net.cpp:129] Top shape: 50 3 28 28 (117600)
I0916 15:00:23.201720  5444 net.cpp:129] Top shape: 50 (50)
I0916 15:00:23.201723  5444 net.cpp:137] Memory required for data: 470600
I0916 15:00:23.201726  5444 layer_factory.hpp:77] Creating layer label_cifar_1_split
I0916 15:00:23.201731  5444 net.cpp:84] Creating Layer label_cifar_1_split
I0916 15:00:23.201735  5444 net.cpp:406] label_cifar_1_split <- label
I0916 15:00:23.201738  5444 net.cpp:380] label_cifar_1_split -> label_cifar_1_split_0
I0916 15:00:23.201743  5444 net.cpp:380] label_cifar_1_split -> label_cifar_1_split_1
I0916 15:00:23.201797  5444 net.cpp:122] Setting up label_cifar_1_split
I0916 15:00:23.201802  5444 net.cpp:129] Top shape: 50 (50)
I0916 15:00:23.201814  5444 net.cpp:129] Top shape: 50 (50)
I0916 15:00:23.201817  5444 net.cpp:137] Memory required for data: 471000
I0916 15:00:23.201818  5444 layer_factory.hpp:77] Creating layer conv1
I0916 15:00:23.201833  5444 net.cpp:84] Creating Layer conv1
I0916 15:00:23.201844  5444 net.cpp:406] conv1 <- data
I0916 15:00:23.201850  5444 net.cpp:380] conv1 -> conv1
I0916 15:00:23.203137  5444 net.cpp:122] Setting up conv1
I0916 15:00:23.203150  5444 net.cpp:129] Top shape: 50 192 28 28 (7526400)
I0916 15:00:23.203161  5444 net.cpp:137] Memory required for data: 30576600
I0916 15:00:23.203169  5444 layer_factory.hpp:77] Creating layer penlu_conv1
I0916 15:00:23.203177  5444 net.cpp:84] Creating Layer penlu_conv1
I0916 15:00:23.203179  5444 net.cpp:406] penlu_conv1 <- conv1
I0916 15:00:23.203188  5444 net.cpp:380] penlu_conv1 -> penlu_conv1
I0916 15:00:23.203366  5444 net.cpp:122] Setting up penlu_conv1
I0916 15:00:23.203372  5444 net.cpp:129] Top shape: 50 192 28 28 (7526400)
I0916 15:00:23.203375  5444 net.cpp:137] Memory required for data: 60682200
I0916 15:00:23.203382  5444 layer_factory.hpp:77] Creating layer cccp1
I0916 15:00:23.203389  5444 net.cpp:84] Creating Layer cccp1
I0916 15:00:23.203393  5444 net.cpp:406] cccp1 <- penlu_conv1
I0916 15:00:23.203397  5444 net.cpp:380] cccp1 -> cccp1
I0916 15:00:23.205034  5444 net.cpp:122] Setting up cccp1
I0916 15:00:23.205045  5444 net.cpp:129] Top shape: 50 160 28 28 (6272000)
I0916 15:00:23.205049  5444 net.cpp:137] Memory required for data: 85770200
I0916 15:00:23.205055  5444 layer_factory.hpp:77] Creating layer penlu_cccp1
I0916 15:00:23.205061  5444 net.cpp:84] Creating Layer penlu_cccp1
I0916 15:00:23.205065  5444 net.cpp:406] penlu_cccp1 <- cccp1
I0916 15:00:23.205070  5444 net.cpp:380] penlu_cccp1 -> penlu_cccp1
I0916 15:00:23.205745  5444 net.cpp:122] Setting up penlu_cccp1
I0916 15:00:23.205754  5444 net.cpp:129] Top shape: 50 160 28 28 (6272000)
I0916 15:00:23.205759  5444 net.cpp:137] Memory required for data: 110858200
I0916 15:00:23.205766  5444 layer_factory.hpp:77] Creating layer cccp2
I0916 15:00:23.205773  5444 net.cpp:84] Creating Layer cccp2
I0916 15:00:23.205777  5444 net.cpp:406] cccp2 <- penlu_cccp1
I0916 15:00:23.205781  5444 net.cpp:380] cccp2 -> cccp2
I0916 15:00:23.206976  5444 net.cpp:122] Setting up cccp2
I0916 15:00:23.206987  5444 net.cpp:129] Top shape: 50 96 28 28 (3763200)
I0916 15:00:23.206990  5444 net.cpp:137] Memory required for data: 125911000
I0916 15:00:23.206995  5444 layer_factory.hpp:77] Creating layer penlu_cccp2
I0916 15:00:23.207001  5444 net.cpp:84] Creating Layer penlu_cccp2
I0916 15:00:23.207005  5444 net.cpp:406] penlu_cccp2 <- cccp2
I0916 15:00:23.207010  5444 net.cpp:380] penlu_cccp2 -> penlu_cccp2
I0916 15:00:23.207147  5444 net.cpp:122] Setting up penlu_cccp2
I0916 15:00:23.207154  5444 net.cpp:129] Top shape: 50 96 28 28 (3763200)
I0916 15:00:23.207156  5444 net.cpp:137] Memory required for data: 140963800
I0916 15:00:23.207161  5444 layer_factory.hpp:77] Creating layer pool1
I0916 15:00:23.207167  5444 net.cpp:84] Creating Layer pool1
I0916 15:00:23.207171  5444 net.cpp:406] pool1 <- penlu_cccp2
I0916 15:00:23.207175  5444 net.cpp:380] pool1 -> pool1
I0916 15:00:23.207200  5444 net.cpp:122] Setting up pool1
I0916 15:00:23.207204  5444 net.cpp:129] Top shape: 50 96 14 14 (940800)
I0916 15:00:23.207206  5444 net.cpp:137] Memory required for data: 144727000
I0916 15:00:23.207208  5444 layer_factory.hpp:77] Creating layer dropout1
I0916 15:00:23.207213  5444 net.cpp:84] Creating Layer dropout1
I0916 15:00:23.207216  5444 net.cpp:406] dropout1 <- pool1
I0916 15:00:23.207221  5444 net.cpp:380] dropout1 -> dropout1
I0916 15:00:23.207242  5444 net.cpp:122] Setting up dropout1
I0916 15:00:23.207247  5444 net.cpp:129] Top shape: 50 96 14 14 (940800)
I0916 15:00:23.207249  5444 net.cpp:137] Memory required for data: 148490200
I0916 15:00:23.207252  5444 layer_factory.hpp:77] Creating layer conv2
I0916 15:00:23.207257  5444 net.cpp:84] Creating Layer conv2
I0916 15:00:23.207260  5444 net.cpp:406] conv2 <- dropout1
I0916 15:00:23.207264  5444 net.cpp:380] conv2 -> conv2
I0916 15:00:23.218744  5444 net.cpp:122] Setting up conv2
I0916 15:00:23.218758  5444 net.cpp:129] Top shape: 50 192 14 14 (1881600)
I0916 15:00:23.218761  5444 net.cpp:137] Memory required for data: 156016600
I0916 15:00:23.218781  5444 layer_factory.hpp:77] Creating layer penlu_conv2
I0916 15:00:23.218791  5444 net.cpp:84] Creating Layer penlu_conv2
I0916 15:00:23.218794  5444 net.cpp:406] penlu_conv2 <- conv2
I0916 15:00:23.218799  5444 net.cpp:380] penlu_conv2 -> penlu_conv2
I0916 15:00:23.218940  5444 net.cpp:122] Setting up penlu_conv2
I0916 15:00:23.218945  5444 net.cpp:129] Top shape: 50 192 14 14 (1881600)
I0916 15:00:23.218957  5444 net.cpp:137] Memory required for data: 163543000
I0916 15:00:23.218962  5444 layer_factory.hpp:77] Creating layer cccp3
I0916 15:00:23.218969  5444 net.cpp:84] Creating Layer cccp3
I0916 15:00:23.218971  5444 net.cpp:406] cccp3 <- penlu_conv2
I0916 15:00:23.218976  5444 net.cpp:380] cccp3 -> cccp3
I0916 15:00:23.220604  5444 net.cpp:122] Setting up cccp3
I0916 15:00:23.220614  5444 net.cpp:129] Top shape: 50 192 14 14 (1881600)
I0916 15:00:23.220618  5444 net.cpp:137] Memory required for data: 171069400
I0916 15:00:23.220621  5444 layer_factory.hpp:77] Creating layer penlu_cccp3
I0916 15:00:23.220628  5444 net.cpp:84] Creating Layer penlu_cccp3
I0916 15:00:23.220630  5444 net.cpp:406] penlu_cccp3 <- cccp3
I0916 15:00:23.220634  5444 net.cpp:380] penlu_cccp3 -> penlu_cccp3
I0916 15:00:23.220757  5444 net.cpp:122] Setting up penlu_cccp3
I0916 15:00:23.220762  5444 net.cpp:129] Top shape: 50 192 14 14 (1881600)
I0916 15:00:23.220764  5444 net.cpp:137] Memory required for data: 178595800
I0916 15:00:23.220768  5444 layer_factory.hpp:77] Creating layer cccp4
I0916 15:00:23.220775  5444 net.cpp:84] Creating Layer cccp4
I0916 15:00:23.220778  5444 net.cpp:406] cccp4 <- penlu_cccp3
I0916 15:00:23.220782  5444 net.cpp:380] cccp4 -> cccp4
I0916 15:00:23.222400  5444 net.cpp:122] Setting up cccp4
I0916 15:00:23.222409  5444 net.cpp:129] Top shape: 50 192 14 14 (1881600)
I0916 15:00:23.222411  5444 net.cpp:137] Memory required for data: 186122200
I0916 15:00:23.222416  5444 layer_factory.hpp:77] Creating layer penlu_cccp4
I0916 15:00:23.222421  5444 net.cpp:84] Creating Layer penlu_cccp4
I0916 15:00:23.222424  5444 net.cpp:406] penlu_cccp4 <- cccp4
I0916 15:00:23.222429  5444 net.cpp:380] penlu_cccp4 -> penlu_cccp4
I0916 15:00:23.222549  5444 net.cpp:122] Setting up penlu_cccp4
I0916 15:00:23.222553  5444 net.cpp:129] Top shape: 50 192 14 14 (1881600)
I0916 15:00:23.222555  5444 net.cpp:137] Memory required for data: 193648600
I0916 15:00:23.222560  5444 layer_factory.hpp:77] Creating layer pool2
I0916 15:00:23.222565  5444 net.cpp:84] Creating Layer pool2
I0916 15:00:23.222568  5444 net.cpp:406] pool2 <- penlu_cccp4
I0916 15:00:23.222571  5444 net.cpp:380] pool2 -> pool2
I0916 15:00:23.222687  5444 net.cpp:122] Setting up pool2
I0916 15:00:23.222692  5444 net.cpp:129] Top shape: 50 192 7 7 (470400)
I0916 15:00:23.222694  5444 net.cpp:137] Memory required for data: 195530200
I0916 15:00:23.222697  5444 layer_factory.hpp:77] Creating layer dropout2
I0916 15:00:23.222702  5444 net.cpp:84] Creating Layer dropout2
I0916 15:00:23.222703  5444 net.cpp:406] dropout2 <- pool2
I0916 15:00:23.222707  5444 net.cpp:380] dropout2 -> dropout2
I0916 15:00:23.222728  5444 net.cpp:122] Setting up dropout2
I0916 15:00:23.222733  5444 net.cpp:129] Top shape: 50 192 7 7 (470400)
I0916 15:00:23.222734  5444 net.cpp:137] Memory required for data: 197411800
I0916 15:00:23.222736  5444 layer_factory.hpp:77] Creating layer conv3
I0916 15:00:23.222743  5444 net.cpp:84] Creating Layer conv3
I0916 15:00:23.222744  5444 net.cpp:406] conv3 <- dropout2
I0916 15:00:23.222748  5444 net.cpp:380] conv3 -> conv3
I0916 15:00:23.231875  5444 net.cpp:122] Setting up conv3
I0916 15:00:23.231894  5444 net.cpp:129] Top shape: 50 192 7 7 (470400)
I0916 15:00:23.231896  5444 net.cpp:137] Memory required for data: 199293400
I0916 15:00:23.231912  5444 layer_factory.hpp:77] Creating layer penlu_conv3
I0916 15:00:23.231933  5444 net.cpp:84] Creating Layer penlu_conv3
I0916 15:00:23.231937  5444 net.cpp:406] penlu_conv3 <- conv3
I0916 15:00:23.231952  5444 net.cpp:380] penlu_conv3 -> penlu_conv3
I0916 15:00:23.232100  5444 net.cpp:122] Setting up penlu_conv3
I0916 15:00:23.232115  5444 net.cpp:129] Top shape: 50 192 7 7 (470400)
I0916 15:00:23.232128  5444 net.cpp:137] Memory required for data: 201175000
I0916 15:00:23.232136  5444 layer_factory.hpp:77] Creating layer cccp5
I0916 15:00:23.232146  5444 net.cpp:84] Creating Layer cccp5
I0916 15:00:23.232157  5444 net.cpp:406] cccp5 <- penlu_conv3
I0916 15:00:23.232162  5444 net.cpp:380] cccp5 -> cccp5
I0916 15:00:23.233785  5444 net.cpp:122] Setting up cccp5
I0916 15:00:23.233795  5444 net.cpp:129] Top shape: 50 192 7 7 (470400)
I0916 15:00:23.233809  5444 net.cpp:137] Memory required for data: 203056600
I0916 15:00:23.233814  5444 layer_factory.hpp:77] Creating layer penlu_cccp5
I0916 15:00:23.233821  5444 net.cpp:84] Creating Layer penlu_cccp5
I0916 15:00:23.233824  5444 net.cpp:406] penlu_cccp5 <- cccp5
I0916 15:00:23.233829  5444 net.cpp:380] penlu_cccp5 -> penlu_cccp5
I0916 15:00:23.233945  5444 net.cpp:122] Setting up penlu_cccp5
I0916 15:00:23.233950  5444 net.cpp:129] Top shape: 50 192 7 7 (470400)
I0916 15:00:23.233953  5444 net.cpp:137] Memory required for data: 204938200
I0916 15:00:23.233968  5444 layer_factory.hpp:77] Creating layer cccp6
I0916 15:00:23.233976  5444 net.cpp:84] Creating Layer cccp6
I0916 15:00:23.233979  5444 net.cpp:406] cccp6 <- penlu_cccp5
I0916 15:00:23.233983  5444 net.cpp:380] cccp6 -> cccp6
I0916 15:00:23.234832  5444 net.cpp:122] Setting up cccp6
I0916 15:00:23.234841  5444 net.cpp:129] Top shape: 50 10 7 7 (24500)
I0916 15:00:23.234845  5444 net.cpp:137] Memory required for data: 205036200
I0916 15:00:23.234849  5444 layer_factory.hpp:77] Creating layer penlu_cccp6
I0916 15:00:23.234856  5444 net.cpp:84] Creating Layer penlu_cccp6
I0916 15:00:23.234859  5444 net.cpp:406] penlu_cccp6 <- cccp6
I0916 15:00:23.234863  5444 net.cpp:380] penlu_cccp6 -> penlu_cccp6
I0916 15:00:23.234969  5444 net.cpp:122] Setting up penlu_cccp6
I0916 15:00:23.234974  5444 net.cpp:129] Top shape: 50 10 7 7 (24500)
I0916 15:00:23.234977  5444 net.cpp:137] Memory required for data: 205134200
I0916 15:00:23.234982  5444 layer_factory.hpp:77] Creating layer pool3
I0916 15:00:23.234987  5444 net.cpp:84] Creating Layer pool3
I0916 15:00:23.234992  5444 net.cpp:406] pool3 <- penlu_cccp6
I0916 15:00:23.234994  5444 net.cpp:380] pool3 -> pool3
I0916 15:00:23.235438  5444 net.cpp:122] Setting up pool3
I0916 15:00:23.235448  5444 net.cpp:129] Top shape: 50 10 1 1 (500)
I0916 15:00:23.235451  5444 net.cpp:137] Memory required for data: 205136200
I0916 15:00:23.235455  5444 layer_factory.hpp:77] Creating layer pool3_pool3_0_split
I0916 15:00:23.235460  5444 net.cpp:84] Creating Layer pool3_pool3_0_split
I0916 15:00:23.235462  5444 net.cpp:406] pool3_pool3_0_split <- pool3
I0916 15:00:23.235466  5444 net.cpp:380] pool3_pool3_0_split -> pool3_pool3_0_split_0
I0916 15:00:23.235471  5444 net.cpp:380] pool3_pool3_0_split -> pool3_pool3_0_split_1
I0916 15:00:23.235496  5444 net.cpp:122] Setting up pool3_pool3_0_split
I0916 15:00:23.235501  5444 net.cpp:129] Top shape: 50 10 1 1 (500)
I0916 15:00:23.235503  5444 net.cpp:129] Top shape: 50 10 1 1 (500)
I0916 15:00:23.235505  5444 net.cpp:137] Memory required for data: 205140200
I0916 15:00:23.235508  5444 layer_factory.hpp:77] Creating layer accuracy
I0916 15:00:23.235512  5444 net.cpp:84] Creating Layer accuracy
I0916 15:00:23.235515  5444 net.cpp:406] accuracy <- pool3_pool3_0_split_0
I0916 15:00:23.235519  5444 net.cpp:406] accuracy <- label_cifar_1_split_0
I0916 15:00:23.235522  5444 net.cpp:380] accuracy -> accuracy
…
