…
I0918 10:15:49.219841 14459 net.cpp:294] The NetState phase (0) differed from the phase (1) specified by a rule in layer cifar
I0918 10:15:49.220053 14459 net.cpp:51] Initializing net from parameters: 
name: "nin"
state {
  phase: TRAIN
  level: 0
  stage: ""
}
layer {
  name: "cifar"
  type: "Data"
  top: "data"
  top: "label"
  include {
    phase: TRAIN
  }
  transform_param {
    mirror: true
    crop_size: 28
    mean_file: "/home/x306/caffe/xn/PENLU/data/cifar10/mean.binaryproto"
  }
  data_param {
    source: "/home/x306/caffe/xn/PENLU/data/cifar10/cifar10_train_lmdb"
    batch_size: 64
    backend: LMDB
  }
  image_data_param {
    shuffle: true
  }
}
layer {
  name: "conv1"
  type: "Convolution"
  bottom: "data"
  top: "conv1"
  param {
    lr_mult: 1
    decay_mult: 1
  }
  param {
    lr_mult: 2
    decay_mult: 0
  }
  convolution_param {
    num_output: 192
    pad: 2
    kernel_size: 5
    weight_filler {
      type: "gaussian"
      std: 0.05
    }
    bias_filler {
      type: "constant"
      value: 0
    }
  }
}
layer {
  name: "penlu_conv1"
  type: "PENLU"
  bottom: "conv1"
  top: "penlu_conv1"
  param {
    lr_mult: 1
    decay_mult: 0
  }
  param {
    lr_mult: 1
    decay_mult: 0
  }
  param {
    lr_mult: 1
    decay_mult: 0
  }
  penlu_param {
    alpha_filler {
      type: "constant"
      value: 2
    }
    beta_filler {
      type: "constant"
      value: 1
    }
    eta_filler {
      type: "constant"
      value: 1
    }
  }
}
layer {
  name: "cccp1"
  type: "Convolution"
  bottom: "penlu_conv1"
  top: "cccp1"
  param {
    lr_mult: 1
    decay_mult: 1
  }
  param {
    lr_mult: 2
    decay_mult: 0
  }
  convolution_param {
    num_output: 160
    kernel_size: 1
    weight_filler {
      type: "gaussian"
      std: 0.05
    }
    bias_filler {
      type: "constant"
      value: 0
    }
  }
}
layer {
  name: "penlu_cccp1"
  type: "PENLU"
  bottom: "cccp1"
  top: "penlu_cccp1"
  param {
    lr_mult: 1
    decay_mult: 0
  }
  param {
    lr_mult: 1
    decay_mult: 0
  }
  param {
    lr_mult: 1
    decay_mult: 0
  }
  penlu_param {
    alpha_filler {
      type: "constant"
      value: 2
    }
    beta_filler {
      type: "constant"
      value: 1
    }
    eta_filler {
      type: "constant"
      value: 1
    }
  }
}
layer {
  name: "cccp2"
  type: "Convolution"
  bottom: "penlu_cccp1"
  top: "cccp2"
  param {
    lr_mult: 1
    decay_mult: 1
  }
  param {
    lr_mult: 2
    decay_mult: 0
  }
  convolution_param {
    num_output: 96
    kernel_size: 1
    weight_filler {
      type: "gaussian"
      std: 0.05
    }
    bias_filler {
      type: "constant"
      value: 0
    }
  }
}
layer {
  name: "penlu_cccp2"
  type: "PENLU"
  bottom: "cccp2"
  top: "penlu_cccp2"
  param {
    lr_mult: 1
    decay_mult: 0
  }
  param {
    lr_mult: 1
    decay_mult: 0
  }
  param {
    lr_mult: 1
    decay_mult: 0
  }
  penlu_param {
    alpha_filler {
      type: "constant"
      value: 2
    }
    beta_filler {
      type: "constant"
      value: 1
    }
    eta_filler {
      type: "constant"
      value: 1
    }
  }
}
layer {
  name: "pool1"
  type: "Pooling"
  bottom: "penlu_cccp2"
  top: "pool1"
  pooling_param {
    pool: MAX
    kernel_size: 3
    stride: 2
  }
}
layer {
  name: "dropout1"
  type: "Dropout"
  bottom: "pool1"
  top: "dropout1"
  dropout_param {
    dropout_ratio: 0.5
  }
}
layer {
  name: "conv2"
  type: "Convolution"
  bottom: "dropout1"
  top: "conv2"
  param {
    lr_mult: 1
    decay_mult: 1
  }
  param {
    lr_mult: 2
    decay_mult: 0
  }
  convolution_param {
    num_output: 192
    pad: 2
    kernel_size: 5
    weight_filler {
      type: "gaussian"
      std: 0.05
    }
    bias_filler {
      type: "constant"
      value: 0
    }
  }
}
layer {
  name: "penlu_conv2"
  type: "PENLU"
  bottom: "conv2"
  top: "penlu_conv2"
  param {
    lr_mult: 1
    decay_mult: 0
  }
  param {
    lr_mult: 1
    decay_mult: 0
  }
  param {
    lr_mult: 1
    decay_mult: 0
  }
  penlu_param {
    alpha_filler {
      type: "constant"
      value: 2
    }
    beta_filler {
      type: "constant"
      value: 1
    }
    eta_filler {
      type: "constant"
      value: 1
    }
  }
}
layer {
  name: "cccp3"
  type: "Convolution"
  bottom: "penlu_conv2"
  top: "cccp3"
  param {
    lr_mult: 1
    decay_mult: 1
  }
  param {
    lr_mult: 2
    decay_mult: 0
  }
  convolution_param {
    num_output: 192
    kernel_size: 1
    weight_filler {
      type: "gaussian"
      std: 0.05
    }
    bias_filler {
      type: "constant"
      value: 0
    }
  }
}
layer {
  name: "penlu_cccp3"
  type: "PENLU"
  bottom: "cccp3"
  top: "penlu_cccp3"
  param {
    lr_mult: 1
    decay_mult: 0
  }
  param {
    lr_mult: 1
    decay_mult: 0
  }
  param {
    lr_mult: 1
    decay_mult: 0
  }
  penlu_param {
    alpha_filler {
      type: "constant"
      value: 2
    }
    beta_filler {
      type: "constant"
      value: 1
    }
    eta_filler {
      type: "constant"
      value: 1
    }
  }
}
layer {
  name: "cccp4"
  type: "Convolution"
  bottom: "penlu_cccp3"
  top: "cccp4"
  param {
    lr_mult: 1
    decay_mult: 1
  }
  param {
    lr_mult: 2
    decay_mult: 0
  }
  convolution_param {
    num_output: 192
    kernel_size: 1
    weight_filler {
      type: "gaussian"
      std: 0.05
    }
    bias_filler {
      type: "constant"
      value: 0
    }
  }
}
layer {
  name: "penlu_cccp4"
  type: "PENLU"
  bottom: "cccp4"
  top: "penlu_cccp4"
  param {
    lr_mult: 1
    decay_mult: 0
  }
  param {
    lr_mult: 1
    decay_mult: 0
  }
  param {
    lr_mult: 1
    decay_mult: 0
  }
  penlu_param {
    alpha_filler {
      type: "constant"
      value: 2
    }
    beta_filler {
      type: "constant"
      value: 1
    }
    eta_filler {
      type: "constant"
      value: 1
    }
  }
}
layer {
  name: "pool2"
  type: "Pooling"
  bottom: "penlu_cccp4"
  top: "pool2"
  pooling_param {
    pool: AVE
    kernel_size: 3
    stride: 2
  }
}
layer {
  name: "dropout2"
  type: "Dropout"
  bottom: "pool2"
  top: "dropout2"
  dropout_param {
    dropout_ratio: 0.5
  }
}
layer {
  name: "conv3"
  type: "Convolution"
  bottom: "dropout2"
  top: "conv3"
  param {
    lr_mult: 1
    decay_mult: 1
  }
  param {
    lr_mult: 2
    decay_mult: 0
  }
  convolution_param {
    num_output: 192
    pad: 1
    kernel_size: 3
    weight_filler {
      type: "gaussian"
      std: 0.05
    }
    bias_filler {
      type: "constant"
      value: 0
    }
  }
}
layer {
  name: "penlu_conv3"
  type: "PENLU"
  bottom: "conv3"
  top: "penlu_conv3"
  param {
    lr_mult: 1
    decay_mult: 0
  }
  param {
    lr_mult: 1
    decay_mult: 0
  }
  param {
    lr_mult: 1
    decay_mult: 0
  }
  penlu_param {
    alpha_filler {
      type: "constant"
      value: 2
    }
    beta_filler {
      type: "constant"
      value: 1
    }
    eta_filler {
      type: "constant"
      value: 1
    }
  }
}
layer {
  name: "cccp5"
  type: "Convolution"
  bottom: "penlu_conv3"
  top: "cccp5"
  param {
    lr_mult: 1
    decay_mult: 1
  }
  param {
    lr_mult: 2
    decay_mult: 0
  }
  convolution_param {
    num_output: 192
    kernel_size: 1
    weight_filler {
      type: "gaussian"
      std: 0.05
    }
    bias_filler {
      type: "constant"
      value: 0
    }
  }
}
layer {
  name: "penlu_cccp5"
  type: "PENLU"
  bottom: "cccp5"
  top: "penlu_cccp5"
  param {
    lr_mult: 1
    decay_mult: 0
  }
  param {
    lr_mult: 1
    decay_mult: 0
  }
  param {
    lr_mult: 1
    decay_mult: 0
  }
  penlu_param {
    alpha_filler {
      type: "constant"
      value: 2
    }
    beta_filler {
      type: "constant"
      value: 1
    }
    eta_filler {
      type: "constant"
      value: 1
    }
  }
}
layer {
  name: "cccp6"
  type: "Convolution"
  bottom: "penlu_cccp5"
  top: "cccp6"
  param {
    lr_mult: 0.1
    decay_mult: 1
  }
  param {
    lr_mult: 0.1
    decay_mult: 0
  }
  convolution_param {
    num_output: 10
    kernel_size: 1
    weight_filler {
      type: "gaussian"
      std: 0.05
    }
    bias_filler {
      type: "constant"
      value: 0
    }
  }
}
layer {
  name: "penlu_cccp6"
  type: "PENLU"
  bottom: "cccp6"
  top: "penlu_cccp6"
  param {
    lr_mult: 1
    decay_mult: 0
  }
  param {
    lr_mult: 1
    decay_mult: 0
  }
  param {
    lr_mult: 1
    decay_mult: 0
  }
  penlu_param {
    alpha_filler {
      type: "constant"
      value: 2
    }
    beta_filler {
      type: "constant"
      value: 1
    }
    eta_filler {
      type: "constant"
      value: 1
    }
  }
}
layer {
  name: "pool3"
  type: "Pooling"
  bottom: "penlu_cccp6"
  top: "pool3"
  pooling_param {
    pool: AVE
    kernel_size: 7
    stride: 1
  }
}
layer {
  name: "accuracy"
  type: "Accuracy"
  bottom: "pool3"
  bottom: "label"
  top: "accuracy"
}
layer {
  name: "loss"
  type: "SoftmaxWithLoss"
  bottom: "pool3"
  bottom: "label"
  top: "loss"
}
I0918 10:15:49.220180 14459 layer_factory.hpp:77] Creating layer cifar
I0918 10:15:49.220265 14459 db_lmdb.cpp:35] Opened lmdb /home/x306/caffe/xn/PENLU/data/cifar10/cifar10_train_lmdb
I0918 10:15:49.220304 14459 net.cpp:84] Creating Layer cifar
I0918 10:15:49.220319 14459 net.cpp:380] cifar -> data
I0918 10:15:49.220335 14459 net.cpp:380] cifar -> label
I0918 10:15:49.220352 14459 data_transformer.cpp:25] Loading mean file from: /home/x306/caffe/xn/PENLU/data/cifar10/mean.binaryproto
I0918 10:15:49.221734 14459 data_layer.cpp:45] output data size: 64,3,28,28
I0918 10:15:49.223985 14459 net.cpp:122] Setting up cifar
I0918 10:15:49.224010 14459 net.cpp:129] Top shape: 64 3 28 28 (150528)
I0918 10:15:49.224015 14459 net.cpp:129] Top shape: 64 (64)
I0918 10:15:49.224017 14459 net.cpp:137] Memory required for data: 602368
I0918 10:15:49.224033 14459 layer_factory.hpp:77] Creating layer label_cifar_1_split
I0918 10:15:49.224046 14459 net.cpp:84] Creating Layer label_cifar_1_split
I0918 10:15:49.224052 14459 net.cpp:406] label_cifar_1_split <- label
I0918 10:15:49.224061 14459 net.cpp:380] label_cifar_1_split -> label_cifar_1_split_0
I0918 10:15:49.224069 14459 net.cpp:380] label_cifar_1_split -> label_cifar_1_split_1
I0918 10:15:49.224141 14459 net.cpp:122] Setting up label_cifar_1_split
I0918 10:15:49.224146 14459 net.cpp:129] Top shape: 64 (64)
I0918 10:15:49.224149 14459 net.cpp:129] Top shape: 64 (64)
I0918 10:15:49.224167 14459 net.cpp:137] Memory required for data: 602880
I0918 10:15:49.224169 14459 layer_factory.hpp:77] Creating layer conv1
I0918 10:15:49.224191 14459 net.cpp:84] Creating Layer conv1
I0918 10:15:49.224195 14459 net.cpp:406] conv1 <- data
I0918 10:15:49.224198 14459 net.cpp:380] conv1 -> conv1
I0918 10:15:49.372479 14459 net.cpp:122] Setting up conv1
I0918 10:15:49.372514 14459 net.cpp:129] Top shape: 64 192 28 28 (9633792)
I0918 10:15:49.372519 14459 net.cpp:137] Memory required for data: 39138048
I0918 10:15:49.372534 14459 layer_factory.hpp:77] Creating layer penlu_conv1
I0918 10:15:49.372550 14459 net.cpp:84] Creating Layer penlu_conv1
I0918 10:15:49.372555 14459 net.cpp:406] penlu_conv1 <- conv1
I0918 10:15:49.372560 14459 net.cpp:380] penlu_conv1 -> penlu_conv1
I0918 10:15:49.372779 14459 net.cpp:122] Setting up penlu_conv1
I0918 10:15:49.372786 14459 net.cpp:129] Top shape: 64 192 28 28 (9633792)
I0918 10:15:49.372798 14459 net.cpp:137] Memory required for data: 77673216
I0918 10:15:49.372805 14459 layer_factory.hpp:77] Creating layer cccp1
I0918 10:15:49.372814 14459 net.cpp:84] Creating Layer cccp1
I0918 10:15:49.372817 14459 net.cpp:406] cccp1 <- penlu_conv1
I0918 10:15:49.372822 14459 net.cpp:380] cccp1 -> cccp1
I0918 10:15:49.374945 14459 net.cpp:122] Setting up cccp1
I0918 10:15:49.374966 14459 net.cpp:129] Top shape: 64 160 28 28 (8028160)
I0918 10:15:49.374969 14459 net.cpp:137] Memory required for data: 109785856
I0918 10:15:49.374974 14459 layer_factory.hpp:77] Creating layer penlu_cccp1
I0918 10:15:49.374991 14459 net.cpp:84] Creating Layer penlu_cccp1
I0918 10:15:49.374994 14459 net.cpp:406] penlu_cccp1 <- cccp1
I0918 10:15:49.375008 14459 net.cpp:380] penlu_cccp1 -> penlu_cccp1
I0918 10:15:49.375210 14459 net.cpp:122] Setting up penlu_cccp1
I0918 10:15:49.375216 14459 net.cpp:129] Top shape: 64 160 28 28 (8028160)
I0918 10:15:49.375218 14459 net.cpp:137] Memory required for data: 141898496
I0918 10:15:49.375234 14459 layer_factory.hpp:77] Creating layer cccp2
I0918 10:15:49.375241 14459 net.cpp:84] Creating Layer cccp2
I0918 10:15:49.375254 14459 net.cpp:406] cccp2 <- penlu_cccp1
I0918 10:15:49.375258 14459 net.cpp:380] cccp2 -> cccp2
I0918 10:15:49.376452 14459 net.cpp:122] Setting up cccp2
I0918 10:15:49.376473 14459 net.cpp:129] Top shape: 64 96 28 28 (4816896)
I0918 10:15:49.376477 14459 net.cpp:137] Memory required for data: 161166080
I0918 10:15:49.376482 14459 layer_factory.hpp:77] Creating layer penlu_cccp2
I0918 10:15:49.376487 14459 net.cpp:84] Creating Layer penlu_cccp2
I0918 10:15:49.376504 14459 net.cpp:406] penlu_cccp2 <- cccp2
I0918 10:15:49.376509 14459 net.cpp:380] penlu_cccp2 -> penlu_cccp2
I0918 10:15:49.376675 14459 net.cpp:122] Setting up penlu_cccp2
I0918 10:15:49.376680 14459 net.cpp:129] Top shape: 64 96 28 28 (4816896)
I0918 10:15:49.376693 14459 net.cpp:137] Memory required for data: 180433664
I0918 10:15:49.376698 14459 layer_factory.hpp:77] Creating layer pool1
I0918 10:15:49.376705 14459 net.cpp:84] Creating Layer pool1
I0918 10:15:49.376721 14459 net.cpp:406] pool1 <- penlu_cccp2
I0918 10:15:49.376725 14459 net.cpp:380] pool1 -> pool1
I0918 10:15:49.376775 14459 net.cpp:122] Setting up pool1
I0918 10:15:49.376780 14459 net.cpp:129] Top shape: 64 96 14 14 (1204224)
I0918 10:15:49.376781 14459 net.cpp:137] Memory required for data: 185250560
I0918 10:15:49.376793 14459 layer_factory.hpp:77] Creating layer dropout1
I0918 10:15:49.376798 14459 net.cpp:84] Creating Layer dropout1
I0918 10:15:49.376801 14459 net.cpp:406] dropout1 <- pool1
I0918 10:15:49.376803 14459 net.cpp:380] dropout1 -> dropout1
I0918 10:15:49.376849 14459 net.cpp:122] Setting up dropout1
I0918 10:15:49.376854 14459 net.cpp:129] Top shape: 64 96 14 14 (1204224)
I0918 10:15:49.376857 14459 net.cpp:137] Memory required for data: 190067456
I0918 10:15:49.376869 14459 layer_factory.hpp:77] Creating layer conv2
I0918 10:15:49.376875 14459 net.cpp:84] Creating Layer conv2
I0918 10:15:49.376886 14459 net.cpp:406] conv2 <- dropout1
I0918 10:15:49.376890 14459 net.cpp:380] conv2 -> conv2
I0918 10:15:49.388656 14459 net.cpp:122] Setting up conv2
I0918 10:15:49.388669 14459 net.cpp:129] Top shape: 64 192 14 14 (2408448)
I0918 10:15:49.388672 14459 net.cpp:137] Memory required for data: 199701248
I0918 10:15:49.388680 14459 layer_factory.hpp:77] Creating layer penlu_conv2
I0918 10:15:49.388687 14459 net.cpp:84] Creating Layer penlu_conv2
I0918 10:15:49.388700 14459 net.cpp:406] penlu_conv2 <- conv2
I0918 10:15:49.388705 14459 net.cpp:380] penlu_conv2 -> penlu_conv2
I0918 10:15:49.388864 14459 net.cpp:122] Setting up penlu_conv2
I0918 10:15:49.388870 14459 net.cpp:129] Top shape: 64 192 14 14 (2408448)
I0918 10:15:49.388872 14459 net.cpp:137] Memory required for data: 209335040
I0918 10:15:49.388877 14459 layer_factory.hpp:77] Creating layer cccp3
I0918 10:15:49.388883 14459 net.cpp:84] Creating Layer cccp3
I0918 10:15:49.388886 14459 net.cpp:406] cccp3 <- penlu_conv2
I0918 10:15:49.388900 14459 net.cpp:380] cccp3 -> cccp3
I0918 10:15:49.390559 14459 net.cpp:122] Setting up cccp3
I0918 10:15:49.390570 14459 net.cpp:129] Top shape: 64 192 14 14 (2408448)
I0918 10:15:49.390573 14459 net.cpp:137] Memory required for data: 218968832
I0918 10:15:49.390578 14459 layer_factory.hpp:77] Creating layer penlu_cccp3
I0918 10:15:49.390583 14459 net.cpp:84] Creating Layer penlu_cccp3
I0918 10:15:49.390605 14459 net.cpp:406] penlu_cccp3 <- cccp3
I0918 10:15:49.390625 14459 net.cpp:380] penlu_cccp3 -> penlu_cccp3
I0918 10:15:49.390795 14459 net.cpp:122] Setting up penlu_cccp3
I0918 10:15:49.390801 14459 net.cpp:129] Top shape: 64 192 14 14 (2408448)
I0918 10:15:49.390803 14459 net.cpp:137] Memory required for data: 228602624
I0918 10:15:49.390808 14459 layer_factory.hpp:77] Creating layer cccp4
I0918 10:15:49.390815 14459 net.cpp:84] Creating Layer cccp4
I0918 10:15:49.390816 14459 net.cpp:406] cccp4 <- penlu_cccp3
I0918 10:15:49.390830 14459 net.cpp:380] cccp4 -> cccp4
I0918 10:15:49.392738 14459 net.cpp:122] Setting up cccp4
I0918 10:15:49.392748 14459 net.cpp:129] Top shape: 64 192 14 14 (2408448)
I0918 10:15:49.392751 14459 net.cpp:137] Memory required for data: 238236416
I0918 10:15:49.392756 14459 layer_factory.hpp:77] Creating layer penlu_cccp4
I0918 10:15:49.392762 14459 net.cpp:84] Creating Layer penlu_cccp4
I0918 10:15:49.392765 14459 net.cpp:406] penlu_cccp4 <- cccp4
I0918 10:15:49.392778 14459 net.cpp:380] penlu_cccp4 -> penlu_cccp4
I0918 10:15:49.392930 14459 net.cpp:122] Setting up penlu_cccp4
I0918 10:15:49.392935 14459 net.cpp:129] Top shape: 64 192 14 14 (2408448)
I0918 10:15:49.392936 14459 net.cpp:137] Memory required for data: 247870208
I0918 10:15:49.392941 14459 layer_factory.hpp:77] Creating layer pool2
I0918 10:15:49.392947 14459 net.cpp:84] Creating Layer pool2
I0918 10:15:49.392949 14459 net.cpp:406] pool2 <- penlu_cccp4
I0918 10:15:49.392953 14459 net.cpp:380] pool2 -> pool2
I0918 10:15:49.393111 14459 net.cpp:122] Setting up pool2
I0918 10:15:49.393120 14459 net.cpp:129] Top shape: 64 192 7 7 (602112)
I0918 10:15:49.393121 14459 net.cpp:137] Memory required for data: 250278656
I0918 10:15:49.393123 14459 layer_factory.hpp:77] Creating layer dropout2
I0918 10:15:49.393128 14459 net.cpp:84] Creating Layer dropout2
I0918 10:15:49.393131 14459 net.cpp:406] dropout2 <- pool2
I0918 10:15:49.393134 14459 net.cpp:380] dropout2 -> dropout2
I0918 10:15:49.393189 14459 net.cpp:122] Setting up dropout2
I0918 10:15:49.393194 14459 net.cpp:129] Top shape: 64 192 7 7 (602112)
I0918 10:15:49.393196 14459 net.cpp:137] Memory required for data: 252687104
I0918 10:15:49.393210 14459 layer_factory.hpp:77] Creating layer conv3
I0918 10:15:49.393216 14459 net.cpp:84] Creating Layer conv3
I0918 10:15:49.393219 14459 net.cpp:406] conv3 <- dropout2
I0918 10:15:49.393232 14459 net.cpp:380] conv3 -> conv3
I0918 10:15:49.402156 14459 net.cpp:122] Setting up conv3
I0918 10:15:49.402168 14459 net.cpp:129] Top shape: 64 192 7 7 (602112)
I0918 10:15:49.402170 14459 net.cpp:137] Memory required for data: 255095552
I0918 10:15:49.402175 14459 layer_factory.hpp:77] Creating layer penlu_conv3
I0918 10:15:49.402181 14459 net.cpp:84] Creating Layer penlu_conv3
I0918 10:15:49.402184 14459 net.cpp:406] penlu_conv3 <- conv3
I0918 10:15:49.402199 14459 net.cpp:380] penlu_conv3 -> penlu_conv3
I0918 10:15:49.402338 14459 net.cpp:122] Setting up penlu_conv3
I0918 10:15:49.402343 14459 net.cpp:129] Top shape: 64 192 7 7 (602112)
I0918 10:15:49.402345 14459 net.cpp:137] Memory required for data: 257504000
I0918 10:15:49.402354 14459 layer_factory.hpp:77] Creating layer cccp5
I0918 10:15:49.402359 14459 net.cpp:84] Creating Layer cccp5
I0918 10:15:49.402372 14459 net.cpp:406] cccp5 <- penlu_conv3
I0918 10:15:49.402376 14459 net.cpp:380] cccp5 -> cccp5
I0918 10:15:49.404039 14459 net.cpp:122] Setting up cccp5
I0918 10:15:49.404049 14459 net.cpp:129] Top shape: 64 192 7 7 (602112)
I0918 10:15:49.404052 14459 net.cpp:137] Memory required for data: 259912448
I0918 10:15:49.404057 14459 layer_factory.hpp:77] Creating layer penlu_cccp5
I0918 10:15:49.404063 14459 net.cpp:84] Creating Layer penlu_cccp5
I0918 10:15:49.404065 14459 net.cpp:406] penlu_cccp5 <- cccp5
I0918 10:15:49.404079 14459 net.cpp:380] penlu_cccp5 -> penlu_cccp5
I0918 10:15:49.404225 14459 net.cpp:122] Setting up penlu_cccp5
I0918 10:15:49.404232 14459 net.cpp:129] Top shape: 64 192 7 7 (602112)
I0918 10:15:49.404233 14459 net.cpp:137] Memory required for data: 262320896
I0918 10:15:49.404245 14459 layer_factory.hpp:77] Creating layer cccp6
I0918 10:15:49.404263 14459 net.cpp:84] Creating Layer cccp6
I0918 10:15:49.404265 14459 net.cpp:406] cccp6 <- penlu_cccp5
I0918 10:15:49.404269 14459 net.cpp:380] cccp6 -> cccp6
I0918 10:15:49.405167 14459 net.cpp:122] Setting up cccp6
I0918 10:15:49.405179 14459 net.cpp:129] Top shape: 64 10 7 7 (31360)
I0918 10:15:49.405180 14459 net.cpp:137] Memory required for data: 262446336
I0918 10:15:49.405185 14459 layer_factory.hpp:77] Creating layer penlu_cccp6
I0918 10:15:49.405190 14459 net.cpp:84] Creating Layer penlu_cccp6
I0918 10:15:49.405192 14459 net.cpp:406] penlu_cccp6 <- cccp6
I0918 10:15:49.405207 14459 net.cpp:380] penlu_cccp6 -> penlu_cccp6
I0918 10:15:49.405351 14459 net.cpp:122] Setting up penlu_cccp6
I0918 10:15:49.405359 14459 net.cpp:129] Top shape: 64 10 7 7 (31360)
I0918 10:15:49.405360 14459 net.cpp:137] Memory required for data: 262571776
I0918 10:15:49.405364 14459 layer_factory.hpp:77] Creating layer pool3
I0918 10:15:49.405369 14459 net.cpp:84] Creating Layer pool3
I0918 10:15:49.405371 14459 net.cpp:406] pool3 <- penlu_cccp6
I0918 10:15:49.405375 14459 net.cpp:380] pool3 -> pool3
I0918 10:15:49.405532 14459 net.cpp:122] Setting up pool3
I0918 10:15:49.405540 14459 net.cpp:129] Top shape: 64 10 1 1 (640)
I0918 10:15:49.405542 14459 net.cpp:137] Memory required for data: 262574336
I0918 10:15:49.405544 14459 layer_factory.hpp:77] Creating layer pool3_pool3_0_split
I0918 10:15:49.405550 14459 net.cpp:84] Creating Layer pool3_pool3_0_split
I0918 10:15:49.405551 14459 net.cpp:406] pool3_pool3_0_split <- pool3
I0918 10:15:49.405555 14459 net.cpp:380] pool3_pool3_0_split -> pool3_pool3_0_split_0
I0918 10:15:49.405570 14459 net.cpp:380] pool3_pool3_0_split -> pool3_pool3_0_split_1
I0918 10:15:49.405617 14459 net.cpp:122] Setting up pool3_pool3_0_split
I0918 10:15:49.405632 14459 net.cpp:129] Top shape: 64 10 1 1 (640)
I0918 10:15:49.405634 14459 net.cpp:129] Top shape: 64 10 1 1 (640)
I0918 10:15:49.405637 14459 net.cpp:137] Memory required for data: 262579456
I0918 10:15:49.405638 14459 layer_factory.hpp:77] Creating layer accuracy
I0918 10:15:49.405655 14459 net.cpp:84] Creating Layer accuracy
I0918 10:15:49.405658 14459 net.cpp:406] accuracy <- pool3_pool3_0_split_0
I0918 10:15:49.405670 14459 net.cpp:406] accuracy <- label_cifar_1_split_0
I0918 10:15:49.405673 14459 net.cpp:380] accuracy -> accuracy
…
I0918 10:15:49.406719 14459 net.cpp:294] The NetState phase (1) differed from the phase (0) specified by a rule in layer cifar
I0918 10:15:49.406908 14459 net.cpp:51] Initializing net from parameters: 
name: "nin"
state {
  phase: TEST
}
layer {
  name: "cifar"
  type: "Data"
  top: "data"
  top: "label"
  include {
    phase: TEST
  }
  transform_param {
    mirror: false
    crop_size: 28
    mean_file: "/home/x306/caffe/xn/PENLU/data/cifar10/mean.binaryproto"
  }
  data_param {
    source: "/home/x306/caffe/xn/PENLU/data/cifar10/cifar10_test_lmdb"
    batch_size: 50
    backend: LMDB
  }
}
layer {
  name: "conv1"
  type: "Convolution"
  bottom: "data"
  top: "conv1"
  param {
    lr_mult: 1
    decay_mult: 1
  }
  param {
    lr_mult: 2
    decay_mult: 0
  }
  convolution_param {
    num_output: 192
    pad: 2
    kernel_size: 5
    weight_filler {
      type: "gaussian"
      std: 0.05
    }
    bias_filler {
      type: "constant"
      value: 0
    }
  }
}
layer {
  name: "penlu_conv1"
  type: "PENLU"
  bottom: "conv1"
  top: "penlu_conv1"
  param {
    lr_mult: 1
    decay_mult: 0
  }
  param {
    lr_mult: 1
    decay_mult: 0
  }
  param {
    lr_mult: 1
    decay_mult: 0
  }
  penlu_param {
    alpha_filler {
      type: "constant"
      value: 2
    }
    beta_filler {
      type: "constant"
      value: 1
    }
    eta_filler {
      type: "constant"
      value: 1
    }
  }
}
layer {
  name: "cccp1"
  type: "Convolution"
  bottom: "penlu_conv1"
  top: "cccp1"
  param {
    lr_mult: 1
    decay_mult: 1
  }
  param {
    lr_mult: 2
    decay_mult: 0
  }
  convolution_param {
    num_output: 160
    kernel_size: 1
    weight_filler {
      type: "gaussian"
      std: 0.05
    }
    bias_filler {
      type: "constant"
      value: 0
    }
  }
}
layer {
  name: "penlu_cccp1"
  type: "PENLU"
  bottom: "cccp1"
  top: "penlu_cccp1"
  param {
    lr_mult: 1
    decay_mult: 0
  }
  param {
    lr_mult: 1
    decay_mult: 0
  }
  param {
    lr_mult: 1
    decay_mult: 0
  }
  penlu_param {
    alpha_filler {
      type: "constant"
      value: 2
    }
    beta_filler {
      type: "constant"
      value: 1
    }
    eta_filler {
      type: "constant"
      value: 1
    }
  }
}
layer {
  name: "cccp2"
  type: "Convolution"
  bottom: "penlu_cccp1"
  top: "cccp2"
  param {
    lr_mult: 1
    decay_mult: 1
  }
  param {
    lr_mult: 2
    decay_mult: 0
  }
  convolution_param {
    num_output: 96
    kernel_size: 1
    weight_filler {
      type: "gaussian"
      std: 0.05
    }
    bias_filler {
      type: "constant"
      value: 0
    }
  }
}
layer {
  name: "penlu_cccp2"
  type: "PENLU"
  bottom: "cccp2"
  top: "penlu_cccp2"
  param {
    lr_mult: 1
    decay_mult: 0
  }
  param {
    lr_mult: 1
    decay_mult: 0
  }
  param {
    lr_mult: 1
    decay_mult: 0
  }
  penlu_param {
    alpha_filler {
      type: "constant"
      value: 2
    }
    beta_filler {
      type: "constant"
      value: 1
    }
    eta_filler {
      type: "constant"
      value: 1
    }
  }
}
layer {
  name: "pool1"
  type: "Pooling"
  bottom: "penlu_cccp2"
  top: "pool1"
  pooling_param {
    pool: MAX
    kernel_size: 3
    stride: 2
  }
}
layer {
  name: "dropout1"
  type: "Dropout"
  bottom: "pool1"
  top: "dropout1"
  dropout_param {
    dropout_ratio: 0.5
  }
}
layer {
  name: "conv2"
  type: "Convolution"
  bottom: "dropout1"
  top: "conv2"
  param {
    lr_mult: 1
    decay_mult: 1
  }
  param {
    lr_mult: 2
    decay_mult: 0
  }
  convolution_param {
    num_output: 192
    pad: 2
    kernel_size: 5
    weight_filler {
      type: "gaussian"
      std: 0.05
    }
    bias_filler {
      type: "constant"
      value: 0
    }
  }
}
layer {
  name: "penlu_conv2"
  type: "PENLU"
  bottom: "conv2"
  top: "penlu_conv2"
  param {
    lr_mult: 1
    decay_mult: 0
  }
  param {
    lr_mult: 1
    decay_mult: 0
  }
  param {
    lr_mult: 1
    decay_mult: 0
  }
  penlu_param {
    alpha_filler {
      type: "constant"
      value: 2
    }
    beta_filler {
      type: "constant"
      value: 1
    }
    eta_filler {
      type: "constant"
      value: 1
    }
  }
}
layer {
  name: "cccp3"
  type: "Convolution"
  bottom: "penlu_conv2"
  top: "cccp3"
  param {
    lr_mult: 1
    decay_mult: 1
  }
  param {
    lr_mult: 2
    decay_mult: 0
  }
  convolution_param {
    num_output: 192
    kernel_size: 1
    weight_filler {
      type: "gaussian"
      std: 0.05
    }
    bias_filler {
      type: "constant"
      value: 0
    }
  }
}
layer {
  name: "penlu_cccp3"
  type: "PENLU"
  bottom: "cccp3"
  top: "penlu_cccp3"
  param {
    lr_mult: 1
    decay_mult: 0
  }
  param {
    lr_mult: 1
    decay_mult: 0
  }
  param {
    lr_mult: 1
    decay_mult: 0
  }
  penlu_param {
    alpha_filler {
      type: "constant"
      value: 2
    }
    beta_filler {
      type: "constant"
      value: 1
    }
    eta_filler {
      type: "constant"
      value: 1
    }
  }
}
layer {
  name: "cccp4"
  type: "Convolution"
  bottom: "penlu_cccp3"
  top: "cccp4"
  param {
    lr_mult: 1
    decay_mult: 1
  }
  param {
    lr_mult: 2
    decay_mult: 0
  }
  convolution_param {
    num_output: 192
    kernel_size: 1
    weight_filler {
      type: "gaussian"
      std: 0.05
    }
    bias_filler {
      type: "constant"
      value: 0
    }
  }
}
layer {
  name: "penlu_cccp4"
  type: "PENLU"
  bottom: "cccp4"
  top: "penlu_cccp4"
  param {
    lr_mult: 1
    decay_mult: 0
  }
  param {
    lr_mult: 1
    decay_mult: 0
  }
  param {
    lr_mult: 1
    decay_mult: 0
  }
  penlu_param {
    alpha_filler {
      type: "constant"
      value: 2
    }
    beta_filler {
      type: "constant"
      value: 1
    }
    eta_filler {
      type: "constant"
      value: 1
    }
  }
}
layer {
  name: "pool2"
  type: "Pooling"
  bottom: "penlu_cccp4"
  top: "pool2"
  pooling_param {
    pool: AVE
    kernel_size: 3
    stride: 2
  }
}
layer {
  name: "dropout2"
  type: "Dropout"
  bottom: "pool2"
  top: "dropout2"
  dropout_param {
    dropout_ratio: 0.5
  }
}
layer {
  name: "conv3"
  type: "Convolution"
  bottom: "dropout2"
  top: "conv3"
  param {
    lr_mult: 1
    decay_mult: 1
  }
  param {
    lr_mult: 2
    decay_mult: 0
  }
  convolution_param {
    num_output: 192
    pad: 1
    kernel_size: 3
    weight_filler {
      type: "gaussian"
      std: 0.05
    }
    bias_filler {
      type: "constant"
      value: 0
    }
  }
}
layer {
  name: "penlu_conv3"
  type: "PENLU"
  bottom: "conv3"
  top: "penlu_conv3"
  param {
    lr_mult: 1
    decay_mult: 0
  }
  param {
    lr_mult: 1
    decay_mult: 0
  }
  param {
    lr_mult: 1
    decay_mult: 0
  }
  penlu_param {
    alpha_filler {
      type: "constant"
      value: 2
    }
    beta_filler {
      type: "constant"
      value: 1
    }
    eta_filler {
      type: "constant"
      value: 1
    }
  }
}
layer {
  name: "cccp5"
  type: "Convolution"
  bottom: "penlu_conv3"
  top: "cccp5"
  param {
    lr_mult: 1
    decay_mult: 1
  }
  param {
    lr_mult: 2
    decay_mult: 0
  }
  convolution_param {
    num_output: 192
    kernel_size: 1
    weight_filler {
      type: "gaussian"
      std: 0.05
    }
    bias_filler {
      type: "constant"
      value: 0
    }
  }
}
layer {
  name: "penlu_cccp5"
  type: "PENLU"
  bottom: "cccp5"
  top: "penlu_cccp5"
  param {
    lr_mult: 1
    decay_mult: 0
  }
  param {
    lr_mult: 1
    decay_mult: 0
  }
  param {
    lr_mult: 1
    decay_mult: 0
  }
  penlu_param {
    alpha_filler {
      type: "constant"
      value: 2
    }
    beta_filler {
      type: "constant"
      value: 1
    }
    eta_filler {
      type: "constant"
      value: 1
    }
  }
}
layer {
  name: "cccp6"
  type: "Convolution"
  bottom: "penlu_cccp5"
  top: "cccp6"
  param {
    lr_mult: 0.1
    decay_mult: 1
  }
  param {
    lr_mult: 0.1
    decay_mult: 0
  }
  convolution_param {
    num_output: 10
    kernel_size: 1
    weight_filler {
      type: "gaussian"
      std: 0.05
    }
    bias_filler {
      type: "constant"
      value: 0
    }
  }
}
layer {
  name: "penlu_cccp6"
  type: "PENLU"
  bottom: "cccp6"
  top: "penlu_cccp6"
  param {
    lr_mult: 1
    decay_mult: 0
  }
  param {
    lr_mult: 1
    decay_mult: 0
  }
  param {
    lr_mult: 1
    decay_mult: 0
  }
  penlu_param {
    alpha_filler {
      type: "constant"
      value: 2
    }
    beta_filler {
      type: "constant"
      value: 1
    }
    eta_filler {
      type: "constant"
      value: 1
    }
  }
}
layer {
  name: "pool3"
  type: "Pooling"
  bottom: "penlu_cccp6"
  top: "pool3"
  pooling_param {
    pool: AVE
    kernel_size: 7
    stride: 1
  }
}
layer {
  name: "accuracy"
  type: "Accuracy"
  bottom: "pool3"
  bottom: "label"
  top: "accuracy"
}
layer {
  name: "loss"
  type: "SoftmaxWithLoss"
  bottom: "pool3"
  bottom: "label"
  top: "loss"
}
I0918 10:15:49.407008 14459 layer_factory.hpp:77] Creating layer cifar
I0918 10:15:49.407044 14459 db_lmdb.cpp:35] Opened lmdb /home/x306/caffe/xn/PENLU/data/cifar10/cifar10_test_lmdb
I0918 10:15:49.407054 14459 net.cpp:84] Creating Layer cifar
I0918 10:15:49.407058 14459 net.cpp:380] cifar -> data
I0918 10:15:49.407063 14459 net.cpp:380] cifar -> label
I0918 10:15:49.407068 14459 data_transformer.cpp:25] Loading mean file from: /home/x306/caffe/xn/PENLU/data/cifar10/mean.binaryproto
I0918 10:15:49.407174 14459 data_layer.cpp:45] output data size: 50,3,28,28
I0918 10:15:49.408339 14459 net.cpp:122] Setting up cifar
I0918 10:15:49.408361 14459 net.cpp:129] Top shape: 50 3 28 28 (117600)
I0918 10:15:49.408365 14459 net.cpp:129] Top shape: 50 (50)
I0918 10:15:49.408367 14459 net.cpp:137] Memory required for data: 470600
I0918 10:15:49.408371 14459 layer_factory.hpp:77] Creating layer label_cifar_1_split
I0918 10:15:49.408378 14459 net.cpp:84] Creating Layer label_cifar_1_split
I0918 10:15:49.408382 14459 net.cpp:406] label_cifar_1_split <- label
I0918 10:15:49.408386 14459 net.cpp:380] label_cifar_1_split -> label_cifar_1_split_0
I0918 10:15:49.408392 14459 net.cpp:380] label_cifar_1_split -> label_cifar_1_split_1
I0918 10:15:49.408445 14459 net.cpp:122] Setting up label_cifar_1_split
I0918 10:15:49.408450 14459 net.cpp:129] Top shape: 50 (50)
I0918 10:15:49.408453 14459 net.cpp:129] Top shape: 50 (50)
I0918 10:15:49.408455 14459 net.cpp:137] Memory required for data: 471000
I0918 10:15:49.408458 14459 layer_factory.hpp:77] Creating layer conv1
I0918 10:15:49.408466 14459 net.cpp:84] Creating Layer conv1
I0918 10:15:49.408469 14459 net.cpp:406] conv1 <- data
I0918 10:15:49.408474 14459 net.cpp:380] conv1 -> conv1
I0918 10:15:49.409925 14459 net.cpp:122] Setting up conv1
I0918 10:15:49.409935 14459 net.cpp:129] Top shape: 50 192 28 28 (7526400)
I0918 10:15:49.409939 14459 net.cpp:137] Memory required for data: 30576600
I0918 10:15:49.409947 14459 layer_factory.hpp:77] Creating layer penlu_conv1
I0918 10:15:49.409955 14459 net.cpp:84] Creating Layer penlu_conv1
I0918 10:15:49.409957 14459 net.cpp:406] penlu_conv1 <- conv1
I0918 10:15:49.409962 14459 net.cpp:380] penlu_conv1 -> penlu_conv1
I0918 10:15:49.410156 14459 net.cpp:122] Setting up penlu_conv1
I0918 10:15:49.410163 14459 net.cpp:129] Top shape: 50 192 28 28 (7526400)
I0918 10:15:49.410167 14459 net.cpp:137] Memory required for data: 60682200
I0918 10:15:49.410174 14459 layer_factory.hpp:77] Creating layer cccp1
I0918 10:15:49.410182 14459 net.cpp:84] Creating Layer cccp1
I0918 10:15:49.410185 14459 net.cpp:406] cccp1 <- penlu_conv1
I0918 10:15:49.410190 14459 net.cpp:380] cccp1 -> cccp1
I0918 10:15:49.411801 14459 net.cpp:122] Setting up cccp1
I0918 10:15:49.411811 14459 net.cpp:129] Top shape: 50 160 28 28 (6272000)
I0918 10:15:49.411815 14459 net.cpp:137] Memory required for data: 85770200
I0918 10:15:49.411820 14459 layer_factory.hpp:77] Creating layer penlu_cccp1
I0918 10:15:49.411828 14459 net.cpp:84] Creating Layer penlu_cccp1
I0918 10:15:49.411830 14459 net.cpp:406] penlu_cccp1 <- cccp1
I0918 10:15:49.411835 14459 net.cpp:380] penlu_cccp1 -> penlu_cccp1
I0918 10:15:49.412525 14459 net.cpp:122] Setting up penlu_cccp1
I0918 10:15:49.412536 14459 net.cpp:129] Top shape: 50 160 28 28 (6272000)
I0918 10:15:49.412539 14459 net.cpp:137] Memory required for data: 110858200
I0918 10:15:49.412545 14459 layer_factory.hpp:77] Creating layer cccp2
I0918 10:15:49.412554 14459 net.cpp:84] Creating Layer cccp2
I0918 10:15:49.412557 14459 net.cpp:406] cccp2 <- penlu_cccp1
I0918 10:15:49.412561 14459 net.cpp:380] cccp2 -> cccp2
I0918 10:15:49.413817 14459 net.cpp:122] Setting up cccp2
I0918 10:15:49.413828 14459 net.cpp:129] Top shape: 50 96 28 28 (3763200)
I0918 10:15:49.413832 14459 net.cpp:137] Memory required for data: 125911000
I0918 10:15:49.413837 14459 layer_factory.hpp:77] Creating layer penlu_cccp2
I0918 10:15:49.413844 14459 net.cpp:84] Creating Layer penlu_cccp2
I0918 10:15:49.413847 14459 net.cpp:406] penlu_cccp2 <- cccp2
I0918 10:15:49.413852 14459 net.cpp:380] penlu_cccp2 -> penlu_cccp2
I0918 10:15:49.414000 14459 net.cpp:122] Setting up penlu_cccp2
I0918 10:15:49.414007 14459 net.cpp:129] Top shape: 50 96 28 28 (3763200)
I0918 10:15:49.414011 14459 net.cpp:137] Memory required for data: 140963800
I0918 10:15:49.414014 14459 layer_factory.hpp:77] Creating layer pool1
I0918 10:15:49.414022 14459 net.cpp:84] Creating Layer pool1
I0918 10:15:49.414026 14459 net.cpp:406] pool1 <- penlu_cccp2
I0918 10:15:49.414029 14459 net.cpp:380] pool1 -> pool1
I0918 10:15:49.414057 14459 net.cpp:122] Setting up pool1
I0918 10:15:49.414062 14459 net.cpp:129] Top shape: 50 96 14 14 (940800)
I0918 10:15:49.414064 14459 net.cpp:137] Memory required for data: 144727000
I0918 10:15:49.414067 14459 layer_factory.hpp:77] Creating layer dropout1
I0918 10:15:49.414072 14459 net.cpp:84] Creating Layer dropout1
I0918 10:15:49.414074 14459 net.cpp:406] dropout1 <- pool1
I0918 10:15:49.414077 14459 net.cpp:380] dropout1 -> dropout1
I0918 10:15:49.414103 14459 net.cpp:122] Setting up dropout1
I0918 10:15:49.414108 14459 net.cpp:129] Top shape: 50 96 14 14 (940800)
I0918 10:15:49.414110 14459 net.cpp:137] Memory required for data: 148490200
I0918 10:15:49.414113 14459 layer_factory.hpp:77] Creating layer conv2
I0918 10:15:49.414119 14459 net.cpp:84] Creating Layer conv2
I0918 10:15:49.414122 14459 net.cpp:406] conv2 <- dropout1
I0918 10:15:49.414127 14459 net.cpp:380] conv2 -> conv2
I0918 10:15:49.426020 14459 net.cpp:122] Setting up conv2
I0918 10:15:49.426033 14459 net.cpp:129] Top shape: 50 192 14 14 (1881600)
I0918 10:15:49.426036 14459 net.cpp:137] Memory required for data: 156016600
I0918 10:15:49.426054 14459 layer_factory.hpp:77] Creating layer penlu_conv2
I0918 10:15:49.426095 14459 net.cpp:84] Creating Layer penlu_conv2
I0918 10:15:49.426100 14459 net.cpp:406] penlu_conv2 <- conv2
I0918 10:15:49.426117 14459 net.cpp:380] penlu_conv2 -> penlu_conv2
I0918 10:15:49.426278 14459 net.cpp:122] Setting up penlu_conv2
I0918 10:15:49.426285 14459 net.cpp:129] Top shape: 50 192 14 14 (1881600)
I0918 10:15:49.426287 14459 net.cpp:137] Memory required for data: 163543000
I0918 10:15:49.426301 14459 layer_factory.hpp:77] Creating layer cccp3
I0918 10:15:49.426309 14459 net.cpp:84] Creating Layer cccp3
I0918 10:15:49.426312 14459 net.cpp:406] cccp3 <- penlu_conv2
I0918 10:15:49.426326 14459 net.cpp:380] cccp3 -> cccp3
I0918 10:15:49.427995 14459 net.cpp:122] Setting up cccp3
I0918 10:15:49.428015 14459 net.cpp:129] Top shape: 50 192 14 14 (1881600)
I0918 10:15:49.428019 14459 net.cpp:137] Memory required for data: 171069400
I0918 10:15:49.428022 14459 layer_factory.hpp:77] Creating layer penlu_cccp3
I0918 10:15:49.428028 14459 net.cpp:84] Creating Layer penlu_cccp3
I0918 10:15:49.428030 14459 net.cpp:406] penlu_cccp3 <- cccp3
I0918 10:15:49.428035 14459 net.cpp:380] penlu_cccp3 -> penlu_cccp3
I0918 10:15:49.428169 14459 net.cpp:122] Setting up penlu_cccp3
I0918 10:15:49.428174 14459 net.cpp:129] Top shape: 50 192 14 14 (1881600)
I0918 10:15:49.428175 14459 net.cpp:137] Memory required for data: 178595800
I0918 10:15:49.428179 14459 layer_factory.hpp:77] Creating layer cccp4
I0918 10:15:49.428185 14459 net.cpp:84] Creating Layer cccp4
I0918 10:15:49.428189 14459 net.cpp:406] cccp4 <- penlu_cccp3
I0918 10:15:49.428194 14459 net.cpp:380] cccp4 -> cccp4
I0918 10:15:49.429867 14459 net.cpp:122] Setting up cccp4
I0918 10:15:49.429877 14459 net.cpp:129] Top shape: 50 192 14 14 (1881600)
I0918 10:15:49.429880 14459 net.cpp:137] Memory required for data: 186122200
I0918 10:15:49.429884 14459 layer_factory.hpp:77] Creating layer penlu_cccp4
I0918 10:15:49.429889 14459 net.cpp:84] Creating Layer penlu_cccp4
I0918 10:15:49.429893 14459 net.cpp:406] penlu_cccp4 <- cccp4
I0918 10:15:49.429896 14459 net.cpp:380] penlu_cccp4 -> penlu_cccp4
I0918 10:15:49.430029 14459 net.cpp:122] Setting up penlu_cccp4
I0918 10:15:49.430034 14459 net.cpp:129] Top shape: 50 192 14 14 (1881600)
I0918 10:15:49.430037 14459 net.cpp:137] Memory required for data: 193648600
I0918 10:15:49.430040 14459 layer_factory.hpp:77] Creating layer pool2
I0918 10:15:49.430047 14459 net.cpp:84] Creating Layer pool2
I0918 10:15:49.430050 14459 net.cpp:406] pool2 <- penlu_cccp4
I0918 10:15:49.430053 14459 net.cpp:380] pool2 -> pool2
I0918 10:15:49.430182 14459 net.cpp:122] Setting up pool2
I0918 10:15:49.430188 14459 net.cpp:129] Top shape: 50 192 7 7 (470400)
I0918 10:15:49.430191 14459 net.cpp:137] Memory required for data: 195530200
I0918 10:15:49.430193 14459 layer_factory.hpp:77] Creating layer dropout2
I0918 10:15:49.430198 14459 net.cpp:84] Creating Layer dropout2
I0918 10:15:49.430200 14459 net.cpp:406] dropout2 <- pool2
I0918 10:15:49.430203 14459 net.cpp:380] dropout2 -> dropout2
I0918 10:15:49.430228 14459 net.cpp:122] Setting up dropout2
I0918 10:15:49.430233 14459 net.cpp:129] Top shape: 50 192 7 7 (470400)
I0918 10:15:49.430234 14459 net.cpp:137] Memory required for data: 197411800
I0918 10:15:49.430236 14459 layer_factory.hpp:77] Creating layer conv3
I0918 10:15:49.430243 14459 net.cpp:84] Creating Layer conv3
I0918 10:15:49.430244 14459 net.cpp:406] conv3 <- dropout2
I0918 10:15:49.430248 14459 net.cpp:380] conv3 -> conv3
I0918 10:15:49.439486 14459 net.cpp:122] Setting up conv3
I0918 10:15:49.439498 14459 net.cpp:129] Top shape: 50 192 7 7 (470400)
I0918 10:15:49.439501 14459 net.cpp:137] Memory required for data: 199293400
I0918 10:15:49.439505 14459 layer_factory.hpp:77] Creating layer penlu_conv3
I0918 10:15:49.439512 14459 net.cpp:84] Creating Layer penlu_conv3
I0918 10:15:49.439514 14459 net.cpp:406] penlu_conv3 <- conv3
I0918 10:15:49.439530 14459 net.cpp:380] penlu_conv3 -> penlu_conv3
I0918 10:15:49.439687 14459 net.cpp:122] Setting up penlu_conv3
I0918 10:15:49.439692 14459 net.cpp:129] Top shape: 50 192 7 7 (470400)
I0918 10:15:49.439713 14459 net.cpp:137] Memory required for data: 201175000
I0918 10:15:49.439721 14459 layer_factory.hpp:77] Creating layer cccp5
I0918 10:15:49.439729 14459 net.cpp:84] Creating Layer cccp5
I0918 10:15:49.439733 14459 net.cpp:406] cccp5 <- penlu_conv3
I0918 10:15:49.439736 14459 net.cpp:380] cccp5 -> cccp5
I0918 10:15:49.441517 14459 net.cpp:122] Setting up cccp5
I0918 10:15:49.441529 14459 net.cpp:129] Top shape: 50 192 7 7 (470400)
I0918 10:15:49.441531 14459 net.cpp:137] Memory required for data: 203056600
I0918 10:15:49.441536 14459 layer_factory.hpp:77] Creating layer penlu_cccp5
I0918 10:15:49.441542 14459 net.cpp:84] Creating Layer penlu_cccp5
I0918 10:15:49.441545 14459 net.cpp:406] penlu_cccp5 <- cccp5
I0918 10:15:49.441550 14459 net.cpp:380] penlu_cccp5 -> penlu_cccp5
I0918 10:15:49.441694 14459 net.cpp:122] Setting up penlu_cccp5
I0918 10:15:49.441699 14459 net.cpp:129] Top shape: 50 192 7 7 (470400)
I0918 10:15:49.441701 14459 net.cpp:137] Memory required for data: 204938200
I0918 10:15:49.441705 14459 layer_factory.hpp:77] Creating layer cccp6
I0918 10:15:49.441712 14459 net.cpp:84] Creating Layer cccp6
I0918 10:15:49.441715 14459 net.cpp:406] cccp6 <- penlu_cccp5
I0918 10:15:49.441730 14459 net.cpp:380] cccp6 -> cccp6
I0918 10:15:49.442687 14459 net.cpp:122] Setting up cccp6
I0918 10:15:49.442698 14459 net.cpp:129] Top shape: 50 10 7 7 (24500)
I0918 10:15:49.442700 14459 net.cpp:137] Memory required for data: 205036200
I0918 10:15:49.442715 14459 layer_factory.hpp:77] Creating layer penlu_cccp6
I0918 10:15:49.442723 14459 net.cpp:84] Creating Layer penlu_cccp6
I0918 10:15:49.442739 14459 net.cpp:406] penlu_cccp6 <- cccp6
I0918 10:15:49.442744 14459 net.cpp:380] penlu_cccp6 -> penlu_cccp6
I0918 10:15:49.442884 14459 net.cpp:122] Setting up penlu_cccp6
I0918 10:15:49.442890 14459 net.cpp:129] Top shape: 50 10 7 7 (24500)
I0918 10:15:49.442893 14459 net.cpp:137] Memory required for data: 205134200
I0918 10:15:49.442909 14459 layer_factory.hpp:77] Creating layer pool3
I0918 10:15:49.442914 14459 net.cpp:84] Creating Layer pool3
I0918 10:15:49.442917 14459 net.cpp:406] pool3 <- penlu_cccp6
I0918 10:15:49.442921 14459 net.cpp:380] pool3 -> pool3
I0918 10:15:49.443380 14459 net.cpp:122] Setting up pool3
I0918 10:15:49.443390 14459 net.cpp:129] Top shape: 50 10 1 1 (500)
I0918 10:15:49.443403 14459 net.cpp:137] Memory required for data: 205136200
I0918 10:15:49.443405 14459 layer_factory.hpp:77] Creating layer pool3_pool3_0_split
I0918 10:15:49.443411 14459 net.cpp:84] Creating Layer pool3_pool3_0_split
I0918 10:15:49.443413 14459 net.cpp:406] pool3_pool3_0_split <- pool3
I0918 10:15:49.443426 14459 net.cpp:380] pool3_pool3_0_split -> pool3_pool3_0_split_0
I0918 10:15:49.443433 14459 net.cpp:380] pool3_pool3_0_split -> pool3_pool3_0_split_1
I0918 10:15:49.443457 14459 net.cpp:122] Setting up pool3_pool3_0_split
I0918 10:15:49.443462 14459 net.cpp:129] Top shape: 50 10 1 1 (500)
I0918 10:15:49.443465 14459 net.cpp:129] Top shape: 50 10 1 1 (500)
I0918 10:15:49.443467 14459 net.cpp:137] Memory required for data: 205140200
I0918 10:15:49.443470 14459 layer_factory.hpp:77] Creating layer accuracy
I0918 10:15:49.443472 14459 net.cpp:84] Creating Layer accuracy
I0918 10:15:49.443477 14459 net.cpp:406] accuracy <- pool3_pool3_0_split_0
I0918 10:15:49.443480 14459 net.cpp:406] accuracy <- label_cifar_1_split_0
I0918 10:15:49.443483 14459 net.cpp:380] accuracy -> accuracy
…
