…
I0918 11:20:58.854265 31958 net.cpp:294] The NetState phase (0) differed from the phase (1) specified by a rule in layer cifar
I0918 11:20:58.854480 31958 net.cpp:51] Initializing net from parameters: 
name: "nin"
state {
  phase: TRAIN
  level: 0
  stage: ""
}
layer {
  name: "cifar"
  type: "Data"
  top: "data"
  top: "label"
  include {
    phase: TRAIN
  }
  transform_param {
    mirror: true
    crop_size: 28
    mean_file: "/home/x306/caffe/xn/PENLU/data/cifar10/mean.binaryproto"
  }
  data_param {
    source: "/home/x306/caffe/xn/PENLU/data/cifar10/cifar10_train_lmdb"
    batch_size: 64
    backend: LMDB
  }
  image_data_param {
    shuffle: true
  }
}
layer {
  name: "conv1"
  type: "Convolution"
  bottom: "data"
  top: "conv1"
  param {
    lr_mult: 1
    decay_mult: 1
  }
  param {
    lr_mult: 2
    decay_mult: 0
  }
  convolution_param {
    num_output: 192
    pad: 2
    kernel_size: 5
    weight_filler {
      type: "gaussian"
      std: 0.05
    }
    bias_filler {
      type: "constant"
      value: 0
    }
  }
}
layer {
  name: "penlu_conv1"
  type: "PENLU"
  bottom: "conv1"
  top: "penlu_conv1"
  param {
    lr_mult: 1
    decay_mult: 0
  }
  param {
    lr_mult: 1
    decay_mult: 0
  }
  param {
    lr_mult: 1
    decay_mult: 0
  }
  penlu_param {
    alpha_filler {
      type: "constant"
      value: 1
    }
    beta_filler {
      type: "constant"
      value: 1
    }
    eta_filler {
      type: "constant"
      value: 1
    }
  }
}
layer {
  name: "cccp1"
  type: "Convolution"
  bottom: "penlu_conv1"
  top: "cccp1"
  param {
    lr_mult: 1
    decay_mult: 1
  }
  param {
    lr_mult: 2
    decay_mult: 0
  }
  convolution_param {
    num_output: 160
    kernel_size: 1
    weight_filler {
      type: "gaussian"
      std: 0.05
    }
    bias_filler {
      type: "constant"
      value: 0
    }
  }
}
layer {
  name: "penlu_cccp1"
  type: "PENLU"
  bottom: "cccp1"
  top: "penlu_cccp1"
  param {
    lr_mult: 1
    decay_mult: 0
  }
  param {
    lr_mult: 1
    decay_mult: 0
  }
  param {
    lr_mult: 1
    decay_mult: 0
  }
  penlu_param {
    alpha_filler {
      type: "constant"
      value: 1
    }
    beta_filler {
      type: "constant"
      value: 1
    }
    eta_filler {
      type: "constant"
      value: 1
    }
  }
}
layer {
  name: "cccp2"
  type: "Convolution"
  bottom: "penlu_cccp1"
  top: "cccp2"
  param {
    lr_mult: 1
    decay_mult: 1
  }
  param {
    lr_mult: 2
    decay_mult: 0
  }
  convolution_param {
    num_output: 96
    kernel_size: 1
    weight_filler {
      type: "gaussian"
      std: 0.05
    }
    bias_filler {
      type: "constant"
      value: 0
    }
  }
}
layer {
  name: "penlu_cccp2"
  type: "PENLU"
  bottom: "cccp2"
  top: "penlu_cccp2"
  param {
    lr_mult: 1
    decay_mult: 0
  }
  param {
    lr_mult: 1
    decay_mult: 0
  }
  param {
    lr_mult: 1
    decay_mult: 0
  }
  penlu_param {
    alpha_filler {
      type: "constant"
      value: 1
    }
    beta_filler {
      type: "constant"
      value: 1
    }
    eta_filler {
      type: "constant"
      value: 1
    }
  }
}
layer {
  name: "pool1"
  type: "Pooling"
  bottom: "penlu_cccp2"
  top: "pool1"
  pooling_param {
    pool: MAX
    kernel_size: 3
    stride: 2
  }
}
layer {
  name: "dropout1"
  type: "Dropout"
  bottom: "pool1"
  top: "dropout1"
  dropout_param {
    dropout_ratio: 0.5
  }
}
layer {
  name: "conv2"
  type: "Convolution"
  bottom: "dropout1"
  top: "conv2"
  param {
    lr_mult: 1
    decay_mult: 1
  }
  param {
    lr_mult: 2
    decay_mult: 0
  }
  convolution_param {
    num_output: 192
    pad: 2
    kernel_size: 5
    weight_filler {
      type: "gaussian"
      std: 0.05
    }
    bias_filler {
      type: "constant"
      value: 0
    }
  }
}
layer {
  name: "penlu_conv2"
  type: "PENLU"
  bottom: "conv2"
  top: "penlu_conv2"
  param {
    lr_mult: 1
    decay_mult: 0
  }
  param {
    lr_mult: 1
    decay_mult: 0
  }
  param {
    lr_mult: 1
    decay_mult: 0
  }
  penlu_param {
    alpha_filler {
      type: "constant"
      value: 1
    }
    beta_filler {
      type: "constant"
      value: 1
    }
    eta_filler {
      type: "constant"
      value: 1
    }
  }
}
layer {
  name: "cccp3"
  type: "Convolution"
  bottom: "penlu_conv2"
  top: "cccp3"
  param {
    lr_mult: 1
    decay_mult: 1
  }
  param {
    lr_mult: 2
    decay_mult: 0
  }
  convolution_param {
    num_output: 192
    kernel_size: 1
    weight_filler {
      type: "gaussian"
      std: 0.05
    }
    bias_filler {
      type: "constant"
      value: 0
    }
  }
}
layer {
  name: "penlu_cccp3"
  type: "PENLU"
  bottom: "cccp3"
  top: "penlu_cccp3"
  param {
    lr_mult: 1
    decay_mult: 0
  }
  param {
    lr_mult: 1
    decay_mult: 0
  }
  param {
    lr_mult: 1
    decay_mult: 0
  }
  penlu_param {
    alpha_filler {
      type: "constant"
      value: 1
    }
    beta_filler {
      type: "constant"
      value: 1
    }
    eta_filler {
      type: "constant"
      value: 1
    }
  }
}
layer {
  name: "cccp4"
  type: "Convolution"
  bottom: "penlu_cccp3"
  top: "cccp4"
  param {
    lr_mult: 1
    decay_mult: 1
  }
  param {
    lr_mult: 2
    decay_mult: 0
  }
  convolution_param {
    num_output: 192
    kernel_size: 1
    weight_filler {
      type: "gaussian"
      std: 0.05
    }
    bias_filler {
      type: "constant"
      value: 0
    }
  }
}
layer {
  name: "penlu_cccp4"
  type: "PENLU"
  bottom: "cccp4"
  top: "penlu_cccp4"
  param {
    lr_mult: 1
    decay_mult: 0
  }
  param {
    lr_mult: 1
    decay_mult: 0
  }
  param {
    lr_mult: 1
    decay_mult: 0
  }
  penlu_param {
    alpha_filler {
      type: "constant"
      value: 1
    }
    beta_filler {
      type: "constant"
      value: 1
    }
    eta_filler {
      type: "constant"
      value: 1
    }
  }
}
layer {
  name: "pool2"
  type: "Pooling"
  bottom: "penlu_cccp4"
  top: "pool2"
  pooling_param {
    pool: AVE
    kernel_size: 3
    stride: 2
  }
}
layer {
  name: "dropout2"
  type: "Dropout"
  bottom: "pool2"
  top: "dropout2"
  dropout_param {
    dropout_ratio: 0.5
  }
}
layer {
  name: "conv3"
  type: "Convolution"
  bottom: "dropout2"
  top: "conv3"
  param {
    lr_mult: 1
    decay_mult: 1
  }
  param {
    lr_mult: 2
    decay_mult: 0
  }
  convolution_param {
    num_output: 192
    pad: 1
    kernel_size: 3
    weight_filler {
      type: "gaussian"
      std: 0.05
    }
    bias_filler {
      type: "constant"
      value: 0
    }
  }
}
layer {
  name: "penlu_conv3"
  type: "PENLU"
  bottom: "conv3"
  top: "penlu_conv3"
  param {
    lr_mult: 1
    decay_mult: 0
  }
  param {
    lr_mult: 1
    decay_mult: 0
  }
  param {
    lr_mult: 1
    decay_mult: 0
  }
  penlu_param {
    alpha_filler {
      type: "constant"
      value: 1
    }
    beta_filler {
      type: "constant"
      value: 1
    }
    eta_filler {
      type: "constant"
      value: 1
    }
  }
}
layer {
  name: "cccp5"
  type: "Convolution"
  bottom: "penlu_conv3"
  top: "cccp5"
  param {
    lr_mult: 1
    decay_mult: 1
  }
  param {
    lr_mult: 2
    decay_mult: 0
  }
  convolution_param {
    num_output: 192
    kernel_size: 1
    weight_filler {
      type: "gaussian"
      std: 0.05
    }
    bias_filler {
      type: "constant"
      value: 0
    }
  }
}
layer {
  name: "penlu_cccp5"
  type: "PENLU"
  bottom: "cccp5"
  top: "penlu_cccp5"
  param {
    lr_mult: 1
    decay_mult: 0
  }
  param {
    lr_mult: 1
    decay_mult: 0
  }
  param {
    lr_mult: 1
    decay_mult: 0
  }
  penlu_param {
    alpha_filler {
      type: "constant"
      value: 1
    }
    beta_filler {
      type: "constant"
      value: 1
    }
    eta_filler {
      type: "constant"
      value: 1
    }
  }
}
layer {
  name: "cccp6"
  type: "Convolution"
  bottom: "penlu_cccp5"
  top: "cccp6"
  param {
    lr_mult: 0.1
    decay_mult: 1
  }
  param {
    lr_mult: 0.1
    decay_mult: 0
  }
  convolution_param {
    num_output: 10
    kernel_size: 1
    weight_filler {
      type: "gaussian"
      std: 0.05
    }
    bias_filler {
      type: "constant"
      value: 0
    }
  }
}
layer {
  name: "penlu_cccp6"
  type: "PENLU"
  bottom: "cccp6"
  top: "penlu_cccp6"
  param {
    lr_mult: 1
    decay_mult: 0
  }
  param {
    lr_mult: 1
    decay_mult: 0
  }
  param {
    lr_mult: 1
    decay_mult: 0
  }
  penlu_param {
    alpha_filler {
      type: "constant"
      value: 1
    }
    beta_filler {
      type: "constant"
      value: 1
    }
    eta_filler {
      type: "constant"
      value: 1
    }
  }
}
layer {
  name: "pool3"
  type: "Pooling"
  bottom: "penlu_cccp6"
  top: "pool3"
  pooling_param {
    pool: AVE
    kernel_size: 7
    stride: 1
  }
}
layer {
  name: "accuracy"
  type: "Accuracy"
  bottom: "pool3"
  bottom: "label"
  top: "accuracy"
}
layer {
  name: "loss"
  type: "SoftmaxWithLoss"
  bottom: "pool3"
  bottom: "label"
  top: "loss"
}
I0918 11:20:58.854619 31958 layer_factory.hpp:77] Creating layer cifar
I0918 11:20:58.854698 31958 db_lmdb.cpp:35] Opened lmdb /home/x306/caffe/xn/PENLU/data/cifar10/cifar10_train_lmdb
I0918 11:20:58.854746 31958 net.cpp:84] Creating Layer cifar
I0918 11:20:58.854753 31958 net.cpp:380] cifar -> data
I0918 11:20:58.854784 31958 net.cpp:380] cifar -> label
I0918 11:20:58.854804 31958 data_transformer.cpp:25] Loading mean file from: /home/x306/caffe/xn/PENLU/data/cifar10/mean.binaryproto
I0918 11:20:58.856225 31958 data_layer.cpp:45] output data size: 64,3,28,28
I0918 11:20:58.858592 31958 net.cpp:122] Setting up cifar
I0918 11:20:58.858609 31958 net.cpp:129] Top shape: 64 3 28 28 (150528)
I0918 11:20:58.858613 31958 net.cpp:129] Top shape: 64 (64)
I0918 11:20:58.858625 31958 net.cpp:137] Memory required for data: 602368
I0918 11:20:58.858633 31958 layer_factory.hpp:77] Creating layer label_cifar_1_split
I0918 11:20:58.858645 31958 net.cpp:84] Creating Layer label_cifar_1_split
I0918 11:20:58.858651 31958 net.cpp:406] label_cifar_1_split <- label
I0918 11:20:58.858669 31958 net.cpp:380] label_cifar_1_split -> label_cifar_1_split_0
I0918 11:20:58.858687 31958 net.cpp:380] label_cifar_1_split -> label_cifar_1_split_1
I0918 11:20:58.858718 31958 net.cpp:122] Setting up label_cifar_1_split
I0918 11:20:58.858724 31958 net.cpp:129] Top shape: 64 (64)
I0918 11:20:58.858727 31958 net.cpp:129] Top shape: 64 (64)
I0918 11:20:58.858729 31958 net.cpp:137] Memory required for data: 602880
I0918 11:20:58.858731 31958 layer_factory.hpp:77] Creating layer conv1
I0918 11:20:58.858747 31958 net.cpp:84] Creating Layer conv1
I0918 11:20:58.858749 31958 net.cpp:406] conv1 <- data
I0918 11:20:58.858753 31958 net.cpp:380] conv1 -> conv1
I0918 11:20:59.005028 31958 net.cpp:122] Setting up conv1
I0918 11:20:59.005051 31958 net.cpp:129] Top shape: 64 192 28 28 (9633792)
I0918 11:20:59.005054 31958 net.cpp:137] Memory required for data: 39138048
I0918 11:20:59.005069 31958 layer_factory.hpp:77] Creating layer penlu_conv1
I0918 11:20:59.005105 31958 net.cpp:84] Creating Layer penlu_conv1
I0918 11:20:59.005110 31958 net.cpp:406] penlu_conv1 <- conv1
I0918 11:20:59.005115 31958 net.cpp:380] penlu_conv1 -> penlu_conv1
I0918 11:20:59.005343 31958 net.cpp:122] Setting up penlu_conv1
I0918 11:20:59.005349 31958 net.cpp:129] Top shape: 64 192 28 28 (9633792)
I0918 11:20:59.005352 31958 net.cpp:137] Memory required for data: 77673216
I0918 11:20:59.005358 31958 layer_factory.hpp:77] Creating layer cccp1
I0918 11:20:59.005367 31958 net.cpp:84] Creating Layer cccp1
I0918 11:20:59.005380 31958 net.cpp:406] cccp1 <- penlu_conv1
I0918 11:20:59.005384 31958 net.cpp:380] cccp1 -> cccp1
I0918 11:20:59.007436 31958 net.cpp:122] Setting up cccp1
I0918 11:20:59.007455 31958 net.cpp:129] Top shape: 64 160 28 28 (8028160)
I0918 11:20:59.007458 31958 net.cpp:137] Memory required for data: 109785856
I0918 11:20:59.007463 31958 layer_factory.hpp:77] Creating layer penlu_cccp1
I0918 11:20:59.007479 31958 net.cpp:84] Creating Layer penlu_cccp1
I0918 11:20:59.007483 31958 net.cpp:406] penlu_cccp1 <- cccp1
I0918 11:20:59.007488 31958 net.cpp:380] penlu_cccp1 -> penlu_cccp1
I0918 11:20:59.007725 31958 net.cpp:122] Setting up penlu_cccp1
I0918 11:20:59.007731 31958 net.cpp:129] Top shape: 64 160 28 28 (8028160)
I0918 11:20:59.007733 31958 net.cpp:137] Memory required for data: 141898496
I0918 11:20:59.007740 31958 layer_factory.hpp:77] Creating layer cccp2
I0918 11:20:59.007756 31958 net.cpp:84] Creating Layer cccp2
I0918 11:20:59.007761 31958 net.cpp:406] cccp2 <- penlu_cccp1
I0918 11:20:59.007764 31958 net.cpp:380] cccp2 -> cccp2
I0918 11:20:59.008914 31958 net.cpp:122] Setting up cccp2
I0918 11:20:59.008925 31958 net.cpp:129] Top shape: 64 96 28 28 (4816896)
I0918 11:20:59.008929 31958 net.cpp:137] Memory required for data: 161166080
I0918 11:20:59.008932 31958 layer_factory.hpp:77] Creating layer penlu_cccp2
I0918 11:20:59.008939 31958 net.cpp:84] Creating Layer penlu_cccp2
I0918 11:20:59.008941 31958 net.cpp:406] penlu_cccp2 <- cccp2
I0918 11:20:59.008956 31958 net.cpp:380] penlu_cccp2 -> penlu_cccp2
I0918 11:20:59.009109 31958 net.cpp:122] Setting up penlu_cccp2
I0918 11:20:59.009115 31958 net.cpp:129] Top shape: 64 96 28 28 (4816896)
I0918 11:20:59.009117 31958 net.cpp:137] Memory required for data: 180433664
I0918 11:20:59.009121 31958 layer_factory.hpp:77] Creating layer pool1
I0918 11:20:59.009129 31958 net.cpp:84] Creating Layer pool1
I0918 11:20:59.009130 31958 net.cpp:406] pool1 <- penlu_cccp2
I0918 11:20:59.009145 31958 net.cpp:380] pool1 -> pool1
I0918 11:20:59.009215 31958 net.cpp:122] Setting up pool1
I0918 11:20:59.009220 31958 net.cpp:129] Top shape: 64 96 14 14 (1204224)
I0918 11:20:59.009222 31958 net.cpp:137] Memory required for data: 185250560
I0918 11:20:59.009224 31958 layer_factory.hpp:77] Creating layer dropout1
I0918 11:20:59.009228 31958 net.cpp:84] Creating Layer dropout1
I0918 11:20:59.009232 31958 net.cpp:406] dropout1 <- pool1
I0918 11:20:59.009234 31958 net.cpp:380] dropout1 -> dropout1
I0918 11:20:59.009284 31958 net.cpp:122] Setting up dropout1
I0918 11:20:59.009299 31958 net.cpp:129] Top shape: 64 96 14 14 (1204224)
I0918 11:20:59.009300 31958 net.cpp:137] Memory required for data: 190067456
I0918 11:20:59.009302 31958 layer_factory.hpp:77] Creating layer conv2
I0918 11:20:59.009318 31958 net.cpp:84] Creating Layer conv2
I0918 11:20:59.009321 31958 net.cpp:406] conv2 <- dropout1
I0918 11:20:59.009325 31958 net.cpp:380] conv2 -> conv2
I0918 11:20:59.021234 31958 net.cpp:122] Setting up conv2
I0918 11:20:59.021248 31958 net.cpp:129] Top shape: 64 192 14 14 (2408448)
I0918 11:20:59.021252 31958 net.cpp:137] Memory required for data: 199701248
I0918 11:20:59.021260 31958 layer_factory.hpp:77] Creating layer penlu_conv2
I0918 11:20:59.021268 31958 net.cpp:84] Creating Layer penlu_conv2
I0918 11:20:59.021271 31958 net.cpp:406] penlu_conv2 <- conv2
I0918 11:20:59.021276 31958 net.cpp:380] penlu_conv2 -> penlu_conv2
I0918 11:20:59.021441 31958 net.cpp:122] Setting up penlu_conv2
I0918 11:20:59.021447 31958 net.cpp:129] Top shape: 64 192 14 14 (2408448)
I0918 11:20:59.021450 31958 net.cpp:137] Memory required for data: 209335040
I0918 11:20:59.021453 31958 layer_factory.hpp:77] Creating layer cccp3
I0918 11:20:59.021461 31958 net.cpp:84] Creating Layer cccp3
I0918 11:20:59.021462 31958 net.cpp:406] cccp3 <- penlu_conv2
I0918 11:20:59.021476 31958 net.cpp:380] cccp3 -> cccp3
I0918 11:20:59.023106 31958 net.cpp:122] Setting up cccp3
I0918 11:20:59.023116 31958 net.cpp:129] Top shape: 64 192 14 14 (2408448)
I0918 11:20:59.023129 31958 net.cpp:137] Memory required for data: 218968832
I0918 11:20:59.023134 31958 layer_factory.hpp:77] Creating layer penlu_cccp3
I0918 11:20:59.023140 31958 net.cpp:84] Creating Layer penlu_cccp3
I0918 11:20:59.023159 31958 net.cpp:406] penlu_cccp3 <- cccp3
I0918 11:20:59.023164 31958 net.cpp:380] penlu_cccp3 -> penlu_cccp3
I0918 11:20:59.023310 31958 net.cpp:122] Setting up penlu_cccp3
I0918 11:20:59.023319 31958 net.cpp:129] Top shape: 64 192 14 14 (2408448)
I0918 11:20:59.023322 31958 net.cpp:137] Memory required for data: 228602624
I0918 11:20:59.023330 31958 layer_factory.hpp:77] Creating layer cccp4
I0918 11:20:59.023341 31958 net.cpp:84] Creating Layer cccp4
I0918 11:20:59.023349 31958 net.cpp:406] cccp4 <- penlu_cccp3
I0918 11:20:59.023355 31958 net.cpp:380] cccp4 -> cccp4
I0918 11:20:59.024981 31958 net.cpp:122] Setting up cccp4
I0918 11:20:59.024992 31958 net.cpp:129] Top shape: 64 192 14 14 (2408448)
I0918 11:20:59.024997 31958 net.cpp:137] Memory required for data: 238236416
I0918 11:20:59.025005 31958 layer_factory.hpp:77] Creating layer penlu_cccp4
I0918 11:20:59.025025 31958 net.cpp:84] Creating Layer penlu_cccp4
I0918 11:20:59.025032 31958 net.cpp:406] penlu_cccp4 <- cccp4
I0918 11:20:59.025048 31958 net.cpp:380] penlu_cccp4 -> penlu_cccp4
I0918 11:20:59.025207 31958 net.cpp:122] Setting up penlu_cccp4
I0918 11:20:59.025213 31958 net.cpp:129] Top shape: 64 192 14 14 (2408448)
I0918 11:20:59.025218 31958 net.cpp:137] Memory required for data: 247870208
I0918 11:20:59.025226 31958 layer_factory.hpp:77] Creating layer pool2
I0918 11:20:59.025246 31958 net.cpp:84] Creating Layer pool2
I0918 11:20:59.025250 31958 net.cpp:406] pool2 <- penlu_cccp4
I0918 11:20:59.025270 31958 net.cpp:380] pool2 -> pool2
I0918 11:20:59.025414 31958 net.cpp:122] Setting up pool2
I0918 11:20:59.025424 31958 net.cpp:129] Top shape: 64 192 7 7 (602112)
I0918 11:20:59.025427 31958 net.cpp:137] Memory required for data: 250278656
I0918 11:20:59.025446 31958 layer_factory.hpp:77] Creating layer dropout2
I0918 11:20:59.025454 31958 net.cpp:84] Creating Layer dropout2
I0918 11:20:59.025460 31958 net.cpp:406] dropout2 <- pool2
I0918 11:20:59.025467 31958 net.cpp:380] dropout2 -> dropout2
I0918 11:20:59.025496 31958 net.cpp:122] Setting up dropout2
I0918 11:20:59.025511 31958 net.cpp:129] Top shape: 64 192 7 7 (602112)
I0918 11:20:59.025516 31958 net.cpp:137] Memory required for data: 252687104
I0918 11:20:59.025530 31958 layer_factory.hpp:77] Creating layer conv3
I0918 11:20:59.025540 31958 net.cpp:84] Creating Layer conv3
I0918 11:20:59.025545 31958 net.cpp:406] conv3 <- dropout2
I0918 11:20:59.025552 31958 net.cpp:380] conv3 -> conv3
I0918 11:20:59.034498 31958 net.cpp:122] Setting up conv3
I0918 11:20:59.034510 31958 net.cpp:129] Top shape: 64 192 7 7 (602112)
I0918 11:20:59.034515 31958 net.cpp:137] Memory required for data: 255095552
I0918 11:20:59.034533 31958 layer_factory.hpp:77] Creating layer penlu_conv3
I0918 11:20:59.034544 31958 net.cpp:84] Creating Layer penlu_conv3
I0918 11:20:59.034559 31958 net.cpp:406] penlu_conv3 <- conv3
I0918 11:20:59.034569 31958 net.cpp:380] penlu_conv3 -> penlu_conv3
I0918 11:20:59.034724 31958 net.cpp:122] Setting up penlu_conv3
I0918 11:20:59.034732 31958 net.cpp:129] Top shape: 64 192 7 7 (602112)
I0918 11:20:59.034737 31958 net.cpp:137] Memory required for data: 257504000
I0918 11:20:59.034754 31958 layer_factory.hpp:77] Creating layer cccp5
I0918 11:20:59.034765 31958 net.cpp:84] Creating Layer cccp5
I0918 11:20:59.034778 31958 net.cpp:406] cccp5 <- penlu_conv3
I0918 11:20:59.034783 31958 net.cpp:380] cccp5 -> cccp5
I0918 11:20:59.036520 31958 net.cpp:122] Setting up cccp5
I0918 11:20:59.036531 31958 net.cpp:129] Top shape: 64 192 7 7 (602112)
I0918 11:20:59.036545 31958 net.cpp:137] Memory required for data: 259912448
I0918 11:20:59.036550 31958 layer_factory.hpp:77] Creating layer penlu_cccp5
I0918 11:20:59.036557 31958 net.cpp:84] Creating Layer penlu_cccp5
I0918 11:20:59.036562 31958 net.cpp:406] penlu_cccp5 <- cccp5
I0918 11:20:59.036567 31958 net.cpp:380] penlu_cccp5 -> penlu_cccp5
I0918 11:20:59.036708 31958 net.cpp:122] Setting up penlu_cccp5
I0918 11:20:59.036715 31958 net.cpp:129] Top shape: 64 192 7 7 (602112)
I0918 11:20:59.036726 31958 net.cpp:137] Memory required for data: 262320896
I0918 11:20:59.036751 31958 layer_factory.hpp:77] Creating layer cccp6
I0918 11:20:59.036759 31958 net.cpp:84] Creating Layer cccp6
I0918 11:20:59.036762 31958 net.cpp:406] cccp6 <- penlu_cccp5
I0918 11:20:59.036767 31958 net.cpp:380] cccp6 -> cccp6
I0918 11:20:59.037616 31958 net.cpp:122] Setting up cccp6
I0918 11:20:59.037626 31958 net.cpp:129] Top shape: 64 10 7 7 (31360)
I0918 11:20:59.037639 31958 net.cpp:137] Memory required for data: 262446336
I0918 11:20:59.037644 31958 layer_factory.hpp:77] Creating layer penlu_cccp6
I0918 11:20:59.037652 31958 net.cpp:84] Creating Layer penlu_cccp6
I0918 11:20:59.037667 31958 net.cpp:406] penlu_cccp6 <- cccp6
I0918 11:20:59.037672 31958 net.cpp:380] penlu_cccp6 -> penlu_cccp6
I0918 11:20:59.037792 31958 net.cpp:122] Setting up penlu_cccp6
I0918 11:20:59.037797 31958 net.cpp:129] Top shape: 64 10 7 7 (31360)
I0918 11:20:59.037809 31958 net.cpp:137] Memory required for data: 262571776
I0918 11:20:59.037814 31958 layer_factory.hpp:77] Creating layer pool3
I0918 11:20:59.037819 31958 net.cpp:84] Creating Layer pool3
I0918 11:20:59.037832 31958 net.cpp:406] pool3 <- penlu_cccp6
I0918 11:20:59.037837 31958 net.cpp:380] pool3 -> pool3
I0918 11:20:59.037976 31958 net.cpp:122] Setting up pool3
I0918 11:20:59.037982 31958 net.cpp:129] Top shape: 64 10 1 1 (640)
I0918 11:20:59.037994 31958 net.cpp:137] Memory required for data: 262574336
I0918 11:20:59.037997 31958 layer_factory.hpp:77] Creating layer pool3_pool3_0_split
I0918 11:20:59.038003 31958 net.cpp:84] Creating Layer pool3_pool3_0_split
I0918 11:20:59.038018 31958 net.cpp:406] pool3_pool3_0_split <- pool3
I0918 11:20:59.038022 31958 net.cpp:380] pool3_pool3_0_split -> pool3_pool3_0_split_0
I0918 11:20:59.038029 31958 net.cpp:380] pool3_pool3_0_split -> pool3_pool3_0_split_1
I0918 11:20:59.038058 31958 net.cpp:122] Setting up pool3_pool3_0_split
I0918 11:20:59.038072 31958 net.cpp:129] Top shape: 64 10 1 1 (640)
I0918 11:20:59.038074 31958 net.cpp:129] Top shape: 64 10 1 1 (640)
I0918 11:20:59.038077 31958 net.cpp:137] Memory required for data: 262579456
I0918 11:20:59.038089 31958 layer_factory.hpp:77] Creating layer accuracy
I0918 11:20:59.038094 31958 net.cpp:84] Creating Layer accuracy
I0918 11:20:59.038100 31958 net.cpp:406] accuracy <- pool3_pool3_0_split_0
I0918 11:20:59.038105 31958 net.cpp:406] accuracy <- label_cifar_1_split_0
I0918 11:20:59.038110 31958 net.cpp:380] accuracy -> accuracy
…
I0918 11:20:59.039093 31958 net.cpp:294] The NetState phase (1) differed from the phase (0) specified by a rule in layer cifar
I0918 11:20:59.039279 31958 net.cpp:51] Initializing net from parameters: 
name: "nin"
state {
  phase: TEST
}
layer {
  name: "cifar"
  type: "Data"
  top: "data"
  top: "label"
  include {
    phase: TEST
  }
  transform_param {
    mirror: false
    crop_size: 28
    mean_file: "/home/x306/caffe/xn/PENLU/data/cifar10/mean.binaryproto"
  }
  data_param {
    source: "/home/x306/caffe/xn/PENLU/data/cifar10/cifar10_test_lmdb"
    batch_size: 50
    backend: LMDB
  }
}
layer {
  name: "conv1"
  type: "Convolution"
  bottom: "data"
  top: "conv1"
  param {
    lr_mult: 1
    decay_mult: 1
  }
  param {
    lr_mult: 2
    decay_mult: 0
  }
  convolution_param {
    num_output: 192
    pad: 2
    kernel_size: 5
    weight_filler {
      type: "gaussian"
      std: 0.05
    }
    bias_filler {
      type: "constant"
      value: 0
    }
  }
}
layer {
  name: "penlu_conv1"
  type: "PENLU"
  bottom: "conv1"
  top: "penlu_conv1"
  param {
    lr_mult: 1
    decay_mult: 0
  }
  param {
    lr_mult: 1
    decay_mult: 0
  }
  param {
    lr_mult: 1
    decay_mult: 0
  }
  penlu_param {
    alpha_filler {
      type: "constant"
      value: 1
    }
    beta_filler {
      type: "constant"
      value: 1
    }
    eta_filler {
      type: "constant"
      value: 1
    }
  }
}
layer {
  name: "cccp1"
  type: "Convolution"
  bottom: "penlu_conv1"
  top: "cccp1"
  param {
    lr_mult: 1
    decay_mult: 1
  }
  param {
    lr_mult: 2
    decay_mult: 0
  }
  convolution_param {
    num_output: 160
    kernel_size: 1
    weight_filler {
      type: "gaussian"
      std: 0.05
    }
    bias_filler {
      type: "constant"
      value: 0
    }
  }
}
layer {
  name: "penlu_cccp1"
  type: "PENLU"
  bottom: "cccp1"
  top: "penlu_cccp1"
  param {
    lr_mult: 1
    decay_mult: 0
  }
  param {
    lr_mult: 1
    decay_mult: 0
  }
  param {
    lr_mult: 1
    decay_mult: 0
  }
  penlu_param {
    alpha_filler {
      type: "constant"
      value: 1
    }
    beta_filler {
      type: "constant"
      value: 1
    }
    eta_filler {
      type: "constant"
      value: 1
    }
  }
}
layer {
  name: "cccp2"
  type: "Convolution"
  bottom: "penlu_cccp1"
  top: "cccp2"
  param {
    lr_mult: 1
    decay_mult: 1
  }
  param {
    lr_mult: 2
    decay_mult: 0
  }
  convolution_param {
    num_output: 96
    kernel_size: 1
    weight_filler {
      type: "gaussian"
      std: 0.05
    }
    bias_filler {
      type: "constant"
      value: 0
    }
  }
}
layer {
  name: "penlu_cccp2"
  type: "PENLU"
  bottom: "cccp2"
  top: "penlu_cccp2"
  param {
    lr_mult: 1
    decay_mult: 0
  }
  param {
    lr_mult: 1
    decay_mult: 0
  }
  param {
    lr_mult: 1
    decay_mult: 0
  }
  penlu_param {
    alpha_filler {
      type: "constant"
      value: 1
    }
    beta_filler {
      type: "constant"
      value: 1
    }
    eta_filler {
      type: "constant"
      value: 1
    }
  }
}
layer {
  name: "pool1"
  type: "Pooling"
  bottom: "penlu_cccp2"
  top: "pool1"
  pooling_param {
    pool: MAX
    kernel_size: 3
    stride: 2
  }
}
layer {
  name: "dropout1"
  type: "Dropout"
  bottom: "pool1"
  top: "dropout1"
  dropout_param {
    dropout_ratio: 0.5
  }
}
layer {
  name: "conv2"
  type: "Convolution"
  bottom: "dropout1"
  top: "conv2"
  param {
    lr_mult: 1
    decay_mult: 1
  }
  param {
    lr_mult: 2
    decay_mult: 0
  }
  convolution_param {
    num_output: 192
    pad: 2
    kernel_size: 5
    weight_filler {
      type: "gaussian"
      std: 0.05
    }
    bias_filler {
      type: "constant"
      value: 0
    }
  }
}
layer {
  name: "penlu_conv2"
  type: "PENLU"
  bottom: "conv2"
  top: "penlu_conv2"
  param {
    lr_mult: 1
    decay_mult: 0
  }
  param {
    lr_mult: 1
    decay_mult: 0
  }
  param {
    lr_mult: 1
    decay_mult: 0
  }
  penlu_param {
    alpha_filler {
      type: "constant"
      value: 1
    }
    beta_filler {
      type: "constant"
      value: 1
    }
    eta_filler {
      type: "constant"
      value: 1
    }
  }
}
layer {
  name: "cccp3"
  type: "Convolution"
  bottom: "penlu_conv2"
  top: "cccp3"
  param {
    lr_mult: 1
    decay_mult: 1
  }
  param {
    lr_mult: 2
    decay_mult: 0
  }
  convolution_param {
    num_output: 192
    kernel_size: 1
    weight_filler {
      type: "gaussian"
      std: 0.05
    }
    bias_filler {
      type: "constant"
      value: 0
    }
  }
}
layer {
  name: "penlu_cccp3"
  type: "PENLU"
  bottom: "cccp3"
  top: "penlu_cccp3"
  param {
    lr_mult: 1
    decay_mult: 0
  }
  param {
    lr_mult: 1
    decay_mult: 0
  }
  param {
    lr_mult: 1
    decay_mult: 0
  }
  penlu_param {
    alpha_filler {
      type: "constant"
      value: 1
    }
    beta_filler {
      type: "constant"
      value: 1
    }
    eta_filler {
      type: "constant"
      value: 1
    }
  }
}
layer {
  name: "cccp4"
  type: "Convolution"
  bottom: "penlu_cccp3"
  top: "cccp4"
  param {
    lr_mult: 1
    decay_mult: 1
  }
  param {
    lr_mult: 2
    decay_mult: 0
  }
  convolution_param {
    num_output: 192
    kernel_size: 1
    weight_filler {
      type: "gaussian"
      std: 0.05
    }
    bias_filler {
      type: "constant"
      value: 0
    }
  }
}
layer {
  name: "penlu_cccp4"
  type: "PENLU"
  bottom: "cccp4"
  top: "penlu_cccp4"
  param {
    lr_mult: 1
    decay_mult: 0
  }
  param {
    lr_mult: 1
    decay_mult: 0
  }
  param {
    lr_mult: 1
    decay_mult: 0
  }
  penlu_param {
    alpha_filler {
      type: "constant"
      value: 1
    }
    beta_filler {
      type: "constant"
      value: 1
    }
    eta_filler {
      type: "constant"
      value: 1
    }
  }
}
layer {
  name: "pool2"
  type: "Pooling"
  bottom: "penlu_cccp4"
  top: "pool2"
  pooling_param {
    pool: AVE
    kernel_size: 3
    stride: 2
  }
}
layer {
  name: "dropout2"
  type: "Dropout"
  bottom: "pool2"
  top: "dropout2"
  dropout_param {
    dropout_ratio: 0.5
  }
}
layer {
  name: "conv3"
  type: "Convolution"
  bottom: "dropout2"
  top: "conv3"
  param {
    lr_mult: 1
    decay_mult: 1
  }
  param {
    lr_mult: 2
    decay_mult: 0
  }
  convolution_param {
    num_output: 192
    pad: 1
    kernel_size: 3
    weight_filler {
      type: "gaussian"
      std: 0.05
    }
    bias_filler {
      type: "constant"
      value: 0
    }
  }
}
layer {
  name: "penlu_conv3"
  type: "PENLU"
  bottom: "conv3"
  top: "penlu_conv3"
  param {
    lr_mult: 1
    decay_mult: 0
  }
  param {
    lr_mult: 1
    decay_mult: 0
  }
  param {
    lr_mult: 1
    decay_mult: 0
  }
  penlu_param {
    alpha_filler {
      type: "constant"
      value: 1
    }
    beta_filler {
      type: "constant"
      value: 1
    }
    eta_filler {
      type: "constant"
      value: 1
    }
  }
}
layer {
  name: "cccp5"
  type: "Convolution"
  bottom: "penlu_conv3"
  top: "cccp5"
  param {
    lr_mult: 1
    decay_mult: 1
  }
  param {
    lr_mult: 2
    decay_mult: 0
  }
  convolution_param {
    num_output: 192
    kernel_size: 1
    weight_filler {
      type: "gaussian"
      std: 0.05
    }
    bias_filler {
      type: "constant"
      value: 0
    }
  }
}
layer {
  name: "penlu_cccp5"
  type: "PENLU"
  bottom: "cccp5"
  top: "penlu_cccp5"
  param {
    lr_mult: 1
    decay_mult: 0
  }
  param {
    lr_mult: 1
    decay_mult: 0
  }
  param {
    lr_mult: 1
    decay_mult: 0
  }
  penlu_param {
    alpha_filler {
      type: "constant"
      value: 1
    }
    beta_filler {
      type: "constant"
      value: 1
    }
    eta_filler {
      type: "constant"
      value: 1
    }
  }
}
layer {
  name: "cccp6"
  type: "Convolution"
  bottom: "penlu_cccp5"
  top: "cccp6"
  param {
    lr_mult: 0.1
    decay_mult: 1
  }
  param {
    lr_mult: 0.1
    decay_mult: 0
  }
  convolution_param {
    num_output: 10
    kernel_size: 1
    weight_filler {
      type: "gaussian"
      std: 0.05
    }
    bias_filler {
      type: "constant"
      value: 0
    }
  }
}
layer {
  name: "penlu_cccp6"
  type: "PENLU"
  bottom: "cccp6"
  top: "penlu_cccp6"
  param {
    lr_mult: 1
    decay_mult: 0
  }
  param {
    lr_mult: 1
    decay_mult: 0
  }
  param {
    lr_mult: 1
    decay_mult: 0
  }
  penlu_param {
    alpha_filler {
      type: "constant"
      value: 1
    }
    beta_filler {
      type: "constant"
      value: 1
    }
    eta_filler {
      type: "constant"
      value: 1
    }
  }
}
layer {
  name: "pool3"
  type: "Pooling"
  bottom: "penlu_cccp6"
  top: "pool3"
  pooling_param {
    pool: AVE
    kernel_size: 7
    stride: 1
  }
}
layer {
  name: "accuracy"
  type: "Accuracy"
  bottom: "pool3"
  bottom: "label"
  top: "accuracy"
}
layer {
  name: "loss"
  type: "SoftmaxWithLoss"
  bottom: "pool3"
  bottom: "label"
  top: "loss"
}
I0918 11:20:59.039400 31958 layer_factory.hpp:77] Creating layer cifar
I0918 11:20:59.039448 31958 db_lmdb.cpp:35] Opened lmdb /home/x306/caffe/xn/PENLU/data/cifar10/cifar10_test_lmdb
I0918 11:20:59.039463 31958 net.cpp:84] Creating Layer cifar
I0918 11:20:59.039469 31958 net.cpp:380] cifar -> data
I0918 11:20:59.039477 31958 net.cpp:380] cifar -> label
I0918 11:20:59.039484 31958 data_transformer.cpp:25] Loading mean file from: /home/x306/caffe/xn/PENLU/data/cifar10/mean.binaryproto
I0918 11:20:59.039610 31958 data_layer.cpp:45] output data size: 50,3,28,28
I0918 11:20:59.040666 31958 net.cpp:122] Setting up cifar
I0918 11:20:59.040688 31958 net.cpp:129] Top shape: 50 3 28 28 (117600)
I0918 11:20:59.040690 31958 net.cpp:129] Top shape: 50 (50)
I0918 11:20:59.040693 31958 net.cpp:137] Memory required for data: 470600
I0918 11:20:59.040696 31958 layer_factory.hpp:77] Creating layer label_cifar_1_split
I0918 11:20:59.040701 31958 net.cpp:84] Creating Layer label_cifar_1_split
I0918 11:20:59.040704 31958 net.cpp:406] label_cifar_1_split <- label
I0918 11:20:59.040709 31958 net.cpp:380] label_cifar_1_split -> label_cifar_1_split_0
I0918 11:20:59.040714 31958 net.cpp:380] label_cifar_1_split -> label_cifar_1_split_1
I0918 11:20:59.040773 31958 net.cpp:122] Setting up label_cifar_1_split
I0918 11:20:59.040778 31958 net.cpp:129] Top shape: 50 (50)
I0918 11:20:59.040781 31958 net.cpp:129] Top shape: 50 (50)
I0918 11:20:59.040783 31958 net.cpp:137] Memory required for data: 471000
I0918 11:20:59.040786 31958 layer_factory.hpp:77] Creating layer conv1
I0918 11:20:59.040792 31958 net.cpp:84] Creating Layer conv1
I0918 11:20:59.040796 31958 net.cpp:406] conv1 <- data
I0918 11:20:59.040807 31958 net.cpp:380] conv1 -> conv1
I0918 11:20:59.042088 31958 net.cpp:122] Setting up conv1
I0918 11:20:59.042099 31958 net.cpp:129] Top shape: 50 192 28 28 (7526400)
I0918 11:20:59.042102 31958 net.cpp:137] Memory required for data: 30576600
I0918 11:20:59.042114 31958 layer_factory.hpp:77] Creating layer penlu_conv1
I0918 11:20:59.042120 31958 net.cpp:84] Creating Layer penlu_conv1
I0918 11:20:59.042124 31958 net.cpp:406] penlu_conv1 <- conv1
I0918 11:20:59.042129 31958 net.cpp:380] penlu_conv1 -> penlu_conv1
I0918 11:20:59.042309 31958 net.cpp:122] Setting up penlu_conv1
I0918 11:20:59.042316 31958 net.cpp:129] Top shape: 50 192 28 28 (7526400)
I0918 11:20:59.042318 31958 net.cpp:137] Memory required for data: 60682200
I0918 11:20:59.042325 31958 layer_factory.hpp:77] Creating layer cccp1
I0918 11:20:59.042332 31958 net.cpp:84] Creating Layer cccp1
I0918 11:20:59.042337 31958 net.cpp:406] cccp1 <- penlu_conv1
I0918 11:20:59.042341 31958 net.cpp:380] cccp1 -> cccp1
I0918 11:20:59.043962 31958 net.cpp:122] Setting up cccp1
I0918 11:20:59.043992 31958 net.cpp:129] Top shape: 50 160 28 28 (6272000)
I0918 11:20:59.043997 31958 net.cpp:137] Memory required for data: 85770200
I0918 11:20:59.044001 31958 layer_factory.hpp:77] Creating layer penlu_cccp1
I0918 11:20:59.044020 31958 net.cpp:84] Creating Layer penlu_cccp1
I0918 11:20:59.044023 31958 net.cpp:406] penlu_cccp1 <- cccp1
I0918 11:20:59.044028 31958 net.cpp:380] penlu_cccp1 -> penlu_cccp1
I0918 11:20:59.044687 31958 net.cpp:122] Setting up penlu_cccp1
I0918 11:20:59.044697 31958 net.cpp:129] Top shape: 50 160 28 28 (6272000)
I0918 11:20:59.044699 31958 net.cpp:137] Memory required for data: 110858200
I0918 11:20:59.044706 31958 layer_factory.hpp:77] Creating layer cccp2
I0918 11:20:59.044714 31958 net.cpp:84] Creating Layer cccp2
I0918 11:20:59.044718 31958 net.cpp:406] cccp2 <- penlu_cccp1
I0918 11:20:59.044723 31958 net.cpp:380] cccp2 -> cccp2
I0918 11:20:59.045922 31958 net.cpp:122] Setting up cccp2
I0918 11:20:59.045931 31958 net.cpp:129] Top shape: 50 96 28 28 (3763200)
I0918 11:20:59.045935 31958 net.cpp:137] Memory required for data: 125911000
I0918 11:20:59.045939 31958 layer_factory.hpp:77] Creating layer penlu_cccp2
I0918 11:20:59.045948 31958 net.cpp:84] Creating Layer penlu_cccp2
I0918 11:20:59.045950 31958 net.cpp:406] penlu_cccp2 <- cccp2
I0918 11:20:59.045955 31958 net.cpp:380] penlu_cccp2 -> penlu_cccp2
I0918 11:20:59.046095 31958 net.cpp:122] Setting up penlu_cccp2
I0918 11:20:59.046102 31958 net.cpp:129] Top shape: 50 96 28 28 (3763200)
I0918 11:20:59.046104 31958 net.cpp:137] Memory required for data: 140963800
I0918 11:20:59.046108 31958 layer_factory.hpp:77] Creating layer pool1
I0918 11:20:59.046115 31958 net.cpp:84] Creating Layer pool1
I0918 11:20:59.046118 31958 net.cpp:406] pool1 <- penlu_cccp2
I0918 11:20:59.046123 31958 net.cpp:380] pool1 -> pool1
I0918 11:20:59.046149 31958 net.cpp:122] Setting up pool1
I0918 11:20:59.046154 31958 net.cpp:129] Top shape: 50 96 14 14 (940800)
I0918 11:20:59.046155 31958 net.cpp:137] Memory required for data: 144727000
I0918 11:20:59.046157 31958 layer_factory.hpp:77] Creating layer dropout1
I0918 11:20:59.046162 31958 net.cpp:84] Creating Layer dropout1
I0918 11:20:59.046165 31958 net.cpp:406] dropout1 <- pool1
I0918 11:20:59.046169 31958 net.cpp:380] dropout1 -> dropout1
I0918 11:20:59.046191 31958 net.cpp:122] Setting up dropout1
I0918 11:20:59.046196 31958 net.cpp:129] Top shape: 50 96 14 14 (940800)
I0918 11:20:59.046200 31958 net.cpp:137] Memory required for data: 148490200
I0918 11:20:59.046201 31958 layer_factory.hpp:77] Creating layer conv2
I0918 11:20:59.046207 31958 net.cpp:84] Creating Layer conv2
I0918 11:20:59.046211 31958 net.cpp:406] conv2 <- dropout1
I0918 11:20:59.046216 31958 net.cpp:380] conv2 -> conv2
I0918 11:20:59.057714 31958 net.cpp:122] Setting up conv2
I0918 11:20:59.057740 31958 net.cpp:129] Top shape: 50 192 14 14 (1881600)
I0918 11:20:59.057744 31958 net.cpp:137] Memory required for data: 156016600
I0918 11:20:59.057751 31958 layer_factory.hpp:77] Creating layer penlu_conv2
I0918 11:20:59.057770 31958 net.cpp:84] Creating Layer penlu_conv2
I0918 11:20:59.057773 31958 net.cpp:406] penlu_conv2 <- conv2
I0918 11:20:59.057780 31958 net.cpp:380] penlu_conv2 -> penlu_conv2
I0918 11:20:59.057946 31958 net.cpp:122] Setting up penlu_conv2
I0918 11:20:59.057955 31958 net.cpp:129] Top shape: 50 192 14 14 (1881600)
I0918 11:20:59.057958 31958 net.cpp:137] Memory required for data: 163543000
I0918 11:20:59.057966 31958 layer_factory.hpp:77] Creating layer cccp3
I0918 11:20:59.057977 31958 net.cpp:84] Creating Layer cccp3
I0918 11:20:59.057982 31958 net.cpp:406] cccp3 <- penlu_conv2
I0918 11:20:59.057989 31958 net.cpp:380] cccp3 -> cccp3
I0918 11:20:59.059659 31958 net.cpp:122] Setting up cccp3
I0918 11:20:59.059670 31958 net.cpp:129] Top shape: 50 192 14 14 (1881600)
I0918 11:20:59.059675 31958 net.cpp:137] Memory required for data: 171069400
I0918 11:20:59.059682 31958 layer_factory.hpp:77] Creating layer penlu_cccp3
I0918 11:20:59.059689 31958 net.cpp:84] Creating Layer penlu_cccp3
I0918 11:20:59.059690 31958 net.cpp:406] penlu_cccp3 <- cccp3
I0918 11:20:59.059695 31958 net.cpp:380] penlu_cccp3 -> penlu_cccp3
I0918 11:20:59.059828 31958 net.cpp:122] Setting up penlu_cccp3
I0918 11:20:59.059833 31958 net.cpp:129] Top shape: 50 192 14 14 (1881600)
I0918 11:20:59.059834 31958 net.cpp:137] Memory required for data: 178595800
I0918 11:20:59.059839 31958 layer_factory.hpp:77] Creating layer cccp4
I0918 11:20:59.059845 31958 net.cpp:84] Creating Layer cccp4
I0918 11:20:59.059847 31958 net.cpp:406] cccp4 <- penlu_cccp3
I0918 11:20:59.059852 31958 net.cpp:380] cccp4 -> cccp4
I0918 11:20:59.061472 31958 net.cpp:122] Setting up cccp4
I0918 11:20:59.061481 31958 net.cpp:129] Top shape: 50 192 14 14 (1881600)
I0918 11:20:59.061484 31958 net.cpp:137] Memory required for data: 186122200
I0918 11:20:59.061488 31958 layer_factory.hpp:77] Creating layer penlu_cccp4
I0918 11:20:59.061494 31958 net.cpp:84] Creating Layer penlu_cccp4
I0918 11:20:59.061497 31958 net.cpp:406] penlu_cccp4 <- cccp4
I0918 11:20:59.061501 31958 net.cpp:380] penlu_cccp4 -> penlu_cccp4
I0918 11:20:59.061630 31958 net.cpp:122] Setting up penlu_cccp4
I0918 11:20:59.061635 31958 net.cpp:129] Top shape: 50 192 14 14 (1881600)
I0918 11:20:59.061637 31958 net.cpp:137] Memory required for data: 193648600
I0918 11:20:59.061642 31958 layer_factory.hpp:77] Creating layer pool2
I0918 11:20:59.061648 31958 net.cpp:84] Creating Layer pool2
I0918 11:20:59.061650 31958 net.cpp:406] pool2 <- penlu_cccp4
I0918 11:20:59.061653 31958 net.cpp:380] pool2 -> pool2
I0918 11:20:59.061779 31958 net.cpp:122] Setting up pool2
I0918 11:20:59.061785 31958 net.cpp:129] Top shape: 50 192 7 7 (470400)
I0918 11:20:59.061787 31958 net.cpp:137] Memory required for data: 195530200
I0918 11:20:59.061789 31958 layer_factory.hpp:77] Creating layer dropout2
I0918 11:20:59.061794 31958 net.cpp:84] Creating Layer dropout2
I0918 11:20:59.061796 31958 net.cpp:406] dropout2 <- pool2
I0918 11:20:59.061800 31958 net.cpp:380] dropout2 -> dropout2
I0918 11:20:59.061823 31958 net.cpp:122] Setting up dropout2
I0918 11:20:59.061827 31958 net.cpp:129] Top shape: 50 192 7 7 (470400)
I0918 11:20:59.061830 31958 net.cpp:137] Memory required for data: 197411800
I0918 11:20:59.061831 31958 layer_factory.hpp:77] Creating layer conv3
I0918 11:20:59.061837 31958 net.cpp:84] Creating Layer conv3
I0918 11:20:59.061839 31958 net.cpp:406] conv3 <- dropout2
I0918 11:20:59.061843 31958 net.cpp:380] conv3 -> conv3
I0918 11:20:59.070919 31958 net.cpp:122] Setting up conv3
I0918 11:20:59.070932 31958 net.cpp:129] Top shape: 50 192 7 7 (470400)
I0918 11:20:59.070937 31958 net.cpp:137] Memory required for data: 199293400
I0918 11:20:59.070955 31958 layer_factory.hpp:77] Creating layer penlu_conv3
I0918 11:20:59.070976 31958 net.cpp:84] Creating Layer penlu_conv3
I0918 11:20:59.070982 31958 net.cpp:406] penlu_conv3 <- conv3
I0918 11:20:59.070991 31958 net.cpp:380] penlu_conv3 -> penlu_conv3
I0918 11:20:59.071113 31958 net.cpp:122] Setting up penlu_conv3
I0918 11:20:59.071122 31958 net.cpp:129] Top shape: 50 192 7 7 (470400)
I0918 11:20:59.071135 31958 net.cpp:137] Memory required for data: 201175000
I0918 11:20:59.071148 31958 layer_factory.hpp:77] Creating layer cccp5
I0918 11:20:59.071159 31958 net.cpp:84] Creating Layer cccp5
I0918 11:20:59.071164 31958 net.cpp:406] cccp5 <- penlu_conv3
I0918 11:20:59.071171 31958 net.cpp:380] cccp5 -> cccp5
I0918 11:20:59.072844 31958 net.cpp:122] Setting up cccp5
I0918 11:20:59.072854 31958 net.cpp:129] Top shape: 50 192 7 7 (470400)
I0918 11:20:59.072860 31958 net.cpp:137] Memory required for data: 203056600
I0918 11:20:59.072866 31958 layer_factory.hpp:77] Creating layer penlu_cccp5
I0918 11:20:59.072877 31958 net.cpp:84] Creating Layer penlu_cccp5
I0918 11:20:59.072881 31958 net.cpp:406] penlu_cccp5 <- cccp5
I0918 11:20:59.072890 31958 net.cpp:380] penlu_cccp5 -> penlu_cccp5
I0918 11:20:59.073011 31958 net.cpp:122] Setting up penlu_cccp5
I0918 11:20:59.073019 31958 net.cpp:129] Top shape: 50 192 7 7 (470400)
I0918 11:20:59.073024 31958 net.cpp:137] Memory required for data: 204938200
I0918 11:20:59.073031 31958 layer_factory.hpp:77] Creating layer cccp6
I0918 11:20:59.073042 31958 net.cpp:84] Creating Layer cccp6
I0918 11:20:59.073047 31958 net.cpp:406] cccp6 <- penlu_cccp5
I0918 11:20:59.073053 31958 net.cpp:380] cccp6 -> cccp6
I0918 11:20:59.074246 31958 net.cpp:122] Setting up cccp6
I0918 11:20:59.074257 31958 net.cpp:129] Top shape: 50 10 7 7 (24500)
I0918 11:20:59.074261 31958 net.cpp:137] Memory required for data: 205036200
I0918 11:20:59.074270 31958 layer_factory.hpp:77] Creating layer penlu_cccp6
I0918 11:20:59.074280 31958 net.cpp:84] Creating Layer penlu_cccp6
I0918 11:20:59.074285 31958 net.cpp:406] penlu_cccp6 <- cccp6
I0918 11:20:59.074292 31958 net.cpp:380] penlu_cccp6 -> penlu_cccp6
I0918 11:20:59.074406 31958 net.cpp:122] Setting up penlu_cccp6
I0918 11:20:59.074414 31958 net.cpp:129] Top shape: 50 10 7 7 (24500)
I0918 11:20:59.074419 31958 net.cpp:137] Memory required for data: 205134200
I0918 11:20:59.074427 31958 layer_factory.hpp:77] Creating layer pool3
I0918 11:20:59.074436 31958 net.cpp:84] Creating Layer pool3
I0918 11:20:59.074440 31958 net.cpp:406] pool3 <- penlu_cccp6
I0918 11:20:59.074446 31958 net.cpp:380] pool3 -> pool3
I0918 11:20:59.075028 31958 net.cpp:122] Setting up pool3
I0918 11:20:59.075040 31958 net.cpp:129] Top shape: 50 10 1 1 (500)
I0918 11:20:59.075045 31958 net.cpp:137] Memory required for data: 205136200
I0918 11:20:59.075049 31958 layer_factory.hpp:77] Creating layer pool3_pool3_0_split
I0918 11:20:59.075059 31958 net.cpp:84] Creating Layer pool3_pool3_0_split
I0918 11:20:59.075064 31958 net.cpp:406] pool3_pool3_0_split <- pool3
I0918 11:20:59.075073 31958 net.cpp:380] pool3_pool3_0_split -> pool3_pool3_0_split_0
I0918 11:20:59.075083 31958 net.cpp:380] pool3_pool3_0_split -> pool3_pool3_0_split_1
I0918 11:20:59.075116 31958 net.cpp:122] Setting up pool3_pool3_0_split
I0918 11:20:59.075124 31958 net.cpp:129] Top shape: 50 10 1 1 (500)
I0918 11:20:59.075130 31958 net.cpp:129] Top shape: 50 10 1 1 (500)
I0918 11:20:59.075135 31958 net.cpp:137] Memory required for data: 205140200
I0918 11:20:59.075139 31958 layer_factory.hpp:77] Creating layer accuracy
I0918 11:20:59.075148 31958 net.cpp:84] Creating Layer accuracy
I0918 11:20:59.075153 31958 net.cpp:406] accuracy <- pool3_pool3_0_split_0
I0918 11:20:59.075158 31958 net.cpp:406] accuracy <- label_cifar_1_split_0
I0918 11:20:59.075165 31958 net.cpp:380] accuracy -> accuracy
…
