…
I0919 18:27:24.482569  4709 net.cpp:294] The NetState phase (0) differed from the phase (1) specified by a rule in layer cifar
I0919 18:27:24.482779  4709 net.cpp:51] Initializing net from parameters: 
name: "nin"
state {
  phase: TRAIN
  level: 0
  stage: ""
}
layer {
  name: "cifar"
  type: "Data"
  top: "data"
  top: "label"
  include {
    phase: TRAIN
  }
  transform_param {
    mirror: true
    crop_size: 28
    mean_file: "/home/x306/caffe/xn/PENLU/data/cifar10/mean.binaryproto"
  }
  data_param {
    source: "/home/x306/caffe/xn/PENLU/data/cifar10/cifar10_train_lmdb"
    batch_size: 64
    backend: LMDB
  }
  image_data_param {
    shuffle: true
  }
}
layer {
  name: "conv1"
  type: "Convolution"
  bottom: "data"
  top: "conv1"
  param {
    lr_mult: 1
    decay_mult: 1
  }
  param {
    lr_mult: 2
    decay_mult: 0
  }
  convolution_param {
    num_output: 192
    pad: 2
    kernel_size: 5
    weight_filler {
      type: "gaussian"
      std: 0.05
    }
    bias_filler {
      type: "constant"
      value: 0
    }
  }
}
layer {
  name: "penlu_conv1"
  type: "PENLU"
  bottom: "conv1"
  top: "penlu_conv1"
  param {
    lr_mult: 1
    decay_mult: 0
  }
  param {
    lr_mult: 1
    decay_mult: 0
  }
  param {
    lr_mult: 1
    decay_mult: 0
  }
  penlu_param {
    alpha_filler {
      type: "constant"
      value: 2
    }
    beta_filler {
      type: "constant"
      value: 1
    }
    eta_filler {
      type: "constant"
      value: 0.8
    }
  }
}
layer {
  name: "cccp1"
  type: "Convolution"
  bottom: "penlu_conv1"
  top: "cccp1"
  param {
    lr_mult: 1
    decay_mult: 1
  }
  param {
    lr_mult: 2
    decay_mult: 0
  }
  convolution_param {
    num_output: 160
    kernel_size: 1
    weight_filler {
      type: "gaussian"
      std: 0.05
    }
    bias_filler {
      type: "constant"
      value: 0
    }
  }
}
layer {
  name: "penlu_cccp1"
  type: "PENLU"
  bottom: "cccp1"
  top: "penlu_cccp1"
  param {
    lr_mult: 1
    decay_mult: 0
  }
  param {
    lr_mult: 1
    decay_mult: 0
  }
  param {
    lr_mult: 1
    decay_mult: 0
  }
  penlu_param {
    alpha_filler {
      type: "constant"
      value: 2
    }
    beta_filler {
      type: "constant"
      value: 1
    }
    eta_filler {
      type: "constant"
      value: 0.8
    }
  }
}
layer {
  name: "cccp2"
  type: "Convolution"
  bottom: "penlu_cccp1"
  top: "cccp2"
  param {
    lr_mult: 1
    decay_mult: 1
  }
  param {
    lr_mult: 2
    decay_mult: 0
  }
  convolution_param {
    num_output: 96
    kernel_size: 1
    weight_filler {
      type: "gaussian"
      std: 0.05
    }
    bias_filler {
      type: "constant"
      value: 0
    }
  }
}
layer {
  name: "penlu_cccp2"
  type: "PENLU"
  bottom: "cccp2"
  top: "penlu_cccp2"
  param {
    lr_mult: 1
    decay_mult: 0
  }
  param {
    lr_mult: 1
    decay_mult: 0
  }
  param {
    lr_mult: 1
    decay_mult: 0
  }
  penlu_param {
    alpha_filler {
      type: "constant"
      value: 2
    }
    beta_filler {
      type: "constant"
      value: 1
    }
    eta_filler {
      type: "constant"
      value: 0.8
    }
  }
}
layer {
  name: "pool1"
  type: "Pooling"
  bottom: "penlu_cccp2"
  top: "pool1"
  pooling_param {
    pool: MAX
    kernel_size: 3
    stride: 2
  }
}
layer {
  name: "dropout1"
  type: "Dropout"
  bottom: "pool1"
  top: "dropout1"
  dropout_param {
    dropout_ratio: 0.5
  }
}
layer {
  name: "conv2"
  type: "Convolution"
  bottom: "dropout1"
  top: "conv2"
  param {
    lr_mult: 1
    decay_mult: 1
  }
  param {
    lr_mult: 2
    decay_mult: 0
  }
  convolution_param {
    num_output: 192
    pad: 2
    kernel_size: 5
    weight_filler {
      type: "gaussian"
      std: 0.05
    }
    bias_filler {
      type: "constant"
      value: 0
    }
  }
}
layer {
  name: "penlu_conv2"
  type: "PENLU"
  bottom: "conv2"
  top: "penlu_conv2"
  param {
    lr_mult: 1
    decay_mult: 0
  }
  param {
    lr_mult: 1
    decay_mult: 0
  }
  param {
    lr_mult: 1
    decay_mult: 0
  }
  penlu_param {
    alpha_filler {
      type: "constant"
      value: 2
    }
    beta_filler {
      type: "constant"
      value: 1
    }
    eta_filler {
      type: "constant"
      value: 0.8
    }
  }
}
layer {
  name: "cccp3"
  type: "Convolution"
  bottom: "penlu_conv2"
  top: "cccp3"
  param {
    lr_mult: 1
    decay_mult: 1
  }
  param {
    lr_mult: 2
    decay_mult: 0
  }
  convolution_param {
    num_output: 192
    kernel_size: 1
    weight_filler {
      type: "gaussian"
      std: 0.05
    }
    bias_filler {
      type: "constant"
      value: 0
    }
  }
}
layer {
  name: "penlu_cccp3"
  type: "PENLU"
  bottom: "cccp3"
  top: "penlu_cccp3"
  param {
    lr_mult: 1
    decay_mult: 0
  }
  param {
    lr_mult: 1
    decay_mult: 0
  }
  param {
    lr_mult: 1
    decay_mult: 0
  }
  penlu_param {
    alpha_filler {
      type: "constant"
      value: 2
    }
    beta_filler {
      type: "constant"
      value: 1
    }
    eta_filler {
      type: "constant"
      value: 0.8
    }
  }
}
layer {
  name: "cccp4"
  type: "Convolution"
  bottom: "penlu_cccp3"
  top: "cccp4"
  param {
    lr_mult: 1
    decay_mult: 1
  }
  param {
    lr_mult: 2
    decay_mult: 0
  }
  convolution_param {
    num_output: 192
    kernel_size: 1
    weight_filler {
      type: "gaussian"
      std: 0.05
    }
    bias_filler {
      type: "constant"
      value: 0
    }
  }
}
layer {
  name: "penlu_cccp4"
  type: "PENLU"
  bottom: "cccp4"
  top: "penlu_cccp4"
  param {
    lr_mult: 1
    decay_mult: 0
  }
  param {
    lr_mult: 1
    decay_mult: 0
  }
  param {
    lr_mult: 1
    decay_mult: 0
  }
  penlu_param {
    alpha_filler {
      type: "constant"
      value: 2
    }
    beta_filler {
      type: "constant"
      value: 1
    }
    eta_filler {
      type: "constant"
      value: 0.8
    }
  }
}
layer {
  name: "pool2"
  type: "Pooling"
  bottom: "penlu_cccp4"
  top: "pool2"
  pooling_param {
    pool: AVE
    kernel_size: 3
    stride: 2
  }
}
layer {
  name: "dropout2"
  type: "Dropout"
  bottom: "pool2"
  top: "dropout2"
  dropout_param {
    dropout_ratio: 0.5
  }
}
layer {
  name: "conv3"
  type: "Convolution"
  bottom: "dropout2"
  top: "conv3"
  param {
    lr_mult: 1
    decay_mult: 1
  }
  param {
    lr_mult: 2
    decay_mult: 0
  }
  convolution_param {
    num_output: 192
    pad: 1
    kernel_size: 3
    weight_filler {
      type: "gaussian"
      std: 0.05
    }
    bias_filler {
      type: "constant"
      value: 0
    }
  }
}
layer {
  name: "penlu_conv3"
  type: "PENLU"
  bottom: "conv3"
  top: "penlu_conv3"
  param {
    lr_mult: 1
    decay_mult: 0
  }
  param {
    lr_mult: 1
    decay_mult: 0
  }
  param {
    lr_mult: 1
    decay_mult: 0
  }
  penlu_param {
    alpha_filler {
      type: "constant"
      value: 2
    }
    beta_filler {
      type: "constant"
      value: 1
    }
    eta_filler {
      type: "constant"
      value: 0.8
    }
  }
}
layer {
  name: "cccp5"
  type: "Convolution"
  bottom: "penlu_conv3"
  top: "cccp5"
  param {
    lr_mult: 1
    decay_mult: 1
  }
  param {
    lr_mult: 2
    decay_mult: 0
  }
  convolution_param {
    num_output: 192
    kernel_size: 1
    weight_filler {
      type: "gaussian"
      std: 0.05
    }
    bias_filler {
      type: "constant"
      value: 0
    }
  }
}
layer {
  name: "penlu_cccp5"
  type: "PENLU"
  bottom: "cccp5"
  top: "penlu_cccp5"
  param {
    lr_mult: 1
    decay_mult: 0
  }
  param {
    lr_mult: 1
    decay_mult: 0
  }
  param {
    lr_mult: 1
    decay_mult: 0
  }
  penlu_param {
    alpha_filler {
      type: "constant"
      value: 2
    }
    beta_filler {
      type: "constant"
      value: 1
    }
    eta_filler {
      type: "constant"
      value: 0.8
    }
  }
}
layer {
  name: "cccp6"
  type: "Convolution"
  bottom: "penlu_cccp5"
  top: "cccp6"
  param {
    lr_mult: 0.1
    decay_mult: 1
  }
  param {
    lr_mult: 0.1
    decay_mult: 0
  }
  convolution_param {
    num_output: 10
    kernel_size: 1
    weight_filler {
      type: "gaussian"
      std: 0.05
    }
    bias_filler {
      type: "constant"
      value: 0
    }
  }
}
layer {
  name: "penlu_cccp6"
  type: "PENLU"
  bottom: "cccp6"
  top: "penlu_cccp6"
  param {
    lr_mult: 1
    decay_mult: 0
  }
  param {
    lr_mult: 1
    decay_mult: 0
  }
  param {
    lr_mult: 1
    decay_mult: 0
  }
  penlu_param {
    alpha_filler {
      type: "constant"
      value: 2
    }
    beta_filler {
      type: "constant"
      value: 1
    }
    eta_filler {
      type: "constant"
      value: 0.8
    }
  }
}
layer {
  name: "pool3"
  type: "Pooling"
  bottom: "penlu_cccp6"
  top: "pool3"
  pooling_param {
    pool: AVE
    kernel_size: 7
    stride: 1
  }
}
layer {
  name: "accuracy"
  type: "Accuracy"
  bottom: "pool3"
  bottom: "label"
  top: "accuracy"
}
layer {
  name: "loss"
  type: "SoftmaxWithLoss"
  bottom: "pool3"
  bottom: "label"
  top: "loss"
}
I0919 18:27:24.482936  4709 layer_factory.hpp:77] Creating layer cifar
I0919 18:27:24.483036  4709 db_lmdb.cpp:35] Opened lmdb /home/x306/caffe/xn/PENLU/data/cifar10/cifar10_train_lmdb
I0919 18:27:24.483055  4709 net.cpp:84] Creating Layer cifar
I0919 18:27:24.483072  4709 net.cpp:380] cifar -> data
I0919 18:27:24.483101  4709 net.cpp:380] cifar -> label
I0919 18:27:24.483111  4709 data_transformer.cpp:25] Loading mean file from: /home/x306/caffe/xn/PENLU/data/cifar10/mean.binaryproto
I0919 18:27:24.484509  4709 data_layer.cpp:45] output data size: 64,3,28,28
I0919 18:27:24.486680  4709 net.cpp:122] Setting up cifar
I0919 18:27:24.486694  4709 net.cpp:129] Top shape: 64 3 28 28 (150528)
I0919 18:27:24.486698  4709 net.cpp:129] Top shape: 64 (64)
I0919 18:27:24.486702  4709 net.cpp:137] Memory required for data: 602368
I0919 18:27:24.486711  4709 layer_factory.hpp:77] Creating layer label_cifar_1_split
I0919 18:27:24.486737  4709 net.cpp:84] Creating Layer label_cifar_1_split
I0919 18:27:24.486742  4709 net.cpp:406] label_cifar_1_split <- label
I0919 18:27:24.486758  4709 net.cpp:380] label_cifar_1_split -> label_cifar_1_split_0
I0919 18:27:24.486778  4709 net.cpp:380] label_cifar_1_split -> label_cifar_1_split_1
I0919 18:27:24.486817  4709 net.cpp:122] Setting up label_cifar_1_split
I0919 18:27:24.486824  4709 net.cpp:129] Top shape: 64 (64)
I0919 18:27:24.486826  4709 net.cpp:129] Top shape: 64 (64)
I0919 18:27:24.486829  4709 net.cpp:137] Memory required for data: 602880
I0919 18:27:24.486830  4709 layer_factory.hpp:77] Creating layer conv1
I0919 18:27:24.486855  4709 net.cpp:84] Creating Layer conv1
I0919 18:27:24.486857  4709 net.cpp:406] conv1 <- data
I0919 18:27:24.486871  4709 net.cpp:380] conv1 -> conv1
I0919 18:27:24.632292  4709 net.cpp:122] Setting up conv1
I0919 18:27:24.632316  4709 net.cpp:129] Top shape: 64 192 28 28 (9633792)
I0919 18:27:24.632319  4709 net.cpp:137] Memory required for data: 39138048
I0919 18:27:24.632334  4709 layer_factory.hpp:77] Creating layer penlu_conv1
I0919 18:27:24.632360  4709 net.cpp:84] Creating Layer penlu_conv1
I0919 18:27:24.632366  4709 net.cpp:406] penlu_conv1 <- conv1
I0919 18:27:24.632372  4709 net.cpp:380] penlu_conv1 -> penlu_conv1
I0919 18:27:24.632591  4709 net.cpp:122] Setting up penlu_conv1
I0919 18:27:24.632598  4709 net.cpp:129] Top shape: 64 192 28 28 (9633792)
I0919 18:27:24.632601  4709 net.cpp:137] Memory required for data: 77673216
I0919 18:27:24.632607  4709 layer_factory.hpp:77] Creating layer cccp1
I0919 18:27:24.632617  4709 net.cpp:84] Creating Layer cccp1
I0919 18:27:24.632632  4709 net.cpp:406] cccp1 <- penlu_conv1
I0919 18:27:24.632637  4709 net.cpp:380] cccp1 -> cccp1
I0919 18:27:24.634572  4709 net.cpp:122] Setting up cccp1
I0919 18:27:24.634590  4709 net.cpp:129] Top shape: 64 160 28 28 (8028160)
I0919 18:27:24.634594  4709 net.cpp:137] Memory required for data: 109785856
I0919 18:27:24.634598  4709 layer_factory.hpp:77] Creating layer penlu_cccp1
I0919 18:27:24.634606  4709 net.cpp:84] Creating Layer penlu_cccp1
I0919 18:27:24.634610  4709 net.cpp:406] penlu_cccp1 <- cccp1
I0919 18:27:24.634629  4709 net.cpp:380] penlu_cccp1 -> penlu_cccp1
I0919 18:27:24.634820  4709 net.cpp:122] Setting up penlu_cccp1
I0919 18:27:24.634827  4709 net.cpp:129] Top shape: 64 160 28 28 (8028160)
I0919 18:27:24.634829  4709 net.cpp:137] Memory required for data: 141898496
I0919 18:27:24.634836  4709 layer_factory.hpp:77] Creating layer cccp2
I0919 18:27:24.634842  4709 net.cpp:84] Creating Layer cccp2
I0919 18:27:24.634847  4709 net.cpp:406] cccp2 <- penlu_cccp1
I0919 18:27:24.634865  4709 net.cpp:380] cccp2 -> cccp2
I0919 18:27:24.636008  4709 net.cpp:122] Setting up cccp2
I0919 18:27:24.636027  4709 net.cpp:129] Top shape: 64 96 28 28 (4816896)
I0919 18:27:24.636032  4709 net.cpp:137] Memory required for data: 161166080
I0919 18:27:24.636051  4709 layer_factory.hpp:77] Creating layer penlu_cccp2
I0919 18:27:24.636060  4709 net.cpp:84] Creating Layer penlu_cccp2
I0919 18:27:24.636065  4709 net.cpp:406] penlu_cccp2 <- cccp2
I0919 18:27:24.636071  4709 net.cpp:380] penlu_cccp2 -> penlu_cccp2
I0919 18:27:24.636229  4709 net.cpp:122] Setting up penlu_cccp2
I0919 18:27:24.636235  4709 net.cpp:129] Top shape: 64 96 28 28 (4816896)
I0919 18:27:24.636240  4709 net.cpp:137] Memory required for data: 180433664
I0919 18:27:24.636260  4709 layer_factory.hpp:77] Creating layer pool1
I0919 18:27:24.636267  4709 net.cpp:84] Creating Layer pool1
I0919 18:27:24.636271  4709 net.cpp:406] pool1 <- penlu_cccp2
I0919 18:27:24.636276  4709 net.cpp:380] pool1 -> pool1
I0919 18:27:24.636320  4709 net.cpp:122] Setting up pool1
I0919 18:27:24.636327  4709 net.cpp:129] Top shape: 64 96 14 14 (1204224)
I0919 18:27:24.636332  4709 net.cpp:137] Memory required for data: 185250560
I0919 18:27:24.636345  4709 layer_factory.hpp:77] Creating layer dropout1
I0919 18:27:24.636353  4709 net.cpp:84] Creating Layer dropout1
I0919 18:27:24.636356  4709 net.cpp:406] dropout1 <- pool1
I0919 18:27:24.636363  4709 net.cpp:380] dropout1 -> dropout1
I0919 18:27:24.636390  4709 net.cpp:122] Setting up dropout1
I0919 18:27:24.636404  4709 net.cpp:129] Top shape: 64 96 14 14 (1204224)
I0919 18:27:24.636406  4709 net.cpp:137] Memory required for data: 190067456
I0919 18:27:24.636409  4709 layer_factory.hpp:77] Creating layer conv2
I0919 18:27:24.636425  4709 net.cpp:84] Creating Layer conv2
I0919 18:27:24.636430  4709 net.cpp:406] conv2 <- dropout1
I0919 18:27:24.636433  4709 net.cpp:380] conv2 -> conv2
I0919 18:27:24.648183  4709 net.cpp:122] Setting up conv2
I0919 18:27:24.648196  4709 net.cpp:129] Top shape: 64 192 14 14 (2408448)
I0919 18:27:24.648200  4709 net.cpp:137] Memory required for data: 199701248
I0919 18:27:24.648208  4709 layer_factory.hpp:77] Creating layer penlu_conv2
I0919 18:27:24.648216  4709 net.cpp:84] Creating Layer penlu_conv2
I0919 18:27:24.648218  4709 net.cpp:406] penlu_conv2 <- conv2
I0919 18:27:24.648223  4709 net.cpp:380] penlu_conv2 -> penlu_conv2
I0919 18:27:24.648357  4709 net.cpp:122] Setting up penlu_conv2
I0919 18:27:24.648363  4709 net.cpp:129] Top shape: 64 192 14 14 (2408448)
I0919 18:27:24.648366  4709 net.cpp:137] Memory required for data: 209335040
I0919 18:27:24.648370  4709 layer_factory.hpp:77] Creating layer cccp3
I0919 18:27:24.648377  4709 net.cpp:84] Creating Layer cccp3
I0919 18:27:24.648380  4709 net.cpp:406] cccp3 <- penlu_conv2
I0919 18:27:24.648385  4709 net.cpp:380] cccp3 -> cccp3
I0919 18:27:24.649984  4709 net.cpp:122] Setting up cccp3
I0919 18:27:24.649994  4709 net.cpp:129] Top shape: 64 192 14 14 (2408448)
I0919 18:27:24.650007  4709 net.cpp:137] Memory required for data: 218968832
I0919 18:27:24.650012  4709 layer_factory.hpp:77] Creating layer penlu_cccp3
I0919 18:27:24.650019  4709 net.cpp:84] Creating Layer penlu_cccp3
I0919 18:27:24.650032  4709 net.cpp:406] penlu_cccp3 <- cccp3
I0919 18:27:24.650037  4709 net.cpp:380] penlu_cccp3 -> penlu_cccp3
I0919 18:27:24.650166  4709 net.cpp:122] Setting up penlu_cccp3
I0919 18:27:24.650171  4709 net.cpp:129] Top shape: 64 192 14 14 (2408448)
I0919 18:27:24.650183  4709 net.cpp:137] Memory required for data: 228602624
I0919 18:27:24.650187  4709 layer_factory.hpp:77] Creating layer cccp4
I0919 18:27:24.650194  4709 net.cpp:84] Creating Layer cccp4
I0919 18:27:24.650197  4709 net.cpp:406] cccp4 <- penlu_cccp3
I0919 18:27:24.650202  4709 net.cpp:380] cccp4 -> cccp4
I0919 18:27:24.651813  4709 net.cpp:122] Setting up cccp4
I0919 18:27:24.651823  4709 net.cpp:129] Top shape: 64 192 14 14 (2408448)
I0919 18:27:24.651836  4709 net.cpp:137] Memory required for data: 238236416
I0919 18:27:24.651842  4709 layer_factory.hpp:77] Creating layer penlu_cccp4
I0919 18:27:24.651852  4709 net.cpp:84] Creating Layer penlu_cccp4
I0919 18:27:24.651857  4709 net.cpp:406] penlu_cccp4 <- cccp4
I0919 18:27:24.651865  4709 net.cpp:380] penlu_cccp4 -> penlu_cccp4
I0919 18:27:24.652022  4709 net.cpp:122] Setting up penlu_cccp4
I0919 18:27:24.652029  4709 net.cpp:129] Top shape: 64 192 14 14 (2408448)
I0919 18:27:24.652041  4709 net.cpp:137] Memory required for data: 247870208
I0919 18:27:24.652045  4709 layer_factory.hpp:77] Creating layer pool2
I0919 18:27:24.652051  4709 net.cpp:84] Creating Layer pool2
I0919 18:27:24.652055  4709 net.cpp:406] pool2 <- penlu_cccp4
I0919 18:27:24.652060  4709 net.cpp:380] pool2 -> pool2
I0919 18:27:24.652199  4709 net.cpp:122] Setting up pool2
I0919 18:27:24.652205  4709 net.cpp:129] Top shape: 64 192 7 7 (602112)
I0919 18:27:24.652217  4709 net.cpp:137] Memory required for data: 250278656
I0919 18:27:24.652220  4709 layer_factory.hpp:77] Creating layer dropout2
I0919 18:27:24.652225  4709 net.cpp:84] Creating Layer dropout2
I0919 18:27:24.652228  4709 net.cpp:406] dropout2 <- pool2
I0919 18:27:24.652235  4709 net.cpp:380] dropout2 -> dropout2
I0919 18:27:24.652263  4709 net.cpp:122] Setting up dropout2
I0919 18:27:24.652271  4709 net.cpp:129] Top shape: 64 192 7 7 (602112)
I0919 18:27:24.652276  4709 net.cpp:137] Memory required for data: 252687104
I0919 18:27:24.652279  4709 layer_factory.hpp:77] Creating layer conv3
I0919 18:27:24.652290  4709 net.cpp:84] Creating Layer conv3
I0919 18:27:24.652294  4709 net.cpp:406] conv3 <- dropout2
I0919 18:27:24.652302  4709 net.cpp:380] conv3 -> conv3
I0919 18:27:24.661317  4709 net.cpp:122] Setting up conv3
I0919 18:27:24.661329  4709 net.cpp:129] Top shape: 64 192 7 7 (602112)
I0919 18:27:24.661334  4709 net.cpp:137] Memory required for data: 255095552
I0919 18:27:24.661353  4709 layer_factory.hpp:77] Creating layer penlu_conv3
I0919 18:27:24.661362  4709 net.cpp:84] Creating Layer penlu_conv3
I0919 18:27:24.661366  4709 net.cpp:406] penlu_conv3 <- conv3
I0919 18:27:24.661375  4709 net.cpp:380] penlu_conv3 -> penlu_conv3
I0919 18:27:24.661510  4709 net.cpp:122] Setting up penlu_conv3
I0919 18:27:24.661517  4709 net.cpp:129] Top shape: 64 192 7 7 (602112)
I0919 18:27:24.661521  4709 net.cpp:137] Memory required for data: 257504000
I0919 18:27:24.661545  4709 layer_factory.hpp:77] Creating layer cccp5
I0919 18:27:24.661557  4709 net.cpp:84] Creating Layer cccp5
I0919 18:27:24.661563  4709 net.cpp:406] cccp5 <- penlu_conv3
I0919 18:27:24.661571  4709 net.cpp:380] cccp5 -> cccp5
I0919 18:27:24.663301  4709 net.cpp:122] Setting up cccp5
I0919 18:27:24.663312  4709 net.cpp:129] Top shape: 64 192 7 7 (602112)
I0919 18:27:24.663316  4709 net.cpp:137] Memory required for data: 259912448
I0919 18:27:24.663331  4709 layer_factory.hpp:77] Creating layer penlu_cccp5
I0919 18:27:24.663338  4709 net.cpp:84] Creating Layer penlu_cccp5
I0919 18:27:24.663342  4709 net.cpp:406] penlu_cccp5 <- cccp5
I0919 18:27:24.663347  4709 net.cpp:380] penlu_cccp5 -> penlu_cccp5
I0919 18:27:24.663473  4709 net.cpp:122] Setting up penlu_cccp5
I0919 18:27:24.663480  4709 net.cpp:129] Top shape: 64 192 7 7 (602112)
I0919 18:27:24.663482  4709 net.cpp:137] Memory required for data: 262320896
I0919 18:27:24.663496  4709 layer_factory.hpp:77] Creating layer cccp6
I0919 18:27:24.663502  4709 net.cpp:84] Creating Layer cccp6
I0919 18:27:24.663506  4709 net.cpp:406] cccp6 <- penlu_cccp5
I0919 18:27:24.663519  4709 net.cpp:380] cccp6 -> cccp6
I0919 18:27:24.664434  4709 net.cpp:122] Setting up cccp6
I0919 18:27:24.664444  4709 net.cpp:129] Top shape: 64 10 7 7 (31360)
I0919 18:27:24.664448  4709 net.cpp:137] Memory required for data: 262446336
I0919 18:27:24.664453  4709 layer_factory.hpp:77] Creating layer penlu_cccp6
I0919 18:27:24.664460  4709 net.cpp:84] Creating Layer penlu_cccp6
I0919 18:27:24.664463  4709 net.cpp:406] penlu_cccp6 <- cccp6
I0919 18:27:24.664469  4709 net.cpp:380] penlu_cccp6 -> penlu_cccp6
I0919 18:27:24.664578  4709 net.cpp:122] Setting up penlu_cccp6
I0919 18:27:24.664584  4709 net.cpp:129] Top shape: 64 10 7 7 (31360)
I0919 18:27:24.664587  4709 net.cpp:137] Memory required for data: 262571776
I0919 18:27:24.664592  4709 layer_factory.hpp:77] Creating layer pool3
I0919 18:27:24.664598  4709 net.cpp:84] Creating Layer pool3
I0919 18:27:24.664602  4709 net.cpp:406] pool3 <- penlu_cccp6
I0919 18:27:24.664604  4709 net.cpp:380] pool3 -> pool3
I0919 18:27:24.664750  4709 net.cpp:122] Setting up pool3
I0919 18:27:24.664757  4709 net.cpp:129] Top shape: 64 10 1 1 (640)
I0919 18:27:24.664760  4709 net.cpp:137] Memory required for data: 262574336
I0919 18:27:24.664773  4709 layer_factory.hpp:77] Creating layer pool3_pool3_0_split
I0919 18:27:24.664778  4709 net.cpp:84] Creating Layer pool3_pool3_0_split
I0919 18:27:24.664782  4709 net.cpp:406] pool3_pool3_0_split <- pool3
I0919 18:27:24.664785  4709 net.cpp:380] pool3_pool3_0_split -> pool3_pool3_0_split_0
I0919 18:27:24.664791  4709 net.cpp:380] pool3_pool3_0_split -> pool3_pool3_0_split_1
I0919 18:27:24.664824  4709 net.cpp:122] Setting up pool3_pool3_0_split
I0919 18:27:24.664829  4709 net.cpp:129] Top shape: 64 10 1 1 (640)
I0919 18:27:24.664832  4709 net.cpp:129] Top shape: 64 10 1 1 (640)
I0919 18:27:24.664834  4709 net.cpp:137] Memory required for data: 262579456
I0919 18:27:24.664837  4709 layer_factory.hpp:77] Creating layer accuracy
I0919 18:27:24.664842  4709 net.cpp:84] Creating Layer accuracy
I0919 18:27:24.664855  4709 net.cpp:406] accuracy <- pool3_pool3_0_split_0
I0919 18:27:24.664858  4709 net.cpp:406] accuracy <- label_cifar_1_split_0
I0919 18:27:24.664862  4709 net.cpp:380] accuracy -> accuracy
…
I0919 18:27:24.665843  4709 net.cpp:294] The NetState phase (1) differed from the phase (0) specified by a rule in layer cifar
I0919 18:27:24.666019  4709 net.cpp:51] Initializing net from parameters: 
name: "nin"
state {
  phase: TEST
}
layer {
  name: "cifar"
  type: "Data"
  top: "data"
  top: "label"
  include {
    phase: TEST
  }
  transform_param {
    mirror: false
    crop_size: 28
    mean_file: "/home/x306/caffe/xn/PENLU/data/cifar10/mean.binaryproto"
  }
  data_param {
    source: "/home/x306/caffe/xn/PENLU/data/cifar10/cifar10_test_lmdb"
    batch_size: 50
    backend: LMDB
  }
}
layer {
  name: "conv1"
  type: "Convolution"
  bottom: "data"
  top: "conv1"
  param {
    lr_mult: 1
    decay_mult: 1
  }
  param {
    lr_mult: 2
    decay_mult: 0
  }
  convolution_param {
    num_output: 192
    pad: 2
    kernel_size: 5
    weight_filler {
      type: "gaussian"
      std: 0.05
    }
    bias_filler {
      type: "constant"
      value: 0
    }
  }
}
layer {
  name: "penlu_conv1"
  type: "PENLU"
  bottom: "conv1"
  top: "penlu_conv1"
  param {
    lr_mult: 1
    decay_mult: 0
  }
  param {
    lr_mult: 1
    decay_mult: 0
  }
  param {
    lr_mult: 1
    decay_mult: 0
  }
  penlu_param {
    alpha_filler {
      type: "constant"
      value: 2
    }
    beta_filler {
      type: "constant"
      value: 1
    }
    eta_filler {
      type: "constant"
      value: 0.8
    }
  }
}
layer {
  name: "cccp1"
  type: "Convolution"
  bottom: "penlu_conv1"
  top: "cccp1"
  param {
    lr_mult: 1
    decay_mult: 1
  }
  param {
    lr_mult: 2
    decay_mult: 0
  }
  convolution_param {
    num_output: 160
    kernel_size: 1
    weight_filler {
      type: "gaussian"
      std: 0.05
    }
    bias_filler {
      type: "constant"
      value: 0
    }
  }
}
layer {
  name: "penlu_cccp1"
  type: "PENLU"
  bottom: "cccp1"
  top: "penlu_cccp1"
  param {
    lr_mult: 1
    decay_mult: 0
  }
  param {
    lr_mult: 1
    decay_mult: 0
  }
  param {
    lr_mult: 1
    decay_mult: 0
  }
  penlu_param {
    alpha_filler {
      type: "constant"
      value: 2
    }
    beta_filler {
      type: "constant"
      value: 1
    }
    eta_filler {
      type: "constant"
      value: 0.8
    }
  }
}
layer {
  name: "cccp2"
  type: "Convolution"
  bottom: "penlu_cccp1"
  top: "cccp2"
  param {
    lr_mult: 1
    decay_mult: 1
  }
  param {
    lr_mult: 2
    decay_mult: 0
  }
  convolution_param {
    num_output: 96
    kernel_size: 1
    weight_filler {
      type: "gaussian"
      std: 0.05
    }
    bias_filler {
      type: "constant"
      value: 0
    }
  }
}
layer {
  name: "penlu_cccp2"
  type: "PENLU"
  bottom: "cccp2"
  top: "penlu_cccp2"
  param {
    lr_mult: 1
    decay_mult: 0
  }
  param {
    lr_mult: 1
    decay_mult: 0
  }
  param {
    lr_mult: 1
    decay_mult: 0
  }
  penlu_param {
    alpha_filler {
      type: "constant"
      value: 2
    }
    beta_filler {
      type: "constant"
      value: 1
    }
    eta_filler {
      type: "constant"
      value: 0.8
    }
  }
}
layer {
  name: "pool1"
  type: "Pooling"
  bottom: "penlu_cccp2"
  top: "pool1"
  pooling_param {
    pool: MAX
    kernel_size: 3
    stride: 2
  }
}
layer {
  name: "dropout1"
  type: "Dropout"
  bottom: "pool1"
  top: "dropout1"
  dropout_param {
    dropout_ratio: 0.5
  }
}
layer {
  name: "conv2"
  type: "Convolution"
  bottom: "dropout1"
  top: "conv2"
  param {
    lr_mult: 1
    decay_mult: 1
  }
  param {
    lr_mult: 2
    decay_mult: 0
  }
  convolution_param {
    num_output: 192
    pad: 2
    kernel_size: 5
    weight_filler {
      type: "gaussian"
      std: 0.05
    }
    bias_filler {
      type: "constant"
      value: 0
    }
  }
}
layer {
  name: "penlu_conv2"
  type: "PENLU"
  bottom: "conv2"
  top: "penlu_conv2"
  param {
    lr_mult: 1
    decay_mult: 0
  }
  param {
    lr_mult: 1
    decay_mult: 0
  }
  param {
    lr_mult: 1
    decay_mult: 0
  }
  penlu_param {
    alpha_filler {
      type: "constant"
      value: 2
    }
    beta_filler {
      type: "constant"
      value: 1
    }
    eta_filler {
      type: "constant"
      value: 0.8
    }
  }
}
layer {
  name: "cccp3"
  type: "Convolution"
  bottom: "penlu_conv2"
  top: "cccp3"
  param {
    lr_mult: 1
    decay_mult: 1
  }
  param {
    lr_mult: 2
    decay_mult: 0
  }
  convolution_param {
    num_output: 192
    kernel_size: 1
    weight_filler {
      type: "gaussian"
      std: 0.05
    }
    bias_filler {
      type: "constant"
      value: 0
    }
  }
}
layer {
  name: "penlu_cccp3"
  type: "PENLU"
  bottom: "cccp3"
  top: "penlu_cccp3"
  param {
    lr_mult: 1
    decay_mult: 0
  }
  param {
    lr_mult: 1
    decay_mult: 0
  }
  param {
    lr_mult: 1
    decay_mult: 0
  }
  penlu_param {
    alpha_filler {
      type: "constant"
      value: 2
    }
    beta_filler {
      type: "constant"
      value: 1
    }
    eta_filler {
      type: "constant"
      value: 0.8
    }
  }
}
layer {
  name: "cccp4"
  type: "Convolution"
  bottom: "penlu_cccp3"
  top: "cccp4"
  param {
    lr_mult: 1
    decay_mult: 1
  }
  param {
    lr_mult: 2
    decay_mult: 0
  }
  convolution_param {
    num_output: 192
    kernel_size: 1
    weight_filler {
      type: "gaussian"
      std: 0.05
    }
    bias_filler {
      type: "constant"
      value: 0
    }
  }
}
layer {
  name: "penlu_cccp4"
  type: "PENLU"
  bottom: "cccp4"
  top: "penlu_cccp4"
  param {
    lr_mult: 1
    decay_mult: 0
  }
  param {
    lr_mult: 1
    decay_mult: 0
  }
  param {
    lr_mult: 1
    decay_mult: 0
  }
  penlu_param {
    alpha_filler {
      type: "constant"
      value: 2
    }
    beta_filler {
      type: "constant"
      value: 1
    }
    eta_filler {
      type: "constant"
      value: 0.8
    }
  }
}
layer {
  name: "pool2"
  type: "Pooling"
  bottom: "penlu_cccp4"
  top: "pool2"
  pooling_param {
    pool: AVE
    kernel_size: 3
    stride: 2
  }
}
layer {
  name: "dropout2"
  type: "Dropout"
  bottom: "pool2"
  top: "dropout2"
  dropout_param {
    dropout_ratio: 0.5
  }
}
layer {
  name: "conv3"
  type: "Convolution"
  bottom: "dropout2"
  top: "conv3"
  param {
    lr_mult: 1
    decay_mult: 1
  }
  param {
    lr_mult: 2
    decay_mult: 0
  }
  convolution_param {
    num_output: 192
    pad: 1
    kernel_size: 3
    weight_filler {
      type: "gaussian"
      std: 0.05
    }
    bias_filler {
      type: "constant"
      value: 0
    }
  }
}
layer {
  name: "penlu_conv3"
  type: "PENLU"
  bottom: "conv3"
  top: "penlu_conv3"
  param {
    lr_mult: 1
    decay_mult: 0
  }
  param {
    lr_mult: 1
    decay_mult: 0
  }
  param {
    lr_mult: 1
    decay_mult: 0
  }
  penlu_param {
    alpha_filler {
      type: "constant"
      value: 2
    }
    beta_filler {
      type: "constant"
      value: 1
    }
    eta_filler {
      type: "constant"
      value: 0.8
    }
  }
}
layer {
  name: "cccp5"
  type: "Convolution"
  bottom: "penlu_conv3"
  top: "cccp5"
  param {
    lr_mult: 1
    decay_mult: 1
  }
  param {
    lr_mult: 2
    decay_mult: 0
  }
  convolution_param {
    num_output: 192
    kernel_size: 1
    weight_filler {
      type: "gaussian"
      std: 0.05
    }
    bias_filler {
      type: "constant"
      value: 0
    }
  }
}
layer {
  name: "penlu_cccp5"
  type: "PENLU"
  bottom: "cccp5"
  top: "penlu_cccp5"
  param {
    lr_mult: 1
    decay_mult: 0
  }
  param {
    lr_mult: 1
    decay_mult: 0
  }
  param {
    lr_mult: 1
    decay_mult: 0
  }
  penlu_param {
    alpha_filler {
      type: "constant"
      value: 2
    }
    beta_filler {
      type: "constant"
      value: 1
    }
    eta_filler {
      type: "constant"
      value: 0.8
    }
  }
}
layer {
  name: "cccp6"
  type: "Convolution"
  bottom: "penlu_cccp5"
  top: "cccp6"
  param {
    lr_mult: 0.1
    decay_mult: 1
  }
  param {
    lr_mult: 0.1
    decay_mult: 0
  }
  convolution_param {
    num_output: 10
    kernel_size: 1
    weight_filler {
      type: "gaussian"
      std: 0.05
    }
    bias_filler {
      type: "constant"
      value: 0
    }
  }
}
layer {
  name: "penlu_cccp6"
  type: "PENLU"
  bottom: "cccp6"
  top: "penlu_cccp6"
  param {
    lr_mult: 1
    decay_mult: 0
  }
  param {
    lr_mult: 1
    decay_mult: 0
  }
  param {
    lr_mult: 1
    decay_mult: 0
  }
  penlu_param {
    alpha_filler {
      type: "constant"
      value: 2
    }
    beta_filler {
      type: "constant"
      value: 1
    }
    eta_filler {
      type: "constant"
      value: 0.8
    }
  }
}
layer {
  name: "pool3"
  type: "Pooling"
  bottom: "penlu_cccp6"
  top: "pool3"
  pooling_param {
    pool: AVE
    kernel_size: 7
    stride: 1
  }
}
layer {
  name: "accuracy"
  type: "Accuracy"
  bottom: "pool3"
  bottom: "label"
  top: "accuracy"
}
layer {
  name: "loss"
  type: "SoftmaxWithLoss"
  bottom: "pool3"
  bottom: "label"
  top: "loss"
}
I0919 18:27:24.666121  4709 layer_factory.hpp:77] Creating layer cifar
I0919 18:27:24.666157  4709 db_lmdb.cpp:35] Opened lmdb /home/x306/caffe/xn/PENLU/data/cifar10/cifar10_test_lmdb
I0919 18:27:24.666168  4709 net.cpp:84] Creating Layer cifar
I0919 18:27:24.666172  4709 net.cpp:380] cifar -> data
I0919 18:27:24.666178  4709 net.cpp:380] cifar -> label
I0919 18:27:24.666183  4709 data_transformer.cpp:25] Loading mean file from: /home/x306/caffe/xn/PENLU/data/cifar10/mean.binaryproto
I0919 18:27:24.666291  4709 data_layer.cpp:45] output data size: 50,3,28,28
I0919 18:27:24.667301  4709 net.cpp:122] Setting up cifar
I0919 18:27:24.667311  4709 net.cpp:129] Top shape: 50 3 28 28 (117600)
I0919 18:27:24.667316  4709 net.cpp:129] Top shape: 50 (50)
I0919 18:27:24.667320  4709 net.cpp:137] Memory required for data: 470600
I0919 18:27:24.667323  4709 layer_factory.hpp:77] Creating layer label_cifar_1_split
I0919 18:27:24.667328  4709 net.cpp:84] Creating Layer label_cifar_1_split
I0919 18:27:24.667330  4709 net.cpp:406] label_cifar_1_split <- label
I0919 18:27:24.667335  4709 net.cpp:380] label_cifar_1_split -> label_cifar_1_split_0
I0919 18:27:24.667340  4709 net.cpp:380] label_cifar_1_split -> label_cifar_1_split_1
I0919 18:27:24.667397  4709 net.cpp:122] Setting up label_cifar_1_split
I0919 18:27:24.667403  4709 net.cpp:129] Top shape: 50 (50)
I0919 18:27:24.667407  4709 net.cpp:129] Top shape: 50 (50)
I0919 18:27:24.667408  4709 net.cpp:137] Memory required for data: 471000
I0919 18:27:24.667410  4709 layer_factory.hpp:77] Creating layer conv1
I0919 18:27:24.667419  4709 net.cpp:84] Creating Layer conv1
I0919 18:27:24.667423  4709 net.cpp:406] conv1 <- data
I0919 18:27:24.667434  4709 net.cpp:380] conv1 -> conv1
I0919 18:27:24.668865  4709 net.cpp:122] Setting up conv1
I0919 18:27:24.668876  4709 net.cpp:129] Top shape: 50 192 28 28 (7526400)
I0919 18:27:24.668879  4709 net.cpp:137] Memory required for data: 30576600
I0919 18:27:24.668886  4709 layer_factory.hpp:77] Creating layer penlu_conv1
I0919 18:27:24.668895  4709 net.cpp:84] Creating Layer penlu_conv1
I0919 18:27:24.668898  4709 net.cpp:406] penlu_conv1 <- conv1
I0919 18:27:24.668903  4709 net.cpp:380] penlu_conv1 -> penlu_conv1
I0919 18:27:24.669086  4709 net.cpp:122] Setting up penlu_conv1
I0919 18:27:24.669092  4709 net.cpp:129] Top shape: 50 192 28 28 (7526400)
I0919 18:27:24.669100  4709 net.cpp:137] Memory required for data: 60682200
I0919 18:27:24.669107  4709 layer_factory.hpp:77] Creating layer cccp1
I0919 18:27:24.669116  4709 net.cpp:84] Creating Layer cccp1
I0919 18:27:24.669118  4709 net.cpp:406] cccp1 <- penlu_conv1
I0919 18:27:24.669126  4709 net.cpp:380] cccp1 -> cccp1
I0919 18:27:24.670775  4709 net.cpp:122] Setting up cccp1
I0919 18:27:24.670785  4709 net.cpp:129] Top shape: 50 160 28 28 (6272000)
I0919 18:27:24.670789  4709 net.cpp:137] Memory required for data: 85770200
I0919 18:27:24.670794  4709 layer_factory.hpp:77] Creating layer penlu_cccp1
I0919 18:27:24.670800  4709 net.cpp:84] Creating Layer penlu_cccp1
I0919 18:27:24.670804  4709 net.cpp:406] penlu_cccp1 <- cccp1
I0919 18:27:24.670809  4709 net.cpp:380] penlu_cccp1 -> penlu_cccp1
I0919 18:27:24.671481  4709 net.cpp:122] Setting up penlu_cccp1
I0919 18:27:24.671491  4709 net.cpp:129] Top shape: 50 160 28 28 (6272000)
I0919 18:27:24.671495  4709 net.cpp:137] Memory required for data: 110858200
I0919 18:27:24.671502  4709 layer_factory.hpp:77] Creating layer cccp2
I0919 18:27:24.671509  4709 net.cpp:84] Creating Layer cccp2
I0919 18:27:24.671512  4709 net.cpp:406] cccp2 <- penlu_cccp1
I0919 18:27:24.671519  4709 net.cpp:380] cccp2 -> cccp2
I0919 18:27:24.672762  4709 net.cpp:122] Setting up cccp2
I0919 18:27:24.672773  4709 net.cpp:129] Top shape: 50 96 28 28 (3763200)
I0919 18:27:24.672777  4709 net.cpp:137] Memory required for data: 125911000
I0919 18:27:24.672782  4709 layer_factory.hpp:77] Creating layer penlu_cccp2
I0919 18:27:24.672788  4709 net.cpp:84] Creating Layer penlu_cccp2
I0919 18:27:24.672792  4709 net.cpp:406] penlu_cccp2 <- cccp2
I0919 18:27:24.672797  4709 net.cpp:380] penlu_cccp2 -> penlu_cccp2
I0919 18:27:24.672941  4709 net.cpp:122] Setting up penlu_cccp2
I0919 18:27:24.672947  4709 net.cpp:129] Top shape: 50 96 28 28 (3763200)
I0919 18:27:24.672950  4709 net.cpp:137] Memory required for data: 140963800
I0919 18:27:24.672955  4709 layer_factory.hpp:77] Creating layer pool1
I0919 18:27:24.672961  4709 net.cpp:84] Creating Layer pool1
I0919 18:27:24.672965  4709 net.cpp:406] pool1 <- penlu_cccp2
I0919 18:27:24.672968  4709 net.cpp:380] pool1 -> pool1
I0919 18:27:24.672994  4709 net.cpp:122] Setting up pool1
I0919 18:27:24.672999  4709 net.cpp:129] Top shape: 50 96 14 14 (940800)
I0919 18:27:24.673002  4709 net.cpp:137] Memory required for data: 144727000
I0919 18:27:24.673004  4709 layer_factory.hpp:77] Creating layer dropout1
I0919 18:27:24.673009  4709 net.cpp:84] Creating Layer dropout1
I0919 18:27:24.673012  4709 net.cpp:406] dropout1 <- pool1
I0919 18:27:24.673015  4709 net.cpp:380] dropout1 -> dropout1
I0919 18:27:24.673039  4709 net.cpp:122] Setting up dropout1
I0919 18:27:24.673044  4709 net.cpp:129] Top shape: 50 96 14 14 (940800)
I0919 18:27:24.673048  4709 net.cpp:137] Memory required for data: 148490200
I0919 18:27:24.673049  4709 layer_factory.hpp:77] Creating layer conv2
I0919 18:27:24.673055  4709 net.cpp:84] Creating Layer conv2
I0919 18:27:24.673059  4709 net.cpp:406] conv2 <- dropout1
I0919 18:27:24.673063  4709 net.cpp:380] conv2 -> conv2
I0919 18:27:24.684564  4709 net.cpp:122] Setting up conv2
I0919 18:27:24.684574  4709 net.cpp:129] Top shape: 50 192 14 14 (1881600)
I0919 18:27:24.684578  4709 net.cpp:137] Memory required for data: 156016600
I0919 18:27:24.684587  4709 layer_factory.hpp:77] Creating layer penlu_conv2
I0919 18:27:24.684602  4709 net.cpp:84] Creating Layer penlu_conv2
I0919 18:27:24.684607  4709 net.cpp:406] penlu_conv2 <- conv2
I0919 18:27:24.684612  4709 net.cpp:380] penlu_conv2 -> penlu_conv2
I0919 18:27:24.684751  4709 net.cpp:122] Setting up penlu_conv2
I0919 18:27:24.684756  4709 net.cpp:129] Top shape: 50 192 14 14 (1881600)
I0919 18:27:24.684759  4709 net.cpp:137] Memory required for data: 163543000
I0919 18:27:24.684764  4709 layer_factory.hpp:77] Creating layer cccp3
I0919 18:27:24.684772  4709 net.cpp:84] Creating Layer cccp3
I0919 18:27:24.684775  4709 net.cpp:406] cccp3 <- penlu_conv2
I0919 18:27:24.684779  4709 net.cpp:380] cccp3 -> cccp3
I0919 18:27:24.686426  4709 net.cpp:122] Setting up cccp3
I0919 18:27:24.686434  4709 net.cpp:129] Top shape: 50 192 14 14 (1881600)
I0919 18:27:24.686437  4709 net.cpp:137] Memory required for data: 171069400
I0919 18:27:24.686441  4709 layer_factory.hpp:77] Creating layer penlu_cccp3
I0919 18:27:24.686449  4709 net.cpp:84] Creating Layer penlu_cccp3
I0919 18:27:24.686451  4709 net.cpp:406] penlu_cccp3 <- cccp3
I0919 18:27:24.686455  4709 net.cpp:380] penlu_cccp3 -> penlu_cccp3
I0919 18:27:24.686585  4709 net.cpp:122] Setting up penlu_cccp3
I0919 18:27:24.686590  4709 net.cpp:129] Top shape: 50 192 14 14 (1881600)
I0919 18:27:24.686592  4709 net.cpp:137] Memory required for data: 178595800
I0919 18:27:24.686597  4709 layer_factory.hpp:77] Creating layer cccp4
I0919 18:27:24.686604  4709 net.cpp:84] Creating Layer cccp4
I0919 18:27:24.686606  4709 net.cpp:406] cccp4 <- penlu_cccp3
I0919 18:27:24.686610  4709 net.cpp:380] cccp4 -> cccp4
I0919 18:27:24.688290  4709 net.cpp:122] Setting up cccp4
I0919 18:27:24.688300  4709 net.cpp:129] Top shape: 50 192 14 14 (1881600)
I0919 18:27:24.688302  4709 net.cpp:137] Memory required for data: 186122200
I0919 18:27:24.688308  4709 layer_factory.hpp:77] Creating layer penlu_cccp4
I0919 18:27:24.688313  4709 net.cpp:84] Creating Layer penlu_cccp4
I0919 18:27:24.688316  4709 net.cpp:406] penlu_cccp4 <- cccp4
I0919 18:27:24.688320  4709 net.cpp:380] penlu_cccp4 -> penlu_cccp4
I0919 18:27:24.688453  4709 net.cpp:122] Setting up penlu_cccp4
I0919 18:27:24.688458  4709 net.cpp:129] Top shape: 50 192 14 14 (1881600)
I0919 18:27:24.688460  4709 net.cpp:137] Memory required for data: 193648600
I0919 18:27:24.688464  4709 layer_factory.hpp:77] Creating layer pool2
I0919 18:27:24.688470  4709 net.cpp:84] Creating Layer pool2
I0919 18:27:24.688472  4709 net.cpp:406] pool2 <- penlu_cccp4
I0919 18:27:24.688475  4709 net.cpp:380] pool2 -> pool2
I0919 18:27:24.688607  4709 net.cpp:122] Setting up pool2
I0919 18:27:24.688614  4709 net.cpp:129] Top shape: 50 192 7 7 (470400)
I0919 18:27:24.688616  4709 net.cpp:137] Memory required for data: 195530200
I0919 18:27:24.688618  4709 layer_factory.hpp:77] Creating layer dropout2
I0919 18:27:24.688622  4709 net.cpp:84] Creating Layer dropout2
I0919 18:27:24.688624  4709 net.cpp:406] dropout2 <- pool2
I0919 18:27:24.688628  4709 net.cpp:380] dropout2 -> dropout2
I0919 18:27:24.688652  4709 net.cpp:122] Setting up dropout2
I0919 18:27:24.688657  4709 net.cpp:129] Top shape: 50 192 7 7 (470400)
I0919 18:27:24.688658  4709 net.cpp:137] Memory required for data: 197411800
I0919 18:27:24.688661  4709 layer_factory.hpp:77] Creating layer conv3
I0919 18:27:24.688668  4709 net.cpp:84] Creating Layer conv3
I0919 18:27:24.688669  4709 net.cpp:406] conv3 <- dropout2
I0919 18:27:24.688673  4709 net.cpp:380] conv3 -> conv3
I0919 18:27:24.697944  4709 net.cpp:122] Setting up conv3
I0919 18:27:24.697959  4709 net.cpp:129] Top shape: 50 192 7 7 (470400)
I0919 18:27:24.697962  4709 net.cpp:137] Memory required for data: 199293400
I0919 18:27:24.697978  4709 layer_factory.hpp:77] Creating layer penlu_conv3
I0919 18:27:24.697996  4709 net.cpp:84] Creating Layer penlu_conv3
I0919 18:27:24.698000  4709 net.cpp:406] penlu_conv3 <- conv3
I0919 18:27:24.698005  4709 net.cpp:380] penlu_conv3 -> penlu_conv3
I0919 18:27:24.698170  4709 net.cpp:122] Setting up penlu_conv3
I0919 18:27:24.698175  4709 net.cpp:129] Top shape: 50 192 7 7 (470400)
I0919 18:27:24.698196  4709 net.cpp:137] Memory required for data: 201175000
I0919 18:27:24.698206  4709 layer_factory.hpp:77] Creating layer cccp5
I0919 18:27:24.698215  4709 net.cpp:84] Creating Layer cccp5
I0919 18:27:24.698218  4709 net.cpp:406] cccp5 <- penlu_conv3
I0919 18:27:24.698222  4709 net.cpp:380] cccp5 -> cccp5
I0919 18:27:24.699880  4709 net.cpp:122] Setting up cccp5
I0919 18:27:24.699890  4709 net.cpp:129] Top shape: 50 192 7 7 (470400)
I0919 18:27:24.699904  4709 net.cpp:137] Memory required for data: 203056600
I0919 18:27:24.699909  4709 layer_factory.hpp:77] Creating layer penlu_cccp5
I0919 18:27:24.699916  4709 net.cpp:84] Creating Layer penlu_cccp5
I0919 18:27:24.699919  4709 net.cpp:406] penlu_cccp5 <- cccp5
I0919 18:27:24.699924  4709 net.cpp:380] penlu_cccp5 -> penlu_cccp5
I0919 18:27:24.700069  4709 net.cpp:122] Setting up penlu_cccp5
I0919 18:27:24.700075  4709 net.cpp:129] Top shape: 50 192 7 7 (470400)
I0919 18:27:24.700079  4709 net.cpp:137] Memory required for data: 204938200
I0919 18:27:24.700083  4709 layer_factory.hpp:77] Creating layer cccp6
I0919 18:27:24.700091  4709 net.cpp:84] Creating Layer cccp6
I0919 18:27:24.700094  4709 net.cpp:406] cccp6 <- penlu_cccp5
I0919 18:27:24.700098  4709 net.cpp:380] cccp6 -> cccp6
I0919 18:27:24.701011  4709 net.cpp:122] Setting up cccp6
I0919 18:27:24.701022  4709 net.cpp:129] Top shape: 50 10 7 7 (24500)
I0919 18:27:24.701025  4709 net.cpp:137] Memory required for data: 205036200
I0919 18:27:24.701030  4709 layer_factory.hpp:77] Creating layer penlu_cccp6
I0919 18:27:24.701036  4709 net.cpp:84] Creating Layer penlu_cccp6
I0919 18:27:24.701040  4709 net.cpp:406] penlu_cccp6 <- cccp6
I0919 18:27:24.701045  4709 net.cpp:380] penlu_cccp6 -> penlu_cccp6
I0919 18:27:24.701159  4709 net.cpp:122] Setting up penlu_cccp6
I0919 18:27:24.701165  4709 net.cpp:129] Top shape: 50 10 7 7 (24500)
I0919 18:27:24.701167  4709 net.cpp:137] Memory required for data: 205134200
I0919 18:27:24.701172  4709 layer_factory.hpp:77] Creating layer pool3
I0919 18:27:24.701177  4709 net.cpp:84] Creating Layer pool3
I0919 18:27:24.701181  4709 net.cpp:406] pool3 <- penlu_cccp6
I0919 18:27:24.701184  4709 net.cpp:380] pool3 -> pool3
I0919 18:27:24.701643  4709 net.cpp:122] Setting up pool3
I0919 18:27:24.701653  4709 net.cpp:129] Top shape: 50 10 1 1 (500)
I0919 18:27:24.701656  4709 net.cpp:137] Memory required for data: 205136200
I0919 18:27:24.701659  4709 layer_factory.hpp:77] Creating layer pool3_pool3_0_split
I0919 18:27:24.701664  4709 net.cpp:84] Creating Layer pool3_pool3_0_split
I0919 18:27:24.701668  4709 net.cpp:406] pool3_pool3_0_split <- pool3
I0919 18:27:24.701671  4709 net.cpp:380] pool3_pool3_0_split -> pool3_pool3_0_split_0
I0919 18:27:24.701676  4709 net.cpp:380] pool3_pool3_0_split -> pool3_pool3_0_split_1
I0919 18:27:24.701704  4709 net.cpp:122] Setting up pool3_pool3_0_split
I0919 18:27:24.701709  4709 net.cpp:129] Top shape: 50 10 1 1 (500)
I0919 18:27:24.701711  4709 net.cpp:129] Top shape: 50 10 1 1 (500)
I0919 18:27:24.701714  4709 net.cpp:137] Memory required for data: 205140200
I0919 18:27:24.701717  4709 layer_factory.hpp:77] Creating layer accuracy
I0919 18:27:24.701721  4709 net.cpp:84] Creating Layer accuracy
I0919 18:27:24.701725  4709 net.cpp:406] accuracy <- pool3_pool3_0_split_0
I0919 18:27:24.701727  4709 net.cpp:406] accuracy <- label_cifar_1_split_0
I0919 18:27:24.701732  4709 net.cpp:380] accuracy -> accuracy
…
