…
I0916 10:24:06.236976  4741 net.cpp:294] The NetState phase (0) differed from the phase (1) specified by a rule in layer cifar
I0916 10:24:06.237193  4741 net.cpp:51] Initializing net from parameters: 
name: "nin"
state {
  phase: TRAIN
  level: 0
  stage: ""
}
layer {
  name: "cifar"
  type: "Data"
  top: "data"
  top: "label"
  include {
    phase: TRAIN
  }
  transform_param {
    mirror: true
    crop_size: 28
    mean_file: "/home/x306/caffe/xn/PENLU/data/cifar10/mean.binaryproto"
  }
  data_param {
    source: "/home/x306/caffe/xn/PENLU/data/cifar10/cifar10_train_lmdb"
    batch_size: 64
    backend: LMDB
  }
  image_data_param {
    shuffle: true
  }
}
layer {
  name: "conv1"
  type: "Convolution"
  bottom: "data"
  top: "conv1"
  param {
    lr_mult: 1
    decay_mult: 1
  }
  param {
    lr_mult: 2
    decay_mult: 0
  }
  convolution_param {
    num_output: 192
    pad: 2
    kernel_size: 5
    weight_filler {
      type: "gaussian"
      std: 0.05
    }
    bias_filler {
      type: "constant"
      value: 0
    }
  }
}
layer {
  name: "penlu_conv1"
  type: "PENLU"
  bottom: "conv1"
  top: "penlu_conv1"
  param {
    lr_mult: 2
    decay_mult: 0
  }
  param {
    lr_mult: 2
    decay_mult: 0
  }
  param {
    lr_mult: 2
    decay_mult: 0
  }
  penlu_param {
    alpha_filler {
      type: "constant"
      value: 0.25
    }
    beta_filler {
      type: "constant"
      value: 1
    }
    eta_filler {
      type: "constant"
      value: 0.95
    }
  }
}
layer {
  name: "cccp1"
  type: "Convolution"
  bottom: "penlu_conv1"
  top: "cccp1"
  param {
    lr_mult: 1
    decay_mult: 1
  }
  param {
    lr_mult: 2
    decay_mult: 0
  }
  convolution_param {
    num_output: 160
    kernel_size: 1
    weight_filler {
      type: "gaussian"
      std: 0.05
    }
    bias_filler {
      type: "constant"
      value: 0
    }
  }
}
layer {
  name: "penlu_cccp1"
  type: "PENLU"
  bottom: "cccp1"
  top: "penlu_cccp1"
  param {
    lr_mult: 2
    decay_mult: 0
  }
  param {
    lr_mult: 2
    decay_mult: 0
  }
  param {
    lr_mult: 2
    decay_mult: 0
  }
  penlu_param {
    alpha_filler {
      type: "constant"
      value: 0.25
    }
    beta_filler {
      type: "constant"
      value: 1
    }
    eta_filler {
      type: "constant"
      value: 0.95
    }
  }
}
layer {
  name: "cccp2"
  type: "Convolution"
  bottom: "penlu_cccp1"
  top: "cccp2"
  param {
    lr_mult: 1
    decay_mult: 1
  }
  param {
    lr_mult: 2
    decay_mult: 0
  }
  convolution_param {
    num_output: 96
    kernel_size: 1
    weight_filler {
      type: "gaussian"
      std: 0.05
    }
    bias_filler {
      type: "constant"
      value: 0
    }
  }
}
layer {
  name: "penlu_cccp2"
  type: "PENLU"
  bottom: "cccp2"
  top: "penlu_cccp2"
  param {
    lr_mult: 2
    decay_mult: 0
  }
  param {
    lr_mult: 2
    decay_mult: 0
  }
  param {
    lr_mult: 2
    decay_mult: 0
  }
  penlu_param {
    alpha_filler {
      type: "constant"
      value: 0.25
    }
    beta_filler {
      type: "constant"
      value: 1
    }
    eta_filler {
      type: "constant"
      value: 0.95
    }
  }
}
layer {
  name: "pool1"
  type: "Pooling"
  bottom: "penlu_cccp2"
  top: "pool1"
  pooling_param {
    pool: MAX
    kernel_size: 3
    stride: 2
  }
}
layer {
  name: "dropout1"
  type: "Dropout"
  bottom: "pool1"
  top: "dropout1"
  dropout_param {
    dropout_ratio: 0.5
  }
}
layer {
  name: "conv2"
  type: "Convolution"
  bottom: "dropout1"
  top: "conv2"
  param {
    lr_mult: 1
    decay_mult: 1
  }
  param {
    lr_mult: 2
    decay_mult: 0
  }
  convolution_param {
    num_output: 192
    pad: 2
    kernel_size: 5
    weight_filler {
      type: "gaussian"
      std: 0.05
    }
    bias_filler {
      type: "constant"
      value: 0
    }
  }
}
layer {
  name: "penlu_conv2"
  type: "PENLU"
  bottom: "conv2"
  top: "penlu_conv2"
  param {
    lr_mult: 2
    decay_mult: 0
  }
  param {
    lr_mult: 2
    decay_mult: 0
  }
  param {
    lr_mult: 2
    decay_mult: 0
  }
  penlu_param {
    alpha_filler {
      type: "constant"
      value: 0.25
    }
    beta_filler {
      type: "constant"
      value: 1
    }
    eta_filler {
      type: "constant"
      value: 0.95
    }
  }
}
layer {
  name: "cccp3"
  type: "Convolution"
  bottom: "penlu_conv2"
  top: "cccp3"
  param {
    lr_mult: 1
    decay_mult: 1
  }
  param {
    lr_mult: 2
    decay_mult: 0
  }
  convolution_param {
    num_output: 192
    kernel_size: 1
    weight_filler {
      type: "gaussian"
      std: 0.05
    }
    bias_filler {
      type: "constant"
      value: 0
    }
  }
}
layer {
  name: "penlu_cccp3"
  type: "PENLU"
  bottom: "cccp3"
  top: "penlu_cccp3"
  param {
    lr_mult: 2
    decay_mult: 0
  }
  param {
    lr_mult: 2
    decay_mult: 0
  }
  param {
    lr_mult: 2
    decay_mult: 0
  }
  penlu_param {
    alpha_filler {
      type: "constant"
      value: 0.25
    }
    beta_filler {
      type: "constant"
      value: 1
    }
    eta_filler {
      type: "constant"
      value: 0.95
    }
  }
}
layer {
  name: "cccp4"
  type: "Convolution"
  bottom: "penlu_cccp3"
  top: "cccp4"
  param {
    lr_mult: 1
    decay_mult: 1
  }
  param {
    lr_mult: 2
    decay_mult: 0
  }
  convolution_param {
    num_output: 192
    kernel_size: 1
    weight_filler {
      type: "gaussian"
      std: 0.05
    }
    bias_filler {
      type: "constant"
      value: 0
    }
  }
}
layer {
  name: "penlu_cccp4"
  type: "PENLU"
  bottom: "cccp4"
  top: "penlu_cccp4"
  param {
    lr_mult: 2
    decay_mult: 0
  }
  param {
    lr_mult: 2
    decay_mult: 0
  }
  param {
    lr_mult: 2
    decay_mult: 0
  }
  penlu_param {
    alpha_filler {
      type: "constant"
      value: 0.25
    }
    beta_filler {
      type: "constant"
      value: 1
    }
    eta_filler {
      type: "constant"
      value: 0.95
    }
  }
}
layer {
  name: "pool2"
  type: "Pooling"
  bottom: "penlu_cccp4"
  top: "pool2"
  pooling_param {
    pool: AVE
    kernel_size: 3
    stride: 2
  }
}
layer {
  name: "dropout2"
  type: "Dropout"
  bottom: "pool2"
  top: "dropout2"
  dropout_param {
    dropout_ratio: 0.5
  }
}
layer {
  name: "conv3"
  type: "Convolution"
  bottom: "dropout2"
  top: "conv3"
  param {
    lr_mult: 1
    decay_mult: 1
  }
  param {
    lr_mult: 2
    decay_mult: 0
  }
  convolution_param {
    num_output: 192
    pad: 1
    kernel_size: 3
    weight_filler {
      type: "gaussian"
      std: 0.05
    }
    bias_filler {
      type: "constant"
      value: 0
    }
  }
}
layer {
  name: "penlu_conv3"
  type: "PENLU"
  bottom: "conv3"
  top: "penlu_conv3"
  param {
    lr_mult: 2
    decay_mult: 0
  }
  param {
    lr_mult: 2
    decay_mult: 0
  }
  param {
    lr_mult: 2
    decay_mult: 0
  }
  penlu_param {
    alpha_filler {
      type: "constant"
      value: 0.25
    }
    beta_filler {
      type: "constant"
      value: 1
    }
    eta_filler {
      type: "constant"
      value: 0.95
    }
  }
}
layer {
  name: "cccp5"
  type: "Convolution"
  bottom: "penlu_conv3"
  top: "cccp5"
  param {
    lr_mult: 1
    decay_mult: 1
  }
  param {
    lr_mult: 2
    decay_mult: 0
  }
  convolution_param {
    num_output: 192
    kernel_size: 1
    weight_filler {
      type: "gaussian"
      std: 0.05
    }
    bias_filler {
      type: "constant"
      value: 0
    }
  }
}
layer {
  name: "penlu_cccp5"
  type: "PENLU"
  bottom: "cccp5"
  top: "penlu_cccp5"
  param {
    lr_mult: 2
    decay_mult: 0
  }
  param {
    lr_mult: 2
    decay_mult: 0
  }
  param {
    lr_mult: 2
    decay_mult: 0
  }
  penlu_param {
    alpha_filler {
      type: "constant"
      value: 0.25
    }
    beta_filler {
      type: "constant"
      value: 1
    }
    eta_filler {
      type: "constant"
      value: 0.95
    }
  }
}
layer {
  name: "cccp6"
  type: "Convolution"
  bottom: "penlu_cccp5"
  top: "cccp6"
  param {
    lr_mult: 0.1
    decay_mult: 1
  }
  param {
    lr_mult: 0.1
    decay_mult: 0
  }
  convolution_param {
    num_output: 10
    kernel_size: 1
    weight_filler {
      type: "gaussian"
      std: 0.05
    }
    bias_filler {
      type: "constant"
      value: 0
    }
  }
}
layer {
  name: "penlu_cccp6"
  type: "PENLU"
  bottom: "cccp6"
  top: "penlu_cccp6"
  param {
    lr_mult: 2
    decay_mult: 0
  }
  param {
    lr_mult: 2
    decay_mult: 0
  }
  param {
    lr_mult: 2
    decay_mult: 0
  }
  penlu_param {
    alpha_filler {
      type: "constant"
      value: 0.25
    }
    beta_filler {
      type: "constant"
      value: 1
    }
    eta_filler {
      type: "constant"
      value: 0.95
    }
  }
}
layer {
  name: "pool3"
  type: "Pooling"
  bottom: "penlu_cccp6"
  top: "pool3"
  pooling_param {
    pool: AVE
    kernel_size: 7
    stride: 1
  }
}
layer {
  name: "accuracy"
  type: "Accuracy"
  bottom: "pool3"
  bottom: "label"
  top: "accuracy"
}
layer {
  name: "loss"
  type: "SoftmaxWithLoss"
  bottom: "pool3"
  bottom: "label"
  top: "loss"
}
I0916 10:24:06.237345  4741 layer_factory.hpp:77] Creating layer cifar
I0916 10:24:06.237449  4741 db_lmdb.cpp:35] Opened lmdb /home/x306/caffe/xn/PENLU/data/cifar10/cifar10_train_lmdb
I0916 10:24:06.237469  4741 net.cpp:84] Creating Layer cifar
I0916 10:24:06.237474  4741 net.cpp:380] cifar -> data
I0916 10:24:06.237495  4741 net.cpp:380] cifar -> label
I0916 10:24:06.237504  4741 data_transformer.cpp:25] Loading mean file from: /home/x306/caffe/xn/PENLU/data/cifar10/mean.binaryproto
I0916 10:24:06.238893  4741 data_layer.cpp:45] output data size: 64,3,28,28
I0916 10:24:06.240986  4741 net.cpp:122] Setting up cifar
I0916 10:24:06.241011  4741 net.cpp:129] Top shape: 64 3 28 28 (150528)
I0916 10:24:06.241016  4741 net.cpp:129] Top shape: 64 (64)
I0916 10:24:06.241019  4741 net.cpp:137] Memory required for data: 602368
I0916 10:24:06.241025  4741 layer_factory.hpp:77] Creating layer label_cifar_1_split
I0916 10:24:06.241036  4741 net.cpp:84] Creating Layer label_cifar_1_split
I0916 10:24:06.241041  4741 net.cpp:406] label_cifar_1_split <- label
I0916 10:24:06.241050  4741 net.cpp:380] label_cifar_1_split -> label_cifar_1_split_0
I0916 10:24:06.241058  4741 net.cpp:380] label_cifar_1_split -> label_cifar_1_split_1
I0916 10:24:06.241097  4741 net.cpp:122] Setting up label_cifar_1_split
I0916 10:24:06.241102  4741 net.cpp:129] Top shape: 64 (64)
I0916 10:24:06.241117  4741 net.cpp:129] Top shape: 64 (64)
I0916 10:24:06.241119  4741 net.cpp:137] Memory required for data: 602880
I0916 10:24:06.241122  4741 layer_factory.hpp:77] Creating layer conv1
I0916 10:24:06.241132  4741 net.cpp:84] Creating Layer conv1
I0916 10:24:06.241135  4741 net.cpp:406] conv1 <- data
I0916 10:24:06.241140  4741 net.cpp:380] conv1 -> conv1
I0916 10:24:06.385471  4741 net.cpp:122] Setting up conv1
I0916 10:24:06.385494  4741 net.cpp:129] Top shape: 64 192 28 28 (9633792)
I0916 10:24:06.385499  4741 net.cpp:137] Memory required for data: 39138048
I0916 10:24:06.385514  4741 layer_factory.hpp:77] Creating layer penlu_conv1
I0916 10:24:06.385540  4741 net.cpp:84] Creating Layer penlu_conv1
I0916 10:24:06.385562  4741 net.cpp:406] penlu_conv1 <- conv1
I0916 10:24:06.385567  4741 net.cpp:380] penlu_conv1 -> penlu_conv1
I0916 10:24:06.385792  4741 net.cpp:122] Setting up penlu_conv1
I0916 10:24:06.385799  4741 net.cpp:129] Top shape: 64 192 28 28 (9633792)
I0916 10:24:06.385802  4741 net.cpp:137] Memory required for data: 77673216
I0916 10:24:06.385808  4741 layer_factory.hpp:77] Creating layer cccp1
I0916 10:24:06.385818  4741 net.cpp:84] Creating Layer cccp1
I0916 10:24:06.385829  4741 net.cpp:406] cccp1 <- penlu_conv1
I0916 10:24:06.385833  4741 net.cpp:380] cccp1 -> cccp1
I0916 10:24:06.387856  4741 net.cpp:122] Setting up cccp1
I0916 10:24:06.387866  4741 net.cpp:129] Top shape: 64 160 28 28 (8028160)
I0916 10:24:06.387868  4741 net.cpp:137] Memory required for data: 109785856
I0916 10:24:06.387873  4741 layer_factory.hpp:77] Creating layer penlu_cccp1
I0916 10:24:06.387879  4741 net.cpp:84] Creating Layer penlu_cccp1
I0916 10:24:06.387882  4741 net.cpp:406] penlu_cccp1 <- cccp1
I0916 10:24:06.387897  4741 net.cpp:380] penlu_cccp1 -> penlu_cccp1
I0916 10:24:06.388118  4741 net.cpp:122] Setting up penlu_cccp1
I0916 10:24:06.388123  4741 net.cpp:129] Top shape: 64 160 28 28 (8028160)
I0916 10:24:06.388125  4741 net.cpp:137] Memory required for data: 141898496
I0916 10:24:06.388133  4741 layer_factory.hpp:77] Creating layer cccp2
I0916 10:24:06.388139  4741 net.cpp:84] Creating Layer cccp2
I0916 10:24:06.388141  4741 net.cpp:406] cccp2 <- penlu_cccp1
I0916 10:24:06.388156  4741 net.cpp:380] cccp2 -> cccp2
I0916 10:24:06.389313  4741 net.cpp:122] Setting up cccp2
I0916 10:24:06.389323  4741 net.cpp:129] Top shape: 64 96 28 28 (4816896)
I0916 10:24:06.389325  4741 net.cpp:137] Memory required for data: 161166080
I0916 10:24:06.389330  4741 layer_factory.hpp:77] Creating layer penlu_cccp2
I0916 10:24:06.389338  4741 net.cpp:84] Creating Layer penlu_cccp2
I0916 10:24:06.389339  4741 net.cpp:406] penlu_cccp2 <- cccp2
I0916 10:24:06.389354  4741 net.cpp:380] penlu_cccp2 -> penlu_cccp2
I0916 10:24:06.389533  4741 net.cpp:122] Setting up penlu_cccp2
I0916 10:24:06.389539  4741 net.cpp:129] Top shape: 64 96 28 28 (4816896)
I0916 10:24:06.389541  4741 net.cpp:137] Memory required for data: 180433664
I0916 10:24:06.389546  4741 layer_factory.hpp:77] Creating layer pool1
I0916 10:24:06.389554  4741 net.cpp:84] Creating Layer pool1
I0916 10:24:06.389556  4741 net.cpp:406] pool1 <- penlu_cccp2
I0916 10:24:06.389569  4741 net.cpp:380] pool1 -> pool1
I0916 10:24:06.389621  4741 net.cpp:122] Setting up pool1
I0916 10:24:06.389626  4741 net.cpp:129] Top shape: 64 96 14 14 (1204224)
I0916 10:24:06.389628  4741 net.cpp:137] Memory required for data: 185250560
I0916 10:24:06.389642  4741 layer_factory.hpp:77] Creating layer dropout1
I0916 10:24:06.389647  4741 net.cpp:84] Creating Layer dropout1
I0916 10:24:06.389658  4741 net.cpp:406] dropout1 <- pool1
I0916 10:24:06.389662  4741 net.cpp:380] dropout1 -> dropout1
I0916 10:24:06.389714  4741 net.cpp:122] Setting up dropout1
I0916 10:24:06.389719  4741 net.cpp:129] Top shape: 64 96 14 14 (1204224)
I0916 10:24:06.389721  4741 net.cpp:137] Memory required for data: 190067456
I0916 10:24:06.389735  4741 layer_factory.hpp:77] Creating layer conv2
I0916 10:24:06.389741  4741 net.cpp:84] Creating Layer conv2
I0916 10:24:06.389745  4741 net.cpp:406] conv2 <- dropout1
I0916 10:24:06.389750  4741 net.cpp:380] conv2 -> conv2
I0916 10:24:06.401764  4741 net.cpp:122] Setting up conv2
I0916 10:24:06.401779  4741 net.cpp:129] Top shape: 64 192 14 14 (2408448)
I0916 10:24:06.401782  4741 net.cpp:137] Memory required for data: 199701248
I0916 10:24:06.401792  4741 layer_factory.hpp:77] Creating layer penlu_conv2
I0916 10:24:06.401811  4741 net.cpp:84] Creating Layer penlu_conv2
I0916 10:24:06.401816  4741 net.cpp:406] penlu_conv2 <- conv2
I0916 10:24:06.401831  4741 net.cpp:380] penlu_conv2 -> penlu_conv2
I0916 10:24:06.402019  4741 net.cpp:122] Setting up penlu_conv2
I0916 10:24:06.402024  4741 net.cpp:129] Top shape: 64 192 14 14 (2408448)
I0916 10:24:06.402026  4741 net.cpp:137] Memory required for data: 209335040
I0916 10:24:06.402030  4741 layer_factory.hpp:77] Creating layer cccp3
I0916 10:24:06.402037  4741 net.cpp:84] Creating Layer cccp3
I0916 10:24:06.402040  4741 net.cpp:406] cccp3 <- penlu_conv2
I0916 10:24:06.402055  4741 net.cpp:380] cccp3 -> cccp3
I0916 10:24:06.403697  4741 net.cpp:122] Setting up cccp3
I0916 10:24:06.403707  4741 net.cpp:129] Top shape: 64 192 14 14 (2408448)
I0916 10:24:06.403709  4741 net.cpp:137] Memory required for data: 218968832
I0916 10:24:06.403714  4741 layer_factory.hpp:77] Creating layer penlu_cccp3
I0916 10:24:06.403740  4741 net.cpp:84] Creating Layer penlu_cccp3
I0916 10:24:06.403744  4741 net.cpp:406] penlu_cccp3 <- cccp3
I0916 10:24:06.403764  4741 net.cpp:380] penlu_cccp3 -> penlu_cccp3
I0916 10:24:06.403955  4741 net.cpp:122] Setting up penlu_cccp3
I0916 10:24:06.403962  4741 net.cpp:129] Top shape: 64 192 14 14 (2408448)
I0916 10:24:06.403978  4741 net.cpp:137] Memory required for data: 228602624
I0916 10:24:06.403985  4741 layer_factory.hpp:77] Creating layer cccp4
I0916 10:24:06.404003  4741 net.cpp:84] Creating Layer cccp4
I0916 10:24:06.404006  4741 net.cpp:406] cccp4 <- penlu_cccp3
I0916 10:24:06.404023  4741 net.cpp:380] cccp4 -> cccp4
I0916 10:24:06.405644  4741 net.cpp:122] Setting up cccp4
I0916 10:24:06.405654  4741 net.cpp:129] Top shape: 64 192 14 14 (2408448)
I0916 10:24:06.405673  4741 net.cpp:137] Memory required for data: 238236416
I0916 10:24:06.405678  4741 layer_factory.hpp:77] Creating layer penlu_cccp4
I0916 10:24:06.405699  4741 net.cpp:84] Creating Layer penlu_cccp4
I0916 10:24:06.405702  4741 net.cpp:406] penlu_cccp4 <- cccp4
I0916 10:24:06.405709  4741 net.cpp:380] penlu_cccp4 -> penlu_cccp4
I0916 10:24:06.405850  4741 net.cpp:122] Setting up penlu_cccp4
I0916 10:24:06.405856  4741 net.cpp:129] Top shape: 64 192 14 14 (2408448)
I0916 10:24:06.405859  4741 net.cpp:137] Memory required for data: 247870208
I0916 10:24:06.405874  4741 layer_factory.hpp:77] Creating layer pool2
I0916 10:24:06.405890  4741 net.cpp:84] Creating Layer pool2
I0916 10:24:06.405894  4741 net.cpp:406] pool2 <- penlu_cccp4
I0916 10:24:06.405897  4741 net.cpp:380] pool2 -> pool2
I0916 10:24:06.406049  4741 net.cpp:122] Setting up pool2
I0916 10:24:06.406056  4741 net.cpp:129] Top shape: 64 192 7 7 (602112)
I0916 10:24:06.406069  4741 net.cpp:137] Memory required for data: 250278656
I0916 10:24:06.406072  4741 layer_factory.hpp:77] Creating layer dropout2
I0916 10:24:06.406077  4741 net.cpp:84] Creating Layer dropout2
I0916 10:24:06.406091  4741 net.cpp:406] dropout2 <- pool2
I0916 10:24:06.406097  4741 net.cpp:380] dropout2 -> dropout2
I0916 10:24:06.406122  4741 net.cpp:122] Setting up dropout2
I0916 10:24:06.406127  4741 net.cpp:129] Top shape: 64 192 7 7 (602112)
I0916 10:24:06.406131  4741 net.cpp:137] Memory required for data: 252687104
I0916 10:24:06.406134  4741 layer_factory.hpp:77] Creating layer conv3
I0916 10:24:06.406141  4741 net.cpp:84] Creating Layer conv3
I0916 10:24:06.406143  4741 net.cpp:406] conv3 <- dropout2
I0916 10:24:06.406148  4741 net.cpp:380] conv3 -> conv3
I0916 10:24:06.415480  4741 net.cpp:122] Setting up conv3
I0916 10:24:06.415493  4741 net.cpp:129] Top shape: 64 192 7 7 (602112)
I0916 10:24:06.415496  4741 net.cpp:137] Memory required for data: 255095552
I0916 10:24:06.415511  4741 layer_factory.hpp:77] Creating layer penlu_conv3
I0916 10:24:06.415530  4741 net.cpp:84] Creating Layer penlu_conv3
I0916 10:24:06.415534  4741 net.cpp:406] penlu_conv3 <- conv3
I0916 10:24:06.415539  4741 net.cpp:380] penlu_conv3 -> penlu_conv3
I0916 10:24:06.415676  4741 net.cpp:122] Setting up penlu_conv3
I0916 10:24:06.415681  4741 net.cpp:129] Top shape: 64 192 7 7 (602112)
I0916 10:24:06.415684  4741 net.cpp:137] Memory required for data: 257504000
I0916 10:24:06.415704  4741 layer_factory.hpp:77] Creating layer cccp5
I0916 10:24:06.415725  4741 net.cpp:84] Creating Layer cccp5
I0916 10:24:06.415740  4741 net.cpp:406] cccp5 <- penlu_conv3
I0916 10:24:06.415745  4741 net.cpp:380] cccp5 -> cccp5
I0916 10:24:06.417418  4741 net.cpp:122] Setting up cccp5
I0916 10:24:06.417429  4741 net.cpp:129] Top shape: 64 192 7 7 (602112)
I0916 10:24:06.417443  4741 net.cpp:137] Memory required for data: 259912448
I0916 10:24:06.417448  4741 layer_factory.hpp:77] Creating layer penlu_cccp5
I0916 10:24:06.417466  4741 net.cpp:84] Creating Layer penlu_cccp5
I0916 10:24:06.417470  4741 net.cpp:406] penlu_cccp5 <- cccp5
I0916 10:24:06.417474  4741 net.cpp:380] penlu_cccp5 -> penlu_cccp5
I0916 10:24:06.417605  4741 net.cpp:122] Setting up penlu_cccp5
I0916 10:24:06.417611  4741 net.cpp:129] Top shape: 64 192 7 7 (602112)
I0916 10:24:06.417634  4741 net.cpp:137] Memory required for data: 262320896
I0916 10:24:06.417650  4741 layer_factory.hpp:77] Creating layer cccp6
I0916 10:24:06.417659  4741 net.cpp:84] Creating Layer cccp6
I0916 10:24:06.417661  4741 net.cpp:406] cccp6 <- penlu_cccp5
I0916 10:24:06.417666  4741 net.cpp:380] cccp6 -> cccp6
I0916 10:24:06.418560  4741 net.cpp:122] Setting up cccp6
I0916 10:24:06.418570  4741 net.cpp:129] Top shape: 64 10 7 7 (31360)
I0916 10:24:06.418573  4741 net.cpp:137] Memory required for data: 262446336
I0916 10:24:06.418588  4741 layer_factory.hpp:77] Creating layer penlu_cccp6
I0916 10:24:06.418596  4741 net.cpp:84] Creating Layer penlu_cccp6
I0916 10:24:06.418601  4741 net.cpp:406] penlu_cccp6 <- cccp6
I0916 10:24:06.418606  4741 net.cpp:380] penlu_cccp6 -> penlu_cccp6
I0916 10:24:06.418723  4741 net.cpp:122] Setting up penlu_cccp6
I0916 10:24:06.418730  4741 net.cpp:129] Top shape: 64 10 7 7 (31360)
I0916 10:24:06.418732  4741 net.cpp:137] Memory required for data: 262571776
I0916 10:24:06.418746  4741 layer_factory.hpp:77] Creating layer pool3
I0916 10:24:06.418752  4741 net.cpp:84] Creating Layer pool3
I0916 10:24:06.418756  4741 net.cpp:406] pool3 <- penlu_cccp6
I0916 10:24:06.418761  4741 net.cpp:380] pool3 -> pool3
I0916 10:24:06.418898  4741 net.cpp:122] Setting up pool3
I0916 10:24:06.418905  4741 net.cpp:129] Top shape: 64 10 1 1 (640)
I0916 10:24:06.418908  4741 net.cpp:137] Memory required for data: 262574336
I0916 10:24:06.418921  4741 layer_factory.hpp:77] Creating layer pool3_pool3_0_split
I0916 10:24:06.418926  4741 net.cpp:84] Creating Layer pool3_pool3_0_split
I0916 10:24:06.418929  4741 net.cpp:406] pool3_pool3_0_split <- pool3
I0916 10:24:06.418933  4741 net.cpp:380] pool3_pool3_0_split -> pool3_pool3_0_split_0
I0916 10:24:06.418938  4741 net.cpp:380] pool3_pool3_0_split -> pool3_pool3_0_split_1
I0916 10:24:06.418963  4741 net.cpp:122] Setting up pool3_pool3_0_split
I0916 10:24:06.418978  4741 net.cpp:129] Top shape: 64 10 1 1 (640)
I0916 10:24:06.418982  4741 net.cpp:129] Top shape: 64 10 1 1 (640)
I0916 10:24:06.418984  4741 net.cpp:137] Memory required for data: 262579456
I0916 10:24:06.418998  4741 layer_factory.hpp:77] Creating layer accuracy
I0916 10:24:06.419006  4741 net.cpp:84] Creating Layer accuracy
I0916 10:24:06.419009  4741 net.cpp:406] accuracy <- pool3_pool3_0_split_0
I0916 10:24:06.419014  4741 net.cpp:406] accuracy <- label_cifar_1_split_0
I0916 10:24:06.419018  4741 net.cpp:380] accuracy -> accuracy
…
I0916 10:24:06.420038  4741 net.cpp:294] The NetState phase (1) differed from the phase (0) specified by a rule in layer cifar
I0916 10:24:06.420218  4741 net.cpp:51] Initializing net from parameters: 
name: "nin"
state {
  phase: TEST
}
layer {
  name: "cifar"
  type: "Data"
  top: "data"
  top: "label"
  include {
    phase: TEST
  }
  transform_param {
    mirror: false
    crop_size: 28
    mean_file: "/home/x306/caffe/xn/PENLU/data/cifar10/mean.binaryproto"
  }
  data_param {
    source: "/home/x306/caffe/xn/PENLU/data/cifar10/cifar10_test_lmdb"
    batch_size: 50
    backend: LMDB
  }
}
layer {
  name: "conv1"
  type: "Convolution"
  bottom: "data"
  top: "conv1"
  param {
    lr_mult: 1
    decay_mult: 1
  }
  param {
    lr_mult: 2
    decay_mult: 0
  }
  convolution_param {
    num_output: 192
    pad: 2
    kernel_size: 5
    weight_filler {
      type: "gaussian"
      std: 0.05
    }
    bias_filler {
      type: "constant"
      value: 0
    }
  }
}
layer {
  name: "penlu_conv1"
  type: "PENLU"
  bottom: "conv1"
  top: "penlu_conv1"
  param {
    lr_mult: 2
    decay_mult: 0
  }
  param {
    lr_mult: 2
    decay_mult: 0
  }
  param {
    lr_mult: 2
    decay_mult: 0
  }
  penlu_param {
    alpha_filler {
      type: "constant"
      value: 0.25
    }
    beta_filler {
      type: "constant"
      value: 1
    }
    eta_filler {
      type: "constant"
      value: 0.95
    }
  }
}
layer {
  name: "cccp1"
  type: "Convolution"
  bottom: "penlu_conv1"
  top: "cccp1"
  param {
    lr_mult: 1
    decay_mult: 1
  }
  param {
    lr_mult: 2
    decay_mult: 0
  }
  convolution_param {
    num_output: 160
    kernel_size: 1
    weight_filler {
      type: "gaussian"
      std: 0.05
    }
    bias_filler {
      type: "constant"
      value: 0
    }
  }
}
layer {
  name: "penlu_cccp1"
  type: "PENLU"
  bottom: "cccp1"
  top: "penlu_cccp1"
  param {
    lr_mult: 2
    decay_mult: 0
  }
  param {
    lr_mult: 2
    decay_mult: 0
  }
  param {
    lr_mult: 2
    decay_mult: 0
  }
  penlu_param {
    alpha_filler {
      type: "constant"
      value: 0.25
    }
    beta_filler {
      type: "constant"
      value: 1
    }
    eta_filler {
      type: "constant"
      value: 0.95
    }
  }
}
layer {
  name: "cccp2"
  type: "Convolution"
  bottom: "penlu_cccp1"
  top: "cccp2"
  param {
    lr_mult: 1
    decay_mult: 1
  }
  param {
    lr_mult: 2
    decay_mult: 0
  }
  convolution_param {
    num_output: 96
    kernel_size: 1
    weight_filler {
      type: "gaussian"
      std: 0.05
    }
    bias_filler {
      type: "constant"
      value: 0
    }
  }
}
layer {
  name: "penlu_cccp2"
  type: "PENLU"
  bottom: "cccp2"
  top: "penlu_cccp2"
  param {
    lr_mult: 2
    decay_mult: 0
  }
  param {
    lr_mult: 2
    decay_mult: 0
  }
  param {
    lr_mult: 2
    decay_mult: 0
  }
  penlu_param {
    alpha_filler {
      type: "constant"
      value: 0.25
    }
    beta_filler {
      type: "constant"
      value: 1
    }
    eta_filler {
      type: "constant"
      value: 0.95
    }
  }
}
layer {
  name: "pool1"
  type: "Pooling"
  bottom: "penlu_cccp2"
  top: "pool1"
  pooling_param {
    pool: MAX
    kernel_size: 3
    stride: 2
  }
}
layer {
  name: "dropout1"
  type: "Dropout"
  bottom: "pool1"
  top: "dropout1"
  dropout_param {
    dropout_ratio: 0.5
  }
}
layer {
  name: "conv2"
  type: "Convolution"
  bottom: "dropout1"
  top: "conv2"
  param {
    lr_mult: 1
    decay_mult: 1
  }
  param {
    lr_mult: 2
    decay_mult: 0
  }
  convolution_param {
    num_output: 192
    pad: 2
    kernel_size: 5
    weight_filler {
      type: "gaussian"
      std: 0.05
    }
    bias_filler {
      type: "constant"
      value: 0
    }
  }
}
layer {
  name: "penlu_conv2"
  type: "PENLU"
  bottom: "conv2"
  top: "penlu_conv2"
  param {
    lr_mult: 2
    decay_mult: 0
  }
  param {
    lr_mult: 2
    decay_mult: 0
  }
  param {
    lr_mult: 2
    decay_mult: 0
  }
  penlu_param {
    alpha_filler {
      type: "constant"
      value: 0.25
    }
    beta_filler {
      type: "constant"
      value: 1
    }
    eta_filler {
      type: "constant"
      value: 0.95
    }
  }
}
layer {
  name: "cccp3"
  type: "Convolution"
  bottom: "penlu_conv2"
  top: "cccp3"
  param {
    lr_mult: 1
    decay_mult: 1
  }
  param {
    lr_mult: 2
    decay_mult: 0
  }
  convolution_param {
    num_output: 192
    kernel_size: 1
    weight_filler {
      type: "gaussian"
      std: 0.05
    }
    bias_filler {
      type: "constant"
      value: 0
    }
  }
}
layer {
  name: "penlu_cccp3"
  type: "PENLU"
  bottom: "cccp3"
  top: "penlu_cccp3"
  param {
    lr_mult: 2
    decay_mult: 0
  }
  param {
    lr_mult: 2
    decay_mult: 0
  }
  param {
    lr_mult: 2
    decay_mult: 0
  }
  penlu_param {
    alpha_filler {
      type: "constant"
      value: 0.25
    }
    beta_filler {
      type: "constant"
      value: 1
    }
    eta_filler {
      type: "constant"
      value: 0.95
    }
  }
}
layer {
  name: "cccp4"
  type: "Convolution"
  bottom: "penlu_cccp3"
  top: "cccp4"
  param {
    lr_mult: 1
    decay_mult: 1
  }
  param {
    lr_mult: 2
    decay_mult: 0
  }
  convolution_param {
    num_output: 192
    kernel_size: 1
    weight_filler {
      type: "gaussian"
      std: 0.05
    }
    bias_filler {
      type: "constant"
      value: 0
    }
  }
}
layer {
  name: "penlu_cccp4"
  type: "PENLU"
  bottom: "cccp4"
  top: "penlu_cccp4"
  param {
    lr_mult: 2
    decay_mult: 0
  }
  param {
    lr_mult: 2
    decay_mult: 0
  }
  param {
    lr_mult: 2
    decay_mult: 0
  }
  penlu_param {
    alpha_filler {
      type: "constant"
      value: 0.25
    }
    beta_filler {
      type: "constant"
      value: 1
    }
    eta_filler {
      type: "constant"
      value: 0.95
    }
  }
}
layer {
  name: "pool2"
  type: "Pooling"
  bottom: "penlu_cccp4"
  top: "pool2"
  pooling_param {
    pool: AVE
    kernel_size: 3
    stride: 2
  }
}
layer {
  name: "dropout2"
  type: "Dropout"
  bottom: "pool2"
  top: "dropout2"
  dropout_param {
    dropout_ratio: 0.5
  }
}
layer {
  name: "conv3"
  type: "Convolution"
  bottom: "dropout2"
  top: "conv3"
  param {
    lr_mult: 1
    decay_mult: 1
  }
  param {
    lr_mult: 2
    decay_mult: 0
  }
  convolution_param {
    num_output: 192
    pad: 1
    kernel_size: 3
    weight_filler {
      type: "gaussian"
      std: 0.05
    }
    bias_filler {
      type: "constant"
      value: 0
    }
  }
}
layer {
  name: "penlu_conv3"
  type: "PENLU"
  bottom: "conv3"
  top: "penlu_conv3"
  param {
    lr_mult: 2
    decay_mult: 0
  }
  param {
    lr_mult: 2
    decay_mult: 0
  }
  param {
    lr_mult: 2
    decay_mult: 0
  }
  penlu_param {
    alpha_filler {
      type: "constant"
      value: 0.25
    }
    beta_filler {
      type: "constant"
      value: 1
    }
    eta_filler {
      type: "constant"
      value: 0.95
    }
  }
}
layer {
  name: "cccp5"
  type: "Convolution"
  bottom: "penlu_conv3"
  top: "cccp5"
  param {
    lr_mult: 1
    decay_mult: 1
  }
  param {
    lr_mult: 2
    decay_mult: 0
  }
  convolution_param {
    num_output: 192
    kernel_size: 1
    weight_filler {
      type: "gaussian"
      std: 0.05
    }
    bias_filler {
      type: "constant"
      value: 0
    }
  }
}
layer {
  name: "penlu_cccp5"
  type: "PENLU"
  bottom: "cccp5"
  top: "penlu_cccp5"
  param {
    lr_mult: 2
    decay_mult: 0
  }
  param {
    lr_mult: 2
    decay_mult: 0
  }
  param {
    lr_mult: 2
    decay_mult: 0
  }
  penlu_param {
    alpha_filler {
      type: "constant"
      value: 0.25
    }
    beta_filler {
      type: "constant"
      value: 1
    }
    eta_filler {
      type: "constant"
      value: 0.95
    }
  }
}
layer {
  name: "cccp6"
  type: "Convolution"
  bottom: "penlu_cccp5"
  top: "cccp6"
  param {
    lr_mult: 0.1
    decay_mult: 1
  }
  param {
    lr_mult: 0.1
    decay_mult: 0
  }
  convolution_param {
    num_output: 10
    kernel_size: 1
    weight_filler {
      type: "gaussian"
      std: 0.05
    }
    bias_filler {
      type: "constant"
      value: 0
    }
  }
}
layer {
  name: "penlu_cccp6"
  type: "PENLU"
  bottom: "cccp6"
  top: "penlu_cccp6"
  param {
    lr_mult: 2
    decay_mult: 0
  }
  param {
    lr_mult: 2
    decay_mult: 0
  }
  param {
    lr_mult: 2
    decay_mult: 0
  }
  penlu_param {
    alpha_filler {
      type: "constant"
      value: 0.25
    }
    beta_filler {
      type: "constant"
      value: 1
    }
    eta_filler {
      type: "constant"
      value: 0.95
    }
  }
}
layer {
  name: "pool3"
  type: "Pooling"
  bottom: "penlu_cccp6"
  top: "pool3"
  pooling_param {
    pool: AVE
    kernel_size: 7
    stride: 1
  }
}
layer {
  name: "accuracy"
  type: "Accuracy"
  bottom: "pool3"
  bottom: "label"
  top: "accuracy"
}
layer {
  name: "loss"
  type: "SoftmaxWithLoss"
  bottom: "pool3"
  bottom: "label"
  top: "loss"
}
I0916 10:24:06.420308  4741 layer_factory.hpp:77] Creating layer cifar
I0916 10:24:06.420343  4741 db_lmdb.cpp:35] Opened lmdb /home/x306/caffe/xn/PENLU/data/cifar10/cifar10_test_lmdb
I0916 10:24:06.420353  4741 net.cpp:84] Creating Layer cifar
I0916 10:24:06.420357  4741 net.cpp:380] cifar -> data
I0916 10:24:06.420363  4741 net.cpp:380] cifar -> label
I0916 10:24:06.420368  4741 data_transformer.cpp:25] Loading mean file from: /home/x306/caffe/xn/PENLU/data/cifar10/mean.binaryproto
I0916 10:24:06.420473  4741 data_layer.cpp:45] output data size: 50,3,28,28
I0916 10:24:06.421483  4741 net.cpp:122] Setting up cifar
I0916 10:24:06.421492  4741 net.cpp:129] Top shape: 50 3 28 28 (117600)
I0916 10:24:06.421499  4741 net.cpp:129] Top shape: 50 (50)
I0916 10:24:06.421501  4741 net.cpp:137] Memory required for data: 470600
I0916 10:24:06.421504  4741 layer_factory.hpp:77] Creating layer label_cifar_1_split
I0916 10:24:06.421509  4741 net.cpp:84] Creating Layer label_cifar_1_split
I0916 10:24:06.421511  4741 net.cpp:406] label_cifar_1_split <- label
I0916 10:24:06.421516  4741 net.cpp:380] label_cifar_1_split -> label_cifar_1_split_0
I0916 10:24:06.421522  4741 net.cpp:380] label_cifar_1_split -> label_cifar_1_split_1
I0916 10:24:06.421576  4741 net.cpp:122] Setting up label_cifar_1_split
I0916 10:24:06.421581  4741 net.cpp:129] Top shape: 50 (50)
I0916 10:24:06.421584  4741 net.cpp:129] Top shape: 50 (50)
I0916 10:24:06.421587  4741 net.cpp:137] Memory required for data: 471000
I0916 10:24:06.421591  4741 layer_factory.hpp:77] Creating layer conv1
I0916 10:24:06.421607  4741 net.cpp:84] Creating Layer conv1
I0916 10:24:06.421610  4741 net.cpp:406] conv1 <- data
I0916 10:24:06.421615  4741 net.cpp:380] conv1 -> conv1
I0916 10:24:06.422965  4741 net.cpp:122] Setting up conv1
I0916 10:24:06.422974  4741 net.cpp:129] Top shape: 50 192 28 28 (7526400)
I0916 10:24:06.422978  4741 net.cpp:137] Memory required for data: 30576600
I0916 10:24:06.422986  4741 layer_factory.hpp:77] Creating layer penlu_conv1
I0916 10:24:06.422992  4741 net.cpp:84] Creating Layer penlu_conv1
I0916 10:24:06.422997  4741 net.cpp:406] penlu_conv1 <- conv1
I0916 10:24:06.423003  4741 net.cpp:380] penlu_conv1 -> penlu_conv1
I0916 10:24:06.423178  4741 net.cpp:122] Setting up penlu_conv1
I0916 10:24:06.423184  4741 net.cpp:129] Top shape: 50 192 28 28 (7526400)
I0916 10:24:06.423192  4741 net.cpp:137] Memory required for data: 60682200
I0916 10:24:06.423198  4741 layer_factory.hpp:77] Creating layer cccp1
I0916 10:24:06.423207  4741 net.cpp:84] Creating Layer cccp1
I0916 10:24:06.423210  4741 net.cpp:406] cccp1 <- penlu_conv1
I0916 10:24:06.423218  4741 net.cpp:380] cccp1 -> cccp1
I0916 10:24:06.424831  4741 net.cpp:122] Setting up cccp1
I0916 10:24:06.424841  4741 net.cpp:129] Top shape: 50 160 28 28 (6272000)
I0916 10:24:06.424854  4741 net.cpp:137] Memory required for data: 85770200
I0916 10:24:06.424860  4741 layer_factory.hpp:77] Creating layer penlu_cccp1
I0916 10:24:06.424865  4741 net.cpp:84] Creating Layer penlu_cccp1
I0916 10:24:06.424867  4741 net.cpp:406] penlu_cccp1 <- cccp1
I0916 10:24:06.424872  4741 net.cpp:380] penlu_cccp1 -> penlu_cccp1
I0916 10:24:06.425526  4741 net.cpp:122] Setting up penlu_cccp1
I0916 10:24:06.425536  4741 net.cpp:129] Top shape: 50 160 28 28 (6272000)
I0916 10:24:06.425549  4741 net.cpp:137] Memory required for data: 110858200
I0916 10:24:06.425556  4741 layer_factory.hpp:77] Creating layer cccp2
I0916 10:24:06.425562  4741 net.cpp:84] Creating Layer cccp2
I0916 10:24:06.425565  4741 net.cpp:406] cccp2 <- penlu_cccp1
I0916 10:24:06.425571  4741 net.cpp:380] cccp2 -> cccp2
I0916 10:24:06.426764  4741 net.cpp:122] Setting up cccp2
I0916 10:24:06.426774  4741 net.cpp:129] Top shape: 50 96 28 28 (3763200)
I0916 10:24:06.426787  4741 net.cpp:137] Memory required for data: 125911000
I0916 10:24:06.426792  4741 layer_factory.hpp:77] Creating layer penlu_cccp2
I0916 10:24:06.426798  4741 net.cpp:84] Creating Layer penlu_cccp2
I0916 10:24:06.426802  4741 net.cpp:406] penlu_cccp2 <- cccp2
I0916 10:24:06.426807  4741 net.cpp:380] penlu_cccp2 -> penlu_cccp2
I0916 10:24:06.426954  4741 net.cpp:122] Setting up penlu_cccp2
I0916 10:24:06.426960  4741 net.cpp:129] Top shape: 50 96 28 28 (3763200)
I0916 10:24:06.426972  4741 net.cpp:137] Memory required for data: 140963800
I0916 10:24:06.426977  4741 layer_factory.hpp:77] Creating layer pool1
I0916 10:24:06.426982  4741 net.cpp:84] Creating Layer pool1
I0916 10:24:06.426985  4741 net.cpp:406] pool1 <- penlu_cccp2
I0916 10:24:06.426988  4741 net.cpp:380] pool1 -> pool1
I0916 10:24:06.427024  4741 net.cpp:122] Setting up pool1
I0916 10:24:06.427029  4741 net.cpp:129] Top shape: 50 96 14 14 (940800)
I0916 10:24:06.427042  4741 net.cpp:137] Memory required for data: 144727000
I0916 10:24:06.427043  4741 layer_factory.hpp:77] Creating layer dropout1
I0916 10:24:06.427048  4741 net.cpp:84] Creating Layer dropout1
I0916 10:24:06.427050  4741 net.cpp:406] dropout1 <- pool1
I0916 10:24:06.427054  4741 net.cpp:380] dropout1 -> dropout1
I0916 10:24:06.427086  4741 net.cpp:122] Setting up dropout1
I0916 10:24:06.427091  4741 net.cpp:129] Top shape: 50 96 14 14 (940800)
I0916 10:24:06.427103  4741 net.cpp:137] Memory required for data: 148490200
I0916 10:24:06.427106  4741 layer_factory.hpp:77] Creating layer conv2
I0916 10:24:06.427114  4741 net.cpp:84] Creating Layer conv2
I0916 10:24:06.427115  4741 net.cpp:406] conv2 <- dropout1
I0916 10:24:06.427119  4741 net.cpp:380] conv2 -> conv2
I0916 10:24:06.438313  4741 net.cpp:122] Setting up conv2
I0916 10:24:06.438323  4741 net.cpp:129] Top shape: 50 192 14 14 (1881600)
I0916 10:24:06.438336  4741 net.cpp:137] Memory required for data: 156016600
I0916 10:24:06.438354  4741 layer_factory.hpp:77] Creating layer penlu_conv2
I0916 10:24:06.438361  4741 net.cpp:84] Creating Layer penlu_conv2
I0916 10:24:06.438364  4741 net.cpp:406] penlu_conv2 <- conv2
I0916 10:24:06.438369  4741 net.cpp:380] penlu_conv2 -> penlu_conv2
I0916 10:24:06.438513  4741 net.cpp:122] Setting up penlu_conv2
I0916 10:24:06.438519  4741 net.cpp:129] Top shape: 50 192 14 14 (1881600)
I0916 10:24:06.438530  4741 net.cpp:137] Memory required for data: 163543000
I0916 10:24:06.438535  4741 layer_factory.hpp:77] Creating layer cccp3
I0916 10:24:06.438542  4741 net.cpp:84] Creating Layer cccp3
I0916 10:24:06.438545  4741 net.cpp:406] cccp3 <- penlu_conv2
I0916 10:24:06.438549  4741 net.cpp:380] cccp3 -> cccp3
I0916 10:24:06.440201  4741 net.cpp:122] Setting up cccp3
I0916 10:24:06.440210  4741 net.cpp:129] Top shape: 50 192 14 14 (1881600)
I0916 10:24:06.440213  4741 net.cpp:137] Memory required for data: 171069400
I0916 10:24:06.440217  4741 layer_factory.hpp:77] Creating layer penlu_cccp3
I0916 10:24:06.440223  4741 net.cpp:84] Creating Layer penlu_cccp3
I0916 10:24:06.440227  4741 net.cpp:406] penlu_cccp3 <- cccp3
I0916 10:24:06.440232  4741 net.cpp:380] penlu_cccp3 -> penlu_cccp3
I0916 10:24:06.440358  4741 net.cpp:122] Setting up penlu_cccp3
I0916 10:24:06.440363  4741 net.cpp:129] Top shape: 50 192 14 14 (1881600)
I0916 10:24:06.440366  4741 net.cpp:137] Memory required for data: 178595800
I0916 10:24:06.440369  4741 layer_factory.hpp:77] Creating layer cccp4
I0916 10:24:06.440376  4741 net.cpp:84] Creating Layer cccp4
I0916 10:24:06.440378  4741 net.cpp:406] cccp4 <- penlu_cccp3
I0916 10:24:06.440382  4741 net.cpp:380] cccp4 -> cccp4
I0916 10:24:06.442041  4741 net.cpp:122] Setting up cccp4
I0916 10:24:06.442050  4741 net.cpp:129] Top shape: 50 192 14 14 (1881600)
I0916 10:24:06.442054  4741 net.cpp:137] Memory required for data: 186122200
I0916 10:24:06.442057  4741 layer_factory.hpp:77] Creating layer penlu_cccp4
I0916 10:24:06.442065  4741 net.cpp:84] Creating Layer penlu_cccp4
I0916 10:24:06.442066  4741 net.cpp:406] penlu_cccp4 <- cccp4
I0916 10:24:06.442071  4741 net.cpp:380] penlu_cccp4 -> penlu_cccp4
I0916 10:24:06.442201  4741 net.cpp:122] Setting up penlu_cccp4
I0916 10:24:06.442205  4741 net.cpp:129] Top shape: 50 192 14 14 (1881600)
I0916 10:24:06.442209  4741 net.cpp:137] Memory required for data: 193648600
I0916 10:24:06.442212  4741 layer_factory.hpp:77] Creating layer pool2
I0916 10:24:06.442219  4741 net.cpp:84] Creating Layer pool2
I0916 10:24:06.442220  4741 net.cpp:406] pool2 <- penlu_cccp4
I0916 10:24:06.442224  4741 net.cpp:380] pool2 -> pool2
I0916 10:24:06.442353  4741 net.cpp:122] Setting up pool2
I0916 10:24:06.442359  4741 net.cpp:129] Top shape: 50 192 7 7 (470400)
I0916 10:24:06.442361  4741 net.cpp:137] Memory required for data: 195530200
I0916 10:24:06.442364  4741 layer_factory.hpp:77] Creating layer dropout2
I0916 10:24:06.442368  4741 net.cpp:84] Creating Layer dropout2
I0916 10:24:06.442370  4741 net.cpp:406] dropout2 <- pool2
I0916 10:24:06.442373  4741 net.cpp:380] dropout2 -> dropout2
I0916 10:24:06.442397  4741 net.cpp:122] Setting up dropout2
I0916 10:24:06.442401  4741 net.cpp:129] Top shape: 50 192 7 7 (470400)
I0916 10:24:06.442404  4741 net.cpp:137] Memory required for data: 197411800
I0916 10:24:06.442405  4741 layer_factory.hpp:77] Creating layer conv3
I0916 10:24:06.442411  4741 net.cpp:84] Creating Layer conv3
I0916 10:24:06.442414  4741 net.cpp:406] conv3 <- dropout2
I0916 10:24:06.442418  4741 net.cpp:380] conv3 -> conv3
I0916 10:24:06.451725  4741 net.cpp:122] Setting up conv3
I0916 10:24:06.451740  4741 net.cpp:129] Top shape: 50 192 7 7 (470400)
I0916 10:24:06.451743  4741 net.cpp:137] Memory required for data: 199293400
I0916 10:24:06.451759  4741 layer_factory.hpp:77] Creating layer penlu_conv3
I0916 10:24:06.451784  4741 net.cpp:84] Creating Layer penlu_conv3
I0916 10:24:06.451802  4741 net.cpp:406] penlu_conv3 <- conv3
I0916 10:24:06.451807  4741 net.cpp:380] penlu_conv3 -> penlu_conv3
I0916 10:24:06.451987  4741 net.cpp:122] Setting up penlu_conv3
I0916 10:24:06.451994  4741 net.cpp:129] Top shape: 50 192 7 7 (470400)
I0916 10:24:06.452009  4741 net.cpp:137] Memory required for data: 201175000
I0916 10:24:06.452028  4741 layer_factory.hpp:77] Creating layer cccp5
I0916 10:24:06.452035  4741 net.cpp:84] Creating Layer cccp5
I0916 10:24:06.452039  4741 net.cpp:406] cccp5 <- penlu_conv3
I0916 10:24:06.452044  4741 net.cpp:380] cccp5 -> cccp5
I0916 10:24:06.453727  4741 net.cpp:122] Setting up cccp5
I0916 10:24:06.453737  4741 net.cpp:129] Top shape: 50 192 7 7 (470400)
I0916 10:24:06.453739  4741 net.cpp:137] Memory required for data: 203056600
I0916 10:24:06.453744  4741 layer_factory.hpp:77] Creating layer penlu_cccp5
I0916 10:24:06.453750  4741 net.cpp:84] Creating Layer penlu_cccp5
I0916 10:24:06.453753  4741 net.cpp:406] penlu_cccp5 <- cccp5
I0916 10:24:06.453768  4741 net.cpp:380] penlu_cccp5 -> penlu_cccp5
I0916 10:24:06.453919  4741 net.cpp:122] Setting up penlu_cccp5
I0916 10:24:06.453925  4741 net.cpp:129] Top shape: 50 192 7 7 (470400)
I0916 10:24:06.453927  4741 net.cpp:137] Memory required for data: 204938200
I0916 10:24:06.453933  4741 layer_factory.hpp:77] Creating layer cccp6
I0916 10:24:06.453938  4741 net.cpp:84] Creating Layer cccp6
I0916 10:24:06.453941  4741 net.cpp:406] cccp6 <- penlu_cccp5
I0916 10:24:06.453958  4741 net.cpp:380] cccp6 -> cccp6
I0916 10:24:06.454877  4741 net.cpp:122] Setting up cccp6
I0916 10:24:06.454888  4741 net.cpp:129] Top shape: 50 10 7 7 (24500)
I0916 10:24:06.454891  4741 net.cpp:137] Memory required for data: 205036200
I0916 10:24:06.454895  4741 layer_factory.hpp:77] Creating layer penlu_cccp6
I0916 10:24:06.454900  4741 net.cpp:84] Creating Layer penlu_cccp6
I0916 10:24:06.454903  4741 net.cpp:406] penlu_cccp6 <- cccp6
I0916 10:24:06.454918  4741 net.cpp:380] penlu_cccp6 -> penlu_cccp6
I0916 10:24:06.455040  4741 net.cpp:122] Setting up penlu_cccp6
I0916 10:24:06.455046  4741 net.cpp:129] Top shape: 50 10 7 7 (24500)
I0916 10:24:06.455049  4741 net.cpp:137] Memory required for data: 205134200
I0916 10:24:06.455052  4741 layer_factory.hpp:77] Creating layer pool3
I0916 10:24:06.455058  4741 net.cpp:84] Creating Layer pool3
I0916 10:24:06.455060  4741 net.cpp:406] pool3 <- penlu_cccp6
I0916 10:24:06.455065  4741 net.cpp:380] pool3 -> pool3
I0916 10:24:06.455530  4741 net.cpp:122] Setting up pool3
I0916 10:24:06.455540  4741 net.cpp:129] Top shape: 50 10 1 1 (500)
I0916 10:24:06.455543  4741 net.cpp:137] Memory required for data: 205136200
I0916 10:24:06.455545  4741 layer_factory.hpp:77] Creating layer pool3_pool3_0_split
I0916 10:24:06.455550  4741 net.cpp:84] Creating Layer pool3_pool3_0_split
I0916 10:24:06.455564  4741 net.cpp:406] pool3_pool3_0_split <- pool3
I0916 10:24:06.455567  4741 net.cpp:380] pool3_pool3_0_split -> pool3_pool3_0_split_0
I0916 10:24:06.455572  4741 net.cpp:380] pool3_pool3_0_split -> pool3_pool3_0_split_1
I0916 10:24:06.455627  4741 net.cpp:122] Setting up pool3_pool3_0_split
I0916 10:24:06.455631  4741 net.cpp:129] Top shape: 50 10 1 1 (500)
I0916 10:24:06.455634  4741 net.cpp:129] Top shape: 50 10 1 1 (500)
I0916 10:24:06.455636  4741 net.cpp:137] Memory required for data: 205140200
I0916 10:24:06.455639  4741 layer_factory.hpp:77] Creating layer accuracy
I0916 10:24:06.455643  4741 net.cpp:84] Creating Layer accuracy
I0916 10:24:06.455646  4741 net.cpp:406] accuracy <- pool3_pool3_0_split_0
I0916 10:24:06.455659  4741 net.cpp:406] accuracy <- label_cifar_1_split_0
I0916 10:24:06.455664  4741 net.cpp:380] accuracy -> accuracy
…
