…
I0918 19:03:58.998644   787 net.cpp:294] The NetState phase (0) differed from the phase (1) specified by a rule in layer cifar
I0918 19:03:58.998853   787 net.cpp:51] Initializing net from parameters: 
name: "nin"
state {
  phase: TRAIN
  level: 0
  stage: ""
}
layer {
  name: "cifar"
  type: "Data"
  top: "data"
  top: "label"
  include {
    phase: TRAIN
  }
  transform_param {
    mirror: true
    crop_size: 28
    mean_file: "/home/x306/caffe/xn/PENLU/data/cifar10/mean.binaryproto"
  }
  data_param {
    source: "/home/x306/caffe/xn/PENLU/data/cifar10/cifar10_train_lmdb"
    batch_size: 64
    backend: LMDB
  }
  image_data_param {
    shuffle: true
  }
}
layer {
  name: "conv1"
  type: "Convolution"
  bottom: "data"
  top: "conv1"
  param {
    lr_mult: 1
    decay_mult: 1
  }
  param {
    lr_mult: 2
    decay_mult: 0
  }
  convolution_param {
    num_output: 192
    pad: 2
    kernel_size: 5
    weight_filler {
      type: "gaussian"
      std: 0.05
    }
    bias_filler {
      type: "constant"
      value: 0
    }
  }
}
layer {
  name: "penlu_conv1"
  type: "PENLU"
  bottom: "conv1"
  top: "penlu_conv1"
  param {
    lr_mult: 1
    decay_mult: 0
  }
  param {
    lr_mult: 1
    decay_mult: 0
  }
  param {
    lr_mult: 1
    decay_mult: 0
  }
  penlu_param {
    alpha_filler {
      type: "constant"
      value: 2
    }
    beta_filler {
      type: "constant"
      value: 1
    }
    eta_filler {
      type: "constant"
      value: 0.9
    }
  }
}
layer {
  name: "cccp1"
  type: "Convolution"
  bottom: "penlu_conv1"
  top: "cccp1"
  param {
    lr_mult: 1
    decay_mult: 1
  }
  param {
    lr_mult: 2
    decay_mult: 0
  }
  convolution_param {
    num_output: 160
    kernel_size: 1
    weight_filler {
      type: "gaussian"
      std: 0.05
    }
    bias_filler {
      type: "constant"
      value: 0
    }
  }
}
layer {
  name: "penlu_cccp1"
  type: "PENLU"
  bottom: "cccp1"
  top: "penlu_cccp1"
  param {
    lr_mult: 1
    decay_mult: 0
  }
  param {
    lr_mult: 1
    decay_mult: 0
  }
  param {
    lr_mult: 1
    decay_mult: 0
  }
  penlu_param {
    alpha_filler {
      type: "constant"
      value: 2
    }
    beta_filler {
      type: "constant"
      value: 1
    }
    eta_filler {
      type: "constant"
      value: 0.9
    }
  }
}
layer {
  name: "cccp2"
  type: "Convolution"
  bottom: "penlu_cccp1"
  top: "cccp2"
  param {
    lr_mult: 1
    decay_mult: 1
  }
  param {
    lr_mult: 2
    decay_mult: 0
  }
  convolution_param {
    num_output: 96
    kernel_size: 1
    weight_filler {
      type: "gaussian"
      std: 0.05
    }
    bias_filler {
      type: "constant"
      value: 0
    }
  }
}
layer {
  name: "penlu_cccp2"
  type: "PENLU"
  bottom: "cccp2"
  top: "penlu_cccp2"
  param {
    lr_mult: 1
    decay_mult: 0
  }
  param {
    lr_mult: 1
    decay_mult: 0
  }
  param {
    lr_mult: 1
    decay_mult: 0
  }
  penlu_param {
    alpha_filler {
      type: "constant"
      value: 2
    }
    beta_filler {
      type: "constant"
      value: 1
    }
    eta_filler {
      type: "constant"
      value: 0.9
    }
  }
}
layer {
  name: "pool1"
  type: "Pooling"
  bottom: "penlu_cccp2"
  top: "pool1"
  pooling_param {
    pool: MAX
    kernel_size: 3
    stride: 2
  }
}
layer {
  name: "dropout1"
  type: "Dropout"
  bottom: "pool1"
  top: "dropout1"
  dropout_param {
    dropout_ratio: 0.5
  }
}
layer {
  name: "conv2"
  type: "Convolution"
  bottom: "dropout1"
  top: "conv2"
  param {
    lr_mult: 1
    decay_mult: 1
  }
  param {
    lr_mult: 2
    decay_mult: 0
  }
  convolution_param {
    num_output: 192
    pad: 2
    kernel_size: 5
    weight_filler {
      type: "gaussian"
      std: 0.05
    }
    bias_filler {
      type: "constant"
      value: 0
    }
  }
}
layer {
  name: "penlu_conv2"
  type: "PENLU"
  bottom: "conv2"
  top: "penlu_conv2"
  param {
    lr_mult: 1
    decay_mult: 0
  }
  param {
    lr_mult: 1
    decay_mult: 0
  }
  param {
    lr_mult: 1
    decay_mult: 0
  }
  penlu_param {
    alpha_filler {
      type: "constant"
      value: 2
    }
    beta_filler {
      type: "constant"
      value: 1
    }
    eta_filler {
      type: "constant"
      value: 0.9
    }
  }
}
layer {
  name: "cccp3"
  type: "Convolution"
  bottom: "penlu_conv2"
  top: "cccp3"
  param {
    lr_mult: 1
    decay_mult: 1
  }
  param {
    lr_mult: 2
    decay_mult: 0
  }
  convolution_param {
    num_output: 192
    kernel_size: 1
    weight_filler {
      type: "gaussian"
      std: 0.05
    }
    bias_filler {
      type: "constant"
      value: 0
    }
  }
}
layer {
  name: "penlu_cccp3"
  type: "PENLU"
  bottom: "cccp3"
  top: "penlu_cccp3"
  param {
    lr_mult: 1
    decay_mult: 0
  }
  param {
    lr_mult: 1
    decay_mult: 0
  }
  param {
    lr_mult: 1
    decay_mult: 0
  }
  penlu_param {
    alpha_filler {
      type: "constant"
      value: 2
    }
    beta_filler {
      type: "constant"
      value: 1
    }
    eta_filler {
      type: "constant"
      value: 0.9
    }
  }
}
layer {
  name: "cccp4"
  type: "Convolution"
  bottom: "penlu_cccp3"
  top: "cccp4"
  param {
    lr_mult: 1
    decay_mult: 1
  }
  param {
    lr_mult: 2
    decay_mult: 0
  }
  convolution_param {
    num_output: 192
    kernel_size: 1
    weight_filler {
      type: "gaussian"
      std: 0.05
    }
    bias_filler {
      type: "constant"
      value: 0
    }
  }
}
layer {
  name: "penlu_cccp4"
  type: "PENLU"
  bottom: "cccp4"
  top: "penlu_cccp4"
  param {
    lr_mult: 1
    decay_mult: 0
  }
  param {
    lr_mult: 1
    decay_mult: 0
  }
  param {
    lr_mult: 1
    decay_mult: 0
  }
  penlu_param {
    alpha_filler {
      type: "constant"
      value: 2
    }
    beta_filler {
      type: "constant"
      value: 1
    }
    eta_filler {
      type: "constant"
      value: 0.9
    }
  }
}
layer {
  name: "pool2"
  type: "Pooling"
  bottom: "penlu_cccp4"
  top: "pool2"
  pooling_param {
    pool: AVE
    kernel_size: 3
    stride: 2
  }
}
layer {
  name: "dropout2"
  type: "Dropout"
  bottom: "pool2"
  top: "dropout2"
  dropout_param {
    dropout_ratio: 0.5
  }
}
layer {
  name: "conv3"
  type: "Convolution"
  bottom: "dropout2"
  top: "conv3"
  param {
    lr_mult: 1
    decay_mult: 1
  }
  param {
    lr_mult: 2
    decay_mult: 0
  }
  convolution_param {
    num_output: 192
    pad: 1
    kernel_size: 3
    weight_filler {
      type: "gaussian"
      std: 0.05
    }
    bias_filler {
      type: "constant"
      value: 0
    }
  }
}
layer {
  name: "penlu_conv3"
  type: "PENLU"
  bottom: "conv3"
  top: "penlu_conv3"
  param {
    lr_mult: 1
    decay_mult: 0
  }
  param {
    lr_mult: 1
    decay_mult: 0
  }
  param {
    lr_mult: 1
    decay_mult: 0
  }
  penlu_param {
    alpha_filler {
      type: "constant"
      value: 2
    }
    beta_filler {
      type: "constant"
      value: 1
    }
    eta_filler {
      type: "constant"
      value: 0.9
    }
  }
}
layer {
  name: "cccp5"
  type: "Convolution"
  bottom: "penlu_conv3"
  top: "cccp5"
  param {
    lr_mult: 1
    decay_mult: 1
  }
  param {
    lr_mult: 2
    decay_mult: 0
  }
  convolution_param {
    num_output: 192
    kernel_size: 1
    weight_filler {
      type: "gaussian"
      std: 0.05
    }
    bias_filler {
      type: "constant"
      value: 0
    }
  }
}
layer {
  name: "penlu_cccp5"
  type: "PENLU"
  bottom: "cccp5"
  top: "penlu_cccp5"
  param {
    lr_mult: 1
    decay_mult: 0
  }
  param {
    lr_mult: 1
    decay_mult: 0
  }
  param {
    lr_mult: 1
    decay_mult: 0
  }
  penlu_param {
    alpha_filler {
      type: "constant"
      value: 2
    }
    beta_filler {
      type: "constant"
      value: 1
    }
    eta_filler {
      type: "constant"
      value: 0.9
    }
  }
}
layer {
  name: "cccp6"
  type: "Convolution"
  bottom: "penlu_cccp5"
  top: "cccp6"
  param {
    lr_mult: 0.1
    decay_mult: 1
  }
  param {
    lr_mult: 0.1
    decay_mult: 0
  }
  convolution_param {
    num_output: 10
    kernel_size: 1
    weight_filler {
      type: "gaussian"
      std: 0.05
    }
    bias_filler {
      type: "constant"
      value: 0
    }
  }
}
layer {
  name: "penlu_cccp6"
  type: "PENLU"
  bottom: "cccp6"
  top: "penlu_cccp6"
  param {
    lr_mult: 1
    decay_mult: 0
  }
  param {
    lr_mult: 1
    decay_mult: 0
  }
  param {
    lr_mult: 1
    decay_mult: 0
  }
  penlu_param {
    alpha_filler {
      type: "constant"
      value: 2
    }
    beta_filler {
      type: "constant"
      value: 1
    }
    eta_filler {
      type: "constant"
      value: 0.9
    }
  }
}
layer {
  name: "pool3"
  type: "Pooling"
  bottom: "penlu_cccp6"
  top: "pool3"
  pooling_param {
    pool: AVE
    kernel_size: 7
    stride: 1
  }
}
layer {
  name: "accuracy"
  type: "Accuracy"
  bottom: "pool3"
  bottom: "label"
  top: "accuracy"
}
layer {
  name: "loss"
  type: "SoftmaxWithLoss"
  bottom: "pool3"
  bottom: "label"
  top: "loss"
}
I0918 19:03:58.998989   787 layer_factory.hpp:77] Creating layer cifar
I0918 19:03:58.999073   787 db_lmdb.cpp:35] Opened lmdb /home/x306/caffe/xn/PENLU/data/cifar10/cifar10_train_lmdb
I0918 19:03:58.999102   787 net.cpp:84] Creating Layer cifar
I0918 19:03:58.999116   787 net.cpp:380] cifar -> data
I0918 19:03:58.999155   787 net.cpp:380] cifar -> label
I0918 19:03:58.999176   787 data_transformer.cpp:25] Loading mean file from: /home/x306/caffe/xn/PENLU/data/cifar10/mean.binaryproto
I0918 19:03:59.000576   787 data_layer.cpp:45] output data size: 64,3,28,28
I0918 19:03:59.002665   787 net.cpp:122] Setting up cifar
I0918 19:03:59.002697   787 net.cpp:129] Top shape: 64 3 28 28 (150528)
I0918 19:03:59.002702   787 net.cpp:129] Top shape: 64 (64)
I0918 19:03:59.002704   787 net.cpp:137] Memory required for data: 602368
I0918 19:03:59.002712   787 layer_factory.hpp:77] Creating layer label_cifar_1_split
I0918 19:03:59.002723   787 net.cpp:84] Creating Layer label_cifar_1_split
I0918 19:03:59.002727   787 net.cpp:406] label_cifar_1_split <- label
I0918 19:03:59.002744   787 net.cpp:380] label_cifar_1_split -> label_cifar_1_split_0
I0918 19:03:59.002761   787 net.cpp:380] label_cifar_1_split -> label_cifar_1_split_1
I0918 19:03:59.002812   787 net.cpp:122] Setting up label_cifar_1_split
I0918 19:03:59.002818   787 net.cpp:129] Top shape: 64 (64)
I0918 19:03:59.002832   787 net.cpp:129] Top shape: 64 (64)
I0918 19:03:59.002835   787 net.cpp:137] Memory required for data: 602880
I0918 19:03:59.002837   787 layer_factory.hpp:77] Creating layer conv1
I0918 19:03:59.002849   787 net.cpp:84] Creating Layer conv1
I0918 19:03:59.002852   787 net.cpp:406] conv1 <- data
I0918 19:03:59.002857   787 net.cpp:380] conv1 -> conv1
I0918 19:03:59.149864   787 net.cpp:122] Setting up conv1
I0918 19:03:59.149888   787 net.cpp:129] Top shape: 64 192 28 28 (9633792)
I0918 19:03:59.149893   787 net.cpp:137] Memory required for data: 39138048
I0918 19:03:59.149906   787 layer_factory.hpp:77] Creating layer penlu_conv1
I0918 19:03:59.149931   787 net.cpp:84] Creating Layer penlu_conv1
I0918 19:03:59.149947   787 net.cpp:406] penlu_conv1 <- conv1
I0918 19:03:59.149956   787 net.cpp:380] penlu_conv1 -> penlu_conv1
I0918 19:03:59.150207   787 net.cpp:122] Setting up penlu_conv1
I0918 19:03:59.150214   787 net.cpp:129] Top shape: 64 192 28 28 (9633792)
I0918 19:03:59.150218   787 net.cpp:137] Memory required for data: 77673216
I0918 19:03:59.150223   787 layer_factory.hpp:77] Creating layer cccp1
I0918 19:03:59.150233   787 net.cpp:84] Creating Layer cccp1
I0918 19:03:59.150245   787 net.cpp:406] cccp1 <- penlu_conv1
I0918 19:03:59.150249   787 net.cpp:380] cccp1 -> cccp1
I0918 19:03:59.152205   787 net.cpp:122] Setting up cccp1
I0918 19:03:59.152225   787 net.cpp:129] Top shape: 64 160 28 28 (8028160)
I0918 19:03:59.152228   787 net.cpp:137] Memory required for data: 109785856
I0918 19:03:59.152233   787 layer_factory.hpp:77] Creating layer penlu_cccp1
I0918 19:03:59.152240   787 net.cpp:84] Creating Layer penlu_cccp1
I0918 19:03:59.152241   787 net.cpp:406] penlu_cccp1 <- cccp1
I0918 19:03:59.152256   787 net.cpp:380] penlu_cccp1 -> penlu_cccp1
I0918 19:03:59.152456   787 net.cpp:122] Setting up penlu_cccp1
I0918 19:03:59.152462   787 net.cpp:129] Top shape: 64 160 28 28 (8028160)
I0918 19:03:59.152463   787 net.cpp:137] Memory required for data: 141898496
I0918 19:03:59.152470   787 layer_factory.hpp:77] Creating layer cccp2
I0918 19:03:59.152477   787 net.cpp:84] Creating Layer cccp2
I0918 19:03:59.152478   787 net.cpp:406] cccp2 <- penlu_cccp1
I0918 19:03:59.152493   787 net.cpp:380] cccp2 -> cccp2
I0918 19:03:59.153650   787 net.cpp:122] Setting up cccp2
I0918 19:03:59.153659   787 net.cpp:129] Top shape: 64 96 28 28 (4816896)
I0918 19:03:59.153662   787 net.cpp:137] Memory required for data: 161166080
I0918 19:03:59.153667   787 layer_factory.hpp:77] Creating layer penlu_cccp2
I0918 19:03:59.153673   787 net.cpp:84] Creating Layer penlu_cccp2
I0918 19:03:59.153676   787 net.cpp:406] penlu_cccp2 <- cccp2
I0918 19:03:59.153681   787 net.cpp:380] penlu_cccp2 -> penlu_cccp2
I0918 19:03:59.153851   787 net.cpp:122] Setting up penlu_cccp2
I0918 19:03:59.153856   787 net.cpp:129] Top shape: 64 96 28 28 (4816896)
I0918 19:03:59.153858   787 net.cpp:137] Memory required for data: 180433664
I0918 19:03:59.153863   787 layer_factory.hpp:77] Creating layer pool1
I0918 19:03:59.153869   787 net.cpp:84] Creating Layer pool1
I0918 19:03:59.153872   787 net.cpp:406] pool1 <- penlu_cccp2
I0918 19:03:59.153877   787 net.cpp:380] pool1 -> pool1
I0918 19:03:59.153928   787 net.cpp:122] Setting up pool1
I0918 19:03:59.153934   787 net.cpp:129] Top shape: 64 96 14 14 (1204224)
I0918 19:03:59.153935   787 net.cpp:137] Memory required for data: 185250560
I0918 19:03:59.153939   787 layer_factory.hpp:77] Creating layer dropout1
I0918 19:03:59.153944   787 net.cpp:84] Creating Layer dropout1
I0918 19:03:59.153945   787 net.cpp:406] dropout1 <- pool1
I0918 19:03:59.153949   787 net.cpp:380] dropout1 -> dropout1
I0918 19:03:59.153998   787 net.cpp:122] Setting up dropout1
I0918 19:03:59.154012   787 net.cpp:129] Top shape: 64 96 14 14 (1204224)
I0918 19:03:59.154016   787 net.cpp:137] Memory required for data: 190067456
I0918 19:03:59.154017   787 layer_factory.hpp:77] Creating layer conv2
I0918 19:03:59.154036   787 net.cpp:84] Creating Layer conv2
I0918 19:03:59.154038   787 net.cpp:406] conv2 <- dropout1
I0918 19:03:59.154044   787 net.cpp:380] conv2 -> conv2
I0918 19:03:59.166172   787 net.cpp:122] Setting up conv2
I0918 19:03:59.166198   787 net.cpp:129] Top shape: 64 192 14 14 (2408448)
I0918 19:03:59.166201   787 net.cpp:137] Memory required for data: 199701248
I0918 19:03:59.166210   787 layer_factory.hpp:77] Creating layer penlu_conv2
I0918 19:03:59.166234   787 net.cpp:84] Creating Layer penlu_conv2
I0918 19:03:59.166254   787 net.cpp:406] penlu_conv2 <- conv2
I0918 19:03:59.166275   787 net.cpp:380] penlu_conv2 -> penlu_conv2
I0918 19:03:59.166442   787 net.cpp:122] Setting up penlu_conv2
I0918 19:03:59.166450   787 net.cpp:129] Top shape: 64 192 14 14 (2408448)
I0918 19:03:59.166452   787 net.cpp:137] Memory required for data: 209335040
I0918 19:03:59.166456   787 layer_factory.hpp:77] Creating layer cccp3
I0918 19:03:59.166463   787 net.cpp:84] Creating Layer cccp3
I0918 19:03:59.166466   787 net.cpp:406] cccp3 <- penlu_conv2
I0918 19:03:59.166481   787 net.cpp:380] cccp3 -> cccp3
I0918 19:03:59.168118   787 net.cpp:122] Setting up cccp3
I0918 19:03:59.168128   787 net.cpp:129] Top shape: 64 192 14 14 (2408448)
I0918 19:03:59.168130   787 net.cpp:137] Memory required for data: 218968832
I0918 19:03:59.168134   787 layer_factory.hpp:77] Creating layer penlu_cccp3
I0918 19:03:59.168140   787 net.cpp:84] Creating Layer penlu_cccp3
I0918 19:03:59.168164   787 net.cpp:406] penlu_cccp3 <- cccp3
I0918 19:03:59.168170   787 net.cpp:380] penlu_cccp3 -> penlu_cccp3
I0918 19:03:59.168305   787 net.cpp:122] Setting up penlu_cccp3
I0918 19:03:59.168311   787 net.cpp:129] Top shape: 64 192 14 14 (2408448)
I0918 19:03:59.168314   787 net.cpp:137] Memory required for data: 228602624
I0918 19:03:59.168318   787 layer_factory.hpp:77] Creating layer cccp4
I0918 19:03:59.168324   787 net.cpp:84] Creating Layer cccp4
I0918 19:03:59.168328   787 net.cpp:406] cccp4 <- penlu_cccp3
I0918 19:03:59.168331   787 net.cpp:380] cccp4 -> cccp4
I0918 19:03:59.169971   787 net.cpp:122] Setting up cccp4
I0918 19:03:59.169984   787 net.cpp:129] Top shape: 64 192 14 14 (2408448)
I0918 19:03:59.169988   787 net.cpp:137] Memory required for data: 238236416
I0918 19:03:59.169992   787 layer_factory.hpp:77] Creating layer penlu_cccp4
I0918 19:03:59.169998   787 net.cpp:84] Creating Layer penlu_cccp4
I0918 19:03:59.170001   787 net.cpp:406] penlu_cccp4 <- cccp4
I0918 19:03:59.170007   787 net.cpp:380] penlu_cccp4 -> penlu_cccp4
I0918 19:03:59.170156   787 net.cpp:122] Setting up penlu_cccp4
I0918 19:03:59.170161   787 net.cpp:129] Top shape: 64 192 14 14 (2408448)
I0918 19:03:59.170164   787 net.cpp:137] Memory required for data: 247870208
I0918 19:03:59.170169   787 layer_factory.hpp:77] Creating layer pool2
I0918 19:03:59.170176   787 net.cpp:84] Creating Layer pool2
I0918 19:03:59.170181   787 net.cpp:406] pool2 <- penlu_cccp4
I0918 19:03:59.170199   787 net.cpp:380] pool2 -> pool2
I0918 19:03:59.170341   787 net.cpp:122] Setting up pool2
I0918 19:03:59.170349   787 net.cpp:129] Top shape: 64 192 7 7 (602112)
I0918 19:03:59.170352   787 net.cpp:137] Memory required for data: 250278656
I0918 19:03:59.170354   787 layer_factory.hpp:77] Creating layer dropout2
I0918 19:03:59.170361   787 net.cpp:84] Creating Layer dropout2
I0918 19:03:59.170363   787 net.cpp:406] dropout2 <- pool2
I0918 19:03:59.170367   787 net.cpp:380] dropout2 -> dropout2
I0918 19:03:59.170403   787 net.cpp:122] Setting up dropout2
I0918 19:03:59.170419   787 net.cpp:129] Top shape: 64 192 7 7 (602112)
I0918 19:03:59.170421   787 net.cpp:137] Memory required for data: 252687104
I0918 19:03:59.170423   787 layer_factory.hpp:77] Creating layer conv3
I0918 19:03:59.170431   787 net.cpp:84] Creating Layer conv3
I0918 19:03:59.170434   787 net.cpp:406] conv3 <- dropout2
I0918 19:03:59.170439   787 net.cpp:380] conv3 -> conv3
I0918 19:03:59.179527   787 net.cpp:122] Setting up conv3
I0918 19:03:59.179550   787 net.cpp:129] Top shape: 64 192 7 7 (602112)
I0918 19:03:59.179553   787 net.cpp:137] Memory required for data: 255095552
I0918 19:03:59.179558   787 layer_factory.hpp:77] Creating layer penlu_conv3
I0918 19:03:59.179565   787 net.cpp:84] Creating Layer penlu_conv3
I0918 19:03:59.179579   787 net.cpp:406] penlu_conv3 <- conv3
I0918 19:03:59.179587   787 net.cpp:380] penlu_conv3 -> penlu_conv3
I0918 19:03:59.179755   787 net.cpp:122] Setting up penlu_conv3
I0918 19:03:59.179762   787 net.cpp:129] Top shape: 64 192 7 7 (602112)
I0918 19:03:59.179777   787 net.cpp:137] Memory required for data: 257504000
I0918 19:03:59.179787   787 layer_factory.hpp:77] Creating layer cccp5
I0918 19:03:59.179796   787 net.cpp:84] Creating Layer cccp5
I0918 19:03:59.179800   787 net.cpp:406] cccp5 <- penlu_conv3
I0918 19:03:59.179805   787 net.cpp:380] cccp5 -> cccp5
I0918 19:03:59.181450   787 net.cpp:122] Setting up cccp5
I0918 19:03:59.181460   787 net.cpp:129] Top shape: 64 192 7 7 (602112)
I0918 19:03:59.181474   787 net.cpp:137] Memory required for data: 259912448
I0918 19:03:59.181479   787 layer_factory.hpp:77] Creating layer penlu_cccp5
I0918 19:03:59.181496   787 net.cpp:84] Creating Layer penlu_cccp5
I0918 19:03:59.181500   787 net.cpp:406] penlu_cccp5 <- cccp5
I0918 19:03:59.181515   787 net.cpp:380] penlu_cccp5 -> penlu_cccp5
I0918 19:03:59.181635   787 net.cpp:122] Setting up penlu_cccp5
I0918 19:03:59.181641   787 net.cpp:129] Top shape: 64 192 7 7 (602112)
I0918 19:03:59.181643   787 net.cpp:137] Memory required for data: 262320896
I0918 19:03:59.181668   787 layer_factory.hpp:77] Creating layer cccp6
I0918 19:03:59.181676   787 net.cpp:84] Creating Layer cccp6
I0918 19:03:59.181680   787 net.cpp:406] cccp6 <- penlu_cccp5
I0918 19:03:59.181684   787 net.cpp:380] cccp6 -> cccp6
I0918 19:03:59.182556   787 net.cpp:122] Setting up cccp6
I0918 19:03:59.182567   787 net.cpp:129] Top shape: 64 10 7 7 (31360)
I0918 19:03:59.182570   787 net.cpp:137] Memory required for data: 262446336
I0918 19:03:59.182585   787 layer_factory.hpp:77] Creating layer penlu_cccp6
I0918 19:03:59.182592   787 net.cpp:84] Creating Layer penlu_cccp6
I0918 19:03:59.182596   787 net.cpp:406] penlu_cccp6 <- cccp6
I0918 19:03:59.182601   787 net.cpp:380] penlu_cccp6 -> penlu_cccp6
I0918 19:03:59.182718   787 net.cpp:122] Setting up penlu_cccp6
I0918 19:03:59.182724   787 net.cpp:129] Top shape: 64 10 7 7 (31360)
I0918 19:03:59.182726   787 net.cpp:137] Memory required for data: 262571776
I0918 19:03:59.182741   787 layer_factory.hpp:77] Creating layer pool3
I0918 19:03:59.182746   787 net.cpp:84] Creating Layer pool3
I0918 19:03:59.182749   787 net.cpp:406] pool3 <- penlu_cccp6
I0918 19:03:59.182754   787 net.cpp:380] pool3 -> pool3
I0918 19:03:59.182909   787 net.cpp:122] Setting up pool3
I0918 19:03:59.182915   787 net.cpp:129] Top shape: 64 10 1 1 (640)
I0918 19:03:59.182919   787 net.cpp:137] Memory required for data: 262574336
I0918 19:03:59.182930   787 layer_factory.hpp:77] Creating layer pool3_pool3_0_split
I0918 19:03:59.182935   787 net.cpp:84] Creating Layer pool3_pool3_0_split
I0918 19:03:59.182940   787 net.cpp:406] pool3_pool3_0_split <- pool3
I0918 19:03:59.182942   787 net.cpp:380] pool3_pool3_0_split -> pool3_pool3_0_split_0
I0918 19:03:59.182946   787 net.cpp:380] pool3_pool3_0_split -> pool3_pool3_0_split_1
I0918 19:03:59.182971   787 net.cpp:122] Setting up pool3_pool3_0_split
I0918 19:03:59.182986   787 net.cpp:129] Top shape: 64 10 1 1 (640)
I0918 19:03:59.182988   787 net.cpp:129] Top shape: 64 10 1 1 (640)
I0918 19:03:59.182991   787 net.cpp:137] Memory required for data: 262579456
I0918 19:03:59.183002   787 layer_factory.hpp:77] Creating layer accuracy
I0918 19:03:59.183007   787 net.cpp:84] Creating Layer accuracy
I0918 19:03:59.183009   787 net.cpp:406] accuracy <- pool3_pool3_0_split_0
I0918 19:03:59.183012   787 net.cpp:406] accuracy <- label_cifar_1_split_0
I0918 19:03:59.183017   787 net.cpp:380] accuracy -> accuracy
…
I0918 19:03:59.183997   787 net.cpp:294] The NetState phase (1) differed from the phase (0) specified by a rule in layer cifar
I0918 19:03:59.184170   787 net.cpp:51] Initializing net from parameters: 
name: "nin"
state {
  phase: TEST
}
layer {
  name: "cifar"
  type: "Data"
  top: "data"
  top: "label"
  include {
    phase: TEST
  }
  transform_param {
    mirror: false
    crop_size: 28
    mean_file: "/home/x306/caffe/xn/PENLU/data/cifar10/mean.binaryproto"
  }
  data_param {
    source: "/home/x306/caffe/xn/PENLU/data/cifar10/cifar10_test_lmdb"
    batch_size: 50
    backend: LMDB
  }
}
layer {
  name: "conv1"
  type: "Convolution"
  bottom: "data"
  top: "conv1"
  param {
    lr_mult: 1
    decay_mult: 1
  }
  param {
    lr_mult: 2
    decay_mult: 0
  }
  convolution_param {
    num_output: 192
    pad: 2
    kernel_size: 5
    weight_filler {
      type: "gaussian"
      std: 0.05
    }
    bias_filler {
      type: "constant"
      value: 0
    }
  }
}
layer {
  name: "penlu_conv1"
  type: "PENLU"
  bottom: "conv1"
  top: "penlu_conv1"
  param {
    lr_mult: 1
    decay_mult: 0
  }
  param {
    lr_mult: 1
    decay_mult: 0
  }
  param {
    lr_mult: 1
    decay_mult: 0
  }
  penlu_param {
    alpha_filler {
      type: "constant"
      value: 2
    }
    beta_filler {
      type: "constant"
      value: 1
    }
    eta_filler {
      type: "constant"
      value: 0.9
    }
  }
}
layer {
  name: "cccp1"
  type: "Convolution"
  bottom: "penlu_conv1"
  top: "cccp1"
  param {
    lr_mult: 1
    decay_mult: 1
  }
  param {
    lr_mult: 2
    decay_mult: 0
  }
  convolution_param {
    num_output: 160
    kernel_size: 1
    weight_filler {
      type: "gaussian"
      std: 0.05
    }
    bias_filler {
      type: "constant"
      value: 0
    }
  }
}
layer {
  name: "penlu_cccp1"
  type: "PENLU"
  bottom: "cccp1"
  top: "penlu_cccp1"
  param {
    lr_mult: 1
    decay_mult: 0
  }
  param {
    lr_mult: 1
    decay_mult: 0
  }
  param {
    lr_mult: 1
    decay_mult: 0
  }
  penlu_param {
    alpha_filler {
      type: "constant"
      value: 2
    }
    beta_filler {
      type: "constant"
      value: 1
    }
    eta_filler {
      type: "constant"
      value: 0.9
    }
  }
}
layer {
  name: "cccp2"
  type: "Convolution"
  bottom: "penlu_cccp1"
  top: "cccp2"
  param {
    lr_mult: 1
    decay_mult: 1
  }
  param {
    lr_mult: 2
    decay_mult: 0
  }
  convolution_param {
    num_output: 96
    kernel_size: 1
    weight_filler {
      type: "gaussian"
      std: 0.05
    }
    bias_filler {
      type: "constant"
      value: 0
    }
  }
}
layer {
  name: "penlu_cccp2"
  type: "PENLU"
  bottom: "cccp2"
  top: "penlu_cccp2"
  param {
    lr_mult: 1
    decay_mult: 0
  }
  param {
    lr_mult: 1
    decay_mult: 0
  }
  param {
    lr_mult: 1
    decay_mult: 0
  }
  penlu_param {
    alpha_filler {
      type: "constant"
      value: 2
    }
    beta_filler {
      type: "constant"
      value: 1
    }
    eta_filler {
      type: "constant"
      value: 0.9
    }
  }
}
layer {
  name: "pool1"
  type: "Pooling"
  bottom: "penlu_cccp2"
  top: "pool1"
  pooling_param {
    pool: MAX
    kernel_size: 3
    stride: 2
  }
}
layer {
  name: "dropout1"
  type: "Dropout"
  bottom: "pool1"
  top: "dropout1"
  dropout_param {
    dropout_ratio: 0.5
  }
}
layer {
  name: "conv2"
  type: "Convolution"
  bottom: "dropout1"
  top: "conv2"
  param {
    lr_mult: 1
    decay_mult: 1
  }
  param {
    lr_mult: 2
    decay_mult: 0
  }
  convolution_param {
    num_output: 192
    pad: 2
    kernel_size: 5
    weight_filler {
      type: "gaussian"
      std: 0.05
    }
    bias_filler {
      type: "constant"
      value: 0
    }
  }
}
layer {
  name: "penlu_conv2"
  type: "PENLU"
  bottom: "conv2"
  top: "penlu_conv2"
  param {
    lr_mult: 1
    decay_mult: 0
  }
  param {
    lr_mult: 1
    decay_mult: 0
  }
  param {
    lr_mult: 1
    decay_mult: 0
  }
  penlu_param {
    alpha_filler {
      type: "constant"
      value: 2
    }
    beta_filler {
      type: "constant"
      value: 1
    }
    eta_filler {
      type: "constant"
      value: 0.9
    }
  }
}
layer {
  name: "cccp3"
  type: "Convolution"
  bottom: "penlu_conv2"
  top: "cccp3"
  param {
    lr_mult: 1
    decay_mult: 1
  }
  param {
    lr_mult: 2
    decay_mult: 0
  }
  convolution_param {
    num_output: 192
    kernel_size: 1
    weight_filler {
      type: "gaussian"
      std: 0.05
    }
    bias_filler {
      type: "constant"
      value: 0
    }
  }
}
layer {
  name: "penlu_cccp3"
  type: "PENLU"
  bottom: "cccp3"
  top: "penlu_cccp3"
  param {
    lr_mult: 1
    decay_mult: 0
  }
  param {
    lr_mult: 1
    decay_mult: 0
  }
  param {
    lr_mult: 1
    decay_mult: 0
  }
  penlu_param {
    alpha_filler {
      type: "constant"
      value: 2
    }
    beta_filler {
      type: "constant"
      value: 1
    }
    eta_filler {
      type: "constant"
      value: 0.9
    }
  }
}
layer {
  name: "cccp4"
  type: "Convolution"
  bottom: "penlu_cccp3"
  top: "cccp4"
  param {
    lr_mult: 1
    decay_mult: 1
  }
  param {
    lr_mult: 2
    decay_mult: 0
  }
  convolution_param {
    num_output: 192
    kernel_size: 1
    weight_filler {
      type: "gaussian"
      std: 0.05
    }
    bias_filler {
      type: "constant"
      value: 0
    }
  }
}
layer {
  name: "penlu_cccp4"
  type: "PENLU"
  bottom: "cccp4"
  top: "penlu_cccp4"
  param {
    lr_mult: 1
    decay_mult: 0
  }
  param {
    lr_mult: 1
    decay_mult: 0
  }
  param {
    lr_mult: 1
    decay_mult: 0
  }
  penlu_param {
    alpha_filler {
      type: "constant"
      value: 2
    }
    beta_filler {
      type: "constant"
      value: 1
    }
    eta_filler {
      type: "constant"
      value: 0.9
    }
  }
}
layer {
  name: "pool2"
  type: "Pooling"
  bottom: "penlu_cccp4"
  top: "pool2"
  pooling_param {
    pool: AVE
    kernel_size: 3
    stride: 2
  }
}
layer {
  name: "dropout2"
  type: "Dropout"
  bottom: "pool2"
  top: "dropout2"
  dropout_param {
    dropout_ratio: 0.5
  }
}
layer {
  name: "conv3"
  type: "Convolution"
  bottom: "dropout2"
  top: "conv3"
  param {
    lr_mult: 1
    decay_mult: 1
  }
  param {
    lr_mult: 2
    decay_mult: 0
  }
  convolution_param {
    num_output: 192
    pad: 1
    kernel_size: 3
    weight_filler {
      type: "gaussian"
      std: 0.05
    }
    bias_filler {
      type: "constant"
      value: 0
    }
  }
}
layer {
  name: "penlu_conv3"
  type: "PENLU"
  bottom: "conv3"
  top: "penlu_conv3"
  param {
    lr_mult: 1
    decay_mult: 0
  }
  param {
    lr_mult: 1
    decay_mult: 0
  }
  param {
    lr_mult: 1
    decay_mult: 0
  }
  penlu_param {
    alpha_filler {
      type: "constant"
      value: 2
    }
    beta_filler {
      type: "constant"
      value: 1
    }
    eta_filler {
      type: "constant"
      value: 0.9
    }
  }
}
layer {
  name: "cccp5"
  type: "Convolution"
  bottom: "penlu_conv3"
  top: "cccp5"
  param {
    lr_mult: 1
    decay_mult: 1
  }
  param {
    lr_mult: 2
    decay_mult: 0
  }
  convolution_param {
    num_output: 192
    kernel_size: 1
    weight_filler {
      type: "gaussian"
      std: 0.05
    }
    bias_filler {
      type: "constant"
      value: 0
    }
  }
}
layer {
  name: "penlu_cccp5"
  type: "PENLU"
  bottom: "cccp5"
  top: "penlu_cccp5"
  param {
    lr_mult: 1
    decay_mult: 0
  }
  param {
    lr_mult: 1
    decay_mult: 0
  }
  param {
    lr_mult: 1
    decay_mult: 0
  }
  penlu_param {
    alpha_filler {
      type: "constant"
      value: 2
    }
    beta_filler {
      type: "constant"
      value: 1
    }
    eta_filler {
      type: "constant"
      value: 0.9
    }
  }
}
layer {
  name: "cccp6"
  type: "Convolution"
  bottom: "penlu_cccp5"
  top: "cccp6"
  param {
    lr_mult: 0.1
    decay_mult: 1
  }
  param {
    lr_mult: 0.1
    decay_mult: 0
  }
  convolution_param {
    num_output: 10
    kernel_size: 1
    weight_filler {
      type: "gaussian"
      std: 0.05
    }
    bias_filler {
      type: "constant"
      value: 0
    }
  }
}
layer {
  name: "penlu_cccp6"
  type: "PENLU"
  bottom: "cccp6"
  top: "penlu_cccp6"
  param {
    lr_mult: 1
    decay_mult: 0
  }
  param {
    lr_mult: 1
    decay_mult: 0
  }
  param {
    lr_mult: 1
    decay_mult: 0
  }
  penlu_param {
    alpha_filler {
      type: "constant"
      value: 2
    }
    beta_filler {
      type: "constant"
      value: 1
    }
    eta_filler {
      type: "constant"
      value: 0.9
    }
  }
}
layer {
  name: "pool3"
  type: "Pooling"
  bottom: "penlu_cccp6"
  top: "pool3"
  pooling_param {
    pool: AVE
    kernel_size: 7
    stride: 1
  }
}
layer {
  name: "accuracy"
  type: "Accuracy"
  bottom: "pool3"
  bottom: "label"
  top: "accuracy"
}
layer {
  name: "loss"
  type: "SoftmaxWithLoss"
  bottom: "pool3"
  bottom: "label"
  top: "loss"
}
I0918 19:03:59.184270   787 layer_factory.hpp:77] Creating layer cifar
I0918 19:03:59.184306   787 db_lmdb.cpp:35] Opened lmdb /home/x306/caffe/xn/PENLU/data/cifar10/cifar10_test_lmdb
I0918 19:03:59.184317   787 net.cpp:84] Creating Layer cifar
I0918 19:03:59.184321   787 net.cpp:380] cifar -> data
I0918 19:03:59.184327   787 net.cpp:380] cifar -> label
I0918 19:03:59.184332   787 data_transformer.cpp:25] Loading mean file from: /home/x306/caffe/xn/PENLU/data/cifar10/mean.binaryproto
I0918 19:03:59.184437   787 data_layer.cpp:45] output data size: 50,3,28,28
I0918 19:03:59.185436   787 net.cpp:122] Setting up cifar
I0918 19:03:59.185457   787 net.cpp:129] Top shape: 50 3 28 28 (117600)
I0918 19:03:59.185461   787 net.cpp:129] Top shape: 50 (50)
I0918 19:03:59.185464   787 net.cpp:137] Memory required for data: 470600
I0918 19:03:59.185467   787 layer_factory.hpp:77] Creating layer label_cifar_1_split
I0918 19:03:59.185472   787 net.cpp:84] Creating Layer label_cifar_1_split
I0918 19:03:59.185475   787 net.cpp:406] label_cifar_1_split <- label
I0918 19:03:59.185480   787 net.cpp:380] label_cifar_1_split -> label_cifar_1_split_0
I0918 19:03:59.185485   787 net.cpp:380] label_cifar_1_split -> label_cifar_1_split_1
I0918 19:03:59.185541   787 net.cpp:122] Setting up label_cifar_1_split
I0918 19:03:59.185549   787 net.cpp:129] Top shape: 50 (50)
I0918 19:03:59.185552   787 net.cpp:129] Top shape: 50 (50)
I0918 19:03:59.185555   787 net.cpp:137] Memory required for data: 471000
I0918 19:03:59.185557   787 layer_factory.hpp:77] Creating layer conv1
I0918 19:03:59.185564   787 net.cpp:84] Creating Layer conv1
I0918 19:03:59.185569   787 net.cpp:406] conv1 <- data
I0918 19:03:59.185580   787 net.cpp:380] conv1 -> conv1
I0918 19:03:59.186949   787 net.cpp:122] Setting up conv1
I0918 19:03:59.186959   787 net.cpp:129] Top shape: 50 192 28 28 (7526400)
I0918 19:03:59.186964   787 net.cpp:137] Memory required for data: 30576600
I0918 19:03:59.186975   787 layer_factory.hpp:77] Creating layer penlu_conv1
I0918 19:03:59.186983   787 net.cpp:84] Creating Layer penlu_conv1
I0918 19:03:59.186987   787 net.cpp:406] penlu_conv1 <- conv1
I0918 19:03:59.186992   787 net.cpp:380] penlu_conv1 -> penlu_conv1
I0918 19:03:59.187180   787 net.cpp:122] Setting up penlu_conv1
I0918 19:03:59.187192   787 net.cpp:129] Top shape: 50 192 28 28 (7526400)
I0918 19:03:59.187196   787 net.cpp:137] Memory required for data: 60682200
I0918 19:03:59.187204   787 layer_factory.hpp:77] Creating layer cccp1
I0918 19:03:59.187212   787 net.cpp:84] Creating Layer cccp1
I0918 19:03:59.187216   787 net.cpp:406] cccp1 <- penlu_conv1
I0918 19:03:59.187221   787 net.cpp:380] cccp1 -> cccp1
I0918 19:03:59.188894   787 net.cpp:122] Setting up cccp1
I0918 19:03:59.188910   787 net.cpp:129] Top shape: 50 160 28 28 (6272000)
I0918 19:03:59.188920   787 net.cpp:137] Memory required for data: 85770200
I0918 19:03:59.188930   787 layer_factory.hpp:77] Creating layer penlu_cccp1
I0918 19:03:59.188937   787 net.cpp:84] Creating Layer penlu_cccp1
I0918 19:03:59.188941   787 net.cpp:406] penlu_cccp1 <- cccp1
I0918 19:03:59.188946   787 net.cpp:380] penlu_cccp1 -> penlu_cccp1
I0918 19:03:59.189625   787 net.cpp:122] Setting up penlu_cccp1
I0918 19:03:59.189635   787 net.cpp:129] Top shape: 50 160 28 28 (6272000)
I0918 19:03:59.189638   787 net.cpp:137] Memory required for data: 110858200
I0918 19:03:59.189646   787 layer_factory.hpp:77] Creating layer cccp2
I0918 19:03:59.189657   787 net.cpp:84] Creating Layer cccp2
I0918 19:03:59.189662   787 net.cpp:406] cccp2 <- penlu_cccp1
I0918 19:03:59.189672   787 net.cpp:380] cccp2 -> cccp2
I0918 19:03:59.190924   787 net.cpp:122] Setting up cccp2
I0918 19:03:59.190935   787 net.cpp:129] Top shape: 50 96 28 28 (3763200)
I0918 19:03:59.190939   787 net.cpp:137] Memory required for data: 125911000
I0918 19:03:59.190944   787 layer_factory.hpp:77] Creating layer penlu_cccp2
I0918 19:03:59.190950   787 net.cpp:84] Creating Layer penlu_cccp2
I0918 19:03:59.190954   787 net.cpp:406] penlu_cccp2 <- cccp2
I0918 19:03:59.190959   787 net.cpp:380] penlu_cccp2 -> penlu_cccp2
I0918 19:03:59.191119   787 net.cpp:122] Setting up penlu_cccp2
I0918 19:03:59.191126   787 net.cpp:129] Top shape: 50 96 28 28 (3763200)
I0918 19:03:59.191129   787 net.cpp:137] Memory required for data: 140963800
I0918 19:03:59.191134   787 layer_factory.hpp:77] Creating layer pool1
I0918 19:03:59.191141   787 net.cpp:84] Creating Layer pool1
I0918 19:03:59.191145   787 net.cpp:406] pool1 <- penlu_cccp2
I0918 19:03:59.191149   787 net.cpp:380] pool1 -> pool1
I0918 19:03:59.191176   787 net.cpp:122] Setting up pool1
I0918 19:03:59.191181   787 net.cpp:129] Top shape: 50 96 14 14 (940800)
I0918 19:03:59.191184   787 net.cpp:137] Memory required for data: 144727000
I0918 19:03:59.191186   787 layer_factory.hpp:77] Creating layer dropout1
I0918 19:03:59.191190   787 net.cpp:84] Creating Layer dropout1
I0918 19:03:59.191193   787 net.cpp:406] dropout1 <- pool1
I0918 19:03:59.191196   787 net.cpp:380] dropout1 -> dropout1
I0918 19:03:59.191222   787 net.cpp:122] Setting up dropout1
I0918 19:03:59.191227   787 net.cpp:129] Top shape: 50 96 14 14 (940800)
I0918 19:03:59.191229   787 net.cpp:137] Memory required for data: 148490200
I0918 19:03:59.191232   787 layer_factory.hpp:77] Creating layer conv2
I0918 19:03:59.191241   787 net.cpp:84] Creating Layer conv2
I0918 19:03:59.191243   787 net.cpp:406] conv2 <- dropout1
I0918 19:03:59.191247   787 net.cpp:380] conv2 -> conv2
I0918 19:03:59.202755   787 net.cpp:122] Setting up conv2
I0918 19:03:59.202766   787 net.cpp:129] Top shape: 50 192 14 14 (1881600)
I0918 19:03:59.202769   787 net.cpp:137] Memory required for data: 156016600
I0918 19:03:59.202780   787 layer_factory.hpp:77] Creating layer penlu_conv2
I0918 19:03:59.202800   787 net.cpp:84] Creating Layer penlu_conv2
I0918 19:03:59.202805   787 net.cpp:406] penlu_conv2 <- conv2
I0918 19:03:59.202810   787 net.cpp:380] penlu_conv2 -> penlu_conv2
I0918 19:03:59.202947   787 net.cpp:122] Setting up penlu_conv2
I0918 19:03:59.202955   787 net.cpp:129] Top shape: 50 192 14 14 (1881600)
I0918 19:03:59.202956   787 net.cpp:137] Memory required for data: 163543000
I0918 19:03:59.202961   787 layer_factory.hpp:77] Creating layer cccp3
I0918 19:03:59.202968   787 net.cpp:84] Creating Layer cccp3
I0918 19:03:59.202971   787 net.cpp:406] cccp3 <- penlu_conv2
I0918 19:03:59.202975   787 net.cpp:380] cccp3 -> cccp3
I0918 19:03:59.204645   787 net.cpp:122] Setting up cccp3
I0918 19:03:59.204655   787 net.cpp:129] Top shape: 50 192 14 14 (1881600)
I0918 19:03:59.204658   787 net.cpp:137] Memory required for data: 171069400
I0918 19:03:59.204663   787 layer_factory.hpp:77] Creating layer penlu_cccp3
I0918 19:03:59.204668   787 net.cpp:84] Creating Layer penlu_cccp3
I0918 19:03:59.204671   787 net.cpp:406] penlu_cccp3 <- cccp3
I0918 19:03:59.204676   787 net.cpp:380] penlu_cccp3 -> penlu_cccp3
I0918 19:03:59.204808   787 net.cpp:122] Setting up penlu_cccp3
I0918 19:03:59.204813   787 net.cpp:129] Top shape: 50 192 14 14 (1881600)
I0918 19:03:59.204815   787 net.cpp:137] Memory required for data: 178595800
I0918 19:03:59.204820   787 layer_factory.hpp:77] Creating layer cccp4
I0918 19:03:59.204826   787 net.cpp:84] Creating Layer cccp4
I0918 19:03:59.204829   787 net.cpp:406] cccp4 <- penlu_cccp3
I0918 19:03:59.204833   787 net.cpp:380] cccp4 -> cccp4
I0918 19:03:59.206539   787 net.cpp:122] Setting up cccp4
I0918 19:03:59.206548   787 net.cpp:129] Top shape: 50 192 14 14 (1881600)
I0918 19:03:59.206550   787 net.cpp:137] Memory required for data: 186122200
I0918 19:03:59.206554   787 layer_factory.hpp:77] Creating layer penlu_cccp4
I0918 19:03:59.206562   787 net.cpp:84] Creating Layer penlu_cccp4
I0918 19:03:59.206563   787 net.cpp:406] penlu_cccp4 <- cccp4
I0918 19:03:59.206568   787 net.cpp:380] penlu_cccp4 -> penlu_cccp4
I0918 19:03:59.206697   787 net.cpp:122] Setting up penlu_cccp4
I0918 19:03:59.206702   787 net.cpp:129] Top shape: 50 192 14 14 (1881600)
I0918 19:03:59.206704   787 net.cpp:137] Memory required for data: 193648600
I0918 19:03:59.206709   787 layer_factory.hpp:77] Creating layer pool2
I0918 19:03:59.206714   787 net.cpp:84] Creating Layer pool2
I0918 19:03:59.206717   787 net.cpp:406] pool2 <- penlu_cccp4
I0918 19:03:59.206722   787 net.cpp:380] pool2 -> pool2
I0918 19:03:59.206847   787 net.cpp:122] Setting up pool2
I0918 19:03:59.206853   787 net.cpp:129] Top shape: 50 192 7 7 (470400)
I0918 19:03:59.206856   787 net.cpp:137] Memory required for data: 195530200
I0918 19:03:59.206858   787 layer_factory.hpp:77] Creating layer dropout2
I0918 19:03:59.206863   787 net.cpp:84] Creating Layer dropout2
I0918 19:03:59.206866   787 net.cpp:406] dropout2 <- pool2
I0918 19:03:59.206869   787 net.cpp:380] dropout2 -> dropout2
I0918 19:03:59.206893   787 net.cpp:122] Setting up dropout2
I0918 19:03:59.206897   787 net.cpp:129] Top shape: 50 192 7 7 (470400)
I0918 19:03:59.206899   787 net.cpp:137] Memory required for data: 197411800
I0918 19:03:59.206902   787 layer_factory.hpp:77] Creating layer conv3
I0918 19:03:59.206907   787 net.cpp:84] Creating Layer conv3
I0918 19:03:59.206909   787 net.cpp:406] conv3 <- dropout2
I0918 19:03:59.206914   787 net.cpp:380] conv3 -> conv3
I0918 19:03:59.216292   787 net.cpp:122] Setting up conv3
I0918 19:03:59.216306   787 net.cpp:129] Top shape: 50 192 7 7 (470400)
I0918 19:03:59.216310   787 net.cpp:137] Memory required for data: 199293400
I0918 19:03:59.216315   787 layer_factory.hpp:77] Creating layer penlu_conv3
I0918 19:03:59.216325   787 net.cpp:84] Creating Layer penlu_conv3
I0918 19:03:59.216327   787 net.cpp:406] penlu_conv3 <- conv3
I0918 19:03:59.216333   787 net.cpp:380] penlu_conv3 -> penlu_conv3
I0918 19:03:59.216462   787 net.cpp:122] Setting up penlu_conv3
I0918 19:03:59.216470   787 net.cpp:129] Top shape: 50 192 7 7 (470400)
I0918 19:03:59.216480   787 net.cpp:137] Memory required for data: 201175000
I0918 19:03:59.216490   787 layer_factory.hpp:77] Creating layer cccp5
I0918 19:03:59.216498   787 net.cpp:84] Creating Layer cccp5
I0918 19:03:59.216501   787 net.cpp:406] cccp5 <- penlu_conv3
I0918 19:03:59.216506   787 net.cpp:380] cccp5 -> cccp5
I0918 19:03:59.218183   787 net.cpp:122] Setting up cccp5
I0918 19:03:59.218192   787 net.cpp:129] Top shape: 50 192 7 7 (470400)
I0918 19:03:59.218195   787 net.cpp:137] Memory required for data: 203056600
I0918 19:03:59.218199   787 layer_factory.hpp:77] Creating layer penlu_cccp5
I0918 19:03:59.218207   787 net.cpp:84] Creating Layer penlu_cccp5
I0918 19:03:59.218210   787 net.cpp:406] penlu_cccp5 <- cccp5
I0918 19:03:59.218215   787 net.cpp:380] penlu_cccp5 -> penlu_cccp5
I0918 19:03:59.218333   787 net.cpp:122] Setting up penlu_cccp5
I0918 19:03:59.218338   787 net.cpp:129] Top shape: 50 192 7 7 (470400)
I0918 19:03:59.218340   787 net.cpp:137] Memory required for data: 204938200
I0918 19:03:59.218345   787 layer_factory.hpp:77] Creating layer cccp6
I0918 19:03:59.218353   787 net.cpp:84] Creating Layer cccp6
I0918 19:03:59.218355   787 net.cpp:406] cccp6 <- penlu_cccp5
I0918 19:03:59.218359   787 net.cpp:380] cccp6 -> cccp6
I0918 19:03:59.219254   787 net.cpp:122] Setting up cccp6
I0918 19:03:59.219264   787 net.cpp:129] Top shape: 50 10 7 7 (24500)
I0918 19:03:59.219267   787 net.cpp:137] Memory required for data: 205036200
I0918 19:03:59.219271   787 layer_factory.hpp:77] Creating layer penlu_cccp6
I0918 19:03:59.219279   787 net.cpp:84] Creating Layer penlu_cccp6
I0918 19:03:59.219282   787 net.cpp:406] penlu_cccp6 <- cccp6
I0918 19:03:59.219287   787 net.cpp:380] penlu_cccp6 -> penlu_cccp6
I0918 19:03:59.219398   787 net.cpp:122] Setting up penlu_cccp6
I0918 19:03:59.219403   787 net.cpp:129] Top shape: 50 10 7 7 (24500)
I0918 19:03:59.219405   787 net.cpp:137] Memory required for data: 205134200
I0918 19:03:59.219409   787 layer_factory.hpp:77] Creating layer pool3
I0918 19:03:59.219415   787 net.cpp:84] Creating Layer pool3
I0918 19:03:59.219419   787 net.cpp:406] pool3 <- penlu_cccp6
I0918 19:03:59.219422   787 net.cpp:380] pool3 -> pool3
I0918 19:03:59.219868   787 net.cpp:122] Setting up pool3
I0918 19:03:59.219877   787 net.cpp:129] Top shape: 50 10 1 1 (500)
I0918 19:03:59.219882   787 net.cpp:137] Memory required for data: 205136200
I0918 19:03:59.219884   787 layer_factory.hpp:77] Creating layer pool3_pool3_0_split
I0918 19:03:59.219888   787 net.cpp:84] Creating Layer pool3_pool3_0_split
I0918 19:03:59.219892   787 net.cpp:406] pool3_pool3_0_split <- pool3
I0918 19:03:59.219897   787 net.cpp:380] pool3_pool3_0_split -> pool3_pool3_0_split_0
I0918 19:03:59.219900   787 net.cpp:380] pool3_pool3_0_split -> pool3_pool3_0_split_1
I0918 19:03:59.219925   787 net.cpp:122] Setting up pool3_pool3_0_split
I0918 19:03:59.219930   787 net.cpp:129] Top shape: 50 10 1 1 (500)
I0918 19:03:59.219933   787 net.cpp:129] Top shape: 50 10 1 1 (500)
I0918 19:03:59.219935   787 net.cpp:137] Memory required for data: 205140200
I0918 19:03:59.219938   787 layer_factory.hpp:77] Creating layer accuracy
I0918 19:03:59.219941   787 net.cpp:84] Creating Layer accuracy
I0918 19:03:59.219945   787 net.cpp:406] accuracy <- pool3_pool3_0_split_0
I0918 19:03:59.219949   787 net.cpp:406] accuracy <- label_cifar_1_split_0
I0918 19:03:59.219951   787 net.cpp:380] accuracy -> accuracy
…
