…
I0918 16:22:49.041451   332 net.cpp:294] The NetState phase (0) differed from the phase (1) specified by a rule in layer cifar
I0918 16:22:49.041659   332 net.cpp:51] Initializing net from parameters: 
name: "nin"
state {
  phase: TRAIN
  level: 0
  stage: ""
}
layer {
  name: "cifar"
  type: "Data"
  top: "data"
  top: "label"
  include {
    phase: TRAIN
  }
  transform_param {
    mirror: true
    crop_size: 28
    mean_file: "/home/x306/caffe/xn/PENLU/data/cifar10/mean.binaryproto"
  }
  data_param {
    source: "/home/x306/caffe/xn/PENLU/data/cifar10/cifar10_train_lmdb"
    batch_size: 64
    backend: LMDB
  }
  image_data_param {
    shuffle: true
  }
}
layer {
  name: "conv1"
  type: "Convolution"
  bottom: "data"
  top: "conv1"
  param {
    lr_mult: 1
    decay_mult: 1
  }
  param {
    lr_mult: 2
    decay_mult: 0
  }
  convolution_param {
    num_output: 192
    pad: 2
    kernel_size: 5
    weight_filler {
      type: "gaussian"
      std: 0.05
    }
    bias_filler {
      type: "constant"
      value: 0
    }
  }
}
layer {
  name: "penlu_conv1"
  type: "PENLU"
  bottom: "conv1"
  top: "penlu_conv1"
  param {
    lr_mult: 1
    decay_mult: 0
  }
  param {
    lr_mult: 1
    decay_mult: 0
  }
  param {
    lr_mult: 1
    decay_mult: 0
  }
  penlu_param {
    alpha_filler {
      type: "constant"
      value: 1
    }
    beta_filler {
      type: "constant"
      value: 1
    }
    eta_filler {
      type: "constant"
      value: 0.8
    }
  }
}
layer {
  name: "cccp1"
  type: "Convolution"
  bottom: "penlu_conv1"
  top: "cccp1"
  param {
    lr_mult: 1
    decay_mult: 1
  }
  param {
    lr_mult: 2
    decay_mult: 0
  }
  convolution_param {
    num_output: 160
    kernel_size: 1
    weight_filler {
      type: "gaussian"
      std: 0.05
    }
    bias_filler {
      type: "constant"
      value: 0
    }
  }
}
layer {
  name: "penlu_cccp1"
  type: "PENLU"
  bottom: "cccp1"
  top: "penlu_cccp1"
  param {
    lr_mult: 1
    decay_mult: 0
  }
  param {
    lr_mult: 1
    decay_mult: 0
  }
  param {
    lr_mult: 1
    decay_mult: 0
  }
  penlu_param {
    alpha_filler {
      type: "constant"
      value: 1
    }
    beta_filler {
      type: "constant"
      value: 1
    }
    eta_filler {
      type: "constant"
      value: 0.8
    }
  }
}
layer {
  name: "cccp2"
  type: "Convolution"
  bottom: "penlu_cccp1"
  top: "cccp2"
  param {
    lr_mult: 1
    decay_mult: 1
  }
  param {
    lr_mult: 2
    decay_mult: 0
  }
  convolution_param {
    num_output: 96
    kernel_size: 1
    weight_filler {
      type: "gaussian"
      std: 0.05
    }
    bias_filler {
      type: "constant"
      value: 0
    }
  }
}
layer {
  name: "penlu_cccp2"
  type: "PENLU"
  bottom: "cccp2"
  top: "penlu_cccp2"
  param {
    lr_mult: 1
    decay_mult: 0
  }
  param {
    lr_mult: 1
    decay_mult: 0
  }
  param {
    lr_mult: 1
    decay_mult: 0
  }
  penlu_param {
    alpha_filler {
      type: "constant"
      value: 1
    }
    beta_filler {
      type: "constant"
      value: 1
    }
    eta_filler {
      type: "constant"
      value: 0.8
    }
  }
}
layer {
  name: "pool1"
  type: "Pooling"
  bottom: "penlu_cccp2"
  top: "pool1"
  pooling_param {
    pool: MAX
    kernel_size: 3
    stride: 2
  }
}
layer {
  name: "dropout1"
  type: "Dropout"
  bottom: "pool1"
  top: "dropout1"
  dropout_param {
    dropout_ratio: 0.5
  }
}
layer {
  name: "conv2"
  type: "Convolution"
  bottom: "dropout1"
  top: "conv2"
  param {
    lr_mult: 1
    decay_mult: 1
  }
  param {
    lr_mult: 2
    decay_mult: 0
  }
  convolution_param {
    num_output: 192
    pad: 2
    kernel_size: 5
    weight_filler {
      type: "gaussian"
      std: 0.05
    }
    bias_filler {
      type: "constant"
      value: 0
    }
  }
}
layer {
  name: "penlu_conv2"
  type: "PENLU"
  bottom: "conv2"
  top: "penlu_conv2"
  param {
    lr_mult: 1
    decay_mult: 0
  }
  param {
    lr_mult: 1
    decay_mult: 0
  }
  param {
    lr_mult: 1
    decay_mult: 0
  }
  penlu_param {
    alpha_filler {
      type: "constant"
      value: 1
    }
    beta_filler {
      type: "constant"
      value: 1
    }
    eta_filler {
      type: "constant"
      value: 0.8
    }
  }
}
layer {
  name: "cccp3"
  type: "Convolution"
  bottom: "penlu_conv2"
  top: "cccp3"
  param {
    lr_mult: 1
    decay_mult: 1
  }
  param {
    lr_mult: 2
    decay_mult: 0
  }
  convolution_param {
    num_output: 192
    kernel_size: 1
    weight_filler {
      type: "gaussian"
      std: 0.05
    }
    bias_filler {
      type: "constant"
      value: 0
    }
  }
}
layer {
  name: "penlu_cccp3"
  type: "PENLU"
  bottom: "cccp3"
  top: "penlu_cccp3"
  param {
    lr_mult: 1
    decay_mult: 0
  }
  param {
    lr_mult: 1
    decay_mult: 0
  }
  param {
    lr_mult: 1
    decay_mult: 0
  }
  penlu_param {
    alpha_filler {
      type: "constant"
      value: 1
    }
    beta_filler {
      type: "constant"
      value: 1
    }
    eta_filler {
      type: "constant"
      value: 0.8
    }
  }
}
layer {
  name: "cccp4"
  type: "Convolution"
  bottom: "penlu_cccp3"
  top: "cccp4"
  param {
    lr_mult: 1
    decay_mult: 1
  }
  param {
    lr_mult: 2
    decay_mult: 0
  }
  convolution_param {
    num_output: 192
    kernel_size: 1
    weight_filler {
      type: "gaussian"
      std: 0.05
    }
    bias_filler {
      type: "constant"
      value: 0
    }
  }
}
layer {
  name: "penlu_cccp4"
  type: "PENLU"
  bottom: "cccp4"
  top: "penlu_cccp4"
  param {
    lr_mult: 1
    decay_mult: 0
  }
  param {
    lr_mult: 1
    decay_mult: 0
  }
  param {
    lr_mult: 1
    decay_mult: 0
  }
  penlu_param {
    alpha_filler {
      type: "constant"
      value: 1
    }
    beta_filler {
      type: "constant"
      value: 1
    }
    eta_filler {
      type: "constant"
      value: 0.8
    }
  }
}
layer {
  name: "pool2"
  type: "Pooling"
  bottom: "penlu_cccp4"
  top: "pool2"
  pooling_param {
    pool: AVE
    kernel_size: 3
    stride: 2
  }
}
layer {
  name: "dropout2"
  type: "Dropout"
  bottom: "pool2"
  top: "dropout2"
  dropout_param {
    dropout_ratio: 0.5
  }
}
layer {
  name: "conv3"
  type: "Convolution"
  bottom: "dropout2"
  top: "conv3"
  param {
    lr_mult: 1
    decay_mult: 1
  }
  param {
    lr_mult: 2
    decay_mult: 0
  }
  convolution_param {
    num_output: 192
    pad: 1
    kernel_size: 3
    weight_filler {
      type: "gaussian"
      std: 0.05
    }
    bias_filler {
      type: "constant"
      value: 0
    }
  }
}
layer {
  name: "penlu_conv3"
  type: "PENLU"
  bottom: "conv3"
  top: "penlu_conv3"
  param {
    lr_mult: 1
    decay_mult: 0
  }
  param {
    lr_mult: 1
    decay_mult: 0
  }
  param {
    lr_mult: 1
    decay_mult: 0
  }
  penlu_param {
    alpha_filler {
      type: "constant"
      value: 1
    }
    beta_filler {
      type: "constant"
      value: 1
    }
    eta_filler {
      type: "constant"
      value: 0.8
    }
  }
}
layer {
  name: "cccp5"
  type: "Convolution"
  bottom: "penlu_conv3"
  top: "cccp5"
  param {
    lr_mult: 1
    decay_mult: 1
  }
  param {
    lr_mult: 2
    decay_mult: 0
  }
  convolution_param {
    num_output: 192
    kernel_size: 1
    weight_filler {
      type: "gaussian"
      std: 0.05
    }
    bias_filler {
      type: "constant"
      value: 0
    }
  }
}
layer {
  name: "penlu_cccp5"
  type: "PENLU"
  bottom: "cccp5"
  top: "penlu_cccp5"
  param {
    lr_mult: 1
    decay_mult: 0
  }
  param {
    lr_mult: 1
    decay_mult: 0
  }
  param {
    lr_mult: 1
    decay_mult: 0
  }
  penlu_param {
    alpha_filler {
      type: "constant"
      value: 1
    }
    beta_filler {
      type: "constant"
      value: 1
    }
    eta_filler {
      type: "constant"
      value: 0.8
    }
  }
}
layer {
  name: "cccp6"
  type: "Convolution"
  bottom: "penlu_cccp5"
  top: "cccp6"
  param {
    lr_mult: 0.1
    decay_mult: 1
  }
  param {
    lr_mult: 0.1
    decay_mult: 0
  }
  convolution_param {
    num_output: 10
    kernel_size: 1
    weight_filler {
      type: "gaussian"
      std: 0.05
    }
    bias_filler {
      type: "constant"
      value: 0
    }
  }
}
layer {
  name: "penlu_cccp6"
  type: "PENLU"
  bottom: "cccp6"
  top: "penlu_cccp6"
  param {
    lr_mult: 1
    decay_mult: 0
  }
  param {
    lr_mult: 1
    decay_mult: 0
  }
  param {
    lr_mult: 1
    decay_mult: 0
  }
  penlu_param {
    alpha_filler {
      type: "constant"
      value: 1
    }
    beta_filler {
      type: "constant"
      value: 1
    }
    eta_filler {
      type: "constant"
      value: 0.8
    }
  }
}
layer {
  name: "pool3"
  type: "Pooling"
  bottom: "penlu_cccp6"
  top: "pool3"
  pooling_param {
    pool: AVE
    kernel_size: 7
    stride: 1
  }
}
layer {
  name: "accuracy"
  type: "Accuracy"
  bottom: "pool3"
  bottom: "label"
  top: "accuracy"
}
layer {
  name: "loss"
  type: "SoftmaxWithLoss"
  bottom: "pool3"
  bottom: "label"
  top: "loss"
}
I0918 16:22:49.041829   332 layer_factory.hpp:77] Creating layer cifar
I0918 16:22:49.041946   332 db_lmdb.cpp:35] Opened lmdb /home/x306/caffe/xn/PENLU/data/cifar10/cifar10_train_lmdb
I0918 16:22:49.041976   332 net.cpp:84] Creating Layer cifar
I0918 16:22:49.041992   332 net.cpp:380] cifar -> data
I0918 16:22:49.042019   332 net.cpp:380] cifar -> label
I0918 16:22:49.042037   332 data_transformer.cpp:25] Loading mean file from: /home/x306/caffe/xn/PENLU/data/cifar10/mean.binaryproto
I0918 16:22:49.043463   332 data_layer.cpp:45] output data size: 64,3,28,28
I0918 16:22:49.045562   332 net.cpp:122] Setting up cifar
I0918 16:22:49.045585   332 net.cpp:129] Top shape: 64 3 28 28 (150528)
I0918 16:22:49.045590   332 net.cpp:129] Top shape: 64 (64)
I0918 16:22:49.045593   332 net.cpp:137] Memory required for data: 602368
I0918 16:22:49.045608   332 layer_factory.hpp:77] Creating layer label_cifar_1_split
I0918 16:22:49.045619   332 net.cpp:84] Creating Layer label_cifar_1_split
I0918 16:22:49.045624   332 net.cpp:406] label_cifar_1_split <- label
I0918 16:22:49.045641   332 net.cpp:380] label_cifar_1_split -> label_cifar_1_split_0
I0918 16:22:49.045648   332 net.cpp:380] label_cifar_1_split -> label_cifar_1_split_1
I0918 16:22:49.045697   332 net.cpp:122] Setting up label_cifar_1_split
I0918 16:22:49.045702   332 net.cpp:129] Top shape: 64 (64)
I0918 16:22:49.045716   332 net.cpp:129] Top shape: 64 (64)
I0918 16:22:49.045717   332 net.cpp:137] Memory required for data: 602880
I0918 16:22:49.045720   332 layer_factory.hpp:77] Creating layer conv1
I0918 16:22:49.045732   332 net.cpp:84] Creating Layer conv1
I0918 16:22:49.045734   332 net.cpp:406] conv1 <- data
I0918 16:22:49.045738   332 net.cpp:380] conv1 -> conv1
I0918 16:22:49.191449   332 net.cpp:122] Setting up conv1
I0918 16:22:49.191473   332 net.cpp:129] Top shape: 64 192 28 28 (9633792)
I0918 16:22:49.191476   332 net.cpp:137] Memory required for data: 39138048
I0918 16:22:49.191489   332 layer_factory.hpp:77] Creating layer penlu_conv1
I0918 16:22:49.191516   332 net.cpp:84] Creating Layer penlu_conv1
I0918 16:22:49.191534   332 net.cpp:406] penlu_conv1 <- conv1
I0918 16:22:49.191541   332 net.cpp:380] penlu_conv1 -> penlu_conv1
I0918 16:22:49.191781   332 net.cpp:122] Setting up penlu_conv1
I0918 16:22:49.191788   332 net.cpp:129] Top shape: 64 192 28 28 (9633792)
I0918 16:22:49.191792   332 net.cpp:137] Memory required for data: 77673216
I0918 16:22:49.191798   332 layer_factory.hpp:77] Creating layer cccp1
I0918 16:22:49.191807   332 net.cpp:84] Creating Layer cccp1
I0918 16:22:49.191819   332 net.cpp:406] cccp1 <- penlu_conv1
I0918 16:22:49.191823   332 net.cpp:380] cccp1 -> cccp1
I0918 16:22:49.193832   332 net.cpp:122] Setting up cccp1
I0918 16:22:49.193843   332 net.cpp:129] Top shape: 64 160 28 28 (8028160)
I0918 16:22:49.193845   332 net.cpp:137] Memory required for data: 109785856
I0918 16:22:49.193850   332 layer_factory.hpp:77] Creating layer penlu_cccp1
I0918 16:22:49.193856   332 net.cpp:84] Creating Layer penlu_cccp1
I0918 16:22:49.193858   332 net.cpp:406] penlu_cccp1 <- cccp1
I0918 16:22:49.193874   332 net.cpp:380] penlu_cccp1 -> penlu_cccp1
I0918 16:22:49.194077   332 net.cpp:122] Setting up penlu_cccp1
I0918 16:22:49.194085   332 net.cpp:129] Top shape: 64 160 28 28 (8028160)
I0918 16:22:49.194087   332 net.cpp:137] Memory required for data: 141898496
I0918 16:22:49.194093   332 layer_factory.hpp:77] Creating layer cccp2
I0918 16:22:49.194100   332 net.cpp:84] Creating Layer cccp2
I0918 16:22:49.194103   332 net.cpp:406] cccp2 <- penlu_cccp1
I0918 16:22:49.194118   332 net.cpp:380] cccp2 -> cccp2
I0918 16:22:49.195269   332 net.cpp:122] Setting up cccp2
I0918 16:22:49.195279   332 net.cpp:129] Top shape: 64 96 28 28 (4816896)
I0918 16:22:49.195282   332 net.cpp:137] Memory required for data: 161166080
I0918 16:22:49.195286   332 layer_factory.hpp:77] Creating layer penlu_cccp2
I0918 16:22:49.195292   332 net.cpp:84] Creating Layer penlu_cccp2
I0918 16:22:49.195296   332 net.cpp:406] penlu_cccp2 <- cccp2
I0918 16:22:49.195309   332 net.cpp:380] penlu_cccp2 -> penlu_cccp2
I0918 16:22:49.195494   332 net.cpp:122] Setting up penlu_cccp2
I0918 16:22:49.195502   332 net.cpp:129] Top shape: 64 96 28 28 (4816896)
I0918 16:22:49.195504   332 net.cpp:137] Memory required for data: 180433664
I0918 16:22:49.195508   332 layer_factory.hpp:77] Creating layer pool1
I0918 16:22:49.195515   332 net.cpp:84] Creating Layer pool1
I0918 16:22:49.195518   332 net.cpp:406] pool1 <- penlu_cccp2
I0918 16:22:49.195530   332 net.cpp:380] pool1 -> pool1
I0918 16:22:49.195597   332 net.cpp:122] Setting up pool1
I0918 16:22:49.195603   332 net.cpp:129] Top shape: 64 96 14 14 (1204224)
I0918 16:22:49.195606   332 net.cpp:137] Memory required for data: 185250560
I0918 16:22:49.195608   332 layer_factory.hpp:77] Creating layer dropout1
I0918 16:22:49.195612   332 net.cpp:84] Creating Layer dropout1
I0918 16:22:49.195614   332 net.cpp:406] dropout1 <- pool1
I0918 16:22:49.195619   332 net.cpp:380] dropout1 -> dropout1
I0918 16:22:49.195670   332 net.cpp:122] Setting up dropout1
I0918 16:22:49.195678   332 net.cpp:129] Top shape: 64 96 14 14 (1204224)
I0918 16:22:49.195680   332 net.cpp:137] Memory required for data: 190067456
I0918 16:22:49.195683   332 layer_factory.hpp:77] Creating layer conv2
I0918 16:22:49.195689   332 net.cpp:84] Creating Layer conv2
I0918 16:22:49.195693   332 net.cpp:406] conv2 <- dropout1
I0918 16:22:49.195696   332 net.cpp:380] conv2 -> conv2
I0918 16:22:49.207936   332 net.cpp:122] Setting up conv2
I0918 16:22:49.207962   332 net.cpp:129] Top shape: 64 192 14 14 (2408448)
I0918 16:22:49.207965   332 net.cpp:137] Memory required for data: 199701248
I0918 16:22:49.207984   332 layer_factory.hpp:77] Creating layer penlu_conv2
I0918 16:22:49.207998   332 net.cpp:84] Creating Layer penlu_conv2
I0918 16:22:49.208014   332 net.cpp:406] penlu_conv2 <- conv2
I0918 16:22:49.208024   332 net.cpp:380] penlu_conv2 -> penlu_conv2
I0918 16:22:49.208189   332 net.cpp:122] Setting up penlu_conv2
I0918 16:22:49.208195   332 net.cpp:129] Top shape: 64 192 14 14 (2408448)
I0918 16:22:49.208209   332 net.cpp:137] Memory required for data: 209335040
I0918 16:22:49.208214   332 layer_factory.hpp:77] Creating layer cccp3
I0918 16:22:49.208222   332 net.cpp:84] Creating Layer cccp3
I0918 16:22:49.208228   332 net.cpp:406] cccp3 <- penlu_conv2
I0918 16:22:49.208238   332 net.cpp:380] cccp3 -> cccp3
I0918 16:22:49.209867   332 net.cpp:122] Setting up cccp3
I0918 16:22:49.209887   332 net.cpp:129] Top shape: 64 192 14 14 (2408448)
I0918 16:22:49.209890   332 net.cpp:137] Memory required for data: 218968832
I0918 16:22:49.209894   332 layer_factory.hpp:77] Creating layer penlu_cccp3
I0918 16:22:49.209902   332 net.cpp:84] Creating Layer penlu_cccp3
I0918 16:22:49.209919   332 net.cpp:406] penlu_cccp3 <- cccp3
I0918 16:22:49.209938   332 net.cpp:380] penlu_cccp3 -> penlu_cccp3
I0918 16:22:49.210093   332 net.cpp:122] Setting up penlu_cccp3
I0918 16:22:49.210100   332 net.cpp:129] Top shape: 64 192 14 14 (2408448)
I0918 16:22:49.210114   332 net.cpp:137] Memory required for data: 228602624
I0918 16:22:49.210117   332 layer_factory.hpp:77] Creating layer cccp4
I0918 16:22:49.210126   332 net.cpp:84] Creating Layer cccp4
I0918 16:22:49.210131   332 net.cpp:406] cccp4 <- penlu_cccp3
I0918 16:22:49.210139   332 net.cpp:380] cccp4 -> cccp4
I0918 16:22:49.211752   332 net.cpp:122] Setting up cccp4
I0918 16:22:49.211763   332 net.cpp:129] Top shape: 64 192 14 14 (2408448)
I0918 16:22:49.211776   332 net.cpp:137] Memory required for data: 238236416
I0918 16:22:49.211781   332 layer_factory.hpp:77] Creating layer penlu_cccp4
I0918 16:22:49.211788   332 net.cpp:84] Creating Layer penlu_cccp4
I0918 16:22:49.211794   332 net.cpp:406] penlu_cccp4 <- cccp4
I0918 16:22:49.211802   332 net.cpp:380] penlu_cccp4 -> penlu_cccp4
I0918 16:22:49.211966   332 net.cpp:122] Setting up penlu_cccp4
I0918 16:22:49.211989   332 net.cpp:129] Top shape: 64 192 14 14 (2408448)
I0918 16:22:49.211994   332 net.cpp:137] Memory required for data: 247870208
I0918 16:22:49.212000   332 layer_factory.hpp:77] Creating layer pool2
I0918 16:22:49.212013   332 net.cpp:84] Creating Layer pool2
I0918 16:22:49.212018   332 net.cpp:406] pool2 <- penlu_cccp4
I0918 16:22:49.212025   332 net.cpp:380] pool2 -> pool2
I0918 16:22:49.212185   332 net.cpp:122] Setting up pool2
I0918 16:22:49.212193   332 net.cpp:129] Top shape: 64 192 7 7 (602112)
I0918 16:22:49.212196   332 net.cpp:137] Memory required for data: 250278656
I0918 16:22:49.212214   332 layer_factory.hpp:77] Creating layer dropout2
I0918 16:22:49.212219   332 net.cpp:84] Creating Layer dropout2
I0918 16:22:49.212224   332 net.cpp:406] dropout2 <- pool2
I0918 16:22:49.212232   332 net.cpp:380] dropout2 -> dropout2
I0918 16:22:49.212285   332 net.cpp:122] Setting up dropout2
I0918 16:22:49.212302   332 net.cpp:129] Top shape: 64 192 7 7 (602112)
I0918 16:22:49.212307   332 net.cpp:137] Memory required for data: 252687104
I0918 16:22:49.212321   332 layer_factory.hpp:77] Creating layer conv3
I0918 16:22:49.212332   332 net.cpp:84] Creating Layer conv3
I0918 16:22:49.212338   332 net.cpp:406] conv3 <- dropout2
I0918 16:22:49.212353   332 net.cpp:380] conv3 -> conv3
I0918 16:22:49.221889   332 net.cpp:122] Setting up conv3
I0918 16:22:49.221911   332 net.cpp:129] Top shape: 64 192 7 7 (602112)
I0918 16:22:49.221915   332 net.cpp:137] Memory required for data: 255095552
I0918 16:22:49.221921   332 layer_factory.hpp:77] Creating layer penlu_conv3
I0918 16:22:49.221938   332 net.cpp:84] Creating Layer penlu_conv3
I0918 16:22:49.221943   332 net.cpp:406] penlu_conv3 <- conv3
I0918 16:22:49.221951   332 net.cpp:380] penlu_conv3 -> penlu_conv3
I0918 16:22:49.222102   332 net.cpp:122] Setting up penlu_conv3
I0918 16:22:49.222110   332 net.cpp:129] Top shape: 64 192 7 7 (602112)
I0918 16:22:49.222115   332 net.cpp:137] Memory required for data: 257504000
I0918 16:22:49.222141   332 layer_factory.hpp:77] Creating layer cccp5
I0918 16:22:49.222160   332 net.cpp:84] Creating Layer cccp5
I0918 16:22:49.222174   332 net.cpp:406] cccp5 <- penlu_conv3
I0918 16:22:49.222178   332 net.cpp:380] cccp5 -> cccp5
I0918 16:22:49.223913   332 net.cpp:122] Setting up cccp5
I0918 16:22:49.223923   332 net.cpp:129] Top shape: 64 192 7 7 (602112)
I0918 16:22:49.223927   332 net.cpp:137] Memory required for data: 259912448
I0918 16:22:49.223932   332 layer_factory.hpp:77] Creating layer penlu_cccp5
I0918 16:22:49.223938   332 net.cpp:84] Creating Layer penlu_cccp5
I0918 16:22:49.223942   332 net.cpp:406] penlu_cccp5 <- cccp5
I0918 16:22:49.223956   332 net.cpp:380] penlu_cccp5 -> penlu_cccp5
I0918 16:22:49.224136   332 net.cpp:122] Setting up penlu_cccp5
I0918 16:22:49.224144   332 net.cpp:129] Top shape: 64 192 7 7 (602112)
I0918 16:22:49.224148   332 net.cpp:137] Memory required for data: 262320896
I0918 16:22:49.224160   332 layer_factory.hpp:77] Creating layer cccp6
I0918 16:22:49.224179   332 net.cpp:84] Creating Layer cccp6
I0918 16:22:49.224181   332 net.cpp:406] cccp6 <- penlu_cccp5
I0918 16:22:49.224200   332 net.cpp:380] cccp6 -> cccp6
I0918 16:22:49.225124   332 net.cpp:122] Setting up cccp6
I0918 16:22:49.225134   332 net.cpp:129] Top shape: 64 10 7 7 (31360)
I0918 16:22:49.225136   332 net.cpp:137] Memory required for data: 262446336
I0918 16:22:49.225142   332 layer_factory.hpp:77] Creating layer penlu_cccp6
I0918 16:22:49.225147   332 net.cpp:84] Creating Layer penlu_cccp6
I0918 16:22:49.225150   332 net.cpp:406] penlu_cccp6 <- cccp6
I0918 16:22:49.225165   332 net.cpp:380] penlu_cccp6 -> penlu_cccp6
I0918 16:22:49.225289   332 net.cpp:122] Setting up penlu_cccp6
I0918 16:22:49.225296   332 net.cpp:129] Top shape: 64 10 7 7 (31360)
I0918 16:22:49.225299   332 net.cpp:137] Memory required for data: 262571776
I0918 16:22:49.225303   332 layer_factory.hpp:77] Creating layer pool3
I0918 16:22:49.225308   332 net.cpp:84] Creating Layer pool3
I0918 16:22:49.225311   332 net.cpp:406] pool3 <- penlu_cccp6
I0918 16:22:49.225314   332 net.cpp:380] pool3 -> pool3
I0918 16:22:49.225467   332 net.cpp:122] Setting up pool3
I0918 16:22:49.225476   332 net.cpp:129] Top shape: 64 10 1 1 (640)
I0918 16:22:49.225478   332 net.cpp:137] Memory required for data: 262574336
I0918 16:22:49.225481   332 layer_factory.hpp:77] Creating layer pool3_pool3_0_split
I0918 16:22:49.225484   332 net.cpp:84] Creating Layer pool3_pool3_0_split
I0918 16:22:49.225487   332 net.cpp:406] pool3_pool3_0_split <- pool3
I0918 16:22:49.225492   332 net.cpp:380] pool3_pool3_0_split -> pool3_pool3_0_split_0
I0918 16:22:49.225505   332 net.cpp:380] pool3_pool3_0_split -> pool3_pool3_0_split_1
I0918 16:22:49.225574   332 net.cpp:122] Setting up pool3_pool3_0_split
I0918 16:22:49.225581   332 net.cpp:129] Top shape: 64 10 1 1 (640)
I0918 16:22:49.225584   332 net.cpp:129] Top shape: 64 10 1 1 (640)
I0918 16:22:49.225586   332 net.cpp:137] Memory required for data: 262579456
I0918 16:22:49.225589   332 layer_factory.hpp:77] Creating layer accuracy
I0918 16:22:49.225592   332 net.cpp:84] Creating Layer accuracy
I0918 16:22:49.225594   332 net.cpp:406] accuracy <- pool3_pool3_0_split_0
I0918 16:22:49.225597   332 net.cpp:406] accuracy <- label_cifar_1_split_0
I0918 16:22:49.225610   332 net.cpp:380] accuracy -> accuracy
…
I0918 16:22:49.226698   332 net.cpp:294] The NetState phase (1) differed from the phase (0) specified by a rule in layer cifar
I0918 16:22:49.226881   332 net.cpp:51] Initializing net from parameters: 
name: "nin"
state {
  phase: TEST
}
layer {
  name: "cifar"
  type: "Data"
  top: "data"
  top: "label"
  include {
    phase: TEST
  }
  transform_param {
    mirror: false
    crop_size: 28
    mean_file: "/home/x306/caffe/xn/PENLU/data/cifar10/mean.binaryproto"
  }
  data_param {
    source: "/home/x306/caffe/xn/PENLU/data/cifar10/cifar10_test_lmdb"
    batch_size: 50
    backend: LMDB
  }
}
layer {
  name: "conv1"
  type: "Convolution"
  bottom: "data"
  top: "conv1"
  param {
    lr_mult: 1
    decay_mult: 1
  }
  param {
    lr_mult: 2
    decay_mult: 0
  }
  convolution_param {
    num_output: 192
    pad: 2
    kernel_size: 5
    weight_filler {
      type: "gaussian"
      std: 0.05
    }
    bias_filler {
      type: "constant"
      value: 0
    }
  }
}
layer {
  name: "penlu_conv1"
  type: "PENLU"
  bottom: "conv1"
  top: "penlu_conv1"
  param {
    lr_mult: 1
    decay_mult: 0
  }
  param {
    lr_mult: 1
    decay_mult: 0
  }
  param {
    lr_mult: 1
    decay_mult: 0
  }
  penlu_param {
    alpha_filler {
      type: "constant"
      value: 1
    }
    beta_filler {
      type: "constant"
      value: 1
    }
    eta_filler {
      type: "constant"
      value: 0.8
    }
  }
}
layer {
  name: "cccp1"
  type: "Convolution"
  bottom: "penlu_conv1"
  top: "cccp1"
  param {
    lr_mult: 1
    decay_mult: 1
  }
  param {
    lr_mult: 2
    decay_mult: 0
  }
  convolution_param {
    num_output: 160
    kernel_size: 1
    weight_filler {
      type: "gaussian"
      std: 0.05
    }
    bias_filler {
      type: "constant"
      value: 0
    }
  }
}
layer {
  name: "penlu_cccp1"
  type: "PENLU"
  bottom: "cccp1"
  top: "penlu_cccp1"
  param {
    lr_mult: 1
    decay_mult: 0
  }
  param {
    lr_mult: 1
    decay_mult: 0
  }
  param {
    lr_mult: 1
    decay_mult: 0
  }
  penlu_param {
    alpha_filler {
      type: "constant"
      value: 1
    }
    beta_filler {
      type: "constant"
      value: 1
    }
    eta_filler {
      type: "constant"
      value: 0.8
    }
  }
}
layer {
  name: "cccp2"
  type: "Convolution"
  bottom: "penlu_cccp1"
  top: "cccp2"
  param {
    lr_mult: 1
    decay_mult: 1
  }
  param {
    lr_mult: 2
    decay_mult: 0
  }
  convolution_param {
    num_output: 96
    kernel_size: 1
    weight_filler {
      type: "gaussian"
      std: 0.05
    }
    bias_filler {
      type: "constant"
      value: 0
    }
  }
}
layer {
  name: "penlu_cccp2"
  type: "PENLU"
  bottom: "cccp2"
  top: "penlu_cccp2"
  param {
    lr_mult: 1
    decay_mult: 0
  }
  param {
    lr_mult: 1
    decay_mult: 0
  }
  param {
    lr_mult: 1
    decay_mult: 0
  }
  penlu_param {
    alpha_filler {
      type: "constant"
      value: 1
    }
    beta_filler {
      type: "constant"
      value: 1
    }
    eta_filler {
      type: "constant"
      value: 0.8
    }
  }
}
layer {
  name: "pool1"
  type: "Pooling"
  bottom: "penlu_cccp2"
  top: "pool1"
  pooling_param {
    pool: MAX
    kernel_size: 3
    stride: 2
  }
}
layer {
  name: "dropout1"
  type: "Dropout"
  bottom: "pool1"
  top: "dropout1"
  dropout_param {
    dropout_ratio: 0.5
  }
}
layer {
  name: "conv2"
  type: "Convolution"
  bottom: "dropout1"
  top: "conv2"
  param {
    lr_mult: 1
    decay_mult: 1
  }
  param {
    lr_mult: 2
    decay_mult: 0
  }
  convolution_param {
    num_output: 192
    pad: 2
    kernel_size: 5
    weight_filler {
      type: "gaussian"
      std: 0.05
    }
    bias_filler {
      type: "constant"
      value: 0
    }
  }
}
layer {
  name: "penlu_conv2"
  type: "PENLU"
  bottom: "conv2"
  top: "penlu_conv2"
  param {
    lr_mult: 1
    decay_mult: 0
  }
  param {
    lr_mult: 1
    decay_mult: 0
  }
  param {
    lr_mult: 1
    decay_mult: 0
  }
  penlu_param {
    alpha_filler {
      type: "constant"
      value: 1
    }
    beta_filler {
      type: "constant"
      value: 1
    }
    eta_filler {
      type: "constant"
      value: 0.8
    }
  }
}
layer {
  name: "cccp3"
  type: "Convolution"
  bottom: "penlu_conv2"
  top: "cccp3"
  param {
    lr_mult: 1
    decay_mult: 1
  }
  param {
    lr_mult: 2
    decay_mult: 0
  }
  convolution_param {
    num_output: 192
    kernel_size: 1
    weight_filler {
      type: "gaussian"
      std: 0.05
    }
    bias_filler {
      type: "constant"
      value: 0
    }
  }
}
layer {
  name: "penlu_cccp3"
  type: "PENLU"
  bottom: "cccp3"
  top: "penlu_cccp3"
  param {
    lr_mult: 1
    decay_mult: 0
  }
  param {
    lr_mult: 1
    decay_mult: 0
  }
  param {
    lr_mult: 1
    decay_mult: 0
  }
  penlu_param {
    alpha_filler {
      type: "constant"
      value: 1
    }
    beta_filler {
      type: "constant"
      value: 1
    }
    eta_filler {
      type: "constant"
      value: 0.8
    }
  }
}
layer {
  name: "cccp4"
  type: "Convolution"
  bottom: "penlu_cccp3"
  top: "cccp4"
  param {
    lr_mult: 1
    decay_mult: 1
  }
  param {
    lr_mult: 2
    decay_mult: 0
  }
  convolution_param {
    num_output: 192
    kernel_size: 1
    weight_filler {
      type: "gaussian"
      std: 0.05
    }
    bias_filler {
      type: "constant"
      value: 0
    }
  }
}
layer {
  name: "penlu_cccp4"
  type: "PENLU"
  bottom: "cccp4"
  top: "penlu_cccp4"
  param {
    lr_mult: 1
    decay_mult: 0
  }
  param {
    lr_mult: 1
    decay_mult: 0
  }
  param {
    lr_mult: 1
    decay_mult: 0
  }
  penlu_param {
    alpha_filler {
      type: "constant"
      value: 1
    }
    beta_filler {
      type: "constant"
      value: 1
    }
    eta_filler {
      type: "constant"
      value: 0.8
    }
  }
}
layer {
  name: "pool2"
  type: "Pooling"
  bottom: "penlu_cccp4"
  top: "pool2"
  pooling_param {
    pool: AVE
    kernel_size: 3
    stride: 2
  }
}
layer {
  name: "dropout2"
  type: "Dropout"
  bottom: "pool2"
  top: "dropout2"
  dropout_param {
    dropout_ratio: 0.5
  }
}
layer {
  name: "conv3"
  type: "Convolution"
  bottom: "dropout2"
  top: "conv3"
  param {
    lr_mult: 1
    decay_mult: 1
  }
  param {
    lr_mult: 2
    decay_mult: 0
  }
  convolution_param {
    num_output: 192
    pad: 1
    kernel_size: 3
    weight_filler {
      type: "gaussian"
      std: 0.05
    }
    bias_filler {
      type: "constant"
      value: 0
    }
  }
}
layer {
  name: "penlu_conv3"
  type: "PENLU"
  bottom: "conv3"
  top: "penlu_conv3"
  param {
    lr_mult: 1
    decay_mult: 0
  }
  param {
    lr_mult: 1
    decay_mult: 0
  }
  param {
    lr_mult: 1
    decay_mult: 0
  }
  penlu_param {
    alpha_filler {
      type: "constant"
      value: 1
    }
    beta_filler {
      type: "constant"
      value: 1
    }
    eta_filler {
      type: "constant"
      value: 0.8
    }
  }
}
layer {
  name: "cccp5"
  type: "Convolution"
  bottom: "penlu_conv3"
  top: "cccp5"
  param {
    lr_mult: 1
    decay_mult: 1
  }
  param {
    lr_mult: 2
    decay_mult: 0
  }
  convolution_param {
    num_output: 192
    kernel_size: 1
    weight_filler {
      type: "gaussian"
      std: 0.05
    }
    bias_filler {
      type: "constant"
      value: 0
    }
  }
}
layer {
  name: "penlu_cccp5"
  type: "PENLU"
  bottom: "cccp5"
  top: "penlu_cccp5"
  param {
    lr_mult: 1
    decay_mult: 0
  }
  param {
    lr_mult: 1
    decay_mult: 0
  }
  param {
    lr_mult: 1
    decay_mult: 0
  }
  penlu_param {
    alpha_filler {
      type: "constant"
      value: 1
    }
    beta_filler {
      type: "constant"
      value: 1
    }
    eta_filler {
      type: "constant"
      value: 0.8
    }
  }
}
layer {
  name: "cccp6"
  type: "Convolution"
  bottom: "penlu_cccp5"
  top: "cccp6"
  param {
    lr_mult: 0.1
    decay_mult: 1
  }
  param {
    lr_mult: 0.1
    decay_mult: 0
  }
  convolution_param {
    num_output: 10
    kernel_size: 1
    weight_filler {
      type: "gaussian"
      std: 0.05
    }
    bias_filler {
      type: "constant"
      value: 0
    }
  }
}
layer {
  name: "penlu_cccp6"
  type: "PENLU"
  bottom: "cccp6"
  top: "penlu_cccp6"
  param {
    lr_mult: 1
    decay_mult: 0
  }
  param {
    lr_mult: 1
    decay_mult: 0
  }
  param {
    lr_mult: 1
    decay_mult: 0
  }
  penlu_param {
    alpha_filler {
      type: "constant"
      value: 1
    }
    beta_filler {
      type: "constant"
      value: 1
    }
    eta_filler {
      type: "constant"
      value: 0.8
    }
  }
}
layer {
  name: "pool3"
  type: "Pooling"
  bottom: "penlu_cccp6"
  top: "pool3"
  pooling_param {
    pool: AVE
    kernel_size: 7
    stride: 1
  }
}
layer {
  name: "accuracy"
  type: "Accuracy"
  bottom: "pool3"
  bottom: "label"
  top: "accuracy"
}
layer {
  name: "loss"
  type: "SoftmaxWithLoss"
  bottom: "pool3"
  bottom: "label"
  top: "loss"
}
I0918 16:22:49.226972   332 layer_factory.hpp:77] Creating layer cifar
I0918 16:22:49.227008   332 db_lmdb.cpp:35] Opened lmdb /home/x306/caffe/xn/PENLU/data/cifar10/cifar10_test_lmdb
I0918 16:22:49.227018   332 net.cpp:84] Creating Layer cifar
I0918 16:22:49.227022   332 net.cpp:380] cifar -> data
I0918 16:22:49.227028   332 net.cpp:380] cifar -> label
I0918 16:22:49.227033   332 data_transformer.cpp:25] Loading mean file from: /home/x306/caffe/xn/PENLU/data/cifar10/mean.binaryproto
I0918 16:22:49.227139   332 data_layer.cpp:45] output data size: 50,3,28,28
I0918 16:22:49.228197   332 net.cpp:122] Setting up cifar
I0918 16:22:49.228209   332 net.cpp:129] Top shape: 50 3 28 28 (117600)
I0918 16:22:49.228211   332 net.cpp:129] Top shape: 50 (50)
I0918 16:22:49.228214   332 net.cpp:137] Memory required for data: 470600
I0918 16:22:49.228216   332 layer_factory.hpp:77] Creating layer label_cifar_1_split
I0918 16:22:49.228222   332 net.cpp:84] Creating Layer label_cifar_1_split
I0918 16:22:49.228225   332 net.cpp:406] label_cifar_1_split <- label
I0918 16:22:49.228229   332 net.cpp:380] label_cifar_1_split -> label_cifar_1_split_0
I0918 16:22:49.228235   332 net.cpp:380] label_cifar_1_split -> label_cifar_1_split_1
I0918 16:22:49.228291   332 net.cpp:122] Setting up label_cifar_1_split
I0918 16:22:49.228297   332 net.cpp:129] Top shape: 50 (50)
I0918 16:22:49.228301   332 net.cpp:129] Top shape: 50 (50)
I0918 16:22:49.228302   332 net.cpp:137] Memory required for data: 471000
I0918 16:22:49.228304   332 layer_factory.hpp:77] Creating layer conv1
I0918 16:22:49.228312   332 net.cpp:84] Creating Layer conv1
I0918 16:22:49.228315   332 net.cpp:406] conv1 <- data
I0918 16:22:49.228327   332 net.cpp:380] conv1 -> conv1
I0918 16:22:49.229630   332 net.cpp:122] Setting up conv1
I0918 16:22:49.229641   332 net.cpp:129] Top shape: 50 192 28 28 (7526400)
I0918 16:22:49.229643   332 net.cpp:137] Memory required for data: 30576600
I0918 16:22:49.229651   332 layer_factory.hpp:77] Creating layer penlu_conv1
I0918 16:22:49.229657   332 net.cpp:84] Creating Layer penlu_conv1
I0918 16:22:49.229663   332 net.cpp:406] penlu_conv1 <- conv1
I0918 16:22:49.229668   332 net.cpp:380] penlu_conv1 -> penlu_conv1
I0918 16:22:49.229845   332 net.cpp:122] Setting up penlu_conv1
I0918 16:22:49.229852   332 net.cpp:129] Top shape: 50 192 28 28 (7526400)
I0918 16:22:49.229854   332 net.cpp:137] Memory required for data: 60682200
I0918 16:22:49.229861   332 layer_factory.hpp:77] Creating layer cccp1
I0918 16:22:49.229872   332 net.cpp:84] Creating Layer cccp1
I0918 16:22:49.229879   332 net.cpp:406] cccp1 <- penlu_conv1
I0918 16:22:49.229884   332 net.cpp:380] cccp1 -> cccp1
I0918 16:22:49.231513   332 net.cpp:122] Setting up cccp1
I0918 16:22:49.231523   332 net.cpp:129] Top shape: 50 160 28 28 (6272000)
I0918 16:22:49.231525   332 net.cpp:137] Memory required for data: 85770200
I0918 16:22:49.231530   332 layer_factory.hpp:77] Creating layer penlu_cccp1
I0918 16:22:49.231535   332 net.cpp:84] Creating Layer penlu_cccp1
I0918 16:22:49.231539   332 net.cpp:406] penlu_cccp1 <- cccp1
I0918 16:22:49.231544   332 net.cpp:380] penlu_cccp1 -> penlu_cccp1
I0918 16:22:49.232240   332 net.cpp:122] Setting up penlu_cccp1
I0918 16:22:49.232249   332 net.cpp:129] Top shape: 50 160 28 28 (6272000)
I0918 16:22:49.232252   332 net.cpp:137] Memory required for data: 110858200
I0918 16:22:49.232259   332 layer_factory.hpp:77] Creating layer cccp2
I0918 16:22:49.232267   332 net.cpp:84] Creating Layer cccp2
I0918 16:22:49.232271   332 net.cpp:406] cccp2 <- penlu_cccp1
I0918 16:22:49.232275   332 net.cpp:380] cccp2 -> cccp2
I0918 16:22:49.233481   332 net.cpp:122] Setting up cccp2
I0918 16:22:49.233492   332 net.cpp:129] Top shape: 50 96 28 28 (3763200)
I0918 16:22:49.233496   332 net.cpp:137] Memory required for data: 125911000
I0918 16:22:49.233501   332 layer_factory.hpp:77] Creating layer penlu_cccp2
I0918 16:22:49.233507   332 net.cpp:84] Creating Layer penlu_cccp2
I0918 16:22:49.233510   332 net.cpp:406] penlu_cccp2 <- cccp2
I0918 16:22:49.233515   332 net.cpp:380] penlu_cccp2 -> penlu_cccp2
I0918 16:22:49.233654   332 net.cpp:122] Setting up penlu_cccp2
I0918 16:22:49.233660   332 net.cpp:129] Top shape: 50 96 28 28 (3763200)
I0918 16:22:49.233662   332 net.cpp:137] Memory required for data: 140963800
I0918 16:22:49.233667   332 layer_factory.hpp:77] Creating layer pool1
I0918 16:22:49.233675   332 net.cpp:84] Creating Layer pool1
I0918 16:22:49.233677   332 net.cpp:406] pool1 <- penlu_cccp2
I0918 16:22:49.233680   332 net.cpp:380] pool1 -> pool1
I0918 16:22:49.233706   332 net.cpp:122] Setting up pool1
I0918 16:22:49.233711   332 net.cpp:129] Top shape: 50 96 14 14 (940800)
I0918 16:22:49.233714   332 net.cpp:137] Memory required for data: 144727000
I0918 16:22:49.233716   332 layer_factory.hpp:77] Creating layer dropout1
I0918 16:22:49.233721   332 net.cpp:84] Creating Layer dropout1
I0918 16:22:49.233723   332 net.cpp:406] dropout1 <- pool1
I0918 16:22:49.233726   332 net.cpp:380] dropout1 -> dropout1
I0918 16:22:49.233749   332 net.cpp:122] Setting up dropout1
I0918 16:22:49.233754   332 net.cpp:129] Top shape: 50 96 14 14 (940800)
I0918 16:22:49.233757   332 net.cpp:137] Memory required for data: 148490200
I0918 16:22:49.233759   332 layer_factory.hpp:77] Creating layer conv2
I0918 16:22:49.233765   332 net.cpp:84] Creating Layer conv2
I0918 16:22:49.233769   332 net.cpp:406] conv2 <- dropout1
I0918 16:22:49.233773   332 net.cpp:380] conv2 -> conv2
I0918 16:22:49.245167   332 net.cpp:122] Setting up conv2
I0918 16:22:49.245180   332 net.cpp:129] Top shape: 50 192 14 14 (1881600)
I0918 16:22:49.245183   332 net.cpp:137] Memory required for data: 156016600
I0918 16:22:49.245200   332 layer_factory.hpp:77] Creating layer penlu_conv2
I0918 16:22:49.245226   332 net.cpp:84] Creating Layer penlu_conv2
I0918 16:22:49.245230   332 net.cpp:406] penlu_conv2 <- conv2
I0918 16:22:49.245249   332 net.cpp:380] penlu_conv2 -> penlu_conv2
I0918 16:22:49.245390   332 net.cpp:122] Setting up penlu_conv2
I0918 16:22:49.245396   332 net.cpp:129] Top shape: 50 192 14 14 (1881600)
I0918 16:22:49.245398   332 net.cpp:137] Memory required for data: 163543000
I0918 16:22:49.245402   332 layer_factory.hpp:77] Creating layer cccp3
I0918 16:22:49.245409   332 net.cpp:84] Creating Layer cccp3
I0918 16:22:49.245412   332 net.cpp:406] cccp3 <- penlu_conv2
I0918 16:22:49.245431   332 net.cpp:380] cccp3 -> cccp3
I0918 16:22:49.247068   332 net.cpp:122] Setting up cccp3
I0918 16:22:49.247077   332 net.cpp:129] Top shape: 50 192 14 14 (1881600)
I0918 16:22:49.247081   332 net.cpp:137] Memory required for data: 171069400
I0918 16:22:49.247084   332 layer_factory.hpp:77] Creating layer penlu_cccp3
I0918 16:22:49.247092   332 net.cpp:84] Creating Layer penlu_cccp3
I0918 16:22:49.247093   332 net.cpp:406] penlu_cccp3 <- cccp3
I0918 16:22:49.247097   332 net.cpp:380] penlu_cccp3 -> penlu_cccp3
I0918 16:22:49.247226   332 net.cpp:122] Setting up penlu_cccp3
I0918 16:22:49.247232   332 net.cpp:129] Top shape: 50 192 14 14 (1881600)
I0918 16:22:49.247234   332 net.cpp:137] Memory required for data: 178595800
I0918 16:22:49.247238   332 layer_factory.hpp:77] Creating layer cccp4
I0918 16:22:49.247244   332 net.cpp:84] Creating Layer cccp4
I0918 16:22:49.247246   332 net.cpp:406] cccp4 <- penlu_cccp3
I0918 16:22:49.247251   332 net.cpp:380] cccp4 -> cccp4
I0918 16:22:49.248877   332 net.cpp:122] Setting up cccp4
I0918 16:22:49.248885   332 net.cpp:129] Top shape: 50 192 14 14 (1881600)
I0918 16:22:49.248888   332 net.cpp:137] Memory required for data: 186122200
I0918 16:22:49.248893   332 layer_factory.hpp:77] Creating layer penlu_cccp4
I0918 16:22:49.248898   332 net.cpp:84] Creating Layer penlu_cccp4
I0918 16:22:49.248901   332 net.cpp:406] penlu_cccp4 <- cccp4
I0918 16:22:49.248905   332 net.cpp:380] penlu_cccp4 -> penlu_cccp4
I0918 16:22:49.249033   332 net.cpp:122] Setting up penlu_cccp4
I0918 16:22:49.249038   332 net.cpp:129] Top shape: 50 192 14 14 (1881600)
I0918 16:22:49.249040   332 net.cpp:137] Memory required for data: 193648600
I0918 16:22:49.249044   332 layer_factory.hpp:77] Creating layer pool2
I0918 16:22:49.249050   332 net.cpp:84] Creating Layer pool2
I0918 16:22:49.249053   332 net.cpp:406] pool2 <- penlu_cccp4
I0918 16:22:49.249056   332 net.cpp:380] pool2 -> pool2
I0918 16:22:49.249186   332 net.cpp:122] Setting up pool2
I0918 16:22:49.249191   332 net.cpp:129] Top shape: 50 192 7 7 (470400)
I0918 16:22:49.249193   332 net.cpp:137] Memory required for data: 195530200
I0918 16:22:49.249195   332 layer_factory.hpp:77] Creating layer dropout2
I0918 16:22:49.249200   332 net.cpp:84] Creating Layer dropout2
I0918 16:22:49.249202   332 net.cpp:406] dropout2 <- pool2
I0918 16:22:49.249207   332 net.cpp:380] dropout2 -> dropout2
I0918 16:22:49.249230   332 net.cpp:122] Setting up dropout2
I0918 16:22:49.249233   332 net.cpp:129] Top shape: 50 192 7 7 (470400)
I0918 16:22:49.249236   332 net.cpp:137] Memory required for data: 197411800
I0918 16:22:49.249238   332 layer_factory.hpp:77] Creating layer conv3
I0918 16:22:49.249243   332 net.cpp:84] Creating Layer conv3
I0918 16:22:49.249246   332 net.cpp:406] conv3 <- dropout2
I0918 16:22:49.249250   332 net.cpp:380] conv3 -> conv3
I0918 16:22:49.259037   332 net.cpp:122] Setting up conv3
I0918 16:22:49.259063   332 net.cpp:129] Top shape: 50 192 7 7 (470400)
I0918 16:22:49.259065   332 net.cpp:137] Memory required for data: 199293400
I0918 16:22:49.259071   332 layer_factory.hpp:77] Creating layer penlu_conv3
I0918 16:22:49.259089   332 net.cpp:84] Creating Layer penlu_conv3
I0918 16:22:49.259093   332 net.cpp:406] penlu_conv3 <- conv3
I0918 16:22:49.259099   332 net.cpp:380] penlu_conv3 -> penlu_conv3
I0918 16:22:49.259241   332 net.cpp:122] Setting up penlu_conv3
I0918 16:22:49.259248   332 net.cpp:129] Top shape: 50 192 7 7 (470400)
I0918 16:22:49.259268   332 net.cpp:137] Memory required for data: 201175000
I0918 16:22:49.259289   332 layer_factory.hpp:77] Creating layer cccp5
I0918 16:22:49.259296   332 net.cpp:84] Creating Layer cccp5
I0918 16:22:49.259300   332 net.cpp:406] cccp5 <- penlu_conv3
I0918 16:22:49.259313   332 net.cpp:380] cccp5 -> cccp5
I0918 16:22:49.261025   332 net.cpp:122] Setting up cccp5
I0918 16:22:49.261035   332 net.cpp:129] Top shape: 50 192 7 7 (470400)
I0918 16:22:49.261039   332 net.cpp:137] Memory required for data: 203056600
I0918 16:22:49.261044   332 layer_factory.hpp:77] Creating layer penlu_cccp5
I0918 16:22:49.261049   332 net.cpp:84] Creating Layer penlu_cccp5
I0918 16:22:49.261052   332 net.cpp:406] penlu_cccp5 <- cccp5
I0918 16:22:49.261066   332 net.cpp:380] penlu_cccp5 -> penlu_cccp5
I0918 16:22:49.261196   332 net.cpp:122] Setting up penlu_cccp5
I0918 16:22:49.261201   332 net.cpp:129] Top shape: 50 192 7 7 (470400)
I0918 16:22:49.261214   332 net.cpp:137] Memory required for data: 204938200
I0918 16:22:49.261219   332 layer_factory.hpp:77] Creating layer cccp6
I0918 16:22:49.261225   332 net.cpp:84] Creating Layer cccp6
I0918 16:22:49.261229   332 net.cpp:406] cccp6 <- penlu_cccp5
I0918 16:22:49.261232   332 net.cpp:380] cccp6 -> cccp6
I0918 16:22:49.262152   332 net.cpp:122] Setting up cccp6
I0918 16:22:49.262162   332 net.cpp:129] Top shape: 50 10 7 7 (24500)
I0918 16:22:49.262176   332 net.cpp:137] Memory required for data: 205036200
I0918 16:22:49.262181   332 layer_factory.hpp:77] Creating layer penlu_cccp6
I0918 16:22:49.262197   332 net.cpp:84] Creating Layer penlu_cccp6
I0918 16:22:49.262199   332 net.cpp:406] penlu_cccp6 <- cccp6
I0918 16:22:49.262204   332 net.cpp:380] penlu_cccp6 -> penlu_cccp6
I0918 16:22:49.262332   332 net.cpp:122] Setting up penlu_cccp6
I0918 16:22:49.262338   332 net.cpp:129] Top shape: 50 10 7 7 (24500)
I0918 16:22:49.262351   332 net.cpp:137] Memory required for data: 205134200
I0918 16:22:49.262356   332 layer_factory.hpp:77] Creating layer pool3
I0918 16:22:49.262361   332 net.cpp:84] Creating Layer pool3
I0918 16:22:49.262373   332 net.cpp:406] pool3 <- penlu_cccp6
I0918 16:22:49.262377   332 net.cpp:380] pool3 -> pool3
I0918 16:22:49.262843   332 net.cpp:122] Setting up pool3
I0918 16:22:49.262853   332 net.cpp:129] Top shape: 50 10 1 1 (500)
I0918 16:22:49.262866   332 net.cpp:137] Memory required for data: 205136200
I0918 16:22:49.262868   332 layer_factory.hpp:77] Creating layer pool3_pool3_0_split
I0918 16:22:49.262873   332 net.cpp:84] Creating Layer pool3_pool3_0_split
I0918 16:22:49.262876   332 net.cpp:406] pool3_pool3_0_split <- pool3
I0918 16:22:49.262890   332 net.cpp:380] pool3_pool3_0_split -> pool3_pool3_0_split_0
I0918 16:22:49.262897   332 net.cpp:380] pool3_pool3_0_split -> pool3_pool3_0_split_1
I0918 16:22:49.262931   332 net.cpp:122] Setting up pool3_pool3_0_split
I0918 16:22:49.262944   332 net.cpp:129] Top shape: 50 10 1 1 (500)
I0918 16:22:49.262948   332 net.cpp:129] Top shape: 50 10 1 1 (500)
I0918 16:22:49.262949   332 net.cpp:137] Memory required for data: 205140200
I0918 16:22:49.262962   332 layer_factory.hpp:77] Creating layer accuracy
I0918 16:22:49.262966   332 net.cpp:84] Creating Layer accuracy
I0918 16:22:49.262969   332 net.cpp:406] accuracy <- pool3_pool3_0_split_0
I0918 16:22:49.262971   332 net.cpp:406] accuracy <- label_cifar_1_split_0
I0918 16:22:49.262984   332 net.cpp:380] accuracy -> accuracy
…
