…
I0911 21:33:34.714643  3459 net.cpp:294] The NetState phase (0) differed from the phase (1) specified by a rule in layer cifar
I0911 21:33:34.714802  3459 net.cpp:51] Initializing net from parameters: 
name: "CIFAR10_full"
state {
  phase: TRAIN
  level: 0
  stage: ""
}
layer {
  name: "cifar"
  type: "Data"
  top: "data"
  top: "label"
  include {
    phase: TRAIN
  }
  transform_param {
    mirror: true
    crop_size: 28
  }
  data_param {
    source: "/home/x306/caffe/xn/PENLU/data/cifar10/cifar10_train_lmdb"
    batch_size: 64
    backend: LMDB
  }
  image_data_param {
    shuffle: true
  }
}
layer {
  name: "conv1"
  type: "Convolution"
  bottom: "data"
  top: "conv1"
  param {
    lr_mult: 1
    decay_mult: 1
  }
  param {
    lr_mult: 2
    decay_mult: 0
  }
  convolution_param {
    num_output: 192
    pad: 2
    kernel_size: 5
    weight_filler {
      type: "gaussian"
      std: 0.05
    }
    bias_filler {
      type: "constant"
      value: 0
    }
  }
}
layer {
  name: "relu_conv1"
  type: "ReLU"
  bottom: "conv1"
  top: "relu_conv1"
}
layer {
  name: "cccp1"
  type: "Convolution"
  bottom: "relu_conv1"
  top: "cccp1"
  param {
    lr_mult: 1
    decay_mult: 1
  }
  param {
    lr_mult: 2
    decay_mult: 0
  }
  convolution_param {
    num_output: 160
    kernel_size: 1
    weight_filler {
      type: "gaussian"
      std: 0.05
    }
    bias_filler {
      type: "constant"
      value: 0
    }
  }
}
layer {
  name: "relu_cccp1"
  type: "ReLU"
  bottom: "cccp1"
  top: "relu_cccp1"
}
layer {
  name: "cccp2"
  type: "Convolution"
  bottom: "relu_cccp1"
  top: "cccp2"
  param {
    lr_mult: 1
    decay_mult: 1
  }
  param {
    lr_mult: 2
    decay_mult: 0
  }
  convolution_param {
    num_output: 96
    kernel_size: 1
    weight_filler {
      type: "gaussian"
      std: 0.05
    }
    bias_filler {
      type: "constant"
      value: 0
    }
  }
}
layer {
  name: "relu_cccp2"
  type: "ReLU"
  bottom: "cccp2"
  top: "relu_cccp2"
}
layer {
  name: "pool1"
  type: "Pooling"
  bottom: "relu_cccp2"
  top: "pool1"
  pooling_param {
    pool: MAX
    kernel_size: 3
    stride: 2
  }
}
layer {
  name: "dropout1"
  type: "Dropout"
  bottom: "pool1"
  top: "dropout1"
  dropout_param {
    dropout_ratio: 0.5
  }
}
layer {
  name: "conv2"
  type: "Convolution"
  bottom: "dropout1"
  top: "conv2"
  param {
    lr_mult: 1
    decay_mult: 1
  }
  param {
    lr_mult: 2
    decay_mult: 0
  }
  convolution_param {
    num_output: 192
    pad: 2
    kernel_size: 5
    weight_filler {
      type: "gaussian"
      std: 0.05
    }
    bias_filler {
      type: "constant"
      value: 0
    }
  }
}
layer {
  name: "relu_conv2"
  type: "ReLU"
  bottom: "conv2"
  top: "relu_conv2"
}
layer {
  name: "cccp3"
  type: "Convolution"
  bottom: "relu_conv2"
  top: "cccp3"
  param {
    lr_mult: 1
    decay_mult: 1
  }
  param {
    lr_mult: 2
    decay_mult: 0
  }
  convolution_param {
    num_output: 192
    kernel_size: 1
    weight_filler {
      type: "gaussian"
      std: 0.05
    }
    bias_filler {
      type: "constant"
      value: 0
    }
  }
}
layer {
  name: "relu_cccp3"
  type: "ReLU"
  bottom: "cccp3"
  top: "relu_cccp3"
}
layer {
  name: "cccp4"
  type: "Convolution"
  bottom: "relu_cccp3"
  top: "cccp4"
  param {
    lr_mult: 1
    decay_mult: 1
  }
  param {
    lr_mult: 2
    decay_mult: 0
  }
  convolution_param {
    num_output: 192
    kernel_size: 1
    weight_filler {
      type: "gaussian"
      std: 0.05
    }
    bias_filler {
      type: "constant"
      value: 0
    }
  }
}
layer {
  name: "relu_cccp4"
  type: "ReLU"
  bottom: "cccp4"
  top: "relu_cccp4"
}
layer {
  name: "pool2"
  type: "Pooling"
  bottom: "relu_cccp4"
  top: "pool2"
  pooling_param {
    pool: AVE
    kernel_size: 3
    stride: 2
  }
}
layer {
  name: "dropout2"
  type: "Dropout"
  bottom: "pool2"
  top: "dropout2"
  dropout_param {
    dropout_ratio: 0.5
  }
}
layer {
  name: "conv3"
  type: "Convolution"
  bottom: "dropout2"
  top: "conv3"
  param {
    lr_mult: 1
    decay_mult: 1
  }
  param {
    lr_mult: 2
    decay_mult: 0
  }
  convolution_param {
    num_output: 192
    pad: 1
    kernel_size: 3
    weight_filler {
      type: "gaussian"
      std: 0.05
    }
    bias_filler {
      type: "constant"
      value: 0
    }
  }
}
layer {
  name: "relu_conv3"
  type: "ReLU"
  bottom: "conv3"
  top: "relu_conv3"
}
layer {
  name: "cccp5"
  type: "Convolution"
  bottom: "relu_conv3"
  top: "cccp5"
  param {
    lr_mult: 1
    decay_mult: 1
  }
  param {
    lr_mult: 2
    decay_mult: 0
  }
  convolution_param {
    num_output: 192
    kernel_size: 1
    weight_filler {
      type: "gaussian"
      std: 0.05
    }
    bias_filler {
      type: "constant"
      value: 0
    }
  }
}
layer {
  name: "relu_cccp5"
  type: "ReLU"
  bottom: "cccp5"
  top: "relu_cccp5"
}
layer {
  name: "cccp6"
  type: "Convolution"
  bottom: "relu_cccp5"
  top: "cccp6"
  param {
    lr_mult: 0.1
    decay_mult: 1
  }
  param {
    lr_mult: 0.1
    decay_mult: 0
  }
  convolution_param {
    num_output: 10
    kernel_size: 1
    weight_filler {
      type: "gaussian"
      std: 0.05
    }
    bias_filler {
      type: "constant"
      value: 0
    }
  }
}
layer {
  name: "relu_cccp6"
  type: "ReLU"
  bottom: "cccp6"
  top: "relu_cccp6"
}
layer {
  name: "pool3"
  type: "Pooling"
  bottom: "relu_cccp6"
  top: "pool3"
  pooling_param {
    pool: AVE
    kernel_size: 7
    stride: 1
  }
}
layer {
  name: "accuracy"
  type: "Accuracy"
  bottom: "pool3"
  bottom: "label"
  top: "accuracy"
}
layer {
  name: "loss"
  type: "SoftmaxWithLoss"
  bottom: "pool3"
  bottom: "label"
  top: "loss"
}
I0911 21:33:34.714943  3459 layer_factory.hpp:77] Creating layer cifar
I0911 21:33:34.715035  3459 db_lmdb.cpp:35] Opened lmdb /home/x306/caffe/xn/PENLU/data/cifar10/cifar10_train_lmdb
I0911 21:33:34.715055  3459 net.cpp:84] Creating Layer cifar
I0911 21:33:34.715070  3459 net.cpp:380] cifar -> data
I0911 21:33:34.715113  3459 net.cpp:380] cifar -> label
I0911 21:33:34.716014  3459 data_layer.cpp:45] output data size: 64,3,28,28
I0911 21:33:34.718147  3459 net.cpp:122] Setting up cifar
I0911 21:33:34.718173  3459 net.cpp:129] Top shape: 64 3 28 28 (150528)
I0911 21:33:34.718178  3459 net.cpp:129] Top shape: 64 (64)
I0911 21:33:34.718180  3459 net.cpp:137] Memory required for data: 602368
I0911 21:33:34.718196  3459 layer_factory.hpp:77] Creating layer label_cifar_1_split
I0911 21:33:34.718205  3459 net.cpp:84] Creating Layer label_cifar_1_split
I0911 21:33:34.718210  3459 net.cpp:406] label_cifar_1_split <- label
I0911 21:33:34.718226  3459 net.cpp:380] label_cifar_1_split -> label_cifar_1_split_0
I0911 21:33:34.718248  3459 net.cpp:380] label_cifar_1_split -> label_cifar_1_split_1
I0911 21:33:34.718299  3459 net.cpp:122] Setting up label_cifar_1_split
I0911 21:33:34.718305  3459 net.cpp:129] Top shape: 64 (64)
I0911 21:33:34.718322  3459 net.cpp:129] Top shape: 64 (64)
I0911 21:33:34.718324  3459 net.cpp:137] Memory required for data: 602880
I0911 21:33:34.718327  3459 layer_factory.hpp:77] Creating layer conv1
I0911 21:33:34.718350  3459 net.cpp:84] Creating Layer conv1
I0911 21:33:34.718353  3459 net.cpp:406] conv1 <- data
I0911 21:33:34.718367  3459 net.cpp:380] conv1 -> conv1
I0911 21:33:34.866080  3459 net.cpp:122] Setting up conv1
I0911 21:33:34.866104  3459 net.cpp:129] Top shape: 64 192 28 28 (9633792)
I0911 21:33:34.866108  3459 net.cpp:137] Memory required for data: 39138048
I0911 21:33:34.866122  3459 layer_factory.hpp:77] Creating layer relu_conv1
I0911 21:33:34.866168  3459 net.cpp:84] Creating Layer relu_conv1
I0911 21:33:34.866173  3459 net.cpp:406] relu_conv1 <- conv1
I0911 21:33:34.866185  3459 net.cpp:380] relu_conv1 -> relu_conv1
I0911 21:33:34.866353  3459 net.cpp:122] Setting up relu_conv1
I0911 21:33:34.866361  3459 net.cpp:129] Top shape: 64 192 28 28 (9633792)
I0911 21:33:34.866364  3459 net.cpp:137] Memory required for data: 77673216
I0911 21:33:34.866366  3459 layer_factory.hpp:77] Creating layer cccp1
I0911 21:33:34.866376  3459 net.cpp:84] Creating Layer cccp1
I0911 21:33:34.866379  3459 net.cpp:406] cccp1 <- relu_conv1
I0911 21:33:34.866392  3459 net.cpp:380] cccp1 -> cccp1
I0911 21:33:34.868329  3459 net.cpp:122] Setting up cccp1
I0911 21:33:34.868340  3459 net.cpp:129] Top shape: 64 160 28 28 (8028160)
I0911 21:33:34.868342  3459 net.cpp:137] Memory required for data: 109785856
I0911 21:33:34.868348  3459 layer_factory.hpp:77] Creating layer relu_cccp1
I0911 21:33:34.868352  3459 net.cpp:84] Creating Layer relu_cccp1
I0911 21:33:34.868355  3459 net.cpp:406] relu_cccp1 <- cccp1
I0911 21:33:34.868360  3459 net.cpp:380] relu_cccp1 -> relu_cccp1
I0911 21:33:34.868799  3459 net.cpp:122] Setting up relu_cccp1
I0911 21:33:34.868809  3459 net.cpp:129] Top shape: 64 160 28 28 (8028160)
I0911 21:33:34.868813  3459 net.cpp:137] Memory required for data: 141898496
I0911 21:33:34.868815  3459 layer_factory.hpp:77] Creating layer cccp2
I0911 21:33:34.868822  3459 net.cpp:84] Creating Layer cccp2
I0911 21:33:34.868824  3459 net.cpp:406] cccp2 <- relu_cccp1
I0911 21:33:34.868829  3459 net.cpp:380] cccp2 -> cccp2
I0911 21:33:34.869632  3459 net.cpp:122] Setting up cccp2
I0911 21:33:34.869642  3459 net.cpp:129] Top shape: 64 96 28 28 (4816896)
I0911 21:33:34.869644  3459 net.cpp:137] Memory required for data: 161166080
I0911 21:33:34.869650  3459 layer_factory.hpp:77] Creating layer relu_cccp2
I0911 21:33:34.869654  3459 net.cpp:84] Creating Layer relu_cccp2
I0911 21:33:34.869657  3459 net.cpp:406] relu_cccp2 <- cccp2
I0911 21:33:34.869660  3459 net.cpp:380] relu_cccp2 -> relu_cccp2
I0911 21:33:34.870107  3459 net.cpp:122] Setting up relu_cccp2
I0911 21:33:34.870116  3459 net.cpp:129] Top shape: 64 96 28 28 (4816896)
I0911 21:33:34.870120  3459 net.cpp:137] Memory required for data: 180433664
I0911 21:33:34.870122  3459 layer_factory.hpp:77] Creating layer pool1
I0911 21:33:34.870129  3459 net.cpp:84] Creating Layer pool1
I0911 21:33:34.870131  3459 net.cpp:406] pool1 <- relu_cccp2
I0911 21:33:34.870136  3459 net.cpp:380] pool1 -> pool1
I0911 21:33:34.870188  3459 net.cpp:122] Setting up pool1
I0911 21:33:34.870193  3459 net.cpp:129] Top shape: 64 96 14 14 (1204224)
I0911 21:33:34.870195  3459 net.cpp:137] Memory required for data: 185250560
I0911 21:33:34.870198  3459 layer_factory.hpp:77] Creating layer dropout1
I0911 21:33:34.870203  3459 net.cpp:84] Creating Layer dropout1
I0911 21:33:34.870204  3459 net.cpp:406] dropout1 <- pool1
I0911 21:33:34.870208  3459 net.cpp:380] dropout1 -> dropout1
I0911 21:33:34.870240  3459 net.cpp:122] Setting up dropout1
I0911 21:33:34.870245  3459 net.cpp:129] Top shape: 64 96 14 14 (1204224)
I0911 21:33:34.870247  3459 net.cpp:137] Memory required for data: 190067456
I0911 21:33:34.870249  3459 layer_factory.hpp:77] Creating layer conv2
I0911 21:33:34.870255  3459 net.cpp:84] Creating Layer conv2
I0911 21:33:34.870270  3459 net.cpp:406] conv2 <- dropout1
I0911 21:33:34.870273  3459 net.cpp:380] conv2 -> conv2
I0911 21:33:34.882331  3459 net.cpp:122] Setting up conv2
I0911 21:33:34.882345  3459 net.cpp:129] Top shape: 64 192 14 14 (2408448)
I0911 21:33:34.882349  3459 net.cpp:137] Memory required for data: 199701248
I0911 21:33:34.882354  3459 layer_factory.hpp:77] Creating layer relu_conv2
I0911 21:33:34.882361  3459 net.cpp:84] Creating Layer relu_conv2
I0911 21:33:34.882364  3459 net.cpp:406] relu_conv2 <- conv2
I0911 21:33:34.882369  3459 net.cpp:380] relu_conv2 -> relu_conv2
I0911 21:33:34.882515  3459 net.cpp:122] Setting up relu_conv2
I0911 21:33:34.882524  3459 net.cpp:129] Top shape: 64 192 14 14 (2408448)
I0911 21:33:34.882534  3459 net.cpp:137] Memory required for data: 209335040
I0911 21:33:34.882537  3459 layer_factory.hpp:77] Creating layer cccp3
I0911 21:33:34.882544  3459 net.cpp:84] Creating Layer cccp3
I0911 21:33:34.882557  3459 net.cpp:406] cccp3 <- relu_conv2
I0911 21:33:34.882561  3459 net.cpp:380] cccp3 -> cccp3
I0911 21:33:34.884155  3459 net.cpp:122] Setting up cccp3
I0911 21:33:34.884166  3459 net.cpp:129] Top shape: 64 192 14 14 (2408448)
I0911 21:33:34.884168  3459 net.cpp:137] Memory required for data: 218968832
I0911 21:33:34.884176  3459 layer_factory.hpp:77] Creating layer relu_cccp3
I0911 21:33:34.884181  3459 net.cpp:84] Creating Layer relu_cccp3
I0911 21:33:34.884183  3459 net.cpp:406] relu_cccp3 <- cccp3
I0911 21:33:34.884186  3459 net.cpp:380] relu_cccp3 -> relu_cccp3
I0911 21:33:34.884320  3459 net.cpp:122] Setting up relu_cccp3
I0911 21:33:34.884327  3459 net.cpp:129] Top shape: 64 192 14 14 (2408448)
I0911 21:33:34.884330  3459 net.cpp:137] Memory required for data: 228602624
I0911 21:33:34.884332  3459 layer_factory.hpp:77] Creating layer cccp4
I0911 21:33:34.884338  3459 net.cpp:84] Creating Layer cccp4
I0911 21:33:34.884341  3459 net.cpp:406] cccp4 <- relu_cccp3
I0911 21:33:34.884346  3459 net.cpp:380] cccp4 -> cccp4
I0911 21:33:34.885962  3459 net.cpp:122] Setting up cccp4
I0911 21:33:34.885972  3459 net.cpp:129] Top shape: 64 192 14 14 (2408448)
I0911 21:33:34.885975  3459 net.cpp:137] Memory required for data: 238236416
I0911 21:33:34.885980  3459 layer_factory.hpp:77] Creating layer relu_cccp4
I0911 21:33:34.885985  3459 net.cpp:84] Creating Layer relu_cccp4
I0911 21:33:34.885987  3459 net.cpp:406] relu_cccp4 <- cccp4
I0911 21:33:34.885993  3459 net.cpp:380] relu_cccp4 -> relu_cccp4
I0911 21:33:34.886133  3459 net.cpp:122] Setting up relu_cccp4
I0911 21:33:34.886140  3459 net.cpp:129] Top shape: 64 192 14 14 (2408448)
I0911 21:33:34.886142  3459 net.cpp:137] Memory required for data: 247870208
I0911 21:33:34.886145  3459 layer_factory.hpp:77] Creating layer pool2
I0911 21:33:34.886152  3459 net.cpp:84] Creating Layer pool2
I0911 21:33:34.886153  3459 net.cpp:406] pool2 <- relu_cccp4
I0911 21:33:34.886157  3459 net.cpp:380] pool2 -> pool2
I0911 21:33:34.886301  3459 net.cpp:122] Setting up pool2
I0911 21:33:34.886308  3459 net.cpp:129] Top shape: 64 192 7 7 (602112)
I0911 21:33:34.886312  3459 net.cpp:137] Memory required for data: 250278656
I0911 21:33:34.886313  3459 layer_factory.hpp:77] Creating layer dropout2
I0911 21:33:34.886318  3459 net.cpp:84] Creating Layer dropout2
I0911 21:33:34.886322  3459 net.cpp:406] dropout2 <- pool2
I0911 21:33:34.886324  3459 net.cpp:380] dropout2 -> dropout2
I0911 21:33:34.886368  3459 net.cpp:122] Setting up dropout2
I0911 21:33:34.886373  3459 net.cpp:129] Top shape: 64 192 7 7 (602112)
I0911 21:33:34.886387  3459 net.cpp:137] Memory required for data: 252687104
I0911 21:33:34.886389  3459 layer_factory.hpp:77] Creating layer conv3
I0911 21:33:34.886406  3459 net.cpp:84] Creating Layer conv3
I0911 21:33:34.886409  3459 net.cpp:406] conv3 <- dropout2
I0911 21:33:34.886412  3459 net.cpp:380] conv3 -> conv3
I0911 21:33:34.894819  3459 net.cpp:122] Setting up conv3
I0911 21:33:34.894831  3459 net.cpp:129] Top shape: 64 192 7 7 (602112)
I0911 21:33:34.894834  3459 net.cpp:137] Memory required for data: 255095552
I0911 21:33:34.894840  3459 layer_factory.hpp:77] Creating layer relu_conv3
I0911 21:33:34.894845  3459 net.cpp:84] Creating Layer relu_conv3
I0911 21:33:34.894846  3459 net.cpp:406] relu_conv3 <- conv3
I0911 21:33:34.894850  3459 net.cpp:380] relu_conv3 -> relu_conv3
I0911 21:33:34.895483  3459 net.cpp:122] Setting up relu_conv3
I0911 21:33:34.895493  3459 net.cpp:129] Top shape: 64 192 7 7 (602112)
I0911 21:33:34.895505  3459 net.cpp:137] Memory required for data: 257504000
I0911 21:33:34.895508  3459 layer_factory.hpp:77] Creating layer cccp5
I0911 21:33:34.895514  3459 net.cpp:84] Creating Layer cccp5
I0911 21:33:34.895529  3459 net.cpp:406] cccp5 <- relu_conv3
I0911 21:33:34.895534  3459 net.cpp:380] cccp5 -> cccp5
I0911 21:33:34.897212  3459 net.cpp:122] Setting up cccp5
I0911 21:33:34.897230  3459 net.cpp:129] Top shape: 64 192 7 7 (602112)
I0911 21:33:34.897244  3459 net.cpp:137] Memory required for data: 259912448
I0911 21:33:34.897250  3459 layer_factory.hpp:77] Creating layer relu_cccp5
I0911 21:33:34.897254  3459 net.cpp:84] Creating Layer relu_cccp5
I0911 21:33:34.897272  3459 net.cpp:406] relu_cccp5 <- cccp5
I0911 21:33:34.897276  3459 net.cpp:380] relu_cccp5 -> relu_cccp5
I0911 21:33:34.897423  3459 net.cpp:122] Setting up relu_cccp5
I0911 21:33:34.897430  3459 net.cpp:129] Top shape: 64 192 7 7 (602112)
I0911 21:33:34.897433  3459 net.cpp:137] Memory required for data: 262320896
I0911 21:33:34.897434  3459 layer_factory.hpp:77] Creating layer cccp6
I0911 21:33:34.897441  3459 net.cpp:84] Creating Layer cccp6
I0911 21:33:34.897444  3459 net.cpp:406] cccp6 <- relu_cccp5
I0911 21:33:34.897449  3459 net.cpp:380] cccp6 -> cccp6
I0911 21:33:34.898838  3459 net.cpp:122] Setting up cccp6
I0911 21:33:34.898849  3459 net.cpp:129] Top shape: 64 10 7 7 (31360)
I0911 21:33:34.898850  3459 net.cpp:137] Memory required for data: 262446336
I0911 21:33:34.898859  3459 layer_factory.hpp:77] Creating layer relu_cccp6
I0911 21:33:34.898874  3459 net.cpp:84] Creating Layer relu_cccp6
I0911 21:33:34.898878  3459 net.cpp:406] relu_cccp6 <- cccp6
I0911 21:33:34.898882  3459 net.cpp:380] relu_cccp6 -> relu_cccp6
I0911 21:33:34.899039  3459 net.cpp:122] Setting up relu_cccp6
I0911 21:33:34.899046  3459 net.cpp:129] Top shape: 64 10 7 7 (31360)
I0911 21:33:34.899049  3459 net.cpp:137] Memory required for data: 262571776
I0911 21:33:34.899063  3459 layer_factory.hpp:77] Creating layer pool3
I0911 21:33:34.899068  3459 net.cpp:84] Creating Layer pool3
I0911 21:33:34.899081  3459 net.cpp:406] pool3 <- relu_cccp6
I0911 21:33:34.899086  3459 net.cpp:380] pool3 -> pool3
I0911 21:33:34.899227  3459 net.cpp:122] Setting up pool3
I0911 21:33:34.899235  3459 net.cpp:129] Top shape: 64 10 1 1 (640)
I0911 21:33:34.899237  3459 net.cpp:137] Memory required for data: 262574336
I0911 21:33:34.899250  3459 layer_factory.hpp:77] Creating layer pool3_pool3_0_split
I0911 21:33:34.899255  3459 net.cpp:84] Creating Layer pool3_pool3_0_split
I0911 21:33:34.899269  3459 net.cpp:406] pool3_pool3_0_split <- pool3
I0911 21:33:34.899273  3459 net.cpp:380] pool3_pool3_0_split -> pool3_pool3_0_split_0
I0911 21:33:34.899279  3459 net.cpp:380] pool3_pool3_0_split -> pool3_pool3_0_split_1
I0911 21:33:34.899314  3459 net.cpp:122] Setting up pool3_pool3_0_split
I0911 21:33:34.899318  3459 net.cpp:129] Top shape: 64 10 1 1 (640)
I0911 21:33:34.899322  3459 net.cpp:129] Top shape: 64 10 1 1 (640)
I0911 21:33:34.899324  3459 net.cpp:137] Memory required for data: 262579456
I0911 21:33:34.899338  3459 layer_factory.hpp:77] Creating layer accuracy
I0911 21:33:34.899343  3459 net.cpp:84] Creating Layer accuracy
I0911 21:33:34.899354  3459 net.cpp:406] accuracy <- pool3_pool3_0_split_0
I0911 21:33:34.899358  3459 net.cpp:406] accuracy <- label_cifar_1_split_0
I0911 21:33:34.899360  3459 net.cpp:380] accuracy -> accuracy
…
I0911 21:33:34.900127  3459 solver.cpp:172] Creating test net (#0) specified by net file: /home/x306/caffe/xn/PENLU/neural/nin/nin_relu_gauss.prototxt
I0911 21:33:34.900154  3459 net.cpp:294] The NetState phase (1) differed from the phase (0) specified by a rule in layer cifar
I0911 21:33:34.900272  3459 net.cpp:51] Initializing net from parameters: 
name: "CIFAR10_full"
state {
  phase: TEST
}
layer {
  name: "cifar"
  type: "Data"
  top: "data"
  top: "label"
  include {
    phase: TEST
  }
  transform_param {
    mirror: false
    crop_size: 28
  }
  data_param {
    source: "/home/x306/caffe/xn/PENLU/data/cifar10/cifar10_test_lmdb"
    batch_size: 50
    backend: LMDB
  }
}
layer {
  name: "conv1"
  type: "Convolution"
  bottom: "data"
  top: "conv1"
  param {
    lr_mult: 1
    decay_mult: 1
  }
  param {
    lr_mult: 2
    decay_mult: 0
  }
  convolution_param {
    num_output: 192
    pad: 2
    kernel_size: 5
    weight_filler {
      type: "gaussian"
      std: 0.05
    }
    bias_filler {
      type: "constant"
      value: 0
    }
  }
}
layer {
  name: "relu_conv1"
  type: "ReLU"
  bottom: "conv1"
  top: "relu_conv1"
}
layer {
  name: "cccp1"
  type: "Convolution"
  bottom: "relu_conv1"
  top: "cccp1"
  param {
    lr_mult: 1
    decay_mult: 1
  }
  param {
    lr_mult: 2
    decay_mult: 0
  }
  convolution_param {
    num_output: 160
    kernel_size: 1
    weight_filler {
      type: "gaussian"
      std: 0.05
    }
    bias_filler {
      type: "constant"
      value: 0
    }
  }
}
layer {
  name: "relu_cccp1"
  type: "ReLU"
  bottom: "cccp1"
  top: "relu_cccp1"
}
layer {
  name: "cccp2"
  type: "Convolution"
  bottom: "relu_cccp1"
  top: "cccp2"
  param {
    lr_mult: 1
    decay_mult: 1
  }
  param {
    lr_mult: 2
    decay_mult: 0
  }
  convolution_param {
    num_output: 96
    kernel_size: 1
    weight_filler {
      type: "gaussian"
      std: 0.05
    }
    bias_filler {
      type: "constant"
      value: 0
    }
  }
}
layer {
  name: "relu_cccp2"
  type: "ReLU"
  bottom: "cccp2"
  top: "relu_cccp2"
}
layer {
  name: "pool1"
  type: "Pooling"
  bottom: "relu_cccp2"
  top: "pool1"
  pooling_param {
    pool: MAX
    kernel_size: 3
    stride: 2
  }
}
layer {
  name: "dropout1"
  type: "Dropout"
  bottom: "pool1"
  top: "dropout1"
  dropout_param {
    dropout_ratio: 0.5
  }
}
layer {
  name: "conv2"
  type: "Convolution"
  bottom: "dropout1"
  top: "conv2"
  param {
    lr_mult: 1
    decay_mult: 1
  }
  param {
    lr_mult: 2
    decay_mult: 0
  }
  convolution_param {
    num_output: 192
    pad: 2
    kernel_size: 5
    weight_filler {
      type: "gaussian"
      std: 0.05
    }
    bias_filler {
      type: "constant"
      value: 0
    }
  }
}
layer {
  name: "relu_conv2"
  type: "ReLU"
  bottom: "conv2"
  top: "relu_conv2"
}
layer {
  name: "cccp3"
  type: "Convolution"
  bottom: "relu_conv2"
  top: "cccp3"
  param {
    lr_mult: 1
    decay_mult: 1
  }
  param {
    lr_mult: 2
    decay_mult: 0
  }
  convolution_param {
    num_output: 192
    kernel_size: 1
    weight_filler {
      type: "gaussian"
      std: 0.05
    }
    bias_filler {
      type: "constant"
      value: 0
    }
  }
}
layer {
  name: "relu_cccp3"
  type: "ReLU"
  bottom: "cccp3"
  top: "relu_cccp3"
}
layer {
  name: "cccp4"
  type: "Convolution"
  bottom: "relu_cccp3"
  top: "cccp4"
  param {
    lr_mult: 1
    decay_mult: 1
  }
  param {
    lr_mult: 2
    decay_mult: 0
  }
  convolution_param {
    num_output: 192
    kernel_size: 1
    weight_filler {
      type: "gaussian"
      std: 0.05
    }
    bias_filler {
      type: "constant"
      value: 0
    }
  }
}
layer {
  name: "relu_cccp4"
  type: "ReLU"
  bottom: "cccp4"
  top: "relu_cccp4"
}
layer {
  name: "pool2"
  type: "Pooling"
  bottom: "relu_cccp4"
  top: "pool2"
  pooling_param {
    pool: AVE
    kernel_size: 3
    stride: 2
  }
}
layer {
  name: "dropout2"
  type: "Dropout"
  bottom: "pool2"
  top: "dropout2"
  dropout_param {
    dropout_ratio: 0.5
  }
}
layer {
  name: "conv3"
  type: "Convolution"
  bottom: "dropout2"
  top: "conv3"
  param {
    lr_mult: 1
    decay_mult: 1
  }
  param {
    lr_mult: 2
    decay_mult: 0
  }
  convolution_param {
    num_output: 192
    pad: 1
    kernel_size: 3
    weight_filler {
      type: "gaussian"
      std: 0.05
    }
    bias_filler {
      type: "constant"
      value: 0
    }
  }
}
layer {
  name: "relu_conv3"
  type: "ReLU"
  bottom: "conv3"
  top: "relu_conv3"
}
layer {
  name: "cccp5"
  type: "Convolution"
  bottom: "relu_conv3"
  top: "cccp5"
  param {
    lr_mult: 1
    decay_mult: 1
  }
  param {
    lr_mult: 2
    decay_mult: 0
  }
  convolution_param {
    num_output: 192
    kernel_size: 1
    weight_filler {
      type: "gaussian"
      std: 0.05
    }
    bias_filler {
      type: "constant"
      value: 0
    }
  }
}
layer {
  name: "relu_cccp5"
  type: "ReLU"
  bottom: "cccp5"
  top: "relu_cccp5"
}
layer {
  name: "cccp6"
  type: "Convolution"
  bottom: "relu_cccp5"
  top: "cccp6"
  param {
    lr_mult: 0.1
    decay_mult: 1
  }
  param {
    lr_mult: 0.1
    decay_mult: 0
  }
  convolution_param {
    num_output: 10
    kernel_size: 1
    weight_filler {
      type: "gaussian"
      std: 0.05
    }
    bias_filler {
      type: "constant"
      value: 0
    }
  }
}
layer {
  name: "relu_cccp6"
  type: "ReLU"
  bottom: "cccp6"
  top: "relu_cccp6"
}
layer {
  name: "pool3"
  type: "Pooling"
  bottom: "relu_cccp6"
  top: "pool3"
  pooling_param {
    pool: AVE
    kernel_size: 7
    stride: 1
  }
}
layer {
  name: "accuracy"
  type: "Accuracy"
  bottom: "pool3"
  bottom: "label"
  top: "accuracy"
}
layer {
  name: "loss"
  type: "SoftmaxWithLoss"
  bottom: "pool3"
  bottom: "label"
  top: "loss"
}
I0911 21:33:34.900363  3459 layer_factory.hpp:77] Creating layer cifar
I0911 21:33:34.900399  3459 db_lmdb.cpp:35] Opened lmdb /home/x306/caffe/xn/PENLU/data/cifar10/cifar10_test_lmdb
I0911 21:33:34.900410  3459 net.cpp:84] Creating Layer cifar
I0911 21:33:34.900419  3459 net.cpp:380] cifar -> data
I0911 21:33:34.900425  3459 net.cpp:380] cifar -> label
I0911 21:33:34.900492  3459 data_layer.cpp:45] output data size: 50,3,28,28
I0911 21:33:34.901474  3459 net.cpp:122] Setting up cifar
I0911 21:33:34.901484  3459 net.cpp:129] Top shape: 50 3 28 28 (117600)
I0911 21:33:34.901490  3459 net.cpp:129] Top shape: 50 (50)
I0911 21:33:34.901494  3459 net.cpp:137] Memory required for data: 470600
I0911 21:33:34.901496  3459 layer_factory.hpp:77] Creating layer label_cifar_1_split
I0911 21:33:34.901500  3459 net.cpp:84] Creating Layer label_cifar_1_split
I0911 21:33:34.901504  3459 net.cpp:406] label_cifar_1_split <- label
I0911 21:33:34.901509  3459 net.cpp:380] label_cifar_1_split -> label_cifar_1_split_0
I0911 21:33:34.901515  3459 net.cpp:380] label_cifar_1_split -> label_cifar_1_split_1
I0911 21:33:34.901571  3459 net.cpp:122] Setting up label_cifar_1_split
I0911 21:33:34.901576  3459 net.cpp:129] Top shape: 50 (50)
I0911 21:33:34.901581  3459 net.cpp:129] Top shape: 50 (50)
I0911 21:33:34.901582  3459 net.cpp:137] Memory required for data: 471000
I0911 21:33:34.901584  3459 layer_factory.hpp:77] Creating layer conv1
I0911 21:33:34.901590  3459 net.cpp:84] Creating Layer conv1
I0911 21:33:34.901593  3459 net.cpp:406] conv1 <- data
I0911 21:33:34.901598  3459 net.cpp:380] conv1 -> conv1
I0911 21:33:34.902860  3459 net.cpp:122] Setting up conv1
I0911 21:33:34.902870  3459 net.cpp:129] Top shape: 50 192 28 28 (7526400)
I0911 21:33:34.902873  3459 net.cpp:137] Memory required for data: 30576600
I0911 21:33:34.902884  3459 layer_factory.hpp:77] Creating layer relu_conv1
I0911 21:33:34.902889  3459 net.cpp:84] Creating Layer relu_conv1
I0911 21:33:34.902892  3459 net.cpp:406] relu_conv1 <- conv1
I0911 21:33:34.902899  3459 net.cpp:380] relu_conv1 -> relu_conv1
I0911 21:33:34.903393  3459 net.cpp:122] Setting up relu_conv1
I0911 21:33:34.903404  3459 net.cpp:129] Top shape: 50 192 28 28 (7526400)
I0911 21:33:34.903408  3459 net.cpp:137] Memory required for data: 60682200
I0911 21:33:34.903409  3459 layer_factory.hpp:77] Creating layer cccp1
I0911 21:33:34.903417  3459 net.cpp:84] Creating Layer cccp1
I0911 21:33:34.903421  3459 net.cpp:406] cccp1 <- relu_conv1
I0911 21:33:34.903425  3459 net.cpp:380] cccp1 -> cccp1
I0911 21:33:34.905078  3459 net.cpp:122] Setting up cccp1
I0911 21:33:34.905089  3459 net.cpp:129] Top shape: 50 160 28 28 (6272000)
I0911 21:33:34.905092  3459 net.cpp:137] Memory required for data: 85770200
I0911 21:33:34.905098  3459 layer_factory.hpp:77] Creating layer relu_cccp1
I0911 21:33:34.905103  3459 net.cpp:84] Creating Layer relu_cccp1
I0911 21:33:34.905107  3459 net.cpp:406] relu_cccp1 <- cccp1
I0911 21:33:34.905112  3459 net.cpp:380] relu_cccp1 -> relu_cccp1
I0911 21:33:34.905238  3459 net.cpp:122] Setting up relu_cccp1
I0911 21:33:34.905246  3459 net.cpp:129] Top shape: 50 160 28 28 (6272000)
I0911 21:33:34.905249  3459 net.cpp:137] Memory required for data: 110858200
I0911 21:33:34.905251  3459 layer_factory.hpp:77] Creating layer cccp2
I0911 21:33:34.905257  3459 net.cpp:84] Creating Layer cccp2
I0911 21:33:34.905261  3459 net.cpp:406] cccp2 <- relu_cccp1
I0911 21:33:34.905266  3459 net.cpp:380] cccp2 -> cccp2
I0911 21:33:34.906447  3459 net.cpp:122] Setting up cccp2
I0911 21:33:34.906457  3459 net.cpp:129] Top shape: 50 96 28 28 (3763200)
I0911 21:33:34.906471  3459 net.cpp:137] Memory required for data: 125911000
I0911 21:33:34.906477  3459 layer_factory.hpp:77] Creating layer relu_cccp2
I0911 21:33:34.906483  3459 net.cpp:84] Creating Layer relu_cccp2
I0911 21:33:34.906486  3459 net.cpp:406] relu_cccp2 <- cccp2
I0911 21:33:34.906492  3459 net.cpp:380] relu_cccp2 -> relu_cccp2
I0911 21:33:34.906630  3459 net.cpp:122] Setting up relu_cccp2
I0911 21:33:34.906638  3459 net.cpp:129] Top shape: 50 96 28 28 (3763200)
I0911 21:33:34.906641  3459 net.cpp:137] Memory required for data: 140963800
I0911 21:33:34.906644  3459 layer_factory.hpp:77] Creating layer pool1
I0911 21:33:34.906651  3459 net.cpp:84] Creating Layer pool1
I0911 21:33:34.906662  3459 net.cpp:406] pool1 <- relu_cccp2
I0911 21:33:34.906667  3459 net.cpp:380] pool1 -> pool1
I0911 21:33:34.906698  3459 net.cpp:122] Setting up pool1
I0911 21:33:34.906703  3459 net.cpp:129] Top shape: 50 96 14 14 (940800)
I0911 21:33:34.906708  3459 net.cpp:137] Memory required for data: 144727000
I0911 21:33:34.906709  3459 layer_factory.hpp:77] Creating layer dropout1
I0911 21:33:34.906713  3459 net.cpp:84] Creating Layer dropout1
I0911 21:33:34.906716  3459 net.cpp:406] dropout1 <- pool1
I0911 21:33:34.906721  3459 net.cpp:380] dropout1 -> dropout1
I0911 21:33:34.906746  3459 net.cpp:122] Setting up dropout1
I0911 21:33:34.906751  3459 net.cpp:129] Top shape: 50 96 14 14 (940800)
I0911 21:33:34.906754  3459 net.cpp:137] Memory required for data: 148490200
I0911 21:33:34.906757  3459 layer_factory.hpp:77] Creating layer conv2
I0911 21:33:34.906764  3459 net.cpp:84] Creating Layer conv2
I0911 21:33:34.906767  3459 net.cpp:406] conv2 <- dropout1
I0911 21:33:34.906772  3459 net.cpp:380] conv2 -> conv2
I0911 21:33:34.918272  3459 net.cpp:122] Setting up conv2
I0911 21:33:34.918283  3459 net.cpp:129] Top shape: 50 192 14 14 (1881600)
I0911 21:33:34.918296  3459 net.cpp:137] Memory required for data: 156016600
I0911 21:33:34.918303  3459 layer_factory.hpp:77] Creating layer relu_conv2
I0911 21:33:34.918306  3459 net.cpp:84] Creating Layer relu_conv2
I0911 21:33:34.918309  3459 net.cpp:406] relu_conv2 <- conv2
I0911 21:33:34.918314  3459 net.cpp:380] relu_conv2 -> relu_conv2
I0911 21:33:34.918478  3459 net.cpp:122] Setting up relu_conv2
I0911 21:33:34.918484  3459 net.cpp:129] Top shape: 50 192 14 14 (1881600)
I0911 21:33:34.918488  3459 net.cpp:137] Memory required for data: 163543000
I0911 21:33:34.918489  3459 layer_factory.hpp:77] Creating layer cccp3
I0911 21:33:34.918496  3459 net.cpp:84] Creating Layer cccp3
I0911 21:33:34.918498  3459 net.cpp:406] cccp3 <- relu_conv2
I0911 21:33:34.918514  3459 net.cpp:380] cccp3 -> cccp3
I0911 21:33:34.920467  3459 net.cpp:122] Setting up cccp3
I0911 21:33:34.920485  3459 net.cpp:129] Top shape: 50 192 14 14 (1881600)
I0911 21:33:34.920488  3459 net.cpp:137] Memory required for data: 171069400
I0911 21:33:34.920496  3459 layer_factory.hpp:77] Creating layer relu_cccp3
I0911 21:33:34.920500  3459 net.cpp:84] Creating Layer relu_cccp3
I0911 21:33:34.920503  3459 net.cpp:406] relu_cccp3 <- cccp3
I0911 21:33:34.920506  3459 net.cpp:380] relu_cccp3 -> relu_cccp3
I0911 21:33:34.920641  3459 net.cpp:122] Setting up relu_cccp3
I0911 21:33:34.920650  3459 net.cpp:129] Top shape: 50 192 14 14 (1881600)
I0911 21:33:34.920651  3459 net.cpp:137] Memory required for data: 178595800
I0911 21:33:34.920653  3459 layer_factory.hpp:77] Creating layer cccp4
I0911 21:33:34.920661  3459 net.cpp:84] Creating Layer cccp4
I0911 21:33:34.920665  3459 net.cpp:406] cccp4 <- relu_cccp3
I0911 21:33:34.920668  3459 net.cpp:380] cccp4 -> cccp4
I0911 21:33:34.922314  3459 net.cpp:122] Setting up cccp4
I0911 21:33:34.922324  3459 net.cpp:129] Top shape: 50 192 14 14 (1881600)
I0911 21:33:34.922327  3459 net.cpp:137] Memory required for data: 186122200
I0911 21:33:34.922332  3459 layer_factory.hpp:77] Creating layer relu_cccp4
I0911 21:33:34.922336  3459 net.cpp:84] Creating Layer relu_cccp4
I0911 21:33:34.922338  3459 net.cpp:406] relu_cccp4 <- cccp4
I0911 21:33:34.922343  3459 net.cpp:380] relu_cccp4 -> relu_cccp4
I0911 21:33:34.922806  3459 net.cpp:122] Setting up relu_cccp4
I0911 21:33:34.922816  3459 net.cpp:129] Top shape: 50 192 14 14 (1881600)
I0911 21:33:34.922818  3459 net.cpp:137] Memory required for data: 193648600
I0911 21:33:34.922821  3459 layer_factory.hpp:77] Creating layer pool2
I0911 21:33:34.922827  3459 net.cpp:84] Creating Layer pool2
I0911 21:33:34.922830  3459 net.cpp:406] pool2 <- relu_cccp4
I0911 21:33:34.922843  3459 net.cpp:380] pool2 -> pool2
I0911 21:33:34.922979  3459 net.cpp:122] Setting up pool2
I0911 21:33:34.922986  3459 net.cpp:129] Top shape: 50 192 7 7 (470400)
I0911 21:33:34.922988  3459 net.cpp:137] Memory required for data: 195530200
I0911 21:33:34.923010  3459 layer_factory.hpp:77] Creating layer dropout2
I0911 21:33:34.923015  3459 net.cpp:84] Creating Layer dropout2
I0911 21:33:34.923018  3459 net.cpp:406] dropout2 <- pool2
I0911 21:33:34.923023  3459 net.cpp:380] dropout2 -> dropout2
I0911 21:33:34.923060  3459 net.cpp:122] Setting up dropout2
I0911 21:33:34.923065  3459 net.cpp:129] Top shape: 50 192 7 7 (470400)
I0911 21:33:34.923068  3459 net.cpp:137] Memory required for data: 197411800
I0911 21:33:34.923069  3459 layer_factory.hpp:77] Creating layer conv3
I0911 21:33:34.923075  3459 net.cpp:84] Creating Layer conv3
I0911 21:33:34.923079  3459 net.cpp:406] conv3 <- dropout2
I0911 21:33:34.923099  3459 net.cpp:380] conv3 -> conv3
I0911 21:33:34.932358  3459 net.cpp:122] Setting up conv3
I0911 21:33:34.932373  3459 net.cpp:129] Top shape: 50 192 7 7 (470400)
I0911 21:33:34.932375  3459 net.cpp:137] Memory required for data: 199293400
I0911 21:33:34.932381  3459 layer_factory.hpp:77] Creating layer relu_conv3
I0911 21:33:34.932387  3459 net.cpp:84] Creating Layer relu_conv3
I0911 21:33:34.932391  3459 net.cpp:406] relu_conv3 <- conv3
I0911 21:33:34.932406  3459 net.cpp:380] relu_conv3 -> relu_conv3
I0911 21:33:34.932555  3459 net.cpp:122] Setting up relu_conv3
I0911 21:33:34.932564  3459 net.cpp:129] Top shape: 50 192 7 7 (470400)
I0911 21:33:34.932565  3459 net.cpp:137] Memory required for data: 201175000
I0911 21:33:34.932567  3459 layer_factory.hpp:77] Creating layer cccp5
I0911 21:33:34.932575  3459 net.cpp:84] Creating Layer cccp5
I0911 21:33:34.932579  3459 net.cpp:406] cccp5 <- relu_conv3
I0911 21:33:34.932592  3459 net.cpp:380] cccp5 -> cccp5
I0911 21:33:34.934244  3459 net.cpp:122] Setting up cccp5
I0911 21:33:34.934254  3459 net.cpp:129] Top shape: 50 192 7 7 (470400)
I0911 21:33:34.934257  3459 net.cpp:137] Memory required for data: 203056600
I0911 21:33:34.934262  3459 layer_factory.hpp:77] Creating layer relu_cccp5
I0911 21:33:34.934267  3459 net.cpp:84] Creating Layer relu_cccp5
I0911 21:33:34.934268  3459 net.cpp:406] relu_cccp5 <- cccp5
I0911 21:33:34.934283  3459 net.cpp:380] relu_cccp5 -> relu_cccp5
I0911 21:33:34.934417  3459 net.cpp:122] Setting up relu_cccp5
I0911 21:33:34.934424  3459 net.cpp:129] Top shape: 50 192 7 7 (470400)
I0911 21:33:34.934427  3459 net.cpp:137] Memory required for data: 204938200
I0911 21:33:34.934429  3459 layer_factory.hpp:77] Creating layer cccp6
I0911 21:33:34.934437  3459 net.cpp:84] Creating Layer cccp6
I0911 21:33:34.934440  3459 net.cpp:406] cccp6 <- relu_cccp5
I0911 21:33:34.934454  3459 net.cpp:380] cccp6 -> cccp6
I0911 21:33:34.935343  3459 net.cpp:122] Setting up cccp6
I0911 21:33:34.935353  3459 net.cpp:129] Top shape: 50 10 7 7 (24500)
I0911 21:33:34.935356  3459 net.cpp:137] Memory required for data: 205036200
I0911 21:33:34.935364  3459 layer_factory.hpp:77] Creating layer relu_cccp6
I0911 21:33:34.935384  3459 net.cpp:84] Creating Layer relu_cccp6
I0911 21:33:34.935386  3459 net.cpp:406] relu_cccp6 <- cccp6
I0911 21:33:34.935403  3459 net.cpp:380] relu_cccp6 -> relu_cccp6
I0911 21:33:34.935559  3459 net.cpp:122] Setting up relu_cccp6
I0911 21:33:34.935566  3459 net.cpp:129] Top shape: 50 10 7 7 (24500)
I0911 21:33:34.935569  3459 net.cpp:137] Memory required for data: 205134200
I0911 21:33:34.935570  3459 layer_factory.hpp:77] Creating layer pool3
I0911 21:33:34.935575  3459 net.cpp:84] Creating Layer pool3
I0911 21:33:34.935578  3459 net.cpp:406] pool3 <- relu_cccp6
I0911 21:33:34.935593  3459 net.cpp:380] pool3 -> pool3
I0911 21:33:34.936051  3459 net.cpp:122] Setting up pool3
I0911 21:33:34.936061  3459 net.cpp:129] Top shape: 50 10 1 1 (500)
I0911 21:33:34.936064  3459 net.cpp:137] Memory required for data: 205136200
I0911 21:33:34.936066  3459 layer_factory.hpp:77] Creating layer pool3_pool3_0_split
I0911 21:33:34.936071  3459 net.cpp:84] Creating Layer pool3_pool3_0_split
I0911 21:33:34.936090  3459 net.cpp:406] pool3_pool3_0_split <- pool3
I0911 21:33:34.936105  3459 net.cpp:380] pool3_pool3_0_split -> pool3_pool3_0_split_0
I0911 21:33:34.936110  3459 net.cpp:380] pool3_pool3_0_split -> pool3_pool3_0_split_1
I0911 21:33:34.936172  3459 net.cpp:122] Setting up pool3_pool3_0_split
I0911 21:33:34.936177  3459 net.cpp:129] Top shape: 50 10 1 1 (500)
I0911 21:33:34.936190  3459 net.cpp:129] Top shape: 50 10 1 1 (500)
I0911 21:33:34.936192  3459 net.cpp:137] Memory required for data: 205140200
I0911 21:33:34.936194  3459 layer_factory.hpp:77] Creating layer accuracy
I0911 21:33:34.936208  3459 net.cpp:84] Creating Layer accuracy
I0911 21:33:34.936211  3459 net.cpp:406] accuracy <- pool3_pool3_0_split_0
I0911 21:33:34.936214  3459 net.cpp:406] accuracy <- label_cifar_1_split_0
I0911 21:33:34.936228  3459 net.cpp:380] accuracy -> accuracy
…
