…
I0918 20:00:44.583963   987 net.cpp:294] The NetState phase (0) differed from the phase (1) specified by a rule in layer cifar
I0918 20:00:44.584190   987 net.cpp:51] Initializing net from parameters: 
name: "nin"
state {
  phase: TRAIN
  level: 0
  stage: ""
}
layer {
  name: "cifar"
  type: "Data"
  top: "data"
  top: "label"
  include {
    phase: TRAIN
  }
  transform_param {
    mirror: true
    crop_size: 28
    mean_file: "/home/x306/caffe/xn/PENLU/data/cifar10/mean.binaryproto"
  }
  data_param {
    source: "/home/x306/caffe/xn/PENLU/data/cifar10/cifar10_train_lmdb"
    batch_size: 64
    backend: LMDB
  }
  image_data_param {
    shuffle: true
  }
}
layer {
  name: "conv1"
  type: "Convolution"
  bottom: "data"
  top: "conv1"
  param {
    lr_mult: 1
    decay_mult: 1
  }
  param {
    lr_mult: 2
    decay_mult: 0
  }
  convolution_param {
    num_output: 192
    pad: 2
    kernel_size: 5
    weight_filler {
      type: "gaussian"
      std: 0.05
    }
    bias_filler {
      type: "constant"
      value: 0
    }
  }
}
layer {
  name: "penlu_conv1"
  type: "PENLU"
  bottom: "conv1"
  top: "penlu_conv1"
  param {
    lr_mult: 1
    decay_mult: 0
  }
  param {
    lr_mult: 1
    decay_mult: 0
  }
  param {
    lr_mult: 1
    decay_mult: 0
  }
  penlu_param {
    alpha_filler {
      type: "constant"
      value: 2
    }
    beta_filler {
      type: "constant"
      value: 1
    }
    eta_filler {
      type: "constant"
      value: 0.85
    }
  }
}
layer {
  name: "cccp1"
  type: "Convolution"
  bottom: "penlu_conv1"
  top: "cccp1"
  param {
    lr_mult: 1
    decay_mult: 1
  }
  param {
    lr_mult: 2
    decay_mult: 0
  }
  convolution_param {
    num_output: 160
    kernel_size: 1
    weight_filler {
      type: "gaussian"
      std: 0.05
    }
    bias_filler {
      type: "constant"
      value: 0
    }
  }
}
layer {
  name: "penlu_cccp1"
  type: "PENLU"
  bottom: "cccp1"
  top: "penlu_cccp1"
  param {
    lr_mult: 1
    decay_mult: 0
  }
  param {
    lr_mult: 1
    decay_mult: 0
  }
  param {
    lr_mult: 1
    decay_mult: 0
  }
  penlu_param {
    alpha_filler {
      type: "constant"
      value: 2
    }
    beta_filler {
      type: "constant"
      value: 1
    }
    eta_filler {
      type: "constant"
      value: 0.85
    }
  }
}
layer {
  name: "cccp2"
  type: "Convolution"
  bottom: "penlu_cccp1"
  top: "cccp2"
  param {
    lr_mult: 1
    decay_mult: 1
  }
  param {
    lr_mult: 2
    decay_mult: 0
  }
  convolution_param {
    num_output: 96
    kernel_size: 1
    weight_filler {
      type: "gaussian"
      std: 0.05
    }
    bias_filler {
      type: "constant"
      value: 0
    }
  }
}
layer {
  name: "penlu_cccp2"
  type: "PENLU"
  bottom: "cccp2"
  top: "penlu_cccp2"
  param {
    lr_mult: 1
    decay_mult: 0
  }
  param {
    lr_mult: 1
    decay_mult: 0
  }
  param {
    lr_mult: 1
    decay_mult: 0
  }
  penlu_param {
    alpha_filler {
      type: "constant"
      value: 2
    }
    beta_filler {
      type: "constant"
      value: 1
    }
    eta_filler {
      type: "constant"
      value: 0.85
    }
  }
}
layer {
  name: "pool1"
  type: "Pooling"
  bottom: "penlu_cccp2"
  top: "pool1"
  pooling_param {
    pool: MAX
    kernel_size: 3
    stride: 2
  }
}
layer {
  name: "dropout1"
  type: "Dropout"
  bottom: "pool1"
  top: "dropout1"
  dropout_param {
    dropout_ratio: 0.5
  }
}
layer {
  name: "conv2"
  type: "Convolution"
  bottom: "dropout1"
  top: "conv2"
  param {
    lr_mult: 1
    decay_mult: 1
  }
  param {
    lr_mult: 2
    decay_mult: 0
  }
  convolution_param {
    num_output: 192
    pad: 2
    kernel_size: 5
    weight_filler {
      type: "gaussian"
      std: 0.05
    }
    bias_filler {
      type: "constant"
      value: 0
    }
  }
}
layer {
  name: "penlu_conv2"
  type: "PENLU"
  bottom: "conv2"
  top: "penlu_conv2"
  param {
    lr_mult: 1
    decay_mult: 0
  }
  param {
    lr_mult: 1
    decay_mult: 0
  }
  param {
    lr_mult: 1
    decay_mult: 0
  }
  penlu_param {
    alpha_filler {
      type: "constant"
      value: 2
    }
    beta_filler {
      type: "constant"
      value: 1
    }
    eta_filler {
      type: "constant"
      value: 0.85
    }
  }
}
layer {
  name: "cccp3"
  type: "Convolution"
  bottom: "penlu_conv2"
  top: "cccp3"
  param {
    lr_mult: 1
    decay_mult: 1
  }
  param {
    lr_mult: 2
    decay_mult: 0
  }
  convolution_param {
    num_output: 192
    kernel_size: 1
    weight_filler {
      type: "gaussian"
      std: 0.05
    }
    bias_filler {
      type: "constant"
      value: 0
    }
  }
}
layer {
  name: "penlu_cccp3"
  type: "PENLU"
  bottom: "cccp3"
  top: "penlu_cccp3"
  param {
    lr_mult: 1
    decay_mult: 0
  }
  param {
    lr_mult: 1
    decay_mult: 0
  }
  param {
    lr_mult: 1
    decay_mult: 0
  }
  penlu_param {
    alpha_filler {
      type: "constant"
      value: 2
    }
    beta_filler {
      type: "constant"
      value: 1
    }
    eta_filler {
      type: "constant"
      value: 0.85
    }
  }
}
layer {
  name: "cccp4"
  type: "Convolution"
  bottom: "penlu_cccp3"
  top: "cccp4"
  param {
    lr_mult: 1
    decay_mult: 1
  }
  param {
    lr_mult: 2
    decay_mult: 0
  }
  convolution_param {
    num_output: 192
    kernel_size: 1
    weight_filler {
      type: "gaussian"
      std: 0.05
    }
    bias_filler {
      type: "constant"
      value: 0
    }
  }
}
layer {
  name: "penlu_cccp4"
  type: "PENLU"
  bottom: "cccp4"
  top: "penlu_cccp4"
  param {
    lr_mult: 1
    decay_mult: 0
  }
  param {
    lr_mult: 1
    decay_mult: 0
  }
  param {
    lr_mult: 1
    decay_mult: 0
  }
  penlu_param {
    alpha_filler {
      type: "constant"
      value: 2
    }
    beta_filler {
      type: "constant"
      value: 1
    }
    eta_filler {
      type: "constant"
      value: 0.85
    }
  }
}
layer {
  name: "pool2"
  type: "Pooling"
  bottom: "penlu_cccp4"
  top: "pool2"
  pooling_param {
    pool: AVE
    kernel_size: 3
    stride: 2
  }
}
layer {
  name: "dropout2"
  type: "Dropout"
  bottom: "pool2"
  top: "dropout2"
  dropout_param {
    dropout_ratio: 0.5
  }
}
layer {
  name: "conv3"
  type: "Convolution"
  bottom: "dropout2"
  top: "conv3"
  param {
    lr_mult: 1
    decay_mult: 1
  }
  param {
    lr_mult: 2
    decay_mult: 0
  }
  convolution_param {
    num_output: 192
    pad: 1
    kernel_size: 3
    weight_filler {
      type: "gaussian"
      std: 0.05
    }
    bias_filler {
      type: "constant"
      value: 0
    }
  }
}
layer {
  name: "penlu_conv3"
  type: "PENLU"
  bottom: "conv3"
  top: "penlu_conv3"
  param {
    lr_mult: 1
    decay_mult: 0
  }
  param {
    lr_mult: 1
    decay_mult: 0
  }
  param {
    lr_mult: 1
    decay_mult: 0
  }
  penlu_param {
    alpha_filler {
      type: "constant"
      value: 2
    }
    beta_filler {
      type: "constant"
      value: 1
    }
    eta_filler {
      type: "constant"
      value: 0.85
    }
  }
}
layer {
  name: "cccp5"
  type: "Convolution"
  bottom: "penlu_conv3"
  top: "cccp5"
  param {
    lr_mult: 1
    decay_mult: 1
  }
  param {
    lr_mult: 2
    decay_mult: 0
  }
  convolution_param {
    num_output: 192
    kernel_size: 1
    weight_filler {
      type: "gaussian"
      std: 0.05
    }
    bias_filler {
      type: "constant"
      value: 0
    }
  }
}
layer {
  name: "penlu_cccp5"
  type: "PENLU"
  bottom: "cccp5"
  top: "penlu_cccp5"
  param {
    lr_mult: 1
    decay_mult: 0
  }
  param {
    lr_mult: 1
    decay_mult: 0
  }
  param {
    lr_mult: 1
    decay_mult: 0
  }
  penlu_param {
    alpha_filler {
      type: "constant"
      value: 2
    }
    beta_filler {
      type: "constant"
      value: 1
    }
    eta_filler {
      type: "constant"
      value: 0.85
    }
  }
}
layer {
  name: "cccp6"
  type: "Convolution"
  bottom: "penlu_cccp5"
  top: "cccp6"
  param {
    lr_mult: 0.1
    decay_mult: 1
  }
  param {
    lr_mult: 0.1
    decay_mult: 0
  }
  convolution_param {
    num_output: 10
    kernel_size: 1
    weight_filler {
      type: "gaussian"
      std: 0.05
    }
    bias_filler {
      type: "constant"
      value: 0
    }
  }
}
layer {
  name: "penlu_cccp6"
  type: "PENLU"
  bottom: "cccp6"
  top: "penlu_cccp6"
  param {
    lr_mult: 1
    decay_mult: 0
  }
  param {
    lr_mult: 1
    decay_mult: 0
  }
  param {
    lr_mult: 1
    decay_mult: 0
  }
  penlu_param {
    alpha_filler {
      type: "constant"
      value: 2
    }
    beta_filler {
      type: "constant"
      value: 1
    }
    eta_filler {
      type: "constant"
      value: 0.85
    }
  }
}
layer {
  name: "pool3"
  type: "Pooling"
  bottom: "penlu_cccp6"
  top: "pool3"
  pooling_param {
    pool: AVE
    kernel_size: 7
    stride: 1
  }
}
layer {
  name: "accuracy"
  type: "Accuracy"
  bottom: "pool3"
  bottom: "label"
  top: "accuracy"
}
layer {
  name: "loss"
  type: "SoftmaxWithLoss"
  bottom: "pool3"
  bottom: "label"
  top: "loss"
}
I0918 20:00:44.584388   987 layer_factory.hpp:77] Creating layer cifar
I0918 20:00:44.584504   987 db_lmdb.cpp:35] Opened lmdb /home/x306/caffe/xn/PENLU/data/cifar10/cifar10_train_lmdb
I0918 20:00:44.584537   987 net.cpp:84] Creating Layer cifar
I0918 20:00:44.584544   987 net.cpp:380] cifar -> data
I0918 20:00:44.584573   987 net.cpp:380] cifar -> label
I0918 20:00:44.584594   987 data_transformer.cpp:25] Loading mean file from: /home/x306/caffe/xn/PENLU/data/cifar10/mean.binaryproto
I0918 20:00:44.585971   987 data_layer.cpp:45] output data size: 64,3,28,28
I0918 20:00:44.588066   987 net.cpp:122] Setting up cifar
I0918 20:00:44.588099   987 net.cpp:129] Top shape: 64 3 28 28 (150528)
I0918 20:00:44.588102   987 net.cpp:129] Top shape: 64 (64)
I0918 20:00:44.588105   987 net.cpp:137] Memory required for data: 602368
I0918 20:00:44.588111   987 layer_factory.hpp:77] Creating layer label_cifar_1_split
I0918 20:00:44.588125   987 net.cpp:84] Creating Layer label_cifar_1_split
I0918 20:00:44.588130   987 net.cpp:406] label_cifar_1_split <- label
I0918 20:00:44.588140   987 net.cpp:380] label_cifar_1_split -> label_cifar_1_split_0
I0918 20:00:44.588147   987 net.cpp:380] label_cifar_1_split -> label_cifar_1_split_1
I0918 20:00:44.588181   987 net.cpp:122] Setting up label_cifar_1_split
I0918 20:00:44.588187   987 net.cpp:129] Top shape: 64 (64)
I0918 20:00:44.588193   987 net.cpp:129] Top shape: 64 (64)
I0918 20:00:44.588197   987 net.cpp:137] Memory required for data: 602880
I0918 20:00:44.588201   987 layer_factory.hpp:77] Creating layer conv1
I0918 20:00:44.588215   987 net.cpp:84] Creating Layer conv1
I0918 20:00:44.588219   987 net.cpp:406] conv1 <- data
I0918 20:00:44.588227   987 net.cpp:380] conv1 -> conv1
I0918 20:00:44.735709   987 net.cpp:122] Setting up conv1
I0918 20:00:44.735736   987 net.cpp:129] Top shape: 64 192 28 28 (9633792)
I0918 20:00:44.735739   987 net.cpp:137] Memory required for data: 39138048
I0918 20:00:44.735754   987 layer_factory.hpp:77] Creating layer penlu_conv1
I0918 20:00:44.735782   987 net.cpp:84] Creating Layer penlu_conv1
I0918 20:00:44.735788   987 net.cpp:406] penlu_conv1 <- conv1
I0918 20:00:44.735807   987 net.cpp:380] penlu_conv1 -> penlu_conv1
I0918 20:00:44.736049   987 net.cpp:122] Setting up penlu_conv1
I0918 20:00:44.736057   987 net.cpp:129] Top shape: 64 192 28 28 (9633792)
I0918 20:00:44.736059   987 net.cpp:137] Memory required for data: 77673216
I0918 20:00:44.736066   987 layer_factory.hpp:77] Creating layer cccp1
I0918 20:00:44.736075   987 net.cpp:84] Creating Layer cccp1
I0918 20:00:44.736091   987 net.cpp:406] cccp1 <- penlu_conv1
I0918 20:00:44.736099   987 net.cpp:380] cccp1 -> cccp1
I0918 20:00:44.738035   987 net.cpp:122] Setting up cccp1
I0918 20:00:44.738056   987 net.cpp:129] Top shape: 64 160 28 28 (8028160)
I0918 20:00:44.738059   987 net.cpp:137] Memory required for data: 109785856
I0918 20:00:44.738065   987 layer_factory.hpp:77] Creating layer penlu_cccp1
I0918 20:00:44.738070   987 net.cpp:84] Creating Layer penlu_cccp1
I0918 20:00:44.738073   987 net.cpp:406] penlu_cccp1 <- cccp1
I0918 20:00:44.738090   987 net.cpp:380] penlu_cccp1 -> penlu_cccp1
I0918 20:00:44.738283   987 net.cpp:122] Setting up penlu_cccp1
I0918 20:00:44.738291   987 net.cpp:129] Top shape: 64 160 28 28 (8028160)
I0918 20:00:44.738302   987 net.cpp:137] Memory required for data: 141898496
I0918 20:00:44.738309   987 layer_factory.hpp:77] Creating layer cccp2
I0918 20:00:44.738328   987 net.cpp:84] Creating Layer cccp2
I0918 20:00:44.738333   987 net.cpp:406] cccp2 <- penlu_cccp1
I0918 20:00:44.738340   987 net.cpp:380] cccp2 -> cccp2
I0918 20:00:44.739519   987 net.cpp:122] Setting up cccp2
I0918 20:00:44.739529   987 net.cpp:129] Top shape: 64 96 28 28 (4816896)
I0918 20:00:44.739533   987 net.cpp:137] Memory required for data: 161166080
I0918 20:00:44.739537   987 layer_factory.hpp:77] Creating layer penlu_cccp2
I0918 20:00:44.739542   987 net.cpp:84] Creating Layer penlu_cccp2
I0918 20:00:44.739547   987 net.cpp:406] penlu_cccp2 <- cccp2
I0918 20:00:44.739563   987 net.cpp:380] penlu_cccp2 -> penlu_cccp2
I0918 20:00:44.739738   987 net.cpp:122] Setting up penlu_cccp2
I0918 20:00:44.739747   987 net.cpp:129] Top shape: 64 96 28 28 (4816896)
I0918 20:00:44.739758   987 net.cpp:137] Memory required for data: 180433664
I0918 20:00:44.739763   987 layer_factory.hpp:77] Creating layer pool1
I0918 20:00:44.739773   987 net.cpp:84] Creating Layer pool1
I0918 20:00:44.739778   987 net.cpp:406] pool1 <- penlu_cccp2
I0918 20:00:44.739781   987 net.cpp:380] pool1 -> pool1
I0918 20:00:44.739830   987 net.cpp:122] Setting up pool1
I0918 20:00:44.739845   987 net.cpp:129] Top shape: 64 96 14 14 (1204224)
I0918 20:00:44.739847   987 net.cpp:137] Memory required for data: 185250560
I0918 20:00:44.739850   987 layer_factory.hpp:77] Creating layer dropout1
I0918 20:00:44.739863   987 net.cpp:84] Creating Layer dropout1
I0918 20:00:44.739866   987 net.cpp:406] dropout1 <- pool1
I0918 20:00:44.739871   987 net.cpp:380] dropout1 -> dropout1
I0918 20:00:44.739912   987 net.cpp:122] Setting up dropout1
I0918 20:00:44.739918   987 net.cpp:129] Top shape: 64 96 14 14 (1204224)
I0918 20:00:44.739920   987 net.cpp:137] Memory required for data: 190067456
I0918 20:00:44.739924   987 layer_factory.hpp:77] Creating layer conv2
I0918 20:00:44.739943   987 net.cpp:84] Creating Layer conv2
I0918 20:00:44.739955   987 net.cpp:406] conv2 <- dropout1
I0918 20:00:44.739961   987 net.cpp:380] conv2 -> conv2
I0918 20:00:44.751854   987 net.cpp:122] Setting up conv2
I0918 20:00:44.751869   987 net.cpp:129] Top shape: 64 192 14 14 (2408448)
I0918 20:00:44.751873   987 net.cpp:137] Memory required for data: 199701248
I0918 20:00:44.751880   987 layer_factory.hpp:77] Creating layer penlu_conv2
I0918 20:00:44.751889   987 net.cpp:84] Creating Layer penlu_conv2
I0918 20:00:44.751904   987 net.cpp:406] penlu_conv2 <- conv2
I0918 20:00:44.751911   987 net.cpp:380] penlu_conv2 -> penlu_conv2
I0918 20:00:44.752081   987 net.cpp:122] Setting up penlu_conv2
I0918 20:00:44.752089   987 net.cpp:129] Top shape: 64 192 14 14 (2408448)
I0918 20:00:44.752090   987 net.cpp:137] Memory required for data: 209335040
I0918 20:00:44.752095   987 layer_factory.hpp:77] Creating layer cccp3
I0918 20:00:44.752102   987 net.cpp:84] Creating Layer cccp3
I0918 20:00:44.752106   987 net.cpp:406] cccp3 <- penlu_conv2
I0918 20:00:44.752123   987 net.cpp:380] cccp3 -> cccp3
I0918 20:00:44.753721   987 net.cpp:122] Setting up cccp3
I0918 20:00:44.753731   987 net.cpp:129] Top shape: 64 192 14 14 (2408448)
I0918 20:00:44.753733   987 net.cpp:137] Memory required for data: 218968832
I0918 20:00:44.753738   987 layer_factory.hpp:77] Creating layer penlu_cccp3
I0918 20:00:44.753744   987 net.cpp:84] Creating Layer penlu_cccp3
I0918 20:00:44.753769   987 net.cpp:406] penlu_cccp3 <- cccp3
I0918 20:00:44.753778   987 net.cpp:380] penlu_cccp3 -> penlu_cccp3
I0918 20:00:44.753945   987 net.cpp:122] Setting up penlu_cccp3
I0918 20:00:44.753952   987 net.cpp:129] Top shape: 64 192 14 14 (2408448)
I0918 20:00:44.753953   987 net.cpp:137] Memory required for data: 228602624
I0918 20:00:44.753958   987 layer_factory.hpp:77] Creating layer cccp4
I0918 20:00:44.753967   987 net.cpp:84] Creating Layer cccp4
I0918 20:00:44.753981   987 net.cpp:406] cccp4 <- penlu_cccp3
I0918 20:00:44.753986   987 net.cpp:380] cccp4 -> cccp4
I0918 20:00:44.755679   987 net.cpp:122] Setting up cccp4
I0918 20:00:44.755700   987 net.cpp:129] Top shape: 64 192 14 14 (2408448)
I0918 20:00:44.755703   987 net.cpp:137] Memory required for data: 238236416
I0918 20:00:44.755708   987 layer_factory.hpp:77] Creating layer penlu_cccp4
I0918 20:00:44.755723   987 net.cpp:84] Creating Layer penlu_cccp4
I0918 20:00:44.755728   987 net.cpp:406] penlu_cccp4 <- cccp4
I0918 20:00:44.755744   987 net.cpp:380] penlu_cccp4 -> penlu_cccp4
I0918 20:00:44.755908   987 net.cpp:122] Setting up penlu_cccp4
I0918 20:00:44.755914   987 net.cpp:129] Top shape: 64 192 14 14 (2408448)
I0918 20:00:44.755926   987 net.cpp:137] Memory required for data: 247870208
I0918 20:00:44.755933   987 layer_factory.hpp:77] Creating layer pool2
I0918 20:00:44.755952   987 net.cpp:84] Creating Layer pool2
I0918 20:00:44.755956   987 net.cpp:406] pool2 <- penlu_cccp4
I0918 20:00:44.755960   987 net.cpp:380] pool2 -> pool2
I0918 20:00:44.756124   987 net.cpp:122] Setting up pool2
I0918 20:00:44.756132   987 net.cpp:129] Top shape: 64 192 7 7 (602112)
I0918 20:00:44.756135   987 net.cpp:137] Memory required for data: 250278656
I0918 20:00:44.756139   987 layer_factory.hpp:77] Creating layer dropout2
I0918 20:00:44.756155   987 net.cpp:84] Creating Layer dropout2
I0918 20:00:44.756158   987 net.cpp:406] dropout2 <- pool2
I0918 20:00:44.756162   987 net.cpp:380] dropout2 -> dropout2
I0918 20:00:44.756202   987 net.cpp:122] Setting up dropout2
I0918 20:00:44.756208   987 net.cpp:129] Top shape: 64 192 7 7 (602112)
I0918 20:00:44.756211   987 net.cpp:137] Memory required for data: 252687104
I0918 20:00:44.756216   987 layer_factory.hpp:77] Creating layer conv3
I0918 20:00:44.756227   987 net.cpp:84] Creating Layer conv3
I0918 20:00:44.756242   987 net.cpp:406] conv3 <- dropout2
I0918 20:00:44.756249   987 net.cpp:380] conv3 -> conv3
I0918 20:00:44.765545   987 net.cpp:122] Setting up conv3
I0918 20:00:44.765559   987 net.cpp:129] Top shape: 64 192 7 7 (602112)
I0918 20:00:44.765563   987 net.cpp:137] Memory required for data: 255095552
I0918 20:00:44.765578   987 layer_factory.hpp:77] Creating layer penlu_conv3
I0918 20:00:44.765599   987 net.cpp:84] Creating Layer penlu_conv3
I0918 20:00:44.765604   987 net.cpp:406] penlu_conv3 <- conv3
I0918 20:00:44.765621   987 net.cpp:380] penlu_conv3 -> penlu_conv3
I0918 20:00:44.765775   987 net.cpp:122] Setting up penlu_conv3
I0918 20:00:44.765784   987 net.cpp:129] Top shape: 64 192 7 7 (602112)
I0918 20:00:44.765786   987 net.cpp:137] Memory required for data: 257504000
I0918 20:00:44.765807   987 layer_factory.hpp:77] Creating layer cccp5
I0918 20:00:44.765828   987 net.cpp:84] Creating Layer cccp5
I0918 20:00:44.765833   987 net.cpp:406] cccp5 <- penlu_conv3
I0918 20:00:44.765841   987 net.cpp:380] cccp5 -> cccp5
I0918 20:00:44.767498   987 net.cpp:122] Setting up cccp5
I0918 20:00:44.767508   987 net.cpp:129] Top shape: 64 192 7 7 (602112)
I0918 20:00:44.767510   987 net.cpp:137] Memory required for data: 259912448
I0918 20:00:44.767514   987 layer_factory.hpp:77] Creating layer penlu_cccp5
I0918 20:00:44.767521   987 net.cpp:84] Creating Layer penlu_cccp5
I0918 20:00:44.767524   987 net.cpp:406] penlu_cccp5 <- cccp5
I0918 20:00:44.767539   987 net.cpp:380] penlu_cccp5 -> penlu_cccp5
I0918 20:00:44.767671   987 net.cpp:122] Setting up penlu_cccp5
I0918 20:00:44.767678   987 net.cpp:129] Top shape: 64 192 7 7 (602112)
I0918 20:00:44.767691   987 net.cpp:137] Memory required for data: 262320896
I0918 20:00:44.767714   987 layer_factory.hpp:77] Creating layer cccp6
I0918 20:00:44.767724   987 net.cpp:84] Creating Layer cccp6
I0918 20:00:44.767730   987 net.cpp:406] cccp6 <- penlu_cccp5
I0918 20:00:44.767746   987 net.cpp:380] cccp6 -> cccp6
I0918 20:00:44.768640   987 net.cpp:122] Setting up cccp6
I0918 20:00:44.768649   987 net.cpp:129] Top shape: 64 10 7 7 (31360)
I0918 20:00:44.768652   987 net.cpp:137] Memory required for data: 262446336
I0918 20:00:44.768656   987 layer_factory.hpp:77] Creating layer penlu_cccp6
I0918 20:00:44.768672   987 net.cpp:84] Creating Layer penlu_cccp6
I0918 20:00:44.768676   987 net.cpp:406] penlu_cccp6 <- cccp6
I0918 20:00:44.768682   987 net.cpp:380] penlu_cccp6 -> penlu_cccp6
I0918 20:00:44.768810   987 net.cpp:122] Setting up penlu_cccp6
I0918 20:00:44.768816   987 net.cpp:129] Top shape: 64 10 7 7 (31360)
I0918 20:00:44.768820   987 net.cpp:137] Memory required for data: 262571776
I0918 20:00:44.768823   987 layer_factory.hpp:77] Creating layer pool3
I0918 20:00:44.768828   987 net.cpp:84] Creating Layer pool3
I0918 20:00:44.768831   987 net.cpp:406] pool3 <- penlu_cccp6
I0918 20:00:44.768838   987 net.cpp:380] pool3 -> pool3
I0918 20:00:44.768995   987 net.cpp:122] Setting up pool3
I0918 20:00:44.769002   987 net.cpp:129] Top shape: 64 10 1 1 (640)
I0918 20:00:44.769004   987 net.cpp:137] Memory required for data: 262574336
I0918 20:00:44.769007   987 layer_factory.hpp:77] Creating layer pool3_pool3_0_split
I0918 20:00:44.769011   987 net.cpp:84] Creating Layer pool3_pool3_0_split
I0918 20:00:44.769013   987 net.cpp:406] pool3_pool3_0_split <- pool3
I0918 20:00:44.769028   987 net.cpp:380] pool3_pool3_0_split -> pool3_pool3_0_split_0
I0918 20:00:44.769035   987 net.cpp:380] pool3_pool3_0_split -> pool3_pool3_0_split_1
I0918 20:00:44.769079   987 net.cpp:122] Setting up pool3_pool3_0_split
I0918 20:00:44.769085   987 net.cpp:129] Top shape: 64 10 1 1 (640)
I0918 20:00:44.769089   987 net.cpp:129] Top shape: 64 10 1 1 (640)
I0918 20:00:44.769091   987 net.cpp:137] Memory required for data: 262579456
I0918 20:00:44.769093   987 layer_factory.hpp:77] Creating layer accuracy
I0918 20:00:44.769111   987 net.cpp:84] Creating Layer accuracy
I0918 20:00:44.769116   987 net.cpp:406] accuracy <- pool3_pool3_0_split_0
I0918 20:00:44.769130   987 net.cpp:406] accuracy <- label_cifar_1_split_0
I0918 20:00:44.769136   987 net.cpp:380] accuracy -> accuracy
…
I0918 20:00:44.770136   987 net.cpp:294] The NetState phase (1) differed from the phase (0) specified by a rule in layer cifar
I0918 20:00:44.770314   987 net.cpp:51] Initializing net from parameters: 
name: "nin"
state {
  phase: TEST
}
layer {
  name: "cifar"
  type: "Data"
  top: "data"
  top: "label"
  include {
    phase: TEST
  }
  transform_param {
    mirror: false
    crop_size: 28
    mean_file: "/home/x306/caffe/xn/PENLU/data/cifar10/mean.binaryproto"
  }
  data_param {
    source: "/home/x306/caffe/xn/PENLU/data/cifar10/cifar10_test_lmdb"
    batch_size: 50
    backend: LMDB
  }
}
layer {
  name: "conv1"
  type: "Convolution"
  bottom: "data"
  top: "conv1"
  param {
    lr_mult: 1
    decay_mult: 1
  }
  param {
    lr_mult: 2
    decay_mult: 0
  }
  convolution_param {
    num_output: 192
    pad: 2
    kernel_size: 5
    weight_filler {
      type: "gaussian"
      std: 0.05
    }
    bias_filler {
      type: "constant"
      value: 0
    }
  }
}
layer {
  name: "penlu_conv1"
  type: "PENLU"
  bottom: "conv1"
  top: "penlu_conv1"
  param {
    lr_mult: 1
    decay_mult: 0
  }
  param {
    lr_mult: 1
    decay_mult: 0
  }
  param {
    lr_mult: 1
    decay_mult: 0
  }
  penlu_param {
    alpha_filler {
      type: "constant"
      value: 2
    }
    beta_filler {
      type: "constant"
      value: 1
    }
    eta_filler {
      type: "constant"
      value: 0.85
    }
  }
}
layer {
  name: "cccp1"
  type: "Convolution"
  bottom: "penlu_conv1"
  top: "cccp1"
  param {
    lr_mult: 1
    decay_mult: 1
  }
  param {
    lr_mult: 2
    decay_mult: 0
  }
  convolution_param {
    num_output: 160
    kernel_size: 1
    weight_filler {
      type: "gaussian"
      std: 0.05
    }
    bias_filler {
      type: "constant"
      value: 0
    }
  }
}
layer {
  name: "penlu_cccp1"
  type: "PENLU"
  bottom: "cccp1"
  top: "penlu_cccp1"
  param {
    lr_mult: 1
    decay_mult: 0
  }
  param {
    lr_mult: 1
    decay_mult: 0
  }
  param {
    lr_mult: 1
    decay_mult: 0
  }
  penlu_param {
    alpha_filler {
      type: "constant"
      value: 2
    }
    beta_filler {
      type: "constant"
      value: 1
    }
    eta_filler {
      type: "constant"
      value: 0.85
    }
  }
}
layer {
  name: "cccp2"
  type: "Convolution"
  bottom: "penlu_cccp1"
  top: "cccp2"
  param {
    lr_mult: 1
    decay_mult: 1
  }
  param {
    lr_mult: 2
    decay_mult: 0
  }
  convolution_param {
    num_output: 96
    kernel_size: 1
    weight_filler {
      type: "gaussian"
      std: 0.05
    }
    bias_filler {
      type: "constant"
      value: 0
    }
  }
}
layer {
  name: "penlu_cccp2"
  type: "PENLU"
  bottom: "cccp2"
  top: "penlu_cccp2"
  param {
    lr_mult: 1
    decay_mult: 0
  }
  param {
    lr_mult: 1
    decay_mult: 0
  }
  param {
    lr_mult: 1
    decay_mult: 0
  }
  penlu_param {
    alpha_filler {
      type: "constant"
      value: 2
    }
    beta_filler {
      type: "constant"
      value: 1
    }
    eta_filler {
      type: "constant"
      value: 0.85
    }
  }
}
layer {
  name: "pool1"
  type: "Pooling"
  bottom: "penlu_cccp2"
  top: "pool1"
  pooling_param {
    pool: MAX
    kernel_size: 3
    stride: 2
  }
}
layer {
  name: "dropout1"
  type: "Dropout"
  bottom: "pool1"
  top: "dropout1"
  dropout_param {
    dropout_ratio: 0.5
  }
}
layer {
  name: "conv2"
  type: "Convolution"
  bottom: "dropout1"
  top: "conv2"
  param {
    lr_mult: 1
    decay_mult: 1
  }
  param {
    lr_mult: 2
    decay_mult: 0
  }
  convolution_param {
    num_output: 192
    pad: 2
    kernel_size: 5
    weight_filler {
      type: "gaussian"
      std: 0.05
    }
    bias_filler {
      type: "constant"
      value: 0
    }
  }
}
layer {
  name: "penlu_conv2"
  type: "PENLU"
  bottom: "conv2"
  top: "penlu_conv2"
  param {
    lr_mult: 1
    decay_mult: 0
  }
  param {
    lr_mult: 1
    decay_mult: 0
  }
  param {
    lr_mult: 1
    decay_mult: 0
  }
  penlu_param {
    alpha_filler {
      type: "constant"
      value: 2
    }
    beta_filler {
      type: "constant"
      value: 1
    }
    eta_filler {
      type: "constant"
      value: 0.85
    }
  }
}
layer {
  name: "cccp3"
  type: "Convolution"
  bottom: "penlu_conv2"
  top: "cccp3"
  param {
    lr_mult: 1
    decay_mult: 1
  }
  param {
    lr_mult: 2
    decay_mult: 0
  }
  convolution_param {
    num_output: 192
    kernel_size: 1
    weight_filler {
      type: "gaussian"
      std: 0.05
    }
    bias_filler {
      type: "constant"
      value: 0
    }
  }
}
layer {
  name: "penlu_cccp3"
  type: "PENLU"
  bottom: "cccp3"
  top: "penlu_cccp3"
  param {
    lr_mult: 1
    decay_mult: 0
  }
  param {
    lr_mult: 1
    decay_mult: 0
  }
  param {
    lr_mult: 1
    decay_mult: 0
  }
  penlu_param {
    alpha_filler {
      type: "constant"
      value: 2
    }
    beta_filler {
      type: "constant"
      value: 1
    }
    eta_filler {
      type: "constant"
      value: 0.85
    }
  }
}
layer {
  name: "cccp4"
  type: "Convolution"
  bottom: "penlu_cccp3"
  top: "cccp4"
  param {
    lr_mult: 1
    decay_mult: 1
  }
  param {
    lr_mult: 2
    decay_mult: 0
  }
  convolution_param {
    num_output: 192
    kernel_size: 1
    weight_filler {
      type: "gaussian"
      std: 0.05
    }
    bias_filler {
      type: "constant"
      value: 0
    }
  }
}
layer {
  name: "penlu_cccp4"
  type: "PENLU"
  bottom: "cccp4"
  top: "penlu_cccp4"
  param {
    lr_mult: 1
    decay_mult: 0
  }
  param {
    lr_mult: 1
    decay_mult: 0
  }
  param {
    lr_mult: 1
    decay_mult: 0
  }
  penlu_param {
    alpha_filler {
      type: "constant"
      value: 2
    }
    beta_filler {
      type: "constant"
      value: 1
    }
    eta_filler {
      type: "constant"
      value: 0.85
    }
  }
}
layer {
  name: "pool2"
  type: "Pooling"
  bottom: "penlu_cccp4"
  top: "pool2"
  pooling_param {
    pool: AVE
    kernel_size: 3
    stride: 2
  }
}
layer {
  name: "dropout2"
  type: "Dropout"
  bottom: "pool2"
  top: "dropout2"
  dropout_param {
    dropout_ratio: 0.5
  }
}
layer {
  name: "conv3"
  type: "Convolution"
  bottom: "dropout2"
  top: "conv3"
  param {
    lr_mult: 1
    decay_mult: 1
  }
  param {
    lr_mult: 2
    decay_mult: 0
  }
  convolution_param {
    num_output: 192
    pad: 1
    kernel_size: 3
    weight_filler {
      type: "gaussian"
      std: 0.05
    }
    bias_filler {
      type: "constant"
      value: 0
    }
  }
}
layer {
  name: "penlu_conv3"
  type: "PENLU"
  bottom: "conv3"
  top: "penlu_conv3"
  param {
    lr_mult: 1
    decay_mult: 0
  }
  param {
    lr_mult: 1
    decay_mult: 0
  }
  param {
    lr_mult: 1
    decay_mult: 0
  }
  penlu_param {
    alpha_filler {
      type: "constant"
      value: 2
    }
    beta_filler {
      type: "constant"
      value: 1
    }
    eta_filler {
      type: "constant"
      value: 0.85
    }
  }
}
layer {
  name: "cccp5"
  type: "Convolution"
  bottom: "penlu_conv3"
  top: "cccp5"
  param {
    lr_mult: 1
    decay_mult: 1
  }
  param {
    lr_mult: 2
    decay_mult: 0
  }
  convolution_param {
    num_output: 192
    kernel_size: 1
    weight_filler {
      type: "gaussian"
      std: 0.05
    }
    bias_filler {
      type: "constant"
      value: 0
    }
  }
}
layer {
  name: "penlu_cccp5"
  type: "PENLU"
  bottom: "cccp5"
  top: "penlu_cccp5"
  param {
    lr_mult: 1
    decay_mult: 0
  }
  param {
    lr_mult: 1
    decay_mult: 0
  }
  param {
    lr_mult: 1
    decay_mult: 0
  }
  penlu_param {
    alpha_filler {
      type: "constant"
      value: 2
    }
    beta_filler {
      type: "constant"
      value: 1
    }
    eta_filler {
      type: "constant"
      value: 0.85
    }
  }
}
layer {
  name: "cccp6"
  type: "Convolution"
  bottom: "penlu_cccp5"
  top: "cccp6"
  param {
    lr_mult: 0.1
    decay_mult: 1
  }
  param {
    lr_mult: 0.1
    decay_mult: 0
  }
  convolution_param {
    num_output: 10
    kernel_size: 1
    weight_filler {
      type: "gaussian"
      std: 0.05
    }
    bias_filler {
      type: "constant"
      value: 0
    }
  }
}
layer {
  name: "penlu_cccp6"
  type: "PENLU"
  bottom: "cccp6"
  top: "penlu_cccp6"
  param {
    lr_mult: 1
    decay_mult: 0
  }
  param {
    lr_mult: 1
    decay_mult: 0
  }
  param {
    lr_mult: 1
    decay_mult: 0
  }
  penlu_param {
    alpha_filler {
      type: "constant"
      value: 2
    }
    beta_filler {
      type: "constant"
      value: 1
    }
    eta_filler {
      type: "constant"
      value: 0.85
    }
  }
}
layer {
  name: "pool3"
  type: "Pooling"
  bottom: "penlu_cccp6"
  top: "pool3"
  pooling_param {
    pool: AVE
    kernel_size: 7
    stride: 1
  }
}
layer {
  name: "accuracy"
  type: "Accuracy"
  bottom: "pool3"
  bottom: "label"
  top: "accuracy"
}
layer {
  name: "loss"
  type: "SoftmaxWithLoss"
  bottom: "pool3"
  bottom: "label"
  top: "loss"
}
I0918 20:00:44.770406   987 layer_factory.hpp:77] Creating layer cifar
I0918 20:00:44.770443   987 db_lmdb.cpp:35] Opened lmdb /home/x306/caffe/xn/PENLU/data/cifar10/cifar10_test_lmdb
I0918 20:00:44.770453   987 net.cpp:84] Creating Layer cifar
I0918 20:00:44.770457   987 net.cpp:380] cifar -> data
I0918 20:00:44.770462   987 net.cpp:380] cifar -> label
I0918 20:00:44.770468   987 data_transformer.cpp:25] Loading mean file from: /home/x306/caffe/xn/PENLU/data/cifar10/mean.binaryproto
I0918 20:00:44.770573   987 data_layer.cpp:45] output data size: 50,3,28,28
I0918 20:00:44.771584   987 net.cpp:122] Setting up cifar
I0918 20:00:44.771605   987 net.cpp:129] Top shape: 50 3 28 28 (117600)
I0918 20:00:44.771608   987 net.cpp:129] Top shape: 50 (50)
I0918 20:00:44.771611   987 net.cpp:137] Memory required for data: 470600
I0918 20:00:44.771613   987 layer_factory.hpp:77] Creating layer label_cifar_1_split
I0918 20:00:44.771620   987 net.cpp:84] Creating Layer label_cifar_1_split
I0918 20:00:44.771623   987 net.cpp:406] label_cifar_1_split <- label
I0918 20:00:44.771627   987 net.cpp:380] label_cifar_1_split -> label_cifar_1_split_0
I0918 20:00:44.771632   987 net.cpp:380] label_cifar_1_split -> label_cifar_1_split_1
I0918 20:00:44.771689   987 net.cpp:122] Setting up label_cifar_1_split
I0918 20:00:44.771697   987 net.cpp:129] Top shape: 50 (50)
I0918 20:00:44.771699   987 net.cpp:129] Top shape: 50 (50)
I0918 20:00:44.771701   987 net.cpp:137] Memory required for data: 471000
I0918 20:00:44.771703   987 layer_factory.hpp:77] Creating layer conv1
I0918 20:00:44.771710   987 net.cpp:84] Creating Layer conv1
I0918 20:00:44.771715   987 net.cpp:406] conv1 <- data
I0918 20:00:44.771734   987 net.cpp:380] conv1 -> conv1
I0918 20:00:44.773217   987 net.cpp:122] Setting up conv1
I0918 20:00:44.773229   987 net.cpp:129] Top shape: 50 192 28 28 (7526400)
I0918 20:00:44.773237   987 net.cpp:137] Memory required for data: 30576600
I0918 20:00:44.773250   987 layer_factory.hpp:77] Creating layer penlu_conv1
I0918 20:00:44.773262   987 net.cpp:84] Creating Layer penlu_conv1
I0918 20:00:44.773268   987 net.cpp:406] penlu_conv1 <- conv1
I0918 20:00:44.773278   987 net.cpp:380] penlu_conv1 -> penlu_conv1
I0918 20:00:44.773480   987 net.cpp:122] Setting up penlu_conv1
I0918 20:00:44.773489   987 net.cpp:129] Top shape: 50 192 28 28 (7526400)
I0918 20:00:44.773494   987 net.cpp:137] Memory required for data: 60682200
I0918 20:00:44.773505   987 layer_factory.hpp:77] Creating layer cccp1
I0918 20:00:44.773517   987 net.cpp:84] Creating Layer cccp1
I0918 20:00:44.773522   987 net.cpp:406] cccp1 <- penlu_conv1
I0918 20:00:44.773530   987 net.cpp:380] cccp1 -> cccp1
I0918 20:00:44.775213   987 net.cpp:122] Setting up cccp1
I0918 20:00:44.775225   987 net.cpp:129] Top shape: 50 160 28 28 (6272000)
I0918 20:00:44.775231   987 net.cpp:137] Memory required for data: 85770200
I0918 20:00:44.775239   987 layer_factory.hpp:77] Creating layer penlu_cccp1
I0918 20:00:44.775249   987 net.cpp:84] Creating Layer penlu_cccp1
I0918 20:00:44.775255   987 net.cpp:406] penlu_cccp1 <- cccp1
I0918 20:00:44.775264   987 net.cpp:380] penlu_cccp1 -> penlu_cccp1
I0918 20:00:44.775950   987 net.cpp:122] Setting up penlu_cccp1
I0918 20:00:44.775961   987 net.cpp:129] Top shape: 50 160 28 28 (6272000)
I0918 20:00:44.775966   987 net.cpp:137] Memory required for data: 110858200
I0918 20:00:44.775990   987 layer_factory.hpp:77] Creating layer cccp2
I0918 20:00:44.776005   987 net.cpp:84] Creating Layer cccp2
I0918 20:00:44.776010   987 net.cpp:406] cccp2 <- penlu_cccp1
I0918 20:00:44.776017   987 net.cpp:380] cccp2 -> cccp2
I0918 20:00:44.777249   987 net.cpp:122] Setting up cccp2
I0918 20:00:44.777262   987 net.cpp:129] Top shape: 50 96 28 28 (3763200)
I0918 20:00:44.777267   987 net.cpp:137] Memory required for data: 125911000
I0918 20:00:44.777276   987 layer_factory.hpp:77] Creating layer penlu_cccp2
I0918 20:00:44.777287   987 net.cpp:84] Creating Layer penlu_cccp2
I0918 20:00:44.777292   987 net.cpp:406] penlu_cccp2 <- cccp2
I0918 20:00:44.777300   987 net.cpp:380] penlu_cccp2 -> penlu_cccp2
I0918 20:00:44.777451   987 net.cpp:122] Setting up penlu_cccp2
I0918 20:00:44.777459   987 net.cpp:129] Top shape: 50 96 28 28 (3763200)
I0918 20:00:44.777464   987 net.cpp:137] Memory required for data: 140963800
I0918 20:00:44.777472   987 layer_factory.hpp:77] Creating layer pool1
I0918 20:00:44.777482   987 net.cpp:84] Creating Layer pool1
I0918 20:00:44.777487   987 net.cpp:406] pool1 <- penlu_cccp2
I0918 20:00:44.777494   987 net.cpp:380] pool1 -> pool1
I0918 20:00:44.777526   987 net.cpp:122] Setting up pool1
I0918 20:00:44.777534   987 net.cpp:129] Top shape: 50 96 14 14 (940800)
I0918 20:00:44.777539   987 net.cpp:137] Memory required for data: 144727000
I0918 20:00:44.777544   987 layer_factory.hpp:77] Creating layer dropout1
I0918 20:00:44.777551   987 net.cpp:84] Creating Layer dropout1
I0918 20:00:44.777556   987 net.cpp:406] dropout1 <- pool1
I0918 20:00:44.777562   987 net.cpp:380] dropout1 -> dropout1
I0918 20:00:44.777593   987 net.cpp:122] Setting up dropout1
I0918 20:00:44.777601   987 net.cpp:129] Top shape: 50 96 14 14 (940800)
I0918 20:00:44.777604   987 net.cpp:137] Memory required for data: 148490200
I0918 20:00:44.777609   987 layer_factory.hpp:77] Creating layer conv2
I0918 20:00:44.777621   987 net.cpp:84] Creating Layer conv2
I0918 20:00:44.777626   987 net.cpp:406] conv2 <- dropout1
I0918 20:00:44.777634   987 net.cpp:380] conv2 -> conv2
I0918 20:00:44.789140   987 net.cpp:122] Setting up conv2
I0918 20:00:44.789152   987 net.cpp:129] Top shape: 50 192 14 14 (1881600)
I0918 20:00:44.789157   987 net.cpp:137] Memory required for data: 156016600
I0918 20:00:44.789167   987 layer_factory.hpp:77] Creating layer penlu_conv2
I0918 20:00:44.789208   987 net.cpp:84] Creating Layer penlu_conv2
I0918 20:00:44.789213   987 net.cpp:406] penlu_conv2 <- conv2
I0918 20:00:44.789233   987 net.cpp:380] penlu_conv2 -> penlu_conv2
I0918 20:00:44.789405   987 net.cpp:122] Setting up penlu_conv2
I0918 20:00:44.789413   987 net.cpp:129] Top shape: 50 192 14 14 (1881600)
I0918 20:00:44.789417   987 net.cpp:137] Memory required for data: 163543000
I0918 20:00:44.789434   987 layer_factory.hpp:77] Creating layer cccp3
I0918 20:00:44.789441   987 net.cpp:84] Creating Layer cccp3
I0918 20:00:44.789444   987 net.cpp:406] cccp3 <- penlu_conv2
I0918 20:00:44.789458   987 net.cpp:380] cccp3 -> cccp3
I0918 20:00:44.791124   987 net.cpp:122] Setting up cccp3
I0918 20:00:44.791133   987 net.cpp:129] Top shape: 50 192 14 14 (1881600)
I0918 20:00:44.791136   987 net.cpp:137] Memory required for data: 171069400
I0918 20:00:44.791141   987 layer_factory.hpp:77] Creating layer penlu_cccp3
I0918 20:00:44.791146   987 net.cpp:84] Creating Layer penlu_cccp3
I0918 20:00:44.791148   987 net.cpp:406] penlu_cccp3 <- cccp3
I0918 20:00:44.791153   987 net.cpp:380] penlu_cccp3 -> penlu_cccp3
I0918 20:00:44.791288   987 net.cpp:122] Setting up penlu_cccp3
I0918 20:00:44.791293   987 net.cpp:129] Top shape: 50 192 14 14 (1881600)
I0918 20:00:44.791296   987 net.cpp:137] Memory required for data: 178595800
I0918 20:00:44.791299   987 layer_factory.hpp:77] Creating layer cccp4
I0918 20:00:44.791306   987 net.cpp:84] Creating Layer cccp4
I0918 20:00:44.791308   987 net.cpp:406] cccp4 <- penlu_cccp3
I0918 20:00:44.791312   987 net.cpp:380] cccp4 -> cccp4
I0918 20:00:44.793000   987 net.cpp:122] Setting up cccp4
I0918 20:00:44.793010   987 net.cpp:129] Top shape: 50 192 14 14 (1881600)
I0918 20:00:44.793014   987 net.cpp:137] Memory required for data: 186122200
I0918 20:00:44.793017   987 layer_factory.hpp:77] Creating layer penlu_cccp4
I0918 20:00:44.793023   987 net.cpp:84] Creating Layer penlu_cccp4
I0918 20:00:44.793026   987 net.cpp:406] penlu_cccp4 <- cccp4
I0918 20:00:44.793030   987 net.cpp:380] penlu_cccp4 -> penlu_cccp4
I0918 20:00:44.793162   987 net.cpp:122] Setting up penlu_cccp4
I0918 20:00:44.793169   987 net.cpp:129] Top shape: 50 192 14 14 (1881600)
I0918 20:00:44.793170   987 net.cpp:137] Memory required for data: 193648600
I0918 20:00:44.793175   987 layer_factory.hpp:77] Creating layer pool2
I0918 20:00:44.793180   987 net.cpp:84] Creating Layer pool2
I0918 20:00:44.793184   987 net.cpp:406] pool2 <- penlu_cccp4
I0918 20:00:44.793186   987 net.cpp:380] pool2 -> pool2
I0918 20:00:44.793377   987 net.cpp:122] Setting up pool2
I0918 20:00:44.793390   987 net.cpp:129] Top shape: 50 192 7 7 (470400)
I0918 20:00:44.793393   987 net.cpp:137] Memory required for data: 195530200
I0918 20:00:44.793397   987 layer_factory.hpp:77] Creating layer dropout2
I0918 20:00:44.793403   987 net.cpp:84] Creating Layer dropout2
I0918 20:00:44.793407   987 net.cpp:406] dropout2 <- pool2
I0918 20:00:44.793414   987 net.cpp:380] dropout2 -> dropout2
I0918 20:00:44.793448   987 net.cpp:122] Setting up dropout2
I0918 20:00:44.793454   987 net.cpp:129] Top shape: 50 192 7 7 (470400)
I0918 20:00:44.793458   987 net.cpp:137] Memory required for data: 197411800
I0918 20:00:44.793462   987 layer_factory.hpp:77] Creating layer conv3
I0918 20:00:44.793473   987 net.cpp:84] Creating Layer conv3
I0918 20:00:44.793476   987 net.cpp:406] conv3 <- dropout2
I0918 20:00:44.793483   987 net.cpp:380] conv3 -> conv3
I0918 20:00:44.803069   987 net.cpp:122] Setting up conv3
I0918 20:00:44.803086   987 net.cpp:129] Top shape: 50 192 7 7 (470400)
I0918 20:00:44.803087   987 net.cpp:137] Memory required for data: 199293400
I0918 20:00:44.803104   987 layer_factory.hpp:77] Creating layer penlu_conv3
I0918 20:00:44.803127   987 net.cpp:84] Creating Layer penlu_conv3
I0918 20:00:44.803140   987 net.cpp:406] penlu_conv3 <- conv3
I0918 20:00:44.803145   987 net.cpp:380] penlu_conv3 -> penlu_conv3
I0918 20:00:44.803297   987 net.cpp:122] Setting up penlu_conv3
I0918 20:00:44.803303   987 net.cpp:129] Top shape: 50 192 7 7 (470400)
I0918 20:00:44.803325   987 net.cpp:137] Memory required for data: 201175000
I0918 20:00:44.803344   987 layer_factory.hpp:77] Creating layer cccp5
I0918 20:00:44.803362   987 net.cpp:84] Creating Layer cccp5
I0918 20:00:44.803365   987 net.cpp:406] cccp5 <- penlu_conv3
I0918 20:00:44.803378   987 net.cpp:380] cccp5 -> cccp5
I0918 20:00:44.805095   987 net.cpp:122] Setting up cccp5
I0918 20:00:44.805106   987 net.cpp:129] Top shape: 50 192 7 7 (470400)
I0918 20:00:44.805109   987 net.cpp:137] Memory required for data: 203056600
I0918 20:00:44.805114   987 layer_factory.hpp:77] Creating layer penlu_cccp5
I0918 20:00:44.805122   987 net.cpp:84] Creating Layer penlu_cccp5
I0918 20:00:44.805125   987 net.cpp:406] penlu_cccp5 <- cccp5
I0918 20:00:44.805130   987 net.cpp:380] penlu_cccp5 -> penlu_cccp5
I0918 20:00:44.805251   987 net.cpp:122] Setting up penlu_cccp5
I0918 20:00:44.805256   987 net.cpp:129] Top shape: 50 192 7 7 (470400)
I0918 20:00:44.805259   987 net.cpp:137] Memory required for data: 204938200
I0918 20:00:44.805263   987 layer_factory.hpp:77] Creating layer cccp6
I0918 20:00:44.805271   987 net.cpp:84] Creating Layer cccp6
I0918 20:00:44.805274   987 net.cpp:406] cccp6 <- penlu_cccp5
I0918 20:00:44.805279   987 net.cpp:380] cccp6 -> cccp6
I0918 20:00:44.806223   987 net.cpp:122] Setting up cccp6
I0918 20:00:44.806232   987 net.cpp:129] Top shape: 50 10 7 7 (24500)
I0918 20:00:44.806236   987 net.cpp:137] Memory required for data: 205036200
I0918 20:00:44.806241   987 layer_factory.hpp:77] Creating layer penlu_cccp6
I0918 20:00:44.806249   987 net.cpp:84] Creating Layer penlu_cccp6
I0918 20:00:44.806252   987 net.cpp:406] penlu_cccp6 <- cccp6
I0918 20:00:44.806257   987 net.cpp:380] penlu_cccp6 -> penlu_cccp6
I0918 20:00:44.806367   987 net.cpp:122] Setting up penlu_cccp6
I0918 20:00:44.806373   987 net.cpp:129] Top shape: 50 10 7 7 (24500)
I0918 20:00:44.806375   987 net.cpp:137] Memory required for data: 205134200
I0918 20:00:44.806380   987 layer_factory.hpp:77] Creating layer pool3
I0918 20:00:44.806386   987 net.cpp:84] Creating Layer pool3
I0918 20:00:44.806390   987 net.cpp:406] pool3 <- penlu_cccp6
I0918 20:00:44.806392   987 net.cpp:380] pool3 -> pool3
I0918 20:00:44.806844   987 net.cpp:122] Setting up pool3
I0918 20:00:44.806854   987 net.cpp:129] Top shape: 50 10 1 1 (500)
I0918 20:00:44.806859   987 net.cpp:137] Memory required for data: 205136200
I0918 20:00:44.806860   987 layer_factory.hpp:77] Creating layer pool3_pool3_0_split
I0918 20:00:44.806865   987 net.cpp:84] Creating Layer pool3_pool3_0_split
I0918 20:00:44.806869   987 net.cpp:406] pool3_pool3_0_split <- pool3
I0918 20:00:44.806874   987 net.cpp:380] pool3_pool3_0_split -> pool3_pool3_0_split_0
I0918 20:00:44.806877   987 net.cpp:380] pool3_pool3_0_split -> pool3_pool3_0_split_1
I0918 20:00:44.806903   987 net.cpp:122] Setting up pool3_pool3_0_split
I0918 20:00:44.806907   987 net.cpp:129] Top shape: 50 10 1 1 (500)
I0918 20:00:44.806910   987 net.cpp:129] Top shape: 50 10 1 1 (500)
I0918 20:00:44.806912   987 net.cpp:137] Memory required for data: 205140200
I0918 20:00:44.806915   987 layer_factory.hpp:77] Creating layer accuracy
I0918 20:00:44.806919   987 net.cpp:84] Creating Layer accuracy
I0918 20:00:44.806921   987 net.cpp:406] accuracy <- pool3_pool3_0_split_0
I0918 20:00:44.806924   987 net.cpp:406] accuracy <- label_cifar_1_split_0
I0918 20:00:44.806927   987 net.cpp:380] accuracy -> accuracy
…
