…
I0915 18:55:50.686962  3426 net.cpp:294] The NetState phase (0) differed from the phase (1) specified by a rule in layer cifar
I0915 18:55:50.687121  3426 net.cpp:51] Initializing net from parameters: 
name: "nin"
state {
  phase: TRAIN
  level: 0
  stage: ""
}
layer {
  name: "cifar"
  type: "Data"
  top: "data"
  top: "label"
  include {
    phase: TRAIN
  }
  transform_param {
    mirror: true
    crop_size: 28
    mean_file: "/home/x306/caffe/xn/PENLU/data/cifar10/mean.binaryproto"
  }
  data_param {
    source: "/home/x306/caffe/xn/PENLU/data/cifar10/cifar10_train_lmdb"
    batch_size: 64
    backend: LMDB
  }
  image_data_param {
    shuffle: true
  }
}
layer {
  name: "conv1"
  type: "Convolution"
  bottom: "data"
  top: "conv1"
  param {
    lr_mult: 1
    decay_mult: 1
  }
  param {
    lr_mult: 2
    decay_mult: 0
  }
  convolution_param {
    num_output: 192
    pad: 2
    kernel_size: 5
    weight_filler {
      type: "gaussian"
      std: 0.05
    }
    bias_filler {
      type: "constant"
      value: 0
    }
  }
}
layer {
  name: "prelu_conv1"
  type: "PReLU"
  bottom: "conv1"
  top: "prelu_conv1"
  prelu_param {
    filler {
      type: "constant"
      value: 0.25
    }
    channel_shared: false
  }
}
layer {
  name: "cccp1"
  type: "Convolution"
  bottom: "prelu_conv1"
  top: "cccp1"
  param {
    lr_mult: 1
    decay_mult: 1
  }
  param {
    lr_mult: 2
    decay_mult: 0
  }
  convolution_param {
    num_output: 160
    kernel_size: 1
    group: 1
    weight_filler {
      type: "gaussian"
      std: 0.05
    }
    bias_filler {
      type: "constant"
      value: 0
    }
  }
}
layer {
  name: "prelu_cccp1"
  type: "PReLU"
  bottom: "cccp1"
  top: "prelu_cccp1"
  prelu_param {
    filler {
      type: "constant"
      value: 0.25
    }
    channel_shared: false
  }
}
layer {
  name: "cccp2"
  type: "Convolution"
  bottom: "prelu_cccp1"
  top: "cccp2"
  param {
    lr_mult: 1
    decay_mult: 1
  }
  param {
    lr_mult: 2
    decay_mult: 0
  }
  convolution_param {
    num_output: 96
    kernel_size: 1
    group: 1
    weight_filler {
      type: "gaussian"
      std: 0.05
    }
    bias_filler {
      type: "constant"
      value: 0
    }
  }
}
layer {
  name: "prelu_cccp2"
  type: "PReLU"
  bottom: "cccp2"
  top: "prelu_cccp2"
  prelu_param {
    filler {
      type: "constant"
      value: 0.25
    }
    channel_shared: false
  }
}
layer {
  name: "pool1"
  type: "Pooling"
  bottom: "prelu_cccp2"
  top: "pool1"
  pooling_param {
    pool: MAX
    kernel_size: 3
    stride: 2
  }
}
layer {
  name: "drop3"
  type: "Dropout"
  bottom: "pool1"
  top: "dropout1"
  dropout_param {
    dropout_ratio: 0.5
  }
}
layer {
  name: "conv2"
  type: "Convolution"
  bottom: "dropout1"
  top: "conv2"
  param {
    lr_mult: 1
    decay_mult: 1
  }
  param {
    lr_mult: 2
    decay_mult: 0
  }
  convolution_param {
    num_output: 192
    pad: 2
    kernel_size: 5
    weight_filler {
      type: "gaussian"
      std: 0.05
    }
    bias_filler {
      type: "constant"
      value: 0
    }
  }
}
layer {
  name: "prelu_conv2"
  type: "PReLU"
  bottom: "conv2"
  top: "prelu_conv2"
  prelu_param {
    filler {
      type: "constant"
      value: 0.25
    }
    channel_shared: false
  }
}
layer {
  name: "cccp3"
  type: "Convolution"
  bottom: "prelu_conv2"
  top: "cccp3"
  param {
    lr_mult: 1
    decay_mult: 1
  }
  param {
    lr_mult: 2
    decay_mult: 0
  }
  convolution_param {
    num_output: 192
    kernel_size: 1
    group: 1
    weight_filler {
      type: "gaussian"
      std: 0.05
    }
    bias_filler {
      type: "constant"
      value: 0
    }
  }
}
layer {
  name: "prelu_cccp3"
  type: "PReLU"
  bottom: "cccp3"
  top: "prelu_cccp3"
  prelu_param {
    filler {
      type: "constant"
      value: 0.25
    }
    channel_shared: false
  }
}
layer {
  name: "cccp4"
  type: "Convolution"
  bottom: "prelu_cccp3"
  top: "cccp4"
  param {
    lr_mult: 1
    decay_mult: 1
  }
  param {
    lr_mult: 2
    decay_mult: 0
  }
  convolution_param {
    num_output: 192
    kernel_size: 1
    group: 1
    weight_filler {
      type: "gaussian"
      std: 0.05
    }
    bias_filler {
      type: "constant"
      value: 0
    }
  }
}
layer {
  name: "prelu_cccp4"
  type: "PReLU"
  bottom: "cccp4"
  top: "prelu_cccp4"
  prelu_param {
    filler {
      type: "constant"
      value: 0.25
    }
    channel_shared: false
  }
}
layer {
  name: "pool2"
  type: "Pooling"
  bottom: "prelu_cccp4"
  top: "pool2"
  pooling_param {
    pool: AVE
    kernel_size: 3
    stride: 2
  }
}
layer {
  name: "drop6"
  type: "Dropout"
  bottom: "pool2"
  top: "dropout2"
  dropout_param {
    dropout_ratio: 0.5
  }
}
layer {
  name: "conv3"
  type: "Convolution"
  bottom: "dropout2"
  top: "conv3"
  param {
    lr_mult: 1
    decay_mult: 1
  }
  param {
    lr_mult: 2
    decay_mult: 0
  }
  convolution_param {
    num_output: 192
    pad: 1
    kernel_size: 3
    weight_filler {
      type: "gaussian"
      std: 0.05
    }
    bias_filler {
      type: "constant"
      value: 0
    }
  }
}
layer {
  name: "prelu_conv3"
  type: "PReLU"
  bottom: "conv3"
  top: "prelu_conv3"
  prelu_param {
    filler {
      type: "constant"
      value: 0.25
    }
    channel_shared: false
  }
}
layer {
  name: "cccp5"
  type: "Convolution"
  bottom: "prelu_conv3"
  top: "cccp5"
  param {
    lr_mult: 1
    decay_mult: 1
  }
  param {
    lr_mult: 2
    decay_mult: 0
  }
  convolution_param {
    num_output: 192
    kernel_size: 1
    group: 1
    weight_filler {
      type: "gaussian"
      std: 0.05
    }
    bias_filler {
      type: "constant"
      value: 0
    }
  }
}
layer {
  name: "prelu_cccp5"
  type: "PReLU"
  bottom: "cccp5"
  top: "prelu_cccp5"
  prelu_param {
    filler {
      type: "constant"
      value: 0.25
    }
    channel_shared: false
  }
}
layer {
  name: "cccp6"
  type: "Convolution"
  bottom: "prelu_cccp5"
  top: "cccp6"
  param {
    lr_mult: 0.1
    decay_mult: 1
  }
  param {
    lr_mult: 0.1
    decay_mult: 0
  }
  convolution_param {
    num_output: 10
    kernel_size: 1
    group: 1
    weight_filler {
      type: "gaussian"
      std: 0.05
    }
    bias_filler {
      type: "constant"
      value: 0
    }
  }
}
layer {
  name: "prelu_cccp6"
  type: "PReLU"
  bottom: "cccp6"
  top: "prelu_cccp6"
  prelu_param {
    filler {
      type: "constant"
      value: 0.25
    }
    channel_shared: false
  }
}
layer {
  name: "pool3"
  type: "Pooling"
  bottom: "prelu_cccp6"
  top: "pool3"
  pooling_param {
    pool: AVE
    kernel_size: 7
    stride: 1
  }
}
layer {
  name: "accuracy"
  type: "Accuracy"
  bottom: "pool3"
  bottom: "label"
  top: "accuracy"
}
layer {
  name: "loss"
  type: "SoftmaxWithLoss"
  bottom: "pool3"
  bottom: "label"
  top: "loss"
}
I0915 18:55:50.687245  3426 layer_factory.hpp:77] Creating layer cifar
I0915 18:55:50.724097  3426 db_lmdb.cpp:35] Opened lmdb /home/x306/caffe/xn/PENLU/data/cifar10/cifar10_train_lmdb
I0915 18:55:50.746016  3426 net.cpp:84] Creating Layer cifar
I0915 18:55:50.746033  3426 net.cpp:380] cifar -> data
I0915 18:55:50.746057  3426 net.cpp:380] cifar -> label
I0915 18:55:50.746068  3426 data_transformer.cpp:25] Loading mean file from: /home/x306/caffe/xn/PENLU/data/cifar10/mean.binaryproto
I0915 18:55:50.747594  3426 data_layer.cpp:45] output data size: 64,3,28,28
I0915 18:55:50.750582  3426 net.cpp:122] Setting up cifar
I0915 18:55:50.750602  3426 net.cpp:129] Top shape: 64 3 28 28 (150528)
I0915 18:55:50.750609  3426 net.cpp:129] Top shape: 64 (64)
I0915 18:55:50.750629  3426 net.cpp:137] Memory required for data: 602368
I0915 18:55:50.750638  3426 layer_factory.hpp:77] Creating layer label_cifar_1_split
I0915 18:55:50.750658  3426 net.cpp:84] Creating Layer label_cifar_1_split
I0915 18:55:50.750666  3426 net.cpp:406] label_cifar_1_split <- label
I0915 18:55:50.750679  3426 net.cpp:380] label_cifar_1_split -> label_cifar_1_split_0
I0915 18:55:50.750691  3426 net.cpp:380] label_cifar_1_split -> label_cifar_1_split_1
I0915 18:55:50.750738  3426 net.cpp:122] Setting up label_cifar_1_split
I0915 18:55:50.750746  3426 net.cpp:129] Top shape: 64 (64)
I0915 18:55:50.750751  3426 net.cpp:129] Top shape: 64 (64)
I0915 18:55:50.750754  3426 net.cpp:137] Memory required for data: 602880
I0915 18:55:50.750757  3426 layer_factory.hpp:77] Creating layer conv1
I0915 18:55:50.750775  3426 net.cpp:84] Creating Layer conv1
I0915 18:55:50.750779  3426 net.cpp:406] conv1 <- data
I0915 18:55:50.750787  3426 net.cpp:380] conv1 -> conv1
I0915 18:55:50.904206  3426 net.cpp:122] Setting up conv1
I0915 18:55:50.904230  3426 net.cpp:129] Top shape: 64 192 28 28 (9633792)
I0915 18:55:50.904234  3426 net.cpp:137] Memory required for data: 39138048
I0915 18:55:50.904248  3426 layer_factory.hpp:77] Creating layer prelu_conv1
I0915 18:55:50.904259  3426 net.cpp:84] Creating Layer prelu_conv1
I0915 18:55:50.904263  3426 net.cpp:406] prelu_conv1 <- conv1
I0915 18:55:50.904268  3426 net.cpp:380] prelu_conv1 -> prelu_conv1
I0915 18:55:50.904453  3426 net.cpp:122] Setting up prelu_conv1
I0915 18:55:50.904458  3426 net.cpp:129] Top shape: 64 192 28 28 (9633792)
I0915 18:55:50.904461  3426 net.cpp:137] Memory required for data: 77673216
I0915 18:55:50.904465  3426 layer_factory.hpp:77] Creating layer cccp1
I0915 18:55:50.904475  3426 net.cpp:84] Creating Layer cccp1
I0915 18:55:50.904477  3426 net.cpp:406] cccp1 <- prelu_conv1
I0915 18:55:50.904481  3426 net.cpp:380] cccp1 -> cccp1
I0915 18:55:50.906428  3426 net.cpp:122] Setting up cccp1
I0915 18:55:50.906438  3426 net.cpp:129] Top shape: 64 160 28 28 (8028160)
I0915 18:55:50.906441  3426 net.cpp:137] Memory required for data: 109785856
I0915 18:55:50.906447  3426 layer_factory.hpp:77] Creating layer prelu_cccp1
I0915 18:55:50.906452  3426 net.cpp:84] Creating Layer prelu_cccp1
I0915 18:55:50.906455  3426 net.cpp:406] prelu_cccp1 <- cccp1
I0915 18:55:50.906469  3426 net.cpp:380] prelu_cccp1 -> prelu_cccp1
I0915 18:55:50.906643  3426 net.cpp:122] Setting up prelu_cccp1
I0915 18:55:50.906649  3426 net.cpp:129] Top shape: 64 160 28 28 (8028160)
I0915 18:55:50.906651  3426 net.cpp:137] Memory required for data: 141898496
I0915 18:55:50.906654  3426 layer_factory.hpp:77] Creating layer cccp2
I0915 18:55:50.906661  3426 net.cpp:84] Creating Layer cccp2
I0915 18:55:50.906663  3426 net.cpp:406] cccp2 <- prelu_cccp1
I0915 18:55:50.906667  3426 net.cpp:380] cccp2 -> cccp2
I0915 18:55:50.907795  3426 net.cpp:122] Setting up cccp2
I0915 18:55:50.907805  3426 net.cpp:129] Top shape: 64 96 28 28 (4816896)
I0915 18:55:50.907809  3426 net.cpp:137] Memory required for data: 161166080
I0915 18:55:50.907814  3426 layer_factory.hpp:77] Creating layer prelu_cccp2
I0915 18:55:50.907819  3426 net.cpp:84] Creating Layer prelu_cccp2
I0915 18:55:50.907820  3426 net.cpp:406] prelu_cccp2 <- cccp2
I0915 18:55:50.907835  3426 net.cpp:380] prelu_cccp2 -> prelu_cccp2
I0915 18:55:50.907982  3426 net.cpp:122] Setting up prelu_cccp2
I0915 18:55:50.907989  3426 net.cpp:129] Top shape: 64 96 28 28 (4816896)
I0915 18:55:50.907991  3426 net.cpp:137] Memory required for data: 180433664
I0915 18:55:50.908006  3426 layer_factory.hpp:77] Creating layer pool1
I0915 18:55:50.908015  3426 net.cpp:84] Creating Layer pool1
I0915 18:55:50.908030  3426 net.cpp:406] pool1 <- prelu_cccp2
I0915 18:55:50.908033  3426 net.cpp:380] pool1 -> pool1
I0915 18:55:50.908083  3426 net.cpp:122] Setting up pool1
I0915 18:55:50.908088  3426 net.cpp:129] Top shape: 64 96 14 14 (1204224)
I0915 18:55:50.908092  3426 net.cpp:137] Memory required for data: 185250560
I0915 18:55:50.908093  3426 layer_factory.hpp:77] Creating layer drop3
I0915 18:55:50.908118  3426 net.cpp:84] Creating Layer drop3
I0915 18:55:50.908130  3426 net.cpp:406] drop3 <- pool1
I0915 18:55:50.908134  3426 net.cpp:380] drop3 -> dropout1
I0915 18:55:50.908180  3426 net.cpp:122] Setting up drop3
I0915 18:55:50.908185  3426 net.cpp:129] Top shape: 64 96 14 14 (1204224)
I0915 18:55:50.908188  3426 net.cpp:137] Memory required for data: 190067456
I0915 18:55:50.908202  3426 layer_factory.hpp:77] Creating layer conv2
I0915 18:55:50.908210  3426 net.cpp:84] Creating Layer conv2
I0915 18:55:50.908226  3426 net.cpp:406] conv2 <- dropout1
I0915 18:55:50.908229  3426 net.cpp:380] conv2 -> conv2
I0915 18:55:50.920282  3426 net.cpp:122] Setting up conv2
I0915 18:55:50.920298  3426 net.cpp:129] Top shape: 64 192 14 14 (2408448)
I0915 18:55:50.920301  3426 net.cpp:137] Memory required for data: 199701248
I0915 18:55:50.920317  3426 layer_factory.hpp:77] Creating layer prelu_conv2
I0915 18:55:50.920325  3426 net.cpp:84] Creating Layer prelu_conv2
I0915 18:55:50.920330  3426 net.cpp:406] prelu_conv2 <- conv2
I0915 18:55:50.920333  3426 net.cpp:380] prelu_conv2 -> prelu_conv2
I0915 18:55:50.920433  3426 net.cpp:122] Setting up prelu_conv2
I0915 18:55:50.920439  3426 net.cpp:129] Top shape: 64 192 14 14 (2408448)
I0915 18:55:50.920442  3426 net.cpp:137] Memory required for data: 209335040
I0915 18:55:50.920445  3426 layer_factory.hpp:77] Creating layer cccp3
I0915 18:55:50.920452  3426 net.cpp:84] Creating Layer cccp3
I0915 18:55:50.920455  3426 net.cpp:406] cccp3 <- prelu_conv2
I0915 18:55:50.920469  3426 net.cpp:380] cccp3 -> cccp3
I0915 18:55:50.922085  3426 net.cpp:122] Setting up cccp3
I0915 18:55:50.922094  3426 net.cpp:129] Top shape: 64 192 14 14 (2408448)
I0915 18:55:50.922097  3426 net.cpp:137] Memory required for data: 218968832
I0915 18:55:50.922102  3426 layer_factory.hpp:77] Creating layer prelu_cccp3
I0915 18:55:50.922106  3426 net.cpp:84] Creating Layer prelu_cccp3
I0915 18:55:50.922109  3426 net.cpp:406] prelu_cccp3 <- cccp3
I0915 18:55:50.922123  3426 net.cpp:380] prelu_cccp3 -> prelu_cccp3
I0915 18:55:50.922237  3426 net.cpp:122] Setting up prelu_cccp3
I0915 18:55:50.922243  3426 net.cpp:129] Top shape: 64 192 14 14 (2408448)
I0915 18:55:50.922245  3426 net.cpp:137] Memory required for data: 228602624
I0915 18:55:50.922248  3426 layer_factory.hpp:77] Creating layer cccp4
I0915 18:55:50.922255  3426 net.cpp:84] Creating Layer cccp4
I0915 18:55:50.922257  3426 net.cpp:406] cccp4 <- prelu_cccp3
I0915 18:55:50.922261  3426 net.cpp:380] cccp4 -> cccp4
I0915 18:55:50.923955  3426 net.cpp:122] Setting up cccp4
I0915 18:55:50.923966  3426 net.cpp:129] Top shape: 64 192 14 14 (2408448)
I0915 18:55:50.923974  3426 net.cpp:137] Memory required for data: 238236416
I0915 18:55:50.923998  3426 layer_factory.hpp:77] Creating layer prelu_cccp4
I0915 18:55:50.924015  3426 net.cpp:84] Creating Layer prelu_cccp4
I0915 18:55:50.924017  3426 net.cpp:406] prelu_cccp4 <- cccp4
I0915 18:55:50.924022  3426 net.cpp:380] prelu_cccp4 -> prelu_cccp4
I0915 18:55:50.924116  3426 net.cpp:122] Setting up prelu_cccp4
I0915 18:55:50.924121  3426 net.cpp:129] Top shape: 64 192 14 14 (2408448)
I0915 18:55:50.924124  3426 net.cpp:137] Memory required for data: 247870208
I0915 18:55:50.924127  3426 layer_factory.hpp:77] Creating layer pool2
I0915 18:55:50.924134  3426 net.cpp:84] Creating Layer pool2
I0915 18:55:50.924136  3426 net.cpp:406] pool2 <- prelu_cccp4
I0915 18:55:50.924139  3426 net.cpp:380] pool2 -> pool2
I0915 18:55:50.924280  3426 net.cpp:122] Setting up pool2
I0915 18:55:50.924288  3426 net.cpp:129] Top shape: 64 192 7 7 (602112)
I0915 18:55:50.924289  3426 net.cpp:137] Memory required for data: 250278656
I0915 18:55:50.924293  3426 layer_factory.hpp:77] Creating layer drop6
I0915 18:55:50.924296  3426 net.cpp:84] Creating Layer drop6
I0915 18:55:50.924299  3426 net.cpp:406] drop6 <- pool2
I0915 18:55:50.924302  3426 net.cpp:380] drop6 -> dropout2
I0915 18:55:50.924335  3426 net.cpp:122] Setting up drop6
I0915 18:55:50.924347  3426 net.cpp:129] Top shape: 64 192 7 7 (602112)
I0915 18:55:50.924350  3426 net.cpp:137] Memory required for data: 252687104
I0915 18:55:50.924372  3426 layer_factory.hpp:77] Creating layer conv3
I0915 18:55:50.924378  3426 net.cpp:84] Creating Layer conv3
I0915 18:55:50.924382  3426 net.cpp:406] conv3 <- dropout2
I0915 18:55:50.924386  3426 net.cpp:380] conv3 -> conv3
I0915 18:55:50.933243  3426 net.cpp:122] Setting up conv3
I0915 18:55:50.933256  3426 net.cpp:129] Top shape: 64 192 7 7 (602112)
I0915 18:55:50.933259  3426 net.cpp:137] Memory required for data: 255095552
I0915 18:55:50.933264  3426 layer_factory.hpp:77] Creating layer prelu_conv3
I0915 18:55:50.933270  3426 net.cpp:84] Creating Layer prelu_conv3
I0915 18:55:50.933272  3426 net.cpp:406] prelu_conv3 <- conv3
I0915 18:55:50.933287  3426 net.cpp:380] prelu_conv3 -> prelu_conv3
I0915 18:55:50.933380  3426 net.cpp:122] Setting up prelu_conv3
I0915 18:55:50.933387  3426 net.cpp:129] Top shape: 64 192 7 7 (602112)
I0915 18:55:50.933388  3426 net.cpp:137] Memory required for data: 257504000
I0915 18:55:50.933393  3426 layer_factory.hpp:77] Creating layer cccp5
I0915 18:55:50.933398  3426 net.cpp:84] Creating Layer cccp5
I0915 18:55:50.933401  3426 net.cpp:406] cccp5 <- prelu_conv3
I0915 18:55:50.933415  3426 net.cpp:380] cccp5 -> cccp5
I0915 18:55:50.934993  3426 net.cpp:122] Setting up cccp5
I0915 18:55:50.935003  3426 net.cpp:129] Top shape: 64 192 7 7 (602112)
I0915 18:55:50.935005  3426 net.cpp:137] Memory required for data: 259912448
I0915 18:55:50.935009  3426 layer_factory.hpp:77] Creating layer prelu_cccp5
I0915 18:55:50.935014  3426 net.cpp:84] Creating Layer prelu_cccp5
I0915 18:55:50.935017  3426 net.cpp:406] prelu_cccp5 <- cccp5
I0915 18:55:50.935031  3426 net.cpp:380] prelu_cccp5 -> prelu_cccp5
I0915 18:55:50.935130  3426 net.cpp:122] Setting up prelu_cccp5
I0915 18:55:50.935135  3426 net.cpp:129] Top shape: 64 192 7 7 (602112)
I0915 18:55:50.935138  3426 net.cpp:137] Memory required for data: 262320896
I0915 18:55:50.935142  3426 layer_factory.hpp:77] Creating layer cccp6
I0915 18:55:50.935147  3426 net.cpp:84] Creating Layer cccp6
I0915 18:55:50.935149  3426 net.cpp:406] cccp6 <- prelu_cccp5
I0915 18:55:50.935153  3426 net.cpp:380] cccp6 -> cccp6
I0915 18:55:50.935992  3426 net.cpp:122] Setting up cccp6
I0915 18:55:50.936002  3426 net.cpp:129] Top shape: 64 10 7 7 (31360)
I0915 18:55:50.936005  3426 net.cpp:137] Memory required for data: 262446336
I0915 18:55:50.936009  3426 layer_factory.hpp:77] Creating layer prelu_cccp6
I0915 18:55:50.936014  3426 net.cpp:84] Creating Layer prelu_cccp6
I0915 18:55:50.936017  3426 net.cpp:406] prelu_cccp6 <- cccp6
I0915 18:55:50.936020  3426 net.cpp:380] prelu_cccp6 -> prelu_cccp6
I0915 18:55:50.936096  3426 net.cpp:122] Setting up prelu_cccp6
I0915 18:55:50.936102  3426 net.cpp:129] Top shape: 64 10 7 7 (31360)
I0915 18:55:50.936105  3426 net.cpp:137] Memory required for data: 262571776
I0915 18:55:50.936107  3426 layer_factory.hpp:77] Creating layer pool3
I0915 18:55:50.936112  3426 net.cpp:84] Creating Layer pool3
I0915 18:55:50.936115  3426 net.cpp:406] pool3 <- prelu_cccp6
I0915 18:55:50.936118  3426 net.cpp:380] pool3 -> pool3
I0915 18:55:50.936249  3426 net.cpp:122] Setting up pool3
I0915 18:55:50.936256  3426 net.cpp:129] Top shape: 64 10 1 1 (640)
I0915 18:55:50.936259  3426 net.cpp:137] Memory required for data: 262574336
I0915 18:55:50.936261  3426 layer_factory.hpp:77] Creating layer pool3_pool3_0_split
I0915 18:55:50.936265  3426 net.cpp:84] Creating Layer pool3_pool3_0_split
I0915 18:55:50.936267  3426 net.cpp:406] pool3_pool3_0_split <- pool3
I0915 18:55:50.936271  3426 net.cpp:380] pool3_pool3_0_split -> pool3_pool3_0_split_0
I0915 18:55:50.936286  3426 net.cpp:380] pool3_pool3_0_split -> pool3_pool3_0_split_1
I0915 18:55:50.936336  3426 net.cpp:122] Setting up pool3_pool3_0_split
I0915 18:55:50.936349  3426 net.cpp:129] Top shape: 64 10 1 1 (640)
I0915 18:55:50.936352  3426 net.cpp:129] Top shape: 64 10 1 1 (640)
I0915 18:55:50.936355  3426 net.cpp:137] Memory required for data: 262579456
I0915 18:55:50.936368  3426 layer_factory.hpp:77] Creating layer accuracy
I0915 18:55:50.936394  3426 net.cpp:84] Creating Layer accuracy
I0915 18:55:50.936398  3426 net.cpp:406] accuracy <- pool3_pool3_0_split_0
I0915 18:55:50.936400  3426 net.cpp:406] accuracy <- label_cifar_1_split_0
I0915 18:55:50.936415  3426 net.cpp:380] accuracy -> accuracy
…
I0915 18:55:50.937350  3426 net.cpp:294] The NetState phase (1) differed from the phase (0) specified by a rule in layer cifar
I0915 18:55:50.937485  3426 net.cpp:51] Initializing net from parameters: 
name: "nin"
state {
  phase: TEST
}
layer {
  name: "cifar"
  type: "Data"
  top: "data"
  top: "label"
  include {
    phase: TEST
  }
  transform_param {
    mirror: false
    crop_size: 28
    mean_file: "/home/x306/caffe/xn/PENLU/data/cifar10/mean.binaryproto"
  }
  data_param {
    source: "/home/x306/caffe/xn/PENLU/data/cifar10/cifar10_test_lmdb"
    batch_size: 50
    backend: LMDB
  }
}
layer {
  name: "conv1"
  type: "Convolution"
  bottom: "data"
  top: "conv1"
  param {
    lr_mult: 1
    decay_mult: 1
  }
  param {
    lr_mult: 2
    decay_mult: 0
  }
  convolution_param {
    num_output: 192
    pad: 2
    kernel_size: 5
    weight_filler {
      type: "gaussian"
      std: 0.05
    }
    bias_filler {
      type: "constant"
      value: 0
    }
  }
}
layer {
  name: "prelu_conv1"
  type: "PReLU"
  bottom: "conv1"
  top: "prelu_conv1"
  prelu_param {
    filler {
      type: "constant"
      value: 0.25
    }
    channel_shared: false
  }
}
layer {
  name: "cccp1"
  type: "Convolution"
  bottom: "prelu_conv1"
  top: "cccp1"
  param {
    lr_mult: 1
    decay_mult: 1
  }
  param {
    lr_mult: 2
    decay_mult: 0
  }
  convolution_param {
    num_output: 160
    kernel_size: 1
    group: 1
    weight_filler {
      type: "gaussian"
      std: 0.05
    }
    bias_filler {
      type: "constant"
      value: 0
    }
  }
}
layer {
  name: "prelu_cccp1"
  type: "PReLU"
  bottom: "cccp1"
  top: "prelu_cccp1"
  prelu_param {
    filler {
      type: "constant"
      value: 0.25
    }
    channel_shared: false
  }
}
layer {
  name: "cccp2"
  type: "Convolution"
  bottom: "prelu_cccp1"
  top: "cccp2"
  param {
    lr_mult: 1
    decay_mult: 1
  }
  param {
    lr_mult: 2
    decay_mult: 0
  }
  convolution_param {
    num_output: 96
    kernel_size: 1
    group: 1
    weight_filler {
      type: "gaussian"
      std: 0.05
    }
    bias_filler {
      type: "constant"
      value: 0
    }
  }
}
layer {
  name: "prelu_cccp2"
  type: "PReLU"
  bottom: "cccp2"
  top: "prelu_cccp2"
  prelu_param {
    filler {
      type: "constant"
      value: 0.25
    }
    channel_shared: false
  }
}
layer {
  name: "pool1"
  type: "Pooling"
  bottom: "prelu_cccp2"
  top: "pool1"
  pooling_param {
    pool: MAX
    kernel_size: 3
    stride: 2
  }
}
layer {
  name: "drop3"
  type: "Dropout"
  bottom: "pool1"
  top: "dropout1"
  dropout_param {
    dropout_ratio: 0.5
  }
}
layer {
  name: "conv2"
  type: "Convolution"
  bottom: "dropout1"
  top: "conv2"
  param {
    lr_mult: 1
    decay_mult: 1
  }
  param {
    lr_mult: 2
    decay_mult: 0
  }
  convolution_param {
    num_output: 192
    pad: 2
    kernel_size: 5
    weight_filler {
      type: "gaussian"
      std: 0.05
    }
    bias_filler {
      type: "constant"
      value: 0
    }
  }
}
layer {
  name: "prelu_conv2"
  type: "PReLU"
  bottom: "conv2"
  top: "prelu_conv2"
  prelu_param {
    filler {
      type: "constant"
      value: 0.25
    }
    channel_shared: false
  }
}
layer {
  name: "cccp3"
  type: "Convolution"
  bottom: "prelu_conv2"
  top: "cccp3"
  param {
    lr_mult: 1
    decay_mult: 1
  }
  param {
    lr_mult: 2
    decay_mult: 0
  }
  convolution_param {
    num_output: 192
    kernel_size: 1
    group: 1
    weight_filler {
      type: "gaussian"
      std: 0.05
    }
    bias_filler {
      type: "constant"
      value: 0
    }
  }
}
layer {
  name: "prelu_cccp3"
  type: "PReLU"
  bottom: "cccp3"
  top: "prelu_cccp3"
  prelu_param {
    filler {
      type: "constant"
      value: 0.25
    }
    channel_shared: false
  }
}
layer {
  name: "cccp4"
  type: "Convolution"
  bottom: "prelu_cccp3"
  top: "cccp4"
  param {
    lr_mult: 1
    decay_mult: 1
  }
  param {
    lr_mult: 2
    decay_mult: 0
  }
  convolution_param {
    num_output: 192
    kernel_size: 1
    group: 1
    weight_filler {
      type: "gaussian"
      std: 0.05
    }
    bias_filler {
      type: "constant"
      value: 0
    }
  }
}
layer {
  name: "prelu_cccp4"
  type: "PReLU"
  bottom: "cccp4"
  top: "prelu_cccp4"
  prelu_param {
    filler {
      type: "constant"
      value: 0.25
    }
    channel_shared: false
  }
}
layer {
  name: "pool2"
  type: "Pooling"
  bottom: "prelu_cccp4"
  top: "pool2"
  pooling_param {
    pool: AVE
    kernel_size: 3
    stride: 2
  }
}
layer {
  name: "drop6"
  type: "Dropout"
  bottom: "pool2"
  top: "dropout2"
  dropout_param {
    dropout_ratio: 0.5
  }
}
layer {
  name: "conv3"
  type: "Convolution"
  bottom: "dropout2"
  top: "conv3"
  param {
    lr_mult: 1
    decay_mult: 1
  }
  param {
    lr_mult: 2
    decay_mult: 0
  }
  convolution_param {
    num_output: 192
    pad: 1
    kernel_size: 3
    weight_filler {
      type: "gaussian"
      std: 0.05
    }
    bias_filler {
      type: "constant"
      value: 0
    }
  }
}
layer {
  name: "prelu_conv3"
  type: "PReLU"
  bottom: "conv3"
  top: "prelu_conv3"
  prelu_param {
    filler {
      type: "constant"
      value: 0.25
    }
    channel_shared: false
  }
}
layer {
  name: "cccp5"
  type: "Convolution"
  bottom: "prelu_conv3"
  top: "cccp5"
  param {
    lr_mult: 1
    decay_mult: 1
  }
  param {
    lr_mult: 2
    decay_mult: 0
  }
  convolution_param {
    num_output: 192
    kernel_size: 1
    group: 1
    weight_filler {
      type: "gaussian"
      std: 0.05
    }
    bias_filler {
      type: "constant"
      value: 0
    }
  }
}
layer {
  name: "prelu_cccp5"
  type: "PReLU"
  bottom: "cccp5"
  top: "prelu_cccp5"
  prelu_param {
    filler {
      type: "constant"
      value: 0.25
    }
    channel_shared: false
  }
}
layer {
  name: "cccp6"
  type: "Convolution"
  bottom: "prelu_cccp5"
  top: "cccp6"
  param {
    lr_mult: 0.1
    decay_mult: 1
  }
  param {
    lr_mult: 0.1
    decay_mult: 0
  }
  convolution_param {
    num_output: 10
    kernel_size: 1
    group: 1
    weight_filler {
      type: "gaussian"
      std: 0.05
    }
    bias_filler {
      type: "constant"
      value: 0
    }
  }
}
layer {
  name: "prelu_cccp6"
  type: "PReLU"
  bottom: "cccp6"
  top: "prelu_cccp6"
  prelu_param {
    filler {
      type: "constant"
      value: 0.25
    }
    channel_shared: false
  }
}
layer {
  name: "pool3"
  type: "Pooling"
  bottom: "prelu_cccp6"
  top: "pool3"
  pooling_param {
    pool: AVE
    kernel_size: 7
    stride: 1
  }
}
layer {
  name: "accuracy"
  type: "Accuracy"
  bottom: "pool3"
  bottom: "label"
  top: "accuracy"
}
layer {
  name: "loss"
  type: "SoftmaxWithLoss"
  bottom: "pool3"
  bottom: "label"
  top: "loss"
}
I0915 18:55:50.937577  3426 layer_factory.hpp:77] Creating layer cifar
I0915 18:55:50.956332  3426 db_lmdb.cpp:35] Opened lmdb /home/x306/caffe/xn/PENLU/data/cifar10/cifar10_test_lmdb
I0915 18:55:50.967159  3426 net.cpp:84] Creating Layer cifar
I0915 18:55:50.967173  3426 net.cpp:380] cifar -> data
I0915 18:55:50.967183  3426 net.cpp:380] cifar -> label
I0915 18:55:50.967190  3426 data_transformer.cpp:25] Loading mean file from: /home/x306/caffe/xn/PENLU/data/cifar10/mean.binaryproto
I0915 18:55:50.967312  3426 data_layer.cpp:45] output data size: 50,3,28,28
I0915 18:55:50.968472  3426 net.cpp:122] Setting up cifar
I0915 18:55:50.968483  3426 net.cpp:129] Top shape: 50 3 28 28 (117600)
I0915 18:55:50.968487  3426 net.cpp:129] Top shape: 50 (50)
I0915 18:55:50.968490  3426 net.cpp:137] Memory required for data: 470600
I0915 18:55:50.968503  3426 layer_factory.hpp:77] Creating layer label_cifar_1_split
I0915 18:55:50.968509  3426 net.cpp:84] Creating Layer label_cifar_1_split
I0915 18:55:50.968513  3426 net.cpp:406] label_cifar_1_split <- label
I0915 18:55:50.968516  3426 net.cpp:380] label_cifar_1_split -> label_cifar_1_split_0
I0915 18:55:50.968523  3426 net.cpp:380] label_cifar_1_split -> label_cifar_1_split_1
I0915 18:55:50.968621  3426 net.cpp:122] Setting up label_cifar_1_split
I0915 18:55:50.968627  3426 net.cpp:129] Top shape: 50 (50)
I0915 18:55:50.968631  3426 net.cpp:129] Top shape: 50 (50)
I0915 18:55:50.968632  3426 net.cpp:137] Memory required for data: 471000
I0915 18:55:50.968646  3426 layer_factory.hpp:77] Creating layer conv1
I0915 18:55:50.968653  3426 net.cpp:84] Creating Layer conv1
I0915 18:55:50.968672  3426 net.cpp:406] conv1 <- data
I0915 18:55:50.968675  3426 net.cpp:380] conv1 -> conv1
I0915 18:55:50.969986  3426 net.cpp:122] Setting up conv1
I0915 18:55:50.970000  3426 net.cpp:129] Top shape: 50 192 28 28 (7526400)
I0915 18:55:50.970027  3426 net.cpp:137] Memory required for data: 30576600
I0915 18:55:50.970039  3426 layer_factory.hpp:77] Creating layer prelu_conv1
I0915 18:55:50.970057  3426 net.cpp:84] Creating Layer prelu_conv1
I0915 18:55:50.970062  3426 net.cpp:406] prelu_conv1 <- conv1
I0915 18:55:50.970068  3426 net.cpp:380] prelu_conv1 -> prelu_conv1
I0915 18:55:50.970239  3426 net.cpp:122] Setting up prelu_conv1
I0915 18:55:50.970252  3426 net.cpp:129] Top shape: 50 192 28 28 (7526400)
I0915 18:55:50.970257  3426 net.cpp:137] Memory required for data: 60682200
I0915 18:55:50.970264  3426 layer_factory.hpp:77] Creating layer cccp1
I0915 18:55:50.970285  3426 net.cpp:84] Creating Layer cccp1
I0915 18:55:50.970291  3426 net.cpp:406] cccp1 <- prelu_conv1
I0915 18:55:50.970307  3426 net.cpp:380] cccp1 -> cccp1
I0915 18:55:50.972481  3426 net.cpp:122] Setting up cccp1
I0915 18:55:50.972503  3426 net.cpp:129] Top shape: 50 160 28 28 (6272000)
I0915 18:55:50.972509  3426 net.cpp:137] Memory required for data: 85770200
I0915 18:55:50.972522  3426 layer_factory.hpp:77] Creating layer prelu_cccp1
I0915 18:55:50.972554  3426 net.cpp:84] Creating Layer prelu_cccp1
I0915 18:55:50.972560  3426 net.cpp:406] prelu_cccp1 <- cccp1
I0915 18:55:50.972568  3426 net.cpp:380] prelu_cccp1 -> prelu_cccp1
I0915 18:55:50.973377  3426 net.cpp:122] Setting up prelu_cccp1
I0915 18:55:50.973387  3426 net.cpp:129] Top shape: 50 160 28 28 (6272000)
I0915 18:55:50.973392  3426 net.cpp:137] Memory required for data: 110858200
I0915 18:55:50.973395  3426 layer_factory.hpp:77] Creating layer cccp2
I0915 18:55:50.973402  3426 net.cpp:84] Creating Layer cccp2
I0915 18:55:50.973407  3426 net.cpp:406] cccp2 <- prelu_cccp1
I0915 18:55:50.973410  3426 net.cpp:380] cccp2 -> cccp2
I0915 18:55:50.974572  3426 net.cpp:122] Setting up cccp2
I0915 18:55:50.974582  3426 net.cpp:129] Top shape: 50 96 28 28 (3763200)
I0915 18:55:50.974586  3426 net.cpp:137] Memory required for data: 125911000
I0915 18:55:50.974591  3426 layer_factory.hpp:77] Creating layer prelu_cccp2
I0915 18:55:50.974596  3426 net.cpp:84] Creating Layer prelu_cccp2
I0915 18:55:50.974601  3426 net.cpp:406] prelu_cccp2 <- cccp2
I0915 18:55:50.974604  3426 net.cpp:380] prelu_cccp2 -> prelu_cccp2
I0915 18:55:50.974694  3426 net.cpp:122] Setting up prelu_cccp2
I0915 18:55:50.974699  3426 net.cpp:129] Top shape: 50 96 28 28 (3763200)
I0915 18:55:50.974702  3426 net.cpp:137] Memory required for data: 140963800
I0915 18:55:50.974709  3426 layer_factory.hpp:77] Creating layer pool1
I0915 18:55:50.974714  3426 net.cpp:84] Creating Layer pool1
I0915 18:55:50.974717  3426 net.cpp:406] pool1 <- prelu_cccp2
I0915 18:55:50.974721  3426 net.cpp:380] pool1 -> pool1
I0915 18:55:50.974745  3426 net.cpp:122] Setting up pool1
I0915 18:55:50.974750  3426 net.cpp:129] Top shape: 50 96 14 14 (940800)
I0915 18:55:50.974753  3426 net.cpp:137] Memory required for data: 144727000
I0915 18:55:50.974756  3426 layer_factory.hpp:77] Creating layer drop3
I0915 18:55:50.974759  3426 net.cpp:84] Creating Layer drop3
I0915 18:55:50.974762  3426 net.cpp:406] drop3 <- pool1
I0915 18:55:50.974766  3426 net.cpp:380] drop3 -> dropout1
I0915 18:55:50.974787  3426 net.cpp:122] Setting up drop3
I0915 18:55:50.974792  3426 net.cpp:129] Top shape: 50 96 14 14 (940800)
I0915 18:55:50.974795  3426 net.cpp:137] Memory required for data: 148490200
I0915 18:55:50.974797  3426 layer_factory.hpp:77] Creating layer conv2
I0915 18:55:50.974803  3426 net.cpp:84] Creating Layer conv2
I0915 18:55:50.974807  3426 net.cpp:406] conv2 <- dropout1
I0915 18:55:50.974810  3426 net.cpp:380] conv2 -> conv2
I0915 18:55:50.986410  3426 net.cpp:122] Setting up conv2
I0915 18:55:50.986423  3426 net.cpp:129] Top shape: 50 192 14 14 (1881600)
I0915 18:55:50.986426  3426 net.cpp:137] Memory required for data: 156016600
I0915 18:55:50.986431  3426 layer_factory.hpp:77] Creating layer prelu_conv2
I0915 18:55:50.986436  3426 net.cpp:84] Creating Layer prelu_conv2
I0915 18:55:50.986439  3426 net.cpp:406] prelu_conv2 <- conv2
I0915 18:55:50.986454  3426 net.cpp:380] prelu_conv2 -> prelu_conv2
I0915 18:55:50.986565  3426 net.cpp:122] Setting up prelu_conv2
I0915 18:55:50.986572  3426 net.cpp:129] Top shape: 50 192 14 14 (1881600)
I0915 18:55:50.986573  3426 net.cpp:137] Memory required for data: 163543000
I0915 18:55:50.986577  3426 layer_factory.hpp:77] Creating layer cccp3
I0915 18:55:50.986583  3426 net.cpp:84] Creating Layer cccp3
I0915 18:55:50.986587  3426 net.cpp:406] cccp3 <- prelu_conv2
I0915 18:55:50.986590  3426 net.cpp:380] cccp3 -> cccp3
I0915 18:55:50.988207  3426 net.cpp:122] Setting up cccp3
I0915 18:55:50.988217  3426 net.cpp:129] Top shape: 50 192 14 14 (1881600)
I0915 18:55:50.988220  3426 net.cpp:137] Memory required for data: 171069400
I0915 18:55:50.988224  3426 layer_factory.hpp:77] Creating layer prelu_cccp3
I0915 18:55:50.988229  3426 net.cpp:84] Creating Layer prelu_cccp3
I0915 18:55:50.988231  3426 net.cpp:406] prelu_cccp3 <- cccp3
I0915 18:55:50.988235  3426 net.cpp:380] prelu_cccp3 -> prelu_cccp3
I0915 18:55:50.988335  3426 net.cpp:122] Setting up prelu_cccp3
I0915 18:55:50.988340  3426 net.cpp:129] Top shape: 50 192 14 14 (1881600)
I0915 18:55:50.988343  3426 net.cpp:137] Memory required for data: 178595800
I0915 18:55:50.988346  3426 layer_factory.hpp:77] Creating layer cccp4
I0915 18:55:50.988353  3426 net.cpp:84] Creating Layer cccp4
I0915 18:55:50.988354  3426 net.cpp:406] cccp4 <- prelu_cccp3
I0915 18:55:50.988358  3426 net.cpp:380] cccp4 -> cccp4
I0915 18:55:50.989969  3426 net.cpp:122] Setting up cccp4
I0915 18:55:50.989979  3426 net.cpp:129] Top shape: 50 192 14 14 (1881600)
I0915 18:55:50.989981  3426 net.cpp:137] Memory required for data: 186122200
I0915 18:55:50.989989  3426 layer_factory.hpp:77] Creating layer prelu_cccp4
I0915 18:55:50.989994  3426 net.cpp:84] Creating Layer prelu_cccp4
I0915 18:55:50.989996  3426 net.cpp:406] prelu_cccp4 <- cccp4
I0915 18:55:50.990000  3426 net.cpp:380] prelu_cccp4 -> prelu_cccp4
I0915 18:55:50.990080  3426 net.cpp:122] Setting up prelu_cccp4
I0915 18:55:50.990087  3426 net.cpp:129] Top shape: 50 192 14 14 (1881600)
I0915 18:55:50.990088  3426 net.cpp:137] Memory required for data: 193648600
I0915 18:55:50.990092  3426 layer_factory.hpp:77] Creating layer pool2
I0915 18:55:50.990097  3426 net.cpp:84] Creating Layer pool2
I0915 18:55:50.990099  3426 net.cpp:406] pool2 <- prelu_cccp4
I0915 18:55:50.990103  3426 net.cpp:380] pool2 -> pool2
I0915 18:55:50.990221  3426 net.cpp:122] Setting up pool2
I0915 18:55:50.990228  3426 net.cpp:129] Top shape: 50 192 7 7 (470400)
I0915 18:55:50.990231  3426 net.cpp:137] Memory required for data: 195530200
I0915 18:55:50.990233  3426 layer_factory.hpp:77] Creating layer drop6
I0915 18:55:50.990237  3426 net.cpp:84] Creating Layer drop6
I0915 18:55:50.990241  3426 net.cpp:406] drop6 <- pool2
I0915 18:55:50.990243  3426 net.cpp:380] drop6 -> dropout2
I0915 18:55:50.990265  3426 net.cpp:122] Setting up drop6
I0915 18:55:50.990270  3426 net.cpp:129] Top shape: 50 192 7 7 (470400)
I0915 18:55:50.990272  3426 net.cpp:137] Memory required for data: 197411800
I0915 18:55:50.990274  3426 layer_factory.hpp:77] Creating layer conv3
I0915 18:55:50.990280  3426 net.cpp:84] Creating Layer conv3
I0915 18:55:50.990283  3426 net.cpp:406] conv3 <- dropout2
I0915 18:55:50.990288  3426 net.cpp:380] conv3 -> conv3
I0915 18:55:50.999689  3426 net.cpp:122] Setting up conv3
I0915 18:55:50.999706  3426 net.cpp:129] Top shape: 50 192 7 7 (470400)
I0915 18:55:50.999711  3426 net.cpp:137] Memory required for data: 199293400
I0915 18:55:50.999716  3426 layer_factory.hpp:77] Creating layer prelu_conv3
I0915 18:55:50.999725  3426 net.cpp:84] Creating Layer prelu_conv3
I0915 18:55:50.999729  3426 net.cpp:406] prelu_conv3 <- conv3
I0915 18:55:50.999734  3426 net.cpp:380] prelu_conv3 -> prelu_conv3
I0915 18:55:50.999812  3426 net.cpp:122] Setting up prelu_conv3
I0915 18:55:50.999819  3426 net.cpp:129] Top shape: 50 192 7 7 (470400)
I0915 18:55:50.999820  3426 net.cpp:137] Memory required for data: 201175000
I0915 18:55:50.999825  3426 layer_factory.hpp:77] Creating layer cccp5
I0915 18:55:50.999833  3426 net.cpp:84] Creating Layer cccp5
I0915 18:55:50.999846  3426 net.cpp:406] cccp5 <- prelu_conv3
I0915 18:55:50.999851  3426 net.cpp:380] cccp5 -> cccp5
I0915 18:55:51.001518  3426 net.cpp:122] Setting up cccp5
I0915 18:55:51.001528  3426 net.cpp:129] Top shape: 50 192 7 7 (470400)
I0915 18:55:51.001541  3426 net.cpp:137] Memory required for data: 203056600
I0915 18:55:51.001546  3426 layer_factory.hpp:77] Creating layer prelu_cccp5
I0915 18:55:51.001562  3426 net.cpp:84] Creating Layer prelu_cccp5
I0915 18:55:51.001566  3426 net.cpp:406] prelu_cccp5 <- cccp5
I0915 18:55:51.001570  3426 net.cpp:380] prelu_cccp5 -> prelu_cccp5
I0915 18:55:51.001654  3426 net.cpp:122] Setting up prelu_cccp5
I0915 18:55:51.001660  3426 net.cpp:129] Top shape: 50 192 7 7 (470400)
I0915 18:55:51.001663  3426 net.cpp:137] Memory required for data: 204938200
I0915 18:55:51.001677  3426 layer_factory.hpp:77] Creating layer cccp6
I0915 18:55:51.001684  3426 net.cpp:84] Creating Layer cccp6
I0915 18:55:51.001688  3426 net.cpp:406] cccp6 <- prelu_cccp5
I0915 18:55:51.001691  3426 net.cpp:380] cccp6 -> cccp6
I0915 18:55:51.002539  3426 net.cpp:122] Setting up cccp6
I0915 18:55:51.002549  3426 net.cpp:129] Top shape: 50 10 7 7 (24500)
I0915 18:55:51.002563  3426 net.cpp:137] Memory required for data: 205036200
I0915 18:55:51.002569  3426 layer_factory.hpp:77] Creating layer prelu_cccp6
I0915 18:55:51.002586  3426 net.cpp:84] Creating Layer prelu_cccp6
I0915 18:55:51.002590  3426 net.cpp:406] prelu_cccp6 <- cccp6
I0915 18:55:51.002604  3426 net.cpp:380] prelu_cccp6 -> prelu_cccp6
I0915 18:55:51.002687  3426 net.cpp:122] Setting up prelu_cccp6
I0915 18:55:51.002692  3426 net.cpp:129] Top shape: 50 10 7 7 (24500)
I0915 18:55:51.002696  3426 net.cpp:137] Memory required for data: 205134200
I0915 18:55:51.002699  3426 layer_factory.hpp:77] Creating layer pool3
I0915 18:55:51.002704  3426 net.cpp:84] Creating Layer pool3
I0915 18:55:51.002707  3426 net.cpp:406] pool3 <- prelu_cccp6
I0915 18:55:51.002712  3426 net.cpp:380] pool3 -> pool3
I0915 18:55:51.003156  3426 net.cpp:122] Setting up pool3
I0915 18:55:51.003166  3426 net.cpp:129] Top shape: 50 10 1 1 (500)
I0915 18:55:51.003170  3426 net.cpp:137] Memory required for data: 205136200
I0915 18:55:51.003172  3426 layer_factory.hpp:77] Creating layer pool3_pool3_0_split
I0915 18:55:51.003177  3426 net.cpp:84] Creating Layer pool3_pool3_0_split
I0915 18:55:51.003192  3426 net.cpp:406] pool3_pool3_0_split <- pool3
I0915 18:55:51.003196  3426 net.cpp:380] pool3_pool3_0_split -> pool3_pool3_0_split_0
I0915 18:55:51.003211  3426 net.cpp:380] pool3_pool3_0_split -> pool3_pool3_0_split_1
I0915 18:55:51.003255  3426 net.cpp:122] Setting up pool3_pool3_0_split
I0915 18:55:51.003260  3426 net.cpp:129] Top shape: 50 10 1 1 (500)
I0915 18:55:51.003263  3426 net.cpp:129] Top shape: 50 10 1 1 (500)
I0915 18:55:51.003267  3426 net.cpp:137] Memory required for data: 205140200
I0915 18:55:51.003269  3426 layer_factory.hpp:77] Creating layer accuracy
I0915 18:55:51.003274  3426 net.cpp:84] Creating Layer accuracy
I0915 18:55:51.003278  3426 net.cpp:406] accuracy <- pool3_pool3_0_split_0
I0915 18:55:51.003280  3426 net.cpp:406] accuracy <- label_cifar_1_split_0
I0915 18:55:51.003284  3426 net.cpp:380] accuracy -> accuracy
…
