…
I0915 20:00:45.694943  3563 net.cpp:294] The NetState phase (0) differed from the phase (1) specified by a rule in layer cifar
I0915 20:00:45.695106  3563 net.cpp:51] Initializing net from parameters: 
name: "nin"
state {
  phase: TRAIN
  level: 0
  stage: ""
}
layer {
  name: "cifar"
  type: "Data"
  top: "data"
  top: "label"
  include {
    phase: TRAIN
  }
  transform_param {
    mirror: true
    crop_size: 28
    mean_file: "/home/x306/caffe/xn/PENLU/data/cifar10/mean.binaryproto"
  }
  data_param {
    source: "/home/x306/caffe/xn/PENLU/data/cifar10/cifar10_train_lmdb"
    batch_size: 64
    backend: LMDB
  }
  image_data_param {
    shuffle: true
  }
}
layer {
  name: "conv1"
  type: "Convolution"
  bottom: "data"
  top: "conv1"
  param {
    lr_mult: 1
    decay_mult: 1
  }
  param {
    lr_mult: 2
    decay_mult: 0
  }
  convolution_param {
    num_output: 192
    pad: 2
    kernel_size: 5
    weight_filler {
      type: "gaussian"
      std: 0.05
    }
    bias_filler {
      type: "constant"
      value: 0
    }
  }
}
layer {
  name: "elu_conv1"
  type: "ELU"
  bottom: "conv1"
  top: "elu_conv1"
  elu_param {
    alpha: 1
  }
}
layer {
  name: "cccp1"
  type: "Convolution"
  bottom: "elu_conv1"
  top: "cccp1"
  param {
    lr_mult: 1
    decay_mult: 1
  }
  param {
    lr_mult: 2
    decay_mult: 0
  }
  convolution_param {
    num_output: 160
    kernel_size: 1
    weight_filler {
      type: "gaussian"
      std: 0.05
    }
    bias_filler {
      type: "constant"
      value: 0
    }
  }
}
layer {
  name: "elu_cccp1"
  type: "ELU"
  bottom: "cccp1"
  top: "elu_cccp1"
  elu_param {
    alpha: 1
  }
}
layer {
  name: "cccp2"
  type: "Convolution"
  bottom: "elu_cccp1"
  top: "cccp2"
  param {
    lr_mult: 1
    decay_mult: 1
  }
  param {
    lr_mult: 2
    decay_mult: 0
  }
  convolution_param {
    num_output: 96
    kernel_size: 1
    weight_filler {
      type: "gaussian"
      std: 0.05
    }
    bias_filler {
      type: "constant"
      value: 0
    }
  }
}
layer {
  name: "elu_cccp2"
  type: "ELU"
  bottom: "cccp2"
  top: "elu_cccp2"
  elu_param {
    alpha: 1
  }
}
layer {
  name: "pool1"
  type: "Pooling"
  bottom: "elu_cccp2"
  top: "pool1"
  pooling_param {
    pool: MAX
    kernel_size: 3
    stride: 2
  }
}
layer {
  name: "dropout1"
  type: "Dropout"
  bottom: "pool1"
  top: "dropout1"
  dropout_param {
    dropout_ratio: 0.5
  }
}
layer {
  name: "conv2"
  type: "Convolution"
  bottom: "dropout1"
  top: "conv2"
  param {
    lr_mult: 1
    decay_mult: 1
  }
  param {
    lr_mult: 2
    decay_mult: 0
  }
  convolution_param {
    num_output: 192
    pad: 2
    kernel_size: 5
    weight_filler {
      type: "gaussian"
      std: 0.05
    }
    bias_filler {
      type: "constant"
      value: 0
    }
  }
}
layer {
  name: "elu_conv2"
  type: "ELU"
  bottom: "conv2"
  top: "elu_conv2"
  elu_param {
    alpha: 1
  }
}
layer {
  name: "cccp3"
  type: "Convolution"
  bottom: "elu_conv2"
  top: "cccp3"
  param {
    lr_mult: 1
    decay_mult: 1
  }
  param {
    lr_mult: 2
    decay_mult: 0
  }
  convolution_param {
    num_output: 192
    kernel_size: 1
    weight_filler {
      type: "gaussian"
      std: 0.05
    }
    bias_filler {
      type: "constant"
      value: 0
    }
  }
}
layer {
  name: "elu_cccp3"
  type: "ELU"
  bottom: "cccp3"
  top: "elu_cccp3"
  elu_param {
    alpha: 1
  }
}
layer {
  name: "cccp4"
  type: "Convolution"
  bottom: "elu_cccp3"
  top: "cccp4"
  param {
    lr_mult: 1
    decay_mult: 1
  }
  param {
    lr_mult: 2
    decay_mult: 0
  }
  convolution_param {
    num_output: 192
    kernel_size: 1
    weight_filler {
      type: "gaussian"
      std: 0.05
    }
    bias_filler {
      type: "constant"
      value: 0
    }
  }
}
layer {
  name: "elu_cccp4"
  type: "ELU"
  bottom: "cccp4"
  top: "elu_cccp4"
  elu_param {
    alpha: 1
  }
}
layer {
  name: "pool2"
  type: "Pooling"
  bottom: "elu_cccp4"
  top: "pool2"
  pooling_param {
    pool: AVE
    kernel_size: 3
    stride: 2
  }
}
layer {
  name: "dropout2"
  type: "Dropout"
  bottom: "pool2"
  top: "dropout2"
  dropout_param {
    dropout_ratio: 0.5
  }
}
layer {
  name: "conv3"
  type: "Convolution"
  bottom: "dropout2"
  top: "conv3"
  param {
    lr_mult: 1
    decay_mult: 1
  }
  param {
    lr_mult: 2
    decay_mult: 0
  }
  convolution_param {
    num_output: 192
    pad: 1
    kernel_size: 3
    weight_filler {
      type: "gaussian"
      std: 0.05
    }
    bias_filler {
      type: "constant"
      value: 0
    }
  }
}
layer {
  name: "elu_conv3"
  type: "ELU"
  bottom: "conv3"
  top: "elu_conv3"
  elu_param {
    alpha: 1
  }
}
layer {
  name: "cccp5"
  type: "Convolution"
  bottom: "elu_conv3"
  top: "cccp5"
  param {
    lr_mult: 1
    decay_mult: 1
  }
  param {
    lr_mult: 2
    decay_mult: 0
  }
  convolution_param {
    num_output: 192
    kernel_size: 1
    weight_filler {
      type: "gaussian"
      std: 0.05
    }
    bias_filler {
      type: "constant"
      value: 0
    }
  }
}
layer {
  name: "elu_cccp5"
  type: "ELU"
  bottom: "cccp5"
  top: "elu_cccp5"
  elu_param {
    alpha: 1
  }
}
layer {
  name: "cccp6"
  type: "Convolution"
  bottom: "elu_cccp5"
  top: "cccp6"
  param {
    lr_mult: 0.1
    decay_mult: 1
  }
  param {
    lr_mult: 0.1
    decay_mult: 0
  }
  convolution_param {
    num_output: 10
    kernel_size: 1
    weight_filler {
      type: "gaussian"
      std: 0.05
    }
    bias_filler {
      type: "constant"
      value: 0
    }
  }
}
layer {
  name: "elu_cccp6"
  type: "ELU"
  bottom: "cccp6"
  top: "elu_cccp6"
  elu_param {
    alpha: 1
  }
}
layer {
  name: "pool3"
  type: "Pooling"
  bottom: "elu_cccp6"
  top: "pool3"
  pooling_param {
    pool: AVE
    kernel_size: 7
    stride: 1
  }
}
layer {
  name: "accuracy"
  type: "Accuracy"
  bottom: "pool3"
  bottom: "label"
  top: "accuracy"
}
layer {
  name: "loss"
  type: "SoftmaxWithLoss"
  bottom: "pool3"
  bottom: "label"
  top: "loss"
}
I0915 20:00:45.695231  3563 layer_factory.hpp:77] Creating layer cifar
I0915 20:00:45.695325  3563 db_lmdb.cpp:35] Opened lmdb /home/x306/caffe/xn/PENLU/data/cifar10/cifar10_train_lmdb
I0915 20:00:45.695345  3563 net.cpp:84] Creating Layer cifar
I0915 20:00:45.695361  3563 net.cpp:380] cifar -> data
I0915 20:00:45.695377  3563 net.cpp:380] cifar -> label
I0915 20:00:45.695396  3563 data_transformer.cpp:25] Loading mean file from: /home/x306/caffe/xn/PENLU/data/cifar10/mean.binaryproto
I0915 20:00:45.696804  3563 data_layer.cpp:45] output data size: 64,3,28,28
I0915 20:00:45.698881  3563 net.cpp:122] Setting up cifar
I0915 20:00:45.698894  3563 net.cpp:129] Top shape: 64 3 28 28 (150528)
I0915 20:00:45.698899  3563 net.cpp:129] Top shape: 64 (64)
I0915 20:00:45.698911  3563 net.cpp:137] Memory required for data: 602368
I0915 20:00:45.698920  3563 layer_factory.hpp:77] Creating layer label_cifar_1_split
I0915 20:00:45.698931  3563 net.cpp:84] Creating Layer label_cifar_1_split
I0915 20:00:45.698936  3563 net.cpp:406] label_cifar_1_split <- label
I0915 20:00:45.698953  3563 net.cpp:380] label_cifar_1_split -> label_cifar_1_split_0
I0915 20:00:45.698971  3563 net.cpp:380] label_cifar_1_split -> label_cifar_1_split_1
I0915 20:00:45.699021  3563 net.cpp:122] Setting up label_cifar_1_split
I0915 20:00:45.699028  3563 net.cpp:129] Top shape: 64 (64)
I0915 20:00:45.699030  3563 net.cpp:129] Top shape: 64 (64)
I0915 20:00:45.699033  3563 net.cpp:137] Memory required for data: 602880
I0915 20:00:45.699035  3563 layer_factory.hpp:77] Creating layer conv1
I0915 20:00:45.699059  3563 net.cpp:84] Creating Layer conv1
I0915 20:00:45.699081  3563 net.cpp:406] conv1 <- data
I0915 20:00:45.699086  3563 net.cpp:380] conv1 -> conv1
I0915 20:00:45.844674  3563 net.cpp:122] Setting up conv1
I0915 20:00:45.844713  3563 net.cpp:129] Top shape: 64 192 28 28 (9633792)
I0915 20:00:45.844717  3563 net.cpp:137] Memory required for data: 39138048
I0915 20:00:45.844738  3563 layer_factory.hpp:77] Creating layer elu_conv1
I0915 20:00:45.844756  3563 net.cpp:84] Creating Layer elu_conv1
I0915 20:00:45.844763  3563 net.cpp:406] elu_conv1 <- conv1
I0915 20:00:45.844771  3563 net.cpp:380] elu_conv1 -> elu_conv1
I0915 20:00:45.844806  3563 net.cpp:122] Setting up elu_conv1
I0915 20:00:45.844815  3563 net.cpp:129] Top shape: 64 192 28 28 (9633792)
I0915 20:00:45.844818  3563 net.cpp:137] Memory required for data: 77673216
I0915 20:00:45.844838  3563 layer_factory.hpp:77] Creating layer cccp1
I0915 20:00:45.844864  3563 net.cpp:84] Creating Layer cccp1
I0915 20:00:45.844871  3563 net.cpp:406] cccp1 <- elu_conv1
I0915 20:00:45.844884  3563 net.cpp:380] cccp1 -> cccp1
I0915 20:00:45.847198  3563 net.cpp:122] Setting up cccp1
I0915 20:00:45.847208  3563 net.cpp:129] Top shape: 64 160 28 28 (8028160)
I0915 20:00:45.847211  3563 net.cpp:137] Memory required for data: 109785856
I0915 20:00:45.847218  3563 layer_factory.hpp:77] Creating layer elu_cccp1
I0915 20:00:45.847223  3563 net.cpp:84] Creating Layer elu_cccp1
I0915 20:00:45.847225  3563 net.cpp:406] elu_cccp1 <- cccp1
I0915 20:00:45.847229  3563 net.cpp:380] elu_cccp1 -> elu_cccp1
I0915 20:00:45.847255  3563 net.cpp:122] Setting up elu_cccp1
I0915 20:00:45.847270  3563 net.cpp:129] Top shape: 64 160 28 28 (8028160)
I0915 20:00:45.847271  3563 net.cpp:137] Memory required for data: 141898496
I0915 20:00:45.847273  3563 layer_factory.hpp:77] Creating layer cccp2
I0915 20:00:45.847291  3563 net.cpp:84] Creating Layer cccp2
I0915 20:00:45.847295  3563 net.cpp:406] cccp2 <- elu_cccp1
I0915 20:00:45.847307  3563 net.cpp:380] cccp2 -> cccp2
I0915 20:00:45.848448  3563 net.cpp:122] Setting up cccp2
I0915 20:00:45.848459  3563 net.cpp:129] Top shape: 64 96 28 28 (4816896)
I0915 20:00:45.848462  3563 net.cpp:137] Memory required for data: 161166080
I0915 20:00:45.848469  3563 layer_factory.hpp:77] Creating layer elu_cccp2
I0915 20:00:45.848472  3563 net.cpp:84] Creating Layer elu_cccp2
I0915 20:00:45.848475  3563 net.cpp:406] elu_cccp2 <- cccp2
I0915 20:00:45.848479  3563 net.cpp:380] elu_cccp2 -> elu_cccp2
I0915 20:00:45.848505  3563 net.cpp:122] Setting up elu_cccp2
I0915 20:00:45.848510  3563 net.cpp:129] Top shape: 64 96 28 28 (4816896)
I0915 20:00:45.848512  3563 net.cpp:137] Memory required for data: 180433664
I0915 20:00:45.848515  3563 layer_factory.hpp:77] Creating layer pool1
I0915 20:00:45.848521  3563 net.cpp:84] Creating Layer pool1
I0915 20:00:45.848526  3563 net.cpp:406] pool1 <- elu_cccp2
I0915 20:00:45.848528  3563 net.cpp:380] pool1 -> pool1
I0915 20:00:45.848565  3563 net.cpp:122] Setting up pool1
I0915 20:00:45.848570  3563 net.cpp:129] Top shape: 64 96 14 14 (1204224)
I0915 20:00:45.848572  3563 net.cpp:137] Memory required for data: 185250560
I0915 20:00:45.848575  3563 layer_factory.hpp:77] Creating layer dropout1
I0915 20:00:45.848589  3563 net.cpp:84] Creating Layer dropout1
I0915 20:00:45.848592  3563 net.cpp:406] dropout1 <- pool1
I0915 20:00:45.848597  3563 net.cpp:380] dropout1 -> dropout1
I0915 20:00:45.848629  3563 net.cpp:122] Setting up dropout1
I0915 20:00:45.848634  3563 net.cpp:129] Top shape: 64 96 14 14 (1204224)
I0915 20:00:45.848645  3563 net.cpp:137] Memory required for data: 190067456
I0915 20:00:45.848649  3563 layer_factory.hpp:77] Creating layer conv2
I0915 20:00:45.848655  3563 net.cpp:84] Creating Layer conv2
I0915 20:00:45.848659  3563 net.cpp:406] conv2 <- dropout1
I0915 20:00:45.848662  3563 net.cpp:380] conv2 -> conv2
I0915 20:00:45.860270  3563 net.cpp:122] Setting up conv2
I0915 20:00:45.860282  3563 net.cpp:129] Top shape: 64 192 14 14 (2408448)
I0915 20:00:45.860286  3563 net.cpp:137] Memory required for data: 199701248
I0915 20:00:45.860324  3563 layer_factory.hpp:77] Creating layer elu_conv2
I0915 20:00:45.860339  3563 net.cpp:84] Creating Layer elu_conv2
I0915 20:00:45.860342  3563 net.cpp:406] elu_conv2 <- conv2
I0915 20:00:45.860347  3563 net.cpp:380] elu_conv2 -> elu_conv2
I0915 20:00:45.860404  3563 net.cpp:122] Setting up elu_conv2
I0915 20:00:45.860417  3563 net.cpp:129] Top shape: 64 192 14 14 (2408448)
I0915 20:00:45.860420  3563 net.cpp:137] Memory required for data: 209335040
I0915 20:00:45.860424  3563 layer_factory.hpp:77] Creating layer cccp3
I0915 20:00:45.860440  3563 net.cpp:84] Creating Layer cccp3
I0915 20:00:45.860443  3563 net.cpp:406] cccp3 <- elu_conv2
I0915 20:00:45.860447  3563 net.cpp:380] cccp3 -> cccp3
I0915 20:00:45.862104  3563 net.cpp:122] Setting up cccp3
I0915 20:00:45.862115  3563 net.cpp:129] Top shape: 64 192 14 14 (2408448)
I0915 20:00:45.862118  3563 net.cpp:137] Memory required for data: 218968832
I0915 20:00:45.862135  3563 layer_factory.hpp:77] Creating layer elu_cccp3
I0915 20:00:45.862140  3563 net.cpp:84] Creating Layer elu_cccp3
I0915 20:00:45.862143  3563 net.cpp:406] elu_cccp3 <- cccp3
I0915 20:00:45.862148  3563 net.cpp:380] elu_cccp3 -> elu_cccp3
I0915 20:00:45.862164  3563 net.cpp:122] Setting up elu_cccp3
I0915 20:00:45.862177  3563 net.cpp:129] Top shape: 64 192 14 14 (2408448)
I0915 20:00:45.862179  3563 net.cpp:137] Memory required for data: 228602624
I0915 20:00:45.862181  3563 layer_factory.hpp:77] Creating layer cccp4
I0915 20:00:45.862187  3563 net.cpp:84] Creating Layer cccp4
I0915 20:00:45.862190  3563 net.cpp:406] cccp4 <- elu_cccp3
I0915 20:00:45.862195  3563 net.cpp:380] cccp4 -> cccp4
I0915 20:00:45.864044  3563 net.cpp:122] Setting up cccp4
I0915 20:00:45.864065  3563 net.cpp:129] Top shape: 64 192 14 14 (2408448)
I0915 20:00:45.864069  3563 net.cpp:137] Memory required for data: 238236416
I0915 20:00:45.864074  3563 layer_factory.hpp:77] Creating layer elu_cccp4
I0915 20:00:45.864078  3563 net.cpp:84] Creating Layer elu_cccp4
I0915 20:00:45.864081  3563 net.cpp:406] elu_cccp4 <- cccp4
I0915 20:00:45.864085  3563 net.cpp:380] elu_cccp4 -> elu_cccp4
I0915 20:00:45.864112  3563 net.cpp:122] Setting up elu_cccp4
I0915 20:00:45.864117  3563 net.cpp:129] Top shape: 64 192 14 14 (2408448)
I0915 20:00:45.864120  3563 net.cpp:137] Memory required for data: 247870208
I0915 20:00:45.864131  3563 layer_factory.hpp:77] Creating layer pool2
I0915 20:00:45.864137  3563 net.cpp:84] Creating Layer pool2
I0915 20:00:45.864140  3563 net.cpp:406] pool2 <- elu_cccp4
I0915 20:00:45.864143  3563 net.cpp:380] pool2 -> pool2
I0915 20:00:45.864289  3563 net.cpp:122] Setting up pool2
I0915 20:00:45.864296  3563 net.cpp:129] Top shape: 64 192 7 7 (602112)
I0915 20:00:45.864300  3563 net.cpp:137] Memory required for data: 250278656
I0915 20:00:45.864313  3563 layer_factory.hpp:77] Creating layer dropout2
I0915 20:00:45.864318  3563 net.cpp:84] Creating Layer dropout2
I0915 20:00:45.864321  3563 net.cpp:406] dropout2 <- pool2
I0915 20:00:45.864326  3563 net.cpp:380] dropout2 -> dropout2
I0915 20:00:45.864358  3563 net.cpp:122] Setting up dropout2
I0915 20:00:45.864363  3563 net.cpp:129] Top shape: 64 192 7 7 (602112)
I0915 20:00:45.864367  3563 net.cpp:137] Memory required for data: 252687104
I0915 20:00:45.864378  3563 layer_factory.hpp:77] Creating layer conv3
I0915 20:00:45.864387  3563 net.cpp:84] Creating Layer conv3
I0915 20:00:45.864389  3563 net.cpp:406] conv3 <- dropout2
I0915 20:00:45.864393  3563 net.cpp:380] conv3 -> conv3
I0915 20:00:45.872874  3563 net.cpp:122] Setting up conv3
I0915 20:00:45.872885  3563 net.cpp:129] Top shape: 64 192 7 7 (602112)
I0915 20:00:45.872889  3563 net.cpp:137] Memory required for data: 255095552
I0915 20:00:45.872905  3563 layer_factory.hpp:77] Creating layer elu_conv3
I0915 20:00:45.872910  3563 net.cpp:84] Creating Layer elu_conv3
I0915 20:00:45.872913  3563 net.cpp:406] elu_conv3 <- conv3
I0915 20:00:45.872917  3563 net.cpp:380] elu_conv3 -> elu_conv3
I0915 20:00:45.872937  3563 net.cpp:122] Setting up elu_conv3
I0915 20:00:45.872942  3563 net.cpp:129] Top shape: 64 192 7 7 (602112)
I0915 20:00:45.872972  3563 net.cpp:137] Memory required for data: 257504000
I0915 20:00:45.872975  3563 layer_factory.hpp:77] Creating layer cccp5
I0915 20:00:45.872982  3563 net.cpp:84] Creating Layer cccp5
I0915 20:00:45.872985  3563 net.cpp:406] cccp5 <- elu_conv3
I0915 20:00:45.872989  3563 net.cpp:380] cccp5 -> cccp5
I0915 20:00:45.874608  3563 net.cpp:122] Setting up cccp5
I0915 20:00:45.874619  3563 net.cpp:129] Top shape: 64 192 7 7 (602112)
I0915 20:00:45.874631  3563 net.cpp:137] Memory required for data: 259912448
I0915 20:00:45.874637  3563 layer_factory.hpp:77] Creating layer elu_cccp5
I0915 20:00:45.874656  3563 net.cpp:84] Creating Layer elu_cccp5
I0915 20:00:45.874660  3563 net.cpp:406] elu_cccp5 <- cccp5
I0915 20:00:45.874672  3563 net.cpp:380] elu_cccp5 -> elu_cccp5
I0915 20:00:45.874691  3563 net.cpp:122] Setting up elu_cccp5
I0915 20:00:45.874694  3563 net.cpp:129] Top shape: 64 192 7 7 (602112)
I0915 20:00:45.874707  3563 net.cpp:137] Memory required for data: 262320896
I0915 20:00:45.874709  3563 layer_factory.hpp:77] Creating layer cccp6
I0915 20:00:45.874725  3563 net.cpp:84] Creating Layer cccp6
I0915 20:00:45.874728  3563 net.cpp:406] cccp6 <- elu_cccp5
I0915 20:00:45.874732  3563 net.cpp:380] cccp6 -> cccp6
I0915 20:00:45.875591  3563 net.cpp:122] Setting up cccp6
I0915 20:00:45.875602  3563 net.cpp:129] Top shape: 64 10 7 7 (31360)
I0915 20:00:45.875615  3563 net.cpp:137] Memory required for data: 262446336
I0915 20:00:45.875622  3563 layer_factory.hpp:77] Creating layer elu_cccp6
I0915 20:00:45.875640  3563 net.cpp:84] Creating Layer elu_cccp6
I0915 20:00:45.875643  3563 net.cpp:406] elu_cccp6 <- cccp6
I0915 20:00:45.875659  3563 net.cpp:380] elu_cccp6 -> elu_cccp6
I0915 20:00:45.875687  3563 net.cpp:122] Setting up elu_cccp6
I0915 20:00:45.875701  3563 net.cpp:129] Top shape: 64 10 7 7 (31360)
I0915 20:00:45.875705  3563 net.cpp:137] Memory required for data: 262571776
I0915 20:00:45.875706  3563 layer_factory.hpp:77] Creating layer pool3
I0915 20:00:45.875720  3563 net.cpp:84] Creating Layer pool3
I0915 20:00:45.875725  3563 net.cpp:406] pool3 <- elu_cccp6
I0915 20:00:45.875727  3563 net.cpp:380] pool3 -> pool3
I0915 20:00:45.875867  3563 net.cpp:122] Setting up pool3
I0915 20:00:45.875874  3563 net.cpp:129] Top shape: 64 10 1 1 (640)
I0915 20:00:45.875879  3563 net.cpp:137] Memory required for data: 262574336
I0915 20:00:45.875880  3563 layer_factory.hpp:77] Creating layer pool3_pool3_0_split
I0915 20:00:45.875885  3563 net.cpp:84] Creating Layer pool3_pool3_0_split
I0915 20:00:45.875890  3563 net.cpp:406] pool3_pool3_0_split <- pool3
I0915 20:00:45.875892  3563 net.cpp:380] pool3_pool3_0_split -> pool3_pool3_0_split_0
I0915 20:00:45.875898  3563 net.cpp:380] pool3_pool3_0_split -> pool3_pool3_0_split_1
I0915 20:00:45.875921  3563 net.cpp:122] Setting up pool3_pool3_0_split
I0915 20:00:45.875926  3563 net.cpp:129] Top shape: 64 10 1 1 (640)
I0915 20:00:45.875929  3563 net.cpp:129] Top shape: 64 10 1 1 (640)
I0915 20:00:45.875931  3563 net.cpp:137] Memory required for data: 262579456
I0915 20:00:45.875933  3563 layer_factory.hpp:77] Creating layer accuracy
I0915 20:00:45.875937  3563 net.cpp:84] Creating Layer accuracy
I0915 20:00:45.875941  3563 net.cpp:406] accuracy <- pool3_pool3_0_split_0
I0915 20:00:45.875944  3563 net.cpp:406] accuracy <- label_cifar_1_split_0
I0915 20:00:45.875947  3563 net.cpp:380] accuracy -> accuracy
…
I0915 20:00:45.876766  3563 net.cpp:294] The NetState phase (1) differed from the phase (0) specified by a rule in layer cifar
I0915 20:00:45.876898  3563 net.cpp:51] Initializing net from parameters: 
name: "nin"
state {
  phase: TEST
}
layer {
  name: "cifar"
  type: "Data"
  top: "data"
  top: "label"
  include {
    phase: TEST
  }
  transform_param {
    mirror: false
    crop_size: 28
    mean_file: "/home/x306/caffe/xn/PENLU/data/cifar10/mean.binaryproto"
  }
  data_param {
    source: "/home/x306/caffe/xn/PENLU/data/cifar10/cifar10_test_lmdb"
    batch_size: 50
    backend: LMDB
  }
}
layer {
  name: "conv1"
  type: "Convolution"
  bottom: "data"
  top: "conv1"
  param {
    lr_mult: 1
    decay_mult: 1
  }
  param {
    lr_mult: 2
    decay_mult: 0
  }
  convolution_param {
    num_output: 192
    pad: 2
    kernel_size: 5
    weight_filler {
      type: "gaussian"
      std: 0.05
    }
    bias_filler {
      type: "constant"
      value: 0
    }
  }
}
layer {
  name: "elu_conv1"
  type: "ELU"
  bottom: "conv1"
  top: "elu_conv1"
  elu_param {
    alpha: 1
  }
}
layer {
  name: "cccp1"
  type: "Convolution"
  bottom: "elu_conv1"
  top: "cccp1"
  param {
    lr_mult: 1
    decay_mult: 1
  }
  param {
    lr_mult: 2
    decay_mult: 0
  }
  convolution_param {
    num_output: 160
    kernel_size: 1
    weight_filler {
      type: "gaussian"
      std: 0.05
    }
    bias_filler {
      type: "constant"
      value: 0
    }
  }
}
layer {
  name: "elu_cccp1"
  type: "ELU"
  bottom: "cccp1"
  top: "elu_cccp1"
  elu_param {
    alpha: 1
  }
}
layer {
  name: "cccp2"
  type: "Convolution"
  bottom: "elu_cccp1"
  top: "cccp2"
  param {
    lr_mult: 1
    decay_mult: 1
  }
  param {
    lr_mult: 2
    decay_mult: 0
  }
  convolution_param {
    num_output: 96
    kernel_size: 1
    weight_filler {
      type: "gaussian"
      std: 0.05
    }
    bias_filler {
      type: "constant"
      value: 0
    }
  }
}
layer {
  name: "elu_cccp2"
  type: "ELU"
  bottom: "cccp2"
  top: "elu_cccp2"
  elu_param {
    alpha: 1
  }
}
layer {
  name: "pool1"
  type: "Pooling"
  bottom: "elu_cccp2"
  top: "pool1"
  pooling_param {
    pool: MAX
    kernel_size: 3
    stride: 2
  }
}
layer {
  name: "dropout1"
  type: "Dropout"
  bottom: "pool1"
  top: "dropout1"
  dropout_param {
    dropout_ratio: 0.5
  }
}
layer {
  name: "conv2"
  type: "Convolution"
  bottom: "dropout1"
  top: "conv2"
  param {
    lr_mult: 1
    decay_mult: 1
  }
  param {
    lr_mult: 2
    decay_mult: 0
  }
  convolution_param {
    num_output: 192
    pad: 2
    kernel_size: 5
    weight_filler {
      type: "gaussian"
      std: 0.05
    }
    bias_filler {
      type: "constant"
      value: 0
    }
  }
}
layer {
  name: "elu_conv2"
  type: "ELU"
  bottom: "conv2"
  top: "elu_conv2"
  elu_param {
    alpha: 1
  }
}
layer {
  name: "cccp3"
  type: "Convolution"
  bottom: "elu_conv2"
  top: "cccp3"
  param {
    lr_mult: 1
    decay_mult: 1
  }
  param {
    lr_mult: 2
    decay_mult: 0
  }
  convolution_param {
    num_output: 192
    kernel_size: 1
    weight_filler {
      type: "gaussian"
      std: 0.05
    }
    bias_filler {
      type: "constant"
      value: 0
    }
  }
}
layer {
  name: "elu_cccp3"
  type: "ELU"
  bottom: "cccp3"
  top: "elu_cccp3"
  elu_param {
    alpha: 1
  }
}
layer {
  name: "cccp4"
  type: "Convolution"
  bottom: "elu_cccp3"
  top: "cccp4"
  param {
    lr_mult: 1
    decay_mult: 1
  }
  param {
    lr_mult: 2
    decay_mult: 0
  }
  convolution_param {
    num_output: 192
    kernel_size: 1
    weight_filler {
      type: "gaussian"
      std: 0.05
    }
    bias_filler {
      type: "constant"
      value: 0
    }
  }
}
layer {
  name: "elu_cccp4"
  type: "ELU"
  bottom: "cccp4"
  top: "elu_cccp4"
  elu_param {
    alpha: 1
  }
}
layer {
  name: "pool2"
  type: "Pooling"
  bottom: "elu_cccp4"
  top: "pool2"
  pooling_param {
    pool: AVE
    kernel_size: 3
    stride: 2
  }
}
layer {
  name: "dropout2"
  type: "Dropout"
  bottom: "pool2"
  top: "dropout2"
  dropout_param {
    dropout_ratio: 0.5
  }
}
layer {
  name: "conv3"
  type: "Convolution"
  bottom: "dropout2"
  top: "conv3"
  param {
    lr_mult: 1
    decay_mult: 1
  }
  param {
    lr_mult: 2
    decay_mult: 0
  }
  convolution_param {
    num_output: 192
    pad: 1
    kernel_size: 3
    weight_filler {
      type: "gaussian"
      std: 0.05
    }
    bias_filler {
      type: "constant"
      value: 0
    }
  }
}
layer {
  name: "elu_conv3"
  type: "ELU"
  bottom: "conv3"
  top: "elu_conv3"
  elu_param {
    alpha: 1
  }
}
layer {
  name: "cccp5"
  type: "Convolution"
  bottom: "elu_conv3"
  top: "cccp5"
  param {
    lr_mult: 1
    decay_mult: 1
  }
  param {
    lr_mult: 2
    decay_mult: 0
  }
  convolution_param {
    num_output: 192
    kernel_size: 1
    weight_filler {
      type: "gaussian"
      std: 0.05
    }
    bias_filler {
      type: "constant"
      value: 0
    }
  }
}
layer {
  name: "elu_cccp5"
  type: "ELU"
  bottom: "cccp5"
  top: "elu_cccp5"
  elu_param {
    alpha: 1
  }
}
layer {
  name: "cccp6"
  type: "Convolution"
  bottom: "elu_cccp5"
  top: "cccp6"
  param {
    lr_mult: 0.1
    decay_mult: 1
  }
  param {
    lr_mult: 0.1
    decay_mult: 0
  }
  convolution_param {
    num_output: 10
    kernel_size: 1
    weight_filler {
      type: "gaussian"
      std: 0.05
    }
    bias_filler {
      type: "constant"
      value: 0
    }
  }
}
layer {
  name: "elu_cccp6"
  type: "ELU"
  bottom: "cccp6"
  top: "elu_cccp6"
  elu_param {
    alpha: 1
  }
}
layer {
  name: "pool3"
  type: "Pooling"
  bottom: "elu_cccp6"
  top: "pool3"
  pooling_param {
    pool: AVE
    kernel_size: 7
    stride: 1
  }
}
layer {
  name: "accuracy"
  type: "Accuracy"
  bottom: "pool3"
  bottom: "label"
  top: "accuracy"
}
layer {
  name: "loss"
  type: "SoftmaxWithLoss"
  bottom: "pool3"
  bottom: "label"
  top: "loss"
}
I0915 20:00:45.876977  3563 layer_factory.hpp:77] Creating layer cifar
I0915 20:00:45.877014  3563 db_lmdb.cpp:35] Opened lmdb /home/x306/caffe/xn/PENLU/data/cifar10/cifar10_test_lmdb
I0915 20:00:45.877025  3563 net.cpp:84] Creating Layer cifar
I0915 20:00:45.877029  3563 net.cpp:380] cifar -> data
I0915 20:00:45.877035  3563 net.cpp:380] cifar -> label
I0915 20:00:45.877040  3563 data_transformer.cpp:25] Loading mean file from: /home/x306/caffe/xn/PENLU/data/cifar10/mean.binaryproto
I0915 20:00:45.877140  3563 data_layer.cpp:45] output data size: 50,3,28,28
I0915 20:00:45.878247  3563 net.cpp:122] Setting up cifar
I0915 20:00:45.878259  3563 net.cpp:129] Top shape: 50 3 28 28 (117600)
I0915 20:00:45.878263  3563 net.cpp:129] Top shape: 50 (50)
I0915 20:00:45.878267  3563 net.cpp:137] Memory required for data: 470600
I0915 20:00:45.878269  3563 layer_factory.hpp:77] Creating layer label_cifar_1_split
I0915 20:00:45.878275  3563 net.cpp:84] Creating Layer label_cifar_1_split
I0915 20:00:45.878278  3563 net.cpp:406] label_cifar_1_split <- label
I0915 20:00:45.878283  3563 net.cpp:380] label_cifar_1_split -> label_cifar_1_split_0
I0915 20:00:45.878288  3563 net.cpp:380] label_cifar_1_split -> label_cifar_1_split_1
I0915 20:00:45.878336  3563 net.cpp:122] Setting up label_cifar_1_split
I0915 20:00:45.878343  3563 net.cpp:129] Top shape: 50 (50)
I0915 20:00:45.878347  3563 net.cpp:129] Top shape: 50 (50)
I0915 20:00:45.878350  3563 net.cpp:137] Memory required for data: 471000
I0915 20:00:45.878352  3563 layer_factory.hpp:77] Creating layer conv1
I0915 20:00:45.878360  3563 net.cpp:84] Creating Layer conv1
I0915 20:00:45.878362  3563 net.cpp:406] conv1 <- data
I0915 20:00:45.878367  3563 net.cpp:380] conv1 -> conv1
I0915 20:00:45.879905  3563 net.cpp:122] Setting up conv1
I0915 20:00:45.879918  3563 net.cpp:129] Top shape: 50 192 28 28 (7526400)
I0915 20:00:45.879926  3563 net.cpp:137] Memory required for data: 30576600
I0915 20:00:45.879935  3563 layer_factory.hpp:77] Creating layer elu_conv1
I0915 20:00:45.879940  3563 net.cpp:84] Creating Layer elu_conv1
I0915 20:00:45.879943  3563 net.cpp:406] elu_conv1 <- conv1
I0915 20:00:45.879947  3563 net.cpp:380] elu_conv1 -> elu_conv1
I0915 20:00:45.879966  3563 net.cpp:122] Setting up elu_conv1
I0915 20:00:45.879979  3563 net.cpp:129] Top shape: 50 192 28 28 (7526400)
I0915 20:00:45.879984  3563 net.cpp:137] Memory required for data: 60682200
I0915 20:00:45.879987  3563 layer_factory.hpp:77] Creating layer cccp1
I0915 20:00:45.879993  3563 net.cpp:84] Creating Layer cccp1
I0915 20:00:45.879997  3563 net.cpp:406] cccp1 <- elu_conv1
I0915 20:00:45.880002  3563 net.cpp:380] cccp1 -> cccp1
I0915 20:00:45.881619  3563 net.cpp:122] Setting up cccp1
I0915 20:00:45.881629  3563 net.cpp:129] Top shape: 50 160 28 28 (6272000)
I0915 20:00:45.881633  3563 net.cpp:137] Memory required for data: 85770200
I0915 20:00:45.881641  3563 layer_factory.hpp:77] Creating layer elu_cccp1
I0915 20:00:45.881647  3563 net.cpp:84] Creating Layer elu_cccp1
I0915 20:00:45.881651  3563 net.cpp:406] elu_cccp1 <- cccp1
I0915 20:00:45.881655  3563 net.cpp:380] elu_cccp1 -> elu_cccp1
I0915 20:00:45.881672  3563 net.cpp:122] Setting up elu_cccp1
I0915 20:00:45.881681  3563 net.cpp:129] Top shape: 50 160 28 28 (6272000)
I0915 20:00:45.881685  3563 net.cpp:137] Memory required for data: 110858200
I0915 20:00:45.881688  3563 layer_factory.hpp:77] Creating layer cccp2
I0915 20:00:45.881695  3563 net.cpp:84] Creating Layer cccp2
I0915 20:00:45.881698  3563 net.cpp:406] cccp2 <- elu_cccp1
I0915 20:00:45.881702  3563 net.cpp:380] cccp2 -> cccp2
I0915 20:00:45.882895  3563 net.cpp:122] Setting up cccp2
I0915 20:00:45.882915  3563 net.cpp:129] Top shape: 50 96 28 28 (3763200)
I0915 20:00:45.882920  3563 net.cpp:137] Memory required for data: 125911000
I0915 20:00:45.882926  3563 layer_factory.hpp:77] Creating layer elu_cccp2
I0915 20:00:45.882931  3563 net.cpp:84] Creating Layer elu_cccp2
I0915 20:00:45.882936  3563 net.cpp:406] elu_cccp2 <- cccp2
I0915 20:00:45.882939  3563 net.cpp:380] elu_cccp2 -> elu_cccp2
I0915 20:00:45.882958  3563 net.cpp:122] Setting up elu_cccp2
I0915 20:00:45.882963  3563 net.cpp:129] Top shape: 50 96 28 28 (3763200)
I0915 20:00:45.882966  3563 net.cpp:137] Memory required for data: 140963800
I0915 20:00:45.882969  3563 layer_factory.hpp:77] Creating layer pool1
I0915 20:00:45.882974  3563 net.cpp:84] Creating Layer pool1
I0915 20:00:45.882977  3563 net.cpp:406] pool1 <- elu_cccp2
I0915 20:00:45.882982  3563 net.cpp:380] pool1 -> pool1
I0915 20:00:45.883005  3563 net.cpp:122] Setting up pool1
I0915 20:00:45.883010  3563 net.cpp:129] Top shape: 50 96 14 14 (940800)
I0915 20:00:45.883014  3563 net.cpp:137] Memory required for data: 144727000
I0915 20:00:45.883016  3563 layer_factory.hpp:77] Creating layer dropout1
I0915 20:00:45.883020  3563 net.cpp:84] Creating Layer dropout1
I0915 20:00:45.883023  3563 net.cpp:406] dropout1 <- pool1
I0915 20:00:45.883028  3563 net.cpp:380] dropout1 -> dropout1
I0915 20:00:45.883049  3563 net.cpp:122] Setting up dropout1
I0915 20:00:45.883054  3563 net.cpp:129] Top shape: 50 96 14 14 (940800)
I0915 20:00:45.883056  3563 net.cpp:137] Memory required for data: 148490200
I0915 20:00:45.883059  3563 layer_factory.hpp:77] Creating layer conv2
I0915 20:00:45.883065  3563 net.cpp:84] Creating Layer conv2
I0915 20:00:45.883069  3563 net.cpp:406] conv2 <- dropout1
I0915 20:00:45.883072  3563 net.cpp:380] conv2 -> conv2
I0915 20:00:45.894569  3563 net.cpp:122] Setting up conv2
I0915 20:00:45.894580  3563 net.cpp:129] Top shape: 50 192 14 14 (1881600)
I0915 20:00:45.894584  3563 net.cpp:137] Memory required for data: 156016600
I0915 20:00:45.894589  3563 layer_factory.hpp:77] Creating layer elu_conv2
I0915 20:00:45.894594  3563 net.cpp:84] Creating Layer elu_conv2
I0915 20:00:45.894598  3563 net.cpp:406] elu_conv2 <- conv2
I0915 20:00:45.894601  3563 net.cpp:380] elu_conv2 -> elu_conv2
I0915 20:00:45.894625  3563 net.cpp:122] Setting up elu_conv2
I0915 20:00:45.894630  3563 net.cpp:129] Top shape: 50 192 14 14 (1881600)
I0915 20:00:45.894634  3563 net.cpp:137] Memory required for data: 163543000
I0915 20:00:45.894635  3563 layer_factory.hpp:77] Creating layer cccp3
I0915 20:00:45.894641  3563 net.cpp:84] Creating Layer cccp3
I0915 20:00:45.894645  3563 net.cpp:406] cccp3 <- elu_conv2
I0915 20:00:45.894649  3563 net.cpp:380] cccp3 -> cccp3
I0915 20:00:45.896313  3563 net.cpp:122] Setting up cccp3
I0915 20:00:45.896324  3563 net.cpp:129] Top shape: 50 192 14 14 (1881600)
I0915 20:00:45.896327  3563 net.cpp:137] Memory required for data: 171069400
I0915 20:00:45.896334  3563 layer_factory.hpp:77] Creating layer elu_cccp3
I0915 20:00:45.896339  3563 net.cpp:84] Creating Layer elu_cccp3
I0915 20:00:45.896342  3563 net.cpp:406] elu_cccp3 <- cccp3
I0915 20:00:45.896347  3563 net.cpp:380] elu_cccp3 -> elu_cccp3
I0915 20:00:45.896365  3563 net.cpp:122] Setting up elu_cccp3
I0915 20:00:45.896369  3563 net.cpp:129] Top shape: 50 192 14 14 (1881600)
I0915 20:00:45.896373  3563 net.cpp:137] Memory required for data: 178595800
I0915 20:00:45.896375  3563 layer_factory.hpp:77] Creating layer cccp4
I0915 20:00:45.896381  3563 net.cpp:84] Creating Layer cccp4
I0915 20:00:45.896384  3563 net.cpp:406] cccp4 <- elu_cccp3
I0915 20:00:45.896389  3563 net.cpp:380] cccp4 -> cccp4
I0915 20:00:45.897997  3563 net.cpp:122] Setting up cccp4
I0915 20:00:45.898008  3563 net.cpp:129] Top shape: 50 192 14 14 (1881600)
I0915 20:00:45.898012  3563 net.cpp:137] Memory required for data: 186122200
I0915 20:00:45.898016  3563 layer_factory.hpp:77] Creating layer elu_cccp4
I0915 20:00:45.898021  3563 net.cpp:84] Creating Layer elu_cccp4
I0915 20:00:45.898025  3563 net.cpp:406] elu_cccp4 <- cccp4
I0915 20:00:45.898037  3563 net.cpp:380] elu_cccp4 -> elu_cccp4
I0915 20:00:45.898057  3563 net.cpp:122] Setting up elu_cccp4
I0915 20:00:45.898062  3563 net.cpp:129] Top shape: 50 192 14 14 (1881600)
I0915 20:00:45.898066  3563 net.cpp:137] Memory required for data: 193648600
I0915 20:00:45.898067  3563 layer_factory.hpp:77] Creating layer pool2
I0915 20:00:45.898073  3563 net.cpp:84] Creating Layer pool2
I0915 20:00:45.898077  3563 net.cpp:406] pool2 <- elu_cccp4
I0915 20:00:45.898079  3563 net.cpp:380] pool2 -> pool2
I0915 20:00:45.898196  3563 net.cpp:122] Setting up pool2
I0915 20:00:45.898205  3563 net.cpp:129] Top shape: 50 192 7 7 (470400)
I0915 20:00:45.898207  3563 net.cpp:137] Memory required for data: 195530200
I0915 20:00:45.898210  3563 layer_factory.hpp:77] Creating layer dropout2
I0915 20:00:45.898213  3563 net.cpp:84] Creating Layer dropout2
I0915 20:00:45.898216  3563 net.cpp:406] dropout2 <- pool2
I0915 20:00:45.898221  3563 net.cpp:380] dropout2 -> dropout2
I0915 20:00:45.898246  3563 net.cpp:122] Setting up dropout2
I0915 20:00:45.898249  3563 net.cpp:129] Top shape: 50 192 7 7 (470400)
I0915 20:00:45.898252  3563 net.cpp:137] Memory required for data: 197411800
I0915 20:00:45.898254  3563 layer_factory.hpp:77] Creating layer conv3
I0915 20:00:45.898260  3563 net.cpp:84] Creating Layer conv3
I0915 20:00:45.898263  3563 net.cpp:406] conv3 <- dropout2
I0915 20:00:45.898267  3563 net.cpp:380] conv3 -> conv3
I0915 20:00:45.907457  3563 net.cpp:122] Setting up conv3
I0915 20:00:45.907472  3563 net.cpp:129] Top shape: 50 192 7 7 (470400)
I0915 20:00:45.907476  3563 net.cpp:137] Memory required for data: 199293400
I0915 20:00:45.907481  3563 layer_factory.hpp:77] Creating layer elu_conv3
I0915 20:00:45.907487  3563 net.cpp:84] Creating Layer elu_conv3
I0915 20:00:45.907490  3563 net.cpp:406] elu_conv3 <- conv3
I0915 20:00:45.907505  3563 net.cpp:380] elu_conv3 -> elu_conv3
I0915 20:00:45.907534  3563 net.cpp:122] Setting up elu_conv3
I0915 20:00:45.907539  3563 net.cpp:129] Top shape: 50 192 7 7 (470400)
I0915 20:00:45.907542  3563 net.cpp:137] Memory required for data: 201175000
I0915 20:00:45.907544  3563 layer_factory.hpp:77] Creating layer cccp5
I0915 20:00:45.907551  3563 net.cpp:84] Creating Layer cccp5
I0915 20:00:45.907553  3563 net.cpp:406] cccp5 <- elu_conv3
I0915 20:00:45.907557  3563 net.cpp:380] cccp5 -> cccp5
I0915 20:00:45.909214  3563 net.cpp:122] Setting up cccp5
I0915 20:00:45.909224  3563 net.cpp:129] Top shape: 50 192 7 7 (470400)
I0915 20:00:45.909227  3563 net.cpp:137] Memory required for data: 203056600
I0915 20:00:45.909232  3563 layer_factory.hpp:77] Creating layer elu_cccp5
I0915 20:00:45.909236  3563 net.cpp:84] Creating Layer elu_cccp5
I0915 20:00:45.909240  3563 net.cpp:406] elu_cccp5 <- cccp5
I0915 20:00:45.909253  3563 net.cpp:380] elu_cccp5 -> elu_cccp5
I0915 20:00:45.909279  3563 net.cpp:122] Setting up elu_cccp5
I0915 20:00:45.909284  3563 net.cpp:129] Top shape: 50 192 7 7 (470400)
I0915 20:00:45.909286  3563 net.cpp:137] Memory required for data: 204938200
I0915 20:00:45.909288  3563 layer_factory.hpp:77] Creating layer cccp6
I0915 20:00:45.909294  3563 net.cpp:84] Creating Layer cccp6
I0915 20:00:45.909296  3563 net.cpp:406] cccp6 <- elu_cccp5
I0915 20:00:45.909301  3563 net.cpp:380] cccp6 -> cccp6
I0915 20:00:45.910154  3563 net.cpp:122] Setting up cccp6
I0915 20:00:45.910164  3563 net.cpp:129] Top shape: 50 10 7 7 (24500)
I0915 20:00:45.910167  3563 net.cpp:137] Memory required for data: 205036200
I0915 20:00:45.910174  3563 layer_factory.hpp:77] Creating layer elu_cccp6
I0915 20:00:45.910179  3563 net.cpp:84] Creating Layer elu_cccp6
I0915 20:00:45.910181  3563 net.cpp:406] elu_cccp6 <- cccp6
I0915 20:00:45.910195  3563 net.cpp:380] elu_cccp6 -> elu_cccp6
I0915 20:00:45.910221  3563 net.cpp:122] Setting up elu_cccp6
I0915 20:00:45.910226  3563 net.cpp:129] Top shape: 50 10 7 7 (24500)
I0915 20:00:45.910228  3563 net.cpp:137] Memory required for data: 205134200
I0915 20:00:45.910230  3563 layer_factory.hpp:77] Creating layer pool3
I0915 20:00:45.910235  3563 net.cpp:84] Creating Layer pool3
I0915 20:00:45.910256  3563 net.cpp:406] pool3 <- elu_cccp6
I0915 20:00:45.910260  3563 net.cpp:380] pool3 -> pool3
I0915 20:00:45.910701  3563 net.cpp:122] Setting up pool3
I0915 20:00:45.910712  3563 net.cpp:129] Top shape: 50 10 1 1 (500)
I0915 20:00:45.910714  3563 net.cpp:137] Memory required for data: 205136200
I0915 20:00:45.910717  3563 layer_factory.hpp:77] Creating layer pool3_pool3_0_split
I0915 20:00:45.910722  3563 net.cpp:84] Creating Layer pool3_pool3_0_split
I0915 20:00:45.910724  3563 net.cpp:406] pool3_pool3_0_split <- pool3
I0915 20:00:45.910727  3563 net.cpp:380] pool3_pool3_0_split -> pool3_pool3_0_split_0
I0915 20:00:45.910742  3563 net.cpp:380] pool3_pool3_0_split -> pool3_pool3_0_split_1
I0915 20:00:45.910776  3563 net.cpp:122] Setting up pool3_pool3_0_split
I0915 20:00:45.910780  3563 net.cpp:129] Top shape: 50 10 1 1 (500)
I0915 20:00:45.910784  3563 net.cpp:129] Top shape: 50 10 1 1 (500)
I0915 20:00:45.910785  3563 net.cpp:137] Memory required for data: 205140200
I0915 20:00:45.910787  3563 layer_factory.hpp:77] Creating layer accuracy
I0915 20:00:45.910791  3563 net.cpp:84] Creating Layer accuracy
I0915 20:00:45.910794  3563 net.cpp:406] accuracy <- pool3_pool3_0_split_0
I0915 20:00:45.910796  3563 net.cpp:406] accuracy <- label_cifar_1_split_0
I0915 20:00:45.910799  3563 net.cpp:380] accuracy -> accuracy
…
