…
I0916 21:27:13.991596  6675 net.cpp:294] The NetState phase (0) differed from the phase (1) specified by a rule in layer cifar
I0916 21:27:13.991822  6675 net.cpp:51] Initializing net from parameters: 
name: "nin"
state {
  phase: TRAIN
  level: 0
  stage: ""
}
layer {
  name: "cifar"
  type: "Data"
  top: "data"
  top: "label"
  include {
    phase: TRAIN
  }
  transform_param {
    mirror: true
    crop_size: 28
    mean_file: "/home/x306/caffe/xn/PENLU/data/cifar10/mean.binaryproto"
  }
  data_param {
    source: "/home/x306/caffe/xn/PENLU/data/cifar10/cifar10_train_lmdb"
    batch_size: 64
    backend: LMDB
  }
  image_data_param {
    shuffle: true
  }
}
layer {
  name: "conv1"
  type: "Convolution"
  bottom: "data"
  top: "conv1"
  param {
    lr_mult: 1
    decay_mult: 1
  }
  param {
    lr_mult: 2
    decay_mult: 0
  }
  convolution_param {
    num_output: 192
    pad: 2
    kernel_size: 5
    weight_filler {
      type: "gaussian"
      std: 0.05
    }
    bias_filler {
      type: "constant"
      value: 0
    }
  }
}
layer {
  name: "penlu_conv1"
  type: "PENLU"
  bottom: "conv1"
  top: "penlu_conv1"
  param {
    lr_mult: 2
    decay_mult: 0
  }
  param {
    lr_mult: 2
    decay_mult: 0
  }
  param {
    lr_mult: 2
    decay_mult: 0
  }
  penlu_param {
    alpha_filler {
      type: "constant"
      value: 0.25
    }
    beta_filler {
      type: "constant"
      value: 1
    }
    eta_filler {
      type: "constant"
      value: 1.1
    }
  }
}
layer {
  name: "cccp1"
  type: "Convolution"
  bottom: "penlu_conv1"
  top: "cccp1"
  param {
    lr_mult: 1
    decay_mult: 1
  }
  param {
    lr_mult: 2
    decay_mult: 0
  }
  convolution_param {
    num_output: 160
    kernel_size: 1
    weight_filler {
      type: "gaussian"
      std: 0.05
    }
    bias_filler {
      type: "constant"
      value: 0
    }
  }
}
layer {
  name: "penlu_cccp1"
  type: "PENLU"
  bottom: "cccp1"
  top: "penlu_cccp1"
  param {
    lr_mult: 2
    decay_mult: 0
  }
  param {
    lr_mult: 2
    decay_mult: 0
  }
  param {
    lr_mult: 2
    decay_mult: 0
  }
  penlu_param {
    alpha_filler {
      type: "constant"
      value: 0.25
    }
    beta_filler {
      type: "constant"
      value: 1
    }
    eta_filler {
      type: "constant"
      value: 1.1
    }
  }
}
layer {
  name: "cccp2"
  type: "Convolution"
  bottom: "penlu_cccp1"
  top: "cccp2"
  param {
    lr_mult: 1
    decay_mult: 1
  }
  param {
    lr_mult: 2
    decay_mult: 0
  }
  convolution_param {
    num_output: 96
    kernel_size: 1
    weight_filler {
      type: "gaussian"
      std: 0.05
    }
    bias_filler {
      type: "constant"
      value: 0
    }
  }
}
layer {
  name: "penlu_cccp2"
  type: "PENLU"
  bottom: "cccp2"
  top: "penlu_cccp2"
  param {
    lr_mult: 2
    decay_mult: 0
  }
  param {
    lr_mult: 2
    decay_mult: 0
  }
  param {
    lr_mult: 2
    decay_mult: 0
  }
  penlu_param {
    alpha_filler {
      type: "constant"
      value: 0.25
    }
    beta_filler {
      type: "constant"
      value: 1
    }
    eta_filler {
      type: "constant"
      value: 1.1
    }
  }
}
layer {
  name: "pool1"
  type: "Pooling"
  bottom: "penlu_cccp2"
  top: "pool1"
  pooling_param {
    pool: MAX
    kernel_size: 3
    stride: 2
  }
}
layer {
  name: "dropout1"
  type: "Dropout"
  bottom: "pool1"
  top: "dropout1"
  dropout_param {
    dropout_ratio: 0.5
  }
}
layer {
  name: "conv2"
  type: "Convolution"
  bottom: "dropout1"
  top: "conv2"
  param {
    lr_mult: 1
    decay_mult: 1
  }
  param {
    lr_mult: 2
    decay_mult: 0
  }
  convolution_param {
    num_output: 192
    pad: 2
    kernel_size: 5
    weight_filler {
      type: "gaussian"
      std: 0.05
    }
    bias_filler {
      type: "constant"
      value: 0
    }
  }
}
layer {
  name: "penlu_conv2"
  type: "PENLU"
  bottom: "conv2"
  top: "penlu_conv2"
  param {
    lr_mult: 2
    decay_mult: 0
  }
  param {
    lr_mult: 2
    decay_mult: 0
  }
  param {
    lr_mult: 2
    decay_mult: 0
  }
  penlu_param {
    alpha_filler {
      type: "constant"
      value: 0.25
    }
    beta_filler {
      type: "constant"
      value: 1
    }
    eta_filler {
      type: "constant"
      value: 1.1
    }
  }
}
layer {
  name: "cccp3"
  type: "Convolution"
  bottom: "penlu_conv2"
  top: "cccp3"
  param {
    lr_mult: 1
    decay_mult: 1
  }
  param {
    lr_mult: 2
    decay_mult: 0
  }
  convolution_param {
    num_output: 192
    kernel_size: 1
    weight_filler {
      type: "gaussian"
      std: 0.05
    }
    bias_filler {
      type: "constant"
      value: 0
    }
  }
}
layer {
  name: "penlu_cccp3"
  type: "PENLU"
  bottom: "cccp3"
  top: "penlu_cccp3"
  param {
    lr_mult: 2
    decay_mult: 0
  }
  param {
    lr_mult: 2
    decay_mult: 0
  }
  param {
    lr_mult: 2
    decay_mult: 0
  }
  penlu_param {
    alpha_filler {
      type: "constant"
      value: 0.25
    }
    beta_filler {
      type: "constant"
      value: 1
    }
    eta_filler {
      type: "constant"
      value: 1.1
    }
  }
}
layer {
  name: "cccp4"
  type: "Convolution"
  bottom: "penlu_cccp3"
  top: "cccp4"
  param {
    lr_mult: 1
    decay_mult: 1
  }
  param {
    lr_mult: 2
    decay_mult: 0
  }
  convolution_param {
    num_output: 192
    kernel_size: 1
    weight_filler {
      type: "gaussian"
      std: 0.05
    }
    bias_filler {
      type: "constant"
      value: 0
    }
  }
}
layer {
  name: "penlu_cccp4"
  type: "PENLU"
  bottom: "cccp4"
  top: "penlu_cccp4"
  param {
    lr_mult: 2
    decay_mult: 0
  }
  param {
    lr_mult: 2
    decay_mult: 0
  }
  param {
    lr_mult: 2
    decay_mult: 0
  }
  penlu_param {
    alpha_filler {
      type: "constant"
      value: 0.25
    }
    beta_filler {
      type: "constant"
      value: 1
    }
    eta_filler {
      type: "constant"
      value: 1.1
    }
  }
}
layer {
  name: "pool2"
  type: "Pooling"
  bottom: "penlu_cccp4"
  top: "pool2"
  pooling_param {
    pool: AVE
    kernel_size: 3
    stride: 2
  }
}
layer {
  name: "dropout2"
  type: "Dropout"
  bottom: "pool2"
  top: "dropout2"
  dropout_param {
    dropout_ratio: 0.5
  }
}
layer {
  name: "conv3"
  type: "Convolution"
  bottom: "dropout2"
  top: "conv3"
  param {
    lr_mult: 1
    decay_mult: 1
  }
  param {
    lr_mult: 2
    decay_mult: 0
  }
  convolution_param {
    num_output: 192
    pad: 1
    kernel_size: 3
    weight_filler {
      type: "gaussian"
      std: 0.05
    }
    bias_filler {
      type: "constant"
      value: 0
    }
  }
}
layer {
  name: "penlu_conv3"
  type: "PENLU"
  bottom: "conv3"
  top: "penlu_conv3"
  param {
    lr_mult: 2
    decay_mult: 0
  }
  param {
    lr_mult: 2
    decay_mult: 0
  }
  param {
    lr_mult: 2
    decay_mult: 0
  }
  penlu_param {
    alpha_filler {
      type: "constant"
      value: 0.25
    }
    beta_filler {
      type: "constant"
      value: 1
    }
    eta_filler {
      type: "constant"
      value: 1.1
    }
  }
}
layer {
  name: "cccp5"
  type: "Convolution"
  bottom: "penlu_conv3"
  top: "cccp5"
  param {
    lr_mult: 1
    decay_mult: 1
  }
  param {
    lr_mult: 2
    decay_mult: 0
  }
  convolution_param {
    num_output: 192
    kernel_size: 1
    weight_filler {
      type: "gaussian"
      std: 0.05
    }
    bias_filler {
      type: "constant"
      value: 0
    }
  }
}
layer {
  name: "penlu_cccp5"
  type: "PENLU"
  bottom: "cccp5"
  top: "penlu_cccp5"
  param {
    lr_mult: 2
    decay_mult: 0
  }
  param {
    lr_mult: 2
    decay_mult: 0
  }
  param {
    lr_mult: 2
    decay_mult: 0
  }
  penlu_param {
    alpha_filler {
      type: "constant"
      value: 1
    }
    beta_filler {
      type: "constant"
      value: 1
    }
    eta_filler {
      type: "constant"
      value: 1.1
    }
  }
}
layer {
  name: "cccp6"
  type: "Convolution"
  bottom: "penlu_cccp5"
  top: "cccp6"
  param {
    lr_mult: 0.1
    decay_mult: 1
  }
  param {
    lr_mult: 0.1
    decay_mult: 0
  }
  convolution_param {
    num_output: 10
    kernel_size: 1
    weight_filler {
      type: "gaussian"
      std: 0.05
    }
    bias_filler {
      type: "constant"
      value: 0
    }
  }
}
layer {
  name: "penlu_cccp6"
  type: "PENLU"
  bottom: "cccp6"
  top: "penlu_cccp6"
  param {
    lr_mult: 2
    decay_mult: 0
  }
  param {
    lr_mult: 2
    decay_mult: 0
  }
  param {
    lr_mult: 2
    decay_mult: 0
  }
  penlu_param {
    alpha_filler {
      type: "constant"
      value: 0.25
    }
    beta_filler {
      type: "constant"
      value: 1
    }
    eta_filler {
      type: "constant"
      value: 1.1
    }
  }
}
layer {
  name: "pool3"
  type: "Pooling"
  bottom: "penlu_cccp6"
  top: "pool3"
  pooling_param {
    pool: AVE
    kernel_size: 7
    stride: 1
  }
}
layer {
  name: "accuracy"
  type: "Accuracy"
  bottom: "pool3"
  bottom: "label"
  top: "accuracy"
}
layer {
  name: "loss"
  type: "SoftmaxWithLoss"
  bottom: "pool3"
  bottom: "label"
  top: "loss"
}
I0916 21:27:13.991977  6675 layer_factory.hpp:77] Creating layer cifar
I0916 21:27:13.992054  6675 db_lmdb.cpp:35] Opened lmdb /home/x306/caffe/xn/PENLU/data/cifar10/cifar10_train_lmdb
I0916 21:27:13.992074  6675 net.cpp:84] Creating Layer cifar
I0916 21:27:13.992079  6675 net.cpp:380] cifar -> data
I0916 21:27:13.992095  6675 net.cpp:380] cifar -> label
I0916 21:27:13.992105  6675 data_transformer.cpp:25] Loading mean file from: /home/x306/caffe/xn/PENLU/data/cifar10/mean.binaryproto
I0916 21:27:13.993530  6675 data_layer.cpp:45] output data size: 64,3,28,28
I0916 21:27:13.995679  6675 net.cpp:122] Setting up cifar
I0916 21:27:13.995692  6675 net.cpp:129] Top shape: 64 3 28 28 (150528)
I0916 21:27:13.995697  6675 net.cpp:129] Top shape: 64 (64)
I0916 21:27:13.995699  6675 net.cpp:137] Memory required for data: 602368
I0916 21:27:13.995705  6675 layer_factory.hpp:77] Creating layer label_cifar_1_split
I0916 21:27:13.995718  6675 net.cpp:84] Creating Layer label_cifar_1_split
I0916 21:27:13.995723  6675 net.cpp:406] label_cifar_1_split <- label
I0916 21:27:13.995729  6675 net.cpp:380] label_cifar_1_split -> label_cifar_1_split_0
I0916 21:27:13.995738  6675 net.cpp:380] label_cifar_1_split -> label_cifar_1_split_1
I0916 21:27:13.995771  6675 net.cpp:122] Setting up label_cifar_1_split
I0916 21:27:13.995776  6675 net.cpp:129] Top shape: 64 (64)
I0916 21:27:13.995779  6675 net.cpp:129] Top shape: 64 (64)
I0916 21:27:13.995781  6675 net.cpp:137] Memory required for data: 602880
I0916 21:27:13.995784  6675 layer_factory.hpp:77] Creating layer conv1
I0916 21:27:13.995795  6675 net.cpp:84] Creating Layer conv1
I0916 21:27:13.995800  6675 net.cpp:406] conv1 <- data
I0916 21:27:13.995805  6675 net.cpp:380] conv1 -> conv1
I0916 21:27:14.142164  6675 net.cpp:122] Setting up conv1
I0916 21:27:14.142189  6675 net.cpp:129] Top shape: 64 192 28 28 (9633792)
I0916 21:27:14.142192  6675 net.cpp:137] Memory required for data: 39138048
I0916 21:27:14.142205  6675 layer_factory.hpp:77] Creating layer penlu_conv1
I0916 21:27:14.142232  6675 net.cpp:84] Creating Layer penlu_conv1
I0916 21:27:14.142237  6675 net.cpp:406] penlu_conv1 <- conv1
I0916 21:27:14.142253  6675 net.cpp:380] penlu_conv1 -> penlu_conv1
I0916 21:27:14.142508  6675 net.cpp:122] Setting up penlu_conv1
I0916 21:27:14.142513  6675 net.cpp:129] Top shape: 64 192 28 28 (9633792)
I0916 21:27:14.142516  6675 net.cpp:137] Memory required for data: 77673216
I0916 21:27:14.142524  6675 layer_factory.hpp:77] Creating layer cccp1
I0916 21:27:14.142531  6675 net.cpp:84] Creating Layer cccp1
I0916 21:27:14.142544  6675 net.cpp:406] cccp1 <- penlu_conv1
I0916 21:27:14.142550  6675 net.cpp:380] cccp1 -> cccp1
I0916 21:27:14.144526  6675 net.cpp:122] Setting up cccp1
I0916 21:27:14.144536  6675 net.cpp:129] Top shape: 64 160 28 28 (8028160)
I0916 21:27:14.144539  6675 net.cpp:137] Memory required for data: 109785856
I0916 21:27:14.144543  6675 layer_factory.hpp:77] Creating layer penlu_cccp1
I0916 21:27:14.144549  6675 net.cpp:84] Creating Layer penlu_cccp1
I0916 21:27:14.144551  6675 net.cpp:406] penlu_cccp1 <- cccp1
I0916 21:27:14.144556  6675 net.cpp:380] penlu_cccp1 -> penlu_cccp1
I0916 21:27:14.144754  6675 net.cpp:122] Setting up penlu_cccp1
I0916 21:27:14.144760  6675 net.cpp:129] Top shape: 64 160 28 28 (8028160)
I0916 21:27:14.144762  6675 net.cpp:137] Memory required for data: 141898496
I0916 21:27:14.144768  6675 layer_factory.hpp:77] Creating layer cccp2
I0916 21:27:14.144775  6675 net.cpp:84] Creating Layer cccp2
I0916 21:27:14.144778  6675 net.cpp:406] cccp2 <- penlu_cccp1
I0916 21:27:14.144781  6675 net.cpp:380] cccp2 -> cccp2
I0916 21:27:14.145898  6675 net.cpp:122] Setting up cccp2
I0916 21:27:14.145908  6675 net.cpp:129] Top shape: 64 96 28 28 (4816896)
I0916 21:27:14.145912  6675 net.cpp:137] Memory required for data: 161166080
I0916 21:27:14.145926  6675 layer_factory.hpp:77] Creating layer penlu_cccp2
I0916 21:27:14.145933  6675 net.cpp:84] Creating Layer penlu_cccp2
I0916 21:27:14.145936  6675 net.cpp:406] penlu_cccp2 <- cccp2
I0916 21:27:14.145941  6675 net.cpp:380] penlu_cccp2 -> penlu_cccp2
I0916 21:27:14.146113  6675 net.cpp:122] Setting up penlu_cccp2
I0916 21:27:14.146119  6675 net.cpp:129] Top shape: 64 96 28 28 (4816896)
I0916 21:27:14.146121  6675 net.cpp:137] Memory required for data: 180433664
I0916 21:27:14.146137  6675 layer_factory.hpp:77] Creating layer pool1
I0916 21:27:14.146154  6675 net.cpp:84] Creating Layer pool1
I0916 21:27:14.146158  6675 net.cpp:406] pool1 <- penlu_cccp2
I0916 21:27:14.146162  6675 net.cpp:380] pool1 -> pool1
I0916 21:27:14.146210  6675 net.cpp:122] Setting up pool1
I0916 21:27:14.146215  6675 net.cpp:129] Top shape: 64 96 14 14 (1204224)
I0916 21:27:14.146217  6675 net.cpp:137] Memory required for data: 185250560
I0916 21:27:14.146219  6675 layer_factory.hpp:77] Creating layer dropout1
I0916 21:27:14.146234  6675 net.cpp:84] Creating Layer dropout1
I0916 21:27:14.146237  6675 net.cpp:406] dropout1 <- pool1
I0916 21:27:14.146241  6675 net.cpp:380] dropout1 -> dropout1
I0916 21:27:14.146276  6675 net.cpp:122] Setting up dropout1
I0916 21:27:14.146281  6675 net.cpp:129] Top shape: 64 96 14 14 (1204224)
I0916 21:27:14.146282  6675 net.cpp:137] Memory required for data: 190067456
I0916 21:27:14.146286  6675 layer_factory.hpp:77] Creating layer conv2
I0916 21:27:14.146301  6675 net.cpp:84] Creating Layer conv2
I0916 21:27:14.146304  6675 net.cpp:406] conv2 <- dropout1
I0916 21:27:14.146308  6675 net.cpp:380] conv2 -> conv2
I0916 21:27:14.158149  6675 net.cpp:122] Setting up conv2
I0916 21:27:14.158164  6675 net.cpp:129] Top shape: 64 192 14 14 (2408448)
I0916 21:27:14.158166  6675 net.cpp:137] Memory required for data: 199701248
I0916 21:27:14.158174  6675 layer_factory.hpp:77] Creating layer penlu_conv2
I0916 21:27:14.158192  6675 net.cpp:84] Creating Layer penlu_conv2
I0916 21:27:14.158195  6675 net.cpp:406] penlu_conv2 <- conv2
I0916 21:27:14.158202  6675 net.cpp:380] penlu_conv2 -> penlu_conv2
I0916 21:27:14.158370  6675 net.cpp:122] Setting up penlu_conv2
I0916 21:27:14.158376  6675 net.cpp:129] Top shape: 64 192 14 14 (2408448)
I0916 21:27:14.158378  6675 net.cpp:137] Memory required for data: 209335040
I0916 21:27:14.158383  6675 layer_factory.hpp:77] Creating layer cccp3
I0916 21:27:14.158390  6675 net.cpp:84] Creating Layer cccp3
I0916 21:27:14.158392  6675 net.cpp:406] cccp3 <- penlu_conv2
I0916 21:27:14.158396  6675 net.cpp:380] cccp3 -> cccp3
I0916 21:27:14.160023  6675 net.cpp:122] Setting up cccp3
I0916 21:27:14.160034  6675 net.cpp:129] Top shape: 64 192 14 14 (2408448)
I0916 21:27:14.160037  6675 net.cpp:137] Memory required for data: 218968832
I0916 21:27:14.160042  6675 layer_factory.hpp:77] Creating layer penlu_cccp3
I0916 21:27:14.160048  6675 net.cpp:84] Creating Layer penlu_cccp3
I0916 21:27:14.160059  6675 net.cpp:406] penlu_cccp3 <- cccp3
I0916 21:27:14.160064  6675 net.cpp:380] penlu_cccp3 -> penlu_cccp3
I0916 21:27:14.160220  6675 net.cpp:122] Setting up penlu_cccp3
I0916 21:27:14.160226  6675 net.cpp:129] Top shape: 64 192 14 14 (2408448)
I0916 21:27:14.160229  6675 net.cpp:137] Memory required for data: 228602624
I0916 21:27:14.160233  6675 layer_factory.hpp:77] Creating layer cccp4
I0916 21:27:14.160239  6675 net.cpp:84] Creating Layer cccp4
I0916 21:27:14.160254  6675 net.cpp:406] cccp4 <- penlu_cccp3
I0916 21:27:14.160259  6675 net.cpp:380] cccp4 -> cccp4
I0916 21:27:14.161859  6675 net.cpp:122] Setting up cccp4
I0916 21:27:14.161869  6675 net.cpp:129] Top shape: 64 192 14 14 (2408448)
I0916 21:27:14.161871  6675 net.cpp:137] Memory required for data: 238236416
I0916 21:27:14.161875  6675 layer_factory.hpp:77] Creating layer penlu_cccp4
I0916 21:27:14.161893  6675 net.cpp:84] Creating Layer penlu_cccp4
I0916 21:27:14.161896  6675 net.cpp:406] penlu_cccp4 <- cccp4
I0916 21:27:14.161900  6675 net.cpp:380] penlu_cccp4 -> penlu_cccp4
I0916 21:27:14.162029  6675 net.cpp:122] Setting up penlu_cccp4
I0916 21:27:14.162035  6675 net.cpp:129] Top shape: 64 192 14 14 (2408448)
I0916 21:27:14.162039  6675 net.cpp:137] Memory required for data: 247870208
I0916 21:27:14.162052  6675 layer_factory.hpp:77] Creating layer pool2
I0916 21:27:14.162060  6675 net.cpp:84] Creating Layer pool2
I0916 21:27:14.162063  6675 net.cpp:406] pool2 <- penlu_cccp4
I0916 21:27:14.162066  6675 net.cpp:380] pool2 -> pool2
I0916 21:27:14.162220  6675 net.cpp:122] Setting up pool2
I0916 21:27:14.162226  6675 net.cpp:129] Top shape: 64 192 7 7 (602112)
I0916 21:27:14.162230  6675 net.cpp:137] Memory required for data: 250278656
I0916 21:27:14.162242  6675 layer_factory.hpp:77] Creating layer dropout2
I0916 21:27:14.162247  6675 net.cpp:84] Creating Layer dropout2
I0916 21:27:14.162262  6675 net.cpp:406] dropout2 <- pool2
I0916 21:27:14.162266  6675 net.cpp:380] dropout2 -> dropout2
I0916 21:27:14.162299  6675 net.cpp:122] Setting up dropout2
I0916 21:27:14.162303  6675 net.cpp:129] Top shape: 64 192 7 7 (602112)
I0916 21:27:14.162305  6675 net.cpp:137] Memory required for data: 252687104
I0916 21:27:14.162317  6675 layer_factory.hpp:77] Creating layer conv3
I0916 21:27:14.162324  6675 net.cpp:84] Creating Layer conv3
I0916 21:27:14.162338  6675 net.cpp:406] conv3 <- dropout2
I0916 21:27:14.162343  6675 net.cpp:380] conv3 -> conv3
I0916 21:27:14.171294  6675 net.cpp:122] Setting up conv3
I0916 21:27:14.171309  6675 net.cpp:129] Top shape: 64 192 7 7 (602112)
I0916 21:27:14.171313  6675 net.cpp:137] Memory required for data: 255095552
I0916 21:27:14.171329  6675 layer_factory.hpp:77] Creating layer penlu_conv3
I0916 21:27:14.171340  6675 net.cpp:84] Creating Layer penlu_conv3
I0916 21:27:14.171346  6675 net.cpp:406] penlu_conv3 <- conv3
I0916 21:27:14.171353  6675 net.cpp:380] penlu_conv3 -> penlu_conv3
I0916 21:27:14.171486  6675 net.cpp:122] Setting up penlu_conv3
I0916 21:27:14.171494  6675 net.cpp:129] Top shape: 64 192 7 7 (602112)
I0916 21:27:14.171495  6675 net.cpp:137] Memory required for data: 257504000
I0916 21:27:14.171504  6675 layer_factory.hpp:77] Creating layer cccp5
I0916 21:27:14.171521  6675 net.cpp:84] Creating Layer cccp5
I0916 21:27:14.171525  6675 net.cpp:406] cccp5 <- penlu_conv3
I0916 21:27:14.171528  6675 net.cpp:380] cccp5 -> cccp5
I0916 21:27:14.173179  6675 net.cpp:122] Setting up cccp5
I0916 21:27:14.173189  6675 net.cpp:129] Top shape: 64 192 7 7 (602112)
I0916 21:27:14.173192  6675 net.cpp:137] Memory required for data: 259912448
I0916 21:27:14.173197  6675 layer_factory.hpp:77] Creating layer penlu_cccp5
I0916 21:27:14.173202  6675 net.cpp:84] Creating Layer penlu_cccp5
I0916 21:27:14.173205  6675 net.cpp:406] penlu_cccp5 <- cccp5
I0916 21:27:14.173219  6675 net.cpp:380] penlu_cccp5 -> penlu_cccp5
I0916 21:27:14.173358  6675 net.cpp:122] Setting up penlu_cccp5
I0916 21:27:14.173364  6675 net.cpp:129] Top shape: 64 192 7 7 (602112)
I0916 21:27:14.173367  6675 net.cpp:137] Memory required for data: 262320896
I0916 21:27:14.173379  6675 layer_factory.hpp:77] Creating layer cccp6
I0916 21:27:14.173387  6675 net.cpp:84] Creating Layer cccp6
I0916 21:27:14.173399  6675 net.cpp:406] cccp6 <- penlu_cccp5
I0916 21:27:14.173403  6675 net.cpp:380] cccp6 -> cccp6
I0916 21:27:14.174243  6675 net.cpp:122] Setting up cccp6
I0916 21:27:14.174253  6675 net.cpp:129] Top shape: 64 10 7 7 (31360)
I0916 21:27:14.174255  6675 net.cpp:137] Memory required for data: 262446336
I0916 21:27:14.174271  6675 layer_factory.hpp:77] Creating layer penlu_cccp6
I0916 21:27:14.174278  6675 net.cpp:84] Creating Layer penlu_cccp6
I0916 21:27:14.174281  6675 net.cpp:406] penlu_cccp6 <- cccp6
I0916 21:27:14.174285  6675 net.cpp:380] penlu_cccp6 -> penlu_cccp6
I0916 21:27:14.174397  6675 net.cpp:122] Setting up penlu_cccp6
I0916 21:27:14.174402  6675 net.cpp:129] Top shape: 64 10 7 7 (31360)
I0916 21:27:14.174405  6675 net.cpp:137] Memory required for data: 262571776
I0916 21:27:14.174419  6675 layer_factory.hpp:77] Creating layer pool3
I0916 21:27:14.174425  6675 net.cpp:84] Creating Layer pool3
I0916 21:27:14.174428  6675 net.cpp:406] pool3 <- penlu_cccp6
I0916 21:27:14.174432  6675 net.cpp:380] pool3 -> pool3
I0916 21:27:14.174556  6675 net.cpp:122] Setting up pool3
I0916 21:27:14.174563  6675 net.cpp:129] Top shape: 64 10 1 1 (640)
I0916 21:27:14.174566  6675 net.cpp:137] Memory required for data: 262574336
I0916 21:27:14.174569  6675 layer_factory.hpp:77] Creating layer pool3_pool3_0_split
I0916 21:27:14.174583  6675 net.cpp:84] Creating Layer pool3_pool3_0_split
I0916 21:27:14.174587  6675 net.cpp:406] pool3_pool3_0_split <- pool3
I0916 21:27:14.174590  6675 net.cpp:380] pool3_pool3_0_split -> pool3_pool3_0_split_0
I0916 21:27:14.174594  6675 net.cpp:380] pool3_pool3_0_split -> pool3_pool3_0_split_1
I0916 21:27:14.174618  6675 net.cpp:122] Setting up pool3_pool3_0_split
I0916 21:27:14.174621  6675 net.cpp:129] Top shape: 64 10 1 1 (640)
I0916 21:27:14.174634  6675 net.cpp:129] Top shape: 64 10 1 1 (640)
I0916 21:27:14.174636  6675 net.cpp:137] Memory required for data: 262579456
I0916 21:27:14.174638  6675 layer_factory.hpp:77] Creating layer accuracy
I0916 21:27:14.174651  6675 net.cpp:84] Creating Layer accuracy
I0916 21:27:14.174654  6675 net.cpp:406] accuracy <- pool3_pool3_0_split_0
I0916 21:27:14.174656  6675 net.cpp:406] accuracy <- label_cifar_1_split_0
I0916 21:27:14.174660  6675 net.cpp:380] accuracy -> accuracy
…
I0916 21:27:14.175608  6675 net.cpp:294] The NetState phase (1) differed from the phase (0) specified by a rule in layer cifar
I0916 21:27:14.175782  6675 net.cpp:51] Initializing net from parameters: 
name: "nin"
state {
  phase: TEST
}
layer {
  name: "cifar"
  type: "Data"
  top: "data"
  top: "label"
  include {
    phase: TEST
  }
  transform_param {
    mirror: false
    crop_size: 28
    mean_file: "/home/x306/caffe/xn/PENLU/data/cifar10/mean.binaryproto"
  }
  data_param {
    source: "/home/x306/caffe/xn/PENLU/data/cifar10/cifar10_test_lmdb"
    batch_size: 50
    backend: LMDB
  }
}
layer {
  name: "conv1"
  type: "Convolution"
  bottom: "data"
  top: "conv1"
  param {
    lr_mult: 1
    decay_mult: 1
  }
  param {
    lr_mult: 2
    decay_mult: 0
  }
  convolution_param {
    num_output: 192
    pad: 2
    kernel_size: 5
    weight_filler {
      type: "gaussian"
      std: 0.05
    }
    bias_filler {
      type: "constant"
      value: 0
    }
  }
}
layer {
  name: "penlu_conv1"
  type: "PENLU"
  bottom: "conv1"
  top: "penlu_conv1"
  param {
    lr_mult: 2
    decay_mult: 0
  }
  param {
    lr_mult: 2
    decay_mult: 0
  }
  param {
    lr_mult: 2
    decay_mult: 0
  }
  penlu_param {
    alpha_filler {
      type: "constant"
      value: 0.25
    }
    beta_filler {
      type: "constant"
      value: 1
    }
    eta_filler {
      type: "constant"
      value: 1.1
    }
  }
}
layer {
  name: "cccp1"
  type: "Convolution"
  bottom: "penlu_conv1"
  top: "cccp1"
  param {
    lr_mult: 1
    decay_mult: 1
  }
  param {
    lr_mult: 2
    decay_mult: 0
  }
  convolution_param {
    num_output: 160
    kernel_size: 1
    weight_filler {
      type: "gaussian"
      std: 0.05
    }
    bias_filler {
      type: "constant"
      value: 0
    }
  }
}
layer {
  name: "penlu_cccp1"
  type: "PENLU"
  bottom: "cccp1"
  top: "penlu_cccp1"
  param {
    lr_mult: 2
    decay_mult: 0
  }
  param {
    lr_mult: 2
    decay_mult: 0
  }
  param {
    lr_mult: 2
    decay_mult: 0
  }
  penlu_param {
    alpha_filler {
      type: "constant"
      value: 0.25
    }
    beta_filler {
      type: "constant"
      value: 1
    }
    eta_filler {
      type: "constant"
      value: 1.1
    }
  }
}
layer {
  name: "cccp2"
  type: "Convolution"
  bottom: "penlu_cccp1"
  top: "cccp2"
  param {
    lr_mult: 1
    decay_mult: 1
  }
  param {
    lr_mult: 2
    decay_mult: 0
  }
  convolution_param {
    num_output: 96
    kernel_size: 1
    weight_filler {
      type: "gaussian"
      std: 0.05
    }
    bias_filler {
      type: "constant"
      value: 0
    }
  }
}
layer {
  name: "penlu_cccp2"
  type: "PENLU"
  bottom: "cccp2"
  top: "penlu_cccp2"
  param {
    lr_mult: 2
    decay_mult: 0
  }
  param {
    lr_mult: 2
    decay_mult: 0
  }
  param {
    lr_mult: 2
    decay_mult: 0
  }
  penlu_param {
    alpha_filler {
      type: "constant"
      value: 0.25
    }
    beta_filler {
      type: "constant"
      value: 1
    }
    eta_filler {
      type: "constant"
      value: 1.1
    }
  }
}
layer {
  name: "pool1"
  type: "Pooling"
  bottom: "penlu_cccp2"
  top: "pool1"
  pooling_param {
    pool: MAX
    kernel_size: 3
    stride: 2
  }
}
layer {
  name: "dropout1"
  type: "Dropout"
  bottom: "pool1"
  top: "dropout1"
  dropout_param {
    dropout_ratio: 0.5
  }
}
layer {
  name: "conv2"
  type: "Convolution"
  bottom: "dropout1"
  top: "conv2"
  param {
    lr_mult: 1
    decay_mult: 1
  }
  param {
    lr_mult: 2
    decay_mult: 0
  }
  convolution_param {
    num_output: 192
    pad: 2
    kernel_size: 5
    weight_filler {
      type: "gaussian"
      std: 0.05
    }
    bias_filler {
      type: "constant"
      value: 0
    }
  }
}
layer {
  name: "penlu_conv2"
  type: "PENLU"
  bottom: "conv2"
  top: "penlu_conv2"
  param {
    lr_mult: 2
    decay_mult: 0
  }
  param {
    lr_mult: 2
    decay_mult: 0
  }
  param {
    lr_mult: 2
    decay_mult: 0
  }
  penlu_param {
    alpha_filler {
      type: "constant"
      value: 0.25
    }
    beta_filler {
      type: "constant"
      value: 1
    }
    eta_filler {
      type: "constant"
      value: 1.1
    }
  }
}
layer {
  name: "cccp3"
  type: "Convolution"
  bottom: "penlu_conv2"
  top: "cccp3"
  param {
    lr_mult: 1
    decay_mult: 1
  }
  param {
    lr_mult: 2
    decay_mult: 0
  }
  convolution_param {
    num_output: 192
    kernel_size: 1
    weight_filler {
      type: "gaussian"
      std: 0.05
    }
    bias_filler {
      type: "constant"
      value: 0
    }
  }
}
layer {
  name: "penlu_cccp3"
  type: "PENLU"
  bottom: "cccp3"
  top: "penlu_cccp3"
  param {
    lr_mult: 2
    decay_mult: 0
  }
  param {
    lr_mult: 2
    decay_mult: 0
  }
  param {
    lr_mult: 2
    decay_mult: 0
  }
  penlu_param {
    alpha_filler {
      type: "constant"
      value: 0.25
    }
    beta_filler {
      type: "constant"
      value: 1
    }
    eta_filler {
      type: "constant"
      value: 1.1
    }
  }
}
layer {
  name: "cccp4"
  type: "Convolution"
  bottom: "penlu_cccp3"
  top: "cccp4"
  param {
    lr_mult: 1
    decay_mult: 1
  }
  param {
    lr_mult: 2
    decay_mult: 0
  }
  convolution_param {
    num_output: 192
    kernel_size: 1
    weight_filler {
      type: "gaussian"
      std: 0.05
    }
    bias_filler {
      type: "constant"
      value: 0
    }
  }
}
layer {
  name: "penlu_cccp4"
  type: "PENLU"
  bottom: "cccp4"
  top: "penlu_cccp4"
  param {
    lr_mult: 2
    decay_mult: 0
  }
  param {
    lr_mult: 2
    decay_mult: 0
  }
  param {
    lr_mult: 2
    decay_mult: 0
  }
  penlu_param {
    alpha_filler {
      type: "constant"
      value: 0.25
    }
    beta_filler {
      type: "constant"
      value: 1
    }
    eta_filler {
      type: "constant"
      value: 1.1
    }
  }
}
layer {
  name: "pool2"
  type: "Pooling"
  bottom: "penlu_cccp4"
  top: "pool2"
  pooling_param {
    pool: AVE
    kernel_size: 3
    stride: 2
  }
}
layer {
  name: "dropout2"
  type: "Dropout"
  bottom: "pool2"
  top: "dropout2"
  dropout_param {
    dropout_ratio: 0.5
  }
}
layer {
  name: "conv3"
  type: "Convolution"
  bottom: "dropout2"
  top: "conv3"
  param {
    lr_mult: 1
    decay_mult: 1
  }
  param {
    lr_mult: 2
    decay_mult: 0
  }
  convolution_param {
    num_output: 192
    pad: 1
    kernel_size: 3
    weight_filler {
      type: "gaussian"
      std: 0.05
    }
    bias_filler {
      type: "constant"
      value: 0
    }
  }
}
layer {
  name: "penlu_conv3"
  type: "PENLU"
  bottom: "conv3"
  top: "penlu_conv3"
  param {
    lr_mult: 2
    decay_mult: 0
  }
  param {
    lr_mult: 2
    decay_mult: 0
  }
  param {
    lr_mult: 2
    decay_mult: 0
  }
  penlu_param {
    alpha_filler {
      type: "constant"
      value: 0.25
    }
    beta_filler {
      type: "constant"
      value: 1
    }
    eta_filler {
      type: "constant"
      value: 1.1
    }
  }
}
layer {
  name: "cccp5"
  type: "Convolution"
  bottom: "penlu_conv3"
  top: "cccp5"
  param {
    lr_mult: 1
    decay_mult: 1
  }
  param {
    lr_mult: 2
    decay_mult: 0
  }
  convolution_param {
    num_output: 192
    kernel_size: 1
    weight_filler {
      type: "gaussian"
      std: 0.05
    }
    bias_filler {
      type: "constant"
      value: 0
    }
  }
}
layer {
  name: "penlu_cccp5"
  type: "PENLU"
  bottom: "cccp5"
  top: "penlu_cccp5"
  param {
    lr_mult: 2
    decay_mult: 0
  }
  param {
    lr_mult: 2
    decay_mult: 0
  }
  param {
    lr_mult: 2
    decay_mult: 0
  }
  penlu_param {
    alpha_filler {
      type: "constant"
      value: 1
    }
    beta_filler {
      type: "constant"
      value: 1
    }
    eta_filler {
      type: "constant"
      value: 1.1
    }
  }
}
layer {
  name: "cccp6"
  type: "Convolution"
  bottom: "penlu_cccp5"
  top: "cccp6"
  param {
    lr_mult: 0.1
    decay_mult: 1
  }
  param {
    lr_mult: 0.1
    decay_mult: 0
  }
  convolution_param {
    num_output: 10
    kernel_size: 1
    weight_filler {
      type: "gaussian"
      std: 0.05
    }
    bias_filler {
      type: "constant"
      value: 0
    }
  }
}
layer {
  name: "penlu_cccp6"
  type: "PENLU"
  bottom: "cccp6"
  top: "penlu_cccp6"
  param {
    lr_mult: 2
    decay_mult: 0
  }
  param {
    lr_mult: 2
    decay_mult: 0
  }
  param {
    lr_mult: 2
    decay_mult: 0
  }
  penlu_param {
    alpha_filler {
      type: "constant"
      value: 0.25
    }
    beta_filler {
      type: "constant"
      value: 1
    }
    eta_filler {
      type: "constant"
      value: 1.1
    }
  }
}
layer {
  name: "pool3"
  type: "Pooling"
  bottom: "penlu_cccp6"
  top: "pool3"
  pooling_param {
    pool: AVE
    kernel_size: 7
    stride: 1
  }
}
layer {
  name: "accuracy"
  type: "Accuracy"
  bottom: "pool3"
  bottom: "label"
  top: "accuracy"
}
layer {
  name: "loss"
  type: "SoftmaxWithLoss"
  bottom: "pool3"
  bottom: "label"
  top: "loss"
}
I0916 21:27:14.175878  6675 layer_factory.hpp:77] Creating layer cifar
I0916 21:27:14.175915  6675 db_lmdb.cpp:35] Opened lmdb /home/x306/caffe/xn/PENLU/data/cifar10/cifar10_test_lmdb
I0916 21:27:14.175925  6675 net.cpp:84] Creating Layer cifar
I0916 21:27:14.175927  6675 net.cpp:380] cifar -> data
I0916 21:27:14.175933  6675 net.cpp:380] cifar -> label
I0916 21:27:14.175940  6675 data_transformer.cpp:25] Loading mean file from: /home/x306/caffe/xn/PENLU/data/cifar10/mean.binaryproto
I0916 21:27:14.176060  6675 data_layer.cpp:45] output data size: 50,3,28,28
I0916 21:27:14.177150  6675 net.cpp:122] Setting up cifar
I0916 21:27:14.177172  6675 net.cpp:129] Top shape: 50 3 28 28 (117600)
I0916 21:27:14.177176  6675 net.cpp:129] Top shape: 50 (50)
I0916 21:27:14.177179  6675 net.cpp:137] Memory required for data: 470600
I0916 21:27:14.177182  6675 layer_factory.hpp:77] Creating layer label_cifar_1_split
I0916 21:27:14.177187  6675 net.cpp:84] Creating Layer label_cifar_1_split
I0916 21:27:14.177191  6675 net.cpp:406] label_cifar_1_split <- label
I0916 21:27:14.177196  6675 net.cpp:380] label_cifar_1_split -> label_cifar_1_split_0
I0916 21:27:14.177201  6675 net.cpp:380] label_cifar_1_split -> label_cifar_1_split_1
I0916 21:27:14.177256  6675 net.cpp:122] Setting up label_cifar_1_split
I0916 21:27:14.177263  6675 net.cpp:129] Top shape: 50 (50)
I0916 21:27:14.177265  6675 net.cpp:129] Top shape: 50 (50)
I0916 21:27:14.177268  6675 net.cpp:137] Memory required for data: 471000
I0916 21:27:14.177270  6675 layer_factory.hpp:77] Creating layer conv1
I0916 21:27:14.177276  6675 net.cpp:84] Creating Layer conv1
I0916 21:27:14.177287  6675 net.cpp:406] conv1 <- data
I0916 21:27:14.177292  6675 net.cpp:380] conv1 -> conv1
I0916 21:27:14.178622  6675 net.cpp:122] Setting up conv1
I0916 21:27:14.178634  6675 net.cpp:129] Top shape: 50 192 28 28 (7526400)
I0916 21:27:14.178638  6675 net.cpp:137] Memory required for data: 30576600
I0916 21:27:14.178645  6675 layer_factory.hpp:77] Creating layer penlu_conv1
I0916 21:27:14.178654  6675 net.cpp:84] Creating Layer penlu_conv1
I0916 21:27:14.178658  6675 net.cpp:406] penlu_conv1 <- conv1
I0916 21:27:14.178663  6675 net.cpp:380] penlu_conv1 -> penlu_conv1
I0916 21:27:14.178849  6675 net.cpp:122] Setting up penlu_conv1
I0916 21:27:14.178855  6675 net.cpp:129] Top shape: 50 192 28 28 (7526400)
I0916 21:27:14.178858  6675 net.cpp:137] Memory required for data: 60682200
I0916 21:27:14.178865  6675 layer_factory.hpp:77] Creating layer cccp1
I0916 21:27:14.178872  6675 net.cpp:84] Creating Layer cccp1
I0916 21:27:14.178876  6675 net.cpp:406] cccp1 <- penlu_conv1
I0916 21:27:14.178880  6675 net.cpp:380] cccp1 -> cccp1
I0916 21:27:14.180524  6675 net.cpp:122] Setting up cccp1
I0916 21:27:14.180536  6675 net.cpp:129] Top shape: 50 160 28 28 (6272000)
I0916 21:27:14.180541  6675 net.cpp:137] Memory required for data: 85770200
I0916 21:27:14.180550  6675 layer_factory.hpp:77] Creating layer penlu_cccp1
I0916 21:27:14.180560  6675 net.cpp:84] Creating Layer penlu_cccp1
I0916 21:27:14.180564  6675 net.cpp:406] penlu_cccp1 <- cccp1
I0916 21:27:14.180572  6675 net.cpp:380] penlu_cccp1 -> penlu_cccp1
I0916 21:27:14.181251  6675 net.cpp:122] Setting up penlu_cccp1
I0916 21:27:14.181259  6675 net.cpp:129] Top shape: 50 160 28 28 (6272000)
I0916 21:27:14.181262  6675 net.cpp:137] Memory required for data: 110858200
I0916 21:27:14.181270  6675 layer_factory.hpp:77] Creating layer cccp2
I0916 21:27:14.181278  6675 net.cpp:84] Creating Layer cccp2
I0916 21:27:14.181282  6675 net.cpp:406] cccp2 <- penlu_cccp1
I0916 21:27:14.181285  6675 net.cpp:380] cccp2 -> cccp2
I0916 21:27:14.182510  6675 net.cpp:122] Setting up cccp2
I0916 21:27:14.182521  6675 net.cpp:129] Top shape: 50 96 28 28 (3763200)
I0916 21:27:14.182525  6675 net.cpp:137] Memory required for data: 125911000
I0916 21:27:14.182533  6675 layer_factory.hpp:77] Creating layer penlu_cccp2
I0916 21:27:14.182543  6675 net.cpp:84] Creating Layer penlu_cccp2
I0916 21:27:14.182549  6675 net.cpp:406] penlu_cccp2 <- cccp2
I0916 21:27:14.182554  6675 net.cpp:380] penlu_cccp2 -> penlu_cccp2
I0916 21:27:14.182694  6675 net.cpp:122] Setting up penlu_cccp2
I0916 21:27:14.182700  6675 net.cpp:129] Top shape: 50 96 28 28 (3763200)
I0916 21:27:14.182703  6675 net.cpp:137] Memory required for data: 140963800
I0916 21:27:14.182708  6675 layer_factory.hpp:77] Creating layer pool1
I0916 21:27:14.182714  6675 net.cpp:84] Creating Layer pool1
I0916 21:27:14.182718  6675 net.cpp:406] pool1 <- penlu_cccp2
I0916 21:27:14.182721  6675 net.cpp:380] pool1 -> pool1
I0916 21:27:14.182746  6675 net.cpp:122] Setting up pool1
I0916 21:27:14.182751  6675 net.cpp:129] Top shape: 50 96 14 14 (940800)
I0916 21:27:14.182754  6675 net.cpp:137] Memory required for data: 144727000
I0916 21:27:14.182755  6675 layer_factory.hpp:77] Creating layer dropout1
I0916 21:27:14.182760  6675 net.cpp:84] Creating Layer dropout1
I0916 21:27:14.182763  6675 net.cpp:406] dropout1 <- pool1
I0916 21:27:14.182766  6675 net.cpp:380] dropout1 -> dropout1
I0916 21:27:14.182790  6675 net.cpp:122] Setting up dropout1
I0916 21:27:14.182795  6675 net.cpp:129] Top shape: 50 96 14 14 (940800)
I0916 21:27:14.182796  6675 net.cpp:137] Memory required for data: 148490200
I0916 21:27:14.182798  6675 layer_factory.hpp:77] Creating layer conv2
I0916 21:27:14.182804  6675 net.cpp:84] Creating Layer conv2
I0916 21:27:14.182808  6675 net.cpp:406] conv2 <- dropout1
I0916 21:27:14.182811  6675 net.cpp:380] conv2 -> conv2
I0916 21:27:14.194255  6675 net.cpp:122] Setting up conv2
I0916 21:27:14.194267  6675 net.cpp:129] Top shape: 50 192 14 14 (1881600)
I0916 21:27:14.194269  6675 net.cpp:137] Memory required for data: 156016600
I0916 21:27:14.194293  6675 layer_factory.hpp:77] Creating layer penlu_conv2
I0916 21:27:14.194300  6675 net.cpp:84] Creating Layer penlu_conv2
I0916 21:27:14.194303  6675 net.cpp:406] penlu_conv2 <- conv2
I0916 21:27:14.194308  6675 net.cpp:380] penlu_conv2 -> penlu_conv2
I0916 21:27:14.194443  6675 net.cpp:122] Setting up penlu_conv2
I0916 21:27:14.194449  6675 net.cpp:129] Top shape: 50 192 14 14 (1881600)
I0916 21:27:14.194453  6675 net.cpp:137] Memory required for data: 163543000
I0916 21:27:14.194456  6675 layer_factory.hpp:77] Creating layer cccp3
I0916 21:27:14.194463  6675 net.cpp:84] Creating Layer cccp3
I0916 21:27:14.194465  6675 net.cpp:406] cccp3 <- penlu_conv2
I0916 21:27:14.194469  6675 net.cpp:380] cccp3 -> cccp3
I0916 21:27:14.196123  6675 net.cpp:122] Setting up cccp3
I0916 21:27:14.196132  6675 net.cpp:129] Top shape: 50 192 14 14 (1881600)
I0916 21:27:14.196135  6675 net.cpp:137] Memory required for data: 171069400
I0916 21:27:14.196140  6675 layer_factory.hpp:77] Creating layer penlu_cccp3
I0916 21:27:14.196146  6675 net.cpp:84] Creating Layer penlu_cccp3
I0916 21:27:14.196147  6675 net.cpp:406] penlu_cccp3 <- cccp3
I0916 21:27:14.196151  6675 net.cpp:380] penlu_cccp3 -> penlu_cccp3
I0916 21:27:14.196279  6675 net.cpp:122] Setting up penlu_cccp3
I0916 21:27:14.196282  6675 net.cpp:129] Top shape: 50 192 14 14 (1881600)
I0916 21:27:14.196285  6675 net.cpp:137] Memory required for data: 178595800
I0916 21:27:14.196290  6675 layer_factory.hpp:77] Creating layer cccp4
I0916 21:27:14.196295  6675 net.cpp:84] Creating Layer cccp4
I0916 21:27:14.196297  6675 net.cpp:406] cccp4 <- penlu_cccp3
I0916 21:27:14.196301  6675 net.cpp:380] cccp4 -> cccp4
I0916 21:27:14.197923  6675 net.cpp:122] Setting up cccp4
I0916 21:27:14.197932  6675 net.cpp:129] Top shape: 50 192 14 14 (1881600)
I0916 21:27:14.197935  6675 net.cpp:137] Memory required for data: 186122200
I0916 21:27:14.197939  6675 layer_factory.hpp:77] Creating layer penlu_cccp4
I0916 21:27:14.197945  6675 net.cpp:84] Creating Layer penlu_cccp4
I0916 21:27:14.197947  6675 net.cpp:406] penlu_cccp4 <- cccp4
I0916 21:27:14.197952  6675 net.cpp:380] penlu_cccp4 -> penlu_cccp4
I0916 21:27:14.198077  6675 net.cpp:122] Setting up penlu_cccp4
I0916 21:27:14.198082  6675 net.cpp:129] Top shape: 50 192 14 14 (1881600)
I0916 21:27:14.198084  6675 net.cpp:137] Memory required for data: 193648600
I0916 21:27:14.198088  6675 layer_factory.hpp:77] Creating layer pool2
I0916 21:27:14.198093  6675 net.cpp:84] Creating Layer pool2
I0916 21:27:14.198096  6675 net.cpp:406] pool2 <- penlu_cccp4
I0916 21:27:14.198099  6675 net.cpp:380] pool2 -> pool2
I0916 21:27:14.198222  6675 net.cpp:122] Setting up pool2
I0916 21:27:14.198228  6675 net.cpp:129] Top shape: 50 192 7 7 (470400)
I0916 21:27:14.198230  6675 net.cpp:137] Memory required for data: 195530200
I0916 21:27:14.198232  6675 layer_factory.hpp:77] Creating layer dropout2
I0916 21:27:14.198236  6675 net.cpp:84] Creating Layer dropout2
I0916 21:27:14.198240  6675 net.cpp:406] dropout2 <- pool2
I0916 21:27:14.198242  6675 net.cpp:380] dropout2 -> dropout2
I0916 21:27:14.198264  6675 net.cpp:122] Setting up dropout2
I0916 21:27:14.198268  6675 net.cpp:129] Top shape: 50 192 7 7 (470400)
I0916 21:27:14.198271  6675 net.cpp:137] Memory required for data: 197411800
I0916 21:27:14.198272  6675 layer_factory.hpp:77] Creating layer conv3
I0916 21:27:14.198278  6675 net.cpp:84] Creating Layer conv3
I0916 21:27:14.198282  6675 net.cpp:406] conv3 <- dropout2
I0916 21:27:14.198284  6675 net.cpp:380] conv3 -> conv3
I0916 21:27:14.207448  6675 net.cpp:122] Setting up conv3
I0916 21:27:14.207463  6675 net.cpp:129] Top shape: 50 192 7 7 (470400)
I0916 21:27:14.207465  6675 net.cpp:137] Memory required for data: 199293400
I0916 21:27:14.207470  6675 layer_factory.hpp:77] Creating layer penlu_conv3
I0916 21:27:14.207479  6675 net.cpp:84] Creating Layer penlu_conv3
I0916 21:27:14.207491  6675 net.cpp:406] penlu_conv3 <- conv3
I0916 21:27:14.207497  6675 net.cpp:380] penlu_conv3 -> penlu_conv3
I0916 21:27:14.207630  6675 net.cpp:122] Setting up penlu_conv3
I0916 21:27:14.207645  6675 net.cpp:129] Top shape: 50 192 7 7 (470400)
I0916 21:27:14.207648  6675 net.cpp:137] Memory required for data: 201175000
I0916 21:27:14.207656  6675 layer_factory.hpp:77] Creating layer cccp5
I0916 21:27:14.207664  6675 net.cpp:84] Creating Layer cccp5
I0916 21:27:14.207676  6675 net.cpp:406] cccp5 <- penlu_conv3
I0916 21:27:14.207680  6675 net.cpp:380] cccp5 -> cccp5
I0916 21:27:14.209338  6675 net.cpp:122] Setting up cccp5
I0916 21:27:14.209350  6675 net.cpp:129] Top shape: 50 192 7 7 (470400)
I0916 21:27:14.209353  6675 net.cpp:137] Memory required for data: 203056600
I0916 21:27:14.209358  6675 layer_factory.hpp:77] Creating layer penlu_cccp5
I0916 21:27:14.209364  6675 net.cpp:84] Creating Layer penlu_cccp5
I0916 21:27:14.209367  6675 net.cpp:406] penlu_cccp5 <- cccp5
I0916 21:27:14.209372  6675 net.cpp:380] penlu_cccp5 -> penlu_cccp5
I0916 21:27:14.209496  6675 net.cpp:122] Setting up penlu_cccp5
I0916 21:27:14.209501  6675 net.cpp:129] Top shape: 50 192 7 7 (470400)
I0916 21:27:14.209503  6675 net.cpp:137] Memory required for data: 204938200
I0916 21:27:14.209508  6675 layer_factory.hpp:77] Creating layer cccp6
I0916 21:27:14.209516  6675 net.cpp:84] Creating Layer cccp6
I0916 21:27:14.209518  6675 net.cpp:406] cccp6 <- penlu_cccp5
I0916 21:27:14.209522  6675 net.cpp:380] cccp6 -> cccp6
I0916 21:27:14.210455  6675 net.cpp:122] Setting up cccp6
I0916 21:27:14.210464  6675 net.cpp:129] Top shape: 50 10 7 7 (24500)
I0916 21:27:14.210477  6675 net.cpp:137] Memory required for data: 205036200
I0916 21:27:14.210482  6675 layer_factory.hpp:77] Creating layer penlu_cccp6
I0916 21:27:14.210497  6675 net.cpp:84] Creating Layer penlu_cccp6
I0916 21:27:14.210500  6675 net.cpp:406] penlu_cccp6 <- cccp6
I0916 21:27:14.210506  6675 net.cpp:380] penlu_cccp6 -> penlu_cccp6
I0916 21:27:14.210629  6675 net.cpp:122] Setting up penlu_cccp6
I0916 21:27:14.210635  6675 net.cpp:129] Top shape: 50 10 7 7 (24500)
I0916 21:27:14.210647  6675 net.cpp:137] Memory required for data: 205134200
I0916 21:27:14.210651  6675 layer_factory.hpp:77] Creating layer pool3
I0916 21:27:14.210656  6675 net.cpp:84] Creating Layer pool3
I0916 21:27:14.210669  6675 net.cpp:406] pool3 <- penlu_cccp6
I0916 21:27:14.210672  6675 net.cpp:380] pool3 -> pool3
I0916 21:27:14.211127  6675 net.cpp:122] Setting up pool3
I0916 21:27:14.211138  6675 net.cpp:129] Top shape: 50 10 1 1 (500)
I0916 21:27:14.211150  6675 net.cpp:137] Memory required for data: 205136200
I0916 21:27:14.211153  6675 layer_factory.hpp:77] Creating layer pool3_pool3_0_split
I0916 21:27:14.211158  6675 net.cpp:84] Creating Layer pool3_pool3_0_split
I0916 21:27:14.211159  6675 net.cpp:406] pool3_pool3_0_split <- pool3
I0916 21:27:14.211172  6675 net.cpp:380] pool3_pool3_0_split -> pool3_pool3_0_split_0
I0916 21:27:14.211177  6675 net.cpp:380] pool3_pool3_0_split -> pool3_pool3_0_split_1
I0916 21:27:14.211220  6675 net.cpp:122] Setting up pool3_pool3_0_split
I0916 21:27:14.211225  6675 net.cpp:129] Top shape: 50 10 1 1 (500)
I0916 21:27:14.211228  6675 net.cpp:129] Top shape: 50 10 1 1 (500)
I0916 21:27:14.211241  6675 net.cpp:137] Memory required for data: 205140200
I0916 21:27:14.211242  6675 layer_factory.hpp:77] Creating layer accuracy
I0916 21:27:14.211246  6675 net.cpp:84] Creating Layer accuracy
I0916 21:27:14.211249  6675 net.cpp:406] accuracy <- pool3_pool3_0_split_0
I0916 21:27:14.211261  6675 net.cpp:406] accuracy <- label_cifar_1_split_0
I0916 21:27:14.211266  6675 net.cpp:380] accuracy -> accuracy
…
