…
I0918 15:26:40.581100 32621 net.cpp:294] The NetState phase (0) differed from the phase (1) specified by a rule in layer cifar
I0918 15:26:40.581307 32621 net.cpp:51] Initializing net from parameters: 
name: "nin"
state {
  phase: TRAIN
  level: 0
  stage: ""
}
layer {
  name: "cifar"
  type: "Data"
  top: "data"
  top: "label"
  include {
    phase: TRAIN
  }
  transform_param {
    mirror: true
    crop_size: 28
    mean_file: "/home/x306/caffe/xn/PENLU/data/cifar10/mean.binaryproto"
  }
  data_param {
    source: "/home/x306/caffe/xn/PENLU/data/cifar10/cifar10_train_lmdb"
    batch_size: 64
    backend: LMDB
  }
  image_data_param {
    shuffle: true
  }
}
layer {
  name: "conv1"
  type: "Convolution"
  bottom: "data"
  top: "conv1"
  param {
    lr_mult: 1
    decay_mult: 1
  }
  param {
    lr_mult: 2
    decay_mult: 0
  }
  convolution_param {
    num_output: 192
    pad: 2
    kernel_size: 5
    weight_filler {
      type: "gaussian"
      std: 0.05
    }
    bias_filler {
      type: "constant"
      value: 0
    }
  }
}
layer {
  name: "penlu_conv1"
  type: "PENLU"
  bottom: "conv1"
  top: "penlu_conv1"
  param {
    lr_mult: 1
    decay_mult: 0
  }
  param {
    lr_mult: 1
    decay_mult: 0
  }
  param {
    lr_mult: 1
    decay_mult: 0
  }
  penlu_param {
    alpha_filler {
      type: "constant"
      value: 1
    }
    beta_filler {
      type: "constant"
      value: 1
    }
    eta_filler {
      type: "constant"
      value: 0.85
    }
  }
}
layer {
  name: "cccp1"
  type: "Convolution"
  bottom: "penlu_conv1"
  top: "cccp1"
  param {
    lr_mult: 1
    decay_mult: 1
  }
  param {
    lr_mult: 2
    decay_mult: 0
  }
  convolution_param {
    num_output: 160
    kernel_size: 1
    weight_filler {
      type: "gaussian"
      std: 0.05
    }
    bias_filler {
      type: "constant"
      value: 0
    }
  }
}
layer {
  name: "penlu_cccp1"
  type: "PENLU"
  bottom: "cccp1"
  top: "penlu_cccp1"
  param {
    lr_mult: 1
    decay_mult: 0
  }
  param {
    lr_mult: 1
    decay_mult: 0
  }
  param {
    lr_mult: 1
    decay_mult: 0
  }
  penlu_param {
    alpha_filler {
      type: "constant"
      value: 1
    }
    beta_filler {
      type: "constant"
      value: 1
    }
    eta_filler {
      type: "constant"
      value: 0.85
    }
  }
}
layer {
  name: "cccp2"
  type: "Convolution"
  bottom: "penlu_cccp1"
  top: "cccp2"
  param {
    lr_mult: 1
    decay_mult: 1
  }
  param {
    lr_mult: 2
    decay_mult: 0
  }
  convolution_param {
    num_output: 96
    kernel_size: 1
    weight_filler {
      type: "gaussian"
      std: 0.05
    }
    bias_filler {
      type: "constant"
      value: 0
    }
  }
}
layer {
  name: "penlu_cccp2"
  type: "PENLU"
  bottom: "cccp2"
  top: "penlu_cccp2"
  param {
    lr_mult: 1
    decay_mult: 0
  }
  param {
    lr_mult: 1
    decay_mult: 0
  }
  param {
    lr_mult: 1
    decay_mult: 0
  }
  penlu_param {
    alpha_filler {
      type: "constant"
      value: 1
    }
    beta_filler {
      type: "constant"
      value: 1
    }
    eta_filler {
      type: "constant"
      value: 0.85
    }
  }
}
layer {
  name: "pool1"
  type: "Pooling"
  bottom: "penlu_cccp2"
  top: "pool1"
  pooling_param {
    pool: MAX
    kernel_size: 3
    stride: 2
  }
}
layer {
  name: "dropout1"
  type: "Dropout"
  bottom: "pool1"
  top: "dropout1"
  dropout_param {
    dropout_ratio: 0.5
  }
}
layer {
  name: "conv2"
  type: "Convolution"
  bottom: "dropout1"
  top: "conv2"
  param {
    lr_mult: 1
    decay_mult: 1
  }
  param {
    lr_mult: 2
    decay_mult: 0
  }
  convolution_param {
    num_output: 192
    pad: 2
    kernel_size: 5
    weight_filler {
      type: "gaussian"
      std: 0.05
    }
    bias_filler {
      type: "constant"
      value: 0
    }
  }
}
layer {
  name: "penlu_conv2"
  type: "PENLU"
  bottom: "conv2"
  top: "penlu_conv2"
  param {
    lr_mult: 1
    decay_mult: 0
  }
  param {
    lr_mult: 1
    decay_mult: 0
  }
  param {
    lr_mult: 1
    decay_mult: 0
  }
  penlu_param {
    alpha_filler {
      type: "constant"
      value: 1
    }
    beta_filler {
      type: "constant"
      value: 1
    }
    eta_filler {
      type: "constant"
      value: 0.85
    }
  }
}
layer {
  name: "cccp3"
  type: "Convolution"
  bottom: "penlu_conv2"
  top: "cccp3"
  param {
    lr_mult: 1
    decay_mult: 1
  }
  param {
    lr_mult: 2
    decay_mult: 0
  }
  convolution_param {
    num_output: 192
    kernel_size: 1
    weight_filler {
      type: "gaussian"
      std: 0.05
    }
    bias_filler {
      type: "constant"
      value: 0
    }
  }
}
layer {
  name: "penlu_cccp3"
  type: "PENLU"
  bottom: "cccp3"
  top: "penlu_cccp3"
  param {
    lr_mult: 1
    decay_mult: 0
  }
  param {
    lr_mult: 1
    decay_mult: 0
  }
  param {
    lr_mult: 1
    decay_mult: 0
  }
  penlu_param {
    alpha_filler {
      type: "constant"
      value: 1
    }
    beta_filler {
      type: "constant"
      value: 1
    }
    eta_filler {
      type: "constant"
      value: 0.85
    }
  }
}
layer {
  name: "cccp4"
  type: "Convolution"
  bottom: "penlu_cccp3"
  top: "cccp4"
  param {
    lr_mult: 1
    decay_mult: 1
  }
  param {
    lr_mult: 2
    decay_mult: 0
  }
  convolution_param {
    num_output: 192
    kernel_size: 1
    weight_filler {
      type: "gaussian"
      std: 0.05
    }
    bias_filler {
      type: "constant"
      value: 0
    }
  }
}
layer {
  name: "penlu_cccp4"
  type: "PENLU"
  bottom: "cccp4"
  top: "penlu_cccp4"
  param {
    lr_mult: 1
    decay_mult: 0
  }
  param {
    lr_mult: 1
    decay_mult: 0
  }
  param {
    lr_mult: 1
    decay_mult: 0
  }
  penlu_param {
    alpha_filler {
      type: "constant"
      value: 1
    }
    beta_filler {
      type: "constant"
      value: 1
    }
    eta_filler {
      type: "constant"
      value: 0.85
    }
  }
}
layer {
  name: "pool2"
  type: "Pooling"
  bottom: "penlu_cccp4"
  top: "pool2"
  pooling_param {
    pool: AVE
    kernel_size: 3
    stride: 2
  }
}
layer {
  name: "dropout2"
  type: "Dropout"
  bottom: "pool2"
  top: "dropout2"
  dropout_param {
    dropout_ratio: 0.5
  }
}
layer {
  name: "conv3"
  type: "Convolution"
  bottom: "dropout2"
  top: "conv3"
  param {
    lr_mult: 1
    decay_mult: 1
  }
  param {
    lr_mult: 2
    decay_mult: 0
  }
  convolution_param {
    num_output: 192
    pad: 1
    kernel_size: 3
    weight_filler {
      type: "gaussian"
      std: 0.05
    }
    bias_filler {
      type: "constant"
      value: 0
    }
  }
}
layer {
  name: "penlu_conv3"
  type: "PENLU"
  bottom: "conv3"
  top: "penlu_conv3"
  param {
    lr_mult: 1
    decay_mult: 0
  }
  param {
    lr_mult: 1
    decay_mult: 0
  }
  param {
    lr_mult: 1
    decay_mult: 0
  }
  penlu_param {
    alpha_filler {
      type: "constant"
      value: 1
    }
    beta_filler {
      type: "constant"
      value: 1
    }
    eta_filler {
      type: "constant"
      value: 0.85
    }
  }
}
layer {
  name: "cccp5"
  type: "Convolution"
  bottom: "penlu_conv3"
  top: "cccp5"
  param {
    lr_mult: 1
    decay_mult: 1
  }
  param {
    lr_mult: 2
    decay_mult: 0
  }
  convolution_param {
    num_output: 192
    kernel_size: 1
    weight_filler {
      type: "gaussian"
      std: 0.05
    }
    bias_filler {
      type: "constant"
      value: 0
    }
  }
}
layer {
  name: "penlu_cccp5"
  type: "PENLU"
  bottom: "cccp5"
  top: "penlu_cccp5"
  param {
    lr_mult: 1
    decay_mult: 0
  }
  param {
    lr_mult: 1
    decay_mult: 0
  }
  param {
    lr_mult: 1
    decay_mult: 0
  }
  penlu_param {
    alpha_filler {
      type: "constant"
      value: 1
    }
    beta_filler {
      type: "constant"
      value: 1
    }
    eta_filler {
      type: "constant"
      value: 0.85
    }
  }
}
layer {
  name: "cccp6"
  type: "Convolution"
  bottom: "penlu_cccp5"
  top: "cccp6"
  param {
    lr_mult: 0.1
    decay_mult: 1
  }
  param {
    lr_mult: 0.1
    decay_mult: 0
  }
  convolution_param {
    num_output: 10
    kernel_size: 1
    weight_filler {
      type: "gaussian"
      std: 0.05
    }
    bias_filler {
      type: "constant"
      value: 0
    }
  }
}
layer {
  name: "penlu_cccp6"
  type: "PENLU"
  bottom: "cccp6"
  top: "penlu_cccp6"
  param {
    lr_mult: 1
    decay_mult: 0
  }
  param {
    lr_mult: 1
    decay_mult: 0
  }
  param {
    lr_mult: 1
    decay_mult: 0
  }
  penlu_param {
    alpha_filler {
      type: "constant"
      value: 1
    }
    beta_filler {
      type: "constant"
      value: 1
    }
    eta_filler {
      type: "constant"
      value: 0.85
    }
  }
}
layer {
  name: "pool3"
  type: "Pooling"
  bottom: "penlu_cccp6"
  top: "pool3"
  pooling_param {
    pool: AVE
    kernel_size: 7
    stride: 1
  }
}
layer {
  name: "accuracy"
  type: "Accuracy"
  bottom: "pool3"
  bottom: "label"
  top: "accuracy"
}
layer {
  name: "loss"
  type: "SoftmaxWithLoss"
  bottom: "pool3"
  bottom: "label"
  top: "loss"
}
I0918 15:26:40.581470 32621 layer_factory.hpp:77] Creating layer cifar
I0918 15:26:40.581585 32621 db_lmdb.cpp:35] Opened lmdb /home/x306/caffe/xn/PENLU/data/cifar10/cifar10_train_lmdb
I0918 15:26:40.581630 32621 net.cpp:84] Creating Layer cifar
I0918 15:26:40.581636 32621 net.cpp:380] cifar -> data
I0918 15:26:40.581684 32621 net.cpp:380] cifar -> label
I0918 15:26:40.581707 32621 data_transformer.cpp:25] Loading mean file from: /home/x306/caffe/xn/PENLU/data/cifar10/mean.binaryproto
I0918 15:26:40.583087 32621 data_layer.cpp:45] output data size: 64,3,28,28
I0918 15:26:40.585177 32621 net.cpp:122] Setting up cifar
I0918 15:26:40.585204 32621 net.cpp:129] Top shape: 64 3 28 28 (150528)
I0918 15:26:40.585209 32621 net.cpp:129] Top shape: 64 (64)
I0918 15:26:40.585212 32621 net.cpp:137] Memory required for data: 602368
I0918 15:26:40.585228 32621 layer_factory.hpp:77] Creating layer label_cifar_1_split
I0918 15:26:40.585239 32621 net.cpp:84] Creating Layer label_cifar_1_split
I0918 15:26:40.585244 32621 net.cpp:406] label_cifar_1_split <- label
I0918 15:26:40.585261 32621 net.cpp:380] label_cifar_1_split -> label_cifar_1_split_0
I0918 15:26:40.585283 32621 net.cpp:380] label_cifar_1_split -> label_cifar_1_split_1
I0918 15:26:40.585324 32621 net.cpp:122] Setting up label_cifar_1_split
I0918 15:26:40.585340 32621 net.cpp:129] Top shape: 64 (64)
I0918 15:26:40.585342 32621 net.cpp:129] Top shape: 64 (64)
I0918 15:26:40.585345 32621 net.cpp:137] Memory required for data: 602880
I0918 15:26:40.585347 32621 layer_factory.hpp:77] Creating layer conv1
I0918 15:26:40.585360 32621 net.cpp:84] Creating Layer conv1
I0918 15:26:40.585362 32621 net.cpp:406] conv1 <- data
I0918 15:26:40.585366 32621 net.cpp:380] conv1 -> conv1
I0918 15:26:40.731163 32621 net.cpp:122] Setting up conv1
I0918 15:26:40.731186 32621 net.cpp:129] Top shape: 64 192 28 28 (9633792)
I0918 15:26:40.731190 32621 net.cpp:137] Memory required for data: 39138048
I0918 15:26:40.731204 32621 layer_factory.hpp:77] Creating layer penlu_conv1
I0918 15:26:40.731226 32621 net.cpp:84] Creating Layer penlu_conv1
I0918 15:26:40.731231 32621 net.cpp:406] penlu_conv1 <- conv1
I0918 15:26:40.731251 32621 net.cpp:380] penlu_conv1 -> penlu_conv1
I0918 15:26:40.731511 32621 net.cpp:122] Setting up penlu_conv1
I0918 15:26:40.731519 32621 net.cpp:129] Top shape: 64 192 28 28 (9633792)
I0918 15:26:40.731521 32621 net.cpp:137] Memory required for data: 77673216
I0918 15:26:40.731528 32621 layer_factory.hpp:77] Creating layer cccp1
I0918 15:26:40.731537 32621 net.cpp:84] Creating Layer cccp1
I0918 15:26:40.731540 32621 net.cpp:406] cccp1 <- penlu_conv1
I0918 15:26:40.731554 32621 net.cpp:380] cccp1 -> cccp1
I0918 15:26:40.733579 32621 net.cpp:122] Setting up cccp1
I0918 15:26:40.733590 32621 net.cpp:129] Top shape: 64 160 28 28 (8028160)
I0918 15:26:40.733592 32621 net.cpp:137] Memory required for data: 109785856
I0918 15:26:40.733597 32621 layer_factory.hpp:77] Creating layer penlu_cccp1
I0918 15:26:40.733603 32621 net.cpp:84] Creating Layer penlu_cccp1
I0918 15:26:40.733606 32621 net.cpp:406] penlu_cccp1 <- cccp1
I0918 15:26:40.733620 32621 net.cpp:380] penlu_cccp1 -> penlu_cccp1
I0918 15:26:40.733824 32621 net.cpp:122] Setting up penlu_cccp1
I0918 15:26:40.733831 32621 net.cpp:129] Top shape: 64 160 28 28 (8028160)
I0918 15:26:40.733834 32621 net.cpp:137] Memory required for data: 141898496
I0918 15:26:40.733839 32621 layer_factory.hpp:77] Creating layer cccp2
I0918 15:26:40.733846 32621 net.cpp:84] Creating Layer cccp2
I0918 15:26:40.733849 32621 net.cpp:406] cccp2 <- penlu_cccp1
I0918 15:26:40.733862 32621 net.cpp:380] cccp2 -> cccp2
I0918 15:26:40.735019 32621 net.cpp:122] Setting up cccp2
I0918 15:26:40.735029 32621 net.cpp:129] Top shape: 64 96 28 28 (4816896)
I0918 15:26:40.735033 32621 net.cpp:137] Memory required for data: 161166080
I0918 15:26:40.735036 32621 layer_factory.hpp:77] Creating layer penlu_cccp2
I0918 15:26:40.735043 32621 net.cpp:84] Creating Layer penlu_cccp2
I0918 15:26:40.735045 32621 net.cpp:406] penlu_cccp2 <- cccp2
I0918 15:26:40.735059 32621 net.cpp:380] penlu_cccp2 -> penlu_cccp2
I0918 15:26:40.735232 32621 net.cpp:122] Setting up penlu_cccp2
I0918 15:26:40.735239 32621 net.cpp:129] Top shape: 64 96 28 28 (4816896)
I0918 15:26:40.735242 32621 net.cpp:137] Memory required for data: 180433664
I0918 15:26:40.735246 32621 layer_factory.hpp:77] Creating layer pool1
I0918 15:26:40.735254 32621 net.cpp:84] Creating Layer pool1
I0918 15:26:40.735256 32621 net.cpp:406] pool1 <- penlu_cccp2
I0918 15:26:40.735270 32621 net.cpp:380] pool1 -> pool1
I0918 15:26:40.735334 32621 net.cpp:122] Setting up pool1
I0918 15:26:40.735342 32621 net.cpp:129] Top shape: 64 96 14 14 (1204224)
I0918 15:26:40.735343 32621 net.cpp:137] Memory required for data: 185250560
I0918 15:26:40.735345 32621 layer_factory.hpp:77] Creating layer dropout1
I0918 15:26:40.735352 32621 net.cpp:84] Creating Layer dropout1
I0918 15:26:40.735353 32621 net.cpp:406] dropout1 <- pool1
I0918 15:26:40.735357 32621 net.cpp:380] dropout1 -> dropout1
I0918 15:26:40.735430 32621 net.cpp:122] Setting up dropout1
I0918 15:26:40.735435 32621 net.cpp:129] Top shape: 64 96 14 14 (1204224)
I0918 15:26:40.735437 32621 net.cpp:137] Memory required for data: 190067456
I0918 15:26:40.735440 32621 layer_factory.hpp:77] Creating layer conv2
I0918 15:26:40.735446 32621 net.cpp:84] Creating Layer conv2
I0918 15:26:40.735448 32621 net.cpp:406] conv2 <- dropout1
I0918 15:26:40.735452 32621 net.cpp:380] conv2 -> conv2
I0918 15:26:40.747597 32621 net.cpp:122] Setting up conv2
I0918 15:26:40.747613 32621 net.cpp:129] Top shape: 64 192 14 14 (2408448)
I0918 15:26:40.747617 32621 net.cpp:137] Memory required for data: 199701248
I0918 15:26:40.747625 32621 layer_factory.hpp:77] Creating layer penlu_conv2
I0918 15:26:40.747644 32621 net.cpp:84] Creating Layer penlu_conv2
I0918 15:26:40.747648 32621 net.cpp:406] penlu_conv2 <- conv2
I0918 15:26:40.747665 32621 net.cpp:380] penlu_conv2 -> penlu_conv2
I0918 15:26:40.747829 32621 net.cpp:122] Setting up penlu_conv2
I0918 15:26:40.747838 32621 net.cpp:129] Top shape: 64 192 14 14 (2408448)
I0918 15:26:40.747839 32621 net.cpp:137] Memory required for data: 209335040
I0918 15:26:40.747844 32621 layer_factory.hpp:77] Creating layer cccp3
I0918 15:26:40.747851 32621 net.cpp:84] Creating Layer cccp3
I0918 15:26:40.747853 32621 net.cpp:406] cccp3 <- penlu_conv2
I0918 15:26:40.747859 32621 net.cpp:380] cccp3 -> cccp3
I0918 15:26:40.749480 32621 net.cpp:122] Setting up cccp3
I0918 15:26:40.749490 32621 net.cpp:129] Top shape: 64 192 14 14 (2408448)
I0918 15:26:40.749492 32621 net.cpp:137] Memory required for data: 218968832
I0918 15:26:40.749496 32621 layer_factory.hpp:77] Creating layer penlu_cccp3
I0918 15:26:40.749503 32621 net.cpp:84] Creating Layer penlu_cccp3
I0918 15:26:40.749518 32621 net.cpp:406] penlu_cccp3 <- cccp3
I0918 15:26:40.749528 32621 net.cpp:380] penlu_cccp3 -> penlu_cccp3
I0918 15:26:40.749663 32621 net.cpp:122] Setting up penlu_cccp3
I0918 15:26:40.749671 32621 net.cpp:129] Top shape: 64 192 14 14 (2408448)
I0918 15:26:40.749675 32621 net.cpp:137] Memory required for data: 228602624
I0918 15:26:40.749682 32621 layer_factory.hpp:77] Creating layer cccp4
I0918 15:26:40.749692 32621 net.cpp:84] Creating Layer cccp4
I0918 15:26:40.749708 32621 net.cpp:406] cccp4 <- penlu_cccp3
I0918 15:26:40.749717 32621 net.cpp:380] cccp4 -> cccp4
I0918 15:26:40.751330 32621 net.cpp:122] Setting up cccp4
I0918 15:26:40.751341 32621 net.cpp:129] Top shape: 64 192 14 14 (2408448)
I0918 15:26:40.751354 32621 net.cpp:137] Memory required for data: 238236416
I0918 15:26:40.751360 32621 layer_factory.hpp:77] Creating layer penlu_cccp4
I0918 15:26:40.751369 32621 net.cpp:84] Creating Layer penlu_cccp4
I0918 15:26:40.751384 32621 net.cpp:406] penlu_cccp4 <- cccp4
I0918 15:26:40.751394 32621 net.cpp:380] penlu_cccp4 -> penlu_cccp4
I0918 15:26:40.751526 32621 net.cpp:122] Setting up penlu_cccp4
I0918 15:26:40.751543 32621 net.cpp:129] Top shape: 64 192 14 14 (2408448)
I0918 15:26:40.751547 32621 net.cpp:137] Memory required for data: 247870208
I0918 15:26:40.751555 32621 layer_factory.hpp:77] Creating layer pool2
I0918 15:26:40.751575 32621 net.cpp:84] Creating Layer pool2
I0918 15:26:40.751581 32621 net.cpp:406] pool2 <- penlu_cccp4
I0918 15:26:40.751588 32621 net.cpp:380] pool2 -> pool2
I0918 15:26:40.751727 32621 net.cpp:122] Setting up pool2
I0918 15:26:40.751735 32621 net.cpp:129] Top shape: 64 192 7 7 (602112)
I0918 15:26:40.751739 32621 net.cpp:137] Memory required for data: 250278656
I0918 15:26:40.751744 32621 layer_factory.hpp:77] Creating layer dropout2
I0918 15:26:40.751752 32621 net.cpp:84] Creating Layer dropout2
I0918 15:26:40.751757 32621 net.cpp:406] dropout2 <- pool2
I0918 15:26:40.751765 32621 net.cpp:380] dropout2 -> dropout2
I0918 15:26:40.751799 32621 net.cpp:122] Setting up dropout2
I0918 15:26:40.751806 32621 net.cpp:129] Top shape: 64 192 7 7 (602112)
I0918 15:26:40.751808 32621 net.cpp:137] Memory required for data: 252687104
I0918 15:26:40.751813 32621 layer_factory.hpp:77] Creating layer conv3
I0918 15:26:40.751824 32621 net.cpp:84] Creating Layer conv3
I0918 15:26:40.751830 32621 net.cpp:406] conv3 <- dropout2
I0918 15:26:40.751839 32621 net.cpp:380] conv3 -> conv3
I0918 15:26:40.761391 32621 net.cpp:122] Setting up conv3
I0918 15:26:40.761407 32621 net.cpp:129] Top shape: 64 192 7 7 (602112)
I0918 15:26:40.761410 32621 net.cpp:137] Memory required for data: 255095552
I0918 15:26:40.761428 32621 layer_factory.hpp:77] Creating layer penlu_conv3
I0918 15:26:40.761440 32621 net.cpp:84] Creating Layer penlu_conv3
I0918 15:26:40.761445 32621 net.cpp:406] penlu_conv3 <- conv3
I0918 15:26:40.761454 32621 net.cpp:380] penlu_conv3 -> penlu_conv3
I0918 15:26:40.761586 32621 net.cpp:122] Setting up penlu_conv3
I0918 15:26:40.761593 32621 net.cpp:129] Top shape: 64 192 7 7 (602112)
I0918 15:26:40.761596 32621 net.cpp:137] Memory required for data: 257504000
I0918 15:26:40.761611 32621 layer_factory.hpp:77] Creating layer cccp5
I0918 15:26:40.761624 32621 net.cpp:84] Creating Layer cccp5
I0918 15:26:40.761631 32621 net.cpp:406] cccp5 <- penlu_conv3
I0918 15:26:40.761639 32621 net.cpp:380] cccp5 -> cccp5
I0918 15:26:40.763268 32621 net.cpp:122] Setting up cccp5
I0918 15:26:40.763278 32621 net.cpp:129] Top shape: 64 192 7 7 (602112)
I0918 15:26:40.763283 32621 net.cpp:137] Memory required for data: 259912448
I0918 15:26:40.763291 32621 layer_factory.hpp:77] Creating layer penlu_cccp5
I0918 15:26:40.763314 32621 net.cpp:84] Creating Layer penlu_cccp5
I0918 15:26:40.763320 32621 net.cpp:406] penlu_cccp5 <- cccp5
I0918 15:26:40.763339 32621 net.cpp:380] penlu_cccp5 -> penlu_cccp5
I0918 15:26:40.763481 32621 net.cpp:122] Setting up penlu_cccp5
I0918 15:26:40.763487 32621 net.cpp:129] Top shape: 64 192 7 7 (602112)
I0918 15:26:40.763490 32621 net.cpp:137] Memory required for data: 262320896
I0918 15:26:40.763520 32621 layer_factory.hpp:77] Creating layer cccp6
I0918 15:26:40.763531 32621 net.cpp:84] Creating Layer cccp6
I0918 15:26:40.763537 32621 net.cpp:406] cccp6 <- penlu_cccp5
I0918 15:26:40.763545 32621 net.cpp:380] cccp6 -> cccp6
I0918 15:26:40.764448 32621 net.cpp:122] Setting up cccp6
I0918 15:26:40.764459 32621 net.cpp:129] Top shape: 64 10 7 7 (31360)
I0918 15:26:40.764464 32621 net.cpp:137] Memory required for data: 262446336
I0918 15:26:40.764472 32621 layer_factory.hpp:77] Creating layer penlu_cccp6
I0918 15:26:40.764483 32621 net.cpp:84] Creating Layer penlu_cccp6
I0918 15:26:40.764489 32621 net.cpp:406] penlu_cccp6 <- cccp6
I0918 15:26:40.764498 32621 net.cpp:380] penlu_cccp6 -> penlu_cccp6
I0918 15:26:40.764617 32621 net.cpp:122] Setting up penlu_cccp6
I0918 15:26:40.764624 32621 net.cpp:129] Top shape: 64 10 7 7 (31360)
I0918 15:26:40.764628 32621 net.cpp:137] Memory required for data: 262571776
I0918 15:26:40.764637 32621 layer_factory.hpp:77] Creating layer pool3
I0918 15:26:40.764647 32621 net.cpp:84] Creating Layer pool3
I0918 15:26:40.764652 32621 net.cpp:406] pool3 <- penlu_cccp6
I0918 15:26:40.764660 32621 net.cpp:380] pool3 -> pool3
I0918 15:26:40.764796 32621 net.cpp:122] Setting up pool3
I0918 15:26:40.764804 32621 net.cpp:129] Top shape: 64 10 1 1 (640)
I0918 15:26:40.764809 32621 net.cpp:137] Memory required for data: 262574336
I0918 15:26:40.764814 32621 layer_factory.hpp:77] Creating layer pool3_pool3_0_split
I0918 15:26:40.764823 32621 net.cpp:84] Creating Layer pool3_pool3_0_split
I0918 15:26:40.764829 32621 net.cpp:406] pool3_pool3_0_split <- pool3
I0918 15:26:40.764837 32621 net.cpp:380] pool3_pool3_0_split -> pool3_pool3_0_split_0
I0918 15:26:40.764845 32621 net.cpp:380] pool3_pool3_0_split -> pool3_pool3_0_split_1
I0918 15:26:40.764880 32621 net.cpp:122] Setting up pool3_pool3_0_split
I0918 15:26:40.764886 32621 net.cpp:129] Top shape: 64 10 1 1 (640)
I0918 15:26:40.764891 32621 net.cpp:129] Top shape: 64 10 1 1 (640)
I0918 15:26:40.764896 32621 net.cpp:137] Memory required for data: 262579456
I0918 15:26:40.764901 32621 layer_factory.hpp:77] Creating layer accuracy
I0918 15:26:40.764912 32621 net.cpp:84] Creating Layer accuracy
I0918 15:26:40.764919 32621 net.cpp:406] accuracy <- pool3_pool3_0_split_0
I0918 15:26:40.764925 32621 net.cpp:406] accuracy <- label_cifar_1_split_0
I0918 15:26:40.764932 32621 net.cpp:380] accuracy -> accuracy
…
I0918 15:26:40.765929 32621 net.cpp:294] The NetState phase (1) differed from the phase (0) specified by a rule in layer cifar
I0918 15:26:40.766108 32621 net.cpp:51] Initializing net from parameters: 
name: "nin"
state {
  phase: TEST
}
layer {
  name: "cifar"
  type: "Data"
  top: "data"
  top: "label"
  include {
    phase: TEST
  }
  transform_param {
    mirror: false
    crop_size: 28
    mean_file: "/home/x306/caffe/xn/PENLU/data/cifar10/mean.binaryproto"
  }
  data_param {
    source: "/home/x306/caffe/xn/PENLU/data/cifar10/cifar10_test_lmdb"
    batch_size: 50
    backend: LMDB
  }
}
layer {
  name: "conv1"
  type: "Convolution"
  bottom: "data"
  top: "conv1"
  param {
    lr_mult: 1
    decay_mult: 1
  }
  param {
    lr_mult: 2
    decay_mult: 0
  }
  convolution_param {
    num_output: 192
    pad: 2
    kernel_size: 5
    weight_filler {
      type: "gaussian"
      std: 0.05
    }
    bias_filler {
      type: "constant"
      value: 0
    }
  }
}
layer {
  name: "penlu_conv1"
  type: "PENLU"
  bottom: "conv1"
  top: "penlu_conv1"
  param {
    lr_mult: 1
    decay_mult: 0
  }
  param {
    lr_mult: 1
    decay_mult: 0
  }
  param {
    lr_mult: 1
    decay_mult: 0
  }
  penlu_param {
    alpha_filler {
      type: "constant"
      value: 1
    }
    beta_filler {
      type: "constant"
      value: 1
    }
    eta_filler {
      type: "constant"
      value: 0.85
    }
  }
}
layer {
  name: "cccp1"
  type: "Convolution"
  bottom: "penlu_conv1"
  top: "cccp1"
  param {
    lr_mult: 1
    decay_mult: 1
  }
  param {
    lr_mult: 2
    decay_mult: 0
  }
  convolution_param {
    num_output: 160
    kernel_size: 1
    weight_filler {
      type: "gaussian"
      std: 0.05
    }
    bias_filler {
      type: "constant"
      value: 0
    }
  }
}
layer {
  name: "penlu_cccp1"
  type: "PENLU"
  bottom: "cccp1"
  top: "penlu_cccp1"
  param {
    lr_mult: 1
    decay_mult: 0
  }
  param {
    lr_mult: 1
    decay_mult: 0
  }
  param {
    lr_mult: 1
    decay_mult: 0
  }
  penlu_param {
    alpha_filler {
      type: "constant"
      value: 1
    }
    beta_filler {
      type: "constant"
      value: 1
    }
    eta_filler {
      type: "constant"
      value: 0.85
    }
  }
}
layer {
  name: "cccp2"
  type: "Convolution"
  bottom: "penlu_cccp1"
  top: "cccp2"
  param {
    lr_mult: 1
    decay_mult: 1
  }
  param {
    lr_mult: 2
    decay_mult: 0
  }
  convolution_param {
    num_output: 96
    kernel_size: 1
    weight_filler {
      type: "gaussian"
      std: 0.05
    }
    bias_filler {
      type: "constant"
      value: 0
    }
  }
}
layer {
  name: "penlu_cccp2"
  type: "PENLU"
  bottom: "cccp2"
  top: "penlu_cccp2"
  param {
    lr_mult: 1
    decay_mult: 0
  }
  param {
    lr_mult: 1
    decay_mult: 0
  }
  param {
    lr_mult: 1
    decay_mult: 0
  }
  penlu_param {
    alpha_filler {
      type: "constant"
      value: 1
    }
    beta_filler {
      type: "constant"
      value: 1
    }
    eta_filler {
      type: "constant"
      value: 0.85
    }
  }
}
layer {
  name: "pool1"
  type: "Pooling"
  bottom: "penlu_cccp2"
  top: "pool1"
  pooling_param {
    pool: MAX
    kernel_size: 3
    stride: 2
  }
}
layer {
  name: "dropout1"
  type: "Dropout"
  bottom: "pool1"
  top: "dropout1"
  dropout_param {
    dropout_ratio: 0.5
  }
}
layer {
  name: "conv2"
  type: "Convolution"
  bottom: "dropout1"
  top: "conv2"
  param {
    lr_mult: 1
    decay_mult: 1
  }
  param {
    lr_mult: 2
    decay_mult: 0
  }
  convolution_param {
    num_output: 192
    pad: 2
    kernel_size: 5
    weight_filler {
      type: "gaussian"
      std: 0.05
    }
    bias_filler {
      type: "constant"
      value: 0
    }
  }
}
layer {
  name: "penlu_conv2"
  type: "PENLU"
  bottom: "conv2"
  top: "penlu_conv2"
  param {
    lr_mult: 1
    decay_mult: 0
  }
  param {
    lr_mult: 1
    decay_mult: 0
  }
  param {
    lr_mult: 1
    decay_mult: 0
  }
  penlu_param {
    alpha_filler {
      type: "constant"
      value: 1
    }
    beta_filler {
      type: "constant"
      value: 1
    }
    eta_filler {
      type: "constant"
      value: 0.85
    }
  }
}
layer {
  name: "cccp3"
  type: "Convolution"
  bottom: "penlu_conv2"
  top: "cccp3"
  param {
    lr_mult: 1
    decay_mult: 1
  }
  param {
    lr_mult: 2
    decay_mult: 0
  }
  convolution_param {
    num_output: 192
    kernel_size: 1
    weight_filler {
      type: "gaussian"
      std: 0.05
    }
    bias_filler {
      type: "constant"
      value: 0
    }
  }
}
layer {
  name: "penlu_cccp3"
  type: "PENLU"
  bottom: "cccp3"
  top: "penlu_cccp3"
  param {
    lr_mult: 1
    decay_mult: 0
  }
  param {
    lr_mult: 1
    decay_mult: 0
  }
  param {
    lr_mult: 1
    decay_mult: 0
  }
  penlu_param {
    alpha_filler {
      type: "constant"
      value: 1
    }
    beta_filler {
      type: "constant"
      value: 1
    }
    eta_filler {
      type: "constant"
      value: 0.85
    }
  }
}
layer {
  name: "cccp4"
  type: "Convolution"
  bottom: "penlu_cccp3"
  top: "cccp4"
  param {
    lr_mult: 1
    decay_mult: 1
  }
  param {
    lr_mult: 2
    decay_mult: 0
  }
  convolution_param {
    num_output: 192
    kernel_size: 1
    weight_filler {
      type: "gaussian"
      std: 0.05
    }
    bias_filler {
      type: "constant"
      value: 0
    }
  }
}
layer {
  name: "penlu_cccp4"
  type: "PENLU"
  bottom: "cccp4"
  top: "penlu_cccp4"
  param {
    lr_mult: 1
    decay_mult: 0
  }
  param {
    lr_mult: 1
    decay_mult: 0
  }
  param {
    lr_mult: 1
    decay_mult: 0
  }
  penlu_param {
    alpha_filler {
      type: "constant"
      value: 1
    }
    beta_filler {
      type: "constant"
      value: 1
    }
    eta_filler {
      type: "constant"
      value: 0.85
    }
  }
}
layer {
  name: "pool2"
  type: "Pooling"
  bottom: "penlu_cccp4"
  top: "pool2"
  pooling_param {
    pool: AVE
    kernel_size: 3
    stride: 2
  }
}
layer {
  name: "dropout2"
  type: "Dropout"
  bottom: "pool2"
  top: "dropout2"
  dropout_param {
    dropout_ratio: 0.5
  }
}
layer {
  name: "conv3"
  type: "Convolution"
  bottom: "dropout2"
  top: "conv3"
  param {
    lr_mult: 1
    decay_mult: 1
  }
  param {
    lr_mult: 2
    decay_mult: 0
  }
  convolution_param {
    num_output: 192
    pad: 1
    kernel_size: 3
    weight_filler {
      type: "gaussian"
      std: 0.05
    }
    bias_filler {
      type: "constant"
      value: 0
    }
  }
}
layer {
  name: "penlu_conv3"
  type: "PENLU"
  bottom: "conv3"
  top: "penlu_conv3"
  param {
    lr_mult: 1
    decay_mult: 0
  }
  param {
    lr_mult: 1
    decay_mult: 0
  }
  param {
    lr_mult: 1
    decay_mult: 0
  }
  penlu_param {
    alpha_filler {
      type: "constant"
      value: 1
    }
    beta_filler {
      type: "constant"
      value: 1
    }
    eta_filler {
      type: "constant"
      value: 0.85
    }
  }
}
layer {
  name: "cccp5"
  type: "Convolution"
  bottom: "penlu_conv3"
  top: "cccp5"
  param {
    lr_mult: 1
    decay_mult: 1
  }
  param {
    lr_mult: 2
    decay_mult: 0
  }
  convolution_param {
    num_output: 192
    kernel_size: 1
    weight_filler {
      type: "gaussian"
      std: 0.05
    }
    bias_filler {
      type: "constant"
      value: 0
    }
  }
}
layer {
  name: "penlu_cccp5"
  type: "PENLU"
  bottom: "cccp5"
  top: "penlu_cccp5"
  param {
    lr_mult: 1
    decay_mult: 0
  }
  param {
    lr_mult: 1
    decay_mult: 0
  }
  param {
    lr_mult: 1
    decay_mult: 0
  }
  penlu_param {
    alpha_filler {
      type: "constant"
      value: 1
    }
    beta_filler {
      type: "constant"
      value: 1
    }
    eta_filler {
      type: "constant"
      value: 0.85
    }
  }
}
layer {
  name: "cccp6"
  type: "Convolution"
  bottom: "penlu_cccp5"
  top: "cccp6"
  param {
    lr_mult: 0.1
    decay_mult: 1
  }
  param {
    lr_mult: 0.1
    decay_mult: 0
  }
  convolution_param {
    num_output: 10
    kernel_size: 1
    weight_filler {
      type: "gaussian"
      std: 0.05
    }
    bias_filler {
      type: "constant"
      value: 0
    }
  }
}
layer {
  name: "penlu_cccp6"
  type: "PENLU"
  bottom: "cccp6"
  top: "penlu_cccp6"
  param {
    lr_mult: 1
    decay_mult: 0
  }
  param {
    lr_mult: 1
    decay_mult: 0
  }
  param {
    lr_mult: 1
    decay_mult: 0
  }
  penlu_param {
    alpha_filler {
      type: "constant"
      value: 1
    }
    beta_filler {
      type: "constant"
      value: 1
    }
    eta_filler {
      type: "constant"
      value: 0.85
    }
  }
}
layer {
  name: "pool3"
  type: "Pooling"
  bottom: "penlu_cccp6"
  top: "pool3"
  pooling_param {
    pool: AVE
    kernel_size: 7
    stride: 1
  }
}
layer {
  name: "accuracy"
  type: "Accuracy"
  bottom: "pool3"
  bottom: "label"
  top: "accuracy"
}
layer {
  name: "loss"
  type: "SoftmaxWithLoss"
  bottom: "pool3"
  bottom: "label"
  top: "loss"
}
I0918 15:26:40.766196 32621 layer_factory.hpp:77] Creating layer cifar
I0918 15:26:40.766232 32621 db_lmdb.cpp:35] Opened lmdb /home/x306/caffe/xn/PENLU/data/cifar10/cifar10_test_lmdb
I0918 15:26:40.766242 32621 net.cpp:84] Creating Layer cifar
I0918 15:26:40.766244 32621 net.cpp:380] cifar -> data
I0918 15:26:40.766250 32621 net.cpp:380] cifar -> label
I0918 15:26:40.766255 32621 data_transformer.cpp:25] Loading mean file from: /home/x306/caffe/xn/PENLU/data/cifar10/mean.binaryproto
I0918 15:26:40.766360 32621 data_layer.cpp:45] output data size: 50,3,28,28
I0918 15:26:40.767355 32621 net.cpp:122] Setting up cifar
I0918 15:26:40.767376 32621 net.cpp:129] Top shape: 50 3 28 28 (117600)
I0918 15:26:40.767381 32621 net.cpp:129] Top shape: 50 (50)
I0918 15:26:40.767383 32621 net.cpp:137] Memory required for data: 470600
I0918 15:26:40.767386 32621 layer_factory.hpp:77] Creating layer label_cifar_1_split
I0918 15:26:40.767391 32621 net.cpp:84] Creating Layer label_cifar_1_split
I0918 15:26:40.767395 32621 net.cpp:406] label_cifar_1_split <- label
I0918 15:26:40.767400 32621 net.cpp:380] label_cifar_1_split -> label_cifar_1_split_0
I0918 15:26:40.767405 32621 net.cpp:380] label_cifar_1_split -> label_cifar_1_split_1
I0918 15:26:40.767460 32621 net.cpp:122] Setting up label_cifar_1_split
I0918 15:26:40.767467 32621 net.cpp:129] Top shape: 50 (50)
I0918 15:26:40.767472 32621 net.cpp:129] Top shape: 50 (50)
I0918 15:26:40.767473 32621 net.cpp:137] Memory required for data: 471000
I0918 15:26:40.767475 32621 layer_factory.hpp:77] Creating layer conv1
I0918 15:26:40.767482 32621 net.cpp:84] Creating Layer conv1
I0918 15:26:40.767491 32621 net.cpp:406] conv1 <- data
I0918 15:26:40.767496 32621 net.cpp:380] conv1 -> conv1
I0918 15:26:40.768919 32621 net.cpp:122] Setting up conv1
I0918 15:26:40.768930 32621 net.cpp:129] Top shape: 50 192 28 28 (7526400)
I0918 15:26:40.768934 32621 net.cpp:137] Memory required for data: 30576600
I0918 15:26:40.768941 32621 layer_factory.hpp:77] Creating layer penlu_conv1
I0918 15:26:40.768949 32621 net.cpp:84] Creating Layer penlu_conv1
I0918 15:26:40.768952 32621 net.cpp:406] penlu_conv1 <- conv1
I0918 15:26:40.768956 32621 net.cpp:380] penlu_conv1 -> penlu_conv1
I0918 15:26:40.769140 32621 net.cpp:122] Setting up penlu_conv1
I0918 15:26:40.769146 32621 net.cpp:129] Top shape: 50 192 28 28 (7526400)
I0918 15:26:40.769150 32621 net.cpp:137] Memory required for data: 60682200
I0918 15:26:40.769156 32621 layer_factory.hpp:77] Creating layer cccp1
I0918 15:26:40.769165 32621 net.cpp:84] Creating Layer cccp1
I0918 15:26:40.769168 32621 net.cpp:406] cccp1 <- penlu_conv1
I0918 15:26:40.769172 32621 net.cpp:380] cccp1 -> cccp1
I0918 15:26:40.770766 32621 net.cpp:122] Setting up cccp1
I0918 15:26:40.770776 32621 net.cpp:129] Top shape: 50 160 28 28 (6272000)
I0918 15:26:40.770781 32621 net.cpp:137] Memory required for data: 85770200
I0918 15:26:40.770784 32621 layer_factory.hpp:77] Creating layer penlu_cccp1
I0918 15:26:40.770792 32621 net.cpp:84] Creating Layer penlu_cccp1
I0918 15:26:40.770794 32621 net.cpp:406] penlu_cccp1 <- cccp1
I0918 15:26:40.770799 32621 net.cpp:380] penlu_cccp1 -> penlu_cccp1
I0918 15:26:40.771464 32621 net.cpp:122] Setting up penlu_cccp1
I0918 15:26:40.771474 32621 net.cpp:129] Top shape: 50 160 28 28 (6272000)
I0918 15:26:40.771477 32621 net.cpp:137] Memory required for data: 110858200
I0918 15:26:40.771486 32621 layer_factory.hpp:77] Creating layer cccp2
I0918 15:26:40.771493 32621 net.cpp:84] Creating Layer cccp2
I0918 15:26:40.771497 32621 net.cpp:406] cccp2 <- penlu_cccp1
I0918 15:26:40.771502 32621 net.cpp:380] cccp2 -> cccp2
I0918 15:26:40.772743 32621 net.cpp:122] Setting up cccp2
I0918 15:26:40.772754 32621 net.cpp:129] Top shape: 50 96 28 28 (3763200)
I0918 15:26:40.772758 32621 net.cpp:137] Memory required for data: 125911000
I0918 15:26:40.772771 32621 layer_factory.hpp:77] Creating layer penlu_cccp2
I0918 15:26:40.772778 32621 net.cpp:84] Creating Layer penlu_cccp2
I0918 15:26:40.772781 32621 net.cpp:406] penlu_cccp2 <- cccp2
I0918 15:26:40.772786 32621 net.cpp:380] penlu_cccp2 -> penlu_cccp2
I0918 15:26:40.772965 32621 net.cpp:122] Setting up penlu_cccp2
I0918 15:26:40.772974 32621 net.cpp:129] Top shape: 50 96 28 28 (3763200)
I0918 15:26:40.772975 32621 net.cpp:137] Memory required for data: 140963800
I0918 15:26:40.772980 32621 layer_factory.hpp:77] Creating layer pool1
I0918 15:26:40.772987 32621 net.cpp:84] Creating Layer pool1
I0918 15:26:40.772990 32621 net.cpp:406] pool1 <- penlu_cccp2
I0918 15:26:40.772994 32621 net.cpp:380] pool1 -> pool1
I0918 15:26:40.773022 32621 net.cpp:122] Setting up pool1
I0918 15:26:40.773027 32621 net.cpp:129] Top shape: 50 96 14 14 (940800)
I0918 15:26:40.773030 32621 net.cpp:137] Memory required for data: 144727000
I0918 15:26:40.773031 32621 layer_factory.hpp:77] Creating layer dropout1
I0918 15:26:40.773036 32621 net.cpp:84] Creating Layer dropout1
I0918 15:26:40.773039 32621 net.cpp:406] dropout1 <- pool1
I0918 15:26:40.773043 32621 net.cpp:380] dropout1 -> dropout1
I0918 15:26:40.773077 32621 net.cpp:122] Setting up dropout1
I0918 15:26:40.773082 32621 net.cpp:129] Top shape: 50 96 14 14 (940800)
I0918 15:26:40.773083 32621 net.cpp:137] Memory required for data: 148490200
I0918 15:26:40.773085 32621 layer_factory.hpp:77] Creating layer conv2
I0918 15:26:40.773102 32621 net.cpp:84] Creating Layer conv2
I0918 15:26:40.773106 32621 net.cpp:406] conv2 <- dropout1
I0918 15:26:40.773110 32621 net.cpp:380] conv2 -> conv2
I0918 15:26:40.784801 32621 net.cpp:122] Setting up conv2
I0918 15:26:40.784816 32621 net.cpp:129] Top shape: 50 192 14 14 (1881600)
I0918 15:26:40.784819 32621 net.cpp:137] Memory required for data: 156016600
I0918 15:26:40.784828 32621 layer_factory.hpp:77] Creating layer penlu_conv2
I0918 15:26:40.784858 32621 net.cpp:84] Creating Layer penlu_conv2
I0918 15:26:40.784862 32621 net.cpp:406] penlu_conv2 <- conv2
I0918 15:26:40.784867 32621 net.cpp:380] penlu_conv2 -> penlu_conv2
I0918 15:26:40.785013 32621 net.cpp:122] Setting up penlu_conv2
I0918 15:26:40.785019 32621 net.cpp:129] Top shape: 50 192 14 14 (1881600)
I0918 15:26:40.785022 32621 net.cpp:137] Memory required for data: 163543000
I0918 15:26:40.785025 32621 layer_factory.hpp:77] Creating layer cccp3
I0918 15:26:40.785033 32621 net.cpp:84] Creating Layer cccp3
I0918 15:26:40.785035 32621 net.cpp:406] cccp3 <- penlu_conv2
I0918 15:26:40.785039 32621 net.cpp:380] cccp3 -> cccp3
I0918 15:26:40.786665 32621 net.cpp:122] Setting up cccp3
I0918 15:26:40.786674 32621 net.cpp:129] Top shape: 50 192 14 14 (1881600)
I0918 15:26:40.786675 32621 net.cpp:137] Memory required for data: 171069400
I0918 15:26:40.786680 32621 layer_factory.hpp:77] Creating layer penlu_cccp3
I0918 15:26:40.786686 32621 net.cpp:84] Creating Layer penlu_cccp3
I0918 15:26:40.786689 32621 net.cpp:406] penlu_cccp3 <- cccp3
I0918 15:26:40.786694 32621 net.cpp:380] penlu_cccp3 -> penlu_cccp3
I0918 15:26:40.786820 32621 net.cpp:122] Setting up penlu_cccp3
I0918 15:26:40.786825 32621 net.cpp:129] Top shape: 50 192 14 14 (1881600)
I0918 15:26:40.786828 32621 net.cpp:137] Memory required for data: 178595800
I0918 15:26:40.786831 32621 layer_factory.hpp:77] Creating layer cccp4
I0918 15:26:40.786837 32621 net.cpp:84] Creating Layer cccp4
I0918 15:26:40.786839 32621 net.cpp:406] cccp4 <- penlu_cccp3
I0918 15:26:40.786844 32621 net.cpp:380] cccp4 -> cccp4
I0918 15:26:40.788468 32621 net.cpp:122] Setting up cccp4
I0918 15:26:40.788477 32621 net.cpp:129] Top shape: 50 192 14 14 (1881600)
I0918 15:26:40.788480 32621 net.cpp:137] Memory required for data: 186122200
I0918 15:26:40.788485 32621 layer_factory.hpp:77] Creating layer penlu_cccp4
I0918 15:26:40.788491 32621 net.cpp:84] Creating Layer penlu_cccp4
I0918 15:26:40.788492 32621 net.cpp:406] penlu_cccp4 <- cccp4
I0918 15:26:40.788497 32621 net.cpp:380] penlu_cccp4 -> penlu_cccp4
I0918 15:26:40.788625 32621 net.cpp:122] Setting up penlu_cccp4
I0918 15:26:40.788630 32621 net.cpp:129] Top shape: 50 192 14 14 (1881600)
I0918 15:26:40.788632 32621 net.cpp:137] Memory required for data: 193648600
I0918 15:26:40.788637 32621 layer_factory.hpp:77] Creating layer pool2
I0918 15:26:40.788643 32621 net.cpp:84] Creating Layer pool2
I0918 15:26:40.788645 32621 net.cpp:406] pool2 <- penlu_cccp4
I0918 15:26:40.788650 32621 net.cpp:380] pool2 -> pool2
I0918 15:26:40.788775 32621 net.cpp:122] Setting up pool2
I0918 15:26:40.788781 32621 net.cpp:129] Top shape: 50 192 7 7 (470400)
I0918 15:26:40.788784 32621 net.cpp:137] Memory required for data: 195530200
I0918 15:26:40.788786 32621 layer_factory.hpp:77] Creating layer dropout2
I0918 15:26:40.788790 32621 net.cpp:84] Creating Layer dropout2
I0918 15:26:40.788794 32621 net.cpp:406] dropout2 <- pool2
I0918 15:26:40.788796 32621 net.cpp:380] dropout2 -> dropout2
I0918 15:26:40.788820 32621 net.cpp:122] Setting up dropout2
I0918 15:26:40.788823 32621 net.cpp:129] Top shape: 50 192 7 7 (470400)
I0918 15:26:40.788825 32621 net.cpp:137] Memory required for data: 197411800
I0918 15:26:40.788827 32621 layer_factory.hpp:77] Creating layer conv3
I0918 15:26:40.788833 32621 net.cpp:84] Creating Layer conv3
I0918 15:26:40.788836 32621 net.cpp:406] conv3 <- dropout2
I0918 15:26:40.788841 32621 net.cpp:380] conv3 -> conv3
I0918 15:26:40.798619 32621 net.cpp:122] Setting up conv3
I0918 15:26:40.798633 32621 net.cpp:129] Top shape: 50 192 7 7 (470400)
I0918 15:26:40.798636 32621 net.cpp:137] Memory required for data: 199293400
I0918 15:26:40.798642 32621 layer_factory.hpp:77] Creating layer penlu_conv3
I0918 15:26:40.798662 32621 net.cpp:84] Creating Layer penlu_conv3
I0918 15:26:40.798666 32621 net.cpp:406] penlu_conv3 <- conv3
I0918 15:26:40.798681 32621 net.cpp:380] penlu_conv3 -> penlu_conv3
I0918 15:26:40.798823 32621 net.cpp:122] Setting up penlu_conv3
I0918 15:26:40.798837 32621 net.cpp:129] Top shape: 50 192 7 7 (470400)
I0918 15:26:40.798840 32621 net.cpp:137] Memory required for data: 201175000
I0918 15:26:40.798849 32621 layer_factory.hpp:77] Creating layer cccp5
I0918 15:26:40.798857 32621 net.cpp:84] Creating Layer cccp5
I0918 15:26:40.798861 32621 net.cpp:406] cccp5 <- penlu_conv3
I0918 15:26:40.798866 32621 net.cpp:380] cccp5 -> cccp5
I0918 15:26:40.800521 32621 net.cpp:122] Setting up cccp5
I0918 15:26:40.800531 32621 net.cpp:129] Top shape: 50 192 7 7 (470400)
I0918 15:26:40.800534 32621 net.cpp:137] Memory required for data: 203056600
I0918 15:26:40.800539 32621 layer_factory.hpp:77] Creating layer penlu_cccp5
I0918 15:26:40.800544 32621 net.cpp:84] Creating Layer penlu_cccp5
I0918 15:26:40.800547 32621 net.cpp:406] penlu_cccp5 <- cccp5
I0918 15:26:40.800551 32621 net.cpp:380] penlu_cccp5 -> penlu_cccp5
I0918 15:26:40.800668 32621 net.cpp:122] Setting up penlu_cccp5
I0918 15:26:40.800673 32621 net.cpp:129] Top shape: 50 192 7 7 (470400)
I0918 15:26:40.800675 32621 net.cpp:137] Memory required for data: 204938200
I0918 15:26:40.800679 32621 layer_factory.hpp:77] Creating layer cccp6
I0918 15:26:40.800685 32621 net.cpp:84] Creating Layer cccp6
I0918 15:26:40.800688 32621 net.cpp:406] cccp6 <- penlu_cccp5
I0918 15:26:40.800693 32621 net.cpp:380] cccp6 -> cccp6
I0918 15:26:40.801581 32621 net.cpp:122] Setting up cccp6
I0918 15:26:40.801591 32621 net.cpp:129] Top shape: 50 10 7 7 (24500)
I0918 15:26:40.801594 32621 net.cpp:137] Memory required for data: 205036200
I0918 15:26:40.801599 32621 layer_factory.hpp:77] Creating layer penlu_cccp6
I0918 15:26:40.801604 32621 net.cpp:84] Creating Layer penlu_cccp6
I0918 15:26:40.801606 32621 net.cpp:406] penlu_cccp6 <- cccp6
I0918 15:26:40.801612 32621 net.cpp:380] penlu_cccp6 -> penlu_cccp6
I0918 15:26:40.801722 32621 net.cpp:122] Setting up penlu_cccp6
I0918 15:26:40.801728 32621 net.cpp:129] Top shape: 50 10 7 7 (24500)
I0918 15:26:40.801729 32621 net.cpp:137] Memory required for data: 205134200
I0918 15:26:40.801733 32621 layer_factory.hpp:77] Creating layer pool3
I0918 15:26:40.801738 32621 net.cpp:84] Creating Layer pool3
I0918 15:26:40.801741 32621 net.cpp:406] pool3 <- penlu_cccp6
I0918 15:26:40.801754 32621 net.cpp:380] pool3 -> pool3
I0918 15:26:40.802213 32621 net.cpp:122] Setting up pool3
I0918 15:26:40.802222 32621 net.cpp:129] Top shape: 50 10 1 1 (500)
I0918 15:26:40.802225 32621 net.cpp:137] Memory required for data: 205136200
I0918 15:26:40.802227 32621 layer_factory.hpp:77] Creating layer pool3_pool3_0_split
I0918 15:26:40.802232 32621 net.cpp:84] Creating Layer pool3_pool3_0_split
I0918 15:26:40.802235 32621 net.cpp:406] pool3_pool3_0_split <- pool3
I0918 15:26:40.802250 32621 net.cpp:380] pool3_pool3_0_split -> pool3_pool3_0_split_0
I0918 15:26:40.802254 32621 net.cpp:380] pool3_pool3_0_split -> pool3_pool3_0_split_1
I0918 15:26:40.802290 32621 net.cpp:122] Setting up pool3_pool3_0_split
I0918 15:26:40.802294 32621 net.cpp:129] Top shape: 50 10 1 1 (500)
I0918 15:26:40.802297 32621 net.cpp:129] Top shape: 50 10 1 1 (500)
I0918 15:26:40.802299 32621 net.cpp:137] Memory required for data: 205140200
I0918 15:26:40.802301 32621 layer_factory.hpp:77] Creating layer accuracy
I0918 15:26:40.802306 32621 net.cpp:84] Creating Layer accuracy
I0918 15:26:40.802309 32621 net.cpp:406] accuracy <- pool3_pool3_0_split_0
I0918 15:26:40.802322 32621 net.cpp:406] accuracy <- label_cifar_1_split_0
I0918 15:26:40.802326 32621 net.cpp:380] accuracy -> accuracy
…
