…
I0918 12:32:10.530704 32224 net.cpp:294] The NetState phase (0) differed from the phase (1) specified by a rule in layer cifar
I0918 12:32:10.530912 32224 net.cpp:51] Initializing net from parameters: 
name: "nin"
state {
  phase: TRAIN
  level: 0
  stage: ""
}
layer {
  name: "cifar"
  type: "Data"
  top: "data"
  top: "label"
  include {
    phase: TRAIN
  }
  transform_param {
    mirror: true
    crop_size: 28
    mean_file: "/home/x306/caffe/xn/PENLU/data/cifar10/mean.binaryproto"
  }
  data_param {
    source: "/home/x306/caffe/xn/PENLU/data/cifar10/cifar10_train_lmdb"
    batch_size: 64
    backend: LMDB
  }
  image_data_param {
    shuffle: true
  }
}
layer {
  name: "conv1"
  type: "Convolution"
  bottom: "data"
  top: "conv1"
  param {
    lr_mult: 1
    decay_mult: 1
  }
  param {
    lr_mult: 2
    decay_mult: 0
  }
  convolution_param {
    num_output: 192
    pad: 2
    kernel_size: 5
    weight_filler {
      type: "gaussian"
      std: 0.05
    }
    bias_filler {
      type: "constant"
      value: 0
    }
  }
}
layer {
  name: "penlu_conv1"
  type: "PENLU"
  bottom: "conv1"
  top: "penlu_conv1"
  param {
    lr_mult: 1
    decay_mult: 0
  }
  param {
    lr_mult: 1
    decay_mult: 0
  }
  param {
    lr_mult: 1
    decay_mult: 0
  }
  penlu_param {
    alpha_filler {
      type: "constant"
      value: 1
    }
    beta_filler {
      type: "constant"
      value: 1
    }
    eta_filler {
      type: "constant"
      value: 0.95
    }
  }
}
layer {
  name: "cccp1"
  type: "Convolution"
  bottom: "penlu_conv1"
  top: "cccp1"
  param {
    lr_mult: 1
    decay_mult: 1
  }
  param {
    lr_mult: 2
    decay_mult: 0
  }
  convolution_param {
    num_output: 160
    kernel_size: 1
    weight_filler {
      type: "gaussian"
      std: 0.05
    }
    bias_filler {
      type: "constant"
      value: 0
    }
  }
}
layer {
  name: "penlu_cccp1"
  type: "PENLU"
  bottom: "cccp1"
  top: "penlu_cccp1"
  param {
    lr_mult: 1
    decay_mult: 0
  }
  param {
    lr_mult: 1
    decay_mult: 0
  }
  param {
    lr_mult: 1
    decay_mult: 0
  }
  penlu_param {
    alpha_filler {
      type: "constant"
      value: 1
    }
    beta_filler {
      type: "constant"
      value: 1
    }
    eta_filler {
      type: "constant"
      value: 0.95
    }
  }
}
layer {
  name: "cccp2"
  type: "Convolution"
  bottom: "penlu_cccp1"
  top: "cccp2"
  param {
    lr_mult: 1
    decay_mult: 1
  }
  param {
    lr_mult: 2
    decay_mult: 0
  }
  convolution_param {
    num_output: 96
    kernel_size: 1
    weight_filler {
      type: "gaussian"
      std: 0.05
    }
    bias_filler {
      type: "constant"
      value: 0
    }
  }
}
layer {
  name: "penlu_cccp2"
  type: "PENLU"
  bottom: "cccp2"
  top: "penlu_cccp2"
  param {
    lr_mult: 1
    decay_mult: 0
  }
  param {
    lr_mult: 1
    decay_mult: 0
  }
  param {
    lr_mult: 1
    decay_mult: 0
  }
  penlu_param {
    alpha_filler {
      type: "constant"
      value: 1
    }
    beta_filler {
      type: "constant"
      value: 1
    }
    eta_filler {
      type: "constant"
      value: 0.95
    }
  }
}
layer {
  name: "pool1"
  type: "Pooling"
  bottom: "penlu_cccp2"
  top: "pool1"
  pooling_param {
    pool: MAX
    kernel_size: 3
    stride: 2
  }
}
layer {
  name: "dropout1"
  type: "Dropout"
  bottom: "pool1"
  top: "dropout1"
  dropout_param {
    dropout_ratio: 0.5
  }
}
layer {
  name: "conv2"
  type: "Convolution"
  bottom: "dropout1"
  top: "conv2"
  param {
    lr_mult: 1
    decay_mult: 1
  }
  param {
    lr_mult: 2
    decay_mult: 0
  }
  convolution_param {
    num_output: 192
    pad: 2
    kernel_size: 5
    weight_filler {
      type: "gaussian"
      std: 0.05
    }
    bias_filler {
      type: "constant"
      value: 0
    }
  }
}
layer {
  name: "penlu_conv2"
  type: "PENLU"
  bottom: "conv2"
  top: "penlu_conv2"
  param {
    lr_mult: 1
    decay_mult: 0
  }
  param {
    lr_mult: 1
    decay_mult: 0
  }
  param {
    lr_mult: 1
    decay_mult: 0
  }
  penlu_param {
    alpha_filler {
      type: "constant"
      value: 1
    }
    beta_filler {
      type: "constant"
      value: 1
    }
    eta_filler {
      type: "constant"
      value: 0.95
    }
  }
}
layer {
  name: "cccp3"
  type: "Convolution"
  bottom: "penlu_conv2"
  top: "cccp3"
  param {
    lr_mult: 1
    decay_mult: 1
  }
  param {
    lr_mult: 2
    decay_mult: 0
  }
  convolution_param {
    num_output: 192
    kernel_size: 1
    weight_filler {
      type: "gaussian"
      std: 0.05
    }
    bias_filler {
      type: "constant"
      value: 0
    }
  }
}
layer {
  name: "penlu_cccp3"
  type: "PENLU"
  bottom: "cccp3"
  top: "penlu_cccp3"
  param {
    lr_mult: 1
    decay_mult: 0
  }
  param {
    lr_mult: 1
    decay_mult: 0
  }
  param {
    lr_mult: 1
    decay_mult: 0
  }
  penlu_param {
    alpha_filler {
      type: "constant"
      value: 1
    }
    beta_filler {
      type: "constant"
      value: 1
    }
    eta_filler {
      type: "constant"
      value: 0.95
    }
  }
}
layer {
  name: "cccp4"
  type: "Convolution"
  bottom: "penlu_cccp3"
  top: "cccp4"
  param {
    lr_mult: 1
    decay_mult: 1
  }
  param {
    lr_mult: 2
    decay_mult: 0
  }
  convolution_param {
    num_output: 192
    kernel_size: 1
    weight_filler {
      type: "gaussian"
      std: 0.05
    }
    bias_filler {
      type: "constant"
      value: 0
    }
  }
}
layer {
  name: "penlu_cccp4"
  type: "PENLU"
  bottom: "cccp4"
  top: "penlu_cccp4"
  param {
    lr_mult: 1
    decay_mult: 0
  }
  param {
    lr_mult: 1
    decay_mult: 0
  }
  param {
    lr_mult: 1
    decay_mult: 0
  }
  penlu_param {
    alpha_filler {
      type: "constant"
      value: 1
    }
    beta_filler {
      type: "constant"
      value: 1
    }
    eta_filler {
      type: "constant"
      value: 0.95
    }
  }
}
layer {
  name: "pool2"
  type: "Pooling"
  bottom: "penlu_cccp4"
  top: "pool2"
  pooling_param {
    pool: AVE
    kernel_size: 3
    stride: 2
  }
}
layer {
  name: "dropout2"
  type: "Dropout"
  bottom: "pool2"
  top: "dropout2"
  dropout_param {
    dropout_ratio: 0.5
  }
}
layer {
  name: "conv3"
  type: "Convolution"
  bottom: "dropout2"
  top: "conv3"
  param {
    lr_mult: 1
    decay_mult: 1
  }
  param {
    lr_mult: 2
    decay_mult: 0
  }
  convolution_param {
    num_output: 192
    pad: 1
    kernel_size: 3
    weight_filler {
      type: "gaussian"
      std: 0.05
    }
    bias_filler {
      type: "constant"
      value: 0
    }
  }
}
layer {
  name: "penlu_conv3"
  type: "PENLU"
  bottom: "conv3"
  top: "penlu_conv3"
  param {
    lr_mult: 1
    decay_mult: 0
  }
  param {
    lr_mult: 1
    decay_mult: 0
  }
  param {
    lr_mult: 1
    decay_mult: 0
  }
  penlu_param {
    alpha_filler {
      type: "constant"
      value: 1
    }
    beta_filler {
      type: "constant"
      value: 1
    }
    eta_filler {
      type: "constant"
      value: 0.95
    }
  }
}
layer {
  name: "cccp5"
  type: "Convolution"
  bottom: "penlu_conv3"
  top: "cccp5"
  param {
    lr_mult: 1
    decay_mult: 1
  }
  param {
    lr_mult: 2
    decay_mult: 0
  }
  convolution_param {
    num_output: 192
    kernel_size: 1
    weight_filler {
      type: "gaussian"
      std: 0.05
    }
    bias_filler {
      type: "constant"
      value: 0
    }
  }
}
layer {
  name: "penlu_cccp5"
  type: "PENLU"
  bottom: "cccp5"
  top: "penlu_cccp5"
  param {
    lr_mult: 1
    decay_mult: 0
  }
  param {
    lr_mult: 1
    decay_mult: 0
  }
  param {
    lr_mult: 1
    decay_mult: 0
  }
  penlu_param {
    alpha_filler {
      type: "constant"
      value: 1
    }
    beta_filler {
      type: "constant"
      value: 1
    }
    eta_filler {
      type: "constant"
      value: 0.95
    }
  }
}
layer {
  name: "cccp6"
  type: "Convolution"
  bottom: "penlu_cccp5"
  top: "cccp6"
  param {
    lr_mult: 0.1
    decay_mult: 1
  }
  param {
    lr_mult: 0.1
    decay_mult: 0
  }
  convolution_param {
    num_output: 10
    kernel_size: 1
    weight_filler {
      type: "gaussian"
      std: 0.05
    }
    bias_filler {
      type: "constant"
      value: 0
    }
  }
}
layer {
  name: "penlu_cccp6"
  type: "PENLU"
  bottom: "cccp6"
  top: "penlu_cccp6"
  param {
    lr_mult: 1
    decay_mult: 0
  }
  param {
    lr_mult: 1
    decay_mult: 0
  }
  param {
    lr_mult: 1
    decay_mult: 0
  }
  penlu_param {
    alpha_filler {
      type: "constant"
      value: 1
    }
    beta_filler {
      type: "constant"
      value: 1
    }
    eta_filler {
      type: "constant"
      value: 0.95
    }
  }
}
layer {
  name: "pool3"
  type: "Pooling"
  bottom: "penlu_cccp6"
  top: "pool3"
  pooling_param {
    pool: AVE
    kernel_size: 7
    stride: 1
  }
}
layer {
  name: "accuracy"
  type: "Accuracy"
  bottom: "pool3"
  bottom: "label"
  top: "accuracy"
}
layer {
  name: "loss"
  type: "SoftmaxWithLoss"
  bottom: "pool3"
  bottom: "label"
  top: "loss"
}
I0918 12:32:10.531127 32224 layer_factory.hpp:77] Creating layer cifar
I0918 12:32:10.531244 32224 db_lmdb.cpp:35] Opened lmdb /home/x306/caffe/xn/PENLU/data/cifar10/cifar10_train_lmdb
I0918 12:32:10.531273 32224 net.cpp:84] Creating Layer cifar
I0918 12:32:10.531280 32224 net.cpp:380] cifar -> data
I0918 12:32:10.531298 32224 net.cpp:380] cifar -> label
I0918 12:32:10.531327 32224 data_transformer.cpp:25] Loading mean file from: /home/x306/caffe/xn/PENLU/data/cifar10/mean.binaryproto
I0918 12:32:10.532753 32224 data_layer.cpp:45] output data size: 64,3,28,28
I0918 12:32:10.534869 32224 net.cpp:122] Setting up cifar
I0918 12:32:10.534883 32224 net.cpp:129] Top shape: 64 3 28 28 (150528)
I0918 12:32:10.534888 32224 net.cpp:129] Top shape: 64 (64)
I0918 12:32:10.534890 32224 net.cpp:137] Memory required for data: 602368
I0918 12:32:10.534896 32224 layer_factory.hpp:77] Creating layer label_cifar_1_split
I0918 12:32:10.534906 32224 net.cpp:84] Creating Layer label_cifar_1_split
I0918 12:32:10.534911 32224 net.cpp:406] label_cifar_1_split <- label
I0918 12:32:10.534919 32224 net.cpp:380] label_cifar_1_split -> label_cifar_1_split_0
I0918 12:32:10.534926 32224 net.cpp:380] label_cifar_1_split -> label_cifar_1_split_1
I0918 12:32:10.534965 32224 net.cpp:122] Setting up label_cifar_1_split
I0918 12:32:10.534970 32224 net.cpp:129] Top shape: 64 (64)
I0918 12:32:10.534974 32224 net.cpp:129] Top shape: 64 (64)
I0918 12:32:10.534976 32224 net.cpp:137] Memory required for data: 602880
I0918 12:32:10.534978 32224 layer_factory.hpp:77] Creating layer conv1
I0918 12:32:10.534991 32224 net.cpp:84] Creating Layer conv1
I0918 12:32:10.534996 32224 net.cpp:406] conv1 <- data
I0918 12:32:10.534999 32224 net.cpp:380] conv1 -> conv1
I0918 12:32:10.682690 32224 net.cpp:122] Setting up conv1
I0918 12:32:10.682715 32224 net.cpp:129] Top shape: 64 192 28 28 (9633792)
I0918 12:32:10.682719 32224 net.cpp:137] Memory required for data: 39138048
I0918 12:32:10.682734 32224 layer_factory.hpp:77] Creating layer penlu_conv1
I0918 12:32:10.682760 32224 net.cpp:84] Creating Layer penlu_conv1
I0918 12:32:10.682762 32224 net.cpp:406] penlu_conv1 <- conv1
I0918 12:32:10.682778 32224 net.cpp:380] penlu_conv1 -> penlu_conv1
I0918 12:32:10.683004 32224 net.cpp:122] Setting up penlu_conv1
I0918 12:32:10.683010 32224 net.cpp:129] Top shape: 64 192 28 28 (9633792)
I0918 12:32:10.683013 32224 net.cpp:137] Memory required for data: 77673216
I0918 12:32:10.683019 32224 layer_factory.hpp:77] Creating layer cccp1
I0918 12:32:10.683028 32224 net.cpp:84] Creating Layer cccp1
I0918 12:32:10.683030 32224 net.cpp:406] cccp1 <- penlu_conv1
I0918 12:32:10.683044 32224 net.cpp:380] cccp1 -> cccp1
I0918 12:32:10.685027 32224 net.cpp:122] Setting up cccp1
I0918 12:32:10.685039 32224 net.cpp:129] Top shape: 64 160 28 28 (8028160)
I0918 12:32:10.685041 32224 net.cpp:137] Memory required for data: 109785856
I0918 12:32:10.685045 32224 layer_factory.hpp:77] Creating layer penlu_cccp1
I0918 12:32:10.685051 32224 net.cpp:84] Creating Layer penlu_cccp1
I0918 12:32:10.685053 32224 net.cpp:406] penlu_cccp1 <- cccp1
I0918 12:32:10.685060 32224 net.cpp:380] penlu_cccp1 -> penlu_cccp1
I0918 12:32:10.685259 32224 net.cpp:122] Setting up penlu_cccp1
I0918 12:32:10.685266 32224 net.cpp:129] Top shape: 64 160 28 28 (8028160)
I0918 12:32:10.685268 32224 net.cpp:137] Memory required for data: 141898496
I0918 12:32:10.685274 32224 layer_factory.hpp:77] Creating layer cccp2
I0918 12:32:10.685281 32224 net.cpp:84] Creating Layer cccp2
I0918 12:32:10.685284 32224 net.cpp:406] cccp2 <- penlu_cccp1
I0918 12:32:10.685300 32224 net.cpp:380] cccp2 -> cccp2
I0918 12:32:10.686426 32224 net.cpp:122] Setting up cccp2
I0918 12:32:10.686437 32224 net.cpp:129] Top shape: 64 96 28 28 (4816896)
I0918 12:32:10.686439 32224 net.cpp:137] Memory required for data: 161166080
I0918 12:32:10.686444 32224 layer_factory.hpp:77] Creating layer penlu_cccp2
I0918 12:32:10.686450 32224 net.cpp:84] Creating Layer penlu_cccp2
I0918 12:32:10.686453 32224 net.cpp:406] penlu_cccp2 <- cccp2
I0918 12:32:10.686470 32224 net.cpp:380] penlu_cccp2 -> penlu_cccp2
I0918 12:32:10.686630 32224 net.cpp:122] Setting up penlu_cccp2
I0918 12:32:10.686637 32224 net.cpp:129] Top shape: 64 96 28 28 (4816896)
I0918 12:32:10.686640 32224 net.cpp:137] Memory required for data: 180433664
I0918 12:32:10.686643 32224 layer_factory.hpp:77] Creating layer pool1
I0918 12:32:10.686650 32224 net.cpp:84] Creating Layer pool1
I0918 12:32:10.686653 32224 net.cpp:406] pool1 <- penlu_cccp2
I0918 12:32:10.686658 32224 net.cpp:380] pool1 -> pool1
I0918 12:32:10.686712 32224 net.cpp:122] Setting up pool1
I0918 12:32:10.686717 32224 net.cpp:129] Top shape: 64 96 14 14 (1204224)
I0918 12:32:10.686719 32224 net.cpp:137] Memory required for data: 185250560
I0918 12:32:10.686722 32224 layer_factory.hpp:77] Creating layer dropout1
I0918 12:32:10.686725 32224 net.cpp:84] Creating Layer dropout1
I0918 12:32:10.686728 32224 net.cpp:406] dropout1 <- pool1
I0918 12:32:10.686731 32224 net.cpp:380] dropout1 -> dropout1
I0918 12:32:10.686779 32224 net.cpp:122] Setting up dropout1
I0918 12:32:10.686785 32224 net.cpp:129] Top shape: 64 96 14 14 (1204224)
I0918 12:32:10.686797 32224 net.cpp:137] Memory required for data: 190067456
I0918 12:32:10.686800 32224 layer_factory.hpp:77] Creating layer conv2
I0918 12:32:10.686806 32224 net.cpp:84] Creating Layer conv2
I0918 12:32:10.686820 32224 net.cpp:406] conv2 <- dropout1
I0918 12:32:10.686836 32224 net.cpp:380] conv2 -> conv2
I0918 12:32:10.698673 32224 net.cpp:122] Setting up conv2
I0918 12:32:10.698688 32224 net.cpp:129] Top shape: 64 192 14 14 (2408448)
I0918 12:32:10.698691 32224 net.cpp:137] Memory required for data: 199701248
I0918 12:32:10.698700 32224 layer_factory.hpp:77] Creating layer penlu_conv2
I0918 12:32:10.698709 32224 net.cpp:84] Creating Layer penlu_conv2
I0918 12:32:10.698714 32224 net.cpp:406] penlu_conv2 <- conv2
I0918 12:32:10.698732 32224 net.cpp:380] penlu_conv2 -> penlu_conv2
I0918 12:32:10.698922 32224 net.cpp:122] Setting up penlu_conv2
I0918 12:32:10.698928 32224 net.cpp:129] Top shape: 64 192 14 14 (2408448)
I0918 12:32:10.698931 32224 net.cpp:137] Memory required for data: 209335040
I0918 12:32:10.698936 32224 layer_factory.hpp:77] Creating layer cccp3
I0918 12:32:10.698943 32224 net.cpp:84] Creating Layer cccp3
I0918 12:32:10.698947 32224 net.cpp:406] cccp3 <- penlu_conv2
I0918 12:32:10.698963 32224 net.cpp:380] cccp3 -> cccp3
I0918 12:32:10.700565 32224 net.cpp:122] Setting up cccp3
I0918 12:32:10.700575 32224 net.cpp:129] Top shape: 64 192 14 14 (2408448)
I0918 12:32:10.700578 32224 net.cpp:137] Memory required for data: 218968832
I0918 12:32:10.700582 32224 layer_factory.hpp:77] Creating layer penlu_cccp3
I0918 12:32:10.700589 32224 net.cpp:84] Creating Layer penlu_cccp3
I0918 12:32:10.700614 32224 net.cpp:406] penlu_cccp3 <- cccp3
I0918 12:32:10.700623 32224 net.cpp:380] penlu_cccp3 -> penlu_cccp3
I0918 12:32:10.700762 32224 net.cpp:122] Setting up penlu_cccp3
I0918 12:32:10.700767 32224 net.cpp:129] Top shape: 64 192 14 14 (2408448)
I0918 12:32:10.700770 32224 net.cpp:137] Memory required for data: 228602624
I0918 12:32:10.700774 32224 layer_factory.hpp:77] Creating layer cccp4
I0918 12:32:10.700781 32224 net.cpp:84] Creating Layer cccp4
I0918 12:32:10.700784 32224 net.cpp:406] cccp4 <- penlu_cccp3
I0918 12:32:10.700800 32224 net.cpp:380] cccp4 -> cccp4
I0918 12:32:10.702445 32224 net.cpp:122] Setting up cccp4
I0918 12:32:10.702455 32224 net.cpp:129] Top shape: 64 192 14 14 (2408448)
I0918 12:32:10.702457 32224 net.cpp:137] Memory required for data: 238236416
I0918 12:32:10.702462 32224 layer_factory.hpp:77] Creating layer penlu_cccp4
I0918 12:32:10.702468 32224 net.cpp:84] Creating Layer penlu_cccp4
I0918 12:32:10.702472 32224 net.cpp:406] penlu_cccp4 <- cccp4
I0918 12:32:10.702489 32224 net.cpp:380] penlu_cccp4 -> penlu_cccp4
I0918 12:32:10.702626 32224 net.cpp:122] Setting up penlu_cccp4
I0918 12:32:10.702632 32224 net.cpp:129] Top shape: 64 192 14 14 (2408448)
I0918 12:32:10.702635 32224 net.cpp:137] Memory required for data: 247870208
I0918 12:32:10.702639 32224 layer_factory.hpp:77] Creating layer pool2
I0918 12:32:10.702646 32224 net.cpp:84] Creating Layer pool2
I0918 12:32:10.702648 32224 net.cpp:406] pool2 <- penlu_cccp4
I0918 12:32:10.702653 32224 net.cpp:380] pool2 -> pool2
I0918 12:32:10.702808 32224 net.cpp:122] Setting up pool2
I0918 12:32:10.702816 32224 net.cpp:129] Top shape: 64 192 7 7 (602112)
I0918 12:32:10.702819 32224 net.cpp:137] Memory required for data: 250278656
I0918 12:32:10.702821 32224 layer_factory.hpp:77] Creating layer dropout2
I0918 12:32:10.702826 32224 net.cpp:84] Creating Layer dropout2
I0918 12:32:10.702828 32224 net.cpp:406] dropout2 <- pool2
I0918 12:32:10.702832 32224 net.cpp:380] dropout2 -> dropout2
I0918 12:32:10.702878 32224 net.cpp:122] Setting up dropout2
I0918 12:32:10.702883 32224 net.cpp:129] Top shape: 64 192 7 7 (602112)
I0918 12:32:10.702885 32224 net.cpp:137] Memory required for data: 252687104
I0918 12:32:10.702888 32224 layer_factory.hpp:77] Creating layer conv3
I0918 12:32:10.702894 32224 net.cpp:84] Creating Layer conv3
I0918 12:32:10.702896 32224 net.cpp:406] conv3 <- dropout2
I0918 12:32:10.702903 32224 net.cpp:380] conv3 -> conv3
I0918 12:32:10.711856 32224 net.cpp:122] Setting up conv3
I0918 12:32:10.711870 32224 net.cpp:129] Top shape: 64 192 7 7 (602112)
I0918 12:32:10.711872 32224 net.cpp:137] Memory required for data: 255095552
I0918 12:32:10.711879 32224 layer_factory.hpp:77] Creating layer penlu_conv3
I0918 12:32:10.711887 32224 net.cpp:84] Creating Layer penlu_conv3
I0918 12:32:10.711892 32224 net.cpp:406] penlu_conv3 <- conv3
I0918 12:32:10.711910 32224 net.cpp:380] penlu_conv3 -> penlu_conv3
I0918 12:32:10.712081 32224 net.cpp:122] Setting up penlu_conv3
I0918 12:32:10.712088 32224 net.cpp:129] Top shape: 64 192 7 7 (602112)
I0918 12:32:10.712091 32224 net.cpp:137] Memory required for data: 257504000
I0918 12:32:10.712100 32224 layer_factory.hpp:77] Creating layer cccp5
I0918 12:32:10.712108 32224 net.cpp:84] Creating Layer cccp5
I0918 12:32:10.712122 32224 net.cpp:406] cccp5 <- penlu_conv3
I0918 12:32:10.712131 32224 net.cpp:380] cccp5 -> cccp5
I0918 12:32:10.713764 32224 net.cpp:122] Setting up cccp5
I0918 12:32:10.713774 32224 net.cpp:129] Top shape: 64 192 7 7 (602112)
I0918 12:32:10.713778 32224 net.cpp:137] Memory required for data: 259912448
I0918 12:32:10.713783 32224 layer_factory.hpp:77] Creating layer penlu_cccp5
I0918 12:32:10.713788 32224 net.cpp:84] Creating Layer penlu_cccp5
I0918 12:32:10.713791 32224 net.cpp:406] penlu_cccp5 <- cccp5
I0918 12:32:10.713810 32224 net.cpp:380] penlu_cccp5 -> penlu_cccp5
I0918 12:32:10.713937 32224 net.cpp:122] Setting up penlu_cccp5
I0918 12:32:10.713943 32224 net.cpp:129] Top shape: 64 192 7 7 (602112)
I0918 12:32:10.713945 32224 net.cpp:137] Memory required for data: 262320896
I0918 12:32:10.713959 32224 layer_factory.hpp:77] Creating layer cccp6
I0918 12:32:10.713979 32224 net.cpp:84] Creating Layer cccp6
I0918 12:32:10.713984 32224 net.cpp:406] cccp6 <- penlu_cccp5
I0918 12:32:10.713989 32224 net.cpp:380] cccp6 -> cccp6
I0918 12:32:10.714892 32224 net.cpp:122] Setting up cccp6
I0918 12:32:10.714902 32224 net.cpp:129] Top shape: 64 10 7 7 (31360)
I0918 12:32:10.714905 32224 net.cpp:137] Memory required for data: 262446336
I0918 12:32:10.714910 32224 layer_factory.hpp:77] Creating layer penlu_cccp6
I0918 12:32:10.714915 32224 net.cpp:84] Creating Layer penlu_cccp6
I0918 12:32:10.714918 32224 net.cpp:406] penlu_cccp6 <- cccp6
I0918 12:32:10.714933 32224 net.cpp:380] penlu_cccp6 -> penlu_cccp6
I0918 12:32:10.715070 32224 net.cpp:122] Setting up penlu_cccp6
I0918 12:32:10.715075 32224 net.cpp:129] Top shape: 64 10 7 7 (31360)
I0918 12:32:10.715076 32224 net.cpp:137] Memory required for data: 262571776
I0918 12:32:10.715080 32224 layer_factory.hpp:77] Creating layer pool3
I0918 12:32:10.715086 32224 net.cpp:84] Creating Layer pool3
I0918 12:32:10.715101 32224 net.cpp:406] pool3 <- penlu_cccp6
I0918 12:32:10.715104 32224 net.cpp:380] pool3 -> pool3
I0918 12:32:10.715284 32224 net.cpp:122] Setting up pool3
I0918 12:32:10.715292 32224 net.cpp:129] Top shape: 64 10 1 1 (640)
I0918 12:32:10.715294 32224 net.cpp:137] Memory required for data: 262574336
I0918 12:32:10.715296 32224 layer_factory.hpp:77] Creating layer pool3_pool3_0_split
I0918 12:32:10.715301 32224 net.cpp:84] Creating Layer pool3_pool3_0_split
I0918 12:32:10.715302 32224 net.cpp:406] pool3_pool3_0_split <- pool3
I0918 12:32:10.715306 32224 net.cpp:380] pool3_pool3_0_split -> pool3_pool3_0_split_0
I0918 12:32:10.715322 32224 net.cpp:380] pool3_pool3_0_split -> pool3_pool3_0_split_1
I0918 12:32:10.715371 32224 net.cpp:122] Setting up pool3_pool3_0_split
I0918 12:32:10.715378 32224 net.cpp:129] Top shape: 64 10 1 1 (640)
I0918 12:32:10.715389 32224 net.cpp:129] Top shape: 64 10 1 1 (640)
I0918 12:32:10.715391 32224 net.cpp:137] Memory required for data: 262579456
I0918 12:32:10.715395 32224 layer_factory.hpp:77] Creating layer accuracy
I0918 12:32:10.715416 32224 net.cpp:84] Creating Layer accuracy
I0918 12:32:10.715420 32224 net.cpp:406] accuracy <- pool3_pool3_0_split_0
I0918 12:32:10.715425 32224 net.cpp:406] accuracy <- label_cifar_1_split_0
I0918 12:32:10.715430 32224 net.cpp:380] accuracy -> accuracy
…
I0918 12:32:10.716480 32224 net.cpp:294] The NetState phase (1) differed from the phase (0) specified by a rule in layer cifar
I0918 12:32:10.716655 32224 net.cpp:51] Initializing net from parameters: 
name: "nin"
state {
  phase: TEST
}
layer {
  name: "cifar"
  type: "Data"
  top: "data"
  top: "label"
  include {
    phase: TEST
  }
  transform_param {
    mirror: false
    crop_size: 28
    mean_file: "/home/x306/caffe/xn/PENLU/data/cifar10/mean.binaryproto"
  }
  data_param {
    source: "/home/x306/caffe/xn/PENLU/data/cifar10/cifar10_test_lmdb"
    batch_size: 50
    backend: LMDB
  }
}
layer {
  name: "conv1"
  type: "Convolution"
  bottom: "data"
  top: "conv1"
  param {
    lr_mult: 1
    decay_mult: 1
  }
  param {
    lr_mult: 2
    decay_mult: 0
  }
  convolution_param {
    num_output: 192
    pad: 2
    kernel_size: 5
    weight_filler {
      type: "gaussian"
      std: 0.05
    }
    bias_filler {
      type: "constant"
      value: 0
    }
  }
}
layer {
  name: "penlu_conv1"
  type: "PENLU"
  bottom: "conv1"
  top: "penlu_conv1"
  param {
    lr_mult: 1
    decay_mult: 0
  }
  param {
    lr_mult: 1
    decay_mult: 0
  }
  param {
    lr_mult: 1
    decay_mult: 0
  }
  penlu_param {
    alpha_filler {
      type: "constant"
      value: 1
    }
    beta_filler {
      type: "constant"
      value: 1
    }
    eta_filler {
      type: "constant"
      value: 0.95
    }
  }
}
layer {
  name: "cccp1"
  type: "Convolution"
  bottom: "penlu_conv1"
  top: "cccp1"
  param {
    lr_mult: 1
    decay_mult: 1
  }
  param {
    lr_mult: 2
    decay_mult: 0
  }
  convolution_param {
    num_output: 160
    kernel_size: 1
    weight_filler {
      type: "gaussian"
      std: 0.05
    }
    bias_filler {
      type: "constant"
      value: 0
    }
  }
}
layer {
  name: "penlu_cccp1"
  type: "PENLU"
  bottom: "cccp1"
  top: "penlu_cccp1"
  param {
    lr_mult: 1
    decay_mult: 0
  }
  param {
    lr_mult: 1
    decay_mult: 0
  }
  param {
    lr_mult: 1
    decay_mult: 0
  }
  penlu_param {
    alpha_filler {
      type: "constant"
      value: 1
    }
    beta_filler {
      type: "constant"
      value: 1
    }
    eta_filler {
      type: "constant"
      value: 0.95
    }
  }
}
layer {
  name: "cccp2"
  type: "Convolution"
  bottom: "penlu_cccp1"
  top: "cccp2"
  param {
    lr_mult: 1
    decay_mult: 1
  }
  param {
    lr_mult: 2
    decay_mult: 0
  }
  convolution_param {
    num_output: 96
    kernel_size: 1
    weight_filler {
      type: "gaussian"
      std: 0.05
    }
    bias_filler {
      type: "constant"
      value: 0
    }
  }
}
layer {
  name: "penlu_cccp2"
  type: "PENLU"
  bottom: "cccp2"
  top: "penlu_cccp2"
  param {
    lr_mult: 1
    decay_mult: 0
  }
  param {
    lr_mult: 1
    decay_mult: 0
  }
  param {
    lr_mult: 1
    decay_mult: 0
  }
  penlu_param {
    alpha_filler {
      type: "constant"
      value: 1
    }
    beta_filler {
      type: "constant"
      value: 1
    }
    eta_filler {
      type: "constant"
      value: 0.95
    }
  }
}
layer {
  name: "pool1"
  type: "Pooling"
  bottom: "penlu_cccp2"
  top: "pool1"
  pooling_param {
    pool: MAX
    kernel_size: 3
    stride: 2
  }
}
layer {
  name: "dropout1"
  type: "Dropout"
  bottom: "pool1"
  top: "dropout1"
  dropout_param {
    dropout_ratio: 0.5
  }
}
layer {
  name: "conv2"
  type: "Convolution"
  bottom: "dropout1"
  top: "conv2"
  param {
    lr_mult: 1
    decay_mult: 1
  }
  param {
    lr_mult: 2
    decay_mult: 0
  }
  convolution_param {
    num_output: 192
    pad: 2
    kernel_size: 5
    weight_filler {
      type: "gaussian"
      std: 0.05
    }
    bias_filler {
      type: "constant"
      value: 0
    }
  }
}
layer {
  name: "penlu_conv2"
  type: "PENLU"
  bottom: "conv2"
  top: "penlu_conv2"
  param {
    lr_mult: 1
    decay_mult: 0
  }
  param {
    lr_mult: 1
    decay_mult: 0
  }
  param {
    lr_mult: 1
    decay_mult: 0
  }
  penlu_param {
    alpha_filler {
      type: "constant"
      value: 1
    }
    beta_filler {
      type: "constant"
      value: 1
    }
    eta_filler {
      type: "constant"
      value: 0.95
    }
  }
}
layer {
  name: "cccp3"
  type: "Convolution"
  bottom: "penlu_conv2"
  top: "cccp3"
  param {
    lr_mult: 1
    decay_mult: 1
  }
  param {
    lr_mult: 2
    decay_mult: 0
  }
  convolution_param {
    num_output: 192
    kernel_size: 1
    weight_filler {
      type: "gaussian"
      std: 0.05
    }
    bias_filler {
      type: "constant"
      value: 0
    }
  }
}
layer {
  name: "penlu_cccp3"
  type: "PENLU"
  bottom: "cccp3"
  top: "penlu_cccp3"
  param {
    lr_mult: 1
    decay_mult: 0
  }
  param {
    lr_mult: 1
    decay_mult: 0
  }
  param {
    lr_mult: 1
    decay_mult: 0
  }
  penlu_param {
    alpha_filler {
      type: "constant"
      value: 1
    }
    beta_filler {
      type: "constant"
      value: 1
    }
    eta_filler {
      type: "constant"
      value: 0.95
    }
  }
}
layer {
  name: "cccp4"
  type: "Convolution"
  bottom: "penlu_cccp3"
  top: "cccp4"
  param {
    lr_mult: 1
    decay_mult: 1
  }
  param {
    lr_mult: 2
    decay_mult: 0
  }
  convolution_param {
    num_output: 192
    kernel_size: 1
    weight_filler {
      type: "gaussian"
      std: 0.05
    }
    bias_filler {
      type: "constant"
      value: 0
    }
  }
}
layer {
  name: "penlu_cccp4"
  type: "PENLU"
  bottom: "cccp4"
  top: "penlu_cccp4"
  param {
    lr_mult: 1
    decay_mult: 0
  }
  param {
    lr_mult: 1
    decay_mult: 0
  }
  param {
    lr_mult: 1
    decay_mult: 0
  }
  penlu_param {
    alpha_filler {
      type: "constant"
      value: 1
    }
    beta_filler {
      type: "constant"
      value: 1
    }
    eta_filler {
      type: "constant"
      value: 0.95
    }
  }
}
layer {
  name: "pool2"
  type: "Pooling"
  bottom: "penlu_cccp4"
  top: "pool2"
  pooling_param {
    pool: AVE
    kernel_size: 3
    stride: 2
  }
}
layer {
  name: "dropout2"
  type: "Dropout"
  bottom: "pool2"
  top: "dropout2"
  dropout_param {
    dropout_ratio: 0.5
  }
}
layer {
  name: "conv3"
  type: "Convolution"
  bottom: "dropout2"
  top: "conv3"
  param {
    lr_mult: 1
    decay_mult: 1
  }
  param {
    lr_mult: 2
    decay_mult: 0
  }
  convolution_param {
    num_output: 192
    pad: 1
    kernel_size: 3
    weight_filler {
      type: "gaussian"
      std: 0.05
    }
    bias_filler {
      type: "constant"
      value: 0
    }
  }
}
layer {
  name: "penlu_conv3"
  type: "PENLU"
  bottom: "conv3"
  top: "penlu_conv3"
  param {
    lr_mult: 1
    decay_mult: 0
  }
  param {
    lr_mult: 1
    decay_mult: 0
  }
  param {
    lr_mult: 1
    decay_mult: 0
  }
  penlu_param {
    alpha_filler {
      type: "constant"
      value: 1
    }
    beta_filler {
      type: "constant"
      value: 1
    }
    eta_filler {
      type: "constant"
      value: 0.95
    }
  }
}
layer {
  name: "cccp5"
  type: "Convolution"
  bottom: "penlu_conv3"
  top: "cccp5"
  param {
    lr_mult: 1
    decay_mult: 1
  }
  param {
    lr_mult: 2
    decay_mult: 0
  }
  convolution_param {
    num_output: 192
    kernel_size: 1
    weight_filler {
      type: "gaussian"
      std: 0.05
    }
    bias_filler {
      type: "constant"
      value: 0
    }
  }
}
layer {
  name: "penlu_cccp5"
  type: "PENLU"
  bottom: "cccp5"
  top: "penlu_cccp5"
  param {
    lr_mult: 1
    decay_mult: 0
  }
  param {
    lr_mult: 1
    decay_mult: 0
  }
  param {
    lr_mult: 1
    decay_mult: 0
  }
  penlu_param {
    alpha_filler {
      type: "constant"
      value: 1
    }
    beta_filler {
      type: "constant"
      value: 1
    }
    eta_filler {
      type: "constant"
      value: 0.95
    }
  }
}
layer {
  name: "cccp6"
  type: "Convolution"
  bottom: "penlu_cccp5"
  top: "cccp6"
  param {
    lr_mult: 0.1
    decay_mult: 1
  }
  param {
    lr_mult: 0.1
    decay_mult: 0
  }
  convolution_param {
    num_output: 10
    kernel_size: 1
    weight_filler {
      type: "gaussian"
      std: 0.05
    }
    bias_filler {
      type: "constant"
      value: 0
    }
  }
}
layer {
  name: "penlu_cccp6"
  type: "PENLU"
  bottom: "cccp6"
  top: "penlu_cccp6"
  param {
    lr_mult: 1
    decay_mult: 0
  }
  param {
    lr_mult: 1
    decay_mult: 0
  }
  param {
    lr_mult: 1
    decay_mult: 0
  }
  penlu_param {
    alpha_filler {
      type: "constant"
      value: 1
    }
    beta_filler {
      type: "constant"
      value: 1
    }
    eta_filler {
      type: "constant"
      value: 0.95
    }
  }
}
layer {
  name: "pool3"
  type: "Pooling"
  bottom: "penlu_cccp6"
  top: "pool3"
  pooling_param {
    pool: AVE
    kernel_size: 7
    stride: 1
  }
}
layer {
  name: "accuracy"
  type: "Accuracy"
  bottom: "pool3"
  bottom: "label"
  top: "accuracy"
}
layer {
  name: "loss"
  type: "SoftmaxWithLoss"
  bottom: "pool3"
  bottom: "label"
  top: "loss"
}
I0918 12:32:10.716794 32224 layer_factory.hpp:77] Creating layer cifar
I0918 12:32:10.716840 32224 db_lmdb.cpp:35] Opened lmdb /home/x306/caffe/xn/PENLU/data/cifar10/cifar10_test_lmdb
I0918 12:32:10.716853 32224 net.cpp:84] Creating Layer cifar
I0918 12:32:10.716859 32224 net.cpp:380] cifar -> data
I0918 12:32:10.716868 32224 net.cpp:380] cifar -> label
I0918 12:32:10.716876 32224 data_transformer.cpp:25] Loading mean file from: /home/x306/caffe/xn/PENLU/data/cifar10/mean.binaryproto
I0918 12:32:10.717010 32224 data_layer.cpp:45] output data size: 50,3,28,28
I0918 12:32:10.718014 32224 net.cpp:122] Setting up cifar
I0918 12:32:10.718034 32224 net.cpp:129] Top shape: 50 3 28 28 (117600)
I0918 12:32:10.718049 32224 net.cpp:129] Top shape: 50 (50)
I0918 12:32:10.718050 32224 net.cpp:137] Memory required for data: 470600
I0918 12:32:10.718053 32224 layer_factory.hpp:77] Creating layer label_cifar_1_split
I0918 12:32:10.718060 32224 net.cpp:84] Creating Layer label_cifar_1_split
I0918 12:32:10.718065 32224 net.cpp:406] label_cifar_1_split <- label
I0918 12:32:10.718071 32224 net.cpp:380] label_cifar_1_split -> label_cifar_1_split_0
I0918 12:32:10.718078 32224 net.cpp:380] label_cifar_1_split -> label_cifar_1_split_1
I0918 12:32:10.718149 32224 net.cpp:122] Setting up label_cifar_1_split
I0918 12:32:10.718155 32224 net.cpp:129] Top shape: 50 (50)
I0918 12:32:10.718168 32224 net.cpp:129] Top shape: 50 (50)
I0918 12:32:10.718170 32224 net.cpp:137] Memory required for data: 471000
I0918 12:32:10.718173 32224 layer_factory.hpp:77] Creating layer conv1
I0918 12:32:10.718186 32224 net.cpp:84] Creating Layer conv1
I0918 12:32:10.718206 32224 net.cpp:406] conv1 <- data
I0918 12:32:10.718221 32224 net.cpp:380] conv1 -> conv1
I0918 12:32:10.719612 32224 net.cpp:122] Setting up conv1
I0918 12:32:10.719622 32224 net.cpp:129] Top shape: 50 192 28 28 (7526400)
I0918 12:32:10.719635 32224 net.cpp:137] Memory required for data: 30576600
I0918 12:32:10.719645 32224 layer_factory.hpp:77] Creating layer penlu_conv1
I0918 12:32:10.719652 32224 net.cpp:84] Creating Layer penlu_conv1
I0918 12:32:10.719655 32224 net.cpp:406] penlu_conv1 <- conv1
I0918 12:32:10.719660 32224 net.cpp:380] penlu_conv1 -> penlu_conv1
I0918 12:32:10.719846 32224 net.cpp:122] Setting up penlu_conv1
I0918 12:32:10.719853 32224 net.cpp:129] Top shape: 50 192 28 28 (7526400)
I0918 12:32:10.719856 32224 net.cpp:137] Memory required for data: 60682200
I0918 12:32:10.719863 32224 layer_factory.hpp:77] Creating layer cccp1
I0918 12:32:10.719869 32224 net.cpp:84] Creating Layer cccp1
I0918 12:32:10.719873 32224 net.cpp:406] cccp1 <- penlu_conv1
I0918 12:32:10.719877 32224 net.cpp:380] cccp1 -> cccp1
I0918 12:32:10.721484 32224 net.cpp:122] Setting up cccp1
I0918 12:32:10.721495 32224 net.cpp:129] Top shape: 50 160 28 28 (6272000)
I0918 12:32:10.721500 32224 net.cpp:137] Memory required for data: 85770200
I0918 12:32:10.721505 32224 layer_factory.hpp:77] Creating layer penlu_cccp1
I0918 12:32:10.721511 32224 net.cpp:84] Creating Layer penlu_cccp1
I0918 12:32:10.721514 32224 net.cpp:406] penlu_cccp1 <- cccp1
I0918 12:32:10.721519 32224 net.cpp:380] penlu_cccp1 -> penlu_cccp1
I0918 12:32:10.722201 32224 net.cpp:122] Setting up penlu_cccp1
I0918 12:32:10.722211 32224 net.cpp:129] Top shape: 50 160 28 28 (6272000)
I0918 12:32:10.722215 32224 net.cpp:137] Memory required for data: 110858200
I0918 12:32:10.722223 32224 layer_factory.hpp:77] Creating layer cccp2
I0918 12:32:10.722241 32224 net.cpp:84] Creating Layer cccp2
I0918 12:32:10.722244 32224 net.cpp:406] cccp2 <- penlu_cccp1
I0918 12:32:10.722247 32224 net.cpp:380] cccp2 -> cccp2
I0918 12:32:10.723628 32224 net.cpp:122] Setting up cccp2
I0918 12:32:10.723640 32224 net.cpp:129] Top shape: 50 96 28 28 (3763200)
I0918 12:32:10.723652 32224 net.cpp:137] Memory required for data: 125911000
I0918 12:32:10.723657 32224 layer_factory.hpp:77] Creating layer penlu_cccp2
I0918 12:32:10.723664 32224 net.cpp:84] Creating Layer penlu_cccp2
I0918 12:32:10.723668 32224 net.cpp:406] penlu_cccp2 <- cccp2
I0918 12:32:10.723672 32224 net.cpp:380] penlu_cccp2 -> penlu_cccp2
I0918 12:32:10.723824 32224 net.cpp:122] Setting up penlu_cccp2
I0918 12:32:10.723831 32224 net.cpp:129] Top shape: 50 96 28 28 (3763200)
I0918 12:32:10.723834 32224 net.cpp:137] Memory required for data: 140963800
I0918 12:32:10.723848 32224 layer_factory.hpp:77] Creating layer pool1
I0918 12:32:10.723855 32224 net.cpp:84] Creating Layer pool1
I0918 12:32:10.723858 32224 net.cpp:406] pool1 <- penlu_cccp2
I0918 12:32:10.723862 32224 net.cpp:380] pool1 -> pool1
I0918 12:32:10.723891 32224 net.cpp:122] Setting up pool1
I0918 12:32:10.723896 32224 net.cpp:129] Top shape: 50 96 14 14 (940800)
I0918 12:32:10.723898 32224 net.cpp:137] Memory required for data: 144727000
I0918 12:32:10.723901 32224 layer_factory.hpp:77] Creating layer dropout1
I0918 12:32:10.723904 32224 net.cpp:84] Creating Layer dropout1
I0918 12:32:10.723907 32224 net.cpp:406] dropout1 <- pool1
I0918 12:32:10.723911 32224 net.cpp:380] dropout1 -> dropout1
I0918 12:32:10.723937 32224 net.cpp:122] Setting up dropout1
I0918 12:32:10.723942 32224 net.cpp:129] Top shape: 50 96 14 14 (940800)
I0918 12:32:10.723944 32224 net.cpp:137] Memory required for data: 148490200
I0918 12:32:10.723947 32224 layer_factory.hpp:77] Creating layer conv2
I0918 12:32:10.723954 32224 net.cpp:84] Creating Layer conv2
I0918 12:32:10.723958 32224 net.cpp:406] conv2 <- dropout1
I0918 12:32:10.723963 32224 net.cpp:380] conv2 -> conv2
I0918 12:32:10.735415 32224 net.cpp:122] Setting up conv2
I0918 12:32:10.735438 32224 net.cpp:129] Top shape: 50 192 14 14 (1881600)
I0918 12:32:10.735441 32224 net.cpp:137] Memory required for data: 156016600
I0918 12:32:10.735450 32224 layer_factory.hpp:77] Creating layer penlu_conv2
I0918 12:32:10.735477 32224 net.cpp:84] Creating Layer penlu_conv2
I0918 12:32:10.735481 32224 net.cpp:406] penlu_conv2 <- conv2
I0918 12:32:10.735487 32224 net.cpp:380] penlu_conv2 -> penlu_conv2
I0918 12:32:10.735635 32224 net.cpp:122] Setting up penlu_conv2
I0918 12:32:10.735641 32224 net.cpp:129] Top shape: 50 192 14 14 (1881600)
I0918 12:32:10.735644 32224 net.cpp:137] Memory required for data: 163543000
I0918 12:32:10.735648 32224 layer_factory.hpp:77] Creating layer cccp3
I0918 12:32:10.735656 32224 net.cpp:84] Creating Layer cccp3
I0918 12:32:10.735659 32224 net.cpp:406] cccp3 <- penlu_conv2
I0918 12:32:10.735663 32224 net.cpp:380] cccp3 -> cccp3
I0918 12:32:10.737313 32224 net.cpp:122] Setting up cccp3
I0918 12:32:10.737321 32224 net.cpp:129] Top shape: 50 192 14 14 (1881600)
I0918 12:32:10.737324 32224 net.cpp:137] Memory required for data: 171069400
I0918 12:32:10.737329 32224 layer_factory.hpp:77] Creating layer penlu_cccp3
I0918 12:32:10.737334 32224 net.cpp:84] Creating Layer penlu_cccp3
I0918 12:32:10.737337 32224 net.cpp:406] penlu_cccp3 <- cccp3
I0918 12:32:10.737341 32224 net.cpp:380] penlu_cccp3 -> penlu_cccp3
I0918 12:32:10.737470 32224 net.cpp:122] Setting up penlu_cccp3
I0918 12:32:10.737474 32224 net.cpp:129] Top shape: 50 192 14 14 (1881600)
I0918 12:32:10.737476 32224 net.cpp:137] Memory required for data: 178595800
I0918 12:32:10.737481 32224 layer_factory.hpp:77] Creating layer cccp4
I0918 12:32:10.737488 32224 net.cpp:84] Creating Layer cccp4
I0918 12:32:10.737489 32224 net.cpp:406] cccp4 <- penlu_cccp3
I0918 12:32:10.737493 32224 net.cpp:380] cccp4 -> cccp4
I0918 12:32:10.739118 32224 net.cpp:122] Setting up cccp4
I0918 12:32:10.739127 32224 net.cpp:129] Top shape: 50 192 14 14 (1881600)
I0918 12:32:10.739130 32224 net.cpp:137] Memory required for data: 186122200
I0918 12:32:10.739135 32224 layer_factory.hpp:77] Creating layer penlu_cccp4
I0918 12:32:10.739140 32224 net.cpp:84] Creating Layer penlu_cccp4
I0918 12:32:10.739143 32224 net.cpp:406] penlu_cccp4 <- cccp4
I0918 12:32:10.739147 32224 net.cpp:380] penlu_cccp4 -> penlu_cccp4
I0918 12:32:10.739277 32224 net.cpp:122] Setting up penlu_cccp4
I0918 12:32:10.739282 32224 net.cpp:129] Top shape: 50 192 14 14 (1881600)
I0918 12:32:10.739284 32224 net.cpp:137] Memory required for data: 193648600
I0918 12:32:10.739289 32224 layer_factory.hpp:77] Creating layer pool2
I0918 12:32:10.739295 32224 net.cpp:84] Creating Layer pool2
I0918 12:32:10.739298 32224 net.cpp:406] pool2 <- penlu_cccp4
I0918 12:32:10.739301 32224 net.cpp:380] pool2 -> pool2
I0918 12:32:10.739429 32224 net.cpp:122] Setting up pool2
I0918 12:32:10.739435 32224 net.cpp:129] Top shape: 50 192 7 7 (470400)
I0918 12:32:10.739437 32224 net.cpp:137] Memory required for data: 195530200
I0918 12:32:10.739440 32224 layer_factory.hpp:77] Creating layer dropout2
I0918 12:32:10.739444 32224 net.cpp:84] Creating Layer dropout2
I0918 12:32:10.739446 32224 net.cpp:406] dropout2 <- pool2
I0918 12:32:10.739450 32224 net.cpp:380] dropout2 -> dropout2
I0918 12:32:10.739475 32224 net.cpp:122] Setting up dropout2
I0918 12:32:10.739477 32224 net.cpp:129] Top shape: 50 192 7 7 (470400)
I0918 12:32:10.739480 32224 net.cpp:137] Memory required for data: 197411800
I0918 12:32:10.739482 32224 layer_factory.hpp:77] Creating layer conv3
I0918 12:32:10.739488 32224 net.cpp:84] Creating Layer conv3
I0918 12:32:10.739491 32224 net.cpp:406] conv3 <- dropout2
I0918 12:32:10.739495 32224 net.cpp:380] conv3 -> conv3
I0918 12:32:10.748765 32224 net.cpp:122] Setting up conv3
I0918 12:32:10.748780 32224 net.cpp:129] Top shape: 50 192 7 7 (470400)
I0918 12:32:10.748783 32224 net.cpp:137] Memory required for data: 199293400
I0918 12:32:10.748788 32224 layer_factory.hpp:77] Creating layer penlu_conv3
I0918 12:32:10.748809 32224 net.cpp:84] Creating Layer penlu_conv3
I0918 12:32:10.748814 32224 net.cpp:406] penlu_conv3 <- conv3
I0918 12:32:10.748821 32224 net.cpp:380] penlu_conv3 -> penlu_conv3
I0918 12:32:10.748957 32224 net.cpp:122] Setting up penlu_conv3
I0918 12:32:10.748972 32224 net.cpp:129] Top shape: 50 192 7 7 (470400)
I0918 12:32:10.748975 32224 net.cpp:137] Memory required for data: 201175000
I0918 12:32:10.748984 32224 layer_factory.hpp:77] Creating layer cccp5
I0918 12:32:10.748994 32224 net.cpp:84] Creating Layer cccp5
I0918 12:32:10.748999 32224 net.cpp:406] cccp5 <- penlu_conv3
I0918 12:32:10.749003 32224 net.cpp:380] cccp5 -> cccp5
I0918 12:32:10.750670 32224 net.cpp:122] Setting up cccp5
I0918 12:32:10.750681 32224 net.cpp:129] Top shape: 50 192 7 7 (470400)
I0918 12:32:10.750684 32224 net.cpp:137] Memory required for data: 203056600
I0918 12:32:10.750689 32224 layer_factory.hpp:77] Creating layer penlu_cccp5
I0918 12:32:10.750694 32224 net.cpp:84] Creating Layer penlu_cccp5
I0918 12:32:10.750699 32224 net.cpp:406] penlu_cccp5 <- cccp5
I0918 12:32:10.750705 32224 net.cpp:380] penlu_cccp5 -> penlu_cccp5
I0918 12:32:10.750826 32224 net.cpp:122] Setting up penlu_cccp5
I0918 12:32:10.750833 32224 net.cpp:129] Top shape: 50 192 7 7 (470400)
I0918 12:32:10.750834 32224 net.cpp:137] Memory required for data: 204938200
I0918 12:32:10.750839 32224 layer_factory.hpp:77] Creating layer cccp6
I0918 12:32:10.750845 32224 net.cpp:84] Creating Layer cccp6
I0918 12:32:10.750849 32224 net.cpp:406] cccp6 <- penlu_cccp5
I0918 12:32:10.750854 32224 net.cpp:380] cccp6 -> cccp6
I0918 12:32:10.751752 32224 net.cpp:122] Setting up cccp6
I0918 12:32:10.751762 32224 net.cpp:129] Top shape: 50 10 7 7 (24500)
I0918 12:32:10.751765 32224 net.cpp:137] Memory required for data: 205036200
I0918 12:32:10.751770 32224 layer_factory.hpp:77] Creating layer penlu_cccp6
I0918 12:32:10.751776 32224 net.cpp:84] Creating Layer penlu_cccp6
I0918 12:32:10.751780 32224 net.cpp:406] penlu_cccp6 <- cccp6
I0918 12:32:10.751786 32224 net.cpp:380] penlu_cccp6 -> penlu_cccp6
I0918 12:32:10.751899 32224 net.cpp:122] Setting up penlu_cccp6
I0918 12:32:10.751905 32224 net.cpp:129] Top shape: 50 10 7 7 (24500)
I0918 12:32:10.751907 32224 net.cpp:137] Memory required for data: 205134200
I0918 12:32:10.751911 32224 layer_factory.hpp:77] Creating layer pool3
I0918 12:32:10.751916 32224 net.cpp:84] Creating Layer pool3
I0918 12:32:10.751919 32224 net.cpp:406] pool3 <- penlu_cccp6
I0918 12:32:10.751925 32224 net.cpp:380] pool3 -> pool3
I0918 12:32:10.752388 32224 net.cpp:122] Setting up pool3
I0918 12:32:10.752396 32224 net.cpp:129] Top shape: 50 10 1 1 (500)
I0918 12:32:10.752399 32224 net.cpp:137] Memory required for data: 205136200
I0918 12:32:10.752401 32224 layer_factory.hpp:77] Creating layer pool3_pool3_0_split
I0918 12:32:10.752406 32224 net.cpp:84] Creating Layer pool3_pool3_0_split
I0918 12:32:10.752410 32224 net.cpp:406] pool3_pool3_0_split <- pool3
I0918 12:32:10.752418 32224 net.cpp:380] pool3_pool3_0_split -> pool3_pool3_0_split_0
I0918 12:32:10.752424 32224 net.cpp:380] pool3_pool3_0_split -> pool3_pool3_0_split_1
I0918 12:32:10.752451 32224 net.cpp:122] Setting up pool3_pool3_0_split
I0918 12:32:10.752456 32224 net.cpp:129] Top shape: 50 10 1 1 (500)
I0918 12:32:10.752460 32224 net.cpp:129] Top shape: 50 10 1 1 (500)
I0918 12:32:10.752461 32224 net.cpp:137] Memory required for data: 205140200
I0918 12:32:10.752463 32224 layer_factory.hpp:77] Creating layer accuracy
I0918 12:32:10.752468 32224 net.cpp:84] Creating Layer accuracy
I0918 12:32:10.752472 32224 net.cpp:406] accuracy <- pool3_pool3_0_split_0
I0918 12:32:10.752477 32224 net.cpp:406] accuracy <- label_cifar_1_split_0
I0918 12:32:10.752481 32224 net.cpp:380] accuracy -> accuracy
…
