…
I1008 13:08:07.376565  6340 net.cpp:294] The NetState phase (0) differed from the phase (1) specified by a rule in layer cifar
I1008 13:08:07.376719  6340 net.cpp:51] Initializing net from parameters: 
name: "nin"
state {
  phase: TRAIN
  level: 0
  stage: ""
}
layer {
  name: "cifar"
  type: "Data"
  top: "data"
  top: "label"
  include {
    phase: TRAIN
  }
  transform_param {
    mirror: true
    crop_size: 28
    mean_file: "/home/x306/caffe/xn/PENLU/data/cifar10/mean.binaryproto"
  }
  data_param {
    source: "/home/x306/caffe/xn/PENLU/data/cifar10/cifar10_train_lmdb"
    batch_size: 64
    backend: LMDB
  }
  image_data_param {
    shuffle: true
  }
}
layer {
  name: "conv1"
  type: "Convolution"
  bottom: "data"
  top: "conv1"
  param {
    lr_mult: 1
    decay_mult: 1
  }
  param {
    lr_mult: 2
    decay_mult: 0
  }
  convolution_param {
    num_output: 192
    pad: 2
    kernel_size: 5
    weight_filler {
      type: "gaussian"
      std: 0.05
    }
    bias_filler {
      type: "constant"
      value: 0
    }
  }
}
layer {
  name: "elu_conv1"
  type: "ELU"
  bottom: "conv1"
  top: "elu_conv1"
  elu_param {
    alpha: 0.25
  }
}
layer {
  name: "cccp1"
  type: "Convolution"
  bottom: "elu_conv1"
  top: "cccp1"
  param {
    lr_mult: 1
    decay_mult: 1
  }
  param {
    lr_mult: 2
    decay_mult: 0
  }
  convolution_param {
    num_output: 160
    kernel_size: 1
    weight_filler {
      type: "gaussian"
      std: 0.05
    }
    bias_filler {
      type: "constant"
      value: 0
    }
  }
}
layer {
  name: "elu_cccp1"
  type: "ELU"
  bottom: "cccp1"
  top: "elu_cccp1"
  elu_param {
    alpha: 0.25
  }
}
layer {
  name: "cccp2"
  type: "Convolution"
  bottom: "elu_cccp1"
  top: "cccp2"
  param {
    lr_mult: 1
    decay_mult: 1
  }
  param {
    lr_mult: 2
    decay_mult: 0
  }
  convolution_param {
    num_output: 96
    kernel_size: 1
    weight_filler {
      type: "gaussian"
      std: 0.05
    }
    bias_filler {
      type: "constant"
      value: 0
    }
  }
}
layer {
  name: "elu_cccp2"
  type: "ELU"
  bottom: "cccp2"
  top: "elu_cccp2"
  elu_param {
    alpha: 0.25
  }
}
layer {
  name: "pool1"
  type: "Pooling"
  bottom: "elu_cccp2"
  top: "pool1"
  pooling_param {
    pool: MAX
    kernel_size: 3
    stride: 2
  }
}
layer {
  name: "dropout1"
  type: "Dropout"
  bottom: "pool1"
  top: "dropout1"
  dropout_param {
    dropout_ratio: 0.5
  }
}
layer {
  name: "conv2"
  type: "Convolution"
  bottom: "dropout1"
  top: "conv2"
  param {
    lr_mult: 1
    decay_mult: 1
  }
  param {
    lr_mult: 2
    decay_mult: 0
  }
  convolution_param {
    num_output: 192
    pad: 2
    kernel_size: 5
    weight_filler {
      type: "gaussian"
      std: 0.05
    }
    bias_filler {
      type: "constant"
      value: 0
    }
  }
}
layer {
  name: "elu_conv2"
  type: "ELU"
  bottom: "conv2"
  top: "elu_conv2"
  elu_param {
    alpha: 0.25
  }
}
layer {
  name: "cccp3"
  type: "Convolution"
  bottom: "elu_conv2"
  top: "cccp3"
  param {
    lr_mult: 1
    decay_mult: 1
  }
  param {
    lr_mult: 2
    decay_mult: 0
  }
  convolution_param {
    num_output: 192
    kernel_size: 1
    weight_filler {
      type: "gaussian"
      std: 0.05
    }
    bias_filler {
      type: "constant"
      value: 0
    }
  }
}
layer {
  name: "elu_cccp3"
  type: "ELU"
  bottom: "cccp3"
  top: "elu_cccp3"
  elu_param {
    alpha: 0.25
  }
}
layer {
  name: "cccp4"
  type: "Convolution"
  bottom: "elu_cccp3"
  top: "cccp4"
  param {
    lr_mult: 1
    decay_mult: 1
  }
  param {
    lr_mult: 2
    decay_mult: 0
  }
  convolution_param {
    num_output: 192
    kernel_size: 1
    weight_filler {
      type: "gaussian"
      std: 0.05
    }
    bias_filler {
      type: "constant"
      value: 0
    }
  }
}
layer {
  name: "elu_cccp4"
  type: "ELU"
  bottom: "cccp4"
  top: "elu_cccp4"
  elu_param {
    alpha: 0.25
  }
}
layer {
  name: "pool2"
  type: "Pooling"
  bottom: "elu_cccp4"
  top: "pool2"
  pooling_param {
    pool: AVE
    kernel_size: 3
    stride: 2
  }
}
layer {
  name: "dropout2"
  type: "Dropout"
  bottom: "pool2"
  top: "dropout2"
  dropout_param {
    dropout_ratio: 0.5
  }
}
layer {
  name: "conv3"
  type: "Convolution"
  bottom: "dropout2"
  top: "conv3"
  param {
    lr_mult: 1
    decay_mult: 1
  }
  param {
    lr_mult: 2
    decay_mult: 0
  }
  convolution_param {
    num_output: 192
    pad: 1
    kernel_size: 3
    weight_filler {
      type: "gaussian"
      std: 0.05
    }
    bias_filler {
      type: "constant"
      value: 0
    }
  }
}
layer {
  name: "elu_conv3"
  type: "ELU"
  bottom: "conv3"
  top: "elu_conv3"
  elu_param {
    alpha: 0.25
  }
}
layer {
  name: "cccp5"
  type: "Convolution"
  bottom: "elu_conv3"
  top: "cccp5"
  param {
    lr_mult: 1
    decay_mult: 1
  }
  param {
    lr_mult: 2
    decay_mult: 0
  }
  convolution_param {
    num_output: 192
    kernel_size: 1
    weight_filler {
      type: "gaussian"
      std: 0.05
    }
    bias_filler {
      type: "constant"
      value: 0
    }
  }
}
layer {
  name: "elu_cccp5"
  type: "ELU"
  bottom: "cccp5"
  top: "elu_cccp5"
  elu_param {
    alpha: 0.25
  }
}
layer {
  name: "cccp6"
  type: "Convolution"
  bottom: "elu_cccp5"
  top: "cccp6"
  param {
    lr_mult: 0.1
    decay_mult: 1
  }
  param {
    lr_mult: 0.1
    decay_mult: 0
  }
  convolution_param {
    num_output: 10
    kernel_size: 1
    weight_filler {
      type: "gaussian"
      std: 0.05
    }
    bias_filler {
      type: "constant"
      value: 0
    }
  }
}
layer {
  name: "elu_cccp6"
  type: "ELU"
  bottom: "cccp6"
  top: "elu_cccp6"
  elu_param {
    alpha: 0.25
  }
}
layer {
  name: "pool3"
  type: "Pooling"
  bottom: "elu_cccp6"
  top: "pool3"
  pooling_param {
    pool: AVE
    kernel_size: 7
    stride: 1
  }
}
layer {
  name: "accuracy"
  type: "Accuracy"
  bottom: "pool3"
  bottom: "label"
  top: "accuracy"
}
layer {
  name: "loss"
  type: "SoftmaxWithLoss"
  bottom: "pool3"
  bottom: "label"
  top: "loss"
}
I1008 13:08:07.376830  6340 layer_factory.hpp:77] Creating layer cifar
I1008 13:08:07.376951  6340 db_lmdb.cpp:35] Opened lmdb /home/x306/caffe/xn/PENLU/data/cifar10/cifar10_train_lmdb
I1008 13:08:07.376971  6340 net.cpp:84] Creating Layer cifar
I1008 13:08:07.376976  6340 net.cpp:380] cifar -> data
I1008 13:08:07.377014  6340 net.cpp:380] cifar -> label
I1008 13:08:07.377023  6340 data_transformer.cpp:25] Loading mean file from: /home/x306/caffe/xn/PENLU/data/cifar10/mean.binaryproto
I1008 13:08:07.378397  6340 data_layer.cpp:45] output data size: 64,3,28,28
I1008 13:08:07.380473  6340 net.cpp:122] Setting up cifar
I1008 13:08:07.380487  6340 net.cpp:129] Top shape: 64 3 28 28 (150528)
I1008 13:08:07.380491  6340 net.cpp:129] Top shape: 64 (64)
I1008 13:08:07.380504  6340 net.cpp:137] Memory required for data: 602368
I1008 13:08:07.380511  6340 layer_factory.hpp:77] Creating layer label_cifar_1_split
I1008 13:08:07.380532  6340 net.cpp:84] Creating Layer label_cifar_1_split
I1008 13:08:07.380537  6340 net.cpp:406] label_cifar_1_split <- label
I1008 13:08:07.380553  6340 net.cpp:380] label_cifar_1_split -> label_cifar_1_split_0
I1008 13:08:07.380570  6340 net.cpp:380] label_cifar_1_split -> label_cifar_1_split_1
I1008 13:08:07.380630  6340 net.cpp:122] Setting up label_cifar_1_split
I1008 13:08:07.380636  6340 net.cpp:129] Top shape: 64 (64)
I1008 13:08:07.380640  6340 net.cpp:129] Top shape: 64 (64)
I1008 13:08:07.380641  6340 net.cpp:137] Memory required for data: 602880
I1008 13:08:07.380643  6340 layer_factory.hpp:77] Creating layer conv1
I1008 13:08:07.380676  6340 net.cpp:84] Creating Layer conv1
I1008 13:08:07.380679  6340 net.cpp:406] conv1 <- data
I1008 13:08:07.380693  6340 net.cpp:380] conv1 -> conv1
I1008 13:08:07.526352  6340 net.cpp:122] Setting up conv1
I1008 13:08:07.526379  6340 net.cpp:129] Top shape: 64 192 28 28 (9633792)
I1008 13:08:07.526383  6340 net.cpp:137] Memory required for data: 39138048
I1008 13:08:07.526397  6340 layer_factory.hpp:77] Creating layer elu_conv1
I1008 13:08:07.526417  6340 net.cpp:84] Creating Layer elu_conv1
I1008 13:08:07.526422  6340 net.cpp:406] elu_conv1 <- conv1
I1008 13:08:07.526427  6340 net.cpp:380] elu_conv1 -> elu_conv1
I1008 13:08:07.526471  6340 net.cpp:122] Setting up elu_conv1
I1008 13:08:07.526476  6340 net.cpp:129] Top shape: 64 192 28 28 (9633792)
I1008 13:08:07.526489  6340 net.cpp:137] Memory required for data: 77673216
I1008 13:08:07.526491  6340 layer_factory.hpp:77] Creating layer cccp1
I1008 13:08:07.526510  6340 net.cpp:84] Creating Layer cccp1
I1008 13:08:07.526512  6340 net.cpp:406] cccp1 <- elu_conv1
I1008 13:08:07.526528  6340 net.cpp:380] cccp1 -> cccp1
I1008 13:08:07.528484  6340 net.cpp:122] Setting up cccp1
I1008 13:08:07.528496  6340 net.cpp:129] Top shape: 64 160 28 28 (8028160)
I1008 13:08:07.528498  6340 net.cpp:137] Memory required for data: 109785856
I1008 13:08:07.528504  6340 layer_factory.hpp:77] Creating layer elu_cccp1
I1008 13:08:07.528508  6340 net.cpp:84] Creating Layer elu_cccp1
I1008 13:08:07.528512  6340 net.cpp:406] elu_cccp1 <- cccp1
I1008 13:08:07.528525  6340 net.cpp:380] elu_cccp1 -> elu_cccp1
I1008 13:08:07.528553  6340 net.cpp:122] Setting up elu_cccp1
I1008 13:08:07.528568  6340 net.cpp:129] Top shape: 64 160 28 28 (8028160)
I1008 13:08:07.528569  6340 net.cpp:137] Memory required for data: 141898496
I1008 13:08:07.528580  6340 layer_factory.hpp:77] Creating layer cccp2
I1008 13:08:07.528586  6340 net.cpp:84] Creating Layer cccp2
I1008 13:08:07.528589  6340 net.cpp:406] cccp2 <- elu_cccp1
I1008 13:08:07.528602  6340 net.cpp:380] cccp2 -> cccp2
I1008 13:08:07.529762  6340 net.cpp:122] Setting up cccp2
I1008 13:08:07.529772  6340 net.cpp:129] Top shape: 64 96 28 28 (4816896)
I1008 13:08:07.529775  6340 net.cpp:137] Memory required for data: 161166080
I1008 13:08:07.529783  6340 layer_factory.hpp:77] Creating layer elu_cccp2
I1008 13:08:07.529786  6340 net.cpp:84] Creating Layer elu_cccp2
I1008 13:08:07.529788  6340 net.cpp:406] elu_cccp2 <- cccp2
I1008 13:08:07.529803  6340 net.cpp:380] elu_cccp2 -> elu_cccp2
I1008 13:08:07.529840  6340 net.cpp:122] Setting up elu_cccp2
I1008 13:08:07.529844  6340 net.cpp:129] Top shape: 64 96 28 28 (4816896)
I1008 13:08:07.529846  6340 net.cpp:137] Memory required for data: 180433664
I1008 13:08:07.529860  6340 layer_factory.hpp:77] Creating layer pool1
I1008 13:08:07.529865  6340 net.cpp:84] Creating Layer pool1
I1008 13:08:07.529868  6340 net.cpp:406] pool1 <- elu_cccp2
I1008 13:08:07.529871  6340 net.cpp:380] pool1 -> pool1
I1008 13:08:07.529937  6340 net.cpp:122] Setting up pool1
I1008 13:08:07.529942  6340 net.cpp:129] Top shape: 64 96 14 14 (1204224)
I1008 13:08:07.529953  6340 net.cpp:137] Memory required for data: 185250560
I1008 13:08:07.529955  6340 layer_factory.hpp:77] Creating layer dropout1
I1008 13:08:07.529959  6340 net.cpp:84] Creating Layer dropout1
I1008 13:08:07.529961  6340 net.cpp:406] dropout1 <- pool1
I1008 13:08:07.529964  6340 net.cpp:380] dropout1 -> dropout1
I1008 13:08:07.530025  6340 net.cpp:122] Setting up dropout1
I1008 13:08:07.530030  6340 net.cpp:129] Top shape: 64 96 14 14 (1204224)
I1008 13:08:07.530031  6340 net.cpp:137] Memory required for data: 190067456
I1008 13:08:07.530033  6340 layer_factory.hpp:77] Creating layer conv2
I1008 13:08:07.530050  6340 net.cpp:84] Creating Layer conv2
I1008 13:08:07.530052  6340 net.cpp:406] conv2 <- dropout1
I1008 13:08:07.530055  6340 net.cpp:380] conv2 -> conv2
I1008 13:08:07.541952  6340 net.cpp:122] Setting up conv2
I1008 13:08:07.541967  6340 net.cpp:129] Top shape: 64 192 14 14 (2408448)
I1008 13:08:07.541970  6340 net.cpp:137] Memory required for data: 199701248
I1008 13:08:07.541985  6340 layer_factory.hpp:77] Creating layer elu_conv2
I1008 13:08:07.542002  6340 net.cpp:84] Creating Layer elu_conv2
I1008 13:08:07.542006  6340 net.cpp:406] elu_conv2 <- conv2
I1008 13:08:07.542021  6340 net.cpp:380] elu_conv2 -> elu_conv2
I1008 13:08:07.542059  6340 net.cpp:122] Setting up elu_conv2
I1008 13:08:07.542074  6340 net.cpp:129] Top shape: 64 192 14 14 (2408448)
I1008 13:08:07.542076  6340 net.cpp:137] Memory required for data: 209335040
I1008 13:08:07.542078  6340 layer_factory.hpp:77] Creating layer cccp3
I1008 13:08:07.542084  6340 net.cpp:84] Creating Layer cccp3
I1008 13:08:07.542088  6340 net.cpp:406] cccp3 <- elu_conv2
I1008 13:08:07.542091  6340 net.cpp:380] cccp3 -> cccp3
I1008 13:08:07.543715  6340 net.cpp:122] Setting up cccp3
I1008 13:08:07.543726  6340 net.cpp:129] Top shape: 64 192 14 14 (2408448)
I1008 13:08:07.543730  6340 net.cpp:137] Memory required for data: 218968832
I1008 13:08:07.543736  6340 layer_factory.hpp:77] Creating layer elu_cccp3
I1008 13:08:07.543740  6340 net.cpp:84] Creating Layer elu_cccp3
I1008 13:08:07.543743  6340 net.cpp:406] elu_cccp3 <- cccp3
I1008 13:08:07.543757  6340 net.cpp:380] elu_cccp3 -> elu_cccp3
I1008 13:08:07.543798  6340 net.cpp:122] Setting up elu_cccp3
I1008 13:08:07.543803  6340 net.cpp:129] Top shape: 64 192 14 14 (2408448)
I1008 13:08:07.543805  6340 net.cpp:137] Memory required for data: 228602624
I1008 13:08:07.543817  6340 layer_factory.hpp:77] Creating layer cccp4
I1008 13:08:07.543823  6340 net.cpp:84] Creating Layer cccp4
I1008 13:08:07.543839  6340 net.cpp:406] cccp4 <- elu_cccp3
I1008 13:08:07.543843  6340 net.cpp:380] cccp4 -> cccp4
I1008 13:08:07.545455  6340 net.cpp:122] Setting up cccp4
I1008 13:08:07.545465  6340 net.cpp:129] Top shape: 64 192 14 14 (2408448)
I1008 13:08:07.545469  6340 net.cpp:137] Memory required for data: 238236416
I1008 13:08:07.545473  6340 layer_factory.hpp:77] Creating layer elu_cccp4
I1008 13:08:07.545477  6340 net.cpp:84] Creating Layer elu_cccp4
I1008 13:08:07.545480  6340 net.cpp:406] elu_cccp4 <- cccp4
I1008 13:08:07.545483  6340 net.cpp:380] elu_cccp4 -> elu_cccp4
I1008 13:08:07.545521  6340 net.cpp:122] Setting up elu_cccp4
I1008 13:08:07.545536  6340 net.cpp:129] Top shape: 64 192 14 14 (2408448)
I1008 13:08:07.545537  6340 net.cpp:137] Memory required for data: 247870208
I1008 13:08:07.545539  6340 layer_factory.hpp:77] Creating layer pool2
I1008 13:08:07.545554  6340 net.cpp:84] Creating Layer pool2
I1008 13:08:07.545557  6340 net.cpp:406] pool2 <- elu_cccp4
I1008 13:08:07.545560  6340 net.cpp:380] pool2 -> pool2
I1008 13:08:07.545696  6340 net.cpp:122] Setting up pool2
I1008 13:08:07.545702  6340 net.cpp:129] Top shape: 64 192 7 7 (602112)
I1008 13:08:07.545704  6340 net.cpp:137] Memory required for data: 250278656
I1008 13:08:07.545707  6340 layer_factory.hpp:77] Creating layer dropout2
I1008 13:08:07.545711  6340 net.cpp:84] Creating Layer dropout2
I1008 13:08:07.545713  6340 net.cpp:406] dropout2 <- pool2
I1008 13:08:07.545717  6340 net.cpp:380] dropout2 -> dropout2
I1008 13:08:07.545760  6340 net.cpp:122] Setting up dropout2
I1008 13:08:07.545764  6340 net.cpp:129] Top shape: 64 192 7 7 (602112)
I1008 13:08:07.545766  6340 net.cpp:137] Memory required for data: 252687104
I1008 13:08:07.545778  6340 layer_factory.hpp:77] Creating layer conv3
I1008 13:08:07.545785  6340 net.cpp:84] Creating Layer conv3
I1008 13:08:07.545789  6340 net.cpp:406] conv3 <- dropout2
I1008 13:08:07.545801  6340 net.cpp:380] conv3 -> conv3
I1008 13:08:07.554075  6340 net.cpp:122] Setting up conv3
I1008 13:08:07.554086  6340 net.cpp:129] Top shape: 64 192 7 7 (602112)
I1008 13:08:07.554088  6340 net.cpp:137] Memory required for data: 255095552
I1008 13:08:07.554093  6340 layer_factory.hpp:77] Creating layer elu_conv3
I1008 13:08:07.554097  6340 net.cpp:84] Creating Layer elu_conv3
I1008 13:08:07.554100  6340 net.cpp:406] elu_conv3 <- conv3
I1008 13:08:07.554105  6340 net.cpp:380] elu_conv3 -> elu_conv3
I1008 13:08:07.554153  6340 net.cpp:122] Setting up elu_conv3
I1008 13:08:07.554177  6340 net.cpp:129] Top shape: 64 192 7 7 (602112)
I1008 13:08:07.554179  6340 net.cpp:137] Memory required for data: 257504000
I1008 13:08:07.554181  6340 layer_factory.hpp:77] Creating layer cccp5
I1008 13:08:07.554188  6340 net.cpp:84] Creating Layer cccp5
I1008 13:08:07.554190  6340 net.cpp:406] cccp5 <- elu_conv3
I1008 13:08:07.554195  6340 net.cpp:380] cccp5 -> cccp5
I1008 13:08:07.555855  6340 net.cpp:122] Setting up cccp5
I1008 13:08:07.555866  6340 net.cpp:129] Top shape: 64 192 7 7 (602112)
I1008 13:08:07.555867  6340 net.cpp:137] Memory required for data: 259912448
I1008 13:08:07.555872  6340 layer_factory.hpp:77] Creating layer elu_cccp5
I1008 13:08:07.555876  6340 net.cpp:84] Creating Layer elu_cccp5
I1008 13:08:07.555879  6340 net.cpp:406] elu_cccp5 <- cccp5
I1008 13:08:07.555882  6340 net.cpp:380] elu_cccp5 -> elu_cccp5
I1008 13:08:07.555924  6340 net.cpp:122] Setting up elu_cccp5
I1008 13:08:07.555938  6340 net.cpp:129] Top shape: 64 192 7 7 (602112)
I1008 13:08:07.555939  6340 net.cpp:137] Memory required for data: 262320896
I1008 13:08:07.555941  6340 layer_factory.hpp:77] Creating layer cccp6
I1008 13:08:07.555959  6340 net.cpp:84] Creating Layer cccp6
I1008 13:08:07.555963  6340 net.cpp:406] cccp6 <- elu_cccp5
I1008 13:08:07.555977  6340 net.cpp:380] cccp6 -> cccp6
I1008 13:08:07.557143  6340 net.cpp:122] Setting up cccp6
I1008 13:08:07.557154  6340 net.cpp:129] Top shape: 64 10 7 7 (31360)
I1008 13:08:07.557157  6340 net.cpp:137] Memory required for data: 262446336
I1008 13:08:07.557165  6340 layer_factory.hpp:77] Creating layer elu_cccp6
I1008 13:08:07.557170  6340 net.cpp:84] Creating Layer elu_cccp6
I1008 13:08:07.557183  6340 net.cpp:406] elu_cccp6 <- cccp6
I1008 13:08:07.557188  6340 net.cpp:380] elu_cccp6 -> elu_cccp6
I1008 13:08:07.557216  6340 net.cpp:122] Setting up elu_cccp6
I1008 13:08:07.557230  6340 net.cpp:129] Top shape: 64 10 7 7 (31360)
I1008 13:08:07.557234  6340 net.cpp:137] Memory required for data: 262571776
I1008 13:08:07.557245  6340 layer_factory.hpp:77] Creating layer pool3
I1008 13:08:07.557248  6340 net.cpp:84] Creating Layer pool3
I1008 13:08:07.557250  6340 net.cpp:406] pool3 <- elu_cccp6
I1008 13:08:07.557263  6340 net.cpp:380] pool3 -> pool3
I1008 13:08:07.557440  6340 net.cpp:122] Setting up pool3
I1008 13:08:07.557447  6340 net.cpp:129] Top shape: 64 10 1 1 (640)
I1008 13:08:07.557449  6340 net.cpp:137] Memory required for data: 262574336
I1008 13:08:07.557451  6340 layer_factory.hpp:77] Creating layer pool3_pool3_0_split
I1008 13:08:07.557456  6340 net.cpp:84] Creating Layer pool3_pool3_0_split
I1008 13:08:07.557458  6340 net.cpp:406] pool3_pool3_0_split <- pool3
I1008 13:08:07.557462  6340 net.cpp:380] pool3_pool3_0_split -> pool3_pool3_0_split_0
I1008 13:08:07.557477  6340 net.cpp:380] pool3_pool3_0_split -> pool3_pool3_0_split_1
I1008 13:08:07.557519  6340 net.cpp:122] Setting up pool3_pool3_0_split
I1008 13:08:07.557533  6340 net.cpp:129] Top shape: 64 10 1 1 (640)
I1008 13:08:07.557535  6340 net.cpp:129] Top shape: 64 10 1 1 (640)
I1008 13:08:07.557538  6340 net.cpp:137] Memory required for data: 262579456
I1008 13:08:07.557539  6340 layer_factory.hpp:77] Creating layer accuracy
I1008 13:08:07.557557  6340 net.cpp:84] Creating Layer accuracy
I1008 13:08:07.557560  6340 net.cpp:406] accuracy <- pool3_pool3_0_split_0
I1008 13:08:07.557564  6340 net.cpp:406] accuracy <- label_cifar_1_split_0
I1008 13:08:07.557575  6340 net.cpp:380] accuracy -> accuracy
…
I1008 13:08:07.558495  6340 net.cpp:294] The NetState phase (1) differed from the phase (0) specified by a rule in layer cifar
I1008 13:08:07.558635  6340 net.cpp:51] Initializing net from parameters: 
name: "nin"
state {
  phase: TEST
}
layer {
  name: "cifar"
  type: "Data"
  top: "data"
  top: "label"
  include {
    phase: TEST
  }
  transform_param {
    mirror: false
    crop_size: 28
    mean_file: "/home/x306/caffe/xn/PENLU/data/cifar10/mean.binaryproto"
  }
  data_param {
    source: "/home/x306/caffe/xn/PENLU/data/cifar10/cifar10_test_lmdb"
    batch_size: 50
    backend: LMDB
  }
}
layer {
  name: "conv1"
  type: "Convolution"
  bottom: "data"
  top: "conv1"
  param {
    lr_mult: 1
    decay_mult: 1
  }
  param {
    lr_mult: 2
    decay_mult: 0
  }
  convolution_param {
    num_output: 192
    pad: 2
    kernel_size: 5
    weight_filler {
      type: "gaussian"
      std: 0.05
    }
    bias_filler {
      type: "constant"
      value: 0
    }
  }
}
layer {
  name: "elu_conv1"
  type: "ELU"
  bottom: "conv1"
  top: "elu_conv1"
  elu_param {
    alpha: 0.25
  }
}
layer {
  name: "cccp1"
  type: "Convolution"
  bottom: "elu_conv1"
  top: "cccp1"
  param {
    lr_mult: 1
    decay_mult: 1
  }
  param {
    lr_mult: 2
    decay_mult: 0
  }
  convolution_param {
    num_output: 160
    kernel_size: 1
    weight_filler {
      type: "gaussian"
      std: 0.05
    }
    bias_filler {
      type: "constant"
      value: 0
    }
  }
}
layer {
  name: "elu_cccp1"
  type: "ELU"
  bottom: "cccp1"
  top: "elu_cccp1"
  elu_param {
    alpha: 0.25
  }
}
layer {
  name: "cccp2"
  type: "Convolution"
  bottom: "elu_cccp1"
  top: "cccp2"
  param {
    lr_mult: 1
    decay_mult: 1
  }
  param {
    lr_mult: 2
    decay_mult: 0
  }
  convolution_param {
    num_output: 96
    kernel_size: 1
    weight_filler {
      type: "gaussian"
      std: 0.05
    }
    bias_filler {
      type: "constant"
      value: 0
    }
  }
}
layer {
  name: "elu_cccp2"
  type: "ELU"
  bottom: "cccp2"
  top: "elu_cccp2"
  elu_param {
    alpha: 0.25
  }
}
layer {
  name: "pool1"
  type: "Pooling"
  bottom: "elu_cccp2"
  top: "pool1"
  pooling_param {
    pool: MAX
    kernel_size: 3
    stride: 2
  }
}
layer {
  name: "dropout1"
  type: "Dropout"
  bottom: "pool1"
  top: "dropout1"
  dropout_param {
    dropout_ratio: 0.5
  }
}
layer {
  name: "conv2"
  type: "Convolution"
  bottom: "dropout1"
  top: "conv2"
  param {
    lr_mult: 1
    decay_mult: 1
  }
  param {
    lr_mult: 2
    decay_mult: 0
  }
  convolution_param {
    num_output: 192
    pad: 2
    kernel_size: 5
    weight_filler {
      type: "gaussian"
      std: 0.05
    }
    bias_filler {
      type: "constant"
      value: 0
    }
  }
}
layer {
  name: "elu_conv2"
  type: "ELU"
  bottom: "conv2"
  top: "elu_conv2"
  elu_param {
    alpha: 0.25
  }
}
layer {
  name: "cccp3"
  type: "Convolution"
  bottom: "elu_conv2"
  top: "cccp3"
  param {
    lr_mult: 1
    decay_mult: 1
  }
  param {
    lr_mult: 2
    decay_mult: 0
  }
  convolution_param {
    num_output: 192
    kernel_size: 1
    weight_filler {
      type: "gaussian"
      std: 0.05
    }
    bias_filler {
      type: "constant"
      value: 0
    }
  }
}
layer {
  name: "elu_cccp3"
  type: "ELU"
  bottom: "cccp3"
  top: "elu_cccp3"
  elu_param {
    alpha: 0.25
  }
}
layer {
  name: "cccp4"
  type: "Convolution"
  bottom: "elu_cccp3"
  top: "cccp4"
  param {
    lr_mult: 1
    decay_mult: 1
  }
  param {
    lr_mult: 2
    decay_mult: 0
  }
  convolution_param {
    num_output: 192
    kernel_size: 1
    weight_filler {
      type: "gaussian"
      std: 0.05
    }
    bias_filler {
      type: "constant"
      value: 0
    }
  }
}
layer {
  name: "elu_cccp4"
  type: "ELU"
  bottom: "cccp4"
  top: "elu_cccp4"
  elu_param {
    alpha: 0.25
  }
}
layer {
  name: "pool2"
  type: "Pooling"
  bottom: "elu_cccp4"
  top: "pool2"
  pooling_param {
    pool: AVE
    kernel_size: 3
    stride: 2
  }
}
layer {
  name: "dropout2"
  type: "Dropout"
  bottom: "pool2"
  top: "dropout2"
  dropout_param {
    dropout_ratio: 0.5
  }
}
layer {
  name: "conv3"
  type: "Convolution"
  bottom: "dropout2"
  top: "conv3"
  param {
    lr_mult: 1
    decay_mult: 1
  }
  param {
    lr_mult: 2
    decay_mult: 0
  }
  convolution_param {
    num_output: 192
    pad: 1
    kernel_size: 3
    weight_filler {
      type: "gaussian"
      std: 0.05
    }
    bias_filler {
      type: "constant"
      value: 0
    }
  }
}
layer {
  name: "elu_conv3"
  type: "ELU"
  bottom: "conv3"
  top: "elu_conv3"
  elu_param {
    alpha: 0.25
  }
}
layer {
  name: "cccp5"
  type: "Convolution"
  bottom: "elu_conv3"
  top: "cccp5"
  param {
    lr_mult: 1
    decay_mult: 1
  }
  param {
    lr_mult: 2
    decay_mult: 0
  }
  convolution_param {
    num_output: 192
    kernel_size: 1
    weight_filler {
      type: "gaussian"
      std: 0.05
    }
    bias_filler {
      type: "constant"
      value: 0
    }
  }
}
layer {
  name: "elu_cccp5"
  type: "ELU"
  bottom: "cccp5"
  top: "elu_cccp5"
  elu_param {
    alpha: 0.25
  }
}
layer {
  name: "cccp6"
  type: "Convolution"
  bottom: "elu_cccp5"
  top: "cccp6"
  param {
    lr_mult: 0.1
    decay_mult: 1
  }
  param {
    lr_mult: 0.1
    decay_mult: 0
  }
  convolution_param {
    num_output: 10
    kernel_size: 1
    weight_filler {
      type: "gaussian"
      std: 0.05
    }
    bias_filler {
      type: "constant"
      value: 0
    }
  }
}
layer {
  name: "elu_cccp6"
  type: "ELU"
  bottom: "cccp6"
  top: "elu_cccp6"
  elu_param {
    alpha: 0.25
  }
}
layer {
  name: "pool3"
  type: "Pooling"
  bottom: "elu_cccp6"
  top: "pool3"
  pooling_param {
    pool: AVE
    kernel_size: 7
    stride: 1
  }
}
layer {
  name: "accuracy"
  type: "Accuracy"
  bottom: "pool3"
  bottom: "label"
  top: "accuracy"
}
layer {
  name: "loss"
  type: "SoftmaxWithLoss"
  bottom: "pool3"
  bottom: "label"
  top: "loss"
}
I1008 13:08:07.558730  6340 layer_factory.hpp:77] Creating layer cifar
I1008 13:08:07.558768  6340 db_lmdb.cpp:35] Opened lmdb /home/x306/caffe/xn/PENLU/data/cifar10/cifar10_test_lmdb
I1008 13:08:07.558778  6340 net.cpp:84] Creating Layer cifar
I1008 13:08:07.558781  6340 net.cpp:380] cifar -> data
I1008 13:08:07.558787  6340 net.cpp:380] cifar -> label
I1008 13:08:07.558792  6340 data_transformer.cpp:25] Loading mean file from: /home/x306/caffe/xn/PENLU/data/cifar10/mean.binaryproto
I1008 13:08:07.558897  6340 data_layer.cpp:45] output data size: 50,3,28,28
I1008 13:08:07.559903  6340 net.cpp:122] Setting up cifar
I1008 13:08:07.559916  6340 net.cpp:129] Top shape: 50 3 28 28 (117600)
I1008 13:08:07.559919  6340 net.cpp:129] Top shape: 50 (50)
I1008 13:08:07.559921  6340 net.cpp:137] Memory required for data: 470600
I1008 13:08:07.559924  6340 layer_factory.hpp:77] Creating layer label_cifar_1_split
I1008 13:08:07.559928  6340 net.cpp:84] Creating Layer label_cifar_1_split
I1008 13:08:07.559932  6340 net.cpp:406] label_cifar_1_split <- label
I1008 13:08:07.559937  6340 net.cpp:380] label_cifar_1_split -> label_cifar_1_split_0
I1008 13:08:07.559942  6340 net.cpp:380] label_cifar_1_split -> label_cifar_1_split_1
I1008 13:08:07.559983  6340 net.cpp:122] Setting up label_cifar_1_split
I1008 13:08:07.559996  6340 net.cpp:129] Top shape: 50 (50)
I1008 13:08:07.559999  6340 net.cpp:129] Top shape: 50 (50)
I1008 13:08:07.560001  6340 net.cpp:137] Memory required for data: 471000
I1008 13:08:07.560003  6340 layer_factory.hpp:77] Creating layer conv1
I1008 13:08:07.560011  6340 net.cpp:84] Creating Layer conv1
I1008 13:08:07.560015  6340 net.cpp:406] conv1 <- data
I1008 13:08:07.560019  6340 net.cpp:380] conv1 -> conv1
I1008 13:08:07.561445  6340 net.cpp:122] Setting up conv1
I1008 13:08:07.561456  6340 net.cpp:129] Top shape: 50 192 28 28 (7526400)
I1008 13:08:07.561460  6340 net.cpp:137] Memory required for data: 30576600
I1008 13:08:07.561468  6340 layer_factory.hpp:77] Creating layer elu_conv1
I1008 13:08:07.561475  6340 net.cpp:84] Creating Layer elu_conv1
I1008 13:08:07.561481  6340 net.cpp:406] elu_conv1 <- conv1
I1008 13:08:07.561486  6340 net.cpp:380] elu_conv1 -> elu_conv1
I1008 13:08:07.561504  6340 net.cpp:122] Setting up elu_conv1
I1008 13:08:07.561509  6340 net.cpp:129] Top shape: 50 192 28 28 (7526400)
I1008 13:08:07.561511  6340 net.cpp:137] Memory required for data: 60682200
I1008 13:08:07.561514  6340 layer_factory.hpp:77] Creating layer cccp1
I1008 13:08:07.561522  6340 net.cpp:84] Creating Layer cccp1
I1008 13:08:07.561524  6340 net.cpp:406] cccp1 <- elu_conv1
I1008 13:08:07.561529  6340 net.cpp:380] cccp1 -> cccp1
I1008 13:08:07.563187  6340 net.cpp:122] Setting up cccp1
I1008 13:08:07.563197  6340 net.cpp:129] Top shape: 50 160 28 28 (6272000)
I1008 13:08:07.563200  6340 net.cpp:137] Memory required for data: 85770200
I1008 13:08:07.563207  6340 layer_factory.hpp:77] Creating layer elu_cccp1
I1008 13:08:07.563213  6340 net.cpp:84] Creating Layer elu_cccp1
I1008 13:08:07.563217  6340 net.cpp:406] elu_cccp1 <- cccp1
I1008 13:08:07.563226  6340 net.cpp:380] elu_cccp1 -> elu_cccp1
I1008 13:08:07.563244  6340 net.cpp:122] Setting up elu_cccp1
I1008 13:08:07.563249  6340 net.cpp:129] Top shape: 50 160 28 28 (6272000)
I1008 13:08:07.563251  6340 net.cpp:137] Memory required for data: 110858200
I1008 13:08:07.563254  6340 layer_factory.hpp:77] Creating layer cccp2
I1008 13:08:07.563263  6340 net.cpp:84] Creating Layer cccp2
I1008 13:08:07.563267  6340 net.cpp:406] cccp2 <- elu_cccp1
I1008 13:08:07.563274  6340 net.cpp:380] cccp2 -> cccp2
I1008 13:08:07.564505  6340 net.cpp:122] Setting up cccp2
I1008 13:08:07.564518  6340 net.cpp:129] Top shape: 50 96 28 28 (3763200)
I1008 13:08:07.564522  6340 net.cpp:137] Memory required for data: 125911000
I1008 13:08:07.564529  6340 layer_factory.hpp:77] Creating layer elu_cccp2
I1008 13:08:07.564534  6340 net.cpp:84] Creating Layer elu_cccp2
I1008 13:08:07.564538  6340 net.cpp:406] elu_cccp2 <- cccp2
I1008 13:08:07.564543  6340 net.cpp:380] elu_cccp2 -> elu_cccp2
I1008 13:08:07.564560  6340 net.cpp:122] Setting up elu_cccp2
I1008 13:08:07.564564  6340 net.cpp:129] Top shape: 50 96 28 28 (3763200)
I1008 13:08:07.564568  6340 net.cpp:137] Memory required for data: 140963800
I1008 13:08:07.564570  6340 layer_factory.hpp:77] Creating layer pool1
I1008 13:08:07.564575  6340 net.cpp:84] Creating Layer pool1
I1008 13:08:07.564579  6340 net.cpp:406] pool1 <- elu_cccp2
I1008 13:08:07.564582  6340 net.cpp:380] pool1 -> pool1
I1008 13:08:07.564607  6340 net.cpp:122] Setting up pool1
I1008 13:08:07.564612  6340 net.cpp:129] Top shape: 50 96 14 14 (940800)
I1008 13:08:07.564615  6340 net.cpp:137] Memory required for data: 144727000
I1008 13:08:07.564617  6340 layer_factory.hpp:77] Creating layer dropout1
I1008 13:08:07.564621  6340 net.cpp:84] Creating Layer dropout1
I1008 13:08:07.564625  6340 net.cpp:406] dropout1 <- pool1
I1008 13:08:07.564628  6340 net.cpp:380] dropout1 -> dropout1
I1008 13:08:07.564651  6340 net.cpp:122] Setting up dropout1
I1008 13:08:07.564656  6340 net.cpp:129] Top shape: 50 96 14 14 (940800)
I1008 13:08:07.564659  6340 net.cpp:137] Memory required for data: 148490200
I1008 13:08:07.564661  6340 layer_factory.hpp:77] Creating layer conv2
I1008 13:08:07.564667  6340 net.cpp:84] Creating Layer conv2
I1008 13:08:07.564671  6340 net.cpp:406] conv2 <- dropout1
I1008 13:08:07.564674  6340 net.cpp:380] conv2 -> conv2
I1008 13:08:07.576171  6340 net.cpp:122] Setting up conv2
I1008 13:08:07.576184  6340 net.cpp:129] Top shape: 50 192 14 14 (1881600)
I1008 13:08:07.576187  6340 net.cpp:137] Memory required for data: 156016600
I1008 13:08:07.576202  6340 layer_factory.hpp:77] Creating layer elu_conv2
I1008 13:08:07.576207  6340 net.cpp:84] Creating Layer elu_conv2
I1008 13:08:07.576210  6340 net.cpp:406] elu_conv2 <- conv2
I1008 13:08:07.576215  6340 net.cpp:380] elu_conv2 -> elu_conv2
I1008 13:08:07.576247  6340 net.cpp:122] Setting up elu_conv2
I1008 13:08:07.576252  6340 net.cpp:129] Top shape: 50 192 14 14 (1881600)
I1008 13:08:07.576256  6340 net.cpp:137] Memory required for data: 163543000
I1008 13:08:07.576257  6340 layer_factory.hpp:77] Creating layer cccp3
I1008 13:08:07.576263  6340 net.cpp:84] Creating Layer cccp3
I1008 13:08:07.576267  6340 net.cpp:406] cccp3 <- elu_conv2
I1008 13:08:07.576272  6340 net.cpp:380] cccp3 -> cccp3
I1008 13:08:07.577929  6340 net.cpp:122] Setting up cccp3
I1008 13:08:07.577939  6340 net.cpp:129] Top shape: 50 192 14 14 (1881600)
I1008 13:08:07.577941  6340 net.cpp:137] Memory required for data: 171069400
I1008 13:08:07.577949  6340 layer_factory.hpp:77] Creating layer elu_cccp3
I1008 13:08:07.577953  6340 net.cpp:84] Creating Layer elu_cccp3
I1008 13:08:07.577957  6340 net.cpp:406] elu_cccp3 <- cccp3
I1008 13:08:07.577960  6340 net.cpp:380] elu_cccp3 -> elu_cccp3
I1008 13:08:07.577980  6340 net.cpp:122] Setting up elu_cccp3
I1008 13:08:07.577985  6340 net.cpp:129] Top shape: 50 192 14 14 (1881600)
I1008 13:08:07.577987  6340 net.cpp:137] Memory required for data: 178595800
I1008 13:08:07.577991  6340 layer_factory.hpp:77] Creating layer cccp4
I1008 13:08:07.577996  6340 net.cpp:84] Creating Layer cccp4
I1008 13:08:07.577999  6340 net.cpp:406] cccp4 <- elu_cccp3
I1008 13:08:07.578003  6340 net.cpp:380] cccp4 -> cccp4
I1008 13:08:07.579664  6340 net.cpp:122] Setting up cccp4
I1008 13:08:07.579675  6340 net.cpp:129] Top shape: 50 192 14 14 (1881600)
I1008 13:08:07.579679  6340 net.cpp:137] Memory required for data: 186122200
I1008 13:08:07.579684  6340 layer_factory.hpp:77] Creating layer elu_cccp4
I1008 13:08:07.579689  6340 net.cpp:84] Creating Layer elu_cccp4
I1008 13:08:07.579699  6340 net.cpp:406] elu_cccp4 <- cccp4
I1008 13:08:07.579704  6340 net.cpp:380] elu_cccp4 -> elu_cccp4
I1008 13:08:07.579723  6340 net.cpp:122] Setting up elu_cccp4
I1008 13:08:07.579728  6340 net.cpp:129] Top shape: 50 192 14 14 (1881600)
I1008 13:08:07.579731  6340 net.cpp:137] Memory required for data: 193648600
I1008 13:08:07.579733  6340 layer_factory.hpp:77] Creating layer pool2
I1008 13:08:07.579740  6340 net.cpp:84] Creating Layer pool2
I1008 13:08:07.579742  6340 net.cpp:406] pool2 <- elu_cccp4
I1008 13:08:07.579746  6340 net.cpp:380] pool2 -> pool2
I1008 13:08:07.579874  6340 net.cpp:122] Setting up pool2
I1008 13:08:07.579881  6340 net.cpp:129] Top shape: 50 192 7 7 (470400)
I1008 13:08:07.579885  6340 net.cpp:137] Memory required for data: 195530200
I1008 13:08:07.579886  6340 layer_factory.hpp:77] Creating layer dropout2
I1008 13:08:07.579891  6340 net.cpp:84] Creating Layer dropout2
I1008 13:08:07.579895  6340 net.cpp:406] dropout2 <- pool2
I1008 13:08:07.579898  6340 net.cpp:380] dropout2 -> dropout2
I1008 13:08:07.579924  6340 net.cpp:122] Setting up dropout2
I1008 13:08:07.579928  6340 net.cpp:129] Top shape: 50 192 7 7 (470400)
I1008 13:08:07.579931  6340 net.cpp:137] Memory required for data: 197411800
I1008 13:08:07.579933  6340 layer_factory.hpp:77] Creating layer conv3
I1008 13:08:07.579939  6340 net.cpp:84] Creating Layer conv3
I1008 13:08:07.579943  6340 net.cpp:406] conv3 <- dropout2
I1008 13:08:07.579947  6340 net.cpp:380] conv3 -> conv3
I1008 13:08:07.589290  6340 net.cpp:122] Setting up conv3
I1008 13:08:07.589306  6340 net.cpp:129] Top shape: 50 192 7 7 (470400)
I1008 13:08:07.589309  6340 net.cpp:137] Memory required for data: 199293400
I1008 13:08:07.589314  6340 layer_factory.hpp:77] Creating layer elu_conv3
I1008 13:08:07.589320  6340 net.cpp:84] Creating Layer elu_conv3
I1008 13:08:07.589334  6340 net.cpp:406] elu_conv3 <- conv3
I1008 13:08:07.589339  6340 net.cpp:380] elu_conv3 -> elu_conv3
I1008 13:08:07.589371  6340 net.cpp:122] Setting up elu_conv3
I1008 13:08:07.589390  6340 net.cpp:129] Top shape: 50 192 7 7 (470400)
I1008 13:08:07.589392  6340 net.cpp:137] Memory required for data: 201175000
I1008 13:08:07.589403  6340 layer_factory.hpp:77] Creating layer cccp5
I1008 13:08:07.589411  6340 net.cpp:84] Creating Layer cccp5
I1008 13:08:07.589423  6340 net.cpp:406] cccp5 <- elu_conv3
I1008 13:08:07.589428  6340 net.cpp:380] cccp5 -> cccp5
I1008 13:08:07.591101  6340 net.cpp:122] Setting up cccp5
I1008 13:08:07.591111  6340 net.cpp:129] Top shape: 50 192 7 7 (470400)
I1008 13:08:07.591114  6340 net.cpp:137] Memory required for data: 203056600
I1008 13:08:07.591119  6340 layer_factory.hpp:77] Creating layer elu_cccp5
I1008 13:08:07.591125  6340 net.cpp:84] Creating Layer elu_cccp5
I1008 13:08:07.591126  6340 net.cpp:406] elu_cccp5 <- cccp5
I1008 13:08:07.591140  6340 net.cpp:380] elu_cccp5 -> elu_cccp5
I1008 13:08:07.591171  6340 net.cpp:122] Setting up elu_cccp5
I1008 13:08:07.591186  6340 net.cpp:129] Top shape: 50 192 7 7 (470400)
I1008 13:08:07.591187  6340 net.cpp:137] Memory required for data: 204938200
I1008 13:08:07.591190  6340 layer_factory.hpp:77] Creating layer cccp6
I1008 13:08:07.591207  6340 net.cpp:84] Creating Layer cccp6
I1008 13:08:07.591210  6340 net.cpp:406] cccp6 <- elu_cccp5
I1008 13:08:07.591214  6340 net.cpp:380] cccp6 -> cccp6
I1008 13:08:07.592118  6340 net.cpp:122] Setting up cccp6
I1008 13:08:07.592129  6340 net.cpp:129] Top shape: 50 10 7 7 (24500)
I1008 13:08:07.592142  6340 net.cpp:137] Memory required for data: 205036200
I1008 13:08:07.592150  6340 layer_factory.hpp:77] Creating layer elu_cccp6
I1008 13:08:07.592154  6340 net.cpp:84] Creating Layer elu_cccp6
I1008 13:08:07.592157  6340 net.cpp:406] elu_cccp6 <- cccp6
I1008 13:08:07.592164  6340 net.cpp:380] elu_cccp6 -> elu_cccp6
I1008 13:08:07.592190  6340 net.cpp:122] Setting up elu_cccp6
I1008 13:08:07.592196  6340 net.cpp:129] Top shape: 50 10 7 7 (24500)
I1008 13:08:07.592198  6340 net.cpp:137] Memory required for data: 205134200
I1008 13:08:07.592200  6340 layer_factory.hpp:77] Creating layer pool3
I1008 13:08:07.592224  6340 net.cpp:84] Creating Layer pool3
I1008 13:08:07.592228  6340 net.cpp:406] pool3 <- elu_cccp6
I1008 13:08:07.592231  6340 net.cpp:380] pool3 -> pool3
I1008 13:08:07.592705  6340 net.cpp:122] Setting up pool3
I1008 13:08:07.592715  6340 net.cpp:129] Top shape: 50 10 1 1 (500)
I1008 13:08:07.592726  6340 net.cpp:137] Memory required for data: 205136200
I1008 13:08:07.592730  6340 layer_factory.hpp:77] Creating layer pool3_pool3_0_split
I1008 13:08:07.592733  6340 net.cpp:84] Creating Layer pool3_pool3_0_split
I1008 13:08:07.592737  6340 net.cpp:406] pool3_pool3_0_split <- pool3
I1008 13:08:07.592741  6340 net.cpp:380] pool3_pool3_0_split -> pool3_pool3_0_split_0
I1008 13:08:07.592746  6340 net.cpp:380] pool3_pool3_0_split -> pool3_pool3_0_split_1
I1008 13:08:07.592789  6340 net.cpp:122] Setting up pool3_pool3_0_split
I1008 13:08:07.592793  6340 net.cpp:129] Top shape: 50 10 1 1 (500)
I1008 13:08:07.592797  6340 net.cpp:129] Top shape: 50 10 1 1 (500)
I1008 13:08:07.592799  6340 net.cpp:137] Memory required for data: 205140200
I1008 13:08:07.592802  6340 layer_factory.hpp:77] Creating layer accuracy
I1008 13:08:07.592806  6340 net.cpp:84] Creating Layer accuracy
I1008 13:08:07.592809  6340 net.cpp:406] accuracy <- pool3_pool3_0_split_0
I1008 13:08:07.592813  6340 net.cpp:406] accuracy <- label_cifar_1_split_0
I1008 13:08:07.592816  6340 net.cpp:380] accuracy -> accuracy
…
