…
I0918 13:29:38.550165 32398 net.cpp:294] The NetState phase (0) differed from the phase (1) specified by a rule in layer cifar
I0918 13:29:38.550384 32398 net.cpp:51] Initializing net from parameters: 
name: "nin"
state {
  phase: TRAIN
  level: 0
  stage: ""
}
layer {
  name: "cifar"
  type: "Data"
  top: "data"
  top: "label"
  include {
    phase: TRAIN
  }
  transform_param {
    mirror: true
    crop_size: 28
    mean_file: "/home/x306/caffe/xn/PENLU/data/cifar10/mean.binaryproto"
  }
  data_param {
    source: "/home/x306/caffe/xn/PENLU/data/cifar10/cifar10_train_lmdb"
    batch_size: 64
    backend: LMDB
  }
  image_data_param {
    shuffle: true
  }
}
layer {
  name: "conv1"
  type: "Convolution"
  bottom: "data"
  top: "conv1"
  param {
    lr_mult: 1
    decay_mult: 1
  }
  param {
    lr_mult: 2
    decay_mult: 0
  }
  convolution_param {
    num_output: 192
    pad: 2
    kernel_size: 5
    weight_filler {
      type: "gaussian"
      std: 0.05
    }
    bias_filler {
      type: "constant"
      value: 0
    }
  }
}
layer {
  name: "penlu_conv1"
  type: "PENLU"
  bottom: "conv1"
  top: "penlu_conv1"
  param {
    lr_mult: 1
    decay_mult: 0
  }
  param {
    lr_mult: 1
    decay_mult: 0
  }
  param {
    lr_mult: 1
    decay_mult: 0
  }
  penlu_param {
    alpha_filler {
      type: "constant"
      value: 1
    }
    beta_filler {
      type: "constant"
      value: 1
    }
    eta_filler {
      type: "constant"
      value: 0.9
    }
  }
}
layer {
  name: "cccp1"
  type: "Convolution"
  bottom: "penlu_conv1"
  top: "cccp1"
  param {
    lr_mult: 1
    decay_mult: 1
  }
  param {
    lr_mult: 2
    decay_mult: 0
  }
  convolution_param {
    num_output: 160
    kernel_size: 1
    weight_filler {
      type: "gaussian"
      std: 0.05
    }
    bias_filler {
      type: "constant"
      value: 0
    }
  }
}
layer {
  name: "penlu_cccp1"
  type: "PENLU"
  bottom: "cccp1"
  top: "penlu_cccp1"
  param {
    lr_mult: 1
    decay_mult: 0
  }
  param {
    lr_mult: 1
    decay_mult: 0
  }
  param {
    lr_mult: 1
    decay_mult: 0
  }
  penlu_param {
    alpha_filler {
      type: "constant"
      value: 1
    }
    beta_filler {
      type: "constant"
      value: 1
    }
    eta_filler {
      type: "constant"
      value: 0.9
    }
  }
}
layer {
  name: "cccp2"
  type: "Convolution"
  bottom: "penlu_cccp1"
  top: "cccp2"
  param {
    lr_mult: 1
    decay_mult: 1
  }
  param {
    lr_mult: 2
    decay_mult: 0
  }
  convolution_param {
    num_output: 96
    kernel_size: 1
    weight_filler {
      type: "gaussian"
      std: 0.05
    }
    bias_filler {
      type: "constant"
      value: 0
    }
  }
}
layer {
  name: "penlu_cccp2"
  type: "PENLU"
  bottom: "cccp2"
  top: "penlu_cccp2"
  param {
    lr_mult: 1
    decay_mult: 0
  }
  param {
    lr_mult: 1
    decay_mult: 0
  }
  param {
    lr_mult: 1
    decay_mult: 0
  }
  penlu_param {
    alpha_filler {
      type: "constant"
      value: 1
    }
    beta_filler {
      type: "constant"
      value: 1
    }
    eta_filler {
      type: "constant"
      value: 0.9
    }
  }
}
layer {
  name: "pool1"
  type: "Pooling"
  bottom: "penlu_cccp2"
  top: "pool1"
  pooling_param {
    pool: MAX
    kernel_size: 3
    stride: 2
  }
}
layer {
  name: "dropout1"
  type: "Dropout"
  bottom: "pool1"
  top: "dropout1"
  dropout_param {
    dropout_ratio: 0.5
  }
}
layer {
  name: "conv2"
  type: "Convolution"
  bottom: "dropout1"
  top: "conv2"
  param {
    lr_mult: 1
    decay_mult: 1
  }
  param {
    lr_mult: 2
    decay_mult: 0
  }
  convolution_param {
    num_output: 192
    pad: 2
    kernel_size: 5
    weight_filler {
      type: "gaussian"
      std: 0.05
    }
    bias_filler {
      type: "constant"
      value: 0
    }
  }
}
layer {
  name: "penlu_conv2"
  type: "PENLU"
  bottom: "conv2"
  top: "penlu_conv2"
  param {
    lr_mult: 1
    decay_mult: 0
  }
  param {
    lr_mult: 1
    decay_mult: 0
  }
  param {
    lr_mult: 1
    decay_mult: 0
  }
  penlu_param {
    alpha_filler {
      type: "constant"
      value: 1
    }
    beta_filler {
      type: "constant"
      value: 1
    }
    eta_filler {
      type: "constant"
      value: 0.9
    }
  }
}
layer {
  name: "cccp3"
  type: "Convolution"
  bottom: "penlu_conv2"
  top: "cccp3"
  param {
    lr_mult: 1
    decay_mult: 1
  }
  param {
    lr_mult: 2
    decay_mult: 0
  }
  convolution_param {
    num_output: 192
    kernel_size: 1
    weight_filler {
      type: "gaussian"
      std: 0.05
    }
    bias_filler {
      type: "constant"
      value: 0
    }
  }
}
layer {
  name: "penlu_cccp3"
  type: "PENLU"
  bottom: "cccp3"
  top: "penlu_cccp3"
  param {
    lr_mult: 1
    decay_mult: 0
  }
  param {
    lr_mult: 1
    decay_mult: 0
  }
  param {
    lr_mult: 1
    decay_mult: 0
  }
  penlu_param {
    alpha_filler {
      type: "constant"
      value: 1
    }
    beta_filler {
      type: "constant"
      value: 1
    }
    eta_filler {
      type: "constant"
      value: 0.9
    }
  }
}
layer {
  name: "cccp4"
  type: "Convolution"
  bottom: "penlu_cccp3"
  top: "cccp4"
  param {
    lr_mult: 1
    decay_mult: 1
  }
  param {
    lr_mult: 2
    decay_mult: 0
  }
  convolution_param {
    num_output: 192
    kernel_size: 1
    weight_filler {
      type: "gaussian"
      std: 0.05
    }
    bias_filler {
      type: "constant"
      value: 0
    }
  }
}
layer {
  name: "penlu_cccp4"
  type: "PENLU"
  bottom: "cccp4"
  top: "penlu_cccp4"
  param {
    lr_mult: 1
    decay_mult: 0
  }
  param {
    lr_mult: 1
    decay_mult: 0
  }
  param {
    lr_mult: 1
    decay_mult: 0
  }
  penlu_param {
    alpha_filler {
      type: "constant"
      value: 1
    }
    beta_filler {
      type: "constant"
      value: 1
    }
    eta_filler {
      type: "constant"
      value: 0.9
    }
  }
}
layer {
  name: "pool2"
  type: "Pooling"
  bottom: "penlu_cccp4"
  top: "pool2"
  pooling_param {
    pool: AVE
    kernel_size: 3
    stride: 2
  }
}
layer {
  name: "dropout2"
  type: "Dropout"
  bottom: "pool2"
  top: "dropout2"
  dropout_param {
    dropout_ratio: 0.5
  }
}
layer {
  name: "conv3"
  type: "Convolution"
  bottom: "dropout2"
  top: "conv3"
  param {
    lr_mult: 1
    decay_mult: 1
  }
  param {
    lr_mult: 2
    decay_mult: 0
  }
  convolution_param {
    num_output: 192
    pad: 1
    kernel_size: 3
    weight_filler {
      type: "gaussian"
      std: 0.05
    }
    bias_filler {
      type: "constant"
      value: 0
    }
  }
}
layer {
  name: "penlu_conv3"
  type: "PENLU"
  bottom: "conv3"
  top: "penlu_conv3"
  param {
    lr_mult: 1
    decay_mult: 0
  }
  param {
    lr_mult: 1
    decay_mult: 0
  }
  param {
    lr_mult: 1
    decay_mult: 0
  }
  penlu_param {
    alpha_filler {
      type: "constant"
      value: 1
    }
    beta_filler {
      type: "constant"
      value: 1
    }
    eta_filler {
      type: "constant"
      value: 0.9
    }
  }
}
layer {
  name: "cccp5"
  type: "Convolution"
  bottom: "penlu_conv3"
  top: "cccp5"
  param {
    lr_mult: 1
    decay_mult: 1
  }
  param {
    lr_mult: 2
    decay_mult: 0
  }
  convolution_param {
    num_output: 192
    kernel_size: 1
    weight_filler {
      type: "gaussian"
      std: 0.05
    }
    bias_filler {
      type: "constant"
      value: 0
    }
  }
}
layer {
  name: "penlu_cccp5"
  type: "PENLU"
  bottom: "cccp5"
  top: "penlu_cccp5"
  param {
    lr_mult: 1
    decay_mult: 0
  }
  param {
    lr_mult: 1
    decay_mult: 0
  }
  param {
    lr_mult: 1
    decay_mult: 0
  }
  penlu_param {
    alpha_filler {
      type: "constant"
      value: 1
    }
    beta_filler {
      type: "constant"
      value: 1
    }
    eta_filler {
      type: "constant"
      value: 0.9
    }
  }
}
layer {
  name: "cccp6"
  type: "Convolution"
  bottom: "penlu_cccp5"
  top: "cccp6"
  param {
    lr_mult: 0.1
    decay_mult: 1
  }
  param {
    lr_mult: 0.1
    decay_mult: 0
  }
  convolution_param {
    num_output: 10
    kernel_size: 1
    weight_filler {
      type: "gaussian"
      std: 0.05
    }
    bias_filler {
      type: "constant"
      value: 0
    }
  }
}
layer {
  name: "penlu_cccp6"
  type: "PENLU"
  bottom: "cccp6"
  top: "penlu_cccp6"
  param {
    lr_mult: 1
    decay_mult: 0
  }
  param {
    lr_mult: 1
    decay_mult: 0
  }
  param {
    lr_mult: 1
    decay_mult: 0
  }
  penlu_param {
    alpha_filler {
      type: "constant"
      value: 1
    }
    beta_filler {
      type: "constant"
      value: 1
    }
    eta_filler {
      type: "constant"
      value: 0.9
    }
  }
}
layer {
  name: "pool3"
  type: "Pooling"
  bottom: "penlu_cccp6"
  top: "pool3"
  pooling_param {
    pool: AVE
    kernel_size: 7
    stride: 1
  }
}
layer {
  name: "accuracy"
  type: "Accuracy"
  bottom: "pool3"
  bottom: "label"
  top: "accuracy"
}
layer {
  name: "loss"
  type: "SoftmaxWithLoss"
  bottom: "pool3"
  bottom: "label"
  top: "loss"
}
I0918 13:29:38.550570 32398 layer_factory.hpp:77] Creating layer cifar
I0918 13:29:38.550673 32398 db_lmdb.cpp:35] Opened lmdb /home/x306/caffe/xn/PENLU/data/cifar10/cifar10_train_lmdb
I0918 13:29:38.550690 32398 net.cpp:84] Creating Layer cifar
I0918 13:29:38.550696 32398 net.cpp:380] cifar -> data
I0918 13:29:38.550722 32398 net.cpp:380] cifar -> label
I0918 13:29:38.550734 32398 data_transformer.cpp:25] Loading mean file from: /home/x306/caffe/xn/PENLU/data/cifar10/mean.binaryproto
I0918 13:29:38.552171 32398 data_layer.cpp:45] output data size: 64,3,28,28
I0918 13:29:38.554301 32398 net.cpp:122] Setting up cifar
I0918 13:29:38.554324 32398 net.cpp:129] Top shape: 64 3 28 28 (150528)
I0918 13:29:38.554329 32398 net.cpp:129] Top shape: 64 (64)
I0918 13:29:38.554332 32398 net.cpp:137] Memory required for data: 602368
I0918 13:29:38.554338 32398 layer_factory.hpp:77] Creating layer label_cifar_1_split
I0918 13:29:38.554350 32398 net.cpp:84] Creating Layer label_cifar_1_split
I0918 13:29:38.554355 32398 net.cpp:406] label_cifar_1_split <- label
I0918 13:29:38.554364 32398 net.cpp:380] label_cifar_1_split -> label_cifar_1_split_0
I0918 13:29:38.554371 32398 net.cpp:380] label_cifar_1_split -> label_cifar_1_split_1
I0918 13:29:38.554402 32398 net.cpp:122] Setting up label_cifar_1_split
I0918 13:29:38.554407 32398 net.cpp:129] Top shape: 64 (64)
I0918 13:29:38.554410 32398 net.cpp:129] Top shape: 64 (64)
I0918 13:29:38.554412 32398 net.cpp:137] Memory required for data: 602880
I0918 13:29:38.554414 32398 layer_factory.hpp:77] Creating layer conv1
I0918 13:29:38.554427 32398 net.cpp:84] Creating Layer conv1
I0918 13:29:38.554430 32398 net.cpp:406] conv1 <- data
I0918 13:29:38.554435 32398 net.cpp:380] conv1 -> conv1
I0918 13:29:38.702002 32398 net.cpp:122] Setting up conv1
I0918 13:29:38.702025 32398 net.cpp:129] Top shape: 64 192 28 28 (9633792)
I0918 13:29:38.702028 32398 net.cpp:137] Memory required for data: 39138048
I0918 13:29:38.702044 32398 layer_factory.hpp:77] Creating layer penlu_conv1
I0918 13:29:38.702070 32398 net.cpp:84] Creating Layer penlu_conv1
I0918 13:29:38.702075 32398 net.cpp:406] penlu_conv1 <- conv1
I0918 13:29:38.702080 32398 net.cpp:380] penlu_conv1 -> penlu_conv1
I0918 13:29:38.702294 32398 net.cpp:122] Setting up penlu_conv1
I0918 13:29:38.702301 32398 net.cpp:129] Top shape: 64 192 28 28 (9633792)
I0918 13:29:38.702302 32398 net.cpp:137] Memory required for data: 77673216
I0918 13:29:38.702309 32398 layer_factory.hpp:77] Creating layer cccp1
I0918 13:29:38.702317 32398 net.cpp:84] Creating Layer cccp1
I0918 13:29:38.702320 32398 net.cpp:406] cccp1 <- penlu_conv1
I0918 13:29:38.702324 32398 net.cpp:380] cccp1 -> cccp1
I0918 13:29:38.704316 32398 net.cpp:122] Setting up cccp1
I0918 13:29:38.704327 32398 net.cpp:129] Top shape: 64 160 28 28 (8028160)
I0918 13:29:38.704330 32398 net.cpp:137] Memory required for data: 109785856
I0918 13:29:38.704334 32398 layer_factory.hpp:77] Creating layer penlu_cccp1
I0918 13:29:38.704340 32398 net.cpp:84] Creating Layer penlu_cccp1
I0918 13:29:38.704344 32398 net.cpp:406] penlu_cccp1 <- cccp1
I0918 13:29:38.704357 32398 net.cpp:380] penlu_cccp1 -> penlu_cccp1
I0918 13:29:38.704565 32398 net.cpp:122] Setting up penlu_cccp1
I0918 13:29:38.704571 32398 net.cpp:129] Top shape: 64 160 28 28 (8028160)
I0918 13:29:38.704572 32398 net.cpp:137] Memory required for data: 141898496
I0918 13:29:38.704579 32398 layer_factory.hpp:77] Creating layer cccp2
I0918 13:29:38.704586 32398 net.cpp:84] Creating Layer cccp2
I0918 13:29:38.704587 32398 net.cpp:406] cccp2 <- penlu_cccp1
I0918 13:29:38.704602 32398 net.cpp:380] cccp2 -> cccp2
I0918 13:29:38.705729 32398 net.cpp:122] Setting up cccp2
I0918 13:29:38.705739 32398 net.cpp:129] Top shape: 64 96 28 28 (4816896)
I0918 13:29:38.705742 32398 net.cpp:137] Memory required for data: 161166080
I0918 13:29:38.705746 32398 layer_factory.hpp:77] Creating layer penlu_cccp2
I0918 13:29:38.705752 32398 net.cpp:84] Creating Layer penlu_cccp2
I0918 13:29:38.705754 32398 net.cpp:406] penlu_cccp2 <- cccp2
I0918 13:29:38.705770 32398 net.cpp:380] penlu_cccp2 -> penlu_cccp2
I0918 13:29:38.705945 32398 net.cpp:122] Setting up penlu_cccp2
I0918 13:29:38.705951 32398 net.cpp:129] Top shape: 64 96 28 28 (4816896)
I0918 13:29:38.705955 32398 net.cpp:137] Memory required for data: 180433664
I0918 13:29:38.705958 32398 layer_factory.hpp:77] Creating layer pool1
I0918 13:29:38.705965 32398 net.cpp:84] Creating Layer pool1
I0918 13:29:38.705979 32398 net.cpp:406] pool1 <- penlu_cccp2
I0918 13:29:38.705983 32398 net.cpp:380] pool1 -> pool1
I0918 13:29:38.706048 32398 net.cpp:122] Setting up pool1
I0918 13:29:38.706051 32398 net.cpp:129] Top shape: 64 96 14 14 (1204224)
I0918 13:29:38.706053 32398 net.cpp:137] Memory required for data: 185250560
I0918 13:29:38.706066 32398 layer_factory.hpp:77] Creating layer dropout1
I0918 13:29:38.706070 32398 net.cpp:84] Creating Layer dropout1
I0918 13:29:38.706082 32398 net.cpp:406] dropout1 <- pool1
I0918 13:29:38.706085 32398 net.cpp:380] dropout1 -> dropout1
I0918 13:29:38.706146 32398 net.cpp:122] Setting up dropout1
I0918 13:29:38.706151 32398 net.cpp:129] Top shape: 64 96 14 14 (1204224)
I0918 13:29:38.706153 32398 net.cpp:137] Memory required for data: 190067456
I0918 13:29:38.706167 32398 layer_factory.hpp:77] Creating layer conv2
I0918 13:29:38.706174 32398 net.cpp:84] Creating Layer conv2
I0918 13:29:38.706190 32398 net.cpp:406] conv2 <- dropout1
I0918 13:29:38.706194 32398 net.cpp:380] conv2 -> conv2
I0918 13:29:38.718092 32398 net.cpp:122] Setting up conv2
I0918 13:29:38.718107 32398 net.cpp:129] Top shape: 64 192 14 14 (2408448)
I0918 13:29:38.718111 32398 net.cpp:137] Memory required for data: 199701248
I0918 13:29:38.718122 32398 layer_factory.hpp:77] Creating layer penlu_conv2
I0918 13:29:38.718129 32398 net.cpp:84] Creating Layer penlu_conv2
I0918 13:29:38.718142 32398 net.cpp:406] penlu_conv2 <- conv2
I0918 13:29:38.718147 32398 net.cpp:380] penlu_conv2 -> penlu_conv2
I0918 13:29:38.718300 32398 net.cpp:122] Setting up penlu_conv2
I0918 13:29:38.718307 32398 net.cpp:129] Top shape: 64 192 14 14 (2408448)
I0918 13:29:38.718308 32398 net.cpp:137] Memory required for data: 209335040
I0918 13:29:38.718313 32398 layer_factory.hpp:77] Creating layer cccp3
I0918 13:29:38.718333 32398 net.cpp:84] Creating Layer cccp3
I0918 13:29:38.718335 32398 net.cpp:406] cccp3 <- penlu_conv2
I0918 13:29:38.718339 32398 net.cpp:380] cccp3 -> cccp3
I0918 13:29:38.720027 32398 net.cpp:122] Setting up cccp3
I0918 13:29:38.720038 32398 net.cpp:129] Top shape: 64 192 14 14 (2408448)
I0918 13:29:38.720042 32398 net.cpp:137] Memory required for data: 218968832
I0918 13:29:38.720057 32398 layer_factory.hpp:77] Creating layer penlu_cccp3
I0918 13:29:38.720064 32398 net.cpp:84] Creating Layer penlu_cccp3
I0918 13:29:38.720077 32398 net.cpp:406] penlu_cccp3 <- cccp3
I0918 13:29:38.720082 32398 net.cpp:380] penlu_cccp3 -> penlu_cccp3
I0918 13:29:38.720219 32398 net.cpp:122] Setting up penlu_cccp3
I0918 13:29:38.720227 32398 net.cpp:129] Top shape: 64 192 14 14 (2408448)
I0918 13:29:38.720228 32398 net.cpp:137] Memory required for data: 228602624
I0918 13:29:38.720243 32398 layer_factory.hpp:77] Creating layer cccp4
I0918 13:29:38.720250 32398 net.cpp:84] Creating Layer cccp4
I0918 13:29:38.720254 32398 net.cpp:406] cccp4 <- penlu_cccp3
I0918 13:29:38.720258 32398 net.cpp:380] cccp4 -> cccp4
I0918 13:29:38.721906 32398 net.cpp:122] Setting up cccp4
I0918 13:29:38.721917 32398 net.cpp:129] Top shape: 64 192 14 14 (2408448)
I0918 13:29:38.721920 32398 net.cpp:137] Memory required for data: 238236416
I0918 13:29:38.721935 32398 layer_factory.hpp:77] Creating layer penlu_cccp4
I0918 13:29:38.721943 32398 net.cpp:84] Creating Layer penlu_cccp4
I0918 13:29:38.721946 32398 net.cpp:406] penlu_cccp4 <- cccp4
I0918 13:29:38.721951 32398 net.cpp:380] penlu_cccp4 -> penlu_cccp4
I0918 13:29:38.722095 32398 net.cpp:122] Setting up penlu_cccp4
I0918 13:29:38.722101 32398 net.cpp:129] Top shape: 64 192 14 14 (2408448)
I0918 13:29:38.722105 32398 net.cpp:137] Memory required for data: 247870208
I0918 13:29:38.722121 32398 layer_factory.hpp:77] Creating layer pool2
I0918 13:29:38.722137 32398 net.cpp:84] Creating Layer pool2
I0918 13:29:38.722141 32398 net.cpp:406] pool2 <- penlu_cccp4
I0918 13:29:38.722146 32398 net.cpp:380] pool2 -> pool2
I0918 13:29:38.722287 32398 net.cpp:122] Setting up pool2
I0918 13:29:38.722295 32398 net.cpp:129] Top shape: 64 192 7 7 (602112)
I0918 13:29:38.722297 32398 net.cpp:137] Memory required for data: 250278656
I0918 13:29:38.722314 32398 layer_factory.hpp:77] Creating layer dropout2
I0918 13:29:38.722321 32398 net.cpp:84] Creating Layer dropout2
I0918 13:29:38.722323 32398 net.cpp:406] dropout2 <- pool2
I0918 13:29:38.722327 32398 net.cpp:380] dropout2 -> dropout2
I0918 13:29:38.722353 32398 net.cpp:122] Setting up dropout2
I0918 13:29:38.722368 32398 net.cpp:129] Top shape: 64 192 7 7 (602112)
I0918 13:29:38.722370 32398 net.cpp:137] Memory required for data: 252687104
I0918 13:29:38.722373 32398 layer_factory.hpp:77] Creating layer conv3
I0918 13:29:38.722389 32398 net.cpp:84] Creating Layer conv3
I0918 13:29:38.722393 32398 net.cpp:406] conv3 <- dropout2
I0918 13:29:38.722398 32398 net.cpp:380] conv3 -> conv3
I0918 13:29:38.731631 32398 net.cpp:122] Setting up conv3
I0918 13:29:38.731647 32398 net.cpp:129] Top shape: 64 192 7 7 (602112)
I0918 13:29:38.731649 32398 net.cpp:137] Memory required for data: 255095552
I0918 13:29:38.731667 32398 layer_factory.hpp:77] Creating layer penlu_conv3
I0918 13:29:38.731680 32398 net.cpp:84] Creating Layer penlu_conv3
I0918 13:29:38.731688 32398 net.cpp:406] penlu_conv3 <- conv3
I0918 13:29:38.731696 32398 net.cpp:380] penlu_conv3 -> penlu_conv3
I0918 13:29:38.731832 32398 net.cpp:122] Setting up penlu_conv3
I0918 13:29:38.731838 32398 net.cpp:129] Top shape: 64 192 7 7 (602112)
I0918 13:29:38.731851 32398 net.cpp:137] Memory required for data: 257504000
I0918 13:29:38.731861 32398 layer_factory.hpp:77] Creating layer cccp5
I0918 13:29:38.731868 32398 net.cpp:84] Creating Layer cccp5
I0918 13:29:38.731873 32398 net.cpp:406] cccp5 <- penlu_conv3
I0918 13:29:38.731876 32398 net.cpp:380] cccp5 -> cccp5
I0918 13:29:38.733623 32398 net.cpp:122] Setting up cccp5
I0918 13:29:38.733633 32398 net.cpp:129] Top shape: 64 192 7 7 (602112)
I0918 13:29:38.733636 32398 net.cpp:137] Memory required for data: 259912448
I0918 13:29:38.733641 32398 layer_factory.hpp:77] Creating layer penlu_cccp5
I0918 13:29:38.733649 32398 net.cpp:84] Creating Layer penlu_cccp5
I0918 13:29:38.733652 32398 net.cpp:406] penlu_cccp5 <- cccp5
I0918 13:29:38.733657 32398 net.cpp:380] penlu_cccp5 -> penlu_cccp5
I0918 13:29:38.733772 32398 net.cpp:122] Setting up penlu_cccp5
I0918 13:29:38.733777 32398 net.cpp:129] Top shape: 64 192 7 7 (602112)
I0918 13:29:38.733781 32398 net.cpp:137] Memory required for data: 262320896
I0918 13:29:38.733794 32398 layer_factory.hpp:77] Creating layer cccp6
I0918 13:29:38.733803 32398 net.cpp:84] Creating Layer cccp6
I0918 13:29:38.733806 32398 net.cpp:406] cccp6 <- penlu_cccp5
I0918 13:29:38.733811 32398 net.cpp:380] cccp6 -> cccp6
I0918 13:29:38.734697 32398 net.cpp:122] Setting up cccp6
I0918 13:29:38.734707 32398 net.cpp:129] Top shape: 64 10 7 7 (31360)
I0918 13:29:38.734711 32398 net.cpp:137] Memory required for data: 262446336
I0918 13:29:38.734726 32398 layer_factory.hpp:77] Creating layer penlu_cccp6
I0918 13:29:38.734733 32398 net.cpp:84] Creating Layer penlu_cccp6
I0918 13:29:38.734736 32398 net.cpp:406] penlu_cccp6 <- cccp6
I0918 13:29:38.734740 32398 net.cpp:380] penlu_cccp6 -> penlu_cccp6
I0918 13:29:38.734881 32398 net.cpp:122] Setting up penlu_cccp6
I0918 13:29:38.734886 32398 net.cpp:129] Top shape: 64 10 7 7 (31360)
I0918 13:29:38.734889 32398 net.cpp:137] Memory required for data: 262571776
I0918 13:29:38.734905 32398 layer_factory.hpp:77] Creating layer pool3
I0918 13:29:38.734910 32398 net.cpp:84] Creating Layer pool3
I0918 13:29:38.734925 32398 net.cpp:406] pool3 <- penlu_cccp6
I0918 13:29:38.734927 32398 net.cpp:380] pool3 -> pool3
I0918 13:29:38.735072 32398 net.cpp:122] Setting up pool3
I0918 13:29:38.735080 32398 net.cpp:129] Top shape: 64 10 1 1 (640)
I0918 13:29:38.735082 32398 net.cpp:137] Memory required for data: 262574336
I0918 13:29:38.735095 32398 layer_factory.hpp:77] Creating layer pool3_pool3_0_split
I0918 13:29:38.735100 32398 net.cpp:84] Creating Layer pool3_pool3_0_split
I0918 13:29:38.735114 32398 net.cpp:406] pool3_pool3_0_split <- pool3
I0918 13:29:38.735118 32398 net.cpp:380] pool3_pool3_0_split -> pool3_pool3_0_split_0
I0918 13:29:38.735124 32398 net.cpp:380] pool3_pool3_0_split -> pool3_pool3_0_split_1
I0918 13:29:38.735157 32398 net.cpp:122] Setting up pool3_pool3_0_split
I0918 13:29:38.735162 32398 net.cpp:129] Top shape: 64 10 1 1 (640)
I0918 13:29:38.735165 32398 net.cpp:129] Top shape: 64 10 1 1 (640)
I0918 13:29:38.735178 32398 net.cpp:137] Memory required for data: 262579456
I0918 13:29:38.735182 32398 layer_factory.hpp:77] Creating layer accuracy
I0918 13:29:38.735196 32398 net.cpp:84] Creating Layer accuracy
I0918 13:29:38.735199 32398 net.cpp:406] accuracy <- pool3_pool3_0_split_0
I0918 13:29:38.735203 32398 net.cpp:406] accuracy <- label_cifar_1_split_0
I0918 13:29:38.735216 32398 net.cpp:380] accuracy -> accuracy
…
I0918 13:29:38.736234 32398 net.cpp:294] The NetState phase (1) differed from the phase (0) specified by a rule in layer cifar
I0918 13:29:38.736410 32398 net.cpp:51] Initializing net from parameters: 
name: "nin"
state {
  phase: TEST
}
layer {
  name: "cifar"
  type: "Data"
  top: "data"
  top: "label"
  include {
    phase: TEST
  }
  transform_param {
    mirror: false
    crop_size: 28
    mean_file: "/home/x306/caffe/xn/PENLU/data/cifar10/mean.binaryproto"
  }
  data_param {
    source: "/home/x306/caffe/xn/PENLU/data/cifar10/cifar10_test_lmdb"
    batch_size: 50
    backend: LMDB
  }
}
layer {
  name: "conv1"
  type: "Convolution"
  bottom: "data"
  top: "conv1"
  param {
    lr_mult: 1
    decay_mult: 1
  }
  param {
    lr_mult: 2
    decay_mult: 0
  }
  convolution_param {
    num_output: 192
    pad: 2
    kernel_size: 5
    weight_filler {
      type: "gaussian"
      std: 0.05
    }
    bias_filler {
      type: "constant"
      value: 0
    }
  }
}
layer {
  name: "penlu_conv1"
  type: "PENLU"
  bottom: "conv1"
  top: "penlu_conv1"
  param {
    lr_mult: 1
    decay_mult: 0
  }
  param {
    lr_mult: 1
    decay_mult: 0
  }
  param {
    lr_mult: 1
    decay_mult: 0
  }
  penlu_param {
    alpha_filler {
      type: "constant"
      value: 1
    }
    beta_filler {
      type: "constant"
      value: 1
    }
    eta_filler {
      type: "constant"
      value: 0.9
    }
  }
}
layer {
  name: "cccp1"
  type: "Convolution"
  bottom: "penlu_conv1"
  top: "cccp1"
  param {
    lr_mult: 1
    decay_mult: 1
  }
  param {
    lr_mult: 2
    decay_mult: 0
  }
  convolution_param {
    num_output: 160
    kernel_size: 1
    weight_filler {
      type: "gaussian"
      std: 0.05
    }
    bias_filler {
      type: "constant"
      value: 0
    }
  }
}
layer {
  name: "penlu_cccp1"
  type: "PENLU"
  bottom: "cccp1"
  top: "penlu_cccp1"
  param {
    lr_mult: 1
    decay_mult: 0
  }
  param {
    lr_mult: 1
    decay_mult: 0
  }
  param {
    lr_mult: 1
    decay_mult: 0
  }
  penlu_param {
    alpha_filler {
      type: "constant"
      value: 1
    }
    beta_filler {
      type: "constant"
      value: 1
    }
    eta_filler {
      type: "constant"
      value: 0.9
    }
  }
}
layer {
  name: "cccp2"
  type: "Convolution"
  bottom: "penlu_cccp1"
  top: "cccp2"
  param {
    lr_mult: 1
    decay_mult: 1
  }
  param {
    lr_mult: 2
    decay_mult: 0
  }
  convolution_param {
    num_output: 96
    kernel_size: 1
    weight_filler {
      type: "gaussian"
      std: 0.05
    }
    bias_filler {
      type: "constant"
      value: 0
    }
  }
}
layer {
  name: "penlu_cccp2"
  type: "PENLU"
  bottom: "cccp2"
  top: "penlu_cccp2"
  param {
    lr_mult: 1
    decay_mult: 0
  }
  param {
    lr_mult: 1
    decay_mult: 0
  }
  param {
    lr_mult: 1
    decay_mult: 0
  }
  penlu_param {
    alpha_filler {
      type: "constant"
      value: 1
    }
    beta_filler {
      type: "constant"
      value: 1
    }
    eta_filler {
      type: "constant"
      value: 0.9
    }
  }
}
layer {
  name: "pool1"
  type: "Pooling"
  bottom: "penlu_cccp2"
  top: "pool1"
  pooling_param {
    pool: MAX
    kernel_size: 3
    stride: 2
  }
}
layer {
  name: "dropout1"
  type: "Dropout"
  bottom: "pool1"
  top: "dropout1"
  dropout_param {
    dropout_ratio: 0.5
  }
}
layer {
  name: "conv2"
  type: "Convolution"
  bottom: "dropout1"
  top: "conv2"
  param {
    lr_mult: 1
    decay_mult: 1
  }
  param {
    lr_mult: 2
    decay_mult: 0
  }
  convolution_param {
    num_output: 192
    pad: 2
    kernel_size: 5
    weight_filler {
      type: "gaussian"
      std: 0.05
    }
    bias_filler {
      type: "constant"
      value: 0
    }
  }
}
layer {
  name: "penlu_conv2"
  type: "PENLU"
  bottom: "conv2"
  top: "penlu_conv2"
  param {
    lr_mult: 1
    decay_mult: 0
  }
  param {
    lr_mult: 1
    decay_mult: 0
  }
  param {
    lr_mult: 1
    decay_mult: 0
  }
  penlu_param {
    alpha_filler {
      type: "constant"
      value: 1
    }
    beta_filler {
      type: "constant"
      value: 1
    }
    eta_filler {
      type: "constant"
      value: 0.9
    }
  }
}
layer {
  name: "cccp3"
  type: "Convolution"
  bottom: "penlu_conv2"
  top: "cccp3"
  param {
    lr_mult: 1
    decay_mult: 1
  }
  param {
    lr_mult: 2
    decay_mult: 0
  }
  convolution_param {
    num_output: 192
    kernel_size: 1
    weight_filler {
      type: "gaussian"
      std: 0.05
    }
    bias_filler {
      type: "constant"
      value: 0
    }
  }
}
layer {
  name: "penlu_cccp3"
  type: "PENLU"
  bottom: "cccp3"
  top: "penlu_cccp3"
  param {
    lr_mult: 1
    decay_mult: 0
  }
  param {
    lr_mult: 1
    decay_mult: 0
  }
  param {
    lr_mult: 1
    decay_mult: 0
  }
  penlu_param {
    alpha_filler {
      type: "constant"
      value: 1
    }
    beta_filler {
      type: "constant"
      value: 1
    }
    eta_filler {
      type: "constant"
      value: 0.9
    }
  }
}
layer {
  name: "cccp4"
  type: "Convolution"
  bottom: "penlu_cccp3"
  top: "cccp4"
  param {
    lr_mult: 1
    decay_mult: 1
  }
  param {
    lr_mult: 2
    decay_mult: 0
  }
  convolution_param {
    num_output: 192
    kernel_size: 1
    weight_filler {
      type: "gaussian"
      std: 0.05
    }
    bias_filler {
      type: "constant"
      value: 0
    }
  }
}
layer {
  name: "penlu_cccp4"
  type: "PENLU"
  bottom: "cccp4"
  top: "penlu_cccp4"
  param {
    lr_mult: 1
    decay_mult: 0
  }
  param {
    lr_mult: 1
    decay_mult: 0
  }
  param {
    lr_mult: 1
    decay_mult: 0
  }
  penlu_param {
    alpha_filler {
      type: "constant"
      value: 1
    }
    beta_filler {
      type: "constant"
      value: 1
    }
    eta_filler {
      type: "constant"
      value: 0.9
    }
  }
}
layer {
  name: "pool2"
  type: "Pooling"
  bottom: "penlu_cccp4"
  top: "pool2"
  pooling_param {
    pool: AVE
    kernel_size: 3
    stride: 2
  }
}
layer {
  name: "dropout2"
  type: "Dropout"
  bottom: "pool2"
  top: "dropout2"
  dropout_param {
    dropout_ratio: 0.5
  }
}
layer {
  name: "conv3"
  type: "Convolution"
  bottom: "dropout2"
  top: "conv3"
  param {
    lr_mult: 1
    decay_mult: 1
  }
  param {
    lr_mult: 2
    decay_mult: 0
  }
  convolution_param {
    num_output: 192
    pad: 1
    kernel_size: 3
    weight_filler {
      type: "gaussian"
      std: 0.05
    }
    bias_filler {
      type: "constant"
      value: 0
    }
  }
}
layer {
  name: "penlu_conv3"
  type: "PENLU"
  bottom: "conv3"
  top: "penlu_conv3"
  param {
    lr_mult: 1
    decay_mult: 0
  }
  param {
    lr_mult: 1
    decay_mult: 0
  }
  param {
    lr_mult: 1
    decay_mult: 0
  }
  penlu_param {
    alpha_filler {
      type: "constant"
      value: 1
    }
    beta_filler {
      type: "constant"
      value: 1
    }
    eta_filler {
      type: "constant"
      value: 0.9
    }
  }
}
layer {
  name: "cccp5"
  type: "Convolution"
  bottom: "penlu_conv3"
  top: "cccp5"
  param {
    lr_mult: 1
    decay_mult: 1
  }
  param {
    lr_mult: 2
    decay_mult: 0
  }
  convolution_param {
    num_output: 192
    kernel_size: 1
    weight_filler {
      type: "gaussian"
      std: 0.05
    }
    bias_filler {
      type: "constant"
      value: 0
    }
  }
}
layer {
  name: "penlu_cccp5"
  type: "PENLU"
  bottom: "cccp5"
  top: "penlu_cccp5"
  param {
    lr_mult: 1
    decay_mult: 0
  }
  param {
    lr_mult: 1
    decay_mult: 0
  }
  param {
    lr_mult: 1
    decay_mult: 0
  }
  penlu_param {
    alpha_filler {
      type: "constant"
      value: 1
    }
    beta_filler {
      type: "constant"
      value: 1
    }
    eta_filler {
      type: "constant"
      value: 0.9
    }
  }
}
layer {
  name: "cccp6"
  type: "Convolution"
  bottom: "penlu_cccp5"
  top: "cccp6"
  param {
    lr_mult: 0.1
    decay_mult: 1
  }
  param {
    lr_mult: 0.1
    decay_mult: 0
  }
  convolution_param {
    num_output: 10
    kernel_size: 1
    weight_filler {
      type: "gaussian"
      std: 0.05
    }
    bias_filler {
      type: "constant"
      value: 0
    }
  }
}
layer {
  name: "penlu_cccp6"
  type: "PENLU"
  bottom: "cccp6"
  top: "penlu_cccp6"
  param {
    lr_mult: 1
    decay_mult: 0
  }
  param {
    lr_mult: 1
    decay_mult: 0
  }
  param {
    lr_mult: 1
    decay_mult: 0
  }
  penlu_param {
    alpha_filler {
      type: "constant"
      value: 1
    }
    beta_filler {
      type: "constant"
      value: 1
    }
    eta_filler {
      type: "constant"
      value: 0.9
    }
  }
}
layer {
  name: "pool3"
  type: "Pooling"
  bottom: "penlu_cccp6"
  top: "pool3"
  pooling_param {
    pool: AVE
    kernel_size: 7
    stride: 1
  }
}
layer {
  name: "accuracy"
  type: "Accuracy"
  bottom: "pool3"
  bottom: "label"
  top: "accuracy"
}
layer {
  name: "loss"
  type: "SoftmaxWithLoss"
  bottom: "pool3"
  bottom: "label"
  top: "loss"
}
I0918 13:29:38.736501 32398 layer_factory.hpp:77] Creating layer cifar
I0918 13:29:38.736537 32398 db_lmdb.cpp:35] Opened lmdb /home/x306/caffe/xn/PENLU/data/cifar10/cifar10_test_lmdb
I0918 13:29:38.736547 32398 net.cpp:84] Creating Layer cifar
I0918 13:29:38.736552 32398 net.cpp:380] cifar -> data
I0918 13:29:38.736557 32398 net.cpp:380] cifar -> label
I0918 13:29:38.736562 32398 data_transformer.cpp:25] Loading mean file from: /home/x306/caffe/xn/PENLU/data/cifar10/mean.binaryproto
I0918 13:29:38.736667 32398 data_layer.cpp:45] output data size: 50,3,28,28
I0918 13:29:38.737797 32398 net.cpp:122] Setting up cifar
I0918 13:29:38.737810 32398 net.cpp:129] Top shape: 50 3 28 28 (117600)
I0918 13:29:38.737815 32398 net.cpp:129] Top shape: 50 (50)
I0918 13:29:38.737818 32398 net.cpp:137] Memory required for data: 470600
I0918 13:29:38.737821 32398 layer_factory.hpp:77] Creating layer label_cifar_1_split
I0918 13:29:38.737826 32398 net.cpp:84] Creating Layer label_cifar_1_split
I0918 13:29:38.737830 32398 net.cpp:406] label_cifar_1_split <- label
I0918 13:29:38.737833 32398 net.cpp:380] label_cifar_1_split -> label_cifar_1_split_0
I0918 13:29:38.737838 32398 net.cpp:380] label_cifar_1_split -> label_cifar_1_split_1
I0918 13:29:38.737890 32398 net.cpp:122] Setting up label_cifar_1_split
I0918 13:29:38.737896 32398 net.cpp:129] Top shape: 50 (50)
I0918 13:29:38.737900 32398 net.cpp:129] Top shape: 50 (50)
I0918 13:29:38.737902 32398 net.cpp:137] Memory required for data: 471000
I0918 13:29:38.737905 32398 layer_factory.hpp:77] Creating layer conv1
I0918 13:29:38.737913 32398 net.cpp:84] Creating Layer conv1
I0918 13:29:38.737917 32398 net.cpp:406] conv1 <- data
I0918 13:29:38.737931 32398 net.cpp:380] conv1 -> conv1
I0918 13:29:38.739285 32398 net.cpp:122] Setting up conv1
I0918 13:29:38.739297 32398 net.cpp:129] Top shape: 50 192 28 28 (7526400)
I0918 13:29:38.739300 32398 net.cpp:137] Memory required for data: 30576600
I0918 13:29:38.739308 32398 layer_factory.hpp:77] Creating layer penlu_conv1
I0918 13:29:38.739316 32398 net.cpp:84] Creating Layer penlu_conv1
I0918 13:29:38.739320 32398 net.cpp:406] penlu_conv1 <- conv1
I0918 13:29:38.739326 32398 net.cpp:380] penlu_conv1 -> penlu_conv1
I0918 13:29:38.739517 32398 net.cpp:122] Setting up penlu_conv1
I0918 13:29:38.739524 32398 net.cpp:129] Top shape: 50 192 28 28 (7526400)
I0918 13:29:38.739527 32398 net.cpp:137] Memory required for data: 60682200
I0918 13:29:38.739533 32398 layer_factory.hpp:77] Creating layer cccp1
I0918 13:29:38.739542 32398 net.cpp:84] Creating Layer cccp1
I0918 13:29:38.739544 32398 net.cpp:406] cccp1 <- penlu_conv1
I0918 13:29:38.739548 32398 net.cpp:380] cccp1 -> cccp1
I0918 13:29:38.741227 32398 net.cpp:122] Setting up cccp1
I0918 13:29:38.741238 32398 net.cpp:129] Top shape: 50 160 28 28 (6272000)
I0918 13:29:38.741241 32398 net.cpp:137] Memory required for data: 85770200
I0918 13:29:38.741246 32398 layer_factory.hpp:77] Creating layer penlu_cccp1
I0918 13:29:38.741253 32398 net.cpp:84] Creating Layer penlu_cccp1
I0918 13:29:38.741257 32398 net.cpp:406] penlu_cccp1 <- cccp1
I0918 13:29:38.741261 32398 net.cpp:380] penlu_cccp1 -> penlu_cccp1
I0918 13:29:38.741930 32398 net.cpp:122] Setting up penlu_cccp1
I0918 13:29:38.741940 32398 net.cpp:129] Top shape: 50 160 28 28 (6272000)
I0918 13:29:38.741943 32398 net.cpp:137] Memory required for data: 110858200
I0918 13:29:38.741950 32398 layer_factory.hpp:77] Creating layer cccp2
I0918 13:29:38.741958 32398 net.cpp:84] Creating Layer cccp2
I0918 13:29:38.741961 32398 net.cpp:406] cccp2 <- penlu_cccp1
I0918 13:29:38.741966 32398 net.cpp:380] cccp2 -> cccp2
I0918 13:29:38.743172 32398 net.cpp:122] Setting up cccp2
I0918 13:29:38.743183 32398 net.cpp:129] Top shape: 50 96 28 28 (3763200)
I0918 13:29:38.743187 32398 net.cpp:137] Memory required for data: 125911000
I0918 13:29:38.743192 32398 layer_factory.hpp:77] Creating layer penlu_cccp2
I0918 13:29:38.743199 32398 net.cpp:84] Creating Layer penlu_cccp2
I0918 13:29:38.743202 32398 net.cpp:406] penlu_cccp2 <- cccp2
I0918 13:29:38.743207 32398 net.cpp:380] penlu_cccp2 -> penlu_cccp2
I0918 13:29:38.743347 32398 net.cpp:122] Setting up penlu_cccp2
I0918 13:29:38.743353 32398 net.cpp:129] Top shape: 50 96 28 28 (3763200)
I0918 13:29:38.743356 32398 net.cpp:137] Memory required for data: 140963800
I0918 13:29:38.743360 32398 layer_factory.hpp:77] Creating layer pool1
I0918 13:29:38.743367 32398 net.cpp:84] Creating Layer pool1
I0918 13:29:38.743371 32398 net.cpp:406] pool1 <- penlu_cccp2
I0918 13:29:38.743374 32398 net.cpp:380] pool1 -> pool1
I0918 13:29:38.743399 32398 net.cpp:122] Setting up pool1
I0918 13:29:38.743404 32398 net.cpp:129] Top shape: 50 96 14 14 (940800)
I0918 13:29:38.743407 32398 net.cpp:137] Memory required for data: 144727000
I0918 13:29:38.743409 32398 layer_factory.hpp:77] Creating layer dropout1
I0918 13:29:38.743414 32398 net.cpp:84] Creating Layer dropout1
I0918 13:29:38.743417 32398 net.cpp:406] dropout1 <- pool1
I0918 13:29:38.743420 32398 net.cpp:380] dropout1 -> dropout1
I0918 13:29:38.743443 32398 net.cpp:122] Setting up dropout1
I0918 13:29:38.743448 32398 net.cpp:129] Top shape: 50 96 14 14 (940800)
I0918 13:29:38.743453 32398 net.cpp:137] Memory required for data: 148490200
I0918 13:29:38.743454 32398 layer_factory.hpp:77] Creating layer conv2
I0918 13:29:38.743461 32398 net.cpp:84] Creating Layer conv2
I0918 13:29:38.743464 32398 net.cpp:406] conv2 <- dropout1
I0918 13:29:38.743468 32398 net.cpp:380] conv2 -> conv2
I0918 13:29:38.754950 32398 net.cpp:122] Setting up conv2
I0918 13:29:38.754962 32398 net.cpp:129] Top shape: 50 192 14 14 (1881600)
I0918 13:29:38.754966 32398 net.cpp:137] Memory required for data: 156016600
I0918 13:29:38.754972 32398 layer_factory.hpp:77] Creating layer penlu_conv2
I0918 13:29:38.754990 32398 net.cpp:84] Creating Layer penlu_conv2
I0918 13:29:38.754995 32398 net.cpp:406] penlu_conv2 <- conv2
I0918 13:29:38.755002 32398 net.cpp:380] penlu_conv2 -> penlu_conv2
I0918 13:29:38.755141 32398 net.cpp:122] Setting up penlu_conv2
I0918 13:29:38.755147 32398 net.cpp:129] Top shape: 50 192 14 14 (1881600)
I0918 13:29:38.755151 32398 net.cpp:137] Memory required for data: 163543000
I0918 13:29:38.755156 32398 layer_factory.hpp:77] Creating layer cccp3
I0918 13:29:38.755162 32398 net.cpp:84] Creating Layer cccp3
I0918 13:29:38.755163 32398 net.cpp:406] cccp3 <- penlu_conv2
I0918 13:29:38.755167 32398 net.cpp:380] cccp3 -> cccp3
I0918 13:29:38.756860 32398 net.cpp:122] Setting up cccp3
I0918 13:29:38.756870 32398 net.cpp:129] Top shape: 50 192 14 14 (1881600)
I0918 13:29:38.756871 32398 net.cpp:137] Memory required for data: 171069400
I0918 13:29:38.756876 32398 layer_factory.hpp:77] Creating layer penlu_cccp3
I0918 13:29:38.756882 32398 net.cpp:84] Creating Layer penlu_cccp3
I0918 13:29:38.756886 32398 net.cpp:406] penlu_cccp3 <- cccp3
I0918 13:29:38.756889 32398 net.cpp:380] penlu_cccp3 -> penlu_cccp3
I0918 13:29:38.757045 32398 net.cpp:122] Setting up penlu_cccp3
I0918 13:29:38.757050 32398 net.cpp:129] Top shape: 50 192 14 14 (1881600)
I0918 13:29:38.757052 32398 net.cpp:137] Memory required for data: 178595800
I0918 13:29:38.757057 32398 layer_factory.hpp:77] Creating layer cccp4
I0918 13:29:38.757063 32398 net.cpp:84] Creating Layer cccp4
I0918 13:29:38.757066 32398 net.cpp:406] cccp4 <- penlu_cccp3
I0918 13:29:38.757069 32398 net.cpp:380] cccp4 -> cccp4
I0918 13:29:38.758734 32398 net.cpp:122] Setting up cccp4
I0918 13:29:38.758744 32398 net.cpp:129] Top shape: 50 192 14 14 (1881600)
I0918 13:29:38.758746 32398 net.cpp:137] Memory required for data: 186122200
I0918 13:29:38.758750 32398 layer_factory.hpp:77] Creating layer penlu_cccp4
I0918 13:29:38.758756 32398 net.cpp:84] Creating Layer penlu_cccp4
I0918 13:29:38.758759 32398 net.cpp:406] penlu_cccp4 <- cccp4
I0918 13:29:38.758764 32398 net.cpp:380] penlu_cccp4 -> penlu_cccp4
I0918 13:29:38.758896 32398 net.cpp:122] Setting up penlu_cccp4
I0918 13:29:38.758901 32398 net.cpp:129] Top shape: 50 192 14 14 (1881600)
I0918 13:29:38.758903 32398 net.cpp:137] Memory required for data: 193648600
I0918 13:29:38.758908 32398 layer_factory.hpp:77] Creating layer pool2
I0918 13:29:38.758914 32398 net.cpp:84] Creating Layer pool2
I0918 13:29:38.758916 32398 net.cpp:406] pool2 <- penlu_cccp4
I0918 13:29:38.758919 32398 net.cpp:380] pool2 -> pool2
I0918 13:29:38.759052 32398 net.cpp:122] Setting up pool2
I0918 13:29:38.759059 32398 net.cpp:129] Top shape: 50 192 7 7 (470400)
I0918 13:29:38.759061 32398 net.cpp:137] Memory required for data: 195530200
I0918 13:29:38.759064 32398 layer_factory.hpp:77] Creating layer dropout2
I0918 13:29:38.759068 32398 net.cpp:84] Creating Layer dropout2
I0918 13:29:38.759070 32398 net.cpp:406] dropout2 <- pool2
I0918 13:29:38.759074 32398 net.cpp:380] dropout2 -> dropout2
I0918 13:29:38.759099 32398 net.cpp:122] Setting up dropout2
I0918 13:29:38.759104 32398 net.cpp:129] Top shape: 50 192 7 7 (470400)
I0918 13:29:38.759105 32398 net.cpp:137] Memory required for data: 197411800
I0918 13:29:38.759107 32398 layer_factory.hpp:77] Creating layer conv3
I0918 13:29:38.759114 32398 net.cpp:84] Creating Layer conv3
I0918 13:29:38.759116 32398 net.cpp:406] conv3 <- dropout2
I0918 13:29:38.759120 32398 net.cpp:380] conv3 -> conv3
I0918 13:29:38.768589 32398 net.cpp:122] Setting up conv3
I0918 13:29:38.768613 32398 net.cpp:129] Top shape: 50 192 7 7 (470400)
I0918 13:29:38.768617 32398 net.cpp:137] Memory required for data: 199293400
I0918 13:29:38.768622 32398 layer_factory.hpp:77] Creating layer penlu_conv3
I0918 13:29:38.768631 32398 net.cpp:84] Creating Layer penlu_conv3
I0918 13:29:38.768635 32398 net.cpp:406] penlu_conv3 <- conv3
I0918 13:29:38.768640 32398 net.cpp:380] penlu_conv3 -> penlu_conv3
I0918 13:29:38.768770 32398 net.cpp:122] Setting up penlu_conv3
I0918 13:29:38.768776 32398 net.cpp:129] Top shape: 50 192 7 7 (470400)
I0918 13:29:38.768797 32398 net.cpp:137] Memory required for data: 201175000
I0918 13:29:38.768808 32398 layer_factory.hpp:77] Creating layer cccp5
I0918 13:29:38.768826 32398 net.cpp:84] Creating Layer cccp5
I0918 13:29:38.768839 32398 net.cpp:406] cccp5 <- penlu_conv3
I0918 13:29:38.768844 32398 net.cpp:380] cccp5 -> cccp5
I0918 13:29:38.770509 32398 net.cpp:122] Setting up cccp5
I0918 13:29:38.770520 32398 net.cpp:129] Top shape: 50 192 7 7 (470400)
I0918 13:29:38.770524 32398 net.cpp:137] Memory required for data: 203056600
I0918 13:29:38.770527 32398 layer_factory.hpp:77] Creating layer penlu_cccp5
I0918 13:29:38.770534 32398 net.cpp:84] Creating Layer penlu_cccp5
I0918 13:29:38.770535 32398 net.cpp:406] penlu_cccp5 <- cccp5
I0918 13:29:38.770540 32398 net.cpp:380] penlu_cccp5 -> penlu_cccp5
I0918 13:29:38.770656 32398 net.cpp:122] Setting up penlu_cccp5
I0918 13:29:38.770663 32398 net.cpp:129] Top shape: 50 192 7 7 (470400)
I0918 13:29:38.770664 32398 net.cpp:137] Memory required for data: 204938200
I0918 13:29:38.770669 32398 layer_factory.hpp:77] Creating layer cccp6
I0918 13:29:38.770675 32398 net.cpp:84] Creating Layer cccp6
I0918 13:29:38.770678 32398 net.cpp:406] cccp6 <- penlu_cccp5
I0918 13:29:38.770683 32398 net.cpp:380] cccp6 -> cccp6
I0918 13:29:38.771567 32398 net.cpp:122] Setting up cccp6
I0918 13:29:38.771577 32398 net.cpp:129] Top shape: 50 10 7 7 (24500)
I0918 13:29:38.771580 32398 net.cpp:137] Memory required for data: 205036200
I0918 13:29:38.771584 32398 layer_factory.hpp:77] Creating layer penlu_cccp6
I0918 13:29:38.771591 32398 net.cpp:84] Creating Layer penlu_cccp6
I0918 13:29:38.771594 32398 net.cpp:406] penlu_cccp6 <- cccp6
I0918 13:29:38.771597 32398 net.cpp:380] penlu_cccp6 -> penlu_cccp6
I0918 13:29:38.771708 32398 net.cpp:122] Setting up penlu_cccp6
I0918 13:29:38.771713 32398 net.cpp:129] Top shape: 50 10 7 7 (24500)
I0918 13:29:38.771715 32398 net.cpp:137] Memory required for data: 205134200
I0918 13:29:38.771719 32398 layer_factory.hpp:77] Creating layer pool3
I0918 13:29:38.771724 32398 net.cpp:84] Creating Layer pool3
I0918 13:29:38.771726 32398 net.cpp:406] pool3 <- penlu_cccp6
I0918 13:29:38.771730 32398 net.cpp:380] pool3 -> pool3
I0918 13:29:38.772183 32398 net.cpp:122] Setting up pool3
I0918 13:29:38.772193 32398 net.cpp:129] Top shape: 50 10 1 1 (500)
I0918 13:29:38.772197 32398 net.cpp:137] Memory required for data: 205136200
I0918 13:29:38.772198 32398 layer_factory.hpp:77] Creating layer pool3_pool3_0_split
I0918 13:29:38.772203 32398 net.cpp:84] Creating Layer pool3_pool3_0_split
I0918 13:29:38.772205 32398 net.cpp:406] pool3_pool3_0_split <- pool3
I0918 13:29:38.772209 32398 net.cpp:380] pool3_pool3_0_split -> pool3_pool3_0_split_0
I0918 13:29:38.772214 32398 net.cpp:380] pool3_pool3_0_split -> pool3_pool3_0_split_1
I0918 13:29:38.772240 32398 net.cpp:122] Setting up pool3_pool3_0_split
I0918 13:29:38.772245 32398 net.cpp:129] Top shape: 50 10 1 1 (500)
I0918 13:29:38.772248 32398 net.cpp:129] Top shape: 50 10 1 1 (500)
I0918 13:29:38.772250 32398 net.cpp:137] Memory required for data: 205140200
I0918 13:29:38.772253 32398 layer_factory.hpp:77] Creating layer accuracy
I0918 13:29:38.772256 32398 net.cpp:84] Creating Layer accuracy
I0918 13:29:38.772259 32398 net.cpp:406] accuracy <- pool3_pool3_0_split_0
I0918 13:29:38.772263 32398 net.cpp:406] accuracy <- label_cifar_1_split_0
I0918 13:29:38.772265 32398 net.cpp:380] accuracy -> accuracy
…
