…
I0916 13:30:07.646737  5250 net.cpp:294] The NetState phase (0) differed from the phase (1) specified by a rule in layer cifar
I0916 13:30:07.646947  5250 net.cpp:51] Initializing net from parameters: 
name: "nin"
state {
  phase: TRAIN
  level: 0
  stage: ""
}
layer {
  name: "cifar"
  type: "Data"
  top: "data"
  top: "label"
  include {
    phase: TRAIN
  }
  transform_param {
    mirror: true
    crop_size: 28
    mean_file: "/home/x306/caffe/xn/PENLU/data/cifar10/mean.binaryproto"
  }
  data_param {
    source: "/home/x306/caffe/xn/PENLU/data/cifar10/cifar10_train_lmdb"
    batch_size: 64
    backend: LMDB
  }
  image_data_param {
    shuffle: true
  }
}
layer {
  name: "conv1"
  type: "Convolution"
  bottom: "data"
  top: "conv1"
  param {
    lr_mult: 1
    decay_mult: 1
  }
  param {
    lr_mult: 2
    decay_mult: 0
  }
  convolution_param {
    num_output: 192
    pad: 2
    kernel_size: 5
    weight_filler {
      type: "gaussian"
      std: 0.05
    }
    bias_filler {
      type: "constant"
      value: 0
    }
  }
}
layer {
  name: "penlu_conv1"
  type: "PENLU"
  bottom: "conv1"
  top: "penlu_conv1"
  param {
    lr_mult: 2
    decay_mult: 0
  }
  param {
    lr_mult: 2
    decay_mult: 0
  }
  param {
    lr_mult: 2
    decay_mult: 0
  }
  penlu_param {
    alpha_filler {
      type: "constant"
      value: 0.25
    }
    beta_filler {
      type: "constant"
      value: 1
    }
    eta_filler {
      type: "constant"
      value: 0.9
    }
  }
}
layer {
  name: "cccp1"
  type: "Convolution"
  bottom: "penlu_conv1"
  top: "cccp1"
  param {
    lr_mult: 1
    decay_mult: 1
  }
  param {
    lr_mult: 2
    decay_mult: 0
  }
  convolution_param {
    num_output: 160
    kernel_size: 1
    weight_filler {
      type: "gaussian"
      std: 0.05
    }
    bias_filler {
      type: "constant"
      value: 0
    }
  }
}
layer {
  name: "penlu_cccp1"
  type: "PENLU"
  bottom: "cccp1"
  top: "penlu_cccp1"
  param {
    lr_mult: 2
    decay_mult: 0
  }
  param {
    lr_mult: 2
    decay_mult: 0
  }
  param {
    lr_mult: 2
    decay_mult: 0
  }
  penlu_param {
    alpha_filler {
      type: "constant"
      value: 0.25
    }
    beta_filler {
      type: "constant"
      value: 1
    }
    eta_filler {
      type: "constant"
      value: 0.9
    }
  }
}
layer {
  name: "cccp2"
  type: "Convolution"
  bottom: "penlu_cccp1"
  top: "cccp2"
  param {
    lr_mult: 1
    decay_mult: 1
  }
  param {
    lr_mult: 2
    decay_mult: 0
  }
  convolution_param {
    num_output: 96
    kernel_size: 1
    weight_filler {
      type: "gaussian"
      std: 0.05
    }
    bias_filler {
      type: "constant"
      value: 0
    }
  }
}
layer {
  name: "penlu_cccp2"
  type: "PENLU"
  bottom: "cccp2"
  top: "penlu_cccp2"
  param {
    lr_mult: 2
    decay_mult: 0
  }
  param {
    lr_mult: 2
    decay_mult: 0
  }
  param {
    lr_mult: 2
    decay_mult: 0
  }
  penlu_param {
    alpha_filler {
      type: "constant"
      value: 0.25
    }
    beta_filler {
      type: "constant"
      value: 1
    }
    eta_filler {
      type: "constant"
      value: 0.9
    }
  }
}
layer {
  name: "pool1"
  type: "Pooling"
  bottom: "penlu_cccp2"
  top: "pool1"
  pooling_param {
    pool: MAX
    kernel_size: 3
    stride: 2
  }
}
layer {
  name: "dropout1"
  type: "Dropout"
  bottom: "pool1"
  top: "dropout1"
  dropout_param {
    dropout_ratio: 0.5
  }
}
layer {
  name: "conv2"
  type: "Convolution"
  bottom: "dropout1"
  top: "conv2"
  param {
    lr_mult: 1
    decay_mult: 1
  }
  param {
    lr_mult: 2
    decay_mult: 0
  }
  convolution_param {
    num_output: 192
    pad: 2
    kernel_size: 5
    weight_filler {
      type: "gaussian"
      std: 0.05
    }
    bias_filler {
      type: "constant"
      value: 0
    }
  }
}
layer {
  name: "penlu_conv2"
  type: "PENLU"
  bottom: "conv2"
  top: "penlu_conv2"
  param {
    lr_mult: 2
    decay_mult: 0
  }
  param {
    lr_mult: 2
    decay_mult: 0
  }
  param {
    lr_mult: 2
    decay_mult: 0
  }
  penlu_param {
    alpha_filler {
      type: "constant"
      value: 0.25
    }
    beta_filler {
      type: "constant"
      value: 1
    }
    eta_filler {
      type: "constant"
      value: 0.9
    }
  }
}
layer {
  name: "cccp3"
  type: "Convolution"
  bottom: "penlu_conv2"
  top: "cccp3"
  param {
    lr_mult: 1
    decay_mult: 1
  }
  param {
    lr_mult: 2
    decay_mult: 0
  }
  convolution_param {
    num_output: 192
    kernel_size: 1
    weight_filler {
      type: "gaussian"
      std: 0.05
    }
    bias_filler {
      type: "constant"
      value: 0
    }
  }
}
layer {
  name: "penlu_cccp3"
  type: "PENLU"
  bottom: "cccp3"
  top: "penlu_cccp3"
  param {
    lr_mult: 2
    decay_mult: 0
  }
  param {
    lr_mult: 2
    decay_mult: 0
  }
  param {
    lr_mult: 2
    decay_mult: 0
  }
  penlu_param {
    alpha_filler {
      type: "constant"
      value: 0.25
    }
    beta_filler {
      type: "constant"
      value: 1
    }
    eta_filler {
      type: "constant"
      value: 0.9
    }
  }
}
layer {
  name: "cccp4"
  type: "Convolution"
  bottom: "penlu_cccp3"
  top: "cccp4"
  param {
    lr_mult: 1
    decay_mult: 1
  }
  param {
    lr_mult: 2
    decay_mult: 0
  }
  convolution_param {
    num_output: 192
    kernel_size: 1
    weight_filler {
      type: "gaussian"
      std: 0.05
    }
    bias_filler {
      type: "constant"
      value: 0
    }
  }
}
layer {
  name: "penlu_cccp4"
  type: "PENLU"
  bottom: "cccp4"
  top: "penlu_cccp4"
  param {
    lr_mult: 2
    decay_mult: 0
  }
  param {
    lr_mult: 2
    decay_mult: 0
  }
  param {
    lr_mult: 2
    decay_mult: 0
  }
  penlu_param {
    alpha_filler {
      type: "constant"
      value: 0.25
    }
    beta_filler {
      type: "constant"
      value: 1
    }
    eta_filler {
      type: "constant"
      value: 0.9
    }
  }
}
layer {
  name: "pool2"
  type: "Pooling"
  bottom: "penlu_cccp4"
  top: "pool2"
  pooling_param {
    pool: AVE
    kernel_size: 3
    stride: 2
  }
}
layer {
  name: "dropout2"
  type: "Dropout"
  bottom: "pool2"
  top: "dropout2"
  dropout_param {
    dropout_ratio: 0.5
  }
}
layer {
  name: "conv3"
  type: "Convolution"
  bottom: "dropout2"
  top: "conv3"
  param {
    lr_mult: 1
    decay_mult: 1
  }
  param {
    lr_mult: 2
    decay_mult: 0
  }
  convolution_param {
    num_output: 192
    pad: 1
    kernel_size: 3
    weight_filler {
      type: "gaussian"
      std: 0.05
    }
    bias_filler {
      type: "constant"
      value: 0
    }
  }
}
layer {
  name: "penlu_conv3"
  type: "PENLU"
  bottom: "conv3"
  top: "penlu_conv3"
  param {
    lr_mult: 2
    decay_mult: 0
  }
  param {
    lr_mult: 2
    decay_mult: 0
  }
  param {
    lr_mult: 2
    decay_mult: 0
  }
  penlu_param {
    alpha_filler {
      type: "constant"
      value: 0.25
    }
    beta_filler {
      type: "constant"
      value: 1
    }
    eta_filler {
      type: "constant"
      value: 0.9
    }
  }
}
layer {
  name: "cccp5"
  type: "Convolution"
  bottom: "penlu_conv3"
  top: "cccp5"
  param {
    lr_mult: 1
    decay_mult: 1
  }
  param {
    lr_mult: 2
    decay_mult: 0
  }
  convolution_param {
    num_output: 192
    kernel_size: 1
    weight_filler {
      type: "gaussian"
      std: 0.05
    }
    bias_filler {
      type: "constant"
      value: 0
    }
  }
}
layer {
  name: "penlu_cccp5"
  type: "PENLU"
  bottom: "cccp5"
  top: "penlu_cccp5"
  param {
    lr_mult: 2
    decay_mult: 0
  }
  param {
    lr_mult: 2
    decay_mult: 0
  }
  param {
    lr_mult: 2
    decay_mult: 0
  }
  penlu_param {
    alpha_filler {
      type: "constant"
      value: 0.25
    }
    beta_filler {
      type: "constant"
      value: 1
    }
    eta_filler {
      type: "constant"
      value: 0.9
    }
  }
}
layer {
  name: "cccp6"
  type: "Convolution"
  bottom: "penlu_cccp5"
  top: "cccp6"
  param {
    lr_mult: 0.1
    decay_mult: 1
  }
  param {
    lr_mult: 0.1
    decay_mult: 0
  }
  convolution_param {
    num_output: 10
    kernel_size: 1
    weight_filler {
      type: "gaussian"
      std: 0.05
    }
    bias_filler {
      type: "constant"
      value: 0
    }
  }
}
layer {
  name: "penlu_cccp6"
  type: "PENLU"
  bottom: "cccp6"
  top: "penlu_cccp6"
  param {
    lr_mult: 2
    decay_mult: 0
  }
  param {
    lr_mult: 2
    decay_mult: 0
  }
  param {
    lr_mult: 2
    decay_mult: 0
  }
  penlu_param {
    alpha_filler {
      type: "constant"
      value: 0.25
    }
    beta_filler {
      type: "constant"
      value: 1
    }
    eta_filler {
      type: "constant"
      value: 0.9
    }
  }
}
layer {
  name: "pool3"
  type: "Pooling"
  bottom: "penlu_cccp6"
  top: "pool3"
  pooling_param {
    pool: AVE
    kernel_size: 7
    stride: 1
  }
}
layer {
  name: "accuracy"
  type: "Accuracy"
  bottom: "pool3"
  bottom: "label"
  top: "accuracy"
}
layer {
  name: "loss"
  type: "SoftmaxWithLoss"
  bottom: "pool3"
  bottom: "label"
  top: "loss"
}
I0916 13:30:07.647132  5250 layer_factory.hpp:77] Creating layer cifar
I0916 13:30:07.647264  5250 db_lmdb.cpp:35] Opened lmdb /home/x306/caffe/xn/PENLU/data/cifar10/cifar10_train_lmdb
I0916 13:30:07.647284  5250 net.cpp:84] Creating Layer cifar
I0916 13:30:07.647289  5250 net.cpp:380] cifar -> data
I0916 13:30:07.647326  5250 net.cpp:380] cifar -> label
I0916 13:30:07.647336  5250 data_transformer.cpp:25] Loading mean file from: /home/x306/caffe/xn/PENLU/data/cifar10/mean.binaryproto
I0916 13:30:07.648744  5250 data_layer.cpp:45] output data size: 64,3,28,28
I0916 13:30:07.650837  5250 net.cpp:122] Setting up cifar
I0916 13:30:07.650864  5250 net.cpp:129] Top shape: 64 3 28 28 (150528)
I0916 13:30:07.650869  5250 net.cpp:129] Top shape: 64 (64)
I0916 13:30:07.650871  5250 net.cpp:137] Memory required for data: 602368
I0916 13:30:07.650887  5250 layer_factory.hpp:77] Creating layer label_cifar_1_split
I0916 13:30:07.650900  5250 net.cpp:84] Creating Layer label_cifar_1_split
I0916 13:30:07.650905  5250 net.cpp:406] label_cifar_1_split <- label
I0916 13:30:07.650913  5250 net.cpp:380] label_cifar_1_split -> label_cifar_1_split_0
I0916 13:30:07.650921  5250 net.cpp:380] label_cifar_1_split -> label_cifar_1_split_1
I0916 13:30:07.650995  5250 net.cpp:122] Setting up label_cifar_1_split
I0916 13:30:07.651000  5250 net.cpp:129] Top shape: 64 (64)
I0916 13:30:07.651020  5250 net.cpp:129] Top shape: 64 (64)
I0916 13:30:07.651021  5250 net.cpp:137] Memory required for data: 602880
I0916 13:30:07.651023  5250 layer_factory.hpp:77] Creating layer conv1
I0916 13:30:07.651046  5250 net.cpp:84] Creating Layer conv1
I0916 13:30:07.651048  5250 net.cpp:406] conv1 <- data
I0916 13:30:07.651053  5250 net.cpp:380] conv1 -> conv1
I0916 13:30:07.796854  5250 net.cpp:122] Setting up conv1
I0916 13:30:07.796878  5250 net.cpp:129] Top shape: 64 192 28 28 (9633792)
I0916 13:30:07.796881  5250 net.cpp:137] Memory required for data: 39138048
I0916 13:30:07.796896  5250 layer_factory.hpp:77] Creating layer penlu_conv1
I0916 13:30:07.796937  5250 net.cpp:84] Creating Layer penlu_conv1
I0916 13:30:07.796943  5250 net.cpp:406] penlu_conv1 <- conv1
I0916 13:30:07.796958  5250 net.cpp:380] penlu_conv1 -> penlu_conv1
I0916 13:30:07.797226  5250 net.cpp:122] Setting up penlu_conv1
I0916 13:30:07.797245  5250 net.cpp:129] Top shape: 64 192 28 28 (9633792)
I0916 13:30:07.797247  5250 net.cpp:137] Memory required for data: 77673216
I0916 13:30:07.797269  5250 layer_factory.hpp:77] Creating layer cccp1
I0916 13:30:07.797289  5250 net.cpp:84] Creating Layer cccp1
I0916 13:30:07.797292  5250 net.cpp:406] cccp1 <- penlu_conv1
I0916 13:30:07.797305  5250 net.cpp:380] cccp1 -> cccp1
I0916 13:30:07.799278  5250 net.cpp:122] Setting up cccp1
I0916 13:30:07.799288  5250 net.cpp:129] Top shape: 64 160 28 28 (8028160)
I0916 13:30:07.799291  5250 net.cpp:137] Memory required for data: 109785856
I0916 13:30:07.799295  5250 layer_factory.hpp:77] Creating layer penlu_cccp1
I0916 13:30:07.799301  5250 net.cpp:84] Creating Layer penlu_cccp1
I0916 13:30:07.799305  5250 net.cpp:406] penlu_cccp1 <- cccp1
I0916 13:30:07.799324  5250 net.cpp:380] penlu_cccp1 -> penlu_cccp1
I0916 13:30:07.799521  5250 net.cpp:122] Setting up penlu_cccp1
I0916 13:30:07.799528  5250 net.cpp:129] Top shape: 64 160 28 28 (8028160)
I0916 13:30:07.799530  5250 net.cpp:137] Memory required for data: 141898496
I0916 13:30:07.799536  5250 layer_factory.hpp:77] Creating layer cccp2
I0916 13:30:07.799545  5250 net.cpp:84] Creating Layer cccp2
I0916 13:30:07.799548  5250 net.cpp:406] cccp2 <- penlu_cccp1
I0916 13:30:07.799566  5250 net.cpp:380] cccp2 -> cccp2
I0916 13:30:07.800745  5250 net.cpp:122] Setting up cccp2
I0916 13:30:07.800755  5250 net.cpp:129] Top shape: 64 96 28 28 (4816896)
I0916 13:30:07.800758  5250 net.cpp:137] Memory required for data: 161166080
I0916 13:30:07.800762  5250 layer_factory.hpp:77] Creating layer penlu_cccp2
I0916 13:30:07.800768  5250 net.cpp:84] Creating Layer penlu_cccp2
I0916 13:30:07.800770  5250 net.cpp:406] penlu_cccp2 <- cccp2
I0916 13:30:07.800786  5250 net.cpp:380] penlu_cccp2 -> penlu_cccp2
I0916 13:30:07.800957  5250 net.cpp:122] Setting up penlu_cccp2
I0916 13:30:07.800963  5250 net.cpp:129] Top shape: 64 96 28 28 (4816896)
I0916 13:30:07.800966  5250 net.cpp:137] Memory required for data: 180433664
I0916 13:30:07.800971  5250 layer_factory.hpp:77] Creating layer pool1
I0916 13:30:07.800977  5250 net.cpp:84] Creating Layer pool1
I0916 13:30:07.800981  5250 net.cpp:406] pool1 <- penlu_cccp2
I0916 13:30:07.800993  5250 net.cpp:380] pool1 -> pool1
I0916 13:30:07.801050  5250 net.cpp:122] Setting up pool1
I0916 13:30:07.801056  5250 net.cpp:129] Top shape: 64 96 14 14 (1204224)
I0916 13:30:07.801069  5250 net.cpp:137] Memory required for data: 185250560
I0916 13:30:07.801070  5250 layer_factory.hpp:77] Creating layer dropout1
I0916 13:30:07.801075  5250 net.cpp:84] Creating Layer dropout1
I0916 13:30:07.801089  5250 net.cpp:406] dropout1 <- pool1
I0916 13:30:07.801105  5250 net.cpp:380] dropout1 -> dropout1
I0916 13:30:07.801148  5250 net.cpp:122] Setting up dropout1
I0916 13:30:07.801153  5250 net.cpp:129] Top shape: 64 96 14 14 (1204224)
I0916 13:30:07.801156  5250 net.cpp:137] Memory required for data: 190067456
I0916 13:30:07.801157  5250 layer_factory.hpp:77] Creating layer conv2
I0916 13:30:07.801165  5250 net.cpp:84] Creating Layer conv2
I0916 13:30:07.801168  5250 net.cpp:406] conv2 <- dropout1
I0916 13:30:07.801174  5250 net.cpp:380] conv2 -> conv2
I0916 13:30:07.812991  5250 net.cpp:122] Setting up conv2
I0916 13:30:07.813016  5250 net.cpp:129] Top shape: 64 192 14 14 (2408448)
I0916 13:30:07.813019  5250 net.cpp:137] Memory required for data: 199701248
I0916 13:30:07.813030  5250 layer_factory.hpp:77] Creating layer penlu_conv2
I0916 13:30:07.813041  5250 net.cpp:84] Creating Layer penlu_conv2
I0916 13:30:07.813045  5250 net.cpp:406] penlu_conv2 <- conv2
I0916 13:30:07.813050  5250 net.cpp:380] penlu_conv2 -> penlu_conv2
I0916 13:30:07.813201  5250 net.cpp:122] Setting up penlu_conv2
I0916 13:30:07.813208  5250 net.cpp:129] Top shape: 64 192 14 14 (2408448)
I0916 13:30:07.813220  5250 net.cpp:137] Memory required for data: 209335040
I0916 13:30:07.813225  5250 layer_factory.hpp:77] Creating layer cccp3
I0916 13:30:07.813235  5250 net.cpp:84] Creating Layer cccp3
I0916 13:30:07.813248  5250 net.cpp:406] cccp3 <- penlu_conv2
I0916 13:30:07.813266  5250 net.cpp:380] cccp3 -> cccp3
I0916 13:30:07.814887  5250 net.cpp:122] Setting up cccp3
I0916 13:30:07.814896  5250 net.cpp:129] Top shape: 64 192 14 14 (2408448)
I0916 13:30:07.814898  5250 net.cpp:137] Memory required for data: 218968832
I0916 13:30:07.814903  5250 layer_factory.hpp:77] Creating layer penlu_cccp3
I0916 13:30:07.814930  5250 net.cpp:84] Creating Layer penlu_cccp3
I0916 13:30:07.814935  5250 net.cpp:406] penlu_cccp3 <- cccp3
I0916 13:30:07.814940  5250 net.cpp:380] penlu_cccp3 -> penlu_cccp3
I0916 13:30:07.815109  5250 net.cpp:122] Setting up penlu_cccp3
I0916 13:30:07.815115  5250 net.cpp:129] Top shape: 64 192 14 14 (2408448)
I0916 13:30:07.815119  5250 net.cpp:137] Memory required for data: 228602624
I0916 13:30:07.815122  5250 layer_factory.hpp:77] Creating layer cccp4
I0916 13:30:07.815129  5250 net.cpp:84] Creating Layer cccp4
I0916 13:30:07.815131  5250 net.cpp:406] cccp4 <- penlu_cccp3
I0916 13:30:07.815145  5250 net.cpp:380] cccp4 -> cccp4
I0916 13:30:07.816835  5250 net.cpp:122] Setting up cccp4
I0916 13:30:07.816846  5250 net.cpp:129] Top shape: 64 192 14 14 (2408448)
I0916 13:30:07.816853  5250 net.cpp:137] Memory required for data: 238236416
I0916 13:30:07.816859  5250 layer_factory.hpp:77] Creating layer penlu_cccp4
I0916 13:30:07.816879  5250 net.cpp:84] Creating Layer penlu_cccp4
I0916 13:30:07.816884  5250 net.cpp:406] penlu_cccp4 <- cccp4
I0916 13:30:07.816889  5250 net.cpp:380] penlu_cccp4 -> penlu_cccp4
I0916 13:30:07.817025  5250 net.cpp:122] Setting up penlu_cccp4
I0916 13:30:07.817031  5250 net.cpp:129] Top shape: 64 192 14 14 (2408448)
I0916 13:30:07.817034  5250 net.cpp:137] Memory required for data: 247870208
I0916 13:30:07.817039  5250 layer_factory.hpp:77] Creating layer pool2
I0916 13:30:07.817047  5250 net.cpp:84] Creating Layer pool2
I0916 13:30:07.817065  5250 net.cpp:406] pool2 <- penlu_cccp4
I0916 13:30:07.817068  5250 net.cpp:380] pool2 -> pool2
I0916 13:30:07.817253  5250 net.cpp:122] Setting up pool2
I0916 13:30:07.817260  5250 net.cpp:129] Top shape: 64 192 7 7 (602112)
I0916 13:30:07.817263  5250 net.cpp:137] Memory required for data: 250278656
I0916 13:30:07.817266  5250 layer_factory.hpp:77] Creating layer dropout2
I0916 13:30:07.817271  5250 net.cpp:84] Creating Layer dropout2
I0916 13:30:07.817275  5250 net.cpp:406] dropout2 <- pool2
I0916 13:30:07.817289  5250 net.cpp:380] dropout2 -> dropout2
I0916 13:30:07.817323  5250 net.cpp:122] Setting up dropout2
I0916 13:30:07.817328  5250 net.cpp:129] Top shape: 64 192 7 7 (602112)
I0916 13:30:07.817330  5250 net.cpp:137] Memory required for data: 252687104
I0916 13:30:07.817343  5250 layer_factory.hpp:77] Creating layer conv3
I0916 13:30:07.817363  5250 net.cpp:84] Creating Layer conv3
I0916 13:30:07.817366  5250 net.cpp:406] conv3 <- dropout2
I0916 13:30:07.817384  5250 net.cpp:380] conv3 -> conv3
I0916 13:30:07.826333  5250 net.cpp:122] Setting up conv3
I0916 13:30:07.826355  5250 net.cpp:129] Top shape: 64 192 7 7 (602112)
I0916 13:30:07.826359  5250 net.cpp:137] Memory required for data: 255095552
I0916 13:30:07.826364  5250 layer_factory.hpp:77] Creating layer penlu_conv3
I0916 13:30:07.826381  5250 net.cpp:84] Creating Layer penlu_conv3
I0916 13:30:07.826385  5250 net.cpp:406] penlu_conv3 <- conv3
I0916 13:30:07.826390  5250 net.cpp:380] penlu_conv3 -> penlu_conv3
I0916 13:30:07.826526  5250 net.cpp:122] Setting up penlu_conv3
I0916 13:30:07.826532  5250 net.cpp:129] Top shape: 64 192 7 7 (602112)
I0916 13:30:07.826545  5250 net.cpp:137] Memory required for data: 257504000
I0916 13:30:07.826555  5250 layer_factory.hpp:77] Creating layer cccp5
I0916 13:30:07.826565  5250 net.cpp:84] Creating Layer cccp5
I0916 13:30:07.826567  5250 net.cpp:406] cccp5 <- penlu_conv3
I0916 13:30:07.826571  5250 net.cpp:380] cccp5 -> cccp5
I0916 13:30:07.828232  5250 net.cpp:122] Setting up cccp5
I0916 13:30:07.828241  5250 net.cpp:129] Top shape: 64 192 7 7 (602112)
I0916 13:30:07.828254  5250 net.cpp:137] Memory required for data: 259912448
I0916 13:30:07.828259  5250 layer_factory.hpp:77] Creating layer penlu_cccp5
I0916 13:30:07.828265  5250 net.cpp:84] Creating Layer penlu_cccp5
I0916 13:30:07.828269  5250 net.cpp:406] penlu_cccp5 <- cccp5
I0916 13:30:07.828275  5250 net.cpp:380] penlu_cccp5 -> penlu_cccp5
I0916 13:30:07.828399  5250 net.cpp:122] Setting up penlu_cccp5
I0916 13:30:07.828405  5250 net.cpp:129] Top shape: 64 192 7 7 (602112)
I0916 13:30:07.828425  5250 net.cpp:137] Memory required for data: 262320896
I0916 13:30:07.828431  5250 layer_factory.hpp:77] Creating layer cccp6
I0916 13:30:07.828439  5250 net.cpp:84] Creating Layer cccp6
I0916 13:30:07.828445  5250 net.cpp:406] cccp6 <- penlu_cccp5
I0916 13:30:07.828450  5250 net.cpp:380] cccp6 -> cccp6
I0916 13:30:07.829330  5250 net.cpp:122] Setting up cccp6
I0916 13:30:07.829340  5250 net.cpp:129] Top shape: 64 10 7 7 (31360)
I0916 13:30:07.829354  5250 net.cpp:137] Memory required for data: 262446336
I0916 13:30:07.829358  5250 layer_factory.hpp:77] Creating layer penlu_cccp6
I0916 13:30:07.829365  5250 net.cpp:84] Creating Layer penlu_cccp6
I0916 13:30:07.829367  5250 net.cpp:406] penlu_cccp6 <- cccp6
I0916 13:30:07.829375  5250 net.cpp:380] penlu_cccp6 -> penlu_cccp6
I0916 13:30:07.829493  5250 net.cpp:122] Setting up penlu_cccp6
I0916 13:30:07.829499  5250 net.cpp:129] Top shape: 64 10 7 7 (31360)
I0916 13:30:07.829511  5250 net.cpp:137] Memory required for data: 262571776
I0916 13:30:07.829515  5250 layer_factory.hpp:77] Creating layer pool3
I0916 13:30:07.829520  5250 net.cpp:84] Creating Layer pool3
I0916 13:30:07.829522  5250 net.cpp:406] pool3 <- penlu_cccp6
I0916 13:30:07.829526  5250 net.cpp:380] pool3 -> pool3
I0916 13:30:07.829663  5250 net.cpp:122] Setting up pool3
I0916 13:30:07.829670  5250 net.cpp:129] Top shape: 64 10 1 1 (640)
I0916 13:30:07.829684  5250 net.cpp:137] Memory required for data: 262574336
I0916 13:30:07.829685  5250 layer_factory.hpp:77] Creating layer pool3_pool3_0_split
I0916 13:30:07.829694  5250 net.cpp:84] Creating Layer pool3_pool3_0_split
I0916 13:30:07.829697  5250 net.cpp:406] pool3_pool3_0_split <- pool3
I0916 13:30:07.829701  5250 net.cpp:380] pool3_pool3_0_split -> pool3_pool3_0_split_0
I0916 13:30:07.829706  5250 net.cpp:380] pool3_pool3_0_split -> pool3_pool3_0_split_1
I0916 13:30:07.829740  5250 net.cpp:122] Setting up pool3_pool3_0_split
I0916 13:30:07.829744  5250 net.cpp:129] Top shape: 64 10 1 1 (640)
I0916 13:30:07.829756  5250 net.cpp:129] Top shape: 64 10 1 1 (640)
I0916 13:30:07.829758  5250 net.cpp:137] Memory required for data: 262579456
I0916 13:30:07.829761  5250 layer_factory.hpp:77] Creating layer accuracy
I0916 13:30:07.829766  5250 net.cpp:84] Creating Layer accuracy
I0916 13:30:07.829768  5250 net.cpp:406] accuracy <- pool3_pool3_0_split_0
I0916 13:30:07.829773  5250 net.cpp:406] accuracy <- label_cifar_1_split_0
I0916 13:30:07.829780  5250 net.cpp:380] accuracy -> accuracy
…
I0916 13:30:07.830754  5250 net.cpp:294] The NetState phase (1) differed from the phase (0) specified by a rule in layer cifar
I0916 13:30:07.830932  5250 net.cpp:51] Initializing net from parameters: 
name: "nin"
state {
  phase: TEST
}
layer {
  name: "cifar"
  type: "Data"
  top: "data"
  top: "label"
  include {
    phase: TEST
  }
  transform_param {
    mirror: false
    crop_size: 28
    mean_file: "/home/x306/caffe/xn/PENLU/data/cifar10/mean.binaryproto"
  }
  data_param {
    source: "/home/x306/caffe/xn/PENLU/data/cifar10/cifar10_test_lmdb"
    batch_size: 50
    backend: LMDB
  }
}
layer {
  name: "conv1"
  type: "Convolution"
  bottom: "data"
  top: "conv1"
  param {
    lr_mult: 1
    decay_mult: 1
  }
  param {
    lr_mult: 2
    decay_mult: 0
  }
  convolution_param {
    num_output: 192
    pad: 2
    kernel_size: 5
    weight_filler {
      type: "gaussian"
      std: 0.05
    }
    bias_filler {
      type: "constant"
      value: 0
    }
  }
}
layer {
  name: "penlu_conv1"
  type: "PENLU"
  bottom: "conv1"
  top: "penlu_conv1"
  param {
    lr_mult: 2
    decay_mult: 0
  }
  param {
    lr_mult: 2
    decay_mult: 0
  }
  param {
    lr_mult: 2
    decay_mult: 0
  }
  penlu_param {
    alpha_filler {
      type: "constant"
      value: 0.25
    }
    beta_filler {
      type: "constant"
      value: 1
    }
    eta_filler {
      type: "constant"
      value: 0.9
    }
  }
}
layer {
  name: "cccp1"
  type: "Convolution"
  bottom: "penlu_conv1"
  top: "cccp1"
  param {
    lr_mult: 1
    decay_mult: 1
  }
  param {
    lr_mult: 2
    decay_mult: 0
  }
  convolution_param {
    num_output: 160
    kernel_size: 1
    weight_filler {
      type: "gaussian"
      std: 0.05
    }
    bias_filler {
      type: "constant"
      value: 0
    }
  }
}
layer {
  name: "penlu_cccp1"
  type: "PENLU"
  bottom: "cccp1"
  top: "penlu_cccp1"
  param {
    lr_mult: 2
    decay_mult: 0
  }
  param {
    lr_mult: 2
    decay_mult: 0
  }
  param {
    lr_mult: 2
    decay_mult: 0
  }
  penlu_param {
    alpha_filler {
      type: "constant"
      value: 0.25
    }
    beta_filler {
      type: "constant"
      value: 1
    }
    eta_filler {
      type: "constant"
      value: 0.9
    }
  }
}
layer {
  name: "cccp2"
  type: "Convolution"
  bottom: "penlu_cccp1"
  top: "cccp2"
  param {
    lr_mult: 1
    decay_mult: 1
  }
  param {
    lr_mult: 2
    decay_mult: 0
  }
  convolution_param {
    num_output: 96
    kernel_size: 1
    weight_filler {
      type: "gaussian"
      std: 0.05
    }
    bias_filler {
      type: "constant"
      value: 0
    }
  }
}
layer {
  name: "penlu_cccp2"
  type: "PENLU"
  bottom: "cccp2"
  top: "penlu_cccp2"
  param {
    lr_mult: 2
    decay_mult: 0
  }
  param {
    lr_mult: 2
    decay_mult: 0
  }
  param {
    lr_mult: 2
    decay_mult: 0
  }
  penlu_param {
    alpha_filler {
      type: "constant"
      value: 0.25
    }
    beta_filler {
      type: "constant"
      value: 1
    }
    eta_filler {
      type: "constant"
      value: 0.9
    }
  }
}
layer {
  name: "pool1"
  type: "Pooling"
  bottom: "penlu_cccp2"
  top: "pool1"
  pooling_param {
    pool: MAX
    kernel_size: 3
    stride: 2
  }
}
layer {
  name: "dropout1"
  type: "Dropout"
  bottom: "pool1"
  top: "dropout1"
  dropout_param {
    dropout_ratio: 0.5
  }
}
layer {
  name: "conv2"
  type: "Convolution"
  bottom: "dropout1"
  top: "conv2"
  param {
    lr_mult: 1
    decay_mult: 1
  }
  param {
    lr_mult: 2
    decay_mult: 0
  }
  convolution_param {
    num_output: 192
    pad: 2
    kernel_size: 5
    weight_filler {
      type: "gaussian"
      std: 0.05
    }
    bias_filler {
      type: "constant"
      value: 0
    }
  }
}
layer {
  name: "penlu_conv2"
  type: "PENLU"
  bottom: "conv2"
  top: "penlu_conv2"
  param {
    lr_mult: 2
    decay_mult: 0
  }
  param {
    lr_mult: 2
    decay_mult: 0
  }
  param {
    lr_mult: 2
    decay_mult: 0
  }
  penlu_param {
    alpha_filler {
      type: "constant"
      value: 0.25
    }
    beta_filler {
      type: "constant"
      value: 1
    }
    eta_filler {
      type: "constant"
      value: 0.9
    }
  }
}
layer {
  name: "cccp3"
  type: "Convolution"
  bottom: "penlu_conv2"
  top: "cccp3"
  param {
    lr_mult: 1
    decay_mult: 1
  }
  param {
    lr_mult: 2
    decay_mult: 0
  }
  convolution_param {
    num_output: 192
    kernel_size: 1
    weight_filler {
      type: "gaussian"
      std: 0.05
    }
    bias_filler {
      type: "constant"
      value: 0
    }
  }
}
layer {
  name: "penlu_cccp3"
  type: "PENLU"
  bottom: "cccp3"
  top: "penlu_cccp3"
  param {
    lr_mult: 2
    decay_mult: 0
  }
  param {
    lr_mult: 2
    decay_mult: 0
  }
  param {
    lr_mult: 2
    decay_mult: 0
  }
  penlu_param {
    alpha_filler {
      type: "constant"
      value: 0.25
    }
    beta_filler {
      type: "constant"
      value: 1
    }
    eta_filler {
      type: "constant"
      value: 0.9
    }
  }
}
layer {
  name: "cccp4"
  type: "Convolution"
  bottom: "penlu_cccp3"
  top: "cccp4"
  param {
    lr_mult: 1
    decay_mult: 1
  }
  param {
    lr_mult: 2
    decay_mult: 0
  }
  convolution_param {
    num_output: 192
    kernel_size: 1
    weight_filler {
      type: "gaussian"
      std: 0.05
    }
    bias_filler {
      type: "constant"
      value: 0
    }
  }
}
layer {
  name: "penlu_cccp4"
  type: "PENLU"
  bottom: "cccp4"
  top: "penlu_cccp4"
  param {
    lr_mult: 2
    decay_mult: 0
  }
  param {
    lr_mult: 2
    decay_mult: 0
  }
  param {
    lr_mult: 2
    decay_mult: 0
  }
  penlu_param {
    alpha_filler {
      type: "constant"
      value: 0.25
    }
    beta_filler {
      type: "constant"
      value: 1
    }
    eta_filler {
      type: "constant"
      value: 0.9
    }
  }
}
layer {
  name: "pool2"
  type: "Pooling"
  bottom: "penlu_cccp4"
  top: "pool2"
  pooling_param {
    pool: AVE
    kernel_size: 3
    stride: 2
  }
}
layer {
  name: "dropout2"
  type: "Dropout"
  bottom: "pool2"
  top: "dropout2"
  dropout_param {
    dropout_ratio: 0.5
  }
}
layer {
  name: "conv3"
  type: "Convolution"
  bottom: "dropout2"
  top: "conv3"
  param {
    lr_mult: 1
    decay_mult: 1
  }
  param {
    lr_mult: 2
    decay_mult: 0
  }
  convolution_param {
    num_output: 192
    pad: 1
    kernel_size: 3
    weight_filler {
      type: "gaussian"
      std: 0.05
    }
    bias_filler {
      type: "constant"
      value: 0
    }
  }
}
layer {
  name: "penlu_conv3"
  type: "PENLU"
  bottom: "conv3"
  top: "penlu_conv3"
  param {
    lr_mult: 2
    decay_mult: 0
  }
  param {
    lr_mult: 2
    decay_mult: 0
  }
  param {
    lr_mult: 2
    decay_mult: 0
  }
  penlu_param {
    alpha_filler {
      type: "constant"
      value: 0.25
    }
    beta_filler {
      type: "constant"
      value: 1
    }
    eta_filler {
      type: "constant"
      value: 0.9
    }
  }
}
layer {
  name: "cccp5"
  type: "Convolution"
  bottom: "penlu_conv3"
  top: "cccp5"
  param {
    lr_mult: 1
    decay_mult: 1
  }
  param {
    lr_mult: 2
    decay_mult: 0
  }
  convolution_param {
    num_output: 192
    kernel_size: 1
    weight_filler {
      type: "gaussian"
      std: 0.05
    }
    bias_filler {
      type: "constant"
      value: 0
    }
  }
}
layer {
  name: "penlu_cccp5"
  type: "PENLU"
  bottom: "cccp5"
  top: "penlu_cccp5"
  param {
    lr_mult: 2
    decay_mult: 0
  }
  param {
    lr_mult: 2
    decay_mult: 0
  }
  param {
    lr_mult: 2
    decay_mult: 0
  }
  penlu_param {
    alpha_filler {
      type: "constant"
      value: 0.25
    }
    beta_filler {
      type: "constant"
      value: 1
    }
    eta_filler {
      type: "constant"
      value: 0.9
    }
  }
}
layer {
  name: "cccp6"
  type: "Convolution"
  bottom: "penlu_cccp5"
  top: "cccp6"
  param {
    lr_mult: 0.1
    decay_mult: 1
  }
  param {
    lr_mult: 0.1
    decay_mult: 0
  }
  convolution_param {
    num_output: 10
    kernel_size: 1
    weight_filler {
      type: "gaussian"
      std: 0.05
    }
    bias_filler {
      type: "constant"
      value: 0
    }
  }
}
layer {
  name: "penlu_cccp6"
  type: "PENLU"
  bottom: "cccp6"
  top: "penlu_cccp6"
  param {
    lr_mult: 2
    decay_mult: 0
  }
  param {
    lr_mult: 2
    decay_mult: 0
  }
  param {
    lr_mult: 2
    decay_mult: 0
  }
  penlu_param {
    alpha_filler {
      type: "constant"
      value: 0.25
    }
    beta_filler {
      type: "constant"
      value: 1
    }
    eta_filler {
      type: "constant"
      value: 0.9
    }
  }
}
layer {
  name: "pool3"
  type: "Pooling"
  bottom: "penlu_cccp6"
  top: "pool3"
  pooling_param {
    pool: AVE
    kernel_size: 7
    stride: 1
  }
}
layer {
  name: "accuracy"
  type: "Accuracy"
  bottom: "pool3"
  bottom: "label"
  top: "accuracy"
}
layer {
  name: "loss"
  type: "SoftmaxWithLoss"
  bottom: "pool3"
  bottom: "label"
  top: "loss"
}
I0916 13:30:07.831063  5250 layer_factory.hpp:77] Creating layer cifar
I0916 13:30:07.831109  5250 db_lmdb.cpp:35] Opened lmdb /home/x306/caffe/xn/PENLU/data/cifar10/cifar10_test_lmdb
I0916 13:30:07.831121  5250 net.cpp:84] Creating Layer cifar
I0916 13:30:07.831127  5250 net.cpp:380] cifar -> data
I0916 13:30:07.831136  5250 net.cpp:380] cifar -> label
I0916 13:30:07.831146  5250 data_transformer.cpp:25] Loading mean file from: /home/x306/caffe/xn/PENLU/data/cifar10/mean.binaryproto
I0916 13:30:07.831286  5250 data_layer.cpp:45] output data size: 50,3,28,28
I0916 13:30:07.832339  5250 net.cpp:122] Setting up cifar
I0916 13:30:07.832360  5250 net.cpp:129] Top shape: 50 3 28 28 (117600)
I0916 13:30:07.832365  5250 net.cpp:129] Top shape: 50 (50)
I0916 13:30:07.832367  5250 net.cpp:137] Memory required for data: 470600
I0916 13:30:07.832370  5250 layer_factory.hpp:77] Creating layer label_cifar_1_split
I0916 13:30:07.832376  5250 net.cpp:84] Creating Layer label_cifar_1_split
I0916 13:30:07.832379  5250 net.cpp:406] label_cifar_1_split <- label
I0916 13:30:07.832383  5250 net.cpp:380] label_cifar_1_split -> label_cifar_1_split_0
I0916 13:30:07.832388  5250 net.cpp:380] label_cifar_1_split -> label_cifar_1_split_1
I0916 13:30:07.832440  5250 net.cpp:122] Setting up label_cifar_1_split
I0916 13:30:07.832446  5250 net.cpp:129] Top shape: 50 (50)
I0916 13:30:07.832450  5250 net.cpp:129] Top shape: 50 (50)
I0916 13:30:07.832453  5250 net.cpp:137] Memory required for data: 471000
I0916 13:30:07.832454  5250 layer_factory.hpp:77] Creating layer conv1
I0916 13:30:07.832463  5250 net.cpp:84] Creating Layer conv1
I0916 13:30:07.832473  5250 net.cpp:406] conv1 <- data
I0916 13:30:07.832479  5250 net.cpp:380] conv1 -> conv1
I0916 13:30:07.833875  5250 net.cpp:122] Setting up conv1
I0916 13:30:07.833886  5250 net.cpp:129] Top shape: 50 192 28 28 (7526400)
I0916 13:30:07.833890  5250 net.cpp:137] Memory required for data: 30576600
I0916 13:30:07.833899  5250 layer_factory.hpp:77] Creating layer penlu_conv1
I0916 13:30:07.833904  5250 net.cpp:84] Creating Layer penlu_conv1
I0916 13:30:07.833909  5250 net.cpp:406] penlu_conv1 <- conv1
I0916 13:30:07.833914  5250 net.cpp:380] penlu_conv1 -> penlu_conv1
I0916 13:30:07.834095  5250 net.cpp:122] Setting up penlu_conv1
I0916 13:30:07.834101  5250 net.cpp:129] Top shape: 50 192 28 28 (7526400)
I0916 13:30:07.834106  5250 net.cpp:137] Memory required for data: 60682200
I0916 13:30:07.834117  5250 layer_factory.hpp:77] Creating layer cccp1
I0916 13:30:07.834125  5250 net.cpp:84] Creating Layer cccp1
I0916 13:30:07.834130  5250 net.cpp:406] cccp1 <- penlu_conv1
I0916 13:30:07.834136  5250 net.cpp:380] cccp1 -> cccp1
I0916 13:30:07.835728  5250 net.cpp:122] Setting up cccp1
I0916 13:30:07.835738  5250 net.cpp:129] Top shape: 50 160 28 28 (6272000)
I0916 13:30:07.835742  5250 net.cpp:137] Memory required for data: 85770200
I0916 13:30:07.835747  5250 layer_factory.hpp:77] Creating layer penlu_cccp1
I0916 13:30:07.835753  5250 net.cpp:84] Creating Layer penlu_cccp1
I0916 13:30:07.835757  5250 net.cpp:406] penlu_cccp1 <- cccp1
I0916 13:30:07.835762  5250 net.cpp:380] penlu_cccp1 -> penlu_cccp1
I0916 13:30:07.836453  5250 net.cpp:122] Setting up penlu_cccp1
I0916 13:30:07.836464  5250 net.cpp:129] Top shape: 50 160 28 28 (6272000)
I0916 13:30:07.836467  5250 net.cpp:137] Memory required for data: 110858200
I0916 13:30:07.836474  5250 layer_factory.hpp:77] Creating layer cccp2
I0916 13:30:07.836483  5250 net.cpp:84] Creating Layer cccp2
I0916 13:30:07.836486  5250 net.cpp:406] cccp2 <- penlu_cccp1
I0916 13:30:07.836490  5250 net.cpp:380] cccp2 -> cccp2
I0916 13:30:07.837730  5250 net.cpp:122] Setting up cccp2
I0916 13:30:07.837741  5250 net.cpp:129] Top shape: 50 96 28 28 (3763200)
I0916 13:30:07.837745  5250 net.cpp:137] Memory required for data: 125911000
I0916 13:30:07.837749  5250 layer_factory.hpp:77] Creating layer penlu_cccp2
I0916 13:30:07.837756  5250 net.cpp:84] Creating Layer penlu_cccp2
I0916 13:30:07.837760  5250 net.cpp:406] penlu_cccp2 <- cccp2
I0916 13:30:07.837765  5250 net.cpp:380] penlu_cccp2 -> penlu_cccp2
I0916 13:30:07.837911  5250 net.cpp:122] Setting up penlu_cccp2
I0916 13:30:07.837918  5250 net.cpp:129] Top shape: 50 96 28 28 (3763200)
I0916 13:30:07.837920  5250 net.cpp:137] Memory required for data: 140963800
I0916 13:30:07.837925  5250 layer_factory.hpp:77] Creating layer pool1
I0916 13:30:07.837932  5250 net.cpp:84] Creating Layer pool1
I0916 13:30:07.837936  5250 net.cpp:406] pool1 <- penlu_cccp2
I0916 13:30:07.837940  5250 net.cpp:380] pool1 -> pool1
I0916 13:30:07.837966  5250 net.cpp:122] Setting up pool1
I0916 13:30:07.837971  5250 net.cpp:129] Top shape: 50 96 14 14 (940800)
I0916 13:30:07.837975  5250 net.cpp:137] Memory required for data: 144727000
I0916 13:30:07.837977  5250 layer_factory.hpp:77] Creating layer dropout1
I0916 13:30:07.837981  5250 net.cpp:84] Creating Layer dropout1
I0916 13:30:07.837985  5250 net.cpp:406] dropout1 <- pool1
I0916 13:30:07.837987  5250 net.cpp:380] dropout1 -> dropout1
I0916 13:30:07.838012  5250 net.cpp:122] Setting up dropout1
I0916 13:30:07.838017  5250 net.cpp:129] Top shape: 50 96 14 14 (940800)
I0916 13:30:07.838021  5250 net.cpp:137] Memory required for data: 148490200
I0916 13:30:07.838022  5250 layer_factory.hpp:77] Creating layer conv2
I0916 13:30:07.838029  5250 net.cpp:84] Creating Layer conv2
I0916 13:30:07.838032  5250 net.cpp:406] conv2 <- dropout1
I0916 13:30:07.838037  5250 net.cpp:380] conv2 -> conv2
I0916 13:30:07.849588  5250 net.cpp:122] Setting up conv2
I0916 13:30:07.849599  5250 net.cpp:129] Top shape: 50 192 14 14 (1881600)
I0916 13:30:07.849603  5250 net.cpp:137] Memory required for data: 156016600
I0916 13:30:07.849619  5250 layer_factory.hpp:77] Creating layer penlu_conv2
I0916 13:30:07.849627  5250 net.cpp:84] Creating Layer penlu_conv2
I0916 13:30:07.849630  5250 net.cpp:406] penlu_conv2 <- conv2
I0916 13:30:07.849635  5250 net.cpp:380] penlu_conv2 -> penlu_conv2
I0916 13:30:07.849776  5250 net.cpp:122] Setting up penlu_conv2
I0916 13:30:07.849783  5250 net.cpp:129] Top shape: 50 192 14 14 (1881600)
I0916 13:30:07.849786  5250 net.cpp:137] Memory required for data: 163543000
I0916 13:30:07.849792  5250 layer_factory.hpp:77] Creating layer cccp3
I0916 13:30:07.849797  5250 net.cpp:84] Creating Layer cccp3
I0916 13:30:07.849800  5250 net.cpp:406] cccp3 <- penlu_conv2
I0916 13:30:07.849803  5250 net.cpp:380] cccp3 -> cccp3
I0916 13:30:07.851464  5250 net.cpp:122] Setting up cccp3
I0916 13:30:07.851474  5250 net.cpp:129] Top shape: 50 192 14 14 (1881600)
I0916 13:30:07.851476  5250 net.cpp:137] Memory required for data: 171069400
I0916 13:30:07.851480  5250 layer_factory.hpp:77] Creating layer penlu_cccp3
I0916 13:30:07.851486  5250 net.cpp:84] Creating Layer penlu_cccp3
I0916 13:30:07.851488  5250 net.cpp:406] penlu_cccp3 <- cccp3
I0916 13:30:07.851495  5250 net.cpp:380] penlu_cccp3 -> penlu_cccp3
I0916 13:30:07.851629  5250 net.cpp:122] Setting up penlu_cccp3
I0916 13:30:07.851634  5250 net.cpp:129] Top shape: 50 192 14 14 (1881600)
I0916 13:30:07.851635  5250 net.cpp:137] Memory required for data: 178595800
I0916 13:30:07.851639  5250 layer_factory.hpp:77] Creating layer cccp4
I0916 13:30:07.851646  5250 net.cpp:84] Creating Layer cccp4
I0916 13:30:07.851649  5250 net.cpp:406] cccp4 <- penlu_cccp3
I0916 13:30:07.851653  5250 net.cpp:380] cccp4 -> cccp4
I0916 13:30:07.853322  5250 net.cpp:122] Setting up cccp4
I0916 13:30:07.853332  5250 net.cpp:129] Top shape: 50 192 14 14 (1881600)
I0916 13:30:07.853335  5250 net.cpp:137] Memory required for data: 186122200
I0916 13:30:07.853339  5250 layer_factory.hpp:77] Creating layer penlu_cccp4
I0916 13:30:07.853345  5250 net.cpp:84] Creating Layer penlu_cccp4
I0916 13:30:07.853348  5250 net.cpp:406] penlu_cccp4 <- cccp4
I0916 13:30:07.853353  5250 net.cpp:380] penlu_cccp4 -> penlu_cccp4
I0916 13:30:07.853487  5250 net.cpp:122] Setting up penlu_cccp4
I0916 13:30:07.853492  5250 net.cpp:129] Top shape: 50 192 14 14 (1881600)
I0916 13:30:07.853493  5250 net.cpp:137] Memory required for data: 193648600
I0916 13:30:07.853498  5250 layer_factory.hpp:77] Creating layer pool2
I0916 13:30:07.853504  5250 net.cpp:84] Creating Layer pool2
I0916 13:30:07.853507  5250 net.cpp:406] pool2 <- penlu_cccp4
I0916 13:30:07.853510  5250 net.cpp:380] pool2 -> pool2
I0916 13:30:07.853641  5250 net.cpp:122] Setting up pool2
I0916 13:30:07.853647  5250 net.cpp:129] Top shape: 50 192 7 7 (470400)
I0916 13:30:07.853649  5250 net.cpp:137] Memory required for data: 195530200
I0916 13:30:07.853652  5250 layer_factory.hpp:77] Creating layer dropout2
I0916 13:30:07.853657  5250 net.cpp:84] Creating Layer dropout2
I0916 13:30:07.853659  5250 net.cpp:406] dropout2 <- pool2
I0916 13:30:07.853662  5250 net.cpp:380] dropout2 -> dropout2
I0916 13:30:07.853688  5250 net.cpp:122] Setting up dropout2
I0916 13:30:07.853691  5250 net.cpp:129] Top shape: 50 192 7 7 (470400)
I0916 13:30:07.853693  5250 net.cpp:137] Memory required for data: 197411800
I0916 13:30:07.853695  5250 layer_factory.hpp:77] Creating layer conv3
I0916 13:30:07.853701  5250 net.cpp:84] Creating Layer conv3
I0916 13:30:07.853703  5250 net.cpp:406] conv3 <- dropout2
I0916 13:30:07.853709  5250 net.cpp:380] conv3 -> conv3
I0916 13:30:07.862864  5250 net.cpp:122] Setting up conv3
I0916 13:30:07.862879  5250 net.cpp:129] Top shape: 50 192 7 7 (470400)
I0916 13:30:07.862881  5250 net.cpp:137] Memory required for data: 199293400
I0916 13:30:07.862886  5250 layer_factory.hpp:77] Creating layer penlu_conv3
I0916 13:30:07.862893  5250 net.cpp:84] Creating Layer penlu_conv3
I0916 13:30:07.862906  5250 net.cpp:406] penlu_conv3 <- conv3
I0916 13:30:07.862912  5250 net.cpp:380] penlu_conv3 -> penlu_conv3
I0916 13:30:07.863070  5250 net.cpp:122] Setting up penlu_conv3
I0916 13:30:07.863085  5250 net.cpp:129] Top shape: 50 192 7 7 (470400)
I0916 13:30:07.863086  5250 net.cpp:137] Memory required for data: 201175000
I0916 13:30:07.863096  5250 layer_factory.hpp:77] Creating layer cccp5
I0916 13:30:07.863114  5250 net.cpp:84] Creating Layer cccp5
I0916 13:30:07.863118  5250 net.cpp:406] cccp5 <- penlu_conv3
I0916 13:30:07.863122  5250 net.cpp:380] cccp5 -> cccp5
I0916 13:30:07.864809  5250 net.cpp:122] Setting up cccp5
I0916 13:30:07.864820  5250 net.cpp:129] Top shape: 50 192 7 7 (470400)
I0916 13:30:07.864838  5250 net.cpp:137] Memory required for data: 203056600
I0916 13:30:07.864843  5250 layer_factory.hpp:77] Creating layer penlu_cccp5
I0916 13:30:07.864853  5250 net.cpp:84] Creating Layer penlu_cccp5
I0916 13:30:07.864856  5250 net.cpp:406] penlu_cccp5 <- cccp5
I0916 13:30:07.864861  5250 net.cpp:380] penlu_cccp5 -> penlu_cccp5
I0916 13:30:07.864982  5250 net.cpp:122] Setting up penlu_cccp5
I0916 13:30:07.864989  5250 net.cpp:129] Top shape: 50 192 7 7 (470400)
I0916 13:30:07.865002  5250 net.cpp:137] Memory required for data: 204938200
I0916 13:30:07.865006  5250 layer_factory.hpp:77] Creating layer cccp6
I0916 13:30:07.865013  5250 net.cpp:84] Creating Layer cccp6
I0916 13:30:07.865016  5250 net.cpp:406] cccp6 <- penlu_cccp5
I0916 13:30:07.865020  5250 net.cpp:380] cccp6 -> cccp6
I0916 13:30:07.865943  5250 net.cpp:122] Setting up cccp6
I0916 13:30:07.865953  5250 net.cpp:129] Top shape: 50 10 7 7 (24500)
I0916 13:30:07.865967  5250 net.cpp:137] Memory required for data: 205036200
I0916 13:30:07.865972  5250 layer_factory.hpp:77] Creating layer penlu_cccp6
I0916 13:30:07.865979  5250 net.cpp:84] Creating Layer penlu_cccp6
I0916 13:30:07.865983  5250 net.cpp:406] penlu_cccp6 <- cccp6
I0916 13:30:07.865988  5250 net.cpp:380] penlu_cccp6 -> penlu_cccp6
I0916 13:30:07.866112  5250 net.cpp:122] Setting up penlu_cccp6
I0916 13:30:07.866118  5250 net.cpp:129] Top shape: 50 10 7 7 (24500)
I0916 13:30:07.866130  5250 net.cpp:137] Memory required for data: 205134200
I0916 13:30:07.866135  5250 layer_factory.hpp:77] Creating layer pool3
I0916 13:30:07.866142  5250 net.cpp:84] Creating Layer pool3
I0916 13:30:07.866143  5250 net.cpp:406] pool3 <- penlu_cccp6
I0916 13:30:07.866147  5250 net.cpp:380] pool3 -> pool3
I0916 13:30:07.866614  5250 net.cpp:122] Setting up pool3
I0916 13:30:07.866624  5250 net.cpp:129] Top shape: 50 10 1 1 (500)
I0916 13:30:07.866637  5250 net.cpp:137] Memory required for data: 205136200
I0916 13:30:07.866641  5250 layer_factory.hpp:77] Creating layer pool3_pool3_0_split
I0916 13:30:07.866645  5250 net.cpp:84] Creating Layer pool3_pool3_0_split
I0916 13:30:07.866648  5250 net.cpp:406] pool3_pool3_0_split <- pool3
I0916 13:30:07.866652  5250 net.cpp:380] pool3_pool3_0_split -> pool3_pool3_0_split_0
I0916 13:30:07.866657  5250 net.cpp:380] pool3_pool3_0_split -> pool3_pool3_0_split_1
I0916 13:30:07.866694  5250 net.cpp:122] Setting up pool3_pool3_0_split
I0916 13:30:07.866698  5250 net.cpp:129] Top shape: 50 10 1 1 (500)
I0916 13:30:07.866701  5250 net.cpp:129] Top shape: 50 10 1 1 (500)
I0916 13:30:07.866714  5250 net.cpp:137] Memory required for data: 205140200
I0916 13:30:07.866716  5250 layer_factory.hpp:77] Creating layer accuracy
I0916 13:30:07.866720  5250 net.cpp:84] Creating Layer accuracy
I0916 13:30:07.866724  5250 net.cpp:406] accuracy <- pool3_pool3_0_split_0
I0916 13:30:07.866727  5250 net.cpp:406] accuracy <- label_cifar_1_split_0
I0916 13:30:07.866730  5250 net.cpp:380] accuracy -> accuracy
…
