…
I0916 19:14:00.659250  6312 net.cpp:294] The NetState phase (0) differed from the phase (1) specified by a rule in layer cifar
I0916 19:14:00.659459  6312 net.cpp:51] Initializing net from parameters: 
name: "nin"
state {
  phase: TRAIN
  level: 0
  stage: ""
}
layer {
  name: "cifar"
  type: "Data"
  top: "data"
  top: "label"
  include {
    phase: TRAIN
  }
  transform_param {
    mirror: true
    crop_size: 28
    mean_file: "/home/x306/caffe/xn/PENLU/data/cifar10/mean.binaryproto"
  }
  data_param {
    source: "/home/x306/caffe/xn/PENLU/data/cifar10/cifar10_train_lmdb"
    batch_size: 64
    backend: LMDB
  }
  image_data_param {
    shuffle: true
  }
}
layer {
  name: "conv1"
  type: "Convolution"
  bottom: "data"
  top: "conv1"
  param {
    lr_mult: 1
    decay_mult: 1
  }
  param {
    lr_mult: 2
    decay_mult: 0
  }
  convolution_param {
    num_output: 192
    pad: 2
    kernel_size: 5
    weight_filler {
      type: "gaussian"
      std: 0.05
    }
    bias_filler {
      type: "constant"
      value: 0
    }
  }
}
layer {
  name: "penlu_conv1"
  type: "PENLU"
  bottom: "conv1"
  top: "penlu_conv1"
  param {
    lr_mult: 2
    decay_mult: 0
  }
  param {
    lr_mult: 2
    decay_mult: 0
  }
  param {
    lr_mult: 2
    decay_mult: 0
  }
  penlu_param {
    alpha_filler {
      type: "constant"
      value: 0.25
    }
    beta_filler {
      type: "constant"
      value: 1
    }
    eta_filler {
      type: "constant"
      value: 1
    }
  }
}
layer {
  name: "cccp1"
  type: "Convolution"
  bottom: "penlu_conv1"
  top: "cccp1"
  param {
    lr_mult: 1
    decay_mult: 1
  }
  param {
    lr_mult: 2
    decay_mult: 0
  }
  convolution_param {
    num_output: 160
    kernel_size: 1
    weight_filler {
      type: "gaussian"
      std: 0.05
    }
    bias_filler {
      type: "constant"
      value: 0
    }
  }
}
layer {
  name: "penlu_cccp1"
  type: "PENLU"
  bottom: "cccp1"
  top: "penlu_cccp1"
  param {
    lr_mult: 2
    decay_mult: 0
  }
  param {
    lr_mult: 2
    decay_mult: 0
  }
  param {
    lr_mult: 2
    decay_mult: 0
  }
  penlu_param {
    alpha_filler {
      type: "constant"
      value: 0.25
    }
    beta_filler {
      type: "constant"
      value: 1
    }
    eta_filler {
      type: "constant"
      value: 1
    }
  }
}
layer {
  name: "cccp2"
  type: "Convolution"
  bottom: "penlu_cccp1"
  top: "cccp2"
  param {
    lr_mult: 1
    decay_mult: 1
  }
  param {
    lr_mult: 2
    decay_mult: 0
  }
  convolution_param {
    num_output: 96
    kernel_size: 1
    weight_filler {
      type: "gaussian"
      std: 0.05
    }
    bias_filler {
      type: "constant"
      value: 0
    }
  }
}
layer {
  name: "penlu_cccp2"
  type: "PENLU"
  bottom: "cccp2"
  top: "penlu_cccp2"
  param {
    lr_mult: 2
    decay_mult: 0
  }
  param {
    lr_mult: 2
    decay_mult: 0
  }
  param {
    lr_mult: 2
    decay_mult: 0
  }
  penlu_param {
    alpha_filler {
      type: "constant"
      value: 0.25
    }
    beta_filler {
      type: "constant"
      value: 1
    }
    eta_filler {
      type: "constant"
      value: 1
    }
  }
}
layer {
  name: "pool1"
  type: "Pooling"
  bottom: "penlu_cccp2"
  top: "pool1"
  pooling_param {
    pool: MAX
    kernel_size: 3
    stride: 2
  }
}
layer {
  name: "dropout1"
  type: "Dropout"
  bottom: "pool1"
  top: "dropout1"
  dropout_param {
    dropout_ratio: 0.5
  }
}
layer {
  name: "conv2"
  type: "Convolution"
  bottom: "dropout1"
  top: "conv2"
  param {
    lr_mult: 1
    decay_mult: 1
  }
  param {
    lr_mult: 2
    decay_mult: 0
  }
  convolution_param {
    num_output: 192
    pad: 2
    kernel_size: 5
    weight_filler {
      type: "gaussian"
      std: 0.05
    }
    bias_filler {
      type: "constant"
      value: 0
    }
  }
}
layer {
  name: "penlu_conv2"
  type: "PENLU"
  bottom: "conv2"
  top: "penlu_conv2"
  param {
    lr_mult: 2
    decay_mult: 0
  }
  param {
    lr_mult: 2
    decay_mult: 0
  }
  param {
    lr_mult: 2
    decay_mult: 0
  }
  penlu_param {
    alpha_filler {
      type: "constant"
      value: 0.25
    }
    beta_filler {
      type: "constant"
      value: 1
    }
    eta_filler {
      type: "constant"
      value: 1
    }
  }
}
layer {
  name: "cccp3"
  type: "Convolution"
  bottom: "penlu_conv2"
  top: "cccp3"
  param {
    lr_mult: 1
    decay_mult: 1
  }
  param {
    lr_mult: 2
    decay_mult: 0
  }
  convolution_param {
    num_output: 192
    kernel_size: 1
    weight_filler {
      type: "gaussian"
      std: 0.05
    }
    bias_filler {
      type: "constant"
      value: 0
    }
  }
}
layer {
  name: "penlu_cccp3"
  type: "PENLU"
  bottom: "cccp3"
  top: "penlu_cccp3"
  param {
    lr_mult: 2
    decay_mult: 0
  }
  param {
    lr_mult: 2
    decay_mult: 0
  }
  param {
    lr_mult: 2
    decay_mult: 0
  }
  penlu_param {
    alpha_filler {
      type: "constant"
      value: 0.25
    }
    beta_filler {
      type: "constant"
      value: 1
    }
    eta_filler {
      type: "constant"
      value: 1
    }
  }
}
layer {
  name: "cccp4"
  type: "Convolution"
  bottom: "penlu_cccp3"
  top: "cccp4"
  param {
    lr_mult: 1
    decay_mult: 1
  }
  param {
    lr_mult: 2
    decay_mult: 0
  }
  convolution_param {
    num_output: 192
    kernel_size: 1
    weight_filler {
      type: "gaussian"
      std: 0.05
    }
    bias_filler {
      type: "constant"
      value: 0
    }
  }
}
layer {
  name: "penlu_cccp4"
  type: "PENLU"
  bottom: "cccp4"
  top: "penlu_cccp4"
  param {
    lr_mult: 2
    decay_mult: 0
  }
  param {
    lr_mult: 2
    decay_mult: 0
  }
  param {
    lr_mult: 2
    decay_mult: 0
  }
  penlu_param {
    alpha_filler {
      type: "constant"
      value: 0.25
    }
    beta_filler {
      type: "constant"
      value: 1
    }
    eta_filler {
      type: "constant"
      value: 1
    }
  }
}
layer {
  name: "pool2"
  type: "Pooling"
  bottom: "penlu_cccp4"
  top: "pool2"
  pooling_param {
    pool: AVE
    kernel_size: 3
    stride: 2
  }
}
layer {
  name: "dropout2"
  type: "Dropout"
  bottom: "pool2"
  top: "dropout2"
  dropout_param {
    dropout_ratio: 0.5
  }
}
layer {
  name: "conv3"
  type: "Convolution"
  bottom: "dropout2"
  top: "conv3"
  param {
    lr_mult: 1
    decay_mult: 1
  }
  param {
    lr_mult: 2
    decay_mult: 0
  }
  convolution_param {
    num_output: 192
    pad: 1
    kernel_size: 3
    weight_filler {
      type: "gaussian"
      std: 0.05
    }
    bias_filler {
      type: "constant"
      value: 0
    }
  }
}
layer {
  name: "penlu_conv3"
  type: "PENLU"
  bottom: "conv3"
  top: "penlu_conv3"
  param {
    lr_mult: 2
    decay_mult: 0
  }
  param {
    lr_mult: 2
    decay_mult: 0
  }
  param {
    lr_mult: 2
    decay_mult: 0
  }
  penlu_param {
    alpha_filler {
      type: "constant"
      value: 0.25
    }
    beta_filler {
      type: "constant"
      value: 1
    }
    eta_filler {
      type: "constant"
      value: 1
    }
  }
}
layer {
  name: "cccp5"
  type: "Convolution"
  bottom: "penlu_conv3"
  top: "cccp5"
  param {
    lr_mult: 1
    decay_mult: 1
  }
  param {
    lr_mult: 2
    decay_mult: 0
  }
  convolution_param {
    num_output: 192
    kernel_size: 1
    weight_filler {
      type: "gaussian"
      std: 0.05
    }
    bias_filler {
      type: "constant"
      value: 0
    }
  }
}
layer {
  name: "penlu_cccp5"
  type: "PENLU"
  bottom: "cccp5"
  top: "penlu_cccp5"
  param {
    lr_mult: 2
    decay_mult: 0
  }
  param {
    lr_mult: 2
    decay_mult: 0
  }
  param {
    lr_mult: 2
    decay_mult: 0
  }
  penlu_param {
    alpha_filler {
      type: "constant"
      value: 1
    }
    beta_filler {
      type: "constant"
      value: 1
    }
    eta_filler {
      type: "constant"
      value: 1
    }
  }
}
layer {
  name: "cccp6"
  type: "Convolution"
  bottom: "penlu_cccp5"
  top: "cccp6"
  param {
    lr_mult: 0.1
    decay_mult: 1
  }
  param {
    lr_mult: 0.1
    decay_mult: 0
  }
  convolution_param {
    num_output: 10
    kernel_size: 1
    weight_filler {
      type: "gaussian"
      std: 0.05
    }
    bias_filler {
      type: "constant"
      value: 0
    }
  }
}
layer {
  name: "penlu_cccp6"
  type: "PENLU"
  bottom: "cccp6"
  top: "penlu_cccp6"
  param {
    lr_mult: 2
    decay_mult: 0
  }
  param {
    lr_mult: 2
    decay_mult: 0
  }
  param {
    lr_mult: 2
    decay_mult: 0
  }
  penlu_param {
    alpha_filler {
      type: "constant"
      value: 0.25
    }
    beta_filler {
      type: "constant"
      value: 1
    }
    eta_filler {
      type: "constant"
      value: 1
    }
  }
}
layer {
  name: "pool3"
  type: "Pooling"
  bottom: "penlu_cccp6"
  top: "pool3"
  pooling_param {
    pool: AVE
    kernel_size: 7
    stride: 1
  }
}
layer {
  name: "accuracy"
  type: "Accuracy"
  bottom: "pool3"
  bottom: "label"
  top: "accuracy"
}
layer {
  name: "loss"
  type: "SoftmaxWithLoss"
  bottom: "pool3"
  bottom: "label"
  top: "loss"
}
I0916 19:14:00.659653  6312 layer_factory.hpp:77] Creating layer cifar
I0916 19:14:00.659754  6312 db_lmdb.cpp:35] Opened lmdb /home/x306/caffe/xn/PENLU/data/cifar10/cifar10_train_lmdb
I0916 19:14:00.659780  6312 net.cpp:84] Creating Layer cifar
I0916 19:14:00.659786  6312 net.cpp:380] cifar -> data
I0916 19:14:00.659812  6312 net.cpp:380] cifar -> label
I0916 19:14:00.659824  6312 data_transformer.cpp:25] Loading mean file from: /home/x306/caffe/xn/PENLU/data/cifar10/mean.binaryproto
I0916 19:14:00.661247  6312 data_layer.cpp:45] output data size: 64,3,28,28
I0916 19:14:00.663337  6312 net.cpp:122] Setting up cifar
I0916 19:14:00.663352  6312 net.cpp:129] Top shape: 64 3 28 28 (150528)
I0916 19:14:00.663360  6312 net.cpp:129] Top shape: 64 (64)
I0916 19:14:00.663365  6312 net.cpp:137] Memory required for data: 602368
I0916 19:14:00.663375  6312 layer_factory.hpp:77] Creating layer label_cifar_1_split
I0916 19:14:00.663391  6312 net.cpp:84] Creating Layer label_cifar_1_split
I0916 19:14:00.663398  6312 net.cpp:406] label_cifar_1_split <- label
I0916 19:14:00.663409  6312 net.cpp:380] label_cifar_1_split -> label_cifar_1_split_0
I0916 19:14:00.663419  6312 net.cpp:380] label_cifar_1_split -> label_cifar_1_split_1
I0916 19:14:00.663455  6312 net.cpp:122] Setting up label_cifar_1_split
I0916 19:14:00.663462  6312 net.cpp:129] Top shape: 64 (64)
I0916 19:14:00.663468  6312 net.cpp:129] Top shape: 64 (64)
I0916 19:14:00.663473  6312 net.cpp:137] Memory required for data: 602880
I0916 19:14:00.663478  6312 layer_factory.hpp:77] Creating layer conv1
I0916 19:14:00.663493  6312 net.cpp:84] Creating Layer conv1
I0916 19:14:00.663498  6312 net.cpp:406] conv1 <- data
I0916 19:14:00.663506  6312 net.cpp:380] conv1 -> conv1
I0916 19:14:00.809191  6312 net.cpp:122] Setting up conv1
I0916 19:14:00.809217  6312 net.cpp:129] Top shape: 64 192 28 28 (9633792)
I0916 19:14:00.809222  6312 net.cpp:137] Memory required for data: 39138048
I0916 19:14:00.809242  6312 layer_factory.hpp:77] Creating layer penlu_conv1
I0916 19:14:00.809288  6312 net.cpp:84] Creating Layer penlu_conv1
I0916 19:14:00.809294  6312 net.cpp:406] penlu_conv1 <- conv1
I0916 19:14:00.809312  6312 net.cpp:380] penlu_conv1 -> penlu_conv1
I0916 19:14:00.809533  6312 net.cpp:122] Setting up penlu_conv1
I0916 19:14:00.809542  6312 net.cpp:129] Top shape: 64 192 28 28 (9633792)
I0916 19:14:00.809546  6312 net.cpp:137] Memory required for data: 77673216
I0916 19:14:00.809557  6312 layer_factory.hpp:77] Creating layer cccp1
I0916 19:14:00.809569  6312 net.cpp:84] Creating Layer cccp1
I0916 19:14:00.809574  6312 net.cpp:406] cccp1 <- penlu_conv1
I0916 19:14:00.809581  6312 net.cpp:380] cccp1 -> cccp1
I0916 19:14:00.811514  6312 net.cpp:122] Setting up cccp1
I0916 19:14:00.811527  6312 net.cpp:129] Top shape: 64 160 28 28 (8028160)
I0916 19:14:00.811532  6312 net.cpp:137] Memory required for data: 109785856
I0916 19:14:00.811539  6312 layer_factory.hpp:77] Creating layer penlu_cccp1
I0916 19:14:00.811550  6312 net.cpp:84] Creating Layer penlu_cccp1
I0916 19:14:00.811555  6312 net.cpp:406] penlu_cccp1 <- cccp1
I0916 19:14:00.811563  6312 net.cpp:380] penlu_cccp1 -> penlu_cccp1
I0916 19:14:00.811745  6312 net.cpp:122] Setting up penlu_cccp1
I0916 19:14:00.811753  6312 net.cpp:129] Top shape: 64 160 28 28 (8028160)
I0916 19:14:00.811758  6312 net.cpp:137] Memory required for data: 141898496
I0916 19:14:00.811769  6312 layer_factory.hpp:77] Creating layer cccp2
I0916 19:14:00.811779  6312 net.cpp:84] Creating Layer cccp2
I0916 19:14:00.811784  6312 net.cpp:406] cccp2 <- penlu_cccp1
I0916 19:14:00.811790  6312 net.cpp:380] cccp2 -> cccp2
I0916 19:14:00.812924  6312 net.cpp:122] Setting up cccp2
I0916 19:14:00.812937  6312 net.cpp:129] Top shape: 64 96 28 28 (4816896)
I0916 19:14:00.812942  6312 net.cpp:137] Memory required for data: 161166080
I0916 19:14:00.812948  6312 layer_factory.hpp:77] Creating layer penlu_cccp2
I0916 19:14:00.812958  6312 net.cpp:84] Creating Layer penlu_cccp2
I0916 19:14:00.812963  6312 net.cpp:406] penlu_cccp2 <- cccp2
I0916 19:14:00.812970  6312 net.cpp:380] penlu_cccp2 -> penlu_cccp2
I0916 19:14:00.813120  6312 net.cpp:122] Setting up penlu_cccp2
I0916 19:14:00.813128  6312 net.cpp:129] Top shape: 64 96 28 28 (4816896)
I0916 19:14:00.813133  6312 net.cpp:137] Memory required for data: 180433664
I0916 19:14:00.813143  6312 layer_factory.hpp:77] Creating layer pool1
I0916 19:14:00.813153  6312 net.cpp:84] Creating Layer pool1
I0916 19:14:00.813158  6312 net.cpp:406] pool1 <- penlu_cccp2
I0916 19:14:00.813164  6312 net.cpp:380] pool1 -> pool1
I0916 19:14:00.813199  6312 net.cpp:122] Setting up pool1
I0916 19:14:00.813206  6312 net.cpp:129] Top shape: 64 96 14 14 (1204224)
I0916 19:14:00.813211  6312 net.cpp:137] Memory required for data: 185250560
I0916 19:14:00.813217  6312 layer_factory.hpp:77] Creating layer dropout1
I0916 19:14:00.813233  6312 net.cpp:84] Creating Layer dropout1
I0916 19:14:00.813238  6312 net.cpp:406] dropout1 <- pool1
I0916 19:14:00.813254  6312 net.cpp:380] dropout1 -> dropout1
I0916 19:14:00.813308  6312 net.cpp:122] Setting up dropout1
I0916 19:14:00.813315  6312 net.cpp:129] Top shape: 64 96 14 14 (1204224)
I0916 19:14:00.813330  6312 net.cpp:137] Memory required for data: 190067456
I0916 19:14:00.813334  6312 layer_factory.hpp:77] Creating layer conv2
I0916 19:14:00.813354  6312 net.cpp:84] Creating Layer conv2
I0916 19:14:00.813359  6312 net.cpp:406] conv2 <- dropout1
I0916 19:14:00.813364  6312 net.cpp:380] conv2 -> conv2
I0916 19:14:00.825181  6312 net.cpp:122] Setting up conv2
I0916 19:14:00.825197  6312 net.cpp:129] Top shape: 64 192 14 14 (2408448)
I0916 19:14:00.825201  6312 net.cpp:137] Memory required for data: 199701248
I0916 19:14:00.825227  6312 layer_factory.hpp:77] Creating layer penlu_conv2
I0916 19:14:00.825248  6312 net.cpp:84] Creating Layer penlu_conv2
I0916 19:14:00.825254  6312 net.cpp:406] penlu_conv2 <- conv2
I0916 19:14:00.825270  6312 net.cpp:380] penlu_conv2 -> penlu_conv2
I0916 19:14:00.825445  6312 net.cpp:122] Setting up penlu_conv2
I0916 19:14:00.825453  6312 net.cpp:129] Top shape: 64 192 14 14 (2408448)
I0916 19:14:00.825458  6312 net.cpp:137] Memory required for data: 209335040
I0916 19:14:00.825465  6312 layer_factory.hpp:77] Creating layer cccp3
I0916 19:14:00.825476  6312 net.cpp:84] Creating Layer cccp3
I0916 19:14:00.825481  6312 net.cpp:406] cccp3 <- penlu_conv2
I0916 19:14:00.825489  6312 net.cpp:380] cccp3 -> cccp3
I0916 19:14:00.827090  6312 net.cpp:122] Setting up cccp3
I0916 19:14:00.827101  6312 net.cpp:129] Top shape: 64 192 14 14 (2408448)
I0916 19:14:00.827106  6312 net.cpp:137] Memory required for data: 218968832
I0916 19:14:00.827114  6312 layer_factory.hpp:77] Creating layer penlu_cccp3
I0916 19:14:00.827137  6312 net.cpp:84] Creating Layer penlu_cccp3
I0916 19:14:00.827162  6312 net.cpp:406] penlu_cccp3 <- cccp3
I0916 19:14:00.827181  6312 net.cpp:380] penlu_cccp3 -> penlu_cccp3
I0916 19:14:00.827314  6312 net.cpp:122] Setting up penlu_cccp3
I0916 19:14:00.827322  6312 net.cpp:129] Top shape: 64 192 14 14 (2408448)
I0916 19:14:00.827327  6312 net.cpp:137] Memory required for data: 228602624
I0916 19:14:00.827335  6312 layer_factory.hpp:77] Creating layer cccp4
I0916 19:14:00.827345  6312 net.cpp:84] Creating Layer cccp4
I0916 19:14:00.827349  6312 net.cpp:406] cccp4 <- penlu_cccp3
I0916 19:14:00.827368  6312 net.cpp:380] cccp4 -> cccp4
I0916 19:14:00.828943  6312 net.cpp:122] Setting up cccp4
I0916 19:14:00.828955  6312 net.cpp:129] Top shape: 64 192 14 14 (2408448)
I0916 19:14:00.828960  6312 net.cpp:137] Memory required for data: 238236416
I0916 19:14:00.828968  6312 layer_factory.hpp:77] Creating layer penlu_cccp4
I0916 19:14:00.828992  6312 net.cpp:84] Creating Layer penlu_cccp4
I0916 19:14:00.828997  6312 net.cpp:406] penlu_cccp4 <- cccp4
I0916 19:14:00.829013  6312 net.cpp:380] penlu_cccp4 -> penlu_cccp4
I0916 19:14:00.829156  6312 net.cpp:122] Setting up penlu_cccp4
I0916 19:14:00.829164  6312 net.cpp:129] Top shape: 64 192 14 14 (2408448)
I0916 19:14:00.829169  6312 net.cpp:137] Memory required for data: 247870208
I0916 19:14:00.829177  6312 layer_factory.hpp:77] Creating layer pool2
I0916 19:14:00.829198  6312 net.cpp:84] Creating Layer pool2
I0916 19:14:00.829212  6312 net.cpp:406] pool2 <- penlu_cccp4
I0916 19:14:00.829228  6312 net.cpp:380] pool2 -> pool2
I0916 19:14:00.829383  6312 net.cpp:122] Setting up pool2
I0916 19:14:00.829392  6312 net.cpp:129] Top shape: 64 192 7 7 (602112)
I0916 19:14:00.829406  6312 net.cpp:137] Memory required for data: 250278656
I0916 19:14:00.829411  6312 layer_factory.hpp:77] Creating layer dropout2
I0916 19:14:00.829419  6312 net.cpp:84] Creating Layer dropout2
I0916 19:14:00.829424  6312 net.cpp:406] dropout2 <- pool2
I0916 19:14:00.829439  6312 net.cpp:380] dropout2 -> dropout2
I0916 19:14:00.829468  6312 net.cpp:122] Setting up dropout2
I0916 19:14:00.829473  6312 net.cpp:129] Top shape: 64 192 7 7 (602112)
I0916 19:14:00.829479  6312 net.cpp:137] Memory required for data: 252687104
I0916 19:14:00.829483  6312 layer_factory.hpp:77] Creating layer conv3
I0916 19:14:00.829493  6312 net.cpp:84] Creating Layer conv3
I0916 19:14:00.829497  6312 net.cpp:406] conv3 <- dropout2
I0916 19:14:00.829504  6312 net.cpp:380] conv3 -> conv3
I0916 19:14:00.838435  6312 net.cpp:122] Setting up conv3
I0916 19:14:00.838450  6312 net.cpp:129] Top shape: 64 192 7 7 (602112)
I0916 19:14:00.838454  6312 net.cpp:137] Memory required for data: 255095552
I0916 19:14:00.838472  6312 layer_factory.hpp:77] Creating layer penlu_conv3
I0916 19:14:00.838492  6312 net.cpp:84] Creating Layer penlu_conv3
I0916 19:14:00.838497  6312 net.cpp:406] penlu_conv3 <- conv3
I0916 19:14:00.838505  6312 net.cpp:380] penlu_conv3 -> penlu_conv3
I0916 19:14:00.838656  6312 net.cpp:122] Setting up penlu_conv3
I0916 19:14:00.838665  6312 net.cpp:129] Top shape: 64 192 7 7 (602112)
I0916 19:14:00.838668  6312 net.cpp:137] Memory required for data: 257504000
I0916 19:14:00.838682  6312 layer_factory.hpp:77] Creating layer cccp5
I0916 19:14:00.838692  6312 net.cpp:84] Creating Layer cccp5
I0916 19:14:00.838697  6312 net.cpp:406] cccp5 <- penlu_conv3
I0916 19:14:00.838704  6312 net.cpp:380] cccp5 -> cccp5
I0916 19:14:00.840325  6312 net.cpp:122] Setting up cccp5
I0916 19:14:00.840337  6312 net.cpp:129] Top shape: 64 192 7 7 (602112)
I0916 19:14:00.840342  6312 net.cpp:137] Memory required for data: 259912448
I0916 19:14:00.840349  6312 layer_factory.hpp:77] Creating layer penlu_cccp5
I0916 19:14:00.840359  6312 net.cpp:84] Creating Layer penlu_cccp5
I0916 19:14:00.840365  6312 net.cpp:406] penlu_cccp5 <- cccp5
I0916 19:14:00.840373  6312 net.cpp:380] penlu_cccp5 -> penlu_cccp5
I0916 19:14:00.840487  6312 net.cpp:122] Setting up penlu_cccp5
I0916 19:14:00.840495  6312 net.cpp:129] Top shape: 64 192 7 7 (602112)
I0916 19:14:00.840500  6312 net.cpp:137] Memory required for data: 262320896
I0916 19:14:00.840518  6312 layer_factory.hpp:77] Creating layer cccp6
I0916 19:14:00.840529  6312 net.cpp:84] Creating Layer cccp6
I0916 19:14:00.840534  6312 net.cpp:406] cccp6 <- penlu_cccp5
I0916 19:14:00.840541  6312 net.cpp:380] cccp6 -> cccp6
I0916 19:14:00.841387  6312 net.cpp:122] Setting up cccp6
I0916 19:14:00.841399  6312 net.cpp:129] Top shape: 64 10 7 7 (31360)
I0916 19:14:00.841404  6312 net.cpp:137] Memory required for data: 262446336
I0916 19:14:00.841421  6312 layer_factory.hpp:77] Creating layer penlu_cccp6
I0916 19:14:00.841431  6312 net.cpp:84] Creating Layer penlu_cccp6
I0916 19:14:00.841445  6312 net.cpp:406] penlu_cccp6 <- cccp6
I0916 19:14:00.841452  6312 net.cpp:380] penlu_cccp6 -> penlu_cccp6
I0916 19:14:00.841557  6312 net.cpp:122] Setting up penlu_cccp6
I0916 19:14:00.841563  6312 net.cpp:129] Top shape: 64 10 7 7 (31360)
I0916 19:14:00.841567  6312 net.cpp:137] Memory required for data: 262571776
I0916 19:14:00.841576  6312 layer_factory.hpp:77] Creating layer pool3
I0916 19:14:00.841583  6312 net.cpp:84] Creating Layer pool3
I0916 19:14:00.841588  6312 net.cpp:406] pool3 <- penlu_cccp6
I0916 19:14:00.841595  6312 net.cpp:380] pool3 -> pool3
I0916 19:14:00.841713  6312 net.cpp:122] Setting up pool3
I0916 19:14:00.841722  6312 net.cpp:129] Top shape: 64 10 1 1 (640)
I0916 19:14:00.841727  6312 net.cpp:137] Memory required for data: 262574336
I0916 19:14:00.841730  6312 layer_factory.hpp:77] Creating layer pool3_pool3_0_split
I0916 19:14:00.841738  6312 net.cpp:84] Creating Layer pool3_pool3_0_split
I0916 19:14:00.841743  6312 net.cpp:406] pool3_pool3_0_split <- pool3
I0916 19:14:00.841749  6312 net.cpp:380] pool3_pool3_0_split -> pool3_pool3_0_split_0
I0916 19:14:00.841768  6312 net.cpp:380] pool3_pool3_0_split -> pool3_pool3_0_split_1
I0916 19:14:00.841804  6312 net.cpp:122] Setting up pool3_pool3_0_split
I0916 19:14:00.841810  6312 net.cpp:129] Top shape: 64 10 1 1 (640)
I0916 19:14:00.841826  6312 net.cpp:129] Top shape: 64 10 1 1 (640)
I0916 19:14:00.841831  6312 net.cpp:137] Memory required for data: 262579456
I0916 19:14:00.841835  6312 layer_factory.hpp:77] Creating layer accuracy
I0916 19:14:00.841846  6312 net.cpp:84] Creating Layer accuracy
I0916 19:14:00.841851  6312 net.cpp:406] accuracy <- pool3_pool3_0_split_0
I0916 19:14:00.841857  6312 net.cpp:406] accuracy <- label_cifar_1_split_0
I0916 19:14:00.841863  6312 net.cpp:380] accuracy -> accuracy
…
I0916 19:14:00.842945  6312 net.cpp:294] The NetState phase (1) differed from the phase (0) specified by a rule in layer cifar
I0916 19:14:00.843127  6312 net.cpp:51] Initializing net from parameters: 
name: "nin"
state {
  phase: TEST
}
layer {
  name: "cifar"
  type: "Data"
  top: "data"
  top: "label"
  include {
    phase: TEST
  }
  transform_param {
    mirror: false
    crop_size: 28
    mean_file: "/home/x306/caffe/xn/PENLU/data/cifar10/mean.binaryproto"
  }
  data_param {
    source: "/home/x306/caffe/xn/PENLU/data/cifar10/cifar10_test_lmdb"
    batch_size: 50
    backend: LMDB
  }
}
layer {
  name: "conv1"
  type: "Convolution"
  bottom: "data"
  top: "conv1"
  param {
    lr_mult: 1
    decay_mult: 1
  }
  param {
    lr_mult: 2
    decay_mult: 0
  }
  convolution_param {
    num_output: 192
    pad: 2
    kernel_size: 5
    weight_filler {
      type: "gaussian"
      std: 0.05
    }
    bias_filler {
      type: "constant"
      value: 0
    }
  }
}
layer {
  name: "penlu_conv1"
  type: "PENLU"
  bottom: "conv1"
  top: "penlu_conv1"
  param {
    lr_mult: 2
    decay_mult: 0
  }
  param {
    lr_mult: 2
    decay_mult: 0
  }
  param {
    lr_mult: 2
    decay_mult: 0
  }
  penlu_param {
    alpha_filler {
      type: "constant"
      value: 0.25
    }
    beta_filler {
      type: "constant"
      value: 1
    }
    eta_filler {
      type: "constant"
      value: 1
    }
  }
}
layer {
  name: "cccp1"
  type: "Convolution"
  bottom: "penlu_conv1"
  top: "cccp1"
  param {
    lr_mult: 1
    decay_mult: 1
  }
  param {
    lr_mult: 2
    decay_mult: 0
  }
  convolution_param {
    num_output: 160
    kernel_size: 1
    weight_filler {
      type: "gaussian"
      std: 0.05
    }
    bias_filler {
      type: "constant"
      value: 0
    }
  }
}
layer {
  name: "penlu_cccp1"
  type: "PENLU"
  bottom: "cccp1"
  top: "penlu_cccp1"
  param {
    lr_mult: 2
    decay_mult: 0
  }
  param {
    lr_mult: 2
    decay_mult: 0
  }
  param {
    lr_mult: 2
    decay_mult: 0
  }
  penlu_param {
    alpha_filler {
      type: "constant"
      value: 0.25
    }
    beta_filler {
      type: "constant"
      value: 1
    }
    eta_filler {
      type: "constant"
      value: 1
    }
  }
}
layer {
  name: "cccp2"
  type: "Convolution"
  bottom: "penlu_cccp1"
  top: "cccp2"
  param {
    lr_mult: 1
    decay_mult: 1
  }
  param {
    lr_mult: 2
    decay_mult: 0
  }
  convolution_param {
    num_output: 96
    kernel_size: 1
    weight_filler {
      type: "gaussian"
      std: 0.05
    }
    bias_filler {
      type: "constant"
      value: 0
    }
  }
}
layer {
  name: "penlu_cccp2"
  type: "PENLU"
  bottom: "cccp2"
  top: "penlu_cccp2"
  param {
    lr_mult: 2
    decay_mult: 0
  }
  param {
    lr_mult: 2
    decay_mult: 0
  }
  param {
    lr_mult: 2
    decay_mult: 0
  }
  penlu_param {
    alpha_filler {
      type: "constant"
      value: 0.25
    }
    beta_filler {
      type: "constant"
      value: 1
    }
    eta_filler {
      type: "constant"
      value: 1
    }
  }
}
layer {
  name: "pool1"
  type: "Pooling"
  bottom: "penlu_cccp2"
  top: "pool1"
  pooling_param {
    pool: MAX
    kernel_size: 3
    stride: 2
  }
}
layer {
  name: "dropout1"
  type: "Dropout"
  bottom: "pool1"
  top: "dropout1"
  dropout_param {
    dropout_ratio: 0.5
  }
}
layer {
  name: "conv2"
  type: "Convolution"
  bottom: "dropout1"
  top: "conv2"
  param {
    lr_mult: 1
    decay_mult: 1
  }
  param {
    lr_mult: 2
    decay_mult: 0
  }
  convolution_param {
    num_output: 192
    pad: 2
    kernel_size: 5
    weight_filler {
      type: "gaussian"
      std: 0.05
    }
    bias_filler {
      type: "constant"
      value: 0
    }
  }
}
layer {
  name: "penlu_conv2"
  type: "PENLU"
  bottom: "conv2"
  top: "penlu_conv2"
  param {
    lr_mult: 2
    decay_mult: 0
  }
  param {
    lr_mult: 2
    decay_mult: 0
  }
  param {
    lr_mult: 2
    decay_mult: 0
  }
  penlu_param {
    alpha_filler {
      type: "constant"
      value: 0.25
    }
    beta_filler {
      type: "constant"
      value: 1
    }
    eta_filler {
      type: "constant"
      value: 1
    }
  }
}
layer {
  name: "cccp3"
  type: "Convolution"
  bottom: "penlu_conv2"
  top: "cccp3"
  param {
    lr_mult: 1
    decay_mult: 1
  }
  param {
    lr_mult: 2
    decay_mult: 0
  }
  convolution_param {
    num_output: 192
    kernel_size: 1
    weight_filler {
      type: "gaussian"
      std: 0.05
    }
    bias_filler {
      type: "constant"
      value: 0
    }
  }
}
layer {
  name: "penlu_cccp3"
  type: "PENLU"
  bottom: "cccp3"
  top: "penlu_cccp3"
  param {
    lr_mult: 2
    decay_mult: 0
  }
  param {
    lr_mult: 2
    decay_mult: 0
  }
  param {
    lr_mult: 2
    decay_mult: 0
  }
  penlu_param {
    alpha_filler {
      type: "constant"
      value: 0.25
    }
    beta_filler {
      type: "constant"
      value: 1
    }
    eta_filler {
      type: "constant"
      value: 1
    }
  }
}
layer {
  name: "cccp4"
  type: "Convolution"
  bottom: "penlu_cccp3"
  top: "cccp4"
  param {
    lr_mult: 1
    decay_mult: 1
  }
  param {
    lr_mult: 2
    decay_mult: 0
  }
  convolution_param {
    num_output: 192
    kernel_size: 1
    weight_filler {
      type: "gaussian"
      std: 0.05
    }
    bias_filler {
      type: "constant"
      value: 0
    }
  }
}
layer {
  name: "penlu_cccp4"
  type: "PENLU"
  bottom: "cccp4"
  top: "penlu_cccp4"
  param {
    lr_mult: 2
    decay_mult: 0
  }
  param {
    lr_mult: 2
    decay_mult: 0
  }
  param {
    lr_mult: 2
    decay_mult: 0
  }
  penlu_param {
    alpha_filler {
      type: "constant"
      value: 0.25
    }
    beta_filler {
      type: "constant"
      value: 1
    }
    eta_filler {
      type: "constant"
      value: 1
    }
  }
}
layer {
  name: "pool2"
  type: "Pooling"
  bottom: "penlu_cccp4"
  top: "pool2"
  pooling_param {
    pool: AVE
    kernel_size: 3
    stride: 2
  }
}
layer {
  name: "dropout2"
  type: "Dropout"
  bottom: "pool2"
  top: "dropout2"
  dropout_param {
    dropout_ratio: 0.5
  }
}
layer {
  name: "conv3"
  type: "Convolution"
  bottom: "dropout2"
  top: "conv3"
  param {
    lr_mult: 1
    decay_mult: 1
  }
  param {
    lr_mult: 2
    decay_mult: 0
  }
  convolution_param {
    num_output: 192
    pad: 1
    kernel_size: 3
    weight_filler {
      type: "gaussian"
      std: 0.05
    }
    bias_filler {
      type: "constant"
      value: 0
    }
  }
}
layer {
  name: "penlu_conv3"
  type: "PENLU"
  bottom: "conv3"
  top: "penlu_conv3"
  param {
    lr_mult: 2
    decay_mult: 0
  }
  param {
    lr_mult: 2
    decay_mult: 0
  }
  param {
    lr_mult: 2
    decay_mult: 0
  }
  penlu_param {
    alpha_filler {
      type: "constant"
      value: 0.25
    }
    beta_filler {
      type: "constant"
      value: 1
    }
    eta_filler {
      type: "constant"
      value: 1
    }
  }
}
layer {
  name: "cccp5"
  type: "Convolution"
  bottom: "penlu_conv3"
  top: "cccp5"
  param {
    lr_mult: 1
    decay_mult: 1
  }
  param {
    lr_mult: 2
    decay_mult: 0
  }
  convolution_param {
    num_output: 192
    kernel_size: 1
    weight_filler {
      type: "gaussian"
      std: 0.05
    }
    bias_filler {
      type: "constant"
      value: 0
    }
  }
}
layer {
  name: "penlu_cccp5"
  type: "PENLU"
  bottom: "cccp5"
  top: "penlu_cccp5"
  param {
    lr_mult: 2
    decay_mult: 0
  }
  param {
    lr_mult: 2
    decay_mult: 0
  }
  param {
    lr_mult: 2
    decay_mult: 0
  }
  penlu_param {
    alpha_filler {
      type: "constant"
      value: 1
    }
    beta_filler {
      type: "constant"
      value: 1
    }
    eta_filler {
      type: "constant"
      value: 1
    }
  }
}
layer {
  name: "cccp6"
  type: "Convolution"
  bottom: "penlu_cccp5"
  top: "cccp6"
  param {
    lr_mult: 0.1
    decay_mult: 1
  }
  param {
    lr_mult: 0.1
    decay_mult: 0
  }
  convolution_param {
    num_output: 10
    kernel_size: 1
    weight_filler {
      type: "gaussian"
      std: 0.05
    }
    bias_filler {
      type: "constant"
      value: 0
    }
  }
}
layer {
  name: "penlu_cccp6"
  type: "PENLU"
  bottom: "cccp6"
  top: "penlu_cccp6"
  param {
    lr_mult: 2
    decay_mult: 0
  }
  param {
    lr_mult: 2
    decay_mult: 0
  }
  param {
    lr_mult: 2
    decay_mult: 0
  }
  penlu_param {
    alpha_filler {
      type: "constant"
      value: 0.25
    }
    beta_filler {
      type: "constant"
      value: 1
    }
    eta_filler {
      type: "constant"
      value: 1
    }
  }
}
layer {
  name: "pool3"
  type: "Pooling"
  bottom: "penlu_cccp6"
  top: "pool3"
  pooling_param {
    pool: AVE
    kernel_size: 7
    stride: 1
  }
}
layer {
  name: "accuracy"
  type: "Accuracy"
  bottom: "pool3"
  bottom: "label"
  top: "accuracy"
}
layer {
  name: "loss"
  type: "SoftmaxWithLoss"
  bottom: "pool3"
  bottom: "label"
  top: "loss"
}
I0916 19:14:00.843250  6312 layer_factory.hpp:77] Creating layer cifar
I0916 19:14:00.843294  6312 db_lmdb.cpp:35] Opened lmdb /home/x306/caffe/xn/PENLU/data/cifar10/cifar10_test_lmdb
I0916 19:14:00.843307  6312 net.cpp:84] Creating Layer cifar
I0916 19:14:00.843313  6312 net.cpp:380] cifar -> data
I0916 19:14:00.843322  6312 net.cpp:380] cifar -> label
I0916 19:14:00.843329  6312 data_transformer.cpp:25] Loading mean file from: /home/x306/caffe/xn/PENLU/data/cifar10/mean.binaryproto
I0916 19:14:00.843459  6312 data_layer.cpp:45] output data size: 50,3,28,28
I0916 19:14:00.844480  6312 net.cpp:122] Setting up cifar
I0916 19:14:00.844492  6312 net.cpp:129] Top shape: 50 3 28 28 (117600)
I0916 19:14:00.844499  6312 net.cpp:129] Top shape: 50 (50)
I0916 19:14:00.844503  6312 net.cpp:137] Memory required for data: 470600
I0916 19:14:00.844508  6312 layer_factory.hpp:77] Creating layer label_cifar_1_split
I0916 19:14:00.844517  6312 net.cpp:84] Creating Layer label_cifar_1_split
I0916 19:14:00.844522  6312 net.cpp:406] label_cifar_1_split <- label
I0916 19:14:00.844528  6312 net.cpp:380] label_cifar_1_split -> label_cifar_1_split_0
I0916 19:14:00.844538  6312 net.cpp:380] label_cifar_1_split -> label_cifar_1_split_1
I0916 19:14:00.844574  6312 net.cpp:122] Setting up label_cifar_1_split
I0916 19:14:00.844581  6312 net.cpp:129] Top shape: 50 (50)
I0916 19:14:00.844586  6312 net.cpp:129] Top shape: 50 (50)
I0916 19:14:00.844591  6312 net.cpp:137] Memory required for data: 471000
I0916 19:14:00.844596  6312 layer_factory.hpp:77] Creating layer conv1
I0916 19:14:00.844606  6312 net.cpp:84] Creating Layer conv1
I0916 19:14:00.844610  6312 net.cpp:406] conv1 <- data
I0916 19:14:00.844626  6312 net.cpp:380] conv1 -> conv1
I0916 19:14:00.845913  6312 net.cpp:122] Setting up conv1
I0916 19:14:00.845926  6312 net.cpp:129] Top shape: 50 192 28 28 (7526400)
I0916 19:14:00.845932  6312 net.cpp:137] Memory required for data: 30576600
I0916 19:14:00.845945  6312 layer_factory.hpp:77] Creating layer penlu_conv1
I0916 19:14:00.845954  6312 net.cpp:84] Creating Layer penlu_conv1
I0916 19:14:00.845960  6312 net.cpp:406] penlu_conv1 <- conv1
I0916 19:14:00.845969  6312 net.cpp:380] penlu_conv1 -> penlu_conv1
I0916 19:14:00.846143  6312 net.cpp:122] Setting up penlu_conv1
I0916 19:14:00.846150  6312 net.cpp:129] Top shape: 50 192 28 28 (7526400)
I0916 19:14:00.846155  6312 net.cpp:137] Memory required for data: 60682200
I0916 19:14:00.846168  6312 layer_factory.hpp:77] Creating layer cccp1
I0916 19:14:00.846181  6312 net.cpp:84] Creating Layer cccp1
I0916 19:14:00.846190  6312 net.cpp:406] cccp1 <- penlu_conv1
I0916 19:14:00.846197  6312 net.cpp:380] cccp1 -> cccp1
I0916 19:14:00.847730  6312 net.cpp:122] Setting up cccp1
I0916 19:14:00.847741  6312 net.cpp:129] Top shape: 50 160 28 28 (6272000)
I0916 19:14:00.847746  6312 net.cpp:137] Memory required for data: 85770200
I0916 19:14:00.847754  6312 layer_factory.hpp:77] Creating layer penlu_cccp1
I0916 19:14:00.847764  6312 net.cpp:84] Creating Layer penlu_cccp1
I0916 19:14:00.847769  6312 net.cpp:406] penlu_cccp1 <- cccp1
I0916 19:14:00.847776  6312 net.cpp:380] penlu_cccp1 -> penlu_cccp1
I0916 19:14:00.848450  6312 net.cpp:122] Setting up penlu_cccp1
I0916 19:14:00.848462  6312 net.cpp:129] Top shape: 50 160 28 28 (6272000)
I0916 19:14:00.848467  6312 net.cpp:137] Memory required for data: 110858200
I0916 19:14:00.848479  6312 layer_factory.hpp:77] Creating layer cccp2
I0916 19:14:00.848489  6312 net.cpp:84] Creating Layer cccp2
I0916 19:14:00.848495  6312 net.cpp:406] cccp2 <- penlu_cccp1
I0916 19:14:00.848501  6312 net.cpp:380] cccp2 -> cccp2
I0916 19:14:00.849681  6312 net.cpp:122] Setting up cccp2
I0916 19:14:00.849694  6312 net.cpp:129] Top shape: 50 96 28 28 (3763200)
I0916 19:14:00.849699  6312 net.cpp:137] Memory required for data: 125911000
I0916 19:14:00.849715  6312 layer_factory.hpp:77] Creating layer penlu_cccp2
I0916 19:14:00.849725  6312 net.cpp:84] Creating Layer penlu_cccp2
I0916 19:14:00.849730  6312 net.cpp:406] penlu_cccp2 <- cccp2
I0916 19:14:00.849737  6312 net.cpp:380] penlu_cccp2 -> penlu_cccp2
I0916 19:14:00.849881  6312 net.cpp:122] Setting up penlu_cccp2
I0916 19:14:00.849889  6312 net.cpp:129] Top shape: 50 96 28 28 (3763200)
I0916 19:14:00.849894  6312 net.cpp:137] Memory required for data: 140963800
I0916 19:14:00.849902  6312 layer_factory.hpp:77] Creating layer pool1
I0916 19:14:00.849911  6312 net.cpp:84] Creating Layer pool1
I0916 19:14:00.849916  6312 net.cpp:406] pool1 <- penlu_cccp2
I0916 19:14:00.849922  6312 net.cpp:380] pool1 -> pool1
I0916 19:14:00.849951  6312 net.cpp:122] Setting up pool1
I0916 19:14:00.849958  6312 net.cpp:129] Top shape: 50 96 14 14 (940800)
I0916 19:14:00.849963  6312 net.cpp:137] Memory required for data: 144727000
I0916 19:14:00.849967  6312 layer_factory.hpp:77] Creating layer dropout1
I0916 19:14:00.849975  6312 net.cpp:84] Creating Layer dropout1
I0916 19:14:00.849980  6312 net.cpp:406] dropout1 <- pool1
I0916 19:14:00.849987  6312 net.cpp:380] dropout1 -> dropout1
I0916 19:14:00.850013  6312 net.cpp:122] Setting up dropout1
I0916 19:14:00.850018  6312 net.cpp:129] Top shape: 50 96 14 14 (940800)
I0916 19:14:00.850023  6312 net.cpp:137] Memory required for data: 148490200
I0916 19:14:00.850028  6312 layer_factory.hpp:77] Creating layer conv2
I0916 19:14:00.850037  6312 net.cpp:84] Creating Layer conv2
I0916 19:14:00.850042  6312 net.cpp:406] conv2 <- dropout1
I0916 19:14:00.850049  6312 net.cpp:380] conv2 -> conv2
I0916 19:14:00.861197  6312 net.cpp:122] Setting up conv2
I0916 19:14:00.861209  6312 net.cpp:129] Top shape: 50 192 14 14 (1881600)
I0916 19:14:00.861214  6312 net.cpp:137] Memory required for data: 156016600
I0916 19:14:00.861235  6312 layer_factory.hpp:77] Creating layer penlu_conv2
I0916 19:14:00.861253  6312 net.cpp:84] Creating Layer penlu_conv2
I0916 19:14:00.861268  6312 net.cpp:406] penlu_conv2 <- conv2
I0916 19:14:00.861275  6312 net.cpp:380] penlu_conv2 -> penlu_conv2
I0916 19:14:00.861405  6312 net.cpp:122] Setting up penlu_conv2
I0916 19:14:00.861413  6312 net.cpp:129] Top shape: 50 192 14 14 (1881600)
I0916 19:14:00.861418  6312 net.cpp:137] Memory required for data: 163543000
I0916 19:14:00.861426  6312 layer_factory.hpp:77] Creating layer cccp3
I0916 19:14:00.861436  6312 net.cpp:84] Creating Layer cccp3
I0916 19:14:00.861439  6312 net.cpp:406] cccp3 <- penlu_conv2
I0916 19:14:00.861443  6312 net.cpp:380] cccp3 -> cccp3
I0916 19:14:00.863054  6312 net.cpp:122] Setting up cccp3
I0916 19:14:00.863062  6312 net.cpp:129] Top shape: 50 192 14 14 (1881600)
I0916 19:14:00.863065  6312 net.cpp:137] Memory required for data: 171069400
I0916 19:14:00.863070  6312 layer_factory.hpp:77] Creating layer penlu_cccp3
I0916 19:14:00.863075  6312 net.cpp:84] Creating Layer penlu_cccp3
I0916 19:14:00.863077  6312 net.cpp:406] penlu_cccp3 <- cccp3
I0916 19:14:00.863081  6312 net.cpp:380] penlu_cccp3 -> penlu_cccp3
I0916 19:14:00.863199  6312 net.cpp:122] Setting up penlu_cccp3
I0916 19:14:00.863204  6312 net.cpp:129] Top shape: 50 192 14 14 (1881600)
I0916 19:14:00.863206  6312 net.cpp:137] Memory required for data: 178595800
I0916 19:14:00.863210  6312 layer_factory.hpp:77] Creating layer cccp4
I0916 19:14:00.863216  6312 net.cpp:84] Creating Layer cccp4
I0916 19:14:00.863219  6312 net.cpp:406] cccp4 <- penlu_cccp3
I0916 19:14:00.863222  6312 net.cpp:380] cccp4 -> cccp4
I0916 19:14:00.864886  6312 net.cpp:122] Setting up cccp4
I0916 19:14:00.864895  6312 net.cpp:129] Top shape: 50 192 14 14 (1881600)
I0916 19:14:00.864898  6312 net.cpp:137] Memory required for data: 186122200
I0916 19:14:00.864902  6312 layer_factory.hpp:77] Creating layer penlu_cccp4
I0916 19:14:00.864908  6312 net.cpp:84] Creating Layer penlu_cccp4
I0916 19:14:00.864910  6312 net.cpp:406] penlu_cccp4 <- cccp4
I0916 19:14:00.864915  6312 net.cpp:380] penlu_cccp4 -> penlu_cccp4
I0916 19:14:00.865036  6312 net.cpp:122] Setting up penlu_cccp4
I0916 19:14:00.865041  6312 net.cpp:129] Top shape: 50 192 14 14 (1881600)
I0916 19:14:00.865043  6312 net.cpp:137] Memory required for data: 193648600
I0916 19:14:00.865048  6312 layer_factory.hpp:77] Creating layer pool2
I0916 19:14:00.865053  6312 net.cpp:84] Creating Layer pool2
I0916 19:14:00.865056  6312 net.cpp:406] pool2 <- penlu_cccp4
I0916 19:14:00.865059  6312 net.cpp:380] pool2 -> pool2
I0916 19:14:00.865185  6312 net.cpp:122] Setting up pool2
I0916 19:14:00.865190  6312 net.cpp:129] Top shape: 50 192 7 7 (470400)
I0916 19:14:00.865191  6312 net.cpp:137] Memory required for data: 195530200
I0916 19:14:00.865195  6312 layer_factory.hpp:77] Creating layer dropout2
I0916 19:14:00.865198  6312 net.cpp:84] Creating Layer dropout2
I0916 19:14:00.865200  6312 net.cpp:406] dropout2 <- pool2
I0916 19:14:00.865203  6312 net.cpp:380] dropout2 -> dropout2
I0916 19:14:00.865226  6312 net.cpp:122] Setting up dropout2
I0916 19:14:00.865229  6312 net.cpp:129] Top shape: 50 192 7 7 (470400)
I0916 19:14:00.865231  6312 net.cpp:137] Memory required for data: 197411800
I0916 19:14:00.865233  6312 layer_factory.hpp:77] Creating layer conv3
I0916 19:14:00.865238  6312 net.cpp:84] Creating Layer conv3
I0916 19:14:00.865242  6312 net.cpp:406] conv3 <- dropout2
I0916 19:14:00.865244  6312 net.cpp:380] conv3 -> conv3
I0916 19:14:00.874523  6312 net.cpp:122] Setting up conv3
I0916 19:14:00.874541  6312 net.cpp:129] Top shape: 50 192 7 7 (470400)
I0916 19:14:00.874554  6312 net.cpp:137] Memory required for data: 199293400
I0916 19:14:00.874563  6312 layer_factory.hpp:77] Creating layer penlu_conv3
I0916 19:14:00.874588  6312 net.cpp:84] Creating Layer penlu_conv3
I0916 19:14:00.874593  6312 net.cpp:406] penlu_conv3 <- conv3
I0916 19:14:00.874603  6312 net.cpp:380] penlu_conv3 -> penlu_conv3
I0916 19:14:00.874758  6312 net.cpp:122] Setting up penlu_conv3
I0916 19:14:00.874774  6312 net.cpp:129] Top shape: 50 192 7 7 (470400)
I0916 19:14:00.874788  6312 net.cpp:137] Memory required for data: 201175000
I0916 19:14:00.874811  6312 layer_factory.hpp:77] Creating layer cccp5
I0916 19:14:00.874835  6312 net.cpp:84] Creating Layer cccp5
I0916 19:14:00.874847  6312 net.cpp:406] cccp5 <- penlu_conv3
I0916 19:14:00.874855  6312 net.cpp:380] cccp5 -> cccp5
I0916 19:14:00.876516  6312 net.cpp:122] Setting up cccp5
I0916 19:14:00.876528  6312 net.cpp:129] Top shape: 50 192 7 7 (470400)
I0916 19:14:00.876533  6312 net.cpp:137] Memory required for data: 203056600
I0916 19:14:00.876551  6312 layer_factory.hpp:77] Creating layer penlu_cccp5
I0916 19:14:00.876561  6312 net.cpp:84] Creating Layer penlu_cccp5
I0916 19:14:00.876575  6312 net.cpp:406] penlu_cccp5 <- cccp5
I0916 19:14:00.876592  6312 net.cpp:380] penlu_cccp5 -> penlu_cccp5
I0916 19:14:00.876716  6312 net.cpp:122] Setting up penlu_cccp5
I0916 19:14:00.876724  6312 net.cpp:129] Top shape: 50 192 7 7 (470400)
I0916 19:14:00.876740  6312 net.cpp:137] Memory required for data: 204938200
I0916 19:14:00.876749  6312 layer_factory.hpp:77] Creating layer cccp6
I0916 19:14:00.876760  6312 net.cpp:84] Creating Layer cccp6
I0916 19:14:00.876765  6312 net.cpp:406] cccp6 <- penlu_cccp5
I0916 19:14:00.876772  6312 net.cpp:380] cccp6 -> cccp6
I0916 19:14:00.877643  6312 net.cpp:122] Setting up cccp6
I0916 19:14:00.877655  6312 net.cpp:129] Top shape: 50 10 7 7 (24500)
I0916 19:14:00.877660  6312 net.cpp:137] Memory required for data: 205036200
I0916 19:14:00.877667  6312 layer_factory.hpp:77] Creating layer penlu_cccp6
I0916 19:14:00.877677  6312 net.cpp:84] Creating Layer penlu_cccp6
I0916 19:14:00.877682  6312 net.cpp:406] penlu_cccp6 <- cccp6
I0916 19:14:00.877691  6312 net.cpp:380] penlu_cccp6 -> penlu_cccp6
I0916 19:14:00.877799  6312 net.cpp:122] Setting up penlu_cccp6
I0916 19:14:00.877807  6312 net.cpp:129] Top shape: 50 10 7 7 (24500)
I0916 19:14:00.877811  6312 net.cpp:137] Memory required for data: 205134200
I0916 19:14:00.877820  6312 layer_factory.hpp:77] Creating layer pool3
I0916 19:14:00.877828  6312 net.cpp:84] Creating Layer pool3
I0916 19:14:00.877835  6312 net.cpp:406] pool3 <- penlu_cccp6
I0916 19:14:00.877840  6312 net.cpp:380] pool3 -> pool3
I0916 19:14:00.878293  6312 net.cpp:122] Setting up pool3
I0916 19:14:00.878304  6312 net.cpp:129] Top shape: 50 10 1 1 (500)
I0916 19:14:00.878309  6312 net.cpp:137] Memory required for data: 205136200
I0916 19:14:00.878312  6312 layer_factory.hpp:77] Creating layer pool3_pool3_0_split
I0916 19:14:00.878319  6312 net.cpp:84] Creating Layer pool3_pool3_0_split
I0916 19:14:00.878325  6312 net.cpp:406] pool3_pool3_0_split <- pool3
I0916 19:14:00.878331  6312 net.cpp:380] pool3_pool3_0_split -> pool3_pool3_0_split_0
I0916 19:14:00.878340  6312 net.cpp:380] pool3_pool3_0_split -> pool3_pool3_0_split_1
I0916 19:14:00.878368  6312 net.cpp:122] Setting up pool3_pool3_0_split
I0916 19:14:00.878376  6312 net.cpp:129] Top shape: 50 10 1 1 (500)
I0916 19:14:00.878382  6312 net.cpp:129] Top shape: 50 10 1 1 (500)
I0916 19:14:00.878387  6312 net.cpp:137] Memory required for data: 205140200
I0916 19:14:00.878392  6312 layer_factory.hpp:77] Creating layer accuracy
I0916 19:14:00.878399  6312 net.cpp:84] Creating Layer accuracy
I0916 19:14:00.878404  6312 net.cpp:406] accuracy <- pool3_pool3_0_split_0
I0916 19:14:00.878410  6312 net.cpp:406] accuracy <- label_cifar_1_split_0
I0916 19:14:00.878417  6312 net.cpp:380] accuracy -> accuracy
…
