…
I1014 20:40:18.752737 17129 net.cpp:51] Initializing net from parameters: 
name: "CIFAR100_full"
state {
  phase: TRAIN
  level: 0
  stage: ""
}
layer {
  name: "cifar"
  type: "Data"
  top: "data"
  top: "label"
  include {
    phase: TRAIN
  }
  transform_param {
    mirror: true
    crop_size: 28
    mean_file: "/home/x306/caffe/xn/PENLU/data/cifar100/mean.binaryproto"
  }
  data_param {
    source: "/home/x306/caffe/xn/PENLU/data/cifar100/cifar100_train_lmdb"
    batch_size: 100
    backend: LMDB
  }
  image_data_param {
    shuffle: true
  }
}
layer {
  name: "conv1"
  type: "Convolution"
  bottom: "data"
  top: "conv1"
  param {
    lr_mult: 1
    decay_mult: 1
  }
  param {
    lr_mult: 2
    decay_mult: 0
  }
  convolution_param {
    num_output: 192
    pad: 2
    kernel_size: 5
    weight_filler {
      type: "xavier"
    }
    bias_filler {
      type: "constant"
      value: 0
    }
  }
}
layer {
  name: "penlu_conv1"
  type: "PENLU"
  bottom: "conv1"
  top: "penlu_conv1"
  param {
    lr_mult: 2
    decay_mult: 2
  }
  param {
    lr_mult: 2
    decay_mult: 2
  }
  param {
    lr_mult: 0
    decay_mult: 0
  }
  penlu_param {
    alpha_filler {
      type: "constant"
      value: 0.25
    }
    beta_filler {
      type: "constant"
      value: 1
    }
    eta_filler {
      type: "constant"
      value: 1
    }
  }
}
layer {
  name: "cccp1"
  type: "Convolution"
  bottom: "penlu_conv1"
  top: "cccp1"
  param {
    lr_mult: 1
    decay_mult: 1
  }
  param {
    lr_mult: 2
    decay_mult: 0
  }
  convolution_param {
    num_output: 160
    kernel_size: 1
    weight_filler {
      type: "xavier"
    }
    bias_filler {
      type: "constant"
      value: 0
    }
  }
}
layer {
  name: "penlu_cccp1"
  type: "PENLU"
  bottom: "cccp1"
  top: "penlu_cccp1"
  param {
    lr_mult: 2
    decay_mult: 2
  }
  param {
    lr_mult: 2
    decay_mult: 2
  }
  param {
    lr_mult: 0
    decay_mult: 0
  }
  penlu_param {
    alpha_filler {
      type: "constant"
      value: 0.25
    }
    beta_filler {
      type: "constant"
      value: 1
    }
    eta_filler {
      type: "constant"
      value: 1
    }
  }
}
layer {
  name: "cccp2"
  type: "Convolution"
  bottom: "penlu_cccp1"
  top: "cccp2"
  param {
    lr_mult: 1
    decay_mult: 1
  }
  param {
    lr_mult: 2
    decay_mult: 0
  }
  convolution_param {
    num_output: 96
    kernel_size: 1
    weight_filler {
      type: "xavier"
    }
    bias_filler {
      type: "constant"
      value: 0
    }
  }
}
layer {
  name: "penlu_cccp2"
  type: "PENLU"
  bottom: "cccp2"
  top: "penlu_cccp2"
  param {
    lr_mult: 2
    decay_mult: 2
  }
  param {
    lr_mult: 2
    decay_mult: 2
  }
  param {
    lr_mult: 0
    decay_mult: 0
  }
  penlu_param {
    alpha_filler {
      type: "constant"
      value: 0.25
    }
    beta_filler {
      type: "constant"
      value: 1
    }
    eta_filler {
      type: "constant"
      value: 1
    }
  }
}
layer {
  name: "pool1"
  type: "Pooling"
  bottom: "penlu_cccp2"
  top: "pool1"
  pooling_param {
    pool: AVE
    kernel_size: 3
    stride: 2
  }
}
layer {
  name: "dropout1"
  type: "Dropout"
  bottom: "pool1"
  top: "dropout1"
  dropout_param {
    dropout_ratio: 0.5
  }
}
layer {
  name: "conv2"
  type: "Convolution"
  bottom: "dropout1"
  top: "conv2"
  param {
    lr_mult: 1
    decay_mult: 1
  }
  param {
    lr_mult: 2
    decay_mult: 0
  }
  convolution_param {
    num_output: 192
    pad: 2
    kernel_size: 5
    weight_filler {
      type: "xavier"
    }
    bias_filler {
      type: "constant"
      value: 0
    }
  }
}
layer {
  name: "penlu_conv2"
  type: "PENLU"
  bottom: "conv2"
  top: "penlu_conv2"
  param {
    lr_mult: 2
    decay_mult: 2
  }
  param {
    lr_mult: 2
    decay_mult: 2
  }
  param {
    lr_mult: 0
    decay_mult: 0
  }
  penlu_param {
    alpha_filler {
      type: "constant"
      value: 0.25
    }
    beta_filler {
      type: "constant"
      value: 1
    }
    eta_filler {
      type: "constant"
      value: 1
    }
  }
}
layer {
  name: "cccp3"
  type: "Convolution"
  bottom: "penlu_conv2"
  top: "cccp3"
  param {
    lr_mult: 1
    decay_mult: 1
  }
  param {
    lr_mult: 2
    decay_mult: 0
  }
  convolution_param {
    num_output: 192
    kernel_size: 1
    weight_filler {
      type: "xavier"
    }
    bias_filler {
      type: "constant"
      value: 0
    }
  }
}
layer {
  name: "penlu_cccp3"
  type: "PENLU"
  bottom: "cccp3"
  top: "penlu_cccp3"
  param {
    lr_mult: 2
    decay_mult: 2
  }
  param {
    lr_mult: 2
    decay_mult: 2
  }
  param {
    lr_mult: 0
    decay_mult: 0
  }
  penlu_param {
    alpha_filler {
      type: "constant"
      value: 0.25
    }
    beta_filler {
      type: "constant"
      value: 1
    }
    eta_filler {
      type: "constant"
      value: 1
    }
  }
}
layer {
  name: "cccp4"
  type: "Convolution"
  bottom: "penlu_cccp3"
  top: "cccp4"
  param {
    lr_mult: 1
    decay_mult: 1
  }
  param {
    lr_mult: 2
    decay_mult: 0
  }
  convolution_param {
    num_output: 192
    kernel_size: 1
    weight_filler {
      type: "xavier"
    }
    bias_filler {
      type: "constant"
      value: 0
    }
  }
}
layer {
  name: "penlu_cccp4"
  type: "PENLU"
  bottom: "cccp4"
  top: "penlu_cccp4"
  param {
    lr_mult: 2
    decay_mult: 2
  }
  param {
    lr_mult: 2
    decay_mult: 2
  }
  param {
    lr_mult: 0
    decay_mult: 0
  }
  penlu_param {
    alpha_filler {
      type: "constant"
      value: 0.25
    }
    beta_filler {
      type: "constant"
      value: 1
    }
    eta_filler {
      type: "constant"
      value: 1
    }
  }
}
layer {
  name: "pool2"
  type: "Pooling"
  bottom: "penlu_cccp4"
  top: "pool2"
  pooling_param {
    pool: AVE
    kernel_size: 3
    stride: 2
  }
}
layer {
  name: "dropout2"
  type: "Dropout"
  bottom: "pool2"
  top: "dropout2"
  dropout_param {
    dropout_ratio: 0.5
  }
}
layer {
  name: "conv3"
  type: "Convolution"
  bottom: "dropout2"
  top: "conv3"
  param {
    lr_mult: 1
    decay_mult: 1
  }
  param {
    lr_mult: 2
    decay_mult: 0
  }
  convolution_param {
    num_output: 192
    pad: 1
    kernel_size: 5
    weight_filler {
      type: "xavier"
    }
    bias_filler {
      type: "constant"
      value: 0
    }
  }
}
layer {
  name: "penlu_conv3"
  type: "PENLU"
  bottom: "conv3"
  top: "penlu_conv3"
  param {
    lr_mult: 2
    decay_mult: 2
  }
  param {
    lr_mult: 2
    decay_mult: 2
  }
  param {
    lr_mult: 0
    decay_mult: 0
  }
  penlu_param {
    alpha_filler {
      type: "constant"
      value: 0.25
    }
    beta_filler {
      type: "constant"
      value: 1
    }
    eta_filler {
      type: "constant"
      value: 1
    }
  }
}
layer {
  name: "cccp5"
  type: "Convolution"
  bottom: "penlu_conv3"
  top: "cccp5"
  param {
    lr_mult: 1
    decay_mult: 1
  }
  param {
    lr_mult: 2
    decay_mult: 0
  }
  convolution_param {
    num_output: 192
    kernel_size: 1
    weight_filler {
      type: "xavier"
    }
    bias_filler {
      type: "constant"
      value: 0
    }
  }
}
layer {
  name: "penlu_cccp5"
  type: "PENLU"
  bottom: "cccp5"
  top: "penlu_cccp5"
  param {
    lr_mult: 2
    decay_mult: 2
  }
  param {
    lr_mult: 2
    decay_mult: 2
  }
  param {
    lr_mult: 0
    decay_mult: 0
  }
  penlu_param {
    alpha_filler {
      type: "constant"
      value: 0.25
    }
    beta_filler {
      type: "constant"
      value: 1
    }
    eta_filler {
      type: "constant"
      value: 1
    }
  }
}
layer {
  name: "cccp6"
  type: "Convolution"
  bottom: "penlu_cccp5"
  top: "cccp6"
  param {
    lr_mult: 1
    decay_mult: 1
  }
  param {
    lr_mult: 2
    decay_mult: 0
  }
  convolution_param {
    num_output: 192
    kernel_size: 1
    weight_filler {
      type: "xavier"
    }
    bias_filler {
      type: "constant"
      value: 0
    }
  }
}
layer {
  name: "penlu_cccp6"
  type: "PENLU"
  bottom: "cccp6"
  top: "penlu_cccp6"
  param {
    lr_mult: 2
    decay_mult: 2
  }
  param {
    lr_mult: 2
    decay_mult: 2
  }
  param {
    lr_mult: 0
    decay_mult: 0
  }
  penlu_param {
    alpha_filler {
      type: "constant"
      value: 0.25
    }
    beta_filler {
      type: "constant"
      value: 1
    }
    eta_filler {
      type: "constant"
      value: 1
    }
  }
}
layer {
  name: "pool3"
  type: "Pooling"
  bottom: "penlu_cccp6"
  top: "pool3"
  pooling_param {
    pool: AVE
    kernel_size: 3
    stride: 2
  }
}
layer {
  name: "dropout3"
  type: "Dropout"
  bottom: "pool3"
  top: "dropout3"
  dropout_param {
    dropout_ratio: 0.5
  }
}
layer {
  name: "conv4"
  type: "Convolution"
  bottom: "dropout3"
  top: "conv4"
  param {
    lr_mult: 1
    decay_mult: 1
  }
  param {
    lr_mult: 2
    decay_mult: 0
  }
  convolution_param {
    num_output: 384
    pad: 1
    kernel_size: 3
    weight_filler {
      type: "xavier"
    }
    bias_filler {
      type: "constant"
      value: 0
    }
  }
}
layer {
  name: "penlu_conv4"
  type: "PENLU"
  bottom: "conv4"
  top: "penlu_conv4"
  param {
    lr_mult: 2
    decay_mult: 2
  }
  param {
    lr_mult: 2
    decay_mult: 2
  }
  param {
    lr_mult: 0
    decay_mult: 0
  }
  penlu_param {
    alpha_filler {
      type: "constant"
      value: 0.25
    }
    beta_filler {
      type: "constant"
      value: 1
    }
    eta_filler {
      type: "constant"
      value: 1
    }
  }
}
layer {
  name: "cccp7"
  type: "Convolution"
  bottom: "penlu_conv4"
  top: "cccp7"
  param {
    lr_mult: 1
    decay_mult: 1
  }
  param {
    lr_mult: 2
    decay_mult: 0
  }
  convolution_param {
    num_output: 384
    kernel_size: 1
    weight_filler {
      type: "xavier"
    }
    bias_filler {
      type: "constant"
      value: 0
    }
  }
}
layer {
  name: "penlu_cccp7"
  type: "PENLU"
  bottom: "cccp7"
  top: "penlu_cccp7"
  param {
    lr_mult: 2
    decay_mult: 2
  }
  param {
    lr_mult: 2
    decay_mult: 2
  }
  param {
    lr_mult: 0
    decay_mult: 0
  }
  penlu_param {
    alpha_filler {
      type: "constant"
      value: 0.25
    }
    beta_filler {
      type: "constant"
      value: 1
    }
    eta_filler {
      type: "constant"
      value: 1
    }
  }
}
layer {
  name: "cccp8"
  type: "Convolution"
  bottom: "penlu_cccp7"
  top: "cccp8"
  param {
    lr_mult: 1
    decay_mult: 1
  }
  param {
    lr_mult: 2
    decay_mult: 0
  }
  convolution_param {
    num_output: 384
    kernel_size: 1
    weight_filler {
      type: "xavier"
    }
    bias_filler {
      type: "constant"
      value: 0
    }
  }
}
layer {
  name: "penlu_cccp8"
  type: "PENLU"
  bottom: "cccp8"
  top: "penlu_cccp8"
  param {
    lr_mult: 2
    decay_mult: 2
  }
  param {
    lr_mult: 2
    decay_mult: 2
  }
  param {
    lr_mult: 0
    decay_mult: 0
  }
  penlu_param {
    alpha_filler {
      type: "constant"
      value: 0.25
    }
    beta_filler {
      type: "constant"
      value: 1
    }
    eta_filler {
      type: "constant"
      value: 1
    }
  }
}
layer {
  name: "pool4"
  type: "Pooling"
  bottom: "penlu_cccp8"
  top: "pool4"
  pooling_param {
    pool: AVE
    kernel_size: 3
    stride: 2
  }
}
layer {
  name: "dropout4"
  type: "Dropout"
  bottom: "pool4"
  top: "dropout4"
  dropout_param {
    dropout_ratio: 0.5
  }
}
layer {
  name: "fc1"
  type: "InnerProduct"
  bottom: "dropout4"
  top: "fc1"
  param {
    lr_mult: 1
    decay_mult: 1
  }
  param {
    lr_mult: 2
    decay_mult: 0
  }
  inner_product_param {
    num_output: 100
    weight_filler {
      type: "gaussian"
      std: 0.01
    }
    bias_filler {
      type: "constant"
      value: 0
    }
  }
}
layer {
  name: "accuracy"
  type: "Accuracy"
  bottom: "fc1"
  bottom: "label"
  top: "accuracy"
}
layer {
  name: "loss"
  type: "SoftmaxWithLoss"
  bottom: "fc1"
  bottom: "label"
  top: "loss"
}
I1014 20:40:18.752943 17129 layer_factory.hpp:77] Creating layer cifar
I1014 20:40:18.753021 17129 db_lmdb.cpp:35] Opened lmdb /home/x306/caffe/xn/PENLU/data/cifar100/cifar100_train_lmdb
I1014 20:40:18.753041 17129 net.cpp:84] Creating Layer cifar
I1014 20:40:18.753046 17129 net.cpp:380] cifar -> data
I1014 20:40:18.753064 17129 net.cpp:380] cifar -> label
I1014 20:40:18.753073 17129 data_transformer.cpp:25] Loading mean file from: /home/x306/caffe/xn/PENLU/data/cifar100/mean.binaryproto
I1014 20:40:18.754503 17129 data_layer.cpp:45] output data size: 100,3,28,28
I1014 20:40:18.756790 17129 net.cpp:122] Setting up cifar
I1014 20:40:18.756805 17129 net.cpp:129] Top shape: 100 3 28 28 (235200)
I1014 20:40:18.756810 17129 net.cpp:129] Top shape: 100 (100)
I1014 20:40:18.756814 17129 net.cpp:137] Memory required for data: 941200
I1014 20:40:18.756819 17129 layer_factory.hpp:77] Creating layer label_cifar_1_split
I1014 20:40:18.756831 17129 net.cpp:84] Creating Layer label_cifar_1_split
I1014 20:40:18.756835 17129 net.cpp:406] label_cifar_1_split <- label
I1014 20:40:18.756844 17129 net.cpp:380] label_cifar_1_split -> label_cifar_1_split_0
I1014 20:40:18.756851 17129 net.cpp:380] label_cifar_1_split -> label_cifar_1_split_1
I1014 20:40:18.756887 17129 net.cpp:122] Setting up label_cifar_1_split
I1014 20:40:18.756893 17129 net.cpp:129] Top shape: 100 (100)
I1014 20:40:18.756896 17129 net.cpp:129] Top shape: 100 (100)
I1014 20:40:18.756898 17129 net.cpp:137] Memory required for data: 942000
I1014 20:40:18.756901 17129 layer_factory.hpp:77] Creating layer conv1
I1014 20:40:18.756912 17129 net.cpp:84] Creating Layer conv1
I1014 20:40:18.756916 17129 net.cpp:406] conv1 <- data
I1014 20:40:18.756920 17129 net.cpp:380] conv1 -> conv1
I1014 20:40:18.904523 17129 net.cpp:122] Setting up conv1
I1014 20:40:18.904548 17129 net.cpp:129] Top shape: 100 192 28 28 (15052800)
I1014 20:40:18.904552 17129 net.cpp:137] Memory required for data: 61153200
I1014 20:40:18.904578 17129 layer_factory.hpp:77] Creating layer penlu_conv1
I1014 20:40:18.904606 17129 net.cpp:84] Creating Layer penlu_conv1
I1014 20:40:18.904613 17129 net.cpp:406] penlu_conv1 <- conv1
I1014 20:40:18.904619 17129 net.cpp:380] penlu_conv1 -> penlu_conv1
I1014 20:40:18.905277 17129 net.cpp:122] Setting up penlu_conv1
I1014 20:40:18.905287 17129 net.cpp:129] Top shape: 100 192 28 28 (15052800)
I1014 20:40:18.905290 17129 net.cpp:137] Memory required for data: 121364400
I1014 20:40:18.905297 17129 layer_factory.hpp:77] Creating layer cccp1
I1014 20:40:18.905308 17129 net.cpp:84] Creating Layer cccp1
I1014 20:40:18.905313 17129 net.cpp:406] cccp1 <- penlu_conv1
I1014 20:40:18.905330 17129 net.cpp:380] cccp1 -> cccp1
I1014 20:40:18.906865 17129 net.cpp:122] Setting up cccp1
I1014 20:40:18.906885 17129 net.cpp:129] Top shape: 100 160 28 28 (12544000)
I1014 20:40:18.906889 17129 net.cpp:137] Memory required for data: 171540400
I1014 20:40:18.906894 17129 layer_factory.hpp:77] Creating layer penlu_cccp1
I1014 20:40:18.906911 17129 net.cpp:84] Creating Layer penlu_cccp1
I1014 20:40:18.906914 17129 net.cpp:406] penlu_cccp1 <- cccp1
I1014 20:40:18.906920 17129 net.cpp:380] penlu_cccp1 -> penlu_cccp1
I1014 20:40:18.907135 17129 net.cpp:122] Setting up penlu_cccp1
I1014 20:40:18.907142 17129 net.cpp:129] Top shape: 100 160 28 28 (12544000)
I1014 20:40:18.907155 17129 net.cpp:137] Memory required for data: 221716400
I1014 20:40:18.907162 17129 layer_factory.hpp:77] Creating layer cccp2
I1014 20:40:18.907179 17129 net.cpp:84] Creating Layer cccp2
I1014 20:40:18.907183 17129 net.cpp:406] cccp2 <- penlu_cccp1
I1014 20:40:18.907191 17129 net.cpp:380] cccp2 -> cccp2
I1014 20:40:18.908102 17129 net.cpp:122] Setting up cccp2
I1014 20:40:18.908113 17129 net.cpp:129] Top shape: 100 96 28 28 (7526400)
I1014 20:40:18.908133 17129 net.cpp:137] Memory required for data: 251822000
I1014 20:40:18.908143 17129 layer_factory.hpp:77] Creating layer penlu_cccp2
I1014 20:40:18.908154 17129 net.cpp:84] Creating Layer penlu_cccp2
I1014 20:40:18.908159 17129 net.cpp:406] penlu_cccp2 <- cccp2
I1014 20:40:18.908167 17129 net.cpp:380] penlu_cccp2 -> penlu_cccp2
I1014 20:40:18.908324 17129 net.cpp:122] Setting up penlu_cccp2
I1014 20:40:18.908331 17129 net.cpp:129] Top shape: 100 96 28 28 (7526400)
I1014 20:40:18.908335 17129 net.cpp:137] Memory required for data: 281927600
I1014 20:40:18.908344 17129 layer_factory.hpp:77] Creating layer pool1
I1014 20:40:18.908355 17129 net.cpp:84] Creating Layer pool1
I1014 20:40:18.908360 17129 net.cpp:406] pool1 <- penlu_cccp2
I1014 20:40:18.908367 17129 net.cpp:380] pool1 -> pool1
I1014 20:40:18.908514 17129 net.cpp:122] Setting up pool1
I1014 20:40:18.908521 17129 net.cpp:129] Top shape: 100 96 14 14 (1881600)
I1014 20:40:18.908526 17129 net.cpp:137] Memory required for data: 289454000
I1014 20:40:18.908531 17129 layer_factory.hpp:77] Creating layer dropout1
I1014 20:40:18.908540 17129 net.cpp:84] Creating Layer dropout1
I1014 20:40:18.908545 17129 net.cpp:406] dropout1 <- pool1
I1014 20:40:18.908552 17129 net.cpp:380] dropout1 -> dropout1
I1014 20:40:18.908589 17129 net.cpp:122] Setting up dropout1
I1014 20:40:18.908596 17129 net.cpp:129] Top shape: 100 96 14 14 (1881600)
I1014 20:40:18.908601 17129 net.cpp:137] Memory required for data: 296980400
I1014 20:40:18.908605 17129 layer_factory.hpp:77] Creating layer conv2
I1014 20:40:18.908615 17129 net.cpp:84] Creating Layer conv2
I1014 20:40:18.908622 17129 net.cpp:406] conv2 <- dropout1
I1014 20:40:18.908630 17129 net.cpp:380] conv2 -> conv2
I1014 20:40:18.912497 17129 net.cpp:122] Setting up conv2
I1014 20:40:18.912509 17129 net.cpp:129] Top shape: 100 192 14 14 (3763200)
I1014 20:40:18.912514 17129 net.cpp:137] Memory required for data: 312033200
I1014 20:40:18.912526 17129 layer_factory.hpp:77] Creating layer penlu_conv2
I1014 20:40:18.912537 17129 net.cpp:84] Creating Layer penlu_conv2
I1014 20:40:18.912544 17129 net.cpp:406] penlu_conv2 <- conv2
I1014 20:40:18.912551 17129 net.cpp:380] penlu_conv2 -> penlu_conv2
I1014 20:40:18.912681 17129 net.cpp:122] Setting up penlu_conv2
I1014 20:40:18.912688 17129 net.cpp:129] Top shape: 100 192 14 14 (3763200)
I1014 20:40:18.912690 17129 net.cpp:137] Memory required for data: 327086000
I1014 20:40:18.912695 17129 layer_factory.hpp:77] Creating layer cccp3
I1014 20:40:18.912703 17129 net.cpp:84] Creating Layer cccp3
I1014 20:40:18.912705 17129 net.cpp:406] cccp3 <- penlu_conv2
I1014 20:40:18.912709 17129 net.cpp:380] cccp3 -> cccp3
I1014 20:40:18.913679 17129 net.cpp:122] Setting up cccp3
I1014 20:40:18.913691 17129 net.cpp:129] Top shape: 100 192 14 14 (3763200)
I1014 20:40:18.913693 17129 net.cpp:137] Memory required for data: 342138800
I1014 20:40:18.913698 17129 layer_factory.hpp:77] Creating layer penlu_cccp3
I1014 20:40:18.913704 17129 net.cpp:84] Creating Layer penlu_cccp3
I1014 20:40:18.913707 17129 net.cpp:406] penlu_cccp3 <- cccp3
I1014 20:40:18.913712 17129 net.cpp:380] penlu_cccp3 -> penlu_cccp3
I1014 20:40:18.913831 17129 net.cpp:122] Setting up penlu_cccp3
I1014 20:40:18.913837 17129 net.cpp:129] Top shape: 100 192 14 14 (3763200)
I1014 20:40:18.913841 17129 net.cpp:137] Memory required for data: 357191600
I1014 20:40:18.913844 17129 layer_factory.hpp:77] Creating layer cccp4
I1014 20:40:18.913851 17129 net.cpp:84] Creating Layer cccp4
I1014 20:40:18.913854 17129 net.cpp:406] cccp4 <- penlu_cccp3
I1014 20:40:18.913858 17129 net.cpp:380] cccp4 -> cccp4
I1014 20:40:18.914847 17129 net.cpp:122] Setting up cccp4
I1014 20:40:18.914858 17129 net.cpp:129] Top shape: 100 192 14 14 (3763200)
I1014 20:40:18.914861 17129 net.cpp:137] Memory required for data: 372244400
I1014 20:40:18.914866 17129 layer_factory.hpp:77] Creating layer penlu_cccp4
I1014 20:40:18.914872 17129 net.cpp:84] Creating Layer penlu_cccp4
I1014 20:40:18.914875 17129 net.cpp:406] penlu_cccp4 <- cccp4
I1014 20:40:18.914880 17129 net.cpp:380] penlu_cccp4 -> penlu_cccp4
I1014 20:40:18.915009 17129 net.cpp:122] Setting up penlu_cccp4
I1014 20:40:18.915014 17129 net.cpp:129] Top shape: 100 192 14 14 (3763200)
I1014 20:40:18.915017 17129 net.cpp:137] Memory required for data: 387297200
I1014 20:40:18.915022 17129 layer_factory.hpp:77] Creating layer pool2
I1014 20:40:18.915029 17129 net.cpp:84] Creating Layer pool2
I1014 20:40:18.915031 17129 net.cpp:406] pool2 <- penlu_cccp4
I1014 20:40:18.915035 17129 net.cpp:380] pool2 -> pool2
I1014 20:40:18.915153 17129 net.cpp:122] Setting up pool2
I1014 20:40:18.915160 17129 net.cpp:129] Top shape: 100 192 7 7 (940800)
I1014 20:40:18.915163 17129 net.cpp:137] Memory required for data: 391060400
I1014 20:40:18.915165 17129 layer_factory.hpp:77] Creating layer dropout2
I1014 20:40:18.915170 17129 net.cpp:84] Creating Layer dropout2
I1014 20:40:18.915174 17129 net.cpp:406] dropout2 <- pool2
I1014 20:40:18.915176 17129 net.cpp:380] dropout2 -> dropout2
I1014 20:40:18.915199 17129 net.cpp:122] Setting up dropout2
I1014 20:40:18.915204 17129 net.cpp:129] Top shape: 100 192 7 7 (940800)
I1014 20:40:18.915205 17129 net.cpp:137] Memory required for data: 394823600
I1014 20:40:18.915207 17129 layer_factory.hpp:77] Creating layer conv3
I1014 20:40:18.915213 17129 net.cpp:84] Creating Layer conv3
I1014 20:40:18.915216 17129 net.cpp:406] conv3 <- dropout2
I1014 20:40:18.915220 17129 net.cpp:380] conv3 -> conv3
I1014 20:40:18.921926 17129 net.cpp:122] Setting up conv3
I1014 20:40:18.921968 17129 net.cpp:129] Top shape: 100 192 5 5 (480000)
I1014 20:40:18.921983 17129 net.cpp:137] Memory required for data: 396743600
I1014 20:40:18.921993 17129 layer_factory.hpp:77] Creating layer penlu_conv3
I1014 20:40:18.922022 17129 net.cpp:84] Creating Layer penlu_conv3
I1014 20:40:18.922029 17129 net.cpp:406] penlu_conv3 <- conv3
I1014 20:40:18.922039 17129 net.cpp:380] penlu_conv3 -> penlu_conv3
I1014 20:40:18.922178 17129 net.cpp:122] Setting up penlu_conv3
I1014 20:40:18.922185 17129 net.cpp:129] Top shape: 100 192 5 5 (480000)
I1014 20:40:18.922189 17129 net.cpp:137] Memory required for data: 398663600
I1014 20:40:18.922202 17129 layer_factory.hpp:77] Creating layer cccp5
I1014 20:40:18.922214 17129 net.cpp:84] Creating Layer cccp5
I1014 20:40:18.922220 17129 net.cpp:406] cccp5 <- penlu_conv3
I1014 20:40:18.922228 17129 net.cpp:380] cccp5 -> cccp5
I1014 20:40:18.923221 17129 net.cpp:122] Setting up cccp5
I1014 20:40:18.923231 17129 net.cpp:129] Top shape: 100 192 5 5 (480000)
I1014 20:40:18.923238 17129 net.cpp:137] Memory required for data: 400583600
I1014 20:40:18.923245 17129 layer_factory.hpp:77] Creating layer penlu_cccp5
I1014 20:40:18.923254 17129 net.cpp:84] Creating Layer penlu_cccp5
I1014 20:40:18.923260 17129 net.cpp:406] penlu_cccp5 <- cccp5
I1014 20:40:18.923269 17129 net.cpp:380] penlu_cccp5 -> penlu_cccp5
I1014 20:40:18.923382 17129 net.cpp:122] Setting up penlu_cccp5
I1014 20:40:18.923389 17129 net.cpp:129] Top shape: 100 192 5 5 (480000)
I1014 20:40:18.923393 17129 net.cpp:137] Memory required for data: 402503600
I1014 20:40:18.923401 17129 layer_factory.hpp:77] Creating layer cccp6
I1014 20:40:18.923413 17129 net.cpp:84] Creating Layer cccp6
I1014 20:40:18.923418 17129 net.cpp:406] cccp6 <- penlu_cccp5
I1014 20:40:18.923425 17129 net.cpp:380] cccp6 -> cccp6
I1014 20:40:18.924435 17129 net.cpp:122] Setting up cccp6
I1014 20:40:18.924445 17129 net.cpp:129] Top shape: 100 192 5 5 (480000)
I1014 20:40:18.924450 17129 net.cpp:137] Memory required for data: 404423600
I1014 20:40:18.924459 17129 layer_factory.hpp:77] Creating layer penlu_cccp6
I1014 20:40:18.924468 17129 net.cpp:84] Creating Layer penlu_cccp6
I1014 20:40:18.924474 17129 net.cpp:406] penlu_cccp6 <- cccp6
I1014 20:40:18.924482 17129 net.cpp:380] penlu_cccp6 -> penlu_cccp6
I1014 20:40:18.924597 17129 net.cpp:122] Setting up penlu_cccp6
I1014 20:40:18.924602 17129 net.cpp:129] Top shape: 100 192 5 5 (480000)
I1014 20:40:18.924607 17129 net.cpp:137] Memory required for data: 406343600
I1014 20:40:18.924615 17129 layer_factory.hpp:77] Creating layer pool3
I1014 20:40:18.924634 17129 net.cpp:84] Creating Layer pool3
I1014 20:40:18.924640 17129 net.cpp:406] pool3 <- penlu_cccp6
I1014 20:40:18.924648 17129 net.cpp:380] pool3 -> pool3
I1014 20:40:18.924777 17129 net.cpp:122] Setting up pool3
I1014 20:40:18.924785 17129 net.cpp:129] Top shape: 100 192 2 2 (76800)
I1014 20:40:18.924789 17129 net.cpp:137] Memory required for data: 406650800
I1014 20:40:18.924794 17129 layer_factory.hpp:77] Creating layer dropout3
I1014 20:40:18.924803 17129 net.cpp:84] Creating Layer dropout3
I1014 20:40:18.924808 17129 net.cpp:406] dropout3 <- pool3
I1014 20:40:18.924815 17129 net.cpp:380] dropout3 -> dropout3
I1014 20:40:18.924849 17129 net.cpp:122] Setting up dropout3
I1014 20:40:18.924854 17129 net.cpp:129] Top shape: 100 192 2 2 (76800)
I1014 20:40:18.924857 17129 net.cpp:137] Memory required for data: 406958000
I1014 20:40:18.924861 17129 layer_factory.hpp:77] Creating layer conv4
I1014 20:40:18.924871 17129 net.cpp:84] Creating Layer conv4
I1014 20:40:18.924877 17129 net.cpp:406] conv4 <- dropout3
I1014 20:40:18.924885 17129 net.cpp:380] conv4 -> conv4
I1014 20:40:18.929762 17129 net.cpp:122] Setting up conv4
I1014 20:40:18.929774 17129 net.cpp:129] Top shape: 100 384 2 2 (153600)
I1014 20:40:18.929787 17129 net.cpp:137] Memory required for data: 407572400
I1014 20:40:18.929793 17129 layer_factory.hpp:77] Creating layer penlu_conv4
I1014 20:40:18.929802 17129 net.cpp:84] Creating Layer penlu_conv4
I1014 20:40:18.929808 17129 net.cpp:406] penlu_conv4 <- conv4
I1014 20:40:18.929816 17129 net.cpp:380] penlu_conv4 -> penlu_conv4
I1014 20:40:18.929929 17129 net.cpp:122] Setting up penlu_conv4
I1014 20:40:18.929944 17129 net.cpp:129] Top shape: 100 384 2 2 (153600)
I1014 20:40:18.929947 17129 net.cpp:137] Memory required for data: 408186800
I1014 20:40:18.929952 17129 layer_factory.hpp:77] Creating layer cccp7
I1014 20:40:18.929960 17129 net.cpp:84] Creating Layer cccp7
I1014 20:40:18.929962 17129 net.cpp:406] cccp7 <- penlu_conv4
I1014 20:40:18.929966 17129 net.cpp:380] cccp7 -> cccp7
I1014 20:40:18.931784 17129 net.cpp:122] Setting up cccp7
I1014 20:40:18.931797 17129 net.cpp:129] Top shape: 100 384 2 2 (153600)
I1014 20:40:18.931803 17129 net.cpp:137] Memory required for data: 408801200
I1014 20:40:18.931812 17129 layer_factory.hpp:77] Creating layer penlu_cccp7
I1014 20:40:18.931828 17129 net.cpp:84] Creating Layer penlu_cccp7
I1014 20:40:18.931834 17129 net.cpp:406] penlu_cccp7 <- cccp7
I1014 20:40:18.931843 17129 net.cpp:380] penlu_cccp7 -> penlu_cccp7
I1014 20:40:18.931988 17129 net.cpp:122] Setting up penlu_cccp7
I1014 20:40:18.932009 17129 net.cpp:129] Top shape: 100 384 2 2 (153600)
I1014 20:40:18.932015 17129 net.cpp:137] Memory required for data: 409415600
I1014 20:40:18.932025 17129 layer_factory.hpp:77] Creating layer cccp8
I1014 20:40:18.932045 17129 net.cpp:84] Creating Layer cccp8
I1014 20:40:18.932052 17129 net.cpp:406] cccp8 <- penlu_cccp7
I1014 20:40:18.932060 17129 net.cpp:380] cccp8 -> cccp8
I1014 20:40:18.934393 17129 net.cpp:122] Setting up cccp8
I1014 20:40:18.934406 17129 net.cpp:129] Top shape: 100 384 2 2 (153600)
I1014 20:40:18.934409 17129 net.cpp:137] Memory required for data: 410030000
I1014 20:40:18.934415 17129 layer_factory.hpp:77] Creating layer penlu_cccp8
I1014 20:40:18.934427 17129 net.cpp:84] Creating Layer penlu_cccp8
I1014 20:40:18.934432 17129 net.cpp:406] penlu_cccp8 <- cccp8
I1014 20:40:18.934440 17129 net.cpp:380] penlu_cccp8 -> penlu_cccp8
I1014 20:40:18.934547 17129 net.cpp:122] Setting up penlu_cccp8
I1014 20:40:18.934553 17129 net.cpp:129] Top shape: 100 384 2 2 (153600)
I1014 20:40:18.934558 17129 net.cpp:137] Memory required for data: 410644400
I1014 20:40:18.934566 17129 layer_factory.hpp:77] Creating layer pool4
I1014 20:40:18.934578 17129 net.cpp:84] Creating Layer pool4
I1014 20:40:18.934584 17129 net.cpp:406] pool4 <- penlu_cccp8
I1014 20:40:18.934592 17129 net.cpp:380] pool4 -> pool4
I1014 20:40:18.934722 17129 net.cpp:122] Setting up pool4
I1014 20:40:18.934731 17129 net.cpp:129] Top shape: 100 384 1 1 (38400)
I1014 20:40:18.934736 17129 net.cpp:137] Memory required for data: 410798000
I1014 20:40:18.934752 17129 layer_factory.hpp:77] Creating layer dropout4
I1014 20:40:18.934762 17129 net.cpp:84] Creating Layer dropout4
I1014 20:40:18.934767 17129 net.cpp:406] dropout4 <- pool4
I1014 20:40:18.934774 17129 net.cpp:380] dropout4 -> dropout4
I1014 20:40:18.934809 17129 net.cpp:122] Setting up dropout4
I1014 20:40:18.934815 17129 net.cpp:129] Top shape: 100 384 1 1 (38400)
I1014 20:40:18.934818 17129 net.cpp:137] Memory required for data: 410951600
I1014 20:40:18.934824 17129 layer_factory.hpp:77] Creating layer fc1
I1014 20:40:18.934837 17129 net.cpp:84] Creating Layer fc1
I1014 20:40:18.934844 17129 net.cpp:406] fc1 <- dropout4
I1014 20:40:18.934850 17129 net.cpp:380] fc1 -> fc1
I1014 20:40:18.935873 17129 net.cpp:122] Setting up fc1
I1014 20:40:18.935880 17129 net.cpp:129] Top shape: 100 100 (10000)
I1014 20:40:18.935883 17129 net.cpp:137] Memory required for data: 410991600
I1014 20:40:18.935889 17129 layer_factory.hpp:77] Creating layer fc1_fc1_0_split
I1014 20:40:18.935895 17129 net.cpp:84] Creating Layer fc1_fc1_0_split
I1014 20:40:18.935901 17129 net.cpp:406] fc1_fc1_0_split <- fc1
I1014 20:40:18.935909 17129 net.cpp:380] fc1_fc1_0_split -> fc1_fc1_0_split_0
I1014 20:40:18.935916 17129 net.cpp:380] fc1_fc1_0_split -> fc1_fc1_0_split_1
I1014 20:40:18.935948 17129 net.cpp:122] Setting up fc1_fc1_0_split
I1014 20:40:18.935953 17129 net.cpp:129] Top shape: 100 100 (10000)
I1014 20:40:18.935958 17129 net.cpp:129] Top shape: 100 100 (10000)
I1014 20:40:18.935963 17129 net.cpp:137] Memory required for data: 411071600
I1014 20:40:18.935967 17129 layer_factory.hpp:77] Creating layer accuracy
I1014 20:40:18.935979 17129 net.cpp:84] Creating Layer accuracy
I1014 20:40:18.935984 17129 net.cpp:406] accuracy <- fc1_fc1_0_split_0
I1014 20:40:18.935991 17129 net.cpp:406] accuracy <- label_cifar_1_split_0
I1014 20:40:18.935997 17129 net.cpp:380] accuracy -> accuracy
…
