…
I1014 10:35:49.382028 15811 net.cpp:294] The NetState phase (0) differed from the phase (1) specified by a rule in layer cifar
I1014 10:35:49.382309 15811 net.cpp:51] Initializing net from parameters: 
name: "CIFAR10_full"
state {
  phase: TRAIN
  level: 0
  stage: ""
}
layer {
  name: "cifar"
  type: "Data"
  top: "data"
  top: "label"
  include {
    phase: TRAIN
  }
  transform_param {
    mirror: true
    crop_size: 28
    mean_file: "/home/x306/caffe/xn/PENLU/data/cifar100/mean.binaryproto"
  }
  data_param {
    source: "/home/x306/caffe/xn/PENLU/data/cifar100/cifar100_train_lmdb"
    batch_size: 100
    backend: LMDB
  }
  image_data_param {
    shuffle: true
  }
}
layer {
  name: "conv1"
  type: "Convolution"
  bottom: "data"
  top: "conv1"
  param {
    lr_mult: 1
    decay_mult: 1
  }
  param {
    lr_mult: 2
    decay_mult: 0
  }
  convolution_param {
    num_output: 192
    pad: 2
    kernel_size: 5
    weight_filler {
      type: "xavier"
    }
    bias_filler {
      type: "constant"
      value: 0
    }
  }
}
layer {
  name: "relu_conv1"
  type: "ReLU"
  bottom: "conv1"
  top: "relu_conv1"
}
layer {
  name: "cccp1"
  type: "Convolution"
  bottom: "relu_conv1"
  top: "cccp1"
  param {
    lr_mult: 1
    decay_mult: 1
  }
  param {
    lr_mult: 2
    decay_mult: 0
  }
  convolution_param {
    num_output: 160
    kernel_size: 1
    weight_filler {
      type: "xavier"
    }
    bias_filler {
      type: "constant"
      value: 0
    }
  }
}
layer {
  name: "relu_cccp1"
  type: "ReLU"
  bottom: "cccp1"
  top: "relu_cccp1"
}
layer {
  name: "cccp2"
  type: "Convolution"
  bottom: "relu_cccp1"
  top: "cccp2"
  param {
    lr_mult: 1
    decay_mult: 1
  }
  param {
    lr_mult: 2
    decay_mult: 0
  }
  convolution_param {
    num_output: 96
    kernel_size: 1
    weight_filler {
      type: "xavier"
    }
    bias_filler {
      type: "constant"
      value: 0
    }
  }
}
layer {
  name: "relu_cccp2"
  type: "ReLU"
  bottom: "cccp2"
  top: "relu_cccp2"
}
layer {
  name: "pool1"
  type: "Pooling"
  bottom: "relu_cccp2"
  top: "pool1"
  pooling_param {
    pool: AVE
    kernel_size: 3
    stride: 2
  }
}
layer {
  name: "dropout1"
  type: "Dropout"
  bottom: "pool1"
  top: "dropout1"
  dropout_param {
    dropout_ratio: 0.5
  }
}
layer {
  name: "conv2"
  type: "Convolution"
  bottom: "dropout1"
  top: "conv2"
  param {
    lr_mult: 1
    decay_mult: 1
  }
  param {
    lr_mult: 2
    decay_mult: 0
  }
  convolution_param {
    num_output: 192
    pad: 2
    kernel_size: 5
    weight_filler {
      type: "xavier"
    }
    bias_filler {
      type: "constant"
      value: 0
    }
  }
}
layer {
  name: "relu_conv2"
  type: "ReLU"
  bottom: "conv2"
  top: "relu_conv2"
}
layer {
  name: "cccp3"
  type: "Convolution"
  bottom: "relu_conv2"
  top: "cccp3"
  param {
    lr_mult: 1
    decay_mult: 1
  }
  param {
    lr_mult: 2
    decay_mult: 0
  }
  convolution_param {
    num_output: 192
    kernel_size: 1
    weight_filler {
      type: "xavier"
    }
    bias_filler {
      type: "constant"
      value: 0
    }
  }
}
layer {
  name: "relu_cccp3"
  type: "ReLU"
  bottom: "cccp3"
  top: "relu_cccp3"
}
layer {
  name: "cccp4"
  type: "Convolution"
  bottom: "relu_cccp3"
  top: "cccp4"
  param {
    lr_mult: 1
    decay_mult: 1
  }
  param {
    lr_mult: 2
    decay_mult: 0
  }
  convolution_param {
    num_output: 192
    kernel_size: 1
    weight_filler {
      type: "xavier"
    }
    bias_filler {
      type: "constant"
      value: 0
    }
  }
}
layer {
  name: "relu_cccp4"
  type: "ReLU"
  bottom: "cccp4"
  top: "relu_cccp4"
}
layer {
  name: "pool2"
  type: "Pooling"
  bottom: "relu_cccp4"
  top: "pool2"
  pooling_param {
    pool: AVE
    kernel_size: 3
    stride: 2
  }
}
layer {
  name: "dropout2"
  type: "Dropout"
  bottom: "pool2"
  top: "dropout2"
  dropout_param {
    dropout_ratio: 0.5
  }
}
layer {
  name: "conv3"
  type: "Convolution"
  bottom: "dropout2"
  top: "conv3"
  param {
    lr_mult: 1
    decay_mult: 1
  }
  param {
    lr_mult: 2
    decay_mult: 0
  }
  convolution_param {
    num_output: 192
    pad: 1
    kernel_size: 5
    weight_filler {
      type: "xavier"
    }
    bias_filler {
      type: "constant"
      value: 0
    }
  }
}
layer {
  name: "relu_conv3"
  type: "ReLU"
  bottom: "conv3"
  top: "relu_conv3"
}
layer {
  name: "cccp5"
  type: "Convolution"
  bottom: "relu_conv3"
  top: "cccp5"
  param {
    lr_mult: 1
    decay_mult: 1
  }
  param {
    lr_mult: 2
    decay_mult: 0
  }
  convolution_param {
    num_output: 192
    kernel_size: 1
    weight_filler {
      type: "xavier"
    }
    bias_filler {
      type: "constant"
      value: 0
    }
  }
}
layer {
  name: "relu_cccp5"
  type: "ReLU"
  bottom: "cccp5"
  top: "relu_cccp5"
}
layer {
  name: "cccp6"
  type: "Convolution"
  bottom: "relu_cccp5"
  top: "cccp6"
  param {
    lr_mult: 1
    decay_mult: 1
  }
  param {
    lr_mult: 2
    decay_mult: 0
  }
  convolution_param {
    num_output: 192
    kernel_size: 1
    weight_filler {
      type: "xavier"
    }
    bias_filler {
      type: "constant"
      value: 0
    }
  }
}
layer {
  name: "relu_cccp6"
  type: "ReLU"
  bottom: "cccp6"
  top: "relu_cccp6"
}
layer {
  name: "pool3"
  type: "Pooling"
  bottom: "relu_cccp6"
  top: "pool3"
  pooling_param {
    pool: AVE
    kernel_size: 3
    stride: 2
  }
}
layer {
  name: "dropout3"
  type: "Dropout"
  bottom: "pool3"
  top: "dropout3"
  dropout_param {
    dropout_ratio: 0.5
  }
}
layer {
  name: "conv4"
  type: "Convolution"
  bottom: "dropout3"
  top: "conv4"
  param {
    lr_mult: 1
    decay_mult: 1
  }
  param {
    lr_mult: 2
    decay_mult: 0
  }
  convolution_param {
    num_output: 384
    pad: 1
    kernel_size: 3
    weight_filler {
      type: "xavier"
    }
    bias_filler {
      type: "constant"
      value: 0
    }
  }
}
layer {
  name: "relu_conv4"
  type: "ReLU"
  bottom: "conv4"
  top: "relu_conv4"
}
layer {
  name: "cccp7"
  type: "Convolution"
  bottom: "relu_conv4"
  top: "cccp7"
  param {
    lr_mult: 1
    decay_mult: 1
  }
  param {
    lr_mult: 2
    decay_mult: 0
  }
  convolution_param {
    num_output: 384
    kernel_size: 1
    weight_filler {
      type: "xavier"
    }
    bias_filler {
      type: "constant"
      value: 0
    }
  }
}
layer {
  name: "relu_cccp7"
  type: "ReLU"
  bottom: "cccp7"
  top: "relu_cccp7"
}
layer {
  name: "cccp8"
  type: "Convolution"
  bottom: "relu_cccp7"
  top: "cccp8"
  param {
    lr_mult: 1
    decay_mult: 1
  }
  param {
    lr_mult: 2
    decay_mult: 0
  }
  convolution_param {
    num_output: 384
    kernel_size: 1
    weight_filler {
      type: "xavier"
    }
    bias_filler {
      type: "constant"
      value: 0
    }
  }
}
layer {
  name: "relu_cccp8"
  type: "ReLU"
  bottom: "cccp8"
  top: "relu_cccp8"
}
layer {
  name: "pool4"
  type: "Pooling"
  bottom: "relu_cccp8"
  top: "pool4"
  pooling_param {
    pool: AVE
    kernel_size: 3
    stride: 2
  }
}
layer {
  name: "dropout4"
  type: "Dropout"
  bottom: "pool4"
  top: "dropout4"
  dropout_param {
    dropout_ratio: 0.5
  }
}
layer {
  name: "fc1"
  type: "InnerProduct"
  bottom: "dropout4"
  top: "fc1"
  param {
    lr_mult: 1
    decay_mult: 1
  }
  param {
    lr_mult: 2
    decay_mult: 0
  }
  inner_product_param {
    num_output: 100
    weight_filler {
      type: "gaussian"
      std: 0.01
    }
    bias_filler {
      type: "constant"
      value: 0
    }
  }
}
layer {
  name: "accuracy"
  type: "Accuracy"
  bottom: "fc1"
  bottom: "label"
  top: "accuracy"
}
layer {
  name: "loss"
  type: "SoftmaxWithLoss"
  bottom: "fc1"
  bottom: "label"
  top: "loss"
}
I1014 10:35:49.382519 15811 layer_factory.hpp:77] Creating layer cifar
I1014 10:35:49.417973 15811 db_lmdb.cpp:35] Opened lmdb /home/x306/caffe/xn/PENLU/data/cifar100/cifar100_train_lmdb
I1014 10:35:49.435421 15811 net.cpp:84] Creating Layer cifar
I1014 10:35:49.435436 15811 net.cpp:380] cifar -> data
I1014 10:35:49.448563 15811 net.cpp:380] cifar -> label
I1014 10:35:49.448585 15811 data_transformer.cpp:25] Loading mean file from: /home/x306/caffe/xn/PENLU/data/cifar100/mean.binaryproto
I1014 10:35:49.450651 15811 data_layer.cpp:45] output data size: 100,3,28,28
I1014 10:35:49.453037 15811 net.cpp:122] Setting up cifar
I1014 10:35:49.453061 15811 net.cpp:129] Top shape: 100 3 28 28 (235200)
I1014 10:35:49.453066 15811 net.cpp:129] Top shape: 100 (100)
I1014 10:35:49.453069 15811 net.cpp:137] Memory required for data: 941200
I1014 10:35:49.453085 15811 layer_factory.hpp:77] Creating layer label_cifar_1_split
I1014 10:35:49.453546 15811 net.cpp:84] Creating Layer label_cifar_1_split
I1014 10:35:49.453553 15811 net.cpp:406] label_cifar_1_split <- label
I1014 10:35:49.453573 15811 net.cpp:380] label_cifar_1_split -> label_cifar_1_split_0
I1014 10:35:49.453584 15811 net.cpp:380] label_cifar_1_split -> label_cifar_1_split_1
I1014 10:35:49.454268 15811 net.cpp:122] Setting up label_cifar_1_split
I1014 10:35:49.454279 15811 net.cpp:129] Top shape: 100 (100)
I1014 10:35:49.454283 15811 net.cpp:129] Top shape: 100 (100)
I1014 10:35:49.454285 15811 net.cpp:137] Memory required for data: 942000
I1014 10:35:49.454288 15811 layer_factory.hpp:77] Creating layer conv1
I1014 10:35:49.454303 15811 net.cpp:84] Creating Layer conv1
I1014 10:35:49.454316 15811 net.cpp:406] conv1 <- data
I1014 10:35:49.454324 15811 net.cpp:380] conv1 -> conv1
I1014 10:35:51.963966 15811 net.cpp:122] Setting up conv1
I1014 10:35:51.963989 15811 net.cpp:129] Top shape: 100 192 28 28 (15052800)
I1014 10:35:51.963994 15811 net.cpp:137] Memory required for data: 61153200
I1014 10:35:51.964007 15811 layer_factory.hpp:77] Creating layer relu_conv1
I1014 10:35:51.964027 15811 net.cpp:84] Creating Layer relu_conv1
I1014 10:35:51.964030 15811 net.cpp:406] relu_conv1 <- conv1
I1014 10:35:51.964051 15811 net.cpp:380] relu_conv1 -> relu_conv1
I1014 10:35:51.983018 15811 net.cpp:122] Setting up relu_conv1
I1014 10:35:51.983031 15811 net.cpp:129] Top shape: 100 192 28 28 (15052800)
I1014 10:35:51.983036 15811 net.cpp:137] Memory required for data: 121364400
I1014 10:35:51.983038 15811 layer_factory.hpp:77] Creating layer cccp1
I1014 10:35:51.983049 15811 net.cpp:84] Creating Layer cccp1
I1014 10:35:51.983052 15811 net.cpp:406] cccp1 <- relu_conv1
I1014 10:35:51.983057 15811 net.cpp:380] cccp1 -> cccp1
I1014 10:35:52.014292 15811 net.cpp:122] Setting up cccp1
I1014 10:35:52.014308 15811 net.cpp:129] Top shape: 100 160 28 28 (12544000)
I1014 10:35:52.014312 15811 net.cpp:137] Memory required for data: 171540400
I1014 10:35:52.014320 15811 layer_factory.hpp:77] Creating layer relu_cccp1
I1014 10:35:52.014327 15811 net.cpp:84] Creating Layer relu_cccp1
I1014 10:35:52.014329 15811 net.cpp:406] relu_cccp1 <- cccp1
I1014 10:35:52.014333 15811 net.cpp:380] relu_cccp1 -> relu_cccp1
I1014 10:35:52.014822 15811 net.cpp:122] Setting up relu_cccp1
I1014 10:35:52.014833 15811 net.cpp:129] Top shape: 100 160 28 28 (12544000)
I1014 10:35:52.014837 15811 net.cpp:137] Memory required for data: 221716400
I1014 10:35:52.014839 15811 layer_factory.hpp:77] Creating layer cccp2
I1014 10:35:52.014847 15811 net.cpp:84] Creating Layer cccp2
I1014 10:35:52.014849 15811 net.cpp:406] cccp2 <- relu_cccp1
I1014 10:35:52.014854 15811 net.cpp:380] cccp2 -> cccp2
I1014 10:35:52.015442 15811 net.cpp:122] Setting up cccp2
I1014 10:35:52.015451 15811 net.cpp:129] Top shape: 100 96 28 28 (7526400)
I1014 10:35:52.015453 15811 net.cpp:137] Memory required for data: 251822000
I1014 10:35:52.015460 15811 layer_factory.hpp:77] Creating layer relu_cccp2
I1014 10:35:52.015463 15811 net.cpp:84] Creating Layer relu_cccp2
I1014 10:35:52.015486 15811 net.cpp:406] relu_cccp2 <- cccp2
I1014 10:35:52.015491 15811 net.cpp:380] relu_cccp2 -> relu_cccp2
I1014 10:35:52.015957 15811 net.cpp:122] Setting up relu_cccp2
I1014 10:35:52.015967 15811 net.cpp:129] Top shape: 100 96 28 28 (7526400)
I1014 10:35:52.015969 15811 net.cpp:137] Memory required for data: 281927600
I1014 10:35:52.015972 15811 layer_factory.hpp:77] Creating layer pool1
I1014 10:35:52.015978 15811 net.cpp:84] Creating Layer pool1
I1014 10:35:52.015981 15811 net.cpp:406] pool1 <- relu_cccp2
I1014 10:35:52.015985 15811 net.cpp:380] pool1 -> pool1
I1014 10:35:52.016130 15811 net.cpp:122] Setting up pool1
I1014 10:35:52.016137 15811 net.cpp:129] Top shape: 100 96 14 14 (1881600)
I1014 10:35:52.016139 15811 net.cpp:137] Memory required for data: 289454000
I1014 10:35:52.016142 15811 layer_factory.hpp:77] Creating layer dropout1
I1014 10:35:52.016146 15811 net.cpp:84] Creating Layer dropout1
I1014 10:35:52.016149 15811 net.cpp:406] dropout1 <- pool1
I1014 10:35:52.016152 15811 net.cpp:380] dropout1 -> dropout1
I1014 10:35:52.016185 15811 net.cpp:122] Setting up dropout1
I1014 10:35:52.016198 15811 net.cpp:129] Top shape: 100 96 14 14 (1881600)
I1014 10:35:52.016201 15811 net.cpp:137] Memory required for data: 296980400
I1014 10:35:52.016202 15811 layer_factory.hpp:77] Creating layer conv2
I1014 10:35:52.016218 15811 net.cpp:84] Creating Layer conv2
I1014 10:35:52.016222 15811 net.cpp:406] conv2 <- dropout1
I1014 10:35:52.016225 15811 net.cpp:380] conv2 -> conv2
I1014 10:35:52.019986 15811 net.cpp:122] Setting up conv2
I1014 10:35:52.019997 15811 net.cpp:129] Top shape: 100 192 14 14 (3763200)
I1014 10:35:52.020000 15811 net.cpp:137] Memory required for data: 312033200
I1014 10:35:52.020004 15811 layer_factory.hpp:77] Creating layer relu_conv2
I1014 10:35:52.020009 15811 net.cpp:84] Creating Layer relu_conv2
I1014 10:35:52.020011 15811 net.cpp:406] relu_conv2 <- conv2
I1014 10:35:52.020015 15811 net.cpp:380] relu_conv2 -> relu_conv2
I1014 10:35:52.020159 15811 net.cpp:122] Setting up relu_conv2
I1014 10:35:52.020167 15811 net.cpp:129] Top shape: 100 192 14 14 (3763200)
I1014 10:35:52.020169 15811 net.cpp:137] Memory required for data: 327086000
I1014 10:35:52.020171 15811 layer_factory.hpp:77] Creating layer cccp3
I1014 10:35:52.020179 15811 net.cpp:84] Creating Layer cccp3
I1014 10:35:52.020180 15811 net.cpp:406] cccp3 <- relu_conv2
I1014 10:35:52.020184 15811 net.cpp:380] cccp3 -> cccp3
I1014 10:35:52.021189 15811 net.cpp:122] Setting up cccp3
I1014 10:35:52.021199 15811 net.cpp:129] Top shape: 100 192 14 14 (3763200)
I1014 10:35:52.021203 15811 net.cpp:137] Memory required for data: 342138800
I1014 10:35:52.021209 15811 layer_factory.hpp:77] Creating layer relu_cccp3
I1014 10:35:52.021212 15811 net.cpp:84] Creating Layer relu_cccp3
I1014 10:35:52.021227 15811 net.cpp:406] relu_cccp3 <- cccp3
I1014 10:35:52.021231 15811 net.cpp:380] relu_cccp3 -> relu_cccp3
I1014 10:35:52.021384 15811 net.cpp:122] Setting up relu_cccp3
I1014 10:35:52.021390 15811 net.cpp:129] Top shape: 100 192 14 14 (3763200)
I1014 10:35:52.021394 15811 net.cpp:137] Memory required for data: 357191600
I1014 10:35:52.021395 15811 layer_factory.hpp:77] Creating layer cccp4
I1014 10:35:52.021411 15811 net.cpp:84] Creating Layer cccp4
I1014 10:35:52.021414 15811 net.cpp:406] cccp4 <- relu_cccp3
I1014 10:35:52.021420 15811 net.cpp:380] cccp4 -> cccp4
I1014 10:35:52.022869 15811 net.cpp:122] Setting up cccp4
I1014 10:35:52.022881 15811 net.cpp:129] Top shape: 100 192 14 14 (3763200)
I1014 10:35:52.022884 15811 net.cpp:137] Memory required for data: 372244400
I1014 10:35:52.022889 15811 layer_factory.hpp:77] Creating layer relu_cccp4
I1014 10:35:52.022893 15811 net.cpp:84] Creating Layer relu_cccp4
I1014 10:35:52.022897 15811 net.cpp:406] relu_cccp4 <- cccp4
I1014 10:35:52.022909 15811 net.cpp:380] relu_cccp4 -> relu_cccp4
I1014 10:35:52.023068 15811 net.cpp:122] Setting up relu_cccp4
I1014 10:35:52.023075 15811 net.cpp:129] Top shape: 100 192 14 14 (3763200)
I1014 10:35:52.023078 15811 net.cpp:137] Memory required for data: 387297200
I1014 10:35:52.023088 15811 layer_factory.hpp:77] Creating layer pool2
I1014 10:35:52.023105 15811 net.cpp:84] Creating Layer pool2
I1014 10:35:52.023108 15811 net.cpp:406] pool2 <- relu_cccp4
I1014 10:35:52.023113 15811 net.cpp:380] pool2 -> pool2
I1014 10:35:52.023578 15811 net.cpp:122] Setting up pool2
I1014 10:35:52.023588 15811 net.cpp:129] Top shape: 100 192 7 7 (940800)
I1014 10:35:52.023591 15811 net.cpp:137] Memory required for data: 391060400
I1014 10:35:52.023593 15811 layer_factory.hpp:77] Creating layer dropout2
I1014 10:35:52.023597 15811 net.cpp:84] Creating Layer dropout2
I1014 10:35:52.023600 15811 net.cpp:406] dropout2 <- pool2
I1014 10:35:52.023604 15811 net.cpp:380] dropout2 -> dropout2
I1014 10:35:52.023648 15811 net.cpp:122] Setting up dropout2
I1014 10:35:52.023663 15811 net.cpp:129] Top shape: 100 192 7 7 (940800)
I1014 10:35:52.023666 15811 net.cpp:137] Memory required for data: 394823600
I1014 10:35:52.023669 15811 layer_factory.hpp:77] Creating layer conv3
I1014 10:35:52.023685 15811 net.cpp:84] Creating Layer conv3
I1014 10:35:52.023689 15811 net.cpp:406] conv3 <- dropout2
I1014 10:35:52.023692 15811 net.cpp:380] conv3 -> conv3
I1014 10:35:52.029976 15811 net.cpp:122] Setting up conv3
I1014 10:35:52.029992 15811 net.cpp:129] Top shape: 100 192 5 5 (480000)
I1014 10:35:52.029995 15811 net.cpp:137] Memory required for data: 396743600
I1014 10:35:52.030000 15811 layer_factory.hpp:77] Creating layer relu_conv3
I1014 10:35:52.030007 15811 net.cpp:84] Creating Layer relu_conv3
I1014 10:35:52.030020 15811 net.cpp:406] relu_conv3 <- conv3
I1014 10:35:52.030025 15811 net.cpp:380] relu_conv3 -> relu_conv3
I1014 10:35:52.030177 15811 net.cpp:122] Setting up relu_conv3
I1014 10:35:52.030185 15811 net.cpp:129] Top shape: 100 192 5 5 (480000)
I1014 10:35:52.030187 15811 net.cpp:137] Memory required for data: 398663600
I1014 10:35:52.030189 15811 layer_factory.hpp:77] Creating layer cccp5
I1014 10:35:52.030197 15811 net.cpp:84] Creating Layer cccp5
I1014 10:35:52.030200 15811 net.cpp:406] cccp5 <- relu_conv3
I1014 10:35:52.030215 15811 net.cpp:380] cccp5 -> cccp5
I1014 10:35:52.031226 15811 net.cpp:122] Setting up cccp5
I1014 10:35:52.031236 15811 net.cpp:129] Top shape: 100 192 5 5 (480000)
I1014 10:35:52.031239 15811 net.cpp:137] Memory required for data: 400583600
I1014 10:35:52.031244 15811 layer_factory.hpp:77] Creating layer relu_cccp5
I1014 10:35:52.031250 15811 net.cpp:84] Creating Layer relu_cccp5
I1014 10:35:52.031252 15811 net.cpp:406] relu_cccp5 <- cccp5
I1014 10:35:52.031266 15811 net.cpp:380] relu_cccp5 -> relu_cccp5
I1014 10:35:52.031399 15811 net.cpp:122] Setting up relu_cccp5
I1014 10:35:52.031405 15811 net.cpp:129] Top shape: 100 192 5 5 (480000)
I1014 10:35:52.031407 15811 net.cpp:137] Memory required for data: 402503600
I1014 10:35:52.031410 15811 layer_factory.hpp:77] Creating layer cccp6
I1014 10:35:52.031416 15811 net.cpp:84] Creating Layer cccp6
I1014 10:35:52.031419 15811 net.cpp:406] cccp6 <- relu_cccp5
I1014 10:35:52.031424 15811 net.cpp:380] cccp6 -> cccp6
I1014 10:35:52.032443 15811 net.cpp:122] Setting up cccp6
I1014 10:35:52.032452 15811 net.cpp:129] Top shape: 100 192 5 5 (480000)
I1014 10:35:52.032455 15811 net.cpp:137] Memory required for data: 404423600
I1014 10:35:52.032462 15811 layer_factory.hpp:77] Creating layer relu_cccp6
I1014 10:35:52.032467 15811 net.cpp:84] Creating Layer relu_cccp6
I1014 10:35:52.032470 15811 net.cpp:406] relu_cccp6 <- cccp6
I1014 10:35:52.032485 15811 net.cpp:380] relu_cccp6 -> relu_cccp6
I1014 10:35:52.032615 15811 net.cpp:122] Setting up relu_cccp6
I1014 10:35:52.032622 15811 net.cpp:129] Top shape: 100 192 5 5 (480000)
I1014 10:35:52.032625 15811 net.cpp:137] Memory required for data: 406343600
I1014 10:35:52.032627 15811 layer_factory.hpp:77] Creating layer pool3
I1014 10:35:52.032631 15811 net.cpp:84] Creating Layer pool3
I1014 10:35:52.032634 15811 net.cpp:406] pool3 <- relu_cccp6
I1014 10:35:52.032639 15811 net.cpp:380] pool3 -> pool3
I1014 10:35:52.032801 15811 net.cpp:122] Setting up pool3
I1014 10:35:52.032816 15811 net.cpp:129] Top shape: 100 192 2 2 (76800)
I1014 10:35:52.032819 15811 net.cpp:137] Memory required for data: 406650800
I1014 10:35:52.032821 15811 layer_factory.hpp:77] Creating layer dropout3
I1014 10:35:52.032826 15811 net.cpp:84] Creating Layer dropout3
I1014 10:35:52.032829 15811 net.cpp:406] dropout3 <- pool3
I1014 10:35:52.032833 15811 net.cpp:380] dropout3 -> dropout3
I1014 10:35:52.032878 15811 net.cpp:122] Setting up dropout3
I1014 10:35:52.032882 15811 net.cpp:129] Top shape: 100 192 2 2 (76800)
I1014 10:35:52.032886 15811 net.cpp:137] Memory required for data: 406958000
I1014 10:35:52.032887 15811 layer_factory.hpp:77] Creating layer conv4
I1014 10:35:52.032893 15811 net.cpp:84] Creating Layer conv4
I1014 10:35:52.032896 15811 net.cpp:406] conv4 <- dropout3
I1014 10:35:52.032899 15811 net.cpp:380] conv4 -> conv4
I1014 10:35:52.037842 15811 net.cpp:122] Setting up conv4
I1014 10:35:52.037853 15811 net.cpp:129] Top shape: 100 384 2 2 (153600)
I1014 10:35:52.037855 15811 net.cpp:137] Memory required for data: 407572400
I1014 10:35:52.037859 15811 layer_factory.hpp:77] Creating layer relu_conv4
I1014 10:35:52.037864 15811 net.cpp:84] Creating Layer relu_conv4
I1014 10:35:52.037866 15811 net.cpp:406] relu_conv4 <- conv4
I1014 10:35:52.037870 15811 net.cpp:380] relu_conv4 -> relu_conv4
I1014 10:35:52.038341 15811 net.cpp:122] Setting up relu_conv4
I1014 10:35:52.038350 15811 net.cpp:129] Top shape: 100 384 2 2 (153600)
I1014 10:35:52.038352 15811 net.cpp:137] Memory required for data: 408186800
I1014 10:35:52.038355 15811 layer_factory.hpp:77] Creating layer cccp7
I1014 10:35:52.038362 15811 net.cpp:84] Creating Layer cccp7
I1014 10:35:52.038364 15811 net.cpp:406] cccp7 <- relu_conv4
I1014 10:35:52.038379 15811 net.cpp:380] cccp7 -> cccp7
I1014 10:35:52.040460 15811 net.cpp:122] Setting up cccp7
I1014 10:35:52.040472 15811 net.cpp:129] Top shape: 100 384 2 2 (153600)
I1014 10:35:52.040473 15811 net.cpp:137] Memory required for data: 408801200
I1014 10:35:52.040478 15811 layer_factory.hpp:77] Creating layer relu_cccp7
I1014 10:35:52.040483 15811 net.cpp:84] Creating Layer relu_cccp7
I1014 10:35:52.040486 15811 net.cpp:406] relu_cccp7 <- cccp7
I1014 10:35:52.040500 15811 net.cpp:380] relu_cccp7 -> relu_cccp7
I1014 10:35:52.040637 15811 net.cpp:122] Setting up relu_cccp7
I1014 10:35:52.040643 15811 net.cpp:129] Top shape: 100 384 2 2 (153600)
I1014 10:35:52.040647 15811 net.cpp:137] Memory required for data: 409415600
I1014 10:35:52.040648 15811 layer_factory.hpp:77] Creating layer cccp8
I1014 10:35:52.040655 15811 net.cpp:84] Creating Layer cccp8
I1014 10:35:52.040658 15811 net.cpp:406] cccp8 <- relu_cccp7
I1014 10:35:52.040663 15811 net.cpp:380] cccp8 -> cccp8
I1014 10:35:52.042207 15811 net.cpp:122] Setting up cccp8
I1014 10:35:52.042217 15811 net.cpp:129] Top shape: 100 384 2 2 (153600)
I1014 10:35:52.042219 15811 net.cpp:137] Memory required for data: 410030000
I1014 10:35:52.042224 15811 layer_factory.hpp:77] Creating layer relu_cccp8
I1014 10:35:52.042228 15811 net.cpp:84] Creating Layer relu_cccp8
I1014 10:35:52.042232 15811 net.cpp:406] relu_cccp8 <- cccp8
I1014 10:35:52.042234 15811 net.cpp:380] relu_cccp8 -> relu_cccp8
I1014 10:35:52.042378 15811 net.cpp:122] Setting up relu_cccp8
I1014 10:35:52.042385 15811 net.cpp:129] Top shape: 100 384 2 2 (153600)
I1014 10:35:52.042388 15811 net.cpp:137] Memory required for data: 410644400
I1014 10:35:52.042390 15811 layer_factory.hpp:77] Creating layer pool4
I1014 10:35:52.042397 15811 net.cpp:84] Creating Layer pool4
I1014 10:35:52.042399 15811 net.cpp:406] pool4 <- relu_cccp8
I1014 10:35:52.042403 15811 net.cpp:380] pool4 -> pool4
I1014 10:35:52.042542 15811 net.cpp:122] Setting up pool4
I1014 10:35:52.042549 15811 net.cpp:129] Top shape: 100 384 1 1 (38400)
I1014 10:35:52.042552 15811 net.cpp:137] Memory required for data: 410798000
I1014 10:35:52.042554 15811 layer_factory.hpp:77] Creating layer dropout4
I1014 10:35:52.042558 15811 net.cpp:84] Creating Layer dropout4
I1014 10:35:52.042560 15811 net.cpp:406] dropout4 <- pool4
I1014 10:35:52.042582 15811 net.cpp:380] dropout4 -> dropout4
I1014 10:35:52.042619 15811 net.cpp:122] Setting up dropout4
I1014 10:35:52.042624 15811 net.cpp:129] Top shape: 100 384 1 1 (38400)
I1014 10:35:52.042626 15811 net.cpp:137] Memory required for data: 410951600
I1014 10:35:52.042629 15811 layer_factory.hpp:77] Creating layer fc1
I1014 10:35:52.057255 15811 net.cpp:84] Creating Layer fc1
I1014 10:35:52.057267 15811 net.cpp:406] fc1 <- dropout4
I1014 10:35:52.057274 15811 net.cpp:380] fc1 -> fc1
I1014 10:35:52.058351 15811 net.cpp:122] Setting up fc1
I1014 10:35:52.058359 15811 net.cpp:129] Top shape: 100 100 (10000)
I1014 10:35:52.058362 15811 net.cpp:137] Memory required for data: 410991600
I1014 10:35:52.058367 15811 layer_factory.hpp:77] Creating layer fc1_fc1_0_split
I1014 10:35:52.058370 15811 net.cpp:84] Creating Layer fc1_fc1_0_split
I1014 10:35:52.058372 15811 net.cpp:406] fc1_fc1_0_split <- fc1
I1014 10:35:52.058377 15811 net.cpp:380] fc1_fc1_0_split -> fc1_fc1_0_split_0
I1014 10:35:52.058392 15811 net.cpp:380] fc1_fc1_0_split -> fc1_fc1_0_split_1
I1014 10:35:52.058424 15811 net.cpp:122] Setting up fc1_fc1_0_split
I1014 10:35:52.058429 15811 net.cpp:129] Top shape: 100 100 (10000)
I1014 10:35:52.058432 15811 net.cpp:129] Top shape: 100 100 (10000)
I1014 10:35:52.058434 15811 net.cpp:137] Memory required for data: 411071600
I1014 10:35:52.058446 15811 layer_factory.hpp:77] Creating layer accuracy
I1014 10:35:52.058451 15811 net.cpp:84] Creating Layer accuracy
I1014 10:35:52.058454 15811 net.cpp:406] accuracy <- fc1_fc1_0_split_0
I1014 10:35:52.058468 15811 net.cpp:406] accuracy <- label_cifar_1_split_0
I1014 10:35:52.058471 15811 net.cpp:380] accuracy -> accuracy
…
