…
I1014 16:54:58.833583 16493 net.cpp:51] Initializing net from parameters: 
name: "CIFAR100_full"
state {
  phase: TRAIN
  level: 0
  stage: ""
}
layer {
  name: "cifar"
  type: "Data"
  top: "data"
  top: "label"
  include {
    phase: TRAIN
  }
  transform_param {
    mirror: true
    crop_size: 28
    mean_file: "/home/x306/caffe/xn/PENLU/data/cifar100/mean.binaryproto"
  }
  data_param {
    source: "/home/x306/caffe/xn/PENLU/data/cifar100/cifar100_train_lmdb"
    batch_size: 100
    backend: LMDB
  }
  image_data_param {
    shuffle: true
  }
}
layer {
  name: "conv1"
  type: "Convolution"
  bottom: "data"
  top: "conv1"
  param {
    lr_mult: 1
    decay_mult: 1
  }
  param {
    lr_mult: 2
    decay_mult: 0
  }
  convolution_param {
    num_output: 192
    pad: 2
    kernel_size: 5
    weight_filler {
      type: "xavier"
    }
    bias_filler {
      type: "constant"
      value: 0
    }
  }
}
layer {
  name: "penlu_conv1"
  type: "PENLU"
  bottom: "conv1"
  top: "penlu_conv1"
  param {
    lr_mult: 2
    decay_mult: 0
  }
  param {
    lr_mult: 2
    decay_mult: 0
  }
  param {
    lr_mult: 0
    decay_mult: 0
  }
  penlu_param {
    alpha_filler {
      type: "constant"
      value: 1
    }
    beta_filler {
      type: "constant"
      value: 1
    }
    eta_filler {
      type: "constant"
      value: 1
    }
  }
}
layer {
  name: "cccp1"
  type: "Convolution"
  bottom: "penlu_conv1"
  top: "cccp1"
  param {
    lr_mult: 1
    decay_mult: 1
  }
  param {
    lr_mult: 2
    decay_mult: 0
  }
  convolution_param {
    num_output: 160
    kernel_size: 1
    weight_filler {
      type: "xavier"
    }
    bias_filler {
      type: "constant"
      value: 0
    }
  }
}
layer {
  name: "penlu_cccp1"
  type: "PENLU"
  bottom: "cccp1"
  top: "penlu_cccp1"
  param {
    lr_mult: 2
    decay_mult: 0
  }
  param {
    lr_mult: 2
    decay_mult: 0
  }
  param {
    lr_mult: 0
    decay_mult: 0
  }
  penlu_param {
    alpha_filler {
      type: "constant"
      value: 1
    }
    beta_filler {
      type: "constant"
      value: 1
    }
    eta_filler {
      type: "constant"
      value: 1
    }
  }
}
layer {
  name: "cccp2"
  type: "Convolution"
  bottom: "penlu_cccp1"
  top: "cccp2"
  param {
    lr_mult: 1
    decay_mult: 1
  }
  param {
    lr_mult: 2
    decay_mult: 0
  }
  convolution_param {
    num_output: 96
    kernel_size: 1
    weight_filler {
      type: "xavier"
    }
    bias_filler {
      type: "constant"
      value: 0
    }
  }
}
layer {
  name: "penlu_cccp2"
  type: "PENLU"
  bottom: "cccp2"
  top: "penlu_cccp2"
  param {
    lr_mult: 2
    decay_mult: 0
  }
  param {
    lr_mult: 2
    decay_mult: 0
  }
  param {
    lr_mult: 0
    decay_mult: 0
  }
  penlu_param {
    alpha_filler {
      type: "constant"
      value: 1
    }
    beta_filler {
      type: "constant"
      value: 1
    }
    eta_filler {
      type: "constant"
      value: 1
    }
  }
}
layer {
  name: "pool1"
  type: "Pooling"
  bottom: "penlu_cccp2"
  top: "pool1"
  pooling_param {
    pool: AVE
    kernel_size: 3
    stride: 2
  }
}
layer {
  name: "dropout1"
  type: "Dropout"
  bottom: "pool1"
  top: "dropout1"
  dropout_param {
    dropout_ratio: 0.5
  }
}
layer {
  name: "conv2"
  type: "Convolution"
  bottom: "dropout1"
  top: "conv2"
  param {
    lr_mult: 1
    decay_mult: 1
  }
  param {
    lr_mult: 2
    decay_mult: 0
  }
  convolution_param {
    num_output: 192
    pad: 2
    kernel_size: 5
    weight_filler {
      type: "xavier"
    }
    bias_filler {
      type: "constant"
      value: 0
    }
  }
}
layer {
  name: "penlu_conv2"
  type: "PENLU"
  bottom: "conv2"
  top: "penlu_conv2"
  param {
    lr_mult: 2
    decay_mult: 0
  }
  param {
    lr_mult: 2
    decay_mult: 0
  }
  param {
    lr_mult: 0
    decay_mult: 0
  }
  penlu_param {
    alpha_filler {
      type: "constant"
      value: 1
    }
    beta_filler {
      type: "constant"
      value: 1
    }
    eta_filler {
      type: "constant"
      value: 1
    }
  }
}
layer {
  name: "cccp3"
  type: "Convolution"
  bottom: "penlu_conv2"
  top: "cccp3"
  param {
    lr_mult: 1
    decay_mult: 1
  }
  param {
    lr_mult: 2
    decay_mult: 0
  }
  convolution_param {
    num_output: 192
    kernel_size: 1
    weight_filler {
      type: "xavier"
    }
    bias_filler {
      type: "constant"
      value: 0
    }
  }
}
layer {
  name: "penlu_cccp3"
  type: "PENLU"
  bottom: "cccp3"
  top: "penlu_cccp3"
  param {
    lr_mult: 2
    decay_mult: 0
  }
  param {
    lr_mult: 2
    decay_mult: 0
  }
  param {
    lr_mult: 0
    decay_mult: 0
  }
  penlu_param {
    alpha_filler {
      type: "constant"
      value: 1
    }
    beta_filler {
      type: "constant"
      value: 1
    }
    eta_filler {
      type: "constant"
      value: 1
    }
  }
}
layer {
  name: "cccp4"
  type: "Convolution"
  bottom: "penlu_cccp3"
  top: "cccp4"
  param {
    lr_mult: 1
    decay_mult: 1
  }
  param {
    lr_mult: 2
    decay_mult: 0
  }
  convolution_param {
    num_output: 192
    kernel_size: 1
    weight_filler {
      type: "xavier"
    }
    bias_filler {
      type: "constant"
      value: 0
    }
  }
}
layer {
  name: "penlu_cccp4"
  type: "PENLU"
  bottom: "cccp4"
  top: "penlu_cccp4"
  param {
    lr_mult: 2
    decay_mult: 0
  }
  param {
    lr_mult: 2
    decay_mult: 0
  }
  param {
    lr_mult: 0
    decay_mult: 0
  }
  penlu_param {
    alpha_filler {
      type: "constant"
      value: 1
    }
    beta_filler {
      type: "constant"
      value: 1
    }
    eta_filler {
      type: "constant"
      value: 1
    }
  }
}
layer {
  name: "pool2"
  type: "Pooling"
  bottom: "penlu_cccp4"
  top: "pool2"
  pooling_param {
    pool: AVE
    kernel_size: 3
    stride: 2
  }
}
layer {
  name: "dropout2"
  type: "Dropout"
  bottom: "pool2"
  top: "dropout2"
  dropout_param {
    dropout_ratio: 0.5
  }
}
layer {
  name: "conv3"
  type: "Convolution"
  bottom: "dropout2"
  top: "conv3"
  param {
    lr_mult: 1
    decay_mult: 1
  }
  param {
    lr_mult: 2
    decay_mult: 0
  }
  convolution_param {
    num_output: 192
    pad: 1
    kernel_size: 5
    weight_filler {
      type: "xavier"
    }
    bias_filler {
      type: "constant"
      value: 0
    }
  }
}
layer {
  name: "penlu_conv3"
  type: "PENLU"
  bottom: "conv3"
  top: "penlu_conv3"
  param {
    lr_mult: 2
    decay_mult: 0
  }
  param {
    lr_mult: 2
    decay_mult: 0
  }
  param {
    lr_mult: 0
    decay_mult: 0
  }
  penlu_param {
    alpha_filler {
      type: "constant"
      value: 1
    }
    beta_filler {
      type: "constant"
      value: 1
    }
    eta_filler {
      type: "constant"
      value: 1
    }
  }
}
layer {
  name: "cccp5"
  type: "Convolution"
  bottom: "penlu_conv3"
  top: "cccp5"
  param {
    lr_mult: 1
    decay_mult: 1
  }
  param {
    lr_mult: 2
    decay_mult: 0
  }
  convolution_param {
    num_output: 192
    kernel_size: 1
    weight_filler {
      type: "xavier"
    }
    bias_filler {
      type: "constant"
      value: 0
    }
  }
}
layer {
  name: "penlu_cccp5"
  type: "PENLU"
  bottom: "cccp5"
  top: "penlu_cccp5"
  param {
    lr_mult: 2
    decay_mult: 0
  }
  param {
    lr_mult: 2
    decay_mult: 0
  }
  param {
    lr_mult: 0
    decay_mult: 0
  }
  penlu_param {
    alpha_filler {
      type: "constant"
      value: 1
    }
    beta_filler {
      type: "constant"
      value: 1
    }
    eta_filler {
      type: "constant"
      value: 1
    }
  }
}
layer {
  name: "cccp6"
  type: "Convolution"
  bottom: "penlu_cccp5"
  top: "cccp6"
  param {
    lr_mult: 1
    decay_mult: 1
  }
  param {
    lr_mult: 2
    decay_mult: 0
  }
  convolution_param {
    num_output: 192
    kernel_size: 1
    weight_filler {
      type: "xavier"
    }
    bias_filler {
      type: "constant"
      value: 0
    }
  }
}
layer {
  name: "penlu_cccp6"
  type: "PENLU"
  bottom: "cccp6"
  top: "penlu_cccp6"
  param {
    lr_mult: 2
    decay_mult: 0
  }
  param {
    lr_mult: 2
    decay_mult: 0
  }
  param {
    lr_mult: 0
    decay_mult: 0
  }
  penlu_param {
    alpha_filler {
      type: "constant"
      value: 1
    }
    beta_filler {
      type: "constant"
      value: 1
    }
    eta_filler {
      type: "constant"
      value: 1
    }
  }
}
layer {
  name: "pool3"
  type: "Pooling"
  bottom: "penlu_cccp6"
  top: "pool3"
  pooling_param {
    pool: AVE
    kernel_size: 3
    stride: 2
  }
}
layer {
  name: "dropout3"
  type: "Dropout"
  bottom: "pool3"
  top: "dropout3"
  dropout_param {
    dropout_ratio: 0.5
  }
}
layer {
  name: "conv4"
  type: "Convolution"
  bottom: "dropout3"
  top: "conv4"
  param {
    lr_mult: 1
    decay_mult: 1
  }
  param {
    lr_mult: 2
    decay_mult: 0
  }
  convolution_param {
    num_output: 384
    pad: 1
    kernel_size: 3
    weight_filler {
      type: "xavier"
    }
    bias_filler {
      type: "constant"
      value: 0
    }
  }
}
layer {
  name: "penlu_conv4"
  type: "PENLU"
  bottom: "conv4"
  top: "penlu_conv4"
  param {
    lr_mult: 2
    decay_mult: 0
  }
  param {
    lr_mult: 2
    decay_mult: 0
  }
  param {
    lr_mult: 0
    decay_mult: 0
  }
  penlu_param {
    alpha_filler {
      type: "constant"
      value: 1
    }
    beta_filler {
      type: "constant"
      value: 1
    }
    eta_filler {
      type: "constant"
      value: 1
    }
  }
}
layer {
  name: "cccp7"
  type: "Convolution"
  bottom: "penlu_conv4"
  top: "cccp7"
  param {
    lr_mult: 1
    decay_mult: 1
  }
  param {
    lr_mult: 2
    decay_mult: 0
  }
  convolution_param {
    num_output: 384
    kernel_size: 1
    weight_filler {
      type: "xavier"
    }
    bias_filler {
      type: "constant"
      value: 0
    }
  }
}
layer {
  name: "penlu_cccp7"
  type: "PENLU"
  bottom: "cccp7"
  top: "penlu_cccp7"
  param {
    lr_mult: 2
    decay_mult: 0
  }
  param {
    lr_mult: 2
    decay_mult: 0
  }
  param {
    lr_mult: 0
    decay_mult: 0
  }
  penlu_param {
    alpha_filler {
      type: "constant"
      value: 1
    }
    beta_filler {
      type: "constant"
      value: 1
    }
    eta_filler {
      type: "constant"
      value: 1
    }
  }
}
layer {
  name: "cccp8"
  type: "Convolution"
  bottom: "penlu_cccp7"
  top: "cccp8"
  param {
    lr_mult: 1
    decay_mult: 1
  }
  param {
    lr_mult: 2
    decay_mult: 0
  }
  convolution_param {
    num_output: 384
    kernel_size: 1
    weight_filler {
      type: "xavier"
    }
    bias_filler {
      type: "constant"
      value: 0
    }
  }
}
layer {
  name: "penlu_cccp8"
  type: "PENLU"
  bottom: "cccp8"
  top: "penlu_cccp8"
  param {
    lr_mult: 2
    decay_mult: 0
  }
  param {
    lr_mult: 2
    decay_mult: 0
  }
  param {
    lr_mult: 0
    decay_mult: 0
  }
  penlu_param {
    alpha_filler {
      type: "constant"
      value: 1
    }
    beta_filler {
      type: "constant"
      value: 1
    }
    eta_filler {
      type: "constant"
      value: 1
    }
  }
}
layer {
  name: "pool4"
  type: "Pooling"
  bottom: "penlu_cccp8"
  top: "pool4"
  pooling_param {
    pool: AVE
    kernel_size: 3
    stride: 2
  }
}
layer {
  name: "dropout4"
  type: "Dropout"
  bottom: "pool4"
  top: "dropout4"
  dropout_param {
    dropout_ratio: 0.5
  }
}
layer {
  name: "fc1"
  type: "InnerProduct"
  bottom: "dropout4"
  top: "fc1"
  param {
    lr_mult: 1
    decay_mult: 1
  }
  param {
    lr_mult: 2
    decay_mult: 0
  }
  inner_product_param {
    num_output: 100
    weight_filler {
      type: "gaussian"
      std: 0.01
    }
    bias_filler {
      type: "constant"
      value: 0
    }
  }
}
layer {
  name: "accuracy"
  type: "Accuracy"
  bottom: "fc1"
  bottom: "label"
  top: "accuracy"
}
layer {
  name: "loss"
  type: "SoftmaxWithLoss"
  bottom: "fc1"
  bottom: "label"
  top: "loss"
}
I1014 16:54:58.833741 16493 layer_factory.hpp:77] Creating layer cifar
I1014 16:54:58.833817 16493 db_lmdb.cpp:35] Opened lmdb /home/x306/caffe/xn/PENLU/data/cifar100/cifar100_train_lmdb
I1014 16:54:58.833838 16493 net.cpp:84] Creating Layer cifar
I1014 16:54:58.833843 16493 net.cpp:380] cifar -> data
I1014 16:54:58.833859 16493 net.cpp:380] cifar -> label
I1014 16:54:58.833868 16493 data_transformer.cpp:25] Loading mean file from: /home/x306/caffe/xn/PENLU/data/cifar100/mean.binaryproto
I1014 16:54:58.835309 16493 data_layer.cpp:45] output data size: 100,3,28,28
I1014 16:54:58.837579 16493 net.cpp:122] Setting up cifar
I1014 16:54:58.837594 16493 net.cpp:129] Top shape: 100 3 28 28 (235200)
I1014 16:54:58.837599 16493 net.cpp:129] Top shape: 100 (100)
I1014 16:54:58.837600 16493 net.cpp:137] Memory required for data: 941200
I1014 16:54:58.837606 16493 layer_factory.hpp:77] Creating layer label_cifar_1_split
I1014 16:54:58.837617 16493 net.cpp:84] Creating Layer label_cifar_1_split
I1014 16:54:58.837622 16493 net.cpp:406] label_cifar_1_split <- label
I1014 16:54:58.837630 16493 net.cpp:380] label_cifar_1_split -> label_cifar_1_split_0
I1014 16:54:58.837637 16493 net.cpp:380] label_cifar_1_split -> label_cifar_1_split_1
I1014 16:54:58.837677 16493 net.cpp:122] Setting up label_cifar_1_split
I1014 16:54:58.837683 16493 net.cpp:129] Top shape: 100 (100)
I1014 16:54:58.837687 16493 net.cpp:129] Top shape: 100 (100)
I1014 16:54:58.837689 16493 net.cpp:137] Memory required for data: 942000
I1014 16:54:58.837692 16493 layer_factory.hpp:77] Creating layer conv1
I1014 16:54:58.837703 16493 net.cpp:84] Creating Layer conv1
I1014 16:54:58.837707 16493 net.cpp:406] conv1 <- data
I1014 16:54:58.837712 16493 net.cpp:380] conv1 -> conv1
I1014 16:54:58.984174 16493 net.cpp:122] Setting up conv1
I1014 16:54:58.984199 16493 net.cpp:129] Top shape: 100 192 28 28 (15052800)
I1014 16:54:58.984202 16493 net.cpp:137] Memory required for data: 61153200
I1014 16:54:58.984216 16493 layer_factory.hpp:77] Creating layer penlu_conv1
I1014 16:54:58.984241 16493 net.cpp:84] Creating Layer penlu_conv1
I1014 16:54:58.984246 16493 net.cpp:406] penlu_conv1 <- conv1
I1014 16:54:58.984251 16493 net.cpp:380] penlu_conv1 -> penlu_conv1
I1014 16:54:58.984913 16493 net.cpp:122] Setting up penlu_conv1
I1014 16:54:58.984922 16493 net.cpp:129] Top shape: 100 192 28 28 (15052800)
I1014 16:54:58.984925 16493 net.cpp:137] Memory required for data: 121364400
I1014 16:54:58.984933 16493 layer_factory.hpp:77] Creating layer cccp1
I1014 16:54:58.984952 16493 net.cpp:84] Creating Layer cccp1
I1014 16:54:58.984956 16493 net.cpp:406] cccp1 <- penlu_conv1
I1014 16:54:58.984959 16493 net.cpp:380] cccp1 -> cccp1
I1014 16:54:58.986389 16493 net.cpp:122] Setting up cccp1
I1014 16:54:58.986400 16493 net.cpp:129] Top shape: 100 160 28 28 (12544000)
I1014 16:54:58.986403 16493 net.cpp:137] Memory required for data: 171540400
I1014 16:54:58.986407 16493 layer_factory.hpp:77] Creating layer penlu_cccp1
I1014 16:54:58.986413 16493 net.cpp:84] Creating Layer penlu_cccp1
I1014 16:54:58.986416 16493 net.cpp:406] penlu_cccp1 <- cccp1
I1014 16:54:58.986420 16493 net.cpp:380] penlu_cccp1 -> penlu_cccp1
I1014 16:54:58.986588 16493 net.cpp:122] Setting up penlu_cccp1
I1014 16:54:58.986594 16493 net.cpp:129] Top shape: 100 160 28 28 (12544000)
I1014 16:54:58.986596 16493 net.cpp:137] Memory required for data: 221716400
I1014 16:54:58.986603 16493 layer_factory.hpp:77] Creating layer cccp2
I1014 16:54:58.986609 16493 net.cpp:84] Creating Layer cccp2
I1014 16:54:58.986611 16493 net.cpp:406] cccp2 <- penlu_cccp1
I1014 16:54:58.986615 16493 net.cpp:380] cccp2 -> cccp2
I1014 16:54:58.987489 16493 net.cpp:122] Setting up cccp2
I1014 16:54:58.987499 16493 net.cpp:129] Top shape: 100 96 28 28 (7526400)
I1014 16:54:58.987502 16493 net.cpp:137] Memory required for data: 251822000
I1014 16:54:58.987517 16493 layer_factory.hpp:77] Creating layer penlu_cccp2
I1014 16:54:58.987534 16493 net.cpp:84] Creating Layer penlu_cccp2
I1014 16:54:58.987537 16493 net.cpp:406] penlu_cccp2 <- cccp2
I1014 16:54:58.987541 16493 net.cpp:380] penlu_cccp2 -> penlu_cccp2
I1014 16:54:58.987686 16493 net.cpp:122] Setting up penlu_cccp2
I1014 16:54:58.987692 16493 net.cpp:129] Top shape: 100 96 28 28 (7526400)
I1014 16:54:58.987695 16493 net.cpp:137] Memory required for data: 281927600
I1014 16:54:58.987710 16493 layer_factory.hpp:77] Creating layer pool1
I1014 16:54:58.987716 16493 net.cpp:84] Creating Layer pool1
I1014 16:54:58.987720 16493 net.cpp:406] pool1 <- penlu_cccp2
I1014 16:54:58.987722 16493 net.cpp:380] pool1 -> pool1
I1014 16:54:58.987869 16493 net.cpp:122] Setting up pool1
I1014 16:54:58.987875 16493 net.cpp:129] Top shape: 100 96 14 14 (1881600)
I1014 16:54:58.987877 16493 net.cpp:137] Memory required for data: 289454000
I1014 16:54:58.987880 16493 layer_factory.hpp:77] Creating layer dropout1
I1014 16:54:58.987895 16493 net.cpp:84] Creating Layer dropout1
I1014 16:54:58.987897 16493 net.cpp:406] dropout1 <- pool1
I1014 16:54:58.987901 16493 net.cpp:380] dropout1 -> dropout1
I1014 16:54:58.987938 16493 net.cpp:122] Setting up dropout1
I1014 16:54:58.987943 16493 net.cpp:129] Top shape: 100 96 14 14 (1881600)
I1014 16:54:58.987946 16493 net.cpp:137] Memory required for data: 296980400
I1014 16:54:58.987948 16493 layer_factory.hpp:77] Creating layer conv2
I1014 16:54:58.987965 16493 net.cpp:84] Creating Layer conv2
I1014 16:54:58.987969 16493 net.cpp:406] conv2 <- dropout1
I1014 16:54:58.987973 16493 net.cpp:380] conv2 -> conv2
I1014 16:54:58.991770 16493 net.cpp:122] Setting up conv2
I1014 16:54:58.991780 16493 net.cpp:129] Top shape: 100 192 14 14 (3763200)
I1014 16:54:58.991783 16493 net.cpp:137] Memory required for data: 312033200
I1014 16:54:58.991801 16493 layer_factory.hpp:77] Creating layer penlu_conv2
I1014 16:54:58.991808 16493 net.cpp:84] Creating Layer penlu_conv2
I1014 16:54:58.991811 16493 net.cpp:406] penlu_conv2 <- conv2
I1014 16:54:58.991816 16493 net.cpp:380] penlu_conv2 -> penlu_conv2
I1014 16:54:58.991952 16493 net.cpp:122] Setting up penlu_conv2
I1014 16:54:58.991958 16493 net.cpp:129] Top shape: 100 192 14 14 (3763200)
I1014 16:54:58.991961 16493 net.cpp:137] Memory required for data: 327086000
I1014 16:54:58.991966 16493 layer_factory.hpp:77] Creating layer cccp3
I1014 16:54:58.991974 16493 net.cpp:84] Creating Layer cccp3
I1014 16:54:58.991977 16493 net.cpp:406] cccp3 <- penlu_conv2
I1014 16:54:58.991981 16493 net.cpp:380] cccp3 -> cccp3
I1014 16:54:58.992974 16493 net.cpp:122] Setting up cccp3
I1014 16:54:58.992985 16493 net.cpp:129] Top shape: 100 192 14 14 (3763200)
I1014 16:54:58.992988 16493 net.cpp:137] Memory required for data: 342138800
I1014 16:54:58.992992 16493 layer_factory.hpp:77] Creating layer penlu_cccp3
I1014 16:54:58.993000 16493 net.cpp:84] Creating Layer penlu_cccp3
I1014 16:54:58.993002 16493 net.cpp:406] penlu_cccp3 <- cccp3
I1014 16:54:58.993006 16493 net.cpp:380] penlu_cccp3 -> penlu_cccp3
I1014 16:54:58.993126 16493 net.cpp:122] Setting up penlu_cccp3
I1014 16:54:58.993131 16493 net.cpp:129] Top shape: 100 192 14 14 (3763200)
I1014 16:54:58.993134 16493 net.cpp:137] Memory required for data: 357191600
I1014 16:54:58.993139 16493 layer_factory.hpp:77] Creating layer cccp4
I1014 16:54:58.993146 16493 net.cpp:84] Creating Layer cccp4
I1014 16:54:58.993150 16493 net.cpp:406] cccp4 <- penlu_cccp3
I1014 16:54:58.993155 16493 net.cpp:380] cccp4 -> cccp4
I1014 16:54:58.994161 16493 net.cpp:122] Setting up cccp4
I1014 16:54:58.994173 16493 net.cpp:129] Top shape: 100 192 14 14 (3763200)
I1014 16:54:58.994175 16493 net.cpp:137] Memory required for data: 372244400
I1014 16:54:58.994180 16493 layer_factory.hpp:77] Creating layer penlu_cccp4
I1014 16:54:58.994186 16493 net.cpp:84] Creating Layer penlu_cccp4
I1014 16:54:58.994189 16493 net.cpp:406] penlu_cccp4 <- cccp4
I1014 16:54:58.994194 16493 net.cpp:380] penlu_cccp4 -> penlu_cccp4
I1014 16:54:58.994321 16493 net.cpp:122] Setting up penlu_cccp4
I1014 16:54:58.994328 16493 net.cpp:129] Top shape: 100 192 14 14 (3763200)
I1014 16:54:58.994331 16493 net.cpp:137] Memory required for data: 387297200
I1014 16:54:58.994336 16493 layer_factory.hpp:77] Creating layer pool2
I1014 16:54:58.994341 16493 net.cpp:84] Creating Layer pool2
I1014 16:54:58.994344 16493 net.cpp:406] pool2 <- penlu_cccp4
I1014 16:54:58.994348 16493 net.cpp:380] pool2 -> pool2
I1014 16:54:58.994472 16493 net.cpp:122] Setting up pool2
I1014 16:54:58.994478 16493 net.cpp:129] Top shape: 100 192 7 7 (940800)
I1014 16:54:58.994482 16493 net.cpp:137] Memory required for data: 391060400
I1014 16:54:58.994484 16493 layer_factory.hpp:77] Creating layer dropout2
I1014 16:54:58.994488 16493 net.cpp:84] Creating Layer dropout2
I1014 16:54:58.994491 16493 net.cpp:406] dropout2 <- pool2
I1014 16:54:58.994495 16493 net.cpp:380] dropout2 -> dropout2
I1014 16:54:58.994518 16493 net.cpp:122] Setting up dropout2
I1014 16:54:58.994523 16493 net.cpp:129] Top shape: 100 192 7 7 (940800)
I1014 16:54:58.994525 16493 net.cpp:137] Memory required for data: 394823600
I1014 16:54:58.994527 16493 layer_factory.hpp:77] Creating layer conv3
I1014 16:54:58.994534 16493 net.cpp:84] Creating Layer conv3
I1014 16:54:58.994536 16493 net.cpp:406] conv3 <- dropout2
I1014 16:54:58.994541 16493 net.cpp:380] conv3 -> conv3
I1014 16:54:59.001008 16493 net.cpp:122] Setting up conv3
I1014 16:54:59.001030 16493 net.cpp:129] Top shape: 100 192 5 5 (480000)
I1014 16:54:59.001034 16493 net.cpp:137] Memory required for data: 396743600
I1014 16:54:59.001040 16493 layer_factory.hpp:77] Creating layer penlu_conv3
I1014 16:54:59.001049 16493 net.cpp:84] Creating Layer penlu_conv3
I1014 16:54:59.001055 16493 net.cpp:406] penlu_conv3 <- conv3
I1014 16:54:59.001060 16493 net.cpp:380] penlu_conv3 -> penlu_conv3
I1014 16:54:59.001178 16493 net.cpp:122] Setting up penlu_conv3
I1014 16:54:59.001183 16493 net.cpp:129] Top shape: 100 192 5 5 (480000)
I1014 16:54:59.001195 16493 net.cpp:137] Memory required for data: 398663600
I1014 16:54:59.001206 16493 layer_factory.hpp:77] Creating layer cccp5
I1014 16:54:59.001214 16493 net.cpp:84] Creating Layer cccp5
I1014 16:54:59.001217 16493 net.cpp:406] cccp5 <- penlu_conv3
I1014 16:54:59.001222 16493 net.cpp:380] cccp5 -> cccp5
I1014 16:54:59.002255 16493 net.cpp:122] Setting up cccp5
I1014 16:54:59.002265 16493 net.cpp:129] Top shape: 100 192 5 5 (480000)
I1014 16:54:59.002279 16493 net.cpp:137] Memory required for data: 400583600
I1014 16:54:59.002282 16493 layer_factory.hpp:77] Creating layer penlu_cccp5
I1014 16:54:59.002288 16493 net.cpp:84] Creating Layer penlu_cccp5
I1014 16:54:59.002291 16493 net.cpp:406] penlu_cccp5 <- cccp5
I1014 16:54:59.002296 16493 net.cpp:380] penlu_cccp5 -> penlu_cccp5
I1014 16:54:59.002419 16493 net.cpp:122] Setting up penlu_cccp5
I1014 16:54:59.002425 16493 net.cpp:129] Top shape: 100 192 5 5 (480000)
I1014 16:54:59.002427 16493 net.cpp:137] Memory required for data: 402503600
I1014 16:54:59.002441 16493 layer_factory.hpp:77] Creating layer cccp6
I1014 16:54:59.002449 16493 net.cpp:84] Creating Layer cccp6
I1014 16:54:59.002452 16493 net.cpp:406] cccp6 <- penlu_cccp5
I1014 16:54:59.002456 16493 net.cpp:380] cccp6 -> cccp6
I1014 16:54:59.003466 16493 net.cpp:122] Setting up cccp6
I1014 16:54:59.003478 16493 net.cpp:129] Top shape: 100 192 5 5 (480000)
I1014 16:54:59.003480 16493 net.cpp:137] Memory required for data: 404423600
I1014 16:54:59.003495 16493 layer_factory.hpp:77] Creating layer penlu_cccp6
I1014 16:54:59.003502 16493 net.cpp:84] Creating Layer penlu_cccp6
I1014 16:54:59.003505 16493 net.cpp:406] penlu_cccp6 <- cccp6
I1014 16:54:59.003510 16493 net.cpp:380] penlu_cccp6 -> penlu_cccp6
I1014 16:54:59.003646 16493 net.cpp:122] Setting up penlu_cccp6
I1014 16:54:59.003653 16493 net.cpp:129] Top shape: 100 192 5 5 (480000)
I1014 16:54:59.003655 16493 net.cpp:137] Memory required for data: 406343600
I1014 16:54:59.003670 16493 layer_factory.hpp:77] Creating layer pool3
I1014 16:54:59.003675 16493 net.cpp:84] Creating Layer pool3
I1014 16:54:59.003708 16493 net.cpp:406] pool3 <- penlu_cccp6
I1014 16:54:59.003713 16493 net.cpp:380] pool3 -> pool3
I1014 16:54:59.003873 16493 net.cpp:122] Setting up pool3
I1014 16:54:59.003880 16493 net.cpp:129] Top shape: 100 192 2 2 (76800)
I1014 16:54:59.003893 16493 net.cpp:137] Memory required for data: 406650800
I1014 16:54:59.003896 16493 layer_factory.hpp:77] Creating layer dropout3
I1014 16:54:59.003902 16493 net.cpp:84] Creating Layer dropout3
I1014 16:54:59.003917 16493 net.cpp:406] dropout3 <- pool3
I1014 16:54:59.003921 16493 net.cpp:380] dropout3 -> dropout3
I1014 16:54:59.003947 16493 net.cpp:122] Setting up dropout3
I1014 16:54:59.003960 16493 net.cpp:129] Top shape: 100 192 2 2 (76800)
I1014 16:54:59.003963 16493 net.cpp:137] Memory required for data: 406958000
I1014 16:54:59.003979 16493 layer_factory.hpp:77] Creating layer conv4
I1014 16:54:59.003988 16493 net.cpp:84] Creating Layer conv4
I1014 16:54:59.003999 16493 net.cpp:406] conv4 <- dropout3
I1014 16:54:59.004004 16493 net.cpp:380] conv4 -> conv4
I1014 16:54:59.009001 16493 net.cpp:122] Setting up conv4
I1014 16:54:59.009011 16493 net.cpp:129] Top shape: 100 384 2 2 (153600)
I1014 16:54:59.009014 16493 net.cpp:137] Memory required for data: 407572400
I1014 16:54:59.009030 16493 layer_factory.hpp:77] Creating layer penlu_conv4
I1014 16:54:59.009037 16493 net.cpp:84] Creating Layer penlu_conv4
I1014 16:54:59.009040 16493 net.cpp:406] penlu_conv4 <- conv4
I1014 16:54:59.009047 16493 net.cpp:380] penlu_conv4 -> penlu_conv4
I1014 16:54:59.009161 16493 net.cpp:122] Setting up penlu_conv4
I1014 16:54:59.009167 16493 net.cpp:129] Top shape: 100 384 2 2 (153600)
I1014 16:54:59.009171 16493 net.cpp:137] Memory required for data: 408186800
I1014 16:54:59.009174 16493 layer_factory.hpp:77] Creating layer cccp7
I1014 16:54:59.009183 16493 net.cpp:84] Creating Layer cccp7
I1014 16:54:59.009186 16493 net.cpp:406] cccp7 <- penlu_conv4
I1014 16:54:59.009191 16493 net.cpp:380] cccp7 -> cccp7
I1014 16:54:59.010838 16493 net.cpp:122] Setting up cccp7
I1014 16:54:59.010848 16493 net.cpp:129] Top shape: 100 384 2 2 (153600)
I1014 16:54:59.010851 16493 net.cpp:137] Memory required for data: 408801200
I1014 16:54:59.010856 16493 layer_factory.hpp:77] Creating layer penlu_cccp7
I1014 16:54:59.010864 16493 net.cpp:84] Creating Layer penlu_cccp7
I1014 16:54:59.010867 16493 net.cpp:406] penlu_cccp7 <- cccp7
I1014 16:54:59.010872 16493 net.cpp:380] penlu_cccp7 -> penlu_cccp7
I1014 16:54:59.010977 16493 net.cpp:122] Setting up penlu_cccp7
I1014 16:54:59.010983 16493 net.cpp:129] Top shape: 100 384 2 2 (153600)
I1014 16:54:59.010987 16493 net.cpp:137] Memory required for data: 409415600
I1014 16:54:59.010992 16493 layer_factory.hpp:77] Creating layer cccp8
I1014 16:54:59.010998 16493 net.cpp:84] Creating Layer cccp8
I1014 16:54:59.011003 16493 net.cpp:406] cccp8 <- penlu_cccp7
I1014 16:54:59.011008 16493 net.cpp:380] cccp8 -> cccp8
I1014 16:54:59.013231 16493 net.cpp:122] Setting up cccp8
I1014 16:54:59.013242 16493 net.cpp:129] Top shape: 100 384 2 2 (153600)
I1014 16:54:59.013245 16493 net.cpp:137] Memory required for data: 410030000
I1014 16:54:59.013250 16493 layer_factory.hpp:77] Creating layer penlu_cccp8
I1014 16:54:59.013267 16493 net.cpp:84] Creating Layer penlu_cccp8
I1014 16:54:59.013272 16493 net.cpp:406] penlu_cccp8 <- cccp8
I1014 16:54:59.013278 16493 net.cpp:380] penlu_cccp8 -> penlu_cccp8
I1014 16:54:59.013389 16493 net.cpp:122] Setting up penlu_cccp8
I1014 16:54:59.013396 16493 net.cpp:129] Top shape: 100 384 2 2 (153600)
I1014 16:54:59.013397 16493 net.cpp:137] Memory required for data: 410644400
I1014 16:54:59.013412 16493 layer_factory.hpp:77] Creating layer pool4
I1014 16:54:59.013422 16493 net.cpp:84] Creating Layer pool4
I1014 16:54:59.013424 16493 net.cpp:406] pool4 <- penlu_cccp8
I1014 16:54:59.013428 16493 net.cpp:380] pool4 -> pool4
I1014 16:54:59.013566 16493 net.cpp:122] Setting up pool4
I1014 16:54:59.013572 16493 net.cpp:129] Top shape: 100 384 1 1 (38400)
I1014 16:54:59.013576 16493 net.cpp:137] Memory required for data: 410798000
I1014 16:54:59.013597 16493 layer_factory.hpp:77] Creating layer dropout4
I1014 16:54:59.013602 16493 net.cpp:84] Creating Layer dropout4
I1014 16:54:59.013605 16493 net.cpp:406] dropout4 <- pool4
I1014 16:54:59.013609 16493 net.cpp:380] dropout4 -> dropout4
I1014 16:54:59.013636 16493 net.cpp:122] Setting up dropout4
I1014 16:54:59.013641 16493 net.cpp:129] Top shape: 100 384 1 1 (38400)
I1014 16:54:59.013653 16493 net.cpp:137] Memory required for data: 410951600
I1014 16:54:59.013655 16493 layer_factory.hpp:77] Creating layer fc1
I1014 16:54:59.013674 16493 net.cpp:84] Creating Layer fc1
I1014 16:54:59.013677 16493 net.cpp:406] fc1 <- dropout4
I1014 16:54:59.013681 16493 net.cpp:380] fc1 -> fc1
I1014 16:54:59.014693 16493 net.cpp:122] Setting up fc1
I1014 16:54:59.014700 16493 net.cpp:129] Top shape: 100 100 (10000)
I1014 16:54:59.014703 16493 net.cpp:137] Memory required for data: 410991600
I1014 16:54:59.014708 16493 layer_factory.hpp:77] Creating layer fc1_fc1_0_split
I1014 16:54:59.014713 16493 net.cpp:84] Creating Layer fc1_fc1_0_split
I1014 16:54:59.014715 16493 net.cpp:406] fc1_fc1_0_split <- fc1
I1014 16:54:59.014720 16493 net.cpp:380] fc1_fc1_0_split -> fc1_fc1_0_split_0
I1014 16:54:59.014725 16493 net.cpp:380] fc1_fc1_0_split -> fc1_fc1_0_split_1
I1014 16:54:59.014750 16493 net.cpp:122] Setting up fc1_fc1_0_split
I1014 16:54:59.014763 16493 net.cpp:129] Top shape: 100 100 (10000)
I1014 16:54:59.014766 16493 net.cpp:129] Top shape: 100 100 (10000)
I1014 16:54:59.014768 16493 net.cpp:137] Memory required for data: 411071600
I1014 16:54:59.014770 16493 layer_factory.hpp:77] Creating layer accuracy
I1014 16:54:59.014786 16493 net.cpp:84] Creating Layer accuracy
I1014 16:54:59.014788 16493 net.cpp:406] accuracy <- fc1_fc1_0_split_0
I1014 16:54:59.014791 16493 net.cpp:406] accuracy <- label_cifar_1_split_0
I1014 16:54:59.014794 16493 net.cpp:380] accuracy -> accuracy
…
