…
I1014 19:02:38.759258 16781 net.cpp:51] Initializing net from parameters: 
name: "CIFAR100_full"
state {
  phase: TRAIN
  level: 0
  stage: ""
}
layer {
  name: "cifar"
  type: "Data"
  top: "data"
  top: "label"
  include {
    phase: TRAIN
  }
  transform_param {
    mirror: true
    crop_size: 28
    mean_file: "/home/x306/caffe/xn/PENLU/data/cifar100/mean.binaryproto"
  }
  data_param {
    source: "/home/x306/caffe/xn/PENLU/data/cifar100/cifar100_train_lmdb"
    batch_size: 100
    backend: LMDB
  }
  image_data_param {
    shuffle: true
  }
}
layer {
  name: "conv1"
  type: "Convolution"
  bottom: "data"
  top: "conv1"
  param {
    lr_mult: 1
    decay_mult: 1
  }
  param {
    lr_mult: 2
    decay_mult: 0
  }
  convolution_param {
    num_output: 192
    pad: 2
    kernel_size: 5
    weight_filler {
      type: "xavier"
    }
    bias_filler {
      type: "constant"
      value: 0
    }
  }
}
layer {
  name: "penlu_conv1"
  type: "PENLU"
  bottom: "conv1"
  top: "penlu_conv1"
  param {
    lr_mult: 2
    decay_mult: 0
  }
  param {
    lr_mult: 2
    decay_mult: 0
  }
  param {
    lr_mult: 0
    decay_mult: 0
  }
  penlu_param {
    alpha_filler {
      type: "constant"
      value: 2
    }
    beta_filler {
      type: "constant"
      value: 1
    }
    eta_filler {
      type: "constant"
      value: 1
    }
  }
}
layer {
  name: "cccp1"
  type: "Convolution"
  bottom: "penlu_conv1"
  top: "cccp1"
  param {
    lr_mult: 1
    decay_mult: 1
  }
  param {
    lr_mult: 2
    decay_mult: 0
  }
  convolution_param {
    num_output: 160
    kernel_size: 1
    weight_filler {
      type: "xavier"
    }
    bias_filler {
      type: "constant"
      value: 0
    }
  }
}
layer {
  name: "penlu_cccp1"
  type: "PENLU"
  bottom: "cccp1"
  top: "penlu_cccp1"
  param {
    lr_mult: 2
    decay_mult: 0
  }
  param {
    lr_mult: 2
    decay_mult: 0
  }
  param {
    lr_mult: 0
    decay_mult: 0
  }
  penlu_param {
    alpha_filler {
      type: "constant"
      value: 2
    }
    beta_filler {
      type: "constant"
      value: 1
    }
    eta_filler {
      type: "constant"
      value: 1
    }
  }
}
layer {
  name: "cccp2"
  type: "Convolution"
  bottom: "penlu_cccp1"
  top: "cccp2"
  param {
    lr_mult: 1
    decay_mult: 1
  }
  param {
    lr_mult: 2
    decay_mult: 0
  }
  convolution_param {
    num_output: 96
    kernel_size: 1
    weight_filler {
      type: "xavier"
    }
    bias_filler {
      type: "constant"
      value: 0
    }
  }
}
layer {
  name: "penlu_cccp2"
  type: "PENLU"
  bottom: "cccp2"
  top: "penlu_cccp2"
  param {
    lr_mult: 2
    decay_mult: 0
  }
  param {
    lr_mult: 2
    decay_mult: 0
  }
  param {
    lr_mult: 0
    decay_mult: 0
  }
  penlu_param {
    alpha_filler {
      type: "constant"
      value: 2
    }
    beta_filler {
      type: "constant"
      value: 1
    }
    eta_filler {
      type: "constant"
      value: 1
    }
  }
}
layer {
  name: "pool1"
  type: "Pooling"
  bottom: "penlu_cccp2"
  top: "pool1"
  pooling_param {
    pool: AVE
    kernel_size: 3
    stride: 2
  }
}
layer {
  name: "dropout1"
  type: "Dropout"
  bottom: "pool1"
  top: "dropout1"
  dropout_param {
    dropout_ratio: 0.5
  }
}
layer {
  name: "conv2"
  type: "Convolution"
  bottom: "dropout1"
  top: "conv2"
  param {
    lr_mult: 1
    decay_mult: 1
  }
  param {
    lr_mult: 2
    decay_mult: 0
  }
  convolution_param {
    num_output: 192
    pad: 2
    kernel_size: 5
    weight_filler {
      type: "xavier"
    }
    bias_filler {
      type: "constant"
      value: 0
    }
  }
}
layer {
  name: "penlu_conv2"
  type: "PENLU"
  bottom: "conv2"
  top: "penlu_conv2"
  param {
    lr_mult: 2
    decay_mult: 0
  }
  param {
    lr_mult: 2
    decay_mult: 0
  }
  param {
    lr_mult: 0
    decay_mult: 0
  }
  penlu_param {
    alpha_filler {
      type: "constant"
      value: 2
    }
    beta_filler {
      type: "constant"
      value: 1
    }
    eta_filler {
      type: "constant"
      value: 1
    }
  }
}
layer {
  name: "cccp3"
  type: "Convolution"
  bottom: "penlu_conv2"
  top: "cccp3"
  param {
    lr_mult: 1
    decay_mult: 1
  }
  param {
    lr_mult: 2
    decay_mult: 0
  }
  convolution_param {
    num_output: 192
    kernel_size: 1
    weight_filler {
      type: "xavier"
    }
    bias_filler {
      type: "constant"
      value: 0
    }
  }
}
layer {
  name: "penlu_cccp3"
  type: "PENLU"
  bottom: "cccp3"
  top: "penlu_cccp3"
  param {
    lr_mult: 2
    decay_mult: 0
  }
  param {
    lr_mult: 2
    decay_mult: 0
  }
  param {
    lr_mult: 0
    decay_mult: 0
  }
  penlu_param {
    alpha_filler {
      type: "constant"
      value: 2
    }
    beta_filler {
      type: "constant"
      value: 1
    }
    eta_filler {
      type: "constant"
      value: 1
    }
  }
}
layer {
  name: "cccp4"
  type: "Convolution"
  bottom: "penlu_cccp3"
  top: "cccp4"
  param {
    lr_mult: 1
    decay_mult: 1
  }
  param {
    lr_mult: 2
    decay_mult: 0
  }
  convolution_param {
    num_output: 192
    kernel_size: 1
    weight_filler {
      type: "xavier"
    }
    bias_filler {
      type: "constant"
      value: 0
    }
  }
}
layer {
  name: "penlu_cccp4"
  type: "PENLU"
  bottom: "cccp4"
  top: "penlu_cccp4"
  param {
    lr_mult: 2
    decay_mult: 0
  }
  param {
    lr_mult: 2
    decay_mult: 0
  }
  param {
    lr_mult: 0
    decay_mult: 0
  }
  penlu_param {
    alpha_filler {
      type: "constant"
      value: 2
    }
    beta_filler {
      type: "constant"
      value: 1
    }
    eta_filler {
      type: "constant"
      value: 1
    }
  }
}
layer {
  name: "pool2"
  type: "Pooling"
  bottom: "penlu_cccp4"
  top: "pool2"
  pooling_param {
    pool: AVE
    kernel_size: 3
    stride: 2
  }
}
layer {
  name: "dropout2"
  type: "Dropout"
  bottom: "pool2"
  top: "dropout2"
  dropout_param {
    dropout_ratio: 0.5
  }
}
layer {
  name: "conv3"
  type: "Convolution"
  bottom: "dropout2"
  top: "conv3"
  param {
    lr_mult: 1
    decay_mult: 1
  }
  param {
    lr_mult: 2
    decay_mult: 0
  }
  convolution_param {
    num_output: 192
    pad: 1
    kernel_size: 5
    weight_filler {
      type: "xavier"
    }
    bias_filler {
      type: "constant"
      value: 0
    }
  }
}
layer {
  name: "penlu_conv3"
  type: "PENLU"
  bottom: "conv3"
  top: "penlu_conv3"
  param {
    lr_mult: 2
    decay_mult: 0
  }
  param {
    lr_mult: 2
    decay_mult: 0
  }
  param {
    lr_mult: 0
    decay_mult: 0
  }
  penlu_param {
    alpha_filler {
      type: "constant"
      value: 2
    }
    beta_filler {
      type: "constant"
      value: 1
    }
    eta_filler {
      type: "constant"
      value: 1
    }
  }
}
layer {
  name: "cccp5"
  type: "Convolution"
  bottom: "penlu_conv3"
  top: "cccp5"
  param {
    lr_mult: 1
    decay_mult: 1
  }
  param {
    lr_mult: 2
    decay_mult: 0
  }
  convolution_param {
    num_output: 192
    kernel_size: 1
    weight_filler {
      type: "xavier"
    }
    bias_filler {
      type: "constant"
      value: 0
    }
  }
}
layer {
  name: "penlu_cccp5"
  type: "PENLU"
  bottom: "cccp5"
  top: "penlu_cccp5"
  param {
    lr_mult: 2
    decay_mult: 0
  }
  param {
    lr_mult: 2
    decay_mult: 0
  }
  param {
    lr_mult: 0
    decay_mult: 0
  }
  penlu_param {
    alpha_filler {
      type: "constant"
      value: 2
    }
    beta_filler {
      type: "constant"
      value: 1
    }
    eta_filler {
      type: "constant"
      value: 1
    }
  }
}
layer {
  name: "cccp6"
  type: "Convolution"
  bottom: "penlu_cccp5"
  top: "cccp6"
  param {
    lr_mult: 1
    decay_mult: 1
  }
  param {
    lr_mult: 2
    decay_mult: 0
  }
  convolution_param {
    num_output: 192
    kernel_size: 1
    weight_filler {
      type: "xavier"
    }
    bias_filler {
      type: "constant"
      value: 0
    }
  }
}
layer {
  name: "penlu_cccp6"
  type: "PENLU"
  bottom: "cccp6"
  top: "penlu_cccp6"
  param {
    lr_mult: 2
    decay_mult: 0
  }
  param {
    lr_mult: 2
    decay_mult: 0
  }
  param {
    lr_mult: 0
    decay_mult: 0
  }
  penlu_param {
    alpha_filler {
      type: "constant"
      value: 2
    }
    beta_filler {
      type: "constant"
      value: 1
    }
    eta_filler {
      type: "constant"
      value: 1
    }
  }
}
layer {
  name: "pool3"
  type: "Pooling"
  bottom: "penlu_cccp6"
  top: "pool3"
  pooling_param {
    pool: AVE
    kernel_size: 3
    stride: 2
  }
}
layer {
  name: "dropout3"
  type: "Dropout"
  bottom: "pool3"
  top: "dropout3"
  dropout_param {
    dropout_ratio: 0.5
  }
}
layer {
  name: "conv4"
  type: "Convolution"
  bottom: "dropout3"
  top: "conv4"
  param {
    lr_mult: 1
    decay_mult: 1
  }
  param {
    lr_mult: 2
    decay_mult: 0
  }
  convolution_param {
    num_output: 384
    pad: 1
    kernel_size: 3
    weight_filler {
      type: "xavier"
    }
    bias_filler {
      type: "constant"
      value: 0
    }
  }
}
layer {
  name: "penlu_conv4"
  type: "PENLU"
  bottom: "conv4"
  top: "penlu_conv4"
  param {
    lr_mult: 2
    decay_mult: 0
  }
  param {
    lr_mult: 2
    decay_mult: 0
  }
  param {
    lr_mult: 0
    decay_mult: 0
  }
  penlu_param {
    alpha_filler {
      type: "constant"
      value: 2
    }
    beta_filler {
      type: "constant"
      value: 1
    }
    eta_filler {
      type: "constant"
      value: 1
    }
  }
}
layer {
  name: "cccp7"
  type: "Convolution"
  bottom: "penlu_conv4"
  top: "cccp7"
  param {
    lr_mult: 1
    decay_mult: 1
  }
  param {
    lr_mult: 2
    decay_mult: 0
  }
  convolution_param {
    num_output: 384
    kernel_size: 1
    weight_filler {
      type: "xavier"
    }
    bias_filler {
      type: "constant"
      value: 0
    }
  }
}
layer {
  name: "penlu_cccp7"
  type: "PENLU"
  bottom: "cccp7"
  top: "penlu_cccp7"
  param {
    lr_mult: 2
    decay_mult: 0
  }
  param {
    lr_mult: 2
    decay_mult: 0
  }
  param {
    lr_mult: 0
    decay_mult: 0
  }
  penlu_param {
    alpha_filler {
      type: "constant"
      value: 2
    }
    beta_filler {
      type: "constant"
      value: 1
    }
    eta_filler {
      type: "constant"
      value: 1
    }
  }
}
layer {
  name: "cccp8"
  type: "Convolution"
  bottom: "penlu_cccp7"
  top: "cccp8"
  param {
    lr_mult: 1
    decay_mult: 1
  }
  param {
    lr_mult: 2
    decay_mult: 0
  }
  convolution_param {
    num_output: 384
    kernel_size: 1
    weight_filler {
      type: "xavier"
    }
    bias_filler {
      type: "constant"
      value: 0
    }
  }
}
layer {
  name: "penlu_cccp8"
  type: "PENLU"
  bottom: "cccp8"
  top: "penlu_cccp8"
  param {
    lr_mult: 2
    decay_mult: 0
  }
  param {
    lr_mult: 2
    decay_mult: 0
  }
  param {
    lr_mult: 0
    decay_mult: 0
  }
  penlu_param {
    alpha_filler {
      type: "constant"
      value: 2
    }
    beta_filler {
      type: "constant"
      value: 1
    }
    eta_filler {
      type: "constant"
      value: 1
    }
  }
}
layer {
  name: "pool4"
  type: "Pooling"
  bottom: "penlu_cccp8"
  top: "pool4"
  pooling_param {
    pool: AVE
    kernel_size: 3
    stride: 2
  }
}
layer {
  name: "dropout4"
  type: "Dropout"
  bottom: "pool4"
  top: "dropout4"
  dropout_param {
    dropout_ratio: 0.5
  }
}
layer {
  name: "fc1"
  type: "InnerProduct"
  bottom: "dropout4"
  top: "fc1"
  param {
    lr_mult: 1
    decay_mult: 1
  }
  param {
    lr_mult: 2
    decay_mult: 0
  }
  inner_product_param {
    num_output: 100
    weight_filler {
      type: "gaussian"
      std: 0.01
    }
    bias_filler {
      type: "constant"
      value: 0
    }
  }
}
layer {
  name: "accuracy"
  type: "Accuracy"
  bottom: "fc1"
  bottom: "label"
  top: "accuracy"
}
layer {
  name: "loss"
  type: "SoftmaxWithLoss"
  bottom: "fc1"
  bottom: "label"
  top: "loss"
}
I1014 19:02:38.759477 16781 layer_factory.hpp:77] Creating layer cifar
I1014 19:02:38.759558 16781 db_lmdb.cpp:35] Opened lmdb /home/x306/caffe/xn/PENLU/data/cifar100/cifar100_train_lmdb
I1014 19:02:38.759578 16781 net.cpp:84] Creating Layer cifar
I1014 19:02:38.759584 16781 net.cpp:380] cifar -> data
I1014 19:02:38.759603 16781 net.cpp:380] cifar -> label
I1014 19:02:38.759613 16781 data_transformer.cpp:25] Loading mean file from: /home/x306/caffe/xn/PENLU/data/cifar100/mean.binaryproto
I1014 19:02:38.761025 16781 data_layer.cpp:45] output data size: 100,3,28,28
I1014 19:02:38.763334 16781 net.cpp:122] Setting up cifar
I1014 19:02:38.763358 16781 net.cpp:129] Top shape: 100 3 28 28 (235200)
I1014 19:02:38.763362 16781 net.cpp:129] Top shape: 100 (100)
I1014 19:02:38.763365 16781 net.cpp:137] Memory required for data: 941200
I1014 19:02:38.763370 16781 layer_factory.hpp:77] Creating layer label_cifar_1_split
I1014 19:02:38.763382 16781 net.cpp:84] Creating Layer label_cifar_1_split
I1014 19:02:38.763387 16781 net.cpp:406] label_cifar_1_split <- label
I1014 19:02:38.763396 16781 net.cpp:380] label_cifar_1_split -> label_cifar_1_split_0
I1014 19:02:38.763403 16781 net.cpp:380] label_cifar_1_split -> label_cifar_1_split_1
I1014 19:02:38.763444 16781 net.cpp:122] Setting up label_cifar_1_split
I1014 19:02:38.763449 16781 net.cpp:129] Top shape: 100 (100)
I1014 19:02:38.763463 16781 net.cpp:129] Top shape: 100 (100)
I1014 19:02:38.763464 16781 net.cpp:137] Memory required for data: 942000
I1014 19:02:38.763468 16781 layer_factory.hpp:77] Creating layer conv1
I1014 19:02:38.763481 16781 net.cpp:84] Creating Layer conv1
I1014 19:02:38.763485 16781 net.cpp:406] conv1 <- data
I1014 19:02:38.763489 16781 net.cpp:380] conv1 -> conv1
I1014 19:02:38.910858 16781 net.cpp:122] Setting up conv1
I1014 19:02:38.910883 16781 net.cpp:129] Top shape: 100 192 28 28 (15052800)
I1014 19:02:38.910887 16781 net.cpp:137] Memory required for data: 61153200
I1014 19:02:38.910902 16781 layer_factory.hpp:77] Creating layer penlu_conv1
I1014 19:02:38.910939 16781 net.cpp:84] Creating Layer penlu_conv1
I1014 19:02:38.910945 16781 net.cpp:406] penlu_conv1 <- conv1
I1014 19:02:38.910962 16781 net.cpp:380] penlu_conv1 -> penlu_conv1
I1014 19:02:38.911659 16781 net.cpp:122] Setting up penlu_conv1
I1014 19:02:38.911669 16781 net.cpp:129] Top shape: 100 192 28 28 (15052800)
I1014 19:02:38.911671 16781 net.cpp:137] Memory required for data: 121364400
I1014 19:02:38.911679 16781 layer_factory.hpp:77] Creating layer cccp1
I1014 19:02:38.911687 16781 net.cpp:84] Creating Layer cccp1
I1014 19:02:38.911701 16781 net.cpp:406] cccp1 <- penlu_conv1
I1014 19:02:38.911708 16781 net.cpp:380] cccp1 -> cccp1
I1014 19:02:38.913180 16781 net.cpp:122] Setting up cccp1
I1014 19:02:38.913199 16781 net.cpp:129] Top shape: 100 160 28 28 (12544000)
I1014 19:02:38.913202 16781 net.cpp:137] Memory required for data: 171540400
I1014 19:02:38.913206 16781 layer_factory.hpp:77] Creating layer penlu_cccp1
I1014 19:02:38.913213 16781 net.cpp:84] Creating Layer penlu_cccp1
I1014 19:02:38.913215 16781 net.cpp:406] penlu_cccp1 <- cccp1
I1014 19:02:38.913220 16781 net.cpp:380] penlu_cccp1 -> penlu_cccp1
I1014 19:02:38.913393 16781 net.cpp:122] Setting up penlu_cccp1
I1014 19:02:38.913400 16781 net.cpp:129] Top shape: 100 160 28 28 (12544000)
I1014 19:02:38.913403 16781 net.cpp:137] Memory required for data: 221716400
I1014 19:02:38.913409 16781 layer_factory.hpp:77] Creating layer cccp2
I1014 19:02:38.913416 16781 net.cpp:84] Creating Layer cccp2
I1014 19:02:38.913420 16781 net.cpp:406] cccp2 <- penlu_cccp1
I1014 19:02:38.913424 16781 net.cpp:380] cccp2 -> cccp2
I1014 19:02:38.914376 16781 net.cpp:122] Setting up cccp2
I1014 19:02:38.914386 16781 net.cpp:129] Top shape: 100 96 28 28 (7526400)
I1014 19:02:38.914389 16781 net.cpp:137] Memory required for data: 251822000
I1014 19:02:38.914415 16781 layer_factory.hpp:77] Creating layer penlu_cccp2
I1014 19:02:38.914423 16781 net.cpp:84] Creating Layer penlu_cccp2
I1014 19:02:38.914443 16781 net.cpp:406] penlu_cccp2 <- cccp2
I1014 19:02:38.914464 16781 net.cpp:380] penlu_cccp2 -> penlu_cccp2
I1014 19:02:38.914644 16781 net.cpp:122] Setting up penlu_cccp2
I1014 19:02:38.914651 16781 net.cpp:129] Top shape: 100 96 28 28 (7526400)
I1014 19:02:38.914654 16781 net.cpp:137] Memory required for data: 281927600
I1014 19:02:38.914659 16781 layer_factory.hpp:77] Creating layer pool1
I1014 19:02:38.914664 16781 net.cpp:84] Creating Layer pool1
I1014 19:02:38.914666 16781 net.cpp:406] pool1 <- penlu_cccp2
I1014 19:02:38.914670 16781 net.cpp:380] pool1 -> pool1
I1014 19:02:38.914835 16781 net.cpp:122] Setting up pool1
I1014 19:02:38.914844 16781 net.cpp:129] Top shape: 100 96 14 14 (1881600)
I1014 19:02:38.914846 16781 net.cpp:137] Memory required for data: 289454000
I1014 19:02:38.914849 16781 layer_factory.hpp:77] Creating layer dropout1
I1014 19:02:38.914854 16781 net.cpp:84] Creating Layer dropout1
I1014 19:02:38.914856 16781 net.cpp:406] dropout1 <- pool1
I1014 19:02:38.914860 16781 net.cpp:380] dropout1 -> dropout1
I1014 19:02:38.914914 16781 net.cpp:122] Setting up dropout1
I1014 19:02:38.914921 16781 net.cpp:129] Top shape: 100 96 14 14 (1881600)
I1014 19:02:38.914924 16781 net.cpp:137] Memory required for data: 296980400
I1014 19:02:38.914927 16781 layer_factory.hpp:77] Creating layer conv2
I1014 19:02:38.914932 16781 net.cpp:84] Creating Layer conv2
I1014 19:02:38.914935 16781 net.cpp:406] conv2 <- dropout1
I1014 19:02:38.914949 16781 net.cpp:380] conv2 -> conv2
I1014 19:02:38.918766 16781 net.cpp:122] Setting up conv2
I1014 19:02:38.918776 16781 net.cpp:129] Top shape: 100 192 14 14 (3763200)
I1014 19:02:38.918779 16781 net.cpp:137] Memory required for data: 312033200
I1014 19:02:38.918787 16781 layer_factory.hpp:77] Creating layer penlu_conv2
I1014 19:02:38.918793 16781 net.cpp:84] Creating Layer penlu_conv2
I1014 19:02:38.918805 16781 net.cpp:406] penlu_conv2 <- conv2
I1014 19:02:38.918812 16781 net.cpp:380] penlu_conv2 -> penlu_conv2
I1014 19:02:38.918984 16781 net.cpp:122] Setting up penlu_conv2
I1014 19:02:38.918992 16781 net.cpp:129] Top shape: 100 192 14 14 (3763200)
I1014 19:02:38.918994 16781 net.cpp:137] Memory required for data: 327086000
I1014 19:02:38.918998 16781 layer_factory.hpp:77] Creating layer cccp3
I1014 19:02:38.919005 16781 net.cpp:84] Creating Layer cccp3
I1014 19:02:38.919008 16781 net.cpp:406] cccp3 <- penlu_conv2
I1014 19:02:38.919023 16781 net.cpp:380] cccp3 -> cccp3
I1014 19:02:38.920028 16781 net.cpp:122] Setting up cccp3
I1014 19:02:38.920038 16781 net.cpp:129] Top shape: 100 192 14 14 (3763200)
I1014 19:02:38.920042 16781 net.cpp:137] Memory required for data: 342138800
I1014 19:02:38.920045 16781 layer_factory.hpp:77] Creating layer penlu_cccp3
I1014 19:02:38.920051 16781 net.cpp:84] Creating Layer penlu_cccp3
I1014 19:02:38.920054 16781 net.cpp:406] penlu_cccp3 <- cccp3
I1014 19:02:38.920069 16781 net.cpp:380] penlu_cccp3 -> penlu_cccp3
I1014 19:02:38.920202 16781 net.cpp:122] Setting up penlu_cccp3
I1014 19:02:38.920207 16781 net.cpp:129] Top shape: 100 192 14 14 (3763200)
I1014 19:02:38.920209 16781 net.cpp:137] Memory required for data: 357191600
I1014 19:02:38.920214 16781 layer_factory.hpp:77] Creating layer cccp4
I1014 19:02:38.920233 16781 net.cpp:84] Creating Layer cccp4
I1014 19:02:38.920235 16781 net.cpp:406] cccp4 <- penlu_cccp3
I1014 19:02:38.920239 16781 net.cpp:380] cccp4 -> cccp4
I1014 19:02:38.921278 16781 net.cpp:122] Setting up cccp4
I1014 19:02:38.921288 16781 net.cpp:129] Top shape: 100 192 14 14 (3763200)
I1014 19:02:38.921290 16781 net.cpp:137] Memory required for data: 372244400
I1014 19:02:38.921295 16781 layer_factory.hpp:77] Creating layer penlu_cccp4
I1014 19:02:38.921311 16781 net.cpp:84] Creating Layer penlu_cccp4
I1014 19:02:38.921315 16781 net.cpp:406] penlu_cccp4 <- cccp4
I1014 19:02:38.921332 16781 net.cpp:380] penlu_cccp4 -> penlu_cccp4
I1014 19:02:38.921501 16781 net.cpp:122] Setting up penlu_cccp4
I1014 19:02:38.921509 16781 net.cpp:129] Top shape: 100 192 14 14 (3763200)
I1014 19:02:38.921510 16781 net.cpp:137] Memory required for data: 387297200
I1014 19:02:38.921514 16781 layer_factory.hpp:77] Creating layer pool2
I1014 19:02:38.921520 16781 net.cpp:84] Creating Layer pool2
I1014 19:02:38.921533 16781 net.cpp:406] pool2 <- penlu_cccp4
I1014 19:02:38.921537 16781 net.cpp:380] pool2 -> pool2
I1014 19:02:38.921691 16781 net.cpp:122] Setting up pool2
I1014 19:02:38.921699 16781 net.cpp:129] Top shape: 100 192 7 7 (940800)
I1014 19:02:38.921701 16781 net.cpp:137] Memory required for data: 391060400
I1014 19:02:38.921703 16781 layer_factory.hpp:77] Creating layer dropout2
I1014 19:02:38.921707 16781 net.cpp:84] Creating Layer dropout2
I1014 19:02:38.921710 16781 net.cpp:406] dropout2 <- pool2
I1014 19:02:38.921725 16781 net.cpp:380] dropout2 -> dropout2
I1014 19:02:38.921758 16781 net.cpp:122] Setting up dropout2
I1014 19:02:38.921764 16781 net.cpp:129] Top shape: 100 192 7 7 (940800)
I1014 19:02:38.921767 16781 net.cpp:137] Memory required for data: 394823600
I1014 19:02:38.921779 16781 layer_factory.hpp:77] Creating layer conv3
I1014 19:02:38.921785 16781 net.cpp:84] Creating Layer conv3
I1014 19:02:38.921788 16781 net.cpp:406] conv3 <- dropout2
I1014 19:02:38.921794 16781 net.cpp:380] conv3 -> conv3
I1014 19:02:38.928688 16781 net.cpp:122] Setting up conv3
I1014 19:02:38.928717 16781 net.cpp:129] Top shape: 100 192 5 5 (480000)
I1014 19:02:38.928720 16781 net.cpp:137] Memory required for data: 396743600
I1014 19:02:38.928726 16781 layer_factory.hpp:77] Creating layer penlu_conv3
I1014 19:02:38.928746 16781 net.cpp:84] Creating Layer penlu_conv3
I1014 19:02:38.928751 16781 net.cpp:406] penlu_conv3 <- conv3
I1014 19:02:38.928762 16781 net.cpp:380] penlu_conv3 -> penlu_conv3
I1014 19:02:38.928932 16781 net.cpp:122] Setting up penlu_conv3
I1014 19:02:38.928941 16781 net.cpp:129] Top shape: 100 192 5 5 (480000)
I1014 19:02:38.928952 16781 net.cpp:137] Memory required for data: 398663600
I1014 19:02:38.928973 16781 layer_factory.hpp:77] Creating layer cccp5
I1014 19:02:38.928993 16781 net.cpp:84] Creating Layer cccp5
I1014 19:02:38.929008 16781 net.cpp:406] cccp5 <- penlu_conv3
I1014 19:02:38.929025 16781 net.cpp:380] cccp5 -> cccp5
I1014 19:02:38.930110 16781 net.cpp:122] Setting up cccp5
I1014 19:02:38.930120 16781 net.cpp:129] Top shape: 100 192 5 5 (480000)
I1014 19:02:38.930133 16781 net.cpp:137] Memory required for data: 400583600
I1014 19:02:38.930138 16781 layer_factory.hpp:77] Creating layer penlu_cccp5
I1014 19:02:38.930155 16781 net.cpp:84] Creating Layer penlu_cccp5
I1014 19:02:38.930160 16781 net.cpp:406] penlu_cccp5 <- cccp5
I1014 19:02:38.930166 16781 net.cpp:380] penlu_cccp5 -> penlu_cccp5
I1014 19:02:38.930304 16781 net.cpp:122] Setting up penlu_cccp5
I1014 19:02:38.930311 16781 net.cpp:129] Top shape: 100 192 5 5 (480000)
I1014 19:02:38.930315 16781 net.cpp:137] Memory required for data: 402503600
I1014 19:02:38.930322 16781 layer_factory.hpp:77] Creating layer cccp6
I1014 19:02:38.930335 16781 net.cpp:84] Creating Layer cccp6
I1014 19:02:38.930341 16781 net.cpp:406] cccp6 <- penlu_cccp5
I1014 19:02:38.930349 16781 net.cpp:380] cccp6 -> cccp6
I1014 19:02:38.931392 16781 net.cpp:122] Setting up cccp6
I1014 19:02:38.931403 16781 net.cpp:129] Top shape: 100 192 5 5 (480000)
I1014 19:02:38.931409 16781 net.cpp:137] Memory required for data: 404423600
I1014 19:02:38.931417 16781 layer_factory.hpp:77] Creating layer penlu_cccp6
I1014 19:02:38.931427 16781 net.cpp:84] Creating Layer penlu_cccp6
I1014 19:02:38.931433 16781 net.cpp:406] penlu_cccp6 <- cccp6
I1014 19:02:38.931444 16781 net.cpp:380] penlu_cccp6 -> penlu_cccp6
I1014 19:02:38.931567 16781 net.cpp:122] Setting up penlu_cccp6
I1014 19:02:38.931576 16781 net.cpp:129] Top shape: 100 192 5 5 (480000)
I1014 19:02:38.931581 16781 net.cpp:137] Memory required for data: 406343600
I1014 19:02:38.931588 16781 layer_factory.hpp:77] Creating layer pool3
I1014 19:02:38.931597 16781 net.cpp:84] Creating Layer pool3
I1014 19:02:38.931617 16781 net.cpp:406] pool3 <- penlu_cccp6
I1014 19:02:38.931624 16781 net.cpp:380] pool3 -> pool3
I1014 19:02:38.931763 16781 net.cpp:122] Setting up pool3
I1014 19:02:38.931772 16781 net.cpp:129] Top shape: 100 192 2 2 (76800)
I1014 19:02:38.931777 16781 net.cpp:137] Memory required for data: 406650800
I1014 19:02:38.931782 16781 layer_factory.hpp:77] Creating layer dropout3
I1014 19:02:38.931792 16781 net.cpp:84] Creating Layer dropout3
I1014 19:02:38.931797 16781 net.cpp:406] dropout3 <- pool3
I1014 19:02:38.931805 16781 net.cpp:380] dropout3 -> dropout3
I1014 19:02:38.931839 16781 net.cpp:122] Setting up dropout3
I1014 19:02:38.931845 16781 net.cpp:129] Top shape: 100 192 2 2 (76800)
I1014 19:02:38.931849 16781 net.cpp:137] Memory required for data: 406958000
I1014 19:02:38.931854 16781 layer_factory.hpp:77] Creating layer conv4
I1014 19:02:38.931865 16781 net.cpp:84] Creating Layer conv4
I1014 19:02:38.931871 16781 net.cpp:406] conv4 <- dropout3
I1014 19:02:38.931881 16781 net.cpp:380] conv4 -> conv4
I1014 19:02:38.940722 16781 net.cpp:122] Setting up conv4
I1014 19:02:38.940748 16781 net.cpp:129] Top shape: 100 384 2 2 (153600)
I1014 19:02:38.940752 16781 net.cpp:137] Memory required for data: 407572400
I1014 19:02:38.940758 16781 layer_factory.hpp:77] Creating layer penlu_conv4
I1014 19:02:38.940778 16781 net.cpp:84] Creating Layer penlu_conv4
I1014 19:02:38.940784 16781 net.cpp:406] penlu_conv4 <- conv4
I1014 19:02:38.940804 16781 net.cpp:380] penlu_conv4 -> penlu_conv4
I1014 19:02:38.940989 16781 net.cpp:122] Setting up penlu_conv4
I1014 19:02:38.940996 16781 net.cpp:129] Top shape: 100 384 2 2 (153600)
I1014 19:02:38.940999 16781 net.cpp:137] Memory required for data: 408186800
I1014 19:02:38.941004 16781 layer_factory.hpp:77] Creating layer cccp7
I1014 19:02:38.941015 16781 net.cpp:84] Creating Layer cccp7
I1014 19:02:38.941022 16781 net.cpp:406] cccp7 <- penlu_conv4
I1014 19:02:38.941030 16781 net.cpp:380] cccp7 -> cccp7
I1014 19:02:38.942790 16781 net.cpp:122] Setting up cccp7
I1014 19:02:38.942801 16781 net.cpp:129] Top shape: 100 384 2 2 (153600)
I1014 19:02:38.942804 16781 net.cpp:137] Memory required for data: 408801200
I1014 19:02:38.942808 16781 layer_factory.hpp:77] Creating layer penlu_cccp7
I1014 19:02:38.942816 16781 net.cpp:84] Creating Layer penlu_cccp7
I1014 19:02:38.942818 16781 net.cpp:406] penlu_cccp7 <- cccp7
I1014 19:02:38.942834 16781 net.cpp:380] penlu_cccp7 -> penlu_cccp7
I1014 19:02:38.942957 16781 net.cpp:122] Setting up penlu_cccp7
I1014 19:02:38.942965 16781 net.cpp:129] Top shape: 100 384 2 2 (153600)
I1014 19:02:38.942966 16781 net.cpp:137] Memory required for data: 409415600
I1014 19:02:38.942971 16781 layer_factory.hpp:77] Creating layer cccp8
I1014 19:02:38.942988 16781 net.cpp:84] Creating Layer cccp8
I1014 19:02:38.942992 16781 net.cpp:406] cccp8 <- penlu_cccp7
I1014 19:02:38.942998 16781 net.cpp:380] cccp8 -> cccp8
I1014 19:02:38.945065 16781 net.cpp:122] Setting up cccp8
I1014 19:02:38.945076 16781 net.cpp:129] Top shape: 100 384 2 2 (153600)
I1014 19:02:38.945080 16781 net.cpp:137] Memory required for data: 410030000
I1014 19:02:38.945083 16781 layer_factory.hpp:77] Creating layer penlu_cccp8
I1014 19:02:38.945101 16781 net.cpp:84] Creating Layer penlu_cccp8
I1014 19:02:38.945106 16781 net.cpp:406] penlu_cccp8 <- cccp8
I1014 19:02:38.945111 16781 net.cpp:380] penlu_cccp8 -> penlu_cccp8
I1014 19:02:38.945238 16781 net.cpp:122] Setting up penlu_cccp8
I1014 19:02:38.945245 16781 net.cpp:129] Top shape: 100 384 2 2 (153600)
I1014 19:02:38.945247 16781 net.cpp:137] Memory required for data: 410644400
I1014 19:02:38.945252 16781 layer_factory.hpp:77] Creating layer pool4
I1014 19:02:38.945271 16781 net.cpp:84] Creating Layer pool4
I1014 19:02:38.945276 16781 net.cpp:406] pool4 <- penlu_cccp8
I1014 19:02:38.945281 16781 net.cpp:380] pool4 -> pool4
I1014 19:02:38.945430 16781 net.cpp:122] Setting up pool4
I1014 19:02:38.945438 16781 net.cpp:129] Top shape: 100 384 1 1 (38400)
I1014 19:02:38.945451 16781 net.cpp:137] Memory required for data: 410798000
I1014 19:02:38.945477 16781 layer_factory.hpp:77] Creating layer dropout4
I1014 19:02:38.945494 16781 net.cpp:84] Creating Layer dropout4
I1014 19:02:38.945498 16781 net.cpp:406] dropout4 <- pool4
I1014 19:02:38.945514 16781 net.cpp:380] dropout4 -> dropout4
I1014 19:02:38.945560 16781 net.cpp:122] Setting up dropout4
I1014 19:02:38.945567 16781 net.cpp:129] Top shape: 100 384 1 1 (38400)
I1014 19:02:38.945582 16781 net.cpp:137] Memory required for data: 410951600
I1014 19:02:38.945585 16781 layer_factory.hpp:77] Creating layer fc1
I1014 19:02:38.945596 16781 net.cpp:84] Creating Layer fc1
I1014 19:02:38.945612 16781 net.cpp:406] fc1 <- dropout4
I1014 19:02:38.945629 16781 net.cpp:380] fc1 -> fc1
I1014 19:02:38.946609 16781 net.cpp:122] Setting up fc1
I1014 19:02:38.946616 16781 net.cpp:129] Top shape: 100 100 (10000)
I1014 19:02:38.946620 16781 net.cpp:137] Memory required for data: 410991600
I1014 19:02:38.946629 16781 layer_factory.hpp:77] Creating layer fc1_fc1_0_split
I1014 19:02:38.946650 16781 net.cpp:84] Creating Layer fc1_fc1_0_split
I1014 19:02:38.946666 16781 net.cpp:406] fc1_fc1_0_split <- fc1
I1014 19:02:38.946683 16781 net.cpp:380] fc1_fc1_0_split -> fc1_fc1_0_split_0
I1014 19:02:38.946692 16781 net.cpp:380] fc1_fc1_0_split -> fc1_fc1_0_split_1
I1014 19:02:38.946727 16781 net.cpp:122] Setting up fc1_fc1_0_split
I1014 19:02:38.946734 16781 net.cpp:129] Top shape: 100 100 (10000)
I1014 19:02:38.946739 16781 net.cpp:129] Top shape: 100 100 (10000)
I1014 19:02:38.946744 16781 net.cpp:137] Memory required for data: 411071600
I1014 19:02:38.946749 16781 layer_factory.hpp:77] Creating layer accuracy
I1014 19:02:38.946758 16781 net.cpp:84] Creating Layer accuracy
I1014 19:02:38.946774 16781 net.cpp:406] accuracy <- fc1_fc1_0_split_0
I1014 19:02:38.946780 16781 net.cpp:406] accuracy <- label_cifar_1_split_0
I1014 19:02:38.946787 16781 net.cpp:380] accuracy -> accuracy
…
