…
I1014 15:19:22.285583 16304 net.cpp:51] Initializing net from parameters: 
name: "CIFAR100_full"
state {
  phase: TRAIN
  level: 0
  stage: ""
}
layer {
  name: "cifar"
  type: "Data"
  top: "data"
  top: "label"
  include {
    phase: TRAIN
  }
  transform_param {
    mirror: true
    crop_size: 28
    mean_file: "/home/x306/caffe/xn/PENLU/data/cifar100/mean.binaryproto"
  }
  data_param {
    source: "/home/x306/caffe/xn/PENLU/data/cifar100/cifar100_train_lmdb"
    batch_size: 100
    backend: LMDB
  }
  image_data_param {
    shuffle: true
  }
}
layer {
  name: "conv1"
  type: "Convolution"
  bottom: "data"
  top: "conv1"
  param {
    lr_mult: 1
    decay_mult: 1
  }
  param {
    lr_mult: 2
    decay_mult: 0
  }
  convolution_param {
    num_output: 192
    pad: 2
    kernel_size: 5
    weight_filler {
      type: "xavier"
    }
    bias_filler {
      type: "constant"
      value: 0
    }
  }
}
layer {
  name: "penlu_conv1"
  type: "PENLU"
  bottom: "conv1"
  top: "penlu_conv1"
  param {
    lr_mult: 2
    decay_mult: 0
  }
  param {
    lr_mult: 2
    decay_mult: 0
  }
  param {
    lr_mult: 0
    decay_mult: 0
  }
  penlu_param {
    alpha_filler {
      type: "constant"
      value: 0.25
    }
    beta_filler {
      type: "constant"
      value: 1
    }
    eta_filler {
      type: "constant"
      value: 1
    }
  }
}
layer {
  name: "cccp1"
  type: "Convolution"
  bottom: "penlu_conv1"
  top: "cccp1"
  param {
    lr_mult: 1
    decay_mult: 1
  }
  param {
    lr_mult: 2
    decay_mult: 0
  }
  convolution_param {
    num_output: 160
    kernel_size: 1
    weight_filler {
      type: "xavier"
    }
    bias_filler {
      type: "constant"
      value: 0
    }
  }
}
layer {
  name: "penlu_cccp1"
  type: "PENLU"
  bottom: "cccp1"
  top: "penlu_cccp1"
  param {
    lr_mult: 2
    decay_mult: 0
  }
  param {
    lr_mult: 2
    decay_mult: 0
  }
  param {
    lr_mult: 0
    decay_mult: 0
  }
  penlu_param {
    alpha_filler {
      type: "constant"
      value: 0.25
    }
    beta_filler {
      type: "constant"
      value: 1
    }
    eta_filler {
      type: "constant"
      value: 1
    }
  }
}
layer {
  name: "cccp2"
  type: "Convolution"
  bottom: "penlu_cccp1"
  top: "cccp2"
  param {
    lr_mult: 1
    decay_mult: 1
  }
  param {
    lr_mult: 2
    decay_mult: 0
  }
  convolution_param {
    num_output: 96
    kernel_size: 1
    weight_filler {
      type: "xavier"
    }
    bias_filler {
      type: "constant"
      value: 0
    }
  }
}
layer {
  name: "penlu_cccp2"
  type: "PENLU"
  bottom: "cccp2"
  top: "penlu_cccp2"
  param {
    lr_mult: 2
    decay_mult: 0
  }
  param {
    lr_mult: 2
    decay_mult: 0
  }
  param {
    lr_mult: 0
    decay_mult: 0
  }
  penlu_param {
    alpha_filler {
      type: "constant"
      value: 0.25
    }
    beta_filler {
      type: "constant"
      value: 1
    }
    eta_filler {
      type: "constant"
      value: 1
    }
  }
}
layer {
  name: "pool1"
  type: "Pooling"
  bottom: "penlu_cccp2"
  top: "pool1"
  pooling_param {
    pool: AVE
    kernel_size: 3
    stride: 2
  }
}
layer {
  name: "dropout1"
  type: "Dropout"
  bottom: "pool1"
  top: "dropout1"
  dropout_param {
    dropout_ratio: 0.5
  }
}
layer {
  name: "conv2"
  type: "Convolution"
  bottom: "dropout1"
  top: "conv2"
  param {
    lr_mult: 1
    decay_mult: 1
  }
  param {
    lr_mult: 2
    decay_mult: 0
  }
  convolution_param {
    num_output: 192
    pad: 2
    kernel_size: 5
    weight_filler {
      type: "xavier"
    }
    bias_filler {
      type: "constant"
      value: 0
    }
  }
}
layer {
  name: "penlu_conv2"
  type: "PENLU"
  bottom: "conv2"
  top: "penlu_conv2"
  param {
    lr_mult: 2
    decay_mult: 0
  }
  param {
    lr_mult: 2
    decay_mult: 0
  }
  param {
    lr_mult: 0
    decay_mult: 0
  }
  penlu_param {
    alpha_filler {
      type: "constant"
      value: 0.25
    }
    beta_filler {
      type: "constant"
      value: 1
    }
    eta_filler {
      type: "constant"
      value: 1
    }
  }
}
layer {
  name: "cccp3"
  type: "Convolution"
  bottom: "penlu_conv2"
  top: "cccp3"
  param {
    lr_mult: 1
    decay_mult: 1
  }
  param {
    lr_mult: 2
    decay_mult: 0
  }
  convolution_param {
    num_output: 192
    kernel_size: 1
    weight_filler {
      type: "xavier"
    }
    bias_filler {
      type: "constant"
      value: 0
    }
  }
}
layer {
  name: "penlu_cccp3"
  type: "PENLU"
  bottom: "cccp3"
  top: "penlu_cccp3"
  param {
    lr_mult: 2
    decay_mult: 0
  }
  param {
    lr_mult: 2
    decay_mult: 0
  }
  param {
    lr_mult: 0
    decay_mult: 0
  }
  penlu_param {
    alpha_filler {
      type: "constant"
      value: 0.25
    }
    beta_filler {
      type: "constant"
      value: 1
    }
    eta_filler {
      type: "constant"
      value: 1
    }
  }
}
layer {
  name: "cccp4"
  type: "Convolution"
  bottom: "penlu_cccp3"
  top: "cccp4"
  param {
    lr_mult: 1
    decay_mult: 1
  }
  param {
    lr_mult: 2
    decay_mult: 0
  }
  convolution_param {
    num_output: 192
    kernel_size: 1
    weight_filler {
      type: "xavier"
    }
    bias_filler {
      type: "constant"
      value: 0
    }
  }
}
layer {
  name: "penlu_cccp4"
  type: "PENLU"
  bottom: "cccp4"
  top: "penlu_cccp4"
  param {
    lr_mult: 2
    decay_mult: 0
  }
  param {
    lr_mult: 2
    decay_mult: 0
  }
  param {
    lr_mult: 0
    decay_mult: 0
  }
  penlu_param {
    alpha_filler {
      type: "constant"
      value: 0.25
    }
    beta_filler {
      type: "constant"
      value: 1
    }
    eta_filler {
      type: "constant"
      value: 1
    }
  }
}
layer {
  name: "pool2"
  type: "Pooling"
  bottom: "penlu_cccp4"
  top: "pool2"
  pooling_param {
    pool: AVE
    kernel_size: 3
    stride: 2
  }
}
layer {
  name: "dropout2"
  type: "Dropout"
  bottom: "pool2"
  top: "dropout2"
  dropout_param {
    dropout_ratio: 0.5
  }
}
layer {
  name: "conv3"
  type: "Convolution"
  bottom: "dropout2"
  top: "conv3"
  param {
    lr_mult: 1
    decay_mult: 1
  }
  param {
    lr_mult: 2
    decay_mult: 0
  }
  convolution_param {
    num_output: 192
    pad: 1
    kernel_size: 5
    weight_filler {
      type: "xavier"
    }
    bias_filler {
      type: "constant"
      value: 0
    }
  }
}
layer {
  name: "penlu_conv3"
  type: "PENLU"
  bottom: "conv3"
  top: "penlu_conv3"
  param {
    lr_mult: 2
    decay_mult: 0
  }
  param {
    lr_mult: 2
    decay_mult: 0
  }
  param {
    lr_mult: 0
    decay_mult: 0
  }
  penlu_param {
    alpha_filler {
      type: "constant"
      value: 0.25
    }
    beta_filler {
      type: "constant"
      value: 1
    }
    eta_filler {
      type: "constant"
      value: 1
    }
  }
}
layer {
  name: "cccp5"
  type: "Convolution"
  bottom: "penlu_conv3"
  top: "cccp5"
  param {
    lr_mult: 1
    decay_mult: 1
  }
  param {
    lr_mult: 2
    decay_mult: 0
  }
  convolution_param {
    num_output: 192
    kernel_size: 1
    weight_filler {
      type: "xavier"
    }
    bias_filler {
      type: "constant"
      value: 0
    }
  }
}
layer {
  name: "penlu_cccp5"
  type: "PENLU"
  bottom: "cccp5"
  top: "penlu_cccp5"
  param {
    lr_mult: 2
    decay_mult: 0
  }
  param {
    lr_mult: 2
    decay_mult: 0
  }
  param {
    lr_mult: 0
    decay_mult: 0
  }
  penlu_param {
    alpha_filler {
      type: "constant"
      value: 0.25
    }
    beta_filler {
      type: "constant"
      value: 1
    }
    eta_filler {
      type: "constant"
      value: 1
    }
  }
}
layer {
  name: "cccp6"
  type: "Convolution"
  bottom: "penlu_cccp5"
  top: "cccp6"
  param {
    lr_mult: 1
    decay_mult: 1
  }
  param {
    lr_mult: 2
    decay_mult: 0
  }
  convolution_param {
    num_output: 192
    kernel_size: 1
    weight_filler {
      type: "xavier"
    }
    bias_filler {
      type: "constant"
      value: 0
    }
  }
}
layer {
  name: "penlu_cccp6"
  type: "PENLU"
  bottom: "cccp6"
  top: "penlu_cccp6"
  param {
    lr_mult: 2
    decay_mult: 0
  }
  param {
    lr_mult: 2
    decay_mult: 0
  }
  param {
    lr_mult: 0
    decay_mult: 0
  }
  penlu_param {
    alpha_filler {
      type: "constant"
      value: 0.25
    }
    beta_filler {
      type: "constant"
      value: 1
    }
    eta_filler {
      type: "constant"
      value: 1
    }
  }
}
layer {
  name: "pool3"
  type: "Pooling"
  bottom: "penlu_cccp6"
  top: "pool3"
  pooling_param {
    pool: AVE
    kernel_size: 3
    stride: 2
  }
}
layer {
  name: "dropout3"
  type: "Dropout"
  bottom: "pool3"
  top: "dropout3"
  dropout_param {
    dropout_ratio: 0.5
  }
}
layer {
  name: "conv4"
  type: "Convolution"
  bottom: "dropout3"
  top: "conv4"
  param {
    lr_mult: 1
    decay_mult: 1
  }
  param {
    lr_mult: 2
    decay_mult: 0
  }
  convolution_param {
    num_output: 384
    pad: 1
    kernel_size: 3
    weight_filler {
      type: "xavier"
    }
    bias_filler {
      type: "constant"
      value: 0
    }
  }
}
layer {
  name: "penlu_conv4"
  type: "PENLU"
  bottom: "conv4"
  top: "penlu_conv4"
  param {
    lr_mult: 2
    decay_mult: 0
  }
  param {
    lr_mult: 2
    decay_mult: 0
  }
  param {
    lr_mult: 0
    decay_mult: 0
  }
  penlu_param {
    alpha_filler {
      type: "constant"
      value: 0.25
    }
    beta_filler {
      type: "constant"
      value: 1
    }
    eta_filler {
      type: "constant"
      value: 1
    }
  }
}
layer {
  name: "cccp7"
  type: "Convolution"
  bottom: "penlu_conv4"
  top: "cccp7"
  param {
    lr_mult: 1
    decay_mult: 1
  }
  param {
    lr_mult: 2
    decay_mult: 0
  }
  convolution_param {
    num_output: 384
    kernel_size: 1
    weight_filler {
      type: "xavier"
    }
    bias_filler {
      type: "constant"
      value: 0
    }
  }
}
layer {
  name: "penlu_cccp7"
  type: "PENLU"
  bottom: "cccp7"
  top: "penlu_cccp7"
  param {
    lr_mult: 2
    decay_mult: 0
  }
  param {
    lr_mult: 2
    decay_mult: 0
  }
  param {
    lr_mult: 0
    decay_mult: 0
  }
  penlu_param {
    alpha_filler {
      type: "constant"
      value: 0.25
    }
    beta_filler {
      type: "constant"
      value: 1
    }
    eta_filler {
      type: "constant"
      value: 1
    }
  }
}
layer {
  name: "cccp8"
  type: "Convolution"
  bottom: "penlu_cccp7"
  top: "cccp8"
  param {
    lr_mult: 1
    decay_mult: 1
  }
  param {
    lr_mult: 2
    decay_mult: 0
  }
  convolution_param {
    num_output: 384
    kernel_size: 1
    weight_filler {
      type: "xavier"
    }
    bias_filler {
      type: "constant"
      value: 0
    }
  }
}
layer {
  name: "penlu_cccp8"
  type: "PENLU"
  bottom: "cccp8"
  top: "penlu_cccp8"
  param {
    lr_mult: 2
    decay_mult: 0
  }
  param {
    lr_mult: 2
    decay_mult: 0
  }
  param {
    lr_mult: 0
    decay_mult: 0
  }
  penlu_param {
    alpha_filler {
      type: "constant"
      value: 0.25
    }
    beta_filler {
      type: "constant"
      value: 1
    }
    eta_filler {
      type: "constant"
      value: 1
    }
  }
}
layer {
  name: "pool4"
  type: "Pooling"
  bottom: "penlu_cccp8"
  top: "pool4"
  pooling_param {
    pool: AVE
    kernel_size: 3
    stride: 2
  }
}
layer {
  name: "dropout4"
  type: "Dropout"
  bottom: "pool4"
  top: "dropout4"
  dropout_param {
    dropout_ratio: 0.5
  }
}
layer {
  name: "fc1"
  type: "InnerProduct"
  bottom: "dropout4"
  top: "fc1"
  param {
    lr_mult: 1
    decay_mult: 1
  }
  param {
    lr_mult: 2
    decay_mult: 0
  }
  inner_product_param {
    num_output: 100
    weight_filler {
      type: "gaussian"
      std: 0.01
    }
    bias_filler {
      type: "constant"
      value: 0
    }
  }
}
layer {
  name: "accuracy"
  type: "Accuracy"
  bottom: "fc1"
  bottom: "label"
  top: "accuracy"
}
layer {
  name: "loss"
  type: "SoftmaxWithLoss"
  bottom: "fc1"
  bottom: "label"
  top: "loss"
}
I1014 15:19:22.285825 16304 layer_factory.hpp:77] Creating layer cifar
I1014 15:19:22.285984 16304 db_lmdb.cpp:35] Opened lmdb /home/x306/caffe/xn/PENLU/data/cifar100/cifar100_train_lmdb
I1014 15:19:22.286025 16304 net.cpp:84] Creating Layer cifar
I1014 15:19:22.286031 16304 net.cpp:380] cifar -> data
I1014 15:19:22.286049 16304 net.cpp:380] cifar -> label
I1014 15:19:22.286077 16304 data_transformer.cpp:25] Loading mean file from: /home/x306/caffe/xn/PENLU/data/cifar100/mean.binaryproto
I1014 15:19:22.287506 16304 data_layer.cpp:45] output data size: 100,3,28,28
I1014 15:19:22.289786 16304 net.cpp:122] Setting up cifar
I1014 15:19:22.289810 16304 net.cpp:129] Top shape: 100 3 28 28 (235200)
I1014 15:19:22.289815 16304 net.cpp:129] Top shape: 100 (100)
I1014 15:19:22.289819 16304 net.cpp:137] Memory required for data: 941200
I1014 15:19:22.289826 16304 layer_factory.hpp:77] Creating layer label_cifar_1_split
I1014 15:19:22.289840 16304 net.cpp:84] Creating Layer label_cifar_1_split
I1014 15:19:22.289845 16304 net.cpp:406] label_cifar_1_split <- label
I1014 15:19:22.289854 16304 net.cpp:380] label_cifar_1_split -> label_cifar_1_split_0
I1014 15:19:22.289861 16304 net.cpp:380] label_cifar_1_split -> label_cifar_1_split_1
I1014 15:19:22.289901 16304 net.cpp:122] Setting up label_cifar_1_split
I1014 15:19:22.289907 16304 net.cpp:129] Top shape: 100 (100)
I1014 15:19:22.289928 16304 net.cpp:129] Top shape: 100 (100)
I1014 15:19:22.289932 16304 net.cpp:137] Memory required for data: 942000
I1014 15:19:22.289934 16304 layer_factory.hpp:77] Creating layer conv1
I1014 15:19:22.289947 16304 net.cpp:84] Creating Layer conv1
I1014 15:19:22.289950 16304 net.cpp:406] conv1 <- data
I1014 15:19:22.289955 16304 net.cpp:380] conv1 -> conv1
I1014 15:19:22.436837 16304 net.cpp:122] Setting up conv1
I1014 15:19:22.436872 16304 net.cpp:129] Top shape: 100 192 28 28 (15052800)
I1014 15:19:22.436887 16304 net.cpp:137] Memory required for data: 61153200
I1014 15:19:22.436903 16304 layer_factory.hpp:77] Creating layer penlu_conv1
I1014 15:19:22.436919 16304 net.cpp:84] Creating Layer penlu_conv1
I1014 15:19:22.436924 16304 net.cpp:406] penlu_conv1 <- conv1
I1014 15:19:22.436929 16304 net.cpp:380] penlu_conv1 -> penlu_conv1
I1014 15:19:22.437714 16304 net.cpp:122] Setting up penlu_conv1
I1014 15:19:22.437724 16304 net.cpp:129] Top shape: 100 192 28 28 (15052800)
I1014 15:19:22.437727 16304 net.cpp:137] Memory required for data: 121364400
I1014 15:19:22.437746 16304 layer_factory.hpp:77] Creating layer cccp1
I1014 15:19:22.437767 16304 net.cpp:84] Creating Layer cccp1
I1014 15:19:22.437769 16304 net.cpp:406] cccp1 <- penlu_conv1
I1014 15:19:22.437774 16304 net.cpp:380] cccp1 -> cccp1
I1014 15:19:22.439307 16304 net.cpp:122] Setting up cccp1
I1014 15:19:22.439318 16304 net.cpp:129] Top shape: 100 160 28 28 (12544000)
I1014 15:19:22.439332 16304 net.cpp:137] Memory required for data: 171540400
I1014 15:19:22.439337 16304 layer_factory.hpp:77] Creating layer penlu_cccp1
I1014 15:19:22.439358 16304 net.cpp:84] Creating Layer penlu_cccp1
I1014 15:19:22.439363 16304 net.cpp:406] penlu_cccp1 <- cccp1
I1014 15:19:22.439376 16304 net.cpp:380] penlu_cccp1 -> penlu_cccp1
I1014 15:19:22.439589 16304 net.cpp:122] Setting up penlu_cccp1
I1014 15:19:22.439596 16304 net.cpp:129] Top shape: 100 160 28 28 (12544000)
I1014 15:19:22.439599 16304 net.cpp:137] Memory required for data: 221716400
I1014 15:19:22.439615 16304 layer_factory.hpp:77] Creating layer cccp2
I1014 15:19:22.439640 16304 net.cpp:84] Creating Layer cccp2
I1014 15:19:22.439642 16304 net.cpp:406] cccp2 <- penlu_cccp1
I1014 15:19:22.439647 16304 net.cpp:380] cccp2 -> cccp2
I1014 15:19:22.440562 16304 net.cpp:122] Setting up cccp2
I1014 15:19:22.440572 16304 net.cpp:129] Top shape: 100 96 28 28 (7526400)
I1014 15:19:22.440600 16304 net.cpp:137] Memory required for data: 251822000
I1014 15:19:22.440609 16304 layer_factory.hpp:77] Creating layer penlu_cccp2
I1014 15:19:22.440620 16304 net.cpp:84] Creating Layer penlu_cccp2
I1014 15:19:22.440626 16304 net.cpp:406] penlu_cccp2 <- cccp2
I1014 15:19:22.440634 16304 net.cpp:380] penlu_cccp2 -> penlu_cccp2
I1014 15:19:22.440785 16304 net.cpp:122] Setting up penlu_cccp2
I1014 15:19:22.440793 16304 net.cpp:129] Top shape: 100 96 28 28 (7526400)
I1014 15:19:22.440796 16304 net.cpp:137] Memory required for data: 281927600
I1014 15:19:22.440801 16304 layer_factory.hpp:77] Creating layer pool1
I1014 15:19:22.440811 16304 net.cpp:84] Creating Layer pool1
I1014 15:19:22.440816 16304 net.cpp:406] pool1 <- penlu_cccp2
I1014 15:19:22.440822 16304 net.cpp:380] pool1 -> pool1
I1014 15:19:22.440982 16304 net.cpp:122] Setting up pool1
I1014 15:19:22.440992 16304 net.cpp:129] Top shape: 100 96 14 14 (1881600)
I1014 15:19:22.440997 16304 net.cpp:137] Memory required for data: 289454000
I1014 15:19:22.441002 16304 layer_factory.hpp:77] Creating layer dropout1
I1014 15:19:22.441010 16304 net.cpp:84] Creating Layer dropout1
I1014 15:19:22.441015 16304 net.cpp:406] dropout1 <- pool1
I1014 15:19:22.441023 16304 net.cpp:380] dropout1 -> dropout1
I1014 15:19:22.441056 16304 net.cpp:122] Setting up dropout1
I1014 15:19:22.441063 16304 net.cpp:129] Top shape: 100 96 14 14 (1881600)
I1014 15:19:22.441067 16304 net.cpp:137] Memory required for data: 296980400
I1014 15:19:22.441071 16304 layer_factory.hpp:77] Creating layer conv2
I1014 15:19:22.441081 16304 net.cpp:84] Creating Layer conv2
I1014 15:19:22.441083 16304 net.cpp:406] conv2 <- dropout1
I1014 15:19:22.441087 16304 net.cpp:380] conv2 -> conv2
I1014 15:19:22.444970 16304 net.cpp:122] Setting up conv2
I1014 15:19:22.444981 16304 net.cpp:129] Top shape: 100 192 14 14 (3763200)
I1014 15:19:22.444988 16304 net.cpp:137] Memory required for data: 312033200
I1014 15:19:22.444998 16304 layer_factory.hpp:77] Creating layer penlu_conv2
I1014 15:19:22.445008 16304 net.cpp:84] Creating Layer penlu_conv2
I1014 15:19:22.445013 16304 net.cpp:406] penlu_conv2 <- conv2
I1014 15:19:22.445019 16304 net.cpp:380] penlu_conv2 -> penlu_conv2
I1014 15:19:22.445169 16304 net.cpp:122] Setting up penlu_conv2
I1014 15:19:22.445176 16304 net.cpp:129] Top shape: 100 192 14 14 (3763200)
I1014 15:19:22.445179 16304 net.cpp:137] Memory required for data: 327086000
I1014 15:19:22.445194 16304 layer_factory.hpp:77] Creating layer cccp3
I1014 15:19:22.445202 16304 net.cpp:84] Creating Layer cccp3
I1014 15:19:22.445205 16304 net.cpp:406] cccp3 <- penlu_conv2
I1014 15:19:22.445209 16304 net.cpp:380] cccp3 -> cccp3
I1014 15:19:22.446239 16304 net.cpp:122] Setting up cccp3
I1014 15:19:22.446249 16304 net.cpp:129] Top shape: 100 192 14 14 (3763200)
I1014 15:19:22.446262 16304 net.cpp:137] Memory required for data: 342138800
I1014 15:19:22.446269 16304 layer_factory.hpp:77] Creating layer penlu_cccp3
I1014 15:19:22.446275 16304 net.cpp:84] Creating Layer penlu_cccp3
I1014 15:19:22.446280 16304 net.cpp:406] penlu_cccp3 <- cccp3
I1014 15:19:22.446285 16304 net.cpp:380] penlu_cccp3 -> penlu_cccp3
I1014 15:19:22.446420 16304 net.cpp:122] Setting up penlu_cccp3
I1014 15:19:22.446427 16304 net.cpp:129] Top shape: 100 192 14 14 (3763200)
I1014 15:19:22.446430 16304 net.cpp:137] Memory required for data: 357191600
I1014 15:19:22.446445 16304 layer_factory.hpp:77] Creating layer cccp4
I1014 15:19:22.446454 16304 net.cpp:84] Creating Layer cccp4
I1014 15:19:22.446456 16304 net.cpp:406] cccp4 <- penlu_cccp3
I1014 15:19:22.446460 16304 net.cpp:380] cccp4 -> cccp4
I1014 15:19:22.447484 16304 net.cpp:122] Setting up cccp4
I1014 15:19:22.447494 16304 net.cpp:129] Top shape: 100 192 14 14 (3763200)
I1014 15:19:22.447497 16304 net.cpp:137] Memory required for data: 372244400
I1014 15:19:22.447512 16304 layer_factory.hpp:77] Creating layer penlu_cccp4
I1014 15:19:22.447520 16304 net.cpp:84] Creating Layer penlu_cccp4
I1014 15:19:22.447523 16304 net.cpp:406] penlu_cccp4 <- cccp4
I1014 15:19:22.447527 16304 net.cpp:380] penlu_cccp4 -> penlu_cccp4
I1014 15:19:22.447695 16304 net.cpp:122] Setting up penlu_cccp4
I1014 15:19:22.447705 16304 net.cpp:129] Top shape: 100 192 14 14 (3763200)
I1014 15:19:22.447708 16304 net.cpp:137] Memory required for data: 387297200
I1014 15:19:22.447726 16304 layer_factory.hpp:77] Creating layer pool2
I1014 15:19:22.447732 16304 net.cpp:84] Creating Layer pool2
I1014 15:19:22.447736 16304 net.cpp:406] pool2 <- penlu_cccp4
I1014 15:19:22.447739 16304 net.cpp:380] pool2 -> pool2
I1014 15:19:22.447878 16304 net.cpp:122] Setting up pool2
I1014 15:19:22.447886 16304 net.cpp:129] Top shape: 100 192 7 7 (940800)
I1014 15:19:22.447891 16304 net.cpp:137] Memory required for data: 391060400
I1014 15:19:22.447906 16304 layer_factory.hpp:77] Creating layer dropout2
I1014 15:19:22.447913 16304 net.cpp:84] Creating Layer dropout2
I1014 15:19:22.447917 16304 net.cpp:406] dropout2 <- pool2
I1014 15:19:22.447923 16304 net.cpp:380] dropout2 -> dropout2
I1014 15:19:22.447948 16304 net.cpp:122] Setting up dropout2
I1014 15:19:22.447953 16304 net.cpp:129] Top shape: 100 192 7 7 (940800)
I1014 15:19:22.447957 16304 net.cpp:137] Memory required for data: 394823600
I1014 15:19:22.447959 16304 layer_factory.hpp:77] Creating layer conv3
I1014 15:19:22.447965 16304 net.cpp:84] Creating Layer conv3
I1014 15:19:22.447969 16304 net.cpp:406] conv3 <- dropout2
I1014 15:19:22.447973 16304 net.cpp:380] conv3 -> conv3
I1014 15:19:22.454218 16304 net.cpp:122] Setting up conv3
I1014 15:19:22.454231 16304 net.cpp:129] Top shape: 100 192 5 5 (480000)
I1014 15:19:22.454234 16304 net.cpp:137] Memory required for data: 396743600
I1014 15:19:22.454241 16304 layer_factory.hpp:77] Creating layer penlu_conv3
I1014 15:19:22.454248 16304 net.cpp:84] Creating Layer penlu_conv3
I1014 15:19:22.454252 16304 net.cpp:406] penlu_conv3 <- conv3
I1014 15:19:22.454257 16304 net.cpp:380] penlu_conv3 -> penlu_conv3
I1014 15:19:22.454377 16304 net.cpp:122] Setting up penlu_conv3
I1014 15:19:22.454383 16304 net.cpp:129] Top shape: 100 192 5 5 (480000)
I1014 15:19:22.454385 16304 net.cpp:137] Memory required for data: 398663600
I1014 15:19:22.454406 16304 layer_factory.hpp:77] Creating layer cccp5
I1014 15:19:22.454412 16304 net.cpp:84] Creating Layer cccp5
I1014 15:19:22.454416 16304 net.cpp:406] cccp5 <- penlu_conv3
I1014 15:19:22.454421 16304 net.cpp:380] cccp5 -> cccp5
I1014 15:19:22.455441 16304 net.cpp:122] Setting up cccp5
I1014 15:19:22.455451 16304 net.cpp:129] Top shape: 100 192 5 5 (480000)
I1014 15:19:22.455454 16304 net.cpp:137] Memory required for data: 400583600
I1014 15:19:22.455469 16304 layer_factory.hpp:77] Creating layer penlu_cccp5
I1014 15:19:22.455476 16304 net.cpp:84] Creating Layer penlu_cccp5
I1014 15:19:22.455479 16304 net.cpp:406] penlu_cccp5 <- cccp5
I1014 15:19:22.455485 16304 net.cpp:380] penlu_cccp5 -> penlu_cccp5
I1014 15:19:22.455610 16304 net.cpp:122] Setting up penlu_cccp5
I1014 15:19:22.455615 16304 net.cpp:129] Top shape: 100 192 5 5 (480000)
I1014 15:19:22.455618 16304 net.cpp:137] Memory required for data: 402503600
I1014 15:19:22.455633 16304 layer_factory.hpp:77] Creating layer cccp6
I1014 15:19:22.455641 16304 net.cpp:84] Creating Layer cccp6
I1014 15:19:22.455644 16304 net.cpp:406] cccp6 <- penlu_cccp5
I1014 15:19:22.455648 16304 net.cpp:380] cccp6 -> cccp6
I1014 15:19:22.456681 16304 net.cpp:122] Setting up cccp6
I1014 15:19:22.456691 16304 net.cpp:129] Top shape: 100 192 5 5 (480000)
I1014 15:19:22.456694 16304 net.cpp:137] Memory required for data: 404423600
I1014 15:19:22.456708 16304 layer_factory.hpp:77] Creating layer penlu_cccp6
I1014 15:19:22.456715 16304 net.cpp:84] Creating Layer penlu_cccp6
I1014 15:19:22.456718 16304 net.cpp:406] penlu_cccp6 <- cccp6
I1014 15:19:22.456724 16304 net.cpp:380] penlu_cccp6 -> penlu_cccp6
I1014 15:19:22.456848 16304 net.cpp:122] Setting up penlu_cccp6
I1014 15:19:22.456856 16304 net.cpp:129] Top shape: 100 192 5 5 (480000)
I1014 15:19:22.456861 16304 net.cpp:137] Memory required for data: 406343600
I1014 15:19:22.456879 16304 layer_factory.hpp:77] Creating layer pool3
I1014 15:19:22.456897 16304 net.cpp:84] Creating Layer pool3
I1014 15:19:22.456902 16304 net.cpp:406] pool3 <- penlu_cccp6
I1014 15:19:22.456908 16304 net.cpp:380] pool3 -> pool3
I1014 15:19:22.457049 16304 net.cpp:122] Setting up pool3
I1014 15:19:22.457057 16304 net.cpp:129] Top shape: 100 192 2 2 (76800)
I1014 15:19:22.457062 16304 net.cpp:137] Memory required for data: 406650800
I1014 15:19:22.457077 16304 layer_factory.hpp:77] Creating layer dropout3
I1014 15:19:22.457084 16304 net.cpp:84] Creating Layer dropout3
I1014 15:19:22.457089 16304 net.cpp:406] dropout3 <- pool3
I1014 15:19:22.457094 16304 net.cpp:380] dropout3 -> dropout3
I1014 15:19:22.457125 16304 net.cpp:122] Setting up dropout3
I1014 15:19:22.457131 16304 net.cpp:129] Top shape: 100 192 2 2 (76800)
I1014 15:19:22.457135 16304 net.cpp:137] Memory required for data: 406958000
I1014 15:19:22.457140 16304 layer_factory.hpp:77] Creating layer conv4
I1014 15:19:22.457150 16304 net.cpp:84] Creating Layer conv4
I1014 15:19:22.457154 16304 net.cpp:406] conv4 <- dropout3
I1014 15:19:22.457161 16304 net.cpp:380] conv4 -> conv4
I1014 15:19:22.462298 16304 net.cpp:122] Setting up conv4
I1014 15:19:22.462311 16304 net.cpp:129] Top shape: 100 384 2 2 (153600)
I1014 15:19:22.462313 16304 net.cpp:137] Memory required for data: 407572400
I1014 15:19:22.462319 16304 layer_factory.hpp:77] Creating layer penlu_conv4
I1014 15:19:22.462327 16304 net.cpp:84] Creating Layer penlu_conv4
I1014 15:19:22.462330 16304 net.cpp:406] penlu_conv4 <- conv4
I1014 15:19:22.462339 16304 net.cpp:380] penlu_conv4 -> penlu_conv4
I1014 15:19:22.462462 16304 net.cpp:122] Setting up penlu_conv4
I1014 15:19:22.462469 16304 net.cpp:129] Top shape: 100 384 2 2 (153600)
I1014 15:19:22.462474 16304 net.cpp:137] Memory required for data: 408186800
I1014 15:19:22.462491 16304 layer_factory.hpp:77] Creating layer cccp7
I1014 15:19:22.462502 16304 net.cpp:84] Creating Layer cccp7
I1014 15:19:22.462505 16304 net.cpp:406] cccp7 <- penlu_conv4
I1014 15:19:22.462512 16304 net.cpp:380] cccp7 -> cccp7
I1014 15:19:22.464077 16304 net.cpp:122] Setting up cccp7
I1014 15:19:22.464087 16304 net.cpp:129] Top shape: 100 384 2 2 (153600)
I1014 15:19:22.464093 16304 net.cpp:137] Memory required for data: 408801200
I1014 15:19:22.464110 16304 layer_factory.hpp:77] Creating layer penlu_cccp7
I1014 15:19:22.464120 16304 net.cpp:84] Creating Layer penlu_cccp7
I1014 15:19:22.464124 16304 net.cpp:406] penlu_cccp7 <- cccp7
I1014 15:19:22.464133 16304 net.cpp:380] penlu_cccp7 -> penlu_cccp7
I1014 15:19:22.464237 16304 net.cpp:122] Setting up penlu_cccp7
I1014 15:19:22.464243 16304 net.cpp:129] Top shape: 100 384 2 2 (153600)
I1014 15:19:22.464247 16304 net.cpp:137] Memory required for data: 409415600
I1014 15:19:22.464254 16304 layer_factory.hpp:77] Creating layer cccp8
I1014 15:19:22.464263 16304 net.cpp:84] Creating Layer cccp8
I1014 15:19:22.464267 16304 net.cpp:406] cccp8 <- penlu_cccp7
I1014 15:19:22.464274 16304 net.cpp:380] cccp8 -> cccp8
I1014 15:19:22.466666 16304 net.cpp:122] Setting up cccp8
I1014 15:19:22.466681 16304 net.cpp:129] Top shape: 100 384 2 2 (153600)
I1014 15:19:22.466683 16304 net.cpp:137] Memory required for data: 410030000
I1014 15:19:22.466691 16304 layer_factory.hpp:77] Creating layer penlu_cccp8
I1014 15:19:22.466703 16304 net.cpp:84] Creating Layer penlu_cccp8
I1014 15:19:22.466707 16304 net.cpp:406] penlu_cccp8 <- cccp8
I1014 15:19:22.466717 16304 net.cpp:380] penlu_cccp8 -> penlu_cccp8
I1014 15:19:22.466822 16304 net.cpp:122] Setting up penlu_cccp8
I1014 15:19:22.466828 16304 net.cpp:129] Top shape: 100 384 2 2 (153600)
I1014 15:19:22.466833 16304 net.cpp:137] Memory required for data: 410644400
I1014 15:19:22.466842 16304 layer_factory.hpp:77] Creating layer pool4
I1014 15:19:22.466852 16304 net.cpp:84] Creating Layer pool4
I1014 15:19:22.466856 16304 net.cpp:406] pool4 <- penlu_cccp8
I1014 15:19:22.466862 16304 net.cpp:380] pool4 -> pool4
I1014 15:19:22.466998 16304 net.cpp:122] Setting up pool4
I1014 15:19:22.467006 16304 net.cpp:129] Top shape: 100 384 1 1 (38400)
I1014 15:19:22.467011 16304 net.cpp:137] Memory required for data: 410798000
I1014 15:19:22.467025 16304 layer_factory.hpp:77] Creating layer dropout4
I1014 15:19:22.467033 16304 net.cpp:84] Creating Layer dropout4
I1014 15:19:22.467037 16304 net.cpp:406] dropout4 <- pool4
I1014 15:19:22.467054 16304 net.cpp:380] dropout4 -> dropout4
I1014 15:19:22.467084 16304 net.cpp:122] Setting up dropout4
I1014 15:19:22.467089 16304 net.cpp:129] Top shape: 100 384 1 1 (38400)
I1014 15:19:22.467093 16304 net.cpp:137] Memory required for data: 410951600
I1014 15:19:22.467095 16304 layer_factory.hpp:77] Creating layer fc1
I1014 15:19:22.467108 16304 net.cpp:84] Creating Layer fc1
I1014 15:19:22.467111 16304 net.cpp:406] fc1 <- dropout4
I1014 15:19:22.467116 16304 net.cpp:380] fc1 -> fc1
I1014 15:19:22.468083 16304 net.cpp:122] Setting up fc1
I1014 15:19:22.468091 16304 net.cpp:129] Top shape: 100 100 (10000)
I1014 15:19:22.468093 16304 net.cpp:137] Memory required for data: 410991600
I1014 15:19:22.468101 16304 layer_factory.hpp:77] Creating layer fc1_fc1_0_split
I1014 15:19:22.468106 16304 net.cpp:84] Creating Layer fc1_fc1_0_split
I1014 15:19:22.468111 16304 net.cpp:406] fc1_fc1_0_split <- fc1
I1014 15:19:22.468116 16304 net.cpp:380] fc1_fc1_0_split -> fc1_fc1_0_split_0
I1014 15:19:22.468120 16304 net.cpp:380] fc1_fc1_0_split -> fc1_fc1_0_split_1
I1014 15:19:22.468158 16304 net.cpp:122] Setting up fc1_fc1_0_split
I1014 15:19:22.468163 16304 net.cpp:129] Top shape: 100 100 (10000)
I1014 15:19:22.468175 16304 net.cpp:129] Top shape: 100 100 (10000)
I1014 15:19:22.468178 16304 net.cpp:137] Memory required for data: 411071600
I1014 15:19:22.468180 16304 layer_factory.hpp:77] Creating layer accuracy
I1014 15:19:22.468185 16304 net.cpp:84] Creating Layer accuracy
I1014 15:19:22.468190 16304 net.cpp:406] accuracy <- fc1_fc1_0_split_0
I1014 15:19:22.468196 16304 net.cpp:406] accuracy <- label_cifar_1_split_0
I1014 15:19:22.468200 16304 net.cpp:380] accuracy -> accuracy
…
