…
I1015 11:15:04.170186 18065 net.cpp:51] Initializing net from parameters: 
name: "CIFAR100_full"
state {
  phase: TRAIN
  level: 0
  stage: ""
}
layer {
  name: "cifar"
  type: "Data"
  top: "data"
  top: "label"
  include {
    phase: TRAIN
  }
  transform_param {
    mirror: true
    crop_size: 28
    mean_file: "/home/x306/caffe/xn/PENLU/data/cifar100/mean.binaryproto"
  }
  data_param {
    source: "/home/x306/caffe/xn/PENLU/data/cifar100/cifar100_train_lmdb"
    batch_size: 100
    backend: LMDB
  }
  image_data_param {
    shuffle: true
  }
}
layer {
  name: "conv1"
  type: "Convolution"
  bottom: "data"
  top: "conv1"
  param {
    lr_mult: 1
    decay_mult: 1
  }
  param {
    lr_mult: 2
    decay_mult: 0
  }
  convolution_param {
    num_output: 192
    pad: 2
    kernel_size: 5
    weight_filler {
      type: "xavier"
    }
    bias_filler {
      type: "constant"
      value: 0
    }
  }
}
layer {
  name: "penlu_conv1"
  type: "PENLU"
  bottom: "conv1"
  top: "penlu_conv1"
  param {
    lr_mult: 2
    decay_mult: 2
  }
  param {
    lr_mult: 2
    decay_mult: 2
  }
  param {
    lr_mult: 0
    decay_mult: 0
  }
  penlu_param {
    alpha_filler {
      type: "constant"
      value: 1
    }
    beta_filler {
      type: "constant"
      value: 1
    }
    eta_filler {
      type: "constant"
      value: 1
    }
  }
}
layer {
  name: "cccp1"
  type: "Convolution"
  bottom: "penlu_conv1"
  top: "cccp1"
  param {
    lr_mult: 1
    decay_mult: 1
  }
  param {
    lr_mult: 2
    decay_mult: 0
  }
  convolution_param {
    num_output: 160
    kernel_size: 1
    weight_filler {
      type: "xavier"
    }
    bias_filler {
      type: "constant"
      value: 0
    }
  }
}
layer {
  name: "penlu_cccp1"
  type: "PENLU"
  bottom: "cccp1"
  top: "penlu_cccp1"
  param {
    lr_mult: 2
    decay_mult: 2
  }
  param {
    lr_mult: 2
    decay_mult: 2
  }
  param {
    lr_mult: 0
    decay_mult: 0
  }
  penlu_param {
    alpha_filler {
      type: "constant"
      value: 1
    }
    beta_filler {
      type: "constant"
      value: 1
    }
    eta_filler {
      type: "constant"
      value: 1
    }
  }
}
layer {
  name: "cccp2"
  type: "Convolution"
  bottom: "penlu_cccp1"
  top: "cccp2"
  param {
    lr_mult: 1
    decay_mult: 1
  }
  param {
    lr_mult: 2
    decay_mult: 0
  }
  convolution_param {
    num_output: 96
    kernel_size: 1
    weight_filler {
      type: "xavier"
    }
    bias_filler {
      type: "constant"
      value: 0
    }
  }
}
layer {
  name: "penlu_cccp2"
  type: "PENLU"
  bottom: "cccp2"
  top: "penlu_cccp2"
  param {
    lr_mult: 2
    decay_mult: 2
  }
  param {
    lr_mult: 2
    decay_mult: 2
  }
  param {
    lr_mult: 0
    decay_mult: 0
  }
  penlu_param {
    alpha_filler {
      type: "constant"
      value: 1
    }
    beta_filler {
      type: "constant"
      value: 1
    }
    eta_filler {
      type: "constant"
      value: 1
    }
  }
}
layer {
  name: "pool1"
  type: "Pooling"
  bottom: "penlu_cccp2"
  top: "pool1"
  pooling_param {
    pool: AVE
    kernel_size: 3
    stride: 2
  }
}
layer {
  name: "dropout1"
  type: "Dropout"
  bottom: "pool1"
  top: "dropout1"
  dropout_param {
    dropout_ratio: 0.5
  }
}
layer {
  name: "conv2"
  type: "Convolution"
  bottom: "dropout1"
  top: "conv2"
  param {
    lr_mult: 1
    decay_mult: 1
  }
  param {
    lr_mult: 2
    decay_mult: 0
  }
  convolution_param {
    num_output: 192
    pad: 2
    kernel_size: 5
    weight_filler {
      type: "xavier"
    }
    bias_filler {
      type: "constant"
      value: 0
    }
  }
}
layer {
  name: "penlu_conv2"
  type: "PENLU"
  bottom: "conv2"
  top: "penlu_conv2"
  param {
    lr_mult: 2
    decay_mult: 2
  }
  param {
    lr_mult: 2
    decay_mult: 2
  }
  param {
    lr_mult: 0
    decay_mult: 0
  }
  penlu_param {
    alpha_filler {
      type: "constant"
      value: 1
    }
    beta_filler {
      type: "constant"
      value: 1
    }
    eta_filler {
      type: "constant"
      value: 1
    }
  }
}
layer {
  name: "cccp3"
  type: "Convolution"
  bottom: "penlu_conv2"
  top: "cccp3"
  param {
    lr_mult: 1
    decay_mult: 1
  }
  param {
    lr_mult: 2
    decay_mult: 0
  }
  convolution_param {
    num_output: 192
    kernel_size: 1
    weight_filler {
      type: "xavier"
    }
    bias_filler {
      type: "constant"
      value: 0
    }
  }
}
layer {
  name: "penlu_cccp3"
  type: "PENLU"
  bottom: "cccp3"
  top: "penlu_cccp3"
  param {
    lr_mult: 2
    decay_mult: 2
  }
  param {
    lr_mult: 2
    decay_mult: 2
  }
  param {
    lr_mult: 0
    decay_mult: 0
  }
  penlu_param {
    alpha_filler {
      type: "constant"
      value: 1
    }
    beta_filler {
      type: "constant"
      value: 1
    }
    eta_filler {
      type: "constant"
      value: 1
    }
  }
}
layer {
  name: "cccp4"
  type: "Convolution"
  bottom: "penlu_cccp3"
  top: "cccp4"
  param {
    lr_mult: 1
    decay_mult: 1
  }
  param {
    lr_mult: 2
    decay_mult: 0
  }
  convolution_param {
    num_output: 192
    kernel_size: 1
    weight_filler {
      type: "xavier"
    }
    bias_filler {
      type: "constant"
      value: 0
    }
  }
}
layer {
  name: "penlu_cccp4"
  type: "PENLU"
  bottom: "cccp4"
  top: "penlu_cccp4"
  param {
    lr_mult: 2
    decay_mult: 2
  }
  param {
    lr_mult: 2
    decay_mult: 2
  }
  param {
    lr_mult: 0
    decay_mult: 0
  }
  penlu_param {
    alpha_filler {
      type: "constant"
      value: 1
    }
    beta_filler {
      type: "constant"
      value: 1
    }
    eta_filler {
      type: "constant"
      value: 1
    }
  }
}
layer {
  name: "pool2"
  type: "Pooling"
  bottom: "penlu_cccp4"
  top: "pool2"
  pooling_param {
    pool: AVE
    kernel_size: 3
    stride: 2
  }
}
layer {
  name: "dropout2"
  type: "Dropout"
  bottom: "pool2"
  top: "dropout2"
  dropout_param {
    dropout_ratio: 0.5
  }
}
layer {
  name: "conv3"
  type: "Convolution"
  bottom: "dropout2"
  top: "conv3"
  param {
    lr_mult: 1
    decay_mult: 1
  }
  param {
    lr_mult: 2
    decay_mult: 0
  }
  convolution_param {
    num_output: 192
    pad: 1
    kernel_size: 5
    weight_filler {
      type: "xavier"
    }
    bias_filler {
      type: "constant"
      value: 0
    }
  }
}
layer {
  name: "penlu_conv3"
  type: "PENLU"
  bottom: "conv3"
  top: "penlu_conv3"
  param {
    lr_mult: 2
    decay_mult: 2
  }
  param {
    lr_mult: 2
    decay_mult: 2
  }
  param {
    lr_mult: 0
    decay_mult: 0
  }
  penlu_param {
    alpha_filler {
      type: "constant"
      value: 1
    }
    beta_filler {
      type: "constant"
      value: 1
    }
    eta_filler {
      type: "constant"
      value: 1
    }
  }
}
layer {
  name: "cccp5"
  type: "Convolution"
  bottom: "penlu_conv3"
  top: "cccp5"
  param {
    lr_mult: 1
    decay_mult: 1
  }
  param {
    lr_mult: 2
    decay_mult: 0
  }
  convolution_param {
    num_output: 192
    kernel_size: 1
    weight_filler {
      type: "xavier"
    }
    bias_filler {
      type: "constant"
      value: 0
    }
  }
}
layer {
  name: "penlu_cccp5"
  type: "PENLU"
  bottom: "cccp5"
  top: "penlu_cccp5"
  param {
    lr_mult: 2
    decay_mult: 2
  }
  param {
    lr_mult: 2
    decay_mult: 2
  }
  param {
    lr_mult: 0
    decay_mult: 0
  }
  penlu_param {
    alpha_filler {
      type: "constant"
      value: 1
    }
    beta_filler {
      type: "constant"
      value: 1
    }
    eta_filler {
      type: "constant"
      value: 1
    }
  }
}
layer {
  name: "cccp6"
  type: "Convolution"
  bottom: "penlu_cccp5"
  top: "cccp6"
  param {
    lr_mult: 1
    decay_mult: 1
  }
  param {
    lr_mult: 2
    decay_mult: 0
  }
  convolution_param {
    num_output: 192
    kernel_size: 1
    weight_filler {
      type: "xavier"
    }
    bias_filler {
      type: "constant"
      value: 0
    }
  }
}
layer {
  name: "penlu_cccp6"
  type: "PENLU"
  bottom: "cccp6"
  top: "penlu_cccp6"
  param {
    lr_mult: 2
    decay_mult: 2
  }
  param {
    lr_mult: 2
    decay_mult: 2
  }
  param {
    lr_mult: 0
    decay_mult: 0
  }
  penlu_param {
    alpha_filler {
      type: "constant"
      value: 1
    }
    beta_filler {
      type: "constant"
      value: 1
    }
    eta_filler {
      type: "constant"
      value: 1
    }
  }
}
layer {
  name: "pool3"
  type: "Pooling"
  bottom: "penlu_cccp6"
  top: "pool3"
  pooling_param {
    pool: AVE
    kernel_size: 3
    stride: 2
  }
}
layer {
  name: "dropout3"
  type: "Dropout"
  bottom: "pool3"
  top: "dropout3"
  dropout_param {
    dropout_ratio: 0.5
  }
}
layer {
  name: "conv4"
  type: "Convolution"
  bottom: "dropout3"
  top: "conv4"
  param {
    lr_mult: 1
    decay_mult: 1
  }
  param {
    lr_mult: 2
    decay_mult: 0
  }
  convolution_param {
    num_output: 384
    pad: 1
    kernel_size: 3
    weight_filler {
      type: "xavier"
    }
    bias_filler {
      type: "constant"
      value: 0
    }
  }
}
layer {
  name: "penlu_conv4"
  type: "PENLU"
  bottom: "conv4"
  top: "penlu_conv4"
  param {
    lr_mult: 2
    decay_mult: 2
  }
  param {
    lr_mult: 2
    decay_mult: 2
  }
  param {
    lr_mult: 0
    decay_mult: 0
  }
  penlu_param {
    alpha_filler {
      type: "constant"
      value: 1
    }
    beta_filler {
      type: "constant"
      value: 1
    }
    eta_filler {
      type: "constant"
      value: 1
    }
  }
}
layer {
  name: "cccp7"
  type: "Convolution"
  bottom: "penlu_conv4"
  top: "cccp7"
  param {
    lr_mult: 1
    decay_mult: 1
  }
  param {
    lr_mult: 2
    decay_mult: 0
  }
  convolution_param {
    num_output: 384
    kernel_size: 1
    weight_filler {
      type: "xavier"
    }
    bias_filler {
      type: "constant"
      value: 0
    }
  }
}
layer {
  name: "penlu_cccp7"
  type: "PENLU"
  bottom: "cccp7"
  top: "penlu_cccp7"
  param {
    lr_mult: 2
    decay_mult: 2
  }
  param {
    lr_mult: 2
    decay_mult: 2
  }
  param {
    lr_mult: 0
    decay_mult: 0
  }
  penlu_param {
    alpha_filler {
      type: "constant"
      value: 1
    }
    beta_filler {
      type: "constant"
      value: 1
    }
    eta_filler {
      type: "constant"
      value: 1
    }
  }
}
layer {
  name: "cccp8"
  type: "Convolution"
  bottom: "penlu_cccp7"
  top: "cccp8"
  param {
    lr_mult: 1
    decay_mult: 1
  }
  param {
    lr_mult: 2
    decay_mult: 0
  }
  convolution_param {
    num_output: 384
    kernel_size: 1
    weight_filler {
      type: "xavier"
    }
    bias_filler {
      type: "constant"
      value: 0
    }
  }
}
layer {
  name: "penlu_cccp8"
  type: "PENLU"
  bottom: "cccp8"
  top: "penlu_cccp8"
  param {
    lr_mult: 2
    decay_mult: 2
  }
  param {
    lr_mult: 2
    decay_mult: 2
  }
  param {
    lr_mult: 0
    decay_mult: 0
  }
  penlu_param {
    alpha_filler {
      type: "constant"
      value: 1
    }
    beta_filler {
      type: "constant"
      value: 1
    }
    eta_filler {
      type: "constant"
      value: 1
    }
  }
}
layer {
  name: "pool4"
  type: "Pooling"
  bottom: "penlu_cccp8"
  top: "pool4"
  pooling_param {
    pool: AVE
    kernel_size: 3
    stride: 2
  }
}
layer {
  name: "dropout4"
  type: "Dropout"
  bottom: "pool4"
  top: "dropout4"
  dropout_param {
    dropout_ratio: 0.5
  }
}
layer {
  name: "fc1"
  type: "InnerProduct"
  bottom: "dropout4"
  top: "fc1"
  param {
    lr_mult: 1
    decay_mult: 1
  }
  param {
    lr_mult: 2
    decay_mult: 0
  }
  inner_product_param {
    num_output: 100
    weight_filler {
      type: "gaussian"
      std: 0.01
    }
    bias_filler {
      type: "constant"
      value: 0
    }
  }
}
layer {
  name: "accuracy"
  type: "Accuracy"
  bottom: "fc1"
  bottom: "label"
  top: "accuracy"
}
layer {
  name: "loss"
  type: "SoftmaxWithLoss"
  bottom: "fc1"
  bottom: "label"
  top: "loss"
}
I1015 11:15:04.170336 18065 layer_factory.hpp:77] Creating layer cifar
I1015 11:15:04.170413 18065 db_lmdb.cpp:35] Opened lmdb /home/x306/caffe/xn/PENLU/data/cifar100/cifar100_train_lmdb
I1015 11:15:04.170433 18065 net.cpp:84] Creating Layer cifar
I1015 11:15:04.170437 18065 net.cpp:380] cifar -> data
I1015 11:15:04.170454 18065 net.cpp:380] cifar -> label
I1015 11:15:04.170462 18065 data_transformer.cpp:25] Loading mean file from: /home/x306/caffe/xn/PENLU/data/cifar100/mean.binaryproto
I1015 11:15:04.171900 18065 data_layer.cpp:45] output data size: 100,3,28,28
I1015 11:15:04.174211 18065 net.cpp:122] Setting up cifar
I1015 11:15:04.174235 18065 net.cpp:129] Top shape: 100 3 28 28 (235200)
I1015 11:15:04.174240 18065 net.cpp:129] Top shape: 100 (100)
I1015 11:15:04.174242 18065 net.cpp:137] Memory required for data: 941200
I1015 11:15:04.174248 18065 layer_factory.hpp:77] Creating layer label_cifar_1_split
I1015 11:15:04.174259 18065 net.cpp:84] Creating Layer label_cifar_1_split
I1015 11:15:04.174264 18065 net.cpp:406] label_cifar_1_split <- label
I1015 11:15:04.174273 18065 net.cpp:380] label_cifar_1_split -> label_cifar_1_split_0
I1015 11:15:04.174280 18065 net.cpp:380] label_cifar_1_split -> label_cifar_1_split_1
I1015 11:15:04.174324 18065 net.cpp:122] Setting up label_cifar_1_split
I1015 11:15:04.174329 18065 net.cpp:129] Top shape: 100 (100)
I1015 11:15:04.174341 18065 net.cpp:129] Top shape: 100 (100)
I1015 11:15:04.174343 18065 net.cpp:137] Memory required for data: 942000
I1015 11:15:04.174345 18065 layer_factory.hpp:77] Creating layer conv1
I1015 11:15:04.174356 18065 net.cpp:84] Creating Layer conv1
I1015 11:15:04.174360 18065 net.cpp:406] conv1 <- data
I1015 11:15:04.174365 18065 net.cpp:380] conv1 -> conv1
I1015 11:15:04.321292 18065 net.cpp:122] Setting up conv1
I1015 11:15:04.321317 18065 net.cpp:129] Top shape: 100 192 28 28 (15052800)
I1015 11:15:04.321321 18065 net.cpp:137] Memory required for data: 61153200
I1015 11:15:04.321334 18065 layer_factory.hpp:77] Creating layer penlu_conv1
I1015 11:15:04.321360 18065 net.cpp:84] Creating Layer penlu_conv1
I1015 11:15:04.321375 18065 net.cpp:406] penlu_conv1 <- conv1
I1015 11:15:04.321384 18065 net.cpp:380] penlu_conv1 -> penlu_conv1
I1015 11:15:04.322106 18065 net.cpp:122] Setting up penlu_conv1
I1015 11:15:04.322118 18065 net.cpp:129] Top shape: 100 192 28 28 (15052800)
I1015 11:15:04.322120 18065 net.cpp:137] Memory required for data: 121364400
I1015 11:15:04.322127 18065 layer_factory.hpp:77] Creating layer cccp1
I1015 11:15:04.322146 18065 net.cpp:84] Creating Layer cccp1
I1015 11:15:04.322150 18065 net.cpp:406] cccp1 <- penlu_conv1
I1015 11:15:04.322156 18065 net.cpp:380] cccp1 -> cccp1
I1015 11:15:04.323673 18065 net.cpp:122] Setting up cccp1
I1015 11:15:04.323683 18065 net.cpp:129] Top shape: 100 160 28 28 (12544000)
I1015 11:15:04.323685 18065 net.cpp:137] Memory required for data: 171540400
I1015 11:15:04.323690 18065 layer_factory.hpp:77] Creating layer penlu_cccp1
I1015 11:15:04.323698 18065 net.cpp:84] Creating Layer penlu_cccp1
I1015 11:15:04.323699 18065 net.cpp:406] penlu_cccp1 <- cccp1
I1015 11:15:04.323714 18065 net.cpp:380] penlu_cccp1 -> penlu_cccp1
I1015 11:15:04.323900 18065 net.cpp:122] Setting up penlu_cccp1
I1015 11:15:04.323909 18065 net.cpp:129] Top shape: 100 160 28 28 (12544000)
I1015 11:15:04.323911 18065 net.cpp:137] Memory required for data: 221716400
I1015 11:15:04.323917 18065 layer_factory.hpp:77] Creating layer cccp2
I1015 11:15:04.323925 18065 net.cpp:84] Creating Layer cccp2
I1015 11:15:04.323937 18065 net.cpp:406] cccp2 <- penlu_cccp1
I1015 11:15:04.323943 18065 net.cpp:380] cccp2 -> cccp2
I1015 11:15:04.324882 18065 net.cpp:122] Setting up cccp2
I1015 11:15:04.324892 18065 net.cpp:129] Top shape: 100 96 28 28 (7526400)
I1015 11:15:04.324909 18065 net.cpp:137] Memory required for data: 251822000
I1015 11:15:04.324947 18065 layer_factory.hpp:77] Creating layer penlu_cccp2
I1015 11:15:04.324967 18065 net.cpp:84] Creating Layer penlu_cccp2
I1015 11:15:04.324971 18065 net.cpp:406] penlu_cccp2 <- cccp2
I1015 11:15:04.324988 18065 net.cpp:380] penlu_cccp2 -> penlu_cccp2
I1015 11:15:04.325157 18065 net.cpp:122] Setting up penlu_cccp2
I1015 11:15:04.325165 18065 net.cpp:129] Top shape: 100 96 28 28 (7526400)
I1015 11:15:04.325182 18065 net.cpp:137] Memory required for data: 281927600
I1015 11:15:04.325186 18065 layer_factory.hpp:77] Creating layer pool1
I1015 11:15:04.325206 18065 net.cpp:84] Creating Layer pool1
I1015 11:15:04.325212 18065 net.cpp:406] pool1 <- penlu_cccp2
I1015 11:15:04.325229 18065 net.cpp:380] pool1 -> pool1
I1015 11:15:04.325381 18065 net.cpp:122] Setting up pool1
I1015 11:15:04.325388 18065 net.cpp:129] Top shape: 100 96 14 14 (1881600)
I1015 11:15:04.325393 18065 net.cpp:137] Memory required for data: 289454000
I1015 11:15:04.325398 18065 layer_factory.hpp:77] Creating layer dropout1
I1015 11:15:04.325417 18065 net.cpp:84] Creating Layer dropout1
I1015 11:15:04.325423 18065 net.cpp:406] dropout1 <- pool1
I1015 11:15:04.325440 18065 net.cpp:380] dropout1 -> dropout1
I1015 11:15:04.325479 18065 net.cpp:122] Setting up dropout1
I1015 11:15:04.325485 18065 net.cpp:129] Top shape: 100 96 14 14 (1881600)
I1015 11:15:04.325489 18065 net.cpp:137] Memory required for data: 296980400
I1015 11:15:04.325493 18065 layer_factory.hpp:77] Creating layer conv2
I1015 11:15:04.325505 18065 net.cpp:84] Creating Layer conv2
I1015 11:15:04.325510 18065 net.cpp:406] conv2 <- dropout1
I1015 11:15:04.325520 18065 net.cpp:380] conv2 -> conv2
I1015 11:15:04.329429 18065 net.cpp:122] Setting up conv2
I1015 11:15:04.329440 18065 net.cpp:129] Top shape: 100 192 14 14 (3763200)
I1015 11:15:04.329445 18065 net.cpp:137] Memory required for data: 312033200
I1015 11:15:04.329457 18065 layer_factory.hpp:77] Creating layer penlu_conv2
I1015 11:15:04.329468 18065 net.cpp:84] Creating Layer penlu_conv2
I1015 11:15:04.329473 18065 net.cpp:406] penlu_conv2 <- conv2
I1015 11:15:04.329480 18065 net.cpp:380] penlu_conv2 -> penlu_conv2
I1015 11:15:04.329609 18065 net.cpp:122] Setting up penlu_conv2
I1015 11:15:04.329615 18065 net.cpp:129] Top shape: 100 192 14 14 (3763200)
I1015 11:15:04.329618 18065 net.cpp:137] Memory required for data: 327086000
I1015 11:15:04.329623 18065 layer_factory.hpp:77] Creating layer cccp3
I1015 11:15:04.329630 18065 net.cpp:84] Creating Layer cccp3
I1015 11:15:04.329633 18065 net.cpp:406] cccp3 <- penlu_conv2
I1015 11:15:04.329638 18065 net.cpp:380] cccp3 -> cccp3
I1015 11:15:04.330659 18065 net.cpp:122] Setting up cccp3
I1015 11:15:04.330669 18065 net.cpp:129] Top shape: 100 192 14 14 (3763200)
I1015 11:15:04.330673 18065 net.cpp:137] Memory required for data: 342138800
I1015 11:15:04.330678 18065 layer_factory.hpp:77] Creating layer penlu_cccp3
I1015 11:15:04.330684 18065 net.cpp:84] Creating Layer penlu_cccp3
I1015 11:15:04.330687 18065 net.cpp:406] penlu_cccp3 <- cccp3
I1015 11:15:04.330693 18065 net.cpp:380] penlu_cccp3 -> penlu_cccp3
I1015 11:15:04.330812 18065 net.cpp:122] Setting up penlu_cccp3
I1015 11:15:04.330818 18065 net.cpp:129] Top shape: 100 192 14 14 (3763200)
I1015 11:15:04.330821 18065 net.cpp:137] Memory required for data: 357191600
I1015 11:15:04.330826 18065 layer_factory.hpp:77] Creating layer cccp4
I1015 11:15:04.330832 18065 net.cpp:84] Creating Layer cccp4
I1015 11:15:04.330835 18065 net.cpp:406] cccp4 <- penlu_cccp3
I1015 11:15:04.330839 18065 net.cpp:380] cccp4 -> cccp4
I1015 11:15:04.331931 18065 net.cpp:122] Setting up cccp4
I1015 11:15:04.331945 18065 net.cpp:129] Top shape: 100 192 14 14 (3763200)
I1015 11:15:04.331951 18065 net.cpp:137] Memory required for data: 372244400
I1015 11:15:04.331959 18065 layer_factory.hpp:77] Creating layer penlu_cccp4
I1015 11:15:04.331969 18065 net.cpp:84] Creating Layer penlu_cccp4
I1015 11:15:04.331974 18065 net.cpp:406] penlu_cccp4 <- cccp4
I1015 11:15:04.331982 18065 net.cpp:380] penlu_cccp4 -> penlu_cccp4
I1015 11:15:04.332165 18065 net.cpp:122] Setting up penlu_cccp4
I1015 11:15:04.332173 18065 net.cpp:129] Top shape: 100 192 14 14 (3763200)
I1015 11:15:04.332178 18065 net.cpp:137] Memory required for data: 387297200
I1015 11:15:04.332186 18065 layer_factory.hpp:77] Creating layer pool2
I1015 11:15:04.332195 18065 net.cpp:84] Creating Layer pool2
I1015 11:15:04.332200 18065 net.cpp:406] pool2 <- penlu_cccp4
I1015 11:15:04.332206 18065 net.cpp:380] pool2 -> pool2
I1015 11:15:04.332376 18065 net.cpp:122] Setting up pool2
I1015 11:15:04.332387 18065 net.cpp:129] Top shape: 100 192 7 7 (940800)
I1015 11:15:04.332393 18065 net.cpp:137] Memory required for data: 391060400
I1015 11:15:04.332398 18065 layer_factory.hpp:77] Creating layer dropout2
I1015 11:15:04.332406 18065 net.cpp:84] Creating Layer dropout2
I1015 11:15:04.332412 18065 net.cpp:406] dropout2 <- pool2
I1015 11:15:04.332418 18065 net.cpp:380] dropout2 -> dropout2
I1015 11:15:04.332454 18065 net.cpp:122] Setting up dropout2
I1015 11:15:04.332464 18065 net.cpp:129] Top shape: 100 192 7 7 (940800)
I1015 11:15:04.332471 18065 net.cpp:137] Memory required for data: 394823600
I1015 11:15:04.332478 18065 layer_factory.hpp:77] Creating layer conv3
I1015 11:15:04.332487 18065 net.cpp:84] Creating Layer conv3
I1015 11:15:04.332492 18065 net.cpp:406] conv3 <- dropout2
I1015 11:15:04.332499 18065 net.cpp:380] conv3 -> conv3
I1015 11:15:04.339062 18065 net.cpp:122] Setting up conv3
I1015 11:15:04.339081 18065 net.cpp:129] Top shape: 100 192 5 5 (480000)
I1015 11:15:04.339084 18065 net.cpp:137] Memory required for data: 396743600
I1015 11:15:04.339090 18065 layer_factory.hpp:77] Creating layer penlu_conv3
I1015 11:15:04.339109 18065 net.cpp:84] Creating Layer penlu_conv3
I1015 11:15:04.339114 18065 net.cpp:406] penlu_conv3 <- conv3
I1015 11:15:04.339119 18065 net.cpp:380] penlu_conv3 -> penlu_conv3
I1015 11:15:04.339233 18065 net.cpp:122] Setting up penlu_conv3
I1015 11:15:04.339238 18065 net.cpp:129] Top shape: 100 192 5 5 (480000)
I1015 11:15:04.339241 18065 net.cpp:137] Memory required for data: 398663600
I1015 11:15:04.339249 18065 layer_factory.hpp:77] Creating layer cccp5
I1015 11:15:04.339257 18065 net.cpp:84] Creating Layer cccp5
I1015 11:15:04.339270 18065 net.cpp:406] cccp5 <- penlu_conv3
I1015 11:15:04.339274 18065 net.cpp:380] cccp5 -> cccp5
I1015 11:15:04.340263 18065 net.cpp:122] Setting up cccp5
I1015 11:15:04.340273 18065 net.cpp:129] Top shape: 100 192 5 5 (480000)
I1015 11:15:04.340286 18065 net.cpp:137] Memory required for data: 400583600
I1015 11:15:04.340291 18065 layer_factory.hpp:77] Creating layer penlu_cccp5
I1015 11:15:04.340297 18065 net.cpp:84] Creating Layer penlu_cccp5
I1015 11:15:04.340311 18065 net.cpp:406] penlu_cccp5 <- cccp5
I1015 11:15:04.340317 18065 net.cpp:380] penlu_cccp5 -> penlu_cccp5
I1015 11:15:04.340440 18065 net.cpp:122] Setting up penlu_cccp5
I1015 11:15:04.340445 18065 net.cpp:129] Top shape: 100 192 5 5 (480000)
I1015 11:15:04.340457 18065 net.cpp:137] Memory required for data: 402503600
I1015 11:15:04.340461 18065 layer_factory.hpp:77] Creating layer cccp6
I1015 11:15:04.340467 18065 net.cpp:84] Creating Layer cccp6
I1015 11:15:04.340481 18065 net.cpp:406] cccp6 <- penlu_cccp5
I1015 11:15:04.340486 18065 net.cpp:380] cccp6 -> cccp6
I1015 11:15:04.341473 18065 net.cpp:122] Setting up cccp6
I1015 11:15:04.341483 18065 net.cpp:129] Top shape: 100 192 5 5 (480000)
I1015 11:15:04.341497 18065 net.cpp:137] Memory required for data: 404423600
I1015 11:15:04.341501 18065 layer_factory.hpp:77] Creating layer penlu_cccp6
I1015 11:15:04.341507 18065 net.cpp:84] Creating Layer penlu_cccp6
I1015 11:15:04.341524 18065 net.cpp:406] penlu_cccp6 <- cccp6
I1015 11:15:04.341529 18065 net.cpp:380] penlu_cccp6 -> penlu_cccp6
I1015 11:15:04.341660 18065 net.cpp:122] Setting up penlu_cccp6
I1015 11:15:04.341666 18065 net.cpp:129] Top shape: 100 192 5 5 (480000)
I1015 11:15:04.341680 18065 net.cpp:137] Memory required for data: 406343600
I1015 11:15:04.341684 18065 layer_factory.hpp:77] Creating layer pool3
I1015 11:15:04.341691 18065 net.cpp:84] Creating Layer pool3
I1015 11:15:04.341706 18065 net.cpp:406] pool3 <- penlu_cccp6
I1015 11:15:04.341720 18065 net.cpp:380] pool3 -> pool3
I1015 11:15:04.341861 18065 net.cpp:122] Setting up pool3
I1015 11:15:04.341868 18065 net.cpp:129] Top shape: 100 192 2 2 (76800)
I1015 11:15:04.341871 18065 net.cpp:137] Memory required for data: 406650800
I1015 11:15:04.341873 18065 layer_factory.hpp:77] Creating layer dropout3
I1015 11:15:04.341877 18065 net.cpp:84] Creating Layer dropout3
I1015 11:15:04.341881 18065 net.cpp:406] dropout3 <- pool3
I1015 11:15:04.341895 18065 net.cpp:380] dropout3 -> dropout3
I1015 11:15:04.341933 18065 net.cpp:122] Setting up dropout3
I1015 11:15:04.341949 18065 net.cpp:129] Top shape: 100 192 2 2 (76800)
I1015 11:15:04.341951 18065 net.cpp:137] Memory required for data: 406958000
I1015 11:15:04.341962 18065 layer_factory.hpp:77] Creating layer conv4
I1015 11:15:04.341969 18065 net.cpp:84] Creating Layer conv4
I1015 11:15:04.341971 18065 net.cpp:406] conv4 <- dropout3
I1015 11:15:04.341976 18065 net.cpp:380] conv4 -> conv4
I1015 11:15:04.346954 18065 net.cpp:122] Setting up conv4
I1015 11:15:04.346966 18065 net.cpp:129] Top shape: 100 384 2 2 (153600)
I1015 11:15:04.346969 18065 net.cpp:137] Memory required for data: 407572400
I1015 11:15:04.346974 18065 layer_factory.hpp:77] Creating layer penlu_conv4
I1015 11:15:04.346982 18065 net.cpp:84] Creating Layer penlu_conv4
I1015 11:15:04.346984 18065 net.cpp:406] penlu_conv4 <- conv4
I1015 11:15:04.346988 18065 net.cpp:380] penlu_conv4 -> penlu_conv4
I1015 11:15:04.347086 18065 net.cpp:122] Setting up penlu_conv4
I1015 11:15:04.347091 18065 net.cpp:129] Top shape: 100 384 2 2 (153600)
I1015 11:15:04.347095 18065 net.cpp:137] Memory required for data: 408186800
I1015 11:15:04.347100 18065 layer_factory.hpp:77] Creating layer cccp7
I1015 11:15:04.347106 18065 net.cpp:84] Creating Layer cccp7
I1015 11:15:04.347110 18065 net.cpp:406] cccp7 <- penlu_conv4
I1015 11:15:04.347113 18065 net.cpp:380] cccp7 -> cccp7
I1015 11:15:04.348748 18065 net.cpp:122] Setting up cccp7
I1015 11:15:04.348760 18065 net.cpp:129] Top shape: 100 384 2 2 (153600)
I1015 11:15:04.348763 18065 net.cpp:137] Memory required for data: 408801200
I1015 11:15:04.348768 18065 layer_factory.hpp:77] Creating layer penlu_cccp7
I1015 11:15:04.348774 18065 net.cpp:84] Creating Layer penlu_cccp7
I1015 11:15:04.348779 18065 net.cpp:406] penlu_cccp7 <- cccp7
I1015 11:15:04.348786 18065 net.cpp:380] penlu_cccp7 -> penlu_cccp7
I1015 11:15:04.348927 18065 net.cpp:122] Setting up penlu_cccp7
I1015 11:15:04.348939 18065 net.cpp:129] Top shape: 100 384 2 2 (153600)
I1015 11:15:04.348943 18065 net.cpp:137] Memory required for data: 409415600
I1015 11:15:04.348951 18065 layer_factory.hpp:77] Creating layer cccp8
I1015 11:15:04.348961 18065 net.cpp:84] Creating Layer cccp8
I1015 11:15:04.348968 18065 net.cpp:406] cccp8 <- penlu_cccp7
I1015 11:15:04.348975 18065 net.cpp:380] cccp8 -> cccp8
I1015 11:15:04.351333 18065 net.cpp:122] Setting up cccp8
I1015 11:15:04.351347 18065 net.cpp:129] Top shape: 100 384 2 2 (153600)
I1015 11:15:04.351351 18065 net.cpp:137] Memory required for data: 410030000
I1015 11:15:04.351366 18065 layer_factory.hpp:77] Creating layer penlu_cccp8
I1015 11:15:04.351374 18065 net.cpp:84] Creating Layer penlu_cccp8
I1015 11:15:04.351378 18065 net.cpp:406] penlu_cccp8 <- cccp8
I1015 11:15:04.351383 18065 net.cpp:380] penlu_cccp8 -> penlu_cccp8
I1015 11:15:04.351488 18065 net.cpp:122] Setting up penlu_cccp8
I1015 11:15:04.351495 18065 net.cpp:129] Top shape: 100 384 2 2 (153600)
I1015 11:15:04.351497 18065 net.cpp:137] Memory required for data: 410644400
I1015 11:15:04.351511 18065 layer_factory.hpp:77] Creating layer pool4
I1015 11:15:04.351521 18065 net.cpp:84] Creating Layer pool4
I1015 11:15:04.351523 18065 net.cpp:406] pool4 <- penlu_cccp8
I1015 11:15:04.351526 18065 net.cpp:380] pool4 -> pool4
I1015 11:15:04.351665 18065 net.cpp:122] Setting up pool4
I1015 11:15:04.351671 18065 net.cpp:129] Top shape: 100 384 1 1 (38400)
I1015 11:15:04.351683 18065 net.cpp:137] Memory required for data: 410798000
I1015 11:15:04.351706 18065 layer_factory.hpp:77] Creating layer dropout4
I1015 11:15:04.351712 18065 net.cpp:84] Creating Layer dropout4
I1015 11:15:04.351716 18065 net.cpp:406] dropout4 <- pool4
I1015 11:15:04.351719 18065 net.cpp:380] dropout4 -> dropout4
I1015 11:15:04.351744 18065 net.cpp:122] Setting up dropout4
I1015 11:15:04.351758 18065 net.cpp:129] Top shape: 100 384 1 1 (38400)
I1015 11:15:04.351760 18065 net.cpp:137] Memory required for data: 410951600
I1015 11:15:04.351763 18065 layer_factory.hpp:77] Creating layer fc1
I1015 11:15:04.351783 18065 net.cpp:84] Creating Layer fc1
I1015 11:15:04.351786 18065 net.cpp:406] fc1 <- dropout4
I1015 11:15:04.351789 18065 net.cpp:380] fc1 -> fc1
I1015 11:15:04.352728 18065 net.cpp:122] Setting up fc1
I1015 11:15:04.352735 18065 net.cpp:129] Top shape: 100 100 (10000)
I1015 11:15:04.352737 18065 net.cpp:137] Memory required for data: 410991600
I1015 11:15:04.352753 18065 layer_factory.hpp:77] Creating layer fc1_fc1_0_split
I1015 11:15:04.352761 18065 net.cpp:84] Creating Layer fc1_fc1_0_split
I1015 11:15:04.352766 18065 net.cpp:406] fc1_fc1_0_split <- fc1
I1015 11:15:04.352772 18065 net.cpp:380] fc1_fc1_0_split -> fc1_fc1_0_split_0
I1015 11:15:04.352780 18065 net.cpp:380] fc1_fc1_0_split -> fc1_fc1_0_split_1
I1015 11:15:04.352819 18065 net.cpp:122] Setting up fc1_fc1_0_split
I1015 11:15:04.352825 18065 net.cpp:129] Top shape: 100 100 (10000)
I1015 11:15:04.352828 18065 net.cpp:129] Top shape: 100 100 (10000)
I1015 11:15:04.352830 18065 net.cpp:137] Memory required for data: 411071600
I1015 11:15:04.352843 18065 layer_factory.hpp:77] Creating layer accuracy
I1015 11:15:04.352847 18065 net.cpp:84] Creating Layer accuracy
I1015 11:15:04.352850 18065 net.cpp:406] accuracy <- fc1_fc1_0_split_0
I1015 11:15:04.352854 18065 net.cpp:406] accuracy <- label_cifar_1_split_0
I1015 11:15:04.352857 18065 net.cpp:380] accuracy -> accuracy
…
