…
I1015 15:21:38.915380 18292 net.cpp:294] The NetState phase (0) differed from the phase (1) specified by a rule in layer cifar
I1015 15:21:38.915593 18292 net.cpp:51] Initializing net from parameters: 
name: "CIFAR10_full"
state {
  phase: TRAIN
  level: 0
  stage: ""
}
layer {
  name: "cifar"
  type: "Data"
  top: "data"
  top: "label"
  include {
    phase: TRAIN
  }
  transform_param {
    mirror: true
    crop_size: 28
    mean_file: "/home/x306/caffe/xn/PENLU/data/cifar100/mean.binaryproto"
  }
  data_param {
    source: "/home/x306/caffe/xn/PENLU/data/cifar100/cifar100_train_lmdb"
    batch_size: 100
    backend: LMDB
  }
  image_data_param {
    shuffle: true
  }
}
layer {
  name: "conv1"
  type: "Convolution"
  bottom: "data"
  top: "conv1"
  param {
    lr_mult: 1
    decay_mult: 1
  }
  param {
    lr_mult: 2
    decay_mult: 0
  }
  convolution_param {
    num_output: 192
    pad: 2
    kernel_size: 5
    weight_filler {
      type: "xavier"
    }
    bias_filler {
      type: "constant"
      value: 0
    }
  }
}
layer {
  name: "prelu_conv1"
  type: "PReLU"
  bottom: "conv1"
  top: "prelu_conv1"
  param {
    lr_mult: 1
    decay_mult: 1
  }
  prelu_param {
    filler {
      value: 0.25
    }
  }
}
layer {
  name: "cccp1"
  type: "Convolution"
  bottom: "prelu_conv1"
  top: "cccp1"
  param {
    lr_mult: 1
    decay_mult: 1
  }
  param {
    lr_mult: 2
    decay_mult: 0
  }
  convolution_param {
    num_output: 160
    kernel_size: 1
    weight_filler {
      type: "xavier"
    }
    bias_filler {
      type: "constant"
      value: 0
    }
  }
}
layer {
  name: "prelu_cccp1"
  type: "PReLU"
  bottom: "cccp1"
  top: "prelu_cccp1"
  param {
    lr_mult: 1
    decay_mult: 1
  }
  prelu_param {
    filler {
      value: 0.25
    }
  }
}
layer {
  name: "cccp2"
  type: "Convolution"
  bottom: "prelu_cccp1"
  top: "cccp2"
  param {
    lr_mult: 1
    decay_mult: 1
  }
  param {
    lr_mult: 2
    decay_mult: 0
  }
  convolution_param {
    num_output: 96
    kernel_size: 1
    weight_filler {
      type: "xavier"
    }
    bias_filler {
      type: "constant"
      value: 0
    }
  }
}
layer {
  name: "prelu_cccp2"
  type: "PReLU"
  bottom: "cccp2"
  top: "prelu_cccp2"
  param {
    lr_mult: 1
    decay_mult: 1
  }
  prelu_param {
    filler {
      value: 0.25
    }
  }
}
layer {
  name: "pool1"
  type: "Pooling"
  bottom: "prelu_cccp2"
  top: "pool1"
  pooling_param {
    pool: AVE
    kernel_size: 3
    stride: 2
  }
}
layer {
  name: "dropout1"
  type: "Dropout"
  bottom: "pool1"
  top: "dropout1"
  dropout_param {
    dropout_ratio: 0.5
  }
}
layer {
  name: "conv2"
  type: "Convolution"
  bottom: "dropout1"
  top: "conv2"
  param {
    lr_mult: 1
    decay_mult: 1
  }
  param {
    lr_mult: 2
    decay_mult: 0
  }
  convolution_param {
    num_output: 192
    pad: 2
    kernel_size: 5
    weight_filler {
      type: "xavier"
    }
    bias_filler {
      type: "constant"
      value: 0
    }
  }
}
layer {
  name: "prelu_conv2"
  type: "PReLU"
  bottom: "conv2"
  top: "prelu_conv2"
  param {
    lr_mult: 1
    decay_mult: 1
  }
  prelu_param {
    filler {
      value: 0.25
    }
  }
}
layer {
  name: "cccp3"
  type: "Convolution"
  bottom: "prelu_conv2"
  top: "cccp3"
  param {
    lr_mult: 1
    decay_mult: 1
  }
  param {
    lr_mult: 2
    decay_mult: 0
  }
  convolution_param {
    num_output: 192
    kernel_size: 1
    weight_filler {
      type: "xavier"
    }
    bias_filler {
      type: "constant"
      value: 0
    }
  }
}
layer {
  name: "prelu_cccp3"
  type: "PReLU"
  bottom: "cccp3"
  top: "prelu_cccp3"
  param {
    lr_mult: 1
    decay_mult: 1
  }
  prelu_param {
    filler {
      value: 0.25
    }
  }
}
layer {
  name: "cccp4"
  type: "Convolution"
  bottom: "prelu_cccp3"
  top: "cccp4"
  param {
    lr_mult: 1
    decay_mult: 1
  }
  param {
    lr_mult: 2
    decay_mult: 0
  }
  convolution_param {
    num_output: 192
    kernel_size: 1
    weight_filler {
      type: "xavier"
    }
    bias_filler {
      type: "constant"
      value: 0
    }
  }
}
layer {
  name: "prelu_cccp4"
  type: "PReLU"
  bottom: "cccp4"
  top: "prelu_cccp4"
  param {
    lr_mult: 1
    decay_mult: 1
  }
  prelu_param {
    filler {
      value: 0.25
    }
  }
}
layer {
  name: "pool2"
  type: "Pooling"
  bottom: "prelu_cccp4"
  top: "pool2"
  pooling_param {
    pool: AVE
    kernel_size: 3
    stride: 2
  }
}
layer {
  name: "dropout2"
  type: "Dropout"
  bottom: "pool2"
  top: "dropout2"
  dropout_param {
    dropout_ratio: 0.5
  }
}
layer {
  name: "conv3"
  type: "Convolution"
  bottom: "dropout2"
  top: "conv3"
  param {
    lr_mult: 1
    decay_mult: 1
  }
  param {
    lr_mult: 2
    decay_mult: 0
  }
  convolution_param {
    num_output: 192
    pad: 1
    kernel_size: 5
    weight_filler {
      type: "xavier"
    }
    bias_filler {
      type: "constant"
      value: 0
    }
  }
}
layer {
  name: "prelu_conv3"
  type: "PReLU"
  bottom: "conv3"
  top: "prelu_conv3"
  param {
    lr_mult: 1
    decay_mult: 1
  }
  prelu_param {
    filler {
      value: 0.25
    }
  }
}
layer {
  name: "cccp5"
  type: "Convolution"
  bottom: "prelu_conv3"
  top: "cccp5"
  param {
    lr_mult: 1
    decay_mult: 1
  }
  param {
    lr_mult: 2
    decay_mult: 0
  }
  convolution_param {
    num_output: 192
    kernel_size: 1
    weight_filler {
      type: "xavier"
    }
    bias_filler {
      type: "constant"
      value: 0
    }
  }
}
layer {
  name: "prelu_cccp5"
  type: "PReLU"
  bottom: "cccp5"
  top: "prelu_cccp5"
  param {
    lr_mult: 1
    decay_mult: 1
  }
  prelu_param {
    filler {
      value: 0.25
    }
  }
}
layer {
  name: "cccp6"
  type: "Convolution"
  bottom: "prelu_cccp5"
  top: "cccp6"
  param {
    lr_mult: 1
    decay_mult: 1
  }
  param {
    lr_mult: 2
    decay_mult: 0
  }
  convolution_param {
    num_output: 192
    kernel_size: 1
    weight_filler {
      type: "xavier"
    }
    bias_filler {
      type: "constant"
      value: 0
    }
  }
}
layer {
  name: "prelu_cccp6"
  type: "PReLU"
  bottom: "cccp6"
  top: "prelu_cccp6"
  param {
    lr_mult: 1
    decay_mult: 1
  }
  prelu_param {
    filler {
      value: 0.25
    }
  }
}
layer {
  name: "pool3"
  type: "Pooling"
  bottom: "prelu_cccp6"
  top: "pool3"
  pooling_param {
    pool: AVE
    kernel_size: 3
    stride: 2
  }
}
layer {
  name: "dropout3"
  type: "Dropout"
  bottom: "pool3"
  top: "dropout3"
  dropout_param {
    dropout_ratio: 0.5
  }
}
layer {
  name: "conv4"
  type: "Convolution"
  bottom: "dropout3"
  top: "conv4"
  param {
    lr_mult: 1
    decay_mult: 1
  }
  param {
    lr_mult: 2
    decay_mult: 0
  }
  convolution_param {
    num_output: 384
    pad: 1
    kernel_size: 3
    weight_filler {
      type: "xavier"
    }
    bias_filler {
      type: "constant"
      value: 0
    }
  }
}
layer {
  name: "prelu_conv4"
  type: "PReLU"
  bottom: "conv4"
  top: "prelu_conv4"
  param {
    lr_mult: 1
    decay_mult: 1
  }
  prelu_param {
    filler {
      value: 0.25
    }
  }
}
layer {
  name: "cccp7"
  type: "Convolution"
  bottom: "prelu_conv4"
  top: "cccp7"
  param {
    lr_mult: 1
    decay_mult: 1
  }
  param {
    lr_mult: 2
    decay_mult: 0
  }
  convolution_param {
    num_output: 384
    kernel_size: 1
    weight_filler {
      type: "xavier"
    }
    bias_filler {
      type: "constant"
      value: 0
    }
  }
}
layer {
  name: "prelu_cccp7"
  type: "PReLU"
  bottom: "cccp7"
  top: "prelu_cccp7"
  param {
    lr_mult: 1
    decay_mult: 1
  }
  prelu_param {
    filler {
      value: 0.25
    }
  }
}
layer {
  name: "cccp8"
  type: "Convolution"
  bottom: "prelu_cccp7"
  top: "cccp8"
  param {
    lr_mult: 1
    decay_mult: 1
  }
  param {
    lr_mult: 2
    decay_mult: 0
  }
  convolution_param {
    num_output: 384
    kernel_size: 1
    weight_filler {
      type: "xavier"
    }
    bias_filler {
      type: "constant"
      value: 0
    }
  }
}
layer {
  name: "prelu_cccp8"
  type: "PReLU"
  bottom: "cccp8"
  top: "prelu_cccp8"
  param {
    lr_mult: 1
    decay_mult: 1
  }
  prelu_param {
    filler {
      value: 0.25
    }
  }
}
layer {
  name: "pool4"
  type: "Pooling"
  bottom: "prelu_cccp8"
  top: "pool4"
  pooling_param {
    pool: AVE
    kernel_size: 3
    stride: 2
  }
}
layer {
  name: "dropout4"
  type: "Dropout"
  bottom: "pool4"
  top: "dropout4"
  dropout_param {
    dropout_ratio: 0.5
  }
}
layer {
  name: "fc1"
  type: "InnerProduct"
  bottom: "dropout4"
  top: "fc1"
  param {
    lr_mult: 1
    decay_mult: 1
  }
  param {
    lr_mult: 2
    decay_mult: 0
  }
  inner_product_param {
    num_output: 100
    weight_filler {
      type: "gaussian"
      std: 0.01
    }
    bias_filler {
      type: "constant"
      value: 0
    }
  }
}
layer {
  name: "accuracy"
  type: "Accuracy"
  bottom: "fc1"
  bottom: "label"
  top: "accuracy"
}
layer {
  name: "loss"
  type: "SoftmaxWithLoss"
  bottom: "fc1"
  bottom: "label"
  top: "loss"
}
I1015 15:21:38.915758 18292 layer_factory.hpp:77] Creating layer cifar
I1015 15:21:38.915864 18292 db_lmdb.cpp:35] Opened lmdb /home/x306/caffe/xn/PENLU/data/cifar100/cifar100_train_lmdb
I1015 15:21:38.915884 18292 net.cpp:84] Creating Layer cifar
I1015 15:21:38.915889 18292 net.cpp:380] cifar -> data
I1015 15:21:38.915907 18292 net.cpp:380] cifar -> label
I1015 15:21:38.915926 18292 data_transformer.cpp:25] Loading mean file from: /home/x306/caffe/xn/PENLU/data/cifar100/mean.binaryproto
I1015 15:21:38.917369 18292 data_layer.cpp:45] output data size: 100,3,28,28
I1015 15:21:38.919747 18292 net.cpp:122] Setting up cifar
I1015 15:21:38.919771 18292 net.cpp:129] Top shape: 100 3 28 28 (235200)
I1015 15:21:38.919776 18292 net.cpp:129] Top shape: 100 (100)
I1015 15:21:38.919780 18292 net.cpp:137] Memory required for data: 941200
I1015 15:21:38.919785 18292 layer_factory.hpp:77] Creating layer label_cifar_1_split
I1015 15:21:38.919797 18292 net.cpp:84] Creating Layer label_cifar_1_split
I1015 15:21:38.919802 18292 net.cpp:406] label_cifar_1_split <- label
I1015 15:21:38.919811 18292 net.cpp:380] label_cifar_1_split -> label_cifar_1_split_0
I1015 15:21:38.919818 18292 net.cpp:380] label_cifar_1_split -> label_cifar_1_split_1
I1015 15:21:38.919850 18292 net.cpp:122] Setting up label_cifar_1_split
I1015 15:21:38.919857 18292 net.cpp:129] Top shape: 100 (100)
I1015 15:21:38.919859 18292 net.cpp:129] Top shape: 100 (100)
I1015 15:21:38.919862 18292 net.cpp:137] Memory required for data: 942000
I1015 15:21:38.919863 18292 layer_factory.hpp:77] Creating layer conv1
I1015 15:21:38.919875 18292 net.cpp:84] Creating Layer conv1
I1015 15:21:38.919878 18292 net.cpp:406] conv1 <- data
I1015 15:21:38.919883 18292 net.cpp:380] conv1 -> conv1
I1015 15:21:39.066682 18292 net.cpp:122] Setting up conv1
I1015 15:21:39.066707 18292 net.cpp:129] Top shape: 100 192 28 28 (15052800)
I1015 15:21:39.066711 18292 net.cpp:137] Memory required for data: 61153200
I1015 15:21:39.066726 18292 layer_factory.hpp:77] Creating layer prelu_conv1
I1015 15:21:39.066737 18292 net.cpp:84] Creating Layer prelu_conv1
I1015 15:21:39.066741 18292 net.cpp:406] prelu_conv1 <- conv1
I1015 15:21:39.066746 18292 net.cpp:380] prelu_conv1 -> prelu_conv1
I1015 15:21:39.067368 18292 net.cpp:122] Setting up prelu_conv1
I1015 15:21:39.067378 18292 net.cpp:129] Top shape: 100 192 28 28 (15052800)
I1015 15:21:39.067380 18292 net.cpp:137] Memory required for data: 121364400
I1015 15:21:39.067386 18292 layer_factory.hpp:77] Creating layer cccp1
I1015 15:21:39.067395 18292 net.cpp:84] Creating Layer cccp1
I1015 15:21:39.067399 18292 net.cpp:406] cccp1 <- prelu_conv1
I1015 15:21:39.067415 18292 net.cpp:380] cccp1 -> cccp1
I1015 15:21:39.068882 18292 net.cpp:122] Setting up cccp1
I1015 15:21:39.068892 18292 net.cpp:129] Top shape: 100 160 28 28 (12544000)
I1015 15:21:39.068895 18292 net.cpp:137] Memory required for data: 171540400
I1015 15:21:39.068902 18292 layer_factory.hpp:77] Creating layer prelu_cccp1
I1015 15:21:39.068908 18292 net.cpp:84] Creating Layer prelu_cccp1
I1015 15:21:39.068912 18292 net.cpp:406] prelu_cccp1 <- cccp1
I1015 15:21:39.068924 18292 net.cpp:380] prelu_cccp1 -> prelu_cccp1
I1015 15:21:39.069053 18292 net.cpp:122] Setting up prelu_cccp1
I1015 15:21:39.069061 18292 net.cpp:129] Top shape: 100 160 28 28 (12544000)
I1015 15:21:39.069062 18292 net.cpp:137] Memory required for data: 221716400
I1015 15:21:39.069066 18292 layer_factory.hpp:77] Creating layer cccp2
I1015 15:21:39.069072 18292 net.cpp:84] Creating Layer cccp2
I1015 15:21:39.069074 18292 net.cpp:406] cccp2 <- prelu_cccp1
I1015 15:21:39.069078 18292 net.cpp:380] cccp2 -> cccp2
I1015 15:21:39.069962 18292 net.cpp:122] Setting up cccp2
I1015 15:21:39.069972 18292 net.cpp:129] Top shape: 100 96 28 28 (7526400)
I1015 15:21:39.069974 18292 net.cpp:137] Memory required for data: 251822000
I1015 15:21:39.069979 18292 layer_factory.hpp:77] Creating layer prelu_cccp2
I1015 15:21:39.069983 18292 net.cpp:84] Creating Layer prelu_cccp2
I1015 15:21:39.069986 18292 net.cpp:406] prelu_cccp2 <- cccp2
I1015 15:21:39.069990 18292 net.cpp:380] prelu_cccp2 -> prelu_cccp2
I1015 15:21:39.070128 18292 net.cpp:122] Setting up prelu_cccp2
I1015 15:21:39.070133 18292 net.cpp:129] Top shape: 100 96 28 28 (7526400)
I1015 15:21:39.070137 18292 net.cpp:137] Memory required for data: 281927600
I1015 15:21:39.070142 18292 layer_factory.hpp:77] Creating layer pool1
I1015 15:21:39.070147 18292 net.cpp:84] Creating Layer pool1
I1015 15:21:39.070149 18292 net.cpp:406] pool1 <- prelu_cccp2
I1015 15:21:39.070163 18292 net.cpp:380] pool1 -> pool1
I1015 15:21:39.070315 18292 net.cpp:122] Setting up pool1
I1015 15:21:39.070322 18292 net.cpp:129] Top shape: 100 96 14 14 (1881600)
I1015 15:21:39.070325 18292 net.cpp:137] Memory required for data: 289454000
I1015 15:21:39.070327 18292 layer_factory.hpp:77] Creating layer dropout1
I1015 15:21:39.070333 18292 net.cpp:84] Creating Layer dropout1
I1015 15:21:39.070334 18292 net.cpp:406] dropout1 <- pool1
I1015 15:21:39.070338 18292 net.cpp:380] dropout1 -> dropout1
I1015 15:21:39.070399 18292 net.cpp:122] Setting up dropout1
I1015 15:21:39.070403 18292 net.cpp:129] Top shape: 100 96 14 14 (1881600)
I1015 15:21:39.070416 18292 net.cpp:137] Memory required for data: 296980400
I1015 15:21:39.070418 18292 layer_factory.hpp:77] Creating layer conv2
I1015 15:21:39.070425 18292 net.cpp:84] Creating Layer conv2
I1015 15:21:39.070426 18292 net.cpp:406] conv2 <- dropout1
I1015 15:21:39.070441 18292 net.cpp:380] conv2 -> conv2
I1015 15:21:39.074237 18292 net.cpp:122] Setting up conv2
I1015 15:21:39.074249 18292 net.cpp:129] Top shape: 100 192 14 14 (3763200)
I1015 15:21:39.074251 18292 net.cpp:137] Memory required for data: 312033200
I1015 15:21:39.074256 18292 layer_factory.hpp:77] Creating layer prelu_conv2
I1015 15:21:39.074261 18292 net.cpp:84] Creating Layer prelu_conv2
I1015 15:21:39.074265 18292 net.cpp:406] prelu_conv2 <- conv2
I1015 15:21:39.074268 18292 net.cpp:380] prelu_conv2 -> prelu_conv2
I1015 15:21:39.074373 18292 net.cpp:122] Setting up prelu_conv2
I1015 15:21:39.074379 18292 net.cpp:129] Top shape: 100 192 14 14 (3763200)
I1015 15:21:39.074383 18292 net.cpp:137] Memory required for data: 327086000
I1015 15:21:39.074385 18292 layer_factory.hpp:77] Creating layer cccp3
I1015 15:21:39.074391 18292 net.cpp:84] Creating Layer cccp3
I1015 15:21:39.074393 18292 net.cpp:406] cccp3 <- prelu_conv2
I1015 15:21:39.074398 18292 net.cpp:380] cccp3 -> cccp3
I1015 15:21:39.075387 18292 net.cpp:122] Setting up cccp3
I1015 15:21:39.075395 18292 net.cpp:129] Top shape: 100 192 14 14 (3763200)
I1015 15:21:39.075398 18292 net.cpp:137] Memory required for data: 342138800
I1015 15:21:39.075402 18292 layer_factory.hpp:77] Creating layer prelu_cccp3
I1015 15:21:39.075417 18292 net.cpp:84] Creating Layer prelu_cccp3
I1015 15:21:39.075422 18292 net.cpp:406] prelu_cccp3 <- cccp3
I1015 15:21:39.075424 18292 net.cpp:380] prelu_cccp3 -> prelu_cccp3
I1015 15:21:39.075505 18292 net.cpp:122] Setting up prelu_cccp3
I1015 15:21:39.075511 18292 net.cpp:129] Top shape: 100 192 14 14 (3763200)
I1015 15:21:39.075513 18292 net.cpp:137] Memory required for data: 357191600
I1015 15:21:39.075516 18292 layer_factory.hpp:77] Creating layer cccp4
I1015 15:21:39.075522 18292 net.cpp:84] Creating Layer cccp4
I1015 15:21:39.075525 18292 net.cpp:406] cccp4 <- prelu_cccp3
I1015 15:21:39.075529 18292 net.cpp:380] cccp4 -> cccp4
I1015 15:21:39.076525 18292 net.cpp:122] Setting up cccp4
I1015 15:21:39.076535 18292 net.cpp:129] Top shape: 100 192 14 14 (3763200)
I1015 15:21:39.076539 18292 net.cpp:137] Memory required for data: 372244400
I1015 15:21:39.076545 18292 layer_factory.hpp:77] Creating layer prelu_cccp4
I1015 15:21:39.076550 18292 net.cpp:84] Creating Layer prelu_cccp4
I1015 15:21:39.076553 18292 net.cpp:406] prelu_cccp4 <- cccp4
I1015 15:21:39.076557 18292 net.cpp:380] prelu_cccp4 -> prelu_cccp4
I1015 15:21:39.076640 18292 net.cpp:122] Setting up prelu_cccp4
I1015 15:21:39.076645 18292 net.cpp:129] Top shape: 100 192 14 14 (3763200)
I1015 15:21:39.076648 18292 net.cpp:137] Memory required for data: 387297200
I1015 15:21:39.076652 18292 layer_factory.hpp:77] Creating layer pool2
I1015 15:21:39.076656 18292 net.cpp:84] Creating Layer pool2
I1015 15:21:39.076658 18292 net.cpp:406] pool2 <- prelu_cccp4
I1015 15:21:39.076663 18292 net.cpp:380] pool2 -> pool2
I1015 15:21:39.076782 18292 net.cpp:122] Setting up pool2
I1015 15:21:39.076789 18292 net.cpp:129] Top shape: 100 192 7 7 (940800)
I1015 15:21:39.076792 18292 net.cpp:137] Memory required for data: 391060400
I1015 15:21:39.076794 18292 layer_factory.hpp:77] Creating layer dropout2
I1015 15:21:39.076798 18292 net.cpp:84] Creating Layer dropout2
I1015 15:21:39.076802 18292 net.cpp:406] dropout2 <- pool2
I1015 15:21:39.076805 18292 net.cpp:380] dropout2 -> dropout2
I1015 15:21:39.076828 18292 net.cpp:122] Setting up dropout2
I1015 15:21:39.076833 18292 net.cpp:129] Top shape: 100 192 7 7 (940800)
I1015 15:21:39.076835 18292 net.cpp:137] Memory required for data: 394823600
I1015 15:21:39.076838 18292 layer_factory.hpp:77] Creating layer conv3
I1015 15:21:39.076843 18292 net.cpp:84] Creating Layer conv3
I1015 15:21:39.076846 18292 net.cpp:406] conv3 <- dropout2
I1015 15:21:39.076850 18292 net.cpp:380] conv3 -> conv3
I1015 15:21:39.083171 18292 net.cpp:122] Setting up conv3
I1015 15:21:39.083202 18292 net.cpp:129] Top shape: 100 192 5 5 (480000)
I1015 15:21:39.083205 18292 net.cpp:137] Memory required for data: 396743600
I1015 15:21:39.083211 18292 layer_factory.hpp:77] Creating layer prelu_conv3
I1015 15:21:39.083220 18292 net.cpp:84] Creating Layer prelu_conv3
I1015 15:21:39.083225 18292 net.cpp:406] prelu_conv3 <- conv3
I1015 15:21:39.083230 18292 net.cpp:380] prelu_conv3 -> prelu_conv3
I1015 15:21:39.083302 18292 net.cpp:122] Setting up prelu_conv3
I1015 15:21:39.083308 18292 net.cpp:129] Top shape: 100 192 5 5 (480000)
I1015 15:21:39.083320 18292 net.cpp:137] Memory required for data: 398663600
I1015 15:21:39.083323 18292 layer_factory.hpp:77] Creating layer cccp5
I1015 15:21:39.083331 18292 net.cpp:84] Creating Layer cccp5
I1015 15:21:39.083334 18292 net.cpp:406] cccp5 <- prelu_conv3
I1015 15:21:39.083339 18292 net.cpp:380] cccp5 -> cccp5
I1015 15:21:39.084370 18292 net.cpp:122] Setting up cccp5
I1015 15:21:39.084391 18292 net.cpp:129] Top shape: 100 192 5 5 (480000)
I1015 15:21:39.084394 18292 net.cpp:137] Memory required for data: 400583600
I1015 15:21:39.084399 18292 layer_factory.hpp:77] Creating layer prelu_cccp5
I1015 15:21:39.084403 18292 net.cpp:84] Creating Layer prelu_cccp5
I1015 15:21:39.084406 18292 net.cpp:406] prelu_cccp5 <- cccp5
I1015 15:21:39.084410 18292 net.cpp:380] prelu_cccp5 -> prelu_cccp5
I1015 15:21:39.084488 18292 net.cpp:122] Setting up prelu_cccp5
I1015 15:21:39.084493 18292 net.cpp:129] Top shape: 100 192 5 5 (480000)
I1015 15:21:39.084506 18292 net.cpp:137] Memory required for data: 402503600
I1015 15:21:39.084509 18292 layer_factory.hpp:77] Creating layer cccp6
I1015 15:21:39.084517 18292 net.cpp:84] Creating Layer cccp6
I1015 15:21:39.084528 18292 net.cpp:406] cccp6 <- prelu_cccp5
I1015 15:21:39.084532 18292 net.cpp:380] cccp6 -> cccp6
I1015 15:21:39.085543 18292 net.cpp:122] Setting up cccp6
I1015 15:21:39.085553 18292 net.cpp:129] Top shape: 100 192 5 5 (480000)
I1015 15:21:39.085556 18292 net.cpp:137] Memory required for data: 404423600
I1015 15:21:39.085571 18292 layer_factory.hpp:77] Creating layer prelu_cccp6
I1015 15:21:39.085575 18292 net.cpp:84] Creating Layer prelu_cccp6
I1015 15:21:39.085578 18292 net.cpp:406] prelu_cccp6 <- cccp6
I1015 15:21:39.085583 18292 net.cpp:380] prelu_cccp6 -> prelu_cccp6
I1015 15:21:39.085657 18292 net.cpp:122] Setting up prelu_cccp6
I1015 15:21:39.085662 18292 net.cpp:129] Top shape: 100 192 5 5 (480000)
I1015 15:21:39.085664 18292 net.cpp:137] Memory required for data: 406343600
I1015 15:21:39.085667 18292 layer_factory.hpp:77] Creating layer pool3
I1015 15:21:39.085682 18292 net.cpp:84] Creating Layer pool3
I1015 15:21:39.085685 18292 net.cpp:406] pool3 <- prelu_cccp6
I1015 15:21:39.085690 18292 net.cpp:380] pool3 -> pool3
I1015 15:21:39.085824 18292 net.cpp:122] Setting up pool3
I1015 15:21:39.085829 18292 net.cpp:129] Top shape: 100 192 2 2 (76800)
I1015 15:21:39.085832 18292 net.cpp:137] Memory required for data: 406650800
I1015 15:21:39.085834 18292 layer_factory.hpp:77] Creating layer dropout3
I1015 15:21:39.085850 18292 net.cpp:84] Creating Layer dropout3
I1015 15:21:39.085852 18292 net.cpp:406] dropout3 <- pool3
I1015 15:21:39.085855 18292 net.cpp:380] dropout3 -> dropout3
I1015 15:21:39.085880 18292 net.cpp:122] Setting up dropout3
I1015 15:21:39.085885 18292 net.cpp:129] Top shape: 100 192 2 2 (76800)
I1015 15:21:39.085886 18292 net.cpp:137] Memory required for data: 406958000
I1015 15:21:39.085889 18292 layer_factory.hpp:77] Creating layer conv4
I1015 15:21:39.085896 18292 net.cpp:84] Creating Layer conv4
I1015 15:21:39.085898 18292 net.cpp:406] conv4 <- dropout3
I1015 15:21:39.085902 18292 net.cpp:380] conv4 -> conv4
I1015 15:21:39.090915 18292 net.cpp:122] Setting up conv4
I1015 15:21:39.090929 18292 net.cpp:129] Top shape: 100 384 2 2 (153600)
I1015 15:21:39.090931 18292 net.cpp:137] Memory required for data: 407572400
I1015 15:21:39.090936 18292 layer_factory.hpp:77] Creating layer prelu_conv4
I1015 15:21:39.090943 18292 net.cpp:84] Creating Layer prelu_conv4
I1015 15:21:39.090947 18292 net.cpp:406] prelu_conv4 <- conv4
I1015 15:21:39.090951 18292 net.cpp:380] prelu_conv4 -> prelu_conv4
I1015 15:21:39.091022 18292 net.cpp:122] Setting up prelu_conv4
I1015 15:21:39.091028 18292 net.cpp:129] Top shape: 100 384 2 2 (153600)
I1015 15:21:39.091030 18292 net.cpp:137] Memory required for data: 408186800
I1015 15:21:39.091033 18292 layer_factory.hpp:77] Creating layer cccp7
I1015 15:21:39.091042 18292 net.cpp:84] Creating Layer cccp7
I1015 15:21:39.091045 18292 net.cpp:406] cccp7 <- prelu_conv4
I1015 15:21:39.091050 18292 net.cpp:380] cccp7 -> cccp7
I1015 15:21:39.092614 18292 net.cpp:122] Setting up cccp7
I1015 15:21:39.092624 18292 net.cpp:129] Top shape: 100 384 2 2 (153600)
I1015 15:21:39.092628 18292 net.cpp:137] Memory required for data: 408801200
I1015 15:21:39.092633 18292 layer_factory.hpp:77] Creating layer prelu_cccp7
I1015 15:21:39.092638 18292 net.cpp:84] Creating Layer prelu_cccp7
I1015 15:21:39.092640 18292 net.cpp:406] prelu_cccp7 <- cccp7
I1015 15:21:39.092645 18292 net.cpp:380] prelu_cccp7 -> prelu_cccp7
I1015 15:21:39.092702 18292 net.cpp:122] Setting up prelu_cccp7
I1015 15:21:39.092708 18292 net.cpp:129] Top shape: 100 384 2 2 (153600)
I1015 15:21:39.092710 18292 net.cpp:137] Memory required for data: 409415600
I1015 15:21:39.092717 18292 layer_factory.hpp:77] Creating layer cccp8
I1015 15:21:39.092725 18292 net.cpp:84] Creating Layer cccp8
I1015 15:21:39.092730 18292 net.cpp:406] cccp8 <- prelu_cccp7
I1015 15:21:39.092733 18292 net.cpp:380] cccp8 -> cccp8
I1015 15:21:39.095304 18292 net.cpp:122] Setting up cccp8
I1015 15:21:39.095316 18292 net.cpp:129] Top shape: 100 384 2 2 (153600)
I1015 15:21:39.095319 18292 net.cpp:137] Memory required for data: 410030000
I1015 15:21:39.095324 18292 layer_factory.hpp:77] Creating layer prelu_cccp8
I1015 15:21:39.095340 18292 net.cpp:84] Creating Layer prelu_cccp8
I1015 15:21:39.095345 18292 net.cpp:406] prelu_cccp8 <- cccp8
I1015 15:21:39.095350 18292 net.cpp:380] prelu_cccp8 -> prelu_cccp8
I1015 15:21:39.095419 18292 net.cpp:122] Setting up prelu_cccp8
I1015 15:21:39.095425 18292 net.cpp:129] Top shape: 100 384 2 2 (153600)
I1015 15:21:39.095428 18292 net.cpp:137] Memory required for data: 410644400
I1015 15:21:39.095432 18292 layer_factory.hpp:77] Creating layer pool4
I1015 15:21:39.095449 18292 net.cpp:84] Creating Layer pool4
I1015 15:21:39.095453 18292 net.cpp:406] pool4 <- prelu_cccp8
I1015 15:21:39.095458 18292 net.cpp:380] pool4 -> pool4
I1015 15:21:39.095594 18292 net.cpp:122] Setting up pool4
I1015 15:21:39.095602 18292 net.cpp:129] Top shape: 100 384 1 1 (38400)
I1015 15:21:39.095605 18292 net.cpp:137] Memory required for data: 410798000
I1015 15:21:39.095618 18292 layer_factory.hpp:77] Creating layer dropout4
I1015 15:21:39.095623 18292 net.cpp:84] Creating Layer dropout4
I1015 15:21:39.095626 18292 net.cpp:406] dropout4 <- pool4
I1015 15:21:39.095629 18292 net.cpp:380] dropout4 -> dropout4
I1015 15:21:39.095675 18292 net.cpp:122] Setting up dropout4
I1015 15:21:39.095680 18292 net.cpp:129] Top shape: 100 384 1 1 (38400)
I1015 15:21:39.095691 18292 net.cpp:137] Memory required for data: 410951600
I1015 15:21:39.095695 18292 layer_factory.hpp:77] Creating layer fc1
I1015 15:21:39.095712 18292 net.cpp:84] Creating Layer fc1
I1015 15:21:39.095716 18292 net.cpp:406] fc1 <- dropout4
I1015 15:21:39.095731 18292 net.cpp:380] fc1 -> fc1
I1015 15:21:39.096665 18292 net.cpp:122] Setting up fc1
I1015 15:21:39.096670 18292 net.cpp:129] Top shape: 100 100 (10000)
I1015 15:21:39.096673 18292 net.cpp:137] Memory required for data: 410991600
I1015 15:21:39.096688 18292 layer_factory.hpp:77] Creating layer fc1_fc1_0_split
I1015 15:21:39.096693 18292 net.cpp:84] Creating Layer fc1_fc1_0_split
I1015 15:21:39.096707 18292 net.cpp:406] fc1_fc1_0_split <- fc1
I1015 15:21:39.096710 18292 net.cpp:380] fc1_fc1_0_split -> fc1_fc1_0_split_0
I1015 15:21:39.096715 18292 net.cpp:380] fc1_fc1_0_split -> fc1_fc1_0_split_1
I1015 15:21:39.096740 18292 net.cpp:122] Setting up fc1_fc1_0_split
I1015 15:21:39.096746 18292 net.cpp:129] Top shape: 100 100 (10000)
I1015 15:21:39.096750 18292 net.cpp:129] Top shape: 100 100 (10000)
I1015 15:21:39.096751 18292 net.cpp:137] Memory required for data: 411071600
I1015 15:21:39.096753 18292 layer_factory.hpp:77] Creating layer accuracy
I1015 15:21:39.096761 18292 net.cpp:84] Creating Layer accuracy
I1015 15:21:39.096763 18292 net.cpp:406] accuracy <- fc1_fc1_0_split_0
I1015 15:21:39.096767 18292 net.cpp:406] accuracy <- label_cifar_1_split_0
I1015 15:21:39.096771 18292 net.cpp:380] accuracy -> accuracy
…
