…
I1014 21:48:05.843489 17305 net.cpp:294] The NetState phase (0) differed from the phase (1) specified by a rule in layer cifar
I1014 21:48:05.843691 17305 net.cpp:51] Initializing net from parameters: 
name: "CIFAR10_full"
state {
  phase: TRAIN
  level: 0
  stage: ""
}
layer {
  name: "cifar"
  type: "Data"
  top: "data"
  top: "label"
  include {
    phase: TRAIN
  }
  transform_param {
    mirror: true
    crop_size: 28
    mean_file: "/home/x306/caffe/xn/PENLU/data/cifar100/mean.binaryproto"
  }
  data_param {
    source: "/home/x306/caffe/xn/PENLU/data/cifar100/cifar100_train_lmdb"
    batch_size: 100
    backend: LMDB
  }
  image_data_param {
    shuffle: true
  }
}
layer {
  name: "conv1"
  type: "Convolution"
  bottom: "data"
  top: "conv1"
  param {
    lr_mult: 1
    decay_mult: 1
  }
  param {
    lr_mult: 2
    decay_mult: 0
  }
  convolution_param {
    num_output: 192
    pad: 2
    kernel_size: 5
    weight_filler {
      type: "xavier"
    }
    bias_filler {
      type: "constant"
      value: 0
    }
  }
}
layer {
  name: "elu_conv1"
  type: "ELU"
  bottom: "conv1"
  top: "elu_conv1"
  elu_param {
    alpha: 0.25
  }
}
layer {
  name: "cccp1"
  type: "Convolution"
  bottom: "elu_conv1"
  top: "cccp1"
  param {
    lr_mult: 1
    decay_mult: 1
  }
  param {
    lr_mult: 2
    decay_mult: 0
  }
  convolution_param {
    num_output: 160
    kernel_size: 1
    weight_filler {
      type: "xavier"
    }
    bias_filler {
      type: "constant"
      value: 0
    }
  }
}
layer {
  name: "elu_cccp1"
  type: "ELU"
  bottom: "cccp1"
  top: "elu_cccp1"
  elu_param {
    alpha: 0.25
  }
}
layer {
  name: "cccp2"
  type: "Convolution"
  bottom: "elu_cccp1"
  top: "cccp2"
  param {
    lr_mult: 1
    decay_mult: 1
  }
  param {
    lr_mult: 2
    decay_mult: 0
  }
  convolution_param {
    num_output: 96
    kernel_size: 1
    weight_filler {
      type: "xavier"
    }
    bias_filler {
      type: "constant"
      value: 0
    }
  }
}
layer {
  name: "elu_cccp2"
  type: "ELU"
  bottom: "cccp2"
  top: "elu_cccp2"
  elu_param {
    alpha: 0.25
  }
}
layer {
  name: "pool1"
  type: "Pooling"
  bottom: "elu_cccp2"
  top: "pool1"
  pooling_param {
    pool: AVE
    kernel_size: 3
    stride: 2
  }
}
layer {
  name: "dropout1"
  type: "Dropout"
  bottom: "pool1"
  top: "dropout1"
  dropout_param {
    dropout_ratio: 0.5
  }
}
layer {
  name: "conv2"
  type: "Convolution"
  bottom: "dropout1"
  top: "conv2"
  param {
    lr_mult: 1
    decay_mult: 1
  }
  param {
    lr_mult: 2
    decay_mult: 0
  }
  convolution_param {
    num_output: 192
    pad: 2
    kernel_size: 5
    weight_filler {
      type: "xavier"
    }
    bias_filler {
      type: "constant"
      value: 0
    }
  }
}
layer {
  name: "elu_conv2"
  type: "ELU"
  bottom: "conv2"
  top: "elu_conv2"
  elu_param {
    alpha: 0.25
  }
}
layer {
  name: "cccp3"
  type: "Convolution"
  bottom: "elu_conv2"
  top: "cccp3"
  param {
    lr_mult: 1
    decay_mult: 1
  }
  param {
    lr_mult: 2
    decay_mult: 0
  }
  convolution_param {
    num_output: 192
    kernel_size: 1
    weight_filler {
      type: "xavier"
    }
    bias_filler {
      type: "constant"
      value: 0
    }
  }
}
layer {
  name: "elu_cccp3"
  type: "ELU"
  bottom: "cccp3"
  top: "elu_cccp3"
  elu_param {
    alpha: 0.25
  }
}
layer {
  name: "cccp4"
  type: "Convolution"
  bottom: "elu_cccp3"
  top: "cccp4"
  param {
    lr_mult: 1
    decay_mult: 1
  }
  param {
    lr_mult: 2
    decay_mult: 0
  }
  convolution_param {
    num_output: 192
    kernel_size: 1
    weight_filler {
      type: "xavier"
    }
    bias_filler {
      type: "constant"
      value: 0
    }
  }
}
layer {
  name: "elu_cccp4"
  type: "ELU"
  bottom: "cccp4"
  top: "elu_cccp4"
  elu_param {
    alpha: 0.25
  }
}
layer {
  name: "pool2"
  type: "Pooling"
  bottom: "elu_cccp4"
  top: "pool2"
  pooling_param {
    pool: AVE
    kernel_size: 3
    stride: 2
  }
}
layer {
  name: "dropout2"
  type: "Dropout"
  bottom: "pool2"
  top: "dropout2"
  dropout_param {
    dropout_ratio: 0.5
  }
}
layer {
  name: "conv3"
  type: "Convolution"
  bottom: "dropout2"
  top: "conv3"
  param {
    lr_mult: 1
    decay_mult: 1
  }
  param {
    lr_mult: 2
    decay_mult: 0
  }
  convolution_param {
    num_output: 192
    pad: 1
    kernel_size: 5
    weight_filler {
      type: "xavier"
    }
    bias_filler {
      type: "constant"
      value: 0
    }
  }
}
layer {
  name: "elu_conv3"
  type: "ELU"
  bottom: "conv3"
  top: "elu_conv3"
  elu_param {
    alpha: 0.25
  }
}
layer {
  name: "cccp5"
  type: "Convolution"
  bottom: "elu_conv3"
  top: "cccp5"
  param {
    lr_mult: 1
    decay_mult: 1
  }
  param {
    lr_mult: 2
    decay_mult: 0
  }
  convolution_param {
    num_output: 192
    kernel_size: 1
    weight_filler {
      type: "xavier"
    }
    bias_filler {
      type: "constant"
      value: 0
    }
  }
}
layer {
  name: "elu_cccp5"
  type: "ELU"
  bottom: "cccp5"
  top: "elu_cccp5"
  elu_param {
    alpha: 0.25
  }
}
layer {
  name: "cccp6"
  type: "Convolution"
  bottom: "elu_cccp5"
  top: "cccp6"
  param {
    lr_mult: 1
    decay_mult: 1
  }
  param {
    lr_mult: 2
    decay_mult: 0
  }
  convolution_param {
    num_output: 192
    kernel_size: 1
    weight_filler {
      type: "xavier"
    }
    bias_filler {
      type: "constant"
      value: 0
    }
  }
}
layer {
  name: "elu_cccp6"
  type: "ELU"
  bottom: "cccp6"
  top: "elu_cccp6"
  elu_param {
    alpha: 0.25
  }
}
layer {
  name: "pool3"
  type: "Pooling"
  bottom: "elu_cccp6"
  top: "pool3"
  pooling_param {
    pool: AVE
    kernel_size: 3
    stride: 2
  }
}
layer {
  name: "dropout3"
  type: "Dropout"
  bottom: "pool3"
  top: "dropout3"
  dropout_param {
    dropout_ratio: 0.5
  }
}
layer {
  name: "conv4"
  type: "Convolution"
  bottom: "dropout3"
  top: "conv4"
  param {
    lr_mult: 1
    decay_mult: 1
  }
  param {
    lr_mult: 2
    decay_mult: 0
  }
  convolution_param {
    num_output: 384
    pad: 1
    kernel_size: 3
    weight_filler {
      type: "xavier"
    }
    bias_filler {
      type: "constant"
      value: 0
    }
  }
}
layer {
  name: "elu_conv4"
  type: "ELU"
  bottom: "conv4"
  top: "elu_conv4"
  elu_param {
    alpha: 0.25
  }
}
layer {
  name: "cccp7"
  type: "Convolution"
  bottom: "elu_conv4"
  top: "cccp7"
  param {
    lr_mult: 1
    decay_mult: 1
  }
  param {
    lr_mult: 2
    decay_mult: 0
  }
  convolution_param {
    num_output: 384
    kernel_size: 1
    weight_filler {
      type: "xavier"
    }
    bias_filler {
      type: "constant"
      value: 0
    }
  }
}
layer {
  name: "elu_cccp7"
  type: "ELU"
  bottom: "cccp7"
  top: "elu_cccp7"
  elu_param {
    alpha: 0.25
  }
}
layer {
  name: "cccp8"
  type: "Convolution"
  bottom: "elu_cccp7"
  top: "cccp8"
  param {
    lr_mult: 1
    decay_mult: 1
  }
  param {
    lr_mult: 2
    decay_mult: 0
  }
  convolution_param {
    num_output: 384
    kernel_size: 1
    weight_filler {
      type: "xavier"
    }
    bias_filler {
      type: "constant"
      value: 0
    }
  }
}
layer {
  name: "elu_cccp8"
  type: "ELU"
  bottom: "cccp8"
  top: "elu_cccp8"
  elu_param {
    alpha: 0.25
  }
}
layer {
  name: "pool4"
  type: "Pooling"
  bottom: "elu_cccp8"
  top: "pool4"
  pooling_param {
    pool: AVE
    kernel_size: 3
    stride: 2
  }
}
layer {
  name: "dropout4"
  type: "Dropout"
  bottom: "pool4"
  top: "dropout4"
  dropout_param {
    dropout_ratio: 0.5
  }
}
layer {
  name: "fc1"
  type: "InnerProduct"
  bottom: "dropout4"
  top: "fc1"
  param {
    lr_mult: 1
    decay_mult: 1
  }
  param {
    lr_mult: 2
    decay_mult: 0
  }
  inner_product_param {
    num_output: 100
    weight_filler {
      type: "gaussian"
      std: 0.01
    }
    bias_filler {
      type: "constant"
      value: 0
    }
  }
}
layer {
  name: "accuracy"
  type: "Accuracy"
  bottom: "fc1"
  bottom: "label"
  top: "accuracy"
}
layer {
  name: "loss"
  type: "SoftmaxWithLoss"
  bottom: "fc1"
  bottom: "label"
  top: "loss"
}
I1014 21:48:05.843840 17305 layer_factory.hpp:77] Creating layer cifar
I1014 21:48:05.843910 17305 db_lmdb.cpp:35] Opened lmdb /home/x306/caffe/xn/PENLU/data/cifar100/cifar100_train_lmdb
I1014 21:48:05.843938 17305 net.cpp:84] Creating Layer cifar
I1014 21:48:05.843955 17305 net.cpp:380] cifar -> data
I1014 21:48:05.843986 17305 net.cpp:380] cifar -> label
I1014 21:48:05.843997 17305 data_transformer.cpp:25] Loading mean file from: /home/x306/caffe/xn/PENLU/data/cifar100/mean.binaryproto
I1014 21:48:05.845461 17305 data_layer.cpp:45] output data size: 100,3,28,28
I1014 21:48:05.856722 17305 net.cpp:122] Setting up cifar
I1014 21:48:05.856765 17305 net.cpp:129] Top shape: 100 3 28 28 (235200)
I1014 21:48:05.856773 17305 net.cpp:129] Top shape: 100 (100)
I1014 21:48:05.856778 17305 net.cpp:137] Memory required for data: 941200
I1014 21:48:05.856787 17305 layer_factory.hpp:77] Creating layer label_cifar_1_split
I1014 21:48:05.856806 17305 net.cpp:84] Creating Layer label_cifar_1_split
I1014 21:48:05.856814 17305 net.cpp:406] label_cifar_1_split <- label
I1014 21:48:05.856827 17305 net.cpp:380] label_cifar_1_split -> label_cifar_1_split_0
I1014 21:48:05.856838 17305 net.cpp:380] label_cifar_1_split -> label_cifar_1_split_1
I1014 21:48:05.856894 17305 net.cpp:122] Setting up label_cifar_1_split
I1014 21:48:05.856902 17305 net.cpp:129] Top shape: 100 (100)
I1014 21:48:05.856919 17305 net.cpp:129] Top shape: 100 (100)
I1014 21:48:05.856923 17305 net.cpp:137] Memory required for data: 942000
I1014 21:48:05.856928 17305 layer_factory.hpp:77] Creating layer conv1
I1014 21:48:05.856945 17305 net.cpp:84] Creating Layer conv1
I1014 21:48:05.856950 17305 net.cpp:406] conv1 <- data
I1014 21:48:05.856957 17305 net.cpp:380] conv1 -> conv1
I1014 21:48:06.177584 17305 net.cpp:122] Setting up conv1
I1014 21:48:06.177609 17305 net.cpp:129] Top shape: 100 192 28 28 (15052800)
I1014 21:48:06.177613 17305 net.cpp:137] Memory required for data: 61153200
I1014 21:48:06.177659 17305 layer_factory.hpp:77] Creating layer elu_conv1
I1014 21:48:06.177673 17305 net.cpp:84] Creating Layer elu_conv1
I1014 21:48:06.177680 17305 net.cpp:406] elu_conv1 <- conv1
I1014 21:48:06.177688 17305 net.cpp:380] elu_conv1 -> elu_conv1
I1014 21:48:06.177721 17305 net.cpp:122] Setting up elu_conv1
I1014 21:48:06.177728 17305 net.cpp:129] Top shape: 100 192 28 28 (15052800)
I1014 21:48:06.177732 17305 net.cpp:137] Memory required for data: 121364400
I1014 21:48:06.177737 17305 layer_factory.hpp:77] Creating layer cccp1
I1014 21:48:06.177752 17305 net.cpp:84] Creating Layer cccp1
I1014 21:48:06.177757 17305 net.cpp:406] cccp1 <- elu_conv1
I1014 21:48:06.177763 17305 net.cpp:380] cccp1 -> cccp1
I1014 21:48:06.181800 17305 net.cpp:122] Setting up cccp1
I1014 21:48:06.181813 17305 net.cpp:129] Top shape: 100 160 28 28 (12544000)
I1014 21:48:06.181818 17305 net.cpp:137] Memory required for data: 171540400
I1014 21:48:06.181838 17305 layer_factory.hpp:77] Creating layer elu_cccp1
I1014 21:48:06.181846 17305 net.cpp:84] Creating Layer elu_cccp1
I1014 21:48:06.181852 17305 net.cpp:406] elu_cccp1 <- cccp1
I1014 21:48:06.181860 17305 net.cpp:380] elu_cccp1 -> elu_cccp1
I1014 21:48:06.181882 17305 net.cpp:122] Setting up elu_cccp1
I1014 21:48:06.181890 17305 net.cpp:129] Top shape: 100 160 28 28 (12544000)
I1014 21:48:06.181903 17305 net.cpp:137] Memory required for data: 221716400
I1014 21:48:06.181924 17305 layer_factory.hpp:77] Creating layer cccp2
I1014 21:48:06.181934 17305 net.cpp:84] Creating Layer cccp2
I1014 21:48:06.181939 17305 net.cpp:406] cccp2 <- elu_cccp1
I1014 21:48:06.181946 17305 net.cpp:380] cccp2 -> cccp2
I1014 21:48:06.188473 17305 net.cpp:122] Setting up cccp2
I1014 21:48:06.188486 17305 net.cpp:129] Top shape: 100 96 28 28 (7526400)
I1014 21:48:06.188491 17305 net.cpp:137] Memory required for data: 251822000
I1014 21:48:06.188501 17305 layer_factory.hpp:77] Creating layer elu_cccp2
I1014 21:48:06.188509 17305 net.cpp:84] Creating Layer elu_cccp2
I1014 21:48:06.188514 17305 net.cpp:406] elu_cccp2 <- cccp2
I1014 21:48:06.188522 17305 net.cpp:380] elu_cccp2 -> elu_cccp2
I1014 21:48:06.188545 17305 net.cpp:122] Setting up elu_cccp2
I1014 21:48:06.188554 17305 net.cpp:129] Top shape: 100 96 28 28 (7526400)
I1014 21:48:06.188557 17305 net.cpp:137] Memory required for data: 281927600
I1014 21:48:06.188565 17305 layer_factory.hpp:77] Creating layer pool1
I1014 21:48:06.188573 17305 net.cpp:84] Creating Layer pool1
I1014 21:48:06.188583 17305 net.cpp:406] pool1 <- elu_cccp2
I1014 21:48:06.188591 17305 net.cpp:380] pool1 -> pool1
I1014 21:48:06.190673 17305 net.cpp:122] Setting up pool1
I1014 21:48:06.190683 17305 net.cpp:129] Top shape: 100 96 14 14 (1881600)
I1014 21:48:06.190688 17305 net.cpp:137] Memory required for data: 289454000
I1014 21:48:06.190692 17305 layer_factory.hpp:77] Creating layer dropout1
I1014 21:48:06.190701 17305 net.cpp:84] Creating Layer dropout1
I1014 21:48:06.190711 17305 net.cpp:406] dropout1 <- pool1
I1014 21:48:06.190718 17305 net.cpp:380] dropout1 -> dropout1
I1014 21:48:06.190752 17305 net.cpp:122] Setting up dropout1
I1014 21:48:06.190758 17305 net.cpp:129] Top shape: 100 96 14 14 (1881600)
I1014 21:48:06.190762 17305 net.cpp:137] Memory required for data: 296980400
I1014 21:48:06.190768 17305 layer_factory.hpp:77] Creating layer conv2
I1014 21:48:06.190778 17305 net.cpp:84] Creating Layer conv2
I1014 21:48:06.190783 17305 net.cpp:406] conv2 <- dropout1
I1014 21:48:06.190789 17305 net.cpp:380] conv2 -> conv2
I1014 21:48:06.197885 17305 net.cpp:122] Setting up conv2
I1014 21:48:06.197898 17305 net.cpp:129] Top shape: 100 192 14 14 (3763200)
I1014 21:48:06.197903 17305 net.cpp:137] Memory required for data: 312033200
I1014 21:48:06.197926 17305 layer_factory.hpp:77] Creating layer elu_conv2
I1014 21:48:06.197933 17305 net.cpp:84] Creating Layer elu_conv2
I1014 21:48:06.197939 17305 net.cpp:406] elu_conv2 <- conv2
I1014 21:48:06.197947 17305 net.cpp:380] elu_conv2 -> elu_conv2
I1014 21:48:06.197986 17305 net.cpp:122] Setting up elu_conv2
I1014 21:48:06.198002 17305 net.cpp:129] Top shape: 100 192 14 14 (3763200)
I1014 21:48:06.198019 17305 net.cpp:137] Memory required for data: 327086000
I1014 21:48:06.198024 17305 layer_factory.hpp:77] Creating layer cccp3
I1014 21:48:06.198045 17305 net.cpp:84] Creating Layer cccp3
I1014 21:48:06.198050 17305 net.cpp:406] cccp3 <- elu_conv2
I1014 21:48:06.198058 17305 net.cpp:380] cccp3 -> cccp3
I1014 21:48:06.204336 17305 net.cpp:122] Setting up cccp3
I1014 21:48:06.204349 17305 net.cpp:129] Top shape: 100 192 14 14 (3763200)
I1014 21:48:06.204355 17305 net.cpp:137] Memory required for data: 342138800
I1014 21:48:06.204367 17305 layer_factory.hpp:77] Creating layer elu_cccp3
I1014 21:48:06.204375 17305 net.cpp:84] Creating Layer elu_cccp3
I1014 21:48:06.204381 17305 net.cpp:406] elu_cccp3 <- cccp3
I1014 21:48:06.204391 17305 net.cpp:380] elu_cccp3 -> elu_cccp3
I1014 21:48:06.204413 17305 net.cpp:122] Setting up elu_cccp3
I1014 21:48:06.204421 17305 net.cpp:129] Top shape: 100 192 14 14 (3763200)
I1014 21:48:06.204426 17305 net.cpp:137] Memory required for data: 357191600
I1014 21:48:06.204432 17305 layer_factory.hpp:77] Creating layer cccp4
I1014 21:48:06.204443 17305 net.cpp:84] Creating Layer cccp4
I1014 21:48:06.204448 17305 net.cpp:406] cccp4 <- elu_cccp3
I1014 21:48:06.204455 17305 net.cpp:380] cccp4 -> cccp4
I1014 21:48:06.211057 17305 net.cpp:122] Setting up cccp4
I1014 21:48:06.211071 17305 net.cpp:129] Top shape: 100 192 14 14 (3763200)
I1014 21:48:06.211086 17305 net.cpp:137] Memory required for data: 372244400
I1014 21:48:06.211093 17305 layer_factory.hpp:77] Creating layer elu_cccp4
I1014 21:48:06.211115 17305 net.cpp:84] Creating Layer elu_cccp4
I1014 21:48:06.211138 17305 net.cpp:406] elu_cccp4 <- cccp4
I1014 21:48:06.211149 17305 net.cpp:380] elu_cccp4 -> elu_cccp4
I1014 21:48:06.211172 17305 net.cpp:122] Setting up elu_cccp4
I1014 21:48:06.211179 17305 net.cpp:129] Top shape: 100 192 14 14 (3763200)
I1014 21:48:06.211184 17305 net.cpp:137] Memory required for data: 387297200
I1014 21:48:06.211189 17305 layer_factory.hpp:77] Creating layer pool2
I1014 21:48:06.211208 17305 net.cpp:84] Creating Layer pool2
I1014 21:48:06.211213 17305 net.cpp:406] pool2 <- elu_cccp4
I1014 21:48:06.211221 17305 net.cpp:380] pool2 -> pool2
I1014 21:48:06.211364 17305 net.cpp:122] Setting up pool2
I1014 21:48:06.211374 17305 net.cpp:129] Top shape: 100 192 7 7 (940800)
I1014 21:48:06.211378 17305 net.cpp:137] Memory required for data: 391060400
I1014 21:48:06.211393 17305 layer_factory.hpp:77] Creating layer dropout2
I1014 21:48:06.211402 17305 net.cpp:84] Creating Layer dropout2
I1014 21:48:06.211406 17305 net.cpp:406] dropout2 <- pool2
I1014 21:48:06.211423 17305 net.cpp:380] dropout2 -> dropout2
I1014 21:48:06.211472 17305 net.cpp:122] Setting up dropout2
I1014 21:48:06.211477 17305 net.cpp:129] Top shape: 100 192 7 7 (940800)
I1014 21:48:06.211483 17305 net.cpp:137] Memory required for data: 394823600
I1014 21:48:06.211496 17305 layer_factory.hpp:77] Creating layer conv3
I1014 21:48:06.211508 17305 net.cpp:84] Creating Layer conv3
I1014 21:48:06.211513 17305 net.cpp:406] conv3 <- dropout2
I1014 21:48:06.211519 17305 net.cpp:380] conv3 -> conv3
I1014 21:48:06.221348 17305 net.cpp:122] Setting up conv3
I1014 21:48:06.221364 17305 net.cpp:129] Top shape: 100 192 5 5 (480000)
I1014 21:48:06.221369 17305 net.cpp:137] Memory required for data: 396743600
I1014 21:48:06.221376 17305 layer_factory.hpp:77] Creating layer elu_conv3
I1014 21:48:06.221385 17305 net.cpp:84] Creating Layer elu_conv3
I1014 21:48:06.221391 17305 net.cpp:406] elu_conv3 <- conv3
I1014 21:48:06.221410 17305 net.cpp:380] elu_conv3 -> elu_conv3
I1014 21:48:06.221441 17305 net.cpp:122] Setting up elu_conv3
I1014 21:48:06.221460 17305 net.cpp:129] Top shape: 100 192 5 5 (480000)
I1014 21:48:06.221475 17305 net.cpp:137] Memory required for data: 398663600
I1014 21:48:06.221482 17305 layer_factory.hpp:77] Creating layer cccp5
I1014 21:48:06.221493 17305 net.cpp:84] Creating Layer cccp5
I1014 21:48:06.221498 17305 net.cpp:406] cccp5 <- elu_conv3
I1014 21:48:06.221513 17305 net.cpp:380] cccp5 -> cccp5
I1014 21:48:06.224900 17305 net.cpp:122] Setting up cccp5
I1014 21:48:06.224912 17305 net.cpp:129] Top shape: 100 192 5 5 (480000)
I1014 21:48:06.224916 17305 net.cpp:137] Memory required for data: 400583600
I1014 21:48:06.224934 17305 layer_factory.hpp:77] Creating layer elu_cccp5
I1014 21:48:06.224942 17305 net.cpp:84] Creating Layer elu_cccp5
I1014 21:48:06.224948 17305 net.cpp:406] elu_cccp5 <- cccp5
I1014 21:48:06.224956 17305 net.cpp:380] elu_cccp5 -> elu_cccp5
I1014 21:48:06.224978 17305 net.cpp:122] Setting up elu_cccp5
I1014 21:48:06.224987 17305 net.cpp:129] Top shape: 100 192 5 5 (480000)
I1014 21:48:06.224992 17305 net.cpp:137] Memory required for data: 402503600
I1014 21:48:06.224997 17305 layer_factory.hpp:77] Creating layer cccp6
I1014 21:48:06.225008 17305 net.cpp:84] Creating Layer cccp6
I1014 21:48:06.225013 17305 net.cpp:406] cccp6 <- elu_cccp5
I1014 21:48:06.225020 17305 net.cpp:380] cccp6 -> cccp6
I1014 21:48:06.229516 17305 net.cpp:122] Setting up cccp6
I1014 21:48:06.229529 17305 net.cpp:129] Top shape: 100 192 5 5 (480000)
I1014 21:48:06.229534 17305 net.cpp:137] Memory required for data: 404423600
I1014 21:48:06.229547 17305 layer_factory.hpp:77] Creating layer elu_cccp6
I1014 21:48:06.229554 17305 net.cpp:84] Creating Layer elu_cccp6
I1014 21:48:06.229559 17305 net.cpp:406] elu_cccp6 <- cccp6
I1014 21:48:06.229569 17305 net.cpp:380] elu_cccp6 -> elu_cccp6
I1014 21:48:06.229593 17305 net.cpp:122] Setting up elu_cccp6
I1014 21:48:06.229599 17305 net.cpp:129] Top shape: 100 192 5 5 (480000)
I1014 21:48:06.229605 17305 net.cpp:137] Memory required for data: 406343600
I1014 21:48:06.229610 17305 layer_factory.hpp:77] Creating layer pool3
I1014 21:48:06.229629 17305 net.cpp:84] Creating Layer pool3
I1014 21:48:06.229635 17305 net.cpp:406] pool3 <- elu_cccp6
I1014 21:48:06.229641 17305 net.cpp:380] pool3 -> pool3
I1014 21:48:06.231652 17305 net.cpp:122] Setting up pool3
I1014 21:48:06.231662 17305 net.cpp:129] Top shape: 100 192 2 2 (76800)
I1014 21:48:06.231665 17305 net.cpp:137] Memory required for data: 406650800
I1014 21:48:06.231670 17305 layer_factory.hpp:77] Creating layer dropout3
I1014 21:48:06.231676 17305 net.cpp:84] Creating Layer dropout3
I1014 21:48:06.231683 17305 net.cpp:406] dropout3 <- pool3
I1014 21:48:06.231689 17305 net.cpp:380] dropout3 -> dropout3
I1014 21:48:06.231720 17305 net.cpp:122] Setting up dropout3
I1014 21:48:06.231727 17305 net.cpp:129] Top shape: 100 192 2 2 (76800)
I1014 21:48:06.231734 17305 net.cpp:137] Memory required for data: 406958000
I1014 21:48:06.231739 17305 layer_factory.hpp:77] Creating layer conv4
I1014 21:48:06.231748 17305 net.cpp:84] Creating Layer conv4
I1014 21:48:06.231753 17305 net.cpp:406] conv4 <- dropout3
I1014 21:48:06.231762 17305 net.cpp:380] conv4 -> conv4
I1014 21:48:06.238701 17305 net.cpp:122] Setting up conv4
I1014 21:48:06.238728 17305 net.cpp:129] Top shape: 100 384 2 2 (153600)
I1014 21:48:06.238732 17305 net.cpp:137] Memory required for data: 407572400
I1014 21:48:06.238750 17305 layer_factory.hpp:77] Creating layer elu_conv4
I1014 21:48:06.238761 17305 net.cpp:84] Creating Layer elu_conv4
I1014 21:48:06.238766 17305 net.cpp:406] elu_conv4 <- conv4
I1014 21:48:06.238776 17305 net.cpp:380] elu_conv4 -> elu_conv4
I1014 21:48:06.238802 17305 net.cpp:122] Setting up elu_conv4
I1014 21:48:06.238819 17305 net.cpp:129] Top shape: 100 384 2 2 (153600)
I1014 21:48:06.238824 17305 net.cpp:137] Memory required for data: 408186800
I1014 21:48:06.238839 17305 layer_factory.hpp:77] Creating layer cccp7
I1014 21:48:06.238852 17305 net.cpp:84] Creating Layer cccp7
I1014 21:48:06.238857 17305 net.cpp:406] cccp7 <- elu_conv4
I1014 21:48:06.238864 17305 net.cpp:380] cccp7 -> cccp7
I1014 21:48:06.245738 17305 net.cpp:122] Setting up cccp7
I1014 21:48:06.245751 17305 net.cpp:129] Top shape: 100 384 2 2 (153600)
I1014 21:48:06.245756 17305 net.cpp:137] Memory required for data: 408801200
I1014 21:48:06.245774 17305 layer_factory.hpp:77] Creating layer elu_cccp7
I1014 21:48:06.245792 17305 net.cpp:84] Creating Layer elu_cccp7
I1014 21:48:06.245798 17305 net.cpp:406] elu_cccp7 <- cccp7
I1014 21:48:06.245807 17305 net.cpp:380] elu_cccp7 -> elu_cccp7
I1014 21:48:06.245838 17305 net.cpp:122] Setting up elu_cccp7
I1014 21:48:06.245846 17305 net.cpp:129] Top shape: 100 384 2 2 (153600)
I1014 21:48:06.245860 17305 net.cpp:137] Memory required for data: 409415600
I1014 21:48:06.245865 17305 layer_factory.hpp:77] Creating layer cccp8
I1014 21:48:06.245877 17305 net.cpp:84] Creating Layer cccp8
I1014 21:48:06.245892 17305 net.cpp:406] cccp8 <- elu_cccp7
I1014 21:48:06.245898 17305 net.cpp:380] cccp8 -> cccp8
I1014 21:48:06.252451 17305 net.cpp:122] Setting up cccp8
I1014 21:48:06.252466 17305 net.cpp:129] Top shape: 100 384 2 2 (153600)
I1014 21:48:06.252471 17305 net.cpp:137] Memory required for data: 410030000
I1014 21:48:06.252480 17305 layer_factory.hpp:77] Creating layer elu_cccp8
I1014 21:48:06.252486 17305 net.cpp:84] Creating Layer elu_cccp8
I1014 21:48:06.252492 17305 net.cpp:406] elu_cccp8 <- cccp8
I1014 21:48:06.252502 17305 net.cpp:380] elu_cccp8 -> elu_cccp8
I1014 21:48:06.252524 17305 net.cpp:122] Setting up elu_cccp8
I1014 21:48:06.252532 17305 net.cpp:129] Top shape: 100 384 2 2 (153600)
I1014 21:48:06.252537 17305 net.cpp:137] Memory required for data: 410644400
I1014 21:48:06.252542 17305 layer_factory.hpp:77] Creating layer pool4
I1014 21:48:06.252554 17305 net.cpp:84] Creating Layer pool4
I1014 21:48:06.252559 17305 net.cpp:406] pool4 <- elu_cccp8
I1014 21:48:06.252566 17305 net.cpp:380] pool4 -> pool4
I1014 21:48:06.254614 17305 net.cpp:122] Setting up pool4
I1014 21:48:06.254624 17305 net.cpp:129] Top shape: 100 384 1 1 (38400)
I1014 21:48:06.254629 17305 net.cpp:137] Memory required for data: 410798000
I1014 21:48:06.254645 17305 layer_factory.hpp:77] Creating layer dropout4
I1014 21:48:06.254654 17305 net.cpp:84] Creating Layer dropout4
I1014 21:48:06.254659 17305 net.cpp:406] dropout4 <- pool4
I1014 21:48:06.254667 17305 net.cpp:380] dropout4 -> dropout4
I1014 21:48:06.254699 17305 net.cpp:122] Setting up dropout4
I1014 21:48:06.254706 17305 net.cpp:129] Top shape: 100 384 1 1 (38400)
I1014 21:48:06.254711 17305 net.cpp:137] Memory required for data: 410951600
I1014 21:48:06.254717 17305 layer_factory.hpp:77] Creating layer fc1
I1014 21:48:06.254731 17305 net.cpp:84] Creating Layer fc1
I1014 21:48:06.254736 17305 net.cpp:406] fc1 <- dropout4
I1014 21:48:06.254745 17305 net.cpp:380] fc1 -> fc1
I1014 21:48:06.255712 17305 net.cpp:122] Setting up fc1
I1014 21:48:06.255722 17305 net.cpp:129] Top shape: 100 100 (10000)
I1014 21:48:06.255728 17305 net.cpp:137] Memory required for data: 410991600
I1014 21:48:06.255736 17305 layer_factory.hpp:77] Creating layer fc1_fc1_0_split
I1014 21:48:06.255743 17305 net.cpp:84] Creating Layer fc1_fc1_0_split
I1014 21:48:06.255759 17305 net.cpp:406] fc1_fc1_0_split <- fc1
I1014 21:48:06.255764 17305 net.cpp:380] fc1_fc1_0_split -> fc1_fc1_0_split_0
I1014 21:48:06.255782 17305 net.cpp:380] fc1_fc1_0_split -> fc1_fc1_0_split_1
I1014 21:48:06.255822 17305 net.cpp:122] Setting up fc1_fc1_0_split
I1014 21:48:06.255828 17305 net.cpp:129] Top shape: 100 100 (10000)
I1014 21:48:06.255844 17305 net.cpp:129] Top shape: 100 100 (10000)
I1014 21:48:06.255848 17305 net.cpp:137] Memory required for data: 411071600
I1014 21:48:06.255853 17305 layer_factory.hpp:77] Creating layer accuracy
I1014 21:48:06.255863 17305 net.cpp:84] Creating Layer accuracy
I1014 21:48:06.255868 17305 net.cpp:406] accuracy <- fc1_fc1_0_split_0
I1014 21:48:06.255882 17305 net.cpp:406] accuracy <- label_cifar_1_split_0
I1014 21:48:06.255889 17305 net.cpp:380] accuracy -> accuracy
…
