…
I1015 16:49:49.353921 18384 net.cpp:294] The NetState phase (0) differed from the phase (1) specified by a rule in layer cifar
I1015 16:49:49.354106 18384 net.cpp:51] Initializing net from parameters: 
name: "CIFAR10_full"
state {
  phase: TRAIN
  level: 0
  stage: ""
}
layer {
  name: "cifar"
  type: "Data"
  top: "data"
  top: "label"
  include {
    phase: TRAIN
  }
  transform_param {
    mirror: true
    crop_size: 28
    mean_file: "/home/x306/caffe/xn/PENLU/data/cifar100/mean.binaryproto"
  }
  data_param {
    source: "/home/x306/caffe/xn/PENLU/data/cifar100/cifar100_train_lmdb"
    batch_size: 100
    backend: LMDB
  }
  image_data_param {
    shuffle: true
  }
}
layer {
  name: "conv1"
  type: "Convolution"
  bottom: "data"
  top: "conv1"
  param {
    lr_mult: 1
    decay_mult: 1
  }
  param {
    lr_mult: 2
    decay_mult: 0
  }
  convolution_param {
    num_output: 192
    pad: 2
    kernel_size: 5
    weight_filler {
      type: "xavier"
    }
    bias_filler {
      type: "constant"
      value: 0
    }
  }
}
layer {
  name: "elu_conv1"
  type: "ELU"
  bottom: "conv1"
  top: "elu_conv1"
  elu_param {
    alpha: 1
  }
}
layer {
  name: "cccp1"
  type: "Convolution"
  bottom: "elu_conv1"
  top: "cccp1"
  param {
    lr_mult: 1
    decay_mult: 1
  }
  param {
    lr_mult: 2
    decay_mult: 0
  }
  convolution_param {
    num_output: 160
    kernel_size: 1
    weight_filler {
      type: "xavier"
    }
    bias_filler {
      type: "constant"
      value: 0
    }
  }
}
layer {
  name: "elu_cccp1"
  type: "ELU"
  bottom: "cccp1"
  top: "elu_cccp1"
  elu_param {
    alpha: 1
  }
}
layer {
  name: "cccp2"
  type: "Convolution"
  bottom: "elu_cccp1"
  top: "cccp2"
  param {
    lr_mult: 1
    decay_mult: 1
  }
  param {
    lr_mult: 2
    decay_mult: 0
  }
  convolution_param {
    num_output: 96
    kernel_size: 1
    weight_filler {
      type: "xavier"
    }
    bias_filler {
      type: "constant"
      value: 0
    }
  }
}
layer {
  name: "elu_cccp2"
  type: "ELU"
  bottom: "cccp2"
  top: "elu_cccp2"
  elu_param {
    alpha: 1
  }
}
layer {
  name: "pool1"
  type: "Pooling"
  bottom: "elu_cccp2"
  top: "pool1"
  pooling_param {
    pool: AVE
    kernel_size: 3
    stride: 2
  }
}
layer {
  name: "dropout1"
  type: "Dropout"
  bottom: "pool1"
  top: "dropout1"
  dropout_param {
    dropout_ratio: 0.5
  }
}
layer {
  name: "conv2"
  type: "Convolution"
  bottom: "dropout1"
  top: "conv2"
  param {
    lr_mult: 1
    decay_mult: 1
  }
  param {
    lr_mult: 2
    decay_mult: 0
  }
  convolution_param {
    num_output: 192
    pad: 2
    kernel_size: 5
    weight_filler {
      type: "xavier"
    }
    bias_filler {
      type: "constant"
      value: 0
    }
  }
}
layer {
  name: "elu_conv2"
  type: "ELU"
  bottom: "conv2"
  top: "elu_conv2"
  elu_param {
    alpha: 1
  }
}
layer {
  name: "cccp3"
  type: "Convolution"
  bottom: "elu_conv2"
  top: "cccp3"
  param {
    lr_mult: 1
    decay_mult: 1
  }
  param {
    lr_mult: 2
    decay_mult: 0
  }
  convolution_param {
    num_output: 192
    kernel_size: 1
    weight_filler {
      type: "xavier"
    }
    bias_filler {
      type: "constant"
      value: 0
    }
  }
}
layer {
  name: "elu_cccp3"
  type: "ELU"
  bottom: "cccp3"
  top: "elu_cccp3"
  elu_param {
    alpha: 1
  }
}
layer {
  name: "cccp4"
  type: "Convolution"
  bottom: "elu_cccp3"
  top: "cccp4"
  param {
    lr_mult: 1
    decay_mult: 1
  }
  param {
    lr_mult: 2
    decay_mult: 0
  }
  convolution_param {
    num_output: 192
    kernel_size: 1
    weight_filler {
      type: "xavier"
    }
    bias_filler {
      type: "constant"
      value: 0
    }
  }
}
layer {
  name: "elu_cccp4"
  type: "ELU"
  bottom: "cccp4"
  top: "elu_cccp4"
  elu_param {
    alpha: 1
  }
}
layer {
  name: "pool2"
  type: "Pooling"
  bottom: "elu_cccp4"
  top: "pool2"
  pooling_param {
    pool: AVE
    kernel_size: 3
    stride: 2
  }
}
layer {
  name: "dropout2"
  type: "Dropout"
  bottom: "pool2"
  top: "dropout2"
  dropout_param {
    dropout_ratio: 0.5
  }
}
layer {
  name: "conv3"
  type: "Convolution"
  bottom: "dropout2"
  top: "conv3"
  param {
    lr_mult: 1
    decay_mult: 1
  }
  param {
    lr_mult: 2
    decay_mult: 0
  }
  convolution_param {
    num_output: 192
    pad: 1
    kernel_size: 5
    weight_filler {
      type: "xavier"
    }
    bias_filler {
      type: "constant"
      value: 0
    }
  }
}
layer {
  name: "elu_conv3"
  type: "ELU"
  bottom: "conv3"
  top: "elu_conv3"
  elu_param {
    alpha: 1
  }
}
layer {
  name: "cccp5"
  type: "Convolution"
  bottom: "elu_conv3"
  top: "cccp5"
  param {
    lr_mult: 1
    decay_mult: 1
  }
  param {
    lr_mult: 2
    decay_mult: 0
  }
  convolution_param {
    num_output: 192
    kernel_size: 1
    weight_filler {
      type: "xavier"
    }
    bias_filler {
      type: "constant"
      value: 0
    }
  }
}
layer {
  name: "elu_cccp5"
  type: "ELU"
  bottom: "cccp5"
  top: "elu_cccp5"
  elu_param {
    alpha: 1
  }
}
layer {
  name: "cccp6"
  type: "Convolution"
  bottom: "elu_cccp5"
  top: "cccp6"
  param {
    lr_mult: 1
    decay_mult: 1
  }
  param {
    lr_mult: 2
    decay_mult: 0
  }
  convolution_param {
    num_output: 192
    kernel_size: 1
    weight_filler {
      type: "xavier"
    }
    bias_filler {
      type: "constant"
      value: 0
    }
  }
}
layer {
  name: "elu_cccp6"
  type: "ELU"
  bottom: "cccp6"
  top: "elu_cccp6"
  elu_param {
    alpha: 1
  }
}
layer {
  name: "pool3"
  type: "Pooling"
  bottom: "elu_cccp6"
  top: "pool3"
  pooling_param {
    pool: AVE
    kernel_size: 3
    stride: 2
  }
}
layer {
  name: "dropout3"
  type: "Dropout"
  bottom: "pool3"
  top: "dropout3"
  dropout_param {
    dropout_ratio: 0.5
  }
}
layer {
  name: "conv4"
  type: "Convolution"
  bottom: "dropout3"
  top: "conv4"
  param {
    lr_mult: 1
    decay_mult: 1
  }
  param {
    lr_mult: 2
    decay_mult: 0
  }
  convolution_param {
    num_output: 384
    pad: 1
    kernel_size: 3
    weight_filler {
      type: "xavier"
    }
    bias_filler {
      type: "constant"
      value: 0
    }
  }
}
layer {
  name: "elu_conv4"
  type: "ELU"
  bottom: "conv4"
  top: "elu_conv4"
  elu_param {
    alpha: 1
  }
}
layer {
  name: "cccp7"
  type: "Convolution"
  bottom: "elu_conv4"
  top: "cccp7"
  param {
    lr_mult: 1
    decay_mult: 1
  }
  param {
    lr_mult: 2
    decay_mult: 0
  }
  convolution_param {
    num_output: 384
    kernel_size: 1
    weight_filler {
      type: "xavier"
    }
    bias_filler {
      type: "constant"
      value: 0
    }
  }
}
layer {
  name: "elu_cccp7"
  type: "ELU"
  bottom: "cccp7"
  top: "elu_cccp7"
  elu_param {
    alpha: 1
  }
}
layer {
  name: "cccp8"
  type: "Convolution"
  bottom: "elu_cccp7"
  top: "cccp8"
  param {
    lr_mult: 1
    decay_mult: 1
  }
  param {
    lr_mult: 2
    decay_mult: 0
  }
  convolution_param {
    num_output: 384
    kernel_size: 1
    weight_filler {
      type: "xavier"
    }
    bias_filler {
      type: "constant"
      value: 0
    }
  }
}
layer {
  name: "elu_cccp8"
  type: "ELU"
  bottom: "cccp8"
  top: "elu_cccp8"
  elu_param {
    alpha: 1
  }
}
layer {
  name: "pool4"
  type: "Pooling"
  bottom: "elu_cccp8"
  top: "pool4"
  pooling_param {
    pool: AVE
    kernel_size: 3
    stride: 2
  }
}
layer {
  name: "dropout4"
  type: "Dropout"
  bottom: "pool4"
  top: "dropout4"
  dropout_param {
    dropout_ratio: 0.5
  }
}
layer {
  name: "fc1"
  type: "InnerProduct"
  bottom: "dropout4"
  top: "fc1"
  param {
    lr_mult: 1
    decay_mult: 1
  }
  param {
    lr_mult: 2
    decay_mult: 0
  }
  inner_product_param {
    num_output: 100
    weight_filler {
      type: "gaussian"
      std: 0.01
    }
    bias_filler {
      type: "constant"
      value: 0
    }
  }
}
layer {
  name: "accuracy"
  type: "Accuracy"
  bottom: "fc1"
  bottom: "label"
  top: "accuracy"
}
layer {
  name: "loss"
  type: "SoftmaxWithLoss"
  bottom: "fc1"
  bottom: "label"
  top: "loss"
}
I1015 16:49:49.354370 18384 layer_factory.hpp:77] Creating layer cifar
I1015 16:49:49.354499 18384 db_lmdb.cpp:35] Opened lmdb /home/x306/caffe/xn/PENLU/data/cifar100/cifar100_train_lmdb
I1015 16:49:49.354521 18384 net.cpp:84] Creating Layer cifar
I1015 16:49:49.354527 18384 net.cpp:380] cifar -> data
I1015 16:49:49.354549 18384 net.cpp:380] cifar -> label
I1015 16:49:49.354559 18384 data_transformer.cpp:25] Loading mean file from: /home/x306/caffe/xn/PENLU/data/cifar100/mean.binaryproto
I1015 16:49:49.355937 18384 data_layer.cpp:45] output data size: 100,3,28,28
I1015 16:49:49.358218 18384 net.cpp:122] Setting up cifar
I1015 16:49:49.358232 18384 net.cpp:129] Top shape: 100 3 28 28 (235200)
I1015 16:49:49.358237 18384 net.cpp:129] Top shape: 100 (100)
I1015 16:49:49.358242 18384 net.cpp:137] Memory required for data: 941200
I1015 16:49:49.358248 18384 layer_factory.hpp:77] Creating layer label_cifar_1_split
I1015 16:49:49.358263 18384 net.cpp:84] Creating Layer label_cifar_1_split
I1015 16:49:49.358268 18384 net.cpp:406] label_cifar_1_split <- label
I1015 16:49:49.358278 18384 net.cpp:380] label_cifar_1_split -> label_cifar_1_split_0
I1015 16:49:49.358286 18384 net.cpp:380] label_cifar_1_split -> label_cifar_1_split_1
I1015 16:49:49.358322 18384 net.cpp:122] Setting up label_cifar_1_split
I1015 16:49:49.358327 18384 net.cpp:129] Top shape: 100 (100)
I1015 16:49:49.358331 18384 net.cpp:129] Top shape: 100 (100)
I1015 16:49:49.358335 18384 net.cpp:137] Memory required for data: 942000
I1015 16:49:49.358340 18384 layer_factory.hpp:77] Creating layer conv1
I1015 16:49:49.358352 18384 net.cpp:84] Creating Layer conv1
I1015 16:49:49.358356 18384 net.cpp:406] conv1 <- data
I1015 16:49:49.358361 18384 net.cpp:380] conv1 -> conv1
I1015 16:49:49.503612 18384 net.cpp:122] Setting up conv1
I1015 16:49:49.503635 18384 net.cpp:129] Top shape: 100 192 28 28 (15052800)
I1015 16:49:49.503638 18384 net.cpp:137] Memory required for data: 61153200
I1015 16:49:49.503654 18384 layer_factory.hpp:77] Creating layer elu_conv1
I1015 16:49:49.503665 18384 net.cpp:84] Creating Layer elu_conv1
I1015 16:49:49.503670 18384 net.cpp:406] elu_conv1 <- conv1
I1015 16:49:49.503689 18384 net.cpp:380] elu_conv1 -> elu_conv1
I1015 16:49:49.503737 18384 net.cpp:122] Setting up elu_conv1
I1015 16:49:49.503744 18384 net.cpp:129] Top shape: 100 192 28 28 (15052800)
I1015 16:49:49.503747 18384 net.cpp:137] Memory required for data: 121364400
I1015 16:49:49.503759 18384 layer_factory.hpp:77] Creating layer cccp1
I1015 16:49:49.503769 18384 net.cpp:84] Creating Layer cccp1
I1015 16:49:49.503773 18384 net.cpp:406] cccp1 <- elu_conv1
I1015 16:49:49.503777 18384 net.cpp:380] cccp1 -> cccp1
I1015 16:49:49.505259 18384 net.cpp:122] Setting up cccp1
I1015 16:49:49.505269 18384 net.cpp:129] Top shape: 100 160 28 28 (12544000)
I1015 16:49:49.505271 18384 net.cpp:137] Memory required for data: 171540400
I1015 16:49:49.505277 18384 layer_factory.hpp:77] Creating layer elu_cccp1
I1015 16:49:49.505283 18384 net.cpp:84] Creating Layer elu_cccp1
I1015 16:49:49.505286 18384 net.cpp:406] elu_cccp1 <- cccp1
I1015 16:49:49.505300 18384 net.cpp:380] elu_cccp1 -> elu_cccp1
I1015 16:49:49.505317 18384 net.cpp:122] Setting up elu_cccp1
I1015 16:49:49.505331 18384 net.cpp:129] Top shape: 100 160 28 28 (12544000)
I1015 16:49:49.505333 18384 net.cpp:137] Memory required for data: 221716400
I1015 16:49:49.505336 18384 layer_factory.hpp:77] Creating layer cccp2
I1015 16:49:49.505354 18384 net.cpp:84] Creating Layer cccp2
I1015 16:49:49.505358 18384 net.cpp:406] cccp2 <- elu_cccp1
I1015 16:49:49.505362 18384 net.cpp:380] cccp2 -> cccp2
I1015 16:49:49.506273 18384 net.cpp:122] Setting up cccp2
I1015 16:49:49.506291 18384 net.cpp:129] Top shape: 100 96 28 28 (7526400)
I1015 16:49:49.506294 18384 net.cpp:137] Memory required for data: 251822000
I1015 16:49:49.506301 18384 layer_factory.hpp:77] Creating layer elu_cccp2
I1015 16:49:49.506306 18384 net.cpp:84] Creating Layer elu_cccp2
I1015 16:49:49.506319 18384 net.cpp:406] elu_cccp2 <- cccp2
I1015 16:49:49.506323 18384 net.cpp:380] elu_cccp2 -> elu_cccp2
I1015 16:49:49.506341 18384 net.cpp:122] Setting up elu_cccp2
I1015 16:49:49.506356 18384 net.cpp:129] Top shape: 100 96 28 28 (7526400)
I1015 16:49:49.506357 18384 net.cpp:137] Memory required for data: 281927600
I1015 16:49:49.506359 18384 layer_factory.hpp:77] Creating layer pool1
I1015 16:49:49.506376 18384 net.cpp:84] Creating Layer pool1
I1015 16:49:49.506378 18384 net.cpp:406] pool1 <- elu_cccp2
I1015 16:49:49.506382 18384 net.cpp:380] pool1 -> pool1
I1015 16:49:49.506559 18384 net.cpp:122] Setting up pool1
I1015 16:49:49.506567 18384 net.cpp:129] Top shape: 100 96 14 14 (1881600)
I1015 16:49:49.506569 18384 net.cpp:137] Memory required for data: 289454000
I1015 16:49:49.506572 18384 layer_factory.hpp:77] Creating layer dropout1
I1015 16:49:49.506575 18384 net.cpp:84] Creating Layer dropout1
I1015 16:49:49.506578 18384 net.cpp:406] dropout1 <- pool1
I1015 16:49:49.506582 18384 net.cpp:380] dropout1 -> dropout1
I1015 16:49:49.506616 18384 net.cpp:122] Setting up dropout1
I1015 16:49:49.506620 18384 net.cpp:129] Top shape: 100 96 14 14 (1881600)
I1015 16:49:49.506623 18384 net.cpp:137] Memory required for data: 296980400
I1015 16:49:49.506625 18384 layer_factory.hpp:77] Creating layer conv2
I1015 16:49:49.506642 18384 net.cpp:84] Creating Layer conv2
I1015 16:49:49.506646 18384 net.cpp:406] conv2 <- dropout1
I1015 16:49:49.506650 18384 net.cpp:380] conv2 -> conv2
I1015 16:49:49.510576 18384 net.cpp:122] Setting up conv2
I1015 16:49:49.510587 18384 net.cpp:129] Top shape: 100 192 14 14 (3763200)
I1015 16:49:49.510601 18384 net.cpp:137] Memory required for data: 312033200
I1015 16:49:49.510606 18384 layer_factory.hpp:77] Creating layer elu_conv2
I1015 16:49:49.510610 18384 net.cpp:84] Creating Layer elu_conv2
I1015 16:49:49.510613 18384 net.cpp:406] elu_conv2 <- conv2
I1015 16:49:49.510617 18384 net.cpp:380] elu_conv2 -> elu_conv2
I1015 16:49:49.510643 18384 net.cpp:122] Setting up elu_conv2
I1015 16:49:49.510648 18384 net.cpp:129] Top shape: 100 192 14 14 (3763200)
I1015 16:49:49.510660 18384 net.cpp:137] Memory required for data: 327086000
I1015 16:49:49.510663 18384 layer_factory.hpp:77] Creating layer cccp3
I1015 16:49:49.510679 18384 net.cpp:84] Creating Layer cccp3
I1015 16:49:49.510681 18384 net.cpp:406] cccp3 <- elu_conv2
I1015 16:49:49.510685 18384 net.cpp:380] cccp3 -> cccp3
I1015 16:49:49.511693 18384 net.cpp:122] Setting up cccp3
I1015 16:49:49.511703 18384 net.cpp:129] Top shape: 100 192 14 14 (3763200)
I1015 16:49:49.511715 18384 net.cpp:137] Memory required for data: 342138800
I1015 16:49:49.511723 18384 layer_factory.hpp:77] Creating layer elu_cccp3
I1015 16:49:49.511729 18384 net.cpp:84] Creating Layer elu_cccp3
I1015 16:49:49.511732 18384 net.cpp:406] elu_cccp3 <- cccp3
I1015 16:49:49.511736 18384 net.cpp:380] elu_cccp3 -> elu_cccp3
I1015 16:49:49.511754 18384 net.cpp:122] Setting up elu_cccp3
I1015 16:49:49.511759 18384 net.cpp:129] Top shape: 100 192 14 14 (3763200)
I1015 16:49:49.511761 18384 net.cpp:137] Memory required for data: 357191600
I1015 16:49:49.511764 18384 layer_factory.hpp:77] Creating layer cccp4
I1015 16:49:49.511771 18384 net.cpp:84] Creating Layer cccp4
I1015 16:49:49.511775 18384 net.cpp:406] cccp4 <- elu_cccp3
I1015 16:49:49.511778 18384 net.cpp:380] cccp4 -> cccp4
I1015 16:49:49.512780 18384 net.cpp:122] Setting up cccp4
I1015 16:49:49.512790 18384 net.cpp:129] Top shape: 100 192 14 14 (3763200)
I1015 16:49:49.512802 18384 net.cpp:137] Memory required for data: 372244400
I1015 16:49:49.512807 18384 layer_factory.hpp:77] Creating layer elu_cccp4
I1015 16:49:49.512814 18384 net.cpp:84] Creating Layer elu_cccp4
I1015 16:49:49.512817 18384 net.cpp:406] elu_cccp4 <- cccp4
I1015 16:49:49.512828 18384 net.cpp:380] elu_cccp4 -> elu_cccp4
I1015 16:49:49.512857 18384 net.cpp:122] Setting up elu_cccp4
I1015 16:49:49.512862 18384 net.cpp:129] Top shape: 100 192 14 14 (3763200)
I1015 16:49:49.512874 18384 net.cpp:137] Memory required for data: 387297200
I1015 16:49:49.512876 18384 layer_factory.hpp:77] Creating layer pool2
I1015 16:49:49.512883 18384 net.cpp:84] Creating Layer pool2
I1015 16:49:49.512887 18384 net.cpp:406] pool2 <- elu_cccp4
I1015 16:49:49.512890 18384 net.cpp:380] pool2 -> pool2
I1015 16:49:49.513017 18384 net.cpp:122] Setting up pool2
I1015 16:49:49.513025 18384 net.cpp:129] Top shape: 100 192 7 7 (940800)
I1015 16:49:49.513027 18384 net.cpp:137] Memory required for data: 391060400
I1015 16:49:49.513029 18384 layer_factory.hpp:77] Creating layer dropout2
I1015 16:49:49.513034 18384 net.cpp:84] Creating Layer dropout2
I1015 16:49:49.513037 18384 net.cpp:406] dropout2 <- pool2
I1015 16:49:49.513041 18384 net.cpp:380] dropout2 -> dropout2
I1015 16:49:49.513065 18384 net.cpp:122] Setting up dropout2
I1015 16:49:49.513070 18384 net.cpp:129] Top shape: 100 192 7 7 (940800)
I1015 16:49:49.513073 18384 net.cpp:137] Memory required for data: 394823600
I1015 16:49:49.513075 18384 layer_factory.hpp:77] Creating layer conv3
I1015 16:49:49.513082 18384 net.cpp:84] Creating Layer conv3
I1015 16:49:49.513085 18384 net.cpp:406] conv3 <- dropout2
I1015 16:49:49.513089 18384 net.cpp:380] conv3 -> conv3
I1015 16:49:49.519543 18384 net.cpp:122] Setting up conv3
I1015 16:49:49.519572 18384 net.cpp:129] Top shape: 100 192 5 5 (480000)
I1015 16:49:49.519577 18384 net.cpp:137] Memory required for data: 396743600
I1015 16:49:49.519582 18384 layer_factory.hpp:77] Creating layer elu_conv3
I1015 16:49:49.519589 18384 net.cpp:84] Creating Layer elu_conv3
I1015 16:49:49.519593 18384 net.cpp:406] elu_conv3 <- conv3
I1015 16:49:49.519610 18384 net.cpp:380] elu_conv3 -> elu_conv3
I1015 16:49:49.519646 18384 net.cpp:122] Setting up elu_conv3
I1015 16:49:49.519662 18384 net.cpp:129] Top shape: 100 192 5 5 (480000)
I1015 16:49:49.519665 18384 net.cpp:137] Memory required for data: 398663600
I1015 16:49:49.519677 18384 layer_factory.hpp:77] Creating layer cccp5
I1015 16:49:49.519686 18384 net.cpp:84] Creating Layer cccp5
I1015 16:49:49.519701 18384 net.cpp:406] cccp5 <- elu_conv3
I1015 16:49:49.519706 18384 net.cpp:380] cccp5 -> cccp5
I1015 16:49:49.520743 18384 net.cpp:122] Setting up cccp5
I1015 16:49:49.520752 18384 net.cpp:129] Top shape: 100 192 5 5 (480000)
I1015 16:49:49.520756 18384 net.cpp:137] Memory required for data: 400583600
I1015 16:49:49.520759 18384 layer_factory.hpp:77] Creating layer elu_cccp5
I1015 16:49:49.520764 18384 net.cpp:84] Creating Layer elu_cccp5
I1015 16:49:49.520777 18384 net.cpp:406] elu_cccp5 <- cccp5
I1015 16:49:49.520782 18384 net.cpp:380] elu_cccp5 -> elu_cccp5
I1015 16:49:49.520799 18384 net.cpp:122] Setting up elu_cccp5
I1015 16:49:49.520804 18384 net.cpp:129] Top shape: 100 192 5 5 (480000)
I1015 16:49:49.520807 18384 net.cpp:137] Memory required for data: 402503600
I1015 16:49:49.520817 18384 layer_factory.hpp:77] Creating layer cccp6
I1015 16:49:49.520824 18384 net.cpp:84] Creating Layer cccp6
I1015 16:49:49.520838 18384 net.cpp:406] cccp6 <- elu_cccp5
I1015 16:49:49.520843 18384 net.cpp:380] cccp6 -> cccp6
I1015 16:49:49.521910 18384 net.cpp:122] Setting up cccp6
I1015 16:49:49.521935 18384 net.cpp:129] Top shape: 100 192 5 5 (480000)
I1015 16:49:49.521939 18384 net.cpp:137] Memory required for data: 404423600
I1015 16:49:49.521947 18384 layer_factory.hpp:77] Creating layer elu_cccp6
I1015 16:49:49.521952 18384 net.cpp:84] Creating Layer elu_cccp6
I1015 16:49:49.521955 18384 net.cpp:406] elu_cccp6 <- cccp6
I1015 16:49:49.521960 18384 net.cpp:380] elu_cccp6 -> elu_cccp6
I1015 16:49:49.521977 18384 net.cpp:122] Setting up elu_cccp6
I1015 16:49:49.521983 18384 net.cpp:129] Top shape: 100 192 5 5 (480000)
I1015 16:49:49.521996 18384 net.cpp:137] Memory required for data: 406343600
I1015 16:49:49.521997 18384 layer_factory.hpp:77] Creating layer pool3
I1015 16:49:49.522022 18384 net.cpp:84] Creating Layer pool3
I1015 16:49:49.522023 18384 net.cpp:406] pool3 <- elu_cccp6
I1015 16:49:49.522027 18384 net.cpp:380] pool3 -> pool3
I1015 16:49:49.522166 18384 net.cpp:122] Setting up pool3
I1015 16:49:49.522173 18384 net.cpp:129] Top shape: 100 192 2 2 (76800)
I1015 16:49:49.522186 18384 net.cpp:137] Memory required for data: 406650800
I1015 16:49:49.522187 18384 layer_factory.hpp:77] Creating layer dropout3
I1015 16:49:49.522192 18384 net.cpp:84] Creating Layer dropout3
I1015 16:49:49.522195 18384 net.cpp:406] dropout3 <- pool3
I1015 16:49:49.522199 18384 net.cpp:380] dropout3 -> dropout3
I1015 16:49:49.522233 18384 net.cpp:122] Setting up dropout3
I1015 16:49:49.522238 18384 net.cpp:129] Top shape: 100 192 2 2 (76800)
I1015 16:49:49.522240 18384 net.cpp:137] Memory required for data: 406958000
I1015 16:49:49.522253 18384 layer_factory.hpp:77] Creating layer conv4
I1015 16:49:49.522258 18384 net.cpp:84] Creating Layer conv4
I1015 16:49:49.522263 18384 net.cpp:406] conv4 <- dropout3
I1015 16:49:49.522266 18384 net.cpp:380] conv4 -> conv4
I1015 16:49:49.527382 18384 net.cpp:122] Setting up conv4
I1015 16:49:49.527395 18384 net.cpp:129] Top shape: 100 384 2 2 (153600)
I1015 16:49:49.527398 18384 net.cpp:137] Memory required for data: 407572400
I1015 16:49:49.527405 18384 layer_factory.hpp:77] Creating layer elu_conv4
I1015 16:49:49.527410 18384 net.cpp:84] Creating Layer elu_conv4
I1015 16:49:49.527413 18384 net.cpp:406] elu_conv4 <- conv4
I1015 16:49:49.527417 18384 net.cpp:380] elu_conv4 -> elu_conv4
I1015 16:49:49.527446 18384 net.cpp:122] Setting up elu_conv4
I1015 16:49:49.527462 18384 net.cpp:129] Top shape: 100 384 2 2 (153600)
I1015 16:49:49.527464 18384 net.cpp:137] Memory required for data: 408186800
I1015 16:49:49.527467 18384 layer_factory.hpp:77] Creating layer cccp7
I1015 16:49:49.527472 18384 net.cpp:84] Creating Layer cccp7
I1015 16:49:49.527475 18384 net.cpp:406] cccp7 <- elu_conv4
I1015 16:49:49.527479 18384 net.cpp:380] cccp7 -> cccp7
I1015 16:49:49.529520 18384 net.cpp:122] Setting up cccp7
I1015 16:49:49.529531 18384 net.cpp:129] Top shape: 100 384 2 2 (153600)
I1015 16:49:49.529544 18384 net.cpp:137] Memory required for data: 408801200
I1015 16:49:49.529548 18384 layer_factory.hpp:77] Creating layer elu_cccp7
I1015 16:49:49.529568 18384 net.cpp:84] Creating Layer elu_cccp7
I1015 16:49:49.529572 18384 net.cpp:406] elu_cccp7 <- cccp7
I1015 16:49:49.529587 18384 net.cpp:380] elu_cccp7 -> elu_cccp7
I1015 16:49:49.529628 18384 net.cpp:122] Setting up elu_cccp7
I1015 16:49:49.529631 18384 net.cpp:129] Top shape: 100 384 2 2 (153600)
I1015 16:49:49.529634 18384 net.cpp:137] Memory required for data: 409415600
I1015 16:49:49.529636 18384 layer_factory.hpp:77] Creating layer cccp8
I1015 16:49:49.529644 18384 net.cpp:84] Creating Layer cccp8
I1015 16:49:49.529646 18384 net.cpp:406] cccp8 <- elu_cccp7
I1015 16:49:49.529650 18384 net.cpp:380] cccp8 -> cccp8
I1015 16:49:49.531253 18384 net.cpp:122] Setting up cccp8
I1015 16:49:49.531265 18384 net.cpp:129] Top shape: 100 384 2 2 (153600)
I1015 16:49:49.531270 18384 net.cpp:137] Memory required for data: 410030000
I1015 16:49:49.531278 18384 layer_factory.hpp:77] Creating layer elu_cccp8
I1015 16:49:49.531288 18384 net.cpp:84] Creating Layer elu_cccp8
I1015 16:49:49.531294 18384 net.cpp:406] elu_cccp8 <- cccp8
I1015 16:49:49.531301 18384 net.cpp:380] elu_cccp8 -> elu_cccp8
I1015 16:49:49.531322 18384 net.cpp:122] Setting up elu_cccp8
I1015 16:49:49.531327 18384 net.cpp:129] Top shape: 100 384 2 2 (153600)
I1015 16:49:49.531329 18384 net.cpp:137] Memory required for data: 410644400
I1015 16:49:49.531332 18384 layer_factory.hpp:77] Creating layer pool4
I1015 16:49:49.531340 18384 net.cpp:84] Creating Layer pool4
I1015 16:49:49.531344 18384 net.cpp:406] pool4 <- elu_cccp8
I1015 16:49:49.531348 18384 net.cpp:380] pool4 -> pool4
I1015 16:49:49.531479 18384 net.cpp:122] Setting up pool4
I1015 16:49:49.531487 18384 net.cpp:129] Top shape: 100 384 1 1 (38400)
I1015 16:49:49.531492 18384 net.cpp:137] Memory required for data: 410798000
I1015 16:49:49.531508 18384 layer_factory.hpp:77] Creating layer dropout4
I1015 16:49:49.531517 18384 net.cpp:84] Creating Layer dropout4
I1015 16:49:49.531522 18384 net.cpp:406] dropout4 <- pool4
I1015 16:49:49.531530 18384 net.cpp:380] dropout4 -> dropout4
I1015 16:49:49.531566 18384 net.cpp:122] Setting up dropout4
I1015 16:49:49.531574 18384 net.cpp:129] Top shape: 100 384 1 1 (38400)
I1015 16:49:49.531579 18384 net.cpp:137] Memory required for data: 410951600
I1015 16:49:49.531584 18384 layer_factory.hpp:77] Creating layer fc1
I1015 16:49:49.531610 18384 net.cpp:84] Creating Layer fc1
I1015 16:49:49.531615 18384 net.cpp:406] fc1 <- dropout4
I1015 16:49:49.531621 18384 net.cpp:380] fc1 -> fc1
I1015 16:49:49.532583 18384 net.cpp:122] Setting up fc1
I1015 16:49:49.532590 18384 net.cpp:129] Top shape: 100 100 (10000)
I1015 16:49:49.532603 18384 net.cpp:137] Memory required for data: 410991600
I1015 16:49:49.532608 18384 layer_factory.hpp:77] Creating layer fc1_fc1_0_split
I1015 16:49:49.532614 18384 net.cpp:84] Creating Layer fc1_fc1_0_split
I1015 16:49:49.532619 18384 net.cpp:406] fc1_fc1_0_split <- fc1
I1015 16:49:49.532625 18384 net.cpp:380] fc1_fc1_0_split -> fc1_fc1_0_split_0
I1015 16:49:49.532634 18384 net.cpp:380] fc1_fc1_0_split -> fc1_fc1_0_split_1
I1015 16:49:49.532662 18384 net.cpp:122] Setting up fc1_fc1_0_split
I1015 16:49:49.532677 18384 net.cpp:129] Top shape: 100 100 (10000)
I1015 16:49:49.532680 18384 net.cpp:129] Top shape: 100 100 (10000)
I1015 16:49:49.532682 18384 net.cpp:137] Memory required for data: 411071600
I1015 16:49:49.532694 18384 layer_factory.hpp:77] Creating layer accuracy
I1015 16:49:49.532702 18384 net.cpp:84] Creating Layer accuracy
I1015 16:49:49.532707 18384 net.cpp:406] accuracy <- fc1_fc1_0_split_0
I1015 16:49:49.532711 18384 net.cpp:406] accuracy <- label_cifar_1_split_0
I1015 16:49:49.532716 18384 net.cpp:380] accuracy -> accuracy
…
