…
I1015 12:44:21.021863 18133 net.cpp:51] Initializing net from parameters: 
name: "CIFAR100_full"
state {
  phase: TRAIN
  level: 0
  stage: ""
}
layer {
  name: "cifar"
  type: "Data"
  top: "data"
  top: "label"
  include {
    phase: TRAIN
  }
  transform_param {
    mirror: true
    crop_size: 28
    mean_file: "/home/x306/caffe/xn/PENLU/data/cifar100/mean.binaryproto"
  }
  data_param {
    source: "/home/x306/caffe/xn/PENLU/data/cifar100/cifar100_train_lmdb"
    batch_size: 100
    backend: LMDB
  }
  image_data_param {
    shuffle: true
  }
}
layer {
  name: "conv1"
  type: "Convolution"
  bottom: "data"
  top: "conv1"
  param {
    lr_mult: 1
    decay_mult: 1
  }
  param {
    lr_mult: 2
    decay_mult: 0
  }
  convolution_param {
    num_output: 192
    pad: 2
    kernel_size: 5
    weight_filler {
      type: "xavier"
    }
    bias_filler {
      type: "constant"
      value: 0
    }
  }
}
layer {
  name: "penlu_conv1"
  type: "PENLU"
  bottom: "conv1"
  top: "penlu_conv1"
  param {
    lr_mult: 2
    decay_mult: 2
  }
  param {
    lr_mult: 2
    decay_mult: 2
  }
  param {
    lr_mult: 0
    decay_mult: 0
  }
  penlu_param {
    alpha_filler {
      type: "constant"
      value: 2
    }
    beta_filler {
      type: "constant"
      value: 1
    }
    eta_filler {
      type: "constant"
      value: 1
    }
  }
}
layer {
  name: "cccp1"
  type: "Convolution"
  bottom: "penlu_conv1"
  top: "cccp1"
  param {
    lr_mult: 1
    decay_mult: 1
  }
  param {
    lr_mult: 2
    decay_mult: 0
  }
  convolution_param {
    num_output: 160
    kernel_size: 1
    weight_filler {
      type: "xavier"
    }
    bias_filler {
      type: "constant"
      value: 0
    }
  }
}
layer {
  name: "penlu_cccp1"
  type: "PENLU"
  bottom: "cccp1"
  top: "penlu_cccp1"
  param {
    lr_mult: 2
    decay_mult: 2
  }
  param {
    lr_mult: 2
    decay_mult: 2
  }
  param {
    lr_mult: 0
    decay_mult: 0
  }
  penlu_param {
    alpha_filler {
      type: "constant"
      value: 2
    }
    beta_filler {
      type: "constant"
      value: 1
    }
    eta_filler {
      type: "constant"
      value: 1
    }
  }
}
layer {
  name: "cccp2"
  type: "Convolution"
  bottom: "penlu_cccp1"
  top: "cccp2"
  param {
    lr_mult: 1
    decay_mult: 1
  }
  param {
    lr_mult: 2
    decay_mult: 0
  }
  convolution_param {
    num_output: 96
    kernel_size: 1
    weight_filler {
      type: "xavier"
    }
    bias_filler {
      type: "constant"
      value: 0
    }
  }
}
layer {
  name: "penlu_cccp2"
  type: "PENLU"
  bottom: "cccp2"
  top: "penlu_cccp2"
  param {
    lr_mult: 2
    decay_mult: 2
  }
  param {
    lr_mult: 2
    decay_mult: 2
  }
  param {
    lr_mult: 0
    decay_mult: 0
  }
  penlu_param {
    alpha_filler {
      type: "constant"
      value: 2
    }
    beta_filler {
      type: "constant"
      value: 1
    }
    eta_filler {
      type: "constant"
      value: 1
    }
  }
}
layer {
  name: "pool1"
  type: "Pooling"
  bottom: "penlu_cccp2"
  top: "pool1"
  pooling_param {
    pool: AVE
    kernel_size: 3
    stride: 2
  }
}
layer {
  name: "dropout1"
  type: "Dropout"
  bottom: "pool1"
  top: "dropout1"
  dropout_param {
    dropout_ratio: 0.5
  }
}
layer {
  name: "conv2"
  type: "Convolution"
  bottom: "dropout1"
  top: "conv2"
  param {
    lr_mult: 1
    decay_mult: 1
  }
  param {
    lr_mult: 2
    decay_mult: 0
  }
  convolution_param {
    num_output: 192
    pad: 2
    kernel_size: 5
    weight_filler {
      type: "xavier"
    }
    bias_filler {
      type: "constant"
      value: 0
    }
  }
}
layer {
  name: "penlu_conv2"
  type: "PENLU"
  bottom: "conv2"
  top: "penlu_conv2"
  param {
    lr_mult: 2
    decay_mult: 2
  }
  param {
    lr_mult: 2
    decay_mult: 2
  }
  param {
    lr_mult: 0
    decay_mult: 0
  }
  penlu_param {
    alpha_filler {
      type: "constant"
      value: 2
    }
    beta_filler {
      type: "constant"
      value: 1
    }
    eta_filler {
      type: "constant"
      value: 1
    }
  }
}
layer {
  name: "cccp3"
  type: "Convolution"
  bottom: "penlu_conv2"
  top: "cccp3"
  param {
    lr_mult: 1
    decay_mult: 1
  }
  param {
    lr_mult: 2
    decay_mult: 0
  }
  convolution_param {
    num_output: 192
    kernel_size: 1
    weight_filler {
      type: "xavier"
    }
    bias_filler {
      type: "constant"
      value: 0
    }
  }
}
layer {
  name: "penlu_cccp3"
  type: "PENLU"
  bottom: "cccp3"
  top: "penlu_cccp3"
  param {
    lr_mult: 2
    decay_mult: 2
  }
  param {
    lr_mult: 2
    decay_mult: 2
  }
  param {
    lr_mult: 0
    decay_mult: 0
  }
  penlu_param {
    alpha_filler {
      type: "constant"
      value: 2
    }
    beta_filler {
      type: "constant"
      value: 1
    }
    eta_filler {
      type: "constant"
      value: 1
    }
  }
}
layer {
  name: "cccp4"
  type: "Convolution"
  bottom: "penlu_cccp3"
  top: "cccp4"
  param {
    lr_mult: 1
    decay_mult: 1
  }
  param {
    lr_mult: 2
    decay_mult: 0
  }
  convolution_param {
    num_output: 192
    kernel_size: 1
    weight_filler {
      type: "xavier"
    }
    bias_filler {
      type: "constant"
      value: 0
    }
  }
}
layer {
  name: "penlu_cccp4"
  type: "PENLU"
  bottom: "cccp4"
  top: "penlu_cccp4"
  param {
    lr_mult: 2
    decay_mult: 2
  }
  param {
    lr_mult: 2
    decay_mult: 2
  }
  param {
    lr_mult: 0
    decay_mult: 0
  }
  penlu_param {
    alpha_filler {
      type: "constant"
      value: 2
    }
    beta_filler {
      type: "constant"
      value: 1
    }
    eta_filler {
      type: "constant"
      value: 1
    }
  }
}
layer {
  name: "pool2"
  type: "Pooling"
  bottom: "penlu_cccp4"
  top: "pool2"
  pooling_param {
    pool: AVE
    kernel_size: 3
    stride: 2
  }
}
layer {
  name: "dropout2"
  type: "Dropout"
  bottom: "pool2"
  top: "dropout2"
  dropout_param {
    dropout_ratio: 0.5
  }
}
layer {
  name: "conv3"
  type: "Convolution"
  bottom: "dropout2"
  top: "conv3"
  param {
    lr_mult: 1
    decay_mult: 1
  }
  param {
    lr_mult: 2
    decay_mult: 0
  }
  convolution_param {
    num_output: 192
    pad: 1
    kernel_size: 5
    weight_filler {
      type: "xavier"
    }
    bias_filler {
      type: "constant"
      value: 0
    }
  }
}
layer {
  name: "penlu_conv3"
  type: "PENLU"
  bottom: "conv3"
  top: "penlu_conv3"
  param {
    lr_mult: 2
    decay_mult: 2
  }
  param {
    lr_mult: 2
    decay_mult: 2
  }
  param {
    lr_mult: 0
    decay_mult: 0
  }
  penlu_param {
    alpha_filler {
      type: "constant"
      value: 2
    }
    beta_filler {
      type: "constant"
      value: 1
    }
    eta_filler {
      type: "constant"
      value: 1
    }
  }
}
layer {
  name: "cccp5"
  type: "Convolution"
  bottom: "penlu_conv3"
  top: "cccp5"
  param {
    lr_mult: 1
    decay_mult: 1
  }
  param {
    lr_mult: 2
    decay_mult: 0
  }
  convolution_param {
    num_output: 192
    kernel_size: 1
    weight_filler {
      type: "xavier"
    }
    bias_filler {
      type: "constant"
      value: 0
    }
  }
}
layer {
  name: "penlu_cccp5"
  type: "PENLU"
  bottom: "cccp5"
  top: "penlu_cccp5"
  param {
    lr_mult: 2
    decay_mult: 2
  }
  param {
    lr_mult: 2
    decay_mult: 2
  }
  param {
    lr_mult: 0
    decay_mult: 0
  }
  penlu_param {
    alpha_filler {
      type: "constant"
      value: 2
    }
    beta_filler {
      type: "constant"
      value: 1
    }
    eta_filler {
      type: "constant"
      value: 1
    }
  }
}
layer {
  name: "cccp6"
  type: "Convolution"
  bottom: "penlu_cccp5"
  top: "cccp6"
  param {
    lr_mult: 1
    decay_mult: 1
  }
  param {
    lr_mult: 2
    decay_mult: 0
  }
  convolution_param {
    num_output: 192
    kernel_size: 1
    weight_filler {
      type: "xavier"
    }
    bias_filler {
      type: "constant"
      value: 0
    }
  }
}
layer {
  name: "penlu_cccp6"
  type: "PENLU"
  bottom: "cccp6"
  top: "penlu_cccp6"
  param {
    lr_mult: 2
    decay_mult: 2
  }
  param {
    lr_mult: 2
    decay_mult: 2
  }
  param {
    lr_mult: 0
    decay_mult: 0
  }
  penlu_param {
    alpha_filler {
      type: "constant"
      value: 2
    }
    beta_filler {
      type: "constant"
      value: 1
    }
    eta_filler {
      type: "constant"
      value: 1
    }
  }
}
layer {
  name: "pool3"
  type: "Pooling"
  bottom: "penlu_cccp6"
  top: "pool3"
  pooling_param {
    pool: AVE
    kernel_size: 3
    stride: 2
  }
}
layer {
  name: "dropout3"
  type: "Dropout"
  bottom: "pool3"
  top: "dropout3"
  dropout_param {
    dropout_ratio: 0.5
  }
}
layer {
  name: "conv4"
  type: "Convolution"
  bottom: "dropout3"
  top: "conv4"
  param {
    lr_mult: 1
    decay_mult: 1
  }
  param {
    lr_mult: 2
    decay_mult: 0
  }
  convolution_param {
    num_output: 384
    pad: 1
    kernel_size: 3
    weight_filler {
      type: "xavier"
    }
    bias_filler {
      type: "constant"
      value: 0
    }
  }
}
layer {
  name: "penlu_conv4"
  type: "PENLU"
  bottom: "conv4"
  top: "penlu_conv4"
  param {
    lr_mult: 2
    decay_mult: 2
  }
  param {
    lr_mult: 2
    decay_mult: 2
  }
  param {
    lr_mult: 0
    decay_mult: 0
  }
  penlu_param {
    alpha_filler {
      type: "constant"
      value: 2
    }
    beta_filler {
      type: "constant"
      value: 1
    }
    eta_filler {
      type: "constant"
      value: 1
    }
  }
}
layer {
  name: "cccp7"
  type: "Convolution"
  bottom: "penlu_conv4"
  top: "cccp7"
  param {
    lr_mult: 1
    decay_mult: 1
  }
  param {
    lr_mult: 2
    decay_mult: 0
  }
  convolution_param {
    num_output: 384
    kernel_size: 1
    weight_filler {
      type: "xavier"
    }
    bias_filler {
      type: "constant"
      value: 0
    }
  }
}
layer {
  name: "penlu_cccp7"
  type: "PENLU"
  bottom: "cccp7"
  top: "penlu_cccp7"
  param {
    lr_mult: 2
    decay_mult: 2
  }
  param {
    lr_mult: 2
    decay_mult: 2
  }
  param {
    lr_mult: 0
    decay_mult: 0
  }
  penlu_param {
    alpha_filler {
      type: "constant"
      value: 2
    }
    beta_filler {
      type: "constant"
      value: 1
    }
    eta_filler {
      type: "constant"
      value: 1
    }
  }
}
layer {
  name: "cccp8"
  type: "Convolution"
  bottom: "penlu_cccp7"
  top: "cccp8"
  param {
    lr_mult: 1
    decay_mult: 1
  }
  param {
    lr_mult: 2
    decay_mult: 0
  }
  convolution_param {
    num_output: 384
    kernel_size: 1
    weight_filler {
      type: "xavier"
    }
    bias_filler {
      type: "constant"
      value: 0
    }
  }
}
layer {
  name: "penlu_cccp8"
  type: "PENLU"
  bottom: "cccp8"
  top: "penlu_cccp8"
  param {
    lr_mult: 2
    decay_mult: 2
  }
  param {
    lr_mult: 2
    decay_mult: 2
  }
  param {
    lr_mult: 0
    decay_mult: 0
  }
  penlu_param {
    alpha_filler {
      type: "constant"
      value: 2
    }
    beta_filler {
      type: "constant"
      value: 1
    }
    eta_filler {
      type: "constant"
      value: 1
    }
  }
}
layer {
  name: "pool4"
  type: "Pooling"
  bottom: "penlu_cccp8"
  top: "pool4"
  pooling_param {
    pool: AVE
    kernel_size: 3
    stride: 2
  }
}
layer {
  name: "dropout4"
  type: "Dropout"
  bottom: "pool4"
  top: "dropout4"
  dropout_param {
    dropout_ratio: 0.5
  }
}
layer {
  name: "fc1"
  type: "InnerProduct"
  bottom: "dropout4"
  top: "fc1"
  param {
    lr_mult: 1
    decay_mult: 1
  }
  param {
    lr_mult: 2
    decay_mult: 0
  }
  inner_product_param {
    num_output: 100
    weight_filler {
      type: "gaussian"
      std: 0.01
    }
    bias_filler {
      type: "constant"
      value: 0
    }
  }
}
layer {
  name: "accuracy"
  type: "Accuracy"
  bottom: "fc1"
  bottom: "label"
  top: "accuracy"
}
layer {
  name: "loss"
  type: "SoftmaxWithLoss"
  bottom: "fc1"
  bottom: "label"
  top: "loss"
}
I1015 12:44:21.022078 18133 layer_factory.hpp:77] Creating layer cifar
I1015 12:44:21.022210 18133 db_lmdb.cpp:35] Opened lmdb /home/x306/caffe/xn/PENLU/data/cifar100/cifar100_train_lmdb
I1015 12:44:21.022231 18133 net.cpp:84] Creating Layer cifar
I1015 12:44:21.022238 18133 net.cpp:380] cifar -> data
I1015 12:44:21.022255 18133 net.cpp:380] cifar -> label
I1015 12:44:21.022264 18133 data_transformer.cpp:25] Loading mean file from: /home/x306/caffe/xn/PENLU/data/cifar100/mean.binaryproto
I1015 12:44:21.023741 18133 data_layer.cpp:45] output data size: 100,3,28,28
I1015 12:44:21.026793 18133 net.cpp:122] Setting up cifar
I1015 12:44:21.026808 18133 net.cpp:129] Top shape: 100 3 28 28 (235200)
I1015 12:44:21.026811 18133 net.cpp:129] Top shape: 100 (100)
I1015 12:44:21.026814 18133 net.cpp:137] Memory required for data: 941200
I1015 12:44:21.026820 18133 layer_factory.hpp:77] Creating layer label_cifar_1_split
I1015 12:44:21.026834 18133 net.cpp:84] Creating Layer label_cifar_1_split
I1015 12:44:21.026837 18133 net.cpp:406] label_cifar_1_split <- label
I1015 12:44:21.026845 18133 net.cpp:380] label_cifar_1_split -> label_cifar_1_split_0
I1015 12:44:21.026854 18133 net.cpp:380] label_cifar_1_split -> label_cifar_1_split_1
I1015 12:44:21.026885 18133 net.cpp:122] Setting up label_cifar_1_split
I1015 12:44:21.026890 18133 net.cpp:129] Top shape: 100 (100)
I1015 12:44:21.026893 18133 net.cpp:129] Top shape: 100 (100)
I1015 12:44:21.026895 18133 net.cpp:137] Memory required for data: 942000
I1015 12:44:21.026898 18133 layer_factory.hpp:77] Creating layer conv1
I1015 12:44:21.026909 18133 net.cpp:84] Creating Layer conv1
I1015 12:44:21.026913 18133 net.cpp:406] conv1 <- data
I1015 12:44:21.026917 18133 net.cpp:380] conv1 -> conv1
I1015 12:44:21.174041 18133 net.cpp:122] Setting up conv1
I1015 12:44:21.174064 18133 net.cpp:129] Top shape: 100 192 28 28 (15052800)
I1015 12:44:21.174067 18133 net.cpp:137] Memory required for data: 61153200
I1015 12:44:21.174082 18133 layer_factory.hpp:77] Creating layer penlu_conv1
I1015 12:44:21.174106 18133 net.cpp:84] Creating Layer penlu_conv1
I1015 12:44:21.174110 18133 net.cpp:406] penlu_conv1 <- conv1
I1015 12:44:21.174115 18133 net.cpp:380] penlu_conv1 -> penlu_conv1
I1015 12:44:21.174777 18133 net.cpp:122] Setting up penlu_conv1
I1015 12:44:21.174785 18133 net.cpp:129] Top shape: 100 192 28 28 (15052800)
I1015 12:44:21.174788 18133 net.cpp:137] Memory required for data: 121364400
I1015 12:44:21.174796 18133 layer_factory.hpp:77] Creating layer cccp1
I1015 12:44:21.174806 18133 net.cpp:84] Creating Layer cccp1
I1015 12:44:21.174809 18133 net.cpp:406] cccp1 <- penlu_conv1
I1015 12:44:21.174823 18133 net.cpp:380] cccp1 -> cccp1
I1015 12:44:21.176270 18133 net.cpp:122] Setting up cccp1
I1015 12:44:21.176280 18133 net.cpp:129] Top shape: 100 160 28 28 (12544000)
I1015 12:44:21.176283 18133 net.cpp:137] Memory required for data: 171540400
I1015 12:44:21.176288 18133 layer_factory.hpp:77] Creating layer penlu_cccp1
I1015 12:44:21.176295 18133 net.cpp:84] Creating Layer penlu_cccp1
I1015 12:44:21.176296 18133 net.cpp:406] penlu_cccp1 <- cccp1
I1015 12:44:21.176301 18133 net.cpp:380] penlu_cccp1 -> penlu_cccp1
I1015 12:44:21.176471 18133 net.cpp:122] Setting up penlu_cccp1
I1015 12:44:21.176477 18133 net.cpp:129] Top shape: 100 160 28 28 (12544000)
I1015 12:44:21.176479 18133 net.cpp:137] Memory required for data: 221716400
I1015 12:44:21.176496 18133 layer_factory.hpp:77] Creating layer cccp2
I1015 12:44:21.176503 18133 net.cpp:84] Creating Layer cccp2
I1015 12:44:21.176506 18133 net.cpp:406] cccp2 <- penlu_cccp1
I1015 12:44:21.176511 18133 net.cpp:380] cccp2 -> cccp2
I1015 12:44:21.177386 18133 net.cpp:122] Setting up cccp2
I1015 12:44:21.177397 18133 net.cpp:129] Top shape: 100 96 28 28 (7526400)
I1015 12:44:21.177399 18133 net.cpp:137] Memory required for data: 251822000
I1015 12:44:21.177424 18133 layer_factory.hpp:77] Creating layer penlu_cccp2
I1015 12:44:21.177433 18133 net.cpp:84] Creating Layer penlu_cccp2
I1015 12:44:21.177435 18133 net.cpp:406] penlu_cccp2 <- cccp2
I1015 12:44:21.177440 18133 net.cpp:380] penlu_cccp2 -> penlu_cccp2
I1015 12:44:21.177604 18133 net.cpp:122] Setting up penlu_cccp2
I1015 12:44:21.177610 18133 net.cpp:129] Top shape: 100 96 28 28 (7526400)
I1015 12:44:21.177613 18133 net.cpp:137] Memory required for data: 281927600
I1015 12:44:21.177628 18133 layer_factory.hpp:77] Creating layer pool1
I1015 12:44:21.177634 18133 net.cpp:84] Creating Layer pool1
I1015 12:44:21.177649 18133 net.cpp:406] pool1 <- penlu_cccp2
I1015 12:44:21.177652 18133 net.cpp:380] pool1 -> pool1
I1015 12:44:21.177809 18133 net.cpp:122] Setting up pool1
I1015 12:44:21.177816 18133 net.cpp:129] Top shape: 100 96 14 14 (1881600)
I1015 12:44:21.177819 18133 net.cpp:137] Memory required for data: 289454000
I1015 12:44:21.177831 18133 layer_factory.hpp:77] Creating layer dropout1
I1015 12:44:21.177836 18133 net.cpp:84] Creating Layer dropout1
I1015 12:44:21.177839 18133 net.cpp:406] dropout1 <- pool1
I1015 12:44:21.177858 18133 net.cpp:380] dropout1 -> dropout1
I1015 12:44:21.177896 18133 net.cpp:122] Setting up dropout1
I1015 12:44:21.177901 18133 net.cpp:129] Top shape: 100 96 14 14 (1881600)
I1015 12:44:21.177902 18133 net.cpp:137] Memory required for data: 296980400
I1015 12:44:21.177904 18133 layer_factory.hpp:77] Creating layer conv2
I1015 12:44:21.177911 18133 net.cpp:84] Creating Layer conv2
I1015 12:44:21.177914 18133 net.cpp:406] conv2 <- dropout1
I1015 12:44:21.177924 18133 net.cpp:380] conv2 -> conv2
I1015 12:44:21.181702 18133 net.cpp:122] Setting up conv2
I1015 12:44:21.181712 18133 net.cpp:129] Top shape: 100 192 14 14 (3763200)
I1015 12:44:21.181716 18133 net.cpp:137] Memory required for data: 312033200
I1015 12:44:21.181735 18133 layer_factory.hpp:77] Creating layer penlu_conv2
I1015 12:44:21.181740 18133 net.cpp:84] Creating Layer penlu_conv2
I1015 12:44:21.181744 18133 net.cpp:406] penlu_conv2 <- conv2
I1015 12:44:21.181749 18133 net.cpp:380] penlu_conv2 -> penlu_conv2
I1015 12:44:21.181887 18133 net.cpp:122] Setting up penlu_conv2
I1015 12:44:21.181893 18133 net.cpp:129] Top shape: 100 192 14 14 (3763200)
I1015 12:44:21.181896 18133 net.cpp:137] Memory required for data: 327086000
I1015 12:44:21.181900 18133 layer_factory.hpp:77] Creating layer cccp3
I1015 12:44:21.181908 18133 net.cpp:84] Creating Layer cccp3
I1015 12:44:21.181911 18133 net.cpp:406] cccp3 <- penlu_conv2
I1015 12:44:21.181931 18133 net.cpp:380] cccp3 -> cccp3
I1015 12:44:21.182935 18133 net.cpp:122] Setting up cccp3
I1015 12:44:21.182945 18133 net.cpp:129] Top shape: 100 192 14 14 (3763200)
I1015 12:44:21.182948 18133 net.cpp:137] Memory required for data: 342138800
I1015 12:44:21.182953 18133 layer_factory.hpp:77] Creating layer penlu_cccp3
I1015 12:44:21.182960 18133 net.cpp:84] Creating Layer penlu_cccp3
I1015 12:44:21.182963 18133 net.cpp:406] penlu_cccp3 <- cccp3
I1015 12:44:21.182967 18133 net.cpp:380] penlu_cccp3 -> penlu_cccp3
I1015 12:44:21.183084 18133 net.cpp:122] Setting up penlu_cccp3
I1015 12:44:21.183090 18133 net.cpp:129] Top shape: 100 192 14 14 (3763200)
I1015 12:44:21.183094 18133 net.cpp:137] Memory required for data: 357191600
I1015 12:44:21.183097 18133 layer_factory.hpp:77] Creating layer cccp4
I1015 12:44:21.183104 18133 net.cpp:84] Creating Layer cccp4
I1015 12:44:21.183107 18133 net.cpp:406] cccp4 <- penlu_cccp3
I1015 12:44:21.183112 18133 net.cpp:380] cccp4 -> cccp4
I1015 12:44:21.184095 18133 net.cpp:122] Setting up cccp4
I1015 12:44:21.184105 18133 net.cpp:129] Top shape: 100 192 14 14 (3763200)
I1015 12:44:21.184108 18133 net.cpp:137] Memory required for data: 372244400
I1015 12:44:21.184113 18133 layer_factory.hpp:77] Creating layer penlu_cccp4
I1015 12:44:21.184119 18133 net.cpp:84] Creating Layer penlu_cccp4
I1015 12:44:21.184123 18133 net.cpp:406] penlu_cccp4 <- cccp4
I1015 12:44:21.184128 18133 net.cpp:380] penlu_cccp4 -> penlu_cccp4
I1015 12:44:21.184263 18133 net.cpp:122] Setting up penlu_cccp4
I1015 12:44:21.184269 18133 net.cpp:129] Top shape: 100 192 14 14 (3763200)
I1015 12:44:21.184273 18133 net.cpp:137] Memory required for data: 387297200
I1015 12:44:21.184278 18133 layer_factory.hpp:77] Creating layer pool2
I1015 12:44:21.184283 18133 net.cpp:84] Creating Layer pool2
I1015 12:44:21.184286 18133 net.cpp:406] pool2 <- penlu_cccp4
I1015 12:44:21.184290 18133 net.cpp:380] pool2 -> pool2
I1015 12:44:21.184413 18133 net.cpp:122] Setting up pool2
I1015 12:44:21.184420 18133 net.cpp:129] Top shape: 100 192 7 7 (940800)
I1015 12:44:21.184423 18133 net.cpp:137] Memory required for data: 391060400
I1015 12:44:21.184425 18133 layer_factory.hpp:77] Creating layer dropout2
I1015 12:44:21.184429 18133 net.cpp:84] Creating Layer dropout2
I1015 12:44:21.184432 18133 net.cpp:406] dropout2 <- pool2
I1015 12:44:21.184437 18133 net.cpp:380] dropout2 -> dropout2
I1015 12:44:21.184460 18133 net.cpp:122] Setting up dropout2
I1015 12:44:21.184464 18133 net.cpp:129] Top shape: 100 192 7 7 (940800)
I1015 12:44:21.184466 18133 net.cpp:137] Memory required for data: 394823600
I1015 12:44:21.184469 18133 layer_factory.hpp:77] Creating layer conv3
I1015 12:44:21.184475 18133 net.cpp:84] Creating Layer conv3
I1015 12:44:21.184479 18133 net.cpp:406] conv3 <- dropout2
I1015 12:44:21.184482 18133 net.cpp:380] conv3 -> conv3
I1015 12:44:21.190986 18133 net.cpp:122] Setting up conv3
I1015 12:44:21.191005 18133 net.cpp:129] Top shape: 100 192 5 5 (480000)
I1015 12:44:21.191009 18133 net.cpp:137] Memory required for data: 396743600
I1015 12:44:21.191013 18133 layer_factory.hpp:77] Creating layer penlu_conv3
I1015 12:44:21.191023 18133 net.cpp:84] Creating Layer penlu_conv3
I1015 12:44:21.191027 18133 net.cpp:406] penlu_conv3 <- conv3
I1015 12:44:21.191043 18133 net.cpp:380] penlu_conv3 -> penlu_conv3
I1015 12:44:21.191164 18133 net.cpp:122] Setting up penlu_conv3
I1015 12:44:21.191169 18133 net.cpp:129] Top shape: 100 192 5 5 (480000)
I1015 12:44:21.191171 18133 net.cpp:137] Memory required for data: 398663600
I1015 12:44:21.191181 18133 layer_factory.hpp:77] Creating layer cccp5
I1015 12:44:21.191189 18133 net.cpp:84] Creating Layer cccp5
I1015 12:44:21.191190 18133 net.cpp:406] cccp5 <- penlu_conv3
I1015 12:44:21.191205 18133 net.cpp:380] cccp5 -> cccp5
I1015 12:44:21.192217 18133 net.cpp:122] Setting up cccp5
I1015 12:44:21.192227 18133 net.cpp:129] Top shape: 100 192 5 5 (480000)
I1015 12:44:21.192230 18133 net.cpp:137] Memory required for data: 400583600
I1015 12:44:21.192234 18133 layer_factory.hpp:77] Creating layer penlu_cccp5
I1015 12:44:21.192240 18133 net.cpp:84] Creating Layer penlu_cccp5
I1015 12:44:21.192243 18133 net.cpp:406] penlu_cccp5 <- cccp5
I1015 12:44:21.192258 18133 net.cpp:380] penlu_cccp5 -> penlu_cccp5
I1015 12:44:21.192380 18133 net.cpp:122] Setting up penlu_cccp5
I1015 12:44:21.192386 18133 net.cpp:129] Top shape: 100 192 5 5 (480000)
I1015 12:44:21.192389 18133 net.cpp:137] Memory required for data: 402503600
I1015 12:44:21.192402 18133 layer_factory.hpp:77] Creating layer cccp6
I1015 12:44:21.192409 18133 net.cpp:84] Creating Layer cccp6
I1015 12:44:21.192412 18133 net.cpp:406] cccp6 <- penlu_cccp5
I1015 12:44:21.192416 18133 net.cpp:380] cccp6 -> cccp6
I1015 12:44:21.193449 18133 net.cpp:122] Setting up cccp6
I1015 12:44:21.193459 18133 net.cpp:129] Top shape: 100 192 5 5 (480000)
I1015 12:44:21.193472 18133 net.cpp:137] Memory required for data: 404423600
I1015 12:44:21.193477 18133 layer_factory.hpp:77] Creating layer penlu_cccp6
I1015 12:44:21.193500 18133 net.cpp:84] Creating Layer penlu_cccp6
I1015 12:44:21.193503 18133 net.cpp:406] penlu_cccp6 <- cccp6
I1015 12:44:21.193507 18133 net.cpp:380] penlu_cccp6 -> penlu_cccp6
I1015 12:44:21.193635 18133 net.cpp:122] Setting up penlu_cccp6
I1015 12:44:21.193641 18133 net.cpp:129] Top shape: 100 192 5 5 (480000)
I1015 12:44:21.193645 18133 net.cpp:137] Memory required for data: 406343600
I1015 12:44:21.193658 18133 layer_factory.hpp:77] Creating layer pool3
I1015 12:44:21.193665 18133 net.cpp:84] Creating Layer pool3
I1015 12:44:21.193678 18133 net.cpp:406] pool3 <- penlu_cccp6
I1015 12:44:21.193682 18133 net.cpp:380] pool3 -> pool3
I1015 12:44:21.193822 18133 net.cpp:122] Setting up pool3
I1015 12:44:21.193830 18133 net.cpp:129] Top shape: 100 192 2 2 (76800)
I1015 12:44:21.193831 18133 net.cpp:137] Memory required for data: 406650800
I1015 12:44:21.193845 18133 layer_factory.hpp:77] Creating layer dropout3
I1015 12:44:21.193848 18133 net.cpp:84] Creating Layer dropout3
I1015 12:44:21.193852 18133 net.cpp:406] dropout3 <- pool3
I1015 12:44:21.193856 18133 net.cpp:380] dropout3 -> dropout3
I1015 12:44:21.193881 18133 net.cpp:122] Setting up dropout3
I1015 12:44:21.193886 18133 net.cpp:129] Top shape: 100 192 2 2 (76800)
I1015 12:44:21.193897 18133 net.cpp:137] Memory required for data: 406958000
I1015 12:44:21.193900 18133 layer_factory.hpp:77] Creating layer conv4
I1015 12:44:21.193922 18133 net.cpp:84] Creating Layer conv4
I1015 12:44:21.193934 18133 net.cpp:406] conv4 <- dropout3
I1015 12:44:21.193939 18133 net.cpp:380] conv4 -> conv4
I1015 12:44:21.198838 18133 net.cpp:122] Setting up conv4
I1015 12:44:21.198848 18133 net.cpp:129] Top shape: 100 384 2 2 (153600)
I1015 12:44:21.198853 18133 net.cpp:137] Memory required for data: 407572400
I1015 12:44:21.198868 18133 layer_factory.hpp:77] Creating layer penlu_conv4
I1015 12:44:21.198874 18133 net.cpp:84] Creating Layer penlu_conv4
I1015 12:44:21.198878 18133 net.cpp:406] penlu_conv4 <- conv4
I1015 12:44:21.198882 18133 net.cpp:380] penlu_conv4 -> penlu_conv4
I1015 12:44:21.198993 18133 net.cpp:122] Setting up penlu_conv4
I1015 12:44:21.198999 18133 net.cpp:129] Top shape: 100 384 2 2 (153600)
I1015 12:44:21.199002 18133 net.cpp:137] Memory required for data: 408186800
I1015 12:44:21.199007 18133 layer_factory.hpp:77] Creating layer cccp7
I1015 12:44:21.199013 18133 net.cpp:84] Creating Layer cccp7
I1015 12:44:21.199018 18133 net.cpp:406] cccp7 <- penlu_conv4
I1015 12:44:21.199020 18133 net.cpp:380] cccp7 -> cccp7
I1015 12:44:21.200577 18133 net.cpp:122] Setting up cccp7
I1015 12:44:21.200587 18133 net.cpp:129] Top shape: 100 384 2 2 (153600)
I1015 12:44:21.200589 18133 net.cpp:137] Memory required for data: 408801200
I1015 12:44:21.200594 18133 layer_factory.hpp:77] Creating layer penlu_cccp7
I1015 12:44:21.200599 18133 net.cpp:84] Creating Layer penlu_cccp7
I1015 12:44:21.200603 18133 net.cpp:406] penlu_cccp7 <- cccp7
I1015 12:44:21.200608 18133 net.cpp:380] penlu_cccp7 -> penlu_cccp7
I1015 12:44:21.200708 18133 net.cpp:122] Setting up penlu_cccp7
I1015 12:44:21.200713 18133 net.cpp:129] Top shape: 100 384 2 2 (153600)
I1015 12:44:21.200716 18133 net.cpp:137] Memory required for data: 409415600
I1015 12:44:21.200721 18133 layer_factory.hpp:77] Creating layer cccp8
I1015 12:44:21.200727 18133 net.cpp:84] Creating Layer cccp8
I1015 12:44:21.200731 18133 net.cpp:406] cccp8 <- penlu_cccp7
I1015 12:44:21.200734 18133 net.cpp:380] cccp8 -> cccp8
I1015 12:44:21.203276 18133 net.cpp:122] Setting up cccp8
I1015 12:44:21.203290 18133 net.cpp:129] Top shape: 100 384 2 2 (153600)
I1015 12:44:21.203292 18133 net.cpp:137] Memory required for data: 410030000
I1015 12:44:21.203297 18133 layer_factory.hpp:77] Creating layer penlu_cccp8
I1015 12:44:21.203315 18133 net.cpp:84] Creating Layer penlu_cccp8
I1015 12:44:21.203320 18133 net.cpp:406] penlu_cccp8 <- cccp8
I1015 12:44:21.203325 18133 net.cpp:380] penlu_cccp8 -> penlu_cccp8
I1015 12:44:21.203456 18133 net.cpp:122] Setting up penlu_cccp8
I1015 12:44:21.203461 18133 net.cpp:129] Top shape: 100 384 2 2 (153600)
I1015 12:44:21.203464 18133 net.cpp:137] Memory required for data: 410644400
I1015 12:44:21.203478 18133 layer_factory.hpp:77] Creating layer pool4
I1015 12:44:21.203500 18133 net.cpp:84] Creating Layer pool4
I1015 12:44:21.203503 18133 net.cpp:406] pool4 <- penlu_cccp8
I1015 12:44:21.203517 18133 net.cpp:380] pool4 -> pool4
I1015 12:44:21.203696 18133 net.cpp:122] Setting up pool4
I1015 12:44:21.203703 18133 net.cpp:129] Top shape: 100 384 1 1 (38400)
I1015 12:44:21.203706 18133 net.cpp:137] Memory required for data: 410798000
I1015 12:44:21.203742 18133 layer_factory.hpp:77] Creating layer dropout4
I1015 12:44:21.203748 18133 net.cpp:84] Creating Layer dropout4
I1015 12:44:21.203761 18133 net.cpp:406] dropout4 <- pool4
I1015 12:44:21.203783 18133 net.cpp:380] dropout4 -> dropout4
I1015 12:44:21.203848 18133 net.cpp:122] Setting up dropout4
I1015 12:44:21.203856 18133 net.cpp:129] Top shape: 100 384 1 1 (38400)
I1015 12:44:21.203871 18133 net.cpp:137] Memory required for data: 410951600
I1015 12:44:21.203876 18133 layer_factory.hpp:77] Creating layer fc1
I1015 12:44:21.203897 18133 net.cpp:84] Creating Layer fc1
I1015 12:44:21.203913 18133 net.cpp:406] fc1 <- dropout4
I1015 12:44:21.203929 18133 net.cpp:380] fc1 -> fc1
I1015 12:44:21.205199 18133 net.cpp:122] Setting up fc1
I1015 12:44:21.205211 18133 net.cpp:129] Top shape: 100 100 (10000)
I1015 12:44:21.205214 18133 net.cpp:137] Memory required for data: 410991600
I1015 12:44:21.205219 18133 layer_factory.hpp:77] Creating layer fc1_fc1_0_split
I1015 12:44:21.205225 18133 net.cpp:84] Creating Layer fc1_fc1_0_split
I1015 12:44:21.205227 18133 net.cpp:406] fc1_fc1_0_split <- fc1
I1015 12:44:21.205232 18133 net.cpp:380] fc1_fc1_0_split -> fc1_fc1_0_split_0
I1015 12:44:21.205238 18133 net.cpp:380] fc1_fc1_0_split -> fc1_fc1_0_split_1
I1015 12:44:21.205266 18133 net.cpp:122] Setting up fc1_fc1_0_split
I1015 12:44:21.205271 18133 net.cpp:129] Top shape: 100 100 (10000)
I1015 12:44:21.205274 18133 net.cpp:129] Top shape: 100 100 (10000)
I1015 12:44:21.205276 18133 net.cpp:137] Memory required for data: 411071600
I1015 12:44:21.205279 18133 layer_factory.hpp:77] Creating layer accuracy
I1015 12:44:21.205283 18133 net.cpp:84] Creating Layer accuracy
I1015 12:44:21.205286 18133 net.cpp:406] accuracy <- fc1_fc1_0_split_0
I1015 12:44:21.205289 18133 net.cpp:406] accuracy <- label_cifar_1_split_0
I1015 12:44:21.205293 18133 net.cpp:380] accuracy -> accuracy
…
