…
I1014 21:48:14.042934 17312 net.cpp:294] The NetState phase (0) differed from the phase (1) specified by a rule in layer cifar
I1014 21:48:14.043175 17312 net.cpp:51] Initializing net from parameters: 
name: "CIFAR10_full"
state {
  phase: TRAIN
  level: 0
  stage: ""
}
layer {
  name: "cifar"
  type: "Data"
  top: "data"
  top: "label"
  include {
    phase: TRAIN
  }
  transform_param {
    mirror: true
    crop_size: 28
    mean_file: "/home/x306/caffe/xn/PENLU/data/cifar100/mean.binaryproto"
  }
  data_param {
    source: "/home/x306/caffe/xn/PENLU/data/cifar100/cifar100_train_lmdb"
    batch_size: 100
    backend: LMDB
  }
  image_data_param {
    shuffle: true
  }
}
layer {
  name: "conv1"
  type: "Convolution"
  bottom: "data"
  top: "conv1"
  param {
    lr_mult: 1
    decay_mult: 1
  }
  param {
    lr_mult: 2
    decay_mult: 0
  }
  convolution_param {
    num_output: 192
    pad: 2
    kernel_size: 5
    weight_filler {
      type: "xavier"
    }
    bias_filler {
      type: "constant"
      value: 0
    }
  }
}
layer {
  name: "prelu_conv1"
  type: "PReLU"
  bottom: "conv1"
  top: "prelu_conv1"
  param {
    lr_mult: 1
    decay_mult: 0
  }
  prelu_param {
    filler {
      value: 0.25
    }
  }
}
layer {
  name: "cccp1"
  type: "Convolution"
  bottom: "prelu_conv1"
  top: "cccp1"
  param {
    lr_mult: 1
    decay_mult: 1
  }
  param {
    lr_mult: 2
    decay_mult: 0
  }
  convolution_param {
    num_output: 160
    kernel_size: 1
    weight_filler {
      type: "xavier"
    }
    bias_filler {
      type: "constant"
      value: 0
    }
  }
}
layer {
  name: "prelu_cccp1"
  type: "PReLU"
  bottom: "cccp1"
  top: "prelu_cccp1"
  param {
    lr_mult: 1
    decay_mult: 0
  }
  prelu_param {
    filler {
      value: 0.25
    }
  }
}
layer {
  name: "cccp2"
  type: "Convolution"
  bottom: "prelu_cccp1"
  top: "cccp2"
  param {
    lr_mult: 1
    decay_mult: 1
  }
  param {
    lr_mult: 2
    decay_mult: 0
  }
  convolution_param {
    num_output: 96
    kernel_size: 1
    weight_filler {
      type: "xavier"
    }
    bias_filler {
      type: "constant"
      value: 0
    }
  }
}
layer {
  name: "prelu_cccp2"
  type: "PReLU"
  bottom: "cccp2"
  top: "prelu_cccp2"
  param {
    lr_mult: 1
    decay_mult: 0
  }
  prelu_param {
    filler {
      value: 0.25
    }
  }
}
layer {
  name: "pool1"
  type: "Pooling"
  bottom: "prelu_cccp2"
  top: "pool1"
  pooling_param {
    pool: AVE
    kernel_size: 3
    stride: 2
  }
}
layer {
  name: "dropout1"
  type: "Dropout"
  bottom: "pool1"
  top: "dropout1"
  dropout_param {
    dropout_ratio: 0.5
  }
}
layer {
  name: "conv2"
  type: "Convolution"
  bottom: "dropout1"
  top: "conv2"
  param {
    lr_mult: 1
    decay_mult: 1
  }
  param {
    lr_mult: 2
    decay_mult: 0
  }
  convolution_param {
    num_output: 192
    pad: 2
    kernel_size: 5
    weight_filler {
      type: "xavier"
    }
    bias_filler {
      type: "constant"
      value: 0
    }
  }
}
layer {
  name: "prelu_conv2"
  type: "PReLU"
  bottom: "conv2"
  top: "prelu_conv2"
  param {
    lr_mult: 1
    decay_mult: 0
  }
  prelu_param {
    filler {
      value: 0.25
    }
  }
}
layer {
  name: "cccp3"
  type: "Convolution"
  bottom: "prelu_conv2"
  top: "cccp3"
  param {
    lr_mult: 1
    decay_mult: 1
  }
  param {
    lr_mult: 2
    decay_mult: 0
  }
  convolution_param {
    num_output: 192
    kernel_size: 1
    weight_filler {
      type: "xavier"
    }
    bias_filler {
      type: "constant"
      value: 0
    }
  }
}
layer {
  name: "prelu_cccp3"
  type: "PReLU"
  bottom: "cccp3"
  top: "prelu_cccp3"
  param {
    lr_mult: 1
    decay_mult: 0
  }
  prelu_param {
    filler {
      value: 0.25
    }
  }
}
layer {
  name: "cccp4"
  type: "Convolution"
  bottom: "prelu_cccp3"
  top: "cccp4"
  param {
    lr_mult: 1
    decay_mult: 1
  }
  param {
    lr_mult: 2
    decay_mult: 0
  }
  convolution_param {
    num_output: 192
    kernel_size: 1
    weight_filler {
      type: "xavier"
    }
    bias_filler {
      type: "constant"
      value: 0
    }
  }
}
layer {
  name: "prelu_cccp4"
  type: "PReLU"
  bottom: "cccp4"
  top: "prelu_cccp4"
  param {
    lr_mult: 1
    decay_mult: 0
  }
  prelu_param {
    filler {
      value: 0.25
    }
  }
}
layer {
  name: "pool2"
  type: "Pooling"
  bottom: "prelu_cccp4"
  top: "pool2"
  pooling_param {
    pool: AVE
    kernel_size: 3
    stride: 2
  }
}
layer {
  name: "dropout2"
  type: "Dropout"
  bottom: "pool2"
  top: "dropout2"
  dropout_param {
    dropout_ratio: 0.5
  }
}
layer {
  name: "conv3"
  type: "Convolution"
  bottom: "dropout2"
  top: "conv3"
  param {
    lr_mult: 1
    decay_mult: 1
  }
  param {
    lr_mult: 2
    decay_mult: 0
  }
  convolution_param {
    num_output: 192
    pad: 1
    kernel_size: 5
    weight_filler {
      type: "xavier"
    }
    bias_filler {
      type: "constant"
      value: 0
    }
  }
}
layer {
  name: "prelu_conv3"
  type: "PReLU"
  bottom: "conv3"
  top: "prelu_conv3"
  param {
    lr_mult: 1
    decay_mult: 0
  }
  prelu_param {
    filler {
      value: 0.25
    }
  }
}
layer {
  name: "cccp5"
  type: "Convolution"
  bottom: "prelu_conv3"
  top: "cccp5"
  param {
    lr_mult: 1
    decay_mult: 1
  }
  param {
    lr_mult: 2
    decay_mult: 0
  }
  convolution_param {
    num_output: 192
    kernel_size: 1
    weight_filler {
      type: "xavier"
    }
    bias_filler {
      type: "constant"
      value: 0
    }
  }
}
layer {
  name: "prelu_cccp5"
  type: "PReLU"
  bottom: "cccp5"
  top: "prelu_cccp5"
  param {
    lr_mult: 1
    decay_mult: 0
  }
  prelu_param {
    filler {
      value: 0.25
    }
  }
}
layer {
  name: "cccp6"
  type: "Convolution"
  bottom: "prelu_cccp5"
  top: "cccp6"
  param {
    lr_mult: 1
    decay_mult: 1
  }
  param {
    lr_mult: 2
    decay_mult: 0
  }
  convolution_param {
    num_output: 192
    kernel_size: 1
    weight_filler {
      type: "xavier"
    }
    bias_filler {
      type: "constant"
      value: 0
    }
  }
}
layer {
  name: "prelu_cccp6"
  type: "PReLU"
  bottom: "cccp6"
  top: "prelu_cccp6"
  param {
    lr_mult: 1
    decay_mult: 0
  }
  prelu_param {
    filler {
      value: 0.25
    }
  }
}
layer {
  name: "pool3"
  type: "Pooling"
  bottom: "prelu_cccp6"
  top: "pool3"
  pooling_param {
    pool: AVE
    kernel_size: 3
    stride: 2
  }
}
layer {
  name: "dropout3"
  type: "Dropout"
  bottom: "pool3"
  top: "dropout3"
  dropout_param {
    dropout_ratio: 0.5
  }
}
layer {
  name: "conv4"
  type: "Convolution"
  bottom: "dropout3"
  top: "conv4"
  param {
    lr_mult: 1
    decay_mult: 1
  }
  param {
    lr_mult: 2
    decay_mult: 0
  }
  convolution_param {
    num_output: 384
    pad: 1
    kernel_size: 3
    weight_filler {
      type: "xavier"
    }
    bias_filler {
      type: "constant"
      value: 0
    }
  }
}
layer {
  name: "prelu_conv4"
  type: "PReLU"
  bottom: "conv4"
  top: "prelu_conv4"
  param {
    lr_mult: 1
    decay_mult: 0
  }
  prelu_param {
    filler {
      value: 0.25
    }
  }
}
layer {
  name: "cccp7"
  type: "Convolution"
  bottom: "prelu_conv4"
  top: "cccp7"
  param {
    lr_mult: 1
    decay_mult: 1
  }
  param {
    lr_mult: 2
    decay_mult: 0
  }
  convolution_param {
    num_output: 384
    kernel_size: 1
    weight_filler {
      type: "xavier"
    }
    bias_filler {
      type: "constant"
      value: 0
    }
  }
}
layer {
  name: "prelu_cccp7"
  type: "PReLU"
  bottom: "cccp7"
  top: "prelu_cccp7"
  param {
    lr_mult: 1
    decay_mult: 0
  }
  prelu_param {
    filler {
      value: 0.25
    }
  }
}
layer {
  name: "cccp8"
  type: "Convolution"
  bottom: "prelu_cccp7"
  top: "cccp8"
  param {
    lr_mult: 1
    decay_mult: 1
  }
  param {
    lr_mult: 2
    decay_mult: 0
  }
  convolution_param {
    num_output: 384
    kernel_size: 1
    weight_filler {
      type: "xavier"
    }
    bias_filler {
      type: "constant"
      value: 0
    }
  }
}
layer {
  name: "prelu_cccp8"
  type: "PReLU"
  bottom: "cccp8"
  top: "prelu_cccp8"
  param {
    lr_mult: 1
    decay_mult: 0
  }
  prelu_param {
    filler {
      value: 0.25
    }
  }
}
layer {
  name: "pool4"
  type: "Pooling"
  bottom: "prelu_cccp8"
  top: "pool4"
  pooling_param {
    pool: AVE
    kernel_size: 3
    stride: 2
  }
}
layer {
  name: "dropout4"
  type: "Dropout"
  bottom: "pool4"
  top: "dropout4"
  dropout_param {
    dropout_ratio: 0.5
  }
}
layer {
  name: "fc1"
  type: "InnerProduct"
  bottom: "dropout4"
  top: "fc1"
  param {
    lr_mult: 1
    decay_mult: 1
  }
  param {
    lr_mult: 2
    decay_mult: 0
  }
  inner_product_param {
    num_output: 100
    weight_filler {
      type: "gaussian"
      std: 0.01
    }
    bias_filler {
      type: "constant"
      value: 0
    }
  }
}
layer {
  name: "accuracy"
  type: "Accuracy"
  bottom: "fc1"
  bottom: "label"
  top: "accuracy"
}
layer {
  name: "loss"
  type: "SoftmaxWithLoss"
  bottom: "fc1"
  bottom: "label"
  top: "loss"
}
I1014 21:48:14.043365 17312 layer_factory.hpp:77] Creating layer cifar
I1014 21:48:14.043448 17312 db_lmdb.cpp:35] Opened lmdb /home/x306/caffe/xn/PENLU/data/cifar100/cifar100_train_lmdb
I1014 21:48:14.043483 17312 net.cpp:84] Creating Layer cifar
I1014 21:48:14.043491 17312 net.cpp:380] cifar -> data
I1014 21:48:14.043515 17312 net.cpp:380] cifar -> label
I1014 21:48:14.043531 17312 data_transformer.cpp:25] Loading mean file from: /home/x306/caffe/xn/PENLU/data/cifar100/mean.binaryproto
I1014 21:48:14.045048 17312 data_layer.cpp:45] output data size: 100,3,28,28
I1014 21:48:14.077380 17312 net.cpp:122] Setting up cifar
I1014 21:48:14.077420 17312 net.cpp:129] Top shape: 100 3 28 28 (235200)
I1014 21:48:14.077428 17312 net.cpp:129] Top shape: 100 (100)
I1014 21:48:14.077432 17312 net.cpp:137] Memory required for data: 941200
I1014 21:48:14.077442 17312 layer_factory.hpp:77] Creating layer label_cifar_1_split
I1014 21:48:14.077466 17312 net.cpp:84] Creating Layer label_cifar_1_split
I1014 21:48:14.077483 17312 net.cpp:406] label_cifar_1_split <- label
I1014 21:48:14.077509 17312 net.cpp:380] label_cifar_1_split -> label_cifar_1_split_0
I1014 21:48:14.077530 17312 net.cpp:380] label_cifar_1_split -> label_cifar_1_split_1
I1014 21:48:14.077611 17312 net.cpp:122] Setting up label_cifar_1_split
I1014 21:48:14.077620 17312 net.cpp:129] Top shape: 100 (100)
I1014 21:48:14.077625 17312 net.cpp:129] Top shape: 100 (100)
I1014 21:48:14.077638 17312 net.cpp:137] Memory required for data: 942000
I1014 21:48:14.077643 17312 layer_factory.hpp:77] Creating layer conv1
I1014 21:48:14.077661 17312 net.cpp:84] Creating Layer conv1
I1014 21:48:14.077675 17312 net.cpp:406] conv1 <- data
I1014 21:48:14.077692 17312 net.cpp:380] conv1 -> conv1
I1014 21:48:14.502481 17312 net.cpp:122] Setting up conv1
I1014 21:48:14.502514 17312 net.cpp:129] Top shape: 100 192 28 28 (15052800)
I1014 21:48:14.502518 17312 net.cpp:137] Memory required for data: 61153200
I1014 21:48:14.502533 17312 layer_factory.hpp:77] Creating layer prelu_conv1
I1014 21:48:14.502545 17312 net.cpp:84] Creating Layer prelu_conv1
I1014 21:48:14.502552 17312 net.cpp:406] prelu_conv1 <- conv1
I1014 21:48:14.502557 17312 net.cpp:380] prelu_conv1 -> prelu_conv1
I1014 21:48:14.503213 17312 net.cpp:122] Setting up prelu_conv1
I1014 21:48:14.503223 17312 net.cpp:129] Top shape: 100 192 28 28 (15052800)
I1014 21:48:14.503237 17312 net.cpp:137] Memory required for data: 121364400
I1014 21:48:14.503242 17312 layer_factory.hpp:77] Creating layer cccp1
I1014 21:48:14.503252 17312 net.cpp:84] Creating Layer cccp1
I1014 21:48:14.503262 17312 net.cpp:406] cccp1 <- prelu_conv1
I1014 21:48:14.503288 17312 net.cpp:380] cccp1 -> cccp1
I1014 21:48:14.508682 17312 net.cpp:122] Setting up cccp1
I1014 21:48:14.508692 17312 net.cpp:129] Top shape: 100 160 28 28 (12544000)
I1014 21:48:14.508705 17312 net.cpp:137] Memory required for data: 171540400
I1014 21:48:14.508713 17312 layer_factory.hpp:77] Creating layer prelu_cccp1
I1014 21:48:14.508719 17312 net.cpp:84] Creating Layer prelu_cccp1
I1014 21:48:14.508721 17312 net.cpp:406] prelu_cccp1 <- cccp1
I1014 21:48:14.508725 17312 net.cpp:380] prelu_cccp1 -> prelu_cccp1
I1014 21:48:14.508867 17312 net.cpp:122] Setting up prelu_cccp1
I1014 21:48:14.508874 17312 net.cpp:129] Top shape: 100 160 28 28 (12544000)
I1014 21:48:14.508879 17312 net.cpp:137] Memory required for data: 221716400
I1014 21:48:14.508894 17312 layer_factory.hpp:77] Creating layer cccp2
I1014 21:48:14.508908 17312 net.cpp:84] Creating Layer cccp2
I1014 21:48:14.508913 17312 net.cpp:406] cccp2 <- prelu_cccp1
I1014 21:48:14.508920 17312 net.cpp:380] cccp2 -> cccp2
I1014 21:48:14.522096 17312 net.cpp:122] Setting up cccp2
I1014 21:48:14.522109 17312 net.cpp:129] Top shape: 100 96 28 28 (7526400)
I1014 21:48:14.522114 17312 net.cpp:137] Memory required for data: 251822000
I1014 21:48:14.522132 17312 layer_factory.hpp:77] Creating layer prelu_cccp2
I1014 21:48:14.522141 17312 net.cpp:84] Creating Layer prelu_cccp2
I1014 21:48:14.522147 17312 net.cpp:406] prelu_cccp2 <- cccp2
I1014 21:48:14.522156 17312 net.cpp:380] prelu_cccp2 -> prelu_cccp2
I1014 21:48:14.522284 17312 net.cpp:122] Setting up prelu_cccp2
I1014 21:48:14.522292 17312 net.cpp:129] Top shape: 100 96 28 28 (7526400)
I1014 21:48:14.522296 17312 net.cpp:137] Memory required for data: 281927600
I1014 21:48:14.522316 17312 layer_factory.hpp:77] Creating layer pool1
I1014 21:48:14.522326 17312 net.cpp:84] Creating Layer pool1
I1014 21:48:14.522331 17312 net.cpp:406] pool1 <- prelu_cccp2
I1014 21:48:14.522338 17312 net.cpp:380] pool1 -> pool1
I1014 21:48:14.526242 17312 net.cpp:122] Setting up pool1
I1014 21:48:14.526253 17312 net.cpp:129] Top shape: 100 96 14 14 (1881600)
I1014 21:48:14.526257 17312 net.cpp:137] Memory required for data: 289454000
I1014 21:48:14.526273 17312 layer_factory.hpp:77] Creating layer dropout1
I1014 21:48:14.526280 17312 net.cpp:84] Creating Layer dropout1
I1014 21:48:14.526286 17312 net.cpp:406] dropout1 <- pool1
I1014 21:48:14.526293 17312 net.cpp:380] dropout1 -> dropout1
I1014 21:48:14.526329 17312 net.cpp:122] Setting up dropout1
I1014 21:48:14.526336 17312 net.cpp:129] Top shape: 100 96 14 14 (1881600)
I1014 21:48:14.526340 17312 net.cpp:137] Memory required for data: 296980400
I1014 21:48:14.526345 17312 layer_factory.hpp:77] Creating layer conv2
I1014 21:48:14.526357 17312 net.cpp:84] Creating Layer conv2
I1014 21:48:14.526362 17312 net.cpp:406] conv2 <- dropout1
I1014 21:48:14.526371 17312 net.cpp:380] conv2 -> conv2
I1014 21:48:14.538177 17312 net.cpp:122] Setting up conv2
I1014 21:48:14.538193 17312 net.cpp:129] Top shape: 100 192 14 14 (3763200)
I1014 21:48:14.538198 17312 net.cpp:137] Memory required for data: 312033200
I1014 21:48:14.538218 17312 layer_factory.hpp:77] Creating layer prelu_conv2
I1014 21:48:14.538231 17312 net.cpp:84] Creating Layer prelu_conv2
I1014 21:48:14.538236 17312 net.cpp:406] prelu_conv2 <- conv2
I1014 21:48:14.538247 17312 net.cpp:380] prelu_conv2 -> prelu_conv2
I1014 21:48:14.538359 17312 net.cpp:122] Setting up prelu_conv2
I1014 21:48:14.538367 17312 net.cpp:129] Top shape: 100 192 14 14 (3763200)
I1014 21:48:14.538372 17312 net.cpp:137] Memory required for data: 327086000
I1014 21:48:14.538388 17312 layer_factory.hpp:77] Creating layer cccp3
I1014 21:48:14.538403 17312 net.cpp:84] Creating Layer cccp3
I1014 21:48:14.538408 17312 net.cpp:406] cccp3 <- prelu_conv2
I1014 21:48:14.538414 17312 net.cpp:380] cccp3 -> cccp3
I1014 21:48:14.548566 17312 net.cpp:122] Setting up cccp3
I1014 21:48:14.548578 17312 net.cpp:129] Top shape: 100 192 14 14 (3763200)
I1014 21:48:14.548583 17312 net.cpp:137] Memory required for data: 342138800
I1014 21:48:14.548600 17312 layer_factory.hpp:77] Creating layer prelu_cccp3
I1014 21:48:14.548640 17312 net.cpp:84] Creating Layer prelu_cccp3
I1014 21:48:14.548647 17312 net.cpp:406] prelu_cccp3 <- cccp3
I1014 21:48:14.548655 17312 net.cpp:380] prelu_cccp3 -> prelu_cccp3
I1014 21:48:14.548770 17312 net.cpp:122] Setting up prelu_cccp3
I1014 21:48:14.548779 17312 net.cpp:129] Top shape: 100 192 14 14 (3763200)
I1014 21:48:14.548794 17312 net.cpp:137] Memory required for data: 357191600
I1014 21:48:14.548800 17312 layer_factory.hpp:77] Creating layer cccp4
I1014 21:48:14.548813 17312 net.cpp:84] Creating Layer cccp4
I1014 21:48:14.548818 17312 net.cpp:406] cccp4 <- prelu_cccp3
I1014 21:48:14.548825 17312 net.cpp:380] cccp4 -> cccp4
I1014 21:48:14.555403 17312 net.cpp:122] Setting up cccp4
I1014 21:48:14.555415 17312 net.cpp:129] Top shape: 100 192 14 14 (3763200)
I1014 21:48:14.555420 17312 net.cpp:137] Memory required for data: 372244400
I1014 21:48:14.555431 17312 layer_factory.hpp:77] Creating layer prelu_cccp4
I1014 21:48:14.555441 17312 net.cpp:84] Creating Layer prelu_cccp4
I1014 21:48:14.555446 17312 net.cpp:406] prelu_cccp4 <- cccp4
I1014 21:48:14.555454 17312 net.cpp:380] prelu_cccp4 -> prelu_cccp4
I1014 21:48:14.555541 17312 net.cpp:122] Setting up prelu_cccp4
I1014 21:48:14.555548 17312 net.cpp:129] Top shape: 100 192 14 14 (3763200)
I1014 21:48:14.555552 17312 net.cpp:137] Memory required for data: 387297200
I1014 21:48:14.555559 17312 layer_factory.hpp:77] Creating layer pool2
I1014 21:48:14.555570 17312 net.cpp:84] Creating Layer pool2
I1014 21:48:14.555575 17312 net.cpp:406] pool2 <- prelu_cccp4
I1014 21:48:14.555582 17312 net.cpp:380] pool2 -> pool2
I1014 21:48:14.557032 17312 net.cpp:122] Setting up pool2
I1014 21:48:14.557041 17312 net.cpp:129] Top shape: 100 192 7 7 (940800)
I1014 21:48:14.557045 17312 net.cpp:137] Memory required for data: 391060400
I1014 21:48:14.557051 17312 layer_factory.hpp:77] Creating layer dropout2
I1014 21:48:14.557060 17312 net.cpp:84] Creating Layer dropout2
I1014 21:48:14.557065 17312 net.cpp:406] dropout2 <- pool2
I1014 21:48:14.557072 17312 net.cpp:380] dropout2 -> dropout2
I1014 21:48:14.557101 17312 net.cpp:122] Setting up dropout2
I1014 21:48:14.557108 17312 net.cpp:129] Top shape: 100 192 7 7 (940800)
I1014 21:48:14.557113 17312 net.cpp:137] Memory required for data: 394823600
I1014 21:48:14.557118 17312 layer_factory.hpp:77] Creating layer conv3
I1014 21:48:14.557129 17312 net.cpp:84] Creating Layer conv3
I1014 21:48:14.557134 17312 net.cpp:406] conv3 <- dropout2
I1014 21:48:14.557152 17312 net.cpp:380] conv3 -> conv3
I1014 21:48:14.566144 17312 net.cpp:122] Setting up conv3
I1014 21:48:14.566162 17312 net.cpp:129] Top shape: 100 192 5 5 (480000)
I1014 21:48:14.566166 17312 net.cpp:137] Memory required for data: 396743600
I1014 21:48:14.566184 17312 layer_factory.hpp:77] Creating layer prelu_conv3
I1014 21:48:14.566196 17312 net.cpp:84] Creating Layer prelu_conv3
I1014 21:48:14.566202 17312 net.cpp:406] prelu_conv3 <- conv3
I1014 21:48:14.566212 17312 net.cpp:380] prelu_conv3 -> prelu_conv3
I1014 21:48:14.566303 17312 net.cpp:122] Setting up prelu_conv3
I1014 21:48:14.566310 17312 net.cpp:129] Top shape: 100 192 5 5 (480000)
I1014 21:48:14.566314 17312 net.cpp:137] Memory required for data: 398663600
I1014 21:48:14.566321 17312 layer_factory.hpp:77] Creating layer cccp5
I1014 21:48:14.566334 17312 net.cpp:84] Creating Layer cccp5
I1014 21:48:14.566339 17312 net.cpp:406] cccp5 <- prelu_conv3
I1014 21:48:14.566346 17312 net.cpp:380] cccp5 -> cccp5
I1014 21:48:14.573612 17312 net.cpp:122] Setting up cccp5
I1014 21:48:14.573624 17312 net.cpp:129] Top shape: 100 192 5 5 (480000)
I1014 21:48:14.573629 17312 net.cpp:137] Memory required for data: 400583600
I1014 21:48:14.573647 17312 layer_factory.hpp:77] Creating layer prelu_cccp5
I1014 21:48:14.573657 17312 net.cpp:84] Creating Layer prelu_cccp5
I1014 21:48:14.573662 17312 net.cpp:406] prelu_cccp5 <- cccp5
I1014 21:48:14.573670 17312 net.cpp:380] prelu_cccp5 -> prelu_cccp5
I1014 21:48:14.573745 17312 net.cpp:122] Setting up prelu_cccp5
I1014 21:48:14.573750 17312 net.cpp:129] Top shape: 100 192 5 5 (480000)
I1014 21:48:14.573765 17312 net.cpp:137] Memory required for data: 402503600
I1014 21:48:14.573770 17312 layer_factory.hpp:77] Creating layer cccp6
I1014 21:48:14.573781 17312 net.cpp:84] Creating Layer cccp6
I1014 21:48:14.573786 17312 net.cpp:406] cccp6 <- prelu_cccp5
I1014 21:48:14.573791 17312 net.cpp:380] cccp6 -> cccp6
I1014 21:48:14.580451 17312 net.cpp:122] Setting up cccp6
I1014 21:48:14.580473 17312 net.cpp:129] Top shape: 100 192 5 5 (480000)
I1014 21:48:14.580478 17312 net.cpp:137] Memory required for data: 404423600
I1014 21:48:14.580485 17312 layer_factory.hpp:77] Creating layer prelu_cccp6
I1014 21:48:14.580507 17312 net.cpp:84] Creating Layer prelu_cccp6
I1014 21:48:14.580513 17312 net.cpp:406] prelu_cccp6 <- cccp6
I1014 21:48:14.580518 17312 net.cpp:380] prelu_cccp6 -> prelu_cccp6
I1014 21:48:14.580615 17312 net.cpp:122] Setting up prelu_cccp6
I1014 21:48:14.580624 17312 net.cpp:129] Top shape: 100 192 5 5 (480000)
I1014 21:48:14.580638 17312 net.cpp:137] Memory required for data: 406343600
I1014 21:48:14.580643 17312 layer_factory.hpp:77] Creating layer pool3
I1014 21:48:14.580651 17312 net.cpp:84] Creating Layer pool3
I1014 21:48:14.580667 17312 net.cpp:406] pool3 <- prelu_cccp6
I1014 21:48:14.580680 17312 net.cpp:380] pool3 -> pool3
I1014 21:48:14.582619 17312 net.cpp:122] Setting up pool3
I1014 21:48:14.582643 17312 net.cpp:129] Top shape: 100 192 2 2 (76800)
I1014 21:48:14.582648 17312 net.cpp:137] Memory required for data: 406650800
I1014 21:48:14.582650 17312 layer_factory.hpp:77] Creating layer dropout3
I1014 21:48:14.582657 17312 net.cpp:84] Creating Layer dropout3
I1014 21:48:14.582661 17312 net.cpp:406] dropout3 <- pool3
I1014 21:48:14.582682 17312 net.cpp:380] dropout3 -> dropout3
I1014 21:48:14.582738 17312 net.cpp:122] Setting up dropout3
I1014 21:48:14.582748 17312 net.cpp:129] Top shape: 100 192 2 2 (76800)
I1014 21:48:14.582762 17312 net.cpp:137] Memory required for data: 406958000
I1014 21:48:14.582767 17312 layer_factory.hpp:77] Creating layer conv4
I1014 21:48:14.582777 17312 net.cpp:84] Creating Layer conv4
I1014 21:48:14.582782 17312 net.cpp:406] conv4 <- dropout3
I1014 21:48:14.582789 17312 net.cpp:380] conv4 -> conv4
I1014 21:48:14.592397 17312 net.cpp:122] Setting up conv4
I1014 21:48:14.592422 17312 net.cpp:129] Top shape: 100 384 2 2 (153600)
I1014 21:48:14.592425 17312 net.cpp:137] Memory required for data: 407572400
I1014 21:48:14.592432 17312 layer_factory.hpp:77] Creating layer prelu_conv4
I1014 21:48:14.592437 17312 net.cpp:84] Creating Layer prelu_conv4
I1014 21:48:14.592440 17312 net.cpp:406] prelu_conv4 <- conv4
I1014 21:48:14.592445 17312 net.cpp:380] prelu_conv4 -> prelu_conv4
I1014 21:48:14.592520 17312 net.cpp:122] Setting up prelu_conv4
I1014 21:48:14.592526 17312 net.cpp:129] Top shape: 100 384 2 2 (153600)
I1014 21:48:14.592540 17312 net.cpp:137] Memory required for data: 408186800
I1014 21:48:14.592542 17312 layer_factory.hpp:77] Creating layer cccp7
I1014 21:48:14.592550 17312 net.cpp:84] Creating Layer cccp7
I1014 21:48:14.592552 17312 net.cpp:406] cccp7 <- prelu_conv4
I1014 21:48:14.592556 17312 net.cpp:380] cccp7 -> cccp7
I1014 21:48:14.604820 17312 net.cpp:122] Setting up cccp7
I1014 21:48:14.604835 17312 net.cpp:129] Top shape: 100 384 2 2 (153600)
I1014 21:48:14.604838 17312 net.cpp:137] Memory required for data: 408801200
I1014 21:48:14.604854 17312 layer_factory.hpp:77] Creating layer prelu_cccp7
I1014 21:48:14.604861 17312 net.cpp:84] Creating Layer prelu_cccp7
I1014 21:48:14.604867 17312 net.cpp:406] prelu_cccp7 <- cccp7
I1014 21:48:14.604876 17312 net.cpp:380] prelu_cccp7 -> prelu_cccp7
I1014 21:48:14.604964 17312 net.cpp:122] Setting up prelu_cccp7
I1014 21:48:14.604972 17312 net.cpp:129] Top shape: 100 384 2 2 (153600)
I1014 21:48:14.604976 17312 net.cpp:137] Memory required for data: 409415600
I1014 21:48:14.604998 17312 layer_factory.hpp:77] Creating layer cccp8
I1014 21:48:14.605011 17312 net.cpp:84] Creating Layer cccp8
I1014 21:48:14.605015 17312 net.cpp:406] cccp8 <- prelu_cccp7
I1014 21:48:14.605024 17312 net.cpp:380] cccp8 -> cccp8
I1014 21:48:14.612467 17312 net.cpp:122] Setting up cccp8
I1014 21:48:14.612480 17312 net.cpp:129] Top shape: 100 384 2 2 (153600)
I1014 21:48:14.612485 17312 net.cpp:137] Memory required for data: 410030000
I1014 21:48:14.612493 17312 layer_factory.hpp:77] Creating layer prelu_cccp8
I1014 21:48:14.612514 17312 net.cpp:84] Creating Layer prelu_cccp8
I1014 21:48:14.612522 17312 net.cpp:406] prelu_cccp8 <- cccp8
I1014 21:48:14.612532 17312 net.cpp:380] prelu_cccp8 -> prelu_cccp8
I1014 21:48:14.612602 17312 net.cpp:122] Setting up prelu_cccp8
I1014 21:48:14.612610 17312 net.cpp:129] Top shape: 100 384 2 2 (153600)
I1014 21:48:14.612615 17312 net.cpp:137] Memory required for data: 410644400
I1014 21:48:14.612622 17312 layer_factory.hpp:77] Creating layer pool4
I1014 21:48:14.612633 17312 net.cpp:84] Creating Layer pool4
I1014 21:48:14.612638 17312 net.cpp:406] pool4 <- prelu_cccp8
I1014 21:48:14.612645 17312 net.cpp:380] pool4 -> pool4
I1014 21:48:14.612788 17312 net.cpp:122] Setting up pool4
I1014 21:48:14.612797 17312 net.cpp:129] Top shape: 100 384 1 1 (38400)
I1014 21:48:14.612802 17312 net.cpp:137] Memory required for data: 410798000
I1014 21:48:14.612808 17312 layer_factory.hpp:77] Creating layer dropout4
I1014 21:48:14.612817 17312 net.cpp:84] Creating Layer dropout4
I1014 21:48:14.612820 17312 net.cpp:406] dropout4 <- pool4
I1014 21:48:14.612828 17312 net.cpp:380] dropout4 -> dropout4
I1014 21:48:14.612859 17312 net.cpp:122] Setting up dropout4
I1014 21:48:14.612864 17312 net.cpp:129] Top shape: 100 384 1 1 (38400)
I1014 21:48:14.612869 17312 net.cpp:137] Memory required for data: 410951600
I1014 21:48:14.612874 17312 layer_factory.hpp:77] Creating layer fc1
I1014 21:48:14.612887 17312 net.cpp:84] Creating Layer fc1
I1014 21:48:14.612891 17312 net.cpp:406] fc1 <- dropout4
I1014 21:48:14.612898 17312 net.cpp:380] fc1 -> fc1
I1014 21:48:14.613875 17312 net.cpp:122] Setting up fc1
I1014 21:48:14.613883 17312 net.cpp:129] Top shape: 100 100 (10000)
I1014 21:48:14.613888 17312 net.cpp:137] Memory required for data: 410991600
I1014 21:48:14.613895 17312 layer_factory.hpp:77] Creating layer fc1_fc1_0_split
I1014 21:48:14.613903 17312 net.cpp:84] Creating Layer fc1_fc1_0_split
I1014 21:48:14.613906 17312 net.cpp:406] fc1_fc1_0_split <- fc1
I1014 21:48:14.613914 17312 net.cpp:380] fc1_fc1_0_split -> fc1_fc1_0_split_0
I1014 21:48:14.613946 17312 net.cpp:380] fc1_fc1_0_split -> fc1_fc1_0_split_1
I1014 21:48:14.613986 17312 net.cpp:122] Setting up fc1_fc1_0_split
I1014 21:48:14.613993 17312 net.cpp:129] Top shape: 100 100 (10000)
I1014 21:48:14.614009 17312 net.cpp:129] Top shape: 100 100 (10000)
I1014 21:48:14.614012 17312 net.cpp:137] Memory required for data: 411071600
I1014 21:48:14.614027 17312 layer_factory.hpp:77] Creating layer accuracy
I1014 21:48:14.614048 17312 net.cpp:84] Creating Layer accuracy
I1014 21:48:14.614053 17312 net.cpp:406] accuracy <- fc1_fc1_0_split_0
I1014 21:48:14.614068 17312 net.cpp:406] accuracy <- label_cifar_1_split_0
I1014 21:48:14.614084 17312 net.cpp:380] accuracy -> accuracy
…
