…
I1023 16:54:37.791375  5058 net.cpp:294] The NetState phase (0) differed from the phase (1) specified by a rule in layer Accuracy1
I1023 16:54:37.791743  5058 net.cpp:51] Initializing net from parameters: 
name: "resnet"
state {
  phase: TRAIN
  level: 0
  stage: ""
}
layer {
  name: "Data1"
  type: "Data"
  top: "Data1"
  top: "Data2"
  include {
    phase: TRAIN
  }
  transform_param {
    mirror: true
    crop_size: 224
    mean_file: "/home/x306/caffe/xn/English_orange/data/orange1_mean.binaryproto"
  }
  data_param {
    source: "/home/x306/caffe/xn/English_orange/data/train1_lmdb"
    batch_size: 8
    backend: LMDB
  }
}
layer {
  name: "Convolution1"
  type: "Convolution"
  bottom: "Data1"
  top: "Convolution1"
  param {
    lr_mult: 1
    decay_mult: 1
  }
  param {
    lr_mult: 2
    decay_mult: 0
  }
  convolution_param {
    num_output: 16
    pad: 1
    kernel_size: 3
    stride: 1
    weight_filler {
      type: "gaussian"
      std: 0.118
    }
    bias_filler {
      type: "constant"
      value: 0
    }
  }
}
layer {
  name: "BatchNorm1"
  type: "BatchNorm"
  bottom: "Convolution1"
  top: "Convolution1"
  param {
    lr_mult: 0
    decay_mult: 0
  }
  param {
    lr_mult: 0
    decay_mult: 0
  }
  param {
    lr_mult: 0
    decay_mult: 0
  }
}
layer {
  name: "Scale1"
  type: "Scale"
  bottom: "Convolution1"
  top: "Convolution1"
  scale_param {
    bias_term: true
  }
}
layer {
  name: "elu1"
  type: "ELU"
  bottom: "Convolution1"
  top: "Convolution1"
  elu_param {
    alpha: 1
  }
}
layer {
  name: "Convolution2"
  type: "Convolution"
  bottom: "Convolution1"
  top: "Convolution2"
  param {
    lr_mult: 1
    decay_mult: 1
  }
  param {
    lr_mult: 2
    decay_mult: 0
  }
  convolution_param {
    num_output: 16
    pad: 1
    kernel_size: 3
    stride: 1
    weight_filler {
      type: "gaussian"
      std: 0.118
    }
    bias_filler {
      type: "constant"
      value: 0
    }
  }
}
layer {
  name: "BatchNorm2"
  type: "BatchNorm"
  bottom: "Convolution2"
  top: "Convolution2"
  param {
    lr_mult: 0
    decay_mult: 0
  }
  param {
    lr_mult: 0
    decay_mult: 0
  }
  param {
    lr_mult: 0
    decay_mult: 0
  }
}
layer {
  name: "Scale2"
  type: "Scale"
  bottom: "Convolution2"
  top: "Convolution2"
  scale_param {
    bias_term: true
  }
}
layer {
  name: "elu2"
  type: "ELU"
  bottom: "Convolution2"
  top: "Convolution2"
  elu_param {
    alpha: 1
  }
}
layer {
  name: "Convolution3"
  type: "Convolution"
  bottom: "Convolution2"
  top: "Convolution3"
  param {
    lr_mult: 1
    decay_mult: 1
  }
  param {
    lr_mult: 2
    decay_mult: 0
  }
  convolution_param {
    num_output: 16
    pad: 1
    kernel_size: 3
    stride: 1
    weight_filler {
      type: "gaussian"
      std: 0.118
    }
    bias_filler {
      type: "constant"
      value: 0
    }
  }
}
layer {
  name: "BatchNorm3"
  type: "BatchNorm"
  bottom: "Convolution3"
  top: "Convolution3"
  param {
    lr_mult: 0
    decay_mult: 0
  }
  param {
    lr_mult: 0
    decay_mult: 0
  }
  param {
    lr_mult: 0
    decay_mult: 0
  }
}
layer {
  name: "Scale3"
  type: "Scale"
  bottom: "Convolution3"
  top: "Convolution3"
  scale_param {
    bias_term: true
  }
}
layer {
  name: "Eltwise1"
  type: "Eltwise"
  bottom: "Convolution1"
  bottom: "Convolution3"
  top: "Eltwise1"
  eltwise_param {
    operation: SUM
  }
}
layer {
  name: "elu3"
  type: "ELU"
  bottom: "Eltwise1"
  top: "Eltwise1"
  elu_param {
    alpha: 1
  }
}
layer {
  name: "Convolution4"
  type: "Convolution"
  bottom: "Eltwise1"
  top: "Convolution4"
  param {
    lr_mult: 1
    decay_mult: 1
  }
  param {
    lr_mult: 2
    decay_mult: 0
  }
  convolution_param {
    num_output: 16
    pad: 1
    kernel_size: 3
    stride: 1
    weight_filler {
      type: "gaussian"
      std: 0.118
    }
    bias_filler {
      type: "constant"
      value: 0
    }
  }
}
layer {
  name: "BatchNorm4"
  type: "BatchNorm"
  bottom: "Convolution4"
  top: "Convolution4"
  param {
    lr_mult: 0
    decay_mult: 0
  }
  param {
    lr_mult: 0
    decay_mult: 0
  }
  param {
    lr_mult: 0
    decay_mult: 0
  }
}
layer {
  name: "Scale4"
  type: "Scale"
  bottom: "Convolution4"
  top: "Convolution4"
  scale_param {
    bias_term: true
  }
}
layer {
  name: "elu4"
  type: "ELU"
  bottom: "Convolution4"
  top: "Convolution4"
  elu_param {
    alpha: 1
  }
}
layer {
  name: "Convolution5"
  type: "Convolution"
  bottom: "Convolution4"
  top: "Convolution5"
  param {
    lr_mult: 1
    decay_mult: 1
  }
  param {
    lr_mult: 2
    decay_mult: 0
  }
  convolution_param {
    num_output: 16
    pad: 1
    kernel_size: 3
    stride: 1
    weight_filler {
      type: "gaussian"
      std: 0.118
    }
    bias_filler {
      type: "constant"
      value: 0
    }
  }
}
layer {
  name: "BatchNorm5"
  type: "BatchNorm"
  bottom: "Convolution5"
  top: "Convolution5"
  param {
    lr_mult: 0
    decay_mult: 0
  }
  param {
    lr_mult: 0
    decay_mult: 0
  }
  param {
    lr_mult: 0
    decay_mult: 0
  }
}
layer {
  name: "Scale5"
  type: "Scale"
  bottom: "Convolution5"
  top: "Convolution5"
  scale_param {
    bias_term: true
  }
}
layer {
  name: "Eltwise2"
  type: "Eltwise"
  bottom: "Eltwise1"
  bottom: "Convolution5"
  top: "Eltwise2"
  eltwise_param {
    operation: SUM
  }
}
layer {
  name: "elu5"
  type: "ELU"
  bottom: "Eltwise2"
  top: "Eltwise2"
  elu_param {
    alpha: 1
  }
}
layer {
  name: "Convolution6"
  type: "Convolution"
  bottom: "Eltwise2"
  top: "Convolution6"
  param {
    lr_mult: 1
    decay_mult: 1
  }
  param {
    lr_mult: 2
    decay_mult: 0
  }
  convolution_param {
    num_output: 16
    pad: 1
    kernel_size: 3
    stride: 1
    weight_filler {
      type: "gaussian"
      std: 0.118
    }
    bias_filler {
      type: "constant"
      value: 0
    }
  }
}
layer {
  name: "BatchNorm6"
  type: "BatchNorm"
  bottom: "Convolution6"
  top: "Convolution6"
  param {
    lr_mult: 0
    decay_mult: 0
  }
  param {
    lr_mult: 0
    decay_mult: 0
  }
  param {
    lr_mult: 0
    decay_mult: 0
  }
}
layer {
  name: "Scale6"
  type: "Scale"
  bottom: "Convolution6"
  top: "Convolution6"
  scale_param {
    bias_term: true
  }
}
layer {
  name: "elu6"
  type: "ELU"
  bottom: "Convolution6"
  top: "Convolution6"
  elu_param {
    alpha: 1
  }
}
layer {
  name: "Convolution7"
  type: "Convolution"
  bottom: "Convolution6"
  top: "Convolution7"
  param {
    lr_mult: 1
    decay_mult: 1
  }
  param {
    lr_mult: 2
    decay_mult: 0
  }
  convolution_param {
    num_output: 16
    pad: 1
    kernel_size: 3
    stride: 1
    weight_filler {
      type: "gaussian"
      std: 0.118
    }
    bias_filler {
      type: "constant"
      value: 0
    }
  }
}
layer {
  name: "BatchNorm7"
  type: "BatchNorm"
  bottom: "Convolution7"
  top: "Convolution7"
  param {
    lr_mult: 0
    decay_mult: 0
  }
  param {
    lr_mult: 0
    decay_mult: 0
  }
  param {
    lr_mult: 0
    decay_mult: 0
  }
}
layer {
  name: "Scale7"
  type: "Scale"
  bottom: "Convolution7"
  top: "Convolution7"
  scale_param {
    bias_term: true
  }
}
layer {
  name: "Eltwise3"
  type: "Eltwise"
  bottom: "Eltwise2"
  bottom: "Convolution7"
  top: "Eltwise3"
  eltwise_param {
    operation: SUM
  }
}
layer {
  name: "elu7"
  type: "ELU"
  bottom: "Eltwise3"
  top: "Eltwise3"
  elu_param {
    alpha: 1
  }
}
layer {
  name: "Convolution8"
  type: "Convolution"
  bottom: "Eltwise3"
  top: "Convolution8"
  param {
    lr_mult: 1
    decay_mult: 1
  }
  param {
    lr_mult: 2
    decay_mult: 0
  }
  convolution_param {
    num_output: 32
    pad: 0
    kernel_size: 1
    stride: 2
    weight_filler {
      type: "gaussian"
      std: 1
    }
    bias_filler {
      type: "constant"
      value: 0
    }
  }
}
layer {
  name: "BatchNorm8"
  type: "BatchNorm"
  bottom: "Convolution8"
  top: "Convolution8"
  param {
    lr_mult: 0
    decay_mult: 0
  }
  param {
    lr_mult: 0
    decay_mult: 0
  }
  param {
    lr_mult: 0
    decay_mult: 0
  }
}
layer {
  name: "Scale8"
  type: "Scale"
  bottom: "Convolution8"
  top: "Convolution8"
  scale_param {
    bias_term: true
  }
}
layer {
  name: "Convolution9"
  type: "Convolution"
  bottom: "Eltwise3"
  top: "Convolution9"
  param {
    lr_mult: 1
    decay_mult: 1
  }
  param {
    lr_mult: 2
    decay_mult: 0
  }
  convolution_param {
    num_output: 32
    pad: 1
    kernel_size: 3
    stride: 2
    weight_filler {
      type: "gaussian"
      std: 0.083
    }
    bias_filler {
      type: "constant"
      value: 0
    }
  }
}
layer {
  name: "BatchNorm9"
  type: "BatchNorm"
  bottom: "Convolution9"
  top: "Convolution9"
  param {
    lr_mult: 0
    decay_mult: 0
  }
  param {
    lr_mult: 0
    decay_mult: 0
  }
  param {
    lr_mult: 0
    decay_mult: 0
  }
}
layer {
  name: "Scale9"
  type: "Scale"
  bottom: "Convolution9"
  top: "Convolution9"
  scale_param {
    bias_term: true
  }
}
layer {
  name: "elu8"
  type: "ELU"
  bottom: "Convolution9"
  top: "Convolution9"
  elu_param {
    alpha: 1
  }
}
layer {
  name: "Convolution10"
  type: "Convolution"
  bottom: "Convolution9"
  top: "Convolution10"
  param {
    lr_mult: 1
    decay_mult: 1
  }
  param {
    lr_mult: 2
    decay_mult: 0
  }
  convolution_param {
    num_output: 32
    pad: 1
    kernel_size: 3
    stride: 1
    weight_filler {
      type: "gaussian"
      std: 0.083
    }
    bias_filler {
      type: "constant"
      value: 0
    }
  }
}
layer {
  name: "BatchNorm10"
  type: "BatchNorm"
  bottom: "Convolution10"
  top: "Convolution10"
  param {
    lr_mult: 0
    decay_mult: 0
  }
  param {
    lr_mult: 0
    decay_mult: 0
  }
  param {
    lr_mult: 0
    decay_mult: 0
  }
}
layer {
  name: "Scale10"
  type: "Scale"
  bottom: "Convolution10"
  top: "Convolution10"
  scale_param {
    bias_term: true
  }
}
layer {
  name: "Eltwise4"
  type: "Eltwise"
  bottom: "Convolution8"
  bottom: "Convolution10"
  top: "Eltwise4"
  eltwise_param {
    operation: SUM
  }
}
layer {
  name: "elu9"
  type: "ELU"
  bottom: "Eltwise4"
  top: "Eltwise4"
  elu_param {
    alpha: 1
  }
}
layer {
  name: "Convolution11"
  type: "Convolution"
  bottom: "Eltwise4"
  top: "Convolution11"
  param {
    lr_mult: 1
    decay_mult: 1
  }
  param {
    lr_mult: 2
    decay_mult: 0
  }
  convolution_param {
    num_output: 32
    pad: 1
    kernel_size: 3
    stride: 1
    weight_filler {
      type: "gaussian"
      std: 0.083
    }
    bias_filler {
      type: "constant"
      value: 0
    }
  }
}
layer {
  name: "BatchNorm11"
  type: "BatchNorm"
  bottom: "Convolution11"
  top: "Convolution11"
  param {
    lr_mult: 0
    decay_mult: 0
  }
  param {
    lr_mult: 0
    decay_mult: 0
  }
  param {
    lr_mult: 0
    decay_mult: 0
  }
}
layer {
  name: "Scale11"
  type: "Scale"
  bottom: "Convolution11"
  top: "Convolution11"
  scale_param {
    bias_term: true
  }
}
layer {
  name: "elu10"
  type: "ELU"
  bottom: "Convolution11"
  top: "Convolution11"
  elu_param {
    alpha: 1
  }
}
layer {
  name: "Convolution12"
  type: "Convolution"
  bottom: "Convolution11"
  top: "Convolution12"
  param {
    lr_mult: 1
    decay_mult: 1
  }
  param {
    lr_mult: 2
    decay_mult: 0
  }
  convolution_param {
    num_output: 32
    pad: 1
    kernel_size: 3
    stride: 1
    weight_filler {
      type: "gaussian"
      std: 0.083
    }
    bias_filler {
      type: "constant"
      value: 0
    }
  }
}
layer {
  name: "BatchNorm12"
  type: "BatchNorm"
  bottom: "Convolution12"
  top: "Convolution12"
  param {
    lr_mult: 0
    decay_mult: 0
  }
  param {
    lr_mult: 0
    decay_mult: 0
  }
  param {
    lr_mult: 0
    decay_mult: 0
  }
}
layer {
  name: "Scale12"
  type: "Scale"
  bottom: "Convolution12"
  top: "Convolution12"
  scale_param {
    bias_term: true
  }
}
layer {
  name: "Eltwise5"
  type: "Eltwise"
  bottom: "Eltwise4"
  bottom: "Convolution12"
  top: "Eltwise5"
  eltwise_param {
    operation: SUM
  }
}
layer {
  name: "elu11"
  type: "ELU"
  bottom: "Eltwise5"
  top: "Eltwise5"
  elu_param {
    alpha: 1
  }
}
layer {
  name: "Convolution13"
  type: "Convolution"
  bottom: "Eltwise5"
  top: "Convolution13"
  param {
    lr_mult: 1
    decay_mult: 1
  }
  param {
    lr_mult: 2
    decay_mult: 0
  }
  convolution_param {
    num_output: 32
    pad: 1
    kernel_size: 3
    stride: 1
    weight_filler {
      type: "gaussian"
      std: 0.083
    }
    bias_filler {
      type: "constant"
      value: 0
    }
  }
}
layer {
  name: "BatchNorm13"
  type: "BatchNorm"
  bottom: "Convolution13"
  top: "Convolution13"
  param {
    lr_mult: 0
    decay_mult: 0
  }
  param {
    lr_mult: 0
    decay_mult: 0
  }
  param {
    lr_mult: 0
    decay_mult: 0
  }
}
layer {
  name: "Scale13"
  type: "Scale"
  bottom: "Convolution13"
  top: "Convolution13"
  scale_param {
    bias_term: true
  }
}
layer {
  name: "elu12"
  type: "ELU"
  bottom: "Convolution13"
  top: "Convolution13"
  elu_param {
    alpha: 1
  }
}
layer {
  name: "Convolution14"
  type: "Convolution"
  bottom: "Convolution13"
  top: "Convolution14"
  param {
    lr_mult: 1
    decay_mult: 1
  }
  param {
    lr_mult: 2
    decay_mult: 0
  }
  convolution_param {
    num_output: 32
    pad: 1
    kernel_size: 3
    stride: 1
    weight_filler {
      type: "gaussian"
      std: 0.083
    }
    bias_filler {
      type: "constant"
      value: 0
    }
  }
}
layer {
  name: "BatchNorm14"
  type: "BatchNorm"
  bottom: "Convolution14"
  top: "Convolution14"
  param {
    lr_mult: 0
    decay_mult: 0
  }
  param {
    lr_mult: 0
    decay_mult: 0
  }
  param {
    lr_mult: 0
    decay_mult: 0
  }
}
layer {
  name: "Scale14"
  type: "Scale"
  bottom: "Convolution14"
  top: "Convolution14"
  scale_param {
    bias_term: true
  }
}
layer {
  name: "Eltwise6"
  type: "Eltwise"
  bottom: "Eltwise5"
  bottom: "Convolution14"
  top: "Eltwise6"
  eltwise_param {
    operation: SUM
  }
}
layer {
  name: "elu13"
  type: "ELU"
  bottom: "Eltwise6"
  top: "Eltwise6"
  elu_param {
    alpha: 1
  }
}
layer {
  name: "Convolution15"
  type: "Convolution"
  bottom: "Eltwise6"
  top: "Convolution15"
  param {
    lr_mult: 1
    decay_mult: 1
  }
  param {
    lr_mult: 2
    decay_mult: 0
  }
  convolution_param {
    num_output: 64
    pad: 0
    kernel_size: 1
    stride: 2
    weight_filler {
      type: "gaussian"
      std: 0.17677669
    }
    bias_filler {
      type: "constant"
      value: 0
    }
  }
}
layer {
  name: "BatchNorm15"
  type: "BatchNorm"
  bottom: "Convolution15"
  top: "Convolution15"
  param {
    lr_mult: 0
    decay_mult: 0
  }
  param {
    lr_mult: 0
    decay_mult: 0
  }
  param {
    lr_mult: 0
    decay_mult: 0
  }
}
layer {
  name: "Scale15"
  type: "Scale"
  bottom: "Convolution15"
  top: "Convolution15"
  scale_param {
    bias_term: true
  }
}
layer {
  name: "Convolution16"
  type: "Convolution"
  bottom: "Eltwise6"
  top: "Convolution16"
  param {
    lr_mult: 1
    decay_mult: 1
  }
  param {
    lr_mult: 2
    decay_mult: 0
  }
  convolution_param {
    num_output: 64
    pad: 1
    kernel_size: 3
    stride: 2
    weight_filler {
      type: "gaussian"
      std: 0.059
    }
    bias_filler {
      type: "constant"
      value: 0
    }
  }
}
layer {
  name: "BatchNorm16"
  type: "BatchNorm"
  bottom: "Convolution16"
  top: "Convolution16"
  param {
    lr_mult: 0
    decay_mult: 0
  }
  param {
    lr_mult: 0
    decay_mult: 0
  }
  param {
    lr_mult: 0
    decay_mult: 0
  }
}
layer {
  name: "Scale16"
  type: "Scale"
  bottom: "Convolution16"
  top: "Convolution16"
  scale_param {
    bias_term: true
  }
}
layer {
  name: "elu14"
  type: "ELU"
  bottom: "Convolution16"
  top: "Convolution16"
  elu_param {
    alpha: 1
  }
}
layer {
  name: "Convolution17"
  type: "Convolution"
  bottom: "Convolution16"
  top: "Convolution17"
  param {
    lr_mult: 1
    decay_mult: 1
  }
  param {
    lr_mult: 2
    decay_mult: 0
  }
  convolution_param {
    num_output: 64
    pad: 1
    kernel_size: 3
    stride: 1
    weight_filler {
      type: "gaussian"
      std: 0.059
    }
    bias_filler {
      type: "constant"
      value: 0
    }
  }
}
layer {
  name: "BatchNorm17"
  type: "BatchNorm"
  bottom: "Convolution17"
  top: "Convolution17"
  param {
    lr_mult: 0
    decay_mult: 0
  }
  param {
    lr_mult: 0
    decay_mult: 0
  }
  param {
    lr_mult: 0
    decay_mult: 0
  }
}
layer {
  name: "Scale17"
  type: "Scale"
  bottom: "Convolution17"
  top: "Convolution17"
  scale_param {
    bias_term: true
  }
}
layer {
  name: "Eltwise7"
  type: "Eltwise"
  bottom: "Convolution15"
  bottom: "Convolution17"
  top: "Eltwise7"
  eltwise_param {
    operation: SUM
  }
}
layer {
  name: "elu15"
  type: "ELU"
  bottom: "Eltwise7"
  top: "Eltwise7"
  elu_param {
    alpha: 1
  }
}
layer {
  name: "Convolution18"
  type: "Convolution"
  bottom: "Eltwise7"
  top: "Convolution18"
  param {
    lr_mult: 1
    decay_mult: 1
  }
  param {
    lr_mult: 2
    decay_mult: 0
  }
  convolution_param {
    num_output: 64
    pad: 1
    kernel_size: 3
    stride: 1
    weight_filler {
      type: "gaussian"
      std: 0.059
    }
    bias_filler {
      type: "constant"
      value: 0
    }
  }
}
layer {
  name: "BatchNorm18"
  type: "BatchNorm"
  bottom: "Convolution18"
  top: "Convolution18"
  param {
    lr_mult: 0
    decay_mult: 0
  }
  param {
    lr_mult: 0
    decay_mult: 0
  }
  param {
    lr_mult: 0
    decay_mult: 0
  }
}
layer {
  name: "Scale18"
  type: "Scale"
  bottom: "Convolution18"
  top: "Convolution18"
  scale_param {
    bias_term: true
  }
}
layer {
  name: "elu16"
  type: "ELU"
  bottom: "Convolution18"
  top: "Convolution18"
  elu_param {
    alpha: 1
  }
}
layer {
  name: "Convolution19"
  type: "Convolution"
  bottom: "Convolution18"
  top: "Convolution19"
  param {
    lr_mult: 1
    decay_mult: 1
  }
  param {
    lr_mult: 2
    decay_mult: 0
  }
  convolution_param {
    num_output: 64
    pad: 1
    kernel_size: 3
    stride: 1
    weight_filler {
      type: "gaussian"
      std: 0.059
    }
    bias_filler {
      type: "constant"
      value: 0
    }
  }
}
layer {
  name: "BatchNorm19"
  type: "BatchNorm"
  bottom: "Convolution19"
  top: "Convolution19"
  param {
    lr_mult: 0
    decay_mult: 0
  }
  param {
    lr_mult: 0
    decay_mult: 0
  }
  param {
    lr_mult: 0
    decay_mult: 0
  }
}
layer {
  name: "Scale19"
  type: "Scale"
  bottom: "Convolution19"
  top: "Convolution19"
  scale_param {
    bias_term: true
  }
}
layer {
  name: "Eltwise8"
  type: "Eltwise"
  bottom: "Eltwise7"
  bottom: "Convolution19"
  top: "Eltwise8"
  eltwise_param {
    operation: SUM
  }
}
layer {
  name: "elu17"
  type: "ELU"
  bottom: "Eltwise8"
  top: "Eltwise8"
  elu_param {
    alpha: 1
  }
}
layer {
  name: "Convolution20"
  type: "Convolution"
  bottom: "Eltwise8"
  top: "Convolution20"
  param {
    lr_mult: 1
    decay_mult: 1
  }
  param {
    lr_mult: 2
    decay_mult: 0
  }
  convolution_param {
    num_output: 64
    pad: 1
    kernel_size: 3
    stride: 1
    weight_filler {
      type: "gaussian"
      std: 0.059
    }
    bias_filler {
      type: "constant"
      value: 0
    }
  }
}
layer {
  name: "BatchNorm20"
  type: "BatchNorm"
  bottom: "Convolution20"
  top: "Convolution20"
  param {
    lr_mult: 0
    decay_mult: 0
  }
  param {
    lr_mult: 0
    decay_mult: 0
  }
  param {
    lr_mult: 0
    decay_mult: 0
  }
}
layer {
  name: "Scale20"
  type: "Scale"
  bottom: "Convolution20"
  top: "Convolution20"
  scale_param {
    bias_term: true
  }
}
layer {
  name: "elu18"
  type: "ELU"
  bottom: "Convolution20"
  top: "Convolution20"
  elu_param {
    alpha: 1
  }
}
layer {
  name: "Convolution21"
  type: "Convolution"
  bottom: "Convolution20"
  top: "Convolution21"
  param {
    lr_mult: 1
    decay_mult: 1
  }
  param {
    lr_mult: 2
    decay_mult: 0
  }
  convolution_param {
    num_output: 64
    pad: 1
    kernel_size: 3
    stride: 1
    weight_filler {
      type: "gaussian"
      std: 0.059
    }
    bias_filler {
      type: "constant"
      value: 0
    }
  }
}
layer {
  name: "BatchNorm21"
  type: "BatchNorm"
  bottom: "Convolution21"
  top: "Convolution21"
  param {
    lr_mult: 0
    decay_mult: 0
  }
  param {
    lr_mult: 0
    decay_mult: 0
  }
  param {
    lr_mult: 0
    decay_mult: 0
  }
}
layer {
  name: "Scale21"
  type: "Scale"
  bottom: "Convolution21"
  top: "Convolution21"
  scale_param {
    bias_term: true
  }
}
layer {
  name: "Eltwise9"
  type: "Eltwise"
  bottom: "Eltwise8"
  bottom: "Convolution21"
  top: "Eltwise9"
  eltwise_param {
    operation: SUM
  }
}
layer {
  name: "elu19"
  type: "ELU"
  bottom: "Eltwise9"
  top: "Eltwise9"
  elu_param {
    alpha: 1
  }
}
layer {
  name: "Pooling1"
  type: "Pooling"
  bottom: "Eltwise9"
  top: "Pooling1"
  pooling_param {
    pool: AVE
    global_pooling: true
  }
}
layer {
  name: "InnerProduct1"
  type: "InnerProduct"
  bottom: "Pooling1"
  top: "InnerProduct1"
  param {
    lr_mult: 1
    decay_mult: 1
  }
  param {
    lr_mult: 2
    decay_mult: 1
  }
  inner_product_param {
    num_output: 4
    weight_filler {
      type: "gaussian"
      std: 0.01
    }
    bias_filler {
      type: "constant"
      value: 0
    }
  }
}
layer {
  name: "SoftmaxWithLoss1"
  type: "SoftmaxWithLoss"
  bottom: "InnerProduct1"
  bottom: "Data2"
  top: "SoftmaxWithLoss1"
}
I1023 16:54:37.792114  5058 layer_factory.hpp:77] Creating layer Data1
I1023 16:54:37.792188  5058 db_lmdb.cpp:35] Opened lmdb /home/x306/caffe/xn/English_orange/data/train1_lmdb
I1023 16:54:37.792207  5058 net.cpp:84] Creating Layer Data1
I1023 16:54:37.792212  5058 net.cpp:380] Data1 -> Data1
I1023 16:54:37.792227  5058 net.cpp:380] Data1 -> Data2
I1023 16:54:37.792237  5058 data_transformer.cpp:25] Loading mean file from: /home/x306/caffe/xn/English_orange/data/orange1_mean.binaryproto
I1023 16:54:37.794540  5058 data_layer.cpp:45] output data size: 8,3,224,224
I1023 16:54:37.802798  5058 net.cpp:122] Setting up Data1
I1023 16:54:37.802829  5058 net.cpp:129] Top shape: 8 3 224 224 (1204224)
I1023 16:54:37.802837  5058 net.cpp:129] Top shape: 8 (8)
I1023 16:54:37.802841  5058 net.cpp:137] Memory required for data: 4816928
I1023 16:54:37.802855  5058 layer_factory.hpp:77] Creating layer Convolution1
I1023 16:54:37.802883  5058 net.cpp:84] Creating Layer Convolution1
I1023 16:54:37.802893  5058 net.cpp:406] Convolution1 <- Data1
I1023 16:54:37.802908  5058 net.cpp:380] Convolution1 -> Convolution1
I1023 16:54:37.950670  5058 net.cpp:122] Setting up Convolution1
I1023 16:54:37.950696  5058 net.cpp:129] Top shape: 8 16 224 224 (6422528)
I1023 16:54:37.950700  5058 net.cpp:137] Memory required for data: 30507040
I1023 16:54:37.950716  5058 layer_factory.hpp:77] Creating layer BatchNorm1
I1023 16:54:37.950736  5058 net.cpp:84] Creating Layer BatchNorm1
I1023 16:54:37.950750  5058 net.cpp:406] BatchNorm1 <- Convolution1
I1023 16:54:37.950758  5058 net.cpp:367] BatchNorm1 -> Convolution1 (in-place)
I1023 16:54:37.950934  5058 net.cpp:122] Setting up BatchNorm1
I1023 16:54:37.950942  5058 net.cpp:129] Top shape: 8 16 224 224 (6422528)
I1023 16:54:37.950943  5058 net.cpp:137] Memory required for data: 56197152
I1023 16:54:37.950951  5058 layer_factory.hpp:77] Creating layer Scale1
I1023 16:54:37.950971  5058 net.cpp:84] Creating Layer Scale1
I1023 16:54:37.950974  5058 net.cpp:406] Scale1 <- Convolution1
I1023 16:54:37.950979  5058 net.cpp:367] Scale1 -> Convolution1 (in-place)
I1023 16:54:37.951063  5058 layer_factory.hpp:77] Creating layer Scale1
I1023 16:54:37.951210  5058 net.cpp:122] Setting up Scale1
I1023 16:54:37.951216  5058 net.cpp:129] Top shape: 8 16 224 224 (6422528)
I1023 16:54:37.951220  5058 net.cpp:137] Memory required for data: 81887264
I1023 16:54:37.951223  5058 layer_factory.hpp:77] Creating layer elu1
I1023 16:54:37.951247  5058 net.cpp:84] Creating Layer elu1
I1023 16:54:37.951251  5058 net.cpp:406] elu1 <- Convolution1
I1023 16:54:37.951264  5058 net.cpp:367] elu1 -> Convolution1 (in-place)
I1023 16:54:37.951284  5058 net.cpp:122] Setting up elu1
I1023 16:54:37.951300  5058 net.cpp:129] Top shape: 8 16 224 224 (6422528)
I1023 16:54:37.951303  5058 net.cpp:137] Memory required for data: 107577376
I1023 16:54:37.951306  5058 layer_factory.hpp:77] Creating layer Convolution1_elu1_0_split
I1023 16:54:37.951321  5058 net.cpp:84] Creating Layer Convolution1_elu1_0_split
I1023 16:54:37.951324  5058 net.cpp:406] Convolution1_elu1_0_split <- Convolution1
I1023 16:54:37.951340  5058 net.cpp:380] Convolution1_elu1_0_split -> Convolution1_elu1_0_split_0
I1023 16:54:37.951349  5058 net.cpp:380] Convolution1_elu1_0_split -> Convolution1_elu1_0_split_1
I1023 16:54:37.951400  5058 net.cpp:122] Setting up Convolution1_elu1_0_split
I1023 16:54:37.951417  5058 net.cpp:129] Top shape: 8 16 224 224 (6422528)
I1023 16:54:37.951424  5058 net.cpp:129] Top shape: 8 16 224 224 (6422528)
I1023 16:54:37.951437  5058 net.cpp:137] Memory required for data: 158957600
I1023 16:54:37.951441  5058 layer_factory.hpp:77] Creating layer Convolution2
I1023 16:54:37.951450  5058 net.cpp:84] Creating Layer Convolution2
I1023 16:54:37.951465  5058 net.cpp:406] Convolution2 <- Convolution1_elu1_0_split_0
I1023 16:54:37.951473  5058 net.cpp:380] Convolution2 -> Convolution2
I1023 16:54:37.952888  5058 net.cpp:122] Setting up Convolution2
I1023 16:54:37.952898  5058 net.cpp:129] Top shape: 8 16 224 224 (6422528)
I1023 16:54:37.952913  5058 net.cpp:137] Memory required for data: 184647712
I1023 16:54:37.952931  5058 layer_factory.hpp:77] Creating layer BatchNorm2
I1023 16:54:37.952940  5058 net.cpp:84] Creating Layer BatchNorm2
I1023 16:54:37.952955  5058 net.cpp:406] BatchNorm2 <- Convolution2
I1023 16:54:37.952973  5058 net.cpp:367] BatchNorm2 -> Convolution2 (in-place)
I1023 16:54:37.953138  5058 net.cpp:122] Setting up BatchNorm2
I1023 16:54:37.953145  5058 net.cpp:129] Top shape: 8 16 224 224 (6422528)
I1023 16:54:37.953158  5058 net.cpp:137] Memory required for data: 210337824
I1023 16:54:37.953166  5058 layer_factory.hpp:77] Creating layer Scale2
I1023 16:54:37.953186  5058 net.cpp:84] Creating Layer Scale2
I1023 16:54:37.953191  5058 net.cpp:406] Scale2 <- Convolution2
I1023 16:54:37.953198  5058 net.cpp:367] Scale2 -> Convolution2 (in-place)
I1023 16:54:37.953233  5058 layer_factory.hpp:77] Creating layer Scale2
I1023 16:54:37.953356  5058 net.cpp:122] Setting up Scale2
I1023 16:54:37.953362  5058 net.cpp:129] Top shape: 8 16 224 224 (6422528)
I1023 16:54:37.953367  5058 net.cpp:137] Memory required for data: 236027936
I1023 16:54:37.953375  5058 layer_factory.hpp:77] Creating layer elu2
I1023 16:54:37.953383  5058 net.cpp:84] Creating Layer elu2
I1023 16:54:37.953389  5058 net.cpp:406] elu2 <- Convolution2
I1023 16:54:37.953395  5058 net.cpp:367] elu2 -> Convolution2 (in-place)
I1023 16:54:37.953400  5058 net.cpp:122] Setting up elu2
I1023 16:54:37.953404  5058 net.cpp:129] Top shape: 8 16 224 224 (6422528)
I1023 16:54:37.953408  5058 net.cpp:137] Memory required for data: 261718048
I1023 16:54:37.953410  5058 layer_factory.hpp:77] Creating layer Convolution3
I1023 16:54:37.953416  5058 net.cpp:84] Creating Layer Convolution3
I1023 16:54:37.953419  5058 net.cpp:406] Convolution3 <- Convolution2
I1023 16:54:37.953423  5058 net.cpp:380] Convolution3 -> Convolution3
I1023 16:54:37.954322  5058 net.cpp:122] Setting up Convolution3
I1023 16:54:37.954334  5058 net.cpp:129] Top shape: 8 16 224 224 (6422528)
I1023 16:54:37.954336  5058 net.cpp:137] Memory required for data: 287408160
I1023 16:54:37.954341  5058 layer_factory.hpp:77] Creating layer BatchNorm3
I1023 16:54:37.954355  5058 net.cpp:84] Creating Layer BatchNorm3
I1023 16:54:37.954358  5058 net.cpp:406] BatchNorm3 <- Convolution3
I1023 16:54:37.954362  5058 net.cpp:367] BatchNorm3 -> Convolution3 (in-place)
I1023 16:54:37.954507  5058 net.cpp:122] Setting up BatchNorm3
I1023 16:54:37.954514  5058 net.cpp:129] Top shape: 8 16 224 224 (6422528)
I1023 16:54:37.954516  5058 net.cpp:137] Memory required for data: 313098272
I1023 16:54:37.954524  5058 layer_factory.hpp:77] Creating layer Scale3
I1023 16:54:37.954530  5058 net.cpp:84] Creating Layer Scale3
I1023 16:54:37.954532  5058 net.cpp:406] Scale3 <- Convolution3
I1023 16:54:37.954535  5058 net.cpp:367] Scale3 -> Convolution3 (in-place)
I1023 16:54:37.954561  5058 layer_factory.hpp:77] Creating layer Scale3
I1023 16:54:37.955178  5058 net.cpp:122] Setting up Scale3
I1023 16:54:37.955188  5058 net.cpp:129] Top shape: 8 16 224 224 (6422528)
I1023 16:54:37.955190  5058 net.cpp:137] Memory required for data: 338788384
I1023 16:54:37.955195  5058 layer_factory.hpp:77] Creating layer Eltwise1
I1023 16:54:37.955201  5058 net.cpp:84] Creating Layer Eltwise1
I1023 16:54:37.955204  5058 net.cpp:406] Eltwise1 <- Convolution1_elu1_0_split_1
I1023 16:54:37.955209  5058 net.cpp:406] Eltwise1 <- Convolution3
I1023 16:54:37.955212  5058 net.cpp:380] Eltwise1 -> Eltwise1
I1023 16:54:37.955232  5058 net.cpp:122] Setting up Eltwise1
I1023 16:54:37.955237  5058 net.cpp:129] Top shape: 8 16 224 224 (6422528)
I1023 16:54:37.955240  5058 net.cpp:137] Memory required for data: 364478496
I1023 16:54:37.955243  5058 layer_factory.hpp:77] Creating layer elu3
I1023 16:54:37.955246  5058 net.cpp:84] Creating Layer elu3
I1023 16:54:37.955250  5058 net.cpp:406] elu3 <- Eltwise1
I1023 16:54:37.955253  5058 net.cpp:367] elu3 -> Eltwise1 (in-place)
I1023 16:54:37.955258  5058 net.cpp:122] Setting up elu3
I1023 16:54:37.955261  5058 net.cpp:129] Top shape: 8 16 224 224 (6422528)
I1023 16:54:37.955265  5058 net.cpp:137] Memory required for data: 390168608
I1023 16:54:37.955267  5058 layer_factory.hpp:77] Creating layer Eltwise1_elu3_0_split
I1023 16:54:37.955271  5058 net.cpp:84] Creating Layer Eltwise1_elu3_0_split
I1023 16:54:37.955274  5058 net.cpp:406] Eltwise1_elu3_0_split <- Eltwise1
I1023 16:54:37.955277  5058 net.cpp:380] Eltwise1_elu3_0_split -> Eltwise1_elu3_0_split_0
I1023 16:54:37.955282  5058 net.cpp:380] Eltwise1_elu3_0_split -> Eltwise1_elu3_0_split_1
I1023 16:54:37.955304  5058 net.cpp:122] Setting up Eltwise1_elu3_0_split
I1023 16:54:37.955309  5058 net.cpp:129] Top shape: 8 16 224 224 (6422528)
I1023 16:54:37.955313  5058 net.cpp:129] Top shape: 8 16 224 224 (6422528)
I1023 16:54:37.955317  5058 net.cpp:137] Memory required for data: 441548832
I1023 16:54:37.955318  5058 layer_factory.hpp:77] Creating layer Convolution4
I1023 16:54:37.955327  5058 net.cpp:84] Creating Layer Convolution4
I1023 16:54:37.955329  5058 net.cpp:406] Convolution4 <- Eltwise1_elu3_0_split_0
I1023 16:54:37.955333  5058 net.cpp:380] Convolution4 -> Convolution4
I1023 16:54:37.956238  5058 net.cpp:122] Setting up Convolution4
I1023 16:54:37.956249  5058 net.cpp:129] Top shape: 8 16 224 224 (6422528)
I1023 16:54:37.956252  5058 net.cpp:137] Memory required for data: 467238944
I1023 16:54:37.956257  5058 layer_factory.hpp:77] Creating layer BatchNorm4
I1023 16:54:37.956264  5058 net.cpp:84] Creating Layer BatchNorm4
I1023 16:54:37.956267  5058 net.cpp:406] BatchNorm4 <- Convolution4
I1023 16:54:37.956271  5058 net.cpp:367] BatchNorm4 -> Convolution4 (in-place)
I1023 16:54:37.956414  5058 net.cpp:122] Setting up BatchNorm4
I1023 16:54:37.956420  5058 net.cpp:129] Top shape: 8 16 224 224 (6422528)
I1023 16:54:37.956423  5058 net.cpp:137] Memory required for data: 492929056
I1023 16:54:37.956429  5058 layer_factory.hpp:77] Creating layer Scale4
I1023 16:54:37.956434  5058 net.cpp:84] Creating Layer Scale4
I1023 16:54:37.956435  5058 net.cpp:406] Scale4 <- Convolution4
I1023 16:54:37.956439  5058 net.cpp:367] Scale4 -> Convolution4 (in-place)
I1023 16:54:37.956465  5058 layer_factory.hpp:77] Creating layer Scale4
I1023 16:54:37.956583  5058 net.cpp:122] Setting up Scale4
I1023 16:54:37.956590  5058 net.cpp:129] Top shape: 8 16 224 224 (6422528)
I1023 16:54:37.956593  5058 net.cpp:137] Memory required for data: 518619168
I1023 16:54:37.956598  5058 layer_factory.hpp:77] Creating layer elu4
I1023 16:54:37.956603  5058 net.cpp:84] Creating Layer elu4
I1023 16:54:37.956605  5058 net.cpp:406] elu4 <- Convolution4
I1023 16:54:37.956609  5058 net.cpp:367] elu4 -> Convolution4 (in-place)
I1023 16:54:37.956614  5058 net.cpp:122] Setting up elu4
I1023 16:54:37.956619  5058 net.cpp:129] Top shape: 8 16 224 224 (6422528)
I1023 16:54:37.956621  5058 net.cpp:137] Memory required for data: 544309280
I1023 16:54:37.956624  5058 layer_factory.hpp:77] Creating layer Convolution5
I1023 16:54:37.956629  5058 net.cpp:84] Creating Layer Convolution5
I1023 16:54:37.956632  5058 net.cpp:406] Convolution5 <- Convolution4
I1023 16:54:37.956636  5058 net.cpp:380] Convolution5 -> Convolution5
I1023 16:54:37.957860  5058 net.cpp:122] Setting up Convolution5
I1023 16:54:37.957871  5058 net.cpp:129] Top shape: 8 16 224 224 (6422528)
I1023 16:54:37.957875  5058 net.cpp:137] Memory required for data: 569999392
I1023 16:54:37.957880  5058 layer_factory.hpp:77] Creating layer BatchNorm5
I1023 16:54:37.957885  5058 net.cpp:84] Creating Layer BatchNorm5
I1023 16:54:37.957890  5058 net.cpp:406] BatchNorm5 <- Convolution5
I1023 16:54:37.957893  5058 net.cpp:367] BatchNorm5 -> Convolution5 (in-place)
I1023 16:54:37.958039  5058 net.cpp:122] Setting up BatchNorm5
I1023 16:54:37.958045  5058 net.cpp:129] Top shape: 8 16 224 224 (6422528)
I1023 16:54:37.958048  5058 net.cpp:137] Memory required for data: 595689504
I1023 16:54:37.958056  5058 layer_factory.hpp:77] Creating layer Scale5
I1023 16:54:37.958061  5058 net.cpp:84] Creating Layer Scale5
I1023 16:54:37.958065  5058 net.cpp:406] Scale5 <- Convolution5
I1023 16:54:37.958068  5058 net.cpp:367] Scale5 -> Convolution5 (in-place)
I1023 16:54:37.958093  5058 layer_factory.hpp:77] Creating layer Scale5
I1023 16:54:37.958202  5058 net.cpp:122] Setting up Scale5
I1023 16:54:37.958209  5058 net.cpp:129] Top shape: 8 16 224 224 (6422528)
I1023 16:54:37.958211  5058 net.cpp:137] Memory required for data: 621379616
I1023 16:54:37.958215  5058 layer_factory.hpp:77] Creating layer Eltwise2
I1023 16:54:37.958220  5058 net.cpp:84] Creating Layer Eltwise2
I1023 16:54:37.958223  5058 net.cpp:406] Eltwise2 <- Eltwise1_elu3_0_split_1
I1023 16:54:37.958227  5058 net.cpp:406] Eltwise2 <- Convolution5
I1023 16:54:37.958231  5058 net.cpp:380] Eltwise2 -> Eltwise2
I1023 16:54:37.958247  5058 net.cpp:122] Setting up Eltwise2
I1023 16:54:37.958252  5058 net.cpp:129] Top shape: 8 16 224 224 (6422528)
I1023 16:54:37.958256  5058 net.cpp:137] Memory required for data: 647069728
I1023 16:54:37.958257  5058 layer_factory.hpp:77] Creating layer elu5
I1023 16:54:37.958261  5058 net.cpp:84] Creating Layer elu5
I1023 16:54:37.958264  5058 net.cpp:406] elu5 <- Eltwise2
I1023 16:54:37.958267  5058 net.cpp:367] elu5 -> Eltwise2 (in-place)
I1023 16:54:37.958272  5058 net.cpp:122] Setting up elu5
I1023 16:54:37.958276  5058 net.cpp:129] Top shape: 8 16 224 224 (6422528)
I1023 16:54:37.958279  5058 net.cpp:137] Memory required for data: 672759840
I1023 16:54:37.958281  5058 layer_factory.hpp:77] Creating layer Eltwise2_elu5_0_split
I1023 16:54:37.958284  5058 net.cpp:84] Creating Layer Eltwise2_elu5_0_split
I1023 16:54:37.958287  5058 net.cpp:406] Eltwise2_elu5_0_split <- Eltwise2
I1023 16:54:37.958290  5058 net.cpp:380] Eltwise2_elu5_0_split -> Eltwise2_elu5_0_split_0
I1023 16:54:37.958295  5058 net.cpp:380] Eltwise2_elu5_0_split -> Eltwise2_elu5_0_split_1
I1023 16:54:37.958317  5058 net.cpp:122] Setting up Eltwise2_elu5_0_split
I1023 16:54:37.958322  5058 net.cpp:129] Top shape: 8 16 224 224 (6422528)
I1023 16:54:37.958325  5058 net.cpp:129] Top shape: 8 16 224 224 (6422528)
I1023 16:54:37.958328  5058 net.cpp:137] Memory required for data: 724140064
I1023 16:54:37.958330  5058 layer_factory.hpp:77] Creating layer Convolution6
I1023 16:54:37.958344  5058 net.cpp:84] Creating Layer Convolution6
I1023 16:54:37.958348  5058 net.cpp:406] Convolution6 <- Eltwise2_elu5_0_split_0
I1023 16:54:37.958353  5058 net.cpp:380] Convolution6 -> Convolution6
I1023 16:54:37.959754  5058 net.cpp:122] Setting up Convolution6
I1023 16:54:37.959765  5058 net.cpp:129] Top shape: 8 16 224 224 (6422528)
I1023 16:54:37.959769  5058 net.cpp:137] Memory required for data: 749830176
I1023 16:54:37.959774  5058 layer_factory.hpp:77] Creating layer BatchNorm6
I1023 16:54:37.959780  5058 net.cpp:84] Creating Layer BatchNorm6
I1023 16:54:37.959784  5058 net.cpp:406] BatchNorm6 <- Convolution6
I1023 16:54:37.959789  5058 net.cpp:367] BatchNorm6 -> Convolution6 (in-place)
I1023 16:54:37.959935  5058 net.cpp:122] Setting up BatchNorm6
I1023 16:54:37.959941  5058 net.cpp:129] Top shape: 8 16 224 224 (6422528)
I1023 16:54:37.959944  5058 net.cpp:137] Memory required for data: 775520288
I1023 16:54:37.959949  5058 layer_factory.hpp:77] Creating layer Scale6
I1023 16:54:37.959954  5058 net.cpp:84] Creating Layer Scale6
I1023 16:54:37.959964  5058 net.cpp:406] Scale6 <- Convolution6
I1023 16:54:37.959969  5058 net.cpp:367] Scale6 -> Convolution6 (in-place)
I1023 16:54:37.959995  5058 layer_factory.hpp:77] Creating layer Scale6
I1023 16:54:37.960111  5058 net.cpp:122] Setting up Scale6
I1023 16:54:37.960117  5058 net.cpp:129] Top shape: 8 16 224 224 (6422528)
I1023 16:54:37.960120  5058 net.cpp:137] Memory required for data: 801210400
I1023 16:54:37.960124  5058 layer_factory.hpp:77] Creating layer elu6
I1023 16:54:37.960129  5058 net.cpp:84] Creating Layer elu6
I1023 16:54:37.960132  5058 net.cpp:406] elu6 <- Convolution6
I1023 16:54:37.960135  5058 net.cpp:367] elu6 -> Convolution6 (in-place)
I1023 16:54:37.960139  5058 net.cpp:122] Setting up elu6
I1023 16:54:37.960144  5058 net.cpp:129] Top shape: 8 16 224 224 (6422528)
I1023 16:54:37.960146  5058 net.cpp:137] Memory required for data: 826900512
I1023 16:54:37.960149  5058 layer_factory.hpp:77] Creating layer Convolution7
I1023 16:54:37.960155  5058 net.cpp:84] Creating Layer Convolution7
I1023 16:54:37.960157  5058 net.cpp:406] Convolution7 <- Convolution6
I1023 16:54:37.960161  5058 net.cpp:380] Convolution7 -> Convolution7
I1023 16:54:37.961074  5058 net.cpp:122] Setting up Convolution7
I1023 16:54:37.961086  5058 net.cpp:129] Top shape: 8 16 224 224 (6422528)
I1023 16:54:37.961088  5058 net.cpp:137] Memory required for data: 852590624
I1023 16:54:37.961093  5058 layer_factory.hpp:77] Creating layer BatchNorm7
I1023 16:54:37.961099  5058 net.cpp:84] Creating Layer BatchNorm7
I1023 16:54:37.961103  5058 net.cpp:406] BatchNorm7 <- Convolution7
I1023 16:54:37.961107  5058 net.cpp:367] BatchNorm7 -> Convolution7 (in-place)
I1023 16:54:37.961256  5058 net.cpp:122] Setting up BatchNorm7
I1023 16:54:37.961261  5058 net.cpp:129] Top shape: 8 16 224 224 (6422528)
I1023 16:54:37.961263  5058 net.cpp:137] Memory required for data: 878280736
I1023 16:54:37.961268  5058 layer_factory.hpp:77] Creating layer Scale7
I1023 16:54:37.961275  5058 net.cpp:84] Creating Layer Scale7
I1023 16:54:37.961278  5058 net.cpp:406] Scale7 <- Convolution7
I1023 16:54:37.961282  5058 net.cpp:367] Scale7 -> Convolution7 (in-place)
I1023 16:54:37.961308  5058 layer_factory.hpp:77] Creating layer Scale7
I1023 16:54:37.961418  5058 net.cpp:122] Setting up Scale7
I1023 16:54:37.961424  5058 net.cpp:129] Top shape: 8 16 224 224 (6422528)
I1023 16:54:37.961427  5058 net.cpp:137] Memory required for data: 903970848
I1023 16:54:37.961431  5058 layer_factory.hpp:77] Creating layer Eltwise3
I1023 16:54:37.961436  5058 net.cpp:84] Creating Layer Eltwise3
I1023 16:54:37.961441  5058 net.cpp:406] Eltwise3 <- Eltwise2_elu5_0_split_1
I1023 16:54:37.961446  5058 net.cpp:406] Eltwise3 <- Convolution7
I1023 16:54:37.961452  5058 net.cpp:380] Eltwise3 -> Eltwise3
I1023 16:54:37.961475  5058 net.cpp:122] Setting up Eltwise3
I1023 16:54:37.961483  5058 net.cpp:129] Top shape: 8 16 224 224 (6422528)
I1023 16:54:37.961488  5058 net.cpp:137] Memory required for data: 929660960
I1023 16:54:37.961503  5058 layer_factory.hpp:77] Creating layer elu7
I1023 16:54:37.961509  5058 net.cpp:84] Creating Layer elu7
I1023 16:54:37.961514  5058 net.cpp:406] elu7 <- Eltwise3
I1023 16:54:37.961521  5058 net.cpp:367] elu7 -> Eltwise3 (in-place)
I1023 16:54:37.961529  5058 net.cpp:122] Setting up elu7
I1023 16:54:37.961534  5058 net.cpp:129] Top shape: 8 16 224 224 (6422528)
I1023 16:54:37.961539  5058 net.cpp:137] Memory required for data: 955351072
I1023 16:54:37.961544  5058 layer_factory.hpp:77] Creating layer Eltwise3_elu7_0_split
I1023 16:54:37.961550  5058 net.cpp:84] Creating Layer Eltwise3_elu7_0_split
I1023 16:54:37.961555  5058 net.cpp:406] Eltwise3_elu7_0_split <- Eltwise3
I1023 16:54:37.961561  5058 net.cpp:380] Eltwise3_elu7_0_split -> Eltwise3_elu7_0_split_0
I1023 16:54:37.961570  5058 net.cpp:380] Eltwise3_elu7_0_split -> Eltwise3_elu7_0_split_1
I1023 16:54:37.961602  5058 net.cpp:122] Setting up Eltwise3_elu7_0_split
I1023 16:54:37.961609  5058 net.cpp:129] Top shape: 8 16 224 224 (6422528)
I1023 16:54:37.961616  5058 net.cpp:129] Top shape: 8 16 224 224 (6422528)
I1023 16:54:37.961621  5058 net.cpp:137] Memory required for data: 1006731296
I1023 16:54:37.961627  5058 layer_factory.hpp:77] Creating layer Convolution8
I1023 16:54:37.961637  5058 net.cpp:84] Creating Layer Convolution8
I1023 16:54:37.961642  5058 net.cpp:406] Convolution8 <- Eltwise3_elu7_0_split_0
I1023 16:54:37.961648  5058 net.cpp:380] Convolution8 -> Convolution8
I1023 16:54:37.963826  5058 net.cpp:122] Setting up Convolution8
I1023 16:54:37.963840  5058 net.cpp:129] Top shape: 8 32 112 112 (3211264)
I1023 16:54:37.963843  5058 net.cpp:137] Memory required for data: 1019576352
I1023 16:54:37.963850  5058 layer_factory.hpp:77] Creating layer BatchNorm8
I1023 16:54:37.963856  5058 net.cpp:84] Creating Layer BatchNorm8
I1023 16:54:37.963860  5058 net.cpp:406] BatchNorm8 <- Convolution8
I1023 16:54:37.963865  5058 net.cpp:367] BatchNorm8 -> Convolution8 (in-place)
I1023 16:54:37.964027  5058 net.cpp:122] Setting up BatchNorm8
I1023 16:54:37.964035  5058 net.cpp:129] Top shape: 8 32 112 112 (3211264)
I1023 16:54:37.964037  5058 net.cpp:137] Memory required for data: 1032421408
I1023 16:54:37.964043  5058 layer_factory.hpp:77] Creating layer Scale8
I1023 16:54:37.964048  5058 net.cpp:84] Creating Layer Scale8
I1023 16:54:37.964051  5058 net.cpp:406] Scale8 <- Convolution8
I1023 16:54:37.964056  5058 net.cpp:367] Scale8 -> Convolution8 (in-place)
I1023 16:54:37.964083  5058 layer_factory.hpp:77] Creating layer Scale8
I1023 16:54:37.964171  5058 net.cpp:122] Setting up Scale8
I1023 16:54:37.964177  5058 net.cpp:129] Top shape: 8 32 112 112 (3211264)
I1023 16:54:37.964180  5058 net.cpp:137] Memory required for data: 1045266464
I1023 16:54:37.964195  5058 layer_factory.hpp:77] Creating layer Convolution9
I1023 16:54:37.964202  5058 net.cpp:84] Creating Layer Convolution9
I1023 16:54:37.964205  5058 net.cpp:406] Convolution9 <- Eltwise3_elu7_0_split_1
I1023 16:54:37.964210  5058 net.cpp:380] Convolution9 -> Convolution9
I1023 16:54:37.965306  5058 net.cpp:122] Setting up Convolution9
I1023 16:54:37.965317  5058 net.cpp:129] Top shape: 8 32 112 112 (3211264)
I1023 16:54:37.965320  5058 net.cpp:137] Memory required for data: 1058111520
I1023 16:54:37.965325  5058 layer_factory.hpp:77] Creating layer BatchNorm9
I1023 16:54:37.965340  5058 net.cpp:84] Creating Layer BatchNorm9
I1023 16:54:37.965344  5058 net.cpp:406] BatchNorm9 <- Convolution9
I1023 16:54:37.965349  5058 net.cpp:367] BatchNorm9 -> Convolution9 (in-place)
I1023 16:54:37.965487  5058 net.cpp:122] Setting up BatchNorm9
I1023 16:54:37.965493  5058 net.cpp:129] Top shape: 8 32 112 112 (3211264)
I1023 16:54:37.965497  5058 net.cpp:137] Memory required for data: 1070956576
I1023 16:54:37.965502  5058 layer_factory.hpp:77] Creating layer Scale9
I1023 16:54:37.965507  5058 net.cpp:84] Creating Layer Scale9
I1023 16:54:37.965509  5058 net.cpp:406] Scale9 <- Convolution9
I1023 16:54:37.965512  5058 net.cpp:367] Scale9 -> Convolution9 (in-place)
I1023 16:54:37.965538  5058 layer_factory.hpp:77] Creating layer Scale9
I1023 16:54:37.965633  5058 net.cpp:122] Setting up Scale9
I1023 16:54:37.965639  5058 net.cpp:129] Top shape: 8 32 112 112 (3211264)
I1023 16:54:37.965642  5058 net.cpp:137] Memory required for data: 1083801632
I1023 16:54:37.965646  5058 layer_factory.hpp:77] Creating layer elu8
I1023 16:54:37.965651  5058 net.cpp:84] Creating Layer elu8
I1023 16:54:37.965654  5058 net.cpp:406] elu8 <- Convolution9
I1023 16:54:37.965658  5058 net.cpp:367] elu8 -> Convolution9 (in-place)
I1023 16:54:37.965663  5058 net.cpp:122] Setting up elu8
I1023 16:54:37.965667  5058 net.cpp:129] Top shape: 8 32 112 112 (3211264)
I1023 16:54:37.965670  5058 net.cpp:137] Memory required for data: 1096646688
I1023 16:54:37.965672  5058 layer_factory.hpp:77] Creating layer Convolution10
I1023 16:54:37.965679  5058 net.cpp:84] Creating Layer Convolution10
I1023 16:54:37.965682  5058 net.cpp:406] Convolution10 <- Convolution9
I1023 16:54:37.965687  5058 net.cpp:380] Convolution10 -> Convolution10
I1023 16:54:37.966744  5058 net.cpp:122] Setting up Convolution10
I1023 16:54:37.966755  5058 net.cpp:129] Top shape: 8 32 112 112 (3211264)
I1023 16:54:37.966758  5058 net.cpp:137] Memory required for data: 1109491744
I1023 16:54:37.966771  5058 layer_factory.hpp:77] Creating layer BatchNorm10
I1023 16:54:37.966778  5058 net.cpp:84] Creating Layer BatchNorm10
I1023 16:54:37.966780  5058 net.cpp:406] BatchNorm10 <- Convolution10
I1023 16:54:37.966784  5058 net.cpp:367] BatchNorm10 -> Convolution10 (in-place)
I1023 16:54:37.966918  5058 net.cpp:122] Setting up BatchNorm10
I1023 16:54:37.966924  5058 net.cpp:129] Top shape: 8 32 112 112 (3211264)
I1023 16:54:37.966928  5058 net.cpp:137] Memory required for data: 1122336800
I1023 16:54:37.966933  5058 layer_factory.hpp:77] Creating layer Scale10
I1023 16:54:37.966936  5058 net.cpp:84] Creating Layer Scale10
I1023 16:54:37.966940  5058 net.cpp:406] Scale10 <- Convolution10
I1023 16:54:37.966943  5058 net.cpp:367] Scale10 -> Convolution10 (in-place)
I1023 16:54:37.966969  5058 layer_factory.hpp:77] Creating layer Scale10
I1023 16:54:37.967051  5058 net.cpp:122] Setting up Scale10
I1023 16:54:37.967057  5058 net.cpp:129] Top shape: 8 32 112 112 (3211264)
I1023 16:54:37.967061  5058 net.cpp:137] Memory required for data: 1135181856
I1023 16:54:37.967064  5058 layer_factory.hpp:77] Creating layer Eltwise4
I1023 16:54:37.967069  5058 net.cpp:84] Creating Layer Eltwise4
I1023 16:54:37.967072  5058 net.cpp:406] Eltwise4 <- Convolution8
I1023 16:54:37.967075  5058 net.cpp:406] Eltwise4 <- Convolution10
I1023 16:54:37.967080  5058 net.cpp:380] Eltwise4 -> Eltwise4
I1023 16:54:37.967097  5058 net.cpp:122] Setting up Eltwise4
I1023 16:54:37.967102  5058 net.cpp:129] Top shape: 8 32 112 112 (3211264)
I1023 16:54:37.967104  5058 net.cpp:137] Memory required for data: 1148026912
I1023 16:54:37.967106  5058 layer_factory.hpp:77] Creating layer elu9
I1023 16:54:37.967111  5058 net.cpp:84] Creating Layer elu9
I1023 16:54:37.967114  5058 net.cpp:406] elu9 <- Eltwise4
I1023 16:54:37.967118  5058 net.cpp:367] elu9 -> Eltwise4 (in-place)
I1023 16:54:37.967121  5058 net.cpp:122] Setting up elu9
I1023 16:54:37.967125  5058 net.cpp:129] Top shape: 8 32 112 112 (3211264)
I1023 16:54:37.967128  5058 net.cpp:137] Memory required for data: 1160871968
I1023 16:54:37.967130  5058 layer_factory.hpp:77] Creating layer Eltwise4_elu9_0_split
I1023 16:54:37.967134  5058 net.cpp:84] Creating Layer Eltwise4_elu9_0_split
I1023 16:54:37.967137  5058 net.cpp:406] Eltwise4_elu9_0_split <- Eltwise4
I1023 16:54:37.967140  5058 net.cpp:380] Eltwise4_elu9_0_split -> Eltwise4_elu9_0_split_0
I1023 16:54:37.967145  5058 net.cpp:380] Eltwise4_elu9_0_split -> Eltwise4_elu9_0_split_1
I1023 16:54:37.967170  5058 net.cpp:122] Setting up Eltwise4_elu9_0_split
I1023 16:54:37.967175  5058 net.cpp:129] Top shape: 8 32 112 112 (3211264)
I1023 16:54:37.967178  5058 net.cpp:129] Top shape: 8 32 112 112 (3211264)
I1023 16:54:37.967181  5058 net.cpp:137] Memory required for data: 1186562080
I1023 16:54:37.967185  5058 layer_factory.hpp:77] Creating layer Convolution11
I1023 16:54:37.967197  5058 net.cpp:84] Creating Layer Convolution11
I1023 16:54:37.967201  5058 net.cpp:406] Convolution11 <- Eltwise4_elu9_0_split_0
I1023 16:54:37.967206  5058 net.cpp:380] Convolution11 -> Convolution11
I1023 16:54:37.968274  5058 net.cpp:122] Setting up Convolution11
I1023 16:54:37.968286  5058 net.cpp:129] Top shape: 8 32 112 112 (3211264)
I1023 16:54:37.968289  5058 net.cpp:137] Memory required for data: 1199407136
I1023 16:54:37.968293  5058 layer_factory.hpp:77] Creating layer BatchNorm11
I1023 16:54:37.968298  5058 net.cpp:84] Creating Layer BatchNorm11
I1023 16:54:37.968302  5058 net.cpp:406] BatchNorm11 <- Convolution11
I1023 16:54:37.968307  5058 net.cpp:367] BatchNorm11 -> Convolution11 (in-place)
I1023 16:54:37.968439  5058 net.cpp:122] Setting up BatchNorm11
I1023 16:54:37.968444  5058 net.cpp:129] Top shape: 8 32 112 112 (3211264)
I1023 16:54:37.968447  5058 net.cpp:137] Memory required for data: 1212252192
I1023 16:54:37.968452  5058 layer_factory.hpp:77] Creating layer Scale11
I1023 16:54:37.968457  5058 net.cpp:84] Creating Layer Scale11
I1023 16:54:37.968461  5058 net.cpp:406] Scale11 <- Convolution11
I1023 16:54:37.968464  5058 net.cpp:367] Scale11 -> Convolution11 (in-place)
I1023 16:54:37.968490  5058 layer_factory.hpp:77] Creating layer Scale11
I1023 16:54:37.968575  5058 net.cpp:122] Setting up Scale11
I1023 16:54:37.968581  5058 net.cpp:129] Top shape: 8 32 112 112 (3211264)
I1023 16:54:37.968585  5058 net.cpp:137] Memory required for data: 1225097248
I1023 16:54:37.968588  5058 layer_factory.hpp:77] Creating layer elu10
I1023 16:54:37.968592  5058 net.cpp:84] Creating Layer elu10
I1023 16:54:37.968596  5058 net.cpp:406] elu10 <- Convolution11
I1023 16:54:37.968600  5058 net.cpp:367] elu10 -> Convolution11 (in-place)
I1023 16:54:37.968605  5058 net.cpp:122] Setting up elu10
I1023 16:54:37.968608  5058 net.cpp:129] Top shape: 8 32 112 112 (3211264)
I1023 16:54:37.968611  5058 net.cpp:137] Memory required for data: 1237942304
I1023 16:54:37.968613  5058 layer_factory.hpp:77] Creating layer Convolution12
I1023 16:54:37.968621  5058 net.cpp:84] Creating Layer Convolution12
I1023 16:54:37.968623  5058 net.cpp:406] Convolution12 <- Convolution11
I1023 16:54:37.968629  5058 net.cpp:380] Convolution12 -> Convolution12
I1023 16:54:37.969677  5058 net.cpp:122] Setting up Convolution12
I1023 16:54:37.969688  5058 net.cpp:129] Top shape: 8 32 112 112 (3211264)
I1023 16:54:37.969691  5058 net.cpp:137] Memory required for data: 1250787360
I1023 16:54:37.969696  5058 layer_factory.hpp:77] Creating layer BatchNorm12
I1023 16:54:37.969702  5058 net.cpp:84] Creating Layer BatchNorm12
I1023 16:54:37.969705  5058 net.cpp:406] BatchNorm12 <- Convolution12
I1023 16:54:37.969709  5058 net.cpp:367] BatchNorm12 -> Convolution12 (in-place)
I1023 16:54:37.969843  5058 net.cpp:122] Setting up BatchNorm12
I1023 16:54:37.969849  5058 net.cpp:129] Top shape: 8 32 112 112 (3211264)
I1023 16:54:37.969852  5058 net.cpp:137] Memory required for data: 1263632416
I1023 16:54:37.969856  5058 layer_factory.hpp:77] Creating layer Scale12
I1023 16:54:37.969861  5058 net.cpp:84] Creating Layer Scale12
I1023 16:54:37.969864  5058 net.cpp:406] Scale12 <- Convolution12
I1023 16:54:37.969867  5058 net.cpp:367] Scale12 -> Convolution12 (in-place)
I1023 16:54:37.969894  5058 layer_factory.hpp:77] Creating layer Scale12
I1023 16:54:37.969976  5058 net.cpp:122] Setting up Scale12
I1023 16:54:37.969982  5058 net.cpp:129] Top shape: 8 32 112 112 (3211264)
I1023 16:54:37.969985  5058 net.cpp:137] Memory required for data: 1276477472
I1023 16:54:37.969990  5058 layer_factory.hpp:77] Creating layer Eltwise5
I1023 16:54:37.969993  5058 net.cpp:84] Creating Layer Eltwise5
I1023 16:54:37.969997  5058 net.cpp:406] Eltwise5 <- Eltwise4_elu9_0_split_1
I1023 16:54:37.970000  5058 net.cpp:406] Eltwise5 <- Convolution12
I1023 16:54:37.970005  5058 net.cpp:380] Eltwise5 -> Eltwise5
I1023 16:54:37.970021  5058 net.cpp:122] Setting up Eltwise5
I1023 16:54:37.970026  5058 net.cpp:129] Top shape: 8 32 112 112 (3211264)
I1023 16:54:37.970034  5058 net.cpp:137] Memory required for data: 1289322528
I1023 16:54:37.970037  5058 layer_factory.hpp:77] Creating layer elu11
I1023 16:54:37.970042  5058 net.cpp:84] Creating Layer elu11
I1023 16:54:37.970046  5058 net.cpp:406] elu11 <- Eltwise5
I1023 16:54:37.970048  5058 net.cpp:367] elu11 -> Eltwise5 (in-place)
I1023 16:54:37.970053  5058 net.cpp:122] Setting up elu11
I1023 16:54:37.970057  5058 net.cpp:129] Top shape: 8 32 112 112 (3211264)
I1023 16:54:37.970059  5058 net.cpp:137] Memory required for data: 1302167584
I1023 16:54:37.970062  5058 layer_factory.hpp:77] Creating layer Eltwise5_elu11_0_split
I1023 16:54:37.970065  5058 net.cpp:84] Creating Layer Eltwise5_elu11_0_split
I1023 16:54:37.970069  5058 net.cpp:406] Eltwise5_elu11_0_split <- Eltwise5
I1023 16:54:37.970072  5058 net.cpp:380] Eltwise5_elu11_0_split -> Eltwise5_elu11_0_split_0
I1023 16:54:37.970077  5058 net.cpp:380] Eltwise5_elu11_0_split -> Eltwise5_elu11_0_split_1
I1023 16:54:37.970100  5058 net.cpp:122] Setting up Eltwise5_elu11_0_split
I1023 16:54:37.970105  5058 net.cpp:129] Top shape: 8 32 112 112 (3211264)
I1023 16:54:37.970108  5058 net.cpp:129] Top shape: 8 32 112 112 (3211264)
I1023 16:54:37.970113  5058 net.cpp:137] Memory required for data: 1327857696
I1023 16:54:37.970114  5058 layer_factory.hpp:77] Creating layer Convolution13
I1023 16:54:37.970120  5058 net.cpp:84] Creating Layer Convolution13
I1023 16:54:37.970124  5058 net.cpp:406] Convolution13 <- Eltwise5_elu11_0_split_0
I1023 16:54:37.970129  5058 net.cpp:380] Convolution13 -> Convolution13
I1023 16:54:37.971179  5058 net.cpp:122] Setting up Convolution13
I1023 16:54:37.971189  5058 net.cpp:129] Top shape: 8 32 112 112 (3211264)
I1023 16:54:37.971192  5058 net.cpp:137] Memory required for data: 1340702752
I1023 16:54:37.971197  5058 layer_factory.hpp:77] Creating layer BatchNorm13
I1023 16:54:37.971202  5058 net.cpp:84] Creating Layer BatchNorm13
I1023 16:54:37.971205  5058 net.cpp:406] BatchNorm13 <- Convolution13
I1023 16:54:37.971210  5058 net.cpp:367] BatchNorm13 -> Convolution13 (in-place)
I1023 16:54:37.971348  5058 net.cpp:122] Setting up BatchNorm13
I1023 16:54:37.971352  5058 net.cpp:129] Top shape: 8 32 112 112 (3211264)
I1023 16:54:37.971355  5058 net.cpp:137] Memory required for data: 1353547808
I1023 16:54:37.971360  5058 layer_factory.hpp:77] Creating layer Scale13
I1023 16:54:37.971365  5058 net.cpp:84] Creating Layer Scale13
I1023 16:54:37.971369  5058 net.cpp:406] Scale13 <- Convolution13
I1023 16:54:37.971371  5058 net.cpp:367] Scale13 -> Convolution13 (in-place)
I1023 16:54:37.971398  5058 layer_factory.hpp:77] Creating layer Scale13
I1023 16:54:37.971485  5058 net.cpp:122] Setting up Scale13
I1023 16:54:37.971491  5058 net.cpp:129] Top shape: 8 32 112 112 (3211264)
I1023 16:54:37.971494  5058 net.cpp:137] Memory required for data: 1366392864
I1023 16:54:37.971498  5058 layer_factory.hpp:77] Creating layer elu12
I1023 16:54:37.971503  5058 net.cpp:84] Creating Layer elu12
I1023 16:54:37.971506  5058 net.cpp:406] elu12 <- Convolution13
I1023 16:54:37.971509  5058 net.cpp:367] elu12 -> Convolution13 (in-place)
I1023 16:54:37.971514  5058 net.cpp:122] Setting up elu12
I1023 16:54:37.971518  5058 net.cpp:129] Top shape: 8 32 112 112 (3211264)
I1023 16:54:37.971520  5058 net.cpp:137] Memory required for data: 1379237920
I1023 16:54:37.971524  5058 layer_factory.hpp:77] Creating layer Convolution14
I1023 16:54:37.971529  5058 net.cpp:84] Creating Layer Convolution14
I1023 16:54:37.971532  5058 net.cpp:406] Convolution14 <- Convolution13
I1023 16:54:37.971537  5058 net.cpp:380] Convolution14 -> Convolution14
I1023 16:54:37.972623  5058 net.cpp:122] Setting up Convolution14
I1023 16:54:37.972635  5058 net.cpp:129] Top shape: 8 32 112 112 (3211264)
I1023 16:54:37.972637  5058 net.cpp:137] Memory required for data: 1392082976
I1023 16:54:37.972642  5058 layer_factory.hpp:77] Creating layer BatchNorm14
I1023 16:54:37.972652  5058 net.cpp:84] Creating Layer BatchNorm14
I1023 16:54:37.972656  5058 net.cpp:406] BatchNorm14 <- Convolution14
I1023 16:54:37.972661  5058 net.cpp:367] BatchNorm14 -> Convolution14 (in-place)
I1023 16:54:37.972805  5058 net.cpp:122] Setting up BatchNorm14
I1023 16:54:37.972811  5058 net.cpp:129] Top shape: 8 32 112 112 (3211264)
I1023 16:54:37.972815  5058 net.cpp:137] Memory required for data: 1404928032
I1023 16:54:37.972820  5058 layer_factory.hpp:77] Creating layer Scale14
I1023 16:54:37.972826  5058 net.cpp:84] Creating Layer Scale14
I1023 16:54:37.972828  5058 net.cpp:406] Scale14 <- Convolution14
I1023 16:54:37.972832  5058 net.cpp:367] Scale14 -> Convolution14 (in-place)
I1023 16:54:37.972859  5058 layer_factory.hpp:77] Creating layer Scale14
I1023 16:54:37.972947  5058 net.cpp:122] Setting up Scale14
I1023 16:54:37.972954  5058 net.cpp:129] Top shape: 8 32 112 112 (3211264)
I1023 16:54:37.972955  5058 net.cpp:137] Memory required for data: 1417773088
I1023 16:54:37.972959  5058 layer_factory.hpp:77] Creating layer Eltwise6
I1023 16:54:37.972965  5058 net.cpp:84] Creating Layer Eltwise6
I1023 16:54:37.972967  5058 net.cpp:406] Eltwise6 <- Eltwise5_elu11_0_split_1
I1023 16:54:37.972971  5058 net.cpp:406] Eltwise6 <- Convolution14
I1023 16:54:37.972975  5058 net.cpp:380] Eltwise6 -> Eltwise6
I1023 16:54:37.972992  5058 net.cpp:122] Setting up Eltwise6
I1023 16:54:37.972997  5058 net.cpp:129] Top shape: 8 32 112 112 (3211264)
I1023 16:54:37.973001  5058 net.cpp:137] Memory required for data: 1430618144
I1023 16:54:37.973002  5058 layer_factory.hpp:77] Creating layer elu13
I1023 16:54:37.973006  5058 net.cpp:84] Creating Layer elu13
I1023 16:54:37.973008  5058 net.cpp:406] elu13 <- Eltwise6
I1023 16:54:37.973012  5058 net.cpp:367] elu13 -> Eltwise6 (in-place)
I1023 16:54:37.973016  5058 net.cpp:122] Setting up elu13
I1023 16:54:37.973019  5058 net.cpp:129] Top shape: 8 32 112 112 (3211264)
I1023 16:54:37.973022  5058 net.cpp:137] Memory required for data: 1443463200
I1023 16:54:37.973024  5058 layer_factory.hpp:77] Creating layer Eltwise6_elu13_0_split
I1023 16:54:37.973027  5058 net.cpp:84] Creating Layer Eltwise6_elu13_0_split
I1023 16:54:37.973029  5058 net.cpp:406] Eltwise6_elu13_0_split <- Eltwise6
I1023 16:54:37.973032  5058 net.cpp:380] Eltwise6_elu13_0_split -> Eltwise6_elu13_0_split_0
I1023 16:54:37.973037  5058 net.cpp:380] Eltwise6_elu13_0_split -> Eltwise6_elu13_0_split_1
I1023 16:54:37.973058  5058 net.cpp:122] Setting up Eltwise6_elu13_0_split
I1023 16:54:37.973062  5058 net.cpp:129] Top shape: 8 32 112 112 (3211264)
I1023 16:54:37.973065  5058 net.cpp:129] Top shape: 8 32 112 112 (3211264)
I1023 16:54:37.973067  5058 net.cpp:137] Memory required for data: 1469153312
I1023 16:54:37.973069  5058 layer_factory.hpp:77] Creating layer Convolution15
I1023 16:54:37.973074  5058 net.cpp:84] Creating Layer Convolution15
I1023 16:54:37.973078  5058 net.cpp:406] Convolution15 <- Eltwise6_elu13_0_split_0
I1023 16:54:37.973083  5058 net.cpp:380] Convolution15 -> Convolution15
I1023 16:54:37.973974  5058 net.cpp:122] Setting up Convolution15
I1023 16:54:37.973983  5058 net.cpp:129] Top shape: 8 64 56 56 (1605632)
I1023 16:54:37.973985  5058 net.cpp:137] Memory required for data: 1475575840
I1023 16:54:37.973989  5058 layer_factory.hpp:77] Creating layer BatchNorm15
I1023 16:54:37.973994  5058 net.cpp:84] Creating Layer BatchNorm15
I1023 16:54:37.973997  5058 net.cpp:406] BatchNorm15 <- Convolution15
I1023 16:54:37.974001  5058 net.cpp:367] BatchNorm15 -> Convolution15 (in-place)
I1023 16:54:37.974138  5058 net.cpp:122] Setting up BatchNorm15
I1023 16:54:37.974143  5058 net.cpp:129] Top shape: 8 64 56 56 (1605632)
I1023 16:54:37.974144  5058 net.cpp:137] Memory required for data: 1481998368
I1023 16:54:37.974149  5058 layer_factory.hpp:77] Creating layer Scale15
I1023 16:54:37.974153  5058 net.cpp:84] Creating Layer Scale15
I1023 16:54:37.974155  5058 net.cpp:406] Scale15 <- Convolution15
I1023 16:54:37.974159  5058 net.cpp:367] Scale15 -> Convolution15 (in-place)
I1023 16:54:37.974185  5058 layer_factory.hpp:77] Creating layer Scale15
I1023 16:54:37.974267  5058 net.cpp:122] Setting up Scale15
I1023 16:54:37.974272  5058 net.cpp:129] Top shape: 8 64 56 56 (1605632)
I1023 16:54:37.974279  5058 net.cpp:137] Memory required for data: 1488420896
I1023 16:54:37.974283  5058 layer_factory.hpp:77] Creating layer Convolution16
I1023 16:54:37.974290  5058 net.cpp:84] Creating Layer Convolution16
I1023 16:54:37.974293  5058 net.cpp:406] Convolution16 <- Eltwise6_elu13_0_split_1
I1023 16:54:37.974298  5058 net.cpp:380] Convolution16 -> Convolution16
I1023 16:54:37.975559  5058 net.cpp:122] Setting up Convolution16
I1023 16:54:37.975569  5058 net.cpp:129] Top shape: 8 64 56 56 (1605632)
I1023 16:54:37.975571  5058 net.cpp:137] Memory required for data: 1494843424
I1023 16:54:37.975575  5058 layer_factory.hpp:77] Creating layer BatchNorm16
I1023 16:54:37.975580  5058 net.cpp:84] Creating Layer BatchNorm16
I1023 16:54:37.975582  5058 net.cpp:406] BatchNorm16 <- Convolution16
I1023 16:54:37.975587  5058 net.cpp:367] BatchNorm16 -> Convolution16 (in-place)
I1023 16:54:37.975724  5058 net.cpp:122] Setting up BatchNorm16
I1023 16:54:37.975728  5058 net.cpp:129] Top shape: 8 64 56 56 (1605632)
I1023 16:54:37.975730  5058 net.cpp:137] Memory required for data: 1501265952
I1023 16:54:37.975735  5058 layer_factory.hpp:77] Creating layer Scale16
I1023 16:54:37.975739  5058 net.cpp:84] Creating Layer Scale16
I1023 16:54:37.975741  5058 net.cpp:406] Scale16 <- Convolution16
I1023 16:54:37.975746  5058 net.cpp:367] Scale16 -> Convolution16 (in-place)
I1023 16:54:37.975772  5058 layer_factory.hpp:77] Creating layer Scale16
I1023 16:54:37.975855  5058 net.cpp:122] Setting up Scale16
I1023 16:54:37.975859  5058 net.cpp:129] Top shape: 8 64 56 56 (1605632)
I1023 16:54:37.975862  5058 net.cpp:137] Memory required for data: 1507688480
I1023 16:54:37.975865  5058 layer_factory.hpp:77] Creating layer elu14
I1023 16:54:37.975869  5058 net.cpp:84] Creating Layer elu14
I1023 16:54:37.975872  5058 net.cpp:406] elu14 <- Convolution16
I1023 16:54:37.975874  5058 net.cpp:367] elu14 -> Convolution16 (in-place)
I1023 16:54:37.975878  5058 net.cpp:122] Setting up elu14
I1023 16:54:37.975881  5058 net.cpp:129] Top shape: 8 64 56 56 (1605632)
I1023 16:54:37.975883  5058 net.cpp:137] Memory required for data: 1514111008
I1023 16:54:37.975885  5058 layer_factory.hpp:77] Creating layer Convolution17
I1023 16:54:37.975893  5058 net.cpp:84] Creating Layer Convolution17
I1023 16:54:37.975894  5058 net.cpp:406] Convolution17 <- Convolution16
I1023 16:54:37.975898  5058 net.cpp:380] Convolution17 -> Convolution17
I1023 16:54:37.977262  5058 net.cpp:122] Setting up Convolution17
I1023 16:54:37.977269  5058 net.cpp:129] Top shape: 8 64 56 56 (1605632)
I1023 16:54:37.977272  5058 net.cpp:137] Memory required for data: 1520533536
I1023 16:54:37.977277  5058 layer_factory.hpp:77] Creating layer BatchNorm17
I1023 16:54:37.977282  5058 net.cpp:84] Creating Layer BatchNorm17
I1023 16:54:37.977283  5058 net.cpp:406] BatchNorm17 <- Convolution17
I1023 16:54:37.977288  5058 net.cpp:367] BatchNorm17 -> Convolution17 (in-place)
I1023 16:54:37.977483  5058 net.cpp:122] Setting up BatchNorm17
I1023 16:54:37.977494  5058 net.cpp:129] Top shape: 8 64 56 56 (1605632)
I1023 16:54:37.977499  5058 net.cpp:137] Memory required for data: 1526956064
I1023 16:54:37.977507  5058 layer_factory.hpp:77] Creating layer Scale17
I1023 16:54:37.977514  5058 net.cpp:84] Creating Layer Scale17
I1023 16:54:37.977519  5058 net.cpp:406] Scale17 <- Convolution17
I1023 16:54:37.977527  5058 net.cpp:367] Scale17 -> Convolution17 (in-place)
I1023 16:54:37.977565  5058 layer_factory.hpp:77] Creating layer Scale17
I1023 16:54:37.977681  5058 net.cpp:122] Setting up Scale17
I1023 16:54:37.977690  5058 net.cpp:129] Top shape: 8 64 56 56 (1605632)
I1023 16:54:37.977695  5058 net.cpp:137] Memory required for data: 1533378592
I1023 16:54:37.977702  5058 layer_factory.hpp:77] Creating layer Eltwise7
I1023 16:54:37.977710  5058 net.cpp:84] Creating Layer Eltwise7
I1023 16:54:37.977715  5058 net.cpp:406] Eltwise7 <- Convolution15
I1023 16:54:37.977720  5058 net.cpp:406] Eltwise7 <- Convolution17
I1023 16:54:37.977727  5058 net.cpp:380] Eltwise7 -> Eltwise7
I1023 16:54:37.977761  5058 net.cpp:122] Setting up Eltwise7
I1023 16:54:37.977769  5058 net.cpp:129] Top shape: 8 64 56 56 (1605632)
I1023 16:54:37.977774  5058 net.cpp:137] Memory required for data: 1539801120
I1023 16:54:37.977778  5058 layer_factory.hpp:77] Creating layer elu15
I1023 16:54:37.977785  5058 net.cpp:84] Creating Layer elu15
I1023 16:54:37.977790  5058 net.cpp:406] elu15 <- Eltwise7
I1023 16:54:37.977797  5058 net.cpp:367] elu15 -> Eltwise7 (in-place)
I1023 16:54:37.977803  5058 net.cpp:122] Setting up elu15
I1023 16:54:37.977810  5058 net.cpp:129] Top shape: 8 64 56 56 (1605632)
I1023 16:54:37.977814  5058 net.cpp:137] Memory required for data: 1546223648
I1023 16:54:37.977819  5058 layer_factory.hpp:77] Creating layer Eltwise7_elu15_0_split
I1023 16:54:37.977825  5058 net.cpp:84] Creating Layer Eltwise7_elu15_0_split
I1023 16:54:37.977830  5058 net.cpp:406] Eltwise7_elu15_0_split <- Eltwise7
I1023 16:54:37.977836  5058 net.cpp:380] Eltwise7_elu15_0_split -> Eltwise7_elu15_0_split_0
I1023 16:54:37.977843  5058 net.cpp:380] Eltwise7_elu15_0_split -> Eltwise7_elu15_0_split_1
I1023 16:54:37.977874  5058 net.cpp:122] Setting up Eltwise7_elu15_0_split
I1023 16:54:37.977880  5058 net.cpp:129] Top shape: 8 64 56 56 (1605632)
I1023 16:54:37.977885  5058 net.cpp:129] Top shape: 8 64 56 56 (1605632)
I1023 16:54:37.977890  5058 net.cpp:137] Memory required for data: 1559068704
I1023 16:54:37.977892  5058 layer_factory.hpp:77] Creating layer Convolution18
I1023 16:54:37.977902  5058 net.cpp:84] Creating Layer Convolution18
I1023 16:54:37.977906  5058 net.cpp:406] Convolution18 <- Eltwise7_elu15_0_split_0
I1023 16:54:37.977913  5058 net.cpp:380] Convolution18 -> Convolution18
I1023 16:54:37.980631  5058 net.cpp:122] Setting up Convolution18
I1023 16:54:37.980643  5058 net.cpp:129] Top shape: 8 64 56 56 (1605632)
I1023 16:54:37.980656  5058 net.cpp:137] Memory required for data: 1565491232
I1023 16:54:37.980662  5058 layer_factory.hpp:77] Creating layer BatchNorm18
I1023 16:54:37.980669  5058 net.cpp:84] Creating Layer BatchNorm18
I1023 16:54:37.980674  5058 net.cpp:406] BatchNorm18 <- Convolution18
I1023 16:54:37.980677  5058 net.cpp:367] BatchNorm18 -> Convolution18 (in-place)
I1023 16:54:37.980829  5058 net.cpp:122] Setting up BatchNorm18
I1023 16:54:37.980834  5058 net.cpp:129] Top shape: 8 64 56 56 (1605632)
I1023 16:54:37.980837  5058 net.cpp:137] Memory required for data: 1571913760
I1023 16:54:37.980854  5058 layer_factory.hpp:77] Creating layer Scale18
I1023 16:54:37.980859  5058 net.cpp:84] Creating Layer Scale18
I1023 16:54:37.980862  5058 net.cpp:406] Scale18 <- Convolution18
I1023 16:54:37.980865  5058 net.cpp:367] Scale18 -> Convolution18 (in-place)
I1023 16:54:37.980895  5058 layer_factory.hpp:77] Creating layer Scale18
I1023 16:54:37.980980  5058 net.cpp:122] Setting up Scale18
I1023 16:54:37.980986  5058 net.cpp:129] Top shape: 8 64 56 56 (1605632)
I1023 16:54:37.980989  5058 net.cpp:137] Memory required for data: 1578336288
I1023 16:54:37.980993  5058 layer_factory.hpp:77] Creating layer elu16
I1023 16:54:37.980998  5058 net.cpp:84] Creating Layer elu16
I1023 16:54:37.981003  5058 net.cpp:406] elu16 <- Convolution18
I1023 16:54:37.981005  5058 net.cpp:367] elu16 -> Convolution18 (in-place)
I1023 16:54:37.981009  5058 net.cpp:122] Setting up elu16
I1023 16:54:37.981014  5058 net.cpp:129] Top shape: 8 64 56 56 (1605632)
I1023 16:54:37.981016  5058 net.cpp:137] Memory required for data: 1584758816
I1023 16:54:37.981019  5058 layer_factory.hpp:77] Creating layer Convolution19
I1023 16:54:37.981025  5058 net.cpp:84] Creating Layer Convolution19
I1023 16:54:37.981029  5058 net.cpp:406] Convolution19 <- Convolution18
I1023 16:54:37.981035  5058 net.cpp:380] Convolution19 -> Convolution19
I1023 16:54:37.983335  5058 net.cpp:122] Setting up Convolution19
I1023 16:54:37.983345  5058 net.cpp:129] Top shape: 8 64 56 56 (1605632)
I1023 16:54:37.983350  5058 net.cpp:137] Memory required for data: 1591181344
I1023 16:54:37.983355  5058 layer_factory.hpp:77] Creating layer BatchNorm19
I1023 16:54:37.983361  5058 net.cpp:84] Creating Layer BatchNorm19
I1023 16:54:37.983373  5058 net.cpp:406] BatchNorm19 <- Convolution19
I1023 16:54:37.983379  5058 net.cpp:367] BatchNorm19 -> Convolution19 (in-place)
I1023 16:54:37.983520  5058 net.cpp:122] Setting up BatchNorm19
I1023 16:54:37.983525  5058 net.cpp:129] Top shape: 8 64 56 56 (1605632)
I1023 16:54:37.983527  5058 net.cpp:137] Memory required for data: 1597603872
I1023 16:54:37.983546  5058 layer_factory.hpp:77] Creating layer Scale19
I1023 16:54:37.983551  5058 net.cpp:84] Creating Layer Scale19
I1023 16:54:37.983556  5058 net.cpp:406] Scale19 <- Convolution19
I1023 16:54:37.983558  5058 net.cpp:367] Scale19 -> Convolution19 (in-place)
I1023 16:54:37.983590  5058 layer_factory.hpp:77] Creating layer Scale19
I1023 16:54:37.983675  5058 net.cpp:122] Setting up Scale19
I1023 16:54:37.983680  5058 net.cpp:129] Top shape: 8 64 56 56 (1605632)
I1023 16:54:37.983682  5058 net.cpp:137] Memory required for data: 1604026400
I1023 16:54:37.983686  5058 layer_factory.hpp:77] Creating layer Eltwise8
I1023 16:54:37.983691  5058 net.cpp:84] Creating Layer Eltwise8
I1023 16:54:37.983695  5058 net.cpp:406] Eltwise8 <- Eltwise7_elu15_0_split_1
I1023 16:54:37.983698  5058 net.cpp:406] Eltwise8 <- Convolution19
I1023 16:54:37.983703  5058 net.cpp:380] Eltwise8 -> Eltwise8
I1023 16:54:37.983721  5058 net.cpp:122] Setting up Eltwise8
I1023 16:54:37.983726  5058 net.cpp:129] Top shape: 8 64 56 56 (1605632)
I1023 16:54:37.983728  5058 net.cpp:137] Memory required for data: 1610448928
I1023 16:54:37.983731  5058 layer_factory.hpp:77] Creating layer elu17
I1023 16:54:37.983734  5058 net.cpp:84] Creating Layer elu17
I1023 16:54:37.983737  5058 net.cpp:406] elu17 <- Eltwise8
I1023 16:54:37.983741  5058 net.cpp:367] elu17 -> Eltwise8 (in-place)
I1023 16:54:37.983747  5058 net.cpp:122] Setting up elu17
I1023 16:54:37.983749  5058 net.cpp:129] Top shape: 8 64 56 56 (1605632)
I1023 16:54:37.983752  5058 net.cpp:137] Memory required for data: 1616871456
I1023 16:54:37.983754  5058 layer_factory.hpp:77] Creating layer Eltwise8_elu17_0_split
I1023 16:54:37.983758  5058 net.cpp:84] Creating Layer Eltwise8_elu17_0_split
I1023 16:54:37.983762  5058 net.cpp:406] Eltwise8_elu17_0_split <- Eltwise8
I1023 16:54:37.983764  5058 net.cpp:380] Eltwise8_elu17_0_split -> Eltwise8_elu17_0_split_0
I1023 16:54:37.983769  5058 net.cpp:380] Eltwise8_elu17_0_split -> Eltwise8_elu17_0_split_1
I1023 16:54:37.983794  5058 net.cpp:122] Setting up Eltwise8_elu17_0_split
I1023 16:54:37.983798  5058 net.cpp:129] Top shape: 8 64 56 56 (1605632)
I1023 16:54:37.983803  5058 net.cpp:129] Top shape: 8 64 56 56 (1605632)
I1023 16:54:37.983804  5058 net.cpp:137] Memory required for data: 1629716512
I1023 16:54:37.983808  5058 layer_factory.hpp:77] Creating layer Convolution20
I1023 16:54:37.983814  5058 net.cpp:84] Creating Layer Convolution20
I1023 16:54:37.983816  5058 net.cpp:406] Convolution20 <- Eltwise8_elu17_0_split_0
I1023 16:54:37.983821  5058 net.cpp:380] Convolution20 -> Convolution20
I1023 16:54:37.986165  5058 net.cpp:122] Setting up Convolution20
I1023 16:54:37.986174  5058 net.cpp:129] Top shape: 8 64 56 56 (1605632)
I1023 16:54:37.986178  5058 net.cpp:137] Memory required for data: 1636139040
I1023 16:54:37.986184  5058 layer_factory.hpp:77] Creating layer BatchNorm20
I1023 16:54:37.986189  5058 net.cpp:84] Creating Layer BatchNorm20
I1023 16:54:37.986192  5058 net.cpp:406] BatchNorm20 <- Convolution20
I1023 16:54:37.986196  5058 net.cpp:367] BatchNorm20 -> Convolution20 (in-place)
I1023 16:54:37.986341  5058 net.cpp:122] Setting up BatchNorm20
I1023 16:54:37.986346  5058 net.cpp:129] Top shape: 8 64 56 56 (1605632)
I1023 16:54:37.986349  5058 net.cpp:137] Memory required for data: 1642561568
I1023 16:54:37.986354  5058 layer_factory.hpp:77] Creating layer Scale20
I1023 16:54:37.986359  5058 net.cpp:84] Creating Layer Scale20
I1023 16:54:37.986362  5058 net.cpp:406] Scale20 <- Convolution20
I1023 16:54:37.986366  5058 net.cpp:367] Scale20 -> Convolution20 (in-place)
I1023 16:54:37.986395  5058 layer_factory.hpp:77] Creating layer Scale20
I1023 16:54:37.986488  5058 net.cpp:122] Setting up Scale20
I1023 16:54:37.986495  5058 net.cpp:129] Top shape: 8 64 56 56 (1605632)
I1023 16:54:37.986498  5058 net.cpp:137] Memory required for data: 1648984096
I1023 16:54:37.986502  5058 layer_factory.hpp:77] Creating layer elu18
I1023 16:54:37.986506  5058 net.cpp:84] Creating Layer elu18
I1023 16:54:37.986510  5058 net.cpp:406] elu18 <- Convolution20
I1023 16:54:37.986513  5058 net.cpp:367] elu18 -> Convolution20 (in-place)
I1023 16:54:37.986517  5058 net.cpp:122] Setting up elu18
I1023 16:54:37.986521  5058 net.cpp:129] Top shape: 8 64 56 56 (1605632)
I1023 16:54:37.986524  5058 net.cpp:137] Memory required for data: 1655406624
I1023 16:54:37.986526  5058 layer_factory.hpp:77] Creating layer Convolution21
I1023 16:54:37.986533  5058 net.cpp:84] Creating Layer Convolution21
I1023 16:54:37.986536  5058 net.cpp:406] Convolution21 <- Convolution20
I1023 16:54:37.986541  5058 net.cpp:380] Convolution21 -> Convolution21
I1023 16:54:37.988226  5058 net.cpp:122] Setting up Convolution21
I1023 16:54:37.988235  5058 net.cpp:129] Top shape: 8 64 56 56 (1605632)
I1023 16:54:37.988239  5058 net.cpp:137] Memory required for data: 1661829152
I1023 16:54:37.988242  5058 layer_factory.hpp:77] Creating layer BatchNorm21
I1023 16:54:37.988247  5058 net.cpp:84] Creating Layer BatchNorm21
I1023 16:54:37.988250  5058 net.cpp:406] BatchNorm21 <- Convolution21
I1023 16:54:37.988255  5058 net.cpp:367] BatchNorm21 -> Convolution21 (in-place)
I1023 16:54:37.988394  5058 net.cpp:122] Setting up BatchNorm21
I1023 16:54:37.988399  5058 net.cpp:129] Top shape: 8 64 56 56 (1605632)
I1023 16:54:37.988401  5058 net.cpp:137] Memory required for data: 1668251680
I1023 16:54:37.988406  5058 layer_factory.hpp:77] Creating layer Scale21
I1023 16:54:37.988411  5058 net.cpp:84] Creating Layer Scale21
I1023 16:54:37.988414  5058 net.cpp:406] Scale21 <- Convolution21
I1023 16:54:37.988416  5058 net.cpp:367] Scale21 -> Convolution21 (in-place)
I1023 16:54:37.988443  5058 layer_factory.hpp:77] Creating layer Scale21
I1023 16:54:37.988525  5058 net.cpp:122] Setting up Scale21
I1023 16:54:37.988530  5058 net.cpp:129] Top shape: 8 64 56 56 (1605632)
I1023 16:54:37.988533  5058 net.cpp:137] Memory required for data: 1674674208
I1023 16:54:37.988536  5058 layer_factory.hpp:77] Creating layer Eltwise9
I1023 16:54:37.988540  5058 net.cpp:84] Creating Layer Eltwise9
I1023 16:54:37.988543  5058 net.cpp:406] Eltwise9 <- Eltwise8_elu17_0_split_1
I1023 16:54:37.988546  5058 net.cpp:406] Eltwise9 <- Convolution21
I1023 16:54:37.988549  5058 net.cpp:380] Eltwise9 -> Eltwise9
I1023 16:54:37.988565  5058 net.cpp:122] Setting up Eltwise9
I1023 16:54:37.988569  5058 net.cpp:129] Top shape: 8 64 56 56 (1605632)
I1023 16:54:37.988571  5058 net.cpp:137] Memory required for data: 1681096736
I1023 16:54:37.988574  5058 layer_factory.hpp:77] Creating layer elu19
I1023 16:54:37.988577  5058 net.cpp:84] Creating Layer elu19
I1023 16:54:37.988579  5058 net.cpp:406] elu19 <- Eltwise9
I1023 16:54:37.988582  5058 net.cpp:367] elu19 -> Eltwise9 (in-place)
I1023 16:54:37.988586  5058 net.cpp:122] Setting up elu19
I1023 16:54:37.988590  5058 net.cpp:129] Top shape: 8 64 56 56 (1605632)
I1023 16:54:37.988592  5058 net.cpp:137] Memory required for data: 1687519264
I1023 16:54:37.988595  5058 layer_factory.hpp:77] Creating layer Pooling1
I1023 16:54:37.988598  5058 net.cpp:84] Creating Layer Pooling1
I1023 16:54:37.988600  5058 net.cpp:406] Pooling1 <- Eltwise9
I1023 16:54:37.988603  5058 net.cpp:380] Pooling1 -> Pooling1
I1023 16:54:37.988746  5058 net.cpp:122] Setting up Pooling1
I1023 16:54:37.988754  5058 net.cpp:129] Top shape: 8 64 1 1 (512)
I1023 16:54:37.988755  5058 net.cpp:137] Memory required for data: 1687521312
I1023 16:54:37.988757  5058 layer_factory.hpp:77] Creating layer InnerProduct1
I1023 16:54:37.988766  5058 net.cpp:84] Creating Layer InnerProduct1
I1023 16:54:37.988770  5058 net.cpp:406] InnerProduct1 <- Pooling1
I1023 16:54:37.988775  5058 net.cpp:380] InnerProduct1 -> InnerProduct1
I1023 16:54:37.988855  5058 net.cpp:122] Setting up InnerProduct1
I1023 16:54:37.988867  5058 net.cpp:129] Top shape: 8 4 (32)
I1023 16:54:37.988868  5058 net.cpp:137] Memory required for data: 1687521440
I1023 16:54:37.988873  5058 layer_factory.hpp:77] Creating layer SoftmaxWithLoss1
I1023 16:54:37.988876  5058 net.cpp:84] Creating Layer SoftmaxWithLoss1
I1023 16:54:37.988879  5058 net.cpp:406] SoftmaxWithLoss1 <- InnerProduct1
I1023 16:54:37.988883  5058 net.cpp:406] SoftmaxWithLoss1 <- Data2
I1023 16:54:37.988888  5058 net.cpp:380] SoftmaxWithLoss1 -> SoftmaxWithLoss1
…
I1023 16:54:37.991179  5058 net.cpp:294] The NetState phase (1) differed from the phase (0) specified by a rule in layer Data1
I1023 16:54:37.991559  5058 net.cpp:51] Initializing net from parameters: 
name: "resnet"
state {
  phase: TEST
}
layer {
  name: "Data1"
  type: "Data"
  top: "Data1"
  top: "Data2"
  include {
    phase: TEST
  }
  transform_param {
    mirror: false
    crop_size: 224
    mean_file: "/home/x306/caffe/xn/English_orange/data/orange1_mean.binaryproto"
  }
  data_param {
    source: "/home/x306/caffe/xn/English_orange/data/val1_lmdb"
    batch_size: 8
    backend: LMDB
  }
}
layer {
  name: "Convolution1"
  type: "Convolution"
  bottom: "Data1"
  top: "Convolution1"
  param {
    lr_mult: 1
    decay_mult: 1
  }
  param {
    lr_mult: 2
    decay_mult: 0
  }
  convolution_param {
    num_output: 16
    pad: 1
    kernel_size: 3
    stride: 1
    weight_filler {
      type: "gaussian"
      std: 0.118
    }
    bias_filler {
      type: "constant"
      value: 0
    }
  }
}
layer {
  name: "BatchNorm1"
  type: "BatchNorm"
  bottom: "Convolution1"
  top: "Convolution1"
  param {
    lr_mult: 0
    decay_mult: 0
  }
  param {
    lr_mult: 0
    decay_mult: 0
  }
  param {
    lr_mult: 0
    decay_mult: 0
  }
}
layer {
  name: "Scale1"
  type: "Scale"
  bottom: "Convolution1"
  top: "Convolution1"
  scale_param {
    bias_term: true
  }
}
layer {
  name: "elu1"
  type: "ELU"
  bottom: "Convolution1"
  top: "Convolution1"
  elu_param {
    alpha: 1
  }
}
layer {
  name: "Convolution2"
  type: "Convolution"
  bottom: "Convolution1"
  top: "Convolution2"
  param {
    lr_mult: 1
    decay_mult: 1
  }
  param {
    lr_mult: 2
    decay_mult: 0
  }
  convolution_param {
    num_output: 16
    pad: 1
    kernel_size: 3
    stride: 1
    weight_filler {
      type: "gaussian"
      std: 0.118
    }
    bias_filler {
      type: "constant"
      value: 0
    }
  }
}
layer {
  name: "BatchNorm2"
  type: "BatchNorm"
  bottom: "Convolution2"
  top: "Convolution2"
  param {
    lr_mult: 0
    decay_mult: 0
  }
  param {
    lr_mult: 0
    decay_mult: 0
  }
  param {
    lr_mult: 0
    decay_mult: 0
  }
}
layer {
  name: "Scale2"
  type: "Scale"
  bottom: "Convolution2"
  top: "Convolution2"
  scale_param {
    bias_term: true
  }
}
layer {
  name: "elu2"
  type: "ELU"
  bottom: "Convolution2"
  top: "Convolution2"
  elu_param {
    alpha: 1
  }
}
layer {
  name: "Convolution3"
  type: "Convolution"
  bottom: "Convolution2"
  top: "Convolution3"
  param {
    lr_mult: 1
    decay_mult: 1
  }
  param {
    lr_mult: 2
    decay_mult: 0
  }
  convolution_param {
    num_output: 16
    pad: 1
    kernel_size: 3
    stride: 1
    weight_filler {
      type: "gaussian"
      std: 0.118
    }
    bias_filler {
      type: "constant"
      value: 0
    }
  }
}
layer {
  name: "BatchNorm3"
  type: "BatchNorm"
  bottom: "Convolution3"
  top: "Convolution3"
  param {
    lr_mult: 0
    decay_mult: 0
  }
  param {
    lr_mult: 0
    decay_mult: 0
  }
  param {
    lr_mult: 0
    decay_mult: 0
  }
}
layer {
  name: "Scale3"
  type: "Scale"
  bottom: "Convolution3"
  top: "Convolution3"
  scale_param {
    bias_term: true
  }
}
layer {
  name: "Eltwise1"
  type: "Eltwise"
  bottom: "Convolution1"
  bottom: "Convolution3"
  top: "Eltwise1"
  eltwise_param {
    operation: SUM
  }
}
layer {
  name: "elu3"
  type: "ELU"
  bottom: "Eltwise1"
  top: "Eltwise1"
  elu_param {
    alpha: 1
  }
}
layer {
  name: "Convolution4"
  type: "Convolution"
  bottom: "Eltwise1"
  top: "Convolution4"
  param {
    lr_mult: 1
    decay_mult: 1
  }
  param {
    lr_mult: 2
    decay_mult: 0
  }
  convolution_param {
    num_output: 16
    pad: 1
    kernel_size: 3
    stride: 1
    weight_filler {
      type: "gaussian"
      std: 0.118
    }
    bias_filler {
      type: "constant"
      value: 0
    }
  }
}
layer {
  name: "BatchNorm4"
  type: "BatchNorm"
  bottom: "Convolution4"
  top: "Convolution4"
  param {
    lr_mult: 0
    decay_mult: 0
  }
  param {
    lr_mult: 0
    decay_mult: 0
  }
  param {
    lr_mult: 0
    decay_mult: 0
  }
}
layer {
  name: "Scale4"
  type: "Scale"
  bottom: "Convolution4"
  top: "Convolution4"
  scale_param {
    bias_term: true
  }
}
layer {
  name: "elu4"
  type: "ELU"
  bottom: "Convolution4"
  top: "Convolution4"
  elu_param {
    alpha: 1
  }
}
layer {
  name: "Convolution5"
  type: "Convolution"
  bottom: "Convolution4"
  top: "Convolution5"
  param {
    lr_mult: 1
    decay_mult: 1
  }
  param {
    lr_mult: 2
    decay_mult: 0
  }
  convolution_param {
    num_output: 16
    pad: 1
    kernel_size: 3
    stride: 1
    weight_filler {
      type: "gaussian"
      std: 0.118
    }
    bias_filler {
      type: "constant"
      value: 0
    }
  }
}
layer {
  name: "BatchNorm5"
  type: "BatchNorm"
  bottom: "Convolution5"
  top: "Convolution5"
  param {
    lr_mult: 0
    decay_mult: 0
  }
  param {
    lr_mult: 0
    decay_mult: 0
  }
  param {
    lr_mult: 0
    decay_mult: 0
  }
}
layer {
  name: "Scale5"
  type: "Scale"
  bottom: "Convolution5"
  top: "Convolution5"
  scale_param {
    bias_term: true
  }
}
layer {
  name: "Eltwise2"
  type: "Eltwise"
  bottom: "Eltwise1"
  bottom: "Convolution5"
  top: "Eltwise2"
  eltwise_param {
    operation: SUM
  }
}
layer {
  name: "elu5"
  type: "ELU"
  bottom: "Eltwise2"
  top: "Eltwise2"
  elu_param {
    alpha: 1
  }
}
layer {
  name: "Convolution6"
  type: "Convolution"
  bottom: "Eltwise2"
  top: "Convolution6"
  param {
    lr_mult: 1
    decay_mult: 1
  }
  param {
    lr_mult: 2
    decay_mult: 0
  }
  convolution_param {
    num_output: 16
    pad: 1
    kernel_size: 3
    stride: 1
    weight_filler {
      type: "gaussian"
      std: 0.118
    }
    bias_filler {
      type: "constant"
      value: 0
    }
  }
}
layer {
  name: "BatchNorm6"
  type: "BatchNorm"
  bottom: "Convolution6"
  top: "Convolution6"
  param {
    lr_mult: 0
    decay_mult: 0
  }
  param {
    lr_mult: 0
    decay_mult: 0
  }
  param {
    lr_mult: 0
    decay_mult: 0
  }
}
layer {
  name: "Scale6"
  type: "Scale"
  bottom: "Convolution6"
  top: "Convolution6"
  scale_param {
    bias_term: true
  }
}
layer {
  name: "elu6"
  type: "ELU"
  bottom: "Convolution6"
  top: "Convolution6"
  elu_param {
    alpha: 1
  }
}
layer {
  name: "Convolution7"
  type: "Convolution"
  bottom: "Convolution6"
  top: "Convolution7"
  param {
    lr_mult: 1
    decay_mult: 1
  }
  param {
    lr_mult: 2
    decay_mult: 0
  }
  convolution_param {
    num_output: 16
    pad: 1
    kernel_size: 3
    stride: 1
    weight_filler {
      type: "gaussian"
      std: 0.118
    }
    bias_filler {
      type: "constant"
      value: 0
    }
  }
}
layer {
  name: "BatchNorm7"
  type: "BatchNorm"
  bottom: "Convolution7"
  top: "Convolution7"
  param {
    lr_mult: 0
    decay_mult: 0
  }
  param {
    lr_mult: 0
    decay_mult: 0
  }
  param {
    lr_mult: 0
    decay_mult: 0
  }
}
layer {
  name: "Scale7"
  type: "Scale"
  bottom: "Convolution7"
  top: "Convolution7"
  scale_param {
    bias_term: true
  }
}
layer {
  name: "Eltwise3"
  type: "Eltwise"
  bottom: "Eltwise2"
  bottom: "Convolution7"
  top: "Eltwise3"
  eltwise_param {
    operation: SUM
  }
}
layer {
  name: "elu7"
  type: "ELU"
  bottom: "Eltwise3"
  top: "Eltwise3"
  elu_param {
    alpha: 1
  }
}
layer {
  name: "Convolution8"
  type: "Convolution"
  bottom: "Eltwise3"
  top: "Convolution8"
  param {
    lr_mult: 1
    decay_mult: 1
  }
  param {
    lr_mult: 2
    decay_mult: 0
  }
  convolution_param {
    num_output: 32
    pad: 0
    kernel_size: 1
    stride: 2
    weight_filler {
      type: "gaussian"
      std: 1
    }
    bias_filler {
      type: "constant"
      value: 0
    }
  }
}
layer {
  name: "BatchNorm8"
  type: "BatchNorm"
  bottom: "Convolution8"
  top: "Convolution8"
  param {
    lr_mult: 0
    decay_mult: 0
  }
  param {
    lr_mult: 0
    decay_mult: 0
  }
  param {
    lr_mult: 0
    decay_mult: 0
  }
}
layer {
  name: "Scale8"
  type: "Scale"
  bottom: "Convolution8"
  top: "Convolution8"
  scale_param {
    bias_term: true
  }
}
layer {
  name: "Convolution9"
  type: "Convolution"
  bottom: "Eltwise3"
  top: "Convolution9"
  param {
    lr_mult: 1
    decay_mult: 1
  }
  param {
    lr_mult: 2
    decay_mult: 0
  }
  convolution_param {
    num_output: 32
    pad: 1
    kernel_size: 3
    stride: 2
    weight_filler {
      type: "gaussian"
      std: 0.083
    }
    bias_filler {
      type: "constant"
      value: 0
    }
  }
}
layer {
  name: "BatchNorm9"
  type: "BatchNorm"
  bottom: "Convolution9"
  top: "Convolution9"
  param {
    lr_mult: 0
    decay_mult: 0
  }
  param {
    lr_mult: 0
    decay_mult: 0
  }
  param {
    lr_mult: 0
    decay_mult: 0
  }
}
layer {
  name: "Scale9"
  type: "Scale"
  bottom: "Convolution9"
  top: "Convolution9"
  scale_param {
    bias_term: true
  }
}
layer {
  name: "elu8"
  type: "ELU"
  bottom: "Convolution9"
  top: "Convolution9"
  elu_param {
    alpha: 1
  }
}
layer {
  name: "Convolution10"
  type: "Convolution"
  bottom: "Convolution9"
  top: "Convolution10"
  param {
    lr_mult: 1
    decay_mult: 1
  }
  param {
    lr_mult: 2
    decay_mult: 0
  }
  convolution_param {
    num_output: 32
    pad: 1
    kernel_size: 3
    stride: 1
    weight_filler {
      type: "gaussian"
      std: 0.083
    }
    bias_filler {
      type: "constant"
      value: 0
    }
  }
}
layer {
  name: "BatchNorm10"
  type: "BatchNorm"
  bottom: "Convolution10"
  top: "Convolution10"
  param {
    lr_mult: 0
    decay_mult: 0
  }
  param {
    lr_mult: 0
    decay_mult: 0
  }
  param {
    lr_mult: 0
    decay_mult: 0
  }
}
layer {
  name: "Scale10"
  type: "Scale"
  bottom: "Convolution10"
  top: "Convolution10"
  scale_param {
    bias_term: true
  }
}
layer {
  name: "Eltwise4"
  type: "Eltwise"
  bottom: "Convolution8"
  bottom: "Convolution10"
  top: "Eltwise4"
  eltwise_param {
    operation: SUM
  }
}
layer {
  name: "elu9"
  type: "ELU"
  bottom: "Eltwise4"
  top: "Eltwise4"
  elu_param {
    alpha: 1
  }
}
layer {
  name: "Convolution11"
  type: "Convolution"
  bottom: "Eltwise4"
  top: "Convolution11"
  param {
    lr_mult: 1
    decay_mult: 1
  }
  param {
    lr_mult: 2
    decay_mult: 0
  }
  convolution_param {
    num_output: 32
    pad: 1
    kernel_size: 3
    stride: 1
    weight_filler {
      type: "gaussian"
      std: 0.083
    }
    bias_filler {
      type: "constant"
      value: 0
    }
  }
}
layer {
  name: "BatchNorm11"
  type: "BatchNorm"
  bottom: "Convolution11"
  top: "Convolution11"
  param {
    lr_mult: 0
    decay_mult: 0
  }
  param {
    lr_mult: 0
    decay_mult: 0
  }
  param {
    lr_mult: 0
    decay_mult: 0
  }
}
layer {
  name: "Scale11"
  type: "Scale"
  bottom: "Convolution11"
  top: "Convolution11"
  scale_param {
    bias_term: true
  }
}
layer {
  name: "elu10"
  type: "ELU"
  bottom: "Convolution11"
  top: "Convolution11"
  elu_param {
    alpha: 1
  }
}
layer {
  name: "Convolution12"
  type: "Convolution"
  bottom: "Convolution11"
  top: "Convolution12"
  param {
    lr_mult: 1
    decay_mult: 1
  }
  param {
    lr_mult: 2
    decay_mult: 0
  }
  convolution_param {
    num_output: 32
    pad: 1
    kernel_size: 3
    stride: 1
    weight_filler {
      type: "gaussian"
      std: 0.083
    }
    bias_filler {
      type: "constant"
      value: 0
    }
  }
}
layer {
  name: "BatchNorm12"
  type: "BatchNorm"
  bottom: "Convolution12"
  top: "Convolution12"
  param {
    lr_mult: 0
    decay_mult: 0
  }
  param {
    lr_mult: 0
    decay_mult: 0
  }
  param {
    lr_mult: 0
    decay_mult: 0
  }
}
layer {
  name: "Scale12"
  type: "Scale"
  bottom: "Convolution12"
  top: "Convolution12"
  scale_param {
    bias_term: true
  }
}
layer {
  name: "Eltwise5"
  type: "Eltwise"
  bottom: "Eltwise4"
  bottom: "Convolution12"
  top: "Eltwise5"
  eltwise_param {
    operation: SUM
  }
}
layer {
  name: "elu11"
  type: "ELU"
  bottom: "Eltwise5"
  top: "Eltwise5"
  elu_param {
    alpha: 1
  }
}
layer {
  name: "Convolution13"
  type: "Convolution"
  bottom: "Eltwise5"
  top: "Convolution13"
  param {
    lr_mult: 1
    decay_mult: 1
  }
  param {
    lr_mult: 2
    decay_mult: 0
  }
  convolution_param {
    num_output: 32
    pad: 1
    kernel_size: 3
    stride: 1
    weight_filler {
      type: "gaussian"
      std: 0.083
    }
    bias_filler {
      type: "constant"
      value: 0
    }
  }
}
layer {
  name: "BatchNorm13"
  type: "BatchNorm"
  bottom: "Convolution13"
  top: "Convolution13"
  param {
    lr_mult: 0
    decay_mult: 0
  }
  param {
    lr_mult: 0
    decay_mult: 0
  }
  param {
    lr_mult: 0
    decay_mult: 0
  }
}
layer {
  name: "Scale13"
  type: "Scale"
  bottom: "Convolution13"
  top: "Convolution13"
  scale_param {
    bias_term: true
  }
}
layer {
  name: "elu12"
  type: "ELU"
  bottom: "Convolution13"
  top: "Convolution13"
  elu_param {
    alpha: 1
  }
}
layer {
  name: "Convolution14"
  type: "Convolution"
  bottom: "Convolution13"
  top: "Convolution14"
  param {
    lr_mult: 1
    decay_mult: 1
  }
  param {
    lr_mult: 2
    decay_mult: 0
  }
  convolution_param {
    num_output: 32
    pad: 1
    kernel_size: 3
    stride: 1
    weight_filler {
      type: "gaussian"
      std: 0.083
    }
    bias_filler {
      type: "constant"
      value: 0
    }
  }
}
layer {
  name: "BatchNorm14"
  type: "BatchNorm"
  bottom: "Convolution14"
  top: "Convolution14"
  param {
    lr_mult: 0
    decay_mult: 0
  }
  param {
    lr_mult: 0
    decay_mult: 0
  }
  param {
    lr_mult: 0
    decay_mult: 0
  }
}
layer {
  name: "Scale14"
  type: "Scale"
  bottom: "Convolution14"
  top: "Convolution14"
  scale_param {
    bias_term: true
  }
}
layer {
  name: "Eltwise6"
  type: "Eltwise"
  bottom: "Eltwise5"
  bottom: "Convolution14"
  top: "Eltwise6"
  eltwise_param {
    operation: SUM
  }
}
layer {
  name: "elu13"
  type: "ELU"
  bottom: "Eltwise6"
  top: "Eltwise6"
  elu_param {
    alpha: 1
  }
}
layer {
  name: "Convolution15"
  type: "Convolution"
  bottom: "Eltwise6"
  top: "Convolution15"
  param {
    lr_mult: 1
    decay_mult: 1
  }
  param {
    lr_mult: 2
    decay_mult: 0
  }
  convolution_param {
    num_output: 64
    pad: 0
    kernel_size: 1
    stride: 2
    weight_filler {
      type: "gaussian"
      std: 0.17677669
    }
    bias_filler {
      type: "constant"
      value: 0
    }
  }
}
layer {
  name: "BatchNorm15"
  type: "BatchNorm"
  bottom: "Convolution15"
  top: "Convolution15"
  param {
    lr_mult: 0
    decay_mult: 0
  }
  param {
    lr_mult: 0
    decay_mult: 0
  }
  param {
    lr_mult: 0
    decay_mult: 0
  }
}
layer {
  name: "Scale15"
  type: "Scale"
  bottom: "Convolution15"
  top: "Convolution15"
  scale_param {
    bias_term: true
  }
}
layer {
  name: "Convolution16"
  type: "Convolution"
  bottom: "Eltwise6"
  top: "Convolution16"
  param {
    lr_mult: 1
    decay_mult: 1
  }
  param {
    lr_mult: 2
    decay_mult: 0
  }
  convolution_param {
    num_output: 64
    pad: 1
    kernel_size: 3
    stride: 2
    weight_filler {
      type: "gaussian"
      std: 0.059
    }
    bias_filler {
      type: "constant"
      value: 0
    }
  }
}
layer {
  name: "BatchNorm16"
  type: "BatchNorm"
  bottom: "Convolution16"
  top: "Convolution16"
  param {
    lr_mult: 0
    decay_mult: 0
  }
  param {
    lr_mult: 0
    decay_mult: 0
  }
  param {
    lr_mult: 0
    decay_mult: 0
  }
}
layer {
  name: "Scale16"
  type: "Scale"
  bottom: "Convolution16"
  top: "Convolution16"
  scale_param {
    bias_term: true
  }
}
layer {
  name: "elu14"
  type: "ELU"
  bottom: "Convolution16"
  top: "Convolution16"
  elu_param {
    alpha: 1
  }
}
layer {
  name: "Convolution17"
  type: "Convolution"
  bottom: "Convolution16"
  top: "Convolution17"
  param {
    lr_mult: 1
    decay_mult: 1
  }
  param {
    lr_mult: 2
    decay_mult: 0
  }
  convolution_param {
    num_output: 64
    pad: 1
    kernel_size: 3
    stride: 1
    weight_filler {
      type: "gaussian"
      std: 0.059
    }
    bias_filler {
      type: "constant"
      value: 0
    }
  }
}
layer {
  name: "BatchNorm17"
  type: "BatchNorm"
  bottom: "Convolution17"
  top: "Convolution17"
  param {
    lr_mult: 0
    decay_mult: 0
  }
  param {
    lr_mult: 0
    decay_mult: 0
  }
  param {
    lr_mult: 0
    decay_mult: 0
  }
}
layer {
  name: "Scale17"
  type: "Scale"
  bottom: "Convolution17"
  top: "Convolution17"
  scale_param {
    bias_term: true
  }
}
layer {
  name: "Eltwise7"
  type: "Eltwise"
  bottom: "Convolution15"
  bottom: "Convolution17"
  top: "Eltwise7"
  eltwise_param {
    operation: SUM
  }
}
layer {
  name: "elu15"
  type: "ELU"
  bottom: "Eltwise7"
  top: "Eltwise7"
  elu_param {
    alpha: 1
  }
}
layer {
  name: "Convolution18"
  type: "Convolution"
  bottom: "Eltwise7"
  top: "Convolution18"
  param {
    lr_mult: 1
    decay_mult: 1
  }
  param {
    lr_mult: 2
    decay_mult: 0
  }
  convolution_param {
    num_output: 64
    pad: 1
    kernel_size: 3
    stride: 1
    weight_filler {
      type: "gaussian"
      std: 0.059
    }
    bias_filler {
      type: "constant"
      value: 0
    }
  }
}
layer {
  name: "BatchNorm18"
  type: "BatchNorm"
  bottom: "Convolution18"
  top: "Convolution18"
  param {
    lr_mult: 0
    decay_mult: 0
  }
  param {
    lr_mult: 0
    decay_mult: 0
  }
  param {
    lr_mult: 0
    decay_mult: 0
  }
}
layer {
  name: "Scale18"
  type: "Scale"
  bottom: "Convolution18"
  top: "Convolution18"
  scale_param {
    bias_term: true
  }
}
layer {
  name: "elu16"
  type: "ELU"
  bottom: "Convolution18"
  top: "Convolution18"
  elu_param {
    alpha: 1
  }
}
layer {
  name: "Convolution19"
  type: "Convolution"
  bottom: "Convolution18"
  top: "Convolution19"
  param {
    lr_mult: 1
    decay_mult: 1
  }
  param {
    lr_mult: 2
    decay_mult: 0
  }
  convolution_param {
    num_output: 64
    pad: 1
    kernel_size: 3
    stride: 1
    weight_filler {
      type: "gaussian"
      std: 0.059
    }
    bias_filler {
      type: "constant"
      value: 0
    }
  }
}
layer {
  name: "BatchNorm19"
  type: "BatchNorm"
  bottom: "Convolution19"
  top: "Convolution19"
  param {
    lr_mult: 0
    decay_mult: 0
  }
  param {
    lr_mult: 0
    decay_mult: 0
  }
  param {
    lr_mult: 0
    decay_mult: 0
  }
}
layer {
  name: "Scale19"
  type: "Scale"
  bottom: "Convolution19"
  top: "Convolution19"
  scale_param {
    bias_term: true
  }
}
layer {
  name: "Eltwise8"
  type: "Eltwise"
  bottom: "Eltwise7"
  bottom: "Convolution19"
  top: "Eltwise8"
  eltwise_param {
    operation: SUM
  }
}
layer {
  name: "elu17"
  type: "ELU"
  bottom: "Eltwise8"
  top: "Eltwise8"
  elu_param {
    alpha: 1
  }
}
layer {
  name: "Convolution20"
  type: "Convolution"
  bottom: "Eltwise8"
  top: "Convolution20"
  param {
    lr_mult: 1
    decay_mult: 1
  }
  param {
    lr_mult: 2
    decay_mult: 0
  }
  convolution_param {
    num_output: 64
    pad: 1
    kernel_size: 3
    stride: 1
    weight_filler {
      type: "gaussian"
      std: 0.059
    }
    bias_filler {
      type: "constant"
      value: 0
    }
  }
}
layer {
  name: "BatchNorm20"
  type: "BatchNorm"
  bottom: "Convolution20"
  top: "Convolution20"
  param {
    lr_mult: 0
    decay_mult: 0
  }
  param {
    lr_mult: 0
    decay_mult: 0
  }
  param {
    lr_mult: 0
    decay_mult: 0
  }
}
layer {
  name: "Scale20"
  type: "Scale"
  bottom: "Convolution20"
  top: "Convolution20"
  scale_param {
    bias_term: true
  }
}
layer {
  name: "elu18"
  type: "ELU"
  bottom: "Convolution20"
  top: "Convolution20"
  elu_param {
    alpha: 1
  }
}
layer {
  name: "Convolution21"
  type: "Convolution"
  bottom: "Convolution20"
  top: "Convolution21"
  param {
    lr_mult: 1
    decay_mult: 1
  }
  param {
    lr_mult: 2
    decay_mult: 0
  }
  convolution_param {
    num_output: 64
    pad: 1
    kernel_size: 3
    stride: 1
    weight_filler {
      type: "gaussian"
      std: 0.059
    }
    bias_filler {
      type: "constant"
      value: 0
    }
  }
}
layer {
  name: "BatchNorm21"
  type: "BatchNorm"
  bottom: "Convolution21"
  top: "Convolution21"
  param {
    lr_mult: 0
    decay_mult: 0
  }
  param {
    lr_mult: 0
    decay_mult: 0
  }
  param {
    lr_mult: 0
    decay_mult: 0
  }
}
layer {
  name: "Scale21"
  type: "Scale"
  bottom: "Convolution21"
  top: "Convolution21"
  scale_param {
    bias_term: true
  }
}
layer {
  name: "Eltwise9"
  type: "Eltwise"
  bottom: "Eltwise8"
  bottom: "Convolution21"
  top: "Eltwise9"
  eltwise_param {
    operation: SUM
  }
}
layer {
  name: "elu19"
  type: "ELU"
  bottom: "Eltwise9"
  top: "Eltwise9"
  elu_param {
    alpha: 1
  }
}
layer {
  name: "Pooling1"
  type: "Pooling"
  bottom: "Eltwise9"
  top: "Pooling1"
  pooling_param {
    pool: AVE
    global_pooling: true
  }
}
layer {
  name: "InnerProduct1"
  type: "InnerProduct"
  bottom: "Pooling1"
  top: "InnerProduct1"
  param {
    lr_mult: 1
    decay_mult: 1
  }
  param {
    lr_mult: 2
    decay_mult: 1
  }
  inner_product_param {
    num_output: 4
    weight_filler {
      type: "gaussian"
      std: 0.01
    }
    bias_filler {
      type: "constant"
      value: 0
    }
  }
}
layer {
  name: "SoftmaxWithLoss1"
  type: "SoftmaxWithLoss"
  bottom: "InnerProduct1"
  bottom: "Data2"
  top: "SoftmaxWithLoss1"
}
layer {
  name: "Accuracy1"
  type: "Accuracy"
  bottom: "InnerProduct1"
  bottom: "Data2"
  top: "Accuracy1"
  include {
    phase: TEST
  }
}
I1023 16:54:37.991793  5058 layer_factory.hpp:77] Creating layer Data1
I1023 16:54:37.991828  5058 db_lmdb.cpp:35] Opened lmdb /home/x306/caffe/xn/English_orange/data/val1_lmdb
I1023 16:54:37.991839  5058 net.cpp:84] Creating Layer Data1
I1023 16:54:37.991842  5058 net.cpp:380] Data1 -> Data1
I1023 16:54:37.991848  5058 net.cpp:380] Data1 -> Data2
I1023 16:54:37.991853  5058 data_transformer.cpp:25] Loading mean file from: /home/x306/caffe/xn/English_orange/data/orange1_mean.binaryproto
I1023 16:54:37.993039  5058 data_layer.cpp:45] output data size: 8,3,224,224
I1023 16:54:38.000993  5058 net.cpp:122] Setting up Data1
I1023 16:54:38.001013  5058 net.cpp:129] Top shape: 8 3 224 224 (1204224)
I1023 16:54:38.001018  5058 net.cpp:129] Top shape: 8 (8)
I1023 16:54:38.001020  5058 net.cpp:137] Memory required for data: 4816928
I1023 16:54:38.001024  5058 layer_factory.hpp:77] Creating layer Data2_Data1_1_split
I1023 16:54:38.001034  5058 net.cpp:84] Creating Layer Data2_Data1_1_split
I1023 16:54:38.001036  5058 net.cpp:406] Data2_Data1_1_split <- Data2
I1023 16:54:38.001041  5058 net.cpp:380] Data2_Data1_1_split -> Data2_Data1_1_split_0
I1023 16:54:38.001049  5058 net.cpp:380] Data2_Data1_1_split -> Data2_Data1_1_split_1
I1023 16:54:38.001117  5058 net.cpp:122] Setting up Data2_Data1_1_split
I1023 16:54:38.001122  5058 net.cpp:129] Top shape: 8 (8)
I1023 16:54:38.001125  5058 net.cpp:129] Top shape: 8 (8)
I1023 16:54:38.001127  5058 net.cpp:137] Memory required for data: 4816992
I1023 16:54:38.001142  5058 layer_factory.hpp:77] Creating layer Convolution1
I1023 16:54:38.001152  5058 net.cpp:84] Creating Layer Convolution1
I1023 16:54:38.001154  5058 net.cpp:406] Convolution1 <- Data1
I1023 16:54:38.001158  5058 net.cpp:380] Convolution1 -> Convolution1
I1023 16:54:38.002570  5058 net.cpp:122] Setting up Convolution1
I1023 16:54:38.002580  5058 net.cpp:129] Top shape: 8 16 224 224 (6422528)
I1023 16:54:38.002583  5058 net.cpp:137] Memory required for data: 30507104
I1023 16:54:38.002591  5058 layer_factory.hpp:77] Creating layer BatchNorm1
I1023 16:54:38.002596  5058 net.cpp:84] Creating Layer BatchNorm1
I1023 16:54:38.002599  5058 net.cpp:406] BatchNorm1 <- Convolution1
I1023 16:54:38.002602  5058 net.cpp:367] BatchNorm1 -> Convolution1 (in-place)
I1023 16:54:38.002782  5058 net.cpp:122] Setting up BatchNorm1
I1023 16:54:38.002787  5058 net.cpp:129] Top shape: 8 16 224 224 (6422528)
I1023 16:54:38.002789  5058 net.cpp:137] Memory required for data: 56197216
I1023 16:54:38.002797  5058 layer_factory.hpp:77] Creating layer Scale1
I1023 16:54:38.002804  5058 net.cpp:84] Creating Layer Scale1
I1023 16:54:38.002805  5058 net.cpp:406] Scale1 <- Convolution1
I1023 16:54:38.002809  5058 net.cpp:367] Scale1 -> Convolution1 (in-place)
I1023 16:54:38.002838  5058 layer_factory.hpp:77] Creating layer Scale1
I1023 16:54:38.002981  5058 net.cpp:122] Setting up Scale1
I1023 16:54:38.002986  5058 net.cpp:129] Top shape: 8 16 224 224 (6422528)
I1023 16:54:38.002990  5058 net.cpp:137] Memory required for data: 81887328
I1023 16:54:38.002993  5058 layer_factory.hpp:77] Creating layer elu1
I1023 16:54:38.002998  5058 net.cpp:84] Creating Layer elu1
I1023 16:54:38.003000  5058 net.cpp:406] elu1 <- Convolution1
I1023 16:54:38.003003  5058 net.cpp:367] elu1 -> Convolution1 (in-place)
I1023 16:54:38.003008  5058 net.cpp:122] Setting up elu1
I1023 16:54:38.003011  5058 net.cpp:129] Top shape: 8 16 224 224 (6422528)
I1023 16:54:38.003013  5058 net.cpp:137] Memory required for data: 107577440
I1023 16:54:38.003016  5058 layer_factory.hpp:77] Creating layer Convolution1_elu1_0_split
I1023 16:54:38.003020  5058 net.cpp:84] Creating Layer Convolution1_elu1_0_split
I1023 16:54:38.003021  5058 net.cpp:406] Convolution1_elu1_0_split <- Convolution1
I1023 16:54:38.003026  5058 net.cpp:380] Convolution1_elu1_0_split -> Convolution1_elu1_0_split_0
I1023 16:54:38.003029  5058 net.cpp:380] Convolution1_elu1_0_split -> Convolution1_elu1_0_split_1
I1023 16:54:38.003059  5058 net.cpp:122] Setting up Convolution1_elu1_0_split
I1023 16:54:38.003064  5058 net.cpp:129] Top shape: 8 16 224 224 (6422528)
I1023 16:54:38.003067  5058 net.cpp:129] Top shape: 8 16 224 224 (6422528)
I1023 16:54:38.003070  5058 net.cpp:137] Memory required for data: 158957664
I1023 16:54:38.003072  5058 layer_factory.hpp:77] Creating layer Convolution2
I1023 16:54:38.003079  5058 net.cpp:84] Creating Layer Convolution2
I1023 16:54:38.003082  5058 net.cpp:406] Convolution2 <- Convolution1_elu1_0_split_0
I1023 16:54:38.003087  5058 net.cpp:380] Convolution2 -> Convolution2
I1023 16:54:38.003718  5058 net.cpp:122] Setting up Convolution2
I1023 16:54:38.003726  5058 net.cpp:129] Top shape: 8 16 224 224 (6422528)
I1023 16:54:38.003728  5058 net.cpp:137] Memory required for data: 184647776
I1023 16:54:38.003734  5058 layer_factory.hpp:77] Creating layer BatchNorm2
I1023 16:54:38.003739  5058 net.cpp:84] Creating Layer BatchNorm2
I1023 16:54:38.003741  5058 net.cpp:406] BatchNorm2 <- Convolution2
I1023 16:54:38.003746  5058 net.cpp:367] BatchNorm2 -> Convolution2 (in-place)
I1023 16:54:38.003909  5058 net.cpp:122] Setting up BatchNorm2
I1023 16:54:38.003914  5058 net.cpp:129] Top shape: 8 16 224 224 (6422528)
I1023 16:54:38.003916  5058 net.cpp:137] Memory required for data: 210337888
I1023 16:54:38.003921  5058 layer_factory.hpp:77] Creating layer Scale2
I1023 16:54:38.003926  5058 net.cpp:84] Creating Layer Scale2
I1023 16:54:38.003927  5058 net.cpp:406] Scale2 <- Convolution2
I1023 16:54:38.003931  5058 net.cpp:367] Scale2 -> Convolution2 (in-place)
I1023 16:54:38.003969  5058 layer_factory.hpp:77] Creating layer Scale2
I1023 16:54:38.004119  5058 net.cpp:122] Setting up Scale2
I1023 16:54:38.004124  5058 net.cpp:129] Top shape: 8 16 224 224 (6422528)
I1023 16:54:38.004127  5058 net.cpp:137] Memory required for data: 236028000
I1023 16:54:38.004130  5058 layer_factory.hpp:77] Creating layer elu2
I1023 16:54:38.004134  5058 net.cpp:84] Creating Layer elu2
I1023 16:54:38.004137  5058 net.cpp:406] elu2 <- Convolution2
I1023 16:54:38.004139  5058 net.cpp:367] elu2 -> Convolution2 (in-place)
I1023 16:54:38.004143  5058 net.cpp:122] Setting up elu2
I1023 16:54:38.004146  5058 net.cpp:129] Top shape: 8 16 224 224 (6422528)
I1023 16:54:38.004148  5058 net.cpp:137] Memory required for data: 261718112
I1023 16:54:38.004151  5058 layer_factory.hpp:77] Creating layer Convolution3
I1023 16:54:38.004156  5058 net.cpp:84] Creating Layer Convolution3
I1023 16:54:38.004159  5058 net.cpp:406] Convolution3 <- Convolution2
I1023 16:54:38.004163  5058 net.cpp:380] Convolution3 -> Convolution3
I1023 16:54:38.005640  5058 net.cpp:122] Setting up Convolution3
I1023 16:54:38.005651  5058 net.cpp:129] Top shape: 8 16 224 224 (6422528)
I1023 16:54:38.005655  5058 net.cpp:137] Memory required for data: 287408224
I1023 16:54:38.005659  5058 layer_factory.hpp:77] Creating layer BatchNorm3
I1023 16:54:38.005664  5058 net.cpp:84] Creating Layer BatchNorm3
I1023 16:54:38.005667  5058 net.cpp:406] BatchNorm3 <- Convolution3
I1023 16:54:38.005671  5058 net.cpp:367] BatchNorm3 -> Convolution3 (in-place)
I1023 16:54:38.005836  5058 net.cpp:122] Setting up BatchNorm3
I1023 16:54:38.005841  5058 net.cpp:129] Top shape: 8 16 224 224 (6422528)
I1023 16:54:38.005842  5058 net.cpp:137] Memory required for data: 313098336
I1023 16:54:38.005851  5058 layer_factory.hpp:77] Creating layer Scale3
I1023 16:54:38.005854  5058 net.cpp:84] Creating Layer Scale3
I1023 16:54:38.005856  5058 net.cpp:406] Scale3 <- Convolution3
I1023 16:54:38.005859  5058 net.cpp:367] Scale3 -> Convolution3 (in-place)
I1023 16:54:38.005887  5058 layer_factory.hpp:77] Creating layer Scale3
I1023 16:54:38.006003  5058 net.cpp:122] Setting up Scale3
I1023 16:54:38.006008  5058 net.cpp:129] Top shape: 8 16 224 224 (6422528)
I1023 16:54:38.006011  5058 net.cpp:137] Memory required for data: 338788448
I1023 16:54:38.006014  5058 layer_factory.hpp:77] Creating layer Eltwise1
I1023 16:54:38.006018  5058 net.cpp:84] Creating Layer Eltwise1
I1023 16:54:38.006021  5058 net.cpp:406] Eltwise1 <- Convolution1_elu1_0_split_1
I1023 16:54:38.006024  5058 net.cpp:406] Eltwise1 <- Convolution3
I1023 16:54:38.006027  5058 net.cpp:380] Eltwise1 -> Eltwise1
I1023 16:54:38.006045  5058 net.cpp:122] Setting up Eltwise1
I1023 16:54:38.006049  5058 net.cpp:129] Top shape: 8 16 224 224 (6422528)
I1023 16:54:38.006052  5058 net.cpp:137] Memory required for data: 364478560
I1023 16:54:38.006053  5058 layer_factory.hpp:77] Creating layer elu3
I1023 16:54:38.006057  5058 net.cpp:84] Creating Layer elu3
I1023 16:54:38.006059  5058 net.cpp:406] elu3 <- Eltwise1
I1023 16:54:38.006062  5058 net.cpp:367] elu3 -> Eltwise1 (in-place)
I1023 16:54:38.006067  5058 net.cpp:122] Setting up elu3
I1023 16:54:38.006069  5058 net.cpp:129] Top shape: 8 16 224 224 (6422528)
I1023 16:54:38.006072  5058 net.cpp:137] Memory required for data: 390168672
I1023 16:54:38.006073  5058 layer_factory.hpp:77] Creating layer Eltwise1_elu3_0_split
I1023 16:54:38.006078  5058 net.cpp:84] Creating Layer Eltwise1_elu3_0_split
I1023 16:54:38.006080  5058 net.cpp:406] Eltwise1_elu3_0_split <- Eltwise1
I1023 16:54:38.006083  5058 net.cpp:380] Eltwise1_elu3_0_split -> Eltwise1_elu3_0_split_0
I1023 16:54:38.006088  5058 net.cpp:380] Eltwise1_elu3_0_split -> Eltwise1_elu3_0_split_1
I1023 16:54:38.006110  5058 net.cpp:122] Setting up Eltwise1_elu3_0_split
I1023 16:54:38.006114  5058 net.cpp:129] Top shape: 8 16 224 224 (6422528)
I1023 16:54:38.006117  5058 net.cpp:129] Top shape: 8 16 224 224 (6422528)
I1023 16:54:38.006119  5058 net.cpp:137] Memory required for data: 441548896
I1023 16:54:38.006121  5058 layer_factory.hpp:77] Creating layer Convolution4
I1023 16:54:38.006139  5058 net.cpp:84] Creating Layer Convolution4
I1023 16:54:38.006141  5058 net.cpp:406] Convolution4 <- Eltwise1_elu3_0_split_0
I1023 16:54:38.006145  5058 net.cpp:380] Convolution4 -> Convolution4
I1023 16:54:38.007161  5058 net.cpp:122] Setting up Convolution4
I1023 16:54:38.007171  5058 net.cpp:129] Top shape: 8 16 224 224 (6422528)
I1023 16:54:38.007174  5058 net.cpp:137] Memory required for data: 467239008
I1023 16:54:38.007179  5058 layer_factory.hpp:77] Creating layer BatchNorm4
I1023 16:54:38.007184  5058 net.cpp:84] Creating Layer BatchNorm4
I1023 16:54:38.007187  5058 net.cpp:406] BatchNorm4 <- Convolution4
I1023 16:54:38.007191  5058 net.cpp:367] BatchNorm4 -> Convolution4 (in-place)
I1023 16:54:38.007371  5058 net.cpp:122] Setting up BatchNorm4
I1023 16:54:38.007376  5058 net.cpp:129] Top shape: 8 16 224 224 (6422528)
I1023 16:54:38.007380  5058 net.cpp:137] Memory required for data: 492929120
I1023 16:54:38.007385  5058 layer_factory.hpp:77] Creating layer Scale4
I1023 16:54:38.007388  5058 net.cpp:84] Creating Layer Scale4
I1023 16:54:38.007390  5058 net.cpp:406] Scale4 <- Convolution4
I1023 16:54:38.007395  5058 net.cpp:367] Scale4 -> Convolution4 (in-place)
I1023 16:54:38.007796  5058 layer_factory.hpp:77] Creating layer Scale4
I1023 16:54:38.007916  5058 net.cpp:122] Setting up Scale4
I1023 16:54:38.007920  5058 net.cpp:129] Top shape: 8 16 224 224 (6422528)
I1023 16:54:38.007922  5058 net.cpp:137] Memory required for data: 518619232
I1023 16:54:38.007926  5058 layer_factory.hpp:77] Creating layer elu4
I1023 16:54:38.007930  5058 net.cpp:84] Creating Layer elu4
I1023 16:54:38.007932  5058 net.cpp:406] elu4 <- Convolution4
I1023 16:54:38.007936  5058 net.cpp:367] elu4 -> Convolution4 (in-place)
I1023 16:54:38.007939  5058 net.cpp:122] Setting up elu4
I1023 16:54:38.007943  5058 net.cpp:129] Top shape: 8 16 224 224 (6422528)
I1023 16:54:38.007946  5058 net.cpp:137] Memory required for data: 544309344
I1023 16:54:38.007947  5058 layer_factory.hpp:77] Creating layer Convolution5
I1023 16:54:38.007953  5058 net.cpp:84] Creating Layer Convolution5
I1023 16:54:38.007967  5058 net.cpp:406] Convolution5 <- Convolution4
I1023 16:54:38.007972  5058 net.cpp:380] Convolution5 -> Convolution5
I1023 16:54:38.009279  5058 net.cpp:122] Setting up Convolution5
I1023 16:54:38.009287  5058 net.cpp:129] Top shape: 8 16 224 224 (6422528)
I1023 16:54:38.009290  5058 net.cpp:137] Memory required for data: 569999456
I1023 16:54:38.009294  5058 layer_factory.hpp:77] Creating layer BatchNorm5
I1023 16:54:38.009300  5058 net.cpp:84] Creating Layer BatchNorm5
I1023 16:54:38.009302  5058 net.cpp:406] BatchNorm5 <- Convolution5
I1023 16:54:38.009306  5058 net.cpp:367] BatchNorm5 -> Convolution5 (in-place)
I1023 16:54:38.009481  5058 net.cpp:122] Setting up BatchNorm5
I1023 16:54:38.009486  5058 net.cpp:129] Top shape: 8 16 224 224 (6422528)
I1023 16:54:38.009488  5058 net.cpp:137] Memory required for data: 595689568
I1023 16:54:38.009497  5058 layer_factory.hpp:77] Creating layer Scale5
I1023 16:54:38.009501  5058 net.cpp:84] Creating Layer Scale5
I1023 16:54:38.009503  5058 net.cpp:406] Scale5 <- Convolution5
I1023 16:54:38.009507  5058 net.cpp:367] Scale5 -> Convolution5 (in-place)
I1023 16:54:38.009536  5058 layer_factory.hpp:77] Creating layer Scale5
I1023 16:54:38.010184  5058 net.cpp:122] Setting up Scale5
I1023 16:54:38.010192  5058 net.cpp:129] Top shape: 8 16 224 224 (6422528)
I1023 16:54:38.010195  5058 net.cpp:137] Memory required for data: 621379680
I1023 16:54:38.010200  5058 layer_factory.hpp:77] Creating layer Eltwise2
I1023 16:54:38.010205  5058 net.cpp:84] Creating Layer Eltwise2
I1023 16:54:38.010207  5058 net.cpp:406] Eltwise2 <- Eltwise1_elu3_0_split_1
I1023 16:54:38.010210  5058 net.cpp:406] Eltwise2 <- Convolution5
I1023 16:54:38.010213  5058 net.cpp:380] Eltwise2 -> Eltwise2
I1023 16:54:38.010232  5058 net.cpp:122] Setting up Eltwise2
I1023 16:54:38.010236  5058 net.cpp:129] Top shape: 8 16 224 224 (6422528)
I1023 16:54:38.010238  5058 net.cpp:137] Memory required for data: 647069792
I1023 16:54:38.010252  5058 layer_factory.hpp:77] Creating layer elu5
I1023 16:54:38.010257  5058 net.cpp:84] Creating Layer elu5
I1023 16:54:38.010259  5058 net.cpp:406] elu5 <- Eltwise2
I1023 16:54:38.010262  5058 net.cpp:367] elu5 -> Eltwise2 (in-place)
I1023 16:54:38.010267  5058 net.cpp:122] Setting up elu5
I1023 16:54:38.010269  5058 net.cpp:129] Top shape: 8 16 224 224 (6422528)
I1023 16:54:38.010272  5058 net.cpp:137] Memory required for data: 672759904
I1023 16:54:38.010274  5058 layer_factory.hpp:77] Creating layer Eltwise2_elu5_0_split
I1023 16:54:38.010278  5058 net.cpp:84] Creating Layer Eltwise2_elu5_0_split
I1023 16:54:38.010280  5058 net.cpp:406] Eltwise2_elu5_0_split <- Eltwise2
I1023 16:54:38.010282  5058 net.cpp:380] Eltwise2_elu5_0_split -> Eltwise2_elu5_0_split_0
I1023 16:54:38.010287  5058 net.cpp:380] Eltwise2_elu5_0_split -> Eltwise2_elu5_0_split_1
I1023 16:54:38.010313  5058 net.cpp:122] Setting up Eltwise2_elu5_0_split
I1023 16:54:38.010318  5058 net.cpp:129] Top shape: 8 16 224 224 (6422528)
I1023 16:54:38.010320  5058 net.cpp:129] Top shape: 8 16 224 224 (6422528)
I1023 16:54:38.010323  5058 net.cpp:137] Memory required for data: 724140128
I1023 16:54:38.010324  5058 layer_factory.hpp:77] Creating layer Convolution6
I1023 16:54:38.010331  5058 net.cpp:84] Creating Layer Convolution6
I1023 16:54:38.010334  5058 net.cpp:406] Convolution6 <- Eltwise2_elu5_0_split_0
I1023 16:54:38.010337  5058 net.cpp:380] Convolution6 -> Convolution6
I1023 16:54:38.011667  5058 net.cpp:122] Setting up Convolution6
I1023 16:54:38.011680  5058 net.cpp:129] Top shape: 8 16 224 224 (6422528)
I1023 16:54:38.011684  5058 net.cpp:137] Memory required for data: 749830240
I1023 16:54:38.011693  5058 layer_factory.hpp:77] Creating layer BatchNorm6
I1023 16:54:38.011699  5058 net.cpp:84] Creating Layer BatchNorm6
I1023 16:54:38.011704  5058 net.cpp:406] BatchNorm6 <- Convolution6
I1023 16:54:38.011710  5058 net.cpp:367] BatchNorm6 -> Convolution6 (in-place)
I1023 16:54:38.011968  5058 net.cpp:122] Setting up BatchNorm6
I1023 16:54:38.011978  5058 net.cpp:129] Top shape: 8 16 224 224 (6422528)
I1023 16:54:38.011982  5058 net.cpp:137] Memory required for data: 775520352
I1023 16:54:38.011991  5058 layer_factory.hpp:77] Creating layer Scale6
I1023 16:54:38.012001  5058 net.cpp:84] Creating Layer Scale6
I1023 16:54:38.012006  5058 net.cpp:406] Scale6 <- Convolution6
I1023 16:54:38.012010  5058 net.cpp:367] Scale6 -> Convolution6 (in-place)
I1023 16:54:38.012056  5058 layer_factory.hpp:77] Creating layer Scale6
I1023 16:54:38.012264  5058 net.cpp:122] Setting up Scale6
I1023 16:54:38.012271  5058 net.cpp:129] Top shape: 8 16 224 224 (6422528)
I1023 16:54:38.012275  5058 net.cpp:137] Memory required for data: 801210464
I1023 16:54:38.012282  5058 layer_factory.hpp:77] Creating layer elu6
I1023 16:54:38.012290  5058 net.cpp:84] Creating Layer elu6
I1023 16:54:38.012293  5058 net.cpp:406] elu6 <- Convolution6
I1023 16:54:38.012298  5058 net.cpp:367] elu6 -> Convolution6 (in-place)
I1023 16:54:38.012305  5058 net.cpp:122] Setting up elu6
I1023 16:54:38.012310  5058 net.cpp:129] Top shape: 8 16 224 224 (6422528)
I1023 16:54:38.012315  5058 net.cpp:137] Memory required for data: 826900576
I1023 16:54:38.012318  5058 layer_factory.hpp:77] Creating layer Convolution7
I1023 16:54:38.012331  5058 net.cpp:84] Creating Layer Convolution7
I1023 16:54:38.012336  5058 net.cpp:406] Convolution7 <- Convolution6
I1023 16:54:38.012341  5058 net.cpp:380] Convolution7 -> Convolution7
I1023 16:54:38.014505  5058 net.cpp:122] Setting up Convolution7
I1023 16:54:38.014518  5058 net.cpp:129] Top shape: 8 16 224 224 (6422528)
I1023 16:54:38.014520  5058 net.cpp:137] Memory required for data: 852590688
I1023 16:54:38.014525  5058 layer_factory.hpp:77] Creating layer BatchNorm7
I1023 16:54:38.014534  5058 net.cpp:84] Creating Layer BatchNorm7
I1023 16:54:38.014538  5058 net.cpp:406] BatchNorm7 <- Convolution7
I1023 16:54:38.014542  5058 net.cpp:367] BatchNorm7 -> Convolution7 (in-place)
I1023 16:54:38.014720  5058 net.cpp:122] Setting up BatchNorm7
I1023 16:54:38.014734  5058 net.cpp:129] Top shape: 8 16 224 224 (6422528)
I1023 16:54:38.014736  5058 net.cpp:137] Memory required for data: 878280800
I1023 16:54:38.014741  5058 layer_factory.hpp:77] Creating layer Scale7
I1023 16:54:38.014746  5058 net.cpp:84] Creating Layer Scale7
I1023 16:54:38.014750  5058 net.cpp:406] Scale7 <- Convolution7
I1023 16:54:38.014752  5058 net.cpp:367] Scale7 -> Convolution7 (in-place)
I1023 16:54:38.014783  5058 layer_factory.hpp:77] Creating layer Scale7
I1023 16:54:38.014925  5058 net.cpp:122] Setting up Scale7
I1023 16:54:38.014930  5058 net.cpp:129] Top shape: 8 16 224 224 (6422528)
I1023 16:54:38.014932  5058 net.cpp:137] Memory required for data: 903970912
I1023 16:54:38.014936  5058 layer_factory.hpp:77] Creating layer Eltwise3
I1023 16:54:38.014940  5058 net.cpp:84] Creating Layer Eltwise3
I1023 16:54:38.014943  5058 net.cpp:406] Eltwise3 <- Eltwise2_elu5_0_split_1
I1023 16:54:38.014946  5058 net.cpp:406] Eltwise3 <- Convolution7
I1023 16:54:38.014950  5058 net.cpp:380] Eltwise3 -> Eltwise3
I1023 16:54:38.014968  5058 net.cpp:122] Setting up Eltwise3
I1023 16:54:38.014971  5058 net.cpp:129] Top shape: 8 16 224 224 (6422528)
I1023 16:54:38.014973  5058 net.cpp:137] Memory required for data: 929661024
I1023 16:54:38.014976  5058 layer_factory.hpp:77] Creating layer elu7
I1023 16:54:38.014979  5058 net.cpp:84] Creating Layer elu7
I1023 16:54:38.014982  5058 net.cpp:406] elu7 <- Eltwise3
I1023 16:54:38.014986  5058 net.cpp:367] elu7 -> Eltwise3 (in-place)
I1023 16:54:38.014988  5058 net.cpp:122] Setting up elu7
I1023 16:54:38.014992  5058 net.cpp:129] Top shape: 8 16 224 224 (6422528)
I1023 16:54:38.014994  5058 net.cpp:137] Memory required for data: 955351136
I1023 16:54:38.014997  5058 layer_factory.hpp:77] Creating layer Eltwise3_elu7_0_split
I1023 16:54:38.015000  5058 net.cpp:84] Creating Layer Eltwise3_elu7_0_split
I1023 16:54:38.015002  5058 net.cpp:406] Eltwise3_elu7_0_split <- Eltwise3
I1023 16:54:38.015005  5058 net.cpp:380] Eltwise3_elu7_0_split -> Eltwise3_elu7_0_split_0
I1023 16:54:38.015009  5058 net.cpp:380] Eltwise3_elu7_0_split -> Eltwise3_elu7_0_split_1
I1023 16:54:38.015038  5058 net.cpp:122] Setting up Eltwise3_elu7_0_split
I1023 16:54:38.015043  5058 net.cpp:129] Top shape: 8 16 224 224 (6422528)
I1023 16:54:38.015046  5058 net.cpp:129] Top shape: 8 16 224 224 (6422528)
I1023 16:54:38.015048  5058 net.cpp:137] Memory required for data: 1006731360
I1023 16:54:38.015050  5058 layer_factory.hpp:77] Creating layer Convolution8
I1023 16:54:38.015058  5058 net.cpp:84] Creating Layer Convolution8
I1023 16:54:38.015060  5058 net.cpp:406] Convolution8 <- Eltwise3_elu7_0_split_0
I1023 16:54:38.015064  5058 net.cpp:380] Convolution8 -> Convolution8
I1023 16:54:38.016088  5058 net.cpp:122] Setting up Convolution8
I1023 16:54:38.016098  5058 net.cpp:129] Top shape: 8 32 112 112 (3211264)
I1023 16:54:38.016100  5058 net.cpp:137] Memory required for data: 1019576416
I1023 16:54:38.016104  5058 layer_factory.hpp:77] Creating layer BatchNorm8
I1023 16:54:38.016109  5058 net.cpp:84] Creating Layer BatchNorm8
I1023 16:54:38.016113  5058 net.cpp:406] BatchNorm8 <- Convolution8
I1023 16:54:38.016115  5058 net.cpp:367] BatchNorm8 -> Convolution8 (in-place)
I1023 16:54:38.016266  5058 net.cpp:122] Setting up BatchNorm8
I1023 16:54:38.016270  5058 net.cpp:129] Top shape: 8 32 112 112 (3211264)
I1023 16:54:38.016273  5058 net.cpp:137] Memory required for data: 1032421472
I1023 16:54:38.016278  5058 layer_factory.hpp:77] Creating layer Scale8
I1023 16:54:38.016283  5058 net.cpp:84] Creating Layer Scale8
I1023 16:54:38.016284  5058 net.cpp:406] Scale8 <- Convolution8
I1023 16:54:38.016288  5058 net.cpp:367] Scale8 -> Convolution8 (in-place)
I1023 16:54:38.016317  5058 layer_factory.hpp:77] Creating layer Scale8
I1023 16:54:38.016407  5058 net.cpp:122] Setting up Scale8
I1023 16:54:38.016412  5058 net.cpp:129] Top shape: 8 32 112 112 (3211264)
I1023 16:54:38.016414  5058 net.cpp:137] Memory required for data: 1045266528
I1023 16:54:38.016418  5058 layer_factory.hpp:77] Creating layer Convolution9
I1023 16:54:38.016435  5058 net.cpp:84] Creating Layer Convolution9
I1023 16:54:38.016438  5058 net.cpp:406] Convolution9 <- Eltwise3_elu7_0_split_1
I1023 16:54:38.016443  5058 net.cpp:380] Convolution9 -> Convolution9
I1023 16:54:38.017485  5058 net.cpp:122] Setting up Convolution9
I1023 16:54:38.017494  5058 net.cpp:129] Top shape: 8 32 112 112 (3211264)
I1023 16:54:38.017498  5058 net.cpp:137] Memory required for data: 1058111584
I1023 16:54:38.017503  5058 layer_factory.hpp:77] Creating layer BatchNorm9
I1023 16:54:38.017508  5058 net.cpp:84] Creating Layer BatchNorm9
I1023 16:54:38.017510  5058 net.cpp:406] BatchNorm9 <- Convolution9
I1023 16:54:38.017513  5058 net.cpp:367] BatchNorm9 -> Convolution9 (in-place)
I1023 16:54:38.017676  5058 net.cpp:122] Setting up BatchNorm9
I1023 16:54:38.017681  5058 net.cpp:129] Top shape: 8 32 112 112 (3211264)
I1023 16:54:38.017683  5058 net.cpp:137] Memory required for data: 1070956640
I1023 16:54:38.017688  5058 layer_factory.hpp:77] Creating layer Scale9
I1023 16:54:38.017693  5058 net.cpp:84] Creating Layer Scale9
I1023 16:54:38.017695  5058 net.cpp:406] Scale9 <- Convolution9
I1023 16:54:38.017699  5058 net.cpp:367] Scale9 -> Convolution9 (in-place)
I1023 16:54:38.017729  5058 layer_factory.hpp:77] Creating layer Scale9
I1023 16:54:38.017827  5058 net.cpp:122] Setting up Scale9
I1023 16:54:38.017832  5058 net.cpp:129] Top shape: 8 32 112 112 (3211264)
I1023 16:54:38.017835  5058 net.cpp:137] Memory required for data: 1083801696
I1023 16:54:38.017839  5058 layer_factory.hpp:77] Creating layer elu8
I1023 16:54:38.017843  5058 net.cpp:84] Creating Layer elu8
I1023 16:54:38.017846  5058 net.cpp:406] elu8 <- Convolution9
I1023 16:54:38.017849  5058 net.cpp:367] elu8 -> Convolution9 (in-place)
I1023 16:54:38.017853  5058 net.cpp:122] Setting up elu8
I1023 16:54:38.017856  5058 net.cpp:129] Top shape: 8 32 112 112 (3211264)
I1023 16:54:38.017858  5058 net.cpp:137] Memory required for data: 1096646752
I1023 16:54:38.017860  5058 layer_factory.hpp:77] Creating layer Convolution10
I1023 16:54:38.017868  5058 net.cpp:84] Creating Layer Convolution10
I1023 16:54:38.017869  5058 net.cpp:406] Convolution10 <- Convolution9
I1023 16:54:38.017874  5058 net.cpp:380] Convolution10 -> Convolution10
I1023 16:54:38.020197  5058 net.cpp:122] Setting up Convolution10
I1023 16:54:38.020210  5058 net.cpp:129] Top shape: 8 32 112 112 (3211264)
I1023 16:54:38.020212  5058 net.cpp:137] Memory required for data: 1109491808
I1023 16:54:38.020227  5058 layer_factory.hpp:77] Creating layer BatchNorm10
I1023 16:54:38.020234  5058 net.cpp:84] Creating Layer BatchNorm10
I1023 16:54:38.020237  5058 net.cpp:406] BatchNorm10 <- Convolution10
I1023 16:54:38.020241  5058 net.cpp:367] BatchNorm10 -> Convolution10 (in-place)
I1023 16:54:38.020400  5058 net.cpp:122] Setting up BatchNorm10
I1023 16:54:38.020404  5058 net.cpp:129] Top shape: 8 32 112 112 (3211264)
I1023 16:54:38.020406  5058 net.cpp:137] Memory required for data: 1122336864
I1023 16:54:38.020411  5058 layer_factory.hpp:77] Creating layer Scale10
I1023 16:54:38.020416  5058 net.cpp:84] Creating Layer Scale10
I1023 16:54:38.020418  5058 net.cpp:406] Scale10 <- Convolution10
I1023 16:54:38.020422  5058 net.cpp:367] Scale10 -> Convolution10 (in-place)
I1023 16:54:38.020454  5058 layer_factory.hpp:77] Creating layer Scale10
I1023 16:54:38.020545  5058 net.cpp:122] Setting up Scale10
I1023 16:54:38.020550  5058 net.cpp:129] Top shape: 8 32 112 112 (3211264)
I1023 16:54:38.020552  5058 net.cpp:137] Memory required for data: 1135181920
I1023 16:54:38.020556  5058 layer_factory.hpp:77] Creating layer Eltwise4
I1023 16:54:38.020560  5058 net.cpp:84] Creating Layer Eltwise4
I1023 16:54:38.020563  5058 net.cpp:406] Eltwise4 <- Convolution8
I1023 16:54:38.020566  5058 net.cpp:406] Eltwise4 <- Convolution10
I1023 16:54:38.020570  5058 net.cpp:380] Eltwise4 -> Eltwise4
I1023 16:54:38.020589  5058 net.cpp:122] Setting up Eltwise4
I1023 16:54:38.020593  5058 net.cpp:129] Top shape: 8 32 112 112 (3211264)
I1023 16:54:38.020596  5058 net.cpp:137] Memory required for data: 1148026976
I1023 16:54:38.020611  5058 layer_factory.hpp:77] Creating layer elu9
I1023 16:54:38.020615  5058 net.cpp:84] Creating Layer elu9
I1023 16:54:38.020618  5058 net.cpp:406] elu9 <- Eltwise4
I1023 16:54:38.020622  5058 net.cpp:367] elu9 -> Eltwise4 (in-place)
I1023 16:54:38.020625  5058 net.cpp:122] Setting up elu9
I1023 16:54:38.020628  5058 net.cpp:129] Top shape: 8 32 112 112 (3211264)
I1023 16:54:38.020632  5058 net.cpp:137] Memory required for data: 1160872032
I1023 16:54:38.020633  5058 layer_factory.hpp:77] Creating layer Eltwise4_elu9_0_split
I1023 16:54:38.020637  5058 net.cpp:84] Creating Layer Eltwise4_elu9_0_split
I1023 16:54:38.020639  5058 net.cpp:406] Eltwise4_elu9_0_split <- Eltwise4
I1023 16:54:38.020642  5058 net.cpp:380] Eltwise4_elu9_0_split -> Eltwise4_elu9_0_split_0
I1023 16:54:38.020647  5058 net.cpp:380] Eltwise4_elu9_0_split -> Eltwise4_elu9_0_split_1
I1023 16:54:38.020673  5058 net.cpp:122] Setting up Eltwise4_elu9_0_split
I1023 16:54:38.020675  5058 net.cpp:129] Top shape: 8 32 112 112 (3211264)
I1023 16:54:38.020678  5058 net.cpp:129] Top shape: 8 32 112 112 (3211264)
I1023 16:54:38.020681  5058 net.cpp:137] Memory required for data: 1186562144
I1023 16:54:38.020684  5058 layer_factory.hpp:77] Creating layer Convolution11
I1023 16:54:38.020690  5058 net.cpp:84] Creating Layer Convolution11
I1023 16:54:38.020694  5058 net.cpp:406] Convolution11 <- Eltwise4_elu9_0_split_0
I1023 16:54:38.020697  5058 net.cpp:380] Convolution11 -> Convolution11
I1023 16:54:38.021852  5058 net.cpp:122] Setting up Convolution11
I1023 16:54:38.021862  5058 net.cpp:129] Top shape: 8 32 112 112 (3211264)
I1023 16:54:38.021864  5058 net.cpp:137] Memory required for data: 1199407200
I1023 16:54:38.021868  5058 layer_factory.hpp:77] Creating layer BatchNorm11
I1023 16:54:38.021873  5058 net.cpp:84] Creating Layer BatchNorm11
I1023 16:54:38.021877  5058 net.cpp:406] BatchNorm11 <- Convolution11
I1023 16:54:38.021881  5058 net.cpp:367] BatchNorm11 -> Convolution11 (in-place)
I1023 16:54:38.022047  5058 net.cpp:122] Setting up BatchNorm11
I1023 16:54:38.022053  5058 net.cpp:129] Top shape: 8 32 112 112 (3211264)
I1023 16:54:38.022055  5058 net.cpp:137] Memory required for data: 1212252256
I1023 16:54:38.022060  5058 layer_factory.hpp:77] Creating layer Scale11
I1023 16:54:38.022065  5058 net.cpp:84] Creating Layer Scale11
I1023 16:54:38.022068  5058 net.cpp:406] Scale11 <- Convolution11
I1023 16:54:38.022071  5058 net.cpp:367] Scale11 -> Convolution11 (in-place)
I1023 16:54:38.022101  5058 layer_factory.hpp:77] Creating layer Scale11
I1023 16:54:38.022205  5058 net.cpp:122] Setting up Scale11
I1023 16:54:38.022210  5058 net.cpp:129] Top shape: 8 32 112 112 (3211264)
I1023 16:54:38.022212  5058 net.cpp:137] Memory required for data: 1225097312
I1023 16:54:38.022217  5058 layer_factory.hpp:77] Creating layer elu10
I1023 16:54:38.022222  5058 net.cpp:84] Creating Layer elu10
I1023 16:54:38.022223  5058 net.cpp:406] elu10 <- Convolution11
I1023 16:54:38.022227  5058 net.cpp:367] elu10 -> Convolution11 (in-place)
I1023 16:54:38.022231  5058 net.cpp:122] Setting up elu10
I1023 16:54:38.022234  5058 net.cpp:129] Top shape: 8 32 112 112 (3211264)
I1023 16:54:38.022236  5058 net.cpp:137] Memory required for data: 1237942368
I1023 16:54:38.022238  5058 layer_factory.hpp:77] Creating layer Convolution12
I1023 16:54:38.022248  5058 net.cpp:84] Creating Layer Convolution12
I1023 16:54:38.022250  5058 net.cpp:406] Convolution12 <- Convolution11
I1023 16:54:38.022254  5058 net.cpp:380] Convolution12 -> Convolution12
I1023 16:54:38.023013  5058 net.cpp:122] Setting up Convolution12
I1023 16:54:38.023021  5058 net.cpp:129] Top shape: 8 32 112 112 (3211264)
I1023 16:54:38.023023  5058 net.cpp:137] Memory required for data: 1250787424
I1023 16:54:38.023027  5058 layer_factory.hpp:77] Creating layer BatchNorm12
I1023 16:54:38.023032  5058 net.cpp:84] Creating Layer BatchNorm12
I1023 16:54:38.023036  5058 net.cpp:406] BatchNorm12 <- Convolution12
I1023 16:54:38.023039  5058 net.cpp:367] BatchNorm12 -> Convolution12 (in-place)
I1023 16:54:38.023198  5058 net.cpp:122] Setting up BatchNorm12
I1023 16:54:38.023203  5058 net.cpp:129] Top shape: 8 32 112 112 (3211264)
I1023 16:54:38.023205  5058 net.cpp:137] Memory required for data: 1263632480
I1023 16:54:38.023211  5058 layer_factory.hpp:77] Creating layer Scale12
I1023 16:54:38.023213  5058 net.cpp:84] Creating Layer Scale12
I1023 16:54:38.023216  5058 net.cpp:406] Scale12 <- Convolution12
I1023 16:54:38.023219  5058 net.cpp:367] Scale12 -> Convolution12 (in-place)
I1023 16:54:38.023248  5058 layer_factory.hpp:77] Creating layer Scale12
I1023 16:54:38.023342  5058 net.cpp:122] Setting up Scale12
I1023 16:54:38.023347  5058 net.cpp:129] Top shape: 8 32 112 112 (3211264)
I1023 16:54:38.023350  5058 net.cpp:137] Memory required for data: 1276477536
I1023 16:54:38.023353  5058 layer_factory.hpp:77] Creating layer Eltwise5
I1023 16:54:38.023357  5058 net.cpp:84] Creating Layer Eltwise5
I1023 16:54:38.023360  5058 net.cpp:406] Eltwise5 <- Eltwise4_elu9_0_split_1
I1023 16:54:38.023362  5058 net.cpp:406] Eltwise5 <- Convolution12
I1023 16:54:38.023366  5058 net.cpp:380] Eltwise5 -> Eltwise5
I1023 16:54:38.023385  5058 net.cpp:122] Setting up Eltwise5
I1023 16:54:38.023387  5058 net.cpp:129] Top shape: 8 32 112 112 (3211264)
I1023 16:54:38.023389  5058 net.cpp:137] Memory required for data: 1289322592
I1023 16:54:38.023392  5058 layer_factory.hpp:77] Creating layer elu11
I1023 16:54:38.023396  5058 net.cpp:84] Creating Layer elu11
I1023 16:54:38.023399  5058 net.cpp:406] elu11 <- Eltwise5
I1023 16:54:38.023401  5058 net.cpp:367] elu11 -> Eltwise5 (in-place)
I1023 16:54:38.023406  5058 net.cpp:122] Setting up elu11
I1023 16:54:38.023408  5058 net.cpp:129] Top shape: 8 32 112 112 (3211264)
I1023 16:54:38.023411  5058 net.cpp:137] Memory required for data: 1302167648
I1023 16:54:38.023412  5058 layer_factory.hpp:77] Creating layer Eltwise5_elu11_0_split
I1023 16:54:38.023416  5058 net.cpp:84] Creating Layer Eltwise5_elu11_0_split
I1023 16:54:38.023418  5058 net.cpp:406] Eltwise5_elu11_0_split <- Eltwise5
I1023 16:54:38.023422  5058 net.cpp:380] Eltwise5_elu11_0_split -> Eltwise5_elu11_0_split_0
I1023 16:54:38.023425  5058 net.cpp:380] Eltwise5_elu11_0_split -> Eltwise5_elu11_0_split_1
I1023 16:54:38.023452  5058 net.cpp:122] Setting up Eltwise5_elu11_0_split
I1023 16:54:38.023457  5058 net.cpp:129] Top shape: 8 32 112 112 (3211264)
I1023 16:54:38.023461  5058 net.cpp:129] Top shape: 8 32 112 112 (3211264)
I1023 16:54:38.023463  5058 net.cpp:137] Memory required for data: 1327857760
I1023 16:54:38.023466  5058 layer_factory.hpp:77] Creating layer Convolution13
I1023 16:54:38.023473  5058 net.cpp:84] Creating Layer Convolution13
I1023 16:54:38.023475  5058 net.cpp:406] Convolution13 <- Eltwise5_elu11_0_split_0
I1023 16:54:38.023479  5058 net.cpp:380] Convolution13 -> Convolution13
I1023 16:54:38.024591  5058 net.cpp:122] Setting up Convolution13
I1023 16:54:38.024600  5058 net.cpp:129] Top shape: 8 32 112 112 (3211264)
I1023 16:54:38.024603  5058 net.cpp:137] Memory required for data: 1340702816
I1023 16:54:38.024608  5058 layer_factory.hpp:77] Creating layer BatchNorm13
I1023 16:54:38.024613  5058 net.cpp:84] Creating Layer BatchNorm13
I1023 16:54:38.024616  5058 net.cpp:406] BatchNorm13 <- Convolution13
I1023 16:54:38.024619  5058 net.cpp:367] BatchNorm13 -> Convolution13 (in-place)
I1023 16:54:38.024773  5058 net.cpp:122] Setting up BatchNorm13
I1023 16:54:38.024778  5058 net.cpp:129] Top shape: 8 32 112 112 (3211264)
I1023 16:54:38.024780  5058 net.cpp:137] Memory required for data: 1353547872
I1023 16:54:38.024785  5058 layer_factory.hpp:77] Creating layer Scale13
I1023 16:54:38.024790  5058 net.cpp:84] Creating Layer Scale13
I1023 16:54:38.024791  5058 net.cpp:406] Scale13 <- Convolution13
I1023 16:54:38.024796  5058 net.cpp:367] Scale13 -> Convolution13 (in-place)
I1023 16:54:38.024824  5058 layer_factory.hpp:77] Creating layer Scale13
I1023 16:54:38.024917  5058 net.cpp:122] Setting up Scale13
I1023 16:54:38.024922  5058 net.cpp:129] Top shape: 8 32 112 112 (3211264)
I1023 16:54:38.024924  5058 net.cpp:137] Memory required for data: 1366392928
I1023 16:54:38.024935  5058 layer_factory.hpp:77] Creating layer elu12
I1023 16:54:38.024940  5058 net.cpp:84] Creating Layer elu12
I1023 16:54:38.024942  5058 net.cpp:406] elu12 <- Convolution13
I1023 16:54:38.024945  5058 net.cpp:367] elu12 -> Convolution13 (in-place)
I1023 16:54:38.024950  5058 net.cpp:122] Setting up elu12
I1023 16:54:38.024952  5058 net.cpp:129] Top shape: 8 32 112 112 (3211264)
I1023 16:54:38.024955  5058 net.cpp:137] Memory required for data: 1379237984
I1023 16:54:38.024956  5058 layer_factory.hpp:77] Creating layer Convolution14
I1023 16:54:38.024967  5058 net.cpp:84] Creating Layer Convolution14
I1023 16:54:38.024971  5058 net.cpp:406] Convolution14 <- Convolution13
I1023 16:54:38.024974  5058 net.cpp:380] Convolution14 -> Convolution14
I1023 16:54:38.026083  5058 net.cpp:122] Setting up Convolution14
I1023 16:54:38.026093  5058 net.cpp:129] Top shape: 8 32 112 112 (3211264)
I1023 16:54:38.026094  5058 net.cpp:137] Memory required for data: 1392083040
I1023 16:54:38.026099  5058 layer_factory.hpp:77] Creating layer BatchNorm14
I1023 16:54:38.026105  5058 net.cpp:84] Creating Layer BatchNorm14
I1023 16:54:38.026108  5058 net.cpp:406] BatchNorm14 <- Convolution14
I1023 16:54:38.026111  5058 net.cpp:367] BatchNorm14 -> Convolution14 (in-place)
I1023 16:54:38.026263  5058 net.cpp:122] Setting up BatchNorm14
I1023 16:54:38.026268  5058 net.cpp:129] Top shape: 8 32 112 112 (3211264)
I1023 16:54:38.026270  5058 net.cpp:137] Memory required for data: 1404928096
I1023 16:54:38.026275  5058 layer_factory.hpp:77] Creating layer Scale14
I1023 16:54:38.026280  5058 net.cpp:84] Creating Layer Scale14
I1023 16:54:38.026283  5058 net.cpp:406] Scale14 <- Convolution14
I1023 16:54:38.026286  5058 net.cpp:367] Scale14 -> Convolution14 (in-place)
I1023 16:54:38.026315  5058 layer_factory.hpp:77] Creating layer Scale14
I1023 16:54:38.026412  5058 net.cpp:122] Setting up Scale14
I1023 16:54:38.026417  5058 net.cpp:129] Top shape: 8 32 112 112 (3211264)
I1023 16:54:38.026418  5058 net.cpp:137] Memory required for data: 1417773152
I1023 16:54:38.026422  5058 layer_factory.hpp:77] Creating layer Eltwise6
I1023 16:54:38.026425  5058 net.cpp:84] Creating Layer Eltwise6
I1023 16:54:38.026428  5058 net.cpp:406] Eltwise6 <- Eltwise5_elu11_0_split_1
I1023 16:54:38.026432  5058 net.cpp:406] Eltwise6 <- Convolution14
I1023 16:54:38.026435  5058 net.cpp:380] Eltwise6 -> Eltwise6
I1023 16:54:38.026453  5058 net.cpp:122] Setting up Eltwise6
I1023 16:54:38.026458  5058 net.cpp:129] Top shape: 8 32 112 112 (3211264)
I1023 16:54:38.026459  5058 net.cpp:137] Memory required for data: 1430618208
I1023 16:54:38.026461  5058 layer_factory.hpp:77] Creating layer elu13
I1023 16:54:38.026464  5058 net.cpp:84] Creating Layer elu13
I1023 16:54:38.026468  5058 net.cpp:406] elu13 <- Eltwise6
I1023 16:54:38.026470  5058 net.cpp:367] elu13 -> Eltwise6 (in-place)
I1023 16:54:38.026473  5058 net.cpp:122] Setting up elu13
I1023 16:54:38.026476  5058 net.cpp:129] Top shape: 8 32 112 112 (3211264)
I1023 16:54:38.026479  5058 net.cpp:137] Memory required for data: 1443463264
I1023 16:54:38.026480  5058 layer_factory.hpp:77] Creating layer Eltwise6_elu13_0_split
I1023 16:54:38.026484  5058 net.cpp:84] Creating Layer Eltwise6_elu13_0_split
I1023 16:54:38.026487  5058 net.cpp:406] Eltwise6_elu13_0_split <- Eltwise6
I1023 16:54:38.026490  5058 net.cpp:380] Eltwise6_elu13_0_split -> Eltwise6_elu13_0_split_0
I1023 16:54:38.026494  5058 net.cpp:380] Eltwise6_elu13_0_split -> Eltwise6_elu13_0_split_1
I1023 16:54:38.026520  5058 net.cpp:122] Setting up Eltwise6_elu13_0_split
I1023 16:54:38.026523  5058 net.cpp:129] Top shape: 8 32 112 112 (3211264)
I1023 16:54:38.026526  5058 net.cpp:129] Top shape: 8 32 112 112 (3211264)
I1023 16:54:38.026528  5058 net.cpp:137] Memory required for data: 1469153376
I1023 16:54:38.026530  5058 layer_factory.hpp:77] Creating layer Convolution15
I1023 16:54:38.026535  5058 net.cpp:84] Creating Layer Convolution15
I1023 16:54:38.026538  5058 net.cpp:406] Convolution15 <- Eltwise6_elu13_0_split_0
I1023 16:54:38.026549  5058 net.cpp:380] Convolution15 -> Convolution15
I1023 16:54:38.027501  5058 net.cpp:122] Setting up Convolution15
I1023 16:54:38.027509  5058 net.cpp:129] Top shape: 8 64 56 56 (1605632)
I1023 16:54:38.027513  5058 net.cpp:137] Memory required for data: 1475575904
I1023 16:54:38.027518  5058 layer_factory.hpp:77] Creating layer BatchNorm15
I1023 16:54:38.027523  5058 net.cpp:84] Creating Layer BatchNorm15
I1023 16:54:38.027526  5058 net.cpp:406] BatchNorm15 <- Convolution15
I1023 16:54:38.027529  5058 net.cpp:367] BatchNorm15 -> Convolution15 (in-place)
I1023 16:54:38.027681  5058 net.cpp:122] Setting up BatchNorm15
I1023 16:54:38.027685  5058 net.cpp:129] Top shape: 8 64 56 56 (1605632)
I1023 16:54:38.027688  5058 net.cpp:137] Memory required for data: 1481998432
I1023 16:54:38.027693  5058 layer_factory.hpp:77] Creating layer Scale15
I1023 16:54:38.027696  5058 net.cpp:84] Creating Layer Scale15
I1023 16:54:38.027699  5058 net.cpp:406] Scale15 <- Convolution15
I1023 16:54:38.027703  5058 net.cpp:367] Scale15 -> Convolution15 (in-place)
I1023 16:54:38.027731  5058 layer_factory.hpp:77] Creating layer Scale15
I1023 16:54:38.027819  5058 net.cpp:122] Setting up Scale15
I1023 16:54:38.027824  5058 net.cpp:129] Top shape: 8 64 56 56 (1605632)
I1023 16:54:38.027827  5058 net.cpp:137] Memory required for data: 1488420960
I1023 16:54:38.027830  5058 layer_factory.hpp:77] Creating layer Convolution16
I1023 16:54:38.027837  5058 net.cpp:84] Creating Layer Convolution16
I1023 16:54:38.027839  5058 net.cpp:406] Convolution16 <- Eltwise6_elu13_0_split_1
I1023 16:54:38.027844  5058 net.cpp:380] Convolution16 -> Convolution16
I1023 16:54:38.029141  5058 net.cpp:122] Setting up Convolution16
I1023 16:54:38.029150  5058 net.cpp:129] Top shape: 8 64 56 56 (1605632)
I1023 16:54:38.029153  5058 net.cpp:137] Memory required for data: 1494843488
I1023 16:54:38.029158  5058 layer_factory.hpp:77] Creating layer BatchNorm16
I1023 16:54:38.029162  5058 net.cpp:84] Creating Layer BatchNorm16
I1023 16:54:38.029165  5058 net.cpp:406] BatchNorm16 <- Convolution16
I1023 16:54:38.029170  5058 net.cpp:367] BatchNorm16 -> Convolution16 (in-place)
I1023 16:54:38.029320  5058 net.cpp:122] Setting up BatchNorm16
I1023 16:54:38.029325  5058 net.cpp:129] Top shape: 8 64 56 56 (1605632)
I1023 16:54:38.029327  5058 net.cpp:137] Memory required for data: 1501266016
I1023 16:54:38.029331  5058 layer_factory.hpp:77] Creating layer Scale16
I1023 16:54:38.029335  5058 net.cpp:84] Creating Layer Scale16
I1023 16:54:38.029338  5058 net.cpp:406] Scale16 <- Convolution16
I1023 16:54:38.029341  5058 net.cpp:367] Scale16 -> Convolution16 (in-place)
I1023 16:54:38.029371  5058 layer_factory.hpp:77] Creating layer Scale16
I1023 16:54:38.029460  5058 net.cpp:122] Setting up Scale16
I1023 16:54:38.029465  5058 net.cpp:129] Top shape: 8 64 56 56 (1605632)
I1023 16:54:38.029467  5058 net.cpp:137] Memory required for data: 1507688544
I1023 16:54:38.029471  5058 layer_factory.hpp:77] Creating layer elu14
I1023 16:54:38.029474  5058 net.cpp:84] Creating Layer elu14
I1023 16:54:38.029477  5058 net.cpp:406] elu14 <- Convolution16
I1023 16:54:38.029479  5058 net.cpp:367] elu14 -> Convolution16 (in-place)
I1023 16:54:38.029484  5058 net.cpp:122] Setting up elu14
I1023 16:54:38.029486  5058 net.cpp:129] Top shape: 8 64 56 56 (1605632)
I1023 16:54:38.029489  5058 net.cpp:137] Memory required for data: 1514111072
I1023 16:54:38.029490  5058 layer_factory.hpp:77] Creating layer Convolution17
I1023 16:54:38.029497  5058 net.cpp:84] Creating Layer Convolution17
I1023 16:54:38.029500  5058 net.cpp:406] Convolution17 <- Convolution16
I1023 16:54:38.029503  5058 net.cpp:380] Convolution17 -> Convolution17
I1023 16:54:38.031766  5058 net.cpp:122] Setting up Convolution17
I1023 16:54:38.031775  5058 net.cpp:129] Top shape: 8 64 56 56 (1605632)
I1023 16:54:38.031777  5058 net.cpp:137] Memory required for data: 1520533600
I1023 16:54:38.031782  5058 layer_factory.hpp:77] Creating layer BatchNorm17
I1023 16:54:38.031788  5058 net.cpp:84] Creating Layer BatchNorm17
I1023 16:54:38.031797  5058 net.cpp:406] BatchNorm17 <- Convolution17
I1023 16:54:38.031801  5058 net.cpp:367] BatchNorm17 -> Convolution17 (in-place)
I1023 16:54:38.031965  5058 net.cpp:122] Setting up BatchNorm17
I1023 16:54:38.031971  5058 net.cpp:129] Top shape: 8 64 56 56 (1605632)
I1023 16:54:38.031973  5058 net.cpp:137] Memory required for data: 1526956128
I1023 16:54:38.031978  5058 layer_factory.hpp:77] Creating layer Scale17
I1023 16:54:38.031982  5058 net.cpp:84] Creating Layer Scale17
I1023 16:54:38.031985  5058 net.cpp:406] Scale17 <- Convolution17
I1023 16:54:38.031989  5058 net.cpp:367] Scale17 -> Convolution17 (in-place)
I1023 16:54:38.032019  5058 layer_factory.hpp:77] Creating layer Scale17
I1023 16:54:38.032111  5058 net.cpp:122] Setting up Scale17
I1023 16:54:38.032116  5058 net.cpp:129] Top shape: 8 64 56 56 (1605632)
I1023 16:54:38.032119  5058 net.cpp:137] Memory required for data: 1533378656
I1023 16:54:38.032122  5058 layer_factory.hpp:77] Creating layer Eltwise7
I1023 16:54:38.032126  5058 net.cpp:84] Creating Layer Eltwise7
I1023 16:54:38.032129  5058 net.cpp:406] Eltwise7 <- Convolution15
I1023 16:54:38.032131  5058 net.cpp:406] Eltwise7 <- Convolution17
I1023 16:54:38.032135  5058 net.cpp:380] Eltwise7 -> Eltwise7
I1023 16:54:38.032155  5058 net.cpp:122] Setting up Eltwise7
I1023 16:54:38.032157  5058 net.cpp:129] Top shape: 8 64 56 56 (1605632)
I1023 16:54:38.032160  5058 net.cpp:137] Memory required for data: 1539801184
I1023 16:54:38.032162  5058 layer_factory.hpp:77] Creating layer elu15
I1023 16:54:38.032166  5058 net.cpp:84] Creating Layer elu15
I1023 16:54:38.032167  5058 net.cpp:406] elu15 <- Eltwise7
I1023 16:54:38.032171  5058 net.cpp:367] elu15 -> Eltwise7 (in-place)
I1023 16:54:38.032174  5058 net.cpp:122] Setting up elu15
I1023 16:54:38.032177  5058 net.cpp:129] Top shape: 8 64 56 56 (1605632)
I1023 16:54:38.032179  5058 net.cpp:137] Memory required for data: 1546223712
I1023 16:54:38.032181  5058 layer_factory.hpp:77] Creating layer Eltwise7_elu15_0_split
I1023 16:54:38.032186  5058 net.cpp:84] Creating Layer Eltwise7_elu15_0_split
I1023 16:54:38.032187  5058 net.cpp:406] Eltwise7_elu15_0_split <- Eltwise7
I1023 16:54:38.032191  5058 net.cpp:380] Eltwise7_elu15_0_split -> Eltwise7_elu15_0_split_0
I1023 16:54:38.041184  5058 net.cpp:380] Eltwise7_elu15_0_split -> Eltwise7_elu15_0_split_1
I1023 16:54:38.041241  5058 net.cpp:122] Setting up Eltwise7_elu15_0_split
I1023 16:54:38.041249  5058 net.cpp:129] Top shape: 8 64 56 56 (1605632)
I1023 16:54:38.041255  5058 net.cpp:129] Top shape: 8 64 56 56 (1605632)
I1023 16:54:38.041260  5058 net.cpp:137] Memory required for data: 1559068768
I1023 16:54:38.041263  5058 layer_factory.hpp:77] Creating layer Convolution18
I1023 16:54:38.041273  5058 net.cpp:84] Creating Layer Convolution18
I1023 16:54:38.041277  5058 net.cpp:406] Convolution18 <- Eltwise7_elu15_0_split_0
I1023 16:54:38.041286  5058 net.cpp:380] Convolution18 -> Convolution18
I1023 16:54:38.044714  5058 net.cpp:122] Setting up Convolution18
I1023 16:54:38.044725  5058 net.cpp:129] Top shape: 8 64 56 56 (1605632)
I1023 16:54:38.044729  5058 net.cpp:137] Memory required for data: 1565491296
I1023 16:54:38.044734  5058 layer_factory.hpp:77] Creating layer BatchNorm18
I1023 16:54:38.044739  5058 net.cpp:84] Creating Layer BatchNorm18
I1023 16:54:38.044742  5058 net.cpp:406] BatchNorm18 <- Convolution18
I1023 16:54:38.044746  5058 net.cpp:367] BatchNorm18 -> Convolution18 (in-place)
I1023 16:54:38.044919  5058 net.cpp:122] Setting up BatchNorm18
I1023 16:54:38.044924  5058 net.cpp:129] Top shape: 8 64 56 56 (1605632)
I1023 16:54:38.044925  5058 net.cpp:137] Memory required for data: 1571913824
I1023 16:54:38.044930  5058 layer_factory.hpp:77] Creating layer Scale18
I1023 16:54:38.044934  5058 net.cpp:84] Creating Layer Scale18
I1023 16:54:38.044936  5058 net.cpp:406] Scale18 <- Convolution18
I1023 16:54:38.044940  5058 net.cpp:367] Scale18 -> Convolution18 (in-place)
I1023 16:54:38.044970  5058 layer_factory.hpp:77] Creating layer Scale18
I1023 16:54:38.045061  5058 net.cpp:122] Setting up Scale18
I1023 16:54:38.045073  5058 net.cpp:129] Top shape: 8 64 56 56 (1605632)
I1023 16:54:38.045075  5058 net.cpp:137] Memory required for data: 1578336352
I1023 16:54:38.045079  5058 layer_factory.hpp:77] Creating layer elu16
I1023 16:54:38.045083  5058 net.cpp:84] Creating Layer elu16
I1023 16:54:38.045085  5058 net.cpp:406] elu16 <- Convolution18
I1023 16:54:38.045089  5058 net.cpp:367] elu16 -> Convolution18 (in-place)
I1023 16:54:38.045092  5058 net.cpp:122] Setting up elu16
I1023 16:54:38.045095  5058 net.cpp:129] Top shape: 8 64 56 56 (1605632)
I1023 16:54:38.045097  5058 net.cpp:137] Memory required for data: 1584758880
I1023 16:54:38.045100  5058 layer_factory.hpp:77] Creating layer Convolution19
I1023 16:54:38.045107  5058 net.cpp:84] Creating Layer Convolution19
I1023 16:54:38.045109  5058 net.cpp:406] Convolution19 <- Convolution18
I1023 16:54:38.045114  5058 net.cpp:380] Convolution19 -> Convolution19
I1023 16:54:38.046877  5058 net.cpp:122] Setting up Convolution19
I1023 16:54:38.046885  5058 net.cpp:129] Top shape: 8 64 56 56 (1605632)
I1023 16:54:38.046888  5058 net.cpp:137] Memory required for data: 1591181408
I1023 16:54:38.046892  5058 layer_factory.hpp:77] Creating layer BatchNorm19
I1023 16:54:38.046898  5058 net.cpp:84] Creating Layer BatchNorm19
I1023 16:54:38.046901  5058 net.cpp:406] BatchNorm19 <- Convolution19
I1023 16:54:38.046905  5058 net.cpp:367] BatchNorm19 -> Convolution19 (in-place)
I1023 16:54:38.047056  5058 net.cpp:122] Setting up BatchNorm19
I1023 16:54:38.047061  5058 net.cpp:129] Top shape: 8 64 56 56 (1605632)
I1023 16:54:38.047063  5058 net.cpp:137] Memory required for data: 1597603936
I1023 16:54:38.047080  5058 layer_factory.hpp:77] Creating layer Scale19
I1023 16:54:38.047086  5058 net.cpp:84] Creating Layer Scale19
I1023 16:54:38.047088  5058 net.cpp:406] Scale19 <- Convolution19
I1023 16:54:38.047091  5058 net.cpp:367] Scale19 -> Convolution19 (in-place)
I1023 16:54:38.047123  5058 layer_factory.hpp:77] Creating layer Scale19
I1023 16:54:38.047210  5058 net.cpp:122] Setting up Scale19
I1023 16:54:38.047215  5058 net.cpp:129] Top shape: 8 64 56 56 (1605632)
I1023 16:54:38.047217  5058 net.cpp:137] Memory required for data: 1604026464
I1023 16:54:38.047221  5058 layer_factory.hpp:77] Creating layer Eltwise8
I1023 16:54:38.047226  5058 net.cpp:84] Creating Layer Eltwise8
I1023 16:54:38.047228  5058 net.cpp:406] Eltwise8 <- Eltwise7_elu15_0_split_1
I1023 16:54:38.047231  5058 net.cpp:406] Eltwise8 <- Convolution19
I1023 16:54:38.047235  5058 net.cpp:380] Eltwise8 -> Eltwise8
I1023 16:54:38.047253  5058 net.cpp:122] Setting up Eltwise8
I1023 16:54:38.047256  5058 net.cpp:129] Top shape: 8 64 56 56 (1605632)
I1023 16:54:38.047258  5058 net.cpp:137] Memory required for data: 1610448992
I1023 16:54:38.047260  5058 layer_factory.hpp:77] Creating layer elu17
I1023 16:54:38.047264  5058 net.cpp:84] Creating Layer elu17
I1023 16:54:38.047266  5058 net.cpp:406] elu17 <- Eltwise8
I1023 16:54:38.047271  5058 net.cpp:367] elu17 -> Eltwise8 (in-place)
I1023 16:54:38.047273  5058 net.cpp:122] Setting up elu17
I1023 16:54:38.047276  5058 net.cpp:129] Top shape: 8 64 56 56 (1605632)
I1023 16:54:38.047278  5058 net.cpp:137] Memory required for data: 1616871520
I1023 16:54:38.047281  5058 layer_factory.hpp:77] Creating layer Eltwise8_elu17_0_split
I1023 16:54:38.047284  5058 net.cpp:84] Creating Layer Eltwise8_elu17_0_split
I1023 16:54:38.047286  5058 net.cpp:406] Eltwise8_elu17_0_split <- Eltwise8
I1023 16:54:38.047289  5058 net.cpp:380] Eltwise8_elu17_0_split -> Eltwise8_elu17_0_split_0
I1023 16:54:38.047292  5058 net.cpp:380] Eltwise8_elu17_0_split -> Eltwise8_elu17_0_split_1
I1023 16:54:38.047318  5058 net.cpp:122] Setting up Eltwise8_elu17_0_split
I1023 16:54:38.047322  5058 net.cpp:129] Top shape: 8 64 56 56 (1605632)
I1023 16:54:38.047324  5058 net.cpp:129] Top shape: 8 64 56 56 (1605632)
I1023 16:54:38.047327  5058 net.cpp:137] Memory required for data: 1629716576
I1023 16:54:38.047328  5058 layer_factory.hpp:77] Creating layer Convolution20
I1023 16:54:38.047334  5058 net.cpp:84] Creating Layer Convolution20
I1023 16:54:38.047343  5058 net.cpp:406] Convolution20 <- Eltwise8_elu17_0_split_0
I1023 16:54:38.047348  5058 net.cpp:380] Convolution20 -> Convolution20
I1023 16:54:38.049381  5058 net.cpp:122] Setting up Convolution20
I1023 16:54:38.049391  5058 net.cpp:129] Top shape: 8 64 56 56 (1605632)
I1023 16:54:38.049392  5058 net.cpp:137] Memory required for data: 1636139104
I1023 16:54:38.049397  5058 layer_factory.hpp:77] Creating layer BatchNorm20
I1023 16:54:38.049402  5058 net.cpp:84] Creating Layer BatchNorm20
I1023 16:54:38.049405  5058 net.cpp:406] BatchNorm20 <- Convolution20
I1023 16:54:38.049409  5058 net.cpp:367] BatchNorm20 -> Convolution20 (in-place)
I1023 16:54:38.049561  5058 net.cpp:122] Setting up BatchNorm20
I1023 16:54:38.049566  5058 net.cpp:129] Top shape: 8 64 56 56 (1605632)
I1023 16:54:38.049567  5058 net.cpp:137] Memory required for data: 1642561632
I1023 16:54:38.049572  5058 layer_factory.hpp:77] Creating layer Scale20
I1023 16:54:38.049577  5058 net.cpp:84] Creating Layer Scale20
I1023 16:54:38.049579  5058 net.cpp:406] Scale20 <- Convolution20
I1023 16:54:38.049583  5058 net.cpp:367] Scale20 -> Convolution20 (in-place)
I1023 16:54:38.049612  5058 layer_factory.hpp:77] Creating layer Scale20
I1023 16:54:38.049702  5058 net.cpp:122] Setting up Scale20
I1023 16:54:38.049706  5058 net.cpp:129] Top shape: 8 64 56 56 (1605632)
I1023 16:54:38.049708  5058 net.cpp:137] Memory required for data: 1648984160
I1023 16:54:38.049712  5058 layer_factory.hpp:77] Creating layer elu18
I1023 16:54:38.049716  5058 net.cpp:84] Creating Layer elu18
I1023 16:54:38.049720  5058 net.cpp:406] elu18 <- Convolution20
I1023 16:54:38.049721  5058 net.cpp:367] elu18 -> Convolution20 (in-place)
I1023 16:54:38.049726  5058 net.cpp:122] Setting up elu18
I1023 16:54:38.049728  5058 net.cpp:129] Top shape: 8 64 56 56 (1605632)
I1023 16:54:38.049731  5058 net.cpp:137] Memory required for data: 1655406688
I1023 16:54:38.049732  5058 layer_factory.hpp:77] Creating layer Convolution21
I1023 16:54:38.049739  5058 net.cpp:84] Creating Layer Convolution21
I1023 16:54:38.049741  5058 net.cpp:406] Convolution21 <- Convolution20
I1023 16:54:38.049746  5058 net.cpp:380] Convolution21 -> Convolution21
I1023 16:54:38.051434  5058 net.cpp:122] Setting up Convolution21
I1023 16:54:38.051443  5058 net.cpp:129] Top shape: 8 64 56 56 (1605632)
I1023 16:54:38.051445  5058 net.cpp:137] Memory required for data: 1661829216
I1023 16:54:38.051450  5058 layer_factory.hpp:77] Creating layer BatchNorm21
I1023 16:54:38.051455  5058 net.cpp:84] Creating Layer BatchNorm21
I1023 16:54:38.051458  5058 net.cpp:406] BatchNorm21 <- Convolution21
I1023 16:54:38.051461  5058 net.cpp:367] BatchNorm21 -> Convolution21 (in-place)
I1023 16:54:38.051615  5058 net.cpp:122] Setting up BatchNorm21
I1023 16:54:38.051620  5058 net.cpp:129] Top shape: 8 64 56 56 (1605632)
I1023 16:54:38.051622  5058 net.cpp:137] Memory required for data: 1668251744
I1023 16:54:38.051627  5058 layer_factory.hpp:77] Creating layer Scale21
I1023 16:54:38.051631  5058 net.cpp:84] Creating Layer Scale21
I1023 16:54:38.051633  5058 net.cpp:406] Scale21 <- Convolution21
I1023 16:54:38.051636  5058 net.cpp:367] Scale21 -> Convolution21 (in-place)
I1023 16:54:38.051667  5058 layer_factory.hpp:77] Creating layer Scale21
I1023 16:54:38.051756  5058 net.cpp:122] Setting up Scale21
I1023 16:54:38.051760  5058 net.cpp:129] Top shape: 8 64 56 56 (1605632)
I1023 16:54:38.051764  5058 net.cpp:137] Memory required for data: 1674674272
I1023 16:54:38.051766  5058 layer_factory.hpp:77] Creating layer Eltwise9
I1023 16:54:38.051771  5058 net.cpp:84] Creating Layer Eltwise9
I1023 16:54:38.051774  5058 net.cpp:406] Eltwise9 <- Eltwise8_elu17_0_split_1
I1023 16:54:38.051777  5058 net.cpp:406] Eltwise9 <- Convolution21
I1023 16:54:38.051780  5058 net.cpp:380] Eltwise9 -> Eltwise9
I1023 16:54:38.051797  5058 net.cpp:122] Setting up Eltwise9
I1023 16:54:38.051801  5058 net.cpp:129] Top shape: 8 64 56 56 (1605632)
I1023 16:54:38.051803  5058 net.cpp:137] Memory required for data: 1681096800
I1023 16:54:38.051811  5058 layer_factory.hpp:77] Creating layer elu19
I1023 16:54:38.051815  5058 net.cpp:84] Creating Layer elu19
I1023 16:54:38.051817  5058 net.cpp:406] elu19 <- Eltwise9
I1023 16:54:38.051821  5058 net.cpp:367] elu19 -> Eltwise9 (in-place)
I1023 16:54:38.051826  5058 net.cpp:122] Setting up elu19
I1023 16:54:38.051828  5058 net.cpp:129] Top shape: 8 64 56 56 (1605632)
I1023 16:54:38.051831  5058 net.cpp:137] Memory required for data: 1687519328
I1023 16:54:38.051832  5058 layer_factory.hpp:77] Creating layer Pooling1
I1023 16:54:38.051836  5058 net.cpp:84] Creating Layer Pooling1
I1023 16:54:38.051838  5058 net.cpp:406] Pooling1 <- Eltwise9
I1023 16:54:38.051841  5058 net.cpp:380] Pooling1 -> Pooling1
I1023 16:54:38.052004  5058 net.cpp:122] Setting up Pooling1
I1023 16:54:38.052011  5058 net.cpp:129] Top shape: 8 64 1 1 (512)
I1023 16:54:38.052014  5058 net.cpp:137] Memory required for data: 1687521376
I1023 16:54:38.052016  5058 layer_factory.hpp:77] Creating layer InnerProduct1
I1023 16:54:38.052022  5058 net.cpp:84] Creating Layer InnerProduct1
I1023 16:54:38.052026  5058 net.cpp:406] InnerProduct1 <- Pooling1
I1023 16:54:38.052029  5058 net.cpp:380] InnerProduct1 -> InnerProduct1
I1023 16:54:38.052114  5058 net.cpp:122] Setting up InnerProduct1
I1023 16:54:38.052119  5058 net.cpp:129] Top shape: 8 4 (32)
I1023 16:54:38.052120  5058 net.cpp:137] Memory required for data: 1687521504
I1023 16:54:38.052124  5058 layer_factory.hpp:77] Creating layer InnerProduct1_InnerProduct1_0_split
I1023 16:54:38.052129  5058 net.cpp:84] Creating Layer InnerProduct1_InnerProduct1_0_split
I1023 16:54:38.052130  5058 net.cpp:406] InnerProduct1_InnerProduct1_0_split <- InnerProduct1
I1023 16:54:38.052134  5058 net.cpp:380] InnerProduct1_InnerProduct1_0_split -> InnerProduct1_InnerProduct1_0_split_0
I1023 16:54:38.052137  5058 net.cpp:380] InnerProduct1_InnerProduct1_0_split -> InnerProduct1_InnerProduct1_0_split_1
I1023 16:54:38.052165  5058 net.cpp:122] Setting up InnerProduct1_InnerProduct1_0_split
I1023 16:54:38.052170  5058 net.cpp:129] Top shape: 8 4 (32)
I1023 16:54:38.052171  5058 net.cpp:129] Top shape: 8 4 (32)
I1023 16:54:38.052175  5058 net.cpp:137] Memory required for data: 1687521760
I1023 16:54:38.052176  5058 layer_factory.hpp:77] Creating layer SoftmaxWithLoss1
I1023 16:54:38.052179  5058 net.cpp:84] Creating Layer SoftmaxWithLoss1
I1023 16:54:38.052182  5058 net.cpp:406] SoftmaxWithLoss1 <- InnerProduct1_InnerProduct1_0_split_0
I1023 16:54:38.052186  5058 net.cpp:406] SoftmaxWithLoss1 <- Data2_Data1_1_split_0
…
