…
I1022 19:29:09.157428  3845 net.cpp:294] The NetState phase (0) differed from the phase (1) specified by a rule in layer Accuracy1
I1022 19:29:09.157793  3845 net.cpp:51] Initializing net from parameters: 
name: "resnet"
state {
  phase: TRAIN
  level: 0
  stage: ""
}
layer {
  name: "Data1"
  type: "Data"
  top: "Data1"
  top: "Data2"
  include {
    phase: TRAIN
  }
  transform_param {
    mirror: true
    crop_size: 224
    mean_file: "/home/x306/caffe/xn/English_orange/data/orange1_mean.binaryproto"
  }
  data_param {
    source: "/home/x306/caffe/xn/English_orange/data/train1_lmdb"
    batch_size: 8
    backend: LMDB
  }
}
layer {
  name: "Convolution1"
  type: "Convolution"
  bottom: "Data1"
  top: "Convolution1"
  param {
    lr_mult: 1
    decay_mult: 1
  }
  param {
    lr_mult: 2
    decay_mult: 0
  }
  convolution_param {
    num_output: 16
    pad: 1
    kernel_size: 3
    stride: 1
    weight_filler {
      type: "gaussian"
      std: 0.118
    }
    bias_filler {
      type: "constant"
      value: 0
    }
  }
}
layer {
  name: "BatchNorm1"
  type: "BatchNorm"
  bottom: "Convolution1"
  top: "Convolution1"
  param {
    lr_mult: 0
    decay_mult: 0
  }
  param {
    lr_mult: 0
    decay_mult: 0
  }
  param {
    lr_mult: 0
    decay_mult: 0
  }
}
layer {
  name: "Scale1"
  type: "Scale"
  bottom: "Convolution1"
  top: "Convolution1"
  scale_param {
    bias_term: true
  }
}
layer {
  name: "ReLU1"
  type: "ReLU"
  bottom: "Convolution1"
  top: "Convolution1"
}
layer {
  name: "Convolution2"
  type: "Convolution"
  bottom: "Convolution1"
  top: "Convolution2"
  param {
    lr_mult: 1
    decay_mult: 1
  }
  param {
    lr_mult: 2
    decay_mult: 0
  }
  convolution_param {
    num_output: 16
    pad: 1
    kernel_size: 3
    stride: 1
    weight_filler {
      type: "gaussian"
      std: 0.118
    }
    bias_filler {
      type: "constant"
      value: 0
    }
  }
}
layer {
  name: "BatchNorm2"
  type: "BatchNorm"
  bottom: "Convolution2"
  top: "Convolution2"
  param {
    lr_mult: 0
    decay_mult: 0
  }
  param {
    lr_mult: 0
    decay_mult: 0
  }
  param {
    lr_mult: 0
    decay_mult: 0
  }
}
layer {
  name: "Scale2"
  type: "Scale"
  bottom: "Convolution2"
  top: "Convolution2"
  scale_param {
    bias_term: true
  }
}
layer {
  name: "ReLU2"
  type: "ReLU"
  bottom: "Convolution2"
  top: "Convolution2"
}
layer {
  name: "Convolution3"
  type: "Convolution"
  bottom: "Convolution2"
  top: "Convolution3"
  param {
    lr_mult: 1
    decay_mult: 1
  }
  param {
    lr_mult: 2
    decay_mult: 0
  }
  convolution_param {
    num_output: 16
    pad: 1
    kernel_size: 3
    stride: 1
    weight_filler {
      type: "gaussian"
      std: 0.118
    }
    bias_filler {
      type: "constant"
      value: 0
    }
  }
}
layer {
  name: "BatchNorm3"
  type: "BatchNorm"
  bottom: "Convolution3"
  top: "Convolution3"
  param {
    lr_mult: 0
    decay_mult: 0
  }
  param {
    lr_mult: 0
    decay_mult: 0
  }
  param {
    lr_mult: 0
    decay_mult: 0
  }
}
layer {
  name: "Scale3"
  type: "Scale"
  bottom: "Convolution3"
  top: "Convolution3"
  scale_param {
    bias_term: true
  }
}
layer {
  name: "Eltwise1"
  type: "Eltwise"
  bottom: "Convolution1"
  bottom: "Convolution3"
  top: "Eltwise1"
  eltwise_param {
    operation: SUM
  }
}
layer {
  name: "ReLU3"
  type: "ReLU"
  bottom: "Eltwise1"
  top: "Eltwise1"
}
layer {
  name: "Convolution4"
  type: "Convolution"
  bottom: "Eltwise1"
  top: "Convolution4"
  param {
    lr_mult: 1
    decay_mult: 1
  }
  param {
    lr_mult: 2
    decay_mult: 0
  }
  convolution_param {
    num_output: 16
    pad: 1
    kernel_size: 3
    stride: 1
    weight_filler {
      type: "gaussian"
      std: 0.118
    }
    bias_filler {
      type: "constant"
      value: 0
    }
  }
}
layer {
  name: "BatchNorm4"
  type: "BatchNorm"
  bottom: "Convolution4"
  top: "Convolution4"
  param {
    lr_mult: 0
    decay_mult: 0
  }
  param {
    lr_mult: 0
    decay_mult: 0
  }
  param {
    lr_mult: 0
    decay_mult: 0
  }
}
layer {
  name: "Scale4"
  type: "Scale"
  bottom: "Convolution4"
  top: "Convolution4"
  scale_param {
    bias_term: true
  }
}
layer {
  name: "ReLU4"
  type: "ReLU"
  bottom: "Convolution4"
  top: "Convolution4"
}
layer {
  name: "Convolution5"
  type: "Convolution"
  bottom: "Convolution4"
  top: "Convolution5"
  param {
    lr_mult: 1
    decay_mult: 1
  }
  param {
    lr_mult: 2
    decay_mult: 0
  }
  convolution_param {
    num_output: 16
    pad: 1
    kernel_size: 3
    stride: 1
    weight_filler {
      type: "gaussian"
      std: 0.118
    }
    bias_filler {
      type: "constant"
      value: 0
    }
  }
}
layer {
  name: "BatchNorm5"
  type: "BatchNorm"
  bottom: "Convolution5"
  top: "Convolution5"
  param {
    lr_mult: 0
    decay_mult: 0
  }
  param {
    lr_mult: 0
    decay_mult: 0
  }
  param {
    lr_mult: 0
    decay_mult: 0
  }
}
layer {
  name: "Scale5"
  type: "Scale"
  bottom: "Convolution5"
  top: "Convolution5"
  scale_param {
    bias_term: true
  }
}
layer {
  name: "Eltwise2"
  type: "Eltwise"
  bottom: "Eltwise1"
  bottom: "Convolution5"
  top: "Eltwise2"
  eltwise_param {
    operation: SUM
  }
}
layer {
  name: "ReLU5"
  type: "ReLU"
  bottom: "Eltwise2"
  top: "Eltwise2"
}
layer {
  name: "Convolution6"
  type: "Convolution"
  bottom: "Eltwise2"
  top: "Convolution6"
  param {
    lr_mult: 1
    decay_mult: 1
  }
  param {
    lr_mult: 2
    decay_mult: 0
  }
  convolution_param {
    num_output: 16
    pad: 1
    kernel_size: 3
    stride: 1
    weight_filler {
      type: "gaussian"
      std: 0.118
    }
    bias_filler {
      type: "constant"
      value: 0
    }
  }
}
layer {
  name: "BatchNorm6"
  type: "BatchNorm"
  bottom: "Convolution6"
  top: "Convolution6"
  param {
    lr_mult: 0
    decay_mult: 0
  }
  param {
    lr_mult: 0
    decay_mult: 0
  }
  param {
    lr_mult: 0
    decay_mult: 0
  }
}
layer {
  name: "Scale6"
  type: "Scale"
  bottom: "Convolution6"
  top: "Convolution6"
  scale_param {
    bias_term: true
  }
}
layer {
  name: "ReLU6"
  type: "ReLU"
  bottom: "Convolution6"
  top: "Convolution6"
}
layer {
  name: "Convolution7"
  type: "Convolution"
  bottom: "Convolution6"
  top: "Convolution7"
  param {
    lr_mult: 1
    decay_mult: 1
  }
  param {
    lr_mult: 2
    decay_mult: 0
  }
  convolution_param {
    num_output: 16
    pad: 1
    kernel_size: 3
    stride: 1
    weight_filler {
      type: "gaussian"
      std: 0.118
    }
    bias_filler {
      type: "constant"
      value: 0
    }
  }
}
layer {
  name: "BatchNorm7"
  type: "BatchNorm"
  bottom: "Convolution7"
  top: "Convolution7"
  param {
    lr_mult: 0
    decay_mult: 0
  }
  param {
    lr_mult: 0
    decay_mult: 0
  }
  param {
    lr_mult: 0
    decay_mult: 0
  }
}
layer {
  name: "Scale7"
  type: "Scale"
  bottom: "Convolution7"
  top: "Convolution7"
  scale_param {
    bias_term: true
  }
}
layer {
  name: "Eltwise3"
  type: "Eltwise"
  bottom: "Eltwise2"
  bottom: "Convolution7"
  top: "Eltwise3"
  eltwise_param {
    operation: SUM
  }
}
layer {
  name: "ReLU7"
  type: "ReLU"
  bottom: "Eltwise3"
  top: "Eltwise3"
}
layer {
  name: "Convolution8"
  type: "Convolution"
  bottom: "Eltwise3"
  top: "Convolution8"
  param {
    lr_mult: 1
    decay_mult: 1
  }
  param {
    lr_mult: 2
    decay_mult: 0
  }
  convolution_param {
    num_output: 32
    pad: 0
    kernel_size: 1
    stride: 2
    weight_filler {
      type: "gaussian"
      std: 0.25
    }
    bias_filler {
      type: "constant"
      value: 0
    }
  }
}
layer {
  name: "BatchNorm8"
  type: "BatchNorm"
  bottom: "Convolution8"
  top: "Convolution8"
  param {
    lr_mult: 0
    decay_mult: 0
  }
  param {
    lr_mult: 0
    decay_mult: 0
  }
  param {
    lr_mult: 0
    decay_mult: 0
  }
}
layer {
  name: "Scale8"
  type: "Scale"
  bottom: "Convolution8"
  top: "Convolution8"
  scale_param {
    bias_term: true
  }
}
layer {
  name: "Convolution9"
  type: "Convolution"
  bottom: "Eltwise3"
  top: "Convolution9"
  param {
    lr_mult: 1
    decay_mult: 1
  }
  param {
    lr_mult: 2
    decay_mult: 0
  }
  convolution_param {
    num_output: 32
    pad: 1
    kernel_size: 3
    stride: 2
    weight_filler {
      type: "gaussian"
      std: 0.083
    }
    bias_filler {
      type: "constant"
      value: 0
    }
  }
}
layer {
  name: "BatchNorm9"
  type: "BatchNorm"
  bottom: "Convolution9"
  top: "Convolution9"
  param {
    lr_mult: 0
    decay_mult: 0
  }
  param {
    lr_mult: 0
    decay_mult: 0
  }
  param {
    lr_mult: 0
    decay_mult: 0
  }
}
layer {
  name: "Scale9"
  type: "Scale"
  bottom: "Convolution9"
  top: "Convolution9"
  scale_param {
    bias_term: true
  }
}
layer {
  name: "ReLU8"
  type: "ReLU"
  bottom: "Convolution9"
  top: "Convolution9"
}
layer {
  name: "Convolution10"
  type: "Convolution"
  bottom: "Convolution9"
  top: "Convolution10"
  param {
    lr_mult: 1
    decay_mult: 1
  }
  param {
    lr_mult: 2
    decay_mult: 0
  }
  convolution_param {
    num_output: 32
    pad: 1
    kernel_size: 3
    stride: 1
    weight_filler {
      type: "gaussian"
      std: 0.083
    }
    bias_filler {
      type: "constant"
      value: 0
    }
  }
}
layer {
  name: "BatchNorm10"
  type: "BatchNorm"
  bottom: "Convolution10"
  top: "Convolution10"
  param {
    lr_mult: 0
    decay_mult: 0
  }
  param {
    lr_mult: 0
    decay_mult: 0
  }
  param {
    lr_mult: 0
    decay_mult: 0
  }
}
layer {
  name: "Scale10"
  type: "Scale"
  bottom: "Convolution10"
  top: "Convolution10"
  scale_param {
    bias_term: true
  }
}
layer {
  name: "Eltwise4"
  type: "Eltwise"
  bottom: "Convolution8"
  bottom: "Convolution10"
  top: "Eltwise4"
  eltwise_param {
    operation: SUM
  }
}
layer {
  name: "ReLU9"
  type: "ReLU"
  bottom: "Eltwise4"
  top: "Eltwise4"
}
layer {
  name: "Convolution11"
  type: "Convolution"
  bottom: "Eltwise4"
  top: "Convolution11"
  param {
    lr_mult: 1
    decay_mult: 1
  }
  param {
    lr_mult: 2
    decay_mult: 0
  }
  convolution_param {
    num_output: 32
    pad: 1
    kernel_size: 3
    stride: 1
    weight_filler {
      type: "gaussian"
      std: 0.083
    }
    bias_filler {
      type: "constant"
      value: 0
    }
  }
}
layer {
  name: "BatchNorm11"
  type: "BatchNorm"
  bottom: "Convolution11"
  top: "Convolution11"
  param {
    lr_mult: 0
    decay_mult: 0
  }
  param {
    lr_mult: 0
    decay_mult: 0
  }
  param {
    lr_mult: 0
    decay_mult: 0
  }
}
layer {
  name: "Scale11"
  type: "Scale"
  bottom: "Convolution11"
  top: "Convolution11"
  scale_param {
    bias_term: true
  }
}
layer {
  name: "ReLU10"
  type: "ReLU"
  bottom: "Convolution11"
  top: "Convolution11"
}
layer {
  name: "Convolution12"
  type: "Convolution"
  bottom: "Convolution11"
  top: "Convolution12"
  param {
    lr_mult: 1
    decay_mult: 1
  }
  param {
    lr_mult: 2
    decay_mult: 0
  }
  convolution_param {
    num_output: 32
    pad: 1
    kernel_size: 3
    stride: 1
    weight_filler {
      type: "gaussian"
      std: 0.083
    }
    bias_filler {
      type: "constant"
      value: 0
    }
  }
}
layer {
  name: "BatchNorm12"
  type: "BatchNorm"
  bottom: "Convolution12"
  top: "Convolution12"
  param {
    lr_mult: 0
    decay_mult: 0
  }
  param {
    lr_mult: 0
    decay_mult: 0
  }
  param {
    lr_mult: 0
    decay_mult: 0
  }
}
layer {
  name: "Scale12"
  type: "Scale"
  bottom: "Convolution12"
  top: "Convolution12"
  scale_param {
    bias_term: true
  }
}
layer {
  name: "Eltwise5"
  type: "Eltwise"
  bottom: "Eltwise4"
  bottom: "Convolution12"
  top: "Eltwise5"
  eltwise_param {
    operation: SUM
  }
}
layer {
  name: "ReLU11"
  type: "ReLU"
  bottom: "Eltwise5"
  top: "Eltwise5"
}
layer {
  name: "Convolution13"
  type: "Convolution"
  bottom: "Eltwise5"
  top: "Convolution13"
  param {
    lr_mult: 1
    decay_mult: 1
  }
  param {
    lr_mult: 2
    decay_mult: 0
  }
  convolution_param {
    num_output: 32
    pad: 1
    kernel_size: 3
    stride: 1
    weight_filler {
      type: "gaussian"
      std: 0.083
    }
    bias_filler {
      type: "constant"
      value: 0
    }
  }
}
layer {
  name: "BatchNorm13"
  type: "BatchNorm"
  bottom: "Convolution13"
  top: "Convolution13"
  param {
    lr_mult: 0
    decay_mult: 0
  }
  param {
    lr_mult: 0
    decay_mult: 0
  }
  param {
    lr_mult: 0
    decay_mult: 0
  }
}
layer {
  name: "Scale13"
  type: "Scale"
  bottom: "Convolution13"
  top: "Convolution13"
  scale_param {
    bias_term: true
  }
}
layer {
  name: "ReLU12"
  type: "ReLU"
  bottom: "Convolution13"
  top: "Convolution13"
}
layer {
  name: "Convolution14"
  type: "Convolution"
  bottom: "Convolution13"
  top: "Convolution14"
  param {
    lr_mult: 1
    decay_mult: 1
  }
  param {
    lr_mult: 2
    decay_mult: 0
  }
  convolution_param {
    num_output: 32
    pad: 1
    kernel_size: 3
    stride: 1
    weight_filler {
      type: "gaussian"
      std: 0.083
    }
    bias_filler {
      type: "constant"
      value: 0
    }
  }
}
layer {
  name: "BatchNorm14"
  type: "BatchNorm"
  bottom: "Convolution14"
  top: "Convolution14"
  param {
    lr_mult: 0
    decay_mult: 0
  }
  param {
    lr_mult: 0
    decay_mult: 0
  }
  param {
    lr_mult: 0
    decay_mult: 0
  }
}
layer {
  name: "Scale14"
  type: "Scale"
  bottom: "Convolution14"
  top: "Convolution14"
  scale_param {
    bias_term: true
  }
}
layer {
  name: "Eltwise6"
  type: "Eltwise"
  bottom: "Eltwise5"
  bottom: "Convolution14"
  top: "Eltwise6"
  eltwise_param {
    operation: SUM
  }
}
layer {
  name: "ReLU13"
  type: "ReLU"
  bottom: "Eltwise6"
  top: "Eltwise6"
}
layer {
  name: "Convolution15"
  type: "Convolution"
  bottom: "Eltwise6"
  top: "Convolution15"
  param {
    lr_mult: 1
    decay_mult: 1
  }
  param {
    lr_mult: 2
    decay_mult: 0
  }
  convolution_param {
    num_output: 64
    pad: 0
    kernel_size: 1
    stride: 2
    weight_filler {
      type: "gaussian"
      std: 0.17677669
    }
    bias_filler {
      type: "constant"
      value: 0
    }
  }
}
layer {
  name: "BatchNorm15"
  type: "BatchNorm"
  bottom: "Convolution15"
  top: "Convolution15"
  param {
    lr_mult: 0
    decay_mult: 0
  }
  param {
    lr_mult: 0
    decay_mult: 0
  }
  param {
    lr_mult: 0
    decay_mult: 0
  }
}
layer {
  name: "Scale15"
  type: "Scale"
  bottom: "Convolution15"
  top: "Convolution15"
  scale_param {
    bias_term: true
  }
}
layer {
  name: "Convolution16"
  type: "Convolution"
  bottom: "Eltwise6"
  top: "Convolution16"
  param {
    lr_mult: 1
    decay_mult: 1
  }
  param {
    lr_mult: 2
    decay_mult: 0
  }
  convolution_param {
    num_output: 64
    pad: 1
    kernel_size: 3
    stride: 2
    weight_filler {
      type: "gaussian"
      std: 0.059
    }
    bias_filler {
      type: "constant"
      value: 0
    }
  }
}
layer {
  name: "BatchNorm16"
  type: "BatchNorm"
  bottom: "Convolution16"
  top: "Convolution16"
  param {
    lr_mult: 0
    decay_mult: 0
  }
  param {
    lr_mult: 0
    decay_mult: 0
  }
  param {
    lr_mult: 0
    decay_mult: 0
  }
}
layer {
  name: "Scale16"
  type: "Scale"
  bottom: "Convolution16"
  top: "Convolution16"
  scale_param {
    bias_term: true
  }
}
layer {
  name: "ReLU14"
  type: "ReLU"
  bottom: "Convolution16"
  top: "Convolution16"
}
layer {
  name: "Convolution17"
  type: "Convolution"
  bottom: "Convolution16"
  top: "Convolution17"
  param {
    lr_mult: 1
    decay_mult: 1
  }
  param {
    lr_mult: 2
    decay_mult: 0
  }
  convolution_param {
    num_output: 64
    pad: 1
    kernel_size: 3
    stride: 1
    weight_filler {
      type: "gaussian"
      std: 0.059
    }
    bias_filler {
      type: "constant"
      value: 0
    }
  }
}
layer {
  name: "BatchNorm17"
  type: "BatchNorm"
  bottom: "Convolution17"
  top: "Convolution17"
  param {
    lr_mult: 0
    decay_mult: 0
  }
  param {
    lr_mult: 0
    decay_mult: 0
  }
  param {
    lr_mult: 0
    decay_mult: 0
  }
}
layer {
  name: "Scale17"
  type: "Scale"
  bottom: "Convolution17"
  top: "Convolution17"
  scale_param {
    bias_term: true
  }
}
layer {
  name: "Eltwise7"
  type: "Eltwise"
  bottom: "Convolution15"
  bottom: "Convolution17"
  top: "Eltwise7"
  eltwise_param {
    operation: SUM
  }
}
layer {
  name: "ReLU15"
  type: "ReLU"
  bottom: "Eltwise7"
  top: "Eltwise7"
}
layer {
  name: "Convolution18"
  type: "Convolution"
  bottom: "Eltwise7"
  top: "Convolution18"
  param {
    lr_mult: 1
    decay_mult: 1
  }
  param {
    lr_mult: 2
    decay_mult: 0
  }
  convolution_param {
    num_output: 64
    pad: 1
    kernel_size: 3
    stride: 1
    weight_filler {
      type: "gaussian"
      std: 0.059
    }
    bias_filler {
      type: "constant"
      value: 0
    }
  }
}
layer {
  name: "BatchNorm18"
  type: "BatchNorm"
  bottom: "Convolution18"
  top: "Convolution18"
  param {
    lr_mult: 0
    decay_mult: 0
  }
  param {
    lr_mult: 0
    decay_mult: 0
  }
  param {
    lr_mult: 0
    decay_mult: 0
  }
}
layer {
  name: "Scale18"
  type: "Scale"
  bottom: "Convolution18"
  top: "Convolution18"
  scale_param {
    bias_term: true
  }
}
layer {
  name: "ReLU16"
  type: "ReLU"
  bottom: "Convolution18"
  top: "Convolution18"
}
layer {
  name: "Convolution19"
  type: "Convolution"
  bottom: "Convolution18"
  top: "Convolution19"
  param {
    lr_mult: 1
    decay_mult: 1
  }
  param {
    lr_mult: 2
    decay_mult: 0
  }
  convolution_param {
    num_output: 64
    pad: 1
    kernel_size: 3
    stride: 1
    weight_filler {
      type: "gaussian"
      std: 0.059
    }
    bias_filler {
      type: "constant"
      value: 0
    }
  }
}
layer {
  name: "BatchNorm19"
  type: "BatchNorm"
  bottom: "Convolution19"
  top: "Convolution19"
  param {
    lr_mult: 0
    decay_mult: 0
  }
  param {
    lr_mult: 0
    decay_mult: 0
  }
  param {
    lr_mult: 0
    decay_mult: 0
  }
}
layer {
  name: "Scale19"
  type: "Scale"
  bottom: "Convolution19"
  top: "Convolution19"
  scale_param {
    bias_term: true
  }
}
layer {
  name: "Eltwise8"
  type: "Eltwise"
  bottom: "Eltwise7"
  bottom: "Convolution19"
  top: "Eltwise8"
  eltwise_param {
    operation: SUM
  }
}
layer {
  name: "ReLU17"
  type: "ReLU"
  bottom: "Eltwise8"
  top: "Eltwise8"
}
layer {
  name: "Convolution20"
  type: "Convolution"
  bottom: "Eltwise8"
  top: "Convolution20"
  param {
    lr_mult: 1
    decay_mult: 1
  }
  param {
    lr_mult: 2
    decay_mult: 0
  }
  convolution_param {
    num_output: 64
    pad: 1
    kernel_size: 3
    stride: 1
    weight_filler {
      type: "gaussian"
      std: 0.059
    }
    bias_filler {
      type: "constant"
      value: 0
    }
  }
}
layer {
  name: "BatchNorm20"
  type: "BatchNorm"
  bottom: "Convolution20"
  top: "Convolution20"
  param {
    lr_mult: 0
    decay_mult: 0
  }
  param {
    lr_mult: 0
    decay_mult: 0
  }
  param {
    lr_mult: 0
    decay_mult: 0
  }
}
layer {
  name: "Scale20"
  type: "Scale"
  bottom: "Convolution20"
  top: "Convolution20"
  scale_param {
    bias_term: true
  }
}
layer {
  name: "ReLU18"
  type: "ReLU"
  bottom: "Convolution20"
  top: "Convolution20"
}
layer {
  name: "Convolution21"
  type: "Convolution"
  bottom: "Convolution20"
  top: "Convolution21"
  param {
    lr_mult: 1
    decay_mult: 1
  }
  param {
    lr_mult: 2
    decay_mult: 0
  }
  convolution_param {
    num_output: 64
    pad: 1
    kernel_size: 3
    stride: 1
    weight_filler {
      type: "gaussian"
      std: 0.059
    }
    bias_filler {
      type: "constant"
      value: 0
    }
  }
}
layer {
  name: "BatchNorm21"
  type: "BatchNorm"
  bottom: "Convolution21"
  top: "Convolution21"
  param {
    lr_mult: 0
    decay_mult: 0
  }
  param {
    lr_mult: 0
    decay_mult: 0
  }
  param {
    lr_mult: 0
    decay_mult: 0
  }
}
layer {
  name: "Scale21"
  type: "Scale"
  bottom: "Convolution21"
  top: "Convolution21"
  scale_param {
    bias_term: true
  }
}
layer {
  name: "Eltwise9"
  type: "Eltwise"
  bottom: "Eltwise8"
  bottom: "Convolution21"
  top: "Eltwise9"
  eltwise_param {
    operation: SUM
  }
}
layer {
  name: "ReLU19"
  type: "ReLU"
  bottom: "Eltwise9"
  top: "Eltwise9"
}
layer {
  name: "Pooling1"
  type: "Pooling"
  bottom: "Eltwise9"
  top: "Pooling1"
  pooling_param {
    pool: AVE
    global_pooling: true
  }
}
layer {
  name: "InnerProduct1"
  type: "InnerProduct"
  bottom: "Pooling1"
  top: "InnerProduct1"
  param {
    lr_mult: 1
    decay_mult: 1
  }
  param {
    lr_mult: 2
    decay_mult: 1
  }
  inner_product_param {
    num_output: 4
    weight_filler {
      type: "gaussian"
      std: 0.01
    }
    bias_filler {
      type: "constant"
      value: 0
    }
  }
}
layer {
  name: "SoftmaxWithLoss1"
  type: "SoftmaxWithLoss"
  bottom: "InnerProduct1"
  bottom: "Data2"
  top: "SoftmaxWithLoss1"
}
I1022 19:29:09.158174  3845 layer_factory.hpp:77] Creating layer Data1
I1022 19:29:09.158265  3845 db_lmdb.cpp:35] Opened lmdb /home/x306/caffe/xn/English_orange/data/train1_lmdb
I1022 19:29:09.158288  3845 net.cpp:84] Creating Layer Data1
I1022 19:29:09.158294  3845 net.cpp:380] Data1 -> Data1
I1022 19:29:09.158314  3845 net.cpp:380] Data1 -> Data2
I1022 19:29:09.158325  3845 data_transformer.cpp:25] Loading mean file from: /home/x306/caffe/xn/English_orange/data/orange1_mean.binaryproto
I1022 19:29:09.160650  3845 data_layer.cpp:45] output data size: 8,3,224,224
I1022 19:29:09.168411  3845 net.cpp:122] Setting up Data1
I1022 19:29:09.168443  3845 net.cpp:129] Top shape: 8 3 224 224 (1204224)
I1022 19:29:09.168448  3845 net.cpp:129] Top shape: 8 (8)
I1022 19:29:09.168452  3845 net.cpp:137] Memory required for data: 4816928
I1022 19:29:09.168462  3845 layer_factory.hpp:77] Creating layer Convolution1
I1022 19:29:09.168485  3845 net.cpp:84] Creating Layer Convolution1
I1022 19:29:09.168500  3845 net.cpp:406] Convolution1 <- Data1
I1022 19:29:09.168519  3845 net.cpp:380] Convolution1 -> Convolution1
I1022 19:29:09.316658  3845 net.cpp:122] Setting up Convolution1
I1022 19:29:09.316682  3845 net.cpp:129] Top shape: 8 16 224 224 (6422528)
I1022 19:29:09.316686  3845 net.cpp:137] Memory required for data: 30507040
I1022 19:29:09.316701  3845 layer_factory.hpp:77] Creating layer BatchNorm1
I1022 19:29:09.316725  3845 net.cpp:84] Creating Layer BatchNorm1
I1022 19:29:09.316730  3845 net.cpp:406] BatchNorm1 <- Convolution1
I1022 19:29:09.316735  3845 net.cpp:367] BatchNorm1 -> Convolution1 (in-place)
I1022 19:29:09.316901  3845 net.cpp:122] Setting up BatchNorm1
I1022 19:29:09.316907  3845 net.cpp:129] Top shape: 8 16 224 224 (6422528)
I1022 19:29:09.316910  3845 net.cpp:137] Memory required for data: 56197152
I1022 19:29:09.316917  3845 layer_factory.hpp:77] Creating layer Scale1
I1022 19:29:09.316928  3845 net.cpp:84] Creating Layer Scale1
I1022 19:29:09.316943  3845 net.cpp:406] Scale1 <- Convolution1
I1022 19:29:09.316947  3845 net.cpp:367] Scale1 -> Convolution1 (in-place)
I1022 19:29:09.316989  3845 layer_factory.hpp:77] Creating layer Scale1
I1022 19:29:09.317131  3845 net.cpp:122] Setting up Scale1
I1022 19:29:09.317137  3845 net.cpp:129] Top shape: 8 16 224 224 (6422528)
I1022 19:29:09.317139  3845 net.cpp:137] Memory required for data: 81887264
I1022 19:29:09.317143  3845 layer_factory.hpp:77] Creating layer ReLU1
I1022 19:29:09.317149  3845 net.cpp:84] Creating Layer ReLU1
I1022 19:29:09.317152  3845 net.cpp:406] ReLU1 <- Convolution1
I1022 19:29:09.317157  3845 net.cpp:367] ReLU1 -> Convolution1 (in-place)
I1022 19:29:09.317353  3845 net.cpp:122] Setting up ReLU1
I1022 19:29:09.317361  3845 net.cpp:129] Top shape: 8 16 224 224 (6422528)
I1022 19:29:09.317364  3845 net.cpp:137] Memory required for data: 107577376
I1022 19:29:09.317366  3845 layer_factory.hpp:77] Creating layer Convolution1_ReLU1_0_split
I1022 19:29:09.317371  3845 net.cpp:84] Creating Layer Convolution1_ReLU1_0_split
I1022 19:29:09.317373  3845 net.cpp:406] Convolution1_ReLU1_0_split <- Convolution1
I1022 19:29:09.317379  3845 net.cpp:380] Convolution1_ReLU1_0_split -> Convolution1_ReLU1_0_split_0
I1022 19:29:09.317399  3845 net.cpp:380] Convolution1_ReLU1_0_split -> Convolution1_ReLU1_0_split_1
I1022 19:29:09.317430  3845 net.cpp:122] Setting up Convolution1_ReLU1_0_split
I1022 19:29:09.317445  3845 net.cpp:129] Top shape: 8 16 224 224 (6422528)
I1022 19:29:09.317448  3845 net.cpp:129] Top shape: 8 16 224 224 (6422528)
I1022 19:29:09.317451  3845 net.cpp:137] Memory required for data: 158957600
I1022 19:29:09.317452  3845 layer_factory.hpp:77] Creating layer Convolution2
I1022 19:29:09.317461  3845 net.cpp:84] Creating Layer Convolution2
I1022 19:29:09.317474  3845 net.cpp:406] Convolution2 <- Convolution1_ReLU1_0_split_0
I1022 19:29:09.317481  3845 net.cpp:380] Convolution2 -> Convolution2
I1022 19:29:09.318953  3845 net.cpp:122] Setting up Convolution2
I1022 19:29:09.318964  3845 net.cpp:129] Top shape: 8 16 224 224 (6422528)
I1022 19:29:09.318981  3845 net.cpp:137] Memory required for data: 184647712
I1022 19:29:09.318987  3845 layer_factory.hpp:77] Creating layer BatchNorm2
I1022 19:29:09.319002  3845 net.cpp:84] Creating Layer BatchNorm2
I1022 19:29:09.319005  3845 net.cpp:406] BatchNorm2 <- Convolution2
I1022 19:29:09.319018  3845 net.cpp:367] BatchNorm2 -> Convolution2 (in-place)
I1022 19:29:09.319200  3845 net.cpp:122] Setting up BatchNorm2
I1022 19:29:09.319206  3845 net.cpp:129] Top shape: 8 16 224 224 (6422528)
I1022 19:29:09.319209  3845 net.cpp:137] Memory required for data: 210337824
I1022 19:29:09.319229  3845 layer_factory.hpp:77] Creating layer Scale2
I1022 19:29:09.319252  3845 net.cpp:84] Creating Layer Scale2
I1022 19:29:09.319255  3845 net.cpp:406] Scale2 <- Convolution2
I1022 19:29:09.319272  3845 net.cpp:367] Scale2 -> Convolution2 (in-place)
I1022 19:29:09.319303  3845 layer_factory.hpp:77] Creating layer Scale2
I1022 19:29:09.319455  3845 net.cpp:122] Setting up Scale2
I1022 19:29:09.319464  3845 net.cpp:129] Top shape: 8 16 224 224 (6422528)
I1022 19:29:09.319478  3845 net.cpp:137] Memory required for data: 236027936
I1022 19:29:09.319485  3845 layer_factory.hpp:77] Creating layer ReLU2
I1022 19:29:09.319492  3845 net.cpp:84] Creating Layer ReLU2
I1022 19:29:09.319496  3845 net.cpp:406] ReLU2 <- Convolution2
I1022 19:29:09.319502  3845 net.cpp:367] ReLU2 -> Convolution2 (in-place)
I1022 19:29:09.319983  3845 net.cpp:122] Setting up ReLU2
I1022 19:29:09.320001  3845 net.cpp:129] Top shape: 8 16 224 224 (6422528)
I1022 19:29:09.320004  3845 net.cpp:137] Memory required for data: 261718048
I1022 19:29:09.320008  3845 layer_factory.hpp:77] Creating layer Convolution3
I1022 19:29:09.320025  3845 net.cpp:84] Creating Layer Convolution3
I1022 19:29:09.320029  3845 net.cpp:406] Convolution3 <- Convolution2
I1022 19:29:09.320035  3845 net.cpp:380] Convolution3 -> Convolution3
I1022 19:29:09.320605  3845 net.cpp:122] Setting up Convolution3
I1022 19:29:09.320624  3845 net.cpp:129] Top shape: 8 16 224 224 (6422528)
I1022 19:29:09.320627  3845 net.cpp:137] Memory required for data: 287408160
I1022 19:29:09.320631  3845 layer_factory.hpp:77] Creating layer BatchNorm3
I1022 19:29:09.320638  3845 net.cpp:84] Creating Layer BatchNorm3
I1022 19:29:09.320642  3845 net.cpp:406] BatchNorm3 <- Convolution3
I1022 19:29:09.320648  3845 net.cpp:367] BatchNorm3 -> Convolution3 (in-place)
I1022 19:29:09.320807  3845 net.cpp:122] Setting up BatchNorm3
I1022 19:29:09.320813  3845 net.cpp:129] Top shape: 8 16 224 224 (6422528)
I1022 19:29:09.320825  3845 net.cpp:137] Memory required for data: 313098272
I1022 19:29:09.320832  3845 layer_factory.hpp:77] Creating layer Scale3
I1022 19:29:09.320847  3845 net.cpp:84] Creating Layer Scale3
I1022 19:29:09.320852  3845 net.cpp:406] Scale3 <- Convolution3
I1022 19:29:09.320859  3845 net.cpp:367] Scale3 -> Convolution3 (in-place)
I1022 19:29:09.320896  3845 layer_factory.hpp:77] Creating layer Scale3
I1022 19:29:09.321521  3845 net.cpp:122] Setting up Scale3
I1022 19:29:09.321532  3845 net.cpp:129] Top shape: 8 16 224 224 (6422528)
I1022 19:29:09.321538  3845 net.cpp:137] Memory required for data: 338788384
I1022 19:29:09.321543  3845 layer_factory.hpp:77] Creating layer Eltwise1
I1022 19:29:09.321552  3845 net.cpp:84] Creating Layer Eltwise1
I1022 19:29:09.321557  3845 net.cpp:406] Eltwise1 <- Convolution1_ReLU1_0_split_1
I1022 19:29:09.321563  3845 net.cpp:406] Eltwise1 <- Convolution3
I1022 19:29:09.321568  3845 net.cpp:380] Eltwise1 -> Eltwise1
I1022 19:29:09.321590  3845 net.cpp:122] Setting up Eltwise1
I1022 19:29:09.321596  3845 net.cpp:129] Top shape: 8 16 224 224 (6422528)
I1022 19:29:09.321601  3845 net.cpp:137] Memory required for data: 364478496
I1022 19:29:09.321605  3845 layer_factory.hpp:77] Creating layer ReLU3
I1022 19:29:09.321612  3845 net.cpp:84] Creating Layer ReLU3
I1022 19:29:09.321616  3845 net.cpp:406] ReLU3 <- Eltwise1
I1022 19:29:09.321624  3845 net.cpp:367] ReLU3 -> Eltwise1 (in-place)
I1022 19:29:09.322068  3845 net.cpp:122] Setting up ReLU3
I1022 19:29:09.322079  3845 net.cpp:129] Top shape: 8 16 224 224 (6422528)
I1022 19:29:09.322084  3845 net.cpp:137] Memory required for data: 390168608
I1022 19:29:09.322089  3845 layer_factory.hpp:77] Creating layer Eltwise1_ReLU3_0_split
I1022 19:29:09.322098  3845 net.cpp:84] Creating Layer Eltwise1_ReLU3_0_split
I1022 19:29:09.322101  3845 net.cpp:406] Eltwise1_ReLU3_0_split <- Eltwise1
I1022 19:29:09.322108  3845 net.cpp:380] Eltwise1_ReLU3_0_split -> Eltwise1_ReLU3_0_split_0
I1022 19:29:09.322116  3845 net.cpp:380] Eltwise1_ReLU3_0_split -> Eltwise1_ReLU3_0_split_1
I1022 19:29:09.322145  3845 net.cpp:122] Setting up Eltwise1_ReLU3_0_split
I1022 19:29:09.322152  3845 net.cpp:129] Top shape: 8 16 224 224 (6422528)
I1022 19:29:09.322157  3845 net.cpp:129] Top shape: 8 16 224 224 (6422528)
I1022 19:29:09.322162  3845 net.cpp:137] Memory required for data: 441548832
I1022 19:29:09.322166  3845 layer_factory.hpp:77] Creating layer Convolution4
I1022 19:29:09.322178  3845 net.cpp:84] Creating Layer Convolution4
I1022 19:29:09.322182  3845 net.cpp:406] Convolution4 <- Eltwise1_ReLU3_0_split_0
I1022 19:29:09.322190  3845 net.cpp:380] Convolution4 -> Convolution4
I1022 19:29:09.323093  3845 net.cpp:122] Setting up Convolution4
I1022 19:29:09.323104  3845 net.cpp:129] Top shape: 8 16 224 224 (6422528)
I1022 19:29:09.323109  3845 net.cpp:137] Memory required for data: 467238944
I1022 19:29:09.323118  3845 layer_factory.hpp:77] Creating layer BatchNorm4
I1022 19:29:09.323125  3845 net.cpp:84] Creating Layer BatchNorm4
I1022 19:29:09.323129  3845 net.cpp:406] BatchNorm4 <- Convolution4
I1022 19:29:09.323137  3845 net.cpp:367] BatchNorm4 -> Convolution4 (in-place)
I1022 19:29:09.323282  3845 net.cpp:122] Setting up BatchNorm4
I1022 19:29:09.323288  3845 net.cpp:129] Top shape: 8 16 224 224 (6422528)
I1022 19:29:09.323293  3845 net.cpp:137] Memory required for data: 492929056
I1022 19:29:09.323302  3845 layer_factory.hpp:77] Creating layer Scale4
I1022 19:29:09.323307  3845 net.cpp:84] Creating Layer Scale4
I1022 19:29:09.323312  3845 net.cpp:406] Scale4 <- Convolution4
I1022 19:29:09.323318  3845 net.cpp:367] Scale4 -> Convolution4 (in-place)
I1022 19:29:09.323346  3845 layer_factory.hpp:77] Creating layer Scale4
I1022 19:29:09.323460  3845 net.cpp:122] Setting up Scale4
I1022 19:29:09.323467  3845 net.cpp:129] Top shape: 8 16 224 224 (6422528)
I1022 19:29:09.323472  3845 net.cpp:137] Memory required for data: 518619168
I1022 19:29:09.323479  3845 layer_factory.hpp:77] Creating layer ReLU4
I1022 19:29:09.323487  3845 net.cpp:84] Creating Layer ReLU4
I1022 19:29:09.323490  3845 net.cpp:406] ReLU4 <- Convolution4
I1022 19:29:09.323495  3845 net.cpp:367] ReLU4 -> Convolution4 (in-place)
I1022 19:29:09.323621  3845 net.cpp:122] Setting up ReLU4
I1022 19:29:09.323628  3845 net.cpp:129] Top shape: 8 16 224 224 (6422528)
I1022 19:29:09.323633  3845 net.cpp:137] Memory required for data: 544309280
I1022 19:29:09.323638  3845 layer_factory.hpp:77] Creating layer Convolution5
I1022 19:29:09.323648  3845 net.cpp:84] Creating Layer Convolution5
I1022 19:29:09.323652  3845 net.cpp:406] Convolution5 <- Convolution4
I1022 19:29:09.323660  3845 net.cpp:380] Convolution5 -> Convolution5
I1022 19:29:09.324925  3845 net.cpp:122] Setting up Convolution5
I1022 19:29:09.324936  3845 net.cpp:129] Top shape: 8 16 224 224 (6422528)
I1022 19:29:09.324942  3845 net.cpp:137] Memory required for data: 569999392
I1022 19:29:09.324950  3845 layer_factory.hpp:77] Creating layer BatchNorm5
I1022 19:29:09.324959  3845 net.cpp:84] Creating Layer BatchNorm5
I1022 19:29:09.324964  3845 net.cpp:406] BatchNorm5 <- Convolution5
I1022 19:29:09.324970  3845 net.cpp:367] BatchNorm5 -> Convolution5 (in-place)
I1022 19:29:09.325119  3845 net.cpp:122] Setting up BatchNorm5
I1022 19:29:09.325125  3845 net.cpp:129] Top shape: 8 16 224 224 (6422528)
I1022 19:29:09.325130  3845 net.cpp:137] Memory required for data: 595689504
I1022 19:29:09.325142  3845 layer_factory.hpp:77] Creating layer Scale5
I1022 19:29:09.325148  3845 net.cpp:84] Creating Layer Scale5
I1022 19:29:09.325152  3845 net.cpp:406] Scale5 <- Convolution5
I1022 19:29:09.325158  3845 net.cpp:367] Scale5 -> Convolution5 (in-place)
I1022 19:29:09.325188  3845 layer_factory.hpp:77] Creating layer Scale5
I1022 19:29:09.325302  3845 net.cpp:122] Setting up Scale5
I1022 19:29:09.325309  3845 net.cpp:129] Top shape: 8 16 224 224 (6422528)
I1022 19:29:09.325314  3845 net.cpp:137] Memory required for data: 621379616
I1022 19:29:09.325320  3845 layer_factory.hpp:77] Creating layer Eltwise2
I1022 19:29:09.325327  3845 net.cpp:84] Creating Layer Eltwise2
I1022 19:29:09.325331  3845 net.cpp:406] Eltwise2 <- Eltwise1_ReLU3_0_split_1
I1022 19:29:09.325336  3845 net.cpp:406] Eltwise2 <- Convolution5
I1022 19:29:09.325343  3845 net.cpp:380] Eltwise2 -> Eltwise2
I1022 19:29:09.325361  3845 net.cpp:122] Setting up Eltwise2
I1022 19:29:09.325367  3845 net.cpp:129] Top shape: 8 16 224 224 (6422528)
I1022 19:29:09.325371  3845 net.cpp:137] Memory required for data: 647069728
I1022 19:29:09.325376  3845 layer_factory.hpp:77] Creating layer ReLU5
I1022 19:29:09.325383  3845 net.cpp:84] Creating Layer ReLU5
I1022 19:29:09.325387  3845 net.cpp:406] ReLU5 <- Eltwise2
I1022 19:29:09.325392  3845 net.cpp:367] ReLU5 -> Eltwise2 (in-place)
I1022 19:29:09.325516  3845 net.cpp:122] Setting up ReLU5
I1022 19:29:09.325525  3845 net.cpp:129] Top shape: 8 16 224 224 (6422528)
I1022 19:29:09.325529  3845 net.cpp:137] Memory required for data: 672759840
I1022 19:29:09.325534  3845 layer_factory.hpp:77] Creating layer Eltwise2_ReLU5_0_split
I1022 19:29:09.325541  3845 net.cpp:84] Creating Layer Eltwise2_ReLU5_0_split
I1022 19:29:09.325546  3845 net.cpp:406] Eltwise2_ReLU5_0_split <- Eltwise2
I1022 19:29:09.325551  3845 net.cpp:380] Eltwise2_ReLU5_0_split -> Eltwise2_ReLU5_0_split_0
I1022 19:29:09.325558  3845 net.cpp:380] Eltwise2_ReLU5_0_split -> Eltwise2_ReLU5_0_split_1
I1022 19:29:09.325587  3845 net.cpp:122] Setting up Eltwise2_ReLU5_0_split
I1022 19:29:09.325593  3845 net.cpp:129] Top shape: 8 16 224 224 (6422528)
I1022 19:29:09.325598  3845 net.cpp:129] Top shape: 8 16 224 224 (6422528)
I1022 19:29:09.325603  3845 net.cpp:137] Memory required for data: 724140064
I1022 19:29:09.325608  3845 layer_factory.hpp:77] Creating layer Convolution6
I1022 19:29:09.325618  3845 net.cpp:84] Creating Layer Convolution6
I1022 19:29:09.325621  3845 net.cpp:406] Convolution6 <- Eltwise2_ReLU5_0_split_0
I1022 19:29:09.325629  3845 net.cpp:380] Convolution6 -> Convolution6
I1022 19:29:09.327038  3845 net.cpp:122] Setting up Convolution6
I1022 19:29:09.327049  3845 net.cpp:129] Top shape: 8 16 224 224 (6422528)
I1022 19:29:09.327054  3845 net.cpp:137] Memory required for data: 749830176
I1022 19:29:09.327064  3845 layer_factory.hpp:77] Creating layer BatchNorm6
I1022 19:29:09.327077  3845 net.cpp:84] Creating Layer BatchNorm6
I1022 19:29:09.327082  3845 net.cpp:406] BatchNorm6 <- Convolution6
I1022 19:29:09.327090  3845 net.cpp:367] BatchNorm6 -> Convolution6 (in-place)
I1022 19:29:09.327239  3845 net.cpp:122] Setting up BatchNorm6
I1022 19:29:09.327247  3845 net.cpp:129] Top shape: 8 16 224 224 (6422528)
I1022 19:29:09.327251  3845 net.cpp:137] Memory required for data: 775520288
I1022 19:29:09.327260  3845 layer_factory.hpp:77] Creating layer Scale6
I1022 19:29:09.327266  3845 net.cpp:84] Creating Layer Scale6
I1022 19:29:09.327270  3845 net.cpp:406] Scale6 <- Convolution6
I1022 19:29:09.327277  3845 net.cpp:367] Scale6 -> Convolution6 (in-place)
I1022 19:29:09.327306  3845 layer_factory.hpp:77] Creating layer Scale6
I1022 19:29:09.327419  3845 net.cpp:122] Setting up Scale6
I1022 19:29:09.327430  3845 net.cpp:129] Top shape: 8 16 224 224 (6422528)
I1022 19:29:09.327432  3845 net.cpp:137] Memory required for data: 801210400
I1022 19:29:09.327440  3845 layer_factory.hpp:77] Creating layer ReLU6
I1022 19:29:09.327445  3845 net.cpp:84] Creating Layer ReLU6
I1022 19:29:09.327450  3845 net.cpp:406] ReLU6 <- Convolution6
I1022 19:29:09.327455  3845 net.cpp:367] ReLU6 -> Convolution6 (in-place)
I1022 19:29:09.327581  3845 net.cpp:122] Setting up ReLU6
I1022 19:29:09.327590  3845 net.cpp:129] Top shape: 8 16 224 224 (6422528)
I1022 19:29:09.327594  3845 net.cpp:137] Memory required for data: 826900512
I1022 19:29:09.327597  3845 layer_factory.hpp:77] Creating layer Convolution7
I1022 19:29:09.327607  3845 net.cpp:84] Creating Layer Convolution7
I1022 19:29:09.327611  3845 net.cpp:406] Convolution7 <- Convolution6
I1022 19:29:09.327618  3845 net.cpp:380] Convolution7 -> Convolution7
I1022 19:29:09.328977  3845 net.cpp:122] Setting up Convolution7
I1022 19:29:09.328997  3845 net.cpp:129] Top shape: 8 16 224 224 (6422528)
I1022 19:29:09.329001  3845 net.cpp:137] Memory required for data: 852590624
I1022 19:29:09.329007  3845 layer_factory.hpp:77] Creating layer BatchNorm7
I1022 19:29:09.329016  3845 net.cpp:84] Creating Layer BatchNorm7
I1022 19:29:09.329020  3845 net.cpp:406] BatchNorm7 <- Convolution7
I1022 19:29:09.329025  3845 net.cpp:367] BatchNorm7 -> Convolution7 (in-place)
I1022 19:29:09.329188  3845 net.cpp:122] Setting up BatchNorm7
I1022 19:29:09.329195  3845 net.cpp:129] Top shape: 8 16 224 224 (6422528)
I1022 19:29:09.329206  3845 net.cpp:137] Memory required for data: 878280736
I1022 19:29:09.329213  3845 layer_factory.hpp:77] Creating layer Scale7
I1022 19:29:09.329223  3845 net.cpp:84] Creating Layer Scale7
I1022 19:29:09.329227  3845 net.cpp:406] Scale7 <- Convolution7
I1022 19:29:09.329233  3845 net.cpp:367] Scale7 -> Convolution7 (in-place)
I1022 19:29:09.329265  3845 layer_factory.hpp:77] Creating layer Scale7
I1022 19:29:09.329391  3845 net.cpp:122] Setting up Scale7
I1022 19:29:09.329398  3845 net.cpp:129] Top shape: 8 16 224 224 (6422528)
I1022 19:29:09.329402  3845 net.cpp:137] Memory required for data: 903970848
I1022 19:29:09.329411  3845 layer_factory.hpp:77] Creating layer Eltwise3
I1022 19:29:09.329416  3845 net.cpp:84] Creating Layer Eltwise3
I1022 19:29:09.329421  3845 net.cpp:406] Eltwise3 <- Eltwise2_ReLU5_0_split_1
I1022 19:29:09.329427  3845 net.cpp:406] Eltwise3 <- Convolution7
I1022 19:29:09.329433  3845 net.cpp:380] Eltwise3 -> Eltwise3
I1022 19:29:09.329452  3845 net.cpp:122] Setting up Eltwise3
I1022 19:29:09.329458  3845 net.cpp:129] Top shape: 8 16 224 224 (6422528)
I1022 19:29:09.329463  3845 net.cpp:137] Memory required for data: 929660960
I1022 19:29:09.329468  3845 layer_factory.hpp:77] Creating layer ReLU7
I1022 19:29:09.329476  3845 net.cpp:84] Creating Layer ReLU7
I1022 19:29:09.329480  3845 net.cpp:406] ReLU7 <- Eltwise3
I1022 19:29:09.329485  3845 net.cpp:367] ReLU7 -> Eltwise3 (in-place)
I1022 19:29:09.329605  3845 net.cpp:122] Setting up ReLU7
I1022 19:29:09.329613  3845 net.cpp:129] Top shape: 8 16 224 224 (6422528)
I1022 19:29:09.329618  3845 net.cpp:137] Memory required for data: 955351072
I1022 19:29:09.329622  3845 layer_factory.hpp:77] Creating layer Eltwise3_ReLU7_0_split
I1022 19:29:09.329638  3845 net.cpp:84] Creating Layer Eltwise3_ReLU7_0_split
I1022 19:29:09.329643  3845 net.cpp:406] Eltwise3_ReLU7_0_split <- Eltwise3
I1022 19:29:09.329649  3845 net.cpp:380] Eltwise3_ReLU7_0_split -> Eltwise3_ReLU7_0_split_0
I1022 19:29:09.329655  3845 net.cpp:380] Eltwise3_ReLU7_0_split -> Eltwise3_ReLU7_0_split_1
I1022 19:29:09.329686  3845 net.cpp:122] Setting up Eltwise3_ReLU7_0_split
I1022 19:29:09.329692  3845 net.cpp:129] Top shape: 8 16 224 224 (6422528)
I1022 19:29:09.329697  3845 net.cpp:129] Top shape: 8 16 224 224 (6422528)
I1022 19:29:09.329702  3845 net.cpp:137] Memory required for data: 1006731296
I1022 19:29:09.329706  3845 layer_factory.hpp:77] Creating layer Convolution8
I1022 19:29:09.329717  3845 net.cpp:84] Creating Layer Convolution8
I1022 19:29:09.329720  3845 net.cpp:406] Convolution8 <- Eltwise3_ReLU7_0_split_0
I1022 19:29:09.329730  3845 net.cpp:380] Convolution8 -> Convolution8
I1022 19:29:09.331544  3845 net.cpp:122] Setting up Convolution8
I1022 19:29:09.331555  3845 net.cpp:129] Top shape: 8 32 112 112 (3211264)
I1022 19:29:09.331560  3845 net.cpp:137] Memory required for data: 1019576352
I1022 19:29:09.331568  3845 layer_factory.hpp:77] Creating layer BatchNorm8
I1022 19:29:09.331584  3845 net.cpp:84] Creating Layer BatchNorm8
I1022 19:29:09.331588  3845 net.cpp:406] BatchNorm8 <- Convolution8
I1022 19:29:09.331594  3845 net.cpp:367] BatchNorm8 -> Convolution8 (in-place)
I1022 19:29:09.331738  3845 net.cpp:122] Setting up BatchNorm8
I1022 19:29:09.331744  3845 net.cpp:129] Top shape: 8 32 112 112 (3211264)
I1022 19:29:09.331748  3845 net.cpp:137] Memory required for data: 1032421408
I1022 19:29:09.331763  3845 layer_factory.hpp:77] Creating layer Scale8
I1022 19:29:09.331768  3845 net.cpp:84] Creating Layer Scale8
I1022 19:29:09.331773  3845 net.cpp:406] Scale8 <- Convolution8
I1022 19:29:09.331775  3845 net.cpp:367] Scale8 -> Convolution8 (in-place)
I1022 19:29:09.331804  3845 layer_factory.hpp:77] Creating layer Scale8
I1022 19:29:09.331887  3845 net.cpp:122] Setting up Scale8
I1022 19:29:09.331892  3845 net.cpp:129] Top shape: 8 32 112 112 (3211264)
I1022 19:29:09.331895  3845 net.cpp:137] Memory required for data: 1045266464
I1022 19:29:09.331899  3845 layer_factory.hpp:77] Creating layer Convolution9
I1022 19:29:09.331907  3845 net.cpp:84] Creating Layer Convolution9
I1022 19:29:09.331912  3845 net.cpp:406] Convolution9 <- Eltwise3_ReLU7_0_split_1
I1022 19:29:09.331917  3845 net.cpp:380] Convolution9 -> Convolution9
I1022 19:29:09.332880  3845 net.cpp:122] Setting up Convolution9
I1022 19:29:09.332890  3845 net.cpp:129] Top shape: 8 32 112 112 (3211264)
I1022 19:29:09.332895  3845 net.cpp:137] Memory required for data: 1058111520
I1022 19:29:09.332900  3845 layer_factory.hpp:77] Creating layer BatchNorm9
I1022 19:29:09.332906  3845 net.cpp:84] Creating Layer BatchNorm9
I1022 19:29:09.332909  3845 net.cpp:406] BatchNorm9 <- Convolution9
I1022 19:29:09.332913  3845 net.cpp:367] BatchNorm9 -> Convolution9 (in-place)
I1022 19:29:09.333041  3845 net.cpp:122] Setting up BatchNorm9
I1022 19:29:09.333047  3845 net.cpp:129] Top shape: 8 32 112 112 (3211264)
I1022 19:29:09.333051  3845 net.cpp:137] Memory required for data: 1070956576
I1022 19:29:09.333056  3845 layer_factory.hpp:77] Creating layer Scale9
I1022 19:29:09.333061  3845 net.cpp:84] Creating Layer Scale9
I1022 19:29:09.333065  3845 net.cpp:406] Scale9 <- Convolution9
I1022 19:29:09.333068  3845 net.cpp:367] Scale9 -> Convolution9 (in-place)
I1022 19:29:09.333094  3845 layer_factory.hpp:77] Creating layer Scale9
I1022 19:29:09.333175  3845 net.cpp:122] Setting up Scale9
I1022 19:29:09.333181  3845 net.cpp:129] Top shape: 8 32 112 112 (3211264)
I1022 19:29:09.333184  3845 net.cpp:137] Memory required for data: 1083801632
I1022 19:29:09.333189  3845 layer_factory.hpp:77] Creating layer ReLU8
I1022 19:29:09.333194  3845 net.cpp:84] Creating Layer ReLU8
I1022 19:29:09.333197  3845 net.cpp:406] ReLU8 <- Convolution9
I1022 19:29:09.333200  3845 net.cpp:367] ReLU8 -> Convolution9 (in-place)
I1022 19:29:09.333343  3845 net.cpp:122] Setting up ReLU8
I1022 19:29:09.333350  3845 net.cpp:129] Top shape: 8 32 112 112 (3211264)
I1022 19:29:09.333353  3845 net.cpp:137] Memory required for data: 1096646688
I1022 19:29:09.333356  3845 layer_factory.hpp:77] Creating layer Convolution10
I1022 19:29:09.333364  3845 net.cpp:84] Creating Layer Convolution10
I1022 19:29:09.333369  3845 net.cpp:406] Convolution10 <- Convolution9
I1022 19:29:09.333372  3845 net.cpp:380] Convolution10 -> Convolution10
I1022 19:29:09.334414  3845 net.cpp:122] Setting up Convolution10
I1022 19:29:09.334424  3845 net.cpp:129] Top shape: 8 32 112 112 (3211264)
I1022 19:29:09.334429  3845 net.cpp:137] Memory required for data: 1109491744
I1022 19:29:09.334440  3845 layer_factory.hpp:77] Creating layer BatchNorm10
I1022 19:29:09.334447  3845 net.cpp:84] Creating Layer BatchNorm10
I1022 19:29:09.334450  3845 net.cpp:406] BatchNorm10 <- Convolution10
I1022 19:29:09.334455  3845 net.cpp:367] BatchNorm10 -> Convolution10 (in-place)
I1022 19:29:09.334584  3845 net.cpp:122] Setting up BatchNorm10
I1022 19:29:09.334591  3845 net.cpp:129] Top shape: 8 32 112 112 (3211264)
I1022 19:29:09.334594  3845 net.cpp:137] Memory required for data: 1122336800
I1022 19:29:09.334599  3845 layer_factory.hpp:77] Creating layer Scale10
I1022 19:29:09.334605  3845 net.cpp:84] Creating Layer Scale10
I1022 19:29:09.334609  3845 net.cpp:406] Scale10 <- Convolution10
I1022 19:29:09.334611  3845 net.cpp:367] Scale10 -> Convolution10 (in-place)
I1022 19:29:09.334638  3845 layer_factory.hpp:77] Creating layer Scale10
I1022 19:29:09.334718  3845 net.cpp:122] Setting up Scale10
I1022 19:29:09.334724  3845 net.cpp:129] Top shape: 8 32 112 112 (3211264)
I1022 19:29:09.334728  3845 net.cpp:137] Memory required for data: 1135181856
I1022 19:29:09.334733  3845 layer_factory.hpp:77] Creating layer Eltwise4
I1022 19:29:09.334736  3845 net.cpp:84] Creating Layer Eltwise4
I1022 19:29:09.334740  3845 net.cpp:406] Eltwise4 <- Convolution8
I1022 19:29:09.334743  3845 net.cpp:406] Eltwise4 <- Convolution10
I1022 19:29:09.334748  3845 net.cpp:380] Eltwise4 -> Eltwise4
I1022 19:29:09.334764  3845 net.cpp:122] Setting up Eltwise4
I1022 19:29:09.334770  3845 net.cpp:129] Top shape: 8 32 112 112 (3211264)
I1022 19:29:09.334774  3845 net.cpp:137] Memory required for data: 1148026912
I1022 19:29:09.334775  3845 layer_factory.hpp:77] Creating layer ReLU9
I1022 19:29:09.334779  3845 net.cpp:84] Creating Layer ReLU9
I1022 19:29:09.334782  3845 net.cpp:406] ReLU9 <- Eltwise4
I1022 19:29:09.334785  3845 net.cpp:367] ReLU9 -> Eltwise4 (in-place)
I1022 19:29:09.335227  3845 net.cpp:122] Setting up ReLU9
I1022 19:29:09.335237  3845 net.cpp:129] Top shape: 8 32 112 112 (3211264)
I1022 19:29:09.335240  3845 net.cpp:137] Memory required for data: 1160871968
I1022 19:29:09.335243  3845 layer_factory.hpp:77] Creating layer Eltwise4_ReLU9_0_split
I1022 19:29:09.335249  3845 net.cpp:84] Creating Layer Eltwise4_ReLU9_0_split
I1022 19:29:09.335253  3845 net.cpp:406] Eltwise4_ReLU9_0_split <- Eltwise4
I1022 19:29:09.335256  3845 net.cpp:380] Eltwise4_ReLU9_0_split -> Eltwise4_ReLU9_0_split_0
I1022 19:29:09.335261  3845 net.cpp:380] Eltwise4_ReLU9_0_split -> Eltwise4_ReLU9_0_split_1
I1022 19:29:09.335290  3845 net.cpp:122] Setting up Eltwise4_ReLU9_0_split
I1022 19:29:09.335295  3845 net.cpp:129] Top shape: 8 32 112 112 (3211264)
I1022 19:29:09.335299  3845 net.cpp:129] Top shape: 8 32 112 112 (3211264)
I1022 19:29:09.335302  3845 net.cpp:137] Memory required for data: 1186562080
I1022 19:29:09.335304  3845 layer_factory.hpp:77] Creating layer Convolution11
I1022 19:29:09.335311  3845 net.cpp:84] Creating Layer Convolution11
I1022 19:29:09.335314  3845 net.cpp:406] Convolution11 <- Eltwise4_ReLU9_0_split_0
I1022 19:29:09.335319  3845 net.cpp:380] Convolution11 -> Convolution11
I1022 19:29:09.336032  3845 net.cpp:122] Setting up Convolution11
I1022 19:29:09.336041  3845 net.cpp:129] Top shape: 8 32 112 112 (3211264)
I1022 19:29:09.336045  3845 net.cpp:137] Memory required for data: 1199407136
I1022 19:29:09.336057  3845 layer_factory.hpp:77] Creating layer BatchNorm11
I1022 19:29:09.336064  3845 net.cpp:84] Creating Layer BatchNorm11
I1022 19:29:09.336067  3845 net.cpp:406] BatchNorm11 <- Convolution11
I1022 19:29:09.336072  3845 net.cpp:367] BatchNorm11 -> Convolution11 (in-place)
I1022 19:29:09.336203  3845 net.cpp:122] Setting up BatchNorm11
I1022 19:29:09.336210  3845 net.cpp:129] Top shape: 8 32 112 112 (3211264)
I1022 19:29:09.336212  3845 net.cpp:137] Memory required for data: 1212252192
I1022 19:29:09.336218  3845 layer_factory.hpp:77] Creating layer Scale11
I1022 19:29:09.336222  3845 net.cpp:84] Creating Layer Scale11
I1022 19:29:09.336226  3845 net.cpp:406] Scale11 <- Convolution11
I1022 19:29:09.336230  3845 net.cpp:367] Scale11 -> Convolution11 (in-place)
I1022 19:29:09.336256  3845 layer_factory.hpp:77] Creating layer Scale11
I1022 19:29:09.336338  3845 net.cpp:122] Setting up Scale11
I1022 19:29:09.336344  3845 net.cpp:129] Top shape: 8 32 112 112 (3211264)
I1022 19:29:09.336347  3845 net.cpp:137] Memory required for data: 1225097248
I1022 19:29:09.336351  3845 layer_factory.hpp:77] Creating layer ReLU10
I1022 19:29:09.336355  3845 net.cpp:84] Creating Layer ReLU10
I1022 19:29:09.336359  3845 net.cpp:406] ReLU10 <- Convolution11
I1022 19:29:09.336361  3845 net.cpp:367] ReLU10 -> Convolution11 (in-place)
I1022 19:29:09.336802  3845 net.cpp:122] Setting up ReLU10
I1022 19:29:09.336812  3845 net.cpp:129] Top shape: 8 32 112 112 (3211264)
I1022 19:29:09.336817  3845 net.cpp:137] Memory required for data: 1237942304
I1022 19:29:09.336818  3845 layer_factory.hpp:77] Creating layer Convolution12
I1022 19:29:09.336827  3845 net.cpp:84] Creating Layer Convolution12
I1022 19:29:09.336832  3845 net.cpp:406] Convolution12 <- Convolution11
I1022 19:29:09.336835  3845 net.cpp:380] Convolution12 -> Convolution12
I1022 19:29:09.337879  3845 net.cpp:122] Setting up Convolution12
I1022 19:29:09.337890  3845 net.cpp:129] Top shape: 8 32 112 112 (3211264)
I1022 19:29:09.337894  3845 net.cpp:137] Memory required for data: 1250787360
I1022 19:29:09.337898  3845 layer_factory.hpp:77] Creating layer BatchNorm12
I1022 19:29:09.337905  3845 net.cpp:84] Creating Layer BatchNorm12
I1022 19:29:09.337909  3845 net.cpp:406] BatchNorm12 <- Convolution12
I1022 19:29:09.337913  3845 net.cpp:367] BatchNorm12 -> Convolution12 (in-place)
I1022 19:29:09.338045  3845 net.cpp:122] Setting up BatchNorm12
I1022 19:29:09.338052  3845 net.cpp:129] Top shape: 8 32 112 112 (3211264)
I1022 19:29:09.338054  3845 net.cpp:137] Memory required for data: 1263632416
I1022 19:29:09.338059  3845 layer_factory.hpp:77] Creating layer Scale12
I1022 19:29:09.338065  3845 net.cpp:84] Creating Layer Scale12
I1022 19:29:09.338068  3845 net.cpp:406] Scale12 <- Convolution12
I1022 19:29:09.338071  3845 net.cpp:367] Scale12 -> Convolution12 (in-place)
I1022 19:29:09.338099  3845 layer_factory.hpp:77] Creating layer Scale12
I1022 19:29:09.338178  3845 net.cpp:122] Setting up Scale12
I1022 19:29:09.338184  3845 net.cpp:129] Top shape: 8 32 112 112 (3211264)
I1022 19:29:09.338187  3845 net.cpp:137] Memory required for data: 1276477472
I1022 19:29:09.338191  3845 layer_factory.hpp:77] Creating layer Eltwise5
I1022 19:29:09.338196  3845 net.cpp:84] Creating Layer Eltwise5
I1022 19:29:09.338199  3845 net.cpp:406] Eltwise5 <- Eltwise4_ReLU9_0_split_1
I1022 19:29:09.338202  3845 net.cpp:406] Eltwise5 <- Convolution12
I1022 19:29:09.338207  3845 net.cpp:380] Eltwise5 -> Eltwise5
I1022 19:29:09.338223  3845 net.cpp:122] Setting up Eltwise5
I1022 19:29:09.338228  3845 net.cpp:129] Top shape: 8 32 112 112 (3211264)
I1022 19:29:09.338232  3845 net.cpp:137] Memory required for data: 1289322528
I1022 19:29:09.338234  3845 layer_factory.hpp:77] Creating layer ReLU11
I1022 19:29:09.338238  3845 net.cpp:84] Creating Layer ReLU11
I1022 19:29:09.338240  3845 net.cpp:406] ReLU11 <- Eltwise5
I1022 19:29:09.338243  3845 net.cpp:367] ReLU11 -> Eltwise5 (in-place)
I1022 19:29:09.338361  3845 net.cpp:122] Setting up ReLU11
I1022 19:29:09.338367  3845 net.cpp:129] Top shape: 8 32 112 112 (3211264)
I1022 19:29:09.338376  3845 net.cpp:137] Memory required for data: 1302167584
I1022 19:29:09.338379  3845 layer_factory.hpp:77] Creating layer Eltwise5_ReLU11_0_split
I1022 19:29:09.338384  3845 net.cpp:84] Creating Layer Eltwise5_ReLU11_0_split
I1022 19:29:09.338387  3845 net.cpp:406] Eltwise5_ReLU11_0_split <- Eltwise5
I1022 19:29:09.338392  3845 net.cpp:380] Eltwise5_ReLU11_0_split -> Eltwise5_ReLU11_0_split_0
I1022 19:29:09.338397  3845 net.cpp:380] Eltwise5_ReLU11_0_split -> Eltwise5_ReLU11_0_split_1
I1022 19:29:09.338424  3845 net.cpp:122] Setting up Eltwise5_ReLU11_0_split
I1022 19:29:09.338429  3845 net.cpp:129] Top shape: 8 32 112 112 (3211264)
I1022 19:29:09.338433  3845 net.cpp:129] Top shape: 8 32 112 112 (3211264)
I1022 19:29:09.338436  3845 net.cpp:137] Memory required for data: 1327857696
I1022 19:29:09.338438  3845 layer_factory.hpp:77] Creating layer Convolution13
I1022 19:29:09.338446  3845 net.cpp:84] Creating Layer Convolution13
I1022 19:29:09.338449  3845 net.cpp:406] Convolution13 <- Eltwise5_ReLU11_0_split_0
I1022 19:29:09.338454  3845 net.cpp:380] Convolution13 -> Convolution13
I1022 19:29:09.339499  3845 net.cpp:122] Setting up Convolution13
I1022 19:29:09.339509  3845 net.cpp:129] Top shape: 8 32 112 112 (3211264)
I1022 19:29:09.339514  3845 net.cpp:137] Memory required for data: 1340702752
I1022 19:29:09.339519  3845 layer_factory.hpp:77] Creating layer BatchNorm13
I1022 19:29:09.339524  3845 net.cpp:84] Creating Layer BatchNorm13
I1022 19:29:09.339527  3845 net.cpp:406] BatchNorm13 <- Convolution13
I1022 19:29:09.339534  3845 net.cpp:367] BatchNorm13 -> Convolution13 (in-place)
I1022 19:29:09.339668  3845 net.cpp:122] Setting up BatchNorm13
I1022 19:29:09.339674  3845 net.cpp:129] Top shape: 8 32 112 112 (3211264)
I1022 19:29:09.339678  3845 net.cpp:137] Memory required for data: 1353547808
I1022 19:29:09.339682  3845 layer_factory.hpp:77] Creating layer Scale13
I1022 19:29:09.339687  3845 net.cpp:84] Creating Layer Scale13
I1022 19:29:09.339691  3845 net.cpp:406] Scale13 <- Convolution13
I1022 19:29:09.339694  3845 net.cpp:367] Scale13 -> Convolution13 (in-place)
I1022 19:29:09.339721  3845 layer_factory.hpp:77] Creating layer Scale13
I1022 19:29:09.339807  3845 net.cpp:122] Setting up Scale13
I1022 19:29:09.339812  3845 net.cpp:129] Top shape: 8 32 112 112 (3211264)
I1022 19:29:09.339817  3845 net.cpp:137] Memory required for data: 1366392864
I1022 19:29:09.339819  3845 layer_factory.hpp:77] Creating layer ReLU12
I1022 19:29:09.339824  3845 net.cpp:84] Creating Layer ReLU12
I1022 19:29:09.339828  3845 net.cpp:406] ReLU12 <- Convolution13
I1022 19:29:09.339830  3845 net.cpp:367] ReLU12 -> Convolution13 (in-place)
I1022 19:29:09.339947  3845 net.cpp:122] Setting up ReLU12
I1022 19:29:09.339954  3845 net.cpp:129] Top shape: 8 32 112 112 (3211264)
I1022 19:29:09.339962  3845 net.cpp:137] Memory required for data: 1379237920
I1022 19:29:09.339965  3845 layer_factory.hpp:77] Creating layer Convolution14
I1022 19:29:09.339973  3845 net.cpp:84] Creating Layer Convolution14
I1022 19:29:09.339977  3845 net.cpp:406] Convolution14 <- Convolution13
I1022 19:29:09.339982  3845 net.cpp:380] Convolution14 -> Convolution14
I1022 19:29:09.341042  3845 net.cpp:122] Setting up Convolution14
I1022 19:29:09.341051  3845 net.cpp:129] Top shape: 8 32 112 112 (3211264)
I1022 19:29:09.341055  3845 net.cpp:137] Memory required for data: 1392082976
I1022 19:29:09.341060  3845 layer_factory.hpp:77] Creating layer BatchNorm14
I1022 19:29:09.341071  3845 net.cpp:84] Creating Layer BatchNorm14
I1022 19:29:09.341074  3845 net.cpp:406] BatchNorm14 <- Convolution14
I1022 19:29:09.341078  3845 net.cpp:367] BatchNorm14 -> Convolution14 (in-place)
I1022 19:29:09.341235  3845 net.cpp:122] Setting up BatchNorm14
I1022 19:29:09.341241  3845 net.cpp:129] Top shape: 8 32 112 112 (3211264)
I1022 19:29:09.341243  3845 net.cpp:137] Memory required for data: 1404928032
I1022 19:29:09.341248  3845 layer_factory.hpp:77] Creating layer Scale14
I1022 19:29:09.341253  3845 net.cpp:84] Creating Layer Scale14
I1022 19:29:09.341262  3845 net.cpp:406] Scale14 <- Convolution14
I1022 19:29:09.341266  3845 net.cpp:367] Scale14 -> Convolution14 (in-place)
I1022 19:29:09.341294  3845 layer_factory.hpp:77] Creating layer Scale14
I1022 19:29:09.341374  3845 net.cpp:122] Setting up Scale14
I1022 19:29:09.341379  3845 net.cpp:129] Top shape: 8 32 112 112 (3211264)
I1022 19:29:09.341382  3845 net.cpp:137] Memory required for data: 1417773088
I1022 19:29:09.341385  3845 layer_factory.hpp:77] Creating layer Eltwise6
I1022 19:29:09.341390  3845 net.cpp:84] Creating Layer Eltwise6
I1022 19:29:09.341392  3845 net.cpp:406] Eltwise6 <- Eltwise5_ReLU11_0_split_1
I1022 19:29:09.341395  3845 net.cpp:406] Eltwise6 <- Convolution14
I1022 19:29:09.341398  3845 net.cpp:380] Eltwise6 -> Eltwise6
I1022 19:29:09.341414  3845 net.cpp:122] Setting up Eltwise6
I1022 19:29:09.341418  3845 net.cpp:129] Top shape: 8 32 112 112 (3211264)
I1022 19:29:09.341420  3845 net.cpp:137] Memory required for data: 1430618144
I1022 19:29:09.341423  3845 layer_factory.hpp:77] Creating layer ReLU13
I1022 19:29:09.341426  3845 net.cpp:84] Creating Layer ReLU13
I1022 19:29:09.341428  3845 net.cpp:406] ReLU13 <- Eltwise6
I1022 19:29:09.341431  3845 net.cpp:367] ReLU13 -> Eltwise6 (in-place)
I1022 19:29:09.341545  3845 net.cpp:122] Setting up ReLU13
I1022 19:29:09.341552  3845 net.cpp:129] Top shape: 8 32 112 112 (3211264)
I1022 19:29:09.341553  3845 net.cpp:137] Memory required for data: 1443463200
I1022 19:29:09.341557  3845 layer_factory.hpp:77] Creating layer Eltwise6_ReLU13_0_split
I1022 19:29:09.341559  3845 net.cpp:84] Creating Layer Eltwise6_ReLU13_0_split
I1022 19:29:09.341562  3845 net.cpp:406] Eltwise6_ReLU13_0_split <- Eltwise6
I1022 19:29:09.341567  3845 net.cpp:380] Eltwise6_ReLU13_0_split -> Eltwise6_ReLU13_0_split_0
I1022 19:29:09.341570  3845 net.cpp:380] Eltwise6_ReLU13_0_split -> Eltwise6_ReLU13_0_split_1
I1022 19:29:09.341596  3845 net.cpp:122] Setting up Eltwise6_ReLU13_0_split
I1022 19:29:09.341600  3845 net.cpp:129] Top shape: 8 32 112 112 (3211264)
I1022 19:29:09.341603  3845 net.cpp:129] Top shape: 8 32 112 112 (3211264)
I1022 19:29:09.341604  3845 net.cpp:137] Memory required for data: 1469153312
I1022 19:29:09.341608  3845 layer_factory.hpp:77] Creating layer Convolution15
I1022 19:29:09.341614  3845 net.cpp:84] Creating Layer Convolution15
I1022 19:29:09.341616  3845 net.cpp:406] Convolution15 <- Eltwise6_ReLU13_0_split_0
I1022 19:29:09.341620  3845 net.cpp:380] Convolution15 -> Convolution15
I1022 19:29:09.342519  3845 net.cpp:122] Setting up Convolution15
I1022 19:29:09.342527  3845 net.cpp:129] Top shape: 8 64 56 56 (1605632)
I1022 19:29:09.342530  3845 net.cpp:137] Memory required for data: 1475575840
I1022 19:29:09.342535  3845 layer_factory.hpp:77] Creating layer BatchNorm15
I1022 19:29:09.342540  3845 net.cpp:84] Creating Layer BatchNorm15
I1022 19:29:09.342542  3845 net.cpp:406] BatchNorm15 <- Convolution15
I1022 19:29:09.342548  3845 net.cpp:367] BatchNorm15 -> Convolution15 (in-place)
I1022 19:29:09.342681  3845 net.cpp:122] Setting up BatchNorm15
I1022 19:29:09.342686  3845 net.cpp:129] Top shape: 8 64 56 56 (1605632)
I1022 19:29:09.342689  3845 net.cpp:137] Memory required for data: 1481998368
I1022 19:29:09.342694  3845 layer_factory.hpp:77] Creating layer Scale15
I1022 19:29:09.342699  3845 net.cpp:84] Creating Layer Scale15
I1022 19:29:09.342701  3845 net.cpp:406] Scale15 <- Convolution15
I1022 19:29:09.342705  3845 net.cpp:367] Scale15 -> Convolution15 (in-place)
I1022 19:29:09.342730  3845 layer_factory.hpp:77] Creating layer Scale15
I1022 19:29:09.342811  3845 net.cpp:122] Setting up Scale15
I1022 19:29:09.342815  3845 net.cpp:129] Top shape: 8 64 56 56 (1605632)
I1022 19:29:09.342818  3845 net.cpp:137] Memory required for data: 1488420896
I1022 19:29:09.342821  3845 layer_factory.hpp:77] Creating layer Convolution16
I1022 19:29:09.342828  3845 net.cpp:84] Creating Layer Convolution16
I1022 19:29:09.342845  3845 net.cpp:406] Convolution16 <- Eltwise6_ReLU13_0_split_1
I1022 19:29:09.342849  3845 net.cpp:380] Convolution16 -> Convolution16
I1022 19:29:09.344555  3845 net.cpp:122] Setting up Convolution16
I1022 19:29:09.344576  3845 net.cpp:129] Top shape: 8 64 56 56 (1605632)
I1022 19:29:09.344590  3845 net.cpp:137] Memory required for data: 1494843424
I1022 19:29:09.344595  3845 layer_factory.hpp:77] Creating layer BatchNorm16
I1022 19:29:09.344600  3845 net.cpp:84] Creating Layer BatchNorm16
I1022 19:29:09.344604  3845 net.cpp:406] BatchNorm16 <- Convolution16
I1022 19:29:09.344609  3845 net.cpp:367] BatchNorm16 -> Convolution16 (in-place)
I1022 19:29:09.344753  3845 net.cpp:122] Setting up BatchNorm16
I1022 19:29:09.344758  3845 net.cpp:129] Top shape: 8 64 56 56 (1605632)
I1022 19:29:09.344761  3845 net.cpp:137] Memory required for data: 1501265952
I1022 19:29:09.344766  3845 layer_factory.hpp:77] Creating layer Scale16
I1022 19:29:09.344772  3845 net.cpp:84] Creating Layer Scale16
I1022 19:29:09.344775  3845 net.cpp:406] Scale16 <- Convolution16
I1022 19:29:09.344779  3845 net.cpp:367] Scale16 -> Convolution16 (in-place)
I1022 19:29:09.344806  3845 layer_factory.hpp:77] Creating layer Scale16
I1022 19:29:09.344889  3845 net.cpp:122] Setting up Scale16
I1022 19:29:09.344895  3845 net.cpp:129] Top shape: 8 64 56 56 (1605632)
I1022 19:29:09.344898  3845 net.cpp:137] Memory required for data: 1507688480
I1022 19:29:09.344913  3845 layer_factory.hpp:77] Creating layer ReLU14
I1022 19:29:09.344918  3845 net.cpp:84] Creating Layer ReLU14
I1022 19:29:09.344921  3845 net.cpp:406] ReLU14 <- Convolution16
I1022 19:29:09.344924  3845 net.cpp:367] ReLU14 -> Convolution16 (in-place)
I1022 19:29:09.345067  3845 net.cpp:122] Setting up ReLU14
I1022 19:29:09.345072  3845 net.cpp:129] Top shape: 8 64 56 56 (1605632)
I1022 19:29:09.345075  3845 net.cpp:137] Memory required for data: 1514111008
I1022 19:29:09.345078  3845 layer_factory.hpp:77] Creating layer Convolution17
I1022 19:29:09.345084  3845 net.cpp:84] Creating Layer Convolution17
I1022 19:29:09.345088  3845 net.cpp:406] Convolution17 <- Convolution16
I1022 19:29:09.345094  3845 net.cpp:380] Convolution17 -> Convolution17
I1022 19:29:09.346966  3845 net.cpp:122] Setting up Convolution17
I1022 19:29:09.346976  3845 net.cpp:129] Top shape: 8 64 56 56 (1605632)
I1022 19:29:09.346981  3845 net.cpp:137] Memory required for data: 1520533536
I1022 19:29:09.346985  3845 layer_factory.hpp:77] Creating layer BatchNorm17
I1022 19:29:09.346992  3845 net.cpp:84] Creating Layer BatchNorm17
I1022 19:29:09.346994  3845 net.cpp:406] BatchNorm17 <- Convolution17
I1022 19:29:09.346998  3845 net.cpp:367] BatchNorm17 -> Convolution17 (in-place)
I1022 19:29:09.347141  3845 net.cpp:122] Setting up BatchNorm17
I1022 19:29:09.347147  3845 net.cpp:129] Top shape: 8 64 56 56 (1605632)
I1022 19:29:09.347149  3845 net.cpp:137] Memory required for data: 1526956064
I1022 19:29:09.347164  3845 layer_factory.hpp:77] Creating layer Scale17
I1022 19:29:09.347168  3845 net.cpp:84] Creating Layer Scale17
I1022 19:29:09.347172  3845 net.cpp:406] Scale17 <- Convolution17
I1022 19:29:09.347175  3845 net.cpp:367] Scale17 -> Convolution17 (in-place)
I1022 19:29:09.347203  3845 layer_factory.hpp:77] Creating layer Scale17
I1022 19:29:09.347283  3845 net.cpp:122] Setting up Scale17
I1022 19:29:09.347290  3845 net.cpp:129] Top shape: 8 64 56 56 (1605632)
I1022 19:29:09.347292  3845 net.cpp:137] Memory required for data: 1533378592
I1022 19:29:09.347296  3845 layer_factory.hpp:77] Creating layer Eltwise7
I1022 19:29:09.347301  3845 net.cpp:84] Creating Layer Eltwise7
I1022 19:29:09.347306  3845 net.cpp:406] Eltwise7 <- Convolution15
I1022 19:29:09.347308  3845 net.cpp:406] Eltwise7 <- Convolution17
I1022 19:29:09.347311  3845 net.cpp:380] Eltwise7 -> Eltwise7
I1022 19:29:09.347328  3845 net.cpp:122] Setting up Eltwise7
I1022 19:29:09.347333  3845 net.cpp:129] Top shape: 8 64 56 56 (1605632)
I1022 19:29:09.347337  3845 net.cpp:137] Memory required for data: 1539801120
I1022 19:29:09.347338  3845 layer_factory.hpp:77] Creating layer ReLU15
I1022 19:29:09.347342  3845 net.cpp:84] Creating Layer ReLU15
I1022 19:29:09.347344  3845 net.cpp:406] ReLU15 <- Eltwise7
I1022 19:29:09.347355  3845 net.cpp:367] ReLU15 -> Eltwise7 (in-place)
I1022 19:29:09.347473  3845 net.cpp:122] Setting up ReLU15
I1022 19:29:09.347481  3845 net.cpp:129] Top shape: 8 64 56 56 (1605632)
I1022 19:29:09.347483  3845 net.cpp:137] Memory required for data: 1546223648
I1022 19:29:09.347486  3845 layer_factory.hpp:77] Creating layer Eltwise7_ReLU15_0_split
I1022 19:29:09.347489  3845 net.cpp:84] Creating Layer Eltwise7_ReLU15_0_split
I1022 19:29:09.347493  3845 net.cpp:406] Eltwise7_ReLU15_0_split <- Eltwise7
I1022 19:29:09.347497  3845 net.cpp:380] Eltwise7_ReLU15_0_split -> Eltwise7_ReLU15_0_split_0
I1022 19:29:09.347501  3845 net.cpp:380] Eltwise7_ReLU15_0_split -> Eltwise7_ReLU15_0_split_1
I1022 19:29:09.347528  3845 net.cpp:122] Setting up Eltwise7_ReLU15_0_split
I1022 19:29:09.347534  3845 net.cpp:129] Top shape: 8 64 56 56 (1605632)
I1022 19:29:09.347538  3845 net.cpp:129] Top shape: 8 64 56 56 (1605632)
I1022 19:29:09.347540  3845 net.cpp:137] Memory required for data: 1559068704
I1022 19:29:09.347543  3845 layer_factory.hpp:77] Creating layer Convolution18
I1022 19:29:09.347549  3845 net.cpp:84] Creating Layer Convolution18
I1022 19:29:09.347553  3845 net.cpp:406] Convolution18 <- Eltwise7_ReLU15_0_split_0
I1022 19:29:09.347556  3845 net.cpp:380] Convolution18 -> Convolution18
I1022 19:29:09.349563  3845 net.cpp:122] Setting up Convolution18
I1022 19:29:09.349573  3845 net.cpp:129] Top shape: 8 64 56 56 (1605632)
I1022 19:29:09.349577  3845 net.cpp:137] Memory required for data: 1565491232
I1022 19:29:09.349582  3845 layer_factory.hpp:77] Creating layer BatchNorm18
I1022 19:29:09.349588  3845 net.cpp:84] Creating Layer BatchNorm18
I1022 19:29:09.349592  3845 net.cpp:406] BatchNorm18 <- Convolution18
I1022 19:29:09.349596  3845 net.cpp:367] BatchNorm18 -> Convolution18 (in-place)
I1022 19:29:09.349737  3845 net.cpp:122] Setting up BatchNorm18
I1022 19:29:09.349743  3845 net.cpp:129] Top shape: 8 64 56 56 (1605632)
I1022 19:29:09.349746  3845 net.cpp:137] Memory required for data: 1571913760
I1022 19:29:09.349751  3845 layer_factory.hpp:77] Creating layer Scale18
I1022 19:29:09.349756  3845 net.cpp:84] Creating Layer Scale18
I1022 19:29:09.349759  3845 net.cpp:406] Scale18 <- Convolution18
I1022 19:29:09.349763  3845 net.cpp:367] Scale18 -> Convolution18 (in-place)
I1022 19:29:09.349792  3845 layer_factory.hpp:77] Creating layer Scale18
I1022 19:29:09.349876  3845 net.cpp:122] Setting up Scale18
I1022 19:29:09.349882  3845 net.cpp:129] Top shape: 8 64 56 56 (1605632)
I1022 19:29:09.349885  3845 net.cpp:137] Memory required for data: 1578336288
I1022 19:29:09.349889  3845 layer_factory.hpp:77] Creating layer ReLU16
I1022 19:29:09.349895  3845 net.cpp:84] Creating Layer ReLU16
I1022 19:29:09.349897  3845 net.cpp:406] ReLU16 <- Convolution18
I1022 19:29:09.349901  3845 net.cpp:367] ReLU16 -> Convolution18 (in-place)
I1022 19:29:09.350348  3845 net.cpp:122] Setting up ReLU16
I1022 19:29:09.350358  3845 net.cpp:129] Top shape: 8 64 56 56 (1605632)
I1022 19:29:09.350361  3845 net.cpp:137] Memory required for data: 1584758816
I1022 19:29:09.350364  3845 layer_factory.hpp:77] Creating layer Convolution19
I1022 19:29:09.350373  3845 net.cpp:84] Creating Layer Convolution19
I1022 19:29:09.350375  3845 net.cpp:406] Convolution19 <- Convolution18
I1022 19:29:09.350380  3845 net.cpp:380] Convolution19 -> Convolution19
I1022 19:29:09.352587  3845 net.cpp:122] Setting up Convolution19
I1022 19:29:09.352598  3845 net.cpp:129] Top shape: 8 64 56 56 (1605632)
I1022 19:29:09.352602  3845 net.cpp:137] Memory required for data: 1591181344
I1022 19:29:09.352607  3845 layer_factory.hpp:77] Creating layer BatchNorm19
I1022 19:29:09.352612  3845 net.cpp:84] Creating Layer BatchNorm19
I1022 19:29:09.352617  3845 net.cpp:406] BatchNorm19 <- Convolution19
I1022 19:29:09.352622  3845 net.cpp:367] BatchNorm19 -> Convolution19 (in-place)
I1022 19:29:09.352761  3845 net.cpp:122] Setting up BatchNorm19
I1022 19:29:09.352767  3845 net.cpp:129] Top shape: 8 64 56 56 (1605632)
I1022 19:29:09.352771  3845 net.cpp:137] Memory required for data: 1597603872
I1022 19:29:09.352797  3845 layer_factory.hpp:77] Creating layer Scale19
I1022 19:29:09.352804  3845 net.cpp:84] Creating Layer Scale19
I1022 19:29:09.352808  3845 net.cpp:406] Scale19 <- Convolution19
I1022 19:29:09.352811  3845 net.cpp:367] Scale19 -> Convolution19 (in-place)
I1022 19:29:09.352843  3845 layer_factory.hpp:77] Creating layer Scale19
I1022 19:29:09.352926  3845 net.cpp:122] Setting up Scale19
I1022 19:29:09.352932  3845 net.cpp:129] Top shape: 8 64 56 56 (1605632)
I1022 19:29:09.352936  3845 net.cpp:137] Memory required for data: 1604026400
I1022 19:29:09.352939  3845 layer_factory.hpp:77] Creating layer Eltwise8
I1022 19:29:09.352944  3845 net.cpp:84] Creating Layer Eltwise8
I1022 19:29:09.352948  3845 net.cpp:406] Eltwise8 <- Eltwise7_ReLU15_0_split_1
I1022 19:29:09.352952  3845 net.cpp:406] Eltwise8 <- Convolution19
I1022 19:29:09.352954  3845 net.cpp:380] Eltwise8 -> Eltwise8
I1022 19:29:09.352972  3845 net.cpp:122] Setting up Eltwise8
I1022 19:29:09.352977  3845 net.cpp:129] Top shape: 8 64 56 56 (1605632)
I1022 19:29:09.352979  3845 net.cpp:137] Memory required for data: 1610448928
I1022 19:29:09.352982  3845 layer_factory.hpp:77] Creating layer ReLU17
I1022 19:29:09.352986  3845 net.cpp:84] Creating Layer ReLU17
I1022 19:29:09.352989  3845 net.cpp:406] ReLU17 <- Eltwise8
I1022 19:29:09.352993  3845 net.cpp:367] ReLU17 -> Eltwise8 (in-place)
I1022 19:29:09.353111  3845 net.cpp:122] Setting up ReLU17
I1022 19:29:09.353117  3845 net.cpp:129] Top shape: 8 64 56 56 (1605632)
I1022 19:29:09.353121  3845 net.cpp:137] Memory required for data: 1616871456
I1022 19:29:09.353123  3845 layer_factory.hpp:77] Creating layer Eltwise8_ReLU17_0_split
I1022 19:29:09.353127  3845 net.cpp:84] Creating Layer Eltwise8_ReLU17_0_split
I1022 19:29:09.353132  3845 net.cpp:406] Eltwise8_ReLU17_0_split <- Eltwise8
I1022 19:29:09.353134  3845 net.cpp:380] Eltwise8_ReLU17_0_split -> Eltwise8_ReLU17_0_split_0
I1022 19:29:09.353139  3845 net.cpp:380] Eltwise8_ReLU17_0_split -> Eltwise8_ReLU17_0_split_1
I1022 19:29:09.353168  3845 net.cpp:122] Setting up Eltwise8_ReLU17_0_split
I1022 19:29:09.353173  3845 net.cpp:129] Top shape: 8 64 56 56 (1605632)
I1022 19:29:09.353178  3845 net.cpp:129] Top shape: 8 64 56 56 (1605632)
I1022 19:29:09.353179  3845 net.cpp:137] Memory required for data: 1629716512
I1022 19:29:09.353183  3845 layer_factory.hpp:77] Creating layer Convolution20
I1022 19:29:09.353188  3845 net.cpp:84] Creating Layer Convolution20
I1022 19:29:09.353191  3845 net.cpp:406] Convolution20 <- Eltwise8_ReLU17_0_split_0
I1022 19:29:09.353196  3845 net.cpp:380] Convolution20 -> Convolution20
I1022 19:29:09.355188  3845 net.cpp:122] Setting up Convolution20
I1022 19:29:09.355199  3845 net.cpp:129] Top shape: 8 64 56 56 (1605632)
I1022 19:29:09.355203  3845 net.cpp:137] Memory required for data: 1636139040
I1022 19:29:09.355208  3845 layer_factory.hpp:77] Creating layer BatchNorm20
I1022 19:29:09.355214  3845 net.cpp:84] Creating Layer BatchNorm20
I1022 19:29:09.355217  3845 net.cpp:406] BatchNorm20 <- Convolution20
I1022 19:29:09.355221  3845 net.cpp:367] BatchNorm20 -> Convolution20 (in-place)
I1022 19:29:09.355365  3845 net.cpp:122] Setting up BatchNorm20
I1022 19:29:09.355370  3845 net.cpp:129] Top shape: 8 64 56 56 (1605632)
I1022 19:29:09.355373  3845 net.cpp:137] Memory required for data: 1642561568
I1022 19:29:09.355378  3845 layer_factory.hpp:77] Creating layer Scale20
I1022 19:29:09.355383  3845 net.cpp:84] Creating Layer Scale20
I1022 19:29:09.355387  3845 net.cpp:406] Scale20 <- Convolution20
I1022 19:29:09.355391  3845 net.cpp:367] Scale20 -> Convolution20 (in-place)
I1022 19:29:09.355419  3845 layer_factory.hpp:77] Creating layer Scale20
I1022 19:29:09.355501  3845 net.cpp:122] Setting up Scale20
I1022 19:29:09.355506  3845 net.cpp:129] Top shape: 8 64 56 56 (1605632)
I1022 19:29:09.355509  3845 net.cpp:137] Memory required for data: 1648984096
I1022 19:29:09.355512  3845 layer_factory.hpp:77] Creating layer ReLU18
I1022 19:29:09.355516  3845 net.cpp:84] Creating Layer ReLU18
I1022 19:29:09.355518  3845 net.cpp:406] ReLU18 <- Convolution20
I1022 19:29:09.355528  3845 net.cpp:367] ReLU18 -> Convolution20 (in-place)
I1022 19:29:09.355651  3845 net.cpp:122] Setting up ReLU18
I1022 19:29:09.355657  3845 net.cpp:129] Top shape: 8 64 56 56 (1605632)
I1022 19:29:09.355660  3845 net.cpp:137] Memory required for data: 1655406624
I1022 19:29:09.355662  3845 layer_factory.hpp:77] Creating layer Convolution21
I1022 19:29:09.355669  3845 net.cpp:84] Creating Layer Convolution21
I1022 19:29:09.355672  3845 net.cpp:406] Convolution21 <- Convolution20
I1022 19:29:09.355676  3845 net.cpp:380] Convolution21 -> Convolution21
I1022 19:29:09.357424  3845 net.cpp:122] Setting up Convolution21
I1022 19:29:09.357434  3845 net.cpp:129] Top shape: 8 64 56 56 (1605632)
I1022 19:29:09.357436  3845 net.cpp:137] Memory required for data: 1661829152
I1022 19:29:09.357441  3845 layer_factory.hpp:77] Creating layer BatchNorm21
I1022 19:29:09.357445  3845 net.cpp:84] Creating Layer BatchNorm21
I1022 19:29:09.357448  3845 net.cpp:406] BatchNorm21 <- Convolution21
I1022 19:29:09.357452  3845 net.cpp:367] BatchNorm21 -> Convolution21 (in-place)
I1022 19:29:09.357590  3845 net.cpp:122] Setting up BatchNorm21
I1022 19:29:09.357595  3845 net.cpp:129] Top shape: 8 64 56 56 (1605632)
I1022 19:29:09.357597  3845 net.cpp:137] Memory required for data: 1668251680
I1022 19:29:09.357602  3845 layer_factory.hpp:77] Creating layer Scale21
I1022 19:29:09.357606  3845 net.cpp:84] Creating Layer Scale21
I1022 19:29:09.357609  3845 net.cpp:406] Scale21 <- Convolution21
I1022 19:29:09.357611  3845 net.cpp:367] Scale21 -> Convolution21 (in-place)
I1022 19:29:09.357638  3845 layer_factory.hpp:77] Creating layer Scale21
I1022 19:29:09.357720  3845 net.cpp:122] Setting up Scale21
I1022 19:29:09.357724  3845 net.cpp:129] Top shape: 8 64 56 56 (1605632)
I1022 19:29:09.357728  3845 net.cpp:137] Memory required for data: 1674674208
I1022 19:29:09.357730  3845 layer_factory.hpp:77] Creating layer Eltwise9
I1022 19:29:09.357734  3845 net.cpp:84] Creating Layer Eltwise9
I1022 19:29:09.357738  3845 net.cpp:406] Eltwise9 <- Eltwise8_ReLU17_0_split_1
I1022 19:29:09.357739  3845 net.cpp:406] Eltwise9 <- Convolution21
I1022 19:29:09.357743  3845 net.cpp:380] Eltwise9 -> Eltwise9
I1022 19:29:09.357758  3845 net.cpp:122] Setting up Eltwise9
I1022 19:29:09.357764  3845 net.cpp:129] Top shape: 8 64 56 56 (1605632)
I1022 19:29:09.357765  3845 net.cpp:137] Memory required for data: 1681096736
I1022 19:29:09.357767  3845 layer_factory.hpp:77] Creating layer ReLU19
I1022 19:29:09.357770  3845 net.cpp:84] Creating Layer ReLU19
I1022 19:29:09.357772  3845 net.cpp:406] ReLU19 <- Eltwise9
I1022 19:29:09.357775  3845 net.cpp:367] ReLU19 -> Eltwise9 (in-place)
I1022 19:29:09.357892  3845 net.cpp:122] Setting up ReLU19
I1022 19:29:09.357897  3845 net.cpp:129] Top shape: 8 64 56 56 (1605632)
I1022 19:29:09.357900  3845 net.cpp:137] Memory required for data: 1687519264
I1022 19:29:09.357903  3845 layer_factory.hpp:77] Creating layer Pooling1
I1022 19:29:09.357908  3845 net.cpp:84] Creating Layer Pooling1
I1022 19:29:09.357909  3845 net.cpp:406] Pooling1 <- Eltwise9
I1022 19:29:09.357913  3845 net.cpp:380] Pooling1 -> Pooling1
I1022 19:29:09.358057  3845 net.cpp:122] Setting up Pooling1
I1022 19:29:09.358063  3845 net.cpp:129] Top shape: 8 64 1 1 (512)
I1022 19:29:09.358065  3845 net.cpp:137] Memory required for data: 1687521312
I1022 19:29:09.358068  3845 layer_factory.hpp:77] Creating layer InnerProduct1
I1022 19:29:09.358075  3845 net.cpp:84] Creating Layer InnerProduct1
I1022 19:29:09.358078  3845 net.cpp:406] InnerProduct1 <- Pooling1
I1022 19:29:09.358083  3845 net.cpp:380] InnerProduct1 -> InnerProduct1
I1022 19:29:09.358165  3845 net.cpp:122] Setting up InnerProduct1
I1022 19:29:09.358170  3845 net.cpp:129] Top shape: 8 4 (32)
I1022 19:29:09.358171  3845 net.cpp:137] Memory required for data: 1687521440
I1022 19:29:09.358175  3845 layer_factory.hpp:77] Creating layer SoftmaxWithLoss1
I1022 19:29:09.358180  3845 net.cpp:84] Creating Layer SoftmaxWithLoss1
I1022 19:29:09.358182  3845 net.cpp:406] SoftmaxWithLoss1 <- InnerProduct1
I1022 19:29:09.358192  3845 net.cpp:406] SoftmaxWithLoss1 <- Data2
I1022 19:29:09.358196  3845 net.cpp:380] SoftmaxWithLoss1 -> SoftmaxWithLoss1
…
I1022 19:29:09.360461  3845 net.cpp:294] The NetState phase (1) differed from the phase (0) specified by a rule in layer Data1
I1022 19:29:09.360826  3845 net.cpp:51] Initializing net from parameters: 
name: "resnet"
state {
  phase: TEST
}
layer {
  name: "Data1"
  type: "Data"
  top: "Data1"
  top: "Data2"
  include {
    phase: TEST
  }
  transform_param {
    mirror: false
    crop_size: 224
    mean_file: "/home/x306/caffe/xn/English_orange/data/orange1_mean.binaryproto"
  }
  data_param {
    source: "/home/x306/caffe/xn/English_orange/data/val1_lmdb"
    batch_size: 8
    backend: LMDB
  }
}
layer {
  name: "Convolution1"
  type: "Convolution"
  bottom: "Data1"
  top: "Convolution1"
  param {
    lr_mult: 1
    decay_mult: 1
  }
  param {
    lr_mult: 2
    decay_mult: 0
  }
  convolution_param {
    num_output: 16
    pad: 1
    kernel_size: 3
    stride: 1
    weight_filler {
      type: "gaussian"
      std: 0.118
    }
    bias_filler {
      type: "constant"
      value: 0
    }
  }
}
layer {
  name: "BatchNorm1"
  type: "BatchNorm"
  bottom: "Convolution1"
  top: "Convolution1"
  param {
    lr_mult: 0
    decay_mult: 0
  }
  param {
    lr_mult: 0
    decay_mult: 0
  }
  param {
    lr_mult: 0
    decay_mult: 0
  }
}
layer {
  name: "Scale1"
  type: "Scale"
  bottom: "Convolution1"
  top: "Convolution1"
  scale_param {
    bias_term: true
  }
}
layer {
  name: "ReLU1"
  type: "ReLU"
  bottom: "Convolution1"
  top: "Convolution1"
}
layer {
  name: "Convolution2"
  type: "Convolution"
  bottom: "Convolution1"
  top: "Convolution2"
  param {
    lr_mult: 1
    decay_mult: 1
  }
  param {
    lr_mult: 2
    decay_mult: 0
  }
  convolution_param {
    num_output: 16
    pad: 1
    kernel_size: 3
    stride: 1
    weight_filler {
      type: "gaussian"
      std: 0.118
    }
    bias_filler {
      type: "constant"
      value: 0
    }
  }
}
layer {
  name: "BatchNorm2"
  type: "BatchNorm"
  bottom: "Convolution2"
  top: "Convolution2"
  param {
    lr_mult: 0
    decay_mult: 0
  }
  param {
    lr_mult: 0
    decay_mult: 0
  }
  param {
    lr_mult: 0
    decay_mult: 0
  }
}
layer {
  name: "Scale2"
  type: "Scale"
  bottom: "Convolution2"
  top: "Convolution2"
  scale_param {
    bias_term: true
  }
}
layer {
  name: "ReLU2"
  type: "ReLU"
  bottom: "Convolution2"
  top: "Convolution2"
}
layer {
  name: "Convolution3"
  type: "Convolution"
  bottom: "Convolution2"
  top: "Convolution3"
  param {
    lr_mult: 1
    decay_mult: 1
  }
  param {
    lr_mult: 2
    decay_mult: 0
  }
  convolution_param {
    num_output: 16
    pad: 1
    kernel_size: 3
    stride: 1
    weight_filler {
      type: "gaussian"
      std: 0.118
    }
    bias_filler {
      type: "constant"
      value: 0
    }
  }
}
layer {
  name: "BatchNorm3"
  type: "BatchNorm"
  bottom: "Convolution3"
  top: "Convolution3"
  param {
    lr_mult: 0
    decay_mult: 0
  }
  param {
    lr_mult: 0
    decay_mult: 0
  }
  param {
    lr_mult: 0
    decay_mult: 0
  }
}
layer {
  name: "Scale3"
  type: "Scale"
  bottom: "Convolution3"
  top: "Convolution3"
  scale_param {
    bias_term: true
  }
}
layer {
  name: "Eltwise1"
  type: "Eltwise"
  bottom: "Convolution1"
  bottom: "Convolution3"
  top: "Eltwise1"
  eltwise_param {
    operation: SUM
  }
}
layer {
  name: "ReLU3"
  type: "ReLU"
  bottom: "Eltwise1"
  top: "Eltwise1"
}
layer {
  name: "Convolution4"
  type: "Convolution"
  bottom: "Eltwise1"
  top: "Convolution4"
  param {
    lr_mult: 1
    decay_mult: 1
  }
  param {
    lr_mult: 2
    decay_mult: 0
  }
  convolution_param {
    num_output: 16
    pad: 1
    kernel_size: 3
    stride: 1
    weight_filler {
      type: "gaussian"
      std: 0.118
    }
    bias_filler {
      type: "constant"
      value: 0
    }
  }
}
layer {
  name: "BatchNorm4"
  type: "BatchNorm"
  bottom: "Convolution4"
  top: "Convolution4"
  param {
    lr_mult: 0
    decay_mult: 0
  }
  param {
    lr_mult: 0
    decay_mult: 0
  }
  param {
    lr_mult: 0
    decay_mult: 0
  }
}
layer {
  name: "Scale4"
  type: "Scale"
  bottom: "Convolution4"
  top: "Convolution4"
  scale_param {
    bias_term: true
  }
}
layer {
  name: "ReLU4"
  type: "ReLU"
  bottom: "Convolution4"
  top: "Convolution4"
}
layer {
  name: "Convolution5"
  type: "Convolution"
  bottom: "Convolution4"
  top: "Convolution5"
  param {
    lr_mult: 1
    decay_mult: 1
  }
  param {
    lr_mult: 2
    decay_mult: 0
  }
  convolution_param {
    num_output: 16
    pad: 1
    kernel_size: 3
    stride: 1
    weight_filler {
      type: "gaussian"
      std: 0.118
    }
    bias_filler {
      type: "constant"
      value: 0
    }
  }
}
layer {
  name: "BatchNorm5"
  type: "BatchNorm"
  bottom: "Convolution5"
  top: "Convolution5"
  param {
    lr_mult: 0
    decay_mult: 0
  }
  param {
    lr_mult: 0
    decay_mult: 0
  }
  param {
    lr_mult: 0
    decay_mult: 0
  }
}
layer {
  name: "Scale5"
  type: "Scale"
  bottom: "Convolution5"
  top: "Convolution5"
  scale_param {
    bias_term: true
  }
}
layer {
  name: "Eltwise2"
  type: "Eltwise"
  bottom: "Eltwise1"
  bottom: "Convolution5"
  top: "Eltwise2"
  eltwise_param {
    operation: SUM
  }
}
layer {
  name: "ReLU5"
  type: "ReLU"
  bottom: "Eltwise2"
  top: "Eltwise2"
}
layer {
  name: "Convolution6"
  type: "Convolution"
  bottom: "Eltwise2"
  top: "Convolution6"
  param {
    lr_mult: 1
    decay_mult: 1
  }
  param {
    lr_mult: 2
    decay_mult: 0
  }
  convolution_param {
    num_output: 16
    pad: 1
    kernel_size: 3
    stride: 1
    weight_filler {
      type: "gaussian"
      std: 0.118
    }
    bias_filler {
      type: "constant"
      value: 0
    }
  }
}
layer {
  name: "BatchNorm6"
  type: "BatchNorm"
  bottom: "Convolution6"
  top: "Convolution6"
  param {
    lr_mult: 0
    decay_mult: 0
  }
  param {
    lr_mult: 0
    decay_mult: 0
  }
  param {
    lr_mult: 0
    decay_mult: 0
  }
}
layer {
  name: "Scale6"
  type: "Scale"
  bottom: "Convolution6"
  top: "Convolution6"
  scale_param {
    bias_term: true
  }
}
layer {
  name: "ReLU6"
  type: "ReLU"
  bottom: "Convolution6"
  top: "Convolution6"
}
layer {
  name: "Convolution7"
  type: "Convolution"
  bottom: "Convolution6"
  top: "Convolution7"
  param {
    lr_mult: 1
    decay_mult: 1
  }
  param {
    lr_mult: 2
    decay_mult: 0
  }
  convolution_param {
    num_output: 16
    pad: 1
    kernel_size: 3
    stride: 1
    weight_filler {
      type: "gaussian"
      std: 0.118
    }
    bias_filler {
      type: "constant"
      value: 0
    }
  }
}
layer {
  name: "BatchNorm7"
  type: "BatchNorm"
  bottom: "Convolution7"
  top: "Convolution7"
  param {
    lr_mult: 0
    decay_mult: 0
  }
  param {
    lr_mult: 0
    decay_mult: 0
  }
  param {
    lr_mult: 0
    decay_mult: 0
  }
}
layer {
  name: "Scale7"
  type: "Scale"
  bottom: "Convolution7"
  top: "Convolution7"
  scale_param {
    bias_term: true
  }
}
layer {
  name: "Eltwise3"
  type: "Eltwise"
  bottom: "Eltwise2"
  bottom: "Convolution7"
  top: "Eltwise3"
  eltwise_param {
    operation: SUM
  }
}
layer {
  name: "ReLU7"
  type: "ReLU"
  bottom: "Eltwise3"
  top: "Eltwise3"
}
layer {
  name: "Convolution8"
  type: "Convolution"
  bottom: "Eltwise3"
  top: "Convolution8"
  param {
    lr_mult: 1
    decay_mult: 1
  }
  param {
    lr_mult: 2
    decay_mult: 0
  }
  convolution_param {
    num_output: 32
    pad: 0
    kernel_size: 1
    stride: 2
    weight_filler {
      type: "gaussian"
      std: 0.25
    }
    bias_filler {
      type: "constant"
      value: 0
    }
  }
}
layer {
  name: "BatchNorm8"
  type: "BatchNorm"
  bottom: "Convolution8"
  top: "Convolution8"
  param {
    lr_mult: 0
    decay_mult: 0
  }
  param {
    lr_mult: 0
    decay_mult: 0
  }
  param {
    lr_mult: 0
    decay_mult: 0
  }
}
layer {
  name: "Scale8"
  type: "Scale"
  bottom: "Convolution8"
  top: "Convolution8"
  scale_param {
    bias_term: true
  }
}
layer {
  name: "Convolution9"
  type: "Convolution"
  bottom: "Eltwise3"
  top: "Convolution9"
  param {
    lr_mult: 1
    decay_mult: 1
  }
  param {
    lr_mult: 2
    decay_mult: 0
  }
  convolution_param {
    num_output: 32
    pad: 1
    kernel_size: 3
    stride: 2
    weight_filler {
      type: "gaussian"
      std: 0.083
    }
    bias_filler {
      type: "constant"
      value: 0
    }
  }
}
layer {
  name: "BatchNorm9"
  type: "BatchNorm"
  bottom: "Convolution9"
  top: "Convolution9"
  param {
    lr_mult: 0
    decay_mult: 0
  }
  param {
    lr_mult: 0
    decay_mult: 0
  }
  param {
    lr_mult: 0
    decay_mult: 0
  }
}
layer {
  name: "Scale9"
  type: "Scale"
  bottom: "Convolution9"
  top: "Convolution9"
  scale_param {
    bias_term: true
  }
}
layer {
  name: "ReLU8"
  type: "ReLU"
  bottom: "Convolution9"
  top: "Convolution9"
}
layer {
  name: "Convolution10"
  type: "Convolution"
  bottom: "Convolution9"
  top: "Convolution10"
  param {
    lr_mult: 1
    decay_mult: 1
  }
  param {
    lr_mult: 2
    decay_mult: 0
  }
  convolution_param {
    num_output: 32
    pad: 1
    kernel_size: 3
    stride: 1
    weight_filler {
      type: "gaussian"
      std: 0.083
    }
    bias_filler {
      type: "constant"
      value: 0
    }
  }
}
layer {
  name: "BatchNorm10"
  type: "BatchNorm"
  bottom: "Convolution10"
  top: "Convolution10"
  param {
    lr_mult: 0
    decay_mult: 0
  }
  param {
    lr_mult: 0
    decay_mult: 0
  }
  param {
    lr_mult: 0
    decay_mult: 0
  }
}
layer {
  name: "Scale10"
  type: "Scale"
  bottom: "Convolution10"
  top: "Convolution10"
  scale_param {
    bias_term: true
  }
}
layer {
  name: "Eltwise4"
  type: "Eltwise"
  bottom: "Convolution8"
  bottom: "Convolution10"
  top: "Eltwise4"
  eltwise_param {
    operation: SUM
  }
}
layer {
  name: "ReLU9"
  type: "ReLU"
  bottom: "Eltwise4"
  top: "Eltwise4"
}
layer {
  name: "Convolution11"
  type: "Convolution"
  bottom: "Eltwise4"
  top: "Convolution11"
  param {
    lr_mult: 1
    decay_mult: 1
  }
  param {
    lr_mult: 2
    decay_mult: 0
  }
  convolution_param {
    num_output: 32
    pad: 1
    kernel_size: 3
    stride: 1
    weight_filler {
      type: "gaussian"
      std: 0.083
    }
    bias_filler {
      type: "constant"
      value: 0
    }
  }
}
layer {
  name: "BatchNorm11"
  type: "BatchNorm"
  bottom: "Convolution11"
  top: "Convolution11"
  param {
    lr_mult: 0
    decay_mult: 0
  }
  param {
    lr_mult: 0
    decay_mult: 0
  }
  param {
    lr_mult: 0
    decay_mult: 0
  }
}
layer {
  name: "Scale11"
  type: "Scale"
  bottom: "Convolution11"
  top: "Convolution11"
  scale_param {
    bias_term: true
  }
}
layer {
  name: "ReLU10"
  type: "ReLU"
  bottom: "Convolution11"
  top: "Convolution11"
}
layer {
  name: "Convolution12"
  type: "Convolution"
  bottom: "Convolution11"
  top: "Convolution12"
  param {
    lr_mult: 1
    decay_mult: 1
  }
  param {
    lr_mult: 2
    decay_mult: 0
  }
  convolution_param {
    num_output: 32
    pad: 1
    kernel_size: 3
    stride: 1
    weight_filler {
      type: "gaussian"
      std: 0.083
    }
    bias_filler {
      type: "constant"
      value: 0
    }
  }
}
layer {
  name: "BatchNorm12"
  type: "BatchNorm"
  bottom: "Convolution12"
  top: "Convolution12"
  param {
    lr_mult: 0
    decay_mult: 0
  }
  param {
    lr_mult: 0
    decay_mult: 0
  }
  param {
    lr_mult: 0
    decay_mult: 0
  }
}
layer {
  name: "Scale12"
  type: "Scale"
  bottom: "Convolution12"
  top: "Convolution12"
  scale_param {
    bias_term: true
  }
}
layer {
  name: "Eltwise5"
  type: "Eltwise"
  bottom: "Eltwise4"
  bottom: "Convolution12"
  top: "Eltwise5"
  eltwise_param {
    operation: SUM
  }
}
layer {
  name: "ReLU11"
  type: "ReLU"
  bottom: "Eltwise5"
  top: "Eltwise5"
}
layer {
  name: "Convolution13"
  type: "Convolution"
  bottom: "Eltwise5"
  top: "Convolution13"
  param {
    lr_mult: 1
    decay_mult: 1
  }
  param {
    lr_mult: 2
    decay_mult: 0
  }
  convolution_param {
    num_output: 32
    pad: 1
    kernel_size: 3
    stride: 1
    weight_filler {
      type: "gaussian"
      std: 0.083
    }
    bias_filler {
      type: "constant"
      value: 0
    }
  }
}
layer {
  name: "BatchNorm13"
  type: "BatchNorm"
  bottom: "Convolution13"
  top: "Convolution13"
  param {
    lr_mult: 0
    decay_mult: 0
  }
  param {
    lr_mult: 0
    decay_mult: 0
  }
  param {
    lr_mult: 0
    decay_mult: 0
  }
}
layer {
  name: "Scale13"
  type: "Scale"
  bottom: "Convolution13"
  top: "Convolution13"
  scale_param {
    bias_term: true
  }
}
layer {
  name: "ReLU12"
  type: "ReLU"
  bottom: "Convolution13"
  top: "Convolution13"
}
layer {
  name: "Convolution14"
  type: "Convolution"
  bottom: "Convolution13"
  top: "Convolution14"
  param {
    lr_mult: 1
    decay_mult: 1
  }
  param {
    lr_mult: 2
    decay_mult: 0
  }
  convolution_param {
    num_output: 32
    pad: 1
    kernel_size: 3
    stride: 1
    weight_filler {
      type: "gaussian"
      std: 0.083
    }
    bias_filler {
      type: "constant"
      value: 0
    }
  }
}
layer {
  name: "BatchNorm14"
  type: "BatchNorm"
  bottom: "Convolution14"
  top: "Convolution14"
  param {
    lr_mult: 0
    decay_mult: 0
  }
  param {
    lr_mult: 0
    decay_mult: 0
  }
  param {
    lr_mult: 0
    decay_mult: 0
  }
}
layer {
  name: "Scale14"
  type: "Scale"
  bottom: "Convolution14"
  top: "Convolution14"
  scale_param {
    bias_term: true
  }
}
layer {
  name: "Eltwise6"
  type: "Eltwise"
  bottom: "Eltwise5"
  bottom: "Convolution14"
  top: "Eltwise6"
  eltwise_param {
    operation: SUM
  }
}
layer {
  name: "ReLU13"
  type: "ReLU"
  bottom: "Eltwise6"
  top: "Eltwise6"
}
layer {
  name: "Convolution15"
  type: "Convolution"
  bottom: "Eltwise6"
  top: "Convolution15"
  param {
    lr_mult: 1
    decay_mult: 1
  }
  param {
    lr_mult: 2
    decay_mult: 0
  }
  convolution_param {
    num_output: 64
    pad: 0
    kernel_size: 1
    stride: 2
    weight_filler {
      type: "gaussian"
      std: 0.17677669
    }
    bias_filler {
      type: "constant"
      value: 0
    }
  }
}
layer {
  name: "BatchNorm15"
  type: "BatchNorm"
  bottom: "Convolution15"
  top: "Convolution15"
  param {
    lr_mult: 0
    decay_mult: 0
  }
  param {
    lr_mult: 0
    decay_mult: 0
  }
  param {
    lr_mult: 0
    decay_mult: 0
  }
}
layer {
  name: "Scale15"
  type: "Scale"
  bottom: "Convolution15"
  top: "Convolution15"
  scale_param {
    bias_term: true
  }
}
layer {
  name: "Convolution16"
  type: "Convolution"
  bottom: "Eltwise6"
  top: "Convolution16"
  param {
    lr_mult: 1
    decay_mult: 1
  }
  param {
    lr_mult: 2
    decay_mult: 0
  }
  convolution_param {
    num_output: 64
    pad: 1
    kernel_size: 3
    stride: 2
    weight_filler {
      type: "gaussian"
      std: 0.059
    }
    bias_filler {
      type: "constant"
      value: 0
    }
  }
}
layer {
  name: "BatchNorm16"
  type: "BatchNorm"
  bottom: "Convolution16"
  top: "Convolution16"
  param {
    lr_mult: 0
    decay_mult: 0
  }
  param {
    lr_mult: 0
    decay_mult: 0
  }
  param {
    lr_mult: 0
    decay_mult: 0
  }
}
layer {
  name: "Scale16"
  type: "Scale"
  bottom: "Convolution16"
  top: "Convolution16"
  scale_param {
    bias_term: true
  }
}
layer {
  name: "ReLU14"
  type: "ReLU"
  bottom: "Convolution16"
  top: "Convolution16"
}
layer {
  name: "Convolution17"
  type: "Convolution"
  bottom: "Convolution16"
  top: "Convolution17"
  param {
    lr_mult: 1
    decay_mult: 1
  }
  param {
    lr_mult: 2
    decay_mult: 0
  }
  convolution_param {
    num_output: 64
    pad: 1
    kernel_size: 3
    stride: 1
    weight_filler {
      type: "gaussian"
      std: 0.059
    }
    bias_filler {
      type: "constant"
      value: 0
    }
  }
}
layer {
  name: "BatchNorm17"
  type: "BatchNorm"
  bottom: "Convolution17"
  top: "Convolution17"
  param {
    lr_mult: 0
    decay_mult: 0
  }
  param {
    lr_mult: 0
    decay_mult: 0
  }
  param {
    lr_mult: 0
    decay_mult: 0
  }
}
layer {
  name: "Scale17"
  type: "Scale"
  bottom: "Convolution17"
  top: "Convolution17"
  scale_param {
    bias_term: true
  }
}
layer {
  name: "Eltwise7"
  type: "Eltwise"
  bottom: "Convolution15"
  bottom: "Convolution17"
  top: "Eltwise7"
  eltwise_param {
    operation: SUM
  }
}
layer {
  name: "ReLU15"
  type: "ReLU"
  bottom: "Eltwise7"
  top: "Eltwise7"
}
layer {
  name: "Convolution18"
  type: "Convolution"
  bottom: "Eltwise7"
  top: "Convolution18"
  param {
    lr_mult: 1
    decay_mult: 1
  }
  param {
    lr_mult: 2
    decay_mult: 0
  }
  convolution_param {
    num_output: 64
    pad: 1
    kernel_size: 3
    stride: 1
    weight_filler {
      type: "gaussian"
      std: 0.059
    }
    bias_filler {
      type: "constant"
      value: 0
    }
  }
}
layer {
  name: "BatchNorm18"
  type: "BatchNorm"
  bottom: "Convolution18"
  top: "Convolution18"
  param {
    lr_mult: 0
    decay_mult: 0
  }
  param {
    lr_mult: 0
    decay_mult: 0
  }
  param {
    lr_mult: 0
    decay_mult: 0
  }
}
layer {
  name: "Scale18"
  type: "Scale"
  bottom: "Convolution18"
  top: "Convolution18"
  scale_param {
    bias_term: true
  }
}
layer {
  name: "ReLU16"
  type: "ReLU"
  bottom: "Convolution18"
  top: "Convolution18"
}
layer {
  name: "Convolution19"
  type: "Convolution"
  bottom: "Convolution18"
  top: "Convolution19"
  param {
    lr_mult: 1
    decay_mult: 1
  }
  param {
    lr_mult: 2
    decay_mult: 0
  }
  convolution_param {
    num_output: 64
    pad: 1
    kernel_size: 3
    stride: 1
    weight_filler {
      type: "gaussian"
      std: 0.059
    }
    bias_filler {
      type: "constant"
      value: 0
    }
  }
}
layer {
  name: "BatchNorm19"
  type: "BatchNorm"
  bottom: "Convolution19"
  top: "Convolution19"
  param {
    lr_mult: 0
    decay_mult: 0
  }
  param {
    lr_mult: 0
    decay_mult: 0
  }
  param {
    lr_mult: 0
    decay_mult: 0
  }
}
layer {
  name: "Scale19"
  type: "Scale"
  bottom: "Convolution19"
  top: "Convolution19"
  scale_param {
    bias_term: true
  }
}
layer {
  name: "Eltwise8"
  type: "Eltwise"
  bottom: "Eltwise7"
  bottom: "Convolution19"
  top: "Eltwise8"
  eltwise_param {
    operation: SUM
  }
}
layer {
  name: "ReLU17"
  type: "ReLU"
  bottom: "Eltwise8"
  top: "Eltwise8"
}
layer {
  name: "Convolution20"
  type: "Convolution"
  bottom: "Eltwise8"
  top: "Convolution20"
  param {
    lr_mult: 1
    decay_mult: 1
  }
  param {
    lr_mult: 2
    decay_mult: 0
  }
  convolution_param {
    num_output: 64
    pad: 1
    kernel_size: 3
    stride: 1
    weight_filler {
      type: "gaussian"
      std: 0.059
    }
    bias_filler {
      type: "constant"
      value: 0
    }
  }
}
layer {
  name: "BatchNorm20"
  type: "BatchNorm"
  bottom: "Convolution20"
  top: "Convolution20"
  param {
    lr_mult: 0
    decay_mult: 0
  }
  param {
    lr_mult: 0
    decay_mult: 0
  }
  param {
    lr_mult: 0
    decay_mult: 0
  }
}
layer {
  name: "Scale20"
  type: "Scale"
  bottom: "Convolution20"
  top: "Convolution20"
  scale_param {
    bias_term: true
  }
}
layer {
  name: "ReLU18"
  type: "ReLU"
  bottom: "Convolution20"
  top: "Convolution20"
}
layer {
  name: "Convolution21"
  type: "Convolution"
  bottom: "Convolution20"
  top: "Convolution21"
  param {
    lr_mult: 1
    decay_mult: 1
  }
  param {
    lr_mult: 2
    decay_mult: 0
  }
  convolution_param {
    num_output: 64
    pad: 1
    kernel_size: 3
    stride: 1
    weight_filler {
      type: "gaussian"
      std: 0.059
    }
    bias_filler {
      type: "constant"
      value: 0
    }
  }
}
layer {
  name: "BatchNorm21"
  type: "BatchNorm"
  bottom: "Convolution21"
  top: "Convolution21"
  param {
    lr_mult: 0
    decay_mult: 0
  }
  param {
    lr_mult: 0
    decay_mult: 0
  }
  param {
    lr_mult: 0
    decay_mult: 0
  }
}
layer {
  name: "Scale21"
  type: "Scale"
  bottom: "Convolution21"
  top: "Convolution21"
  scale_param {
    bias_term: true
  }
}
layer {
  name: "Eltwise9"
  type: "Eltwise"
  bottom: "Eltwise8"
  bottom: "Convolution21"
  top: "Eltwise9"
  eltwise_param {
    operation: SUM
  }
}
layer {
  name: "ReLU19"
  type: "ReLU"
  bottom: "Eltwise9"
  top: "Eltwise9"
}
layer {
  name: "Pooling1"
  type: "Pooling"
  bottom: "Eltwise9"
  top: "Pooling1"
  pooling_param {
    pool: AVE
    global_pooling: true
  }
}
layer {
  name: "InnerProduct1"
  type: "InnerProduct"
  bottom: "Pooling1"
  top: "InnerProduct1"
  param {
    lr_mult: 1
    decay_mult: 1
  }
  param {
    lr_mult: 2
    decay_mult: 1
  }
  inner_product_param {
    num_output: 4
    weight_filler {
      type: "gaussian"
      std: 0.01
    }
    bias_filler {
      type: "constant"
      value: 0
    }
  }
}
layer {
  name: "SoftmaxWithLoss1"
  type: "SoftmaxWithLoss"
  bottom: "InnerProduct1"
  bottom: "Data2"
  top: "SoftmaxWithLoss1"
}
layer {
  name: "Accuracy1"
  type: "Accuracy"
  bottom: "InnerProduct1"
  bottom: "Data2"
  top: "Accuracy1"
  include {
    phase: TEST
  }
}
I1022 19:29:09.361057  3845 layer_factory.hpp:77] Creating layer Data1
I1022 19:29:09.361093  3845 db_lmdb.cpp:35] Opened lmdb /home/x306/caffe/xn/English_orange/data/val1_lmdb
I1022 19:29:09.361102  3845 net.cpp:84] Creating Layer Data1
I1022 19:29:09.361106  3845 net.cpp:380] Data1 -> Data1
I1022 19:29:09.361112  3845 net.cpp:380] Data1 -> Data2
I1022 19:29:09.361117  3845 data_transformer.cpp:25] Loading mean file from: /home/x306/caffe/xn/English_orange/data/orange1_mean.binaryproto
I1022 19:29:09.362309  3845 data_layer.cpp:45] output data size: 8,3,224,224
I1022 19:29:09.370290  3845 net.cpp:122] Setting up Data1
I1022 19:29:09.370311  3845 net.cpp:129] Top shape: 8 3 224 224 (1204224)
I1022 19:29:09.370316  3845 net.cpp:129] Top shape: 8 (8)
I1022 19:29:09.370317  3845 net.cpp:137] Memory required for data: 4816928
I1022 19:29:09.370322  3845 layer_factory.hpp:77] Creating layer Data2_Data1_1_split
I1022 19:29:09.370332  3845 net.cpp:84] Creating Layer Data2_Data1_1_split
I1022 19:29:09.370335  3845 net.cpp:406] Data2_Data1_1_split <- Data2
I1022 19:29:09.370340  3845 net.cpp:380] Data2_Data1_1_split -> Data2_Data1_1_split_0
I1022 19:29:09.370347  3845 net.cpp:380] Data2_Data1_1_split -> Data2_Data1_1_split_1
I1022 19:29:09.370398  3845 net.cpp:122] Setting up Data2_Data1_1_split
I1022 19:29:09.370402  3845 net.cpp:129] Top shape: 8 (8)
I1022 19:29:09.370405  3845 net.cpp:129] Top shape: 8 (8)
I1022 19:29:09.370407  3845 net.cpp:137] Memory required for data: 4816992
I1022 19:29:09.370410  3845 layer_factory.hpp:77] Creating layer Convolution1
I1022 19:29:09.370419  3845 net.cpp:84] Creating Layer Convolution1
I1022 19:29:09.370421  3845 net.cpp:406] Convolution1 <- Data1
I1022 19:29:09.370425  3845 net.cpp:380] Convolution1 -> Convolution1
I1022 19:29:09.371814  3845 net.cpp:122] Setting up Convolution1
I1022 19:29:09.371824  3845 net.cpp:129] Top shape: 8 16 224 224 (6422528)
I1022 19:29:09.371826  3845 net.cpp:137] Memory required for data: 30507104
I1022 19:29:09.371834  3845 layer_factory.hpp:77] Creating layer BatchNorm1
I1022 19:29:09.371840  3845 net.cpp:84] Creating Layer BatchNorm1
I1022 19:29:09.371842  3845 net.cpp:406] BatchNorm1 <- Convolution1
I1022 19:29:09.371846  3845 net.cpp:367] BatchNorm1 -> Convolution1 (in-place)
I1022 19:29:09.372035  3845 net.cpp:122] Setting up BatchNorm1
I1022 19:29:09.372042  3845 net.cpp:129] Top shape: 8 16 224 224 (6422528)
I1022 19:29:09.372058  3845 net.cpp:137] Memory required for data: 56197216
I1022 19:29:09.372067  3845 layer_factory.hpp:77] Creating layer Scale1
I1022 19:29:09.372073  3845 net.cpp:84] Creating Layer Scale1
I1022 19:29:09.372076  3845 net.cpp:406] Scale1 <- Convolution1
I1022 19:29:09.372081  3845 net.cpp:367] Scale1 -> Convolution1 (in-place)
I1022 19:29:09.372112  3845 layer_factory.hpp:77] Creating layer Scale1
I1022 19:29:09.372256  3845 net.cpp:122] Setting up Scale1
I1022 19:29:09.372261  3845 net.cpp:129] Top shape: 8 16 224 224 (6422528)
I1022 19:29:09.372262  3845 net.cpp:137] Memory required for data: 81887328
I1022 19:29:09.372267  3845 layer_factory.hpp:77] Creating layer ReLU1
I1022 19:29:09.372272  3845 net.cpp:84] Creating Layer ReLU1
I1022 19:29:09.372274  3845 net.cpp:406] ReLU1 <- Convolution1
I1022 19:29:09.372277  3845 net.cpp:367] ReLU1 -> Convolution1 (in-place)
I1022 19:29:09.372421  3845 net.cpp:122] Setting up ReLU1
I1022 19:29:09.372428  3845 net.cpp:129] Top shape: 8 16 224 224 (6422528)
I1022 19:29:09.372431  3845 net.cpp:137] Memory required for data: 107577440
I1022 19:29:09.372433  3845 layer_factory.hpp:77] Creating layer Convolution1_ReLU1_0_split
I1022 19:29:09.372437  3845 net.cpp:84] Creating Layer Convolution1_ReLU1_0_split
I1022 19:29:09.372440  3845 net.cpp:406] Convolution1_ReLU1_0_split <- Convolution1
I1022 19:29:09.372443  3845 net.cpp:380] Convolution1_ReLU1_0_split -> Convolution1_ReLU1_0_split_0
I1022 19:29:09.372448  3845 net.cpp:380] Convolution1_ReLU1_0_split -> Convolution1_ReLU1_0_split_1
I1022 19:29:09.372478  3845 net.cpp:122] Setting up Convolution1_ReLU1_0_split
I1022 19:29:09.372483  3845 net.cpp:129] Top shape: 8 16 224 224 (6422528)
I1022 19:29:09.372486  3845 net.cpp:129] Top shape: 8 16 224 224 (6422528)
I1022 19:29:09.372488  3845 net.cpp:137] Memory required for data: 158957664
I1022 19:29:09.372490  3845 layer_factory.hpp:77] Creating layer Convolution2
I1022 19:29:09.372498  3845 net.cpp:84] Creating Layer Convolution2
I1022 19:29:09.372500  3845 net.cpp:406] Convolution2 <- Convolution1_ReLU1_0_split_0
I1022 19:29:09.372504  3845 net.cpp:380] Convolution2 -> Convolution2
I1022 19:29:09.373477  3845 net.cpp:122] Setting up Convolution2
I1022 19:29:09.373486  3845 net.cpp:129] Top shape: 8 16 224 224 (6422528)
I1022 19:29:09.373488  3845 net.cpp:137] Memory required for data: 184647776
I1022 19:29:09.373495  3845 layer_factory.hpp:77] Creating layer BatchNorm2
I1022 19:29:09.373500  3845 net.cpp:84] Creating Layer BatchNorm2
I1022 19:29:09.373503  3845 net.cpp:406] BatchNorm2 <- Convolution2
I1022 19:29:09.373507  3845 net.cpp:367] BatchNorm2 -> Convolution2 (in-place)
I1022 19:29:09.373669  3845 net.cpp:122] Setting up BatchNorm2
I1022 19:29:09.373674  3845 net.cpp:129] Top shape: 8 16 224 224 (6422528)
I1022 19:29:09.373677  3845 net.cpp:137] Memory required for data: 210337888
I1022 19:29:09.373682  3845 layer_factory.hpp:77] Creating layer Scale2
I1022 19:29:09.373685  3845 net.cpp:84] Creating Layer Scale2
I1022 19:29:09.373687  3845 net.cpp:406] Scale2 <- Convolution2
I1022 19:29:09.373692  3845 net.cpp:367] Scale2 -> Convolution2 (in-place)
I1022 19:29:09.373718  3845 layer_factory.hpp:77] Creating layer Scale2
I1022 19:29:09.373857  3845 net.cpp:122] Setting up Scale2
I1022 19:29:09.373862  3845 net.cpp:129] Top shape: 8 16 224 224 (6422528)
I1022 19:29:09.373864  3845 net.cpp:137] Memory required for data: 236028000
I1022 19:29:09.373868  3845 layer_factory.hpp:77] Creating layer ReLU2
I1022 19:29:09.373872  3845 net.cpp:84] Creating Layer ReLU2
I1022 19:29:09.373874  3845 net.cpp:406] ReLU2 <- Convolution2
I1022 19:29:09.373878  3845 net.cpp:367] ReLU2 -> Convolution2 (in-place)
I1022 19:29:09.373993  3845 net.cpp:122] Setting up ReLU2
I1022 19:29:09.373999  3845 net.cpp:129] Top shape: 8 16 224 224 (6422528)
I1022 19:29:09.374001  3845 net.cpp:137] Memory required for data: 261718112
I1022 19:29:09.374003  3845 layer_factory.hpp:77] Creating layer Convolution3
I1022 19:29:09.374009  3845 net.cpp:84] Creating Layer Convolution3
I1022 19:29:09.374020  3845 net.cpp:406] Convolution3 <- Convolution2
I1022 19:29:09.374024  3845 net.cpp:380] Convolution3 -> Convolution3
I1022 19:29:09.375598  3845 net.cpp:122] Setting up Convolution3
I1022 19:29:09.375610  3845 net.cpp:129] Top shape: 8 16 224 224 (6422528)
I1022 19:29:09.375612  3845 net.cpp:137] Memory required for data: 287408224
I1022 19:29:09.375618  3845 layer_factory.hpp:77] Creating layer BatchNorm3
I1022 19:29:09.375624  3845 net.cpp:84] Creating Layer BatchNorm3
I1022 19:29:09.375627  3845 net.cpp:406] BatchNorm3 <- Convolution3
I1022 19:29:09.375630  3845 net.cpp:367] BatchNorm3 -> Convolution3 (in-place)
I1022 19:29:09.375809  3845 net.cpp:122] Setting up BatchNorm3
I1022 19:29:09.375814  3845 net.cpp:129] Top shape: 8 16 224 224 (6422528)
I1022 19:29:09.375816  3845 net.cpp:137] Memory required for data: 313098336
I1022 19:29:09.375825  3845 layer_factory.hpp:77] Creating layer Scale3
I1022 19:29:09.375830  3845 net.cpp:84] Creating Layer Scale3
I1022 19:29:09.375833  3845 net.cpp:406] Scale3 <- Convolution3
I1022 19:29:09.375835  3845 net.cpp:367] Scale3 -> Convolution3 (in-place)
I1022 19:29:09.375867  3845 layer_factory.hpp:77] Creating layer Scale3
I1022 19:29:09.376013  3845 net.cpp:122] Setting up Scale3
I1022 19:29:09.376019  3845 net.cpp:129] Top shape: 8 16 224 224 (6422528)
I1022 19:29:09.376021  3845 net.cpp:137] Memory required for data: 338788448
I1022 19:29:09.376025  3845 layer_factory.hpp:77] Creating layer Eltwise1
I1022 19:29:09.376030  3845 net.cpp:84] Creating Layer Eltwise1
I1022 19:29:09.376034  3845 net.cpp:406] Eltwise1 <- Convolution1_ReLU1_0_split_1
I1022 19:29:09.376036  3845 net.cpp:406] Eltwise1 <- Convolution3
I1022 19:29:09.376040  3845 net.cpp:380] Eltwise1 -> Eltwise1
I1022 19:29:09.376060  3845 net.cpp:122] Setting up Eltwise1
I1022 19:29:09.376063  3845 net.cpp:129] Top shape: 8 16 224 224 (6422528)
I1022 19:29:09.376065  3845 net.cpp:137] Memory required for data: 364478560
I1022 19:29:09.376067  3845 layer_factory.hpp:77] Creating layer ReLU3
I1022 19:29:09.376071  3845 net.cpp:84] Creating Layer ReLU3
I1022 19:29:09.376075  3845 net.cpp:406] ReLU3 <- Eltwise1
I1022 19:29:09.376077  3845 net.cpp:367] ReLU3 -> Eltwise1 (in-place)
I1022 19:29:09.376221  3845 net.cpp:122] Setting up ReLU3
I1022 19:29:09.376227  3845 net.cpp:129] Top shape: 8 16 224 224 (6422528)
I1022 19:29:09.376230  3845 net.cpp:137] Memory required for data: 390168672
I1022 19:29:09.376231  3845 layer_factory.hpp:77] Creating layer Eltwise1_ReLU3_0_split
I1022 19:29:09.376238  3845 net.cpp:84] Creating Layer Eltwise1_ReLU3_0_split
I1022 19:29:09.376241  3845 net.cpp:406] Eltwise1_ReLU3_0_split <- Eltwise1
I1022 19:29:09.376245  3845 net.cpp:380] Eltwise1_ReLU3_0_split -> Eltwise1_ReLU3_0_split_0
I1022 19:29:09.376255  3845 net.cpp:380] Eltwise1_ReLU3_0_split -> Eltwise1_ReLU3_0_split_1
I1022 19:29:09.376284  3845 net.cpp:122] Setting up Eltwise1_ReLU3_0_split
I1022 19:29:09.376288  3845 net.cpp:129] Top shape: 8 16 224 224 (6422528)
I1022 19:29:09.376291  3845 net.cpp:129] Top shape: 8 16 224 224 (6422528)
I1022 19:29:09.376293  3845 net.cpp:137] Memory required for data: 441548896
I1022 19:29:09.376296  3845 layer_factory.hpp:77] Creating layer Convolution4
I1022 19:29:09.376302  3845 net.cpp:84] Creating Layer Convolution4
I1022 19:29:09.376305  3845 net.cpp:406] Convolution4 <- Eltwise1_ReLU3_0_split_0
I1022 19:29:09.376315  3845 net.cpp:380] Convolution4 -> Convolution4
I1022 19:29:09.377825  3845 net.cpp:122] Setting up Convolution4
I1022 19:29:09.377835  3845 net.cpp:129] Top shape: 8 16 224 224 (6422528)
I1022 19:29:09.377837  3845 net.cpp:137] Memory required for data: 467239008
I1022 19:29:09.377842  3845 layer_factory.hpp:77] Creating layer BatchNorm4
I1022 19:29:09.377847  3845 net.cpp:84] Creating Layer BatchNorm4
I1022 19:29:09.377851  3845 net.cpp:406] BatchNorm4 <- Convolution4
I1022 19:29:09.377854  3845 net.cpp:367] BatchNorm4 -> Convolution4 (in-place)
I1022 19:29:09.378026  3845 net.cpp:122] Setting up BatchNorm4
I1022 19:29:09.378031  3845 net.cpp:129] Top shape: 8 16 224 224 (6422528)
I1022 19:29:09.378042  3845 net.cpp:137] Memory required for data: 492929120
I1022 19:29:09.378048  3845 layer_factory.hpp:77] Creating layer Scale4
I1022 19:29:09.378052  3845 net.cpp:84] Creating Layer Scale4
I1022 19:29:09.378056  3845 net.cpp:406] Scale4 <- Convolution4
I1022 19:29:09.378058  3845 net.cpp:367] Scale4 -> Convolution4 (in-place)
I1022 19:29:09.378090  3845 layer_factory.hpp:77] Creating layer Scale4
I1022 19:29:09.378229  3845 net.cpp:122] Setting up Scale4
I1022 19:29:09.378234  3845 net.cpp:129] Top shape: 8 16 224 224 (6422528)
I1022 19:29:09.378237  3845 net.cpp:137] Memory required for data: 518619232
I1022 19:29:09.378240  3845 layer_factory.hpp:77] Creating layer ReLU4
I1022 19:29:09.378243  3845 net.cpp:84] Creating Layer ReLU4
I1022 19:29:09.378247  3845 net.cpp:406] ReLU4 <- Convolution4
I1022 19:29:09.378249  3845 net.cpp:367] ReLU4 -> Convolution4 (in-place)
I1022 19:29:09.378366  3845 net.cpp:122] Setting up ReLU4
I1022 19:29:09.378372  3845 net.cpp:129] Top shape: 8 16 224 224 (6422528)
I1022 19:29:09.378374  3845 net.cpp:137] Memory required for data: 544309344
I1022 19:29:09.378377  3845 layer_factory.hpp:77] Creating layer Convolution5
I1022 19:29:09.378389  3845 net.cpp:84] Creating Layer Convolution5
I1022 19:29:09.378391  3845 net.cpp:406] Convolution5 <- Convolution4
I1022 19:29:09.378407  3845 net.cpp:380] Convolution5 -> Convolution5
I1022 19:29:09.379854  3845 net.cpp:122] Setting up Convolution5
I1022 19:29:09.379865  3845 net.cpp:129] Top shape: 8 16 224 224 (6422528)
I1022 19:29:09.379868  3845 net.cpp:137] Memory required for data: 569999456
I1022 19:29:09.379873  3845 layer_factory.hpp:77] Creating layer BatchNorm5
I1022 19:29:09.379878  3845 net.cpp:84] Creating Layer BatchNorm5
I1022 19:29:09.379881  3845 net.cpp:406] BatchNorm5 <- Convolution5
I1022 19:29:09.379885  3845 net.cpp:367] BatchNorm5 -> Convolution5 (in-place)
I1022 19:29:09.380098  3845 net.cpp:122] Setting up BatchNorm5
I1022 19:29:09.380105  3845 net.cpp:129] Top shape: 8 16 224 224 (6422528)
I1022 19:29:09.380107  3845 net.cpp:137] Memory required for data: 595689568
I1022 19:29:09.380117  3845 layer_factory.hpp:77] Creating layer Scale5
I1022 19:29:09.380122  3845 net.cpp:84] Creating Layer Scale5
I1022 19:29:09.380125  3845 net.cpp:406] Scale5 <- Convolution5
I1022 19:29:09.380128  3845 net.cpp:367] Scale5 -> Convolution5 (in-place)
I1022 19:29:09.380161  3845 layer_factory.hpp:77] Creating layer Scale5
I1022 19:29:09.380818  3845 net.cpp:122] Setting up Scale5
I1022 19:29:09.380827  3845 net.cpp:129] Top shape: 8 16 224 224 (6422528)
I1022 19:29:09.380831  3845 net.cpp:137] Memory required for data: 621379680
I1022 19:29:09.380834  3845 layer_factory.hpp:77] Creating layer Eltwise2
I1022 19:29:09.380841  3845 net.cpp:84] Creating Layer Eltwise2
I1022 19:29:09.380842  3845 net.cpp:406] Eltwise2 <- Eltwise1_ReLU3_0_split_1
I1022 19:29:09.380846  3845 net.cpp:406] Eltwise2 <- Convolution5
I1022 19:29:09.380849  3845 net.cpp:380] Eltwise2 -> Eltwise2
I1022 19:29:09.380869  3845 net.cpp:122] Setting up Eltwise2
I1022 19:29:09.380873  3845 net.cpp:129] Top shape: 8 16 224 224 (6422528)
I1022 19:29:09.380875  3845 net.cpp:137] Memory required for data: 647069792
I1022 19:29:09.380877  3845 layer_factory.hpp:77] Creating layer ReLU5
I1022 19:29:09.380882  3845 net.cpp:84] Creating Layer ReLU5
I1022 19:29:09.380883  3845 net.cpp:406] ReLU5 <- Eltwise2
I1022 19:29:09.380887  3845 net.cpp:367] ReLU5 -> Eltwise2 (in-place)
I1022 19:29:09.381407  3845 net.cpp:122] Setting up ReLU5
I1022 19:29:09.381415  3845 net.cpp:129] Top shape: 8 16 224 224 (6422528)
I1022 19:29:09.381417  3845 net.cpp:137] Memory required for data: 672759904
I1022 19:29:09.381420  3845 layer_factory.hpp:77] Creating layer Eltwise2_ReLU5_0_split
I1022 19:29:09.381425  3845 net.cpp:84] Creating Layer Eltwise2_ReLU5_0_split
I1022 19:29:09.381428  3845 net.cpp:406] Eltwise2_ReLU5_0_split <- Eltwise2
I1022 19:29:09.381431  3845 net.cpp:380] Eltwise2_ReLU5_0_split -> Eltwise2_ReLU5_0_split_0
I1022 19:29:09.381435  3845 net.cpp:380] Eltwise2_ReLU5_0_split -> Eltwise2_ReLU5_0_split_1
I1022 19:29:09.381484  3845 net.cpp:122] Setting up Eltwise2_ReLU5_0_split
I1022 19:29:09.381489  3845 net.cpp:129] Top shape: 8 16 224 224 (6422528)
I1022 19:29:09.381491  3845 net.cpp:129] Top shape: 8 16 224 224 (6422528)
I1022 19:29:09.381494  3845 net.cpp:137] Memory required for data: 724140128
I1022 19:29:09.381496  3845 layer_factory.hpp:77] Creating layer Convolution6
I1022 19:29:09.381503  3845 net.cpp:84] Creating Layer Convolution6
I1022 19:29:09.381506  3845 net.cpp:406] Convolution6 <- Eltwise2_ReLU5_0_split_0
I1022 19:29:09.381510  3845 net.cpp:380] Convolution6 -> Convolution6
I1022 19:29:09.382539  3845 net.cpp:122] Setting up Convolution6
I1022 19:29:09.382546  3845 net.cpp:129] Top shape: 8 16 224 224 (6422528)
I1022 19:29:09.382549  3845 net.cpp:137] Memory required for data: 749830240
I1022 19:29:09.382553  3845 layer_factory.hpp:77] Creating layer BatchNorm6
I1022 19:29:09.382558  3845 net.cpp:84] Creating Layer BatchNorm6
I1022 19:29:09.382560  3845 net.cpp:406] BatchNorm6 <- Convolution6
I1022 19:29:09.382565  3845 net.cpp:367] BatchNorm6 -> Convolution6 (in-place)
I1022 19:29:09.382730  3845 net.cpp:122] Setting up BatchNorm6
I1022 19:29:09.382735  3845 net.cpp:129] Top shape: 8 16 224 224 (6422528)
I1022 19:29:09.382737  3845 net.cpp:137] Memory required for data: 775520352
I1022 19:29:09.382742  3845 layer_factory.hpp:77] Creating layer Scale6
I1022 19:29:09.382746  3845 net.cpp:84] Creating Layer Scale6
I1022 19:29:09.382750  3845 net.cpp:406] Scale6 <- Convolution6
I1022 19:29:09.382753  3845 net.cpp:367] Scale6 -> Convolution6 (in-place)
I1022 19:29:09.382786  3845 layer_factory.hpp:77] Creating layer Scale6
I1022 19:29:09.382912  3845 net.cpp:122] Setting up Scale6
I1022 19:29:09.382917  3845 net.cpp:129] Top shape: 8 16 224 224 (6422528)
I1022 19:29:09.382920  3845 net.cpp:137] Memory required for data: 801210464
I1022 19:29:09.382923  3845 layer_factory.hpp:77] Creating layer ReLU6
I1022 19:29:09.382927  3845 net.cpp:84] Creating Layer ReLU6
I1022 19:29:09.382930  3845 net.cpp:406] ReLU6 <- Convolution6
I1022 19:29:09.382932  3845 net.cpp:367] ReLU6 -> Convolution6 (in-place)
I1022 19:29:09.383397  3845 net.cpp:122] Setting up ReLU6
I1022 19:29:09.383405  3845 net.cpp:129] Top shape: 8 16 224 224 (6422528)
I1022 19:29:09.383407  3845 net.cpp:137] Memory required for data: 826900576
I1022 19:29:09.383410  3845 layer_factory.hpp:77] Creating layer Convolution7
I1022 19:29:09.383416  3845 net.cpp:84] Creating Layer Convolution7
I1022 19:29:09.383419  3845 net.cpp:406] Convolution7 <- Convolution6
I1022 19:29:09.383424  3845 net.cpp:380] Convolution7 -> Convolution7
I1022 19:29:09.384743  3845 net.cpp:122] Setting up Convolution7
I1022 19:29:09.384752  3845 net.cpp:129] Top shape: 8 16 224 224 (6422528)
I1022 19:29:09.384755  3845 net.cpp:137] Memory required for data: 852590688
I1022 19:29:09.384760  3845 layer_factory.hpp:77] Creating layer BatchNorm7
I1022 19:29:09.384768  3845 net.cpp:84] Creating Layer BatchNorm7
I1022 19:29:09.384770  3845 net.cpp:406] BatchNorm7 <- Convolution7
I1022 19:29:09.384774  3845 net.cpp:367] BatchNorm7 -> Convolution7 (in-place)
I1022 19:29:09.384950  3845 net.cpp:122] Setting up BatchNorm7
I1022 19:29:09.384955  3845 net.cpp:129] Top shape: 8 16 224 224 (6422528)
I1022 19:29:09.384958  3845 net.cpp:137] Memory required for data: 878280800
I1022 19:29:09.384963  3845 layer_factory.hpp:77] Creating layer Scale7
I1022 19:29:09.384966  3845 net.cpp:84] Creating Layer Scale7
I1022 19:29:09.384969  3845 net.cpp:406] Scale7 <- Convolution7
I1022 19:29:09.384973  3845 net.cpp:367] Scale7 -> Convolution7 (in-place)
I1022 19:29:09.385001  3845 layer_factory.hpp:77] Creating layer Scale7
I1022 19:29:09.385146  3845 net.cpp:122] Setting up Scale7
I1022 19:29:09.385151  3845 net.cpp:129] Top shape: 8 16 224 224 (6422528)
I1022 19:29:09.385154  3845 net.cpp:137] Memory required for data: 903970912
I1022 19:29:09.385157  3845 layer_factory.hpp:77] Creating layer Eltwise3
I1022 19:29:09.385161  3845 net.cpp:84] Creating Layer Eltwise3
I1022 19:29:09.385175  3845 net.cpp:406] Eltwise3 <- Eltwise2_ReLU5_0_split_1
I1022 19:29:09.385179  3845 net.cpp:406] Eltwise3 <- Convolution7
I1022 19:29:09.385182  3845 net.cpp:380] Eltwise3 -> Eltwise3
I1022 19:29:09.385200  3845 net.cpp:122] Setting up Eltwise3
I1022 19:29:09.385205  3845 net.cpp:129] Top shape: 8 16 224 224 (6422528)
I1022 19:29:09.385206  3845 net.cpp:137] Memory required for data: 929661024
I1022 19:29:09.385210  3845 layer_factory.hpp:77] Creating layer ReLU7
I1022 19:29:09.385212  3845 net.cpp:84] Creating Layer ReLU7
I1022 19:29:09.385215  3845 net.cpp:406] ReLU7 <- Eltwise3
I1022 19:29:09.385217  3845 net.cpp:367] ReLU7 -> Eltwise3 (in-place)
I1022 19:29:09.385342  3845 net.cpp:122] Setting up ReLU7
I1022 19:29:09.385347  3845 net.cpp:129] Top shape: 8 16 224 224 (6422528)
I1022 19:29:09.385350  3845 net.cpp:137] Memory required for data: 955351136
I1022 19:29:09.385352  3845 layer_factory.hpp:77] Creating layer Eltwise3_ReLU7_0_split
I1022 19:29:09.385356  3845 net.cpp:84] Creating Layer Eltwise3_ReLU7_0_split
I1022 19:29:09.385359  3845 net.cpp:406] Eltwise3_ReLU7_0_split <- Eltwise3
I1022 19:29:09.385362  3845 net.cpp:380] Eltwise3_ReLU7_0_split -> Eltwise3_ReLU7_0_split_0
I1022 19:29:09.385366  3845 net.cpp:380] Eltwise3_ReLU7_0_split -> Eltwise3_ReLU7_0_split_1
I1022 19:29:09.385395  3845 net.cpp:122] Setting up Eltwise3_ReLU7_0_split
I1022 19:29:09.385398  3845 net.cpp:129] Top shape: 8 16 224 224 (6422528)
I1022 19:29:09.385401  3845 net.cpp:129] Top shape: 8 16 224 224 (6422528)
I1022 19:29:09.385403  3845 net.cpp:137] Memory required for data: 1006731360
I1022 19:29:09.385406  3845 layer_factory.hpp:77] Creating layer Convolution8
I1022 19:29:09.385412  3845 net.cpp:84] Creating Layer Convolution8
I1022 19:29:09.385414  3845 net.cpp:406] Convolution8 <- Eltwise3_ReLU7_0_split_0
I1022 19:29:09.385418  3845 net.cpp:380] Convolution8 -> Convolution8
I1022 19:29:09.386409  3845 net.cpp:122] Setting up Convolution8
I1022 19:29:09.386417  3845 net.cpp:129] Top shape: 8 32 112 112 (3211264)
I1022 19:29:09.386420  3845 net.cpp:137] Memory required for data: 1019576416
I1022 19:29:09.386425  3845 layer_factory.hpp:77] Creating layer BatchNorm8
I1022 19:29:09.386431  3845 net.cpp:84] Creating Layer BatchNorm8
I1022 19:29:09.386435  3845 net.cpp:406] BatchNorm8 <- Convolution8
I1022 19:29:09.386440  3845 net.cpp:367] BatchNorm8 -> Convolution8 (in-place)
I1022 19:29:09.386602  3845 net.cpp:122] Setting up BatchNorm8
I1022 19:29:09.386606  3845 net.cpp:129] Top shape: 8 32 112 112 (3211264)
I1022 19:29:09.386608  3845 net.cpp:137] Memory required for data: 1032421472
I1022 19:29:09.386613  3845 layer_factory.hpp:77] Creating layer Scale8
I1022 19:29:09.386618  3845 net.cpp:84] Creating Layer Scale8
I1022 19:29:09.386621  3845 net.cpp:406] Scale8 <- Convolution8
I1022 19:29:09.386624  3845 net.cpp:367] Scale8 -> Convolution8 (in-place)
I1022 19:29:09.386656  3845 layer_factory.hpp:77] Creating layer Scale8
I1022 19:29:09.386765  3845 net.cpp:122] Setting up Scale8
I1022 19:29:09.386770  3845 net.cpp:129] Top shape: 8 32 112 112 (3211264)
I1022 19:29:09.386772  3845 net.cpp:137] Memory required for data: 1045266528
I1022 19:29:09.386776  3845 layer_factory.hpp:77] Creating layer Convolution9
I1022 19:29:09.386785  3845 net.cpp:84] Creating Layer Convolution9
I1022 19:29:09.386786  3845 net.cpp:406] Convolution9 <- Eltwise3_ReLU7_0_split_1
I1022 19:29:09.386791  3845 net.cpp:380] Convolution9 -> Convolution9
I1022 19:29:09.388219  3845 net.cpp:122] Setting up Convolution9
I1022 19:29:09.388229  3845 net.cpp:129] Top shape: 8 32 112 112 (3211264)
I1022 19:29:09.388232  3845 net.cpp:137] Memory required for data: 1058111584
I1022 19:29:09.388236  3845 layer_factory.hpp:77] Creating layer BatchNorm9
I1022 19:29:09.388242  3845 net.cpp:84] Creating Layer BatchNorm9
I1022 19:29:09.388244  3845 net.cpp:406] BatchNorm9 <- Convolution9
I1022 19:29:09.388248  3845 net.cpp:367] BatchNorm9 -> Convolution9 (in-place)
I1022 19:29:09.388404  3845 net.cpp:122] Setting up BatchNorm9
I1022 19:29:09.388417  3845 net.cpp:129] Top shape: 8 32 112 112 (3211264)
I1022 19:29:09.388419  3845 net.cpp:137] Memory required for data: 1070956640
I1022 19:29:09.388424  3845 layer_factory.hpp:77] Creating layer Scale9
I1022 19:29:09.388428  3845 net.cpp:84] Creating Layer Scale9
I1022 19:29:09.388430  3845 net.cpp:406] Scale9 <- Convolution9
I1022 19:29:09.388434  3845 net.cpp:367] Scale9 -> Convolution9 (in-place)
I1022 19:29:09.388464  3845 layer_factory.hpp:77] Creating layer Scale9
I1022 19:29:09.388562  3845 net.cpp:122] Setting up Scale9
I1022 19:29:09.388567  3845 net.cpp:129] Top shape: 8 32 112 112 (3211264)
I1022 19:29:09.388569  3845 net.cpp:137] Memory required for data: 1083801696
I1022 19:29:09.388573  3845 layer_factory.hpp:77] Creating layer ReLU8
I1022 19:29:09.388577  3845 net.cpp:84] Creating Layer ReLU8
I1022 19:29:09.388579  3845 net.cpp:406] ReLU8 <- Convolution9
I1022 19:29:09.388583  3845 net.cpp:367] ReLU8 -> Convolution9 (in-place)
I1022 19:29:09.388708  3845 net.cpp:122] Setting up ReLU8
I1022 19:29:09.388715  3845 net.cpp:129] Top shape: 8 32 112 112 (3211264)
I1022 19:29:09.388716  3845 net.cpp:137] Memory required for data: 1096646752
I1022 19:29:09.388718  3845 layer_factory.hpp:77] Creating layer Convolution10
I1022 19:29:09.388725  3845 net.cpp:84] Creating Layer Convolution10
I1022 19:29:09.388727  3845 net.cpp:406] Convolution10 <- Convolution9
I1022 19:29:09.388732  3845 net.cpp:380] Convolution10 -> Convolution10
I1022 19:29:09.391058  3845 net.cpp:122] Setting up Convolution10
I1022 19:29:09.391070  3845 net.cpp:129] Top shape: 8 32 112 112 (3211264)
I1022 19:29:09.391073  3845 net.cpp:137] Memory required for data: 1109491808
I1022 19:29:09.391088  3845 layer_factory.hpp:77] Creating layer BatchNorm10
I1022 19:29:09.391096  3845 net.cpp:84] Creating Layer BatchNorm10
I1022 19:29:09.391099  3845 net.cpp:406] BatchNorm10 <- Convolution10
I1022 19:29:09.391103  3845 net.cpp:367] BatchNorm10 -> Convolution10 (in-place)
I1022 19:29:09.391269  3845 net.cpp:122] Setting up BatchNorm10
I1022 19:29:09.391274  3845 net.cpp:129] Top shape: 8 32 112 112 (3211264)
I1022 19:29:09.391276  3845 net.cpp:137] Memory required for data: 1122336864
I1022 19:29:09.391281  3845 layer_factory.hpp:77] Creating layer Scale10
I1022 19:29:09.391288  3845 net.cpp:84] Creating Layer Scale10
I1022 19:29:09.391290  3845 net.cpp:406] Scale10 <- Convolution10
I1022 19:29:09.391294  3845 net.cpp:367] Scale10 -> Convolution10 (in-place)
I1022 19:29:09.391330  3845 layer_factory.hpp:77] Creating layer Scale10
I1022 19:29:09.391429  3845 net.cpp:122] Setting up Scale10
I1022 19:29:09.391434  3845 net.cpp:129] Top shape: 8 32 112 112 (3211264)
I1022 19:29:09.391436  3845 net.cpp:137] Memory required for data: 1135181920
I1022 19:29:09.391439  3845 layer_factory.hpp:77] Creating layer Eltwise4
I1022 19:29:09.391445  3845 net.cpp:84] Creating Layer Eltwise4
I1022 19:29:09.391448  3845 net.cpp:406] Eltwise4 <- Convolution8
I1022 19:29:09.391450  3845 net.cpp:406] Eltwise4 <- Convolution10
I1022 19:29:09.391455  3845 net.cpp:380] Eltwise4 -> Eltwise4
I1022 19:29:09.391474  3845 net.cpp:122] Setting up Eltwise4
I1022 19:29:09.391479  3845 net.cpp:129] Top shape: 8 32 112 112 (3211264)
I1022 19:29:09.391481  3845 net.cpp:137] Memory required for data: 1148026976
I1022 19:29:09.391484  3845 layer_factory.hpp:77] Creating layer ReLU9
I1022 19:29:09.391487  3845 net.cpp:84] Creating Layer ReLU9
I1022 19:29:09.391489  3845 net.cpp:406] ReLU9 <- Eltwise4
I1022 19:29:09.391492  3845 net.cpp:367] ReLU9 -> Eltwise4 (in-place)
I1022 19:29:09.391626  3845 net.cpp:122] Setting up ReLU9
I1022 19:29:09.391633  3845 net.cpp:129] Top shape: 8 32 112 112 (3211264)
I1022 19:29:09.391635  3845 net.cpp:137] Memory required for data: 1160872032
I1022 19:29:09.391638  3845 layer_factory.hpp:77] Creating layer Eltwise4_ReLU9_0_split
I1022 19:29:09.391643  3845 net.cpp:84] Creating Layer Eltwise4_ReLU9_0_split
I1022 19:29:09.391644  3845 net.cpp:406] Eltwise4_ReLU9_0_split <- Eltwise4
I1022 19:29:09.391647  3845 net.cpp:380] Eltwise4_ReLU9_0_split -> Eltwise4_ReLU9_0_split_0
I1022 19:29:09.391662  3845 net.cpp:380] Eltwise4_ReLU9_0_split -> Eltwise4_ReLU9_0_split_1
I1022 19:29:09.391695  3845 net.cpp:122] Setting up Eltwise4_ReLU9_0_split
I1022 19:29:09.391700  3845 net.cpp:129] Top shape: 8 32 112 112 (3211264)
I1022 19:29:09.391702  3845 net.cpp:129] Top shape: 8 32 112 112 (3211264)
I1022 19:29:09.391705  3845 net.cpp:137] Memory required for data: 1186562144
I1022 19:29:09.391706  3845 layer_factory.hpp:77] Creating layer Convolution11
I1022 19:29:09.391715  3845 net.cpp:84] Creating Layer Convolution11
I1022 19:29:09.391717  3845 net.cpp:406] Convolution11 <- Eltwise4_ReLU9_0_split_0
I1022 19:29:09.391721  3845 net.cpp:380] Convolution11 -> Convolution11
I1022 19:29:09.392881  3845 net.cpp:122] Setting up Convolution11
I1022 19:29:09.392890  3845 net.cpp:129] Top shape: 8 32 112 112 (3211264)
I1022 19:29:09.392894  3845 net.cpp:137] Memory required for data: 1199407200
I1022 19:29:09.392897  3845 layer_factory.hpp:77] Creating layer BatchNorm11
I1022 19:29:09.392904  3845 net.cpp:84] Creating Layer BatchNorm11
I1022 19:29:09.392905  3845 net.cpp:406] BatchNorm11 <- Convolution11
I1022 19:29:09.392910  3845 net.cpp:367] BatchNorm11 -> Convolution11 (in-place)
I1022 19:29:09.393064  3845 net.cpp:122] Setting up BatchNorm11
I1022 19:29:09.393069  3845 net.cpp:129] Top shape: 8 32 112 112 (3211264)
I1022 19:29:09.393070  3845 net.cpp:137] Memory required for data: 1212252256
I1022 19:29:09.393075  3845 layer_factory.hpp:77] Creating layer Scale11
I1022 19:29:09.393080  3845 net.cpp:84] Creating Layer Scale11
I1022 19:29:09.393084  3845 net.cpp:406] Scale11 <- Convolution11
I1022 19:29:09.393086  3845 net.cpp:367] Scale11 -> Convolution11 (in-place)
I1022 19:29:09.393115  3845 layer_factory.hpp:77] Creating layer Scale11
I1022 19:29:09.393209  3845 net.cpp:122] Setting up Scale11
I1022 19:29:09.393213  3845 net.cpp:129] Top shape: 8 32 112 112 (3211264)
I1022 19:29:09.393215  3845 net.cpp:137] Memory required for data: 1225097312
I1022 19:29:09.393219  3845 layer_factory.hpp:77] Creating layer ReLU10
I1022 19:29:09.393224  3845 net.cpp:84] Creating Layer ReLU10
I1022 19:29:09.393225  3845 net.cpp:406] ReLU10 <- Convolution11
I1022 19:29:09.393229  3845 net.cpp:367] ReLU10 -> Convolution11 (in-place)
I1022 19:29:09.393352  3845 net.cpp:122] Setting up ReLU10
I1022 19:29:09.393357  3845 net.cpp:129] Top shape: 8 32 112 112 (3211264)
I1022 19:29:09.393358  3845 net.cpp:137] Memory required for data: 1237942368
I1022 19:29:09.393362  3845 layer_factory.hpp:77] Creating layer Convolution12
I1022 19:29:09.393368  3845 net.cpp:84] Creating Layer Convolution12
I1022 19:29:09.393370  3845 net.cpp:406] Convolution12 <- Convolution11
I1022 19:29:09.393375  3845 net.cpp:380] Convolution12 -> Convolution12
I1022 19:29:09.394484  3845 net.cpp:122] Setting up Convolution12
I1022 19:29:09.394495  3845 net.cpp:129] Top shape: 8 32 112 112 (3211264)
I1022 19:29:09.394497  3845 net.cpp:137] Memory required for data: 1250787424
I1022 19:29:09.394501  3845 layer_factory.hpp:77] Creating layer BatchNorm12
I1022 19:29:09.394506  3845 net.cpp:84] Creating Layer BatchNorm12
I1022 19:29:09.394508  3845 net.cpp:406] BatchNorm12 <- Convolution12
I1022 19:29:09.394513  3845 net.cpp:367] BatchNorm12 -> Convolution12 (in-place)
I1022 19:29:09.394666  3845 net.cpp:122] Setting up BatchNorm12
I1022 19:29:09.394671  3845 net.cpp:129] Top shape: 8 32 112 112 (3211264)
I1022 19:29:09.394675  3845 net.cpp:137] Memory required for data: 1263632480
I1022 19:29:09.394678  3845 layer_factory.hpp:77] Creating layer Scale12
I1022 19:29:09.394682  3845 net.cpp:84] Creating Layer Scale12
I1022 19:29:09.394685  3845 net.cpp:406] Scale12 <- Convolution12
I1022 19:29:09.394688  3845 net.cpp:367] Scale12 -> Convolution12 (in-place)
I1022 19:29:09.394717  3845 layer_factory.hpp:77] Creating layer Scale12
I1022 19:29:09.394810  3845 net.cpp:122] Setting up Scale12
I1022 19:29:09.394815  3845 net.cpp:129] Top shape: 8 32 112 112 (3211264)
I1022 19:29:09.394817  3845 net.cpp:137] Memory required for data: 1276477536
I1022 19:29:09.394829  3845 layer_factory.hpp:77] Creating layer Eltwise5
I1022 19:29:09.394832  3845 net.cpp:84] Creating Layer Eltwise5
I1022 19:29:09.394835  3845 net.cpp:406] Eltwise5 <- Eltwise4_ReLU9_0_split_1
I1022 19:29:09.394839  3845 net.cpp:406] Eltwise5 <- Convolution12
I1022 19:29:09.394842  3845 net.cpp:380] Eltwise5 -> Eltwise5
I1022 19:29:09.394860  3845 net.cpp:122] Setting up Eltwise5
I1022 19:29:09.394865  3845 net.cpp:129] Top shape: 8 32 112 112 (3211264)
I1022 19:29:09.394866  3845 net.cpp:137] Memory required for data: 1289322592
I1022 19:29:09.394868  3845 layer_factory.hpp:77] Creating layer ReLU11
I1022 19:29:09.394872  3845 net.cpp:84] Creating Layer ReLU11
I1022 19:29:09.394876  3845 net.cpp:406] ReLU11 <- Eltwise5
I1022 19:29:09.394878  3845 net.cpp:367] ReLU11 -> Eltwise5 (in-place)
I1022 19:29:09.394999  3845 net.cpp:122] Setting up ReLU11
I1022 19:29:09.395005  3845 net.cpp:129] Top shape: 8 32 112 112 (3211264)
I1022 19:29:09.395007  3845 net.cpp:137] Memory required for data: 1302167648
I1022 19:29:09.395009  3845 layer_factory.hpp:77] Creating layer Eltwise5_ReLU11_0_split
I1022 19:29:09.395015  3845 net.cpp:84] Creating Layer Eltwise5_ReLU11_0_split
I1022 19:29:09.395016  3845 net.cpp:406] Eltwise5_ReLU11_0_split <- Eltwise5
I1022 19:29:09.395020  3845 net.cpp:380] Eltwise5_ReLU11_0_split -> Eltwise5_ReLU11_0_split_0
I1022 19:29:09.395025  3845 net.cpp:380] Eltwise5_ReLU11_0_split -> Eltwise5_ReLU11_0_split_1
I1022 19:29:09.395056  3845 net.cpp:122] Setting up Eltwise5_ReLU11_0_split
I1022 19:29:09.395061  3845 net.cpp:129] Top shape: 8 32 112 112 (3211264)
I1022 19:29:09.395063  3845 net.cpp:129] Top shape: 8 32 112 112 (3211264)
I1022 19:29:09.395066  3845 net.cpp:137] Memory required for data: 1327857760
I1022 19:29:09.395067  3845 layer_factory.hpp:77] Creating layer Convolution13
I1022 19:29:09.395074  3845 net.cpp:84] Creating Layer Convolution13
I1022 19:29:09.395076  3845 net.cpp:406] Convolution13 <- Eltwise5_ReLU11_0_split_0
I1022 19:29:09.395082  3845 net.cpp:380] Convolution13 -> Convolution13
I1022 19:29:09.396208  3845 net.cpp:122] Setting up Convolution13
I1022 19:29:09.396216  3845 net.cpp:129] Top shape: 8 32 112 112 (3211264)
I1022 19:29:09.396219  3845 net.cpp:137] Memory required for data: 1340702816
I1022 19:29:09.396224  3845 layer_factory.hpp:77] Creating layer BatchNorm13
I1022 19:29:09.396229  3845 net.cpp:84] Creating Layer BatchNorm13
I1022 19:29:09.396232  3845 net.cpp:406] BatchNorm13 <- Convolution13
I1022 19:29:09.396235  3845 net.cpp:367] BatchNorm13 -> Convolution13 (in-place)
I1022 19:29:09.396389  3845 net.cpp:122] Setting up BatchNorm13
I1022 19:29:09.396394  3845 net.cpp:129] Top shape: 8 32 112 112 (3211264)
I1022 19:29:09.396395  3845 net.cpp:137] Memory required for data: 1353547872
I1022 19:29:09.396400  3845 layer_factory.hpp:77] Creating layer Scale13
I1022 19:29:09.396404  3845 net.cpp:84] Creating Layer Scale13
I1022 19:29:09.396406  3845 net.cpp:406] Scale13 <- Convolution13
I1022 19:29:09.396410  3845 net.cpp:367] Scale13 -> Convolution13 (in-place)
I1022 19:29:09.396438  3845 layer_factory.hpp:77] Creating layer Scale13
I1022 19:29:09.396528  3845 net.cpp:122] Setting up Scale13
I1022 19:29:09.396533  3845 net.cpp:129] Top shape: 8 32 112 112 (3211264)
I1022 19:29:09.396535  3845 net.cpp:137] Memory required for data: 1366392928
I1022 19:29:09.396539  3845 layer_factory.hpp:77] Creating layer ReLU12
I1022 19:29:09.396544  3845 net.cpp:84] Creating Layer ReLU12
I1022 19:29:09.396546  3845 net.cpp:406] ReLU12 <- Convolution13
I1022 19:29:09.396549  3845 net.cpp:367] ReLU12 -> Convolution13 (in-place)
I1022 19:29:09.397016  3845 net.cpp:122] Setting up ReLU12
I1022 19:29:09.397023  3845 net.cpp:129] Top shape: 8 32 112 112 (3211264)
I1022 19:29:09.397027  3845 net.cpp:137] Memory required for data: 1379237984
I1022 19:29:09.397028  3845 layer_factory.hpp:77] Creating layer Convolution14
I1022 19:29:09.397040  3845 net.cpp:84] Creating Layer Convolution14
I1022 19:29:09.397043  3845 net.cpp:406] Convolution14 <- Convolution13
I1022 19:29:09.397055  3845 net.cpp:380] Convolution14 -> Convolution14
I1022 19:29:09.398164  3845 net.cpp:122] Setting up Convolution14
I1022 19:29:09.398172  3845 net.cpp:129] Top shape: 8 32 112 112 (3211264)
I1022 19:29:09.398175  3845 net.cpp:137] Memory required for data: 1392083040
I1022 19:29:09.398180  3845 layer_factory.hpp:77] Creating layer BatchNorm14
I1022 19:29:09.398185  3845 net.cpp:84] Creating Layer BatchNorm14
I1022 19:29:09.398188  3845 net.cpp:406] BatchNorm14 <- Convolution14
I1022 19:29:09.398191  3845 net.cpp:367] BatchNorm14 -> Convolution14 (in-place)
I1022 19:29:09.398344  3845 net.cpp:122] Setting up BatchNorm14
I1022 19:29:09.398349  3845 net.cpp:129] Top shape: 8 32 112 112 (3211264)
I1022 19:29:09.398350  3845 net.cpp:137] Memory required for data: 1404928096
I1022 19:29:09.398355  3845 layer_factory.hpp:77] Creating layer Scale14
I1022 19:29:09.398360  3845 net.cpp:84] Creating Layer Scale14
I1022 19:29:09.398363  3845 net.cpp:406] Scale14 <- Convolution14
I1022 19:29:09.398366  3845 net.cpp:367] Scale14 -> Convolution14 (in-place)
I1022 19:29:09.398396  3845 layer_factory.hpp:77] Creating layer Scale14
I1022 19:29:09.398485  3845 net.cpp:122] Setting up Scale14
I1022 19:29:09.398490  3845 net.cpp:129] Top shape: 8 32 112 112 (3211264)
I1022 19:29:09.398492  3845 net.cpp:137] Memory required for data: 1417773152
I1022 19:29:09.398496  3845 layer_factory.hpp:77] Creating layer Eltwise6
I1022 19:29:09.398501  3845 net.cpp:84] Creating Layer Eltwise6
I1022 19:29:09.398504  3845 net.cpp:406] Eltwise6 <- Eltwise5_ReLU11_0_split_1
I1022 19:29:09.398506  3845 net.cpp:406] Eltwise6 <- Convolution14
I1022 19:29:09.398509  3845 net.cpp:380] Eltwise6 -> Eltwise6
I1022 19:29:09.398527  3845 net.cpp:122] Setting up Eltwise6
I1022 19:29:09.398531  3845 net.cpp:129] Top shape: 8 32 112 112 (3211264)
I1022 19:29:09.398533  3845 net.cpp:137] Memory required for data: 1430618208
I1022 19:29:09.398535  3845 layer_factory.hpp:77] Creating layer ReLU13
I1022 19:29:09.398540  3845 net.cpp:84] Creating Layer ReLU13
I1022 19:29:09.398541  3845 net.cpp:406] ReLU13 <- Eltwise6
I1022 19:29:09.398545  3845 net.cpp:367] ReLU13 -> Eltwise6 (in-place)
I1022 19:29:09.398665  3845 net.cpp:122] Setting up ReLU13
I1022 19:29:09.398671  3845 net.cpp:129] Top shape: 8 32 112 112 (3211264)
I1022 19:29:09.398674  3845 net.cpp:137] Memory required for data: 1443463264
I1022 19:29:09.398675  3845 layer_factory.hpp:77] Creating layer Eltwise6_ReLU13_0_split
I1022 19:29:09.398679  3845 net.cpp:84] Creating Layer Eltwise6_ReLU13_0_split
I1022 19:29:09.398681  3845 net.cpp:406] Eltwise6_ReLU13_0_split <- Eltwise6
I1022 19:29:09.398685  3845 net.cpp:380] Eltwise6_ReLU13_0_split -> Eltwise6_ReLU13_0_split_0
I1022 19:29:09.398689  3845 net.cpp:380] Eltwise6_ReLU13_0_split -> Eltwise6_ReLU13_0_split_1
I1022 19:29:09.398720  3845 net.cpp:122] Setting up Eltwise6_ReLU13_0_split
I1022 19:29:09.398723  3845 net.cpp:129] Top shape: 8 32 112 112 (3211264)
I1022 19:29:09.398726  3845 net.cpp:129] Top shape: 8 32 112 112 (3211264)
I1022 19:29:09.398728  3845 net.cpp:137] Memory required for data: 1469153376
I1022 19:29:09.398730  3845 layer_factory.hpp:77] Creating layer Convolution15
I1022 19:29:09.398737  3845 net.cpp:84] Creating Layer Convolution15
I1022 19:29:09.398741  3845 net.cpp:406] Convolution15 <- Eltwise6_ReLU13_0_split_0
I1022 19:29:09.398744  3845 net.cpp:380] Convolution15 -> Convolution15
I1022 19:29:09.399691  3845 net.cpp:122] Setting up Convolution15
I1022 19:29:09.399700  3845 net.cpp:129] Top shape: 8 64 56 56 (1605632)
I1022 19:29:09.399703  3845 net.cpp:137] Memory required for data: 1475575904
I1022 19:29:09.399708  3845 layer_factory.hpp:77] Creating layer BatchNorm15
I1022 19:29:09.399713  3845 net.cpp:84] Creating Layer BatchNorm15
I1022 19:29:09.399715  3845 net.cpp:406] BatchNorm15 <- Convolution15
I1022 19:29:09.399720  3845 net.cpp:367] BatchNorm15 -> Convolution15 (in-place)
I1022 19:29:09.399876  3845 net.cpp:122] Setting up BatchNorm15
I1022 19:29:09.399881  3845 net.cpp:129] Top shape: 8 64 56 56 (1605632)
I1022 19:29:09.399889  3845 net.cpp:137] Memory required for data: 1481998432
I1022 19:29:09.399894  3845 layer_factory.hpp:77] Creating layer Scale15
I1022 19:29:09.399899  3845 net.cpp:84] Creating Layer Scale15
I1022 19:29:09.399902  3845 net.cpp:406] Scale15 <- Convolution15
I1022 19:29:09.399905  3845 net.cpp:367] Scale15 -> Convolution15 (in-place)
I1022 19:29:09.399936  3845 layer_factory.hpp:77] Creating layer Scale15
I1022 19:29:09.400053  3845 net.cpp:122] Setting up Scale15
I1022 19:29:09.400058  3845 net.cpp:129] Top shape: 8 64 56 56 (1605632)
I1022 19:29:09.400060  3845 net.cpp:137] Memory required for data: 1488420960
I1022 19:29:09.400064  3845 layer_factory.hpp:77] Creating layer Convolution16
I1022 19:29:09.400071  3845 net.cpp:84] Creating Layer Convolution16
I1022 19:29:09.400074  3845 net.cpp:406] Convolution16 <- Eltwise6_ReLU13_0_split_1
I1022 19:29:09.400079  3845 net.cpp:380] Convolution16 -> Convolution16
I1022 19:29:09.401396  3845 net.cpp:122] Setting up Convolution16
I1022 19:29:09.401404  3845 net.cpp:129] Top shape: 8 64 56 56 (1605632)
I1022 19:29:09.401407  3845 net.cpp:137] Memory required for data: 1494843488
I1022 19:29:09.401412  3845 layer_factory.hpp:77] Creating layer BatchNorm16
I1022 19:29:09.401417  3845 net.cpp:84] Creating Layer BatchNorm16
I1022 19:29:09.401420  3845 net.cpp:406] BatchNorm16 <- Convolution16
I1022 19:29:09.401424  3845 net.cpp:367] BatchNorm16 -> Convolution16 (in-place)
I1022 19:29:09.401577  3845 net.cpp:122] Setting up BatchNorm16
I1022 19:29:09.401582  3845 net.cpp:129] Top shape: 8 64 56 56 (1605632)
I1022 19:29:09.401584  3845 net.cpp:137] Memory required for data: 1501266016
I1022 19:29:09.401589  3845 layer_factory.hpp:77] Creating layer Scale16
I1022 19:29:09.401593  3845 net.cpp:84] Creating Layer Scale16
I1022 19:29:09.401597  3845 net.cpp:406] Scale16 <- Convolution16
I1022 19:29:09.401598  3845 net.cpp:367] Scale16 -> Convolution16 (in-place)
I1022 19:29:09.401629  3845 layer_factory.hpp:77] Creating layer Scale16
I1022 19:29:09.401720  3845 net.cpp:122] Setting up Scale16
I1022 19:29:09.401724  3845 net.cpp:129] Top shape: 8 64 56 56 (1605632)
I1022 19:29:09.401726  3845 net.cpp:137] Memory required for data: 1507688544
I1022 19:29:09.401731  3845 layer_factory.hpp:77] Creating layer ReLU14
I1022 19:29:09.401733  3845 net.cpp:84] Creating Layer ReLU14
I1022 19:29:09.401736  3845 net.cpp:406] ReLU14 <- Convolution16
I1022 19:29:09.401738  3845 net.cpp:367] ReLU14 -> Convolution16 (in-place)
I1022 19:29:09.401866  3845 net.cpp:122] Setting up ReLU14
I1022 19:29:09.401872  3845 net.cpp:129] Top shape: 8 64 56 56 (1605632)
I1022 19:29:09.401875  3845 net.cpp:137] Memory required for data: 1514111072
I1022 19:29:09.401876  3845 layer_factory.hpp:77] Creating layer Convolution17
I1022 19:29:09.401883  3845 net.cpp:84] Creating Layer Convolution17
I1022 19:29:09.401886  3845 net.cpp:406] Convolution17 <- Convolution16
I1022 19:29:09.401890  3845 net.cpp:380] Convolution17 -> Convolution17
I1022 19:29:09.404145  3845 net.cpp:122] Setting up Convolution17
I1022 19:29:09.404155  3845 net.cpp:129] Top shape: 8 64 56 56 (1605632)
I1022 19:29:09.404157  3845 net.cpp:137] Memory required for data: 1520533600
I1022 19:29:09.404162  3845 layer_factory.hpp:77] Creating layer BatchNorm17
I1022 19:29:09.404167  3845 net.cpp:84] Creating Layer BatchNorm17
I1022 19:29:09.404170  3845 net.cpp:406] BatchNorm17 <- Convolution17
I1022 19:29:09.404173  3845 net.cpp:367] BatchNorm17 -> Convolution17 (in-place)
I1022 19:29:09.404327  3845 net.cpp:122] Setting up BatchNorm17
I1022 19:29:09.404332  3845 net.cpp:129] Top shape: 8 64 56 56 (1605632)
I1022 19:29:09.404335  3845 net.cpp:137] Memory required for data: 1526956128
I1022 19:29:09.404340  3845 layer_factory.hpp:77] Creating layer Scale17
I1022 19:29:09.404343  3845 net.cpp:84] Creating Layer Scale17
I1022 19:29:09.404346  3845 net.cpp:406] Scale17 <- Convolution17
I1022 19:29:09.404350  3845 net.cpp:367] Scale17 -> Convolution17 (in-place)
I1022 19:29:09.404379  3845 layer_factory.hpp:77] Creating layer Scale17
I1022 19:29:09.404479  3845 net.cpp:122] Setting up Scale17
I1022 19:29:09.404486  3845 net.cpp:129] Top shape: 8 64 56 56 (1605632)
I1022 19:29:09.404489  3845 net.cpp:137] Memory required for data: 1533378656
I1022 19:29:09.404492  3845 layer_factory.hpp:77] Creating layer Eltwise7
I1022 19:29:09.404496  3845 net.cpp:84] Creating Layer Eltwise7
I1022 19:29:09.404498  3845 net.cpp:406] Eltwise7 <- Convolution15
I1022 19:29:09.404501  3845 net.cpp:406] Eltwise7 <- Convolution17
I1022 19:29:09.404505  3845 net.cpp:380] Eltwise7 -> Eltwise7
I1022 19:29:09.404522  3845 net.cpp:122] Setting up Eltwise7
I1022 19:29:09.404526  3845 net.cpp:129] Top shape: 8 64 56 56 (1605632)
I1022 19:29:09.404528  3845 net.cpp:137] Memory required for data: 1539801184
I1022 19:29:09.404531  3845 layer_factory.hpp:77] Creating layer ReLU15
I1022 19:29:09.404534  3845 net.cpp:84] Creating Layer ReLU15
I1022 19:29:09.404536  3845 net.cpp:406] ReLU15 <- Eltwise7
I1022 19:29:09.404541  3845 net.cpp:367] ReLU15 -> Eltwise7 (in-place)
I1022 19:29:09.404662  3845 net.cpp:122] Setting up ReLU15
I1022 19:29:09.404669  3845 net.cpp:129] Top shape: 8 64 56 56 (1605632)
I1022 19:29:09.404670  3845 net.cpp:137] Memory required for data: 1546223712
I1022 19:29:09.404673  3845 layer_factory.hpp:77] Creating layer Eltwise7_ReLU15_0_split
I1022 19:29:09.404677  3845 net.cpp:84] Creating Layer Eltwise7_ReLU15_0_split
I1022 19:29:09.404680  3845 net.cpp:406] Eltwise7_ReLU15_0_split <- Eltwise7
I1022 19:29:09.404683  3845 net.cpp:380] Eltwise7_ReLU15_0_split -> Eltwise7_ReLU15_0_split_0
I1022 19:29:09.404687  3845 net.cpp:380] Eltwise7_ReLU15_0_split -> Eltwise7_ReLU15_0_split_1
I1022 19:29:09.404717  3845 net.cpp:122] Setting up Eltwise7_ReLU15_0_split
I1022 19:29:09.404721  3845 net.cpp:129] Top shape: 8 64 56 56 (1605632)
I1022 19:29:09.404724  3845 net.cpp:129] Top shape: 8 64 56 56 (1605632)
I1022 19:29:09.404726  3845 net.cpp:137] Memory required for data: 1559068768
I1022 19:29:09.404728  3845 layer_factory.hpp:77] Creating layer Convolution18
I1022 19:29:09.404734  3845 net.cpp:84] Creating Layer Convolution18
I1022 19:29:09.404737  3845 net.cpp:406] Convolution18 <- Eltwise7_ReLU15_0_split_0
I1022 19:29:09.404742  3845 net.cpp:380] Convolution18 -> Convolution18
I1022 19:29:09.406908  3845 net.cpp:122] Setting up Convolution18
I1022 19:29:09.406918  3845 net.cpp:129] Top shape: 8 64 56 56 (1605632)
I1022 19:29:09.406920  3845 net.cpp:137] Memory required for data: 1565491296
I1022 19:29:09.406925  3845 layer_factory.hpp:77] Creating layer BatchNorm18
I1022 19:29:09.406931  3845 net.cpp:84] Creating Layer BatchNorm18
I1022 19:29:09.406934  3845 net.cpp:406] BatchNorm18 <- Convolution18
I1022 19:29:09.406937  3845 net.cpp:367] BatchNorm18 -> Convolution18 (in-place)
I1022 19:29:09.407131  3845 net.cpp:122] Setting up BatchNorm18
I1022 19:29:09.407140  3845 net.cpp:129] Top shape: 8 64 56 56 (1605632)
I1022 19:29:09.407141  3845 net.cpp:137] Memory required for data: 1571913824
I1022 19:29:09.407147  3845 layer_factory.hpp:77] Creating layer Scale18
I1022 19:29:09.407151  3845 net.cpp:84] Creating Layer Scale18
I1022 19:29:09.407155  3845 net.cpp:406] Scale18 <- Convolution18
I1022 19:29:09.407158  3845 net.cpp:367] Scale18 -> Convolution18 (in-place)
I1022 19:29:09.407191  3845 layer_factory.hpp:77] Creating layer Scale18
I1022 19:29:09.407285  3845 net.cpp:122] Setting up Scale18
I1022 19:29:09.407290  3845 net.cpp:129] Top shape: 8 64 56 56 (1605632)
I1022 19:29:09.407292  3845 net.cpp:137] Memory required for data: 1578336352
I1022 19:29:09.407296  3845 layer_factory.hpp:77] Creating layer ReLU16
I1022 19:29:09.407300  3845 net.cpp:84] Creating Layer ReLU16
I1022 19:29:09.407304  3845 net.cpp:406] ReLU16 <- Convolution18
I1022 19:29:09.407306  3845 net.cpp:367] ReLU16 -> Convolution18 (in-place)
I1022 19:29:09.407441  3845 net.cpp:122] Setting up ReLU16
I1022 19:29:09.407449  3845 net.cpp:129] Top shape: 8 64 56 56 (1605632)
I1022 19:29:09.407450  3845 net.cpp:137] Memory required for data: 1584758880
I1022 19:29:09.407454  3845 layer_factory.hpp:77] Creating layer Convolution19
I1022 19:29:09.407467  3845 net.cpp:84] Creating Layer Convolution19
I1022 19:29:09.407470  3845 net.cpp:406] Convolution19 <- Convolution18
I1022 19:29:09.407474  3845 net.cpp:380] Convolution19 -> Convolution19
I1022 19:29:09.409404  3845 net.cpp:122] Setting up Convolution19
I1022 19:29:09.409412  3845 net.cpp:129] Top shape: 8 64 56 56 (1605632)
I1022 19:29:09.409415  3845 net.cpp:137] Memory required for data: 1591181408
I1022 19:29:09.409420  3845 layer_factory.hpp:77] Creating layer BatchNorm19
I1022 19:29:09.409433  3845 net.cpp:84] Creating Layer BatchNorm19
I1022 19:29:09.409436  3845 net.cpp:406] BatchNorm19 <- Convolution19
I1022 19:29:09.409440  3845 net.cpp:367] BatchNorm19 -> Convolution19 (in-place)
I1022 19:29:09.409592  3845 net.cpp:122] Setting up BatchNorm19
I1022 19:29:09.409597  3845 net.cpp:129] Top shape: 8 64 56 56 (1605632)
I1022 19:29:09.409600  3845 net.cpp:137] Memory required for data: 1597603936
I1022 19:29:09.409616  3845 layer_factory.hpp:77] Creating layer Scale19
I1022 19:29:09.409621  3845 net.cpp:84] Creating Layer Scale19
I1022 19:29:09.409624  3845 net.cpp:406] Scale19 <- Convolution19
I1022 19:29:09.409627  3845 net.cpp:367] Scale19 -> Convolution19 (in-place)
I1022 19:29:09.409658  3845 layer_factory.hpp:77] Creating layer Scale19
I1022 19:29:09.409747  3845 net.cpp:122] Setting up Scale19
I1022 19:29:09.409752  3845 net.cpp:129] Top shape: 8 64 56 56 (1605632)
I1022 19:29:09.409754  3845 net.cpp:137] Memory required for data: 1604026464
I1022 19:29:09.409757  3845 layer_factory.hpp:77] Creating layer Eltwise8
I1022 19:29:09.409761  3845 net.cpp:84] Creating Layer Eltwise8
I1022 19:29:09.409765  3845 net.cpp:406] Eltwise8 <- Eltwise7_ReLU15_0_split_1
I1022 19:29:09.409767  3845 net.cpp:406] Eltwise8 <- Convolution19
I1022 19:29:09.409770  3845 net.cpp:380] Eltwise8 -> Eltwise8
I1022 19:29:09.409790  3845 net.cpp:122] Setting up Eltwise8
I1022 19:29:09.409793  3845 net.cpp:129] Top shape: 8 64 56 56 (1605632)
I1022 19:29:09.409795  3845 net.cpp:137] Memory required for data: 1610448992
I1022 19:29:09.409797  3845 layer_factory.hpp:77] Creating layer ReLU17
I1022 19:29:09.409801  3845 net.cpp:84] Creating Layer ReLU17
I1022 19:29:09.409802  3845 net.cpp:406] ReLU17 <- Eltwise8
I1022 19:29:09.409806  3845 net.cpp:367] ReLU17 -> Eltwise8 (in-place)
I1022 19:29:09.409925  3845 net.cpp:122] Setting up ReLU17
I1022 19:29:09.409931  3845 net.cpp:129] Top shape: 8 64 56 56 (1605632)
I1022 19:29:09.409934  3845 net.cpp:137] Memory required for data: 1616871520
I1022 19:29:09.409935  3845 layer_factory.hpp:77] Creating layer Eltwise8_ReLU17_0_split
I1022 19:29:09.409940  3845 net.cpp:84] Creating Layer Eltwise8_ReLU17_0_split
I1022 19:29:09.409942  3845 net.cpp:406] Eltwise8_ReLU17_0_split <- Eltwise8
I1022 19:29:09.409945  3845 net.cpp:380] Eltwise8_ReLU17_0_split -> Eltwise8_ReLU17_0_split_0
I1022 19:29:09.409950  3845 net.cpp:380] Eltwise8_ReLU17_0_split -> Eltwise8_ReLU17_0_split_1
I1022 19:29:09.409978  3845 net.cpp:122] Setting up Eltwise8_ReLU17_0_split
I1022 19:29:09.409982  3845 net.cpp:129] Top shape: 8 64 56 56 (1605632)
I1022 19:29:09.409986  3845 net.cpp:129] Top shape: 8 64 56 56 (1605632)
I1022 19:29:09.409987  3845 net.cpp:137] Memory required for data: 1629716576
I1022 19:29:09.409989  3845 layer_factory.hpp:77] Creating layer Convolution20
I1022 19:29:09.409996  3845 net.cpp:84] Creating Layer Convolution20
I1022 19:29:09.409998  3845 net.cpp:406] Convolution20 <- Eltwise8_ReLU17_0_split_0
I1022 19:29:09.410003  3845 net.cpp:380] Convolution20 -> Convolution20
I1022 19:29:09.412029  3845 net.cpp:122] Setting up Convolution20
I1022 19:29:09.412040  3845 net.cpp:129] Top shape: 8 64 56 56 (1605632)
I1022 19:29:09.412044  3845 net.cpp:137] Memory required for data: 1636139104
I1022 19:29:09.412047  3845 layer_factory.hpp:77] Creating layer BatchNorm20
I1022 19:29:09.412052  3845 net.cpp:84] Creating Layer BatchNorm20
I1022 19:29:09.412055  3845 net.cpp:406] BatchNorm20 <- Convolution20
I1022 19:29:09.412058  3845 net.cpp:367] BatchNorm20 -> Convolution20 (in-place)
I1022 19:29:09.412220  3845 net.cpp:122] Setting up BatchNorm20
I1022 19:29:09.412226  3845 net.cpp:129] Top shape: 8 64 56 56 (1605632)
I1022 19:29:09.412228  3845 net.cpp:137] Memory required for data: 1642561632
I1022 19:29:09.412233  3845 layer_factory.hpp:77] Creating layer Scale20
I1022 19:29:09.412237  3845 net.cpp:84] Creating Layer Scale20
I1022 19:29:09.412240  3845 net.cpp:406] Scale20 <- Convolution20
I1022 19:29:09.412242  3845 net.cpp:367] Scale20 -> Convolution20 (in-place)
I1022 19:29:09.412272  3845 layer_factory.hpp:77] Creating layer Scale20
I1022 19:29:09.412361  3845 net.cpp:122] Setting up Scale20
I1022 19:29:09.412365  3845 net.cpp:129] Top shape: 8 64 56 56 (1605632)
I1022 19:29:09.412367  3845 net.cpp:137] Memory required for data: 1648984160
I1022 19:29:09.412371  3845 layer_factory.hpp:77] Creating layer ReLU18
I1022 19:29:09.412375  3845 net.cpp:84] Creating Layer ReLU18
I1022 19:29:09.412377  3845 net.cpp:406] ReLU18 <- Convolution20
I1022 19:29:09.412380  3845 net.cpp:367] ReLU18 -> Convolution20 (in-place)
I1022 19:29:09.412835  3845 net.cpp:122] Setting up ReLU18
I1022 19:29:09.412843  3845 net.cpp:129] Top shape: 8 64 56 56 (1605632)
I1022 19:29:09.412845  3845 net.cpp:137] Memory required for data: 1655406688
I1022 19:29:09.412848  3845 layer_factory.hpp:77] Creating layer Convolution21
I1022 19:29:09.412855  3845 net.cpp:84] Creating Layer Convolution21
I1022 19:29:09.412858  3845 net.cpp:406] Convolution21 <- Convolution20
I1022 19:29:09.412863  3845 net.cpp:380] Convolution21 -> Convolution21
I1022 19:29:09.414206  3845 net.cpp:122] Setting up Convolution21
I1022 19:29:09.414214  3845 net.cpp:129] Top shape: 8 64 56 56 (1605632)
I1022 19:29:09.414216  3845 net.cpp:137] Memory required for data: 1661829216
I1022 19:29:09.414221  3845 layer_factory.hpp:77] Creating layer BatchNorm21
I1022 19:29:09.414225  3845 net.cpp:84] Creating Layer BatchNorm21
I1022 19:29:09.414228  3845 net.cpp:406] BatchNorm21 <- Convolution21
I1022 19:29:09.414232  3845 net.cpp:367] BatchNorm21 -> Convolution21 (in-place)
I1022 19:29:09.414386  3845 net.cpp:122] Setting up BatchNorm21
I1022 19:29:09.414389  3845 net.cpp:129] Top shape: 8 64 56 56 (1605632)
I1022 19:29:09.414391  3845 net.cpp:137] Memory required for data: 1668251744
I1022 19:29:09.414397  3845 layer_factory.hpp:77] Creating layer Scale21
I1022 19:29:09.414400  3845 net.cpp:84] Creating Layer Scale21
I1022 19:29:09.414403  3845 net.cpp:406] Scale21 <- Convolution21
I1022 19:29:09.414407  3845 net.cpp:367] Scale21 -> Convolution21 (in-place)
I1022 19:29:09.414435  3845 layer_factory.hpp:77] Creating layer Scale21
I1022 19:29:09.414525  3845 net.cpp:122] Setting up Scale21
I1022 19:29:09.414528  3845 net.cpp:129] Top shape: 8 64 56 56 (1605632)
I1022 19:29:09.414530  3845 net.cpp:137] Memory required for data: 1674674272
I1022 19:29:09.414535  3845 layer_factory.hpp:77] Creating layer Eltwise9
I1022 19:29:09.414538  3845 net.cpp:84] Creating Layer Eltwise9
I1022 19:29:09.414541  3845 net.cpp:406] Eltwise9 <- Eltwise8_ReLU17_0_split_1
I1022 19:29:09.414543  3845 net.cpp:406] Eltwise9 <- Convolution21
I1022 19:29:09.414546  3845 net.cpp:380] Eltwise9 -> Eltwise9
I1022 19:29:09.414563  3845 net.cpp:122] Setting up Eltwise9
I1022 19:29:09.414567  3845 net.cpp:129] Top shape: 8 64 56 56 (1605632)
I1022 19:29:09.414569  3845 net.cpp:137] Memory required for data: 1681096800
I1022 19:29:09.414572  3845 layer_factory.hpp:77] Creating layer ReLU19
I1022 19:29:09.414577  3845 net.cpp:84] Creating Layer ReLU19
I1022 19:29:09.414578  3845 net.cpp:406] ReLU19 <- Eltwise9
I1022 19:29:09.414582  3845 net.cpp:367] ReLU19 -> Eltwise9 (in-place)
I1022 19:29:09.415031  3845 net.cpp:122] Setting up ReLU19
I1022 19:29:09.415040  3845 net.cpp:129] Top shape: 8 64 56 56 (1605632)
I1022 19:29:09.415042  3845 net.cpp:137] Memory required for data: 1687519328
I1022 19:29:09.415045  3845 layer_factory.hpp:77] Creating layer Pooling1
I1022 19:29:09.415050  3845 net.cpp:84] Creating Layer Pooling1
I1022 19:29:09.415052  3845 net.cpp:406] Pooling1 <- Eltwise9
I1022 19:29:09.415062  3845 net.cpp:380] Pooling1 -> Pooling1
I1022 19:29:09.415195  3845 net.cpp:122] Setting up Pooling1
I1022 19:29:09.415201  3845 net.cpp:129] Top shape: 8 64 1 1 (512)
I1022 19:29:09.415205  3845 net.cpp:137] Memory required for data: 1687521376
I1022 19:29:09.415206  3845 layer_factory.hpp:77] Creating layer InnerProduct1
I1022 19:29:09.415211  3845 net.cpp:84] Creating Layer InnerProduct1
I1022 19:29:09.415213  3845 net.cpp:406] InnerProduct1 <- Pooling1
I1022 19:29:09.415220  3845 net.cpp:380] InnerProduct1 -> InnerProduct1
I1022 19:29:09.415307  3845 net.cpp:122] Setting up InnerProduct1
I1022 19:29:09.415313  3845 net.cpp:129] Top shape: 8 4 (32)
I1022 19:29:09.415314  3845 net.cpp:137] Memory required for data: 1687521504
I1022 19:29:09.415318  3845 layer_factory.hpp:77] Creating layer InnerProduct1_InnerProduct1_0_split
I1022 19:29:09.415323  3845 net.cpp:84] Creating Layer InnerProduct1_InnerProduct1_0_split
I1022 19:29:09.415325  3845 net.cpp:406] InnerProduct1_InnerProduct1_0_split <- InnerProduct1
I1022 19:29:09.415328  3845 net.cpp:380] InnerProduct1_InnerProduct1_0_split -> InnerProduct1_InnerProduct1_0_split_0
I1022 19:29:09.415333  3845 net.cpp:380] InnerProduct1_InnerProduct1_0_split -> InnerProduct1_InnerProduct1_0_split_1
I1022 19:29:09.415361  3845 net.cpp:122] Setting up InnerProduct1_InnerProduct1_0_split
I1022 19:29:09.415364  3845 net.cpp:129] Top shape: 8 4 (32)
I1022 19:29:09.415367  3845 net.cpp:129] Top shape: 8 4 (32)
I1022 19:29:09.415369  3845 net.cpp:137] Memory required for data: 1687521760
I1022 19:29:09.415371  3845 layer_factory.hpp:77] Creating layer SoftmaxWithLoss1
I1022 19:29:09.415375  3845 net.cpp:84] Creating Layer SoftmaxWithLoss1
I1022 19:29:09.415377  3845 net.cpp:406] SoftmaxWithLoss1 <- InnerProduct1_InnerProduct1_0_split_0
I1022 19:29:09.415380  3845 net.cpp:406] SoftmaxWithLoss1 <- Data2_Data1_1_split_0
…
