…
I1022 21:09:53.576768  3959 net.cpp:294] The NetState phase (0) differed from the phase (1) specified by a rule in layer Accuracy1
I1022 21:09:53.577265  3959 net.cpp:51] Initializing net from parameters: 
name: "resnet"
state {
  phase: TRAIN
  level: 0
  stage: ""
}
layer {
  name: "Data1"
  type: "Data"
  top: "Data1"
  top: "Data2"
  include {
    phase: TRAIN
  }
  transform_param {
    mirror: true
    crop_size: 224
    mean_file: "/home/x306/caffe/xn/English_orange/data/orange1_mean.binaryproto"
  }
  data_param {
    source: "/home/x306/caffe/xn/English_orange/data/train1_lmdb"
    batch_size: 8
    backend: LMDB
  }
}
layer {
  name: "Convolution1"
  type: "Convolution"
  bottom: "Data1"
  top: "Convolution1"
  param {
    lr_mult: 1
    decay_mult: 1
  }
  param {
    lr_mult: 2
    decay_mult: 0
  }
  convolution_param {
    num_output: 16
    pad: 1
    kernel_size: 3
    stride: 1
    weight_filler {
      type: "gaussian"
      std: 0.118
    }
    bias_filler {
      type: "constant"
      value: 0
    }
  }
}
layer {
  name: "BatchNorm1"
  type: "BatchNorm"
  bottom: "Convolution1"
  top: "Convolution1"
  param {
    lr_mult: 0
    decay_mult: 0
  }
  param {
    lr_mult: 0
    decay_mult: 0
  }
  param {
    lr_mult: 0
    decay_mult: 0
  }
}
layer {
  name: "Scale1"
  type: "Scale"
  bottom: "Convolution1"
  top: "Convolution1"
  scale_param {
    bias_term: true
  }
}
layer {
  name: "penlu1"
  type: "PENLU"
  bottom: "Convolution1"
  top: "Convolution1"
  param {
    lr_mult: 2
    decay_mult: 2
  }
  param {
    lr_mult: 2
    decay_mult: 2
  }
  param {
    lr_mult: 0
    decay_mult: 0
  }
  penlu_param {
    alpha_filler {
      type: "constant"
      value: 0.25
    }
    beta_filler {
      type: "constant"
      value: 1
    }
    eta_filler {
      type: "constant"
      value: 1
    }
  }
}
layer {
  name: "Convolution2"
  type: "Convolution"
  bottom: "Convolution1"
  top: "Convolution2"
  param {
    lr_mult: 1
    decay_mult: 1
  }
  param {
    lr_mult: 2
    decay_mult: 0
  }
  convolution_param {
    num_output: 16
    pad: 1
    kernel_size: 3
    stride: 1
    weight_filler {
      type: "gaussian"
      std: 0.118
    }
    bias_filler {
      type: "constant"
      value: 0
    }
  }
}
layer {
  name: "BatchNorm2"
  type: "BatchNorm"
  bottom: "Convolution2"
  top: "Convolution2"
  param {
    lr_mult: 0
    decay_mult: 0
  }
  param {
    lr_mult: 0
    decay_mult: 0
  }
  param {
    lr_mult: 0
    decay_mult: 0
  }
}
layer {
  name: "Scale2"
  type: "Scale"
  bottom: "Convolution2"
  top: "Convolution2"
  scale_param {
    bias_term: true
  }
}
layer {
  name: "penlu2"
  type: "PENLU"
  bottom: "Convolution2"
  top: "Convolution2"
  param {
    lr_mult: 2
    decay_mult: 2
  }
  param {
    lr_mult: 2
    decay_mult: 2
  }
  param {
    lr_mult: 0
    decay_mult: 0
  }
  penlu_param {
    alpha_filler {
      type: "constant"
      value: 0.25
    }
    beta_filler {
      type: "constant"
      value: 1
    }
    eta_filler {
      type: "constant"
      value: 1
    }
  }
}
layer {
  name: "Convolution3"
  type: "Convolution"
  bottom: "Convolution2"
  top: "Convolution3"
  param {
    lr_mult: 1
    decay_mult: 1
  }
  param {
    lr_mult: 2
    decay_mult: 0
  }
  convolution_param {
    num_output: 16
    pad: 1
    kernel_size: 3
    stride: 1
    weight_filler {
      type: "gaussian"
      std: 0.118
    }
    bias_filler {
      type: "constant"
      value: 0
    }
  }
}
layer {
  name: "BatchNorm3"
  type: "BatchNorm"
  bottom: "Convolution3"
  top: "Convolution3"
  param {
    lr_mult: 0
    decay_mult: 0
  }
  param {
    lr_mult: 0
    decay_mult: 0
  }
  param {
    lr_mult: 0
    decay_mult: 0
  }
}
layer {
  name: "Scale3"
  type: "Scale"
  bottom: "Convolution3"
  top: "Convolution3"
  scale_param {
    bias_term: true
  }
}
layer {
  name: "Eltwise1"
  type: "Eltwise"
  bottom: "Convolution1"
  bottom: "Convolution3"
  top: "Eltwise1"
  eltwise_param {
    operation: SUM
  }
}
layer {
  name: "penlu3"
  type: "PENLU"
  bottom: "Eltwise1"
  top: "Eltwise1"
  param {
    lr_mult: 2
    decay_mult: 2
  }
  param {
    lr_mult: 2
    decay_mult: 2
  }
  param {
    lr_mult: 0
    decay_mult: 0
  }
  penlu_param {
    alpha_filler {
      type: "constant"
      value: 0.25
    }
    beta_filler {
      type: "constant"
      value: 1
    }
    eta_filler {
      type: "constant"
      value: 1
    }
  }
}
layer {
  name: "Convolution4"
  type: "Convolution"
  bottom: "Eltwise1"
  top: "Convolution4"
  param {
    lr_mult: 1
    decay_mult: 1
  }
  param {
    lr_mult: 2
    decay_mult: 0
  }
  convolution_param {
    num_output: 16
    pad: 1
    kernel_size: 3
    stride: 1
    weight_filler {
      type: "gaussian"
      std: 0.118
    }
    bias_filler {
      type: "constant"
      value: 0
    }
  }
}
layer {
  name: "BatchNorm4"
  type: "BatchNorm"
  bottom: "Convolution4"
  top: "Convolution4"
  param {
    lr_mult: 0
    decay_mult: 0
  }
  param {
    lr_mult: 0
    decay_mult: 0
  }
  param {
    lr_mult: 0
    decay_mult: 0
  }
}
layer {
  name: "Scale4"
  type: "Scale"
  bottom: "Convolution4"
  top: "Convolution4"
  scale_param {
    bias_term: true
  }
}
layer {
  name: "penlu4"
  type: "PENLU"
  bottom: "Convolution4"
  top: "Convolution4"
  param {
    lr_mult: 2
    decay_mult: 2
  }
  param {
    lr_mult: 2
    decay_mult: 2
  }
  param {
    lr_mult: 0
    decay_mult: 0
  }
  penlu_param {
    alpha_filler {
      type: "constant"
      value: 0.25
    }
    beta_filler {
      type: "constant"
      value: 1
    }
    eta_filler {
      type: "constant"
      value: 1
    }
  }
}
layer {
  name: "Convolution5"
  type: "Convolution"
  bottom: "Convolution4"
  top: "Convolution5"
  param {
    lr_mult: 1
    decay_mult: 1
  }
  param {
    lr_mult: 2
    decay_mult: 0
  }
  convolution_param {
    num_output: 16
    pad: 1
    kernel_size: 3
    stride: 1
    weight_filler {
      type: "gaussian"
      std: 0.118
    }
    bias_filler {
      type: "constant"
      value: 0
    }
  }
}
layer {
  name: "BatchNorm5"
  type: "BatchNorm"
  bottom: "Convolution5"
  top: "Convolution5"
  param {
    lr_mult: 0
    decay_mult: 0
  }
  param {
    lr_mult: 0
    decay_mult: 0
  }
  param {
    lr_mult: 0
    decay_mult: 0
  }
}
layer {
  name: "Scale5"
  type: "Scale"
  bottom: "Convolution5"
  top: "Convolution5"
  scale_param {
    bias_term: true
  }
}
layer {
  name: "Eltwise2"
  type: "Eltwise"
  bottom: "Eltwise1"
  bottom: "Convolution5"
  top: "Eltwise2"
  eltwise_param {
    operation: SUM
  }
}
layer {
  name: "penlu5"
  type: "PENLU"
  bottom: "Eltwise2"
  top: "Eltwise2"
  param {
    lr_mult: 2
    decay_mult: 2
  }
  param {
    lr_mult: 2
    decay_mult: 2
  }
  param {
    lr_mult: 0
    decay_mult: 0
  }
  penlu_param {
    alpha_filler {
      type: "constant"
      value: 0.25
    }
    beta_filler {
      type: "constant"
      value: 1
    }
    eta_filler {
      type: "constant"
      value: 1
    }
  }
}
layer {
  name: "Convolution6"
  type: "Convolution"
  bottom: "Eltwise2"
  top: "Convolution6"
  param {
    lr_mult: 1
    decay_mult: 1
  }
  param {
    lr_mult: 2
    decay_mult: 0
  }
  convolution_param {
    num_output: 16
    pad: 1
    kernel_size: 3
    stride: 1
    weight_filler {
      type: "gaussian"
      std: 0.118
    }
    bias_filler {
      type: "constant"
      value: 0
    }
  }
}
layer {
  name: "BatchNorm6"
  type: "BatchNorm"
  bottom: "Convolution6"
  top: "Convolution6"
  param {
    lr_mult: 0
    decay_mult: 0
  }
  param {
    lr_mult: 0
    decay_mult: 0
  }
  param {
    lr_mult: 0
    decay_mult: 0
  }
}
layer {
  name: "Scale6"
  type: "Scale"
  bottom: "Convolution6"
  top: "Convolution6"
  scale_param {
    bias_term: true
  }
}
layer {
  name: "penlu6"
  type: "PENLU"
  bottom: "Convolution6"
  top: "Convolution6"
  param {
    lr_mult: 2
    decay_mult: 2
  }
  param {
    lr_mult: 2
    decay_mult: 2
  }
  param {
    lr_mult: 0
    decay_mult: 0
  }
  penlu_param {
    alpha_filler {
      type: "constant"
      value: 0.25
    }
    beta_filler {
      type: "constant"
      value: 1
    }
    eta_filler {
      type: "constant"
      value: 1
    }
  }
}
layer {
  name: "Convolution7"
  type: "Convolution"
  bottom: "Convolution6"
  top: "Convolution7"
  param {
    lr_mult: 1
    decay_mult: 1
  }
  param {
    lr_mult: 2
    decay_mult: 0
  }
  convolution_param {
    num_output: 16
    pad: 1
    kernel_size: 3
    stride: 1
    weight_filler {
      type: "gaussian"
      std: 0.118
    }
    bias_filler {
      type: "constant"
      value: 0
    }
  }
}
layer {
  name: "BatchNorm7"
  type: "BatchNorm"
  bottom: "Convolution7"
  top: "Convolution7"
  param {
    lr_mult: 0
    decay_mult: 0
  }
  param {
    lr_mult: 0
    decay_mult: 0
  }
  param {
    lr_mult: 0
    decay_mult: 0
  }
}
layer {
  name: "Scale7"
  type: "Scale"
  bottom: "Convolution7"
  top: "Convolution7"
  scale_param {
    bias_term: true
  }
}
layer {
  name: "Eltwise3"
  type: "Eltwise"
  bottom: "Eltwise2"
  bottom: "Convolution7"
  top: "Eltwise3"
  eltwise_param {
    operation: SUM
  }
}
layer {
  name: "penlu7"
  type: "PENLU"
  bottom: "Eltwise3"
  top: "Eltwise3"
  param {
    lr_mult: 2
    decay_mult: 2
  }
  param {
    lr_mult: 2
    decay_mult: 2
  }
  param {
    lr_mult: 0
    decay_mult: 0
  }
  penlu_param {
    alpha_filler {
      type: "constant"
      value: 0.25
    }
    beta_filler {
      type: "constant"
      value: 1
    }
    eta_filler {
      type: "constant"
      value: 1
    }
  }
}
layer {
  name: "Convolution8"
  type: "Convolution"
  bottom: "Eltwise3"
  top: "Convolution8"
  param {
    lr_mult: 1
    decay_mult: 1
  }
  param {
    lr_mult: 2
    decay_mult: 0
  }
  convolution_param {
    num_output: 32
    pad: 0
    kernel_size: 1
    stride: 2
    weight_filler {
      type: "gaussian"
      std: 0.25
    }
    bias_filler {
      type: "constant"
      value: 0
    }
  }
}
layer {
  name: "BatchNorm8"
  type: "BatchNorm"
  bottom: "Convolution8"
  top: "Convolution8"
  param {
    lr_mult: 0
    decay_mult: 0
  }
  param {
    lr_mult: 0
    decay_mult: 0
  }
  param {
    lr_mult: 0
    decay_mult: 0
  }
}
layer {
  name: "Scale8"
  type: "Scale"
  bottom: "Convolution8"
  top: "Convolution8"
  scale_param {
    bias_term: true
  }
}
layer {
  name: "Convolution9"
  type: "Convolution"
  bottom: "Eltwise3"
  top: "Convolution9"
  param {
    lr_mult: 1
    decay_mult: 1
  }
  param {
    lr_mult: 2
    decay_mult: 0
  }
  convolution_param {
    num_output: 32
    pad: 1
    kernel_size: 3
    stride: 2
    weight_filler {
      type: "gaussian"
      std: 0.083
    }
    bias_filler {
      type: "constant"
      value: 0
    }
  }
}
layer {
  name: "BatchNorm9"
  type: "BatchNorm"
  bottom: "Convolution9"
  top: "Convolution9"
  param {
    lr_mult: 0
    decay_mult: 0
  }
  param {
    lr_mult: 0
    decay_mult: 0
  }
  param {
    lr_mult: 0
    decay_mult: 0
  }
}
layer {
  name: "Scale9"
  type: "Scale"
  bottom: "Convolution9"
  top: "Convolution9"
  scale_param {
    bias_term: true
  }
}
layer {
  name: "penlu8"
  type: "PENLU"
  bottom: "Convolution9"
  top: "Convolution9"
  param {
    lr_mult: 2
    decay_mult: 2
  }
  param {
    lr_mult: 2
    decay_mult: 2
  }
  param {
    lr_mult: 0
    decay_mult: 0
  }
  penlu_param {
    alpha_filler {
      type: "constant"
      value: 0.25
    }
    beta_filler {
      type: "constant"
      value: 1
    }
    eta_filler {
      type: "constant"
      value: 1
    }
  }
}
layer {
  name: "Convolution10"
  type: "Convolution"
  bottom: "Convolution9"
  top: "Convolution10"
  param {
    lr_mult: 1
    decay_mult: 1
  }
  param {
    lr_mult: 2
    decay_mult: 0
  }
  convolution_param {
    num_output: 32
    pad: 1
    kernel_size: 3
    stride: 1
    weight_filler {
      type: "gaussian"
      std: 0.083
    }
    bias_filler {
      type: "constant"
      value: 0
    }
  }
}
layer {
  name: "BatchNorm10"
  type: "BatchNorm"
  bottom: "Convolution10"
  top: "Convolution10"
  param {
    lr_mult: 0
    decay_mult: 0
  }
  param {
    lr_mult: 0
    decay_mult: 0
  }
  param {
    lr_mult: 0
    decay_mult: 0
  }
}
layer {
  name: "Scale10"
  type: "Scale"
  bottom: "Convolution10"
  top: "Convolution10"
  scale_param {
    bias_term: true
  }
}
layer {
  name: "Eltwise4"
  type: "Eltwise"
  bottom: "Convolution8"
  bottom: "Convolution10"
  top: "Eltwise4"
  eltwise_param {
    operation: SUM
  }
}
layer {
  name: "penlu9"
  type: "PENLU"
  bottom: "Eltwise4"
  top: "Eltwise4"
  param {
    lr_mult: 2
    decay_mult: 2
  }
  param {
    lr_mult: 2
    decay_mult: 2
  }
  param {
    lr_mult: 0
    decay_mult: 0
  }
  penlu_param {
    alpha_filler {
      type: "constant"
      value: 0.25
    }
    beta_filler {
      type: "constant"
      value: 1
    }
    eta_filler {
      type: "constant"
      value: 1
    }
  }
}
layer {
  name: "Convolution11"
  type: "Convolution"
  bottom: "Eltwise4"
  top: "Convolution11"
  param {
    lr_mult: 1
    decay_mult: 1
  }
  param {
    lr_mult: 2
    decay_mult: 0
  }
  convolution_param {
    num_output: 32
    pad: 1
    kernel_size: 3
    stride: 1
    weight_filler {
      type: "gaussian"
      std: 0.083
    }
    bias_filler {
      type: "constant"
      value: 0
    }
  }
}
layer {
  name: "BatchNorm11"
  type: "BatchNorm"
  bottom: "Convolution11"
  top: "Convolution11"
  param {
    lr_mult: 0
    decay_mult: 0
  }
  param {
    lr_mult: 0
    decay_mult: 0
  }
  param {
    lr_mult: 0
    decay_mult: 0
  }
}
layer {
  name: "Scale11"
  type: "Scale"
  bottom: "Convolution11"
  top: "Convolution11"
  scale_param {
    bias_term: true
  }
}
layer {
  name: "penlu10"
  type: "PENLU"
  bottom: "Convolution11"
  top: "Convolution11"
  param {
    lr_mult: 2
    decay_mult: 2
  }
  param {
    lr_mult: 2
    decay_mult: 2
  }
  param {
    lr_mult: 0
    decay_mult: 0
  }
  penlu_param {
    alpha_filler {
      type: "constant"
      value: 0.25
    }
    beta_filler {
      type: "constant"
      value: 1
    }
    eta_filler {
      type: "constant"
      value: 1
    }
  }
}
layer {
  name: "Convolution12"
  type: "Convolution"
  bottom: "Convolution11"
  top: "Convolution12"
  param {
    lr_mult: 1
    decay_mult: 1
  }
  param {
    lr_mult: 2
    decay_mult: 0
  }
  convolution_param {
    num_output: 32
    pad: 1
    kernel_size: 3
    stride: 1
    weight_filler {
      type: "gaussian"
      std: 0.083
    }
    bias_filler {
      type: "constant"
      value: 0
    }
  }
}
layer {
  name: "BatchNorm12"
  type: "BatchNorm"
  bottom: "Convolution12"
  top: "Convolution12"
  param {
    lr_mult: 0
    decay_mult: 0
  }
  param {
    lr_mult: 0
    decay_mult: 0
  }
  param {
    lr_mult: 0
    decay_mult: 0
  }
}
layer {
  name: "Scale12"
  type: "Scale"
  bottom: "Convolution12"
  top: "Convolution12"
  scale_param {
    bias_term: true
  }
}
layer {
  name: "Eltwise5"
  type: "Eltwise"
  bottom: "Eltwise4"
  bottom: "Convolution12"
  top: "Eltwise5"
  eltwise_param {
    operation: SUM
  }
}
layer {
  name: "penlu11"
  type: "PENLU"
  bottom: "Eltwise5"
  top: "Eltwise5"
  param {
    lr_mult: 2
    decay_mult: 2
  }
  param {
    lr_mult: 2
    decay_mult: 2
  }
  param {
    lr_mult: 0
    decay_mult: 0
  }
  penlu_param {
    alpha_filler {
      type: "constant"
      value: 0.25
    }
    beta_filler {
      type: "constant"
      value: 1
    }
    eta_filler {
      type: "constant"
      value: 1
    }
  }
}
layer {
  name: "Convolution13"
  type: "Convolution"
  bottom: "Eltwise5"
  top: "Convolution13"
  param {
    lr_mult: 1
    decay_mult: 1
  }
  param {
    lr_mult: 2
    decay_mult: 0
  }
  convolution_param {
    num_output: 32
    pad: 1
    kernel_size: 3
    stride: 1
    weight_filler {
      type: "gaussian"
      std: 0.083
    }
    bias_filler {
      type: "constant"
      value: 0
    }
  }
}
layer {
  name: "BatchNorm13"
  type: "BatchNorm"
  bottom: "Convolution13"
  top: "Convolution13"
  param {
    lr_mult: 0
    decay_mult: 0
  }
  param {
    lr_mult: 0
    decay_mult: 0
  }
  param {
    lr_mult: 0
    decay_mult: 0
  }
}
layer {
  name: "Scale13"
  type: "Scale"
  bottom: "Convolution13"
  top: "Convolution13"
  scale_param {
    bias_term: true
  }
}
layer {
  name: "penlu12"
  type: "PENLU"
  bottom: "Convolution13"
  top: "Convolution13"
  param {
    lr_mult: 2
    decay_mult: 2
  }
  param {
    lr_mult: 2
    decay_mult: 2
  }
  param {
    lr_mult: 0
    decay_mult: 0
  }
  penlu_param {
    alpha_filler {
      type: "constant"
      value: 0.25
    }
    beta_filler {
      type: "constant"
      value: 1
    }
    eta_filler {
      type: "constant"
      value: 1
    }
  }
}
layer {
  name: "Convolution14"
  type: "Convolution"
  bottom: "Convolution13"
  top: "Convolution14"
  param {
    lr_mult: 1
    decay_mult: 1
  }
  param {
    lr_mult: 2
    decay_mult: 0
  }
  convolution_param {
    num_output: 32
    pad: 1
    kernel_size: 3
    stride: 1
    weight_filler {
      type: "gaussian"
      std: 0.083
    }
    bias_filler {
      type: "constant"
      value: 0
    }
  }
}
layer {
  name: "BatchNorm14"
  type: "BatchNorm"
  bottom: "Convolution14"
  top: "Convolution14"
  param {
    lr_mult: 0
    decay_mult: 0
  }
  param {
    lr_mult: 0
    decay_mult: 0
  }
  param {
    lr_mult: 0
    decay_mult: 0
  }
}
layer {
  name: "Scale14"
  type: "Scale"
  bottom: "Convolution14"
  top: "Convolution14"
  scale_param {
    bias_term: true
  }
}
layer {
  name: "Eltwise6"
  type: "Eltwise"
  bottom: "Eltwise5"
  bottom: "Convolution14"
  top: "Eltwise6"
  eltwise_param {
    operation: SUM
  }
}
layer {
  name: "penlu13"
  type: "PENLU"
  bottom: "Eltwise6"
  top: "Eltwise6"
  param {
    lr_mult: 2
    decay_mult: 2
  }
  param {
    lr_mult: 2
    decay_mult: 2
  }
  param {
    lr_mult: 0
    decay_mult: 0
  }
  penlu_param {
    alpha_filler {
      type: "constant"
      value: 0.25
    }
    beta_filler {
      type: "constant"
      value: 1
    }
    eta_filler {
      type: "constant"
      value: 1
    }
  }
}
layer {
  name: "Convolution15"
  type: "Convolution"
  bottom: "Eltwise6"
  top: "Convolution15"
  param {
    lr_mult: 1
    decay_mult: 1
  }
  param {
    lr_mult: 2
    decay_mult: 0
  }
  convolution_param {
    num_output: 64
    pad: 0
    kernel_size: 1
    stride: 2
    weight_filler {
      type: "gaussian"
      std: 0.17677669
    }
    bias_filler {
      type: "constant"
      value: 0
    }
  }
}
layer {
  name: "BatchNorm15"
  type: "BatchNorm"
  bottom: "Convolution15"
  top: "Convolution15"
  param {
    lr_mult: 0
    decay_mult: 0
  }
  param {
    lr_mult: 0
    decay_mult: 0
  }
  param {
    lr_mult: 0
    decay_mult: 0
  }
}
layer {
  name: "Scale15"
  type: "Scale"
  bottom: "Convolution15"
  top: "Convolution15"
  scale_param {
    bias_term: true
  }
}
layer {
  name: "Convolution16"
  type: "Convolution"
  bottom: "Eltwise6"
  top: "Convolution16"
  param {
    lr_mult: 1
    decay_mult: 1
  }
  param {
    lr_mult: 2
    decay_mult: 0
  }
  convolution_param {
    num_output: 64
    pad: 1
    kernel_size: 3
    stride: 2
    weight_filler {
      type: "gaussian"
      std: 0.059
    }
    bias_filler {
      type: "constant"
      value: 0
    }
  }
}
layer {
  name: "BatchNorm16"
  type: "BatchNorm"
  bottom: "Convolution16"
  top: "Convolution16"
  param {
    lr_mult: 0
    decay_mult: 0
  }
  param {
    lr_mult: 0
    decay_mult: 0
  }
  param {
    lr_mult: 0
    decay_mult: 0
  }
}
layer {
  name: "Scale16"
  type: "Scale"
  bottom: "Convolution16"
  top: "Convolution16"
  scale_param {
    bias_term: true
  }
}
layer {
  name: "penlu14"
  type: "PENLU"
  bottom: "Convolution16"
  top: "Convolution16"
  param {
    lr_mult: 2
    decay_mult: 2
  }
  param {
    lr_mult: 2
    decay_mult: 2
  }
  param {
    lr_mult: 0
    decay_mult: 0
  }
  penlu_param {
    alpha_filler {
      type: "constant"
      value: 0.25
    }
    beta_filler {
      type: "constant"
      value: 1
    }
    eta_filler {
      type: "constant"
      value: 1
    }
  }
}
layer {
  name: "Convolution17"
  type: "Convolution"
  bottom: "Convolution16"
  top: "Convolution17"
  param {
    lr_mult: 1
    decay_mult: 1
  }
  param {
    lr_mult: 2
    decay_mult: 0
  }
  convolution_param {
    num_output: 64
    pad: 1
    kernel_size: 3
    stride: 1
    weight_filler {
      type: "gaussian"
      std: 0.059
    }
    bias_filler {
      type: "constant"
      value: 0
    }
  }
}
layer {
  name: "BatchNorm17"
  type: "BatchNorm"
  bottom: "Convolution17"
  top: "Convolution17"
  param {
    lr_mult: 0
    decay_mult: 0
  }
  param {
    lr_mult: 0
    decay_mult: 0
  }
  param {
    lr_mult: 0
    decay_mult: 0
  }
}
layer {
  name: "Scale17"
  type: "Scale"
  bottom: "Convolution17"
  top: "Convolution17"
  scale_param {
    bias_term: true
  }
}
layer {
  name: "Eltwise7"
  type: "Eltwise"
  bottom: "Convolution15"
  bottom: "Convolution17"
  top: "Eltwise7"
  eltwise_param {
    operation: SUM
  }
}
layer {
  name: "penlu15"
  type: "PENLU"
  bottom: "Eltwise7"
  top: "Eltwise7"
  param {
    lr_mult: 2
    decay_mult: 2
  }
  param {
    lr_mult: 2
    decay_mult: 2
  }
  param {
    lr_mult: 0
    decay_mult: 0
  }
  penlu_param {
    alpha_filler {
      type: "constant"
      value: 0.25
    }
    beta_filler {
      type: "constant"
      value: 1
    }
    eta_filler {
      type: "constant"
      value: 1
    }
  }
}
layer {
  name: "Convolution18"
  type: "Convolution"
  bottom: "Eltwise7"
  top: "Convolution18"
  param {
    lr_mult: 1
    decay_mult: 1
  }
  param {
    lr_mult: 2
    decay_mult: 0
  }
  convolution_param {
    num_output: 64
    pad: 1
    kernel_size: 3
    stride: 1
    weight_filler {
      type: "gaussian"
      std: 0.059
    }
    bias_filler {
      type: "constant"
      value: 0
    }
  }
}
layer {
  name: "BatchNorm18"
  type: "BatchNorm"
  bottom: "Convolution18"
  top: "Convolution18"
  param {
    lr_mult: 0
    decay_mult: 0
  }
  param {
    lr_mult: 0
    decay_mult: 0
  }
  param {
    lr_mult: 0
    decay_mult: 0
  }
}
layer {
  name: "Scale18"
  type: "Scale"
  bottom: "Convolution18"
  top: "Convolution18"
  scale_param {
    bias_term: true
  }
}
layer {
  name: "penlu16"
  type: "PENLU"
  bottom: "Convolution18"
  top: "Convolution18"
  param {
    lr_mult: 2
    decay_mult: 2
  }
  param {
    lr_mult: 2
    decay_mult: 2
  }
  param {
    lr_mult: 0
    decay_mult: 0
  }
  penlu_param {
    alpha_filler {
      type: "constant"
      value: 0.25
    }
    beta_filler {
      type: "constant"
      value: 1
    }
    eta_filler {
      type: "constant"
      value: 1
    }
  }
}
layer {
  name: "Convolution19"
  type: "Convolution"
  bottom: "Convolution18"
  top: "Convolution19"
  param {
    lr_mult: 1
    decay_mult: 1
  }
  param {
    lr_mult: 2
    decay_mult: 0
  }
  convolution_param {
    num_output: 64
    pad: 1
    kernel_size: 3
    stride: 1
    weight_filler {
      type: "gaussian"
      std: 0.059
    }
    bias_filler {
      type: "constant"
      value: 0
    }
  }
}
layer {
  name: "BatchNorm19"
  type: "BatchNorm"
  bottom: "Convolution19"
  top: "Convolution19"
  param {
    lr_mult: 0
    decay_mult: 0
  }
  param {
    lr_mult: 0
    decay_mult: 0
  }
  param {
    lr_mult: 0
    decay_mult: 0
  }
}
layer {
  name: "Scale19"
  type: "Scale"
  bottom: "Convolution19"
  top: "Convolution19"
  scale_param {
    bias_term: true
  }
}
layer {
  name: "Eltwise8"
  type: "Eltwise"
  bottom: "Eltwise7"
  bottom: "Convolution19"
  top: "Eltwise8"
  eltwise_param {
    operation: SUM
  }
}
layer {
  name: "penlu17"
  type: "PENLU"
  bottom: "Eltwise8"
  top: "Eltwise8"
  param {
    lr_mult: 2
    decay_mult: 2
  }
  param {
    lr_mult: 2
    decay_mult: 2
  }
  param {
    lr_mult: 0
    decay_mult: 0
  }
  penlu_param {
    alpha_filler {
      type: "constant"
      value: 0.25
    }
    beta_filler {
      type: "constant"
      value: 1
    }
    eta_filler {
      type: "constant"
      value: 1
    }
  }
}
layer {
  name: "Convolution20"
  type: "Convolution"
  bottom: "Eltwise8"
  top: "Convolution20"
  param {
    lr_mult: 1
    decay_mult: 1
  }
  param {
    lr_mult: 2
    decay_mult: 0
  }
  convolution_param {
    num_output: 64
    pad: 1
    kernel_size: 3
    stride: 1
    weight_filler {
      type: "gaussian"
      std: 0.059
    }
    bias_filler {
      type: "constant"
      value: 0
    }
  }
}
layer {
  name: "BatchNorm20"
  type: "BatchNorm"
  bottom: "Convolution20"
  top: "Convolution20"
  param {
    lr_mult: 0
    decay_mult: 0
  }
  param {
    lr_mult: 0
    decay_mult: 0
  }
  param {
    lr_mult: 0
    decay_mult: 0
  }
}
layer {
  name: "Scale20"
  type: "Scale"
  bottom: "Convolution20"
  top: "Convolution20"
  scale_param {
    bias_term: true
  }
}
layer {
  name: "penlu18"
  type: "PENLU"
  bottom: "Convolution20"
  top: "Convolution20"
  param {
    lr_mult: 2
    decay_mult: 2
  }
  param {
    lr_mult: 2
    decay_mult: 2
  }
  param {
    lr_mult: 0
    decay_mult: 0
  }
  penlu_param {
    alpha_filler {
      type: "constant"
      value: 0.25
    }
    beta_filler {
      type: "constant"
      value: 1
    }
    eta_filler {
      type: "constant"
      value: 1
    }
  }
}
layer {
  name: "Convolution21"
  type: "Convolution"
  bottom: "Convolution20"
  top: "Convolution21"
  param {
    lr_mult: 1
    decay_mult: 1
  }
  param {
    lr_mult: 2
    decay_mult: 0
  }
  convolution_param {
    num_output: 64
    pad: 1
    kernel_size: 3
    stride: 1
    weight_filler {
      type: "gaussian"
      std: 0.059
    }
    bias_filler {
      type: "constant"
      value: 0
    }
  }
}
layer {
  name: "BatchNorm21"
  type: "BatchNorm"
  bottom: "Convolution21"
  top: "Convolution21"
  param {
    lr_mult: 0
    decay_mult: 0
  }
  param {
    lr_mult: 0
    decay_mult: 0
  }
  param {
    lr_mult: 0
    decay_mult: 0
  }
}
layer {
  name: "Scale21"
  type: "Scale"
  bottom: "Convolution21"
  top: "Convolution21"
  scale_param {
    bias_term: true
  }
}
layer {
  name: "Eltwise9"
  type: "Eltwise"
  bottom: "Eltwise8"
  bottom: "Convolution21"
  top: "Eltwise9"
  eltwise_param {
    operation: SUM
  }
}
layer {
  name: "penlu19"
  type: "PENLU"
  bottom: "Eltwise9"
  top: "Eltwise9"
  param {
    lr_mult: 2
    decay_mult: 2
  }
  param {
    lr_mult: 2
    decay_mult: 2
  }
  param {
    lr_mult: 0
    decay_mult: 0
  }
  penlu_param {
    alpha_filler {
      type: "constant"
      value: 0.25
    }
    beta_filler {
      type: "constant"
      value: 1
    }
    eta_filler {
      type: "constant"
      value: 1
    }
  }
}
layer {
  name: "Pooling1"
  type: "Pooling"
  bottom: "Eltwise9"
  top: "Pooling1"
  pooling_param {
    pool: AVE
    global_pooling: true
  }
}
layer {
  name: "InnerProduct1"
  type: "InnerProduct"
  bottom: "Pooling1"
  top: "InnerProduct1"
  param {
    lr_mult: 1
    decay_mult: 1
  }
  param {
    lr_mult: 2
    decay_mult: 1
  }
  inner_product_param {
    num_output: 10
    weight_filler {
      type: "gaussian"
      std: 0.01
    }
    bias_filler {
      type: "constant"
      value: 0
    }
  }
}
layer {
  name: "SoftmaxWithLoss1"
  type: "SoftmaxWithLoss"
  bottom: "InnerProduct1"
  bottom: "Data2"
  top: "SoftmaxWithLoss1"
}
I1022 21:09:53.577585  3959 layer_factory.hpp:77] Creating layer Data1
I1022 21:09:53.577666  3959 db_lmdb.cpp:35] Opened lmdb /home/x306/caffe/xn/English_orange/data/train1_lmdb
I1022 21:09:53.577682  3959 net.cpp:84] Creating Layer Data1
I1022 21:09:53.577687  3959 net.cpp:380] Data1 -> Data1
I1022 21:09:53.577705  3959 net.cpp:380] Data1 -> Data2
I1022 21:09:53.577714  3959 data_transformer.cpp:25] Loading mean file from: /home/x306/caffe/xn/English_orange/data/orange1_mean.binaryproto
I1022 21:09:53.580235  3959 data_layer.cpp:45] output data size: 8,3,224,224
I1022 21:09:53.588146  3959 net.cpp:122] Setting up Data1
I1022 21:09:53.588167  3959 net.cpp:129] Top shape: 8 3 224 224 (1204224)
I1022 21:09:53.588172  3959 net.cpp:129] Top shape: 8 (8)
I1022 21:09:53.588176  3959 net.cpp:137] Memory required for data: 4816928
I1022 21:09:53.588183  3959 layer_factory.hpp:77] Creating layer Convolution1
I1022 21:09:53.588204  3959 net.cpp:84] Creating Layer Convolution1
I1022 21:09:53.588209  3959 net.cpp:406] Convolution1 <- Data1
I1022 21:09:53.588218  3959 net.cpp:380] Convolution1 -> Convolution1
I1022 21:09:53.735837  3959 net.cpp:122] Setting up Convolution1
I1022 21:09:53.735862  3959 net.cpp:129] Top shape: 8 16 224 224 (6422528)
I1022 21:09:53.735865  3959 net.cpp:137] Memory required for data: 30507040
I1022 21:09:53.735880  3959 layer_factory.hpp:77] Creating layer BatchNorm1
I1022 21:09:53.735900  3959 net.cpp:84] Creating Layer BatchNorm1
I1022 21:09:53.735904  3959 net.cpp:406] BatchNorm1 <- Convolution1
I1022 21:09:53.735908  3959 net.cpp:367] BatchNorm1 -> Convolution1 (in-place)
I1022 21:09:53.736088  3959 net.cpp:122] Setting up BatchNorm1
I1022 21:09:53.736093  3959 net.cpp:129] Top shape: 8 16 224 224 (6422528)
I1022 21:09:53.736096  3959 net.cpp:137] Memory required for data: 56197152
I1022 21:09:53.736104  3959 layer_factory.hpp:77] Creating layer Scale1
I1022 21:09:53.736112  3959 net.cpp:84] Creating Layer Scale1
I1022 21:09:53.736126  3959 net.cpp:406] Scale1 <- Convolution1
I1022 21:09:53.736129  3959 net.cpp:367] Scale1 -> Convolution1 (in-place)
I1022 21:09:53.736188  3959 layer_factory.hpp:77] Creating layer Scale1
I1022 21:09:53.736358  3959 net.cpp:122] Setting up Scale1
I1022 21:09:53.736364  3959 net.cpp:129] Top shape: 8 16 224 224 (6422528)
I1022 21:09:53.736366  3959 net.cpp:137] Memory required for data: 81887264
I1022 21:09:53.736371  3959 layer_factory.hpp:77] Creating layer penlu1
I1022 21:09:53.736379  3959 net.cpp:84] Creating Layer penlu1
I1022 21:09:53.736382  3959 net.cpp:406] penlu1 <- Convolution1
I1022 21:09:53.736395  3959 net.cpp:367] penlu1 -> Convolution1 (in-place)
I1022 21:09:53.737521  3959 net.cpp:122] Setting up penlu1
I1022 21:09:53.737531  3959 net.cpp:129] Top shape: 8 16 224 224 (6422528)
I1022 21:09:53.737534  3959 net.cpp:137] Memory required for data: 107577376
I1022 21:09:53.737541  3959 layer_factory.hpp:77] Creating layer Convolution1_penlu1_0_split
I1022 21:09:53.737560  3959 net.cpp:84] Creating Layer Convolution1_penlu1_0_split
I1022 21:09:53.737563  3959 net.cpp:406] Convolution1_penlu1_0_split <- Convolution1
I1022 21:09:53.737567  3959 net.cpp:380] Convolution1_penlu1_0_split -> Convolution1_penlu1_0_split_0
I1022 21:09:53.737583  3959 net.cpp:380] Convolution1_penlu1_0_split -> Convolution1_penlu1_0_split_1
I1022 21:09:53.737627  3959 net.cpp:122] Setting up Convolution1_penlu1_0_split
I1022 21:09:53.737632  3959 net.cpp:129] Top shape: 8 16 224 224 (6422528)
I1022 21:09:53.737635  3959 net.cpp:129] Top shape: 8 16 224 224 (6422528)
I1022 21:09:53.737646  3959 net.cpp:137] Memory required for data: 158957600
I1022 21:09:53.737648  3959 layer_factory.hpp:77] Creating layer Convolution2
I1022 21:09:53.737666  3959 net.cpp:84] Creating Layer Convolution2
I1022 21:09:53.737670  3959 net.cpp:406] Convolution2 <- Convolution1_penlu1_0_split_0
I1022 21:09:53.737682  3959 net.cpp:380] Convolution2 -> Convolution2
I1022 21:09:53.739123  3959 net.cpp:122] Setting up Convolution2
I1022 21:09:53.739135  3959 net.cpp:129] Top shape: 8 16 224 224 (6422528)
I1022 21:09:53.739137  3959 net.cpp:137] Memory required for data: 184647712
I1022 21:09:53.739163  3959 layer_factory.hpp:77] Creating layer BatchNorm2
I1022 21:09:53.739169  3959 net.cpp:84] Creating Layer BatchNorm2
I1022 21:09:53.739184  3959 net.cpp:406] BatchNorm2 <- Convolution2
I1022 21:09:53.739188  3959 net.cpp:367] BatchNorm2 -> Convolution2 (in-place)
I1022 21:09:53.739351  3959 net.cpp:122] Setting up BatchNorm2
I1022 21:09:53.739357  3959 net.cpp:129] Top shape: 8 16 224 224 (6422528)
I1022 21:09:53.739359  3959 net.cpp:137] Memory required for data: 210337824
I1022 21:09:53.739364  3959 layer_factory.hpp:77] Creating layer Scale2
I1022 21:09:53.739370  3959 net.cpp:84] Creating Layer Scale2
I1022 21:09:53.739372  3959 net.cpp:406] Scale2 <- Convolution2
I1022 21:09:53.739375  3959 net.cpp:367] Scale2 -> Convolution2 (in-place)
I1022 21:09:53.739436  3959 layer_factory.hpp:77] Creating layer Scale2
I1022 21:09:53.739604  3959 net.cpp:122] Setting up Scale2
I1022 21:09:53.739610  3959 net.cpp:129] Top shape: 8 16 224 224 (6422528)
I1022 21:09:53.739612  3959 net.cpp:137] Memory required for data: 236027936
I1022 21:09:53.739619  3959 layer_factory.hpp:77] Creating layer penlu2
I1022 21:09:53.739624  3959 net.cpp:84] Creating Layer penlu2
I1022 21:09:53.739626  3959 net.cpp:406] penlu2 <- Convolution2
I1022 21:09:53.739640  3959 net.cpp:367] penlu2 -> Convolution2 (in-place)
I1022 21:09:53.740770  3959 net.cpp:122] Setting up penlu2
I1022 21:09:53.740780  3959 net.cpp:129] Top shape: 8 16 224 224 (6422528)
I1022 21:09:53.740783  3959 net.cpp:137] Memory required for data: 261718048
I1022 21:09:53.740788  3959 layer_factory.hpp:77] Creating layer Convolution3
I1022 21:09:53.740797  3959 net.cpp:84] Creating Layer Convolution3
I1022 21:09:53.740809  3959 net.cpp:406] Convolution3 <- Convolution2
I1022 21:09:53.740813  3959 net.cpp:380] Convolution3 -> Convolution3
I1022 21:09:53.741705  3959 net.cpp:122] Setting up Convolution3
I1022 21:09:53.741715  3959 net.cpp:129] Top shape: 8 16 224 224 (6422528)
I1022 21:09:53.741719  3959 net.cpp:137] Memory required for data: 287408160
I1022 21:09:53.741724  3959 layer_factory.hpp:77] Creating layer BatchNorm3
I1022 21:09:53.741727  3959 net.cpp:84] Creating Layer BatchNorm3
I1022 21:09:53.741730  3959 net.cpp:406] BatchNorm3 <- Convolution3
I1022 21:09:53.741744  3959 net.cpp:367] BatchNorm3 -> Convolution3 (in-place)
I1022 21:09:53.741904  3959 net.cpp:122] Setting up BatchNorm3
I1022 21:09:53.741909  3959 net.cpp:129] Top shape: 8 16 224 224 (6422528)
I1022 21:09:53.741910  3959 net.cpp:137] Memory required for data: 313098272
I1022 21:09:53.741915  3959 layer_factory.hpp:77] Creating layer Scale3
I1022 21:09:53.741919  3959 net.cpp:84] Creating Layer Scale3
I1022 21:09:53.741922  3959 net.cpp:406] Scale3 <- Convolution3
I1022 21:09:53.741925  3959 net.cpp:367] Scale3 -> Convolution3 (in-place)
I1022 21:09:53.741968  3959 layer_factory.hpp:77] Creating layer Scale3
I1022 21:09:53.742599  3959 net.cpp:122] Setting up Scale3
I1022 21:09:53.742609  3959 net.cpp:129] Top shape: 8 16 224 224 (6422528)
I1022 21:09:53.742611  3959 net.cpp:137] Memory required for data: 338788384
I1022 21:09:53.742616  3959 layer_factory.hpp:77] Creating layer Eltwise1
I1022 21:09:53.742621  3959 net.cpp:84] Creating Layer Eltwise1
I1022 21:09:53.742624  3959 net.cpp:406] Eltwise1 <- Convolution1_penlu1_0_split_1
I1022 21:09:53.742637  3959 net.cpp:406] Eltwise1 <- Convolution3
I1022 21:09:53.742641  3959 net.cpp:380] Eltwise1 -> Eltwise1
I1022 21:09:53.742671  3959 net.cpp:122] Setting up Eltwise1
I1022 21:09:53.742676  3959 net.cpp:129] Top shape: 8 16 224 224 (6422528)
I1022 21:09:53.742677  3959 net.cpp:137] Memory required for data: 364478496
I1022 21:09:53.742679  3959 layer_factory.hpp:77] Creating layer penlu3
I1022 21:09:53.742684  3959 net.cpp:84] Creating Layer penlu3
I1022 21:09:53.742687  3959 net.cpp:406] penlu3 <- Eltwise1
I1022 21:09:53.742691  3959 net.cpp:367] penlu3 -> Eltwise1 (in-place)
I1022 21:09:53.743824  3959 net.cpp:122] Setting up penlu3
I1022 21:09:53.743834  3959 net.cpp:129] Top shape: 8 16 224 224 (6422528)
I1022 21:09:53.743847  3959 net.cpp:137] Memory required for data: 390168608
I1022 21:09:53.743862  3959 layer_factory.hpp:77] Creating layer Eltwise1_penlu3_0_split
I1022 21:09:53.743868  3959 net.cpp:84] Creating Layer Eltwise1_penlu3_0_split
I1022 21:09:53.743870  3959 net.cpp:406] Eltwise1_penlu3_0_split <- Eltwise1
I1022 21:09:53.743876  3959 net.cpp:380] Eltwise1_penlu3_0_split -> Eltwise1_penlu3_0_split_0
I1022 21:09:53.743882  3959 net.cpp:380] Eltwise1_penlu3_0_split -> Eltwise1_penlu3_0_split_1
I1022 21:09:53.743916  3959 net.cpp:122] Setting up Eltwise1_penlu3_0_split
I1022 21:09:53.743921  3959 net.cpp:129] Top shape: 8 16 224 224 (6422528)
I1022 21:09:53.743934  3959 net.cpp:129] Top shape: 8 16 224 224 (6422528)
I1022 21:09:53.743937  3959 net.cpp:137] Memory required for data: 441548832
I1022 21:09:53.743938  3959 layer_factory.hpp:77] Creating layer Convolution4
I1022 21:09:53.743947  3959 net.cpp:84] Creating Layer Convolution4
I1022 21:09:53.743968  3959 net.cpp:406] Convolution4 <- Eltwise1_penlu3_0_split_0
I1022 21:09:53.743973  3959 net.cpp:380] Convolution4 -> Convolution4
I1022 21:09:53.744922  3959 net.cpp:122] Setting up Convolution4
I1022 21:09:53.744932  3959 net.cpp:129] Top shape: 8 16 224 224 (6422528)
I1022 21:09:53.744946  3959 net.cpp:137] Memory required for data: 467238944
I1022 21:09:53.744951  3959 layer_factory.hpp:77] Creating layer BatchNorm4
I1022 21:09:53.744956  3959 net.cpp:84] Creating Layer BatchNorm4
I1022 21:09:53.744969  3959 net.cpp:406] BatchNorm4 <- Convolution4
I1022 21:09:53.744973  3959 net.cpp:367] BatchNorm4 -> Convolution4 (in-place)
I1022 21:09:53.745141  3959 net.cpp:122] Setting up BatchNorm4
I1022 21:09:53.745146  3959 net.cpp:129] Top shape: 8 16 224 224 (6422528)
I1022 21:09:53.745157  3959 net.cpp:137] Memory required for data: 492929056
I1022 21:09:53.745167  3959 layer_factory.hpp:77] Creating layer Scale4
I1022 21:09:53.745172  3959 net.cpp:84] Creating Layer Scale4
I1022 21:09:53.745174  3959 net.cpp:406] Scale4 <- Convolution4
I1022 21:09:53.745177  3959 net.cpp:367] Scale4 -> Convolution4 (in-place)
I1022 21:09:53.745204  3959 layer_factory.hpp:77] Creating layer Scale4
I1022 21:09:53.745333  3959 net.cpp:122] Setting up Scale4
I1022 21:09:53.745338  3959 net.cpp:129] Top shape: 8 16 224 224 (6422528)
I1022 21:09:53.745342  3959 net.cpp:137] Memory required for data: 518619168
I1022 21:09:53.745345  3959 layer_factory.hpp:77] Creating layer penlu4
I1022 21:09:53.745352  3959 net.cpp:84] Creating Layer penlu4
I1022 21:09:53.745354  3959 net.cpp:406] penlu4 <- Convolution4
I1022 21:09:53.745358  3959 net.cpp:367] penlu4 -> Convolution4 (in-place)
I1022 21:09:53.746520  3959 net.cpp:122] Setting up penlu4
I1022 21:09:53.746531  3959 net.cpp:129] Top shape: 8 16 224 224 (6422528)
I1022 21:09:53.746534  3959 net.cpp:137] Memory required for data: 544309280
I1022 21:09:53.746539  3959 layer_factory.hpp:77] Creating layer Convolution5
I1022 21:09:53.746547  3959 net.cpp:84] Creating Layer Convolution5
I1022 21:09:53.746551  3959 net.cpp:406] Convolution5 <- Convolution4
I1022 21:09:53.746556  3959 net.cpp:380] Convolution5 -> Convolution5
I1022 21:09:53.747898  3959 net.cpp:122] Setting up Convolution5
I1022 21:09:53.747913  3959 net.cpp:129] Top shape: 8 16 224 224 (6422528)
I1022 21:09:53.747917  3959 net.cpp:137] Memory required for data: 569999392
I1022 21:09:53.747922  3959 layer_factory.hpp:77] Creating layer BatchNorm5
I1022 21:09:53.747930  3959 net.cpp:84] Creating Layer BatchNorm5
I1022 21:09:53.747933  3959 net.cpp:406] BatchNorm5 <- Convolution5
I1022 21:09:53.747938  3959 net.cpp:367] BatchNorm5 -> Convolution5 (in-place)
I1022 21:09:53.748179  3959 net.cpp:122] Setting up BatchNorm5
I1022 21:09:53.748199  3959 net.cpp:129] Top shape: 8 16 224 224 (6422528)
I1022 21:09:53.748203  3959 net.cpp:137] Memory required for data: 595689504
I1022 21:09:53.748209  3959 layer_factory.hpp:77] Creating layer Scale5
I1022 21:09:53.748224  3959 net.cpp:84] Creating Layer Scale5
I1022 21:09:53.748227  3959 net.cpp:406] Scale5 <- Convolution5
I1022 21:09:53.748231  3959 net.cpp:367] Scale5 -> Convolution5 (in-place)
I1022 21:09:53.748302  3959 layer_factory.hpp:77] Creating layer Scale5
I1022 21:09:53.748476  3959 net.cpp:122] Setting up Scale5
I1022 21:09:53.748482  3959 net.cpp:129] Top shape: 8 16 224 224 (6422528)
I1022 21:09:53.748486  3959 net.cpp:137] Memory required for data: 621379616
I1022 21:09:53.748499  3959 layer_factory.hpp:77] Creating layer Eltwise2
I1022 21:09:53.748505  3959 net.cpp:84] Creating Layer Eltwise2
I1022 21:09:53.748508  3959 net.cpp:406] Eltwise2 <- Eltwise1_penlu3_0_split_1
I1022 21:09:53.748522  3959 net.cpp:406] Eltwise2 <- Convolution5
I1022 21:09:53.748528  3959 net.cpp:380] Eltwise2 -> Eltwise2
I1022 21:09:53.748564  3959 net.cpp:122] Setting up Eltwise2
I1022 21:09:53.748569  3959 net.cpp:129] Top shape: 8 16 224 224 (6422528)
I1022 21:09:53.748571  3959 net.cpp:137] Memory required for data: 647069728
I1022 21:09:53.748584  3959 layer_factory.hpp:77] Creating layer penlu5
I1022 21:09:53.748589  3959 net.cpp:84] Creating Layer penlu5
I1022 21:09:53.748592  3959 net.cpp:406] penlu5 <- Eltwise2
I1022 21:09:53.748597  3959 net.cpp:367] penlu5 -> Eltwise2 (in-place)
I1022 21:09:53.749913  3959 net.cpp:122] Setting up penlu5
I1022 21:09:53.749927  3959 net.cpp:129] Top shape: 8 16 224 224 (6422528)
I1022 21:09:53.749930  3959 net.cpp:137] Memory required for data: 672759840
I1022 21:09:53.749945  3959 layer_factory.hpp:77] Creating layer Eltwise2_penlu5_0_split
I1022 21:09:53.749951  3959 net.cpp:84] Creating Layer Eltwise2_penlu5_0_split
I1022 21:09:53.749954  3959 net.cpp:406] Eltwise2_penlu5_0_split <- Eltwise2
I1022 21:09:53.749960  3959 net.cpp:380] Eltwise2_penlu5_0_split -> Eltwise2_penlu5_0_split_0
I1022 21:09:53.749966  3959 net.cpp:380] Eltwise2_penlu5_0_split -> Eltwise2_penlu5_0_split_1
I1022 21:09:53.749992  3959 net.cpp:122] Setting up Eltwise2_penlu5_0_split
I1022 21:09:53.749997  3959 net.cpp:129] Top shape: 8 16 224 224 (6422528)
I1022 21:09:53.750001  3959 net.cpp:129] Top shape: 8 16 224 224 (6422528)
I1022 21:09:53.750005  3959 net.cpp:137] Memory required for data: 724140064
I1022 21:09:53.750006  3959 layer_factory.hpp:77] Creating layer Convolution6
I1022 21:09:53.750015  3959 net.cpp:84] Creating Layer Convolution6
I1022 21:09:53.750018  3959 net.cpp:406] Convolution6 <- Eltwise2_penlu5_0_split_0
I1022 21:09:53.750022  3959 net.cpp:380] Convolution6 -> Convolution6
I1022 21:09:53.751564  3959 net.cpp:122] Setting up Convolution6
I1022 21:09:53.751575  3959 net.cpp:129] Top shape: 8 16 224 224 (6422528)
I1022 21:09:53.751579  3959 net.cpp:137] Memory required for data: 749830176
I1022 21:09:53.751583  3959 layer_factory.hpp:77] Creating layer BatchNorm6
I1022 21:09:53.751590  3959 net.cpp:84] Creating Layer BatchNorm6
I1022 21:09:53.751592  3959 net.cpp:406] BatchNorm6 <- Convolution6
I1022 21:09:53.751597  3959 net.cpp:367] BatchNorm6 -> Convolution6 (in-place)
I1022 21:09:53.751755  3959 net.cpp:122] Setting up BatchNorm6
I1022 21:09:53.751761  3959 net.cpp:129] Top shape: 8 16 224 224 (6422528)
I1022 21:09:53.751765  3959 net.cpp:137] Memory required for data: 775520288
I1022 21:09:53.751770  3959 layer_factory.hpp:77] Creating layer Scale6
I1022 21:09:53.751775  3959 net.cpp:84] Creating Layer Scale6
I1022 21:09:53.751777  3959 net.cpp:406] Scale6 <- Convolution6
I1022 21:09:53.751781  3959 net.cpp:367] Scale6 -> Convolution6 (in-place)
I1022 21:09:53.751809  3959 layer_factory.hpp:77] Creating layer Scale6
I1022 21:09:53.751925  3959 net.cpp:122] Setting up Scale6
I1022 21:09:53.751931  3959 net.cpp:129] Top shape: 8 16 224 224 (6422528)
I1022 21:09:53.751935  3959 net.cpp:137] Memory required for data: 801210400
I1022 21:09:53.751938  3959 layer_factory.hpp:77] Creating layer penlu6
I1022 21:09:53.751945  3959 net.cpp:84] Creating Layer penlu6
I1022 21:09:53.751948  3959 net.cpp:406] penlu6 <- Convolution6
I1022 21:09:53.751952  3959 net.cpp:367] penlu6 -> Convolution6 (in-place)
I1022 21:09:53.753106  3959 net.cpp:122] Setting up penlu6
I1022 21:09:53.753116  3959 net.cpp:129] Top shape: 8 16 224 224 (6422528)
I1022 21:09:53.753131  3959 net.cpp:137] Memory required for data: 826900512
I1022 21:09:53.753137  3959 layer_factory.hpp:77] Creating layer Convolution7
I1022 21:09:53.753145  3959 net.cpp:84] Creating Layer Convolution7
I1022 21:09:53.753149  3959 net.cpp:406] Convolution7 <- Convolution6
I1022 21:09:53.753154  3959 net.cpp:380] Convolution7 -> Convolution7
I1022 21:09:53.754127  3959 net.cpp:122] Setting up Convolution7
I1022 21:09:53.754138  3959 net.cpp:129] Top shape: 8 16 224 224 (6422528)
I1022 21:09:53.754142  3959 net.cpp:137] Memory required for data: 852590624
I1022 21:09:53.754146  3959 layer_factory.hpp:77] Creating layer BatchNorm7
I1022 21:09:53.754153  3959 net.cpp:84] Creating Layer BatchNorm7
I1022 21:09:53.754156  3959 net.cpp:406] BatchNorm7 <- Convolution7
I1022 21:09:53.754159  3959 net.cpp:367] BatchNorm7 -> Convolution7 (in-place)
I1022 21:09:53.754319  3959 net.cpp:122] Setting up BatchNorm7
I1022 21:09:53.754325  3959 net.cpp:129] Top shape: 8 16 224 224 (6422528)
I1022 21:09:53.754328  3959 net.cpp:137] Memory required for data: 878280736
I1022 21:09:53.754339  3959 layer_factory.hpp:77] Creating layer Scale7
I1022 21:09:53.754348  3959 net.cpp:84] Creating Layer Scale7
I1022 21:09:53.754351  3959 net.cpp:406] Scale7 <- Convolution7
I1022 21:09:53.754354  3959 net.cpp:367] Scale7 -> Convolution7 (in-place)
I1022 21:09:53.754382  3959 layer_factory.hpp:77] Creating layer Scale7
I1022 21:09:53.754513  3959 net.cpp:122] Setting up Scale7
I1022 21:09:53.754519  3959 net.cpp:129] Top shape: 8 16 224 224 (6422528)
I1022 21:09:53.754521  3959 net.cpp:137] Memory required for data: 903970848
I1022 21:09:53.754535  3959 layer_factory.hpp:77] Creating layer Eltwise3
I1022 21:09:53.754540  3959 net.cpp:84] Creating Layer Eltwise3
I1022 21:09:53.754544  3959 net.cpp:406] Eltwise3 <- Eltwise2_penlu5_0_split_1
I1022 21:09:53.754547  3959 net.cpp:406] Eltwise3 <- Convolution7
I1022 21:09:53.754550  3959 net.cpp:380] Eltwise3 -> Eltwise3
I1022 21:09:53.754578  3959 net.cpp:122] Setting up Eltwise3
I1022 21:09:53.754583  3959 net.cpp:129] Top shape: 8 16 224 224 (6422528)
I1022 21:09:53.754586  3959 net.cpp:137] Memory required for data: 929660960
I1022 21:09:53.754588  3959 layer_factory.hpp:77] Creating layer penlu7
I1022 21:09:53.754592  3959 net.cpp:84] Creating Layer penlu7
I1022 21:09:53.754595  3959 net.cpp:406] penlu7 <- Eltwise3
I1022 21:09:53.754600  3959 net.cpp:367] penlu7 -> Eltwise3 (in-place)
I1022 21:09:53.755781  3959 net.cpp:122] Setting up penlu7
I1022 21:09:53.755792  3959 net.cpp:129] Top shape: 8 16 224 224 (6422528)
I1022 21:09:53.755795  3959 net.cpp:137] Memory required for data: 955351072
I1022 21:09:53.755801  3959 layer_factory.hpp:77] Creating layer Eltwise3_penlu7_0_split
I1022 21:09:53.755806  3959 net.cpp:84] Creating Layer Eltwise3_penlu7_0_split
I1022 21:09:53.755810  3959 net.cpp:406] Eltwise3_penlu7_0_split <- Eltwise3
I1022 21:09:53.755813  3959 net.cpp:380] Eltwise3_penlu7_0_split -> Eltwise3_penlu7_0_split_0
I1022 21:09:53.755820  3959 net.cpp:380] Eltwise3_penlu7_0_split -> Eltwise3_penlu7_0_split_1
I1022 21:09:53.755844  3959 net.cpp:122] Setting up Eltwise3_penlu7_0_split
I1022 21:09:53.755849  3959 net.cpp:129] Top shape: 8 16 224 224 (6422528)
I1022 21:09:53.755853  3959 net.cpp:129] Top shape: 8 16 224 224 (6422528)
I1022 21:09:53.755856  3959 net.cpp:137] Memory required for data: 1006731296
I1022 21:09:53.755858  3959 layer_factory.hpp:77] Creating layer Convolution8
I1022 21:09:53.755867  3959 net.cpp:84] Creating Layer Convolution8
I1022 21:09:53.755870  3959 net.cpp:406] Convolution8 <- Eltwise3_penlu7_0_split_0
I1022 21:09:53.755874  3959 net.cpp:380] Convolution8 -> Convolution8
I1022 21:09:53.757639  3959 net.cpp:122] Setting up Convolution8
I1022 21:09:53.757650  3959 net.cpp:129] Top shape: 8 32 112 112 (3211264)
I1022 21:09:53.757653  3959 net.cpp:137] Memory required for data: 1019576352
I1022 21:09:53.757658  3959 layer_factory.hpp:77] Creating layer BatchNorm8
I1022 21:09:53.757665  3959 net.cpp:84] Creating Layer BatchNorm8
I1022 21:09:53.757669  3959 net.cpp:406] BatchNorm8 <- Convolution8
I1022 21:09:53.757683  3959 net.cpp:367] BatchNorm8 -> Convolution8 (in-place)
I1022 21:09:53.757828  3959 net.cpp:122] Setting up BatchNorm8
I1022 21:09:53.757834  3959 net.cpp:129] Top shape: 8 32 112 112 (3211264)
I1022 21:09:53.757838  3959 net.cpp:137] Memory required for data: 1032421408
I1022 21:09:53.757843  3959 layer_factory.hpp:77] Creating layer Scale8
I1022 21:09:53.757849  3959 net.cpp:84] Creating Layer Scale8
I1022 21:09:53.757853  3959 net.cpp:406] Scale8 <- Convolution8
I1022 21:09:53.757855  3959 net.cpp:367] Scale8 -> Convolution8 (in-place)
I1022 21:09:53.757886  3959 layer_factory.hpp:77] Creating layer Scale8
I1022 21:09:53.757973  3959 net.cpp:122] Setting up Scale8
I1022 21:09:53.757979  3959 net.cpp:129] Top shape: 8 32 112 112 (3211264)
I1022 21:09:53.757982  3959 net.cpp:137] Memory required for data: 1045266464
I1022 21:09:53.757985  3959 layer_factory.hpp:77] Creating layer Convolution9
I1022 21:09:53.757994  3959 net.cpp:84] Creating Layer Convolution9
I1022 21:09:53.757997  3959 net.cpp:406] Convolution9 <- Eltwise3_penlu7_0_split_1
I1022 21:09:53.758002  3959 net.cpp:380] Convolution9 -> Convolution9
I1022 21:09:53.758954  3959 net.cpp:122] Setting up Convolution9
I1022 21:09:53.758963  3959 net.cpp:129] Top shape: 8 32 112 112 (3211264)
I1022 21:09:53.758966  3959 net.cpp:137] Memory required for data: 1058111520
I1022 21:09:53.758971  3959 layer_factory.hpp:77] Creating layer BatchNorm9
I1022 21:09:53.758977  3959 net.cpp:84] Creating Layer BatchNorm9
I1022 21:09:53.758980  3959 net.cpp:406] BatchNorm9 <- Convolution9
I1022 21:09:53.758985  3959 net.cpp:367] BatchNorm9 -> Convolution9 (in-place)
I1022 21:09:53.759119  3959 net.cpp:122] Setting up BatchNorm9
I1022 21:09:53.759124  3959 net.cpp:129] Top shape: 8 32 112 112 (3211264)
I1022 21:09:53.759126  3959 net.cpp:137] Memory required for data: 1070956576
I1022 21:09:53.759131  3959 layer_factory.hpp:77] Creating layer Scale9
I1022 21:09:53.759135  3959 net.cpp:84] Creating Layer Scale9
I1022 21:09:53.759138  3959 net.cpp:406] Scale9 <- Convolution9
I1022 21:09:53.759142  3959 net.cpp:367] Scale9 -> Convolution9 (in-place)
I1022 21:09:53.759168  3959 layer_factory.hpp:77] Creating layer Scale9
I1022 21:09:53.759250  3959 net.cpp:122] Setting up Scale9
I1022 21:09:53.759255  3959 net.cpp:129] Top shape: 8 32 112 112 (3211264)
I1022 21:09:53.759258  3959 net.cpp:137] Memory required for data: 1083801632
I1022 21:09:53.759263  3959 layer_factory.hpp:77] Creating layer penlu8
I1022 21:09:53.759268  3959 net.cpp:84] Creating Layer penlu8
I1022 21:09:53.759271  3959 net.cpp:406] penlu8 <- Convolution9
I1022 21:09:53.759276  3959 net.cpp:367] penlu8 -> Convolution9 (in-place)
I1022 21:09:53.760092  3959 net.cpp:122] Setting up penlu8
I1022 21:09:53.760102  3959 net.cpp:129] Top shape: 8 32 112 112 (3211264)
I1022 21:09:53.760105  3959 net.cpp:137] Memory required for data: 1096646688
I1022 21:09:53.760110  3959 layer_factory.hpp:77] Creating layer Convolution10
I1022 21:09:53.760118  3959 net.cpp:84] Creating Layer Convolution10
I1022 21:09:53.760121  3959 net.cpp:406] Convolution10 <- Convolution9
I1022 21:09:53.760126  3959 net.cpp:380] Convolution10 -> Convolution10
I1022 21:09:53.761193  3959 net.cpp:122] Setting up Convolution10
I1022 21:09:53.761203  3959 net.cpp:129] Top shape: 8 32 112 112 (3211264)
I1022 21:09:53.761205  3959 net.cpp:137] Memory required for data: 1109491744
I1022 21:09:53.761210  3959 layer_factory.hpp:77] Creating layer BatchNorm10
I1022 21:09:53.761216  3959 net.cpp:84] Creating Layer BatchNorm10
I1022 21:09:53.761220  3959 net.cpp:406] BatchNorm10 <- Convolution10
I1022 21:09:53.761225  3959 net.cpp:367] BatchNorm10 -> Convolution10 (in-place)
I1022 21:09:53.761358  3959 net.cpp:122] Setting up BatchNorm10
I1022 21:09:53.761364  3959 net.cpp:129] Top shape: 8 32 112 112 (3211264)
I1022 21:09:53.761368  3959 net.cpp:137] Memory required for data: 1122336800
I1022 21:09:53.761373  3959 layer_factory.hpp:77] Creating layer Scale10
I1022 21:09:53.761379  3959 net.cpp:84] Creating Layer Scale10
I1022 21:09:53.761389  3959 net.cpp:406] Scale10 <- Convolution10
I1022 21:09:53.761394  3959 net.cpp:367] Scale10 -> Convolution10 (in-place)
I1022 21:09:53.761421  3959 layer_factory.hpp:77] Creating layer Scale10
I1022 21:09:53.761510  3959 net.cpp:122] Setting up Scale10
I1022 21:09:53.761517  3959 net.cpp:129] Top shape: 8 32 112 112 (3211264)
I1022 21:09:53.761519  3959 net.cpp:137] Memory required for data: 1135181856
I1022 21:09:53.761523  3959 layer_factory.hpp:77] Creating layer Eltwise4
I1022 21:09:53.761528  3959 net.cpp:84] Creating Layer Eltwise4
I1022 21:09:53.761531  3959 net.cpp:406] Eltwise4 <- Convolution8
I1022 21:09:53.761534  3959 net.cpp:406] Eltwise4 <- Convolution10
I1022 21:09:53.761539  3959 net.cpp:380] Eltwise4 -> Eltwise4
I1022 21:09:53.761555  3959 net.cpp:122] Setting up Eltwise4
I1022 21:09:53.761561  3959 net.cpp:129] Top shape: 8 32 112 112 (3211264)
I1022 21:09:53.761564  3959 net.cpp:137] Memory required for data: 1148026912
I1022 21:09:53.761566  3959 layer_factory.hpp:77] Creating layer penlu9
I1022 21:09:53.761571  3959 net.cpp:84] Creating Layer penlu9
I1022 21:09:53.761574  3959 net.cpp:406] penlu9 <- Eltwise4
I1022 21:09:53.761579  3959 net.cpp:367] penlu9 -> Eltwise4 (in-place)
I1022 21:09:53.762365  3959 net.cpp:122] Setting up penlu9
I1022 21:09:53.762375  3959 net.cpp:129] Top shape: 8 32 112 112 (3211264)
I1022 21:09:53.762377  3959 net.cpp:137] Memory required for data: 1160871968
I1022 21:09:53.762383  3959 layer_factory.hpp:77] Creating layer Eltwise4_penlu9_0_split
I1022 21:09:53.762388  3959 net.cpp:84] Creating Layer Eltwise4_penlu9_0_split
I1022 21:09:53.762392  3959 net.cpp:406] Eltwise4_penlu9_0_split <- Eltwise4
I1022 21:09:53.762397  3959 net.cpp:380] Eltwise4_penlu9_0_split -> Eltwise4_penlu9_0_split_0
I1022 21:09:53.762401  3959 net.cpp:380] Eltwise4_penlu9_0_split -> Eltwise4_penlu9_0_split_1
I1022 21:09:53.762426  3959 net.cpp:122] Setting up Eltwise4_penlu9_0_split
I1022 21:09:53.762431  3959 net.cpp:129] Top shape: 8 32 112 112 (3211264)
I1022 21:09:53.762435  3959 net.cpp:129] Top shape: 8 32 112 112 (3211264)
I1022 21:09:53.762439  3959 net.cpp:137] Memory required for data: 1186562080
I1022 21:09:53.762440  3959 layer_factory.hpp:77] Creating layer Convolution11
I1022 21:09:53.762449  3959 net.cpp:84] Creating Layer Convolution11
I1022 21:09:53.762451  3959 net.cpp:406] Convolution11 <- Eltwise4_penlu9_0_split_0
I1022 21:09:53.762455  3959 net.cpp:380] Convolution11 -> Convolution11
I1022 21:09:53.763583  3959 net.cpp:122] Setting up Convolution11
I1022 21:09:53.763594  3959 net.cpp:129] Top shape: 8 32 112 112 (3211264)
I1022 21:09:53.763597  3959 net.cpp:137] Memory required for data: 1199407136
I1022 21:09:53.763602  3959 layer_factory.hpp:77] Creating layer BatchNorm11
I1022 21:09:53.763609  3959 net.cpp:84] Creating Layer BatchNorm11
I1022 21:09:53.763613  3959 net.cpp:406] BatchNorm11 <- Convolution11
I1022 21:09:53.763617  3959 net.cpp:367] BatchNorm11 -> Convolution11 (in-place)
I1022 21:09:53.763814  3959 net.cpp:122] Setting up BatchNorm11
I1022 21:09:53.763826  3959 net.cpp:129] Top shape: 8 32 112 112 (3211264)
I1022 21:09:53.763833  3959 net.cpp:137] Memory required for data: 1212252192
I1022 21:09:53.763841  3959 layer_factory.hpp:77] Creating layer Scale11
I1022 21:09:53.763851  3959 net.cpp:84] Creating Layer Scale11
I1022 21:09:53.763857  3959 net.cpp:406] Scale11 <- Convolution11
I1022 21:09:53.763864  3959 net.cpp:367] Scale11 -> Convolution11 (in-place)
I1022 21:09:53.763906  3959 layer_factory.hpp:77] Creating layer Scale11
I1022 21:09:53.764011  3959 net.cpp:122] Setting up Scale11
I1022 21:09:53.764019  3959 net.cpp:129] Top shape: 8 32 112 112 (3211264)
I1022 21:09:53.764020  3959 net.cpp:137] Memory required for data: 1225097248
I1022 21:09:53.764025  3959 layer_factory.hpp:77] Creating layer penlu10
I1022 21:09:53.764031  3959 net.cpp:84] Creating Layer penlu10
I1022 21:09:53.764035  3959 net.cpp:406] penlu10 <- Convolution11
I1022 21:09:53.764039  3959 net.cpp:367] penlu10 -> Convolution11 (in-place)
I1022 21:09:53.764916  3959 net.cpp:122] Setting up penlu10
I1022 21:09:53.764935  3959 net.cpp:129] Top shape: 8 32 112 112 (3211264)
I1022 21:09:53.764937  3959 net.cpp:137] Memory required for data: 1237942304
I1022 21:09:53.764943  3959 layer_factory.hpp:77] Creating layer Convolution12
I1022 21:09:53.764950  3959 net.cpp:84] Creating Layer Convolution12
I1022 21:09:53.764953  3959 net.cpp:406] Convolution12 <- Convolution11
I1022 21:09:53.764958  3959 net.cpp:380] Convolution12 -> Convolution12
I1022 21:09:53.766232  3959 net.cpp:122] Setting up Convolution12
I1022 21:09:53.766242  3959 net.cpp:129] Top shape: 8 32 112 112 (3211264)
I1022 21:09:53.766245  3959 net.cpp:137] Memory required for data: 1250787360
I1022 21:09:53.766250  3959 layer_factory.hpp:77] Creating layer BatchNorm12
I1022 21:09:53.766257  3959 net.cpp:84] Creating Layer BatchNorm12
I1022 21:09:53.766260  3959 net.cpp:406] BatchNorm12 <- Convolution12
I1022 21:09:53.766264  3959 net.cpp:367] BatchNorm12 -> Convolution12 (in-place)
I1022 21:09:53.766415  3959 net.cpp:122] Setting up BatchNorm12
I1022 21:09:53.766433  3959 net.cpp:129] Top shape: 8 32 112 112 (3211264)
I1022 21:09:53.766435  3959 net.cpp:137] Memory required for data: 1263632416
I1022 21:09:53.766450  3959 layer_factory.hpp:77] Creating layer Scale12
I1022 21:09:53.766455  3959 net.cpp:84] Creating Layer Scale12
I1022 21:09:53.766468  3959 net.cpp:406] Scale12 <- Convolution12
I1022 21:09:53.766470  3959 net.cpp:367] Scale12 -> Convolution12 (in-place)
I1022 21:09:53.766508  3959 layer_factory.hpp:77] Creating layer Scale12
I1022 21:09:53.766597  3959 net.cpp:122] Setting up Scale12
I1022 21:09:53.766602  3959 net.cpp:129] Top shape: 8 32 112 112 (3211264)
I1022 21:09:53.766604  3959 net.cpp:137] Memory required for data: 1276477472
I1022 21:09:53.766608  3959 layer_factory.hpp:77] Creating layer Eltwise5
I1022 21:09:53.766613  3959 net.cpp:84] Creating Layer Eltwise5
I1022 21:09:53.766618  3959 net.cpp:406] Eltwise5 <- Eltwise4_penlu9_0_split_1
I1022 21:09:53.766620  3959 net.cpp:406] Eltwise5 <- Convolution12
I1022 21:09:53.766624  3959 net.cpp:380] Eltwise5 -> Eltwise5
I1022 21:09:53.766641  3959 net.cpp:122] Setting up Eltwise5
I1022 21:09:53.766646  3959 net.cpp:129] Top shape: 8 32 112 112 (3211264)
I1022 21:09:53.766649  3959 net.cpp:137] Memory required for data: 1289322528
I1022 21:09:53.766651  3959 layer_factory.hpp:77] Creating layer penlu11
I1022 21:09:53.766656  3959 net.cpp:84] Creating Layer penlu11
I1022 21:09:53.766659  3959 net.cpp:406] penlu11 <- Eltwise5
I1022 21:09:53.766662  3959 net.cpp:367] penlu11 -> Eltwise5 (in-place)
I1022 21:09:53.767457  3959 net.cpp:122] Setting up penlu11
I1022 21:09:53.767467  3959 net.cpp:129] Top shape: 8 32 112 112 (3211264)
I1022 21:09:53.767469  3959 net.cpp:137] Memory required for data: 1302167584
I1022 21:09:53.767474  3959 layer_factory.hpp:77] Creating layer Eltwise5_penlu11_0_split
I1022 21:09:53.767479  3959 net.cpp:84] Creating Layer Eltwise5_penlu11_0_split
I1022 21:09:53.767482  3959 net.cpp:406] Eltwise5_penlu11_0_split <- Eltwise5
I1022 21:09:53.767487  3959 net.cpp:380] Eltwise5_penlu11_0_split -> Eltwise5_penlu11_0_split_0
I1022 21:09:53.767491  3959 net.cpp:380] Eltwise5_penlu11_0_split -> Eltwise5_penlu11_0_split_1
I1022 21:09:53.767516  3959 net.cpp:122] Setting up Eltwise5_penlu11_0_split
I1022 21:09:53.767521  3959 net.cpp:129] Top shape: 8 32 112 112 (3211264)
I1022 21:09:53.767525  3959 net.cpp:129] Top shape: 8 32 112 112 (3211264)
I1022 21:09:53.767529  3959 net.cpp:137] Memory required for data: 1327857696
I1022 21:09:53.767530  3959 layer_factory.hpp:77] Creating layer Convolution13
I1022 21:09:53.767537  3959 net.cpp:84] Creating Layer Convolution13
I1022 21:09:53.767540  3959 net.cpp:406] Convolution13 <- Eltwise5_penlu11_0_split_0
I1022 21:09:53.767544  3959 net.cpp:380] Convolution13 -> Convolution13
I1022 21:09:53.768633  3959 net.cpp:122] Setting up Convolution13
I1022 21:09:53.768643  3959 net.cpp:129] Top shape: 8 32 112 112 (3211264)
I1022 21:09:53.768647  3959 net.cpp:137] Memory required for data: 1340702752
I1022 21:09:53.768661  3959 layer_factory.hpp:77] Creating layer BatchNorm13
I1022 21:09:53.768667  3959 net.cpp:84] Creating Layer BatchNorm13
I1022 21:09:53.768671  3959 net.cpp:406] BatchNorm13 <- Convolution13
I1022 21:09:53.768674  3959 net.cpp:367] BatchNorm13 -> Convolution13 (in-place)
I1022 21:09:53.768812  3959 net.cpp:122] Setting up BatchNorm13
I1022 21:09:53.768818  3959 net.cpp:129] Top shape: 8 32 112 112 (3211264)
I1022 21:09:53.768821  3959 net.cpp:137] Memory required for data: 1353547808
I1022 21:09:53.768826  3959 layer_factory.hpp:77] Creating layer Scale13
I1022 21:09:53.768831  3959 net.cpp:84] Creating Layer Scale13
I1022 21:09:53.768834  3959 net.cpp:406] Scale13 <- Convolution13
I1022 21:09:53.768837  3959 net.cpp:367] Scale13 -> Convolution13 (in-place)
I1022 21:09:53.768867  3959 layer_factory.hpp:77] Creating layer Scale13
I1022 21:09:53.768956  3959 net.cpp:122] Setting up Scale13
I1022 21:09:53.768962  3959 net.cpp:129] Top shape: 8 32 112 112 (3211264)
I1022 21:09:53.768965  3959 net.cpp:137] Memory required for data: 1366392864
I1022 21:09:53.768968  3959 layer_factory.hpp:77] Creating layer penlu12
I1022 21:09:53.768975  3959 net.cpp:84] Creating Layer penlu12
I1022 21:09:53.768978  3959 net.cpp:406] penlu12 <- Convolution13
I1022 21:09:53.768982  3959 net.cpp:367] penlu12 -> Convolution13 (in-place)
I1022 21:09:53.769767  3959 net.cpp:122] Setting up penlu12
I1022 21:09:53.769776  3959 net.cpp:129] Top shape: 8 32 112 112 (3211264)
I1022 21:09:53.769780  3959 net.cpp:137] Memory required for data: 1379237920
I1022 21:09:53.769785  3959 layer_factory.hpp:77] Creating layer Convolution14
I1022 21:09:53.769793  3959 net.cpp:84] Creating Layer Convolution14
I1022 21:09:53.769795  3959 net.cpp:406] Convolution14 <- Convolution13
I1022 21:09:53.769800  3959 net.cpp:380] Convolution14 -> Convolution14
I1022 21:09:53.770902  3959 net.cpp:122] Setting up Convolution14
I1022 21:09:53.770912  3959 net.cpp:129] Top shape: 8 32 112 112 (3211264)
I1022 21:09:53.770915  3959 net.cpp:137] Memory required for data: 1392082976
I1022 21:09:53.770933  3959 layer_factory.hpp:77] Creating layer BatchNorm14
I1022 21:09:53.770943  3959 net.cpp:84] Creating Layer BatchNorm14
I1022 21:09:53.770947  3959 net.cpp:406] BatchNorm14 <- Convolution14
I1022 21:09:53.770951  3959 net.cpp:367] BatchNorm14 -> Convolution14 (in-place)
I1022 21:09:53.771090  3959 net.cpp:122] Setting up BatchNorm14
I1022 21:09:53.771095  3959 net.cpp:129] Top shape: 8 32 112 112 (3211264)
I1022 21:09:53.771097  3959 net.cpp:137] Memory required for data: 1404928032
I1022 21:09:53.771102  3959 layer_factory.hpp:77] Creating layer Scale14
I1022 21:09:53.771107  3959 net.cpp:84] Creating Layer Scale14
I1022 21:09:53.771111  3959 net.cpp:406] Scale14 <- Convolution14
I1022 21:09:53.771113  3959 net.cpp:367] Scale14 -> Convolution14 (in-place)
I1022 21:09:53.771140  3959 layer_factory.hpp:77] Creating layer Scale14
I1022 21:09:53.771229  3959 net.cpp:122] Setting up Scale14
I1022 21:09:53.771234  3959 net.cpp:129] Top shape: 8 32 112 112 (3211264)
I1022 21:09:53.771237  3959 net.cpp:137] Memory required for data: 1417773088
I1022 21:09:53.771241  3959 layer_factory.hpp:77] Creating layer Eltwise6
I1022 21:09:53.771246  3959 net.cpp:84] Creating Layer Eltwise6
I1022 21:09:53.771250  3959 net.cpp:406] Eltwise6 <- Eltwise5_penlu11_0_split_1
I1022 21:09:53.771251  3959 net.cpp:406] Eltwise6 <- Convolution14
I1022 21:09:53.771255  3959 net.cpp:380] Eltwise6 -> Eltwise6
I1022 21:09:53.771272  3959 net.cpp:122] Setting up Eltwise6
I1022 21:09:53.771276  3959 net.cpp:129] Top shape: 8 32 112 112 (3211264)
I1022 21:09:53.771280  3959 net.cpp:137] Memory required for data: 1430618144
I1022 21:09:53.771281  3959 layer_factory.hpp:77] Creating layer penlu13
I1022 21:09:53.771287  3959 net.cpp:84] Creating Layer penlu13
I1022 21:09:53.771291  3959 net.cpp:406] penlu13 <- Eltwise6
I1022 21:09:53.771293  3959 net.cpp:367] penlu13 -> Eltwise6 (in-place)
I1022 21:09:53.772122  3959 net.cpp:122] Setting up penlu13
I1022 21:09:53.772132  3959 net.cpp:129] Top shape: 8 32 112 112 (3211264)
I1022 21:09:53.772143  3959 net.cpp:137] Memory required for data: 1443463200
I1022 21:09:53.772150  3959 layer_factory.hpp:77] Creating layer Eltwise6_penlu13_0_split
I1022 21:09:53.772155  3959 net.cpp:84] Creating Layer Eltwise6_penlu13_0_split
I1022 21:09:53.772157  3959 net.cpp:406] Eltwise6_penlu13_0_split <- Eltwise6
I1022 21:09:53.772161  3959 net.cpp:380] Eltwise6_penlu13_0_split -> Eltwise6_penlu13_0_split_0
I1022 21:09:53.772166  3959 net.cpp:380] Eltwise6_penlu13_0_split -> Eltwise6_penlu13_0_split_1
I1022 21:09:53.772192  3959 net.cpp:122] Setting up Eltwise6_penlu13_0_split
I1022 21:09:53.772197  3959 net.cpp:129] Top shape: 8 32 112 112 (3211264)
I1022 21:09:53.772200  3959 net.cpp:129] Top shape: 8 32 112 112 (3211264)
I1022 21:09:53.772203  3959 net.cpp:137] Memory required for data: 1469153312
I1022 21:09:53.772207  3959 layer_factory.hpp:77] Creating layer Convolution15
I1022 21:09:53.772212  3959 net.cpp:84] Creating Layer Convolution15
I1022 21:09:53.772215  3959 net.cpp:406] Convolution15 <- Eltwise6_penlu13_0_split_0
I1022 21:09:53.772220  3959 net.cpp:380] Convolution15 -> Convolution15
I1022 21:09:53.773145  3959 net.cpp:122] Setting up Convolution15
I1022 21:09:53.773154  3959 net.cpp:129] Top shape: 8 64 56 56 (1605632)
I1022 21:09:53.773159  3959 net.cpp:137] Memory required for data: 1475575840
I1022 21:09:53.773162  3959 layer_factory.hpp:77] Creating layer BatchNorm15
I1022 21:09:53.773167  3959 net.cpp:84] Creating Layer BatchNorm15
I1022 21:09:53.773170  3959 net.cpp:406] BatchNorm15 <- Convolution15
I1022 21:09:53.773176  3959 net.cpp:367] BatchNorm15 -> Convolution15 (in-place)
I1022 21:09:53.773315  3959 net.cpp:122] Setting up BatchNorm15
I1022 21:09:53.773320  3959 net.cpp:129] Top shape: 8 64 56 56 (1605632)
I1022 21:09:53.773324  3959 net.cpp:137] Memory required for data: 1481998368
I1022 21:09:53.773329  3959 layer_factory.hpp:77] Creating layer Scale15
I1022 21:09:53.773332  3959 net.cpp:84] Creating Layer Scale15
I1022 21:09:53.773335  3959 net.cpp:406] Scale15 <- Convolution15
I1022 21:09:53.773339  3959 net.cpp:367] Scale15 -> Convolution15 (in-place)
I1022 21:09:53.773366  3959 layer_factory.hpp:77] Creating layer Scale15
I1022 21:09:53.773448  3959 net.cpp:122] Setting up Scale15
I1022 21:09:53.773453  3959 net.cpp:129] Top shape: 8 64 56 56 (1605632)
I1022 21:09:53.773457  3959 net.cpp:137] Memory required for data: 1488420896
I1022 21:09:53.773460  3959 layer_factory.hpp:77] Creating layer Convolution16
I1022 21:09:53.773468  3959 net.cpp:84] Creating Layer Convolution16
I1022 21:09:53.773470  3959 net.cpp:406] Convolution16 <- Eltwise6_penlu13_0_split_1
I1022 21:09:53.773475  3959 net.cpp:380] Convolution16 -> Convolution16
I1022 21:09:53.774729  3959 net.cpp:122] Setting up Convolution16
I1022 21:09:53.774739  3959 net.cpp:129] Top shape: 8 64 56 56 (1605632)
I1022 21:09:53.774742  3959 net.cpp:137] Memory required for data: 1494843424
I1022 21:09:53.774747  3959 layer_factory.hpp:77] Creating layer BatchNorm16
I1022 21:09:53.774752  3959 net.cpp:84] Creating Layer BatchNorm16
I1022 21:09:53.774756  3959 net.cpp:406] BatchNorm16 <- Convolution16
I1022 21:09:53.774760  3959 net.cpp:367] BatchNorm16 -> Convolution16 (in-place)
I1022 21:09:53.774897  3959 net.cpp:122] Setting up BatchNorm16
I1022 21:09:53.774904  3959 net.cpp:129] Top shape: 8 64 56 56 (1605632)
I1022 21:09:53.774905  3959 net.cpp:137] Memory required for data: 1501265952
I1022 21:09:53.774910  3959 layer_factory.hpp:77] Creating layer Scale16
I1022 21:09:53.774915  3959 net.cpp:84] Creating Layer Scale16
I1022 21:09:53.774919  3959 net.cpp:406] Scale16 <- Convolution16
I1022 21:09:53.774921  3959 net.cpp:367] Scale16 -> Convolution16 (in-place)
I1022 21:09:53.774950  3959 layer_factory.hpp:77] Creating layer Scale16
I1022 21:09:53.775033  3959 net.cpp:122] Setting up Scale16
I1022 21:09:53.775038  3959 net.cpp:129] Top shape: 8 64 56 56 (1605632)
I1022 21:09:53.775041  3959 net.cpp:137] Memory required for data: 1507688480
I1022 21:09:53.775045  3959 layer_factory.hpp:77] Creating layer penlu14
I1022 21:09:53.775058  3959 net.cpp:84] Creating Layer penlu14
I1022 21:09:53.775061  3959 net.cpp:406] penlu14 <- Convolution16
I1022 21:09:53.775065  3959 net.cpp:367] penlu14 -> Convolution16 (in-place)
I1022 21:09:53.775305  3959 net.cpp:122] Setting up penlu14
I1022 21:09:53.775311  3959 net.cpp:129] Top shape: 8 64 56 56 (1605632)
I1022 21:09:53.775315  3959 net.cpp:137] Memory required for data: 1514111008
I1022 21:09:53.775319  3959 layer_factory.hpp:77] Creating layer Convolution17
I1022 21:09:53.775326  3959 net.cpp:84] Creating Layer Convolution17
I1022 21:09:53.775329  3959 net.cpp:406] Convolution17 <- Convolution16
I1022 21:09:53.775333  3959 net.cpp:380] Convolution17 -> Convolution17
I1022 21:09:53.776650  3959 net.cpp:122] Setting up Convolution17
I1022 21:09:53.776659  3959 net.cpp:129] Top shape: 8 64 56 56 (1605632)
I1022 21:09:53.776661  3959 net.cpp:137] Memory required for data: 1520533536
I1022 21:09:53.776665  3959 layer_factory.hpp:77] Creating layer BatchNorm17
I1022 21:09:53.776671  3959 net.cpp:84] Creating Layer BatchNorm17
I1022 21:09:53.776674  3959 net.cpp:406] BatchNorm17 <- Convolution17
I1022 21:09:53.776679  3959 net.cpp:367] BatchNorm17 -> Convolution17 (in-place)
I1022 21:09:53.776814  3959 net.cpp:122] Setting up BatchNorm17
I1022 21:09:53.776819  3959 net.cpp:129] Top shape: 8 64 56 56 (1605632)
I1022 21:09:53.776823  3959 net.cpp:137] Memory required for data: 1526956064
I1022 21:09:53.776826  3959 layer_factory.hpp:77] Creating layer Scale17
I1022 21:09:53.776831  3959 net.cpp:84] Creating Layer Scale17
I1022 21:09:53.776834  3959 net.cpp:406] Scale17 <- Convolution17
I1022 21:09:53.776836  3959 net.cpp:367] Scale17 -> Convolution17 (in-place)
I1022 21:09:53.776865  3959 layer_factory.hpp:77] Creating layer Scale17
I1022 21:09:53.776945  3959 net.cpp:122] Setting up Scale17
I1022 21:09:53.776952  3959 net.cpp:129] Top shape: 8 64 56 56 (1605632)
I1022 21:09:53.776953  3959 net.cpp:137] Memory required for data: 1533378592
I1022 21:09:53.776957  3959 layer_factory.hpp:77] Creating layer Eltwise7
I1022 21:09:53.776962  3959 net.cpp:84] Creating Layer Eltwise7
I1022 21:09:53.776965  3959 net.cpp:406] Eltwise7 <- Convolution15
I1022 21:09:53.776968  3959 net.cpp:406] Eltwise7 <- Convolution17
I1022 21:09:53.776971  3959 net.cpp:380] Eltwise7 -> Eltwise7
I1022 21:09:53.776988  3959 net.cpp:122] Setting up Eltwise7
I1022 21:09:53.776993  3959 net.cpp:129] Top shape: 8 64 56 56 (1605632)
I1022 21:09:53.776995  3959 net.cpp:137] Memory required for data: 1539801120
I1022 21:09:53.776998  3959 layer_factory.hpp:77] Creating layer penlu15
I1022 21:09:53.777003  3959 net.cpp:84] Creating Layer penlu15
I1022 21:09:53.777005  3959 net.cpp:406] penlu15 <- Eltwise7
I1022 21:09:53.777009  3959 net.cpp:367] penlu15 -> Eltwise7 (in-place)
I1022 21:09:53.777736  3959 net.cpp:122] Setting up penlu15
I1022 21:09:53.777745  3959 net.cpp:129] Top shape: 8 64 56 56 (1605632)
I1022 21:09:53.777746  3959 net.cpp:137] Memory required for data: 1546223648
I1022 21:09:53.777751  3959 layer_factory.hpp:77] Creating layer Eltwise7_penlu15_0_split
I1022 21:09:53.777755  3959 net.cpp:84] Creating Layer Eltwise7_penlu15_0_split
I1022 21:09:53.777758  3959 net.cpp:406] Eltwise7_penlu15_0_split <- Eltwise7
I1022 21:09:53.777761  3959 net.cpp:380] Eltwise7_penlu15_0_split -> Eltwise7_penlu15_0_split_0
I1022 21:09:53.777766  3959 net.cpp:380] Eltwise7_penlu15_0_split -> Eltwise7_penlu15_0_split_1
I1022 21:09:53.777791  3959 net.cpp:122] Setting up Eltwise7_penlu15_0_split
I1022 21:09:53.777796  3959 net.cpp:129] Top shape: 8 64 56 56 (1605632)
I1022 21:09:53.777798  3959 net.cpp:129] Top shape: 8 64 56 56 (1605632)
I1022 21:09:53.777801  3959 net.cpp:137] Memory required for data: 1559068704
I1022 21:09:53.777802  3959 layer_factory.hpp:77] Creating layer Convolution18
I1022 21:09:53.777808  3959 net.cpp:84] Creating Layer Convolution18
I1022 21:09:53.777812  3959 net.cpp:406] Convolution18 <- Eltwise7_penlu15_0_split_0
I1022 21:09:53.777814  3959 net.cpp:380] Convolution18 -> Convolution18
I1022 21:09:53.779814  3959 net.cpp:122] Setting up Convolution18
I1022 21:09:53.779824  3959 net.cpp:129] Top shape: 8 64 56 56 (1605632)
I1022 21:09:53.779825  3959 net.cpp:137] Memory required for data: 1565491232
I1022 21:09:53.779830  3959 layer_factory.hpp:77] Creating layer BatchNorm18
I1022 21:09:53.779834  3959 net.cpp:84] Creating Layer BatchNorm18
I1022 21:09:53.779837  3959 net.cpp:406] BatchNorm18 <- Convolution18
I1022 21:09:53.779841  3959 net.cpp:367] BatchNorm18 -> Convolution18 (in-place)
I1022 21:09:53.779990  3959 net.cpp:122] Setting up BatchNorm18
I1022 21:09:53.779995  3959 net.cpp:129] Top shape: 8 64 56 56 (1605632)
I1022 21:09:53.779997  3959 net.cpp:137] Memory required for data: 1571913760
I1022 21:09:53.780002  3959 layer_factory.hpp:77] Creating layer Scale18
I1022 21:09:53.780006  3959 net.cpp:84] Creating Layer Scale18
I1022 21:09:53.780009  3959 net.cpp:406] Scale18 <- Convolution18
I1022 21:09:53.780014  3959 net.cpp:367] Scale18 -> Convolution18 (in-place)
I1022 21:09:53.780041  3959 layer_factory.hpp:77] Creating layer Scale18
I1022 21:09:53.780125  3959 net.cpp:122] Setting up Scale18
I1022 21:09:53.780130  3959 net.cpp:129] Top shape: 8 64 56 56 (1605632)
I1022 21:09:53.780133  3959 net.cpp:137] Memory required for data: 1578336288
I1022 21:09:53.780135  3959 layer_factory.hpp:77] Creating layer penlu16
I1022 21:09:53.780141  3959 net.cpp:84] Creating Layer penlu16
I1022 21:09:53.780143  3959 net.cpp:406] penlu16 <- Convolution18
I1022 21:09:53.780148  3959 net.cpp:367] penlu16 -> Convolution18 (in-place)
I1022 21:09:53.780344  3959 net.cpp:122] Setting up penlu16
I1022 21:09:53.780349  3959 net.cpp:129] Top shape: 8 64 56 56 (1605632)
I1022 21:09:53.780351  3959 net.cpp:137] Memory required for data: 1584758816
I1022 21:09:53.780356  3959 layer_factory.hpp:77] Creating layer Convolution19
I1022 21:09:53.780361  3959 net.cpp:84] Creating Layer Convolution19
I1022 21:09:53.780364  3959 net.cpp:406] Convolution19 <- Convolution18
I1022 21:09:53.780369  3959 net.cpp:380] Convolution19 -> Convolution19
I1022 21:09:53.782541  3959 net.cpp:122] Setting up Convolution19
I1022 21:09:53.782549  3959 net.cpp:129] Top shape: 8 64 56 56 (1605632)
I1022 21:09:53.782552  3959 net.cpp:137] Memory required for data: 1591181344
I1022 21:09:53.782557  3959 layer_factory.hpp:77] Creating layer BatchNorm19
I1022 21:09:53.782562  3959 net.cpp:84] Creating Layer BatchNorm19
I1022 21:09:53.782565  3959 net.cpp:406] BatchNorm19 <- Convolution19
I1022 21:09:53.782568  3959 net.cpp:367] BatchNorm19 -> Convolution19 (in-place)
I1022 21:09:53.782708  3959 net.cpp:122] Setting up BatchNorm19
I1022 21:09:53.782712  3959 net.cpp:129] Top shape: 8 64 56 56 (1605632)
I1022 21:09:53.782716  3959 net.cpp:137] Memory required for data: 1597603872
I1022 21:09:53.782719  3959 layer_factory.hpp:77] Creating layer Scale19
I1022 21:09:53.782723  3959 net.cpp:84] Creating Layer Scale19
I1022 21:09:53.782727  3959 net.cpp:406] Scale19 <- Convolution19
I1022 21:09:53.782729  3959 net.cpp:367] Scale19 -> Convolution19 (in-place)
I1022 21:09:53.782758  3959 layer_factory.hpp:77] Creating layer Scale19
I1022 21:09:53.782842  3959 net.cpp:122] Setting up Scale19
I1022 21:09:53.782846  3959 net.cpp:129] Top shape: 8 64 56 56 (1605632)
I1022 21:09:53.782850  3959 net.cpp:137] Memory required for data: 1604026400
I1022 21:09:53.782852  3959 layer_factory.hpp:77] Creating layer Eltwise8
I1022 21:09:53.782856  3959 net.cpp:84] Creating Layer Eltwise8
I1022 21:09:53.782860  3959 net.cpp:406] Eltwise8 <- Eltwise7_penlu15_0_split_1
I1022 21:09:53.782862  3959 net.cpp:406] Eltwise8 <- Convolution19
I1022 21:09:53.782866  3959 net.cpp:380] Eltwise8 -> Eltwise8
I1022 21:09:53.782881  3959 net.cpp:122] Setting up Eltwise8
I1022 21:09:53.782884  3959 net.cpp:129] Top shape: 8 64 56 56 (1605632)
I1022 21:09:53.782886  3959 net.cpp:137] Memory required for data: 1610448928
I1022 21:09:53.782888  3959 layer_factory.hpp:77] Creating layer penlu17
I1022 21:09:53.782893  3959 net.cpp:84] Creating Layer penlu17
I1022 21:09:53.782896  3959 net.cpp:406] penlu17 <- Eltwise8
I1022 21:09:53.782907  3959 net.cpp:367] penlu17 -> Eltwise8 (in-place)
I1022 21:09:53.783602  3959 net.cpp:122] Setting up penlu17
I1022 21:09:53.783610  3959 net.cpp:129] Top shape: 8 64 56 56 (1605632)
I1022 21:09:53.783612  3959 net.cpp:137] Memory required for data: 1616871456
I1022 21:09:53.783617  3959 layer_factory.hpp:77] Creating layer Eltwise8_penlu17_0_split
I1022 21:09:53.783622  3959 net.cpp:84] Creating Layer Eltwise8_penlu17_0_split
I1022 21:09:53.783624  3959 net.cpp:406] Eltwise8_penlu17_0_split <- Eltwise8
I1022 21:09:53.783627  3959 net.cpp:380] Eltwise8_penlu17_0_split -> Eltwise8_penlu17_0_split_0
I1022 21:09:53.783632  3959 net.cpp:380] Eltwise8_penlu17_0_split -> Eltwise8_penlu17_0_split_1
I1022 21:09:53.783658  3959 net.cpp:122] Setting up Eltwise8_penlu17_0_split
I1022 21:09:53.783663  3959 net.cpp:129] Top shape: 8 64 56 56 (1605632)
I1022 21:09:53.783665  3959 net.cpp:129] Top shape: 8 64 56 56 (1605632)
I1022 21:09:53.783668  3959 net.cpp:137] Memory required for data: 1629716512
I1022 21:09:53.783669  3959 layer_factory.hpp:77] Creating layer Convolution20
I1022 21:09:53.783675  3959 net.cpp:84] Creating Layer Convolution20
I1022 21:09:53.783679  3959 net.cpp:406] Convolution20 <- Eltwise8_penlu17_0_split_0
I1022 21:09:53.783684  3959 net.cpp:380] Convolution20 -> Convolution20
I1022 21:09:53.786025  3959 net.cpp:122] Setting up Convolution20
I1022 21:09:53.786033  3959 net.cpp:129] Top shape: 8 64 56 56 (1605632)
I1022 21:09:53.786036  3959 net.cpp:137] Memory required for data: 1636139040
I1022 21:09:53.786041  3959 layer_factory.hpp:77] Creating layer BatchNorm20
I1022 21:09:53.786046  3959 net.cpp:84] Creating Layer BatchNorm20
I1022 21:09:53.786048  3959 net.cpp:406] BatchNorm20 <- Convolution20
I1022 21:09:53.786052  3959 net.cpp:367] BatchNorm20 -> Convolution20 (in-place)
I1022 21:09:53.786196  3959 net.cpp:122] Setting up BatchNorm20
I1022 21:09:53.786201  3959 net.cpp:129] Top shape: 8 64 56 56 (1605632)
I1022 21:09:53.786203  3959 net.cpp:137] Memory required for data: 1642561568
I1022 21:09:53.786208  3959 layer_factory.hpp:77] Creating layer Scale20
I1022 21:09:53.786212  3959 net.cpp:84] Creating Layer Scale20
I1022 21:09:53.786214  3959 net.cpp:406] Scale20 <- Convolution20
I1022 21:09:53.786217  3959 net.cpp:367] Scale20 -> Convolution20 (in-place)
I1022 21:09:53.786245  3959 layer_factory.hpp:77] Creating layer Scale20
I1022 21:09:53.786330  3959 net.cpp:122] Setting up Scale20
I1022 21:09:53.786335  3959 net.cpp:129] Top shape: 8 64 56 56 (1605632)
I1022 21:09:53.786337  3959 net.cpp:137] Memory required for data: 1648984096
I1022 21:09:53.786341  3959 layer_factory.hpp:77] Creating layer penlu18
I1022 21:09:53.786346  3959 net.cpp:84] Creating Layer penlu18
I1022 21:09:53.786348  3959 net.cpp:406] penlu18 <- Convolution20
I1022 21:09:53.786352  3959 net.cpp:367] penlu18 -> Convolution20 (in-place)
I1022 21:09:53.786545  3959 net.cpp:122] Setting up penlu18
I1022 21:09:53.786550  3959 net.cpp:129] Top shape: 8 64 56 56 (1605632)
I1022 21:09:53.786551  3959 net.cpp:137] Memory required for data: 1655406624
I1022 21:09:53.786556  3959 layer_factory.hpp:77] Creating layer Convolution21
I1022 21:09:53.786562  3959 net.cpp:84] Creating Layer Convolution21
I1022 21:09:53.786564  3959 net.cpp:406] Convolution21 <- Convolution20
I1022 21:09:53.786568  3959 net.cpp:380] Convolution21 -> Convolution21
I1022 21:09:53.788240  3959 net.cpp:122] Setting up Convolution21
I1022 21:09:53.788249  3959 net.cpp:129] Top shape: 8 64 56 56 (1605632)
I1022 21:09:53.788252  3959 net.cpp:137] Memory required for data: 1661829152
I1022 21:09:53.788256  3959 layer_factory.hpp:77] Creating layer BatchNorm21
I1022 21:09:53.788261  3959 net.cpp:84] Creating Layer BatchNorm21
I1022 21:09:53.788264  3959 net.cpp:406] BatchNorm21 <- Convolution21
I1022 21:09:53.788267  3959 net.cpp:367] BatchNorm21 -> Convolution21 (in-place)
I1022 21:09:53.788414  3959 net.cpp:122] Setting up BatchNorm21
I1022 21:09:53.788419  3959 net.cpp:129] Top shape: 8 64 56 56 (1605632)
I1022 21:09:53.788420  3959 net.cpp:137] Memory required for data: 1668251680
I1022 21:09:53.788431  3959 layer_factory.hpp:77] Creating layer Scale21
I1022 21:09:53.788436  3959 net.cpp:84] Creating Layer Scale21
I1022 21:09:53.788439  3959 net.cpp:406] Scale21 <- Convolution21
I1022 21:09:53.788442  3959 net.cpp:367] Scale21 -> Convolution21 (in-place)
I1022 21:09:53.788470  3959 layer_factory.hpp:77] Creating layer Scale21
I1022 21:09:53.788555  3959 net.cpp:122] Setting up Scale21
I1022 21:09:53.788559  3959 net.cpp:129] Top shape: 8 64 56 56 (1605632)
I1022 21:09:53.788561  3959 net.cpp:137] Memory required for data: 1674674208
I1022 21:09:53.788565  3959 layer_factory.hpp:77] Creating layer Eltwise9
I1022 21:09:53.788568  3959 net.cpp:84] Creating Layer Eltwise9
I1022 21:09:53.788571  3959 net.cpp:406] Eltwise9 <- Eltwise8_penlu17_0_split_1
I1022 21:09:53.788573  3959 net.cpp:406] Eltwise9 <- Convolution21
I1022 21:09:53.788578  3959 net.cpp:380] Eltwise9 -> Eltwise9
I1022 21:09:53.788594  3959 net.cpp:122] Setting up Eltwise9
I1022 21:09:53.788599  3959 net.cpp:129] Top shape: 8 64 56 56 (1605632)
I1022 21:09:53.788600  3959 net.cpp:137] Memory required for data: 1681096736
I1022 21:09:53.788602  3959 layer_factory.hpp:77] Creating layer penlu19
I1022 21:09:53.788606  3959 net.cpp:84] Creating Layer penlu19
I1022 21:09:53.788609  3959 net.cpp:406] penlu19 <- Eltwise9
I1022 21:09:53.788612  3959 net.cpp:367] penlu19 -> Eltwise9 (in-place)
I1022 21:09:53.789330  3959 net.cpp:122] Setting up penlu19
I1022 21:09:53.789338  3959 net.cpp:129] Top shape: 8 64 56 56 (1605632)
I1022 21:09:53.789340  3959 net.cpp:137] Memory required for data: 1687519264
I1022 21:09:53.789345  3959 layer_factory.hpp:77] Creating layer Pooling1
I1022 21:09:53.789351  3959 net.cpp:84] Creating Layer Pooling1
I1022 21:09:53.789355  3959 net.cpp:406] Pooling1 <- Eltwise9
I1022 21:09:53.789357  3959 net.cpp:380] Pooling1 -> Pooling1
I1022 21:09:53.789505  3959 net.cpp:122] Setting up Pooling1
I1022 21:09:53.789512  3959 net.cpp:129] Top shape: 8 64 1 1 (512)
I1022 21:09:53.789515  3959 net.cpp:137] Memory required for data: 1687521312
I1022 21:09:53.789517  3959 layer_factory.hpp:77] Creating layer InnerProduct1
I1022 21:09:53.789526  3959 net.cpp:84] Creating Layer InnerProduct1
I1022 21:09:53.789528  3959 net.cpp:406] InnerProduct1 <- Pooling1
I1022 21:09:53.789532  3959 net.cpp:380] InnerProduct1 -> InnerProduct1
I1022 21:09:53.789634  3959 net.cpp:122] Setting up InnerProduct1
I1022 21:09:53.789639  3959 net.cpp:129] Top shape: 8 10 (80)
I1022 21:09:53.789641  3959 net.cpp:137] Memory required for data: 1687521632
I1022 21:09:53.789644  3959 layer_factory.hpp:77] Creating layer SoftmaxWithLoss1
I1022 21:09:53.789650  3959 net.cpp:84] Creating Layer SoftmaxWithLoss1
I1022 21:09:53.789652  3959 net.cpp:406] SoftmaxWithLoss1 <- InnerProduct1
I1022 21:09:53.789655  3959 net.cpp:406] SoftmaxWithLoss1 <- Data2
I1022 21:09:53.789659  3959 net.cpp:380] SoftmaxWithLoss1 -> SoftmaxWithLoss1
…
I1022 21:09:53.792358  3959 net.cpp:294] The NetState phase (1) differed from the phase (0) specified by a rule in layer Data1
I1022 21:09:53.792892  3959 net.cpp:51] Initializing net from parameters: 
name: "resnet"
state {
  phase: TEST
}
layer {
  name: "Data1"
  type: "Data"
  top: "Data1"
  top: "Data2"
  include {
    phase: TEST
  }
  transform_param {
    mirror: false
    crop_size: 224
    mean_file: "/home/x306/caffe/xn/English_orange/data/orange1_mean.binaryproto"
  }
  data_param {
    source: "/home/x306/caffe/xn/English_orange/data/val1_lmdb"
    batch_size: 8
    backend: LMDB
  }
}
layer {
  name: "Convolution1"
  type: "Convolution"
  bottom: "Data1"
  top: "Convolution1"
  param {
    lr_mult: 1
    decay_mult: 1
  }
  param {
    lr_mult: 2
    decay_mult: 0
  }
  convolution_param {
    num_output: 16
    pad: 1
    kernel_size: 3
    stride: 1
    weight_filler {
      type: "gaussian"
      std: 0.118
    }
    bias_filler {
      type: "constant"
      value: 0
    }
  }
}
layer {
  name: "BatchNorm1"
  type: "BatchNorm"
  bottom: "Convolution1"
  top: "Convolution1"
  param {
    lr_mult: 0
    decay_mult: 0
  }
  param {
    lr_mult: 0
    decay_mult: 0
  }
  param {
    lr_mult: 0
    decay_mult: 0
  }
}
layer {
  name: "Scale1"
  type: "Scale"
  bottom: "Convolution1"
  top: "Convolution1"
  scale_param {
    bias_term: true
  }
}
layer {
  name: "penlu1"
  type: "PENLU"
  bottom: "Convolution1"
  top: "Convolution1"
  param {
    lr_mult: 2
    decay_mult: 2
  }
  param {
    lr_mult: 2
    decay_mult: 2
  }
  param {
    lr_mult: 0
    decay_mult: 0
  }
  penlu_param {
    alpha_filler {
      type: "constant"
      value: 0.25
    }
    beta_filler {
      type: "constant"
      value: 1
    }
    eta_filler {
      type: "constant"
      value: 1
    }
  }
}
layer {
  name: "Convolution2"
  type: "Convolution"
  bottom: "Convolution1"
  top: "Convolution2"
  param {
    lr_mult: 1
    decay_mult: 1
  }
  param {
    lr_mult: 2
    decay_mult: 0
  }
  convolution_param {
    num_output: 16
    pad: 1
    kernel_size: 3
    stride: 1
    weight_filler {
      type: "gaussian"
      std: 0.118
    }
    bias_filler {
      type: "constant"
      value: 0
    }
  }
}
layer {
  name: "BatchNorm2"
  type: "BatchNorm"
  bottom: "Convolution2"
  top: "Convolution2"
  param {
    lr_mult: 0
    decay_mult: 0
  }
  param {
    lr_mult: 0
    decay_mult: 0
  }
  param {
    lr_mult: 0
    decay_mult: 0
  }
}
layer {
  name: "Scale2"
  type: "Scale"
  bottom: "Convolution2"
  top: "Convolution2"
  scale_param {
    bias_term: true
  }
}
layer {
  name: "penlu2"
  type: "PENLU"
  bottom: "Convolution2"
  top: "Convolution2"
  param {
    lr_mult: 2
    decay_mult: 2
  }
  param {
    lr_mult: 2
    decay_mult: 2
  }
  param {
    lr_mult: 0
    decay_mult: 0
  }
  penlu_param {
    alpha_filler {
      type: "constant"
      value: 0.25
    }
    beta_filler {
      type: "constant"
      value: 1
    }
    eta_filler {
      type: "constant"
      value: 1
    }
  }
}
layer {
  name: "Convolution3"
  type: "Convolution"
  bottom: "Convolution2"
  top: "Convolution3"
  param {
    lr_mult: 1
    decay_mult: 1
  }
  param {
    lr_mult: 2
    decay_mult: 0
  }
  convolution_param {
    num_output: 16
    pad: 1
    kernel_size: 3
    stride: 1
    weight_filler {
      type: "gaussian"
      std: 0.118
    }
    bias_filler {
      type: "constant"
      value: 0
    }
  }
}
layer {
  name: "BatchNorm3"
  type: "BatchNorm"
  bottom: "Convolution3"
  top: "Convolution3"
  param {
    lr_mult: 0
    decay_mult: 0
  }
  param {
    lr_mult: 0
    decay_mult: 0
  }
  param {
    lr_mult: 0
    decay_mult: 0
  }
}
layer {
  name: "Scale3"
  type: "Scale"
  bottom: "Convolution3"
  top: "Convolution3"
  scale_param {
    bias_term: true
  }
}
layer {
  name: "Eltwise1"
  type: "Eltwise"
  bottom: "Convolution1"
  bottom: "Convolution3"
  top: "Eltwise1"
  eltwise_param {
    operation: SUM
  }
}
layer {
  name: "penlu3"
  type: "PENLU"
  bottom: "Eltwise1"
  top: "Eltwise1"
  param {
    lr_mult: 2
    decay_mult: 2
  }
  param {
    lr_mult: 2
    decay_mult: 2
  }
  param {
    lr_mult: 0
    decay_mult: 0
  }
  penlu_param {
    alpha_filler {
      type: "constant"
      value: 0.25
    }
    beta_filler {
      type: "constant"
      value: 1
    }
    eta_filler {
      type: "constant"
      value: 1
    }
  }
}
layer {
  name: "Convolution4"
  type: "Convolution"
  bottom: "Eltwise1"
  top: "Convolution4"
  param {
    lr_mult: 1
    decay_mult: 1
  }
  param {
    lr_mult: 2
    decay_mult: 0
  }
  convolution_param {
    num_output: 16
    pad: 1
    kernel_size: 3
    stride: 1
    weight_filler {
      type: "gaussian"
      std: 0.118
    }
    bias_filler {
      type: "constant"
      value: 0
    }
  }
}
layer {
  name: "BatchNorm4"
  type: "BatchNorm"
  bottom: "Convolution4"
  top: "Convolution4"
  param {
    lr_mult: 0
    decay_mult: 0
  }
  param {
    lr_mult: 0
    decay_mult: 0
  }
  param {
    lr_mult: 0
    decay_mult: 0
  }
}
layer {
  name: "Scale4"
  type: "Scale"
  bottom: "Convolution4"
  top: "Convolution4"
  scale_param {
    bias_term: true
  }
}
layer {
  name: "penlu4"
  type: "PENLU"
  bottom: "Convolution4"
  top: "Convolution4"
  param {
    lr_mult: 2
    decay_mult: 2
  }
  param {
    lr_mult: 2
    decay_mult: 2
  }
  param {
    lr_mult: 0
    decay_mult: 0
  }
  penlu_param {
    alpha_filler {
      type: "constant"
      value: 0.25
    }
    beta_filler {
      type: "constant"
      value: 1
    }
    eta_filler {
      type: "constant"
      value: 1
    }
  }
}
layer {
  name: "Convolution5"
  type: "Convolution"
  bottom: "Convolution4"
  top: "Convolution5"
  param {
    lr_mult: 1
    decay_mult: 1
  }
  param {
    lr_mult: 2
    decay_mult: 0
  }
  convolution_param {
    num_output: 16
    pad: 1
    kernel_size: 3
    stride: 1
    weight_filler {
      type: "gaussian"
      std: 0.118
    }
    bias_filler {
      type: "constant"
      value: 0
    }
  }
}
layer {
  name: "BatchNorm5"
  type: "BatchNorm"
  bottom: "Convolution5"
  top: "Convolution5"
  param {
    lr_mult: 0
    decay_mult: 0
  }
  param {
    lr_mult: 0
    decay_mult: 0
  }
  param {
    lr_mult: 0
    decay_mult: 0
  }
}
layer {
  name: "Scale5"
  type: "Scale"
  bottom: "Convolution5"
  top: "Convolution5"
  scale_param {
    bias_term: true
  }
}
layer {
  name: "Eltwise2"
  type: "Eltwise"
  bottom: "Eltwise1"
  bottom: "Convolution5"
  top: "Eltwise2"
  eltwise_param {
    operation: SUM
  }
}
layer {
  name: "penlu5"
  type: "PENLU"
  bottom: "Eltwise2"
  top: "Eltwise2"
  param {
    lr_mult: 2
    decay_mult: 2
  }
  param {
    lr_mult: 2
    decay_mult: 2
  }
  param {
    lr_mult: 0
    decay_mult: 0
  }
  penlu_param {
    alpha_filler {
      type: "constant"
      value: 0.25
    }
    beta_filler {
      type: "constant"
      value: 1
    }
    eta_filler {
      type: "constant"
      value: 1
    }
  }
}
layer {
  name: "Convolution6"
  type: "Convolution"
  bottom: "Eltwise2"
  top: "Convolution6"
  param {
    lr_mult: 1
    decay_mult: 1
  }
  param {
    lr_mult: 2
    decay_mult: 0
  }
  convolution_param {
    num_output: 16
    pad: 1
    kernel_size: 3
    stride: 1
    weight_filler {
      type: "gaussian"
      std: 0.118
    }
    bias_filler {
      type: "constant"
      value: 0
    }
  }
}
layer {
  name: "BatchNorm6"
  type: "BatchNorm"
  bottom: "Convolution6"
  top: "Convolution6"
  param {
    lr_mult: 0
    decay_mult: 0
  }
  param {
    lr_mult: 0
    decay_mult: 0
  }
  param {
    lr_mult: 0
    decay_mult: 0
  }
}
layer {
  name: "Scale6"
  type: "Scale"
  bottom: "Convolution6"
  top: "Convolution6"
  scale_param {
    bias_term: true
  }
}
layer {
  name: "penlu6"
  type: "PENLU"
  bottom: "Convolution6"
  top: "Convolution6"
  param {
    lr_mult: 2
    decay_mult: 2
  }
  param {
    lr_mult: 2
    decay_mult: 2
  }
  param {
    lr_mult: 0
    decay_mult: 0
  }
  penlu_param {
    alpha_filler {
      type: "constant"
      value: 0.25
    }
    beta_filler {
      type: "constant"
      value: 1
    }
    eta_filler {
      type: "constant"
      value: 1
    }
  }
}
layer {
  name: "Convolution7"
  type: "Convolution"
  bottom: "Convolution6"
  top: "Convolution7"
  param {
    lr_mult: 1
    decay_mult: 1
  }
  param {
    lr_mult: 2
    decay_mult: 0
  }
  convolution_param {
    num_output: 16
    pad: 1
    kernel_size: 3
    stride: 1
    weight_filler {
      type: "gaussian"
      std: 0.118
    }
    bias_filler {
      type: "constant"
      value: 0
    }
  }
}
layer {
  name: "BatchNorm7"
  type: "BatchNorm"
  bottom: "Convolution7"
  top: "Convolution7"
  param {
    lr_mult: 0
    decay_mult: 0
  }
  param {
    lr_mult: 0
    decay_mult: 0
  }
  param {
    lr_mult: 0
    decay_mult: 0
  }
}
layer {
  name: "Scale7"
  type: "Scale"
  bottom: "Convolution7"
  top: "Convolution7"
  scale_param {
    bias_term: true
  }
}
layer {
  name: "Eltwise3"
  type: "Eltwise"
  bottom: "Eltwise2"
  bottom: "Convolution7"
  top: "Eltwise3"
  eltwise_param {
    operation: SUM
  }
}
layer {
  name: "penlu7"
  type: "PENLU"
  bottom: "Eltwise3"
  top: "Eltwise3"
  param {
    lr_mult: 2
    decay_mult: 2
  }
  param {
    lr_mult: 2
    decay_mult: 2
  }
  param {
    lr_mult: 0
    decay_mult: 0
  }
  penlu_param {
    alpha_filler {
      type: "constant"
      value: 0.25
    }
    beta_filler {
      type: "constant"
      value: 1
    }
    eta_filler {
      type: "constant"
      value: 1
    }
  }
}
layer {
  name: "Convolution8"
  type: "Convolution"
  bottom: "Eltwise3"
  top: "Convolution8"
  param {
    lr_mult: 1
    decay_mult: 1
  }
  param {
    lr_mult: 2
    decay_mult: 0
  }
  convolution_param {
    num_output: 32
    pad: 0
    kernel_size: 1
    stride: 2
    weight_filler {
      type: "gaussian"
      std: 0.25
    }
    bias_filler {
      type: "constant"
      value: 0
    }
  }
}
layer {
  name: "BatchNorm8"
  type: "BatchNorm"
  bottom: "Convolution8"
  top: "Convolution8"
  param {
    lr_mult: 0
    decay_mult: 0
  }
  param {
    lr_mult: 0
    decay_mult: 0
  }
  param {
    lr_mult: 0
    decay_mult: 0
  }
}
layer {
  name: "Scale8"
  type: "Scale"
  bottom: "Convolution8"
  top: "Convolution8"
  scale_param {
    bias_term: true
  }
}
layer {
  name: "Convolution9"
  type: "Convolution"
  bottom: "Eltwise3"
  top: "Convolution9"
  param {
    lr_mult: 1
    decay_mult: 1
  }
  param {
    lr_mult: 2
    decay_mult: 0
  }
  convolution_param {
    num_output: 32
    pad: 1
    kernel_size: 3
    stride: 2
    weight_filler {
      type: "gaussian"
      std: 0.083
    }
    bias_filler {
      type: "constant"
      value: 0
    }
  }
}
layer {
  name: "BatchNorm9"
  type: "BatchNorm"
  bottom: "Convolution9"
  top: "Convolution9"
  param {
    lr_mult: 0
    decay_mult: 0
  }
  param {
    lr_mult: 0
    decay_mult: 0
  }
  param {
    lr_mult: 0
    decay_mult: 0
  }
}
layer {
  name: "Scale9"
  type: "Scale"
  bottom: "Convolution9"
  top: "Convolution9"
  scale_param {
    bias_term: true
  }
}
layer {
  name: "penlu8"
  type: "PENLU"
  bottom: "Convolution9"
  top: "Convolution9"
  param {
    lr_mult: 2
    decay_mult: 2
  }
  param {
    lr_mult: 2
    decay_mult: 2
  }
  param {
    lr_mult: 0
    decay_mult: 0
  }
  penlu_param {
    alpha_filler {
      type: "constant"
      value: 0.25
    }
    beta_filler {
      type: "constant"
      value: 1
    }
    eta_filler {
      type: "constant"
      value: 1
    }
  }
}
layer {
  name: "Convolution10"
  type: "Convolution"
  bottom: "Convolution9"
  top: "Convolution10"
  param {
    lr_mult: 1
    decay_mult: 1
  }
  param {
    lr_mult: 2
    decay_mult: 0
  }
  convolution_param {
    num_output: 32
    pad: 1
    kernel_size: 3
    stride: 1
    weight_filler {
      type: "gaussian"
      std: 0.083
    }
    bias_filler {
      type: "constant"
      value: 0
    }
  }
}
layer {
  name: "BatchNorm10"
  type: "BatchNorm"
  bottom: "Convolution10"
  top: "Convolution10"
  param {
    lr_mult: 0
    decay_mult: 0
  }
  param {
    lr_mult: 0
    decay_mult: 0
  }
  param {
    lr_mult: 0
    decay_mult: 0
  }
}
layer {
  name: "Scale10"
  type: "Scale"
  bottom: "Convolution10"
  top: "Convolution10"
  scale_param {
    bias_term: true
  }
}
layer {
  name: "Eltwise4"
  type: "Eltwise"
  bottom: "Convolution8"
  bottom: "Convolution10"
  top: "Eltwise4"
  eltwise_param {
    operation: SUM
  }
}
layer {
  name: "penlu9"
  type: "PENLU"
  bottom: "Eltwise4"
  top: "Eltwise4"
  param {
    lr_mult: 2
    decay_mult: 2
  }
  param {
    lr_mult: 2
    decay_mult: 2
  }
  param {
    lr_mult: 0
    decay_mult: 0
  }
  penlu_param {
    alpha_filler {
      type: "constant"
      value: 0.25
    }
    beta_filler {
      type: "constant"
      value: 1
    }
    eta_filler {
      type: "constant"
      value: 1
    }
  }
}
layer {
  name: "Convolution11"
  type: "Convolution"
  bottom: "Eltwise4"
  top: "Convolution11"
  param {
    lr_mult: 1
    decay_mult: 1
  }
  param {
    lr_mult: 2
    decay_mult: 0
  }
  convolution_param {
    num_output: 32
    pad: 1
    kernel_size: 3
    stride: 1
    weight_filler {
      type: "gaussian"
      std: 0.083
    }
    bias_filler {
      type: "constant"
      value: 0
    }
  }
}
layer {
  name: "BatchNorm11"
  type: "BatchNorm"
  bottom: "Convolution11"
  top: "Convolution11"
  param {
    lr_mult: 0
    decay_mult: 0
  }
  param {
    lr_mult: 0
    decay_mult: 0
  }
  param {
    lr_mult: 0
    decay_mult: 0
  }
}
layer {
  name: "Scale11"
  type: "Scale"
  bottom: "Convolution11"
  top: "Convolution11"
  scale_param {
    bias_term: true
  }
}
layer {
  name: "penlu10"
  type: "PENLU"
  bottom: "Convolution11"
  top: "Convolution11"
  param {
    lr_mult: 2
    decay_mult: 2
  }
  param {
    lr_mult: 2
    decay_mult: 2
  }
  param {
    lr_mult: 0
    decay_mult: 0
  }
  penlu_param {
    alpha_filler {
      type: "constant"
      value: 0.25
    }
    beta_filler {
      type: "constant"
      value: 1
    }
    eta_filler {
      type: "constant"
      value: 1
    }
  }
}
layer {
  name: "Convolution12"
  type: "Convolution"
  bottom: "Convolution11"
  top: "Convolution12"
  param {
    lr_mult: 1
    decay_mult: 1
  }
  param {
    lr_mult: 2
    decay_mult: 0
  }
  convolution_param {
    num_output: 32
    pad: 1
    kernel_size: 3
    stride: 1
    weight_filler {
      type: "gaussian"
      std: 0.083
    }
    bias_filler {
      type: "constant"
      value: 0
    }
  }
}
layer {
  name: "BatchNorm12"
  type: "BatchNorm"
  bottom: "Convolution12"
  top: "Convolution12"
  param {
    lr_mult: 0
    decay_mult: 0
  }
  param {
    lr_mult: 0
    decay_mult: 0
  }
  param {
    lr_mult: 0
    decay_mult: 0
  }
}
layer {
  name: "Scale12"
  type: "Scale"
  bottom: "Convolution12"
  top: "Convolution12"
  scale_param {
    bias_term: true
  }
}
layer {
  name: "Eltwise5"
  type: "Eltwise"
  bottom: "Eltwise4"
  bottom: "Convolution12"
  top: "Eltwise5"
  eltwise_param {
    operation: SUM
  }
}
layer {
  name: "penlu11"
  type: "PENLU"
  bottom: "Eltwise5"
  top: "Eltwise5"
  param {
    lr_mult: 2
    decay_mult: 2
  }
  param {
    lr_mult: 2
    decay_mult: 2
  }
  param {
    lr_mult: 0
    decay_mult: 0
  }
  penlu_param {
    alpha_filler {
      type: "constant"
      value: 0.25
    }
    beta_filler {
      type: "constant"
      value: 1
    }
    eta_filler {
      type: "constant"
      value: 1
    }
  }
}
layer {
  name: "Convolution13"
  type: "Convolution"
  bottom: "Eltwise5"
  top: "Convolution13"
  param {
    lr_mult: 1
    decay_mult: 1
  }
  param {
    lr_mult: 2
    decay_mult: 0
  }
  convolution_param {
    num_output: 32
    pad: 1
    kernel_size: 3
    stride: 1
    weight_filler {
      type: "gaussian"
      std: 0.083
    }
    bias_filler {
      type: "constant"
      value: 0
    }
  }
}
layer {
  name: "BatchNorm13"
  type: "BatchNorm"
  bottom: "Convolution13"
  top: "Convolution13"
  param {
    lr_mult: 0
    decay_mult: 0
  }
  param {
    lr_mult: 0
    decay_mult: 0
  }
  param {
    lr_mult: 0
    decay_mult: 0
  }
}
layer {
  name: "Scale13"
  type: "Scale"
  bottom: "Convolution13"
  top: "Convolution13"
  scale_param {
    bias_term: true
  }
}
layer {
  name: "penlu12"
  type: "PENLU"
  bottom: "Convolution13"
  top: "Convolution13"
  param {
    lr_mult: 2
    decay_mult: 2
  }
  param {
    lr_mult: 2
    decay_mult: 2
  }
  param {
    lr_mult: 0
    decay_mult: 0
  }
  penlu_param {
    alpha_filler {
      type: "constant"
      value: 0.25
    }
    beta_filler {
      type: "constant"
      value: 1
    }
    eta_filler {
      type: "constant"
      value: 1
    }
  }
}
layer {
  name: "Convolution14"
  type: "Convolution"
  bottom: "Convolution13"
  top: "Convolution14"
  param {
    lr_mult: 1
    decay_mult: 1
  }
  param {
    lr_mult: 2
    decay_mult: 0
  }
  convolution_param {
    num_output: 32
    pad: 1
    kernel_size: 3
    stride: 1
    weight_filler {
      type: "gaussian"
      std: 0.083
    }
    bias_filler {
      type: "constant"
      value: 0
    }
  }
}
layer {
  name: "BatchNorm14"
  type: "BatchNorm"
  bottom: "Convolution14"
  top: "Convolution14"
  param {
    lr_mult: 0
    decay_mult: 0
  }
  param {
    lr_mult: 0
    decay_mult: 0
  }
  param {
    lr_mult: 0
    decay_mult: 0
  }
}
layer {
  name: "Scale14"
  type: "Scale"
  bottom: "Convolution14"
  top: "Convolution14"
  scale_param {
    bias_term: true
  }
}
layer {
  name: "Eltwise6"
  type: "Eltwise"
  bottom: "Eltwise5"
  bottom: "Convolution14"
  top: "Eltwise6"
  eltwise_param {
    operation: SUM
  }
}
layer {
  name: "penlu13"
  type: "PENLU"
  bottom: "Eltwise6"
  top: "Eltwise6"
  param {
    lr_mult: 2
    decay_mult: 2
  }
  param {
    lr_mult: 2
    decay_mult: 2
  }
  param {
    lr_mult: 0
    decay_mult: 0
  }
  penlu_param {
    alpha_filler {
      type: "constant"
      value: 0.25
    }
    beta_filler {
      type: "constant"
      value: 1
    }
    eta_filler {
      type: "constant"
      value: 1
    }
  }
}
layer {
  name: "Convolution15"
  type: "Convolution"
  bottom: "Eltwise6"
  top: "Convolution15"
  param {
    lr_mult: 1
    decay_mult: 1
  }
  param {
    lr_mult: 2
    decay_mult: 0
  }
  convolution_param {
    num_output: 64
    pad: 0
    kernel_size: 1
    stride: 2
    weight_filler {
      type: "gaussian"
      std: 0.17677669
    }
    bias_filler {
      type: "constant"
      value: 0
    }
  }
}
layer {
  name: "BatchNorm15"
  type: "BatchNorm"
  bottom: "Convolution15"
  top: "Convolution15"
  param {
    lr_mult: 0
    decay_mult: 0
  }
  param {
    lr_mult: 0
    decay_mult: 0
  }
  param {
    lr_mult: 0
    decay_mult: 0
  }
}
layer {
  name: "Scale15"
  type: "Scale"
  bottom: "Convolution15"
  top: "Convolution15"
  scale_param {
    bias_term: true
  }
}
layer {
  name: "Convolution16"
  type: "Convolution"
  bottom: "Eltwise6"
  top: "Convolution16"
  param {
    lr_mult: 1
    decay_mult: 1
  }
  param {
    lr_mult: 2
    decay_mult: 0
  }
  convolution_param {
    num_output: 64
    pad: 1
    kernel_size: 3
    stride: 2
    weight_filler {
      type: "gaussian"
      std: 0.059
    }
    bias_filler {
      type: "constant"
      value: 0
    }
  }
}
layer {
  name: "BatchNorm16"
  type: "BatchNorm"
  bottom: "Convolution16"
  top: "Convolution16"
  param {
    lr_mult: 0
    decay_mult: 0
  }
  param {
    lr_mult: 0
    decay_mult: 0
  }
  param {
    lr_mult: 0
    decay_mult: 0
  }
}
layer {
  name: "Scale16"
  type: "Scale"
  bottom: "Convolution16"
  top: "Convolution16"
  scale_param {
    bias_term: true
  }
}
layer {
  name: "penlu14"
  type: "PENLU"
  bottom: "Convolution16"
  top: "Convolution16"
  param {
    lr_mult: 2
    decay_mult: 2
  }
  param {
    lr_mult: 2
    decay_mult: 2
  }
  param {
    lr_mult: 0
    decay_mult: 0
  }
  penlu_param {
    alpha_filler {
      type: "constant"
      value: 0.25
    }
    beta_filler {
      type: "constant"
      value: 1
    }
    eta_filler {
      type: "constant"
      value: 1
    }
  }
}
layer {
  name: "Convolution17"
  type: "Convolution"
  bottom: "Convolution16"
  top: "Convolution17"
  param {
    lr_mult: 1
    decay_mult: 1
  }
  param {
    lr_mult: 2
    decay_mult: 0
  }
  convolution_param {
    num_output: 64
    pad: 1
    kernel_size: 3
    stride: 1
    weight_filler {
      type: "gaussian"
      std: 0.059
    }
    bias_filler {
      type: "constant"
      value: 0
    }
  }
}
layer {
  name: "BatchNorm17"
  type: "BatchNorm"
  bottom: "Convolution17"
  top: "Convolution17"
  param {
    lr_mult: 0
    decay_mult: 0
  }
  param {
    lr_mult: 0
    decay_mult: 0
  }
  param {
    lr_mult: 0
    decay_mult: 0
  }
}
layer {
  name: "Scale17"
  type: "Scale"
  bottom: "Convolution17"
  top: "Convolution17"
  scale_param {
    bias_term: true
  }
}
layer {
  name: "Eltwise7"
  type: "Eltwise"
  bottom: "Convolution15"
  bottom: "Convolution17"
  top: "Eltwise7"
  eltwise_param {
    operation: SUM
  }
}
layer {
  name: "penlu15"
  type: "PENLU"
  bottom: "Eltwise7"
  top: "Eltwise7"
  param {
    lr_mult: 2
    decay_mult: 2
  }
  param {
    lr_mult: 2
    decay_mult: 2
  }
  param {
    lr_mult: 0
    decay_mult: 0
  }
  penlu_param {
    alpha_filler {
      type: "constant"
      value: 0.25
    }
    beta_filler {
      type: "constant"
      value: 1
    }
    eta_filler {
      type: "constant"
      value: 1
    }
  }
}
layer {
  name: "Convolution18"
  type: "Convolution"
  bottom: "Eltwise7"
  top: "Convolution18"
  param {
    lr_mult: 1
    decay_mult: 1
  }
  param {
    lr_mult: 2
    decay_mult: 0
  }
  convolution_param {
    num_output: 64
    pad: 1
    kernel_size: 3
    stride: 1
    weight_filler {
      type: "gaussian"
      std: 0.059
    }
    bias_filler {
      type: "constant"
      value: 0
    }
  }
}
layer {
  name: "BatchNorm18"
  type: "BatchNorm"
  bottom: "Convolution18"
  top: "Convolution18"
  param {
    lr_mult: 0
    decay_mult: 0
  }
  param {
    lr_mult: 0
    decay_mult: 0
  }
  param {
    lr_mult: 0
    decay_mult: 0
  }
}
layer {
  name: "Scale18"
  type: "Scale"
  bottom: "Convolution18"
  top: "Convolution18"
  scale_param {
    bias_term: true
  }
}
layer {
  name: "penlu16"
  type: "PENLU"
  bottom: "Convolution18"
  top: "Convolution18"
  param {
    lr_mult: 2
    decay_mult: 2
  }
  param {
    lr_mult: 2
    decay_mult: 2
  }
  param {
    lr_mult: 0
    decay_mult: 0
  }
  penlu_param {
    alpha_filler {
      type: "constant"
      value: 0.25
    }
    beta_filler {
      type: "constant"
      value: 1
    }
    eta_filler {
      type: "constant"
      value: 1
    }
  }
}
layer {
  name: "Convolution19"
  type: "Convolution"
  bottom: "Convolution18"
  top: "Convolution19"
  param {
    lr_mult: 1
    decay_mult: 1
  }
  param {
    lr_mult: 2
    decay_mult: 0
  }
  convolution_param {
    num_output: 64
    pad: 1
    kernel_size: 3
    stride: 1
    weight_filler {
      type: "gaussian"
      std: 0.059
    }
    bias_filler {
      type: "constant"
      value: 0
    }
  }
}
layer {
  name: "BatchNorm19"
  type: "BatchNorm"
  bottom: "Convolution19"
  top: "Convolution19"
  param {
    lr_mult: 0
    decay_mult: 0
  }
  param {
    lr_mult: 0
    decay_mult: 0
  }
  param {
    lr_mult: 0
    decay_mult: 0
  }
}
layer {
  name: "Scale19"
  type: "Scale"
  bottom: "Convolution19"
  top: "Convolution19"
  scale_param {
    bias_term: true
  }
}
layer {
  name: "Eltwise8"
  type: "Eltwise"
  bottom: "Eltwise7"
  bottom: "Convolution19"
  top: "Eltwise8"
  eltwise_param {
    operation: SUM
  }
}
layer {
  name: "penlu17"
  type: "PENLU"
  bottom: "Eltwise8"
  top: "Eltwise8"
  param {
    lr_mult: 2
    decay_mult: 2
  }
  param {
    lr_mult: 2
    decay_mult: 2
  }
  param {
    lr_mult: 0
    decay_mult: 0
  }
  penlu_param {
    alpha_filler {
      type: "constant"
      value: 0.25
    }
    beta_filler {
      type: "constant"
      value: 1
    }
    eta_filler {
      type: "constant"
      value: 1
    }
  }
}
layer {
  name: "Convolution20"
  type: "Convolution"
  bottom: "Eltwise8"
  top: "Convolution20"
  param {
    lr_mult: 1
    decay_mult: 1
  }
  param {
    lr_mult: 2
    decay_mult: 0
  }
  convolution_param {
    num_output: 64
    pad: 1
    kernel_size: 3
    stride: 1
    weight_filler {
      type: "gaussian"
      std: 0.059
    }
    bias_filler {
      type: "constant"
      value: 0
    }
  }
}
layer {
  name: "BatchNorm20"
  type: "BatchNorm"
  bottom: "Convolution20"
  top: "Convolution20"
  param {
    lr_mult: 0
    decay_mult: 0
  }
  param {
    lr_mult: 0
    decay_mult: 0
  }
  param {
    lr_mult: 0
    decay_mult: 0
  }
}
layer {
  name: "Scale20"
  type: "Scale"
  bottom: "Convolution20"
  top: "Convolution20"
  scale_param {
    bias_term: true
  }
}
layer {
  name: "penlu18"
  type: "PENLU"
  bottom: "Convolution20"
  top: "Convolution20"
  param {
    lr_mult: 2
    decay_mult: 2
  }
  param {
    lr_mult: 2
    decay_mult: 2
  }
  param {
    lr_mult: 0
    decay_mult: 0
  }
  penlu_param {
    alpha_filler {
      type: "constant"
      value: 0.25
    }
    beta_filler {
      type: "constant"
      value: 1
    }
    eta_filler {
      type: "constant"
      value: 1
    }
  }
}
layer {
  name: "Convolution21"
  type: "Convolution"
  bottom: "Convolution20"
  top: "Convolution21"
  param {
    lr_mult: 1
    decay_mult: 1
  }
  param {
    lr_mult: 2
    decay_mult: 0
  }
  convolution_param {
    num_output: 64
    pad: 1
    kernel_size: 3
    stride: 1
    weight_filler {
      type: "gaussian"
      std: 0.059
    }
    bias_filler {
      type: "constant"
      value: 0
    }
  }
}
layer {
  name: "BatchNorm21"
  type: "BatchNorm"
  bottom: "Convolution21"
  top: "Convolution21"
  param {
    lr_mult: 0
    decay_mult: 0
  }
  param {
    lr_mult: 0
    decay_mult: 0
  }
  param {
    lr_mult: 0
    decay_mult: 0
  }
}
layer {
  name: "Scale21"
  type: "Scale"
  bottom: "Convolution21"
  top: "Convolution21"
  scale_param {
    bias_term: true
  }
}
layer {
  name: "Eltwise9"
  type: "Eltwise"
  bottom: "Eltwise8"
  bottom: "Convolution21"
  top: "Eltwise9"
  eltwise_param {
    operation: SUM
  }
}
layer {
  name: "penlu19"
  type: "PENLU"
  bottom: "Eltwise9"
  top: "Eltwise9"
  param {
    lr_mult: 2
    decay_mult: 2
  }
  param {
    lr_mult: 2
    decay_mult: 2
  }
  param {
    lr_mult: 0
    decay_mult: 0
  }
  penlu_param {
    alpha_filler {
      type: "constant"
      value: 0.25
    }
    beta_filler {
      type: "constant"
      value: 1
    }
    eta_filler {
      type: "constant"
      value: 1
    }
  }
}
layer {
  name: "Pooling1"
  type: "Pooling"
  bottom: "Eltwise9"
  top: "Pooling1"
  pooling_param {
    pool: AVE
    global_pooling: true
  }
}
layer {
  name: "InnerProduct1"
  type: "InnerProduct"
  bottom: "Pooling1"
  top: "InnerProduct1"
  param {
    lr_mult: 1
    decay_mult: 1
  }
  param {
    lr_mult: 2
    decay_mult: 1
  }
  inner_product_param {
    num_output: 10
    weight_filler {
      type: "gaussian"
      std: 0.01
    }
    bias_filler {
      type: "constant"
      value: 0
    }
  }
}
layer {
  name: "SoftmaxWithLoss1"
  type: "SoftmaxWithLoss"
  bottom: "InnerProduct1"
  bottom: "Data2"
  top: "SoftmaxWithLoss1"
}
layer {
  name: "Accuracy1"
  type: "Accuracy"
  bottom: "InnerProduct1"
  bottom: "Data2"
  top: "Accuracy1"
  include {
    phase: TEST
  }
}
I1022 21:09:53.793138  3959 layer_factory.hpp:77] Creating layer Data1
I1022 21:09:53.793174  3959 db_lmdb.cpp:35] Opened lmdb /home/x306/caffe/xn/English_orange/data/val1_lmdb
I1022 21:09:53.793184  3959 net.cpp:84] Creating Layer Data1
I1022 21:09:53.793189  3959 net.cpp:380] Data1 -> Data1
I1022 21:09:53.793195  3959 net.cpp:380] Data1 -> Data2
I1022 21:09:53.793200  3959 data_transformer.cpp:25] Loading mean file from: /home/x306/caffe/xn/English_orange/data/orange1_mean.binaryproto
I1022 21:09:53.794364  3959 data_layer.cpp:45] output data size: 8,3,224,224
I1022 21:09:53.803138  3959 net.cpp:122] Setting up Data1
I1022 21:09:53.803159  3959 net.cpp:129] Top shape: 8 3 224 224 (1204224)
I1022 21:09:53.803164  3959 net.cpp:129] Top shape: 8 (8)
I1022 21:09:53.803166  3959 net.cpp:137] Memory required for data: 4816928
I1022 21:09:53.803170  3959 layer_factory.hpp:77] Creating layer Data2_Data1_1_split
I1022 21:09:53.803179  3959 net.cpp:84] Creating Layer Data2_Data1_1_split
I1022 21:09:53.803181  3959 net.cpp:406] Data2_Data1_1_split <- Data2
I1022 21:09:53.803200  3959 net.cpp:380] Data2_Data1_1_split -> Data2_Data1_1_split_0
I1022 21:09:53.803207  3959 net.cpp:380] Data2_Data1_1_split -> Data2_Data1_1_split_1
I1022 21:09:53.803247  3959 net.cpp:122] Setting up Data2_Data1_1_split
I1022 21:09:53.803252  3959 net.cpp:129] Top shape: 8 (8)
I1022 21:09:53.803256  3959 net.cpp:129] Top shape: 8 (8)
I1022 21:09:53.803257  3959 net.cpp:137] Memory required for data: 4816992
I1022 21:09:53.803259  3959 layer_factory.hpp:77] Creating layer Convolution1
I1022 21:09:53.803267  3959 net.cpp:84] Creating Layer Convolution1
I1022 21:09:53.803270  3959 net.cpp:406] Convolution1 <- Data1
I1022 21:09:53.803274  3959 net.cpp:380] Convolution1 -> Convolution1
I1022 21:09:53.804327  3959 net.cpp:122] Setting up Convolution1
I1022 21:09:53.804337  3959 net.cpp:129] Top shape: 8 16 224 224 (6422528)
I1022 21:09:53.804339  3959 net.cpp:137] Memory required for data: 30507104
I1022 21:09:53.804347  3959 layer_factory.hpp:77] Creating layer BatchNorm1
I1022 21:09:53.804352  3959 net.cpp:84] Creating Layer BatchNorm1
I1022 21:09:53.804354  3959 net.cpp:406] BatchNorm1 <- Convolution1
I1022 21:09:53.804358  3959 net.cpp:367] BatchNorm1 -> Convolution1 (in-place)
I1022 21:09:53.804883  3959 net.cpp:122] Setting up BatchNorm1
I1022 21:09:53.804888  3959 net.cpp:129] Top shape: 8 16 224 224 (6422528)
I1022 21:09:53.804889  3959 net.cpp:137] Memory required for data: 56197216
I1022 21:09:53.804896  3959 layer_factory.hpp:77] Creating layer Scale1
I1022 21:09:53.804903  3959 net.cpp:84] Creating Layer Scale1
I1022 21:09:53.804904  3959 net.cpp:406] Scale1 <- Convolution1
I1022 21:09:53.804908  3959 net.cpp:367] Scale1 -> Convolution1 (in-place)
I1022 21:09:53.804936  3959 layer_factory.hpp:77] Creating layer Scale1
I1022 21:09:53.805073  3959 net.cpp:122] Setting up Scale1
I1022 21:09:53.805078  3959 net.cpp:129] Top shape: 8 16 224 224 (6422528)
I1022 21:09:53.805080  3959 net.cpp:137] Memory required for data: 81887328
I1022 21:09:53.805083  3959 layer_factory.hpp:77] Creating layer penlu1
I1022 21:09:53.805089  3959 net.cpp:84] Creating Layer penlu1
I1022 21:09:53.805091  3959 net.cpp:406] penlu1 <- Convolution1
I1022 21:09:53.805095  3959 net.cpp:367] penlu1 -> Convolution1 (in-place)
I1022 21:09:53.806299  3959 net.cpp:122] Setting up penlu1
I1022 21:09:53.806309  3959 net.cpp:129] Top shape: 8 16 224 224 (6422528)
I1022 21:09:53.806313  3959 net.cpp:137] Memory required for data: 107577440
I1022 21:09:53.806320  3959 layer_factory.hpp:77] Creating layer Convolution1_penlu1_0_split
I1022 21:09:53.806325  3959 net.cpp:84] Creating Layer Convolution1_penlu1_0_split
I1022 21:09:53.806329  3959 net.cpp:406] Convolution1_penlu1_0_split <- Convolution1
I1022 21:09:53.806331  3959 net.cpp:380] Convolution1_penlu1_0_split -> Convolution1_penlu1_0_split_0
I1022 21:09:53.806336  3959 net.cpp:380] Convolution1_penlu1_0_split -> Convolution1_penlu1_0_split_1
I1022 21:09:53.806365  3959 net.cpp:122] Setting up Convolution1_penlu1_0_split
I1022 21:09:53.806368  3959 net.cpp:129] Top shape: 8 16 224 224 (6422528)
I1022 21:09:53.806370  3959 net.cpp:129] Top shape: 8 16 224 224 (6422528)
I1022 21:09:53.806372  3959 net.cpp:137] Memory required for data: 158957664
I1022 21:09:53.806375  3959 layer_factory.hpp:77] Creating layer Convolution2
I1022 21:09:53.806382  3959 net.cpp:84] Creating Layer Convolution2
I1022 21:09:53.806385  3959 net.cpp:406] Convolution2 <- Convolution1_penlu1_0_split_0
I1022 21:09:53.806388  3959 net.cpp:380] Convolution2 -> Convolution2
I1022 21:09:53.807049  3959 net.cpp:122] Setting up Convolution2
I1022 21:09:53.807056  3959 net.cpp:129] Top shape: 8 16 224 224 (6422528)
I1022 21:09:53.807059  3959 net.cpp:137] Memory required for data: 184647776
I1022 21:09:53.807062  3959 layer_factory.hpp:77] Creating layer BatchNorm2
I1022 21:09:53.807068  3959 net.cpp:84] Creating Layer BatchNorm2
I1022 21:09:53.807071  3959 net.cpp:406] BatchNorm2 <- Convolution2
I1022 21:09:53.807075  3959 net.cpp:367] BatchNorm2 -> Convolution2 (in-place)
I1022 21:09:53.807248  3959 net.cpp:122] Setting up BatchNorm2
I1022 21:09:53.807271  3959 net.cpp:129] Top shape: 8 16 224 224 (6422528)
I1022 21:09:53.807273  3959 net.cpp:137] Memory required for data: 210337888
I1022 21:09:53.807278  3959 layer_factory.hpp:77] Creating layer Scale2
I1022 21:09:53.807283  3959 net.cpp:84] Creating Layer Scale2
I1022 21:09:53.807286  3959 net.cpp:406] Scale2 <- Convolution2
I1022 21:09:53.807288  3959 net.cpp:367] Scale2 -> Convolution2 (in-place)
I1022 21:09:53.807320  3959 layer_factory.hpp:77] Creating layer Scale2
I1022 21:09:53.807462  3959 net.cpp:122] Setting up Scale2
I1022 21:09:53.807467  3959 net.cpp:129] Top shape: 8 16 224 224 (6422528)
I1022 21:09:53.807468  3959 net.cpp:137] Memory required for data: 236028000
I1022 21:09:53.807476  3959 layer_factory.hpp:77] Creating layer penlu2
I1022 21:09:53.807482  3959 net.cpp:84] Creating Layer penlu2
I1022 21:09:53.807483  3959 net.cpp:406] penlu2 <- Convolution2
I1022 21:09:53.807487  3959 net.cpp:367] penlu2 -> Convolution2 (in-place)
I1022 21:09:53.808816  3959 net.cpp:122] Setting up penlu2
I1022 21:09:53.808832  3959 net.cpp:129] Top shape: 8 16 224 224 (6422528)
I1022 21:09:53.808835  3959 net.cpp:137] Memory required for data: 261718112
I1022 21:09:53.808842  3959 layer_factory.hpp:77] Creating layer Convolution3
I1022 21:09:53.808856  3959 net.cpp:84] Creating Layer Convolution3
I1022 21:09:53.808859  3959 net.cpp:406] Convolution3 <- Convolution2
I1022 21:09:53.808866  3959 net.cpp:380] Convolution3 -> Convolution3
I1022 21:09:53.810845  3959 net.cpp:122] Setting up Convolution3
I1022 21:09:53.810858  3959 net.cpp:129] Top shape: 8 16 224 224 (6422528)
I1022 21:09:53.810861  3959 net.cpp:137] Memory required for data: 287408224
I1022 21:09:53.810866  3959 layer_factory.hpp:77] Creating layer BatchNorm3
I1022 21:09:53.810873  3959 net.cpp:84] Creating Layer BatchNorm3
I1022 21:09:53.810876  3959 net.cpp:406] BatchNorm3 <- Convolution3
I1022 21:09:53.810880  3959 net.cpp:367] BatchNorm3 -> Convolution3 (in-place)
I1022 21:09:53.811051  3959 net.cpp:122] Setting up BatchNorm3
I1022 21:09:53.811056  3959 net.cpp:129] Top shape: 8 16 224 224 (6422528)
I1022 21:09:53.811058  3959 net.cpp:137] Memory required for data: 313098336
I1022 21:09:53.811062  3959 layer_factory.hpp:77] Creating layer Scale3
I1022 21:09:53.811069  3959 net.cpp:84] Creating Layer Scale3
I1022 21:09:53.811070  3959 net.cpp:406] Scale3 <- Convolution3
I1022 21:09:53.811074  3959 net.cpp:367] Scale3 -> Convolution3 (in-place)
I1022 21:09:53.811106  3959 layer_factory.hpp:77] Creating layer Scale3
I1022 21:09:53.811226  3959 net.cpp:122] Setting up Scale3
I1022 21:09:53.811230  3959 net.cpp:129] Top shape: 8 16 224 224 (6422528)
I1022 21:09:53.811233  3959 net.cpp:137] Memory required for data: 338788448
I1022 21:09:53.811236  3959 layer_factory.hpp:77] Creating layer Eltwise1
I1022 21:09:53.811240  3959 net.cpp:84] Creating Layer Eltwise1
I1022 21:09:53.811244  3959 net.cpp:406] Eltwise1 <- Convolution1_penlu1_0_split_1
I1022 21:09:53.811246  3959 net.cpp:406] Eltwise1 <- Convolution3
I1022 21:09:53.811249  3959 net.cpp:380] Eltwise1 -> Eltwise1
I1022 21:09:53.811267  3959 net.cpp:122] Setting up Eltwise1
I1022 21:09:53.811270  3959 net.cpp:129] Top shape: 8 16 224 224 (6422528)
I1022 21:09:53.811272  3959 net.cpp:137] Memory required for data: 364478560
I1022 21:09:53.811275  3959 layer_factory.hpp:77] Creating layer penlu3
I1022 21:09:53.811281  3959 net.cpp:84] Creating Layer penlu3
I1022 21:09:53.811283  3959 net.cpp:406] penlu3 <- Eltwise1
I1022 21:09:53.811286  3959 net.cpp:367] penlu3 -> Eltwise1 (in-place)
I1022 21:09:53.812536  3959 net.cpp:122] Setting up penlu3
I1022 21:09:53.812549  3959 net.cpp:129] Top shape: 8 16 224 224 (6422528)
I1022 21:09:53.812551  3959 net.cpp:137] Memory required for data: 390168672
I1022 21:09:53.812557  3959 layer_factory.hpp:77] Creating layer Eltwise1_penlu3_0_split
I1022 21:09:53.812564  3959 net.cpp:84] Creating Layer Eltwise1_penlu3_0_split
I1022 21:09:53.812567  3959 net.cpp:406] Eltwise1_penlu3_0_split <- Eltwise1
I1022 21:09:53.812571  3959 net.cpp:380] Eltwise1_penlu3_0_split -> Eltwise1_penlu3_0_split_0
I1022 21:09:53.812592  3959 net.cpp:380] Eltwise1_penlu3_0_split -> Eltwise1_penlu3_0_split_1
I1022 21:09:53.812620  3959 net.cpp:122] Setting up Eltwise1_penlu3_0_split
I1022 21:09:53.812624  3959 net.cpp:129] Top shape: 8 16 224 224 (6422528)
I1022 21:09:53.812628  3959 net.cpp:129] Top shape: 8 16 224 224 (6422528)
I1022 21:09:53.812629  3959 net.cpp:137] Memory required for data: 441548896
I1022 21:09:53.812631  3959 layer_factory.hpp:77] Creating layer Convolution4
I1022 21:09:53.812639  3959 net.cpp:84] Creating Layer Convolution4
I1022 21:09:53.812641  3959 net.cpp:406] Convolution4 <- Eltwise1_penlu3_0_split_0
I1022 21:09:53.812645  3959 net.cpp:380] Convolution4 -> Convolution4
I1022 21:09:53.813776  3959 net.cpp:122] Setting up Convolution4
I1022 21:09:53.813784  3959 net.cpp:129] Top shape: 8 16 224 224 (6422528)
I1022 21:09:53.813787  3959 net.cpp:137] Memory required for data: 467239008
I1022 21:09:53.813791  3959 layer_factory.hpp:77] Creating layer BatchNorm4
I1022 21:09:53.813797  3959 net.cpp:84] Creating Layer BatchNorm4
I1022 21:09:53.813799  3959 net.cpp:406] BatchNorm4 <- Convolution4
I1022 21:09:53.813803  3959 net.cpp:367] BatchNorm4 -> Convolution4 (in-place)
I1022 21:09:53.814371  3959 net.cpp:122] Setting up BatchNorm4
I1022 21:09:53.814376  3959 net.cpp:129] Top shape: 8 16 224 224 (6422528)
I1022 21:09:53.814378  3959 net.cpp:137] Memory required for data: 492929120
I1022 21:09:53.814388  3959 layer_factory.hpp:77] Creating layer Scale4
I1022 21:09:53.814393  3959 net.cpp:84] Creating Layer Scale4
I1022 21:09:53.814395  3959 net.cpp:406] Scale4 <- Convolution4
I1022 21:09:53.814399  3959 net.cpp:367] Scale4 -> Convolution4 (in-place)
I1022 21:09:53.814430  3959 layer_factory.hpp:77] Creating layer Scale4
I1022 21:09:53.814570  3959 net.cpp:122] Setting up Scale4
I1022 21:09:53.814575  3959 net.cpp:129] Top shape: 8 16 224 224 (6422528)
I1022 21:09:53.814577  3959 net.cpp:137] Memory required for data: 518619232
I1022 21:09:53.814580  3959 layer_factory.hpp:77] Creating layer penlu4
I1022 21:09:53.814586  3959 net.cpp:84] Creating Layer penlu4
I1022 21:09:53.814589  3959 net.cpp:406] penlu4 <- Convolution4
I1022 21:09:53.814591  3959 net.cpp:367] penlu4 -> Convolution4 (in-place)
I1022 21:09:53.815824  3959 net.cpp:122] Setting up penlu4
I1022 21:09:53.815836  3959 net.cpp:129] Top shape: 8 16 224 224 (6422528)
I1022 21:09:53.815838  3959 net.cpp:137] Memory required for data: 544309344
I1022 21:09:53.815843  3959 layer_factory.hpp:77] Creating layer Convolution5
I1022 21:09:53.815851  3959 net.cpp:84] Creating Layer Convolution5
I1022 21:09:53.815855  3959 net.cpp:406] Convolution5 <- Convolution4
I1022 21:09:53.815860  3959 net.cpp:380] Convolution5 -> Convolution5
I1022 21:09:53.817293  3959 net.cpp:122] Setting up Convolution5
I1022 21:09:53.817303  3959 net.cpp:129] Top shape: 8 16 224 224 (6422528)
I1022 21:09:53.817306  3959 net.cpp:137] Memory required for data: 569999456
I1022 21:09:53.817312  3959 layer_factory.hpp:77] Creating layer BatchNorm5
I1022 21:09:53.817317  3959 net.cpp:84] Creating Layer BatchNorm5
I1022 21:09:53.817318  3959 net.cpp:406] BatchNorm5 <- Convolution5
I1022 21:09:53.817322  3959 net.cpp:367] BatchNorm5 -> Convolution5 (in-place)
I1022 21:09:53.817505  3959 net.cpp:122] Setting up BatchNorm5
I1022 21:09:53.817509  3959 net.cpp:129] Top shape: 8 16 224 224 (6422528)
I1022 21:09:53.817512  3959 net.cpp:137] Memory required for data: 595689568
I1022 21:09:53.817517  3959 layer_factory.hpp:77] Creating layer Scale5
I1022 21:09:53.817522  3959 net.cpp:84] Creating Layer Scale5
I1022 21:09:53.817524  3959 net.cpp:406] Scale5 <- Convolution5
I1022 21:09:53.817528  3959 net.cpp:367] Scale5 -> Convolution5 (in-place)
I1022 21:09:53.817559  3959 layer_factory.hpp:77] Creating layer Scale5
I1022 21:09:53.818219  3959 net.cpp:122] Setting up Scale5
I1022 21:09:53.818228  3959 net.cpp:129] Top shape: 8 16 224 224 (6422528)
I1022 21:09:53.818230  3959 net.cpp:137] Memory required for data: 621379680
I1022 21:09:53.818235  3959 layer_factory.hpp:77] Creating layer Eltwise2
I1022 21:09:53.818254  3959 net.cpp:84] Creating Layer Eltwise2
I1022 21:09:53.818259  3959 net.cpp:406] Eltwise2 <- Eltwise1_penlu3_0_split_1
I1022 21:09:53.818261  3959 net.cpp:406] Eltwise2 <- Convolution5
I1022 21:09:53.818264  3959 net.cpp:380] Eltwise2 -> Eltwise2
I1022 21:09:53.818284  3959 net.cpp:122] Setting up Eltwise2
I1022 21:09:53.818289  3959 net.cpp:129] Top shape: 8 16 224 224 (6422528)
I1022 21:09:53.818290  3959 net.cpp:137] Memory required for data: 647069792
I1022 21:09:53.818292  3959 layer_factory.hpp:77] Creating layer penlu5
I1022 21:09:53.818298  3959 net.cpp:84] Creating Layer penlu5
I1022 21:09:53.818300  3959 net.cpp:406] penlu5 <- Eltwise2
I1022 21:09:53.818303  3959 net.cpp:367] penlu5 -> Eltwise2 (in-place)
I1022 21:09:53.819490  3959 net.cpp:122] Setting up penlu5
I1022 21:09:53.819500  3959 net.cpp:129] Top shape: 8 16 224 224 (6422528)
I1022 21:09:53.819502  3959 net.cpp:137] Memory required for data: 672759904
I1022 21:09:53.819509  3959 layer_factory.hpp:77] Creating layer Eltwise2_penlu5_0_split
I1022 21:09:53.819514  3959 net.cpp:84] Creating Layer Eltwise2_penlu5_0_split
I1022 21:09:53.819516  3959 net.cpp:406] Eltwise2_penlu5_0_split <- Eltwise2
I1022 21:09:53.819519  3959 net.cpp:380] Eltwise2_penlu5_0_split -> Eltwise2_penlu5_0_split_0
I1022 21:09:53.819524  3959 net.cpp:380] Eltwise2_penlu5_0_split -> Eltwise2_penlu5_0_split_1
I1022 21:09:53.819556  3959 net.cpp:122] Setting up Eltwise2_penlu5_0_split
I1022 21:09:53.819561  3959 net.cpp:129] Top shape: 8 16 224 224 (6422528)
I1022 21:09:53.819564  3959 net.cpp:129] Top shape: 8 16 224 224 (6422528)
I1022 21:09:53.819566  3959 net.cpp:137] Memory required for data: 724140128
I1022 21:09:53.819568  3959 layer_factory.hpp:77] Creating layer Convolution6
I1022 21:09:53.819576  3959 net.cpp:84] Creating Layer Convolution6
I1022 21:09:53.819578  3959 net.cpp:406] Convolution6 <- Eltwise2_penlu5_0_split_0
I1022 21:09:53.819582  3959 net.cpp:380] Convolution6 -> Convolution6
I1022 21:09:53.821102  3959 net.cpp:122] Setting up Convolution6
I1022 21:09:53.821111  3959 net.cpp:129] Top shape: 8 16 224 224 (6422528)
I1022 21:09:53.821115  3959 net.cpp:137] Memory required for data: 749830240
I1022 21:09:53.821118  3959 layer_factory.hpp:77] Creating layer BatchNorm6
I1022 21:09:53.821123  3959 net.cpp:84] Creating Layer BatchNorm6
I1022 21:09:53.821126  3959 net.cpp:406] BatchNorm6 <- Convolution6
I1022 21:09:53.821130  3959 net.cpp:367] BatchNorm6 -> Convolution6 (in-place)
I1022 21:09:53.821310  3959 net.cpp:122] Setting up BatchNorm6
I1022 21:09:53.821315  3959 net.cpp:129] Top shape: 8 16 224 224 (6422528)
I1022 21:09:53.821316  3959 net.cpp:137] Memory required for data: 775520352
I1022 21:09:53.821321  3959 layer_factory.hpp:77] Creating layer Scale6
I1022 21:09:53.821326  3959 net.cpp:84] Creating Layer Scale6
I1022 21:09:53.821328  3959 net.cpp:406] Scale6 <- Convolution6
I1022 21:09:53.821331  3959 net.cpp:367] Scale6 -> Convolution6 (in-place)
I1022 21:09:53.821362  3959 layer_factory.hpp:77] Creating layer Scale6
I1022 21:09:53.821507  3959 net.cpp:122] Setting up Scale6
I1022 21:09:53.821511  3959 net.cpp:129] Top shape: 8 16 224 224 (6422528)
I1022 21:09:53.821513  3959 net.cpp:137] Memory required for data: 801210464
I1022 21:09:53.821517  3959 layer_factory.hpp:77] Creating layer penlu6
I1022 21:09:53.821522  3959 net.cpp:84] Creating Layer penlu6
I1022 21:09:53.821524  3959 net.cpp:406] penlu6 <- Convolution6
I1022 21:09:53.821528  3959 net.cpp:367] penlu6 -> Convolution6 (in-place)
I1022 21:09:53.822769  3959 net.cpp:122] Setting up penlu6
I1022 21:09:53.822780  3959 net.cpp:129] Top shape: 8 16 224 224 (6422528)
I1022 21:09:53.822783  3959 net.cpp:137] Memory required for data: 826900576
I1022 21:09:53.822788  3959 layer_factory.hpp:77] Creating layer Convolution7
I1022 21:09:53.822796  3959 net.cpp:84] Creating Layer Convolution7
I1022 21:09:53.822799  3959 net.cpp:406] Convolution7 <- Convolution6
I1022 21:09:53.822804  3959 net.cpp:380] Convolution7 -> Convolution7
I1022 21:09:53.824329  3959 net.cpp:122] Setting up Convolution7
I1022 21:09:53.824339  3959 net.cpp:129] Top shape: 8 16 224 224 (6422528)
I1022 21:09:53.824342  3959 net.cpp:137] Memory required for data: 852590688
I1022 21:09:53.824347  3959 layer_factory.hpp:77] Creating layer BatchNorm7
I1022 21:09:53.824357  3959 net.cpp:84] Creating Layer BatchNorm7
I1022 21:09:53.824359  3959 net.cpp:406] BatchNorm7 <- Convolution7
I1022 21:09:53.824363  3959 net.cpp:367] BatchNorm7 -> Convolution7 (in-place)
I1022 21:09:53.824561  3959 net.cpp:122] Setting up BatchNorm7
I1022 21:09:53.824566  3959 net.cpp:129] Top shape: 8 16 224 224 (6422528)
I1022 21:09:53.824568  3959 net.cpp:137] Memory required for data: 878280800
I1022 21:09:53.824580  3959 layer_factory.hpp:77] Creating layer Scale7
I1022 21:09:53.824586  3959 net.cpp:84] Creating Layer Scale7
I1022 21:09:53.824589  3959 net.cpp:406] Scale7 <- Convolution7
I1022 21:09:53.824592  3959 net.cpp:367] Scale7 -> Convolution7 (in-place)
I1022 21:09:53.824628  3959 layer_factory.hpp:77] Creating layer Scale7
I1022 21:09:53.824796  3959 net.cpp:122] Setting up Scale7
I1022 21:09:53.824800  3959 net.cpp:129] Top shape: 8 16 224 224 (6422528)
I1022 21:09:53.824802  3959 net.cpp:137] Memory required for data: 903970912
I1022 21:09:53.824806  3959 layer_factory.hpp:77] Creating layer Eltwise3
I1022 21:09:53.824811  3959 net.cpp:84] Creating Layer Eltwise3
I1022 21:09:53.824813  3959 net.cpp:406] Eltwise3 <- Eltwise2_penlu5_0_split_1
I1022 21:09:53.824816  3959 net.cpp:406] Eltwise3 <- Convolution7
I1022 21:09:53.824820  3959 net.cpp:380] Eltwise3 -> Eltwise3
I1022 21:09:53.824837  3959 net.cpp:122] Setting up Eltwise3
I1022 21:09:53.824841  3959 net.cpp:129] Top shape: 8 16 224 224 (6422528)
I1022 21:09:53.824843  3959 net.cpp:137] Memory required for data: 929661024
I1022 21:09:53.824846  3959 layer_factory.hpp:77] Creating layer penlu7
I1022 21:09:53.824851  3959 net.cpp:84] Creating Layer penlu7
I1022 21:09:53.824853  3959 net.cpp:406] penlu7 <- Eltwise3
I1022 21:09:53.824856  3959 net.cpp:367] penlu7 -> Eltwise3 (in-place)
I1022 21:09:53.826102  3959 net.cpp:122] Setting up penlu7
I1022 21:09:53.826113  3959 net.cpp:129] Top shape: 8 16 224 224 (6422528)
I1022 21:09:53.826115  3959 net.cpp:137] Memory required for data: 955351136
I1022 21:09:53.826122  3959 layer_factory.hpp:77] Creating layer Eltwise3_penlu7_0_split
I1022 21:09:53.826125  3959 net.cpp:84] Creating Layer Eltwise3_penlu7_0_split
I1022 21:09:53.826128  3959 net.cpp:406] Eltwise3_penlu7_0_split <- Eltwise3
I1022 21:09:53.826133  3959 net.cpp:380] Eltwise3_penlu7_0_split -> Eltwise3_penlu7_0_split_0
I1022 21:09:53.826136  3959 net.cpp:380] Eltwise3_penlu7_0_split -> Eltwise3_penlu7_0_split_1
I1022 21:09:53.826164  3959 net.cpp:122] Setting up Eltwise3_penlu7_0_split
I1022 21:09:53.826169  3959 net.cpp:129] Top shape: 8 16 224 224 (6422528)
I1022 21:09:53.826171  3959 net.cpp:129] Top shape: 8 16 224 224 (6422528)
I1022 21:09:53.826174  3959 net.cpp:137] Memory required for data: 1006731360
I1022 21:09:53.826175  3959 layer_factory.hpp:77] Creating layer Convolution8
I1022 21:09:53.826182  3959 net.cpp:84] Creating Layer Convolution8
I1022 21:09:53.826185  3959 net.cpp:406] Convolution8 <- Eltwise3_penlu7_0_split_0
I1022 21:09:53.826189  3959 net.cpp:380] Convolution8 -> Convolution8
I1022 21:09:53.827316  3959 net.cpp:122] Setting up Convolution8
I1022 21:09:53.827325  3959 net.cpp:129] Top shape: 8 32 112 112 (3211264)
I1022 21:09:53.827327  3959 net.cpp:137] Memory required for data: 1019576416
I1022 21:09:53.827332  3959 layer_factory.hpp:77] Creating layer BatchNorm8
I1022 21:09:53.827338  3959 net.cpp:84] Creating Layer BatchNorm8
I1022 21:09:53.827342  3959 net.cpp:406] BatchNorm8 <- Convolution8
I1022 21:09:53.827344  3959 net.cpp:367] BatchNorm8 -> Convolution8 (in-place)
I1022 21:09:53.827505  3959 net.cpp:122] Setting up BatchNorm8
I1022 21:09:53.827510  3959 net.cpp:129] Top shape: 8 32 112 112 (3211264)
I1022 21:09:53.827512  3959 net.cpp:137] Memory required for data: 1032421472
I1022 21:09:53.827517  3959 layer_factory.hpp:77] Creating layer Scale8
I1022 21:09:53.827531  3959 net.cpp:84] Creating Layer Scale8
I1022 21:09:53.827534  3959 net.cpp:406] Scale8 <- Convolution8
I1022 21:09:53.827538  3959 net.cpp:367] Scale8 -> Convolution8 (in-place)
I1022 21:09:53.827572  3959 layer_factory.hpp:77] Creating layer Scale8
I1022 21:09:53.827713  3959 net.cpp:122] Setting up Scale8
I1022 21:09:53.827718  3959 net.cpp:129] Top shape: 8 32 112 112 (3211264)
I1022 21:09:53.827720  3959 net.cpp:137] Memory required for data: 1045266528
I1022 21:09:53.827724  3959 layer_factory.hpp:77] Creating layer Convolution9
I1022 21:09:53.827731  3959 net.cpp:84] Creating Layer Convolution9
I1022 21:09:53.827734  3959 net.cpp:406] Convolution9 <- Eltwise3_penlu7_0_split_1
I1022 21:09:53.827739  3959 net.cpp:380] Convolution9 -> Convolution9
I1022 21:09:53.828874  3959 net.cpp:122] Setting up Convolution9
I1022 21:09:53.828894  3959 net.cpp:129] Top shape: 8 32 112 112 (3211264)
I1022 21:09:53.828896  3959 net.cpp:137] Memory required for data: 1058111584
I1022 21:09:53.828902  3959 layer_factory.hpp:77] Creating layer BatchNorm9
I1022 21:09:53.828907  3959 net.cpp:84] Creating Layer BatchNorm9
I1022 21:09:53.828909  3959 net.cpp:406] BatchNorm9 <- Convolution9
I1022 21:09:53.828914  3959 net.cpp:367] BatchNorm9 -> Convolution9 (in-place)
I1022 21:09:53.829082  3959 net.cpp:122] Setting up BatchNorm9
I1022 21:09:53.829087  3959 net.cpp:129] Top shape: 8 32 112 112 (3211264)
I1022 21:09:53.829088  3959 net.cpp:137] Memory required for data: 1070956640
I1022 21:09:53.829093  3959 layer_factory.hpp:77] Creating layer Scale9
I1022 21:09:53.829098  3959 net.cpp:84] Creating Layer Scale9
I1022 21:09:53.829100  3959 net.cpp:406] Scale9 <- Convolution9
I1022 21:09:53.829103  3959 net.cpp:367] Scale9 -> Convolution9 (in-place)
I1022 21:09:53.829133  3959 layer_factory.hpp:77] Creating layer Scale9
I1022 21:09:53.829254  3959 net.cpp:122] Setting up Scale9
I1022 21:09:53.829258  3959 net.cpp:129] Top shape: 8 32 112 112 (3211264)
I1022 21:09:53.829260  3959 net.cpp:137] Memory required for data: 1083801696
I1022 21:09:53.829264  3959 layer_factory.hpp:77] Creating layer penlu8
I1022 21:09:53.829269  3959 net.cpp:84] Creating Layer penlu8
I1022 21:09:53.829272  3959 net.cpp:406] penlu8 <- Convolution9
I1022 21:09:53.829277  3959 net.cpp:367] penlu8 -> Convolution9 (in-place)
I1022 21:09:53.830160  3959 net.cpp:122] Setting up penlu8
I1022 21:09:53.830168  3959 net.cpp:129] Top shape: 8 32 112 112 (3211264)
I1022 21:09:53.830171  3959 net.cpp:137] Memory required for data: 1096646752
I1022 21:09:53.830176  3959 layer_factory.hpp:77] Creating layer Convolution10
I1022 21:09:53.830183  3959 net.cpp:84] Creating Layer Convolution10
I1022 21:09:53.830186  3959 net.cpp:406] Convolution10 <- Convolution9
I1022 21:09:53.830190  3959 net.cpp:380] Convolution10 -> Convolution10
I1022 21:09:53.832296  3959 net.cpp:122] Setting up Convolution10
I1022 21:09:53.832305  3959 net.cpp:129] Top shape: 8 32 112 112 (3211264)
I1022 21:09:53.832309  3959 net.cpp:137] Memory required for data: 1109491808
I1022 21:09:53.832314  3959 layer_factory.hpp:77] Creating layer BatchNorm10
I1022 21:09:53.832319  3959 net.cpp:84] Creating Layer BatchNorm10
I1022 21:09:53.832322  3959 net.cpp:406] BatchNorm10 <- Convolution10
I1022 21:09:53.832325  3959 net.cpp:367] BatchNorm10 -> Convolution10 (in-place)
I1022 21:09:53.832490  3959 net.cpp:122] Setting up BatchNorm10
I1022 21:09:53.832495  3959 net.cpp:129] Top shape: 8 32 112 112 (3211264)
I1022 21:09:53.832497  3959 net.cpp:137] Memory required for data: 1122336864
I1022 21:09:53.832502  3959 layer_factory.hpp:77] Creating layer Scale10
I1022 21:09:53.832507  3959 net.cpp:84] Creating Layer Scale10
I1022 21:09:53.832509  3959 net.cpp:406] Scale10 <- Convolution10
I1022 21:09:53.832512  3959 net.cpp:367] Scale10 -> Convolution10 (in-place)
I1022 21:09:53.832545  3959 layer_factory.hpp:77] Creating layer Scale10
I1022 21:09:53.832638  3959 net.cpp:122] Setting up Scale10
I1022 21:09:53.832643  3959 net.cpp:129] Top shape: 8 32 112 112 (3211264)
I1022 21:09:53.832656  3959 net.cpp:137] Memory required for data: 1135181920
I1022 21:09:53.832661  3959 layer_factory.hpp:77] Creating layer Eltwise4
I1022 21:09:53.832666  3959 net.cpp:84] Creating Layer Eltwise4
I1022 21:09:53.832669  3959 net.cpp:406] Eltwise4 <- Convolution8
I1022 21:09:53.832671  3959 net.cpp:406] Eltwise4 <- Convolution10
I1022 21:09:53.832676  3959 net.cpp:380] Eltwise4 -> Eltwise4
I1022 21:09:53.832696  3959 net.cpp:122] Setting up Eltwise4
I1022 21:09:53.832700  3959 net.cpp:129] Top shape: 8 32 112 112 (3211264)
I1022 21:09:53.832702  3959 net.cpp:137] Memory required for data: 1148026976
I1022 21:09:53.832705  3959 layer_factory.hpp:77] Creating layer penlu9
I1022 21:09:53.832710  3959 net.cpp:84] Creating Layer penlu9
I1022 21:09:53.832711  3959 net.cpp:406] penlu9 <- Eltwise4
I1022 21:09:53.832717  3959 net.cpp:367] penlu9 -> Eltwise4 (in-place)
I1022 21:09:53.833547  3959 net.cpp:122] Setting up penlu9
I1022 21:09:53.833555  3959 net.cpp:129] Top shape: 8 32 112 112 (3211264)
I1022 21:09:53.833557  3959 net.cpp:137] Memory required for data: 1160872032
I1022 21:09:53.833562  3959 layer_factory.hpp:77] Creating layer Eltwise4_penlu9_0_split
I1022 21:09:53.833567  3959 net.cpp:84] Creating Layer Eltwise4_penlu9_0_split
I1022 21:09:53.833570  3959 net.cpp:406] Eltwise4_penlu9_0_split <- Eltwise4
I1022 21:09:53.833573  3959 net.cpp:380] Eltwise4_penlu9_0_split -> Eltwise4_penlu9_0_split_0
I1022 21:09:53.833578  3959 net.cpp:380] Eltwise4_penlu9_0_split -> Eltwise4_penlu9_0_split_1
I1022 21:09:53.833606  3959 net.cpp:122] Setting up Eltwise4_penlu9_0_split
I1022 21:09:53.833611  3959 net.cpp:129] Top shape: 8 32 112 112 (3211264)
I1022 21:09:53.833613  3959 net.cpp:129] Top shape: 8 32 112 112 (3211264)
I1022 21:09:53.833616  3959 net.cpp:137] Memory required for data: 1186562144
I1022 21:09:53.833617  3959 layer_factory.hpp:77] Creating layer Convolution11
I1022 21:09:53.833623  3959 net.cpp:84] Creating Layer Convolution11
I1022 21:09:53.833626  3959 net.cpp:406] Convolution11 <- Eltwise4_penlu9_0_split_0
I1022 21:09:53.833631  3959 net.cpp:380] Convolution11 -> Convolution11
I1022 21:09:53.834810  3959 net.cpp:122] Setting up Convolution11
I1022 21:09:53.834820  3959 net.cpp:129] Top shape: 8 32 112 112 (3211264)
I1022 21:09:53.834821  3959 net.cpp:137] Memory required for data: 1199407200
I1022 21:09:53.834826  3959 layer_factory.hpp:77] Creating layer BatchNorm11
I1022 21:09:53.834831  3959 net.cpp:84] Creating Layer BatchNorm11
I1022 21:09:53.834834  3959 net.cpp:406] BatchNorm11 <- Convolution11
I1022 21:09:53.834838  3959 net.cpp:367] BatchNorm11 -> Convolution11 (in-place)
I1022 21:09:53.834997  3959 net.cpp:122] Setting up BatchNorm11
I1022 21:09:53.835002  3959 net.cpp:129] Top shape: 8 32 112 112 (3211264)
I1022 21:09:53.835005  3959 net.cpp:137] Memory required for data: 1212252256
I1022 21:09:53.835009  3959 layer_factory.hpp:77] Creating layer Scale11
I1022 21:09:53.835012  3959 net.cpp:84] Creating Layer Scale11
I1022 21:09:53.835016  3959 net.cpp:406] Scale11 <- Convolution11
I1022 21:09:53.835018  3959 net.cpp:367] Scale11 -> Convolution11 (in-place)
I1022 21:09:53.835048  3959 layer_factory.hpp:77] Creating layer Scale11
I1022 21:09:53.835142  3959 net.cpp:122] Setting up Scale11
I1022 21:09:53.835147  3959 net.cpp:129] Top shape: 8 32 112 112 (3211264)
I1022 21:09:53.835150  3959 net.cpp:137] Memory required for data: 1225097312
I1022 21:09:53.835153  3959 layer_factory.hpp:77] Creating layer penlu10
I1022 21:09:53.835158  3959 net.cpp:84] Creating Layer penlu10
I1022 21:09:53.835161  3959 net.cpp:406] penlu10 <- Convolution11
I1022 21:09:53.835165  3959 net.cpp:367] penlu10 -> Convolution11 (in-place)
I1022 21:09:53.836035  3959 net.cpp:122] Setting up penlu10
I1022 21:09:53.836045  3959 net.cpp:129] Top shape: 8 32 112 112 (3211264)
I1022 21:09:53.836046  3959 net.cpp:137] Memory required for data: 1237942368
I1022 21:09:53.836051  3959 layer_factory.hpp:77] Creating layer Convolution12
I1022 21:09:53.836058  3959 net.cpp:84] Creating Layer Convolution12
I1022 21:09:53.836069  3959 net.cpp:406] Convolution12 <- Convolution11
I1022 21:09:53.836076  3959 net.cpp:380] Convolution12 -> Convolution12
I1022 21:09:53.836871  3959 net.cpp:122] Setting up Convolution12
I1022 21:09:53.836879  3959 net.cpp:129] Top shape: 8 32 112 112 (3211264)
I1022 21:09:53.836881  3959 net.cpp:137] Memory required for data: 1250787424
I1022 21:09:53.836885  3959 layer_factory.hpp:77] Creating layer BatchNorm12
I1022 21:09:53.836890  3959 net.cpp:84] Creating Layer BatchNorm12
I1022 21:09:53.836894  3959 net.cpp:406] BatchNorm12 <- Convolution12
I1022 21:09:53.836896  3959 net.cpp:367] BatchNorm12 -> Convolution12 (in-place)
I1022 21:09:53.837057  3959 net.cpp:122] Setting up BatchNorm12
I1022 21:09:53.837061  3959 net.cpp:129] Top shape: 8 32 112 112 (3211264)
I1022 21:09:53.837064  3959 net.cpp:137] Memory required for data: 1263632480
I1022 21:09:53.837069  3959 layer_factory.hpp:77] Creating layer Scale12
I1022 21:09:53.837072  3959 net.cpp:84] Creating Layer Scale12
I1022 21:09:53.837075  3959 net.cpp:406] Scale12 <- Convolution12
I1022 21:09:53.837080  3959 net.cpp:367] Scale12 -> Convolution12 (in-place)
I1022 21:09:53.837110  3959 layer_factory.hpp:77] Creating layer Scale12
I1022 21:09:53.837208  3959 net.cpp:122] Setting up Scale12
I1022 21:09:53.837213  3959 net.cpp:129] Top shape: 8 32 112 112 (3211264)
I1022 21:09:53.837215  3959 net.cpp:137] Memory required for data: 1276477536
I1022 21:09:53.837219  3959 layer_factory.hpp:77] Creating layer Eltwise5
I1022 21:09:53.837224  3959 net.cpp:84] Creating Layer Eltwise5
I1022 21:09:53.837226  3959 net.cpp:406] Eltwise5 <- Eltwise4_penlu9_0_split_1
I1022 21:09:53.837229  3959 net.cpp:406] Eltwise5 <- Convolution12
I1022 21:09:53.837232  3959 net.cpp:380] Eltwise5 -> Eltwise5
I1022 21:09:53.837251  3959 net.cpp:122] Setting up Eltwise5
I1022 21:09:53.837255  3959 net.cpp:129] Top shape: 8 32 112 112 (3211264)
I1022 21:09:53.837256  3959 net.cpp:137] Memory required for data: 1289322592
I1022 21:09:53.837258  3959 layer_factory.hpp:77] Creating layer penlu11
I1022 21:09:53.837265  3959 net.cpp:84] Creating Layer penlu11
I1022 21:09:53.837266  3959 net.cpp:406] penlu11 <- Eltwise5
I1022 21:09:53.837270  3959 net.cpp:367] penlu11 -> Eltwise5 (in-place)
I1022 21:09:53.838124  3959 net.cpp:122] Setting up penlu11
I1022 21:09:53.838131  3959 net.cpp:129] Top shape: 8 32 112 112 (3211264)
I1022 21:09:53.838135  3959 net.cpp:137] Memory required for data: 1302167648
I1022 21:09:53.838140  3959 layer_factory.hpp:77] Creating layer Eltwise5_penlu11_0_split
I1022 21:09:53.838143  3959 net.cpp:84] Creating Layer Eltwise5_penlu11_0_split
I1022 21:09:53.838145  3959 net.cpp:406] Eltwise5_penlu11_0_split <- Eltwise5
I1022 21:09:53.838150  3959 net.cpp:380] Eltwise5_penlu11_0_split -> Eltwise5_penlu11_0_split_0
I1022 21:09:53.838153  3959 net.cpp:380] Eltwise5_penlu11_0_split -> Eltwise5_penlu11_0_split_1
I1022 21:09:53.838186  3959 net.cpp:122] Setting up Eltwise5_penlu11_0_split
I1022 21:09:53.838189  3959 net.cpp:129] Top shape: 8 32 112 112 (3211264)
I1022 21:09:53.838193  3959 net.cpp:129] Top shape: 8 32 112 112 (3211264)
I1022 21:09:53.838196  3959 net.cpp:137] Memory required for data: 1327857760
I1022 21:09:53.838197  3959 layer_factory.hpp:77] Creating layer Convolution13
I1022 21:09:53.838204  3959 net.cpp:84] Creating Layer Convolution13
I1022 21:09:53.838207  3959 net.cpp:406] Convolution13 <- Eltwise5_penlu11_0_split_0
I1022 21:09:53.838212  3959 net.cpp:380] Convolution13 -> Convolution13
I1022 21:09:53.839380  3959 net.cpp:122] Setting up Convolution13
I1022 21:09:53.839387  3959 net.cpp:129] Top shape: 8 32 112 112 (3211264)
I1022 21:09:53.839390  3959 net.cpp:137] Memory required for data: 1340702816
I1022 21:09:53.839395  3959 layer_factory.hpp:77] Creating layer BatchNorm13
I1022 21:09:53.839401  3959 net.cpp:84] Creating Layer BatchNorm13
I1022 21:09:53.839403  3959 net.cpp:406] BatchNorm13 <- Convolution13
I1022 21:09:53.839407  3959 net.cpp:367] BatchNorm13 -> Convolution13 (in-place)
I1022 21:09:53.839568  3959 net.cpp:122] Setting up BatchNorm13
I1022 21:09:53.839581  3959 net.cpp:129] Top shape: 8 32 112 112 (3211264)
I1022 21:09:53.839583  3959 net.cpp:137] Memory required for data: 1353547872
I1022 21:09:53.839588  3959 layer_factory.hpp:77] Creating layer Scale13
I1022 21:09:53.839593  3959 net.cpp:84] Creating Layer Scale13
I1022 21:09:53.839596  3959 net.cpp:406] Scale13 <- Convolution13
I1022 21:09:53.839599  3959 net.cpp:367] Scale13 -> Convolution13 (in-place)
I1022 21:09:53.839633  3959 layer_factory.hpp:77] Creating layer Scale13
I1022 21:09:53.839735  3959 net.cpp:122] Setting up Scale13
I1022 21:09:53.839740  3959 net.cpp:129] Top shape: 8 32 112 112 (3211264)
I1022 21:09:53.839741  3959 net.cpp:137] Memory required for data: 1366392928
I1022 21:09:53.839745  3959 layer_factory.hpp:77] Creating layer penlu12
I1022 21:09:53.839751  3959 net.cpp:84] Creating Layer penlu12
I1022 21:09:53.839753  3959 net.cpp:406] penlu12 <- Convolution13
I1022 21:09:53.839757  3959 net.cpp:367] penlu12 -> Convolution13 (in-place)
I1022 21:09:53.840642  3959 net.cpp:122] Setting up penlu12
I1022 21:09:53.840651  3959 net.cpp:129] Top shape: 8 32 112 112 (3211264)
I1022 21:09:53.840653  3959 net.cpp:137] Memory required for data: 1379237984
I1022 21:09:53.840658  3959 layer_factory.hpp:77] Creating layer Convolution14
I1022 21:09:53.840669  3959 net.cpp:84] Creating Layer Convolution14
I1022 21:09:53.840672  3959 net.cpp:406] Convolution14 <- Convolution13
I1022 21:09:53.840677  3959 net.cpp:380] Convolution14 -> Convolution14
I1022 21:09:53.841858  3959 net.cpp:122] Setting up Convolution14
I1022 21:09:53.841867  3959 net.cpp:129] Top shape: 8 32 112 112 (3211264)
I1022 21:09:53.841871  3959 net.cpp:137] Memory required for data: 1392083040
I1022 21:09:53.841887  3959 layer_factory.hpp:77] Creating layer BatchNorm14
I1022 21:09:53.841892  3959 net.cpp:84] Creating Layer BatchNorm14
I1022 21:09:53.841894  3959 net.cpp:406] BatchNorm14 <- Convolution14
I1022 21:09:53.841899  3959 net.cpp:367] BatchNorm14 -> Convolution14 (in-place)
I1022 21:09:53.842063  3959 net.cpp:122] Setting up BatchNorm14
I1022 21:09:53.842067  3959 net.cpp:129] Top shape: 8 32 112 112 (3211264)
I1022 21:09:53.842070  3959 net.cpp:137] Memory required for data: 1404928096
I1022 21:09:53.842075  3959 layer_factory.hpp:77] Creating layer Scale14
I1022 21:09:53.842079  3959 net.cpp:84] Creating Layer Scale14
I1022 21:09:53.842082  3959 net.cpp:406] Scale14 <- Convolution14
I1022 21:09:53.842085  3959 net.cpp:367] Scale14 -> Convolution14 (in-place)
I1022 21:09:53.842116  3959 layer_factory.hpp:77] Creating layer Scale14
I1022 21:09:53.842216  3959 net.cpp:122] Setting up Scale14
I1022 21:09:53.842221  3959 net.cpp:129] Top shape: 8 32 112 112 (3211264)
I1022 21:09:53.842223  3959 net.cpp:137] Memory required for data: 1417773152
I1022 21:09:53.842226  3959 layer_factory.hpp:77] Creating layer Eltwise6
I1022 21:09:53.842231  3959 net.cpp:84] Creating Layer Eltwise6
I1022 21:09:53.842234  3959 net.cpp:406] Eltwise6 <- Eltwise5_penlu11_0_split_1
I1022 21:09:53.842237  3959 net.cpp:406] Eltwise6 <- Convolution14
I1022 21:09:53.842241  3959 net.cpp:380] Eltwise6 -> Eltwise6
I1022 21:09:53.842259  3959 net.cpp:122] Setting up Eltwise6
I1022 21:09:53.842262  3959 net.cpp:129] Top shape: 8 32 112 112 (3211264)
I1022 21:09:53.842264  3959 net.cpp:137] Memory required for data: 1430618208
I1022 21:09:53.842267  3959 layer_factory.hpp:77] Creating layer penlu13
I1022 21:09:53.842273  3959 net.cpp:84] Creating Layer penlu13
I1022 21:09:53.842275  3959 net.cpp:406] penlu13 <- Eltwise6
I1022 21:09:53.842279  3959 net.cpp:367] penlu13 -> Eltwise6 (in-place)
I1022 21:09:53.843127  3959 net.cpp:122] Setting up penlu13
I1022 21:09:53.843135  3959 net.cpp:129] Top shape: 8 32 112 112 (3211264)
I1022 21:09:53.843137  3959 net.cpp:137] Memory required for data: 1443463264
I1022 21:09:53.843142  3959 layer_factory.hpp:77] Creating layer Eltwise6_penlu13_0_split
I1022 21:09:53.843148  3959 net.cpp:84] Creating Layer Eltwise6_penlu13_0_split
I1022 21:09:53.843152  3959 net.cpp:406] Eltwise6_penlu13_0_split <- Eltwise6
I1022 21:09:53.843165  3959 net.cpp:380] Eltwise6_penlu13_0_split -> Eltwise6_penlu13_0_split_0
I1022 21:09:53.843170  3959 net.cpp:380] Eltwise6_penlu13_0_split -> Eltwise6_penlu13_0_split_1
I1022 21:09:53.843201  3959 net.cpp:122] Setting up Eltwise6_penlu13_0_split
I1022 21:09:53.843205  3959 net.cpp:129] Top shape: 8 32 112 112 (3211264)
I1022 21:09:53.843209  3959 net.cpp:129] Top shape: 8 32 112 112 (3211264)
I1022 21:09:53.843210  3959 net.cpp:137] Memory required for data: 1469153376
I1022 21:09:53.843212  3959 layer_factory.hpp:77] Creating layer Convolution15
I1022 21:09:53.843219  3959 net.cpp:84] Creating Layer Convolution15
I1022 21:09:53.843221  3959 net.cpp:406] Convolution15 <- Eltwise6_penlu13_0_split_0
I1022 21:09:53.843225  3959 net.cpp:380] Convolution15 -> Convolution15
I1022 21:09:53.844274  3959 net.cpp:122] Setting up Convolution15
I1022 21:09:53.844283  3959 net.cpp:129] Top shape: 8 64 56 56 (1605632)
I1022 21:09:53.844285  3959 net.cpp:137] Memory required for data: 1475575904
I1022 21:09:53.844290  3959 layer_factory.hpp:77] Creating layer BatchNorm15
I1022 21:09:53.844295  3959 net.cpp:84] Creating Layer BatchNorm15
I1022 21:09:53.844298  3959 net.cpp:406] BatchNorm15 <- Convolution15
I1022 21:09:53.844302  3959 net.cpp:367] BatchNorm15 -> Convolution15 (in-place)
I1022 21:09:53.844465  3959 net.cpp:122] Setting up BatchNorm15
I1022 21:09:53.844470  3959 net.cpp:129] Top shape: 8 64 56 56 (1605632)
I1022 21:09:53.844471  3959 net.cpp:137] Memory required for data: 1481998432
I1022 21:09:53.844476  3959 layer_factory.hpp:77] Creating layer Scale15
I1022 21:09:53.844480  3959 net.cpp:84] Creating Layer Scale15
I1022 21:09:53.844482  3959 net.cpp:406] Scale15 <- Convolution15
I1022 21:09:53.844485  3959 net.cpp:367] Scale15 -> Convolution15 (in-place)
I1022 21:09:53.844516  3959 layer_factory.hpp:77] Creating layer Scale15
I1022 21:09:53.844612  3959 net.cpp:122] Setting up Scale15
I1022 21:09:53.844616  3959 net.cpp:129] Top shape: 8 64 56 56 (1605632)
I1022 21:09:53.844619  3959 net.cpp:137] Memory required for data: 1488420960
I1022 21:09:53.844622  3959 layer_factory.hpp:77] Creating layer Convolution16
I1022 21:09:53.844630  3959 net.cpp:84] Creating Layer Convolution16
I1022 21:09:53.844632  3959 net.cpp:406] Convolution16 <- Eltwise6_penlu13_0_split_1
I1022 21:09:53.844637  3959 net.cpp:380] Convolution16 -> Convolution16
I1022 21:09:53.846012  3959 net.cpp:122] Setting up Convolution16
I1022 21:09:53.846021  3959 net.cpp:129] Top shape: 8 64 56 56 (1605632)
I1022 21:09:53.846024  3959 net.cpp:137] Memory required for data: 1494843488
I1022 21:09:53.846029  3959 layer_factory.hpp:77] Creating layer BatchNorm16
I1022 21:09:53.846032  3959 net.cpp:84] Creating Layer BatchNorm16
I1022 21:09:53.846035  3959 net.cpp:406] BatchNorm16 <- Convolution16
I1022 21:09:53.846040  3959 net.cpp:367] BatchNorm16 -> Convolution16 (in-place)
I1022 21:09:53.846199  3959 net.cpp:122] Setting up BatchNorm16
I1022 21:09:53.846204  3959 net.cpp:129] Top shape: 8 64 56 56 (1605632)
I1022 21:09:53.846206  3959 net.cpp:137] Memory required for data: 1501266016
I1022 21:09:53.846210  3959 layer_factory.hpp:77] Creating layer Scale16
I1022 21:09:53.846215  3959 net.cpp:84] Creating Layer Scale16
I1022 21:09:53.846217  3959 net.cpp:406] Scale16 <- Convolution16
I1022 21:09:53.846221  3959 net.cpp:367] Scale16 -> Convolution16 (in-place)
I1022 21:09:53.846251  3959 layer_factory.hpp:77] Creating layer Scale16
I1022 21:09:53.846344  3959 net.cpp:122] Setting up Scale16
I1022 21:09:53.846349  3959 net.cpp:129] Top shape: 8 64 56 56 (1605632)
I1022 21:09:53.846351  3959 net.cpp:137] Memory required for data: 1507688544
I1022 21:09:53.846355  3959 layer_factory.hpp:77] Creating layer penlu14
I1022 21:09:53.846360  3959 net.cpp:84] Creating Layer penlu14
I1022 21:09:53.846364  3959 net.cpp:406] penlu14 <- Convolution16
I1022 21:09:53.846367  3959 net.cpp:367] penlu14 -> Convolution16 (in-place)
I1022 21:09:53.847129  3959 net.cpp:122] Setting up penlu14
I1022 21:09:53.847138  3959 net.cpp:129] Top shape: 8 64 56 56 (1605632)
I1022 21:09:53.847148  3959 net.cpp:137] Memory required for data: 1514111072
I1022 21:09:53.847153  3959 layer_factory.hpp:77] Creating layer Convolution17
I1022 21:09:53.847162  3959 net.cpp:84] Creating Layer Convolution17
I1022 21:09:53.847164  3959 net.cpp:406] Convolution17 <- Convolution16
I1022 21:09:53.847168  3959 net.cpp:380] Convolution17 -> Convolution17
I1022 21:09:53.849565  3959 net.cpp:122] Setting up Convolution17
I1022 21:09:53.849575  3959 net.cpp:129] Top shape: 8 64 56 56 (1605632)
I1022 21:09:53.849577  3959 net.cpp:137] Memory required for data: 1520533600
I1022 21:09:53.849582  3959 layer_factory.hpp:77] Creating layer BatchNorm17
I1022 21:09:53.849587  3959 net.cpp:84] Creating Layer BatchNorm17
I1022 21:09:53.849591  3959 net.cpp:406] BatchNorm17 <- Convolution17
I1022 21:09:53.849594  3959 net.cpp:367] BatchNorm17 -> Convolution17 (in-place)
I1022 21:09:53.849756  3959 net.cpp:122] Setting up BatchNorm17
I1022 21:09:53.849761  3959 net.cpp:129] Top shape: 8 64 56 56 (1605632)
I1022 21:09:53.849763  3959 net.cpp:137] Memory required for data: 1526956128
I1022 21:09:53.849768  3959 layer_factory.hpp:77] Creating layer Scale17
I1022 21:09:53.849773  3959 net.cpp:84] Creating Layer Scale17
I1022 21:09:53.849776  3959 net.cpp:406] Scale17 <- Convolution17
I1022 21:09:53.849778  3959 net.cpp:367] Scale17 -> Convolution17 (in-place)
I1022 21:09:53.849810  3959 layer_factory.hpp:77] Creating layer Scale17
I1022 21:09:53.849910  3959 net.cpp:122] Setting up Scale17
I1022 21:09:53.849913  3959 net.cpp:129] Top shape: 8 64 56 56 (1605632)
I1022 21:09:53.849915  3959 net.cpp:137] Memory required for data: 1533378656
I1022 21:09:53.849920  3959 layer_factory.hpp:77] Creating layer Eltwise7
I1022 21:09:53.849925  3959 net.cpp:84] Creating Layer Eltwise7
I1022 21:09:53.849927  3959 net.cpp:406] Eltwise7 <- Convolution15
I1022 21:09:53.849931  3959 net.cpp:406] Eltwise7 <- Convolution17
I1022 21:09:53.849933  3959 net.cpp:380] Eltwise7 -> Eltwise7
I1022 21:09:53.849952  3959 net.cpp:122] Setting up Eltwise7
I1022 21:09:53.849956  3959 net.cpp:129] Top shape: 8 64 56 56 (1605632)
I1022 21:09:53.849958  3959 net.cpp:137] Memory required for data: 1539801184
I1022 21:09:53.849961  3959 layer_factory.hpp:77] Creating layer penlu15
I1022 21:09:53.849967  3959 net.cpp:84] Creating Layer penlu15
I1022 21:09:53.849968  3959 net.cpp:406] penlu15 <- Eltwise7
I1022 21:09:53.849972  3959 net.cpp:367] penlu15 -> Eltwise7 (in-place)
I1022 21:09:53.850213  3959 net.cpp:122] Setting up penlu15
I1022 21:09:53.850217  3959 net.cpp:129] Top shape: 8 64 56 56 (1605632)
I1022 21:09:53.850219  3959 net.cpp:137] Memory required for data: 1546223712
I1022 21:09:53.850224  3959 layer_factory.hpp:77] Creating layer Eltwise7_penlu15_0_split
I1022 21:09:53.850229  3959 net.cpp:84] Creating Layer Eltwise7_penlu15_0_split
I1022 21:09:53.850230  3959 net.cpp:406] Eltwise7_penlu15_0_split <- Eltwise7
I1022 21:09:53.850234  3959 net.cpp:380] Eltwise7_penlu15_0_split -> Eltwise7_penlu15_0_split_0
I1022 21:09:53.850237  3959 net.cpp:380] Eltwise7_penlu15_0_split -> Eltwise7_penlu15_0_split_1
I1022 21:09:53.850266  3959 net.cpp:122] Setting up Eltwise7_penlu15_0_split
I1022 21:09:53.850270  3959 net.cpp:129] Top shape: 8 64 56 56 (1605632)
I1022 21:09:53.850273  3959 net.cpp:129] Top shape: 8 64 56 56 (1605632)
I1022 21:09:53.850275  3959 net.cpp:137] Memory required for data: 1559068768
I1022 21:09:53.850277  3959 layer_factory.hpp:77] Creating layer Convolution18
I1022 21:09:53.850283  3959 net.cpp:84] Creating Layer Convolution18
I1022 21:09:53.850286  3959 net.cpp:406] Convolution18 <- Eltwise7_penlu15_0_split_0
I1022 21:09:53.850291  3959 net.cpp:380] Convolution18 -> Convolution18
I1022 21:09:53.852841  3959 net.cpp:122] Setting up Convolution18
I1022 21:09:53.855945  3959 net.cpp:129] Top shape: 8 64 56 56 (1605632)
I1022 21:09:53.855949  3959 net.cpp:137] Memory required for data: 1565491296
I1022 21:09:53.855955  3959 layer_factory.hpp:77] Creating layer BatchNorm18
I1022 21:09:53.855974  3959 net.cpp:84] Creating Layer BatchNorm18
I1022 21:09:53.855984  3959 net.cpp:406] BatchNorm18 <- Convolution18
I1022 21:09:53.855990  3959 net.cpp:367] BatchNorm18 -> Convolution18 (in-place)
I1022 21:09:53.856171  3959 net.cpp:122] Setting up BatchNorm18
I1022 21:09:53.856178  3959 net.cpp:129] Top shape: 8 64 56 56 (1605632)
I1022 21:09:53.856179  3959 net.cpp:137] Memory required for data: 1571913824
I1022 21:09:53.856185  3959 layer_factory.hpp:77] Creating layer Scale18
I1022 21:09:53.856190  3959 net.cpp:84] Creating Layer Scale18
I1022 21:09:53.856192  3959 net.cpp:406] Scale18 <- Convolution18
I1022 21:09:53.856196  3959 net.cpp:367] Scale18 -> Convolution18 (in-place)
I1022 21:09:53.856230  3959 layer_factory.hpp:77] Creating layer Scale18
I1022 21:09:53.856338  3959 net.cpp:122] Setting up Scale18
I1022 21:09:53.856343  3959 net.cpp:129] Top shape: 8 64 56 56 (1605632)
I1022 21:09:53.856344  3959 net.cpp:137] Memory required for data: 1578336352
I1022 21:09:53.856349  3959 layer_factory.hpp:77] Creating layer penlu16
I1022 21:09:53.856354  3959 net.cpp:84] Creating Layer penlu16
I1022 21:09:53.856357  3959 net.cpp:406] penlu16 <- Convolution18
I1022 21:09:53.856361  3959 net.cpp:367] penlu16 -> Convolution18 (in-place)
I1022 21:09:53.857164  3959 net.cpp:122] Setting up penlu16
I1022 21:09:53.857172  3959 net.cpp:129] Top shape: 8 64 56 56 (1605632)
I1022 21:09:53.857175  3959 net.cpp:137] Memory required for data: 1584758880
I1022 21:09:53.857179  3959 layer_factory.hpp:77] Creating layer Convolution19
I1022 21:09:53.857187  3959 net.cpp:84] Creating Layer Convolution19
I1022 21:09:53.857188  3959 net.cpp:406] Convolution19 <- Convolution18
I1022 21:09:53.857194  3959 net.cpp:380] Convolution19 -> Convolution19
I1022 21:09:53.859268  3959 net.cpp:122] Setting up Convolution19
I1022 21:09:53.859278  3959 net.cpp:129] Top shape: 8 64 56 56 (1605632)
I1022 21:09:53.859282  3959 net.cpp:137] Memory required for data: 1591181408
I1022 21:09:53.859287  3959 layer_factory.hpp:77] Creating layer BatchNorm19
I1022 21:09:53.859292  3959 net.cpp:84] Creating Layer BatchNorm19
I1022 21:09:53.859293  3959 net.cpp:406] BatchNorm19 <- Convolution19
I1022 21:09:53.859298  3959 net.cpp:367] BatchNorm19 -> Convolution19 (in-place)
I1022 21:09:53.859465  3959 net.cpp:122] Setting up BatchNorm19
I1022 21:09:53.859470  3959 net.cpp:129] Top shape: 8 64 56 56 (1605632)
I1022 21:09:53.859472  3959 net.cpp:137] Memory required for data: 1597603936
I1022 21:09:53.859477  3959 layer_factory.hpp:77] Creating layer Scale19
I1022 21:09:53.859482  3959 net.cpp:84] Creating Layer Scale19
I1022 21:09:53.859484  3959 net.cpp:406] Scale19 <- Convolution19
I1022 21:09:53.859488  3959 net.cpp:367] Scale19 -> Convolution19 (in-place)
I1022 21:09:53.859520  3959 layer_factory.hpp:77] Creating layer Scale19
I1022 21:09:53.859629  3959 net.cpp:122] Setting up Scale19
I1022 21:09:53.859634  3959 net.cpp:129] Top shape: 8 64 56 56 (1605632)
I1022 21:09:53.859637  3959 net.cpp:137] Memory required for data: 1604026464
I1022 21:09:53.859642  3959 layer_factory.hpp:77] Creating layer Eltwise8
I1022 21:09:53.859645  3959 net.cpp:84] Creating Layer Eltwise8
I1022 21:09:53.859648  3959 net.cpp:406] Eltwise8 <- Eltwise7_penlu15_0_split_1
I1022 21:09:53.859650  3959 net.cpp:406] Eltwise8 <- Convolution19
I1022 21:09:53.859654  3959 net.cpp:380] Eltwise8 -> Eltwise8
I1022 21:09:53.859674  3959 net.cpp:122] Setting up Eltwise8
I1022 21:09:53.859679  3959 net.cpp:129] Top shape: 8 64 56 56 (1605632)
I1022 21:09:53.859681  3959 net.cpp:137] Memory required for data: 1610448992
I1022 21:09:53.859683  3959 layer_factory.hpp:77] Creating layer penlu17
I1022 21:09:53.859688  3959 net.cpp:84] Creating Layer penlu17
I1022 21:09:53.859691  3959 net.cpp:406] penlu17 <- Eltwise8
I1022 21:09:53.859695  3959 net.cpp:367] penlu17 -> Eltwise8 (in-place)
I1022 21:09:53.859947  3959 net.cpp:122] Setting up penlu17
I1022 21:09:53.859952  3959 net.cpp:129] Top shape: 8 64 56 56 (1605632)
I1022 21:09:53.859954  3959 net.cpp:137] Memory required for data: 1616871520
I1022 21:09:53.859966  3959 layer_factory.hpp:77] Creating layer Eltwise8_penlu17_0_split
I1022 21:09:53.859978  3959 net.cpp:84] Creating Layer Eltwise8_penlu17_0_split
I1022 21:09:53.859982  3959 net.cpp:406] Eltwise8_penlu17_0_split <- Eltwise8
I1022 21:09:53.859984  3959 net.cpp:380] Eltwise8_penlu17_0_split -> Eltwise8_penlu17_0_split_0
I1022 21:09:53.859998  3959 net.cpp:380] Eltwise8_penlu17_0_split -> Eltwise8_penlu17_0_split_1
I1022 21:09:53.860028  3959 net.cpp:122] Setting up Eltwise8_penlu17_0_split
I1022 21:09:53.860033  3959 net.cpp:129] Top shape: 8 64 56 56 (1605632)
I1022 21:09:53.860036  3959 net.cpp:129] Top shape: 8 64 56 56 (1605632)
I1022 21:09:53.860038  3959 net.cpp:137] Memory required for data: 1629716576
I1022 21:09:53.860040  3959 layer_factory.hpp:77] Creating layer Convolution20
I1022 21:09:53.860046  3959 net.cpp:84] Creating Layer Convolution20
I1022 21:09:53.860049  3959 net.cpp:406] Convolution20 <- Eltwise8_penlu17_0_split_0
I1022 21:09:53.860054  3959 net.cpp:380] Convolution20 -> Convolution20
I1022 21:09:53.862241  3959 net.cpp:122] Setting up Convolution20
I1022 21:09:53.862248  3959 net.cpp:129] Top shape: 8 64 56 56 (1605632)
I1022 21:09:53.862251  3959 net.cpp:137] Memory required for data: 1636139104
I1022 21:09:53.862257  3959 layer_factory.hpp:77] Creating layer BatchNorm20
I1022 21:09:53.862262  3959 net.cpp:84] Creating Layer BatchNorm20
I1022 21:09:53.862264  3959 net.cpp:406] BatchNorm20 <- Convolution20
I1022 21:09:53.862268  3959 net.cpp:367] BatchNorm20 -> Convolution20 (in-place)
I1022 21:09:53.862439  3959 net.cpp:122] Setting up BatchNorm20
I1022 21:09:53.862444  3959 net.cpp:129] Top shape: 8 64 56 56 (1605632)
I1022 21:09:53.862447  3959 net.cpp:137] Memory required for data: 1642561632
I1022 21:09:53.862452  3959 layer_factory.hpp:77] Creating layer Scale20
I1022 21:09:53.862457  3959 net.cpp:84] Creating Layer Scale20
I1022 21:09:53.862458  3959 net.cpp:406] Scale20 <- Convolution20
I1022 21:09:53.862462  3959 net.cpp:367] Scale20 -> Convolution20 (in-place)
I1022 21:09:53.862494  3959 layer_factory.hpp:77] Creating layer Scale20
I1022 21:09:53.862597  3959 net.cpp:122] Setting up Scale20
I1022 21:09:53.862602  3959 net.cpp:129] Top shape: 8 64 56 56 (1605632)
I1022 21:09:53.862604  3959 net.cpp:137] Memory required for data: 1648984160
I1022 21:09:53.862608  3959 layer_factory.hpp:77] Creating layer penlu18
I1022 21:09:53.862614  3959 net.cpp:84] Creating Layer penlu18
I1022 21:09:53.862617  3959 net.cpp:406] penlu18 <- Convolution20
I1022 21:09:53.862620  3959 net.cpp:367] penlu18 -> Convolution20 (in-place)
I1022 21:09:53.863400  3959 net.cpp:122] Setting up penlu18
I1022 21:09:53.863409  3959 net.cpp:129] Top shape: 8 64 56 56 (1605632)
I1022 21:09:53.863411  3959 net.cpp:137] Memory required for data: 1655406688
I1022 21:09:53.863416  3959 layer_factory.hpp:77] Creating layer Convolution21
I1022 21:09:53.863423  3959 net.cpp:84] Creating Layer Convolution21
I1022 21:09:53.863425  3959 net.cpp:406] Convolution21 <- Convolution20
I1022 21:09:53.863432  3959 net.cpp:380] Convolution21 -> Convolution21
I1022 21:09:53.865245  3959 net.cpp:122] Setting up Convolution21
I1022 21:09:53.865254  3959 net.cpp:129] Top shape: 8 64 56 56 (1605632)
I1022 21:09:53.865257  3959 net.cpp:137] Memory required for data: 1661829216
I1022 21:09:53.865262  3959 layer_factory.hpp:77] Creating layer BatchNorm21
I1022 21:09:53.865267  3959 net.cpp:84] Creating Layer BatchNorm21
I1022 21:09:53.865269  3959 net.cpp:406] BatchNorm21 <- Convolution21
I1022 21:09:53.865273  3959 net.cpp:367] BatchNorm21 -> Convolution21 (in-place)
I1022 21:09:53.865440  3959 net.cpp:122] Setting up BatchNorm21
I1022 21:09:53.865445  3959 net.cpp:129] Top shape: 8 64 56 56 (1605632)
I1022 21:09:53.865447  3959 net.cpp:137] Memory required for data: 1668251744
I1022 21:09:53.865453  3959 layer_factory.hpp:77] Creating layer Scale21
I1022 21:09:53.865456  3959 net.cpp:84] Creating Layer Scale21
I1022 21:09:53.865459  3959 net.cpp:406] Scale21 <- Convolution21
I1022 21:09:53.865463  3959 net.cpp:367] Scale21 -> Convolution21 (in-place)
I1022 21:09:53.865495  3959 layer_factory.hpp:77] Creating layer Scale21
I1022 21:09:53.865607  3959 net.cpp:122] Setting up Scale21
I1022 21:09:53.865612  3959 net.cpp:129] Top shape: 8 64 56 56 (1605632)
I1022 21:09:53.865613  3959 net.cpp:137] Memory required for data: 1674674272
I1022 21:09:53.865617  3959 layer_factory.hpp:77] Creating layer Eltwise9
I1022 21:09:53.865622  3959 net.cpp:84] Creating Layer Eltwise9
I1022 21:09:53.865624  3959 net.cpp:406] Eltwise9 <- Eltwise8_penlu17_0_split_1
I1022 21:09:53.865628  3959 net.cpp:406] Eltwise9 <- Convolution21
I1022 21:09:53.865631  3959 net.cpp:380] Eltwise9 -> Eltwise9
I1022 21:09:53.865649  3959 net.cpp:122] Setting up Eltwise9
I1022 21:09:53.865653  3959 net.cpp:129] Top shape: 8 64 56 56 (1605632)
I1022 21:09:53.865655  3959 net.cpp:137] Memory required for data: 1681096800
I1022 21:09:53.865658  3959 layer_factory.hpp:77] Creating layer penlu19
I1022 21:09:53.865664  3959 net.cpp:84] Creating Layer penlu19
I1022 21:09:53.865665  3959 net.cpp:406] penlu19 <- Eltwise9
I1022 21:09:53.865669  3959 net.cpp:367] penlu19 -> Eltwise9 (in-place)
I1022 21:09:53.865887  3959 net.cpp:122] Setting up penlu19
I1022 21:09:53.865892  3959 net.cpp:129] Top shape: 8 64 56 56 (1605632)
I1022 21:09:53.865895  3959 net.cpp:137] Memory required for data: 1687519328
I1022 21:09:53.865900  3959 layer_factory.hpp:77] Creating layer Pooling1
I1022 21:09:53.865903  3959 net.cpp:84] Creating Layer Pooling1
I1022 21:09:53.865906  3959 net.cpp:406] Pooling1 <- Eltwise9
I1022 21:09:53.865909  3959 net.cpp:380] Pooling1 -> Pooling1
I1022 21:09:53.866051  3959 net.cpp:122] Setting up Pooling1
I1022 21:09:53.866058  3959 net.cpp:129] Top shape: 8 64 1 1 (512)
I1022 21:09:53.866060  3959 net.cpp:137] Memory required for data: 1687521376
I1022 21:09:53.866062  3959 layer_factory.hpp:77] Creating layer InnerProduct1
I1022 21:09:53.866067  3959 net.cpp:84] Creating Layer InnerProduct1
I1022 21:09:53.866070  3959 net.cpp:406] InnerProduct1 <- Pooling1
I1022 21:09:53.866075  3959 net.cpp:380] InnerProduct1 -> InnerProduct1
I1022 21:09:53.866184  3959 net.cpp:122] Setting up InnerProduct1
I1022 21:09:53.866189  3959 net.cpp:129] Top shape: 8 10 (80)
I1022 21:09:53.866191  3959 net.cpp:137] Memory required for data: 1687521696
I1022 21:09:53.866195  3959 layer_factory.hpp:77] Creating layer InnerProduct1_InnerProduct1_0_split
I1022 21:09:53.866199  3959 net.cpp:84] Creating Layer InnerProduct1_InnerProduct1_0_split
I1022 21:09:53.866201  3959 net.cpp:406] InnerProduct1_InnerProduct1_0_split <- InnerProduct1
I1022 21:09:53.866205  3959 net.cpp:380] InnerProduct1_InnerProduct1_0_split -> InnerProduct1_InnerProduct1_0_split_0
I1022 21:09:53.866209  3959 net.cpp:380] InnerProduct1_InnerProduct1_0_split -> InnerProduct1_InnerProduct1_0_split_1
I1022 21:09:53.866240  3959 net.cpp:122] Setting up InnerProduct1_InnerProduct1_0_split
I1022 21:09:53.866245  3959 net.cpp:129] Top shape: 8 10 (80)
I1022 21:09:53.866247  3959 net.cpp:129] Top shape: 8 10 (80)
I1022 21:09:53.866250  3959 net.cpp:137] Memory required for data: 1687522336
I1022 21:09:53.866251  3959 layer_factory.hpp:77] Creating layer SoftmaxWithLoss1
I1022 21:09:53.866256  3959 net.cpp:84] Creating Layer SoftmaxWithLoss1
I1022 21:09:53.866258  3959 net.cpp:406] SoftmaxWithLoss1 <- InnerProduct1_InnerProduct1_0_split_0
I1022 21:09:53.866261  3959 net.cpp:406] SoftmaxWithLoss1 <- Data2_Data1_1_split_0
…
