…
I1023 15:05:26.897825  4985 net.cpp:294] The NetState phase (0) differed from the phase (1) specified by a rule in layer Accuracy1
I1023 15:05:26.898217  4985 net.cpp:51] Initializing net from parameters: 
name: "resnet"
state {
  phase: TRAIN
  level: 0
  stage: ""
}
layer {
  name: "Data1"
  type: "Data"
  top: "Data1"
  top: "Data2"
  include {
    phase: TRAIN
  }
  transform_param {
    mirror: true
    crop_size: 224
    mean_file: "/home/x306/caffe/xn/English_orange/data/orange1_mean.binaryproto"
  }
  data_param {
    source: "/home/x306/caffe/xn/English_orange/data/train1_lmdb"
    batch_size: 8
    backend: LMDB
  }
}
layer {
  name: "Convolution1"
  type: "Convolution"
  bottom: "Data1"
  top: "Convolution1"
  param {
    lr_mult: 1
    decay_mult: 1
  }
  param {
    lr_mult: 2
    decay_mult: 0
  }
  convolution_param {
    num_output: 16
    pad: 1
    kernel_size: 3
    stride: 1
    weight_filler {
      type: "gaussian"
      std: 0.118
    }
    bias_filler {
      type: "constant"
      value: 0
    }
  }
}
layer {
  name: "BatchNorm1"
  type: "BatchNorm"
  bottom: "Convolution1"
  top: "Convolution1"
  param {
    lr_mult: 0
    decay_mult: 0
  }
  param {
    lr_mult: 0
    decay_mult: 0
  }
  param {
    lr_mult: 0
    decay_mult: 0
  }
}
layer {
  name: "Scale1"
  type: "Scale"
  bottom: "Convolution1"
  top: "Convolution1"
  scale_param {
    bias_term: true
  }
}
layer {
  name: "PReLU1"
  type: "PReLU"
  bottom: "Convolution1"
  top: "Convolution1"
}
layer {
  name: "Convolution2"
  type: "Convolution"
  bottom: "Convolution1"
  top: "Convolution2"
  param {
    lr_mult: 1
    decay_mult: 1
  }
  param {
    lr_mult: 2
    decay_mult: 0
  }
  convolution_param {
    num_output: 16
    pad: 1
    kernel_size: 3
    stride: 1
    weight_filler {
      type: "gaussian"
      std: 0.118
    }
    bias_filler {
      type: "constant"
      value: 0
    }
  }
}
layer {
  name: "BatchNorm2"
  type: "BatchNorm"
  bottom: "Convolution2"
  top: "Convolution2"
  param {
    lr_mult: 0
    decay_mult: 0
  }
  param {
    lr_mult: 0
    decay_mult: 0
  }
  param {
    lr_mult: 0
    decay_mult: 0
  }
}
layer {
  name: "Scale2"
  type: "Scale"
  bottom: "Convolution2"
  top: "Convolution2"
  scale_param {
    bias_term: true
  }
}
layer {
  name: "PReLU2"
  type: "PReLU"
  bottom: "Convolution2"
  top: "Convolution2"
}
layer {
  name: "Convolution3"
  type: "Convolution"
  bottom: "Convolution2"
  top: "Convolution3"
  param {
    lr_mult: 1
    decay_mult: 1
  }
  param {
    lr_mult: 2
    decay_mult: 0
  }
  convolution_param {
    num_output: 16
    pad: 1
    kernel_size: 3
    stride: 1
    weight_filler {
      type: "gaussian"
      std: 0.118
    }
    bias_filler {
      type: "constant"
      value: 0
    }
  }
}
layer {
  name: "BatchNorm3"
  type: "BatchNorm"
  bottom: "Convolution3"
  top: "Convolution3"
  param {
    lr_mult: 0
    decay_mult: 0
  }
  param {
    lr_mult: 0
    decay_mult: 0
  }
  param {
    lr_mult: 0
    decay_mult: 0
  }
}
layer {
  name: "Scale3"
  type: "Scale"
  bottom: "Convolution3"
  top: "Convolution3"
  scale_param {
    bias_term: true
  }
}
layer {
  name: "Eltwise1"
  type: "Eltwise"
  bottom: "Convolution1"
  bottom: "Convolution3"
  top: "Eltwise1"
  eltwise_param {
    operation: SUM
  }
}
layer {
  name: "PReLU3"
  type: "PReLU"
  bottom: "Eltwise1"
  top: "Eltwise1"
}
layer {
  name: "Convolution4"
  type: "Convolution"
  bottom: "Eltwise1"
  top: "Convolution4"
  param {
    lr_mult: 1
    decay_mult: 1
  }
  param {
    lr_mult: 2
    decay_mult: 0
  }
  convolution_param {
    num_output: 16
    pad: 1
    kernel_size: 3
    stride: 1
    weight_filler {
      type: "gaussian"
      std: 0.118
    }
    bias_filler {
      type: "constant"
      value: 0
    }
  }
}
layer {
  name: "BatchNorm4"
  type: "BatchNorm"
  bottom: "Convolution4"
  top: "Convolution4"
  param {
    lr_mult: 0
    decay_mult: 0
  }
  param {
    lr_mult: 0
    decay_mult: 0
  }
  param {
    lr_mult: 0
    decay_mult: 0
  }
}
layer {
  name: "Scale4"
  type: "Scale"
  bottom: "Convolution4"
  top: "Convolution4"
  scale_param {
    bias_term: true
  }
}
layer {
  name: "PReLU4"
  type: "PReLU"
  bottom: "Convolution4"
  top: "Convolution4"
}
layer {
  name: "Convolution5"
  type: "Convolution"
  bottom: "Convolution4"
  top: "Convolution5"
  param {
    lr_mult: 1
    decay_mult: 1
  }
  param {
    lr_mult: 2
    decay_mult: 0
  }
  convolution_param {
    num_output: 16
    pad: 1
    kernel_size: 3
    stride: 1
    weight_filler {
      type: "gaussian"
      std: 0.118
    }
    bias_filler {
      type: "constant"
      value: 0
    }
  }
}
layer {
  name: "BatchNorm5"
  type: "BatchNorm"
  bottom: "Convolution5"
  top: "Convolution5"
  param {
    lr_mult: 0
    decay_mult: 0
  }
  param {
    lr_mult: 0
    decay_mult: 0
  }
  param {
    lr_mult: 0
    decay_mult: 0
  }
}
layer {
  name: "Scale5"
  type: "Scale"
  bottom: "Convolution5"
  top: "Convolution5"
  scale_param {
    bias_term: true
  }
}
layer {
  name: "Eltwise2"
  type: "Eltwise"
  bottom: "Eltwise1"
  bottom: "Convolution5"
  top: "Eltwise2"
  eltwise_param {
    operation: SUM
  }
}
layer {
  name: "PReLU5"
  type: "PReLU"
  bottom: "Eltwise2"
  top: "Eltwise2"
}
layer {
  name: "Convolution6"
  type: "Convolution"
  bottom: "Eltwise2"
  top: "Convolution6"
  param {
    lr_mult: 1
    decay_mult: 1
  }
  param {
    lr_mult: 2
    decay_mult: 0
  }
  convolution_param {
    num_output: 16
    pad: 1
    kernel_size: 3
    stride: 1
    weight_filler {
      type: "gaussian"
      std: 0.118
    }
    bias_filler {
      type: "constant"
      value: 0
    }
  }
}
layer {
  name: "BatchNorm6"
  type: "BatchNorm"
  bottom: "Convolution6"
  top: "Convolution6"
  param {
    lr_mult: 0
    decay_mult: 0
  }
  param {
    lr_mult: 0
    decay_mult: 0
  }
  param {
    lr_mult: 0
    decay_mult: 0
  }
}
layer {
  name: "Scale6"
  type: "Scale"
  bottom: "Convolution6"
  top: "Convolution6"
  scale_param {
    bias_term: true
  }
}
layer {
  name: "PReLU6"
  type: "PReLU"
  bottom: "Convolution6"
  top: "Convolution6"
}
layer {
  name: "Convolution7"
  type: "Convolution"
  bottom: "Convolution6"
  top: "Convolution7"
  param {
    lr_mult: 1
    decay_mult: 1
  }
  param {
    lr_mult: 2
    decay_mult: 0
  }
  convolution_param {
    num_output: 16
    pad: 1
    kernel_size: 3
    stride: 1
    weight_filler {
      type: "gaussian"
      std: 0.118
    }
    bias_filler {
      type: "constant"
      value: 0
    }
  }
}
layer {
  name: "BatchNorm7"
  type: "BatchNorm"
  bottom: "Convolution7"
  top: "Convolution7"
  param {
    lr_mult: 0
    decay_mult: 0
  }
  param {
    lr_mult: 0
    decay_mult: 0
  }
  param {
    lr_mult: 0
    decay_mult: 0
  }
}
layer {
  name: "Scale7"
  type: "Scale"
  bottom: "Convolution7"
  top: "Convolution7"
  scale_param {
    bias_term: true
  }
}
layer {
  name: "Eltwise3"
  type: "Eltwise"
  bottom: "Eltwise2"
  bottom: "Convolution7"
  top: "Eltwise3"
  eltwise_param {
    operation: SUM
  }
}
layer {
  name: "PReLU7"
  type: "PReLU"
  bottom: "Eltwise3"
  top: "Eltwise3"
}
layer {
  name: "Convolution8"
  type: "Convolution"
  bottom: "Eltwise3"
  top: "Convolution8"
  param {
    lr_mult: 1
    decay_mult: 1
  }
  param {
    lr_mult: 2
    decay_mult: 0
  }
  convolution_param {
    num_output: 32
    pad: 0
    kernel_size: 1
    stride: 2
    weight_filler {
      type: "gaussian"
      std: 0.25
    }
    bias_filler {
      type: "constant"
      value: 0
    }
  }
}
layer {
  name: "BatchNorm8"
  type: "BatchNorm"
  bottom: "Convolution8"
  top: "Convolution8"
  param {
    lr_mult: 0
    decay_mult: 0
  }
  param {
    lr_mult: 0
    decay_mult: 0
  }
  param {
    lr_mult: 0
    decay_mult: 0
  }
}
layer {
  name: "Scale8"
  type: "Scale"
  bottom: "Convolution8"
  top: "Convolution8"
  scale_param {
    bias_term: true
  }
}
layer {
  name: "Convolution9"
  type: "Convolution"
  bottom: "Eltwise3"
  top: "Convolution9"
  param {
    lr_mult: 1
    decay_mult: 1
  }
  param {
    lr_mult: 2
    decay_mult: 0
  }
  convolution_param {
    num_output: 32
    pad: 1
    kernel_size: 3
    stride: 2
    weight_filler {
      type: "gaussian"
      std: 0.083
    }
    bias_filler {
      type: "constant"
      value: 0
    }
  }
}
layer {
  name: "BatchNorm9"
  type: "BatchNorm"
  bottom: "Convolution9"
  top: "Convolution9"
  param {
    lr_mult: 0
    decay_mult: 0
  }
  param {
    lr_mult: 0
    decay_mult: 0
  }
  param {
    lr_mult: 0
    decay_mult: 0
  }
}
layer {
  name: "Scale9"
  type: "Scale"
  bottom: "Convolution9"
  top: "Convolution9"
  scale_param {
    bias_term: true
  }
}
layer {
  name: "PReLU8"
  type: "PReLU"
  bottom: "Convolution9"
  top: "Convolution9"
}
layer {
  name: "Convolution10"
  type: "Convolution"
  bottom: "Convolution9"
  top: "Convolution10"
  param {
    lr_mult: 1
    decay_mult: 1
  }
  param {
    lr_mult: 2
    decay_mult: 0
  }
  convolution_param {
    num_output: 32
    pad: 1
    kernel_size: 3
    stride: 1
    weight_filler {
      type: "gaussian"
      std: 0.083
    }
    bias_filler {
      type: "constant"
      value: 0
    }
  }
}
layer {
  name: "BatchNorm10"
  type: "BatchNorm"
  bottom: "Convolution10"
  top: "Convolution10"
  param {
    lr_mult: 0
    decay_mult: 0
  }
  param {
    lr_mult: 0
    decay_mult: 0
  }
  param {
    lr_mult: 0
    decay_mult: 0
  }
}
layer {
  name: "Scale10"
  type: "Scale"
  bottom: "Convolution10"
  top: "Convolution10"
  scale_param {
    bias_term: true
  }
}
layer {
  name: "Eltwise4"
  type: "Eltwise"
  bottom: "Convolution8"
  bottom: "Convolution10"
  top: "Eltwise4"
  eltwise_param {
    operation: SUM
  }
}
layer {
  name: "PReLU9"
  type: "PReLU"
  bottom: "Eltwise4"
  top: "Eltwise4"
}
layer {
  name: "Convolution11"
  type: "Convolution"
  bottom: "Eltwise4"
  top: "Convolution11"
  param {
    lr_mult: 1
    decay_mult: 1
  }
  param {
    lr_mult: 2
    decay_mult: 0
  }
  convolution_param {
    num_output: 32
    pad: 1
    kernel_size: 3
    stride: 1
    weight_filler {
      type: "gaussian"
      std: 0.083
    }
    bias_filler {
      type: "constant"
      value: 0
    }
  }
}
layer {
  name: "BatchNorm11"
  type: "BatchNorm"
  bottom: "Convolution11"
  top: "Convolution11"
  param {
    lr_mult: 0
    decay_mult: 0
  }
  param {
    lr_mult: 0
    decay_mult: 0
  }
  param {
    lr_mult: 0
    decay_mult: 0
  }
}
layer {
  name: "Scale11"
  type: "Scale"
  bottom: "Convolution11"
  top: "Convolution11"
  scale_param {
    bias_term: true
  }
}
layer {
  name: "PReLU10"
  type: "PReLU"
  bottom: "Convolution11"
  top: "Convolution11"
}
layer {
  name: "Convolution12"
  type: "Convolution"
  bottom: "Convolution11"
  top: "Convolution12"
  param {
    lr_mult: 1
    decay_mult: 1
  }
  param {
    lr_mult: 2
    decay_mult: 0
  }
  convolution_param {
    num_output: 32
    pad: 1
    kernel_size: 3
    stride: 1
    weight_filler {
      type: "gaussian"
      std: 0.083
    }
    bias_filler {
      type: "constant"
      value: 0
    }
  }
}
layer {
  name: "BatchNorm12"
  type: "BatchNorm"
  bottom: "Convolution12"
  top: "Convolution12"
  param {
    lr_mult: 0
    decay_mult: 0
  }
  param {
    lr_mult: 0
    decay_mult: 0
  }
  param {
    lr_mult: 0
    decay_mult: 0
  }
}
layer {
  name: "Scale12"
  type: "Scale"
  bottom: "Convolution12"
  top: "Convolution12"
  scale_param {
    bias_term: true
  }
}
layer {
  name: "Eltwise5"
  type: "Eltwise"
  bottom: "Eltwise4"
  bottom: "Convolution12"
  top: "Eltwise5"
  eltwise_param {
    operation: SUM
  }
}
layer {
  name: "PReLU11"
  type: "PReLU"
  bottom: "Eltwise5"
  top: "Eltwise5"
}
layer {
  name: "Convolution13"
  type: "Convolution"
  bottom: "Eltwise5"
  top: "Convolution13"
  param {
    lr_mult: 1
    decay_mult: 1
  }
  param {
    lr_mult: 2
    decay_mult: 0
  }
  convolution_param {
    num_output: 32
    pad: 1
    kernel_size: 3
    stride: 1
    weight_filler {
      type: "gaussian"
      std: 0.083
    }
    bias_filler {
      type: "constant"
      value: 0
    }
  }
}
layer {
  name: "BatchNorm13"
  type: "BatchNorm"
  bottom: "Convolution13"
  top: "Convolution13"
  param {
    lr_mult: 0
    decay_mult: 0
  }
  param {
    lr_mult: 0
    decay_mult: 0
  }
  param {
    lr_mult: 0
    decay_mult: 0
  }
}
layer {
  name: "Scale13"
  type: "Scale"
  bottom: "Convolution13"
  top: "Convolution13"
  scale_param {
    bias_term: true
  }
}
layer {
  name: "PReLU12"
  type: "PReLU"
  bottom: "Convolution13"
  top: "Convolution13"
}
layer {
  name: "Convolution14"
  type: "Convolution"
  bottom: "Convolution13"
  top: "Convolution14"
  param {
    lr_mult: 1
    decay_mult: 1
  }
  param {
    lr_mult: 2
    decay_mult: 0
  }
  convolution_param {
    num_output: 32
    pad: 1
    kernel_size: 3
    stride: 1
    weight_filler {
      type: "gaussian"
      std: 0.083
    }
    bias_filler {
      type: "constant"
      value: 0
    }
  }
}
layer {
  name: "BatchNorm14"
  type: "BatchNorm"
  bottom: "Convolution14"
  top: "Convolution14"
  param {
    lr_mult: 0
    decay_mult: 0
  }
  param {
    lr_mult: 0
    decay_mult: 0
  }
  param {
    lr_mult: 0
    decay_mult: 0
  }
}
layer {
  name: "Scale14"
  type: "Scale"
  bottom: "Convolution14"
  top: "Convolution14"
  scale_param {
    bias_term: true
  }
}
layer {
  name: "Eltwise6"
  type: "Eltwise"
  bottom: "Eltwise5"
  bottom: "Convolution14"
  top: "Eltwise6"
  eltwise_param {
    operation: SUM
  }
}
layer {
  name: "PReLU13"
  type: "PReLU"
  bottom: "Eltwise6"
  top: "Eltwise6"
}
layer {
  name: "Convolution15"
  type: "Convolution"
  bottom: "Eltwise6"
  top: "Convolution15"
  param {
    lr_mult: 1
    decay_mult: 1
  }
  param {
    lr_mult: 2
    decay_mult: 0
  }
  convolution_param {
    num_output: 64
    pad: 0
    kernel_size: 1
    stride: 2
    weight_filler {
      type: "gaussian"
      std: 0.17677669
    }
    bias_filler {
      type: "constant"
      value: 0
    }
  }
}
layer {
  name: "BatchNorm15"
  type: "BatchNorm"
  bottom: "Convolution15"
  top: "Convolution15"
  param {
    lr_mult: 0
    decay_mult: 0
  }
  param {
    lr_mult: 0
    decay_mult: 0
  }
  param {
    lr_mult: 0
    decay_mult: 0
  }
}
layer {
  name: "Scale15"
  type: "Scale"
  bottom: "Convolution15"
  top: "Convolution15"
  scale_param {
    bias_term: true
  }
}
layer {
  name: "Convolution16"
  type: "Convolution"
  bottom: "Eltwise6"
  top: "Convolution16"
  param {
    lr_mult: 1
    decay_mult: 1
  }
  param {
    lr_mult: 2
    decay_mult: 0
  }
  convolution_param {
    num_output: 64
    pad: 1
    kernel_size: 3
    stride: 2
    weight_filler {
      type: "gaussian"
      std: 0.059
    }
    bias_filler {
      type: "constant"
      value: 0
    }
  }
}
layer {
  name: "BatchNorm16"
  type: "BatchNorm"
  bottom: "Convolution16"
  top: "Convolution16"
  param {
    lr_mult: 0
    decay_mult: 0
  }
  param {
    lr_mult: 0
    decay_mult: 0
  }
  param {
    lr_mult: 0
    decay_mult: 0
  }
}
layer {
  name: "Scale16"
  type: "Scale"
  bottom: "Convolution16"
  top: "Convolution16"
  scale_param {
    bias_term: true
  }
}
layer {
  name: "PReLU14"
  type: "PReLU"
  bottom: "Convolution16"
  top: "Convolution16"
}
layer {
  name: "Convolution17"
  type: "Convolution"
  bottom: "Convolution16"
  top: "Convolution17"
  param {
    lr_mult: 1
    decay_mult: 1
  }
  param {
    lr_mult: 2
    decay_mult: 0
  }
  convolution_param {
    num_output: 64
    pad: 1
    kernel_size: 3
    stride: 1
    weight_filler {
      type: "gaussian"
      std: 0.059
    }
    bias_filler {
      type: "constant"
      value: 0
    }
  }
}
layer {
  name: "BatchNorm17"
  type: "BatchNorm"
  bottom: "Convolution17"
  top: "Convolution17"
  param {
    lr_mult: 0
    decay_mult: 0
  }
  param {
    lr_mult: 0
    decay_mult: 0
  }
  param {
    lr_mult: 0
    decay_mult: 0
  }
}
layer {
  name: "Scale17"
  type: "Scale"
  bottom: "Convolution17"
  top: "Convolution17"
  scale_param {
    bias_term: true
  }
}
layer {
  name: "Eltwise7"
  type: "Eltwise"
  bottom: "Convolution15"
  bottom: "Convolution17"
  top: "Eltwise7"
  eltwise_param {
    operation: SUM
  }
}
layer {
  name: "PReLU15"
  type: "PReLU"
  bottom: "Eltwise7"
  top: "Eltwise7"
}
layer {
  name: "Convolution18"
  type: "Convolution"
  bottom: "Eltwise7"
  top: "Convolution18"
  param {
    lr_mult: 1
    decay_mult: 1
  }
  param {
    lr_mult: 2
    decay_mult: 0
  }
  convolution_param {
    num_output: 64
    pad: 1
    kernel_size: 3
    stride: 1
    weight_filler {
      type: "gaussian"
      std: 0.059
    }
    bias_filler {
      type: "constant"
      value: 0
    }
  }
}
layer {
  name: "BatchNorm18"
  type: "BatchNorm"
  bottom: "Convolution18"
  top: "Convolution18"
  param {
    lr_mult: 0
    decay_mult: 0
  }
  param {
    lr_mult: 0
    decay_mult: 0
  }
  param {
    lr_mult: 0
    decay_mult: 0
  }
}
layer {
  name: "Scale18"
  type: "Scale"
  bottom: "Convolution18"
  top: "Convolution18"
  scale_param {
    bias_term: true
  }
}
layer {
  name: "PReLU16"
  type: "PReLU"
  bottom: "Convolution18"
  top: "Convolution18"
}
layer {
  name: "Convolution19"
  type: "Convolution"
  bottom: "Convolution18"
  top: "Convolution19"
  param {
    lr_mult: 1
    decay_mult: 1
  }
  param {
    lr_mult: 2
    decay_mult: 0
  }
  convolution_param {
    num_output: 64
    pad: 1
    kernel_size: 3
    stride: 1
    weight_filler {
      type: "gaussian"
      std: 0.059
    }
    bias_filler {
      type: "constant"
      value: 0
    }
  }
}
layer {
  name: "BatchNorm19"
  type: "BatchNorm"
  bottom: "Convolution19"
  top: "Convolution19"
  param {
    lr_mult: 0
    decay_mult: 0
  }
  param {
    lr_mult: 0
    decay_mult: 0
  }
  param {
    lr_mult: 0
    decay_mult: 0
  }
}
layer {
  name: "Scale19"
  type: "Scale"
  bottom: "Convolution19"
  top: "Convolution19"
  scale_param {
    bias_term: true
  }
}
layer {
  name: "Eltwise8"
  type: "Eltwise"
  bottom: "Eltwise7"
  bottom: "Convolution19"
  top: "Eltwise8"
  eltwise_param {
    operation: SUM
  }
}
layer {
  name: "PReLU17"
  type: "PReLU"
  bottom: "Eltwise8"
  top: "Eltwise8"
}
layer {
  name: "Convolution20"
  type: "Convolution"
  bottom: "Eltwise8"
  top: "Convolution20"
  param {
    lr_mult: 1
    decay_mult: 1
  }
  param {
    lr_mult: 2
    decay_mult: 0
  }
  convolution_param {
    num_output: 64
    pad: 1
    kernel_size: 3
    stride: 1
    weight_filler {
      type: "gaussian"
      std: 0.059
    }
    bias_filler {
      type: "constant"
      value: 0
    }
  }
}
layer {
  name: "BatchNorm20"
  type: "BatchNorm"
  bottom: "Convolution20"
  top: "Convolution20"
  param {
    lr_mult: 0
    decay_mult: 0
  }
  param {
    lr_mult: 0
    decay_mult: 0
  }
  param {
    lr_mult: 0
    decay_mult: 0
  }
}
layer {
  name: "Scale20"
  type: "Scale"
  bottom: "Convolution20"
  top: "Convolution20"
  scale_param {
    bias_term: true
  }
}
layer {
  name: "PReLU18"
  type: "PReLU"
  bottom: "Convolution20"
  top: "Convolution20"
}
layer {
  name: "Convolution21"
  type: "Convolution"
  bottom: "Convolution20"
  top: "Convolution21"
  param {
    lr_mult: 1
    decay_mult: 1
  }
  param {
    lr_mult: 2
    decay_mult: 0
  }
  convolution_param {
    num_output: 64
    pad: 1
    kernel_size: 3
    stride: 1
    weight_filler {
      type: "gaussian"
      std: 0.059
    }
    bias_filler {
      type: "constant"
      value: 0
    }
  }
}
layer {
  name: "BatchNorm21"
  type: "BatchNorm"
  bottom: "Convolution21"
  top: "Convolution21"
  param {
    lr_mult: 0
    decay_mult: 0
  }
  param {
    lr_mult: 0
    decay_mult: 0
  }
  param {
    lr_mult: 0
    decay_mult: 0
  }
}
layer {
  name: "Scale21"
  type: "Scale"
  bottom: "Convolution21"
  top: "Convolution21"
  scale_param {
    bias_term: true
  }
}
layer {
  name: "Eltwise9"
  type: "Eltwise"
  bottom: "Eltwise8"
  bottom: "Convolution21"
  top: "Eltwise9"
  eltwise_param {
    operation: SUM
  }
}
layer {
  name: "PReLU19"
  type: "PReLU"
  bottom: "Eltwise9"
  top: "Eltwise9"
}
layer {
  name: "Pooling1"
  type: "Pooling"
  bottom: "Eltwise9"
  top: "Pooling1"
  pooling_param {
    pool: AVE
    global_pooling: true
  }
}
layer {
  name: "InnerProduct1"
  type: "InnerProduct"
  bottom: "Pooling1"
  top: "InnerProduct1"
  param {
    lr_mult: 1
    decay_mult: 1
  }
  param {
    lr_mult: 2
    decay_mult: 1
  }
  inner_product_param {
    num_output: 4
    weight_filler {
      type: "gaussian"
      std: 0.01
    }
    bias_filler {
      type: "constant"
      value: 0
    }
  }
}
layer {
  name: "SoftmaxWithLoss1"
  type: "SoftmaxWithLoss"
  bottom: "InnerProduct1"
  bottom: "Data2"
  top: "SoftmaxWithLoss1"
}
I1023 15:05:26.898499  4985 layer_factory.hpp:77] Creating layer Data1
I1023 15:05:26.898577  4985 db_lmdb.cpp:35] Opened lmdb /home/x306/caffe/xn/English_orange/data/train1_lmdb
I1023 15:05:26.898596  4985 net.cpp:84] Creating Layer Data1
I1023 15:05:26.898602  4985 net.cpp:380] Data1 -> Data1
I1023 15:05:26.898617  4985 net.cpp:380] Data1 -> Data2
I1023 15:05:26.898625  4985 data_transformer.cpp:25] Loading mean file from: /home/x306/caffe/xn/English_orange/data/orange1_mean.binaryproto
I1023 15:05:26.901130  4985 data_layer.cpp:45] output data size: 8,3,224,224
I1023 15:05:26.908972  4985 net.cpp:122] Setting up Data1
I1023 15:05:26.909003  4985 net.cpp:129] Top shape: 8 3 224 224 (1204224)
I1023 15:05:26.909008  4985 net.cpp:129] Top shape: 8 (8)
I1023 15:05:26.909011  4985 net.cpp:137] Memory required for data: 4816928
I1023 15:05:26.909027  4985 layer_factory.hpp:77] Creating layer Convolution1
I1023 15:05:26.909060  4985 net.cpp:84] Creating Layer Convolution1
I1023 15:05:26.909065  4985 net.cpp:406] Convolution1 <- Data1
I1023 15:05:26.909082  4985 net.cpp:380] Convolution1 -> Convolution1
I1023 15:05:27.057572  4985 net.cpp:122] Setting up Convolution1
I1023 15:05:27.057597  4985 net.cpp:129] Top shape: 8 16 224 224 (6422528)
I1023 15:05:27.057601  4985 net.cpp:137] Memory required for data: 30507040
I1023 15:05:27.057615  4985 layer_factory.hpp:77] Creating layer BatchNorm1
I1023 15:05:27.057637  4985 net.cpp:84] Creating Layer BatchNorm1
I1023 15:05:27.057651  4985 net.cpp:406] BatchNorm1 <- Convolution1
I1023 15:05:27.057657  4985 net.cpp:367] BatchNorm1 -> Convolution1 (in-place)
I1023 15:05:27.057821  4985 net.cpp:122] Setting up BatchNorm1
I1023 15:05:27.057826  4985 net.cpp:129] Top shape: 8 16 224 224 (6422528)
I1023 15:05:27.057828  4985 net.cpp:137] Memory required for data: 56197152
I1023 15:05:27.057835  4985 layer_factory.hpp:77] Creating layer Scale1
I1023 15:05:27.057844  4985 net.cpp:84] Creating Layer Scale1
I1023 15:05:27.057857  4985 net.cpp:406] Scale1 <- Convolution1
I1023 15:05:27.057862  4985 net.cpp:367] Scale1 -> Convolution1 (in-place)
I1023 15:05:27.057914  4985 layer_factory.hpp:77] Creating layer Scale1
I1023 15:05:27.058084  4985 net.cpp:122] Setting up Scale1
I1023 15:05:27.058090  4985 net.cpp:129] Top shape: 8 16 224 224 (6422528)
I1023 15:05:27.058094  4985 net.cpp:137] Memory required for data: 81887264
I1023 15:05:27.058097  4985 layer_factory.hpp:77] Creating layer PReLU1
I1023 15:05:27.058101  4985 net.cpp:84] Creating Layer PReLU1
I1023 15:05:27.058104  4985 net.cpp:406] PReLU1 <- Convolution1
I1023 15:05:27.058107  4985 net.cpp:367] PReLU1 -> Convolution1 (in-place)
I1023 15:05:27.059257  4985 net.cpp:122] Setting up PReLU1
I1023 15:05:27.059267  4985 net.cpp:129] Top shape: 8 16 224 224 (6422528)
I1023 15:05:27.059270  4985 net.cpp:137] Memory required for data: 107577376
I1023 15:05:27.059274  4985 layer_factory.hpp:77] Creating layer Convolution1_PReLU1_0_split
I1023 15:05:27.059279  4985 net.cpp:84] Creating Layer Convolution1_PReLU1_0_split
I1023 15:05:27.059283  4985 net.cpp:406] Convolution1_PReLU1_0_split <- Convolution1
I1023 15:05:27.059286  4985 net.cpp:380] Convolution1_PReLU1_0_split -> Convolution1_PReLU1_0_split_0
I1023 15:05:27.059301  4985 net.cpp:380] Convolution1_PReLU1_0_split -> Convolution1_PReLU1_0_split_1
I1023 15:05:27.059350  4985 net.cpp:122] Setting up Convolution1_PReLU1_0_split
I1023 15:05:27.059355  4985 net.cpp:129] Top shape: 8 16 224 224 (6422528)
I1023 15:05:27.059370  4985 net.cpp:129] Top shape: 8 16 224 224 (6422528)
I1023 15:05:27.059371  4985 net.cpp:137] Memory required for data: 158957600
I1023 15:05:27.059373  4985 layer_factory.hpp:77] Creating layer Convolution2
I1023 15:05:27.059392  4985 net.cpp:84] Creating Layer Convolution2
I1023 15:05:27.059396  4985 net.cpp:406] Convolution2 <- Convolution1_PReLU1_0_split_0
I1023 15:05:27.059399  4985 net.cpp:380] Convolution2 -> Convolution2
I1023 15:05:27.060853  4985 net.cpp:122] Setting up Convolution2
I1023 15:05:27.060876  4985 net.cpp:129] Top shape: 8 16 224 224 (6422528)
I1023 15:05:27.060879  4985 net.cpp:137] Memory required for data: 184647712
I1023 15:05:27.060889  4985 layer_factory.hpp:77] Creating layer BatchNorm2
I1023 15:05:27.060904  4985 net.cpp:84] Creating Layer BatchNorm2
I1023 15:05:27.060907  4985 net.cpp:406] BatchNorm2 <- Convolution2
I1023 15:05:27.060911  4985 net.cpp:367] BatchNorm2 -> Convolution2 (in-place)
I1023 15:05:27.061074  4985 net.cpp:122] Setting up BatchNorm2
I1023 15:05:27.061080  4985 net.cpp:129] Top shape: 8 16 224 224 (6422528)
I1023 15:05:27.061092  4985 net.cpp:137] Memory required for data: 210337824
I1023 15:05:27.061098  4985 layer_factory.hpp:77] Creating layer Scale2
I1023 15:05:27.061103  4985 net.cpp:84] Creating Layer Scale2
I1023 15:05:27.061116  4985 net.cpp:406] Scale2 <- Convolution2
I1023 15:05:27.061121  4985 net.cpp:367] Scale2 -> Convolution2 (in-place)
I1023 15:05:27.061158  4985 layer_factory.hpp:77] Creating layer Scale2
I1023 15:05:27.061357  4985 net.cpp:122] Setting up Scale2
I1023 15:05:27.061362  4985 net.cpp:129] Top shape: 8 16 224 224 (6422528)
I1023 15:05:27.061364  4985 net.cpp:137] Memory required for data: 236027936
I1023 15:05:27.061368  4985 layer_factory.hpp:77] Creating layer PReLU2
I1023 15:05:27.061372  4985 net.cpp:84] Creating Layer PReLU2
I1023 15:05:27.061374  4985 net.cpp:406] PReLU2 <- Convolution2
I1023 15:05:27.061378  4985 net.cpp:367] PReLU2 -> Convolution2 (in-place)
I1023 15:05:27.062485  4985 net.cpp:122] Setting up PReLU2
I1023 15:05:27.062495  4985 net.cpp:129] Top shape: 8 16 224 224 (6422528)
I1023 15:05:27.062499  4985 net.cpp:137] Memory required for data: 261718048
I1023 15:05:27.062502  4985 layer_factory.hpp:77] Creating layer Convolution3
I1023 15:05:27.062510  4985 net.cpp:84] Creating Layer Convolution3
I1023 15:05:27.062523  4985 net.cpp:406] Convolution3 <- Convolution2
I1023 15:05:27.062530  4985 net.cpp:380] Convolution3 -> Convolution3
I1023 15:05:27.063416  4985 net.cpp:122] Setting up Convolution3
I1023 15:05:27.063427  4985 net.cpp:129] Top shape: 8 16 224 224 (6422528)
I1023 15:05:27.063431  4985 net.cpp:137] Memory required for data: 287408160
I1023 15:05:27.063437  4985 layer_factory.hpp:77] Creating layer BatchNorm3
I1023 15:05:27.063454  4985 net.cpp:84] Creating Layer BatchNorm3
I1023 15:05:27.063457  4985 net.cpp:406] BatchNorm3 <- Convolution3
I1023 15:05:27.063462  4985 net.cpp:367] BatchNorm3 -> Convolution3 (in-place)
I1023 15:05:27.063619  4985 net.cpp:122] Setting up BatchNorm3
I1023 15:05:27.063624  4985 net.cpp:129] Top shape: 8 16 224 224 (6422528)
I1023 15:05:27.063627  4985 net.cpp:137] Memory required for data: 313098272
I1023 15:05:27.063658  4985 layer_factory.hpp:77] Creating layer Scale3
I1023 15:05:27.063678  4985 net.cpp:84] Creating Layer Scale3
I1023 15:05:27.063679  4985 net.cpp:406] Scale3 <- Convolution3
I1023 15:05:27.063683  4985 net.cpp:367] Scale3 -> Convolution3 (in-place)
I1023 15:05:27.063719  4985 layer_factory.hpp:77] Creating layer Scale3
I1023 15:05:27.064365  4985 net.cpp:122] Setting up Scale3
I1023 15:05:27.064375  4985 net.cpp:129] Top shape: 8 16 224 224 (6422528)
I1023 15:05:27.064378  4985 net.cpp:137] Memory required for data: 338788384
I1023 15:05:27.064383  4985 layer_factory.hpp:77] Creating layer Eltwise1
I1023 15:05:27.064388  4985 net.cpp:84] Creating Layer Eltwise1
I1023 15:05:27.064402  4985 net.cpp:406] Eltwise1 <- Convolution1_PReLU1_0_split_1
I1023 15:05:27.064406  4985 net.cpp:406] Eltwise1 <- Convolution3
I1023 15:05:27.064410  4985 net.cpp:380] Eltwise1 -> Eltwise1
I1023 15:05:27.064430  4985 net.cpp:122] Setting up Eltwise1
I1023 15:05:27.064436  4985 net.cpp:129] Top shape: 8 16 224 224 (6422528)
I1023 15:05:27.064440  4985 net.cpp:137] Memory required for data: 364478496
I1023 15:05:27.064441  4985 layer_factory.hpp:77] Creating layer PReLU3
I1023 15:05:27.064445  4985 net.cpp:84] Creating Layer PReLU3
I1023 15:05:27.064448  4985 net.cpp:406] PReLU3 <- Eltwise1
I1023 15:05:27.064452  4985 net.cpp:367] PReLU3 -> Eltwise1 (in-place)
I1023 15:05:27.065531  4985 net.cpp:122] Setting up PReLU3
I1023 15:05:27.065541  4985 net.cpp:129] Top shape: 8 16 224 224 (6422528)
I1023 15:05:27.065544  4985 net.cpp:137] Memory required for data: 390168608
I1023 15:05:27.065548  4985 layer_factory.hpp:77] Creating layer Eltwise1_PReLU3_0_split
I1023 15:05:27.065554  4985 net.cpp:84] Creating Layer Eltwise1_PReLU3_0_split
I1023 15:05:27.065557  4985 net.cpp:406] Eltwise1_PReLU3_0_split <- Eltwise1
I1023 15:05:27.065562  4985 net.cpp:380] Eltwise1_PReLU3_0_split -> Eltwise1_PReLU3_0_split_0
I1023 15:05:27.065568  4985 net.cpp:380] Eltwise1_PReLU3_0_split -> Eltwise1_PReLU3_0_split_1
I1023 15:05:27.065592  4985 net.cpp:122] Setting up Eltwise1_PReLU3_0_split
I1023 15:05:27.065596  4985 net.cpp:129] Top shape: 8 16 224 224 (6422528)
I1023 15:05:27.065600  4985 net.cpp:129] Top shape: 8 16 224 224 (6422528)
I1023 15:05:27.065603  4985 net.cpp:137] Memory required for data: 441548832
I1023 15:05:27.065604  4985 layer_factory.hpp:77] Creating layer Convolution4
I1023 15:05:27.065614  4985 net.cpp:84] Creating Layer Convolution4
I1023 15:05:27.065618  4985 net.cpp:406] Convolution4 <- Eltwise1_PReLU3_0_split_0
I1023 15:05:27.065621  4985 net.cpp:380] Convolution4 -> Convolution4
I1023 15:05:27.066545  4985 net.cpp:122] Setting up Convolution4
I1023 15:05:27.066555  4985 net.cpp:129] Top shape: 8 16 224 224 (6422528)
I1023 15:05:27.066558  4985 net.cpp:137] Memory required for data: 467238944
I1023 15:05:27.066563  4985 layer_factory.hpp:77] Creating layer BatchNorm4
I1023 15:05:27.066570  4985 net.cpp:84] Creating Layer BatchNorm4
I1023 15:05:27.066572  4985 net.cpp:406] BatchNorm4 <- Convolution4
I1023 15:05:27.066576  4985 net.cpp:367] BatchNorm4 -> Convolution4 (in-place)
I1023 15:05:27.066730  4985 net.cpp:122] Setting up BatchNorm4
I1023 15:05:27.066735  4985 net.cpp:129] Top shape: 8 16 224 224 (6422528)
I1023 15:05:27.066738  4985 net.cpp:137] Memory required for data: 492929056
I1023 15:05:27.066745  4985 layer_factory.hpp:77] Creating layer Scale4
I1023 15:05:27.066750  4985 net.cpp:84] Creating Layer Scale4
I1023 15:05:27.066753  4985 net.cpp:406] Scale4 <- Convolution4
I1023 15:05:27.066756  4985 net.cpp:367] Scale4 -> Convolution4 (in-place)
I1023 15:05:27.066783  4985 layer_factory.hpp:77] Creating layer Scale4
I1023 15:05:27.066908  4985 net.cpp:122] Setting up Scale4
I1023 15:05:27.066913  4985 net.cpp:129] Top shape: 8 16 224 224 (6422528)
I1023 15:05:27.066916  4985 net.cpp:137] Memory required for data: 518619168
I1023 15:05:27.066921  4985 layer_factory.hpp:77] Creating layer PReLU4
I1023 15:05:27.066926  4985 net.cpp:84] Creating Layer PReLU4
I1023 15:05:27.066928  4985 net.cpp:406] PReLU4 <- Convolution4
I1023 15:05:27.066941  4985 net.cpp:367] PReLU4 -> Convolution4 (in-place)
I1023 15:05:27.068074  4985 net.cpp:122] Setting up PReLU4
I1023 15:05:27.068086  4985 net.cpp:129] Top shape: 8 16 224 224 (6422528)
I1023 15:05:27.068089  4985 net.cpp:137] Memory required for data: 544309280
I1023 15:05:27.068094  4985 layer_factory.hpp:77] Creating layer Convolution5
I1023 15:05:27.068102  4985 net.cpp:84] Creating Layer Convolution5
I1023 15:05:27.068106  4985 net.cpp:406] Convolution5 <- Convolution4
I1023 15:05:27.068111  4985 net.cpp:380] Convolution5 -> Convolution5
I1023 15:05:27.069417  4985 net.cpp:122] Setting up Convolution5
I1023 15:05:27.069430  4985 net.cpp:129] Top shape: 8 16 224 224 (6422528)
I1023 15:05:27.069433  4985 net.cpp:137] Memory required for data: 569999392
I1023 15:05:27.069443  4985 layer_factory.hpp:77] Creating layer BatchNorm5
I1023 15:05:27.069449  4985 net.cpp:84] Creating Layer BatchNorm5
I1023 15:05:27.069453  4985 net.cpp:406] BatchNorm5 <- Convolution5
I1023 15:05:27.069458  4985 net.cpp:367] BatchNorm5 -> Convolution5 (in-place)
I1023 15:05:27.069640  4985 net.cpp:122] Setting up BatchNorm5
I1023 15:05:27.069651  4985 net.cpp:129] Top shape: 8 16 224 224 (6422528)
I1023 15:05:27.069656  4985 net.cpp:137] Memory required for data: 595689504
I1023 15:05:27.069666  4985 layer_factory.hpp:77] Creating layer Scale5
I1023 15:05:27.069676  4985 net.cpp:84] Creating Layer Scale5
I1023 15:05:27.069681  4985 net.cpp:406] Scale5 <- Convolution5
I1023 15:05:27.069689  4985 net.cpp:367] Scale5 -> Convolution5 (in-place)
I1023 15:05:27.069722  4985 layer_factory.hpp:77] Creating layer Scale5
I1023 15:05:27.069877  4985 net.cpp:122] Setting up Scale5
I1023 15:05:27.069885  4985 net.cpp:129] Top shape: 8 16 224 224 (6422528)
I1023 15:05:27.069890  4985 net.cpp:137] Memory required for data: 621379616
I1023 15:05:27.069910  4985 layer_factory.hpp:77] Creating layer Eltwise2
I1023 15:05:27.069916  4985 net.cpp:84] Creating Layer Eltwise2
I1023 15:05:27.069922  4985 net.cpp:406] Eltwise2 <- Eltwise1_PReLU3_0_split_1
I1023 15:05:27.069928  4985 net.cpp:406] Eltwise2 <- Convolution5
I1023 15:05:27.069936  4985 net.cpp:380] Eltwise2 -> Eltwise2
I1023 15:05:27.069957  4985 net.cpp:122] Setting up Eltwise2
I1023 15:05:27.069963  4985 net.cpp:129] Top shape: 8 16 224 224 (6422528)
I1023 15:05:27.069977  4985 net.cpp:137] Memory required for data: 647069728
I1023 15:05:27.069983  4985 layer_factory.hpp:77] Creating layer PReLU5
I1023 15:05:27.069999  4985 net.cpp:84] Creating Layer PReLU5
I1023 15:05:27.070004  4985 net.cpp:406] PReLU5 <- Eltwise2
I1023 15:05:27.070011  4985 net.cpp:367] PReLU5 -> Eltwise2 (in-place)
I1023 15:05:27.071190  4985 net.cpp:122] Setting up PReLU5
I1023 15:05:27.071204  4985 net.cpp:129] Top shape: 8 16 224 224 (6422528)
I1023 15:05:27.071209  4985 net.cpp:137] Memory required for data: 672759840
I1023 15:05:27.071218  4985 layer_factory.hpp:77] Creating layer Eltwise2_PReLU5_0_split
I1023 15:05:27.071228  4985 net.cpp:84] Creating Layer Eltwise2_PReLU5_0_split
I1023 15:05:27.071233  4985 net.cpp:406] Eltwise2_PReLU5_0_split <- Eltwise2
I1023 15:05:27.071239  4985 net.cpp:380] Eltwise2_PReLU5_0_split -> Eltwise2_PReLU5_0_split_0
I1023 15:05:27.071249  4985 net.cpp:380] Eltwise2_PReLU5_0_split -> Eltwise2_PReLU5_0_split_1
I1023 15:05:27.071277  4985 net.cpp:122] Setting up Eltwise2_PReLU5_0_split
I1023 15:05:27.071285  4985 net.cpp:129] Top shape: 8 16 224 224 (6422528)
I1023 15:05:27.071291  4985 net.cpp:129] Top shape: 8 16 224 224 (6422528)
I1023 15:05:27.071296  4985 net.cpp:137] Memory required for data: 724140064
I1023 15:05:27.071302  4985 layer_factory.hpp:77] Creating layer Convolution6
I1023 15:05:27.071313  4985 net.cpp:84] Creating Layer Convolution6
I1023 15:05:27.071318  4985 net.cpp:406] Convolution6 <- Eltwise2_PReLU5_0_split_0
I1023 15:05:27.071326  4985 net.cpp:380] Convolution6 -> Convolution6
I1023 15:05:27.072829  4985 net.cpp:122] Setting up Convolution6
I1023 15:05:27.072844  4985 net.cpp:129] Top shape: 8 16 224 224 (6422528)
I1023 15:05:27.072849  4985 net.cpp:137] Memory required for data: 749830176
I1023 15:05:27.072870  4985 layer_factory.hpp:77] Creating layer BatchNorm6
I1023 15:05:27.072878  4985 net.cpp:84] Creating Layer BatchNorm6
I1023 15:05:27.072885  4985 net.cpp:406] BatchNorm6 <- Convolution6
I1023 15:05:27.072891  4985 net.cpp:367] BatchNorm6 -> Convolution6 (in-place)
I1023 15:05:27.073043  4985 net.cpp:122] Setting up BatchNorm6
I1023 15:05:27.073051  4985 net.cpp:129] Top shape: 8 16 224 224 (6422528)
I1023 15:05:27.073055  4985 net.cpp:137] Memory required for data: 775520288
I1023 15:05:27.073065  4985 layer_factory.hpp:77] Creating layer Scale6
I1023 15:05:27.073073  4985 net.cpp:84] Creating Layer Scale6
I1023 15:05:27.073078  4985 net.cpp:406] Scale6 <- Convolution6
I1023 15:05:27.073084  4985 net.cpp:367] Scale6 -> Convolution6 (in-place)
I1023 15:05:27.073117  4985 layer_factory.hpp:77] Creating layer Scale6
I1023 15:05:27.073232  4985 net.cpp:122] Setting up Scale6
I1023 15:05:27.073240  4985 net.cpp:129] Top shape: 8 16 224 224 (6422528)
I1023 15:05:27.073246  4985 net.cpp:137] Memory required for data: 801210400
I1023 15:05:27.073254  4985 layer_factory.hpp:77] Creating layer PReLU6
I1023 15:05:27.073261  4985 net.cpp:84] Creating Layer PReLU6
I1023 15:05:27.073266  4985 net.cpp:406] PReLU6 <- Convolution6
I1023 15:05:27.073272  4985 net.cpp:367] PReLU6 -> Convolution6 (in-place)
I1023 15:05:27.074378  4985 net.cpp:122] Setting up PReLU6
I1023 15:05:27.074389  4985 net.cpp:129] Top shape: 8 16 224 224 (6422528)
I1023 15:05:27.074394  4985 net.cpp:137] Memory required for data: 826900512
I1023 15:05:27.074401  4985 layer_factory.hpp:77] Creating layer Convolution7
I1023 15:05:27.074414  4985 net.cpp:84] Creating Layer Convolution7
I1023 15:05:27.074419  4985 net.cpp:406] Convolution7 <- Convolution6
I1023 15:05:27.074426  4985 net.cpp:380] Convolution7 -> Convolution7
I1023 15:05:27.075348  4985 net.cpp:122] Setting up Convolution7
I1023 15:05:27.075361  4985 net.cpp:129] Top shape: 8 16 224 224 (6422528)
I1023 15:05:27.075366  4985 net.cpp:137] Memory required for data: 852590624
I1023 15:05:27.075376  4985 layer_factory.hpp:77] Creating layer BatchNorm7
I1023 15:05:27.075384  4985 net.cpp:84] Creating Layer BatchNorm7
I1023 15:05:27.075389  4985 net.cpp:406] BatchNorm7 <- Convolution7
I1023 15:05:27.075397  4985 net.cpp:367] BatchNorm7 -> Convolution7 (in-place)
I1023 15:05:27.075546  4985 net.cpp:122] Setting up BatchNorm7
I1023 15:05:27.075554  4985 net.cpp:129] Top shape: 8 16 224 224 (6422528)
I1023 15:05:27.075559  4985 net.cpp:137] Memory required for data: 878280736
I1023 15:05:27.075569  4985 layer_factory.hpp:77] Creating layer Scale7
I1023 15:05:27.075579  4985 net.cpp:84] Creating Layer Scale7
I1023 15:05:27.075583  4985 net.cpp:406] Scale7 <- Convolution7
I1023 15:05:27.075590  4985 net.cpp:367] Scale7 -> Convolution7 (in-place)
I1023 15:05:27.075620  4985 layer_factory.hpp:77] Creating layer Scale7
I1023 15:05:27.075744  4985 net.cpp:122] Setting up Scale7
I1023 15:05:27.075752  4985 net.cpp:129] Top shape: 8 16 224 224 (6422528)
I1023 15:05:27.075757  4985 net.cpp:137] Memory required for data: 903970848
I1023 15:05:27.075767  4985 layer_factory.hpp:77] Creating layer Eltwise3
I1023 15:05:27.075773  4985 net.cpp:84] Creating Layer Eltwise3
I1023 15:05:27.075778  4985 net.cpp:406] Eltwise3 <- Eltwise2_PReLU5_0_split_1
I1023 15:05:27.075784  4985 net.cpp:406] Eltwise3 <- Convolution7
I1023 15:05:27.075791  4985 net.cpp:380] Eltwise3 -> Eltwise3
I1023 15:05:27.075812  4985 net.cpp:122] Setting up Eltwise3
I1023 15:05:27.075819  4985 net.cpp:129] Top shape: 8 16 224 224 (6422528)
I1023 15:05:27.075824  4985 net.cpp:137] Memory required for data: 929660960
I1023 15:05:27.075829  4985 layer_factory.hpp:77] Creating layer PReLU7
I1023 15:05:27.075835  4985 net.cpp:84] Creating Layer PReLU7
I1023 15:05:27.075840  4985 net.cpp:406] PReLU7 <- Eltwise3
I1023 15:05:27.075847  4985 net.cpp:367] PReLU7 -> Eltwise3 (in-place)
I1023 15:05:27.076992  4985 net.cpp:122] Setting up PReLU7
I1023 15:05:27.077006  4985 net.cpp:129] Top shape: 8 16 224 224 (6422528)
I1023 15:05:27.077025  4985 net.cpp:137] Memory required for data: 955351072
I1023 15:05:27.077035  4985 layer_factory.hpp:77] Creating layer Eltwise3_PReLU7_0_split
I1023 15:05:27.077044  4985 net.cpp:84] Creating Layer Eltwise3_PReLU7_0_split
I1023 15:05:27.077049  4985 net.cpp:406] Eltwise3_PReLU7_0_split <- Eltwise3
I1023 15:05:27.077055  4985 net.cpp:380] Eltwise3_PReLU7_0_split -> Eltwise3_PReLU7_0_split_0
I1023 15:05:27.077064  4985 net.cpp:380] Eltwise3_PReLU7_0_split -> Eltwise3_PReLU7_0_split_1
I1023 15:05:27.077092  4985 net.cpp:122] Setting up Eltwise3_PReLU7_0_split
I1023 15:05:27.077100  4985 net.cpp:129] Top shape: 8 16 224 224 (6422528)
I1023 15:05:27.077106  4985 net.cpp:129] Top shape: 8 16 224 224 (6422528)
I1023 15:05:27.077111  4985 net.cpp:137] Memory required for data: 1006731296
I1023 15:05:27.077116  4985 layer_factory.hpp:77] Creating layer Convolution8
I1023 15:05:27.077127  4985 net.cpp:84] Creating Layer Convolution8
I1023 15:05:27.077132  4985 net.cpp:406] Convolution8 <- Eltwise3_PReLU7_0_split_0
I1023 15:05:27.077141  4985 net.cpp:380] Convolution8 -> Convolution8
I1023 15:05:27.078841  4985 net.cpp:122] Setting up Convolution8
I1023 15:05:27.078853  4985 net.cpp:129] Top shape: 8 32 112 112 (3211264)
I1023 15:05:27.078858  4985 net.cpp:137] Memory required for data: 1019576352
I1023 15:05:27.078867  4985 layer_factory.hpp:77] Creating layer BatchNorm8
I1023 15:05:27.078876  4985 net.cpp:84] Creating Layer BatchNorm8
I1023 15:05:27.078881  4985 net.cpp:406] BatchNorm8 <- Convolution8
I1023 15:05:27.078889  4985 net.cpp:367] BatchNorm8 -> Convolution8 (in-place)
I1023 15:05:27.079026  4985 net.cpp:122] Setting up BatchNorm8
I1023 15:05:27.079035  4985 net.cpp:129] Top shape: 8 32 112 112 (3211264)
I1023 15:05:27.079040  4985 net.cpp:137] Memory required for data: 1032421408
I1023 15:05:27.079049  4985 layer_factory.hpp:77] Creating layer Scale8
I1023 15:05:27.079056  4985 net.cpp:84] Creating Layer Scale8
I1023 15:05:27.079061  4985 net.cpp:406] Scale8 <- Convolution8
I1023 15:05:27.079068  4985 net.cpp:367] Scale8 -> Convolution8 (in-place)
I1023 15:05:27.079102  4985 layer_factory.hpp:77] Creating layer Scale8
I1023 15:05:27.079185  4985 net.cpp:122] Setting up Scale8
I1023 15:05:27.079193  4985 net.cpp:129] Top shape: 8 32 112 112 (3211264)
I1023 15:05:27.079198  4985 net.cpp:137] Memory required for data: 1045266464
I1023 15:05:27.079206  4985 layer_factory.hpp:77] Creating layer Convolution9
I1023 15:05:27.079216  4985 net.cpp:84] Creating Layer Convolution9
I1023 15:05:27.079221  4985 net.cpp:406] Convolution9 <- Eltwise3_PReLU7_0_split_1
I1023 15:05:27.079229  4985 net.cpp:380] Convolution9 -> Convolution9
I1023 15:05:27.080162  4985 net.cpp:122] Setting up Convolution9
I1023 15:05:27.080173  4985 net.cpp:129] Top shape: 8 32 112 112 (3211264)
I1023 15:05:27.080179  4985 net.cpp:137] Memory required for data: 1058111520
I1023 15:05:27.080193  4985 layer_factory.hpp:77] Creating layer BatchNorm9
I1023 15:05:27.080201  4985 net.cpp:84] Creating Layer BatchNorm9
I1023 15:05:27.080207  4985 net.cpp:406] BatchNorm9 <- Convolution9
I1023 15:05:27.080214  4985 net.cpp:367] BatchNorm9 -> Convolution9 (in-place)
I1023 15:05:27.080341  4985 net.cpp:122] Setting up BatchNorm9
I1023 15:05:27.080349  4985 net.cpp:129] Top shape: 8 32 112 112 (3211264)
I1023 15:05:27.080354  4985 net.cpp:137] Memory required for data: 1070956576
I1023 15:05:27.080364  4985 layer_factory.hpp:77] Creating layer Scale9
I1023 15:05:27.080371  4985 net.cpp:84] Creating Layer Scale9
I1023 15:05:27.080377  4985 net.cpp:406] Scale9 <- Convolution9
I1023 15:05:27.080384  4985 net.cpp:367] Scale9 -> Convolution9 (in-place)
I1023 15:05:27.080413  4985 layer_factory.hpp:77] Creating layer Scale9
I1023 15:05:27.080492  4985 net.cpp:122] Setting up Scale9
I1023 15:05:27.080499  4985 net.cpp:129] Top shape: 8 32 112 112 (3211264)
I1023 15:05:27.080504  4985 net.cpp:137] Memory required for data: 1083801632
I1023 15:05:27.080513  4985 layer_factory.hpp:77] Creating layer PReLU8
I1023 15:05:27.080519  4985 net.cpp:84] Creating Layer PReLU8
I1023 15:05:27.080533  4985 net.cpp:406] PReLU8 <- Convolution9
I1023 15:05:27.080540  4985 net.cpp:367] PReLU8 -> Convolution9 (in-place)
I1023 15:05:27.081281  4985 net.cpp:122] Setting up PReLU8
I1023 15:05:27.081293  4985 net.cpp:129] Top shape: 8 32 112 112 (3211264)
I1023 15:05:27.081298  4985 net.cpp:137] Memory required for data: 1096646688
I1023 15:05:27.081305  4985 layer_factory.hpp:77] Creating layer Convolution10
I1023 15:05:27.081316  4985 net.cpp:84] Creating Layer Convolution10
I1023 15:05:27.081321  4985 net.cpp:406] Convolution10 <- Convolution9
I1023 15:05:27.081329  4985 net.cpp:380] Convolution10 -> Convolution10
I1023 15:05:27.082356  4985 net.cpp:122] Setting up Convolution10
I1023 15:05:27.082368  4985 net.cpp:129] Top shape: 8 32 112 112 (3211264)
I1023 15:05:27.082373  4985 net.cpp:137] Memory required for data: 1109491744
I1023 15:05:27.082381  4985 layer_factory.hpp:77] Creating layer BatchNorm10
I1023 15:05:27.082389  4985 net.cpp:84] Creating Layer BatchNorm10
I1023 15:05:27.082394  4985 net.cpp:406] BatchNorm10 <- Convolution10
I1023 15:05:27.082402  4985 net.cpp:367] BatchNorm10 -> Convolution10 (in-place)
I1023 15:05:27.082530  4985 net.cpp:122] Setting up BatchNorm10
I1023 15:05:27.082537  4985 net.cpp:129] Top shape: 8 32 112 112 (3211264)
I1023 15:05:27.082542  4985 net.cpp:137] Memory required for data: 1122336800
I1023 15:05:27.082552  4985 layer_factory.hpp:77] Creating layer Scale10
I1023 15:05:27.082558  4985 net.cpp:84] Creating Layer Scale10
I1023 15:05:27.082563  4985 net.cpp:406] Scale10 <- Convolution10
I1023 15:05:27.082571  4985 net.cpp:367] Scale10 -> Convolution10 (in-place)
I1023 15:05:27.082600  4985 layer_factory.hpp:77] Creating layer Scale10
I1023 15:05:27.082684  4985 net.cpp:122] Setting up Scale10
I1023 15:05:27.082690  4985 net.cpp:129] Top shape: 8 32 112 112 (3211264)
I1023 15:05:27.082695  4985 net.cpp:137] Memory required for data: 1135181856
I1023 15:05:27.082705  4985 layer_factory.hpp:77] Creating layer Eltwise4
I1023 15:05:27.082711  4985 net.cpp:84] Creating Layer Eltwise4
I1023 15:05:27.082716  4985 net.cpp:406] Eltwise4 <- Convolution8
I1023 15:05:27.082722  4985 net.cpp:406] Eltwise4 <- Convolution10
I1023 15:05:27.082729  4985 net.cpp:380] Eltwise4 -> Eltwise4
I1023 15:05:27.082751  4985 net.cpp:122] Setting up Eltwise4
I1023 15:05:27.082757  4985 net.cpp:129] Top shape: 8 32 112 112 (3211264)
I1023 15:05:27.082762  4985 net.cpp:137] Memory required for data: 1148026912
I1023 15:05:27.082767  4985 layer_factory.hpp:77] Creating layer PReLU9
I1023 15:05:27.082773  4985 net.cpp:84] Creating Layer PReLU9
I1023 15:05:27.082778  4985 net.cpp:406] PReLU9 <- Eltwise4
I1023 15:05:27.082785  4985 net.cpp:367] PReLU9 -> Eltwise4 (in-place)
I1023 15:05:27.083529  4985 net.cpp:122] Setting up PReLU9
I1023 15:05:27.083540  4985 net.cpp:129] Top shape: 8 32 112 112 (3211264)
I1023 15:05:27.083545  4985 net.cpp:137] Memory required for data: 1160871968
I1023 15:05:27.083552  4985 layer_factory.hpp:77] Creating layer Eltwise4_PReLU9_0_split
I1023 15:05:27.083560  4985 net.cpp:84] Creating Layer Eltwise4_PReLU9_0_split
I1023 15:05:27.083565  4985 net.cpp:406] Eltwise4_PReLU9_0_split <- Eltwise4
I1023 15:05:27.083573  4985 net.cpp:380] Eltwise4_PReLU9_0_split -> Eltwise4_PReLU9_0_split_0
I1023 15:05:27.083581  4985 net.cpp:380] Eltwise4_PReLU9_0_split -> Eltwise4_PReLU9_0_split_1
I1023 15:05:27.083609  4985 net.cpp:122] Setting up Eltwise4_PReLU9_0_split
I1023 15:05:27.083616  4985 net.cpp:129] Top shape: 8 32 112 112 (3211264)
I1023 15:05:27.083623  4985 net.cpp:129] Top shape: 8 32 112 112 (3211264)
I1023 15:05:27.083627  4985 net.cpp:137] Memory required for data: 1186562080
I1023 15:05:27.083633  4985 layer_factory.hpp:77] Creating layer Convolution11
I1023 15:05:27.083643  4985 net.cpp:84] Creating Layer Convolution11
I1023 15:05:27.083647  4985 net.cpp:406] Convolution11 <- Eltwise4_PReLU9_0_split_0
I1023 15:05:27.083657  4985 net.cpp:380] Convolution11 -> Convolution11
I1023 15:05:27.084703  4985 net.cpp:122] Setting up Convolution11
I1023 15:05:27.084723  4985 net.cpp:129] Top shape: 8 32 112 112 (3211264)
I1023 15:05:27.084729  4985 net.cpp:137] Memory required for data: 1199407136
I1023 15:05:27.084738  4985 layer_factory.hpp:77] Creating layer BatchNorm11
I1023 15:05:27.084746  4985 net.cpp:84] Creating Layer BatchNorm11
I1023 15:05:27.084751  4985 net.cpp:406] BatchNorm11 <- Convolution11
I1023 15:05:27.084759  4985 net.cpp:367] BatchNorm11 -> Convolution11 (in-place)
I1023 15:05:27.084905  4985 net.cpp:122] Setting up BatchNorm11
I1023 15:05:27.084914  4985 net.cpp:129] Top shape: 8 32 112 112 (3211264)
I1023 15:05:27.084919  4985 net.cpp:137] Memory required for data: 1212252192
I1023 15:05:27.084929  4985 layer_factory.hpp:77] Creating layer Scale11
I1023 15:05:27.084938  4985 net.cpp:84] Creating Layer Scale11
I1023 15:05:27.084942  4985 net.cpp:406] Scale11 <- Convolution11
I1023 15:05:27.084949  4985 net.cpp:367] Scale11 -> Convolution11 (in-place)
I1023 15:05:27.084980  4985 layer_factory.hpp:77] Creating layer Scale11
I1023 15:05:27.085098  4985 net.cpp:122] Setting up Scale11
I1023 15:05:27.085109  4985 net.cpp:129] Top shape: 8 32 112 112 (3211264)
I1023 15:05:27.085124  4985 net.cpp:137] Memory required for data: 1225097248
I1023 15:05:27.085131  4985 layer_factory.hpp:77] Creating layer PReLU10
I1023 15:05:27.085137  4985 net.cpp:84] Creating Layer PReLU10
I1023 15:05:27.085142  4985 net.cpp:406] PReLU10 <- Convolution11
I1023 15:05:27.085149  4985 net.cpp:367] PReLU10 -> Convolution11 (in-place)
I1023 15:05:27.086001  4985 net.cpp:122] Setting up PReLU10
I1023 15:05:27.086011  4985 net.cpp:129] Top shape: 8 32 112 112 (3211264)
I1023 15:05:27.086025  4985 net.cpp:137] Memory required for data: 1237942304
I1023 15:05:27.086030  4985 layer_factory.hpp:77] Creating layer Convolution12
I1023 15:05:27.086037  4985 net.cpp:84] Creating Layer Convolution12
I1023 15:05:27.086040  4985 net.cpp:406] Convolution12 <- Convolution11
I1023 15:05:27.086047  4985 net.cpp:380] Convolution12 -> Convolution12
I1023 15:05:27.087128  4985 net.cpp:122] Setting up Convolution12
I1023 15:05:27.087138  4985 net.cpp:129] Top shape: 8 32 112 112 (3211264)
I1023 15:05:27.087152  4985 net.cpp:137] Memory required for data: 1250787360
I1023 15:05:27.087157  4985 layer_factory.hpp:77] Creating layer BatchNorm12
I1023 15:05:27.087162  4985 net.cpp:84] Creating Layer BatchNorm12
I1023 15:05:27.087164  4985 net.cpp:406] BatchNorm12 <- Convolution12
I1023 15:05:27.087168  4985 net.cpp:367] BatchNorm12 -> Convolution12 (in-place)
I1023 15:05:27.087301  4985 net.cpp:122] Setting up BatchNorm12
I1023 15:05:27.087306  4985 net.cpp:129] Top shape: 8 32 112 112 (3211264)
I1023 15:05:27.087309  4985 net.cpp:137] Memory required for data: 1263632416
I1023 15:05:27.087314  4985 layer_factory.hpp:77] Creating layer Scale12
I1023 15:05:27.087319  4985 net.cpp:84] Creating Layer Scale12
I1023 15:05:27.087321  4985 net.cpp:406] Scale12 <- Convolution12
I1023 15:05:27.087326  4985 net.cpp:367] Scale12 -> Convolution12 (in-place)
I1023 15:05:27.087352  4985 layer_factory.hpp:77] Creating layer Scale12
I1023 15:05:27.087435  4985 net.cpp:122] Setting up Scale12
I1023 15:05:27.087440  4985 net.cpp:129] Top shape: 8 32 112 112 (3211264)
I1023 15:05:27.087442  4985 net.cpp:137] Memory required for data: 1276477472
I1023 15:05:27.087446  4985 layer_factory.hpp:77] Creating layer Eltwise5
I1023 15:05:27.087451  4985 net.cpp:84] Creating Layer Eltwise5
I1023 15:05:27.087455  4985 net.cpp:406] Eltwise5 <- Eltwise4_PReLU9_0_split_1
I1023 15:05:27.087458  4985 net.cpp:406] Eltwise5 <- Convolution12
I1023 15:05:27.087461  4985 net.cpp:380] Eltwise5 -> Eltwise5
I1023 15:05:27.087478  4985 net.cpp:122] Setting up Eltwise5
I1023 15:05:27.087483  4985 net.cpp:129] Top shape: 8 32 112 112 (3211264)
I1023 15:05:27.087486  4985 net.cpp:137] Memory required for data: 1289322528
I1023 15:05:27.087487  4985 layer_factory.hpp:77] Creating layer PReLU11
I1023 15:05:27.087491  4985 net.cpp:84] Creating Layer PReLU11
I1023 15:05:27.087493  4985 net.cpp:406] PReLU11 <- Eltwise5
I1023 15:05:27.087496  4985 net.cpp:367] PReLU11 -> Eltwise5 (in-place)
I1023 15:05:27.088376  4985 net.cpp:122] Setting up PReLU11
I1023 15:05:27.088388  4985 net.cpp:129] Top shape: 8 32 112 112 (3211264)
I1023 15:05:27.088392  4985 net.cpp:137] Memory required for data: 1302167584
I1023 15:05:27.088397  4985 layer_factory.hpp:77] Creating layer Eltwise5_PReLU11_0_split
I1023 15:05:27.088402  4985 net.cpp:84] Creating Layer Eltwise5_PReLU11_0_split
I1023 15:05:27.088405  4985 net.cpp:406] Eltwise5_PReLU11_0_split <- Eltwise5
I1023 15:05:27.088409  4985 net.cpp:380] Eltwise5_PReLU11_0_split -> Eltwise5_PReLU11_0_split_0
I1023 15:05:27.088415  4985 net.cpp:380] Eltwise5_PReLU11_0_split -> Eltwise5_PReLU11_0_split_1
I1023 15:05:27.088441  4985 net.cpp:122] Setting up Eltwise5_PReLU11_0_split
I1023 15:05:27.088446  4985 net.cpp:129] Top shape: 8 32 112 112 (3211264)
I1023 15:05:27.088450  4985 net.cpp:129] Top shape: 8 32 112 112 (3211264)
I1023 15:05:27.088452  4985 net.cpp:137] Memory required for data: 1327857696
I1023 15:05:27.088455  4985 layer_factory.hpp:77] Creating layer Convolution13
I1023 15:05:27.088462  4985 net.cpp:84] Creating Layer Convolution13
I1023 15:05:27.088465  4985 net.cpp:406] Convolution13 <- Eltwise5_PReLU11_0_split_0
I1023 15:05:27.088470  4985 net.cpp:380] Convolution13 -> Convolution13
I1023 15:05:27.089570  4985 net.cpp:122] Setting up Convolution13
I1023 15:05:27.089581  4985 net.cpp:129] Top shape: 8 32 112 112 (3211264)
I1023 15:05:27.089584  4985 net.cpp:137] Memory required for data: 1340702752
I1023 15:05:27.089589  4985 layer_factory.hpp:77] Creating layer BatchNorm13
I1023 15:05:27.089596  4985 net.cpp:84] Creating Layer BatchNorm13
I1023 15:05:27.089598  4985 net.cpp:406] BatchNorm13 <- Convolution13
I1023 15:05:27.089602  4985 net.cpp:367] BatchNorm13 -> Convolution13 (in-place)
I1023 15:05:27.089733  4985 net.cpp:122] Setting up BatchNorm13
I1023 15:05:27.089738  4985 net.cpp:129] Top shape: 8 32 112 112 (3211264)
I1023 15:05:27.089741  4985 net.cpp:137] Memory required for data: 1353547808
I1023 15:05:27.089747  4985 layer_factory.hpp:77] Creating layer Scale13
I1023 15:05:27.089752  4985 net.cpp:84] Creating Layer Scale13
I1023 15:05:27.089756  4985 net.cpp:406] Scale13 <- Convolution13
I1023 15:05:27.089758  4985 net.cpp:367] Scale13 -> Convolution13 (in-place)
I1023 15:05:27.089785  4985 layer_factory.hpp:77] Creating layer Scale13
I1023 15:05:27.089867  4985 net.cpp:122] Setting up Scale13
I1023 15:05:27.089874  4985 net.cpp:129] Top shape: 8 32 112 112 (3211264)
I1023 15:05:27.089876  4985 net.cpp:137] Memory required for data: 1366392864
I1023 15:05:27.089880  4985 layer_factory.hpp:77] Creating layer PReLU12
I1023 15:05:27.089885  4985 net.cpp:84] Creating Layer PReLU12
I1023 15:05:27.089889  4985 net.cpp:406] PReLU12 <- Convolution13
I1023 15:05:27.089891  4985 net.cpp:367] PReLU12 -> Convolution13 (in-place)
I1023 15:05:27.090643  4985 net.cpp:122] Setting up PReLU12
I1023 15:05:27.090653  4985 net.cpp:129] Top shape: 8 32 112 112 (3211264)
I1023 15:05:27.090657  4985 net.cpp:137] Memory required for data: 1379237920
I1023 15:05:27.090662  4985 layer_factory.hpp:77] Creating layer Convolution14
I1023 15:05:27.090670  4985 net.cpp:84] Creating Layer Convolution14
I1023 15:05:27.090674  4985 net.cpp:406] Convolution14 <- Convolution13
I1023 15:05:27.090678  4985 net.cpp:380] Convolution14 -> Convolution14
I1023 15:05:27.091737  4985 net.cpp:122] Setting up Convolution14
I1023 15:05:27.091747  4985 net.cpp:129] Top shape: 8 32 112 112 (3211264)
I1023 15:05:27.091751  4985 net.cpp:137] Memory required for data: 1392082976
I1023 15:05:27.091756  4985 layer_factory.hpp:77] Creating layer BatchNorm14
I1023 15:05:27.091765  4985 net.cpp:84] Creating Layer BatchNorm14
I1023 15:05:27.091769  4985 net.cpp:406] BatchNorm14 <- Convolution14
I1023 15:05:27.091773  4985 net.cpp:367] BatchNorm14 -> Convolution14 (in-place)
I1023 15:05:27.091902  4985 net.cpp:122] Setting up BatchNorm14
I1023 15:05:27.091907  4985 net.cpp:129] Top shape: 8 32 112 112 (3211264)
I1023 15:05:27.091910  4985 net.cpp:137] Memory required for data: 1404928032
I1023 15:05:27.091926  4985 layer_factory.hpp:77] Creating layer Scale14
I1023 15:05:27.091933  4985 net.cpp:84] Creating Layer Scale14
I1023 15:05:27.091935  4985 net.cpp:406] Scale14 <- Convolution14
I1023 15:05:27.091939  4985 net.cpp:367] Scale14 -> Convolution14 (in-place)
I1023 15:05:27.091985  4985 layer_factory.hpp:77] Creating layer Scale14
I1023 15:05:27.092072  4985 net.cpp:122] Setting up Scale14
I1023 15:05:27.092077  4985 net.cpp:129] Top shape: 8 32 112 112 (3211264)
I1023 15:05:27.092080  4985 net.cpp:137] Memory required for data: 1417773088
I1023 15:05:27.092085  4985 layer_factory.hpp:77] Creating layer Eltwise6
I1023 15:05:27.092090  4985 net.cpp:84] Creating Layer Eltwise6
I1023 15:05:27.092094  4985 net.cpp:406] Eltwise6 <- Eltwise5_PReLU11_0_split_1
I1023 15:05:27.092097  4985 net.cpp:406] Eltwise6 <- Convolution14
I1023 15:05:27.092102  4985 net.cpp:380] Eltwise6 -> Eltwise6
I1023 15:05:27.092118  4985 net.cpp:122] Setting up Eltwise6
I1023 15:05:27.092123  4985 net.cpp:129] Top shape: 8 32 112 112 (3211264)
I1023 15:05:27.092125  4985 net.cpp:137] Memory required for data: 1430618144
I1023 15:05:27.092128  4985 layer_factory.hpp:77] Creating layer PReLU13
I1023 15:05:27.092131  4985 net.cpp:84] Creating Layer PReLU13
I1023 15:05:27.092134  4985 net.cpp:406] PReLU13 <- Eltwise6
I1023 15:05:27.092137  4985 net.cpp:367] PReLU13 -> Eltwise6 (in-place)
I1023 15:05:27.092895  4985 net.cpp:122] Setting up PReLU13
I1023 15:05:27.092905  4985 net.cpp:129] Top shape: 8 32 112 112 (3211264)
I1023 15:05:27.092907  4985 net.cpp:137] Memory required for data: 1443463200
I1023 15:05:27.092911  4985 layer_factory.hpp:77] Creating layer Eltwise6_PReLU13_0_split
I1023 15:05:27.092917  4985 net.cpp:84] Creating Layer Eltwise6_PReLU13_0_split
I1023 15:05:27.092921  4985 net.cpp:406] Eltwise6_PReLU13_0_split <- Eltwise6
I1023 15:05:27.092924  4985 net.cpp:380] Eltwise6_PReLU13_0_split -> Eltwise6_PReLU13_0_split_0
I1023 15:05:27.092931  4985 net.cpp:380] Eltwise6_PReLU13_0_split -> Eltwise6_PReLU13_0_split_1
I1023 15:05:27.092955  4985 net.cpp:122] Setting up Eltwise6_PReLU13_0_split
I1023 15:05:27.092960  4985 net.cpp:129] Top shape: 8 32 112 112 (3211264)
I1023 15:05:27.092963  4985 net.cpp:129] Top shape: 8 32 112 112 (3211264)
I1023 15:05:27.092967  4985 net.cpp:137] Memory required for data: 1469153312
I1023 15:05:27.092968  4985 layer_factory.hpp:77] Creating layer Convolution15
I1023 15:05:27.092975  4985 net.cpp:84] Creating Layer Convolution15
I1023 15:05:27.092978  4985 net.cpp:406] Convolution15 <- Eltwise6_PReLU13_0_split_0
I1023 15:05:27.092983  4985 net.cpp:380] Convolution15 -> Convolution15
I1023 15:05:27.093880  4985 net.cpp:122] Setting up Convolution15
I1023 15:05:27.093891  4985 net.cpp:129] Top shape: 8 64 56 56 (1605632)
I1023 15:05:27.093894  4985 net.cpp:137] Memory required for data: 1475575840
I1023 15:05:27.093899  4985 layer_factory.hpp:77] Creating layer BatchNorm15
I1023 15:05:27.093905  4985 net.cpp:84] Creating Layer BatchNorm15
I1023 15:05:27.093909  4985 net.cpp:406] BatchNorm15 <- Convolution15
I1023 15:05:27.093912  4985 net.cpp:367] BatchNorm15 -> Convolution15 (in-place)
I1023 15:05:27.094041  4985 net.cpp:122] Setting up BatchNorm15
I1023 15:05:27.094048  4985 net.cpp:129] Top shape: 8 64 56 56 (1605632)
I1023 15:05:27.094050  4985 net.cpp:137] Memory required for data: 1481998368
I1023 15:05:27.094055  4985 layer_factory.hpp:77] Creating layer Scale15
I1023 15:05:27.094060  4985 net.cpp:84] Creating Layer Scale15
I1023 15:05:27.094063  4985 net.cpp:406] Scale15 <- Convolution15
I1023 15:05:27.094066  4985 net.cpp:367] Scale15 -> Convolution15 (in-place)
I1023 15:05:27.094094  4985 layer_factory.hpp:77] Creating layer Scale15
I1023 15:05:27.094171  4985 net.cpp:122] Setting up Scale15
I1023 15:05:27.094175  4985 net.cpp:129] Top shape: 8 64 56 56 (1605632)
I1023 15:05:27.094178  4985 net.cpp:137] Memory required for data: 1488420896
I1023 15:05:27.094182  4985 layer_factory.hpp:77] Creating layer Convolution16
I1023 15:05:27.094189  4985 net.cpp:84] Creating Layer Convolution16
I1023 15:05:27.094200  4985 net.cpp:406] Convolution16 <- Eltwise6_PReLU13_0_split_1
I1023 15:05:27.094207  4985 net.cpp:380] Convolution16 -> Convolution16
I1023 15:05:27.095444  4985 net.cpp:122] Setting up Convolution16
I1023 15:05:27.095455  4985 net.cpp:129] Top shape: 8 64 56 56 (1605632)
I1023 15:05:27.095459  4985 net.cpp:137] Memory required for data: 1494843424
I1023 15:05:27.095464  4985 layer_factory.hpp:77] Creating layer BatchNorm16
I1023 15:05:27.095469  4985 net.cpp:84] Creating Layer BatchNorm16
I1023 15:05:27.095474  4985 net.cpp:406] BatchNorm16 <- Convolution16
I1023 15:05:27.095477  4985 net.cpp:367] BatchNorm16 -> Convolution16 (in-place)
I1023 15:05:27.095605  4985 net.cpp:122] Setting up BatchNorm16
I1023 15:05:27.095610  4985 net.cpp:129] Top shape: 8 64 56 56 (1605632)
I1023 15:05:27.095614  4985 net.cpp:137] Memory required for data: 1501265952
I1023 15:05:27.095619  4985 layer_factory.hpp:77] Creating layer Scale16
I1023 15:05:27.095624  4985 net.cpp:84] Creating Layer Scale16
I1023 15:05:27.095628  4985 net.cpp:406] Scale16 <- Convolution16
I1023 15:05:27.095630  4985 net.cpp:367] Scale16 -> Convolution16 (in-place)
I1023 15:05:27.095656  4985 layer_factory.hpp:77] Creating layer Scale16
I1023 15:05:27.095733  4985 net.cpp:122] Setting up Scale16
I1023 15:05:27.095738  4985 net.cpp:129] Top shape: 8 64 56 56 (1605632)
I1023 15:05:27.095741  4985 net.cpp:137] Memory required for data: 1507688480
I1023 15:05:27.095746  4985 layer_factory.hpp:77] Creating layer PReLU14
I1023 15:05:27.095751  4985 net.cpp:84] Creating Layer PReLU14
I1023 15:05:27.095754  4985 net.cpp:406] PReLU14 <- Convolution16
I1023 15:05:27.095757  4985 net.cpp:367] PReLU14 -> Convolution16 (in-place)
I1023 15:05:27.095948  4985 net.cpp:122] Setting up PReLU14
I1023 15:05:27.095953  4985 net.cpp:129] Top shape: 8 64 56 56 (1605632)
I1023 15:05:27.095964  4985 net.cpp:137] Memory required for data: 1514111008
I1023 15:05:27.095971  4985 layer_factory.hpp:77] Creating layer Convolution17
I1023 15:05:27.095980  4985 net.cpp:84] Creating Layer Convolution17
I1023 15:05:27.095983  4985 net.cpp:406] Convolution17 <- Convolution16
I1023 15:05:27.095988  4985 net.cpp:380] Convolution17 -> Convolution17
I1023 15:05:27.097286  4985 net.cpp:122] Setting up Convolution17
I1023 15:05:27.097295  4985 net.cpp:129] Top shape: 8 64 56 56 (1605632)
I1023 15:05:27.097298  4985 net.cpp:137] Memory required for data: 1520533536
I1023 15:05:27.097302  4985 layer_factory.hpp:77] Creating layer BatchNorm17
I1023 15:05:27.097308  4985 net.cpp:84] Creating Layer BatchNorm17
I1023 15:05:27.097311  4985 net.cpp:406] BatchNorm17 <- Convolution17
I1023 15:05:27.097314  4985 net.cpp:367] BatchNorm17 -> Convolution17 (in-place)
I1023 15:05:27.097445  4985 net.cpp:122] Setting up BatchNorm17
I1023 15:05:27.097450  4985 net.cpp:129] Top shape: 8 64 56 56 (1605632)
I1023 15:05:27.097453  4985 net.cpp:137] Memory required for data: 1526956064
I1023 15:05:27.097467  4985 layer_factory.hpp:77] Creating layer Scale17
I1023 15:05:27.097473  4985 net.cpp:84] Creating Layer Scale17
I1023 15:05:27.097477  4985 net.cpp:406] Scale17 <- Convolution17
I1023 15:05:27.097481  4985 net.cpp:367] Scale17 -> Convolution17 (in-place)
I1023 15:05:27.097507  4985 layer_factory.hpp:77] Creating layer Scale17
I1023 15:05:27.097584  4985 net.cpp:122] Setting up Scale17
I1023 15:05:27.097589  4985 net.cpp:129] Top shape: 8 64 56 56 (1605632)
I1023 15:05:27.097592  4985 net.cpp:137] Memory required for data: 1533378592
I1023 15:05:27.097596  4985 layer_factory.hpp:77] Creating layer Eltwise7
I1023 15:05:27.097602  4985 net.cpp:84] Creating Layer Eltwise7
I1023 15:05:27.097605  4985 net.cpp:406] Eltwise7 <- Convolution15
I1023 15:05:27.097609  4985 net.cpp:406] Eltwise7 <- Convolution17
I1023 15:05:27.097611  4985 net.cpp:380] Eltwise7 -> Eltwise7
I1023 15:05:27.097628  4985 net.cpp:122] Setting up Eltwise7
I1023 15:05:27.097633  4985 net.cpp:129] Top shape: 8 64 56 56 (1605632)
I1023 15:05:27.097636  4985 net.cpp:137] Memory required for data: 1539801120
I1023 15:05:27.097645  4985 layer_factory.hpp:77] Creating layer PReLU15
I1023 15:05:27.097651  4985 net.cpp:84] Creating Layer PReLU15
I1023 15:05:27.097652  4985 net.cpp:406] PReLU15 <- Eltwise7
I1023 15:05:27.097656  4985 net.cpp:367] PReLU15 -> Eltwise7 (in-place)
I1023 15:05:27.098322  4985 net.cpp:122] Setting up PReLU15
I1023 15:05:27.098331  4985 net.cpp:129] Top shape: 8 64 56 56 (1605632)
I1023 15:05:27.098335  4985 net.cpp:137] Memory required for data: 1546223648
I1023 15:05:27.098337  4985 layer_factory.hpp:77] Creating layer Eltwise7_PReLU15_0_split
I1023 15:05:27.098342  4985 net.cpp:84] Creating Layer Eltwise7_PReLU15_0_split
I1023 15:05:27.098345  4985 net.cpp:406] Eltwise7_PReLU15_0_split <- Eltwise7
I1023 15:05:27.098348  4985 net.cpp:380] Eltwise7_PReLU15_0_split -> Eltwise7_PReLU15_0_split_0
I1023 15:05:27.098353  4985 net.cpp:380] Eltwise7_PReLU15_0_split -> Eltwise7_PReLU15_0_split_1
I1023 15:05:27.098377  4985 net.cpp:122] Setting up Eltwise7_PReLU15_0_split
I1023 15:05:27.098381  4985 net.cpp:129] Top shape: 8 64 56 56 (1605632)
I1023 15:05:27.098384  4985 net.cpp:129] Top shape: 8 64 56 56 (1605632)
I1023 15:05:27.098387  4985 net.cpp:137] Memory required for data: 1559068704
I1023 15:05:27.098388  4985 layer_factory.hpp:77] Creating layer Convolution18
I1023 15:05:27.098394  4985 net.cpp:84] Creating Layer Convolution18
I1023 15:05:27.098397  4985 net.cpp:406] Convolution18 <- Eltwise7_PReLU15_0_split_0
I1023 15:05:27.098402  4985 net.cpp:380] Convolution18 -> Convolution18
I1023 15:05:27.100388  4985 net.cpp:122] Setting up Convolution18
I1023 15:05:27.100396  4985 net.cpp:129] Top shape: 8 64 56 56 (1605632)
I1023 15:05:27.100399  4985 net.cpp:137] Memory required for data: 1565491232
I1023 15:05:27.100404  4985 layer_factory.hpp:77] Creating layer BatchNorm18
I1023 15:05:27.100409  4985 net.cpp:84] Creating Layer BatchNorm18
I1023 15:05:27.100412  4985 net.cpp:406] BatchNorm18 <- Convolution18
I1023 15:05:27.100416  4985 net.cpp:367] BatchNorm18 -> Convolution18 (in-place)
I1023 15:05:27.100549  4985 net.cpp:122] Setting up BatchNorm18
I1023 15:05:27.100553  4985 net.cpp:129] Top shape: 8 64 56 56 (1605632)
I1023 15:05:27.100556  4985 net.cpp:137] Memory required for data: 1571913760
I1023 15:05:27.100561  4985 layer_factory.hpp:77] Creating layer Scale18
I1023 15:05:27.100565  4985 net.cpp:84] Creating Layer Scale18
I1023 15:05:27.100569  4985 net.cpp:406] Scale18 <- Convolution18
I1023 15:05:27.100571  4985 net.cpp:367] Scale18 -> Convolution18 (in-place)
I1023 15:05:27.100596  4985 layer_factory.hpp:77] Creating layer Scale18
I1023 15:05:27.100672  4985 net.cpp:122] Setting up Scale18
I1023 15:05:27.100677  4985 net.cpp:129] Top shape: 8 64 56 56 (1605632)
I1023 15:05:27.100678  4985 net.cpp:137] Memory required for data: 1578336288
I1023 15:05:27.100682  4985 layer_factory.hpp:77] Creating layer PReLU16
I1023 15:05:27.100687  4985 net.cpp:84] Creating Layer PReLU16
I1023 15:05:27.100688  4985 net.cpp:406] PReLU16 <- Convolution18
I1023 15:05:27.100692  4985 net.cpp:367] PReLU16 -> Convolution18 (in-place)
I1023 15:05:27.100836  4985 net.cpp:122] Setting up PReLU16
I1023 15:05:27.100839  4985 net.cpp:129] Top shape: 8 64 56 56 (1605632)
I1023 15:05:27.100841  4985 net.cpp:137] Memory required for data: 1584758816
I1023 15:05:27.100845  4985 layer_factory.hpp:77] Creating layer Convolution19
I1023 15:05:27.100852  4985 net.cpp:84] Creating Layer Convolution19
I1023 15:05:27.100854  4985 net.cpp:406] Convolution19 <- Convolution18
I1023 15:05:27.100858  4985 net.cpp:380] Convolution19 -> Convolution19
I1023 15:05:27.103036  4985 net.cpp:122] Setting up Convolution19
I1023 15:05:27.103046  4985 net.cpp:129] Top shape: 8 64 56 56 (1605632)
I1023 15:05:27.103049  4985 net.cpp:137] Memory required for data: 1591181344
I1023 15:05:27.103055  4985 layer_factory.hpp:77] Creating layer BatchNorm19
I1023 15:05:27.103060  4985 net.cpp:84] Creating Layer BatchNorm19
I1023 15:05:27.103062  4985 net.cpp:406] BatchNorm19 <- Convolution19
I1023 15:05:27.103066  4985 net.cpp:367] BatchNorm19 -> Convolution19 (in-place)
I1023 15:05:27.103206  4985 net.cpp:122] Setting up BatchNorm19
I1023 15:05:27.103211  4985 net.cpp:129] Top shape: 8 64 56 56 (1605632)
I1023 15:05:27.103214  4985 net.cpp:137] Memory required for data: 1597603872
I1023 15:05:27.103219  4985 layer_factory.hpp:77] Creating layer Scale19
I1023 15:05:27.103224  4985 net.cpp:84] Creating Layer Scale19
I1023 15:05:27.103226  4985 net.cpp:406] Scale19 <- Convolution19
I1023 15:05:27.103229  4985 net.cpp:367] Scale19 -> Convolution19 (in-place)
I1023 15:05:27.103256  4985 layer_factory.hpp:77] Creating layer Scale19
I1023 15:05:27.103334  4985 net.cpp:122] Setting up Scale19
I1023 15:05:27.103338  4985 net.cpp:129] Top shape: 8 64 56 56 (1605632)
I1023 15:05:27.103340  4985 net.cpp:137] Memory required for data: 1604026400
I1023 15:05:27.103344  4985 layer_factory.hpp:77] Creating layer Eltwise8
I1023 15:05:27.103348  4985 net.cpp:84] Creating Layer Eltwise8
I1023 15:05:27.103351  4985 net.cpp:406] Eltwise8 <- Eltwise7_PReLU15_0_split_1
I1023 15:05:27.103354  4985 net.cpp:406] Eltwise8 <- Convolution19
I1023 15:05:27.103358  4985 net.cpp:380] Eltwise8 -> Eltwise8
I1023 15:05:27.103373  4985 net.cpp:122] Setting up Eltwise8
I1023 15:05:27.103376  4985 net.cpp:129] Top shape: 8 64 56 56 (1605632)
I1023 15:05:27.103379  4985 net.cpp:137] Memory required for data: 1610448928
I1023 15:05:27.103380  4985 layer_factory.hpp:77] Creating layer PReLU17
I1023 15:05:27.103384  4985 net.cpp:84] Creating Layer PReLU17
I1023 15:05:27.103386  4985 net.cpp:406] PReLU17 <- Eltwise8
I1023 15:05:27.103389  4985 net.cpp:367] PReLU17 -> Eltwise8 (in-place)
I1023 15:05:27.104066  4985 net.cpp:122] Setting up PReLU17
I1023 15:05:27.104075  4985 net.cpp:129] Top shape: 8 64 56 56 (1605632)
I1023 15:05:27.104079  4985 net.cpp:137] Memory required for data: 1616871456
I1023 15:05:27.104082  4985 layer_factory.hpp:77] Creating layer Eltwise8_PReLU17_0_split
I1023 15:05:27.104086  4985 net.cpp:84] Creating Layer Eltwise8_PReLU17_0_split
I1023 15:05:27.104089  4985 net.cpp:406] Eltwise8_PReLU17_0_split <- Eltwise8
I1023 15:05:27.104094  4985 net.cpp:380] Eltwise8_PReLU17_0_split -> Eltwise8_PReLU17_0_split_0
I1023 15:05:27.104099  4985 net.cpp:380] Eltwise8_PReLU17_0_split -> Eltwise8_PReLU17_0_split_1
I1023 15:05:27.104122  4985 net.cpp:122] Setting up Eltwise8_PReLU17_0_split
I1023 15:05:27.104126  4985 net.cpp:129] Top shape: 8 64 56 56 (1605632)
I1023 15:05:27.104130  4985 net.cpp:129] Top shape: 8 64 56 56 (1605632)
I1023 15:05:27.104131  4985 net.cpp:137] Memory required for data: 1629716512
I1023 15:05:27.104135  4985 layer_factory.hpp:77] Creating layer Convolution20
I1023 15:05:27.104140  4985 net.cpp:84] Creating Layer Convolution20
I1023 15:05:27.104143  4985 net.cpp:406] Convolution20 <- Eltwise8_PReLU17_0_split_0
I1023 15:05:27.104147  4985 net.cpp:380] Convolution20 -> Convolution20
I1023 15:05:27.106483  4985 net.cpp:122] Setting up Convolution20
I1023 15:05:27.106492  4985 net.cpp:129] Top shape: 8 64 56 56 (1605632)
I1023 15:05:27.106495  4985 net.cpp:137] Memory required for data: 1636139040
I1023 15:05:27.106500  4985 layer_factory.hpp:77] Creating layer BatchNorm20
I1023 15:05:27.106505  4985 net.cpp:84] Creating Layer BatchNorm20
I1023 15:05:27.106508  4985 net.cpp:406] BatchNorm20 <- Convolution20
I1023 15:05:27.106513  4985 net.cpp:367] BatchNorm20 -> Convolution20 (in-place)
I1023 15:05:27.106647  4985 net.cpp:122] Setting up BatchNorm20
I1023 15:05:27.106652  4985 net.cpp:129] Top shape: 8 64 56 56 (1605632)
I1023 15:05:27.106654  4985 net.cpp:137] Memory required for data: 1642561568
I1023 15:05:27.106659  4985 layer_factory.hpp:77] Creating layer Scale20
I1023 15:05:27.106663  4985 net.cpp:84] Creating Layer Scale20
I1023 15:05:27.106667  4985 net.cpp:406] Scale20 <- Convolution20
I1023 15:05:27.106669  4985 net.cpp:367] Scale20 -> Convolution20 (in-place)
I1023 15:05:27.106695  4985 layer_factory.hpp:77] Creating layer Scale20
I1023 15:05:27.106775  4985 net.cpp:122] Setting up Scale20
I1023 15:05:27.106778  4985 net.cpp:129] Top shape: 8 64 56 56 (1605632)
I1023 15:05:27.106788  4985 net.cpp:137] Memory required for data: 1648984096
I1023 15:05:27.106793  4985 layer_factory.hpp:77] Creating layer PReLU18
I1023 15:05:27.106797  4985 net.cpp:84] Creating Layer PReLU18
I1023 15:05:27.106801  4985 net.cpp:406] PReLU18 <- Convolution20
I1023 15:05:27.106803  4985 net.cpp:367] PReLU18 -> Convolution20 (in-place)
I1023 15:05:27.106950  4985 net.cpp:122] Setting up PReLU18
I1023 15:05:27.106954  4985 net.cpp:129] Top shape: 8 64 56 56 (1605632)
I1023 15:05:27.106956  4985 net.cpp:137] Memory required for data: 1655406624
I1023 15:05:27.106959  4985 layer_factory.hpp:77] Creating layer Convolution21
I1023 15:05:27.106966  4985 net.cpp:84] Creating Layer Convolution21
I1023 15:05:27.106968  4985 net.cpp:406] Convolution21 <- Convolution20
I1023 15:05:27.106972  4985 net.cpp:380] Convolution21 -> Convolution21
I1023 15:05:27.108634  4985 net.cpp:122] Setting up Convolution21
I1023 15:05:27.108644  4985 net.cpp:129] Top shape: 8 64 56 56 (1605632)
I1023 15:05:27.108646  4985 net.cpp:137] Memory required for data: 1661829152
I1023 15:05:27.108651  4985 layer_factory.hpp:77] Creating layer BatchNorm21
I1023 15:05:27.108656  4985 net.cpp:84] Creating Layer BatchNorm21
I1023 15:05:27.108659  4985 net.cpp:406] BatchNorm21 <- Convolution21
I1023 15:05:27.108664  4985 net.cpp:367] BatchNorm21 -> Convolution21 (in-place)
I1023 15:05:27.108793  4985 net.cpp:122] Setting up BatchNorm21
I1023 15:05:27.108798  4985 net.cpp:129] Top shape: 8 64 56 56 (1605632)
I1023 15:05:27.108799  4985 net.cpp:137] Memory required for data: 1668251680
I1023 15:05:27.108804  4985 layer_factory.hpp:77] Creating layer Scale21
I1023 15:05:27.108809  4985 net.cpp:84] Creating Layer Scale21
I1023 15:05:27.108811  4985 net.cpp:406] Scale21 <- Convolution21
I1023 15:05:27.108814  4985 net.cpp:367] Scale21 -> Convolution21 (in-place)
I1023 15:05:27.108840  4985 layer_factory.hpp:77] Creating layer Scale21
I1023 15:05:27.108917  4985 net.cpp:122] Setting up Scale21
I1023 15:05:27.108922  4985 net.cpp:129] Top shape: 8 64 56 56 (1605632)
I1023 15:05:27.108923  4985 net.cpp:137] Memory required for data: 1674674208
I1023 15:05:27.108927  4985 layer_factory.hpp:77] Creating layer Eltwise9
I1023 15:05:27.108932  4985 net.cpp:84] Creating Layer Eltwise9
I1023 15:05:27.108934  4985 net.cpp:406] Eltwise9 <- Eltwise8_PReLU17_0_split_1
I1023 15:05:27.108937  4985 net.cpp:406] Eltwise9 <- Convolution21
I1023 15:05:27.108940  4985 net.cpp:380] Eltwise9 -> Eltwise9
I1023 15:05:27.108955  4985 net.cpp:122] Setting up Eltwise9
I1023 15:05:27.108959  4985 net.cpp:129] Top shape: 8 64 56 56 (1605632)
I1023 15:05:27.108961  4985 net.cpp:137] Memory required for data: 1681096736
I1023 15:05:27.108963  4985 layer_factory.hpp:77] Creating layer PReLU19
I1023 15:05:27.108968  4985 net.cpp:84] Creating Layer PReLU19
I1023 15:05:27.108969  4985 net.cpp:406] PReLU19 <- Eltwise9
I1023 15:05:27.108973  4985 net.cpp:367] PReLU19 -> Eltwise9 (in-place)
I1023 15:05:27.109627  4985 net.cpp:122] Setting up PReLU19
I1023 15:05:27.109634  4985 net.cpp:129] Top shape: 8 64 56 56 (1605632)
I1023 15:05:27.109637  4985 net.cpp:137] Memory required for data: 1687519264
I1023 15:05:27.109642  4985 layer_factory.hpp:77] Creating layer Pooling1
I1023 15:05:27.109647  4985 net.cpp:84] Creating Layer Pooling1
I1023 15:05:27.109649  4985 net.cpp:406] Pooling1 <- Eltwise9
I1023 15:05:27.109652  4985 net.cpp:380] Pooling1 -> Pooling1
I1023 15:05:27.109797  4985 net.cpp:122] Setting up Pooling1
I1023 15:05:27.109804  4985 net.cpp:129] Top shape: 8 64 1 1 (512)
I1023 15:05:27.109807  4985 net.cpp:137] Memory required for data: 1687521312
I1023 15:05:27.109809  4985 layer_factory.hpp:77] Creating layer InnerProduct1
I1023 15:05:27.109817  4985 net.cpp:84] Creating Layer InnerProduct1
I1023 15:05:27.109819  4985 net.cpp:406] InnerProduct1 <- Pooling1
I1023 15:05:27.109823  4985 net.cpp:380] InnerProduct1 -> InnerProduct1
I1023 15:05:27.109899  4985 net.cpp:122] Setting up InnerProduct1
I1023 15:05:27.109905  4985 net.cpp:129] Top shape: 8 4 (32)
I1023 15:05:27.109906  4985 net.cpp:137] Memory required for data: 1687521440
I1023 15:05:27.109918  4985 layer_factory.hpp:77] Creating layer SoftmaxWithLoss1
I1023 15:05:27.109923  4985 net.cpp:84] Creating Layer SoftmaxWithLoss1
I1023 15:05:27.109926  4985 net.cpp:406] SoftmaxWithLoss1 <- InnerProduct1
I1023 15:05:27.109930  4985 net.cpp:406] SoftmaxWithLoss1 <- Data2
I1023 15:05:27.109933  4985 net.cpp:380] SoftmaxWithLoss1 -> SoftmaxWithLoss1
…
I1023 15:05:27.112208  4985 net.cpp:294] The NetState phase (1) differed from the phase (0) specified by a rule in layer Data1
I1023 15:05:27.112571  4985 net.cpp:51] Initializing net from parameters: 
name: "resnet"
state {
  phase: TEST
}
layer {
  name: "Data1"
  type: "Data"
  top: "Data1"
  top: "Data2"
  include {
    phase: TEST
  }
  transform_param {
    mirror: false
    crop_size: 224
    mean_file: "/home/x306/caffe/xn/English_orange/data/orange1_mean.binaryproto"
  }
  data_param {
    source: "/home/x306/caffe/xn/English_orange/data/val1_lmdb"
    batch_size: 8
    backend: LMDB
  }
}
layer {
  name: "Convolution1"
  type: "Convolution"
  bottom: "Data1"
  top: "Convolution1"
  param {
    lr_mult: 1
    decay_mult: 1
  }
  param {
    lr_mult: 2
    decay_mult: 0
  }
  convolution_param {
    num_output: 16
    pad: 1
    kernel_size: 3
    stride: 1
    weight_filler {
      type: "gaussian"
      std: 0.118
    }
    bias_filler {
      type: "constant"
      value: 0
    }
  }
}
layer {
  name: "BatchNorm1"
  type: "BatchNorm"
  bottom: "Convolution1"
  top: "Convolution1"
  param {
    lr_mult: 0
    decay_mult: 0
  }
  param {
    lr_mult: 0
    decay_mult: 0
  }
  param {
    lr_mult: 0
    decay_mult: 0
  }
}
layer {
  name: "Scale1"
  type: "Scale"
  bottom: "Convolution1"
  top: "Convolution1"
  scale_param {
    bias_term: true
  }
}
layer {
  name: "PReLU1"
  type: "PReLU"
  bottom: "Convolution1"
  top: "Convolution1"
}
layer {
  name: "Convolution2"
  type: "Convolution"
  bottom: "Convolution1"
  top: "Convolution2"
  param {
    lr_mult: 1
    decay_mult: 1
  }
  param {
    lr_mult: 2
    decay_mult: 0
  }
  convolution_param {
    num_output: 16
    pad: 1
    kernel_size: 3
    stride: 1
    weight_filler {
      type: "gaussian"
      std: 0.118
    }
    bias_filler {
      type: "constant"
      value: 0
    }
  }
}
layer {
  name: "BatchNorm2"
  type: "BatchNorm"
  bottom: "Convolution2"
  top: "Convolution2"
  param {
    lr_mult: 0
    decay_mult: 0
  }
  param {
    lr_mult: 0
    decay_mult: 0
  }
  param {
    lr_mult: 0
    decay_mult: 0
  }
}
layer {
  name: "Scale2"
  type: "Scale"
  bottom: "Convolution2"
  top: "Convolution2"
  scale_param {
    bias_term: true
  }
}
layer {
  name: "PReLU2"
  type: "PReLU"
  bottom: "Convolution2"
  top: "Convolution2"
}
layer {
  name: "Convolution3"
  type: "Convolution"
  bottom: "Convolution2"
  top: "Convolution3"
  param {
    lr_mult: 1
    decay_mult: 1
  }
  param {
    lr_mult: 2
    decay_mult: 0
  }
  convolution_param {
    num_output: 16
    pad: 1
    kernel_size: 3
    stride: 1
    weight_filler {
      type: "gaussian"
      std: 0.118
    }
    bias_filler {
      type: "constant"
      value: 0
    }
  }
}
layer {
  name: "BatchNorm3"
  type: "BatchNorm"
  bottom: "Convolution3"
  top: "Convolution3"
  param {
    lr_mult: 0
    decay_mult: 0
  }
  param {
    lr_mult: 0
    decay_mult: 0
  }
  param {
    lr_mult: 0
    decay_mult: 0
  }
}
layer {
  name: "Scale3"
  type: "Scale"
  bottom: "Convolution3"
  top: "Convolution3"
  scale_param {
    bias_term: true
  }
}
layer {
  name: "Eltwise1"
  type: "Eltwise"
  bottom: "Convolution1"
  bottom: "Convolution3"
  top: "Eltwise1"
  eltwise_param {
    operation: SUM
  }
}
layer {
  name: "PReLU3"
  type: "PReLU"
  bottom: "Eltwise1"
  top: "Eltwise1"
}
layer {
  name: "Convolution4"
  type: "Convolution"
  bottom: "Eltwise1"
  top: "Convolution4"
  param {
    lr_mult: 1
    decay_mult: 1
  }
  param {
    lr_mult: 2
    decay_mult: 0
  }
  convolution_param {
    num_output: 16
    pad: 1
    kernel_size: 3
    stride: 1
    weight_filler {
      type: "gaussian"
      std: 0.118
    }
    bias_filler {
      type: "constant"
      value: 0
    }
  }
}
layer {
  name: "BatchNorm4"
  type: "BatchNorm"
  bottom: "Convolution4"
  top: "Convolution4"
  param {
    lr_mult: 0
    decay_mult: 0
  }
  param {
    lr_mult: 0
    decay_mult: 0
  }
  param {
    lr_mult: 0
    decay_mult: 0
  }
}
layer {
  name: "Scale4"
  type: "Scale"
  bottom: "Convolution4"
  top: "Convolution4"
  scale_param {
    bias_term: true
  }
}
layer {
  name: "PReLU4"
  type: "PReLU"
  bottom: "Convolution4"
  top: "Convolution4"
}
layer {
  name: "Convolution5"
  type: "Convolution"
  bottom: "Convolution4"
  top: "Convolution5"
  param {
    lr_mult: 1
    decay_mult: 1
  }
  param {
    lr_mult: 2
    decay_mult: 0
  }
  convolution_param {
    num_output: 16
    pad: 1
    kernel_size: 3
    stride: 1
    weight_filler {
      type: "gaussian"
      std: 0.118
    }
    bias_filler {
      type: "constant"
      value: 0
    }
  }
}
layer {
  name: "BatchNorm5"
  type: "BatchNorm"
  bottom: "Convolution5"
  top: "Convolution5"
  param {
    lr_mult: 0
    decay_mult: 0
  }
  param {
    lr_mult: 0
    decay_mult: 0
  }
  param {
    lr_mult: 0
    decay_mult: 0
  }
}
layer {
  name: "Scale5"
  type: "Scale"
  bottom: "Convolution5"
  top: "Convolution5"
  scale_param {
    bias_term: true
  }
}
layer {
  name: "Eltwise2"
  type: "Eltwise"
  bottom: "Eltwise1"
  bottom: "Convolution5"
  top: "Eltwise2"
  eltwise_param {
    operation: SUM
  }
}
layer {
  name: "PReLU5"
  type: "PReLU"
  bottom: "Eltwise2"
  top: "Eltwise2"
}
layer {
  name: "Convolution6"
  type: "Convolution"
  bottom: "Eltwise2"
  top: "Convolution6"
  param {
    lr_mult: 1
    decay_mult: 1
  }
  param {
    lr_mult: 2
    decay_mult: 0
  }
  convolution_param {
    num_output: 16
    pad: 1
    kernel_size: 3
    stride: 1
    weight_filler {
      type: "gaussian"
      std: 0.118
    }
    bias_filler {
      type: "constant"
      value: 0
    }
  }
}
layer {
  name: "BatchNorm6"
  type: "BatchNorm"
  bottom: "Convolution6"
  top: "Convolution6"
  param {
    lr_mult: 0
    decay_mult: 0
  }
  param {
    lr_mult: 0
    decay_mult: 0
  }
  param {
    lr_mult: 0
    decay_mult: 0
  }
}
layer {
  name: "Scale6"
  type: "Scale"
  bottom: "Convolution6"
  top: "Convolution6"
  scale_param {
    bias_term: true
  }
}
layer {
  name: "PReLU6"
  type: "PReLU"
  bottom: "Convolution6"
  top: "Convolution6"
}
layer {
  name: "Convolution7"
  type: "Convolution"
  bottom: "Convolution6"
  top: "Convolution7"
  param {
    lr_mult: 1
    decay_mult: 1
  }
  param {
    lr_mult: 2
    decay_mult: 0
  }
  convolution_param {
    num_output: 16
    pad: 1
    kernel_size: 3
    stride: 1
    weight_filler {
      type: "gaussian"
      std: 0.118
    }
    bias_filler {
      type: "constant"
      value: 0
    }
  }
}
layer {
  name: "BatchNorm7"
  type: "BatchNorm"
  bottom: "Convolution7"
  top: "Convolution7"
  param {
    lr_mult: 0
    decay_mult: 0
  }
  param {
    lr_mult: 0
    decay_mult: 0
  }
  param {
    lr_mult: 0
    decay_mult: 0
  }
}
layer {
  name: "Scale7"
  type: "Scale"
  bottom: "Convolution7"
  top: "Convolution7"
  scale_param {
    bias_term: true
  }
}
layer {
  name: "Eltwise3"
  type: "Eltwise"
  bottom: "Eltwise2"
  bottom: "Convolution7"
  top: "Eltwise3"
  eltwise_param {
    operation: SUM
  }
}
layer {
  name: "PReLU7"
  type: "PReLU"
  bottom: "Eltwise3"
  top: "Eltwise3"
}
layer {
  name: "Convolution8"
  type: "Convolution"
  bottom: "Eltwise3"
  top: "Convolution8"
  param {
    lr_mult: 1
    decay_mult: 1
  }
  param {
    lr_mult: 2
    decay_mult: 0
  }
  convolution_param {
    num_output: 32
    pad: 0
    kernel_size: 1
    stride: 2
    weight_filler {
      type: "gaussian"
      std: 0.25
    }
    bias_filler {
      type: "constant"
      value: 0
    }
  }
}
layer {
  name: "BatchNorm8"
  type: "BatchNorm"
  bottom: "Convolution8"
  top: "Convolution8"
  param {
    lr_mult: 0
    decay_mult: 0
  }
  param {
    lr_mult: 0
    decay_mult: 0
  }
  param {
    lr_mult: 0
    decay_mult: 0
  }
}
layer {
  name: "Scale8"
  type: "Scale"
  bottom: "Convolution8"
  top: "Convolution8"
  scale_param {
    bias_term: true
  }
}
layer {
  name: "Convolution9"
  type: "Convolution"
  bottom: "Eltwise3"
  top: "Convolution9"
  param {
    lr_mult: 1
    decay_mult: 1
  }
  param {
    lr_mult: 2
    decay_mult: 0
  }
  convolution_param {
    num_output: 32
    pad: 1
    kernel_size: 3
    stride: 2
    weight_filler {
      type: "gaussian"
      std: 0.083
    }
    bias_filler {
      type: "constant"
      value: 0
    }
  }
}
layer {
  name: "BatchNorm9"
  type: "BatchNorm"
  bottom: "Convolution9"
  top: "Convolution9"
  param {
    lr_mult: 0
    decay_mult: 0
  }
  param {
    lr_mult: 0
    decay_mult: 0
  }
  param {
    lr_mult: 0
    decay_mult: 0
  }
}
layer {
  name: "Scale9"
  type: "Scale"
  bottom: "Convolution9"
  top: "Convolution9"
  scale_param {
    bias_term: true
  }
}
layer {
  name: "PReLU8"
  type: "PReLU"
  bottom: "Convolution9"
  top: "Convolution9"
}
layer {
  name: "Convolution10"
  type: "Convolution"
  bottom: "Convolution9"
  top: "Convolution10"
  param {
    lr_mult: 1
    decay_mult: 1
  }
  param {
    lr_mult: 2
    decay_mult: 0
  }
  convolution_param {
    num_output: 32
    pad: 1
    kernel_size: 3
    stride: 1
    weight_filler {
      type: "gaussian"
      std: 0.083
    }
    bias_filler {
      type: "constant"
      value: 0
    }
  }
}
layer {
  name: "BatchNorm10"
  type: "BatchNorm"
  bottom: "Convolution10"
  top: "Convolution10"
  param {
    lr_mult: 0
    decay_mult: 0
  }
  param {
    lr_mult: 0
    decay_mult: 0
  }
  param {
    lr_mult: 0
    decay_mult: 0
  }
}
layer {
  name: "Scale10"
  type: "Scale"
  bottom: "Convolution10"
  top: "Convolution10"
  scale_param {
    bias_term: true
  }
}
layer {
  name: "Eltwise4"
  type: "Eltwise"
  bottom: "Convolution8"
  bottom: "Convolution10"
  top: "Eltwise4"
  eltwise_param {
    operation: SUM
  }
}
layer {
  name: "PReLU9"
  type: "PReLU"
  bottom: "Eltwise4"
  top: "Eltwise4"
}
layer {
  name: "Convolution11"
  type: "Convolution"
  bottom: "Eltwise4"
  top: "Convolution11"
  param {
    lr_mult: 1
    decay_mult: 1
  }
  param {
    lr_mult: 2
    decay_mult: 0
  }
  convolution_param {
    num_output: 32
    pad: 1
    kernel_size: 3
    stride: 1
    weight_filler {
      type: "gaussian"
      std: 0.083
    }
    bias_filler {
      type: "constant"
      value: 0
    }
  }
}
layer {
  name: "BatchNorm11"
  type: "BatchNorm"
  bottom: "Convolution11"
  top: "Convolution11"
  param {
    lr_mult: 0
    decay_mult: 0
  }
  param {
    lr_mult: 0
    decay_mult: 0
  }
  param {
    lr_mult: 0
    decay_mult: 0
  }
}
layer {
  name: "Scale11"
  type: "Scale"
  bottom: "Convolution11"
  top: "Convolution11"
  scale_param {
    bias_term: true
  }
}
layer {
  name: "PReLU10"
  type: "PReLU"
  bottom: "Convolution11"
  top: "Convolution11"
}
layer {
  name: "Convolution12"
  type: "Convolution"
  bottom: "Convolution11"
  top: "Convolution12"
  param {
    lr_mult: 1
    decay_mult: 1
  }
  param {
    lr_mult: 2
    decay_mult: 0
  }
  convolution_param {
    num_output: 32
    pad: 1
    kernel_size: 3
    stride: 1
    weight_filler {
      type: "gaussian"
      std: 0.083
    }
    bias_filler {
      type: "constant"
      value: 0
    }
  }
}
layer {
  name: "BatchNorm12"
  type: "BatchNorm"
  bottom: "Convolution12"
  top: "Convolution12"
  param {
    lr_mult: 0
    decay_mult: 0
  }
  param {
    lr_mult: 0
    decay_mult: 0
  }
  param {
    lr_mult: 0
    decay_mult: 0
  }
}
layer {
  name: "Scale12"
  type: "Scale"
  bottom: "Convolution12"
  top: "Convolution12"
  scale_param {
    bias_term: true
  }
}
layer {
  name: "Eltwise5"
  type: "Eltwise"
  bottom: "Eltwise4"
  bottom: "Convolution12"
  top: "Eltwise5"
  eltwise_param {
    operation: SUM
  }
}
layer {
  name: "PReLU11"
  type: "PReLU"
  bottom: "Eltwise5"
  top: "Eltwise5"
}
layer {
  name: "Convolution13"
  type: "Convolution"
  bottom: "Eltwise5"
  top: "Convolution13"
  param {
    lr_mult: 1
    decay_mult: 1
  }
  param {
    lr_mult: 2
    decay_mult: 0
  }
  convolution_param {
    num_output: 32
    pad: 1
    kernel_size: 3
    stride: 1
    weight_filler {
      type: "gaussian"
      std: 0.083
    }
    bias_filler {
      type: "constant"
      value: 0
    }
  }
}
layer {
  name: "BatchNorm13"
  type: "BatchNorm"
  bottom: "Convolution13"
  top: "Convolution13"
  param {
    lr_mult: 0
    decay_mult: 0
  }
  param {
    lr_mult: 0
    decay_mult: 0
  }
  param {
    lr_mult: 0
    decay_mult: 0
  }
}
layer {
  name: "Scale13"
  type: "Scale"
  bottom: "Convolution13"
  top: "Convolution13"
  scale_param {
    bias_term: true
  }
}
layer {
  name: "PReLU12"
  type: "PReLU"
  bottom: "Convolution13"
  top: "Convolution13"
}
layer {
  name: "Convolution14"
  type: "Convolution"
  bottom: "Convolution13"
  top: "Convolution14"
  param {
    lr_mult: 1
    decay_mult: 1
  }
  param {
    lr_mult: 2
    decay_mult: 0
  }
  convolution_param {
    num_output: 32
    pad: 1
    kernel_size: 3
    stride: 1
    weight_filler {
      type: "gaussian"
      std: 0.083
    }
    bias_filler {
      type: "constant"
      value: 0
    }
  }
}
layer {
  name: "BatchNorm14"
  type: "BatchNorm"
  bottom: "Convolution14"
  top: "Convolution14"
  param {
    lr_mult: 0
    decay_mult: 0
  }
  param {
    lr_mult: 0
    decay_mult: 0
  }
  param {
    lr_mult: 0
    decay_mult: 0
  }
}
layer {
  name: "Scale14"
  type: "Scale"
  bottom: "Convolution14"
  top: "Convolution14"
  scale_param {
    bias_term: true
  }
}
layer {
  name: "Eltwise6"
  type: "Eltwise"
  bottom: "Eltwise5"
  bottom: "Convolution14"
  top: "Eltwise6"
  eltwise_param {
    operation: SUM
  }
}
layer {
  name: "PReLU13"
  type: "PReLU"
  bottom: "Eltwise6"
  top: "Eltwise6"
}
layer {
  name: "Convolution15"
  type: "Convolution"
  bottom: "Eltwise6"
  top: "Convolution15"
  param {
    lr_mult: 1
    decay_mult: 1
  }
  param {
    lr_mult: 2
    decay_mult: 0
  }
  convolution_param {
    num_output: 64
    pad: 0
    kernel_size: 1
    stride: 2
    weight_filler {
      type: "gaussian"
      std: 0.17677669
    }
    bias_filler {
      type: "constant"
      value: 0
    }
  }
}
layer {
  name: "BatchNorm15"
  type: "BatchNorm"
  bottom: "Convolution15"
  top: "Convolution15"
  param {
    lr_mult: 0
    decay_mult: 0
  }
  param {
    lr_mult: 0
    decay_mult: 0
  }
  param {
    lr_mult: 0
    decay_mult: 0
  }
}
layer {
  name: "Scale15"
  type: "Scale"
  bottom: "Convolution15"
  top: "Convolution15"
  scale_param {
    bias_term: true
  }
}
layer {
  name: "Convolution16"
  type: "Convolution"
  bottom: "Eltwise6"
  top: "Convolution16"
  param {
    lr_mult: 1
    decay_mult: 1
  }
  param {
    lr_mult: 2
    decay_mult: 0
  }
  convolution_param {
    num_output: 64
    pad: 1
    kernel_size: 3
    stride: 2
    weight_filler {
      type: "gaussian"
      std: 0.059
    }
    bias_filler {
      type: "constant"
      value: 0
    }
  }
}
layer {
  name: "BatchNorm16"
  type: "BatchNorm"
  bottom: "Convolution16"
  top: "Convolution16"
  param {
    lr_mult: 0
    decay_mult: 0
  }
  param {
    lr_mult: 0
    decay_mult: 0
  }
  param {
    lr_mult: 0
    decay_mult: 0
  }
}
layer {
  name: "Scale16"
  type: "Scale"
  bottom: "Convolution16"
  top: "Convolution16"
  scale_param {
    bias_term: true
  }
}
layer {
  name: "PReLU14"
  type: "PReLU"
  bottom: "Convolution16"
  top: "Convolution16"
}
layer {
  name: "Convolution17"
  type: "Convolution"
  bottom: "Convolution16"
  top: "Convolution17"
  param {
    lr_mult: 1
    decay_mult: 1
  }
  param {
    lr_mult: 2
    decay_mult: 0
  }
  convolution_param {
    num_output: 64
    pad: 1
    kernel_size: 3
    stride: 1
    weight_filler {
      type: "gaussian"
      std: 0.059
    }
    bias_filler {
      type: "constant"
      value: 0
    }
  }
}
layer {
  name: "BatchNorm17"
  type: "BatchNorm"
  bottom: "Convolution17"
  top: "Convolution17"
  param {
    lr_mult: 0
    decay_mult: 0
  }
  param {
    lr_mult: 0
    decay_mult: 0
  }
  param {
    lr_mult: 0
    decay_mult: 0
  }
}
layer {
  name: "Scale17"
  type: "Scale"
  bottom: "Convolution17"
  top: "Convolution17"
  scale_param {
    bias_term: true
  }
}
layer {
  name: "Eltwise7"
  type: "Eltwise"
  bottom: "Convolution15"
  bottom: "Convolution17"
  top: "Eltwise7"
  eltwise_param {
    operation: SUM
  }
}
layer {
  name: "PReLU15"
  type: "PReLU"
  bottom: "Eltwise7"
  top: "Eltwise7"
}
layer {
  name: "Convolution18"
  type: "Convolution"
  bottom: "Eltwise7"
  top: "Convolution18"
  param {
    lr_mult: 1
    decay_mult: 1
  }
  param {
    lr_mult: 2
    decay_mult: 0
  }
  convolution_param {
    num_output: 64
    pad: 1
    kernel_size: 3
    stride: 1
    weight_filler {
      type: "gaussian"
      std: 0.059
    }
    bias_filler {
      type: "constant"
      value: 0
    }
  }
}
layer {
  name: "BatchNorm18"
  type: "BatchNorm"
  bottom: "Convolution18"
  top: "Convolution18"
  param {
    lr_mult: 0
    decay_mult: 0
  }
  param {
    lr_mult: 0
    decay_mult: 0
  }
  param {
    lr_mult: 0
    decay_mult: 0
  }
}
layer {
  name: "Scale18"
  type: "Scale"
  bottom: "Convolution18"
  top: "Convolution18"
  scale_param {
    bias_term: true
  }
}
layer {
  name: "PReLU16"
  type: "PReLU"
  bottom: "Convolution18"
  top: "Convolution18"
}
layer {
  name: "Convolution19"
  type: "Convolution"
  bottom: "Convolution18"
  top: "Convolution19"
  param {
    lr_mult: 1
    decay_mult: 1
  }
  param {
    lr_mult: 2
    decay_mult: 0
  }
  convolution_param {
    num_output: 64
    pad: 1
    kernel_size: 3
    stride: 1
    weight_filler {
      type: "gaussian"
      std: 0.059
    }
    bias_filler {
      type: "constant"
      value: 0
    }
  }
}
layer {
  name: "BatchNorm19"
  type: "BatchNorm"
  bottom: "Convolution19"
  top: "Convolution19"
  param {
    lr_mult: 0
    decay_mult: 0
  }
  param {
    lr_mult: 0
    decay_mult: 0
  }
  param {
    lr_mult: 0
    decay_mult: 0
  }
}
layer {
  name: "Scale19"
  type: "Scale"
  bottom: "Convolution19"
  top: "Convolution19"
  scale_param {
    bias_term: true
  }
}
layer {
  name: "Eltwise8"
  type: "Eltwise"
  bottom: "Eltwise7"
  bottom: "Convolution19"
  top: "Eltwise8"
  eltwise_param {
    operation: SUM
  }
}
layer {
  name: "PReLU17"
  type: "PReLU"
  bottom: "Eltwise8"
  top: "Eltwise8"
}
layer {
  name: "Convolution20"
  type: "Convolution"
  bottom: "Eltwise8"
  top: "Convolution20"
  param {
    lr_mult: 1
    decay_mult: 1
  }
  param {
    lr_mult: 2
    decay_mult: 0
  }
  convolution_param {
    num_output: 64
    pad: 1
    kernel_size: 3
    stride: 1
    weight_filler {
      type: "gaussian"
      std: 0.059
    }
    bias_filler {
      type: "constant"
      value: 0
    }
  }
}
layer {
  name: "BatchNorm20"
  type: "BatchNorm"
  bottom: "Convolution20"
  top: "Convolution20"
  param {
    lr_mult: 0
    decay_mult: 0
  }
  param {
    lr_mult: 0
    decay_mult: 0
  }
  param {
    lr_mult: 0
    decay_mult: 0
  }
}
layer {
  name: "Scale20"
  type: "Scale"
  bottom: "Convolution20"
  top: "Convolution20"
  scale_param {
    bias_term: true
  }
}
layer {
  name: "PReLU18"
  type: "PReLU"
  bottom: "Convolution20"
  top: "Convolution20"
}
layer {
  name: "Convolution21"
  type: "Convolution"
  bottom: "Convolution20"
  top: "Convolution21"
  param {
    lr_mult: 1
    decay_mult: 1
  }
  param {
    lr_mult: 2
    decay_mult: 0
  }
  convolution_param {
    num_output: 64
    pad: 1
    kernel_size: 3
    stride: 1
    weight_filler {
      type: "gaussian"
      std: 0.059
    }
    bias_filler {
      type: "constant"
      value: 0
    }
  }
}
layer {
  name: "BatchNorm21"
  type: "BatchNorm"
  bottom: "Convolution21"
  top: "Convolution21"
  param {
    lr_mult: 0
    decay_mult: 0
  }
  param {
    lr_mult: 0
    decay_mult: 0
  }
  param {
    lr_mult: 0
    decay_mult: 0
  }
}
layer {
  name: "Scale21"
  type: "Scale"
  bottom: "Convolution21"
  top: "Convolution21"
  scale_param {
    bias_term: true
  }
}
layer {
  name: "Eltwise9"
  type: "Eltwise"
  bottom: "Eltwise8"
  bottom: "Convolution21"
  top: "Eltwise9"
  eltwise_param {
    operation: SUM
  }
}
layer {
  name: "PReLU19"
  type: "PReLU"
  bottom: "Eltwise9"
  top: "Eltwise9"
}
layer {
  name: "Pooling1"
  type: "Pooling"
  bottom: "Eltwise9"
  top: "Pooling1"
  pooling_param {
    pool: AVE
    global_pooling: true
  }
}
layer {
  name: "InnerProduct1"
  type: "InnerProduct"
  bottom: "Pooling1"
  top: "InnerProduct1"
  param {
    lr_mult: 1
    decay_mult: 1
  }
  param {
    lr_mult: 2
    decay_mult: 1
  }
  inner_product_param {
    num_output: 4
    weight_filler {
      type: "gaussian"
      std: 0.01
    }
    bias_filler {
      type: "constant"
      value: 0
    }
  }
}
layer {
  name: "SoftmaxWithLoss1"
  type: "SoftmaxWithLoss"
  bottom: "InnerProduct1"
  bottom: "Data2"
  top: "SoftmaxWithLoss1"
}
layer {
  name: "Accuracy1"
  type: "Accuracy"
  bottom: "InnerProduct1"
  bottom: "Data2"
  top: "Accuracy1"
  include {
    phase: TEST
  }
}
I1023 15:05:27.112797  4985 layer_factory.hpp:77] Creating layer Data1
I1023 15:05:27.112834  4985 db_lmdb.cpp:35] Opened lmdb /home/x306/caffe/xn/English_orange/data/val1_lmdb
I1023 15:05:27.112845  4985 net.cpp:84] Creating Layer Data1
I1023 15:05:27.112849  4985 net.cpp:380] Data1 -> Data1
I1023 15:05:27.112856  4985 net.cpp:380] Data1 -> Data2
I1023 15:05:27.112861  4985 data_transformer.cpp:25] Loading mean file from: /home/x306/caffe/xn/English_orange/data/orange1_mean.binaryproto
I1023 15:05:27.113981  4985 data_layer.cpp:45] output data size: 8,3,224,224
I1023 15:05:27.122858  4985 net.cpp:122] Setting up Data1
I1023 15:05:27.122877  4985 net.cpp:129] Top shape: 8 3 224 224 (1204224)
I1023 15:05:27.122881  4985 net.cpp:129] Top shape: 8 (8)
I1023 15:05:27.122884  4985 net.cpp:137] Memory required for data: 4816928
I1023 15:05:27.122889  4985 layer_factory.hpp:77] Creating layer Data2_Data1_1_split
I1023 15:05:27.122897  4985 net.cpp:84] Creating Layer Data2_Data1_1_split
I1023 15:05:27.122900  4985 net.cpp:406] Data2_Data1_1_split <- Data2
I1023 15:05:27.122905  4985 net.cpp:380] Data2_Data1_1_split -> Data2_Data1_1_split_0
I1023 15:05:27.122912  4985 net.cpp:380] Data2_Data1_1_split -> Data2_Data1_1_split_1
I1023 15:05:27.122958  4985 net.cpp:122] Setting up Data2_Data1_1_split
I1023 15:05:27.122962  4985 net.cpp:129] Top shape: 8 (8)
I1023 15:05:27.122965  4985 net.cpp:129] Top shape: 8 (8)
I1023 15:05:27.122967  4985 net.cpp:137] Memory required for data: 4816992
I1023 15:05:27.122969  4985 layer_factory.hpp:77] Creating layer Convolution1
I1023 15:05:27.122978  4985 net.cpp:84] Creating Layer Convolution1
I1023 15:05:27.122982  4985 net.cpp:406] Convolution1 <- Data1
I1023 15:05:27.122984  4985 net.cpp:380] Convolution1 -> Convolution1
I1023 15:05:27.124403  4985 net.cpp:122] Setting up Convolution1
I1023 15:05:27.124413  4985 net.cpp:129] Top shape: 8 16 224 224 (6422528)
I1023 15:05:27.124416  4985 net.cpp:137] Memory required for data: 30507104
I1023 15:05:27.124425  4985 layer_factory.hpp:77] Creating layer BatchNorm1
I1023 15:05:27.124445  4985 net.cpp:84] Creating Layer BatchNorm1
I1023 15:05:27.124449  4985 net.cpp:406] BatchNorm1 <- Convolution1
I1023 15:05:27.124454  4985 net.cpp:367] BatchNorm1 -> Convolution1 (in-place)
I1023 15:05:27.124635  4985 net.cpp:122] Setting up BatchNorm1
I1023 15:05:27.124640  4985 net.cpp:129] Top shape: 8 16 224 224 (6422528)
I1023 15:05:27.124642  4985 net.cpp:137] Memory required for data: 56197216
I1023 15:05:27.124650  4985 layer_factory.hpp:77] Creating layer Scale1
I1023 15:05:27.124657  4985 net.cpp:84] Creating Layer Scale1
I1023 15:05:27.124660  4985 net.cpp:406] Scale1 <- Convolution1
I1023 15:05:27.124663  4985 net.cpp:367] Scale1 -> Convolution1 (in-place)
I1023 15:05:27.124693  4985 layer_factory.hpp:77] Creating layer Scale1
I1023 15:05:27.124843  4985 net.cpp:122] Setting up Scale1
I1023 15:05:27.124848  4985 net.cpp:129] Top shape: 8 16 224 224 (6422528)
I1023 15:05:27.124851  4985 net.cpp:137] Memory required for data: 81887328
I1023 15:05:27.124855  4985 layer_factory.hpp:77] Creating layer PReLU1
I1023 15:05:27.124861  4985 net.cpp:84] Creating Layer PReLU1
I1023 15:05:27.124863  4985 net.cpp:406] PReLU1 <- Convolution1
I1023 15:05:27.124866  4985 net.cpp:367] PReLU1 -> Convolution1 (in-place)
I1023 15:05:27.126080  4985 net.cpp:122] Setting up PReLU1
I1023 15:05:27.126092  4985 net.cpp:129] Top shape: 8 16 224 224 (6422528)
I1023 15:05:27.126096  4985 net.cpp:137] Memory required for data: 107577440
I1023 15:05:27.126101  4985 layer_factory.hpp:77] Creating layer Convolution1_PReLU1_0_split
I1023 15:05:27.126106  4985 net.cpp:84] Creating Layer Convolution1_PReLU1_0_split
I1023 15:05:27.126109  4985 net.cpp:406] Convolution1_PReLU1_0_split <- Convolution1
I1023 15:05:27.126113  4985 net.cpp:380] Convolution1_PReLU1_0_split -> Convolution1_PReLU1_0_split_0
I1023 15:05:27.126119  4985 net.cpp:380] Convolution1_PReLU1_0_split -> Convolution1_PReLU1_0_split_1
I1023 15:05:27.126147  4985 net.cpp:122] Setting up Convolution1_PReLU1_0_split
I1023 15:05:27.126152  4985 net.cpp:129] Top shape: 8 16 224 224 (6422528)
I1023 15:05:27.126154  4985 net.cpp:129] Top shape: 8 16 224 224 (6422528)
I1023 15:05:27.126157  4985 net.cpp:137] Memory required for data: 158957664
I1023 15:05:27.126158  4985 layer_factory.hpp:77] Creating layer Convolution2
I1023 15:05:27.126166  4985 net.cpp:84] Creating Layer Convolution2
I1023 15:05:27.126168  4985 net.cpp:406] Convolution2 <- Convolution1_PReLU1_0_split_0
I1023 15:05:27.126173  4985 net.cpp:380] Convolution2 -> Convolution2
I1023 15:05:27.126832  4985 net.cpp:122] Setting up Convolution2
I1023 15:05:27.126840  4985 net.cpp:129] Top shape: 8 16 224 224 (6422528)
I1023 15:05:27.126843  4985 net.cpp:137] Memory required for data: 184647776
I1023 15:05:27.126850  4985 layer_factory.hpp:77] Creating layer BatchNorm2
I1023 15:05:27.126857  4985 net.cpp:84] Creating Layer BatchNorm2
I1023 15:05:27.126859  4985 net.cpp:406] BatchNorm2 <- Convolution2
I1023 15:05:27.126863  4985 net.cpp:367] BatchNorm2 -> Convolution2 (in-place)
I1023 15:05:27.127033  4985 net.cpp:122] Setting up BatchNorm2
I1023 15:05:27.127038  4985 net.cpp:129] Top shape: 8 16 224 224 (6422528)
I1023 15:05:27.127039  4985 net.cpp:137] Memory required for data: 210337888
I1023 15:05:27.127044  4985 layer_factory.hpp:77] Creating layer Scale2
I1023 15:05:27.127049  4985 net.cpp:84] Creating Layer Scale2
I1023 15:05:27.127053  4985 net.cpp:406] Scale2 <- Convolution2
I1023 15:05:27.127055  4985 net.cpp:367] Scale2 -> Convolution2 (in-place)
I1023 15:05:27.127084  4985 layer_factory.hpp:77] Creating layer Scale2
I1023 15:05:27.127225  4985 net.cpp:122] Setting up Scale2
I1023 15:05:27.127230  4985 net.cpp:129] Top shape: 8 16 224 224 (6422528)
I1023 15:05:27.127233  4985 net.cpp:137] Memory required for data: 236028000
I1023 15:05:27.127236  4985 layer_factory.hpp:77] Creating layer PReLU2
I1023 15:05:27.127240  4985 net.cpp:84] Creating Layer PReLU2
I1023 15:05:27.127243  4985 net.cpp:406] PReLU2 <- Convolution2
I1023 15:05:27.127246  4985 net.cpp:367] PReLU2 -> Convolution2 (in-place)
I1023 15:05:27.128504  4985 net.cpp:122] Setting up PReLU2
I1023 15:05:27.128545  4985 net.cpp:129] Top shape: 8 16 224 224 (6422528)
I1023 15:05:27.128548  4985 net.cpp:137] Memory required for data: 261718112
I1023 15:05:27.128553  4985 layer_factory.hpp:77] Creating layer Convolution3
I1023 15:05:27.128566  4985 net.cpp:84] Creating Layer Convolution3
I1023 15:05:27.128571  4985 net.cpp:406] Convolution3 <- Convolution2
I1023 15:05:27.128576  4985 net.cpp:380] Convolution3 -> Convolution3
I1023 15:05:27.130550  4985 net.cpp:122] Setting up Convolution3
I1023 15:05:27.130564  4985 net.cpp:129] Top shape: 8 16 224 224 (6422528)
I1023 15:05:27.130568  4985 net.cpp:137] Memory required for data: 287408224
I1023 15:05:27.130578  4985 layer_factory.hpp:77] Creating layer BatchNorm3
I1023 15:05:27.130584  4985 net.cpp:84] Creating Layer BatchNorm3
I1023 15:05:27.130587  4985 net.cpp:406] BatchNorm3 <- Convolution3
I1023 15:05:27.130591  4985 net.cpp:367] BatchNorm3 -> Convolution3 (in-place)
I1023 15:05:27.130759  4985 net.cpp:122] Setting up BatchNorm3
I1023 15:05:27.130764  4985 net.cpp:129] Top shape: 8 16 224 224 (6422528)
I1023 15:05:27.130765  4985 net.cpp:137] Memory required for data: 313098336
I1023 15:05:27.130770  4985 layer_factory.hpp:77] Creating layer Scale3
I1023 15:05:27.130775  4985 net.cpp:84] Creating Layer Scale3
I1023 15:05:27.130779  4985 net.cpp:406] Scale3 <- Convolution3
I1023 15:05:27.130781  4985 net.cpp:367] Scale3 -> Convolution3 (in-place)
I1023 15:05:27.130815  4985 layer_factory.hpp:77] Creating layer Scale3
I1023 15:05:27.130930  4985 net.cpp:122] Setting up Scale3
I1023 15:05:27.130935  4985 net.cpp:129] Top shape: 8 16 224 224 (6422528)
I1023 15:05:27.130937  4985 net.cpp:137] Memory required for data: 338788448
I1023 15:05:27.130941  4985 layer_factory.hpp:77] Creating layer Eltwise1
I1023 15:05:27.130946  4985 net.cpp:84] Creating Layer Eltwise1
I1023 15:05:27.130949  4985 net.cpp:406] Eltwise1 <- Convolution1_PReLU1_0_split_1
I1023 15:05:27.130952  4985 net.cpp:406] Eltwise1 <- Convolution3
I1023 15:05:27.130956  4985 net.cpp:380] Eltwise1 -> Eltwise1
I1023 15:05:27.130975  4985 net.cpp:122] Setting up Eltwise1
I1023 15:05:27.130978  4985 net.cpp:129] Top shape: 8 16 224 224 (6422528)
I1023 15:05:27.130980  4985 net.cpp:137] Memory required for data: 364478560
I1023 15:05:27.130982  4985 layer_factory.hpp:77] Creating layer PReLU3
I1023 15:05:27.130987  4985 net.cpp:84] Creating Layer PReLU3
I1023 15:05:27.130990  4985 net.cpp:406] PReLU3 <- Eltwise1
I1023 15:05:27.130992  4985 net.cpp:367] PReLU3 -> Eltwise1 (in-place)
I1023 15:05:27.132217  4985 net.cpp:122] Setting up PReLU3
I1023 15:05:27.132232  4985 net.cpp:129] Top shape: 8 16 224 224 (6422528)
I1023 15:05:27.132236  4985 net.cpp:137] Memory required for data: 390168672
I1023 15:05:27.132241  4985 layer_factory.hpp:77] Creating layer Eltwise1_PReLU3_0_split
I1023 15:05:27.132247  4985 net.cpp:84] Creating Layer Eltwise1_PReLU3_0_split
I1023 15:05:27.132251  4985 net.cpp:406] Eltwise1_PReLU3_0_split <- Eltwise1
I1023 15:05:27.132254  4985 net.cpp:380] Eltwise1_PReLU3_0_split -> Eltwise1_PReLU3_0_split_0
I1023 15:05:27.132259  4985 net.cpp:380] Eltwise1_PReLU3_0_split -> Eltwise1_PReLU3_0_split_1
I1023 15:05:27.132287  4985 net.cpp:122] Setting up Eltwise1_PReLU3_0_split
I1023 15:05:27.132292  4985 net.cpp:129] Top shape: 8 16 224 224 (6422528)
I1023 15:05:27.132294  4985 net.cpp:129] Top shape: 8 16 224 224 (6422528)
I1023 15:05:27.132297  4985 net.cpp:137] Memory required for data: 441548896
I1023 15:05:27.132298  4985 layer_factory.hpp:77] Creating layer Convolution4
I1023 15:05:27.132306  4985 net.cpp:84] Creating Layer Convolution4
I1023 15:05:27.132309  4985 net.cpp:406] Convolution4 <- Eltwise1_PReLU3_0_split_0
I1023 15:05:27.132313  4985 net.cpp:380] Convolution4 -> Convolution4
I1023 15:05:27.133448  4985 net.cpp:122] Setting up Convolution4
I1023 15:05:27.133458  4985 net.cpp:129] Top shape: 8 16 224 224 (6422528)
I1023 15:05:27.133461  4985 net.cpp:137] Memory required for data: 467239008
I1023 15:05:27.133466  4985 layer_factory.hpp:77] Creating layer BatchNorm4
I1023 15:05:27.133487  4985 net.cpp:84] Creating Layer BatchNorm4
I1023 15:05:27.133491  4985 net.cpp:406] BatchNorm4 <- Convolution4
I1023 15:05:27.133494  4985 net.cpp:367] BatchNorm4 -> Convolution4 (in-place)
I1023 15:05:27.134052  4985 net.cpp:122] Setting up BatchNorm4
I1023 15:05:27.134057  4985 net.cpp:129] Top shape: 8 16 224 224 (6422528)
I1023 15:05:27.134060  4985 net.cpp:137] Memory required for data: 492929120
I1023 15:05:27.134065  4985 layer_factory.hpp:77] Creating layer Scale4
I1023 15:05:27.134069  4985 net.cpp:84] Creating Layer Scale4
I1023 15:05:27.134073  4985 net.cpp:406] Scale4 <- Convolution4
I1023 15:05:27.134075  4985 net.cpp:367] Scale4 -> Convolution4 (in-place)
I1023 15:05:27.134106  4985 layer_factory.hpp:77] Creating layer Scale4
I1023 15:05:27.134253  4985 net.cpp:122] Setting up Scale4
I1023 15:05:27.134258  4985 net.cpp:129] Top shape: 8 16 224 224 (6422528)
I1023 15:05:27.134259  4985 net.cpp:137] Memory required for data: 518619232
I1023 15:05:27.134263  4985 layer_factory.hpp:77] Creating layer PReLU4
I1023 15:05:27.134268  4985 net.cpp:84] Creating Layer PReLU4
I1023 15:05:27.134269  4985 net.cpp:406] PReLU4 <- Convolution4
I1023 15:05:27.134272  4985 net.cpp:367] PReLU4 -> Convolution4 (in-place)
I1023 15:05:27.135434  4985 net.cpp:122] Setting up PReLU4
I1023 15:05:27.135447  4985 net.cpp:129] Top shape: 8 16 224 224 (6422528)
I1023 15:05:27.135450  4985 net.cpp:137] Memory required for data: 544309344
I1023 15:05:27.135454  4985 layer_factory.hpp:77] Creating layer Convolution5
I1023 15:05:27.135463  4985 net.cpp:84] Creating Layer Convolution5
I1023 15:05:27.135466  4985 net.cpp:406] Convolution5 <- Convolution4
I1023 15:05:27.135471  4985 net.cpp:380] Convolution5 -> Convolution5
I1023 15:05:27.136906  4985 net.cpp:122] Setting up Convolution5
I1023 15:05:27.136919  4985 net.cpp:129] Top shape: 8 16 224 224 (6422528)
I1023 15:05:27.136921  4985 net.cpp:137] Memory required for data: 569999456
I1023 15:05:27.136932  4985 layer_factory.hpp:77] Creating layer BatchNorm5
I1023 15:05:27.136937  4985 net.cpp:84] Creating Layer BatchNorm5
I1023 15:05:27.136940  4985 net.cpp:406] BatchNorm5 <- Convolution5
I1023 15:05:27.136945  4985 net.cpp:367] BatchNorm5 -> Convolution5 (in-place)
I1023 15:05:27.137156  4985 net.cpp:122] Setting up BatchNorm5
I1023 15:05:27.137162  4985 net.cpp:129] Top shape: 8 16 224 224 (6422528)
I1023 15:05:27.137164  4985 net.cpp:137] Memory required for data: 595689568
I1023 15:05:27.137169  4985 layer_factory.hpp:77] Creating layer Scale5
I1023 15:05:27.137174  4985 net.cpp:84] Creating Layer Scale5
I1023 15:05:27.137177  4985 net.cpp:406] Scale5 <- Convolution5
I1023 15:05:27.137181  4985 net.cpp:367] Scale5 -> Convolution5 (in-place)
I1023 15:05:27.137212  4985 layer_factory.hpp:77] Creating layer Scale5
I1023 15:05:27.137878  4985 net.cpp:122] Setting up Scale5
I1023 15:05:27.137887  4985 net.cpp:129] Top shape: 8 16 224 224 (6422528)
I1023 15:05:27.137888  4985 net.cpp:137] Memory required for data: 621379680
I1023 15:05:27.137893  4985 layer_factory.hpp:77] Creating layer Eltwise2
I1023 15:05:27.137899  4985 net.cpp:84] Creating Layer Eltwise2
I1023 15:05:27.137902  4985 net.cpp:406] Eltwise2 <- Eltwise1_PReLU3_0_split_1
I1023 15:05:27.137904  4985 net.cpp:406] Eltwise2 <- Convolution5
I1023 15:05:27.137908  4985 net.cpp:380] Eltwise2 -> Eltwise2
I1023 15:05:27.137928  4985 net.cpp:122] Setting up Eltwise2
I1023 15:05:27.137933  4985 net.cpp:129] Top shape: 8 16 224 224 (6422528)
I1023 15:05:27.137934  4985 net.cpp:137] Memory required for data: 647069792
I1023 15:05:27.137936  4985 layer_factory.hpp:77] Creating layer PReLU5
I1023 15:05:27.137940  4985 net.cpp:84] Creating Layer PReLU5
I1023 15:05:27.137943  4985 net.cpp:406] PReLU5 <- Eltwise2
I1023 15:05:27.137945  4985 net.cpp:367] PReLU5 -> Eltwise2 (in-place)
I1023 15:05:27.139057  4985 net.cpp:122] Setting up PReLU5
I1023 15:05:27.139067  4985 net.cpp:129] Top shape: 8 16 224 224 (6422528)
I1023 15:05:27.139070  4985 net.cpp:137] Memory required for data: 672759904
I1023 15:05:27.139101  4985 layer_factory.hpp:77] Creating layer Eltwise2_PReLU5_0_split
I1023 15:05:27.139107  4985 net.cpp:84] Creating Layer Eltwise2_PReLU5_0_split
I1023 15:05:27.139111  4985 net.cpp:406] Eltwise2_PReLU5_0_split <- Eltwise2
I1023 15:05:27.139114  4985 net.cpp:380] Eltwise2_PReLU5_0_split -> Eltwise2_PReLU5_0_split_0
I1023 15:05:27.139118  4985 net.cpp:380] Eltwise2_PReLU5_0_split -> Eltwise2_PReLU5_0_split_1
I1023 15:05:27.139148  4985 net.cpp:122] Setting up Eltwise2_PReLU5_0_split
I1023 15:05:27.139153  4985 net.cpp:129] Top shape: 8 16 224 224 (6422528)
I1023 15:05:27.139156  4985 net.cpp:129] Top shape: 8 16 224 224 (6422528)
I1023 15:05:27.139158  4985 net.cpp:137] Memory required for data: 724140128
I1023 15:05:27.139160  4985 layer_factory.hpp:77] Creating layer Convolution6
I1023 15:05:27.139168  4985 net.cpp:84] Creating Layer Convolution6
I1023 15:05:27.139170  4985 net.cpp:406] Convolution6 <- Eltwise2_PReLU5_0_split_0
I1023 15:05:27.139174  4985 net.cpp:380] Convolution6 -> Convolution6
I1023 15:05:27.140674  4985 net.cpp:122] Setting up Convolution6
I1023 15:05:27.140684  4985 net.cpp:129] Top shape: 8 16 224 224 (6422528)
I1023 15:05:27.140687  4985 net.cpp:137] Memory required for data: 749830240
I1023 15:05:27.140692  4985 layer_factory.hpp:77] Creating layer BatchNorm6
I1023 15:05:27.140697  4985 net.cpp:84] Creating Layer BatchNorm6
I1023 15:05:27.140700  4985 net.cpp:406] BatchNorm6 <- Convolution6
I1023 15:05:27.140704  4985 net.cpp:367] BatchNorm6 -> Convolution6 (in-place)
I1023 15:05:27.140878  4985 net.cpp:122] Setting up BatchNorm6
I1023 15:05:27.140882  4985 net.cpp:129] Top shape: 8 16 224 224 (6422528)
I1023 15:05:27.140884  4985 net.cpp:137] Memory required for data: 775520352
I1023 15:05:27.140889  4985 layer_factory.hpp:77] Creating layer Scale6
I1023 15:05:27.140894  4985 net.cpp:84] Creating Layer Scale6
I1023 15:05:27.140897  4985 net.cpp:406] Scale6 <- Convolution6
I1023 15:05:27.140902  4985 net.cpp:367] Scale6 -> Convolution6 (in-place)
I1023 15:05:27.140933  4985 layer_factory.hpp:77] Creating layer Scale6
I1023 15:05:27.141074  4985 net.cpp:122] Setting up Scale6
I1023 15:05:27.141078  4985 net.cpp:129] Top shape: 8 16 224 224 (6422528)
I1023 15:05:27.141080  4985 net.cpp:137] Memory required for data: 801210464
I1023 15:05:27.141084  4985 layer_factory.hpp:77] Creating layer PReLU6
I1023 15:05:27.141089  4985 net.cpp:84] Creating Layer PReLU6
I1023 15:05:27.141091  4985 net.cpp:406] PReLU6 <- Convolution6
I1023 15:05:27.141094  4985 net.cpp:367] PReLU6 -> Convolution6 (in-place)
I1023 15:05:27.142266  4985 net.cpp:122] Setting up PReLU6
I1023 15:05:27.142279  4985 net.cpp:129] Top shape: 8 16 224 224 (6422528)
I1023 15:05:27.142282  4985 net.cpp:137] Memory required for data: 826900576
I1023 15:05:27.142287  4985 layer_factory.hpp:77] Creating layer Convolution7
I1023 15:05:27.142297  4985 net.cpp:84] Creating Layer Convolution7
I1023 15:05:27.142300  4985 net.cpp:406] Convolution7 <- Convolution6
I1023 15:05:27.142305  4985 net.cpp:380] Convolution7 -> Convolution7
I1023 15:05:27.143748  4985 net.cpp:122] Setting up Convolution7
I1023 15:05:27.143759  4985 net.cpp:129] Top shape: 8 16 224 224 (6422528)
I1023 15:05:27.143761  4985 net.cpp:137] Memory required for data: 852590688
I1023 15:05:27.143767  4985 layer_factory.hpp:77] Creating layer BatchNorm7
I1023 15:05:27.143776  4985 net.cpp:84] Creating Layer BatchNorm7
I1023 15:05:27.143779  4985 net.cpp:406] BatchNorm7 <- Convolution7
I1023 15:05:27.143784  4985 net.cpp:367] BatchNorm7 -> Convolution7 (in-place)
I1023 15:05:27.144004  4985 net.cpp:122] Setting up BatchNorm7
I1023 15:05:27.144011  4985 net.cpp:129] Top shape: 8 16 224 224 (6422528)
I1023 15:05:27.144012  4985 net.cpp:137] Memory required for data: 878280800
I1023 15:05:27.144017  4985 layer_factory.hpp:77] Creating layer Scale7
I1023 15:05:27.144024  4985 net.cpp:84] Creating Layer Scale7
I1023 15:05:27.144027  4985 net.cpp:406] Scale7 <- Convolution7
I1023 15:05:27.144031  4985 net.cpp:367] Scale7 -> Convolution7 (in-place)
I1023 15:05:27.144068  4985 layer_factory.hpp:77] Creating layer Scale7
I1023 15:05:27.144255  4985 net.cpp:122] Setting up Scale7
I1023 15:05:27.144260  4985 net.cpp:129] Top shape: 8 16 224 224 (6422528)
I1023 15:05:27.144263  4985 net.cpp:137] Memory required for data: 903970912
I1023 15:05:27.144266  4985 layer_factory.hpp:77] Creating layer Eltwise3
I1023 15:05:27.144271  4985 net.cpp:84] Creating Layer Eltwise3
I1023 15:05:27.144274  4985 net.cpp:406] Eltwise3 <- Eltwise2_PReLU5_0_split_1
I1023 15:05:27.144278  4985 net.cpp:406] Eltwise3 <- Convolution7
I1023 15:05:27.144280  4985 net.cpp:380] Eltwise3 -> Eltwise3
I1023 15:05:27.144299  4985 net.cpp:122] Setting up Eltwise3
I1023 15:05:27.144304  4985 net.cpp:129] Top shape: 8 16 224 224 (6422528)
I1023 15:05:27.144305  4985 net.cpp:137] Memory required for data: 929661024
I1023 15:05:27.144307  4985 layer_factory.hpp:77] Creating layer PReLU7
I1023 15:05:27.144310  4985 net.cpp:84] Creating Layer PReLU7
I1023 15:05:27.144312  4985 net.cpp:406] PReLU7 <- Eltwise3
I1023 15:05:27.144315  4985 net.cpp:367] PReLU7 -> Eltwise3 (in-place)
I1023 15:05:27.145442  4985 net.cpp:122] Setting up PReLU7
I1023 15:05:27.145450  4985 net.cpp:129] Top shape: 8 16 224 224 (6422528)
I1023 15:05:27.145453  4985 net.cpp:137] Memory required for data: 955351136
I1023 15:05:27.145457  4985 layer_factory.hpp:77] Creating layer Eltwise3_PReLU7_0_split
I1023 15:05:27.145462  4985 net.cpp:84] Creating Layer Eltwise3_PReLU7_0_split
I1023 15:05:27.145464  4985 net.cpp:406] Eltwise3_PReLU7_0_split <- Eltwise3
I1023 15:05:27.145468  4985 net.cpp:380] Eltwise3_PReLU7_0_split -> Eltwise3_PReLU7_0_split_0
I1023 15:05:27.145473  4985 net.cpp:380] Eltwise3_PReLU7_0_split -> Eltwise3_PReLU7_0_split_1
I1023 15:05:27.145500  4985 net.cpp:122] Setting up Eltwise3_PReLU7_0_split
I1023 15:05:27.145504  4985 net.cpp:129] Top shape: 8 16 224 224 (6422528)
I1023 15:05:27.145506  4985 net.cpp:129] Top shape: 8 16 224 224 (6422528)
I1023 15:05:27.145509  4985 net.cpp:137] Memory required for data: 1006731360
I1023 15:05:27.145511  4985 layer_factory.hpp:77] Creating layer Convolution8
I1023 15:05:27.145519  4985 net.cpp:84] Creating Layer Convolution8
I1023 15:05:27.145521  4985 net.cpp:406] Convolution8 <- Eltwise3_PReLU7_0_split_0
I1023 15:05:27.145525  4985 net.cpp:380] Convolution8 -> Convolution8
I1023 15:05:27.146481  4985 net.cpp:122] Setting up Convolution8
I1023 15:05:27.146491  4985 net.cpp:129] Top shape: 8 32 112 112 (3211264)
I1023 15:05:27.146493  4985 net.cpp:137] Memory required for data: 1019576416
I1023 15:05:27.146497  4985 layer_factory.hpp:77] Creating layer BatchNorm8
I1023 15:05:27.146502  4985 net.cpp:84] Creating Layer BatchNorm8
I1023 15:05:27.146505  4985 net.cpp:406] BatchNorm8 <- Convolution8
I1023 15:05:27.146518  4985 net.cpp:367] BatchNorm8 -> Convolution8 (in-place)
I1023 15:05:27.146703  4985 net.cpp:122] Setting up BatchNorm8
I1023 15:05:27.146706  4985 net.cpp:129] Top shape: 8 32 112 112 (3211264)
I1023 15:05:27.146708  4985 net.cpp:137] Memory required for data: 1032421472
I1023 15:05:27.146714  4985 layer_factory.hpp:77] Creating layer Scale8
I1023 15:05:27.146718  4985 net.cpp:84] Creating Layer Scale8
I1023 15:05:27.146721  4985 net.cpp:406] Scale8 <- Convolution8
I1023 15:05:27.146724  4985 net.cpp:367] Scale8 -> Convolution8 (in-place)
I1023 15:05:27.146754  4985 layer_factory.hpp:77] Creating layer Scale8
I1023 15:05:27.146849  4985 net.cpp:122] Setting up Scale8
I1023 15:05:27.146853  4985 net.cpp:129] Top shape: 8 32 112 112 (3211264)
I1023 15:05:27.146855  4985 net.cpp:137] Memory required for data: 1045266528
I1023 15:05:27.146859  4985 layer_factory.hpp:77] Creating layer Convolution9
I1023 15:05:27.146867  4985 net.cpp:84] Creating Layer Convolution9
I1023 15:05:27.146868  4985 net.cpp:406] Convolution9 <- Eltwise3_PReLU7_0_split_1
I1023 15:05:27.146872  4985 net.cpp:380] Convolution9 -> Convolution9
I1023 15:05:27.147922  4985 net.cpp:122] Setting up Convolution9
I1023 15:05:27.147931  4985 net.cpp:129] Top shape: 8 32 112 112 (3211264)
I1023 15:05:27.147934  4985 net.cpp:137] Memory required for data: 1058111584
I1023 15:05:27.147953  4985 layer_factory.hpp:77] Creating layer BatchNorm9
I1023 15:05:27.147967  4985 net.cpp:84] Creating Layer BatchNorm9
I1023 15:05:27.147970  4985 net.cpp:406] BatchNorm9 <- Convolution9
I1023 15:05:27.147974  4985 net.cpp:367] BatchNorm9 -> Convolution9 (in-place)
I1023 15:05:27.148157  4985 net.cpp:122] Setting up BatchNorm9
I1023 15:05:27.148164  4985 net.cpp:129] Top shape: 8 32 112 112 (3211264)
I1023 15:05:27.148167  4985 net.cpp:137] Memory required for data: 1070956640
I1023 15:05:27.148172  4985 layer_factory.hpp:77] Creating layer Scale9
I1023 15:05:27.148177  4985 net.cpp:84] Creating Layer Scale9
I1023 15:05:27.148180  4985 net.cpp:406] Scale9 <- Convolution9
I1023 15:05:27.148185  4985 net.cpp:367] Scale9 -> Convolution9 (in-place)
I1023 15:05:27.148216  4985 layer_factory.hpp:77] Creating layer Scale9
I1023 15:05:27.148332  4985 net.cpp:122] Setting up Scale9
I1023 15:05:27.148336  4985 net.cpp:129] Top shape: 8 32 112 112 (3211264)
I1023 15:05:27.148339  4985 net.cpp:137] Memory required for data: 1083801696
I1023 15:05:27.148352  4985 layer_factory.hpp:77] Creating layer PReLU8
I1023 15:05:27.148356  4985 net.cpp:84] Creating Layer PReLU8
I1023 15:05:27.148358  4985 net.cpp:406] PReLU8 <- Convolution9
I1023 15:05:27.148361  4985 net.cpp:367] PReLU8 -> Convolution9 (in-place)
I1023 15:05:27.149207  4985 net.cpp:122] Setting up PReLU8
I1023 15:05:27.149216  4985 net.cpp:129] Top shape: 8 32 112 112 (3211264)
I1023 15:05:27.149219  4985 net.cpp:137] Memory required for data: 1096646752
I1023 15:05:27.149224  4985 layer_factory.hpp:77] Creating layer Convolution10
I1023 15:05:27.149231  4985 net.cpp:84] Creating Layer Convolution10
I1023 15:05:27.149235  4985 net.cpp:406] Convolution10 <- Convolution9
I1023 15:05:27.149238  4985 net.cpp:380] Convolution10 -> Convolution10
I1023 15:05:27.151322  4985 net.cpp:122] Setting up Convolution10
I1023 15:05:27.151334  4985 net.cpp:129] Top shape: 8 32 112 112 (3211264)
I1023 15:05:27.151336  4985 net.cpp:137] Memory required for data: 1109491808
I1023 15:05:27.151343  4985 layer_factory.hpp:77] Creating layer BatchNorm10
I1023 15:05:27.151348  4985 net.cpp:84] Creating Layer BatchNorm10
I1023 15:05:27.151351  4985 net.cpp:406] BatchNorm10 <- Convolution10
I1023 15:05:27.151355  4985 net.cpp:367] BatchNorm10 -> Convolution10 (in-place)
I1023 15:05:27.151520  4985 net.cpp:122] Setting up BatchNorm10
I1023 15:05:27.151525  4985 net.cpp:129] Top shape: 8 32 112 112 (3211264)
I1023 15:05:27.151526  4985 net.cpp:137] Memory required for data: 1122336864
I1023 15:05:27.151531  4985 layer_factory.hpp:77] Creating layer Scale10
I1023 15:05:27.151536  4985 net.cpp:84] Creating Layer Scale10
I1023 15:05:27.151540  4985 net.cpp:406] Scale10 <- Convolution10
I1023 15:05:27.151542  4985 net.cpp:367] Scale10 -> Convolution10 (in-place)
I1023 15:05:27.151577  4985 layer_factory.hpp:77] Creating layer Scale10
I1023 15:05:27.151667  4985 net.cpp:122] Setting up Scale10
I1023 15:05:27.151672  4985 net.cpp:129] Top shape: 8 32 112 112 (3211264)
I1023 15:05:27.151674  4985 net.cpp:137] Memory required for data: 1135181920
I1023 15:05:27.151679  4985 layer_factory.hpp:77] Creating layer Eltwise4
I1023 15:05:27.151684  4985 net.cpp:84] Creating Layer Eltwise4
I1023 15:05:27.151687  4985 net.cpp:406] Eltwise4 <- Convolution8
I1023 15:05:27.151690  4985 net.cpp:406] Eltwise4 <- Convolution10
I1023 15:05:27.151695  4985 net.cpp:380] Eltwise4 -> Eltwise4
I1023 15:05:27.151712  4985 net.cpp:122] Setting up Eltwise4
I1023 15:05:27.151716  4985 net.cpp:129] Top shape: 8 32 112 112 (3211264)
I1023 15:05:27.151718  4985 net.cpp:137] Memory required for data: 1148026976
I1023 15:05:27.151721  4985 layer_factory.hpp:77] Creating layer PReLU9
I1023 15:05:27.151726  4985 net.cpp:84] Creating Layer PReLU9
I1023 15:05:27.151728  4985 net.cpp:406] PReLU9 <- Eltwise4
I1023 15:05:27.151731  4985 net.cpp:367] PReLU9 -> Eltwise4 (in-place)
I1023 15:05:27.152511  4985 net.cpp:122] Setting up PReLU9
I1023 15:05:27.152520  4985 net.cpp:129] Top shape: 8 32 112 112 (3211264)
I1023 15:05:27.152535  4985 net.cpp:137] Memory required for data: 1160872032
I1023 15:05:27.152539  4985 layer_factory.hpp:77] Creating layer Eltwise4_PReLU9_0_split
I1023 15:05:27.152545  4985 net.cpp:84] Creating Layer Eltwise4_PReLU9_0_split
I1023 15:05:27.152549  4985 net.cpp:406] Eltwise4_PReLU9_0_split <- Eltwise4
I1023 15:05:27.152552  4985 net.cpp:380] Eltwise4_PReLU9_0_split -> Eltwise4_PReLU9_0_split_0
I1023 15:05:27.152557  4985 net.cpp:380] Eltwise4_PReLU9_0_split -> Eltwise4_PReLU9_0_split_1
I1023 15:05:27.152587  4985 net.cpp:122] Setting up Eltwise4_PReLU9_0_split
I1023 15:05:27.152591  4985 net.cpp:129] Top shape: 8 32 112 112 (3211264)
I1023 15:05:27.152595  4985 net.cpp:129] Top shape: 8 32 112 112 (3211264)
I1023 15:05:27.152596  4985 net.cpp:137] Memory required for data: 1186562144
I1023 15:05:27.152598  4985 layer_factory.hpp:77] Creating layer Convolution11
I1023 15:05:27.152606  4985 net.cpp:84] Creating Layer Convolution11
I1023 15:05:27.152609  4985 net.cpp:406] Convolution11 <- Eltwise4_PReLU9_0_split_0
I1023 15:05:27.152613  4985 net.cpp:380] Convolution11 -> Convolution11
I1023 15:05:27.153805  4985 net.cpp:122] Setting up Convolution11
I1023 15:05:27.153813  4985 net.cpp:129] Top shape: 8 32 112 112 (3211264)
I1023 15:05:27.153816  4985 net.cpp:137] Memory required for data: 1199407200
I1023 15:05:27.153820  4985 layer_factory.hpp:77] Creating layer BatchNorm11
I1023 15:05:27.153826  4985 net.cpp:84] Creating Layer BatchNorm11
I1023 15:05:27.153829  4985 net.cpp:406] BatchNorm11 <- Convolution11
I1023 15:05:27.153833  4985 net.cpp:367] BatchNorm11 -> Convolution11 (in-place)
I1023 15:05:27.153986  4985 net.cpp:122] Setting up BatchNorm11
I1023 15:05:27.153991  4985 net.cpp:129] Top shape: 8 32 112 112 (3211264)
I1023 15:05:27.153993  4985 net.cpp:137] Memory required for data: 1212252256
I1023 15:05:27.153998  4985 layer_factory.hpp:77] Creating layer Scale11
I1023 15:05:27.154003  4985 net.cpp:84] Creating Layer Scale11
I1023 15:05:27.154006  4985 net.cpp:406] Scale11 <- Convolution11
I1023 15:05:27.154009  4985 net.cpp:367] Scale11 -> Convolution11 (in-place)
I1023 15:05:27.154039  4985 layer_factory.hpp:77] Creating layer Scale11
I1023 15:05:27.154130  4985 net.cpp:122] Setting up Scale11
I1023 15:05:27.154134  4985 net.cpp:129] Top shape: 8 32 112 112 (3211264)
I1023 15:05:27.154136  4985 net.cpp:137] Memory required for data: 1225097312
I1023 15:05:27.154140  4985 layer_factory.hpp:77] Creating layer PReLU10
I1023 15:05:27.154145  4985 net.cpp:84] Creating Layer PReLU10
I1023 15:05:27.154148  4985 net.cpp:406] PReLU10 <- Convolution11
I1023 15:05:27.154150  4985 net.cpp:367] PReLU10 -> Convolution11 (in-place)
I1023 15:05:27.154937  4985 net.cpp:122] Setting up PReLU10
I1023 15:05:27.154945  4985 net.cpp:129] Top shape: 8 32 112 112 (3211264)
I1023 15:05:27.154948  4985 net.cpp:137] Memory required for data: 1237942368
I1023 15:05:27.154952  4985 layer_factory.hpp:77] Creating layer Convolution12
I1023 15:05:27.154960  4985 net.cpp:84] Creating Layer Convolution12
I1023 15:05:27.154963  4985 net.cpp:406] Convolution12 <- Convolution11
I1023 15:05:27.154968  4985 net.cpp:380] Convolution12 -> Convolution12
I1023 15:05:27.155743  4985 net.cpp:122] Setting up Convolution12
I1023 15:05:27.155751  4985 net.cpp:129] Top shape: 8 32 112 112 (3211264)
I1023 15:05:27.155755  4985 net.cpp:137] Memory required for data: 1250787424
I1023 15:05:27.155758  4985 layer_factory.hpp:77] Creating layer BatchNorm12
I1023 15:05:27.155764  4985 net.cpp:84] Creating Layer BatchNorm12
I1023 15:05:27.155766  4985 net.cpp:406] BatchNorm12 <- Convolution12
I1023 15:05:27.155771  4985 net.cpp:367] BatchNorm12 -> Convolution12 (in-place)
I1023 15:05:27.155926  4985 net.cpp:122] Setting up BatchNorm12
I1023 15:05:27.155931  4985 net.cpp:129] Top shape: 8 32 112 112 (3211264)
I1023 15:05:27.155933  4985 net.cpp:137] Memory required for data: 1263632480
I1023 15:05:27.155938  4985 layer_factory.hpp:77] Creating layer Scale12
I1023 15:05:27.155942  4985 net.cpp:84] Creating Layer Scale12
I1023 15:05:27.155951  4985 net.cpp:406] Scale12 <- Convolution12
I1023 15:05:27.155961  4985 net.cpp:367] Scale12 -> Convolution12 (in-place)
I1023 15:05:27.155997  4985 layer_factory.hpp:77] Creating layer Scale12
I1023 15:05:27.156092  4985 net.cpp:122] Setting up Scale12
I1023 15:05:27.156097  4985 net.cpp:129] Top shape: 8 32 112 112 (3211264)
I1023 15:05:27.156100  4985 net.cpp:137] Memory required for data: 1276477536
I1023 15:05:27.156103  4985 layer_factory.hpp:77] Creating layer Eltwise5
I1023 15:05:27.156108  4985 net.cpp:84] Creating Layer Eltwise5
I1023 15:05:27.156111  4985 net.cpp:406] Eltwise5 <- Eltwise4_PReLU9_0_split_1
I1023 15:05:27.156114  4985 net.cpp:406] Eltwise5 <- Convolution12
I1023 15:05:27.156117  4985 net.cpp:380] Eltwise5 -> Eltwise5
I1023 15:05:27.156136  4985 net.cpp:122] Setting up Eltwise5
I1023 15:05:27.156141  4985 net.cpp:129] Top shape: 8 32 112 112 (3211264)
I1023 15:05:27.156142  4985 net.cpp:137] Memory required for data: 1289322592
I1023 15:05:27.156144  4985 layer_factory.hpp:77] Creating layer PReLU11
I1023 15:05:27.156147  4985 net.cpp:84] Creating Layer PReLU11
I1023 15:05:27.156150  4985 net.cpp:406] PReLU11 <- Eltwise5
I1023 15:05:27.156155  4985 net.cpp:367] PReLU11 -> Eltwise5 (in-place)
I1023 15:05:27.156934  4985 net.cpp:122] Setting up PReLU11
I1023 15:05:27.156944  4985 net.cpp:129] Top shape: 8 32 112 112 (3211264)
I1023 15:05:27.156946  4985 net.cpp:137] Memory required for data: 1302167648
I1023 15:05:27.156949  4985 layer_factory.hpp:77] Creating layer Eltwise5_PReLU11_0_split
I1023 15:05:27.156955  4985 net.cpp:84] Creating Layer Eltwise5_PReLU11_0_split
I1023 15:05:27.156958  4985 net.cpp:406] Eltwise5_PReLU11_0_split <- Eltwise5
I1023 15:05:27.156961  4985 net.cpp:380] Eltwise5_PReLU11_0_split -> Eltwise5_PReLU11_0_split_0
I1023 15:05:27.156966  4985 net.cpp:380] Eltwise5_PReLU11_0_split -> Eltwise5_PReLU11_0_split_1
I1023 15:05:27.156998  4985 net.cpp:122] Setting up Eltwise5_PReLU11_0_split
I1023 15:05:27.157003  4985 net.cpp:129] Top shape: 8 32 112 112 (3211264)
I1023 15:05:27.157006  4985 net.cpp:129] Top shape: 8 32 112 112 (3211264)
I1023 15:05:27.157008  4985 net.cpp:137] Memory required for data: 1327857760
I1023 15:05:27.157011  4985 layer_factory.hpp:77] Creating layer Convolution13
I1023 15:05:27.157017  4985 net.cpp:84] Creating Layer Convolution13
I1023 15:05:27.157021  4985 net.cpp:406] Convolution13 <- Eltwise5_PReLU11_0_split_0
I1023 15:05:27.157024  4985 net.cpp:380] Convolution13 -> Convolution13
I1023 15:05:27.158166  4985 net.cpp:122] Setting up Convolution13
I1023 15:05:27.158175  4985 net.cpp:129] Top shape: 8 32 112 112 (3211264)
I1023 15:05:27.158177  4985 net.cpp:137] Memory required for data: 1340702816
I1023 15:05:27.158182  4985 layer_factory.hpp:77] Creating layer BatchNorm13
I1023 15:05:27.158188  4985 net.cpp:84] Creating Layer BatchNorm13
I1023 15:05:27.158190  4985 net.cpp:406] BatchNorm13 <- Convolution13
I1023 15:05:27.158195  4985 net.cpp:367] BatchNorm13 -> Convolution13 (in-place)
I1023 15:05:27.158354  4985 net.cpp:122] Setting up BatchNorm13
I1023 15:05:27.158359  4985 net.cpp:129] Top shape: 8 32 112 112 (3211264)
I1023 15:05:27.158360  4985 net.cpp:137] Memory required for data: 1353547872
I1023 15:05:27.158365  4985 layer_factory.hpp:77] Creating layer Scale13
I1023 15:05:27.158370  4985 net.cpp:84] Creating Layer Scale13
I1023 15:05:27.158372  4985 net.cpp:406] Scale13 <- Convolution13
I1023 15:05:27.158376  4985 net.cpp:367] Scale13 -> Convolution13 (in-place)
I1023 15:05:27.158406  4985 layer_factory.hpp:77] Creating layer Scale13
I1023 15:05:27.158502  4985 net.cpp:122] Setting up Scale13
I1023 15:05:27.158506  4985 net.cpp:129] Top shape: 8 32 112 112 (3211264)
I1023 15:05:27.158509  4985 net.cpp:137] Memory required for data: 1366392928
I1023 15:05:27.158514  4985 layer_factory.hpp:77] Creating layer PReLU12
I1023 15:05:27.158516  4985 net.cpp:84] Creating Layer PReLU12
I1023 15:05:27.158519  4985 net.cpp:406] PReLU12 <- Convolution13
I1023 15:05:27.158522  4985 net.cpp:367] PReLU12 -> Convolution13 (in-place)
I1023 15:05:27.159317  4985 net.cpp:122] Setting up PReLU12
I1023 15:05:27.159324  4985 net.cpp:129] Top shape: 8 32 112 112 (3211264)
I1023 15:05:27.159327  4985 net.cpp:137] Memory required for data: 1379237984
I1023 15:05:27.159330  4985 layer_factory.hpp:77] Creating layer Convolution14
I1023 15:05:27.159345  4985 net.cpp:84] Creating Layer Convolution14
I1023 15:05:27.159348  4985 net.cpp:406] Convolution14 <- Convolution13
I1023 15:05:27.159353  4985 net.cpp:380] Convolution14 -> Convolution14
I1023 15:05:27.160517  4985 net.cpp:122] Setting up Convolution14
I1023 15:05:27.160526  4985 net.cpp:129] Top shape: 8 32 112 112 (3211264)
I1023 15:05:27.160529  4985 net.cpp:137] Memory required for data: 1392083040
I1023 15:05:27.160534  4985 layer_factory.hpp:77] Creating layer BatchNorm14
I1023 15:05:27.160540  4985 net.cpp:84] Creating Layer BatchNorm14
I1023 15:05:27.160542  4985 net.cpp:406] BatchNorm14 <- Convolution14
I1023 15:05:27.160547  4985 net.cpp:367] BatchNorm14 -> Convolution14 (in-place)
I1023 15:05:27.160707  4985 net.cpp:122] Setting up BatchNorm14
I1023 15:05:27.160712  4985 net.cpp:129] Top shape: 8 32 112 112 (3211264)
I1023 15:05:27.160714  4985 net.cpp:137] Memory required for data: 1404928096
I1023 15:05:27.160719  4985 layer_factory.hpp:77] Creating layer Scale14
I1023 15:05:27.160723  4985 net.cpp:84] Creating Layer Scale14
I1023 15:05:27.160725  4985 net.cpp:406] Scale14 <- Convolution14
I1023 15:05:27.160729  4985 net.cpp:367] Scale14 -> Convolution14 (in-place)
I1023 15:05:27.160760  4985 layer_factory.hpp:77] Creating layer Scale14
I1023 15:05:27.160857  4985 net.cpp:122] Setting up Scale14
I1023 15:05:27.160861  4985 net.cpp:129] Top shape: 8 32 112 112 (3211264)
I1023 15:05:27.160864  4985 net.cpp:137] Memory required for data: 1417773152
I1023 15:05:27.160868  4985 layer_factory.hpp:77] Creating layer Eltwise6
I1023 15:05:27.160873  4985 net.cpp:84] Creating Layer Eltwise6
I1023 15:05:27.160876  4985 net.cpp:406] Eltwise6 <- Eltwise5_PReLU11_0_split_1
I1023 15:05:27.160879  4985 net.cpp:406] Eltwise6 <- Convolution14
I1023 15:05:27.160882  4985 net.cpp:380] Eltwise6 -> Eltwise6
I1023 15:05:27.160902  4985 net.cpp:122] Setting up Eltwise6
I1023 15:05:27.160905  4985 net.cpp:129] Top shape: 8 32 112 112 (3211264)
I1023 15:05:27.160907  4985 net.cpp:137] Memory required for data: 1430618208
I1023 15:05:27.160910  4985 layer_factory.hpp:77] Creating layer PReLU13
I1023 15:05:27.160913  4985 net.cpp:84] Creating Layer PReLU13
I1023 15:05:27.160915  4985 net.cpp:406] PReLU13 <- Eltwise6
I1023 15:05:27.160919  4985 net.cpp:367] PReLU13 -> Eltwise6 (in-place)
I1023 15:05:27.161702  4985 net.cpp:122] Setting up PReLU13
I1023 15:05:27.161710  4985 net.cpp:129] Top shape: 8 32 112 112 (3211264)
I1023 15:05:27.161713  4985 net.cpp:137] Memory required for data: 1443463264
I1023 15:05:27.161717  4985 layer_factory.hpp:77] Creating layer Eltwise6_PReLU13_0_split
I1023 15:05:27.161722  4985 net.cpp:84] Creating Layer Eltwise6_PReLU13_0_split
I1023 15:05:27.161725  4985 net.cpp:406] Eltwise6_PReLU13_0_split <- Eltwise6
I1023 15:05:27.161729  4985 net.cpp:380] Eltwise6_PReLU13_0_split -> Eltwise6_PReLU13_0_split_0
I1023 15:05:27.161734  4985 net.cpp:380] Eltwise6_PReLU13_0_split -> Eltwise6_PReLU13_0_split_1
I1023 15:05:27.161763  4985 net.cpp:122] Setting up Eltwise6_PReLU13_0_split
I1023 15:05:27.161768  4985 net.cpp:129] Top shape: 8 32 112 112 (3211264)
I1023 15:05:27.161770  4985 net.cpp:129] Top shape: 8 32 112 112 (3211264)
I1023 15:05:27.161773  4985 net.cpp:137] Memory required for data: 1469153376
I1023 15:05:27.161775  4985 layer_factory.hpp:77] Creating layer Convolution15
I1023 15:05:27.161782  4985 net.cpp:84] Creating Layer Convolution15
I1023 15:05:27.161785  4985 net.cpp:406] Convolution15 <- Eltwise6_PReLU13_0_split_0
I1023 15:05:27.161789  4985 net.cpp:380] Convolution15 -> Convolution15
I1023 15:05:27.162786  4985 net.cpp:122] Setting up Convolution15
I1023 15:05:27.162796  4985 net.cpp:129] Top shape: 8 64 56 56 (1605632)
I1023 15:05:27.162798  4985 net.cpp:137] Memory required for data: 1475575904
I1023 15:05:27.162812  4985 layer_factory.hpp:77] Creating layer BatchNorm15
I1023 15:05:27.162817  4985 net.cpp:84] Creating Layer BatchNorm15
I1023 15:05:27.162820  4985 net.cpp:406] BatchNorm15 <- Convolution15
I1023 15:05:27.162825  4985 net.cpp:367] BatchNorm15 -> Convolution15 (in-place)
I1023 15:05:27.162984  4985 net.cpp:122] Setting up BatchNorm15
I1023 15:05:27.162989  4985 net.cpp:129] Top shape: 8 64 56 56 (1605632)
I1023 15:05:27.162992  4985 net.cpp:137] Memory required for data: 1481998432
I1023 15:05:27.162997  4985 layer_factory.hpp:77] Creating layer Scale15
I1023 15:05:27.163000  4985 net.cpp:84] Creating Layer Scale15
I1023 15:05:27.163003  4985 net.cpp:406] Scale15 <- Convolution15
I1023 15:05:27.163007  4985 net.cpp:367] Scale15 -> Convolution15 (in-place)
I1023 15:05:27.163038  4985 layer_factory.hpp:77] Creating layer Scale15
I1023 15:05:27.163130  4985 net.cpp:122] Setting up Scale15
I1023 15:05:27.163134  4985 net.cpp:129] Top shape: 8 64 56 56 (1605632)
I1023 15:05:27.163136  4985 net.cpp:137] Memory required for data: 1488420960
I1023 15:05:27.163141  4985 layer_factory.hpp:77] Creating layer Convolution16
I1023 15:05:27.163148  4985 net.cpp:84] Creating Layer Convolution16
I1023 15:05:27.163151  4985 net.cpp:406] Convolution16 <- Eltwise6_PReLU13_0_split_1
I1023 15:05:27.163156  4985 net.cpp:380] Convolution16 -> Convolution16
I1023 15:05:27.164520  4985 net.cpp:122] Setting up Convolution16
I1023 15:05:27.164530  4985 net.cpp:129] Top shape: 8 64 56 56 (1605632)
I1023 15:05:27.164531  4985 net.cpp:137] Memory required for data: 1494843488
I1023 15:05:27.164536  4985 layer_factory.hpp:77] Creating layer BatchNorm16
I1023 15:05:27.164541  4985 net.cpp:84] Creating Layer BatchNorm16
I1023 15:05:27.164544  4985 net.cpp:406] BatchNorm16 <- Convolution16
I1023 15:05:27.164549  4985 net.cpp:367] BatchNorm16 -> Convolution16 (in-place)
I1023 15:05:27.164705  4985 net.cpp:122] Setting up BatchNorm16
I1023 15:05:27.164710  4985 net.cpp:129] Top shape: 8 64 56 56 (1605632)
I1023 15:05:27.164712  4985 net.cpp:137] Memory required for data: 1501266016
I1023 15:05:27.164717  4985 layer_factory.hpp:77] Creating layer Scale16
I1023 15:05:27.164722  4985 net.cpp:84] Creating Layer Scale16
I1023 15:05:27.164726  4985 net.cpp:406] Scale16 <- Convolution16
I1023 15:05:27.164728  4985 net.cpp:367] Scale16 -> Convolution16 (in-place)
I1023 15:05:27.164758  4985 layer_factory.hpp:77] Creating layer Scale16
I1023 15:05:27.164850  4985 net.cpp:122] Setting up Scale16
I1023 15:05:27.164855  4985 net.cpp:129] Top shape: 8 64 56 56 (1605632)
I1023 15:05:27.164856  4985 net.cpp:137] Memory required for data: 1507688544
I1023 15:05:27.164861  4985 layer_factory.hpp:77] Creating layer PReLU14
I1023 15:05:27.164865  4985 net.cpp:84] Creating Layer PReLU14
I1023 15:05:27.164867  4985 net.cpp:406] PReLU14 <- Convolution16
I1023 15:05:27.164870  4985 net.cpp:367] PReLU14 -> Convolution16 (in-place)
I1023 15:05:27.165570  4985 net.cpp:122] Setting up PReLU14
I1023 15:05:27.165577  4985 net.cpp:129] Top shape: 8 64 56 56 (1605632)
I1023 15:05:27.165580  4985 net.cpp:137] Memory required for data: 1514111072
I1023 15:05:27.165585  4985 layer_factory.hpp:77] Creating layer Convolution17
I1023 15:05:27.165591  4985 net.cpp:84] Creating Layer Convolution17
I1023 15:05:27.165594  4985 net.cpp:406] Convolution17 <- Convolution16
I1023 15:05:27.165599  4985 net.cpp:380] Convolution17 -> Convolution17
I1023 15:05:27.167949  4985 net.cpp:122] Setting up Convolution17
I1023 15:05:27.167966  4985 net.cpp:129] Top shape: 8 64 56 56 (1605632)
I1023 15:05:27.167969  4985 net.cpp:137] Memory required for data: 1520533600
I1023 15:05:27.167974  4985 layer_factory.hpp:77] Creating layer BatchNorm17
I1023 15:05:27.167980  4985 net.cpp:84] Creating Layer BatchNorm17
I1023 15:05:27.167984  4985 net.cpp:406] BatchNorm17 <- Convolution17
I1023 15:05:27.167986  4985 net.cpp:367] BatchNorm17 -> Convolution17 (in-place)
I1023 15:05:27.168144  4985 net.cpp:122] Setting up BatchNorm17
I1023 15:05:27.168149  4985 net.cpp:129] Top shape: 8 64 56 56 (1605632)
I1023 15:05:27.168161  4985 net.cpp:137] Memory required for data: 1526956128
I1023 15:05:27.168181  4985 layer_factory.hpp:77] Creating layer Scale17
I1023 15:05:27.168186  4985 net.cpp:84] Creating Layer Scale17
I1023 15:05:27.168190  4985 net.cpp:406] Scale17 <- Convolution17
I1023 15:05:27.168192  4985 net.cpp:367] Scale17 -> Convolution17 (in-place)
I1023 15:05:27.168228  4985 layer_factory.hpp:77] Creating layer Scale17
I1023 15:05:27.168326  4985 net.cpp:122] Setting up Scale17
I1023 15:05:27.168331  4985 net.cpp:129] Top shape: 8 64 56 56 (1605632)
I1023 15:05:27.168334  4985 net.cpp:137] Memory required for data: 1533378656
I1023 15:05:27.168337  4985 layer_factory.hpp:77] Creating layer Eltwise7
I1023 15:05:27.168344  4985 net.cpp:84] Creating Layer Eltwise7
I1023 15:05:27.168346  4985 net.cpp:406] Eltwise7 <- Convolution15
I1023 15:05:27.168349  4985 net.cpp:406] Eltwise7 <- Convolution17
I1023 15:05:27.168354  4985 net.cpp:380] Eltwise7 -> Eltwise7
I1023 15:05:27.168371  4985 net.cpp:122] Setting up Eltwise7
I1023 15:05:27.168375  4985 net.cpp:129] Top shape: 8 64 56 56 (1605632)
I1023 15:05:27.168377  4985 net.cpp:137] Memory required for data: 1539801184
I1023 15:05:27.168380  4985 layer_factory.hpp:77] Creating layer PReLU15
I1023 15:05:27.168385  4985 net.cpp:84] Creating Layer PReLU15
I1023 15:05:27.168386  4985 net.cpp:406] PReLU15 <- Eltwise7
I1023 15:05:27.168390  4985 net.cpp:367] PReLU15 -> Eltwise7 (in-place)
I1023 15:05:27.168565  4985 net.cpp:122] Setting up PReLU15
I1023 15:05:27.168568  4985 net.cpp:129] Top shape: 8 64 56 56 (1605632)
I1023 15:05:27.168570  4985 net.cpp:137] Memory required for data: 1546223712
I1023 15:05:27.168575  4985 layer_factory.hpp:77] Creating layer Eltwise7_PReLU15_0_split
I1023 15:05:27.168578  4985 net.cpp:84] Creating Layer Eltwise7_PReLU15_0_split
I1023 15:05:27.168581  4985 net.cpp:406] Eltwise7_PReLU15_0_split <- Eltwise7
I1023 15:05:27.168586  4985 net.cpp:380] Eltwise7_PReLU15_0_split -> Eltwise7_PReLU15_0_split_0
I1023 15:05:27.168589  4985 net.cpp:380] Eltwise7_PReLU15_0_split -> Eltwise7_PReLU15_0_split_1
I1023 15:05:27.168617  4985 net.cpp:122] Setting up Eltwise7_PReLU15_0_split
I1023 15:05:27.168622  4985 net.cpp:129] Top shape: 8 64 56 56 (1605632)
I1023 15:05:27.168624  4985 net.cpp:129] Top shape: 8 64 56 56 (1605632)
I1023 15:05:27.168627  4985 net.cpp:137] Memory required for data: 1559068768
I1023 15:05:27.168628  4985 layer_factory.hpp:77] Creating layer Convolution18
I1023 15:05:27.168635  4985 net.cpp:84] Creating Layer Convolution18
I1023 15:05:27.168638  4985 net.cpp:406] Convolution18 <- Eltwise7_PReLU15_0_split_0
I1023 15:05:27.168642  4985 net.cpp:380] Convolution18 -> Convolution18
I1023 15:05:27.171181  4985 net.cpp:122] Setting up Convolution18
I1023 15:05:27.171190  4985 net.cpp:129] Top shape: 8 64 56 56 (1605632)
I1023 15:05:27.171193  4985 net.cpp:137] Memory required for data: 1565491296
I1023 15:05:27.171198  4985 layer_factory.hpp:77] Creating layer BatchNorm18
I1023 15:05:27.171205  4985 net.cpp:84] Creating Layer BatchNorm18
I1023 15:05:27.171207  4985 net.cpp:406] BatchNorm18 <- Convolution18
I1023 15:05:27.171211  4985 net.cpp:367] BatchNorm18 -> Convolution18 (in-place)
I1023 15:05:27.171373  4985 net.cpp:122] Setting up BatchNorm18
I1023 15:05:27.171378  4985 net.cpp:129] Top shape: 8 64 56 56 (1605632)
I1023 15:05:27.171380  4985 net.cpp:137] Memory required for data: 1571913824
I1023 15:05:27.171386  4985 layer_factory.hpp:77] Creating layer Scale18
I1023 15:05:27.171391  4985 net.cpp:84] Creating Layer Scale18
I1023 15:05:27.171392  4985 net.cpp:406] Scale18 <- Convolution18
I1023 15:05:27.171396  4985 net.cpp:367] Scale18 -> Convolution18 (in-place)
I1023 15:05:27.171427  4985 layer_factory.hpp:77] Creating layer Scale18
I1023 15:05:27.171521  4985 net.cpp:122] Setting up Scale18
I1023 15:05:27.171527  4985 net.cpp:129] Top shape: 8 64 56 56 (1605632)
I1023 15:05:27.171530  4985 net.cpp:137] Memory required for data: 1578336352
I1023 15:05:27.171533  4985 layer_factory.hpp:77] Creating layer PReLU16
I1023 15:05:27.171537  4985 net.cpp:84] Creating Layer PReLU16
I1023 15:05:27.171546  4985 net.cpp:406] PReLU16 <- Convolution18
I1023 15:05:27.171550  4985 net.cpp:367] PReLU16 -> Convolution18 (in-place)
I1023 15:05:27.172269  4985 net.cpp:122] Setting up PReLU16
I1023 15:05:27.172278  4985 net.cpp:129] Top shape: 8 64 56 56 (1605632)
I1023 15:05:27.172281  4985 net.cpp:137] Memory required for data: 1584758880
I1023 15:05:27.172284  4985 layer_factory.hpp:77] Creating layer Convolution19
I1023 15:05:27.172293  4985 net.cpp:84] Creating Layer Convolution19
I1023 15:05:27.172297  4985 net.cpp:406] Convolution19 <- Convolution18
I1023 15:05:27.172302  4985 net.cpp:380] Convolution19 -> Convolution19
I1023 15:05:27.174087  4985 net.cpp:122] Setting up Convolution19
I1023 15:05:27.174095  4985 net.cpp:129] Top shape: 8 64 56 56 (1605632)
I1023 15:05:27.174098  4985 net.cpp:137] Memory required for data: 1591181408
I1023 15:05:27.174103  4985 layer_factory.hpp:77] Creating layer BatchNorm19
I1023 15:05:27.174108  4985 net.cpp:84] Creating Layer BatchNorm19
I1023 15:05:27.174111  4985 net.cpp:406] BatchNorm19 <- Convolution19
I1023 15:05:27.174115  4985 net.cpp:367] BatchNorm19 -> Convolution19 (in-place)
I1023 15:05:27.174274  4985 net.cpp:122] Setting up BatchNorm19
I1023 15:05:27.174279  4985 net.cpp:129] Top shape: 8 64 56 56 (1605632)
I1023 15:05:27.174281  4985 net.cpp:137] Memory required for data: 1597603936
I1023 15:05:27.174286  4985 layer_factory.hpp:77] Creating layer Scale19
I1023 15:05:27.174291  4985 net.cpp:84] Creating Layer Scale19
I1023 15:05:27.174294  4985 net.cpp:406] Scale19 <- Convolution19
I1023 15:05:27.174298  4985 net.cpp:367] Scale19 -> Convolution19 (in-place)
I1023 15:05:27.174329  4985 layer_factory.hpp:77] Creating layer Scale19
I1023 15:05:27.174425  4985 net.cpp:122] Setting up Scale19
I1023 15:05:27.174429  4985 net.cpp:129] Top shape: 8 64 56 56 (1605632)
I1023 15:05:27.174432  4985 net.cpp:137] Memory required for data: 1604026464
I1023 15:05:27.174435  4985 layer_factory.hpp:77] Creating layer Eltwise8
I1023 15:05:27.174440  4985 net.cpp:84] Creating Layer Eltwise8
I1023 15:05:27.174443  4985 net.cpp:406] Eltwise8 <- Eltwise7_PReLU15_0_split_1
I1023 15:05:27.174445  4985 net.cpp:406] Eltwise8 <- Convolution19
I1023 15:05:27.174450  4985 net.cpp:380] Eltwise8 -> Eltwise8
I1023 15:05:27.174468  4985 net.cpp:122] Setting up Eltwise8
I1023 15:05:27.174473  4985 net.cpp:129] Top shape: 8 64 56 56 (1605632)
I1023 15:05:27.174474  4985 net.cpp:137] Memory required for data: 1610448992
I1023 15:05:27.174476  4985 layer_factory.hpp:77] Creating layer PReLU17
I1023 15:05:27.174480  4985 net.cpp:84] Creating Layer PReLU17
I1023 15:05:27.174484  4985 net.cpp:406] PReLU17 <- Eltwise8
I1023 15:05:27.174485  4985 net.cpp:367] PReLU17 -> Eltwise8 (in-place)
I1023 15:05:27.174639  4985 net.cpp:122] Setting up PReLU17
I1023 15:05:27.174644  4985 net.cpp:129] Top shape: 8 64 56 56 (1605632)
I1023 15:05:27.174646  4985 net.cpp:137] Memory required for data: 1616871520
I1023 15:05:27.174649  4985 layer_factory.hpp:77] Creating layer Eltwise8_PReLU17_0_split
I1023 15:05:27.174652  4985 net.cpp:84] Creating Layer Eltwise8_PReLU17_0_split
I1023 15:05:27.174655  4985 net.cpp:406] Eltwise8_PReLU17_0_split <- Eltwise8
I1023 15:05:27.174659  4985 net.cpp:380] Eltwise8_PReLU17_0_split -> Eltwise8_PReLU17_0_split_0
I1023 15:05:27.174664  4985 net.cpp:380] Eltwise8_PReLU17_0_split -> Eltwise8_PReLU17_0_split_1
I1023 15:05:27.174690  4985 net.cpp:122] Setting up Eltwise8_PReLU17_0_split
I1023 15:05:27.174695  4985 net.cpp:129] Top shape: 8 64 56 56 (1605632)
I1023 15:05:27.174697  4985 net.cpp:129] Top shape: 8 64 56 56 (1605632)
I1023 15:05:27.174700  4985 net.cpp:137] Memory required for data: 1629716576
I1023 15:05:27.174701  4985 layer_factory.hpp:77] Creating layer Convolution20
I1023 15:05:27.174708  4985 net.cpp:84] Creating Layer Convolution20
I1023 15:05:27.174711  4985 net.cpp:406] Convolution20 <- Eltwise8_PReLU17_0_split_0
I1023 15:05:27.174715  4985 net.cpp:380] Convolution20 -> Convolution20
I1023 15:05:27.176844  4985 net.cpp:122] Setting up Convolution20
I1023 15:05:27.176861  4985 net.cpp:129] Top shape: 8 64 56 56 (1605632)
I1023 15:05:27.176864  4985 net.cpp:137] Memory required for data: 1636139104
I1023 15:05:27.176869  4985 layer_factory.hpp:77] Creating layer BatchNorm20
I1023 15:05:27.176873  4985 net.cpp:84] Creating Layer BatchNorm20
I1023 15:05:27.176877  4985 net.cpp:406] BatchNorm20 <- Convolution20
I1023 15:05:27.176882  4985 net.cpp:367] BatchNorm20 -> Convolution20 (in-place)
I1023 15:05:27.177078  4985 net.cpp:122] Setting up BatchNorm20
I1023 15:05:27.177083  4985 net.cpp:129] Top shape: 8 64 56 56 (1605632)
I1023 15:05:27.177084  4985 net.cpp:137] Memory required for data: 1642561632
I1023 15:05:27.177089  4985 layer_factory.hpp:77] Creating layer Scale20
I1023 15:05:27.177094  4985 net.cpp:84] Creating Layer Scale20
I1023 15:05:27.177096  4985 net.cpp:406] Scale20 <- Convolution20
I1023 15:05:27.177100  4985 net.cpp:367] Scale20 -> Convolution20 (in-place)
I1023 15:05:27.177132  4985 layer_factory.hpp:77] Creating layer Scale20
I1023 15:05:27.177232  4985 net.cpp:122] Setting up Scale20
I1023 15:05:27.177237  4985 net.cpp:129] Top shape: 8 64 56 56 (1605632)
I1023 15:05:27.177239  4985 net.cpp:137] Memory required for data: 1648984160
I1023 15:05:27.177243  4985 layer_factory.hpp:77] Creating layer PReLU18
I1023 15:05:27.177248  4985 net.cpp:84] Creating Layer PReLU18
I1023 15:05:27.177250  4985 net.cpp:406] PReLU18 <- Convolution20
I1023 15:05:27.177254  4985 net.cpp:367] PReLU18 -> Convolution20 (in-place)
I1023 15:05:27.177985  4985 net.cpp:122] Setting up PReLU18
I1023 15:05:27.177994  4985 net.cpp:129] Top shape: 8 64 56 56 (1605632)
I1023 15:05:27.177996  4985 net.cpp:137] Memory required for data: 1655406688
I1023 15:05:27.178000  4985 layer_factory.hpp:77] Creating layer Convolution21
I1023 15:05:27.178009  4985 net.cpp:84] Creating Layer Convolution21
I1023 15:05:27.178012  4985 net.cpp:406] Convolution21 <- Convolution20
I1023 15:05:27.178017  4985 net.cpp:380] Convolution21 -> Convolution21
I1023 15:05:27.180373  4985 net.cpp:122] Setting up Convolution21
I1023 15:05:27.180383  4985 net.cpp:129] Top shape: 8 64 56 56 (1605632)
I1023 15:05:27.180387  4985 net.cpp:137] Memory required for data: 1661829216
I1023 15:05:27.180392  4985 layer_factory.hpp:77] Creating layer BatchNorm21
I1023 15:05:27.180397  4985 net.cpp:84] Creating Layer BatchNorm21
I1023 15:05:27.180400  4985 net.cpp:406] BatchNorm21 <- Convolution21
I1023 15:05:27.180404  4985 net.cpp:367] BatchNorm21 -> Convolution21 (in-place)
I1023 15:05:27.180568  4985 net.cpp:122] Setting up BatchNorm21
I1023 15:05:27.180573  4985 net.cpp:129] Top shape: 8 64 56 56 (1605632)
I1023 15:05:27.180575  4985 net.cpp:137] Memory required for data: 1668251744
I1023 15:05:27.180580  4985 layer_factory.hpp:77] Creating layer Scale21
I1023 15:05:27.180584  4985 net.cpp:84] Creating Layer Scale21
I1023 15:05:27.180588  4985 net.cpp:406] Scale21 <- Convolution21
I1023 15:05:27.180590  4985 net.cpp:367] Scale21 -> Convolution21 (in-place)
I1023 15:05:27.180635  4985 layer_factory.hpp:77] Creating layer Scale21
I1023 15:05:27.180778  4985 net.cpp:122] Setting up Scale21
I1023 15:05:27.180784  4985 net.cpp:129] Top shape: 8 64 56 56 (1605632)
I1023 15:05:27.180786  4985 net.cpp:137] Memory required for data: 1674674272
I1023 15:05:27.180790  4985 layer_factory.hpp:77] Creating layer Eltwise9
I1023 15:05:27.180796  4985 net.cpp:84] Creating Layer Eltwise9
I1023 15:05:27.180799  4985 net.cpp:406] Eltwise9 <- Eltwise8_PReLU17_0_split_1
I1023 15:05:27.180802  4985 net.cpp:406] Eltwise9 <- Convolution21
I1023 15:05:27.180805  4985 net.cpp:380] Eltwise9 -> Eltwise9
I1023 15:05:27.180825  4985 net.cpp:122] Setting up Eltwise9
I1023 15:05:27.180830  4985 net.cpp:129] Top shape: 8 64 56 56 (1605632)
I1023 15:05:27.180831  4985 net.cpp:137] Memory required for data: 1681096800
I1023 15:05:27.180833  4985 layer_factory.hpp:77] Creating layer PReLU19
I1023 15:05:27.180837  4985 net.cpp:84] Creating Layer PReLU19
I1023 15:05:27.180840  4985 net.cpp:406] PReLU19 <- Eltwise9
I1023 15:05:27.180852  4985 net.cpp:367] PReLU19 -> Eltwise9 (in-place)
I1023 15:05:27.181071  4985 net.cpp:122] Setting up PReLU19
I1023 15:05:27.181077  4985 net.cpp:129] Top shape: 8 64 56 56 (1605632)
I1023 15:05:27.181078  4985 net.cpp:137] Memory required for data: 1687519328
I1023 15:05:27.181082  4985 layer_factory.hpp:77] Creating layer Pooling1
I1023 15:05:27.181088  4985 net.cpp:84] Creating Layer Pooling1
I1023 15:05:27.181092  4985 net.cpp:406] Pooling1 <- Eltwise9
I1023 15:05:27.181095  4985 net.cpp:380] Pooling1 -> Pooling1
I1023 15:05:27.181237  4985 net.cpp:122] Setting up Pooling1
I1023 15:05:27.181244  4985 net.cpp:129] Top shape: 8 64 1 1 (512)
I1023 15:05:27.181246  4985 net.cpp:137] Memory required for data: 1687521376
I1023 15:05:27.181249  4985 layer_factory.hpp:77] Creating layer InnerProduct1
I1023 15:05:27.181255  4985 net.cpp:84] Creating Layer InnerProduct1
I1023 15:05:27.181257  4985 net.cpp:406] InnerProduct1 <- Pooling1
I1023 15:05:27.181262  4985 net.cpp:380] InnerProduct1 -> InnerProduct1
I1023 15:05:27.181380  4985 net.cpp:122] Setting up InnerProduct1
I1023 15:05:27.181388  4985 net.cpp:129] Top shape: 8 4 (32)
I1023 15:05:27.181391  4985 net.cpp:137] Memory required for data: 1687521504
I1023 15:05:27.181397  4985 layer_factory.hpp:77] Creating layer InnerProduct1_InnerProduct1_0_split
I1023 15:05:27.181402  4985 net.cpp:84] Creating Layer InnerProduct1_InnerProduct1_0_split
I1023 15:05:27.181406  4985 net.cpp:406] InnerProduct1_InnerProduct1_0_split <- InnerProduct1
I1023 15:05:27.181408  4985 net.cpp:380] InnerProduct1_InnerProduct1_0_split -> InnerProduct1_InnerProduct1_0_split_0
I1023 15:05:27.181414  4985 net.cpp:380] InnerProduct1_InnerProduct1_0_split -> InnerProduct1_InnerProduct1_0_split_1
I1023 15:05:27.181447  4985 net.cpp:122] Setting up InnerProduct1_InnerProduct1_0_split
I1023 15:05:27.181450  4985 net.cpp:129] Top shape: 8 4 (32)
I1023 15:05:27.181453  4985 net.cpp:129] Top shape: 8 4 (32)
I1023 15:05:27.181455  4985 net.cpp:137] Memory required for data: 1687521760
I1023 15:05:27.181457  4985 layer_factory.hpp:77] Creating layer SoftmaxWithLoss1
I1023 15:05:27.181463  4985 net.cpp:84] Creating Layer SoftmaxWithLoss1
I1023 15:05:27.181464  4985 net.cpp:406] SoftmaxWithLoss1 <- InnerProduct1_InnerProduct1_0_split_0
I1023 15:05:27.181468  4985 net.cpp:406] SoftmaxWithLoss1 <- Data2_Data1_1_split_0
…
