…
I1023 12:10:12.721195  4594 net.cpp:294] The NetState phase (0) differed from the phase (1) specified by a rule in layer Accuracy1
I1023 12:10:12.721653  4594 net.cpp:51] Initializing net from parameters: 
name: "resnet"
state {
  phase: TRAIN
  level: 0
  stage: ""
}
layer {
  name: "Data1"
  type: "Data"
  top: "Data1"
  top: "Data2"
  include {
    phase: TRAIN
  }
  transform_param {
    mirror: true
    crop_size: 224
    mean_file: "/home/x306/caffe/xn/English_orange/data/orange1_mean.binaryproto"
  }
  data_param {
    source: "/home/x306/caffe/xn/English_orange/data/train1_lmdb"
    batch_size: 8
    backend: LMDB
  }
}
layer {
  name: "Convolution1"
  type: "Convolution"
  bottom: "Data1"
  top: "Convolution1"
  param {
    lr_mult: 1
    decay_mult: 1
  }
  param {
    lr_mult: 2
    decay_mult: 0
  }
  convolution_param {
    num_output: 16
    pad: 1
    kernel_size: 3
    stride: 1
    weight_filler {
      type: "gaussian"
      std: 0.118
    }
    bias_filler {
      type: "constant"
      value: 0
    }
  }
}
layer {
  name: "BatchNorm1"
  type: "BatchNorm"
  bottom: "Convolution1"
  top: "Convolution1"
  param {
    lr_mult: 0
    decay_mult: 0
  }
  param {
    lr_mult: 0
    decay_mult: 0
  }
  param {
    lr_mult: 0
    decay_mult: 0
  }
}
layer {
  name: "Scale1"
  type: "Scale"
  bottom: "Convolution1"
  top: "Convolution1"
  scale_param {
    bias_term: true
  }
}
layer {
  name: "penlu1"
  type: "PENLU"
  bottom: "Convolution1"
  top: "Convolution1"
  param {
    lr_mult: 2
    decay_mult: 0
  }
  param {
    lr_mult: 2
    decay_mult: 0
  }
  param {
    lr_mult: 0
    decay_mult: 0
  }
  penlu_param {
    alpha_filler {
      type: "constant"
      value: 0.25
    }
    beta_filler {
      type: "constant"
      value: 1
    }
    eta_filler {
      type: "constant"
      value: 1
    }
  }
}
layer {
  name: "Convolution2"
  type: "Convolution"
  bottom: "Convolution1"
  top: "Convolution2"
  param {
    lr_mult: 1
    decay_mult: 1
  }
  param {
    lr_mult: 2
    decay_mult: 0
  }
  convolution_param {
    num_output: 16
    pad: 1
    kernel_size: 3
    stride: 1
    weight_filler {
      type: "gaussian"
      std: 0.118
    }
    bias_filler {
      type: "constant"
      value: 0
    }
  }
}
layer {
  name: "BatchNorm2"
  type: "BatchNorm"
  bottom: "Convolution2"
  top: "Convolution2"
  param {
    lr_mult: 0
    decay_mult: 0
  }
  param {
    lr_mult: 0
    decay_mult: 0
  }
  param {
    lr_mult: 0
    decay_mult: 0
  }
}
layer {
  name: "Scale2"
  type: "Scale"
  bottom: "Convolution2"
  top: "Convolution2"
  scale_param {
    bias_term: true
  }
}
layer {
  name: "penlu2"
  type: "PENLU"
  bottom: "Convolution2"
  top: "Convolution2"
  param {
    lr_mult: 2
    decay_mult: 0
  }
  param {
    lr_mult: 2
    decay_mult: 0
  }
  param {
    lr_mult: 0
    decay_mult: 0
  }
  penlu_param {
    alpha_filler {
      type: "constant"
      value: 0.25
    }
    beta_filler {
      type: "constant"
      value: 1
    }
    eta_filler {
      type: "constant"
      value: 1
    }
  }
}
layer {
  name: "Convolution3"
  type: "Convolution"
  bottom: "Convolution2"
  top: "Convolution3"
  param {
    lr_mult: 1
    decay_mult: 1
  }
  param {
    lr_mult: 2
    decay_mult: 0
  }
  convolution_param {
    num_output: 16
    pad: 1
    kernel_size: 3
    stride: 1
    weight_filler {
      type: "gaussian"
      std: 0.118
    }
    bias_filler {
      type: "constant"
      value: 0
    }
  }
}
layer {
  name: "BatchNorm3"
  type: "BatchNorm"
  bottom: "Convolution3"
  top: "Convolution3"
  param {
    lr_mult: 0
    decay_mult: 0
  }
  param {
    lr_mult: 0
    decay_mult: 0
  }
  param {
    lr_mult: 0
    decay_mult: 0
  }
}
layer {
  name: "Scale3"
  type: "Scale"
  bottom: "Convolution3"
  top: "Convolution3"
  scale_param {
    bias_term: true
  }
}
layer {
  name: "Eltwise1"
  type: "Eltwise"
  bottom: "Convolution1"
  bottom: "Convolution3"
  top: "Eltwise1"
  eltwise_param {
    operation: SUM
  }
}
layer {
  name: "penlu3"
  type: "PENLU"
  bottom: "Eltwise1"
  top: "Eltwise1"
  param {
    lr_mult: 2
    decay_mult: 0
  }
  param {
    lr_mult: 2
    decay_mult: 0
  }
  param {
    lr_mult: 0
    decay_mult: 0
  }
  penlu_param {
    alpha_filler {
      type: "constant"
      value: 0.25
    }
    beta_filler {
      type: "constant"
      value: 1
    }
    eta_filler {
      type: "constant"
      value: 1
    }
  }
}
layer {
  name: "Convolution4"
  type: "Convolution"
  bottom: "Eltwise1"
  top: "Convolution4"
  param {
    lr_mult: 1
    decay_mult: 1
  }
  param {
    lr_mult: 2
    decay_mult: 0
  }
  convolution_param {
    num_output: 16
    pad: 1
    kernel_size: 3
    stride: 1
    weight_filler {
      type: "gaussian"
      std: 0.118
    }
    bias_filler {
      type: "constant"
      value: 0
    }
  }
}
layer {
  name: "BatchNorm4"
  type: "BatchNorm"
  bottom: "Convolution4"
  top: "Convolution4"
  param {
    lr_mult: 0
    decay_mult: 0
  }
  param {
    lr_mult: 0
    decay_mult: 0
  }
  param {
    lr_mult: 0
    decay_mult: 0
  }
}
layer {
  name: "Scale4"
  type: "Scale"
  bottom: "Convolution4"
  top: "Convolution4"
  scale_param {
    bias_term: true
  }
}
layer {
  name: "penlu4"
  type: "PENLU"
  bottom: "Convolution4"
  top: "Convolution4"
  param {
    lr_mult: 2
    decay_mult: 0
  }
  param {
    lr_mult: 2
    decay_mult: 0
  }
  param {
    lr_mult: 0
    decay_mult: 0
  }
  penlu_param {
    alpha_filler {
      type: "constant"
      value: 0.25
    }
    beta_filler {
      type: "constant"
      value: 1
    }
    eta_filler {
      type: "constant"
      value: 1
    }
  }
}
layer {
  name: "Convolution5"
  type: "Convolution"
  bottom: "Convolution4"
  top: "Convolution5"
  param {
    lr_mult: 1
    decay_mult: 1
  }
  param {
    lr_mult: 2
    decay_mult: 0
  }
  convolution_param {
    num_output: 16
    pad: 1
    kernel_size: 3
    stride: 1
    weight_filler {
      type: "gaussian"
      std: 0.118
    }
    bias_filler {
      type: "constant"
      value: 0
    }
  }
}
layer {
  name: "BatchNorm5"
  type: "BatchNorm"
  bottom: "Convolution5"
  top: "Convolution5"
  param {
    lr_mult: 0
    decay_mult: 0
  }
  param {
    lr_mult: 0
    decay_mult: 0
  }
  param {
    lr_mult: 0
    decay_mult: 0
  }
}
layer {
  name: "Scale5"
  type: "Scale"
  bottom: "Convolution5"
  top: "Convolution5"
  scale_param {
    bias_term: true
  }
}
layer {
  name: "Eltwise2"
  type: "Eltwise"
  bottom: "Eltwise1"
  bottom: "Convolution5"
  top: "Eltwise2"
  eltwise_param {
    operation: SUM
  }
}
layer {
  name: "penlu5"
  type: "PENLU"
  bottom: "Eltwise2"
  top: "Eltwise2"
  param {
    lr_mult: 2
    decay_mult: 0
  }
  param {
    lr_mult: 2
    decay_mult: 0
  }
  param {
    lr_mult: 0
    decay_mult: 0
  }
  penlu_param {
    alpha_filler {
      type: "constant"
      value: 0.25
    }
    beta_filler {
      type: "constant"
      value: 1
    }
    eta_filler {
      type: "constant"
      value: 1
    }
  }
}
layer {
  name: "Convolution6"
  type: "Convolution"
  bottom: "Eltwise2"
  top: "Convolution6"
  param {
    lr_mult: 1
    decay_mult: 1
  }
  param {
    lr_mult: 2
    decay_mult: 0
  }
  convolution_param {
    num_output: 16
    pad: 1
    kernel_size: 3
    stride: 1
    weight_filler {
      type: "gaussian"
      std: 0.118
    }
    bias_filler {
      type: "constant"
      value: 0
    }
  }
}
layer {
  name: "BatchNorm6"
  type: "BatchNorm"
  bottom: "Convolution6"
  top: "Convolution6"
  param {
    lr_mult: 0
    decay_mult: 0
  }
  param {
    lr_mult: 0
    decay_mult: 0
  }
  param {
    lr_mult: 0
    decay_mult: 0
  }
}
layer {
  name: "Scale6"
  type: "Scale"
  bottom: "Convolution6"
  top: "Convolution6"
  scale_param {
    bias_term: true
  }
}
layer {
  name: "penlu6"
  type: "PENLU"
  bottom: "Convolution6"
  top: "Convolution6"
  param {
    lr_mult: 2
    decay_mult: 0
  }
  param {
    lr_mult: 2
    decay_mult: 0
  }
  param {
    lr_mult: 0
    decay_mult: 0
  }
  penlu_param {
    alpha_filler {
      type: "constant"
      value: 0.25
    }
    beta_filler {
      type: "constant"
      value: 1
    }
    eta_filler {
      type: "constant"
      value: 1
    }
  }
}
layer {
  name: "Convolution7"
  type: "Convolution"
  bottom: "Convolution6"
  top: "Convolution7"
  param {
    lr_mult: 1
    decay_mult: 1
  }
  param {
    lr_mult: 2
    decay_mult: 0
  }
  convolution_param {
    num_output: 16
    pad: 1
    kernel_size: 3
    stride: 1
    weight_filler {
      type: "gaussian"
      std: 0.118
    }
    bias_filler {
      type: "constant"
      value: 0
    }
  }
}
layer {
  name: "BatchNorm7"
  type: "BatchNorm"
  bottom: "Convolution7"
  top: "Convolution7"
  param {
    lr_mult: 0
    decay_mult: 0
  }
  param {
    lr_mult: 0
    decay_mult: 0
  }
  param {
    lr_mult: 0
    decay_mult: 0
  }
}
layer {
  name: "Scale7"
  type: "Scale"
  bottom: "Convolution7"
  top: "Convolution7"
  scale_param {
    bias_term: true
  }
}
layer {
  name: "Eltwise3"
  type: "Eltwise"
  bottom: "Eltwise2"
  bottom: "Convolution7"
  top: "Eltwise3"
  eltwise_param {
    operation: SUM
  }
}
layer {
  name: "penlu7"
  type: "PENLU"
  bottom: "Eltwise3"
  top: "Eltwise3"
  param {
    lr_mult: 2
    decay_mult: 0
  }
  param {
    lr_mult: 2
    decay_mult: 0
  }
  param {
    lr_mult: 0
    decay_mult: 0
  }
  penlu_param {
    alpha_filler {
      type: "constant"
      value: 0.25
    }
    beta_filler {
      type: "constant"
      value: 1
    }
    eta_filler {
      type: "constant"
      value: 1
    }
  }
}
layer {
  name: "Convolution8"
  type: "Convolution"
  bottom: "Eltwise3"
  top: "Convolution8"
  param {
    lr_mult: 1
    decay_mult: 1
  }
  param {
    lr_mult: 2
    decay_mult: 0
  }
  convolution_param {
    num_output: 32
    pad: 0
    kernel_size: 1
    stride: 2
    weight_filler {
      type: "gaussian"
      std: 0.25
    }
    bias_filler {
      type: "constant"
      value: 0
    }
  }
}
layer {
  name: "BatchNorm8"
  type: "BatchNorm"
  bottom: "Convolution8"
  top: "Convolution8"
  param {
    lr_mult: 0
    decay_mult: 0
  }
  param {
    lr_mult: 0
    decay_mult: 0
  }
  param {
    lr_mult: 0
    decay_mult: 0
  }
}
layer {
  name: "Scale8"
  type: "Scale"
  bottom: "Convolution8"
  top: "Convolution8"
  scale_param {
    bias_term: true
  }
}
layer {
  name: "Convolution9"
  type: "Convolution"
  bottom: "Eltwise3"
  top: "Convolution9"
  param {
    lr_mult: 1
    decay_mult: 1
  }
  param {
    lr_mult: 2
    decay_mult: 0
  }
  convolution_param {
    num_output: 32
    pad: 1
    kernel_size: 3
    stride: 2
    weight_filler {
      type: "gaussian"
      std: 0.083
    }
    bias_filler {
      type: "constant"
      value: 0
    }
  }
}
layer {
  name: "BatchNorm9"
  type: "BatchNorm"
  bottom: "Convolution9"
  top: "Convolution9"
  param {
    lr_mult: 0
    decay_mult: 0
  }
  param {
    lr_mult: 0
    decay_mult: 0
  }
  param {
    lr_mult: 0
    decay_mult: 0
  }
}
layer {
  name: "Scale9"
  type: "Scale"
  bottom: "Convolution9"
  top: "Convolution9"
  scale_param {
    bias_term: true
  }
}
layer {
  name: "penlu8"
  type: "PENLU"
  bottom: "Convolution9"
  top: "Convolution9"
  param {
    lr_mult: 2
    decay_mult: 0
  }
  param {
    lr_mult: 2
    decay_mult: 0
  }
  param {
    lr_mult: 0
    decay_mult: 0
  }
  penlu_param {
    alpha_filler {
      type: "constant"
      value: 0.25
    }
    beta_filler {
      type: "constant"
      value: 1
    }
    eta_filler {
      type: "constant"
      value: 1
    }
  }
}
layer {
  name: "Convolution10"
  type: "Convolution"
  bottom: "Convolution9"
  top: "Convolution10"
  param {
    lr_mult: 1
    decay_mult: 1
  }
  param {
    lr_mult: 2
    decay_mult: 0
  }
  convolution_param {
    num_output: 32
    pad: 1
    kernel_size: 3
    stride: 1
    weight_filler {
      type: "gaussian"
      std: 0.083
    }
    bias_filler {
      type: "constant"
      value: 0
    }
  }
}
layer {
  name: "BatchNorm10"
  type: "BatchNorm"
  bottom: "Convolution10"
  top: "Convolution10"
  param {
    lr_mult: 0
    decay_mult: 0
  }
  param {
    lr_mult: 0
    decay_mult: 0
  }
  param {
    lr_mult: 0
    decay_mult: 0
  }
}
layer {
  name: "Scale10"
  type: "Scale"
  bottom: "Convolution10"
  top: "Convolution10"
  scale_param {
    bias_term: true
  }
}
layer {
  name: "Eltwise4"
  type: "Eltwise"
  bottom: "Convolution8"
  bottom: "Convolution10"
  top: "Eltwise4"
  eltwise_param {
    operation: SUM
  }
}
layer {
  name: "penlu9"
  type: "PENLU"
  bottom: "Eltwise4"
  top: "Eltwise4"
  param {
    lr_mult: 2
    decay_mult: 0
  }
  param {
    lr_mult: 2
    decay_mult: 0
  }
  param {
    lr_mult: 0
    decay_mult: 0
  }
  penlu_param {
    alpha_filler {
      type: "constant"
      value: 0.25
    }
    beta_filler {
      type: "constant"
      value: 1
    }
    eta_filler {
      type: "constant"
      value: 1
    }
  }
}
layer {
  name: "Convolution11"
  type: "Convolution"
  bottom: "Eltwise4"
  top: "Convolution11"
  param {
    lr_mult: 1
    decay_mult: 1
  }
  param {
    lr_mult: 2
    decay_mult: 0
  }
  convolution_param {
    num_output: 32
    pad: 1
    kernel_size: 3
    stride: 1
    weight_filler {
      type: "gaussian"
      std: 0.083
    }
    bias_filler {
      type: "constant"
      value: 0
    }
  }
}
layer {
  name: "BatchNorm11"
  type: "BatchNorm"
  bottom: "Convolution11"
  top: "Convolution11"
  param {
    lr_mult: 0
    decay_mult: 0
  }
  param {
    lr_mult: 0
    decay_mult: 0
  }
  param {
    lr_mult: 0
    decay_mult: 0
  }
}
layer {
  name: "Scale11"
  type: "Scale"
  bottom: "Convolution11"
  top: "Convolution11"
  scale_param {
    bias_term: true
  }
}
layer {
  name: "penlu10"
  type: "PENLU"
  bottom: "Convolution11"
  top: "Convolution11"
  param {
    lr_mult: 2
    decay_mult: 0
  }
  param {
    lr_mult: 2
    decay_mult: 0
  }
  param {
    lr_mult: 0
    decay_mult: 0
  }
  penlu_param {
    alpha_filler {
      type: "constant"
      value: 0.25
    }
    beta_filler {
      type: "constant"
      value: 1
    }
    eta_filler {
      type: "constant"
      value: 1
    }
  }
}
layer {
  name: "Convolution12"
  type: "Convolution"
  bottom: "Convolution11"
  top: "Convolution12"
  param {
    lr_mult: 1
    decay_mult: 1
  }
  param {
    lr_mult: 2
    decay_mult: 0
  }
  convolution_param {
    num_output: 32
    pad: 1
    kernel_size: 3
    stride: 1
    weight_filler {
      type: "gaussian"
      std: 0.083
    }
    bias_filler {
      type: "constant"
      value: 0
    }
  }
}
layer {
  name: "BatchNorm12"
  type: "BatchNorm"
  bottom: "Convolution12"
  top: "Convolution12"
  param {
    lr_mult: 0
    decay_mult: 0
  }
  param {
    lr_mult: 0
    decay_mult: 0
  }
  param {
    lr_mult: 0
    decay_mult: 0
  }
}
layer {
  name: "Scale12"
  type: "Scale"
  bottom: "Convolution12"
  top: "Convolution12"
  scale_param {
    bias_term: true
  }
}
layer {
  name: "Eltwise5"
  type: "Eltwise"
  bottom: "Eltwise4"
  bottom: "Convolution12"
  top: "Eltwise5"
  eltwise_param {
    operation: SUM
  }
}
layer {
  name: "penlu11"
  type: "PENLU"
  bottom: "Eltwise5"
  top: "Eltwise5"
  param {
    lr_mult: 2
    decay_mult: 0
  }
  param {
    lr_mult: 2
    decay_mult: 0
  }
  param {
    lr_mult: 0
    decay_mult: 0
  }
  penlu_param {
    alpha_filler {
      type: "constant"
      value: 0.25
    }
    beta_filler {
      type: "constant"
      value: 1
    }
    eta_filler {
      type: "constant"
      value: 1
    }
  }
}
layer {
  name: "Convolution13"
  type: "Convolution"
  bottom: "Eltwise5"
  top: "Convolution13"
  param {
    lr_mult: 1
    decay_mult: 1
  }
  param {
    lr_mult: 2
    decay_mult: 0
  }
  convolution_param {
    num_output: 32
    pad: 1
    kernel_size: 3
    stride: 1
    weight_filler {
      type: "gaussian"
      std: 0.083
    }
    bias_filler {
      type: "constant"
      value: 0
    }
  }
}
layer {
  name: "BatchNorm13"
  type: "BatchNorm"
  bottom: "Convolution13"
  top: "Convolution13"
  param {
    lr_mult: 0
    decay_mult: 0
  }
  param {
    lr_mult: 0
    decay_mult: 0
  }
  param {
    lr_mult: 0
    decay_mult: 0
  }
}
layer {
  name: "Scale13"
  type: "Scale"
  bottom: "Convolution13"
  top: "Convolution13"
  scale_param {
    bias_term: true
  }
}
layer {
  name: "penlu12"
  type: "PENLU"
  bottom: "Convolution13"
  top: "Convolution13"
  param {
    lr_mult: 2
    decay_mult: 0
  }
  param {
    lr_mult: 2
    decay_mult: 0
  }
  param {
    lr_mult: 0
    decay_mult: 0
  }
  penlu_param {
    alpha_filler {
      type: "constant"
      value: 0.25
    }
    beta_filler {
      type: "constant"
      value: 1
    }
    eta_filler {
      type: "constant"
      value: 1
    }
  }
}
layer {
  name: "Convolution14"
  type: "Convolution"
  bottom: "Convolution13"
  top: "Convolution14"
  param {
    lr_mult: 1
    decay_mult: 1
  }
  param {
    lr_mult: 2
    decay_mult: 0
  }
  convolution_param {
    num_output: 32
    pad: 1
    kernel_size: 3
    stride: 1
    weight_filler {
      type: "gaussian"
      std: 0.083
    }
    bias_filler {
      type: "constant"
      value: 0
    }
  }
}
layer {
  name: "BatchNorm14"
  type: "BatchNorm"
  bottom: "Convolution14"
  top: "Convolution14"
  param {
    lr_mult: 0
    decay_mult: 0
  }
  param {
    lr_mult: 0
    decay_mult: 0
  }
  param {
    lr_mult: 0
    decay_mult: 0
  }
}
layer {
  name: "Scale14"
  type: "Scale"
  bottom: "Convolution14"
  top: "Convolution14"
  scale_param {
    bias_term: true
  }
}
layer {
  name: "Eltwise6"
  type: "Eltwise"
  bottom: "Eltwise5"
  bottom: "Convolution14"
  top: "Eltwise6"
  eltwise_param {
    operation: SUM
  }
}
layer {
  name: "penlu13"
  type: "PENLU"
  bottom: "Eltwise6"
  top: "Eltwise6"
  param {
    lr_mult: 2
    decay_mult: 0
  }
  param {
    lr_mult: 2
    decay_mult: 0
  }
  param {
    lr_mult: 0
    decay_mult: 0
  }
  penlu_param {
    alpha_filler {
      type: "constant"
      value: 0.25
    }
    beta_filler {
      type: "constant"
      value: 1
    }
    eta_filler {
      type: "constant"
      value: 1
    }
  }
}
layer {
  name: "Convolution15"
  type: "Convolution"
  bottom: "Eltwise6"
  top: "Convolution15"
  param {
    lr_mult: 1
    decay_mult: 1
  }
  param {
    lr_mult: 2
    decay_mult: 0
  }
  convolution_param {
    num_output: 64
    pad: 0
    kernel_size: 1
    stride: 2
    weight_filler {
      type: "gaussian"
      std: 0.17677669
    }
    bias_filler {
      type: "constant"
      value: 0
    }
  }
}
layer {
  name: "BatchNorm15"
  type: "BatchNorm"
  bottom: "Convolution15"
  top: "Convolution15"
  param {
    lr_mult: 0
    decay_mult: 0
  }
  param {
    lr_mult: 0
    decay_mult: 0
  }
  param {
    lr_mult: 0
    decay_mult: 0
  }
}
layer {
  name: "Scale15"
  type: "Scale"
  bottom: "Convolution15"
  top: "Convolution15"
  scale_param {
    bias_term: true
  }
}
layer {
  name: "Convolution16"
  type: "Convolution"
  bottom: "Eltwise6"
  top: "Convolution16"
  param {
    lr_mult: 1
    decay_mult: 1
  }
  param {
    lr_mult: 2
    decay_mult: 0
  }
  convolution_param {
    num_output: 64
    pad: 1
    kernel_size: 3
    stride: 2
    weight_filler {
      type: "gaussian"
      std: 0.059
    }
    bias_filler {
      type: "constant"
      value: 0
    }
  }
}
layer {
  name: "BatchNorm16"
  type: "BatchNorm"
  bottom: "Convolution16"
  top: "Convolution16"
  param {
    lr_mult: 0
    decay_mult: 0
  }
  param {
    lr_mult: 0
    decay_mult: 0
  }
  param {
    lr_mult: 0
    decay_mult: 0
  }
}
layer {
  name: "Scale16"
  type: "Scale"
  bottom: "Convolution16"
  top: "Convolution16"
  scale_param {
    bias_term: true
  }
}
layer {
  name: "penlu14"
  type: "PENLU"
  bottom: "Convolution16"
  top: "Convolution16"
  param {
    lr_mult: 2
    decay_mult: 0
  }
  param {
    lr_mult: 2
    decay_mult: 0
  }
  param {
    lr_mult: 0
    decay_mult: 0
  }
  penlu_param {
    alpha_filler {
      type: "constant"
      value: 0.25
    }
    beta_filler {
      type: "constant"
      value: 1
    }
    eta_filler {
      type: "constant"
      value: 1
    }
  }
}
layer {
  name: "Convolution17"
  type: "Convolution"
  bottom: "Convolution16"
  top: "Convolution17"
  param {
    lr_mult: 1
    decay_mult: 1
  }
  param {
    lr_mult: 2
    decay_mult: 0
  }
  convolution_param {
    num_output: 64
    pad: 1
    kernel_size: 3
    stride: 1
    weight_filler {
      type: "gaussian"
      std: 0.059
    }
    bias_filler {
      type: "constant"
      value: 0
    }
  }
}
layer {
  name: "BatchNorm17"
  type: "BatchNorm"
  bottom: "Convolution17"
  top: "Convolution17"
  param {
    lr_mult: 0
    decay_mult: 0
  }
  param {
    lr_mult: 0
    decay_mult: 0
  }
  param {
    lr_mult: 0
    decay_mult: 0
  }
}
layer {
  name: "Scale17"
  type: "Scale"
  bottom: "Convolution17"
  top: "Convolution17"
  scale_param {
    bias_term: true
  }
}
layer {
  name: "Eltwise7"
  type: "Eltwise"
  bottom: "Convolution15"
  bottom: "Convolution17"
  top: "Eltwise7"
  eltwise_param {
    operation: SUM
  }
}
layer {
  name: "penlu15"
  type: "PENLU"
  bottom: "Eltwise7"
  top: "Eltwise7"
  param {
    lr_mult: 2
    decay_mult: 0
  }
  param {
    lr_mult: 2
    decay_mult: 0
  }
  param {
    lr_mult: 0
    decay_mult: 0
  }
  penlu_param {
    alpha_filler {
      type: "constant"
      value: 0.25
    }
    beta_filler {
      type: "constant"
      value: 1
    }
    eta_filler {
      type: "constant"
      value: 1
    }
  }
}
layer {
  name: "Convolution18"
  type: "Convolution"
  bottom: "Eltwise7"
  top: "Convolution18"
  param {
    lr_mult: 1
    decay_mult: 1
  }
  param {
    lr_mult: 2
    decay_mult: 0
  }
  convolution_param {
    num_output: 64
    pad: 1
    kernel_size: 3
    stride: 1
    weight_filler {
      type: "gaussian"
      std: 0.059
    }
    bias_filler {
      type: "constant"
      value: 0
    }
  }
}
layer {
  name: "BatchNorm18"
  type: "BatchNorm"
  bottom: "Convolution18"
  top: "Convolution18"
  param {
    lr_mult: 0
    decay_mult: 0
  }
  param {
    lr_mult: 0
    decay_mult: 0
  }
  param {
    lr_mult: 0
    decay_mult: 0
  }
}
layer {
  name: "Scale18"
  type: "Scale"
  bottom: "Convolution18"
  top: "Convolution18"
  scale_param {
    bias_term: true
  }
}
layer {
  name: "penlu16"
  type: "PENLU"
  bottom: "Convolution18"
  top: "Convolution18"
  param {
    lr_mult: 2
    decay_mult: 0
  }
  param {
    lr_mult: 2
    decay_mult: 0
  }
  param {
    lr_mult: 0
    decay_mult: 0
  }
  penlu_param {
    alpha_filler {
      type: "constant"
      value: 0.25
    }
    beta_filler {
      type: "constant"
      value: 1
    }
    eta_filler {
      type: "constant"
      value: 1
    }
  }
}
layer {
  name: "Convolution19"
  type: "Convolution"
  bottom: "Convolution18"
  top: "Convolution19"
  param {
    lr_mult: 1
    decay_mult: 1
  }
  param {
    lr_mult: 2
    decay_mult: 0
  }
  convolution_param {
    num_output: 64
    pad: 1
    kernel_size: 3
    stride: 1
    weight_filler {
      type: "gaussian"
      std: 0.059
    }
    bias_filler {
      type: "constant"
      value: 0
    }
  }
}
layer {
  name: "BatchNorm19"
  type: "BatchNorm"
  bottom: "Convolution19"
  top: "Convolution19"
  param {
    lr_mult: 0
    decay_mult: 0
  }
  param {
    lr_mult: 0
    decay_mult: 0
  }
  param {
    lr_mult: 0
    decay_mult: 0
  }
}
layer {
  name: "Scale19"
  type: "Scale"
  bottom: "Convolution19"
  top: "Convolution19"
  scale_param {
    bias_term: true
  }
}
layer {
  name: "Eltwise8"
  type: "Eltwise"
  bottom: "Eltwise7"
  bottom: "Convolution19"
  top: "Eltwise8"
  eltwise_param {
    operation: SUM
  }
}
layer {
  name: "penlu17"
  type: "PENLU"
  bottom: "Eltwise8"
  top: "Eltwise8"
  param {
    lr_mult: 2
    decay_mult: 0
  }
  param {
    lr_mult: 2
    decay_mult: 0
  }
  param {
    lr_mult: 0
    decay_mult: 0
  }
  penlu_param {
    alpha_filler {
      type: "constant"
      value: 0.25
    }
    beta_filler {
      type: "constant"
      value: 1
    }
    eta_filler {
      type: "constant"
      value: 1
    }
  }
}
layer {
  name: "Convolution20"
  type: "Convolution"
  bottom: "Eltwise8"
  top: "Convolution20"
  param {
    lr_mult: 1
    decay_mult: 1
  }
  param {
    lr_mult: 2
    decay_mult: 0
  }
  convolution_param {
    num_output: 64
    pad: 1
    kernel_size: 3
    stride: 1
    weight_filler {
      type: "gaussian"
      std: 0.059
    }
    bias_filler {
      type: "constant"
      value: 0
    }
  }
}
layer {
  name: "BatchNorm20"
  type: "BatchNorm"
  bottom: "Convolution20"
  top: "Convolution20"
  param {
    lr_mult: 0
    decay_mult: 0
  }
  param {
    lr_mult: 0
    decay_mult: 0
  }
  param {
    lr_mult: 0
    decay_mult: 0
  }
}
layer {
  name: "Scale20"
  type: "Scale"
  bottom: "Convolution20"
  top: "Convolution20"
  scale_param {
    bias_term: true
  }
}
layer {
  name: "penlu18"
  type: "PENLU"
  bottom: "Convolution20"
  top: "Convolution20"
  param {
    lr_mult: 2
    decay_mult: 0
  }
  param {
    lr_mult: 2
    decay_mult: 0
  }
  param {
    lr_mult: 0
    decay_mult: 0
  }
  penlu_param {
    alpha_filler {
      type: "constant"
      value: 0.25
    }
    beta_filler {
      type: "constant"
      value: 1
    }
    eta_filler {
      type: "constant"
      value: 1
    }
  }
}
layer {
  name: "Convolution21"
  type: "Convolution"
  bottom: "Convolution20"
  top: "Convolution21"
  param {
    lr_mult: 1
    decay_mult: 1
  }
  param {
    lr_mult: 2
    decay_mult: 0
  }
  convolution_param {
    num_output: 64
    pad: 1
    kernel_size: 3
    stride: 1
    weight_filler {
      type: "gaussian"
      std: 0.059
    }
    bias_filler {
      type: "constant"
      value: 0
    }
  }
}
layer {
  name: "BatchNorm21"
  type: "BatchNorm"
  bottom: "Convolution21"
  top: "Convolution21"
  param {
    lr_mult: 0
    decay_mult: 0
  }
  param {
    lr_mult: 0
    decay_mult: 0
  }
  param {
    lr_mult: 0
    decay_mult: 0
  }
}
layer {
  name: "Scale21"
  type: "Scale"
  bottom: "Convolution21"
  top: "Convolution21"
  scale_param {
    bias_term: true
  }
}
layer {
  name: "Eltwise9"
  type: "Eltwise"
  bottom: "Eltwise8"
  bottom: "Convolution21"
  top: "Eltwise9"
  eltwise_param {
    operation: SUM
  }
}
layer {
  name: "penlu19"
  type: "PENLU"
  bottom: "Eltwise9"
  top: "Eltwise9"
  param {
    lr_mult: 2
    decay_mult: 0
  }
  param {
    lr_mult: 2
    decay_mult: 0
  }
  param {
    lr_mult: 0
    decay_mult: 0
  }
  penlu_param {
    alpha_filler {
      type: "constant"
      value: 0.25
    }
    beta_filler {
      type: "constant"
      value: 1
    }
    eta_filler {
      type: "constant"
      value: 1
    }
  }
}
layer {
  name: "Pooling1"
  type: "Pooling"
  bottom: "Eltwise9"
  top: "Pooling1"
  pooling_param {
    pool: AVE
    global_pooling: true
  }
}
layer {
  name: "InnerProduct1"
  type: "InnerProduct"
  bottom: "Pooling1"
  top: "InnerProduct1"
  param {
    lr_mult: 1
    decay_mult: 1
  }
  param {
    lr_mult: 2
    decay_mult: 1
  }
  inner_product_param {
    num_output: 10
    weight_filler {
      type: "gaussian"
      std: 0.01
    }
    bias_filler {
      type: "constant"
      value: 0
    }
  }
}
layer {
  name: "SoftmaxWithLoss1"
  type: "SoftmaxWithLoss"
  bottom: "InnerProduct1"
  bottom: "Data2"
  top: "SoftmaxWithLoss1"
}
I1023 12:10:12.721956  4594 layer_factory.hpp:77] Creating layer Data1
I1023 12:10:12.722035  4594 db_lmdb.cpp:35] Opened lmdb /home/x306/caffe/xn/English_orange/data/train1_lmdb
I1023 12:10:12.722052  4594 net.cpp:84] Creating Layer Data1
I1023 12:10:12.722057  4594 net.cpp:380] Data1 -> Data1
I1023 12:10:12.722072  4594 net.cpp:380] Data1 -> Data2
I1023 12:10:12.722080  4594 data_transformer.cpp:25] Loading mean file from: /home/x306/caffe/xn/English_orange/data/orange1_mean.binaryproto
I1023 12:10:12.724539  4594 data_layer.cpp:45] output data size: 8,3,224,224
I1023 12:10:12.732385  4594 net.cpp:122] Setting up Data1
I1023 12:10:12.732416  4594 net.cpp:129] Top shape: 8 3 224 224 (1204224)
I1023 12:10:12.732421  4594 net.cpp:129] Top shape: 8 (8)
I1023 12:10:12.732424  4594 net.cpp:137] Memory required for data: 4816928
I1023 12:10:12.732430  4594 layer_factory.hpp:77] Creating layer Convolution1
I1023 12:10:12.732451  4594 net.cpp:84] Creating Layer Convolution1
I1023 12:10:12.732466  4594 net.cpp:406] Convolution1 <- Data1
I1023 12:10:12.732484  4594 net.cpp:380] Convolution1 -> Convolution1
I1023 12:10:12.880527  4594 net.cpp:122] Setting up Convolution1
I1023 12:10:12.880551  4594 net.cpp:129] Top shape: 8 16 224 224 (6422528)
I1023 12:10:12.880554  4594 net.cpp:137] Memory required for data: 30507040
I1023 12:10:12.880569  4594 layer_factory.hpp:77] Creating layer BatchNorm1
I1023 12:10:12.880591  4594 net.cpp:84] Creating Layer BatchNorm1
I1023 12:10:12.880597  4594 net.cpp:406] BatchNorm1 <- Convolution1
I1023 12:10:12.880602  4594 net.cpp:367] BatchNorm1 -> Convolution1 (in-place)
I1023 12:10:12.880759  4594 net.cpp:122] Setting up BatchNorm1
I1023 12:10:12.880764  4594 net.cpp:129] Top shape: 8 16 224 224 (6422528)
I1023 12:10:12.880767  4594 net.cpp:137] Memory required for data: 56197152
I1023 12:10:12.880774  4594 layer_factory.hpp:77] Creating layer Scale1
I1023 12:10:12.880784  4594 net.cpp:84] Creating Layer Scale1
I1023 12:10:12.880786  4594 net.cpp:406] Scale1 <- Convolution1
I1023 12:10:12.880800  4594 net.cpp:367] Scale1 -> Convolution1 (in-place)
I1023 12:10:12.880839  4594 layer_factory.hpp:77] Creating layer Scale1
I1023 12:10:12.880971  4594 net.cpp:122] Setting up Scale1
I1023 12:10:12.880977  4594 net.cpp:129] Top shape: 8 16 224 224 (6422528)
I1023 12:10:12.880980  4594 net.cpp:137] Memory required for data: 81887264
I1023 12:10:12.880983  4594 layer_factory.hpp:77] Creating layer penlu1
I1023 12:10:12.880992  4594 net.cpp:84] Creating Layer penlu1
I1023 12:10:12.880995  4594 net.cpp:406] penlu1 <- Convolution1
I1023 12:10:12.881008  4594 net.cpp:367] penlu1 -> Convolution1 (in-place)
I1023 12:10:12.882139  4594 net.cpp:122] Setting up penlu1
I1023 12:10:12.882149  4594 net.cpp:129] Top shape: 8 16 224 224 (6422528)
I1023 12:10:12.882163  4594 net.cpp:137] Memory required for data: 107577376
I1023 12:10:12.882170  4594 layer_factory.hpp:77] Creating layer Convolution1_penlu1_0_split
I1023 12:10:12.882175  4594 net.cpp:84] Creating Layer Convolution1_penlu1_0_split
I1023 12:10:12.882187  4594 net.cpp:406] Convolution1_penlu1_0_split <- Convolution1
I1023 12:10:12.882191  4594 net.cpp:380] Convolution1_penlu1_0_split -> Convolution1_penlu1_0_split_0
I1023 12:10:12.882196  4594 net.cpp:380] Convolution1_penlu1_0_split -> Convolution1_penlu1_0_split_1
I1023 12:10:12.882233  4594 net.cpp:122] Setting up Convolution1_penlu1_0_split
I1023 12:10:12.882238  4594 net.cpp:129] Top shape: 8 16 224 224 (6422528)
I1023 12:10:12.882251  4594 net.cpp:129] Top shape: 8 16 224 224 (6422528)
I1023 12:10:12.882252  4594 net.cpp:137] Memory required for data: 158957600
I1023 12:10:12.882254  4594 layer_factory.hpp:77] Creating layer Convolution2
I1023 12:10:12.882272  4594 net.cpp:84] Creating Layer Convolution2
I1023 12:10:12.882275  4594 net.cpp:406] Convolution2 <- Convolution1_penlu1_0_split_0
I1023 12:10:12.882279  4594 net.cpp:380] Convolution2 -> Convolution2
I1023 12:10:12.883718  4594 net.cpp:122] Setting up Convolution2
I1023 12:10:12.883730  4594 net.cpp:129] Top shape: 8 16 224 224 (6422528)
I1023 12:10:12.883733  4594 net.cpp:137] Memory required for data: 184647712
I1023 12:10:12.883759  4594 layer_factory.hpp:77] Creating layer BatchNorm2
I1023 12:10:12.883765  4594 net.cpp:84] Creating Layer BatchNorm2
I1023 12:10:12.883769  4594 net.cpp:406] BatchNorm2 <- Convolution2
I1023 12:10:12.883774  4594 net.cpp:367] BatchNorm2 -> Convolution2 (in-place)
I1023 12:10:12.883934  4594 net.cpp:122] Setting up BatchNorm2
I1023 12:10:12.883939  4594 net.cpp:129] Top shape: 8 16 224 224 (6422528)
I1023 12:10:12.883942  4594 net.cpp:137] Memory required for data: 210337824
I1023 12:10:12.883965  4594 layer_factory.hpp:77] Creating layer Scale2
I1023 12:10:12.883971  4594 net.cpp:84] Creating Layer Scale2
I1023 12:10:12.883975  4594 net.cpp:406] Scale2 <- Convolution2
I1023 12:10:12.883978  4594 net.cpp:367] Scale2 -> Convolution2 (in-place)
I1023 12:10:12.884004  4594 layer_factory.hpp:77] Creating layer Scale2
I1023 12:10:12.884165  4594 net.cpp:122] Setting up Scale2
I1023 12:10:12.884171  4594 net.cpp:129] Top shape: 8 16 224 224 (6422528)
I1023 12:10:12.884172  4594 net.cpp:137] Memory required for data: 236027936
I1023 12:10:12.884189  4594 layer_factory.hpp:77] Creating layer penlu2
I1023 12:10:12.884196  4594 net.cpp:84] Creating Layer penlu2
I1023 12:10:12.884199  4594 net.cpp:406] penlu2 <- Convolution2
I1023 12:10:12.884202  4594 net.cpp:367] penlu2 -> Convolution2 (in-place)
I1023 12:10:12.885354  4594 net.cpp:122] Setting up penlu2
I1023 12:10:12.885365  4594 net.cpp:129] Top shape: 8 16 224 224 (6422528)
I1023 12:10:12.885368  4594 net.cpp:137] Memory required for data: 261718048
I1023 12:10:12.885375  4594 layer_factory.hpp:77] Creating layer Convolution3
I1023 12:10:12.885383  4594 net.cpp:84] Creating Layer Convolution3
I1023 12:10:12.885386  4594 net.cpp:406] Convolution3 <- Convolution2
I1023 12:10:12.885391  4594 net.cpp:380] Convolution3 -> Convolution3
I1023 12:10:12.886327  4594 net.cpp:122] Setting up Convolution3
I1023 12:10:12.886338  4594 net.cpp:129] Top shape: 8 16 224 224 (6422528)
I1023 12:10:12.886342  4594 net.cpp:137] Memory required for data: 287408160
I1023 12:10:12.886346  4594 layer_factory.hpp:77] Creating layer BatchNorm3
I1023 12:10:12.886353  4594 net.cpp:84] Creating Layer BatchNorm3
I1023 12:10:12.886355  4594 net.cpp:406] BatchNorm3 <- Convolution3
I1023 12:10:12.886359  4594 net.cpp:367] BatchNorm3 -> Convolution3 (in-place)
I1023 12:10:12.886510  4594 net.cpp:122] Setting up BatchNorm3
I1023 12:10:12.886515  4594 net.cpp:129] Top shape: 8 16 224 224 (6422528)
I1023 12:10:12.886518  4594 net.cpp:137] Memory required for data: 313098272
I1023 12:10:12.886523  4594 layer_factory.hpp:77] Creating layer Scale3
I1023 12:10:12.886528  4594 net.cpp:84] Creating Layer Scale3
I1023 12:10:12.886533  4594 net.cpp:406] Scale3 <- Convolution3
I1023 12:10:12.886535  4594 net.cpp:367] Scale3 -> Convolution3 (in-place)
I1023 12:10:12.886561  4594 layer_factory.hpp:77] Creating layer Scale3
I1023 12:10:12.887168  4594 net.cpp:122] Setting up Scale3
I1023 12:10:12.887179  4594 net.cpp:129] Top shape: 8 16 224 224 (6422528)
I1023 12:10:12.887182  4594 net.cpp:137] Memory required for data: 338788384
I1023 12:10:12.887187  4594 layer_factory.hpp:77] Creating layer Eltwise1
I1023 12:10:12.887193  4594 net.cpp:84] Creating Layer Eltwise1
I1023 12:10:12.887197  4594 net.cpp:406] Eltwise1 <- Convolution1_penlu1_0_split_1
I1023 12:10:12.887200  4594 net.cpp:406] Eltwise1 <- Convolution3
I1023 12:10:12.887204  4594 net.cpp:380] Eltwise1 -> Eltwise1
I1023 12:10:12.887224  4594 net.cpp:122] Setting up Eltwise1
I1023 12:10:12.887229  4594 net.cpp:129] Top shape: 8 16 224 224 (6422528)
I1023 12:10:12.887233  4594 net.cpp:137] Memory required for data: 364478496
I1023 12:10:12.887234  4594 layer_factory.hpp:77] Creating layer penlu3
I1023 12:10:12.887240  4594 net.cpp:84] Creating Layer penlu3
I1023 12:10:12.887243  4594 net.cpp:406] penlu3 <- Eltwise1
I1023 12:10:12.887246  4594 net.cpp:367] penlu3 -> Eltwise1 (in-place)
I1023 12:10:12.888386  4594 net.cpp:122] Setting up penlu3
I1023 12:10:12.888397  4594 net.cpp:129] Top shape: 8 16 224 224 (6422528)
I1023 12:10:12.888412  4594 net.cpp:137] Memory required for data: 390168608
I1023 12:10:12.888418  4594 layer_factory.hpp:77] Creating layer Eltwise1_penlu3_0_split
I1023 12:10:12.888424  4594 net.cpp:84] Creating Layer Eltwise1_penlu3_0_split
I1023 12:10:12.888427  4594 net.cpp:406] Eltwise1_penlu3_0_split <- Eltwise1
I1023 12:10:12.888432  4594 net.cpp:380] Eltwise1_penlu3_0_split -> Eltwise1_penlu3_0_split_0
I1023 12:10:12.888438  4594 net.cpp:380] Eltwise1_penlu3_0_split -> Eltwise1_penlu3_0_split_1
I1023 12:10:12.888463  4594 net.cpp:122] Setting up Eltwise1_penlu3_0_split
I1023 12:10:12.888468  4594 net.cpp:129] Top shape: 8 16 224 224 (6422528)
I1023 12:10:12.888471  4594 net.cpp:129] Top shape: 8 16 224 224 (6422528)
I1023 12:10:12.888473  4594 net.cpp:137] Memory required for data: 441548832
I1023 12:10:12.888478  4594 layer_factory.hpp:77] Creating layer Convolution4
I1023 12:10:12.888485  4594 net.cpp:84] Creating Layer Convolution4
I1023 12:10:12.888489  4594 net.cpp:406] Convolution4 <- Eltwise1_penlu3_0_split_0
I1023 12:10:12.888492  4594 net.cpp:380] Convolution4 -> Convolution4
I1023 12:10:12.889407  4594 net.cpp:122] Setting up Convolution4
I1023 12:10:12.889418  4594 net.cpp:129] Top shape: 8 16 224 224 (6422528)
I1023 12:10:12.889422  4594 net.cpp:137] Memory required for data: 467238944
I1023 12:10:12.889426  4594 layer_factory.hpp:77] Creating layer BatchNorm4
I1023 12:10:12.889432  4594 net.cpp:84] Creating Layer BatchNorm4
I1023 12:10:12.889436  4594 net.cpp:406] BatchNorm4 <- Convolution4
I1023 12:10:12.889441  4594 net.cpp:367] BatchNorm4 -> Convolution4 (in-place)
I1023 12:10:12.889587  4594 net.cpp:122] Setting up BatchNorm4
I1023 12:10:12.889593  4594 net.cpp:129] Top shape: 8 16 224 224 (6422528)
I1023 12:10:12.889596  4594 net.cpp:137] Memory required for data: 492929056
I1023 12:10:12.889605  4594 layer_factory.hpp:77] Creating layer Scale4
I1023 12:10:12.889609  4594 net.cpp:84] Creating Layer Scale4
I1023 12:10:12.889613  4594 net.cpp:406] Scale4 <- Convolution4
I1023 12:10:12.889616  4594 net.cpp:367] Scale4 -> Convolution4 (in-place)
I1023 12:10:12.889643  4594 layer_factory.hpp:77] Creating layer Scale4
I1023 12:10:12.889766  4594 net.cpp:122] Setting up Scale4
I1023 12:10:12.889772  4594 net.cpp:129] Top shape: 8 16 224 224 (6422528)
I1023 12:10:12.889775  4594 net.cpp:137] Memory required for data: 518619168
I1023 12:10:12.889780  4594 layer_factory.hpp:77] Creating layer penlu4
I1023 12:10:12.889786  4594 net.cpp:84] Creating Layer penlu4
I1023 12:10:12.889788  4594 net.cpp:406] penlu4 <- Convolution4
I1023 12:10:12.889792  4594 net.cpp:367] penlu4 -> Convolution4 (in-place)
I1023 12:10:12.890952  4594 net.cpp:122] Setting up penlu4
I1023 12:10:12.890964  4594 net.cpp:129] Top shape: 8 16 224 224 (6422528)
I1023 12:10:12.890966  4594 net.cpp:137] Memory required for data: 544309280
I1023 12:10:12.890971  4594 layer_factory.hpp:77] Creating layer Convolution5
I1023 12:10:12.890980  4594 net.cpp:84] Creating Layer Convolution5
I1023 12:10:12.890983  4594 net.cpp:406] Convolution5 <- Convolution4
I1023 12:10:12.890988  4594 net.cpp:380] Convolution5 -> Convolution5
I1023 12:10:12.892282  4594 net.cpp:122] Setting up Convolution5
I1023 12:10:12.892292  4594 net.cpp:129] Top shape: 8 16 224 224 (6422528)
I1023 12:10:12.892297  4594 net.cpp:137] Memory required for data: 569999392
I1023 12:10:12.892302  4594 layer_factory.hpp:77] Creating layer BatchNorm5
I1023 12:10:12.892307  4594 net.cpp:84] Creating Layer BatchNorm5
I1023 12:10:12.892309  4594 net.cpp:406] BatchNorm5 <- Convolution5
I1023 12:10:12.892313  4594 net.cpp:367] BatchNorm5 -> Convolution5 (in-place)
I1023 12:10:12.892498  4594 net.cpp:122] Setting up BatchNorm5
I1023 12:10:12.892511  4594 net.cpp:129] Top shape: 8 16 224 224 (6422528)
I1023 12:10:12.892516  4594 net.cpp:137] Memory required for data: 595689504
I1023 12:10:12.892524  4594 layer_factory.hpp:77] Creating layer Scale5
I1023 12:10:12.892534  4594 net.cpp:84] Creating Layer Scale5
I1023 12:10:12.892537  4594 net.cpp:406] Scale5 <- Convolution5
I1023 12:10:12.892545  4594 net.cpp:367] Scale5 -> Convolution5 (in-place)
I1023 12:10:12.892613  4594 layer_factory.hpp:77] Creating layer Scale5
I1023 12:10:12.892783  4594 net.cpp:122] Setting up Scale5
I1023 12:10:12.892791  4594 net.cpp:129] Top shape: 8 16 224 224 (6422528)
I1023 12:10:12.892804  4594 net.cpp:137] Memory required for data: 621379616
I1023 12:10:12.892809  4594 layer_factory.hpp:77] Creating layer Eltwise2
I1023 12:10:12.892814  4594 net.cpp:84] Creating Layer Eltwise2
I1023 12:10:12.892817  4594 net.cpp:406] Eltwise2 <- Eltwise1_penlu3_0_split_1
I1023 12:10:12.892820  4594 net.cpp:406] Eltwise2 <- Convolution5
I1023 12:10:12.892824  4594 net.cpp:380] Eltwise2 -> Eltwise2
I1023 12:10:12.892840  4594 net.cpp:122] Setting up Eltwise2
I1023 12:10:12.892845  4594 net.cpp:129] Top shape: 8 16 224 224 (6422528)
I1023 12:10:12.892848  4594 net.cpp:137] Memory required for data: 647069728
I1023 12:10:12.892850  4594 layer_factory.hpp:77] Creating layer penlu5
I1023 12:10:12.892855  4594 net.cpp:84] Creating Layer penlu5
I1023 12:10:12.892859  4594 net.cpp:406] penlu5 <- Eltwise2
I1023 12:10:12.892863  4594 net.cpp:367] penlu5 -> Eltwise2 (in-place)
I1023 12:10:12.894068  4594 net.cpp:122] Setting up penlu5
I1023 12:10:12.894083  4594 net.cpp:129] Top shape: 8 16 224 224 (6422528)
I1023 12:10:12.894085  4594 net.cpp:137] Memory required for data: 672759840
I1023 12:10:12.894091  4594 layer_factory.hpp:77] Creating layer Eltwise2_penlu5_0_split
I1023 12:10:12.894098  4594 net.cpp:84] Creating Layer Eltwise2_penlu5_0_split
I1023 12:10:12.894101  4594 net.cpp:406] Eltwise2_penlu5_0_split <- Eltwise2
I1023 12:10:12.894105  4594 net.cpp:380] Eltwise2_penlu5_0_split -> Eltwise2_penlu5_0_split_0
I1023 12:10:12.894111  4594 net.cpp:380] Eltwise2_penlu5_0_split -> Eltwise2_penlu5_0_split_1
I1023 12:10:12.894136  4594 net.cpp:122] Setting up Eltwise2_penlu5_0_split
I1023 12:10:12.894141  4594 net.cpp:129] Top shape: 8 16 224 224 (6422528)
I1023 12:10:12.894143  4594 net.cpp:129] Top shape: 8 16 224 224 (6422528)
I1023 12:10:12.894146  4594 net.cpp:137] Memory required for data: 724140064
I1023 12:10:12.894148  4594 layer_factory.hpp:77] Creating layer Convolution6
I1023 12:10:12.894155  4594 net.cpp:84] Creating Layer Convolution6
I1023 12:10:12.894160  4594 net.cpp:406] Convolution6 <- Eltwise2_penlu5_0_split_0
I1023 12:10:12.894163  4594 net.cpp:380] Convolution6 -> Convolution6
I1023 12:10:12.895673  4594 net.cpp:122] Setting up Convolution6
I1023 12:10:12.895684  4594 net.cpp:129] Top shape: 8 16 224 224 (6422528)
I1023 12:10:12.895687  4594 net.cpp:137] Memory required for data: 749830176
I1023 12:10:12.895692  4594 layer_factory.hpp:77] Creating layer BatchNorm6
I1023 12:10:12.895699  4594 net.cpp:84] Creating Layer BatchNorm6
I1023 12:10:12.895701  4594 net.cpp:406] BatchNorm6 <- Convolution6
I1023 12:10:12.895706  4594 net.cpp:367] BatchNorm6 -> Convolution6 (in-place)
I1023 12:10:12.895861  4594 net.cpp:122] Setting up BatchNorm6
I1023 12:10:12.895867  4594 net.cpp:129] Top shape: 8 16 224 224 (6422528)
I1023 12:10:12.895870  4594 net.cpp:137] Memory required for data: 775520288
I1023 12:10:12.895875  4594 layer_factory.hpp:77] Creating layer Scale6
I1023 12:10:12.895880  4594 net.cpp:84] Creating Layer Scale6
I1023 12:10:12.895884  4594 net.cpp:406] Scale6 <- Convolution6
I1023 12:10:12.895886  4594 net.cpp:367] Scale6 -> Convolution6 (in-place)
I1023 12:10:12.895915  4594 layer_factory.hpp:77] Creating layer Scale6
I1023 12:10:12.896036  4594 net.cpp:122] Setting up Scale6
I1023 12:10:12.896044  4594 net.cpp:129] Top shape: 8 16 224 224 (6422528)
I1023 12:10:12.896045  4594 net.cpp:137] Memory required for data: 801210400
I1023 12:10:12.896049  4594 layer_factory.hpp:77] Creating layer penlu6
I1023 12:10:12.896056  4594 net.cpp:84] Creating Layer penlu6
I1023 12:10:12.896060  4594 net.cpp:406] penlu6 <- Convolution6
I1023 12:10:12.896064  4594 net.cpp:367] penlu6 -> Convolution6 (in-place)
I1023 12:10:12.897199  4594 net.cpp:122] Setting up penlu6
I1023 12:10:12.897209  4594 net.cpp:129] Top shape: 8 16 224 224 (6422528)
I1023 12:10:12.897224  4594 net.cpp:137] Memory required for data: 826900512
I1023 12:10:12.897230  4594 layer_factory.hpp:77] Creating layer Convolution7
I1023 12:10:12.897239  4594 net.cpp:84] Creating Layer Convolution7
I1023 12:10:12.897243  4594 net.cpp:406] Convolution7 <- Convolution6
I1023 12:10:12.897248  4594 net.cpp:380] Convolution7 -> Convolution7
I1023 12:10:12.898207  4594 net.cpp:122] Setting up Convolution7
I1023 12:10:12.898218  4594 net.cpp:129] Top shape: 8 16 224 224 (6422528)
I1023 12:10:12.898222  4594 net.cpp:137] Memory required for data: 852590624
I1023 12:10:12.898226  4594 layer_factory.hpp:77] Creating layer BatchNorm7
I1023 12:10:12.898232  4594 net.cpp:84] Creating Layer BatchNorm7
I1023 12:10:12.898236  4594 net.cpp:406] BatchNorm7 <- Convolution7
I1023 12:10:12.898241  4594 net.cpp:367] BatchNorm7 -> Convolution7 (in-place)
I1023 12:10:12.898402  4594 net.cpp:122] Setting up BatchNorm7
I1023 12:10:12.898408  4594 net.cpp:129] Top shape: 8 16 224 224 (6422528)
I1023 12:10:12.898411  4594 net.cpp:137] Memory required for data: 878280736
I1023 12:10:12.898422  4594 layer_factory.hpp:77] Creating layer Scale7
I1023 12:10:12.898430  4594 net.cpp:84] Creating Layer Scale7
I1023 12:10:12.898433  4594 net.cpp:406] Scale7 <- Convolution7
I1023 12:10:12.898437  4594 net.cpp:367] Scale7 -> Convolution7 (in-place)
I1023 12:10:12.898463  4594 layer_factory.hpp:77] Creating layer Scale7
I1023 12:10:12.898588  4594 net.cpp:122] Setting up Scale7
I1023 12:10:12.898596  4594 net.cpp:129] Top shape: 8 16 224 224 (6422528)
I1023 12:10:12.898598  4594 net.cpp:137] Memory required for data: 903970848
I1023 12:10:12.898602  4594 layer_factory.hpp:77] Creating layer Eltwise3
I1023 12:10:12.898607  4594 net.cpp:84] Creating Layer Eltwise3
I1023 12:10:12.898610  4594 net.cpp:406] Eltwise3 <- Eltwise2_penlu5_0_split_1
I1023 12:10:12.898613  4594 net.cpp:406] Eltwise3 <- Convolution7
I1023 12:10:12.898617  4594 net.cpp:380] Eltwise3 -> Eltwise3
I1023 12:10:12.898634  4594 net.cpp:122] Setting up Eltwise3
I1023 12:10:12.898639  4594 net.cpp:129] Top shape: 8 16 224 224 (6422528)
I1023 12:10:12.898643  4594 net.cpp:137] Memory required for data: 929660960
I1023 12:10:12.898644  4594 layer_factory.hpp:77] Creating layer penlu7
I1023 12:10:12.898649  4594 net.cpp:84] Creating Layer penlu7
I1023 12:10:12.898653  4594 net.cpp:406] penlu7 <- Eltwise3
I1023 12:10:12.898656  4594 net.cpp:367] penlu7 -> Eltwise3 (in-place)
I1023 12:10:12.899794  4594 net.cpp:122] Setting up penlu7
I1023 12:10:12.899806  4594 net.cpp:129] Top shape: 8 16 224 224 (6422528)
I1023 12:10:12.899808  4594 net.cpp:137] Memory required for data: 955351072
I1023 12:10:12.899813  4594 layer_factory.hpp:77] Creating layer Eltwise3_penlu7_0_split
I1023 12:10:12.899819  4594 net.cpp:84] Creating Layer Eltwise3_penlu7_0_split
I1023 12:10:12.899822  4594 net.cpp:406] Eltwise3_penlu7_0_split <- Eltwise3
I1023 12:10:12.899826  4594 net.cpp:380] Eltwise3_penlu7_0_split -> Eltwise3_penlu7_0_split_0
I1023 12:10:12.899832  4594 net.cpp:380] Eltwise3_penlu7_0_split -> Eltwise3_penlu7_0_split_1
I1023 12:10:12.899855  4594 net.cpp:122] Setting up Eltwise3_penlu7_0_split
I1023 12:10:12.899860  4594 net.cpp:129] Top shape: 8 16 224 224 (6422528)
I1023 12:10:12.899864  4594 net.cpp:129] Top shape: 8 16 224 224 (6422528)
I1023 12:10:12.899868  4594 net.cpp:137] Memory required for data: 1006731296
I1023 12:10:12.899870  4594 layer_factory.hpp:77] Creating layer Convolution8
I1023 12:10:12.899878  4594 net.cpp:84] Creating Layer Convolution8
I1023 12:10:12.899881  4594 net.cpp:406] Convolution8 <- Eltwise3_penlu7_0_split_0
I1023 12:10:12.899884  4594 net.cpp:380] Convolution8 -> Convolution8
I1023 12:10:12.901603  4594 net.cpp:122] Setting up Convolution8
I1023 12:10:12.901614  4594 net.cpp:129] Top shape: 8 32 112 112 (3211264)
I1023 12:10:12.901618  4594 net.cpp:137] Memory required for data: 1019576352
I1023 12:10:12.901623  4594 layer_factory.hpp:77] Creating layer BatchNorm8
I1023 12:10:12.901629  4594 net.cpp:84] Creating Layer BatchNorm8
I1023 12:10:12.901633  4594 net.cpp:406] BatchNorm8 <- Convolution8
I1023 12:10:12.901648  4594 net.cpp:367] BatchNorm8 -> Convolution8 (in-place)
I1023 12:10:12.901788  4594 net.cpp:122] Setting up BatchNorm8
I1023 12:10:12.901793  4594 net.cpp:129] Top shape: 8 32 112 112 (3211264)
I1023 12:10:12.901796  4594 net.cpp:137] Memory required for data: 1032421408
I1023 12:10:12.901803  4594 layer_factory.hpp:77] Creating layer Scale8
I1023 12:10:12.901808  4594 net.cpp:84] Creating Layer Scale8
I1023 12:10:12.901811  4594 net.cpp:406] Scale8 <- Convolution8
I1023 12:10:12.901814  4594 net.cpp:367] Scale8 -> Convolution8 (in-place)
I1023 12:10:12.901844  4594 layer_factory.hpp:77] Creating layer Scale8
I1023 12:10:12.901924  4594 net.cpp:122] Setting up Scale8
I1023 12:10:12.901931  4594 net.cpp:129] Top shape: 8 32 112 112 (3211264)
I1023 12:10:12.901933  4594 net.cpp:137] Memory required for data: 1045266464
I1023 12:10:12.901937  4594 layer_factory.hpp:77] Creating layer Convolution9
I1023 12:10:12.901945  4594 net.cpp:84] Creating Layer Convolution9
I1023 12:10:12.901948  4594 net.cpp:406] Convolution9 <- Eltwise3_penlu7_0_split_1
I1023 12:10:12.901952  4594 net.cpp:380] Convolution9 -> Convolution9
I1023 12:10:12.902899  4594 net.cpp:122] Setting up Convolution9
I1023 12:10:12.902909  4594 net.cpp:129] Top shape: 8 32 112 112 (3211264)
I1023 12:10:12.902912  4594 net.cpp:137] Memory required for data: 1058111520
I1023 12:10:12.902917  4594 layer_factory.hpp:77] Creating layer BatchNorm9
I1023 12:10:12.902923  4594 net.cpp:84] Creating Layer BatchNorm9
I1023 12:10:12.902926  4594 net.cpp:406] BatchNorm9 <- Convolution9
I1023 12:10:12.902930  4594 net.cpp:367] BatchNorm9 -> Convolution9 (in-place)
I1023 12:10:12.903059  4594 net.cpp:122] Setting up BatchNorm9
I1023 12:10:12.903064  4594 net.cpp:129] Top shape: 8 32 112 112 (3211264)
I1023 12:10:12.903067  4594 net.cpp:137] Memory required for data: 1070956576
I1023 12:10:12.903071  4594 layer_factory.hpp:77] Creating layer Scale9
I1023 12:10:12.903076  4594 net.cpp:84] Creating Layer Scale9
I1023 12:10:12.903079  4594 net.cpp:406] Scale9 <- Convolution9
I1023 12:10:12.903084  4594 net.cpp:367] Scale9 -> Convolution9 (in-place)
I1023 12:10:12.903110  4594 layer_factory.hpp:77] Creating layer Scale9
I1023 12:10:12.903187  4594 net.cpp:122] Setting up Scale9
I1023 12:10:12.903192  4594 net.cpp:129] Top shape: 8 32 112 112 (3211264)
I1023 12:10:12.903195  4594 net.cpp:137] Memory required for data: 1083801632
I1023 12:10:12.903199  4594 layer_factory.hpp:77] Creating layer penlu8
I1023 12:10:12.903205  4594 net.cpp:84] Creating Layer penlu8
I1023 12:10:12.903209  4594 net.cpp:406] penlu8 <- Convolution9
I1023 12:10:12.903213  4594 net.cpp:367] penlu8 -> Convolution9 (in-place)
I1023 12:10:12.904012  4594 net.cpp:122] Setting up penlu8
I1023 12:10:12.904022  4594 net.cpp:129] Top shape: 8 32 112 112 (3211264)
I1023 12:10:12.904026  4594 net.cpp:137] Memory required for data: 1096646688
I1023 12:10:12.904031  4594 layer_factory.hpp:77] Creating layer Convolution10
I1023 12:10:12.904038  4594 net.cpp:84] Creating Layer Convolution10
I1023 12:10:12.904042  4594 net.cpp:406] Convolution10 <- Convolution9
I1023 12:10:12.904047  4594 net.cpp:380] Convolution10 -> Convolution10
I1023 12:10:12.905086  4594 net.cpp:122] Setting up Convolution10
I1023 12:10:12.905097  4594 net.cpp:129] Top shape: 8 32 112 112 (3211264)
I1023 12:10:12.905100  4594 net.cpp:137] Memory required for data: 1109491744
I1023 12:10:12.905105  4594 layer_factory.hpp:77] Creating layer BatchNorm10
I1023 12:10:12.905112  4594 net.cpp:84] Creating Layer BatchNorm10
I1023 12:10:12.905114  4594 net.cpp:406] BatchNorm10 <- Convolution10
I1023 12:10:12.905118  4594 net.cpp:367] BatchNorm10 -> Convolution10 (in-place)
I1023 12:10:12.905248  4594 net.cpp:122] Setting up BatchNorm10
I1023 12:10:12.905254  4594 net.cpp:129] Top shape: 8 32 112 112 (3211264)
I1023 12:10:12.905257  4594 net.cpp:137] Memory required for data: 1122336800
I1023 12:10:12.905262  4594 layer_factory.hpp:77] Creating layer Scale10
I1023 12:10:12.905267  4594 net.cpp:84] Creating Layer Scale10
I1023 12:10:12.905278  4594 net.cpp:406] Scale10 <- Convolution10
I1023 12:10:12.905282  4594 net.cpp:367] Scale10 -> Convolution10 (in-place)
I1023 12:10:12.905309  4594 layer_factory.hpp:77] Creating layer Scale10
I1023 12:10:12.905391  4594 net.cpp:122] Setting up Scale10
I1023 12:10:12.905397  4594 net.cpp:129] Top shape: 8 32 112 112 (3211264)
I1023 12:10:12.905400  4594 net.cpp:137] Memory required for data: 1135181856
I1023 12:10:12.905403  4594 layer_factory.hpp:77] Creating layer Eltwise4
I1023 12:10:12.905408  4594 net.cpp:84] Creating Layer Eltwise4
I1023 12:10:12.905411  4594 net.cpp:406] Eltwise4 <- Convolution8
I1023 12:10:12.905414  4594 net.cpp:406] Eltwise4 <- Convolution10
I1023 12:10:12.905418  4594 net.cpp:380] Eltwise4 -> Eltwise4
I1023 12:10:12.905436  4594 net.cpp:122] Setting up Eltwise4
I1023 12:10:12.905439  4594 net.cpp:129] Top shape: 8 32 112 112 (3211264)
I1023 12:10:12.905442  4594 net.cpp:137] Memory required for data: 1148026912
I1023 12:10:12.905444  4594 layer_factory.hpp:77] Creating layer penlu9
I1023 12:10:12.905450  4594 net.cpp:84] Creating Layer penlu9
I1023 12:10:12.905453  4594 net.cpp:406] penlu9 <- Eltwise4
I1023 12:10:12.905457  4594 net.cpp:367] penlu9 -> Eltwise4 (in-place)
I1023 12:10:12.906234  4594 net.cpp:122] Setting up penlu9
I1023 12:10:12.906244  4594 net.cpp:129] Top shape: 8 32 112 112 (3211264)
I1023 12:10:12.906247  4594 net.cpp:137] Memory required for data: 1160871968
I1023 12:10:12.906252  4594 layer_factory.hpp:77] Creating layer Eltwise4_penlu9_0_split
I1023 12:10:12.906257  4594 net.cpp:84] Creating Layer Eltwise4_penlu9_0_split
I1023 12:10:12.906261  4594 net.cpp:406] Eltwise4_penlu9_0_split <- Eltwise4
I1023 12:10:12.906265  4594 net.cpp:380] Eltwise4_penlu9_0_split -> Eltwise4_penlu9_0_split_0
I1023 12:10:12.906270  4594 net.cpp:380] Eltwise4_penlu9_0_split -> Eltwise4_penlu9_0_split_1
I1023 12:10:12.906296  4594 net.cpp:122] Setting up Eltwise4_penlu9_0_split
I1023 12:10:12.906301  4594 net.cpp:129] Top shape: 8 32 112 112 (3211264)
I1023 12:10:12.906303  4594 net.cpp:129] Top shape: 8 32 112 112 (3211264)
I1023 12:10:12.906306  4594 net.cpp:137] Memory required for data: 1186562080
I1023 12:10:12.906308  4594 layer_factory.hpp:77] Creating layer Convolution11
I1023 12:10:12.906316  4594 net.cpp:84] Creating Layer Convolution11
I1023 12:10:12.906318  4594 net.cpp:406] Convolution11 <- Eltwise4_penlu9_0_split_0
I1023 12:10:12.906322  4594 net.cpp:380] Convolution11 -> Convolution11
I1023 12:10:12.907392  4594 net.cpp:122] Setting up Convolution11
I1023 12:10:12.907402  4594 net.cpp:129] Top shape: 8 32 112 112 (3211264)
I1023 12:10:12.907405  4594 net.cpp:137] Memory required for data: 1199407136
I1023 12:10:12.907409  4594 layer_factory.hpp:77] Creating layer BatchNorm11
I1023 12:10:12.907416  4594 net.cpp:84] Creating Layer BatchNorm11
I1023 12:10:12.907420  4594 net.cpp:406] BatchNorm11 <- Convolution11
I1023 12:10:12.907423  4594 net.cpp:367] BatchNorm11 -> Convolution11 (in-place)
I1023 12:10:12.907562  4594 net.cpp:122] Setting up BatchNorm11
I1023 12:10:12.907568  4594 net.cpp:129] Top shape: 8 32 112 112 (3211264)
I1023 12:10:12.907572  4594 net.cpp:137] Memory required for data: 1212252192
I1023 12:10:12.907577  4594 layer_factory.hpp:77] Creating layer Scale11
I1023 12:10:12.907583  4594 net.cpp:84] Creating Layer Scale11
I1023 12:10:12.907588  4594 net.cpp:406] Scale11 <- Convolution11
I1023 12:10:12.907590  4594 net.cpp:367] Scale11 -> Convolution11 (in-place)
I1023 12:10:12.907618  4594 layer_factory.hpp:77] Creating layer Scale11
I1023 12:10:12.907724  4594 net.cpp:122] Setting up Scale11
I1023 12:10:12.907730  4594 net.cpp:129] Top shape: 8 32 112 112 (3211264)
I1023 12:10:12.907732  4594 net.cpp:137] Memory required for data: 1225097248
I1023 12:10:12.907737  4594 layer_factory.hpp:77] Creating layer penlu10
I1023 12:10:12.907743  4594 net.cpp:84] Creating Layer penlu10
I1023 12:10:12.907747  4594 net.cpp:406] penlu10 <- Convolution11
I1023 12:10:12.907750  4594 net.cpp:367] penlu10 -> Convolution11 (in-place)
I1023 12:10:12.908710  4594 net.cpp:122] Setting up penlu10
I1023 12:10:12.908730  4594 net.cpp:129] Top shape: 8 32 112 112 (3211264)
I1023 12:10:12.908743  4594 net.cpp:137] Memory required for data: 1237942304
I1023 12:10:12.908749  4594 layer_factory.hpp:77] Creating layer Convolution12
I1023 12:10:12.908756  4594 net.cpp:84] Creating Layer Convolution12
I1023 12:10:12.908759  4594 net.cpp:406] Convolution12 <- Convolution11
I1023 12:10:12.908766  4594 net.cpp:380] Convolution12 -> Convolution12
I1023 12:10:12.909935  4594 net.cpp:122] Setting up Convolution12
I1023 12:10:12.909945  4594 net.cpp:129] Top shape: 8 32 112 112 (3211264)
I1023 12:10:12.909958  4594 net.cpp:137] Memory required for data: 1250787360
I1023 12:10:12.909962  4594 layer_factory.hpp:77] Creating layer BatchNorm12
I1023 12:10:12.909968  4594 net.cpp:84] Creating Layer BatchNorm12
I1023 12:10:12.909971  4594 net.cpp:406] BatchNorm12 <- Convolution12
I1023 12:10:12.909976  4594 net.cpp:367] BatchNorm12 -> Convolution12 (in-place)
I1023 12:10:12.910137  4594 net.cpp:122] Setting up BatchNorm12
I1023 12:10:12.910142  4594 net.cpp:129] Top shape: 8 32 112 112 (3211264)
I1023 12:10:12.910154  4594 net.cpp:137] Memory required for data: 1263632416
I1023 12:10:12.910159  4594 layer_factory.hpp:77] Creating layer Scale12
I1023 12:10:12.910166  4594 net.cpp:84] Creating Layer Scale12
I1023 12:10:12.910167  4594 net.cpp:406] Scale12 <- Convolution12
I1023 12:10:12.910171  4594 net.cpp:367] Scale12 -> Convolution12 (in-place)
I1023 12:10:12.910209  4594 layer_factory.hpp:77] Creating layer Scale12
I1023 12:10:12.910320  4594 net.cpp:122] Setting up Scale12
I1023 12:10:12.910326  4594 net.cpp:129] Top shape: 8 32 112 112 (3211264)
I1023 12:10:12.910328  4594 net.cpp:137] Memory required for data: 1276477472
I1023 12:10:12.910342  4594 layer_factory.hpp:77] Creating layer Eltwise5
I1023 12:10:12.910347  4594 net.cpp:84] Creating Layer Eltwise5
I1023 12:10:12.910351  4594 net.cpp:406] Eltwise5 <- Eltwise4_penlu9_0_split_1
I1023 12:10:12.910353  4594 net.cpp:406] Eltwise5 <- Convolution12
I1023 12:10:12.910357  4594 net.cpp:380] Eltwise5 -> Eltwise5
I1023 12:10:12.910387  4594 net.cpp:122] Setting up Eltwise5
I1023 12:10:12.910390  4594 net.cpp:129] Top shape: 8 32 112 112 (3211264)
I1023 12:10:12.910392  4594 net.cpp:137] Memory required for data: 1289322528
I1023 12:10:12.910404  4594 layer_factory.hpp:77] Creating layer penlu11
I1023 12:10:12.910409  4594 net.cpp:84] Creating Layer penlu11
I1023 12:10:12.910413  4594 net.cpp:406] penlu11 <- Eltwise5
I1023 12:10:12.910418  4594 net.cpp:367] penlu11 -> Eltwise5 (in-place)
I1023 12:10:12.911276  4594 net.cpp:122] Setting up penlu11
I1023 12:10:12.911288  4594 net.cpp:129] Top shape: 8 32 112 112 (3211264)
I1023 12:10:12.911299  4594 net.cpp:137] Memory required for data: 1302167584
I1023 12:10:12.911304  4594 layer_factory.hpp:77] Creating layer Eltwise5_penlu11_0_split
I1023 12:10:12.911309  4594 net.cpp:84] Creating Layer Eltwise5_penlu11_0_split
I1023 12:10:12.911314  4594 net.cpp:406] Eltwise5_penlu11_0_split <- Eltwise5
I1023 12:10:12.911317  4594 net.cpp:380] Eltwise5_penlu11_0_split -> Eltwise5_penlu11_0_split_0
I1023 12:10:12.911322  4594 net.cpp:380] Eltwise5_penlu11_0_split -> Eltwise5_penlu11_0_split_1
I1023 12:10:12.911348  4594 net.cpp:122] Setting up Eltwise5_penlu11_0_split
I1023 12:10:12.911355  4594 net.cpp:129] Top shape: 8 32 112 112 (3211264)
I1023 12:10:12.911357  4594 net.cpp:129] Top shape: 8 32 112 112 (3211264)
I1023 12:10:12.911360  4594 net.cpp:137] Memory required for data: 1327857696
I1023 12:10:12.911363  4594 layer_factory.hpp:77] Creating layer Convolution13
I1023 12:10:12.911370  4594 net.cpp:84] Creating Layer Convolution13
I1023 12:10:12.911372  4594 net.cpp:406] Convolution13 <- Eltwise5_penlu11_0_split_0
I1023 12:10:12.911377  4594 net.cpp:380] Convolution13 -> Convolution13
I1023 12:10:12.912518  4594 net.cpp:122] Setting up Convolution13
I1023 12:10:12.912528  4594 net.cpp:129] Top shape: 8 32 112 112 (3211264)
I1023 12:10:12.912533  4594 net.cpp:137] Memory required for data: 1340702752
I1023 12:10:12.912547  4594 layer_factory.hpp:77] Creating layer BatchNorm13
I1023 12:10:12.912554  4594 net.cpp:84] Creating Layer BatchNorm13
I1023 12:10:12.912557  4594 net.cpp:406] BatchNorm13 <- Convolution13
I1023 12:10:12.912561  4594 net.cpp:367] BatchNorm13 -> Convolution13 (in-place)
I1023 12:10:12.912708  4594 net.cpp:122] Setting up BatchNorm13
I1023 12:10:12.912713  4594 net.cpp:129] Top shape: 8 32 112 112 (3211264)
I1023 12:10:12.912715  4594 net.cpp:137] Memory required for data: 1353547808
I1023 12:10:12.912721  4594 layer_factory.hpp:77] Creating layer Scale13
I1023 12:10:12.912726  4594 net.cpp:84] Creating Layer Scale13
I1023 12:10:12.912730  4594 net.cpp:406] Scale13 <- Convolution13
I1023 12:10:12.912734  4594 net.cpp:367] Scale13 -> Convolution13 (in-place)
I1023 12:10:12.912765  4594 layer_factory.hpp:77] Creating layer Scale13
I1023 12:10:12.912856  4594 net.cpp:122] Setting up Scale13
I1023 12:10:12.912863  4594 net.cpp:129] Top shape: 8 32 112 112 (3211264)
I1023 12:10:12.912865  4594 net.cpp:137] Memory required for data: 1366392864
I1023 12:10:12.912869  4594 layer_factory.hpp:77] Creating layer penlu12
I1023 12:10:12.912876  4594 net.cpp:84] Creating Layer penlu12
I1023 12:10:12.912879  4594 net.cpp:406] penlu12 <- Convolution13
I1023 12:10:12.912885  4594 net.cpp:367] penlu12 -> Convolution13 (in-place)
I1023 12:10:12.913696  4594 net.cpp:122] Setting up penlu12
I1023 12:10:12.913705  4594 net.cpp:129] Top shape: 8 32 112 112 (3211264)
I1023 12:10:12.913709  4594 net.cpp:137] Memory required for data: 1379237920
I1023 12:10:12.913714  4594 layer_factory.hpp:77] Creating layer Convolution14
I1023 12:10:12.913722  4594 net.cpp:84] Creating Layer Convolution14
I1023 12:10:12.913725  4594 net.cpp:406] Convolution14 <- Convolution13
I1023 12:10:12.913731  4594 net.cpp:380] Convolution14 -> Convolution14
I1023 12:10:12.914860  4594 net.cpp:122] Setting up Convolution14
I1023 12:10:12.914871  4594 net.cpp:129] Top shape: 8 32 112 112 (3211264)
I1023 12:10:12.914875  4594 net.cpp:137] Memory required for data: 1392082976
I1023 12:10:12.914892  4594 layer_factory.hpp:77] Creating layer BatchNorm14
I1023 12:10:12.914902  4594 net.cpp:84] Creating Layer BatchNorm14
I1023 12:10:12.914906  4594 net.cpp:406] BatchNorm14 <- Convolution14
I1023 12:10:12.914911  4594 net.cpp:367] BatchNorm14 -> Convolution14 (in-place)
I1023 12:10:12.915057  4594 net.cpp:122] Setting up BatchNorm14
I1023 12:10:12.915063  4594 net.cpp:129] Top shape: 8 32 112 112 (3211264)
I1023 12:10:12.915066  4594 net.cpp:137] Memory required for data: 1404928032
I1023 12:10:12.915072  4594 layer_factory.hpp:77] Creating layer Scale14
I1023 12:10:12.915077  4594 net.cpp:84] Creating Layer Scale14
I1023 12:10:12.915081  4594 net.cpp:406] Scale14 <- Convolution14
I1023 12:10:12.915083  4594 net.cpp:367] Scale14 -> Convolution14 (in-place)
I1023 12:10:12.915112  4594 layer_factory.hpp:77] Creating layer Scale14
I1023 12:10:12.915206  4594 net.cpp:122] Setting up Scale14
I1023 12:10:12.915212  4594 net.cpp:129] Top shape: 8 32 112 112 (3211264)
I1023 12:10:12.915215  4594 net.cpp:137] Memory required for data: 1417773088
I1023 12:10:12.915220  4594 layer_factory.hpp:77] Creating layer Eltwise6
I1023 12:10:12.915225  4594 net.cpp:84] Creating Layer Eltwise6
I1023 12:10:12.915227  4594 net.cpp:406] Eltwise6 <- Eltwise5_penlu11_0_split_1
I1023 12:10:12.915230  4594 net.cpp:406] Eltwise6 <- Convolution14
I1023 12:10:12.915235  4594 net.cpp:380] Eltwise6 -> Eltwise6
I1023 12:10:12.915253  4594 net.cpp:122] Setting up Eltwise6
I1023 12:10:12.915258  4594 net.cpp:129] Top shape: 8 32 112 112 (3211264)
I1023 12:10:12.915261  4594 net.cpp:137] Memory required for data: 1430618144
I1023 12:10:12.915263  4594 layer_factory.hpp:77] Creating layer penlu13
I1023 12:10:12.915269  4594 net.cpp:84] Creating Layer penlu13
I1023 12:10:12.915272  4594 net.cpp:406] penlu13 <- Eltwise6
I1023 12:10:12.915277  4594 net.cpp:367] penlu13 -> Eltwise6 (in-place)
I1023 12:10:12.916105  4594 net.cpp:122] Setting up penlu13
I1023 12:10:12.916115  4594 net.cpp:129] Top shape: 8 32 112 112 (3211264)
I1023 12:10:12.916126  4594 net.cpp:137] Memory required for data: 1443463200
I1023 12:10:12.916133  4594 layer_factory.hpp:77] Creating layer Eltwise6_penlu13_0_split
I1023 12:10:12.916139  4594 net.cpp:84] Creating Layer Eltwise6_penlu13_0_split
I1023 12:10:12.916142  4594 net.cpp:406] Eltwise6_penlu13_0_split <- Eltwise6
I1023 12:10:12.916146  4594 net.cpp:380] Eltwise6_penlu13_0_split -> Eltwise6_penlu13_0_split_0
I1023 12:10:12.916152  4594 net.cpp:380] Eltwise6_penlu13_0_split -> Eltwise6_penlu13_0_split_1
I1023 12:10:12.916180  4594 net.cpp:122] Setting up Eltwise6_penlu13_0_split
I1023 12:10:12.916185  4594 net.cpp:129] Top shape: 8 32 112 112 (3211264)
I1023 12:10:12.916189  4594 net.cpp:129] Top shape: 8 32 112 112 (3211264)
I1023 12:10:12.916193  4594 net.cpp:137] Memory required for data: 1469153312
I1023 12:10:12.916194  4594 layer_factory.hpp:77] Creating layer Convolution15
I1023 12:10:12.916201  4594 net.cpp:84] Creating Layer Convolution15
I1023 12:10:12.916205  4594 net.cpp:406] Convolution15 <- Eltwise6_penlu13_0_split_0
I1023 12:10:12.916210  4594 net.cpp:380] Convolution15 -> Convolution15
I1023 12:10:12.917179  4594 net.cpp:122] Setting up Convolution15
I1023 12:10:12.917189  4594 net.cpp:129] Top shape: 8 64 56 56 (1605632)
I1023 12:10:12.917193  4594 net.cpp:137] Memory required for data: 1475575840
I1023 12:10:12.917198  4594 layer_factory.hpp:77] Creating layer BatchNorm15
I1023 12:10:12.917203  4594 net.cpp:84] Creating Layer BatchNorm15
I1023 12:10:12.917207  4594 net.cpp:406] BatchNorm15 <- Convolution15
I1023 12:10:12.917212  4594 net.cpp:367] BatchNorm15 -> Convolution15 (in-place)
I1023 12:10:12.917357  4594 net.cpp:122] Setting up BatchNorm15
I1023 12:10:12.917362  4594 net.cpp:129] Top shape: 8 64 56 56 (1605632)
I1023 12:10:12.917366  4594 net.cpp:137] Memory required for data: 1481998368
I1023 12:10:12.917371  4594 layer_factory.hpp:77] Creating layer Scale15
I1023 12:10:12.917376  4594 net.cpp:84] Creating Layer Scale15
I1023 12:10:12.917379  4594 net.cpp:406] Scale15 <- Convolution15
I1023 12:10:12.917383  4594 net.cpp:367] Scale15 -> Convolution15 (in-place)
I1023 12:10:12.917412  4594 layer_factory.hpp:77] Creating layer Scale15
I1023 12:10:12.917496  4594 net.cpp:122] Setting up Scale15
I1023 12:10:12.917502  4594 net.cpp:129] Top shape: 8 64 56 56 (1605632)
I1023 12:10:12.917505  4594 net.cpp:137] Memory required for data: 1488420896
I1023 12:10:12.917510  4594 layer_factory.hpp:77] Creating layer Convolution16
I1023 12:10:12.917516  4594 net.cpp:84] Creating Layer Convolution16
I1023 12:10:12.917520  4594 net.cpp:406] Convolution16 <- Eltwise6_penlu13_0_split_1
I1023 12:10:12.917524  4594 net.cpp:380] Convolution16 -> Convolution16
I1023 12:10:12.918843  4594 net.cpp:122] Setting up Convolution16
I1023 12:10:12.918853  4594 net.cpp:129] Top shape: 8 64 56 56 (1605632)
I1023 12:10:12.918857  4594 net.cpp:137] Memory required for data: 1494843424
I1023 12:10:12.918861  4594 layer_factory.hpp:77] Creating layer BatchNorm16
I1023 12:10:12.918869  4594 net.cpp:84] Creating Layer BatchNorm16
I1023 12:10:12.918872  4594 net.cpp:406] BatchNorm16 <- Convolution16
I1023 12:10:12.918876  4594 net.cpp:367] BatchNorm16 -> Convolution16 (in-place)
I1023 12:10:12.919021  4594 net.cpp:122] Setting up BatchNorm16
I1023 12:10:12.919026  4594 net.cpp:129] Top shape: 8 64 56 56 (1605632)
I1023 12:10:12.919030  4594 net.cpp:137] Memory required for data: 1501265952
I1023 12:10:12.919035  4594 layer_factory.hpp:77] Creating layer Scale16
I1023 12:10:12.919040  4594 net.cpp:84] Creating Layer Scale16
I1023 12:10:12.919044  4594 net.cpp:406] Scale16 <- Convolution16
I1023 12:10:12.919047  4594 net.cpp:367] Scale16 -> Convolution16 (in-place)
I1023 12:10:12.919076  4594 layer_factory.hpp:77] Creating layer Scale16
I1023 12:10:12.919162  4594 net.cpp:122] Setting up Scale16
I1023 12:10:12.919167  4594 net.cpp:129] Top shape: 8 64 56 56 (1605632)
I1023 12:10:12.919170  4594 net.cpp:137] Memory required for data: 1507688480
I1023 12:10:12.919175  4594 layer_factory.hpp:77] Creating layer penlu14
I1023 12:10:12.919188  4594 net.cpp:84] Creating Layer penlu14
I1023 12:10:12.919191  4594 net.cpp:406] penlu14 <- Convolution16
I1023 12:10:12.919195  4594 net.cpp:367] penlu14 -> Convolution16 (in-place)
I1023 12:10:12.919446  4594 net.cpp:122] Setting up penlu14
I1023 12:10:12.919452  4594 net.cpp:129] Top shape: 8 64 56 56 (1605632)
I1023 12:10:12.919456  4594 net.cpp:137] Memory required for data: 1514111008
I1023 12:10:12.919461  4594 layer_factory.hpp:77] Creating layer Convolution17
I1023 12:10:12.919468  4594 net.cpp:84] Creating Layer Convolution17
I1023 12:10:12.919471  4594 net.cpp:406] Convolution17 <- Convolution16
I1023 12:10:12.919476  4594 net.cpp:380] Convolution17 -> Convolution17
I1023 12:10:12.920859  4594 net.cpp:122] Setting up Convolution17
I1023 12:10:12.920869  4594 net.cpp:129] Top shape: 8 64 56 56 (1605632)
I1023 12:10:12.920872  4594 net.cpp:137] Memory required for data: 1520533536
I1023 12:10:12.920877  4594 layer_factory.hpp:77] Creating layer BatchNorm17
I1023 12:10:12.920882  4594 net.cpp:84] Creating Layer BatchNorm17
I1023 12:10:12.920886  4594 net.cpp:406] BatchNorm17 <- Convolution17
I1023 12:10:12.920889  4594 net.cpp:367] BatchNorm17 -> Convolution17 (in-place)
I1023 12:10:12.921034  4594 net.cpp:122] Setting up BatchNorm17
I1023 12:10:12.921039  4594 net.cpp:129] Top shape: 8 64 56 56 (1605632)
I1023 12:10:12.921042  4594 net.cpp:137] Memory required for data: 1526956064
I1023 12:10:12.921047  4594 layer_factory.hpp:77] Creating layer Scale17
I1023 12:10:12.921051  4594 net.cpp:84] Creating Layer Scale17
I1023 12:10:12.921054  4594 net.cpp:406] Scale17 <- Convolution17
I1023 12:10:12.921057  4594 net.cpp:367] Scale17 -> Convolution17 (in-place)
I1023 12:10:12.921097  4594 layer_factory.hpp:77] Creating layer Scale17
I1023 12:10:12.921200  4594 net.cpp:122] Setting up Scale17
I1023 12:10:12.921206  4594 net.cpp:129] Top shape: 8 64 56 56 (1605632)
I1023 12:10:12.921218  4594 net.cpp:137] Memory required for data: 1533378592
I1023 12:10:12.921222  4594 layer_factory.hpp:77] Creating layer Eltwise7
I1023 12:10:12.921226  4594 net.cpp:84] Creating Layer Eltwise7
I1023 12:10:12.921231  4594 net.cpp:406] Eltwise7 <- Convolution15
I1023 12:10:12.921232  4594 net.cpp:406] Eltwise7 <- Convolution17
I1023 12:10:12.921236  4594 net.cpp:380] Eltwise7 -> Eltwise7
I1023 12:10:12.921253  4594 net.cpp:122] Setting up Eltwise7
I1023 12:10:12.921257  4594 net.cpp:129] Top shape: 8 64 56 56 (1605632)
I1023 12:10:12.921260  4594 net.cpp:137] Memory required for data: 1539801120
I1023 12:10:12.921263  4594 layer_factory.hpp:77] Creating layer penlu15
I1023 12:10:12.921268  4594 net.cpp:84] Creating Layer penlu15
I1023 12:10:12.921272  4594 net.cpp:406] penlu15 <- Eltwise7
I1023 12:10:12.921277  4594 net.cpp:367] penlu15 -> Eltwise7 (in-place)
I1023 12:10:12.922017  4594 net.cpp:122] Setting up penlu15
I1023 12:10:12.922026  4594 net.cpp:129] Top shape: 8 64 56 56 (1605632)
I1023 12:10:12.922029  4594 net.cpp:137] Memory required for data: 1546223648
I1023 12:10:12.922034  4594 layer_factory.hpp:77] Creating layer Eltwise7_penlu15_0_split
I1023 12:10:12.922039  4594 net.cpp:84] Creating Layer Eltwise7_penlu15_0_split
I1023 12:10:12.922041  4594 net.cpp:406] Eltwise7_penlu15_0_split <- Eltwise7
I1023 12:10:12.922044  4594 net.cpp:380] Eltwise7_penlu15_0_split -> Eltwise7_penlu15_0_split_0
I1023 12:10:12.922049  4594 net.cpp:380] Eltwise7_penlu15_0_split -> Eltwise7_penlu15_0_split_1
I1023 12:10:12.922075  4594 net.cpp:122] Setting up Eltwise7_penlu15_0_split
I1023 12:10:12.922080  4594 net.cpp:129] Top shape: 8 64 56 56 (1605632)
I1023 12:10:12.922083  4594 net.cpp:129] Top shape: 8 64 56 56 (1605632)
I1023 12:10:12.922086  4594 net.cpp:137] Memory required for data: 1559068704
I1023 12:10:12.922087  4594 layer_factory.hpp:77] Creating layer Convolution18
I1023 12:10:12.922094  4594 net.cpp:84] Creating Layer Convolution18
I1023 12:10:12.922096  4594 net.cpp:406] Convolution18 <- Eltwise7_penlu15_0_split_0
I1023 12:10:12.922101  4594 net.cpp:380] Convolution18 -> Convolution18
I1023 12:10:12.924194  4594 net.cpp:122] Setting up Convolution18
I1023 12:10:12.924203  4594 net.cpp:129] Top shape: 8 64 56 56 (1605632)
I1023 12:10:12.924206  4594 net.cpp:137] Memory required for data: 1565491232
I1023 12:10:12.924211  4594 layer_factory.hpp:77] Creating layer BatchNorm18
I1023 12:10:12.924216  4594 net.cpp:84] Creating Layer BatchNorm18
I1023 12:10:12.924219  4594 net.cpp:406] BatchNorm18 <- Convolution18
I1023 12:10:12.924223  4594 net.cpp:367] BatchNorm18 -> Convolution18 (in-place)
I1023 12:10:12.924372  4594 net.cpp:122] Setting up BatchNorm18
I1023 12:10:12.924377  4594 net.cpp:129] Top shape: 8 64 56 56 (1605632)
I1023 12:10:12.924379  4594 net.cpp:137] Memory required for data: 1571913760
I1023 12:10:12.924384  4594 layer_factory.hpp:77] Creating layer Scale18
I1023 12:10:12.924388  4594 net.cpp:84] Creating Layer Scale18
I1023 12:10:12.924391  4594 net.cpp:406] Scale18 <- Convolution18
I1023 12:10:12.924396  4594 net.cpp:367] Scale18 -> Convolution18 (in-place)
I1023 12:10:12.924423  4594 layer_factory.hpp:77] Creating layer Scale18
I1023 12:10:12.924511  4594 net.cpp:122] Setting up Scale18
I1023 12:10:12.924516  4594 net.cpp:129] Top shape: 8 64 56 56 (1605632)
I1023 12:10:12.924518  4594 net.cpp:137] Memory required for data: 1578336288
I1023 12:10:12.924522  4594 layer_factory.hpp:77] Creating layer penlu16
I1023 12:10:12.924527  4594 net.cpp:84] Creating Layer penlu16
I1023 12:10:12.924530  4594 net.cpp:406] penlu16 <- Convolution18
I1023 12:10:12.924535  4594 net.cpp:367] penlu16 -> Convolution18 (in-place)
I1023 12:10:12.924739  4594 net.cpp:122] Setting up penlu16
I1023 12:10:12.924744  4594 net.cpp:129] Top shape: 8 64 56 56 (1605632)
I1023 12:10:12.924746  4594 net.cpp:137] Memory required for data: 1584758816
I1023 12:10:12.924751  4594 layer_factory.hpp:77] Creating layer Convolution19
I1023 12:10:12.924757  4594 net.cpp:84] Creating Layer Convolution19
I1023 12:10:12.924759  4594 net.cpp:406] Convolution19 <- Convolution18
I1023 12:10:12.924764  4594 net.cpp:380] Convolution19 -> Convolution19
I1023 12:10:12.927036  4594 net.cpp:122] Setting up Convolution19
I1023 12:10:12.927045  4594 net.cpp:129] Top shape: 8 64 56 56 (1605632)
I1023 12:10:12.927047  4594 net.cpp:137] Memory required for data: 1591181344
I1023 12:10:12.927052  4594 layer_factory.hpp:77] Creating layer BatchNorm19
I1023 12:10:12.927058  4594 net.cpp:84] Creating Layer BatchNorm19
I1023 12:10:12.927062  4594 net.cpp:406] BatchNorm19 <- Convolution19
I1023 12:10:12.927065  4594 net.cpp:367] BatchNorm19 -> Convolution19 (in-place)
I1023 12:10:12.927211  4594 net.cpp:122] Setting up BatchNorm19
I1023 12:10:12.927215  4594 net.cpp:129] Top shape: 8 64 56 56 (1605632)
I1023 12:10:12.927218  4594 net.cpp:137] Memory required for data: 1597603872
I1023 12:10:12.927223  4594 layer_factory.hpp:77] Creating layer Scale19
I1023 12:10:12.927227  4594 net.cpp:84] Creating Layer Scale19
I1023 12:10:12.927230  4594 net.cpp:406] Scale19 <- Convolution19
I1023 12:10:12.927233  4594 net.cpp:367] Scale19 -> Convolution19 (in-place)
I1023 12:10:12.927263  4594 layer_factory.hpp:77] Creating layer Scale19
I1023 12:10:12.927348  4594 net.cpp:122] Setting up Scale19
I1023 12:10:12.927353  4594 net.cpp:129] Top shape: 8 64 56 56 (1605632)
I1023 12:10:12.927356  4594 net.cpp:137] Memory required for data: 1604026400
I1023 12:10:12.927359  4594 layer_factory.hpp:77] Creating layer Eltwise8
I1023 12:10:12.927363  4594 net.cpp:84] Creating Layer Eltwise8
I1023 12:10:12.927366  4594 net.cpp:406] Eltwise8 <- Eltwise7_penlu15_0_split_1
I1023 12:10:12.927369  4594 net.cpp:406] Eltwise8 <- Convolution19
I1023 12:10:12.927373  4594 net.cpp:380] Eltwise8 -> Eltwise8
I1023 12:10:12.927389  4594 net.cpp:122] Setting up Eltwise8
I1023 12:10:12.927393  4594 net.cpp:129] Top shape: 8 64 56 56 (1605632)
I1023 12:10:12.927395  4594 net.cpp:137] Memory required for data: 1610448928
I1023 12:10:12.927397  4594 layer_factory.hpp:77] Creating layer penlu17
I1023 12:10:12.927402  4594 net.cpp:84] Creating Layer penlu17
I1023 12:10:12.927405  4594 net.cpp:406] penlu17 <- Eltwise8
I1023 12:10:12.927417  4594 net.cpp:367] penlu17 -> Eltwise8 (in-place)
I1023 12:10:12.928174  4594 net.cpp:122] Setting up penlu17
I1023 12:10:12.928182  4594 net.cpp:129] Top shape: 8 64 56 56 (1605632)
I1023 12:10:12.928184  4594 net.cpp:137] Memory required for data: 1616871456
I1023 12:10:12.928190  4594 layer_factory.hpp:77] Creating layer Eltwise8_penlu17_0_split
I1023 12:10:12.928194  4594 net.cpp:84] Creating Layer Eltwise8_penlu17_0_split
I1023 12:10:12.928196  4594 net.cpp:406] Eltwise8_penlu17_0_split <- Eltwise8
I1023 12:10:12.928200  4594 net.cpp:380] Eltwise8_penlu17_0_split -> Eltwise8_penlu17_0_split_0
I1023 12:10:12.928205  4594 net.cpp:380] Eltwise8_penlu17_0_split -> Eltwise8_penlu17_0_split_1
I1023 12:10:12.928232  4594 net.cpp:122] Setting up Eltwise8_penlu17_0_split
I1023 12:10:12.928236  4594 net.cpp:129] Top shape: 8 64 56 56 (1605632)
I1023 12:10:12.928239  4594 net.cpp:129] Top shape: 8 64 56 56 (1605632)
I1023 12:10:12.928241  4594 net.cpp:137] Memory required for data: 1629716512
I1023 12:10:12.928243  4594 layer_factory.hpp:77] Creating layer Convolution20
I1023 12:10:12.928249  4594 net.cpp:84] Creating Layer Convolution20
I1023 12:10:12.928252  4594 net.cpp:406] Convolution20 <- Eltwise8_penlu17_0_split_0
I1023 12:10:12.928257  4594 net.cpp:380] Convolution20 -> Convolution20
I1023 12:10:12.930644  4594 net.cpp:122] Setting up Convolution20
I1023 12:10:12.930652  4594 net.cpp:129] Top shape: 8 64 56 56 (1605632)
I1023 12:10:12.930655  4594 net.cpp:137] Memory required for data: 1636139040
I1023 12:10:12.930660  4594 layer_factory.hpp:77] Creating layer BatchNorm20
I1023 12:10:12.930665  4594 net.cpp:84] Creating Layer BatchNorm20
I1023 12:10:12.930667  4594 net.cpp:406] BatchNorm20 <- Convolution20
I1023 12:10:12.930671  4594 net.cpp:367] BatchNorm20 -> Convolution20 (in-place)
I1023 12:10:12.930819  4594 net.cpp:122] Setting up BatchNorm20
I1023 12:10:12.930824  4594 net.cpp:129] Top shape: 8 64 56 56 (1605632)
I1023 12:10:12.930826  4594 net.cpp:137] Memory required for data: 1642561568
I1023 12:10:12.930831  4594 layer_factory.hpp:77] Creating layer Scale20
I1023 12:10:12.930836  4594 net.cpp:84] Creating Layer Scale20
I1023 12:10:12.930838  4594 net.cpp:406] Scale20 <- Convolution20
I1023 12:10:12.930841  4594 net.cpp:367] Scale20 -> Convolution20 (in-place)
I1023 12:10:12.930871  4594 layer_factory.hpp:77] Creating layer Scale20
I1023 12:10:12.930958  4594 net.cpp:122] Setting up Scale20
I1023 12:10:12.930961  4594 net.cpp:129] Top shape: 8 64 56 56 (1605632)
I1023 12:10:12.930963  4594 net.cpp:137] Memory required for data: 1648984096
I1023 12:10:12.930968  4594 layer_factory.hpp:77] Creating layer penlu18
I1023 12:10:12.930974  4594 net.cpp:84] Creating Layer penlu18
I1023 12:10:12.930976  4594 net.cpp:406] penlu18 <- Convolution20
I1023 12:10:12.930979  4594 net.cpp:367] penlu18 -> Convolution20 (in-place)
I1023 12:10:12.931179  4594 net.cpp:122] Setting up penlu18
I1023 12:10:12.931182  4594 net.cpp:129] Top shape: 8 64 56 56 (1605632)
I1023 12:10:12.931185  4594 net.cpp:137] Memory required for data: 1655406624
I1023 12:10:12.931190  4594 layer_factory.hpp:77] Creating layer Convolution21
I1023 12:10:12.931196  4594 net.cpp:84] Creating Layer Convolution21
I1023 12:10:12.931198  4594 net.cpp:406] Convolution21 <- Convolution20
I1023 12:10:12.931202  4594 net.cpp:380] Convolution21 -> Convolution21
I1023 12:10:12.932941  4594 net.cpp:122] Setting up Convolution21
I1023 12:10:12.932950  4594 net.cpp:129] Top shape: 8 64 56 56 (1605632)
I1023 12:10:12.932952  4594 net.cpp:137] Memory required for data: 1661829152
I1023 12:10:12.932957  4594 layer_factory.hpp:77] Creating layer BatchNorm21
I1023 12:10:12.932962  4594 net.cpp:84] Creating Layer BatchNorm21
I1023 12:10:12.932965  4594 net.cpp:406] BatchNorm21 <- Convolution21
I1023 12:10:12.932968  4594 net.cpp:367] BatchNorm21 -> Convolution21 (in-place)
I1023 12:10:12.933116  4594 net.cpp:122] Setting up BatchNorm21
I1023 12:10:12.933121  4594 net.cpp:129] Top shape: 8 64 56 56 (1605632)
I1023 12:10:12.933123  4594 net.cpp:137] Memory required for data: 1668251680
I1023 12:10:12.933135  4594 layer_factory.hpp:77] Creating layer Scale21
I1023 12:10:12.933140  4594 net.cpp:84] Creating Layer Scale21
I1023 12:10:12.933142  4594 net.cpp:406] Scale21 <- Convolution21
I1023 12:10:12.933146  4594 net.cpp:367] Scale21 -> Convolution21 (in-place)
I1023 12:10:12.933174  4594 layer_factory.hpp:77] Creating layer Scale21
I1023 12:10:12.933262  4594 net.cpp:122] Setting up Scale21
I1023 12:10:12.933266  4594 net.cpp:129] Top shape: 8 64 56 56 (1605632)
I1023 12:10:12.933269  4594 net.cpp:137] Memory required for data: 1674674208
I1023 12:10:12.933272  4594 layer_factory.hpp:77] Creating layer Eltwise9
I1023 12:10:12.933276  4594 net.cpp:84] Creating Layer Eltwise9
I1023 12:10:12.933279  4594 net.cpp:406] Eltwise9 <- Eltwise8_penlu17_0_split_1
I1023 12:10:12.933281  4594 net.cpp:406] Eltwise9 <- Convolution21
I1023 12:10:12.933285  4594 net.cpp:380] Eltwise9 -> Eltwise9
I1023 12:10:12.933303  4594 net.cpp:122] Setting up Eltwise9
I1023 12:10:12.933307  4594 net.cpp:129] Top shape: 8 64 56 56 (1605632)
I1023 12:10:12.933310  4594 net.cpp:137] Memory required for data: 1681096736
I1023 12:10:12.933311  4594 layer_factory.hpp:77] Creating layer penlu19
I1023 12:10:12.933316  4594 net.cpp:84] Creating Layer penlu19
I1023 12:10:12.933318  4594 net.cpp:406] penlu19 <- Eltwise9
I1023 12:10:12.933322  4594 net.cpp:367] penlu19 -> Eltwise9 (in-place)
I1023 12:10:12.934051  4594 net.cpp:122] Setting up penlu19
I1023 12:10:12.934059  4594 net.cpp:129] Top shape: 8 64 56 56 (1605632)
I1023 12:10:12.934062  4594 net.cpp:137] Memory required for data: 1687519264
I1023 12:10:12.934067  4594 layer_factory.hpp:77] Creating layer Pooling1
I1023 12:10:12.934073  4594 net.cpp:84] Creating Layer Pooling1
I1023 12:10:12.934075  4594 net.cpp:406] Pooling1 <- Eltwise9
I1023 12:10:12.934079  4594 net.cpp:380] Pooling1 -> Pooling1
I1023 12:10:12.934231  4594 net.cpp:122] Setting up Pooling1
I1023 12:10:12.934237  4594 net.cpp:129] Top shape: 8 64 1 1 (512)
I1023 12:10:12.934240  4594 net.cpp:137] Memory required for data: 1687521312
I1023 12:10:12.934242  4594 layer_factory.hpp:77] Creating layer InnerProduct1
I1023 12:10:12.934250  4594 net.cpp:84] Creating Layer InnerProduct1
I1023 12:10:12.934253  4594 net.cpp:406] InnerProduct1 <- Pooling1
I1023 12:10:12.934257  4594 net.cpp:380] InnerProduct1 -> InnerProduct1
I1023 12:10:12.934362  4594 net.cpp:122] Setting up InnerProduct1
I1023 12:10:12.934366  4594 net.cpp:129] Top shape: 8 10 (80)
I1023 12:10:12.934368  4594 net.cpp:137] Memory required for data: 1687521632
I1023 12:10:12.934372  4594 layer_factory.hpp:77] Creating layer SoftmaxWithLoss1
I1023 12:10:12.934378  4594 net.cpp:84] Creating Layer SoftmaxWithLoss1
I1023 12:10:12.934381  4594 net.cpp:406] SoftmaxWithLoss1 <- InnerProduct1
I1023 12:10:12.934383  4594 net.cpp:406] SoftmaxWithLoss1 <- Data2
I1023 12:10:12.934387  4594 net.cpp:380] SoftmaxWithLoss1 -> SoftmaxWithLoss1
…
I1023 12:10:12.937089  4594 net.cpp:294] The NetState phase (1) differed from the phase (0) specified by a rule in layer Data1
I1023 12:10:12.937558  4594 net.cpp:51] Initializing net from parameters: 
name: "resnet"
state {
  phase: TEST
}
layer {
  name: "Data1"
  type: "Data"
  top: "Data1"
  top: "Data2"
  include {
    phase: TEST
  }
  transform_param {
    mirror: false
    crop_size: 224
    mean_file: "/home/x306/caffe/xn/English_orange/data/orange1_mean.binaryproto"
  }
  data_param {
    source: "/home/x306/caffe/xn/English_orange/data/val1_lmdb"
    batch_size: 8
    backend: LMDB
  }
}
layer {
  name: "Convolution1"
  type: "Convolution"
  bottom: "Data1"
  top: "Convolution1"
  param {
    lr_mult: 1
    decay_mult: 1
  }
  param {
    lr_mult: 2
    decay_mult: 0
  }
  convolution_param {
    num_output: 16
    pad: 1
    kernel_size: 3
    stride: 1
    weight_filler {
      type: "gaussian"
      std: 0.118
    }
    bias_filler {
      type: "constant"
      value: 0
    }
  }
}
layer {
  name: "BatchNorm1"
  type: "BatchNorm"
  bottom: "Convolution1"
  top: "Convolution1"
  param {
    lr_mult: 0
    decay_mult: 0
  }
  param {
    lr_mult: 0
    decay_mult: 0
  }
  param {
    lr_mult: 0
    decay_mult: 0
  }
}
layer {
  name: "Scale1"
  type: "Scale"
  bottom: "Convolution1"
  top: "Convolution1"
  scale_param {
    bias_term: true
  }
}
layer {
  name: "penlu1"
  type: "PENLU"
  bottom: "Convolution1"
  top: "Convolution1"
  param {
    lr_mult: 2
    decay_mult: 0
  }
  param {
    lr_mult: 2
    decay_mult: 0
  }
  param {
    lr_mult: 0
    decay_mult: 0
  }
  penlu_param {
    alpha_filler {
      type: "constant"
      value: 0.25
    }
    beta_filler {
      type: "constant"
      value: 1
    }
    eta_filler {
      type: "constant"
      value: 1
    }
  }
}
layer {
  name: "Convolution2"
  type: "Convolution"
  bottom: "Convolution1"
  top: "Convolution2"
  param {
    lr_mult: 1
    decay_mult: 1
  }
  param {
    lr_mult: 2
    decay_mult: 0
  }
  convolution_param {
    num_output: 16
    pad: 1
    kernel_size: 3
    stride: 1
    weight_filler {
      type: "gaussian"
      std: 0.118
    }
    bias_filler {
      type: "constant"
      value: 0
    }
  }
}
layer {
  name: "BatchNorm2"
  type: "BatchNorm"
  bottom: "Convolution2"
  top: "Convolution2"
  param {
    lr_mult: 0
    decay_mult: 0
  }
  param {
    lr_mult: 0
    decay_mult: 0
  }
  param {
    lr_mult: 0
    decay_mult: 0
  }
}
layer {
  name: "Scale2"
  type: "Scale"
  bottom: "Convolution2"
  top: "Convolution2"
  scale_param {
    bias_term: true
  }
}
layer {
  name: "penlu2"
  type: "PENLU"
  bottom: "Convolution2"
  top: "Convolution2"
  param {
    lr_mult: 2
    decay_mult: 0
  }
  param {
    lr_mult: 2
    decay_mult: 0
  }
  param {
    lr_mult: 0
    decay_mult: 0
  }
  penlu_param {
    alpha_filler {
      type: "constant"
      value: 0.25
    }
    beta_filler {
      type: "constant"
      value: 1
    }
    eta_filler {
      type: "constant"
      value: 1
    }
  }
}
layer {
  name: "Convolution3"
  type: "Convolution"
  bottom: "Convolution2"
  top: "Convolution3"
  param {
    lr_mult: 1
    decay_mult: 1
  }
  param {
    lr_mult: 2
    decay_mult: 0
  }
  convolution_param {
    num_output: 16
    pad: 1
    kernel_size: 3
    stride: 1
    weight_filler {
      type: "gaussian"
      std: 0.118
    }
    bias_filler {
      type: "constant"
      value: 0
    }
  }
}
layer {
  name: "BatchNorm3"
  type: "BatchNorm"
  bottom: "Convolution3"
  top: "Convolution3"
  param {
    lr_mult: 0
    decay_mult: 0
  }
  param {
    lr_mult: 0
    decay_mult: 0
  }
  param {
    lr_mult: 0
    decay_mult: 0
  }
}
layer {
  name: "Scale3"
  type: "Scale"
  bottom: "Convolution3"
  top: "Convolution3"
  scale_param {
    bias_term: true
  }
}
layer {
  name: "Eltwise1"
  type: "Eltwise"
  bottom: "Convolution1"
  bottom: "Convolution3"
  top: "Eltwise1"
  eltwise_param {
    operation: SUM
  }
}
layer {
  name: "penlu3"
  type: "PENLU"
  bottom: "Eltwise1"
  top: "Eltwise1"
  param {
    lr_mult: 2
    decay_mult: 0
  }
  param {
    lr_mult: 2
    decay_mult: 0
  }
  param {
    lr_mult: 0
    decay_mult: 0
  }
  penlu_param {
    alpha_filler {
      type: "constant"
      value: 0.25
    }
    beta_filler {
      type: "constant"
      value: 1
    }
    eta_filler {
      type: "constant"
      value: 1
    }
  }
}
layer {
  name: "Convolution4"
  type: "Convolution"
  bottom: "Eltwise1"
  top: "Convolution4"
  param {
    lr_mult: 1
    decay_mult: 1
  }
  param {
    lr_mult: 2
    decay_mult: 0
  }
  convolution_param {
    num_output: 16
    pad: 1
    kernel_size: 3
    stride: 1
    weight_filler {
      type: "gaussian"
      std: 0.118
    }
    bias_filler {
      type: "constant"
      value: 0
    }
  }
}
layer {
  name: "BatchNorm4"
  type: "BatchNorm"
  bottom: "Convolution4"
  top: "Convolution4"
  param {
    lr_mult: 0
    decay_mult: 0
  }
  param {
    lr_mult: 0
    decay_mult: 0
  }
  param {
    lr_mult: 0
    decay_mult: 0
  }
}
layer {
  name: "Scale4"
  type: "Scale"
  bottom: "Convolution4"
  top: "Convolution4"
  scale_param {
    bias_term: true
  }
}
layer {
  name: "penlu4"
  type: "PENLU"
  bottom: "Convolution4"
  top: "Convolution4"
  param {
    lr_mult: 2
    decay_mult: 0
  }
  param {
    lr_mult: 2
    decay_mult: 0
  }
  param {
    lr_mult: 0
    decay_mult: 0
  }
  penlu_param {
    alpha_filler {
      type: "constant"
      value: 0.25
    }
    beta_filler {
      type: "constant"
      value: 1
    }
    eta_filler {
      type: "constant"
      value: 1
    }
  }
}
layer {
  name: "Convolution5"
  type: "Convolution"
  bottom: "Convolution4"
  top: "Convolution5"
  param {
    lr_mult: 1
    decay_mult: 1
  }
  param {
    lr_mult: 2
    decay_mult: 0
  }
  convolution_param {
    num_output: 16
    pad: 1
    kernel_size: 3
    stride: 1
    weight_filler {
      type: "gaussian"
      std: 0.118
    }
    bias_filler {
      type: "constant"
      value: 0
    }
  }
}
layer {
  name: "BatchNorm5"
  type: "BatchNorm"
  bottom: "Convolution5"
  top: "Convolution5"
  param {
    lr_mult: 0
    decay_mult: 0
  }
  param {
    lr_mult: 0
    decay_mult: 0
  }
  param {
    lr_mult: 0
    decay_mult: 0
  }
}
layer {
  name: "Scale5"
  type: "Scale"
  bottom: "Convolution5"
  top: "Convolution5"
  scale_param {
    bias_term: true
  }
}
layer {
  name: "Eltwise2"
  type: "Eltwise"
  bottom: "Eltwise1"
  bottom: "Convolution5"
  top: "Eltwise2"
  eltwise_param {
    operation: SUM
  }
}
layer {
  name: "penlu5"
  type: "PENLU"
  bottom: "Eltwise2"
  top: "Eltwise2"
  param {
    lr_mult: 2
    decay_mult: 0
  }
  param {
    lr_mult: 2
    decay_mult: 0
  }
  param {
    lr_mult: 0
    decay_mult: 0
  }
  penlu_param {
    alpha_filler {
      type: "constant"
      value: 0.25
    }
    beta_filler {
      type: "constant"
      value: 1
    }
    eta_filler {
      type: "constant"
      value: 1
    }
  }
}
layer {
  name: "Convolution6"
  type: "Convolution"
  bottom: "Eltwise2"
  top: "Convolution6"
  param {
    lr_mult: 1
    decay_mult: 1
  }
  param {
    lr_mult: 2
    decay_mult: 0
  }
  convolution_param {
    num_output: 16
    pad: 1
    kernel_size: 3
    stride: 1
    weight_filler {
      type: "gaussian"
      std: 0.118
    }
    bias_filler {
      type: "constant"
      value: 0
    }
  }
}
layer {
  name: "BatchNorm6"
  type: "BatchNorm"
  bottom: "Convolution6"
  top: "Convolution6"
  param {
    lr_mult: 0
    decay_mult: 0
  }
  param {
    lr_mult: 0
    decay_mult: 0
  }
  param {
    lr_mult: 0
    decay_mult: 0
  }
}
layer {
  name: "Scale6"
  type: "Scale"
  bottom: "Convolution6"
  top: "Convolution6"
  scale_param {
    bias_term: true
  }
}
layer {
  name: "penlu6"
  type: "PENLU"
  bottom: "Convolution6"
  top: "Convolution6"
  param {
    lr_mult: 2
    decay_mult: 0
  }
  param {
    lr_mult: 2
    decay_mult: 0
  }
  param {
    lr_mult: 0
    decay_mult: 0
  }
  penlu_param {
    alpha_filler {
      type: "constant"
      value: 0.25
    }
    beta_filler {
      type: "constant"
      value: 1
    }
    eta_filler {
      type: "constant"
      value: 1
    }
  }
}
layer {
  name: "Convolution7"
  type: "Convolution"
  bottom: "Convolution6"
  top: "Convolution7"
  param {
    lr_mult: 1
    decay_mult: 1
  }
  param {
    lr_mult: 2
    decay_mult: 0
  }
  convolution_param {
    num_output: 16
    pad: 1
    kernel_size: 3
    stride: 1
    weight_filler {
      type: "gaussian"
      std: 0.118
    }
    bias_filler {
      type: "constant"
      value: 0
    }
  }
}
layer {
  name: "BatchNorm7"
  type: "BatchNorm"
  bottom: "Convolution7"
  top: "Convolution7"
  param {
    lr_mult: 0
    decay_mult: 0
  }
  param {
    lr_mult: 0
    decay_mult: 0
  }
  param {
    lr_mult: 0
    decay_mult: 0
  }
}
layer {
  name: "Scale7"
  type: "Scale"
  bottom: "Convolution7"
  top: "Convolution7"
  scale_param {
    bias_term: true
  }
}
layer {
  name: "Eltwise3"
  type: "Eltwise"
  bottom: "Eltwise2"
  bottom: "Convolution7"
  top: "Eltwise3"
  eltwise_param {
    operation: SUM
  }
}
layer {
  name: "penlu7"
  type: "PENLU"
  bottom: "Eltwise3"
  top: "Eltwise3"
  param {
    lr_mult: 2
    decay_mult: 0
  }
  param {
    lr_mult: 2
    decay_mult: 0
  }
  param {
    lr_mult: 0
    decay_mult: 0
  }
  penlu_param {
    alpha_filler {
      type: "constant"
      value: 0.25
    }
    beta_filler {
      type: "constant"
      value: 1
    }
    eta_filler {
      type: "constant"
      value: 1
    }
  }
}
layer {
  name: "Convolution8"
  type: "Convolution"
  bottom: "Eltwise3"
  top: "Convolution8"
  param {
    lr_mult: 1
    decay_mult: 1
  }
  param {
    lr_mult: 2
    decay_mult: 0
  }
  convolution_param {
    num_output: 32
    pad: 0
    kernel_size: 1
    stride: 2
    weight_filler {
      type: "gaussian"
      std: 0.25
    }
    bias_filler {
      type: "constant"
      value: 0
    }
  }
}
layer {
  name: "BatchNorm8"
  type: "BatchNorm"
  bottom: "Convolution8"
  top: "Convolution8"
  param {
    lr_mult: 0
    decay_mult: 0
  }
  param {
    lr_mult: 0
    decay_mult: 0
  }
  param {
    lr_mult: 0
    decay_mult: 0
  }
}
layer {
  name: "Scale8"
  type: "Scale"
  bottom: "Convolution8"
  top: "Convolution8"
  scale_param {
    bias_term: true
  }
}
layer {
  name: "Convolution9"
  type: "Convolution"
  bottom: "Eltwise3"
  top: "Convolution9"
  param {
    lr_mult: 1
    decay_mult: 1
  }
  param {
    lr_mult: 2
    decay_mult: 0
  }
  convolution_param {
    num_output: 32
    pad: 1
    kernel_size: 3
    stride: 2
    weight_filler {
      type: "gaussian"
      std: 0.083
    }
    bias_filler {
      type: "constant"
      value: 0
    }
  }
}
layer {
  name: "BatchNorm9"
  type: "BatchNorm"
  bottom: "Convolution9"
  top: "Convolution9"
  param {
    lr_mult: 0
    decay_mult: 0
  }
  param {
    lr_mult: 0
    decay_mult: 0
  }
  param {
    lr_mult: 0
    decay_mult: 0
  }
}
layer {
  name: "Scale9"
  type: "Scale"
  bottom: "Convolution9"
  top: "Convolution9"
  scale_param {
    bias_term: true
  }
}
layer {
  name: "penlu8"
  type: "PENLU"
  bottom: "Convolution9"
  top: "Convolution9"
  param {
    lr_mult: 2
    decay_mult: 0
  }
  param {
    lr_mult: 2
    decay_mult: 0
  }
  param {
    lr_mult: 0
    decay_mult: 0
  }
  penlu_param {
    alpha_filler {
      type: "constant"
      value: 0.25
    }
    beta_filler {
      type: "constant"
      value: 1
    }
    eta_filler {
      type: "constant"
      value: 1
    }
  }
}
layer {
  name: "Convolution10"
  type: "Convolution"
  bottom: "Convolution9"
  top: "Convolution10"
  param {
    lr_mult: 1
    decay_mult: 1
  }
  param {
    lr_mult: 2
    decay_mult: 0
  }
  convolution_param {
    num_output: 32
    pad: 1
    kernel_size: 3
    stride: 1
    weight_filler {
      type: "gaussian"
      std: 0.083
    }
    bias_filler {
      type: "constant"
      value: 0
    }
  }
}
layer {
  name: "BatchNorm10"
  type: "BatchNorm"
  bottom: "Convolution10"
  top: "Convolution10"
  param {
    lr_mult: 0
    decay_mult: 0
  }
  param {
    lr_mult: 0
    decay_mult: 0
  }
  param {
    lr_mult: 0
    decay_mult: 0
  }
}
layer {
  name: "Scale10"
  type: "Scale"
  bottom: "Convolution10"
  top: "Convolution10"
  scale_param {
    bias_term: true
  }
}
layer {
  name: "Eltwise4"
  type: "Eltwise"
  bottom: "Convolution8"
  bottom: "Convolution10"
  top: "Eltwise4"
  eltwise_param {
    operation: SUM
  }
}
layer {
  name: "penlu9"
  type: "PENLU"
  bottom: "Eltwise4"
  top: "Eltwise4"
  param {
    lr_mult: 2
    decay_mult: 0
  }
  param {
    lr_mult: 2
    decay_mult: 0
  }
  param {
    lr_mult: 0
    decay_mult: 0
  }
  penlu_param {
    alpha_filler {
      type: "constant"
      value: 0.25
    }
    beta_filler {
      type: "constant"
      value: 1
    }
    eta_filler {
      type: "constant"
      value: 1
    }
  }
}
layer {
  name: "Convolution11"
  type: "Convolution"
  bottom: "Eltwise4"
  top: "Convolution11"
  param {
    lr_mult: 1
    decay_mult: 1
  }
  param {
    lr_mult: 2
    decay_mult: 0
  }
  convolution_param {
    num_output: 32
    pad: 1
    kernel_size: 3
    stride: 1
    weight_filler {
      type: "gaussian"
      std: 0.083
    }
    bias_filler {
      type: "constant"
      value: 0
    }
  }
}
layer {
  name: "BatchNorm11"
  type: "BatchNorm"
  bottom: "Convolution11"
  top: "Convolution11"
  param {
    lr_mult: 0
    decay_mult: 0
  }
  param {
    lr_mult: 0
    decay_mult: 0
  }
  param {
    lr_mult: 0
    decay_mult: 0
  }
}
layer {
  name: "Scale11"
  type: "Scale"
  bottom: "Convolution11"
  top: "Convolution11"
  scale_param {
    bias_term: true
  }
}
layer {
  name: "penlu10"
  type: "PENLU"
  bottom: "Convolution11"
  top: "Convolution11"
  param {
    lr_mult: 2
    decay_mult: 0
  }
  param {
    lr_mult: 2
    decay_mult: 0
  }
  param {
    lr_mult: 0
    decay_mult: 0
  }
  penlu_param {
    alpha_filler {
      type: "constant"
      value: 0.25
    }
    beta_filler {
      type: "constant"
      value: 1
    }
    eta_filler {
      type: "constant"
      value: 1
    }
  }
}
layer {
  name: "Convolution12"
  type: "Convolution"
  bottom: "Convolution11"
  top: "Convolution12"
  param {
    lr_mult: 1
    decay_mult: 1
  }
  param {
    lr_mult: 2
    decay_mult: 0
  }
  convolution_param {
    num_output: 32
    pad: 1
    kernel_size: 3
    stride: 1
    weight_filler {
      type: "gaussian"
      std: 0.083
    }
    bias_filler {
      type: "constant"
      value: 0
    }
  }
}
layer {
  name: "BatchNorm12"
  type: "BatchNorm"
  bottom: "Convolution12"
  top: "Convolution12"
  param {
    lr_mult: 0
    decay_mult: 0
  }
  param {
    lr_mult: 0
    decay_mult: 0
  }
  param {
    lr_mult: 0
    decay_mult: 0
  }
}
layer {
  name: "Scale12"
  type: "Scale"
  bottom: "Convolution12"
  top: "Convolution12"
  scale_param {
    bias_term: true
  }
}
layer {
  name: "Eltwise5"
  type: "Eltwise"
  bottom: "Eltwise4"
  bottom: "Convolution12"
  top: "Eltwise5"
  eltwise_param {
    operation: SUM
  }
}
layer {
  name: "penlu11"
  type: "PENLU"
  bottom: "Eltwise5"
  top: "Eltwise5"
  param {
    lr_mult: 2
    decay_mult: 0
  }
  param {
    lr_mult: 2
    decay_mult: 0
  }
  param {
    lr_mult: 0
    decay_mult: 0
  }
  penlu_param {
    alpha_filler {
      type: "constant"
      value: 0.25
    }
    beta_filler {
      type: "constant"
      value: 1
    }
    eta_filler {
      type: "constant"
      value: 1
    }
  }
}
layer {
  name: "Convolution13"
  type: "Convolution"
  bottom: "Eltwise5"
  top: "Convolution13"
  param {
    lr_mult: 1
    decay_mult: 1
  }
  param {
    lr_mult: 2
    decay_mult: 0
  }
  convolution_param {
    num_output: 32
    pad: 1
    kernel_size: 3
    stride: 1
    weight_filler {
      type: "gaussian"
      std: 0.083
    }
    bias_filler {
      type: "constant"
      value: 0
    }
  }
}
layer {
  name: "BatchNorm13"
  type: "BatchNorm"
  bottom: "Convolution13"
  top: "Convolution13"
  param {
    lr_mult: 0
    decay_mult: 0
  }
  param {
    lr_mult: 0
    decay_mult: 0
  }
  param {
    lr_mult: 0
    decay_mult: 0
  }
}
layer {
  name: "Scale13"
  type: "Scale"
  bottom: "Convolution13"
  top: "Convolution13"
  scale_param {
    bias_term: true
  }
}
layer {
  name: "penlu12"
  type: "PENLU"
  bottom: "Convolution13"
  top: "Convolution13"
  param {
    lr_mult: 2
    decay_mult: 0
  }
  param {
    lr_mult: 2
    decay_mult: 0
  }
  param {
    lr_mult: 0
    decay_mult: 0
  }
  penlu_param {
    alpha_filler {
      type: "constant"
      value: 0.25
    }
    beta_filler {
      type: "constant"
      value: 1
    }
    eta_filler {
      type: "constant"
      value: 1
    }
  }
}
layer {
  name: "Convolution14"
  type: "Convolution"
  bottom: "Convolution13"
  top: "Convolution14"
  param {
    lr_mult: 1
    decay_mult: 1
  }
  param {
    lr_mult: 2
    decay_mult: 0
  }
  convolution_param {
    num_output: 32
    pad: 1
    kernel_size: 3
    stride: 1
    weight_filler {
      type: "gaussian"
      std: 0.083
    }
    bias_filler {
      type: "constant"
      value: 0
    }
  }
}
layer {
  name: "BatchNorm14"
  type: "BatchNorm"
  bottom: "Convolution14"
  top: "Convolution14"
  param {
    lr_mult: 0
    decay_mult: 0
  }
  param {
    lr_mult: 0
    decay_mult: 0
  }
  param {
    lr_mult: 0
    decay_mult: 0
  }
}
layer {
  name: "Scale14"
  type: "Scale"
  bottom: "Convolution14"
  top: "Convolution14"
  scale_param {
    bias_term: true
  }
}
layer {
  name: "Eltwise6"
  type: "Eltwise"
  bottom: "Eltwise5"
  bottom: "Convolution14"
  top: "Eltwise6"
  eltwise_param {
    operation: SUM
  }
}
layer {
  name: "penlu13"
  type: "PENLU"
  bottom: "Eltwise6"
  top: "Eltwise6"
  param {
    lr_mult: 2
    decay_mult: 0
  }
  param {
    lr_mult: 2
    decay_mult: 0
  }
  param {
    lr_mult: 0
    decay_mult: 0
  }
  penlu_param {
    alpha_filler {
      type: "constant"
      value: 0.25
    }
    beta_filler {
      type: "constant"
      value: 1
    }
    eta_filler {
      type: "constant"
      value: 1
    }
  }
}
layer {
  name: "Convolution15"
  type: "Convolution"
  bottom: "Eltwise6"
  top: "Convolution15"
  param {
    lr_mult: 1
    decay_mult: 1
  }
  param {
    lr_mult: 2
    decay_mult: 0
  }
  convolution_param {
    num_output: 64
    pad: 0
    kernel_size: 1
    stride: 2
    weight_filler {
      type: "gaussian"
      std: 0.17677669
    }
    bias_filler {
      type: "constant"
      value: 0
    }
  }
}
layer {
  name: "BatchNorm15"
  type: "BatchNorm"
  bottom: "Convolution15"
  top: "Convolution15"
  param {
    lr_mult: 0
    decay_mult: 0
  }
  param {
    lr_mult: 0
    decay_mult: 0
  }
  param {
    lr_mult: 0
    decay_mult: 0
  }
}
layer {
  name: "Scale15"
  type: "Scale"
  bottom: "Convolution15"
  top: "Convolution15"
  scale_param {
    bias_term: true
  }
}
layer {
  name: "Convolution16"
  type: "Convolution"
  bottom: "Eltwise6"
  top: "Convolution16"
  param {
    lr_mult: 1
    decay_mult: 1
  }
  param {
    lr_mult: 2
    decay_mult: 0
  }
  convolution_param {
    num_output: 64
    pad: 1
    kernel_size: 3
    stride: 2
    weight_filler {
      type: "gaussian"
      std: 0.059
    }
    bias_filler {
      type: "constant"
      value: 0
    }
  }
}
layer {
  name: "BatchNorm16"
  type: "BatchNorm"
  bottom: "Convolution16"
  top: "Convolution16"
  param {
    lr_mult: 0
    decay_mult: 0
  }
  param {
    lr_mult: 0
    decay_mult: 0
  }
  param {
    lr_mult: 0
    decay_mult: 0
  }
}
layer {
  name: "Scale16"
  type: "Scale"
  bottom: "Convolution16"
  top: "Convolution16"
  scale_param {
    bias_term: true
  }
}
layer {
  name: "penlu14"
  type: "PENLU"
  bottom: "Convolution16"
  top: "Convolution16"
  param {
    lr_mult: 2
    decay_mult: 0
  }
  param {
    lr_mult: 2
    decay_mult: 0
  }
  param {
    lr_mult: 0
    decay_mult: 0
  }
  penlu_param {
    alpha_filler {
      type: "constant"
      value: 0.25
    }
    beta_filler {
      type: "constant"
      value: 1
    }
    eta_filler {
      type: "constant"
      value: 1
    }
  }
}
layer {
  name: "Convolution17"
  type: "Convolution"
  bottom: "Convolution16"
  top: "Convolution17"
  param {
    lr_mult: 1
    decay_mult: 1
  }
  param {
    lr_mult: 2
    decay_mult: 0
  }
  convolution_param {
    num_output: 64
    pad: 1
    kernel_size: 3
    stride: 1
    weight_filler {
      type: "gaussian"
      std: 0.059
    }
    bias_filler {
      type: "constant"
      value: 0
    }
  }
}
layer {
  name: "BatchNorm17"
  type: "BatchNorm"
  bottom: "Convolution17"
  top: "Convolution17"
  param {
    lr_mult: 0
    decay_mult: 0
  }
  param {
    lr_mult: 0
    decay_mult: 0
  }
  param {
    lr_mult: 0
    decay_mult: 0
  }
}
layer {
  name: "Scale17"
  type: "Scale"
  bottom: "Convolution17"
  top: "Convolution17"
  scale_param {
    bias_term: true
  }
}
layer {
  name: "Eltwise7"
  type: "Eltwise"
  bottom: "Convolution15"
  bottom: "Convolution17"
  top: "Eltwise7"
  eltwise_param {
    operation: SUM
  }
}
layer {
  name: "penlu15"
  type: "PENLU"
  bottom: "Eltwise7"
  top: "Eltwise7"
  param {
    lr_mult: 2
    decay_mult: 0
  }
  param {
    lr_mult: 2
    decay_mult: 0
  }
  param {
    lr_mult: 0
    decay_mult: 0
  }
  penlu_param {
    alpha_filler {
      type: "constant"
      value: 0.25
    }
    beta_filler {
      type: "constant"
      value: 1
    }
    eta_filler {
      type: "constant"
      value: 1
    }
  }
}
layer {
  name: "Convolution18"
  type: "Convolution"
  bottom: "Eltwise7"
  top: "Convolution18"
  param {
    lr_mult: 1
    decay_mult: 1
  }
  param {
    lr_mult: 2
    decay_mult: 0
  }
  convolution_param {
    num_output: 64
    pad: 1
    kernel_size: 3
    stride: 1
    weight_filler {
      type: "gaussian"
      std: 0.059
    }
    bias_filler {
      type: "constant"
      value: 0
    }
  }
}
layer {
  name: "BatchNorm18"
  type: "BatchNorm"
  bottom: "Convolution18"
  top: "Convolution18"
  param {
    lr_mult: 0
    decay_mult: 0
  }
  param {
    lr_mult: 0
    decay_mult: 0
  }
  param {
    lr_mult: 0
    decay_mult: 0
  }
}
layer {
  name: "Scale18"
  type: "Scale"
  bottom: "Convolution18"
  top: "Convolution18"
  scale_param {
    bias_term: true
  }
}
layer {
  name: "penlu16"
  type: "PENLU"
  bottom: "Convolution18"
  top: "Convolution18"
  param {
    lr_mult: 2
    decay_mult: 0
  }
  param {
    lr_mult: 2
    decay_mult: 0
  }
  param {
    lr_mult: 0
    decay_mult: 0
  }
  penlu_param {
    alpha_filler {
      type: "constant"
      value: 0.25
    }
    beta_filler {
      type: "constant"
      value: 1
    }
    eta_filler {
      type: "constant"
      value: 1
    }
  }
}
layer {
  name: "Convolution19"
  type: "Convolution"
  bottom: "Convolution18"
  top: "Convolution19"
  param {
    lr_mult: 1
    decay_mult: 1
  }
  param {
    lr_mult: 2
    decay_mult: 0
  }
  convolution_param {
    num_output: 64
    pad: 1
    kernel_size: 3
    stride: 1
    weight_filler {
      type: "gaussian"
      std: 0.059
    }
    bias_filler {
      type: "constant"
      value: 0
    }
  }
}
layer {
  name: "BatchNorm19"
  type: "BatchNorm"
  bottom: "Convolution19"
  top: "Convolution19"
  param {
    lr_mult: 0
    decay_mult: 0
  }
  param {
    lr_mult: 0
    decay_mult: 0
  }
  param {
    lr_mult: 0
    decay_mult: 0
  }
}
layer {
  name: "Scale19"
  type: "Scale"
  bottom: "Convolution19"
  top: "Convolution19"
  scale_param {
    bias_term: true
  }
}
layer {
  name: "Eltwise8"
  type: "Eltwise"
  bottom: "Eltwise7"
  bottom: "Convolution19"
  top: "Eltwise8"
  eltwise_param {
    operation: SUM
  }
}
layer {
  name: "penlu17"
  type: "PENLU"
  bottom: "Eltwise8"
  top: "Eltwise8"
  param {
    lr_mult: 2
    decay_mult: 0
  }
  param {
    lr_mult: 2
    decay_mult: 0
  }
  param {
    lr_mult: 0
    decay_mult: 0
  }
  penlu_param {
    alpha_filler {
      type: "constant"
      value: 0.25
    }
    beta_filler {
      type: "constant"
      value: 1
    }
    eta_filler {
      type: "constant"
      value: 1
    }
  }
}
layer {
  name: "Convolution20"
  type: "Convolution"
  bottom: "Eltwise8"
  top: "Convolution20"
  param {
    lr_mult: 1
    decay_mult: 1
  }
  param {
    lr_mult: 2
    decay_mult: 0
  }
  convolution_param {
    num_output: 64
    pad: 1
    kernel_size: 3
    stride: 1
    weight_filler {
      type: "gaussian"
      std: 0.059
    }
    bias_filler {
      type: "constant"
      value: 0
    }
  }
}
layer {
  name: "BatchNorm20"
  type: "BatchNorm"
  bottom: "Convolution20"
  top: "Convolution20"
  param {
    lr_mult: 0
    decay_mult: 0
  }
  param {
    lr_mult: 0
    decay_mult: 0
  }
  param {
    lr_mult: 0
    decay_mult: 0
  }
}
layer {
  name: "Scale20"
  type: "Scale"
  bottom: "Convolution20"
  top: "Convolution20"
  scale_param {
    bias_term: true
  }
}
layer {
  name: "penlu18"
  type: "PENLU"
  bottom: "Convolution20"
  top: "Convolution20"
  param {
    lr_mult: 2
    decay_mult: 0
  }
  param {
    lr_mult: 2
    decay_mult: 0
  }
  param {
    lr_mult: 0
    decay_mult: 0
  }
  penlu_param {
    alpha_filler {
      type: "constant"
      value: 0.25
    }
    beta_filler {
      type: "constant"
      value: 1
    }
    eta_filler {
      type: "constant"
      value: 1
    }
  }
}
layer {
  name: "Convolution21"
  type: "Convolution"
  bottom: "Convolution20"
  top: "Convolution21"
  param {
    lr_mult: 1
    decay_mult: 1
  }
  param {
    lr_mult: 2
    decay_mult: 0
  }
  convolution_param {
    num_output: 64
    pad: 1
    kernel_size: 3
    stride: 1
    weight_filler {
      type: "gaussian"
      std: 0.059
    }
    bias_filler {
      type: "constant"
      value: 0
    }
  }
}
layer {
  name: "BatchNorm21"
  type: "BatchNorm"
  bottom: "Convolution21"
  top: "Convolution21"
  param {
    lr_mult: 0
    decay_mult: 0
  }
  param {
    lr_mult: 0
    decay_mult: 0
  }
  param {
    lr_mult: 0
    decay_mult: 0
  }
}
layer {
  name: "Scale21"
  type: "Scale"
  bottom: "Convolution21"
  top: "Convolution21"
  scale_param {
    bias_term: true
  }
}
layer {
  name: "Eltwise9"
  type: "Eltwise"
  bottom: "Eltwise8"
  bottom: "Convolution21"
  top: "Eltwise9"
  eltwise_param {
    operation: SUM
  }
}
layer {
  name: "penlu19"
  type: "PENLU"
  bottom: "Eltwise9"
  top: "Eltwise9"
  param {
    lr_mult: 2
    decay_mult: 0
  }
  param {
    lr_mult: 2
    decay_mult: 0
  }
  param {
    lr_mult: 0
    decay_mult: 0
  }
  penlu_param {
    alpha_filler {
      type: "constant"
      value: 0.25
    }
    beta_filler {
      type: "constant"
      value: 1
    }
    eta_filler {
      type: "constant"
      value: 1
    }
  }
}
layer {
  name: "Pooling1"
  type: "Pooling"
  bottom: "Eltwise9"
  top: "Pooling1"
  pooling_param {
    pool: AVE
    global_pooling: true
  }
}
layer {
  name: "InnerProduct1"
  type: "InnerProduct"
  bottom: "Pooling1"
  top: "InnerProduct1"
  param {
    lr_mult: 1
    decay_mult: 1
  }
  param {
    lr_mult: 2
    decay_mult: 1
  }
  inner_product_param {
    num_output: 10
    weight_filler {
      type: "gaussian"
      std: 0.01
    }
    bias_filler {
      type: "constant"
      value: 0
    }
  }
}
layer {
  name: "SoftmaxWithLoss1"
  type: "SoftmaxWithLoss"
  bottom: "InnerProduct1"
  bottom: "Data2"
  top: "SoftmaxWithLoss1"
}
layer {
  name: "Accuracy1"
  type: "Accuracy"
  bottom: "InnerProduct1"
  bottom: "Data2"
  top: "Accuracy1"
  include {
    phase: TEST
  }
}
I1023 12:10:12.937808  4594 layer_factory.hpp:77] Creating layer Data1
I1023 12:10:12.937845  4594 db_lmdb.cpp:35] Opened lmdb /home/x306/caffe/xn/English_orange/data/val1_lmdb
I1023 12:10:12.937856  4594 net.cpp:84] Creating Layer Data1
I1023 12:10:12.937860  4594 net.cpp:380] Data1 -> Data1
I1023 12:10:12.937866  4594 net.cpp:380] Data1 -> Data2
I1023 12:10:12.937871  4594 data_transformer.cpp:25] Loading mean file from: /home/x306/caffe/xn/English_orange/data/orange1_mean.binaryproto
I1023 12:10:12.939059  4594 data_layer.cpp:45] output data size: 8,3,224,224
I1023 12:10:12.947890  4594 net.cpp:122] Setting up Data1
I1023 12:10:12.947909  4594 net.cpp:129] Top shape: 8 3 224 224 (1204224)
I1023 12:10:12.947913  4594 net.cpp:129] Top shape: 8 (8)
I1023 12:10:12.947916  4594 net.cpp:137] Memory required for data: 4816928
I1023 12:10:12.947921  4594 layer_factory.hpp:77] Creating layer Data2_Data1_1_split
I1023 12:10:12.947930  4594 net.cpp:84] Creating Layer Data2_Data1_1_split
I1023 12:10:12.947933  4594 net.cpp:406] Data2_Data1_1_split <- Data2
I1023 12:10:12.947952  4594 net.cpp:380] Data2_Data1_1_split -> Data2_Data1_1_split_0
I1023 12:10:12.947965  4594 net.cpp:380] Data2_Data1_1_split -> Data2_Data1_1_split_1
I1023 12:10:12.948047  4594 net.cpp:122] Setting up Data2_Data1_1_split
I1023 12:10:12.948053  4594 net.cpp:129] Top shape: 8 (8)
I1023 12:10:12.948056  4594 net.cpp:129] Top shape: 8 (8)
I1023 12:10:12.948058  4594 net.cpp:137] Memory required for data: 4816992
I1023 12:10:12.948060  4594 layer_factory.hpp:77] Creating layer Convolution1
I1023 12:10:12.948070  4594 net.cpp:84] Creating Layer Convolution1
I1023 12:10:12.948071  4594 net.cpp:406] Convolution1 <- Data1
I1023 12:10:12.948076  4594 net.cpp:380] Convolution1 -> Convolution1
I1023 12:10:12.949520  4594 net.cpp:122] Setting up Convolution1
I1023 12:10:12.949529  4594 net.cpp:129] Top shape: 8 16 224 224 (6422528)
I1023 12:10:12.949532  4594 net.cpp:137] Memory required for data: 30507104
I1023 12:10:12.949539  4594 layer_factory.hpp:77] Creating layer BatchNorm1
I1023 12:10:12.949545  4594 net.cpp:84] Creating Layer BatchNorm1
I1023 12:10:12.949548  4594 net.cpp:406] BatchNorm1 <- Convolution1
I1023 12:10:12.949550  4594 net.cpp:367] BatchNorm1 -> Convolution1 (in-place)
I1023 12:10:12.949725  4594 net.cpp:122] Setting up BatchNorm1
I1023 12:10:12.949729  4594 net.cpp:129] Top shape: 8 16 224 224 (6422528)
I1023 12:10:12.949733  4594 net.cpp:137] Memory required for data: 56197216
I1023 12:10:12.949739  4594 layer_factory.hpp:77] Creating layer Scale1
I1023 12:10:12.949745  4594 net.cpp:84] Creating Layer Scale1
I1023 12:10:12.949748  4594 net.cpp:406] Scale1 <- Convolution1
I1023 12:10:12.949750  4594 net.cpp:367] Scale1 -> Convolution1 (in-place)
I1023 12:10:12.949779  4594 layer_factory.hpp:77] Creating layer Scale1
I1023 12:10:12.949918  4594 net.cpp:122] Setting up Scale1
I1023 12:10:12.949923  4594 net.cpp:129] Top shape: 8 16 224 224 (6422528)
I1023 12:10:12.949924  4594 net.cpp:137] Memory required for data: 81887328
I1023 12:10:12.949928  4594 layer_factory.hpp:77] Creating layer penlu1
I1023 12:10:12.949934  4594 net.cpp:84] Creating Layer penlu1
I1023 12:10:12.949936  4594 net.cpp:406] penlu1 <- Convolution1
I1023 12:10:12.949939  4594 net.cpp:367] penlu1 -> Convolution1 (in-place)
I1023 12:10:12.951153  4594 net.cpp:122] Setting up penlu1
I1023 12:10:12.951164  4594 net.cpp:129] Top shape: 8 16 224 224 (6422528)
I1023 12:10:12.951166  4594 net.cpp:137] Memory required for data: 107577440
I1023 12:10:12.951174  4594 layer_factory.hpp:77] Creating layer Convolution1_penlu1_0_split
I1023 12:10:12.951179  4594 net.cpp:84] Creating Layer Convolution1_penlu1_0_split
I1023 12:10:12.951182  4594 net.cpp:406] Convolution1_penlu1_0_split <- Convolution1
I1023 12:10:12.951185  4594 net.cpp:380] Convolution1_penlu1_0_split -> Convolution1_penlu1_0_split_0
I1023 12:10:12.951191  4594 net.cpp:380] Convolution1_penlu1_0_split -> Convolution1_penlu1_0_split_1
I1023 12:10:12.951220  4594 net.cpp:122] Setting up Convolution1_penlu1_0_split
I1023 12:10:12.951223  4594 net.cpp:129] Top shape: 8 16 224 224 (6422528)
I1023 12:10:12.951226  4594 net.cpp:129] Top shape: 8 16 224 224 (6422528)
I1023 12:10:12.951228  4594 net.cpp:137] Memory required for data: 158957664
I1023 12:10:12.951231  4594 layer_factory.hpp:77] Creating layer Convolution2
I1023 12:10:12.951237  4594 net.cpp:84] Creating Layer Convolution2
I1023 12:10:12.951241  4594 net.cpp:406] Convolution2 <- Convolution1_penlu1_0_split_0
I1023 12:10:12.951243  4594 net.cpp:380] Convolution2 -> Convolution2
I1023 12:10:12.951913  4594 net.cpp:122] Setting up Convolution2
I1023 12:10:12.951920  4594 net.cpp:129] Top shape: 8 16 224 224 (6422528)
I1023 12:10:12.951923  4594 net.cpp:137] Memory required for data: 184647776
I1023 12:10:12.951927  4594 layer_factory.hpp:77] Creating layer BatchNorm2
I1023 12:10:12.951933  4594 net.cpp:84] Creating Layer BatchNorm2
I1023 12:10:12.951936  4594 net.cpp:406] BatchNorm2 <- Convolution2
I1023 12:10:12.951939  4594 net.cpp:367] BatchNorm2 -> Convolution2 (in-place)
I1023 12:10:12.952136  4594 net.cpp:122] Setting up BatchNorm2
I1023 12:10:12.952157  4594 net.cpp:129] Top shape: 8 16 224 224 (6422528)
I1023 12:10:12.952160  4594 net.cpp:137] Memory required for data: 210337888
I1023 12:10:12.952165  4594 layer_factory.hpp:77] Creating layer Scale2
I1023 12:10:12.952170  4594 net.cpp:84] Creating Layer Scale2
I1023 12:10:12.952172  4594 net.cpp:406] Scale2 <- Convolution2
I1023 12:10:12.952177  4594 net.cpp:367] Scale2 -> Convolution2 (in-place)
I1023 12:10:12.952209  4594 layer_factory.hpp:77] Creating layer Scale2
I1023 12:10:12.952356  4594 net.cpp:122] Setting up Scale2
I1023 12:10:12.952361  4594 net.cpp:129] Top shape: 8 16 224 224 (6422528)
I1023 12:10:12.952363  4594 net.cpp:137] Memory required for data: 236028000
I1023 12:10:12.952369  4594 layer_factory.hpp:77] Creating layer penlu2
I1023 12:10:12.952374  4594 net.cpp:84] Creating Layer penlu2
I1023 12:10:12.952388  4594 net.cpp:406] penlu2 <- Convolution2
I1023 12:10:12.952390  4594 net.cpp:367] penlu2 -> Convolution2 (in-place)
I1023 12:10:12.953737  4594 net.cpp:122] Setting up penlu2
I1023 12:10:12.953749  4594 net.cpp:129] Top shape: 8 16 224 224 (6422528)
I1023 12:10:12.953752  4594 net.cpp:137] Memory required for data: 261718112
I1023 12:10:12.953758  4594 layer_factory.hpp:77] Creating layer Convolution3
I1023 12:10:12.953768  4594 net.cpp:84] Creating Layer Convolution3
I1023 12:10:12.953771  4594 net.cpp:406] Convolution3 <- Convolution2
I1023 12:10:12.953776  4594 net.cpp:380] Convolution3 -> Convolution3
I1023 12:10:12.955801  4594 net.cpp:122] Setting up Convolution3
I1023 12:10:12.955816  4594 net.cpp:129] Top shape: 8 16 224 224 (6422528)
I1023 12:10:12.955818  4594 net.cpp:137] Memory required for data: 287408224
I1023 12:10:12.955824  4594 layer_factory.hpp:77] Creating layer BatchNorm3
I1023 12:10:12.955832  4594 net.cpp:84] Creating Layer BatchNorm3
I1023 12:10:12.955835  4594 net.cpp:406] BatchNorm3 <- Convolution3
I1023 12:10:12.955840  4594 net.cpp:367] BatchNorm3 -> Convolution3 (in-place)
I1023 12:10:12.956045  4594 net.cpp:122] Setting up BatchNorm3
I1023 12:10:12.956051  4594 net.cpp:129] Top shape: 8 16 224 224 (6422528)
I1023 12:10:12.956054  4594 net.cpp:137] Memory required for data: 313098336
I1023 12:10:12.956059  4594 layer_factory.hpp:77] Creating layer Scale3
I1023 12:10:12.956064  4594 net.cpp:84] Creating Layer Scale3
I1023 12:10:12.956066  4594 net.cpp:406] Scale3 <- Convolution3
I1023 12:10:12.956070  4594 net.cpp:367] Scale3 -> Convolution3 (in-place)
I1023 12:10:12.956104  4594 layer_factory.hpp:77] Creating layer Scale3
I1023 12:10:12.956233  4594 net.cpp:122] Setting up Scale3
I1023 12:10:12.956238  4594 net.cpp:129] Top shape: 8 16 224 224 (6422528)
I1023 12:10:12.956239  4594 net.cpp:137] Memory required for data: 338788448
I1023 12:10:12.956243  4594 layer_factory.hpp:77] Creating layer Eltwise1
I1023 12:10:12.956248  4594 net.cpp:84] Creating Layer Eltwise1
I1023 12:10:12.956250  4594 net.cpp:406] Eltwise1 <- Convolution1_penlu1_0_split_1
I1023 12:10:12.956254  4594 net.cpp:406] Eltwise1 <- Convolution3
I1023 12:10:12.956256  4594 net.cpp:380] Eltwise1 -> Eltwise1
I1023 12:10:12.956275  4594 net.cpp:122] Setting up Eltwise1
I1023 12:10:12.956279  4594 net.cpp:129] Top shape: 8 16 224 224 (6422528)
I1023 12:10:12.956281  4594 net.cpp:137] Memory required for data: 364478560
I1023 12:10:12.956284  4594 layer_factory.hpp:77] Creating layer penlu3
I1023 12:10:12.956290  4594 net.cpp:84] Creating Layer penlu3
I1023 12:10:12.956291  4594 net.cpp:406] penlu3 <- Eltwise1
I1023 12:10:12.956295  4594 net.cpp:367] penlu3 -> Eltwise1 (in-place)
I1023 12:10:12.957548  4594 net.cpp:122] Setting up penlu3
I1023 12:10:12.957561  4594 net.cpp:129] Top shape: 8 16 224 224 (6422528)
I1023 12:10:12.957562  4594 net.cpp:137] Memory required for data: 390168672
I1023 12:10:12.957568  4594 layer_factory.hpp:77] Creating layer Eltwise1_penlu3_0_split
I1023 12:10:12.957574  4594 net.cpp:84] Creating Layer Eltwise1_penlu3_0_split
I1023 12:10:12.957577  4594 net.cpp:406] Eltwise1_penlu3_0_split <- Eltwise1
I1023 12:10:12.957581  4594 net.cpp:380] Eltwise1_penlu3_0_split -> Eltwise1_penlu3_0_split_0
I1023 12:10:12.957602  4594 net.cpp:380] Eltwise1_penlu3_0_split -> Eltwise1_penlu3_0_split_1
I1023 12:10:12.957633  4594 net.cpp:122] Setting up Eltwise1_penlu3_0_split
I1023 12:10:12.957638  4594 net.cpp:129] Top shape: 8 16 224 224 (6422528)
I1023 12:10:12.957640  4594 net.cpp:129] Top shape: 8 16 224 224 (6422528)
I1023 12:10:12.957643  4594 net.cpp:137] Memory required for data: 441548896
I1023 12:10:12.957644  4594 layer_factory.hpp:77] Creating layer Convolution4
I1023 12:10:12.957651  4594 net.cpp:84] Creating Layer Convolution4
I1023 12:10:12.957654  4594 net.cpp:406] Convolution4 <- Eltwise1_penlu3_0_split_0
I1023 12:10:12.957659  4594 net.cpp:380] Convolution4 -> Convolution4
I1023 12:10:12.958817  4594 net.cpp:122] Setting up Convolution4
I1023 12:10:12.958825  4594 net.cpp:129] Top shape: 8 16 224 224 (6422528)
I1023 12:10:12.958828  4594 net.cpp:137] Memory required for data: 467239008
I1023 12:10:12.958832  4594 layer_factory.hpp:77] Creating layer BatchNorm4
I1023 12:10:12.958838  4594 net.cpp:84] Creating Layer BatchNorm4
I1023 12:10:12.958840  4594 net.cpp:406] BatchNorm4 <- Convolution4
I1023 12:10:12.958844  4594 net.cpp:367] BatchNorm4 -> Convolution4 (in-place)
I1023 12:10:12.959414  4594 net.cpp:122] Setting up BatchNorm4
I1023 12:10:12.959419  4594 net.cpp:129] Top shape: 8 16 224 224 (6422528)
I1023 12:10:12.959420  4594 net.cpp:137] Memory required for data: 492929120
I1023 12:10:12.959429  4594 layer_factory.hpp:77] Creating layer Scale4
I1023 12:10:12.959434  4594 net.cpp:84] Creating Layer Scale4
I1023 12:10:12.959436  4594 net.cpp:406] Scale4 <- Convolution4
I1023 12:10:12.959439  4594 net.cpp:367] Scale4 -> Convolution4 (in-place)
I1023 12:10:12.959471  4594 layer_factory.hpp:77] Creating layer Scale4
I1023 12:10:12.959619  4594 net.cpp:122] Setting up Scale4
I1023 12:10:12.959623  4594 net.cpp:129] Top shape: 8 16 224 224 (6422528)
I1023 12:10:12.959625  4594 net.cpp:137] Memory required for data: 518619232
I1023 12:10:12.959630  4594 layer_factory.hpp:77] Creating layer penlu4
I1023 12:10:12.959635  4594 net.cpp:84] Creating Layer penlu4
I1023 12:10:12.959637  4594 net.cpp:406] penlu4 <- Convolution4
I1023 12:10:12.959640  4594 net.cpp:367] penlu4 -> Convolution4 (in-place)
I1023 12:10:12.960912  4594 net.cpp:122] Setting up penlu4
I1023 12:10:12.960923  4594 net.cpp:129] Top shape: 8 16 224 224 (6422528)
I1023 12:10:12.960925  4594 net.cpp:137] Memory required for data: 544309344
I1023 12:10:12.960932  4594 layer_factory.hpp:77] Creating layer Convolution5
I1023 12:10:12.960939  4594 net.cpp:84] Creating Layer Convolution5
I1023 12:10:12.960942  4594 net.cpp:406] Convolution5 <- Convolution4
I1023 12:10:12.960947  4594 net.cpp:380] Convolution5 -> Convolution5
I1023 12:10:12.962391  4594 net.cpp:122] Setting up Convolution5
I1023 12:10:12.962401  4594 net.cpp:129] Top shape: 8 16 224 224 (6422528)
I1023 12:10:12.962404  4594 net.cpp:137] Memory required for data: 569999456
I1023 12:10:12.962409  4594 layer_factory.hpp:77] Creating layer BatchNorm5
I1023 12:10:12.962414  4594 net.cpp:84] Creating Layer BatchNorm5
I1023 12:10:12.962417  4594 net.cpp:406] BatchNorm5 <- Convolution5
I1023 12:10:12.962421  4594 net.cpp:367] BatchNorm5 -> Convolution5 (in-place)
I1023 12:10:12.962620  4594 net.cpp:122] Setting up BatchNorm5
I1023 12:10:12.962625  4594 net.cpp:129] Top shape: 8 16 224 224 (6422528)
I1023 12:10:12.962627  4594 net.cpp:137] Memory required for data: 595689568
I1023 12:10:12.962631  4594 layer_factory.hpp:77] Creating layer Scale5
I1023 12:10:12.962637  4594 net.cpp:84] Creating Layer Scale5
I1023 12:10:12.962640  4594 net.cpp:406] Scale5 <- Convolution5
I1023 12:10:12.962642  4594 net.cpp:367] Scale5 -> Convolution5 (in-place)
I1023 12:10:12.962676  4594 layer_factory.hpp:77] Creating layer Scale5
I1023 12:10:12.963359  4594 net.cpp:122] Setting up Scale5
I1023 12:10:12.963367  4594 net.cpp:129] Top shape: 8 16 224 224 (6422528)
I1023 12:10:12.963371  4594 net.cpp:137] Memory required for data: 621379680
I1023 12:10:12.963376  4594 layer_factory.hpp:77] Creating layer Eltwise2
I1023 12:10:12.963397  4594 net.cpp:84] Creating Layer Eltwise2
I1023 12:10:12.963400  4594 net.cpp:406] Eltwise2 <- Eltwise1_penlu3_0_split_1
I1023 12:10:12.963403  4594 net.cpp:406] Eltwise2 <- Convolution5
I1023 12:10:12.963407  4594 net.cpp:380] Eltwise2 -> Eltwise2
I1023 12:10:12.963428  4594 net.cpp:122] Setting up Eltwise2
I1023 12:10:12.963433  4594 net.cpp:129] Top shape: 8 16 224 224 (6422528)
I1023 12:10:12.963434  4594 net.cpp:137] Memory required for data: 647069792
I1023 12:10:12.963436  4594 layer_factory.hpp:77] Creating layer penlu5
I1023 12:10:12.963443  4594 net.cpp:84] Creating Layer penlu5
I1023 12:10:12.963445  4594 net.cpp:406] penlu5 <- Eltwise2
I1023 12:10:12.963449  4594 net.cpp:367] penlu5 -> Eltwise2 (in-place)
I1023 12:10:12.964778  4594 net.cpp:122] Setting up penlu5
I1023 12:10:12.964787  4594 net.cpp:129] Top shape: 8 16 224 224 (6422528)
I1023 12:10:12.964790  4594 net.cpp:137] Memory required for data: 672759904
I1023 12:10:12.964795  4594 layer_factory.hpp:77] Creating layer Eltwise2_penlu5_0_split
I1023 12:10:12.964800  4594 net.cpp:84] Creating Layer Eltwise2_penlu5_0_split
I1023 12:10:12.964802  4594 net.cpp:406] Eltwise2_penlu5_0_split <- Eltwise2
I1023 12:10:12.964807  4594 net.cpp:380] Eltwise2_penlu5_0_split -> Eltwise2_penlu5_0_split_0
I1023 12:10:12.964810  4594 net.cpp:380] Eltwise2_penlu5_0_split -> Eltwise2_penlu5_0_split_1
I1023 12:10:12.964840  4594 net.cpp:122] Setting up Eltwise2_penlu5_0_split
I1023 12:10:12.964844  4594 net.cpp:129] Top shape: 8 16 224 224 (6422528)
I1023 12:10:12.964848  4594 net.cpp:129] Top shape: 8 16 224 224 (6422528)
I1023 12:10:12.964850  4594 net.cpp:137] Memory required for data: 724140128
I1023 12:10:12.964853  4594 layer_factory.hpp:77] Creating layer Convolution6
I1023 12:10:12.964859  4594 net.cpp:84] Creating Layer Convolution6
I1023 12:10:12.964861  4594 net.cpp:406] Convolution6 <- Eltwise2_penlu5_0_split_0
I1023 12:10:12.964865  4594 net.cpp:380] Convolution6 -> Convolution6
I1023 12:10:12.966048  4594 net.cpp:122] Setting up Convolution6
I1023 12:10:12.966058  4594 net.cpp:129] Top shape: 8 16 224 224 (6422528)
I1023 12:10:12.966060  4594 net.cpp:137] Memory required for data: 749830240
I1023 12:10:12.966065  4594 layer_factory.hpp:77] Creating layer BatchNorm6
I1023 12:10:12.966070  4594 net.cpp:84] Creating Layer BatchNorm6
I1023 12:10:12.966073  4594 net.cpp:406] BatchNorm6 <- Convolution6
I1023 12:10:12.966078  4594 net.cpp:367] BatchNorm6 -> Convolution6 (in-place)
I1023 12:10:12.966264  4594 net.cpp:122] Setting up BatchNorm6
I1023 12:10:12.966269  4594 net.cpp:129] Top shape: 8 16 224 224 (6422528)
I1023 12:10:12.966271  4594 net.cpp:137] Memory required for data: 775520352
I1023 12:10:12.966276  4594 layer_factory.hpp:77] Creating layer Scale6
I1023 12:10:12.966281  4594 net.cpp:84] Creating Layer Scale6
I1023 12:10:12.966284  4594 net.cpp:406] Scale6 <- Convolution6
I1023 12:10:12.966286  4594 net.cpp:367] Scale6 -> Convolution6 (in-place)
I1023 12:10:12.966320  4594 layer_factory.hpp:77] Creating layer Scale6
I1023 12:10:12.966467  4594 net.cpp:122] Setting up Scale6
I1023 12:10:12.966472  4594 net.cpp:129] Top shape: 8 16 224 224 (6422528)
I1023 12:10:12.966475  4594 net.cpp:137] Memory required for data: 801210464
I1023 12:10:12.966477  4594 layer_factory.hpp:77] Creating layer penlu6
I1023 12:10:12.966483  4594 net.cpp:84] Creating Layer penlu6
I1023 12:10:12.966486  4594 net.cpp:406] penlu6 <- Convolution6
I1023 12:10:12.966490  4594 net.cpp:367] penlu6 -> Convolution6 (in-place)
I1023 12:10:12.967756  4594 net.cpp:122] Setting up penlu6
I1023 12:10:12.967767  4594 net.cpp:129] Top shape: 8 16 224 224 (6422528)
I1023 12:10:12.967770  4594 net.cpp:137] Memory required for data: 826900576
I1023 12:10:12.967777  4594 layer_factory.hpp:77] Creating layer Convolution7
I1023 12:10:12.967784  4594 net.cpp:84] Creating Layer Convolution7
I1023 12:10:12.967787  4594 net.cpp:406] Convolution7 <- Convolution6
I1023 12:10:12.967792  4594 net.cpp:380] Convolution7 -> Convolution7
I1023 12:10:12.969327  4594 net.cpp:122] Setting up Convolution7
I1023 12:10:12.969349  4594 net.cpp:129] Top shape: 8 16 224 224 (6422528)
I1023 12:10:12.969352  4594 net.cpp:137] Memory required for data: 852590688
I1023 12:10:12.969357  4594 layer_factory.hpp:77] Creating layer BatchNorm7
I1023 12:10:12.969367  4594 net.cpp:84] Creating Layer BatchNorm7
I1023 12:10:12.969369  4594 net.cpp:406] BatchNorm7 <- Convolution7
I1023 12:10:12.969373  4594 net.cpp:367] BatchNorm7 -> Convolution7 (in-place)
I1023 12:10:12.969604  4594 net.cpp:122] Setting up BatchNorm7
I1023 12:10:12.969609  4594 net.cpp:129] Top shape: 8 16 224 224 (6422528)
I1023 12:10:12.969610  4594 net.cpp:137] Memory required for data: 878280800
I1023 12:10:12.969624  4594 layer_factory.hpp:77] Creating layer Scale7
I1023 12:10:12.969630  4594 net.cpp:84] Creating Layer Scale7
I1023 12:10:12.969633  4594 net.cpp:406] Scale7 <- Convolution7
I1023 12:10:12.969636  4594 net.cpp:367] Scale7 -> Convolution7 (in-place)
I1023 12:10:12.969674  4594 layer_factory.hpp:77] Creating layer Scale7
I1023 12:10:12.969893  4594 net.cpp:122] Setting up Scale7
I1023 12:10:12.969897  4594 net.cpp:129] Top shape: 8 16 224 224 (6422528)
I1023 12:10:12.969899  4594 net.cpp:137] Memory required for data: 903970912
I1023 12:10:12.969913  4594 layer_factory.hpp:77] Creating layer Eltwise3
I1023 12:10:12.969918  4594 net.cpp:84] Creating Layer Eltwise3
I1023 12:10:12.969920  4594 net.cpp:406] Eltwise3 <- Eltwise2_penlu5_0_split_1
I1023 12:10:12.969923  4594 net.cpp:406] Eltwise3 <- Convolution7
I1023 12:10:12.969938  4594 net.cpp:380] Eltwise3 -> Eltwise3
I1023 12:10:12.969957  4594 net.cpp:122] Setting up Eltwise3
I1023 12:10:12.969960  4594 net.cpp:129] Top shape: 8 16 224 224 (6422528)
I1023 12:10:12.969964  4594 net.cpp:137] Memory required for data: 929661024
I1023 12:10:12.969965  4594 layer_factory.hpp:77] Creating layer penlu7
I1023 12:10:12.969970  4594 net.cpp:84] Creating Layer penlu7
I1023 12:10:12.969974  4594 net.cpp:406] penlu7 <- Eltwise3
I1023 12:10:12.969976  4594 net.cpp:367] penlu7 -> Eltwise3 (in-place)
I1023 12:10:12.971249  4594 net.cpp:122] Setting up penlu7
I1023 12:10:12.971261  4594 net.cpp:129] Top shape: 8 16 224 224 (6422528)
I1023 12:10:12.971264  4594 net.cpp:137] Memory required for data: 955351136
I1023 12:10:12.971271  4594 layer_factory.hpp:77] Creating layer Eltwise3_penlu7_0_split
I1023 12:10:12.971276  4594 net.cpp:84] Creating Layer Eltwise3_penlu7_0_split
I1023 12:10:12.971278  4594 net.cpp:406] Eltwise3_penlu7_0_split <- Eltwise3
I1023 12:10:12.971282  4594 net.cpp:380] Eltwise3_penlu7_0_split -> Eltwise3_penlu7_0_split_0
I1023 12:10:12.971287  4594 net.cpp:380] Eltwise3_penlu7_0_split -> Eltwise3_penlu7_0_split_1
I1023 12:10:12.971318  4594 net.cpp:122] Setting up Eltwise3_penlu7_0_split
I1023 12:10:12.971323  4594 net.cpp:129] Top shape: 8 16 224 224 (6422528)
I1023 12:10:12.971325  4594 net.cpp:129] Top shape: 8 16 224 224 (6422528)
I1023 12:10:12.971328  4594 net.cpp:137] Memory required for data: 1006731360
I1023 12:10:12.971329  4594 layer_factory.hpp:77] Creating layer Convolution8
I1023 12:10:12.971338  4594 net.cpp:84] Creating Layer Convolution8
I1023 12:10:12.971339  4594 net.cpp:406] Convolution8 <- Eltwise3_penlu7_0_split_0
I1023 12:10:12.971344  4594 net.cpp:380] Convolution8 -> Convolution8
I1023 12:10:12.972540  4594 net.cpp:122] Setting up Convolution8
I1023 12:10:12.972549  4594 net.cpp:129] Top shape: 8 32 112 112 (3211264)
I1023 12:10:12.972553  4594 net.cpp:137] Memory required for data: 1019576416
I1023 12:10:12.972558  4594 layer_factory.hpp:77] Creating layer BatchNorm8
I1023 12:10:12.972563  4594 net.cpp:84] Creating Layer BatchNorm8
I1023 12:10:12.972566  4594 net.cpp:406] BatchNorm8 <- Convolution8
I1023 12:10:12.972570  4594 net.cpp:367] BatchNorm8 -> Convolution8 (in-place)
I1023 12:10:12.972738  4594 net.cpp:122] Setting up BatchNorm8
I1023 12:10:12.972743  4594 net.cpp:129] Top shape: 8 32 112 112 (3211264)
I1023 12:10:12.972744  4594 net.cpp:137] Memory required for data: 1032421472
I1023 12:10:12.972749  4594 layer_factory.hpp:77] Creating layer Scale8
I1023 12:10:12.972764  4594 net.cpp:84] Creating Layer Scale8
I1023 12:10:12.972766  4594 net.cpp:406] Scale8 <- Convolution8
I1023 12:10:12.972769  4594 net.cpp:367] Scale8 -> Convolution8 (in-place)
I1023 12:10:12.972807  4594 layer_factory.hpp:77] Creating layer Scale8
I1023 12:10:12.972909  4594 net.cpp:122] Setting up Scale8
I1023 12:10:12.972914  4594 net.cpp:129] Top shape: 8 32 112 112 (3211264)
I1023 12:10:12.972916  4594 net.cpp:137] Memory required for data: 1045266528
I1023 12:10:12.972920  4594 layer_factory.hpp:77] Creating layer Convolution9
I1023 12:10:12.972929  4594 net.cpp:84] Creating Layer Convolution9
I1023 12:10:12.972931  4594 net.cpp:406] Convolution9 <- Eltwise3_penlu7_0_split_1
I1023 12:10:12.972935  4594 net.cpp:380] Convolution9 -> Convolution9
I1023 12:10:12.974035  4594 net.cpp:122] Setting up Convolution9
I1023 12:10:12.974045  4594 net.cpp:129] Top shape: 8 32 112 112 (3211264)
I1023 12:10:12.974047  4594 net.cpp:137] Memory required for data: 1058111584
I1023 12:10:12.974051  4594 layer_factory.hpp:77] Creating layer BatchNorm9
I1023 12:10:12.974056  4594 net.cpp:84] Creating Layer BatchNorm9
I1023 12:10:12.974059  4594 net.cpp:406] BatchNorm9 <- Convolution9
I1023 12:10:12.974064  4594 net.cpp:367] BatchNorm9 -> Convolution9 (in-place)
I1023 12:10:12.974225  4594 net.cpp:122] Setting up BatchNorm9
I1023 12:10:12.974231  4594 net.cpp:129] Top shape: 8 32 112 112 (3211264)
I1023 12:10:12.974232  4594 net.cpp:137] Memory required for data: 1070956640
I1023 12:10:12.974237  4594 layer_factory.hpp:77] Creating layer Scale9
I1023 12:10:12.974242  4594 net.cpp:84] Creating Layer Scale9
I1023 12:10:12.974244  4594 net.cpp:406] Scale9 <- Convolution9
I1023 12:10:12.974248  4594 net.cpp:367] Scale9 -> Convolution9 (in-place)
I1023 12:10:12.974278  4594 layer_factory.hpp:77] Creating layer Scale9
I1023 12:10:12.974380  4594 net.cpp:122] Setting up Scale9
I1023 12:10:12.974383  4594 net.cpp:129] Top shape: 8 32 112 112 (3211264)
I1023 12:10:12.974385  4594 net.cpp:137] Memory required for data: 1083801696
I1023 12:10:12.974390  4594 layer_factory.hpp:77] Creating layer penlu8
I1023 12:10:12.974395  4594 net.cpp:84] Creating Layer penlu8
I1023 12:10:12.974396  4594 net.cpp:406] penlu8 <- Convolution9
I1023 12:10:12.974401  4594 net.cpp:367] penlu8 -> Convolution9 (in-place)
I1023 12:10:12.975250  4594 net.cpp:122] Setting up penlu8
I1023 12:10:12.975258  4594 net.cpp:129] Top shape: 8 32 112 112 (3211264)
I1023 12:10:12.975261  4594 net.cpp:137] Memory required for data: 1096646752
I1023 12:10:12.975266  4594 layer_factory.hpp:77] Creating layer Convolution10
I1023 12:10:12.975275  4594 net.cpp:84] Creating Layer Convolution10
I1023 12:10:12.975277  4594 net.cpp:406] Convolution10 <- Convolution9
I1023 12:10:12.975281  4594 net.cpp:380] Convolution10 -> Convolution10
I1023 12:10:12.977365  4594 net.cpp:122] Setting up Convolution10
I1023 12:10:12.977373  4594 net.cpp:129] Top shape: 8 32 112 112 (3211264)
I1023 12:10:12.977376  4594 net.cpp:137] Memory required for data: 1109491808
I1023 12:10:12.977381  4594 layer_factory.hpp:77] Creating layer BatchNorm10
I1023 12:10:12.977386  4594 net.cpp:84] Creating Layer BatchNorm10
I1023 12:10:12.977390  4594 net.cpp:406] BatchNorm10 <- Convolution10
I1023 12:10:12.977393  4594 net.cpp:367] BatchNorm10 -> Convolution10 (in-place)
I1023 12:10:12.977557  4594 net.cpp:122] Setting up BatchNorm10
I1023 12:10:12.977562  4594 net.cpp:129] Top shape: 8 32 112 112 (3211264)
I1023 12:10:12.977565  4594 net.cpp:137] Memory required for data: 1122336864
I1023 12:10:12.977569  4594 layer_factory.hpp:77] Creating layer Scale10
I1023 12:10:12.977573  4594 net.cpp:84] Creating Layer Scale10
I1023 12:10:12.977576  4594 net.cpp:406] Scale10 <- Convolution10
I1023 12:10:12.977579  4594 net.cpp:367] Scale10 -> Convolution10 (in-place)
I1023 12:10:12.977612  4594 layer_factory.hpp:77] Creating layer Scale10
I1023 12:10:12.977706  4594 net.cpp:122] Setting up Scale10
I1023 12:10:12.977710  4594 net.cpp:129] Top shape: 8 32 112 112 (3211264)
I1023 12:10:12.977725  4594 net.cpp:137] Memory required for data: 1135181920
I1023 12:10:12.977728  4594 layer_factory.hpp:77] Creating layer Eltwise4
I1023 12:10:12.977733  4594 net.cpp:84] Creating Layer Eltwise4
I1023 12:10:12.977735  4594 net.cpp:406] Eltwise4 <- Convolution8
I1023 12:10:12.977738  4594 net.cpp:406] Eltwise4 <- Convolution10
I1023 12:10:12.977742  4594 net.cpp:380] Eltwise4 -> Eltwise4
I1023 12:10:12.977762  4594 net.cpp:122] Setting up Eltwise4
I1023 12:10:12.977766  4594 net.cpp:129] Top shape: 8 32 112 112 (3211264)
I1023 12:10:12.977768  4594 net.cpp:137] Memory required for data: 1148026976
I1023 12:10:12.977771  4594 layer_factory.hpp:77] Creating layer penlu9
I1023 12:10:12.977777  4594 net.cpp:84] Creating Layer penlu9
I1023 12:10:12.977778  4594 net.cpp:406] penlu9 <- Eltwise4
I1023 12:10:12.977783  4594 net.cpp:367] penlu9 -> Eltwise4 (in-place)
I1023 12:10:12.978612  4594 net.cpp:122] Setting up penlu9
I1023 12:10:12.978621  4594 net.cpp:129] Top shape: 8 32 112 112 (3211264)
I1023 12:10:12.978622  4594 net.cpp:137] Memory required for data: 1160872032
I1023 12:10:12.978627  4594 layer_factory.hpp:77] Creating layer Eltwise4_penlu9_0_split
I1023 12:10:12.978633  4594 net.cpp:84] Creating Layer Eltwise4_penlu9_0_split
I1023 12:10:12.978636  4594 net.cpp:406] Eltwise4_penlu9_0_split <- Eltwise4
I1023 12:10:12.978639  4594 net.cpp:380] Eltwise4_penlu9_0_split -> Eltwise4_penlu9_0_split_0
I1023 12:10:12.978643  4594 net.cpp:380] Eltwise4_penlu9_0_split -> Eltwise4_penlu9_0_split_1
I1023 12:10:12.978672  4594 net.cpp:122] Setting up Eltwise4_penlu9_0_split
I1023 12:10:12.978677  4594 net.cpp:129] Top shape: 8 32 112 112 (3211264)
I1023 12:10:12.978678  4594 net.cpp:129] Top shape: 8 32 112 112 (3211264)
I1023 12:10:12.978680  4594 net.cpp:137] Memory required for data: 1186562144
I1023 12:10:12.978683  4594 layer_factory.hpp:77] Creating layer Convolution11
I1023 12:10:12.978689  4594 net.cpp:84] Creating Layer Convolution11
I1023 12:10:12.978691  4594 net.cpp:406] Convolution11 <- Eltwise4_penlu9_0_split_0
I1023 12:10:12.978696  4594 net.cpp:380] Convolution11 -> Convolution11
I1023 12:10:12.979873  4594 net.cpp:122] Setting up Convolution11
I1023 12:10:12.979882  4594 net.cpp:129] Top shape: 8 32 112 112 (3211264)
I1023 12:10:12.979885  4594 net.cpp:137] Memory required for data: 1199407200
I1023 12:10:12.979889  4594 layer_factory.hpp:77] Creating layer BatchNorm11
I1023 12:10:12.979894  4594 net.cpp:84] Creating Layer BatchNorm11
I1023 12:10:12.979897  4594 net.cpp:406] BatchNorm11 <- Convolution11
I1023 12:10:12.979902  4594 net.cpp:367] BatchNorm11 -> Convolution11 (in-place)
I1023 12:10:12.980092  4594 net.cpp:122] Setting up BatchNorm11
I1023 12:10:12.980096  4594 net.cpp:129] Top shape: 8 32 112 112 (3211264)
I1023 12:10:12.980098  4594 net.cpp:137] Memory required for data: 1212252256
I1023 12:10:12.980103  4594 layer_factory.hpp:77] Creating layer Scale11
I1023 12:10:12.980108  4594 net.cpp:84] Creating Layer Scale11
I1023 12:10:12.980110  4594 net.cpp:406] Scale11 <- Convolution11
I1023 12:10:12.980113  4594 net.cpp:367] Scale11 -> Convolution11 (in-place)
I1023 12:10:12.980144  4594 layer_factory.hpp:77] Creating layer Scale11
I1023 12:10:12.980239  4594 net.cpp:122] Setting up Scale11
I1023 12:10:12.980244  4594 net.cpp:129] Top shape: 8 32 112 112 (3211264)
I1023 12:10:12.980247  4594 net.cpp:137] Memory required for data: 1225097312
I1023 12:10:12.980250  4594 layer_factory.hpp:77] Creating layer penlu10
I1023 12:10:12.980255  4594 net.cpp:84] Creating Layer penlu10
I1023 12:10:12.980258  4594 net.cpp:406] penlu10 <- Convolution11
I1023 12:10:12.980262  4594 net.cpp:367] penlu10 -> Convolution11 (in-place)
I1023 12:10:12.981091  4594 net.cpp:122] Setting up penlu10
I1023 12:10:12.981098  4594 net.cpp:129] Top shape: 8 32 112 112 (3211264)
I1023 12:10:12.981101  4594 net.cpp:137] Memory required for data: 1237942368
I1023 12:10:12.981106  4594 layer_factory.hpp:77] Creating layer Convolution12
I1023 12:10:12.981113  4594 net.cpp:84] Creating Layer Convolution12
I1023 12:10:12.981125  4594 net.cpp:406] Convolution12 <- Convolution11
I1023 12:10:12.981130  4594 net.cpp:380] Convolution12 -> Convolution12
I1023 12:10:12.981925  4594 net.cpp:122] Setting up Convolution12
I1023 12:10:12.981933  4594 net.cpp:129] Top shape: 8 32 112 112 (3211264)
I1023 12:10:12.981936  4594 net.cpp:137] Memory required for data: 1250787424
I1023 12:10:12.981940  4594 layer_factory.hpp:77] Creating layer BatchNorm12
I1023 12:10:12.981945  4594 net.cpp:84] Creating Layer BatchNorm12
I1023 12:10:12.981947  4594 net.cpp:406] BatchNorm12 <- Convolution12
I1023 12:10:12.981951  4594 net.cpp:367] BatchNorm12 -> Convolution12 (in-place)
I1023 12:10:12.982112  4594 net.cpp:122] Setting up BatchNorm12
I1023 12:10:12.982117  4594 net.cpp:129] Top shape: 8 32 112 112 (3211264)
I1023 12:10:12.982120  4594 net.cpp:137] Memory required for data: 1263632480
I1023 12:10:12.982125  4594 layer_factory.hpp:77] Creating layer Scale12
I1023 12:10:12.982128  4594 net.cpp:84] Creating Layer Scale12
I1023 12:10:12.982131  4594 net.cpp:406] Scale12 <- Convolution12
I1023 12:10:12.982134  4594 net.cpp:367] Scale12 -> Convolution12 (in-place)
I1023 12:10:12.982164  4594 layer_factory.hpp:77] Creating layer Scale12
I1023 12:10:12.982264  4594 net.cpp:122] Setting up Scale12
I1023 12:10:12.982269  4594 net.cpp:129] Top shape: 8 32 112 112 (3211264)
I1023 12:10:12.982270  4594 net.cpp:137] Memory required for data: 1276477536
I1023 12:10:12.982275  4594 layer_factory.hpp:77] Creating layer Eltwise5
I1023 12:10:12.982280  4594 net.cpp:84] Creating Layer Eltwise5
I1023 12:10:12.982281  4594 net.cpp:406] Eltwise5 <- Eltwise4_penlu9_0_split_1
I1023 12:10:12.982285  4594 net.cpp:406] Eltwise5 <- Convolution12
I1023 12:10:12.982287  4594 net.cpp:380] Eltwise5 -> Eltwise5
I1023 12:10:12.982307  4594 net.cpp:122] Setting up Eltwise5
I1023 12:10:12.982311  4594 net.cpp:129] Top shape: 8 32 112 112 (3211264)
I1023 12:10:12.982312  4594 net.cpp:137] Memory required for data: 1289322592
I1023 12:10:12.982316  4594 layer_factory.hpp:77] Creating layer penlu11
I1023 12:10:12.982321  4594 net.cpp:84] Creating Layer penlu11
I1023 12:10:12.982322  4594 net.cpp:406] penlu11 <- Eltwise5
I1023 12:10:12.982326  4594 net.cpp:367] penlu11 -> Eltwise5 (in-place)
I1023 12:10:12.983173  4594 net.cpp:122] Setting up penlu11
I1023 12:10:12.983181  4594 net.cpp:129] Top shape: 8 32 112 112 (3211264)
I1023 12:10:12.983183  4594 net.cpp:137] Memory required for data: 1302167648
I1023 12:10:12.983189  4594 layer_factory.hpp:77] Creating layer Eltwise5_penlu11_0_split
I1023 12:10:12.983193  4594 net.cpp:84] Creating Layer Eltwise5_penlu11_0_split
I1023 12:10:12.983196  4594 net.cpp:406] Eltwise5_penlu11_0_split <- Eltwise5
I1023 12:10:12.983198  4594 net.cpp:380] Eltwise5_penlu11_0_split -> Eltwise5_penlu11_0_split_0
I1023 12:10:12.983203  4594 net.cpp:380] Eltwise5_penlu11_0_split -> Eltwise5_penlu11_0_split_1
I1023 12:10:12.983235  4594 net.cpp:122] Setting up Eltwise5_penlu11_0_split
I1023 12:10:12.983240  4594 net.cpp:129] Top shape: 8 32 112 112 (3211264)
I1023 12:10:12.983243  4594 net.cpp:129] Top shape: 8 32 112 112 (3211264)
I1023 12:10:12.983245  4594 net.cpp:137] Memory required for data: 1327857760
I1023 12:10:12.983247  4594 layer_factory.hpp:77] Creating layer Convolution13
I1023 12:10:12.983255  4594 net.cpp:84] Creating Layer Convolution13
I1023 12:10:12.983258  4594 net.cpp:406] Convolution13 <- Eltwise5_penlu11_0_split_0
I1023 12:10:12.983261  4594 net.cpp:380] Convolution13 -> Convolution13
I1023 12:10:12.984449  4594 net.cpp:122] Setting up Convolution13
I1023 12:10:12.984458  4594 net.cpp:129] Top shape: 8 32 112 112 (3211264)
I1023 12:10:12.984462  4594 net.cpp:137] Memory required for data: 1340702816
I1023 12:10:12.984465  4594 layer_factory.hpp:77] Creating layer BatchNorm13
I1023 12:10:12.984472  4594 net.cpp:84] Creating Layer BatchNorm13
I1023 12:10:12.984474  4594 net.cpp:406] BatchNorm13 <- Convolution13
I1023 12:10:12.984478  4594 net.cpp:367] BatchNorm13 -> Convolution13 (in-place)
I1023 12:10:12.984642  4594 net.cpp:122] Setting up BatchNorm13
I1023 12:10:12.984653  4594 net.cpp:129] Top shape: 8 32 112 112 (3211264)
I1023 12:10:12.984655  4594 net.cpp:137] Memory required for data: 1353547872
I1023 12:10:12.984660  4594 layer_factory.hpp:77] Creating layer Scale13
I1023 12:10:12.984665  4594 net.cpp:84] Creating Layer Scale13
I1023 12:10:12.984668  4594 net.cpp:406] Scale13 <- Convolution13
I1023 12:10:12.984671  4594 net.cpp:367] Scale13 -> Convolution13 (in-place)
I1023 12:10:12.984705  4594 layer_factory.hpp:77] Creating layer Scale13
I1023 12:10:12.984809  4594 net.cpp:122] Setting up Scale13
I1023 12:10:12.984813  4594 net.cpp:129] Top shape: 8 32 112 112 (3211264)
I1023 12:10:12.984815  4594 net.cpp:137] Memory required for data: 1366392928
I1023 12:10:12.984819  4594 layer_factory.hpp:77] Creating layer penlu12
I1023 12:10:12.984825  4594 net.cpp:84] Creating Layer penlu12
I1023 12:10:12.984827  4594 net.cpp:406] penlu12 <- Convolution13
I1023 12:10:12.984832  4594 net.cpp:367] penlu12 -> Convolution13 (in-place)
I1023 12:10:12.985684  4594 net.cpp:122] Setting up penlu12
I1023 12:10:12.985692  4594 net.cpp:129] Top shape: 8 32 112 112 (3211264)
I1023 12:10:12.985695  4594 net.cpp:137] Memory required for data: 1379237984
I1023 12:10:12.985700  4594 layer_factory.hpp:77] Creating layer Convolution14
I1023 12:10:12.985711  4594 net.cpp:84] Creating Layer Convolution14
I1023 12:10:12.985714  4594 net.cpp:406] Convolution14 <- Convolution13
I1023 12:10:12.985719  4594 net.cpp:380] Convolution14 -> Convolution14
I1023 12:10:12.986892  4594 net.cpp:122] Setting up Convolution14
I1023 12:10:12.986901  4594 net.cpp:129] Top shape: 8 32 112 112 (3211264)
I1023 12:10:12.986904  4594 net.cpp:137] Memory required for data: 1392083040
I1023 12:10:12.986922  4594 layer_factory.hpp:77] Creating layer BatchNorm14
I1023 12:10:12.986927  4594 net.cpp:84] Creating Layer BatchNorm14
I1023 12:10:12.986929  4594 net.cpp:406] BatchNorm14 <- Convolution14
I1023 12:10:12.986934  4594 net.cpp:367] BatchNorm14 -> Convolution14 (in-place)
I1023 12:10:12.987097  4594 net.cpp:122] Setting up BatchNorm14
I1023 12:10:12.987102  4594 net.cpp:129] Top shape: 8 32 112 112 (3211264)
I1023 12:10:12.987104  4594 net.cpp:137] Memory required for data: 1404928096
I1023 12:10:12.987109  4594 layer_factory.hpp:77] Creating layer Scale14
I1023 12:10:12.987114  4594 net.cpp:84] Creating Layer Scale14
I1023 12:10:12.987116  4594 net.cpp:406] Scale14 <- Convolution14
I1023 12:10:12.987119  4594 net.cpp:367] Scale14 -> Convolution14 (in-place)
I1023 12:10:12.987150  4594 layer_factory.hpp:77] Creating layer Scale14
I1023 12:10:12.987251  4594 net.cpp:122] Setting up Scale14
I1023 12:10:12.987257  4594 net.cpp:129] Top shape: 8 32 112 112 (3211264)
I1023 12:10:12.987258  4594 net.cpp:137] Memory required for data: 1417773152
I1023 12:10:12.987262  4594 layer_factory.hpp:77] Creating layer Eltwise6
I1023 12:10:12.987267  4594 net.cpp:84] Creating Layer Eltwise6
I1023 12:10:12.987269  4594 net.cpp:406] Eltwise6 <- Eltwise5_penlu11_0_split_1
I1023 12:10:12.987272  4594 net.cpp:406] Eltwise6 <- Convolution14
I1023 12:10:12.987275  4594 net.cpp:380] Eltwise6 -> Eltwise6
I1023 12:10:12.987295  4594 net.cpp:122] Setting up Eltwise6
I1023 12:10:12.987299  4594 net.cpp:129] Top shape: 8 32 112 112 (3211264)
I1023 12:10:12.987301  4594 net.cpp:137] Memory required for data: 1430618208
I1023 12:10:12.987303  4594 layer_factory.hpp:77] Creating layer penlu13
I1023 12:10:12.987308  4594 net.cpp:84] Creating Layer penlu13
I1023 12:10:12.987311  4594 net.cpp:406] penlu13 <- Eltwise6
I1023 12:10:12.987314  4594 net.cpp:367] penlu13 -> Eltwise6 (in-place)
I1023 12:10:12.988198  4594 net.cpp:122] Setting up penlu13
I1023 12:10:12.988207  4594 net.cpp:129] Top shape: 8 32 112 112 (3211264)
I1023 12:10:12.988210  4594 net.cpp:137] Memory required for data: 1443463264
I1023 12:10:12.988215  4594 layer_factory.hpp:77] Creating layer Eltwise6_penlu13_0_split
I1023 12:10:12.988221  4594 net.cpp:84] Creating Layer Eltwise6_penlu13_0_split
I1023 12:10:12.988224  4594 net.cpp:406] Eltwise6_penlu13_0_split <- Eltwise6
I1023 12:10:12.988237  4594 net.cpp:380] Eltwise6_penlu13_0_split -> Eltwise6_penlu13_0_split_0
I1023 12:10:12.988242  4594 net.cpp:380] Eltwise6_penlu13_0_split -> Eltwise6_penlu13_0_split_1
I1023 12:10:12.988273  4594 net.cpp:122] Setting up Eltwise6_penlu13_0_split
I1023 12:10:12.988278  4594 net.cpp:129] Top shape: 8 32 112 112 (3211264)
I1023 12:10:12.988281  4594 net.cpp:129] Top shape: 8 32 112 112 (3211264)
I1023 12:10:12.988282  4594 net.cpp:137] Memory required for data: 1469153376
I1023 12:10:12.988286  4594 layer_factory.hpp:77] Creating layer Convolution15
I1023 12:10:12.988291  4594 net.cpp:84] Creating Layer Convolution15
I1023 12:10:12.988293  4594 net.cpp:406] Convolution15 <- Eltwise6_penlu13_0_split_0
I1023 12:10:12.988298  4594 net.cpp:380] Convolution15 -> Convolution15
I1023 12:10:12.989317  4594 net.cpp:122] Setting up Convolution15
I1023 12:10:12.989326  4594 net.cpp:129] Top shape: 8 64 56 56 (1605632)
I1023 12:10:12.989329  4594 net.cpp:137] Memory required for data: 1475575904
I1023 12:10:12.989333  4594 layer_factory.hpp:77] Creating layer BatchNorm15
I1023 12:10:12.989339  4594 net.cpp:84] Creating Layer BatchNorm15
I1023 12:10:12.989342  4594 net.cpp:406] BatchNorm15 <- Convolution15
I1023 12:10:12.989346  4594 net.cpp:367] BatchNorm15 -> Convolution15 (in-place)
I1023 12:10:12.989509  4594 net.cpp:122] Setting up BatchNorm15
I1023 12:10:12.989513  4594 net.cpp:129] Top shape: 8 64 56 56 (1605632)
I1023 12:10:12.989516  4594 net.cpp:137] Memory required for data: 1481998432
I1023 12:10:12.989521  4594 layer_factory.hpp:77] Creating layer Scale15
I1023 12:10:12.989524  4594 net.cpp:84] Creating Layer Scale15
I1023 12:10:12.989527  4594 net.cpp:406] Scale15 <- Convolution15
I1023 12:10:12.989531  4594 net.cpp:367] Scale15 -> Convolution15 (in-place)
I1023 12:10:12.989562  4594 layer_factory.hpp:77] Creating layer Scale15
I1023 12:10:12.989657  4594 net.cpp:122] Setting up Scale15
I1023 12:10:12.989661  4594 net.cpp:129] Top shape: 8 64 56 56 (1605632)
I1023 12:10:12.989663  4594 net.cpp:137] Memory required for data: 1488420960
I1023 12:10:12.989667  4594 layer_factory.hpp:77] Creating layer Convolution16
I1023 12:10:12.989675  4594 net.cpp:84] Creating Layer Convolution16
I1023 12:10:12.989676  4594 net.cpp:406] Convolution16 <- Eltwise6_penlu13_0_split_1
I1023 12:10:12.989681  4594 net.cpp:380] Convolution16 -> Convolution16
I1023 12:10:12.991053  4594 net.cpp:122] Setting up Convolution16
I1023 12:10:12.991062  4594 net.cpp:129] Top shape: 8 64 56 56 (1605632)
I1023 12:10:12.991065  4594 net.cpp:137] Memory required for data: 1494843488
I1023 12:10:12.991070  4594 layer_factory.hpp:77] Creating layer BatchNorm16
I1023 12:10:12.991075  4594 net.cpp:84] Creating Layer BatchNorm16
I1023 12:10:12.991077  4594 net.cpp:406] BatchNorm16 <- Convolution16
I1023 12:10:12.991081  4594 net.cpp:367] BatchNorm16 -> Convolution16 (in-place)
I1023 12:10:12.991243  4594 net.cpp:122] Setting up BatchNorm16
I1023 12:10:12.991248  4594 net.cpp:129] Top shape: 8 64 56 56 (1605632)
I1023 12:10:12.991250  4594 net.cpp:137] Memory required for data: 1501266016
I1023 12:10:12.991255  4594 layer_factory.hpp:77] Creating layer Scale16
I1023 12:10:12.991259  4594 net.cpp:84] Creating Layer Scale16
I1023 12:10:12.991261  4594 net.cpp:406] Scale16 <- Convolution16
I1023 12:10:12.991266  4594 net.cpp:367] Scale16 -> Convolution16 (in-place)
I1023 12:10:12.991295  4594 layer_factory.hpp:77] Creating layer Scale16
I1023 12:10:12.991390  4594 net.cpp:122] Setting up Scale16
I1023 12:10:12.991394  4594 net.cpp:129] Top shape: 8 64 56 56 (1605632)
I1023 12:10:12.991396  4594 net.cpp:137] Memory required for data: 1507688544
I1023 12:10:12.991400  4594 layer_factory.hpp:77] Creating layer penlu14
I1023 12:10:12.991406  4594 net.cpp:84] Creating Layer penlu14
I1023 12:10:12.991410  4594 net.cpp:406] penlu14 <- Convolution16
I1023 12:10:12.991412  4594 net.cpp:367] penlu14 -> Convolution16 (in-place)
I1023 12:10:12.992197  4594 net.cpp:122] Setting up penlu14
I1023 12:10:12.992205  4594 net.cpp:129] Top shape: 8 64 56 56 (1605632)
I1023 12:10:12.992215  4594 net.cpp:137] Memory required for data: 1514111072
I1023 12:10:12.992220  4594 layer_factory.hpp:77] Creating layer Convolution17
I1023 12:10:12.992228  4594 net.cpp:84] Creating Layer Convolution17
I1023 12:10:12.992231  4594 net.cpp:406] Convolution17 <- Convolution16
I1023 12:10:12.992235  4594 net.cpp:380] Convolution17 -> Convolution17
I1023 12:10:12.994608  4594 net.cpp:122] Setting up Convolution17
I1023 12:10:12.994617  4594 net.cpp:129] Top shape: 8 64 56 56 (1605632)
I1023 12:10:12.994621  4594 net.cpp:137] Memory required for data: 1520533600
I1023 12:10:12.994626  4594 layer_factory.hpp:77] Creating layer BatchNorm17
I1023 12:10:12.994630  4594 net.cpp:84] Creating Layer BatchNorm17
I1023 12:10:12.994633  4594 net.cpp:406] BatchNorm17 <- Convolution17
I1023 12:10:12.994637  4594 net.cpp:367] BatchNorm17 -> Convolution17 (in-place)
I1023 12:10:12.994801  4594 net.cpp:122] Setting up BatchNorm17
I1023 12:10:12.994805  4594 net.cpp:129] Top shape: 8 64 56 56 (1605632)
I1023 12:10:12.994807  4594 net.cpp:137] Memory required for data: 1526956128
I1023 12:10:12.994812  4594 layer_factory.hpp:77] Creating layer Scale17
I1023 12:10:12.994817  4594 net.cpp:84] Creating Layer Scale17
I1023 12:10:12.994820  4594 net.cpp:406] Scale17 <- Convolution17
I1023 12:10:12.994823  4594 net.cpp:367] Scale17 -> Convolution17 (in-place)
I1023 12:10:12.994855  4594 layer_factory.hpp:77] Creating layer Scale17
I1023 12:10:12.994953  4594 net.cpp:122] Setting up Scale17
I1023 12:10:12.994957  4594 net.cpp:129] Top shape: 8 64 56 56 (1605632)
I1023 12:10:12.994959  4594 net.cpp:137] Memory required for data: 1533378656
I1023 12:10:12.994963  4594 layer_factory.hpp:77] Creating layer Eltwise7
I1023 12:10:12.994968  4594 net.cpp:84] Creating Layer Eltwise7
I1023 12:10:12.994971  4594 net.cpp:406] Eltwise7 <- Convolution15
I1023 12:10:12.994973  4594 net.cpp:406] Eltwise7 <- Convolution17
I1023 12:10:12.994977  4594 net.cpp:380] Eltwise7 -> Eltwise7
I1023 12:10:12.994997  4594 net.cpp:122] Setting up Eltwise7
I1023 12:10:12.995000  4594 net.cpp:129] Top shape: 8 64 56 56 (1605632)
I1023 12:10:12.995002  4594 net.cpp:137] Memory required for data: 1539801184
I1023 12:10:12.995004  4594 layer_factory.hpp:77] Creating layer penlu15
I1023 12:10:12.995009  4594 net.cpp:84] Creating Layer penlu15
I1023 12:10:12.995012  4594 net.cpp:406] penlu15 <- Eltwise7
I1023 12:10:12.995015  4594 net.cpp:367] penlu15 -> Eltwise7 (in-place)
I1023 12:10:12.995249  4594 net.cpp:122] Setting up penlu15
I1023 12:10:12.995254  4594 net.cpp:129] Top shape: 8 64 56 56 (1605632)
I1023 12:10:12.995255  4594 net.cpp:137] Memory required for data: 1546223712
I1023 12:10:12.995260  4594 layer_factory.hpp:77] Creating layer Eltwise7_penlu15_0_split
I1023 12:10:12.995263  4594 net.cpp:84] Creating Layer Eltwise7_penlu15_0_split
I1023 12:10:12.995266  4594 net.cpp:406] Eltwise7_penlu15_0_split <- Eltwise7
I1023 12:10:12.995270  4594 net.cpp:380] Eltwise7_penlu15_0_split -> Eltwise7_penlu15_0_split_0
I1023 12:10:12.995273  4594 net.cpp:380] Eltwise7_penlu15_0_split -> Eltwise7_penlu15_0_split_1
I1023 12:10:12.995302  4594 net.cpp:122] Setting up Eltwise7_penlu15_0_split
I1023 12:10:12.995306  4594 net.cpp:129] Top shape: 8 64 56 56 (1605632)
I1023 12:10:12.995309  4594 net.cpp:129] Top shape: 8 64 56 56 (1605632)
I1023 12:10:12.995311  4594 net.cpp:137] Memory required for data: 1559068768
I1023 12:10:12.995313  4594 layer_factory.hpp:77] Creating layer Convolution18
I1023 12:10:12.995319  4594 net.cpp:84] Creating Layer Convolution18
I1023 12:10:12.995322  4594 net.cpp:406] Convolution18 <- Eltwise7_penlu15_0_split_0
I1023 12:10:12.995326  4594 net.cpp:380] Convolution18 -> Convolution18
I1023 12:10:12.997858  4594 net.cpp:122] Setting up Convolution18
I1023 12:10:13.000316  4594 net.cpp:129] Top shape: 8 64 56 56 (1605632)
I1023 12:10:13.000324  4594 net.cpp:137] Memory required for data: 1565491296
I1023 12:10:13.000329  4594 layer_factory.hpp:77] Creating layer BatchNorm18
I1023 12:10:13.000335  4594 net.cpp:84] Creating Layer BatchNorm18
I1023 12:10:13.000347  4594 net.cpp:406] BatchNorm18 <- Convolution18
I1023 12:10:13.000352  4594 net.cpp:367] BatchNorm18 -> Convolution18 (in-place)
I1023 12:10:13.000540  4594 net.cpp:122] Setting up BatchNorm18
I1023 12:10:13.000545  4594 net.cpp:129] Top shape: 8 64 56 56 (1605632)
I1023 12:10:13.000547  4594 net.cpp:137] Memory required for data: 1571913824
I1023 12:10:13.000552  4594 layer_factory.hpp:77] Creating layer Scale18
I1023 12:10:13.000558  4594 net.cpp:84] Creating Layer Scale18
I1023 12:10:13.000560  4594 net.cpp:406] Scale18 <- Convolution18
I1023 12:10:13.000564  4594 net.cpp:367] Scale18 -> Convolution18 (in-place)
I1023 12:10:13.000599  4594 layer_factory.hpp:77] Creating layer Scale18
I1023 12:10:13.000705  4594 net.cpp:122] Setting up Scale18
I1023 12:10:13.000710  4594 net.cpp:129] Top shape: 8 64 56 56 (1605632)
I1023 12:10:13.000712  4594 net.cpp:137] Memory required for data: 1578336352
I1023 12:10:13.000716  4594 layer_factory.hpp:77] Creating layer penlu16
I1023 12:10:13.000725  4594 net.cpp:84] Creating Layer penlu16
I1023 12:10:13.000727  4594 net.cpp:406] penlu16 <- Convolution18
I1023 12:10:13.000730  4594 net.cpp:367] penlu16 -> Convolution18 (in-place)
I1023 12:10:13.001566  4594 net.cpp:122] Setting up penlu16
I1023 12:10:13.001576  4594 net.cpp:129] Top shape: 8 64 56 56 (1605632)
I1023 12:10:13.001579  4594 net.cpp:137] Memory required for data: 1584758880
I1023 12:10:13.001585  4594 layer_factory.hpp:77] Creating layer Convolution19
I1023 12:10:13.001591  4594 net.cpp:84] Creating Layer Convolution19
I1023 12:10:13.001595  4594 net.cpp:406] Convolution19 <- Convolution18
I1023 12:10:13.001600  4594 net.cpp:380] Convolution19 -> Convolution19
I1023 12:10:13.003595  4594 net.cpp:122] Setting up Convolution19
I1023 12:10:13.003607  4594 net.cpp:129] Top shape: 8 64 56 56 (1605632)
I1023 12:10:13.003608  4594 net.cpp:137] Memory required for data: 1591181408
I1023 12:10:13.003613  4594 layer_factory.hpp:77] Creating layer BatchNorm19
I1023 12:10:13.003618  4594 net.cpp:84] Creating Layer BatchNorm19
I1023 12:10:13.003621  4594 net.cpp:406] BatchNorm19 <- Convolution19
I1023 12:10:13.003625  4594 net.cpp:367] BatchNorm19 -> Convolution19 (in-place)
I1023 12:10:13.003799  4594 net.cpp:122] Setting up BatchNorm19
I1023 12:10:13.003804  4594 net.cpp:129] Top shape: 8 64 56 56 (1605632)
I1023 12:10:13.003806  4594 net.cpp:137] Memory required for data: 1597603936
I1023 12:10:13.003811  4594 layer_factory.hpp:77] Creating layer Scale19
I1023 12:10:13.003816  4594 net.cpp:84] Creating Layer Scale19
I1023 12:10:13.003818  4594 net.cpp:406] Scale19 <- Convolution19
I1023 12:10:13.003821  4594 net.cpp:367] Scale19 -> Convolution19 (in-place)
I1023 12:10:13.003866  4594 layer_factory.hpp:77] Creating layer Scale19
I1023 12:10:13.003993  4594 net.cpp:122] Setting up Scale19
I1023 12:10:13.004000  4594 net.cpp:129] Top shape: 8 64 56 56 (1605632)
I1023 12:10:13.004003  4594 net.cpp:137] Memory required for data: 1604026464
I1023 12:10:13.004006  4594 layer_factory.hpp:77] Creating layer Eltwise8
I1023 12:10:13.004011  4594 net.cpp:84] Creating Layer Eltwise8
I1023 12:10:13.004015  4594 net.cpp:406] Eltwise8 <- Eltwise7_penlu15_0_split_1
I1023 12:10:13.004019  4594 net.cpp:406] Eltwise8 <- Convolution19
I1023 12:10:13.004022  4594 net.cpp:380] Eltwise8 -> Eltwise8
I1023 12:10:13.004045  4594 net.cpp:122] Setting up Eltwise8
I1023 12:10:13.004050  4594 net.cpp:129] Top shape: 8 64 56 56 (1605632)
I1023 12:10:13.004051  4594 net.cpp:137] Memory required for data: 1610448992
I1023 12:10:13.004055  4594 layer_factory.hpp:77] Creating layer penlu17
I1023 12:10:13.004060  4594 net.cpp:84] Creating Layer penlu17
I1023 12:10:13.004061  4594 net.cpp:406] penlu17 <- Eltwise8
I1023 12:10:13.004065  4594 net.cpp:367] penlu17 -> Eltwise8 (in-place)
I1023 12:10:13.004328  4594 net.cpp:122] Setting up penlu17
I1023 12:10:13.004333  4594 net.cpp:129] Top shape: 8 64 56 56 (1605632)
I1023 12:10:13.004334  4594 net.cpp:137] Memory required for data: 1616871520
I1023 12:10:13.004339  4594 layer_factory.hpp:77] Creating layer Eltwise8_penlu17_0_split
I1023 12:10:13.004353  4594 net.cpp:84] Creating Layer Eltwise8_penlu17_0_split
I1023 12:10:13.004355  4594 net.cpp:406] Eltwise8_penlu17_0_split <- Eltwise8
I1023 12:10:13.004359  4594 net.cpp:380] Eltwise8_penlu17_0_split -> Eltwise8_penlu17_0_split_0
I1023 12:10:13.004362  4594 net.cpp:380] Eltwise8_penlu17_0_split -> Eltwise8_penlu17_0_split_1
I1023 12:10:13.004393  4594 net.cpp:122] Setting up Eltwise8_penlu17_0_split
I1023 12:10:13.004397  4594 net.cpp:129] Top shape: 8 64 56 56 (1605632)
I1023 12:10:13.004400  4594 net.cpp:129] Top shape: 8 64 56 56 (1605632)
I1023 12:10:13.004402  4594 net.cpp:137] Memory required for data: 1629716576
I1023 12:10:13.004405  4594 layer_factory.hpp:77] Creating layer Convolution20
I1023 12:10:13.004411  4594 net.cpp:84] Creating Layer Convolution20
I1023 12:10:13.004413  4594 net.cpp:406] Convolution20 <- Eltwise8_penlu17_0_split_0
I1023 12:10:13.004418  4594 net.cpp:380] Convolution20 -> Convolution20
I1023 12:10:13.006595  4594 net.cpp:122] Setting up Convolution20
I1023 12:10:13.006604  4594 net.cpp:129] Top shape: 8 64 56 56 (1605632)
I1023 12:10:13.006606  4594 net.cpp:137] Memory required for data: 1636139104
I1023 12:10:13.006611  4594 layer_factory.hpp:77] Creating layer BatchNorm20
I1023 12:10:13.006618  4594 net.cpp:84] Creating Layer BatchNorm20
I1023 12:10:13.006619  4594 net.cpp:406] BatchNorm20 <- Convolution20
I1023 12:10:13.006624  4594 net.cpp:367] BatchNorm20 -> Convolution20 (in-place)
I1023 12:10:13.006795  4594 net.cpp:122] Setting up BatchNorm20
I1023 12:10:13.006799  4594 net.cpp:129] Top shape: 8 64 56 56 (1605632)
I1023 12:10:13.006801  4594 net.cpp:137] Memory required for data: 1642561632
I1023 12:10:13.006806  4594 layer_factory.hpp:77] Creating layer Scale20
I1023 12:10:13.006811  4594 net.cpp:84] Creating Layer Scale20
I1023 12:10:13.006814  4594 net.cpp:406] Scale20 <- Convolution20
I1023 12:10:13.006817  4594 net.cpp:367] Scale20 -> Convolution20 (in-place)
I1023 12:10:13.006850  4594 layer_factory.hpp:77] Creating layer Scale20
I1023 12:10:13.006953  4594 net.cpp:122] Setting up Scale20
I1023 12:10:13.006956  4594 net.cpp:129] Top shape: 8 64 56 56 (1605632)
I1023 12:10:13.006958  4594 net.cpp:137] Memory required for data: 1648984160
I1023 12:10:13.006963  4594 layer_factory.hpp:77] Creating layer penlu18
I1023 12:10:13.006968  4594 net.cpp:84] Creating Layer penlu18
I1023 12:10:13.006971  4594 net.cpp:406] penlu18 <- Convolution20
I1023 12:10:13.006974  4594 net.cpp:367] penlu18 -> Convolution20 (in-place)
I1023 12:10:13.007748  4594 net.cpp:122] Setting up penlu18
I1023 12:10:13.007757  4594 net.cpp:129] Top shape: 8 64 56 56 (1605632)
I1023 12:10:13.007760  4594 net.cpp:137] Memory required for data: 1655406688
I1023 12:10:13.007764  4594 layer_factory.hpp:77] Creating layer Convolution21
I1023 12:10:13.007771  4594 net.cpp:84] Creating Layer Convolution21
I1023 12:10:13.007773  4594 net.cpp:406] Convolution21 <- Convolution20
I1023 12:10:13.007781  4594 net.cpp:380] Convolution21 -> Convolution21
I1023 12:10:13.009613  4594 net.cpp:122] Setting up Convolution21
I1023 12:10:13.009624  4594 net.cpp:129] Top shape: 8 64 56 56 (1605632)
I1023 12:10:13.009627  4594 net.cpp:137] Memory required for data: 1661829216
I1023 12:10:13.009631  4594 layer_factory.hpp:77] Creating layer BatchNorm21
I1023 12:10:13.009636  4594 net.cpp:84] Creating Layer BatchNorm21
I1023 12:10:13.009639  4594 net.cpp:406] BatchNorm21 <- Convolution21
I1023 12:10:13.009644  4594 net.cpp:367] BatchNorm21 -> Convolution21 (in-place)
I1023 12:10:13.009810  4594 net.cpp:122] Setting up BatchNorm21
I1023 12:10:13.009815  4594 net.cpp:129] Top shape: 8 64 56 56 (1605632)
I1023 12:10:13.009817  4594 net.cpp:137] Memory required for data: 1668251744
I1023 12:10:13.009822  4594 layer_factory.hpp:77] Creating layer Scale21
I1023 12:10:13.009826  4594 net.cpp:84] Creating Layer Scale21
I1023 12:10:13.009829  4594 net.cpp:406] Scale21 <- Convolution21
I1023 12:10:13.009832  4594 net.cpp:367] Scale21 -> Convolution21 (in-place)
I1023 12:10:13.009865  4594 layer_factory.hpp:77] Creating layer Scale21
I1023 12:10:13.009975  4594 net.cpp:122] Setting up Scale21
I1023 12:10:13.009979  4594 net.cpp:129] Top shape: 8 64 56 56 (1605632)
I1023 12:10:13.009982  4594 net.cpp:137] Memory required for data: 1674674272
I1023 12:10:13.009985  4594 layer_factory.hpp:77] Creating layer Eltwise9
I1023 12:10:13.009990  4594 net.cpp:84] Creating Layer Eltwise9
I1023 12:10:13.009992  4594 net.cpp:406] Eltwise9 <- Eltwise8_penlu17_0_split_1
I1023 12:10:13.009995  4594 net.cpp:406] Eltwise9 <- Convolution21
I1023 12:10:13.009999  4594 net.cpp:380] Eltwise9 -> Eltwise9
I1023 12:10:13.010018  4594 net.cpp:122] Setting up Eltwise9
I1023 12:10:13.010022  4594 net.cpp:129] Top shape: 8 64 56 56 (1605632)
I1023 12:10:13.010025  4594 net.cpp:137] Memory required for data: 1681096800
I1023 12:10:13.010026  4594 layer_factory.hpp:77] Creating layer penlu19
I1023 12:10:13.010032  4594 net.cpp:84] Creating Layer penlu19
I1023 12:10:13.010035  4594 net.cpp:406] penlu19 <- Eltwise9
I1023 12:10:13.010038  4594 net.cpp:367] penlu19 -> Eltwise9 (in-place)
I1023 12:10:13.010262  4594 net.cpp:122] Setting up penlu19
I1023 12:10:13.010267  4594 net.cpp:129] Top shape: 8 64 56 56 (1605632)
I1023 12:10:13.010268  4594 net.cpp:137] Memory required for data: 1687519328
I1023 12:10:13.010272  4594 layer_factory.hpp:77] Creating layer Pooling1
I1023 12:10:13.010277  4594 net.cpp:84] Creating Layer Pooling1
I1023 12:10:13.010279  4594 net.cpp:406] Pooling1 <- Eltwise9
I1023 12:10:13.010282  4594 net.cpp:380] Pooling1 -> Pooling1
I1023 12:10:13.010424  4594 net.cpp:122] Setting up Pooling1
I1023 12:10:13.010430  4594 net.cpp:129] Top shape: 8 64 1 1 (512)
I1023 12:10:13.010433  4594 net.cpp:137] Memory required for data: 1687521376
I1023 12:10:13.010435  4594 layer_factory.hpp:77] Creating layer InnerProduct1
I1023 12:10:13.010440  4594 net.cpp:84] Creating Layer InnerProduct1
I1023 12:10:13.010442  4594 net.cpp:406] InnerProduct1 <- Pooling1
I1023 12:10:13.010447  4594 net.cpp:380] InnerProduct1 -> InnerProduct1
I1023 12:10:13.010560  4594 net.cpp:122] Setting up InnerProduct1
I1023 12:10:13.010563  4594 net.cpp:129] Top shape: 8 10 (80)
I1023 12:10:13.010565  4594 net.cpp:137] Memory required for data: 1687521696
I1023 12:10:13.010570  4594 layer_factory.hpp:77] Creating layer InnerProduct1_InnerProduct1_0_split
I1023 12:10:13.010573  4594 net.cpp:84] Creating Layer InnerProduct1_InnerProduct1_0_split
I1023 12:10:13.010576  4594 net.cpp:406] InnerProduct1_InnerProduct1_0_split <- InnerProduct1
I1023 12:10:13.010579  4594 net.cpp:380] InnerProduct1_InnerProduct1_0_split -> InnerProduct1_InnerProduct1_0_split_0
I1023 12:10:13.010583  4594 net.cpp:380] InnerProduct1_InnerProduct1_0_split -> InnerProduct1_InnerProduct1_0_split_1
I1023 12:10:13.010613  4594 net.cpp:122] Setting up InnerProduct1_InnerProduct1_0_split
I1023 12:10:13.010618  4594 net.cpp:129] Top shape: 8 10 (80)
I1023 12:10:13.010620  4594 net.cpp:129] Top shape: 8 10 (80)
I1023 12:10:13.010622  4594 net.cpp:137] Memory required for data: 1687522336
I1023 12:10:13.010624  4594 layer_factory.hpp:77] Creating layer SoftmaxWithLoss1
I1023 12:10:13.010629  4594 net.cpp:84] Creating Layer SoftmaxWithLoss1
I1023 12:10:13.010632  4594 net.cpp:406] SoftmaxWithLoss1 <- InnerProduct1_InnerProduct1_0_split_0
I1023 12:10:13.010634  4594 net.cpp:406] SoftmaxWithLoss1 <- Data2_Data1_1_split_0
…
