…
I1023 09:39:14.093375  4519 net.cpp:294] The NetState phase (0) differed from the phase (1) specified by a rule in layer Accuracy1
I1023 09:39:14.093858  4519 net.cpp:51] Initializing net from parameters: 
name: "resnet"
state {
  phase: TRAIN
  level: 0
  stage: ""
}
layer {
  name: "Data1"
  type: "Data"
  top: "Data1"
  top: "Data2"
  include {
    phase: TRAIN
  }
  transform_param {
    mirror: true
    crop_size: 224
    mean_file: "/home/x306/caffe/xn/English_orange/data/orange1_mean.binaryproto"
  }
  data_param {
    source: "/home/x306/caffe/xn/English_orange/data/train1_lmdb"
    batch_size: 8
    backend: LMDB
  }
}
layer {
  name: "Convolution1"
  type: "Convolution"
  bottom: "Data1"
  top: "Convolution1"
  param {
    lr_mult: 1
    decay_mult: 1
  }
  param {
    lr_mult: 2
    decay_mult: 0
  }
  convolution_param {
    num_output: 16
    pad: 1
    kernel_size: 3
    stride: 1
    weight_filler {
      type: "gaussian"
      std: 0.118
    }
    bias_filler {
      type: "constant"
      value: 0
    }
  }
}
layer {
  name: "BatchNorm1"
  type: "BatchNorm"
  bottom: "Convolution1"
  top: "Convolution1"
  param {
    lr_mult: 0
    decay_mult: 0
  }
  param {
    lr_mult: 0
    decay_mult: 0
  }
  param {
    lr_mult: 0
    decay_mult: 0
  }
}
layer {
  name: "Scale1"
  type: "Scale"
  bottom: "Convolution1"
  top: "Convolution1"
  scale_param {
    bias_term: true
  }
}
layer {
  name: "penlu1"
  type: "PENLU"
  bottom: "Convolution1"
  top: "Convolution1"
  param {
    lr_mult: 2
    decay_mult: 2
  }
  param {
    lr_mult: 2
    decay_mult: 2
  }
  param {
    lr_mult: 0
    decay_mult: 0
  }
  penlu_param {
    alpha_filler {
      type: "constant"
      value: 1
    }
    beta_filler {
      type: "constant"
      value: 1
    }
    eta_filler {
      type: "constant"
      value: 1
    }
  }
}
layer {
  name: "Convolution2"
  type: "Convolution"
  bottom: "Convolution1"
  top: "Convolution2"
  param {
    lr_mult: 1
    decay_mult: 1
  }
  param {
    lr_mult: 2
    decay_mult: 0
  }
  convolution_param {
    num_output: 16
    pad: 1
    kernel_size: 3
    stride: 1
    weight_filler {
      type: "gaussian"
      std: 0.118
    }
    bias_filler {
      type: "constant"
      value: 0
    }
  }
}
layer {
  name: "BatchNorm2"
  type: "BatchNorm"
  bottom: "Convolution2"
  top: "Convolution2"
  param {
    lr_mult: 0
    decay_mult: 0
  }
  param {
    lr_mult: 0
    decay_mult: 0
  }
  param {
    lr_mult: 0
    decay_mult: 0
  }
}
layer {
  name: "Scale2"
  type: "Scale"
  bottom: "Convolution2"
  top: "Convolution2"
  scale_param {
    bias_term: true
  }
}
layer {
  name: "penlu2"
  type: "PENLU"
  bottom: "Convolution2"
  top: "Convolution2"
  param {
    lr_mult: 2
    decay_mult: 2
  }
  param {
    lr_mult: 2
    decay_mult: 2
  }
  param {
    lr_mult: 0
    decay_mult: 0
  }
  penlu_param {
    alpha_filler {
      type: "constant"
      value: 1
    }
    beta_filler {
      type: "constant"
      value: 1
    }
    eta_filler {
      type: "constant"
      value: 1
    }
  }
}
layer {
  name: "Convolution3"
  type: "Convolution"
  bottom: "Convolution2"
  top: "Convolution3"
  param {
    lr_mult: 1
    decay_mult: 1
  }
  param {
    lr_mult: 2
    decay_mult: 0
  }
  convolution_param {
    num_output: 16
    pad: 1
    kernel_size: 3
    stride: 1
    weight_filler {
      type: "gaussian"
      std: 0.118
    }
    bias_filler {
      type: "constant"
      value: 0
    }
  }
}
layer {
  name: "BatchNorm3"
  type: "BatchNorm"
  bottom: "Convolution3"
  top: "Convolution3"
  param {
    lr_mult: 0
    decay_mult: 0
  }
  param {
    lr_mult: 0
    decay_mult: 0
  }
  param {
    lr_mult: 0
    decay_mult: 0
  }
}
layer {
  name: "Scale3"
  type: "Scale"
  bottom: "Convolution3"
  top: "Convolution3"
  scale_param {
    bias_term: true
  }
}
layer {
  name: "Eltwise1"
  type: "Eltwise"
  bottom: "Convolution1"
  bottom: "Convolution3"
  top: "Eltwise1"
  eltwise_param {
    operation: SUM
  }
}
layer {
  name: "penlu3"
  type: "PENLU"
  bottom: "Eltwise1"
  top: "Eltwise1"
  param {
    lr_mult: 2
    decay_mult: 2
  }
  param {
    lr_mult: 2
    decay_mult: 2
  }
  param {
    lr_mult: 0
    decay_mult: 0
  }
  penlu_param {
    alpha_filler {
      type: "constant"
      value: 1
    }
    beta_filler {
      type: "constant"
      value: 1
    }
    eta_filler {
      type: "constant"
      value: 1
    }
  }
}
layer {
  name: "Convolution4"
  type: "Convolution"
  bottom: "Eltwise1"
  top: "Convolution4"
  param {
    lr_mult: 1
    decay_mult: 1
  }
  param {
    lr_mult: 2
    decay_mult: 0
  }
  convolution_param {
    num_output: 16
    pad: 1
    kernel_size: 3
    stride: 1
    weight_filler {
      type: "gaussian"
      std: 0.118
    }
    bias_filler {
      type: "constant"
      value: 0
    }
  }
}
layer {
  name: "BatchNorm4"
  type: "BatchNorm"
  bottom: "Convolution4"
  top: "Convolution4"
  param {
    lr_mult: 0
    decay_mult: 0
  }
  param {
    lr_mult: 0
    decay_mult: 0
  }
  param {
    lr_mult: 0
    decay_mult: 0
  }
}
layer {
  name: "Scale4"
  type: "Scale"
  bottom: "Convolution4"
  top: "Convolution4"
  scale_param {
    bias_term: true
  }
}
layer {
  name: "penlu4"
  type: "PENLU"
  bottom: "Convolution4"
  top: "Convolution4"
  param {
    lr_mult: 2
    decay_mult: 2
  }
  param {
    lr_mult: 2
    decay_mult: 2
  }
  param {
    lr_mult: 0
    decay_mult: 0
  }
  penlu_param {
    alpha_filler {
      type: "constant"
      value: 1
    }
    beta_filler {
      type: "constant"
      value: 1
    }
    eta_filler {
      type: "constant"
      value: 1
    }
  }
}
layer {
  name: "Convolution5"
  type: "Convolution"
  bottom: "Convolution4"
  top: "Convolution5"
  param {
    lr_mult: 1
    decay_mult: 1
  }
  param {
    lr_mult: 2
    decay_mult: 0
  }
  convolution_param {
    num_output: 16
    pad: 1
    kernel_size: 3
    stride: 1
    weight_filler {
      type: "gaussian"
      std: 0.118
    }
    bias_filler {
      type: "constant"
      value: 0
    }
  }
}
layer {
  name: "BatchNorm5"
  type: "BatchNorm"
  bottom: "Convolution5"
  top: "Convolution5"
  param {
    lr_mult: 0
    decay_mult: 0
  }
  param {
    lr_mult: 0
    decay_mult: 0
  }
  param {
    lr_mult: 0
    decay_mult: 0
  }
}
layer {
  name: "Scale5"
  type: "Scale"
  bottom: "Convolution5"
  top: "Convolution5"
  scale_param {
    bias_term: true
  }
}
layer {
  name: "Eltwise2"
  type: "Eltwise"
  bottom: "Eltwise1"
  bottom: "Convolution5"
  top: "Eltwise2"
  eltwise_param {
    operation: SUM
  }
}
layer {
  name: "penlu5"
  type: "PENLU"
  bottom: "Eltwise2"
  top: "Eltwise2"
  param {
    lr_mult: 2
    decay_mult: 2
  }
  param {
    lr_mult: 2
    decay_mult: 2
  }
  param {
    lr_mult: 0
    decay_mult: 0
  }
  penlu_param {
    alpha_filler {
      type: "constant"
      value: 1
    }
    beta_filler {
      type: "constant"
      value: 1
    }
    eta_filler {
      type: "constant"
      value: 1
    }
  }
}
layer {
  name: "Convolution6"
  type: "Convolution"
  bottom: "Eltwise2"
  top: "Convolution6"
  param {
    lr_mult: 1
    decay_mult: 1
  }
  param {
    lr_mult: 2
    decay_mult: 0
  }
  convolution_param {
    num_output: 16
    pad: 1
    kernel_size: 3
    stride: 1
    weight_filler {
      type: "gaussian"
      std: 0.118
    }
    bias_filler {
      type: "constant"
      value: 0
    }
  }
}
layer {
  name: "BatchNorm6"
  type: "BatchNorm"
  bottom: "Convolution6"
  top: "Convolution6"
  param {
    lr_mult: 0
    decay_mult: 0
  }
  param {
    lr_mult: 0
    decay_mult: 0
  }
  param {
    lr_mult: 0
    decay_mult: 0
  }
}
layer {
  name: "Scale6"
  type: "Scale"
  bottom: "Convolution6"
  top: "Convolution6"
  scale_param {
    bias_term: true
  }
}
layer {
  name: "penlu6"
  type: "PENLU"
  bottom: "Convolution6"
  top: "Convolution6"
  param {
    lr_mult: 2
    decay_mult: 2
  }
  param {
    lr_mult: 2
    decay_mult: 2
  }
  param {
    lr_mult: 0
    decay_mult: 0
  }
  penlu_param {
    alpha_filler {
      type: "constant"
      value: 1
    }
    beta_filler {
      type: "constant"
      value: 1
    }
    eta_filler {
      type: "constant"
      value: 1
    }
  }
}
layer {
  name: "Convolution7"
  type: "Convolution"
  bottom: "Convolution6"
  top: "Convolution7"
  param {
    lr_mult: 1
    decay_mult: 1
  }
  param {
    lr_mult: 2
    decay_mult: 0
  }
  convolution_param {
    num_output: 16
    pad: 1
    kernel_size: 3
    stride: 1
    weight_filler {
      type: "gaussian"
      std: 0.118
    }
    bias_filler {
      type: "constant"
      value: 0
    }
  }
}
layer {
  name: "BatchNorm7"
  type: "BatchNorm"
  bottom: "Convolution7"
  top: "Convolution7"
  param {
    lr_mult: 0
    decay_mult: 0
  }
  param {
    lr_mult: 0
    decay_mult: 0
  }
  param {
    lr_mult: 0
    decay_mult: 0
  }
}
layer {
  name: "Scale7"
  type: "Scale"
  bottom: "Convolution7"
  top: "Convolution7"
  scale_param {
    bias_term: true
  }
}
layer {
  name: "Eltwise3"
  type: "Eltwise"
  bottom: "Eltwise2"
  bottom: "Convolution7"
  top: "Eltwise3"
  eltwise_param {
    operation: SUM
  }
}
layer {
  name: "penlu7"
  type: "PENLU"
  bottom: "Eltwise3"
  top: "Eltwise3"
  param {
    lr_mult: 2
    decay_mult: 2
  }
  param {
    lr_mult: 2
    decay_mult: 2
  }
  param {
    lr_mult: 0
    decay_mult: 0
  }
  penlu_param {
    alpha_filler {
      type: "constant"
      value: 1
    }
    beta_filler {
      type: "constant"
      value: 1
    }
    eta_filler {
      type: "constant"
      value: 1
    }
  }
}
layer {
  name: "Convolution8"
  type: "Convolution"
  bottom: "Eltwise3"
  top: "Convolution8"
  param {
    lr_mult: 1
    decay_mult: 1
  }
  param {
    lr_mult: 2
    decay_mult: 0
  }
  convolution_param {
    num_output: 32
    pad: 0
    kernel_size: 1
    stride: 2
    weight_filler {
      type: "gaussian"
      std: 0.25
    }
    bias_filler {
      type: "constant"
      value: 0
    }
  }
}
layer {
  name: "BatchNorm8"
  type: "BatchNorm"
  bottom: "Convolution8"
  top: "Convolution8"
  param {
    lr_mult: 0
    decay_mult: 0
  }
  param {
    lr_mult: 0
    decay_mult: 0
  }
  param {
    lr_mult: 0
    decay_mult: 0
  }
}
layer {
  name: "Scale8"
  type: "Scale"
  bottom: "Convolution8"
  top: "Convolution8"
  scale_param {
    bias_term: true
  }
}
layer {
  name: "Convolution9"
  type: "Convolution"
  bottom: "Eltwise3"
  top: "Convolution9"
  param {
    lr_mult: 1
    decay_mult: 1
  }
  param {
    lr_mult: 2
    decay_mult: 0
  }
  convolution_param {
    num_output: 32
    pad: 1
    kernel_size: 3
    stride: 2
    weight_filler {
      type: "gaussian"
      std: 0.083
    }
    bias_filler {
      type: "constant"
      value: 0
    }
  }
}
layer {
  name: "BatchNorm9"
  type: "BatchNorm"
  bottom: "Convolution9"
  top: "Convolution9"
  param {
    lr_mult: 0
    decay_mult: 0
  }
  param {
    lr_mult: 0
    decay_mult: 0
  }
  param {
    lr_mult: 0
    decay_mult: 0
  }
}
layer {
  name: "Scale9"
  type: "Scale"
  bottom: "Convolution9"
  top: "Convolution9"
  scale_param {
    bias_term: true
  }
}
layer {
  name: "penlu8"
  type: "PENLU"
  bottom: "Convolution9"
  top: "Convolution9"
  param {
    lr_mult: 2
    decay_mult: 2
  }
  param {
    lr_mult: 2
    decay_mult: 2
  }
  param {
    lr_mult: 0
    decay_mult: 0
  }
  penlu_param {
    alpha_filler {
      type: "constant"
      value: 1
    }
    beta_filler {
      type: "constant"
      value: 1
    }
    eta_filler {
      type: "constant"
      value: 1
    }
  }
}
layer {
  name: "Convolution10"
  type: "Convolution"
  bottom: "Convolution9"
  top: "Convolution10"
  param {
    lr_mult: 1
    decay_mult: 1
  }
  param {
    lr_mult: 2
    decay_mult: 0
  }
  convolution_param {
    num_output: 32
    pad: 1
    kernel_size: 3
    stride: 1
    weight_filler {
      type: "gaussian"
      std: 0.083
    }
    bias_filler {
      type: "constant"
      value: 0
    }
  }
}
layer {
  name: "BatchNorm10"
  type: "BatchNorm"
  bottom: "Convolution10"
  top: "Convolution10"
  param {
    lr_mult: 0
    decay_mult: 0
  }
  param {
    lr_mult: 0
    decay_mult: 0
  }
  param {
    lr_mult: 0
    decay_mult: 0
  }
}
layer {
  name: "Scale10"
  type: "Scale"
  bottom: "Convolution10"
  top: "Convolution10"
  scale_param {
    bias_term: true
  }
}
layer {
  name: "Eltwise4"
  type: "Eltwise"
  bottom: "Convolution8"
  bottom: "Convolution10"
  top: "Eltwise4"
  eltwise_param {
    operation: SUM
  }
}
layer {
  name: "penlu9"
  type: "PENLU"
  bottom: "Eltwise4"
  top: "Eltwise4"
  param {
    lr_mult: 2
    decay_mult: 2
  }
  param {
    lr_mult: 2
    decay_mult: 2
  }
  param {
    lr_mult: 0
    decay_mult: 0
  }
  penlu_param {
    alpha_filler {
      type: "constant"
      value: 1
    }
    beta_filler {
      type: "constant"
      value: 1
    }
    eta_filler {
      type: "constant"
      value: 1
    }
  }
}
layer {
  name: "Convolution11"
  type: "Convolution"
  bottom: "Eltwise4"
  top: "Convolution11"
  param {
    lr_mult: 1
    decay_mult: 1
  }
  param {
    lr_mult: 2
    decay_mult: 0
  }
  convolution_param {
    num_output: 32
    pad: 1
    kernel_size: 3
    stride: 1
    weight_filler {
      type: "gaussian"
      std: 0.083
    }
    bias_filler {
      type: "constant"
      value: 0
    }
  }
}
layer {
  name: "BatchNorm11"
  type: "BatchNorm"
  bottom: "Convolution11"
  top: "Convolution11"
  param {
    lr_mult: 0
    decay_mult: 0
  }
  param {
    lr_mult: 0
    decay_mult: 0
  }
  param {
    lr_mult: 0
    decay_mult: 0
  }
}
layer {
  name: "Scale11"
  type: "Scale"
  bottom: "Convolution11"
  top: "Convolution11"
  scale_param {
    bias_term: true
  }
}
layer {
  name: "penlu10"
  type: "PENLU"
  bottom: "Convolution11"
  top: "Convolution11"
  param {
    lr_mult: 2
    decay_mult: 2
  }
  param {
    lr_mult: 2
    decay_mult: 2
  }
  param {
    lr_mult: 0
    decay_mult: 0
  }
  penlu_param {
    alpha_filler {
      type: "constant"
      value: 1
    }
    beta_filler {
      type: "constant"
      value: 1
    }
    eta_filler {
      type: "constant"
      value: 1
    }
  }
}
layer {
  name: "Convolution12"
  type: "Convolution"
  bottom: "Convolution11"
  top: "Convolution12"
  param {
    lr_mult: 1
    decay_mult: 1
  }
  param {
    lr_mult: 2
    decay_mult: 0
  }
  convolution_param {
    num_output: 32
    pad: 1
    kernel_size: 3
    stride: 1
    weight_filler {
      type: "gaussian"
      std: 0.083
    }
    bias_filler {
      type: "constant"
      value: 0
    }
  }
}
layer {
  name: "BatchNorm12"
  type: "BatchNorm"
  bottom: "Convolution12"
  top: "Convolution12"
  param {
    lr_mult: 0
    decay_mult: 0
  }
  param {
    lr_mult: 0
    decay_mult: 0
  }
  param {
    lr_mult: 0
    decay_mult: 0
  }
}
layer {
  name: "Scale12"
  type: "Scale"
  bottom: "Convolution12"
  top: "Convolution12"
  scale_param {
    bias_term: true
  }
}
layer {
  name: "Eltwise5"
  type: "Eltwise"
  bottom: "Eltwise4"
  bottom: "Convolution12"
  top: "Eltwise5"
  eltwise_param {
    operation: SUM
  }
}
layer {
  name: "penlu11"
  type: "PENLU"
  bottom: "Eltwise5"
  top: "Eltwise5"
  param {
    lr_mult: 2
    decay_mult: 2
  }
  param {
    lr_mult: 2
    decay_mult: 2
  }
  param {
    lr_mult: 0
    decay_mult: 0
  }
  penlu_param {
    alpha_filler {
      type: "constant"
      value: 1
    }
    beta_filler {
      type: "constant"
      value: 1
    }
    eta_filler {
      type: "constant"
      value: 1
    }
  }
}
layer {
  name: "Convolution13"
  type: "Convolution"
  bottom: "Eltwise5"
  top: "Convolution13"
  param {
    lr_mult: 1
    decay_mult: 1
  }
  param {
    lr_mult: 2
    decay_mult: 0
  }
  convolution_param {
    num_output: 32
    pad: 1
    kernel_size: 3
    stride: 1
    weight_filler {
      type: "gaussian"
      std: 0.083
    }
    bias_filler {
      type: "constant"
      value: 0
    }
  }
}
layer {
  name: "BatchNorm13"
  type: "BatchNorm"
  bottom: "Convolution13"
  top: "Convolution13"
  param {
    lr_mult: 0
    decay_mult: 0
  }
  param {
    lr_mult: 0
    decay_mult: 0
  }
  param {
    lr_mult: 0
    decay_mult: 0
  }
}
layer {
  name: "Scale13"
  type: "Scale"
  bottom: "Convolution13"
  top: "Convolution13"
  scale_param {
    bias_term: true
  }
}
layer {
  name: "penlu12"
  type: "PENLU"
  bottom: "Convolution13"
  top: "Convolution13"
  param {
    lr_mult: 2
    decay_mult: 2
  }
  param {
    lr_mult: 2
    decay_mult: 2
  }
  param {
    lr_mult: 0
    decay_mult: 0
  }
  penlu_param {
    alpha_filler {
      type: "constant"
      value: 1
    }
    beta_filler {
      type: "constant"
      value: 1
    }
    eta_filler {
      type: "constant"
      value: 1
    }
  }
}
layer {
  name: "Convolution14"
  type: "Convolution"
  bottom: "Convolution13"
  top: "Convolution14"
  param {
    lr_mult: 1
    decay_mult: 1
  }
  param {
    lr_mult: 2
    decay_mult: 0
  }
  convolution_param {
    num_output: 32
    pad: 1
    kernel_size: 3
    stride: 1
    weight_filler {
      type: "gaussian"
      std: 0.083
    }
    bias_filler {
      type: "constant"
      value: 0
    }
  }
}
layer {
  name: "BatchNorm14"
  type: "BatchNorm"
  bottom: "Convolution14"
  top: "Convolution14"
  param {
    lr_mult: 0
    decay_mult: 0
  }
  param {
    lr_mult: 0
    decay_mult: 0
  }
  param {
    lr_mult: 0
    decay_mult: 0
  }
}
layer {
  name: "Scale14"
  type: "Scale"
  bottom: "Convolution14"
  top: "Convolution14"
  scale_param {
    bias_term: true
  }
}
layer {
  name: "Eltwise6"
  type: "Eltwise"
  bottom: "Eltwise5"
  bottom: "Convolution14"
  top: "Eltwise6"
  eltwise_param {
    operation: SUM
  }
}
layer {
  name: "penlu13"
  type: "PENLU"
  bottom: "Eltwise6"
  top: "Eltwise6"
  param {
    lr_mult: 2
    decay_mult: 2
  }
  param {
    lr_mult: 2
    decay_mult: 2
  }
  param {
    lr_mult: 0
    decay_mult: 0
  }
  penlu_param {
    alpha_filler {
      type: "constant"
      value: 1
    }
    beta_filler {
      type: "constant"
      value: 1
    }
    eta_filler {
      type: "constant"
      value: 1
    }
  }
}
layer {
  name: "Convolution15"
  type: "Convolution"
  bottom: "Eltwise6"
  top: "Convolution15"
  param {
    lr_mult: 1
    decay_mult: 1
  }
  param {
    lr_mult: 2
    decay_mult: 0
  }
  convolution_param {
    num_output: 64
    pad: 0
    kernel_size: 1
    stride: 2
    weight_filler {
      type: "gaussian"
      std: 0.17677669
    }
    bias_filler {
      type: "constant"
      value: 0
    }
  }
}
layer {
  name: "BatchNorm15"
  type: "BatchNorm"
  bottom: "Convolution15"
  top: "Convolution15"
  param {
    lr_mult: 0
    decay_mult: 0
  }
  param {
    lr_mult: 0
    decay_mult: 0
  }
  param {
    lr_mult: 0
    decay_mult: 0
  }
}
layer {
  name: "Scale15"
  type: "Scale"
  bottom: "Convolution15"
  top: "Convolution15"
  scale_param {
    bias_term: true
  }
}
layer {
  name: "Convolution16"
  type: "Convolution"
  bottom: "Eltwise6"
  top: "Convolution16"
  param {
    lr_mult: 1
    decay_mult: 1
  }
  param {
    lr_mult: 2
    decay_mult: 0
  }
  convolution_param {
    num_output: 64
    pad: 1
    kernel_size: 3
    stride: 2
    weight_filler {
      type: "gaussian"
      std: 0.059
    }
    bias_filler {
      type: "constant"
      value: 0
    }
  }
}
layer {
  name: "BatchNorm16"
  type: "BatchNorm"
  bottom: "Convolution16"
  top: "Convolution16"
  param {
    lr_mult: 0
    decay_mult: 0
  }
  param {
    lr_mult: 0
    decay_mult: 0
  }
  param {
    lr_mult: 0
    decay_mult: 0
  }
}
layer {
  name: "Scale16"
  type: "Scale"
  bottom: "Convolution16"
  top: "Convolution16"
  scale_param {
    bias_term: true
  }
}
layer {
  name: "penlu14"
  type: "PENLU"
  bottom: "Convolution16"
  top: "Convolution16"
  param {
    lr_mult: 2
    decay_mult: 2
  }
  param {
    lr_mult: 2
    decay_mult: 2
  }
  param {
    lr_mult: 0
    decay_mult: 0
  }
  penlu_param {
    alpha_filler {
      type: "constant"
      value: 1
    }
    beta_filler {
      type: "constant"
      value: 1
    }
    eta_filler {
      type: "constant"
      value: 1
    }
  }
}
layer {
  name: "Convolution17"
  type: "Convolution"
  bottom: "Convolution16"
  top: "Convolution17"
  param {
    lr_mult: 1
    decay_mult: 1
  }
  param {
    lr_mult: 2
    decay_mult: 0
  }
  convolution_param {
    num_output: 64
    pad: 1
    kernel_size: 3
    stride: 1
    weight_filler {
      type: "gaussian"
      std: 0.059
    }
    bias_filler {
      type: "constant"
      value: 0
    }
  }
}
layer {
  name: "BatchNorm17"
  type: "BatchNorm"
  bottom: "Convolution17"
  top: "Convolution17"
  param {
    lr_mult: 0
    decay_mult: 0
  }
  param {
    lr_mult: 0
    decay_mult: 0
  }
  param {
    lr_mult: 0
    decay_mult: 0
  }
}
layer {
  name: "Scale17"
  type: "Scale"
  bottom: "Convolution17"
  top: "Convolution17"
  scale_param {
    bias_term: true
  }
}
layer {
  name: "Eltwise7"
  type: "Eltwise"
  bottom: "Convolution15"
  bottom: "Convolution17"
  top: "Eltwise7"
  eltwise_param {
    operation: SUM
  }
}
layer {
  name: "penlu15"
  type: "PENLU"
  bottom: "Eltwise7"
  top: "Eltwise7"
  param {
    lr_mult: 2
    decay_mult: 2
  }
  param {
    lr_mult: 2
    decay_mult: 2
  }
  param {
    lr_mult: 0
    decay_mult: 0
  }
  penlu_param {
    alpha_filler {
      type: "constant"
      value: 1
    }
    beta_filler {
      type: "constant"
      value: 1
    }
    eta_filler {
      type: "constant"
      value: 1
    }
  }
}
layer {
  name: "Convolution18"
  type: "Convolution"
  bottom: "Eltwise7"
  top: "Convolution18"
  param {
    lr_mult: 1
    decay_mult: 1
  }
  param {
    lr_mult: 2
    decay_mult: 0
  }
  convolution_param {
    num_output: 64
    pad: 1
    kernel_size: 3
    stride: 1
    weight_filler {
      type: "gaussian"
      std: 0.059
    }
    bias_filler {
      type: "constant"
      value: 0
    }
  }
}
layer {
  name: "BatchNorm18"
  type: "BatchNorm"
  bottom: "Convolution18"
  top: "Convolution18"
  param {
    lr_mult: 0
    decay_mult: 0
  }
  param {
    lr_mult: 0
    decay_mult: 0
  }
  param {
    lr_mult: 0
    decay_mult: 0
  }
}
layer {
  name: "Scale18"
  type: "Scale"
  bottom: "Convolution18"
  top: "Convolution18"
  scale_param {
    bias_term: true
  }
}
layer {
  name: "penlu16"
  type: "PENLU"
  bottom: "Convolution18"
  top: "Convolution18"
  param {
    lr_mult: 2
    decay_mult: 2
  }
  param {
    lr_mult: 2
    decay_mult: 2
  }
  param {
    lr_mult: 0
    decay_mult: 0
  }
  penlu_param {
    alpha_filler {
      type: "constant"
      value: 1
    }
    beta_filler {
      type: "constant"
      value: 1
    }
    eta_filler {
      type: "constant"
      value: 1
    }
  }
}
layer {
  name: "Convolution19"
  type: "Convolution"
  bottom: "Convolution18"
  top: "Convolution19"
  param {
    lr_mult: 1
    decay_mult: 1
  }
  param {
    lr_mult: 2
    decay_mult: 0
  }
  convolution_param {
    num_output: 64
    pad: 1
    kernel_size: 3
    stride: 1
    weight_filler {
      type: "gaussian"
      std: 0.059
    }
    bias_filler {
      type: "constant"
      value: 0
    }
  }
}
layer {
  name: "BatchNorm19"
  type: "BatchNorm"
  bottom: "Convolution19"
  top: "Convolution19"
  param {
    lr_mult: 0
    decay_mult: 0
  }
  param {
    lr_mult: 0
    decay_mult: 0
  }
  param {
    lr_mult: 0
    decay_mult: 0
  }
}
layer {
  name: "Scale19"
  type: "Scale"
  bottom: "Convolution19"
  top: "Convolution19"
  scale_param {
    bias_term: true
  }
}
layer {
  name: "Eltwise8"
  type: "Eltwise"
  bottom: "Eltwise7"
  bottom: "Convolution19"
  top: "Eltwise8"
  eltwise_param {
    operation: SUM
  }
}
layer {
  name: "penlu17"
  type: "PENLU"
  bottom: "Eltwise8"
  top: "Eltwise8"
  param {
    lr_mult: 2
    decay_mult: 2
  }
  param {
    lr_mult: 2
    decay_mult: 2
  }
  param {
    lr_mult: 0
    decay_mult: 0
  }
  penlu_param {
    alpha_filler {
      type: "constant"
      value: 1
    }
    beta_filler {
      type: "constant"
      value: 1
    }
    eta_filler {
      type: "constant"
      value: 1
    }
  }
}
layer {
  name: "Convolution20"
  type: "Convolution"
  bottom: "Eltwise8"
  top: "Convolution20"
  param {
    lr_mult: 1
    decay_mult: 1
  }
  param {
    lr_mult: 2
    decay_mult: 0
  }
  convolution_param {
    num_output: 64
    pad: 1
    kernel_size: 3
    stride: 1
    weight_filler {
      type: "gaussian"
      std: 0.059
    }
    bias_filler {
      type: "constant"
      value: 0
    }
  }
}
layer {
  name: "BatchNorm20"
  type: "BatchNorm"
  bottom: "Convolution20"
  top: "Convolution20"
  param {
    lr_mult: 0
    decay_mult: 0
  }
  param {
    lr_mult: 0
    decay_mult: 0
  }
  param {
    lr_mult: 0
    decay_mult: 0
  }
}
layer {
  name: "Scale20"
  type: "Scale"
  bottom: "Convolution20"
  top: "Convolution20"
  scale_param {
    bias_term: true
  }
}
layer {
  name: "penlu18"
  type: "PENLU"
  bottom: "Convolution20"
  top: "Convolution20"
  param {
    lr_mult: 2
    decay_mult: 2
  }
  param {
    lr_mult: 2
    decay_mult: 2
  }
  param {
    lr_mult: 0
    decay_mult: 0
  }
  penlu_param {
    alpha_filler {
      type: "constant"
      value: 1
    }
    beta_filler {
      type: "constant"
      value: 1
    }
    eta_filler {
      type: "constant"
      value: 1
    }
  }
}
layer {
  name: "Convolution21"
  type: "Convolution"
  bottom: "Convolution20"
  top: "Convolution21"
  param {
    lr_mult: 1
    decay_mult: 1
  }
  param {
    lr_mult: 2
    decay_mult: 0
  }
  convolution_param {
    num_output: 64
    pad: 1
    kernel_size: 3
    stride: 1
    weight_filler {
      type: "gaussian"
      std: 0.059
    }
    bias_filler {
      type: "constant"
      value: 0
    }
  }
}
layer {
  name: "BatchNorm21"
  type: "BatchNorm"
  bottom: "Convolution21"
  top: "Convolution21"
  param {
    lr_mult: 0
    decay_mult: 0
  }
  param {
    lr_mult: 0
    decay_mult: 0
  }
  param {
    lr_mult: 0
    decay_mult: 0
  }
}
layer {
  name: "Scale21"
  type: "Scale"
  bottom: "Convolution21"
  top: "Convolution21"
  scale_param {
    bias_term: true
  }
}
layer {
  name: "Eltwise9"
  type: "Eltwise"
  bottom: "Eltwise8"
  bottom: "Convolution21"
  top: "Eltwise9"
  eltwise_param {
    operation: SUM
  }
}
layer {
  name: "penlu19"
  type: "PENLU"
  bottom: "Eltwise9"
  top: "Eltwise9"
  param {
    lr_mult: 2
    decay_mult: 2
  }
  param {
    lr_mult: 2
    decay_mult: 2
  }
  param {
    lr_mult: 0
    decay_mult: 0
  }
  penlu_param {
    alpha_filler {
      type: "constant"
      value: 1
    }
    beta_filler {
      type: "constant"
      value: 1
    }
    eta_filler {
      type: "constant"
      value: 1
    }
  }
}
layer {
  name: "Pooling1"
  type: "Pooling"
  bottom: "Eltwise9"
  top: "Pooling1"
  pooling_param {
    pool: AVE
    global_pooling: true
  }
}
layer {
  name: "InnerProduct1"
  type: "InnerProduct"
  bottom: "Pooling1"
  top: "InnerProduct1"
  param {
    lr_mult: 1
    decay_mult: 1
  }
  param {
    lr_mult: 2
    decay_mult: 1
  }
  inner_product_param {
    num_output: 10
    weight_filler {
      type: "gaussian"
      std: 0.01
    }
    bias_filler {
      type: "constant"
      value: 0
    }
  }
}
layer {
  name: "SoftmaxWithLoss1"
  type: "SoftmaxWithLoss"
  bottom: "InnerProduct1"
  bottom: "Data2"
  top: "SoftmaxWithLoss1"
}
I1023 09:39:14.094158  4519 layer_factory.hpp:77] Creating layer Data1
I1023 09:39:14.094234  4519 db_lmdb.cpp:35] Opened lmdb /home/x306/caffe/xn/English_orange/data/train1_lmdb
I1023 09:39:14.094256  4519 net.cpp:84] Creating Layer Data1
I1023 09:39:14.094262  4519 net.cpp:380] Data1 -> Data1
I1023 09:39:14.094280  4519 net.cpp:380] Data1 -> Data2
I1023 09:39:14.094290  4519 data_transformer.cpp:25] Loading mean file from: /home/x306/caffe/xn/English_orange/data/orange1_mean.binaryproto
I1023 09:39:14.096735  4519 data_layer.cpp:45] output data size: 8,3,224,224
I1023 09:39:14.104696  4519 net.cpp:122] Setting up Data1
I1023 09:39:14.104728  4519 net.cpp:129] Top shape: 8 3 224 224 (1204224)
I1023 09:39:14.104733  4519 net.cpp:129] Top shape: 8 (8)
I1023 09:39:14.104737  4519 net.cpp:137] Memory required for data: 4816928
I1023 09:39:14.104743  4519 layer_factory.hpp:77] Creating layer Convolution1
I1023 09:39:14.104774  4519 net.cpp:84] Creating Layer Convolution1
I1023 09:39:14.104779  4519 net.cpp:406] Convolution1 <- Data1
I1023 09:39:14.104797  4519 net.cpp:380] Convolution1 -> Convolution1
I1023 09:39:14.253505  4519 net.cpp:122] Setting up Convolution1
I1023 09:39:14.253530  4519 net.cpp:129] Top shape: 8 16 224 224 (6422528)
I1023 09:39:14.253535  4519 net.cpp:137] Memory required for data: 30507040
I1023 09:39:14.253548  4519 layer_factory.hpp:77] Creating layer BatchNorm1
I1023 09:39:14.253572  4519 net.cpp:84] Creating Layer BatchNorm1
I1023 09:39:14.253581  4519 net.cpp:406] BatchNorm1 <- Convolution1
I1023 09:39:14.253588  4519 net.cpp:367] BatchNorm1 -> Convolution1 (in-place)
I1023 09:39:14.253743  4519 net.cpp:122] Setting up BatchNorm1
I1023 09:39:14.253749  4519 net.cpp:129] Top shape: 8 16 224 224 (6422528)
I1023 09:39:14.253751  4519 net.cpp:137] Memory required for data: 56197152
I1023 09:39:14.253759  4519 layer_factory.hpp:77] Creating layer Scale1
I1023 09:39:14.253769  4519 net.cpp:84] Creating Layer Scale1
I1023 09:39:14.253784  4519 net.cpp:406] Scale1 <- Convolution1
I1023 09:39:14.253789  4519 net.cpp:367] Scale1 -> Convolution1 (in-place)
I1023 09:39:14.253831  4519 layer_factory.hpp:77] Creating layer Scale1
I1023 09:39:14.253962  4519 net.cpp:122] Setting up Scale1
I1023 09:39:14.253968  4519 net.cpp:129] Top shape: 8 16 224 224 (6422528)
I1023 09:39:14.253970  4519 net.cpp:137] Memory required for data: 81887264
I1023 09:39:14.253974  4519 layer_factory.hpp:77] Creating layer penlu1
I1023 09:39:14.253984  4519 net.cpp:84] Creating Layer penlu1
I1023 09:39:14.253988  4519 net.cpp:406] penlu1 <- Convolution1
I1023 09:39:14.254005  4519 net.cpp:367] penlu1 -> Convolution1 (in-place)
I1023 09:39:14.255125  4519 net.cpp:122] Setting up penlu1
I1023 09:39:14.255136  4519 net.cpp:129] Top shape: 8 16 224 224 (6422528)
I1023 09:39:14.255138  4519 net.cpp:137] Memory required for data: 107577376
I1023 09:39:14.255146  4519 layer_factory.hpp:77] Creating layer Convolution1_penlu1_0_split
I1023 09:39:14.255156  4519 net.cpp:84] Creating Layer Convolution1_penlu1_0_split
I1023 09:39:14.255170  4519 net.cpp:406] Convolution1_penlu1_0_split <- Convolution1
I1023 09:39:14.255177  4519 net.cpp:380] Convolution1_penlu1_0_split -> Convolution1_penlu1_0_split_0
I1023 09:39:14.255185  4519 net.cpp:380] Convolution1_penlu1_0_split -> Convolution1_penlu1_0_split_1
I1023 09:39:14.255220  4519 net.cpp:122] Setting up Convolution1_penlu1_0_split
I1023 09:39:14.255225  4519 net.cpp:129] Top shape: 8 16 224 224 (6422528)
I1023 09:39:14.255229  4519 net.cpp:129] Top shape: 8 16 224 224 (6422528)
I1023 09:39:14.255231  4519 net.cpp:137] Memory required for data: 158957600
I1023 09:39:14.255234  4519 layer_factory.hpp:77] Creating layer Convolution2
I1023 09:39:14.255241  4519 net.cpp:84] Creating Layer Convolution2
I1023 09:39:14.255244  4519 net.cpp:406] Convolution2 <- Convolution1_penlu1_0_split_0
I1023 09:39:14.255249  4519 net.cpp:380] Convolution2 -> Convolution2
I1023 09:39:14.256727  4519 net.cpp:122] Setting up Convolution2
I1023 09:39:14.256739  4519 net.cpp:129] Top shape: 8 16 224 224 (6422528)
I1023 09:39:14.256744  4519 net.cpp:137] Memory required for data: 184647712
I1023 09:39:14.256762  4519 layer_factory.hpp:77] Creating layer BatchNorm2
I1023 09:39:14.256781  4519 net.cpp:84] Creating Layer BatchNorm2
I1023 09:39:14.256785  4519 net.cpp:406] BatchNorm2 <- Convolution2
I1023 09:39:14.256791  4519 net.cpp:367] BatchNorm2 -> Convolution2 (in-place)
I1023 09:39:14.256979  4519 net.cpp:122] Setting up BatchNorm2
I1023 09:39:14.256985  4519 net.cpp:129] Top shape: 8 16 224 224 (6422528)
I1023 09:39:14.256989  4519 net.cpp:137] Memory required for data: 210337824
I1023 09:39:14.257004  4519 layer_factory.hpp:77] Creating layer Scale2
I1023 09:39:14.257025  4519 net.cpp:84] Creating Layer Scale2
I1023 09:39:14.257027  4519 net.cpp:406] Scale2 <- Convolution2
I1023 09:39:14.257032  4519 net.cpp:367] Scale2 -> Convolution2 (in-place)
I1023 09:39:14.257067  4519 layer_factory.hpp:77] Creating layer Scale2
I1023 09:39:14.257252  4519 net.cpp:122] Setting up Scale2
I1023 09:39:14.257258  4519 net.cpp:129] Top shape: 8 16 224 224 (6422528)
I1023 09:39:14.257261  4519 net.cpp:137] Memory required for data: 236027936
I1023 09:39:14.257277  4519 layer_factory.hpp:77] Creating layer penlu2
I1023 09:39:14.257299  4519 net.cpp:84] Creating Layer penlu2
I1023 09:39:14.257302  4519 net.cpp:406] penlu2 <- Convolution2
I1023 09:39:14.257308  4519 net.cpp:367] penlu2 -> Convolution2 (in-place)
I1023 09:39:14.258460  4519 net.cpp:122] Setting up penlu2
I1023 09:39:14.258471  4519 net.cpp:129] Top shape: 8 16 224 224 (6422528)
I1023 09:39:14.258474  4519 net.cpp:137] Memory required for data: 261718048
I1023 09:39:14.258479  4519 layer_factory.hpp:77] Creating layer Convolution3
I1023 09:39:14.258489  4519 net.cpp:84] Creating Layer Convolution3
I1023 09:39:14.258492  4519 net.cpp:406] Convolution3 <- Convolution2
I1023 09:39:14.258497  4519 net.cpp:380] Convolution3 -> Convolution3
I1023 09:39:14.259429  4519 net.cpp:122] Setting up Convolution3
I1023 09:39:14.259440  4519 net.cpp:129] Top shape: 8 16 224 224 (6422528)
I1023 09:39:14.259444  4519 net.cpp:137] Memory required for data: 287408160
I1023 09:39:14.259449  4519 layer_factory.hpp:77] Creating layer BatchNorm3
I1023 09:39:14.259454  4519 net.cpp:84] Creating Layer BatchNorm3
I1023 09:39:14.259457  4519 net.cpp:406] BatchNorm3 <- Convolution3
I1023 09:39:14.259462  4519 net.cpp:367] BatchNorm3 -> Convolution3 (in-place)
I1023 09:39:14.259618  4519 net.cpp:122] Setting up BatchNorm3
I1023 09:39:14.259624  4519 net.cpp:129] Top shape: 8 16 224 224 (6422528)
I1023 09:39:14.259626  4519 net.cpp:137] Memory required for data: 313098272
I1023 09:39:14.259631  4519 layer_factory.hpp:77] Creating layer Scale3
I1023 09:39:14.259635  4519 net.cpp:84] Creating Layer Scale3
I1023 09:39:14.259639  4519 net.cpp:406] Scale3 <- Convolution3
I1023 09:39:14.259642  4519 net.cpp:367] Scale3 -> Convolution3 (in-place)
I1023 09:39:14.259670  4519 layer_factory.hpp:77] Creating layer Scale3
I1023 09:39:14.260298  4519 net.cpp:122] Setting up Scale3
I1023 09:39:14.260308  4519 net.cpp:129] Top shape: 8 16 224 224 (6422528)
I1023 09:39:14.260310  4519 net.cpp:137] Memory required for data: 338788384
I1023 09:39:14.260315  4519 layer_factory.hpp:77] Creating layer Eltwise1
I1023 09:39:14.260321  4519 net.cpp:84] Creating Layer Eltwise1
I1023 09:39:14.260324  4519 net.cpp:406] Eltwise1 <- Convolution1_penlu1_0_split_1
I1023 09:39:14.260329  4519 net.cpp:406] Eltwise1 <- Convolution3
I1023 09:39:14.260332  4519 net.cpp:380] Eltwise1 -> Eltwise1
I1023 09:39:14.260352  4519 net.cpp:122] Setting up Eltwise1
I1023 09:39:14.260357  4519 net.cpp:129] Top shape: 8 16 224 224 (6422528)
I1023 09:39:14.260360  4519 net.cpp:137] Memory required for data: 364478496
I1023 09:39:14.260362  4519 layer_factory.hpp:77] Creating layer penlu3
I1023 09:39:14.260370  4519 net.cpp:84] Creating Layer penlu3
I1023 09:39:14.260372  4519 net.cpp:406] penlu3 <- Eltwise1
I1023 09:39:14.260375  4519 net.cpp:367] penlu3 -> Eltwise1 (in-place)
I1023 09:39:14.261497  4519 net.cpp:122] Setting up penlu3
I1023 09:39:14.261505  4519 net.cpp:129] Top shape: 8 16 224 224 (6422528)
I1023 09:39:14.261508  4519 net.cpp:137] Memory required for data: 390168608
I1023 09:39:14.261524  4519 layer_factory.hpp:77] Creating layer Eltwise1_penlu3_0_split
I1023 09:39:14.261531  4519 net.cpp:84] Creating Layer Eltwise1_penlu3_0_split
I1023 09:39:14.261534  4519 net.cpp:406] Eltwise1_penlu3_0_split <- Eltwise1
I1023 09:39:14.261538  4519 net.cpp:380] Eltwise1_penlu3_0_split -> Eltwise1_penlu3_0_split_0
I1023 09:39:14.261544  4519 net.cpp:380] Eltwise1_penlu3_0_split -> Eltwise1_penlu3_0_split_1
I1023 09:39:14.261569  4519 net.cpp:122] Setting up Eltwise1_penlu3_0_split
I1023 09:39:14.261574  4519 net.cpp:129] Top shape: 8 16 224 224 (6422528)
I1023 09:39:14.261579  4519 net.cpp:129] Top shape: 8 16 224 224 (6422528)
I1023 09:39:14.261580  4519 net.cpp:137] Memory required for data: 441548832
I1023 09:39:14.261582  4519 layer_factory.hpp:77] Creating layer Convolution4
I1023 09:39:14.261590  4519 net.cpp:84] Creating Layer Convolution4
I1023 09:39:14.261595  4519 net.cpp:406] Convolution4 <- Eltwise1_penlu3_0_split_0
I1023 09:39:14.261598  4519 net.cpp:380] Convolution4 -> Convolution4
I1023 09:39:14.262553  4519 net.cpp:122] Setting up Convolution4
I1023 09:39:14.262563  4519 net.cpp:129] Top shape: 8 16 224 224 (6422528)
I1023 09:39:14.262567  4519 net.cpp:137] Memory required for data: 467238944
I1023 09:39:14.262572  4519 layer_factory.hpp:77] Creating layer BatchNorm4
I1023 09:39:14.262578  4519 net.cpp:84] Creating Layer BatchNorm4
I1023 09:39:14.262583  4519 net.cpp:406] BatchNorm4 <- Convolution4
I1023 09:39:14.262586  4519 net.cpp:367] BatchNorm4 -> Convolution4 (in-place)
I1023 09:39:14.262745  4519 net.cpp:122] Setting up BatchNorm4
I1023 09:39:14.262750  4519 net.cpp:129] Top shape: 8 16 224 224 (6422528)
I1023 09:39:14.262753  4519 net.cpp:137] Memory required for data: 492929056
I1023 09:39:14.262764  4519 layer_factory.hpp:77] Creating layer Scale4
I1023 09:39:14.262770  4519 net.cpp:84] Creating Layer Scale4
I1023 09:39:14.262773  4519 net.cpp:406] Scale4 <- Convolution4
I1023 09:39:14.262776  4519 net.cpp:367] Scale4 -> Convolution4 (in-place)
I1023 09:39:14.262806  4519 layer_factory.hpp:77] Creating layer Scale4
I1023 09:39:14.262938  4519 net.cpp:122] Setting up Scale4
I1023 09:39:14.262944  4519 net.cpp:129] Top shape: 8 16 224 224 (6422528)
I1023 09:39:14.262946  4519 net.cpp:137] Memory required for data: 518619168
I1023 09:39:14.262950  4519 layer_factory.hpp:77] Creating layer penlu4
I1023 09:39:14.262958  4519 net.cpp:84] Creating Layer penlu4
I1023 09:39:14.262960  4519 net.cpp:406] penlu4 <- Convolution4
I1023 09:39:14.262964  4519 net.cpp:367] penlu4 -> Convolution4 (in-place)
I1023 09:39:14.264119  4519 net.cpp:122] Setting up penlu4
I1023 09:39:14.264132  4519 net.cpp:129] Top shape: 8 16 224 224 (6422528)
I1023 09:39:14.264133  4519 net.cpp:137] Memory required for data: 544309280
I1023 09:39:14.264139  4519 layer_factory.hpp:77] Creating layer Convolution5
I1023 09:39:14.264148  4519 net.cpp:84] Creating Layer Convolution5
I1023 09:39:14.264152  4519 net.cpp:406] Convolution5 <- Convolution4
I1023 09:39:14.264156  4519 net.cpp:380] Convolution5 -> Convolution5
I1023 09:39:14.265517  4519 net.cpp:122] Setting up Convolution5
I1023 09:39:14.265528  4519 net.cpp:129] Top shape: 8 16 224 224 (6422528)
I1023 09:39:14.265533  4519 net.cpp:137] Memory required for data: 569999392
I1023 09:39:14.265540  4519 layer_factory.hpp:77] Creating layer BatchNorm5
I1023 09:39:14.265550  4519 net.cpp:84] Creating Layer BatchNorm5
I1023 09:39:14.265557  4519 net.cpp:406] BatchNorm5 <- Convolution5
I1023 09:39:14.265563  4519 net.cpp:367] BatchNorm5 -> Convolution5 (in-place)
I1023 09:39:14.265774  4519 net.cpp:122] Setting up BatchNorm5
I1023 09:39:14.265784  4519 net.cpp:129] Top shape: 8 16 224 224 (6422528)
I1023 09:39:14.265786  4519 net.cpp:137] Memory required for data: 595689504
I1023 09:39:14.265792  4519 layer_factory.hpp:77] Creating layer Scale5
I1023 09:39:14.265810  4519 net.cpp:84] Creating Layer Scale5
I1023 09:39:14.265812  4519 net.cpp:406] Scale5 <- Convolution5
I1023 09:39:14.265816  4519 net.cpp:367] Scale5 -> Convolution5 (in-place)
I1023 09:39:14.265857  4519 layer_factory.hpp:77] Creating layer Scale5
I1023 09:39:14.265997  4519 net.cpp:122] Setting up Scale5
I1023 09:39:14.266002  4519 net.cpp:129] Top shape: 8 16 224 224 (6422528)
I1023 09:39:14.266006  4519 net.cpp:137] Memory required for data: 621379616
I1023 09:39:14.266010  4519 layer_factory.hpp:77] Creating layer Eltwise2
I1023 09:39:14.266017  4519 net.cpp:84] Creating Layer Eltwise2
I1023 09:39:14.266021  4519 net.cpp:406] Eltwise2 <- Eltwise1_penlu3_0_split_1
I1023 09:39:14.266023  4519 net.cpp:406] Eltwise2 <- Convolution5
I1023 09:39:14.266027  4519 net.cpp:380] Eltwise2 -> Eltwise2
I1023 09:39:14.266046  4519 net.cpp:122] Setting up Eltwise2
I1023 09:39:14.266050  4519 net.cpp:129] Top shape: 8 16 224 224 (6422528)
I1023 09:39:14.266052  4519 net.cpp:137] Memory required for data: 647069728
I1023 09:39:14.266055  4519 layer_factory.hpp:77] Creating layer penlu5
I1023 09:39:14.266062  4519 net.cpp:84] Creating Layer penlu5
I1023 09:39:14.266064  4519 net.cpp:406] penlu5 <- Eltwise2
I1023 09:39:14.266067  4519 net.cpp:367] penlu5 -> Eltwise2 (in-place)
I1023 09:39:14.267338  4519 net.cpp:122] Setting up penlu5
I1023 09:39:14.267352  4519 net.cpp:129] Top shape: 8 16 224 224 (6422528)
I1023 09:39:14.267355  4519 net.cpp:137] Memory required for data: 672759840
I1023 09:39:14.267361  4519 layer_factory.hpp:77] Creating layer Eltwise2_penlu5_0_split
I1023 09:39:14.267369  4519 net.cpp:84] Creating Layer Eltwise2_penlu5_0_split
I1023 09:39:14.267371  4519 net.cpp:406] Eltwise2_penlu5_0_split <- Eltwise2
I1023 09:39:14.267376  4519 net.cpp:380] Eltwise2_penlu5_0_split -> Eltwise2_penlu5_0_split_0
I1023 09:39:14.267382  4519 net.cpp:380] Eltwise2_penlu5_0_split -> Eltwise2_penlu5_0_split_1
I1023 09:39:14.267411  4519 net.cpp:122] Setting up Eltwise2_penlu5_0_split
I1023 09:39:14.267416  4519 net.cpp:129] Top shape: 8 16 224 224 (6422528)
I1023 09:39:14.267419  4519 net.cpp:129] Top shape: 8 16 224 224 (6422528)
I1023 09:39:14.267422  4519 net.cpp:137] Memory required for data: 724140064
I1023 09:39:14.267426  4519 layer_factory.hpp:77] Creating layer Convolution6
I1023 09:39:14.267433  4519 net.cpp:84] Creating Layer Convolution6
I1023 09:39:14.267437  4519 net.cpp:406] Convolution6 <- Eltwise2_penlu5_0_split_0
I1023 09:39:14.267442  4519 net.cpp:380] Convolution6 -> Convolution6
I1023 09:39:14.268995  4519 net.cpp:122] Setting up Convolution6
I1023 09:39:14.269006  4519 net.cpp:129] Top shape: 8 16 224 224 (6422528)
I1023 09:39:14.269011  4519 net.cpp:137] Memory required for data: 749830176
I1023 09:39:14.269016  4519 layer_factory.hpp:77] Creating layer BatchNorm6
I1023 09:39:14.269022  4519 net.cpp:84] Creating Layer BatchNorm6
I1023 09:39:14.269026  4519 net.cpp:406] BatchNorm6 <- Convolution6
I1023 09:39:14.269031  4519 net.cpp:367] BatchNorm6 -> Convolution6 (in-place)
I1023 09:39:14.269189  4519 net.cpp:122] Setting up BatchNorm6
I1023 09:39:14.269196  4519 net.cpp:129] Top shape: 8 16 224 224 (6422528)
I1023 09:39:14.269198  4519 net.cpp:137] Memory required for data: 775520288
I1023 09:39:14.269203  4519 layer_factory.hpp:77] Creating layer Scale6
I1023 09:39:14.269209  4519 net.cpp:84] Creating Layer Scale6
I1023 09:39:14.269212  4519 net.cpp:406] Scale6 <- Convolution6
I1023 09:39:14.269217  4519 net.cpp:367] Scale6 -> Convolution6 (in-place)
I1023 09:39:14.269244  4519 layer_factory.hpp:77] Creating layer Scale6
I1023 09:39:14.269361  4519 net.cpp:122] Setting up Scale6
I1023 09:39:14.269367  4519 net.cpp:129] Top shape: 8 16 224 224 (6422528)
I1023 09:39:14.269371  4519 net.cpp:137] Memory required for data: 801210400
I1023 09:39:14.269374  4519 layer_factory.hpp:77] Creating layer penlu6
I1023 09:39:14.269381  4519 net.cpp:84] Creating Layer penlu6
I1023 09:39:14.269383  4519 net.cpp:406] penlu6 <- Convolution6
I1023 09:39:14.269388  4519 net.cpp:367] penlu6 -> Convolution6 (in-place)
I1023 09:39:14.270575  4519 net.cpp:122] Setting up penlu6
I1023 09:39:14.270586  4519 net.cpp:129] Top shape: 8 16 224 224 (6422528)
I1023 09:39:14.270588  4519 net.cpp:137] Memory required for data: 826900512
I1023 09:39:14.270604  4519 layer_factory.hpp:77] Creating layer Convolution7
I1023 09:39:14.270614  4519 net.cpp:84] Creating Layer Convolution7
I1023 09:39:14.270618  4519 net.cpp:406] Convolution7 <- Convolution6
I1023 09:39:14.270623  4519 net.cpp:380] Convolution7 -> Convolution7
I1023 09:39:14.271617  4519 net.cpp:122] Setting up Convolution7
I1023 09:39:14.271627  4519 net.cpp:129] Top shape: 8 16 224 224 (6422528)
I1023 09:39:14.271631  4519 net.cpp:137] Memory required for data: 852590624
I1023 09:39:14.271636  4519 layer_factory.hpp:77] Creating layer BatchNorm7
I1023 09:39:14.271644  4519 net.cpp:84] Creating Layer BatchNorm7
I1023 09:39:14.271648  4519 net.cpp:406] BatchNorm7 <- Convolution7
I1023 09:39:14.271652  4519 net.cpp:367] BatchNorm7 -> Convolution7 (in-place)
I1023 09:39:14.271813  4519 net.cpp:122] Setting up BatchNorm7
I1023 09:39:14.271819  4519 net.cpp:129] Top shape: 8 16 224 224 (6422528)
I1023 09:39:14.271822  4519 net.cpp:137] Memory required for data: 878280736
I1023 09:39:14.271834  4519 layer_factory.hpp:77] Creating layer Scale7
I1023 09:39:14.271842  4519 net.cpp:84] Creating Layer Scale7
I1023 09:39:14.271847  4519 net.cpp:406] Scale7 <- Convolution7
I1023 09:39:14.271850  4519 net.cpp:367] Scale7 -> Convolution7 (in-place)
I1023 09:39:14.271879  4519 layer_factory.hpp:77] Creating layer Scale7
I1023 09:39:14.272013  4519 net.cpp:122] Setting up Scale7
I1023 09:39:14.272020  4519 net.cpp:129] Top shape: 8 16 224 224 (6422528)
I1023 09:39:14.272022  4519 net.cpp:137] Memory required for data: 903970848
I1023 09:39:14.272027  4519 layer_factory.hpp:77] Creating layer Eltwise3
I1023 09:39:14.272032  4519 net.cpp:84] Creating Layer Eltwise3
I1023 09:39:14.272035  4519 net.cpp:406] Eltwise3 <- Eltwise2_penlu5_0_split_1
I1023 09:39:14.272038  4519 net.cpp:406] Eltwise3 <- Convolution7
I1023 09:39:14.272044  4519 net.cpp:380] Eltwise3 -> Eltwise3
I1023 09:39:14.272061  4519 net.cpp:122] Setting up Eltwise3
I1023 09:39:14.272066  4519 net.cpp:129] Top shape: 8 16 224 224 (6422528)
I1023 09:39:14.272069  4519 net.cpp:137] Memory required for data: 929660960
I1023 09:39:14.272071  4519 layer_factory.hpp:77] Creating layer penlu7
I1023 09:39:14.272076  4519 net.cpp:84] Creating Layer penlu7
I1023 09:39:14.272080  4519 net.cpp:406] penlu7 <- Eltwise3
I1023 09:39:14.272084  4519 net.cpp:367] penlu7 -> Eltwise3 (in-place)
I1023 09:39:14.273284  4519 net.cpp:122] Setting up penlu7
I1023 09:39:14.273296  4519 net.cpp:129] Top shape: 8 16 224 224 (6422528)
I1023 09:39:14.273298  4519 net.cpp:137] Memory required for data: 955351072
I1023 09:39:14.273303  4519 layer_factory.hpp:77] Creating layer Eltwise3_penlu7_0_split
I1023 09:39:14.273309  4519 net.cpp:84] Creating Layer Eltwise3_penlu7_0_split
I1023 09:39:14.273313  4519 net.cpp:406] Eltwise3_penlu7_0_split <- Eltwise3
I1023 09:39:14.273319  4519 net.cpp:380] Eltwise3_penlu7_0_split -> Eltwise3_penlu7_0_split_0
I1023 09:39:14.273324  4519 net.cpp:380] Eltwise3_penlu7_0_split -> Eltwise3_penlu7_0_split_1
I1023 09:39:14.273350  4519 net.cpp:122] Setting up Eltwise3_penlu7_0_split
I1023 09:39:14.273355  4519 net.cpp:129] Top shape: 8 16 224 224 (6422528)
I1023 09:39:14.273357  4519 net.cpp:129] Top shape: 8 16 224 224 (6422528)
I1023 09:39:14.273360  4519 net.cpp:137] Memory required for data: 1006731296
I1023 09:39:14.273362  4519 layer_factory.hpp:77] Creating layer Convolution8
I1023 09:39:14.273370  4519 net.cpp:84] Creating Layer Convolution8
I1023 09:39:14.273375  4519 net.cpp:406] Convolution8 <- Eltwise3_penlu7_0_split_0
I1023 09:39:14.273378  4519 net.cpp:380] Convolution8 -> Convolution8
I1023 09:39:14.275146  4519 net.cpp:122] Setting up Convolution8
I1023 09:39:14.275159  4519 net.cpp:129] Top shape: 8 32 112 112 (3211264)
I1023 09:39:14.275162  4519 net.cpp:137] Memory required for data: 1019576352
I1023 09:39:14.275167  4519 layer_factory.hpp:77] Creating layer BatchNorm8
I1023 09:39:14.275173  4519 net.cpp:84] Creating Layer BatchNorm8
I1023 09:39:14.275177  4519 net.cpp:406] BatchNorm8 <- Convolution8
I1023 09:39:14.275182  4519 net.cpp:367] BatchNorm8 -> Convolution8 (in-place)
I1023 09:39:14.275349  4519 net.cpp:122] Setting up BatchNorm8
I1023 09:39:14.275355  4519 net.cpp:129] Top shape: 8 32 112 112 (3211264)
I1023 09:39:14.275358  4519 net.cpp:137] Memory required for data: 1032421408
I1023 09:39:14.275363  4519 layer_factory.hpp:77] Creating layer Scale8
I1023 09:39:14.275369  4519 net.cpp:84] Creating Layer Scale8
I1023 09:39:14.275372  4519 net.cpp:406] Scale8 <- Convolution8
I1023 09:39:14.275375  4519 net.cpp:367] Scale8 -> Convolution8 (in-place)
I1023 09:39:14.275405  4519 layer_factory.hpp:77] Creating layer Scale8
I1023 09:39:14.275491  4519 net.cpp:122] Setting up Scale8
I1023 09:39:14.275496  4519 net.cpp:129] Top shape: 8 32 112 112 (3211264)
I1023 09:39:14.275499  4519 net.cpp:137] Memory required for data: 1045266464
I1023 09:39:14.275503  4519 layer_factory.hpp:77] Creating layer Convolution9
I1023 09:39:14.275511  4519 net.cpp:84] Creating Layer Convolution9
I1023 09:39:14.275514  4519 net.cpp:406] Convolution9 <- Eltwise3_penlu7_0_split_1
I1023 09:39:14.275521  4519 net.cpp:380] Convolution9 -> Convolution9
I1023 09:39:14.276486  4519 net.cpp:122] Setting up Convolution9
I1023 09:39:14.276496  4519 net.cpp:129] Top shape: 8 32 112 112 (3211264)
I1023 09:39:14.276500  4519 net.cpp:137] Memory required for data: 1058111520
I1023 09:39:14.276504  4519 layer_factory.hpp:77] Creating layer BatchNorm9
I1023 09:39:14.276511  4519 net.cpp:84] Creating Layer BatchNorm9
I1023 09:39:14.276515  4519 net.cpp:406] BatchNorm9 <- Convolution9
I1023 09:39:14.276518  4519 net.cpp:367] BatchNorm9 -> Convolution9 (in-place)
I1023 09:39:14.276651  4519 net.cpp:122] Setting up BatchNorm9
I1023 09:39:14.276657  4519 net.cpp:129] Top shape: 8 32 112 112 (3211264)
I1023 09:39:14.276660  4519 net.cpp:137] Memory required for data: 1070956576
I1023 09:39:14.276665  4519 layer_factory.hpp:77] Creating layer Scale9
I1023 09:39:14.276670  4519 net.cpp:84] Creating Layer Scale9
I1023 09:39:14.276674  4519 net.cpp:406] Scale9 <- Convolution9
I1023 09:39:14.276677  4519 net.cpp:367] Scale9 -> Convolution9 (in-place)
I1023 09:39:14.276703  4519 layer_factory.hpp:77] Creating layer Scale9
I1023 09:39:14.276787  4519 net.cpp:122] Setting up Scale9
I1023 09:39:14.276793  4519 net.cpp:129] Top shape: 8 32 112 112 (3211264)
I1023 09:39:14.276795  4519 net.cpp:137] Memory required for data: 1083801632
I1023 09:39:14.276799  4519 layer_factory.hpp:77] Creating layer penlu8
I1023 09:39:14.276806  4519 net.cpp:84] Creating Layer penlu8
I1023 09:39:14.276809  4519 net.cpp:406] penlu8 <- Convolution9
I1023 09:39:14.276813  4519 net.cpp:367] penlu8 -> Convolution9 (in-place)
I1023 09:39:14.277598  4519 net.cpp:122] Setting up penlu8
I1023 09:39:14.277607  4519 net.cpp:129] Top shape: 8 32 112 112 (3211264)
I1023 09:39:14.277611  4519 net.cpp:137] Memory required for data: 1096646688
I1023 09:39:14.277616  4519 layer_factory.hpp:77] Creating layer Convolution10
I1023 09:39:14.277626  4519 net.cpp:84] Creating Layer Convolution10
I1023 09:39:14.277628  4519 net.cpp:406] Convolution10 <- Convolution9
I1023 09:39:14.277633  4519 net.cpp:380] Convolution10 -> Convolution10
I1023 09:39:14.278702  4519 net.cpp:122] Setting up Convolution10
I1023 09:39:14.278712  4519 net.cpp:129] Top shape: 8 32 112 112 (3211264)
I1023 09:39:14.278717  4519 net.cpp:137] Memory required for data: 1109491744
I1023 09:39:14.278722  4519 layer_factory.hpp:77] Creating layer BatchNorm10
I1023 09:39:14.278728  4519 net.cpp:84] Creating Layer BatchNorm10
I1023 09:39:14.278731  4519 net.cpp:406] BatchNorm10 <- Convolution10
I1023 09:39:14.278735  4519 net.cpp:367] BatchNorm10 -> Convolution10 (in-place)
I1023 09:39:14.278870  4519 net.cpp:122] Setting up BatchNorm10
I1023 09:39:14.278877  4519 net.cpp:129] Top shape: 8 32 112 112 (3211264)
I1023 09:39:14.278879  4519 net.cpp:137] Memory required for data: 1122336800
I1023 09:39:14.278884  4519 layer_factory.hpp:77] Creating layer Scale10
I1023 09:39:14.278889  4519 net.cpp:84] Creating Layer Scale10
I1023 09:39:14.278893  4519 net.cpp:406] Scale10 <- Convolution10
I1023 09:39:14.278904  4519 net.cpp:367] Scale10 -> Convolution10 (in-place)
I1023 09:39:14.278935  4519 layer_factory.hpp:77] Creating layer Scale10
I1023 09:39:14.279023  4519 net.cpp:122] Setting up Scale10
I1023 09:39:14.279029  4519 net.cpp:129] Top shape: 8 32 112 112 (3211264)
I1023 09:39:14.279032  4519 net.cpp:137] Memory required for data: 1135181856
I1023 09:39:14.279036  4519 layer_factory.hpp:77] Creating layer Eltwise4
I1023 09:39:14.279042  4519 net.cpp:84] Creating Layer Eltwise4
I1023 09:39:14.279045  4519 net.cpp:406] Eltwise4 <- Convolution8
I1023 09:39:14.279048  4519 net.cpp:406] Eltwise4 <- Convolution10
I1023 09:39:14.279052  4519 net.cpp:380] Eltwise4 -> Eltwise4
I1023 09:39:14.279070  4519 net.cpp:122] Setting up Eltwise4
I1023 09:39:14.279075  4519 net.cpp:129] Top shape: 8 32 112 112 (3211264)
I1023 09:39:14.279078  4519 net.cpp:137] Memory required for data: 1148026912
I1023 09:39:14.279079  4519 layer_factory.hpp:77] Creating layer penlu9
I1023 09:39:14.279085  4519 net.cpp:84] Creating Layer penlu9
I1023 09:39:14.279088  4519 net.cpp:406] penlu9 <- Eltwise4
I1023 09:39:14.279091  4519 net.cpp:367] penlu9 -> Eltwise4 (in-place)
I1023 09:39:14.279870  4519 net.cpp:122] Setting up penlu9
I1023 09:39:14.279880  4519 net.cpp:129] Top shape: 8 32 112 112 (3211264)
I1023 09:39:14.279881  4519 net.cpp:137] Memory required for data: 1160871968
I1023 09:39:14.279886  4519 layer_factory.hpp:77] Creating layer Eltwise4_penlu9_0_split
I1023 09:39:14.279893  4519 net.cpp:84] Creating Layer Eltwise4_penlu9_0_split
I1023 09:39:14.279896  4519 net.cpp:406] Eltwise4_penlu9_0_split <- Eltwise4
I1023 09:39:14.279899  4519 net.cpp:380] Eltwise4_penlu9_0_split -> Eltwise4_penlu9_0_split_0
I1023 09:39:14.279906  4519 net.cpp:380] Eltwise4_penlu9_0_split -> Eltwise4_penlu9_0_split_1
I1023 09:39:14.279932  4519 net.cpp:122] Setting up Eltwise4_penlu9_0_split
I1023 09:39:14.279937  4519 net.cpp:129] Top shape: 8 32 112 112 (3211264)
I1023 09:39:14.279939  4519 net.cpp:129] Top shape: 8 32 112 112 (3211264)
I1023 09:39:14.279942  4519 net.cpp:137] Memory required for data: 1186562080
I1023 09:39:14.279944  4519 layer_factory.hpp:77] Creating layer Convolution11
I1023 09:39:14.279950  4519 net.cpp:84] Creating Layer Convolution11
I1023 09:39:14.279953  4519 net.cpp:406] Convolution11 <- Eltwise4_penlu9_0_split_0
I1023 09:39:14.279966  4519 net.cpp:380] Convolution11 -> Convolution11
I1023 09:39:14.281064  4519 net.cpp:122] Setting up Convolution11
I1023 09:39:14.281076  4519 net.cpp:129] Top shape: 8 32 112 112 (3211264)
I1023 09:39:14.281080  4519 net.cpp:137] Memory required for data: 1199407136
I1023 09:39:14.281083  4519 layer_factory.hpp:77] Creating layer BatchNorm11
I1023 09:39:14.281090  4519 net.cpp:84] Creating Layer BatchNorm11
I1023 09:39:14.281092  4519 net.cpp:406] BatchNorm11 <- Convolution11
I1023 09:39:14.281096  4519 net.cpp:367] BatchNorm11 -> Convolution11 (in-place)
I1023 09:39:14.281241  4519 net.cpp:122] Setting up BatchNorm11
I1023 09:39:14.281250  4519 net.cpp:129] Top shape: 8 32 112 112 (3211264)
I1023 09:39:14.281253  4519 net.cpp:137] Memory required for data: 1212252192
I1023 09:39:14.281261  4519 layer_factory.hpp:77] Creating layer Scale11
I1023 09:39:14.281270  4519 net.cpp:84] Creating Layer Scale11
I1023 09:39:14.281275  4519 net.cpp:406] Scale11 <- Convolution11
I1023 09:39:14.281281  4519 net.cpp:367] Scale11 -> Convolution11 (in-place)
I1023 09:39:14.281327  4519 layer_factory.hpp:77] Creating layer Scale11
I1023 09:39:14.281447  4519 net.cpp:122] Setting up Scale11
I1023 09:39:14.281455  4519 net.cpp:129] Top shape: 8 32 112 112 (3211264)
I1023 09:39:14.281457  4519 net.cpp:137] Memory required for data: 1225097248
I1023 09:39:14.281462  4519 layer_factory.hpp:77] Creating layer penlu10
I1023 09:39:14.281469  4519 net.cpp:84] Creating Layer penlu10
I1023 09:39:14.281473  4519 net.cpp:406] penlu10 <- Convolution11
I1023 09:39:14.281478  4519 net.cpp:367] penlu10 -> Convolution11 (in-place)
I1023 09:39:14.282306  4519 net.cpp:122] Setting up penlu10
I1023 09:39:14.282315  4519 net.cpp:129] Top shape: 8 32 112 112 (3211264)
I1023 09:39:14.282327  4519 net.cpp:137] Memory required for data: 1237942304
I1023 09:39:14.282332  4519 layer_factory.hpp:77] Creating layer Convolution12
I1023 09:39:14.282341  4519 net.cpp:84] Creating Layer Convolution12
I1023 09:39:14.282344  4519 net.cpp:406] Convolution12 <- Convolution11
I1023 09:39:14.282349  4519 net.cpp:380] Convolution12 -> Convolution12
I1023 09:39:14.283567  4519 net.cpp:122] Setting up Convolution12
I1023 09:39:14.283577  4519 net.cpp:129] Top shape: 8 32 112 112 (3211264)
I1023 09:39:14.283581  4519 net.cpp:137] Memory required for data: 1250787360
I1023 09:39:14.283584  4519 layer_factory.hpp:77] Creating layer BatchNorm12
I1023 09:39:14.283591  4519 net.cpp:84] Creating Layer BatchNorm12
I1023 09:39:14.283596  4519 net.cpp:406] BatchNorm12 <- Convolution12
I1023 09:39:14.283598  4519 net.cpp:367] BatchNorm12 -> Convolution12 (in-place)
I1023 09:39:14.283762  4519 net.cpp:122] Setting up BatchNorm12
I1023 09:39:14.283768  4519 net.cpp:129] Top shape: 8 32 112 112 (3211264)
I1023 09:39:14.283771  4519 net.cpp:137] Memory required for data: 1263632416
I1023 09:39:14.283776  4519 layer_factory.hpp:77] Creating layer Scale12
I1023 09:39:14.283780  4519 net.cpp:84] Creating Layer Scale12
I1023 09:39:14.283784  4519 net.cpp:406] Scale12 <- Convolution12
I1023 09:39:14.283787  4519 net.cpp:367] Scale12 -> Convolution12 (in-place)
I1023 09:39:14.283816  4519 layer_factory.hpp:77] Creating layer Scale12
I1023 09:39:14.283907  4519 net.cpp:122] Setting up Scale12
I1023 09:39:14.283912  4519 net.cpp:129] Top shape: 8 32 112 112 (3211264)
I1023 09:39:14.283915  4519 net.cpp:137] Memory required for data: 1276477472
I1023 09:39:14.283920  4519 layer_factory.hpp:77] Creating layer Eltwise5
I1023 09:39:14.283926  4519 net.cpp:84] Creating Layer Eltwise5
I1023 09:39:14.283928  4519 net.cpp:406] Eltwise5 <- Eltwise4_penlu9_0_split_1
I1023 09:39:14.283931  4519 net.cpp:406] Eltwise5 <- Convolution12
I1023 09:39:14.283936  4519 net.cpp:380] Eltwise5 -> Eltwise5
I1023 09:39:14.283953  4519 net.cpp:122] Setting up Eltwise5
I1023 09:39:14.283970  4519 net.cpp:129] Top shape: 8 32 112 112 (3211264)
I1023 09:39:14.283972  4519 net.cpp:137] Memory required for data: 1289322528
I1023 09:39:14.283974  4519 layer_factory.hpp:77] Creating layer penlu11
I1023 09:39:14.283982  4519 net.cpp:84] Creating Layer penlu11
I1023 09:39:14.283985  4519 net.cpp:406] penlu11 <- Eltwise5
I1023 09:39:14.283989  4519 net.cpp:367] penlu11 -> Eltwise5 (in-place)
I1023 09:39:14.284796  4519 net.cpp:122] Setting up penlu11
I1023 09:39:14.284806  4519 net.cpp:129] Top shape: 8 32 112 112 (3211264)
I1023 09:39:14.284809  4519 net.cpp:137] Memory required for data: 1302167584
I1023 09:39:14.284814  4519 layer_factory.hpp:77] Creating layer Eltwise5_penlu11_0_split
I1023 09:39:14.284821  4519 net.cpp:84] Creating Layer Eltwise5_penlu11_0_split
I1023 09:39:14.284824  4519 net.cpp:406] Eltwise5_penlu11_0_split <- Eltwise5
I1023 09:39:14.284827  4519 net.cpp:380] Eltwise5_penlu11_0_split -> Eltwise5_penlu11_0_split_0
I1023 09:39:14.284833  4519 net.cpp:380] Eltwise5_penlu11_0_split -> Eltwise5_penlu11_0_split_1
I1023 09:39:14.284859  4519 net.cpp:122] Setting up Eltwise5_penlu11_0_split
I1023 09:39:14.284864  4519 net.cpp:129] Top shape: 8 32 112 112 (3211264)
I1023 09:39:14.284868  4519 net.cpp:129] Top shape: 8 32 112 112 (3211264)
I1023 09:39:14.284870  4519 net.cpp:137] Memory required for data: 1327857696
I1023 09:39:14.284873  4519 layer_factory.hpp:77] Creating layer Convolution13
I1023 09:39:14.284879  4519 net.cpp:84] Creating Layer Convolution13
I1023 09:39:14.284883  4519 net.cpp:406] Convolution13 <- Eltwise5_penlu11_0_split_0
I1023 09:39:14.284888  4519 net.cpp:380] Convolution13 -> Convolution13
I1023 09:39:14.286000  4519 net.cpp:122] Setting up Convolution13
I1023 09:39:14.286010  4519 net.cpp:129] Top shape: 8 32 112 112 (3211264)
I1023 09:39:14.286015  4519 net.cpp:137] Memory required for data: 1340702752
I1023 09:39:14.286031  4519 layer_factory.hpp:77] Creating layer BatchNorm13
I1023 09:39:14.286044  4519 net.cpp:84] Creating Layer BatchNorm13
I1023 09:39:14.286048  4519 net.cpp:406] BatchNorm13 <- Convolution13
I1023 09:39:14.286053  4519 net.cpp:367] BatchNorm13 -> Convolution13 (in-place)
I1023 09:39:14.286206  4519 net.cpp:122] Setting up BatchNorm13
I1023 09:39:14.286212  4519 net.cpp:129] Top shape: 8 32 112 112 (3211264)
I1023 09:39:14.286216  4519 net.cpp:137] Memory required for data: 1353547808
I1023 09:39:14.286221  4519 layer_factory.hpp:77] Creating layer Scale13
I1023 09:39:14.286226  4519 net.cpp:84] Creating Layer Scale13
I1023 09:39:14.286228  4519 net.cpp:406] Scale13 <- Convolution13
I1023 09:39:14.286231  4519 net.cpp:367] Scale13 -> Convolution13 (in-place)
I1023 09:39:14.286260  4519 layer_factory.hpp:77] Creating layer Scale13
I1023 09:39:14.286350  4519 net.cpp:122] Setting up Scale13
I1023 09:39:14.286356  4519 net.cpp:129] Top shape: 8 32 112 112 (3211264)
I1023 09:39:14.286360  4519 net.cpp:137] Memory required for data: 1366392864
I1023 09:39:14.286363  4519 layer_factory.hpp:77] Creating layer penlu12
I1023 09:39:14.286370  4519 net.cpp:84] Creating Layer penlu12
I1023 09:39:14.286372  4519 net.cpp:406] penlu12 <- Convolution13
I1023 09:39:14.286376  4519 net.cpp:367] penlu12 -> Convolution13 (in-place)
I1023 09:39:14.287170  4519 net.cpp:122] Setting up penlu12
I1023 09:39:14.287180  4519 net.cpp:129] Top shape: 8 32 112 112 (3211264)
I1023 09:39:14.287183  4519 net.cpp:137] Memory required for data: 1379237920
I1023 09:39:14.287189  4519 layer_factory.hpp:77] Creating layer Convolution14
I1023 09:39:14.287196  4519 net.cpp:84] Creating Layer Convolution14
I1023 09:39:14.287200  4519 net.cpp:406] Convolution14 <- Convolution13
I1023 09:39:14.287204  4519 net.cpp:380] Convolution14 -> Convolution14
I1023 09:39:14.288321  4519 net.cpp:122] Setting up Convolution14
I1023 09:39:14.288333  4519 net.cpp:129] Top shape: 8 32 112 112 (3211264)
I1023 09:39:14.288337  4519 net.cpp:137] Memory required for data: 1392082976
I1023 09:39:14.288353  4519 layer_factory.hpp:77] Creating layer BatchNorm14
I1023 09:39:14.288373  4519 net.cpp:84] Creating Layer BatchNorm14
I1023 09:39:14.288378  4519 net.cpp:406] BatchNorm14 <- Convolution14
I1023 09:39:14.288390  4519 net.cpp:367] BatchNorm14 -> Convolution14 (in-place)
I1023 09:39:14.288540  4519 net.cpp:122] Setting up BatchNorm14
I1023 09:39:14.288545  4519 net.cpp:129] Top shape: 8 32 112 112 (3211264)
I1023 09:39:14.288558  4519 net.cpp:137] Memory required for data: 1404928032
I1023 09:39:14.288563  4519 layer_factory.hpp:77] Creating layer Scale14
I1023 09:39:14.288568  4519 net.cpp:84] Creating Layer Scale14
I1023 09:39:14.288570  4519 net.cpp:406] Scale14 <- Convolution14
I1023 09:39:14.288574  4519 net.cpp:367] Scale14 -> Convolution14 (in-place)
I1023 09:39:14.288610  4519 layer_factory.hpp:77] Creating layer Scale14
I1023 09:39:14.288720  4519 net.cpp:122] Setting up Scale14
I1023 09:39:14.288725  4519 net.cpp:129] Top shape: 8 32 112 112 (3211264)
I1023 09:39:14.288738  4519 net.cpp:137] Memory required for data: 1417773088
I1023 09:39:14.288741  4519 layer_factory.hpp:77] Creating layer Eltwise6
I1023 09:39:14.288746  4519 net.cpp:84] Creating Layer Eltwise6
I1023 09:39:14.288750  4519 net.cpp:406] Eltwise6 <- Eltwise5_penlu11_0_split_1
I1023 09:39:14.288753  4519 net.cpp:406] Eltwise6 <- Convolution14
I1023 09:39:14.288756  4519 net.cpp:380] Eltwise6 -> Eltwise6
I1023 09:39:14.288782  4519 net.cpp:122] Setting up Eltwise6
I1023 09:39:14.288786  4519 net.cpp:129] Top shape: 8 32 112 112 (3211264)
I1023 09:39:14.288789  4519 net.cpp:137] Memory required for data: 1430618144
I1023 09:39:14.288790  4519 layer_factory.hpp:77] Creating layer penlu13
I1023 09:39:14.288805  4519 net.cpp:84] Creating Layer penlu13
I1023 09:39:14.288808  4519 net.cpp:406] penlu13 <- Eltwise6
I1023 09:39:14.288811  4519 net.cpp:367] penlu13 -> Eltwise6 (in-place)
I1023 09:39:14.289635  4519 net.cpp:122] Setting up penlu13
I1023 09:39:14.289644  4519 net.cpp:129] Top shape: 8 32 112 112 (3211264)
I1023 09:39:14.289649  4519 net.cpp:137] Memory required for data: 1443463200
I1023 09:39:14.289664  4519 layer_factory.hpp:77] Creating layer Eltwise6_penlu13_0_split
I1023 09:39:14.289669  4519 net.cpp:84] Creating Layer Eltwise6_penlu13_0_split
I1023 09:39:14.289672  4519 net.cpp:406] Eltwise6_penlu13_0_split <- Eltwise6
I1023 09:39:14.289676  4519 net.cpp:380] Eltwise6_penlu13_0_split -> Eltwise6_penlu13_0_split_0
I1023 09:39:14.289681  4519 net.cpp:380] Eltwise6_penlu13_0_split -> Eltwise6_penlu13_0_split_1
I1023 09:39:14.289710  4519 net.cpp:122] Setting up Eltwise6_penlu13_0_split
I1023 09:39:14.289714  4519 net.cpp:129] Top shape: 8 32 112 112 (3211264)
I1023 09:39:14.289718  4519 net.cpp:129] Top shape: 8 32 112 112 (3211264)
I1023 09:39:14.289721  4519 net.cpp:137] Memory required for data: 1469153312
I1023 09:39:14.289723  4519 layer_factory.hpp:77] Creating layer Convolution15
I1023 09:39:14.289731  4519 net.cpp:84] Creating Layer Convolution15
I1023 09:39:14.289734  4519 net.cpp:406] Convolution15 <- Eltwise6_penlu13_0_split_0
I1023 09:39:14.289739  4519 net.cpp:380] Convolution15 -> Convolution15
I1023 09:39:14.290689  4519 net.cpp:122] Setting up Convolution15
I1023 09:39:14.290699  4519 net.cpp:129] Top shape: 8 64 56 56 (1605632)
I1023 09:39:14.290702  4519 net.cpp:137] Memory required for data: 1475575840
I1023 09:39:14.290707  4519 layer_factory.hpp:77] Creating layer BatchNorm15
I1023 09:39:14.290714  4519 net.cpp:84] Creating Layer BatchNorm15
I1023 09:39:14.290717  4519 net.cpp:406] BatchNorm15 <- Convolution15
I1023 09:39:14.290721  4519 net.cpp:367] BatchNorm15 -> Convolution15 (in-place)
I1023 09:39:14.290865  4519 net.cpp:122] Setting up BatchNorm15
I1023 09:39:14.290870  4519 net.cpp:129] Top shape: 8 64 56 56 (1605632)
I1023 09:39:14.290874  4519 net.cpp:137] Memory required for data: 1481998368
I1023 09:39:14.290879  4519 layer_factory.hpp:77] Creating layer Scale15
I1023 09:39:14.290884  4519 net.cpp:84] Creating Layer Scale15
I1023 09:39:14.290886  4519 net.cpp:406] Scale15 <- Convolution15
I1023 09:39:14.290890  4519 net.cpp:367] Scale15 -> Convolution15 (in-place)
I1023 09:39:14.290918  4519 layer_factory.hpp:77] Creating layer Scale15
I1023 09:39:14.291002  4519 net.cpp:122] Setting up Scale15
I1023 09:39:14.291007  4519 net.cpp:129] Top shape: 8 64 56 56 (1605632)
I1023 09:39:14.291010  4519 net.cpp:137] Memory required for data: 1488420896
I1023 09:39:14.291014  4519 layer_factory.hpp:77] Creating layer Convolution16
I1023 09:39:14.291023  4519 net.cpp:84] Creating Layer Convolution16
I1023 09:39:14.291026  4519 net.cpp:406] Convolution16 <- Eltwise6_penlu13_0_split_1
I1023 09:39:14.291030  4519 net.cpp:380] Convolution16 -> Convolution16
I1023 09:39:14.292321  4519 net.cpp:122] Setting up Convolution16
I1023 09:39:14.292332  4519 net.cpp:129] Top shape: 8 64 56 56 (1605632)
I1023 09:39:14.292335  4519 net.cpp:137] Memory required for data: 1494843424
I1023 09:39:14.292341  4519 layer_factory.hpp:77] Creating layer BatchNorm16
I1023 09:39:14.292346  4519 net.cpp:84] Creating Layer BatchNorm16
I1023 09:39:14.292351  4519 net.cpp:406] BatchNorm16 <- Convolution16
I1023 09:39:14.292354  4519 net.cpp:367] BatchNorm16 -> Convolution16 (in-place)
I1023 09:39:14.292495  4519 net.cpp:122] Setting up BatchNorm16
I1023 09:39:14.292501  4519 net.cpp:129] Top shape: 8 64 56 56 (1605632)
I1023 09:39:14.292503  4519 net.cpp:137] Memory required for data: 1501265952
I1023 09:39:14.292508  4519 layer_factory.hpp:77] Creating layer Scale16
I1023 09:39:14.292513  4519 net.cpp:84] Creating Layer Scale16
I1023 09:39:14.292516  4519 net.cpp:406] Scale16 <- Convolution16
I1023 09:39:14.292520  4519 net.cpp:367] Scale16 -> Convolution16 (in-place)
I1023 09:39:14.292548  4519 layer_factory.hpp:77] Creating layer Scale16
I1023 09:39:14.292634  4519 net.cpp:122] Setting up Scale16
I1023 09:39:14.292639  4519 net.cpp:129] Top shape: 8 64 56 56 (1605632)
I1023 09:39:14.292641  4519 net.cpp:137] Memory required for data: 1507688480
I1023 09:39:14.292645  4519 layer_factory.hpp:77] Creating layer penlu14
I1023 09:39:14.292651  4519 net.cpp:84] Creating Layer penlu14
I1023 09:39:14.292660  4519 net.cpp:406] penlu14 <- Convolution16
I1023 09:39:14.292665  4519 net.cpp:367] penlu14 -> Convolution16 (in-place)
I1023 09:39:14.292912  4519 net.cpp:122] Setting up penlu14
I1023 09:39:14.292917  4519 net.cpp:129] Top shape: 8 64 56 56 (1605632)
I1023 09:39:14.292920  4519 net.cpp:137] Memory required for data: 1514111008
I1023 09:39:14.292925  4519 layer_factory.hpp:77] Creating layer Convolution17
I1023 09:39:14.292933  4519 net.cpp:84] Creating Layer Convolution17
I1023 09:39:14.292937  4519 net.cpp:406] Convolution17 <- Convolution16
I1023 09:39:14.292940  4519 net.cpp:380] Convolution17 -> Convolution17
I1023 09:39:14.294288  4519 net.cpp:122] Setting up Convolution17
I1023 09:39:14.294296  4519 net.cpp:129] Top shape: 8 64 56 56 (1605632)
I1023 09:39:14.294301  4519 net.cpp:137] Memory required for data: 1520533536
I1023 09:39:14.294304  4519 layer_factory.hpp:77] Creating layer BatchNorm17
I1023 09:39:14.294309  4519 net.cpp:84] Creating Layer BatchNorm17
I1023 09:39:14.294312  4519 net.cpp:406] BatchNorm17 <- Convolution17
I1023 09:39:14.294317  4519 net.cpp:367] BatchNorm17 -> Convolution17 (in-place)
I1023 09:39:14.294458  4519 net.cpp:122] Setting up BatchNorm17
I1023 09:39:14.294463  4519 net.cpp:129] Top shape: 8 64 56 56 (1605632)
I1023 09:39:14.294466  4519 net.cpp:137] Memory required for data: 1526956064
I1023 09:39:14.294471  4519 layer_factory.hpp:77] Creating layer Scale17
I1023 09:39:14.294476  4519 net.cpp:84] Creating Layer Scale17
I1023 09:39:14.294479  4519 net.cpp:406] Scale17 <- Convolution17
I1023 09:39:14.294483  4519 net.cpp:367] Scale17 -> Convolution17 (in-place)
I1023 09:39:14.294510  4519 layer_factory.hpp:77] Creating layer Scale17
I1023 09:39:14.294595  4519 net.cpp:122] Setting up Scale17
I1023 09:39:14.294600  4519 net.cpp:129] Top shape: 8 64 56 56 (1605632)
I1023 09:39:14.294602  4519 net.cpp:137] Memory required for data: 1533378592
I1023 09:39:14.294606  4519 layer_factory.hpp:77] Creating layer Eltwise7
I1023 09:39:14.294610  4519 net.cpp:84] Creating Layer Eltwise7
I1023 09:39:14.294615  4519 net.cpp:406] Eltwise7 <- Convolution15
I1023 09:39:14.294616  4519 net.cpp:406] Eltwise7 <- Convolution17
I1023 09:39:14.294620  4519 net.cpp:380] Eltwise7 -> Eltwise7
I1023 09:39:14.294638  4519 net.cpp:122] Setting up Eltwise7
I1023 09:39:14.294643  4519 net.cpp:129] Top shape: 8 64 56 56 (1605632)
I1023 09:39:14.294646  4519 net.cpp:137] Memory required for data: 1539801120
I1023 09:39:14.294648  4519 layer_factory.hpp:77] Creating layer penlu15
I1023 09:39:14.294653  4519 net.cpp:84] Creating Layer penlu15
I1023 09:39:14.294656  4519 net.cpp:406] penlu15 <- Eltwise7
I1023 09:39:14.294661  4519 net.cpp:367] penlu15 -> Eltwise7 (in-place)
I1023 09:39:14.295378  4519 net.cpp:122] Setting up penlu15
I1023 09:39:14.295387  4519 net.cpp:129] Top shape: 8 64 56 56 (1605632)
I1023 09:39:14.295389  4519 net.cpp:137] Memory required for data: 1546223648
I1023 09:39:14.295394  4519 layer_factory.hpp:77] Creating layer Eltwise7_penlu15_0_split
I1023 09:39:14.295399  4519 net.cpp:84] Creating Layer Eltwise7_penlu15_0_split
I1023 09:39:14.295402  4519 net.cpp:406] Eltwise7_penlu15_0_split <- Eltwise7
I1023 09:39:14.295405  4519 net.cpp:380] Eltwise7_penlu15_0_split -> Eltwise7_penlu15_0_split_0
I1023 09:39:14.295410  4519 net.cpp:380] Eltwise7_penlu15_0_split -> Eltwise7_penlu15_0_split_1
I1023 09:39:14.295435  4519 net.cpp:122] Setting up Eltwise7_penlu15_0_split
I1023 09:39:14.295439  4519 net.cpp:129] Top shape: 8 64 56 56 (1605632)
I1023 09:39:14.295442  4519 net.cpp:129] Top shape: 8 64 56 56 (1605632)
I1023 09:39:14.295444  4519 net.cpp:137] Memory required for data: 1559068704
I1023 09:39:14.295447  4519 layer_factory.hpp:77] Creating layer Convolution18
I1023 09:39:14.295452  4519 net.cpp:84] Creating Layer Convolution18
I1023 09:39:14.295455  4519 net.cpp:406] Convolution18 <- Eltwise7_penlu15_0_split_0
I1023 09:39:14.295459  4519 net.cpp:380] Convolution18 -> Convolution18
I1023 09:39:14.297518  4519 net.cpp:122] Setting up Convolution18
I1023 09:39:14.297535  4519 net.cpp:129] Top shape: 8 64 56 56 (1605632)
I1023 09:39:14.297538  4519 net.cpp:137] Memory required for data: 1565491232
I1023 09:39:14.297544  4519 layer_factory.hpp:77] Creating layer BatchNorm18
I1023 09:39:14.297549  4519 net.cpp:84] Creating Layer BatchNorm18
I1023 09:39:14.297551  4519 net.cpp:406] BatchNorm18 <- Convolution18
I1023 09:39:14.297555  4519 net.cpp:367] BatchNorm18 -> Convolution18 (in-place)
I1023 09:39:14.297703  4519 net.cpp:122] Setting up BatchNorm18
I1023 09:39:14.297708  4519 net.cpp:129] Top shape: 8 64 56 56 (1605632)
I1023 09:39:14.297709  4519 net.cpp:137] Memory required for data: 1571913760
I1023 09:39:14.297714  4519 layer_factory.hpp:77] Creating layer Scale18
I1023 09:39:14.297720  4519 net.cpp:84] Creating Layer Scale18
I1023 09:39:14.297722  4519 net.cpp:406] Scale18 <- Convolution18
I1023 09:39:14.297725  4519 net.cpp:367] Scale18 -> Convolution18 (in-place)
I1023 09:39:14.297754  4519 layer_factory.hpp:77] Creating layer Scale18
I1023 09:39:14.297840  4519 net.cpp:122] Setting up Scale18
I1023 09:39:14.297844  4519 net.cpp:129] Top shape: 8 64 56 56 (1605632)
I1023 09:39:14.297847  4519 net.cpp:137] Memory required for data: 1578336288
I1023 09:39:14.297850  4519 layer_factory.hpp:77] Creating layer penlu16
I1023 09:39:14.297855  4519 net.cpp:84] Creating Layer penlu16
I1023 09:39:14.297858  4519 net.cpp:406] penlu16 <- Convolution18
I1023 09:39:14.297863  4519 net.cpp:367] penlu16 -> Convolution18 (in-place)
I1023 09:39:14.298060  4519 net.cpp:122] Setting up penlu16
I1023 09:39:14.298064  4519 net.cpp:129] Top shape: 8 64 56 56 (1605632)
I1023 09:39:14.298066  4519 net.cpp:137] Memory required for data: 1584758816
I1023 09:39:14.298071  4519 layer_factory.hpp:77] Creating layer Convolution19
I1023 09:39:14.298077  4519 net.cpp:84] Creating Layer Convolution19
I1023 09:39:14.298080  4519 net.cpp:406] Convolution19 <- Convolution18
I1023 09:39:14.298084  4519 net.cpp:380] Convolution19 -> Convolution19
I1023 09:39:14.300310  4519 net.cpp:122] Setting up Convolution19
I1023 09:39:14.300320  4519 net.cpp:129] Top shape: 8 64 56 56 (1605632)
I1023 09:39:14.300323  4519 net.cpp:137] Memory required for data: 1591181344
I1023 09:39:14.300328  4519 layer_factory.hpp:77] Creating layer BatchNorm19
I1023 09:39:14.300333  4519 net.cpp:84] Creating Layer BatchNorm19
I1023 09:39:14.300335  4519 net.cpp:406] BatchNorm19 <- Convolution19
I1023 09:39:14.300339  4519 net.cpp:367] BatchNorm19 -> Convolution19 (in-place)
I1023 09:39:14.300482  4519 net.cpp:122] Setting up BatchNorm19
I1023 09:39:14.300485  4519 net.cpp:129] Top shape: 8 64 56 56 (1605632)
I1023 09:39:14.300488  4519 net.cpp:137] Memory required for data: 1597603872
I1023 09:39:14.300493  4519 layer_factory.hpp:77] Creating layer Scale19
I1023 09:39:14.300496  4519 net.cpp:84] Creating Layer Scale19
I1023 09:39:14.300499  4519 net.cpp:406] Scale19 <- Convolution19
I1023 09:39:14.300503  4519 net.cpp:367] Scale19 -> Convolution19 (in-place)
I1023 09:39:14.300531  4519 layer_factory.hpp:77] Creating layer Scale19
I1023 09:39:14.300616  4519 net.cpp:122] Setting up Scale19
I1023 09:39:14.300621  4519 net.cpp:129] Top shape: 8 64 56 56 (1605632)
I1023 09:39:14.300622  4519 net.cpp:137] Memory required for data: 1604026400
I1023 09:39:14.300626  4519 layer_factory.hpp:77] Creating layer Eltwise8
I1023 09:39:14.300631  4519 net.cpp:84] Creating Layer Eltwise8
I1023 09:39:14.300632  4519 net.cpp:406] Eltwise8 <- Eltwise7_penlu15_0_split_1
I1023 09:39:14.300635  4519 net.cpp:406] Eltwise8 <- Convolution19
I1023 09:39:14.300638  4519 net.cpp:380] Eltwise8 -> Eltwise8
I1023 09:39:14.300655  4519 net.cpp:122] Setting up Eltwise8
I1023 09:39:14.300659  4519 net.cpp:129] Top shape: 8 64 56 56 (1605632)
I1023 09:39:14.300660  4519 net.cpp:137] Memory required for data: 1610448928
I1023 09:39:14.300663  4519 layer_factory.hpp:77] Creating layer penlu17
I1023 09:39:14.300668  4519 net.cpp:84] Creating Layer penlu17
I1023 09:39:14.300670  4519 net.cpp:406] penlu17 <- Eltwise8
I1023 09:39:14.300674  4519 net.cpp:367] penlu17 -> Eltwise8 (in-place)
I1023 09:39:14.301396  4519 net.cpp:122] Setting up penlu17
I1023 09:39:14.301404  4519 net.cpp:129] Top shape: 8 64 56 56 (1605632)
I1023 09:39:14.301406  4519 net.cpp:137] Memory required for data: 1616871456
I1023 09:39:14.301411  4519 layer_factory.hpp:77] Creating layer Eltwise8_penlu17_0_split
I1023 09:39:14.301416  4519 net.cpp:84] Creating Layer Eltwise8_penlu17_0_split
I1023 09:39:14.301419  4519 net.cpp:406] Eltwise8_penlu17_0_split <- Eltwise8
I1023 09:39:14.301422  4519 net.cpp:380] Eltwise8_penlu17_0_split -> Eltwise8_penlu17_0_split_0
I1023 09:39:14.301427  4519 net.cpp:380] Eltwise8_penlu17_0_split -> Eltwise8_penlu17_0_split_1
I1023 09:39:14.301453  4519 net.cpp:122] Setting up Eltwise8_penlu17_0_split
I1023 09:39:14.301457  4519 net.cpp:129] Top shape: 8 64 56 56 (1605632)
I1023 09:39:14.301460  4519 net.cpp:129] Top shape: 8 64 56 56 (1605632)
I1023 09:39:14.301462  4519 net.cpp:137] Memory required for data: 1629716512
I1023 09:39:14.301465  4519 layer_factory.hpp:77] Creating layer Convolution20
I1023 09:39:14.301471  4519 net.cpp:84] Creating Layer Convolution20
I1023 09:39:14.301475  4519 net.cpp:406] Convolution20 <- Eltwise8_penlu17_0_split_0
I1023 09:39:14.301478  4519 net.cpp:380] Convolution20 -> Convolution20
I1023 09:39:14.303871  4519 net.cpp:122] Setting up Convolution20
I1023 09:39:14.303880  4519 net.cpp:129] Top shape: 8 64 56 56 (1605632)
I1023 09:39:14.303882  4519 net.cpp:137] Memory required for data: 1636139040
I1023 09:39:14.303887  4519 layer_factory.hpp:77] Creating layer BatchNorm20
I1023 09:39:14.303894  4519 net.cpp:84] Creating Layer BatchNorm20
I1023 09:39:14.303895  4519 net.cpp:406] BatchNorm20 <- Convolution20
I1023 09:39:14.303900  4519 net.cpp:367] BatchNorm20 -> Convolution20 (in-place)
I1023 09:39:14.304064  4519 net.cpp:122] Setting up BatchNorm20
I1023 09:39:14.304069  4519 net.cpp:129] Top shape: 8 64 56 56 (1605632)
I1023 09:39:14.304070  4519 net.cpp:137] Memory required for data: 1642561568
I1023 09:39:14.304075  4519 layer_factory.hpp:77] Creating layer Scale20
I1023 09:39:14.304080  4519 net.cpp:84] Creating Layer Scale20
I1023 09:39:14.304082  4519 net.cpp:406] Scale20 <- Convolution20
I1023 09:39:14.304085  4519 net.cpp:367] Scale20 -> Convolution20 (in-place)
I1023 09:39:14.304113  4519 layer_factory.hpp:77] Creating layer Scale20
I1023 09:39:14.304198  4519 net.cpp:122] Setting up Scale20
I1023 09:39:14.304203  4519 net.cpp:129] Top shape: 8 64 56 56 (1605632)
I1023 09:39:14.304204  4519 net.cpp:137] Memory required for data: 1648984096
I1023 09:39:14.304208  4519 layer_factory.hpp:77] Creating layer penlu18
I1023 09:39:14.304214  4519 net.cpp:84] Creating Layer penlu18
I1023 09:39:14.304216  4519 net.cpp:406] penlu18 <- Convolution20
I1023 09:39:14.304219  4519 net.cpp:367] penlu18 -> Convolution20 (in-place)
I1023 09:39:14.304411  4519 net.cpp:122] Setting up penlu18
I1023 09:39:14.304416  4519 net.cpp:129] Top shape: 8 64 56 56 (1605632)
I1023 09:39:14.304419  4519 net.cpp:137] Memory required for data: 1655406624
I1023 09:39:14.304422  4519 layer_factory.hpp:77] Creating layer Convolution21
I1023 09:39:14.304430  4519 net.cpp:84] Creating Layer Convolution21
I1023 09:39:14.304431  4519 net.cpp:406] Convolution21 <- Convolution20
I1023 09:39:14.304435  4519 net.cpp:380] Convolution21 -> Convolution21
I1023 09:39:14.306103  4519 net.cpp:122] Setting up Convolution21
I1023 09:39:14.306113  4519 net.cpp:129] Top shape: 8 64 56 56 (1605632)
I1023 09:39:14.306114  4519 net.cpp:137] Memory required for data: 1661829152
I1023 09:39:14.306119  4519 layer_factory.hpp:77] Creating layer BatchNorm21
I1023 09:39:14.306124  4519 net.cpp:84] Creating Layer BatchNorm21
I1023 09:39:14.306128  4519 net.cpp:406] BatchNorm21 <- Convolution21
I1023 09:39:14.306131  4519 net.cpp:367] BatchNorm21 -> Convolution21 (in-place)
I1023 09:39:14.306274  4519 net.cpp:122] Setting up BatchNorm21
I1023 09:39:14.306279  4519 net.cpp:129] Top shape: 8 64 56 56 (1605632)
I1023 09:39:14.306282  4519 net.cpp:137] Memory required for data: 1668251680
I1023 09:39:14.306285  4519 layer_factory.hpp:77] Creating layer Scale21
I1023 09:39:14.306298  4519 net.cpp:84] Creating Layer Scale21
I1023 09:39:14.306300  4519 net.cpp:406] Scale21 <- Convolution21
I1023 09:39:14.306303  4519 net.cpp:367] Scale21 -> Convolution21 (in-place)
I1023 09:39:14.306332  4519 layer_factory.hpp:77] Creating layer Scale21
I1023 09:39:14.306416  4519 net.cpp:122] Setting up Scale21
I1023 09:39:14.306421  4519 net.cpp:129] Top shape: 8 64 56 56 (1605632)
I1023 09:39:14.306422  4519 net.cpp:137] Memory required for data: 1674674208
I1023 09:39:14.306427  4519 layer_factory.hpp:77] Creating layer Eltwise9
I1023 09:39:14.306432  4519 net.cpp:84] Creating Layer Eltwise9
I1023 09:39:14.306433  4519 net.cpp:406] Eltwise9 <- Eltwise8_penlu17_0_split_1
I1023 09:39:14.306437  4519 net.cpp:406] Eltwise9 <- Convolution21
I1023 09:39:14.306440  4519 net.cpp:380] Eltwise9 -> Eltwise9
I1023 09:39:14.306455  4519 net.cpp:122] Setting up Eltwise9
I1023 09:39:14.306459  4519 net.cpp:129] Top shape: 8 64 56 56 (1605632)
I1023 09:39:14.306462  4519 net.cpp:137] Memory required for data: 1681096736
I1023 09:39:14.306463  4519 layer_factory.hpp:77] Creating layer penlu19
I1023 09:39:14.306468  4519 net.cpp:84] Creating Layer penlu19
I1023 09:39:14.306471  4519 net.cpp:406] penlu19 <- Eltwise9
I1023 09:39:14.306474  4519 net.cpp:367] penlu19 -> Eltwise9 (in-place)
I1023 09:39:14.307169  4519 net.cpp:122] Setting up penlu19
I1023 09:39:14.307178  4519 net.cpp:129] Top shape: 8 64 56 56 (1605632)
I1023 09:39:14.307179  4519 net.cpp:137] Memory required for data: 1687519264
I1023 09:39:14.307184  4519 layer_factory.hpp:77] Creating layer Pooling1
I1023 09:39:14.307189  4519 net.cpp:84] Creating Layer Pooling1
I1023 09:39:14.307193  4519 net.cpp:406] Pooling1 <- Eltwise9
I1023 09:39:14.307195  4519 net.cpp:380] Pooling1 -> Pooling1
I1023 09:39:14.307346  4519 net.cpp:122] Setting up Pooling1
I1023 09:39:14.307353  4519 net.cpp:129] Top shape: 8 64 1 1 (512)
I1023 09:39:14.307354  4519 net.cpp:137] Memory required for data: 1687521312
I1023 09:39:14.307356  4519 layer_factory.hpp:77] Creating layer InnerProduct1
I1023 09:39:14.307365  4519 net.cpp:84] Creating Layer InnerProduct1
I1023 09:39:14.307368  4519 net.cpp:406] InnerProduct1 <- Pooling1
I1023 09:39:14.307371  4519 net.cpp:380] InnerProduct1 -> InnerProduct1
I1023 09:39:14.307469  4519 net.cpp:122] Setting up InnerProduct1
I1023 09:39:14.307473  4519 net.cpp:129] Top shape: 8 10 (80)
I1023 09:39:14.307476  4519 net.cpp:137] Memory required for data: 1687521632
I1023 09:39:14.307479  4519 layer_factory.hpp:77] Creating layer SoftmaxWithLoss1
I1023 09:39:14.307483  4519 net.cpp:84] Creating Layer SoftmaxWithLoss1
I1023 09:39:14.307485  4519 net.cpp:406] SoftmaxWithLoss1 <- InnerProduct1
I1023 09:39:14.307488  4519 net.cpp:406] SoftmaxWithLoss1 <- Data2
I1023 09:39:14.307493  4519 net.cpp:380] SoftmaxWithLoss1 -> SoftmaxWithLoss1
…
I1023 09:39:14.310117  4519 net.cpp:294] The NetState phase (1) differed from the phase (0) specified by a rule in layer Data1
I1023 09:39:14.310591  4519 net.cpp:51] Initializing net from parameters: 
name: "resnet"
state {
  phase: TEST
}
layer {
  name: "Data1"
  type: "Data"
  top: "Data1"
  top: "Data2"
  include {
    phase: TEST
  }
  transform_param {
    mirror: false
    crop_size: 224
    mean_file: "/home/x306/caffe/xn/English_orange/data/orange1_mean.binaryproto"
  }
  data_param {
    source: "/home/x306/caffe/xn/English_orange/data/val1_lmdb"
    batch_size: 8
    backend: LMDB
  }
}
layer {
  name: "Convolution1"
  type: "Convolution"
  bottom: "Data1"
  top: "Convolution1"
  param {
    lr_mult: 1
    decay_mult: 1
  }
  param {
    lr_mult: 2
    decay_mult: 0
  }
  convolution_param {
    num_output: 16
    pad: 1
    kernel_size: 3
    stride: 1
    weight_filler {
      type: "gaussian"
      std: 0.118
    }
    bias_filler {
      type: "constant"
      value: 0
    }
  }
}
layer {
  name: "BatchNorm1"
  type: "BatchNorm"
  bottom: "Convolution1"
  top: "Convolution1"
  param {
    lr_mult: 0
    decay_mult: 0
  }
  param {
    lr_mult: 0
    decay_mult: 0
  }
  param {
    lr_mult: 0
    decay_mult: 0
  }
}
layer {
  name: "Scale1"
  type: "Scale"
  bottom: "Convolution1"
  top: "Convolution1"
  scale_param {
    bias_term: true
  }
}
layer {
  name: "penlu1"
  type: "PENLU"
  bottom: "Convolution1"
  top: "Convolution1"
  param {
    lr_mult: 2
    decay_mult: 2
  }
  param {
    lr_mult: 2
    decay_mult: 2
  }
  param {
    lr_mult: 0
    decay_mult: 0
  }
  penlu_param {
    alpha_filler {
      type: "constant"
      value: 1
    }
    beta_filler {
      type: "constant"
      value: 1
    }
    eta_filler {
      type: "constant"
      value: 1
    }
  }
}
layer {
  name: "Convolution2"
  type: "Convolution"
  bottom: "Convolution1"
  top: "Convolution2"
  param {
    lr_mult: 1
    decay_mult: 1
  }
  param {
    lr_mult: 2
    decay_mult: 0
  }
  convolution_param {
    num_output: 16
    pad: 1
    kernel_size: 3
    stride: 1
    weight_filler {
      type: "gaussian"
      std: 0.118
    }
    bias_filler {
      type: "constant"
      value: 0
    }
  }
}
layer {
  name: "BatchNorm2"
  type: "BatchNorm"
  bottom: "Convolution2"
  top: "Convolution2"
  param {
    lr_mult: 0
    decay_mult: 0
  }
  param {
    lr_mult: 0
    decay_mult: 0
  }
  param {
    lr_mult: 0
    decay_mult: 0
  }
}
layer {
  name: "Scale2"
  type: "Scale"
  bottom: "Convolution2"
  top: "Convolution2"
  scale_param {
    bias_term: true
  }
}
layer {
  name: "penlu2"
  type: "PENLU"
  bottom: "Convolution2"
  top: "Convolution2"
  param {
    lr_mult: 2
    decay_mult: 2
  }
  param {
    lr_mult: 2
    decay_mult: 2
  }
  param {
    lr_mult: 0
    decay_mult: 0
  }
  penlu_param {
    alpha_filler {
      type: "constant"
      value: 1
    }
    beta_filler {
      type: "constant"
      value: 1
    }
    eta_filler {
      type: "constant"
      value: 1
    }
  }
}
layer {
  name: "Convolution3"
  type: "Convolution"
  bottom: "Convolution2"
  top: "Convolution3"
  param {
    lr_mult: 1
    decay_mult: 1
  }
  param {
    lr_mult: 2
    decay_mult: 0
  }
  convolution_param {
    num_output: 16
    pad: 1
    kernel_size: 3
    stride: 1
    weight_filler {
      type: "gaussian"
      std: 0.118
    }
    bias_filler {
      type: "constant"
      value: 0
    }
  }
}
layer {
  name: "BatchNorm3"
  type: "BatchNorm"
  bottom: "Convolution3"
  top: "Convolution3"
  param {
    lr_mult: 0
    decay_mult: 0
  }
  param {
    lr_mult: 0
    decay_mult: 0
  }
  param {
    lr_mult: 0
    decay_mult: 0
  }
}
layer {
  name: "Scale3"
  type: "Scale"
  bottom: "Convolution3"
  top: "Convolution3"
  scale_param {
    bias_term: true
  }
}
layer {
  name: "Eltwise1"
  type: "Eltwise"
  bottom: "Convolution1"
  bottom: "Convolution3"
  top: "Eltwise1"
  eltwise_param {
    operation: SUM
  }
}
layer {
  name: "penlu3"
  type: "PENLU"
  bottom: "Eltwise1"
  top: "Eltwise1"
  param {
    lr_mult: 2
    decay_mult: 2
  }
  param {
    lr_mult: 2
    decay_mult: 2
  }
  param {
    lr_mult: 0
    decay_mult: 0
  }
  penlu_param {
    alpha_filler {
      type: "constant"
      value: 1
    }
    beta_filler {
      type: "constant"
      value: 1
    }
    eta_filler {
      type: "constant"
      value: 1
    }
  }
}
layer {
  name: "Convolution4"
  type: "Convolution"
  bottom: "Eltwise1"
  top: "Convolution4"
  param {
    lr_mult: 1
    decay_mult: 1
  }
  param {
    lr_mult: 2
    decay_mult: 0
  }
  convolution_param {
    num_output: 16
    pad: 1
    kernel_size: 3
    stride: 1
    weight_filler {
      type: "gaussian"
      std: 0.118
    }
    bias_filler {
      type: "constant"
      value: 0
    }
  }
}
layer {
  name: "BatchNorm4"
  type: "BatchNorm"
  bottom: "Convolution4"
  top: "Convolution4"
  param {
    lr_mult: 0
    decay_mult: 0
  }
  param {
    lr_mult: 0
    decay_mult: 0
  }
  param {
    lr_mult: 0
    decay_mult: 0
  }
}
layer {
  name: "Scale4"
  type: "Scale"
  bottom: "Convolution4"
  top: "Convolution4"
  scale_param {
    bias_term: true
  }
}
layer {
  name: "penlu4"
  type: "PENLU"
  bottom: "Convolution4"
  top: "Convolution4"
  param {
    lr_mult: 2
    decay_mult: 2
  }
  param {
    lr_mult: 2
    decay_mult: 2
  }
  param {
    lr_mult: 0
    decay_mult: 0
  }
  penlu_param {
    alpha_filler {
      type: "constant"
      value: 1
    }
    beta_filler {
      type: "constant"
      value: 1
    }
    eta_filler {
      type: "constant"
      value: 1
    }
  }
}
layer {
  name: "Convolution5"
  type: "Convolution"
  bottom: "Convolution4"
  top: "Convolution5"
  param {
    lr_mult: 1
    decay_mult: 1
  }
  param {
    lr_mult: 2
    decay_mult: 0
  }
  convolution_param {
    num_output: 16
    pad: 1
    kernel_size: 3
    stride: 1
    weight_filler {
      type: "gaussian"
      std: 0.118
    }
    bias_filler {
      type: "constant"
      value: 0
    }
  }
}
layer {
  name: "BatchNorm5"
  type: "BatchNorm"
  bottom: "Convolution5"
  top: "Convolution5"
  param {
    lr_mult: 0
    decay_mult: 0
  }
  param {
    lr_mult: 0
    decay_mult: 0
  }
  param {
    lr_mult: 0
    decay_mult: 0
  }
}
layer {
  name: "Scale5"
  type: "Scale"
  bottom: "Convolution5"
  top: "Convolution5"
  scale_param {
    bias_term: true
  }
}
layer {
  name: "Eltwise2"
  type: "Eltwise"
  bottom: "Eltwise1"
  bottom: "Convolution5"
  top: "Eltwise2"
  eltwise_param {
    operation: SUM
  }
}
layer {
  name: "penlu5"
  type: "PENLU"
  bottom: "Eltwise2"
  top: "Eltwise2"
  param {
    lr_mult: 2
    decay_mult: 2
  }
  param {
    lr_mult: 2
    decay_mult: 2
  }
  param {
    lr_mult: 0
    decay_mult: 0
  }
  penlu_param {
    alpha_filler {
      type: "constant"
      value: 1
    }
    beta_filler {
      type: "constant"
      value: 1
    }
    eta_filler {
      type: "constant"
      value: 1
    }
  }
}
layer {
  name: "Convolution6"
  type: "Convolution"
  bottom: "Eltwise2"
  top: "Convolution6"
  param {
    lr_mult: 1
    decay_mult: 1
  }
  param {
    lr_mult: 2
    decay_mult: 0
  }
  convolution_param {
    num_output: 16
    pad: 1
    kernel_size: 3
    stride: 1
    weight_filler {
      type: "gaussian"
      std: 0.118
    }
    bias_filler {
      type: "constant"
      value: 0
    }
  }
}
layer {
  name: "BatchNorm6"
  type: "BatchNorm"
  bottom: "Convolution6"
  top: "Convolution6"
  param {
    lr_mult: 0
    decay_mult: 0
  }
  param {
    lr_mult: 0
    decay_mult: 0
  }
  param {
    lr_mult: 0
    decay_mult: 0
  }
}
layer {
  name: "Scale6"
  type: "Scale"
  bottom: "Convolution6"
  top: "Convolution6"
  scale_param {
    bias_term: true
  }
}
layer {
  name: "penlu6"
  type: "PENLU"
  bottom: "Convolution6"
  top: "Convolution6"
  param {
    lr_mult: 2
    decay_mult: 2
  }
  param {
    lr_mult: 2
    decay_mult: 2
  }
  param {
    lr_mult: 0
    decay_mult: 0
  }
  penlu_param {
    alpha_filler {
      type: "constant"
      value: 1
    }
    beta_filler {
      type: "constant"
      value: 1
    }
    eta_filler {
      type: "constant"
      value: 1
    }
  }
}
layer {
  name: "Convolution7"
  type: "Convolution"
  bottom: "Convolution6"
  top: "Convolution7"
  param {
    lr_mult: 1
    decay_mult: 1
  }
  param {
    lr_mult: 2
    decay_mult: 0
  }
  convolution_param {
    num_output: 16
    pad: 1
    kernel_size: 3
    stride: 1
    weight_filler {
      type: "gaussian"
      std: 0.118
    }
    bias_filler {
      type: "constant"
      value: 0
    }
  }
}
layer {
  name: "BatchNorm7"
  type: "BatchNorm"
  bottom: "Convolution7"
  top: "Convolution7"
  param {
    lr_mult: 0
    decay_mult: 0
  }
  param {
    lr_mult: 0
    decay_mult: 0
  }
  param {
    lr_mult: 0
    decay_mult: 0
  }
}
layer {
  name: "Scale7"
  type: "Scale"
  bottom: "Convolution7"
  top: "Convolution7"
  scale_param {
    bias_term: true
  }
}
layer {
  name: "Eltwise3"
  type: "Eltwise"
  bottom: "Eltwise2"
  bottom: "Convolution7"
  top: "Eltwise3"
  eltwise_param {
    operation: SUM
  }
}
layer {
  name: "penlu7"
  type: "PENLU"
  bottom: "Eltwise3"
  top: "Eltwise3"
  param {
    lr_mult: 2
    decay_mult: 2
  }
  param {
    lr_mult: 2
    decay_mult: 2
  }
  param {
    lr_mult: 0
    decay_mult: 0
  }
  penlu_param {
    alpha_filler {
      type: "constant"
      value: 1
    }
    beta_filler {
      type: "constant"
      value: 1
    }
    eta_filler {
      type: "constant"
      value: 1
    }
  }
}
layer {
  name: "Convolution8"
  type: "Convolution"
  bottom: "Eltwise3"
  top: "Convolution8"
  param {
    lr_mult: 1
    decay_mult: 1
  }
  param {
    lr_mult: 2
    decay_mult: 0
  }
  convolution_param {
    num_output: 32
    pad: 0
    kernel_size: 1
    stride: 2
    weight_filler {
      type: "gaussian"
      std: 0.25
    }
    bias_filler {
      type: "constant"
      value: 0
    }
  }
}
layer {
  name: "BatchNorm8"
  type: "BatchNorm"
  bottom: "Convolution8"
  top: "Convolution8"
  param {
    lr_mult: 0
    decay_mult: 0
  }
  param {
    lr_mult: 0
    decay_mult: 0
  }
  param {
    lr_mult: 0
    decay_mult: 0
  }
}
layer {
  name: "Scale8"
  type: "Scale"
  bottom: "Convolution8"
  top: "Convolution8"
  scale_param {
    bias_term: true
  }
}
layer {
  name: "Convolution9"
  type: "Convolution"
  bottom: "Eltwise3"
  top: "Convolution9"
  param {
    lr_mult: 1
    decay_mult: 1
  }
  param {
    lr_mult: 2
    decay_mult: 0
  }
  convolution_param {
    num_output: 32
    pad: 1
    kernel_size: 3
    stride: 2
    weight_filler {
      type: "gaussian"
      std: 0.083
    }
    bias_filler {
      type: "constant"
      value: 0
    }
  }
}
layer {
  name: "BatchNorm9"
  type: "BatchNorm"
  bottom: "Convolution9"
  top: "Convolution9"
  param {
    lr_mult: 0
    decay_mult: 0
  }
  param {
    lr_mult: 0
    decay_mult: 0
  }
  param {
    lr_mult: 0
    decay_mult: 0
  }
}
layer {
  name: "Scale9"
  type: "Scale"
  bottom: "Convolution9"
  top: "Convolution9"
  scale_param {
    bias_term: true
  }
}
layer {
  name: "penlu8"
  type: "PENLU"
  bottom: "Convolution9"
  top: "Convolution9"
  param {
    lr_mult: 2
    decay_mult: 2
  }
  param {
    lr_mult: 2
    decay_mult: 2
  }
  param {
    lr_mult: 0
    decay_mult: 0
  }
  penlu_param {
    alpha_filler {
      type: "constant"
      value: 1
    }
    beta_filler {
      type: "constant"
      value: 1
    }
    eta_filler {
      type: "constant"
      value: 1
    }
  }
}
layer {
  name: "Convolution10"
  type: "Convolution"
  bottom: "Convolution9"
  top: "Convolution10"
  param {
    lr_mult: 1
    decay_mult: 1
  }
  param {
    lr_mult: 2
    decay_mult: 0
  }
  convolution_param {
    num_output: 32
    pad: 1
    kernel_size: 3
    stride: 1
    weight_filler {
      type: "gaussian"
      std: 0.083
    }
    bias_filler {
      type: "constant"
      value: 0
    }
  }
}
layer {
  name: "BatchNorm10"
  type: "BatchNorm"
  bottom: "Convolution10"
  top: "Convolution10"
  param {
    lr_mult: 0
    decay_mult: 0
  }
  param {
    lr_mult: 0
    decay_mult: 0
  }
  param {
    lr_mult: 0
    decay_mult: 0
  }
}
layer {
  name: "Scale10"
  type: "Scale"
  bottom: "Convolution10"
  top: "Convolution10"
  scale_param {
    bias_term: true
  }
}
layer {
  name: "Eltwise4"
  type: "Eltwise"
  bottom: "Convolution8"
  bottom: "Convolution10"
  top: "Eltwise4"
  eltwise_param {
    operation: SUM
  }
}
layer {
  name: "penlu9"
  type: "PENLU"
  bottom: "Eltwise4"
  top: "Eltwise4"
  param {
    lr_mult: 2
    decay_mult: 2
  }
  param {
    lr_mult: 2
    decay_mult: 2
  }
  param {
    lr_mult: 0
    decay_mult: 0
  }
  penlu_param {
    alpha_filler {
      type: "constant"
      value: 1
    }
    beta_filler {
      type: "constant"
      value: 1
    }
    eta_filler {
      type: "constant"
      value: 1
    }
  }
}
layer {
  name: "Convolution11"
  type: "Convolution"
  bottom: "Eltwise4"
  top: "Convolution11"
  param {
    lr_mult: 1
    decay_mult: 1
  }
  param {
    lr_mult: 2
    decay_mult: 0
  }
  convolution_param {
    num_output: 32
    pad: 1
    kernel_size: 3
    stride: 1
    weight_filler {
      type: "gaussian"
      std: 0.083
    }
    bias_filler {
      type: "constant"
      value: 0
    }
  }
}
layer {
  name: "BatchNorm11"
  type: "BatchNorm"
  bottom: "Convolution11"
  top: "Convolution11"
  param {
    lr_mult: 0
    decay_mult: 0
  }
  param {
    lr_mult: 0
    decay_mult: 0
  }
  param {
    lr_mult: 0
    decay_mult: 0
  }
}
layer {
  name: "Scale11"
  type: "Scale"
  bottom: "Convolution11"
  top: "Convolution11"
  scale_param {
    bias_term: true
  }
}
layer {
  name: "penlu10"
  type: "PENLU"
  bottom: "Convolution11"
  top: "Convolution11"
  param {
    lr_mult: 2
    decay_mult: 2
  }
  param {
    lr_mult: 2
    decay_mult: 2
  }
  param {
    lr_mult: 0
    decay_mult: 0
  }
  penlu_param {
    alpha_filler {
      type: "constant"
      value: 1
    }
    beta_filler {
      type: "constant"
      value: 1
    }
    eta_filler {
      type: "constant"
      value: 1
    }
  }
}
layer {
  name: "Convolution12"
  type: "Convolution"
  bottom: "Convolution11"
  top: "Convolution12"
  param {
    lr_mult: 1
    decay_mult: 1
  }
  param {
    lr_mult: 2
    decay_mult: 0
  }
  convolution_param {
    num_output: 32
    pad: 1
    kernel_size: 3
    stride: 1
    weight_filler {
      type: "gaussian"
      std: 0.083
    }
    bias_filler {
      type: "constant"
      value: 0
    }
  }
}
layer {
  name: "BatchNorm12"
  type: "BatchNorm"
  bottom: "Convolution12"
  top: "Convolution12"
  param {
    lr_mult: 0
    decay_mult: 0
  }
  param {
    lr_mult: 0
    decay_mult: 0
  }
  param {
    lr_mult: 0
    decay_mult: 0
  }
}
layer {
  name: "Scale12"
  type: "Scale"
  bottom: "Convolution12"
  top: "Convolution12"
  scale_param {
    bias_term: true
  }
}
layer {
  name: "Eltwise5"
  type: "Eltwise"
  bottom: "Eltwise4"
  bottom: "Convolution12"
  top: "Eltwise5"
  eltwise_param {
    operation: SUM
  }
}
layer {
  name: "penlu11"
  type: "PENLU"
  bottom: "Eltwise5"
  top: "Eltwise5"
  param {
    lr_mult: 2
    decay_mult: 2
  }
  param {
    lr_mult: 2
    decay_mult: 2
  }
  param {
    lr_mult: 0
    decay_mult: 0
  }
  penlu_param {
    alpha_filler {
      type: "constant"
      value: 1
    }
    beta_filler {
      type: "constant"
      value: 1
    }
    eta_filler {
      type: "constant"
      value: 1
    }
  }
}
layer {
  name: "Convolution13"
  type: "Convolution"
  bottom: "Eltwise5"
  top: "Convolution13"
  param {
    lr_mult: 1
    decay_mult: 1
  }
  param {
    lr_mult: 2
    decay_mult: 0
  }
  convolution_param {
    num_output: 32
    pad: 1
    kernel_size: 3
    stride: 1
    weight_filler {
      type: "gaussian"
      std: 0.083
    }
    bias_filler {
      type: "constant"
      value: 0
    }
  }
}
layer {
  name: "BatchNorm13"
  type: "BatchNorm"
  bottom: "Convolution13"
  top: "Convolution13"
  param {
    lr_mult: 0
    decay_mult: 0
  }
  param {
    lr_mult: 0
    decay_mult: 0
  }
  param {
    lr_mult: 0
    decay_mult: 0
  }
}
layer {
  name: "Scale13"
  type: "Scale"
  bottom: "Convolution13"
  top: "Convolution13"
  scale_param {
    bias_term: true
  }
}
layer {
  name: "penlu12"
  type: "PENLU"
  bottom: "Convolution13"
  top: "Convolution13"
  param {
    lr_mult: 2
    decay_mult: 2
  }
  param {
    lr_mult: 2
    decay_mult: 2
  }
  param {
    lr_mult: 0
    decay_mult: 0
  }
  penlu_param {
    alpha_filler {
      type: "constant"
      value: 1
    }
    beta_filler {
      type: "constant"
      value: 1
    }
    eta_filler {
      type: "constant"
      value: 1
    }
  }
}
layer {
  name: "Convolution14"
  type: "Convolution"
  bottom: "Convolution13"
  top: "Convolution14"
  param {
    lr_mult: 1
    decay_mult: 1
  }
  param {
    lr_mult: 2
    decay_mult: 0
  }
  convolution_param {
    num_output: 32
    pad: 1
    kernel_size: 3
    stride: 1
    weight_filler {
      type: "gaussian"
      std: 0.083
    }
    bias_filler {
      type: "constant"
      value: 0
    }
  }
}
layer {
  name: "BatchNorm14"
  type: "BatchNorm"
  bottom: "Convolution14"
  top: "Convolution14"
  param {
    lr_mult: 0
    decay_mult: 0
  }
  param {
    lr_mult: 0
    decay_mult: 0
  }
  param {
    lr_mult: 0
    decay_mult: 0
  }
}
layer {
  name: "Scale14"
  type: "Scale"
  bottom: "Convolution14"
  top: "Convolution14"
  scale_param {
    bias_term: true
  }
}
layer {
  name: "Eltwise6"
  type: "Eltwise"
  bottom: "Eltwise5"
  bottom: "Convolution14"
  top: "Eltwise6"
  eltwise_param {
    operation: SUM
  }
}
layer {
  name: "penlu13"
  type: "PENLU"
  bottom: "Eltwise6"
  top: "Eltwise6"
  param {
    lr_mult: 2
    decay_mult: 2
  }
  param {
    lr_mult: 2
    decay_mult: 2
  }
  param {
    lr_mult: 0
    decay_mult: 0
  }
  penlu_param {
    alpha_filler {
      type: "constant"
      value: 1
    }
    beta_filler {
      type: "constant"
      value: 1
    }
    eta_filler {
      type: "constant"
      value: 1
    }
  }
}
layer {
  name: "Convolution15"
  type: "Convolution"
  bottom: "Eltwise6"
  top: "Convolution15"
  param {
    lr_mult: 1
    decay_mult: 1
  }
  param {
    lr_mult: 2
    decay_mult: 0
  }
  convolution_param {
    num_output: 64
    pad: 0
    kernel_size: 1
    stride: 2
    weight_filler {
      type: "gaussian"
      std: 0.17677669
    }
    bias_filler {
      type: "constant"
      value: 0
    }
  }
}
layer {
  name: "BatchNorm15"
  type: "BatchNorm"
  bottom: "Convolution15"
  top: "Convolution15"
  param {
    lr_mult: 0
    decay_mult: 0
  }
  param {
    lr_mult: 0
    decay_mult: 0
  }
  param {
    lr_mult: 0
    decay_mult: 0
  }
}
layer {
  name: "Scale15"
  type: "Scale"
  bottom: "Convolution15"
  top: "Convolution15"
  scale_param {
    bias_term: true
  }
}
layer {
  name: "Convolution16"
  type: "Convolution"
  bottom: "Eltwise6"
  top: "Convolution16"
  param {
    lr_mult: 1
    decay_mult: 1
  }
  param {
    lr_mult: 2
    decay_mult: 0
  }
  convolution_param {
    num_output: 64
    pad: 1
    kernel_size: 3
    stride: 2
    weight_filler {
      type: "gaussian"
      std: 0.059
    }
    bias_filler {
      type: "constant"
      value: 0
    }
  }
}
layer {
  name: "BatchNorm16"
  type: "BatchNorm"
  bottom: "Convolution16"
  top: "Convolution16"
  param {
    lr_mult: 0
    decay_mult: 0
  }
  param {
    lr_mult: 0
    decay_mult: 0
  }
  param {
    lr_mult: 0
    decay_mult: 0
  }
}
layer {
  name: "Scale16"
  type: "Scale"
  bottom: "Convolution16"
  top: "Convolution16"
  scale_param {
    bias_term: true
  }
}
layer {
  name: "penlu14"
  type: "PENLU"
  bottom: "Convolution16"
  top: "Convolution16"
  param {
    lr_mult: 2
    decay_mult: 2
  }
  param {
    lr_mult: 2
    decay_mult: 2
  }
  param {
    lr_mult: 0
    decay_mult: 0
  }
  penlu_param {
    alpha_filler {
      type: "constant"
      value: 1
    }
    beta_filler {
      type: "constant"
      value: 1
    }
    eta_filler {
      type: "constant"
      value: 1
    }
  }
}
layer {
  name: "Convolution17"
  type: "Convolution"
  bottom: "Convolution16"
  top: "Convolution17"
  param {
    lr_mult: 1
    decay_mult: 1
  }
  param {
    lr_mult: 2
    decay_mult: 0
  }
  convolution_param {
    num_output: 64
    pad: 1
    kernel_size: 3
    stride: 1
    weight_filler {
      type: "gaussian"
      std: 0.059
    }
    bias_filler {
      type: "constant"
      value: 0
    }
  }
}
layer {
  name: "BatchNorm17"
  type: "BatchNorm"
  bottom: "Convolution17"
  top: "Convolution17"
  param {
    lr_mult: 0
    decay_mult: 0
  }
  param {
    lr_mult: 0
    decay_mult: 0
  }
  param {
    lr_mult: 0
    decay_mult: 0
  }
}
layer {
  name: "Scale17"
  type: "Scale"
  bottom: "Convolution17"
  top: "Convolution17"
  scale_param {
    bias_term: true
  }
}
layer {
  name: "Eltwise7"
  type: "Eltwise"
  bottom: "Convolution15"
  bottom: "Convolution17"
  top: "Eltwise7"
  eltwise_param {
    operation: SUM
  }
}
layer {
  name: "penlu15"
  type: "PENLU"
  bottom: "Eltwise7"
  top: "Eltwise7"
  param {
    lr_mult: 2
    decay_mult: 2
  }
  param {
    lr_mult: 2
    decay_mult: 2
  }
  param {
    lr_mult: 0
    decay_mult: 0
  }
  penlu_param {
    alpha_filler {
      type: "constant"
      value: 1
    }
    beta_filler {
      type: "constant"
      value: 1
    }
    eta_filler {
      type: "constant"
      value: 1
    }
  }
}
layer {
  name: "Convolution18"
  type: "Convolution"
  bottom: "Eltwise7"
  top: "Convolution18"
  param {
    lr_mult: 1
    decay_mult: 1
  }
  param {
    lr_mult: 2
    decay_mult: 0
  }
  convolution_param {
    num_output: 64
    pad: 1
    kernel_size: 3
    stride: 1
    weight_filler {
      type: "gaussian"
      std: 0.059
    }
    bias_filler {
      type: "constant"
      value: 0
    }
  }
}
layer {
  name: "BatchNorm18"
  type: "BatchNorm"
  bottom: "Convolution18"
  top: "Convolution18"
  param {
    lr_mult: 0
    decay_mult: 0
  }
  param {
    lr_mult: 0
    decay_mult: 0
  }
  param {
    lr_mult: 0
    decay_mult: 0
  }
}
layer {
  name: "Scale18"
  type: "Scale"
  bottom: "Convolution18"
  top: "Convolution18"
  scale_param {
    bias_term: true
  }
}
layer {
  name: "penlu16"
  type: "PENLU"
  bottom: "Convolution18"
  top: "Convolution18"
  param {
    lr_mult: 2
    decay_mult: 2
  }
  param {
    lr_mult: 2
    decay_mult: 2
  }
  param {
    lr_mult: 0
    decay_mult: 0
  }
  penlu_param {
    alpha_filler {
      type: "constant"
      value: 1
    }
    beta_filler {
      type: "constant"
      value: 1
    }
    eta_filler {
      type: "constant"
      value: 1
    }
  }
}
layer {
  name: "Convolution19"
  type: "Convolution"
  bottom: "Convolution18"
  top: "Convolution19"
  param {
    lr_mult: 1
    decay_mult: 1
  }
  param {
    lr_mult: 2
    decay_mult: 0
  }
  convolution_param {
    num_output: 64
    pad: 1
    kernel_size: 3
    stride: 1
    weight_filler {
      type: "gaussian"
      std: 0.059
    }
    bias_filler {
      type: "constant"
      value: 0
    }
  }
}
layer {
  name: "BatchNorm19"
  type: "BatchNorm"
  bottom: "Convolution19"
  top: "Convolution19"
  param {
    lr_mult: 0
    decay_mult: 0
  }
  param {
    lr_mult: 0
    decay_mult: 0
  }
  param {
    lr_mult: 0
    decay_mult: 0
  }
}
layer {
  name: "Scale19"
  type: "Scale"
  bottom: "Convolution19"
  top: "Convolution19"
  scale_param {
    bias_term: true
  }
}
layer {
  name: "Eltwise8"
  type: "Eltwise"
  bottom: "Eltwise7"
  bottom: "Convolution19"
  top: "Eltwise8"
  eltwise_param {
    operation: SUM
  }
}
layer {
  name: "penlu17"
  type: "PENLU"
  bottom: "Eltwise8"
  top: "Eltwise8"
  param {
    lr_mult: 2
    decay_mult: 2
  }
  param {
    lr_mult: 2
    decay_mult: 2
  }
  param {
    lr_mult: 0
    decay_mult: 0
  }
  penlu_param {
    alpha_filler {
      type: "constant"
      value: 1
    }
    beta_filler {
      type: "constant"
      value: 1
    }
    eta_filler {
      type: "constant"
      value: 1
    }
  }
}
layer {
  name: "Convolution20"
  type: "Convolution"
  bottom: "Eltwise8"
  top: "Convolution20"
  param {
    lr_mult: 1
    decay_mult: 1
  }
  param {
    lr_mult: 2
    decay_mult: 0
  }
  convolution_param {
    num_output: 64
    pad: 1
    kernel_size: 3
    stride: 1
    weight_filler {
      type: "gaussian"
      std: 0.059
    }
    bias_filler {
      type: "constant"
      value: 0
    }
  }
}
layer {
  name: "BatchNorm20"
  type: "BatchNorm"
  bottom: "Convolution20"
  top: "Convolution20"
  param {
    lr_mult: 0
    decay_mult: 0
  }
  param {
    lr_mult: 0
    decay_mult: 0
  }
  param {
    lr_mult: 0
    decay_mult: 0
  }
}
layer {
  name: "Scale20"
  type: "Scale"
  bottom: "Convolution20"
  top: "Convolution20"
  scale_param {
    bias_term: true
  }
}
layer {
  name: "penlu18"
  type: "PENLU"
  bottom: "Convolution20"
  top: "Convolution20"
  param {
    lr_mult: 2
    decay_mult: 2
  }
  param {
    lr_mult: 2
    decay_mult: 2
  }
  param {
    lr_mult: 0
    decay_mult: 0
  }
  penlu_param {
    alpha_filler {
      type: "constant"
      value: 1
    }
    beta_filler {
      type: "constant"
      value: 1
    }
    eta_filler {
      type: "constant"
      value: 1
    }
  }
}
layer {
  name: "Convolution21"
  type: "Convolution"
  bottom: "Convolution20"
  top: "Convolution21"
  param {
    lr_mult: 1
    decay_mult: 1
  }
  param {
    lr_mult: 2
    decay_mult: 0
  }
  convolution_param {
    num_output: 64
    pad: 1
    kernel_size: 3
    stride: 1
    weight_filler {
      type: "gaussian"
      std: 0.059
    }
    bias_filler {
      type: "constant"
      value: 0
    }
  }
}
layer {
  name: "BatchNorm21"
  type: "BatchNorm"
  bottom: "Convolution21"
  top: "Convolution21"
  param {
    lr_mult: 0
    decay_mult: 0
  }
  param {
    lr_mult: 0
    decay_mult: 0
  }
  param {
    lr_mult: 0
    decay_mult: 0
  }
}
layer {
  name: "Scale21"
  type: "Scale"
  bottom: "Convolution21"
  top: "Convolution21"
  scale_param {
    bias_term: true
  }
}
layer {
  name: "Eltwise9"
  type: "Eltwise"
  bottom: "Eltwise8"
  bottom: "Convolution21"
  top: "Eltwise9"
  eltwise_param {
    operation: SUM
  }
}
layer {
  name: "penlu19"
  type: "PENLU"
  bottom: "Eltwise9"
  top: "Eltwise9"
  param {
    lr_mult: 2
    decay_mult: 2
  }
  param {
    lr_mult: 2
    decay_mult: 2
  }
  param {
    lr_mult: 0
    decay_mult: 0
  }
  penlu_param {
    alpha_filler {
      type: "constant"
      value: 1
    }
    beta_filler {
      type: "constant"
      value: 1
    }
    eta_filler {
      type: "constant"
      value: 1
    }
  }
}
layer {
  name: "Pooling1"
  type: "Pooling"
  bottom: "Eltwise9"
  top: "Pooling1"
  pooling_param {
    pool: AVE
    global_pooling: true
  }
}
layer {
  name: "InnerProduct1"
  type: "InnerProduct"
  bottom: "Pooling1"
  top: "InnerProduct1"
  param {
    lr_mult: 1
    decay_mult: 1
  }
  param {
    lr_mult: 2
    decay_mult: 1
  }
  inner_product_param {
    num_output: 10
    weight_filler {
      type: "gaussian"
      std: 0.01
    }
    bias_filler {
      type: "constant"
      value: 0
    }
  }
}
layer {
  name: "SoftmaxWithLoss1"
  type: "SoftmaxWithLoss"
  bottom: "InnerProduct1"
  bottom: "Data2"
  top: "SoftmaxWithLoss1"
}
layer {
  name: "Accuracy1"
  type: "Accuracy"
  bottom: "InnerProduct1"
  bottom: "Data2"
  top: "Accuracy1"
  include {
    phase: TEST
  }
}
I1023 09:39:14.310838  4519 layer_factory.hpp:77] Creating layer Data1
I1023 09:39:14.310875  4519 db_lmdb.cpp:35] Opened lmdb /home/x306/caffe/xn/English_orange/data/val1_lmdb
I1023 09:39:14.310886  4519 net.cpp:84] Creating Layer Data1
I1023 09:39:14.310889  4519 net.cpp:380] Data1 -> Data1
I1023 09:39:14.310896  4519 net.cpp:380] Data1 -> Data2
I1023 09:39:14.310901  4519 data_transformer.cpp:25] Loading mean file from: /home/x306/caffe/xn/English_orange/data/orange1_mean.binaryproto
I1023 09:39:14.312132  4519 data_layer.cpp:45] output data size: 8,3,224,224
I1023 09:39:14.320947  4519 net.cpp:122] Setting up Data1
I1023 09:39:14.320967  4519 net.cpp:129] Top shape: 8 3 224 224 (1204224)
I1023 09:39:14.320972  4519 net.cpp:129] Top shape: 8 (8)
I1023 09:39:14.320974  4519 net.cpp:137] Memory required for data: 4816928
I1023 09:39:14.320979  4519 layer_factory.hpp:77] Creating layer Data2_Data1_1_split
I1023 09:39:14.320988  4519 net.cpp:84] Creating Layer Data2_Data1_1_split
I1023 09:39:14.320991  4519 net.cpp:406] Data2_Data1_1_split <- Data2
I1023 09:39:14.320996  4519 net.cpp:380] Data2_Data1_1_split -> Data2_Data1_1_split_0
I1023 09:39:14.321002  4519 net.cpp:380] Data2_Data1_1_split -> Data2_Data1_1_split_1
I1023 09:39:14.321072  4519 net.cpp:122] Setting up Data2_Data1_1_split
I1023 09:39:14.321079  4519 net.cpp:129] Top shape: 8 (8)
I1023 09:39:14.321080  4519 net.cpp:129] Top shape: 8 (8)
I1023 09:39:14.321082  4519 net.cpp:137] Memory required for data: 4816992
I1023 09:39:14.321084  4519 layer_factory.hpp:77] Creating layer Convolution1
I1023 09:39:14.321094  4519 net.cpp:84] Creating Layer Convolution1
I1023 09:39:14.321096  4519 net.cpp:406] Convolution1 <- Data1
I1023 09:39:14.321100  4519 net.cpp:380] Convolution1 -> Convolution1
I1023 09:39:14.322507  4519 net.cpp:122] Setting up Convolution1
I1023 09:39:14.322517  4519 net.cpp:129] Top shape: 8 16 224 224 (6422528)
I1023 09:39:14.322520  4519 net.cpp:137] Memory required for data: 30507104
I1023 09:39:14.322526  4519 layer_factory.hpp:77] Creating layer BatchNorm1
I1023 09:39:14.322532  4519 net.cpp:84] Creating Layer BatchNorm1
I1023 09:39:14.322535  4519 net.cpp:406] BatchNorm1 <- Convolution1
I1023 09:39:14.322538  4519 net.cpp:367] BatchNorm1 -> Convolution1 (in-place)
I1023 09:39:14.322715  4519 net.cpp:122] Setting up BatchNorm1
I1023 09:39:14.322720  4519 net.cpp:129] Top shape: 8 16 224 224 (6422528)
I1023 09:39:14.322721  4519 net.cpp:137] Memory required for data: 56197216
I1023 09:39:14.322728  4519 layer_factory.hpp:77] Creating layer Scale1
I1023 09:39:14.322734  4519 net.cpp:84] Creating Layer Scale1
I1023 09:39:14.322736  4519 net.cpp:406] Scale1 <- Convolution1
I1023 09:39:14.322741  4519 net.cpp:367] Scale1 -> Convolution1 (in-place)
I1023 09:39:14.322768  4519 layer_factory.hpp:77] Creating layer Scale1
I1023 09:39:14.322912  4519 net.cpp:122] Setting up Scale1
I1023 09:39:14.322917  4519 net.cpp:129] Top shape: 8 16 224 224 (6422528)
I1023 09:39:14.322919  4519 net.cpp:137] Memory required for data: 81887328
I1023 09:39:14.322923  4519 layer_factory.hpp:77] Creating layer penlu1
I1023 09:39:14.322929  4519 net.cpp:84] Creating Layer penlu1
I1023 09:39:14.322932  4519 net.cpp:406] penlu1 <- Convolution1
I1023 09:39:14.322935  4519 net.cpp:367] penlu1 -> Convolution1 (in-place)
I1023 09:39:14.324318  4519 net.cpp:122] Setting up penlu1
I1023 09:39:14.324331  4519 net.cpp:129] Top shape: 8 16 224 224 (6422528)
I1023 09:39:14.324334  4519 net.cpp:137] Memory required for data: 107577440
I1023 09:39:14.324343  4519 layer_factory.hpp:77] Creating layer Convolution1_penlu1_0_split
I1023 09:39:14.324349  4519 net.cpp:84] Creating Layer Convolution1_penlu1_0_split
I1023 09:39:14.324352  4519 net.cpp:406] Convolution1_penlu1_0_split <- Convolution1
I1023 09:39:14.324357  4519 net.cpp:380] Convolution1_penlu1_0_split -> Convolution1_penlu1_0_split_0
I1023 09:39:14.324362  4519 net.cpp:380] Convolution1_penlu1_0_split -> Convolution1_penlu1_0_split_1
I1023 09:39:14.324391  4519 net.cpp:122] Setting up Convolution1_penlu1_0_split
I1023 09:39:14.324395  4519 net.cpp:129] Top shape: 8 16 224 224 (6422528)
I1023 09:39:14.324398  4519 net.cpp:129] Top shape: 8 16 224 224 (6422528)
I1023 09:39:14.324400  4519 net.cpp:137] Memory required for data: 158957664
I1023 09:39:14.324403  4519 layer_factory.hpp:77] Creating layer Convolution2
I1023 09:39:14.324410  4519 net.cpp:84] Creating Layer Convolution2
I1023 09:39:14.324412  4519 net.cpp:406] Convolution2 <- Convolution1_penlu1_0_split_0
I1023 09:39:14.324416  4519 net.cpp:380] Convolution2 -> Convolution2
I1023 09:39:14.325093  4519 net.cpp:122] Setting up Convolution2
I1023 09:39:14.325101  4519 net.cpp:129] Top shape: 8 16 224 224 (6422528)
I1023 09:39:14.325103  4519 net.cpp:137] Memory required for data: 184647776
I1023 09:39:14.325107  4519 layer_factory.hpp:77] Creating layer BatchNorm2
I1023 09:39:14.325114  4519 net.cpp:84] Creating Layer BatchNorm2
I1023 09:39:14.325116  4519 net.cpp:406] BatchNorm2 <- Convolution2
I1023 09:39:14.325120  4519 net.cpp:367] BatchNorm2 -> Convolution2 (in-place)
I1023 09:39:14.325301  4519 net.cpp:122] Setting up BatchNorm2
I1023 09:39:14.325306  4519 net.cpp:129] Top shape: 8 16 224 224 (6422528)
I1023 09:39:14.325309  4519 net.cpp:137] Memory required for data: 210337888
I1023 09:39:14.325330  4519 layer_factory.hpp:77] Creating layer Scale2
I1023 09:39:14.325335  4519 net.cpp:84] Creating Layer Scale2
I1023 09:39:14.325338  4519 net.cpp:406] Scale2 <- Convolution2
I1023 09:39:14.325341  4519 net.cpp:367] Scale2 -> Convolution2 (in-place)
I1023 09:39:14.325376  4519 layer_factory.hpp:77] Creating layer Scale2
I1023 09:39:14.325520  4519 net.cpp:122] Setting up Scale2
I1023 09:39:14.325525  4519 net.cpp:129] Top shape: 8 16 224 224 (6422528)
I1023 09:39:14.325526  4519 net.cpp:137] Memory required for data: 236028000
I1023 09:39:14.325532  4519 layer_factory.hpp:77] Creating layer penlu2
I1023 09:39:14.325538  4519 net.cpp:84] Creating Layer penlu2
I1023 09:39:14.325541  4519 net.cpp:406] penlu2 <- Convolution2
I1023 09:39:14.325544  4519 net.cpp:367] penlu2 -> Convolution2 (in-place)
I1023 09:39:14.326840  4519 net.cpp:122] Setting up penlu2
I1023 09:39:14.326853  4519 net.cpp:129] Top shape: 8 16 224 224 (6422528)
I1023 09:39:14.326855  4519 net.cpp:137] Memory required for data: 261718112
I1023 09:39:14.326860  4519 layer_factory.hpp:77] Creating layer Convolution3
I1023 09:39:14.326869  4519 net.cpp:84] Creating Layer Convolution3
I1023 09:39:14.326872  4519 net.cpp:406] Convolution3 <- Convolution2
I1023 09:39:14.326876  4519 net.cpp:380] Convolution3 -> Convolution3
I1023 09:39:14.328893  4519 net.cpp:122] Setting up Convolution3
I1023 09:39:14.328908  4519 net.cpp:129] Top shape: 8 16 224 224 (6422528)
I1023 09:39:14.328912  4519 net.cpp:137] Memory required for data: 287408224
I1023 09:39:14.328917  4519 layer_factory.hpp:77] Creating layer BatchNorm3
I1023 09:39:14.328924  4519 net.cpp:84] Creating Layer BatchNorm3
I1023 09:39:14.328928  4519 net.cpp:406] BatchNorm3 <- Convolution3
I1023 09:39:14.328933  4519 net.cpp:367] BatchNorm3 -> Convolution3 (in-place)
I1023 09:39:14.329109  4519 net.cpp:122] Setting up BatchNorm3
I1023 09:39:14.329114  4519 net.cpp:129] Top shape: 8 16 224 224 (6422528)
I1023 09:39:14.329116  4519 net.cpp:137] Memory required for data: 313098336
I1023 09:39:14.329123  4519 layer_factory.hpp:77] Creating layer Scale3
I1023 09:39:14.329128  4519 net.cpp:84] Creating Layer Scale3
I1023 09:39:14.329129  4519 net.cpp:406] Scale3 <- Convolution3
I1023 09:39:14.329133  4519 net.cpp:367] Scale3 -> Convolution3 (in-place)
I1023 09:39:14.329166  4519 layer_factory.hpp:77] Creating layer Scale3
I1023 09:39:14.329288  4519 net.cpp:122] Setting up Scale3
I1023 09:39:14.329291  4519 net.cpp:129] Top shape: 8 16 224 224 (6422528)
I1023 09:39:14.329293  4519 net.cpp:137] Memory required for data: 338788448
I1023 09:39:14.329298  4519 layer_factory.hpp:77] Creating layer Eltwise1
I1023 09:39:14.329303  4519 net.cpp:84] Creating Layer Eltwise1
I1023 09:39:14.329305  4519 net.cpp:406] Eltwise1 <- Convolution1_penlu1_0_split_1
I1023 09:39:14.329308  4519 net.cpp:406] Eltwise1 <- Convolution3
I1023 09:39:14.329311  4519 net.cpp:380] Eltwise1 -> Eltwise1
I1023 09:39:14.329330  4519 net.cpp:122] Setting up Eltwise1
I1023 09:39:14.329334  4519 net.cpp:129] Top shape: 8 16 224 224 (6422528)
I1023 09:39:14.329335  4519 net.cpp:137] Memory required for data: 364478560
I1023 09:39:14.329337  4519 layer_factory.hpp:77] Creating layer penlu3
I1023 09:39:14.329344  4519 net.cpp:84] Creating Layer penlu3
I1023 09:39:14.329345  4519 net.cpp:406] penlu3 <- Eltwise1
I1023 09:39:14.329349  4519 net.cpp:367] penlu3 -> Eltwise1 (in-place)
I1023 09:39:14.330603  4519 net.cpp:122] Setting up penlu3
I1023 09:39:14.330618  4519 net.cpp:129] Top shape: 8 16 224 224 (6422528)
I1023 09:39:14.330621  4519 net.cpp:137] Memory required for data: 390168672
I1023 09:39:14.330626  4519 layer_factory.hpp:77] Creating layer Eltwise1_penlu3_0_split
I1023 09:39:14.330634  4519 net.cpp:84] Creating Layer Eltwise1_penlu3_0_split
I1023 09:39:14.330636  4519 net.cpp:406] Eltwise1_penlu3_0_split <- Eltwise1
I1023 09:39:14.330641  4519 net.cpp:380] Eltwise1_penlu3_0_split -> Eltwise1_penlu3_0_split_0
I1023 09:39:14.330646  4519 net.cpp:380] Eltwise1_penlu3_0_split -> Eltwise1_penlu3_0_split_1
I1023 09:39:14.330693  4519 net.cpp:122] Setting up Eltwise1_penlu3_0_split
I1023 09:39:14.330698  4519 net.cpp:129] Top shape: 8 16 224 224 (6422528)
I1023 09:39:14.330701  4519 net.cpp:129] Top shape: 8 16 224 224 (6422528)
I1023 09:39:14.330703  4519 net.cpp:137] Memory required for data: 441548896
I1023 09:39:14.330705  4519 layer_factory.hpp:77] Creating layer Convolution4
I1023 09:39:14.330713  4519 net.cpp:84] Creating Layer Convolution4
I1023 09:39:14.330715  4519 net.cpp:406] Convolution4 <- Eltwise1_penlu3_0_split_0
I1023 09:39:14.330719  4519 net.cpp:380] Convolution4 -> Convolution4
I1023 09:39:14.331892  4519 net.cpp:122] Setting up Convolution4
I1023 09:39:14.331902  4519 net.cpp:129] Top shape: 8 16 224 224 (6422528)
I1023 09:39:14.331904  4519 net.cpp:137] Memory required for data: 467239008
I1023 09:39:14.331909  4519 layer_factory.hpp:77] Creating layer BatchNorm4
I1023 09:39:14.331914  4519 net.cpp:84] Creating Layer BatchNorm4
I1023 09:39:14.331918  4519 net.cpp:406] BatchNorm4 <- Convolution4
I1023 09:39:14.331921  4519 net.cpp:367] BatchNorm4 -> Convolution4 (in-place)
I1023 09:39:14.332548  4519 net.cpp:122] Setting up BatchNorm4
I1023 09:39:14.332558  4519 net.cpp:129] Top shape: 8 16 224 224 (6422528)
I1023 09:39:14.332561  4519 net.cpp:137] Memory required for data: 492929120
I1023 09:39:14.332571  4519 layer_factory.hpp:77] Creating layer Scale4
I1023 09:39:14.332576  4519 net.cpp:84] Creating Layer Scale4
I1023 09:39:14.332579  4519 net.cpp:406] Scale4 <- Convolution4
I1023 09:39:14.332582  4519 net.cpp:367] Scale4 -> Convolution4 (in-place)
I1023 09:39:14.332617  4519 layer_factory.hpp:77] Creating layer Scale4
I1023 09:39:14.332759  4519 net.cpp:122] Setting up Scale4
I1023 09:39:14.332764  4519 net.cpp:129] Top shape: 8 16 224 224 (6422528)
I1023 09:39:14.332767  4519 net.cpp:137] Memory required for data: 518619232
I1023 09:39:14.332770  4519 layer_factory.hpp:77] Creating layer penlu4
I1023 09:39:14.332777  4519 net.cpp:84] Creating Layer penlu4
I1023 09:39:14.332778  4519 net.cpp:406] penlu4 <- Convolution4
I1023 09:39:14.332782  4519 net.cpp:367] penlu4 -> Convolution4 (in-place)
I1023 09:39:14.334074  4519 net.cpp:122] Setting up penlu4
I1023 09:39:14.334086  4519 net.cpp:129] Top shape: 8 16 224 224 (6422528)
I1023 09:39:14.334089  4519 net.cpp:137] Memory required for data: 544309344
I1023 09:39:14.334095  4519 layer_factory.hpp:77] Creating layer Convolution5
I1023 09:39:14.334105  4519 net.cpp:84] Creating Layer Convolution5
I1023 09:39:14.334107  4519 net.cpp:406] Convolution5 <- Convolution4
I1023 09:39:14.334112  4519 net.cpp:380] Convolution5 -> Convolution5
I1023 09:39:14.335593  4519 net.cpp:122] Setting up Convolution5
I1023 09:39:14.335604  4519 net.cpp:129] Top shape: 8 16 224 224 (6422528)
I1023 09:39:14.335608  4519 net.cpp:137] Memory required for data: 569999456
I1023 09:39:14.335613  4519 layer_factory.hpp:77] Creating layer BatchNorm5
I1023 09:39:14.335618  4519 net.cpp:84] Creating Layer BatchNorm5
I1023 09:39:14.335623  4519 net.cpp:406] BatchNorm5 <- Convolution5
I1023 09:39:14.335625  4519 net.cpp:367] BatchNorm5 -> Convolution5 (in-place)
I1023 09:39:14.335813  4519 net.cpp:122] Setting up BatchNorm5
I1023 09:39:14.335817  4519 net.cpp:129] Top shape: 8 16 224 224 (6422528)
I1023 09:39:14.335819  4519 net.cpp:137] Memory required for data: 595689568
I1023 09:39:14.335824  4519 layer_factory.hpp:77] Creating layer Scale5
I1023 09:39:14.335829  4519 net.cpp:84] Creating Layer Scale5
I1023 09:39:14.335831  4519 net.cpp:406] Scale5 <- Convolution5
I1023 09:39:14.335835  4519 net.cpp:367] Scale5 -> Convolution5 (in-place)
I1023 09:39:14.335868  4519 layer_factory.hpp:77] Creating layer Scale5
I1023 09:39:14.336580  4519 net.cpp:122] Setting up Scale5
I1023 09:39:14.336588  4519 net.cpp:129] Top shape: 8 16 224 224 (6422528)
I1023 09:39:14.336591  4519 net.cpp:137] Memory required for data: 621379680
I1023 09:39:14.336596  4519 layer_factory.hpp:77] Creating layer Eltwise2
I1023 09:39:14.336601  4519 net.cpp:84] Creating Layer Eltwise2
I1023 09:39:14.336632  4519 net.cpp:406] Eltwise2 <- Eltwise1_penlu3_0_split_1
I1023 09:39:14.336635  4519 net.cpp:406] Eltwise2 <- Convolution5
I1023 09:39:14.336639  4519 net.cpp:380] Eltwise2 -> Eltwise2
I1023 09:39:14.336660  4519 net.cpp:122] Setting up Eltwise2
I1023 09:39:14.336664  4519 net.cpp:129] Top shape: 8 16 224 224 (6422528)
I1023 09:39:14.336666  4519 net.cpp:137] Memory required for data: 647069792
I1023 09:39:14.336668  4519 layer_factory.hpp:77] Creating layer penlu5
I1023 09:39:14.336674  4519 net.cpp:84] Creating Layer penlu5
I1023 09:39:14.336676  4519 net.cpp:406] penlu5 <- Eltwise2
I1023 09:39:14.336680  4519 net.cpp:367] penlu5 -> Eltwise2 (in-place)
I1023 09:39:14.337954  4519 net.cpp:122] Setting up penlu5
I1023 09:39:14.337962  4519 net.cpp:129] Top shape: 8 16 224 224 (6422528)
I1023 09:39:14.337965  4519 net.cpp:137] Memory required for data: 672759904
I1023 09:39:14.337970  4519 layer_factory.hpp:77] Creating layer Eltwise2_penlu5_0_split
I1023 09:39:14.337975  4519 net.cpp:84] Creating Layer Eltwise2_penlu5_0_split
I1023 09:39:14.337977  4519 net.cpp:406] Eltwise2_penlu5_0_split <- Eltwise2
I1023 09:39:14.337981  4519 net.cpp:380] Eltwise2_penlu5_0_split -> Eltwise2_penlu5_0_split_0
I1023 09:39:14.337985  4519 net.cpp:380] Eltwise2_penlu5_0_split -> Eltwise2_penlu5_0_split_1
I1023 09:39:14.338014  4519 net.cpp:122] Setting up Eltwise2_penlu5_0_split
I1023 09:39:14.338018  4519 net.cpp:129] Top shape: 8 16 224 224 (6422528)
I1023 09:39:14.338022  4519 net.cpp:129] Top shape: 8 16 224 224 (6422528)
I1023 09:39:14.338024  4519 net.cpp:137] Memory required for data: 724140128
I1023 09:39:14.338027  4519 layer_factory.hpp:77] Creating layer Convolution6
I1023 09:39:14.338033  4519 net.cpp:84] Creating Layer Convolution6
I1023 09:39:14.338035  4519 net.cpp:406] Convolution6 <- Eltwise2_penlu5_0_split_0
I1023 09:39:14.338039  4519 net.cpp:380] Convolution6 -> Convolution6
I1023 09:39:14.339136  4519 net.cpp:122] Setting up Convolution6
I1023 09:39:14.339146  4519 net.cpp:129] Top shape: 8 16 224 224 (6422528)
I1023 09:39:14.339149  4519 net.cpp:137] Memory required for data: 749830240
I1023 09:39:14.339154  4519 layer_factory.hpp:77] Creating layer BatchNorm6
I1023 09:39:14.339159  4519 net.cpp:84] Creating Layer BatchNorm6
I1023 09:39:14.339162  4519 net.cpp:406] BatchNorm6 <- Convolution6
I1023 09:39:14.339166  4519 net.cpp:367] BatchNorm6 -> Convolution6 (in-place)
I1023 09:39:14.339351  4519 net.cpp:122] Setting up BatchNorm6
I1023 09:39:14.339355  4519 net.cpp:129] Top shape: 8 16 224 224 (6422528)
I1023 09:39:14.339357  4519 net.cpp:137] Memory required for data: 775520352
I1023 09:39:14.339362  4519 layer_factory.hpp:77] Creating layer Scale6
I1023 09:39:14.339367  4519 net.cpp:84] Creating Layer Scale6
I1023 09:39:14.339370  4519 net.cpp:406] Scale6 <- Convolution6
I1023 09:39:14.339372  4519 net.cpp:367] Scale6 -> Convolution6 (in-place)
I1023 09:39:14.339404  4519 layer_factory.hpp:77] Creating layer Scale6
I1023 09:39:14.339551  4519 net.cpp:122] Setting up Scale6
I1023 09:39:14.339556  4519 net.cpp:129] Top shape: 8 16 224 224 (6422528)
I1023 09:39:14.339558  4519 net.cpp:137] Memory required for data: 801210464
I1023 09:39:14.339561  4519 layer_factory.hpp:77] Creating layer penlu6
I1023 09:39:14.339567  4519 net.cpp:84] Creating Layer penlu6
I1023 09:39:14.339570  4519 net.cpp:406] penlu6 <- Convolution6
I1023 09:39:14.339573  4519 net.cpp:367] penlu6 -> Convolution6 (in-place)
I1023 09:39:14.340879  4519 net.cpp:122] Setting up penlu6
I1023 09:39:14.340893  4519 net.cpp:129] Top shape: 8 16 224 224 (6422528)
I1023 09:39:14.340895  4519 net.cpp:137] Memory required for data: 826900576
I1023 09:39:14.340901  4519 layer_factory.hpp:77] Creating layer Convolution7
I1023 09:39:14.340910  4519 net.cpp:84] Creating Layer Convolution7
I1023 09:39:14.340914  4519 net.cpp:406] Convolution7 <- Convolution6
I1023 09:39:14.340919  4519 net.cpp:380] Convolution7 -> Convolution7
I1023 09:39:14.342432  4519 net.cpp:122] Setting up Convolution7
I1023 09:39:14.342442  4519 net.cpp:129] Top shape: 8 16 224 224 (6422528)
I1023 09:39:14.342458  4519 net.cpp:137] Memory required for data: 852590688
I1023 09:39:14.342464  4519 layer_factory.hpp:77] Creating layer BatchNorm7
I1023 09:39:14.342473  4519 net.cpp:84] Creating Layer BatchNorm7
I1023 09:39:14.342475  4519 net.cpp:406] BatchNorm7 <- Convolution7
I1023 09:39:14.342479  4519 net.cpp:367] BatchNorm7 -> Convolution7 (in-place)
I1023 09:39:14.342706  4519 net.cpp:122] Setting up BatchNorm7
I1023 09:39:14.342711  4519 net.cpp:129] Top shape: 8 16 224 224 (6422528)
I1023 09:39:14.342715  4519 net.cpp:137] Memory required for data: 878280800
I1023 09:39:14.342725  4519 layer_factory.hpp:77] Creating layer Scale7
I1023 09:39:14.342730  4519 net.cpp:84] Creating Layer Scale7
I1023 09:39:14.342733  4519 net.cpp:406] Scale7 <- Convolution7
I1023 09:39:14.342736  4519 net.cpp:367] Scale7 -> Convolution7 (in-place)
I1023 09:39:14.342779  4519 layer_factory.hpp:77] Creating layer Scale7
I1023 09:39:14.342923  4519 net.cpp:122] Setting up Scale7
I1023 09:39:14.342928  4519 net.cpp:129] Top shape: 8 16 224 224 (6422528)
I1023 09:39:14.342931  4519 net.cpp:137] Memory required for data: 903970912
I1023 09:39:14.342934  4519 layer_factory.hpp:77] Creating layer Eltwise3
I1023 09:39:14.342939  4519 net.cpp:84] Creating Layer Eltwise3
I1023 09:39:14.342941  4519 net.cpp:406] Eltwise3 <- Eltwise2_penlu5_0_split_1
I1023 09:39:14.342944  4519 net.cpp:406] Eltwise3 <- Convolution7
I1023 09:39:14.342948  4519 net.cpp:380] Eltwise3 -> Eltwise3
I1023 09:39:14.342967  4519 net.cpp:122] Setting up Eltwise3
I1023 09:39:14.342970  4519 net.cpp:129] Top shape: 8 16 224 224 (6422528)
I1023 09:39:14.342972  4519 net.cpp:137] Memory required for data: 929661024
I1023 09:39:14.342974  4519 layer_factory.hpp:77] Creating layer penlu7
I1023 09:39:14.342980  4519 net.cpp:84] Creating Layer penlu7
I1023 09:39:14.342983  4519 net.cpp:406] penlu7 <- Eltwise3
I1023 09:39:14.342986  4519 net.cpp:367] penlu7 -> Eltwise3 (in-place)
I1023 09:39:14.344347  4519 net.cpp:122] Setting up penlu7
I1023 09:39:14.344362  4519 net.cpp:129] Top shape: 8 16 224 224 (6422528)
I1023 09:39:14.344364  4519 net.cpp:137] Memory required for data: 955351136
I1023 09:39:14.344370  4519 layer_factory.hpp:77] Creating layer Eltwise3_penlu7_0_split
I1023 09:39:14.344377  4519 net.cpp:84] Creating Layer Eltwise3_penlu7_0_split
I1023 09:39:14.344379  4519 net.cpp:406] Eltwise3_penlu7_0_split <- Eltwise3
I1023 09:39:14.344384  4519 net.cpp:380] Eltwise3_penlu7_0_split -> Eltwise3_penlu7_0_split_0
I1023 09:39:14.344393  4519 net.cpp:380] Eltwise3_penlu7_0_split -> Eltwise3_penlu7_0_split_1
I1023 09:39:14.344449  4519 net.cpp:122] Setting up Eltwise3_penlu7_0_split
I1023 09:39:14.344454  4519 net.cpp:129] Top shape: 8 16 224 224 (6422528)
I1023 09:39:14.344456  4519 net.cpp:129] Top shape: 8 16 224 224 (6422528)
I1023 09:39:14.344458  4519 net.cpp:137] Memory required for data: 1006731360
I1023 09:39:14.344461  4519 layer_factory.hpp:77] Creating layer Convolution8
I1023 09:39:14.344468  4519 net.cpp:84] Creating Layer Convolution8
I1023 09:39:14.344471  4519 net.cpp:406] Convolution8 <- Eltwise3_penlu7_0_split_0
I1023 09:39:14.344475  4519 net.cpp:380] Convolution8 -> Convolution8
I1023 09:39:14.345607  4519 net.cpp:122] Setting up Convolution8
I1023 09:39:14.345616  4519 net.cpp:129] Top shape: 8 32 112 112 (3211264)
I1023 09:39:14.345619  4519 net.cpp:137] Memory required for data: 1019576416
I1023 09:39:14.345623  4519 layer_factory.hpp:77] Creating layer BatchNorm8
I1023 09:39:14.345629  4519 net.cpp:84] Creating Layer BatchNorm8
I1023 09:39:14.345633  4519 net.cpp:406] BatchNorm8 <- Convolution8
I1023 09:39:14.345636  4519 net.cpp:367] BatchNorm8 -> Convolution8 (in-place)
I1023 09:39:14.345796  4519 net.cpp:122] Setting up BatchNorm8
I1023 09:39:14.345801  4519 net.cpp:129] Top shape: 8 32 112 112 (3211264)
I1023 09:39:14.345803  4519 net.cpp:137] Memory required for data: 1032421472
I1023 09:39:14.345808  4519 layer_factory.hpp:77] Creating layer Scale8
I1023 09:39:14.345813  4519 net.cpp:84] Creating Layer Scale8
I1023 09:39:14.345824  4519 net.cpp:406] Scale8 <- Convolution8
I1023 09:39:14.345829  4519 net.cpp:367] Scale8 -> Convolution8 (in-place)
I1023 09:39:14.345860  4519 layer_factory.hpp:77] Creating layer Scale8
I1023 09:39:14.345971  4519 net.cpp:122] Setting up Scale8
I1023 09:39:14.345976  4519 net.cpp:129] Top shape: 8 32 112 112 (3211264)
I1023 09:39:14.345978  4519 net.cpp:137] Memory required for data: 1045266528
I1023 09:39:14.345983  4519 layer_factory.hpp:77] Creating layer Convolution9
I1023 09:39:14.345989  4519 net.cpp:84] Creating Layer Convolution9
I1023 09:39:14.345993  4519 net.cpp:406] Convolution9 <- Eltwise3_penlu7_0_split_1
I1023 09:39:14.345998  4519 net.cpp:380] Convolution9 -> Convolution9
I1023 09:39:14.347143  4519 net.cpp:122] Setting up Convolution9
I1023 09:39:14.347152  4519 net.cpp:129] Top shape: 8 32 112 112 (3211264)
I1023 09:39:14.347154  4519 net.cpp:137] Memory required for data: 1058111584
I1023 09:39:14.347158  4519 layer_factory.hpp:77] Creating layer BatchNorm9
I1023 09:39:14.347164  4519 net.cpp:84] Creating Layer BatchNorm9
I1023 09:39:14.347167  4519 net.cpp:406] BatchNorm9 <- Convolution9
I1023 09:39:14.347170  4519 net.cpp:367] BatchNorm9 -> Convolution9 (in-place)
I1023 09:39:14.347332  4519 net.cpp:122] Setting up BatchNorm9
I1023 09:39:14.347337  4519 net.cpp:129] Top shape: 8 32 112 112 (3211264)
I1023 09:39:14.347338  4519 net.cpp:137] Memory required for data: 1070956640
I1023 09:39:14.347343  4519 layer_factory.hpp:77] Creating layer Scale9
I1023 09:39:14.347347  4519 net.cpp:84] Creating Layer Scale9
I1023 09:39:14.347350  4519 net.cpp:406] Scale9 <- Convolution9
I1023 09:39:14.347353  4519 net.cpp:367] Scale9 -> Convolution9 (in-place)
I1023 09:39:14.347383  4519 layer_factory.hpp:77] Creating layer Scale9
I1023 09:39:14.347481  4519 net.cpp:122] Setting up Scale9
I1023 09:39:14.347486  4519 net.cpp:129] Top shape: 8 32 112 112 (3211264)
I1023 09:39:14.347487  4519 net.cpp:137] Memory required for data: 1083801696
I1023 09:39:14.347491  4519 layer_factory.hpp:77] Creating layer penlu8
I1023 09:39:14.347497  4519 net.cpp:84] Creating Layer penlu8
I1023 09:39:14.347499  4519 net.cpp:406] penlu8 <- Convolution9
I1023 09:39:14.347503  4519 net.cpp:367] penlu8 -> Convolution9 (in-place)
I1023 09:39:14.348373  4519 net.cpp:122] Setting up penlu8
I1023 09:39:14.348382  4519 net.cpp:129] Top shape: 8 32 112 112 (3211264)
I1023 09:39:14.348386  4519 net.cpp:137] Memory required for data: 1096646752
I1023 09:39:14.348390  4519 layer_factory.hpp:77] Creating layer Convolution10
I1023 09:39:14.348397  4519 net.cpp:84] Creating Layer Convolution10
I1023 09:39:14.348400  4519 net.cpp:406] Convolution10 <- Convolution9
I1023 09:39:14.348407  4519 net.cpp:380] Convolution10 -> Convolution10
I1023 09:39:14.350491  4519 net.cpp:122] Setting up Convolution10
I1023 09:39:14.350500  4519 net.cpp:129] Top shape: 8 32 112 112 (3211264)
I1023 09:39:14.350503  4519 net.cpp:137] Memory required for data: 1109491808
I1023 09:39:14.350508  4519 layer_factory.hpp:77] Creating layer BatchNorm10
I1023 09:39:14.350513  4519 net.cpp:84] Creating Layer BatchNorm10
I1023 09:39:14.350517  4519 net.cpp:406] BatchNorm10 <- Convolution10
I1023 09:39:14.350520  4519 net.cpp:367] BatchNorm10 -> Convolution10 (in-place)
I1023 09:39:14.350685  4519 net.cpp:122] Setting up BatchNorm10
I1023 09:39:14.350690  4519 net.cpp:129] Top shape: 8 32 112 112 (3211264)
I1023 09:39:14.350692  4519 net.cpp:137] Memory required for data: 1122336864
I1023 09:39:14.350697  4519 layer_factory.hpp:77] Creating layer Scale10
I1023 09:39:14.350702  4519 net.cpp:84] Creating Layer Scale10
I1023 09:39:14.350703  4519 net.cpp:406] Scale10 <- Convolution10
I1023 09:39:14.350706  4519 net.cpp:367] Scale10 -> Convolution10 (in-place)
I1023 09:39:14.350739  4519 layer_factory.hpp:77] Creating layer Scale10
I1023 09:39:14.350831  4519 net.cpp:122] Setting up Scale10
I1023 09:39:14.350836  4519 net.cpp:129] Top shape: 8 32 112 112 (3211264)
I1023 09:39:14.350837  4519 net.cpp:137] Memory required for data: 1135181920
I1023 09:39:14.350842  4519 layer_factory.hpp:77] Creating layer Eltwise4
I1023 09:39:14.350858  4519 net.cpp:84] Creating Layer Eltwise4
I1023 09:39:14.350862  4519 net.cpp:406] Eltwise4 <- Convolution8
I1023 09:39:14.350864  4519 net.cpp:406] Eltwise4 <- Convolution10
I1023 09:39:14.350868  4519 net.cpp:380] Eltwise4 -> Eltwise4
I1023 09:39:14.350888  4519 net.cpp:122] Setting up Eltwise4
I1023 09:39:14.350891  4519 net.cpp:129] Top shape: 8 32 112 112 (3211264)
I1023 09:39:14.350893  4519 net.cpp:137] Memory required for data: 1148026976
I1023 09:39:14.350895  4519 layer_factory.hpp:77] Creating layer penlu9
I1023 09:39:14.350901  4519 net.cpp:84] Creating Layer penlu9
I1023 09:39:14.350903  4519 net.cpp:406] penlu9 <- Eltwise4
I1023 09:39:14.350908  4519 net.cpp:367] penlu9 -> Eltwise4 (in-place)
I1023 09:39:14.351745  4519 net.cpp:122] Setting up penlu9
I1023 09:39:14.351753  4519 net.cpp:129] Top shape: 8 32 112 112 (3211264)
I1023 09:39:14.351755  4519 net.cpp:137] Memory required for data: 1160872032
I1023 09:39:14.351760  4519 layer_factory.hpp:77] Creating layer Eltwise4_penlu9_0_split
I1023 09:39:14.351765  4519 net.cpp:84] Creating Layer Eltwise4_penlu9_0_split
I1023 09:39:14.351768  4519 net.cpp:406] Eltwise4_penlu9_0_split <- Eltwise4
I1023 09:39:14.351771  4519 net.cpp:380] Eltwise4_penlu9_0_split -> Eltwise4_penlu9_0_split_0
I1023 09:39:14.351776  4519 net.cpp:380] Eltwise4_penlu9_0_split -> Eltwise4_penlu9_0_split_1
I1023 09:39:14.351804  4519 net.cpp:122] Setting up Eltwise4_penlu9_0_split
I1023 09:39:14.351809  4519 net.cpp:129] Top shape: 8 32 112 112 (3211264)
I1023 09:39:14.351811  4519 net.cpp:129] Top shape: 8 32 112 112 (3211264)
I1023 09:39:14.351814  4519 net.cpp:137] Memory required for data: 1186562144
I1023 09:39:14.351815  4519 layer_factory.hpp:77] Creating layer Convolution11
I1023 09:39:14.351822  4519 net.cpp:84] Creating Layer Convolution11
I1023 09:39:14.351825  4519 net.cpp:406] Convolution11 <- Eltwise4_penlu9_0_split_0
I1023 09:39:14.351830  4519 net.cpp:380] Convolution11 -> Convolution11
I1023 09:39:14.353024  4519 net.cpp:122] Setting up Convolution11
I1023 09:39:14.353032  4519 net.cpp:129] Top shape: 8 32 112 112 (3211264)
I1023 09:39:14.353035  4519 net.cpp:137] Memory required for data: 1199407200
I1023 09:39:14.353039  4519 layer_factory.hpp:77] Creating layer BatchNorm11
I1023 09:39:14.353044  4519 net.cpp:84] Creating Layer BatchNorm11
I1023 09:39:14.353046  4519 net.cpp:406] BatchNorm11 <- Convolution11
I1023 09:39:14.353051  4519 net.cpp:367] BatchNorm11 -> Convolution11 (in-place)
I1023 09:39:14.353209  4519 net.cpp:122] Setting up BatchNorm11
I1023 09:39:14.353212  4519 net.cpp:129] Top shape: 8 32 112 112 (3211264)
I1023 09:39:14.353214  4519 net.cpp:137] Memory required for data: 1212252256
I1023 09:39:14.353219  4519 layer_factory.hpp:77] Creating layer Scale11
I1023 09:39:14.353224  4519 net.cpp:84] Creating Layer Scale11
I1023 09:39:14.353226  4519 net.cpp:406] Scale11 <- Convolution11
I1023 09:39:14.353229  4519 net.cpp:367] Scale11 -> Convolution11 (in-place)
I1023 09:39:14.353258  4519 layer_factory.hpp:77] Creating layer Scale11
I1023 09:39:14.353351  4519 net.cpp:122] Setting up Scale11
I1023 09:39:14.353355  4519 net.cpp:129] Top shape: 8 32 112 112 (3211264)
I1023 09:39:14.353358  4519 net.cpp:137] Memory required for data: 1225097312
I1023 09:39:14.353361  4519 layer_factory.hpp:77] Creating layer penlu10
I1023 09:39:14.353368  4519 net.cpp:84] Creating Layer penlu10
I1023 09:39:14.353370  4519 net.cpp:406] penlu10 <- Convolution11
I1023 09:39:14.353374  4519 net.cpp:367] penlu10 -> Convolution11 (in-place)
I1023 09:39:14.354208  4519 net.cpp:122] Setting up penlu10
I1023 09:39:14.354216  4519 net.cpp:129] Top shape: 8 32 112 112 (3211264)
I1023 09:39:14.354219  4519 net.cpp:137] Memory required for data: 1237942368
I1023 09:39:14.354224  4519 layer_factory.hpp:77] Creating layer Convolution12
I1023 09:39:14.354233  4519 net.cpp:84] Creating Layer Convolution12
I1023 09:39:14.354235  4519 net.cpp:406] Convolution12 <- Convolution11
I1023 09:39:14.354239  4519 net.cpp:380] Convolution12 -> Convolution12
I1023 09:39:14.355041  4519 net.cpp:122] Setting up Convolution12
I1023 09:39:14.355049  4519 net.cpp:129] Top shape: 8 32 112 112 (3211264)
I1023 09:39:14.355052  4519 net.cpp:137] Memory required for data: 1250787424
I1023 09:39:14.355057  4519 layer_factory.hpp:77] Creating layer BatchNorm12
I1023 09:39:14.355063  4519 net.cpp:84] Creating Layer BatchNorm12
I1023 09:39:14.355067  4519 net.cpp:406] BatchNorm12 <- Convolution12
I1023 09:39:14.355069  4519 net.cpp:367] BatchNorm12 -> Convolution12 (in-place)
I1023 09:39:14.355228  4519 net.cpp:122] Setting up BatchNorm12
I1023 09:39:14.355233  4519 net.cpp:129] Top shape: 8 32 112 112 (3211264)
I1023 09:39:14.355235  4519 net.cpp:137] Memory required for data: 1263632480
I1023 09:39:14.355239  4519 layer_factory.hpp:77] Creating layer Scale12
I1023 09:39:14.355244  4519 net.cpp:84] Creating Layer Scale12
I1023 09:39:14.355247  4519 net.cpp:406] Scale12 <- Convolution12
I1023 09:39:14.355250  4519 net.cpp:367] Scale12 -> Convolution12 (in-place)
I1023 09:39:14.355280  4519 layer_factory.hpp:77] Creating layer Scale12
I1023 09:39:14.355381  4519 net.cpp:122] Setting up Scale12
I1023 09:39:14.355386  4519 net.cpp:129] Top shape: 8 32 112 112 (3211264)
I1023 09:39:14.355387  4519 net.cpp:137] Memory required for data: 1276477536
I1023 09:39:14.355391  4519 layer_factory.hpp:77] Creating layer Eltwise5
I1023 09:39:14.355396  4519 net.cpp:84] Creating Layer Eltwise5
I1023 09:39:14.355397  4519 net.cpp:406] Eltwise5 <- Eltwise4_penlu9_0_split_1
I1023 09:39:14.355401  4519 net.cpp:406] Eltwise5 <- Convolution12
I1023 09:39:14.355404  4519 net.cpp:380] Eltwise5 -> Eltwise5
I1023 09:39:14.355423  4519 net.cpp:122] Setting up Eltwise5
I1023 09:39:14.355427  4519 net.cpp:129] Top shape: 8 32 112 112 (3211264)
I1023 09:39:14.355429  4519 net.cpp:137] Memory required for data: 1289322592
I1023 09:39:14.355432  4519 layer_factory.hpp:77] Creating layer penlu11
I1023 09:39:14.355435  4519 net.cpp:84] Creating Layer penlu11
I1023 09:39:14.355438  4519 net.cpp:406] penlu11 <- Eltwise5
I1023 09:39:14.355443  4519 net.cpp:367] penlu11 -> Eltwise5 (in-place)
I1023 09:39:14.356289  4519 net.cpp:122] Setting up penlu11
I1023 09:39:14.356297  4519 net.cpp:129] Top shape: 8 32 112 112 (3211264)
I1023 09:39:14.356300  4519 net.cpp:137] Memory required for data: 1302167648
I1023 09:39:14.356305  4519 layer_factory.hpp:77] Creating layer Eltwise5_penlu11_0_split
I1023 09:39:14.356310  4519 net.cpp:84] Creating Layer Eltwise5_penlu11_0_split
I1023 09:39:14.356313  4519 net.cpp:406] Eltwise5_penlu11_0_split <- Eltwise5
I1023 09:39:14.356317  4519 net.cpp:380] Eltwise5_penlu11_0_split -> Eltwise5_penlu11_0_split_0
I1023 09:39:14.356322  4519 net.cpp:380] Eltwise5_penlu11_0_split -> Eltwise5_penlu11_0_split_1
I1023 09:39:14.356353  4519 net.cpp:122] Setting up Eltwise5_penlu11_0_split
I1023 09:39:14.356356  4519 net.cpp:129] Top shape: 8 32 112 112 (3211264)
I1023 09:39:14.356359  4519 net.cpp:129] Top shape: 8 32 112 112 (3211264)
I1023 09:39:14.356361  4519 net.cpp:137] Memory required for data: 1327857760
I1023 09:39:14.356364  4519 layer_factory.hpp:77] Creating layer Convolution13
I1023 09:39:14.356371  4519 net.cpp:84] Creating Layer Convolution13
I1023 09:39:14.356374  4519 net.cpp:406] Convolution13 <- Eltwise5_penlu11_0_split_0
I1023 09:39:14.356377  4519 net.cpp:380] Convolution13 -> Convolution13
I1023 09:39:14.357534  4519 net.cpp:122] Setting up Convolution13
I1023 09:39:14.357543  4519 net.cpp:129] Top shape: 8 32 112 112 (3211264)
I1023 09:39:14.357547  4519 net.cpp:137] Memory required for data: 1340702816
I1023 09:39:14.357550  4519 layer_factory.hpp:77] Creating layer BatchNorm13
I1023 09:39:14.357555  4519 net.cpp:84] Creating Layer BatchNorm13
I1023 09:39:14.357558  4519 net.cpp:406] BatchNorm13 <- Convolution13
I1023 09:39:14.357563  4519 net.cpp:367] BatchNorm13 -> Convolution13 (in-place)
I1023 09:39:14.357725  4519 net.cpp:122] Setting up BatchNorm13
I1023 09:39:14.357730  4519 net.cpp:129] Top shape: 8 32 112 112 (3211264)
I1023 09:39:14.357733  4519 net.cpp:137] Memory required for data: 1353547872
I1023 09:39:14.357745  4519 layer_factory.hpp:77] Creating layer Scale13
I1023 09:39:14.357750  4519 net.cpp:84] Creating Layer Scale13
I1023 09:39:14.357753  4519 net.cpp:406] Scale13 <- Convolution13
I1023 09:39:14.357756  4519 net.cpp:367] Scale13 -> Convolution13 (in-place)
I1023 09:39:14.357789  4519 layer_factory.hpp:77] Creating layer Scale13
I1023 09:39:14.357889  4519 net.cpp:122] Setting up Scale13
I1023 09:39:14.357894  4519 net.cpp:129] Top shape: 8 32 112 112 (3211264)
I1023 09:39:14.357897  4519 net.cpp:137] Memory required for data: 1366392928
I1023 09:39:14.357900  4519 layer_factory.hpp:77] Creating layer penlu12
I1023 09:39:14.357905  4519 net.cpp:84] Creating Layer penlu12
I1023 09:39:14.357908  4519 net.cpp:406] penlu12 <- Convolution13
I1023 09:39:14.357911  4519 net.cpp:367] penlu12 -> Convolution13 (in-place)
I1023 09:39:14.358755  4519 net.cpp:122] Setting up penlu12
I1023 09:39:14.358764  4519 net.cpp:129] Top shape: 8 32 112 112 (3211264)
I1023 09:39:14.358767  4519 net.cpp:137] Memory required for data: 1379237984
I1023 09:39:14.358772  4519 layer_factory.hpp:77] Creating layer Convolution14
I1023 09:39:14.358783  4519 net.cpp:84] Creating Layer Convolution14
I1023 09:39:14.358785  4519 net.cpp:406] Convolution14 <- Convolution13
I1023 09:39:14.358790  4519 net.cpp:380] Convolution14 -> Convolution14
I1023 09:39:14.359977  4519 net.cpp:122] Setting up Convolution14
I1023 09:39:14.359984  4519 net.cpp:129] Top shape: 8 32 112 112 (3211264)
I1023 09:39:14.359987  4519 net.cpp:137] Memory required for data: 1392083040
I1023 09:39:14.360011  4519 layer_factory.hpp:77] Creating layer BatchNorm14
I1023 09:39:14.360018  4519 net.cpp:84] Creating Layer BatchNorm14
I1023 09:39:14.360020  4519 net.cpp:406] BatchNorm14 <- Convolution14
I1023 09:39:14.360024  4519 net.cpp:367] BatchNorm14 -> Convolution14 (in-place)
I1023 09:39:14.360185  4519 net.cpp:122] Setting up BatchNorm14
I1023 09:39:14.360190  4519 net.cpp:129] Top shape: 8 32 112 112 (3211264)
I1023 09:39:14.360193  4519 net.cpp:137] Memory required for data: 1404928096
I1023 09:39:14.360198  4519 layer_factory.hpp:77] Creating layer Scale14
I1023 09:39:14.360201  4519 net.cpp:84] Creating Layer Scale14
I1023 09:39:14.360203  4519 net.cpp:406] Scale14 <- Convolution14
I1023 09:39:14.360206  4519 net.cpp:367] Scale14 -> Convolution14 (in-place)
I1023 09:39:14.360236  4519 layer_factory.hpp:77] Creating layer Scale14
I1023 09:39:14.360334  4519 net.cpp:122] Setting up Scale14
I1023 09:39:14.360338  4519 net.cpp:129] Top shape: 8 32 112 112 (3211264)
I1023 09:39:14.360340  4519 net.cpp:137] Memory required for data: 1417773152
I1023 09:39:14.360344  4519 layer_factory.hpp:77] Creating layer Eltwise6
I1023 09:39:14.360348  4519 net.cpp:84] Creating Layer Eltwise6
I1023 09:39:14.360352  4519 net.cpp:406] Eltwise6 <- Eltwise5_penlu11_0_split_1
I1023 09:39:14.360354  4519 net.cpp:406] Eltwise6 <- Convolution14
I1023 09:39:14.360357  4519 net.cpp:380] Eltwise6 -> Eltwise6
I1023 09:39:14.360375  4519 net.cpp:122] Setting up Eltwise6
I1023 09:39:14.360379  4519 net.cpp:129] Top shape: 8 32 112 112 (3211264)
I1023 09:39:14.360381  4519 net.cpp:137] Memory required for data: 1430618208
I1023 09:39:14.360383  4519 layer_factory.hpp:77] Creating layer penlu13
I1023 09:39:14.360389  4519 net.cpp:84] Creating Layer penlu13
I1023 09:39:14.360391  4519 net.cpp:406] penlu13 <- Eltwise6
I1023 09:39:14.360394  4519 net.cpp:367] penlu13 -> Eltwise6 (in-place)
I1023 09:39:14.361232  4519 net.cpp:122] Setting up penlu13
I1023 09:39:14.361240  4519 net.cpp:129] Top shape: 8 32 112 112 (3211264)
I1023 09:39:14.361243  4519 net.cpp:137] Memory required for data: 1443463264
I1023 09:39:14.361248  4519 layer_factory.hpp:77] Creating layer Eltwise6_penlu13_0_split
I1023 09:39:14.361253  4519 net.cpp:84] Creating Layer Eltwise6_penlu13_0_split
I1023 09:39:14.361255  4519 net.cpp:406] Eltwise6_penlu13_0_split <- Eltwise6
I1023 09:39:14.361259  4519 net.cpp:380] Eltwise6_penlu13_0_split -> Eltwise6_penlu13_0_split_0
I1023 09:39:14.361263  4519 net.cpp:380] Eltwise6_penlu13_0_split -> Eltwise6_penlu13_0_split_1
I1023 09:39:14.361304  4519 net.cpp:122] Setting up Eltwise6_penlu13_0_split
I1023 09:39:14.361308  4519 net.cpp:129] Top shape: 8 32 112 112 (3211264)
I1023 09:39:14.361310  4519 net.cpp:129] Top shape: 8 32 112 112 (3211264)
I1023 09:39:14.361312  4519 net.cpp:137] Memory required for data: 1469153376
I1023 09:39:14.361315  4519 layer_factory.hpp:77] Creating layer Convolution15
I1023 09:39:14.361322  4519 net.cpp:84] Creating Layer Convolution15
I1023 09:39:14.361325  4519 net.cpp:406] Convolution15 <- Eltwise6_penlu13_0_split_0
I1023 09:39:14.361330  4519 net.cpp:380] Convolution15 -> Convolution15
I1023 09:39:14.362330  4519 net.cpp:122] Setting up Convolution15
I1023 09:39:14.362339  4519 net.cpp:129] Top shape: 8 64 56 56 (1605632)
I1023 09:39:14.362342  4519 net.cpp:137] Memory required for data: 1475575904
I1023 09:39:14.362346  4519 layer_factory.hpp:77] Creating layer BatchNorm15
I1023 09:39:14.362350  4519 net.cpp:84] Creating Layer BatchNorm15
I1023 09:39:14.362354  4519 net.cpp:406] BatchNorm15 <- Convolution15
I1023 09:39:14.362359  4519 net.cpp:367] BatchNorm15 -> Convolution15 (in-place)
I1023 09:39:14.362519  4519 net.cpp:122] Setting up BatchNorm15
I1023 09:39:14.362524  4519 net.cpp:129] Top shape: 8 64 56 56 (1605632)
I1023 09:39:14.362526  4519 net.cpp:137] Memory required for data: 1481998432
I1023 09:39:14.362530  4519 layer_factory.hpp:77] Creating layer Scale15
I1023 09:39:14.362534  4519 net.cpp:84] Creating Layer Scale15
I1023 09:39:14.362537  4519 net.cpp:406] Scale15 <- Convolution15
I1023 09:39:14.362541  4519 net.cpp:367] Scale15 -> Convolution15 (in-place)
I1023 09:39:14.362571  4519 layer_factory.hpp:77] Creating layer Scale15
I1023 09:39:14.362664  4519 net.cpp:122] Setting up Scale15
I1023 09:39:14.362668  4519 net.cpp:129] Top shape: 8 64 56 56 (1605632)
I1023 09:39:14.362670  4519 net.cpp:137] Memory required for data: 1488420960
I1023 09:39:14.362674  4519 layer_factory.hpp:77] Creating layer Convolution16
I1023 09:39:14.362681  4519 net.cpp:84] Creating Layer Convolution16
I1023 09:39:14.362684  4519 net.cpp:406] Convolution16 <- Eltwise6_penlu13_0_split_1
I1023 09:39:14.362689  4519 net.cpp:380] Convolution16 -> Convolution16
I1023 09:39:14.364053  4519 net.cpp:122] Setting up Convolution16
I1023 09:39:14.364061  4519 net.cpp:129] Top shape: 8 64 56 56 (1605632)
I1023 09:39:14.364063  4519 net.cpp:137] Memory required for data: 1494843488
I1023 09:39:14.364068  4519 layer_factory.hpp:77] Creating layer BatchNorm16
I1023 09:39:14.364073  4519 net.cpp:84] Creating Layer BatchNorm16
I1023 09:39:14.364076  4519 net.cpp:406] BatchNorm16 <- Convolution16
I1023 09:39:14.364080  4519 net.cpp:367] BatchNorm16 -> Convolution16 (in-place)
I1023 09:39:14.364235  4519 net.cpp:122] Setting up BatchNorm16
I1023 09:39:14.364239  4519 net.cpp:129] Top shape: 8 64 56 56 (1605632)
I1023 09:39:14.364243  4519 net.cpp:137] Memory required for data: 1501266016
I1023 09:39:14.364246  4519 layer_factory.hpp:77] Creating layer Scale16
I1023 09:39:14.364253  4519 net.cpp:84] Creating Layer Scale16
I1023 09:39:14.364254  4519 net.cpp:406] Scale16 <- Convolution16
I1023 09:39:14.364258  4519 net.cpp:367] Scale16 -> Convolution16 (in-place)
I1023 09:39:14.364287  4519 layer_factory.hpp:77] Creating layer Scale16
I1023 09:39:14.364378  4519 net.cpp:122] Setting up Scale16
I1023 09:39:14.364383  4519 net.cpp:129] Top shape: 8 64 56 56 (1605632)
I1023 09:39:14.364385  4519 net.cpp:137] Memory required for data: 1507688544
I1023 09:39:14.364388  4519 layer_factory.hpp:77] Creating layer penlu14
I1023 09:39:14.364394  4519 net.cpp:84] Creating Layer penlu14
I1023 09:39:14.364398  4519 net.cpp:406] penlu14 <- Convolution16
I1023 09:39:14.364400  4519 net.cpp:367] penlu14 -> Convolution16 (in-place)
I1023 09:39:14.365149  4519 net.cpp:122] Setting up penlu14
I1023 09:39:14.365157  4519 net.cpp:129] Top shape: 8 64 56 56 (1605632)
I1023 09:39:14.365160  4519 net.cpp:137] Memory required for data: 1514111072
I1023 09:39:14.365165  4519 layer_factory.hpp:77] Creating layer Convolution17
I1023 09:39:14.365180  4519 net.cpp:84] Creating Layer Convolution17
I1023 09:39:14.365183  4519 net.cpp:406] Convolution17 <- Convolution16
I1023 09:39:14.365188  4519 net.cpp:380] Convolution17 -> Convolution17
I1023 09:39:14.367509  4519 net.cpp:122] Setting up Convolution17
I1023 09:39:14.367518  4519 net.cpp:129] Top shape: 8 64 56 56 (1605632)
I1023 09:39:14.367522  4519 net.cpp:137] Memory required for data: 1520533600
I1023 09:39:14.367525  4519 layer_factory.hpp:77] Creating layer BatchNorm17
I1023 09:39:14.367532  4519 net.cpp:84] Creating Layer BatchNorm17
I1023 09:39:14.367534  4519 net.cpp:406] BatchNorm17 <- Convolution17
I1023 09:39:14.367537  4519 net.cpp:367] BatchNorm17 -> Convolution17 (in-place)
I1023 09:39:14.367699  4519 net.cpp:122] Setting up BatchNorm17
I1023 09:39:14.367704  4519 net.cpp:129] Top shape: 8 64 56 56 (1605632)
I1023 09:39:14.367707  4519 net.cpp:137] Memory required for data: 1526956128
I1023 09:39:14.367712  4519 layer_factory.hpp:77] Creating layer Scale17
I1023 09:39:14.367715  4519 net.cpp:84] Creating Layer Scale17
I1023 09:39:14.367717  4519 net.cpp:406] Scale17 <- Convolution17
I1023 09:39:14.367720  4519 net.cpp:367] Scale17 -> Convolution17 (in-place)
I1023 09:39:14.367753  4519 layer_factory.hpp:77] Creating layer Scale17
I1023 09:39:14.367846  4519 net.cpp:122] Setting up Scale17
I1023 09:39:14.367851  4519 net.cpp:129] Top shape: 8 64 56 56 (1605632)
I1023 09:39:14.367853  4519 net.cpp:137] Memory required for data: 1533378656
I1023 09:39:14.367857  4519 layer_factory.hpp:77] Creating layer Eltwise7
I1023 09:39:14.367862  4519 net.cpp:84] Creating Layer Eltwise7
I1023 09:39:14.367866  4519 net.cpp:406] Eltwise7 <- Convolution15
I1023 09:39:14.367867  4519 net.cpp:406] Eltwise7 <- Convolution17
I1023 09:39:14.367871  4519 net.cpp:380] Eltwise7 -> Eltwise7
I1023 09:39:14.367889  4519 net.cpp:122] Setting up Eltwise7
I1023 09:39:14.367893  4519 net.cpp:129] Top shape: 8 64 56 56 (1605632)
I1023 09:39:14.367895  4519 net.cpp:137] Memory required for data: 1539801184
I1023 09:39:14.367897  4519 layer_factory.hpp:77] Creating layer penlu15
I1023 09:39:14.367902  4519 net.cpp:84] Creating Layer penlu15
I1023 09:39:14.367904  4519 net.cpp:406] penlu15 <- Eltwise7
I1023 09:39:14.367908  4519 net.cpp:367] penlu15 -> Eltwise7 (in-place)
I1023 09:39:14.368175  4519 net.cpp:122] Setting up penlu15
I1023 09:39:14.368180  4519 net.cpp:129] Top shape: 8 64 56 56 (1605632)
I1023 09:39:14.368181  4519 net.cpp:137] Memory required for data: 1546223712
I1023 09:39:14.368186  4519 layer_factory.hpp:77] Creating layer Eltwise7_penlu15_0_split
I1023 09:39:14.368191  4519 net.cpp:84] Creating Layer Eltwise7_penlu15_0_split
I1023 09:39:14.368192  4519 net.cpp:406] Eltwise7_penlu15_0_split <- Eltwise7
I1023 09:39:14.368197  4519 net.cpp:380] Eltwise7_penlu15_0_split -> Eltwise7_penlu15_0_split_0
I1023 09:39:14.368201  4519 net.cpp:380] Eltwise7_penlu15_0_split -> Eltwise7_penlu15_0_split_1
I1023 09:39:14.368228  4519 net.cpp:122] Setting up Eltwise7_penlu15_0_split
I1023 09:39:14.368232  4519 net.cpp:129] Top shape: 8 64 56 56 (1605632)
I1023 09:39:14.368234  4519 net.cpp:129] Top shape: 8 64 56 56 (1605632)
I1023 09:39:14.368237  4519 net.cpp:137] Memory required for data: 1559068768
I1023 09:39:14.368238  4519 layer_factory.hpp:77] Creating layer Convolution18
I1023 09:39:14.368245  4519 net.cpp:84] Creating Layer Convolution18
I1023 09:39:14.368248  4519 net.cpp:406] Convolution18 <- Eltwise7_penlu15_0_split_0
I1023 09:39:14.368252  4519 net.cpp:380] Convolution18 -> Convolution18
I1023 09:39:14.370707  4519 net.cpp:122] Setting up Convolution18
I1023 09:39:14.370714  4519 net.cpp:129] Top shape: 8 64 56 56 (1605632)
I1023 09:39:14.370717  4519 net.cpp:137] Memory required for data: 1565491296
I1023 09:39:14.370723  4519 layer_factory.hpp:77] Creating layer BatchNorm18
I1023 09:39:14.373112  4519 net.cpp:84] Creating Layer BatchNorm18
I1023 09:39:14.373121  4519 net.cpp:406] BatchNorm18 <- Convolution18
I1023 09:39:14.373124  4519 net.cpp:367] BatchNorm18 -> Convolution18 (in-place)
I1023 09:39:14.373322  4519 net.cpp:122] Setting up BatchNorm18
I1023 09:39:14.373328  4519 net.cpp:129] Top shape: 8 64 56 56 (1605632)
I1023 09:39:14.373332  4519 net.cpp:137] Memory required for data: 1571913824
I1023 09:39:14.373337  4519 layer_factory.hpp:77] Creating layer Scale18
I1023 09:39:14.373342  4519 net.cpp:84] Creating Layer Scale18
I1023 09:39:14.373344  4519 net.cpp:406] Scale18 <- Convolution18
I1023 09:39:14.373347  4519 net.cpp:367] Scale18 -> Convolution18 (in-place)
I1023 09:39:14.373383  4519 layer_factory.hpp:77] Creating layer Scale18
I1023 09:39:14.373488  4519 net.cpp:122] Setting up Scale18
I1023 09:39:14.373493  4519 net.cpp:129] Top shape: 8 64 56 56 (1605632)
I1023 09:39:14.373497  4519 net.cpp:137] Memory required for data: 1578336352
I1023 09:39:14.373500  4519 layer_factory.hpp:77] Creating layer penlu16
I1023 09:39:14.373505  4519 net.cpp:84] Creating Layer penlu16
I1023 09:39:14.373508  4519 net.cpp:406] penlu16 <- Convolution18
I1023 09:39:14.373512  4519 net.cpp:367] penlu16 -> Convolution18 (in-place)
I1023 09:39:14.374349  4519 net.cpp:122] Setting up penlu16
I1023 09:39:14.374358  4519 net.cpp:129] Top shape: 8 64 56 56 (1605632)
I1023 09:39:14.374361  4519 net.cpp:137] Memory required for data: 1584758880
I1023 09:39:14.374366  4519 layer_factory.hpp:77] Creating layer Convolution19
I1023 09:39:14.374375  4519 net.cpp:84] Creating Layer Convolution19
I1023 09:39:14.374378  4519 net.cpp:406] Convolution19 <- Convolution18
I1023 09:39:14.374383  4519 net.cpp:380] Convolution19 -> Convolution19
I1023 09:39:14.376430  4519 net.cpp:122] Setting up Convolution19
I1023 09:39:14.376438  4519 net.cpp:129] Top shape: 8 64 56 56 (1605632)
I1023 09:39:14.376441  4519 net.cpp:137] Memory required for data: 1591181408
I1023 09:39:14.376446  4519 layer_factory.hpp:77] Creating layer BatchNorm19
I1023 09:39:14.376452  4519 net.cpp:84] Creating Layer BatchNorm19
I1023 09:39:14.376456  4519 net.cpp:406] BatchNorm19 <- Convolution19
I1023 09:39:14.376459  4519 net.cpp:367] BatchNorm19 -> Convolution19 (in-place)
I1023 09:39:14.376628  4519 net.cpp:122] Setting up BatchNorm19
I1023 09:39:14.376642  4519 net.cpp:129] Top shape: 8 64 56 56 (1605632)
I1023 09:39:14.376646  4519 net.cpp:137] Memory required for data: 1597603936
I1023 09:39:14.376651  4519 layer_factory.hpp:77] Creating layer Scale19
I1023 09:39:14.376655  4519 net.cpp:84] Creating Layer Scale19
I1023 09:39:14.376658  4519 net.cpp:406] Scale19 <- Convolution19
I1023 09:39:14.376662  4519 net.cpp:367] Scale19 -> Convolution19 (in-place)
I1023 09:39:14.376695  4519 layer_factory.hpp:77] Creating layer Scale19
I1023 09:39:14.376816  4519 net.cpp:122] Setting up Scale19
I1023 09:39:14.376821  4519 net.cpp:129] Top shape: 8 64 56 56 (1605632)
I1023 09:39:14.376822  4519 net.cpp:137] Memory required for data: 1604026464
I1023 09:39:14.376827  4519 layer_factory.hpp:77] Creating layer Eltwise8
I1023 09:39:14.376832  4519 net.cpp:84] Creating Layer Eltwise8
I1023 09:39:14.376834  4519 net.cpp:406] Eltwise8 <- Eltwise7_penlu15_0_split_1
I1023 09:39:14.376837  4519 net.cpp:406] Eltwise8 <- Convolution19
I1023 09:39:14.376842  4519 net.cpp:380] Eltwise8 -> Eltwise8
I1023 09:39:14.376862  4519 net.cpp:122] Setting up Eltwise8
I1023 09:39:14.376865  4519 net.cpp:129] Top shape: 8 64 56 56 (1605632)
I1023 09:39:14.376868  4519 net.cpp:137] Memory required for data: 1610448992
I1023 09:39:14.376869  4519 layer_factory.hpp:77] Creating layer penlu17
I1023 09:39:14.376875  4519 net.cpp:84] Creating Layer penlu17
I1023 09:39:14.376878  4519 net.cpp:406] penlu17 <- Eltwise8
I1023 09:39:14.376881  4519 net.cpp:367] penlu17 -> Eltwise8 (in-place)
I1023 09:39:14.377148  4519 net.cpp:122] Setting up penlu17
I1023 09:39:14.377152  4519 net.cpp:129] Top shape: 8 64 56 56 (1605632)
I1023 09:39:14.377154  4519 net.cpp:137] Memory required for data: 1616871520
I1023 09:39:14.377159  4519 layer_factory.hpp:77] Creating layer Eltwise8_penlu17_0_split
I1023 09:39:14.377163  4519 net.cpp:84] Creating Layer Eltwise8_penlu17_0_split
I1023 09:39:14.377174  4519 net.cpp:406] Eltwise8_penlu17_0_split <- Eltwise8
I1023 09:39:14.377179  4519 net.cpp:380] Eltwise8_penlu17_0_split -> Eltwise8_penlu17_0_split_0
I1023 09:39:14.377183  4519 net.cpp:380] Eltwise8_penlu17_0_split -> Eltwise8_penlu17_0_split_1
I1023 09:39:14.377213  4519 net.cpp:122] Setting up Eltwise8_penlu17_0_split
I1023 09:39:14.377218  4519 net.cpp:129] Top shape: 8 64 56 56 (1605632)
I1023 09:39:14.377221  4519 net.cpp:129] Top shape: 8 64 56 56 (1605632)
I1023 09:39:14.377223  4519 net.cpp:137] Memory required for data: 1629716576
I1023 09:39:14.377225  4519 layer_factory.hpp:77] Creating layer Convolution20
I1023 09:39:14.377233  4519 net.cpp:84] Creating Layer Convolution20
I1023 09:39:14.377235  4519 net.cpp:406] Convolution20 <- Eltwise8_penlu17_0_split_0
I1023 09:39:14.377239  4519 net.cpp:380] Convolution20 -> Convolution20
I1023 09:39:14.379420  4519 net.cpp:122] Setting up Convolution20
I1023 09:39:14.379429  4519 net.cpp:129] Top shape: 8 64 56 56 (1605632)
I1023 09:39:14.379432  4519 net.cpp:137] Memory required for data: 1636139104
I1023 09:39:14.379437  4519 layer_factory.hpp:77] Creating layer BatchNorm20
I1023 09:39:14.379442  4519 net.cpp:84] Creating Layer BatchNorm20
I1023 09:39:14.379446  4519 net.cpp:406] BatchNorm20 <- Convolution20
I1023 09:39:14.379449  4519 net.cpp:367] BatchNorm20 -> Convolution20 (in-place)
I1023 09:39:14.379621  4519 net.cpp:122] Setting up BatchNorm20
I1023 09:39:14.379626  4519 net.cpp:129] Top shape: 8 64 56 56 (1605632)
I1023 09:39:14.379628  4519 net.cpp:137] Memory required for data: 1642561632
I1023 09:39:14.379632  4519 layer_factory.hpp:77] Creating layer Scale20
I1023 09:39:14.379637  4519 net.cpp:84] Creating Layer Scale20
I1023 09:39:14.379639  4519 net.cpp:406] Scale20 <- Convolution20
I1023 09:39:14.379642  4519 net.cpp:367] Scale20 -> Convolution20 (in-place)
I1023 09:39:14.379676  4519 layer_factory.hpp:77] Creating layer Scale20
I1023 09:39:14.379778  4519 net.cpp:122] Setting up Scale20
I1023 09:39:14.379783  4519 net.cpp:129] Top shape: 8 64 56 56 (1605632)
I1023 09:39:14.379786  4519 net.cpp:137] Memory required for data: 1648984160
I1023 09:39:14.379789  4519 layer_factory.hpp:77] Creating layer penlu18
I1023 09:39:14.379794  4519 net.cpp:84] Creating Layer penlu18
I1023 09:39:14.379797  4519 net.cpp:406] penlu18 <- Convolution20
I1023 09:39:14.379801  4519 net.cpp:367] penlu18 -> Convolution20 (in-place)
I1023 09:39:14.380578  4519 net.cpp:122] Setting up penlu18
I1023 09:39:14.380586  4519 net.cpp:129] Top shape: 8 64 56 56 (1605632)
I1023 09:39:14.380589  4519 net.cpp:137] Memory required for data: 1655406688
I1023 09:39:14.380594  4519 layer_factory.hpp:77] Creating layer Convolution21
I1023 09:39:14.380601  4519 net.cpp:84] Creating Layer Convolution21
I1023 09:39:14.380604  4519 net.cpp:406] Convolution21 <- Convolution20
I1023 09:39:14.380609  4519 net.cpp:380] Convolution21 -> Convolution21
I1023 09:39:14.382417  4519 net.cpp:122] Setting up Convolution21
I1023 09:39:14.382426  4519 net.cpp:129] Top shape: 8 64 56 56 (1605632)
I1023 09:39:14.382429  4519 net.cpp:137] Memory required for data: 1661829216
I1023 09:39:14.382433  4519 layer_factory.hpp:77] Creating layer BatchNorm21
I1023 09:39:14.382439  4519 net.cpp:84] Creating Layer BatchNorm21
I1023 09:39:14.382442  4519 net.cpp:406] BatchNorm21 <- Convolution21
I1023 09:39:14.382447  4519 net.cpp:367] BatchNorm21 -> Convolution21 (in-place)
I1023 09:39:14.382613  4519 net.cpp:122] Setting up BatchNorm21
I1023 09:39:14.382617  4519 net.cpp:129] Top shape: 8 64 56 56 (1605632)
I1023 09:39:14.382621  4519 net.cpp:137] Memory required for data: 1668251744
I1023 09:39:14.382624  4519 layer_factory.hpp:77] Creating layer Scale21
I1023 09:39:14.382629  4519 net.cpp:84] Creating Layer Scale21
I1023 09:39:14.382632  4519 net.cpp:406] Scale21 <- Convolution21
I1023 09:39:14.382635  4519 net.cpp:367] Scale21 -> Convolution21 (in-place)
I1023 09:39:14.382668  4519 layer_factory.hpp:77] Creating layer Scale21
I1023 09:39:14.382766  4519 net.cpp:122] Setting up Scale21
I1023 09:39:14.382779  4519 net.cpp:129] Top shape: 8 64 56 56 (1605632)
I1023 09:39:14.382781  4519 net.cpp:137] Memory required for data: 1674674272
I1023 09:39:14.382786  4519 layer_factory.hpp:77] Creating layer Eltwise9
I1023 09:39:14.382791  4519 net.cpp:84] Creating Layer Eltwise9
I1023 09:39:14.382794  4519 net.cpp:406] Eltwise9 <- Eltwise8_penlu17_0_split_1
I1023 09:39:14.382797  4519 net.cpp:406] Eltwise9 <- Convolution21
I1023 09:39:14.382800  4519 net.cpp:380] Eltwise9 -> Eltwise9
I1023 09:39:14.382820  4519 net.cpp:122] Setting up Eltwise9
I1023 09:39:14.382824  4519 net.cpp:129] Top shape: 8 64 56 56 (1605632)
I1023 09:39:14.382827  4519 net.cpp:137] Memory required for data: 1681096800
I1023 09:39:14.382828  4519 layer_factory.hpp:77] Creating layer penlu19
I1023 09:39:14.382833  4519 net.cpp:84] Creating Layer penlu19
I1023 09:39:14.382836  4519 net.cpp:406] penlu19 <- Eltwise9
I1023 09:39:14.382839  4519 net.cpp:367] penlu19 -> Eltwise9 (in-place)
I1023 09:39:14.383057  4519 net.cpp:122] Setting up penlu19
I1023 09:39:14.383062  4519 net.cpp:129] Top shape: 8 64 56 56 (1605632)
I1023 09:39:14.383064  4519 net.cpp:137] Memory required for data: 1687519328
I1023 09:39:14.383069  4519 layer_factory.hpp:77] Creating layer Pooling1
I1023 09:39:14.383074  4519 net.cpp:84] Creating Layer Pooling1
I1023 09:39:14.383076  4519 net.cpp:406] Pooling1 <- Eltwise9
I1023 09:39:14.383080  4519 net.cpp:380] Pooling1 -> Pooling1
I1023 09:39:14.383224  4519 net.cpp:122] Setting up Pooling1
I1023 09:39:14.383230  4519 net.cpp:129] Top shape: 8 64 1 1 (512)
I1023 09:39:14.383232  4519 net.cpp:137] Memory required for data: 1687521376
I1023 09:39:14.383235  4519 layer_factory.hpp:77] Creating layer InnerProduct1
I1023 09:39:14.383240  4519 net.cpp:84] Creating Layer InnerProduct1
I1023 09:39:14.383242  4519 net.cpp:406] InnerProduct1 <- Pooling1
I1023 09:39:14.383247  4519 net.cpp:380] InnerProduct1 -> InnerProduct1
I1023 09:39:14.383358  4519 net.cpp:122] Setting up InnerProduct1
I1023 09:39:14.383361  4519 net.cpp:129] Top shape: 8 10 (80)
I1023 09:39:14.383364  4519 net.cpp:137] Memory required for data: 1687521696
I1023 09:39:14.383368  4519 layer_factory.hpp:77] Creating layer InnerProduct1_InnerProduct1_0_split
I1023 09:39:14.383371  4519 net.cpp:84] Creating Layer InnerProduct1_InnerProduct1_0_split
I1023 09:39:14.383374  4519 net.cpp:406] InnerProduct1_InnerProduct1_0_split <- InnerProduct1
I1023 09:39:14.383378  4519 net.cpp:380] InnerProduct1_InnerProduct1_0_split -> InnerProduct1_InnerProduct1_0_split_0
I1023 09:39:14.383381  4519 net.cpp:380] InnerProduct1_InnerProduct1_0_split -> InnerProduct1_InnerProduct1_0_split_1
I1023 09:39:14.383411  4519 net.cpp:122] Setting up InnerProduct1_InnerProduct1_0_split
I1023 09:39:14.383415  4519 net.cpp:129] Top shape: 8 10 (80)
I1023 09:39:14.383419  4519 net.cpp:129] Top shape: 8 10 (80)
I1023 09:39:14.383420  4519 net.cpp:137] Memory required for data: 1687522336
I1023 09:39:14.383422  4519 layer_factory.hpp:77] Creating layer SoftmaxWithLoss1
I1023 09:39:14.383426  4519 net.cpp:84] Creating Layer SoftmaxWithLoss1
I1023 09:39:14.383429  4519 net.cpp:406] SoftmaxWithLoss1 <- InnerProduct1_InnerProduct1_0_split_0
I1023 09:39:14.383431  4519 net.cpp:406] SoftmaxWithLoss1 <- Data2_Data1_1_split_0
…
