…
I1001 17:18:19.664855  5416 net.cpp:294] The NetState phase (0) differed from the phase (1) specified by a rule in layer Accuracy1
I1001 17:18:19.665313  5416 net.cpp:51] Initializing net from parameters: 
name: "resnet_cifar10"
state {
  phase: TRAIN
  level: 0
  stage: ""
}
layer {
  name: "Data1"
  type: "Data"
  top: "Data1"
  top: "Data2"
  include {
    phase: TRAIN
  }
  transform_param {
    mirror: true
    crop_size: 28
    mean_file: "/home/x306/caffe/xn/PENLU/data/cifar10/mean.binaryproto"
  }
  data_param {
    source: "/home/x306/caffe/xn/PENLU/data/cifar10/cifar10_train_lmdb"
    batch_size: 100
    backend: LMDB
  }
}
layer {
  name: "Convolution1"
  type: "Convolution"
  bottom: "Data1"
  top: "Convolution1"
  param {
    lr_mult: 1
    decay_mult: 1
  }
  param {
    lr_mult: 2
    decay_mult: 0
  }
  convolution_param {
    num_output: 16
    pad: 1
    kernel_size: 3
    stride: 1
    weight_filler {
      type: "gaussian"
      std: 0.118
    }
    bias_filler {
      type: "constant"
      value: 0
    }
  }
}
layer {
  name: "BatchNorm1"
  type: "BatchNorm"
  bottom: "Convolution1"
  top: "Convolution1"
  param {
    lr_mult: 0
    decay_mult: 0
  }
  param {
    lr_mult: 0
    decay_mult: 0
  }
  param {
    lr_mult: 0
    decay_mult: 0
  }
}
layer {
  name: "Scale1"
  type: "Scale"
  bottom: "Convolution1"
  top: "Convolution1"
  scale_param {
    bias_term: true
  }
}
layer {
  name: "penlu1"
  type: "PENLU"
  bottom: "Convolution1"
  top: "Convolution1"
  param {
    lr_mult: 2
    decay_mult: 0
  }
  param {
    lr_mult: 2
    decay_mult: 0
  }
  param {
    lr_mult: 0
    decay_mult: 0
  }
  penlu_param {
    alpha_filler {
      type: "constant"
      value: 0.25
    }
    beta_filler {
      type: "constant"
      value: 1
    }
    eta_filler {
      type: "constant"
      value: 1
    }
  }
}
layer {
  name: "Convolution2"
  type: "Convolution"
  bottom: "Convolution1"
  top: "Convolution2"
  param {
    lr_mult: 1
    decay_mult: 1
  }
  param {
    lr_mult: 2
    decay_mult: 0
  }
  convolution_param {
    num_output: 16
    pad: 1
    kernel_size: 3
    stride: 1
    weight_filler {
      type: "gaussian"
      std: 0.118
    }
    bias_filler {
      type: "constant"
      value: 0
    }
  }
}
layer {
  name: "BatchNorm2"
  type: "BatchNorm"
  bottom: "Convolution2"
  top: "Convolution2"
  param {
    lr_mult: 0
    decay_mult: 0
  }
  param {
    lr_mult: 0
    decay_mult: 0
  }
  param {
    lr_mult: 0
    decay_mult: 0
  }
}
layer {
  name: "Scale2"
  type: "Scale"
  bottom: "Convolution2"
  top: "Convolution2"
  scale_param {
    bias_term: true
  }
}
layer {
  name: "penlu2"
  type: "PENLU"
  bottom: "Convolution2"
  top: "Convolution2"
  param {
    lr_mult: 2
    decay_mult: 0
  }
  param {
    lr_mult: 2
    decay_mult: 0
  }
  param {
    lr_mult: 0
    decay_mult: 0
  }
  penlu_param {
    alpha_filler {
      type: "constant"
      value: 0.25
    }
    beta_filler {
      type: "constant"
      value: 1
    }
    eta_filler {
      type: "constant"
      value: 1
    }
  }
}
layer {
  name: "Convolution3"
  type: "Convolution"
  bottom: "Convolution2"
  top: "Convolution3"
  param {
    lr_mult: 1
    decay_mult: 1
  }
  param {
    lr_mult: 2
    decay_mult: 0
  }
  convolution_param {
    num_output: 16
    pad: 1
    kernel_size: 3
    stride: 1
    weight_filler {
      type: "gaussian"
      std: 0.118
    }
    bias_filler {
      type: "constant"
      value: 0
    }
  }
}
layer {
  name: "BatchNorm3"
  type: "BatchNorm"
  bottom: "Convolution3"
  top: "Convolution3"
  param {
    lr_mult: 0
    decay_mult: 0
  }
  param {
    lr_mult: 0
    decay_mult: 0
  }
  param {
    lr_mult: 0
    decay_mult: 0
  }
}
layer {
  name: "Scale3"
  type: "Scale"
  bottom: "Convolution3"
  top: "Convolution3"
  scale_param {
    bias_term: true
  }
}
layer {
  name: "Eltwise1"
  type: "Eltwise"
  bottom: "Convolution1"
  bottom: "Convolution3"
  top: "Eltwise1"
  eltwise_param {
    operation: SUM
  }
}
layer {
  name: "penlu3"
  type: "PENLU"
  bottom: "Eltwise1"
  top: "Eltwise1"
  param {
    lr_mult: 2
    decay_mult: 0
  }
  param {
    lr_mult: 2
    decay_mult: 0
  }
  param {
    lr_mult: 0
    decay_mult: 0
  }
  penlu_param {
    alpha_filler {
      type: "constant"
      value: 0.25
    }
    beta_filler {
      type: "constant"
      value: 1
    }
    eta_filler {
      type: "constant"
      value: 1
    }
  }
}
layer {
  name: "Convolution4"
  type: "Convolution"
  bottom: "Eltwise1"
  top: "Convolution4"
  param {
    lr_mult: 1
    decay_mult: 1
  }
  param {
    lr_mult: 2
    decay_mult: 0
  }
  convolution_param {
    num_output: 16
    pad: 1
    kernel_size: 3
    stride: 1
    weight_filler {
      type: "gaussian"
      std: 0.118
    }
    bias_filler {
      type: "constant"
      value: 0
    }
  }
}
layer {
  name: "BatchNorm4"
  type: "BatchNorm"
  bottom: "Convolution4"
  top: "Convolution4"
  param {
    lr_mult: 0
    decay_mult: 0
  }
  param {
    lr_mult: 0
    decay_mult: 0
  }
  param {
    lr_mult: 0
    decay_mult: 0
  }
}
layer {
  name: "Scale4"
  type: "Scale"
  bottom: "Convolution4"
  top: "Convolution4"
  scale_param {
    bias_term: true
  }
}
layer {
  name: "penlu4"
  type: "PENLU"
  bottom: "Convolution4"
  top: "Convolution4"
  param {
    lr_mult: 2
    decay_mult: 0
  }
  param {
    lr_mult: 2
    decay_mult: 0
  }
  param {
    lr_mult: 0
    decay_mult: 0
  }
  penlu_param {
    alpha_filler {
      type: "constant"
      value: 0.25
    }
    beta_filler {
      type: "constant"
      value: 1
    }
    eta_filler {
      type: "constant"
      value: 1
    }
  }
}
layer {
  name: "Convolution5"
  type: "Convolution"
  bottom: "Convolution4"
  top: "Convolution5"
  param {
    lr_mult: 1
    decay_mult: 1
  }
  param {
    lr_mult: 2
    decay_mult: 0
  }
  convolution_param {
    num_output: 16
    pad: 1
    kernel_size: 3
    stride: 1
    weight_filler {
      type: "gaussian"
      std: 0.118
    }
    bias_filler {
      type: "constant"
      value: 0
    }
  }
}
layer {
  name: "BatchNorm5"
  type: "BatchNorm"
  bottom: "Convolution5"
  top: "Convolution5"
  param {
    lr_mult: 0
    decay_mult: 0
  }
  param {
    lr_mult: 0
    decay_mult: 0
  }
  param {
    lr_mult: 0
    decay_mult: 0
  }
}
layer {
  name: "Scale5"
  type: "Scale"
  bottom: "Convolution5"
  top: "Convolution5"
  scale_param {
    bias_term: true
  }
}
layer {
  name: "Eltwise2"
  type: "Eltwise"
  bottom: "Eltwise1"
  bottom: "Convolution5"
  top: "Eltwise2"
  eltwise_param {
    operation: SUM
  }
}
layer {
  name: "penlu5"
  type: "PENLU"
  bottom: "Eltwise2"
  top: "Eltwise2"
  param {
    lr_mult: 2
    decay_mult: 0
  }
  param {
    lr_mult: 2
    decay_mult: 0
  }
  param {
    lr_mult: 0
    decay_mult: 0
  }
  penlu_param {
    alpha_filler {
      type: "constant"
      value: 0.25
    }
    beta_filler {
      type: "constant"
      value: 1
    }
    eta_filler {
      type: "constant"
      value: 1
    }
  }
}
layer {
  name: "Convolution6"
  type: "Convolution"
  bottom: "Eltwise2"
  top: "Convolution6"
  param {
    lr_mult: 1
    decay_mult: 1
  }
  param {
    lr_mult: 2
    decay_mult: 0
  }
  convolution_param {
    num_output: 16
    pad: 1
    kernel_size: 3
    stride: 1
    weight_filler {
      type: "gaussian"
      std: 0.118
    }
    bias_filler {
      type: "constant"
      value: 0
    }
  }
}
layer {
  name: "BatchNorm6"
  type: "BatchNorm"
  bottom: "Convolution6"
  top: "Convolution6"
  param {
    lr_mult: 0
    decay_mult: 0
  }
  param {
    lr_mult: 0
    decay_mult: 0
  }
  param {
    lr_mult: 0
    decay_mult: 0
  }
}
layer {
  name: "Scale6"
  type: "Scale"
  bottom: "Convolution6"
  top: "Convolution6"
  scale_param {
    bias_term: true
  }
}
layer {
  name: "penlu6"
  type: "PENLU"
  bottom: "Convolution6"
  top: "Convolution6"
  param {
    lr_mult: 2
    decay_mult: 0
  }
  param {
    lr_mult: 2
    decay_mult: 0
  }
  param {
    lr_mult: 0
    decay_mult: 0
  }
  penlu_param {
    alpha_filler {
      type: "constant"
      value: 0.25
    }
    beta_filler {
      type: "constant"
      value: 1
    }
    eta_filler {
      type: "constant"
      value: 1
    }
  }
}
layer {
  name: "Convolution7"
  type: "Convolution"
  bottom: "Convolution6"
  top: "Convolution7"
  param {
    lr_mult: 1
    decay_mult: 1
  }
  param {
    lr_mult: 2
    decay_mult: 0
  }
  convolution_param {
    num_output: 16
    pad: 1
    kernel_size: 3
    stride: 1
    weight_filler {
      type: "gaussian"
      std: 0.118
    }
    bias_filler {
      type: "constant"
      value: 0
    }
  }
}
layer {
  name: "BatchNorm7"
  type: "BatchNorm"
  bottom: "Convolution7"
  top: "Convolution7"
  param {
    lr_mult: 0
    decay_mult: 0
  }
  param {
    lr_mult: 0
    decay_mult: 0
  }
  param {
    lr_mult: 0
    decay_mult: 0
  }
}
layer {
  name: "Scale7"
  type: "Scale"
  bottom: "Convolution7"
  top: "Convolution7"
  scale_param {
    bias_term: true
  }
}
layer {
  name: "Eltwise3"
  type: "Eltwise"
  bottom: "Eltwise2"
  bottom: "Convolution7"
  top: "Eltwise3"
  eltwise_param {
    operation: SUM
  }
}
layer {
  name: "penlu7"
  type: "PENLU"
  bottom: "Eltwise3"
  top: "Eltwise3"
  param {
    lr_mult: 2
    decay_mult: 0
  }
  param {
    lr_mult: 2
    decay_mult: 0
  }
  param {
    lr_mult: 0
    decay_mult: 0
  }
  penlu_param {
    alpha_filler {
      type: "constant"
      value: 0.25
    }
    beta_filler {
      type: "constant"
      value: 1
    }
    eta_filler {
      type: "constant"
      value: 1
    }
  }
}
layer {
  name: "Convolution8"
  type: "Convolution"
  bottom: "Eltwise3"
  top: "Convolution8"
  param {
    lr_mult: 1
    decay_mult: 1
  }
  param {
    lr_mult: 2
    decay_mult: 0
  }
  convolution_param {
    num_output: 32
    pad: 0
    kernel_size: 1
    stride: 2
    weight_filler {
      type: "gaussian"
      std: 0.25
    }
    bias_filler {
      type: "constant"
      value: 0
    }
  }
}
layer {
  name: "BatchNorm8"
  type: "BatchNorm"
  bottom: "Convolution8"
  top: "Convolution8"
  param {
    lr_mult: 0
    decay_mult: 0
  }
  param {
    lr_mult: 0
    decay_mult: 0
  }
  param {
    lr_mult: 0
    decay_mult: 0
  }
}
layer {
  name: "Scale8"
  type: "Scale"
  bottom: "Convolution8"
  top: "Convolution8"
  scale_param {
    bias_term: true
  }
}
layer {
  name: "Convolution9"
  type: "Convolution"
  bottom: "Eltwise3"
  top: "Convolution9"
  param {
    lr_mult: 1
    decay_mult: 1
  }
  param {
    lr_mult: 2
    decay_mult: 0
  }
  convolution_param {
    num_output: 32
    pad: 1
    kernel_size: 3
    stride: 2
    weight_filler {
      type: "gaussian"
      std: 0.083
    }
    bias_filler {
      type: "constant"
      value: 0
    }
  }
}
layer {
  name: "BatchNorm9"
  type: "BatchNorm"
  bottom: "Convolution9"
  top: "Convolution9"
  param {
    lr_mult: 0
    decay_mult: 0
  }
  param {
    lr_mult: 0
    decay_mult: 0
  }
  param {
    lr_mult: 0
    decay_mult: 0
  }
}
layer {
  name: "Scale9"
  type: "Scale"
  bottom: "Convolution9"
  top: "Convolution9"
  scale_param {
    bias_term: true
  }
}
layer {
  name: "penlu8"
  type: "PENLU"
  bottom: "Convolution9"
  top: "Convolution9"
  param {
    lr_mult: 2
    decay_mult: 0
  }
  param {
    lr_mult: 2
    decay_mult: 0
  }
  param {
    lr_mult: 0
    decay_mult: 0
  }
  penlu_param {
    alpha_filler {
      type: "constant"
      value: 0.25
    }
    beta_filler {
      type: "constant"
      value: 1
    }
    eta_filler {
      type: "constant"
      value: 1
    }
  }
}
layer {
  name: "Convolution10"
  type: "Convolution"
  bottom: "Convolution9"
  top: "Convolution10"
  param {
    lr_mult: 1
    decay_mult: 1
  }
  param {
    lr_mult: 2
    decay_mult: 0
  }
  convolution_param {
    num_output: 32
    pad: 1
    kernel_size: 3
    stride: 1
    weight_filler {
      type: "gaussian"
      std: 0.083
    }
    bias_filler {
      type: "constant"
      value: 0
    }
  }
}
layer {
  name: "BatchNorm10"
  type: "BatchNorm"
  bottom: "Convolution10"
  top: "Convolution10"
  param {
    lr_mult: 0
    decay_mult: 0
  }
  param {
    lr_mult: 0
    decay_mult: 0
  }
  param {
    lr_mult: 0
    decay_mult: 0
  }
}
layer {
  name: "Scale10"
  type: "Scale"
  bottom: "Convolution10"
  top: "Convolution10"
  scale_param {
    bias_term: true
  }
}
layer {
  name: "Eltwise4"
  type: "Eltwise"
  bottom: "Convolution8"
  bottom: "Convolution10"
  top: "Eltwise4"
  eltwise_param {
    operation: SUM
  }
}
layer {
  name: "penlu9"
  type: "PENLU"
  bottom: "Eltwise4"
  top: "Eltwise4"
  param {
    lr_mult: 2
    decay_mult: 0
  }
  param {
    lr_mult: 2
    decay_mult: 0
  }
  param {
    lr_mult: 0
    decay_mult: 0
  }
  penlu_param {
    alpha_filler {
      type: "constant"
      value: 0.25
    }
    beta_filler {
      type: "constant"
      value: 1
    }
    eta_filler {
      type: "constant"
      value: 1
    }
  }
}
layer {
  name: "Convolution11"
  type: "Convolution"
  bottom: "Eltwise4"
  top: "Convolution11"
  param {
    lr_mult: 1
    decay_mult: 1
  }
  param {
    lr_mult: 2
    decay_mult: 0
  }
  convolution_param {
    num_output: 32
    pad: 1
    kernel_size: 3
    stride: 1
    weight_filler {
      type: "gaussian"
      std: 0.083
    }
    bias_filler {
      type: "constant"
      value: 0
    }
  }
}
layer {
  name: "BatchNorm11"
  type: "BatchNorm"
  bottom: "Convolution11"
  top: "Convolution11"
  param {
    lr_mult: 0
    decay_mult: 0
  }
  param {
    lr_mult: 0
    decay_mult: 0
  }
  param {
    lr_mult: 0
    decay_mult: 0
  }
}
layer {
  name: "Scale11"
  type: "Scale"
  bottom: "Convolution11"
  top: "Convolution11"
  scale_param {
    bias_term: true
  }
}
layer {
  name: "penlu10"
  type: "PENLU"
  bottom: "Convolution11"
  top: "Convolution11"
  param {
    lr_mult: 2
    decay_mult: 0
  }
  param {
    lr_mult: 2
    decay_mult: 0
  }
  param {
    lr_mult: 0
    decay_mult: 0
  }
  penlu_param {
    alpha_filler {
      type: "constant"
      value: 0.25
    }
    beta_filler {
      type: "constant"
      value: 1
    }
    eta_filler {
      type: "constant"
      value: 1
    }
  }
}
layer {
  name: "Convolution12"
  type: "Convolution"
  bottom: "Convolution11"
  top: "Convolution12"
  param {
    lr_mult: 1
    decay_mult: 1
  }
  param {
    lr_mult: 2
    decay_mult: 0
  }
  convolution_param {
    num_output: 32
    pad: 1
    kernel_size: 3
    stride: 1
    weight_filler {
      type: "gaussian"
      std: 0.083
    }
    bias_filler {
      type: "constant"
      value: 0
    }
  }
}
layer {
  name: "BatchNorm12"
  type: "BatchNorm"
  bottom: "Convolution12"
  top: "Convolution12"
  param {
    lr_mult: 0
    decay_mult: 0
  }
  param {
    lr_mult: 0
    decay_mult: 0
  }
  param {
    lr_mult: 0
    decay_mult: 0
  }
}
layer {
  name: "Scale12"
  type: "Scale"
  bottom: "Convolution12"
  top: "Convolution12"
  scale_param {
    bias_term: true
  }
}
layer {
  name: "Eltwise5"
  type: "Eltwise"
  bottom: "Eltwise4"
  bottom: "Convolution12"
  top: "Eltwise5"
  eltwise_param {
    operation: SUM
  }
}
layer {
  name: "penlu11"
  type: "PENLU"
  bottom: "Eltwise5"
  top: "Eltwise5"
  param {
    lr_mult: 2
    decay_mult: 0
  }
  param {
    lr_mult: 2
    decay_mult: 0
  }
  param {
    lr_mult: 0
    decay_mult: 0
  }
  penlu_param {
    alpha_filler {
      type: "constant"
      value: 0.25
    }
    beta_filler {
      type: "constant"
      value: 1
    }
    eta_filler {
      type: "constant"
      value: 1
    }
  }
}
layer {
  name: "Convolution13"
  type: "Convolution"
  bottom: "Eltwise5"
  top: "Convolution13"
  param {
    lr_mult: 1
    decay_mult: 1
  }
  param {
    lr_mult: 2
    decay_mult: 0
  }
  convolution_param {
    num_output: 32
    pad: 1
    kernel_size: 3
    stride: 1
    weight_filler {
      type: "gaussian"
      std: 0.083
    }
    bias_filler {
      type: "constant"
      value: 0
    }
  }
}
layer {
  name: "BatchNorm13"
  type: "BatchNorm"
  bottom: "Convolution13"
  top: "Convolution13"
  param {
    lr_mult: 0
    decay_mult: 0
  }
  param {
    lr_mult: 0
    decay_mult: 0
  }
  param {
    lr_mult: 0
    decay_mult: 0
  }
}
layer {
  name: "Scale13"
  type: "Scale"
  bottom: "Convolution13"
  top: "Convolution13"
  scale_param {
    bias_term: true
  }
}
layer {
  name: "penlu12"
  type: "PENLU"
  bottom: "Convolution13"
  top: "Convolution13"
  param {
    lr_mult: 2
    decay_mult: 0
  }
  param {
    lr_mult: 2
    decay_mult: 0
  }
  param {
    lr_mult: 0
    decay_mult: 0
  }
  penlu_param {
    alpha_filler {
      type: "constant"
      value: 0.25
    }
    beta_filler {
      type: "constant"
      value: 1
    }
    eta_filler {
      type: "constant"
      value: 1
    }
  }
}
layer {
  name: "Convolution14"
  type: "Convolution"
  bottom: "Convolution13"
  top: "Convolution14"
  param {
    lr_mult: 1
    decay_mult: 1
  }
  param {
    lr_mult: 2
    decay_mult: 0
  }
  convolution_param {
    num_output: 32
    pad: 1
    kernel_size: 3
    stride: 1
    weight_filler {
      type: "gaussian"
      std: 0.083
    }
    bias_filler {
      type: "constant"
      value: 0
    }
  }
}
layer {
  name: "BatchNorm14"
  type: "BatchNorm"
  bottom: "Convolution14"
  top: "Convolution14"
  param {
    lr_mult: 0
    decay_mult: 0
  }
  param {
    lr_mult: 0
    decay_mult: 0
  }
  param {
    lr_mult: 0
    decay_mult: 0
  }
}
layer {
  name: "Scale14"
  type: "Scale"
  bottom: "Convolution14"
  top: "Convolution14"
  scale_param {
    bias_term: true
  }
}
layer {
  name: "Eltwise6"
  type: "Eltwise"
  bottom: "Eltwise5"
  bottom: "Convolution14"
  top: "Eltwise6"
  eltwise_param {
    operation: SUM
  }
}
layer {
  name: "penlu13"
  type: "PENLU"
  bottom: "Eltwise6"
  top: "Eltwise6"
  param {
    lr_mult: 2
    decay_mult: 0
  }
  param {
    lr_mult: 2
    decay_mult: 0
  }
  param {
    lr_mult: 0
    decay_mult: 0
  }
  penlu_param {
    alpha_filler {
      type: "constant"
      value: 0.25
    }
    beta_filler {
      type: "constant"
      value: 1
    }
    eta_filler {
      type: "constant"
      value: 1
    }
  }
}
layer {
  name: "Convolution15"
  type: "Convolution"
  bottom: "Eltwise6"
  top: "Convolution15"
  param {
    lr_mult: 1
    decay_mult: 1
  }
  param {
    lr_mult: 2
    decay_mult: 0
  }
  convolution_param {
    num_output: 64
    pad: 0
    kernel_size: 1
    stride: 2
    weight_filler {
      type: "gaussian"
      std: 0.17677669
    }
    bias_filler {
      type: "constant"
      value: 0
    }
  }
}
layer {
  name: "BatchNorm15"
  type: "BatchNorm"
  bottom: "Convolution15"
  top: "Convolution15"
  param {
    lr_mult: 0
    decay_mult: 0
  }
  param {
    lr_mult: 0
    decay_mult: 0
  }
  param {
    lr_mult: 0
    decay_mult: 0
  }
}
layer {
  name: "Scale15"
  type: "Scale"
  bottom: "Convolution15"
  top: "Convolution15"
  scale_param {
    bias_term: true
  }
}
layer {
  name: "Convolution16"
  type: "Convolution"
  bottom: "Eltwise6"
  top: "Convolution16"
  param {
    lr_mult: 1
    decay_mult: 1
  }
  param {
    lr_mult: 2
    decay_mult: 0
  }
  convolution_param {
    num_output: 64
    pad: 1
    kernel_size: 3
    stride: 2
    weight_filler {
      type: "gaussian"
      std: 0.059
    }
    bias_filler {
      type: "constant"
      value: 0
    }
  }
}
layer {
  name: "BatchNorm16"
  type: "BatchNorm"
  bottom: "Convolution16"
  top: "Convolution16"
  param {
    lr_mult: 0
    decay_mult: 0
  }
  param {
    lr_mult: 0
    decay_mult: 0
  }
  param {
    lr_mult: 0
    decay_mult: 0
  }
}
layer {
  name: "Scale16"
  type: "Scale"
  bottom: "Convolution16"
  top: "Convolution16"
  scale_param {
    bias_term: true
  }
}
layer {
  name: "penlu14"
  type: "PENLU"
  bottom: "Convolution16"
  top: "Convolution16"
  param {
    lr_mult: 2
    decay_mult: 0
  }
  param {
    lr_mult: 2
    decay_mult: 0
  }
  param {
    lr_mult: 0
    decay_mult: 0
  }
  penlu_param {
    alpha_filler {
      type: "constant"
      value: 0.25
    }
    beta_filler {
      type: "constant"
      value: 1
    }
    eta_filler {
      type: "constant"
      value: 1
    }
  }
}
layer {
  name: "Convolution17"
  type: "Convolution"
  bottom: "Convolution16"
  top: "Convolution17"
  param {
    lr_mult: 1
    decay_mult: 1
  }
  param {
    lr_mult: 2
    decay_mult: 0
  }
  convolution_param {
    num_output: 64
    pad: 1
    kernel_size: 3
    stride: 1
    weight_filler {
      type: "gaussian"
      std: 0.059
    }
    bias_filler {
      type: "constant"
      value: 0
    }
  }
}
layer {
  name: "BatchNorm17"
  type: "BatchNorm"
  bottom: "Convolution17"
  top: "Convolution17"
  param {
    lr_mult: 0
    decay_mult: 0
  }
  param {
    lr_mult: 0
    decay_mult: 0
  }
  param {
    lr_mult: 0
    decay_mult: 0
  }
}
layer {
  name: "Scale17"
  type: "Scale"
  bottom: "Convolution17"
  top: "Convolution17"
  scale_param {
    bias_term: true
  }
}
layer {
  name: "Eltwise7"
  type: "Eltwise"
  bottom: "Convolution15"
  bottom: "Convolution17"
  top: "Eltwise7"
  eltwise_param {
    operation: SUM
  }
}
layer {
  name: "penlu15"
  type: "PENLU"
  bottom: "Eltwise7"
  top: "Eltwise7"
  param {
    lr_mult: 2
    decay_mult: 0
  }
  param {
    lr_mult: 2
    decay_mult: 0
  }
  param {
    lr_mult: 0
    decay_mult: 0
  }
  penlu_param {
    alpha_filler {
      type: "constant"
      value: 0.25
    }
    beta_filler {
      type: "constant"
      value: 1
    }
    eta_filler {
      type: "constant"
      value: 1
    }
  }
}
layer {
  name: "Convolution18"
  type: "Convolution"
  bottom: "Eltwise7"
  top: "Convolution18"
  param {
    lr_mult: 1
    decay_mult: 1
  }
  param {
    lr_mult: 2
    decay_mult: 0
  }
  convolution_param {
    num_output: 64
    pad: 1
    kernel_size: 3
    stride: 1
    weight_filler {
      type: "gaussian"
      std: 0.059
    }
    bias_filler {
      type: "constant"
      value: 0
    }
  }
}
layer {
  name: "BatchNorm18"
  type: "BatchNorm"
  bottom: "Convolution18"
  top: "Convolution18"
  param {
    lr_mult: 0
    decay_mult: 0
  }
  param {
    lr_mult: 0
    decay_mult: 0
  }
  param {
    lr_mult: 0
    decay_mult: 0
  }
}
layer {
  name: "Scale18"
  type: "Scale"
  bottom: "Convolution18"
  top: "Convolution18"
  scale_param {
    bias_term: true
  }
}
layer {
  name: "penlu16"
  type: "PENLU"
  bottom: "Convolution18"
  top: "Convolution18"
  param {
    lr_mult: 2
    decay_mult: 0
  }
  param {
    lr_mult: 2
    decay_mult: 0
  }
  param {
    lr_mult: 0
    decay_mult: 0
  }
  penlu_param {
    alpha_filler {
      type: "constant"
      value: 0.25
    }
    beta_filler {
      type: "constant"
      value: 1
    }
    eta_filler {
      type: "constant"
      value: 1
    }
  }
}
layer {
  name: "Convolution19"
  type: "Convolution"
  bottom: "Convolution18"
  top: "Convolution19"
  param {
    lr_mult: 1
    decay_mult: 1
  }
  param {
    lr_mult: 2
    decay_mult: 0
  }
  convolution_param {
    num_output: 64
    pad: 1
    kernel_size: 3
    stride: 1
    weight_filler {
      type: "gaussian"
      std: 0.059
    }
    bias_filler {
      type: "constant"
      value: 0
    }
  }
}
layer {
  name: "BatchNorm19"
  type: "BatchNorm"
  bottom: "Convolution19"
  top: "Convolution19"
  param {
    lr_mult: 0
    decay_mult: 0
  }
  param {
    lr_mult: 0
    decay_mult: 0
  }
  param {
    lr_mult: 0
    decay_mult: 0
  }
}
layer {
  name: "Scale19"
  type: "Scale"
  bottom: "Convolution19"
  top: "Convolution19"
  scale_param {
    bias_term: true
  }
}
layer {
  name: "Eltwise8"
  type: "Eltwise"
  bottom: "Eltwise7"
  bottom: "Convolution19"
  top: "Eltwise8"
  eltwise_param {
    operation: SUM
  }
}
layer {
  name: "penlu17"
  type: "PENLU"
  bottom: "Eltwise8"
  top: "Eltwise8"
  param {
    lr_mult: 2
    decay_mult: 0
  }
  param {
    lr_mult: 2
    decay_mult: 0
  }
  param {
    lr_mult: 0
    decay_mult: 0
  }
  penlu_param {
    alpha_filler {
      type: "constant"
      value: 0.25
    }
    beta_filler {
      type: "constant"
      value: 1
    }
    eta_filler {
      type: "constant"
      value: 1
    }
  }
}
layer {
  name: "Convolution20"
  type: "Convolution"
  bottom: "Eltwise8"
  top: "Convolution20"
  param {
    lr_mult: 1
    decay_mult: 1
  }
  param {
    lr_mult: 2
    decay_mult: 0
  }
  convolution_param {
    num_output: 64
    pad: 1
    kernel_size: 3
    stride: 1
    weight_filler {
      type: "gaussian"
      std: 0.059
    }
    bias_filler {
      type: "constant"
      value: 0
    }
  }
}
layer {
  name: "BatchNorm20"
  type: "BatchNorm"
  bottom: "Convolution20"
  top: "Convolution20"
  param {
    lr_mult: 0
    decay_mult: 0
  }
  param {
    lr_mult: 0
    decay_mult: 0
  }
  param {
    lr_mult: 0
    decay_mult: 0
  }
}
layer {
  name: "Scale20"
  type: "Scale"
  bottom: "Convolution20"
  top: "Convolution20"
  scale_param {
    bias_term: true
  }
}
layer {
  name: "penlu18"
  type: "PENLU"
  bottom: "Convolution20"
  top: "Convolution20"
  param {
    lr_mult: 2
    decay_mult: 0
  }
  param {
    lr_mult: 2
    decay_mult: 0
  }
  param {
    lr_mult: 0
    decay_mult: 0
  }
  penlu_param {
    alpha_filler {
      type: "constant"
      value: 0.25
    }
    beta_filler {
      type: "constant"
      value: 1
    }
    eta_filler {
      type: "constant"
      value: 1
    }
  }
}
layer {
  name: "Convolution21"
  type: "Convolution"
  bottom: "Convolution20"
  top: "Convolution21"
  param {
    lr_mult: 1
    decay_mult: 1
  }
  param {
    lr_mult: 2
    decay_mult: 0
  }
  convolution_param {
    num_output: 64
    pad: 1
    kernel_size: 3
    stride: 1
    weight_filler {
      type: "gaussian"
      std: 0.059
    }
    bias_filler {
      type: "constant"
      value: 0
    }
  }
}
layer {
  name: "BatchNorm21"
  type: "BatchNorm"
  bottom: "Convolution21"
  top: "Convolution21"
  param {
    lr_mult: 0
    decay_mult: 0
  }
  param {
    lr_mult: 0
    decay_mult: 0
  }
  param {
    lr_mult: 0
    decay_mult: 0
  }
}
layer {
  name: "Scale21"
  type: "Scale"
  bottom: "Convolution21"
  top: "Convolution21"
  scale_param {
    bias_term: true
  }
}
layer {
  name: "Eltwise9"
  type: "Eltwise"
  bottom: "Eltwise8"
  bottom: "Convolution21"
  top: "Eltwise9"
  eltwise_param {
    operation: SUM
  }
}
layer {
  name: "penlu19"
  type: "PENLU"
  bottom: "Eltwise9"
  top: "Eltwise9"
  param {
    lr_mult: 2
    decay_mult: 0
  }
  param {
    lr_mult: 2
    decay_mult: 0
  }
  param {
    lr_mult: 0
    decay_mult: 0
  }
  penlu_param {
    alpha_filler {
      type: "constant"
      value: 0.25
    }
    beta_filler {
      type: "constant"
      value: 1
    }
    eta_filler {
      type: "constant"
      value: 1
    }
  }
}
layer {
  name: "Pooling1"
  type: "Pooling"
  bottom: "Eltwise9"
  top: "Pooling1"
  pooling_param {
    pool: AVE
    global_pooling: true
  }
}
layer {
  name: "InnerProduct1"
  type: "InnerProduct"
  bottom: "Pooling1"
  top: "InnerProduct1"
  param {
    lr_mult: 1
    decay_mult: 1
  }
  param {
    lr_mult: 2
    decay_mult: 1
  }
  inner_product_param {
    num_output: 10
    weight_filler {
      type: "gaussian"
      std: 0.01
    }
    bias_filler {
      type: "constant"
      value: 0
    }
  }
}
layer {
  name: "SoftmaxWithLoss1"
  type: "SoftmaxWithLoss"
  bottom: "InnerProduct1"
  bottom: "Data2"
  top: "SoftmaxWithLoss1"
}
I1001 17:18:19.665609  5416 layer_factory.hpp:77] Creating layer Data1
I1001 17:18:19.665690  5416 db_lmdb.cpp:35] Opened lmdb /home/x306/caffe/xn/PENLU/data/cifar10/cifar10_train_lmdb
I1001 17:18:19.665709  5416 net.cpp:84] Creating Layer Data1
I1001 17:18:19.665715  5416 net.cpp:380] Data1 -> Data1
I1001 17:18:19.665733  5416 net.cpp:380] Data1 -> Data2
I1001 17:18:19.665742  5416 data_transformer.cpp:25] Loading mean file from: /home/x306/caffe/xn/PENLU/data/cifar10/mean.binaryproto
I1001 17:18:19.667198  5416 data_layer.cpp:45] output data size: 100,3,28,28
I1001 17:18:19.669514  5416 net.cpp:122] Setting up Data1
I1001 17:18:19.669529  5416 net.cpp:129] Top shape: 100 3 28 28 (235200)
I1001 17:18:19.669533  5416 net.cpp:129] Top shape: 100 (100)
I1001 17:18:19.669536  5416 net.cpp:137] Memory required for data: 941200
I1001 17:18:19.669553  5416 layer_factory.hpp:77] Creating layer Convolution1
I1001 17:18:19.669580  5416 net.cpp:84] Creating Layer Convolution1
I1001 17:18:19.669595  5416 net.cpp:406] Convolution1 <- Data1
I1001 17:18:19.669615  5416 net.cpp:380] Convolution1 -> Convolution1
I1001 17:18:19.820904  5416 net.cpp:122] Setting up Convolution1
I1001 17:18:19.820930  5416 net.cpp:129] Top shape: 100 16 28 28 (1254400)
I1001 17:18:19.820933  5416 net.cpp:137] Memory required for data: 5958800
I1001 17:18:19.820948  5416 layer_factory.hpp:77] Creating layer BatchNorm1
I1001 17:18:19.820969  5416 net.cpp:84] Creating Layer BatchNorm1
I1001 17:18:19.820973  5416 net.cpp:406] BatchNorm1 <- Convolution1
I1001 17:18:19.820977  5416 net.cpp:367] BatchNorm1 -> Convolution1 (in-place)
I1001 17:18:19.821141  5416 net.cpp:122] Setting up BatchNorm1
I1001 17:18:19.821146  5416 net.cpp:129] Top shape: 100 16 28 28 (1254400)
I1001 17:18:19.821148  5416 net.cpp:137] Memory required for data: 10976400
I1001 17:18:19.821156  5416 layer_factory.hpp:77] Creating layer Scale1
I1001 17:18:19.821166  5416 net.cpp:84] Creating Layer Scale1
I1001 17:18:19.821178  5416 net.cpp:406] Scale1 <- Convolution1
I1001 17:18:19.821182  5416 net.cpp:367] Scale1 -> Convolution1 (in-place)
I1001 17:18:19.821249  5416 layer_factory.hpp:77] Creating layer Scale1
I1001 17:18:19.821350  5416 net.cpp:122] Setting up Scale1
I1001 17:18:19.821355  5416 net.cpp:129] Top shape: 100 16 28 28 (1254400)
I1001 17:18:19.821358  5416 net.cpp:137] Memory required for data: 15994000
I1001 17:18:19.821362  5416 layer_factory.hpp:77] Creating layer penlu1
I1001 17:18:19.821372  5416 net.cpp:84] Creating Layer penlu1
I1001 17:18:19.821374  5416 net.cpp:406] penlu1 <- Convolution1
I1001 17:18:19.821388  5416 net.cpp:367] penlu1 -> Convolution1 (in-place)
I1001 17:18:19.822008  5416 net.cpp:122] Setting up penlu1
I1001 17:18:19.822017  5416 net.cpp:129] Top shape: 100 16 28 28 (1254400)
I1001 17:18:19.822021  5416 net.cpp:137] Memory required for data: 21011600
I1001 17:18:19.822027  5416 layer_factory.hpp:77] Creating layer Convolution1_penlu1_0_split
I1001 17:18:19.822036  5416 net.cpp:84] Creating Layer Convolution1_penlu1_0_split
I1001 17:18:19.822047  5416 net.cpp:406] Convolution1_penlu1_0_split <- Convolution1
I1001 17:18:19.822052  5416 net.cpp:380] Convolution1_penlu1_0_split -> Convolution1_penlu1_0_split_0
I1001 17:18:19.822068  5416 net.cpp:380] Convolution1_penlu1_0_split -> Convolution1_penlu1_0_split_1
I1001 17:18:19.822103  5416 net.cpp:122] Setting up Convolution1_penlu1_0_split
I1001 17:18:19.822109  5416 net.cpp:129] Top shape: 100 16 28 28 (1254400)
I1001 17:18:19.822121  5416 net.cpp:129] Top shape: 100 16 28 28 (1254400)
I1001 17:18:19.822124  5416 net.cpp:137] Memory required for data: 31046800
I1001 17:18:19.822125  5416 layer_factory.hpp:77] Creating layer Convolution2
I1001 17:18:19.822142  5416 net.cpp:84] Creating Layer Convolution2
I1001 17:18:19.822145  5416 net.cpp:406] Convolution2 <- Convolution1_penlu1_0_split_0
I1001 17:18:19.822150  5416 net.cpp:380] Convolution2 -> Convolution2
I1001 17:18:19.823038  5416 net.cpp:122] Setting up Convolution2
I1001 17:18:19.823050  5416 net.cpp:129] Top shape: 100 16 28 28 (1254400)
I1001 17:18:19.823062  5416 net.cpp:137] Memory required for data: 36064400
I1001 17:18:19.823088  5416 layer_factory.hpp:77] Creating layer BatchNorm2
I1001 17:18:19.823096  5416 net.cpp:84] Creating Layer BatchNorm2
I1001 17:18:19.823101  5416 net.cpp:406] BatchNorm2 <- Convolution2
I1001 17:18:19.823118  5416 net.cpp:367] BatchNorm2 -> Convolution2 (in-place)
I1001 17:18:19.823248  5416 net.cpp:122] Setting up BatchNorm2
I1001 17:18:19.823253  5416 net.cpp:129] Top shape: 100 16 28 28 (1254400)
I1001 17:18:19.823266  5416 net.cpp:137] Memory required for data: 41082000
I1001 17:18:19.823271  5416 layer_factory.hpp:77] Creating layer Scale2
I1001 17:18:19.823276  5416 net.cpp:84] Creating Layer Scale2
I1001 17:18:19.823278  5416 net.cpp:406] Scale2 <- Convolution2
I1001 17:18:19.823293  5416 net.cpp:367] Scale2 -> Convolution2 (in-place)
I1001 17:18:19.823351  5416 layer_factory.hpp:77] Creating layer Scale2
I1001 17:18:19.823451  5416 net.cpp:122] Setting up Scale2
I1001 17:18:19.823457  5416 net.cpp:129] Top shape: 100 16 28 28 (1254400)
I1001 17:18:19.823459  5416 net.cpp:137] Memory required for data: 46099600
I1001 17:18:19.823465  5416 layer_factory.hpp:77] Creating layer penlu2
I1001 17:18:19.823470  5416 net.cpp:84] Creating Layer penlu2
I1001 17:18:19.823473  5416 net.cpp:406] penlu2 <- Convolution2
I1001 17:18:19.823487  5416 net.cpp:367] penlu2 -> Convolution2 (in-place)
I1001 17:18:19.823592  5416 net.cpp:122] Setting up penlu2
I1001 17:18:19.823597  5416 net.cpp:129] Top shape: 100 16 28 28 (1254400)
I1001 17:18:19.823601  5416 net.cpp:137] Memory required for data: 51117200
I1001 17:18:19.823604  5416 layer_factory.hpp:77] Creating layer Convolution3
I1001 17:18:19.823611  5416 net.cpp:84] Creating Layer Convolution3
I1001 17:18:19.823614  5416 net.cpp:406] Convolution3 <- Convolution2
I1001 17:18:19.823628  5416 net.cpp:380] Convolution3 -> Convolution3
I1001 17:18:19.824486  5416 net.cpp:122] Setting up Convolution3
I1001 17:18:19.824496  5416 net.cpp:129] Top shape: 100 16 28 28 (1254400)
I1001 17:18:19.824499  5416 net.cpp:137] Memory required for data: 56134800
I1001 17:18:19.824503  5416 layer_factory.hpp:77] Creating layer BatchNorm3
I1001 17:18:19.824509  5416 net.cpp:84] Creating Layer BatchNorm3
I1001 17:18:19.824512  5416 net.cpp:406] BatchNorm3 <- Convolution3
I1001 17:18:19.824527  5416 net.cpp:367] BatchNorm3 -> Convolution3 (in-place)
I1001 17:18:19.824657  5416 net.cpp:122] Setting up BatchNorm3
I1001 17:18:19.824663  5416 net.cpp:129] Top shape: 100 16 28 28 (1254400)
I1001 17:18:19.824666  5416 net.cpp:137] Memory required for data: 61152400
I1001 17:18:19.824671  5416 layer_factory.hpp:77] Creating layer Scale3
I1001 17:18:19.824674  5416 net.cpp:84] Creating Layer Scale3
I1001 17:18:19.824677  5416 net.cpp:406] Scale3 <- Convolution3
I1001 17:18:19.824681  5416 net.cpp:367] Scale3 -> Convolution3 (in-place)
I1001 17:18:19.824739  5416 layer_factory.hpp:77] Creating layer Scale3
I1001 17:18:19.824832  5416 net.cpp:122] Setting up Scale3
I1001 17:18:19.824837  5416 net.cpp:129] Top shape: 100 16 28 28 (1254400)
I1001 17:18:19.824839  5416 net.cpp:137] Memory required for data: 66170000
I1001 17:18:19.824843  5416 layer_factory.hpp:77] Creating layer Eltwise1
I1001 17:18:19.824848  5416 net.cpp:84] Creating Layer Eltwise1
I1001 17:18:19.824851  5416 net.cpp:406] Eltwise1 <- Convolution1_penlu1_0_split_1
I1001 17:18:19.824854  5416 net.cpp:406] Eltwise1 <- Convolution3
I1001 17:18:19.824867  5416 net.cpp:380] Eltwise1 -> Eltwise1
I1001 17:18:19.824897  5416 net.cpp:122] Setting up Eltwise1
I1001 17:18:19.824909  5416 net.cpp:129] Top shape: 100 16 28 28 (1254400)
I1001 17:18:19.824913  5416 net.cpp:137] Memory required for data: 71187600
I1001 17:18:19.824914  5416 layer_factory.hpp:77] Creating layer penlu3
I1001 17:18:19.824919  5416 net.cpp:84] Creating Layer penlu3
I1001 17:18:19.824923  5416 net.cpp:406] penlu3 <- Eltwise1
I1001 17:18:19.824925  5416 net.cpp:367] penlu3 -> Eltwise1 (in-place)
I1001 17:18:19.825040  5416 net.cpp:122] Setting up penlu3
I1001 17:18:19.825045  5416 net.cpp:129] Top shape: 100 16 28 28 (1254400)
I1001 17:18:19.825054  5416 net.cpp:137] Memory required for data: 76205200
I1001 17:18:19.825058  5416 layer_factory.hpp:77] Creating layer Eltwise1_penlu3_0_split
I1001 17:18:19.825062  5416 net.cpp:84] Creating Layer Eltwise1_penlu3_0_split
I1001 17:18:19.825074  5416 net.cpp:406] Eltwise1_penlu3_0_split <- Eltwise1
I1001 17:18:19.825078  5416 net.cpp:380] Eltwise1_penlu3_0_split -> Eltwise1_penlu3_0_split_0
I1001 17:18:19.825083  5416 net.cpp:380] Eltwise1_penlu3_0_split -> Eltwise1_penlu3_0_split_1
I1001 17:18:19.825114  5416 net.cpp:122] Setting up Eltwise1_penlu3_0_split
I1001 17:18:19.825119  5416 net.cpp:129] Top shape: 100 16 28 28 (1254400)
I1001 17:18:19.825122  5416 net.cpp:129] Top shape: 100 16 28 28 (1254400)
I1001 17:18:19.825124  5416 net.cpp:137] Memory required for data: 86240400
I1001 17:18:19.825126  5416 layer_factory.hpp:77] Creating layer Convolution4
I1001 17:18:19.825134  5416 net.cpp:84] Creating Layer Convolution4
I1001 17:18:19.825136  5416 net.cpp:406] Convolution4 <- Eltwise1_penlu3_0_split_0
I1001 17:18:19.825150  5416 net.cpp:380] Convolution4 -> Convolution4
I1001 17:18:19.826001  5416 net.cpp:122] Setting up Convolution4
I1001 17:18:19.826011  5416 net.cpp:129] Top shape: 100 16 28 28 (1254400)
I1001 17:18:19.826025  5416 net.cpp:137] Memory required for data: 91258000
I1001 17:18:19.826030  5416 layer_factory.hpp:77] Creating layer BatchNorm4
I1001 17:18:19.826035  5416 net.cpp:84] Creating Layer BatchNorm4
I1001 17:18:19.826037  5416 net.cpp:406] BatchNorm4 <- Convolution4
I1001 17:18:19.826042  5416 net.cpp:367] BatchNorm4 -> Convolution4 (in-place)
I1001 17:18:19.826170  5416 net.cpp:122] Setting up BatchNorm4
I1001 17:18:19.826175  5416 net.cpp:129] Top shape: 100 16 28 28 (1254400)
I1001 17:18:19.826187  5416 net.cpp:137] Memory required for data: 96275600
I1001 17:18:19.826195  5416 layer_factory.hpp:77] Creating layer Scale4
I1001 17:18:19.826200  5416 net.cpp:84] Creating Layer Scale4
I1001 17:18:19.826202  5416 net.cpp:406] Scale4 <- Convolution4
I1001 17:18:19.826206  5416 net.cpp:367] Scale4 -> Convolution4 (in-place)
I1001 17:18:19.826241  5416 layer_factory.hpp:77] Creating layer Scale4
I1001 17:18:19.826354  5416 net.cpp:122] Setting up Scale4
I1001 17:18:19.826359  5416 net.cpp:129] Top shape: 100 16 28 28 (1254400)
I1001 17:18:19.826370  5416 net.cpp:137] Memory required for data: 101293200
I1001 17:18:19.826375  5416 layer_factory.hpp:77] Creating layer penlu4
I1001 17:18:19.826378  5416 net.cpp:84] Creating Layer penlu4
I1001 17:18:19.826382  5416 net.cpp:406] penlu4 <- Convolution4
I1001 17:18:19.826386  5416 net.cpp:367] penlu4 -> Convolution4 (in-place)
I1001 17:18:19.826489  5416 net.cpp:122] Setting up penlu4
I1001 17:18:19.826494  5416 net.cpp:129] Top shape: 100 16 28 28 (1254400)
I1001 17:18:19.826506  5416 net.cpp:137] Memory required for data: 106310800
I1001 17:18:19.826510  5416 layer_factory.hpp:77] Creating layer Convolution5
I1001 17:18:19.826517  5416 net.cpp:84] Creating Layer Convolution5
I1001 17:18:19.826524  5416 net.cpp:406] Convolution5 <- Convolution4
I1001 17:18:19.826530  5416 net.cpp:380] Convolution5 -> Convolution5
I1001 17:18:19.827401  5416 net.cpp:122] Setting up Convolution5
I1001 17:18:19.827410  5416 net.cpp:129] Top shape: 100 16 28 28 (1254400)
I1001 17:18:19.827424  5416 net.cpp:137] Memory required for data: 111328400
I1001 17:18:19.827428  5416 layer_factory.hpp:77] Creating layer BatchNorm5
I1001 17:18:19.827445  5416 net.cpp:84] Creating Layer BatchNorm5
I1001 17:18:19.827447  5416 net.cpp:406] BatchNorm5 <- Convolution5
I1001 17:18:19.827451  5416 net.cpp:367] BatchNorm5 -> Convolution5 (in-place)
I1001 17:18:19.827616  5416 net.cpp:122] Setting up BatchNorm5
I1001 17:18:19.827621  5416 net.cpp:129] Top shape: 100 16 28 28 (1254400)
I1001 17:18:19.827633  5416 net.cpp:137] Memory required for data: 116346000
I1001 17:18:19.827638  5416 layer_factory.hpp:77] Creating layer Scale5
I1001 17:18:19.827652  5416 net.cpp:84] Creating Layer Scale5
I1001 17:18:19.827656  5416 net.cpp:406] Scale5 <- Convolution5
I1001 17:18:19.827659  5416 net.cpp:367] Scale5 -> Convolution5 (in-place)
I1001 17:18:19.827713  5416 layer_factory.hpp:77] Creating layer Scale5
I1001 17:18:19.827833  5416 net.cpp:122] Setting up Scale5
I1001 17:18:19.827838  5416 net.cpp:129] Top shape: 100 16 28 28 (1254400)
I1001 17:18:19.827850  5416 net.cpp:137] Memory required for data: 121363600
I1001 17:18:19.827854  5416 layer_factory.hpp:77] Creating layer Eltwise2
I1001 17:18:19.827869  5416 net.cpp:84] Creating Layer Eltwise2
I1001 17:18:19.827872  5416 net.cpp:406] Eltwise2 <- Eltwise1_penlu3_0_split_1
I1001 17:18:19.827875  5416 net.cpp:406] Eltwise2 <- Convolution5
I1001 17:18:19.827878  5416 net.cpp:380] Eltwise2 -> Eltwise2
I1001 17:18:19.827893  5416 net.cpp:122] Setting up Eltwise2
I1001 17:18:19.827908  5416 net.cpp:129] Top shape: 100 16 28 28 (1254400)
I1001 17:18:19.827909  5416 net.cpp:137] Memory required for data: 126381200
I1001 17:18:19.827913  5416 layer_factory.hpp:77] Creating layer penlu5
I1001 17:18:19.827926  5416 net.cpp:84] Creating Layer penlu5
I1001 17:18:19.827929  5416 net.cpp:406] penlu5 <- Eltwise2
I1001 17:18:19.827941  5416 net.cpp:367] penlu5 -> Eltwise2 (in-place)
I1001 17:18:19.828070  5416 net.cpp:122] Setting up penlu5
I1001 17:18:19.828075  5416 net.cpp:129] Top shape: 100 16 28 28 (1254400)
I1001 17:18:19.828088  5416 net.cpp:137] Memory required for data: 131398800
I1001 17:18:19.828091  5416 layer_factory.hpp:77] Creating layer Eltwise2_penlu5_0_split
I1001 17:18:19.828105  5416 net.cpp:84] Creating Layer Eltwise2_penlu5_0_split
I1001 17:18:19.828109  5416 net.cpp:406] Eltwise2_penlu5_0_split <- Eltwise2
I1001 17:18:19.828112  5416 net.cpp:380] Eltwise2_penlu5_0_split -> Eltwise2_penlu5_0_split_0
I1001 17:18:19.828116  5416 net.cpp:380] Eltwise2_penlu5_0_split -> Eltwise2_penlu5_0_split_1
I1001 17:18:19.828167  5416 net.cpp:122] Setting up Eltwise2_penlu5_0_split
I1001 17:18:19.828172  5416 net.cpp:129] Top shape: 100 16 28 28 (1254400)
I1001 17:18:19.828184  5416 net.cpp:129] Top shape: 100 16 28 28 (1254400)
I1001 17:18:19.828186  5416 net.cpp:137] Memory required for data: 141434000
I1001 17:18:19.828189  5416 layer_factory.hpp:77] Creating layer Convolution6
I1001 17:18:19.828204  5416 net.cpp:84] Creating Layer Convolution6
I1001 17:18:19.828207  5416 net.cpp:406] Convolution6 <- Eltwise2_penlu5_0_split_0
I1001 17:18:19.828220  5416 net.cpp:380] Convolution6 -> Convolution6
I1001 17:18:19.829125  5416 net.cpp:122] Setting up Convolution6
I1001 17:18:19.829136  5416 net.cpp:129] Top shape: 100 16 28 28 (1254400)
I1001 17:18:19.829140  5416 net.cpp:137] Memory required for data: 146451600
I1001 17:18:19.829144  5416 layer_factory.hpp:77] Creating layer BatchNorm6
I1001 17:18:19.829150  5416 net.cpp:84] Creating Layer BatchNorm6
I1001 17:18:19.829154  5416 net.cpp:406] BatchNorm6 <- Convolution6
I1001 17:18:19.829159  5416 net.cpp:367] BatchNorm6 -> Convolution6 (in-place)
I1001 17:18:19.829288  5416 net.cpp:122] Setting up BatchNorm6
I1001 17:18:19.829294  5416 net.cpp:129] Top shape: 100 16 28 28 (1254400)
I1001 17:18:19.829298  5416 net.cpp:137] Memory required for data: 151469200
I1001 17:18:19.829303  5416 layer_factory.hpp:77] Creating layer Scale6
I1001 17:18:19.829308  5416 net.cpp:84] Creating Layer Scale6
I1001 17:18:19.829310  5416 net.cpp:406] Scale6 <- Convolution6
I1001 17:18:19.829314  5416 net.cpp:367] Scale6 -> Convolution6 (in-place)
I1001 17:18:19.829342  5416 layer_factory.hpp:77] Creating layer Scale6
I1001 17:18:19.829418  5416 net.cpp:122] Setting up Scale6
I1001 17:18:19.829424  5416 net.cpp:129] Top shape: 100 16 28 28 (1254400)
I1001 17:18:19.829427  5416 net.cpp:137] Memory required for data: 156486800
I1001 17:18:19.829432  5416 layer_factory.hpp:77] Creating layer penlu6
I1001 17:18:19.829439  5416 net.cpp:84] Creating Layer penlu6
I1001 17:18:19.829442  5416 net.cpp:406] penlu6 <- Convolution6
I1001 17:18:19.829447  5416 net.cpp:367] penlu6 -> Convolution6 (in-place)
I1001 17:18:19.829551  5416 net.cpp:122] Setting up penlu6
I1001 17:18:19.829557  5416 net.cpp:129] Top shape: 100 16 28 28 (1254400)
I1001 17:18:19.829566  5416 net.cpp:137] Memory required for data: 161504400
I1001 17:18:19.829571  5416 layer_factory.hpp:77] Creating layer Convolution7
I1001 17:18:19.829581  5416 net.cpp:84] Creating Layer Convolution7
I1001 17:18:19.829584  5416 net.cpp:406] Convolution7 <- Convolution6
I1001 17:18:19.829588  5416 net.cpp:380] Convolution7 -> Convolution7
I1001 17:18:19.830148  5416 net.cpp:122] Setting up Convolution7
I1001 17:18:19.830158  5416 net.cpp:129] Top shape: 100 16 28 28 (1254400)
I1001 17:18:19.830162  5416 net.cpp:137] Memory required for data: 166522000
I1001 17:18:19.830166  5416 layer_factory.hpp:77] Creating layer BatchNorm7
I1001 17:18:19.830173  5416 net.cpp:84] Creating Layer BatchNorm7
I1001 17:18:19.830175  5416 net.cpp:406] BatchNorm7 <- Convolution7
I1001 17:18:19.830179  5416 net.cpp:367] BatchNorm7 -> Convolution7 (in-place)
I1001 17:18:19.830308  5416 net.cpp:122] Setting up BatchNorm7
I1001 17:18:19.830314  5416 net.cpp:129] Top shape: 100 16 28 28 (1254400)
I1001 17:18:19.830317  5416 net.cpp:137] Memory required for data: 171539600
I1001 17:18:19.830327  5416 layer_factory.hpp:77] Creating layer Scale7
I1001 17:18:19.830334  5416 net.cpp:84] Creating Layer Scale7
I1001 17:18:19.830338  5416 net.cpp:406] Scale7 <- Convolution7
I1001 17:18:19.830341  5416 net.cpp:367] Scale7 -> Convolution7 (in-place)
I1001 17:18:19.830369  5416 layer_factory.hpp:77] Creating layer Scale7
I1001 17:18:19.830444  5416 net.cpp:122] Setting up Scale7
I1001 17:18:19.830449  5416 net.cpp:129] Top shape: 100 16 28 28 (1254400)
I1001 17:18:19.830452  5416 net.cpp:137] Memory required for data: 176557200
I1001 17:18:19.830456  5416 layer_factory.hpp:77] Creating layer Eltwise3
I1001 17:18:19.830462  5416 net.cpp:84] Creating Layer Eltwise3
I1001 17:18:19.830466  5416 net.cpp:406] Eltwise3 <- Eltwise2_penlu5_0_split_1
I1001 17:18:19.830468  5416 net.cpp:406] Eltwise3 <- Convolution7
I1001 17:18:19.830472  5416 net.cpp:380] Eltwise3 -> Eltwise3
I1001 17:18:19.830487  5416 net.cpp:122] Setting up Eltwise3
I1001 17:18:19.830492  5416 net.cpp:129] Top shape: 100 16 28 28 (1254400)
I1001 17:18:19.830494  5416 net.cpp:137] Memory required for data: 181574800
I1001 17:18:19.830497  5416 layer_factory.hpp:77] Creating layer penlu7
I1001 17:18:19.830503  5416 net.cpp:84] Creating Layer penlu7
I1001 17:18:19.830507  5416 net.cpp:406] penlu7 <- Eltwise3
I1001 17:18:19.830510  5416 net.cpp:367] penlu7 -> Eltwise3 (in-place)
I1001 17:18:19.830631  5416 net.cpp:122] Setting up penlu7
I1001 17:18:19.830637  5416 net.cpp:129] Top shape: 100 16 28 28 (1254400)
I1001 17:18:19.830641  5416 net.cpp:137] Memory required for data: 186592400
I1001 17:18:19.830644  5416 layer_factory.hpp:77] Creating layer Eltwise3_penlu7_0_split
I1001 17:18:19.830649  5416 net.cpp:84] Creating Layer Eltwise3_penlu7_0_split
I1001 17:18:19.830652  5416 net.cpp:406] Eltwise3_penlu7_0_split <- Eltwise3
I1001 17:18:19.830655  5416 net.cpp:380] Eltwise3_penlu7_0_split -> Eltwise3_penlu7_0_split_0
I1001 17:18:19.830660  5416 net.cpp:380] Eltwise3_penlu7_0_split -> Eltwise3_penlu7_0_split_1
I1001 17:18:19.830683  5416 net.cpp:122] Setting up Eltwise3_penlu7_0_split
I1001 17:18:19.830687  5416 net.cpp:129] Top shape: 100 16 28 28 (1254400)
I1001 17:18:19.830691  5416 net.cpp:129] Top shape: 100 16 28 28 (1254400)
I1001 17:18:19.830693  5416 net.cpp:137] Memory required for data: 196627600
I1001 17:18:19.830696  5416 layer_factory.hpp:77] Creating layer Convolution8
I1001 17:18:19.830703  5416 net.cpp:84] Creating Layer Convolution8
I1001 17:18:19.830706  5416 net.cpp:406] Convolution8 <- Eltwise3_penlu7_0_split_0
I1001 17:18:19.830710  5416 net.cpp:380] Convolution8 -> Convolution8
I1001 17:18:19.831851  5416 net.cpp:122] Setting up Convolution8
I1001 17:18:19.831862  5416 net.cpp:129] Top shape: 100 32 14 14 (627200)
I1001 17:18:19.831866  5416 net.cpp:137] Memory required for data: 199136400
I1001 17:18:19.831871  5416 layer_factory.hpp:77] Creating layer BatchNorm8
I1001 17:18:19.831885  5416 net.cpp:84] Creating Layer BatchNorm8
I1001 17:18:19.831889  5416 net.cpp:406] BatchNorm8 <- Convolution8
I1001 17:18:19.831902  5416 net.cpp:367] BatchNorm8 -> Convolution8 (in-place)
I1001 17:18:19.832048  5416 net.cpp:122] Setting up BatchNorm8
I1001 17:18:19.832054  5416 net.cpp:129] Top shape: 100 32 14 14 (627200)
I1001 17:18:19.832056  5416 net.cpp:137] Memory required for data: 201645200
I1001 17:18:19.832062  5416 layer_factory.hpp:77] Creating layer Scale8
I1001 17:18:19.832067  5416 net.cpp:84] Creating Layer Scale8
I1001 17:18:19.832069  5416 net.cpp:406] Scale8 <- Convolution8
I1001 17:18:19.832073  5416 net.cpp:367] Scale8 -> Convolution8 (in-place)
I1001 17:18:19.832099  5416 layer_factory.hpp:77] Creating layer Scale8
I1001 17:18:19.832172  5416 net.cpp:122] Setting up Scale8
I1001 17:18:19.832177  5416 net.cpp:129] Top shape: 100 32 14 14 (627200)
I1001 17:18:19.832180  5416 net.cpp:137] Memory required for data: 204154000
I1001 17:18:19.832183  5416 layer_factory.hpp:77] Creating layer Convolution9
I1001 17:18:19.832190  5416 net.cpp:84] Creating Layer Convolution9
I1001 17:18:19.832195  5416 net.cpp:406] Convolution9 <- Eltwise3_penlu7_0_split_1
I1001 17:18:19.832198  5416 net.cpp:380] Convolution9 -> Convolution9
I1001 17:18:19.833529  5416 net.cpp:122] Setting up Convolution9
I1001 17:18:19.833539  5416 net.cpp:129] Top shape: 100 32 14 14 (627200)
I1001 17:18:19.833554  5416 net.cpp:137] Memory required for data: 206662800
I1001 17:18:19.833559  5416 layer_factory.hpp:77] Creating layer BatchNorm9
I1001 17:18:19.833564  5416 net.cpp:84] Creating Layer BatchNorm9
I1001 17:18:19.833567  5416 net.cpp:406] BatchNorm9 <- Convolution9
I1001 17:18:19.833571  5416 net.cpp:367] BatchNorm9 -> Convolution9 (in-place)
I1001 17:18:19.833709  5416 net.cpp:122] Setting up BatchNorm9
I1001 17:18:19.833715  5416 net.cpp:129] Top shape: 100 32 14 14 (627200)
I1001 17:18:19.833717  5416 net.cpp:137] Memory required for data: 209171600
I1001 17:18:19.833722  5416 layer_factory.hpp:77] Creating layer Scale9
I1001 17:18:19.833727  5416 net.cpp:84] Creating Layer Scale9
I1001 17:18:19.833730  5416 net.cpp:406] Scale9 <- Convolution9
I1001 17:18:19.833734  5416 net.cpp:367] Scale9 -> Convolution9 (in-place)
I1001 17:18:19.833761  5416 layer_factory.hpp:77] Creating layer Scale9
I1001 17:18:19.833837  5416 net.cpp:122] Setting up Scale9
I1001 17:18:19.833843  5416 net.cpp:129] Top shape: 100 32 14 14 (627200)
I1001 17:18:19.833845  5416 net.cpp:137] Memory required for data: 211680400
I1001 17:18:19.833849  5416 layer_factory.hpp:77] Creating layer penlu8
I1001 17:18:19.833855  5416 net.cpp:84] Creating Layer penlu8
I1001 17:18:19.833858  5416 net.cpp:406] penlu8 <- Convolution9
I1001 17:18:19.833863  5416 net.cpp:367] penlu8 -> Convolution9 (in-place)
I1001 17:18:19.833971  5416 net.cpp:122] Setting up penlu8
I1001 17:18:19.833976  5416 net.cpp:129] Top shape: 100 32 14 14 (627200)
I1001 17:18:19.833978  5416 net.cpp:137] Memory required for data: 214189200
I1001 17:18:19.833983  5416 layer_factory.hpp:77] Creating layer Convolution10
I1001 17:18:19.833992  5416 net.cpp:84] Creating Layer Convolution10
I1001 17:18:19.833994  5416 net.cpp:406] Convolution10 <- Convolution9
I1001 17:18:19.833998  5416 net.cpp:380] Convolution10 -> Convolution10
I1001 17:18:19.835214  5416 net.cpp:122] Setting up Convolution10
I1001 17:18:19.835225  5416 net.cpp:129] Top shape: 100 32 14 14 (627200)
I1001 17:18:19.835228  5416 net.cpp:137] Memory required for data: 216698000
I1001 17:18:19.835232  5416 layer_factory.hpp:77] Creating layer BatchNorm10
I1001 17:18:19.835239  5416 net.cpp:84] Creating Layer BatchNorm10
I1001 17:18:19.835243  5416 net.cpp:406] BatchNorm10 <- Convolution10
I1001 17:18:19.835247  5416 net.cpp:367] BatchNorm10 -> Convolution10 (in-place)
I1001 17:18:19.835382  5416 net.cpp:122] Setting up BatchNorm10
I1001 17:18:19.835388  5416 net.cpp:129] Top shape: 100 32 14 14 (627200)
I1001 17:18:19.835391  5416 net.cpp:137] Memory required for data: 219206800
I1001 17:18:19.835407  5416 layer_factory.hpp:77] Creating layer Scale10
I1001 17:18:19.835412  5416 net.cpp:84] Creating Layer Scale10
I1001 17:18:19.835433  5416 net.cpp:406] Scale10 <- Convolution10
I1001 17:18:19.835446  5416 net.cpp:367] Scale10 -> Convolution10 (in-place)
I1001 17:18:19.835484  5416 layer_factory.hpp:77] Creating layer Scale10
I1001 17:18:19.835575  5416 net.cpp:122] Setting up Scale10
I1001 17:18:19.835580  5416 net.cpp:129] Top shape: 100 32 14 14 (627200)
I1001 17:18:19.835582  5416 net.cpp:137] Memory required for data: 221715600
I1001 17:18:19.835597  5416 layer_factory.hpp:77] Creating layer Eltwise4
I1001 17:18:19.835602  5416 net.cpp:84] Creating Layer Eltwise4
I1001 17:18:19.835605  5416 net.cpp:406] Eltwise4 <- Convolution8
I1001 17:18:19.835608  5416 net.cpp:406] Eltwise4 <- Convolution10
I1001 17:18:19.835613  5416 net.cpp:380] Eltwise4 -> Eltwise4
I1001 17:18:19.835628  5416 net.cpp:122] Setting up Eltwise4
I1001 17:18:19.835633  5416 net.cpp:129] Top shape: 100 32 14 14 (627200)
I1001 17:18:19.835636  5416 net.cpp:137] Memory required for data: 224224400
I1001 17:18:19.835638  5416 layer_factory.hpp:77] Creating layer penlu9
I1001 17:18:19.835644  5416 net.cpp:84] Creating Layer penlu9
I1001 17:18:19.835647  5416 net.cpp:406] penlu9 <- Eltwise4
I1001 17:18:19.835651  5416 net.cpp:367] penlu9 -> Eltwise4 (in-place)
I1001 17:18:19.835753  5416 net.cpp:122] Setting up penlu9
I1001 17:18:19.835758  5416 net.cpp:129] Top shape: 100 32 14 14 (627200)
I1001 17:18:19.835762  5416 net.cpp:137] Memory required for data: 226733200
I1001 17:18:19.835767  5416 layer_factory.hpp:77] Creating layer Eltwise4_penlu9_0_split
I1001 17:18:19.835770  5416 net.cpp:84] Creating Layer Eltwise4_penlu9_0_split
I1001 17:18:19.835773  5416 net.cpp:406] Eltwise4_penlu9_0_split <- Eltwise4
I1001 17:18:19.835777  5416 net.cpp:380] Eltwise4_penlu9_0_split -> Eltwise4_penlu9_0_split_0
I1001 17:18:19.835783  5416 net.cpp:380] Eltwise4_penlu9_0_split -> Eltwise4_penlu9_0_split_1
I1001 17:18:19.835804  5416 net.cpp:122] Setting up Eltwise4_penlu9_0_split
I1001 17:18:19.835808  5416 net.cpp:129] Top shape: 100 32 14 14 (627200)
I1001 17:18:19.835813  5416 net.cpp:129] Top shape: 100 32 14 14 (627200)
I1001 17:18:19.835815  5416 net.cpp:137] Memory required for data: 231750800
I1001 17:18:19.835817  5416 layer_factory.hpp:77] Creating layer Convolution11
I1001 17:18:19.835824  5416 net.cpp:84] Creating Layer Convolution11
I1001 17:18:19.835827  5416 net.cpp:406] Convolution11 <- Eltwise4_penlu9_0_split_0
I1001 17:18:19.835831  5416 net.cpp:380] Convolution11 -> Convolution11
I1001 17:18:19.836868  5416 net.cpp:122] Setting up Convolution11
I1001 17:18:19.836877  5416 net.cpp:129] Top shape: 100 32 14 14 (627200)
I1001 17:18:19.836881  5416 net.cpp:137] Memory required for data: 234259600
I1001 17:18:19.836885  5416 layer_factory.hpp:77] Creating layer BatchNorm11
I1001 17:18:19.836892  5416 net.cpp:84] Creating Layer BatchNorm11
I1001 17:18:19.836896  5416 net.cpp:406] BatchNorm11 <- Convolution11
I1001 17:18:19.836899  5416 net.cpp:367] BatchNorm11 -> Convolution11 (in-place)
I1001 17:18:19.837031  5416 net.cpp:122] Setting up BatchNorm11
I1001 17:18:19.837036  5416 net.cpp:129] Top shape: 100 32 14 14 (627200)
I1001 17:18:19.837039  5416 net.cpp:137] Memory required for data: 236768400
I1001 17:18:19.837045  5416 layer_factory.hpp:77] Creating layer Scale11
I1001 17:18:19.837050  5416 net.cpp:84] Creating Layer Scale11
I1001 17:18:19.837054  5416 net.cpp:406] Scale11 <- Convolution11
I1001 17:18:19.837057  5416 net.cpp:367] Scale11 -> Convolution11 (in-place)
I1001 17:18:19.837085  5416 layer_factory.hpp:77] Creating layer Scale11
I1001 17:18:19.837162  5416 net.cpp:122] Setting up Scale11
I1001 17:18:19.837167  5416 net.cpp:129] Top shape: 100 32 14 14 (627200)
I1001 17:18:19.837170  5416 net.cpp:137] Memory required for data: 239277200
I1001 17:18:19.837174  5416 layer_factory.hpp:77] Creating layer penlu10
I1001 17:18:19.837180  5416 net.cpp:84] Creating Layer penlu10
I1001 17:18:19.837184  5416 net.cpp:406] penlu10 <- Convolution11
I1001 17:18:19.837188  5416 net.cpp:367] penlu10 -> Convolution11 (in-place)
I1001 17:18:19.837291  5416 net.cpp:122] Setting up penlu10
I1001 17:18:19.837303  5416 net.cpp:129] Top shape: 100 32 14 14 (627200)
I1001 17:18:19.837306  5416 net.cpp:137] Memory required for data: 241786000
I1001 17:18:19.837311  5416 layer_factory.hpp:77] Creating layer Convolution12
I1001 17:18:19.837319  5416 net.cpp:84] Creating Layer Convolution12
I1001 17:18:19.837323  5416 net.cpp:406] Convolution12 <- Convolution11
I1001 17:18:19.837327  5416 net.cpp:380] Convolution12 -> Convolution12
I1001 17:18:19.838366  5416 net.cpp:122] Setting up Convolution12
I1001 17:18:19.838376  5416 net.cpp:129] Top shape: 100 32 14 14 (627200)
I1001 17:18:19.838380  5416 net.cpp:137] Memory required for data: 244294800
I1001 17:18:19.838385  5416 layer_factory.hpp:77] Creating layer BatchNorm12
I1001 17:18:19.838392  5416 net.cpp:84] Creating Layer BatchNorm12
I1001 17:18:19.838394  5416 net.cpp:406] BatchNorm12 <- Convolution12
I1001 17:18:19.838399  5416 net.cpp:367] BatchNorm12 -> Convolution12 (in-place)
I1001 17:18:19.838532  5416 net.cpp:122] Setting up BatchNorm12
I1001 17:18:19.838538  5416 net.cpp:129] Top shape: 100 32 14 14 (627200)
I1001 17:18:19.838542  5416 net.cpp:137] Memory required for data: 246803600
I1001 17:18:19.838547  5416 layer_factory.hpp:77] Creating layer Scale12
I1001 17:18:19.838552  5416 net.cpp:84] Creating Layer Scale12
I1001 17:18:19.838557  5416 net.cpp:406] Scale12 <- Convolution12
I1001 17:18:19.838559  5416 net.cpp:367] Scale12 -> Convolution12 (in-place)
I1001 17:18:19.838587  5416 layer_factory.hpp:77] Creating layer Scale12
I1001 17:18:19.838661  5416 net.cpp:122] Setting up Scale12
I1001 17:18:19.838666  5416 net.cpp:129] Top shape: 100 32 14 14 (627200)
I1001 17:18:19.838670  5416 net.cpp:137] Memory required for data: 249312400
I1001 17:18:19.838673  5416 layer_factory.hpp:77] Creating layer Eltwise5
I1001 17:18:19.838680  5416 net.cpp:84] Creating Layer Eltwise5
I1001 17:18:19.838682  5416 net.cpp:406] Eltwise5 <- Eltwise4_penlu9_0_split_1
I1001 17:18:19.838685  5416 net.cpp:406] Eltwise5 <- Convolution12
I1001 17:18:19.838688  5416 net.cpp:380] Eltwise5 -> Eltwise5
I1001 17:18:19.838706  5416 net.cpp:122] Setting up Eltwise5
I1001 17:18:19.838711  5416 net.cpp:129] Top shape: 100 32 14 14 (627200)
I1001 17:18:19.838713  5416 net.cpp:137] Memory required for data: 251821200
I1001 17:18:19.838716  5416 layer_factory.hpp:77] Creating layer penlu11
I1001 17:18:19.838721  5416 net.cpp:84] Creating Layer penlu11
I1001 17:18:19.838724  5416 net.cpp:406] penlu11 <- Eltwise5
I1001 17:18:19.838727  5416 net.cpp:367] penlu11 -> Eltwise5 (in-place)
I1001 17:18:19.838835  5416 net.cpp:122] Setting up penlu11
I1001 17:18:19.838840  5416 net.cpp:129] Top shape: 100 32 14 14 (627200)
I1001 17:18:19.838842  5416 net.cpp:137] Memory required for data: 254330000
I1001 17:18:19.838847  5416 layer_factory.hpp:77] Creating layer Eltwise5_penlu11_0_split
I1001 17:18:19.838851  5416 net.cpp:84] Creating Layer Eltwise5_penlu11_0_split
I1001 17:18:19.838855  5416 net.cpp:406] Eltwise5_penlu11_0_split <- Eltwise5
I1001 17:18:19.838858  5416 net.cpp:380] Eltwise5_penlu11_0_split -> Eltwise5_penlu11_0_split_0
I1001 17:18:19.838863  5416 net.cpp:380] Eltwise5_penlu11_0_split -> Eltwise5_penlu11_0_split_1
I1001 17:18:19.838886  5416 net.cpp:122] Setting up Eltwise5_penlu11_0_split
I1001 17:18:19.838891  5416 net.cpp:129] Top shape: 100 32 14 14 (627200)
I1001 17:18:19.838896  5416 net.cpp:129] Top shape: 100 32 14 14 (627200)
I1001 17:18:19.838898  5416 net.cpp:137] Memory required for data: 259347600
I1001 17:18:19.838901  5416 layer_factory.hpp:77] Creating layer Convolution13
I1001 17:18:19.838907  5416 net.cpp:84] Creating Layer Convolution13
I1001 17:18:19.838910  5416 net.cpp:406] Convolution13 <- Eltwise5_penlu11_0_split_0
I1001 17:18:19.838914  5416 net.cpp:380] Convolution13 -> Convolution13
I1001 17:18:19.839951  5416 net.cpp:122] Setting up Convolution13
I1001 17:18:19.839962  5416 net.cpp:129] Top shape: 100 32 14 14 (627200)
I1001 17:18:19.839965  5416 net.cpp:137] Memory required for data: 261856400
I1001 17:18:19.839969  5416 layer_factory.hpp:77] Creating layer BatchNorm13
I1001 17:18:19.839982  5416 net.cpp:84] Creating Layer BatchNorm13
I1001 17:18:19.839987  5416 net.cpp:406] BatchNorm13 <- Convolution13
I1001 17:18:19.839992  5416 net.cpp:367] BatchNorm13 -> Convolution13 (in-place)
I1001 17:18:19.840121  5416 net.cpp:122] Setting up BatchNorm13
I1001 17:18:19.840127  5416 net.cpp:129] Top shape: 100 32 14 14 (627200)
I1001 17:18:19.840131  5416 net.cpp:137] Memory required for data: 264365200
I1001 17:18:19.840135  5416 layer_factory.hpp:77] Creating layer Scale13
I1001 17:18:19.840142  5416 net.cpp:84] Creating Layer Scale13
I1001 17:18:19.840144  5416 net.cpp:406] Scale13 <- Convolution13
I1001 17:18:19.840147  5416 net.cpp:367] Scale13 -> Convolution13 (in-place)
I1001 17:18:19.840175  5416 layer_factory.hpp:77] Creating layer Scale13
I1001 17:18:19.840250  5416 net.cpp:122] Setting up Scale13
I1001 17:18:19.840255  5416 net.cpp:129] Top shape: 100 32 14 14 (627200)
I1001 17:18:19.840258  5416 net.cpp:137] Memory required for data: 266874000
I1001 17:18:19.840262  5416 layer_factory.hpp:77] Creating layer penlu12
I1001 17:18:19.840268  5416 net.cpp:84] Creating Layer penlu12
I1001 17:18:19.840271  5416 net.cpp:406] penlu12 <- Convolution13
I1001 17:18:19.840276  5416 net.cpp:367] penlu12 -> Convolution13 (in-place)
I1001 17:18:19.840380  5416 net.cpp:122] Setting up penlu12
I1001 17:18:19.840386  5416 net.cpp:129] Top shape: 100 32 14 14 (627200)
I1001 17:18:19.840389  5416 net.cpp:137] Memory required for data: 269382800
I1001 17:18:19.840394  5416 layer_factory.hpp:77] Creating layer Convolution14
I1001 17:18:19.840401  5416 net.cpp:84] Creating Layer Convolution14
I1001 17:18:19.840404  5416 net.cpp:406] Convolution14 <- Convolution13
I1001 17:18:19.840409  5416 net.cpp:380] Convolution14 -> Convolution14
I1001 17:18:19.841451  5416 net.cpp:122] Setting up Convolution14
I1001 17:18:19.841461  5416 net.cpp:129] Top shape: 100 32 14 14 (627200)
I1001 17:18:19.841465  5416 net.cpp:137] Memory required for data: 271891600
I1001 17:18:19.841480  5416 layer_factory.hpp:77] Creating layer BatchNorm14
I1001 17:18:19.841490  5416 net.cpp:84] Creating Layer BatchNorm14
I1001 17:18:19.841493  5416 net.cpp:406] BatchNorm14 <- Convolution14
I1001 17:18:19.841497  5416 net.cpp:367] BatchNorm14 -> Convolution14 (in-place)
I1001 17:18:19.841627  5416 net.cpp:122] Setting up BatchNorm14
I1001 17:18:19.841632  5416 net.cpp:129] Top shape: 100 32 14 14 (627200)
I1001 17:18:19.841635  5416 net.cpp:137] Memory required for data: 274400400
I1001 17:18:19.841641  5416 layer_factory.hpp:77] Creating layer Scale14
I1001 17:18:19.841647  5416 net.cpp:84] Creating Layer Scale14
I1001 17:18:19.841651  5416 net.cpp:406] Scale14 <- Convolution14
I1001 17:18:19.841655  5416 net.cpp:367] Scale14 -> Convolution14 (in-place)
I1001 17:18:19.841681  5416 layer_factory.hpp:77] Creating layer Scale14
I1001 17:18:19.841758  5416 net.cpp:122] Setting up Scale14
I1001 17:18:19.841763  5416 net.cpp:129] Top shape: 100 32 14 14 (627200)
I1001 17:18:19.841764  5416 net.cpp:137] Memory required for data: 276909200
I1001 17:18:19.841768  5416 layer_factory.hpp:77] Creating layer Eltwise6
I1001 17:18:19.841773  5416 net.cpp:84] Creating Layer Eltwise6
I1001 17:18:19.841775  5416 net.cpp:406] Eltwise6 <- Eltwise5_penlu11_0_split_1
I1001 17:18:19.841778  5416 net.cpp:406] Eltwise6 <- Convolution14
I1001 17:18:19.841783  5416 net.cpp:380] Eltwise6 -> Eltwise6
I1001 17:18:19.841797  5416 net.cpp:122] Setting up Eltwise6
I1001 17:18:19.841800  5416 net.cpp:129] Top shape: 100 32 14 14 (627200)
I1001 17:18:19.841804  5416 net.cpp:137] Memory required for data: 279418000
I1001 17:18:19.841805  5416 layer_factory.hpp:77] Creating layer penlu13
I1001 17:18:19.841810  5416 net.cpp:84] Creating Layer penlu13
I1001 17:18:19.841814  5416 net.cpp:406] penlu13 <- Eltwise6
I1001 17:18:19.841816  5416 net.cpp:367] penlu13 -> Eltwise6 (in-place)
I1001 17:18:19.841919  5416 net.cpp:122] Setting up penlu13
I1001 17:18:19.841923  5416 net.cpp:129] Top shape: 100 32 14 14 (627200)
I1001 17:18:19.841926  5416 net.cpp:137] Memory required for data: 281926800
I1001 17:18:19.841936  5416 layer_factory.hpp:77] Creating layer Eltwise6_penlu13_0_split
I1001 17:18:19.841940  5416 net.cpp:84] Creating Layer Eltwise6_penlu13_0_split
I1001 17:18:19.841943  5416 net.cpp:406] Eltwise6_penlu13_0_split <- Eltwise6
I1001 17:18:19.841955  5416 net.cpp:380] Eltwise6_penlu13_0_split -> Eltwise6_penlu13_0_split_0
I1001 17:18:19.841960  5416 net.cpp:380] Eltwise6_penlu13_0_split -> Eltwise6_penlu13_0_split_1
I1001 17:18:19.841984  5416 net.cpp:122] Setting up Eltwise6_penlu13_0_split
I1001 17:18:19.841989  5416 net.cpp:129] Top shape: 100 32 14 14 (627200)
I1001 17:18:19.841991  5416 net.cpp:129] Top shape: 100 32 14 14 (627200)
I1001 17:18:19.841994  5416 net.cpp:137] Memory required for data: 286944400
I1001 17:18:19.842005  5416 layer_factory.hpp:77] Creating layer Convolution15
I1001 17:18:19.842011  5416 net.cpp:84] Creating Layer Convolution15
I1001 17:18:19.842015  5416 net.cpp:406] Convolution15 <- Eltwise6_penlu13_0_split_0
I1001 17:18:19.842018  5416 net.cpp:380] Convolution15 -> Convolution15
I1001 17:18:19.842912  5416 net.cpp:122] Setting up Convolution15
I1001 17:18:19.842921  5416 net.cpp:129] Top shape: 100 64 7 7 (313600)
I1001 17:18:19.842924  5416 net.cpp:137] Memory required for data: 288198800
I1001 17:18:19.842928  5416 layer_factory.hpp:77] Creating layer BatchNorm15
I1001 17:18:19.842934  5416 net.cpp:84] Creating Layer BatchNorm15
I1001 17:18:19.842937  5416 net.cpp:406] BatchNorm15 <- Convolution15
I1001 17:18:19.842941  5416 net.cpp:367] BatchNorm15 -> Convolution15 (in-place)
I1001 17:18:19.843070  5416 net.cpp:122] Setting up BatchNorm15
I1001 17:18:19.843075  5416 net.cpp:129] Top shape: 100 64 7 7 (313600)
I1001 17:18:19.843077  5416 net.cpp:137] Memory required for data: 289453200
I1001 17:18:19.843082  5416 layer_factory.hpp:77] Creating layer Scale15
I1001 17:18:19.843086  5416 net.cpp:84] Creating Layer Scale15
I1001 17:18:19.843089  5416 net.cpp:406] Scale15 <- Convolution15
I1001 17:18:19.843092  5416 net.cpp:367] Scale15 -> Convolution15 (in-place)
I1001 17:18:19.843118  5416 layer_factory.hpp:77] Creating layer Scale15
I1001 17:18:19.843194  5416 net.cpp:122] Setting up Scale15
I1001 17:18:19.843197  5416 net.cpp:129] Top shape: 100 64 7 7 (313600)
I1001 17:18:19.843199  5416 net.cpp:137] Memory required for data: 290707600
I1001 17:18:19.843204  5416 layer_factory.hpp:77] Creating layer Convolution16
I1001 17:18:19.843211  5416 net.cpp:84] Creating Layer Convolution16
I1001 17:18:19.843214  5416 net.cpp:406] Convolution16 <- Eltwise6_penlu13_0_split_1
I1001 17:18:19.843219  5416 net.cpp:380] Convolution16 -> Convolution16
I1001 17:18:19.844970  5416 net.cpp:122] Setting up Convolution16
I1001 17:18:19.844980  5416 net.cpp:129] Top shape: 100 64 7 7 (313600)
I1001 17:18:19.844982  5416 net.cpp:137] Memory required for data: 291962000
I1001 17:18:19.844986  5416 layer_factory.hpp:77] Creating layer BatchNorm16
I1001 17:18:19.844992  5416 net.cpp:84] Creating Layer BatchNorm16
I1001 17:18:19.844995  5416 net.cpp:406] BatchNorm16 <- Convolution16
I1001 17:18:19.845000  5416 net.cpp:367] BatchNorm16 -> Convolution16 (in-place)
I1001 17:18:19.845127  5416 net.cpp:122] Setting up BatchNorm16
I1001 17:18:19.845132  5416 net.cpp:129] Top shape: 100 64 7 7 (313600)
I1001 17:18:19.845134  5416 net.cpp:137] Memory required for data: 293216400
I1001 17:18:19.845139  5416 layer_factory.hpp:77] Creating layer Scale16
I1001 17:18:19.845144  5416 net.cpp:84] Creating Layer Scale16
I1001 17:18:19.845146  5416 net.cpp:406] Scale16 <- Convolution16
I1001 17:18:19.845149  5416 net.cpp:367] Scale16 -> Convolution16 (in-place)
I1001 17:18:19.845175  5416 layer_factory.hpp:77] Creating layer Scale16
I1001 17:18:19.845248  5416 net.cpp:122] Setting up Scale16
I1001 17:18:19.845252  5416 net.cpp:129] Top shape: 100 64 7 7 (313600)
I1001 17:18:19.845254  5416 net.cpp:137] Memory required for data: 294470800
I1001 17:18:19.845258  5416 layer_factory.hpp:77] Creating layer penlu14
I1001 17:18:19.845264  5416 net.cpp:84] Creating Layer penlu14
I1001 17:18:19.845273  5416 net.cpp:406] penlu14 <- Convolution16
I1001 17:18:19.845278  5416 net.cpp:367] penlu14 -> Convolution16 (in-place)
I1001 17:18:19.845382  5416 net.cpp:122] Setting up penlu14
I1001 17:18:19.845386  5416 net.cpp:129] Top shape: 100 64 7 7 (313600)
I1001 17:18:19.845388  5416 net.cpp:137] Memory required for data: 295725200
I1001 17:18:19.845393  5416 layer_factory.hpp:77] Creating layer Convolution17
I1001 17:18:19.845399  5416 net.cpp:84] Creating Layer Convolution17
I1001 17:18:19.845402  5416 net.cpp:406] Convolution17 <- Convolution16
I1001 17:18:19.845407  5416 net.cpp:380] Convolution17 -> Convolution17
I1001 17:18:19.847086  5416 net.cpp:122] Setting up Convolution17
I1001 17:18:19.847097  5416 net.cpp:129] Top shape: 100 64 7 7 (313600)
I1001 17:18:19.847100  5416 net.cpp:137] Memory required for data: 296979600
I1001 17:18:19.847105  5416 layer_factory.hpp:77] Creating layer BatchNorm17
I1001 17:18:19.847113  5416 net.cpp:84] Creating Layer BatchNorm17
I1001 17:18:19.847117  5416 net.cpp:406] BatchNorm17 <- Convolution17
I1001 17:18:19.847121  5416 net.cpp:367] BatchNorm17 -> Convolution17 (in-place)
I1001 17:18:19.847259  5416 net.cpp:122] Setting up BatchNorm17
I1001 17:18:19.847265  5416 net.cpp:129] Top shape: 100 64 7 7 (313600)
I1001 17:18:19.847267  5416 net.cpp:137] Memory required for data: 298234000
I1001 17:18:19.847271  5416 layer_factory.hpp:77] Creating layer Scale17
I1001 17:18:19.847277  5416 net.cpp:84] Creating Layer Scale17
I1001 17:18:19.847281  5416 net.cpp:406] Scale17 <- Convolution17
I1001 17:18:19.847285  5416 net.cpp:367] Scale17 -> Convolution17 (in-place)
I1001 17:18:19.847312  5416 layer_factory.hpp:77] Creating layer Scale17
I1001 17:18:19.847391  5416 net.cpp:122] Setting up Scale17
I1001 17:18:19.847398  5416 net.cpp:129] Top shape: 100 64 7 7 (313600)
I1001 17:18:19.847400  5416 net.cpp:137] Memory required for data: 299488400
I1001 17:18:19.847404  5416 layer_factory.hpp:77] Creating layer Eltwise7
I1001 17:18:19.847409  5416 net.cpp:84] Creating Layer Eltwise7
I1001 17:18:19.847414  5416 net.cpp:406] Eltwise7 <- Convolution15
I1001 17:18:19.847416  5416 net.cpp:406] Eltwise7 <- Convolution17
I1001 17:18:19.847420  5416 net.cpp:380] Eltwise7 -> Eltwise7
I1001 17:18:19.847437  5416 net.cpp:122] Setting up Eltwise7
I1001 17:18:19.847442  5416 net.cpp:129] Top shape: 100 64 7 7 (313600)
I1001 17:18:19.847445  5416 net.cpp:137] Memory required for data: 300742800
I1001 17:18:19.847447  5416 layer_factory.hpp:77] Creating layer penlu15
I1001 17:18:19.847453  5416 net.cpp:84] Creating Layer penlu15
I1001 17:18:19.847456  5416 net.cpp:406] penlu15 <- Eltwise7
I1001 17:18:19.847460  5416 net.cpp:367] penlu15 -> Eltwise7 (in-place)
I1001 17:18:19.847568  5416 net.cpp:122] Setting up penlu15
I1001 17:18:19.847573  5416 net.cpp:129] Top shape: 100 64 7 7 (313600)
I1001 17:18:19.847575  5416 net.cpp:137] Memory required for data: 301997200
I1001 17:18:19.847580  5416 layer_factory.hpp:77] Creating layer Eltwise7_penlu15_0_split
I1001 17:18:19.847584  5416 net.cpp:84] Creating Layer Eltwise7_penlu15_0_split
I1001 17:18:19.847586  5416 net.cpp:406] Eltwise7_penlu15_0_split <- Eltwise7
I1001 17:18:19.847589  5416 net.cpp:380] Eltwise7_penlu15_0_split -> Eltwise7_penlu15_0_split_0
I1001 17:18:19.847594  5416 net.cpp:380] Eltwise7_penlu15_0_split -> Eltwise7_penlu15_0_split_1
I1001 17:18:19.847615  5416 net.cpp:122] Setting up Eltwise7_penlu15_0_split
I1001 17:18:19.847620  5416 net.cpp:129] Top shape: 100 64 7 7 (313600)
I1001 17:18:19.847622  5416 net.cpp:129] Top shape: 100 64 7 7 (313600)
I1001 17:18:19.847625  5416 net.cpp:137] Memory required for data: 304506000
I1001 17:18:19.847626  5416 layer_factory.hpp:77] Creating layer Convolution18
I1001 17:18:19.847632  5416 net.cpp:84] Creating Layer Convolution18
I1001 17:18:19.847635  5416 net.cpp:406] Convolution18 <- Eltwise7_penlu15_0_split_0
I1001 17:18:19.847640  5416 net.cpp:380] Convolution18 -> Convolution18
I1001 17:18:19.849691  5416 net.cpp:122] Setting up Convolution18
I1001 17:18:19.849702  5416 net.cpp:129] Top shape: 100 64 7 7 (313600)
I1001 17:18:19.849725  5416 net.cpp:137] Memory required for data: 305760400
I1001 17:18:19.849730  5416 layer_factory.hpp:77] Creating layer BatchNorm18
I1001 17:18:19.849735  5416 net.cpp:84] Creating Layer BatchNorm18
I1001 17:18:19.849740  5416 net.cpp:406] BatchNorm18 <- Convolution18
I1001 17:18:19.849743  5416 net.cpp:367] BatchNorm18 -> Convolution18 (in-place)
I1001 17:18:19.849884  5416 net.cpp:122] Setting up BatchNorm18
I1001 17:18:19.849889  5416 net.cpp:129] Top shape: 100 64 7 7 (313600)
I1001 17:18:19.849901  5416 net.cpp:137] Memory required for data: 307014800
I1001 17:18:19.849907  5416 layer_factory.hpp:77] Creating layer Scale18
I1001 17:18:19.849911  5416 net.cpp:84] Creating Layer Scale18
I1001 17:18:19.849915  5416 net.cpp:406] Scale18 <- Convolution18
I1001 17:18:19.849918  5416 net.cpp:367] Scale18 -> Convolution18 (in-place)
I1001 17:18:19.849956  5416 layer_factory.hpp:77] Creating layer Scale18
I1001 17:18:19.850051  5416 net.cpp:122] Setting up Scale18
I1001 17:18:19.850056  5416 net.cpp:129] Top shape: 100 64 7 7 (313600)
I1001 17:18:19.850069  5416 net.cpp:137] Memory required for data: 308269200
I1001 17:18:19.850072  5416 layer_factory.hpp:77] Creating layer penlu16
I1001 17:18:19.850078  5416 net.cpp:84] Creating Layer penlu16
I1001 17:18:19.850080  5416 net.cpp:406] penlu16 <- Convolution18
I1001 17:18:19.850085  5416 net.cpp:367] penlu16 -> Convolution18 (in-place)
I1001 17:18:19.850198  5416 net.cpp:122] Setting up penlu16
I1001 17:18:19.850203  5416 net.cpp:129] Top shape: 100 64 7 7 (313600)
I1001 17:18:19.850215  5416 net.cpp:137] Memory required for data: 309523600
I1001 17:18:19.850219  5416 layer_factory.hpp:77] Creating layer Convolution19
I1001 17:18:19.850226  5416 net.cpp:84] Creating Layer Convolution19
I1001 17:18:19.850229  5416 net.cpp:406] Convolution19 <- Convolution18
I1001 17:18:19.850234  5416 net.cpp:380] Convolution19 -> Convolution19
I1001 17:18:19.852274  5416 net.cpp:122] Setting up Convolution19
I1001 17:18:19.852284  5416 net.cpp:129] Top shape: 100 64 7 7 (313600)
I1001 17:18:19.852298  5416 net.cpp:137] Memory required for data: 310778000
I1001 17:18:19.852303  5416 layer_factory.hpp:77] Creating layer BatchNorm19
I1001 17:18:19.852308  5416 net.cpp:84] Creating Layer BatchNorm19
I1001 17:18:19.852310  5416 net.cpp:406] BatchNorm19 <- Convolution19
I1001 17:18:19.852315  5416 net.cpp:367] BatchNorm19 -> Convolution19 (in-place)
I1001 17:18:19.852460  5416 net.cpp:122] Setting up BatchNorm19
I1001 17:18:19.852465  5416 net.cpp:129] Top shape: 100 64 7 7 (313600)
I1001 17:18:19.852478  5416 net.cpp:137] Memory required for data: 312032400
I1001 17:18:19.852483  5416 layer_factory.hpp:77] Creating layer Scale19
I1001 17:18:19.852488  5416 net.cpp:84] Creating Layer Scale19
I1001 17:18:19.852490  5416 net.cpp:406] Scale19 <- Convolution19
I1001 17:18:19.852494  5416 net.cpp:367] Scale19 -> Convolution19 (in-place)
I1001 17:18:19.852530  5416 layer_factory.hpp:77] Creating layer Scale19
I1001 17:18:19.852627  5416 net.cpp:122] Setting up Scale19
I1001 17:18:19.852632  5416 net.cpp:129] Top shape: 100 64 7 7 (313600)
I1001 17:18:19.852643  5416 net.cpp:137] Memory required for data: 313286800
I1001 17:18:19.852648  5416 layer_factory.hpp:77] Creating layer Eltwise8
I1001 17:18:19.852651  5416 net.cpp:84] Creating Layer Eltwise8
I1001 17:18:19.852654  5416 net.cpp:406] Eltwise8 <- Eltwise7_penlu15_0_split_1
I1001 17:18:19.852658  5416 net.cpp:406] Eltwise8 <- Convolution19
I1001 17:18:19.852661  5416 net.cpp:380] Eltwise8 -> Eltwise8
I1001 17:18:19.852679  5416 net.cpp:122] Setting up Eltwise8
I1001 17:18:19.852691  5416 net.cpp:129] Top shape: 100 64 7 7 (313600)
I1001 17:18:19.852694  5416 net.cpp:137] Memory required for data: 314541200
I1001 17:18:19.852696  5416 layer_factory.hpp:77] Creating layer penlu17
I1001 17:18:19.852711  5416 net.cpp:84] Creating Layer penlu17
I1001 17:18:19.852713  5416 net.cpp:406] penlu17 <- Eltwise8
I1001 17:18:19.852717  5416 net.cpp:367] penlu17 -> Eltwise8 (in-place)
I1001 17:18:19.852833  5416 net.cpp:122] Setting up penlu17
I1001 17:18:19.852844  5416 net.cpp:129] Top shape: 100 64 7 7 (313600)
I1001 17:18:19.852856  5416 net.cpp:137] Memory required for data: 315795600
I1001 17:18:19.852861  5416 layer_factory.hpp:77] Creating layer Eltwise8_penlu17_0_split
I1001 17:18:19.852865  5416 net.cpp:84] Creating Layer Eltwise8_penlu17_0_split
I1001 17:18:19.852867  5416 net.cpp:406] Eltwise8_penlu17_0_split <- Eltwise8
I1001 17:18:19.852871  5416 net.cpp:380] Eltwise8_penlu17_0_split -> Eltwise8_penlu17_0_split_0
I1001 17:18:19.852875  5416 net.cpp:380] Eltwise8_penlu17_0_split -> Eltwise8_penlu17_0_split_1
I1001 17:18:19.852908  5416 net.cpp:122] Setting up Eltwise8_penlu17_0_split
I1001 17:18:19.852913  5416 net.cpp:129] Top shape: 100 64 7 7 (313600)
I1001 17:18:19.852926  5416 net.cpp:129] Top shape: 100 64 7 7 (313600)
I1001 17:18:19.852928  5416 net.cpp:137] Memory required for data: 318304400
I1001 17:18:19.852931  5416 layer_factory.hpp:77] Creating layer Convolution20
I1001 17:18:19.852937  5416 net.cpp:84] Creating Layer Convolution20
I1001 17:18:19.852939  5416 net.cpp:406] Convolution20 <- Eltwise8_penlu17_0_split_0
I1001 17:18:19.852944  5416 net.cpp:380] Convolution20 -> Convolution20
I1001 17:18:19.854641  5416 net.cpp:122] Setting up Convolution20
I1001 17:18:19.854651  5416 net.cpp:129] Top shape: 100 64 7 7 (313600)
I1001 17:18:19.854655  5416 net.cpp:137] Memory required for data: 319558800
I1001 17:18:19.854660  5416 layer_factory.hpp:77] Creating layer BatchNorm20
I1001 17:18:19.854665  5416 net.cpp:84] Creating Layer BatchNorm20
I1001 17:18:19.854668  5416 net.cpp:406] BatchNorm20 <- Convolution20
I1001 17:18:19.854672  5416 net.cpp:367] BatchNorm20 -> Convolution20 (in-place)
I1001 17:18:19.854806  5416 net.cpp:122] Setting up BatchNorm20
I1001 17:18:19.854811  5416 net.cpp:129] Top shape: 100 64 7 7 (313600)
I1001 17:18:19.854815  5416 net.cpp:137] Memory required for data: 320813200
I1001 17:18:19.854818  5416 layer_factory.hpp:77] Creating layer Scale20
I1001 17:18:19.854823  5416 net.cpp:84] Creating Layer Scale20
I1001 17:18:19.854826  5416 net.cpp:406] Scale20 <- Convolution20
I1001 17:18:19.854832  5416 net.cpp:367] Scale20 -> Convolution20 (in-place)
I1001 17:18:19.854859  5416 layer_factory.hpp:77] Creating layer Scale20
I1001 17:18:19.854938  5416 net.cpp:122] Setting up Scale20
I1001 17:18:19.854944  5416 net.cpp:129] Top shape: 100 64 7 7 (313600)
I1001 17:18:19.854946  5416 net.cpp:137] Memory required for data: 322067600
I1001 17:18:19.854950  5416 layer_factory.hpp:77] Creating layer penlu18
I1001 17:18:19.854956  5416 net.cpp:84] Creating Layer penlu18
I1001 17:18:19.854959  5416 net.cpp:406] penlu18 <- Convolution20
I1001 17:18:19.854964  5416 net.cpp:367] penlu18 -> Convolution20 (in-place)
I1001 17:18:19.855072  5416 net.cpp:122] Setting up penlu18
I1001 17:18:19.855077  5416 net.cpp:129] Top shape: 100 64 7 7 (313600)
I1001 17:18:19.855079  5416 net.cpp:137] Memory required for data: 323322000
I1001 17:18:19.855083  5416 layer_factory.hpp:77] Creating layer Convolution21
I1001 17:18:19.855090  5416 net.cpp:84] Creating Layer Convolution21
I1001 17:18:19.855093  5416 net.cpp:406] Convolution21 <- Convolution20
I1001 17:18:19.855096  5416 net.cpp:380] Convolution21 -> Convolution21
I1001 17:18:19.857396  5416 net.cpp:122] Setting up Convolution21
I1001 17:18:19.857405  5416 net.cpp:129] Top shape: 100 64 7 7 (313600)
I1001 17:18:19.857408  5416 net.cpp:137] Memory required for data: 324576400
I1001 17:18:19.857412  5416 layer_factory.hpp:77] Creating layer BatchNorm21
I1001 17:18:19.857419  5416 net.cpp:84] Creating Layer BatchNorm21
I1001 17:18:19.857421  5416 net.cpp:406] BatchNorm21 <- Convolution21
I1001 17:18:19.857424  5416 net.cpp:367] BatchNorm21 -> Convolution21 (in-place)
I1001 17:18:19.857563  5416 net.cpp:122] Setting up BatchNorm21
I1001 17:18:19.857568  5416 net.cpp:129] Top shape: 100 64 7 7 (313600)
I1001 17:18:19.857569  5416 net.cpp:137] Memory required for data: 325830800
I1001 17:18:19.857574  5416 layer_factory.hpp:77] Creating layer Scale21
I1001 17:18:19.857578  5416 net.cpp:84] Creating Layer Scale21
I1001 17:18:19.857589  5416 net.cpp:406] Scale21 <- Convolution21
I1001 17:18:19.857591  5416 net.cpp:367] Scale21 -> Convolution21 (in-place)
I1001 17:18:19.857620  5416 layer_factory.hpp:77] Creating layer Scale21
I1001 17:18:19.857698  5416 net.cpp:122] Setting up Scale21
I1001 17:18:19.857703  5416 net.cpp:129] Top shape: 100 64 7 7 (313600)
I1001 17:18:19.857705  5416 net.cpp:137] Memory required for data: 327085200
I1001 17:18:19.857709  5416 layer_factory.hpp:77] Creating layer Eltwise9
I1001 17:18:19.857714  5416 net.cpp:84] Creating Layer Eltwise9
I1001 17:18:19.857717  5416 net.cpp:406] Eltwise9 <- Eltwise8_penlu17_0_split_1
I1001 17:18:19.857719  5416 net.cpp:406] Eltwise9 <- Convolution21
I1001 17:18:19.857722  5416 net.cpp:380] Eltwise9 -> Eltwise9
I1001 17:18:19.857739  5416 net.cpp:122] Setting up Eltwise9
I1001 17:18:19.857743  5416 net.cpp:129] Top shape: 100 64 7 7 (313600)
I1001 17:18:19.857744  5416 net.cpp:137] Memory required for data: 328339600
I1001 17:18:19.857748  5416 layer_factory.hpp:77] Creating layer penlu19
I1001 17:18:19.857753  5416 net.cpp:84] Creating Layer penlu19
I1001 17:18:19.857755  5416 net.cpp:406] penlu19 <- Eltwise9
I1001 17:18:19.857758  5416 net.cpp:367] penlu19 -> Eltwise9 (in-place)
I1001 17:18:19.857867  5416 net.cpp:122] Setting up penlu19
I1001 17:18:19.857872  5416 net.cpp:129] Top shape: 100 64 7 7 (313600)
I1001 17:18:19.857874  5416 net.cpp:137] Memory required for data: 329594000
I1001 17:18:19.857878  5416 layer_factory.hpp:77] Creating layer Pooling1
I1001 17:18:19.857883  5416 net.cpp:84] Creating Layer Pooling1
I1001 17:18:19.857887  5416 net.cpp:406] Pooling1 <- Eltwise9
I1001 17:18:19.857889  5416 net.cpp:380] Pooling1 -> Pooling1
I1001 17:18:19.858038  5416 net.cpp:122] Setting up Pooling1
I1001 17:18:19.858044  5416 net.cpp:129] Top shape: 100 64 1 1 (6400)
I1001 17:18:19.858047  5416 net.cpp:137] Memory required for data: 329619600
I1001 17:18:19.858049  5416 layer_factory.hpp:77] Creating layer InnerProduct1
I1001 17:18:19.858058  5416 net.cpp:84] Creating Layer InnerProduct1
I1001 17:18:19.858062  5416 net.cpp:406] InnerProduct1 <- Pooling1
I1001 17:18:19.858065  5416 net.cpp:380] InnerProduct1 -> InnerProduct1
I1001 17:18:19.858160  5416 net.cpp:122] Setting up InnerProduct1
I1001 17:18:19.858165  5416 net.cpp:129] Top shape: 100 10 (1000)
I1001 17:18:19.858166  5416 net.cpp:137] Memory required for data: 329623600
I1001 17:18:19.858170  5416 layer_factory.hpp:77] Creating layer SoftmaxWithLoss1
I1001 17:18:19.858175  5416 net.cpp:84] Creating Layer SoftmaxWithLoss1
I1001 17:18:19.858176  5416 net.cpp:406] SoftmaxWithLoss1 <- InnerProduct1
I1001 17:18:19.858180  5416 net.cpp:406] SoftmaxWithLoss1 <- Data2
I1001 17:18:19.858183  5416 net.cpp:380] SoftmaxWithLoss1 -> SoftmaxWithLoss1
…
I1001 17:18:19.860893  5416 net.cpp:294] The NetState phase (1) differed from the phase (0) specified by a rule in layer Data1
I1001 17:18:19.861439  5416 net.cpp:51] Initializing net from parameters: 
name: "resnet_cifar10"
state {
  phase: TEST
}
layer {
  name: "Data1"
  type: "Data"
  top: "Data1"
  top: "Data2"
  include {
    phase: TEST
  }
  transform_param {
    mean_file: "/home/x306/caffe/xn/PENLU/data/cifar10/mean.binaryproto"
  }
  data_param {
    source: "/home/x306/caffe/xn/PENLU/data/cifar10/cifar10_test_lmdb"
    batch_size: 100
    backend: LMDB
  }
}
layer {
  name: "Convolution1"
  type: "Convolution"
  bottom: "Data1"
  top: "Convolution1"
  param {
    lr_mult: 1
    decay_mult: 1
  }
  param {
    lr_mult: 2
    decay_mult: 0
  }
  convolution_param {
    num_output: 16
    pad: 1
    kernel_size: 3
    stride: 1
    weight_filler {
      type: "gaussian"
      std: 0.118
    }
    bias_filler {
      type: "constant"
      value: 0
    }
  }
}
layer {
  name: "BatchNorm1"
  type: "BatchNorm"
  bottom: "Convolution1"
  top: "Convolution1"
  param {
    lr_mult: 0
    decay_mult: 0
  }
  param {
    lr_mult: 0
    decay_mult: 0
  }
  param {
    lr_mult: 0
    decay_mult: 0
  }
}
layer {
  name: "Scale1"
  type: "Scale"
  bottom: "Convolution1"
  top: "Convolution1"
  scale_param {
    bias_term: true
  }
}
layer {
  name: "penlu1"
  type: "PENLU"
  bottom: "Convolution1"
  top: "Convolution1"
  param {
    lr_mult: 2
    decay_mult: 0
  }
  param {
    lr_mult: 2
    decay_mult: 0
  }
  param {
    lr_mult: 0
    decay_mult: 0
  }
  penlu_param {
    alpha_filler {
      type: "constant"
      value: 0.25
    }
    beta_filler {
      type: "constant"
      value: 1
    }
    eta_filler {
      type: "constant"
      value: 1
    }
  }
}
layer {
  name: "Convolution2"
  type: "Convolution"
  bottom: "Convolution1"
  top: "Convolution2"
  param {
    lr_mult: 1
    decay_mult: 1
  }
  param {
    lr_mult: 2
    decay_mult: 0
  }
  convolution_param {
    num_output: 16
    pad: 1
    kernel_size: 3
    stride: 1
    weight_filler {
      type: "gaussian"
      std: 0.118
    }
    bias_filler {
      type: "constant"
      value: 0
    }
  }
}
layer {
  name: "BatchNorm2"
  type: "BatchNorm"
  bottom: "Convolution2"
  top: "Convolution2"
  param {
    lr_mult: 0
    decay_mult: 0
  }
  param {
    lr_mult: 0
    decay_mult: 0
  }
  param {
    lr_mult: 0
    decay_mult: 0
  }
}
layer {
  name: "Scale2"
  type: "Scale"
  bottom: "Convolution2"
  top: "Convolution2"
  scale_param {
    bias_term: true
  }
}
layer {
  name: "penlu2"
  type: "PENLU"
  bottom: "Convolution2"
  top: "Convolution2"
  param {
    lr_mult: 2
    decay_mult: 0
  }
  param {
    lr_mult: 2
    decay_mult: 0
  }
  param {
    lr_mult: 0
    decay_mult: 0
  }
  penlu_param {
    alpha_filler {
      type: "constant"
      value: 0.25
    }
    beta_filler {
      type: "constant"
      value: 1
    }
    eta_filler {
      type: "constant"
      value: 1
    }
  }
}
layer {
  name: "Convolution3"
  type: "Convolution"
  bottom: "Convolution2"
  top: "Convolution3"
  param {
    lr_mult: 1
    decay_mult: 1
  }
  param {
    lr_mult: 2
    decay_mult: 0
  }
  convolution_param {
    num_output: 16
    pad: 1
    kernel_size: 3
    stride: 1
    weight_filler {
      type: "gaussian"
      std: 0.118
    }
    bias_filler {
      type: "constant"
      value: 0
    }
  }
}
layer {
  name: "BatchNorm3"
  type: "BatchNorm"
  bottom: "Convolution3"
  top: "Convolution3"
  param {
    lr_mult: 0
    decay_mult: 0
  }
  param {
    lr_mult: 0
    decay_mult: 0
  }
  param {
    lr_mult: 0
    decay_mult: 0
  }
}
layer {
  name: "Scale3"
  type: "Scale"
  bottom: "Convolution3"
  top: "Convolution3"
  scale_param {
    bias_term: true
  }
}
layer {
  name: "Eltwise1"
  type: "Eltwise"
  bottom: "Convolution1"
  bottom: "Convolution3"
  top: "Eltwise1"
  eltwise_param {
    operation: SUM
  }
}
layer {
  name: "penlu3"
  type: "PENLU"
  bottom: "Eltwise1"
  top: "Eltwise1"
  param {
    lr_mult: 2
    decay_mult: 0
  }
  param {
    lr_mult: 2
    decay_mult: 0
  }
  param {
    lr_mult: 0
    decay_mult: 0
  }
  penlu_param {
    alpha_filler {
      type: "constant"
      value: 0.25
    }
    beta_filler {
      type: "constant"
      value: 1
    }
    eta_filler {
      type: "constant"
      value: 1
    }
  }
}
layer {
  name: "Convolution4"
  type: "Convolution"
  bottom: "Eltwise1"
  top: "Convolution4"
  param {
    lr_mult: 1
    decay_mult: 1
  }
  param {
    lr_mult: 2
    decay_mult: 0
  }
  convolution_param {
    num_output: 16
    pad: 1
    kernel_size: 3
    stride: 1
    weight_filler {
      type: "gaussian"
      std: 0.118
    }
    bias_filler {
      type: "constant"
      value: 0
    }
  }
}
layer {
  name: "BatchNorm4"
  type: "BatchNorm"
  bottom: "Convolution4"
  top: "Convolution4"
  param {
    lr_mult: 0
    decay_mult: 0
  }
  param {
    lr_mult: 0
    decay_mult: 0
  }
  param {
    lr_mult: 0
    decay_mult: 0
  }
}
layer {
  name: "Scale4"
  type: "Scale"
  bottom: "Convolution4"
  top: "Convolution4"
  scale_param {
    bias_term: true
  }
}
layer {
  name: "penlu4"
  type: "PENLU"
  bottom: "Convolution4"
  top: "Convolution4"
  param {
    lr_mult: 2
    decay_mult: 0
  }
  param {
    lr_mult: 2
    decay_mult: 0
  }
  param {
    lr_mult: 0
    decay_mult: 0
  }
  penlu_param {
    alpha_filler {
      type: "constant"
      value: 0.25
    }
    beta_filler {
      type: "constant"
      value: 1
    }
    eta_filler {
      type: "constant"
      value: 1
    }
  }
}
layer {
  name: "Convolution5"
  type: "Convolution"
  bottom: "Convolution4"
  top: "Convolution5"
  param {
    lr_mult: 1
    decay_mult: 1
  }
  param {
    lr_mult: 2
    decay_mult: 0
  }
  convolution_param {
    num_output: 16
    pad: 1
    kernel_size: 3
    stride: 1
    weight_filler {
      type: "gaussian"
      std: 0.118
    }
    bias_filler {
      type: "constant"
      value: 0
    }
  }
}
layer {
  name: "BatchNorm5"
  type: "BatchNorm"
  bottom: "Convolution5"
  top: "Convolution5"
  param {
    lr_mult: 0
    decay_mult: 0
  }
  param {
    lr_mult: 0
    decay_mult: 0
  }
  param {
    lr_mult: 0
    decay_mult: 0
  }
}
layer {
  name: "Scale5"
  type: "Scale"
  bottom: "Convolution5"
  top: "Convolution5"
  scale_param {
    bias_term: true
  }
}
layer {
  name: "Eltwise2"
  type: "Eltwise"
  bottom: "Eltwise1"
  bottom: "Convolution5"
  top: "Eltwise2"
  eltwise_param {
    operation: SUM
  }
}
layer {
  name: "penlu5"
  type: "PENLU"
  bottom: "Eltwise2"
  top: "Eltwise2"
  param {
    lr_mult: 2
    decay_mult: 0
  }
  param {
    lr_mult: 2
    decay_mult: 0
  }
  param {
    lr_mult: 0
    decay_mult: 0
  }
  penlu_param {
    alpha_filler {
      type: "constant"
      value: 0.25
    }
    beta_filler {
      type: "constant"
      value: 1
    }
    eta_filler {
      type: "constant"
      value: 1
    }
  }
}
layer {
  name: "Convolution6"
  type: "Convolution"
  bottom: "Eltwise2"
  top: "Convolution6"
  param {
    lr_mult: 1
    decay_mult: 1
  }
  param {
    lr_mult: 2
    decay_mult: 0
  }
  convolution_param {
    num_output: 16
    pad: 1
    kernel_size: 3
    stride: 1
    weight_filler {
      type: "gaussian"
      std: 0.118
    }
    bias_filler {
      type: "constant"
      value: 0
    }
  }
}
layer {
  name: "BatchNorm6"
  type: "BatchNorm"
  bottom: "Convolution6"
  top: "Convolution6"
  param {
    lr_mult: 0
    decay_mult: 0
  }
  param {
    lr_mult: 0
    decay_mult: 0
  }
  param {
    lr_mult: 0
    decay_mult: 0
  }
}
layer {
  name: "Scale6"
  type: "Scale"
  bottom: "Convolution6"
  top: "Convolution6"
  scale_param {
    bias_term: true
  }
}
layer {
  name: "penlu6"
  type: "PENLU"
  bottom: "Convolution6"
  top: "Convolution6"
  param {
    lr_mult: 2
    decay_mult: 0
  }
  param {
    lr_mult: 2
    decay_mult: 0
  }
  param {
    lr_mult: 0
    decay_mult: 0
  }
  penlu_param {
    alpha_filler {
      type: "constant"
      value: 0.25
    }
    beta_filler {
      type: "constant"
      value: 1
    }
    eta_filler {
      type: "constant"
      value: 1
    }
  }
}
layer {
  name: "Convolution7"
  type: "Convolution"
  bottom: "Convolution6"
  top: "Convolution7"
  param {
    lr_mult: 1
    decay_mult: 1
  }
  param {
    lr_mult: 2
    decay_mult: 0
  }
  convolution_param {
    num_output: 16
    pad: 1
    kernel_size: 3
    stride: 1
    weight_filler {
      type: "gaussian"
      std: 0.118
    }
    bias_filler {
      type: "constant"
      value: 0
    }
  }
}
layer {
  name: "BatchNorm7"
  type: "BatchNorm"
  bottom: "Convolution7"
  top: "Convolution7"
  param {
    lr_mult: 0
    decay_mult: 0
  }
  param {
    lr_mult: 0
    decay_mult: 0
  }
  param {
    lr_mult: 0
    decay_mult: 0
  }
}
layer {
  name: "Scale7"
  type: "Scale"
  bottom: "Convolution7"
  top: "Convolution7"
  scale_param {
    bias_term: true
  }
}
layer {
  name: "Eltwise3"
  type: "Eltwise"
  bottom: "Eltwise2"
  bottom: "Convolution7"
  top: "Eltwise3"
  eltwise_param {
    operation: SUM
  }
}
layer {
  name: "penlu7"
  type: "PENLU"
  bottom: "Eltwise3"
  top: "Eltwise3"
  param {
    lr_mult: 2
    decay_mult: 0
  }
  param {
    lr_mult: 2
    decay_mult: 0
  }
  param {
    lr_mult: 0
    decay_mult: 0
  }
  penlu_param {
    alpha_filler {
      type: "constant"
      value: 0.25
    }
    beta_filler {
      type: "constant"
      value: 1
    }
    eta_filler {
      type: "constant"
      value: 1
    }
  }
}
layer {
  name: "Convolution8"
  type: "Convolution"
  bottom: "Eltwise3"
  top: "Convolution8"
  param {
    lr_mult: 1
    decay_mult: 1
  }
  param {
    lr_mult: 2
    decay_mult: 0
  }
  convolution_param {
    num_output: 32
    pad: 0
    kernel_size: 1
    stride: 2
    weight_filler {
      type: "gaussian"
      std: 0.25
    }
    bias_filler {
      type: "constant"
      value: 0
    }
  }
}
layer {
  name: "BatchNorm8"
  type: "BatchNorm"
  bottom: "Convolution8"
  top: "Convolution8"
  param {
    lr_mult: 0
    decay_mult: 0
  }
  param {
    lr_mult: 0
    decay_mult: 0
  }
  param {
    lr_mult: 0
    decay_mult: 0
  }
}
layer {
  name: "Scale8"
  type: "Scale"
  bottom: "Convolution8"
  top: "Convolution8"
  scale_param {
    bias_term: true
  }
}
layer {
  name: "Convolution9"
  type: "Convolution"
  bottom: "Eltwise3"
  top: "Convolution9"
  param {
    lr_mult: 1
    decay_mult: 1
  }
  param {
    lr_mult: 2
    decay_mult: 0
  }
  convolution_param {
    num_output: 32
    pad: 1
    kernel_size: 3
    stride: 2
    weight_filler {
      type: "gaussian"
      std: 0.083
    }
    bias_filler {
      type: "constant"
      value: 0
    }
  }
}
layer {
  name: "BatchNorm9"
  type: "BatchNorm"
  bottom: "Convolution9"
  top: "Convolution9"
  param {
    lr_mult: 0
    decay_mult: 0
  }
  param {
    lr_mult: 0
    decay_mult: 0
  }
  param {
    lr_mult: 0
    decay_mult: 0
  }
}
layer {
  name: "Scale9"
  type: "Scale"
  bottom: "Convolution9"
  top: "Convolution9"
  scale_param {
    bias_term: true
  }
}
layer {
  name: "penlu8"
  type: "PENLU"
  bottom: "Convolution9"
  top: "Convolution9"
  param {
    lr_mult: 2
    decay_mult: 0
  }
  param {
    lr_mult: 2
    decay_mult: 0
  }
  param {
    lr_mult: 0
    decay_mult: 0
  }
  penlu_param {
    alpha_filler {
      type: "constant"
      value: 0.25
    }
    beta_filler {
      type: "constant"
      value: 1
    }
    eta_filler {
      type: "constant"
      value: 1
    }
  }
}
layer {
  name: "Convolution10"
  type: "Convolution"
  bottom: "Convolution9"
  top: "Convolution10"
  param {
    lr_mult: 1
    decay_mult: 1
  }
  param {
    lr_mult: 2
    decay_mult: 0
  }
  convolution_param {
    num_output: 32
    pad: 1
    kernel_size: 3
    stride: 1
    weight_filler {
      type: "gaussian"
      std: 0.083
    }
    bias_filler {
      type: "constant"
      value: 0
    }
  }
}
layer {
  name: "BatchNorm10"
  type: "BatchNorm"
  bottom: "Convolution10"
  top: "Convolution10"
  param {
    lr_mult: 0
    decay_mult: 0
  }
  param {
    lr_mult: 0
    decay_mult: 0
  }
  param {
    lr_mult: 0
    decay_mult: 0
  }
}
layer {
  name: "Scale10"
  type: "Scale"
  bottom: "Convolution10"
  top: "Convolution10"
  scale_param {
    bias_term: true
  }
}
layer {
  name: "Eltwise4"
  type: "Eltwise"
  bottom: "Convolution8"
  bottom: "Convolution10"
  top: "Eltwise4"
  eltwise_param {
    operation: SUM
  }
}
layer {
  name: "penlu9"
  type: "PENLU"
  bottom: "Eltwise4"
  top: "Eltwise4"
  param {
    lr_mult: 2
    decay_mult: 0
  }
  param {
    lr_mult: 2
    decay_mult: 0
  }
  param {
    lr_mult: 0
    decay_mult: 0
  }
  penlu_param {
    alpha_filler {
      type: "constant"
      value: 0.25
    }
    beta_filler {
      type: "constant"
      value: 1
    }
    eta_filler {
      type: "constant"
      value: 1
    }
  }
}
layer {
  name: "Convolution11"
  type: "Convolution"
  bottom: "Eltwise4"
  top: "Convolution11"
  param {
    lr_mult: 1
    decay_mult: 1
  }
  param {
    lr_mult: 2
    decay_mult: 0
  }
  convolution_param {
    num_output: 32
    pad: 1
    kernel_size: 3
    stride: 1
    weight_filler {
      type: "gaussian"
      std: 0.083
    }
    bias_filler {
      type: "constant"
      value: 0
    }
  }
}
layer {
  name: "BatchNorm11"
  type: "BatchNorm"
  bottom: "Convolution11"
  top: "Convolution11"
  param {
    lr_mult: 0
    decay_mult: 0
  }
  param {
    lr_mult: 0
    decay_mult: 0
  }
  param {
    lr_mult: 0
    decay_mult: 0
  }
}
layer {
  name: "Scale11"
  type: "Scale"
  bottom: "Convolution11"
  top: "Convolution11"
  scale_param {
    bias_term: true
  }
}
layer {
  name: "penlu10"
  type: "PENLU"
  bottom: "Convolution11"
  top: "Convolution11"
  param {
    lr_mult: 2
    decay_mult: 0
  }
  param {
    lr_mult: 2
    decay_mult: 0
  }
  param {
    lr_mult: 0
    decay_mult: 0
  }
  penlu_param {
    alpha_filler {
      type: "constant"
      value: 0.25
    }
    beta_filler {
      type: "constant"
      value: 1
    }
    eta_filler {
      type: "constant"
      value: 1
    }
  }
}
layer {
  name: "Convolution12"
  type: "Convolution"
  bottom: "Convolution11"
  top: "Convolution12"
  param {
    lr_mult: 1
    decay_mult: 1
  }
  param {
    lr_mult: 2
    decay_mult: 0
  }
  convolution_param {
    num_output: 32
    pad: 1
    kernel_size: 3
    stride: 1
    weight_filler {
      type: "gaussian"
      std: 0.083
    }
    bias_filler {
      type: "constant"
      value: 0
    }
  }
}
layer {
  name: "BatchNorm12"
  type: "BatchNorm"
  bottom: "Convolution12"
  top: "Convolution12"
  param {
    lr_mult: 0
    decay_mult: 0
  }
  param {
    lr_mult: 0
    decay_mult: 0
  }
  param {
    lr_mult: 0
    decay_mult: 0
  }
}
layer {
  name: "Scale12"
  type: "Scale"
  bottom: "Convolution12"
  top: "Convolution12"
  scale_param {
    bias_term: true
  }
}
layer {
  name: "Eltwise5"
  type: "Eltwise"
  bottom: "Eltwise4"
  bottom: "Convolution12"
  top: "Eltwise5"
  eltwise_param {
    operation: SUM
  }
}
layer {
  name: "penlu11"
  type: "PENLU"
  bottom: "Eltwise5"
  top: "Eltwise5"
  param {
    lr_mult: 2
    decay_mult: 0
  }
  param {
    lr_mult: 2
    decay_mult: 0
  }
  param {
    lr_mult: 0
    decay_mult: 0
  }
  penlu_param {
    alpha_filler {
      type: "constant"
      value: 0.25
    }
    beta_filler {
      type: "constant"
      value: 1
    }
    eta_filler {
      type: "constant"
      value: 1
    }
  }
}
layer {
  name: "Convolution13"
  type: "Convolution"
  bottom: "Eltwise5"
  top: "Convolution13"
  param {
    lr_mult: 1
    decay_mult: 1
  }
  param {
    lr_mult: 2
    decay_mult: 0
  }
  convolution_param {
    num_output: 32
    pad: 1
    kernel_size: 3
    stride: 1
    weight_filler {
      type: "gaussian"
      std: 0.083
    }
    bias_filler {
      type: "constant"
      value: 0
    }
  }
}
layer {
  name: "BatchNorm13"
  type: "BatchNorm"
  bottom: "Convolution13"
  top: "Convolution13"
  param {
    lr_mult: 0
    decay_mult: 0
  }
  param {
    lr_mult: 0
    decay_mult: 0
  }
  param {
    lr_mult: 0
    decay_mult: 0
  }
}
layer {
  name: "Scale13"
  type: "Scale"
  bottom: "Convolution13"
  top: "Convolution13"
  scale_param {
    bias_term: true
  }
}
layer {
  name: "penlu12"
  type: "PENLU"
  bottom: "Convolution13"
  top: "Convolution13"
  param {
    lr_mult: 2
    decay_mult: 0
  }
  param {
    lr_mult: 2
    decay_mult: 0
  }
  param {
    lr_mult: 0
    decay_mult: 0
  }
  penlu_param {
    alpha_filler {
      type: "constant"
      value: 0.25
    }
    beta_filler {
      type: "constant"
      value: 1
    }
    eta_filler {
      type: "constant"
      value: 1
    }
  }
}
layer {
  name: "Convolution14"
  type: "Convolution"
  bottom: "Convolution13"
  top: "Convolution14"
  param {
    lr_mult: 1
    decay_mult: 1
  }
  param {
    lr_mult: 2
    decay_mult: 0
  }
  convolution_param {
    num_output: 32
    pad: 1
    kernel_size: 3
    stride: 1
    weight_filler {
      type: "gaussian"
      std: 0.083
    }
    bias_filler {
      type: "constant"
      value: 0
    }
  }
}
layer {
  name: "BatchNorm14"
  type: "BatchNorm"
  bottom: "Convolution14"
  top: "Convolution14"
  param {
    lr_mult: 0
    decay_mult: 0
  }
  param {
    lr_mult: 0
    decay_mult: 0
  }
  param {
    lr_mult: 0
    decay_mult: 0
  }
}
layer {
  name: "Scale14"
  type: "Scale"
  bottom: "Convolution14"
  top: "Convolution14"
  scale_param {
    bias_term: true
  }
}
layer {
  name: "Eltwise6"
  type: "Eltwise"
  bottom: "Eltwise5"
  bottom: "Convolution14"
  top: "Eltwise6"
  eltwise_param {
    operation: SUM
  }
}
layer {
  name: "penlu13"
  type: "PENLU"
  bottom: "Eltwise6"
  top: "Eltwise6"
  param {
    lr_mult: 2
    decay_mult: 0
  }
  param {
    lr_mult: 2
    decay_mult: 0
  }
  param {
    lr_mult: 0
    decay_mult: 0
  }
  penlu_param {
    alpha_filler {
      type: "constant"
      value: 0.25
    }
    beta_filler {
      type: "constant"
      value: 1
    }
    eta_filler {
      type: "constant"
      value: 1
    }
  }
}
layer {
  name: "Convolution15"
  type: "Convolution"
  bottom: "Eltwise6"
  top: "Convolution15"
  param {
    lr_mult: 1
    decay_mult: 1
  }
  param {
    lr_mult: 2
    decay_mult: 0
  }
  convolution_param {
    num_output: 64
    pad: 0
    kernel_size: 1
    stride: 2
    weight_filler {
      type: "gaussian"
      std: 0.17677669
    }
    bias_filler {
      type: "constant"
      value: 0
    }
  }
}
layer {
  name: "BatchNorm15"
  type: "BatchNorm"
  bottom: "Convolution15"
  top: "Convolution15"
  param {
    lr_mult: 0
    decay_mult: 0
  }
  param {
    lr_mult: 0
    decay_mult: 0
  }
  param {
    lr_mult: 0
    decay_mult: 0
  }
}
layer {
  name: "Scale15"
  type: "Scale"
  bottom: "Convolution15"
  top: "Convolution15"
  scale_param {
    bias_term: true
  }
}
layer {
  name: "Convolution16"
  type: "Convolution"
  bottom: "Eltwise6"
  top: "Convolution16"
  param {
    lr_mult: 1
    decay_mult: 1
  }
  param {
    lr_mult: 2
    decay_mult: 0
  }
  convolution_param {
    num_output: 64
    pad: 1
    kernel_size: 3
    stride: 2
    weight_filler {
      type: "gaussian"
      std: 0.059
    }
    bias_filler {
      type: "constant"
      value: 0
    }
  }
}
layer {
  name: "BatchNorm16"
  type: "BatchNorm"
  bottom: "Convolution16"
  top: "Convolution16"
  param {
    lr_mult: 0
    decay_mult: 0
  }
  param {
    lr_mult: 0
    decay_mult: 0
  }
  param {
    lr_mult: 0
    decay_mult: 0
  }
}
layer {
  name: "Scale16"
  type: "Scale"
  bottom: "Convolution16"
  top: "Convolution16"
  scale_param {
    bias_term: true
  }
}
layer {
  name: "penlu14"
  type: "PENLU"
  bottom: "Convolution16"
  top: "Convolution16"
  param {
    lr_mult: 2
    decay_mult: 0
  }
  param {
    lr_mult: 2
    decay_mult: 0
  }
  param {
    lr_mult: 0
    decay_mult: 0
  }
  penlu_param {
    alpha_filler {
      type: "constant"
      value: 0.25
    }
    beta_filler {
      type: "constant"
      value: 1
    }
    eta_filler {
      type: "constant"
      value: 1
    }
  }
}
layer {
  name: "Convolution17"
  type: "Convolution"
  bottom: "Convolution16"
  top: "Convolution17"
  param {
    lr_mult: 1
    decay_mult: 1
  }
  param {
    lr_mult: 2
    decay_mult: 0
  }
  convolution_param {
    num_output: 64
    pad: 1
    kernel_size: 3
    stride: 1
    weight_filler {
      type: "gaussian"
      std: 0.059
    }
    bias_filler {
      type: "constant"
      value: 0
    }
  }
}
layer {
  name: "BatchNorm17"
  type: "BatchNorm"
  bottom: "Convolution17"
  top: "Convolution17"
  param {
    lr_mult: 0
    decay_mult: 0
  }
  param {
    lr_mult: 0
    decay_mult: 0
  }
  param {
    lr_mult: 0
    decay_mult: 0
  }
}
layer {
  name: "Scale17"
  type: "Scale"
  bottom: "Convolution17"
  top: "Convolution17"
  scale_param {
    bias_term: true
  }
}
layer {
  name: "Eltwise7"
  type: "Eltwise"
  bottom: "Convolution15"
  bottom: "Convolution17"
  top: "Eltwise7"
  eltwise_param {
    operation: SUM
  }
}
layer {
  name: "penlu15"
  type: "PENLU"
  bottom: "Eltwise7"
  top: "Eltwise7"
  param {
    lr_mult: 2
    decay_mult: 0
  }
  param {
    lr_mult: 2
    decay_mult: 0
  }
  param {
    lr_mult: 0
    decay_mult: 0
  }
  penlu_param {
    alpha_filler {
      type: "constant"
      value: 0.25
    }
    beta_filler {
      type: "constant"
      value: 1
    }
    eta_filler {
      type: "constant"
      value: 1
    }
  }
}
layer {
  name: "Convolution18"
  type: "Convolution"
  bottom: "Eltwise7"
  top: "Convolution18"
  param {
    lr_mult: 1
    decay_mult: 1
  }
  param {
    lr_mult: 2
    decay_mult: 0
  }
  convolution_param {
    num_output: 64
    pad: 1
    kernel_size: 3
    stride: 1
    weight_filler {
      type: "gaussian"
      std: 0.059
    }
    bias_filler {
      type: "constant"
      value: 0
    }
  }
}
layer {
  name: "BatchNorm18"
  type: "BatchNorm"
  bottom: "Convolution18"
  top: "Convolution18"
  param {
    lr_mult: 0
    decay_mult: 0
  }
  param {
    lr_mult: 0
    decay_mult: 0
  }
  param {
    lr_mult: 0
    decay_mult: 0
  }
}
layer {
  name: "Scale18"
  type: "Scale"
  bottom: "Convolution18"
  top: "Convolution18"
  scale_param {
    bias_term: true
  }
}
layer {
  name: "penlu16"
  type: "PENLU"
  bottom: "Convolution18"
  top: "Convolution18"
  param {
    lr_mult: 2
    decay_mult: 0
  }
  param {
    lr_mult: 2
    decay_mult: 0
  }
  param {
    lr_mult: 0
    decay_mult: 0
  }
  penlu_param {
    alpha_filler {
      type: "constant"
      value: 0.25
    }
    beta_filler {
      type: "constant"
      value: 1
    }
    eta_filler {
      type: "constant"
      value: 1
    }
  }
}
layer {
  name: "Convolution19"
  type: "Convolution"
  bottom: "Convolution18"
  top: "Convolution19"
  param {
    lr_mult: 1
    decay_mult: 1
  }
  param {
    lr_mult: 2
    decay_mult: 0
  }
  convolution_param {
    num_output: 64
    pad: 1
    kernel_size: 3
    stride: 1
    weight_filler {
      type: "gaussian"
      std: 0.059
    }
    bias_filler {
      type: "constant"
      value: 0
    }
  }
}
layer {
  name: "BatchNorm19"
  type: "BatchNorm"
  bottom: "Convolution19"
  top: "Convolution19"
  param {
    lr_mult: 0
    decay_mult: 0
  }
  param {
    lr_mult: 0
    decay_mult: 0
  }
  param {
    lr_mult: 0
    decay_mult: 0
  }
}
layer {
  name: "Scale19"
  type: "Scale"
  bottom: "Convolution19"
  top: "Convolution19"
  scale_param {
    bias_term: true
  }
}
layer {
  name: "Eltwise8"
  type: "Eltwise"
  bottom: "Eltwise7"
  bottom: "Convolution19"
  top: "Eltwise8"
  eltwise_param {
    operation: SUM
  }
}
layer {
  name: "penlu17"
  type: "PENLU"
  bottom: "Eltwise8"
  top: "Eltwise8"
  param {
    lr_mult: 2
    decay_mult: 0
  }
  param {
    lr_mult: 2
    decay_mult: 0
  }
  param {
    lr_mult: 0
    decay_mult: 0
  }
  penlu_param {
    alpha_filler {
      type: "constant"
      value: 0.25
    }
    beta_filler {
      type: "constant"
      value: 1
    }
    eta_filler {
      type: "constant"
      value: 1
    }
  }
}
layer {
  name: "Convolution20"
  type: "Convolution"
  bottom: "Eltwise8"
  top: "Convolution20"
  param {
    lr_mult: 1
    decay_mult: 1
  }
  param {
    lr_mult: 2
    decay_mult: 0
  }
  convolution_param {
    num_output: 64
    pad: 1
    kernel_size: 3
    stride: 1
    weight_filler {
      type: "gaussian"
      std: 0.059
    }
    bias_filler {
      type: "constant"
      value: 0
    }
  }
}
layer {
  name: "BatchNorm20"
  type: "BatchNorm"
  bottom: "Convolution20"
  top: "Convolution20"
  param {
    lr_mult: 0
    decay_mult: 0
  }
  param {
    lr_mult: 0
    decay_mult: 0
  }
  param {
    lr_mult: 0
    decay_mult: 0
  }
}
layer {
  name: "Scale20"
  type: "Scale"
  bottom: "Convolution20"
  top: "Convolution20"
  scale_param {
    bias_term: true
  }
}
layer {
  name: "penlu18"
  type: "PENLU"
  bottom: "Convolution20"
  top: "Convolution20"
  param {
    lr_mult: 2
    decay_mult: 0
  }
  param {
    lr_mult: 2
    decay_mult: 0
  }
  param {
    lr_mult: 0
    decay_mult: 0
  }
  penlu_param {
    alpha_filler {
      type: "constant"
      value: 0.25
    }
    beta_filler {
      type: "constant"
      value: 1
    }
    eta_filler {
      type: "constant"
      value: 1
    }
  }
}
layer {
  name: "Convolution21"
  type: "Convolution"
  bottom: "Convolution20"
  top: "Convolution21"
  param {
    lr_mult: 1
    decay_mult: 1
  }
  param {
    lr_mult: 2
    decay_mult: 0
  }
  convolution_param {
    num_output: 64
    pad: 1
    kernel_size: 3
    stride: 1
    weight_filler {
      type: "gaussian"
      std: 0.059
    }
    bias_filler {
      type: "constant"
      value: 0
    }
  }
}
layer {
  name: "BatchNorm21"
  type: "BatchNorm"
  bottom: "Convolution21"
  top: "Convolution21"
  param {
    lr_mult: 0
    decay_mult: 0
  }
  param {
    lr_mult: 0
    decay_mult: 0
  }
  param {
    lr_mult: 0
    decay_mult: 0
  }
}
layer {
  name: "Scale21"
  type: "Scale"
  bottom: "Convolution21"
  top: "Convolution21"
  scale_param {
    bias_term: true
  }
}
layer {
  name: "Eltwise9"
  type: "Eltwise"
  bottom: "Eltwise8"
  bottom: "Convolution21"
  top: "Eltwise9"
  eltwise_param {
    operation: SUM
  }
}
layer {
  name: "penlu19"
  type: "PENLU"
  bottom: "Eltwise9"
  top: "Eltwise9"
  param {
    lr_mult: 2
    decay_mult: 0
  }
  param {
    lr_mult: 2
    decay_mult: 0
  }
  param {
    lr_mult: 0
    decay_mult: 0
  }
  penlu_param {
    alpha_filler {
      type: "constant"
      value: 0.25
    }
    beta_filler {
      type: "constant"
      value: 1
    }
    eta_filler {
      type: "constant"
      value: 1
    }
  }
}
layer {
  name: "Pooling1"
  type: "Pooling"
  bottom: "Eltwise9"
  top: "Pooling1"
  pooling_param {
    pool: AVE
    global_pooling: true
  }
}
layer {
  name: "InnerProduct1"
  type: "InnerProduct"
  bottom: "Pooling1"
  top: "InnerProduct1"
  param {
    lr_mult: 1
    decay_mult: 1
  }
  param {
    lr_mult: 2
    decay_mult: 1
  }
  inner_product_param {
    num_output: 10
    weight_filler {
      type: "gaussian"
      std: 0.01
    }
    bias_filler {
      type: "constant"
      value: 0
    }
  }
}
layer {
  name: "SoftmaxWithLoss1"
  type: "SoftmaxWithLoss"
  bottom: "InnerProduct1"
  bottom: "Data2"
  top: "SoftmaxWithLoss1"
}
layer {
  name: "Accuracy1"
  type: "Accuracy"
  bottom: "InnerProduct1"
  bottom: "Data2"
  top: "Accuracy1"
  include {
    phase: TEST
  }
}
I1001 17:18:19.861691  5416 layer_factory.hpp:77] Creating layer Data1
I1001 17:18:19.861729  5416 db_lmdb.cpp:35] Opened lmdb /home/x306/caffe/xn/PENLU/data/cifar10/cifar10_test_lmdb
I1001 17:18:19.861739  5416 net.cpp:84] Creating Layer Data1
I1001 17:18:19.861744  5416 net.cpp:380] Data1 -> Data1
I1001 17:18:19.861750  5416 net.cpp:380] Data1 -> Data2
I1001 17:18:19.861755  5416 data_transformer.cpp:25] Loading mean file from: /home/x306/caffe/xn/PENLU/data/cifar10/mean.binaryproto
I1001 17:18:19.861870  5416 data_layer.cpp:45] output data size: 100,3,32,32
I1001 17:18:19.865725  5416 net.cpp:122] Setting up Data1
I1001 17:18:19.865743  5416 net.cpp:129] Top shape: 100 3 32 32 (307200)
I1001 17:18:19.865749  5416 net.cpp:129] Top shape: 100 (100)
I1001 17:18:19.865751  5416 net.cpp:137] Memory required for data: 1229200
I1001 17:18:19.865756  5416 layer_factory.hpp:77] Creating layer Data2_Data1_1_split
I1001 17:18:19.865766  5416 net.cpp:84] Creating Layer Data2_Data1_1_split
I1001 17:18:19.865768  5416 net.cpp:406] Data2_Data1_1_split <- Data2
I1001 17:18:19.865772  5416 net.cpp:380] Data2_Data1_1_split -> Data2_Data1_1_split_0
I1001 17:18:19.865779  5416 net.cpp:380] Data2_Data1_1_split -> Data2_Data1_1_split_1
I1001 17:18:19.865828  5416 net.cpp:122] Setting up Data2_Data1_1_split
I1001 17:18:19.865833  5416 net.cpp:129] Top shape: 100 (100)
I1001 17:18:19.865836  5416 net.cpp:129] Top shape: 100 (100)
I1001 17:18:19.865839  5416 net.cpp:137] Memory required for data: 1230000
I1001 17:18:19.865840  5416 layer_factory.hpp:77] Creating layer Convolution1
I1001 17:18:19.865850  5416 net.cpp:84] Creating Layer Convolution1
I1001 17:18:19.865852  5416 net.cpp:406] Convolution1 <- Data1
I1001 17:18:19.865857  5416 net.cpp:380] Convolution1 -> Convolution1
I1001 17:18:19.867002  5416 net.cpp:122] Setting up Convolution1
I1001 17:18:19.867012  5416 net.cpp:129] Top shape: 100 16 32 32 (1638400)
I1001 17:18:19.867014  5416 net.cpp:137] Memory required for data: 7783600
I1001 17:18:19.867022  5416 layer_factory.hpp:77] Creating layer BatchNorm1
I1001 17:18:19.867028  5416 net.cpp:84] Creating Layer BatchNorm1
I1001 17:18:19.867031  5416 net.cpp:406] BatchNorm1 <- Convolution1
I1001 17:18:19.867036  5416 net.cpp:367] BatchNorm1 -> Convolution1 (in-place)
I1001 17:18:19.867173  5416 net.cpp:122] Setting up BatchNorm1
I1001 17:18:19.867179  5416 net.cpp:129] Top shape: 100 16 32 32 (1638400)
I1001 17:18:19.867182  5416 net.cpp:137] Memory required for data: 14337200
I1001 17:18:19.867189  5416 layer_factory.hpp:77] Creating layer Scale1
I1001 17:18:19.867195  5416 net.cpp:84] Creating Layer Scale1
I1001 17:18:19.867197  5416 net.cpp:406] Scale1 <- Convolution1
I1001 17:18:19.867200  5416 net.cpp:367] Scale1 -> Convolution1 (in-place)
I1001 17:18:19.867229  5416 layer_factory.hpp:77] Creating layer Scale1
I1001 17:18:19.867305  5416 net.cpp:122] Setting up Scale1
I1001 17:18:19.867311  5416 net.cpp:129] Top shape: 100 16 32 32 (1638400)
I1001 17:18:19.867313  5416 net.cpp:137] Memory required for data: 20890800
I1001 17:18:19.867318  5416 layer_factory.hpp:77] Creating layer penlu1
I1001 17:18:19.867324  5416 net.cpp:84] Creating Layer penlu1
I1001 17:18:19.867327  5416 net.cpp:406] penlu1 <- Convolution1
I1001 17:18:19.867331  5416 net.cpp:367] penlu1 -> Convolution1 (in-place)
I1001 17:18:19.867450  5416 net.cpp:122] Setting up penlu1
I1001 17:18:19.867455  5416 net.cpp:129] Top shape: 100 16 32 32 (1638400)
I1001 17:18:19.867456  5416 net.cpp:137] Memory required for data: 27444400
I1001 17:18:19.867462  5416 layer_factory.hpp:77] Creating layer Convolution1_penlu1_0_split
I1001 17:18:19.867466  5416 net.cpp:84] Creating Layer Convolution1_penlu1_0_split
I1001 17:18:19.867468  5416 net.cpp:406] Convolution1_penlu1_0_split <- Convolution1
I1001 17:18:19.867473  5416 net.cpp:380] Convolution1_penlu1_0_split -> Convolution1_penlu1_0_split_0
I1001 17:18:19.867477  5416 net.cpp:380] Convolution1_penlu1_0_split -> Convolution1_penlu1_0_split_1
I1001 17:18:19.867501  5416 net.cpp:122] Setting up Convolution1_penlu1_0_split
I1001 17:18:19.867506  5416 net.cpp:129] Top shape: 100 16 32 32 (1638400)
I1001 17:18:19.867508  5416 net.cpp:129] Top shape: 100 16 32 32 (1638400)
I1001 17:18:19.867511  5416 net.cpp:137] Memory required for data: 40551600
I1001 17:18:19.867512  5416 layer_factory.hpp:77] Creating layer Convolution2
I1001 17:18:19.867521  5416 net.cpp:84] Creating Layer Convolution2
I1001 17:18:19.867523  5416 net.cpp:406] Convolution2 <- Convolution1_penlu1_0_split_0
I1001 17:18:19.867527  5416 net.cpp:380] Convolution2 -> Convolution2
I1001 17:18:19.868136  5416 net.cpp:122] Setting up Convolution2
I1001 17:18:19.868145  5416 net.cpp:129] Top shape: 100 16 32 32 (1638400)
I1001 17:18:19.868147  5416 net.cpp:137] Memory required for data: 47105200
I1001 17:18:19.868152  5416 layer_factory.hpp:77] Creating layer BatchNorm2
I1001 17:18:19.868157  5416 net.cpp:84] Creating Layer BatchNorm2
I1001 17:18:19.868160  5416 net.cpp:406] BatchNorm2 <- Convolution2
I1001 17:18:19.868165  5416 net.cpp:367] BatchNorm2 -> Convolution2 (in-place)
I1001 17:18:19.868394  5416 net.cpp:122] Setting up BatchNorm2
I1001 17:18:19.868399  5416 net.cpp:129] Top shape: 100 16 32 32 (1638400)
I1001 17:18:19.868402  5416 net.cpp:137] Memory required for data: 53658800
I1001 17:18:19.868414  5416 layer_factory.hpp:77] Creating layer Scale2
I1001 17:18:19.868418  5416 net.cpp:84] Creating Layer Scale2
I1001 17:18:19.868422  5416 net.cpp:406] Scale2 <- Convolution2
I1001 17:18:19.868427  5416 net.cpp:367] Scale2 -> Convolution2 (in-place)
I1001 17:18:19.868455  5416 layer_factory.hpp:77] Creating layer Scale2
I1001 17:18:19.868531  5416 net.cpp:122] Setting up Scale2
I1001 17:18:19.868535  5416 net.cpp:129] Top shape: 100 16 32 32 (1638400)
I1001 17:18:19.868540  5416 net.cpp:137] Memory required for data: 60212400
I1001 17:18:19.868546  5416 layer_factory.hpp:77] Creating layer penlu2
I1001 17:18:19.868551  5416 net.cpp:84] Creating Layer penlu2
I1001 17:18:19.868553  5416 net.cpp:406] penlu2 <- Convolution2
I1001 17:18:19.868557  5416 net.cpp:367] penlu2 -> Convolution2 (in-place)
I1001 17:18:19.868675  5416 net.cpp:122] Setting up penlu2
I1001 17:18:19.868680  5416 net.cpp:129] Top shape: 100 16 32 32 (1638400)
I1001 17:18:19.868682  5416 net.cpp:137] Memory required for data: 66766000
I1001 17:18:19.868687  5416 layer_factory.hpp:77] Creating layer Convolution3
I1001 17:18:19.868695  5416 net.cpp:84] Creating Layer Convolution3
I1001 17:18:19.868697  5416 net.cpp:406] Convolution3 <- Convolution2
I1001 17:18:19.868701  5416 net.cpp:380] Convolution3 -> Convolution3
I1001 17:18:19.869757  5416 net.cpp:122] Setting up Convolution3
I1001 17:18:19.869767  5416 net.cpp:129] Top shape: 100 16 32 32 (1638400)
I1001 17:18:19.869770  5416 net.cpp:137] Memory required for data: 73319600
I1001 17:18:19.869774  5416 layer_factory.hpp:77] Creating layer BatchNorm3
I1001 17:18:19.869781  5416 net.cpp:84] Creating Layer BatchNorm3
I1001 17:18:19.869783  5416 net.cpp:406] BatchNorm3 <- Convolution3
I1001 17:18:19.869787  5416 net.cpp:367] BatchNorm3 -> Convolution3 (in-place)
I1001 17:18:19.869928  5416 net.cpp:122] Setting up BatchNorm3
I1001 17:18:19.869933  5416 net.cpp:129] Top shape: 100 16 32 32 (1638400)
I1001 17:18:19.869935  5416 net.cpp:137] Memory required for data: 79873200
I1001 17:18:19.869941  5416 layer_factory.hpp:77] Creating layer Scale3
I1001 17:18:19.869946  5416 net.cpp:84] Creating Layer Scale3
I1001 17:18:19.869952  5416 net.cpp:406] Scale3 <- Convolution3
I1001 17:18:19.869956  5416 net.cpp:367] Scale3 -> Convolution3 (in-place)
I1001 17:18:19.869983  5416 layer_factory.hpp:77] Creating layer Scale3
I1001 17:18:19.870061  5416 net.cpp:122] Setting up Scale3
I1001 17:18:19.870066  5416 net.cpp:129] Top shape: 100 16 32 32 (1638400)
I1001 17:18:19.870069  5416 net.cpp:137] Memory required for data: 86426800
I1001 17:18:19.870074  5416 layer_factory.hpp:77] Creating layer Eltwise1
I1001 17:18:19.870077  5416 net.cpp:84] Creating Layer Eltwise1
I1001 17:18:19.870084  5416 net.cpp:406] Eltwise1 <- Convolution1_penlu1_0_split_1
I1001 17:18:19.870087  5416 net.cpp:406] Eltwise1 <- Convolution3
I1001 17:18:19.870090  5416 net.cpp:380] Eltwise1 -> Eltwise1
I1001 17:18:19.870108  5416 net.cpp:122] Setting up Eltwise1
I1001 17:18:19.870112  5416 net.cpp:129] Top shape: 100 16 32 32 (1638400)
I1001 17:18:19.870115  5416 net.cpp:137] Memory required for data: 92980400
I1001 17:18:19.870116  5416 layer_factory.hpp:77] Creating layer penlu3
I1001 17:18:19.870122  5416 net.cpp:84] Creating Layer penlu3
I1001 17:18:19.870124  5416 net.cpp:406] penlu3 <- Eltwise1
I1001 17:18:19.870131  5416 net.cpp:367] penlu3 -> Eltwise1 (in-place)
I1001 17:18:19.870249  5416 net.cpp:122] Setting up penlu3
I1001 17:18:19.870254  5416 net.cpp:129] Top shape: 100 16 32 32 (1638400)
I1001 17:18:19.870255  5416 net.cpp:137] Memory required for data: 99534000
I1001 17:18:19.870260  5416 layer_factory.hpp:77] Creating layer Eltwise1_penlu3_0_split
I1001 17:18:19.870265  5416 net.cpp:84] Creating Layer Eltwise1_penlu3_0_split
I1001 17:18:19.870267  5416 net.cpp:406] Eltwise1_penlu3_0_split <- Eltwise1
I1001 17:18:19.870270  5416 net.cpp:380] Eltwise1_penlu3_0_split -> Eltwise1_penlu3_0_split_0
I1001 17:18:19.870275  5416 net.cpp:380] Eltwise1_penlu3_0_split -> Eltwise1_penlu3_0_split_1
I1001 17:18:19.870298  5416 net.cpp:122] Setting up Eltwise1_penlu3_0_split
I1001 17:18:19.870308  5416 net.cpp:129] Top shape: 100 16 32 32 (1638400)
I1001 17:18:19.870311  5416 net.cpp:129] Top shape: 100 16 32 32 (1638400)
I1001 17:18:19.870313  5416 net.cpp:137] Memory required for data: 112641200
I1001 17:18:19.870316  5416 layer_factory.hpp:77] Creating layer Convolution4
I1001 17:18:19.870324  5416 net.cpp:84] Creating Layer Convolution4
I1001 17:18:19.870326  5416 net.cpp:406] Convolution4 <- Eltwise1_penlu3_0_split_0
I1001 17:18:19.870331  5416 net.cpp:380] Convolution4 -> Convolution4
I1001 17:18:19.871398  5416 net.cpp:122] Setting up Convolution4
I1001 17:18:19.871409  5416 net.cpp:129] Top shape: 100 16 32 32 (1638400)
I1001 17:18:19.871412  5416 net.cpp:137] Memory required for data: 119194800
I1001 17:18:19.871417  5416 layer_factory.hpp:77] Creating layer BatchNorm4
I1001 17:18:19.871421  5416 net.cpp:84] Creating Layer BatchNorm4
I1001 17:18:19.871423  5416 net.cpp:406] BatchNorm4 <- Convolution4
I1001 17:18:19.871429  5416 net.cpp:367] BatchNorm4 -> Convolution4 (in-place)
I1001 17:18:19.871567  5416 net.cpp:122] Setting up BatchNorm4
I1001 17:18:19.871572  5416 net.cpp:129] Top shape: 100 16 32 32 (1638400)
I1001 17:18:19.871573  5416 net.cpp:137] Memory required for data: 125748400
I1001 17:18:19.871580  5416 layer_factory.hpp:77] Creating layer Scale4
I1001 17:18:19.871587  5416 net.cpp:84] Creating Layer Scale4
I1001 17:18:19.871589  5416 net.cpp:406] Scale4 <- Convolution4
I1001 17:18:19.871594  5416 net.cpp:367] Scale4 -> Convolution4 (in-place)
I1001 17:18:19.871623  5416 layer_factory.hpp:77] Creating layer Scale4
I1001 17:18:19.871700  5416 net.cpp:122] Setting up Scale4
I1001 17:18:19.871704  5416 net.cpp:129] Top shape: 100 16 32 32 (1638400)
I1001 17:18:19.871706  5416 net.cpp:137] Memory required for data: 132302000
I1001 17:18:19.871711  5416 layer_factory.hpp:77] Creating layer penlu4
I1001 17:18:19.871716  5416 net.cpp:84] Creating Layer penlu4
I1001 17:18:19.871719  5416 net.cpp:406] penlu4 <- Convolution4
I1001 17:18:19.871723  5416 net.cpp:367] penlu4 -> Convolution4 (in-place)
I1001 17:18:19.871840  5416 net.cpp:122] Setting up penlu4
I1001 17:18:19.871845  5416 net.cpp:129] Top shape: 100 16 32 32 (1638400)
I1001 17:18:19.871846  5416 net.cpp:137] Memory required for data: 138855600
I1001 17:18:19.871850  5416 layer_factory.hpp:77] Creating layer Convolution5
I1001 17:18:19.871857  5416 net.cpp:84] Creating Layer Convolution5
I1001 17:18:19.871860  5416 net.cpp:406] Convolution5 <- Convolution4
I1001 17:18:19.871865  5416 net.cpp:380] Convolution5 -> Convolution5
I1001 17:18:19.873123  5416 net.cpp:122] Setting up Convolution5
I1001 17:18:19.873132  5416 net.cpp:129] Top shape: 100 16 32 32 (1638400)
I1001 17:18:19.873136  5416 net.cpp:137] Memory required for data: 145409200
I1001 17:18:19.873141  5416 layer_factory.hpp:77] Creating layer BatchNorm5
I1001 17:18:19.873147  5416 net.cpp:84] Creating Layer BatchNorm5
I1001 17:18:19.873148  5416 net.cpp:406] BatchNorm5 <- Convolution5
I1001 17:18:19.873153  5416 net.cpp:367] BatchNorm5 -> Convolution5 (in-place)
I1001 17:18:19.873293  5416 net.cpp:122] Setting up BatchNorm5
I1001 17:18:19.873298  5416 net.cpp:129] Top shape: 100 16 32 32 (1638400)
I1001 17:18:19.873301  5416 net.cpp:137] Memory required for data: 151962800
I1001 17:18:19.873306  5416 layer_factory.hpp:77] Creating layer Scale5
I1001 17:18:19.873311  5416 net.cpp:84] Creating Layer Scale5
I1001 17:18:19.873312  5416 net.cpp:406] Scale5 <- Convolution5
I1001 17:18:19.873317  5416 net.cpp:367] Scale5 -> Convolution5 (in-place)
I1001 17:18:19.873343  5416 layer_factory.hpp:77] Creating layer Scale5
I1001 17:18:19.873425  5416 net.cpp:122] Setting up Scale5
I1001 17:18:19.873428  5416 net.cpp:129] Top shape: 100 16 32 32 (1638400)
I1001 17:18:19.873430  5416 net.cpp:137] Memory required for data: 158516400
I1001 17:18:19.873435  5416 layer_factory.hpp:77] Creating layer Eltwise2
I1001 17:18:19.873438  5416 net.cpp:84] Creating Layer Eltwise2
I1001 17:18:19.873441  5416 net.cpp:406] Eltwise2 <- Eltwise1_penlu3_0_split_1
I1001 17:18:19.873450  5416 net.cpp:406] Eltwise2 <- Convolution5
I1001 17:18:19.873455  5416 net.cpp:380] Eltwise2 -> Eltwise2
I1001 17:18:19.873472  5416 net.cpp:122] Setting up Eltwise2
I1001 17:18:19.873476  5416 net.cpp:129] Top shape: 100 16 32 32 (1638400)
I1001 17:18:19.873479  5416 net.cpp:137] Memory required for data: 165070000
I1001 17:18:19.873481  5416 layer_factory.hpp:77] Creating layer penlu5
I1001 17:18:19.873486  5416 net.cpp:84] Creating Layer penlu5
I1001 17:18:19.873489  5416 net.cpp:406] penlu5 <- Eltwise2
I1001 17:18:19.873493  5416 net.cpp:367] penlu5 -> Eltwise2 (in-place)
I1001 17:18:19.873613  5416 net.cpp:122] Setting up penlu5
I1001 17:18:19.873618  5416 net.cpp:129] Top shape: 100 16 32 32 (1638400)
I1001 17:18:19.873620  5416 net.cpp:137] Memory required for data: 171623600
I1001 17:18:19.873625  5416 layer_factory.hpp:77] Creating layer Eltwise2_penlu5_0_split
I1001 17:18:19.873628  5416 net.cpp:84] Creating Layer Eltwise2_penlu5_0_split
I1001 17:18:19.873631  5416 net.cpp:406] Eltwise2_penlu5_0_split <- Eltwise2
I1001 17:18:19.873633  5416 net.cpp:380] Eltwise2_penlu5_0_split -> Eltwise2_penlu5_0_split_0
I1001 17:18:19.873637  5416 net.cpp:380] Eltwise2_penlu5_0_split -> Eltwise2_penlu5_0_split_1
I1001 17:18:19.873663  5416 net.cpp:122] Setting up Eltwise2_penlu5_0_split
I1001 17:18:19.873667  5416 net.cpp:129] Top shape: 100 16 32 32 (1638400)
I1001 17:18:19.873670  5416 net.cpp:129] Top shape: 100 16 32 32 (1638400)
I1001 17:18:19.873672  5416 net.cpp:137] Memory required for data: 184730800
I1001 17:18:19.873674  5416 layer_factory.hpp:77] Creating layer Convolution6
I1001 17:18:19.873682  5416 net.cpp:84] Creating Layer Convolution6
I1001 17:18:19.873684  5416 net.cpp:406] Convolution6 <- Eltwise2_penlu5_0_split_0
I1001 17:18:19.873688  5416 net.cpp:380] Convolution6 -> Convolution6
I1001 17:18:19.874629  5416 net.cpp:122] Setting up Convolution6
I1001 17:18:19.874637  5416 net.cpp:129] Top shape: 100 16 32 32 (1638400)
I1001 17:18:19.874640  5416 net.cpp:137] Memory required for data: 191284400
I1001 17:18:19.874644  5416 layer_factory.hpp:77] Creating layer BatchNorm6
I1001 17:18:19.874650  5416 net.cpp:84] Creating Layer BatchNorm6
I1001 17:18:19.874652  5416 net.cpp:406] BatchNorm6 <- Convolution6
I1001 17:18:19.874656  5416 net.cpp:367] BatchNorm6 -> Convolution6 (in-place)
I1001 17:18:19.874796  5416 net.cpp:122] Setting up BatchNorm6
I1001 17:18:19.874801  5416 net.cpp:129] Top shape: 100 16 32 32 (1638400)
I1001 17:18:19.874804  5416 net.cpp:137] Memory required for data: 197838000
I1001 17:18:19.874809  5416 layer_factory.hpp:77] Creating layer Scale6
I1001 17:18:19.874812  5416 net.cpp:84] Creating Layer Scale6
I1001 17:18:19.874815  5416 net.cpp:406] Scale6 <- Convolution6
I1001 17:18:19.874819  5416 net.cpp:367] Scale6 -> Convolution6 (in-place)
I1001 17:18:19.874846  5416 layer_factory.hpp:77] Creating layer Scale6
I1001 17:18:19.874922  5416 net.cpp:122] Setting up Scale6
I1001 17:18:19.874927  5416 net.cpp:129] Top shape: 100 16 32 32 (1638400)
I1001 17:18:19.874929  5416 net.cpp:137] Memory required for data: 204391600
I1001 17:18:19.874933  5416 layer_factory.hpp:77] Creating layer penlu6
I1001 17:18:19.874938  5416 net.cpp:84] Creating Layer penlu6
I1001 17:18:19.874941  5416 net.cpp:406] penlu6 <- Convolution6
I1001 17:18:19.874945  5416 net.cpp:367] penlu6 -> Convolution6 (in-place)
I1001 17:18:19.875064  5416 net.cpp:122] Setting up penlu6
I1001 17:18:19.875068  5416 net.cpp:129] Top shape: 100 16 32 32 (1638400)
I1001 17:18:19.875072  5416 net.cpp:137] Memory required for data: 210945200
I1001 17:18:19.875075  5416 layer_factory.hpp:77] Creating layer Convolution7
I1001 17:18:19.875082  5416 net.cpp:84] Creating Layer Convolution7
I1001 17:18:19.875085  5416 net.cpp:406] Convolution7 <- Convolution6
I1001 17:18:19.875089  5416 net.cpp:380] Convolution7 -> Convolution7
I1001 17:18:19.876013  5416 net.cpp:122] Setting up Convolution7
I1001 17:18:19.876020  5416 net.cpp:129] Top shape: 100 16 32 32 (1638400)
I1001 17:18:19.876024  5416 net.cpp:137] Memory required for data: 217498800
I1001 17:18:19.876034  5416 layer_factory.hpp:77] Creating layer BatchNorm7
I1001 17:18:19.876041  5416 net.cpp:84] Creating Layer BatchNorm7
I1001 17:18:19.876044  5416 net.cpp:406] BatchNorm7 <- Convolution7
I1001 17:18:19.876049  5416 net.cpp:367] BatchNorm7 -> Convolution7 (in-place)
I1001 17:18:19.876188  5416 net.cpp:122] Setting up BatchNorm7
I1001 17:18:19.876194  5416 net.cpp:129] Top shape: 100 16 32 32 (1638400)
I1001 17:18:19.876195  5416 net.cpp:137] Memory required for data: 224052400
I1001 17:18:19.876205  5416 layer_factory.hpp:77] Creating layer Scale7
I1001 17:18:19.876210  5416 net.cpp:84] Creating Layer Scale7
I1001 17:18:19.876212  5416 net.cpp:406] Scale7 <- Convolution7
I1001 17:18:19.876216  5416 net.cpp:367] Scale7 -> Convolution7 (in-place)
I1001 17:18:19.876245  5416 layer_factory.hpp:77] Creating layer Scale7
I1001 17:18:19.876322  5416 net.cpp:122] Setting up Scale7
I1001 17:18:19.876327  5416 net.cpp:129] Top shape: 100 16 32 32 (1638400)
I1001 17:18:19.876329  5416 net.cpp:137] Memory required for data: 230606000
I1001 17:18:19.876333  5416 layer_factory.hpp:77] Creating layer Eltwise3
I1001 17:18:19.876338  5416 net.cpp:84] Creating Layer Eltwise3
I1001 17:18:19.876340  5416 net.cpp:406] Eltwise3 <- Eltwise2_penlu5_0_split_1
I1001 17:18:19.876343  5416 net.cpp:406] Eltwise3 <- Convolution7
I1001 17:18:19.876346  5416 net.cpp:380] Eltwise3 -> Eltwise3
I1001 17:18:19.876363  5416 net.cpp:122] Setting up Eltwise3
I1001 17:18:19.876366  5416 net.cpp:129] Top shape: 100 16 32 32 (1638400)
I1001 17:18:19.876369  5416 net.cpp:137] Memory required for data: 237159600
I1001 17:18:19.876371  5416 layer_factory.hpp:77] Creating layer penlu7
I1001 17:18:19.876375  5416 net.cpp:84] Creating Layer penlu7
I1001 17:18:19.876379  5416 net.cpp:406] penlu7 <- Eltwise3
I1001 17:18:19.876381  5416 net.cpp:367] penlu7 -> Eltwise3 (in-place)
I1001 17:18:19.876544  5416 net.cpp:122] Setting up penlu7
I1001 17:18:19.876554  5416 net.cpp:129] Top shape: 100 16 32 32 (1638400)
I1001 17:18:19.876559  5416 net.cpp:137] Memory required for data: 243713200
I1001 17:18:19.876566  5416 layer_factory.hpp:77] Creating layer Eltwise3_penlu7_0_split
I1001 17:18:19.876574  5416 net.cpp:84] Creating Layer Eltwise3_penlu7_0_split
I1001 17:18:19.876587  5416 net.cpp:406] Eltwise3_penlu7_0_split <- Eltwise3
I1001 17:18:19.876592  5416 net.cpp:380] Eltwise3_penlu7_0_split -> Eltwise3_penlu7_0_split_0
I1001 17:18:19.876598  5416 net.cpp:380] Eltwise3_penlu7_0_split -> Eltwise3_penlu7_0_split_1
I1001 17:18:19.876633  5416 net.cpp:122] Setting up Eltwise3_penlu7_0_split
I1001 17:18:19.876638  5416 net.cpp:129] Top shape: 100 16 32 32 (1638400)
I1001 17:18:19.876641  5416 net.cpp:129] Top shape: 100 16 32 32 (1638400)
I1001 17:18:19.876643  5416 net.cpp:137] Memory required for data: 256820400
I1001 17:18:19.876646  5416 layer_factory.hpp:77] Creating layer Convolution8
I1001 17:18:19.876652  5416 net.cpp:84] Creating Layer Convolution8
I1001 17:18:19.876654  5416 net.cpp:406] Convolution8 <- Eltwise3_penlu7_0_split_0
I1001 17:18:19.876660  5416 net.cpp:380] Convolution8 -> Convolution8
I1001 17:18:19.877578  5416 net.cpp:122] Setting up Convolution8
I1001 17:18:19.877588  5416 net.cpp:129] Top shape: 100 32 16 16 (819200)
I1001 17:18:19.877590  5416 net.cpp:137] Memory required for data: 260097200
I1001 17:18:19.877594  5416 layer_factory.hpp:77] Creating layer BatchNorm8
I1001 17:18:19.877599  5416 net.cpp:84] Creating Layer BatchNorm8
I1001 17:18:19.877602  5416 net.cpp:406] BatchNorm8 <- Convolution8
I1001 17:18:19.877606  5416 net.cpp:367] BatchNorm8 -> Convolution8 (in-place)
I1001 17:18:19.877743  5416 net.cpp:122] Setting up BatchNorm8
I1001 17:18:19.877746  5416 net.cpp:129] Top shape: 100 32 16 16 (819200)
I1001 17:18:19.877749  5416 net.cpp:137] Memory required for data: 263374000
I1001 17:18:19.877753  5416 layer_factory.hpp:77] Creating layer Scale8
I1001 17:18:19.879618  5416 net.cpp:84] Creating Layer Scale8
I1001 17:18:19.879629  5416 net.cpp:406] Scale8 <- Convolution8
I1001 17:18:19.879648  5416 net.cpp:367] Scale8 -> Convolution8 (in-place)
I1001 17:18:19.879711  5416 layer_factory.hpp:77] Creating layer Scale8
I1001 17:18:19.879806  5416 net.cpp:122] Setting up Scale8
I1001 17:18:19.879812  5416 net.cpp:129] Top shape: 100 32 16 16 (819200)
I1001 17:18:19.879815  5416 net.cpp:137] Memory required for data: 266650800
I1001 17:18:19.879820  5416 layer_factory.hpp:77] Creating layer Convolution9
I1001 17:18:19.879828  5416 net.cpp:84] Creating Layer Convolution9
I1001 17:18:19.879832  5416 net.cpp:406] Convolution9 <- Eltwise3_penlu7_0_split_1
I1001 17:18:19.879837  5416 net.cpp:380] Convolution9 -> Convolution9
I1001 17:18:19.880916  5416 net.cpp:122] Setting up Convolution9
I1001 17:18:19.880935  5416 net.cpp:129] Top shape: 100 32 16 16 (819200)
I1001 17:18:19.880939  5416 net.cpp:137] Memory required for data: 269927600
I1001 17:18:19.880944  5416 layer_factory.hpp:77] Creating layer BatchNorm9
I1001 17:18:19.880959  5416 net.cpp:84] Creating Layer BatchNorm9
I1001 17:18:19.880962  5416 net.cpp:406] BatchNorm9 <- Convolution9
I1001 17:18:19.880967  5416 net.cpp:367] BatchNorm9 -> Convolution9 (in-place)
I1001 17:18:19.881127  5416 net.cpp:122] Setting up BatchNorm9
I1001 17:18:19.881132  5416 net.cpp:129] Top shape: 100 32 16 16 (819200)
I1001 17:18:19.881134  5416 net.cpp:137] Memory required for data: 273204400
I1001 17:18:19.881139  5416 layer_factory.hpp:77] Creating layer Scale9
I1001 17:18:19.881145  5416 net.cpp:84] Creating Layer Scale9
I1001 17:18:19.881147  5416 net.cpp:406] Scale9 <- Convolution9
I1001 17:18:19.881150  5416 net.cpp:367] Scale9 -> Convolution9 (in-place)
I1001 17:18:19.881180  5416 layer_factory.hpp:77] Creating layer Scale9
I1001 17:18:19.881268  5416 net.cpp:122] Setting up Scale9
I1001 17:18:19.881273  5416 net.cpp:129] Top shape: 100 32 16 16 (819200)
I1001 17:18:19.881274  5416 net.cpp:137] Memory required for data: 276481200
I1001 17:18:19.881278  5416 layer_factory.hpp:77] Creating layer penlu8
I1001 17:18:19.881285  5416 net.cpp:84] Creating Layer penlu8
I1001 17:18:19.881287  5416 net.cpp:406] penlu8 <- Convolution9
I1001 17:18:19.881292  5416 net.cpp:367] penlu8 -> Convolution9 (in-place)
I1001 17:18:19.881424  5416 net.cpp:122] Setting up penlu8
I1001 17:18:19.881428  5416 net.cpp:129] Top shape: 100 32 16 16 (819200)
I1001 17:18:19.881431  5416 net.cpp:137] Memory required for data: 279758000
I1001 17:18:19.881435  5416 layer_factory.hpp:77] Creating layer Convolution10
I1001 17:18:19.881443  5416 net.cpp:84] Creating Layer Convolution10
I1001 17:18:19.881444  5416 net.cpp:406] Convolution10 <- Convolution9
I1001 17:18:19.881449  5416 net.cpp:380] Convolution10 -> Convolution10
I1001 17:18:19.882830  5416 net.cpp:122] Setting up Convolution10
I1001 17:18:19.882839  5416 net.cpp:129] Top shape: 100 32 16 16 (819200)
I1001 17:18:19.882843  5416 net.cpp:137] Memory required for data: 283034800
I1001 17:18:19.882846  5416 layer_factory.hpp:77] Creating layer BatchNorm10
I1001 17:18:19.882851  5416 net.cpp:84] Creating Layer BatchNorm10
I1001 17:18:19.882854  5416 net.cpp:406] BatchNorm10 <- Convolution10
I1001 17:18:19.882858  5416 net.cpp:367] BatchNorm10 -> Convolution10 (in-place)
I1001 17:18:19.882992  5416 net.cpp:122] Setting up BatchNorm10
I1001 17:18:19.882997  5416 net.cpp:129] Top shape: 100 32 16 16 (819200)
I1001 17:18:19.882998  5416 net.cpp:137] Memory required for data: 286311600
I1001 17:18:19.883003  5416 layer_factory.hpp:77] Creating layer Scale10
I1001 17:18:19.883008  5416 net.cpp:84] Creating Layer Scale10
I1001 17:18:19.883010  5416 net.cpp:406] Scale10 <- Convolution10
I1001 17:18:19.883013  5416 net.cpp:367] Scale10 -> Convolution10 (in-place)
I1001 17:18:19.883041  5416 layer_factory.hpp:77] Creating layer Scale10
I1001 17:18:19.883117  5416 net.cpp:122] Setting up Scale10
I1001 17:18:19.883121  5416 net.cpp:129] Top shape: 100 32 16 16 (819200)
I1001 17:18:19.883123  5416 net.cpp:137] Memory required for data: 289588400
I1001 17:18:19.883127  5416 layer_factory.hpp:77] Creating layer Eltwise4
I1001 17:18:19.883132  5416 net.cpp:84] Creating Layer Eltwise4
I1001 17:18:19.883142  5416 net.cpp:406] Eltwise4 <- Convolution8
I1001 17:18:19.883147  5416 net.cpp:406] Eltwise4 <- Convolution10
I1001 17:18:19.883150  5416 net.cpp:380] Eltwise4 -> Eltwise4
I1001 17:18:19.883164  5416 net.cpp:122] Setting up Eltwise4
I1001 17:18:19.883168  5416 net.cpp:129] Top shape: 100 32 16 16 (819200)
I1001 17:18:19.883170  5416 net.cpp:137] Memory required for data: 292865200
I1001 17:18:19.883172  5416 layer_factory.hpp:77] Creating layer penlu9
I1001 17:18:19.883178  5416 net.cpp:84] Creating Layer penlu9
I1001 17:18:19.883180  5416 net.cpp:406] penlu9 <- Eltwise4
I1001 17:18:19.883183  5416 net.cpp:367] penlu9 -> Eltwise4 (in-place)
I1001 17:18:19.883373  5416 net.cpp:122] Setting up penlu9
I1001 17:18:19.883389  5416 net.cpp:129] Top shape: 100 32 16 16 (819200)
I1001 17:18:19.883393  5416 net.cpp:137] Memory required for data: 296142000
I1001 17:18:19.883399  5416 layer_factory.hpp:77] Creating layer Eltwise4_penlu9_0_split
I1001 17:18:19.883404  5416 net.cpp:84] Creating Layer Eltwise4_penlu9_0_split
I1001 17:18:19.883409  5416 net.cpp:406] Eltwise4_penlu9_0_split <- Eltwise4
I1001 17:18:19.883422  5416 net.cpp:380] Eltwise4_penlu9_0_split -> Eltwise4_penlu9_0_split_0
I1001 17:18:19.883427  5416 net.cpp:380] Eltwise4_penlu9_0_split -> Eltwise4_penlu9_0_split_1
I1001 17:18:19.883461  5416 net.cpp:122] Setting up Eltwise4_penlu9_0_split
I1001 17:18:19.883467  5416 net.cpp:129] Top shape: 100 32 16 16 (819200)
I1001 17:18:19.883471  5416 net.cpp:129] Top shape: 100 32 16 16 (819200)
I1001 17:18:19.883474  5416 net.cpp:137] Memory required for data: 302695600
I1001 17:18:19.883478  5416 layer_factory.hpp:77] Creating layer Convolution11
I1001 17:18:19.883486  5416 net.cpp:84] Creating Layer Convolution11
I1001 17:18:19.883491  5416 net.cpp:406] Convolution11 <- Eltwise4_penlu9_0_split_0
I1001 17:18:19.883496  5416 net.cpp:380] Convolution11 -> Convolution11
I1001 17:18:19.884860  5416 net.cpp:122] Setting up Convolution11
I1001 17:18:19.884868  5416 net.cpp:129] Top shape: 100 32 16 16 (819200)
I1001 17:18:19.884871  5416 net.cpp:137] Memory required for data: 305972400
I1001 17:18:19.884876  5416 layer_factory.hpp:77] Creating layer BatchNorm11
I1001 17:18:19.884881  5416 net.cpp:84] Creating Layer BatchNorm11
I1001 17:18:19.884883  5416 net.cpp:406] BatchNorm11 <- Convolution11
I1001 17:18:19.884887  5416 net.cpp:367] BatchNorm11 -> Convolution11 (in-place)
I1001 17:18:19.885025  5416 net.cpp:122] Setting up BatchNorm11
I1001 17:18:19.885030  5416 net.cpp:129] Top shape: 100 32 16 16 (819200)
I1001 17:18:19.885032  5416 net.cpp:137] Memory required for data: 309249200
I1001 17:18:19.885037  5416 layer_factory.hpp:77] Creating layer Scale11
I1001 17:18:19.885041  5416 net.cpp:84] Creating Layer Scale11
I1001 17:18:19.885043  5416 net.cpp:406] Scale11 <- Convolution11
I1001 17:18:19.885047  5416 net.cpp:367] Scale11 -> Convolution11 (in-place)
I1001 17:18:19.885074  5416 layer_factory.hpp:77] Creating layer Scale11
I1001 17:18:19.885150  5416 net.cpp:122] Setting up Scale11
I1001 17:18:19.885155  5416 net.cpp:129] Top shape: 100 32 16 16 (819200)
I1001 17:18:19.885157  5416 net.cpp:137] Memory required for data: 312526000
I1001 17:18:19.885161  5416 layer_factory.hpp:77] Creating layer penlu10
I1001 17:18:19.885166  5416 net.cpp:84] Creating Layer penlu10
I1001 17:18:19.885169  5416 net.cpp:406] penlu10 <- Convolution11
I1001 17:18:19.885172  5416 net.cpp:367] penlu10 -> Convolution11 (in-place)
I1001 17:18:19.885282  5416 net.cpp:122] Setting up penlu10
I1001 17:18:19.885288  5416 net.cpp:129] Top shape: 100 32 16 16 (819200)
I1001 17:18:19.885289  5416 net.cpp:137] Memory required for data: 315802800
I1001 17:18:19.885293  5416 layer_factory.hpp:77] Creating layer Convolution12
I1001 17:18:19.885300  5416 net.cpp:84] Creating Layer Convolution12
I1001 17:18:19.885303  5416 net.cpp:406] Convolution12 <- Convolution11
I1001 17:18:19.885308  5416 net.cpp:380] Convolution12 -> Convolution12
I1001 17:18:19.886034  5416 net.cpp:122] Setting up Convolution12
I1001 17:18:19.886049  5416 net.cpp:129] Top shape: 100 32 16 16 (819200)
I1001 17:18:19.886051  5416 net.cpp:137] Memory required for data: 319079600
I1001 17:18:19.886055  5416 layer_factory.hpp:77] Creating layer BatchNorm12
I1001 17:18:19.886060  5416 net.cpp:84] Creating Layer BatchNorm12
I1001 17:18:19.886062  5416 net.cpp:406] BatchNorm12 <- Convolution12
I1001 17:18:19.886066  5416 net.cpp:367] BatchNorm12 -> Convolution12 (in-place)
I1001 17:18:19.886204  5416 net.cpp:122] Setting up BatchNorm12
I1001 17:18:19.886209  5416 net.cpp:129] Top shape: 100 32 16 16 (819200)
I1001 17:18:19.886210  5416 net.cpp:137] Memory required for data: 322356400
I1001 17:18:19.886214  5416 layer_factory.hpp:77] Creating layer Scale12
I1001 17:18:19.886219  5416 net.cpp:84] Creating Layer Scale12
I1001 17:18:19.886221  5416 net.cpp:406] Scale12 <- Convolution12
I1001 17:18:19.886224  5416 net.cpp:367] Scale12 -> Convolution12 (in-place)
I1001 17:18:19.886251  5416 layer_factory.hpp:77] Creating layer Scale12
I1001 17:18:19.886328  5416 net.cpp:122] Setting up Scale12
I1001 17:18:19.886333  5416 net.cpp:129] Top shape: 100 32 16 16 (819200)
I1001 17:18:19.886335  5416 net.cpp:137] Memory required for data: 325633200
I1001 17:18:19.886339  5416 layer_factory.hpp:77] Creating layer Eltwise5
I1001 17:18:19.886343  5416 net.cpp:84] Creating Layer Eltwise5
I1001 17:18:19.886345  5416 net.cpp:406] Eltwise5 <- Eltwise4_penlu9_0_split_1
I1001 17:18:19.886348  5416 net.cpp:406] Eltwise5 <- Convolution12
I1001 17:18:19.886351  5416 net.cpp:380] Eltwise5 -> Eltwise5
I1001 17:18:19.886364  5416 net.cpp:122] Setting up Eltwise5
I1001 17:18:19.886368  5416 net.cpp:129] Top shape: 100 32 16 16 (819200)
I1001 17:18:19.886370  5416 net.cpp:137] Memory required for data: 328910000
I1001 17:18:19.886373  5416 layer_factory.hpp:77] Creating layer penlu11
I1001 17:18:19.886378  5416 net.cpp:84] Creating Layer penlu11
I1001 17:18:19.886379  5416 net.cpp:406] penlu11 <- Eltwise5
I1001 17:18:19.886384  5416 net.cpp:367] penlu11 -> Eltwise5 (in-place)
I1001 17:18:19.886497  5416 net.cpp:122] Setting up penlu11
I1001 17:18:19.886502  5416 net.cpp:129] Top shape: 100 32 16 16 (819200)
I1001 17:18:19.886503  5416 net.cpp:137] Memory required for data: 332186800
I1001 17:18:19.886507  5416 layer_factory.hpp:77] Creating layer Eltwise5_penlu11_0_split
I1001 17:18:19.886512  5416 net.cpp:84] Creating Layer Eltwise5_penlu11_0_split
I1001 17:18:19.886513  5416 net.cpp:406] Eltwise5_penlu11_0_split <- Eltwise5
I1001 17:18:19.886517  5416 net.cpp:380] Eltwise5_penlu11_0_split -> Eltwise5_penlu11_0_split_0
I1001 17:18:19.886534  5416 net.cpp:380] Eltwise5_penlu11_0_split -> Eltwise5_penlu11_0_split_1
I1001 17:18:19.886584  5416 net.cpp:122] Setting up Eltwise5_penlu11_0_split
I1001 17:18:19.886589  5416 net.cpp:129] Top shape: 100 32 16 16 (819200)
I1001 17:18:19.886592  5416 net.cpp:129] Top shape: 100 32 16 16 (819200)
I1001 17:18:19.886595  5416 net.cpp:137] Memory required for data: 338740400
I1001 17:18:19.886596  5416 layer_factory.hpp:77] Creating layer Convolution13
I1001 17:18:19.886602  5416 net.cpp:84] Creating Layer Convolution13
I1001 17:18:19.886605  5416 net.cpp:406] Convolution13 <- Eltwise5_penlu11_0_split_0
I1001 17:18:19.886608  5416 net.cpp:380] Convolution13 -> Convolution13
I1001 17:18:19.887665  5416 net.cpp:122] Setting up Convolution13
I1001 17:18:19.887675  5416 net.cpp:129] Top shape: 100 32 16 16 (819200)
I1001 17:18:19.887677  5416 net.cpp:137] Memory required for data: 342017200
I1001 17:18:19.887681  5416 layer_factory.hpp:77] Creating layer BatchNorm13
I1001 17:18:19.887686  5416 net.cpp:84] Creating Layer BatchNorm13
I1001 17:18:19.887689  5416 net.cpp:406] BatchNorm13 <- Convolution13
I1001 17:18:19.887693  5416 net.cpp:367] BatchNorm13 -> Convolution13 (in-place)
I1001 17:18:19.887825  5416 net.cpp:122] Setting up BatchNorm13
I1001 17:18:19.887830  5416 net.cpp:129] Top shape: 100 32 16 16 (819200)
I1001 17:18:19.887832  5416 net.cpp:137] Memory required for data: 345294000
I1001 17:18:19.887837  5416 layer_factory.hpp:77] Creating layer Scale13
I1001 17:18:19.887850  5416 net.cpp:84] Creating Layer Scale13
I1001 17:18:19.887852  5416 net.cpp:406] Scale13 <- Convolution13
I1001 17:18:19.887856  5416 net.cpp:367] Scale13 -> Convolution13 (in-place)
I1001 17:18:19.887884  5416 layer_factory.hpp:77] Creating layer Scale13
I1001 17:18:19.887964  5416 net.cpp:122] Setting up Scale13
I1001 17:18:19.887967  5416 net.cpp:129] Top shape: 100 32 16 16 (819200)
I1001 17:18:19.887969  5416 net.cpp:137] Memory required for data: 348570800
I1001 17:18:19.887974  5416 layer_factory.hpp:77] Creating layer penlu12
I1001 17:18:19.887979  5416 net.cpp:84] Creating Layer penlu12
I1001 17:18:19.887981  5416 net.cpp:406] penlu12 <- Convolution13
I1001 17:18:19.887985  5416 net.cpp:367] penlu12 -> Convolution13 (in-place)
I1001 17:18:19.888092  5416 net.cpp:122] Setting up penlu12
I1001 17:18:19.888098  5416 net.cpp:129] Top shape: 100 32 16 16 (819200)
I1001 17:18:19.888100  5416 net.cpp:137] Memory required for data: 351847600
I1001 17:18:19.888104  5416 layer_factory.hpp:77] Creating layer Convolution14
I1001 17:18:19.888114  5416 net.cpp:84] Creating Layer Convolution14
I1001 17:18:19.888118  5416 net.cpp:406] Convolution14 <- Convolution13
I1001 17:18:19.888121  5416 net.cpp:380] Convolution14 -> Convolution14
I1001 17:18:19.889178  5416 net.cpp:122] Setting up Convolution14
I1001 17:18:19.889186  5416 net.cpp:129] Top shape: 100 32 16 16 (819200)
I1001 17:18:19.889189  5416 net.cpp:137] Memory required for data: 355124400
I1001 17:18:19.889204  5416 layer_factory.hpp:77] Creating layer BatchNorm14
I1001 17:18:19.889209  5416 net.cpp:84] Creating Layer BatchNorm14
I1001 17:18:19.889212  5416 net.cpp:406] BatchNorm14 <- Convolution14
I1001 17:18:19.889216  5416 net.cpp:367] BatchNorm14 -> Convolution14 (in-place)
I1001 17:18:19.889350  5416 net.cpp:122] Setting up BatchNorm14
I1001 17:18:19.889355  5416 net.cpp:129] Top shape: 100 32 16 16 (819200)
I1001 17:18:19.889358  5416 net.cpp:137] Memory required for data: 358401200
I1001 17:18:19.889363  5416 layer_factory.hpp:77] Creating layer Scale14
I1001 17:18:19.889366  5416 net.cpp:84] Creating Layer Scale14
I1001 17:18:19.889369  5416 net.cpp:406] Scale14 <- Convolution14
I1001 17:18:19.889371  5416 net.cpp:367] Scale14 -> Convolution14 (in-place)
I1001 17:18:19.889400  5416 layer_factory.hpp:77] Creating layer Scale14
I1001 17:18:19.889477  5416 net.cpp:122] Setting up Scale14
I1001 17:18:19.889480  5416 net.cpp:129] Top shape: 100 32 16 16 (819200)
I1001 17:18:19.889482  5416 net.cpp:137] Memory required for data: 361678000
I1001 17:18:19.889487  5416 layer_factory.hpp:77] Creating layer Eltwise6
I1001 17:18:19.889490  5416 net.cpp:84] Creating Layer Eltwise6
I1001 17:18:19.889492  5416 net.cpp:406] Eltwise6 <- Eltwise5_penlu11_0_split_1
I1001 17:18:19.889495  5416 net.cpp:406] Eltwise6 <- Convolution14
I1001 17:18:19.889499  5416 net.cpp:380] Eltwise6 -> Eltwise6
I1001 17:18:19.889511  5416 net.cpp:122] Setting up Eltwise6
I1001 17:18:19.889515  5416 net.cpp:129] Top shape: 100 32 16 16 (819200)
I1001 17:18:19.889518  5416 net.cpp:137] Memory required for data: 364954800
I1001 17:18:19.889519  5416 layer_factory.hpp:77] Creating layer penlu13
I1001 17:18:19.889525  5416 net.cpp:84] Creating Layer penlu13
I1001 17:18:19.889528  5416 net.cpp:406] penlu13 <- Eltwise6
I1001 17:18:19.889531  5416 net.cpp:367] penlu13 -> Eltwise6 (in-place)
I1001 17:18:19.889644  5416 net.cpp:122] Setting up penlu13
I1001 17:18:19.889648  5416 net.cpp:129] Top shape: 100 32 16 16 (819200)
I1001 17:18:19.889652  5416 net.cpp:137] Memory required for data: 368231600
I1001 17:18:19.889655  5416 layer_factory.hpp:77] Creating layer Eltwise6_penlu13_0_split
I1001 17:18:19.889658  5416 net.cpp:84] Creating Layer Eltwise6_penlu13_0_split
I1001 17:18:19.910302  5416 net.cpp:406] Eltwise6_penlu13_0_split <- Eltwise6
I1001 17:18:19.910311  5416 net.cpp:380] Eltwise6_penlu13_0_split -> Eltwise6_penlu13_0_split_0
I1001 17:18:19.910320  5416 net.cpp:380] Eltwise6_penlu13_0_split -> Eltwise6_penlu13_0_split_1
I1001 17:18:19.910363  5416 net.cpp:122] Setting up Eltwise6_penlu13_0_split
I1001 17:18:19.910380  5416 net.cpp:129] Top shape: 100 32 16 16 (819200)
I1001 17:18:19.910387  5416 net.cpp:129] Top shape: 100 32 16 16 (819200)
I1001 17:18:19.910390  5416 net.cpp:137] Memory required for data: 374785200
I1001 17:18:19.910395  5416 layer_factory.hpp:77] Creating layer Convolution15
I1001 17:18:19.910405  5416 net.cpp:84] Creating Layer Convolution15
I1001 17:18:19.910410  5416 net.cpp:406] Convolution15 <- Eltwise6_penlu13_0_split_0
I1001 17:18:19.910418  5416 net.cpp:380] Convolution15 -> Convolution15
I1001 17:18:19.911505  5416 net.cpp:122] Setting up Convolution15
I1001 17:18:19.911515  5416 net.cpp:129] Top shape: 100 64 8 8 (409600)
I1001 17:18:19.911519  5416 net.cpp:137] Memory required for data: 376423600
I1001 17:18:19.911523  5416 layer_factory.hpp:77] Creating layer BatchNorm15
I1001 17:18:19.911530  5416 net.cpp:84] Creating Layer BatchNorm15
I1001 17:18:19.911532  5416 net.cpp:406] BatchNorm15 <- Convolution15
I1001 17:18:19.911537  5416 net.cpp:367] BatchNorm15 -> Convolution15 (in-place)
I1001 17:18:19.911689  5416 net.cpp:122] Setting up BatchNorm15
I1001 17:18:19.911694  5416 net.cpp:129] Top shape: 100 64 8 8 (409600)
I1001 17:18:19.911696  5416 net.cpp:137] Memory required for data: 378062000
I1001 17:18:19.911701  5416 layer_factory.hpp:77] Creating layer Scale15
I1001 17:18:19.911707  5416 net.cpp:84] Creating Layer Scale15
I1001 17:18:19.911710  5416 net.cpp:406] Scale15 <- Convolution15
I1001 17:18:19.911715  5416 net.cpp:367] Scale15 -> Convolution15 (in-place)
I1001 17:18:19.911744  5416 layer_factory.hpp:77] Creating layer Scale15
I1001 17:18:19.911834  5416 net.cpp:122] Setting up Scale15
I1001 17:18:19.911839  5416 net.cpp:129] Top shape: 100 64 8 8 (409600)
I1001 17:18:19.911840  5416 net.cpp:137] Memory required for data: 379700400
I1001 17:18:19.911845  5416 layer_factory.hpp:77] Creating layer Convolution16
I1001 17:18:19.911852  5416 net.cpp:84] Creating Layer Convolution16
I1001 17:18:19.911855  5416 net.cpp:406] Convolution16 <- Eltwise6_penlu13_0_split_1
I1001 17:18:19.911860  5416 net.cpp:380] Convolution16 -> Convolution16
I1001 17:18:19.913293  5416 net.cpp:122] Setting up Convolution16
I1001 17:18:19.913302  5416 net.cpp:129] Top shape: 100 64 8 8 (409600)
I1001 17:18:19.913305  5416 net.cpp:137] Memory required for data: 381338800
I1001 17:18:19.913311  5416 layer_factory.hpp:77] Creating layer BatchNorm16
I1001 17:18:19.913316  5416 net.cpp:84] Creating Layer BatchNorm16
I1001 17:18:19.913318  5416 net.cpp:406] BatchNorm16 <- Convolution16
I1001 17:18:19.913322  5416 net.cpp:367] BatchNorm16 -> Convolution16 (in-place)
I1001 17:18:19.913467  5416 net.cpp:122] Setting up BatchNorm16
I1001 17:18:19.913472  5416 net.cpp:129] Top shape: 100 64 8 8 (409600)
I1001 17:18:19.913475  5416 net.cpp:137] Memory required for data: 382977200
I1001 17:18:19.913480  5416 layer_factory.hpp:77] Creating layer Scale16
I1001 17:18:19.913485  5416 net.cpp:84] Creating Layer Scale16
I1001 17:18:19.913486  5416 net.cpp:406] Scale16 <- Convolution16
I1001 17:18:19.913491  5416 net.cpp:367] Scale16 -> Convolution16 (in-place)
I1001 17:18:19.913519  5416 layer_factory.hpp:77] Creating layer Scale16
I1001 17:18:19.913601  5416 net.cpp:122] Setting up Scale16
I1001 17:18:19.913606  5416 net.cpp:129] Top shape: 100 64 8 8 (409600)
I1001 17:18:19.913609  5416 net.cpp:137] Memory required for data: 384615600
I1001 17:18:19.913612  5416 layer_factory.hpp:77] Creating layer penlu14
I1001 17:18:19.913617  5416 net.cpp:84] Creating Layer penlu14
I1001 17:18:19.913620  5416 net.cpp:406] penlu14 <- Convolution16
I1001 17:18:19.913625  5416 net.cpp:367] penlu14 -> Convolution16 (in-place)
I1001 17:18:19.913739  5416 net.cpp:122] Setting up penlu14
I1001 17:18:19.913744  5416 net.cpp:129] Top shape: 100 64 8 8 (409600)
I1001 17:18:19.913746  5416 net.cpp:137] Memory required for data: 386254000
I1001 17:18:19.913750  5416 layer_factory.hpp:77] Creating layer Convolution17
I1001 17:18:19.913758  5416 net.cpp:84] Creating Layer Convolution17
I1001 17:18:19.913760  5416 net.cpp:406] Convolution17 <- Convolution16
I1001 17:18:19.913774  5416 net.cpp:380] Convolution17 -> Convolution17
I1001 17:18:19.915760  5416 net.cpp:122] Setting up Convolution17
I1001 17:18:19.915771  5416 net.cpp:129] Top shape: 100 64 8 8 (409600)
I1001 17:18:19.915772  5416 net.cpp:137] Memory required for data: 387892400
I1001 17:18:19.915779  5416 layer_factory.hpp:77] Creating layer BatchNorm17
I1001 17:18:19.915786  5416 net.cpp:84] Creating Layer BatchNorm17
I1001 17:18:19.915788  5416 net.cpp:406] BatchNorm17 <- Convolution17
I1001 17:18:19.915791  5416 net.cpp:367] BatchNorm17 -> Convolution17 (in-place)
I1001 17:18:19.915932  5416 net.cpp:122] Setting up BatchNorm17
I1001 17:18:19.915936  5416 net.cpp:129] Top shape: 100 64 8 8 (409600)
I1001 17:18:19.915938  5416 net.cpp:137] Memory required for data: 389530800
I1001 17:18:19.915943  5416 layer_factory.hpp:77] Creating layer Scale17
I1001 17:18:19.915948  5416 net.cpp:84] Creating Layer Scale17
I1001 17:18:19.915951  5416 net.cpp:406] Scale17 <- Convolution17
I1001 17:18:19.915953  5416 net.cpp:367] Scale17 -> Convolution17 (in-place)
I1001 17:18:19.915982  5416 layer_factory.hpp:77] Creating layer Scale17
I1001 17:18:19.916062  5416 net.cpp:122] Setting up Scale17
I1001 17:18:19.916066  5416 net.cpp:129] Top shape: 100 64 8 8 (409600)
I1001 17:18:19.916069  5416 net.cpp:137] Memory required for data: 391169200
I1001 17:18:19.916072  5416 layer_factory.hpp:77] Creating layer Eltwise7
I1001 17:18:19.916076  5416 net.cpp:84] Creating Layer Eltwise7
I1001 17:18:19.916079  5416 net.cpp:406] Eltwise7 <- Convolution15
I1001 17:18:19.916082  5416 net.cpp:406] Eltwise7 <- Convolution17
I1001 17:18:19.916085  5416 net.cpp:380] Eltwise7 -> Eltwise7
I1001 17:18:19.916102  5416 net.cpp:122] Setting up Eltwise7
I1001 17:18:19.916105  5416 net.cpp:129] Top shape: 100 64 8 8 (409600)
I1001 17:18:19.916107  5416 net.cpp:137] Memory required for data: 392807600
I1001 17:18:19.916110  5416 layer_factory.hpp:77] Creating layer penlu15
I1001 17:18:19.916115  5416 net.cpp:84] Creating Layer penlu15
I1001 17:18:19.916118  5416 net.cpp:406] penlu15 <- Eltwise7
I1001 17:18:19.916121  5416 net.cpp:367] penlu15 -> Eltwise7 (in-place)
I1001 17:18:19.916231  5416 net.cpp:122] Setting up penlu15
I1001 17:18:19.916236  5416 net.cpp:129] Top shape: 100 64 8 8 (409600)
I1001 17:18:19.916239  5416 net.cpp:137] Memory required for data: 394446000
I1001 17:18:19.916242  5416 layer_factory.hpp:77] Creating layer Eltwise7_penlu15_0_split
I1001 17:18:19.916246  5416 net.cpp:84] Creating Layer Eltwise7_penlu15_0_split
I1001 17:18:19.916249  5416 net.cpp:406] Eltwise7_penlu15_0_split <- Eltwise7
I1001 17:18:19.916252  5416 net.cpp:380] Eltwise7_penlu15_0_split -> Eltwise7_penlu15_0_split_0
I1001 17:18:19.916256  5416 net.cpp:380] Eltwise7_penlu15_0_split -> Eltwise7_penlu15_0_split_1
I1001 17:18:19.916280  5416 net.cpp:122] Setting up Eltwise7_penlu15_0_split
I1001 17:18:19.916282  5416 net.cpp:129] Top shape: 100 64 8 8 (409600)
I1001 17:18:19.916285  5416 net.cpp:129] Top shape: 100 64 8 8 (409600)
I1001 17:18:19.916287  5416 net.cpp:137] Memory required for data: 397722800
I1001 17:18:19.916290  5416 layer_factory.hpp:77] Creating layer Convolution18
I1001 17:18:19.916297  5416 net.cpp:84] Creating Layer Convolution18
I1001 17:18:19.916299  5416 net.cpp:406] Convolution18 <- Eltwise7_penlu15_0_split_0
I1001 17:18:19.916303  5416 net.cpp:380] Convolution18 -> Convolution18
I1001 17:18:19.917961  5416 net.cpp:122] Setting up Convolution18
I1001 17:18:19.917971  5416 net.cpp:129] Top shape: 100 64 8 8 (409600)
I1001 17:18:19.917974  5416 net.cpp:137] Memory required for data: 399361200
I1001 17:18:19.917979  5416 layer_factory.hpp:77] Creating layer BatchNorm18
I1001 17:18:19.917984  5416 net.cpp:84] Creating Layer BatchNorm18
I1001 17:18:19.917986  5416 net.cpp:406] BatchNorm18 <- Convolution18
I1001 17:18:19.917990  5416 net.cpp:367] BatchNorm18 -> Convolution18 (in-place)
I1001 17:18:19.918129  5416 net.cpp:122] Setting up BatchNorm18
I1001 17:18:19.918133  5416 net.cpp:129] Top shape: 100 64 8 8 (409600)
I1001 17:18:19.918143  5416 net.cpp:137] Memory required for data: 400999600
I1001 17:18:19.918148  5416 layer_factory.hpp:77] Creating layer Scale18
I1001 17:18:19.918153  5416 net.cpp:84] Creating Layer Scale18
I1001 17:18:19.918154  5416 net.cpp:406] Scale18 <- Convolution18
I1001 17:18:19.918157  5416 net.cpp:367] Scale18 -> Convolution18 (in-place)
I1001 17:18:19.918189  5416 layer_factory.hpp:77] Creating layer Scale18
I1001 17:18:19.918267  5416 net.cpp:122] Setting up Scale18
I1001 17:18:19.918272  5416 net.cpp:129] Top shape: 100 64 8 8 (409600)
I1001 17:18:19.918273  5416 net.cpp:137] Memory required for data: 402638000
I1001 17:18:19.918277  5416 layer_factory.hpp:77] Creating layer penlu16
I1001 17:18:19.918282  5416 net.cpp:84] Creating Layer penlu16
I1001 17:18:19.918285  5416 net.cpp:406] penlu16 <- Convolution18
I1001 17:18:19.918288  5416 net.cpp:367] penlu16 -> Convolution18 (in-place)
I1001 17:18:19.918400  5416 net.cpp:122] Setting up penlu16
I1001 17:18:19.918404  5416 net.cpp:129] Top shape: 100 64 8 8 (409600)
I1001 17:18:19.918406  5416 net.cpp:137] Memory required for data: 404276400
I1001 17:18:19.918411  5416 layer_factory.hpp:77] Creating layer Convolution19
I1001 17:18:19.918417  5416 net.cpp:84] Creating Layer Convolution19
I1001 17:18:19.918421  5416 net.cpp:406] Convolution19 <- Convolution18
I1001 17:18:19.918424  5416 net.cpp:380] Convolution19 -> Convolution19
I1001 17:18:19.920102  5416 net.cpp:122] Setting up Convolution19
I1001 17:18:19.920111  5416 net.cpp:129] Top shape: 100 64 8 8 (409600)
I1001 17:18:19.920114  5416 net.cpp:137] Memory required for data: 405914800
I1001 17:18:19.920119  5416 layer_factory.hpp:77] Creating layer BatchNorm19
I1001 17:18:19.920123  5416 net.cpp:84] Creating Layer BatchNorm19
I1001 17:18:19.920126  5416 net.cpp:406] BatchNorm19 <- Convolution19
I1001 17:18:19.920130  5416 net.cpp:367] BatchNorm19 -> Convolution19 (in-place)
I1001 17:18:19.920269  5416 net.cpp:122] Setting up BatchNorm19
I1001 17:18:19.920272  5416 net.cpp:129] Top shape: 100 64 8 8 (409600)
I1001 17:18:19.920274  5416 net.cpp:137] Memory required for data: 407553200
I1001 17:18:19.920279  5416 layer_factory.hpp:77] Creating layer Scale19
I1001 17:18:19.920284  5416 net.cpp:84] Creating Layer Scale19
I1001 17:18:19.920286  5416 net.cpp:406] Scale19 <- Convolution19
I1001 17:18:19.920290  5416 net.cpp:367] Scale19 -> Convolution19 (in-place)
I1001 17:18:19.920317  5416 layer_factory.hpp:77] Creating layer Scale19
I1001 17:18:19.920408  5416 net.cpp:122] Setting up Scale19
I1001 17:18:19.920413  5416 net.cpp:129] Top shape: 100 64 8 8 (409600)
I1001 17:18:19.920414  5416 net.cpp:137] Memory required for data: 409191600
I1001 17:18:19.920426  5416 layer_factory.hpp:77] Creating layer Eltwise8
I1001 17:18:19.920430  5416 net.cpp:84] Creating Layer Eltwise8
I1001 17:18:19.920433  5416 net.cpp:406] Eltwise8 <- Eltwise7_penlu15_0_split_1
I1001 17:18:19.920436  5416 net.cpp:406] Eltwise8 <- Convolution19
I1001 17:18:19.920440  5416 net.cpp:380] Eltwise8 -> Eltwise8
I1001 17:18:19.920456  5416 net.cpp:122] Setting up Eltwise8
I1001 17:18:19.920460  5416 net.cpp:129] Top shape: 100 64 8 8 (409600)
I1001 17:18:19.920462  5416 net.cpp:137] Memory required for data: 410830000
I1001 17:18:19.920464  5416 layer_factory.hpp:77] Creating layer penlu17
I1001 17:18:19.920469  5416 net.cpp:84] Creating Layer penlu17
I1001 17:18:19.920472  5416 net.cpp:406] penlu17 <- Eltwise8
I1001 17:18:19.920475  5416 net.cpp:367] penlu17 -> Eltwise8 (in-place)
I1001 17:18:19.920586  5416 net.cpp:122] Setting up penlu17
I1001 17:18:19.920590  5416 net.cpp:129] Top shape: 100 64 8 8 (409600)
I1001 17:18:19.920593  5416 net.cpp:137] Memory required for data: 412468400
I1001 17:18:19.920598  5416 layer_factory.hpp:77] Creating layer Eltwise8_penlu17_0_split
I1001 17:18:19.920600  5416 net.cpp:84] Creating Layer Eltwise8_penlu17_0_split
I1001 17:18:19.920603  5416 net.cpp:406] Eltwise8_penlu17_0_split <- Eltwise8
I1001 17:18:19.920606  5416 net.cpp:380] Eltwise8_penlu17_0_split -> Eltwise8_penlu17_0_split_0
I1001 17:18:19.920617  5416 net.cpp:380] Eltwise8_penlu17_0_split -> Eltwise8_penlu17_0_split_1
I1001 17:18:19.920642  5416 net.cpp:122] Setting up Eltwise8_penlu17_0_split
I1001 17:18:19.920646  5416 net.cpp:129] Top shape: 100 64 8 8 (409600)
I1001 17:18:19.920650  5416 net.cpp:129] Top shape: 100 64 8 8 (409600)
I1001 17:18:19.920651  5416 net.cpp:137] Memory required for data: 415745200
I1001 17:18:19.920655  5416 layer_factory.hpp:77] Creating layer Convolution20
I1001 17:18:19.920660  5416 net.cpp:84] Creating Layer Convolution20
I1001 17:18:19.920663  5416 net.cpp:406] Convolution20 <- Eltwise8_penlu17_0_split_0
I1001 17:18:19.920667  5416 net.cpp:380] Convolution20 -> Convolution20
I1001 17:18:19.922670  5416 net.cpp:122] Setting up Convolution20
I1001 17:18:19.922679  5416 net.cpp:129] Top shape: 100 64 8 8 (409600)
I1001 17:18:19.922682  5416 net.cpp:137] Memory required for data: 417383600
I1001 17:18:19.922688  5416 layer_factory.hpp:77] Creating layer BatchNorm20
I1001 17:18:19.922691  5416 net.cpp:84] Creating Layer BatchNorm20
I1001 17:18:19.922694  5416 net.cpp:406] BatchNorm20 <- Convolution20
I1001 17:18:19.922698  5416 net.cpp:367] BatchNorm20 -> Convolution20 (in-place)
I1001 17:18:19.922842  5416 net.cpp:122] Setting up BatchNorm20
I1001 17:18:19.922847  5416 net.cpp:129] Top shape: 100 64 8 8 (409600)
I1001 17:18:19.922849  5416 net.cpp:137] Memory required for data: 419022000
I1001 17:18:19.922854  5416 layer_factory.hpp:77] Creating layer Scale20
I1001 17:18:19.922858  5416 net.cpp:84] Creating Layer Scale20
I1001 17:18:19.922861  5416 net.cpp:406] Scale20 <- Convolution20
I1001 17:18:19.922864  5416 net.cpp:367] Scale20 -> Convolution20 (in-place)
I1001 17:18:19.922894  5416 layer_factory.hpp:77] Creating layer Scale20
I1001 17:18:19.922973  5416 net.cpp:122] Setting up Scale20
I1001 17:18:19.922981  5416 net.cpp:129] Top shape: 100 64 8 8 (409600)
I1001 17:18:19.922982  5416 net.cpp:137] Memory required for data: 420660400
I1001 17:18:19.922986  5416 layer_factory.hpp:77] Creating layer penlu18
I1001 17:18:19.922991  5416 net.cpp:84] Creating Layer penlu18
I1001 17:18:19.922993  5416 net.cpp:406] penlu18 <- Convolution20
I1001 17:18:19.922997  5416 net.cpp:367] penlu18 -> Convolution20 (in-place)
I1001 17:18:19.923110  5416 net.cpp:122] Setting up penlu18
I1001 17:18:19.923115  5416 net.cpp:129] Top shape: 100 64 8 8 (409600)
I1001 17:18:19.923117  5416 net.cpp:137] Memory required for data: 422298800
I1001 17:18:19.923121  5416 layer_factory.hpp:77] Creating layer Convolution21
I1001 17:18:19.923128  5416 net.cpp:84] Creating Layer Convolution21
I1001 17:18:19.923130  5416 net.cpp:406] Convolution21 <- Convolution20
I1001 17:18:19.923135  5416 net.cpp:380] Convolution21 -> Convolution21
I1001 17:18:19.925127  5416 net.cpp:122] Setting up Convolution21
I1001 17:18:19.925135  5416 net.cpp:129] Top shape: 100 64 8 8 (409600)
I1001 17:18:19.925138  5416 net.cpp:137] Memory required for data: 423937200
I1001 17:18:19.925143  5416 layer_factory.hpp:77] Creating layer BatchNorm21
I1001 17:18:19.925148  5416 net.cpp:84] Creating Layer BatchNorm21
I1001 17:18:19.925151  5416 net.cpp:406] BatchNorm21 <- Convolution21
I1001 17:18:19.925155  5416 net.cpp:367] BatchNorm21 -> Convolution21 (in-place)
I1001 17:18:19.925294  5416 net.cpp:122] Setting up BatchNorm21
I1001 17:18:19.925298  5416 net.cpp:129] Top shape: 100 64 8 8 (409600)
I1001 17:18:19.925300  5416 net.cpp:137] Memory required for data: 425575600
I1001 17:18:19.925305  5416 layer_factory.hpp:77] Creating layer Scale21
I1001 17:18:19.925309  5416 net.cpp:84] Creating Layer Scale21
I1001 17:18:19.940939  5416 net.cpp:406] Scale21 <- Convolution21
I1001 17:18:19.940945  5416 net.cpp:367] Scale21 -> Convolution21 (in-place)
I1001 17:18:19.940984  5416 layer_factory.hpp:77] Creating layer Scale21
I1001 17:18:19.941076  5416 net.cpp:122] Setting up Scale21
I1001 17:18:19.941081  5416 net.cpp:129] Top shape: 100 64 8 8 (409600)
I1001 17:18:19.941083  5416 net.cpp:137] Memory required for data: 427214000
I1001 17:18:19.941087  5416 layer_factory.hpp:77] Creating layer Eltwise9
I1001 17:18:19.941100  5416 net.cpp:84] Creating Layer Eltwise9
I1001 17:18:19.941103  5416 net.cpp:406] Eltwise9 <- Eltwise8_penlu17_0_split_1
I1001 17:18:19.941107  5416 net.cpp:406] Eltwise9 <- Convolution21
I1001 17:18:19.941110  5416 net.cpp:380] Eltwise9 -> Eltwise9
I1001 17:18:19.941131  5416 net.cpp:122] Setting up Eltwise9
I1001 17:18:19.941135  5416 net.cpp:129] Top shape: 100 64 8 8 (409600)
I1001 17:18:19.941138  5416 net.cpp:137] Memory required for data: 428852400
I1001 17:18:19.941140  5416 layer_factory.hpp:77] Creating layer penlu19
I1001 17:18:19.941146  5416 net.cpp:84] Creating Layer penlu19
I1001 17:18:19.941149  5416 net.cpp:406] penlu19 <- Eltwise9
I1001 17:18:19.941153  5416 net.cpp:367] penlu19 -> Eltwise9 (in-place)
I1001 17:18:19.941282  5416 net.cpp:122] Setting up penlu19
I1001 17:18:19.941287  5416 net.cpp:129] Top shape: 100 64 8 8 (409600)
I1001 17:18:19.941289  5416 net.cpp:137] Memory required for data: 430490800
I1001 17:18:19.941294  5416 layer_factory.hpp:77] Creating layer Pooling1
I1001 17:18:19.941299  5416 net.cpp:84] Creating Layer Pooling1
I1001 17:18:19.941303  5416 net.cpp:406] Pooling1 <- Eltwise9
I1001 17:18:19.941306  5416 net.cpp:380] Pooling1 -> Pooling1
I1001 17:18:19.941458  5416 net.cpp:122] Setting up Pooling1
I1001 17:18:19.941464  5416 net.cpp:129] Top shape: 100 64 1 1 (6400)
I1001 17:18:19.941468  5416 net.cpp:137] Memory required for data: 430516400
I1001 17:18:19.941470  5416 layer_factory.hpp:77] Creating layer InnerProduct1
I1001 17:18:19.941476  5416 net.cpp:84] Creating Layer InnerProduct1
I1001 17:18:19.941479  5416 net.cpp:406] InnerProduct1 <- Pooling1
I1001 17:18:19.941483  5416 net.cpp:380] InnerProduct1 -> InnerProduct1
I1001 17:18:19.941591  5416 net.cpp:122] Setting up InnerProduct1
I1001 17:18:19.941596  5416 net.cpp:129] Top shape: 100 10 (1000)
I1001 17:18:19.941599  5416 net.cpp:137] Memory required for data: 430520400
I1001 17:18:19.941603  5416 layer_factory.hpp:77] Creating layer InnerProduct1_InnerProduct1_0_split
I1001 17:18:19.941607  5416 net.cpp:84] Creating Layer InnerProduct1_InnerProduct1_0_split
I1001 17:18:19.941610  5416 net.cpp:406] InnerProduct1_InnerProduct1_0_split <- InnerProduct1
I1001 17:18:19.941613  5416 net.cpp:380] InnerProduct1_InnerProduct1_0_split -> InnerProduct1_InnerProduct1_0_split_0
I1001 17:18:19.941618  5416 net.cpp:380] InnerProduct1_InnerProduct1_0_split -> InnerProduct1_InnerProduct1_0_split_1
I1001 17:18:19.941650  5416 net.cpp:122] Setting up InnerProduct1_InnerProduct1_0_split
I1001 17:18:19.941655  5416 net.cpp:129] Top shape: 100 10 (1000)
I1001 17:18:19.941658  5416 net.cpp:129] Top shape: 100 10 (1000)
I1001 17:18:19.941660  5416 net.cpp:137] Memory required for data: 430528400
I1001 17:18:19.941663  5416 layer_factory.hpp:77] Creating layer SoftmaxWithLoss1
I1001 17:18:19.941668  5416 net.cpp:84] Creating Layer SoftmaxWithLoss1
I1001 17:18:19.941669  5416 net.cpp:406] SoftmaxWithLoss1 <- InnerProduct1_InnerProduct1_0_split_0
I1001 17:18:19.941673  5416 net.cpp:406] SoftmaxWithLoss1 <- Data2_Data1_1_split_0
…
