…
I1005 20:14:09.386390  9960 net.cpp:294] The NetState phase (0) differed from the phase (1) specified by a rule in layer Accuracy1
I1005 20:14:09.386768  9960 net.cpp:51] Initializing net from parameters: 
name: "resnet_cifar10"
state {
  phase: TRAIN
  level: 0
  stage: ""
}
layer {
  name: "Data1"
  type: "Data"
  top: "Data1"
  top: "Data2"
  include {
    phase: TRAIN
  }
  transform_param {
    mirror: true
    crop_size: 28
    mean_file: "/home/x306/caffe/xn/PENLU/data/cifar10/mean.binaryproto"
  }
  data_param {
    source: "/home/x306/caffe/xn/PENLU/data/cifar10/cifar10_train_lmdb"
    batch_size: 100
    backend: LMDB
  }
}
layer {
  name: "Convolution1"
  type: "Convolution"
  bottom: "Data1"
  top: "Convolution1"
  param {
    lr_mult: 1
    decay_mult: 1
  }
  param {
    lr_mult: 2
    decay_mult: 0
  }
  convolution_param {
    num_output: 16
    pad: 1
    kernel_size: 3
    stride: 1
    weight_filler {
      type: "gaussian"
      std: 0.118
    }
    bias_filler {
      type: "constant"
      value: 0
    }
  }
}
layer {
  name: "BatchNorm1"
  type: "BatchNorm"
  bottom: "Convolution1"
  top: "Convolution1"
  param {
    lr_mult: 0
    decay_mult: 0
  }
  param {
    lr_mult: 0
    decay_mult: 0
  }
  param {
    lr_mult: 0
    decay_mult: 0
  }
}
layer {
  name: "Scale1"
  type: "Scale"
  bottom: "Convolution1"
  top: "Convolution1"
  scale_param {
    bias_term: true
  }
}
layer {
  name: "PReLU1"
  type: "PReLU"
  bottom: "Convolution1"
  top: "Convolution1"
}
layer {
  name: "Convolution2"
  type: "Convolution"
  bottom: "Convolution1"
  top: "Convolution2"
  param {
    lr_mult: 1
    decay_mult: 1
  }
  param {
    lr_mult: 2
    decay_mult: 0
  }
  convolution_param {
    num_output: 16
    pad: 1
    kernel_size: 3
    stride: 1
    weight_filler {
      type: "gaussian"
      std: 0.118
    }
    bias_filler {
      type: "constant"
      value: 0
    }
  }
}
layer {
  name: "BatchNorm2"
  type: "BatchNorm"
  bottom: "Convolution2"
  top: "Convolution2"
  param {
    lr_mult: 0
    decay_mult: 0
  }
  param {
    lr_mult: 0
    decay_mult: 0
  }
  param {
    lr_mult: 0
    decay_mult: 0
  }
}
layer {
  name: "Scale2"
  type: "Scale"
  bottom: "Convolution2"
  top: "Convolution2"
  scale_param {
    bias_term: true
  }
}
layer {
  name: "PReLU2"
  type: "PReLU"
  bottom: "Convolution2"
  top: "Convolution2"
}
layer {
  name: "Convolution3"
  type: "Convolution"
  bottom: "Convolution2"
  top: "Convolution3"
  param {
    lr_mult: 1
    decay_mult: 1
  }
  param {
    lr_mult: 2
    decay_mult: 0
  }
  convolution_param {
    num_output: 16
    pad: 1
    kernel_size: 3
    stride: 1
    weight_filler {
      type: "gaussian"
      std: 0.118
    }
    bias_filler {
      type: "constant"
      value: 0
    }
  }
}
layer {
  name: "BatchNorm3"
  type: "BatchNorm"
  bottom: "Convolution3"
  top: "Convolution3"
  param {
    lr_mult: 0
    decay_mult: 0
  }
  param {
    lr_mult: 0
    decay_mult: 0
  }
  param {
    lr_mult: 0
    decay_mult: 0
  }
}
layer {
  name: "Scale3"
  type: "Scale"
  bottom: "Convolution3"
  top: "Convolution3"
  scale_param {
    bias_term: true
  }
}
layer {
  name: "Eltwise1"
  type: "Eltwise"
  bottom: "Convolution1"
  bottom: "Convolution3"
  top: "Eltwise1"
  eltwise_param {
    operation: SUM
  }
}
layer {
  name: "PReLU3"
  type: "PReLU"
  bottom: "Eltwise1"
  top: "Eltwise1"
}
layer {
  name: "Convolution4"
  type: "Convolution"
  bottom: "Eltwise1"
  top: "Convolution4"
  param {
    lr_mult: 1
    decay_mult: 1
  }
  param {
    lr_mult: 2
    decay_mult: 0
  }
  convolution_param {
    num_output: 16
    pad: 1
    kernel_size: 3
    stride: 1
    weight_filler {
      type: "gaussian"
      std: 0.118
    }
    bias_filler {
      type: "constant"
      value: 0
    }
  }
}
layer {
  name: "BatchNorm4"
  type: "BatchNorm"
  bottom: "Convolution4"
  top: "Convolution4"
  param {
    lr_mult: 0
    decay_mult: 0
  }
  param {
    lr_mult: 0
    decay_mult: 0
  }
  param {
    lr_mult: 0
    decay_mult: 0
  }
}
layer {
  name: "Scale4"
  type: "Scale"
  bottom: "Convolution4"
  top: "Convolution4"
  scale_param {
    bias_term: true
  }
}
layer {
  name: "PReLU4"
  type: "PReLU"
  bottom: "Convolution4"
  top: "Convolution4"
}
layer {
  name: "Convolution5"
  type: "Convolution"
  bottom: "Convolution4"
  top: "Convolution5"
  param {
    lr_mult: 1
    decay_mult: 1
  }
  param {
    lr_mult: 2
    decay_mult: 0
  }
  convolution_param {
    num_output: 16
    pad: 1
    kernel_size: 3
    stride: 1
    weight_filler {
      type: "gaussian"
      std: 0.118
    }
    bias_filler {
      type: "constant"
      value: 0
    }
  }
}
layer {
  name: "BatchNorm5"
  type: "BatchNorm"
  bottom: "Convolution5"
  top: "Convolution5"
  param {
    lr_mult: 0
    decay_mult: 0
  }
  param {
    lr_mult: 0
    decay_mult: 0
  }
  param {
    lr_mult: 0
    decay_mult: 0
  }
}
layer {
  name: "Scale5"
  type: "Scale"
  bottom: "Convolution5"
  top: "Convolution5"
  scale_param {
    bias_term: true
  }
}
layer {
  name: "Eltwise2"
  type: "Eltwise"
  bottom: "Eltwise1"
  bottom: "Convolution5"
  top: "Eltwise2"
  eltwise_param {
    operation: SUM
  }
}
layer {
  name: "PReLU5"
  type: "PReLU"
  bottom: "Eltwise2"
  top: "Eltwise2"
}
layer {
  name: "Convolution6"
  type: "Convolution"
  bottom: "Eltwise2"
  top: "Convolution6"
  param {
    lr_mult: 1
    decay_mult: 1
  }
  param {
    lr_mult: 2
    decay_mult: 0
  }
  convolution_param {
    num_output: 16
    pad: 1
    kernel_size: 3
    stride: 1
    weight_filler {
      type: "gaussian"
      std: 0.118
    }
    bias_filler {
      type: "constant"
      value: 0
    }
  }
}
layer {
  name: "BatchNorm6"
  type: "BatchNorm"
  bottom: "Convolution6"
  top: "Convolution6"
  param {
    lr_mult: 0
    decay_mult: 0
  }
  param {
    lr_mult: 0
    decay_mult: 0
  }
  param {
    lr_mult: 0
    decay_mult: 0
  }
}
layer {
  name: "Scale6"
  type: "Scale"
  bottom: "Convolution6"
  top: "Convolution6"
  scale_param {
    bias_term: true
  }
}
layer {
  name: "PReLU6"
  type: "PReLU"
  bottom: "Convolution6"
  top: "Convolution6"
}
layer {
  name: "Convolution7"
  type: "Convolution"
  bottom: "Convolution6"
  top: "Convolution7"
  param {
    lr_mult: 1
    decay_mult: 1
  }
  param {
    lr_mult: 2
    decay_mult: 0
  }
  convolution_param {
    num_output: 16
    pad: 1
    kernel_size: 3
    stride: 1
    weight_filler {
      type: "gaussian"
      std: 0.118
    }
    bias_filler {
      type: "constant"
      value: 0
    }
  }
}
layer {
  name: "BatchNorm7"
  type: "BatchNorm"
  bottom: "Convolution7"
  top: "Convolution7"
  param {
    lr_mult: 0
    decay_mult: 0
  }
  param {
    lr_mult: 0
    decay_mult: 0
  }
  param {
    lr_mult: 0
    decay_mult: 0
  }
}
layer {
  name: "Scale7"
  type: "Scale"
  bottom: "Convolution7"
  top: "Convolution7"
  scale_param {
    bias_term: true
  }
}
layer {
  name: "Eltwise3"
  type: "Eltwise"
  bottom: "Eltwise2"
  bottom: "Convolution7"
  top: "Eltwise3"
  eltwise_param {
    operation: SUM
  }
}
layer {
  name: "PReLU7"
  type: "PReLU"
  bottom: "Eltwise3"
  top: "Eltwise3"
}
layer {
  name: "Convolution8"
  type: "Convolution"
  bottom: "Eltwise3"
  top: "Convolution8"
  param {
    lr_mult: 1
    decay_mult: 1
  }
  param {
    lr_mult: 2
    decay_mult: 0
  }
  convolution_param {
    num_output: 32
    pad: 0
    kernel_size: 1
    stride: 2
    weight_filler {
      type: "gaussian"
      std: 0.25
    }
    bias_filler {
      type: "constant"
      value: 0
    }
  }
}
layer {
  name: "BatchNorm8"
  type: "BatchNorm"
  bottom: "Convolution8"
  top: "Convolution8"
  param {
    lr_mult: 0
    decay_mult: 0
  }
  param {
    lr_mult: 0
    decay_mult: 0
  }
  param {
    lr_mult: 0
    decay_mult: 0
  }
}
layer {
  name: "Scale8"
  type: "Scale"
  bottom: "Convolution8"
  top: "Convolution8"
  scale_param {
    bias_term: true
  }
}
layer {
  name: "Convolution9"
  type: "Convolution"
  bottom: "Eltwise3"
  top: "Convolution9"
  param {
    lr_mult: 1
    decay_mult: 1
  }
  param {
    lr_mult: 2
    decay_mult: 0
  }
  convolution_param {
    num_output: 32
    pad: 1
    kernel_size: 3
    stride: 2
    weight_filler {
      type: "gaussian"
      std: 0.083
    }
    bias_filler {
      type: "constant"
      value: 0
    }
  }
}
layer {
  name: "BatchNorm9"
  type: "BatchNorm"
  bottom: "Convolution9"
  top: "Convolution9"
  param {
    lr_mult: 0
    decay_mult: 0
  }
  param {
    lr_mult: 0
    decay_mult: 0
  }
  param {
    lr_mult: 0
    decay_mult: 0
  }
}
layer {
  name: "Scale9"
  type: "Scale"
  bottom: "Convolution9"
  top: "Convolution9"
  scale_param {
    bias_term: true
  }
}
layer {
  name: "PReLU8"
  type: "PReLU"
  bottom: "Convolution9"
  top: "Convolution9"
}
layer {
  name: "Convolution10"
  type: "Convolution"
  bottom: "Convolution9"
  top: "Convolution10"
  param {
    lr_mult: 1
    decay_mult: 1
  }
  param {
    lr_mult: 2
    decay_mult: 0
  }
  convolution_param {
    num_output: 32
    pad: 1
    kernel_size: 3
    stride: 1
    weight_filler {
      type: "gaussian"
      std: 0.083
    }
    bias_filler {
      type: "constant"
      value: 0
    }
  }
}
layer {
  name: "BatchNorm10"
  type: "BatchNorm"
  bottom: "Convolution10"
  top: "Convolution10"
  param {
    lr_mult: 0
    decay_mult: 0
  }
  param {
    lr_mult: 0
    decay_mult: 0
  }
  param {
    lr_mult: 0
    decay_mult: 0
  }
}
layer {
  name: "Scale10"
  type: "Scale"
  bottom: "Convolution10"
  top: "Convolution10"
  scale_param {
    bias_term: true
  }
}
layer {
  name: "Eltwise4"
  type: "Eltwise"
  bottom: "Convolution8"
  bottom: "Convolution10"
  top: "Eltwise4"
  eltwise_param {
    operation: SUM
  }
}
layer {
  name: "PReLU9"
  type: "PReLU"
  bottom: "Eltwise4"
  top: "Eltwise4"
}
layer {
  name: "Convolution11"
  type: "Convolution"
  bottom: "Eltwise4"
  top: "Convolution11"
  param {
    lr_mult: 1
    decay_mult: 1
  }
  param {
    lr_mult: 2
    decay_mult: 0
  }
  convolution_param {
    num_output: 32
    pad: 1
    kernel_size: 3
    stride: 1
    weight_filler {
      type: "gaussian"
      std: 0.083
    }
    bias_filler {
      type: "constant"
      value: 0
    }
  }
}
layer {
  name: "BatchNorm11"
  type: "BatchNorm"
  bottom: "Convolution11"
  top: "Convolution11"
  param {
    lr_mult: 0
    decay_mult: 0
  }
  param {
    lr_mult: 0
    decay_mult: 0
  }
  param {
    lr_mult: 0
    decay_mult: 0
  }
}
layer {
  name: "Scale11"
  type: "Scale"
  bottom: "Convolution11"
  top: "Convolution11"
  scale_param {
    bias_term: true
  }
}
layer {
  name: "PReLU10"
  type: "PReLU"
  bottom: "Convolution11"
  top: "Convolution11"
}
layer {
  name: "Convolution12"
  type: "Convolution"
  bottom: "Convolution11"
  top: "Convolution12"
  param {
    lr_mult: 1
    decay_mult: 1
  }
  param {
    lr_mult: 2
    decay_mult: 0
  }
  convolution_param {
    num_output: 32
    pad: 1
    kernel_size: 3
    stride: 1
    weight_filler {
      type: "gaussian"
      std: 0.083
    }
    bias_filler {
      type: "constant"
      value: 0
    }
  }
}
layer {
  name: "BatchNorm12"
  type: "BatchNorm"
  bottom: "Convolution12"
  top: "Convolution12"
  param {
    lr_mult: 0
    decay_mult: 0
  }
  param {
    lr_mult: 0
    decay_mult: 0
  }
  param {
    lr_mult: 0
    decay_mult: 0
  }
}
layer {
  name: "Scale12"
  type: "Scale"
  bottom: "Convolution12"
  top: "Convolution12"
  scale_param {
    bias_term: true
  }
}
layer {
  name: "Eltwise5"
  type: "Eltwise"
  bottom: "Eltwise4"
  bottom: "Convolution12"
  top: "Eltwise5"
  eltwise_param {
    operation: SUM
  }
}
layer {
  name: "PReLU11"
  type: "PReLU"
  bottom: "Eltwise5"
  top: "Eltwise5"
}
layer {
  name: "Convolution13"
  type: "Convolution"
  bottom: "Eltwise5"
  top: "Convolution13"
  param {
    lr_mult: 1
    decay_mult: 1
  }
  param {
    lr_mult: 2
    decay_mult: 0
  }
  convolution_param {
    num_output: 32
    pad: 1
    kernel_size: 3
    stride: 1
    weight_filler {
      type: "gaussian"
      std: 0.083
    }
    bias_filler {
      type: "constant"
      value: 0
    }
  }
}
layer {
  name: "BatchNorm13"
  type: "BatchNorm"
  bottom: "Convolution13"
  top: "Convolution13"
  param {
    lr_mult: 0
    decay_mult: 0
  }
  param {
    lr_mult: 0
    decay_mult: 0
  }
  param {
    lr_mult: 0
    decay_mult: 0
  }
}
layer {
  name: "Scale13"
  type: "Scale"
  bottom: "Convolution13"
  top: "Convolution13"
  scale_param {
    bias_term: true
  }
}
layer {
  name: "PReLU12"
  type: "PReLU"
  bottom: "Convolution13"
  top: "Convolution13"
}
layer {
  name: "Convolution14"
  type: "Convolution"
  bottom: "Convolution13"
  top: "Convolution14"
  param {
    lr_mult: 1
    decay_mult: 1
  }
  param {
    lr_mult: 2
    decay_mult: 0
  }
  convolution_param {
    num_output: 32
    pad: 1
    kernel_size: 3
    stride: 1
    weight_filler {
      type: "gaussian"
      std: 0.083
    }
    bias_filler {
      type: "constant"
      value: 0
    }
  }
}
layer {
  name: "BatchNorm14"
  type: "BatchNorm"
  bottom: "Convolution14"
  top: "Convolution14"
  param {
    lr_mult: 0
    decay_mult: 0
  }
  param {
    lr_mult: 0
    decay_mult: 0
  }
  param {
    lr_mult: 0
    decay_mult: 0
  }
}
layer {
  name: "Scale14"
  type: "Scale"
  bottom: "Convolution14"
  top: "Convolution14"
  scale_param {
    bias_term: true
  }
}
layer {
  name: "Eltwise6"
  type: "Eltwise"
  bottom: "Eltwise5"
  bottom: "Convolution14"
  top: "Eltwise6"
  eltwise_param {
    operation: SUM
  }
}
layer {
  name: "PReLU13"
  type: "PReLU"
  bottom: "Eltwise6"
  top: "Eltwise6"
}
layer {
  name: "Convolution15"
  type: "Convolution"
  bottom: "Eltwise6"
  top: "Convolution15"
  param {
    lr_mult: 1
    decay_mult: 1
  }
  param {
    lr_mult: 2
    decay_mult: 0
  }
  convolution_param {
    num_output: 64
    pad: 0
    kernel_size: 1
    stride: 2
    weight_filler {
      type: "gaussian"
      std: 0.17677669
    }
    bias_filler {
      type: "constant"
      value: 0
    }
  }
}
layer {
  name: "BatchNorm15"
  type: "BatchNorm"
  bottom: "Convolution15"
  top: "Convolution15"
  param {
    lr_mult: 0
    decay_mult: 0
  }
  param {
    lr_mult: 0
    decay_mult: 0
  }
  param {
    lr_mult: 0
    decay_mult: 0
  }
}
layer {
  name: "Scale15"
  type: "Scale"
  bottom: "Convolution15"
  top: "Convolution15"
  scale_param {
    bias_term: true
  }
}
layer {
  name: "Convolution16"
  type: "Convolution"
  bottom: "Eltwise6"
  top: "Convolution16"
  param {
    lr_mult: 1
    decay_mult: 1
  }
  param {
    lr_mult: 2
    decay_mult: 0
  }
  convolution_param {
    num_output: 64
    pad: 1
    kernel_size: 3
    stride: 2
    weight_filler {
      type: "gaussian"
      std: 0.059
    }
    bias_filler {
      type: "constant"
      value: 0
    }
  }
}
layer {
  name: "BatchNorm16"
  type: "BatchNorm"
  bottom: "Convolution16"
  top: "Convolution16"
  param {
    lr_mult: 0
    decay_mult: 0
  }
  param {
    lr_mult: 0
    decay_mult: 0
  }
  param {
    lr_mult: 0
    decay_mult: 0
  }
}
layer {
  name: "Scale16"
  type: "Scale"
  bottom: "Convolution16"
  top: "Convolution16"
  scale_param {
    bias_term: true
  }
}
layer {
  name: "PReLU14"
  type: "PReLU"
  bottom: "Convolution16"
  top: "Convolution16"
}
layer {
  name: "Convolution17"
  type: "Convolution"
  bottom: "Convolution16"
  top: "Convolution17"
  param {
    lr_mult: 1
    decay_mult: 1
  }
  param {
    lr_mult: 2
    decay_mult: 0
  }
  convolution_param {
    num_output: 64
    pad: 1
    kernel_size: 3
    stride: 1
    weight_filler {
      type: "gaussian"
      std: 0.059
    }
    bias_filler {
      type: "constant"
      value: 0
    }
  }
}
layer {
  name: "BatchNorm17"
  type: "BatchNorm"
  bottom: "Convolution17"
  top: "Convolution17"
  param {
    lr_mult: 0
    decay_mult: 0
  }
  param {
    lr_mult: 0
    decay_mult: 0
  }
  param {
    lr_mult: 0
    decay_mult: 0
  }
}
layer {
  name: "Scale17"
  type: "Scale"
  bottom: "Convolution17"
  top: "Convolution17"
  scale_param {
    bias_term: true
  }
}
layer {
  name: "Eltwise7"
  type: "Eltwise"
  bottom: "Convolution15"
  bottom: "Convolution17"
  top: "Eltwise7"
  eltwise_param {
    operation: SUM
  }
}
layer {
  name: "PReLU15"
  type: "PReLU"
  bottom: "Eltwise7"
  top: "Eltwise7"
}
layer {
  name: "Convolution18"
  type: "Convolution"
  bottom: "Eltwise7"
  top: "Convolution18"
  param {
    lr_mult: 1
    decay_mult: 1
  }
  param {
    lr_mult: 2
    decay_mult: 0
  }
  convolution_param {
    num_output: 64
    pad: 1
    kernel_size: 3
    stride: 1
    weight_filler {
      type: "gaussian"
      std: 0.059
    }
    bias_filler {
      type: "constant"
      value: 0
    }
  }
}
layer {
  name: "BatchNorm18"
  type: "BatchNorm"
  bottom: "Convolution18"
  top: "Convolution18"
  param {
    lr_mult: 0
    decay_mult: 0
  }
  param {
    lr_mult: 0
    decay_mult: 0
  }
  param {
    lr_mult: 0
    decay_mult: 0
  }
}
layer {
  name: "Scale18"
  type: "Scale"
  bottom: "Convolution18"
  top: "Convolution18"
  scale_param {
    bias_term: true
  }
}
layer {
  name: "PReLU16"
  type: "PReLU"
  bottom: "Convolution18"
  top: "Convolution18"
}
layer {
  name: "Convolution19"
  type: "Convolution"
  bottom: "Convolution18"
  top: "Convolution19"
  param {
    lr_mult: 1
    decay_mult: 1
  }
  param {
    lr_mult: 2
    decay_mult: 0
  }
  convolution_param {
    num_output: 64
    pad: 1
    kernel_size: 3
    stride: 1
    weight_filler {
      type: "gaussian"
      std: 0.059
    }
    bias_filler {
      type: "constant"
      value: 0
    }
  }
}
layer {
  name: "BatchNorm19"
  type: "BatchNorm"
  bottom: "Convolution19"
  top: "Convolution19"
  param {
    lr_mult: 0
    decay_mult: 0
  }
  param {
    lr_mult: 0
    decay_mult: 0
  }
  param {
    lr_mult: 0
    decay_mult: 0
  }
}
layer {
  name: "Scale19"
  type: "Scale"
  bottom: "Convolution19"
  top: "Convolution19"
  scale_param {
    bias_term: true
  }
}
layer {
  name: "Eltwise8"
  type: "Eltwise"
  bottom: "Eltwise7"
  bottom: "Convolution19"
  top: "Eltwise8"
  eltwise_param {
    operation: SUM
  }
}
layer {
  name: "PReLU17"
  type: "PReLU"
  bottom: "Eltwise8"
  top: "Eltwise8"
}
layer {
  name: "Convolution20"
  type: "Convolution"
  bottom: "Eltwise8"
  top: "Convolution20"
  param {
    lr_mult: 1
    decay_mult: 1
  }
  param {
    lr_mult: 2
    decay_mult: 0
  }
  convolution_param {
    num_output: 64
    pad: 1
    kernel_size: 3
    stride: 1
    weight_filler {
      type: "gaussian"
      std: 0.059
    }
    bias_filler {
      type: "constant"
      value: 0
    }
  }
}
layer {
  name: "BatchNorm20"
  type: "BatchNorm"
  bottom: "Convolution20"
  top: "Convolution20"
  param {
    lr_mult: 0
    decay_mult: 0
  }
  param {
    lr_mult: 0
    decay_mult: 0
  }
  param {
    lr_mult: 0
    decay_mult: 0
  }
}
layer {
  name: "Scale20"
  type: "Scale"
  bottom: "Convolution20"
  top: "Convolution20"
  scale_param {
    bias_term: true
  }
}
layer {
  name: "PReLU18"
  type: "PReLU"
  bottom: "Convolution20"
  top: "Convolution20"
}
layer {
  name: "Convolution21"
  type: "Convolution"
  bottom: "Convolution20"
  top: "Convolution21"
  param {
    lr_mult: 1
    decay_mult: 1
  }
  param {
    lr_mult: 2
    decay_mult: 0
  }
  convolution_param {
    num_output: 64
    pad: 1
    kernel_size: 3
    stride: 1
    weight_filler {
      type: "gaussian"
      std: 0.059
    }
    bias_filler {
      type: "constant"
      value: 0
    }
  }
}
layer {
  name: "BatchNorm21"
  type: "BatchNorm"
  bottom: "Convolution21"
  top: "Convolution21"
  param {
    lr_mult: 0
    decay_mult: 0
  }
  param {
    lr_mult: 0
    decay_mult: 0
  }
  param {
    lr_mult: 0
    decay_mult: 0
  }
}
layer {
  name: "Scale21"
  type: "Scale"
  bottom: "Convolution21"
  top: "Convolution21"
  scale_param {
    bias_term: true
  }
}
layer {
  name: "Eltwise9"
  type: "Eltwise"
  bottom: "Eltwise8"
  bottom: "Convolution21"
  top: "Eltwise9"
  eltwise_param {
    operation: SUM
  }
}
layer {
  name: "PReLU19"
  type: "PReLU"
  bottom: "Eltwise9"
  top: "Eltwise9"
}
layer {
  name: "Pooling1"
  type: "Pooling"
  bottom: "Eltwise9"
  top: "Pooling1"
  pooling_param {
    pool: AVE
    global_pooling: true
  }
}
layer {
  name: "InnerProduct1"
  type: "InnerProduct"
  bottom: "Pooling1"
  top: "InnerProduct1"
  param {
    lr_mult: 1
    decay_mult: 1
  }
  param {
    lr_mult: 2
    decay_mult: 1
  }
  inner_product_param {
    num_output: 10
    weight_filler {
      type: "gaussian"
      std: 0.01
    }
    bias_filler {
      type: "constant"
      value: 0
    }
  }
}
layer {
  name: "SoftmaxWithLoss1"
  type: "SoftmaxWithLoss"
  bottom: "InnerProduct1"
  bottom: "Data2"
  top: "SoftmaxWithLoss1"
}
I1005 20:14:09.387122  9960 layer_factory.hpp:77] Creating layer Data1
I1005 20:14:09.387202  9960 db_lmdb.cpp:35] Opened lmdb /home/x306/caffe/xn/PENLU/data/cifar10/cifar10_train_lmdb
I1005 20:14:09.387221  9960 net.cpp:84] Creating Layer Data1
I1005 20:14:09.387228  9960 net.cpp:380] Data1 -> Data1
I1005 20:14:09.387245  9960 net.cpp:380] Data1 -> Data2
I1005 20:14:09.387254  9960 data_transformer.cpp:25] Loading mean file from: /home/x306/caffe/xn/PENLU/data/cifar10/mean.binaryproto
I1005 20:14:09.388680  9960 data_layer.cpp:45] output data size: 100,3,28,28
I1005 20:14:09.391085  9960 net.cpp:122] Setting up Data1
I1005 20:14:09.391113  9960 net.cpp:129] Top shape: 100 3 28 28 (235200)
I1005 20:14:09.391119  9960 net.cpp:129] Top shape: 100 (100)
I1005 20:14:09.391121  9960 net.cpp:137] Memory required for data: 941200
I1005 20:14:09.391127  9960 layer_factory.hpp:77] Creating layer Convolution1
I1005 20:14:09.391157  9960 net.cpp:84] Creating Layer Convolution1
I1005 20:14:09.391163  9960 net.cpp:406] Convolution1 <- Data1
I1005 20:14:09.391183  9960 net.cpp:380] Convolution1 -> Convolution1
I1005 20:14:09.538620  9960 net.cpp:122] Setting up Convolution1
I1005 20:14:09.538645  9960 net.cpp:129] Top shape: 100 16 28 28 (1254400)
I1005 20:14:09.538647  9960 net.cpp:137] Memory required for data: 5958800
I1005 20:14:09.538664  9960 layer_factory.hpp:77] Creating layer BatchNorm1
I1005 20:14:09.538687  9960 net.cpp:84] Creating Layer BatchNorm1
I1005 20:14:09.538692  9960 net.cpp:406] BatchNorm1 <- Convolution1
I1005 20:14:09.538697  9960 net.cpp:367] BatchNorm1 -> Convolution1 (in-place)
I1005 20:14:09.538835  9960 net.cpp:122] Setting up BatchNorm1
I1005 20:14:09.538841  9960 net.cpp:129] Top shape: 100 16 28 28 (1254400)
I1005 20:14:09.538843  9960 net.cpp:137] Memory required for data: 10976400
I1005 20:14:09.538851  9960 layer_factory.hpp:77] Creating layer Scale1
I1005 20:14:09.538861  9960 net.cpp:84] Creating Layer Scale1
I1005 20:14:09.538877  9960 net.cpp:406] Scale1 <- Convolution1
I1005 20:14:09.538879  9960 net.cpp:367] Scale1 -> Convolution1 (in-place)
I1005 20:14:09.538921  9960 layer_factory.hpp:77] Creating layer Scale1
I1005 20:14:09.539026  9960 net.cpp:122] Setting up Scale1
I1005 20:14:09.539032  9960 net.cpp:129] Top shape: 100 16 28 28 (1254400)
I1005 20:14:09.539034  9960 net.cpp:137] Memory required for data: 15994000
I1005 20:14:09.539038  9960 layer_factory.hpp:77] Creating layer PReLU1
I1005 20:14:09.539043  9960 net.cpp:84] Creating Layer PReLU1
I1005 20:14:09.539046  9960 net.cpp:406] PReLU1 <- Convolution1
I1005 20:14:09.539050  9960 net.cpp:367] PReLU1 -> Convolution1 (in-place)
I1005 20:14:09.539638  9960 net.cpp:122] Setting up PReLU1
I1005 20:14:09.539649  9960 net.cpp:129] Top shape: 100 16 28 28 (1254400)
I1005 20:14:09.539651  9960 net.cpp:137] Memory required for data: 21011600
I1005 20:14:09.539655  9960 layer_factory.hpp:77] Creating layer Convolution1_PReLU1_0_split
I1005 20:14:09.539664  9960 net.cpp:84] Creating Layer Convolution1_PReLU1_0_split
I1005 20:14:09.539667  9960 net.cpp:406] Convolution1_PReLU1_0_split <- Convolution1
I1005 20:14:09.539685  9960 net.cpp:380] Convolution1_PReLU1_0_split -> Convolution1_PReLU1_0_split_0
I1005 20:14:09.539692  9960 net.cpp:380] Convolution1_PReLU1_0_split -> Convolution1_PReLU1_0_split_1
I1005 20:14:09.539727  9960 net.cpp:122] Setting up Convolution1_PReLU1_0_split
I1005 20:14:09.539732  9960 net.cpp:129] Top shape: 100 16 28 28 (1254400)
I1005 20:14:09.539736  9960 net.cpp:129] Top shape: 100 16 28 28 (1254400)
I1005 20:14:09.539738  9960 net.cpp:137] Memory required for data: 31046800
I1005 20:14:09.539741  9960 layer_factory.hpp:77] Creating layer Convolution2
I1005 20:14:09.539748  9960 net.cpp:84] Creating Layer Convolution2
I1005 20:14:09.539752  9960 net.cpp:406] Convolution2 <- Convolution1_PReLU1_0_split_0
I1005 20:14:09.539765  9960 net.cpp:380] Convolution2 -> Convolution2
I1005 20:14:09.540608  9960 net.cpp:122] Setting up Convolution2
I1005 20:14:09.540618  9960 net.cpp:129] Top shape: 100 16 28 28 (1254400)
I1005 20:14:09.540622  9960 net.cpp:137] Memory required for data: 36064400
I1005 20:14:09.540628  9960 layer_factory.hpp:77] Creating layer BatchNorm2
I1005 20:14:09.540637  9960 net.cpp:84] Creating Layer BatchNorm2
I1005 20:14:09.540642  9960 net.cpp:406] BatchNorm2 <- Convolution2
I1005 20:14:09.540649  9960 net.cpp:367] BatchNorm2 -> Convolution2 (in-place)
I1005 20:14:09.540769  9960 net.cpp:122] Setting up BatchNorm2
I1005 20:14:09.540776  9960 net.cpp:129] Top shape: 100 16 28 28 (1254400)
I1005 20:14:09.540782  9960 net.cpp:137] Memory required for data: 41082000
I1005 20:14:09.540791  9960 layer_factory.hpp:77] Creating layer Scale2
I1005 20:14:09.540798  9960 net.cpp:84] Creating Layer Scale2
I1005 20:14:09.540802  9960 net.cpp:406] Scale2 <- Convolution2
I1005 20:14:09.540809  9960 net.cpp:367] Scale2 -> Convolution2 (in-place)
I1005 20:14:09.540838  9960 layer_factory.hpp:77] Creating layer Scale2
I1005 20:14:09.540910  9960 net.cpp:122] Setting up Scale2
I1005 20:14:09.540916  9960 net.cpp:129] Top shape: 100 16 28 28 (1254400)
I1005 20:14:09.540920  9960 net.cpp:137] Memory required for data: 46099600
I1005 20:14:09.540928  9960 layer_factory.hpp:77] Creating layer PReLU2
I1005 20:14:09.540935  9960 net.cpp:84] Creating Layer PReLU2
I1005 20:14:09.540938  9960 net.cpp:406] PReLU2 <- Convolution2
I1005 20:14:09.540944  9960 net.cpp:367] PReLU2 -> Convolution2 (in-place)
I1005 20:14:09.541002  9960 net.cpp:122] Setting up PReLU2
I1005 20:14:09.541007  9960 net.cpp:129] Top shape: 100 16 28 28 (1254400)
I1005 20:14:09.541013  9960 net.cpp:137] Memory required for data: 51117200
I1005 20:14:09.541018  9960 layer_factory.hpp:77] Creating layer Convolution3
I1005 20:14:09.541028  9960 net.cpp:84] Creating Layer Convolution3
I1005 20:14:09.541031  9960 net.cpp:406] Convolution3 <- Convolution2
I1005 20:14:09.541038  9960 net.cpp:380] Convolution3 -> Convolution3
I1005 20:14:09.541869  9960 net.cpp:122] Setting up Convolution3
I1005 20:14:09.541880  9960 net.cpp:129] Top shape: 100 16 28 28 (1254400)
I1005 20:14:09.541887  9960 net.cpp:137] Memory required for data: 56134800
I1005 20:14:09.541896  9960 layer_factory.hpp:77] Creating layer BatchNorm3
I1005 20:14:09.541903  9960 net.cpp:84] Creating Layer BatchNorm3
I1005 20:14:09.541908  9960 net.cpp:406] BatchNorm3 <- Convolution3
I1005 20:14:09.541914  9960 net.cpp:367] BatchNorm3 -> Convolution3 (in-place)
I1005 20:14:09.542032  9960 net.cpp:122] Setting up BatchNorm3
I1005 20:14:09.542038  9960 net.cpp:129] Top shape: 100 16 28 28 (1254400)
I1005 20:14:09.542042  9960 net.cpp:137] Memory required for data: 61152400
I1005 20:14:09.542058  9960 layer_factory.hpp:77] Creating layer Scale3
I1005 20:14:09.542065  9960 net.cpp:84] Creating Layer Scale3
I1005 20:14:09.542069  9960 net.cpp:406] Scale3 <- Convolution3
I1005 20:14:09.542075  9960 net.cpp:367] Scale3 -> Convolution3 (in-place)
I1005 20:14:09.542102  9960 layer_factory.hpp:77] Creating layer Scale3
I1005 20:14:09.542174  9960 net.cpp:122] Setting up Scale3
I1005 20:14:09.542181  9960 net.cpp:129] Top shape: 100 16 28 28 (1254400)
I1005 20:14:09.542184  9960 net.cpp:137] Memory required for data: 66170000
I1005 20:14:09.542191  9960 layer_factory.hpp:77] Creating layer Eltwise1
I1005 20:14:09.542198  9960 net.cpp:84] Creating Layer Eltwise1
I1005 20:14:09.542202  9960 net.cpp:406] Eltwise1 <- Convolution1_PReLU1_0_split_1
I1005 20:14:09.542207  9960 net.cpp:406] Eltwise1 <- Convolution3
I1005 20:14:09.542213  9960 net.cpp:380] Eltwise1 -> Eltwise1
I1005 20:14:09.542233  9960 net.cpp:122] Setting up Eltwise1
I1005 20:14:09.542238  9960 net.cpp:129] Top shape: 100 16 28 28 (1254400)
I1005 20:14:09.542243  9960 net.cpp:137] Memory required for data: 71187600
I1005 20:14:09.542248  9960 layer_factory.hpp:77] Creating layer PReLU3
I1005 20:14:09.542253  9960 net.cpp:84] Creating Layer PReLU3
I1005 20:14:09.542258  9960 net.cpp:406] PReLU3 <- Eltwise1
I1005 20:14:09.542263  9960 net.cpp:367] PReLU3 -> Eltwise1 (in-place)
I1005 20:14:09.542320  9960 net.cpp:122] Setting up PReLU3
I1005 20:14:09.542325  9960 net.cpp:129] Top shape: 100 16 28 28 (1254400)
I1005 20:14:09.542330  9960 net.cpp:137] Memory required for data: 76205200
I1005 20:14:09.542335  9960 layer_factory.hpp:77] Creating layer Eltwise1_PReLU3_0_split
I1005 20:14:09.542341  9960 net.cpp:84] Creating Layer Eltwise1_PReLU3_0_split
I1005 20:14:09.542346  9960 net.cpp:406] Eltwise1_PReLU3_0_split <- Eltwise1
I1005 20:14:09.542351  9960 net.cpp:380] Eltwise1_PReLU3_0_split -> Eltwise1_PReLU3_0_split_0
I1005 20:14:09.542358  9960 net.cpp:380] Eltwise1_PReLU3_0_split -> Eltwise1_PReLU3_0_split_1
I1005 20:14:09.542382  9960 net.cpp:122] Setting up Eltwise1_PReLU3_0_split
I1005 20:14:09.542387  9960 net.cpp:129] Top shape: 100 16 28 28 (1254400)
I1005 20:14:09.542392  9960 net.cpp:129] Top shape: 100 16 28 28 (1254400)
I1005 20:14:09.542397  9960 net.cpp:137] Memory required for data: 86240400
I1005 20:14:09.542400  9960 layer_factory.hpp:77] Creating layer Convolution4
I1005 20:14:09.542410  9960 net.cpp:84] Creating Layer Convolution4
I1005 20:14:09.542414  9960 net.cpp:406] Convolution4 <- Eltwise1_PReLU3_0_split_0
I1005 20:14:09.542421  9960 net.cpp:380] Convolution4 -> Convolution4
I1005 20:14:09.543252  9960 net.cpp:122] Setting up Convolution4
I1005 20:14:09.543262  9960 net.cpp:129] Top shape: 100 16 28 28 (1254400)
I1005 20:14:09.543268  9960 net.cpp:137] Memory required for data: 91258000
I1005 20:14:09.543277  9960 layer_factory.hpp:77] Creating layer BatchNorm4
I1005 20:14:09.543282  9960 net.cpp:84] Creating Layer BatchNorm4
I1005 20:14:09.543287  9960 net.cpp:406] BatchNorm4 <- Convolution4
I1005 20:14:09.543293  9960 net.cpp:367] BatchNorm4 -> Convolution4 (in-place)
I1005 20:14:09.543411  9960 net.cpp:122] Setting up BatchNorm4
I1005 20:14:09.543416  9960 net.cpp:129] Top shape: 100 16 28 28 (1254400)
I1005 20:14:09.543421  9960 net.cpp:137] Memory required for data: 96275600
I1005 20:14:09.543429  9960 layer_factory.hpp:77] Creating layer Scale4
I1005 20:14:09.543434  9960 net.cpp:84] Creating Layer Scale4
I1005 20:14:09.543438  9960 net.cpp:406] Scale4 <- Convolution4
I1005 20:14:09.543444  9960 net.cpp:367] Scale4 -> Convolution4 (in-place)
I1005 20:14:09.543471  9960 layer_factory.hpp:77] Creating layer Scale4
I1005 20:14:09.543541  9960 net.cpp:122] Setting up Scale4
I1005 20:14:09.543547  9960 net.cpp:129] Top shape: 100 16 28 28 (1254400)
I1005 20:14:09.543551  9960 net.cpp:137] Memory required for data: 101293200
I1005 20:14:09.543558  9960 layer_factory.hpp:77] Creating layer PReLU4
I1005 20:14:09.543565  9960 net.cpp:84] Creating Layer PReLU4
I1005 20:14:09.543568  9960 net.cpp:406] PReLU4 <- Convolution4
I1005 20:14:09.543581  9960 net.cpp:367] PReLU4 -> Convolution4 (in-place)
I1005 20:14:09.543638  9960 net.cpp:122] Setting up PReLU4
I1005 20:14:09.543644  9960 net.cpp:129] Top shape: 100 16 28 28 (1254400)
I1005 20:14:09.543648  9960 net.cpp:137] Memory required for data: 106310800
I1005 20:14:09.543654  9960 layer_factory.hpp:77] Creating layer Convolution5
I1005 20:14:09.543663  9960 net.cpp:84] Creating Layer Convolution5
I1005 20:14:09.543668  9960 net.cpp:406] Convolution5 <- Convolution4
I1005 20:14:09.543674  9960 net.cpp:380] Convolution5 -> Convolution5
I1005 20:14:09.544498  9960 net.cpp:122] Setting up Convolution5
I1005 20:14:09.544509  9960 net.cpp:129] Top shape: 100 16 28 28 (1254400)
I1005 20:14:09.544514  9960 net.cpp:137] Memory required for data: 111328400
I1005 20:14:09.544524  9960 layer_factory.hpp:77] Creating layer BatchNorm5
I1005 20:14:09.544531  9960 net.cpp:84] Creating Layer BatchNorm5
I1005 20:14:09.544536  9960 net.cpp:406] BatchNorm5 <- Convolution5
I1005 20:14:09.544543  9960 net.cpp:367] BatchNorm5 -> Convolution5 (in-place)
I1005 20:14:09.544661  9960 net.cpp:122] Setting up BatchNorm5
I1005 20:14:09.544667  9960 net.cpp:129] Top shape: 100 16 28 28 (1254400)
I1005 20:14:09.544670  9960 net.cpp:137] Memory required for data: 116346000
I1005 20:14:09.544679  9960 layer_factory.hpp:77] Creating layer Scale5
I1005 20:14:09.544684  9960 net.cpp:84] Creating Layer Scale5
I1005 20:14:09.544689  9960 net.cpp:406] Scale5 <- Convolution5
I1005 20:14:09.544694  9960 net.cpp:367] Scale5 -> Convolution5 (in-place)
I1005 20:14:09.544721  9960 layer_factory.hpp:77] Creating layer Scale5
I1005 20:14:09.544793  9960 net.cpp:122] Setting up Scale5
I1005 20:14:09.544800  9960 net.cpp:129] Top shape: 100 16 28 28 (1254400)
I1005 20:14:09.544803  9960 net.cpp:137] Memory required for data: 121363600
I1005 20:14:09.544811  9960 layer_factory.hpp:77] Creating layer Eltwise2
I1005 20:14:09.544816  9960 net.cpp:84] Creating Layer Eltwise2
I1005 20:14:09.544821  9960 net.cpp:406] Eltwise2 <- Eltwise1_PReLU3_0_split_1
I1005 20:14:09.544826  9960 net.cpp:406] Eltwise2 <- Convolution5
I1005 20:14:09.544831  9960 net.cpp:380] Eltwise2 -> Eltwise2
I1005 20:14:09.544849  9960 net.cpp:122] Setting up Eltwise2
I1005 20:14:09.544854  9960 net.cpp:129] Top shape: 100 16 28 28 (1254400)
I1005 20:14:09.544858  9960 net.cpp:137] Memory required for data: 126381200
I1005 20:14:09.544863  9960 layer_factory.hpp:77] Creating layer PReLU5
I1005 20:14:09.544869  9960 net.cpp:84] Creating Layer PReLU5
I1005 20:14:09.544883  9960 net.cpp:406] PReLU5 <- Eltwise2
I1005 20:14:09.544888  9960 net.cpp:367] PReLU5 -> Eltwise2 (in-place)
I1005 20:14:09.544950  9960 net.cpp:122] Setting up PReLU5
I1005 20:14:09.544956  9960 net.cpp:129] Top shape: 100 16 28 28 (1254400)
I1005 20:14:09.544960  9960 net.cpp:137] Memory required for data: 131398800
I1005 20:14:09.544966  9960 layer_factory.hpp:77] Creating layer Eltwise2_PReLU5_0_split
I1005 20:14:09.544972  9960 net.cpp:84] Creating Layer Eltwise2_PReLU5_0_split
I1005 20:14:09.544977  9960 net.cpp:406] Eltwise2_PReLU5_0_split <- Eltwise2
I1005 20:14:09.544983  9960 net.cpp:380] Eltwise2_PReLU5_0_split -> Eltwise2_PReLU5_0_split_0
I1005 20:14:09.544991  9960 net.cpp:380] Eltwise2_PReLU5_0_split -> Eltwise2_PReLU5_0_split_1
I1005 20:14:09.545014  9960 net.cpp:122] Setting up Eltwise2_PReLU5_0_split
I1005 20:14:09.545019  9960 net.cpp:129] Top shape: 100 16 28 28 (1254400)
I1005 20:14:09.545025  9960 net.cpp:129] Top shape: 100 16 28 28 (1254400)
I1005 20:14:09.545029  9960 net.cpp:137] Memory required for data: 141434000
I1005 20:14:09.545033  9960 layer_factory.hpp:77] Creating layer Convolution6
I1005 20:14:09.545043  9960 net.cpp:84] Creating Layer Convolution6
I1005 20:14:09.545047  9960 net.cpp:406] Convolution6 <- Eltwise2_PReLU5_0_split_0
I1005 20:14:09.545054  9960 net.cpp:380] Convolution6 -> Convolution6
I1005 20:14:09.545903  9960 net.cpp:122] Setting up Convolution6
I1005 20:14:09.545914  9960 net.cpp:129] Top shape: 100 16 28 28 (1254400)
I1005 20:14:09.545919  9960 net.cpp:137] Memory required for data: 146451600
I1005 20:14:09.545933  9960 layer_factory.hpp:77] Creating layer BatchNorm6
I1005 20:14:09.545941  9960 net.cpp:84] Creating Layer BatchNorm6
I1005 20:14:09.545945  9960 net.cpp:406] BatchNorm6 <- Convolution6
I1005 20:14:09.545951  9960 net.cpp:367] BatchNorm6 -> Convolution6 (in-place)
I1005 20:14:09.546075  9960 net.cpp:122] Setting up BatchNorm6
I1005 20:14:09.546082  9960 net.cpp:129] Top shape: 100 16 28 28 (1254400)
I1005 20:14:09.546087  9960 net.cpp:137] Memory required for data: 151469200
I1005 20:14:09.546095  9960 layer_factory.hpp:77] Creating layer Scale6
I1005 20:14:09.546102  9960 net.cpp:84] Creating Layer Scale6
I1005 20:14:09.546105  9960 net.cpp:406] Scale6 <- Convolution6
I1005 20:14:09.546111  9960 net.cpp:367] Scale6 -> Convolution6 (in-place)
I1005 20:14:09.546140  9960 layer_factory.hpp:77] Creating layer Scale6
I1005 20:14:09.546214  9960 net.cpp:122] Setting up Scale6
I1005 20:14:09.546221  9960 net.cpp:129] Top shape: 100 16 28 28 (1254400)
I1005 20:14:09.546224  9960 net.cpp:137] Memory required for data: 156486800
I1005 20:14:09.546232  9960 layer_factory.hpp:77] Creating layer PReLU6
I1005 20:14:09.546237  9960 net.cpp:84] Creating Layer PReLU6
I1005 20:14:09.546241  9960 net.cpp:406] PReLU6 <- Convolution6
I1005 20:14:09.546247  9960 net.cpp:367] PReLU6 -> Convolution6 (in-place)
I1005 20:14:09.546308  9960 net.cpp:122] Setting up PReLU6
I1005 20:14:09.546314  9960 net.cpp:129] Top shape: 100 16 28 28 (1254400)
I1005 20:14:09.546317  9960 net.cpp:137] Memory required for data: 161504400
I1005 20:14:09.546324  9960 layer_factory.hpp:77] Creating layer Convolution7
I1005 20:14:09.546334  9960 net.cpp:84] Creating Layer Convolution7
I1005 20:14:09.546337  9960 net.cpp:406] Convolution7 <- Convolution6
I1005 20:14:09.546345  9960 net.cpp:380] Convolution7 -> Convolution7
I1005 20:14:09.546893  9960 net.cpp:122] Setting up Convolution7
I1005 20:14:09.546905  9960 net.cpp:129] Top shape: 100 16 28 28 (1254400)
I1005 20:14:09.546910  9960 net.cpp:137] Memory required for data: 166522000
I1005 20:14:09.546916  9960 layer_factory.hpp:77] Creating layer BatchNorm7
I1005 20:14:09.546923  9960 net.cpp:84] Creating Layer BatchNorm7
I1005 20:14:09.546927  9960 net.cpp:406] BatchNorm7 <- Convolution7
I1005 20:14:09.546934  9960 net.cpp:367] BatchNorm7 -> Convolution7 (in-place)
I1005 20:14:09.547062  9960 net.cpp:122] Setting up BatchNorm7
I1005 20:14:09.547068  9960 net.cpp:129] Top shape: 100 16 28 28 (1254400)
I1005 20:14:09.547073  9960 net.cpp:137] Memory required for data: 171539600
I1005 20:14:09.547081  9960 layer_factory.hpp:77] Creating layer Scale7
I1005 20:14:09.547088  9960 net.cpp:84] Creating Layer Scale7
I1005 20:14:09.547092  9960 net.cpp:406] Scale7 <- Convolution7
I1005 20:14:09.547099  9960 net.cpp:367] Scale7 -> Convolution7 (in-place)
I1005 20:14:09.547127  9960 layer_factory.hpp:77] Creating layer Scale7
I1005 20:14:09.547204  9960 net.cpp:122] Setting up Scale7
I1005 20:14:09.547209  9960 net.cpp:129] Top shape: 100 16 28 28 (1254400)
I1005 20:14:09.547214  9960 net.cpp:137] Memory required for data: 176557200
I1005 20:14:09.547221  9960 layer_factory.hpp:77] Creating layer Eltwise3
I1005 20:14:09.547226  9960 net.cpp:84] Creating Layer Eltwise3
I1005 20:14:09.547230  9960 net.cpp:406] Eltwise3 <- Eltwise2_PReLU5_0_split_1
I1005 20:14:09.547236  9960 net.cpp:406] Eltwise3 <- Convolution7
I1005 20:14:09.547242  9960 net.cpp:380] Eltwise3 -> Eltwise3
I1005 20:14:09.547262  9960 net.cpp:122] Setting up Eltwise3
I1005 20:14:09.547268  9960 net.cpp:129] Top shape: 100 16 28 28 (1254400)
I1005 20:14:09.547272  9960 net.cpp:137] Memory required for data: 181574800
I1005 20:14:09.547276  9960 layer_factory.hpp:77] Creating layer PReLU7
I1005 20:14:09.547282  9960 net.cpp:84] Creating Layer PReLU7
I1005 20:14:09.547286  9960 net.cpp:406] PReLU7 <- Eltwise3
I1005 20:14:09.547291  9960 net.cpp:367] PReLU7 -> Eltwise3 (in-place)
I1005 20:14:09.547351  9960 net.cpp:122] Setting up PReLU7
I1005 20:14:09.547358  9960 net.cpp:129] Top shape: 100 16 28 28 (1254400)
I1005 20:14:09.547369  9960 net.cpp:137] Memory required for data: 186592400
I1005 20:14:09.547375  9960 layer_factory.hpp:77] Creating layer Eltwise3_PReLU7_0_split
I1005 20:14:09.547382  9960 net.cpp:84] Creating Layer Eltwise3_PReLU7_0_split
I1005 20:14:09.547386  9960 net.cpp:406] Eltwise3_PReLU7_0_split <- Eltwise3
I1005 20:14:09.547391  9960 net.cpp:380] Eltwise3_PReLU7_0_split -> Eltwise3_PReLU7_0_split_0
I1005 20:14:09.547399  9960 net.cpp:380] Eltwise3_PReLU7_0_split -> Eltwise3_PReLU7_0_split_1
I1005 20:14:09.547425  9960 net.cpp:122] Setting up Eltwise3_PReLU7_0_split
I1005 20:14:09.547430  9960 net.cpp:129] Top shape: 100 16 28 28 (1254400)
I1005 20:14:09.547435  9960 net.cpp:129] Top shape: 100 16 28 28 (1254400)
I1005 20:14:09.547439  9960 net.cpp:137] Memory required for data: 196627600
I1005 20:14:09.547443  9960 layer_factory.hpp:77] Creating layer Convolution8
I1005 20:14:09.547453  9960 net.cpp:84] Creating Layer Convolution8
I1005 20:14:09.547456  9960 net.cpp:406] Convolution8 <- Eltwise3_PReLU7_0_split_0
I1005 20:14:09.547464  9960 net.cpp:380] Convolution8 -> Convolution8
I1005 20:14:09.548601  9960 net.cpp:122] Setting up Convolution8
I1005 20:14:09.548614  9960 net.cpp:129] Top shape: 100 32 14 14 (627200)
I1005 20:14:09.548619  9960 net.cpp:137] Memory required for data: 199136400
I1005 20:14:09.548626  9960 layer_factory.hpp:77] Creating layer BatchNorm8
I1005 20:14:09.548632  9960 net.cpp:84] Creating Layer BatchNorm8
I1005 20:14:09.548636  9960 net.cpp:406] BatchNorm8 <- Convolution8
I1005 20:14:09.548645  9960 net.cpp:367] BatchNorm8 -> Convolution8 (in-place)
I1005 20:14:09.548779  9960 net.cpp:122] Setting up BatchNorm8
I1005 20:14:09.548786  9960 net.cpp:129] Top shape: 100 32 14 14 (627200)
I1005 20:14:09.548790  9960 net.cpp:137] Memory required for data: 201645200
I1005 20:14:09.548799  9960 layer_factory.hpp:77] Creating layer Scale8
I1005 20:14:09.548805  9960 net.cpp:84] Creating Layer Scale8
I1005 20:14:09.548810  9960 net.cpp:406] Scale8 <- Convolution8
I1005 20:14:09.548815  9960 net.cpp:367] Scale8 -> Convolution8 (in-place)
I1005 20:14:09.548843  9960 layer_factory.hpp:77] Creating layer Scale8
I1005 20:14:09.548919  9960 net.cpp:122] Setting up Scale8
I1005 20:14:09.548925  9960 net.cpp:129] Top shape: 100 32 14 14 (627200)
I1005 20:14:09.548929  9960 net.cpp:137] Memory required for data: 204154000
I1005 20:14:09.548936  9960 layer_factory.hpp:77] Creating layer Convolution9
I1005 20:14:09.548945  9960 net.cpp:84] Creating Layer Convolution9
I1005 20:14:09.548949  9960 net.cpp:406] Convolution9 <- Eltwise3_PReLU7_0_split_1
I1005 20:14:09.548957  9960 net.cpp:380] Convolution9 -> Convolution9
I1005 20:14:09.550289  9960 net.cpp:122] Setting up Convolution9
I1005 20:14:09.550299  9960 net.cpp:129] Top shape: 100 32 14 14 (627200)
I1005 20:14:09.550303  9960 net.cpp:137] Memory required for data: 206662800
I1005 20:14:09.550319  9960 layer_factory.hpp:77] Creating layer BatchNorm9
I1005 20:14:09.550328  9960 net.cpp:84] Creating Layer BatchNorm9
I1005 20:14:09.550341  9960 net.cpp:406] BatchNorm9 <- Convolution9
I1005 20:14:09.550348  9960 net.cpp:367] BatchNorm9 -> Convolution9 (in-place)
I1005 20:14:09.550518  9960 net.cpp:122] Setting up BatchNorm9
I1005 20:14:09.550529  9960 net.cpp:129] Top shape: 100 32 14 14 (627200)
I1005 20:14:09.550531  9960 net.cpp:137] Memory required for data: 209171600
I1005 20:14:09.550539  9960 layer_factory.hpp:77] Creating layer Scale9
I1005 20:14:09.550545  9960 net.cpp:84] Creating Layer Scale9
I1005 20:14:09.550547  9960 net.cpp:406] Scale9 <- Convolution9
I1005 20:14:09.550551  9960 net.cpp:367] Scale9 -> Convolution9 (in-place)
I1005 20:14:09.550590  9960 layer_factory.hpp:77] Creating layer Scale9
I1005 20:14:09.550683  9960 net.cpp:122] Setting up Scale9
I1005 20:14:09.550688  9960 net.cpp:129] Top shape: 100 32 14 14 (627200)
I1005 20:14:09.550700  9960 net.cpp:137] Memory required for data: 211680400
I1005 20:14:09.550704  9960 layer_factory.hpp:77] Creating layer PReLU8
I1005 20:14:09.550709  9960 net.cpp:84] Creating Layer PReLU8
I1005 20:14:09.550721  9960 net.cpp:406] PReLU8 <- Convolution9
I1005 20:14:09.550729  9960 net.cpp:367] PReLU8 -> Convolution9 (in-place)
I1005 20:14:09.550788  9960 net.cpp:122] Setting up PReLU8
I1005 20:14:09.550794  9960 net.cpp:129] Top shape: 100 32 14 14 (627200)
I1005 20:14:09.550799  9960 net.cpp:137] Memory required for data: 214189200
I1005 20:14:09.550802  9960 layer_factory.hpp:77] Creating layer Convolution10
I1005 20:14:09.550810  9960 net.cpp:84] Creating Layer Convolution10
I1005 20:14:09.550814  9960 net.cpp:406] Convolution10 <- Convolution9
I1005 20:14:09.550818  9960 net.cpp:380] Convolution10 -> Convolution10
I1005 20:14:09.552059  9960 net.cpp:122] Setting up Convolution10
I1005 20:14:09.552069  9960 net.cpp:129] Top shape: 100 32 14 14 (627200)
I1005 20:14:09.552072  9960 net.cpp:137] Memory required for data: 216698000
I1005 20:14:09.552078  9960 layer_factory.hpp:77] Creating layer BatchNorm10
I1005 20:14:09.552086  9960 net.cpp:84] Creating Layer BatchNorm10
I1005 20:14:09.552090  9960 net.cpp:406] BatchNorm10 <- Convolution10
I1005 20:14:09.552095  9960 net.cpp:367] BatchNorm10 -> Convolution10 (in-place)
I1005 20:14:09.552243  9960 net.cpp:122] Setting up BatchNorm10
I1005 20:14:09.552251  9960 net.cpp:129] Top shape: 100 32 14 14 (627200)
I1005 20:14:09.552254  9960 net.cpp:137] Memory required for data: 219206800
I1005 20:14:09.552273  9960 layer_factory.hpp:77] Creating layer Scale10
I1005 20:14:09.552278  9960 net.cpp:84] Creating Layer Scale10
I1005 20:14:09.552284  9960 net.cpp:406] Scale10 <- Convolution10
I1005 20:14:09.552289  9960 net.cpp:367] Scale10 -> Convolution10 (in-place)
I1005 20:14:09.552328  9960 layer_factory.hpp:77] Creating layer Scale10
I1005 20:14:09.552402  9960 net.cpp:122] Setting up Scale10
I1005 20:14:09.552408  9960 net.cpp:129] Top shape: 100 32 14 14 (627200)
I1005 20:14:09.552412  9960 net.cpp:137] Memory required for data: 221715600
I1005 20:14:09.552419  9960 layer_factory.hpp:77] Creating layer Eltwise4
I1005 20:14:09.552426  9960 net.cpp:84] Creating Layer Eltwise4
I1005 20:14:09.552430  9960 net.cpp:406] Eltwise4 <- Convolution8
I1005 20:14:09.552435  9960 net.cpp:406] Eltwise4 <- Convolution10
I1005 20:14:09.552440  9960 net.cpp:380] Eltwise4 -> Eltwise4
I1005 20:14:09.552459  9960 net.cpp:122] Setting up Eltwise4
I1005 20:14:09.552464  9960 net.cpp:129] Top shape: 100 32 14 14 (627200)
I1005 20:14:09.552467  9960 net.cpp:137] Memory required for data: 224224400
I1005 20:14:09.552471  9960 layer_factory.hpp:77] Creating layer PReLU9
I1005 20:14:09.552479  9960 net.cpp:84] Creating Layer PReLU9
I1005 20:14:09.552482  9960 net.cpp:406] PReLU9 <- Eltwise4
I1005 20:14:09.552486  9960 net.cpp:367] PReLU9 -> Eltwise4 (in-place)
I1005 20:14:09.552543  9960 net.cpp:122] Setting up PReLU9
I1005 20:14:09.552549  9960 net.cpp:129] Top shape: 100 32 14 14 (627200)
I1005 20:14:09.552553  9960 net.cpp:137] Memory required for data: 226733200
I1005 20:14:09.552559  9960 layer_factory.hpp:77] Creating layer Eltwise4_PReLU9_0_split
I1005 20:14:09.552565  9960 net.cpp:84] Creating Layer Eltwise4_PReLU9_0_split
I1005 20:14:09.552569  9960 net.cpp:406] Eltwise4_PReLU9_0_split <- Eltwise4
I1005 20:14:09.552574  9960 net.cpp:380] Eltwise4_PReLU9_0_split -> Eltwise4_PReLU9_0_split_0
I1005 20:14:09.552579  9960 net.cpp:380] Eltwise4_PReLU9_0_split -> Eltwise4_PReLU9_0_split_1
I1005 20:14:09.552605  9960 net.cpp:122] Setting up Eltwise4_PReLU9_0_split
I1005 20:14:09.552610  9960 net.cpp:129] Top shape: 100 32 14 14 (627200)
I1005 20:14:09.552615  9960 net.cpp:129] Top shape: 100 32 14 14 (627200)
I1005 20:14:09.552619  9960 net.cpp:137] Memory required for data: 231750800
I1005 20:14:09.552623  9960 layer_factory.hpp:77] Creating layer Convolution11
I1005 20:14:09.552634  9960 net.cpp:84] Creating Layer Convolution11
I1005 20:14:09.552636  9960 net.cpp:406] Convolution11 <- Eltwise4_PReLU9_0_split_0
I1005 20:14:09.552645  9960 net.cpp:380] Convolution11 -> Convolution11
I1005 20:14:09.553650  9960 net.cpp:122] Setting up Convolution11
I1005 20:14:09.553660  9960 net.cpp:129] Top shape: 100 32 14 14 (627200)
I1005 20:14:09.553673  9960 net.cpp:137] Memory required for data: 234259600
I1005 20:14:09.553680  9960 layer_factory.hpp:77] Creating layer BatchNorm11
I1005 20:14:09.553689  9960 net.cpp:84] Creating Layer BatchNorm11
I1005 20:14:09.553691  9960 net.cpp:406] BatchNorm11 <- Convolution11
I1005 20:14:09.553697  9960 net.cpp:367] BatchNorm11 -> Convolution11 (in-place)
I1005 20:14:09.553823  9960 net.cpp:122] Setting up BatchNorm11
I1005 20:14:09.553829  9960 net.cpp:129] Top shape: 100 32 14 14 (627200)
I1005 20:14:09.553833  9960 net.cpp:137] Memory required for data: 236768400
I1005 20:14:09.553841  9960 layer_factory.hpp:77] Creating layer Scale11
I1005 20:14:09.553848  9960 net.cpp:84] Creating Layer Scale11
I1005 20:14:09.553851  9960 net.cpp:406] Scale11 <- Convolution11
I1005 20:14:09.553856  9960 net.cpp:367] Scale11 -> Convolution11 (in-place)
I1005 20:14:09.553885  9960 layer_factory.hpp:77] Creating layer Scale11
I1005 20:14:09.553959  9960 net.cpp:122] Setting up Scale11
I1005 20:14:09.553975  9960 net.cpp:129] Top shape: 100 32 14 14 (627200)
I1005 20:14:09.553980  9960 net.cpp:137] Memory required for data: 239277200
I1005 20:14:09.553987  9960 layer_factory.hpp:77] Creating layer PReLU10
I1005 20:14:09.553993  9960 net.cpp:84] Creating Layer PReLU10
I1005 20:14:09.554006  9960 net.cpp:406] PReLU10 <- Convolution11
I1005 20:14:09.554011  9960 net.cpp:367] PReLU10 -> Convolution11 (in-place)
I1005 20:14:09.554071  9960 net.cpp:122] Setting up PReLU10
I1005 20:14:09.554076  9960 net.cpp:129] Top shape: 100 32 14 14 (627200)
I1005 20:14:09.554081  9960 net.cpp:137] Memory required for data: 241786000
I1005 20:14:09.554086  9960 layer_factory.hpp:77] Creating layer Convolution12
I1005 20:14:09.554095  9960 net.cpp:84] Creating Layer Convolution12
I1005 20:14:09.554098  9960 net.cpp:406] Convolution12 <- Convolution11
I1005 20:14:09.554106  9960 net.cpp:380] Convolution12 -> Convolution12
I1005 20:14:09.555160  9960 net.cpp:122] Setting up Convolution12
I1005 20:14:09.555171  9960 net.cpp:129] Top shape: 100 32 14 14 (627200)
I1005 20:14:09.555176  9960 net.cpp:137] Memory required for data: 244294800
I1005 20:14:09.555184  9960 layer_factory.hpp:77] Creating layer BatchNorm12
I1005 20:14:09.555200  9960 net.cpp:84] Creating Layer BatchNorm12
I1005 20:14:09.555204  9960 net.cpp:406] BatchNorm12 <- Convolution12
I1005 20:14:09.555210  9960 net.cpp:367] BatchNorm12 -> Convolution12 (in-place)
I1005 20:14:09.555335  9960 net.cpp:122] Setting up BatchNorm12
I1005 20:14:09.555341  9960 net.cpp:129] Top shape: 100 32 14 14 (627200)
I1005 20:14:09.555346  9960 net.cpp:137] Memory required for data: 246803600
I1005 20:14:09.555353  9960 layer_factory.hpp:77] Creating layer Scale12
I1005 20:14:09.555359  9960 net.cpp:84] Creating Layer Scale12
I1005 20:14:09.555363  9960 net.cpp:406] Scale12 <- Convolution12
I1005 20:14:09.555368  9960 net.cpp:367] Scale12 -> Convolution12 (in-place)
I1005 20:14:09.555397  9960 layer_factory.hpp:77] Creating layer Scale12
I1005 20:14:09.555471  9960 net.cpp:122] Setting up Scale12
I1005 20:14:09.555477  9960 net.cpp:129] Top shape: 100 32 14 14 (627200)
I1005 20:14:09.555482  9960 net.cpp:137] Memory required for data: 249312400
I1005 20:14:09.555488  9960 layer_factory.hpp:77] Creating layer Eltwise5
I1005 20:14:09.555495  9960 net.cpp:84] Creating Layer Eltwise5
I1005 20:14:09.555500  9960 net.cpp:406] Eltwise5 <- Eltwise4_PReLU9_0_split_1
I1005 20:14:09.555505  9960 net.cpp:406] Eltwise5 <- Convolution12
I1005 20:14:09.555510  9960 net.cpp:380] Eltwise5 -> Eltwise5
I1005 20:14:09.555531  9960 net.cpp:122] Setting up Eltwise5
I1005 20:14:09.555536  9960 net.cpp:129] Top shape: 100 32 14 14 (627200)
I1005 20:14:09.555541  9960 net.cpp:137] Memory required for data: 251821200
I1005 20:14:09.555544  9960 layer_factory.hpp:77] Creating layer PReLU11
I1005 20:14:09.555550  9960 net.cpp:84] Creating Layer PReLU11
I1005 20:14:09.555554  9960 net.cpp:406] PReLU11 <- Eltwise5
I1005 20:14:09.555559  9960 net.cpp:367] PReLU11 -> Eltwise5 (in-place)
I1005 20:14:09.555624  9960 net.cpp:122] Setting up PReLU11
I1005 20:14:09.555631  9960 net.cpp:129] Top shape: 100 32 14 14 (627200)
I1005 20:14:09.555635  9960 net.cpp:137] Memory required for data: 254330000
I1005 20:14:09.555640  9960 layer_factory.hpp:77] Creating layer Eltwise5_PReLU11_0_split
I1005 20:14:09.555647  9960 net.cpp:84] Creating Layer Eltwise5_PReLU11_0_split
I1005 20:14:09.555651  9960 net.cpp:406] Eltwise5_PReLU11_0_split <- Eltwise5
I1005 20:14:09.555656  9960 net.cpp:380] Eltwise5_PReLU11_0_split -> Eltwise5_PReLU11_0_split_0
I1005 20:14:09.555661  9960 net.cpp:380] Eltwise5_PReLU11_0_split -> Eltwise5_PReLU11_0_split_1
I1005 20:14:09.555688  9960 net.cpp:122] Setting up Eltwise5_PReLU11_0_split
I1005 20:14:09.555693  9960 net.cpp:129] Top shape: 100 32 14 14 (627200)
I1005 20:14:09.555698  9960 net.cpp:129] Top shape: 100 32 14 14 (627200)
I1005 20:14:09.555702  9960 net.cpp:137] Memory required for data: 259347600
I1005 20:14:09.555706  9960 layer_factory.hpp:77] Creating layer Convolution13
I1005 20:14:09.555716  9960 net.cpp:84] Creating Layer Convolution13
I1005 20:14:09.555721  9960 net.cpp:406] Convolution13 <- Eltwise5_PReLU11_0_split_0
I1005 20:14:09.555727  9960 net.cpp:380] Convolution13 -> Convolution13
I1005 20:14:09.556759  9960 net.cpp:122] Setting up Convolution13
I1005 20:14:09.556769  9960 net.cpp:129] Top shape: 100 32 14 14 (627200)
I1005 20:14:09.556776  9960 net.cpp:137] Memory required for data: 261856400
I1005 20:14:09.556782  9960 layer_factory.hpp:77] Creating layer BatchNorm13
I1005 20:14:09.556792  9960 net.cpp:84] Creating Layer BatchNorm13
I1005 20:14:09.556795  9960 net.cpp:406] BatchNorm13 <- Convolution13
I1005 20:14:09.556802  9960 net.cpp:367] BatchNorm13 -> Convolution13 (in-place)
I1005 20:14:09.556937  9960 net.cpp:122] Setting up BatchNorm13
I1005 20:14:09.556943  9960 net.cpp:129] Top shape: 100 32 14 14 (627200)
I1005 20:14:09.556948  9960 net.cpp:137] Memory required for data: 264365200
I1005 20:14:09.556957  9960 layer_factory.hpp:77] Creating layer Scale13
I1005 20:14:09.556962  9960 net.cpp:84] Creating Layer Scale13
I1005 20:14:09.556965  9960 net.cpp:406] Scale13 <- Convolution13
I1005 20:14:09.556972  9960 net.cpp:367] Scale13 -> Convolution13 (in-place)
I1005 20:14:09.557000  9960 layer_factory.hpp:77] Creating layer Scale13
I1005 20:14:09.557075  9960 net.cpp:122] Setting up Scale13
I1005 20:14:09.557081  9960 net.cpp:129] Top shape: 100 32 14 14 (627200)
I1005 20:14:09.557086  9960 net.cpp:137] Memory required for data: 266874000
I1005 20:14:09.557092  9960 layer_factory.hpp:77] Creating layer PReLU12
I1005 20:14:09.557097  9960 net.cpp:84] Creating Layer PReLU12
I1005 20:14:09.557101  9960 net.cpp:406] PReLU12 <- Convolution13
I1005 20:14:09.557106  9960 net.cpp:367] PReLU12 -> Convolution13 (in-place)
I1005 20:14:09.557165  9960 net.cpp:122] Setting up PReLU12
I1005 20:14:09.557171  9960 net.cpp:129] Top shape: 100 32 14 14 (627200)
I1005 20:14:09.557175  9960 net.cpp:137] Memory required for data: 269382800
I1005 20:14:09.557180  9960 layer_factory.hpp:77] Creating layer Convolution14
I1005 20:14:09.557189  9960 net.cpp:84] Creating Layer Convolution14
I1005 20:14:09.557193  9960 net.cpp:406] Convolution14 <- Convolution13
I1005 20:14:09.557200  9960 net.cpp:380] Convolution14 -> Convolution14
I1005 20:14:09.558210  9960 net.cpp:122] Setting up Convolution14
I1005 20:14:09.558223  9960 net.cpp:129] Top shape: 100 32 14 14 (627200)
I1005 20:14:09.558226  9960 net.cpp:137] Memory required for data: 271891600
I1005 20:14:09.558234  9960 layer_factory.hpp:77] Creating layer BatchNorm14
I1005 20:14:09.558245  9960 net.cpp:84] Creating Layer BatchNorm14
I1005 20:14:09.558249  9960 net.cpp:406] BatchNorm14 <- Convolution14
I1005 20:14:09.558256  9960 net.cpp:367] BatchNorm14 -> Convolution14 (in-place)
I1005 20:14:09.558385  9960 net.cpp:122] Setting up BatchNorm14
I1005 20:14:09.558392  9960 net.cpp:129] Top shape: 100 32 14 14 (627200)
I1005 20:14:09.558395  9960 net.cpp:137] Memory required for data: 274400400
I1005 20:14:09.558403  9960 layer_factory.hpp:77] Creating layer Scale14
I1005 20:14:09.558418  9960 net.cpp:84] Creating Layer Scale14
I1005 20:14:09.558423  9960 net.cpp:406] Scale14 <- Convolution14
I1005 20:14:09.558429  9960 net.cpp:367] Scale14 -> Convolution14 (in-place)
I1005 20:14:09.558457  9960 layer_factory.hpp:77] Creating layer Scale14
I1005 20:14:09.558550  9960 net.cpp:122] Setting up Scale14
I1005 20:14:09.558568  9960 net.cpp:129] Top shape: 100 32 14 14 (627200)
I1005 20:14:09.558570  9960 net.cpp:137] Memory required for data: 276909200
I1005 20:14:09.558575  9960 layer_factory.hpp:77] Creating layer Eltwise6
I1005 20:14:09.558580  9960 net.cpp:84] Creating Layer Eltwise6
I1005 20:14:09.558583  9960 net.cpp:406] Eltwise6 <- Eltwise5_PReLU11_0_split_1
I1005 20:14:09.558585  9960 net.cpp:406] Eltwise6 <- Convolution14
I1005 20:14:09.558588  9960 net.cpp:380] Eltwise6 -> Eltwise6
I1005 20:14:09.558604  9960 net.cpp:122] Setting up Eltwise6
I1005 20:14:09.558609  9960 net.cpp:129] Top shape: 100 32 14 14 (627200)
I1005 20:14:09.558610  9960 net.cpp:137] Memory required for data: 279418000
I1005 20:14:09.558612  9960 layer_factory.hpp:77] Creating layer PReLU13
I1005 20:14:09.558616  9960 net.cpp:84] Creating Layer PReLU13
I1005 20:14:09.558619  9960 net.cpp:406] PReLU13 <- Eltwise6
I1005 20:14:09.558621  9960 net.cpp:367] PReLU13 -> Eltwise6 (in-place)
I1005 20:14:09.558676  9960 net.cpp:122] Setting up PReLU13
I1005 20:14:09.558681  9960 net.cpp:129] Top shape: 100 32 14 14 (627200)
I1005 20:14:09.558682  9960 net.cpp:137] Memory required for data: 281926800
I1005 20:14:09.558686  9960 layer_factory.hpp:77] Creating layer Eltwise6_PReLU13_0_split
I1005 20:14:09.558688  9960 net.cpp:84] Creating Layer Eltwise6_PReLU13_0_split
I1005 20:14:09.558691  9960 net.cpp:406] Eltwise6_PReLU13_0_split <- Eltwise6
I1005 20:14:09.558693  9960 net.cpp:380] Eltwise6_PReLU13_0_split -> Eltwise6_PReLU13_0_split_0
I1005 20:14:09.558698  9960 net.cpp:380] Eltwise6_PReLU13_0_split -> Eltwise6_PReLU13_0_split_1
I1005 20:14:09.558719  9960 net.cpp:122] Setting up Eltwise6_PReLU13_0_split
I1005 20:14:09.558722  9960 net.cpp:129] Top shape: 100 32 14 14 (627200)
I1005 20:14:09.558725  9960 net.cpp:129] Top shape: 100 32 14 14 (627200)
I1005 20:14:09.558727  9960 net.cpp:137] Memory required for data: 286944400
I1005 20:14:09.558729  9960 layer_factory.hpp:77] Creating layer Convolution15
I1005 20:14:09.558737  9960 net.cpp:84] Creating Layer Convolution15
I1005 20:14:09.558739  9960 net.cpp:406] Convolution15 <- Eltwise6_PReLU13_0_split_0
I1005 20:14:09.558743  9960 net.cpp:380] Convolution15 -> Convolution15
I1005 20:14:09.559615  9960 net.cpp:122] Setting up Convolution15
I1005 20:14:09.559623  9960 net.cpp:129] Top shape: 100 64 7 7 (313600)
I1005 20:14:09.559626  9960 net.cpp:137] Memory required for data: 288198800
I1005 20:14:09.559630  9960 layer_factory.hpp:77] Creating layer BatchNorm15
I1005 20:14:09.559636  9960 net.cpp:84] Creating Layer BatchNorm15
I1005 20:14:09.559638  9960 net.cpp:406] BatchNorm15 <- Convolution15
I1005 20:14:09.559643  9960 net.cpp:367] BatchNorm15 -> Convolution15 (in-place)
I1005 20:14:09.559765  9960 net.cpp:122] Setting up BatchNorm15
I1005 20:14:09.559769  9960 net.cpp:129] Top shape: 100 64 7 7 (313600)
I1005 20:14:09.559772  9960 net.cpp:137] Memory required for data: 289453200
I1005 20:14:09.559777  9960 layer_factory.hpp:77] Creating layer Scale15
I1005 20:14:09.559782  9960 net.cpp:84] Creating Layer Scale15
I1005 20:14:09.559783  9960 net.cpp:406] Scale15 <- Convolution15
I1005 20:14:09.559787  9960 net.cpp:367] Scale15 -> Convolution15 (in-place)
I1005 20:14:09.559811  9960 layer_factory.hpp:77] Creating layer Scale15
I1005 20:14:09.559883  9960 net.cpp:122] Setting up Scale15
I1005 20:14:09.559887  9960 net.cpp:129] Top shape: 100 64 7 7 (313600)
I1005 20:14:09.559890  9960 net.cpp:137] Memory required for data: 290707600
I1005 20:14:09.559893  9960 layer_factory.hpp:77] Creating layer Convolution16
I1005 20:14:09.559900  9960 net.cpp:84] Creating Layer Convolution16
I1005 20:14:09.559902  9960 net.cpp:406] Convolution16 <- Eltwise6_PReLU13_0_split_1
I1005 20:14:09.559913  9960 net.cpp:380] Convolution16 -> Convolution16
I1005 20:14:09.561621  9960 net.cpp:122] Setting up Convolution16
I1005 20:14:09.561630  9960 net.cpp:129] Top shape: 100 64 7 7 (313600)
I1005 20:14:09.561632  9960 net.cpp:137] Memory required for data: 291962000
I1005 20:14:09.561636  9960 layer_factory.hpp:77] Creating layer BatchNorm16
I1005 20:14:09.561642  9960 net.cpp:84] Creating Layer BatchNorm16
I1005 20:14:09.561645  9960 net.cpp:406] BatchNorm16 <- Convolution16
I1005 20:14:09.561650  9960 net.cpp:367] BatchNorm16 -> Convolution16 (in-place)
I1005 20:14:09.561774  9960 net.cpp:122] Setting up BatchNorm16
I1005 20:14:09.561779  9960 net.cpp:129] Top shape: 100 64 7 7 (313600)
I1005 20:14:09.561780  9960 net.cpp:137] Memory required for data: 293216400
I1005 20:14:09.561785  9960 layer_factory.hpp:77] Creating layer Scale16
I1005 20:14:09.561790  9960 net.cpp:84] Creating Layer Scale16
I1005 20:14:09.561792  9960 net.cpp:406] Scale16 <- Convolution16
I1005 20:14:09.561795  9960 net.cpp:367] Scale16 -> Convolution16 (in-place)
I1005 20:14:09.561820  9960 layer_factory.hpp:77] Creating layer Scale16
I1005 20:14:09.561892  9960 net.cpp:122] Setting up Scale16
I1005 20:14:09.561897  9960 net.cpp:129] Top shape: 100 64 7 7 (313600)
I1005 20:14:09.561898  9960 net.cpp:137] Memory required for data: 294470800
I1005 20:14:09.561902  9960 layer_factory.hpp:77] Creating layer PReLU14
I1005 20:14:09.561905  9960 net.cpp:84] Creating Layer PReLU14
I1005 20:14:09.561908  9960 net.cpp:406] PReLU14 <- Convolution16
I1005 20:14:09.561911  9960 net.cpp:367] PReLU14 -> Convolution16 (in-place)
I1005 20:14:09.561965  9960 net.cpp:122] Setting up PReLU14
I1005 20:14:09.561969  9960 net.cpp:129] Top shape: 100 64 7 7 (313600)
I1005 20:14:09.561971  9960 net.cpp:137] Memory required for data: 295725200
I1005 20:14:09.561975  9960 layer_factory.hpp:77] Creating layer Convolution17
I1005 20:14:09.561980  9960 net.cpp:84] Creating Layer Convolution17
I1005 20:14:09.561983  9960 net.cpp:406] Convolution17 <- Convolution16
I1005 20:14:09.561986  9960 net.cpp:380] Convolution17 -> Convolution17
I1005 20:14:09.563621  9960 net.cpp:122] Setting up Convolution17
I1005 20:14:09.563628  9960 net.cpp:129] Top shape: 100 64 7 7 (313600)
I1005 20:14:09.563632  9960 net.cpp:137] Memory required for data: 296979600
I1005 20:14:09.563637  9960 layer_factory.hpp:77] Creating layer BatchNorm17
I1005 20:14:09.563642  9960 net.cpp:84] Creating Layer BatchNorm17
I1005 20:14:09.563644  9960 net.cpp:406] BatchNorm17 <- Convolution17
I1005 20:14:09.563648  9960 net.cpp:367] BatchNorm17 -> Convolution17 (in-place)
I1005 20:14:09.563772  9960 net.cpp:122] Setting up BatchNorm17
I1005 20:14:09.563777  9960 net.cpp:129] Top shape: 100 64 7 7 (313600)
I1005 20:14:09.563779  9960 net.cpp:137] Memory required for data: 298234000
I1005 20:14:09.563793  9960 layer_factory.hpp:77] Creating layer Scale17
I1005 20:14:09.563798  9960 net.cpp:84] Creating Layer Scale17
I1005 20:14:09.563801  9960 net.cpp:406] Scale17 <- Convolution17
I1005 20:14:09.563804  9960 net.cpp:367] Scale17 -> Convolution17 (in-place)
I1005 20:14:09.563830  9960 layer_factory.hpp:77] Creating layer Scale17
I1005 20:14:09.563900  9960 net.cpp:122] Setting up Scale17
I1005 20:14:09.563905  9960 net.cpp:129] Top shape: 100 64 7 7 (313600)
I1005 20:14:09.563907  9960 net.cpp:137] Memory required for data: 299488400
I1005 20:14:09.563911  9960 layer_factory.hpp:77] Creating layer Eltwise7
I1005 20:14:09.563915  9960 net.cpp:84] Creating Layer Eltwise7
I1005 20:14:09.563918  9960 net.cpp:406] Eltwise7 <- Convolution15
I1005 20:14:09.563920  9960 net.cpp:406] Eltwise7 <- Convolution17
I1005 20:14:09.563923  9960 net.cpp:380] Eltwise7 -> Eltwise7
I1005 20:14:09.563940  9960 net.cpp:122] Setting up Eltwise7
I1005 20:14:09.563942  9960 net.cpp:129] Top shape: 100 64 7 7 (313600)
I1005 20:14:09.563944  9960 net.cpp:137] Memory required for data: 300742800
I1005 20:14:09.563946  9960 layer_factory.hpp:77] Creating layer PReLU15
I1005 20:14:09.563951  9960 net.cpp:84] Creating Layer PReLU15
I1005 20:14:09.563958  9960 net.cpp:406] PReLU15 <- Eltwise7
I1005 20:14:09.563962  9960 net.cpp:367] PReLU15 -> Eltwise7 (in-place)
I1005 20:14:09.564020  9960 net.cpp:122] Setting up PReLU15
I1005 20:14:09.564025  9960 net.cpp:129] Top shape: 100 64 7 7 (313600)
I1005 20:14:09.564026  9960 net.cpp:137] Memory required for data: 301997200
I1005 20:14:09.564030  9960 layer_factory.hpp:77] Creating layer Eltwise7_PReLU15_0_split
I1005 20:14:09.564033  9960 net.cpp:84] Creating Layer Eltwise7_PReLU15_0_split
I1005 20:14:09.564036  9960 net.cpp:406] Eltwise7_PReLU15_0_split <- Eltwise7
I1005 20:14:09.564039  9960 net.cpp:380] Eltwise7_PReLU15_0_split -> Eltwise7_PReLU15_0_split_0
I1005 20:14:09.564043  9960 net.cpp:380] Eltwise7_PReLU15_0_split -> Eltwise7_PReLU15_0_split_1
I1005 20:14:09.564064  9960 net.cpp:122] Setting up Eltwise7_PReLU15_0_split
I1005 20:14:09.564069  9960 net.cpp:129] Top shape: 100 64 7 7 (313600)
I1005 20:14:09.564071  9960 net.cpp:129] Top shape: 100 64 7 7 (313600)
I1005 20:14:09.564074  9960 net.cpp:137] Memory required for data: 304506000
I1005 20:14:09.564075  9960 layer_factory.hpp:77] Creating layer Convolution18
I1005 20:14:09.564083  9960 net.cpp:84] Creating Layer Convolution18
I1005 20:14:09.564086  9960 net.cpp:406] Convolution18 <- Eltwise7_PReLU15_0_split_0
I1005 20:14:09.564090  9960 net.cpp:380] Convolution18 -> Convolution18
I1005 20:14:09.565835  9960 net.cpp:122] Setting up Convolution18
I1005 20:14:09.565845  9960 net.cpp:129] Top shape: 100 64 7 7 (313600)
I1005 20:14:09.565847  9960 net.cpp:137] Memory required for data: 305760400
I1005 20:14:09.565861  9960 layer_factory.hpp:77] Creating layer BatchNorm18
I1005 20:14:09.565867  9960 net.cpp:84] Creating Layer BatchNorm18
I1005 20:14:09.565871  9960 net.cpp:406] BatchNorm18 <- Convolution18
I1005 20:14:09.565874  9960 net.cpp:367] BatchNorm18 -> Convolution18 (in-place)
I1005 20:14:09.566026  9960 net.cpp:122] Setting up BatchNorm18
I1005 20:14:09.566031  9960 net.cpp:129] Top shape: 100 64 7 7 (313600)
I1005 20:14:09.566033  9960 net.cpp:137] Memory required for data: 307014800
I1005 20:14:09.566038  9960 layer_factory.hpp:77] Creating layer Scale18
I1005 20:14:09.566042  9960 net.cpp:84] Creating Layer Scale18
I1005 20:14:09.566045  9960 net.cpp:406] Scale18 <- Convolution18
I1005 20:14:09.566048  9960 net.cpp:367] Scale18 -> Convolution18 (in-place)
I1005 20:14:09.566074  9960 layer_factory.hpp:77] Creating layer Scale18
I1005 20:14:09.566151  9960 net.cpp:122] Setting up Scale18
I1005 20:14:09.566155  9960 net.cpp:129] Top shape: 100 64 7 7 (313600)
I1005 20:14:09.566157  9960 net.cpp:137] Memory required for data: 308269200
I1005 20:14:09.566161  9960 layer_factory.hpp:77] Creating layer PReLU16
I1005 20:14:09.566165  9960 net.cpp:84] Creating Layer PReLU16
I1005 20:14:09.566167  9960 net.cpp:406] PReLU16 <- Convolution18
I1005 20:14:09.566171  9960 net.cpp:367] PReLU16 -> Convolution18 (in-place)
I1005 20:14:09.566232  9960 net.cpp:122] Setting up PReLU16
I1005 20:14:09.566236  9960 net.cpp:129] Top shape: 100 64 7 7 (313600)
I1005 20:14:09.566238  9960 net.cpp:137] Memory required for data: 309523600
I1005 20:14:09.566241  9960 layer_factory.hpp:77] Creating layer Convolution19
I1005 20:14:09.566247  9960 net.cpp:84] Creating Layer Convolution19
I1005 20:14:09.566251  9960 net.cpp:406] Convolution19 <- Convolution18
I1005 20:14:09.566256  9960 net.cpp:380] Convolution19 -> Convolution19
I1005 20:14:09.568593  9960 net.cpp:122] Setting up Convolution19
I1005 20:14:09.568614  9960 net.cpp:129] Top shape: 100 64 7 7 (313600)
I1005 20:14:09.568626  9960 net.cpp:137] Memory required for data: 310778000
I1005 20:14:09.568631  9960 layer_factory.hpp:77] Creating layer BatchNorm19
I1005 20:14:09.568650  9960 net.cpp:84] Creating Layer BatchNorm19
I1005 20:14:09.568655  9960 net.cpp:406] BatchNorm19 <- Convolution19
I1005 20:14:09.568660  9960 net.cpp:367] BatchNorm19 -> Convolution19 (in-place)
I1005 20:14:09.568799  9960 net.cpp:122] Setting up BatchNorm19
I1005 20:14:09.568804  9960 net.cpp:129] Top shape: 100 64 7 7 (313600)
I1005 20:14:09.568815  9960 net.cpp:137] Memory required for data: 312032400
I1005 20:14:09.568822  9960 layer_factory.hpp:77] Creating layer Scale19
I1005 20:14:09.568830  9960 net.cpp:84] Creating Layer Scale19
I1005 20:14:09.568835  9960 net.cpp:406] Scale19 <- Convolution19
I1005 20:14:09.568837  9960 net.cpp:367] Scale19 -> Convolution19 (in-place)
I1005 20:14:09.568869  9960 layer_factory.hpp:77] Creating layer Scale19
I1005 20:14:09.568949  9960 net.cpp:122] Setting up Scale19
I1005 20:14:09.568956  9960 net.cpp:129] Top shape: 100 64 7 7 (313600)
I1005 20:14:09.568960  9960 net.cpp:137] Memory required for data: 313286800
I1005 20:14:09.568967  9960 layer_factory.hpp:77] Creating layer Eltwise8
I1005 20:14:09.568974  9960 net.cpp:84] Creating Layer Eltwise8
I1005 20:14:09.568979  9960 net.cpp:406] Eltwise8 <- Eltwise7_PReLU15_0_split_1
I1005 20:14:09.568984  9960 net.cpp:406] Eltwise8 <- Convolution19
I1005 20:14:09.568989  9960 net.cpp:380] Eltwise8 -> Eltwise8
I1005 20:14:09.569008  9960 net.cpp:122] Setting up Eltwise8
I1005 20:14:09.569013  9960 net.cpp:129] Top shape: 100 64 7 7 (313600)
I1005 20:14:09.569018  9960 net.cpp:137] Memory required for data: 314541200
I1005 20:14:09.569021  9960 layer_factory.hpp:77] Creating layer PReLU17
I1005 20:14:09.569028  9960 net.cpp:84] Creating Layer PReLU17
I1005 20:14:09.569032  9960 net.cpp:406] PReLU17 <- Eltwise8
I1005 20:14:09.569036  9960 net.cpp:367] PReLU17 -> Eltwise8 (in-place)
I1005 20:14:09.569108  9960 net.cpp:122] Setting up PReLU17
I1005 20:14:09.569113  9960 net.cpp:129] Top shape: 100 64 7 7 (313600)
I1005 20:14:09.569116  9960 net.cpp:137] Memory required for data: 315795600
I1005 20:14:09.569121  9960 layer_factory.hpp:77] Creating layer Eltwise8_PReLU17_0_split
I1005 20:14:09.569128  9960 net.cpp:84] Creating Layer Eltwise8_PReLU17_0_split
I1005 20:14:09.569131  9960 net.cpp:406] Eltwise8_PReLU17_0_split <- Eltwise8
I1005 20:14:09.569136  9960 net.cpp:380] Eltwise8_PReLU17_0_split -> Eltwise8_PReLU17_0_split_0
I1005 20:14:09.569142  9960 net.cpp:380] Eltwise8_PReLU17_0_split -> Eltwise8_PReLU17_0_split_1
I1005 20:14:09.569167  9960 net.cpp:122] Setting up Eltwise8_PReLU17_0_split
I1005 20:14:09.569173  9960 net.cpp:129] Top shape: 100 64 7 7 (313600)
I1005 20:14:09.569178  9960 net.cpp:129] Top shape: 100 64 7 7 (313600)
I1005 20:14:09.569182  9960 net.cpp:137] Memory required for data: 318304400
I1005 20:14:09.569185  9960 layer_factory.hpp:77] Creating layer Convolution20
I1005 20:14:09.569195  9960 net.cpp:84] Creating Layer Convolution20
I1005 20:14:09.569200  9960 net.cpp:406] Convolution20 <- Eltwise8_PReLU17_0_split_0
I1005 20:14:09.569206  9960 net.cpp:380] Convolution20 -> Convolution20
I1005 20:14:09.570849  9960 net.cpp:122] Setting up Convolution20
I1005 20:14:09.570859  9960 net.cpp:129] Top shape: 100 64 7 7 (313600)
I1005 20:14:09.570864  9960 net.cpp:137] Memory required for data: 319558800
I1005 20:14:09.570873  9960 layer_factory.hpp:77] Creating layer BatchNorm20
I1005 20:14:09.570880  9960 net.cpp:84] Creating Layer BatchNorm20
I1005 20:14:09.570884  9960 net.cpp:406] BatchNorm20 <- Convolution20
I1005 20:14:09.570891  9960 net.cpp:367] BatchNorm20 -> Convolution20 (in-place)
I1005 20:14:09.571022  9960 net.cpp:122] Setting up BatchNorm20
I1005 20:14:09.571027  9960 net.cpp:129] Top shape: 100 64 7 7 (313600)
I1005 20:14:09.571032  9960 net.cpp:137] Memory required for data: 320813200
I1005 20:14:09.571039  9960 layer_factory.hpp:77] Creating layer Scale20
I1005 20:14:09.571046  9960 net.cpp:84] Creating Layer Scale20
I1005 20:14:09.571050  9960 net.cpp:406] Scale20 <- Convolution20
I1005 20:14:09.571055  9960 net.cpp:367] Scale20 -> Convolution20 (in-place)
I1005 20:14:09.571085  9960 layer_factory.hpp:77] Creating layer Scale20
I1005 20:14:09.571164  9960 net.cpp:122] Setting up Scale20
I1005 20:14:09.571171  9960 net.cpp:129] Top shape: 100 64 7 7 (313600)
I1005 20:14:09.571174  9960 net.cpp:137] Memory required for data: 322067600
I1005 20:14:09.571182  9960 layer_factory.hpp:77] Creating layer PReLU18
I1005 20:14:09.571193  9960 net.cpp:84] Creating Layer PReLU18
I1005 20:14:09.571197  9960 net.cpp:406] PReLU18 <- Convolution20
I1005 20:14:09.571203  9960 net.cpp:367] PReLU18 -> Convolution20 (in-place)
I1005 20:14:09.571264  9960 net.cpp:122] Setting up PReLU18
I1005 20:14:09.571269  9960 net.cpp:129] Top shape: 100 64 7 7 (313600)
I1005 20:14:09.571270  9960 net.cpp:137] Memory required for data: 323322000
I1005 20:14:09.571274  9960 layer_factory.hpp:77] Creating layer Convolution21
I1005 20:14:09.571280  9960 net.cpp:84] Creating Layer Convolution21
I1005 20:14:09.571282  9960 net.cpp:406] Convolution21 <- Convolution20
I1005 20:14:09.571286  9960 net.cpp:380] Convolution21 -> Convolution21
I1005 20:14:09.573499  9960 net.cpp:122] Setting up Convolution21
I1005 20:14:09.573508  9960 net.cpp:129] Top shape: 100 64 7 7 (313600)
I1005 20:14:09.573510  9960 net.cpp:137] Memory required for data: 324576400
I1005 20:14:09.573515  9960 layer_factory.hpp:77] Creating layer BatchNorm21
I1005 20:14:09.573520  9960 net.cpp:84] Creating Layer BatchNorm21
I1005 20:14:09.573523  9960 net.cpp:406] BatchNorm21 <- Convolution21
I1005 20:14:09.573526  9960 net.cpp:367] BatchNorm21 -> Convolution21 (in-place)
I1005 20:14:09.573657  9960 net.cpp:122] Setting up BatchNorm21
I1005 20:14:09.573660  9960 net.cpp:129] Top shape: 100 64 7 7 (313600)
I1005 20:14:09.573663  9960 net.cpp:137] Memory required for data: 325830800
I1005 20:14:09.573668  9960 layer_factory.hpp:77] Creating layer Scale21
I1005 20:14:09.573671  9960 net.cpp:84] Creating Layer Scale21
I1005 20:14:09.573674  9960 net.cpp:406] Scale21 <- Convolution21
I1005 20:14:09.573678  9960 net.cpp:367] Scale21 -> Convolution21 (in-place)
I1005 20:14:09.573704  9960 layer_factory.hpp:77] Creating layer Scale21
I1005 20:14:09.573777  9960 net.cpp:122] Setting up Scale21
I1005 20:14:09.573781  9960 net.cpp:129] Top shape: 100 64 7 7 (313600)
I1005 20:14:09.573784  9960 net.cpp:137] Memory required for data: 327085200
I1005 20:14:09.573787  9960 layer_factory.hpp:77] Creating layer Eltwise9
I1005 20:14:09.573792  9960 net.cpp:84] Creating Layer Eltwise9
I1005 20:14:09.573794  9960 net.cpp:406] Eltwise9 <- Eltwise8_PReLU17_0_split_1
I1005 20:14:09.573797  9960 net.cpp:406] Eltwise9 <- Convolution21
I1005 20:14:09.573801  9960 net.cpp:380] Eltwise9 -> Eltwise9
I1005 20:14:09.573817  9960 net.cpp:122] Setting up Eltwise9
I1005 20:14:09.573819  9960 net.cpp:129] Top shape: 100 64 7 7 (313600)
I1005 20:14:09.573822  9960 net.cpp:137] Memory required for data: 328339600
I1005 20:14:09.573823  9960 layer_factory.hpp:77] Creating layer PReLU19
I1005 20:14:09.573827  9960 net.cpp:84] Creating Layer PReLU19
I1005 20:14:09.573829  9960 net.cpp:406] PReLU19 <- Eltwise9
I1005 20:14:09.573832  9960 net.cpp:367] PReLU19 -> Eltwise9 (in-place)
I1005 20:14:09.573889  9960 net.cpp:122] Setting up PReLU19
I1005 20:14:09.573894  9960 net.cpp:129] Top shape: 100 64 7 7 (313600)
I1005 20:14:09.573895  9960 net.cpp:137] Memory required for data: 329594000
I1005 20:14:09.573899  9960 layer_factory.hpp:77] Creating layer Pooling1
I1005 20:14:09.573902  9960 net.cpp:84] Creating Layer Pooling1
I1005 20:14:09.573904  9960 net.cpp:406] Pooling1 <- Eltwise9
I1005 20:14:09.573909  9960 net.cpp:380] Pooling1 -> Pooling1
I1005 20:14:09.574050  9960 net.cpp:122] Setting up Pooling1
I1005 20:14:09.574056  9960 net.cpp:129] Top shape: 100 64 1 1 (6400)
I1005 20:14:09.574059  9960 net.cpp:137] Memory required for data: 329619600
I1005 20:14:09.574061  9960 layer_factory.hpp:77] Creating layer InnerProduct1
I1005 20:14:09.574070  9960 net.cpp:84] Creating Layer InnerProduct1
I1005 20:14:09.574074  9960 net.cpp:406] InnerProduct1 <- Pooling1
I1005 20:14:09.574076  9960 net.cpp:380] InnerProduct1 -> InnerProduct1
I1005 20:14:09.574169  9960 net.cpp:122] Setting up InnerProduct1
I1005 20:14:09.574174  9960 net.cpp:129] Top shape: 100 10 (1000)
I1005 20:14:09.574177  9960 net.cpp:137] Memory required for data: 329623600
I1005 20:14:09.574180  9960 layer_factory.hpp:77] Creating layer SoftmaxWithLoss1
I1005 20:14:09.574184  9960 net.cpp:84] Creating Layer SoftmaxWithLoss1
I1005 20:14:09.574193  9960 net.cpp:406] SoftmaxWithLoss1 <- InnerProduct1
I1005 20:14:09.574196  9960 net.cpp:406] SoftmaxWithLoss1 <- Data2
I1005 20:14:09.574200  9960 net.cpp:380] SoftmaxWithLoss1 -> SoftmaxWithLoss1
…
I1005 20:14:09.576386  9960 net.cpp:294] The NetState phase (1) differed from the phase (0) specified by a rule in layer Data1
I1005 20:14:09.576742  9960 net.cpp:51] Initializing net from parameters: 
name: "resnet_cifar10"
state {
  phase: TEST
}
layer {
  name: "Data1"
  type: "Data"
  top: "Data1"
  top: "Data2"
  include {
    phase: TEST
  }
  transform_param {
    mean_file: "/home/x306/caffe/xn/PENLU/data/cifar10/mean.binaryproto"
  }
  data_param {
    source: "/home/x306/caffe/xn/PENLU/data/cifar10/cifar10_test_lmdb"
    batch_size: 100
    backend: LMDB
  }
}
layer {
  name: "Convolution1"
  type: "Convolution"
  bottom: "Data1"
  top: "Convolution1"
  param {
    lr_mult: 1
    decay_mult: 1
  }
  param {
    lr_mult: 2
    decay_mult: 0
  }
  convolution_param {
    num_output: 16
    pad: 1
    kernel_size: 3
    stride: 1
    weight_filler {
      type: "gaussian"
      std: 0.118
    }
    bias_filler {
      type: "constant"
      value: 0
    }
  }
}
layer {
  name: "BatchNorm1"
  type: "BatchNorm"
  bottom: "Convolution1"
  top: "Convolution1"
  param {
    lr_mult: 0
    decay_mult: 0
  }
  param {
    lr_mult: 0
    decay_mult: 0
  }
  param {
    lr_mult: 0
    decay_mult: 0
  }
}
layer {
  name: "Scale1"
  type: "Scale"
  bottom: "Convolution1"
  top: "Convolution1"
  scale_param {
    bias_term: true
  }
}
layer {
  name: "PReLU1"
  type: "PReLU"
  bottom: "Convolution1"
  top: "Convolution1"
}
layer {
  name: "Convolution2"
  type: "Convolution"
  bottom: "Convolution1"
  top: "Convolution2"
  param {
    lr_mult: 1
    decay_mult: 1
  }
  param {
    lr_mult: 2
    decay_mult: 0
  }
  convolution_param {
    num_output: 16
    pad: 1
    kernel_size: 3
    stride: 1
    weight_filler {
      type: "gaussian"
      std: 0.118
    }
    bias_filler {
      type: "constant"
      value: 0
    }
  }
}
layer {
  name: "BatchNorm2"
  type: "BatchNorm"
  bottom: "Convolution2"
  top: "Convolution2"
  param {
    lr_mult: 0
    decay_mult: 0
  }
  param {
    lr_mult: 0
    decay_mult: 0
  }
  param {
    lr_mult: 0
    decay_mult: 0
  }
}
layer {
  name: "Scale2"
  type: "Scale"
  bottom: "Convolution2"
  top: "Convolution2"
  scale_param {
    bias_term: true
  }
}
layer {
  name: "PReLU2"
  type: "PReLU"
  bottom: "Convolution2"
  top: "Convolution2"
}
layer {
  name: "Convolution3"
  type: "Convolution"
  bottom: "Convolution2"
  top: "Convolution3"
  param {
    lr_mult: 1
    decay_mult: 1
  }
  param {
    lr_mult: 2
    decay_mult: 0
  }
  convolution_param {
    num_output: 16
    pad: 1
    kernel_size: 3
    stride: 1
    weight_filler {
      type: "gaussian"
      std: 0.118
    }
    bias_filler {
      type: "constant"
      value: 0
    }
  }
}
layer {
  name: "BatchNorm3"
  type: "BatchNorm"
  bottom: "Convolution3"
  top: "Convolution3"
  param {
    lr_mult: 0
    decay_mult: 0
  }
  param {
    lr_mult: 0
    decay_mult: 0
  }
  param {
    lr_mult: 0
    decay_mult: 0
  }
}
layer {
  name: "Scale3"
  type: "Scale"
  bottom: "Convolution3"
  top: "Convolution3"
  scale_param {
    bias_term: true
  }
}
layer {
  name: "Eltwise1"
  type: "Eltwise"
  bottom: "Convolution1"
  bottom: "Convolution3"
  top: "Eltwise1"
  eltwise_param {
    operation: SUM
  }
}
layer {
  name: "PReLU3"
  type: "PReLU"
  bottom: "Eltwise1"
  top: "Eltwise1"
}
layer {
  name: "Convolution4"
  type: "Convolution"
  bottom: "Eltwise1"
  top: "Convolution4"
  param {
    lr_mult: 1
    decay_mult: 1
  }
  param {
    lr_mult: 2
    decay_mult: 0
  }
  convolution_param {
    num_output: 16
    pad: 1
    kernel_size: 3
    stride: 1
    weight_filler {
      type: "gaussian"
      std: 0.118
    }
    bias_filler {
      type: "constant"
      value: 0
    }
  }
}
layer {
  name: "BatchNorm4"
  type: "BatchNorm"
  bottom: "Convolution4"
  top: "Convolution4"
  param {
    lr_mult: 0
    decay_mult: 0
  }
  param {
    lr_mult: 0
    decay_mult: 0
  }
  param {
    lr_mult: 0
    decay_mult: 0
  }
}
layer {
  name: "Scale4"
  type: "Scale"
  bottom: "Convolution4"
  top: "Convolution4"
  scale_param {
    bias_term: true
  }
}
layer {
  name: "PReLU4"
  type: "PReLU"
  bottom: "Convolution4"
  top: "Convolution4"
}
layer {
  name: "Convolution5"
  type: "Convolution"
  bottom: "Convolution4"
  top: "Convolution5"
  param {
    lr_mult: 1
    decay_mult: 1
  }
  param {
    lr_mult: 2
    decay_mult: 0
  }
  convolution_param {
    num_output: 16
    pad: 1
    kernel_size: 3
    stride: 1
    weight_filler {
      type: "gaussian"
      std: 0.118
    }
    bias_filler {
      type: "constant"
      value: 0
    }
  }
}
layer {
  name: "BatchNorm5"
  type: "BatchNorm"
  bottom: "Convolution5"
  top: "Convolution5"
  param {
    lr_mult: 0
    decay_mult: 0
  }
  param {
    lr_mult: 0
    decay_mult: 0
  }
  param {
    lr_mult: 0
    decay_mult: 0
  }
}
layer {
  name: "Scale5"
  type: "Scale"
  bottom: "Convolution5"
  top: "Convolution5"
  scale_param {
    bias_term: true
  }
}
layer {
  name: "Eltwise2"
  type: "Eltwise"
  bottom: "Eltwise1"
  bottom: "Convolution5"
  top: "Eltwise2"
  eltwise_param {
    operation: SUM
  }
}
layer {
  name: "PReLU5"
  type: "PReLU"
  bottom: "Eltwise2"
  top: "Eltwise2"
}
layer {
  name: "Convolution6"
  type: "Convolution"
  bottom: "Eltwise2"
  top: "Convolution6"
  param {
    lr_mult: 1
    decay_mult: 1
  }
  param {
    lr_mult: 2
    decay_mult: 0
  }
  convolution_param {
    num_output: 16
    pad: 1
    kernel_size: 3
    stride: 1
    weight_filler {
      type: "gaussian"
      std: 0.118
    }
    bias_filler {
      type: "constant"
      value: 0
    }
  }
}
layer {
  name: "BatchNorm6"
  type: "BatchNorm"
  bottom: "Convolution6"
  top: "Convolution6"
  param {
    lr_mult: 0
    decay_mult: 0
  }
  param {
    lr_mult: 0
    decay_mult: 0
  }
  param {
    lr_mult: 0
    decay_mult: 0
  }
}
layer {
  name: "Scale6"
  type: "Scale"
  bottom: "Convolution6"
  top: "Convolution6"
  scale_param {
    bias_term: true
  }
}
layer {
  name: "PReLU6"
  type: "PReLU"
  bottom: "Convolution6"
  top: "Convolution6"
}
layer {
  name: "Convolution7"
  type: "Convolution"
  bottom: "Convolution6"
  top: "Convolution7"
  param {
    lr_mult: 1
    decay_mult: 1
  }
  param {
    lr_mult: 2
    decay_mult: 0
  }
  convolution_param {
    num_output: 16
    pad: 1
    kernel_size: 3
    stride: 1
    weight_filler {
      type: "gaussian"
      std: 0.118
    }
    bias_filler {
      type: "constant"
      value: 0
    }
  }
}
layer {
  name: "BatchNorm7"
  type: "BatchNorm"
  bottom: "Convolution7"
  top: "Convolution7"
  param {
    lr_mult: 0
    decay_mult: 0
  }
  param {
    lr_mult: 0
    decay_mult: 0
  }
  param {
    lr_mult: 0
    decay_mult: 0
  }
}
layer {
  name: "Scale7"
  type: "Scale"
  bottom: "Convolution7"
  top: "Convolution7"
  scale_param {
    bias_term: true
  }
}
layer {
  name: "Eltwise3"
  type: "Eltwise"
  bottom: "Eltwise2"
  bottom: "Convolution7"
  top: "Eltwise3"
  eltwise_param {
    operation: SUM
  }
}
layer {
  name: "PReLU7"
  type: "PReLU"
  bottom: "Eltwise3"
  top: "Eltwise3"
}
layer {
  name: "Convolution8"
  type: "Convolution"
  bottom: "Eltwise3"
  top: "Convolution8"
  param {
    lr_mult: 1
    decay_mult: 1
  }
  param {
    lr_mult: 2
    decay_mult: 0
  }
  convolution_param {
    num_output: 32
    pad: 0
    kernel_size: 1
    stride: 2
    weight_filler {
      type: "gaussian"
      std: 0.25
    }
    bias_filler {
      type: "constant"
      value: 0
    }
  }
}
layer {
  name: "BatchNorm8"
  type: "BatchNorm"
  bottom: "Convolution8"
  top: "Convolution8"
  param {
    lr_mult: 0
    decay_mult: 0
  }
  param {
    lr_mult: 0
    decay_mult: 0
  }
  param {
    lr_mult: 0
    decay_mult: 0
  }
}
layer {
  name: "Scale8"
  type: "Scale"
  bottom: "Convolution8"
  top: "Convolution8"
  scale_param {
    bias_term: true
  }
}
layer {
  name: "Convolution9"
  type: "Convolution"
  bottom: "Eltwise3"
  top: "Convolution9"
  param {
    lr_mult: 1
    decay_mult: 1
  }
  param {
    lr_mult: 2
    decay_mult: 0
  }
  convolution_param {
    num_output: 32
    pad: 1
    kernel_size: 3
    stride: 2
    weight_filler {
      type: "gaussian"
      std: 0.083
    }
    bias_filler {
      type: "constant"
      value: 0
    }
  }
}
layer {
  name: "BatchNorm9"
  type: "BatchNorm"
  bottom: "Convolution9"
  top: "Convolution9"
  param {
    lr_mult: 0
    decay_mult: 0
  }
  param {
    lr_mult: 0
    decay_mult: 0
  }
  param {
    lr_mult: 0
    decay_mult: 0
  }
}
layer {
  name: "Scale9"
  type: "Scale"
  bottom: "Convolution9"
  top: "Convolution9"
  scale_param {
    bias_term: true
  }
}
layer {
  name: "PReLU8"
  type: "PReLU"
  bottom: "Convolution9"
  top: "Convolution9"
}
layer {
  name: "Convolution10"
  type: "Convolution"
  bottom: "Convolution9"
  top: "Convolution10"
  param {
    lr_mult: 1
    decay_mult: 1
  }
  param {
    lr_mult: 2
    decay_mult: 0
  }
  convolution_param {
    num_output: 32
    pad: 1
    kernel_size: 3
    stride: 1
    weight_filler {
      type: "gaussian"
      std: 0.083
    }
    bias_filler {
      type: "constant"
      value: 0
    }
  }
}
layer {
  name: "BatchNorm10"
  type: "BatchNorm"
  bottom: "Convolution10"
  top: "Convolution10"
  param {
    lr_mult: 0
    decay_mult: 0
  }
  param {
    lr_mult: 0
    decay_mult: 0
  }
  param {
    lr_mult: 0
    decay_mult: 0
  }
}
layer {
  name: "Scale10"
  type: "Scale"
  bottom: "Convolution10"
  top: "Convolution10"
  scale_param {
    bias_term: true
  }
}
layer {
  name: "Eltwise4"
  type: "Eltwise"
  bottom: "Convolution8"
  bottom: "Convolution10"
  top: "Eltwise4"
  eltwise_param {
    operation: SUM
  }
}
layer {
  name: "PReLU9"
  type: "PReLU"
  bottom: "Eltwise4"
  top: "Eltwise4"
}
layer {
  name: "Convolution11"
  type: "Convolution"
  bottom: "Eltwise4"
  top: "Convolution11"
  param {
    lr_mult: 1
    decay_mult: 1
  }
  param {
    lr_mult: 2
    decay_mult: 0
  }
  convolution_param {
    num_output: 32
    pad: 1
    kernel_size: 3
    stride: 1
    weight_filler {
      type: "gaussian"
      std: 0.083
    }
    bias_filler {
      type: "constant"
      value: 0
    }
  }
}
layer {
  name: "BatchNorm11"
  type: "BatchNorm"
  bottom: "Convolution11"
  top: "Convolution11"
  param {
    lr_mult: 0
    decay_mult: 0
  }
  param {
    lr_mult: 0
    decay_mult: 0
  }
  param {
    lr_mult: 0
    decay_mult: 0
  }
}
layer {
  name: "Scale11"
  type: "Scale"
  bottom: "Convolution11"
  top: "Convolution11"
  scale_param {
    bias_term: true
  }
}
layer {
  name: "PReLU10"
  type: "PReLU"
  bottom: "Convolution11"
  top: "Convolution11"
}
layer {
  name: "Convolution12"
  type: "Convolution"
  bottom: "Convolution11"
  top: "Convolution12"
  param {
    lr_mult: 1
    decay_mult: 1
  }
  param {
    lr_mult: 2
    decay_mult: 0
  }
  convolution_param {
    num_output: 32
    pad: 1
    kernel_size: 3
    stride: 1
    weight_filler {
      type: "gaussian"
      std: 0.083
    }
    bias_filler {
      type: "constant"
      value: 0
    }
  }
}
layer {
  name: "BatchNorm12"
  type: "BatchNorm"
  bottom: "Convolution12"
  top: "Convolution12"
  param {
    lr_mult: 0
    decay_mult: 0
  }
  param {
    lr_mult: 0
    decay_mult: 0
  }
  param {
    lr_mult: 0
    decay_mult: 0
  }
}
layer {
  name: "Scale12"
  type: "Scale"
  bottom: "Convolution12"
  top: "Convolution12"
  scale_param {
    bias_term: true
  }
}
layer {
  name: "Eltwise5"
  type: "Eltwise"
  bottom: "Eltwise4"
  bottom: "Convolution12"
  top: "Eltwise5"
  eltwise_param {
    operation: SUM
  }
}
layer {
  name: "PReLU11"
  type: "PReLU"
  bottom: "Eltwise5"
  top: "Eltwise5"
}
layer {
  name: "Convolution13"
  type: "Convolution"
  bottom: "Eltwise5"
  top: "Convolution13"
  param {
    lr_mult: 1
    decay_mult: 1
  }
  param {
    lr_mult: 2
    decay_mult: 0
  }
  convolution_param {
    num_output: 32
    pad: 1
    kernel_size: 3
    stride: 1
    weight_filler {
      type: "gaussian"
      std: 0.083
    }
    bias_filler {
      type: "constant"
      value: 0
    }
  }
}
layer {
  name: "BatchNorm13"
  type: "BatchNorm"
  bottom: "Convolution13"
  top: "Convolution13"
  param {
    lr_mult: 0
    decay_mult: 0
  }
  param {
    lr_mult: 0
    decay_mult: 0
  }
  param {
    lr_mult: 0
    decay_mult: 0
  }
}
layer {
  name: "Scale13"
  type: "Scale"
  bottom: "Convolution13"
  top: "Convolution13"
  scale_param {
    bias_term: true
  }
}
layer {
  name: "PReLU12"
  type: "PReLU"
  bottom: "Convolution13"
  top: "Convolution13"
}
layer {
  name: "Convolution14"
  type: "Convolution"
  bottom: "Convolution13"
  top: "Convolution14"
  param {
    lr_mult: 1
    decay_mult: 1
  }
  param {
    lr_mult: 2
    decay_mult: 0
  }
  convolution_param {
    num_output: 32
    pad: 1
    kernel_size: 3
    stride: 1
    weight_filler {
      type: "gaussian"
      std: 0.083
    }
    bias_filler {
      type: "constant"
      value: 0
    }
  }
}
layer {
  name: "BatchNorm14"
  type: "BatchNorm"
  bottom: "Convolution14"
  top: "Convolution14"
  param {
    lr_mult: 0
    decay_mult: 0
  }
  param {
    lr_mult: 0
    decay_mult: 0
  }
  param {
    lr_mult: 0
    decay_mult: 0
  }
}
layer {
  name: "Scale14"
  type: "Scale"
  bottom: "Convolution14"
  top: "Convolution14"
  scale_param {
    bias_term: true
  }
}
layer {
  name: "Eltwise6"
  type: "Eltwise"
  bottom: "Eltwise5"
  bottom: "Convolution14"
  top: "Eltwise6"
  eltwise_param {
    operation: SUM
  }
}
layer {
  name: "PReLU13"
  type: "PReLU"
  bottom: "Eltwise6"
  top: "Eltwise6"
}
layer {
  name: "Convolution15"
  type: "Convolution"
  bottom: "Eltwise6"
  top: "Convolution15"
  param {
    lr_mult: 1
    decay_mult: 1
  }
  param {
    lr_mult: 2
    decay_mult: 0
  }
  convolution_param {
    num_output: 64
    pad: 0
    kernel_size: 1
    stride: 2
    weight_filler {
      type: "gaussian"
      std: 0.17677669
    }
    bias_filler {
      type: "constant"
      value: 0
    }
  }
}
layer {
  name: "BatchNorm15"
  type: "BatchNorm"
  bottom: "Convolution15"
  top: "Convolution15"
  param {
    lr_mult: 0
    decay_mult: 0
  }
  param {
    lr_mult: 0
    decay_mult: 0
  }
  param {
    lr_mult: 0
    decay_mult: 0
  }
}
layer {
  name: "Scale15"
  type: "Scale"
  bottom: "Convolution15"
  top: "Convolution15"
  scale_param {
    bias_term: true
  }
}
layer {
  name: "Convolution16"
  type: "Convolution"
  bottom: "Eltwise6"
  top: "Convolution16"
  param {
    lr_mult: 1
    decay_mult: 1
  }
  param {
    lr_mult: 2
    decay_mult: 0
  }
  convolution_param {
    num_output: 64
    pad: 1
    kernel_size: 3
    stride: 2
    weight_filler {
      type: "gaussian"
      std: 0.059
    }
    bias_filler {
      type: "constant"
      value: 0
    }
  }
}
layer {
  name: "BatchNorm16"
  type: "BatchNorm"
  bottom: "Convolution16"
  top: "Convolution16"
  param {
    lr_mult: 0
    decay_mult: 0
  }
  param {
    lr_mult: 0
    decay_mult: 0
  }
  param {
    lr_mult: 0
    decay_mult: 0
  }
}
layer {
  name: "Scale16"
  type: "Scale"
  bottom: "Convolution16"
  top: "Convolution16"
  scale_param {
    bias_term: true
  }
}
layer {
  name: "PReLU14"
  type: "PReLU"
  bottom: "Convolution16"
  top: "Convolution16"
}
layer {
  name: "Convolution17"
  type: "Convolution"
  bottom: "Convolution16"
  top: "Convolution17"
  param {
    lr_mult: 1
    decay_mult: 1
  }
  param {
    lr_mult: 2
    decay_mult: 0
  }
  convolution_param {
    num_output: 64
    pad: 1
    kernel_size: 3
    stride: 1
    weight_filler {
      type: "gaussian"
      std: 0.059
    }
    bias_filler {
      type: "constant"
      value: 0
    }
  }
}
layer {
  name: "BatchNorm17"
  type: "BatchNorm"
  bottom: "Convolution17"
  top: "Convolution17"
  param {
    lr_mult: 0
    decay_mult: 0
  }
  param {
    lr_mult: 0
    decay_mult: 0
  }
  param {
    lr_mult: 0
    decay_mult: 0
  }
}
layer {
  name: "Scale17"
  type: "Scale"
  bottom: "Convolution17"
  top: "Convolution17"
  scale_param {
    bias_term: true
  }
}
layer {
  name: "Eltwise7"
  type: "Eltwise"
  bottom: "Convolution15"
  bottom: "Convolution17"
  top: "Eltwise7"
  eltwise_param {
    operation: SUM
  }
}
layer {
  name: "PReLU15"
  type: "PReLU"
  bottom: "Eltwise7"
  top: "Eltwise7"
}
layer {
  name: "Convolution18"
  type: "Convolution"
  bottom: "Eltwise7"
  top: "Convolution18"
  param {
    lr_mult: 1
    decay_mult: 1
  }
  param {
    lr_mult: 2
    decay_mult: 0
  }
  convolution_param {
    num_output: 64
    pad: 1
    kernel_size: 3
    stride: 1
    weight_filler {
      type: "gaussian"
      std: 0.059
    }
    bias_filler {
      type: "constant"
      value: 0
    }
  }
}
layer {
  name: "BatchNorm18"
  type: "BatchNorm"
  bottom: "Convolution18"
  top: "Convolution18"
  param {
    lr_mult: 0
    decay_mult: 0
  }
  param {
    lr_mult: 0
    decay_mult: 0
  }
  param {
    lr_mult: 0
    decay_mult: 0
  }
}
layer {
  name: "Scale18"
  type: "Scale"
  bottom: "Convolution18"
  top: "Convolution18"
  scale_param {
    bias_term: true
  }
}
layer {
  name: "PReLU16"
  type: "PReLU"
  bottom: "Convolution18"
  top: "Convolution18"
}
layer {
  name: "Convolution19"
  type: "Convolution"
  bottom: "Convolution18"
  top: "Convolution19"
  param {
    lr_mult: 1
    decay_mult: 1
  }
  param {
    lr_mult: 2
    decay_mult: 0
  }
  convolution_param {
    num_output: 64
    pad: 1
    kernel_size: 3
    stride: 1
    weight_filler {
      type: "gaussian"
      std: 0.059
    }
    bias_filler {
      type: "constant"
      value: 0
    }
  }
}
layer {
  name: "BatchNorm19"
  type: "BatchNorm"
  bottom: "Convolution19"
  top: "Convolution19"
  param {
    lr_mult: 0
    decay_mult: 0
  }
  param {
    lr_mult: 0
    decay_mult: 0
  }
  param {
    lr_mult: 0
    decay_mult: 0
  }
}
layer {
  name: "Scale19"
  type: "Scale"
  bottom: "Convolution19"
  top: "Convolution19"
  scale_param {
    bias_term: true
  }
}
layer {
  name: "Eltwise8"
  type: "Eltwise"
  bottom: "Eltwise7"
  bottom: "Convolution19"
  top: "Eltwise8"
  eltwise_param {
    operation: SUM
  }
}
layer {
  name: "PReLU17"
  type: "PReLU"
  bottom: "Eltwise8"
  top: "Eltwise8"
}
layer {
  name: "Convolution20"
  type: "Convolution"
  bottom: "Eltwise8"
  top: "Convolution20"
  param {
    lr_mult: 1
    decay_mult: 1
  }
  param {
    lr_mult: 2
    decay_mult: 0
  }
  convolution_param {
    num_output: 64
    pad: 1
    kernel_size: 3
    stride: 1
    weight_filler {
      type: "gaussian"
      std: 0.059
    }
    bias_filler {
      type: "constant"
      value: 0
    }
  }
}
layer {
  name: "BatchNorm20"
  type: "BatchNorm"
  bottom: "Convolution20"
  top: "Convolution20"
  param {
    lr_mult: 0
    decay_mult: 0
  }
  param {
    lr_mult: 0
    decay_mult: 0
  }
  param {
    lr_mult: 0
    decay_mult: 0
  }
}
layer {
  name: "Scale20"
  type: "Scale"
  bottom: "Convolution20"
  top: "Convolution20"
  scale_param {
    bias_term: true
  }
}
layer {
  name: "PReLU18"
  type: "PReLU"
  bottom: "Convolution20"
  top: "Convolution20"
}
layer {
  name: "Convolution21"
  type: "Convolution"
  bottom: "Convolution20"
  top: "Convolution21"
  param {
    lr_mult: 1
    decay_mult: 1
  }
  param {
    lr_mult: 2
    decay_mult: 0
  }
  convolution_param {
    num_output: 64
    pad: 1
    kernel_size: 3
    stride: 1
    weight_filler {
      type: "gaussian"
      std: 0.059
    }
    bias_filler {
      type: "constant"
      value: 0
    }
  }
}
layer {
  name: "BatchNorm21"
  type: "BatchNorm"
  bottom: "Convolution21"
  top: "Convolution21"
  param {
    lr_mult: 0
    decay_mult: 0
  }
  param {
    lr_mult: 0
    decay_mult: 0
  }
  param {
    lr_mult: 0
    decay_mult: 0
  }
}
layer {
  name: "Scale21"
  type: "Scale"
  bottom: "Convolution21"
  top: "Convolution21"
  scale_param {
    bias_term: true
  }
}
layer {
  name: "Eltwise9"
  type: "Eltwise"
  bottom: "Eltwise8"
  bottom: "Convolution21"
  top: "Eltwise9"
  eltwise_param {
    operation: SUM
  }
}
layer {
  name: "PReLU19"
  type: "PReLU"
  bottom: "Eltwise9"
  top: "Eltwise9"
}
layer {
  name: "Pooling1"
  type: "Pooling"
  bottom: "Eltwise9"
  top: "Pooling1"
  pooling_param {
    pool: AVE
    global_pooling: true
  }
}
layer {
  name: "InnerProduct1"
  type: "InnerProduct"
  bottom: "Pooling1"
  top: "InnerProduct1"
  param {
    lr_mult: 1
    decay_mult: 1
  }
  param {
    lr_mult: 2
    decay_mult: 1
  }
  inner_product_param {
    num_output: 10
    weight_filler {
      type: "gaussian"
      std: 0.01
    }
    bias_filler {
      type: "constant"
      value: 0
    }
  }
}
layer {
  name: "SoftmaxWithLoss1"
  type: "SoftmaxWithLoss"
  bottom: "InnerProduct1"
  bottom: "Data2"
  top: "SoftmaxWithLoss1"
}
layer {
  name: "Accuracy1"
  type: "Accuracy"
  bottom: "InnerProduct1"
  bottom: "Data2"
  top: "Accuracy1"
  include {
    phase: TEST
  }
}
I1005 20:14:09.576972  9960 layer_factory.hpp:77] Creating layer Data1
I1005 20:14:09.577009  9960 db_lmdb.cpp:35] Opened lmdb /home/x306/caffe/xn/PENLU/data/cifar10/cifar10_test_lmdb
I1005 20:14:09.577021  9960 net.cpp:84] Creating Layer Data1
I1005 20:14:09.577025  9960 net.cpp:380] Data1 -> Data1
I1005 20:14:09.577030  9960 net.cpp:380] Data1 -> Data2
I1005 20:14:09.577036  9960 data_transformer.cpp:25] Loading mean file from: /home/x306/caffe/xn/PENLU/data/cifar10/mean.binaryproto
I1005 20:14:09.577143  9960 data_layer.cpp:45] output data size: 100,3,32,32
I1005 20:14:09.580859  9960 net.cpp:122] Setting up Data1
I1005 20:14:09.580876  9960 net.cpp:129] Top shape: 100 3 32 32 (307200)
I1005 20:14:09.580881  9960 net.cpp:129] Top shape: 100 (100)
I1005 20:14:09.580883  9960 net.cpp:137] Memory required for data: 1229200
I1005 20:14:09.580888  9960 layer_factory.hpp:77] Creating layer Data2_Data1_1_split
I1005 20:14:09.580896  9960 net.cpp:84] Creating Layer Data2_Data1_1_split
I1005 20:14:09.580899  9960 net.cpp:406] Data2_Data1_1_split <- Data2
I1005 20:14:09.580905  9960 net.cpp:380] Data2_Data1_1_split -> Data2_Data1_1_split_0
I1005 20:14:09.580912  9960 net.cpp:380] Data2_Data1_1_split -> Data2_Data1_1_split_1
I1005 20:14:09.580971  9960 net.cpp:122] Setting up Data2_Data1_1_split
I1005 20:14:09.580976  9960 net.cpp:129] Top shape: 100 (100)
I1005 20:14:09.580978  9960 net.cpp:129] Top shape: 100 (100)
I1005 20:14:09.580981  9960 net.cpp:137] Memory required for data: 1230000
I1005 20:14:09.580982  9960 layer_factory.hpp:77] Creating layer Convolution1
I1005 20:14:09.580992  9960 net.cpp:84] Creating Layer Convolution1
I1005 20:14:09.580994  9960 net.cpp:406] Convolution1 <- Data1
I1005 20:14:09.580998  9960 net.cpp:380] Convolution1 -> Convolution1
I1005 20:14:09.582080  9960 net.cpp:122] Setting up Convolution1
I1005 20:14:09.582088  9960 net.cpp:129] Top shape: 100 16 32 32 (1638400)
I1005 20:14:09.582092  9960 net.cpp:137] Memory required for data: 7783600
I1005 20:14:09.582098  9960 layer_factory.hpp:77] Creating layer BatchNorm1
I1005 20:14:09.582104  9960 net.cpp:84] Creating Layer BatchNorm1
I1005 20:14:09.582108  9960 net.cpp:406] BatchNorm1 <- Convolution1
I1005 20:14:09.582113  9960 net.cpp:367] BatchNorm1 -> Convolution1 (in-place)
I1005 20:14:09.582257  9960 net.cpp:122] Setting up BatchNorm1
I1005 20:14:09.582262  9960 net.cpp:129] Top shape: 100 16 32 32 (1638400)
I1005 20:14:09.582264  9960 net.cpp:137] Memory required for data: 14337200
I1005 20:14:09.582271  9960 layer_factory.hpp:77] Creating layer Scale1
I1005 20:14:09.582281  9960 net.cpp:84] Creating Layer Scale1
I1005 20:14:09.582284  9960 net.cpp:406] Scale1 <- Convolution1
I1005 20:14:09.582288  9960 net.cpp:367] Scale1 -> Convolution1 (in-place)
I1005 20:14:09.582321  9960 layer_factory.hpp:77] Creating layer Scale1
I1005 20:14:09.582396  9960 net.cpp:122] Setting up Scale1
I1005 20:14:09.582399  9960 net.cpp:129] Top shape: 100 16 32 32 (1638400)
I1005 20:14:09.582401  9960 net.cpp:137] Memory required for data: 20890800
I1005 20:14:09.582406  9960 layer_factory.hpp:77] Creating layer PReLU1
I1005 20:14:09.582411  9960 net.cpp:84] Creating Layer PReLU1
I1005 20:14:09.582413  9960 net.cpp:406] PReLU1 <- Convolution1
I1005 20:14:09.582417  9960 net.cpp:367] PReLU1 -> Convolution1 (in-place)
I1005 20:14:09.582482  9960 net.cpp:122] Setting up PReLU1
I1005 20:14:09.582486  9960 net.cpp:129] Top shape: 100 16 32 32 (1638400)
I1005 20:14:09.582489  9960 net.cpp:137] Memory required for data: 27444400
I1005 20:14:09.582491  9960 layer_factory.hpp:77] Creating layer Convolution1_PReLU1_0_split
I1005 20:14:09.582495  9960 net.cpp:84] Creating Layer Convolution1_PReLU1_0_split
I1005 20:14:09.582497  9960 net.cpp:406] Convolution1_PReLU1_0_split <- Convolution1
I1005 20:14:09.582501  9960 net.cpp:380] Convolution1_PReLU1_0_split -> Convolution1_PReLU1_0_split_0
I1005 20:14:09.582505  9960 net.cpp:380] Convolution1_PReLU1_0_split -> Convolution1_PReLU1_0_split_1
I1005 20:14:09.582554  9960 net.cpp:122] Setting up Convolution1_PReLU1_0_split
I1005 20:14:09.582571  9960 net.cpp:129] Top shape: 100 16 32 32 (1638400)
I1005 20:14:09.582576  9960 net.cpp:129] Top shape: 100 16 32 32 (1638400)
I1005 20:14:09.582577  9960 net.cpp:137] Memory required for data: 40551600
I1005 20:14:09.582579  9960 layer_factory.hpp:77] Creating layer Convolution2
I1005 20:14:09.582587  9960 net.cpp:84] Creating Layer Convolution2
I1005 20:14:09.582589  9960 net.cpp:406] Convolution2 <- Convolution1_PReLU1_0_split_0
I1005 20:14:09.582593  9960 net.cpp:380] Convolution2 -> Convolution2
I1005 20:14:09.583166  9960 net.cpp:122] Setting up Convolution2
I1005 20:14:09.583173  9960 net.cpp:129] Top shape: 100 16 32 32 (1638400)
I1005 20:14:09.583175  9960 net.cpp:137] Memory required for data: 47105200
I1005 20:14:09.583183  9960 layer_factory.hpp:77] Creating layer BatchNorm2
I1005 20:14:09.583190  9960 net.cpp:84] Creating Layer BatchNorm2
I1005 20:14:09.583194  9960 net.cpp:406] BatchNorm2 <- Convolution2
I1005 20:14:09.583196  9960 net.cpp:367] BatchNorm2 -> Convolution2 (in-place)
I1005 20:14:09.583336  9960 net.cpp:122] Setting up BatchNorm2
I1005 20:14:09.583341  9960 net.cpp:129] Top shape: 100 16 32 32 (1638400)
I1005 20:14:09.583343  9960 net.cpp:137] Memory required for data: 53658800
I1005 20:14:09.583348  9960 layer_factory.hpp:77] Creating layer Scale2
I1005 20:14:09.583351  9960 net.cpp:84] Creating Layer Scale2
I1005 20:14:09.583354  9960 net.cpp:406] Scale2 <- Convolution2
I1005 20:14:09.583359  9960 net.cpp:367] Scale2 -> Convolution2 (in-place)
I1005 20:14:09.583473  9960 layer_factory.hpp:77] Creating layer Scale2
I1005 20:14:09.583547  9960 net.cpp:122] Setting up Scale2
I1005 20:14:09.583552  9960 net.cpp:129] Top shape: 100 16 32 32 (1638400)
I1005 20:14:09.583554  9960 net.cpp:137] Memory required for data: 60212400
I1005 20:14:09.583561  9960 layer_factory.hpp:77] Creating layer PReLU2
I1005 20:14:09.583564  9960 net.cpp:84] Creating Layer PReLU2
I1005 20:14:09.583567  9960 net.cpp:406] PReLU2 <- Convolution2
I1005 20:14:09.583572  9960 net.cpp:367] PReLU2 -> Convolution2 (in-place)
I1005 20:14:09.583638  9960 net.cpp:122] Setting up PReLU2
I1005 20:14:09.583643  9960 net.cpp:129] Top shape: 100 16 32 32 (1638400)
I1005 20:14:09.583645  9960 net.cpp:137] Memory required for data: 66766000
I1005 20:14:09.583654  9960 layer_factory.hpp:77] Creating layer Convolution3
I1005 20:14:09.583660  9960 net.cpp:84] Creating Layer Convolution3
I1005 20:14:09.583663  9960 net.cpp:406] Convolution3 <- Convolution2
I1005 20:14:09.583669  9960 net.cpp:380] Convolution3 -> Convolution3
I1005 20:14:09.584609  9960 net.cpp:122] Setting up Convolution3
I1005 20:14:09.584617  9960 net.cpp:129] Top shape: 100 16 32 32 (1638400)
I1005 20:14:09.584620  9960 net.cpp:137] Memory required for data: 73319600
I1005 20:14:09.584627  9960 layer_factory.hpp:77] Creating layer BatchNorm3
I1005 20:14:09.584632  9960 net.cpp:84] Creating Layer BatchNorm3
I1005 20:14:09.584635  9960 net.cpp:406] BatchNorm3 <- Convolution3
I1005 20:14:09.584640  9960 net.cpp:367] BatchNorm3 -> Convolution3 (in-place)
I1005 20:14:09.584779  9960 net.cpp:122] Setting up BatchNorm3
I1005 20:14:09.584790  9960 net.cpp:129] Top shape: 100 16 32 32 (1638400)
I1005 20:14:09.584792  9960 net.cpp:137] Memory required for data: 79873200
I1005 20:14:09.584797  9960 layer_factory.hpp:77] Creating layer Scale3
I1005 20:14:09.584801  9960 net.cpp:84] Creating Layer Scale3
I1005 20:14:09.584805  9960 net.cpp:406] Scale3 <- Convolution3
I1005 20:14:09.584807  9960 net.cpp:367] Scale3 -> Convolution3 (in-place)
I1005 20:14:09.584919  9960 layer_factory.hpp:77] Creating layer Scale3
I1005 20:14:09.584996  9960 net.cpp:122] Setting up Scale3
I1005 20:14:09.585002  9960 net.cpp:129] Top shape: 100 16 32 32 (1638400)
I1005 20:14:09.585005  9960 net.cpp:137] Memory required for data: 86426800
I1005 20:14:09.585008  9960 layer_factory.hpp:77] Creating layer Eltwise1
I1005 20:14:09.585013  9960 net.cpp:84] Creating Layer Eltwise1
I1005 20:14:09.585016  9960 net.cpp:406] Eltwise1 <- Convolution1_PReLU1_0_split_1
I1005 20:14:09.585019  9960 net.cpp:406] Eltwise1 <- Convolution3
I1005 20:14:09.585022  9960 net.cpp:380] Eltwise1 -> Eltwise1
I1005 20:14:09.585038  9960 net.cpp:122] Setting up Eltwise1
I1005 20:14:09.585042  9960 net.cpp:129] Top shape: 100 16 32 32 (1638400)
I1005 20:14:09.585044  9960 net.cpp:137] Memory required for data: 92980400
I1005 20:14:09.585047  9960 layer_factory.hpp:77] Creating layer PReLU3
I1005 20:14:09.585050  9960 net.cpp:84] Creating Layer PReLU3
I1005 20:14:09.585052  9960 net.cpp:406] PReLU3 <- Eltwise1
I1005 20:14:09.585057  9960 net.cpp:367] PReLU3 -> Eltwise1 (in-place)
I1005 20:14:09.585121  9960 net.cpp:122] Setting up PReLU3
I1005 20:14:09.585125  9960 net.cpp:129] Top shape: 100 16 32 32 (1638400)
I1005 20:14:09.585127  9960 net.cpp:137] Memory required for data: 99534000
I1005 20:14:09.585130  9960 layer_factory.hpp:77] Creating layer Eltwise1_PReLU3_0_split
I1005 20:14:09.585139  9960 net.cpp:84] Creating Layer Eltwise1_PReLU3_0_split
I1005 20:14:09.585141  9960 net.cpp:406] Eltwise1_PReLU3_0_split <- Eltwise1
I1005 20:14:09.585147  9960 net.cpp:380] Eltwise1_PReLU3_0_split -> Eltwise1_PReLU3_0_split_0
I1005 20:14:09.585151  9960 net.cpp:380] Eltwise1_PReLU3_0_split -> Eltwise1_PReLU3_0_split_1
I1005 20:14:09.585175  9960 net.cpp:122] Setting up Eltwise1_PReLU3_0_split
I1005 20:14:09.585180  9960 net.cpp:129] Top shape: 100 16 32 32 (1638400)
I1005 20:14:09.585182  9960 net.cpp:129] Top shape: 100 16 32 32 (1638400)
I1005 20:14:09.585185  9960 net.cpp:137] Memory required for data: 112641200
I1005 20:14:09.585186  9960 layer_factory.hpp:77] Creating layer Convolution4
I1005 20:14:09.585193  9960 net.cpp:84] Creating Layer Convolution4
I1005 20:14:09.585196  9960 net.cpp:406] Convolution4 <- Eltwise1_PReLU3_0_split_0
I1005 20:14:09.585201  9960 net.cpp:380] Convolution4 -> Convolution4
I1005 20:14:09.586100  9960 net.cpp:122] Setting up Convolution4
I1005 20:14:09.586108  9960 net.cpp:129] Top shape: 100 16 32 32 (1638400)
I1005 20:14:09.586112  9960 net.cpp:137] Memory required for data: 119194800
I1005 20:14:09.586115  9960 layer_factory.hpp:77] Creating layer BatchNorm4
I1005 20:14:09.586122  9960 net.cpp:84] Creating Layer BatchNorm4
I1005 20:14:09.586124  9960 net.cpp:406] BatchNorm4 <- Convolution4
I1005 20:14:09.586128  9960 net.cpp:367] BatchNorm4 -> Convolution4 (in-place)
I1005 20:14:09.586371  9960 net.cpp:122] Setting up BatchNorm4
I1005 20:14:09.586377  9960 net.cpp:129] Top shape: 100 16 32 32 (1638400)
I1005 20:14:09.586380  9960 net.cpp:137] Memory required for data: 125748400
I1005 20:14:09.586383  9960 layer_factory.hpp:77] Creating layer Scale4
I1005 20:14:09.586388  9960 net.cpp:84] Creating Layer Scale4
I1005 20:14:09.586391  9960 net.cpp:406] Scale4 <- Convolution4
I1005 20:14:09.586395  9960 net.cpp:367] Scale4 -> Convolution4 (in-place)
I1005 20:14:09.586421  9960 layer_factory.hpp:77] Creating layer Scale4
I1005 20:14:09.586495  9960 net.cpp:122] Setting up Scale4
I1005 20:14:09.586500  9960 net.cpp:129] Top shape: 100 16 32 32 (1638400)
I1005 20:14:09.586503  9960 net.cpp:137] Memory required for data: 132302000
I1005 20:14:09.586506  9960 layer_factory.hpp:77] Creating layer PReLU4
I1005 20:14:09.586509  9960 net.cpp:84] Creating Layer PReLU4
I1005 20:14:09.586511  9960 net.cpp:406] PReLU4 <- Convolution4
I1005 20:14:09.586515  9960 net.cpp:367] PReLU4 -> Convolution4 (in-place)
I1005 20:14:09.586616  9960 net.cpp:122] Setting up PReLU4
I1005 20:14:09.586621  9960 net.cpp:129] Top shape: 100 16 32 32 (1638400)
I1005 20:14:09.586623  9960 net.cpp:137] Memory required for data: 138855600
I1005 20:14:09.586627  9960 layer_factory.hpp:77] Creating layer Convolution5
I1005 20:14:09.586633  9960 net.cpp:84] Creating Layer Convolution5
I1005 20:14:09.586635  9960 net.cpp:406] Convolution5 <- Convolution4
I1005 20:14:09.586639  9960 net.cpp:380] Convolution5 -> Convolution5
I1005 20:14:09.587872  9960 net.cpp:122] Setting up Convolution5
I1005 20:14:09.587880  9960 net.cpp:129] Top shape: 100 16 32 32 (1638400)
I1005 20:14:09.587882  9960 net.cpp:137] Memory required for data: 145409200
I1005 20:14:09.587890  9960 layer_factory.hpp:77] Creating layer BatchNorm5
I1005 20:14:09.587895  9960 net.cpp:84] Creating Layer BatchNorm5
I1005 20:14:09.587898  9960 net.cpp:406] BatchNorm5 <- Convolution5
I1005 20:14:09.587903  9960 net.cpp:367] BatchNorm5 -> Convolution5 (in-place)
I1005 20:14:09.588038  9960 net.cpp:122] Setting up BatchNorm5
I1005 20:14:09.588042  9960 net.cpp:129] Top shape: 100 16 32 32 (1638400)
I1005 20:14:09.588045  9960 net.cpp:137] Memory required for data: 151962800
I1005 20:14:09.588049  9960 layer_factory.hpp:77] Creating layer Scale5
I1005 20:14:09.588053  9960 net.cpp:84] Creating Layer Scale5
I1005 20:14:09.588055  9960 net.cpp:406] Scale5 <- Convolution5
I1005 20:14:09.588058  9960 net.cpp:367] Scale5 -> Convolution5 (in-place)
I1005 20:14:09.588085  9960 layer_factory.hpp:77] Creating layer Scale5
I1005 20:14:09.588160  9960 net.cpp:122] Setting up Scale5
I1005 20:14:09.588165  9960 net.cpp:129] Top shape: 100 16 32 32 (1638400)
I1005 20:14:09.588166  9960 net.cpp:137] Memory required for data: 158516400
I1005 20:14:09.588171  9960 layer_factory.hpp:77] Creating layer Eltwise2
I1005 20:14:09.588174  9960 net.cpp:84] Creating Layer Eltwise2
I1005 20:14:09.588177  9960 net.cpp:406] Eltwise2 <- Eltwise1_PReLU3_0_split_1
I1005 20:14:09.588181  9960 net.cpp:406] Eltwise2 <- Convolution5
I1005 20:14:09.588183  9960 net.cpp:380] Eltwise2 -> Eltwise2
I1005 20:14:09.588199  9960 net.cpp:122] Setting up Eltwise2
I1005 20:14:09.588202  9960 net.cpp:129] Top shape: 100 16 32 32 (1638400)
I1005 20:14:09.588204  9960 net.cpp:137] Memory required for data: 165070000
I1005 20:14:09.588207  9960 layer_factory.hpp:77] Creating layer PReLU5
I1005 20:14:09.588210  9960 net.cpp:84] Creating Layer PReLU5
I1005 20:14:09.588212  9960 net.cpp:406] PReLU5 <- Eltwise2
I1005 20:14:09.588215  9960 net.cpp:367] PReLU5 -> Eltwise2 (in-place)
I1005 20:14:09.588281  9960 net.cpp:122] Setting up PReLU5
I1005 20:14:09.588285  9960 net.cpp:129] Top shape: 100 16 32 32 (1638400)
I1005 20:14:09.588287  9960 net.cpp:137] Memory required for data: 171623600
I1005 20:14:09.588290  9960 layer_factory.hpp:77] Creating layer Eltwise2_PReLU5_0_split
I1005 20:14:09.588294  9960 net.cpp:84] Creating Layer Eltwise2_PReLU5_0_split
I1005 20:14:09.588296  9960 net.cpp:406] Eltwise2_PReLU5_0_split <- Eltwise2
I1005 20:14:09.588306  9960 net.cpp:380] Eltwise2_PReLU5_0_split -> Eltwise2_PReLU5_0_split_0
I1005 20:14:09.588310  9960 net.cpp:380] Eltwise2_PReLU5_0_split -> Eltwise2_PReLU5_0_split_1
I1005 20:14:09.588336  9960 net.cpp:122] Setting up Eltwise2_PReLU5_0_split
I1005 20:14:09.588340  9960 net.cpp:129] Top shape: 100 16 32 32 (1638400)
I1005 20:14:09.588345  9960 net.cpp:129] Top shape: 100 16 32 32 (1638400)
I1005 20:14:09.588346  9960 net.cpp:137] Memory required for data: 184730800
I1005 20:14:09.588349  9960 layer_factory.hpp:77] Creating layer Convolution6
I1005 20:14:09.588354  9960 net.cpp:84] Creating Layer Convolution6
I1005 20:14:09.588357  9960 net.cpp:406] Convolution6 <- Eltwise2_PReLU5_0_split_0
I1005 20:14:09.588361  9960 net.cpp:380] Convolution6 -> Convolution6
I1005 20:14:09.589262  9960 net.cpp:122] Setting up Convolution6
I1005 20:14:09.589269  9960 net.cpp:129] Top shape: 100 16 32 32 (1638400)
I1005 20:14:09.589272  9960 net.cpp:137] Memory required for data: 191284400
I1005 20:14:09.589277  9960 layer_factory.hpp:77] Creating layer BatchNorm6
I1005 20:14:09.589282  9960 net.cpp:84] Creating Layer BatchNorm6
I1005 20:14:09.589285  9960 net.cpp:406] BatchNorm6 <- Convolution6
I1005 20:14:09.589288  9960 net.cpp:367] BatchNorm6 -> Convolution6 (in-place)
I1005 20:14:09.589422  9960 net.cpp:122] Setting up BatchNorm6
I1005 20:14:09.589427  9960 net.cpp:129] Top shape: 100 16 32 32 (1638400)
I1005 20:14:09.589429  9960 net.cpp:137] Memory required for data: 197838000
I1005 20:14:09.589434  9960 layer_factory.hpp:77] Creating layer Scale6
I1005 20:14:09.589438  9960 net.cpp:84] Creating Layer Scale6
I1005 20:14:09.589442  9960 net.cpp:406] Scale6 <- Convolution6
I1005 20:14:09.589444  9960 net.cpp:367] Scale6 -> Convolution6 (in-place)
I1005 20:14:09.589471  9960 layer_factory.hpp:77] Creating layer Scale6
I1005 20:14:09.589545  9960 net.cpp:122] Setting up Scale6
I1005 20:14:09.589550  9960 net.cpp:129] Top shape: 100 16 32 32 (1638400)
I1005 20:14:09.589551  9960 net.cpp:137] Memory required for data: 204391600
I1005 20:14:09.589555  9960 layer_factory.hpp:77] Creating layer PReLU6
I1005 20:14:09.589560  9960 net.cpp:84] Creating Layer PReLU6
I1005 20:14:09.589561  9960 net.cpp:406] PReLU6 <- Convolution6
I1005 20:14:09.589565  9960 net.cpp:367] PReLU6 -> Convolution6 (in-place)
I1005 20:14:09.589634  9960 net.cpp:122] Setting up PReLU6
I1005 20:14:09.589639  9960 net.cpp:129] Top shape: 100 16 32 32 (1638400)
I1005 20:14:09.589642  9960 net.cpp:137] Memory required for data: 210945200
I1005 20:14:09.589644  9960 layer_factory.hpp:77] Creating layer Convolution7
I1005 20:14:09.589650  9960 net.cpp:84] Creating Layer Convolution7
I1005 20:14:09.589653  9960 net.cpp:406] Convolution7 <- Convolution6
I1005 20:14:09.589658  9960 net.cpp:380] Convolution7 -> Convolution7
I1005 20:14:09.590577  9960 net.cpp:122] Setting up Convolution7
I1005 20:14:09.590585  9960 net.cpp:129] Top shape: 100 16 32 32 (1638400)
I1005 20:14:09.590589  9960 net.cpp:137] Memory required for data: 217498800
I1005 20:14:09.590592  9960 layer_factory.hpp:77] Creating layer BatchNorm7
I1005 20:14:09.590600  9960 net.cpp:84] Creating Layer BatchNorm7
I1005 20:14:09.590601  9960 net.cpp:406] BatchNorm7 <- Convolution7
I1005 20:14:09.590606  9960 net.cpp:367] BatchNorm7 -> Convolution7 (in-place)
I1005 20:14:09.590740  9960 net.cpp:122] Setting up BatchNorm7
I1005 20:14:09.590745  9960 net.cpp:129] Top shape: 100 16 32 32 (1638400)
I1005 20:14:09.590747  9960 net.cpp:137] Memory required for data: 224052400
I1005 20:14:09.590751  9960 layer_factory.hpp:77] Creating layer Scale7
I1005 20:14:09.590755  9960 net.cpp:84] Creating Layer Scale7
I1005 20:14:09.590759  9960 net.cpp:406] Scale7 <- Convolution7
I1005 20:14:09.590762  9960 net.cpp:367] Scale7 -> Convolution7 (in-place)
I1005 20:14:09.590788  9960 layer_factory.hpp:77] Creating layer Scale7
I1005 20:14:09.590864  9960 net.cpp:122] Setting up Scale7
I1005 20:14:09.590868  9960 net.cpp:129] Top shape: 100 16 32 32 (1638400)
I1005 20:14:09.590878  9960 net.cpp:137] Memory required for data: 230606000
I1005 20:14:09.590883  9960 layer_factory.hpp:77] Creating layer Eltwise3
I1005 20:14:09.590885  9960 net.cpp:84] Creating Layer Eltwise3
I1005 20:14:09.590888  9960 net.cpp:406] Eltwise3 <- Eltwise2_PReLU5_0_split_1
I1005 20:14:09.590891  9960 net.cpp:406] Eltwise3 <- Convolution7
I1005 20:14:09.590894  9960 net.cpp:380] Eltwise3 -> Eltwise3
I1005 20:14:09.590912  9960 net.cpp:122] Setting up Eltwise3
I1005 20:14:09.590915  9960 net.cpp:129] Top shape: 100 16 32 32 (1638400)
I1005 20:14:09.590917  9960 net.cpp:137] Memory required for data: 237159600
I1005 20:14:09.590919  9960 layer_factory.hpp:77] Creating layer PReLU7
I1005 20:14:09.590924  9960 net.cpp:84] Creating Layer PReLU7
I1005 20:14:09.590926  9960 net.cpp:406] PReLU7 <- Eltwise3
I1005 20:14:09.590929  9960 net.cpp:367] PReLU7 -> Eltwise3 (in-place)
I1005 20:14:09.590994  9960 net.cpp:122] Setting up PReLU7
I1005 20:14:09.590999  9960 net.cpp:129] Top shape: 100 16 32 32 (1638400)
I1005 20:14:09.591001  9960 net.cpp:137] Memory required for data: 243713200
I1005 20:14:09.591004  9960 layer_factory.hpp:77] Creating layer Eltwise3_PReLU7_0_split
I1005 20:14:09.591007  9960 net.cpp:84] Creating Layer Eltwise3_PReLU7_0_split
I1005 20:14:09.591009  9960 net.cpp:406] Eltwise3_PReLU7_0_split <- Eltwise3
I1005 20:14:09.591013  9960 net.cpp:380] Eltwise3_PReLU7_0_split -> Eltwise3_PReLU7_0_split_0
I1005 20:14:09.591017  9960 net.cpp:380] Eltwise3_PReLU7_0_split -> Eltwise3_PReLU7_0_split_1
I1005 20:14:09.591039  9960 net.cpp:122] Setting up Eltwise3_PReLU7_0_split
I1005 20:14:09.591044  9960 net.cpp:129] Top shape: 100 16 32 32 (1638400)
I1005 20:14:09.591048  9960 net.cpp:129] Top shape: 100 16 32 32 (1638400)
I1005 20:14:09.591049  9960 net.cpp:137] Memory required for data: 256820400
I1005 20:14:09.591053  9960 layer_factory.hpp:77] Creating layer Convolution8
I1005 20:14:09.591058  9960 net.cpp:84] Creating Layer Convolution8
I1005 20:14:09.591060  9960 net.cpp:406] Convolution8 <- Eltwise3_PReLU7_0_split_0
I1005 20:14:09.591064  9960 net.cpp:380] Convolution8 -> Convolution8
I1005 20:14:09.591939  9960 net.cpp:122] Setting up Convolution8
I1005 20:14:09.591948  9960 net.cpp:129] Top shape: 100 32 16 16 (819200)
I1005 20:14:09.591950  9960 net.cpp:137] Memory required for data: 260097200
I1005 20:14:09.591955  9960 layer_factory.hpp:77] Creating layer BatchNorm8
I1005 20:14:09.591960  9960 net.cpp:84] Creating Layer BatchNorm8
I1005 20:14:09.591962  9960 net.cpp:406] BatchNorm8 <- Convolution8
I1005 20:14:09.591966  9960 net.cpp:367] BatchNorm8 -> Convolution8 (in-place)
I1005 20:14:09.592097  9960 net.cpp:122] Setting up BatchNorm8
I1005 20:14:09.592103  9960 net.cpp:129] Top shape: 100 32 16 16 (819200)
I1005 20:14:09.592104  9960 net.cpp:137] Memory required for data: 263374000
I1005 20:14:09.592108  9960 layer_factory.hpp:77] Creating layer Scale8
I1005 20:14:09.592113  9960 net.cpp:84] Creating Layer Scale8
I1005 20:14:09.592115  9960 net.cpp:406] Scale8 <- Convolution8
I1005 20:14:09.592118  9960 net.cpp:367] Scale8 -> Convolution8 (in-place)
I1005 20:14:09.592145  9960 layer_factory.hpp:77] Creating layer Scale8
I1005 20:14:09.592221  9960 net.cpp:122] Setting up Scale8
I1005 20:14:09.592226  9960 net.cpp:129] Top shape: 100 32 16 16 (819200)
I1005 20:14:09.592227  9960 net.cpp:137] Memory required for data: 266650800
I1005 20:14:09.592231  9960 layer_factory.hpp:77] Creating layer Convolution9
I1005 20:14:09.592238  9960 net.cpp:84] Creating Layer Convolution9
I1005 20:14:09.592241  9960 net.cpp:406] Convolution9 <- Eltwise3_PReLU7_0_split_1
I1005 20:14:09.592245  9960 net.cpp:380] Convolution9 -> Convolution9
I1005 20:14:09.593194  9960 net.cpp:122] Setting up Convolution9
I1005 20:14:09.593202  9960 net.cpp:129] Top shape: 100 32 16 16 (819200)
I1005 20:14:09.593204  9960 net.cpp:137] Memory required for data: 269927600
I1005 20:14:09.593216  9960 layer_factory.hpp:77] Creating layer BatchNorm9
I1005 20:14:09.593221  9960 net.cpp:84] Creating Layer BatchNorm9
I1005 20:14:09.593225  9960 net.cpp:406] BatchNorm9 <- Convolution9
I1005 20:14:09.593235  9960 net.cpp:367] BatchNorm9 -> Convolution9 (in-place)
I1005 20:14:09.593366  9960 net.cpp:122] Setting up BatchNorm9
I1005 20:14:09.593370  9960 net.cpp:129] Top shape: 100 32 16 16 (819200)
I1005 20:14:09.593372  9960 net.cpp:137] Memory required for data: 273204400
I1005 20:14:09.593377  9960 layer_factory.hpp:77] Creating layer Scale9
I1005 20:14:09.593382  9960 net.cpp:84] Creating Layer Scale9
I1005 20:14:09.593384  9960 net.cpp:406] Scale9 <- Convolution9
I1005 20:14:09.593387  9960 net.cpp:367] Scale9 -> Convolution9 (in-place)
I1005 20:14:09.593415  9960 layer_factory.hpp:77] Creating layer Scale9
I1005 20:14:09.593489  9960 net.cpp:122] Setting up Scale9
I1005 20:14:09.593494  9960 net.cpp:129] Top shape: 100 32 16 16 (819200)
I1005 20:14:09.593497  9960 net.cpp:137] Memory required for data: 276481200
I1005 20:14:09.593499  9960 layer_factory.hpp:77] Creating layer PReLU8
I1005 20:14:09.593503  9960 net.cpp:84] Creating Layer PReLU8
I1005 20:14:09.593506  9960 net.cpp:406] PReLU8 <- Convolution9
I1005 20:14:09.593509  9960 net.cpp:367] PReLU8 -> Convolution9 (in-place)
I1005 20:14:09.593566  9960 net.cpp:122] Setting up PReLU8
I1005 20:14:09.593570  9960 net.cpp:129] Top shape: 100 32 16 16 (819200)
I1005 20:14:09.593572  9960 net.cpp:137] Memory required for data: 279758000
I1005 20:14:09.593575  9960 layer_factory.hpp:77] Creating layer Convolution10
I1005 20:14:09.593583  9960 net.cpp:84] Creating Layer Convolution10
I1005 20:14:09.593585  9960 net.cpp:406] Convolution10 <- Convolution9
I1005 20:14:09.593590  9960 net.cpp:380] Convolution10 -> Convolution10
I1005 20:14:09.594661  9960 net.cpp:122] Setting up Convolution10
I1005 20:14:09.594671  9960 net.cpp:129] Top shape: 100 32 16 16 (819200)
I1005 20:14:09.594672  9960 net.cpp:137] Memory required for data: 283034800
I1005 20:14:09.594676  9960 layer_factory.hpp:77] Creating layer BatchNorm10
I1005 20:14:09.594681  9960 net.cpp:84] Creating Layer BatchNorm10
I1005 20:14:09.594683  9960 net.cpp:406] BatchNorm10 <- Convolution10
I1005 20:14:09.594687  9960 net.cpp:367] BatchNorm10 -> Convolution10 (in-place)
I1005 20:14:09.594820  9960 net.cpp:122] Setting up BatchNorm10
I1005 20:14:09.594825  9960 net.cpp:129] Top shape: 100 32 16 16 (819200)
I1005 20:14:09.594826  9960 net.cpp:137] Memory required for data: 286311600
I1005 20:14:09.594831  9960 layer_factory.hpp:77] Creating layer Scale10
I1005 20:14:09.594835  9960 net.cpp:84] Creating Layer Scale10
I1005 20:14:09.594837  9960 net.cpp:406] Scale10 <- Convolution10
I1005 20:14:09.594841  9960 net.cpp:367] Scale10 -> Convolution10 (in-place)
I1005 20:14:09.594868  9960 layer_factory.hpp:77] Creating layer Scale10
I1005 20:14:09.594944  9960 net.cpp:122] Setting up Scale10
I1005 20:14:09.594947  9960 net.cpp:129] Top shape: 100 32 16 16 (819200)
I1005 20:14:09.594949  9960 net.cpp:137] Memory required for data: 289588400
I1005 20:14:09.594954  9960 layer_factory.hpp:77] Creating layer Eltwise4
I1005 20:14:09.594957  9960 net.cpp:84] Creating Layer Eltwise4
I1005 20:14:09.594960  9960 net.cpp:406] Eltwise4 <- Convolution8
I1005 20:14:09.594962  9960 net.cpp:406] Eltwise4 <- Convolution10
I1005 20:14:09.594966  9960 net.cpp:380] Eltwise4 -> Eltwise4
I1005 20:14:09.594979  9960 net.cpp:122] Setting up Eltwise4
I1005 20:14:09.594981  9960 net.cpp:129] Top shape: 100 32 16 16 (819200)
I1005 20:14:09.594983  9960 net.cpp:137] Memory required for data: 292865200
I1005 20:14:09.594985  9960 layer_factory.hpp:77] Creating layer PReLU9
I1005 20:14:09.594990  9960 net.cpp:84] Creating Layer PReLU9
I1005 20:14:09.594992  9960 net.cpp:406] PReLU9 <- Eltwise4
I1005 20:14:09.594995  9960 net.cpp:367] PReLU9 -> Eltwise4 (in-place)
I1005 20:14:09.595057  9960 net.cpp:122] Setting up PReLU9
I1005 20:14:09.595060  9960 net.cpp:129] Top shape: 100 32 16 16 (819200)
I1005 20:14:09.595062  9960 net.cpp:137] Memory required for data: 296142000
I1005 20:14:09.595065  9960 layer_factory.hpp:77] Creating layer Eltwise4_PReLU9_0_split
I1005 20:14:09.595068  9960 net.cpp:84] Creating Layer Eltwise4_PReLU9_0_split
I1005 20:14:09.595077  9960 net.cpp:406] Eltwise4_PReLU9_0_split <- Eltwise4
I1005 20:14:09.595082  9960 net.cpp:380] Eltwise4_PReLU9_0_split -> Eltwise4_PReLU9_0_split_0
I1005 20:14:09.595085  9960 net.cpp:380] Eltwise4_PReLU9_0_split -> Eltwise4_PReLU9_0_split_1
I1005 20:14:09.595111  9960 net.cpp:122] Setting up Eltwise4_PReLU9_0_split
I1005 20:14:09.595115  9960 net.cpp:129] Top shape: 100 32 16 16 (819200)
I1005 20:14:09.595118  9960 net.cpp:129] Top shape: 100 32 16 16 (819200)
I1005 20:14:09.595119  9960 net.cpp:137] Memory required for data: 302695600
I1005 20:14:09.595122  9960 layer_factory.hpp:77] Creating layer Convolution11
I1005 20:14:09.595129  9960 net.cpp:84] Creating Layer Convolution11
I1005 20:14:09.595130  9960 net.cpp:406] Convolution11 <- Eltwise4_PReLU9_0_split_0
I1005 20:14:09.595135  9960 net.cpp:380] Convolution11 -> Convolution11
I1005 20:14:09.596205  9960 net.cpp:122] Setting up Convolution11
I1005 20:14:09.596213  9960 net.cpp:129] Top shape: 100 32 16 16 (819200)
I1005 20:14:09.596215  9960 net.cpp:137] Memory required for data: 305972400
I1005 20:14:09.596220  9960 layer_factory.hpp:77] Creating layer BatchNorm11
I1005 20:14:09.596225  9960 net.cpp:84] Creating Layer BatchNorm11
I1005 20:14:09.596228  9960 net.cpp:406] BatchNorm11 <- Convolution11
I1005 20:14:09.596231  9960 net.cpp:367] BatchNorm11 -> Convolution11 (in-place)
I1005 20:14:09.596364  9960 net.cpp:122] Setting up BatchNorm11
I1005 20:14:09.596369  9960 net.cpp:129] Top shape: 100 32 16 16 (819200)
I1005 20:14:09.596371  9960 net.cpp:137] Memory required for data: 309249200
I1005 20:14:09.596375  9960 layer_factory.hpp:77] Creating layer Scale11
I1005 20:14:09.596652  9960 net.cpp:84] Creating Layer Scale11
I1005 20:14:09.596658  9960 net.cpp:406] Scale11 <- Convolution11
I1005 20:14:09.596663  9960 net.cpp:367] Scale11 -> Convolution11 (in-place)
I1005 20:14:09.596705  9960 layer_factory.hpp:77] Creating layer Scale11
I1005 20:14:09.596802  9960 net.cpp:122] Setting up Scale11
I1005 20:14:09.596807  9960 net.cpp:129] Top shape: 100 32 16 16 (819200)
I1005 20:14:09.596809  9960 net.cpp:137] Memory required for data: 312526000
I1005 20:14:09.596822  9960 layer_factory.hpp:77] Creating layer PReLU10
I1005 20:14:09.596828  9960 net.cpp:84] Creating Layer PReLU10
I1005 20:14:09.596832  9960 net.cpp:406] PReLU10 <- Convolution11
I1005 20:14:09.596834  9960 net.cpp:367] PReLU10 -> Convolution11 (in-place)
I1005 20:14:09.596895  9960 net.cpp:122] Setting up PReLU10
I1005 20:14:09.596899  9960 net.cpp:129] Top shape: 100 32 16 16 (819200)
I1005 20:14:09.596901  9960 net.cpp:137] Memory required for data: 315802800
I1005 20:14:09.596904  9960 layer_factory.hpp:77] Creating layer Convolution12
I1005 20:14:09.596911  9960 net.cpp:84] Creating Layer Convolution12
I1005 20:14:09.596913  9960 net.cpp:406] Convolution12 <- Convolution11
I1005 20:14:09.596917  9960 net.cpp:380] Convolution12 -> Convolution12
I1005 20:14:09.597653  9960 net.cpp:122] Setting up Convolution12
I1005 20:14:09.597661  9960 net.cpp:129] Top shape: 100 32 16 16 (819200)
I1005 20:14:09.597663  9960 net.cpp:137] Memory required for data: 319079600
I1005 20:14:09.597667  9960 layer_factory.hpp:77] Creating layer BatchNorm12
I1005 20:14:09.597672  9960 net.cpp:84] Creating Layer BatchNorm12
I1005 20:14:09.597674  9960 net.cpp:406] BatchNorm12 <- Convolution12
I1005 20:14:09.597678  9960 net.cpp:367] BatchNorm12 -> Convolution12 (in-place)
I1005 20:14:09.597836  9960 net.cpp:122] Setting up BatchNorm12
I1005 20:14:09.597839  9960 net.cpp:129] Top shape: 100 32 16 16 (819200)
I1005 20:14:09.597842  9960 net.cpp:137] Memory required for data: 322356400
I1005 20:14:09.597856  9960 layer_factory.hpp:77] Creating layer Scale12
I1005 20:14:09.597862  9960 net.cpp:84] Creating Layer Scale12
I1005 20:14:09.597863  9960 net.cpp:406] Scale12 <- Convolution12
I1005 20:14:09.597877  9960 net.cpp:367] Scale12 -> Convolution12 (in-place)
I1005 20:14:09.597903  9960 layer_factory.hpp:77] Creating layer Scale12
I1005 20:14:09.598002  9960 net.cpp:122] Setting up Scale12
I1005 20:14:09.598012  9960 net.cpp:129] Top shape: 100 32 16 16 (819200)
I1005 20:14:09.598016  9960 net.cpp:137] Memory required for data: 325633200
I1005 20:14:09.598018  9960 layer_factory.hpp:77] Creating layer Eltwise5
I1005 20:14:09.598022  9960 net.cpp:84] Creating Layer Eltwise5
I1005 20:14:09.598026  9960 net.cpp:406] Eltwise5 <- Eltwise4_PReLU9_0_split_1
I1005 20:14:09.598028  9960 net.cpp:406] Eltwise5 <- Convolution12
I1005 20:14:09.598032  9960 net.cpp:380] Eltwise5 -> Eltwise5
I1005 20:14:09.598047  9960 net.cpp:122] Setting up Eltwise5
I1005 20:14:09.598052  9960 net.cpp:129] Top shape: 100 32 16 16 (819200)
I1005 20:14:09.598063  9960 net.cpp:137] Memory required for data: 328910000
I1005 20:14:09.598065  9960 layer_factory.hpp:77] Creating layer PReLU11
I1005 20:14:09.598068  9960 net.cpp:84] Creating Layer PReLU11
I1005 20:14:09.598070  9960 net.cpp:406] PReLU11 <- Eltwise5
I1005 20:14:09.598073  9960 net.cpp:367] PReLU11 -> Eltwise5 (in-place)
I1005 20:14:09.598140  9960 net.cpp:122] Setting up PReLU11
I1005 20:14:09.598143  9960 net.cpp:129] Top shape: 100 32 16 16 (819200)
I1005 20:14:09.598145  9960 net.cpp:137] Memory required for data: 332186800
I1005 20:14:09.598148  9960 layer_factory.hpp:77] Creating layer Eltwise5_PReLU11_0_split
I1005 20:14:09.598152  9960 net.cpp:84] Creating Layer Eltwise5_PReLU11_0_split
I1005 20:14:09.598155  9960 net.cpp:406] Eltwise5_PReLU11_0_split <- Eltwise5
I1005 20:14:09.598157  9960 net.cpp:380] Eltwise5_PReLU11_0_split -> Eltwise5_PReLU11_0_split_0
I1005 20:14:09.598161  9960 net.cpp:380] Eltwise5_PReLU11_0_split -> Eltwise5_PReLU11_0_split_1
I1005 20:14:09.598189  9960 net.cpp:122] Setting up Eltwise5_PReLU11_0_split
I1005 20:14:09.598192  9960 net.cpp:129] Top shape: 100 32 16 16 (819200)
I1005 20:14:09.598196  9960 net.cpp:129] Top shape: 100 32 16 16 (819200)
I1005 20:14:09.598198  9960 net.cpp:137] Memory required for data: 338740400
I1005 20:14:09.598201  9960 layer_factory.hpp:77] Creating layer Convolution13
I1005 20:14:09.598206  9960 net.cpp:84] Creating Layer Convolution13
I1005 20:14:09.598209  9960 net.cpp:406] Convolution13 <- Eltwise5_PReLU11_0_split_0
I1005 20:14:09.598214  9960 net.cpp:380] Convolution13 -> Convolution13
I1005 20:14:09.599396  9960 net.cpp:122] Setting up Convolution13
I1005 20:14:09.599406  9960 net.cpp:129] Top shape: 100 32 16 16 (819200)
I1005 20:14:09.599407  9960 net.cpp:137] Memory required for data: 342017200
I1005 20:14:09.599412  9960 layer_factory.hpp:77] Creating layer BatchNorm13
I1005 20:14:09.599417  9960 net.cpp:84] Creating Layer BatchNorm13
I1005 20:14:09.599421  9960 net.cpp:406] BatchNorm13 <- Convolution13
I1005 20:14:09.599424  9960 net.cpp:367] BatchNorm13 -> Convolution13 (in-place)
I1005 20:14:09.599555  9960 net.cpp:122] Setting up BatchNorm13
I1005 20:14:09.599560  9960 net.cpp:129] Top shape: 100 32 16 16 (819200)
I1005 20:14:09.599562  9960 net.cpp:137] Memory required for data: 345294000
I1005 20:14:09.599566  9960 layer_factory.hpp:77] Creating layer Scale13
I1005 20:14:09.599570  9960 net.cpp:84] Creating Layer Scale13
I1005 20:14:09.599572  9960 net.cpp:406] Scale13 <- Convolution13
I1005 20:14:09.599576  9960 net.cpp:367] Scale13 -> Convolution13 (in-place)
I1005 20:14:09.599602  9960 layer_factory.hpp:77] Creating layer Scale13
I1005 20:14:09.599681  9960 net.cpp:122] Setting up Scale13
I1005 20:14:09.599686  9960 net.cpp:129] Top shape: 100 32 16 16 (819200)
I1005 20:14:09.599689  9960 net.cpp:137] Memory required for data: 348570800
I1005 20:14:09.599691  9960 layer_factory.hpp:77] Creating layer PReLU12
I1005 20:14:09.599695  9960 net.cpp:84] Creating Layer PReLU12
I1005 20:14:09.599697  9960 net.cpp:406] PReLU12 <- Convolution13
I1005 20:14:09.599700  9960 net.cpp:367] PReLU12 -> Convolution13 (in-place)
I1005 20:14:09.599761  9960 net.cpp:122] Setting up PReLU12
I1005 20:14:09.599764  9960 net.cpp:129] Top shape: 100 32 16 16 (819200)
I1005 20:14:09.599766  9960 net.cpp:137] Memory required for data: 351847600
I1005 20:14:09.599769  9960 layer_factory.hpp:77] Creating layer Convolution14
I1005 20:14:09.599786  9960 net.cpp:84] Creating Layer Convolution14
I1005 20:14:09.599789  9960 net.cpp:406] Convolution14 <- Convolution13
I1005 20:14:09.599793  9960 net.cpp:380] Convolution14 -> Convolution14
I1005 20:14:09.600973  9960 net.cpp:122] Setting up Convolution14
I1005 20:14:09.600981  9960 net.cpp:129] Top shape: 100 32 16 16 (819200)
I1005 20:14:09.600985  9960 net.cpp:137] Memory required for data: 355124400
I1005 20:14:09.600988  9960 layer_factory.hpp:77] Creating layer BatchNorm14
I1005 20:14:09.600992  9960 net.cpp:84] Creating Layer BatchNorm14
I1005 20:14:09.600996  9960 net.cpp:406] BatchNorm14 <- Convolution14
I1005 20:14:09.600999  9960 net.cpp:367] BatchNorm14 -> Convolution14 (in-place)
I1005 20:14:09.601130  9960 net.cpp:122] Setting up BatchNorm14
I1005 20:14:09.601135  9960 net.cpp:129] Top shape: 100 32 16 16 (819200)
I1005 20:14:09.601137  9960 net.cpp:137] Memory required for data: 358401200
I1005 20:14:09.601141  9960 layer_factory.hpp:77] Creating layer Scale14
I1005 20:14:09.601145  9960 net.cpp:84] Creating Layer Scale14
I1005 20:14:09.601148  9960 net.cpp:406] Scale14 <- Convolution14
I1005 20:14:09.601151  9960 net.cpp:367] Scale14 -> Convolution14 (in-place)
I1005 20:14:09.601178  9960 layer_factory.hpp:77] Creating layer Scale14
I1005 20:14:09.601254  9960 net.cpp:122] Setting up Scale14
I1005 20:14:09.601258  9960 net.cpp:129] Top shape: 100 32 16 16 (819200)
I1005 20:14:09.601260  9960 net.cpp:137] Memory required for data: 361678000
I1005 20:14:09.601264  9960 layer_factory.hpp:77] Creating layer Eltwise6
I1005 20:14:09.601269  9960 net.cpp:84] Creating Layer Eltwise6
I1005 20:14:09.601271  9960 net.cpp:406] Eltwise6 <- Eltwise5_PReLU11_0_split_1
I1005 20:14:09.601274  9960 net.cpp:406] Eltwise6 <- Convolution14
I1005 20:14:09.601277  9960 net.cpp:380] Eltwise6 -> Eltwise6
I1005 20:14:09.601290  9960 net.cpp:122] Setting up Eltwise6
I1005 20:14:09.601294  9960 net.cpp:129] Top shape: 100 32 16 16 (819200)
I1005 20:14:09.601295  9960 net.cpp:137] Memory required for data: 364954800
I1005 20:14:09.601297  9960 layer_factory.hpp:77] Creating layer PReLU13
I1005 20:14:09.601301  9960 net.cpp:84] Creating Layer PReLU13
I1005 20:14:09.601305  9960 net.cpp:406] PReLU13 <- Eltwise6
I1005 20:14:09.601306  9960 net.cpp:367] PReLU13 -> Eltwise6 (in-place)
I1005 20:14:09.601409  9960 net.cpp:122] Setting up PReLU13
I1005 20:14:09.601414  9960 net.cpp:129] Top shape: 100 32 16 16 (819200)
I1005 20:14:09.601416  9960 net.cpp:137] Memory required for data: 368231600
I1005 20:14:09.601418  9960 layer_factory.hpp:77] Creating layer Eltwise6_PReLU13_0_split
I1005 20:14:09.601423  9960 net.cpp:84] Creating Layer Eltwise6_PReLU13_0_split
I1005 20:14:09.601424  9960 net.cpp:406] Eltwise6_PReLU13_0_split <- Eltwise6
I1005 20:14:09.601428  9960 net.cpp:380] Eltwise6_PReLU13_0_split -> Eltwise6_PReLU13_0_split_0
I1005 20:14:09.601433  9960 net.cpp:380] Eltwise6_PReLU13_0_split -> Eltwise6_PReLU13_0_split_1
I1005 20:14:09.601454  9960 net.cpp:122] Setting up Eltwise6_PReLU13_0_split
I1005 20:14:09.601459  9960 net.cpp:129] Top shape: 100 32 16 16 (819200)
I1005 20:14:09.601461  9960 net.cpp:129] Top shape: 100 32 16 16 (819200)
I1005 20:14:09.601464  9960 net.cpp:137] Memory required for data: 374785200
I1005 20:14:09.601465  9960 layer_factory.hpp:77] Creating layer Convolution15
I1005 20:14:09.601474  9960 net.cpp:84] Creating Layer Convolution15
I1005 20:14:09.601475  9960 net.cpp:406] Convolution15 <- Eltwise6_PReLU13_0_split_0
I1005 20:14:09.601480  9960 net.cpp:380] Convolution15 -> Convolution15
I1005 20:14:09.602381  9960 net.cpp:122] Setting up Convolution15
I1005 20:14:09.602390  9960 net.cpp:129] Top shape: 100 64 8 8 (409600)
I1005 20:14:09.602392  9960 net.cpp:137] Memory required for data: 376423600
I1005 20:14:09.602396  9960 layer_factory.hpp:77] Creating layer BatchNorm15
I1005 20:14:09.602401  9960 net.cpp:84] Creating Layer BatchNorm15
I1005 20:14:09.602404  9960 net.cpp:406] BatchNorm15 <- Convolution15
I1005 20:14:09.602407  9960 net.cpp:367] BatchNorm15 -> Convolution15 (in-place)
I1005 20:14:09.602589  9960 net.cpp:122] Setting up BatchNorm15
I1005 20:14:09.602594  9960 net.cpp:129] Top shape: 100 64 8 8 (409600)
I1005 20:14:09.602597  9960 net.cpp:137] Memory required for data: 378062000
I1005 20:14:09.602602  9960 layer_factory.hpp:77] Creating layer Scale15
I1005 20:14:09.602607  9960 net.cpp:84] Creating Layer Scale15
I1005 20:14:09.602608  9960 net.cpp:406] Scale15 <- Convolution15
I1005 20:14:09.602612  9960 net.cpp:367] Scale15 -> Convolution15 (in-place)
I1005 20:14:09.602639  9960 layer_factory.hpp:77] Creating layer Scale15
I1005 20:14:09.602716  9960 net.cpp:122] Setting up Scale15
I1005 20:14:09.602720  9960 net.cpp:129] Top shape: 100 64 8 8 (409600)
I1005 20:14:09.602723  9960 net.cpp:137] Memory required for data: 379700400
I1005 20:14:09.602726  9960 layer_factory.hpp:77] Creating layer Convolution16
I1005 20:14:09.602733  9960 net.cpp:84] Creating Layer Convolution16
I1005 20:14:09.602736  9960 net.cpp:406] Convolution16 <- Eltwise6_PReLU13_0_split_1
I1005 20:14:09.602741  9960 net.cpp:380] Convolution16 -> Convolution16
I1005 20:14:09.603993  9960 net.cpp:122] Setting up Convolution16
I1005 20:14:09.604001  9960 net.cpp:129] Top shape: 100 64 8 8 (409600)
I1005 20:14:09.604004  9960 net.cpp:137] Memory required for data: 381338800
I1005 20:14:09.604008  9960 layer_factory.hpp:77] Creating layer BatchNorm16
I1005 20:14:09.604012  9960 net.cpp:84] Creating Layer BatchNorm16
I1005 20:14:09.604015  9960 net.cpp:406] BatchNorm16 <- Convolution16
I1005 20:14:09.604020  9960 net.cpp:367] BatchNorm16 -> Convolution16 (in-place)
I1005 20:14:09.604156  9960 net.cpp:122] Setting up BatchNorm16
I1005 20:14:09.604161  9960 net.cpp:129] Top shape: 100 64 8 8 (409600)
I1005 20:14:09.604163  9960 net.cpp:137] Memory required for data: 382977200
I1005 20:14:09.604167  9960 layer_factory.hpp:77] Creating layer Scale16
I1005 20:14:09.604171  9960 net.cpp:84] Creating Layer Scale16
I1005 20:14:09.604173  9960 net.cpp:406] Scale16 <- Convolution16
I1005 20:14:09.604178  9960 net.cpp:367] Scale16 -> Convolution16 (in-place)
I1005 20:14:09.604205  9960 layer_factory.hpp:77] Creating layer Scale16
I1005 20:14:09.604282  9960 net.cpp:122] Setting up Scale16
I1005 20:14:09.604286  9960 net.cpp:129] Top shape: 100 64 8 8 (409600)
I1005 20:14:09.604288  9960 net.cpp:137] Memory required for data: 384615600
I1005 20:14:09.604292  9960 layer_factory.hpp:77] Creating layer PReLU14
I1005 20:14:09.604295  9960 net.cpp:84] Creating Layer PReLU14
I1005 20:14:09.604297  9960 net.cpp:406] PReLU14 <- Convolution16
I1005 20:14:09.604301  9960 net.cpp:367] PReLU14 -> Convolution16 (in-place)
I1005 20:14:09.604360  9960 net.cpp:122] Setting up PReLU14
I1005 20:14:09.604364  9960 net.cpp:129] Top shape: 100 64 8 8 (409600)
I1005 20:14:09.604367  9960 net.cpp:137] Memory required for data: 386254000
I1005 20:14:09.604369  9960 layer_factory.hpp:77] Creating layer Convolution17
I1005 20:14:09.604375  9960 net.cpp:84] Creating Layer Convolution17
I1005 20:14:09.604378  9960 net.cpp:406] Convolution17 <- Convolution16
I1005 20:14:09.604382  9960 net.cpp:380] Convolution17 -> Convolution17
I1005 20:14:09.606039  9960 net.cpp:122] Setting up Convolution17
I1005 20:14:09.606047  9960 net.cpp:129] Top shape: 100 64 8 8 (409600)
I1005 20:14:09.606050  9960 net.cpp:137] Memory required for data: 387892400
I1005 20:14:09.606053  9960 layer_factory.hpp:77] Creating layer BatchNorm17
I1005 20:14:09.606058  9960 net.cpp:84] Creating Layer BatchNorm17
I1005 20:14:09.606060  9960 net.cpp:406] BatchNorm17 <- Convolution17
I1005 20:14:09.606065  9960 net.cpp:367] BatchNorm17 -> Convolution17 (in-place)
I1005 20:14:09.606201  9960 net.cpp:122] Setting up BatchNorm17
I1005 20:14:09.606206  9960 net.cpp:129] Top shape: 100 64 8 8 (409600)
I1005 20:14:09.606209  9960 net.cpp:137] Memory required for data: 389530800
I1005 20:14:09.606225  9960 layer_factory.hpp:77] Creating layer Scale17
I1005 20:14:09.606230  9960 net.cpp:84] Creating Layer Scale17
I1005 20:14:09.606231  9960 net.cpp:406] Scale17 <- Convolution17
I1005 20:14:09.606242  9960 net.cpp:367] Scale17 -> Convolution17 (in-place)
I1005 20:14:09.606273  9960 layer_factory.hpp:77] Creating layer Scale17
I1005 20:14:09.606351  9960 net.cpp:122] Setting up Scale17
I1005 20:14:09.606355  9960 net.cpp:129] Top shape: 100 64 8 8 (409600)
I1005 20:14:09.606357  9960 net.cpp:137] Memory required for data: 391169200
I1005 20:14:09.606361  9960 layer_factory.hpp:77] Creating layer Eltwise7
I1005 20:14:09.606365  9960 net.cpp:84] Creating Layer Eltwise7
I1005 20:14:09.606367  9960 net.cpp:406] Eltwise7 <- Convolution15
I1005 20:14:09.606370  9960 net.cpp:406] Eltwise7 <- Convolution17
I1005 20:14:09.606374  9960 net.cpp:380] Eltwise7 -> Eltwise7
I1005 20:14:09.606390  9960 net.cpp:122] Setting up Eltwise7
I1005 20:14:09.606395  9960 net.cpp:129] Top shape: 100 64 8 8 (409600)
I1005 20:14:09.606396  9960 net.cpp:137] Memory required for data: 392807600
I1005 20:14:09.606398  9960 layer_factory.hpp:77] Creating layer PReLU15
I1005 20:14:09.606401  9960 net.cpp:84] Creating Layer PReLU15
I1005 20:14:09.606405  9960 net.cpp:406] PReLU15 <- Eltwise7
I1005 20:14:09.606407  9960 net.cpp:367] PReLU15 -> Eltwise7 (in-place)
I1005 20:14:09.606467  9960 net.cpp:122] Setting up PReLU15
I1005 20:14:09.606470  9960 net.cpp:129] Top shape: 100 64 8 8 (409600)
I1005 20:14:09.606472  9960 net.cpp:137] Memory required for data: 394446000
I1005 20:14:09.606474  9960 layer_factory.hpp:77] Creating layer Eltwise7_PReLU15_0_split
I1005 20:14:09.627004  9960 net.cpp:84] Creating Layer Eltwise7_PReLU15_0_split
I1005 20:14:09.627012  9960 net.cpp:406] Eltwise7_PReLU15_0_split <- Eltwise7
I1005 20:14:09.627017  9960 net.cpp:380] Eltwise7_PReLU15_0_split -> Eltwise7_PReLU15_0_split_0
I1005 20:14:09.627027  9960 net.cpp:380] Eltwise7_PReLU15_0_split -> Eltwise7_PReLU15_0_split_1
I1005 20:14:09.627069  9960 net.cpp:122] Setting up Eltwise7_PReLU15_0_split
I1005 20:14:09.627077  9960 net.cpp:129] Top shape: 100 64 8 8 (409600)
I1005 20:14:09.627082  9960 net.cpp:129] Top shape: 100 64 8 8 (409600)
I1005 20:14:09.627086  9960 net.cpp:137] Memory required for data: 397722800
I1005 20:14:09.627090  9960 layer_factory.hpp:77] Creating layer Convolution18
I1005 20:14:09.627101  9960 net.cpp:84] Creating Layer Convolution18
I1005 20:14:09.627106  9960 net.cpp:406] Convolution18 <- Eltwise7_PReLU15_0_split_0
I1005 20:14:09.627115  9960 net.cpp:380] Convolution18 -> Convolution18
I1005 20:14:09.629391  9960 net.cpp:122] Setting up Convolution18
I1005 20:14:09.629402  9960 net.cpp:129] Top shape: 100 64 8 8 (409600)
I1005 20:14:09.629407  9960 net.cpp:137] Memory required for data: 399361200
I1005 20:14:09.629415  9960 layer_factory.hpp:77] Creating layer BatchNorm18
I1005 20:14:09.629421  9960 net.cpp:84] Creating Layer BatchNorm18
I1005 20:14:09.629426  9960 net.cpp:406] BatchNorm18 <- Convolution18
I1005 20:14:09.629433  9960 net.cpp:367] BatchNorm18 -> Convolution18 (in-place)
I1005 20:14:09.629621  9960 net.cpp:122] Setting up BatchNorm18
I1005 20:14:09.629626  9960 net.cpp:129] Top shape: 100 64 8 8 (409600)
I1005 20:14:09.629627  9960 net.cpp:137] Memory required for data: 400999600
I1005 20:14:09.629632  9960 layer_factory.hpp:77] Creating layer Scale18
I1005 20:14:09.629637  9960 net.cpp:84] Creating Layer Scale18
I1005 20:14:09.629639  9960 net.cpp:406] Scale18 <- Convolution18
I1005 20:14:09.629642  9960 net.cpp:367] Scale18 -> Convolution18 (in-place)
I1005 20:14:09.629670  9960 layer_factory.hpp:77] Creating layer Scale18
I1005 20:14:09.629748  9960 net.cpp:122] Setting up Scale18
I1005 20:14:09.629752  9960 net.cpp:129] Top shape: 100 64 8 8 (409600)
I1005 20:14:09.629755  9960 net.cpp:137] Memory required for data: 402638000
I1005 20:14:09.629758  9960 layer_factory.hpp:77] Creating layer PReLU16
I1005 20:14:09.629762  9960 net.cpp:84] Creating Layer PReLU16
I1005 20:14:09.629765  9960 net.cpp:406] PReLU16 <- Convolution18
I1005 20:14:09.629767  9960 net.cpp:367] PReLU16 -> Convolution18 (in-place)
I1005 20:14:09.629828  9960 net.cpp:122] Setting up PReLU16
I1005 20:14:09.629833  9960 net.cpp:129] Top shape: 100 64 8 8 (409600)
I1005 20:14:09.629842  9960 net.cpp:137] Memory required for data: 404276400
I1005 20:14:09.629845  9960 layer_factory.hpp:77] Creating layer Convolution19
I1005 20:14:09.629851  9960 net.cpp:84] Creating Layer Convolution19
I1005 20:14:09.629854  9960 net.cpp:406] Convolution19 <- Convolution18
I1005 20:14:09.629858  9960 net.cpp:380] Convolution19 -> Convolution19
I1005 20:14:09.631673  9960 net.cpp:122] Setting up Convolution19
I1005 20:14:09.631682  9960 net.cpp:129] Top shape: 100 64 8 8 (409600)
I1005 20:14:09.631685  9960 net.cpp:137] Memory required for data: 405914800
I1005 20:14:09.631690  9960 layer_factory.hpp:77] Creating layer BatchNorm19
I1005 20:14:09.631695  9960 net.cpp:84] Creating Layer BatchNorm19
I1005 20:14:09.631697  9960 net.cpp:406] BatchNorm19 <- Convolution19
I1005 20:14:09.631701  9960 net.cpp:367] BatchNorm19 -> Convolution19 (in-place)
I1005 20:14:09.631840  9960 net.cpp:122] Setting up BatchNorm19
I1005 20:14:09.631844  9960 net.cpp:129] Top shape: 100 64 8 8 (409600)
I1005 20:14:09.631846  9960 net.cpp:137] Memory required for data: 407553200
I1005 20:14:09.631851  9960 layer_factory.hpp:77] Creating layer Scale19
I1005 20:14:09.631855  9960 net.cpp:84] Creating Layer Scale19
I1005 20:14:09.631857  9960 net.cpp:406] Scale19 <- Convolution19
I1005 20:14:09.631860  9960 net.cpp:367] Scale19 -> Convolution19 (in-place)
I1005 20:14:09.631888  9960 layer_factory.hpp:77] Creating layer Scale19
I1005 20:14:09.631968  9960 net.cpp:122] Setting up Scale19
I1005 20:14:09.631971  9960 net.cpp:129] Top shape: 100 64 8 8 (409600)
I1005 20:14:09.631973  9960 net.cpp:137] Memory required for data: 409191600
I1005 20:14:09.631978  9960 layer_factory.hpp:77] Creating layer Eltwise8
I1005 20:14:09.631981  9960 net.cpp:84] Creating Layer Eltwise8
I1005 20:14:09.631984  9960 net.cpp:406] Eltwise8 <- Eltwise7_PReLU15_0_split_1
I1005 20:14:09.631986  9960 net.cpp:406] Eltwise8 <- Convolution19
I1005 20:14:09.631989  9960 net.cpp:380] Eltwise8 -> Eltwise8
I1005 20:14:09.632006  9960 net.cpp:122] Setting up Eltwise8
I1005 20:14:09.632010  9960 net.cpp:129] Top shape: 100 64 8 8 (409600)
I1005 20:14:09.632012  9960 net.cpp:137] Memory required for data: 410830000
I1005 20:14:09.632014  9960 layer_factory.hpp:77] Creating layer PReLU17
I1005 20:14:09.632019  9960 net.cpp:84] Creating Layer PReLU17
I1005 20:14:09.632021  9960 net.cpp:406] PReLU17 <- Eltwise8
I1005 20:14:09.632024  9960 net.cpp:367] PReLU17 -> Eltwise8 (in-place)
I1005 20:14:09.632083  9960 net.cpp:122] Setting up PReLU17
I1005 20:14:09.632087  9960 net.cpp:129] Top shape: 100 64 8 8 (409600)
I1005 20:14:09.632089  9960 net.cpp:137] Memory required for data: 412468400
I1005 20:14:09.632092  9960 layer_factory.hpp:77] Creating layer Eltwise8_PReLU17_0_split
I1005 20:14:09.632095  9960 net.cpp:84] Creating Layer Eltwise8_PReLU17_0_split
I1005 20:14:09.632097  9960 net.cpp:406] Eltwise8_PReLU17_0_split <- Eltwise8
I1005 20:14:09.632102  9960 net.cpp:380] Eltwise8_PReLU17_0_split -> Eltwise8_PReLU17_0_split_0
I1005 20:14:09.632105  9960 net.cpp:380] Eltwise8_PReLU17_0_split -> Eltwise8_PReLU17_0_split_1
I1005 20:14:09.632128  9960 net.cpp:122] Setting up Eltwise8_PReLU17_0_split
I1005 20:14:09.632133  9960 net.cpp:129] Top shape: 100 64 8 8 (409600)
I1005 20:14:09.632135  9960 net.cpp:129] Top shape: 100 64 8 8 (409600)
I1005 20:14:09.632138  9960 net.cpp:137] Memory required for data: 415745200
I1005 20:14:09.632139  9960 layer_factory.hpp:77] Creating layer Convolution20
I1005 20:14:09.632146  9960 net.cpp:84] Creating Layer Convolution20
I1005 20:14:09.632148  9960 net.cpp:406] Convolution20 <- Eltwise8_PReLU17_0_split_0
I1005 20:14:09.632153  9960 net.cpp:380] Convolution20 -> Convolution20
I1005 20:14:09.634109  9960 net.cpp:122] Setting up Convolution20
I1005 20:14:09.634117  9960 net.cpp:129] Top shape: 100 64 8 8 (409600)
I1005 20:14:09.634119  9960 net.cpp:137] Memory required for data: 417383600
I1005 20:14:09.634124  9960 layer_factory.hpp:77] Creating layer BatchNorm20
I1005 20:14:09.634130  9960 net.cpp:84] Creating Layer BatchNorm20
I1005 20:14:09.634140  9960 net.cpp:406] BatchNorm20 <- Convolution20
I1005 20:14:09.634145  9960 net.cpp:367] BatchNorm20 -> Convolution20 (in-place)
I1005 20:14:09.634284  9960 net.cpp:122] Setting up BatchNorm20
I1005 20:14:09.634289  9960 net.cpp:129] Top shape: 100 64 8 8 (409600)
I1005 20:14:09.634291  9960 net.cpp:137] Memory required for data: 419022000
I1005 20:14:09.634296  9960 layer_factory.hpp:77] Creating layer Scale20
I1005 20:14:09.634300  9960 net.cpp:84] Creating Layer Scale20
I1005 20:14:09.634304  9960 net.cpp:406] Scale20 <- Convolution20
I1005 20:14:09.634306  9960 net.cpp:367] Scale20 -> Convolution20 (in-place)
I1005 20:14:09.634335  9960 layer_factory.hpp:77] Creating layer Scale20
I1005 20:14:09.634413  9960 net.cpp:122] Setting up Scale20
I1005 20:14:09.634418  9960 net.cpp:129] Top shape: 100 64 8 8 (409600)
I1005 20:14:09.634420  9960 net.cpp:137] Memory required for data: 420660400
I1005 20:14:09.634424  9960 layer_factory.hpp:77] Creating layer PReLU18
I1005 20:14:09.634428  9960 net.cpp:84] Creating Layer PReLU18
I1005 20:14:09.634430  9960 net.cpp:406] PReLU18 <- Convolution20
I1005 20:14:09.634434  9960 net.cpp:367] PReLU18 -> Convolution20 (in-place)
I1005 20:14:09.634505  9960 net.cpp:122] Setting up PReLU18
I1005 20:14:09.634523  9960 net.cpp:129] Top shape: 100 64 8 8 (409600)
I1005 20:14:09.634527  9960 net.cpp:137] Memory required for data: 422298800
I1005 20:14:09.634531  9960 layer_factory.hpp:77] Creating layer Convolution21
I1005 20:14:09.634537  9960 net.cpp:84] Creating Layer Convolution21
I1005 20:14:09.634541  9960 net.cpp:406] Convolution21 <- Convolution20
I1005 20:14:09.634544  9960 net.cpp:380] Convolution21 -> Convolution21
I1005 20:14:09.636544  9960 net.cpp:122] Setting up Convolution21
I1005 20:14:09.636553  9960 net.cpp:129] Top shape: 100 64 8 8 (409600)
I1005 20:14:09.636555  9960 net.cpp:137] Memory required for data: 423937200
I1005 20:14:09.636559  9960 layer_factory.hpp:77] Creating layer BatchNorm21
I1005 20:14:09.636564  9960 net.cpp:84] Creating Layer BatchNorm21
I1005 20:14:09.636566  9960 net.cpp:406] BatchNorm21 <- Convolution21
I1005 20:14:09.636571  9960 net.cpp:367] BatchNorm21 -> Convolution21 (in-place)
I1005 20:14:09.636711  9960 net.cpp:122] Setting up BatchNorm21
I1005 20:14:09.636715  9960 net.cpp:129] Top shape: 100 64 8 8 (409600)
I1005 20:14:09.636718  9960 net.cpp:137] Memory required for data: 425575600
I1005 20:14:09.636723  9960 layer_factory.hpp:77] Creating layer Scale21
I1005 20:14:09.636726  9960 net.cpp:84] Creating Layer Scale21
I1005 20:14:09.636729  9960 net.cpp:406] Scale21 <- Convolution21
I1005 20:14:09.636732  9960 net.cpp:367] Scale21 -> Convolution21 (in-place)
I1005 20:14:09.636759  9960 layer_factory.hpp:77] Creating layer Scale21
I1005 20:14:09.636838  9960 net.cpp:122] Setting up Scale21
I1005 20:14:09.636842  9960 net.cpp:129] Top shape: 100 64 8 8 (409600)
I1005 20:14:09.636844  9960 net.cpp:137] Memory required for data: 427214000
I1005 20:14:09.636848  9960 layer_factory.hpp:77] Creating layer Eltwise9
I1005 20:14:09.636852  9960 net.cpp:84] Creating Layer Eltwise9
I1005 20:14:09.636854  9960 net.cpp:406] Eltwise9 <- Eltwise8_PReLU17_0_split_1
I1005 20:14:09.636857  9960 net.cpp:406] Eltwise9 <- Convolution21
I1005 20:14:09.636862  9960 net.cpp:380] Eltwise9 -> Eltwise9
I1005 20:14:09.636878  9960 net.cpp:122] Setting up Eltwise9
I1005 20:14:09.636883  9960 net.cpp:129] Top shape: 100 64 8 8 (409600)
I1005 20:14:09.636884  9960 net.cpp:137] Memory required for data: 428852400
I1005 20:14:09.636886  9960 layer_factory.hpp:77] Creating layer PReLU19
I1005 20:14:09.636889  9960 net.cpp:84] Creating Layer PReLU19
I1005 20:14:09.636891  9960 net.cpp:406] PReLU19 <- Eltwise9
I1005 20:14:09.636894  9960 net.cpp:367] PReLU19 -> Eltwise9 (in-place)
I1005 20:14:09.636956  9960 net.cpp:122] Setting up PReLU19
I1005 20:14:09.636960  9960 net.cpp:129] Top shape: 100 64 8 8 (409600)
I1005 20:14:09.636962  9960 net.cpp:137] Memory required for data: 430490800
I1005 20:14:09.636965  9960 layer_factory.hpp:77] Creating layer Pooling1
I1005 20:14:09.636977  9960 net.cpp:84] Creating Layer Pooling1
I1005 20:14:09.636981  9960 net.cpp:406] Pooling1 <- Eltwise9
I1005 20:14:09.636983  9960 net.cpp:380] Pooling1 -> Pooling1
I1005 20:14:09.637117  9960 net.cpp:122] Setting up Pooling1
I1005 20:14:09.637123  9960 net.cpp:129] Top shape: 100 64 1 1 (6400)
I1005 20:14:09.637125  9960 net.cpp:137] Memory required for data: 430516400
I1005 20:14:09.637127  9960 layer_factory.hpp:77] Creating layer InnerProduct1
I1005 20:14:09.637133  9960 net.cpp:84] Creating Layer InnerProduct1
I1005 20:14:09.637135  9960 net.cpp:406] InnerProduct1 <- Pooling1
I1005 20:14:09.637140  9960 net.cpp:380] InnerProduct1 -> InnerProduct1
I1005 20:14:09.637238  9960 net.cpp:122] Setting up InnerProduct1
I1005 20:14:09.637243  9960 net.cpp:129] Top shape: 100 10 (1000)
I1005 20:14:09.637244  9960 net.cpp:137] Memory required for data: 430520400
I1005 20:14:09.637248  9960 layer_factory.hpp:77] Creating layer InnerProduct1_InnerProduct1_0_split
I1005 20:14:09.637253  9960 net.cpp:84] Creating Layer InnerProduct1_InnerProduct1_0_split
I1005 20:14:09.637254  9960 net.cpp:406] InnerProduct1_InnerProduct1_0_split <- InnerProduct1
I1005 20:14:09.637257  9960 net.cpp:380] InnerProduct1_InnerProduct1_0_split -> InnerProduct1_InnerProduct1_0_split_0
I1005 20:14:09.637262  9960 net.cpp:380] InnerProduct1_InnerProduct1_0_split -> InnerProduct1_InnerProduct1_0_split_1
I1005 20:14:09.637289  9960 net.cpp:122] Setting up InnerProduct1_InnerProduct1_0_split
I1005 20:14:09.637292  9960 net.cpp:129] Top shape: 100 10 (1000)
I1005 20:14:09.637295  9960 net.cpp:129] Top shape: 100 10 (1000)
I1005 20:14:09.637297  9960 net.cpp:137] Memory required for data: 430528400
I1005 20:14:09.637300  9960 layer_factory.hpp:77] Creating layer SoftmaxWithLoss1
I1005 20:14:09.637303  9960 net.cpp:84] Creating Layer SoftmaxWithLoss1
I1005 20:14:09.637305  9960 net.cpp:406] SoftmaxWithLoss1 <- InnerProduct1_InnerProduct1_0_split_0
I1005 20:14:09.637308  9960 net.cpp:406] SoftmaxWithLoss1 <- Data2_Data1_1_split_0
…
