…
I1005 15:22:12.958356  9606 net.cpp:294] The NetState phase (0) differed from the phase (1) specified by a rule in layer Accuracy1
I1005 15:22:12.958844  9606 net.cpp:51] Initializing net from parameters: 
name: "resnet_cifar10"
state {
  phase: TRAIN
  level: 0
  stage: ""
}
layer {
  name: "Data1"
  type: "Data"
  top: "Data1"
  top: "Data2"
  include {
    phase: TRAIN
  }
  transform_param {
    mirror: true
    crop_size: 28
    mean_file: "/home/x306/caffe/xn/PENLU/data/cifar10/mean.binaryproto"
  }
  data_param {
    source: "/home/x306/caffe/xn/PENLU/data/cifar10/cifar10_train_lmdb"
    batch_size: 100
    backend: LMDB
  }
}
layer {
  name: "Convolution1"
  type: "Convolution"
  bottom: "Data1"
  top: "Convolution1"
  param {
    lr_mult: 1
    decay_mult: 1
  }
  param {
    lr_mult: 2
    decay_mult: 0
  }
  convolution_param {
    num_output: 16
    pad: 1
    kernel_size: 3
    stride: 1
    weight_filler {
      type: "gaussian"
      std: 0.118
    }
    bias_filler {
      type: "constant"
      value: 0
    }
  }
}
layer {
  name: "BatchNorm1"
  type: "BatchNorm"
  bottom: "Convolution1"
  top: "Convolution1"
  param {
    lr_mult: 0
    decay_mult: 0
  }
  param {
    lr_mult: 0
    decay_mult: 0
  }
  param {
    lr_mult: 0
    decay_mult: 0
  }
}
layer {
  name: "Scale1"
  type: "Scale"
  bottom: "Convolution1"
  top: "Convolution1"
  scale_param {
    bias_term: true
  }
}
layer {
  name: "penlu1"
  type: "PENLU"
  bottom: "Convolution1"
  top: "Convolution1"
  param {
    lr_mult: 2
    decay_mult: 2
  }
  param {
    lr_mult: 2
    decay_mult: 2
  }
  param {
    lr_mult: 0
    decay_mult: 0
  }
  penlu_param {
    alpha_filler {
      type: "constant"
      value: 1
    }
    beta_filler {
      type: "constant"
      value: 1
    }
    eta_filler {
      type: "constant"
      value: 1
    }
  }
}
layer {
  name: "Convolution2"
  type: "Convolution"
  bottom: "Convolution1"
  top: "Convolution2"
  param {
    lr_mult: 1
    decay_mult: 1
  }
  param {
    lr_mult: 2
    decay_mult: 0
  }
  convolution_param {
    num_output: 16
    pad: 1
    kernel_size: 3
    stride: 1
    weight_filler {
      type: "gaussian"
      std: 0.118
    }
    bias_filler {
      type: "constant"
      value: 0
    }
  }
}
layer {
  name: "BatchNorm2"
  type: "BatchNorm"
  bottom: "Convolution2"
  top: "Convolution2"
  param {
    lr_mult: 0
    decay_mult: 0
  }
  param {
    lr_mult: 0
    decay_mult: 0
  }
  param {
    lr_mult: 0
    decay_mult: 0
  }
}
layer {
  name: "Scale2"
  type: "Scale"
  bottom: "Convolution2"
  top: "Convolution2"
  scale_param {
    bias_term: true
  }
}
layer {
  name: "penlu2"
  type: "PENLU"
  bottom: "Convolution2"
  top: "Convolution2"
  param {
    lr_mult: 2
    decay_mult: 2
  }
  param {
    lr_mult: 2
    decay_mult: 2
  }
  param {
    lr_mult: 0
    decay_mult: 0
  }
  penlu_param {
    alpha_filler {
      type: "constant"
      value: 1
    }
    beta_filler {
      type: "constant"
      value: 1
    }
    eta_filler {
      type: "constant"
      value: 1
    }
  }
}
layer {
  name: "Convolution3"
  type: "Convolution"
  bottom: "Convolution2"
  top: "Convolution3"
  param {
    lr_mult: 1
    decay_mult: 1
  }
  param {
    lr_mult: 2
    decay_mult: 0
  }
  convolution_param {
    num_output: 16
    pad: 1
    kernel_size: 3
    stride: 1
    weight_filler {
      type: "gaussian"
      std: 0.118
    }
    bias_filler {
      type: "constant"
      value: 0
    }
  }
}
layer {
  name: "BatchNorm3"
  type: "BatchNorm"
  bottom: "Convolution3"
  top: "Convolution3"
  param {
    lr_mult: 0
    decay_mult: 0
  }
  param {
    lr_mult: 0
    decay_mult: 0
  }
  param {
    lr_mult: 0
    decay_mult: 0
  }
}
layer {
  name: "Scale3"
  type: "Scale"
  bottom: "Convolution3"
  top: "Convolution3"
  scale_param {
    bias_term: true
  }
}
layer {
  name: "Eltwise1"
  type: "Eltwise"
  bottom: "Convolution1"
  bottom: "Convolution3"
  top: "Eltwise1"
  eltwise_param {
    operation: SUM
  }
}
layer {
  name: "penlu3"
  type: "PENLU"
  bottom: "Eltwise1"
  top: "Eltwise1"
  param {
    lr_mult: 2
    decay_mult: 2
  }
  param {
    lr_mult: 2
    decay_mult: 2
  }
  param {
    lr_mult: 0
    decay_mult: 0
  }
  penlu_param {
    alpha_filler {
      type: "constant"
      value: 1
    }
    beta_filler {
      type: "constant"
      value: 1
    }
    eta_filler {
      type: "constant"
      value: 1
    }
  }
}
layer {
  name: "Convolution4"
  type: "Convolution"
  bottom: "Eltwise1"
  top: "Convolution4"
  param {
    lr_mult: 1
    decay_mult: 1
  }
  param {
    lr_mult: 2
    decay_mult: 0
  }
  convolution_param {
    num_output: 16
    pad: 1
    kernel_size: 3
    stride: 1
    weight_filler {
      type: "gaussian"
      std: 0.118
    }
    bias_filler {
      type: "constant"
      value: 0
    }
  }
}
layer {
  name: "BatchNorm4"
  type: "BatchNorm"
  bottom: "Convolution4"
  top: "Convolution4"
  param {
    lr_mult: 0
    decay_mult: 0
  }
  param {
    lr_mult: 0
    decay_mult: 0
  }
  param {
    lr_mult: 0
    decay_mult: 0
  }
}
layer {
  name: "Scale4"
  type: "Scale"
  bottom: "Convolution4"
  top: "Convolution4"
  scale_param {
    bias_term: true
  }
}
layer {
  name: "penlu4"
  type: "PENLU"
  bottom: "Convolution4"
  top: "Convolution4"
  param {
    lr_mult: 2
    decay_mult: 2
  }
  param {
    lr_mult: 2
    decay_mult: 2
  }
  param {
    lr_mult: 0
    decay_mult: 0
  }
  penlu_param {
    alpha_filler {
      type: "constant"
      value: 1
    }
    beta_filler {
      type: "constant"
      value: 1
    }
    eta_filler {
      type: "constant"
      value: 1
    }
  }
}
layer {
  name: "Convolution5"
  type: "Convolution"
  bottom: "Convolution4"
  top: "Convolution5"
  param {
    lr_mult: 1
    decay_mult: 1
  }
  param {
    lr_mult: 2
    decay_mult: 0
  }
  convolution_param {
    num_output: 16
    pad: 1
    kernel_size: 3
    stride: 1
    weight_filler {
      type: "gaussian"
      std: 0.118
    }
    bias_filler {
      type: "constant"
      value: 0
    }
  }
}
layer {
  name: "BatchNorm5"
  type: "BatchNorm"
  bottom: "Convolution5"
  top: "Convolution5"
  param {
    lr_mult: 0
    decay_mult: 0
  }
  param {
    lr_mult: 0
    decay_mult: 0
  }
  param {
    lr_mult: 0
    decay_mult: 0
  }
}
layer {
  name: "Scale5"
  type: "Scale"
  bottom: "Convolution5"
  top: "Convolution5"
  scale_param {
    bias_term: true
  }
}
layer {
  name: "Eltwise2"
  type: "Eltwise"
  bottom: "Eltwise1"
  bottom: "Convolution5"
  top: "Eltwise2"
  eltwise_param {
    operation: SUM
  }
}
layer {
  name: "penlu5"
  type: "PENLU"
  bottom: "Eltwise2"
  top: "Eltwise2"
  param {
    lr_mult: 2
    decay_mult: 2
  }
  param {
    lr_mult: 2
    decay_mult: 2
  }
  param {
    lr_mult: 0
    decay_mult: 0
  }
  penlu_param {
    alpha_filler {
      type: "constant"
      value: 1
    }
    beta_filler {
      type: "constant"
      value: 1
    }
    eta_filler {
      type: "constant"
      value: 1
    }
  }
}
layer {
  name: "Convolution6"
  type: "Convolution"
  bottom: "Eltwise2"
  top: "Convolution6"
  param {
    lr_mult: 1
    decay_mult: 1
  }
  param {
    lr_mult: 2
    decay_mult: 0
  }
  convolution_param {
    num_output: 16
    pad: 1
    kernel_size: 3
    stride: 1
    weight_filler {
      type: "gaussian"
      std: 0.118
    }
    bias_filler {
      type: "constant"
      value: 0
    }
  }
}
layer {
  name: "BatchNorm6"
  type: "BatchNorm"
  bottom: "Convolution6"
  top: "Convolution6"
  param {
    lr_mult: 0
    decay_mult: 0
  }
  param {
    lr_mult: 0
    decay_mult: 0
  }
  param {
    lr_mult: 0
    decay_mult: 0
  }
}
layer {
  name: "Scale6"
  type: "Scale"
  bottom: "Convolution6"
  top: "Convolution6"
  scale_param {
    bias_term: true
  }
}
layer {
  name: "penlu6"
  type: "PENLU"
  bottom: "Convolution6"
  top: "Convolution6"
  param {
    lr_mult: 2
    decay_mult: 2
  }
  param {
    lr_mult: 2
    decay_mult: 2
  }
  param {
    lr_mult: 0
    decay_mult: 0
  }
  penlu_param {
    alpha_filler {
      type: "constant"
      value: 1
    }
    beta_filler {
      type: "constant"
      value: 1
    }
    eta_filler {
      type: "constant"
      value: 1
    }
  }
}
layer {
  name: "Convolution7"
  type: "Convolution"
  bottom: "Convolution6"
  top: "Convolution7"
  param {
    lr_mult: 1
    decay_mult: 1
  }
  param {
    lr_mult: 2
    decay_mult: 0
  }
  convolution_param {
    num_output: 16
    pad: 1
    kernel_size: 3
    stride: 1
    weight_filler {
      type: "gaussian"
      std: 0.118
    }
    bias_filler {
      type: "constant"
      value: 0
    }
  }
}
layer {
  name: "BatchNorm7"
  type: "BatchNorm"
  bottom: "Convolution7"
  top: "Convolution7"
  param {
    lr_mult: 0
    decay_mult: 0
  }
  param {
    lr_mult: 0
    decay_mult: 0
  }
  param {
    lr_mult: 0
    decay_mult: 0
  }
}
layer {
  name: "Scale7"
  type: "Scale"
  bottom: "Convolution7"
  top: "Convolution7"
  scale_param {
    bias_term: true
  }
}
layer {
  name: "Eltwise3"
  type: "Eltwise"
  bottom: "Eltwise2"
  bottom: "Convolution7"
  top: "Eltwise3"
  eltwise_param {
    operation: SUM
  }
}
layer {
  name: "penlu7"
  type: "PENLU"
  bottom: "Eltwise3"
  top: "Eltwise3"
  param {
    lr_mult: 2
    decay_mult: 2
  }
  param {
    lr_mult: 2
    decay_mult: 2
  }
  param {
    lr_mult: 0
    decay_mult: 0
  }
  penlu_param {
    alpha_filler {
      type: "constant"
      value: 1
    }
    beta_filler {
      type: "constant"
      value: 1
    }
    eta_filler {
      type: "constant"
      value: 1
    }
  }
}
layer {
  name: "Convolution8"
  type: "Convolution"
  bottom: "Eltwise3"
  top: "Convolution8"
  param {
    lr_mult: 1
    decay_mult: 1
  }
  param {
    lr_mult: 2
    decay_mult: 0
  }
  convolution_param {
    num_output: 32
    pad: 0
    kernel_size: 1
    stride: 2
    weight_filler {
      type: "gaussian"
      std: 0.25
    }
    bias_filler {
      type: "constant"
      value: 0
    }
  }
}
layer {
  name: "BatchNorm8"
  type: "BatchNorm"
  bottom: "Convolution8"
  top: "Convolution8"
  param {
    lr_mult: 0
    decay_mult: 0
  }
  param {
    lr_mult: 0
    decay_mult: 0
  }
  param {
    lr_mult: 0
    decay_mult: 0
  }
}
layer {
  name: "Scale8"
  type: "Scale"
  bottom: "Convolution8"
  top: "Convolution8"
  scale_param {
    bias_term: true
  }
}
layer {
  name: "Convolution9"
  type: "Convolution"
  bottom: "Eltwise3"
  top: "Convolution9"
  param {
    lr_mult: 1
    decay_mult: 1
  }
  param {
    lr_mult: 2
    decay_mult: 0
  }
  convolution_param {
    num_output: 32
    pad: 1
    kernel_size: 3
    stride: 2
    weight_filler {
      type: "gaussian"
      std: 0.083
    }
    bias_filler {
      type: "constant"
      value: 0
    }
  }
}
layer {
  name: "BatchNorm9"
  type: "BatchNorm"
  bottom: "Convolution9"
  top: "Convolution9"
  param {
    lr_mult: 0
    decay_mult: 0
  }
  param {
    lr_mult: 0
    decay_mult: 0
  }
  param {
    lr_mult: 0
    decay_mult: 0
  }
}
layer {
  name: "Scale9"
  type: "Scale"
  bottom: "Convolution9"
  top: "Convolution9"
  scale_param {
    bias_term: true
  }
}
layer {
  name: "penlu8"
  type: "PENLU"
  bottom: "Convolution9"
  top: "Convolution9"
  param {
    lr_mult: 2
    decay_mult: 2
  }
  param {
    lr_mult: 2
    decay_mult: 2
  }
  param {
    lr_mult: 0
    decay_mult: 0
  }
  penlu_param {
    alpha_filler {
      type: "constant"
      value: 1
    }
    beta_filler {
      type: "constant"
      value: 1
    }
    eta_filler {
      type: "constant"
      value: 1
    }
  }
}
layer {
  name: "Convolution10"
  type: "Convolution"
  bottom: "Convolution9"
  top: "Convolution10"
  param {
    lr_mult: 1
    decay_mult: 1
  }
  param {
    lr_mult: 2
    decay_mult: 0
  }
  convolution_param {
    num_output: 32
    pad: 1
    kernel_size: 3
    stride: 1
    weight_filler {
      type: "gaussian"
      std: 0.083
    }
    bias_filler {
      type: "constant"
      value: 0
    }
  }
}
layer {
  name: "BatchNorm10"
  type: "BatchNorm"
  bottom: "Convolution10"
  top: "Convolution10"
  param {
    lr_mult: 0
    decay_mult: 0
  }
  param {
    lr_mult: 0
    decay_mult: 0
  }
  param {
    lr_mult: 0
    decay_mult: 0
  }
}
layer {
  name: "Scale10"
  type: "Scale"
  bottom: "Convolution10"
  top: "Convolution10"
  scale_param {
    bias_term: true
  }
}
layer {
  name: "Eltwise4"
  type: "Eltwise"
  bottom: "Convolution8"
  bottom: "Convolution10"
  top: "Eltwise4"
  eltwise_param {
    operation: SUM
  }
}
layer {
  name: "penlu9"
  type: "PENLU"
  bottom: "Eltwise4"
  top: "Eltwise4"
  param {
    lr_mult: 2
    decay_mult: 2
  }
  param {
    lr_mult: 2
    decay_mult: 2
  }
  param {
    lr_mult: 0
    decay_mult: 0
  }
  penlu_param {
    alpha_filler {
      type: "constant"
      value: 1
    }
    beta_filler {
      type: "constant"
      value: 1
    }
    eta_filler {
      type: "constant"
      value: 1
    }
  }
}
layer {
  name: "Convolution11"
  type: "Convolution"
  bottom: "Eltwise4"
  top: "Convolution11"
  param {
    lr_mult: 1
    decay_mult: 1
  }
  param {
    lr_mult: 2
    decay_mult: 0
  }
  convolution_param {
    num_output: 32
    pad: 1
    kernel_size: 3
    stride: 1
    weight_filler {
      type: "gaussian"
      std: 0.083
    }
    bias_filler {
      type: "constant"
      value: 0
    }
  }
}
layer {
  name: "BatchNorm11"
  type: "BatchNorm"
  bottom: "Convolution11"
  top: "Convolution11"
  param {
    lr_mult: 0
    decay_mult: 0
  }
  param {
    lr_mult: 0
    decay_mult: 0
  }
  param {
    lr_mult: 0
    decay_mult: 0
  }
}
layer {
  name: "Scale11"
  type: "Scale"
  bottom: "Convolution11"
  top: "Convolution11"
  scale_param {
    bias_term: true
  }
}
layer {
  name: "penlu10"
  type: "PENLU"
  bottom: "Convolution11"
  top: "Convolution11"
  param {
    lr_mult: 2
    decay_mult: 2
  }
  param {
    lr_mult: 2
    decay_mult: 2
  }
  param {
    lr_mult: 0
    decay_mult: 0
  }
  penlu_param {
    alpha_filler {
      type: "constant"
      value: 1
    }
    beta_filler {
      type: "constant"
      value: 1
    }
    eta_filler {
      type: "constant"
      value: 1
    }
  }
}
layer {
  name: "Convolution12"
  type: "Convolution"
  bottom: "Convolution11"
  top: "Convolution12"
  param {
    lr_mult: 1
    decay_mult: 1
  }
  param {
    lr_mult: 2
    decay_mult: 0
  }
  convolution_param {
    num_output: 32
    pad: 1
    kernel_size: 3
    stride: 1
    weight_filler {
      type: "gaussian"
      std: 0.083
    }
    bias_filler {
      type: "constant"
      value: 0
    }
  }
}
layer {
  name: "BatchNorm12"
  type: "BatchNorm"
  bottom: "Convolution12"
  top: "Convolution12"
  param {
    lr_mult: 0
    decay_mult: 0
  }
  param {
    lr_mult: 0
    decay_mult: 0
  }
  param {
    lr_mult: 0
    decay_mult: 0
  }
}
layer {
  name: "Scale12"
  type: "Scale"
  bottom: "Convolution12"
  top: "Convolution12"
  scale_param {
    bias_term: true
  }
}
layer {
  name: "Eltwise5"
  type: "Eltwise"
  bottom: "Eltwise4"
  bottom: "Convolution12"
  top: "Eltwise5"
  eltwise_param {
    operation: SUM
  }
}
layer {
  name: "penlu11"
  type: "PENLU"
  bottom: "Eltwise5"
  top: "Eltwise5"
  param {
    lr_mult: 2
    decay_mult: 2
  }
  param {
    lr_mult: 2
    decay_mult: 2
  }
  param {
    lr_mult: 0
    decay_mult: 0
  }
  penlu_param {
    alpha_filler {
      type: "constant"
      value: 1
    }
    beta_filler {
      type: "constant"
      value: 1
    }
    eta_filler {
      type: "constant"
      value: 1
    }
  }
}
layer {
  name: "Convolution13"
  type: "Convolution"
  bottom: "Eltwise5"
  top: "Convolution13"
  param {
    lr_mult: 1
    decay_mult: 1
  }
  param {
    lr_mult: 2
    decay_mult: 0
  }
  convolution_param {
    num_output: 32
    pad: 1
    kernel_size: 3
    stride: 1
    weight_filler {
      type: "gaussian"
      std: 0.083
    }
    bias_filler {
      type: "constant"
      value: 0
    }
  }
}
layer {
  name: "BatchNorm13"
  type: "BatchNorm"
  bottom: "Convolution13"
  top: "Convolution13"
  param {
    lr_mult: 0
    decay_mult: 0
  }
  param {
    lr_mult: 0
    decay_mult: 0
  }
  param {
    lr_mult: 0
    decay_mult: 0
  }
}
layer {
  name: "Scale13"
  type: "Scale"
  bottom: "Convolution13"
  top: "Convolution13"
  scale_param {
    bias_term: true
  }
}
layer {
  name: "penlu12"
  type: "PENLU"
  bottom: "Convolution13"
  top: "Convolution13"
  param {
    lr_mult: 2
    decay_mult: 2
  }
  param {
    lr_mult: 2
    decay_mult: 2
  }
  param {
    lr_mult: 0
    decay_mult: 0
  }
  penlu_param {
    alpha_filler {
      type: "constant"
      value: 1
    }
    beta_filler {
      type: "constant"
      value: 1
    }
    eta_filler {
      type: "constant"
      value: 1
    }
  }
}
layer {
  name: "Convolution14"
  type: "Convolution"
  bottom: "Convolution13"
  top: "Convolution14"
  param {
    lr_mult: 1
    decay_mult: 1
  }
  param {
    lr_mult: 2
    decay_mult: 0
  }
  convolution_param {
    num_output: 32
    pad: 1
    kernel_size: 3
    stride: 1
    weight_filler {
      type: "gaussian"
      std: 0.083
    }
    bias_filler {
      type: "constant"
      value: 0
    }
  }
}
layer {
  name: "BatchNorm14"
  type: "BatchNorm"
  bottom: "Convolution14"
  top: "Convolution14"
  param {
    lr_mult: 0
    decay_mult: 0
  }
  param {
    lr_mult: 0
    decay_mult: 0
  }
  param {
    lr_mult: 0
    decay_mult: 0
  }
}
layer {
  name: "Scale14"
  type: "Scale"
  bottom: "Convolution14"
  top: "Convolution14"
  scale_param {
    bias_term: true
  }
}
layer {
  name: "Eltwise6"
  type: "Eltwise"
  bottom: "Eltwise5"
  bottom: "Convolution14"
  top: "Eltwise6"
  eltwise_param {
    operation: SUM
  }
}
layer {
  name: "penlu13"
  type: "PENLU"
  bottom: "Eltwise6"
  top: "Eltwise6"
  param {
    lr_mult: 2
    decay_mult: 2
  }
  param {
    lr_mult: 2
    decay_mult: 2
  }
  param {
    lr_mult: 0
    decay_mult: 0
  }
  penlu_param {
    alpha_filler {
      type: "constant"
      value: 1
    }
    beta_filler {
      type: "constant"
      value: 1
    }
    eta_filler {
      type: "constant"
      value: 1
    }
  }
}
layer {
  name: "Convolution15"
  type: "Convolution"
  bottom: "Eltwise6"
  top: "Convolution15"
  param {
    lr_mult: 1
    decay_mult: 1
  }
  param {
    lr_mult: 2
    decay_mult: 0
  }
  convolution_param {
    num_output: 64
    pad: 0
    kernel_size: 1
    stride: 2
    weight_filler {
      type: "gaussian"
      std: 0.17677669
    }
    bias_filler {
      type: "constant"
      value: 0
    }
  }
}
layer {
  name: "BatchNorm15"
  type: "BatchNorm"
  bottom: "Convolution15"
  top: "Convolution15"
  param {
    lr_mult: 0
    decay_mult: 0
  }
  param {
    lr_mult: 0
    decay_mult: 0
  }
  param {
    lr_mult: 0
    decay_mult: 0
  }
}
layer {
  name: "Scale15"
  type: "Scale"
  bottom: "Convolution15"
  top: "Convolution15"
  scale_param {
    bias_term: true
  }
}
layer {
  name: "Convolution16"
  type: "Convolution"
  bottom: "Eltwise6"
  top: "Convolution16"
  param {
    lr_mult: 1
    decay_mult: 1
  }
  param {
    lr_mult: 2
    decay_mult: 0
  }
  convolution_param {
    num_output: 64
    pad: 1
    kernel_size: 3
    stride: 2
    weight_filler {
      type: "gaussian"
      std: 0.059
    }
    bias_filler {
      type: "constant"
      value: 0
    }
  }
}
layer {
  name: "BatchNorm16"
  type: "BatchNorm"
  bottom: "Convolution16"
  top: "Convolution16"
  param {
    lr_mult: 0
    decay_mult: 0
  }
  param {
    lr_mult: 0
    decay_mult: 0
  }
  param {
    lr_mult: 0
    decay_mult: 0
  }
}
layer {
  name: "Scale16"
  type: "Scale"
  bottom: "Convolution16"
  top: "Convolution16"
  scale_param {
    bias_term: true
  }
}
layer {
  name: "penlu14"
  type: "PENLU"
  bottom: "Convolution16"
  top: "Convolution16"
  param {
    lr_mult: 2
    decay_mult: 2
  }
  param {
    lr_mult: 2
    decay_mult: 2
  }
  param {
    lr_mult: 0
    decay_mult: 0
  }
  penlu_param {
    alpha_filler {
      type: "constant"
      value: 1
    }
    beta_filler {
      type: "constant"
      value: 1
    }
    eta_filler {
      type: "constant"
      value: 1
    }
  }
}
layer {
  name: "Convolution17"
  type: "Convolution"
  bottom: "Convolution16"
  top: "Convolution17"
  param {
    lr_mult: 1
    decay_mult: 1
  }
  param {
    lr_mult: 2
    decay_mult: 0
  }
  convolution_param {
    num_output: 64
    pad: 1
    kernel_size: 3
    stride: 1
    weight_filler {
      type: "gaussian"
      std: 0.059
    }
    bias_filler {
      type: "constant"
      value: 0
    }
  }
}
layer {
  name: "BatchNorm17"
  type: "BatchNorm"
  bottom: "Convolution17"
  top: "Convolution17"
  param {
    lr_mult: 0
    decay_mult: 0
  }
  param {
    lr_mult: 0
    decay_mult: 0
  }
  param {
    lr_mult: 0
    decay_mult: 0
  }
}
layer {
  name: "Scale17"
  type: "Scale"
  bottom: "Convolution17"
  top: "Convolution17"
  scale_param {
    bias_term: true
  }
}
layer {
  name: "Eltwise7"
  type: "Eltwise"
  bottom: "Convolution15"
  bottom: "Convolution17"
  top: "Eltwise7"
  eltwise_param {
    operation: SUM
  }
}
layer {
  name: "penlu15"
  type: "PENLU"
  bottom: "Eltwise7"
  top: "Eltwise7"
  param {
    lr_mult: 2
    decay_mult: 2
  }
  param {
    lr_mult: 2
    decay_mult: 2
  }
  param {
    lr_mult: 0
    decay_mult: 0
  }
  penlu_param {
    alpha_filler {
      type: "constant"
      value: 1
    }
    beta_filler {
      type: "constant"
      value: 1
    }
    eta_filler {
      type: "constant"
      value: 1
    }
  }
}
layer {
  name: "Convolution18"
  type: "Convolution"
  bottom: "Eltwise7"
  top: "Convolution18"
  param {
    lr_mult: 1
    decay_mult: 1
  }
  param {
    lr_mult: 2
    decay_mult: 0
  }
  convolution_param {
    num_output: 64
    pad: 1
    kernel_size: 3
    stride: 1
    weight_filler {
      type: "gaussian"
      std: 0.059
    }
    bias_filler {
      type: "constant"
      value: 0
    }
  }
}
layer {
  name: "BatchNorm18"
  type: "BatchNorm"
  bottom: "Convolution18"
  top: "Convolution18"
  param {
    lr_mult: 0
    decay_mult: 0
  }
  param {
    lr_mult: 0
    decay_mult: 0
  }
  param {
    lr_mult: 0
    decay_mult: 0
  }
}
layer {
  name: "Scale18"
  type: "Scale"
  bottom: "Convolution18"
  top: "Convolution18"
  scale_param {
    bias_term: true
  }
}
layer {
  name: "penlu16"
  type: "PENLU"
  bottom: "Convolution18"
  top: "Convolution18"
  param {
    lr_mult: 2
    decay_mult: 2
  }
  param {
    lr_mult: 2
    decay_mult: 2
  }
  param {
    lr_mult: 0
    decay_mult: 0
  }
  penlu_param {
    alpha_filler {
      type: "constant"
      value: 1
    }
    beta_filler {
      type: "constant"
      value: 1
    }
    eta_filler {
      type: "constant"
      value: 1
    }
  }
}
layer {
  name: "Convolution19"
  type: "Convolution"
  bottom: "Convolution18"
  top: "Convolution19"
  param {
    lr_mult: 1
    decay_mult: 1
  }
  param {
    lr_mult: 2
    decay_mult: 0
  }
  convolution_param {
    num_output: 64
    pad: 1
    kernel_size: 3
    stride: 1
    weight_filler {
      type: "gaussian"
      std: 0.059
    }
    bias_filler {
      type: "constant"
      value: 0
    }
  }
}
layer {
  name: "BatchNorm19"
  type: "BatchNorm"
  bottom: "Convolution19"
  top: "Convolution19"
  param {
    lr_mult: 0
    decay_mult: 0
  }
  param {
    lr_mult: 0
    decay_mult: 0
  }
  param {
    lr_mult: 0
    decay_mult: 0
  }
}
layer {
  name: "Scale19"
  type: "Scale"
  bottom: "Convolution19"
  top: "Convolution19"
  scale_param {
    bias_term: true
  }
}
layer {
  name: "Eltwise8"
  type: "Eltwise"
  bottom: "Eltwise7"
  bottom: "Convolution19"
  top: "Eltwise8"
  eltwise_param {
    operation: SUM
  }
}
layer {
  name: "penlu17"
  type: "PENLU"
  bottom: "Eltwise8"
  top: "Eltwise8"
  param {
    lr_mult: 2
    decay_mult: 2
  }
  param {
    lr_mult: 2
    decay_mult: 2
  }
  param {
    lr_mult: 0
    decay_mult: 0
  }
  penlu_param {
    alpha_filler {
      type: "constant"
      value: 1
    }
    beta_filler {
      type: "constant"
      value: 1
    }
    eta_filler {
      type: "constant"
      value: 1
    }
  }
}
layer {
  name: "Convolution20"
  type: "Convolution"
  bottom: "Eltwise8"
  top: "Convolution20"
  param {
    lr_mult: 1
    decay_mult: 1
  }
  param {
    lr_mult: 2
    decay_mult: 0
  }
  convolution_param {
    num_output: 64
    pad: 1
    kernel_size: 3
    stride: 1
    weight_filler {
      type: "gaussian"
      std: 0.059
    }
    bias_filler {
      type: "constant"
      value: 0
    }
  }
}
layer {
  name: "BatchNorm20"
  type: "BatchNorm"
  bottom: "Convolution20"
  top: "Convolution20"
  param {
    lr_mult: 0
    decay_mult: 0
  }
  param {
    lr_mult: 0
    decay_mult: 0
  }
  param {
    lr_mult: 0
    decay_mult: 0
  }
}
layer {
  name: "Scale20"
  type: "Scale"
  bottom: "Convolution20"
  top: "Convolution20"
  scale_param {
    bias_term: true
  }
}
layer {
  name: "penlu18"
  type: "PENLU"
  bottom: "Convolution20"
  top: "Convolution20"
  param {
    lr_mult: 2
    decay_mult: 2
  }
  param {
    lr_mult: 2
    decay_mult: 2
  }
  param {
    lr_mult: 0
    decay_mult: 0
  }
  penlu_param {
    alpha_filler {
      type: "constant"
      value: 1
    }
    beta_filler {
      type: "constant"
      value: 1
    }
    eta_filler {
      type: "constant"
      value: 1
    }
  }
}
layer {
  name: "Convolution21"
  type: "Convolution"
  bottom: "Convolution20"
  top: "Convolution21"
  param {
    lr_mult: 1
    decay_mult: 1
  }
  param {
    lr_mult: 2
    decay_mult: 0
  }
  convolution_param {
    num_output: 64
    pad: 1
    kernel_size: 3
    stride: 1
    weight_filler {
      type: "gaussian"
      std: 0.059
    }
    bias_filler {
      type: "constant"
      value: 0
    }
  }
}
layer {
  name: "BatchNorm21"
  type: "BatchNorm"
  bottom: "Convolution21"
  top: "Convolution21"
  param {
    lr_mult: 0
    decay_mult: 0
  }
  param {
    lr_mult: 0
    decay_mult: 0
  }
  param {
    lr_mult: 0
    decay_mult: 0
  }
}
layer {
  name: "Scale21"
  type: "Scale"
  bottom: "Convolution21"
  top: "Convolution21"
  scale_param {
    bias_term: true
  }
}
layer {
  name: "Eltwise9"
  type: "Eltwise"
  bottom: "Eltwise8"
  bottom: "Convolution21"
  top: "Eltwise9"
  eltwise_param {
    operation: SUM
  }
}
layer {
  name: "penlu19"
  type: "PENLU"
  bottom: "Eltwise9"
  top: "Eltwise9"
  param {
    lr_mult: 2
    decay_mult: 2
  }
  param {
    lr_mult: 2
    decay_mult: 2
  }
  param {
    lr_mult: 0
    decay_mult: 0
  }
  penlu_param {
    alpha_filler {
      type: "constant"
      value: 1
    }
    beta_filler {
      type: "constant"
      value: 1
    }
    eta_filler {
      type: "constant"
      value: 1
    }
  }
}
layer {
  name: "Pooling1"
  type: "Pooling"
  bottom: "Eltwise9"
  top: "Pooling1"
  pooling_param {
    pool: AVE
    global_pooling: true
  }
}
layer {
  name: "InnerProduct1"
  type: "InnerProduct"
  bottom: "Pooling1"
  top: "InnerProduct1"
  param {
    lr_mult: 1
    decay_mult: 1
  }
  param {
    lr_mult: 2
    decay_mult: 1
  }
  inner_product_param {
    num_output: 10
    weight_filler {
      type: "gaussian"
      std: 0.01
    }
    bias_filler {
      type: "constant"
      value: 0
    }
  }
}
layer {
  name: "SoftmaxWithLoss1"
  type: "SoftmaxWithLoss"
  bottom: "InnerProduct1"
  bottom: "Data2"
  top: "SoftmaxWithLoss1"
}
I1005 15:22:12.959235  9606 layer_factory.hpp:77] Creating layer Data1
I1005 15:22:12.959316  9606 db_lmdb.cpp:35] Opened lmdb /home/x306/caffe/xn/PENLU/data/cifar10/cifar10_train_lmdb
I1005 15:22:12.959339  9606 net.cpp:84] Creating Layer Data1
I1005 15:22:12.959345  9606 net.cpp:380] Data1 -> Data1
I1005 15:22:12.959364  9606 net.cpp:380] Data1 -> Data2
I1005 15:22:12.959373  9606 data_transformer.cpp:25] Loading mean file from: /home/x306/caffe/xn/PENLU/data/cifar10/mean.binaryproto
I1005 15:22:12.960817  9606 data_layer.cpp:45] output data size: 100,3,28,28
I1005 15:22:12.963122  9606 net.cpp:122] Setting up Data1
I1005 15:22:12.963146  9606 net.cpp:129] Top shape: 100 3 28 28 (235200)
I1005 15:22:12.963151  9606 net.cpp:129] Top shape: 100 (100)
I1005 15:22:12.963153  9606 net.cpp:137] Memory required for data: 941200
I1005 15:22:12.963160  9606 layer_factory.hpp:77] Creating layer Convolution1
I1005 15:22:12.963178  9606 net.cpp:84] Creating Layer Convolution1
I1005 15:22:12.963183  9606 net.cpp:406] Convolution1 <- Data1
I1005 15:22:12.963191  9606 net.cpp:380] Convolution1 -> Convolution1
I1005 15:22:13.110810  9606 net.cpp:122] Setting up Convolution1
I1005 15:22:13.110834  9606 net.cpp:129] Top shape: 100 16 28 28 (1254400)
I1005 15:22:13.110838  9606 net.cpp:137] Memory required for data: 5958800
I1005 15:22:13.110853  9606 layer_factory.hpp:77] Creating layer BatchNorm1
I1005 15:22:13.110873  9606 net.cpp:84] Creating Layer BatchNorm1
I1005 15:22:13.110877  9606 net.cpp:406] BatchNorm1 <- Convolution1
I1005 15:22:13.110893  9606 net.cpp:367] BatchNorm1 -> Convolution1 (in-place)
I1005 15:22:13.111037  9606 net.cpp:122] Setting up BatchNorm1
I1005 15:22:13.111043  9606 net.cpp:129] Top shape: 100 16 28 28 (1254400)
I1005 15:22:13.111045  9606 net.cpp:137] Memory required for data: 10976400
I1005 15:22:13.111053  9606 layer_factory.hpp:77] Creating layer Scale1
I1005 15:22:13.111073  9606 net.cpp:84] Creating Layer Scale1
I1005 15:22:13.111075  9606 net.cpp:406] Scale1 <- Convolution1
I1005 15:22:13.111080  9606 net.cpp:367] Scale1 -> Convolution1 (in-place)
I1005 15:22:13.111140  9606 layer_factory.hpp:77] Creating layer Scale1
I1005 15:22:13.111253  9606 net.cpp:122] Setting up Scale1
I1005 15:22:13.111258  9606 net.cpp:129] Top shape: 100 16 28 28 (1254400)
I1005 15:22:13.111261  9606 net.cpp:137] Memory required for data: 15994000
I1005 15:22:13.111266  9606 layer_factory.hpp:77] Creating layer penlu1
I1005 15:22:13.111275  9606 net.cpp:84] Creating Layer penlu1
I1005 15:22:13.111287  9606 net.cpp:406] penlu1 <- Convolution1
I1005 15:22:13.111291  9606 net.cpp:367] penlu1 -> Convolution1 (in-place)
I1005 15:22:13.111915  9606 net.cpp:122] Setting up penlu1
I1005 15:22:13.111925  9606 net.cpp:129] Top shape: 100 16 28 28 (1254400)
I1005 15:22:13.111928  9606 net.cpp:137] Memory required for data: 21011600
I1005 15:22:13.111935  9606 layer_factory.hpp:77] Creating layer Convolution1_penlu1_0_split
I1005 15:22:13.111953  9606 net.cpp:84] Creating Layer Convolution1_penlu1_0_split
I1005 15:22:13.111956  9606 net.cpp:406] Convolution1_penlu1_0_split <- Convolution1
I1005 15:22:13.111960  9606 net.cpp:380] Convolution1_penlu1_0_split -> Convolution1_penlu1_0_split_0
I1005 15:22:13.111979  9606 net.cpp:380] Convolution1_penlu1_0_split -> Convolution1_penlu1_0_split_1
I1005 15:22:13.112021  9606 net.cpp:122] Setting up Convolution1_penlu1_0_split
I1005 15:22:13.112026  9606 net.cpp:129] Top shape: 100 16 28 28 (1254400)
I1005 15:22:13.112040  9606 net.cpp:129] Top shape: 100 16 28 28 (1254400)
I1005 15:22:13.112042  9606 net.cpp:137] Memory required for data: 31046800
I1005 15:22:13.112045  9606 layer_factory.hpp:77] Creating layer Convolution2
I1005 15:22:13.112061  9606 net.cpp:84] Creating Layer Convolution2
I1005 15:22:13.112063  9606 net.cpp:406] Convolution2 <- Convolution1_penlu1_0_split_0
I1005 15:22:13.112077  9606 net.cpp:380] Convolution2 -> Convolution2
I1005 15:22:13.112920  9606 net.cpp:122] Setting up Convolution2
I1005 15:22:13.112929  9606 net.cpp:129] Top shape: 100 16 28 28 (1254400)
I1005 15:22:13.112933  9606 net.cpp:137] Memory required for data: 36064400
I1005 15:22:13.112948  9606 layer_factory.hpp:77] Creating layer BatchNorm2
I1005 15:22:13.112964  9606 net.cpp:84] Creating Layer BatchNorm2
I1005 15:22:13.112968  9606 net.cpp:406] BatchNorm2 <- Convolution2
I1005 15:22:13.112972  9606 net.cpp:367] BatchNorm2 -> Convolution2 (in-place)
I1005 15:22:13.113118  9606 net.cpp:122] Setting up BatchNorm2
I1005 15:22:13.113124  9606 net.cpp:129] Top shape: 100 16 28 28 (1254400)
I1005 15:22:13.113127  9606 net.cpp:137] Memory required for data: 41082000
I1005 15:22:13.113142  9606 layer_factory.hpp:77] Creating layer Scale2
I1005 15:22:13.113148  9606 net.cpp:84] Creating Layer Scale2
I1005 15:22:13.113162  9606 net.cpp:406] Scale2 <- Convolution2
I1005 15:22:13.113165  9606 net.cpp:367] Scale2 -> Convolution2 (in-place)
I1005 15:22:13.113201  9606 layer_factory.hpp:77] Creating layer Scale2
I1005 15:22:13.113322  9606 net.cpp:122] Setting up Scale2
I1005 15:22:13.113328  9606 net.cpp:129] Top shape: 100 16 28 28 (1254400)
I1005 15:22:13.113332  9606 net.cpp:137] Memory required for data: 46099600
I1005 15:22:13.113348  9606 layer_factory.hpp:77] Creating layer penlu2
I1005 15:22:13.113368  9606 net.cpp:84] Creating Layer penlu2
I1005 15:22:13.113373  9606 net.cpp:406] penlu2 <- Convolution2
I1005 15:22:13.113376  9606 net.cpp:367] penlu2 -> Convolution2 (in-place)
I1005 15:22:13.113488  9606 net.cpp:122] Setting up penlu2
I1005 15:22:13.113494  9606 net.cpp:129] Top shape: 100 16 28 28 (1254400)
I1005 15:22:13.113497  9606 net.cpp:137] Memory required for data: 51117200
I1005 15:22:13.113502  9606 layer_factory.hpp:77] Creating layer Convolution3
I1005 15:22:13.113508  9606 net.cpp:84] Creating Layer Convolution3
I1005 15:22:13.113512  9606 net.cpp:406] Convolution3 <- Convolution2
I1005 15:22:13.113514  9606 net.cpp:380] Convolution3 -> Convolution3
I1005 15:22:13.114333  9606 net.cpp:122] Setting up Convolution3
I1005 15:22:13.114343  9606 net.cpp:129] Top shape: 100 16 28 28 (1254400)
I1005 15:22:13.114347  9606 net.cpp:137] Memory required for data: 56134800
I1005 15:22:13.114352  9606 layer_factory.hpp:77] Creating layer BatchNorm3
I1005 15:22:13.114357  9606 net.cpp:84] Creating Layer BatchNorm3
I1005 15:22:13.114361  9606 net.cpp:406] BatchNorm3 <- Convolution3
I1005 15:22:13.114364  9606 net.cpp:367] BatchNorm3 -> Convolution3 (in-place)
I1005 15:22:13.114480  9606 net.cpp:122] Setting up BatchNorm3
I1005 15:22:13.114485  9606 net.cpp:129] Top shape: 100 16 28 28 (1254400)
I1005 15:22:13.114487  9606 net.cpp:137] Memory required for data: 61152400
I1005 15:22:13.114492  9606 layer_factory.hpp:77] Creating layer Scale3
I1005 15:22:13.114497  9606 net.cpp:84] Creating Layer Scale3
I1005 15:22:13.114500  9606 net.cpp:406] Scale3 <- Convolution3
I1005 15:22:13.114503  9606 net.cpp:367] Scale3 -> Convolution3 (in-place)
I1005 15:22:13.114533  9606 layer_factory.hpp:77] Creating layer Scale3
I1005 15:22:13.114603  9606 net.cpp:122] Setting up Scale3
I1005 15:22:13.114609  9606 net.cpp:129] Top shape: 100 16 28 28 (1254400)
I1005 15:22:13.114612  9606 net.cpp:137] Memory required for data: 66170000
I1005 15:22:13.114616  9606 layer_factory.hpp:77] Creating layer Eltwise1
I1005 15:22:13.114621  9606 net.cpp:84] Creating Layer Eltwise1
I1005 15:22:13.114624  9606 net.cpp:406] Eltwise1 <- Convolution1_penlu1_0_split_1
I1005 15:22:13.114627  9606 net.cpp:406] Eltwise1 <- Convolution3
I1005 15:22:13.114630  9606 net.cpp:380] Eltwise1 -> Eltwise1
I1005 15:22:13.114647  9606 net.cpp:122] Setting up Eltwise1
I1005 15:22:13.114651  9606 net.cpp:129] Top shape: 100 16 28 28 (1254400)
I1005 15:22:13.114655  9606 net.cpp:137] Memory required for data: 71187600
I1005 15:22:13.114657  9606 layer_factory.hpp:77] Creating layer penlu3
I1005 15:22:13.114662  9606 net.cpp:84] Creating Layer penlu3
I1005 15:22:13.114665  9606 net.cpp:406] penlu3 <- Eltwise1
I1005 15:22:13.114668  9606 net.cpp:367] penlu3 -> Eltwise1 (in-place)
I1005 15:22:13.114763  9606 net.cpp:122] Setting up penlu3
I1005 15:22:13.114769  9606 net.cpp:129] Top shape: 100 16 28 28 (1254400)
I1005 15:22:13.114773  9606 net.cpp:137] Memory required for data: 76205200
I1005 15:22:13.114784  9606 layer_factory.hpp:77] Creating layer Eltwise1_penlu3_0_split
I1005 15:22:13.114789  9606 net.cpp:84] Creating Layer Eltwise1_penlu3_0_split
I1005 15:22:13.114791  9606 net.cpp:406] Eltwise1_penlu3_0_split <- Eltwise1
I1005 15:22:13.114795  9606 net.cpp:380] Eltwise1_penlu3_0_split -> Eltwise1_penlu3_0_split_0
I1005 15:22:13.114800  9606 net.cpp:380] Eltwise1_penlu3_0_split -> Eltwise1_penlu3_0_split_1
I1005 15:22:13.114821  9606 net.cpp:122] Setting up Eltwise1_penlu3_0_split
I1005 15:22:13.114826  9606 net.cpp:129] Top shape: 100 16 28 28 (1254400)
I1005 15:22:13.114830  9606 net.cpp:129] Top shape: 100 16 28 28 (1254400)
I1005 15:22:13.114832  9606 net.cpp:137] Memory required for data: 86240400
I1005 15:22:13.114835  9606 layer_factory.hpp:77] Creating layer Convolution4
I1005 15:22:13.114842  9606 net.cpp:84] Creating Layer Convolution4
I1005 15:22:13.114845  9606 net.cpp:406] Convolution4 <- Eltwise1_penlu3_0_split_0
I1005 15:22:13.114850  9606 net.cpp:380] Convolution4 -> Convolution4
I1005 15:22:13.115661  9606 net.cpp:122] Setting up Convolution4
I1005 15:22:13.115671  9606 net.cpp:129] Top shape: 100 16 28 28 (1254400)
I1005 15:22:13.115675  9606 net.cpp:137] Memory required for data: 91258000
I1005 15:22:13.115679  9606 layer_factory.hpp:77] Creating layer BatchNorm4
I1005 15:22:13.115685  9606 net.cpp:84] Creating Layer BatchNorm4
I1005 15:22:13.115689  9606 net.cpp:406] BatchNorm4 <- Convolution4
I1005 15:22:13.115692  9606 net.cpp:367] BatchNorm4 -> Convolution4 (in-place)
I1005 15:22:13.115804  9606 net.cpp:122] Setting up BatchNorm4
I1005 15:22:13.115810  9606 net.cpp:129] Top shape: 100 16 28 28 (1254400)
I1005 15:22:13.115813  9606 net.cpp:137] Memory required for data: 96275600
I1005 15:22:13.115820  9606 layer_factory.hpp:77] Creating layer Scale4
I1005 15:22:13.115825  9606 net.cpp:84] Creating Layer Scale4
I1005 15:22:13.115829  9606 net.cpp:406] Scale4 <- Convolution4
I1005 15:22:13.115833  9606 net.cpp:367] Scale4 -> Convolution4 (in-place)
I1005 15:22:13.115856  9606 layer_factory.hpp:77] Creating layer Scale4
I1005 15:22:13.115922  9606 net.cpp:122] Setting up Scale4
I1005 15:22:13.115927  9606 net.cpp:129] Top shape: 100 16 28 28 (1254400)
I1005 15:22:13.115931  9606 net.cpp:137] Memory required for data: 101293200
I1005 15:22:13.115936  9606 layer_factory.hpp:77] Creating layer penlu4
I1005 15:22:13.115941  9606 net.cpp:84] Creating Layer penlu4
I1005 15:22:13.115944  9606 net.cpp:406] penlu4 <- Convolution4
I1005 15:22:13.115947  9606 net.cpp:367] penlu4 -> Convolution4 (in-place)
I1005 15:22:13.116039  9606 net.cpp:122] Setting up penlu4
I1005 15:22:13.116044  9606 net.cpp:129] Top shape: 100 16 28 28 (1254400)
I1005 15:22:13.116047  9606 net.cpp:137] Memory required for data: 106310800
I1005 15:22:13.116052  9606 layer_factory.hpp:77] Creating layer Convolution5
I1005 15:22:13.116060  9606 net.cpp:84] Creating Layer Convolution5
I1005 15:22:13.116062  9606 net.cpp:406] Convolution5 <- Convolution4
I1005 15:22:13.116066  9606 net.cpp:380] Convolution5 -> Convolution5
I1005 15:22:13.116888  9606 net.cpp:122] Setting up Convolution5
I1005 15:22:13.116899  9606 net.cpp:129] Top shape: 100 16 28 28 (1254400)
I1005 15:22:13.116901  9606 net.cpp:137] Memory required for data: 111328400
I1005 15:22:13.116906  9606 layer_factory.hpp:77] Creating layer BatchNorm5
I1005 15:22:13.116912  9606 net.cpp:84] Creating Layer BatchNorm5
I1005 15:22:13.116915  9606 net.cpp:406] BatchNorm5 <- Convolution5
I1005 15:22:13.116919  9606 net.cpp:367] BatchNorm5 -> Convolution5 (in-place)
I1005 15:22:13.117035  9606 net.cpp:122] Setting up BatchNorm5
I1005 15:22:13.117041  9606 net.cpp:129] Top shape: 100 16 28 28 (1254400)
I1005 15:22:13.117044  9606 net.cpp:137] Memory required for data: 116346000
I1005 15:22:13.117049  9606 layer_factory.hpp:77] Creating layer Scale5
I1005 15:22:13.117054  9606 net.cpp:84] Creating Layer Scale5
I1005 15:22:13.117058  9606 net.cpp:406] Scale5 <- Convolution5
I1005 15:22:13.117060  9606 net.cpp:367] Scale5 -> Convolution5 (in-place)
I1005 15:22:13.117085  9606 layer_factory.hpp:77] Creating layer Scale5
I1005 15:22:13.117162  9606 net.cpp:122] Setting up Scale5
I1005 15:22:13.117168  9606 net.cpp:129] Top shape: 100 16 28 28 (1254400)
I1005 15:22:13.117172  9606 net.cpp:137] Memory required for data: 121363600
I1005 15:22:13.117175  9606 layer_factory.hpp:77] Creating layer Eltwise2
I1005 15:22:13.117180  9606 net.cpp:84] Creating Layer Eltwise2
I1005 15:22:13.117183  9606 net.cpp:406] Eltwise2 <- Eltwise1_penlu3_0_split_1
I1005 15:22:13.117187  9606 net.cpp:406] Eltwise2 <- Convolution5
I1005 15:22:13.117190  9606 net.cpp:380] Eltwise2 -> Eltwise2
I1005 15:22:13.117204  9606 net.cpp:122] Setting up Eltwise2
I1005 15:22:13.117209  9606 net.cpp:129] Top shape: 100 16 28 28 (1254400)
I1005 15:22:13.117213  9606 net.cpp:137] Memory required for data: 126381200
I1005 15:22:13.117214  9606 layer_factory.hpp:77] Creating layer penlu5
I1005 15:22:13.117219  9606 net.cpp:84] Creating Layer penlu5
I1005 15:22:13.117223  9606 net.cpp:406] penlu5 <- Eltwise2
I1005 15:22:13.117226  9606 net.cpp:367] penlu5 -> Eltwise2 (in-place)
I1005 15:22:13.117322  9606 net.cpp:122] Setting up penlu5
I1005 15:22:13.117328  9606 net.cpp:129] Top shape: 100 16 28 28 (1254400)
I1005 15:22:13.117331  9606 net.cpp:137] Memory required for data: 131398800
I1005 15:22:13.117336  9606 layer_factory.hpp:77] Creating layer Eltwise2_penlu5_0_split
I1005 15:22:13.117339  9606 net.cpp:84] Creating Layer Eltwise2_penlu5_0_split
I1005 15:22:13.117342  9606 net.cpp:406] Eltwise2_penlu5_0_split <- Eltwise2
I1005 15:22:13.117346  9606 net.cpp:380] Eltwise2_penlu5_0_split -> Eltwise2_penlu5_0_split_0
I1005 15:22:13.117350  9606 net.cpp:380] Eltwise2_penlu5_0_split -> Eltwise2_penlu5_0_split_1
I1005 15:22:13.117372  9606 net.cpp:122] Setting up Eltwise2_penlu5_0_split
I1005 15:22:13.117377  9606 net.cpp:129] Top shape: 100 16 28 28 (1254400)
I1005 15:22:13.117380  9606 net.cpp:129] Top shape: 100 16 28 28 (1254400)
I1005 15:22:13.117383  9606 net.cpp:137] Memory required for data: 141434000
I1005 15:22:13.117385  9606 layer_factory.hpp:77] Creating layer Convolution6
I1005 15:22:13.117391  9606 net.cpp:84] Creating Layer Convolution6
I1005 15:22:13.117394  9606 net.cpp:406] Convolution6 <- Eltwise2_penlu5_0_split_0
I1005 15:22:13.117398  9606 net.cpp:380] Convolution6 -> Convolution6
I1005 15:22:13.118275  9606 net.cpp:122] Setting up Convolution6
I1005 15:22:13.118285  9606 net.cpp:129] Top shape: 100 16 28 28 (1254400)
I1005 15:22:13.118289  9606 net.cpp:137] Memory required for data: 146451600
I1005 15:22:13.118294  9606 layer_factory.hpp:77] Creating layer BatchNorm6
I1005 15:22:13.118299  9606 net.cpp:84] Creating Layer BatchNorm6
I1005 15:22:13.118304  9606 net.cpp:406] BatchNorm6 <- Convolution6
I1005 15:22:13.118307  9606 net.cpp:367] BatchNorm6 -> Convolution6 (in-place)
I1005 15:22:13.118436  9606 net.cpp:122] Setting up BatchNorm6
I1005 15:22:13.118441  9606 net.cpp:129] Top shape: 100 16 28 28 (1254400)
I1005 15:22:13.118444  9606 net.cpp:137] Memory required for data: 151469200
I1005 15:22:13.118449  9606 layer_factory.hpp:77] Creating layer Scale6
I1005 15:22:13.118454  9606 net.cpp:84] Creating Layer Scale6
I1005 15:22:13.118456  9606 net.cpp:406] Scale6 <- Convolution6
I1005 15:22:13.118460  9606 net.cpp:367] Scale6 -> Convolution6 (in-place)
I1005 15:22:13.118484  9606 layer_factory.hpp:77] Creating layer Scale6
I1005 15:22:13.118559  9606 net.cpp:122] Setting up Scale6
I1005 15:22:13.118566  9606 net.cpp:129] Top shape: 100 16 28 28 (1254400)
I1005 15:22:13.118568  9606 net.cpp:137] Memory required for data: 156486800
I1005 15:22:13.118572  9606 layer_factory.hpp:77] Creating layer penlu6
I1005 15:22:13.118578  9606 net.cpp:84] Creating Layer penlu6
I1005 15:22:13.118582  9606 net.cpp:406] penlu6 <- Convolution6
I1005 15:22:13.118585  9606 net.cpp:367] penlu6 -> Convolution6 (in-place)
I1005 15:22:13.118682  9606 net.cpp:122] Setting up penlu6
I1005 15:22:13.118687  9606 net.cpp:129] Top shape: 100 16 28 28 (1254400)
I1005 15:22:13.118690  9606 net.cpp:137] Memory required for data: 161504400
I1005 15:22:13.118702  9606 layer_factory.hpp:77] Creating layer Convolution7
I1005 15:22:13.118710  9606 net.cpp:84] Creating Layer Convolution7
I1005 15:22:13.118712  9606 net.cpp:406] Convolution7 <- Convolution6
I1005 15:22:13.118716  9606 net.cpp:380] Convolution7 -> Convolution7
I1005 15:22:13.119228  9606 net.cpp:122] Setting up Convolution7
I1005 15:22:13.119237  9606 net.cpp:129] Top shape: 100 16 28 28 (1254400)
I1005 15:22:13.119240  9606 net.cpp:137] Memory required for data: 166522000
I1005 15:22:13.119244  9606 layer_factory.hpp:77] Creating layer BatchNorm7
I1005 15:22:13.119249  9606 net.cpp:84] Creating Layer BatchNorm7
I1005 15:22:13.119252  9606 net.cpp:406] BatchNorm7 <- Convolution7
I1005 15:22:13.119256  9606 net.cpp:367] BatchNorm7 -> Convolution7 (in-place)
I1005 15:22:13.119381  9606 net.cpp:122] Setting up BatchNorm7
I1005 15:22:13.119386  9606 net.cpp:129] Top shape: 100 16 28 28 (1254400)
I1005 15:22:13.119390  9606 net.cpp:137] Memory required for data: 171539600
I1005 15:22:13.119400  9606 layer_factory.hpp:77] Creating layer Scale7
I1005 15:22:13.119406  9606 net.cpp:84] Creating Layer Scale7
I1005 15:22:13.119410  9606 net.cpp:406] Scale7 <- Convolution7
I1005 15:22:13.119413  9606 net.cpp:367] Scale7 -> Convolution7 (in-place)
I1005 15:22:13.119439  9606 layer_factory.hpp:77] Creating layer Scale7
I1005 15:22:13.119513  9606 net.cpp:122] Setting up Scale7
I1005 15:22:13.119518  9606 net.cpp:129] Top shape: 100 16 28 28 (1254400)
I1005 15:22:13.119521  9606 net.cpp:137] Memory required for data: 176557200
I1005 15:22:13.119525  9606 layer_factory.hpp:77] Creating layer Eltwise3
I1005 15:22:13.119530  9606 net.cpp:84] Creating Layer Eltwise3
I1005 15:22:13.119534  9606 net.cpp:406] Eltwise3 <- Eltwise2_penlu5_0_split_1
I1005 15:22:13.119536  9606 net.cpp:406] Eltwise3 <- Convolution7
I1005 15:22:13.119539  9606 net.cpp:380] Eltwise3 -> Eltwise3
I1005 15:22:13.119554  9606 net.cpp:122] Setting up Eltwise3
I1005 15:22:13.119560  9606 net.cpp:129] Top shape: 100 16 28 28 (1254400)
I1005 15:22:13.119562  9606 net.cpp:137] Memory required for data: 181574800
I1005 15:22:13.119565  9606 layer_factory.hpp:77] Creating layer penlu7
I1005 15:22:13.119570  9606 net.cpp:84] Creating Layer penlu7
I1005 15:22:13.119573  9606 net.cpp:406] penlu7 <- Eltwise3
I1005 15:22:13.119576  9606 net.cpp:367] penlu7 -> Eltwise3 (in-place)
I1005 15:22:13.119678  9606 net.cpp:122] Setting up penlu7
I1005 15:22:13.119684  9606 net.cpp:129] Top shape: 100 16 28 28 (1254400)
I1005 15:22:13.119688  9606 net.cpp:137] Memory required for data: 186592400
I1005 15:22:13.119691  9606 layer_factory.hpp:77] Creating layer Eltwise3_penlu7_0_split
I1005 15:22:13.119695  9606 net.cpp:84] Creating Layer Eltwise3_penlu7_0_split
I1005 15:22:13.119699  9606 net.cpp:406] Eltwise3_penlu7_0_split <- Eltwise3
I1005 15:22:13.119702  9606 net.cpp:380] Eltwise3_penlu7_0_split -> Eltwise3_penlu7_0_split_0
I1005 15:22:13.119707  9606 net.cpp:380] Eltwise3_penlu7_0_split -> Eltwise3_penlu7_0_split_1
I1005 15:22:13.119729  9606 net.cpp:122] Setting up Eltwise3_penlu7_0_split
I1005 15:22:13.119732  9606 net.cpp:129] Top shape: 100 16 28 28 (1254400)
I1005 15:22:13.119736  9606 net.cpp:129] Top shape: 100 16 28 28 (1254400)
I1005 15:22:13.119740  9606 net.cpp:137] Memory required for data: 196627600
I1005 15:22:13.119741  9606 layer_factory.hpp:77] Creating layer Convolution8
I1005 15:22:13.119747  9606 net.cpp:84] Creating Layer Convolution8
I1005 15:22:13.119750  9606 net.cpp:406] Convolution8 <- Eltwise3_penlu7_0_split_0
I1005 15:22:13.119755  9606 net.cpp:380] Convolution8 -> Convolution8
I1005 15:22:13.120872  9606 net.cpp:122] Setting up Convolution8
I1005 15:22:13.120882  9606 net.cpp:129] Top shape: 100 32 14 14 (627200)
I1005 15:22:13.120885  9606 net.cpp:137] Memory required for data: 199136400
I1005 15:22:13.120890  9606 layer_factory.hpp:77] Creating layer BatchNorm8
I1005 15:22:13.120896  9606 net.cpp:84] Creating Layer BatchNorm8
I1005 15:22:13.120899  9606 net.cpp:406] BatchNorm8 <- Convolution8
I1005 15:22:13.120903  9606 net.cpp:367] BatchNorm8 -> Convolution8 (in-place)
I1005 15:22:13.121063  9606 net.cpp:122] Setting up BatchNorm8
I1005 15:22:13.121070  9606 net.cpp:129] Top shape: 100 32 14 14 (627200)
I1005 15:22:13.121073  9606 net.cpp:137] Memory required for data: 201645200
I1005 15:22:13.121088  9606 layer_factory.hpp:77] Creating layer Scale8
I1005 15:22:13.121093  9606 net.cpp:84] Creating Layer Scale8
I1005 15:22:13.121096  9606 net.cpp:406] Scale8 <- Convolution8
I1005 15:22:13.121100  9606 net.cpp:367] Scale8 -> Convolution8 (in-place)
I1005 15:22:13.121135  9606 layer_factory.hpp:77] Creating layer Scale8
I1005 15:22:13.121208  9606 net.cpp:122] Setting up Scale8
I1005 15:22:13.121214  9606 net.cpp:129] Top shape: 100 32 14 14 (627200)
I1005 15:22:13.121217  9606 net.cpp:137] Memory required for data: 204154000
I1005 15:22:13.121222  9606 layer_factory.hpp:77] Creating layer Convolution9
I1005 15:22:13.121229  9606 net.cpp:84] Creating Layer Convolution9
I1005 15:22:13.121232  9606 net.cpp:406] Convolution9 <- Eltwise3_penlu7_0_split_1
I1005 15:22:13.121237  9606 net.cpp:380] Convolution9 -> Convolution9
I1005 15:22:13.122548  9606 net.cpp:122] Setting up Convolution9
I1005 15:22:13.122570  9606 net.cpp:129] Top shape: 100 32 14 14 (627200)
I1005 15:22:13.122572  9606 net.cpp:137] Memory required for data: 206662800
I1005 15:22:13.122587  9606 layer_factory.hpp:77] Creating layer BatchNorm9
I1005 15:22:13.122592  9606 net.cpp:84] Creating Layer BatchNorm9
I1005 15:22:13.122596  9606 net.cpp:406] BatchNorm9 <- Convolution9
I1005 15:22:13.122601  9606 net.cpp:367] BatchNorm9 -> Convolution9 (in-place)
I1005 15:22:13.122736  9606 net.cpp:122] Setting up BatchNorm9
I1005 15:22:13.122742  9606 net.cpp:129] Top shape: 100 32 14 14 (627200)
I1005 15:22:13.122745  9606 net.cpp:137] Memory required for data: 209171600
I1005 15:22:13.122750  9606 layer_factory.hpp:77] Creating layer Scale9
I1005 15:22:13.122756  9606 net.cpp:84] Creating Layer Scale9
I1005 15:22:13.122759  9606 net.cpp:406] Scale9 <- Convolution9
I1005 15:22:13.122766  9606 net.cpp:367] Scale9 -> Convolution9 (in-place)
I1005 15:22:13.122795  9606 layer_factory.hpp:77] Creating layer Scale9
I1005 15:22:13.122901  9606 net.cpp:122] Setting up Scale9
I1005 15:22:13.122916  9606 net.cpp:129] Top shape: 100 32 14 14 (627200)
I1005 15:22:13.122918  9606 net.cpp:137] Memory required for data: 211680400
I1005 15:22:13.122922  9606 layer_factory.hpp:77] Creating layer penlu8
I1005 15:22:13.122942  9606 net.cpp:84] Creating Layer penlu8
I1005 15:22:13.122946  9606 net.cpp:406] penlu8 <- Convolution9
I1005 15:22:13.122963  9606 net.cpp:367] penlu8 -> Convolution9 (in-place)
I1005 15:22:13.123092  9606 net.cpp:122] Setting up penlu8
I1005 15:22:13.123098  9606 net.cpp:129] Top shape: 100 32 14 14 (627200)
I1005 15:22:13.123101  9606 net.cpp:137] Memory required for data: 214189200
I1005 15:22:13.123106  9606 layer_factory.hpp:77] Creating layer Convolution10
I1005 15:22:13.123111  9606 net.cpp:84] Creating Layer Convolution10
I1005 15:22:13.123126  9606 net.cpp:406] Convolution10 <- Convolution9
I1005 15:22:13.123129  9606 net.cpp:380] Convolution10 -> Convolution10
I1005 15:22:13.124208  9606 net.cpp:122] Setting up Convolution10
I1005 15:22:13.124229  9606 net.cpp:129] Top shape: 100 32 14 14 (627200)
I1005 15:22:13.124233  9606 net.cpp:137] Memory required for data: 216698000
I1005 15:22:13.124238  9606 layer_factory.hpp:77] Creating layer BatchNorm10
I1005 15:22:13.124253  9606 net.cpp:84] Creating Layer BatchNorm10
I1005 15:22:13.124255  9606 net.cpp:406] BatchNorm10 <- Convolution10
I1005 15:22:13.124259  9606 net.cpp:367] BatchNorm10 -> Convolution10 (in-place)
I1005 15:22:13.124462  9606 net.cpp:122] Setting up BatchNorm10
I1005 15:22:13.124469  9606 net.cpp:129] Top shape: 100 32 14 14 (627200)
I1005 15:22:13.124480  9606 net.cpp:137] Memory required for data: 219206800
I1005 15:22:13.124485  9606 layer_factory.hpp:77] Creating layer Scale10
I1005 15:22:13.124498  9606 net.cpp:84] Creating Layer Scale10
I1005 15:22:13.124501  9606 net.cpp:406] Scale10 <- Convolution10
I1005 15:22:13.124505  9606 net.cpp:367] Scale10 -> Convolution10 (in-place)
I1005 15:22:13.124559  9606 layer_factory.hpp:77] Creating layer Scale10
I1005 15:22:13.124685  9606 net.cpp:122] Setting up Scale10
I1005 15:22:13.124689  9606 net.cpp:129] Top shape: 100 32 14 14 (627200)
I1005 15:22:13.124702  9606 net.cpp:137] Memory required for data: 221715600
I1005 15:22:13.124706  9606 layer_factory.hpp:77] Creating layer Eltwise4
I1005 15:22:13.124711  9606 net.cpp:84] Creating Layer Eltwise4
I1005 15:22:13.124713  9606 net.cpp:406] Eltwise4 <- Convolution8
I1005 15:22:13.124727  9606 net.cpp:406] Eltwise4 <- Convolution10
I1005 15:22:13.124732  9606 net.cpp:380] Eltwise4 -> Eltwise4
I1005 15:22:13.124749  9606 net.cpp:122] Setting up Eltwise4
I1005 15:22:13.124763  9606 net.cpp:129] Top shape: 100 32 14 14 (627200)
I1005 15:22:13.124765  9606 net.cpp:137] Memory required for data: 224224400
I1005 15:22:13.124776  9606 layer_factory.hpp:77] Creating layer penlu9
I1005 15:22:13.124783  9606 net.cpp:84] Creating Layer penlu9
I1005 15:22:13.124784  9606 net.cpp:406] penlu9 <- Eltwise4
I1005 15:22:13.124799  9606 net.cpp:367] penlu9 -> Eltwise4 (in-place)
I1005 15:22:13.124960  9606 net.cpp:122] Setting up penlu9
I1005 15:22:13.124966  9606 net.cpp:129] Top shape: 100 32 14 14 (627200)
I1005 15:22:13.124969  9606 net.cpp:137] Memory required for data: 226733200
I1005 15:22:13.124974  9606 layer_factory.hpp:77] Creating layer Eltwise4_penlu9_0_split
I1005 15:22:13.124977  9606 net.cpp:84] Creating Layer Eltwise4_penlu9_0_split
I1005 15:22:13.124990  9606 net.cpp:406] Eltwise4_penlu9_0_split <- Eltwise4
I1005 15:22:13.124994  9606 net.cpp:380] Eltwise4_penlu9_0_split -> Eltwise4_penlu9_0_split_0
I1005 15:22:13.125000  9606 net.cpp:380] Eltwise4_penlu9_0_split -> Eltwise4_penlu9_0_split_1
I1005 15:22:13.125044  9606 net.cpp:122] Setting up Eltwise4_penlu9_0_split
I1005 15:22:13.125049  9606 net.cpp:129] Top shape: 100 32 14 14 (627200)
I1005 15:22:13.125052  9606 net.cpp:129] Top shape: 100 32 14 14 (627200)
I1005 15:22:13.125054  9606 net.cpp:137] Memory required for data: 231750800
I1005 15:22:13.125056  9606 layer_factory.hpp:77] Creating layer Convolution11
I1005 15:22:13.125062  9606 net.cpp:84] Creating Layer Convolution11
I1005 15:22:13.125077  9606 net.cpp:406] Convolution11 <- Eltwise4_penlu9_0_split_0
I1005 15:22:13.125082  9606 net.cpp:380] Convolution11 -> Convolution11
I1005 15:22:13.126211  9606 net.cpp:122] Setting up Convolution11
I1005 15:22:13.126232  9606 net.cpp:129] Top shape: 100 32 14 14 (627200)
I1005 15:22:13.126235  9606 net.cpp:137] Memory required for data: 234259600
I1005 15:22:13.126240  9606 layer_factory.hpp:77] Creating layer BatchNorm11
I1005 15:22:13.126245  9606 net.cpp:84] Creating Layer BatchNorm11
I1005 15:22:13.126248  9606 net.cpp:406] BatchNorm11 <- Convolution11
I1005 15:22:13.126252  9606 net.cpp:367] BatchNorm11 -> Convolution11 (in-place)
I1005 15:22:13.126411  9606 net.cpp:122] Setting up BatchNorm11
I1005 15:22:13.126417  9606 net.cpp:129] Top shape: 100 32 14 14 (627200)
I1005 15:22:13.126430  9606 net.cpp:137] Memory required for data: 236768400
I1005 15:22:13.126435  9606 layer_factory.hpp:77] Creating layer Scale11
I1005 15:22:13.126438  9606 net.cpp:84] Creating Layer Scale11
I1005 15:22:13.126441  9606 net.cpp:406] Scale11 <- Convolution11
I1005 15:22:13.126444  9606 net.cpp:367] Scale11 -> Convolution11 (in-place)
I1005 15:22:13.126492  9606 layer_factory.hpp:77] Creating layer Scale11
I1005 15:22:13.126576  9606 net.cpp:122] Setting up Scale11
I1005 15:22:13.126583  9606 net.cpp:129] Top shape: 100 32 14 14 (627200)
I1005 15:22:13.126586  9606 net.cpp:137] Memory required for data: 239277200
I1005 15:22:13.126591  9606 layer_factory.hpp:77] Creating layer penlu10
I1005 15:22:13.126596  9606 net.cpp:84] Creating Layer penlu10
I1005 15:22:13.126600  9606 net.cpp:406] penlu10 <- Convolution11
I1005 15:22:13.126603  9606 net.cpp:367] penlu10 -> Convolution11 (in-place)
I1005 15:22:13.126718  9606 net.cpp:122] Setting up penlu10
I1005 15:22:13.126722  9606 net.cpp:129] Top shape: 100 32 14 14 (627200)
I1005 15:22:13.126741  9606 net.cpp:137] Memory required for data: 241786000
I1005 15:22:13.126746  9606 layer_factory.hpp:77] Creating layer Convolution12
I1005 15:22:13.126754  9606 net.cpp:84] Creating Layer Convolution12
I1005 15:22:13.126757  9606 net.cpp:406] Convolution12 <- Convolution11
I1005 15:22:13.126762  9606 net.cpp:380] Convolution12 -> Convolution12
I1005 15:22:13.127785  9606 net.cpp:122] Setting up Convolution12
I1005 15:22:13.127795  9606 net.cpp:129] Top shape: 100 32 14 14 (627200)
I1005 15:22:13.127809  9606 net.cpp:137] Memory required for data: 244294800
I1005 15:22:13.127813  9606 layer_factory.hpp:77] Creating layer BatchNorm12
I1005 15:22:13.127820  9606 net.cpp:84] Creating Layer BatchNorm12
I1005 15:22:13.127822  9606 net.cpp:406] BatchNorm12 <- Convolution12
I1005 15:22:13.127826  9606 net.cpp:367] BatchNorm12 -> Convolution12 (in-place)
I1005 15:22:13.127964  9606 net.cpp:122] Setting up BatchNorm12
I1005 15:22:13.127969  9606 net.cpp:129] Top shape: 100 32 14 14 (627200)
I1005 15:22:13.127981  9606 net.cpp:137] Memory required for data: 246803600
I1005 15:22:13.127986  9606 layer_factory.hpp:77] Creating layer Scale12
I1005 15:22:13.127990  9606 net.cpp:84] Creating Layer Scale12
I1005 15:22:13.127993  9606 net.cpp:406] Scale12 <- Convolution12
I1005 15:22:13.127997  9606 net.cpp:367] Scale12 -> Convolution12 (in-place)
I1005 15:22:13.128026  9606 layer_factory.hpp:77] Creating layer Scale12
I1005 15:22:13.128100  9606 net.cpp:122] Setting up Scale12
I1005 15:22:13.128105  9606 net.cpp:129] Top shape: 100 32 14 14 (627200)
I1005 15:22:13.128108  9606 net.cpp:137] Memory required for data: 249312400
I1005 15:22:13.128113  9606 layer_factory.hpp:77] Creating layer Eltwise5
I1005 15:22:13.128118  9606 net.cpp:84] Creating Layer Eltwise5
I1005 15:22:13.128121  9606 net.cpp:406] Eltwise5 <- Eltwise4_penlu9_0_split_1
I1005 15:22:13.128124  9606 net.cpp:406] Eltwise5 <- Convolution12
I1005 15:22:13.128129  9606 net.cpp:380] Eltwise5 -> Eltwise5
I1005 15:22:13.128144  9606 net.cpp:122] Setting up Eltwise5
I1005 15:22:13.128149  9606 net.cpp:129] Top shape: 100 32 14 14 (627200)
I1005 15:22:13.128152  9606 net.cpp:137] Memory required for data: 251821200
I1005 15:22:13.128155  9606 layer_factory.hpp:77] Creating layer penlu11
I1005 15:22:13.128160  9606 net.cpp:84] Creating Layer penlu11
I1005 15:22:13.128163  9606 net.cpp:406] penlu11 <- Eltwise5
I1005 15:22:13.128167  9606 net.cpp:367] penlu11 -> Eltwise5 (in-place)
I1005 15:22:13.128273  9606 net.cpp:122] Setting up penlu11
I1005 15:22:13.128279  9606 net.cpp:129] Top shape: 100 32 14 14 (627200)
I1005 15:22:13.128283  9606 net.cpp:137] Memory required for data: 254330000
I1005 15:22:13.128286  9606 layer_factory.hpp:77] Creating layer Eltwise5_penlu11_0_split
I1005 15:22:13.128293  9606 net.cpp:84] Creating Layer Eltwise5_penlu11_0_split
I1005 15:22:13.128295  9606 net.cpp:406] Eltwise5_penlu11_0_split <- Eltwise5
I1005 15:22:13.128298  9606 net.cpp:380] Eltwise5_penlu11_0_split -> Eltwise5_penlu11_0_split_0
I1005 15:22:13.128304  9606 net.cpp:380] Eltwise5_penlu11_0_split -> Eltwise5_penlu11_0_split_1
I1005 15:22:13.128326  9606 net.cpp:122] Setting up Eltwise5_penlu11_0_split
I1005 15:22:13.128331  9606 net.cpp:129] Top shape: 100 32 14 14 (627200)
I1005 15:22:13.128335  9606 net.cpp:129] Top shape: 100 32 14 14 (627200)
I1005 15:22:13.128338  9606 net.cpp:137] Memory required for data: 259347600
I1005 15:22:13.128340  9606 layer_factory.hpp:77] Creating layer Convolution13
I1005 15:22:13.128347  9606 net.cpp:84] Creating Layer Convolution13
I1005 15:22:13.128350  9606 net.cpp:406] Convolution13 <- Eltwise5_penlu11_0_split_0
I1005 15:22:13.128356  9606 net.cpp:380] Convolution13 -> Convolution13
I1005 15:22:13.129397  9606 net.cpp:122] Setting up Convolution13
I1005 15:22:13.129407  9606 net.cpp:129] Top shape: 100 32 14 14 (627200)
I1005 15:22:13.129411  9606 net.cpp:137] Memory required for data: 261856400
I1005 15:22:13.129416  9606 layer_factory.hpp:77] Creating layer BatchNorm13
I1005 15:22:13.129422  9606 net.cpp:84] Creating Layer BatchNorm13
I1005 15:22:13.129431  9606 net.cpp:406] BatchNorm13 <- Convolution13
I1005 15:22:13.129436  9606 net.cpp:367] BatchNorm13 -> Convolution13 (in-place)
I1005 15:22:13.129570  9606 net.cpp:122] Setting up BatchNorm13
I1005 15:22:13.129576  9606 net.cpp:129] Top shape: 100 32 14 14 (627200)
I1005 15:22:13.129580  9606 net.cpp:137] Memory required for data: 264365200
I1005 15:22:13.129585  9606 layer_factory.hpp:77] Creating layer Scale13
I1005 15:22:13.129588  9606 net.cpp:84] Creating Layer Scale13
I1005 15:22:13.129592  9606 net.cpp:406] Scale13 <- Convolution13
I1005 15:22:13.129595  9606 net.cpp:367] Scale13 -> Convolution13 (in-place)
I1005 15:22:13.129624  9606 layer_factory.hpp:77] Creating layer Scale13
I1005 15:22:13.129701  9606 net.cpp:122] Setting up Scale13
I1005 15:22:13.129706  9606 net.cpp:129] Top shape: 100 32 14 14 (627200)
I1005 15:22:13.129709  9606 net.cpp:137] Memory required for data: 266874000
I1005 15:22:13.129714  9606 layer_factory.hpp:77] Creating layer penlu12
I1005 15:22:13.129719  9606 net.cpp:84] Creating Layer penlu12
I1005 15:22:13.129724  9606 net.cpp:406] penlu12 <- Convolution13
I1005 15:22:13.129727  9606 net.cpp:367] penlu12 -> Convolution13 (in-place)
I1005 15:22:13.129834  9606 net.cpp:122] Setting up penlu12
I1005 15:22:13.129840  9606 net.cpp:129] Top shape: 100 32 14 14 (627200)
I1005 15:22:13.129843  9606 net.cpp:137] Memory required for data: 269382800
I1005 15:22:13.129848  9606 layer_factory.hpp:77] Creating layer Convolution14
I1005 15:22:13.129855  9606 net.cpp:84] Creating Layer Convolution14
I1005 15:22:13.129858  9606 net.cpp:406] Convolution14 <- Convolution13
I1005 15:22:13.129863  9606 net.cpp:380] Convolution14 -> Convolution14
I1005 15:22:13.130913  9606 net.cpp:122] Setting up Convolution14
I1005 15:22:13.130923  9606 net.cpp:129] Top shape: 100 32 14 14 (627200)
I1005 15:22:13.130928  9606 net.cpp:137] Memory required for data: 271891600
I1005 15:22:13.130942  9606 layer_factory.hpp:77] Creating layer BatchNorm14
I1005 15:22:13.130952  9606 net.cpp:84] Creating Layer BatchNorm14
I1005 15:22:13.130956  9606 net.cpp:406] BatchNorm14 <- Convolution14
I1005 15:22:13.130960  9606 net.cpp:367] BatchNorm14 -> Convolution14 (in-place)
I1005 15:22:13.131093  9606 net.cpp:122] Setting up BatchNorm14
I1005 15:22:13.131098  9606 net.cpp:129] Top shape: 100 32 14 14 (627200)
I1005 15:22:13.131101  9606 net.cpp:137] Memory required for data: 274400400
I1005 15:22:13.131106  9606 layer_factory.hpp:77] Creating layer Scale14
I1005 15:22:13.131111  9606 net.cpp:84] Creating Layer Scale14
I1005 15:22:13.131114  9606 net.cpp:406] Scale14 <- Convolution14
I1005 15:22:13.131117  9606 net.cpp:367] Scale14 -> Convolution14 (in-place)
I1005 15:22:13.131147  9606 layer_factory.hpp:77] Creating layer Scale14
I1005 15:22:13.131225  9606 net.cpp:122] Setting up Scale14
I1005 15:22:13.131232  9606 net.cpp:129] Top shape: 100 32 14 14 (627200)
I1005 15:22:13.131234  9606 net.cpp:137] Memory required for data: 276909200
I1005 15:22:13.131238  9606 layer_factory.hpp:77] Creating layer Eltwise6
I1005 15:22:13.131242  9606 net.cpp:84] Creating Layer Eltwise6
I1005 15:22:13.131245  9606 net.cpp:406] Eltwise6 <- Eltwise5_penlu11_0_split_1
I1005 15:22:13.131248  9606 net.cpp:406] Eltwise6 <- Convolution14
I1005 15:22:13.131252  9606 net.cpp:380] Eltwise6 -> Eltwise6
I1005 15:22:13.131268  9606 net.cpp:122] Setting up Eltwise6
I1005 15:22:13.131271  9606 net.cpp:129] Top shape: 100 32 14 14 (627200)
I1005 15:22:13.131274  9606 net.cpp:137] Memory required for data: 279418000
I1005 15:22:13.131276  9606 layer_factory.hpp:77] Creating layer penlu13
I1005 15:22:13.131281  9606 net.cpp:84] Creating Layer penlu13
I1005 15:22:13.131284  9606 net.cpp:406] penlu13 <- Eltwise6
I1005 15:22:13.131289  9606 net.cpp:367] penlu13 -> Eltwise6 (in-place)
I1005 15:22:13.131393  9606 net.cpp:122] Setting up penlu13
I1005 15:22:13.131398  9606 net.cpp:129] Top shape: 100 32 14 14 (627200)
I1005 15:22:13.131402  9606 net.cpp:137] Memory required for data: 281926800
I1005 15:22:13.131405  9606 layer_factory.hpp:77] Creating layer Eltwise6_penlu13_0_split
I1005 15:22:13.131417  9606 net.cpp:84] Creating Layer Eltwise6_penlu13_0_split
I1005 15:22:13.131420  9606 net.cpp:406] Eltwise6_penlu13_0_split <- Eltwise6
I1005 15:22:13.131423  9606 net.cpp:380] Eltwise6_penlu13_0_split -> Eltwise6_penlu13_0_split_0
I1005 15:22:13.131428  9606 net.cpp:380] Eltwise6_penlu13_0_split -> Eltwise6_penlu13_0_split_1
I1005 15:22:13.131451  9606 net.cpp:122] Setting up Eltwise6_penlu13_0_split
I1005 15:22:13.131455  9606 net.cpp:129] Top shape: 100 32 14 14 (627200)
I1005 15:22:13.131459  9606 net.cpp:129] Top shape: 100 32 14 14 (627200)
I1005 15:22:13.131461  9606 net.cpp:137] Memory required for data: 286944400
I1005 15:22:13.131464  9606 layer_factory.hpp:77] Creating layer Convolution15
I1005 15:22:13.131469  9606 net.cpp:84] Creating Layer Convolution15
I1005 15:22:13.131472  9606 net.cpp:406] Convolution15 <- Eltwise6_penlu13_0_split_0
I1005 15:22:13.131476  9606 net.cpp:380] Convolution15 -> Convolution15
I1005 15:22:13.132364  9606 net.cpp:122] Setting up Convolution15
I1005 15:22:13.132374  9606 net.cpp:129] Top shape: 100 64 7 7 (313600)
I1005 15:22:13.132375  9606 net.cpp:137] Memory required for data: 288198800
I1005 15:22:13.132380  9606 layer_factory.hpp:77] Creating layer BatchNorm15
I1005 15:22:13.132385  9606 net.cpp:84] Creating Layer BatchNorm15
I1005 15:22:13.132388  9606 net.cpp:406] BatchNorm15 <- Convolution15
I1005 15:22:13.132392  9606 net.cpp:367] BatchNorm15 -> Convolution15 (in-place)
I1005 15:22:13.132521  9606 net.cpp:122] Setting up BatchNorm15
I1005 15:22:13.132526  9606 net.cpp:129] Top shape: 100 64 7 7 (313600)
I1005 15:22:13.132529  9606 net.cpp:137] Memory required for data: 289453200
I1005 15:22:13.132534  9606 layer_factory.hpp:77] Creating layer Scale15
I1005 15:22:13.132537  9606 net.cpp:84] Creating Layer Scale15
I1005 15:22:13.132540  9606 net.cpp:406] Scale15 <- Convolution15
I1005 15:22:13.132544  9606 net.cpp:367] Scale15 -> Convolution15 (in-place)
I1005 15:22:13.132570  9606 layer_factory.hpp:77] Creating layer Scale15
I1005 15:22:13.132644  9606 net.cpp:122] Setting up Scale15
I1005 15:22:13.132649  9606 net.cpp:129] Top shape: 100 64 7 7 (313600)
I1005 15:22:13.132652  9606 net.cpp:137] Memory required for data: 290707600
I1005 15:22:13.132655  9606 layer_factory.hpp:77] Creating layer Convolution16
I1005 15:22:13.132663  9606 net.cpp:84] Creating Layer Convolution16
I1005 15:22:13.132665  9606 net.cpp:406] Convolution16 <- Eltwise6_penlu13_0_split_1
I1005 15:22:13.132669  9606 net.cpp:380] Convolution16 -> Convolution16
I1005 15:22:13.134454  9606 net.cpp:122] Setting up Convolution16
I1005 15:22:13.134464  9606 net.cpp:129] Top shape: 100 64 7 7 (313600)
I1005 15:22:13.134466  9606 net.cpp:137] Memory required for data: 291962000
I1005 15:22:13.134471  9606 layer_factory.hpp:77] Creating layer BatchNorm16
I1005 15:22:13.134476  9606 net.cpp:84] Creating Layer BatchNorm16
I1005 15:22:13.134479  9606 net.cpp:406] BatchNorm16 <- Convolution16
I1005 15:22:13.134485  9606 net.cpp:367] BatchNorm16 -> Convolution16 (in-place)
I1005 15:22:13.134636  9606 net.cpp:122] Setting up BatchNorm16
I1005 15:22:13.134644  9606 net.cpp:129] Top shape: 100 64 7 7 (313600)
I1005 15:22:13.134645  9606 net.cpp:137] Memory required for data: 293216400
I1005 15:22:13.134650  9606 layer_factory.hpp:77] Creating layer Scale16
I1005 15:22:13.134655  9606 net.cpp:84] Creating Layer Scale16
I1005 15:22:13.134658  9606 net.cpp:406] Scale16 <- Convolution16
I1005 15:22:13.134661  9606 net.cpp:367] Scale16 -> Convolution16 (in-place)
I1005 15:22:13.134690  9606 layer_factory.hpp:77] Creating layer Scale16
I1005 15:22:13.134766  9606 net.cpp:122] Setting up Scale16
I1005 15:22:13.134771  9606 net.cpp:129] Top shape: 100 64 7 7 (313600)
I1005 15:22:13.134773  9606 net.cpp:137] Memory required for data: 294470800
I1005 15:22:13.134778  9606 layer_factory.hpp:77] Creating layer penlu14
I1005 15:22:13.134783  9606 net.cpp:84] Creating Layer penlu14
I1005 15:22:13.134784  9606 net.cpp:406] penlu14 <- Convolution16
I1005 15:22:13.134798  9606 net.cpp:367] penlu14 -> Convolution16 (in-place)
I1005 15:22:13.134905  9606 net.cpp:122] Setting up penlu14
I1005 15:22:13.134910  9606 net.cpp:129] Top shape: 100 64 7 7 (313600)
I1005 15:22:13.134913  9606 net.cpp:137] Memory required for data: 295725200
I1005 15:22:13.134917  9606 layer_factory.hpp:77] Creating layer Convolution17
I1005 15:22:13.134924  9606 net.cpp:84] Creating Layer Convolution17
I1005 15:22:13.134927  9606 net.cpp:406] Convolution17 <- Convolution16
I1005 15:22:13.134932  9606 net.cpp:380] Convolution17 -> Convolution17
I1005 15:22:13.136603  9606 net.cpp:122] Setting up Convolution17
I1005 15:22:13.136612  9606 net.cpp:129] Top shape: 100 64 7 7 (313600)
I1005 15:22:13.136615  9606 net.cpp:137] Memory required for data: 296979600
I1005 15:22:13.136620  9606 layer_factory.hpp:77] Creating layer BatchNorm17
I1005 15:22:13.136626  9606 net.cpp:84] Creating Layer BatchNorm17
I1005 15:22:13.136629  9606 net.cpp:406] BatchNorm17 <- Convolution17
I1005 15:22:13.136632  9606 net.cpp:367] BatchNorm17 -> Convolution17 (in-place)
I1005 15:22:13.136771  9606 net.cpp:122] Setting up BatchNorm17
I1005 15:22:13.136776  9606 net.cpp:129] Top shape: 100 64 7 7 (313600)
I1005 15:22:13.136780  9606 net.cpp:137] Memory required for data: 298234000
I1005 15:22:13.136785  9606 layer_factory.hpp:77] Creating layer Scale17
I1005 15:22:13.136788  9606 net.cpp:84] Creating Layer Scale17
I1005 15:22:13.136791  9606 net.cpp:406] Scale17 <- Convolution17
I1005 15:22:13.136795  9606 net.cpp:367] Scale17 -> Convolution17 (in-place)
I1005 15:22:13.136823  9606 layer_factory.hpp:77] Creating layer Scale17
I1005 15:22:13.136904  9606 net.cpp:122] Setting up Scale17
I1005 15:22:13.136910  9606 net.cpp:129] Top shape: 100 64 7 7 (313600)
I1005 15:22:13.136912  9606 net.cpp:137] Memory required for data: 299488400
I1005 15:22:13.136917  9606 layer_factory.hpp:77] Creating layer Eltwise7
I1005 15:22:13.136922  9606 net.cpp:84] Creating Layer Eltwise7
I1005 15:22:13.136925  9606 net.cpp:406] Eltwise7 <- Convolution15
I1005 15:22:13.136929  9606 net.cpp:406] Eltwise7 <- Convolution17
I1005 15:22:13.136932  9606 net.cpp:380] Eltwise7 -> Eltwise7
I1005 15:22:13.136950  9606 net.cpp:122] Setting up Eltwise7
I1005 15:22:13.136955  9606 net.cpp:129] Top shape: 100 64 7 7 (313600)
I1005 15:22:13.136958  9606 net.cpp:137] Memory required for data: 300742800
I1005 15:22:13.136960  9606 layer_factory.hpp:77] Creating layer penlu15
I1005 15:22:13.136966  9606 net.cpp:84] Creating Layer penlu15
I1005 15:22:13.136970  9606 net.cpp:406] penlu15 <- Eltwise7
I1005 15:22:13.136973  9606 net.cpp:367] penlu15 -> Eltwise7 (in-place)
I1005 15:22:13.137085  9606 net.cpp:122] Setting up penlu15
I1005 15:22:13.137091  9606 net.cpp:129] Top shape: 100 64 7 7 (313600)
I1005 15:22:13.137094  9606 net.cpp:137] Memory required for data: 301997200
I1005 15:22:13.137099  9606 layer_factory.hpp:77] Creating layer Eltwise7_penlu15_0_split
I1005 15:22:13.137102  9606 net.cpp:84] Creating Layer Eltwise7_penlu15_0_split
I1005 15:22:13.137104  9606 net.cpp:406] Eltwise7_penlu15_0_split <- Eltwise7
I1005 15:22:13.137109  9606 net.cpp:380] Eltwise7_penlu15_0_split -> Eltwise7_penlu15_0_split_0
I1005 15:22:13.137112  9606 net.cpp:380] Eltwise7_penlu15_0_split -> Eltwise7_penlu15_0_split_1
I1005 15:22:13.137136  9606 net.cpp:122] Setting up Eltwise7_penlu15_0_split
I1005 15:22:13.137140  9606 net.cpp:129] Top shape: 100 64 7 7 (313600)
I1005 15:22:13.137143  9606 net.cpp:129] Top shape: 100 64 7 7 (313600)
I1005 15:22:13.137146  9606 net.cpp:137] Memory required for data: 304506000
I1005 15:22:13.137148  9606 layer_factory.hpp:77] Creating layer Convolution18
I1005 15:22:13.137154  9606 net.cpp:84] Creating Layer Convolution18
I1005 15:22:13.137156  9606 net.cpp:406] Convolution18 <- Eltwise7_penlu15_0_split_0
I1005 15:22:13.137161  9606 net.cpp:380] Convolution18 -> Convolution18
I1005 15:22:13.139180  9606 net.cpp:122] Setting up Convolution18
I1005 15:22:13.139190  9606 net.cpp:129] Top shape: 100 64 7 7 (313600)
I1005 15:22:13.139204  9606 net.cpp:137] Memory required for data: 305760400
I1005 15:22:13.139217  9606 layer_factory.hpp:77] Creating layer BatchNorm18
I1005 15:22:13.139222  9606 net.cpp:84] Creating Layer BatchNorm18
I1005 15:22:13.139226  9606 net.cpp:406] BatchNorm18 <- Convolution18
I1005 15:22:13.139232  9606 net.cpp:367] BatchNorm18 -> Convolution18 (in-place)
I1005 15:22:13.139369  9606 net.cpp:122] Setting up BatchNorm18
I1005 15:22:13.139374  9606 net.cpp:129] Top shape: 100 64 7 7 (313600)
I1005 15:22:13.139377  9606 net.cpp:137] Memory required for data: 307014800
I1005 15:22:13.139382  9606 layer_factory.hpp:77] Creating layer Scale18
I1005 15:22:13.139387  9606 net.cpp:84] Creating Layer Scale18
I1005 15:22:13.139390  9606 net.cpp:406] Scale18 <- Convolution18
I1005 15:22:13.139394  9606 net.cpp:367] Scale18 -> Convolution18 (in-place)
I1005 15:22:13.139422  9606 layer_factory.hpp:77] Creating layer Scale18
I1005 15:22:13.139502  9606 net.cpp:122] Setting up Scale18
I1005 15:22:13.139508  9606 net.cpp:129] Top shape: 100 64 7 7 (313600)
I1005 15:22:13.139510  9606 net.cpp:137] Memory required for data: 308269200
I1005 15:22:13.139514  9606 layer_factory.hpp:77] Creating layer penlu16
I1005 15:22:13.139519  9606 net.cpp:84] Creating Layer penlu16
I1005 15:22:13.139523  9606 net.cpp:406] penlu16 <- Convolution18
I1005 15:22:13.139528  9606 net.cpp:367] penlu16 -> Convolution18 (in-place)
I1005 15:22:13.139638  9606 net.cpp:122] Setting up penlu16
I1005 15:22:13.139644  9606 net.cpp:129] Top shape: 100 64 7 7 (313600)
I1005 15:22:13.139647  9606 net.cpp:137] Memory required for data: 309523600
I1005 15:22:13.139652  9606 layer_factory.hpp:77] Creating layer Convolution19
I1005 15:22:13.139658  9606 net.cpp:84] Creating Layer Convolution19
I1005 15:22:13.139662  9606 net.cpp:406] Convolution19 <- Convolution18
I1005 15:22:13.139667  9606 net.cpp:380] Convolution19 -> Convolution19
I1005 15:22:13.141808  9606 net.cpp:122] Setting up Convolution19
I1005 15:22:13.141819  9606 net.cpp:129] Top shape: 100 64 7 7 (313600)
I1005 15:22:13.141822  9606 net.cpp:137] Memory required for data: 310778000
I1005 15:22:13.141839  9606 layer_factory.hpp:77] Creating layer BatchNorm19
I1005 15:22:13.141856  9606 net.cpp:84] Creating Layer BatchNorm19
I1005 15:22:13.141860  9606 net.cpp:406] BatchNorm19 <- Convolution19
I1005 15:22:13.141875  9606 net.cpp:367] BatchNorm19 -> Convolution19 (in-place)
I1005 15:22:13.142040  9606 net.cpp:122] Setting up BatchNorm19
I1005 15:22:13.142046  9606 net.cpp:129] Top shape: 100 64 7 7 (313600)
I1005 15:22:13.142060  9606 net.cpp:137] Memory required for data: 312032400
I1005 15:22:13.142066  9606 layer_factory.hpp:77] Creating layer Scale19
I1005 15:22:13.142071  9606 net.cpp:84] Creating Layer Scale19
I1005 15:22:13.142073  9606 net.cpp:406] Scale19 <- Convolution19
I1005 15:22:13.142077  9606 net.cpp:367] Scale19 -> Convolution19 (in-place)
I1005 15:22:13.142115  9606 layer_factory.hpp:77] Creating layer Scale19
I1005 15:22:13.142213  9606 net.cpp:122] Setting up Scale19
I1005 15:22:13.142218  9606 net.cpp:129] Top shape: 100 64 7 7 (313600)
I1005 15:22:13.142221  9606 net.cpp:137] Memory required for data: 313286800
I1005 15:22:13.142236  9606 layer_factory.hpp:77] Creating layer Eltwise8
I1005 15:22:13.142241  9606 net.cpp:84] Creating Layer Eltwise8
I1005 15:22:13.142246  9606 net.cpp:406] Eltwise8 <- Eltwise7_penlu15_0_split_1
I1005 15:22:13.142248  9606 net.cpp:406] Eltwise8 <- Convolution19
I1005 15:22:13.142253  9606 net.cpp:380] Eltwise8 -> Eltwise8
I1005 15:22:13.142271  9606 net.cpp:122] Setting up Eltwise8
I1005 15:22:13.142276  9606 net.cpp:129] Top shape: 100 64 7 7 (313600)
I1005 15:22:13.142278  9606 net.cpp:137] Memory required for data: 314541200
I1005 15:22:13.142280  9606 layer_factory.hpp:77] Creating layer penlu17
I1005 15:22:13.142287  9606 net.cpp:84] Creating Layer penlu17
I1005 15:22:13.142289  9606 net.cpp:406] penlu17 <- Eltwise8
I1005 15:22:13.142293  9606 net.cpp:367] penlu17 -> Eltwise8 (in-place)
I1005 15:22:13.142401  9606 net.cpp:122] Setting up penlu17
I1005 15:22:13.142407  9606 net.cpp:129] Top shape: 100 64 7 7 (313600)
I1005 15:22:13.142417  9606 net.cpp:137] Memory required for data: 315795600
I1005 15:22:13.142422  9606 layer_factory.hpp:77] Creating layer Eltwise8_penlu17_0_split
I1005 15:22:13.142426  9606 net.cpp:84] Creating Layer Eltwise8_penlu17_0_split
I1005 15:22:13.142429  9606 net.cpp:406] Eltwise8_penlu17_0_split <- Eltwise8
I1005 15:22:13.142434  9606 net.cpp:380] Eltwise8_penlu17_0_split -> Eltwise8_penlu17_0_split_0
I1005 15:22:13.142439  9606 net.cpp:380] Eltwise8_penlu17_0_split -> Eltwise8_penlu17_0_split_1
I1005 15:22:13.142463  9606 net.cpp:122] Setting up Eltwise8_penlu17_0_split
I1005 15:22:13.142469  9606 net.cpp:129] Top shape: 100 64 7 7 (313600)
I1005 15:22:13.142473  9606 net.cpp:129] Top shape: 100 64 7 7 (313600)
I1005 15:22:13.142475  9606 net.cpp:137] Memory required for data: 318304400
I1005 15:22:13.142478  9606 layer_factory.hpp:77] Creating layer Convolution20
I1005 15:22:13.142485  9606 net.cpp:84] Creating Layer Convolution20
I1005 15:22:13.142488  9606 net.cpp:406] Convolution20 <- Eltwise8_penlu17_0_split_0
I1005 15:22:13.142493  9606 net.cpp:380] Convolution20 -> Convolution20
I1005 15:22:13.144171  9606 net.cpp:122] Setting up Convolution20
I1005 15:22:13.144181  9606 net.cpp:129] Top shape: 100 64 7 7 (313600)
I1005 15:22:13.144186  9606 net.cpp:137] Memory required for data: 319558800
I1005 15:22:13.144191  9606 layer_factory.hpp:77] Creating layer BatchNorm20
I1005 15:22:13.144197  9606 net.cpp:84] Creating Layer BatchNorm20
I1005 15:22:13.144201  9606 net.cpp:406] BatchNorm20 <- Convolution20
I1005 15:22:13.144206  9606 net.cpp:367] BatchNorm20 -> Convolution20 (in-place)
I1005 15:22:13.144340  9606 net.cpp:122] Setting up BatchNorm20
I1005 15:22:13.144346  9606 net.cpp:129] Top shape: 100 64 7 7 (313600)
I1005 15:22:13.144349  9606 net.cpp:137] Memory required for data: 320813200
I1005 15:22:13.144354  9606 layer_factory.hpp:77] Creating layer Scale20
I1005 15:22:13.144361  9606 net.cpp:84] Creating Layer Scale20
I1005 15:22:13.144364  9606 net.cpp:406] Scale20 <- Convolution20
I1005 15:22:13.144368  9606 net.cpp:367] Scale20 -> Convolution20 (in-place)
I1005 15:22:13.144397  9606 layer_factory.hpp:77] Creating layer Scale20
I1005 15:22:13.144476  9606 net.cpp:122] Setting up Scale20
I1005 15:22:13.144482  9606 net.cpp:129] Top shape: 100 64 7 7 (313600)
I1005 15:22:13.144485  9606 net.cpp:137] Memory required for data: 322067600
I1005 15:22:13.144490  9606 layer_factory.hpp:77] Creating layer penlu18
I1005 15:22:13.144495  9606 net.cpp:84] Creating Layer penlu18
I1005 15:22:13.144498  9606 net.cpp:406] penlu18 <- Convolution20
I1005 15:22:13.144502  9606 net.cpp:367] penlu18 -> Convolution20 (in-place)
I1005 15:22:13.144610  9606 net.cpp:122] Setting up penlu18
I1005 15:22:13.144615  9606 net.cpp:129] Top shape: 100 64 7 7 (313600)
I1005 15:22:13.144618  9606 net.cpp:137] Memory required for data: 323322000
I1005 15:22:13.144623  9606 layer_factory.hpp:77] Creating layer Convolution21
I1005 15:22:13.144629  9606 net.cpp:84] Creating Layer Convolution21
I1005 15:22:13.144631  9606 net.cpp:406] Convolution21 <- Convolution20
I1005 15:22:13.144635  9606 net.cpp:380] Convolution21 -> Convolution21
I1005 15:22:13.147297  9606 net.cpp:122] Setting up Convolution21
I1005 15:22:13.147307  9606 net.cpp:129] Top shape: 100 64 7 7 (313600)
I1005 15:22:13.147310  9606 net.cpp:137] Memory required for data: 324576400
I1005 15:22:13.147315  9606 layer_factory.hpp:77] Creating layer BatchNorm21
I1005 15:22:13.147321  9606 net.cpp:84] Creating Layer BatchNorm21
I1005 15:22:13.147325  9606 net.cpp:406] BatchNorm21 <- Convolution21
I1005 15:22:13.147327  9606 net.cpp:367] BatchNorm21 -> Convolution21 (in-place)
I1005 15:22:13.147462  9606 net.cpp:122] Setting up BatchNorm21
I1005 15:22:13.147467  9606 net.cpp:129] Top shape: 100 64 7 7 (313600)
I1005 15:22:13.147469  9606 net.cpp:137] Memory required for data: 325830800
I1005 15:22:13.147475  9606 layer_factory.hpp:77] Creating layer Scale21
I1005 15:22:13.147478  9606 net.cpp:84] Creating Layer Scale21
I1005 15:22:13.147481  9606 net.cpp:406] Scale21 <- Convolution21
I1005 15:22:13.147493  9606 net.cpp:367] Scale21 -> Convolution21 (in-place)
I1005 15:22:13.147522  9606 layer_factory.hpp:77] Creating layer Scale21
I1005 15:22:13.147600  9606 net.cpp:122] Setting up Scale21
I1005 15:22:13.147604  9606 net.cpp:129] Top shape: 100 64 7 7 (313600)
I1005 15:22:13.147608  9606 net.cpp:137] Memory required for data: 327085200
I1005 15:22:13.147611  9606 layer_factory.hpp:77] Creating layer Eltwise9
I1005 15:22:13.147615  9606 net.cpp:84] Creating Layer Eltwise9
I1005 15:22:13.147619  9606 net.cpp:406] Eltwise9 <- Eltwise8_penlu17_0_split_1
I1005 15:22:13.147621  9606 net.cpp:406] Eltwise9 <- Convolution21
I1005 15:22:13.147624  9606 net.cpp:380] Eltwise9 -> Eltwise9
I1005 15:22:13.147640  9606 net.cpp:122] Setting up Eltwise9
I1005 15:22:13.147644  9606 net.cpp:129] Top shape: 100 64 7 7 (313600)
I1005 15:22:13.147646  9606 net.cpp:137] Memory required for data: 328339600
I1005 15:22:13.147649  9606 layer_factory.hpp:77] Creating layer penlu19
I1005 15:22:13.147653  9606 net.cpp:84] Creating Layer penlu19
I1005 15:22:13.147656  9606 net.cpp:406] penlu19 <- Eltwise9
I1005 15:22:13.147660  9606 net.cpp:367] penlu19 -> Eltwise9 (in-place)
I1005 15:22:13.147768  9606 net.cpp:122] Setting up penlu19
I1005 15:22:13.147773  9606 net.cpp:129] Top shape: 100 64 7 7 (313600)
I1005 15:22:13.147775  9606 net.cpp:137] Memory required for data: 329594000
I1005 15:22:13.147779  9606 layer_factory.hpp:77] Creating layer Pooling1
I1005 15:22:13.147784  9606 net.cpp:84] Creating Layer Pooling1
I1005 15:22:13.147788  9606 net.cpp:406] Pooling1 <- Eltwise9
I1005 15:22:13.147790  9606 net.cpp:380] Pooling1 -> Pooling1
I1005 15:22:13.147936  9606 net.cpp:122] Setting up Pooling1
I1005 15:22:13.147943  9606 net.cpp:129] Top shape: 100 64 1 1 (6400)
I1005 15:22:13.147945  9606 net.cpp:137] Memory required for data: 329619600
I1005 15:22:13.147948  9606 layer_factory.hpp:77] Creating layer InnerProduct1
I1005 15:22:13.147956  9606 net.cpp:84] Creating Layer InnerProduct1
I1005 15:22:13.147959  9606 net.cpp:406] InnerProduct1 <- Pooling1
I1005 15:22:13.147964  9606 net.cpp:380] InnerProduct1 -> InnerProduct1
I1005 15:22:13.148058  9606 net.cpp:122] Setting up InnerProduct1
I1005 15:22:13.148063  9606 net.cpp:129] Top shape: 100 10 (1000)
I1005 15:22:13.148066  9606 net.cpp:137] Memory required for data: 329623600
I1005 15:22:13.148071  9606 layer_factory.hpp:77] Creating layer SoftmaxWithLoss1
I1005 15:22:13.148074  9606 net.cpp:84] Creating Layer SoftmaxWithLoss1
I1005 15:22:13.148077  9606 net.cpp:406] SoftmaxWithLoss1 <- InnerProduct1
I1005 15:22:13.148080  9606 net.cpp:406] SoftmaxWithLoss1 <- Data2
I1005 15:22:13.148084  9606 net.cpp:380] SoftmaxWithLoss1 -> SoftmaxWithLoss1
…
I1005 15:22:13.150703  9606 net.cpp:294] The NetState phase (1) differed from the phase (0) specified by a rule in layer Data1
I1005 15:22:13.151181  9606 net.cpp:51] Initializing net from parameters: 
name: "resnet_cifar10"
state {
  phase: TEST
}
layer {
  name: "Data1"
  type: "Data"
  top: "Data1"
  top: "Data2"
  include {
    phase: TEST
  }
  transform_param {
    mean_file: "/home/x306/caffe/xn/PENLU/data/cifar10/mean.binaryproto"
  }
  data_param {
    source: "/home/x306/caffe/xn/PENLU/data/cifar10/cifar10_test_lmdb"
    batch_size: 100
    backend: LMDB
  }
}
layer {
  name: "Convolution1"
  type: "Convolution"
  bottom: "Data1"
  top: "Convolution1"
  param {
    lr_mult: 1
    decay_mult: 1
  }
  param {
    lr_mult: 2
    decay_mult: 0
  }
  convolution_param {
    num_output: 16
    pad: 1
    kernel_size: 3
    stride: 1
    weight_filler {
      type: "gaussian"
      std: 0.118
    }
    bias_filler {
      type: "constant"
      value: 0
    }
  }
}
layer {
  name: "BatchNorm1"
  type: "BatchNorm"
  bottom: "Convolution1"
  top: "Convolution1"
  param {
    lr_mult: 0
    decay_mult: 0
  }
  param {
    lr_mult: 0
    decay_mult: 0
  }
  param {
    lr_mult: 0
    decay_mult: 0
  }
}
layer {
  name: "Scale1"
  type: "Scale"
  bottom: "Convolution1"
  top: "Convolution1"
  scale_param {
    bias_term: true
  }
}
layer {
  name: "penlu1"
  type: "PENLU"
  bottom: "Convolution1"
  top: "Convolution1"
  param {
    lr_mult: 2
    decay_mult: 2
  }
  param {
    lr_mult: 2
    decay_mult: 2
  }
  param {
    lr_mult: 0
    decay_mult: 0
  }
  penlu_param {
    alpha_filler {
      type: "constant"
      value: 1
    }
    beta_filler {
      type: "constant"
      value: 1
    }
    eta_filler {
      type: "constant"
      value: 1
    }
  }
}
layer {
  name: "Convolution2"
  type: "Convolution"
  bottom: "Convolution1"
  top: "Convolution2"
  param {
    lr_mult: 1
    decay_mult: 1
  }
  param {
    lr_mult: 2
    decay_mult: 0
  }
  convolution_param {
    num_output: 16
    pad: 1
    kernel_size: 3
    stride: 1
    weight_filler {
      type: "gaussian"
      std: 0.118
    }
    bias_filler {
      type: "constant"
      value: 0
    }
  }
}
layer {
  name: "BatchNorm2"
  type: "BatchNorm"
  bottom: "Convolution2"
  top: "Convolution2"
  param {
    lr_mult: 0
    decay_mult: 0
  }
  param {
    lr_mult: 0
    decay_mult: 0
  }
  param {
    lr_mult: 0
    decay_mult: 0
  }
}
layer {
  name: "Scale2"
  type: "Scale"
  bottom: "Convolution2"
  top: "Convolution2"
  scale_param {
    bias_term: true
  }
}
layer {
  name: "penlu2"
  type: "PENLU"
  bottom: "Convolution2"
  top: "Convolution2"
  param {
    lr_mult: 2
    decay_mult: 2
  }
  param {
    lr_mult: 2
    decay_mult: 2
  }
  param {
    lr_mult: 0
    decay_mult: 0
  }
  penlu_param {
    alpha_filler {
      type: "constant"
      value: 1
    }
    beta_filler {
      type: "constant"
      value: 1
    }
    eta_filler {
      type: "constant"
      value: 1
    }
  }
}
layer {
  name: "Convolution3"
  type: "Convolution"
  bottom: "Convolution2"
  top: "Convolution3"
  param {
    lr_mult: 1
    decay_mult: 1
  }
  param {
    lr_mult: 2
    decay_mult: 0
  }
  convolution_param {
    num_output: 16
    pad: 1
    kernel_size: 3
    stride: 1
    weight_filler {
      type: "gaussian"
      std: 0.118
    }
    bias_filler {
      type: "constant"
      value: 0
    }
  }
}
layer {
  name: "BatchNorm3"
  type: "BatchNorm"
  bottom: "Convolution3"
  top: "Convolution3"
  param {
    lr_mult: 0
    decay_mult: 0
  }
  param {
    lr_mult: 0
    decay_mult: 0
  }
  param {
    lr_mult: 0
    decay_mult: 0
  }
}
layer {
  name: "Scale3"
  type: "Scale"
  bottom: "Convolution3"
  top: "Convolution3"
  scale_param {
    bias_term: true
  }
}
layer {
  name: "Eltwise1"
  type: "Eltwise"
  bottom: "Convolution1"
  bottom: "Convolution3"
  top: "Eltwise1"
  eltwise_param {
    operation: SUM
  }
}
layer {
  name: "penlu3"
  type: "PENLU"
  bottom: "Eltwise1"
  top: "Eltwise1"
  param {
    lr_mult: 2
    decay_mult: 2
  }
  param {
    lr_mult: 2
    decay_mult: 2
  }
  param {
    lr_mult: 0
    decay_mult: 0
  }
  penlu_param {
    alpha_filler {
      type: "constant"
      value: 1
    }
    beta_filler {
      type: "constant"
      value: 1
    }
    eta_filler {
      type: "constant"
      value: 1
    }
  }
}
layer {
  name: "Convolution4"
  type: "Convolution"
  bottom: "Eltwise1"
  top: "Convolution4"
  param {
    lr_mult: 1
    decay_mult: 1
  }
  param {
    lr_mult: 2
    decay_mult: 0
  }
  convolution_param {
    num_output: 16
    pad: 1
    kernel_size: 3
    stride: 1
    weight_filler {
      type: "gaussian"
      std: 0.118
    }
    bias_filler {
      type: "constant"
      value: 0
    }
  }
}
layer {
  name: "BatchNorm4"
  type: "BatchNorm"
  bottom: "Convolution4"
  top: "Convolution4"
  param {
    lr_mult: 0
    decay_mult: 0
  }
  param {
    lr_mult: 0
    decay_mult: 0
  }
  param {
    lr_mult: 0
    decay_mult: 0
  }
}
layer {
  name: "Scale4"
  type: "Scale"
  bottom: "Convolution4"
  top: "Convolution4"
  scale_param {
    bias_term: true
  }
}
layer {
  name: "penlu4"
  type: "PENLU"
  bottom: "Convolution4"
  top: "Convolution4"
  param {
    lr_mult: 2
    decay_mult: 2
  }
  param {
    lr_mult: 2
    decay_mult: 2
  }
  param {
    lr_mult: 0
    decay_mult: 0
  }
  penlu_param {
    alpha_filler {
      type: "constant"
      value: 1
    }
    beta_filler {
      type: "constant"
      value: 1
    }
    eta_filler {
      type: "constant"
      value: 1
    }
  }
}
layer {
  name: "Convolution5"
  type: "Convolution"
  bottom: "Convolution4"
  top: "Convolution5"
  param {
    lr_mult: 1
    decay_mult: 1
  }
  param {
    lr_mult: 2
    decay_mult: 0
  }
  convolution_param {
    num_output: 16
    pad: 1
    kernel_size: 3
    stride: 1
    weight_filler {
      type: "gaussian"
      std: 0.118
    }
    bias_filler {
      type: "constant"
      value: 0
    }
  }
}
layer {
  name: "BatchNorm5"
  type: "BatchNorm"
  bottom: "Convolution5"
  top: "Convolution5"
  param {
    lr_mult: 0
    decay_mult: 0
  }
  param {
    lr_mult: 0
    decay_mult: 0
  }
  param {
    lr_mult: 0
    decay_mult: 0
  }
}
layer {
  name: "Scale5"
  type: "Scale"
  bottom: "Convolution5"
  top: "Convolution5"
  scale_param {
    bias_term: true
  }
}
layer {
  name: "Eltwise2"
  type: "Eltwise"
  bottom: "Eltwise1"
  bottom: "Convolution5"
  top: "Eltwise2"
  eltwise_param {
    operation: SUM
  }
}
layer {
  name: "penlu5"
  type: "PENLU"
  bottom: "Eltwise2"
  top: "Eltwise2"
  param {
    lr_mult: 2
    decay_mult: 2
  }
  param {
    lr_mult: 2
    decay_mult: 2
  }
  param {
    lr_mult: 0
    decay_mult: 0
  }
  penlu_param {
    alpha_filler {
      type: "constant"
      value: 1
    }
    beta_filler {
      type: "constant"
      value: 1
    }
    eta_filler {
      type: "constant"
      value: 1
    }
  }
}
layer {
  name: "Convolution6"
  type: "Convolution"
  bottom: "Eltwise2"
  top: "Convolution6"
  param {
    lr_mult: 1
    decay_mult: 1
  }
  param {
    lr_mult: 2
    decay_mult: 0
  }
  convolution_param {
    num_output: 16
    pad: 1
    kernel_size: 3
    stride: 1
    weight_filler {
      type: "gaussian"
      std: 0.118
    }
    bias_filler {
      type: "constant"
      value: 0
    }
  }
}
layer {
  name: "BatchNorm6"
  type: "BatchNorm"
  bottom: "Convolution6"
  top: "Convolution6"
  param {
    lr_mult: 0
    decay_mult: 0
  }
  param {
    lr_mult: 0
    decay_mult: 0
  }
  param {
    lr_mult: 0
    decay_mult: 0
  }
}
layer {
  name: "Scale6"
  type: "Scale"
  bottom: "Convolution6"
  top: "Convolution6"
  scale_param {
    bias_term: true
  }
}
layer {
  name: "penlu6"
  type: "PENLU"
  bottom: "Convolution6"
  top: "Convolution6"
  param {
    lr_mult: 2
    decay_mult: 2
  }
  param {
    lr_mult: 2
    decay_mult: 2
  }
  param {
    lr_mult: 0
    decay_mult: 0
  }
  penlu_param {
    alpha_filler {
      type: "constant"
      value: 1
    }
    beta_filler {
      type: "constant"
      value: 1
    }
    eta_filler {
      type: "constant"
      value: 1
    }
  }
}
layer {
  name: "Convolution7"
  type: "Convolution"
  bottom: "Convolution6"
  top: "Convolution7"
  param {
    lr_mult: 1
    decay_mult: 1
  }
  param {
    lr_mult: 2
    decay_mult: 0
  }
  convolution_param {
    num_output: 16
    pad: 1
    kernel_size: 3
    stride: 1
    weight_filler {
      type: "gaussian"
      std: 0.118
    }
    bias_filler {
      type: "constant"
      value: 0
    }
  }
}
layer {
  name: "BatchNorm7"
  type: "BatchNorm"
  bottom: "Convolution7"
  top: "Convolution7"
  param {
    lr_mult: 0
    decay_mult: 0
  }
  param {
    lr_mult: 0
    decay_mult: 0
  }
  param {
    lr_mult: 0
    decay_mult: 0
  }
}
layer {
  name: "Scale7"
  type: "Scale"
  bottom: "Convolution7"
  top: "Convolution7"
  scale_param {
    bias_term: true
  }
}
layer {
  name: "Eltwise3"
  type: "Eltwise"
  bottom: "Eltwise2"
  bottom: "Convolution7"
  top: "Eltwise3"
  eltwise_param {
    operation: SUM
  }
}
layer {
  name: "penlu7"
  type: "PENLU"
  bottom: "Eltwise3"
  top: "Eltwise3"
  param {
    lr_mult: 2
    decay_mult: 2
  }
  param {
    lr_mult: 2
    decay_mult: 2
  }
  param {
    lr_mult: 0
    decay_mult: 0
  }
  penlu_param {
    alpha_filler {
      type: "constant"
      value: 1
    }
    beta_filler {
      type: "constant"
      value: 1
    }
    eta_filler {
      type: "constant"
      value: 1
    }
  }
}
layer {
  name: "Convolution8"
  type: "Convolution"
  bottom: "Eltwise3"
  top: "Convolution8"
  param {
    lr_mult: 1
    decay_mult: 1
  }
  param {
    lr_mult: 2
    decay_mult: 0
  }
  convolution_param {
    num_output: 32
    pad: 0
    kernel_size: 1
    stride: 2
    weight_filler {
      type: "gaussian"
      std: 0.25
    }
    bias_filler {
      type: "constant"
      value: 0
    }
  }
}
layer {
  name: "BatchNorm8"
  type: "BatchNorm"
  bottom: "Convolution8"
  top: "Convolution8"
  param {
    lr_mult: 0
    decay_mult: 0
  }
  param {
    lr_mult: 0
    decay_mult: 0
  }
  param {
    lr_mult: 0
    decay_mult: 0
  }
}
layer {
  name: "Scale8"
  type: "Scale"
  bottom: "Convolution8"
  top: "Convolution8"
  scale_param {
    bias_term: true
  }
}
layer {
  name: "Convolution9"
  type: "Convolution"
  bottom: "Eltwise3"
  top: "Convolution9"
  param {
    lr_mult: 1
    decay_mult: 1
  }
  param {
    lr_mult: 2
    decay_mult: 0
  }
  convolution_param {
    num_output: 32
    pad: 1
    kernel_size: 3
    stride: 2
    weight_filler {
      type: "gaussian"
      std: 0.083
    }
    bias_filler {
      type: "constant"
      value: 0
    }
  }
}
layer {
  name: "BatchNorm9"
  type: "BatchNorm"
  bottom: "Convolution9"
  top: "Convolution9"
  param {
    lr_mult: 0
    decay_mult: 0
  }
  param {
    lr_mult: 0
    decay_mult: 0
  }
  param {
    lr_mult: 0
    decay_mult: 0
  }
}
layer {
  name: "Scale9"
  type: "Scale"
  bottom: "Convolution9"
  top: "Convolution9"
  scale_param {
    bias_term: true
  }
}
layer {
  name: "penlu8"
  type: "PENLU"
  bottom: "Convolution9"
  top: "Convolution9"
  param {
    lr_mult: 2
    decay_mult: 2
  }
  param {
    lr_mult: 2
    decay_mult: 2
  }
  param {
    lr_mult: 0
    decay_mult: 0
  }
  penlu_param {
    alpha_filler {
      type: "constant"
      value: 1
    }
    beta_filler {
      type: "constant"
      value: 1
    }
    eta_filler {
      type: "constant"
      value: 1
    }
  }
}
layer {
  name: "Convolution10"
  type: "Convolution"
  bottom: "Convolution9"
  top: "Convolution10"
  param {
    lr_mult: 1
    decay_mult: 1
  }
  param {
    lr_mult: 2
    decay_mult: 0
  }
  convolution_param {
    num_output: 32
    pad: 1
    kernel_size: 3
    stride: 1
    weight_filler {
      type: "gaussian"
      std: 0.083
    }
    bias_filler {
      type: "constant"
      value: 0
    }
  }
}
layer {
  name: "BatchNorm10"
  type: "BatchNorm"
  bottom: "Convolution10"
  top: "Convolution10"
  param {
    lr_mult: 0
    decay_mult: 0
  }
  param {
    lr_mult: 0
    decay_mult: 0
  }
  param {
    lr_mult: 0
    decay_mult: 0
  }
}
layer {
  name: "Scale10"
  type: "Scale"
  bottom: "Convolution10"
  top: "Convolution10"
  scale_param {
    bias_term: true
  }
}
layer {
  name: "Eltwise4"
  type: "Eltwise"
  bottom: "Convolution8"
  bottom: "Convolution10"
  top: "Eltwise4"
  eltwise_param {
    operation: SUM
  }
}
layer {
  name: "penlu9"
  type: "PENLU"
  bottom: "Eltwise4"
  top: "Eltwise4"
  param {
    lr_mult: 2
    decay_mult: 2
  }
  param {
    lr_mult: 2
    decay_mult: 2
  }
  param {
    lr_mult: 0
    decay_mult: 0
  }
  penlu_param {
    alpha_filler {
      type: "constant"
      value: 1
    }
    beta_filler {
      type: "constant"
      value: 1
    }
    eta_filler {
      type: "constant"
      value: 1
    }
  }
}
layer {
  name: "Convolution11"
  type: "Convolution"
  bottom: "Eltwise4"
  top: "Convolution11"
  param {
    lr_mult: 1
    decay_mult: 1
  }
  param {
    lr_mult: 2
    decay_mult: 0
  }
  convolution_param {
    num_output: 32
    pad: 1
    kernel_size: 3
    stride: 1
    weight_filler {
      type: "gaussian"
      std: 0.083
    }
    bias_filler {
      type: "constant"
      value: 0
    }
  }
}
layer {
  name: "BatchNorm11"
  type: "BatchNorm"
  bottom: "Convolution11"
  top: "Convolution11"
  param {
    lr_mult: 0
    decay_mult: 0
  }
  param {
    lr_mult: 0
    decay_mult: 0
  }
  param {
    lr_mult: 0
    decay_mult: 0
  }
}
layer {
  name: "Scale11"
  type: "Scale"
  bottom: "Convolution11"
  top: "Convolution11"
  scale_param {
    bias_term: true
  }
}
layer {
  name: "penlu10"
  type: "PENLU"
  bottom: "Convolution11"
  top: "Convolution11"
  param {
    lr_mult: 2
    decay_mult: 2
  }
  param {
    lr_mult: 2
    decay_mult: 2
  }
  param {
    lr_mult: 0
    decay_mult: 0
  }
  penlu_param {
    alpha_filler {
      type: "constant"
      value: 1
    }
    beta_filler {
      type: "constant"
      value: 1
    }
    eta_filler {
      type: "constant"
      value: 1
    }
  }
}
layer {
  name: "Convolution12"
  type: "Convolution"
  bottom: "Convolution11"
  top: "Convolution12"
  param {
    lr_mult: 1
    decay_mult: 1
  }
  param {
    lr_mult: 2
    decay_mult: 0
  }
  convolution_param {
    num_output: 32
    pad: 1
    kernel_size: 3
    stride: 1
    weight_filler {
      type: "gaussian"
      std: 0.083
    }
    bias_filler {
      type: "constant"
      value: 0
    }
  }
}
layer {
  name: "BatchNorm12"
  type: "BatchNorm"
  bottom: "Convolution12"
  top: "Convolution12"
  param {
    lr_mult: 0
    decay_mult: 0
  }
  param {
    lr_mult: 0
    decay_mult: 0
  }
  param {
    lr_mult: 0
    decay_mult: 0
  }
}
layer {
  name: "Scale12"
  type: "Scale"
  bottom: "Convolution12"
  top: "Convolution12"
  scale_param {
    bias_term: true
  }
}
layer {
  name: "Eltwise5"
  type: "Eltwise"
  bottom: "Eltwise4"
  bottom: "Convolution12"
  top: "Eltwise5"
  eltwise_param {
    operation: SUM
  }
}
layer {
  name: "penlu11"
  type: "PENLU"
  bottom: "Eltwise5"
  top: "Eltwise5"
  param {
    lr_mult: 2
    decay_mult: 2
  }
  param {
    lr_mult: 2
    decay_mult: 2
  }
  param {
    lr_mult: 0
    decay_mult: 0
  }
  penlu_param {
    alpha_filler {
      type: "constant"
      value: 1
    }
    beta_filler {
      type: "constant"
      value: 1
    }
    eta_filler {
      type: "constant"
      value: 1
    }
  }
}
layer {
  name: "Convolution13"
  type: "Convolution"
  bottom: "Eltwise5"
  top: "Convolution13"
  param {
    lr_mult: 1
    decay_mult: 1
  }
  param {
    lr_mult: 2
    decay_mult: 0
  }
  convolution_param {
    num_output: 32
    pad: 1
    kernel_size: 3
    stride: 1
    weight_filler {
      type: "gaussian"
      std: 0.083
    }
    bias_filler {
      type: "constant"
      value: 0
    }
  }
}
layer {
  name: "BatchNorm13"
  type: "BatchNorm"
  bottom: "Convolution13"
  top: "Convolution13"
  param {
    lr_mult: 0
    decay_mult: 0
  }
  param {
    lr_mult: 0
    decay_mult: 0
  }
  param {
    lr_mult: 0
    decay_mult: 0
  }
}
layer {
  name: "Scale13"
  type: "Scale"
  bottom: "Convolution13"
  top: "Convolution13"
  scale_param {
    bias_term: true
  }
}
layer {
  name: "penlu12"
  type: "PENLU"
  bottom: "Convolution13"
  top: "Convolution13"
  param {
    lr_mult: 2
    decay_mult: 2
  }
  param {
    lr_mult: 2
    decay_mult: 2
  }
  param {
    lr_mult: 0
    decay_mult: 0
  }
  penlu_param {
    alpha_filler {
      type: "constant"
      value: 1
    }
    beta_filler {
      type: "constant"
      value: 1
    }
    eta_filler {
      type: "constant"
      value: 1
    }
  }
}
layer {
  name: "Convolution14"
  type: "Convolution"
  bottom: "Convolution13"
  top: "Convolution14"
  param {
    lr_mult: 1
    decay_mult: 1
  }
  param {
    lr_mult: 2
    decay_mult: 0
  }
  convolution_param {
    num_output: 32
    pad: 1
    kernel_size: 3
    stride: 1
    weight_filler {
      type: "gaussian"
      std: 0.083
    }
    bias_filler {
      type: "constant"
      value: 0
    }
  }
}
layer {
  name: "BatchNorm14"
  type: "BatchNorm"
  bottom: "Convolution14"
  top: "Convolution14"
  param {
    lr_mult: 0
    decay_mult: 0
  }
  param {
    lr_mult: 0
    decay_mult: 0
  }
  param {
    lr_mult: 0
    decay_mult: 0
  }
}
layer {
  name: "Scale14"
  type: "Scale"
  bottom: "Convolution14"
  top: "Convolution14"
  scale_param {
    bias_term: true
  }
}
layer {
  name: "Eltwise6"
  type: "Eltwise"
  bottom: "Eltwise5"
  bottom: "Convolution14"
  top: "Eltwise6"
  eltwise_param {
    operation: SUM
  }
}
layer {
  name: "penlu13"
  type: "PENLU"
  bottom: "Eltwise6"
  top: "Eltwise6"
  param {
    lr_mult: 2
    decay_mult: 2
  }
  param {
    lr_mult: 2
    decay_mult: 2
  }
  param {
    lr_mult: 0
    decay_mult: 0
  }
  penlu_param {
    alpha_filler {
      type: "constant"
      value: 1
    }
    beta_filler {
      type: "constant"
      value: 1
    }
    eta_filler {
      type: "constant"
      value: 1
    }
  }
}
layer {
  name: "Convolution15"
  type: "Convolution"
  bottom: "Eltwise6"
  top: "Convolution15"
  param {
    lr_mult: 1
    decay_mult: 1
  }
  param {
    lr_mult: 2
    decay_mult: 0
  }
  convolution_param {
    num_output: 64
    pad: 0
    kernel_size: 1
    stride: 2
    weight_filler {
      type: "gaussian"
      std: 0.17677669
    }
    bias_filler {
      type: "constant"
      value: 0
    }
  }
}
layer {
  name: "BatchNorm15"
  type: "BatchNorm"
  bottom: "Convolution15"
  top: "Convolution15"
  param {
    lr_mult: 0
    decay_mult: 0
  }
  param {
    lr_mult: 0
    decay_mult: 0
  }
  param {
    lr_mult: 0
    decay_mult: 0
  }
}
layer {
  name: "Scale15"
  type: "Scale"
  bottom: "Convolution15"
  top: "Convolution15"
  scale_param {
    bias_term: true
  }
}
layer {
  name: "Convolution16"
  type: "Convolution"
  bottom: "Eltwise6"
  top: "Convolution16"
  param {
    lr_mult: 1
    decay_mult: 1
  }
  param {
    lr_mult: 2
    decay_mult: 0
  }
  convolution_param {
    num_output: 64
    pad: 1
    kernel_size: 3
    stride: 2
    weight_filler {
      type: "gaussian"
      std: 0.059
    }
    bias_filler {
      type: "constant"
      value: 0
    }
  }
}
layer {
  name: "BatchNorm16"
  type: "BatchNorm"
  bottom: "Convolution16"
  top: "Convolution16"
  param {
    lr_mult: 0
    decay_mult: 0
  }
  param {
    lr_mult: 0
    decay_mult: 0
  }
  param {
    lr_mult: 0
    decay_mult: 0
  }
}
layer {
  name: "Scale16"
  type: "Scale"
  bottom: "Convolution16"
  top: "Convolution16"
  scale_param {
    bias_term: true
  }
}
layer {
  name: "penlu14"
  type: "PENLU"
  bottom: "Convolution16"
  top: "Convolution16"
  param {
    lr_mult: 2
    decay_mult: 2
  }
  param {
    lr_mult: 2
    decay_mult: 2
  }
  param {
    lr_mult: 0
    decay_mult: 0
  }
  penlu_param {
    alpha_filler {
      type: "constant"
      value: 1
    }
    beta_filler {
      type: "constant"
      value: 1
    }
    eta_filler {
      type: "constant"
      value: 1
    }
  }
}
layer {
  name: "Convolution17"
  type: "Convolution"
  bottom: "Convolution16"
  top: "Convolution17"
  param {
    lr_mult: 1
    decay_mult: 1
  }
  param {
    lr_mult: 2
    decay_mult: 0
  }
  convolution_param {
    num_output: 64
    pad: 1
    kernel_size: 3
    stride: 1
    weight_filler {
      type: "gaussian"
      std: 0.059
    }
    bias_filler {
      type: "constant"
      value: 0
    }
  }
}
layer {
  name: "BatchNorm17"
  type: "BatchNorm"
  bottom: "Convolution17"
  top: "Convolution17"
  param {
    lr_mult: 0
    decay_mult: 0
  }
  param {
    lr_mult: 0
    decay_mult: 0
  }
  param {
    lr_mult: 0
    decay_mult: 0
  }
}
layer {
  name: "Scale17"
  type: "Scale"
  bottom: "Convolution17"
  top: "Convolution17"
  scale_param {
    bias_term: true
  }
}
layer {
  name: "Eltwise7"
  type: "Eltwise"
  bottom: "Convolution15"
  bottom: "Convolution17"
  top: "Eltwise7"
  eltwise_param {
    operation: SUM
  }
}
layer {
  name: "penlu15"
  type: "PENLU"
  bottom: "Eltwise7"
  top: "Eltwise7"
  param {
    lr_mult: 2
    decay_mult: 2
  }
  param {
    lr_mult: 2
    decay_mult: 2
  }
  param {
    lr_mult: 0
    decay_mult: 0
  }
  penlu_param {
    alpha_filler {
      type: "constant"
      value: 1
    }
    beta_filler {
      type: "constant"
      value: 1
    }
    eta_filler {
      type: "constant"
      value: 1
    }
  }
}
layer {
  name: "Convolution18"
  type: "Convolution"
  bottom: "Eltwise7"
  top: "Convolution18"
  param {
    lr_mult: 1
    decay_mult: 1
  }
  param {
    lr_mult: 2
    decay_mult: 0
  }
  convolution_param {
    num_output: 64
    pad: 1
    kernel_size: 3
    stride: 1
    weight_filler {
      type: "gaussian"
      std: 0.059
    }
    bias_filler {
      type: "constant"
      value: 0
    }
  }
}
layer {
  name: "BatchNorm18"
  type: "BatchNorm"
  bottom: "Convolution18"
  top: "Convolution18"
  param {
    lr_mult: 0
    decay_mult: 0
  }
  param {
    lr_mult: 0
    decay_mult: 0
  }
  param {
    lr_mult: 0
    decay_mult: 0
  }
}
layer {
  name: "Scale18"
  type: "Scale"
  bottom: "Convolution18"
  top: "Convolution18"
  scale_param {
    bias_term: true
  }
}
layer {
  name: "penlu16"
  type: "PENLU"
  bottom: "Convolution18"
  top: "Convolution18"
  param {
    lr_mult: 2
    decay_mult: 2
  }
  param {
    lr_mult: 2
    decay_mult: 2
  }
  param {
    lr_mult: 0
    decay_mult: 0
  }
  penlu_param {
    alpha_filler {
      type: "constant"
      value: 1
    }
    beta_filler {
      type: "constant"
      value: 1
    }
    eta_filler {
      type: "constant"
      value: 1
    }
  }
}
layer {
  name: "Convolution19"
  type: "Convolution"
  bottom: "Convolution18"
  top: "Convolution19"
  param {
    lr_mult: 1
    decay_mult: 1
  }
  param {
    lr_mult: 2
    decay_mult: 0
  }
  convolution_param {
    num_output: 64
    pad: 1
    kernel_size: 3
    stride: 1
    weight_filler {
      type: "gaussian"
      std: 0.059
    }
    bias_filler {
      type: "constant"
      value: 0
    }
  }
}
layer {
  name: "BatchNorm19"
  type: "BatchNorm"
  bottom: "Convolution19"
  top: "Convolution19"
  param {
    lr_mult: 0
    decay_mult: 0
  }
  param {
    lr_mult: 0
    decay_mult: 0
  }
  param {
    lr_mult: 0
    decay_mult: 0
  }
}
layer {
  name: "Scale19"
  type: "Scale"
  bottom: "Convolution19"
  top: "Convolution19"
  scale_param {
    bias_term: true
  }
}
layer {
  name: "Eltwise8"
  type: "Eltwise"
  bottom: "Eltwise7"
  bottom: "Convolution19"
  top: "Eltwise8"
  eltwise_param {
    operation: SUM
  }
}
layer {
  name: "penlu17"
  type: "PENLU"
  bottom: "Eltwise8"
  top: "Eltwise8"
  param {
    lr_mult: 2
    decay_mult: 2
  }
  param {
    lr_mult: 2
    decay_mult: 2
  }
  param {
    lr_mult: 0
    decay_mult: 0
  }
  penlu_param {
    alpha_filler {
      type: "constant"
      value: 1
    }
    beta_filler {
      type: "constant"
      value: 1
    }
    eta_filler {
      type: "constant"
      value: 1
    }
  }
}
layer {
  name: "Convolution20"
  type: "Convolution"
  bottom: "Eltwise8"
  top: "Convolution20"
  param {
    lr_mult: 1
    decay_mult: 1
  }
  param {
    lr_mult: 2
    decay_mult: 0
  }
  convolution_param {
    num_output: 64
    pad: 1
    kernel_size: 3
    stride: 1
    weight_filler {
      type: "gaussian"
      std: 0.059
    }
    bias_filler {
      type: "constant"
      value: 0
    }
  }
}
layer {
  name: "BatchNorm20"
  type: "BatchNorm"
  bottom: "Convolution20"
  top: "Convolution20"
  param {
    lr_mult: 0
    decay_mult: 0
  }
  param {
    lr_mult: 0
    decay_mult: 0
  }
  param {
    lr_mult: 0
    decay_mult: 0
  }
}
layer {
  name: "Scale20"
  type: "Scale"
  bottom: "Convolution20"
  top: "Convolution20"
  scale_param {
    bias_term: true
  }
}
layer {
  name: "penlu18"
  type: "PENLU"
  bottom: "Convolution20"
  top: "Convolution20"
  param {
    lr_mult: 2
    decay_mult: 2
  }
  param {
    lr_mult: 2
    decay_mult: 2
  }
  param {
    lr_mult: 0
    decay_mult: 0
  }
  penlu_param {
    alpha_filler {
      type: "constant"
      value: 1
    }
    beta_filler {
      type: "constant"
      value: 1
    }
    eta_filler {
      type: "constant"
      value: 1
    }
  }
}
layer {
  name: "Convolution21"
  type: "Convolution"
  bottom: "Convolution20"
  top: "Convolution21"
  param {
    lr_mult: 1
    decay_mult: 1
  }
  param {
    lr_mult: 2
    decay_mult: 0
  }
  convolution_param {
    num_output: 64
    pad: 1
    kernel_size: 3
    stride: 1
    weight_filler {
      type: "gaussian"
      std: 0.059
    }
    bias_filler {
      type: "constant"
      value: 0
    }
  }
}
layer {
  name: "BatchNorm21"
  type: "BatchNorm"
  bottom: "Convolution21"
  top: "Convolution21"
  param {
    lr_mult: 0
    decay_mult: 0
  }
  param {
    lr_mult: 0
    decay_mult: 0
  }
  param {
    lr_mult: 0
    decay_mult: 0
  }
}
layer {
  name: "Scale21"
  type: "Scale"
  bottom: "Convolution21"
  top: "Convolution21"
  scale_param {
    bias_term: true
  }
}
layer {
  name: "Eltwise9"
  type: "Eltwise"
  bottom: "Eltwise8"
  bottom: "Convolution21"
  top: "Eltwise9"
  eltwise_param {
    operation: SUM
  }
}
layer {
  name: "penlu19"
  type: "PENLU"
  bottom: "Eltwise9"
  top: "Eltwise9"
  param {
    lr_mult: 2
    decay_mult: 2
  }
  param {
    lr_mult: 2
    decay_mult: 2
  }
  param {
    lr_mult: 0
    decay_mult: 0
  }
  penlu_param {
    alpha_filler {
      type: "constant"
      value: 1
    }
    beta_filler {
      type: "constant"
      value: 1
    }
    eta_filler {
      type: "constant"
      value: 1
    }
  }
}
layer {
  name: "Pooling1"
  type: "Pooling"
  bottom: "Eltwise9"
  top: "Pooling1"
  pooling_param {
    pool: AVE
    global_pooling: true
  }
}
layer {
  name: "InnerProduct1"
  type: "InnerProduct"
  bottom: "Pooling1"
  top: "InnerProduct1"
  param {
    lr_mult: 1
    decay_mult: 1
  }
  param {
    lr_mult: 2
    decay_mult: 1
  }
  inner_product_param {
    num_output: 10
    weight_filler {
      type: "gaussian"
      std: 0.01
    }
    bias_filler {
      type: "constant"
      value: 0
    }
  }
}
layer {
  name: "SoftmaxWithLoss1"
  type: "SoftmaxWithLoss"
  bottom: "InnerProduct1"
  bottom: "Data2"
  top: "SoftmaxWithLoss1"
}
layer {
  name: "Accuracy1"
  type: "Accuracy"
  bottom: "InnerProduct1"
  bottom: "Data2"
  top: "Accuracy1"
  include {
    phase: TEST
  }
}
I1005 15:22:13.151432  9606 layer_factory.hpp:77] Creating layer Data1
I1005 15:22:13.151471  9606 db_lmdb.cpp:35] Opened lmdb /home/x306/caffe/xn/PENLU/data/cifar10/cifar10_test_lmdb
I1005 15:22:13.151482  9606 net.cpp:84] Creating Layer Data1
I1005 15:22:13.151486  9606 net.cpp:380] Data1 -> Data1
I1005 15:22:13.151494  9606 net.cpp:380] Data1 -> Data2
I1005 15:22:13.151499  9606 data_transformer.cpp:25] Loading mean file from: /home/x306/caffe/xn/PENLU/data/cifar10/mean.binaryproto
I1005 15:22:13.151608  9606 data_layer.cpp:45] output data size: 100,3,32,32
I1005 15:22:13.155485  9606 net.cpp:122] Setting up Data1
I1005 15:22:13.155506  9606 net.cpp:129] Top shape: 100 3 32 32 (307200)
I1005 15:22:13.155511  9606 net.cpp:129] Top shape: 100 (100)
I1005 15:22:13.155514  9606 net.cpp:137] Memory required for data: 1229200
I1005 15:22:13.155519  9606 layer_factory.hpp:77] Creating layer Data2_Data1_1_split
I1005 15:22:13.155529  9606 net.cpp:84] Creating Layer Data2_Data1_1_split
I1005 15:22:13.155531  9606 net.cpp:406] Data2_Data1_1_split <- Data2
I1005 15:22:13.155536  9606 net.cpp:380] Data2_Data1_1_split -> Data2_Data1_1_split_0
I1005 15:22:13.155544  9606 net.cpp:380] Data2_Data1_1_split -> Data2_Data1_1_split_1
I1005 15:22:13.155606  9606 net.cpp:122] Setting up Data2_Data1_1_split
I1005 15:22:13.155613  9606 net.cpp:129] Top shape: 100 (100)
I1005 15:22:13.155630  9606 net.cpp:129] Top shape: 100 (100)
I1005 15:22:13.155633  9606 net.cpp:137] Memory required for data: 1230000
I1005 15:22:13.155635  9606 layer_factory.hpp:77] Creating layer Convolution1
I1005 15:22:13.155645  9606 net.cpp:84] Creating Layer Convolution1
I1005 15:22:13.155648  9606 net.cpp:406] Convolution1 <- Data1
I1005 15:22:13.155652  9606 net.cpp:380] Convolution1 -> Convolution1
I1005 15:22:13.156780  9606 net.cpp:122] Setting up Convolution1
I1005 15:22:13.156791  9606 net.cpp:129] Top shape: 100 16 32 32 (1638400)
I1005 15:22:13.156795  9606 net.cpp:137] Memory required for data: 7783600
I1005 15:22:13.156802  9606 layer_factory.hpp:77] Creating layer BatchNorm1
I1005 15:22:13.156807  9606 net.cpp:84] Creating Layer BatchNorm1
I1005 15:22:13.156810  9606 net.cpp:406] BatchNorm1 <- Convolution1
I1005 15:22:13.156814  9606 net.cpp:367] BatchNorm1 -> Convolution1 (in-place)
I1005 15:22:13.156952  9606 net.cpp:122] Setting up BatchNorm1
I1005 15:22:13.156958  9606 net.cpp:129] Top shape: 100 16 32 32 (1638400)
I1005 15:22:13.156960  9606 net.cpp:137] Memory required for data: 14337200
I1005 15:22:13.156967  9606 layer_factory.hpp:77] Creating layer Scale1
I1005 15:22:13.156973  9606 net.cpp:84] Creating Layer Scale1
I1005 15:22:13.156977  9606 net.cpp:406] Scale1 <- Convolution1
I1005 15:22:13.156980  9606 net.cpp:367] Scale1 -> Convolution1 (in-place)
I1005 15:22:13.157011  9606 layer_factory.hpp:77] Creating layer Scale1
I1005 15:22:13.157085  9606 net.cpp:122] Setting up Scale1
I1005 15:22:13.157090  9606 net.cpp:129] Top shape: 100 16 32 32 (1638400)
I1005 15:22:13.157093  9606 net.cpp:137] Memory required for data: 20890800
I1005 15:22:13.157096  9606 layer_factory.hpp:77] Creating layer penlu1
I1005 15:22:13.157104  9606 net.cpp:84] Creating Layer penlu1
I1005 15:22:13.157106  9606 net.cpp:406] penlu1 <- Convolution1
I1005 15:22:13.157110  9606 net.cpp:367] penlu1 -> Convolution1 (in-place)
I1005 15:22:13.157227  9606 net.cpp:122] Setting up penlu1
I1005 15:22:13.157232  9606 net.cpp:129] Top shape: 100 16 32 32 (1638400)
I1005 15:22:13.157236  9606 net.cpp:137] Memory required for data: 27444400
I1005 15:22:13.157243  9606 layer_factory.hpp:77] Creating layer Convolution1_penlu1_0_split
I1005 15:22:13.157248  9606 net.cpp:84] Creating Layer Convolution1_penlu1_0_split
I1005 15:22:13.157250  9606 net.cpp:406] Convolution1_penlu1_0_split <- Convolution1
I1005 15:22:13.157253  9606 net.cpp:380] Convolution1_penlu1_0_split -> Convolution1_penlu1_0_split_0
I1005 15:22:13.157259  9606 net.cpp:380] Convolution1_penlu1_0_split -> Convolution1_penlu1_0_split_1
I1005 15:22:13.157289  9606 net.cpp:122] Setting up Convolution1_penlu1_0_split
I1005 15:22:13.157292  9606 net.cpp:129] Top shape: 100 16 32 32 (1638400)
I1005 15:22:13.157296  9606 net.cpp:129] Top shape: 100 16 32 32 (1638400)
I1005 15:22:13.157299  9606 net.cpp:137] Memory required for data: 40551600
I1005 15:22:13.157300  9606 layer_factory.hpp:77] Creating layer Convolution2
I1005 15:22:13.157306  9606 net.cpp:84] Creating Layer Convolution2
I1005 15:22:13.157310  9606 net.cpp:406] Convolution2 <- Convolution1_penlu1_0_split_0
I1005 15:22:13.157315  9606 net.cpp:380] Convolution2 -> Convolution2
I1005 15:22:13.157920  9606 net.cpp:122] Setting up Convolution2
I1005 15:22:13.157928  9606 net.cpp:129] Top shape: 100 16 32 32 (1638400)
I1005 15:22:13.157932  9606 net.cpp:137] Memory required for data: 47105200
I1005 15:22:13.157937  9606 layer_factory.hpp:77] Creating layer BatchNorm2
I1005 15:22:13.157943  9606 net.cpp:84] Creating Layer BatchNorm2
I1005 15:22:13.157945  9606 net.cpp:406] BatchNorm2 <- Convolution2
I1005 15:22:13.157950  9606 net.cpp:367] BatchNorm2 -> Convolution2 (in-place)
I1005 15:22:13.158200  9606 net.cpp:122] Setting up BatchNorm2
I1005 15:22:13.158206  9606 net.cpp:129] Top shape: 100 16 32 32 (1638400)
I1005 15:22:13.158210  9606 net.cpp:137] Memory required for data: 53658800
I1005 15:22:13.158215  9606 layer_factory.hpp:77] Creating layer Scale2
I1005 15:22:13.158219  9606 net.cpp:84] Creating Layer Scale2
I1005 15:22:13.158231  9606 net.cpp:406] Scale2 <- Convolution2
I1005 15:22:13.158236  9606 net.cpp:367] Scale2 -> Convolution2 (in-place)
I1005 15:22:13.158265  9606 layer_factory.hpp:77] Creating layer Scale2
I1005 15:22:13.158341  9606 net.cpp:122] Setting up Scale2
I1005 15:22:13.158346  9606 net.cpp:129] Top shape: 100 16 32 32 (1638400)
I1005 15:22:13.158349  9606 net.cpp:137] Memory required for data: 60212400
I1005 15:22:13.158354  9606 layer_factory.hpp:77] Creating layer penlu2
I1005 15:22:13.158360  9606 net.cpp:84] Creating Layer penlu2
I1005 15:22:13.158367  9606 net.cpp:406] penlu2 <- Convolution2
I1005 15:22:13.158371  9606 net.cpp:367] penlu2 -> Convolution2 (in-place)
I1005 15:22:13.158488  9606 net.cpp:122] Setting up penlu2
I1005 15:22:13.158493  9606 net.cpp:129] Top shape: 100 16 32 32 (1638400)
I1005 15:22:13.158496  9606 net.cpp:137] Memory required for data: 66766000
I1005 15:22:13.158501  9606 layer_factory.hpp:77] Creating layer Convolution3
I1005 15:22:13.158509  9606 net.cpp:84] Creating Layer Convolution3
I1005 15:22:13.158510  9606 net.cpp:406] Convolution3 <- Convolution2
I1005 15:22:13.158514  9606 net.cpp:380] Convolution3 -> Convolution3
I1005 15:22:13.159588  9606 net.cpp:122] Setting up Convolution3
I1005 15:22:13.159598  9606 net.cpp:129] Top shape: 100 16 32 32 (1638400)
I1005 15:22:13.159601  9606 net.cpp:137] Memory required for data: 73319600
I1005 15:22:13.159606  9606 layer_factory.hpp:77] Creating layer BatchNorm3
I1005 15:22:13.159611  9606 net.cpp:84] Creating Layer BatchNorm3
I1005 15:22:13.159613  9606 net.cpp:406] BatchNorm3 <- Convolution3
I1005 15:22:13.159618  9606 net.cpp:367] BatchNorm3 -> Convolution3 (in-place)
I1005 15:22:13.159752  9606 net.cpp:122] Setting up BatchNorm3
I1005 15:22:13.159756  9606 net.cpp:129] Top shape: 100 16 32 32 (1638400)
I1005 15:22:13.159759  9606 net.cpp:137] Memory required for data: 79873200
I1005 15:22:13.159763  9606 layer_factory.hpp:77] Creating layer Scale3
I1005 15:22:13.159767  9606 net.cpp:84] Creating Layer Scale3
I1005 15:22:13.159770  9606 net.cpp:406] Scale3 <- Convolution3
I1005 15:22:13.159773  9606 net.cpp:367] Scale3 -> Convolution3 (in-place)
I1005 15:22:13.159801  9606 layer_factory.hpp:77] Creating layer Scale3
I1005 15:22:13.159874  9606 net.cpp:122] Setting up Scale3
I1005 15:22:13.159880  9606 net.cpp:129] Top shape: 100 16 32 32 (1638400)
I1005 15:22:13.159883  9606 net.cpp:137] Memory required for data: 86426800
I1005 15:22:13.159888  9606 layer_factory.hpp:77] Creating layer Eltwise1
I1005 15:22:13.159891  9606 net.cpp:84] Creating Layer Eltwise1
I1005 15:22:13.159894  9606 net.cpp:406] Eltwise1 <- Convolution1_penlu1_0_split_1
I1005 15:22:13.159896  9606 net.cpp:406] Eltwise1 <- Convolution3
I1005 15:22:13.159901  9606 net.cpp:380] Eltwise1 -> Eltwise1
I1005 15:22:13.159917  9606 net.cpp:122] Setting up Eltwise1
I1005 15:22:13.159921  9606 net.cpp:129] Top shape: 100 16 32 32 (1638400)
I1005 15:22:13.159924  9606 net.cpp:137] Memory required for data: 92980400
I1005 15:22:13.159926  9606 layer_factory.hpp:77] Creating layer penlu3
I1005 15:22:13.159932  9606 net.cpp:84] Creating Layer penlu3
I1005 15:22:13.159935  9606 net.cpp:406] penlu3 <- Eltwise1
I1005 15:22:13.159942  9606 net.cpp:367] penlu3 -> Eltwise1 (in-place)
I1005 15:22:13.160059  9606 net.cpp:122] Setting up penlu3
I1005 15:22:13.160064  9606 net.cpp:129] Top shape: 100 16 32 32 (1638400)
I1005 15:22:13.160068  9606 net.cpp:137] Memory required for data: 99534000
I1005 15:22:13.160071  9606 layer_factory.hpp:77] Creating layer Eltwise1_penlu3_0_split
I1005 15:22:13.160075  9606 net.cpp:84] Creating Layer Eltwise1_penlu3_0_split
I1005 15:22:13.160079  9606 net.cpp:406] Eltwise1_penlu3_0_split <- Eltwise1
I1005 15:22:13.160084  9606 net.cpp:380] Eltwise1_penlu3_0_split -> Eltwise1_penlu3_0_split_0
I1005 15:22:13.160087  9606 net.cpp:380] Eltwise1_penlu3_0_split -> Eltwise1_penlu3_0_split_1
I1005 15:22:13.160111  9606 net.cpp:122] Setting up Eltwise1_penlu3_0_split
I1005 15:22:13.160120  9606 net.cpp:129] Top shape: 100 16 32 32 (1638400)
I1005 15:22:13.160130  9606 net.cpp:129] Top shape: 100 16 32 32 (1638400)
I1005 15:22:13.160131  9606 net.cpp:137] Memory required for data: 112641200
I1005 15:22:13.160135  9606 layer_factory.hpp:77] Creating layer Convolution4
I1005 15:22:13.160141  9606 net.cpp:84] Creating Layer Convolution4
I1005 15:22:13.160143  9606 net.cpp:406] Convolution4 <- Eltwise1_penlu3_0_split_0
I1005 15:22:13.160147  9606 net.cpp:380] Convolution4 -> Convolution4
I1005 15:22:13.161181  9606 net.cpp:122] Setting up Convolution4
I1005 15:22:13.161190  9606 net.cpp:129] Top shape: 100 16 32 32 (1638400)
I1005 15:22:13.161193  9606 net.cpp:137] Memory required for data: 119194800
I1005 15:22:13.161198  9606 layer_factory.hpp:77] Creating layer BatchNorm4
I1005 15:22:13.161203  9606 net.cpp:84] Creating Layer BatchNorm4
I1005 15:22:13.161206  9606 net.cpp:406] BatchNorm4 <- Convolution4
I1005 15:22:13.161212  9606 net.cpp:367] BatchNorm4 -> Convolution4 (in-place)
I1005 15:22:13.161345  9606 net.cpp:122] Setting up BatchNorm4
I1005 15:22:13.161350  9606 net.cpp:129] Top shape: 100 16 32 32 (1638400)
I1005 15:22:13.161356  9606 net.cpp:137] Memory required for data: 125748400
I1005 15:22:13.161365  9606 layer_factory.hpp:77] Creating layer Scale4
I1005 15:22:13.161371  9606 net.cpp:84] Creating Layer Scale4
I1005 15:22:13.161375  9606 net.cpp:406] Scale4 <- Convolution4
I1005 15:22:13.161377  9606 net.cpp:367] Scale4 -> Convolution4 (in-place)
I1005 15:22:13.161407  9606 layer_factory.hpp:77] Creating layer Scale4
I1005 15:22:13.161484  9606 net.cpp:122] Setting up Scale4
I1005 15:22:13.161489  9606 net.cpp:129] Top shape: 100 16 32 32 (1638400)
I1005 15:22:13.161494  9606 net.cpp:137] Memory required for data: 132302000
I1005 15:22:13.161497  9606 layer_factory.hpp:77] Creating layer penlu4
I1005 15:22:13.161504  9606 net.cpp:84] Creating Layer penlu4
I1005 15:22:13.161506  9606 net.cpp:406] penlu4 <- Convolution4
I1005 15:22:13.161510  9606 net.cpp:367] penlu4 -> Convolution4 (in-place)
I1005 15:22:13.161628  9606 net.cpp:122] Setting up penlu4
I1005 15:22:13.161633  9606 net.cpp:129] Top shape: 100 16 32 32 (1638400)
I1005 15:22:13.161635  9606 net.cpp:137] Memory required for data: 138855600
I1005 15:22:13.161639  9606 layer_factory.hpp:77] Creating layer Convolution5
I1005 15:22:13.161646  9606 net.cpp:84] Creating Layer Convolution5
I1005 15:22:13.161648  9606 net.cpp:406] Convolution5 <- Convolution4
I1005 15:22:13.161653  9606 net.cpp:380] Convolution5 -> Convolution5
I1005 15:22:13.162914  9606 net.cpp:122] Setting up Convolution5
I1005 15:22:13.162923  9606 net.cpp:129] Top shape: 100 16 32 32 (1638400)
I1005 15:22:13.162926  9606 net.cpp:137] Memory required for data: 145409200
I1005 15:22:13.162931  9606 layer_factory.hpp:77] Creating layer BatchNorm5
I1005 15:22:13.162937  9606 net.cpp:84] Creating Layer BatchNorm5
I1005 15:22:13.162940  9606 net.cpp:406] BatchNorm5 <- Convolution5
I1005 15:22:13.162943  9606 net.cpp:367] BatchNorm5 -> Convolution5 (in-place)
I1005 15:22:13.163081  9606 net.cpp:122] Setting up BatchNorm5
I1005 15:22:13.163086  9606 net.cpp:129] Top shape: 100 16 32 32 (1638400)
I1005 15:22:13.163089  9606 net.cpp:137] Memory required for data: 151962800
I1005 15:22:13.163094  9606 layer_factory.hpp:77] Creating layer Scale5
I1005 15:22:13.163099  9606 net.cpp:84] Creating Layer Scale5
I1005 15:22:13.163100  9606 net.cpp:406] Scale5 <- Convolution5
I1005 15:22:13.163103  9606 net.cpp:367] Scale5 -> Convolution5 (in-place)
I1005 15:22:13.163131  9606 layer_factory.hpp:77] Creating layer Scale5
I1005 15:22:13.163208  9606 net.cpp:122] Setting up Scale5
I1005 15:22:13.163213  9606 net.cpp:129] Top shape: 100 16 32 32 (1638400)
I1005 15:22:13.163214  9606 net.cpp:137] Memory required for data: 158516400
I1005 15:22:13.163218  9606 layer_factory.hpp:77] Creating layer Eltwise2
I1005 15:22:13.163223  9606 net.cpp:84] Creating Layer Eltwise2
I1005 15:22:13.163225  9606 net.cpp:406] Eltwise2 <- Eltwise1_penlu3_0_split_1
I1005 15:22:13.163229  9606 net.cpp:406] Eltwise2 <- Convolution5
I1005 15:22:13.163233  9606 net.cpp:380] Eltwise2 -> Eltwise2
I1005 15:22:13.163256  9606 net.cpp:122] Setting up Eltwise2
I1005 15:22:13.163261  9606 net.cpp:129] Top shape: 100 16 32 32 (1638400)
I1005 15:22:13.163264  9606 net.cpp:137] Memory required for data: 165070000
I1005 15:22:13.163266  9606 layer_factory.hpp:77] Creating layer penlu5
I1005 15:22:13.163271  9606 net.cpp:84] Creating Layer penlu5
I1005 15:22:13.163275  9606 net.cpp:406] penlu5 <- Eltwise2
I1005 15:22:13.163277  9606 net.cpp:367] penlu5 -> Eltwise2 (in-place)
I1005 15:22:13.163393  9606 net.cpp:122] Setting up penlu5
I1005 15:22:13.163398  9606 net.cpp:129] Top shape: 100 16 32 32 (1638400)
I1005 15:22:13.163399  9606 net.cpp:137] Memory required for data: 171623600
I1005 15:22:13.163403  9606 layer_factory.hpp:77] Creating layer Eltwise2_penlu5_0_split
I1005 15:22:13.163408  9606 net.cpp:84] Creating Layer Eltwise2_penlu5_0_split
I1005 15:22:13.163409  9606 net.cpp:406] Eltwise2_penlu5_0_split <- Eltwise2
I1005 15:22:13.163413  9606 net.cpp:380] Eltwise2_penlu5_0_split -> Eltwise2_penlu5_0_split_0
I1005 15:22:13.163416  9606 net.cpp:380] Eltwise2_penlu5_0_split -> Eltwise2_penlu5_0_split_1
I1005 15:22:13.163442  9606 net.cpp:122] Setting up Eltwise2_penlu5_0_split
I1005 15:22:13.163447  9606 net.cpp:129] Top shape: 100 16 32 32 (1638400)
I1005 15:22:13.163450  9606 net.cpp:129] Top shape: 100 16 32 32 (1638400)
I1005 15:22:13.163453  9606 net.cpp:137] Memory required for data: 184730800
I1005 15:22:13.163455  9606 layer_factory.hpp:77] Creating layer Convolution6
I1005 15:22:13.163461  9606 net.cpp:84] Creating Layer Convolution6
I1005 15:22:13.163465  9606 net.cpp:406] Convolution6 <- Eltwise2_penlu5_0_split_0
I1005 15:22:13.163468  9606 net.cpp:380] Convolution6 -> Convolution6
I1005 15:22:13.164394  9606 net.cpp:122] Setting up Convolution6
I1005 15:22:13.164403  9606 net.cpp:129] Top shape: 100 16 32 32 (1638400)
I1005 15:22:13.164405  9606 net.cpp:137] Memory required for data: 191284400
I1005 15:22:13.164410  9606 layer_factory.hpp:77] Creating layer BatchNorm6
I1005 15:22:13.164415  9606 net.cpp:84] Creating Layer BatchNorm6
I1005 15:22:13.164418  9606 net.cpp:406] BatchNorm6 <- Convolution6
I1005 15:22:13.164422  9606 net.cpp:367] BatchNorm6 -> Convolution6 (in-place)
I1005 15:22:13.164561  9606 net.cpp:122] Setting up BatchNorm6
I1005 15:22:13.164566  9606 net.cpp:129] Top shape: 100 16 32 32 (1638400)
I1005 15:22:13.164567  9606 net.cpp:137] Memory required for data: 197838000
I1005 15:22:13.164572  9606 layer_factory.hpp:77] Creating layer Scale6
I1005 15:22:13.164577  9606 net.cpp:84] Creating Layer Scale6
I1005 15:22:13.164578  9606 net.cpp:406] Scale6 <- Convolution6
I1005 15:22:13.164582  9606 net.cpp:367] Scale6 -> Convolution6 (in-place)
I1005 15:22:13.164609  9606 layer_factory.hpp:77] Creating layer Scale6
I1005 15:22:13.164685  9606 net.cpp:122] Setting up Scale6
I1005 15:22:13.164690  9606 net.cpp:129] Top shape: 100 16 32 32 (1638400)
I1005 15:22:13.164692  9606 net.cpp:137] Memory required for data: 204391600
I1005 15:22:13.164695  9606 layer_factory.hpp:77] Creating layer penlu6
I1005 15:22:13.164701  9606 net.cpp:84] Creating Layer penlu6
I1005 15:22:13.164703  9606 net.cpp:406] penlu6 <- Convolution6
I1005 15:22:13.164707  9606 net.cpp:367] penlu6 -> Convolution6 (in-place)
I1005 15:22:13.164825  9606 net.cpp:122] Setting up penlu6
I1005 15:22:13.164829  9606 net.cpp:129] Top shape: 100 16 32 32 (1638400)
I1005 15:22:13.164832  9606 net.cpp:137] Memory required for data: 210945200
I1005 15:22:13.164836  9606 layer_factory.hpp:77] Creating layer Convolution7
I1005 15:22:13.164844  9606 net.cpp:84] Creating Layer Convolution7
I1005 15:22:13.164846  9606 net.cpp:406] Convolution7 <- Convolution6
I1005 15:22:13.164849  9606 net.cpp:380] Convolution7 -> Convolution7
I1005 15:22:13.165745  9606 net.cpp:122] Setting up Convolution7
I1005 15:22:13.165755  9606 net.cpp:129] Top shape: 100 16 32 32 (1638400)
I1005 15:22:13.165757  9606 net.cpp:137] Memory required for data: 217498800
I1005 15:22:13.165761  9606 layer_factory.hpp:77] Creating layer BatchNorm7
I1005 15:22:13.165776  9606 net.cpp:84] Creating Layer BatchNorm7
I1005 15:22:13.165778  9606 net.cpp:406] BatchNorm7 <- Convolution7
I1005 15:22:13.165782  9606 net.cpp:367] BatchNorm7 -> Convolution7 (in-place)
I1005 15:22:13.165920  9606 net.cpp:122] Setting up BatchNorm7
I1005 15:22:13.165925  9606 net.cpp:129] Top shape: 100 16 32 32 (1638400)
I1005 15:22:13.165927  9606 net.cpp:137] Memory required for data: 224052400
I1005 15:22:13.165937  9606 layer_factory.hpp:77] Creating layer Scale7
I1005 15:22:13.165943  9606 net.cpp:84] Creating Layer Scale7
I1005 15:22:13.165946  9606 net.cpp:406] Scale7 <- Convolution7
I1005 15:22:13.165951  9606 net.cpp:367] Scale7 -> Convolution7 (in-place)
I1005 15:22:13.165979  9606 layer_factory.hpp:77] Creating layer Scale7
I1005 15:22:13.166069  9606 net.cpp:122] Setting up Scale7
I1005 15:22:13.166074  9606 net.cpp:129] Top shape: 100 16 32 32 (1638400)
I1005 15:22:13.166076  9606 net.cpp:137] Memory required for data: 230606000
I1005 15:22:13.166081  9606 layer_factory.hpp:77] Creating layer Eltwise3
I1005 15:22:13.166085  9606 net.cpp:84] Creating Layer Eltwise3
I1005 15:22:13.166087  9606 net.cpp:406] Eltwise3 <- Eltwise2_penlu5_0_split_1
I1005 15:22:13.166100  9606 net.cpp:406] Eltwise3 <- Convolution7
I1005 15:22:13.166103  9606 net.cpp:380] Eltwise3 -> Eltwise3
I1005 15:22:13.166119  9606 net.cpp:122] Setting up Eltwise3
I1005 15:22:13.166123  9606 net.cpp:129] Top shape: 100 16 32 32 (1638400)
I1005 15:22:13.166126  9606 net.cpp:137] Memory required for data: 237159600
I1005 15:22:13.166127  9606 layer_factory.hpp:77] Creating layer penlu7
I1005 15:22:13.166132  9606 net.cpp:84] Creating Layer penlu7
I1005 15:22:13.166134  9606 net.cpp:406] penlu7 <- Eltwise3
I1005 15:22:13.166139  9606 net.cpp:367] penlu7 -> Eltwise3 (in-place)
I1005 15:22:13.166255  9606 net.cpp:122] Setting up penlu7
I1005 15:22:13.166260  9606 net.cpp:129] Top shape: 100 16 32 32 (1638400)
I1005 15:22:13.166262  9606 net.cpp:137] Memory required for data: 243713200
I1005 15:22:13.166266  9606 layer_factory.hpp:77] Creating layer Eltwise3_penlu7_0_split
I1005 15:22:13.166270  9606 net.cpp:84] Creating Layer Eltwise3_penlu7_0_split
I1005 15:22:13.166272  9606 net.cpp:406] Eltwise3_penlu7_0_split <- Eltwise3
I1005 15:22:13.166276  9606 net.cpp:380] Eltwise3_penlu7_0_split -> Eltwise3_penlu7_0_split_0
I1005 15:22:13.166280  9606 net.cpp:380] Eltwise3_penlu7_0_split -> Eltwise3_penlu7_0_split_1
I1005 15:22:13.166303  9606 net.cpp:122] Setting up Eltwise3_penlu7_0_split
I1005 15:22:13.166307  9606 net.cpp:129] Top shape: 100 16 32 32 (1638400)
I1005 15:22:13.166311  9606 net.cpp:129] Top shape: 100 16 32 32 (1638400)
I1005 15:22:13.166313  9606 net.cpp:137] Memory required for data: 256820400
I1005 15:22:13.166316  9606 layer_factory.hpp:77] Creating layer Convolution8
I1005 15:22:13.166321  9606 net.cpp:84] Creating Layer Convolution8
I1005 15:22:13.166324  9606 net.cpp:406] Convolution8 <- Eltwise3_penlu7_0_split_0
I1005 15:22:13.166327  9606 net.cpp:380] Convolution8 -> Convolution8
I1005 15:22:13.167270  9606 net.cpp:122] Setting up Convolution8
I1005 15:22:13.167279  9606 net.cpp:129] Top shape: 100 32 16 16 (819200)
I1005 15:22:13.167282  9606 net.cpp:137] Memory required for data: 260097200
I1005 15:22:13.167287  9606 layer_factory.hpp:77] Creating layer BatchNorm8
I1005 15:22:13.167292  9606 net.cpp:84] Creating Layer BatchNorm8
I1005 15:22:13.167295  9606 net.cpp:406] BatchNorm8 <- Convolution8
I1005 15:22:13.167299  9606 net.cpp:367] BatchNorm8 -> Convolution8 (in-place)
I1005 15:22:13.167433  9606 net.cpp:122] Setting up BatchNorm8
I1005 15:22:13.167438  9606 net.cpp:129] Top shape: 100 32 16 16 (819200)
I1005 15:22:13.167439  9606 net.cpp:137] Memory required for data: 263374000
I1005 15:22:13.167444  9606 layer_factory.hpp:77] Creating layer Scale8
I1005 15:22:13.167448  9606 net.cpp:84] Creating Layer Scale8
I1005 15:22:13.169216  9606 net.cpp:406] Scale8 <- Convolution8
I1005 15:22:13.169229  9606 net.cpp:367] Scale8 -> Convolution8 (in-place)
I1005 15:22:13.169270  9606 layer_factory.hpp:77] Creating layer Scale8
I1005 15:22:13.169378  9606 net.cpp:122] Setting up Scale8
I1005 15:22:13.169384  9606 net.cpp:129] Top shape: 100 32 16 16 (819200)
I1005 15:22:13.169386  9606 net.cpp:137] Memory required for data: 266650800
I1005 15:22:13.169390  9606 layer_factory.hpp:77] Creating layer Convolution9
I1005 15:22:13.169396  9606 net.cpp:84] Creating Layer Convolution9
I1005 15:22:13.169399  9606 net.cpp:406] Convolution9 <- Eltwise3_penlu7_0_split_1
I1005 15:22:13.169404  9606 net.cpp:380] Convolution9 -> Convolution9
I1005 15:22:13.170439  9606 net.cpp:122] Setting up Convolution9
I1005 15:22:13.170447  9606 net.cpp:129] Top shape: 100 32 16 16 (819200)
I1005 15:22:13.170450  9606 net.cpp:137] Memory required for data: 269927600
I1005 15:22:13.170455  9606 layer_factory.hpp:77] Creating layer BatchNorm9
I1005 15:22:13.170461  9606 net.cpp:84] Creating Layer BatchNorm9
I1005 15:22:13.170464  9606 net.cpp:406] BatchNorm9 <- Convolution9
I1005 15:22:13.170469  9606 net.cpp:367] BatchNorm9 -> Convolution9 (in-place)
I1005 15:22:13.170634  9606 net.cpp:122] Setting up BatchNorm9
I1005 15:22:13.170640  9606 net.cpp:129] Top shape: 100 32 16 16 (819200)
I1005 15:22:13.170642  9606 net.cpp:137] Memory required for data: 273204400
I1005 15:22:13.170650  9606 layer_factory.hpp:77] Creating layer Scale9
I1005 15:22:13.170655  9606 net.cpp:84] Creating Layer Scale9
I1005 15:22:13.170657  9606 net.cpp:406] Scale9 <- Convolution9
I1005 15:22:13.170660  9606 net.cpp:367] Scale9 -> Convolution9 (in-place)
I1005 15:22:13.170693  9606 layer_factory.hpp:77] Creating layer Scale9
I1005 15:22:13.170784  9606 net.cpp:122] Setting up Scale9
I1005 15:22:13.170789  9606 net.cpp:129] Top shape: 100 32 16 16 (819200)
I1005 15:22:13.170791  9606 net.cpp:137] Memory required for data: 276481200
I1005 15:22:13.170805  9606 layer_factory.hpp:77] Creating layer penlu8
I1005 15:22:13.170814  9606 net.cpp:84] Creating Layer penlu8
I1005 15:22:13.170815  9606 net.cpp:406] penlu8 <- Convolution9
I1005 15:22:13.170819  9606 net.cpp:367] penlu8 -> Convolution9 (in-place)
I1005 15:22:13.170954  9606 net.cpp:122] Setting up penlu8
I1005 15:22:13.170959  9606 net.cpp:129] Top shape: 100 32 16 16 (819200)
I1005 15:22:13.170961  9606 net.cpp:137] Memory required for data: 279758000
I1005 15:22:13.170966  9606 layer_factory.hpp:77] Creating layer Convolution10
I1005 15:22:13.170974  9606 net.cpp:84] Creating Layer Convolution10
I1005 15:22:13.170976  9606 net.cpp:406] Convolution10 <- Convolution9
I1005 15:22:13.170980  9606 net.cpp:380] Convolution10 -> Convolution10
I1005 15:22:13.172097  9606 net.cpp:122] Setting up Convolution10
I1005 15:22:13.172107  9606 net.cpp:129] Top shape: 100 32 16 16 (819200)
I1005 15:22:13.172109  9606 net.cpp:137] Memory required for data: 283034800
I1005 15:22:13.172114  9606 layer_factory.hpp:77] Creating layer BatchNorm10
I1005 15:22:13.172119  9606 net.cpp:84] Creating Layer BatchNorm10
I1005 15:22:13.172122  9606 net.cpp:406] BatchNorm10 <- Convolution10
I1005 15:22:13.172127  9606 net.cpp:367] BatchNorm10 -> Convolution10 (in-place)
I1005 15:22:13.172263  9606 net.cpp:122] Setting up BatchNorm10
I1005 15:22:13.172268  9606 net.cpp:129] Top shape: 100 32 16 16 (819200)
I1005 15:22:13.172271  9606 net.cpp:137] Memory required for data: 286311600
I1005 15:22:13.172276  9606 layer_factory.hpp:77] Creating layer Scale10
I1005 15:22:13.172281  9606 net.cpp:84] Creating Layer Scale10
I1005 15:22:13.172282  9606 net.cpp:406] Scale10 <- Convolution10
I1005 15:22:13.172286  9606 net.cpp:367] Scale10 -> Convolution10 (in-place)
I1005 15:22:13.172314  9606 layer_factory.hpp:77] Creating layer Scale10
I1005 15:22:13.172392  9606 net.cpp:122] Setting up Scale10
I1005 15:22:13.172396  9606 net.cpp:129] Top shape: 100 32 16 16 (819200)
I1005 15:22:13.172399  9606 net.cpp:137] Memory required for data: 289588400
I1005 15:22:13.172404  9606 layer_factory.hpp:77] Creating layer Eltwise4
I1005 15:22:13.172408  9606 net.cpp:84] Creating Layer Eltwise4
I1005 15:22:13.172411  9606 net.cpp:406] Eltwise4 <- Convolution8
I1005 15:22:13.172415  9606 net.cpp:406] Eltwise4 <- Convolution10
I1005 15:22:13.172425  9606 net.cpp:380] Eltwise4 -> Eltwise4
I1005 15:22:13.172439  9606 net.cpp:122] Setting up Eltwise4
I1005 15:22:13.172443  9606 net.cpp:129] Top shape: 100 32 16 16 (819200)
I1005 15:22:13.172446  9606 net.cpp:137] Memory required for data: 292865200
I1005 15:22:13.172448  9606 layer_factory.hpp:77] Creating layer penlu9
I1005 15:22:13.172454  9606 net.cpp:84] Creating Layer penlu9
I1005 15:22:13.172457  9606 net.cpp:406] penlu9 <- Eltwise4
I1005 15:22:13.172461  9606 net.cpp:367] penlu9 -> Eltwise4 (in-place)
I1005 15:22:13.172590  9606 net.cpp:122] Setting up penlu9
I1005 15:22:13.172595  9606 net.cpp:129] Top shape: 100 32 16 16 (819200)
I1005 15:22:13.172597  9606 net.cpp:137] Memory required for data: 296142000
I1005 15:22:13.172602  9606 layer_factory.hpp:77] Creating layer Eltwise4_penlu9_0_split
I1005 15:22:13.172606  9606 net.cpp:84] Creating Layer Eltwise4_penlu9_0_split
I1005 15:22:13.172610  9606 net.cpp:406] Eltwise4_penlu9_0_split <- Eltwise4
I1005 15:22:13.172613  9606 net.cpp:380] Eltwise4_penlu9_0_split -> Eltwise4_penlu9_0_split_0
I1005 15:22:13.172617  9606 net.cpp:380] Eltwise4_penlu9_0_split -> Eltwise4_penlu9_0_split_1
I1005 15:22:13.172642  9606 net.cpp:122] Setting up Eltwise4_penlu9_0_split
I1005 15:22:13.172646  9606 net.cpp:129] Top shape: 100 32 16 16 (819200)
I1005 15:22:13.172649  9606 net.cpp:129] Top shape: 100 32 16 16 (819200)
I1005 15:22:13.172652  9606 net.cpp:137] Memory required for data: 302695600
I1005 15:22:13.172654  9606 layer_factory.hpp:77] Creating layer Convolution11
I1005 15:22:13.172662  9606 net.cpp:84] Creating Layer Convolution11
I1005 15:22:13.172664  9606 net.cpp:406] Convolution11 <- Eltwise4_penlu9_0_split_0
I1005 15:22:13.172668  9606 net.cpp:380] Convolution11 -> Convolution11
I1005 15:22:13.173833  9606 net.cpp:122] Setting up Convolution11
I1005 15:22:13.173842  9606 net.cpp:129] Top shape: 100 32 16 16 (819200)
I1005 15:22:13.173844  9606 net.cpp:137] Memory required for data: 305972400
I1005 15:22:13.173849  9606 layer_factory.hpp:77] Creating layer BatchNorm11
I1005 15:22:13.173856  9606 net.cpp:84] Creating Layer BatchNorm11
I1005 15:22:13.173858  9606 net.cpp:406] BatchNorm11 <- Convolution11
I1005 15:22:13.173861  9606 net.cpp:367] BatchNorm11 -> Convolution11 (in-place)
I1005 15:22:13.174000  9606 net.cpp:122] Setting up BatchNorm11
I1005 15:22:13.174005  9606 net.cpp:129] Top shape: 100 32 16 16 (819200)
I1005 15:22:13.174007  9606 net.cpp:137] Memory required for data: 309249200
I1005 15:22:13.174012  9606 layer_factory.hpp:77] Creating layer Scale11
I1005 15:22:13.174017  9606 net.cpp:84] Creating Layer Scale11
I1005 15:22:13.174019  9606 net.cpp:406] Scale11 <- Convolution11
I1005 15:22:13.174023  9606 net.cpp:367] Scale11 -> Convolution11 (in-place)
I1005 15:22:13.174052  9606 layer_factory.hpp:77] Creating layer Scale11
I1005 15:22:13.174151  9606 net.cpp:122] Setting up Scale11
I1005 15:22:13.174155  9606 net.cpp:129] Top shape: 100 32 16 16 (819200)
I1005 15:22:13.174159  9606 net.cpp:137] Memory required for data: 312526000
I1005 15:22:13.174162  9606 layer_factory.hpp:77] Creating layer penlu10
I1005 15:22:13.174167  9606 net.cpp:84] Creating Layer penlu10
I1005 15:22:13.174170  9606 net.cpp:406] penlu10 <- Convolution11
I1005 15:22:13.174175  9606 net.cpp:367] penlu10 -> Convolution11 (in-place)
I1005 15:22:13.174285  9606 net.cpp:122] Setting up penlu10
I1005 15:22:13.174290  9606 net.cpp:129] Top shape: 100 32 16 16 (819200)
I1005 15:22:13.174293  9606 net.cpp:137] Memory required for data: 315802800
I1005 15:22:13.174298  9606 layer_factory.hpp:77] Creating layer Convolution12
I1005 15:22:13.174304  9606 net.cpp:84] Creating Layer Convolution12
I1005 15:22:13.174306  9606 net.cpp:406] Convolution12 <- Convolution11
I1005 15:22:13.174311  9606 net.cpp:380] Convolution12 -> Convolution12
I1005 15:22:13.175062  9606 net.cpp:122] Setting up Convolution12
I1005 15:22:13.175071  9606 net.cpp:129] Top shape: 100 32 16 16 (819200)
I1005 15:22:13.175073  9606 net.cpp:137] Memory required for data: 319079600
I1005 15:22:13.175084  9606 layer_factory.hpp:77] Creating layer BatchNorm12
I1005 15:22:13.175091  9606 net.cpp:84] Creating Layer BatchNorm12
I1005 15:22:13.175093  9606 net.cpp:406] BatchNorm12 <- Convolution12
I1005 15:22:13.175097  9606 net.cpp:367] BatchNorm12 -> Convolution12 (in-place)
I1005 15:22:13.175251  9606 net.cpp:122] Setting up BatchNorm12
I1005 15:22:13.175256  9606 net.cpp:129] Top shape: 100 32 16 16 (819200)
I1005 15:22:13.175257  9606 net.cpp:137] Memory required for data: 322356400
I1005 15:22:13.175262  9606 layer_factory.hpp:77] Creating layer Scale12
I1005 15:22:13.175267  9606 net.cpp:84] Creating Layer Scale12
I1005 15:22:13.175269  9606 net.cpp:406] Scale12 <- Convolution12
I1005 15:22:13.175273  9606 net.cpp:367] Scale12 -> Convolution12 (in-place)
I1005 15:22:13.175312  9606 layer_factory.hpp:77] Creating layer Scale12
I1005 15:22:13.175391  9606 net.cpp:122] Setting up Scale12
I1005 15:22:13.175396  9606 net.cpp:129] Top shape: 100 32 16 16 (819200)
I1005 15:22:13.175400  9606 net.cpp:137] Memory required for data: 325633200
I1005 15:22:13.175403  9606 layer_factory.hpp:77] Creating layer Eltwise5
I1005 15:22:13.175407  9606 net.cpp:84] Creating Layer Eltwise5
I1005 15:22:13.175410  9606 net.cpp:406] Eltwise5 <- Eltwise4_penlu9_0_split_1
I1005 15:22:13.175412  9606 net.cpp:406] Eltwise5 <- Convolution12
I1005 15:22:13.175416  9606 net.cpp:380] Eltwise5 -> Eltwise5
I1005 15:22:13.175431  9606 net.cpp:122] Setting up Eltwise5
I1005 15:22:13.175434  9606 net.cpp:129] Top shape: 100 32 16 16 (819200)
I1005 15:22:13.175437  9606 net.cpp:137] Memory required for data: 328910000
I1005 15:22:13.175439  9606 layer_factory.hpp:77] Creating layer penlu11
I1005 15:22:13.175444  9606 net.cpp:84] Creating Layer penlu11
I1005 15:22:13.175447  9606 net.cpp:406] penlu11 <- Eltwise5
I1005 15:22:13.175451  9606 net.cpp:367] penlu11 -> Eltwise5 (in-place)
I1005 15:22:13.175567  9606 net.cpp:122] Setting up penlu11
I1005 15:22:13.175572  9606 net.cpp:129] Top shape: 100 32 16 16 (819200)
I1005 15:22:13.175575  9606 net.cpp:137] Memory required for data: 332186800
I1005 15:22:13.175578  9606 layer_factory.hpp:77] Creating layer Eltwise5_penlu11_0_split
I1005 15:22:13.175583  9606 net.cpp:84] Creating Layer Eltwise5_penlu11_0_split
I1005 15:22:13.175586  9606 net.cpp:406] Eltwise5_penlu11_0_split <- Eltwise5
I1005 15:22:13.175590  9606 net.cpp:380] Eltwise5_penlu11_0_split -> Eltwise5_penlu11_0_split_0
I1005 15:22:13.175593  9606 net.cpp:380] Eltwise5_penlu11_0_split -> Eltwise5_penlu11_0_split_1
I1005 15:22:13.175621  9606 net.cpp:122] Setting up Eltwise5_penlu11_0_split
I1005 15:22:13.175626  9606 net.cpp:129] Top shape: 100 32 16 16 (819200)
I1005 15:22:13.175629  9606 net.cpp:129] Top shape: 100 32 16 16 (819200)
I1005 15:22:13.175631  9606 net.cpp:137] Memory required for data: 338740400
I1005 15:22:13.175634  9606 layer_factory.hpp:77] Creating layer Convolution13
I1005 15:22:13.175640  9606 net.cpp:84] Creating Layer Convolution13
I1005 15:22:13.175642  9606 net.cpp:406] Convolution13 <- Eltwise5_penlu11_0_split_0
I1005 15:22:13.175647  9606 net.cpp:380] Convolution13 -> Convolution13
I1005 15:22:13.176740  9606 net.cpp:122] Setting up Convolution13
I1005 15:22:13.176749  9606 net.cpp:129] Top shape: 100 32 16 16 (819200)
I1005 15:22:13.176753  9606 net.cpp:137] Memory required for data: 342017200
I1005 15:22:13.176758  9606 layer_factory.hpp:77] Creating layer BatchNorm13
I1005 15:22:13.176761  9606 net.cpp:84] Creating Layer BatchNorm13
I1005 15:22:13.176764  9606 net.cpp:406] BatchNorm13 <- Convolution13
I1005 15:22:13.176769  9606 net.cpp:367] BatchNorm13 -> Convolution13 (in-place)
I1005 15:22:13.176906  9606 net.cpp:122] Setting up BatchNorm13
I1005 15:22:13.176911  9606 net.cpp:129] Top shape: 100 32 16 16 (819200)
I1005 15:22:13.176914  9606 net.cpp:137] Memory required for data: 345294000
I1005 15:22:13.176919  9606 layer_factory.hpp:77] Creating layer Scale13
I1005 15:22:13.176923  9606 net.cpp:84] Creating Layer Scale13
I1005 15:22:13.176925  9606 net.cpp:406] Scale13 <- Convolution13
I1005 15:22:13.176935  9606 net.cpp:367] Scale13 -> Convolution13 (in-place)
I1005 15:22:13.176965  9606 layer_factory.hpp:77] Creating layer Scale13
I1005 15:22:13.177045  9606 net.cpp:122] Setting up Scale13
I1005 15:22:13.177050  9606 net.cpp:129] Top shape: 100 32 16 16 (819200)
I1005 15:22:13.177053  9606 net.cpp:137] Memory required for data: 348570800
I1005 15:22:13.177057  9606 layer_factory.hpp:77] Creating layer penlu12
I1005 15:22:13.177063  9606 net.cpp:84] Creating Layer penlu12
I1005 15:22:13.177065  9606 net.cpp:406] penlu12 <- Convolution13
I1005 15:22:13.177069  9606 net.cpp:367] penlu12 -> Convolution13 (in-place)
I1005 15:22:13.177181  9606 net.cpp:122] Setting up penlu12
I1005 15:22:13.177186  9606 net.cpp:129] Top shape: 100 32 16 16 (819200)
I1005 15:22:13.177188  9606 net.cpp:137] Memory required for data: 351847600
I1005 15:22:13.177193  9606 layer_factory.hpp:77] Creating layer Convolution14
I1005 15:22:13.177204  9606 net.cpp:84] Creating Layer Convolution14
I1005 15:22:13.177207  9606 net.cpp:406] Convolution14 <- Convolution13
I1005 15:22:13.177212  9606 net.cpp:380] Convolution14 -> Convolution14
I1005 15:22:13.178313  9606 net.cpp:122] Setting up Convolution14
I1005 15:22:13.178321  9606 net.cpp:129] Top shape: 100 32 16 16 (819200)
I1005 15:22:13.178324  9606 net.cpp:137] Memory required for data: 355124400
I1005 15:22:13.178340  9606 layer_factory.hpp:77] Creating layer BatchNorm14
I1005 15:22:13.178346  9606 net.cpp:84] Creating Layer BatchNorm14
I1005 15:22:13.178349  9606 net.cpp:406] BatchNorm14 <- Convolution14
I1005 15:22:13.178352  9606 net.cpp:367] BatchNorm14 -> Convolution14 (in-place)
I1005 15:22:13.178513  9606 net.cpp:122] Setting up BatchNorm14
I1005 15:22:13.178517  9606 net.cpp:129] Top shape: 100 32 16 16 (819200)
I1005 15:22:13.178524  9606 net.cpp:137] Memory required for data: 358401200
I1005 15:22:13.178530  9606 layer_factory.hpp:77] Creating layer Scale14
I1005 15:22:13.178534  9606 net.cpp:84] Creating Layer Scale14
I1005 15:22:13.178537  9606 net.cpp:406] Scale14 <- Convolution14
I1005 15:22:13.178541  9606 net.cpp:367] Scale14 -> Convolution14 (in-place)
I1005 15:22:13.178570  9606 layer_factory.hpp:77] Creating layer Scale14
I1005 15:22:13.178652  9606 net.cpp:122] Setting up Scale14
I1005 15:22:13.178655  9606 net.cpp:129] Top shape: 100 32 16 16 (819200)
I1005 15:22:13.178658  9606 net.cpp:137] Memory required for data: 361678000
I1005 15:22:13.178663  9606 layer_factory.hpp:77] Creating layer Eltwise6
I1005 15:22:13.178666  9606 net.cpp:84] Creating Layer Eltwise6
I1005 15:22:13.178668  9606 net.cpp:406] Eltwise6 <- Eltwise5_penlu11_0_split_1
I1005 15:22:13.178671  9606 net.cpp:406] Eltwise6 <- Convolution14
I1005 15:22:13.178675  9606 net.cpp:380] Eltwise6 -> Eltwise6
I1005 15:22:13.178689  9606 net.cpp:122] Setting up Eltwise6
I1005 15:22:13.178694  9606 net.cpp:129] Top shape: 100 32 16 16 (819200)
I1005 15:22:13.178695  9606 net.cpp:137] Memory required for data: 364954800
I1005 15:22:13.178697  9606 layer_factory.hpp:77] Creating layer penlu13
I1005 15:22:13.178704  9606 net.cpp:84] Creating Layer penlu13
I1005 15:22:13.178707  9606 net.cpp:406] penlu13 <- Eltwise6
I1005 15:22:13.178710  9606 net.cpp:367] penlu13 -> Eltwise6 (in-place)
I1005 15:22:13.178828  9606 net.cpp:122] Setting up penlu13
I1005 15:22:13.178833  9606 net.cpp:129] Top shape: 100 32 16 16 (819200)
I1005 15:22:13.178835  9606 net.cpp:137] Memory required for data: 368231600
I1005 15:22:13.178840  9606 layer_factory.hpp:77] Creating layer Eltwise6_penlu13_0_split
I1005 15:22:13.178844  9606 net.cpp:84] Creating Layer Eltwise6_penlu13_0_split
I1005 15:22:13.178848  9606 net.cpp:406] Eltwise6_penlu13_0_split <- Eltwise6
I1005 15:22:13.178850  9606 net.cpp:380] Eltwise6_penlu13_0_split -> Eltwise6_penlu13_0_split_0
I1005 15:22:13.199666  9606 net.cpp:380] Eltwise6_penlu13_0_split -> Eltwise6_penlu13_0_split_1
I1005 15:22:13.199712  9606 net.cpp:122] Setting up Eltwise6_penlu13_0_split
I1005 15:22:13.199718  9606 net.cpp:129] Top shape: 100 32 16 16 (819200)
I1005 15:22:13.199723  9606 net.cpp:129] Top shape: 100 32 16 16 (819200)
I1005 15:22:13.199733  9606 net.cpp:137] Memory required for data: 374785200
I1005 15:22:13.199736  9606 layer_factory.hpp:77] Creating layer Convolution15
I1005 15:22:13.199743  9606 net.cpp:84] Creating Layer Convolution15
I1005 15:22:13.199746  9606 net.cpp:406] Convolution15 <- Eltwise6_penlu13_0_split_0
I1005 15:22:13.199753  9606 net.cpp:380] Convolution15 -> Convolution15
I1005 15:22:13.200798  9606 net.cpp:122] Setting up Convolution15
I1005 15:22:13.200808  9606 net.cpp:129] Top shape: 100 64 8 8 (409600)
I1005 15:22:13.200810  9606 net.cpp:137] Memory required for data: 376423600
I1005 15:22:13.200816  9606 layer_factory.hpp:77] Creating layer BatchNorm15
I1005 15:22:13.200822  9606 net.cpp:84] Creating Layer BatchNorm15
I1005 15:22:13.200825  9606 net.cpp:406] BatchNorm15 <- Convolution15
I1005 15:22:13.200830  9606 net.cpp:367] BatchNorm15 -> Convolution15 (in-place)
I1005 15:22:13.200986  9606 net.cpp:122] Setting up BatchNorm15
I1005 15:22:13.200992  9606 net.cpp:129] Top shape: 100 64 8 8 (409600)
I1005 15:22:13.200994  9606 net.cpp:137] Memory required for data: 378062000
I1005 15:22:13.201000  9606 layer_factory.hpp:77] Creating layer Scale15
I1005 15:22:13.201004  9606 net.cpp:84] Creating Layer Scale15
I1005 15:22:13.201007  9606 net.cpp:406] Scale15 <- Convolution15
I1005 15:22:13.201011  9606 net.cpp:367] Scale15 -> Convolution15 (in-place)
I1005 15:22:13.201045  9606 layer_factory.hpp:77] Creating layer Scale15
I1005 15:22:13.201133  9606 net.cpp:122] Setting up Scale15
I1005 15:22:13.201138  9606 net.cpp:129] Top shape: 100 64 8 8 (409600)
I1005 15:22:13.201140  9606 net.cpp:137] Memory required for data: 379700400
I1005 15:22:13.201144  9606 layer_factory.hpp:77] Creating layer Convolution16
I1005 15:22:13.201153  9606 net.cpp:84] Creating Layer Convolution16
I1005 15:22:13.201156  9606 net.cpp:406] Convolution16 <- Eltwise6_penlu13_0_split_1
I1005 15:22:13.201161  9606 net.cpp:380] Convolution16 -> Convolution16
I1005 15:22:13.202581  9606 net.cpp:122] Setting up Convolution16
I1005 15:22:13.202591  9606 net.cpp:129] Top shape: 100 64 8 8 (409600)
I1005 15:22:13.202594  9606 net.cpp:137] Memory required for data: 381338800
I1005 15:22:13.202600  9606 layer_factory.hpp:77] Creating layer BatchNorm16
I1005 15:22:13.202605  9606 net.cpp:84] Creating Layer BatchNorm16
I1005 15:22:13.202610  9606 net.cpp:406] BatchNorm16 <- Convolution16
I1005 15:22:13.202613  9606 net.cpp:367] BatchNorm16 -> Convolution16 (in-place)
I1005 15:22:13.202766  9606 net.cpp:122] Setting up BatchNorm16
I1005 15:22:13.202771  9606 net.cpp:129] Top shape: 100 64 8 8 (409600)
I1005 15:22:13.202774  9606 net.cpp:137] Memory required for data: 382977200
I1005 15:22:13.202778  9606 layer_factory.hpp:77] Creating layer Scale16
I1005 15:22:13.202785  9606 net.cpp:84] Creating Layer Scale16
I1005 15:22:13.202786  9606 net.cpp:406] Scale16 <- Convolution16
I1005 15:22:13.202790  9606 net.cpp:367] Scale16 -> Convolution16 (in-place)
I1005 15:22:13.202819  9606 layer_factory.hpp:77] Creating layer Scale16
I1005 15:22:13.202900  9606 net.cpp:122] Setting up Scale16
I1005 15:22:13.202904  9606 net.cpp:129] Top shape: 100 64 8 8 (409600)
I1005 15:22:13.202908  9606 net.cpp:137] Memory required for data: 384615600
I1005 15:22:13.202911  9606 layer_factory.hpp:77] Creating layer penlu14
I1005 15:22:13.202917  9606 net.cpp:84] Creating Layer penlu14
I1005 15:22:13.202919  9606 net.cpp:406] penlu14 <- Convolution16
I1005 15:22:13.202924  9606 net.cpp:367] penlu14 -> Convolution16 (in-place)
I1005 15:22:13.203047  9606 net.cpp:122] Setting up penlu14
I1005 15:22:13.203052  9606 net.cpp:129] Top shape: 100 64 8 8 (409600)
I1005 15:22:13.203055  9606 net.cpp:137] Memory required for data: 386254000
I1005 15:22:13.203059  9606 layer_factory.hpp:77] Creating layer Convolution17
I1005 15:22:13.203068  9606 net.cpp:84] Creating Layer Convolution17
I1005 15:22:13.203070  9606 net.cpp:406] Convolution17 <- Convolution16
I1005 15:22:13.203074  9606 net.cpp:380] Convolution17 -> Convolution17
I1005 15:22:13.204890  9606 net.cpp:122] Setting up Convolution17
I1005 15:22:13.204900  9606 net.cpp:129] Top shape: 100 64 8 8 (409600)
I1005 15:22:13.204902  9606 net.cpp:137] Memory required for data: 387892400
I1005 15:22:13.204907  9606 layer_factory.hpp:77] Creating layer BatchNorm17
I1005 15:22:13.204911  9606 net.cpp:84] Creating Layer BatchNorm17
I1005 15:22:13.204915  9606 net.cpp:406] BatchNorm17 <- Convolution17
I1005 15:22:13.204918  9606 net.cpp:367] BatchNorm17 -> Convolution17 (in-place)
I1005 15:22:13.205065  9606 net.cpp:122] Setting up BatchNorm17
I1005 15:22:13.205070  9606 net.cpp:129] Top shape: 100 64 8 8 (409600)
I1005 15:22:13.205073  9606 net.cpp:137] Memory required for data: 389530800
I1005 15:22:13.205077  9606 layer_factory.hpp:77] Creating layer Scale17
I1005 15:22:13.205082  9606 net.cpp:84] Creating Layer Scale17
I1005 15:22:13.205085  9606 net.cpp:406] Scale17 <- Convolution17
I1005 15:22:13.205087  9606 net.cpp:367] Scale17 -> Convolution17 (in-place)
I1005 15:22:13.205117  9606 layer_factory.hpp:77] Creating layer Scale17
I1005 15:22:13.205201  9606 net.cpp:122] Setting up Scale17
I1005 15:22:13.205205  9606 net.cpp:129] Top shape: 100 64 8 8 (409600)
I1005 15:22:13.205209  9606 net.cpp:137] Memory required for data: 391169200
I1005 15:22:13.205211  9606 layer_factory.hpp:77] Creating layer Eltwise7
I1005 15:22:13.205216  9606 net.cpp:84] Creating Layer Eltwise7
I1005 15:22:13.205219  9606 net.cpp:406] Eltwise7 <- Convolution15
I1005 15:22:13.205222  9606 net.cpp:406] Eltwise7 <- Convolution17
I1005 15:22:13.205225  9606 net.cpp:380] Eltwise7 -> Eltwise7
I1005 15:22:13.205243  9606 net.cpp:122] Setting up Eltwise7
I1005 15:22:13.205247  9606 net.cpp:129] Top shape: 100 64 8 8 (409600)
I1005 15:22:13.205250  9606 net.cpp:137] Memory required for data: 392807600
I1005 15:22:13.205252  9606 layer_factory.hpp:77] Creating layer penlu15
I1005 15:22:13.205257  9606 net.cpp:84] Creating Layer penlu15
I1005 15:22:13.205260  9606 net.cpp:406] penlu15 <- Eltwise7
I1005 15:22:13.205265  9606 net.cpp:367] penlu15 -> Eltwise7 (in-place)
I1005 15:22:13.205379  9606 net.cpp:122] Setting up penlu15
I1005 15:22:13.205384  9606 net.cpp:129] Top shape: 100 64 8 8 (409600)
I1005 15:22:13.205386  9606 net.cpp:137] Memory required for data: 394446000
I1005 15:22:13.205391  9606 layer_factory.hpp:77] Creating layer Eltwise7_penlu15_0_split
I1005 15:22:13.205395  9606 net.cpp:84] Creating Layer Eltwise7_penlu15_0_split
I1005 15:22:13.205397  9606 net.cpp:406] Eltwise7_penlu15_0_split <- Eltwise7
I1005 15:22:13.205400  9606 net.cpp:380] Eltwise7_penlu15_0_split -> Eltwise7_penlu15_0_split_0
I1005 15:22:13.205404  9606 net.cpp:380] Eltwise7_penlu15_0_split -> Eltwise7_penlu15_0_split_1
I1005 15:22:13.205430  9606 net.cpp:122] Setting up Eltwise7_penlu15_0_split
I1005 15:22:13.205433  9606 net.cpp:129] Top shape: 100 64 8 8 (409600)
I1005 15:22:13.205436  9606 net.cpp:129] Top shape: 100 64 8 8 (409600)
I1005 15:22:13.205440  9606 net.cpp:137] Memory required for data: 397722800
I1005 15:22:13.205441  9606 layer_factory.hpp:77] Creating layer Convolution18
I1005 15:22:13.205447  9606 net.cpp:84] Creating Layer Convolution18
I1005 15:22:13.205449  9606 net.cpp:406] Convolution18 <- Eltwise7_penlu15_0_split_0
I1005 15:22:13.205454  9606 net.cpp:380] Convolution18 -> Convolution18
I1005 15:22:13.207152  9606 net.cpp:122] Setting up Convolution18
I1005 15:22:13.207164  9606 net.cpp:129] Top shape: 100 64 8 8 (409600)
I1005 15:22:13.207165  9606 net.cpp:137] Memory required for data: 399361200
I1005 15:22:13.207170  9606 layer_factory.hpp:77] Creating layer BatchNorm18
I1005 15:22:13.207175  9606 net.cpp:84] Creating Layer BatchNorm18
I1005 15:22:13.207177  9606 net.cpp:406] BatchNorm18 <- Convolution18
I1005 15:22:13.207182  9606 net.cpp:367] BatchNorm18 -> Convolution18 (in-place)
I1005 15:22:13.207326  9606 net.cpp:122] Setting up BatchNorm18
I1005 15:22:13.207332  9606 net.cpp:129] Top shape: 100 64 8 8 (409600)
I1005 15:22:13.207334  9606 net.cpp:137] Memory required for data: 400999600
I1005 15:22:13.207340  9606 layer_factory.hpp:77] Creating layer Scale18
I1005 15:22:13.207351  9606 net.cpp:84] Creating Layer Scale18
I1005 15:22:13.207355  9606 net.cpp:406] Scale18 <- Convolution18
I1005 15:22:13.207358  9606 net.cpp:367] Scale18 -> Convolution18 (in-place)
I1005 15:22:13.207388  9606 layer_factory.hpp:77] Creating layer Scale18
I1005 15:22:13.207471  9606 net.cpp:122] Setting up Scale18
I1005 15:22:13.207476  9606 net.cpp:129] Top shape: 100 64 8 8 (409600)
I1005 15:22:13.207479  9606 net.cpp:137] Memory required for data: 402638000
I1005 15:22:13.207482  9606 layer_factory.hpp:77] Creating layer penlu16
I1005 15:22:13.207487  9606 net.cpp:84] Creating Layer penlu16
I1005 15:22:13.207490  9606 net.cpp:406] penlu16 <- Convolution18
I1005 15:22:13.207494  9606 net.cpp:367] penlu16 -> Convolution18 (in-place)
I1005 15:22:13.207609  9606 net.cpp:122] Setting up penlu16
I1005 15:22:13.207614  9606 net.cpp:129] Top shape: 100 64 8 8 (409600)
I1005 15:22:13.207617  9606 net.cpp:137] Memory required for data: 404276400
I1005 15:22:13.207621  9606 layer_factory.hpp:77] Creating layer Convolution19
I1005 15:22:13.207628  9606 net.cpp:84] Creating Layer Convolution19
I1005 15:22:13.207630  9606 net.cpp:406] Convolution19 <- Convolution18
I1005 15:22:13.207635  9606 net.cpp:380] Convolution19 -> Convolution19
I1005 15:22:13.209322  9606 net.cpp:122] Setting up Convolution19
I1005 15:22:13.209331  9606 net.cpp:129] Top shape: 100 64 8 8 (409600)
I1005 15:22:13.209333  9606 net.cpp:137] Memory required for data: 405914800
I1005 15:22:13.209338  9606 layer_factory.hpp:77] Creating layer BatchNorm19
I1005 15:22:13.209343  9606 net.cpp:84] Creating Layer BatchNorm19
I1005 15:22:13.209347  9606 net.cpp:406] BatchNorm19 <- Convolution19
I1005 15:22:13.209350  9606 net.cpp:367] BatchNorm19 -> Convolution19 (in-place)
I1005 15:22:13.209496  9606 net.cpp:122] Setting up BatchNorm19
I1005 15:22:13.209501  9606 net.cpp:129] Top shape: 100 64 8 8 (409600)
I1005 15:22:13.209503  9606 net.cpp:137] Memory required for data: 407553200
I1005 15:22:13.209507  9606 layer_factory.hpp:77] Creating layer Scale19
I1005 15:22:13.209512  9606 net.cpp:84] Creating Layer Scale19
I1005 15:22:13.209514  9606 net.cpp:406] Scale19 <- Convolution19
I1005 15:22:13.209517  9606 net.cpp:367] Scale19 -> Convolution19 (in-place)
I1005 15:22:13.209547  9606 layer_factory.hpp:77] Creating layer Scale19
I1005 15:22:13.209630  9606 net.cpp:122] Setting up Scale19
I1005 15:22:13.209636  9606 net.cpp:129] Top shape: 100 64 8 8 (409600)
I1005 15:22:13.209638  9606 net.cpp:137] Memory required for data: 409191600
I1005 15:22:13.209642  9606 layer_factory.hpp:77] Creating layer Eltwise8
I1005 15:22:13.209646  9606 net.cpp:84] Creating Layer Eltwise8
I1005 15:22:13.209650  9606 net.cpp:406] Eltwise8 <- Eltwise7_penlu15_0_split_1
I1005 15:22:13.209652  9606 net.cpp:406] Eltwise8 <- Convolution19
I1005 15:22:13.209656  9606 net.cpp:380] Eltwise8 -> Eltwise8
I1005 15:22:13.209673  9606 net.cpp:122] Setting up Eltwise8
I1005 15:22:13.209677  9606 net.cpp:129] Top shape: 100 64 8 8 (409600)
I1005 15:22:13.209679  9606 net.cpp:137] Memory required for data: 410830000
I1005 15:22:13.209681  9606 layer_factory.hpp:77] Creating layer penlu17
I1005 15:22:13.209688  9606 net.cpp:84] Creating Layer penlu17
I1005 15:22:13.209691  9606 net.cpp:406] penlu17 <- Eltwise8
I1005 15:22:13.209694  9606 net.cpp:367] penlu17 -> Eltwise8 (in-place)
I1005 15:22:13.209830  9606 net.cpp:122] Setting up penlu17
I1005 15:22:13.209836  9606 net.cpp:129] Top shape: 100 64 8 8 (409600)
I1005 15:22:13.209837  9606 net.cpp:137] Memory required for data: 412468400
I1005 15:22:13.209841  9606 layer_factory.hpp:77] Creating layer Eltwise8_penlu17_0_split
I1005 15:22:13.209846  9606 net.cpp:84] Creating Layer Eltwise8_penlu17_0_split
I1005 15:22:13.209848  9606 net.cpp:406] Eltwise8_penlu17_0_split <- Eltwise8
I1005 15:22:13.209852  9606 net.cpp:380] Eltwise8_penlu17_0_split -> Eltwise8_penlu17_0_split_0
I1005 15:22:13.209856  9606 net.cpp:380] Eltwise8_penlu17_0_split -> Eltwise8_penlu17_0_split_1
I1005 15:22:13.209882  9606 net.cpp:122] Setting up Eltwise8_penlu17_0_split
I1005 15:22:13.209892  9606 net.cpp:129] Top shape: 100 64 8 8 (409600)
I1005 15:22:13.209894  9606 net.cpp:129] Top shape: 100 64 8 8 (409600)
I1005 15:22:13.209897  9606 net.cpp:137] Memory required for data: 415745200
I1005 15:22:13.209899  9606 layer_factory.hpp:77] Creating layer Convolution20
I1005 15:22:13.209905  9606 net.cpp:84] Creating Layer Convolution20
I1005 15:22:13.209908  9606 net.cpp:406] Convolution20 <- Eltwise8_penlu17_0_split_0
I1005 15:22:13.209913  9606 net.cpp:380] Convolution20 -> Convolution20
I1005 15:22:13.211930  9606 net.cpp:122] Setting up Convolution20
I1005 15:22:13.211940  9606 net.cpp:129] Top shape: 100 64 8 8 (409600)
I1005 15:22:13.211942  9606 net.cpp:137] Memory required for data: 417383600
I1005 15:22:13.211947  9606 layer_factory.hpp:77] Creating layer BatchNorm20
I1005 15:22:13.211952  9606 net.cpp:84] Creating Layer BatchNorm20
I1005 15:22:13.211956  9606 net.cpp:406] BatchNorm20 <- Convolution20
I1005 15:22:13.211959  9606 net.cpp:367] BatchNorm20 -> Convolution20 (in-place)
I1005 15:22:13.212108  9606 net.cpp:122] Setting up BatchNorm20
I1005 15:22:13.212113  9606 net.cpp:129] Top shape: 100 64 8 8 (409600)
I1005 15:22:13.212116  9606 net.cpp:137] Memory required for data: 419022000
I1005 15:22:13.212121  9606 layer_factory.hpp:77] Creating layer Scale20
I1005 15:22:13.212124  9606 net.cpp:84] Creating Layer Scale20
I1005 15:22:13.212127  9606 net.cpp:406] Scale20 <- Convolution20
I1005 15:22:13.212132  9606 net.cpp:367] Scale20 -> Convolution20 (in-place)
I1005 15:22:13.212162  9606 layer_factory.hpp:77] Creating layer Scale20
I1005 15:22:13.212247  9606 net.cpp:122] Setting up Scale20
I1005 15:22:13.212251  9606 net.cpp:129] Top shape: 100 64 8 8 (409600)
I1005 15:22:13.212255  9606 net.cpp:137] Memory required for data: 420660400
I1005 15:22:13.212258  9606 layer_factory.hpp:77] Creating layer penlu18
I1005 15:22:13.212263  9606 net.cpp:84] Creating Layer penlu18
I1005 15:22:13.212266  9606 net.cpp:406] penlu18 <- Convolution20
I1005 15:22:13.212270  9606 net.cpp:367] penlu18 -> Convolution20 (in-place)
I1005 15:22:13.212385  9606 net.cpp:122] Setting up penlu18
I1005 15:22:13.212389  9606 net.cpp:129] Top shape: 100 64 8 8 (409600)
I1005 15:22:13.212393  9606 net.cpp:137] Memory required for data: 422298800
I1005 15:22:13.212396  9606 layer_factory.hpp:77] Creating layer Convolution21
I1005 15:22:13.212404  9606 net.cpp:84] Creating Layer Convolution21
I1005 15:22:13.212406  9606 net.cpp:406] Convolution21 <- Convolution20
I1005 15:22:13.212410  9606 net.cpp:380] Convolution21 -> Convolution21
I1005 15:22:13.214432  9606 net.cpp:122] Setting up Convolution21
I1005 15:22:13.214442  9606 net.cpp:129] Top shape: 100 64 8 8 (409600)
I1005 15:22:13.214444  9606 net.cpp:137] Memory required for data: 423937200
I1005 15:22:13.214448  9606 layer_factory.hpp:77] Creating layer BatchNorm21
I1005 15:22:13.214454  9606 net.cpp:84] Creating Layer BatchNorm21
I1005 15:22:13.214457  9606 net.cpp:406] BatchNorm21 <- Convolution21
I1005 15:22:13.214460  9606 net.cpp:367] BatchNorm21 -> Convolution21 (in-place)
I1005 15:22:13.214612  9606 net.cpp:122] Setting up BatchNorm21
I1005 15:22:13.214618  9606 net.cpp:129] Top shape: 100 64 8 8 (409600)
I1005 15:22:13.214620  9606 net.cpp:137] Memory required for data: 425575600
I1005 15:22:13.214625  9606 layer_factory.hpp:77] Creating layer Scale21
I1005 15:22:13.214629  9606 net.cpp:84] Creating Layer Scale21
I1005 15:22:13.214632  9606 net.cpp:406] Scale21 <- Convolution21
I1005 15:22:13.214635  9606 net.cpp:367] Scale21 -> Convolution21 (in-place)
I1005 15:22:13.230218  9606 layer_factory.hpp:77] Creating layer Scale21
I1005 15:22:13.230319  9606 net.cpp:122] Setting up Scale21
I1005 15:22:13.230324  9606 net.cpp:129] Top shape: 100 64 8 8 (409600)
I1005 15:22:13.230327  9606 net.cpp:137] Memory required for data: 427214000
I1005 15:22:13.230332  9606 layer_factory.hpp:77] Creating layer Eltwise9
I1005 15:22:13.230337  9606 net.cpp:84] Creating Layer Eltwise9
I1005 15:22:13.230340  9606 net.cpp:406] Eltwise9 <- Eltwise8_penlu17_0_split_1
I1005 15:22:13.230351  9606 net.cpp:406] Eltwise9 <- Convolution21
I1005 15:22:13.230356  9606 net.cpp:380] Eltwise9 -> Eltwise9
I1005 15:22:13.230377  9606 net.cpp:122] Setting up Eltwise9
I1005 15:22:13.230382  9606 net.cpp:129] Top shape: 100 64 8 8 (409600)
I1005 15:22:13.230384  9606 net.cpp:137] Memory required for data: 428852400
I1005 15:22:13.230387  9606 layer_factory.hpp:77] Creating layer penlu19
I1005 15:22:13.230393  9606 net.cpp:84] Creating Layer penlu19
I1005 15:22:13.230396  9606 net.cpp:406] penlu19 <- Eltwise9
I1005 15:22:13.230401  9606 net.cpp:367] penlu19 -> Eltwise9 (in-place)
I1005 15:22:13.230538  9606 net.cpp:122] Setting up penlu19
I1005 15:22:13.230545  9606 net.cpp:129] Top shape: 100 64 8 8 (409600)
I1005 15:22:13.230548  9606 net.cpp:137] Memory required for data: 430490800
I1005 15:22:13.230553  9606 layer_factory.hpp:77] Creating layer Pooling1
I1005 15:22:13.230559  9606 net.cpp:84] Creating Layer Pooling1
I1005 15:22:13.230562  9606 net.cpp:406] Pooling1 <- Eltwise9
I1005 15:22:13.230566  9606 net.cpp:380] Pooling1 -> Pooling1
I1005 15:22:13.230718  9606 net.cpp:122] Setting up Pooling1
I1005 15:22:13.230726  9606 net.cpp:129] Top shape: 100 64 1 1 (6400)
I1005 15:22:13.230729  9606 net.cpp:137] Memory required for data: 430516400
I1005 15:22:13.230732  9606 layer_factory.hpp:77] Creating layer InnerProduct1
I1005 15:22:13.230737  9606 net.cpp:84] Creating Layer InnerProduct1
I1005 15:22:13.230741  9606 net.cpp:406] InnerProduct1 <- Pooling1
I1005 15:22:13.230746  9606 net.cpp:380] InnerProduct1 -> InnerProduct1
I1005 15:22:13.230856  9606 net.cpp:122] Setting up InnerProduct1
I1005 15:22:13.230861  9606 net.cpp:129] Top shape: 100 10 (1000)
I1005 15:22:13.230865  9606 net.cpp:137] Memory required for data: 430520400
I1005 15:22:13.230868  9606 layer_factory.hpp:77] Creating layer InnerProduct1_InnerProduct1_0_split
I1005 15:22:13.230873  9606 net.cpp:84] Creating Layer InnerProduct1_InnerProduct1_0_split
I1005 15:22:13.230876  9606 net.cpp:406] InnerProduct1_InnerProduct1_0_split <- InnerProduct1
I1005 15:22:13.230880  9606 net.cpp:380] InnerProduct1_InnerProduct1_0_split -> InnerProduct1_InnerProduct1_0_split_0
I1005 15:22:13.230885  9606 net.cpp:380] InnerProduct1_InnerProduct1_0_split -> InnerProduct1_InnerProduct1_0_split_1
I1005 15:22:13.230914  9606 net.cpp:122] Setting up InnerProduct1_InnerProduct1_0_split
I1005 15:22:13.230919  9606 net.cpp:129] Top shape: 100 10 (1000)
I1005 15:22:13.230923  9606 net.cpp:129] Top shape: 100 10 (1000)
I1005 15:22:13.230926  9606 net.cpp:137] Memory required for data: 430528400
I1005 15:22:13.230927  9606 layer_factory.hpp:77] Creating layer SoftmaxWithLoss1
I1005 15:22:13.230931  9606 net.cpp:84] Creating Layer SoftmaxWithLoss1
I1005 15:22:13.230934  9606 net.cpp:406] SoftmaxWithLoss1 <- InnerProduct1_InnerProduct1_0_split_0
I1005 15:22:13.230938  9606 net.cpp:406] SoftmaxWithLoss1 <- Data2_Data1_1_split_0
…
