…
I1005 18:42:00.436403  9835 net.cpp:294] The NetState phase (0) differed from the phase (1) specified by a rule in layer Accuracy1
I1005 18:42:00.436785  9835 net.cpp:51] Initializing net from parameters: 
name: "resnet_cifar10"
state {
  phase: TRAIN
  level: 0
  stage: ""
}
layer {
  name: "Data1"
  type: "Data"
  top: "Data1"
  top: "Data2"
  include {
    phase: TRAIN
  }
  transform_param {
    mirror: true
    crop_size: 28
    mean_file: "/home/x306/caffe/xn/PENLU/data/cifar10/mean.binaryproto"
  }
  data_param {
    source: "/home/x306/caffe/xn/PENLU/data/cifar10/cifar10_train_lmdb"
    batch_size: 100
    backend: LMDB
  }
}
layer {
  name: "Convolution1"
  type: "Convolution"
  bottom: "Data1"
  top: "Convolution1"
  param {
    lr_mult: 1
    decay_mult: 1
  }
  param {
    lr_mult: 2
    decay_mult: 0
  }
  convolution_param {
    num_output: 16
    pad: 1
    kernel_size: 3
    stride: 1
    weight_filler {
      type: "gaussian"
      std: 0.118
    }
    bias_filler {
      type: "constant"
      value: 0
    }
  }
}
layer {
  name: "BatchNorm1"
  type: "BatchNorm"
  bottom: "Convolution1"
  top: "Convolution1"
  param {
    lr_mult: 0
    decay_mult: 0
  }
  param {
    lr_mult: 0
    decay_mult: 0
  }
  param {
    lr_mult: 0
    decay_mult: 0
  }
}
layer {
  name: "Scale1"
  type: "Scale"
  bottom: "Convolution1"
  top: "Convolution1"
  scale_param {
    bias_term: true
  }
}
layer {
  name: "elu1"
  type: "ELU"
  bottom: "Convolution1"
  top: "Convolution1"
  elu_param {
    alpha: 0.25
  }
}
layer {
  name: "Convolution2"
  type: "Convolution"
  bottom: "Convolution1"
  top: "Convolution2"
  param {
    lr_mult: 1
    decay_mult: 1
  }
  param {
    lr_mult: 2
    decay_mult: 0
  }
  convolution_param {
    num_output: 16
    pad: 1
    kernel_size: 3
    stride: 1
    weight_filler {
      type: "gaussian"
      std: 0.118
    }
    bias_filler {
      type: "constant"
      value: 0
    }
  }
}
layer {
  name: "BatchNorm2"
  type: "BatchNorm"
  bottom: "Convolution2"
  top: "Convolution2"
  param {
    lr_mult: 0
    decay_mult: 0
  }
  param {
    lr_mult: 0
    decay_mult: 0
  }
  param {
    lr_mult: 0
    decay_mult: 0
  }
}
layer {
  name: "Scale2"
  type: "Scale"
  bottom: "Convolution2"
  top: "Convolution2"
  scale_param {
    bias_term: true
  }
}
layer {
  name: "elu2"
  type: "ELU"
  bottom: "Convolution2"
  top: "Convolution2"
  elu_param {
    alpha: 0.25
  }
}
layer {
  name: "Convolution3"
  type: "Convolution"
  bottom: "Convolution2"
  top: "Convolution3"
  param {
    lr_mult: 1
    decay_mult: 1
  }
  param {
    lr_mult: 2
    decay_mult: 0
  }
  convolution_param {
    num_output: 16
    pad: 1
    kernel_size: 3
    stride: 1
    weight_filler {
      type: "gaussian"
      std: 0.118
    }
    bias_filler {
      type: "constant"
      value: 0
    }
  }
}
layer {
  name: "BatchNorm3"
  type: "BatchNorm"
  bottom: "Convolution3"
  top: "Convolution3"
  param {
    lr_mult: 0
    decay_mult: 0
  }
  param {
    lr_mult: 0
    decay_mult: 0
  }
  param {
    lr_mult: 0
    decay_mult: 0
  }
}
layer {
  name: "Scale3"
  type: "Scale"
  bottom: "Convolution3"
  top: "Convolution3"
  scale_param {
    bias_term: true
  }
}
layer {
  name: "Eltwise1"
  type: "Eltwise"
  bottom: "Convolution1"
  bottom: "Convolution3"
  top: "Eltwise1"
  eltwise_param {
    operation: SUM
  }
}
layer {
  name: "elu3"
  type: "ELU"
  bottom: "Eltwise1"
  top: "Eltwise1"
  elu_param {
    alpha: 0.25
  }
}
layer {
  name: "Convolution4"
  type: "Convolution"
  bottom: "Eltwise1"
  top: "Convolution4"
  param {
    lr_mult: 1
    decay_mult: 1
  }
  param {
    lr_mult: 2
    decay_mult: 0
  }
  convolution_param {
    num_output: 16
    pad: 1
    kernel_size: 3
    stride: 1
    weight_filler {
      type: "gaussian"
      std: 0.118
    }
    bias_filler {
      type: "constant"
      value: 0
    }
  }
}
layer {
  name: "BatchNorm4"
  type: "BatchNorm"
  bottom: "Convolution4"
  top: "Convolution4"
  param {
    lr_mult: 0
    decay_mult: 0
  }
  param {
    lr_mult: 0
    decay_mult: 0
  }
  param {
    lr_mult: 0
    decay_mult: 0
  }
}
layer {
  name: "Scale4"
  type: "Scale"
  bottom: "Convolution4"
  top: "Convolution4"
  scale_param {
    bias_term: true
  }
}
layer {
  name: "elu4"
  type: "ELU"
  bottom: "Convolution4"
  top: "Convolution4"
  elu_param {
    alpha: 0.25
  }
}
layer {
  name: "Convolution5"
  type: "Convolution"
  bottom: "Convolution4"
  top: "Convolution5"
  param {
    lr_mult: 1
    decay_mult: 1
  }
  param {
    lr_mult: 2
    decay_mult: 0
  }
  convolution_param {
    num_output: 16
    pad: 1
    kernel_size: 3
    stride: 1
    weight_filler {
      type: "gaussian"
      std: 0.118
    }
    bias_filler {
      type: "constant"
      value: 0
    }
  }
}
layer {
  name: "BatchNorm5"
  type: "BatchNorm"
  bottom: "Convolution5"
  top: "Convolution5"
  param {
    lr_mult: 0
    decay_mult: 0
  }
  param {
    lr_mult: 0
    decay_mult: 0
  }
  param {
    lr_mult: 0
    decay_mult: 0
  }
}
layer {
  name: "Scale5"
  type: "Scale"
  bottom: "Convolution5"
  top: "Convolution5"
  scale_param {
    bias_term: true
  }
}
layer {
  name: "Eltwise2"
  type: "Eltwise"
  bottom: "Eltwise1"
  bottom: "Convolution5"
  top: "Eltwise2"
  eltwise_param {
    operation: SUM
  }
}
layer {
  name: "elu5"
  type: "ELU"
  bottom: "Eltwise2"
  top: "Eltwise2"
  elu_param {
    alpha: 0.25
  }
}
layer {
  name: "Convolution6"
  type: "Convolution"
  bottom: "Eltwise2"
  top: "Convolution6"
  param {
    lr_mult: 1
    decay_mult: 1
  }
  param {
    lr_mult: 2
    decay_mult: 0
  }
  convolution_param {
    num_output: 16
    pad: 1
    kernel_size: 3
    stride: 1
    weight_filler {
      type: "gaussian"
      std: 0.118
    }
    bias_filler {
      type: "constant"
      value: 0
    }
  }
}
layer {
  name: "BatchNorm6"
  type: "BatchNorm"
  bottom: "Convolution6"
  top: "Convolution6"
  param {
    lr_mult: 0
    decay_mult: 0
  }
  param {
    lr_mult: 0
    decay_mult: 0
  }
  param {
    lr_mult: 0
    decay_mult: 0
  }
}
layer {
  name: "Scale6"
  type: "Scale"
  bottom: "Convolution6"
  top: "Convolution6"
  scale_param {
    bias_term: true
  }
}
layer {
  name: "elu6"
  type: "ELU"
  bottom: "Convolution6"
  top: "Convolution6"
  elu_param {
    alpha: 0.25
  }
}
layer {
  name: "Convolution7"
  type: "Convolution"
  bottom: "Convolution6"
  top: "Convolution7"
  param {
    lr_mult: 1
    decay_mult: 1
  }
  param {
    lr_mult: 2
    decay_mult: 0
  }
  convolution_param {
    num_output: 16
    pad: 1
    kernel_size: 3
    stride: 1
    weight_filler {
      type: "gaussian"
      std: 0.118
    }
    bias_filler {
      type: "constant"
      value: 0
    }
  }
}
layer {
  name: "BatchNorm7"
  type: "BatchNorm"
  bottom: "Convolution7"
  top: "Convolution7"
  param {
    lr_mult: 0
    decay_mult: 0
  }
  param {
    lr_mult: 0
    decay_mult: 0
  }
  param {
    lr_mult: 0
    decay_mult: 0
  }
}
layer {
  name: "Scale7"
  type: "Scale"
  bottom: "Convolution7"
  top: "Convolution7"
  scale_param {
    bias_term: true
  }
}
layer {
  name: "Eltwise3"
  type: "Eltwise"
  bottom: "Eltwise2"
  bottom: "Convolution7"
  top: "Eltwise3"
  eltwise_param {
    operation: SUM
  }
}
layer {
  name: "elu7"
  type: "ELU"
  bottom: "Eltwise3"
  top: "Eltwise3"
  elu_param {
    alpha: 0.25
  }
}
layer {
  name: "Convolution8"
  type: "Convolution"
  bottom: "Eltwise3"
  top: "Convolution8"
  param {
    lr_mult: 1
    decay_mult: 1
  }
  param {
    lr_mult: 2
    decay_mult: 0
  }
  convolution_param {
    num_output: 32
    pad: 0
    kernel_size: 1
    stride: 2
    weight_filler {
      type: "gaussian"
      std: 0.25
    }
    bias_filler {
      type: "constant"
      value: 0
    }
  }
}
layer {
  name: "BatchNorm8"
  type: "BatchNorm"
  bottom: "Convolution8"
  top: "Convolution8"
  param {
    lr_mult: 0
    decay_mult: 0
  }
  param {
    lr_mult: 0
    decay_mult: 0
  }
  param {
    lr_mult: 0
    decay_mult: 0
  }
}
layer {
  name: "Scale8"
  type: "Scale"
  bottom: "Convolution8"
  top: "Convolution8"
  scale_param {
    bias_term: true
  }
}
layer {
  name: "Convolution9"
  type: "Convolution"
  bottom: "Eltwise3"
  top: "Convolution9"
  param {
    lr_mult: 1
    decay_mult: 1
  }
  param {
    lr_mult: 2
    decay_mult: 0
  }
  convolution_param {
    num_output: 32
    pad: 1
    kernel_size: 3
    stride: 2
    weight_filler {
      type: "gaussian"
      std: 0.083
    }
    bias_filler {
      type: "constant"
      value: 0
    }
  }
}
layer {
  name: "BatchNorm9"
  type: "BatchNorm"
  bottom: "Convolution9"
  top: "Convolution9"
  param {
    lr_mult: 0
    decay_mult: 0
  }
  param {
    lr_mult: 0
    decay_mult: 0
  }
  param {
    lr_mult: 0
    decay_mult: 0
  }
}
layer {
  name: "Scale9"
  type: "Scale"
  bottom: "Convolution9"
  top: "Convolution9"
  scale_param {
    bias_term: true
  }
}
layer {
  name: "elu8"
  type: "ELU"
  bottom: "Convolution9"
  top: "Convolution9"
  elu_param {
    alpha: 0.25
  }
}
layer {
  name: "Convolution10"
  type: "Convolution"
  bottom: "Convolution9"
  top: "Convolution10"
  param {
    lr_mult: 1
    decay_mult: 1
  }
  param {
    lr_mult: 2
    decay_mult: 0
  }
  convolution_param {
    num_output: 32
    pad: 1
    kernel_size: 3
    stride: 1
    weight_filler {
      type: "gaussian"
      std: 0.083
    }
    bias_filler {
      type: "constant"
      value: 0
    }
  }
}
layer {
  name: "BatchNorm10"
  type: "BatchNorm"
  bottom: "Convolution10"
  top: "Convolution10"
  param {
    lr_mult: 0
    decay_mult: 0
  }
  param {
    lr_mult: 0
    decay_mult: 0
  }
  param {
    lr_mult: 0
    decay_mult: 0
  }
}
layer {
  name: "Scale10"
  type: "Scale"
  bottom: "Convolution10"
  top: "Convolution10"
  scale_param {
    bias_term: true
  }
}
layer {
  name: "Eltwise4"
  type: "Eltwise"
  bottom: "Convolution8"
  bottom: "Convolution10"
  top: "Eltwise4"
  eltwise_param {
    operation: SUM
  }
}
layer {
  name: "elu9"
  type: "ELU"
  bottom: "Eltwise4"
  top: "Eltwise4"
  elu_param {
    alpha: 0.25
  }
}
layer {
  name: "Convolution11"
  type: "Convolution"
  bottom: "Eltwise4"
  top: "Convolution11"
  param {
    lr_mult: 1
    decay_mult: 1
  }
  param {
    lr_mult: 2
    decay_mult: 0
  }
  convolution_param {
    num_output: 32
    pad: 1
    kernel_size: 3
    stride: 1
    weight_filler {
      type: "gaussian"
      std: 0.083
    }
    bias_filler {
      type: "constant"
      value: 0
    }
  }
}
layer {
  name: "BatchNorm11"
  type: "BatchNorm"
  bottom: "Convolution11"
  top: "Convolution11"
  param {
    lr_mult: 0
    decay_mult: 0
  }
  param {
    lr_mult: 0
    decay_mult: 0
  }
  param {
    lr_mult: 0
    decay_mult: 0
  }
}
layer {
  name: "Scale11"
  type: "Scale"
  bottom: "Convolution11"
  top: "Convolution11"
  scale_param {
    bias_term: true
  }
}
layer {
  name: "elu10"
  type: "ELU"
  bottom: "Convolution11"
  top: "Convolution11"
  elu_param {
    alpha: 0.25
  }
}
layer {
  name: "Convolution12"
  type: "Convolution"
  bottom: "Convolution11"
  top: "Convolution12"
  param {
    lr_mult: 1
    decay_mult: 1
  }
  param {
    lr_mult: 2
    decay_mult: 0
  }
  convolution_param {
    num_output: 32
    pad: 1
    kernel_size: 3
    stride: 1
    weight_filler {
      type: "gaussian"
      std: 0.083
    }
    bias_filler {
      type: "constant"
      value: 0
    }
  }
}
layer {
  name: "BatchNorm12"
  type: "BatchNorm"
  bottom: "Convolution12"
  top: "Convolution12"
  param {
    lr_mult: 0
    decay_mult: 0
  }
  param {
    lr_mult: 0
    decay_mult: 0
  }
  param {
    lr_mult: 0
    decay_mult: 0
  }
}
layer {
  name: "Scale12"
  type: "Scale"
  bottom: "Convolution12"
  top: "Convolution12"
  scale_param {
    bias_term: true
  }
}
layer {
  name: "Eltwise5"
  type: "Eltwise"
  bottom: "Eltwise4"
  bottom: "Convolution12"
  top: "Eltwise5"
  eltwise_param {
    operation: SUM
  }
}
layer {
  name: "elu11"
  type: "ELU"
  bottom: "Eltwise5"
  top: "Eltwise5"
  elu_param {
    alpha: 0.25
  }
}
layer {
  name: "Convolution13"
  type: "Convolution"
  bottom: "Eltwise5"
  top: "Convolution13"
  param {
    lr_mult: 1
    decay_mult: 1
  }
  param {
    lr_mult: 2
    decay_mult: 0
  }
  convolution_param {
    num_output: 32
    pad: 1
    kernel_size: 3
    stride: 1
    weight_filler {
      type: "gaussian"
      std: 0.083
    }
    bias_filler {
      type: "constant"
      value: 0
    }
  }
}
layer {
  name: "BatchNorm13"
  type: "BatchNorm"
  bottom: "Convolution13"
  top: "Convolution13"
  param {
    lr_mult: 0
    decay_mult: 0
  }
  param {
    lr_mult: 0
    decay_mult: 0
  }
  param {
    lr_mult: 0
    decay_mult: 0
  }
}
layer {
  name: "Scale13"
  type: "Scale"
  bottom: "Convolution13"
  top: "Convolution13"
  scale_param {
    bias_term: true
  }
}
layer {
  name: "elu12"
  type: "ELU"
  bottom: "Convolution13"
  top: "Convolution13"
  elu_param {
    alpha: 0.25
  }
}
layer {
  name: "Convolution14"
  type: "Convolution"
  bottom: "Convolution13"
  top: "Convolution14"
  param {
    lr_mult: 1
    decay_mult: 1
  }
  param {
    lr_mult: 2
    decay_mult: 0
  }
  convolution_param {
    num_output: 32
    pad: 1
    kernel_size: 3
    stride: 1
    weight_filler {
      type: "gaussian"
      std: 0.083
    }
    bias_filler {
      type: "constant"
      value: 0
    }
  }
}
layer {
  name: "BatchNorm14"
  type: "BatchNorm"
  bottom: "Convolution14"
  top: "Convolution14"
  param {
    lr_mult: 0
    decay_mult: 0
  }
  param {
    lr_mult: 0
    decay_mult: 0
  }
  param {
    lr_mult: 0
    decay_mult: 0
  }
}
layer {
  name: "Scale14"
  type: "Scale"
  bottom: "Convolution14"
  top: "Convolution14"
  scale_param {
    bias_term: true
  }
}
layer {
  name: "Eltwise6"
  type: "Eltwise"
  bottom: "Eltwise5"
  bottom: "Convolution14"
  top: "Eltwise6"
  eltwise_param {
    operation: SUM
  }
}
layer {
  name: "elu13"
  type: "ELU"
  bottom: "Eltwise6"
  top: "Eltwise6"
  elu_param {
    alpha: 0.25
  }
}
layer {
  name: "Convolution15"
  type: "Convolution"
  bottom: "Eltwise6"
  top: "Convolution15"
  param {
    lr_mult: 1
    decay_mult: 1
  }
  param {
    lr_mult: 2
    decay_mult: 0
  }
  convolution_param {
    num_output: 64
    pad: 0
    kernel_size: 1
    stride: 2
    weight_filler {
      type: "gaussian"
      std: 0.17677669
    }
    bias_filler {
      type: "constant"
      value: 0
    }
  }
}
layer {
  name: "BatchNorm15"
  type: "BatchNorm"
  bottom: "Convolution15"
  top: "Convolution15"
  param {
    lr_mult: 0
    decay_mult: 0
  }
  param {
    lr_mult: 0
    decay_mult: 0
  }
  param {
    lr_mult: 0
    decay_mult: 0
  }
}
layer {
  name: "Scale15"
  type: "Scale"
  bottom: "Convolution15"
  top: "Convolution15"
  scale_param {
    bias_term: true
  }
}
layer {
  name: "Convolution16"
  type: "Convolution"
  bottom: "Eltwise6"
  top: "Convolution16"
  param {
    lr_mult: 1
    decay_mult: 1
  }
  param {
    lr_mult: 2
    decay_mult: 0
  }
  convolution_param {
    num_output: 64
    pad: 1
    kernel_size: 3
    stride: 2
    weight_filler {
      type: "gaussian"
      std: 0.059
    }
    bias_filler {
      type: "constant"
      value: 0
    }
  }
}
layer {
  name: "BatchNorm16"
  type: "BatchNorm"
  bottom: "Convolution16"
  top: "Convolution16"
  param {
    lr_mult: 0
    decay_mult: 0
  }
  param {
    lr_mult: 0
    decay_mult: 0
  }
  param {
    lr_mult: 0
    decay_mult: 0
  }
}
layer {
  name: "Scale16"
  type: "Scale"
  bottom: "Convolution16"
  top: "Convolution16"
  scale_param {
    bias_term: true
  }
}
layer {
  name: "elu14"
  type: "ELU"
  bottom: "Convolution16"
  top: "Convolution16"
  elu_param {
    alpha: 0.25
  }
}
layer {
  name: "Convolution17"
  type: "Convolution"
  bottom: "Convolution16"
  top: "Convolution17"
  param {
    lr_mult: 1
    decay_mult: 1
  }
  param {
    lr_mult: 2
    decay_mult: 0
  }
  convolution_param {
    num_output: 64
    pad: 1
    kernel_size: 3
    stride: 1
    weight_filler {
      type: "gaussian"
      std: 0.059
    }
    bias_filler {
      type: "constant"
      value: 0
    }
  }
}
layer {
  name: "BatchNorm17"
  type: "BatchNorm"
  bottom: "Convolution17"
  top: "Convolution17"
  param {
    lr_mult: 0
    decay_mult: 0
  }
  param {
    lr_mult: 0
    decay_mult: 0
  }
  param {
    lr_mult: 0
    decay_mult: 0
  }
}
layer {
  name: "Scale17"
  type: "Scale"
  bottom: "Convolution17"
  top: "Convolution17"
  scale_param {
    bias_term: true
  }
}
layer {
  name: "Eltwise7"
  type: "Eltwise"
  bottom: "Convolution15"
  bottom: "Convolution17"
  top: "Eltwise7"
  eltwise_param {
    operation: SUM
  }
}
layer {
  name: "elu15"
  type: "ELU"
  bottom: "Eltwise7"
  top: "Eltwise7"
  elu_param {
    alpha: 0.25
  }
}
layer {
  name: "Convolution18"
  type: "Convolution"
  bottom: "Eltwise7"
  top: "Convolution18"
  param {
    lr_mult: 1
    decay_mult: 1
  }
  param {
    lr_mult: 2
    decay_mult: 0
  }
  convolution_param {
    num_output: 64
    pad: 1
    kernel_size: 3
    stride: 1
    weight_filler {
      type: "gaussian"
      std: 0.059
    }
    bias_filler {
      type: "constant"
      value: 0
    }
  }
}
layer {
  name: "BatchNorm18"
  type: "BatchNorm"
  bottom: "Convolution18"
  top: "Convolution18"
  param {
    lr_mult: 0
    decay_mult: 0
  }
  param {
    lr_mult: 0
    decay_mult: 0
  }
  param {
    lr_mult: 0
    decay_mult: 0
  }
}
layer {
  name: "Scale18"
  type: "Scale"
  bottom: "Convolution18"
  top: "Convolution18"
  scale_param {
    bias_term: true
  }
}
layer {
  name: "elu16"
  type: "ELU"
  bottom: "Convolution18"
  top: "Convolution18"
  elu_param {
    alpha: 0.25
  }
}
layer {
  name: "Convolution19"
  type: "Convolution"
  bottom: "Convolution18"
  top: "Convolution19"
  param {
    lr_mult: 1
    decay_mult: 1
  }
  param {
    lr_mult: 2
    decay_mult: 0
  }
  convolution_param {
    num_output: 64
    pad: 1
    kernel_size: 3
    stride: 1
    weight_filler {
      type: "gaussian"
      std: 0.059
    }
    bias_filler {
      type: "constant"
      value: 0
    }
  }
}
layer {
  name: "BatchNorm19"
  type: "BatchNorm"
  bottom: "Convolution19"
  top: "Convolution19"
  param {
    lr_mult: 0
    decay_mult: 0
  }
  param {
    lr_mult: 0
    decay_mult: 0
  }
  param {
    lr_mult: 0
    decay_mult: 0
  }
}
layer {
  name: "Scale19"
  type: "Scale"
  bottom: "Convolution19"
  top: "Convolution19"
  scale_param {
    bias_term: true
  }
}
layer {
  name: "Eltwise8"
  type: "Eltwise"
  bottom: "Eltwise7"
  bottom: "Convolution19"
  top: "Eltwise8"
  eltwise_param {
    operation: SUM
  }
}
layer {
  name: "elu17"
  type: "ELU"
  bottom: "Eltwise8"
  top: "Eltwise8"
  elu_param {
    alpha: 0.25
  }
}
layer {
  name: "Convolution20"
  type: "Convolution"
  bottom: "Eltwise8"
  top: "Convolution20"
  param {
    lr_mult: 1
    decay_mult: 1
  }
  param {
    lr_mult: 2
    decay_mult: 0
  }
  convolution_param {
    num_output: 64
    pad: 1
    kernel_size: 3
    stride: 1
    weight_filler {
      type: "gaussian"
      std: 0.059
    }
    bias_filler {
      type: "constant"
      value: 0
    }
  }
}
layer {
  name: "BatchNorm20"
  type: "BatchNorm"
  bottom: "Convolution20"
  top: "Convolution20"
  param {
    lr_mult: 0
    decay_mult: 0
  }
  param {
    lr_mult: 0
    decay_mult: 0
  }
  param {
    lr_mult: 0
    decay_mult: 0
  }
}
layer {
  name: "Scale20"
  type: "Scale"
  bottom: "Convolution20"
  top: "Convolution20"
  scale_param {
    bias_term: true
  }
}
layer {
  name: "elu18"
  type: "ELU"
  bottom: "Convolution20"
  top: "Convolution20"
  elu_param {
    alpha: 0.25
  }
}
layer {
  name: "Convolution21"
  type: "Convolution"
  bottom: "Convolution20"
  top: "Convolution21"
  param {
    lr_mult: 1
    decay_mult: 1
  }
  param {
    lr_mult: 2
    decay_mult: 0
  }
  convolution_param {
    num_output: 64
    pad: 1
    kernel_size: 3
    stride: 1
    weight_filler {
      type: "gaussian"
      std: 0.059
    }
    bias_filler {
      type: "constant"
      value: 0
    }
  }
}
layer {
  name: "BatchNorm21"
  type: "BatchNorm"
  bottom: "Convolution21"
  top: "Convolution21"
  param {
    lr_mult: 0
    decay_mult: 0
  }
  param {
    lr_mult: 0
    decay_mult: 0
  }
  param {
    lr_mult: 0
    decay_mult: 0
  }
}
layer {
  name: "Scale21"
  type: "Scale"
  bottom: "Convolution21"
  top: "Convolution21"
  scale_param {
    bias_term: true
  }
}
layer {
  name: "Eltwise9"
  type: "Eltwise"
  bottom: "Eltwise8"
  bottom: "Convolution21"
  top: "Eltwise9"
  eltwise_param {
    operation: SUM
  }
}
layer {
  name: "elu19"
  type: "ELU"
  bottom: "Eltwise9"
  top: "Eltwise9"
  elu_param {
    alpha: 0.25
  }
}
layer {
  name: "Pooling1"
  type: "Pooling"
  bottom: "Eltwise9"
  top: "Pooling1"
  pooling_param {
    pool: AVE
    global_pooling: true
  }
}
layer {
  name: "InnerProduct1"
  type: "InnerProduct"
  bottom: "Pooling1"
  top: "InnerProduct1"
  param {
    lr_mult: 1
    decay_mult: 1
  }
  param {
    lr_mult: 2
    decay_mult: 1
  }
  inner_product_param {
    num_output: 10
    weight_filler {
      type: "gaussian"
      std: 0.01
    }
    bias_filler {
      type: "constant"
      value: 0
    }
  }
}
layer {
  name: "SoftmaxWithLoss1"
  type: "SoftmaxWithLoss"
  bottom: "InnerProduct1"
  bottom: "Data2"
  top: "SoftmaxWithLoss1"
}
I1005 18:42:00.437110  9835 layer_factory.hpp:77] Creating layer Data1
I1005 18:42:00.437188  9835 db_lmdb.cpp:35] Opened lmdb /home/x306/caffe/xn/PENLU/data/cifar10/cifar10_train_lmdb
I1005 18:42:00.437207  9835 net.cpp:84] Creating Layer Data1
I1005 18:42:00.437213  9835 net.cpp:380] Data1 -> Data1
I1005 18:42:00.437232  9835 net.cpp:380] Data1 -> Data2
I1005 18:42:00.437242  9835 data_transformer.cpp:25] Loading mean file from: /home/x306/caffe/xn/PENLU/data/cifar10/mean.binaryproto
I1005 18:42:00.438650  9835 data_layer.cpp:45] output data size: 100,3,28,28
I1005 18:42:00.440922  9835 net.cpp:122] Setting up Data1
I1005 18:42:00.440937  9835 net.cpp:129] Top shape: 100 3 28 28 (235200)
I1005 18:42:00.440940  9835 net.cpp:129] Top shape: 100 (100)
I1005 18:42:00.440953  9835 net.cpp:137] Memory required for data: 941200
I1005 18:42:00.440958  9835 layer_factory.hpp:77] Creating layer Convolution1
I1005 18:42:00.440985  9835 net.cpp:84] Creating Layer Convolution1
I1005 18:42:00.440990  9835 net.cpp:406] Convolution1 <- Data1
I1005 18:42:00.441009  9835 net.cpp:380] Convolution1 -> Convolution1
I1005 18:42:00.587136  9835 net.cpp:122] Setting up Convolution1
I1005 18:42:00.587160  9835 net.cpp:129] Top shape: 100 16 28 28 (1254400)
I1005 18:42:00.587164  9835 net.cpp:137] Memory required for data: 5958800
I1005 18:42:00.587179  9835 layer_factory.hpp:77] Creating layer BatchNorm1
I1005 18:42:00.587199  9835 net.cpp:84] Creating Layer BatchNorm1
I1005 18:42:00.587203  9835 net.cpp:406] BatchNorm1 <- Convolution1
I1005 18:42:00.587220  9835 net.cpp:367] BatchNorm1 -> Convolution1 (in-place)
I1005 18:42:00.587397  9835 net.cpp:122] Setting up BatchNorm1
I1005 18:42:00.587405  9835 net.cpp:129] Top shape: 100 16 28 28 (1254400)
I1005 18:42:00.587417  9835 net.cpp:137] Memory required for data: 10976400
I1005 18:42:00.587425  9835 layer_factory.hpp:77] Creating layer Scale1
I1005 18:42:00.587438  9835 net.cpp:84] Creating Layer Scale1
I1005 18:42:00.587445  9835 net.cpp:406] Scale1 <- Convolution1
I1005 18:42:00.587472  9835 net.cpp:367] Scale1 -> Convolution1 (in-place)
I1005 18:42:00.587532  9835 layer_factory.hpp:77] Creating layer Scale1
I1005 18:42:00.587638  9835 net.cpp:122] Setting up Scale1
I1005 18:42:00.587644  9835 net.cpp:129] Top shape: 100 16 28 28 (1254400)
I1005 18:42:00.587647  9835 net.cpp:137] Memory required for data: 15994000
I1005 18:42:00.587651  9835 layer_factory.hpp:77] Creating layer elu1
I1005 18:42:00.587659  9835 net.cpp:84] Creating Layer elu1
I1005 18:42:00.587662  9835 net.cpp:406] elu1 <- Convolution1
I1005 18:42:00.587676  9835 net.cpp:367] elu1 -> Convolution1 (in-place)
I1005 18:42:00.587683  9835 net.cpp:122] Setting up elu1
I1005 18:42:00.587703  9835 net.cpp:129] Top shape: 100 16 28 28 (1254400)
I1005 18:42:00.587707  9835 net.cpp:137] Memory required for data: 21011600
I1005 18:42:00.587723  9835 layer_factory.hpp:77] Creating layer Convolution1_elu1_0_split
I1005 18:42:00.587729  9835 net.cpp:84] Creating Layer Convolution1_elu1_0_split
I1005 18:42:00.587733  9835 net.cpp:406] Convolution1_elu1_0_split <- Convolution1
I1005 18:42:00.587735  9835 net.cpp:380] Convolution1_elu1_0_split -> Convolution1_elu1_0_split_0
I1005 18:42:00.587740  9835 net.cpp:380] Convolution1_elu1_0_split -> Convolution1_elu1_0_split_1
I1005 18:42:00.587788  9835 net.cpp:122] Setting up Convolution1_elu1_0_split
I1005 18:42:00.587795  9835 net.cpp:129] Top shape: 100 16 28 28 (1254400)
I1005 18:42:00.587798  9835 net.cpp:129] Top shape: 100 16 28 28 (1254400)
I1005 18:42:00.587800  9835 net.cpp:137] Memory required for data: 31046800
I1005 18:42:00.587802  9835 layer_factory.hpp:77] Creating layer Convolution2
I1005 18:42:00.587810  9835 net.cpp:84] Creating Layer Convolution2
I1005 18:42:00.587812  9835 net.cpp:406] Convolution2 <- Convolution1_elu1_0_split_0
I1005 18:42:00.587826  9835 net.cpp:380] Convolution2 -> Convolution2
I1005 18:42:00.588680  9835 net.cpp:122] Setting up Convolution2
I1005 18:42:00.588690  9835 net.cpp:129] Top shape: 100 16 28 28 (1254400)
I1005 18:42:00.588703  9835 net.cpp:137] Memory required for data: 36064400
I1005 18:42:00.588712  9835 layer_factory.hpp:77] Creating layer BatchNorm2
I1005 18:42:00.588734  9835 net.cpp:84] Creating Layer BatchNorm2
I1005 18:42:00.588752  9835 net.cpp:406] BatchNorm2 <- Convolution2
I1005 18:42:00.588757  9835 net.cpp:367] BatchNorm2 -> Convolution2 (in-place)
I1005 18:42:00.588902  9835 net.cpp:122] Setting up BatchNorm2
I1005 18:42:00.588908  9835 net.cpp:129] Top shape: 100 16 28 28 (1254400)
I1005 18:42:00.588912  9835 net.cpp:137] Memory required for data: 41082000
I1005 18:42:00.588917  9835 layer_factory.hpp:77] Creating layer Scale2
I1005 18:42:00.588922  9835 net.cpp:84] Creating Layer Scale2
I1005 18:42:00.588924  9835 net.cpp:406] Scale2 <- Convolution2
I1005 18:42:00.588927  9835 net.cpp:367] Scale2 -> Convolution2 (in-place)
I1005 18:42:00.588977  9835 layer_factory.hpp:77] Creating layer Scale2
I1005 18:42:00.589074  9835 net.cpp:122] Setting up Scale2
I1005 18:42:00.589082  9835 net.cpp:129] Top shape: 100 16 28 28 (1254400)
I1005 18:42:00.589083  9835 net.cpp:137] Memory required for data: 46099600
I1005 18:42:00.589087  9835 layer_factory.hpp:77] Creating layer elu2
I1005 18:42:00.589092  9835 net.cpp:84] Creating Layer elu2
I1005 18:42:00.589094  9835 net.cpp:406] elu2 <- Convolution2
I1005 18:42:00.589097  9835 net.cpp:367] elu2 -> Convolution2 (in-place)
I1005 18:42:00.589112  9835 net.cpp:122] Setting up elu2
I1005 18:42:00.589114  9835 net.cpp:129] Top shape: 100 16 28 28 (1254400)
I1005 18:42:00.589118  9835 net.cpp:137] Memory required for data: 51117200
I1005 18:42:00.589123  9835 layer_factory.hpp:77] Creating layer Convolution3
I1005 18:42:00.589133  9835 net.cpp:84] Creating Layer Convolution3
I1005 18:42:00.589138  9835 net.cpp:406] Convolution3 <- Convolution2
I1005 18:42:00.589151  9835 net.cpp:380] Convolution3 -> Convolution3
I1005 18:42:00.589984  9835 net.cpp:122] Setting up Convolution3
I1005 18:42:00.589994  9835 net.cpp:129] Top shape: 100 16 28 28 (1254400)
I1005 18:42:00.589998  9835 net.cpp:137] Memory required for data: 56134800
I1005 18:42:00.590008  9835 layer_factory.hpp:77] Creating layer BatchNorm3
I1005 18:42:00.590024  9835 net.cpp:84] Creating Layer BatchNorm3
I1005 18:42:00.590026  9835 net.cpp:406] BatchNorm3 <- Convolution3
I1005 18:42:00.590030  9835 net.cpp:367] BatchNorm3 -> Convolution3 (in-place)
I1005 18:42:00.590174  9835 net.cpp:122] Setting up BatchNorm3
I1005 18:42:00.590179  9835 net.cpp:129] Top shape: 100 16 28 28 (1254400)
I1005 18:42:00.590181  9835 net.cpp:137] Memory required for data: 61152400
I1005 18:42:00.590188  9835 layer_factory.hpp:77] Creating layer Scale3
I1005 18:42:00.590193  9835 net.cpp:84] Creating Layer Scale3
I1005 18:42:00.590195  9835 net.cpp:406] Scale3 <- Convolution3
I1005 18:42:00.590198  9835 net.cpp:367] Scale3 -> Convolution3 (in-place)
I1005 18:42:00.590255  9835 layer_factory.hpp:77] Creating layer Scale3
I1005 18:42:00.590350  9835 net.cpp:122] Setting up Scale3
I1005 18:42:00.590355  9835 net.cpp:129] Top shape: 100 16 28 28 (1254400)
I1005 18:42:00.590358  9835 net.cpp:137] Memory required for data: 66170000
I1005 18:42:00.590361  9835 layer_factory.hpp:77] Creating layer Eltwise1
I1005 18:42:00.590365  9835 net.cpp:84] Creating Layer Eltwise1
I1005 18:42:00.590368  9835 net.cpp:406] Eltwise1 <- Convolution1_elu1_0_split_1
I1005 18:42:00.590371  9835 net.cpp:406] Eltwise1 <- Convolution3
I1005 18:42:00.590374  9835 net.cpp:380] Eltwise1 -> Eltwise1
I1005 18:42:00.590400  9835 net.cpp:122] Setting up Eltwise1
I1005 18:42:00.590415  9835 net.cpp:129] Top shape: 100 16 28 28 (1254400)
I1005 18:42:00.590416  9835 net.cpp:137] Memory required for data: 71187600
I1005 18:42:00.590418  9835 layer_factory.hpp:77] Creating layer elu3
I1005 18:42:00.590422  9835 net.cpp:84] Creating Layer elu3
I1005 18:42:00.590425  9835 net.cpp:406] elu3 <- Eltwise1
I1005 18:42:00.590427  9835 net.cpp:367] elu3 -> Eltwise1 (in-place)
I1005 18:42:00.590442  9835 net.cpp:122] Setting up elu3
I1005 18:42:00.590445  9835 net.cpp:129] Top shape: 100 16 28 28 (1254400)
I1005 18:42:00.590447  9835 net.cpp:137] Memory required for data: 76205200
I1005 18:42:00.590450  9835 layer_factory.hpp:77] Creating layer Eltwise1_elu3_0_split
I1005 18:42:00.590462  9835 net.cpp:84] Creating Layer Eltwise1_elu3_0_split
I1005 18:42:00.590464  9835 net.cpp:406] Eltwise1_elu3_0_split <- Eltwise1
I1005 18:42:00.590467  9835 net.cpp:380] Eltwise1_elu3_0_split -> Eltwise1_elu3_0_split_0
I1005 18:42:00.590482  9835 net.cpp:380] Eltwise1_elu3_0_split -> Eltwise1_elu3_0_split_1
I1005 18:42:00.590526  9835 net.cpp:122] Setting up Eltwise1_elu3_0_split
I1005 18:42:00.590533  9835 net.cpp:129] Top shape: 100 16 28 28 (1254400)
I1005 18:42:00.590535  9835 net.cpp:129] Top shape: 100 16 28 28 (1254400)
I1005 18:42:00.590553  9835 net.cpp:137] Memory required for data: 86240400
I1005 18:42:00.590555  9835 layer_factory.hpp:77] Creating layer Convolution4
I1005 18:42:00.590571  9835 net.cpp:84] Creating Layer Convolution4
I1005 18:42:00.590574  9835 net.cpp:406] Convolution4 <- Eltwise1_elu3_0_split_0
I1005 18:42:00.590579  9835 net.cpp:380] Convolution4 -> Convolution4
I1005 18:42:00.591414  9835 net.cpp:122] Setting up Convolution4
I1005 18:42:00.591424  9835 net.cpp:129] Top shape: 100 16 28 28 (1254400)
I1005 18:42:00.591428  9835 net.cpp:137] Memory required for data: 91258000
I1005 18:42:00.591434  9835 layer_factory.hpp:77] Creating layer BatchNorm4
I1005 18:42:00.591439  9835 net.cpp:84] Creating Layer BatchNorm4
I1005 18:42:00.591442  9835 net.cpp:406] BatchNorm4 <- Convolution4
I1005 18:42:00.591446  9835 net.cpp:367] BatchNorm4 -> Convolution4 (in-place)
I1005 18:42:00.591559  9835 net.cpp:122] Setting up BatchNorm4
I1005 18:42:00.591565  9835 net.cpp:129] Top shape: 100 16 28 28 (1254400)
I1005 18:42:00.591568  9835 net.cpp:137] Memory required for data: 96275600
I1005 18:42:00.591573  9835 layer_factory.hpp:77] Creating layer Scale4
I1005 18:42:00.591578  9835 net.cpp:84] Creating Layer Scale4
I1005 18:42:00.591581  9835 net.cpp:406] Scale4 <- Convolution4
I1005 18:42:00.591584  9835 net.cpp:367] Scale4 -> Convolution4 (in-place)
I1005 18:42:00.591617  9835 layer_factory.hpp:77] Creating layer Scale4
I1005 18:42:00.591684  9835 net.cpp:122] Setting up Scale4
I1005 18:42:00.591689  9835 net.cpp:129] Top shape: 100 16 28 28 (1254400)
I1005 18:42:00.591692  9835 net.cpp:137] Memory required for data: 101293200
I1005 18:42:00.591696  9835 layer_factory.hpp:77] Creating layer elu4
I1005 18:42:00.591701  9835 net.cpp:84] Creating Layer elu4
I1005 18:42:00.591704  9835 net.cpp:406] elu4 <- Convolution4
I1005 18:42:00.591707  9835 net.cpp:367] elu4 -> Convolution4 (in-place)
I1005 18:42:00.591712  9835 net.cpp:122] Setting up elu4
I1005 18:42:00.591717  9835 net.cpp:129] Top shape: 100 16 28 28 (1254400)
I1005 18:42:00.591718  9835 net.cpp:137] Memory required for data: 106310800
I1005 18:42:00.591720  9835 layer_factory.hpp:77] Creating layer Convolution5
I1005 18:42:00.591727  9835 net.cpp:84] Creating Layer Convolution5
I1005 18:42:00.591730  9835 net.cpp:406] Convolution5 <- Convolution4
I1005 18:42:00.591734  9835 net.cpp:380] Convolution5 -> Convolution5
I1005 18:42:00.592568  9835 net.cpp:122] Setting up Convolution5
I1005 18:42:00.592578  9835 net.cpp:129] Top shape: 100 16 28 28 (1254400)
I1005 18:42:00.592581  9835 net.cpp:137] Memory required for data: 111328400
I1005 18:42:00.592586  9835 layer_factory.hpp:77] Creating layer BatchNorm5
I1005 18:42:00.592592  9835 net.cpp:84] Creating Layer BatchNorm5
I1005 18:42:00.592595  9835 net.cpp:406] BatchNorm5 <- Convolution5
I1005 18:42:00.592599  9835 net.cpp:367] BatchNorm5 -> Convolution5 (in-place)
I1005 18:42:00.592717  9835 net.cpp:122] Setting up BatchNorm5
I1005 18:42:00.592723  9835 net.cpp:129] Top shape: 100 16 28 28 (1254400)
I1005 18:42:00.592726  9835 net.cpp:137] Memory required for data: 116346000
I1005 18:42:00.592734  9835 layer_factory.hpp:77] Creating layer Scale5
I1005 18:42:00.592739  9835 net.cpp:84] Creating Layer Scale5
I1005 18:42:00.592742  9835 net.cpp:406] Scale5 <- Convolution5
I1005 18:42:00.592746  9835 net.cpp:367] Scale5 -> Convolution5 (in-place)
I1005 18:42:00.592772  9835 layer_factory.hpp:77] Creating layer Scale5
I1005 18:42:00.592844  9835 net.cpp:122] Setting up Scale5
I1005 18:42:00.592849  9835 net.cpp:129] Top shape: 100 16 28 28 (1254400)
I1005 18:42:00.592852  9835 net.cpp:137] Memory required for data: 121363600
I1005 18:42:00.592856  9835 layer_factory.hpp:77] Creating layer Eltwise2
I1005 18:42:00.592864  9835 net.cpp:84] Creating Layer Eltwise2
I1005 18:42:00.592866  9835 net.cpp:406] Eltwise2 <- Eltwise1_elu3_0_split_1
I1005 18:42:00.592869  9835 net.cpp:406] Eltwise2 <- Convolution5
I1005 18:42:00.592875  9835 net.cpp:380] Eltwise2 -> Eltwise2
I1005 18:42:00.592890  9835 net.cpp:122] Setting up Eltwise2
I1005 18:42:00.592893  9835 net.cpp:129] Top shape: 100 16 28 28 (1254400)
I1005 18:42:00.592896  9835 net.cpp:137] Memory required for data: 126381200
I1005 18:42:00.592900  9835 layer_factory.hpp:77] Creating layer elu5
I1005 18:42:00.592902  9835 net.cpp:84] Creating Layer elu5
I1005 18:42:00.592905  9835 net.cpp:406] elu5 <- Eltwise2
I1005 18:42:00.592909  9835 net.cpp:367] elu5 -> Eltwise2 (in-place)
I1005 18:42:00.592914  9835 net.cpp:122] Setting up elu5
I1005 18:42:00.592918  9835 net.cpp:129] Top shape: 100 16 28 28 (1254400)
I1005 18:42:00.592921  9835 net.cpp:137] Memory required for data: 131398800
I1005 18:42:00.592924  9835 layer_factory.hpp:77] Creating layer Eltwise2_elu5_0_split
I1005 18:42:00.592927  9835 net.cpp:84] Creating Layer Eltwise2_elu5_0_split
I1005 18:42:00.592931  9835 net.cpp:406] Eltwise2_elu5_0_split <- Eltwise2
I1005 18:42:00.592934  9835 net.cpp:380] Eltwise2_elu5_0_split -> Eltwise2_elu5_0_split_0
I1005 18:42:00.592938  9835 net.cpp:380] Eltwise2_elu5_0_split -> Eltwise2_elu5_0_split_1
I1005 18:42:00.592959  9835 net.cpp:122] Setting up Eltwise2_elu5_0_split
I1005 18:42:00.592963  9835 net.cpp:129] Top shape: 100 16 28 28 (1254400)
I1005 18:42:00.592967  9835 net.cpp:129] Top shape: 100 16 28 28 (1254400)
I1005 18:42:00.592970  9835 net.cpp:137] Memory required for data: 141434000
I1005 18:42:00.592979  9835 layer_factory.hpp:77] Creating layer Convolution6
I1005 18:42:00.592985  9835 net.cpp:84] Creating Layer Convolution6
I1005 18:42:00.592988  9835 net.cpp:406] Convolution6 <- Eltwise2_elu5_0_split_0
I1005 18:42:00.592993  9835 net.cpp:380] Convolution6 -> Convolution6
I1005 18:42:00.593855  9835 net.cpp:122] Setting up Convolution6
I1005 18:42:00.593865  9835 net.cpp:129] Top shape: 100 16 28 28 (1254400)
I1005 18:42:00.593868  9835 net.cpp:137] Memory required for data: 146451600
I1005 18:42:00.593873  9835 layer_factory.hpp:77] Creating layer BatchNorm6
I1005 18:42:00.593879  9835 net.cpp:84] Creating Layer BatchNorm6
I1005 18:42:00.593883  9835 net.cpp:406] BatchNorm6 <- Convolution6
I1005 18:42:00.593886  9835 net.cpp:367] BatchNorm6 -> Convolution6 (in-place)
I1005 18:42:00.594012  9835 net.cpp:122] Setting up BatchNorm6
I1005 18:42:00.594017  9835 net.cpp:129] Top shape: 100 16 28 28 (1254400)
I1005 18:42:00.594020  9835 net.cpp:137] Memory required for data: 151469200
I1005 18:42:00.594025  9835 layer_factory.hpp:77] Creating layer Scale6
I1005 18:42:00.594030  9835 net.cpp:84] Creating Layer Scale6
I1005 18:42:00.594033  9835 net.cpp:406] Scale6 <- Convolution6
I1005 18:42:00.594038  9835 net.cpp:367] Scale6 -> Convolution6 (in-place)
I1005 18:42:00.594063  9835 layer_factory.hpp:77] Creating layer Scale6
I1005 18:42:00.594137  9835 net.cpp:122] Setting up Scale6
I1005 18:42:00.594143  9835 net.cpp:129] Top shape: 100 16 28 28 (1254400)
I1005 18:42:00.594146  9835 net.cpp:137] Memory required for data: 156486800
I1005 18:42:00.594151  9835 layer_factory.hpp:77] Creating layer elu6
I1005 18:42:00.594154  9835 net.cpp:84] Creating Layer elu6
I1005 18:42:00.594157  9835 net.cpp:406] elu6 <- Convolution6
I1005 18:42:00.594161  9835 net.cpp:367] elu6 -> Convolution6 (in-place)
I1005 18:42:00.594166  9835 net.cpp:122] Setting up elu6
I1005 18:42:00.594168  9835 net.cpp:129] Top shape: 100 16 28 28 (1254400)
I1005 18:42:00.594172  9835 net.cpp:137] Memory required for data: 161504400
I1005 18:42:00.594173  9835 layer_factory.hpp:77] Creating layer Convolution7
I1005 18:42:00.594182  9835 net.cpp:84] Creating Layer Convolution7
I1005 18:42:00.594184  9835 net.cpp:406] Convolution7 <- Convolution6
I1005 18:42:00.594188  9835 net.cpp:380] Convolution7 -> Convolution7
I1005 18:42:00.594755  9835 net.cpp:122] Setting up Convolution7
I1005 18:42:00.594765  9835 net.cpp:129] Top shape: 100 16 28 28 (1254400)
I1005 18:42:00.594769  9835 net.cpp:137] Memory required for data: 166522000
I1005 18:42:00.594774  9835 layer_factory.hpp:77] Creating layer BatchNorm7
I1005 18:42:00.594779  9835 net.cpp:84] Creating Layer BatchNorm7
I1005 18:42:00.594781  9835 net.cpp:406] BatchNorm7 <- Convolution7
I1005 18:42:00.594785  9835 net.cpp:367] BatchNorm7 -> Convolution7 (in-place)
I1005 18:42:00.594911  9835 net.cpp:122] Setting up BatchNorm7
I1005 18:42:00.594916  9835 net.cpp:129] Top shape: 100 16 28 28 (1254400)
I1005 18:42:00.594919  9835 net.cpp:137] Memory required for data: 171539600
I1005 18:42:00.594924  9835 layer_factory.hpp:77] Creating layer Scale7
I1005 18:42:00.594931  9835 net.cpp:84] Creating Layer Scale7
I1005 18:42:00.594934  9835 net.cpp:406] Scale7 <- Convolution7
I1005 18:42:00.594938  9835 net.cpp:367] Scale7 -> Convolution7 (in-place)
I1005 18:42:00.594964  9835 layer_factory.hpp:77] Creating layer Scale7
I1005 18:42:00.595038  9835 net.cpp:122] Setting up Scale7
I1005 18:42:00.595043  9835 net.cpp:129] Top shape: 100 16 28 28 (1254400)
I1005 18:42:00.595046  9835 net.cpp:137] Memory required for data: 176557200
I1005 18:42:00.595049  9835 layer_factory.hpp:77] Creating layer Eltwise3
I1005 18:42:00.595054  9835 net.cpp:84] Creating Layer Eltwise3
I1005 18:42:00.595057  9835 net.cpp:406] Eltwise3 <- Eltwise2_elu5_0_split_1
I1005 18:42:00.595060  9835 net.cpp:406] Eltwise3 <- Convolution7
I1005 18:42:00.595064  9835 net.cpp:380] Eltwise3 -> Eltwise3
I1005 18:42:00.595080  9835 net.cpp:122] Setting up Eltwise3
I1005 18:42:00.595084  9835 net.cpp:129] Top shape: 100 16 28 28 (1254400)
I1005 18:42:00.595088  9835 net.cpp:137] Memory required for data: 181574800
I1005 18:42:00.595098  9835 layer_factory.hpp:77] Creating layer elu7
I1005 18:42:00.595101  9835 net.cpp:84] Creating Layer elu7
I1005 18:42:00.595104  9835 net.cpp:406] elu7 <- Eltwise3
I1005 18:42:00.595108  9835 net.cpp:367] elu7 -> Eltwise3 (in-place)
I1005 18:42:00.595113  9835 net.cpp:122] Setting up elu7
I1005 18:42:00.595118  9835 net.cpp:129] Top shape: 100 16 28 28 (1254400)
I1005 18:42:00.595120  9835 net.cpp:137] Memory required for data: 186592400
I1005 18:42:00.595124  9835 layer_factory.hpp:77] Creating layer Eltwise3_elu7_0_split
I1005 18:42:00.595126  9835 net.cpp:84] Creating Layer Eltwise3_elu7_0_split
I1005 18:42:00.595129  9835 net.cpp:406] Eltwise3_elu7_0_split <- Eltwise3
I1005 18:42:00.595132  9835 net.cpp:380] Eltwise3_elu7_0_split -> Eltwise3_elu7_0_split_0
I1005 18:42:00.595136  9835 net.cpp:380] Eltwise3_elu7_0_split -> Eltwise3_elu7_0_split_1
I1005 18:42:00.595158  9835 net.cpp:122] Setting up Eltwise3_elu7_0_split
I1005 18:42:00.595163  9835 net.cpp:129] Top shape: 100 16 28 28 (1254400)
I1005 18:42:00.595167  9835 net.cpp:129] Top shape: 100 16 28 28 (1254400)
I1005 18:42:00.595170  9835 net.cpp:137] Memory required for data: 196627600
I1005 18:42:00.595172  9835 layer_factory.hpp:77] Creating layer Convolution8
I1005 18:42:00.595178  9835 net.cpp:84] Creating Layer Convolution8
I1005 18:42:00.595181  9835 net.cpp:406] Convolution8 <- Eltwise3_elu7_0_split_0
I1005 18:42:00.595186  9835 net.cpp:380] Convolution8 -> Convolution8
I1005 18:42:00.596320  9835 net.cpp:122] Setting up Convolution8
I1005 18:42:00.596330  9835 net.cpp:129] Top shape: 100 32 14 14 (627200)
I1005 18:42:00.596334  9835 net.cpp:137] Memory required for data: 199136400
I1005 18:42:00.596340  9835 layer_factory.hpp:77] Creating layer BatchNorm8
I1005 18:42:00.596345  9835 net.cpp:84] Creating Layer BatchNorm8
I1005 18:42:00.596349  9835 net.cpp:406] BatchNorm8 <- Convolution8
I1005 18:42:00.596354  9835 net.cpp:367] BatchNorm8 -> Convolution8 (in-place)
I1005 18:42:00.596487  9835 net.cpp:122] Setting up BatchNorm8
I1005 18:42:00.596493  9835 net.cpp:129] Top shape: 100 32 14 14 (627200)
I1005 18:42:00.596496  9835 net.cpp:137] Memory required for data: 201645200
I1005 18:42:00.596501  9835 layer_factory.hpp:77] Creating layer Scale8
I1005 18:42:00.596506  9835 net.cpp:84] Creating Layer Scale8
I1005 18:42:00.596510  9835 net.cpp:406] Scale8 <- Convolution8
I1005 18:42:00.596513  9835 net.cpp:367] Scale8 -> Convolution8 (in-place)
I1005 18:42:00.596539  9835 layer_factory.hpp:77] Creating layer Scale8
I1005 18:42:00.596611  9835 net.cpp:122] Setting up Scale8
I1005 18:42:00.596616  9835 net.cpp:129] Top shape: 100 32 14 14 (627200)
I1005 18:42:00.596619  9835 net.cpp:137] Memory required for data: 204154000
I1005 18:42:00.596623  9835 layer_factory.hpp:77] Creating layer Convolution9
I1005 18:42:00.596631  9835 net.cpp:84] Creating Layer Convolution9
I1005 18:42:00.596634  9835 net.cpp:406] Convolution9 <- Eltwise3_elu7_0_split_1
I1005 18:42:00.596638  9835 net.cpp:380] Convolution9 -> Convolution9
I1005 18:42:00.598441  9835 net.cpp:122] Setting up Convolution9
I1005 18:42:00.598454  9835 net.cpp:129] Top shape: 100 32 14 14 (627200)
I1005 18:42:00.598470  9835 net.cpp:137] Memory required for data: 206662800
I1005 18:42:00.598480  9835 layer_factory.hpp:77] Creating layer BatchNorm9
I1005 18:42:00.598489  9835 net.cpp:84] Creating Layer BatchNorm9
I1005 18:42:00.598495  9835 net.cpp:406] BatchNorm9 <- Convolution9
I1005 18:42:00.598502  9835 net.cpp:367] BatchNorm9 -> Convolution9 (in-place)
I1005 18:42:00.598701  9835 net.cpp:122] Setting up BatchNorm9
I1005 18:42:00.598712  9835 net.cpp:129] Top shape: 100 32 14 14 (627200)
I1005 18:42:00.598716  9835 net.cpp:137] Memory required for data: 209171600
I1005 18:42:00.598726  9835 layer_factory.hpp:77] Creating layer Scale9
I1005 18:42:00.598732  9835 net.cpp:84] Creating Layer Scale9
I1005 18:42:00.598738  9835 net.cpp:406] Scale9 <- Convolution9
I1005 18:42:00.598744  9835 net.cpp:367] Scale9 -> Convolution9 (in-place)
I1005 18:42:00.598791  9835 layer_factory.hpp:77] Creating layer Scale9
I1005 18:42:00.598899  9835 net.cpp:122] Setting up Scale9
I1005 18:42:00.598909  9835 net.cpp:129] Top shape: 100 32 14 14 (627200)
I1005 18:42:00.598914  9835 net.cpp:137] Memory required for data: 211680400
I1005 18:42:00.598922  9835 layer_factory.hpp:77] Creating layer elu8
I1005 18:42:00.598928  9835 net.cpp:84] Creating Layer elu8
I1005 18:42:00.598933  9835 net.cpp:406] elu8 <- Convolution9
I1005 18:42:00.598940  9835 net.cpp:367] elu8 -> Convolution9 (in-place)
I1005 18:42:00.598948  9835 net.cpp:122] Setting up elu8
I1005 18:42:00.598954  9835 net.cpp:129] Top shape: 100 32 14 14 (627200)
I1005 18:42:00.598959  9835 net.cpp:137] Memory required for data: 214189200
I1005 18:42:00.598964  9835 layer_factory.hpp:77] Creating layer Convolution10
I1005 18:42:00.598975  9835 net.cpp:84] Creating Layer Convolution10
I1005 18:42:00.598980  9835 net.cpp:406] Convolution10 <- Convolution9
I1005 18:42:00.598989  9835 net.cpp:380] Convolution10 -> Convolution10
I1005 18:42:00.600358  9835 net.cpp:122] Setting up Convolution10
I1005 18:42:00.600369  9835 net.cpp:129] Top shape: 100 32 14 14 (627200)
I1005 18:42:00.600373  9835 net.cpp:137] Memory required for data: 216698000
I1005 18:42:00.600383  9835 layer_factory.hpp:77] Creating layer BatchNorm10
I1005 18:42:00.600389  9835 net.cpp:84] Creating Layer BatchNorm10
I1005 18:42:00.600394  9835 net.cpp:406] BatchNorm10 <- Convolution10
I1005 18:42:00.600397  9835 net.cpp:367] BatchNorm10 -> Convolution10 (in-place)
I1005 18:42:00.600527  9835 net.cpp:122] Setting up BatchNorm10
I1005 18:42:00.600531  9835 net.cpp:129] Top shape: 100 32 14 14 (627200)
I1005 18:42:00.600534  9835 net.cpp:137] Memory required for data: 219206800
I1005 18:42:00.600539  9835 layer_factory.hpp:77] Creating layer Scale10
I1005 18:42:00.600545  9835 net.cpp:84] Creating Layer Scale10
I1005 18:42:00.600548  9835 net.cpp:406] Scale10 <- Convolution10
I1005 18:42:00.600551  9835 net.cpp:367] Scale10 -> Convolution10 (in-place)
I1005 18:42:00.600576  9835 layer_factory.hpp:77] Creating layer Scale10
I1005 18:42:00.600651  9835 net.cpp:122] Setting up Scale10
I1005 18:42:00.600656  9835 net.cpp:129] Top shape: 100 32 14 14 (627200)
I1005 18:42:00.600657  9835 net.cpp:137] Memory required for data: 221715600
I1005 18:42:00.600661  9835 layer_factory.hpp:77] Creating layer Eltwise4
I1005 18:42:00.600666  9835 net.cpp:84] Creating Layer Eltwise4
I1005 18:42:00.600669  9835 net.cpp:406] Eltwise4 <- Convolution8
I1005 18:42:00.600672  9835 net.cpp:406] Eltwise4 <- Convolution10
I1005 18:42:00.600675  9835 net.cpp:380] Eltwise4 -> Eltwise4
I1005 18:42:00.600690  9835 net.cpp:122] Setting up Eltwise4
I1005 18:42:00.600695  9835 net.cpp:129] Top shape: 100 32 14 14 (627200)
I1005 18:42:00.600697  9835 net.cpp:137] Memory required for data: 224224400
I1005 18:42:00.600699  9835 layer_factory.hpp:77] Creating layer elu9
I1005 18:42:00.600703  9835 net.cpp:84] Creating Layer elu9
I1005 18:42:00.600705  9835 net.cpp:406] elu9 <- Eltwise4
I1005 18:42:00.600709  9835 net.cpp:367] elu9 -> Eltwise4 (in-place)
I1005 18:42:00.600714  9835 net.cpp:122] Setting up elu9
I1005 18:42:00.600718  9835 net.cpp:129] Top shape: 100 32 14 14 (627200)
I1005 18:42:00.600720  9835 net.cpp:137] Memory required for data: 226733200
I1005 18:42:00.600723  9835 layer_factory.hpp:77] Creating layer Eltwise4_elu9_0_split
I1005 18:42:00.600726  9835 net.cpp:84] Creating Layer Eltwise4_elu9_0_split
I1005 18:42:00.600728  9835 net.cpp:406] Eltwise4_elu9_0_split <- Eltwise4
I1005 18:42:00.600731  9835 net.cpp:380] Eltwise4_elu9_0_split -> Eltwise4_elu9_0_split_0
I1005 18:42:00.600735  9835 net.cpp:380] Eltwise4_elu9_0_split -> Eltwise4_elu9_0_split_1
I1005 18:42:00.600756  9835 net.cpp:122] Setting up Eltwise4_elu9_0_split
I1005 18:42:00.600761  9835 net.cpp:129] Top shape: 100 32 14 14 (627200)
I1005 18:42:00.600764  9835 net.cpp:129] Top shape: 100 32 14 14 (627200)
I1005 18:42:00.600766  9835 net.cpp:137] Memory required for data: 231750800
I1005 18:42:00.600769  9835 layer_factory.hpp:77] Creating layer Convolution11
I1005 18:42:00.600781  9835 net.cpp:84] Creating Layer Convolution11
I1005 18:42:00.600785  9835 net.cpp:406] Convolution11 <- Eltwise4_elu9_0_split_0
I1005 18:42:00.600790  9835 net.cpp:380] Convolution11 -> Convolution11
I1005 18:42:00.601904  9835 net.cpp:122] Setting up Convolution11
I1005 18:42:00.601914  9835 net.cpp:129] Top shape: 100 32 14 14 (627200)
I1005 18:42:00.601917  9835 net.cpp:137] Memory required for data: 234259600
I1005 18:42:00.601922  9835 layer_factory.hpp:77] Creating layer BatchNorm11
I1005 18:42:00.601927  9835 net.cpp:84] Creating Layer BatchNorm11
I1005 18:42:00.601930  9835 net.cpp:406] BatchNorm11 <- Convolution11
I1005 18:42:00.601934  9835 net.cpp:367] BatchNorm11 -> Convolution11 (in-place)
I1005 18:42:00.602080  9835 net.cpp:122] Setting up BatchNorm11
I1005 18:42:00.602085  9835 net.cpp:129] Top shape: 100 32 14 14 (627200)
I1005 18:42:00.602088  9835 net.cpp:137] Memory required for data: 236768400
I1005 18:42:00.602092  9835 layer_factory.hpp:77] Creating layer Scale11
I1005 18:42:00.602097  9835 net.cpp:84] Creating Layer Scale11
I1005 18:42:00.602102  9835 net.cpp:406] Scale11 <- Convolution11
I1005 18:42:00.602104  9835 net.cpp:367] Scale11 -> Convolution11 (in-place)
I1005 18:42:00.602130  9835 layer_factory.hpp:77] Creating layer Scale11
I1005 18:42:00.602200  9835 net.cpp:122] Setting up Scale11
I1005 18:42:00.602206  9835 net.cpp:129] Top shape: 100 32 14 14 (627200)
I1005 18:42:00.602208  9835 net.cpp:137] Memory required for data: 239277200
I1005 18:42:00.602212  9835 layer_factory.hpp:77] Creating layer elu10
I1005 18:42:00.602216  9835 net.cpp:84] Creating Layer elu10
I1005 18:42:00.602219  9835 net.cpp:406] elu10 <- Convolution11
I1005 18:42:00.602222  9835 net.cpp:367] elu10 -> Convolution11 (in-place)
I1005 18:42:00.602226  9835 net.cpp:122] Setting up elu10
I1005 18:42:00.602229  9835 net.cpp:129] Top shape: 100 32 14 14 (627200)
I1005 18:42:00.602231  9835 net.cpp:137] Memory required for data: 241786000
I1005 18:42:00.602233  9835 layer_factory.hpp:77] Creating layer Convolution12
I1005 18:42:00.602241  9835 net.cpp:84] Creating Layer Convolution12
I1005 18:42:00.602246  9835 net.cpp:406] Convolution12 <- Convolution11
I1005 18:42:00.602250  9835 net.cpp:380] Convolution12 -> Convolution12
I1005 18:42:00.603289  9835 net.cpp:122] Setting up Convolution12
I1005 18:42:00.603301  9835 net.cpp:129] Top shape: 100 32 14 14 (627200)
I1005 18:42:00.603303  9835 net.cpp:137] Memory required for data: 244294800
I1005 18:42:00.603307  9835 layer_factory.hpp:77] Creating layer BatchNorm12
I1005 18:42:00.603313  9835 net.cpp:84] Creating Layer BatchNorm12
I1005 18:42:00.603317  9835 net.cpp:406] BatchNorm12 <- Convolution12
I1005 18:42:00.603320  9835 net.cpp:367] BatchNorm12 -> Convolution12 (in-place)
I1005 18:42:00.603446  9835 net.cpp:122] Setting up BatchNorm12
I1005 18:42:00.603451  9835 net.cpp:129] Top shape: 100 32 14 14 (627200)
I1005 18:42:00.603453  9835 net.cpp:137] Memory required for data: 246803600
I1005 18:42:00.603458  9835 layer_factory.hpp:77] Creating layer Scale12
I1005 18:42:00.603464  9835 net.cpp:84] Creating Layer Scale12
I1005 18:42:00.603467  9835 net.cpp:406] Scale12 <- Convolution12
I1005 18:42:00.603471  9835 net.cpp:367] Scale12 -> Convolution12 (in-place)
I1005 18:42:00.603494  9835 layer_factory.hpp:77] Creating layer Scale12
I1005 18:42:00.603567  9835 net.cpp:122] Setting up Scale12
I1005 18:42:00.603572  9835 net.cpp:129] Top shape: 100 32 14 14 (627200)
I1005 18:42:00.603574  9835 net.cpp:137] Memory required for data: 249312400
I1005 18:42:00.603579  9835 layer_factory.hpp:77] Creating layer Eltwise5
I1005 18:42:00.603583  9835 net.cpp:84] Creating Layer Eltwise5
I1005 18:42:00.603586  9835 net.cpp:406] Eltwise5 <- Eltwise4_elu9_0_split_1
I1005 18:42:00.603590  9835 net.cpp:406] Eltwise5 <- Convolution12
I1005 18:42:00.603592  9835 net.cpp:380] Eltwise5 -> Eltwise5
I1005 18:42:00.603607  9835 net.cpp:122] Setting up Eltwise5
I1005 18:42:00.603612  9835 net.cpp:129] Top shape: 100 32 14 14 (627200)
I1005 18:42:00.603621  9835 net.cpp:137] Memory required for data: 251821200
I1005 18:42:00.603624  9835 layer_factory.hpp:77] Creating layer elu11
I1005 18:42:00.603628  9835 net.cpp:84] Creating Layer elu11
I1005 18:42:00.603631  9835 net.cpp:406] elu11 <- Eltwise5
I1005 18:42:00.603634  9835 net.cpp:367] elu11 -> Eltwise5 (in-place)
I1005 18:42:00.603638  9835 net.cpp:122] Setting up elu11
I1005 18:42:00.603642  9835 net.cpp:129] Top shape: 100 32 14 14 (627200)
I1005 18:42:00.603644  9835 net.cpp:137] Memory required for data: 254330000
I1005 18:42:00.603647  9835 layer_factory.hpp:77] Creating layer Eltwise5_elu11_0_split
I1005 18:42:00.603651  9835 net.cpp:84] Creating Layer Eltwise5_elu11_0_split
I1005 18:42:00.603652  9835 net.cpp:406] Eltwise5_elu11_0_split <- Eltwise5
I1005 18:42:00.603655  9835 net.cpp:380] Eltwise5_elu11_0_split -> Eltwise5_elu11_0_split_0
I1005 18:42:00.603659  9835 net.cpp:380] Eltwise5_elu11_0_split -> Eltwise5_elu11_0_split_1
I1005 18:42:00.603682  9835 net.cpp:122] Setting up Eltwise5_elu11_0_split
I1005 18:42:00.603687  9835 net.cpp:129] Top shape: 100 32 14 14 (627200)
I1005 18:42:00.603689  9835 net.cpp:129] Top shape: 100 32 14 14 (627200)
I1005 18:42:00.603691  9835 net.cpp:137] Memory required for data: 259347600
I1005 18:42:00.603694  9835 layer_factory.hpp:77] Creating layer Convolution13
I1005 18:42:00.603699  9835 net.cpp:84] Creating Layer Convolution13
I1005 18:42:00.603703  9835 net.cpp:406] Convolution13 <- Eltwise5_elu11_0_split_0
I1005 18:42:00.603708  9835 net.cpp:380] Convolution13 -> Convolution13
I1005 18:42:00.604717  9835 net.cpp:122] Setting up Convolution13
I1005 18:42:00.604725  9835 net.cpp:129] Top shape: 100 32 14 14 (627200)
I1005 18:42:00.604729  9835 net.cpp:137] Memory required for data: 261856400
I1005 18:42:00.604733  9835 layer_factory.hpp:77] Creating layer BatchNorm13
I1005 18:42:00.604739  9835 net.cpp:84] Creating Layer BatchNorm13
I1005 18:42:00.604743  9835 net.cpp:406] BatchNorm13 <- Convolution13
I1005 18:42:00.604748  9835 net.cpp:367] BatchNorm13 -> Convolution13 (in-place)
I1005 18:42:00.604874  9835 net.cpp:122] Setting up BatchNorm13
I1005 18:42:00.604881  9835 net.cpp:129] Top shape: 100 32 14 14 (627200)
I1005 18:42:00.604882  9835 net.cpp:137] Memory required for data: 264365200
I1005 18:42:00.604887  9835 layer_factory.hpp:77] Creating layer Scale13
I1005 18:42:00.604892  9835 net.cpp:84] Creating Layer Scale13
I1005 18:42:00.604894  9835 net.cpp:406] Scale13 <- Convolution13
I1005 18:42:00.604898  9835 net.cpp:367] Scale13 -> Convolution13 (in-place)
I1005 18:42:00.604923  9835 layer_factory.hpp:77] Creating layer Scale13
I1005 18:42:00.604996  9835 net.cpp:122] Setting up Scale13
I1005 18:42:00.605002  9835 net.cpp:129] Top shape: 100 32 14 14 (627200)
I1005 18:42:00.605005  9835 net.cpp:137] Memory required for data: 266874000
I1005 18:42:00.605010  9835 layer_factory.hpp:77] Creating layer elu12
I1005 18:42:00.605013  9835 net.cpp:84] Creating Layer elu12
I1005 18:42:00.605016  9835 net.cpp:406] elu12 <- Convolution13
I1005 18:42:00.605018  9835 net.cpp:367] elu12 -> Convolution13 (in-place)
I1005 18:42:00.605022  9835 net.cpp:122] Setting up elu12
I1005 18:42:00.605026  9835 net.cpp:129] Top shape: 100 32 14 14 (627200)
I1005 18:42:00.605027  9835 net.cpp:137] Memory required for data: 269382800
I1005 18:42:00.605031  9835 layer_factory.hpp:77] Creating layer Convolution14
I1005 18:42:00.605036  9835 net.cpp:84] Creating Layer Convolution14
I1005 18:42:00.605039  9835 net.cpp:406] Convolution14 <- Convolution13
I1005 18:42:00.605044  9835 net.cpp:380] Convolution14 -> Convolution14
I1005 18:42:00.606058  9835 net.cpp:122] Setting up Convolution14
I1005 18:42:00.606068  9835 net.cpp:129] Top shape: 100 32 14 14 (627200)
I1005 18:42:00.606071  9835 net.cpp:137] Memory required for data: 271891600
I1005 18:42:00.606076  9835 layer_factory.hpp:77] Creating layer BatchNorm14
I1005 18:42:00.606086  9835 net.cpp:84] Creating Layer BatchNorm14
I1005 18:42:00.606089  9835 net.cpp:406] BatchNorm14 <- Convolution14
I1005 18:42:00.606093  9835 net.cpp:367] BatchNorm14 -> Convolution14 (in-place)
I1005 18:42:00.606226  9835 net.cpp:122] Setting up BatchNorm14
I1005 18:42:00.606232  9835 net.cpp:129] Top shape: 100 32 14 14 (627200)
I1005 18:42:00.606235  9835 net.cpp:137] Memory required for data: 274400400
I1005 18:42:00.606240  9835 layer_factory.hpp:77] Creating layer Scale14
I1005 18:42:00.606243  9835 net.cpp:84] Creating Layer Scale14
I1005 18:42:00.606246  9835 net.cpp:406] Scale14 <- Convolution14
I1005 18:42:00.606250  9835 net.cpp:367] Scale14 -> Convolution14 (in-place)
I1005 18:42:00.606276  9835 layer_factory.hpp:77] Creating layer Scale14
I1005 18:42:00.606367  9835 net.cpp:122] Setting up Scale14
I1005 18:42:00.606374  9835 net.cpp:129] Top shape: 100 32 14 14 (627200)
I1005 18:42:00.606375  9835 net.cpp:137] Memory required for data: 276909200
I1005 18:42:00.606379  9835 layer_factory.hpp:77] Creating layer Eltwise6
I1005 18:42:00.606384  9835 net.cpp:84] Creating Layer Eltwise6
I1005 18:42:00.606386  9835 net.cpp:406] Eltwise6 <- Eltwise5_elu11_0_split_1
I1005 18:42:00.606389  9835 net.cpp:406] Eltwise6 <- Convolution14
I1005 18:42:00.606392  9835 net.cpp:380] Eltwise6 -> Eltwise6
I1005 18:42:00.606407  9835 net.cpp:122] Setting up Eltwise6
I1005 18:42:00.606412  9835 net.cpp:129] Top shape: 100 32 14 14 (627200)
I1005 18:42:00.606415  9835 net.cpp:137] Memory required for data: 279418000
I1005 18:42:00.606416  9835 layer_factory.hpp:77] Creating layer elu13
I1005 18:42:00.606420  9835 net.cpp:84] Creating Layer elu13
I1005 18:42:00.606422  9835 net.cpp:406] elu13 <- Eltwise6
I1005 18:42:00.606427  9835 net.cpp:367] elu13 -> Eltwise6 (in-place)
I1005 18:42:00.606431  9835 net.cpp:122] Setting up elu13
I1005 18:42:00.606434  9835 net.cpp:129] Top shape: 100 32 14 14 (627200)
I1005 18:42:00.606436  9835 net.cpp:137] Memory required for data: 281926800
I1005 18:42:00.606438  9835 layer_factory.hpp:77] Creating layer Eltwise6_elu13_0_split
I1005 18:42:00.606441  9835 net.cpp:84] Creating Layer Eltwise6_elu13_0_split
I1005 18:42:00.606443  9835 net.cpp:406] Eltwise6_elu13_0_split <- Eltwise6
I1005 18:42:00.606446  9835 net.cpp:380] Eltwise6_elu13_0_split -> Eltwise6_elu13_0_split_0
I1005 18:42:00.606449  9835 net.cpp:380] Eltwise6_elu13_0_split -> Eltwise6_elu13_0_split_1
I1005 18:42:00.606472  9835 net.cpp:122] Setting up Eltwise6_elu13_0_split
I1005 18:42:00.606474  9835 net.cpp:129] Top shape: 100 32 14 14 (627200)
I1005 18:42:00.606477  9835 net.cpp:129] Top shape: 100 32 14 14 (627200)
I1005 18:42:00.606479  9835 net.cpp:137] Memory required for data: 286944400
I1005 18:42:00.606482  9835 layer_factory.hpp:77] Creating layer Convolution15
I1005 18:42:00.606487  9835 net.cpp:84] Creating Layer Convolution15
I1005 18:42:00.606489  9835 net.cpp:406] Convolution15 <- Eltwise6_elu13_0_split_0
I1005 18:42:00.606493  9835 net.cpp:380] Convolution15 -> Convolution15
I1005 18:42:00.607379  9835 net.cpp:122] Setting up Convolution15
I1005 18:42:00.607388  9835 net.cpp:129] Top shape: 100 64 7 7 (313600)
I1005 18:42:00.607391  9835 net.cpp:137] Memory required for data: 288198800
I1005 18:42:00.607395  9835 layer_factory.hpp:77] Creating layer BatchNorm15
I1005 18:42:00.607400  9835 net.cpp:84] Creating Layer BatchNorm15
I1005 18:42:00.607403  9835 net.cpp:406] BatchNorm15 <- Convolution15
I1005 18:42:00.607408  9835 net.cpp:367] BatchNorm15 -> Convolution15 (in-place)
I1005 18:42:00.607533  9835 net.cpp:122] Setting up BatchNorm15
I1005 18:42:00.607537  9835 net.cpp:129] Top shape: 100 64 7 7 (313600)
I1005 18:42:00.607539  9835 net.cpp:137] Memory required for data: 289453200
I1005 18:42:00.607544  9835 layer_factory.hpp:77] Creating layer Scale15
I1005 18:42:00.607548  9835 net.cpp:84] Creating Layer Scale15
I1005 18:42:00.607551  9835 net.cpp:406] Scale15 <- Convolution15
I1005 18:42:00.607554  9835 net.cpp:367] Scale15 -> Convolution15 (in-place)
I1005 18:42:00.607579  9835 layer_factory.hpp:77] Creating layer Scale15
I1005 18:42:00.607651  9835 net.cpp:122] Setting up Scale15
I1005 18:42:00.607656  9835 net.cpp:129] Top shape: 100 64 7 7 (313600)
I1005 18:42:00.607664  9835 net.cpp:137] Memory required for data: 290707600
I1005 18:42:00.607668  9835 layer_factory.hpp:77] Creating layer Convolution16
I1005 18:42:00.607676  9835 net.cpp:84] Creating Layer Convolution16
I1005 18:42:00.607679  9835 net.cpp:406] Convolution16 <- Eltwise6_elu13_0_split_1
I1005 18:42:00.607682  9835 net.cpp:380] Convolution16 -> Convolution16
I1005 18:42:00.609423  9835 net.cpp:122] Setting up Convolution16
I1005 18:42:00.609432  9835 net.cpp:129] Top shape: 100 64 7 7 (313600)
I1005 18:42:00.609436  9835 net.cpp:137] Memory required for data: 291962000
I1005 18:42:00.609439  9835 layer_factory.hpp:77] Creating layer BatchNorm16
I1005 18:42:00.609444  9835 net.cpp:84] Creating Layer BatchNorm16
I1005 18:42:00.609447  9835 net.cpp:406] BatchNorm16 <- Convolution16
I1005 18:42:00.609452  9835 net.cpp:367] BatchNorm16 -> Convolution16 (in-place)
I1005 18:42:00.609580  9835 net.cpp:122] Setting up BatchNorm16
I1005 18:42:00.609585  9835 net.cpp:129] Top shape: 100 64 7 7 (313600)
I1005 18:42:00.609587  9835 net.cpp:137] Memory required for data: 293216400
I1005 18:42:00.609591  9835 layer_factory.hpp:77] Creating layer Scale16
I1005 18:42:00.609596  9835 net.cpp:84] Creating Layer Scale16
I1005 18:42:00.609598  9835 net.cpp:406] Scale16 <- Convolution16
I1005 18:42:00.609601  9835 net.cpp:367] Scale16 -> Convolution16 (in-place)
I1005 18:42:00.609627  9835 layer_factory.hpp:77] Creating layer Scale16
I1005 18:42:00.609699  9835 net.cpp:122] Setting up Scale16
I1005 18:42:00.609704  9835 net.cpp:129] Top shape: 100 64 7 7 (313600)
I1005 18:42:00.609706  9835 net.cpp:137] Memory required for data: 294470800
I1005 18:42:00.609709  9835 layer_factory.hpp:77] Creating layer elu14
I1005 18:42:00.609714  9835 net.cpp:84] Creating Layer elu14
I1005 18:42:00.609716  9835 net.cpp:406] elu14 <- Convolution16
I1005 18:42:00.609720  9835 net.cpp:367] elu14 -> Convolution16 (in-place)
I1005 18:42:00.609724  9835 net.cpp:122] Setting up elu14
I1005 18:42:00.609727  9835 net.cpp:129] Top shape: 100 64 7 7 (313600)
I1005 18:42:00.609730  9835 net.cpp:137] Memory required for data: 295725200
I1005 18:42:00.609731  9835 layer_factory.hpp:77] Creating layer Convolution17
I1005 18:42:00.609737  9835 net.cpp:84] Creating Layer Convolution17
I1005 18:42:00.609740  9835 net.cpp:406] Convolution17 <- Convolution16
I1005 18:42:00.609743  9835 net.cpp:380] Convolution17 -> Convolution17
I1005 18:42:00.611358  9835 net.cpp:122] Setting up Convolution17
I1005 18:42:00.611367  9835 net.cpp:129] Top shape: 100 64 7 7 (313600)
I1005 18:42:00.611369  9835 net.cpp:137] Memory required for data: 296979600
I1005 18:42:00.611376  9835 layer_factory.hpp:77] Creating layer BatchNorm17
I1005 18:42:00.611379  9835 net.cpp:84] Creating Layer BatchNorm17
I1005 18:42:00.611382  9835 net.cpp:406] BatchNorm17 <- Convolution17
I1005 18:42:00.611387  9835 net.cpp:367] BatchNorm17 -> Convolution17 (in-place)
I1005 18:42:00.611516  9835 net.cpp:122] Setting up BatchNorm17
I1005 18:42:00.611521  9835 net.cpp:129] Top shape: 100 64 7 7 (313600)
I1005 18:42:00.611522  9835 net.cpp:137] Memory required for data: 298234000
I1005 18:42:00.611527  9835 layer_factory.hpp:77] Creating layer Scale17
I1005 18:42:00.611531  9835 net.cpp:84] Creating Layer Scale17
I1005 18:42:00.611533  9835 net.cpp:406] Scale17 <- Convolution17
I1005 18:42:00.611536  9835 net.cpp:367] Scale17 -> Convolution17 (in-place)
I1005 18:42:00.611562  9835 layer_factory.hpp:77] Creating layer Scale17
I1005 18:42:00.611634  9835 net.cpp:122] Setting up Scale17
I1005 18:42:00.611639  9835 net.cpp:129] Top shape: 100 64 7 7 (313600)
I1005 18:42:00.611640  9835 net.cpp:137] Memory required for data: 299488400
I1005 18:42:00.611644  9835 layer_factory.hpp:77] Creating layer Eltwise7
I1005 18:42:00.611649  9835 net.cpp:84] Creating Layer Eltwise7
I1005 18:42:00.611650  9835 net.cpp:406] Eltwise7 <- Convolution15
I1005 18:42:00.611654  9835 net.cpp:406] Eltwise7 <- Convolution17
I1005 18:42:00.611656  9835 net.cpp:380] Eltwise7 -> Eltwise7
I1005 18:42:00.611671  9835 net.cpp:122] Setting up Eltwise7
I1005 18:42:00.611682  9835 net.cpp:129] Top shape: 100 64 7 7 (313600)
I1005 18:42:00.611685  9835 net.cpp:137] Memory required for data: 300742800
I1005 18:42:00.611686  9835 layer_factory.hpp:77] Creating layer elu15
I1005 18:42:00.611691  9835 net.cpp:84] Creating Layer elu15
I1005 18:42:00.611693  9835 net.cpp:406] elu15 <- Eltwise7
I1005 18:42:00.611696  9835 net.cpp:367] elu15 -> Eltwise7 (in-place)
I1005 18:42:00.611701  9835 net.cpp:122] Setting up elu15
I1005 18:42:00.611702  9835 net.cpp:129] Top shape: 100 64 7 7 (313600)
I1005 18:42:00.611706  9835 net.cpp:137] Memory required for data: 301997200
I1005 18:42:00.611707  9835 layer_factory.hpp:77] Creating layer Eltwise7_elu15_0_split
I1005 18:42:00.611711  9835 net.cpp:84] Creating Layer Eltwise7_elu15_0_split
I1005 18:42:00.611712  9835 net.cpp:406] Eltwise7_elu15_0_split <- Eltwise7
I1005 18:42:00.611716  9835 net.cpp:380] Eltwise7_elu15_0_split -> Eltwise7_elu15_0_split_0
I1005 18:42:00.611719  9835 net.cpp:380] Eltwise7_elu15_0_split -> Eltwise7_elu15_0_split_1
I1005 18:42:00.611740  9835 net.cpp:122] Setting up Eltwise7_elu15_0_split
I1005 18:42:00.611744  9835 net.cpp:129] Top shape: 100 64 7 7 (313600)
I1005 18:42:00.611747  9835 net.cpp:129] Top shape: 100 64 7 7 (313600)
I1005 18:42:00.611748  9835 net.cpp:137] Memory required for data: 304506000
I1005 18:42:00.611752  9835 layer_factory.hpp:77] Creating layer Convolution18
I1005 18:42:00.611758  9835 net.cpp:84] Creating Layer Convolution18
I1005 18:42:00.611762  9835 net.cpp:406] Convolution18 <- Eltwise7_elu15_0_split_0
I1005 18:42:00.611765  9835 net.cpp:380] Convolution18 -> Convolution18
I1005 18:42:00.613351  9835 net.cpp:122] Setting up Convolution18
I1005 18:42:00.613359  9835 net.cpp:129] Top shape: 100 64 7 7 (313600)
I1005 18:42:00.613363  9835 net.cpp:137] Memory required for data: 305760400
I1005 18:42:00.613368  9835 layer_factory.hpp:77] Creating layer BatchNorm18
I1005 18:42:00.613373  9835 net.cpp:84] Creating Layer BatchNorm18
I1005 18:42:00.613375  9835 net.cpp:406] BatchNorm18 <- Convolution18
I1005 18:42:00.613379  9835 net.cpp:367] BatchNorm18 -> Convolution18 (in-place)
I1005 18:42:00.613505  9835 net.cpp:122] Setting up BatchNorm18
I1005 18:42:00.613510  9835 net.cpp:129] Top shape: 100 64 7 7 (313600)
I1005 18:42:00.613512  9835 net.cpp:137] Memory required for data: 307014800
I1005 18:42:00.613517  9835 layer_factory.hpp:77] Creating layer Scale18
I1005 18:42:00.613521  9835 net.cpp:84] Creating Layer Scale18
I1005 18:42:00.613524  9835 net.cpp:406] Scale18 <- Convolution18
I1005 18:42:00.613528  9835 net.cpp:367] Scale18 -> Convolution18 (in-place)
I1005 18:42:00.613553  9835 layer_factory.hpp:77] Creating layer Scale18
I1005 18:42:00.613625  9835 net.cpp:122] Setting up Scale18
I1005 18:42:00.613628  9835 net.cpp:129] Top shape: 100 64 7 7 (313600)
I1005 18:42:00.613631  9835 net.cpp:137] Memory required for data: 308269200
I1005 18:42:00.613634  9835 layer_factory.hpp:77] Creating layer elu16
I1005 18:42:00.613637  9835 net.cpp:84] Creating Layer elu16
I1005 18:42:00.613641  9835 net.cpp:406] elu16 <- Convolution18
I1005 18:42:00.613643  9835 net.cpp:367] elu16 -> Convolution18 (in-place)
I1005 18:42:00.613647  9835 net.cpp:122] Setting up elu16
I1005 18:42:00.613651  9835 net.cpp:129] Top shape: 100 64 7 7 (313600)
I1005 18:42:00.613652  9835 net.cpp:137] Memory required for data: 309523600
I1005 18:42:00.613654  9835 layer_factory.hpp:77] Creating layer Convolution19
I1005 18:42:00.613662  9835 net.cpp:84] Creating Layer Convolution19
I1005 18:42:00.613663  9835 net.cpp:406] Convolution19 <- Convolution18
I1005 18:42:00.613667  9835 net.cpp:380] Convolution19 -> Convolution19
I1005 18:42:00.616216  9835 net.cpp:122] Setting up Convolution19
I1005 18:42:00.616226  9835 net.cpp:129] Top shape: 100 64 7 7 (313600)
I1005 18:42:00.616230  9835 net.cpp:137] Memory required for data: 310778000
I1005 18:42:00.616236  9835 layer_factory.hpp:77] Creating layer BatchNorm19
I1005 18:42:00.616245  9835 net.cpp:84] Creating Layer BatchNorm19
I1005 18:42:00.616266  9835 net.cpp:406] BatchNorm19 <- Convolution19
I1005 18:42:00.616273  9835 net.cpp:367] BatchNorm19 -> Convolution19 (in-place)
I1005 18:42:00.616497  9835 net.cpp:122] Setting up BatchNorm19
I1005 18:42:00.616506  9835 net.cpp:129] Top shape: 100 64 7 7 (313600)
I1005 18:42:00.616511  9835 net.cpp:137] Memory required for data: 312032400
I1005 18:42:00.616535  9835 layer_factory.hpp:77] Creating layer Scale19
I1005 18:42:00.616542  9835 net.cpp:84] Creating Layer Scale19
I1005 18:42:00.616546  9835 net.cpp:406] Scale19 <- Convolution19
I1005 18:42:00.616562  9835 net.cpp:367] Scale19 -> Convolution19 (in-place)
I1005 18:42:00.616605  9835 layer_factory.hpp:77] Creating layer Scale19
I1005 18:42:00.616750  9835 net.cpp:122] Setting up Scale19
I1005 18:42:00.616757  9835 net.cpp:129] Top shape: 100 64 7 7 (313600)
I1005 18:42:00.616761  9835 net.cpp:137] Memory required for data: 313286800
I1005 18:42:00.616768  9835 layer_factory.hpp:77] Creating layer Eltwise8
I1005 18:42:00.616776  9835 net.cpp:84] Creating Layer Eltwise8
I1005 18:42:00.616780  9835 net.cpp:406] Eltwise8 <- Eltwise7_elu15_0_split_1
I1005 18:42:00.616794  9835 net.cpp:406] Eltwise8 <- Convolution19
I1005 18:42:00.616799  9835 net.cpp:380] Eltwise8 -> Eltwise8
I1005 18:42:00.616835  9835 net.cpp:122] Setting up Eltwise8
I1005 18:42:00.616852  9835 net.cpp:129] Top shape: 100 64 7 7 (313600)
I1005 18:42:00.616855  9835 net.cpp:137] Memory required for data: 314541200
I1005 18:42:00.616859  9835 layer_factory.hpp:77] Creating layer elu17
I1005 18:42:00.616866  9835 net.cpp:84] Creating Layer elu17
I1005 18:42:00.616870  9835 net.cpp:406] elu17 <- Eltwise8
I1005 18:42:00.616878  9835 net.cpp:367] elu17 -> Eltwise8 (in-place)
I1005 18:42:00.616885  9835 net.cpp:122] Setting up elu17
I1005 18:42:00.616901  9835 net.cpp:129] Top shape: 100 64 7 7 (313600)
I1005 18:42:00.616904  9835 net.cpp:137] Memory required for data: 315795600
I1005 18:42:00.616906  9835 layer_factory.hpp:77] Creating layer Eltwise8_elu17_0_split
I1005 18:42:00.616910  9835 net.cpp:84] Creating Layer Eltwise8_elu17_0_split
I1005 18:42:00.616912  9835 net.cpp:406] Eltwise8_elu17_0_split <- Eltwise8
I1005 18:42:00.616916  9835 net.cpp:380] Eltwise8_elu17_0_split -> Eltwise8_elu17_0_split_0
I1005 18:42:00.616921  9835 net.cpp:380] Eltwise8_elu17_0_split -> Eltwise8_elu17_0_split_1
I1005 18:42:00.616947  9835 net.cpp:122] Setting up Eltwise8_elu17_0_split
I1005 18:42:00.616951  9835 net.cpp:129] Top shape: 100 64 7 7 (313600)
I1005 18:42:00.616955  9835 net.cpp:129] Top shape: 100 64 7 7 (313600)
I1005 18:42:00.616956  9835 net.cpp:137] Memory required for data: 318304400
I1005 18:42:00.616958  9835 layer_factory.hpp:77] Creating layer Convolution20
I1005 18:42:00.616966  9835 net.cpp:84] Creating Layer Convolution20
I1005 18:42:00.616967  9835 net.cpp:406] Convolution20 <- Eltwise8_elu17_0_split_0
I1005 18:42:00.616971  9835 net.cpp:380] Convolution20 -> Convolution20
I1005 18:42:00.618790  9835 net.cpp:122] Setting up Convolution20
I1005 18:42:00.618801  9835 net.cpp:129] Top shape: 100 64 7 7 (313600)
I1005 18:42:00.618804  9835 net.cpp:137] Memory required for data: 319558800
I1005 18:42:00.618808  9835 layer_factory.hpp:77] Creating layer BatchNorm20
I1005 18:42:00.618814  9835 net.cpp:84] Creating Layer BatchNorm20
I1005 18:42:00.618819  9835 net.cpp:406] BatchNorm20 <- Convolution20
I1005 18:42:00.618822  9835 net.cpp:367] BatchNorm20 -> Convolution20 (in-place)
I1005 18:42:00.619010  9835 net.cpp:122] Setting up BatchNorm20
I1005 18:42:00.619015  9835 net.cpp:129] Top shape: 100 64 7 7 (313600)
I1005 18:42:00.619017  9835 net.cpp:137] Memory required for data: 320813200
I1005 18:42:00.619024  9835 layer_factory.hpp:77] Creating layer Scale20
I1005 18:42:00.619027  9835 net.cpp:84] Creating Layer Scale20
I1005 18:42:00.619040  9835 net.cpp:406] Scale20 <- Convolution20
I1005 18:42:00.619043  9835 net.cpp:367] Scale20 -> Convolution20 (in-place)
I1005 18:42:00.619096  9835 layer_factory.hpp:77] Creating layer Scale20
I1005 18:42:00.619189  9835 net.cpp:122] Setting up Scale20
I1005 18:42:00.619201  9835 net.cpp:129] Top shape: 100 64 7 7 (313600)
I1005 18:42:00.619204  9835 net.cpp:137] Memory required for data: 322067600
I1005 18:42:00.619207  9835 layer_factory.hpp:77] Creating layer elu18
I1005 18:42:00.619222  9835 net.cpp:84] Creating Layer elu18
I1005 18:42:00.619225  9835 net.cpp:406] elu18 <- Convolution20
I1005 18:42:00.619227  9835 net.cpp:367] elu18 -> Convolution20 (in-place)
I1005 18:42:00.619231  9835 net.cpp:122] Setting up elu18
I1005 18:42:00.619236  9835 net.cpp:129] Top shape: 100 64 7 7 (313600)
I1005 18:42:00.619240  9835 net.cpp:137] Memory required for data: 323322000
I1005 18:42:00.619241  9835 layer_factory.hpp:77] Creating layer Convolution21
I1005 18:42:00.619248  9835 net.cpp:84] Creating Layer Convolution21
I1005 18:42:00.619251  9835 net.cpp:406] Convolution21 <- Convolution20
I1005 18:42:00.619256  9835 net.cpp:380] Convolution21 -> Convolution21
I1005 18:42:00.621536  9835 net.cpp:122] Setting up Convolution21
I1005 18:42:00.621543  9835 net.cpp:129] Top shape: 100 64 7 7 (313600)
I1005 18:42:00.621546  9835 net.cpp:137] Memory required for data: 324576400
I1005 18:42:00.621551  9835 layer_factory.hpp:77] Creating layer BatchNorm21
I1005 18:42:00.621556  9835 net.cpp:84] Creating Layer BatchNorm21
I1005 18:42:00.621559  9835 net.cpp:406] BatchNorm21 <- Convolution21
I1005 18:42:00.621563  9835 net.cpp:367] BatchNorm21 -> Convolution21 (in-place)
I1005 18:42:00.621696  9835 net.cpp:122] Setting up BatchNorm21
I1005 18:42:00.621701  9835 net.cpp:129] Top shape: 100 64 7 7 (313600)
I1005 18:42:00.621702  9835 net.cpp:137] Memory required for data: 325830800
I1005 18:42:00.621707  9835 layer_factory.hpp:77] Creating layer Scale21
I1005 18:42:00.621712  9835 net.cpp:84] Creating Layer Scale21
I1005 18:42:00.621714  9835 net.cpp:406] Scale21 <- Convolution21
I1005 18:42:00.621717  9835 net.cpp:367] Scale21 -> Convolution21 (in-place)
I1005 18:42:00.621743  9835 layer_factory.hpp:77] Creating layer Scale21
I1005 18:42:00.621817  9835 net.cpp:122] Setting up Scale21
I1005 18:42:00.621821  9835 net.cpp:129] Top shape: 100 64 7 7 (313600)
I1005 18:42:00.621824  9835 net.cpp:137] Memory required for data: 327085200
I1005 18:42:00.621827  9835 layer_factory.hpp:77] Creating layer Eltwise9
I1005 18:42:00.621832  9835 net.cpp:84] Creating Layer Eltwise9
I1005 18:42:00.621834  9835 net.cpp:406] Eltwise9 <- Eltwise8_elu17_0_split_1
I1005 18:42:00.621837  9835 net.cpp:406] Eltwise9 <- Convolution21
I1005 18:42:00.621841  9835 net.cpp:380] Eltwise9 -> Eltwise9
I1005 18:42:00.621855  9835 net.cpp:122] Setting up Eltwise9
I1005 18:42:00.621860  9835 net.cpp:129] Top shape: 100 64 7 7 (313600)
I1005 18:42:00.621861  9835 net.cpp:137] Memory required for data: 328339600
I1005 18:42:00.621863  9835 layer_factory.hpp:77] Creating layer elu19
I1005 18:42:00.621867  9835 net.cpp:84] Creating Layer elu19
I1005 18:42:00.621870  9835 net.cpp:406] elu19 <- Eltwise9
I1005 18:42:00.621872  9835 net.cpp:367] elu19 -> Eltwise9 (in-place)
I1005 18:42:00.621876  9835 net.cpp:122] Setting up elu19
I1005 18:42:00.621879  9835 net.cpp:129] Top shape: 100 64 7 7 (313600)
I1005 18:42:00.621881  9835 net.cpp:137] Memory required for data: 329594000
I1005 18:42:00.621883  9835 layer_factory.hpp:77] Creating layer Pooling1
I1005 18:42:00.621887  9835 net.cpp:84] Creating Layer Pooling1
I1005 18:42:00.621889  9835 net.cpp:406] Pooling1 <- Eltwise9
I1005 18:42:00.621892  9835 net.cpp:380] Pooling1 -> Pooling1
I1005 18:42:00.622035  9835 net.cpp:122] Setting up Pooling1
I1005 18:42:00.622042  9835 net.cpp:129] Top shape: 100 64 1 1 (6400)
I1005 18:42:00.622045  9835 net.cpp:137] Memory required for data: 329619600
I1005 18:42:00.622047  9835 layer_factory.hpp:77] Creating layer InnerProduct1
I1005 18:42:00.622057  9835 net.cpp:84] Creating Layer InnerProduct1
I1005 18:42:00.622059  9835 net.cpp:406] InnerProduct1 <- Pooling1
I1005 18:42:00.622064  9835 net.cpp:380] InnerProduct1 -> InnerProduct1
I1005 18:42:00.622156  9835 net.cpp:122] Setting up InnerProduct1
I1005 18:42:00.622160  9835 net.cpp:129] Top shape: 100 10 (1000)
I1005 18:42:00.622169  9835 net.cpp:137] Memory required for data: 329623600
I1005 18:42:00.622174  9835 layer_factory.hpp:77] Creating layer SoftmaxWithLoss1
I1005 18:42:00.622179  9835 net.cpp:84] Creating Layer SoftmaxWithLoss1
I1005 18:42:00.622180  9835 net.cpp:406] SoftmaxWithLoss1 <- InnerProduct1
I1005 18:42:00.622184  9835 net.cpp:406] SoftmaxWithLoss1 <- Data2
I1005 18:42:00.622187  9835 net.cpp:380] SoftmaxWithLoss1 -> SoftmaxWithLoss1
…
I1005 18:42:00.624454  9835 net.cpp:294] The NetState phase (1) differed from the phase (0) specified by a rule in layer Data1
I1005 18:42:00.624820  9835 net.cpp:51] Initializing net from parameters: 
name: "resnet_cifar10"
state {
  phase: TEST
}
layer {
  name: "Data1"
  type: "Data"
  top: "Data1"
  top: "Data2"
  include {
    phase: TEST
  }
  transform_param {
    mean_file: "/home/x306/caffe/xn/PENLU/data/cifar10/mean.binaryproto"
  }
  data_param {
    source: "/home/x306/caffe/xn/PENLU/data/cifar10/cifar10_test_lmdb"
    batch_size: 100
    backend: LMDB
  }
}
layer {
  name: "Convolution1"
  type: "Convolution"
  bottom: "Data1"
  top: "Convolution1"
  param {
    lr_mult: 1
    decay_mult: 1
  }
  param {
    lr_mult: 2
    decay_mult: 0
  }
  convolution_param {
    num_output: 16
    pad: 1
    kernel_size: 3
    stride: 1
    weight_filler {
      type: "gaussian"
      std: 0.118
    }
    bias_filler {
      type: "constant"
      value: 0
    }
  }
}
layer {
  name: "BatchNorm1"
  type: "BatchNorm"
  bottom: "Convolution1"
  top: "Convolution1"
  param {
    lr_mult: 0
    decay_mult: 0
  }
  param {
    lr_mult: 0
    decay_mult: 0
  }
  param {
    lr_mult: 0
    decay_mult: 0
  }
}
layer {
  name: "Scale1"
  type: "Scale"
  bottom: "Convolution1"
  top: "Convolution1"
  scale_param {
    bias_term: true
  }
}
layer {
  name: "elu1"
  type: "ELU"
  bottom: "Convolution1"
  top: "Convolution1"
  elu_param {
    alpha: 0.25
  }
}
layer {
  name: "Convolution2"
  type: "Convolution"
  bottom: "Convolution1"
  top: "Convolution2"
  param {
    lr_mult: 1
    decay_mult: 1
  }
  param {
    lr_mult: 2
    decay_mult: 0
  }
  convolution_param {
    num_output: 16
    pad: 1
    kernel_size: 3
    stride: 1
    weight_filler {
      type: "gaussian"
      std: 0.118
    }
    bias_filler {
      type: "constant"
      value: 0
    }
  }
}
layer {
  name: "BatchNorm2"
  type: "BatchNorm"
  bottom: "Convolution2"
  top: "Convolution2"
  param {
    lr_mult: 0
    decay_mult: 0
  }
  param {
    lr_mult: 0
    decay_mult: 0
  }
  param {
    lr_mult: 0
    decay_mult: 0
  }
}
layer {
  name: "Scale2"
  type: "Scale"
  bottom: "Convolution2"
  top: "Convolution2"
  scale_param {
    bias_term: true
  }
}
layer {
  name: "elu2"
  type: "ELU"
  bottom: "Convolution2"
  top: "Convolution2"
  elu_param {
    alpha: 0.25
  }
}
layer {
  name: "Convolution3"
  type: "Convolution"
  bottom: "Convolution2"
  top: "Convolution3"
  param {
    lr_mult: 1
    decay_mult: 1
  }
  param {
    lr_mult: 2
    decay_mult: 0
  }
  convolution_param {
    num_output: 16
    pad: 1
    kernel_size: 3
    stride: 1
    weight_filler {
      type: "gaussian"
      std: 0.118
    }
    bias_filler {
      type: "constant"
      value: 0
    }
  }
}
layer {
  name: "BatchNorm3"
  type: "BatchNorm"
  bottom: "Convolution3"
  top: "Convolution3"
  param {
    lr_mult: 0
    decay_mult: 0
  }
  param {
    lr_mult: 0
    decay_mult: 0
  }
  param {
    lr_mult: 0
    decay_mult: 0
  }
}
layer {
  name: "Scale3"
  type: "Scale"
  bottom: "Convolution3"
  top: "Convolution3"
  scale_param {
    bias_term: true
  }
}
layer {
  name: "Eltwise1"
  type: "Eltwise"
  bottom: "Convolution1"
  bottom: "Convolution3"
  top: "Eltwise1"
  eltwise_param {
    operation: SUM
  }
}
layer {
  name: "elu3"
  type: "ELU"
  bottom: "Eltwise1"
  top: "Eltwise1"
  elu_param {
    alpha: 0.25
  }
}
layer {
  name: "Convolution4"
  type: "Convolution"
  bottom: "Eltwise1"
  top: "Convolution4"
  param {
    lr_mult: 1
    decay_mult: 1
  }
  param {
    lr_mult: 2
    decay_mult: 0
  }
  convolution_param {
    num_output: 16
    pad: 1
    kernel_size: 3
    stride: 1
    weight_filler {
      type: "gaussian"
      std: 0.118
    }
    bias_filler {
      type: "constant"
      value: 0
    }
  }
}
layer {
  name: "BatchNorm4"
  type: "BatchNorm"
  bottom: "Convolution4"
  top: "Convolution4"
  param {
    lr_mult: 0
    decay_mult: 0
  }
  param {
    lr_mult: 0
    decay_mult: 0
  }
  param {
    lr_mult: 0
    decay_mult: 0
  }
}
layer {
  name: "Scale4"
  type: "Scale"
  bottom: "Convolution4"
  top: "Convolution4"
  scale_param {
    bias_term: true
  }
}
layer {
  name: "elu4"
  type: "ELU"
  bottom: "Convolution4"
  top: "Convolution4"
  elu_param {
    alpha: 0.25
  }
}
layer {
  name: "Convolution5"
  type: "Convolution"
  bottom: "Convolution4"
  top: "Convolution5"
  param {
    lr_mult: 1
    decay_mult: 1
  }
  param {
    lr_mult: 2
    decay_mult: 0
  }
  convolution_param {
    num_output: 16
    pad: 1
    kernel_size: 3
    stride: 1
    weight_filler {
      type: "gaussian"
      std: 0.118
    }
    bias_filler {
      type: "constant"
      value: 0
    }
  }
}
layer {
  name: "BatchNorm5"
  type: "BatchNorm"
  bottom: "Convolution5"
  top: "Convolution5"
  param {
    lr_mult: 0
    decay_mult: 0
  }
  param {
    lr_mult: 0
    decay_mult: 0
  }
  param {
    lr_mult: 0
    decay_mult: 0
  }
}
layer {
  name: "Scale5"
  type: "Scale"
  bottom: "Convolution5"
  top: "Convolution5"
  scale_param {
    bias_term: true
  }
}
layer {
  name: "Eltwise2"
  type: "Eltwise"
  bottom: "Eltwise1"
  bottom: "Convolution5"
  top: "Eltwise2"
  eltwise_param {
    operation: SUM
  }
}
layer {
  name: "elu5"
  type: "ELU"
  bottom: "Eltwise2"
  top: "Eltwise2"
  elu_param {
    alpha: 0.25
  }
}
layer {
  name: "Convolution6"
  type: "Convolution"
  bottom: "Eltwise2"
  top: "Convolution6"
  param {
    lr_mult: 1
    decay_mult: 1
  }
  param {
    lr_mult: 2
    decay_mult: 0
  }
  convolution_param {
    num_output: 16
    pad: 1
    kernel_size: 3
    stride: 1
    weight_filler {
      type: "gaussian"
      std: 0.118
    }
    bias_filler {
      type: "constant"
      value: 0
    }
  }
}
layer {
  name: "BatchNorm6"
  type: "BatchNorm"
  bottom: "Convolution6"
  top: "Convolution6"
  param {
    lr_mult: 0
    decay_mult: 0
  }
  param {
    lr_mult: 0
    decay_mult: 0
  }
  param {
    lr_mult: 0
    decay_mult: 0
  }
}
layer {
  name: "Scale6"
  type: "Scale"
  bottom: "Convolution6"
  top: "Convolution6"
  scale_param {
    bias_term: true
  }
}
layer {
  name: "elu6"
  type: "ELU"
  bottom: "Convolution6"
  top: "Convolution6"
  elu_param {
    alpha: 0.25
  }
}
layer {
  name: "Convolution7"
  type: "Convolution"
  bottom: "Convolution6"
  top: "Convolution7"
  param {
    lr_mult: 1
    decay_mult: 1
  }
  param {
    lr_mult: 2
    decay_mult: 0
  }
  convolution_param {
    num_output: 16
    pad: 1
    kernel_size: 3
    stride: 1
    weight_filler {
      type: "gaussian"
      std: 0.118
    }
    bias_filler {
      type: "constant"
      value: 0
    }
  }
}
layer {
  name: "BatchNorm7"
  type: "BatchNorm"
  bottom: "Convolution7"
  top: "Convolution7"
  param {
    lr_mult: 0
    decay_mult: 0
  }
  param {
    lr_mult: 0
    decay_mult: 0
  }
  param {
    lr_mult: 0
    decay_mult: 0
  }
}
layer {
  name: "Scale7"
  type: "Scale"
  bottom: "Convolution7"
  top: "Convolution7"
  scale_param {
    bias_term: true
  }
}
layer {
  name: "Eltwise3"
  type: "Eltwise"
  bottom: "Eltwise2"
  bottom: "Convolution7"
  top: "Eltwise3"
  eltwise_param {
    operation: SUM
  }
}
layer {
  name: "elu7"
  type: "ELU"
  bottom: "Eltwise3"
  top: "Eltwise3"
  elu_param {
    alpha: 0.25
  }
}
layer {
  name: "Convolution8"
  type: "Convolution"
  bottom: "Eltwise3"
  top: "Convolution8"
  param {
    lr_mult: 1
    decay_mult: 1
  }
  param {
    lr_mult: 2
    decay_mult: 0
  }
  convolution_param {
    num_output: 32
    pad: 0
    kernel_size: 1
    stride: 2
    weight_filler {
      type: "gaussian"
      std: 0.25
    }
    bias_filler {
      type: "constant"
      value: 0
    }
  }
}
layer {
  name: "BatchNorm8"
  type: "BatchNorm"
  bottom: "Convolution8"
  top: "Convolution8"
  param {
    lr_mult: 0
    decay_mult: 0
  }
  param {
    lr_mult: 0
    decay_mult: 0
  }
  param {
    lr_mult: 0
    decay_mult: 0
  }
}
layer {
  name: "Scale8"
  type: "Scale"
  bottom: "Convolution8"
  top: "Convolution8"
  scale_param {
    bias_term: true
  }
}
layer {
  name: "Convolution9"
  type: "Convolution"
  bottom: "Eltwise3"
  top: "Convolution9"
  param {
    lr_mult: 1
    decay_mult: 1
  }
  param {
    lr_mult: 2
    decay_mult: 0
  }
  convolution_param {
    num_output: 32
    pad: 1
    kernel_size: 3
    stride: 2
    weight_filler {
      type: "gaussian"
      std: 0.083
    }
    bias_filler {
      type: "constant"
      value: 0
    }
  }
}
layer {
  name: "BatchNorm9"
  type: "BatchNorm"
  bottom: "Convolution9"
  top: "Convolution9"
  param {
    lr_mult: 0
    decay_mult: 0
  }
  param {
    lr_mult: 0
    decay_mult: 0
  }
  param {
    lr_mult: 0
    decay_mult: 0
  }
}
layer {
  name: "Scale9"
  type: "Scale"
  bottom: "Convolution9"
  top: "Convolution9"
  scale_param {
    bias_term: true
  }
}
layer {
  name: "elu8"
  type: "ELU"
  bottom: "Convolution9"
  top: "Convolution9"
  elu_param {
    alpha: 0.25
  }
}
layer {
  name: "Convolution10"
  type: "Convolution"
  bottom: "Convolution9"
  top: "Convolution10"
  param {
    lr_mult: 1
    decay_mult: 1
  }
  param {
    lr_mult: 2
    decay_mult: 0
  }
  convolution_param {
    num_output: 32
    pad: 1
    kernel_size: 3
    stride: 1
    weight_filler {
      type: "gaussian"
      std: 0.083
    }
    bias_filler {
      type: "constant"
      value: 0
    }
  }
}
layer {
  name: "BatchNorm10"
  type: "BatchNorm"
  bottom: "Convolution10"
  top: "Convolution10"
  param {
    lr_mult: 0
    decay_mult: 0
  }
  param {
    lr_mult: 0
    decay_mult: 0
  }
  param {
    lr_mult: 0
    decay_mult: 0
  }
}
layer {
  name: "Scale10"
  type: "Scale"
  bottom: "Convolution10"
  top: "Convolution10"
  scale_param {
    bias_term: true
  }
}
layer {
  name: "Eltwise4"
  type: "Eltwise"
  bottom: "Convolution8"
  bottom: "Convolution10"
  top: "Eltwise4"
  eltwise_param {
    operation: SUM
  }
}
layer {
  name: "elu9"
  type: "ELU"
  bottom: "Eltwise4"
  top: "Eltwise4"
  elu_param {
    alpha: 0.25
  }
}
layer {
  name: "Convolution11"
  type: "Convolution"
  bottom: "Eltwise4"
  top: "Convolution11"
  param {
    lr_mult: 1
    decay_mult: 1
  }
  param {
    lr_mult: 2
    decay_mult: 0
  }
  convolution_param {
    num_output: 32
    pad: 1
    kernel_size: 3
    stride: 1
    weight_filler {
      type: "gaussian"
      std: 0.083
    }
    bias_filler {
      type: "constant"
      value: 0
    }
  }
}
layer {
  name: "BatchNorm11"
  type: "BatchNorm"
  bottom: "Convolution11"
  top: "Convolution11"
  param {
    lr_mult: 0
    decay_mult: 0
  }
  param {
    lr_mult: 0
    decay_mult: 0
  }
  param {
    lr_mult: 0
    decay_mult: 0
  }
}
layer {
  name: "Scale11"
  type: "Scale"
  bottom: "Convolution11"
  top: "Convolution11"
  scale_param {
    bias_term: true
  }
}
layer {
  name: "elu10"
  type: "ELU"
  bottom: "Convolution11"
  top: "Convolution11"
  elu_param {
    alpha: 0.25
  }
}
layer {
  name: "Convolution12"
  type: "Convolution"
  bottom: "Convolution11"
  top: "Convolution12"
  param {
    lr_mult: 1
    decay_mult: 1
  }
  param {
    lr_mult: 2
    decay_mult: 0
  }
  convolution_param {
    num_output: 32
    pad: 1
    kernel_size: 3
    stride: 1
    weight_filler {
      type: "gaussian"
      std: 0.083
    }
    bias_filler {
      type: "constant"
      value: 0
    }
  }
}
layer {
  name: "BatchNorm12"
  type: "BatchNorm"
  bottom: "Convolution12"
  top: "Convolution12"
  param {
    lr_mult: 0
    decay_mult: 0
  }
  param {
    lr_mult: 0
    decay_mult: 0
  }
  param {
    lr_mult: 0
    decay_mult: 0
  }
}
layer {
  name: "Scale12"
  type: "Scale"
  bottom: "Convolution12"
  top: "Convolution12"
  scale_param {
    bias_term: true
  }
}
layer {
  name: "Eltwise5"
  type: "Eltwise"
  bottom: "Eltwise4"
  bottom: "Convolution12"
  top: "Eltwise5"
  eltwise_param {
    operation: SUM
  }
}
layer {
  name: "elu11"
  type: "ELU"
  bottom: "Eltwise5"
  top: "Eltwise5"
  elu_param {
    alpha: 0.25
  }
}
layer {
  name: "Convolution13"
  type: "Convolution"
  bottom: "Eltwise5"
  top: "Convolution13"
  param {
    lr_mult: 1
    decay_mult: 1
  }
  param {
    lr_mult: 2
    decay_mult: 0
  }
  convolution_param {
    num_output: 32
    pad: 1
    kernel_size: 3
    stride: 1
    weight_filler {
      type: "gaussian"
      std: 0.083
    }
    bias_filler {
      type: "constant"
      value: 0
    }
  }
}
layer {
  name: "BatchNorm13"
  type: "BatchNorm"
  bottom: "Convolution13"
  top: "Convolution13"
  param {
    lr_mult: 0
    decay_mult: 0
  }
  param {
    lr_mult: 0
    decay_mult: 0
  }
  param {
    lr_mult: 0
    decay_mult: 0
  }
}
layer {
  name: "Scale13"
  type: "Scale"
  bottom: "Convolution13"
  top: "Convolution13"
  scale_param {
    bias_term: true
  }
}
layer {
  name: "elu12"
  type: "ELU"
  bottom: "Convolution13"
  top: "Convolution13"
  elu_param {
    alpha: 0.25
  }
}
layer {
  name: "Convolution14"
  type: "Convolution"
  bottom: "Convolution13"
  top: "Convolution14"
  param {
    lr_mult: 1
    decay_mult: 1
  }
  param {
    lr_mult: 2
    decay_mult: 0
  }
  convolution_param {
    num_output: 32
    pad: 1
    kernel_size: 3
    stride: 1
    weight_filler {
      type: "gaussian"
      std: 0.083
    }
    bias_filler {
      type: "constant"
      value: 0
    }
  }
}
layer {
  name: "BatchNorm14"
  type: "BatchNorm"
  bottom: "Convolution14"
  top: "Convolution14"
  param {
    lr_mult: 0
    decay_mult: 0
  }
  param {
    lr_mult: 0
    decay_mult: 0
  }
  param {
    lr_mult: 0
    decay_mult: 0
  }
}
layer {
  name: "Scale14"
  type: "Scale"
  bottom: "Convolution14"
  top: "Convolution14"
  scale_param {
    bias_term: true
  }
}
layer {
  name: "Eltwise6"
  type: "Eltwise"
  bottom: "Eltwise5"
  bottom: "Convolution14"
  top: "Eltwise6"
  eltwise_param {
    operation: SUM
  }
}
layer {
  name: "elu13"
  type: "ELU"
  bottom: "Eltwise6"
  top: "Eltwise6"
  elu_param {
    alpha: 0.25
  }
}
layer {
  name: "Convolution15"
  type: "Convolution"
  bottom: "Eltwise6"
  top: "Convolution15"
  param {
    lr_mult: 1
    decay_mult: 1
  }
  param {
    lr_mult: 2
    decay_mult: 0
  }
  convolution_param {
    num_output: 64
    pad: 0
    kernel_size: 1
    stride: 2
    weight_filler {
      type: "gaussian"
      std: 0.17677669
    }
    bias_filler {
      type: "constant"
      value: 0
    }
  }
}
layer {
  name: "BatchNorm15"
  type: "BatchNorm"
  bottom: "Convolution15"
  top: "Convolution15"
  param {
    lr_mult: 0
    decay_mult: 0
  }
  param {
    lr_mult: 0
    decay_mult: 0
  }
  param {
    lr_mult: 0
    decay_mult: 0
  }
}
layer {
  name: "Scale15"
  type: "Scale"
  bottom: "Convolution15"
  top: "Convolution15"
  scale_param {
    bias_term: true
  }
}
layer {
  name: "Convolution16"
  type: "Convolution"
  bottom: "Eltwise6"
  top: "Convolution16"
  param {
    lr_mult: 1
    decay_mult: 1
  }
  param {
    lr_mult: 2
    decay_mult: 0
  }
  convolution_param {
    num_output: 64
    pad: 1
    kernel_size: 3
    stride: 2
    weight_filler {
      type: "gaussian"
      std: 0.059
    }
    bias_filler {
      type: "constant"
      value: 0
    }
  }
}
layer {
  name: "BatchNorm16"
  type: "BatchNorm"
  bottom: "Convolution16"
  top: "Convolution16"
  param {
    lr_mult: 0
    decay_mult: 0
  }
  param {
    lr_mult: 0
    decay_mult: 0
  }
  param {
    lr_mult: 0
    decay_mult: 0
  }
}
layer {
  name: "Scale16"
  type: "Scale"
  bottom: "Convolution16"
  top: "Convolution16"
  scale_param {
    bias_term: true
  }
}
layer {
  name: "elu14"
  type: "ELU"
  bottom: "Convolution16"
  top: "Convolution16"
  elu_param {
    alpha: 0.25
  }
}
layer {
  name: "Convolution17"
  type: "Convolution"
  bottom: "Convolution16"
  top: "Convolution17"
  param {
    lr_mult: 1
    decay_mult: 1
  }
  param {
    lr_mult: 2
    decay_mult: 0
  }
  convolution_param {
    num_output: 64
    pad: 1
    kernel_size: 3
    stride: 1
    weight_filler {
      type: "gaussian"
      std: 0.059
    }
    bias_filler {
      type: "constant"
      value: 0
    }
  }
}
layer {
  name: "BatchNorm17"
  type: "BatchNorm"
  bottom: "Convolution17"
  top: "Convolution17"
  param {
    lr_mult: 0
    decay_mult: 0
  }
  param {
    lr_mult: 0
    decay_mult: 0
  }
  param {
    lr_mult: 0
    decay_mult: 0
  }
}
layer {
  name: "Scale17"
  type: "Scale"
  bottom: "Convolution17"
  top: "Convolution17"
  scale_param {
    bias_term: true
  }
}
layer {
  name: "Eltwise7"
  type: "Eltwise"
  bottom: "Convolution15"
  bottom: "Convolution17"
  top: "Eltwise7"
  eltwise_param {
    operation: SUM
  }
}
layer {
  name: "elu15"
  type: "ELU"
  bottom: "Eltwise7"
  top: "Eltwise7"
  elu_param {
    alpha: 0.25
  }
}
layer {
  name: "Convolution18"
  type: "Convolution"
  bottom: "Eltwise7"
  top: "Convolution18"
  param {
    lr_mult: 1
    decay_mult: 1
  }
  param {
    lr_mult: 2
    decay_mult: 0
  }
  convolution_param {
    num_output: 64
    pad: 1
    kernel_size: 3
    stride: 1
    weight_filler {
      type: "gaussian"
      std: 0.059
    }
    bias_filler {
      type: "constant"
      value: 0
    }
  }
}
layer {
  name: "BatchNorm18"
  type: "BatchNorm"
  bottom: "Convolution18"
  top: "Convolution18"
  param {
    lr_mult: 0
    decay_mult: 0
  }
  param {
    lr_mult: 0
    decay_mult: 0
  }
  param {
    lr_mult: 0
    decay_mult: 0
  }
}
layer {
  name: "Scale18"
  type: "Scale"
  bottom: "Convolution18"
  top: "Convolution18"
  scale_param {
    bias_term: true
  }
}
layer {
  name: "elu16"
  type: "ELU"
  bottom: "Convolution18"
  top: "Convolution18"
  elu_param {
    alpha: 0.25
  }
}
layer {
  name: "Convolution19"
  type: "Convolution"
  bottom: "Convolution18"
  top: "Convolution19"
  param {
    lr_mult: 1
    decay_mult: 1
  }
  param {
    lr_mult: 2
    decay_mult: 0
  }
  convolution_param {
    num_output: 64
    pad: 1
    kernel_size: 3
    stride: 1
    weight_filler {
      type: "gaussian"
      std: 0.059
    }
    bias_filler {
      type: "constant"
      value: 0
    }
  }
}
layer {
  name: "BatchNorm19"
  type: "BatchNorm"
  bottom: "Convolution19"
  top: "Convolution19"
  param {
    lr_mult: 0
    decay_mult: 0
  }
  param {
    lr_mult: 0
    decay_mult: 0
  }
  param {
    lr_mult: 0
    decay_mult: 0
  }
}
layer {
  name: "Scale19"
  type: "Scale"
  bottom: "Convolution19"
  top: "Convolution19"
  scale_param {
    bias_term: true
  }
}
layer {
  name: "Eltwise8"
  type: "Eltwise"
  bottom: "Eltwise7"
  bottom: "Convolution19"
  top: "Eltwise8"
  eltwise_param {
    operation: SUM
  }
}
layer {
  name: "elu17"
  type: "ELU"
  bottom: "Eltwise8"
  top: "Eltwise8"
  elu_param {
    alpha: 0.25
  }
}
layer {
  name: "Convolution20"
  type: "Convolution"
  bottom: "Eltwise8"
  top: "Convolution20"
  param {
    lr_mult: 1
    decay_mult: 1
  }
  param {
    lr_mult: 2
    decay_mult: 0
  }
  convolution_param {
    num_output: 64
    pad: 1
    kernel_size: 3
    stride: 1
    weight_filler {
      type: "gaussian"
      std: 0.059
    }
    bias_filler {
      type: "constant"
      value: 0
    }
  }
}
layer {
  name: "BatchNorm20"
  type: "BatchNorm"
  bottom: "Convolution20"
  top: "Convolution20"
  param {
    lr_mult: 0
    decay_mult: 0
  }
  param {
    lr_mult: 0
    decay_mult: 0
  }
  param {
    lr_mult: 0
    decay_mult: 0
  }
}
layer {
  name: "Scale20"
  type: "Scale"
  bottom: "Convolution20"
  top: "Convolution20"
  scale_param {
    bias_term: true
  }
}
layer {
  name: "elu18"
  type: "ELU"
  bottom: "Convolution20"
  top: "Convolution20"
  elu_param {
    alpha: 0.25
  }
}
layer {
  name: "Convolution21"
  type: "Convolution"
  bottom: "Convolution20"
  top: "Convolution21"
  param {
    lr_mult: 1
    decay_mult: 1
  }
  param {
    lr_mult: 2
    decay_mult: 0
  }
  convolution_param {
    num_output: 64
    pad: 1
    kernel_size: 3
    stride: 1
    weight_filler {
      type: "gaussian"
      std: 0.059
    }
    bias_filler {
      type: "constant"
      value: 0
    }
  }
}
layer {
  name: "BatchNorm21"
  type: "BatchNorm"
  bottom: "Convolution21"
  top: "Convolution21"
  param {
    lr_mult: 0
    decay_mult: 0
  }
  param {
    lr_mult: 0
    decay_mult: 0
  }
  param {
    lr_mult: 0
    decay_mult: 0
  }
}
layer {
  name: "Scale21"
  type: "Scale"
  bottom: "Convolution21"
  top: "Convolution21"
  scale_param {
    bias_term: true
  }
}
layer {
  name: "Eltwise9"
  type: "Eltwise"
  bottom: "Eltwise8"
  bottom: "Convolution21"
  top: "Eltwise9"
  eltwise_param {
    operation: SUM
  }
}
layer {
  name: "elu19"
  type: "ELU"
  bottom: "Eltwise9"
  top: "Eltwise9"
  elu_param {
    alpha: 0.25
  }
}
layer {
  name: "Pooling1"
  type: "Pooling"
  bottom: "Eltwise9"
  top: "Pooling1"
  pooling_param {
    pool: AVE
    global_pooling: true
  }
}
layer {
  name: "InnerProduct1"
  type: "InnerProduct"
  bottom: "Pooling1"
  top: "InnerProduct1"
  param {
    lr_mult: 1
    decay_mult: 1
  }
  param {
    lr_mult: 2
    decay_mult: 1
  }
  inner_product_param {
    num_output: 10
    weight_filler {
      type: "gaussian"
      std: 0.01
    }
    bias_filler {
      type: "constant"
      value: 0
    }
  }
}
layer {
  name: "SoftmaxWithLoss1"
  type: "SoftmaxWithLoss"
  bottom: "InnerProduct1"
  bottom: "Data2"
  top: "SoftmaxWithLoss1"
}
layer {
  name: "Accuracy1"
  type: "Accuracy"
  bottom: "InnerProduct1"
  bottom: "Data2"
  top: "Accuracy1"
  include {
    phase: TEST
  }
}
I1005 18:42:00.625053  9835 layer_factory.hpp:77] Creating layer Data1
I1005 18:42:00.625090  9835 db_lmdb.cpp:35] Opened lmdb /home/x306/caffe/xn/PENLU/data/cifar10/cifar10_test_lmdb
I1005 18:42:00.625100  9835 net.cpp:84] Creating Layer Data1
I1005 18:42:00.625104  9835 net.cpp:380] Data1 -> Data1
I1005 18:42:00.625110  9835 net.cpp:380] Data1 -> Data2
I1005 18:42:00.625115  9835 data_transformer.cpp:25] Loading mean file from: /home/x306/caffe/xn/PENLU/data/cifar10/mean.binaryproto
I1005 18:42:00.625226  9835 data_layer.cpp:45] output data size: 100,3,32,32
I1005 18:42:00.629118  9835 net.cpp:122] Setting up Data1
I1005 18:42:00.629139  9835 net.cpp:129] Top shape: 100 3 32 32 (307200)
I1005 18:42:00.629143  9835 net.cpp:129] Top shape: 100 (100)
I1005 18:42:00.629146  9835 net.cpp:137] Memory required for data: 1229200
I1005 18:42:00.629150  9835 layer_factory.hpp:77] Creating layer Data2_Data1_1_split
I1005 18:42:00.629159  9835 net.cpp:84] Creating Layer Data2_Data1_1_split
I1005 18:42:00.629163  9835 net.cpp:406] Data2_Data1_1_split <- Data2
I1005 18:42:00.629168  9835 net.cpp:380] Data2_Data1_1_split -> Data2_Data1_1_split_0
I1005 18:42:00.629174  9835 net.cpp:380] Data2_Data1_1_split -> Data2_Data1_1_split_1
I1005 18:42:00.629226  9835 net.cpp:122] Setting up Data2_Data1_1_split
I1005 18:42:00.629231  9835 net.cpp:129] Top shape: 100 (100)
I1005 18:42:00.629235  9835 net.cpp:129] Top shape: 100 (100)
I1005 18:42:00.629236  9835 net.cpp:137] Memory required for data: 1230000
I1005 18:42:00.629238  9835 layer_factory.hpp:77] Creating layer Convolution1
I1005 18:42:00.629261  9835 net.cpp:84] Creating Layer Convolution1
I1005 18:42:00.629264  9835 net.cpp:406] Convolution1 <- Data1
I1005 18:42:00.629268  9835 net.cpp:380] Convolution1 -> Convolution1
I1005 18:42:00.630400  9835 net.cpp:122] Setting up Convolution1
I1005 18:42:00.630409  9835 net.cpp:129] Top shape: 100 16 32 32 (1638400)
I1005 18:42:00.630412  9835 net.cpp:137] Memory required for data: 7783600
I1005 18:42:00.630420  9835 layer_factory.hpp:77] Creating layer BatchNorm1
I1005 18:42:00.630426  9835 net.cpp:84] Creating Layer BatchNorm1
I1005 18:42:00.630429  9835 net.cpp:406] BatchNorm1 <- Convolution1
I1005 18:42:00.630432  9835 net.cpp:367] BatchNorm1 -> Convolution1 (in-place)
I1005 18:42:00.630599  9835 net.cpp:122] Setting up BatchNorm1
I1005 18:42:00.630604  9835 net.cpp:129] Top shape: 100 16 32 32 (1638400)
I1005 18:42:00.630607  9835 net.cpp:137] Memory required for data: 14337200
I1005 18:42:00.630616  9835 layer_factory.hpp:77] Creating layer Scale1
I1005 18:42:00.630622  9835 net.cpp:84] Creating Layer Scale1
I1005 18:42:00.630625  9835 net.cpp:406] Scale1 <- Convolution1
I1005 18:42:00.630627  9835 net.cpp:367] Scale1 -> Convolution1 (in-place)
I1005 18:42:00.630656  9835 layer_factory.hpp:77] Creating layer Scale1
I1005 18:42:00.630731  9835 net.cpp:122] Setting up Scale1
I1005 18:42:00.630736  9835 net.cpp:129] Top shape: 100 16 32 32 (1638400)
I1005 18:42:00.630738  9835 net.cpp:137] Memory required for data: 20890800
I1005 18:42:00.630743  9835 layer_factory.hpp:77] Creating layer elu1
I1005 18:42:00.630748  9835 net.cpp:84] Creating Layer elu1
I1005 18:42:00.630749  9835 net.cpp:406] elu1 <- Convolution1
I1005 18:42:00.630754  9835 net.cpp:367] elu1 -> Convolution1 (in-place)
I1005 18:42:00.630759  9835 net.cpp:122] Setting up elu1
I1005 18:42:00.630761  9835 net.cpp:129] Top shape: 100 16 32 32 (1638400)
I1005 18:42:00.630764  9835 net.cpp:137] Memory required for data: 27444400
I1005 18:42:00.630766  9835 layer_factory.hpp:77] Creating layer Convolution1_elu1_0_split
I1005 18:42:00.630769  9835 net.cpp:84] Creating Layer Convolution1_elu1_0_split
I1005 18:42:00.630771  9835 net.cpp:406] Convolution1_elu1_0_split <- Convolution1
I1005 18:42:00.630775  9835 net.cpp:380] Convolution1_elu1_0_split -> Convolution1_elu1_0_split_0
I1005 18:42:00.630782  9835 net.cpp:380] Convolution1_elu1_0_split -> Convolution1_elu1_0_split_1
I1005 18:42:00.630808  9835 net.cpp:122] Setting up Convolution1_elu1_0_split
I1005 18:42:00.630813  9835 net.cpp:129] Top shape: 100 16 32 32 (1638400)
I1005 18:42:00.630816  9835 net.cpp:129] Top shape: 100 16 32 32 (1638400)
I1005 18:42:00.630818  9835 net.cpp:137] Memory required for data: 40551600
I1005 18:42:00.630820  9835 layer_factory.hpp:77] Creating layer Convolution2
I1005 18:42:00.630827  9835 net.cpp:84] Creating Layer Convolution2
I1005 18:42:00.630830  9835 net.cpp:406] Convolution2 <- Convolution1_elu1_0_split_0
I1005 18:42:00.630833  9835 net.cpp:380] Convolution2 -> Convolution2
I1005 18:42:00.631394  9835 net.cpp:122] Setting up Convolution2
I1005 18:42:00.631402  9835 net.cpp:129] Top shape: 100 16 32 32 (1638400)
I1005 18:42:00.631404  9835 net.cpp:137] Memory required for data: 47105200
I1005 18:42:00.631412  9835 layer_factory.hpp:77] Creating layer BatchNorm2
I1005 18:42:00.631422  9835 net.cpp:84] Creating Layer BatchNorm2
I1005 18:42:00.631424  9835 net.cpp:406] BatchNorm2 <- Convolution2
I1005 18:42:00.631428  9835 net.cpp:367] BatchNorm2 -> Convolution2 (in-place)
I1005 18:42:00.631567  9835 net.cpp:122] Setting up BatchNorm2
I1005 18:42:00.631572  9835 net.cpp:129] Top shape: 100 16 32 32 (1638400)
I1005 18:42:00.631573  9835 net.cpp:137] Memory required for data: 53658800
I1005 18:42:00.631578  9835 layer_factory.hpp:77] Creating layer Scale2
I1005 18:42:00.631583  9835 net.cpp:84] Creating Layer Scale2
I1005 18:42:00.631585  9835 net.cpp:406] Scale2 <- Convolution2
I1005 18:42:00.631589  9835 net.cpp:367] Scale2 -> Convolution2 (in-place)
I1005 18:42:00.631615  9835 layer_factory.hpp:77] Creating layer Scale2
I1005 18:42:00.631702  9835 net.cpp:122] Setting up Scale2
I1005 18:42:00.631708  9835 net.cpp:129] Top shape: 100 16 32 32 (1638400)
I1005 18:42:00.631711  9835 net.cpp:137] Memory required for data: 60212400
I1005 18:42:00.631714  9835 layer_factory.hpp:77] Creating layer elu2
I1005 18:42:00.631718  9835 net.cpp:84] Creating Layer elu2
I1005 18:42:00.631721  9835 net.cpp:406] elu2 <- Convolution2
I1005 18:42:00.631724  9835 net.cpp:367] elu2 -> Convolution2 (in-place)
I1005 18:42:00.631728  9835 net.cpp:122] Setting up elu2
I1005 18:42:00.631731  9835 net.cpp:129] Top shape: 100 16 32 32 (1638400)
I1005 18:42:00.631733  9835 net.cpp:137] Memory required for data: 66766000
I1005 18:42:00.631736  9835 layer_factory.hpp:77] Creating layer Convolution3
I1005 18:42:00.631742  9835 net.cpp:84] Creating Layer Convolution3
I1005 18:42:00.631744  9835 net.cpp:406] Convolution3 <- Convolution2
I1005 18:42:00.631747  9835 net.cpp:380] Convolution3 -> Convolution3
I1005 18:42:00.632714  9835 net.cpp:122] Setting up Convolution3
I1005 18:42:00.632722  9835 net.cpp:129] Top shape: 100 16 32 32 (1638400)
I1005 18:42:00.632725  9835 net.cpp:137] Memory required for data: 73319600
I1005 18:42:00.632730  9835 layer_factory.hpp:77] Creating layer BatchNorm3
I1005 18:42:00.632736  9835 net.cpp:84] Creating Layer BatchNorm3
I1005 18:42:00.632740  9835 net.cpp:406] BatchNorm3 <- Convolution3
I1005 18:42:00.632742  9835 net.cpp:367] BatchNorm3 -> Convolution3 (in-place)
I1005 18:42:00.632875  9835 net.cpp:122] Setting up BatchNorm3
I1005 18:42:00.632881  9835 net.cpp:129] Top shape: 100 16 32 32 (1638400)
I1005 18:42:00.632884  9835 net.cpp:137] Memory required for data: 79873200
I1005 18:42:00.632890  9835 layer_factory.hpp:77] Creating layer Scale3
I1005 18:42:00.632895  9835 net.cpp:84] Creating Layer Scale3
I1005 18:42:00.632897  9835 net.cpp:406] Scale3 <- Convolution3
I1005 18:42:00.632900  9835 net.cpp:367] Scale3 -> Convolution3 (in-place)
I1005 18:42:00.632927  9835 layer_factory.hpp:77] Creating layer Scale3
I1005 18:42:00.633007  9835 net.cpp:122] Setting up Scale3
I1005 18:42:00.633011  9835 net.cpp:129] Top shape: 100 16 32 32 (1638400)
I1005 18:42:00.633013  9835 net.cpp:137] Memory required for data: 86426800
I1005 18:42:00.633018  9835 layer_factory.hpp:77] Creating layer Eltwise1
I1005 18:42:00.633023  9835 net.cpp:84] Creating Layer Eltwise1
I1005 18:42:00.633025  9835 net.cpp:406] Eltwise1 <- Convolution1_elu1_0_split_1
I1005 18:42:00.633028  9835 net.cpp:406] Eltwise1 <- Convolution3
I1005 18:42:00.633034  9835 net.cpp:380] Eltwise1 -> Eltwise1
I1005 18:42:00.633050  9835 net.cpp:122] Setting up Eltwise1
I1005 18:42:00.633054  9835 net.cpp:129] Top shape: 100 16 32 32 (1638400)
I1005 18:42:00.633056  9835 net.cpp:137] Memory required for data: 92980400
I1005 18:42:00.633059  9835 layer_factory.hpp:77] Creating layer elu3
I1005 18:42:00.633062  9835 net.cpp:84] Creating Layer elu3
I1005 18:42:00.633064  9835 net.cpp:406] elu3 <- Eltwise1
I1005 18:42:00.633067  9835 net.cpp:367] elu3 -> Eltwise1 (in-place)
I1005 18:42:00.633071  9835 net.cpp:122] Setting up elu3
I1005 18:42:00.633074  9835 net.cpp:129] Top shape: 100 16 32 32 (1638400)
I1005 18:42:00.633076  9835 net.cpp:137] Memory required for data: 99534000
I1005 18:42:00.633078  9835 layer_factory.hpp:77] Creating layer Eltwise1_elu3_0_split
I1005 18:42:00.633083  9835 net.cpp:84] Creating Layer Eltwise1_elu3_0_split
I1005 18:42:00.633085  9835 net.cpp:406] Eltwise1_elu3_0_split <- Eltwise1
I1005 18:42:00.633088  9835 net.cpp:380] Eltwise1_elu3_0_split -> Eltwise1_elu3_0_split_0
I1005 18:42:00.633091  9835 net.cpp:380] Eltwise1_elu3_0_split -> Eltwise1_elu3_0_split_1
I1005 18:42:00.633114  9835 net.cpp:122] Setting up Eltwise1_elu3_0_split
I1005 18:42:00.633117  9835 net.cpp:129] Top shape: 100 16 32 32 (1638400)
I1005 18:42:00.633121  9835 net.cpp:129] Top shape: 100 16 32 32 (1638400)
I1005 18:42:00.633122  9835 net.cpp:137] Memory required for data: 112641200
I1005 18:42:00.633124  9835 layer_factory.hpp:77] Creating layer Convolution4
I1005 18:42:00.633131  9835 net.cpp:84] Creating Layer Convolution4
I1005 18:42:00.633139  9835 net.cpp:406] Convolution4 <- Eltwise1_elu3_0_split_0
I1005 18:42:00.633144  9835 net.cpp:380] Convolution4 -> Convolution4
I1005 18:42:00.634130  9835 net.cpp:122] Setting up Convolution4
I1005 18:42:00.634140  9835 net.cpp:129] Top shape: 100 16 32 32 (1638400)
I1005 18:42:00.634143  9835 net.cpp:137] Memory required for data: 119194800
I1005 18:42:00.634148  9835 layer_factory.hpp:77] Creating layer BatchNorm4
I1005 18:42:00.634155  9835 net.cpp:84] Creating Layer BatchNorm4
I1005 18:42:00.634156  9835 net.cpp:406] BatchNorm4 <- Convolution4
I1005 18:42:00.634160  9835 net.cpp:367] BatchNorm4 -> Convolution4 (in-place)
I1005 18:42:00.634299  9835 net.cpp:122] Setting up BatchNorm4
I1005 18:42:00.634305  9835 net.cpp:129] Top shape: 100 16 32 32 (1638400)
I1005 18:42:00.634308  9835 net.cpp:137] Memory required for data: 125748400
I1005 18:42:00.634312  9835 layer_factory.hpp:77] Creating layer Scale4
I1005 18:42:00.634317  9835 net.cpp:84] Creating Layer Scale4
I1005 18:42:00.634320  9835 net.cpp:406] Scale4 <- Convolution4
I1005 18:42:00.634322  9835 net.cpp:367] Scale4 -> Convolution4 (in-place)
I1005 18:42:00.634351  9835 layer_factory.hpp:77] Creating layer Scale4
I1005 18:42:00.634426  9835 net.cpp:122] Setting up Scale4
I1005 18:42:00.634431  9835 net.cpp:129] Top shape: 100 16 32 32 (1638400)
I1005 18:42:00.634433  9835 net.cpp:137] Memory required for data: 132302000
I1005 18:42:00.634438  9835 layer_factory.hpp:77] Creating layer elu4
I1005 18:42:00.634443  9835 net.cpp:84] Creating Layer elu4
I1005 18:42:00.634445  9835 net.cpp:406] elu4 <- Convolution4
I1005 18:42:00.634449  9835 net.cpp:367] elu4 -> Convolution4 (in-place)
I1005 18:42:00.634454  9835 net.cpp:122] Setting up elu4
I1005 18:42:00.634457  9835 net.cpp:129] Top shape: 100 16 32 32 (1638400)
I1005 18:42:00.634459  9835 net.cpp:137] Memory required for data: 138855600
I1005 18:42:00.634461  9835 layer_factory.hpp:77] Creating layer Convolution5
I1005 18:42:00.634469  9835 net.cpp:84] Creating Layer Convolution5
I1005 18:42:00.634470  9835 net.cpp:406] Convolution5 <- Convolution4
I1005 18:42:00.634474  9835 net.cpp:380] Convolution5 -> Convolution5
I1005 18:42:00.635815  9835 net.cpp:122] Setting up Convolution5
I1005 18:42:00.635824  9835 net.cpp:129] Top shape: 100 16 32 32 (1638400)
I1005 18:42:00.635828  9835 net.cpp:137] Memory required for data: 145409200
I1005 18:42:00.635833  9835 layer_factory.hpp:77] Creating layer BatchNorm5
I1005 18:42:00.635838  9835 net.cpp:84] Creating Layer BatchNorm5
I1005 18:42:00.635840  9835 net.cpp:406] BatchNorm5 <- Convolution5
I1005 18:42:00.635844  9835 net.cpp:367] BatchNorm5 -> Convolution5 (in-place)
I1005 18:42:00.635982  9835 net.cpp:122] Setting up BatchNorm5
I1005 18:42:00.635987  9835 net.cpp:129] Top shape: 100 16 32 32 (1638400)
I1005 18:42:00.635988  9835 net.cpp:137] Memory required for data: 151962800
I1005 18:42:00.635996  9835 layer_factory.hpp:77] Creating layer Scale5
I1005 18:42:00.636000  9835 net.cpp:84] Creating Layer Scale5
I1005 18:42:00.636003  9835 net.cpp:406] Scale5 <- Convolution5
I1005 18:42:00.636005  9835 net.cpp:367] Scale5 -> Convolution5 (in-place)
I1005 18:42:00.636034  9835 layer_factory.hpp:77] Creating layer Scale5
I1005 18:42:00.636107  9835 net.cpp:122] Setting up Scale5
I1005 18:42:00.636112  9835 net.cpp:129] Top shape: 100 16 32 32 (1638400)
I1005 18:42:00.636114  9835 net.cpp:137] Memory required for data: 158516400
I1005 18:42:00.636117  9835 layer_factory.hpp:77] Creating layer Eltwise2
I1005 18:42:00.636122  9835 net.cpp:84] Creating Layer Eltwise2
I1005 18:42:00.636124  9835 net.cpp:406] Eltwise2 <- Eltwise1_elu3_0_split_1
I1005 18:42:00.636127  9835 net.cpp:406] Eltwise2 <- Convolution5
I1005 18:42:00.636132  9835 net.cpp:380] Eltwise2 -> Eltwise2
I1005 18:42:00.636147  9835 net.cpp:122] Setting up Eltwise2
I1005 18:42:00.636149  9835 net.cpp:129] Top shape: 100 16 32 32 (1638400)
I1005 18:42:00.636152  9835 net.cpp:137] Memory required for data: 165070000
I1005 18:42:00.636153  9835 layer_factory.hpp:77] Creating layer elu5
I1005 18:42:00.636164  9835 net.cpp:84] Creating Layer elu5
I1005 18:42:00.636167  9835 net.cpp:406] elu5 <- Eltwise2
I1005 18:42:00.636170  9835 net.cpp:367] elu5 -> Eltwise2 (in-place)
I1005 18:42:00.636174  9835 net.cpp:122] Setting up elu5
I1005 18:42:00.636178  9835 net.cpp:129] Top shape: 100 16 32 32 (1638400)
I1005 18:42:00.636179  9835 net.cpp:137] Memory required for data: 171623600
I1005 18:42:00.636181  9835 layer_factory.hpp:77] Creating layer Eltwise2_elu5_0_split
I1005 18:42:00.636185  9835 net.cpp:84] Creating Layer Eltwise2_elu5_0_split
I1005 18:42:00.636188  9835 net.cpp:406] Eltwise2_elu5_0_split <- Eltwise2
I1005 18:42:00.636189  9835 net.cpp:380] Eltwise2_elu5_0_split -> Eltwise2_elu5_0_split_0
I1005 18:42:00.636193  9835 net.cpp:380] Eltwise2_elu5_0_split -> Eltwise2_elu5_0_split_1
I1005 18:42:00.636219  9835 net.cpp:122] Setting up Eltwise2_elu5_0_split
I1005 18:42:00.636222  9835 net.cpp:129] Top shape: 100 16 32 32 (1638400)
I1005 18:42:00.636225  9835 net.cpp:129] Top shape: 100 16 32 32 (1638400)
I1005 18:42:00.636227  9835 net.cpp:137] Memory required for data: 184730800
I1005 18:42:00.636230  9835 layer_factory.hpp:77] Creating layer Convolution6
I1005 18:42:00.636236  9835 net.cpp:84] Creating Layer Convolution6
I1005 18:42:00.636240  9835 net.cpp:406] Convolution6 <- Eltwise2_elu5_0_split_0
I1005 18:42:00.636242  9835 net.cpp:380] Convolution6 -> Convolution6
I1005 18:42:00.637150  9835 net.cpp:122] Setting up Convolution6
I1005 18:42:00.637158  9835 net.cpp:129] Top shape: 100 16 32 32 (1638400)
I1005 18:42:00.637161  9835 net.cpp:137] Memory required for data: 191284400
I1005 18:42:00.637166  9835 layer_factory.hpp:77] Creating layer BatchNorm6
I1005 18:42:00.637171  9835 net.cpp:84] Creating Layer BatchNorm6
I1005 18:42:00.637173  9835 net.cpp:406] BatchNorm6 <- Convolution6
I1005 18:42:00.637176  9835 net.cpp:367] BatchNorm6 -> Convolution6 (in-place)
I1005 18:42:00.637312  9835 net.cpp:122] Setting up BatchNorm6
I1005 18:42:00.637317  9835 net.cpp:129] Top shape: 100 16 32 32 (1638400)
I1005 18:42:00.637320  9835 net.cpp:137] Memory required for data: 197838000
I1005 18:42:00.637323  9835 layer_factory.hpp:77] Creating layer Scale6
I1005 18:42:00.637327  9835 net.cpp:84] Creating Layer Scale6
I1005 18:42:00.637331  9835 net.cpp:406] Scale6 <- Convolution6
I1005 18:42:00.637333  9835 net.cpp:367] Scale6 -> Convolution6 (in-place)
I1005 18:42:00.637361  9835 layer_factory.hpp:77] Creating layer Scale6
I1005 18:42:00.637434  9835 net.cpp:122] Setting up Scale6
I1005 18:42:00.637439  9835 net.cpp:129] Top shape: 100 16 32 32 (1638400)
I1005 18:42:00.637440  9835 net.cpp:137] Memory required for data: 204391600
I1005 18:42:00.637444  9835 layer_factory.hpp:77] Creating layer elu6
I1005 18:42:00.637449  9835 net.cpp:84] Creating Layer elu6
I1005 18:42:00.637450  9835 net.cpp:406] elu6 <- Convolution6
I1005 18:42:00.637454  9835 net.cpp:367] elu6 -> Convolution6 (in-place)
I1005 18:42:00.637457  9835 net.cpp:122] Setting up elu6
I1005 18:42:00.637460  9835 net.cpp:129] Top shape: 100 16 32 32 (1638400)
I1005 18:42:00.637462  9835 net.cpp:137] Memory required for data: 210945200
I1005 18:42:00.637465  9835 layer_factory.hpp:77] Creating layer Convolution7
I1005 18:42:00.637470  9835 net.cpp:84] Creating Layer Convolution7
I1005 18:42:00.637472  9835 net.cpp:406] Convolution7 <- Convolution6
I1005 18:42:00.637477  9835 net.cpp:380] Convolution7 -> Convolution7
I1005 18:42:00.638372  9835 net.cpp:122] Setting up Convolution7
I1005 18:42:00.638381  9835 net.cpp:129] Top shape: 100 16 32 32 (1638400)
I1005 18:42:00.638383  9835 net.cpp:137] Memory required for data: 217498800
I1005 18:42:00.638388  9835 layer_factory.hpp:77] Creating layer BatchNorm7
I1005 18:42:00.638394  9835 net.cpp:84] Creating Layer BatchNorm7
I1005 18:42:00.638397  9835 net.cpp:406] BatchNorm7 <- Convolution7
I1005 18:42:00.638401  9835 net.cpp:367] BatchNorm7 -> Convolution7 (in-place)
I1005 18:42:00.638566  9835 net.cpp:122] Setting up BatchNorm7
I1005 18:42:00.638571  9835 net.cpp:129] Top shape: 100 16 32 32 (1638400)
I1005 18:42:00.638581  9835 net.cpp:137] Memory required for data: 224052400
I1005 18:42:00.638586  9835 layer_factory.hpp:77] Creating layer Scale7
I1005 18:42:00.638589  9835 net.cpp:84] Creating Layer Scale7
I1005 18:42:00.638592  9835 net.cpp:406] Scale7 <- Convolution7
I1005 18:42:00.638595  9835 net.cpp:367] Scale7 -> Convolution7 (in-place)
I1005 18:42:00.638623  9835 layer_factory.hpp:77] Creating layer Scale7
I1005 18:42:00.638697  9835 net.cpp:122] Setting up Scale7
I1005 18:42:00.638701  9835 net.cpp:129] Top shape: 100 16 32 32 (1638400)
I1005 18:42:00.638703  9835 net.cpp:137] Memory required for data: 230606000
I1005 18:42:00.638707  9835 layer_factory.hpp:77] Creating layer Eltwise3
I1005 18:42:00.638711  9835 net.cpp:84] Creating Layer Eltwise3
I1005 18:42:00.638713  9835 net.cpp:406] Eltwise3 <- Eltwise2_elu5_0_split_1
I1005 18:42:00.638716  9835 net.cpp:406] Eltwise3 <- Convolution7
I1005 18:42:00.638720  9835 net.cpp:380] Eltwise3 -> Eltwise3
I1005 18:42:00.638736  9835 net.cpp:122] Setting up Eltwise3
I1005 18:42:00.638738  9835 net.cpp:129] Top shape: 100 16 32 32 (1638400)
I1005 18:42:00.638741  9835 net.cpp:137] Memory required for data: 237159600
I1005 18:42:00.638742  9835 layer_factory.hpp:77] Creating layer elu7
I1005 18:42:00.638746  9835 net.cpp:84] Creating Layer elu7
I1005 18:42:00.638749  9835 net.cpp:406] elu7 <- Eltwise3
I1005 18:42:00.638751  9835 net.cpp:367] elu7 -> Eltwise3 (in-place)
I1005 18:42:00.638756  9835 net.cpp:122] Setting up elu7
I1005 18:42:00.638758  9835 net.cpp:129] Top shape: 100 16 32 32 (1638400)
I1005 18:42:00.638761  9835 net.cpp:137] Memory required for data: 243713200
I1005 18:42:00.638762  9835 layer_factory.hpp:77] Creating layer Eltwise3_elu7_0_split
I1005 18:42:00.638767  9835 net.cpp:84] Creating Layer Eltwise3_elu7_0_split
I1005 18:42:00.638768  9835 net.cpp:406] Eltwise3_elu7_0_split <- Eltwise3
I1005 18:42:00.638772  9835 net.cpp:380] Eltwise3_elu7_0_split -> Eltwise3_elu7_0_split_0
I1005 18:42:00.638775  9835 net.cpp:380] Eltwise3_elu7_0_split -> Eltwise3_elu7_0_split_1
I1005 18:42:00.638798  9835 net.cpp:122] Setting up Eltwise3_elu7_0_split
I1005 18:42:00.638803  9835 net.cpp:129] Top shape: 100 16 32 32 (1638400)
I1005 18:42:00.638805  9835 net.cpp:129] Top shape: 100 16 32 32 (1638400)
I1005 18:42:00.638808  9835 net.cpp:137] Memory required for data: 256820400
I1005 18:42:00.638809  9835 layer_factory.hpp:77] Creating layer Convolution8
I1005 18:42:00.638815  9835 net.cpp:84] Creating Layer Convolution8
I1005 18:42:00.638818  9835 net.cpp:406] Convolution8 <- Eltwise3_elu7_0_split_0
I1005 18:42:00.638821  9835 net.cpp:380] Convolution8 -> Convolution8
I1005 18:42:00.639693  9835 net.cpp:122] Setting up Convolution8
I1005 18:42:00.639700  9835 net.cpp:129] Top shape: 100 32 16 16 (819200)
I1005 18:42:00.639703  9835 net.cpp:137] Memory required for data: 260097200
I1005 18:42:00.639708  9835 layer_factory.hpp:77] Creating layer BatchNorm8
I1005 18:42:00.639713  9835 net.cpp:84] Creating Layer BatchNorm8
I1005 18:42:00.639715  9835 net.cpp:406] BatchNorm8 <- Convolution8
I1005 18:42:00.639719  9835 net.cpp:367] BatchNorm8 -> Convolution8 (in-place)
I1005 18:42:00.639848  9835 net.cpp:122] Setting up BatchNorm8
I1005 18:42:00.639853  9835 net.cpp:129] Top shape: 100 32 16 16 (819200)
I1005 18:42:00.639854  9835 net.cpp:137] Memory required for data: 263374000
I1005 18:42:00.639859  9835 layer_factory.hpp:77] Creating layer Scale8
I1005 18:42:00.639863  9835 net.cpp:84] Creating Layer Scale8
I1005 18:42:00.639865  9835 net.cpp:406] Scale8 <- Convolution8
I1005 18:42:00.639869  9835 net.cpp:367] Scale8 -> Convolution8 (in-place)
I1005 18:42:00.639894  9835 layer_factory.hpp:77] Creating layer Scale8
I1005 18:42:00.639968  9835 net.cpp:122] Setting up Scale8
I1005 18:42:00.639973  9835 net.cpp:129] Top shape: 100 32 16 16 (819200)
I1005 18:42:00.639976  9835 net.cpp:137] Memory required for data: 266650800
I1005 18:42:00.639979  9835 layer_factory.hpp:77] Creating layer Convolution9
I1005 18:42:00.639986  9835 net.cpp:84] Creating Layer Convolution9
I1005 18:42:00.639994  9835 net.cpp:406] Convolution9 <- Eltwise3_elu7_0_split_1
I1005 18:42:00.639998  9835 net.cpp:380] Convolution9 -> Convolution9
I1005 18:42:00.640954  9835 net.cpp:122] Setting up Convolution9
I1005 18:42:00.640962  9835 net.cpp:129] Top shape: 100 32 16 16 (819200)
I1005 18:42:00.640964  9835 net.cpp:137] Memory required for data: 269927600
I1005 18:42:00.640969  9835 layer_factory.hpp:77] Creating layer BatchNorm9
I1005 18:42:00.640974  9835 net.cpp:84] Creating Layer BatchNorm9
I1005 18:42:00.640976  9835 net.cpp:406] BatchNorm9 <- Convolution9
I1005 18:42:00.640981  9835 net.cpp:367] BatchNorm9 -> Convolution9 (in-place)
I1005 18:42:00.641113  9835 net.cpp:122] Setting up BatchNorm9
I1005 18:42:00.641118  9835 net.cpp:129] Top shape: 100 32 16 16 (819200)
I1005 18:42:00.641119  9835 net.cpp:137] Memory required for data: 273204400
I1005 18:42:00.641124  9835 layer_factory.hpp:77] Creating layer Scale9
I1005 18:42:00.641129  9835 net.cpp:84] Creating Layer Scale9
I1005 18:42:00.641130  9835 net.cpp:406] Scale9 <- Convolution9
I1005 18:42:00.641134  9835 net.cpp:367] Scale9 -> Convolution9 (in-place)
I1005 18:42:00.641161  9835 layer_factory.hpp:77] Creating layer Scale9
I1005 18:42:00.641237  9835 net.cpp:122] Setting up Scale9
I1005 18:42:00.641240  9835 net.cpp:129] Top shape: 100 32 16 16 (819200)
I1005 18:42:00.641242  9835 net.cpp:137] Memory required for data: 276481200
I1005 18:42:00.641247  9835 layer_factory.hpp:77] Creating layer elu8
I1005 18:42:00.641249  9835 net.cpp:84] Creating Layer elu8
I1005 18:42:00.641252  9835 net.cpp:406] elu8 <- Convolution9
I1005 18:42:00.641257  9835 net.cpp:367] elu8 -> Convolution9 (in-place)
I1005 18:42:00.641260  9835 net.cpp:122] Setting up elu8
I1005 18:42:00.641263  9835 net.cpp:129] Top shape: 100 32 16 16 (819200)
I1005 18:42:00.641265  9835 net.cpp:137] Memory required for data: 279758000
I1005 18:42:00.641268  9835 layer_factory.hpp:77] Creating layer Convolution10
I1005 18:42:00.641273  9835 net.cpp:84] Creating Layer Convolution10
I1005 18:42:00.641275  9835 net.cpp:406] Convolution10 <- Convolution9
I1005 18:42:00.641279  9835 net.cpp:380] Convolution10 -> Convolution10
I1005 18:42:00.642321  9835 net.cpp:122] Setting up Convolution10
I1005 18:42:00.642330  9835 net.cpp:129] Top shape: 100 32 16 16 (819200)
I1005 18:42:00.642333  9835 net.cpp:137] Memory required for data: 283034800
I1005 18:42:00.642343  9835 layer_factory.hpp:77] Creating layer BatchNorm10
I1005 18:42:00.642349  9835 net.cpp:84] Creating Layer BatchNorm10
I1005 18:42:00.642350  9835 net.cpp:406] BatchNorm10 <- Convolution10
I1005 18:42:00.642354  9835 net.cpp:367] BatchNorm10 -> Convolution10 (in-place)
I1005 18:42:00.642488  9835 net.cpp:122] Setting up BatchNorm10
I1005 18:42:00.642491  9835 net.cpp:129] Top shape: 100 32 16 16 (819200)
I1005 18:42:00.642493  9835 net.cpp:137] Memory required for data: 286311600
I1005 18:42:00.642498  9835 layer_factory.hpp:77] Creating layer Scale10
I1005 18:42:00.642503  9835 net.cpp:84] Creating Layer Scale10
I1005 18:42:00.642505  9835 net.cpp:406] Scale10 <- Convolution10
I1005 18:42:00.642508  9835 net.cpp:367] Scale10 -> Convolution10 (in-place)
I1005 18:42:00.642542  9835 layer_factory.hpp:77] Creating layer Scale10
I1005 18:42:00.642618  9835 net.cpp:122] Setting up Scale10
I1005 18:42:00.642623  9835 net.cpp:129] Top shape: 100 32 16 16 (819200)
I1005 18:42:00.642626  9835 net.cpp:137] Memory required for data: 289588400
I1005 18:42:00.642629  9835 layer_factory.hpp:77] Creating layer Eltwise4
I1005 18:42:00.642633  9835 net.cpp:84] Creating Layer Eltwise4
I1005 18:42:00.642635  9835 net.cpp:406] Eltwise4 <- Convolution8
I1005 18:42:00.642638  9835 net.cpp:406] Eltwise4 <- Convolution10
I1005 18:42:00.642642  9835 net.cpp:380] Eltwise4 -> Eltwise4
I1005 18:42:00.642655  9835 net.cpp:122] Setting up Eltwise4
I1005 18:42:00.642658  9835 net.cpp:129] Top shape: 100 32 16 16 (819200)
I1005 18:42:00.642660  9835 net.cpp:137] Memory required for data: 292865200
I1005 18:42:00.642663  9835 layer_factory.hpp:77] Creating layer elu9
I1005 18:42:00.642673  9835 net.cpp:84] Creating Layer elu9
I1005 18:42:00.642676  9835 net.cpp:406] elu9 <- Eltwise4
I1005 18:42:00.642679  9835 net.cpp:367] elu9 -> Eltwise4 (in-place)
I1005 18:42:00.642683  9835 net.cpp:122] Setting up elu9
I1005 18:42:00.642686  9835 net.cpp:129] Top shape: 100 32 16 16 (819200)
I1005 18:42:00.642688  9835 net.cpp:137] Memory required for data: 296142000
I1005 18:42:00.642690  9835 layer_factory.hpp:77] Creating layer Eltwise4_elu9_0_split
I1005 18:42:00.642695  9835 net.cpp:84] Creating Layer Eltwise4_elu9_0_split
I1005 18:42:00.642698  9835 net.cpp:406] Eltwise4_elu9_0_split <- Eltwise4
I1005 18:42:00.642700  9835 net.cpp:380] Eltwise4_elu9_0_split -> Eltwise4_elu9_0_split_0
I1005 18:42:00.642704  9835 net.cpp:380] Eltwise4_elu9_0_split -> Eltwise4_elu9_0_split_1
I1005 18:42:00.642729  9835 net.cpp:122] Setting up Eltwise4_elu9_0_split
I1005 18:42:00.642732  9835 net.cpp:129] Top shape: 100 32 16 16 (819200)
I1005 18:42:00.642735  9835 net.cpp:129] Top shape: 100 32 16 16 (819200)
I1005 18:42:00.642736  9835 net.cpp:137] Memory required for data: 302695600
I1005 18:42:00.642738  9835 layer_factory.hpp:77] Creating layer Convolution11
I1005 18:42:00.642745  9835 net.cpp:84] Creating Layer Convolution11
I1005 18:42:00.642747  9835 net.cpp:406] Convolution11 <- Eltwise4_elu9_0_split_0
I1005 18:42:00.642752  9835 net.cpp:380] Convolution11 -> Convolution11
I1005 18:42:00.643795  9835 net.cpp:122] Setting up Convolution11
I1005 18:42:00.643805  9835 net.cpp:129] Top shape: 100 32 16 16 (819200)
I1005 18:42:00.643806  9835 net.cpp:137] Memory required for data: 305972400
I1005 18:42:00.643811  9835 layer_factory.hpp:77] Creating layer BatchNorm11
I1005 18:42:00.643816  9835 net.cpp:84] Creating Layer BatchNorm11
I1005 18:42:00.643820  9835 net.cpp:406] BatchNorm11 <- Convolution11
I1005 18:42:00.643822  9835 net.cpp:367] BatchNorm11 -> Convolution11 (in-place)
I1005 18:42:00.643955  9835 net.cpp:122] Setting up BatchNorm11
I1005 18:42:00.643960  9835 net.cpp:129] Top shape: 100 32 16 16 (819200)
I1005 18:42:00.643962  9835 net.cpp:137] Memory required for data: 309249200
I1005 18:42:00.643967  9835 layer_factory.hpp:77] Creating layer Scale11
I1005 18:42:00.643971  9835 net.cpp:84] Creating Layer Scale11
I1005 18:42:00.643975  9835 net.cpp:406] Scale11 <- Convolution11
I1005 18:42:00.647562  9835 net.cpp:367] Scale11 -> Convolution11 (in-place)
I1005 18:42:00.647611  9835 layer_factory.hpp:77] Creating layer Scale11
I1005 18:42:00.647729  9835 net.cpp:122] Setting up Scale11
I1005 18:42:00.647738  9835 net.cpp:129] Top shape: 100 32 16 16 (819200)
I1005 18:42:00.647742  9835 net.cpp:137] Memory required for data: 312526000
I1005 18:42:00.647749  9835 layer_factory.hpp:77] Creating layer elu10
I1005 18:42:00.647758  9835 net.cpp:84] Creating Layer elu10
I1005 18:42:00.647761  9835 net.cpp:406] elu10 <- Convolution11
I1005 18:42:00.647768  9835 net.cpp:367] elu10 -> Convolution11 (in-place)
I1005 18:42:00.647773  9835 net.cpp:122] Setting up elu10
I1005 18:42:00.647779  9835 net.cpp:129] Top shape: 100 32 16 16 (819200)
I1005 18:42:00.647783  9835 net.cpp:137] Memory required for data: 315802800
I1005 18:42:00.647788  9835 layer_factory.hpp:77] Creating layer Convolution12
I1005 18:42:00.647799  9835 net.cpp:84] Creating Layer Convolution12
I1005 18:42:00.647802  9835 net.cpp:406] Convolution12 <- Convolution11
I1005 18:42:00.647810  9835 net.cpp:380] Convolution12 -> Convolution12
I1005 18:42:00.648942  9835 net.cpp:122] Setting up Convolution12
I1005 18:42:00.648953  9835 net.cpp:129] Top shape: 100 32 16 16 (819200)
I1005 18:42:00.648958  9835 net.cpp:137] Memory required for data: 319079600
I1005 18:42:00.648965  9835 layer_factory.hpp:77] Creating layer BatchNorm12
I1005 18:42:00.648972  9835 net.cpp:84] Creating Layer BatchNorm12
I1005 18:42:00.648977  9835 net.cpp:406] BatchNorm12 <- Convolution12
I1005 18:42:00.648985  9835 net.cpp:367] BatchNorm12 -> Convolution12 (in-place)
I1005 18:42:00.649185  9835 net.cpp:122] Setting up BatchNorm12
I1005 18:42:00.649200  9835 net.cpp:129] Top shape: 100 32 16 16 (819200)
I1005 18:42:00.649205  9835 net.cpp:137] Memory required for data: 322356400
I1005 18:42:00.649214  9835 layer_factory.hpp:77] Creating layer Scale12
I1005 18:42:00.649219  9835 net.cpp:84] Creating Layer Scale12
I1005 18:42:00.649224  9835 net.cpp:406] Scale12 <- Convolution12
I1005 18:42:00.649229  9835 net.cpp:367] Scale12 -> Convolution12 (in-place)
I1005 18:42:00.649268  9835 layer_factory.hpp:77] Creating layer Scale12
I1005 18:42:00.649379  9835 net.cpp:122] Setting up Scale12
I1005 18:42:00.649385  9835 net.cpp:129] Top shape: 100 32 16 16 (819200)
I1005 18:42:00.649389  9835 net.cpp:137] Memory required for data: 325633200
I1005 18:42:00.649395  9835 layer_factory.hpp:77] Creating layer Eltwise5
I1005 18:42:00.649402  9835 net.cpp:84] Creating Layer Eltwise5
I1005 18:42:00.649406  9835 net.cpp:406] Eltwise5 <- Eltwise4_elu9_0_split_1
I1005 18:42:00.649411  9835 net.cpp:406] Eltwise5 <- Convolution12
I1005 18:42:00.649416  9835 net.cpp:380] Eltwise5 -> Eltwise5
I1005 18:42:00.649433  9835 net.cpp:122] Setting up Eltwise5
I1005 18:42:00.649440  9835 net.cpp:129] Top shape: 100 32 16 16 (819200)
I1005 18:42:00.649442  9835 net.cpp:137] Memory required for data: 328910000
I1005 18:42:00.649446  9835 layer_factory.hpp:77] Creating layer elu11
I1005 18:42:00.649451  9835 net.cpp:84] Creating Layer elu11
I1005 18:42:00.649454  9835 net.cpp:406] elu11 <- Eltwise5
I1005 18:42:00.649459  9835 net.cpp:367] elu11 -> Eltwise5 (in-place)
I1005 18:42:00.649464  9835 net.cpp:122] Setting up elu11
I1005 18:42:00.649468  9835 net.cpp:129] Top shape: 100 32 16 16 (819200)
I1005 18:42:00.649472  9835 net.cpp:137] Memory required for data: 332186800
I1005 18:42:00.649475  9835 layer_factory.hpp:77] Creating layer Eltwise5_elu11_0_split
I1005 18:42:00.649480  9835 net.cpp:84] Creating Layer Eltwise5_elu11_0_split
I1005 18:42:00.649483  9835 net.cpp:406] Eltwise5_elu11_0_split <- Eltwise5
I1005 18:42:00.649488  9835 net.cpp:380] Eltwise5_elu11_0_split -> Eltwise5_elu11_0_split_0
I1005 18:42:00.649494  9835 net.cpp:380] Eltwise5_elu11_0_split -> Eltwise5_elu11_0_split_1
I1005 18:42:00.649533  9835 net.cpp:122] Setting up Eltwise5_elu11_0_split
I1005 18:42:00.649539  9835 net.cpp:129] Top shape: 100 32 16 16 (819200)
I1005 18:42:00.649545  9835 net.cpp:129] Top shape: 100 32 16 16 (819200)
I1005 18:42:00.649549  9835 net.cpp:137] Memory required for data: 338740400
I1005 18:42:00.649554  9835 layer_factory.hpp:77] Creating layer Convolution13
I1005 18:42:00.649564  9835 net.cpp:84] Creating Layer Convolution13
I1005 18:42:00.649569  9835 net.cpp:406] Convolution13 <- Eltwise5_elu11_0_split_0
I1005 18:42:00.649575  9835 net.cpp:380] Convolution13 -> Convolution13
I1005 18:42:00.651351  9835 net.cpp:122] Setting up Convolution13
I1005 18:42:00.651361  9835 net.cpp:129] Top shape: 100 32 16 16 (819200)
I1005 18:42:00.651365  9835 net.cpp:137] Memory required for data: 342017200
I1005 18:42:00.651368  9835 layer_factory.hpp:77] Creating layer BatchNorm13
I1005 18:42:00.651374  9835 net.cpp:84] Creating Layer BatchNorm13
I1005 18:42:00.651376  9835 net.cpp:406] BatchNorm13 <- Convolution13
I1005 18:42:00.651381  9835 net.cpp:367] BatchNorm13 -> Convolution13 (in-place)
I1005 18:42:00.651517  9835 net.cpp:122] Setting up BatchNorm13
I1005 18:42:00.651521  9835 net.cpp:129] Top shape: 100 32 16 16 (819200)
I1005 18:42:00.651525  9835 net.cpp:137] Memory required for data: 345294000
I1005 18:42:00.651528  9835 layer_factory.hpp:77] Creating layer Scale13
I1005 18:42:00.651532  9835 net.cpp:84] Creating Layer Scale13
I1005 18:42:00.651535  9835 net.cpp:406] Scale13 <- Convolution13
I1005 18:42:00.651540  9835 net.cpp:367] Scale13 -> Convolution13 (in-place)
I1005 18:42:00.651566  9835 layer_factory.hpp:77] Creating layer Scale13
I1005 18:42:00.651645  9835 net.cpp:122] Setting up Scale13
I1005 18:42:00.651649  9835 net.cpp:129] Top shape: 100 32 16 16 (819200)
I1005 18:42:00.651651  9835 net.cpp:137] Memory required for data: 348570800
I1005 18:42:00.651655  9835 layer_factory.hpp:77] Creating layer elu12
I1005 18:42:00.651666  9835 net.cpp:84] Creating Layer elu12
I1005 18:42:00.651669  9835 net.cpp:406] elu12 <- Convolution13
I1005 18:42:00.651672  9835 net.cpp:367] elu12 -> Convolution13 (in-place)
I1005 18:42:00.651675  9835 net.cpp:122] Setting up elu12
I1005 18:42:00.651679  9835 net.cpp:129] Top shape: 100 32 16 16 (819200)
I1005 18:42:00.651681  9835 net.cpp:137] Memory required for data: 351847600
I1005 18:42:00.651684  9835 layer_factory.hpp:77] Creating layer Convolution14
I1005 18:42:00.651693  9835 net.cpp:84] Creating Layer Convolution14
I1005 18:42:00.651696  9835 net.cpp:406] Convolution14 <- Convolution13
I1005 18:42:00.651700  9835 net.cpp:380] Convolution14 -> Convolution14
I1005 18:42:00.652988  9835 net.cpp:122] Setting up Convolution14
I1005 18:42:00.652997  9835 net.cpp:129] Top shape: 100 32 16 16 (819200)
I1005 18:42:00.652999  9835 net.cpp:137] Memory required for data: 355124400
I1005 18:42:00.653004  9835 layer_factory.hpp:77] Creating layer BatchNorm14
I1005 18:42:00.653009  9835 net.cpp:84] Creating Layer BatchNorm14
I1005 18:42:00.653012  9835 net.cpp:406] BatchNorm14 <- Convolution14
I1005 18:42:00.653017  9835 net.cpp:367] BatchNorm14 -> Convolution14 (in-place)
I1005 18:42:00.653162  9835 net.cpp:122] Setting up BatchNorm14
I1005 18:42:00.653165  9835 net.cpp:129] Top shape: 100 32 16 16 (819200)
I1005 18:42:00.653168  9835 net.cpp:137] Memory required for data: 358401200
I1005 18:42:00.653172  9835 layer_factory.hpp:77] Creating layer Scale14
I1005 18:42:00.653177  9835 net.cpp:84] Creating Layer Scale14
I1005 18:42:00.653179  9835 net.cpp:406] Scale14 <- Convolution14
I1005 18:42:00.653183  9835 net.cpp:367] Scale14 -> Convolution14 (in-place)
I1005 18:42:00.653211  9835 layer_factory.hpp:77] Creating layer Scale14
I1005 18:42:00.653297  9835 net.cpp:122] Setting up Scale14
I1005 18:42:00.653302  9835 net.cpp:129] Top shape: 100 32 16 16 (819200)
I1005 18:42:00.653304  9835 net.cpp:137] Memory required for data: 361678000
I1005 18:42:00.653307  9835 layer_factory.hpp:77] Creating layer Eltwise6
I1005 18:42:00.653311  9835 net.cpp:84] Creating Layer Eltwise6
I1005 18:42:00.653314  9835 net.cpp:406] Eltwise6 <- Eltwise5_elu11_0_split_1
I1005 18:42:00.653317  9835 net.cpp:406] Eltwise6 <- Convolution14
I1005 18:42:00.653321  9835 net.cpp:380] Eltwise6 -> Eltwise6
I1005 18:42:00.653333  9835 net.cpp:122] Setting up Eltwise6
I1005 18:42:00.653337  9835 net.cpp:129] Top shape: 100 32 16 16 (819200)
I1005 18:42:00.653338  9835 net.cpp:137] Memory required for data: 364954800
I1005 18:42:00.653342  9835 layer_factory.hpp:77] Creating layer elu13
I1005 18:42:00.653345  9835 net.cpp:84] Creating Layer elu13
I1005 18:42:00.653347  9835 net.cpp:406] elu13 <- Eltwise6
I1005 18:42:00.653350  9835 net.cpp:367] elu13 -> Eltwise6 (in-place)
I1005 18:42:00.653354  9835 net.cpp:122] Setting up elu13
I1005 18:42:00.653357  9835 net.cpp:129] Top shape: 100 32 16 16 (819200)
I1005 18:42:00.653359  9835 net.cpp:137] Memory required for data: 368231600
I1005 18:42:00.653362  9835 layer_factory.hpp:77] Creating layer Eltwise6_elu13_0_split
I1005 18:42:00.653364  9835 net.cpp:84] Creating Layer Eltwise6_elu13_0_split
I1005 18:42:00.653367  9835 net.cpp:406] Eltwise6_elu13_0_split <- Eltwise6
I1005 18:42:00.653370  9835 net.cpp:380] Eltwise6_elu13_0_split -> Eltwise6_elu13_0_split_0
I1005 18:42:00.653373  9835 net.cpp:380] Eltwise6_elu13_0_split -> Eltwise6_elu13_0_split_1
I1005 18:42:00.653395  9835 net.cpp:122] Setting up Eltwise6_elu13_0_split
I1005 18:42:00.653399  9835 net.cpp:129] Top shape: 100 32 16 16 (819200)
I1005 18:42:00.653403  9835 net.cpp:129] Top shape: 100 32 16 16 (819200)
I1005 18:42:00.653404  9835 net.cpp:137] Memory required for data: 374785200
I1005 18:42:00.653406  9835 layer_factory.hpp:77] Creating layer Convolution15
I1005 18:42:00.653412  9835 net.cpp:84] Creating Layer Convolution15
I1005 18:42:00.653415  9835 net.cpp:406] Convolution15 <- Eltwise6_elu13_0_split_0
I1005 18:42:00.653419  9835 net.cpp:380] Convolution15 -> Convolution15
I1005 18:42:00.654325  9835 net.cpp:122] Setting up Convolution15
I1005 18:42:00.654340  9835 net.cpp:129] Top shape: 100 64 8 8 (409600)
I1005 18:42:00.654343  9835 net.cpp:137] Memory required for data: 376423600
I1005 18:42:00.654348  9835 layer_factory.hpp:77] Creating layer BatchNorm15
I1005 18:42:00.654353  9835 net.cpp:84] Creating Layer BatchNorm15
I1005 18:42:00.654356  9835 net.cpp:406] BatchNorm15 <- Convolution15
I1005 18:42:00.654359  9835 net.cpp:367] BatchNorm15 -> Convolution15 (in-place)
I1005 18:42:00.654497  9835 net.cpp:122] Setting up BatchNorm15
I1005 18:42:00.654501  9835 net.cpp:129] Top shape: 100 64 8 8 (409600)
I1005 18:42:00.654505  9835 net.cpp:137] Memory required for data: 378062000
I1005 18:42:00.654508  9835 layer_factory.hpp:77] Creating layer Scale15
I1005 18:42:00.654512  9835 net.cpp:84] Creating Layer Scale15
I1005 18:42:00.654515  9835 net.cpp:406] Scale15 <- Convolution15
I1005 18:42:00.654517  9835 net.cpp:367] Scale15 -> Convolution15 (in-place)
I1005 18:42:00.654559  9835 layer_factory.hpp:77] Creating layer Scale15
I1005 18:42:00.654639  9835 net.cpp:122] Setting up Scale15
I1005 18:42:00.654644  9835 net.cpp:129] Top shape: 100 64 8 8 (409600)
I1005 18:42:00.654646  9835 net.cpp:137] Memory required for data: 379700400
I1005 18:42:00.654650  9835 layer_factory.hpp:77] Creating layer Convolution16
I1005 18:42:00.654657  9835 net.cpp:84] Creating Layer Convolution16
I1005 18:42:00.654659  9835 net.cpp:406] Convolution16 <- Eltwise6_elu13_0_split_1
I1005 18:42:00.654664  9835 net.cpp:380] Convolution16 -> Convolution16
I1005 18:42:00.655917  9835 net.cpp:122] Setting up Convolution16
I1005 18:42:00.655927  9835 net.cpp:129] Top shape: 100 64 8 8 (409600)
I1005 18:42:00.655930  9835 net.cpp:137] Memory required for data: 381338800
I1005 18:42:00.655935  9835 layer_factory.hpp:77] Creating layer BatchNorm16
I1005 18:42:00.655938  9835 net.cpp:84] Creating Layer BatchNorm16
I1005 18:42:00.655941  9835 net.cpp:406] BatchNorm16 <- Convolution16
I1005 18:42:00.655946  9835 net.cpp:367] BatchNorm16 -> Convolution16 (in-place)
I1005 18:42:00.656083  9835 net.cpp:122] Setting up BatchNorm16
I1005 18:42:00.656087  9835 net.cpp:129] Top shape: 100 64 8 8 (409600)
I1005 18:42:00.656090  9835 net.cpp:137] Memory required for data: 382977200
I1005 18:42:00.656095  9835 layer_factory.hpp:77] Creating layer Scale16
I1005 18:42:00.656098  9835 net.cpp:84] Creating Layer Scale16
I1005 18:42:00.656101  9835 net.cpp:406] Scale16 <- Convolution16
I1005 18:42:00.656105  9835 net.cpp:367] Scale16 -> Convolution16 (in-place)
I1005 18:42:00.656131  9835 layer_factory.hpp:77] Creating layer Scale16
I1005 18:42:00.656209  9835 net.cpp:122] Setting up Scale16
I1005 18:42:00.656213  9835 net.cpp:129] Top shape: 100 64 8 8 (409600)
I1005 18:42:00.656215  9835 net.cpp:137] Memory required for data: 384615600
I1005 18:42:00.656219  9835 layer_factory.hpp:77] Creating layer elu14
I1005 18:42:00.656222  9835 net.cpp:84] Creating Layer elu14
I1005 18:42:00.656225  9835 net.cpp:406] elu14 <- Convolution16
I1005 18:42:00.656229  9835 net.cpp:367] elu14 -> Convolution16 (in-place)
I1005 18:42:00.656231  9835 net.cpp:122] Setting up elu14
I1005 18:42:00.656234  9835 net.cpp:129] Top shape: 100 64 8 8 (409600)
I1005 18:42:00.656236  9835 net.cpp:137] Memory required for data: 386254000
I1005 18:42:00.656239  9835 layer_factory.hpp:77] Creating layer Convolution17
I1005 18:42:00.656245  9835 net.cpp:84] Creating Layer Convolution17
I1005 18:42:00.656249  9835 net.cpp:406] Convolution17 <- Convolution16
I1005 18:42:00.656251  9835 net.cpp:380] Convolution17 -> Convolution17
I1005 18:42:00.657958  9835 net.cpp:122] Setting up Convolution17
I1005 18:42:00.657968  9835 net.cpp:129] Top shape: 100 64 8 8 (409600)
I1005 18:42:00.657969  9835 net.cpp:137] Memory required for data: 387892400
I1005 18:42:00.657974  9835 layer_factory.hpp:77] Creating layer BatchNorm17
I1005 18:42:00.657979  9835 net.cpp:84] Creating Layer BatchNorm17
I1005 18:42:00.657981  9835 net.cpp:406] BatchNorm17 <- Convolution17
I1005 18:42:00.657986  9835 net.cpp:367] BatchNorm17 -> Convolution17 (in-place)
I1005 18:42:00.658130  9835 net.cpp:122] Setting up BatchNorm17
I1005 18:42:00.658135  9835 net.cpp:129] Top shape: 100 64 8 8 (409600)
I1005 18:42:00.658138  9835 net.cpp:137] Memory required for data: 389530800
I1005 18:42:00.658143  9835 layer_factory.hpp:77] Creating layer Scale17
I1005 18:42:00.658148  9835 net.cpp:84] Creating Layer Scale17
I1005 18:42:00.658150  9835 net.cpp:406] Scale17 <- Convolution17
I1005 18:42:00.658154  9835 net.cpp:367] Scale17 -> Convolution17 (in-place)
I1005 18:42:00.658181  9835 layer_factory.hpp:77] Creating layer Scale17
I1005 18:42:00.658259  9835 net.cpp:122] Setting up Scale17
I1005 18:42:00.658263  9835 net.cpp:129] Top shape: 100 64 8 8 (409600)
I1005 18:42:00.658265  9835 net.cpp:137] Memory required for data: 391169200
I1005 18:42:00.658268  9835 layer_factory.hpp:77] Creating layer Eltwise7
I1005 18:42:00.658273  9835 net.cpp:84] Creating Layer Eltwise7
I1005 18:42:00.658275  9835 net.cpp:406] Eltwise7 <- Convolution15
I1005 18:42:00.658278  9835 net.cpp:406] Eltwise7 <- Convolution17
I1005 18:42:00.658282  9835 net.cpp:380] Eltwise7 -> Eltwise7
I1005 18:42:00.658298  9835 net.cpp:122] Setting up Eltwise7
I1005 18:42:00.658301  9835 net.cpp:129] Top shape: 100 64 8 8 (409600)
I1005 18:42:00.658303  9835 net.cpp:137] Memory required for data: 392807600
I1005 18:42:00.658305  9835 layer_factory.hpp:77] Creating layer elu15
I1005 18:42:00.658308  9835 net.cpp:84] Creating Layer elu15
I1005 18:42:00.658311  9835 net.cpp:406] elu15 <- Eltwise7
I1005 18:42:00.658314  9835 net.cpp:367] elu15 -> Eltwise7 (in-place)
I1005 18:42:00.658318  9835 net.cpp:122] Setting up elu15
I1005 18:42:00.658321  9835 net.cpp:129] Top shape: 100 64 8 8 (409600)
I1005 18:42:00.658324  9835 net.cpp:137] Memory required for data: 394446000
I1005 18:42:00.658325  9835 layer_factory.hpp:77] Creating layer Eltwise7_elu15_0_split
I1005 18:42:00.658329  9835 net.cpp:84] Creating Layer Eltwise7_elu15_0_split
I1005 18:42:00.658330  9835 net.cpp:406] Eltwise7_elu15_0_split <- Eltwise7
I1005 18:42:00.658334  9835 net.cpp:380] Eltwise7_elu15_0_split -> Eltwise7_elu15_0_split_0
I1005 18:42:00.658337  9835 net.cpp:380] Eltwise7_elu15_0_split -> Eltwise7_elu15_0_split_1
I1005 18:42:00.658360  9835 net.cpp:122] Setting up Eltwise7_elu15_0_split
I1005 18:42:00.678283  9835 net.cpp:129] Top shape: 100 64 8 8 (409600)
I1005 18:42:00.678294  9835 net.cpp:129] Top shape: 100 64 8 8 (409600)
I1005 18:42:00.678298  9835 net.cpp:137] Memory required for data: 397722800
I1005 18:42:00.678303  9835 layer_factory.hpp:77] Creating layer Convolution18
I1005 18:42:00.678313  9835 net.cpp:84] Creating Layer Convolution18
I1005 18:42:00.678318  9835 net.cpp:406] Convolution18 <- Eltwise7_elu15_0_split_0
I1005 18:42:00.678328  9835 net.cpp:380] Convolution18 -> Convolution18
I1005 18:42:00.680856  9835 net.cpp:122] Setting up Convolution18
I1005 18:42:00.680871  9835 net.cpp:129] Top shape: 100 64 8 8 (409600)
I1005 18:42:00.680876  9835 net.cpp:137] Memory required for data: 399361200
I1005 18:42:00.680883  9835 layer_factory.hpp:77] Creating layer BatchNorm18
I1005 18:42:00.680891  9835 net.cpp:84] Creating Layer BatchNorm18
I1005 18:42:00.680896  9835 net.cpp:406] BatchNorm18 <- Convolution18
I1005 18:42:00.680903  9835 net.cpp:367] BatchNorm18 -> Convolution18 (in-place)
I1005 18:42:00.681098  9835 net.cpp:122] Setting up BatchNorm18
I1005 18:42:00.681107  9835 net.cpp:129] Top shape: 100 64 8 8 (409600)
I1005 18:42:00.681109  9835 net.cpp:137] Memory required for data: 400999600
I1005 18:42:00.681115  9835 layer_factory.hpp:77] Creating layer Scale18
I1005 18:42:00.681119  9835 net.cpp:84] Creating Layer Scale18
I1005 18:42:00.681123  9835 net.cpp:406] Scale18 <- Convolution18
I1005 18:42:00.681126  9835 net.cpp:367] Scale18 -> Convolution18 (in-place)
I1005 18:42:00.681157  9835 layer_factory.hpp:77] Creating layer Scale18
I1005 18:42:00.681241  9835 net.cpp:122] Setting up Scale18
I1005 18:42:00.681246  9835 net.cpp:129] Top shape: 100 64 8 8 (409600)
I1005 18:42:00.681248  9835 net.cpp:137] Memory required for data: 402638000
I1005 18:42:00.681259  9835 layer_factory.hpp:77] Creating layer elu16
I1005 18:42:00.681263  9835 net.cpp:84] Creating Layer elu16
I1005 18:42:00.681267  9835 net.cpp:406] elu16 <- Convolution18
I1005 18:42:00.681269  9835 net.cpp:367] elu16 -> Convolution18 (in-place)
I1005 18:42:00.681273  9835 net.cpp:122] Setting up elu16
I1005 18:42:00.681277  9835 net.cpp:129] Top shape: 100 64 8 8 (409600)
I1005 18:42:00.681278  9835 net.cpp:137] Memory required for data: 404276400
I1005 18:42:00.681280  9835 layer_factory.hpp:77] Creating layer Convolution19
I1005 18:42:00.681288  9835 net.cpp:84] Creating Layer Convolution19
I1005 18:42:00.681291  9835 net.cpp:406] Convolution19 <- Convolution18
I1005 18:42:00.681295  9835 net.cpp:380] Convolution19 -> Convolution19
I1005 18:42:00.683189  9835 net.cpp:122] Setting up Convolution19
I1005 18:42:00.683198  9835 net.cpp:129] Top shape: 100 64 8 8 (409600)
I1005 18:42:00.683202  9835 net.cpp:137] Memory required for data: 405914800
I1005 18:42:00.683207  9835 layer_factory.hpp:77] Creating layer BatchNorm19
I1005 18:42:00.683212  9835 net.cpp:84] Creating Layer BatchNorm19
I1005 18:42:00.683214  9835 net.cpp:406] BatchNorm19 <- Convolution19
I1005 18:42:00.683218  9835 net.cpp:367] BatchNorm19 -> Convolution19 (in-place)
I1005 18:42:00.683362  9835 net.cpp:122] Setting up BatchNorm19
I1005 18:42:00.683367  9835 net.cpp:129] Top shape: 100 64 8 8 (409600)
I1005 18:42:00.683368  9835 net.cpp:137] Memory required for data: 407553200
I1005 18:42:00.683385  9835 layer_factory.hpp:77] Creating layer Scale19
I1005 18:42:00.683390  9835 net.cpp:84] Creating Layer Scale19
I1005 18:42:00.683393  9835 net.cpp:406] Scale19 <- Convolution19
I1005 18:42:00.683396  9835 net.cpp:367] Scale19 -> Convolution19 (in-place)
I1005 18:42:00.683428  9835 layer_factory.hpp:77] Creating layer Scale19
I1005 18:42:00.683507  9835 net.cpp:122] Setting up Scale19
I1005 18:42:00.683511  9835 net.cpp:129] Top shape: 100 64 8 8 (409600)
I1005 18:42:00.683514  9835 net.cpp:137] Memory required for data: 409191600
I1005 18:42:00.683517  9835 layer_factory.hpp:77] Creating layer Eltwise8
I1005 18:42:00.683523  9835 net.cpp:84] Creating Layer Eltwise8
I1005 18:42:00.683526  9835 net.cpp:406] Eltwise8 <- Eltwise7_elu15_0_split_1
I1005 18:42:00.683529  9835 net.cpp:406] Eltwise8 <- Convolution19
I1005 18:42:00.683532  9835 net.cpp:380] Eltwise8 -> Eltwise8
I1005 18:42:00.683550  9835 net.cpp:122] Setting up Eltwise8
I1005 18:42:00.683553  9835 net.cpp:129] Top shape: 100 64 8 8 (409600)
I1005 18:42:00.683557  9835 net.cpp:137] Memory required for data: 410830000
I1005 18:42:00.683558  9835 layer_factory.hpp:77] Creating layer elu17
I1005 18:42:00.683562  9835 net.cpp:84] Creating Layer elu17
I1005 18:42:00.683564  9835 net.cpp:406] elu17 <- Eltwise8
I1005 18:42:00.683568  9835 net.cpp:367] elu17 -> Eltwise8 (in-place)
I1005 18:42:00.683573  9835 net.cpp:122] Setting up elu17
I1005 18:42:00.683575  9835 net.cpp:129] Top shape: 100 64 8 8 (409600)
I1005 18:42:00.683578  9835 net.cpp:137] Memory required for data: 412468400
I1005 18:42:00.683580  9835 layer_factory.hpp:77] Creating layer Eltwise8_elu17_0_split
I1005 18:42:00.683583  9835 net.cpp:84] Creating Layer Eltwise8_elu17_0_split
I1005 18:42:00.683585  9835 net.cpp:406] Eltwise8_elu17_0_split <- Eltwise8
I1005 18:42:00.683588  9835 net.cpp:380] Eltwise8_elu17_0_split -> Eltwise8_elu17_0_split_0
I1005 18:42:00.683593  9835 net.cpp:380] Eltwise8_elu17_0_split -> Eltwise8_elu17_0_split_1
I1005 18:42:00.683617  9835 net.cpp:122] Setting up Eltwise8_elu17_0_split
I1005 18:42:00.683621  9835 net.cpp:129] Top shape: 100 64 8 8 (409600)
I1005 18:42:00.683624  9835 net.cpp:129] Top shape: 100 64 8 8 (409600)
I1005 18:42:00.683626  9835 net.cpp:137] Memory required for data: 415745200
I1005 18:42:00.683629  9835 layer_factory.hpp:77] Creating layer Convolution20
I1005 18:42:00.683634  9835 net.cpp:84] Creating Layer Convolution20
I1005 18:42:00.683636  9835 net.cpp:406] Convolution20 <- Eltwise8_elu17_0_split_0
I1005 18:42:00.683641  9835 net.cpp:380] Convolution20 -> Convolution20
I1005 18:42:00.685667  9835 net.cpp:122] Setting up Convolution20
I1005 18:42:00.685674  9835 net.cpp:129] Top shape: 100 64 8 8 (409600)
I1005 18:42:00.685678  9835 net.cpp:137] Memory required for data: 417383600
I1005 18:42:00.685683  9835 layer_factory.hpp:77] Creating layer BatchNorm20
I1005 18:42:00.685688  9835 net.cpp:84] Creating Layer BatchNorm20
I1005 18:42:00.685689  9835 net.cpp:406] BatchNorm20 <- Convolution20
I1005 18:42:00.685694  9835 net.cpp:367] BatchNorm20 -> Convolution20 (in-place)
I1005 18:42:00.685840  9835 net.cpp:122] Setting up BatchNorm20
I1005 18:42:00.685845  9835 net.cpp:129] Top shape: 100 64 8 8 (409600)
I1005 18:42:00.685847  9835 net.cpp:137] Memory required for data: 419022000
I1005 18:42:00.685853  9835 layer_factory.hpp:77] Creating layer Scale20
I1005 18:42:00.685856  9835 net.cpp:84] Creating Layer Scale20
I1005 18:42:00.685859  9835 net.cpp:406] Scale20 <- Convolution20
I1005 18:42:00.685863  9835 net.cpp:367] Scale20 -> Convolution20 (in-place)
I1005 18:42:00.685891  9835 layer_factory.hpp:77] Creating layer Scale20
I1005 18:42:00.685972  9835 net.cpp:122] Setting up Scale20
I1005 18:42:00.685977  9835 net.cpp:129] Top shape: 100 64 8 8 (409600)
I1005 18:42:00.685979  9835 net.cpp:137] Memory required for data: 420660400
I1005 18:42:00.685983  9835 layer_factory.hpp:77] Creating layer elu18
I1005 18:42:00.685986  9835 net.cpp:84] Creating Layer elu18
I1005 18:42:00.685989  9835 net.cpp:406] elu18 <- Convolution20
I1005 18:42:00.685992  9835 net.cpp:367] elu18 -> Convolution20 (in-place)
I1005 18:42:00.685997  9835 net.cpp:122] Setting up elu18
I1005 18:42:00.685999  9835 net.cpp:129] Top shape: 100 64 8 8 (409600)
I1005 18:42:00.686002  9835 net.cpp:137] Memory required for data: 422298800
I1005 18:42:00.686004  9835 layer_factory.hpp:77] Creating layer Convolution21
I1005 18:42:00.686010  9835 net.cpp:84] Creating Layer Convolution21
I1005 18:42:00.686013  9835 net.cpp:406] Convolution21 <- Convolution20
I1005 18:42:00.686017  9835 net.cpp:380] Convolution21 -> Convolution21
I1005 18:42:00.688060  9835 net.cpp:122] Setting up Convolution21
I1005 18:42:00.688068  9835 net.cpp:129] Top shape: 100 64 8 8 (409600)
I1005 18:42:00.688071  9835 net.cpp:137] Memory required for data: 423937200
I1005 18:42:00.688076  9835 layer_factory.hpp:77] Creating layer BatchNorm21
I1005 18:42:00.688083  9835 net.cpp:84] Creating Layer BatchNorm21
I1005 18:42:00.688086  9835 net.cpp:406] BatchNorm21 <- Convolution21
I1005 18:42:00.688091  9835 net.cpp:367] BatchNorm21 -> Convolution21 (in-place)
I1005 18:42:00.688235  9835 net.cpp:122] Setting up BatchNorm21
I1005 18:42:00.688241  9835 net.cpp:129] Top shape: 100 64 8 8 (409600)
I1005 18:42:00.688242  9835 net.cpp:137] Memory required for data: 425575600
I1005 18:42:00.688247  9835 layer_factory.hpp:77] Creating layer Scale21
I1005 18:42:00.688252  9835 net.cpp:84] Creating Layer Scale21
I1005 18:42:00.688254  9835 net.cpp:406] Scale21 <- Convolution21
I1005 18:42:00.688257  9835 net.cpp:367] Scale21 -> Convolution21 (in-place)
I1005 18:42:00.688287  9835 layer_factory.hpp:77] Creating layer Scale21
I1005 18:42:00.688367  9835 net.cpp:122] Setting up Scale21
I1005 18:42:00.688371  9835 net.cpp:129] Top shape: 100 64 8 8 (409600)
I1005 18:42:00.688374  9835 net.cpp:137] Memory required for data: 427214000
I1005 18:42:00.688377  9835 layer_factory.hpp:77] Creating layer Eltwise9
I1005 18:42:00.688382  9835 net.cpp:84] Creating Layer Eltwise9
I1005 18:42:00.688385  9835 net.cpp:406] Eltwise9 <- Eltwise8_elu17_0_split_1
I1005 18:42:00.688388  9835 net.cpp:406] Eltwise9 <- Convolution21
I1005 18:42:00.688391  9835 net.cpp:380] Eltwise9 -> Eltwise9
I1005 18:42:00.688408  9835 net.cpp:122] Setting up Eltwise9
I1005 18:42:00.688412  9835 net.cpp:129] Top shape: 100 64 8 8 (409600)
I1005 18:42:00.688415  9835 net.cpp:137] Memory required for data: 428852400
I1005 18:42:00.688416  9835 layer_factory.hpp:77] Creating layer elu19
I1005 18:42:00.688421  9835 net.cpp:84] Creating Layer elu19
I1005 18:42:00.688422  9835 net.cpp:406] elu19 <- Eltwise9
I1005 18:42:00.688433  9835 net.cpp:367] elu19 -> Eltwise9 (in-place)
I1005 18:42:00.688437  9835 net.cpp:122] Setting up elu19
I1005 18:42:00.688441  9835 net.cpp:129] Top shape: 100 64 8 8 (409600)
I1005 18:42:00.688442  9835 net.cpp:137] Memory required for data: 430490800
I1005 18:42:00.688446  9835 layer_factory.hpp:77] Creating layer Pooling1
I1005 18:42:00.688449  9835 net.cpp:84] Creating Layer Pooling1
I1005 18:42:00.688452  9835 net.cpp:406] Pooling1 <- Eltwise9
I1005 18:42:00.688454  9835 net.cpp:380] Pooling1 -> Pooling1
I1005 18:42:00.688591  9835 net.cpp:122] Setting up Pooling1
I1005 18:42:00.688597  9835 net.cpp:129] Top shape: 100 64 1 1 (6400)
I1005 18:42:00.688599  9835 net.cpp:137] Memory required for data: 430516400
I1005 18:42:00.688601  9835 layer_factory.hpp:77] Creating layer InnerProduct1
I1005 18:42:00.688606  9835 net.cpp:84] Creating Layer InnerProduct1
I1005 18:42:00.688609  9835 net.cpp:406] InnerProduct1 <- Pooling1
I1005 18:42:00.688613  9835 net.cpp:380] InnerProduct1 -> InnerProduct1
I1005 18:42:00.688715  9835 net.cpp:122] Setting up InnerProduct1
I1005 18:42:00.688719  9835 net.cpp:129] Top shape: 100 10 (1000)
I1005 18:42:00.688721  9835 net.cpp:137] Memory required for data: 430520400
I1005 18:42:00.688725  9835 layer_factory.hpp:77] Creating layer InnerProduct1_InnerProduct1_0_split
I1005 18:42:00.688730  9835 net.cpp:84] Creating Layer InnerProduct1_InnerProduct1_0_split
I1005 18:42:00.688731  9835 net.cpp:406] InnerProduct1_InnerProduct1_0_split <- InnerProduct1
I1005 18:42:00.688735  9835 net.cpp:380] InnerProduct1_InnerProduct1_0_split -> InnerProduct1_InnerProduct1_0_split_0
I1005 18:42:00.688740  9835 net.cpp:380] InnerProduct1_InnerProduct1_0_split -> InnerProduct1_InnerProduct1_0_split_1
I1005 18:42:00.688766  9835 net.cpp:122] Setting up InnerProduct1_InnerProduct1_0_split
I1005 18:42:00.688769  9835 net.cpp:129] Top shape: 100 10 (1000)
I1005 18:42:00.688772  9835 net.cpp:129] Top shape: 100 10 (1000)
I1005 18:42:00.688774  9835 net.cpp:137] Memory required for data: 430528400
I1005 18:42:00.688777  9835 layer_factory.hpp:77] Creating layer SoftmaxWithLoss1
I1005 18:42:00.688781  9835 net.cpp:84] Creating Layer SoftmaxWithLoss1
I1005 18:42:00.688784  9835 net.cpp:406] SoftmaxWithLoss1 <- InnerProduct1_InnerProduct1_0_split_0
I1005 18:42:00.688787  9835 net.cpp:406] SoftmaxWithLoss1 <- Data2_Data1_1_split_0
…
