…
I1005 13:00:40.004392  9519 net.cpp:294] The NetState phase (0) differed from the phase (1) specified by a rule in layer Accuracy1
I1005 13:00:40.004874  9519 net.cpp:51] Initializing net from parameters: 
name: "resnet_cifar10"
state {
  phase: TRAIN
  level: 0
  stage: ""
}
layer {
  name: "Data1"
  type: "Data"
  top: "Data1"
  top: "Data2"
  include {
    phase: TRAIN
  }
  transform_param {
    mirror: true
    crop_size: 28
    mean_file: "/home/x306/caffe/xn/PENLU/data/cifar10/mean.binaryproto"
  }
  data_param {
    source: "/home/x306/caffe/xn/PENLU/data/cifar10/cifar10_train_lmdb"
    batch_size: 100
    backend: LMDB
  }
}
layer {
  name: "Convolution1"
  type: "Convolution"
  bottom: "Data1"
  top: "Convolution1"
  param {
    lr_mult: 1
    decay_mult: 1
  }
  param {
    lr_mult: 2
    decay_mult: 0
  }
  convolution_param {
    num_output: 16
    pad: 1
    kernel_size: 3
    stride: 1
    weight_filler {
      type: "gaussian"
      std: 0.118
    }
    bias_filler {
      type: "constant"
      value: 0
    }
  }
}
layer {
  name: "BatchNorm1"
  type: "BatchNorm"
  bottom: "Convolution1"
  top: "Convolution1"
  param {
    lr_mult: 0
    decay_mult: 0
  }
  param {
    lr_mult: 0
    decay_mult: 0
  }
  param {
    lr_mult: 0
    decay_mult: 0
  }
}
layer {
  name: "Scale1"
  type: "Scale"
  bottom: "Convolution1"
  top: "Convolution1"
  scale_param {
    bias_term: true
  }
}
layer {
  name: "penlu1"
  type: "PENLU"
  bottom: "Convolution1"
  top: "Convolution1"
  param {
    lr_mult: 2
    decay_mult: 2
  }
  param {
    lr_mult: 2
    decay_mult: 2
  }
  param {
    lr_mult: 0
    decay_mult: 0
  }
  penlu_param {
    alpha_filler {
      type: "constant"
      value: 2
    }
    beta_filler {
      type: "constant"
      value: 1
    }
    eta_filler {
      type: "constant"
      value: 1
    }
  }
}
layer {
  name: "Convolution2"
  type: "Convolution"
  bottom: "Convolution1"
  top: "Convolution2"
  param {
    lr_mult: 1
    decay_mult: 1
  }
  param {
    lr_mult: 2
    decay_mult: 0
  }
  convolution_param {
    num_output: 16
    pad: 1
    kernel_size: 3
    stride: 1
    weight_filler {
      type: "gaussian"
      std: 0.118
    }
    bias_filler {
      type: "constant"
      value: 0
    }
  }
}
layer {
  name: "BatchNorm2"
  type: "BatchNorm"
  bottom: "Convolution2"
  top: "Convolution2"
  param {
    lr_mult: 0
    decay_mult: 0
  }
  param {
    lr_mult: 0
    decay_mult: 0
  }
  param {
    lr_mult: 0
    decay_mult: 0
  }
}
layer {
  name: "Scale2"
  type: "Scale"
  bottom: "Convolution2"
  top: "Convolution2"
  scale_param {
    bias_term: true
  }
}
layer {
  name: "penlu2"
  type: "PENLU"
  bottom: "Convolution2"
  top: "Convolution2"
  param {
    lr_mult: 2
    decay_mult: 2
  }
  param {
    lr_mult: 2
    decay_mult: 2
  }
  param {
    lr_mult: 0
    decay_mult: 0
  }
  penlu_param {
    alpha_filler {
      type: "constant"
      value: 2
    }
    beta_filler {
      type: "constant"
      value: 1
    }
    eta_filler {
      type: "constant"
      value: 1
    }
  }
}
layer {
  name: "Convolution3"
  type: "Convolution"
  bottom: "Convolution2"
  top: "Convolution3"
  param {
    lr_mult: 1
    decay_mult: 1
  }
  param {
    lr_mult: 2
    decay_mult: 0
  }
  convolution_param {
    num_output: 16
    pad: 1
    kernel_size: 3
    stride: 1
    weight_filler {
      type: "gaussian"
      std: 0.118
    }
    bias_filler {
      type: "constant"
      value: 0
    }
  }
}
layer {
  name: "BatchNorm3"
  type: "BatchNorm"
  bottom: "Convolution3"
  top: "Convolution3"
  param {
    lr_mult: 0
    decay_mult: 0
  }
  param {
    lr_mult: 0
    decay_mult: 0
  }
  param {
    lr_mult: 0
    decay_mult: 0
  }
}
layer {
  name: "Scale3"
  type: "Scale"
  bottom: "Convolution3"
  top: "Convolution3"
  scale_param {
    bias_term: true
  }
}
layer {
  name: "Eltwise1"
  type: "Eltwise"
  bottom: "Convolution1"
  bottom: "Convolution3"
  top: "Eltwise1"
  eltwise_param {
    operation: SUM
  }
}
layer {
  name: "penlu3"
  type: "PENLU"
  bottom: "Eltwise1"
  top: "Eltwise1"
  param {
    lr_mult: 2
    decay_mult: 2
  }
  param {
    lr_mult: 2
    decay_mult: 2
  }
  param {
    lr_mult: 0
    decay_mult: 0
  }
  penlu_param {
    alpha_filler {
      type: "constant"
      value: 2
    }
    beta_filler {
      type: "constant"
      value: 1
    }
    eta_filler {
      type: "constant"
      value: 1
    }
  }
}
layer {
  name: "Convolution4"
  type: "Convolution"
  bottom: "Eltwise1"
  top: "Convolution4"
  param {
    lr_mult: 1
    decay_mult: 1
  }
  param {
    lr_mult: 2
    decay_mult: 0
  }
  convolution_param {
    num_output: 16
    pad: 1
    kernel_size: 3
    stride: 1
    weight_filler {
      type: "gaussian"
      std: 0.118
    }
    bias_filler {
      type: "constant"
      value: 0
    }
  }
}
layer {
  name: "BatchNorm4"
  type: "BatchNorm"
  bottom: "Convolution4"
  top: "Convolution4"
  param {
    lr_mult: 0
    decay_mult: 0
  }
  param {
    lr_mult: 0
    decay_mult: 0
  }
  param {
    lr_mult: 0
    decay_mult: 0
  }
}
layer {
  name: "Scale4"
  type: "Scale"
  bottom: "Convolution4"
  top: "Convolution4"
  scale_param {
    bias_term: true
  }
}
layer {
  name: "penlu4"
  type: "PENLU"
  bottom: "Convolution4"
  top: "Convolution4"
  param {
    lr_mult: 2
    decay_mult: 2
  }
  param {
    lr_mult: 2
    decay_mult: 2
  }
  param {
    lr_mult: 0
    decay_mult: 0
  }
  penlu_param {
    alpha_filler {
      type: "constant"
      value: 2
    }
    beta_filler {
      type: "constant"
      value: 1
    }
    eta_filler {
      type: "constant"
      value: 1
    }
  }
}
layer {
  name: "Convolution5"
  type: "Convolution"
  bottom: "Convolution4"
  top: "Convolution5"
  param {
    lr_mult: 1
    decay_mult: 1
  }
  param {
    lr_mult: 2
    decay_mult: 0
  }
  convolution_param {
    num_output: 16
    pad: 1
    kernel_size: 3
    stride: 1
    weight_filler {
      type: "gaussian"
      std: 0.118
    }
    bias_filler {
      type: "constant"
      value: 0
    }
  }
}
layer {
  name: "BatchNorm5"
  type: "BatchNorm"
  bottom: "Convolution5"
  top: "Convolution5"
  param {
    lr_mult: 0
    decay_mult: 0
  }
  param {
    lr_mult: 0
    decay_mult: 0
  }
  param {
    lr_mult: 0
    decay_mult: 0
  }
}
layer {
  name: "Scale5"
  type: "Scale"
  bottom: "Convolution5"
  top: "Convolution5"
  scale_param {
    bias_term: true
  }
}
layer {
  name: "Eltwise2"
  type: "Eltwise"
  bottom: "Eltwise1"
  bottom: "Convolution5"
  top: "Eltwise2"
  eltwise_param {
    operation: SUM
  }
}
layer {
  name: "penlu5"
  type: "PENLU"
  bottom: "Eltwise2"
  top: "Eltwise2"
  param {
    lr_mult: 2
    decay_mult: 2
  }
  param {
    lr_mult: 2
    decay_mult: 2
  }
  param {
    lr_mult: 0
    decay_mult: 0
  }
  penlu_param {
    alpha_filler {
      type: "constant"
      value: 2
    }
    beta_filler {
      type: "constant"
      value: 1
    }
    eta_filler {
      type: "constant"
      value: 1
    }
  }
}
layer {
  name: "Convolution6"
  type: "Convolution"
  bottom: "Eltwise2"
  top: "Convolution6"
  param {
    lr_mult: 1
    decay_mult: 1
  }
  param {
    lr_mult: 2
    decay_mult: 0
  }
  convolution_param {
    num_output: 16
    pad: 1
    kernel_size: 3
    stride: 1
    weight_filler {
      type: "gaussian"
      std: 0.118
    }
    bias_filler {
      type: "constant"
      value: 0
    }
  }
}
layer {
  name: "BatchNorm6"
  type: "BatchNorm"
  bottom: "Convolution6"
  top: "Convolution6"
  param {
    lr_mult: 0
    decay_mult: 0
  }
  param {
    lr_mult: 0
    decay_mult: 0
  }
  param {
    lr_mult: 0
    decay_mult: 0
  }
}
layer {
  name: "Scale6"
  type: "Scale"
  bottom: "Convolution6"
  top: "Convolution6"
  scale_param {
    bias_term: true
  }
}
layer {
  name: "penlu6"
  type: "PENLU"
  bottom: "Convolution6"
  top: "Convolution6"
  param {
    lr_mult: 2
    decay_mult: 2
  }
  param {
    lr_mult: 2
    decay_mult: 2
  }
  param {
    lr_mult: 0
    decay_mult: 0
  }
  penlu_param {
    alpha_filler {
      type: "constant"
      value: 2
    }
    beta_filler {
      type: "constant"
      value: 1
    }
    eta_filler {
      type: "constant"
      value: 1
    }
  }
}
layer {
  name: "Convolution7"
  type: "Convolution"
  bottom: "Convolution6"
  top: "Convolution7"
  param {
    lr_mult: 1
    decay_mult: 1
  }
  param {
    lr_mult: 2
    decay_mult: 0
  }
  convolution_param {
    num_output: 16
    pad: 1
    kernel_size: 3
    stride: 1
    weight_filler {
      type: "gaussian"
      std: 0.118
    }
    bias_filler {
      type: "constant"
      value: 0
    }
  }
}
layer {
  name: "BatchNorm7"
  type: "BatchNorm"
  bottom: "Convolution7"
  top: "Convolution7"
  param {
    lr_mult: 0
    decay_mult: 0
  }
  param {
    lr_mult: 0
    decay_mult: 0
  }
  param {
    lr_mult: 0
    decay_mult: 0
  }
}
layer {
  name: "Scale7"
  type: "Scale"
  bottom: "Convolution7"
  top: "Convolution7"
  scale_param {
    bias_term: true
  }
}
layer {
  name: "Eltwise3"
  type: "Eltwise"
  bottom: "Eltwise2"
  bottom: "Convolution7"
  top: "Eltwise3"
  eltwise_param {
    operation: SUM
  }
}
layer {
  name: "penlu7"
  type: "PENLU"
  bottom: "Eltwise3"
  top: "Eltwise3"
  param {
    lr_mult: 2
    decay_mult: 2
  }
  param {
    lr_mult: 2
    decay_mult: 2
  }
  param {
    lr_mult: 0
    decay_mult: 0
  }
  penlu_param {
    alpha_filler {
      type: "constant"
      value: 2
    }
    beta_filler {
      type: "constant"
      value: 1
    }
    eta_filler {
      type: "constant"
      value: 1
    }
  }
}
layer {
  name: "Convolution8"
  type: "Convolution"
  bottom: "Eltwise3"
  top: "Convolution8"
  param {
    lr_mult: 1
    decay_mult: 1
  }
  param {
    lr_mult: 2
    decay_mult: 0
  }
  convolution_param {
    num_output: 32
    pad: 0
    kernel_size: 1
    stride: 2
    weight_filler {
      type: "gaussian"
      std: 0.25
    }
    bias_filler {
      type: "constant"
      value: 0
    }
  }
}
layer {
  name: "BatchNorm8"
  type: "BatchNorm"
  bottom: "Convolution8"
  top: "Convolution8"
  param {
    lr_mult: 0
    decay_mult: 0
  }
  param {
    lr_mult: 0
    decay_mult: 0
  }
  param {
    lr_mult: 0
    decay_mult: 0
  }
}
layer {
  name: "Scale8"
  type: "Scale"
  bottom: "Convolution8"
  top: "Convolution8"
  scale_param {
    bias_term: true
  }
}
layer {
  name: "Convolution9"
  type: "Convolution"
  bottom: "Eltwise3"
  top: "Convolution9"
  param {
    lr_mult: 1
    decay_mult: 1
  }
  param {
    lr_mult: 2
    decay_mult: 0
  }
  convolution_param {
    num_output: 32
    pad: 1
    kernel_size: 3
    stride: 2
    weight_filler {
      type: "gaussian"
      std: 0.083
    }
    bias_filler {
      type: "constant"
      value: 0
    }
  }
}
layer {
  name: "BatchNorm9"
  type: "BatchNorm"
  bottom: "Convolution9"
  top: "Convolution9"
  param {
    lr_mult: 0
    decay_mult: 0
  }
  param {
    lr_mult: 0
    decay_mult: 0
  }
  param {
    lr_mult: 0
    decay_mult: 0
  }
}
layer {
  name: "Scale9"
  type: "Scale"
  bottom: "Convolution9"
  top: "Convolution9"
  scale_param {
    bias_term: true
  }
}
layer {
  name: "penlu8"
  type: "PENLU"
  bottom: "Convolution9"
  top: "Convolution9"
  param {
    lr_mult: 2
    decay_mult: 2
  }
  param {
    lr_mult: 2
    decay_mult: 2
  }
  param {
    lr_mult: 0
    decay_mult: 0
  }
  penlu_param {
    alpha_filler {
      type: "constant"
      value: 2
    }
    beta_filler {
      type: "constant"
      value: 1
    }
    eta_filler {
      type: "constant"
      value: 1
    }
  }
}
layer {
  name: "Convolution10"
  type: "Convolution"
  bottom: "Convolution9"
  top: "Convolution10"
  param {
    lr_mult: 1
    decay_mult: 1
  }
  param {
    lr_mult: 2
    decay_mult: 0
  }
  convolution_param {
    num_output: 32
    pad: 1
    kernel_size: 3
    stride: 1
    weight_filler {
      type: "gaussian"
      std: 0.083
    }
    bias_filler {
      type: "constant"
      value: 0
    }
  }
}
layer {
  name: "BatchNorm10"
  type: "BatchNorm"
  bottom: "Convolution10"
  top: "Convolution10"
  param {
    lr_mult: 0
    decay_mult: 0
  }
  param {
    lr_mult: 0
    decay_mult: 0
  }
  param {
    lr_mult: 0
    decay_mult: 0
  }
}
layer {
  name: "Scale10"
  type: "Scale"
  bottom: "Convolution10"
  top: "Convolution10"
  scale_param {
    bias_term: true
  }
}
layer {
  name: "Eltwise4"
  type: "Eltwise"
  bottom: "Convolution8"
  bottom: "Convolution10"
  top: "Eltwise4"
  eltwise_param {
    operation: SUM
  }
}
layer {
  name: "penlu9"
  type: "PENLU"
  bottom: "Eltwise4"
  top: "Eltwise4"
  param {
    lr_mult: 2
    decay_mult: 2
  }
  param {
    lr_mult: 2
    decay_mult: 2
  }
  param {
    lr_mult: 0
    decay_mult: 0
  }
  penlu_param {
    alpha_filler {
      type: "constant"
      value: 2
    }
    beta_filler {
      type: "constant"
      value: 1
    }
    eta_filler {
      type: "constant"
      value: 1
    }
  }
}
layer {
  name: "Convolution11"
  type: "Convolution"
  bottom: "Eltwise4"
  top: "Convolution11"
  param {
    lr_mult: 1
    decay_mult: 1
  }
  param {
    lr_mult: 2
    decay_mult: 0
  }
  convolution_param {
    num_output: 32
    pad: 1
    kernel_size: 3
    stride: 1
    weight_filler {
      type: "gaussian"
      std: 0.083
    }
    bias_filler {
      type: "constant"
      value: 0
    }
  }
}
layer {
  name: "BatchNorm11"
  type: "BatchNorm"
  bottom: "Convolution11"
  top: "Convolution11"
  param {
    lr_mult: 0
    decay_mult: 0
  }
  param {
    lr_mult: 0
    decay_mult: 0
  }
  param {
    lr_mult: 0
    decay_mult: 0
  }
}
layer {
  name: "Scale11"
  type: "Scale"
  bottom: "Convolution11"
  top: "Convolution11"
  scale_param {
    bias_term: true
  }
}
layer {
  name: "penlu10"
  type: "PENLU"
  bottom: "Convolution11"
  top: "Convolution11"
  param {
    lr_mult: 2
    decay_mult: 2
  }
  param {
    lr_mult: 2
    decay_mult: 2
  }
  param {
    lr_mult: 0
    decay_mult: 0
  }
  penlu_param {
    alpha_filler {
      type: "constant"
      value: 2
    }
    beta_filler {
      type: "constant"
      value: 1
    }
    eta_filler {
      type: "constant"
      value: 1
    }
  }
}
layer {
  name: "Convolution12"
  type: "Convolution"
  bottom: "Convolution11"
  top: "Convolution12"
  param {
    lr_mult: 1
    decay_mult: 1
  }
  param {
    lr_mult: 2
    decay_mult: 0
  }
  convolution_param {
    num_output: 32
    pad: 1
    kernel_size: 3
    stride: 1
    weight_filler {
      type: "gaussian"
      std: 0.083
    }
    bias_filler {
      type: "constant"
      value: 0
    }
  }
}
layer {
  name: "BatchNorm12"
  type: "BatchNorm"
  bottom: "Convolution12"
  top: "Convolution12"
  param {
    lr_mult: 0
    decay_mult: 0
  }
  param {
    lr_mult: 0
    decay_mult: 0
  }
  param {
    lr_mult: 0
    decay_mult: 0
  }
}
layer {
  name: "Scale12"
  type: "Scale"
  bottom: "Convolution12"
  top: "Convolution12"
  scale_param {
    bias_term: true
  }
}
layer {
  name: "Eltwise5"
  type: "Eltwise"
  bottom: "Eltwise4"
  bottom: "Convolution12"
  top: "Eltwise5"
  eltwise_param {
    operation: SUM
  }
}
layer {
  name: "penlu11"
  type: "PENLU"
  bottom: "Eltwise5"
  top: "Eltwise5"
  param {
    lr_mult: 2
    decay_mult: 2
  }
  param {
    lr_mult: 2
    decay_mult: 2
  }
  param {
    lr_mult: 0
    decay_mult: 0
  }
  penlu_param {
    alpha_filler {
      type: "constant"
      value: 2
    }
    beta_filler {
      type: "constant"
      value: 1
    }
    eta_filler {
      type: "constant"
      value: 1
    }
  }
}
layer {
  name: "Convolution13"
  type: "Convolution"
  bottom: "Eltwise5"
  top: "Convolution13"
  param {
    lr_mult: 1
    decay_mult: 1
  }
  param {
    lr_mult: 2
    decay_mult: 0
  }
  convolution_param {
    num_output: 32
    pad: 1
    kernel_size: 3
    stride: 1
    weight_filler {
      type: "gaussian"
      std: 0.083
    }
    bias_filler {
      type: "constant"
      value: 0
    }
  }
}
layer {
  name: "BatchNorm13"
  type: "BatchNorm"
  bottom: "Convolution13"
  top: "Convolution13"
  param {
    lr_mult: 0
    decay_mult: 0
  }
  param {
    lr_mult: 0
    decay_mult: 0
  }
  param {
    lr_mult: 0
    decay_mult: 0
  }
}
layer {
  name: "Scale13"
  type: "Scale"
  bottom: "Convolution13"
  top: "Convolution13"
  scale_param {
    bias_term: true
  }
}
layer {
  name: "penlu12"
  type: "PENLU"
  bottom: "Convolution13"
  top: "Convolution13"
  param {
    lr_mult: 2
    decay_mult: 2
  }
  param {
    lr_mult: 2
    decay_mult: 2
  }
  param {
    lr_mult: 0
    decay_mult: 0
  }
  penlu_param {
    alpha_filler {
      type: "constant"
      value: 2
    }
    beta_filler {
      type: "constant"
      value: 1
    }
    eta_filler {
      type: "constant"
      value: 1
    }
  }
}
layer {
  name: "Convolution14"
  type: "Convolution"
  bottom: "Convolution13"
  top: "Convolution14"
  param {
    lr_mult: 1
    decay_mult: 1
  }
  param {
    lr_mult: 2
    decay_mult: 0
  }
  convolution_param {
    num_output: 32
    pad: 1
    kernel_size: 3
    stride: 1
    weight_filler {
      type: "gaussian"
      std: 0.083
    }
    bias_filler {
      type: "constant"
      value: 0
    }
  }
}
layer {
  name: "BatchNorm14"
  type: "BatchNorm"
  bottom: "Convolution14"
  top: "Convolution14"
  param {
    lr_mult: 0
    decay_mult: 0
  }
  param {
    lr_mult: 0
    decay_mult: 0
  }
  param {
    lr_mult: 0
    decay_mult: 0
  }
}
layer {
  name: "Scale14"
  type: "Scale"
  bottom: "Convolution14"
  top: "Convolution14"
  scale_param {
    bias_term: true
  }
}
layer {
  name: "Eltwise6"
  type: "Eltwise"
  bottom: "Eltwise5"
  bottom: "Convolution14"
  top: "Eltwise6"
  eltwise_param {
    operation: SUM
  }
}
layer {
  name: "penlu13"
  type: "PENLU"
  bottom: "Eltwise6"
  top: "Eltwise6"
  param {
    lr_mult: 2
    decay_mult: 2
  }
  param {
    lr_mult: 2
    decay_mult: 2
  }
  param {
    lr_mult: 0
    decay_mult: 0
  }
  penlu_param {
    alpha_filler {
      type: "constant"
      value: 2
    }
    beta_filler {
      type: "constant"
      value: 1
    }
    eta_filler {
      type: "constant"
      value: 1
    }
  }
}
layer {
  name: "Convolution15"
  type: "Convolution"
  bottom: "Eltwise6"
  top: "Convolution15"
  param {
    lr_mult: 1
    decay_mult: 1
  }
  param {
    lr_mult: 2
    decay_mult: 0
  }
  convolution_param {
    num_output: 64
    pad: 0
    kernel_size: 1
    stride: 2
    weight_filler {
      type: "gaussian"
      std: 0.17677669
    }
    bias_filler {
      type: "constant"
      value: 0
    }
  }
}
layer {
  name: "BatchNorm15"
  type: "BatchNorm"
  bottom: "Convolution15"
  top: "Convolution15"
  param {
    lr_mult: 0
    decay_mult: 0
  }
  param {
    lr_mult: 0
    decay_mult: 0
  }
  param {
    lr_mult: 0
    decay_mult: 0
  }
}
layer {
  name: "Scale15"
  type: "Scale"
  bottom: "Convolution15"
  top: "Convolution15"
  scale_param {
    bias_term: true
  }
}
layer {
  name: "Convolution16"
  type: "Convolution"
  bottom: "Eltwise6"
  top: "Convolution16"
  param {
    lr_mult: 1
    decay_mult: 1
  }
  param {
    lr_mult: 2
    decay_mult: 0
  }
  convolution_param {
    num_output: 64
    pad: 1
    kernel_size: 3
    stride: 2
    weight_filler {
      type: "gaussian"
      std: 0.059
    }
    bias_filler {
      type: "constant"
      value: 0
    }
  }
}
layer {
  name: "BatchNorm16"
  type: "BatchNorm"
  bottom: "Convolution16"
  top: "Convolution16"
  param {
    lr_mult: 0
    decay_mult: 0
  }
  param {
    lr_mult: 0
    decay_mult: 0
  }
  param {
    lr_mult: 0
    decay_mult: 0
  }
}
layer {
  name: "Scale16"
  type: "Scale"
  bottom: "Convolution16"
  top: "Convolution16"
  scale_param {
    bias_term: true
  }
}
layer {
  name: "penlu14"
  type: "PENLU"
  bottom: "Convolution16"
  top: "Convolution16"
  param {
    lr_mult: 2
    decay_mult: 2
  }
  param {
    lr_mult: 2
    decay_mult: 2
  }
  param {
    lr_mult: 0
    decay_mult: 0
  }
  penlu_param {
    alpha_filler {
      type: "constant"
      value: 2
    }
    beta_filler {
      type: "constant"
      value: 1
    }
    eta_filler {
      type: "constant"
      value: 1
    }
  }
}
layer {
  name: "Convolution17"
  type: "Convolution"
  bottom: "Convolution16"
  top: "Convolution17"
  param {
    lr_mult: 1
    decay_mult: 1
  }
  param {
    lr_mult: 2
    decay_mult: 0
  }
  convolution_param {
    num_output: 64
    pad: 1
    kernel_size: 3
    stride: 1
    weight_filler {
      type: "gaussian"
      std: 0.059
    }
    bias_filler {
      type: "constant"
      value: 0
    }
  }
}
layer {
  name: "BatchNorm17"
  type: "BatchNorm"
  bottom: "Convolution17"
  top: "Convolution17"
  param {
    lr_mult: 0
    decay_mult: 0
  }
  param {
    lr_mult: 0
    decay_mult: 0
  }
  param {
    lr_mult: 0
    decay_mult: 0
  }
}
layer {
  name: "Scale17"
  type: "Scale"
  bottom: "Convolution17"
  top: "Convolution17"
  scale_param {
    bias_term: true
  }
}
layer {
  name: "Eltwise7"
  type: "Eltwise"
  bottom: "Convolution15"
  bottom: "Convolution17"
  top: "Eltwise7"
  eltwise_param {
    operation: SUM
  }
}
layer {
  name: "penlu15"
  type: "PENLU"
  bottom: "Eltwise7"
  top: "Eltwise7"
  param {
    lr_mult: 2
    decay_mult: 2
  }
  param {
    lr_mult: 2
    decay_mult: 2
  }
  param {
    lr_mult: 0
    decay_mult: 0
  }
  penlu_param {
    alpha_filler {
      type: "constant"
      value: 2
    }
    beta_filler {
      type: "constant"
      value: 1
    }
    eta_filler {
      type: "constant"
      value: 1
    }
  }
}
layer {
  name: "Convolution18"
  type: "Convolution"
  bottom: "Eltwise7"
  top: "Convolution18"
  param {
    lr_mult: 1
    decay_mult: 1
  }
  param {
    lr_mult: 2
    decay_mult: 0
  }
  convolution_param {
    num_output: 64
    pad: 1
    kernel_size: 3
    stride: 1
    weight_filler {
      type: "gaussian"
      std: 0.059
    }
    bias_filler {
      type: "constant"
      value: 0
    }
  }
}
layer {
  name: "BatchNorm18"
  type: "BatchNorm"
  bottom: "Convolution18"
  top: "Convolution18"
  param {
    lr_mult: 0
    decay_mult: 0
  }
  param {
    lr_mult: 0
    decay_mult: 0
  }
  param {
    lr_mult: 0
    decay_mult: 0
  }
}
layer {
  name: "Scale18"
  type: "Scale"
  bottom: "Convolution18"
  top: "Convolution18"
  scale_param {
    bias_term: true
  }
}
layer {
  name: "penlu16"
  type: "PENLU"
  bottom: "Convolution18"
  top: "Convolution18"
  param {
    lr_mult: 2
    decay_mult: 2
  }
  param {
    lr_mult: 2
    decay_mult: 2
  }
  param {
    lr_mult: 0
    decay_mult: 0
  }
  penlu_param {
    alpha_filler {
      type: "constant"
      value: 2
    }
    beta_filler {
      type: "constant"
      value: 1
    }
    eta_filler {
      type: "constant"
      value: 1
    }
  }
}
layer {
  name: "Convolution19"
  type: "Convolution"
  bottom: "Convolution18"
  top: "Convolution19"
  param {
    lr_mult: 1
    decay_mult: 1
  }
  param {
    lr_mult: 2
    decay_mult: 0
  }
  convolution_param {
    num_output: 64
    pad: 1
    kernel_size: 3
    stride: 1
    weight_filler {
      type: "gaussian"
      std: 0.059
    }
    bias_filler {
      type: "constant"
      value: 0
    }
  }
}
layer {
  name: "BatchNorm19"
  type: "BatchNorm"
  bottom: "Convolution19"
  top: "Convolution19"
  param {
    lr_mult: 0
    decay_mult: 0
  }
  param {
    lr_mult: 0
    decay_mult: 0
  }
  param {
    lr_mult: 0
    decay_mult: 0
  }
}
layer {
  name: "Scale19"
  type: "Scale"
  bottom: "Convolution19"
  top: "Convolution19"
  scale_param {
    bias_term: true
  }
}
layer {
  name: "Eltwise8"
  type: "Eltwise"
  bottom: "Eltwise7"
  bottom: "Convolution19"
  top: "Eltwise8"
  eltwise_param {
    operation: SUM
  }
}
layer {
  name: "penlu17"
  type: "PENLU"
  bottom: "Eltwise8"
  top: "Eltwise8"
  param {
    lr_mult: 2
    decay_mult: 2
  }
  param {
    lr_mult: 2
    decay_mult: 2
  }
  param {
    lr_mult: 0
    decay_mult: 0
  }
  penlu_param {
    alpha_filler {
      type: "constant"
      value: 2
    }
    beta_filler {
      type: "constant"
      value: 1
    }
    eta_filler {
      type: "constant"
      value: 1
    }
  }
}
layer {
  name: "Convolution20"
  type: "Convolution"
  bottom: "Eltwise8"
  top: "Convolution20"
  param {
    lr_mult: 1
    decay_mult: 1
  }
  param {
    lr_mult: 2
    decay_mult: 0
  }
  convolution_param {
    num_output: 64
    pad: 1
    kernel_size: 3
    stride: 1
    weight_filler {
      type: "gaussian"
      std: 0.059
    }
    bias_filler {
      type: "constant"
      value: 0
    }
  }
}
layer {
  name: "BatchNorm20"
  type: "BatchNorm"
  bottom: "Convolution20"
  top: "Convolution20"
  param {
    lr_mult: 0
    decay_mult: 0
  }
  param {
    lr_mult: 0
    decay_mult: 0
  }
  param {
    lr_mult: 0
    decay_mult: 0
  }
}
layer {
  name: "Scale20"
  type: "Scale"
  bottom: "Convolution20"
  top: "Convolution20"
  scale_param {
    bias_term: true
  }
}
layer {
  name: "penlu18"
  type: "PENLU"
  bottom: "Convolution20"
  top: "Convolution20"
  param {
    lr_mult: 2
    decay_mult: 2
  }
  param {
    lr_mult: 2
    decay_mult: 2
  }
  param {
    lr_mult: 0
    decay_mult: 0
  }
  penlu_param {
    alpha_filler {
      type: "constant"
      value: 2
    }
    beta_filler {
      type: "constant"
      value: 1
    }
    eta_filler {
      type: "constant"
      value: 1
    }
  }
}
layer {
  name: "Convolution21"
  type: "Convolution"
  bottom: "Convolution20"
  top: "Convolution21"
  param {
    lr_mult: 1
    decay_mult: 1
  }
  param {
    lr_mult: 2
    decay_mult: 0
  }
  convolution_param {
    num_output: 64
    pad: 1
    kernel_size: 3
    stride: 1
    weight_filler {
      type: "gaussian"
      std: 0.059
    }
    bias_filler {
      type: "constant"
      value: 0
    }
  }
}
layer {
  name: "BatchNorm21"
  type: "BatchNorm"
  bottom: "Convolution21"
  top: "Convolution21"
  param {
    lr_mult: 0
    decay_mult: 0
  }
  param {
    lr_mult: 0
    decay_mult: 0
  }
  param {
    lr_mult: 0
    decay_mult: 0
  }
}
layer {
  name: "Scale21"
  type: "Scale"
  bottom: "Convolution21"
  top: "Convolution21"
  scale_param {
    bias_term: true
  }
}
layer {
  name: "Eltwise9"
  type: "Eltwise"
  bottom: "Eltwise8"
  bottom: "Convolution21"
  top: "Eltwise9"
  eltwise_param {
    operation: SUM
  }
}
layer {
  name: "penlu19"
  type: "PENLU"
  bottom: "Eltwise9"
  top: "Eltwise9"
  param {
    lr_mult: 2
    decay_mult: 2
  }
  param {
    lr_mult: 2
    decay_mult: 2
  }
  param {
    lr_mult: 0
    decay_mult: 0
  }
  penlu_param {
    alpha_filler {
      type: "constant"
      value: 2
    }
    beta_filler {
      type: "constant"
      value: 1
    }
    eta_filler {
      type: "constant"
      value: 1
    }
  }
}
layer {
  name: "Pooling1"
  type: "Pooling"
  bottom: "Eltwise9"
  top: "Pooling1"
  pooling_param {
    pool: AVE
    global_pooling: true
  }
}
layer {
  name: "InnerProduct1"
  type: "InnerProduct"
  bottom: "Pooling1"
  top: "InnerProduct1"
  param {
    lr_mult: 1
    decay_mult: 1
  }
  param {
    lr_mult: 2
    decay_mult: 1
  }
  inner_product_param {
    num_output: 10
    weight_filler {
      type: "gaussian"
      std: 0.01
    }
    bias_filler {
      type: "constant"
      value: 0
    }
  }
}
layer {
  name: "SoftmaxWithLoss1"
  type: "SoftmaxWithLoss"
  bottom: "InnerProduct1"
  bottom: "Data2"
  top: "SoftmaxWithLoss1"
}
I1005 13:00:40.005213  9519 layer_factory.hpp:77] Creating layer Data1
I1005 13:00:40.005291  9519 db_lmdb.cpp:35] Opened lmdb /home/x306/caffe/xn/PENLU/data/cifar10/cifar10_train_lmdb
I1005 13:00:40.005316  9519 net.cpp:84] Creating Layer Data1
I1005 13:00:40.005321  9519 net.cpp:380] Data1 -> Data1
I1005 13:00:40.005338  9519 net.cpp:380] Data1 -> Data2
I1005 13:00:40.005347  9519 data_transformer.cpp:25] Loading mean file from: /home/x306/caffe/xn/PENLU/data/cifar10/mean.binaryproto
I1005 13:00:40.006799  9519 data_layer.cpp:45] output data size: 100,3,28,28
I1005 13:00:40.009081  9519 net.cpp:122] Setting up Data1
I1005 13:00:40.009094  9519 net.cpp:129] Top shape: 100 3 28 28 (235200)
I1005 13:00:40.009099  9519 net.cpp:129] Top shape: 100 (100)
I1005 13:00:40.009101  9519 net.cpp:137] Memory required for data: 941200
I1005 13:00:40.009107  9519 layer_factory.hpp:77] Creating layer Convolution1
I1005 13:00:40.009125  9519 net.cpp:84] Creating Layer Convolution1
I1005 13:00:40.009130  9519 net.cpp:406] Convolution1 <- Data1
I1005 13:00:40.009138  9519 net.cpp:380] Convolution1 -> Convolution1
I1005 13:00:40.156307  9519 net.cpp:122] Setting up Convolution1
I1005 13:00:40.156330  9519 net.cpp:129] Top shape: 100 16 28 28 (1254400)
I1005 13:00:40.156334  9519 net.cpp:137] Memory required for data: 5958800
I1005 13:00:40.156348  9519 layer_factory.hpp:77] Creating layer BatchNorm1
I1005 13:00:40.156368  9519 net.cpp:84] Creating Layer BatchNorm1
I1005 13:00:40.156373  9519 net.cpp:406] BatchNorm1 <- Convolution1
I1005 13:00:40.156376  9519 net.cpp:367] BatchNorm1 -> Convolution1 (in-place)
I1005 13:00:40.156525  9519 net.cpp:122] Setting up BatchNorm1
I1005 13:00:40.156532  9519 net.cpp:129] Top shape: 100 16 28 28 (1254400)
I1005 13:00:40.156533  9519 net.cpp:137] Memory required for data: 10976400
I1005 13:00:40.156541  9519 layer_factory.hpp:77] Creating layer Scale1
I1005 13:00:40.156561  9519 net.cpp:84] Creating Layer Scale1
I1005 13:00:40.156563  9519 net.cpp:406] Scale1 <- Convolution1
I1005 13:00:40.156568  9519 net.cpp:367] Scale1 -> Convolution1 (in-place)
I1005 13:00:40.156627  9519 layer_factory.hpp:77] Creating layer Scale1
I1005 13:00:40.156724  9519 net.cpp:122] Setting up Scale1
I1005 13:00:40.156729  9519 net.cpp:129] Top shape: 100 16 28 28 (1254400)
I1005 13:00:40.156733  9519 net.cpp:137] Memory required for data: 15994000
I1005 13:00:40.156736  9519 layer_factory.hpp:77] Creating layer penlu1
I1005 13:00:40.156744  9519 net.cpp:84] Creating Layer penlu1
I1005 13:00:40.156747  9519 net.cpp:406] penlu1 <- Convolution1
I1005 13:00:40.156761  9519 net.cpp:367] penlu1 -> Convolution1 (in-place)
I1005 13:00:40.157366  9519 net.cpp:122] Setting up penlu1
I1005 13:00:40.157374  9519 net.cpp:129] Top shape: 100 16 28 28 (1254400)
I1005 13:00:40.157377  9519 net.cpp:137] Memory required for data: 21011600
I1005 13:00:40.157384  9519 layer_factory.hpp:77] Creating layer Convolution1_penlu1_0_split
I1005 13:00:40.157403  9519 net.cpp:84] Creating Layer Convolution1_penlu1_0_split
I1005 13:00:40.157405  9519 net.cpp:406] Convolution1_penlu1_0_split <- Convolution1
I1005 13:00:40.157409  9519 net.cpp:380] Convolution1_penlu1_0_split -> Convolution1_penlu1_0_split_0
I1005 13:00:40.157426  9519 net.cpp:380] Convolution1_penlu1_0_split -> Convolution1_penlu1_0_split_1
I1005 13:00:40.157459  9519 net.cpp:122] Setting up Convolution1_penlu1_0_split
I1005 13:00:40.157475  9519 net.cpp:129] Top shape: 100 16 28 28 (1254400)
I1005 13:00:40.157479  9519 net.cpp:129] Top shape: 100 16 28 28 (1254400)
I1005 13:00:40.157480  9519 net.cpp:137] Memory required for data: 31046800
I1005 13:00:40.157482  9519 layer_factory.hpp:77] Creating layer Convolution2
I1005 13:00:40.157490  9519 net.cpp:84] Creating Layer Convolution2
I1005 13:00:40.157492  9519 net.cpp:406] Convolution2 <- Convolution1_penlu1_0_split_0
I1005 13:00:40.157496  9519 net.cpp:380] Convolution2 -> Convolution2
I1005 13:00:40.158344  9519 net.cpp:122] Setting up Convolution2
I1005 13:00:40.158354  9519 net.cpp:129] Top shape: 100 16 28 28 (1254400)
I1005 13:00:40.158356  9519 net.cpp:137] Memory required for data: 36064400
I1005 13:00:40.158360  9519 layer_factory.hpp:77] Creating layer BatchNorm2
I1005 13:00:40.158386  9519 net.cpp:84] Creating Layer BatchNorm2
I1005 13:00:40.158390  9519 net.cpp:406] BatchNorm2 <- Convolution2
I1005 13:00:40.158403  9519 net.cpp:367] BatchNorm2 -> Convolution2 (in-place)
I1005 13:00:40.158546  9519 net.cpp:122] Setting up BatchNorm2
I1005 13:00:40.158552  9519 net.cpp:129] Top shape: 100 16 28 28 (1254400)
I1005 13:00:40.158555  9519 net.cpp:137] Memory required for data: 41082000
I1005 13:00:40.158560  9519 layer_factory.hpp:77] Creating layer Scale2
I1005 13:00:40.158565  9519 net.cpp:84] Creating Layer Scale2
I1005 13:00:40.158566  9519 net.cpp:406] Scale2 <- Convolution2
I1005 13:00:40.158569  9519 net.cpp:367] Scale2 -> Convolution2 (in-place)
I1005 13:00:40.158613  9519 layer_factory.hpp:77] Creating layer Scale2
I1005 13:00:40.158700  9519 net.cpp:122] Setting up Scale2
I1005 13:00:40.158705  9519 net.cpp:129] Top shape: 100 16 28 28 (1254400)
I1005 13:00:40.158707  9519 net.cpp:137] Memory required for data: 46099600
I1005 13:00:40.158713  9519 layer_factory.hpp:77] Creating layer penlu2
I1005 13:00:40.158718  9519 net.cpp:84] Creating Layer penlu2
I1005 13:00:40.158720  9519 net.cpp:406] penlu2 <- Convolution2
I1005 13:00:40.158723  9519 net.cpp:367] penlu2 -> Convolution2 (in-place)
I1005 13:00:40.158835  9519 net.cpp:122] Setting up penlu2
I1005 13:00:40.158840  9519 net.cpp:129] Top shape: 100 16 28 28 (1254400)
I1005 13:00:40.158843  9519 net.cpp:137] Memory required for data: 51117200
I1005 13:00:40.158846  9519 layer_factory.hpp:77] Creating layer Convolution3
I1005 13:00:40.158852  9519 net.cpp:84] Creating Layer Convolution3
I1005 13:00:40.158855  9519 net.cpp:406] Convolution3 <- Convolution2
I1005 13:00:40.158859  9519 net.cpp:380] Convolution3 -> Convolution3
I1005 13:00:40.159700  9519 net.cpp:122] Setting up Convolution3
I1005 13:00:40.159709  9519 net.cpp:129] Top shape: 100 16 28 28 (1254400)
I1005 13:00:40.159713  9519 net.cpp:137] Memory required for data: 56134800
I1005 13:00:40.159718  9519 layer_factory.hpp:77] Creating layer BatchNorm3
I1005 13:00:40.159723  9519 net.cpp:84] Creating Layer BatchNorm3
I1005 13:00:40.159724  9519 net.cpp:406] BatchNorm3 <- Convolution3
I1005 13:00:40.159739  9519 net.cpp:367] BatchNorm3 -> Convolution3 (in-place)
I1005 13:00:40.159863  9519 net.cpp:122] Setting up BatchNorm3
I1005 13:00:40.159868  9519 net.cpp:129] Top shape: 100 16 28 28 (1254400)
I1005 13:00:40.159870  9519 net.cpp:137] Memory required for data: 61152400
I1005 13:00:40.159875  9519 layer_factory.hpp:77] Creating layer Scale3
I1005 13:00:40.159879  9519 net.cpp:84] Creating Layer Scale3
I1005 13:00:40.159881  9519 net.cpp:406] Scale3 <- Convolution3
I1005 13:00:40.159884  9519 net.cpp:367] Scale3 -> Convolution3 (in-place)
I1005 13:00:40.159926  9519 layer_factory.hpp:77] Creating layer Scale3
I1005 13:00:40.160013  9519 net.cpp:122] Setting up Scale3
I1005 13:00:40.160018  9519 net.cpp:129] Top shape: 100 16 28 28 (1254400)
I1005 13:00:40.160020  9519 net.cpp:137] Memory required for data: 66170000
I1005 13:00:40.160024  9519 layer_factory.hpp:77] Creating layer Eltwise1
I1005 13:00:40.160028  9519 net.cpp:84] Creating Layer Eltwise1
I1005 13:00:40.160032  9519 net.cpp:406] Eltwise1 <- Convolution1_penlu1_0_split_1
I1005 13:00:40.160034  9519 net.cpp:406] Eltwise1 <- Convolution3
I1005 13:00:40.160037  9519 net.cpp:380] Eltwise1 -> Eltwise1
I1005 13:00:40.160063  9519 net.cpp:122] Setting up Eltwise1
I1005 13:00:40.160078  9519 net.cpp:129] Top shape: 100 16 28 28 (1254400)
I1005 13:00:40.160079  9519 net.cpp:137] Memory required for data: 71187600
I1005 13:00:40.160081  9519 layer_factory.hpp:77] Creating layer penlu3
I1005 13:00:40.160086  9519 net.cpp:84] Creating Layer penlu3
I1005 13:00:40.160089  9519 net.cpp:406] penlu3 <- Eltwise1
I1005 13:00:40.160092  9519 net.cpp:367] penlu3 -> Eltwise1 (in-place)
I1005 13:00:40.160204  9519 net.cpp:122] Setting up penlu3
I1005 13:00:40.160209  9519 net.cpp:129] Top shape: 100 16 28 28 (1254400)
I1005 13:00:40.160212  9519 net.cpp:137] Memory required for data: 76205200
I1005 13:00:40.160223  9519 layer_factory.hpp:77] Creating layer Eltwise1_penlu3_0_split
I1005 13:00:40.160226  9519 net.cpp:84] Creating Layer Eltwise1_penlu3_0_split
I1005 13:00:40.160239  9519 net.cpp:406] Eltwise1_penlu3_0_split <- Eltwise1
I1005 13:00:40.160243  9519 net.cpp:380] Eltwise1_penlu3_0_split -> Eltwise1_penlu3_0_split_0
I1005 13:00:40.160248  9519 net.cpp:380] Eltwise1_penlu3_0_split -> Eltwise1_penlu3_0_split_1
I1005 13:00:40.160293  9519 net.cpp:122] Setting up Eltwise1_penlu3_0_split
I1005 13:00:40.160307  9519 net.cpp:129] Top shape: 100 16 28 28 (1254400)
I1005 13:00:40.160310  9519 net.cpp:129] Top shape: 100 16 28 28 (1254400)
I1005 13:00:40.160311  9519 net.cpp:137] Memory required for data: 86240400
I1005 13:00:40.160313  9519 layer_factory.hpp:77] Creating layer Convolution4
I1005 13:00:40.160320  9519 net.cpp:84] Creating Layer Convolution4
I1005 13:00:40.160322  9519 net.cpp:406] Convolution4 <- Eltwise1_penlu3_0_split_0
I1005 13:00:40.160336  9519 net.cpp:380] Convolution4 -> Convolution4
I1005 13:00:40.161188  9519 net.cpp:122] Setting up Convolution4
I1005 13:00:40.161198  9519 net.cpp:129] Top shape: 100 16 28 28 (1254400)
I1005 13:00:40.161201  9519 net.cpp:137] Memory required for data: 91258000
I1005 13:00:40.161206  9519 layer_factory.hpp:77] Creating layer BatchNorm4
I1005 13:00:40.161209  9519 net.cpp:84] Creating Layer BatchNorm4
I1005 13:00:40.161212  9519 net.cpp:406] BatchNorm4 <- Convolution4
I1005 13:00:40.161226  9519 net.cpp:367] BatchNorm4 -> Convolution4 (in-place)
I1005 13:00:40.161368  9519 net.cpp:122] Setting up BatchNorm4
I1005 13:00:40.161373  9519 net.cpp:129] Top shape: 100 16 28 28 (1254400)
I1005 13:00:40.161376  9519 net.cpp:137] Memory required for data: 96275600
I1005 13:00:40.161383  9519 layer_factory.hpp:77] Creating layer Scale4
I1005 13:00:40.161387  9519 net.cpp:84] Creating Layer Scale4
I1005 13:00:40.161391  9519 net.cpp:406] Scale4 <- Convolution4
I1005 13:00:40.161402  9519 net.cpp:367] Scale4 -> Convolution4 (in-place)
I1005 13:00:40.161435  9519 layer_factory.hpp:77] Creating layer Scale4
I1005 13:00:40.161522  9519 net.cpp:122] Setting up Scale4
I1005 13:00:40.161527  9519 net.cpp:129] Top shape: 100 16 28 28 (1254400)
I1005 13:00:40.161530  9519 net.cpp:137] Memory required for data: 101293200
I1005 13:00:40.161533  9519 layer_factory.hpp:77] Creating layer penlu4
I1005 13:00:40.161538  9519 net.cpp:84] Creating Layer penlu4
I1005 13:00:40.161541  9519 net.cpp:406] penlu4 <- Convolution4
I1005 13:00:40.161545  9519 net.cpp:367] penlu4 -> Convolution4 (in-place)
I1005 13:00:40.161658  9519 net.cpp:122] Setting up penlu4
I1005 13:00:40.161662  9519 net.cpp:129] Top shape: 100 16 28 28 (1254400)
I1005 13:00:40.161664  9519 net.cpp:137] Memory required for data: 106310800
I1005 13:00:40.161669  9519 layer_factory.hpp:77] Creating layer Convolution5
I1005 13:00:40.161686  9519 net.cpp:84] Creating Layer Convolution5
I1005 13:00:40.161689  9519 net.cpp:406] Convolution5 <- Convolution4
I1005 13:00:40.161695  9519 net.cpp:380] Convolution5 -> Convolution5
I1005 13:00:40.162575  9519 net.cpp:122] Setting up Convolution5
I1005 13:00:40.162585  9519 net.cpp:129] Top shape: 100 16 28 28 (1254400)
I1005 13:00:40.162588  9519 net.cpp:137] Memory required for data: 111328400
I1005 13:00:40.162593  9519 layer_factory.hpp:77] Creating layer BatchNorm5
I1005 13:00:40.162598  9519 net.cpp:84] Creating Layer BatchNorm5
I1005 13:00:40.162612  9519 net.cpp:406] BatchNorm5 <- Convolution5
I1005 13:00:40.162616  9519 net.cpp:367] BatchNorm5 -> Convolution5 (in-place)
I1005 13:00:40.162750  9519 net.cpp:122] Setting up BatchNorm5
I1005 13:00:40.162755  9519 net.cpp:129] Top shape: 100 16 28 28 (1254400)
I1005 13:00:40.162756  9519 net.cpp:137] Memory required for data: 116346000
I1005 13:00:40.162761  9519 layer_factory.hpp:77] Creating layer Scale5
I1005 13:00:40.162765  9519 net.cpp:84] Creating Layer Scale5
I1005 13:00:40.162767  9519 net.cpp:406] Scale5 <- Convolution5
I1005 13:00:40.162771  9519 net.cpp:367] Scale5 -> Convolution5 (in-place)
I1005 13:00:40.162823  9519 layer_factory.hpp:77] Creating layer Scale5
I1005 13:00:40.162919  9519 net.cpp:122] Setting up Scale5
I1005 13:00:40.162925  9519 net.cpp:129] Top shape: 100 16 28 28 (1254400)
I1005 13:00:40.162935  9519 net.cpp:137] Memory required for data: 121363600
I1005 13:00:40.162940  9519 layer_factory.hpp:77] Creating layer Eltwise2
I1005 13:00:40.162943  9519 net.cpp:84] Creating Layer Eltwise2
I1005 13:00:40.162946  9519 net.cpp:406] Eltwise2 <- Eltwise1_penlu3_0_split_1
I1005 13:00:40.162950  9519 net.cpp:406] Eltwise2 <- Convolution5
I1005 13:00:40.162953  9519 net.cpp:380] Eltwise2 -> Eltwise2
I1005 13:00:40.162968  9519 net.cpp:122] Setting up Eltwise2
I1005 13:00:40.162982  9519 net.cpp:129] Top shape: 100 16 28 28 (1254400)
I1005 13:00:40.162984  9519 net.cpp:137] Memory required for data: 126381200
I1005 13:00:40.162986  9519 layer_factory.hpp:77] Creating layer penlu5
I1005 13:00:40.163000  9519 net.cpp:84] Creating Layer penlu5
I1005 13:00:40.163002  9519 net.cpp:406] penlu5 <- Eltwise2
I1005 13:00:40.163007  9519 net.cpp:367] penlu5 -> Eltwise2 (in-place)
I1005 13:00:40.163130  9519 net.cpp:122] Setting up penlu5
I1005 13:00:40.163136  9519 net.cpp:129] Top shape: 100 16 28 28 (1254400)
I1005 13:00:40.163138  9519 net.cpp:137] Memory required for data: 131398800
I1005 13:00:40.163153  9519 layer_factory.hpp:77] Creating layer Eltwise2_penlu5_0_split
I1005 13:00:40.163157  9519 net.cpp:84] Creating Layer Eltwise2_penlu5_0_split
I1005 13:00:40.163161  9519 net.cpp:406] Eltwise2_penlu5_0_split <- Eltwise2
I1005 13:00:40.163164  9519 net.cpp:380] Eltwise2_penlu5_0_split -> Eltwise2_penlu5_0_split_0
I1005 13:00:40.163168  9519 net.cpp:380] Eltwise2_penlu5_0_split -> Eltwise2_penlu5_0_split_1
I1005 13:00:40.163202  9519 net.cpp:122] Setting up Eltwise2_penlu5_0_split
I1005 13:00:40.163205  9519 net.cpp:129] Top shape: 100 16 28 28 (1254400)
I1005 13:00:40.163209  9519 net.cpp:129] Top shape: 100 16 28 28 (1254400)
I1005 13:00:40.163221  9519 net.cpp:137] Memory required for data: 141434000
I1005 13:00:40.163223  9519 layer_factory.hpp:77] Creating layer Convolution6
I1005 13:00:40.163230  9519 net.cpp:84] Creating Layer Convolution6
I1005 13:00:40.163233  9519 net.cpp:406] Convolution6 <- Eltwise2_penlu5_0_split_0
I1005 13:00:40.163238  9519 net.cpp:380] Convolution6 -> Convolution6
I1005 13:00:40.164132  9519 net.cpp:122] Setting up Convolution6
I1005 13:00:40.164144  9519 net.cpp:129] Top shape: 100 16 28 28 (1254400)
I1005 13:00:40.164147  9519 net.cpp:137] Memory required for data: 146451600
I1005 13:00:40.164152  9519 layer_factory.hpp:77] Creating layer BatchNorm6
I1005 13:00:40.164157  9519 net.cpp:84] Creating Layer BatchNorm6
I1005 13:00:40.164160  9519 net.cpp:406] BatchNorm6 <- Convolution6
I1005 13:00:40.164165  9519 net.cpp:367] BatchNorm6 -> Convolution6 (in-place)
I1005 13:00:40.164297  9519 net.cpp:122] Setting up BatchNorm6
I1005 13:00:40.164304  9519 net.cpp:129] Top shape: 100 16 28 28 (1254400)
I1005 13:00:40.164306  9519 net.cpp:137] Memory required for data: 151469200
I1005 13:00:40.164310  9519 layer_factory.hpp:77] Creating layer Scale6
I1005 13:00:40.164315  9519 net.cpp:84] Creating Layer Scale6
I1005 13:00:40.164319  9519 net.cpp:406] Scale6 <- Convolution6
I1005 13:00:40.164322  9519 net.cpp:367] Scale6 -> Convolution6 (in-place)
I1005 13:00:40.164348  9519 layer_factory.hpp:77] Creating layer Scale6
I1005 13:00:40.164424  9519 net.cpp:122] Setting up Scale6
I1005 13:00:40.164430  9519 net.cpp:129] Top shape: 100 16 28 28 (1254400)
I1005 13:00:40.164433  9519 net.cpp:137] Memory required for data: 156486800
I1005 13:00:40.164436  9519 layer_factory.hpp:77] Creating layer penlu6
I1005 13:00:40.164443  9519 net.cpp:84] Creating Layer penlu6
I1005 13:00:40.164446  9519 net.cpp:406] penlu6 <- Convolution6
I1005 13:00:40.164450  9519 net.cpp:367] penlu6 -> Convolution6 (in-place)
I1005 13:00:40.164557  9519 net.cpp:122] Setting up penlu6
I1005 13:00:40.164562  9519 net.cpp:129] Top shape: 100 16 28 28 (1254400)
I1005 13:00:40.164566  9519 net.cpp:137] Memory required for data: 161504400
I1005 13:00:40.164577  9519 layer_factory.hpp:77] Creating layer Convolution7
I1005 13:00:40.164585  9519 net.cpp:84] Creating Layer Convolution7
I1005 13:00:40.164588  9519 net.cpp:406] Convolution7 <- Convolution6
I1005 13:00:40.164593  9519 net.cpp:380] Convolution7 -> Convolution7
I1005 13:00:40.165158  9519 net.cpp:122] Setting up Convolution7
I1005 13:00:40.165168  9519 net.cpp:129] Top shape: 100 16 28 28 (1254400)
I1005 13:00:40.165170  9519 net.cpp:137] Memory required for data: 166522000
I1005 13:00:40.165175  9519 layer_factory.hpp:77] Creating layer BatchNorm7
I1005 13:00:40.165180  9519 net.cpp:84] Creating Layer BatchNorm7
I1005 13:00:40.165184  9519 net.cpp:406] BatchNorm7 <- Convolution7
I1005 13:00:40.165189  9519 net.cpp:367] BatchNorm7 -> Convolution7 (in-place)
I1005 13:00:40.165318  9519 net.cpp:122] Setting up BatchNorm7
I1005 13:00:40.165323  9519 net.cpp:129] Top shape: 100 16 28 28 (1254400)
I1005 13:00:40.165326  9519 net.cpp:137] Memory required for data: 171539600
I1005 13:00:40.165336  9519 layer_factory.hpp:77] Creating layer Scale7
I1005 13:00:40.165344  9519 net.cpp:84] Creating Layer Scale7
I1005 13:00:40.165347  9519 net.cpp:406] Scale7 <- Convolution7
I1005 13:00:40.165350  9519 net.cpp:367] Scale7 -> Convolution7 (in-place)
I1005 13:00:40.165377  9519 layer_factory.hpp:77] Creating layer Scale7
I1005 13:00:40.165454  9519 net.cpp:122] Setting up Scale7
I1005 13:00:40.165459  9519 net.cpp:129] Top shape: 100 16 28 28 (1254400)
I1005 13:00:40.165462  9519 net.cpp:137] Memory required for data: 176557200
I1005 13:00:40.165467  9519 layer_factory.hpp:77] Creating layer Eltwise3
I1005 13:00:40.165472  9519 net.cpp:84] Creating Layer Eltwise3
I1005 13:00:40.165474  9519 net.cpp:406] Eltwise3 <- Eltwise2_penlu5_0_split_1
I1005 13:00:40.165477  9519 net.cpp:406] Eltwise3 <- Convolution7
I1005 13:00:40.165480  9519 net.cpp:380] Eltwise3 -> Eltwise3
I1005 13:00:40.165495  9519 net.cpp:122] Setting up Eltwise3
I1005 13:00:40.165500  9519 net.cpp:129] Top shape: 100 16 28 28 (1254400)
I1005 13:00:40.165503  9519 net.cpp:137] Memory required for data: 181574800
I1005 13:00:40.165505  9519 layer_factory.hpp:77] Creating layer penlu7
I1005 13:00:40.165511  9519 net.cpp:84] Creating Layer penlu7
I1005 13:00:40.165514  9519 net.cpp:406] penlu7 <- Eltwise3
I1005 13:00:40.165518  9519 net.cpp:367] penlu7 -> Eltwise3 (in-place)
I1005 13:00:40.165622  9519 net.cpp:122] Setting up penlu7
I1005 13:00:40.165628  9519 net.cpp:129] Top shape: 100 16 28 28 (1254400)
I1005 13:00:40.165632  9519 net.cpp:137] Memory required for data: 186592400
I1005 13:00:40.165635  9519 layer_factory.hpp:77] Creating layer Eltwise3_penlu7_0_split
I1005 13:00:40.165640  9519 net.cpp:84] Creating Layer Eltwise3_penlu7_0_split
I1005 13:00:40.165643  9519 net.cpp:406] Eltwise3_penlu7_0_split <- Eltwise3
I1005 13:00:40.165647  9519 net.cpp:380] Eltwise3_penlu7_0_split -> Eltwise3_penlu7_0_split_0
I1005 13:00:40.165652  9519 net.cpp:380] Eltwise3_penlu7_0_split -> Eltwise3_penlu7_0_split_1
I1005 13:00:40.165673  9519 net.cpp:122] Setting up Eltwise3_penlu7_0_split
I1005 13:00:40.165678  9519 net.cpp:129] Top shape: 100 16 28 28 (1254400)
I1005 13:00:40.165681  9519 net.cpp:129] Top shape: 100 16 28 28 (1254400)
I1005 13:00:40.165684  9519 net.cpp:137] Memory required for data: 196627600
I1005 13:00:40.165686  9519 layer_factory.hpp:77] Creating layer Convolution8
I1005 13:00:40.165693  9519 net.cpp:84] Creating Layer Convolution8
I1005 13:00:40.165696  9519 net.cpp:406] Convolution8 <- Eltwise3_penlu7_0_split_0
I1005 13:00:40.165699  9519 net.cpp:380] Convolution8 -> Convolution8
I1005 13:00:40.166887  9519 net.cpp:122] Setting up Convolution8
I1005 13:00:40.166896  9519 net.cpp:129] Top shape: 100 32 14 14 (627200)
I1005 13:00:40.166899  9519 net.cpp:137] Memory required for data: 199136400
I1005 13:00:40.166904  9519 layer_factory.hpp:77] Creating layer BatchNorm8
I1005 13:00:40.166911  9519 net.cpp:84] Creating Layer BatchNorm8
I1005 13:00:40.166914  9519 net.cpp:406] BatchNorm8 <- Convolution8
I1005 13:00:40.166918  9519 net.cpp:367] BatchNorm8 -> Convolution8 (in-place)
I1005 13:00:40.167059  9519 net.cpp:122] Setting up BatchNorm8
I1005 13:00:40.167065  9519 net.cpp:129] Top shape: 100 32 14 14 (627200)
I1005 13:00:40.167068  9519 net.cpp:137] Memory required for data: 201645200
I1005 13:00:40.167073  9519 layer_factory.hpp:77] Creating layer Scale8
I1005 13:00:40.167078  9519 net.cpp:84] Creating Layer Scale8
I1005 13:00:40.167080  9519 net.cpp:406] Scale8 <- Convolution8
I1005 13:00:40.167084  9519 net.cpp:367] Scale8 -> Convolution8 (in-place)
I1005 13:00:40.167110  9519 layer_factory.hpp:77] Creating layer Scale8
I1005 13:00:40.167186  9519 net.cpp:122] Setting up Scale8
I1005 13:00:40.167191  9519 net.cpp:129] Top shape: 100 32 14 14 (627200)
I1005 13:00:40.167192  9519 net.cpp:137] Memory required for data: 204154000
I1005 13:00:40.167196  9519 layer_factory.hpp:77] Creating layer Convolution9
I1005 13:00:40.167204  9519 net.cpp:84] Creating Layer Convolution9
I1005 13:00:40.167207  9519 net.cpp:406] Convolution9 <- Eltwise3_penlu7_0_split_1
I1005 13:00:40.167212  9519 net.cpp:380] Convolution9 -> Convolution9
I1005 13:00:40.168743  9519 net.cpp:122] Setting up Convolution9
I1005 13:00:40.168756  9519 net.cpp:129] Top shape: 100 32 14 14 (627200)
I1005 13:00:40.168758  9519 net.cpp:137] Memory required for data: 206662800
I1005 13:00:40.168763  9519 layer_factory.hpp:77] Creating layer BatchNorm9
I1005 13:00:40.168769  9519 net.cpp:84] Creating Layer BatchNorm9
I1005 13:00:40.168772  9519 net.cpp:406] BatchNorm9 <- Convolution9
I1005 13:00:40.168777  9519 net.cpp:367] BatchNorm9 -> Convolution9 (in-place)
I1005 13:00:40.168910  9519 net.cpp:122] Setting up BatchNorm9
I1005 13:00:40.168916  9519 net.cpp:129] Top shape: 100 32 14 14 (627200)
I1005 13:00:40.168918  9519 net.cpp:137] Memory required for data: 209171600
I1005 13:00:40.168923  9519 layer_factory.hpp:77] Creating layer Scale9
I1005 13:00:40.168928  9519 net.cpp:84] Creating Layer Scale9
I1005 13:00:40.168931  9519 net.cpp:406] Scale9 <- Convolution9
I1005 13:00:40.168936  9519 net.cpp:367] Scale9 -> Convolution9 (in-place)
I1005 13:00:40.168962  9519 layer_factory.hpp:77] Creating layer Scale9
I1005 13:00:40.169034  9519 net.cpp:122] Setting up Scale9
I1005 13:00:40.169039  9519 net.cpp:129] Top shape: 100 32 14 14 (627200)
I1005 13:00:40.169042  9519 net.cpp:137] Memory required for data: 211680400
I1005 13:00:40.169046  9519 layer_factory.hpp:77] Creating layer penlu8
I1005 13:00:40.169052  9519 net.cpp:84] Creating Layer penlu8
I1005 13:00:40.169055  9519 net.cpp:406] penlu8 <- Convolution9
I1005 13:00:40.169059  9519 net.cpp:367] penlu8 -> Convolution9 (in-place)
I1005 13:00:40.169162  9519 net.cpp:122] Setting up penlu8
I1005 13:00:40.169167  9519 net.cpp:129] Top shape: 100 32 14 14 (627200)
I1005 13:00:40.169170  9519 net.cpp:137] Memory required for data: 214189200
I1005 13:00:40.169175  9519 layer_factory.hpp:77] Creating layer Convolution10
I1005 13:00:40.169183  9519 net.cpp:84] Creating Layer Convolution10
I1005 13:00:40.169185  9519 net.cpp:406] Convolution10 <- Convolution9
I1005 13:00:40.169200  9519 net.cpp:380] Convolution10 -> Convolution10
I1005 13:00:40.170305  9519 net.cpp:122] Setting up Convolution10
I1005 13:00:40.170315  9519 net.cpp:129] Top shape: 100 32 14 14 (627200)
I1005 13:00:40.170320  9519 net.cpp:137] Memory required for data: 216698000
I1005 13:00:40.170325  9519 layer_factory.hpp:77] Creating layer BatchNorm10
I1005 13:00:40.170331  9519 net.cpp:84] Creating Layer BatchNorm10
I1005 13:00:40.170333  9519 net.cpp:406] BatchNorm10 <- Convolution10
I1005 13:00:40.170338  9519 net.cpp:367] BatchNorm10 -> Convolution10 (in-place)
I1005 13:00:40.170467  9519 net.cpp:122] Setting up BatchNorm10
I1005 13:00:40.170472  9519 net.cpp:129] Top shape: 100 32 14 14 (627200)
I1005 13:00:40.170475  9519 net.cpp:137] Memory required for data: 219206800
I1005 13:00:40.170480  9519 layer_factory.hpp:77] Creating layer Scale10
I1005 13:00:40.170485  9519 net.cpp:84] Creating Layer Scale10
I1005 13:00:40.170487  9519 net.cpp:406] Scale10 <- Convolution10
I1005 13:00:40.170498  9519 net.cpp:367] Scale10 -> Convolution10 (in-place)
I1005 13:00:40.170547  9519 layer_factory.hpp:77] Creating layer Scale10
I1005 13:00:40.170634  9519 net.cpp:122] Setting up Scale10
I1005 13:00:40.170639  9519 net.cpp:129] Top shape: 100 32 14 14 (627200)
I1005 13:00:40.170641  9519 net.cpp:137] Memory required for data: 221715600
I1005 13:00:40.170645  9519 layer_factory.hpp:77] Creating layer Eltwise4
I1005 13:00:40.170650  9519 net.cpp:84] Creating Layer Eltwise4
I1005 13:00:40.170653  9519 net.cpp:406] Eltwise4 <- Convolution8
I1005 13:00:40.170656  9519 net.cpp:406] Eltwise4 <- Convolution10
I1005 13:00:40.170660  9519 net.cpp:380] Eltwise4 -> Eltwise4
I1005 13:00:40.170676  9519 net.cpp:122] Setting up Eltwise4
I1005 13:00:40.170680  9519 net.cpp:129] Top shape: 100 32 14 14 (627200)
I1005 13:00:40.170683  9519 net.cpp:137] Memory required for data: 224224400
I1005 13:00:40.170686  9519 layer_factory.hpp:77] Creating layer penlu9
I1005 13:00:40.170691  9519 net.cpp:84] Creating Layer penlu9
I1005 13:00:40.170694  9519 net.cpp:406] penlu9 <- Eltwise4
I1005 13:00:40.170698  9519 net.cpp:367] penlu9 -> Eltwise4 (in-place)
I1005 13:00:40.170804  9519 net.cpp:122] Setting up penlu9
I1005 13:00:40.170809  9519 net.cpp:129] Top shape: 100 32 14 14 (627200)
I1005 13:00:40.170811  9519 net.cpp:137] Memory required for data: 226733200
I1005 13:00:40.170816  9519 layer_factory.hpp:77] Creating layer Eltwise4_penlu9_0_split
I1005 13:00:40.170820  9519 net.cpp:84] Creating Layer Eltwise4_penlu9_0_split
I1005 13:00:40.170824  9519 net.cpp:406] Eltwise4_penlu9_0_split <- Eltwise4
I1005 13:00:40.170827  9519 net.cpp:380] Eltwise4_penlu9_0_split -> Eltwise4_penlu9_0_split_0
I1005 13:00:40.170831  9519 net.cpp:380] Eltwise4_penlu9_0_split -> Eltwise4_penlu9_0_split_1
I1005 13:00:40.170855  9519 net.cpp:122] Setting up Eltwise4_penlu9_0_split
I1005 13:00:40.170858  9519 net.cpp:129] Top shape: 100 32 14 14 (627200)
I1005 13:00:40.170862  9519 net.cpp:129] Top shape: 100 32 14 14 (627200)
I1005 13:00:40.170864  9519 net.cpp:137] Memory required for data: 231750800
I1005 13:00:40.170867  9519 layer_factory.hpp:77] Creating layer Convolution11
I1005 13:00:40.170872  9519 net.cpp:84] Creating Layer Convolution11
I1005 13:00:40.170876  9519 net.cpp:406] Convolution11 <- Eltwise4_penlu9_0_split_0
I1005 13:00:40.170881  9519 net.cpp:380] Convolution11 -> Convolution11
I1005 13:00:40.171917  9519 net.cpp:122] Setting up Convolution11
I1005 13:00:40.171928  9519 net.cpp:129] Top shape: 100 32 14 14 (627200)
I1005 13:00:40.171931  9519 net.cpp:137] Memory required for data: 234259600
I1005 13:00:40.171936  9519 layer_factory.hpp:77] Creating layer BatchNorm11
I1005 13:00:40.171941  9519 net.cpp:84] Creating Layer BatchNorm11
I1005 13:00:40.171944  9519 net.cpp:406] BatchNorm11 <- Convolution11
I1005 13:00:40.171948  9519 net.cpp:367] BatchNorm11 -> Convolution11 (in-place)
I1005 13:00:40.172080  9519 net.cpp:122] Setting up BatchNorm11
I1005 13:00:40.172085  9519 net.cpp:129] Top shape: 100 32 14 14 (627200)
I1005 13:00:40.172087  9519 net.cpp:137] Memory required for data: 236768400
I1005 13:00:40.172092  9519 layer_factory.hpp:77] Creating layer Scale11
I1005 13:00:40.172096  9519 net.cpp:84] Creating Layer Scale11
I1005 13:00:40.172101  9519 net.cpp:406] Scale11 <- Convolution11
I1005 13:00:40.172103  9519 net.cpp:367] Scale11 -> Convolution11 (in-place)
I1005 13:00:40.172129  9519 layer_factory.hpp:77] Creating layer Scale11
I1005 13:00:40.172204  9519 net.cpp:122] Setting up Scale11
I1005 13:00:40.172209  9519 net.cpp:129] Top shape: 100 32 14 14 (627200)
I1005 13:00:40.172212  9519 net.cpp:137] Memory required for data: 239277200
I1005 13:00:40.172216  9519 layer_factory.hpp:77] Creating layer penlu10
I1005 13:00:40.172221  9519 net.cpp:84] Creating Layer penlu10
I1005 13:00:40.172224  9519 net.cpp:406] penlu10 <- Convolution11
I1005 13:00:40.172228  9519 net.cpp:367] penlu10 -> Convolution11 (in-place)
I1005 13:00:40.172332  9519 net.cpp:122] Setting up penlu10
I1005 13:00:40.172336  9519 net.cpp:129] Top shape: 100 32 14 14 (627200)
I1005 13:00:40.172348  9519 net.cpp:137] Memory required for data: 241786000
I1005 13:00:40.172353  9519 layer_factory.hpp:77] Creating layer Convolution12
I1005 13:00:40.172363  9519 net.cpp:84] Creating Layer Convolution12
I1005 13:00:40.172368  9519 net.cpp:406] Convolution12 <- Convolution11
I1005 13:00:40.172384  9519 net.cpp:380] Convolution12 -> Convolution12
I1005 13:00:40.173485  9519 net.cpp:122] Setting up Convolution12
I1005 13:00:40.173496  9519 net.cpp:129] Top shape: 100 32 14 14 (627200)
I1005 13:00:40.173499  9519 net.cpp:137] Memory required for data: 244294800
I1005 13:00:40.173504  9519 layer_factory.hpp:77] Creating layer BatchNorm12
I1005 13:00:40.173511  9519 net.cpp:84] Creating Layer BatchNorm12
I1005 13:00:40.173516  9519 net.cpp:406] BatchNorm12 <- Convolution12
I1005 13:00:40.173518  9519 net.cpp:367] BatchNorm12 -> Convolution12 (in-place)
I1005 13:00:40.173647  9519 net.cpp:122] Setting up BatchNorm12
I1005 13:00:40.173653  9519 net.cpp:129] Top shape: 100 32 14 14 (627200)
I1005 13:00:40.173656  9519 net.cpp:137] Memory required for data: 246803600
I1005 13:00:40.173660  9519 layer_factory.hpp:77] Creating layer Scale12
I1005 13:00:40.173666  9519 net.cpp:84] Creating Layer Scale12
I1005 13:00:40.173668  9519 net.cpp:406] Scale12 <- Convolution12
I1005 13:00:40.173672  9519 net.cpp:367] Scale12 -> Convolution12 (in-place)
I1005 13:00:40.173698  9519 layer_factory.hpp:77] Creating layer Scale12
I1005 13:00:40.173774  9519 net.cpp:122] Setting up Scale12
I1005 13:00:40.173779  9519 net.cpp:129] Top shape: 100 32 14 14 (627200)
I1005 13:00:40.173781  9519 net.cpp:137] Memory required for data: 249312400
I1005 13:00:40.173785  9519 layer_factory.hpp:77] Creating layer Eltwise5
I1005 13:00:40.173790  9519 net.cpp:84] Creating Layer Eltwise5
I1005 13:00:40.173794  9519 net.cpp:406] Eltwise5 <- Eltwise4_penlu9_0_split_1
I1005 13:00:40.173796  9519 net.cpp:406] Eltwise5 <- Convolution12
I1005 13:00:40.173800  9519 net.cpp:380] Eltwise5 -> Eltwise5
I1005 13:00:40.173816  9519 net.cpp:122] Setting up Eltwise5
I1005 13:00:40.173821  9519 net.cpp:129] Top shape: 100 32 14 14 (627200)
I1005 13:00:40.173823  9519 net.cpp:137] Memory required for data: 251821200
I1005 13:00:40.173825  9519 layer_factory.hpp:77] Creating layer penlu11
I1005 13:00:40.173831  9519 net.cpp:84] Creating Layer penlu11
I1005 13:00:40.173835  9519 net.cpp:406] penlu11 <- Eltwise5
I1005 13:00:40.173837  9519 net.cpp:367] penlu11 -> Eltwise5 (in-place)
I1005 13:00:40.173943  9519 net.cpp:122] Setting up penlu11
I1005 13:00:40.173948  9519 net.cpp:129] Top shape: 100 32 14 14 (627200)
I1005 13:00:40.173950  9519 net.cpp:137] Memory required for data: 254330000
I1005 13:00:40.173954  9519 layer_factory.hpp:77] Creating layer Eltwise5_penlu11_0_split
I1005 13:00:40.173959  9519 net.cpp:84] Creating Layer Eltwise5_penlu11_0_split
I1005 13:00:40.173962  9519 net.cpp:406] Eltwise5_penlu11_0_split <- Eltwise5
I1005 13:00:40.173966  9519 net.cpp:380] Eltwise5_penlu11_0_split -> Eltwise5_penlu11_0_split_0
I1005 13:00:40.173971  9519 net.cpp:380] Eltwise5_penlu11_0_split -> Eltwise5_penlu11_0_split_1
I1005 13:00:40.173993  9519 net.cpp:122] Setting up Eltwise5_penlu11_0_split
I1005 13:00:40.173997  9519 net.cpp:129] Top shape: 100 32 14 14 (627200)
I1005 13:00:40.174000  9519 net.cpp:129] Top shape: 100 32 14 14 (627200)
I1005 13:00:40.174003  9519 net.cpp:137] Memory required for data: 259347600
I1005 13:00:40.174005  9519 layer_factory.hpp:77] Creating layer Convolution13
I1005 13:00:40.174012  9519 net.cpp:84] Creating Layer Convolution13
I1005 13:00:40.174015  9519 net.cpp:406] Convolution13 <- Eltwise5_penlu11_0_split_0
I1005 13:00:40.174019  9519 net.cpp:380] Convolution13 -> Convolution13
I1005 13:00:40.175086  9519 net.cpp:122] Setting up Convolution13
I1005 13:00:40.175096  9519 net.cpp:129] Top shape: 100 32 14 14 (627200)
I1005 13:00:40.175101  9519 net.cpp:137] Memory required for data: 261856400
I1005 13:00:40.175104  9519 layer_factory.hpp:77] Creating layer BatchNorm13
I1005 13:00:40.175110  9519 net.cpp:84] Creating Layer BatchNorm13
I1005 13:00:40.175120  9519 net.cpp:406] BatchNorm13 <- Convolution13
I1005 13:00:40.175124  9519 net.cpp:367] BatchNorm13 -> Convolution13 (in-place)
I1005 13:00:40.175256  9519 net.cpp:122] Setting up BatchNorm13
I1005 13:00:40.175262  9519 net.cpp:129] Top shape: 100 32 14 14 (627200)
I1005 13:00:40.175264  9519 net.cpp:137] Memory required for data: 264365200
I1005 13:00:40.175269  9519 layer_factory.hpp:77] Creating layer Scale13
I1005 13:00:40.175274  9519 net.cpp:84] Creating Layer Scale13
I1005 13:00:40.175277  9519 net.cpp:406] Scale13 <- Convolution13
I1005 13:00:40.175281  9519 net.cpp:367] Scale13 -> Convolution13 (in-place)
I1005 13:00:40.175308  9519 layer_factory.hpp:77] Creating layer Scale13
I1005 13:00:40.175382  9519 net.cpp:122] Setting up Scale13
I1005 13:00:40.175387  9519 net.cpp:129] Top shape: 100 32 14 14 (627200)
I1005 13:00:40.175390  9519 net.cpp:137] Memory required for data: 266874000
I1005 13:00:40.175395  9519 layer_factory.hpp:77] Creating layer penlu12
I1005 13:00:40.175400  9519 net.cpp:84] Creating Layer penlu12
I1005 13:00:40.175403  9519 net.cpp:406] penlu12 <- Convolution13
I1005 13:00:40.175407  9519 net.cpp:367] penlu12 -> Convolution13 (in-place)
I1005 13:00:40.175511  9519 net.cpp:122] Setting up penlu12
I1005 13:00:40.175516  9519 net.cpp:129] Top shape: 100 32 14 14 (627200)
I1005 13:00:40.175519  9519 net.cpp:137] Memory required for data: 269382800
I1005 13:00:40.175523  9519 layer_factory.hpp:77] Creating layer Convolution14
I1005 13:00:40.175532  9519 net.cpp:84] Creating Layer Convolution14
I1005 13:00:40.175535  9519 net.cpp:406] Convolution14 <- Convolution13
I1005 13:00:40.175539  9519 net.cpp:380] Convolution14 -> Convolution14
I1005 13:00:40.176584  9519 net.cpp:122] Setting up Convolution14
I1005 13:00:40.176595  9519 net.cpp:129] Top shape: 100 32 14 14 (627200)
I1005 13:00:40.176599  9519 net.cpp:137] Memory required for data: 271891600
I1005 13:00:40.176614  9519 layer_factory.hpp:77] Creating layer BatchNorm14
I1005 13:00:40.176623  9519 net.cpp:84] Creating Layer BatchNorm14
I1005 13:00:40.176627  9519 net.cpp:406] BatchNorm14 <- Convolution14
I1005 13:00:40.176631  9519 net.cpp:367] BatchNorm14 -> Convolution14 (in-place)
I1005 13:00:40.176761  9519 net.cpp:122] Setting up BatchNorm14
I1005 13:00:40.176767  9519 net.cpp:129] Top shape: 100 32 14 14 (627200)
I1005 13:00:40.176770  9519 net.cpp:137] Memory required for data: 274400400
I1005 13:00:40.176775  9519 layer_factory.hpp:77] Creating layer Scale14
I1005 13:00:40.176780  9519 net.cpp:84] Creating Layer Scale14
I1005 13:00:40.176784  9519 net.cpp:406] Scale14 <- Convolution14
I1005 13:00:40.176786  9519 net.cpp:367] Scale14 -> Convolution14 (in-place)
I1005 13:00:40.176815  9519 layer_factory.hpp:77] Creating layer Scale14
I1005 13:00:40.176888  9519 net.cpp:122] Setting up Scale14
I1005 13:00:40.176893  9519 net.cpp:129] Top shape: 100 32 14 14 (627200)
I1005 13:00:40.176895  9519 net.cpp:137] Memory required for data: 276909200
I1005 13:00:40.176899  9519 layer_factory.hpp:77] Creating layer Eltwise6
I1005 13:00:40.176904  9519 net.cpp:84] Creating Layer Eltwise6
I1005 13:00:40.176908  9519 net.cpp:406] Eltwise6 <- Eltwise5_penlu11_0_split_1
I1005 13:00:40.176909  9519 net.cpp:406] Eltwise6 <- Convolution14
I1005 13:00:40.176913  9519 net.cpp:380] Eltwise6 -> Eltwise6
I1005 13:00:40.176928  9519 net.cpp:122] Setting up Eltwise6
I1005 13:00:40.176933  9519 net.cpp:129] Top shape: 100 32 14 14 (627200)
I1005 13:00:40.176934  9519 net.cpp:137] Memory required for data: 279418000
I1005 13:00:40.176936  9519 layer_factory.hpp:77] Creating layer penlu13
I1005 13:00:40.176942  9519 net.cpp:84] Creating Layer penlu13
I1005 13:00:40.176944  9519 net.cpp:406] penlu13 <- Eltwise6
I1005 13:00:40.176947  9519 net.cpp:367] penlu13 -> Eltwise6 (in-place)
I1005 13:00:40.177073  9519 net.cpp:122] Setting up penlu13
I1005 13:00:40.177076  9519 net.cpp:129] Top shape: 100 32 14 14 (627200)
I1005 13:00:40.177078  9519 net.cpp:137] Memory required for data: 281926800
I1005 13:00:40.177083  9519 layer_factory.hpp:77] Creating layer Eltwise6_penlu13_0_split
I1005 13:00:40.177093  9519 net.cpp:84] Creating Layer Eltwise6_penlu13_0_split
I1005 13:00:40.177096  9519 net.cpp:406] Eltwise6_penlu13_0_split <- Eltwise6
I1005 13:00:40.177099  9519 net.cpp:380] Eltwise6_penlu13_0_split -> Eltwise6_penlu13_0_split_0
I1005 13:00:40.177103  9519 net.cpp:380] Eltwise6_penlu13_0_split -> Eltwise6_penlu13_0_split_1
I1005 13:00:40.177126  9519 net.cpp:122] Setting up Eltwise6_penlu13_0_split
I1005 13:00:40.177130  9519 net.cpp:129] Top shape: 100 32 14 14 (627200)
I1005 13:00:40.177134  9519 net.cpp:129] Top shape: 100 32 14 14 (627200)
I1005 13:00:40.177135  9519 net.cpp:137] Memory required for data: 286944400
I1005 13:00:40.177137  9519 layer_factory.hpp:77] Creating layer Convolution15
I1005 13:00:40.177142  9519 net.cpp:84] Creating Layer Convolution15
I1005 13:00:40.177145  9519 net.cpp:406] Convolution15 <- Eltwise6_penlu13_0_split_0
I1005 13:00:40.177150  9519 net.cpp:380] Convolution15 -> Convolution15
I1005 13:00:40.178037  9519 net.cpp:122] Setting up Convolution15
I1005 13:00:40.178046  9519 net.cpp:129] Top shape: 100 64 7 7 (313600)
I1005 13:00:40.178050  9519 net.cpp:137] Memory required for data: 288198800
I1005 13:00:40.178053  9519 layer_factory.hpp:77] Creating layer BatchNorm15
I1005 13:00:40.178058  9519 net.cpp:84] Creating Layer BatchNorm15
I1005 13:00:40.178061  9519 net.cpp:406] BatchNorm15 <- Convolution15
I1005 13:00:40.178066  9519 net.cpp:367] BatchNorm15 -> Convolution15 (in-place)
I1005 13:00:40.178196  9519 net.cpp:122] Setting up BatchNorm15
I1005 13:00:40.178201  9519 net.cpp:129] Top shape: 100 64 7 7 (313600)
I1005 13:00:40.178203  9519 net.cpp:137] Memory required for data: 289453200
I1005 13:00:40.178208  9519 layer_factory.hpp:77] Creating layer Scale15
I1005 13:00:40.178212  9519 net.cpp:84] Creating Layer Scale15
I1005 13:00:40.178215  9519 net.cpp:406] Scale15 <- Convolution15
I1005 13:00:40.178217  9519 net.cpp:367] Scale15 -> Convolution15 (in-place)
I1005 13:00:40.178244  9519 layer_factory.hpp:77] Creating layer Scale15
I1005 13:00:40.178320  9519 net.cpp:122] Setting up Scale15
I1005 13:00:40.178324  9519 net.cpp:129] Top shape: 100 64 7 7 (313600)
I1005 13:00:40.178326  9519 net.cpp:137] Memory required for data: 290707600
I1005 13:00:40.178330  9519 layer_factory.hpp:77] Creating layer Convolution16
I1005 13:00:40.178336  9519 net.cpp:84] Creating Layer Convolution16
I1005 13:00:40.178339  9519 net.cpp:406] Convolution16 <- Eltwise6_penlu13_0_split_1
I1005 13:00:40.178344  9519 net.cpp:380] Convolution16 -> Convolution16
I1005 13:00:40.180135  9519 net.cpp:122] Setting up Convolution16
I1005 13:00:40.180145  9519 net.cpp:129] Top shape: 100 64 7 7 (313600)
I1005 13:00:40.180147  9519 net.cpp:137] Memory required for data: 291962000
I1005 13:00:40.180151  9519 layer_factory.hpp:77] Creating layer BatchNorm16
I1005 13:00:40.180157  9519 net.cpp:84] Creating Layer BatchNorm16
I1005 13:00:40.180160  9519 net.cpp:406] BatchNorm16 <- Convolution16
I1005 13:00:40.180163  9519 net.cpp:367] BatchNorm16 -> Convolution16 (in-place)
I1005 13:00:40.180296  9519 net.cpp:122] Setting up BatchNorm16
I1005 13:00:40.180301  9519 net.cpp:129] Top shape: 100 64 7 7 (313600)
I1005 13:00:40.180304  9519 net.cpp:137] Memory required for data: 293216400
I1005 13:00:40.180307  9519 layer_factory.hpp:77] Creating layer Scale16
I1005 13:00:40.180312  9519 net.cpp:84] Creating Layer Scale16
I1005 13:00:40.180315  9519 net.cpp:406] Scale16 <- Convolution16
I1005 13:00:40.180317  9519 net.cpp:367] Scale16 -> Convolution16 (in-place)
I1005 13:00:40.180346  9519 layer_factory.hpp:77] Creating layer Scale16
I1005 13:00:40.180420  9519 net.cpp:122] Setting up Scale16
I1005 13:00:40.180425  9519 net.cpp:129] Top shape: 100 64 7 7 (313600)
I1005 13:00:40.180428  9519 net.cpp:137] Memory required for data: 294470800
I1005 13:00:40.180431  9519 layer_factory.hpp:77] Creating layer penlu14
I1005 13:00:40.180436  9519 net.cpp:84] Creating Layer penlu14
I1005 13:00:40.180438  9519 net.cpp:406] penlu14 <- Convolution16
I1005 13:00:40.180450  9519 net.cpp:367] penlu14 -> Convolution16 (in-place)
I1005 13:00:40.180557  9519 net.cpp:122] Setting up penlu14
I1005 13:00:40.180562  9519 net.cpp:129] Top shape: 100 64 7 7 (313600)
I1005 13:00:40.180563  9519 net.cpp:137] Memory required for data: 295725200
I1005 13:00:40.180567  9519 layer_factory.hpp:77] Creating layer Convolution17
I1005 13:00:40.180574  9519 net.cpp:84] Creating Layer Convolution17
I1005 13:00:40.180577  9519 net.cpp:406] Convolution17 <- Convolution16
I1005 13:00:40.180582  9519 net.cpp:380] Convolution17 -> Convolution17
I1005 13:00:40.182236  9519 net.cpp:122] Setting up Convolution17
I1005 13:00:40.182246  9519 net.cpp:129] Top shape: 100 64 7 7 (313600)
I1005 13:00:40.182250  9519 net.cpp:137] Memory required for data: 296979600
I1005 13:00:40.182255  9519 layer_factory.hpp:77] Creating layer BatchNorm17
I1005 13:00:40.182260  9519 net.cpp:84] Creating Layer BatchNorm17
I1005 13:00:40.182265  9519 net.cpp:406] BatchNorm17 <- Convolution17
I1005 13:00:40.182267  9519 net.cpp:367] BatchNorm17 -> Convolution17 (in-place)
I1005 13:00:40.182406  9519 net.cpp:122] Setting up BatchNorm17
I1005 13:00:40.182411  9519 net.cpp:129] Top shape: 100 64 7 7 (313600)
I1005 13:00:40.182415  9519 net.cpp:137] Memory required for data: 298234000
I1005 13:00:40.182420  9519 layer_factory.hpp:77] Creating layer Scale17
I1005 13:00:40.182423  9519 net.cpp:84] Creating Layer Scale17
I1005 13:00:40.182425  9519 net.cpp:406] Scale17 <- Convolution17
I1005 13:00:40.182430  9519 net.cpp:367] Scale17 -> Convolution17 (in-place)
I1005 13:00:40.182457  9519 layer_factory.hpp:77] Creating layer Scale17
I1005 13:00:40.182543  9519 net.cpp:122] Setting up Scale17
I1005 13:00:40.182548  9519 net.cpp:129] Top shape: 100 64 7 7 (313600)
I1005 13:00:40.182550  9519 net.cpp:137] Memory required for data: 299488400
I1005 13:00:40.182554  9519 layer_factory.hpp:77] Creating layer Eltwise7
I1005 13:00:40.182560  9519 net.cpp:84] Creating Layer Eltwise7
I1005 13:00:40.182564  9519 net.cpp:406] Eltwise7 <- Convolution15
I1005 13:00:40.182566  9519 net.cpp:406] Eltwise7 <- Convolution17
I1005 13:00:40.182570  9519 net.cpp:380] Eltwise7 -> Eltwise7
I1005 13:00:40.182587  9519 net.cpp:122] Setting up Eltwise7
I1005 13:00:40.182591  9519 net.cpp:129] Top shape: 100 64 7 7 (313600)
I1005 13:00:40.182595  9519 net.cpp:137] Memory required for data: 300742800
I1005 13:00:40.182596  9519 layer_factory.hpp:77] Creating layer penlu15
I1005 13:00:40.182601  9519 net.cpp:84] Creating Layer penlu15
I1005 13:00:40.182605  9519 net.cpp:406] penlu15 <- Eltwise7
I1005 13:00:40.182607  9519 net.cpp:367] penlu15 -> Eltwise7 (in-place)
I1005 13:00:40.182718  9519 net.cpp:122] Setting up penlu15
I1005 13:00:40.182723  9519 net.cpp:129] Top shape: 100 64 7 7 (313600)
I1005 13:00:40.182725  9519 net.cpp:137] Memory required for data: 301997200
I1005 13:00:40.182729  9519 layer_factory.hpp:77] Creating layer Eltwise7_penlu15_0_split
I1005 13:00:40.182734  9519 net.cpp:84] Creating Layer Eltwise7_penlu15_0_split
I1005 13:00:40.182736  9519 net.cpp:406] Eltwise7_penlu15_0_split <- Eltwise7
I1005 13:00:40.182740  9519 net.cpp:380] Eltwise7_penlu15_0_split -> Eltwise7_penlu15_0_split_0
I1005 13:00:40.182744  9519 net.cpp:380] Eltwise7_penlu15_0_split -> Eltwise7_penlu15_0_split_1
I1005 13:00:40.182766  9519 net.cpp:122] Setting up Eltwise7_penlu15_0_split
I1005 13:00:40.182770  9519 net.cpp:129] Top shape: 100 64 7 7 (313600)
I1005 13:00:40.182773  9519 net.cpp:129] Top shape: 100 64 7 7 (313600)
I1005 13:00:40.182775  9519 net.cpp:137] Memory required for data: 304506000
I1005 13:00:40.182777  9519 layer_factory.hpp:77] Creating layer Convolution18
I1005 13:00:40.182783  9519 net.cpp:84] Creating Layer Convolution18
I1005 13:00:40.182786  9519 net.cpp:406] Convolution18 <- Eltwise7_penlu15_0_split_0
I1005 13:00:40.182790  9519 net.cpp:380] Convolution18 -> Convolution18
I1005 13:00:40.184769  9519 net.cpp:122] Setting up Convolution18
I1005 13:00:40.184779  9519 net.cpp:129] Top shape: 100 64 7 7 (313600)
I1005 13:00:40.184793  9519 net.cpp:137] Memory required for data: 305760400
I1005 13:00:40.184814  9519 layer_factory.hpp:77] Creating layer BatchNorm18
I1005 13:00:40.184821  9519 net.cpp:84] Creating Layer BatchNorm18
I1005 13:00:40.184825  9519 net.cpp:406] BatchNorm18 <- Convolution18
I1005 13:00:40.184829  9519 net.cpp:367] BatchNorm18 -> Convolution18 (in-place)
I1005 13:00:40.184973  9519 net.cpp:122] Setting up BatchNorm18
I1005 13:00:40.184978  9519 net.cpp:129] Top shape: 100 64 7 7 (313600)
I1005 13:00:40.184989  9519 net.cpp:137] Memory required for data: 307014800
I1005 13:00:40.184994  9519 layer_factory.hpp:77] Creating layer Scale18
I1005 13:00:40.184999  9519 net.cpp:84] Creating Layer Scale18
I1005 13:00:40.185001  9519 net.cpp:406] Scale18 <- Convolution18
I1005 13:00:40.185004  9519 net.cpp:367] Scale18 -> Convolution18 (in-place)
I1005 13:00:40.185053  9519 layer_factory.hpp:77] Creating layer Scale18
I1005 13:00:40.185148  9519 net.cpp:122] Setting up Scale18
I1005 13:00:40.185154  9519 net.cpp:129] Top shape: 100 64 7 7 (313600)
I1005 13:00:40.185156  9519 net.cpp:137] Memory required for data: 308269200
I1005 13:00:40.185160  9519 layer_factory.hpp:77] Creating layer penlu16
I1005 13:00:40.185165  9519 net.cpp:84] Creating Layer penlu16
I1005 13:00:40.185168  9519 net.cpp:406] penlu16 <- Convolution18
I1005 13:00:40.185171  9519 net.cpp:367] penlu16 -> Convolution18 (in-place)
I1005 13:00:40.185312  9519 net.cpp:122] Setting up penlu16
I1005 13:00:40.185317  9519 net.cpp:129] Top shape: 100 64 7 7 (313600)
I1005 13:00:40.185319  9519 net.cpp:137] Memory required for data: 309523600
I1005 13:00:40.185323  9519 layer_factory.hpp:77] Creating layer Convolution19
I1005 13:00:40.185330  9519 net.cpp:84] Creating Layer Convolution19
I1005 13:00:40.185333  9519 net.cpp:406] Convolution19 <- Convolution18
I1005 13:00:40.185346  9519 net.cpp:380] Convolution19 -> Convolution19
I1005 13:00:40.187518  9519 net.cpp:122] Setting up Convolution19
I1005 13:00:40.187528  9519 net.cpp:129] Top shape: 100 64 7 7 (313600)
I1005 13:00:40.187531  9519 net.cpp:137] Memory required for data: 310778000
I1005 13:00:40.187536  9519 layer_factory.hpp:77] Creating layer BatchNorm19
I1005 13:00:40.187541  9519 net.cpp:84] Creating Layer BatchNorm19
I1005 13:00:40.187543  9519 net.cpp:406] BatchNorm19 <- Convolution19
I1005 13:00:40.187558  9519 net.cpp:367] BatchNorm19 -> Convolution19 (in-place)
I1005 13:00:40.187700  9519 net.cpp:122] Setting up BatchNorm19
I1005 13:00:40.187705  9519 net.cpp:129] Top shape: 100 64 7 7 (313600)
I1005 13:00:40.187707  9519 net.cpp:137] Memory required for data: 312032400
I1005 13:00:40.187711  9519 layer_factory.hpp:77] Creating layer Scale19
I1005 13:00:40.187716  9519 net.cpp:84] Creating Layer Scale19
I1005 13:00:40.187718  9519 net.cpp:406] Scale19 <- Convolution19
I1005 13:00:40.187721  9519 net.cpp:367] Scale19 -> Convolution19 (in-place)
I1005 13:00:40.187767  9519 layer_factory.hpp:77] Creating layer Scale19
I1005 13:00:40.187865  9519 net.cpp:122] Setting up Scale19
I1005 13:00:40.187870  9519 net.cpp:129] Top shape: 100 64 7 7 (313600)
I1005 13:00:40.187871  9519 net.cpp:137] Memory required for data: 313286800
I1005 13:00:40.187875  9519 layer_factory.hpp:77] Creating layer Eltwise8
I1005 13:00:40.187878  9519 net.cpp:84] Creating Layer Eltwise8
I1005 13:00:40.187881  9519 net.cpp:406] Eltwise8 <- Eltwise7_penlu15_0_split_1
I1005 13:00:40.187885  9519 net.cpp:406] Eltwise8 <- Convolution19
I1005 13:00:40.187898  9519 net.cpp:380] Eltwise8 -> Eltwise8
I1005 13:00:40.187914  9519 net.cpp:122] Setting up Eltwise8
I1005 13:00:40.187927  9519 net.cpp:129] Top shape: 100 64 7 7 (313600)
I1005 13:00:40.187929  9519 net.cpp:137] Memory required for data: 314541200
I1005 13:00:40.187932  9519 layer_factory.hpp:77] Creating layer penlu17
I1005 13:00:40.187937  9519 net.cpp:84] Creating Layer penlu17
I1005 13:00:40.187939  9519 net.cpp:406] penlu17 <- Eltwise8
I1005 13:00:40.187942  9519 net.cpp:367] penlu17 -> Eltwise8 (in-place)
I1005 13:00:40.188071  9519 net.cpp:122] Setting up penlu17
I1005 13:00:40.188076  9519 net.cpp:129] Top shape: 100 64 7 7 (313600)
I1005 13:00:40.188084  9519 net.cpp:137] Memory required for data: 315795600
I1005 13:00:40.188089  9519 layer_factory.hpp:77] Creating layer Eltwise8_penlu17_0_split
I1005 13:00:40.188103  9519 net.cpp:84] Creating Layer Eltwise8_penlu17_0_split
I1005 13:00:40.188107  9519 net.cpp:406] Eltwise8_penlu17_0_split <- Eltwise8
I1005 13:00:40.188112  9519 net.cpp:380] Eltwise8_penlu17_0_split -> Eltwise8_penlu17_0_split_0
I1005 13:00:40.188117  9519 net.cpp:380] Eltwise8_penlu17_0_split -> Eltwise8_penlu17_0_split_1
I1005 13:00:40.188169  9519 net.cpp:122] Setting up Eltwise8_penlu17_0_split
I1005 13:00:40.188172  9519 net.cpp:129] Top shape: 100 64 7 7 (313600)
I1005 13:00:40.188175  9519 net.cpp:129] Top shape: 100 64 7 7 (313600)
I1005 13:00:40.188177  9519 net.cpp:137] Memory required for data: 318304400
I1005 13:00:40.188179  9519 layer_factory.hpp:77] Creating layer Convolution20
I1005 13:00:40.188186  9519 net.cpp:84] Creating Layer Convolution20
I1005 13:00:40.188204  9519 net.cpp:406] Convolution20 <- Eltwise8_penlu17_0_split_0
I1005 13:00:40.188207  9519 net.cpp:380] Convolution20 -> Convolution20
I1005 13:00:40.189860  9519 net.cpp:122] Setting up Convolution20
I1005 13:00:40.189869  9519 net.cpp:129] Top shape: 100 64 7 7 (313600)
I1005 13:00:40.189872  9519 net.cpp:137] Memory required for data: 319558800
I1005 13:00:40.189877  9519 layer_factory.hpp:77] Creating layer BatchNorm20
I1005 13:00:40.189882  9519 net.cpp:84] Creating Layer BatchNorm20
I1005 13:00:40.189895  9519 net.cpp:406] BatchNorm20 <- Convolution20
I1005 13:00:40.189900  9519 net.cpp:367] BatchNorm20 -> Convolution20 (in-place)
I1005 13:00:40.190040  9519 net.cpp:122] Setting up BatchNorm20
I1005 13:00:40.190045  9519 net.cpp:129] Top shape: 100 64 7 7 (313600)
I1005 13:00:40.190057  9519 net.cpp:137] Memory required for data: 320813200
I1005 13:00:40.190062  9519 layer_factory.hpp:77] Creating layer Scale20
I1005 13:00:40.190068  9519 net.cpp:84] Creating Layer Scale20
I1005 13:00:40.190070  9519 net.cpp:406] Scale20 <- Convolution20
I1005 13:00:40.190073  9519 net.cpp:367] Scale20 -> Convolution20 (in-place)
I1005 13:00:40.190109  9519 layer_factory.hpp:77] Creating layer Scale20
I1005 13:00:40.190196  9519 net.cpp:122] Setting up Scale20
I1005 13:00:40.190201  9519 net.cpp:129] Top shape: 100 64 7 7 (313600)
I1005 13:00:40.190204  9519 net.cpp:137] Memory required for data: 322067600
I1005 13:00:40.190208  9519 layer_factory.hpp:77] Creating layer penlu18
I1005 13:00:40.190214  9519 net.cpp:84] Creating Layer penlu18
I1005 13:00:40.190217  9519 net.cpp:406] penlu18 <- Convolution20
I1005 13:00:40.190220  9519 net.cpp:367] penlu18 -> Convolution20 (in-place)
I1005 13:00:40.190335  9519 net.cpp:122] Setting up penlu18
I1005 13:00:40.190338  9519 net.cpp:129] Top shape: 100 64 7 7 (313600)
I1005 13:00:40.190340  9519 net.cpp:137] Memory required for data: 323322000
I1005 13:00:40.190345  9519 layer_factory.hpp:77] Creating layer Convolution21
I1005 13:00:40.190351  9519 net.cpp:84] Creating Layer Convolution21
I1005 13:00:40.190353  9519 net.cpp:406] Convolution21 <- Convolution20
I1005 13:00:40.190357  9519 net.cpp:380] Convolution21 -> Convolution21
I1005 13:00:40.192827  9519 net.cpp:122] Setting up Convolution21
I1005 13:00:40.192836  9519 net.cpp:129] Top shape: 100 64 7 7 (313600)
I1005 13:00:40.192839  9519 net.cpp:137] Memory required for data: 324576400
I1005 13:00:40.192844  9519 layer_factory.hpp:77] Creating layer BatchNorm21
I1005 13:00:40.192850  9519 net.cpp:84] Creating Layer BatchNorm21
I1005 13:00:40.192852  9519 net.cpp:406] BatchNorm21 <- Convolution21
I1005 13:00:40.192857  9519 net.cpp:367] BatchNorm21 -> Convolution21 (in-place)
I1005 13:00:40.192989  9519 net.cpp:122] Setting up BatchNorm21
I1005 13:00:40.192994  9519 net.cpp:129] Top shape: 100 64 7 7 (313600)
I1005 13:00:40.192996  9519 net.cpp:137] Memory required for data: 325830800
I1005 13:00:40.193001  9519 layer_factory.hpp:77] Creating layer Scale21
I1005 13:00:40.193006  9519 net.cpp:84] Creating Layer Scale21
I1005 13:00:40.193014  9519 net.cpp:406] Scale21 <- Convolution21
I1005 13:00:40.193017  9519 net.cpp:367] Scale21 -> Convolution21 (in-place)
I1005 13:00:40.193044  9519 layer_factory.hpp:77] Creating layer Scale21
I1005 13:00:40.193122  9519 net.cpp:122] Setting up Scale21
I1005 13:00:40.193126  9519 net.cpp:129] Top shape: 100 64 7 7 (313600)
I1005 13:00:40.193128  9519 net.cpp:137] Memory required for data: 327085200
I1005 13:00:40.193132  9519 layer_factory.hpp:77] Creating layer Eltwise9
I1005 13:00:40.193136  9519 net.cpp:84] Creating Layer Eltwise9
I1005 13:00:40.193140  9519 net.cpp:406] Eltwise9 <- Eltwise8_penlu17_0_split_1
I1005 13:00:40.193141  9519 net.cpp:406] Eltwise9 <- Convolution21
I1005 13:00:40.193145  9519 net.cpp:380] Eltwise9 -> Eltwise9
I1005 13:00:40.193161  9519 net.cpp:122] Setting up Eltwise9
I1005 13:00:40.193164  9519 net.cpp:129] Top shape: 100 64 7 7 (313600)
I1005 13:00:40.193166  9519 net.cpp:137] Memory required for data: 328339600
I1005 13:00:40.193168  9519 layer_factory.hpp:77] Creating layer penlu19
I1005 13:00:40.193174  9519 net.cpp:84] Creating Layer penlu19
I1005 13:00:40.193176  9519 net.cpp:406] penlu19 <- Eltwise9
I1005 13:00:40.193179  9519 net.cpp:367] penlu19 -> Eltwise9 (in-place)
I1005 13:00:40.193285  9519 net.cpp:122] Setting up penlu19
I1005 13:00:40.193289  9519 net.cpp:129] Top shape: 100 64 7 7 (313600)
I1005 13:00:40.193291  9519 net.cpp:137] Memory required for data: 329594000
I1005 13:00:40.193295  9519 layer_factory.hpp:77] Creating layer Pooling1
I1005 13:00:40.193300  9519 net.cpp:84] Creating Layer Pooling1
I1005 13:00:40.193303  9519 net.cpp:406] Pooling1 <- Eltwise9
I1005 13:00:40.193306  9519 net.cpp:380] Pooling1 -> Pooling1
I1005 13:00:40.193449  9519 net.cpp:122] Setting up Pooling1
I1005 13:00:40.193457  9519 net.cpp:129] Top shape: 100 64 1 1 (6400)
I1005 13:00:40.193460  9519 net.cpp:137] Memory required for data: 329619600
I1005 13:00:40.193462  9519 layer_factory.hpp:77] Creating layer InnerProduct1
I1005 13:00:40.193471  9519 net.cpp:84] Creating Layer InnerProduct1
I1005 13:00:40.193475  9519 net.cpp:406] InnerProduct1 <- Pooling1
I1005 13:00:40.193478  9519 net.cpp:380] InnerProduct1 -> InnerProduct1
I1005 13:00:40.193572  9519 net.cpp:122] Setting up InnerProduct1
I1005 13:00:40.193576  9519 net.cpp:129] Top shape: 100 10 (1000)
I1005 13:00:40.193578  9519 net.cpp:137] Memory required for data: 329623600
I1005 13:00:40.193583  9519 layer_factory.hpp:77] Creating layer SoftmaxWithLoss1
I1005 13:00:40.193586  9519 net.cpp:84] Creating Layer SoftmaxWithLoss1
I1005 13:00:40.193589  9519 net.cpp:406] SoftmaxWithLoss1 <- InnerProduct1
I1005 13:00:40.193593  9519 net.cpp:406] SoftmaxWithLoss1 <- Data2
I1005 13:00:40.193595  9519 net.cpp:380] SoftmaxWithLoss1 -> SoftmaxWithLoss1
…
I1005 13:00:40.196223  9519 net.cpp:294] The NetState phase (1) differed from the phase (0) specified by a rule in layer Data1
I1005 13:00:40.196687  9519 net.cpp:51] Initializing net from parameters: 
name: "resnet_cifar10"
state {
  phase: TEST
}
layer {
  name: "Data1"
  type: "Data"
  top: "Data1"
  top: "Data2"
  include {
    phase: TEST
  }
  transform_param {
    mean_file: "/home/x306/caffe/xn/PENLU/data/cifar10/mean.binaryproto"
  }
  data_param {
    source: "/home/x306/caffe/xn/PENLU/data/cifar10/cifar10_test_lmdb"
    batch_size: 100
    backend: LMDB
  }
}
layer {
  name: "Convolution1"
  type: "Convolution"
  bottom: "Data1"
  top: "Convolution1"
  param {
    lr_mult: 1
    decay_mult: 1
  }
  param {
    lr_mult: 2
    decay_mult: 0
  }
  convolution_param {
    num_output: 16
    pad: 1
    kernel_size: 3
    stride: 1
    weight_filler {
      type: "gaussian"
      std: 0.118
    }
    bias_filler {
      type: "constant"
      value: 0
    }
  }
}
layer {
  name: "BatchNorm1"
  type: "BatchNorm"
  bottom: "Convolution1"
  top: "Convolution1"
  param {
    lr_mult: 0
    decay_mult: 0
  }
  param {
    lr_mult: 0
    decay_mult: 0
  }
  param {
    lr_mult: 0
    decay_mult: 0
  }
}
layer {
  name: "Scale1"
  type: "Scale"
  bottom: "Convolution1"
  top: "Convolution1"
  scale_param {
    bias_term: true
  }
}
layer {
  name: "penlu1"
  type: "PENLU"
  bottom: "Convolution1"
  top: "Convolution1"
  param {
    lr_mult: 2
    decay_mult: 2
  }
  param {
    lr_mult: 2
    decay_mult: 2
  }
  param {
    lr_mult: 0
    decay_mult: 0
  }
  penlu_param {
    alpha_filler {
      type: "constant"
      value: 2
    }
    beta_filler {
      type: "constant"
      value: 1
    }
    eta_filler {
      type: "constant"
      value: 1
    }
  }
}
layer {
  name: "Convolution2"
  type: "Convolution"
  bottom: "Convolution1"
  top: "Convolution2"
  param {
    lr_mult: 1
    decay_mult: 1
  }
  param {
    lr_mult: 2
    decay_mult: 0
  }
  convolution_param {
    num_output: 16
    pad: 1
    kernel_size: 3
    stride: 1
    weight_filler {
      type: "gaussian"
      std: 0.118
    }
    bias_filler {
      type: "constant"
      value: 0
    }
  }
}
layer {
  name: "BatchNorm2"
  type: "BatchNorm"
  bottom: "Convolution2"
  top: "Convolution2"
  param {
    lr_mult: 0
    decay_mult: 0
  }
  param {
    lr_mult: 0
    decay_mult: 0
  }
  param {
    lr_mult: 0
    decay_mult: 0
  }
}
layer {
  name: "Scale2"
  type: "Scale"
  bottom: "Convolution2"
  top: "Convolution2"
  scale_param {
    bias_term: true
  }
}
layer {
  name: "penlu2"
  type: "PENLU"
  bottom: "Convolution2"
  top: "Convolution2"
  param {
    lr_mult: 2
    decay_mult: 2
  }
  param {
    lr_mult: 2
    decay_mult: 2
  }
  param {
    lr_mult: 0
    decay_mult: 0
  }
  penlu_param {
    alpha_filler {
      type: "constant"
      value: 2
    }
    beta_filler {
      type: "constant"
      value: 1
    }
    eta_filler {
      type: "constant"
      value: 1
    }
  }
}
layer {
  name: "Convolution3"
  type: "Convolution"
  bottom: "Convolution2"
  top: "Convolution3"
  param {
    lr_mult: 1
    decay_mult: 1
  }
  param {
    lr_mult: 2
    decay_mult: 0
  }
  convolution_param {
    num_output: 16
    pad: 1
    kernel_size: 3
    stride: 1
    weight_filler {
      type: "gaussian"
      std: 0.118
    }
    bias_filler {
      type: "constant"
      value: 0
    }
  }
}
layer {
  name: "BatchNorm3"
  type: "BatchNorm"
  bottom: "Convolution3"
  top: "Convolution3"
  param {
    lr_mult: 0
    decay_mult: 0
  }
  param {
    lr_mult: 0
    decay_mult: 0
  }
  param {
    lr_mult: 0
    decay_mult: 0
  }
}
layer {
  name: "Scale3"
  type: "Scale"
  bottom: "Convolution3"
  top: "Convolution3"
  scale_param {
    bias_term: true
  }
}
layer {
  name: "Eltwise1"
  type: "Eltwise"
  bottom: "Convolution1"
  bottom: "Convolution3"
  top: "Eltwise1"
  eltwise_param {
    operation: SUM
  }
}
layer {
  name: "penlu3"
  type: "PENLU"
  bottom: "Eltwise1"
  top: "Eltwise1"
  param {
    lr_mult: 2
    decay_mult: 2
  }
  param {
    lr_mult: 2
    decay_mult: 2
  }
  param {
    lr_mult: 0
    decay_mult: 0
  }
  penlu_param {
    alpha_filler {
      type: "constant"
      value: 2
    }
    beta_filler {
      type: "constant"
      value: 1
    }
    eta_filler {
      type: "constant"
      value: 1
    }
  }
}
layer {
  name: "Convolution4"
  type: "Convolution"
  bottom: "Eltwise1"
  top: "Convolution4"
  param {
    lr_mult: 1
    decay_mult: 1
  }
  param {
    lr_mult: 2
    decay_mult: 0
  }
  convolution_param {
    num_output: 16
    pad: 1
    kernel_size: 3
    stride: 1
    weight_filler {
      type: "gaussian"
      std: 0.118
    }
    bias_filler {
      type: "constant"
      value: 0
    }
  }
}
layer {
  name: "BatchNorm4"
  type: "BatchNorm"
  bottom: "Convolution4"
  top: "Convolution4"
  param {
    lr_mult: 0
    decay_mult: 0
  }
  param {
    lr_mult: 0
    decay_mult: 0
  }
  param {
    lr_mult: 0
    decay_mult: 0
  }
}
layer {
  name: "Scale4"
  type: "Scale"
  bottom: "Convolution4"
  top: "Convolution4"
  scale_param {
    bias_term: true
  }
}
layer {
  name: "penlu4"
  type: "PENLU"
  bottom: "Convolution4"
  top: "Convolution4"
  param {
    lr_mult: 2
    decay_mult: 2
  }
  param {
    lr_mult: 2
    decay_mult: 2
  }
  param {
    lr_mult: 0
    decay_mult: 0
  }
  penlu_param {
    alpha_filler {
      type: "constant"
      value: 2
    }
    beta_filler {
      type: "constant"
      value: 1
    }
    eta_filler {
      type: "constant"
      value: 1
    }
  }
}
layer {
  name: "Convolution5"
  type: "Convolution"
  bottom: "Convolution4"
  top: "Convolution5"
  param {
    lr_mult: 1
    decay_mult: 1
  }
  param {
    lr_mult: 2
    decay_mult: 0
  }
  convolution_param {
    num_output: 16
    pad: 1
    kernel_size: 3
    stride: 1
    weight_filler {
      type: "gaussian"
      std: 0.118
    }
    bias_filler {
      type: "constant"
      value: 0
    }
  }
}
layer {
  name: "BatchNorm5"
  type: "BatchNorm"
  bottom: "Convolution5"
  top: "Convolution5"
  param {
    lr_mult: 0
    decay_mult: 0
  }
  param {
    lr_mult: 0
    decay_mult: 0
  }
  param {
    lr_mult: 0
    decay_mult: 0
  }
}
layer {
  name: "Scale5"
  type: "Scale"
  bottom: "Convolution5"
  top: "Convolution5"
  scale_param {
    bias_term: true
  }
}
layer {
  name: "Eltwise2"
  type: "Eltwise"
  bottom: "Eltwise1"
  bottom: "Convolution5"
  top: "Eltwise2"
  eltwise_param {
    operation: SUM
  }
}
layer {
  name: "penlu5"
  type: "PENLU"
  bottom: "Eltwise2"
  top: "Eltwise2"
  param {
    lr_mult: 2
    decay_mult: 2
  }
  param {
    lr_mult: 2
    decay_mult: 2
  }
  param {
    lr_mult: 0
    decay_mult: 0
  }
  penlu_param {
    alpha_filler {
      type: "constant"
      value: 2
    }
    beta_filler {
      type: "constant"
      value: 1
    }
    eta_filler {
      type: "constant"
      value: 1
    }
  }
}
layer {
  name: "Convolution6"
  type: "Convolution"
  bottom: "Eltwise2"
  top: "Convolution6"
  param {
    lr_mult: 1
    decay_mult: 1
  }
  param {
    lr_mult: 2
    decay_mult: 0
  }
  convolution_param {
    num_output: 16
    pad: 1
    kernel_size: 3
    stride: 1
    weight_filler {
      type: "gaussian"
      std: 0.118
    }
    bias_filler {
      type: "constant"
      value: 0
    }
  }
}
layer {
  name: "BatchNorm6"
  type: "BatchNorm"
  bottom: "Convolution6"
  top: "Convolution6"
  param {
    lr_mult: 0
    decay_mult: 0
  }
  param {
    lr_mult: 0
    decay_mult: 0
  }
  param {
    lr_mult: 0
    decay_mult: 0
  }
}
layer {
  name: "Scale6"
  type: "Scale"
  bottom: "Convolution6"
  top: "Convolution6"
  scale_param {
    bias_term: true
  }
}
layer {
  name: "penlu6"
  type: "PENLU"
  bottom: "Convolution6"
  top: "Convolution6"
  param {
    lr_mult: 2
    decay_mult: 2
  }
  param {
    lr_mult: 2
    decay_mult: 2
  }
  param {
    lr_mult: 0
    decay_mult: 0
  }
  penlu_param {
    alpha_filler {
      type: "constant"
      value: 2
    }
    beta_filler {
      type: "constant"
      value: 1
    }
    eta_filler {
      type: "constant"
      value: 1
    }
  }
}
layer {
  name: "Convolution7"
  type: "Convolution"
  bottom: "Convolution6"
  top: "Convolution7"
  param {
    lr_mult: 1
    decay_mult: 1
  }
  param {
    lr_mult: 2
    decay_mult: 0
  }
  convolution_param {
    num_output: 16
    pad: 1
    kernel_size: 3
    stride: 1
    weight_filler {
      type: "gaussian"
      std: 0.118
    }
    bias_filler {
      type: "constant"
      value: 0
    }
  }
}
layer {
  name: "BatchNorm7"
  type: "BatchNorm"
  bottom: "Convolution7"
  top: "Convolution7"
  param {
    lr_mult: 0
    decay_mult: 0
  }
  param {
    lr_mult: 0
    decay_mult: 0
  }
  param {
    lr_mult: 0
    decay_mult: 0
  }
}
layer {
  name: "Scale7"
  type: "Scale"
  bottom: "Convolution7"
  top: "Convolution7"
  scale_param {
    bias_term: true
  }
}
layer {
  name: "Eltwise3"
  type: "Eltwise"
  bottom: "Eltwise2"
  bottom: "Convolution7"
  top: "Eltwise3"
  eltwise_param {
    operation: SUM
  }
}
layer {
  name: "penlu7"
  type: "PENLU"
  bottom: "Eltwise3"
  top: "Eltwise3"
  param {
    lr_mult: 2
    decay_mult: 2
  }
  param {
    lr_mult: 2
    decay_mult: 2
  }
  param {
    lr_mult: 0
    decay_mult: 0
  }
  penlu_param {
    alpha_filler {
      type: "constant"
      value: 2
    }
    beta_filler {
      type: "constant"
      value: 1
    }
    eta_filler {
      type: "constant"
      value: 1
    }
  }
}
layer {
  name: "Convolution8"
  type: "Convolution"
  bottom: "Eltwise3"
  top: "Convolution8"
  param {
    lr_mult: 1
    decay_mult: 1
  }
  param {
    lr_mult: 2
    decay_mult: 0
  }
  convolution_param {
    num_output: 32
    pad: 0
    kernel_size: 1
    stride: 2
    weight_filler {
      type: "gaussian"
      std: 0.25
    }
    bias_filler {
      type: "constant"
      value: 0
    }
  }
}
layer {
  name: "BatchNorm8"
  type: "BatchNorm"
  bottom: "Convolution8"
  top: "Convolution8"
  param {
    lr_mult: 0
    decay_mult: 0
  }
  param {
    lr_mult: 0
    decay_mult: 0
  }
  param {
    lr_mult: 0
    decay_mult: 0
  }
}
layer {
  name: "Scale8"
  type: "Scale"
  bottom: "Convolution8"
  top: "Convolution8"
  scale_param {
    bias_term: true
  }
}
layer {
  name: "Convolution9"
  type: "Convolution"
  bottom: "Eltwise3"
  top: "Convolution9"
  param {
    lr_mult: 1
    decay_mult: 1
  }
  param {
    lr_mult: 2
    decay_mult: 0
  }
  convolution_param {
    num_output: 32
    pad: 1
    kernel_size: 3
    stride: 2
    weight_filler {
      type: "gaussian"
      std: 0.083
    }
    bias_filler {
      type: "constant"
      value: 0
    }
  }
}
layer {
  name: "BatchNorm9"
  type: "BatchNorm"
  bottom: "Convolution9"
  top: "Convolution9"
  param {
    lr_mult: 0
    decay_mult: 0
  }
  param {
    lr_mult: 0
    decay_mult: 0
  }
  param {
    lr_mult: 0
    decay_mult: 0
  }
}
layer {
  name: "Scale9"
  type: "Scale"
  bottom: "Convolution9"
  top: "Convolution9"
  scale_param {
    bias_term: true
  }
}
layer {
  name: "penlu8"
  type: "PENLU"
  bottom: "Convolution9"
  top: "Convolution9"
  param {
    lr_mult: 2
    decay_mult: 2
  }
  param {
    lr_mult: 2
    decay_mult: 2
  }
  param {
    lr_mult: 0
    decay_mult: 0
  }
  penlu_param {
    alpha_filler {
      type: "constant"
      value: 2
    }
    beta_filler {
      type: "constant"
      value: 1
    }
    eta_filler {
      type: "constant"
      value: 1
    }
  }
}
layer {
  name: "Convolution10"
  type: "Convolution"
  bottom: "Convolution9"
  top: "Convolution10"
  param {
    lr_mult: 1
    decay_mult: 1
  }
  param {
    lr_mult: 2
    decay_mult: 0
  }
  convolution_param {
    num_output: 32
    pad: 1
    kernel_size: 3
    stride: 1
    weight_filler {
      type: "gaussian"
      std: 0.083
    }
    bias_filler {
      type: "constant"
      value: 0
    }
  }
}
layer {
  name: "BatchNorm10"
  type: "BatchNorm"
  bottom: "Convolution10"
  top: "Convolution10"
  param {
    lr_mult: 0
    decay_mult: 0
  }
  param {
    lr_mult: 0
    decay_mult: 0
  }
  param {
    lr_mult: 0
    decay_mult: 0
  }
}
layer {
  name: "Scale10"
  type: "Scale"
  bottom: "Convolution10"
  top: "Convolution10"
  scale_param {
    bias_term: true
  }
}
layer {
  name: "Eltwise4"
  type: "Eltwise"
  bottom: "Convolution8"
  bottom: "Convolution10"
  top: "Eltwise4"
  eltwise_param {
    operation: SUM
  }
}
layer {
  name: "penlu9"
  type: "PENLU"
  bottom: "Eltwise4"
  top: "Eltwise4"
  param {
    lr_mult: 2
    decay_mult: 2
  }
  param {
    lr_mult: 2
    decay_mult: 2
  }
  param {
    lr_mult: 0
    decay_mult: 0
  }
  penlu_param {
    alpha_filler {
      type: "constant"
      value: 2
    }
    beta_filler {
      type: "constant"
      value: 1
    }
    eta_filler {
      type: "constant"
      value: 1
    }
  }
}
layer {
  name: "Convolution11"
  type: "Convolution"
  bottom: "Eltwise4"
  top: "Convolution11"
  param {
    lr_mult: 1
    decay_mult: 1
  }
  param {
    lr_mult: 2
    decay_mult: 0
  }
  convolution_param {
    num_output: 32
    pad: 1
    kernel_size: 3
    stride: 1
    weight_filler {
      type: "gaussian"
      std: 0.083
    }
    bias_filler {
      type: "constant"
      value: 0
    }
  }
}
layer {
  name: "BatchNorm11"
  type: "BatchNorm"
  bottom: "Convolution11"
  top: "Convolution11"
  param {
    lr_mult: 0
    decay_mult: 0
  }
  param {
    lr_mult: 0
    decay_mult: 0
  }
  param {
    lr_mult: 0
    decay_mult: 0
  }
}
layer {
  name: "Scale11"
  type: "Scale"
  bottom: "Convolution11"
  top: "Convolution11"
  scale_param {
    bias_term: true
  }
}
layer {
  name: "penlu10"
  type: "PENLU"
  bottom: "Convolution11"
  top: "Convolution11"
  param {
    lr_mult: 2
    decay_mult: 2
  }
  param {
    lr_mult: 2
    decay_mult: 2
  }
  param {
    lr_mult: 0
    decay_mult: 0
  }
  penlu_param {
    alpha_filler {
      type: "constant"
      value: 2
    }
    beta_filler {
      type: "constant"
      value: 1
    }
    eta_filler {
      type: "constant"
      value: 1
    }
  }
}
layer {
  name: "Convolution12"
  type: "Convolution"
  bottom: "Convolution11"
  top: "Convolution12"
  param {
    lr_mult: 1
    decay_mult: 1
  }
  param {
    lr_mult: 2
    decay_mult: 0
  }
  convolution_param {
    num_output: 32
    pad: 1
    kernel_size: 3
    stride: 1
    weight_filler {
      type: "gaussian"
      std: 0.083
    }
    bias_filler {
      type: "constant"
      value: 0
    }
  }
}
layer {
  name: "BatchNorm12"
  type: "BatchNorm"
  bottom: "Convolution12"
  top: "Convolution12"
  param {
    lr_mult: 0
    decay_mult: 0
  }
  param {
    lr_mult: 0
    decay_mult: 0
  }
  param {
    lr_mult: 0
    decay_mult: 0
  }
}
layer {
  name: "Scale12"
  type: "Scale"
  bottom: "Convolution12"
  top: "Convolution12"
  scale_param {
    bias_term: true
  }
}
layer {
  name: "Eltwise5"
  type: "Eltwise"
  bottom: "Eltwise4"
  bottom: "Convolution12"
  top: "Eltwise5"
  eltwise_param {
    operation: SUM
  }
}
layer {
  name: "penlu11"
  type: "PENLU"
  bottom: "Eltwise5"
  top: "Eltwise5"
  param {
    lr_mult: 2
    decay_mult: 2
  }
  param {
    lr_mult: 2
    decay_mult: 2
  }
  param {
    lr_mult: 0
    decay_mult: 0
  }
  penlu_param {
    alpha_filler {
      type: "constant"
      value: 2
    }
    beta_filler {
      type: "constant"
      value: 1
    }
    eta_filler {
      type: "constant"
      value: 1
    }
  }
}
layer {
  name: "Convolution13"
  type: "Convolution"
  bottom: "Eltwise5"
  top: "Convolution13"
  param {
    lr_mult: 1
    decay_mult: 1
  }
  param {
    lr_mult: 2
    decay_mult: 0
  }
  convolution_param {
    num_output: 32
    pad: 1
    kernel_size: 3
    stride: 1
    weight_filler {
      type: "gaussian"
      std: 0.083
    }
    bias_filler {
      type: "constant"
      value: 0
    }
  }
}
layer {
  name: "BatchNorm13"
  type: "BatchNorm"
  bottom: "Convolution13"
  top: "Convolution13"
  param {
    lr_mult: 0
    decay_mult: 0
  }
  param {
    lr_mult: 0
    decay_mult: 0
  }
  param {
    lr_mult: 0
    decay_mult: 0
  }
}
layer {
  name: "Scale13"
  type: "Scale"
  bottom: "Convolution13"
  top: "Convolution13"
  scale_param {
    bias_term: true
  }
}
layer {
  name: "penlu12"
  type: "PENLU"
  bottom: "Convolution13"
  top: "Convolution13"
  param {
    lr_mult: 2
    decay_mult: 2
  }
  param {
    lr_mult: 2
    decay_mult: 2
  }
  param {
    lr_mult: 0
    decay_mult: 0
  }
  penlu_param {
    alpha_filler {
      type: "constant"
      value: 2
    }
    beta_filler {
      type: "constant"
      value: 1
    }
    eta_filler {
      type: "constant"
      value: 1
    }
  }
}
layer {
  name: "Convolution14"
  type: "Convolution"
  bottom: "Convolution13"
  top: "Convolution14"
  param {
    lr_mult: 1
    decay_mult: 1
  }
  param {
    lr_mult: 2
    decay_mult: 0
  }
  convolution_param {
    num_output: 32
    pad: 1
    kernel_size: 3
    stride: 1
    weight_filler {
      type: "gaussian"
      std: 0.083
    }
    bias_filler {
      type: "constant"
      value: 0
    }
  }
}
layer {
  name: "BatchNorm14"
  type: "BatchNorm"
  bottom: "Convolution14"
  top: "Convolution14"
  param {
    lr_mult: 0
    decay_mult: 0
  }
  param {
    lr_mult: 0
    decay_mult: 0
  }
  param {
    lr_mult: 0
    decay_mult: 0
  }
}
layer {
  name: "Scale14"
  type: "Scale"
  bottom: "Convolution14"
  top: "Convolution14"
  scale_param {
    bias_term: true
  }
}
layer {
  name: "Eltwise6"
  type: "Eltwise"
  bottom: "Eltwise5"
  bottom: "Convolution14"
  top: "Eltwise6"
  eltwise_param {
    operation: SUM
  }
}
layer {
  name: "penlu13"
  type: "PENLU"
  bottom: "Eltwise6"
  top: "Eltwise6"
  param {
    lr_mult: 2
    decay_mult: 2
  }
  param {
    lr_mult: 2
    decay_mult: 2
  }
  param {
    lr_mult: 0
    decay_mult: 0
  }
  penlu_param {
    alpha_filler {
      type: "constant"
      value: 2
    }
    beta_filler {
      type: "constant"
      value: 1
    }
    eta_filler {
      type: "constant"
      value: 1
    }
  }
}
layer {
  name: "Convolution15"
  type: "Convolution"
  bottom: "Eltwise6"
  top: "Convolution15"
  param {
    lr_mult: 1
    decay_mult: 1
  }
  param {
    lr_mult: 2
    decay_mult: 0
  }
  convolution_param {
    num_output: 64
    pad: 0
    kernel_size: 1
    stride: 2
    weight_filler {
      type: "gaussian"
      std: 0.17677669
    }
    bias_filler {
      type: "constant"
      value: 0
    }
  }
}
layer {
  name: "BatchNorm15"
  type: "BatchNorm"
  bottom: "Convolution15"
  top: "Convolution15"
  param {
    lr_mult: 0
    decay_mult: 0
  }
  param {
    lr_mult: 0
    decay_mult: 0
  }
  param {
    lr_mult: 0
    decay_mult: 0
  }
}
layer {
  name: "Scale15"
  type: "Scale"
  bottom: "Convolution15"
  top: "Convolution15"
  scale_param {
    bias_term: true
  }
}
layer {
  name: "Convolution16"
  type: "Convolution"
  bottom: "Eltwise6"
  top: "Convolution16"
  param {
    lr_mult: 1
    decay_mult: 1
  }
  param {
    lr_mult: 2
    decay_mult: 0
  }
  convolution_param {
    num_output: 64
    pad: 1
    kernel_size: 3
    stride: 2
    weight_filler {
      type: "gaussian"
      std: 0.059
    }
    bias_filler {
      type: "constant"
      value: 0
    }
  }
}
layer {
  name: "BatchNorm16"
  type: "BatchNorm"
  bottom: "Convolution16"
  top: "Convolution16"
  param {
    lr_mult: 0
    decay_mult: 0
  }
  param {
    lr_mult: 0
    decay_mult: 0
  }
  param {
    lr_mult: 0
    decay_mult: 0
  }
}
layer {
  name: "Scale16"
  type: "Scale"
  bottom: "Convolution16"
  top: "Convolution16"
  scale_param {
    bias_term: true
  }
}
layer {
  name: "penlu14"
  type: "PENLU"
  bottom: "Convolution16"
  top: "Convolution16"
  param {
    lr_mult: 2
    decay_mult: 2
  }
  param {
    lr_mult: 2
    decay_mult: 2
  }
  param {
    lr_mult: 0
    decay_mult: 0
  }
  penlu_param {
    alpha_filler {
      type: "constant"
      value: 2
    }
    beta_filler {
      type: "constant"
      value: 1
    }
    eta_filler {
      type: "constant"
      value: 1
    }
  }
}
layer {
  name: "Convolution17"
  type: "Convolution"
  bottom: "Convolution16"
  top: "Convolution17"
  param {
    lr_mult: 1
    decay_mult: 1
  }
  param {
    lr_mult: 2
    decay_mult: 0
  }
  convolution_param {
    num_output: 64
    pad: 1
    kernel_size: 3
    stride: 1
    weight_filler {
      type: "gaussian"
      std: 0.059
    }
    bias_filler {
      type: "constant"
      value: 0
    }
  }
}
layer {
  name: "BatchNorm17"
  type: "BatchNorm"
  bottom: "Convolution17"
  top: "Convolution17"
  param {
    lr_mult: 0
    decay_mult: 0
  }
  param {
    lr_mult: 0
    decay_mult: 0
  }
  param {
    lr_mult: 0
    decay_mult: 0
  }
}
layer {
  name: "Scale17"
  type: "Scale"
  bottom: "Convolution17"
  top: "Convolution17"
  scale_param {
    bias_term: true
  }
}
layer {
  name: "Eltwise7"
  type: "Eltwise"
  bottom: "Convolution15"
  bottom: "Convolution17"
  top: "Eltwise7"
  eltwise_param {
    operation: SUM
  }
}
layer {
  name: "penlu15"
  type: "PENLU"
  bottom: "Eltwise7"
  top: "Eltwise7"
  param {
    lr_mult: 2
    decay_mult: 2
  }
  param {
    lr_mult: 2
    decay_mult: 2
  }
  param {
    lr_mult: 0
    decay_mult: 0
  }
  penlu_param {
    alpha_filler {
      type: "constant"
      value: 2
    }
    beta_filler {
      type: "constant"
      value: 1
    }
    eta_filler {
      type: "constant"
      value: 1
    }
  }
}
layer {
  name: "Convolution18"
  type: "Convolution"
  bottom: "Eltwise7"
  top: "Convolution18"
  param {
    lr_mult: 1
    decay_mult: 1
  }
  param {
    lr_mult: 2
    decay_mult: 0
  }
  convolution_param {
    num_output: 64
    pad: 1
    kernel_size: 3
    stride: 1
    weight_filler {
      type: "gaussian"
      std: 0.059
    }
    bias_filler {
      type: "constant"
      value: 0
    }
  }
}
layer {
  name: "BatchNorm18"
  type: "BatchNorm"
  bottom: "Convolution18"
  top: "Convolution18"
  param {
    lr_mult: 0
    decay_mult: 0
  }
  param {
    lr_mult: 0
    decay_mult: 0
  }
  param {
    lr_mult: 0
    decay_mult: 0
  }
}
layer {
  name: "Scale18"
  type: "Scale"
  bottom: "Convolution18"
  top: "Convolution18"
  scale_param {
    bias_term: true
  }
}
layer {
  name: "penlu16"
  type: "PENLU"
  bottom: "Convolution18"
  top: "Convolution18"
  param {
    lr_mult: 2
    decay_mult: 2
  }
  param {
    lr_mult: 2
    decay_mult: 2
  }
  param {
    lr_mult: 0
    decay_mult: 0
  }
  penlu_param {
    alpha_filler {
      type: "constant"
      value: 2
    }
    beta_filler {
      type: "constant"
      value: 1
    }
    eta_filler {
      type: "constant"
      value: 1
    }
  }
}
layer {
  name: "Convolution19"
  type: "Convolution"
  bottom: "Convolution18"
  top: "Convolution19"
  param {
    lr_mult: 1
    decay_mult: 1
  }
  param {
    lr_mult: 2
    decay_mult: 0
  }
  convolution_param {
    num_output: 64
    pad: 1
    kernel_size: 3
    stride: 1
    weight_filler {
      type: "gaussian"
      std: 0.059
    }
    bias_filler {
      type: "constant"
      value: 0
    }
  }
}
layer {
  name: "BatchNorm19"
  type: "BatchNorm"
  bottom: "Convolution19"
  top: "Convolution19"
  param {
    lr_mult: 0
    decay_mult: 0
  }
  param {
    lr_mult: 0
    decay_mult: 0
  }
  param {
    lr_mult: 0
    decay_mult: 0
  }
}
layer {
  name: "Scale19"
  type: "Scale"
  bottom: "Convolution19"
  top: "Convolution19"
  scale_param {
    bias_term: true
  }
}
layer {
  name: "Eltwise8"
  type: "Eltwise"
  bottom: "Eltwise7"
  bottom: "Convolution19"
  top: "Eltwise8"
  eltwise_param {
    operation: SUM
  }
}
layer {
  name: "penlu17"
  type: "PENLU"
  bottom: "Eltwise8"
  top: "Eltwise8"
  param {
    lr_mult: 2
    decay_mult: 2
  }
  param {
    lr_mult: 2
    decay_mult: 2
  }
  param {
    lr_mult: 0
    decay_mult: 0
  }
  penlu_param {
    alpha_filler {
      type: "constant"
      value: 2
    }
    beta_filler {
      type: "constant"
      value: 1
    }
    eta_filler {
      type: "constant"
      value: 1
    }
  }
}
layer {
  name: "Convolution20"
  type: "Convolution"
  bottom: "Eltwise8"
  top: "Convolution20"
  param {
    lr_mult: 1
    decay_mult: 1
  }
  param {
    lr_mult: 2
    decay_mult: 0
  }
  convolution_param {
    num_output: 64
    pad: 1
    kernel_size: 3
    stride: 1
    weight_filler {
      type: "gaussian"
      std: 0.059
    }
    bias_filler {
      type: "constant"
      value: 0
    }
  }
}
layer {
  name: "BatchNorm20"
  type: "BatchNorm"
  bottom: "Convolution20"
  top: "Convolution20"
  param {
    lr_mult: 0
    decay_mult: 0
  }
  param {
    lr_mult: 0
    decay_mult: 0
  }
  param {
    lr_mult: 0
    decay_mult: 0
  }
}
layer {
  name: "Scale20"
  type: "Scale"
  bottom: "Convolution20"
  top: "Convolution20"
  scale_param {
    bias_term: true
  }
}
layer {
  name: "penlu18"
  type: "PENLU"
  bottom: "Convolution20"
  top: "Convolution20"
  param {
    lr_mult: 2
    decay_mult: 2
  }
  param {
    lr_mult: 2
    decay_mult: 2
  }
  param {
    lr_mult: 0
    decay_mult: 0
  }
  penlu_param {
    alpha_filler {
      type: "constant"
      value: 2
    }
    beta_filler {
      type: "constant"
      value: 1
    }
    eta_filler {
      type: "constant"
      value: 1
    }
  }
}
layer {
  name: "Convolution21"
  type: "Convolution"
  bottom: "Convolution20"
  top: "Convolution21"
  param {
    lr_mult: 1
    decay_mult: 1
  }
  param {
    lr_mult: 2
    decay_mult: 0
  }
  convolution_param {
    num_output: 64
    pad: 1
    kernel_size: 3
    stride: 1
    weight_filler {
      type: "gaussian"
      std: 0.059
    }
    bias_filler {
      type: "constant"
      value: 0
    }
  }
}
layer {
  name: "BatchNorm21"
  type: "BatchNorm"
  bottom: "Convolution21"
  top: "Convolution21"
  param {
    lr_mult: 0
    decay_mult: 0
  }
  param {
    lr_mult: 0
    decay_mult: 0
  }
  param {
    lr_mult: 0
    decay_mult: 0
  }
}
layer {
  name: "Scale21"
  type: "Scale"
  bottom: "Convolution21"
  top: "Convolution21"
  scale_param {
    bias_term: true
  }
}
layer {
  name: "Eltwise9"
  type: "Eltwise"
  bottom: "Eltwise8"
  bottom: "Convolution21"
  top: "Eltwise9"
  eltwise_param {
    operation: SUM
  }
}
layer {
  name: "penlu19"
  type: "PENLU"
  bottom: "Eltwise9"
  top: "Eltwise9"
  param {
    lr_mult: 2
    decay_mult: 2
  }
  param {
    lr_mult: 2
    decay_mult: 2
  }
  param {
    lr_mult: 0
    decay_mult: 0
  }
  penlu_param {
    alpha_filler {
      type: "constant"
      value: 2
    }
    beta_filler {
      type: "constant"
      value: 1
    }
    eta_filler {
      type: "constant"
      value: 1
    }
  }
}
layer {
  name: "Pooling1"
  type: "Pooling"
  bottom: "Eltwise9"
  top: "Pooling1"
  pooling_param {
    pool: AVE
    global_pooling: true
  }
}
layer {
  name: "InnerProduct1"
  type: "InnerProduct"
  bottom: "Pooling1"
  top: "InnerProduct1"
  param {
    lr_mult: 1
    decay_mult: 1
  }
  param {
    lr_mult: 2
    decay_mult: 1
  }
  inner_product_param {
    num_output: 10
    weight_filler {
      type: "gaussian"
      std: 0.01
    }
    bias_filler {
      type: "constant"
      value: 0
    }
  }
}
layer {
  name: "SoftmaxWithLoss1"
  type: "SoftmaxWithLoss"
  bottom: "InnerProduct1"
  bottom: "Data2"
  top: "SoftmaxWithLoss1"
}
layer {
  name: "Accuracy1"
  type: "Accuracy"
  bottom: "InnerProduct1"
  bottom: "Data2"
  top: "Accuracy1"
  include {
    phase: TEST
  }
}
I1005 13:00:40.196936  9519 layer_factory.hpp:77] Creating layer Data1
I1005 13:00:40.196975  9519 db_lmdb.cpp:35] Opened lmdb /home/x306/caffe/xn/PENLU/data/cifar10/cifar10_test_lmdb
I1005 13:00:40.196985  9519 net.cpp:84] Creating Layer Data1
I1005 13:00:40.196990  9519 net.cpp:380] Data1 -> Data1
I1005 13:00:40.196995  9519 net.cpp:380] Data1 -> Data2
I1005 13:00:40.197001  9519 data_transformer.cpp:25] Loading mean file from: /home/x306/caffe/xn/PENLU/data/cifar10/mean.binaryproto
I1005 13:00:40.197109  9519 data_layer.cpp:45] output data size: 100,3,32,32
I1005 13:00:40.201110  9519 net.cpp:122] Setting up Data1
I1005 13:00:40.201131  9519 net.cpp:129] Top shape: 100 3 32 32 (307200)
I1005 13:00:40.201135  9519 net.cpp:129] Top shape: 100 (100)
I1005 13:00:40.201138  9519 net.cpp:137] Memory required for data: 1229200
I1005 13:00:40.201143  9519 layer_factory.hpp:77] Creating layer Data2_Data1_1_split
I1005 13:00:40.201153  9519 net.cpp:84] Creating Layer Data2_Data1_1_split
I1005 13:00:40.201155  9519 net.cpp:406] Data2_Data1_1_split <- Data2
I1005 13:00:40.201160  9519 net.cpp:380] Data2_Data1_1_split -> Data2_Data1_1_split_0
I1005 13:00:40.201167  9519 net.cpp:380] Data2_Data1_1_split -> Data2_Data1_1_split_1
I1005 13:00:40.201217  9519 net.cpp:122] Setting up Data2_Data1_1_split
I1005 13:00:40.201222  9519 net.cpp:129] Top shape: 100 (100)
I1005 13:00:40.201241  9519 net.cpp:129] Top shape: 100 (100)
I1005 13:00:40.201243  9519 net.cpp:137] Memory required for data: 1230000
I1005 13:00:40.201246  9519 layer_factory.hpp:77] Creating layer Convolution1
I1005 13:00:40.201256  9519 net.cpp:84] Creating Layer Convolution1
I1005 13:00:40.201258  9519 net.cpp:406] Convolution1 <- Data1
I1005 13:00:40.201262  9519 net.cpp:380] Convolution1 -> Convolution1
I1005 13:00:40.202376  9519 net.cpp:122] Setting up Convolution1
I1005 13:00:40.202385  9519 net.cpp:129] Top shape: 100 16 32 32 (1638400)
I1005 13:00:40.202389  9519 net.cpp:137] Memory required for data: 7783600
I1005 13:00:40.202395  9519 layer_factory.hpp:77] Creating layer BatchNorm1
I1005 13:00:40.202401  9519 net.cpp:84] Creating Layer BatchNorm1
I1005 13:00:40.202404  9519 net.cpp:406] BatchNorm1 <- Convolution1
I1005 13:00:40.202407  9519 net.cpp:367] BatchNorm1 -> Convolution1 (in-place)
I1005 13:00:40.202574  9519 net.cpp:122] Setting up BatchNorm1
I1005 13:00:40.202581  9519 net.cpp:129] Top shape: 100 16 32 32 (1638400)
I1005 13:00:40.202584  9519 net.cpp:137] Memory required for data: 14337200
I1005 13:00:40.202590  9519 layer_factory.hpp:77] Creating layer Scale1
I1005 13:00:40.202597  9519 net.cpp:84] Creating Layer Scale1
I1005 13:00:40.202600  9519 net.cpp:406] Scale1 <- Convolution1
I1005 13:00:40.202603  9519 net.cpp:367] Scale1 -> Convolution1 (in-place)
I1005 13:00:40.202632  9519 layer_factory.hpp:77] Creating layer Scale1
I1005 13:00:40.202708  9519 net.cpp:122] Setting up Scale1
I1005 13:00:40.202711  9519 net.cpp:129] Top shape: 100 16 32 32 (1638400)
I1005 13:00:40.202714  9519 net.cpp:137] Memory required for data: 20890800
I1005 13:00:40.202719  9519 layer_factory.hpp:77] Creating layer penlu1
I1005 13:00:40.202725  9519 net.cpp:84] Creating Layer penlu1
I1005 13:00:40.202728  9519 net.cpp:406] penlu1 <- Convolution1
I1005 13:00:40.202731  9519 net.cpp:367] penlu1 -> Convolution1 (in-place)
I1005 13:00:40.202847  9519 net.cpp:122] Setting up penlu1
I1005 13:00:40.202852  9519 net.cpp:129] Top shape: 100 16 32 32 (1638400)
I1005 13:00:40.202853  9519 net.cpp:137] Memory required for data: 27444400
I1005 13:00:40.202860  9519 layer_factory.hpp:77] Creating layer Convolution1_penlu1_0_split
I1005 13:00:40.202865  9519 net.cpp:84] Creating Layer Convolution1_penlu1_0_split
I1005 13:00:40.202872  9519 net.cpp:406] Convolution1_penlu1_0_split <- Convolution1
I1005 13:00:40.202875  9519 net.cpp:380] Convolution1_penlu1_0_split -> Convolution1_penlu1_0_split_0
I1005 13:00:40.202879  9519 net.cpp:380] Convolution1_penlu1_0_split -> Convolution1_penlu1_0_split_1
I1005 13:00:40.202903  9519 net.cpp:122] Setting up Convolution1_penlu1_0_split
I1005 13:00:40.202908  9519 net.cpp:129] Top shape: 100 16 32 32 (1638400)
I1005 13:00:40.202910  9519 net.cpp:129] Top shape: 100 16 32 32 (1638400)
I1005 13:00:40.202913  9519 net.cpp:137] Memory required for data: 40551600
I1005 13:00:40.202915  9519 layer_factory.hpp:77] Creating layer Convolution2
I1005 13:00:40.202921  9519 net.cpp:84] Creating Layer Convolution2
I1005 13:00:40.202924  9519 net.cpp:406] Convolution2 <- Convolution1_penlu1_0_split_0
I1005 13:00:40.202929  9519 net.cpp:380] Convolution2 -> Convolution2
I1005 13:00:40.203536  9519 net.cpp:122] Setting up Convolution2
I1005 13:00:40.203543  9519 net.cpp:129] Top shape: 100 16 32 32 (1638400)
I1005 13:00:40.203546  9519 net.cpp:137] Memory required for data: 47105200
I1005 13:00:40.203550  9519 layer_factory.hpp:77] Creating layer BatchNorm2
I1005 13:00:40.203557  9519 net.cpp:84] Creating Layer BatchNorm2
I1005 13:00:40.203559  9519 net.cpp:406] BatchNorm2 <- Convolution2
I1005 13:00:40.203563  9519 net.cpp:367] BatchNorm2 -> Convolution2 (in-place)
I1005 13:00:40.203806  9519 net.cpp:122] Setting up BatchNorm2
I1005 13:00:40.203812  9519 net.cpp:129] Top shape: 100 16 32 32 (1638400)
I1005 13:00:40.203819  9519 net.cpp:137] Memory required for data: 53658800
I1005 13:00:40.203822  9519 layer_factory.hpp:77] Creating layer Scale2
I1005 13:00:40.203827  9519 net.cpp:84] Creating Layer Scale2
I1005 13:00:40.203838  9519 net.cpp:406] Scale2 <- Convolution2
I1005 13:00:40.203843  9519 net.cpp:367] Scale2 -> Convolution2 (in-place)
I1005 13:00:40.203871  9519 layer_factory.hpp:77] Creating layer Scale2
I1005 13:00:40.203946  9519 net.cpp:122] Setting up Scale2
I1005 13:00:40.203951  9519 net.cpp:129] Top shape: 100 16 32 32 (1638400)
I1005 13:00:40.203956  9519 net.cpp:137] Memory required for data: 60212400
I1005 13:00:40.203963  9519 layer_factory.hpp:77] Creating layer penlu2
I1005 13:00:40.203969  9519 net.cpp:84] Creating Layer penlu2
I1005 13:00:40.203971  9519 net.cpp:406] penlu2 <- Convolution2
I1005 13:00:40.203975  9519 net.cpp:367] penlu2 -> Convolution2 (in-place)
I1005 13:00:40.204094  9519 net.cpp:122] Setting up penlu2
I1005 13:00:40.204098  9519 net.cpp:129] Top shape: 100 16 32 32 (1638400)
I1005 13:00:40.204102  9519 net.cpp:137] Memory required for data: 66766000
I1005 13:00:40.204107  9519 layer_factory.hpp:77] Creating layer Convolution3
I1005 13:00:40.204113  9519 net.cpp:84] Creating Layer Convolution3
I1005 13:00:40.204115  9519 net.cpp:406] Convolution3 <- Convolution2
I1005 13:00:40.204119  9519 net.cpp:380] Convolution3 -> Convolution3
I1005 13:00:40.205162  9519 net.cpp:122] Setting up Convolution3
I1005 13:00:40.205170  9519 net.cpp:129] Top shape: 100 16 32 32 (1638400)
I1005 13:00:40.205173  9519 net.cpp:137] Memory required for data: 73319600
I1005 13:00:40.205178  9519 layer_factory.hpp:77] Creating layer BatchNorm3
I1005 13:00:40.205184  9519 net.cpp:84] Creating Layer BatchNorm3
I1005 13:00:40.205188  9519 net.cpp:406] BatchNorm3 <- Convolution3
I1005 13:00:40.205190  9519 net.cpp:367] BatchNorm3 -> Convolution3 (in-place)
I1005 13:00:40.205325  9519 net.cpp:122] Setting up BatchNorm3
I1005 13:00:40.205329  9519 net.cpp:129] Top shape: 100 16 32 32 (1638400)
I1005 13:00:40.205332  9519 net.cpp:137] Memory required for data: 79873200
I1005 13:00:40.205338  9519 layer_factory.hpp:77] Creating layer Scale3
I1005 13:00:40.205341  9519 net.cpp:84] Creating Layer Scale3
I1005 13:00:40.205344  9519 net.cpp:406] Scale3 <- Convolution3
I1005 13:00:40.205348  9519 net.cpp:367] Scale3 -> Convolution3 (in-place)
I1005 13:00:40.205374  9519 layer_factory.hpp:77] Creating layer Scale3
I1005 13:00:40.205447  9519 net.cpp:122] Setting up Scale3
I1005 13:00:40.205452  9519 net.cpp:129] Top shape: 100 16 32 32 (1638400)
I1005 13:00:40.205454  9519 net.cpp:137] Memory required for data: 86426800
I1005 13:00:40.205458  9519 layer_factory.hpp:77] Creating layer Eltwise1
I1005 13:00:40.205463  9519 net.cpp:84] Creating Layer Eltwise1
I1005 13:00:40.205466  9519 net.cpp:406] Eltwise1 <- Convolution1_penlu1_0_split_1
I1005 13:00:40.205471  9519 net.cpp:406] Eltwise1 <- Convolution3
I1005 13:00:40.205473  9519 net.cpp:380] Eltwise1 -> Eltwise1
I1005 13:00:40.205489  9519 net.cpp:122] Setting up Eltwise1
I1005 13:00:40.205494  9519 net.cpp:129] Top shape: 100 16 32 32 (1638400)
I1005 13:00:40.205497  9519 net.cpp:137] Memory required for data: 92980400
I1005 13:00:40.205498  9519 layer_factory.hpp:77] Creating layer penlu3
I1005 13:00:40.205503  9519 net.cpp:84] Creating Layer penlu3
I1005 13:00:40.205507  9519 net.cpp:406] penlu3 <- Eltwise1
I1005 13:00:40.205509  9519 net.cpp:367] penlu3 -> Eltwise1 (in-place)
I1005 13:00:40.205622  9519 net.cpp:122] Setting up penlu3
I1005 13:00:40.205627  9519 net.cpp:129] Top shape: 100 16 32 32 (1638400)
I1005 13:00:40.205629  9519 net.cpp:137] Memory required for data: 99534000
I1005 13:00:40.205634  9519 layer_factory.hpp:77] Creating layer Eltwise1_penlu3_0_split
I1005 13:00:40.205639  9519 net.cpp:84] Creating Layer Eltwise1_penlu3_0_split
I1005 13:00:40.205641  9519 net.cpp:406] Eltwise1_penlu3_0_split <- Eltwise1
I1005 13:00:40.205644  9519 net.cpp:380] Eltwise1_penlu3_0_split -> Eltwise1_penlu3_0_split_0
I1005 13:00:40.205649  9519 net.cpp:380] Eltwise1_penlu3_0_split -> Eltwise1_penlu3_0_split_1
I1005 13:00:40.205672  9519 net.cpp:122] Setting up Eltwise1_penlu3_0_split
I1005 13:00:40.205675  9519 net.cpp:129] Top shape: 100 16 32 32 (1638400)
I1005 13:00:40.205684  9519 net.cpp:129] Top shape: 100 16 32 32 (1638400)
I1005 13:00:40.205687  9519 net.cpp:137] Memory required for data: 112641200
I1005 13:00:40.205690  9519 layer_factory.hpp:77] Creating layer Convolution4
I1005 13:00:40.205696  9519 net.cpp:84] Creating Layer Convolution4
I1005 13:00:40.205699  9519 net.cpp:406] Convolution4 <- Eltwise1_penlu3_0_split_0
I1005 13:00:40.205703  9519 net.cpp:380] Convolution4 -> Convolution4
I1005 13:00:40.206764  9519 net.cpp:122] Setting up Convolution4
I1005 13:00:40.206775  9519 net.cpp:129] Top shape: 100 16 32 32 (1638400)
I1005 13:00:40.206778  9519 net.cpp:137] Memory required for data: 119194800
I1005 13:00:40.206782  9519 layer_factory.hpp:77] Creating layer BatchNorm4
I1005 13:00:40.206787  9519 net.cpp:84] Creating Layer BatchNorm4
I1005 13:00:40.206790  9519 net.cpp:406] BatchNorm4 <- Convolution4
I1005 13:00:40.206795  9519 net.cpp:367] BatchNorm4 -> Convolution4 (in-place)
I1005 13:00:40.206926  9519 net.cpp:122] Setting up BatchNorm4
I1005 13:00:40.206930  9519 net.cpp:129] Top shape: 100 16 32 32 (1638400)
I1005 13:00:40.206933  9519 net.cpp:137] Memory required for data: 125748400
I1005 13:00:40.206943  9519 layer_factory.hpp:77] Creating layer Scale4
I1005 13:00:40.206946  9519 net.cpp:84] Creating Layer Scale4
I1005 13:00:40.206949  9519 net.cpp:406] Scale4 <- Convolution4
I1005 13:00:40.206953  9519 net.cpp:367] Scale4 -> Convolution4 (in-place)
I1005 13:00:40.206980  9519 layer_factory.hpp:77] Creating layer Scale4
I1005 13:00:40.207054  9519 net.cpp:122] Setting up Scale4
I1005 13:00:40.207058  9519 net.cpp:129] Top shape: 100 16 32 32 (1638400)
I1005 13:00:40.207060  9519 net.cpp:137] Memory required for data: 132302000
I1005 13:00:40.207064  9519 layer_factory.hpp:77] Creating layer penlu4
I1005 13:00:40.207069  9519 net.cpp:84] Creating Layer penlu4
I1005 13:00:40.207072  9519 net.cpp:406] penlu4 <- Convolution4
I1005 13:00:40.207077  9519 net.cpp:367] penlu4 -> Convolution4 (in-place)
I1005 13:00:40.207190  9519 net.cpp:122] Setting up penlu4
I1005 13:00:40.207195  9519 net.cpp:129] Top shape: 100 16 32 32 (1638400)
I1005 13:00:40.207206  9519 net.cpp:137] Memory required for data: 138855600
I1005 13:00:40.207209  9519 layer_factory.hpp:77] Creating layer Convolution5
I1005 13:00:40.207216  9519 net.cpp:84] Creating Layer Convolution5
I1005 13:00:40.207218  9519 net.cpp:406] Convolution5 <- Convolution4
I1005 13:00:40.207222  9519 net.cpp:380] Convolution5 -> Convolution5
I1005 13:00:40.208487  9519 net.cpp:122] Setting up Convolution5
I1005 13:00:40.208494  9519 net.cpp:129] Top shape: 100 16 32 32 (1638400)
I1005 13:00:40.208498  9519 net.cpp:137] Memory required for data: 145409200
I1005 13:00:40.208503  9519 layer_factory.hpp:77] Creating layer BatchNorm5
I1005 13:00:40.208508  9519 net.cpp:84] Creating Layer BatchNorm5
I1005 13:00:40.208510  9519 net.cpp:406] BatchNorm5 <- Convolution5
I1005 13:00:40.208514  9519 net.cpp:367] BatchNorm5 -> Convolution5 (in-place)
I1005 13:00:40.208648  9519 net.cpp:122] Setting up BatchNorm5
I1005 13:00:40.208653  9519 net.cpp:129] Top shape: 100 16 32 32 (1638400)
I1005 13:00:40.208655  9519 net.cpp:137] Memory required for data: 151962800
I1005 13:00:40.208660  9519 layer_factory.hpp:77] Creating layer Scale5
I1005 13:00:40.208664  9519 net.cpp:84] Creating Layer Scale5
I1005 13:00:40.208667  9519 net.cpp:406] Scale5 <- Convolution5
I1005 13:00:40.208670  9519 net.cpp:367] Scale5 -> Convolution5 (in-place)
I1005 13:00:40.208696  9519 layer_factory.hpp:77] Creating layer Scale5
I1005 13:00:40.208772  9519 net.cpp:122] Setting up Scale5
I1005 13:00:40.208777  9519 net.cpp:129] Top shape: 100 16 32 32 (1638400)
I1005 13:00:40.208780  9519 net.cpp:137] Memory required for data: 158516400
I1005 13:00:40.208783  9519 layer_factory.hpp:77] Creating layer Eltwise2
I1005 13:00:40.208786  9519 net.cpp:84] Creating Layer Eltwise2
I1005 13:00:40.208789  9519 net.cpp:406] Eltwise2 <- Eltwise1_penlu3_0_split_1
I1005 13:00:40.208792  9519 net.cpp:406] Eltwise2 <- Convolution5
I1005 13:00:40.208796  9519 net.cpp:380] Eltwise2 -> Eltwise2
I1005 13:00:40.208822  9519 net.cpp:122] Setting up Eltwise2
I1005 13:00:40.208825  9519 net.cpp:129] Top shape: 100 16 32 32 (1638400)
I1005 13:00:40.208827  9519 net.cpp:137] Memory required for data: 165070000
I1005 13:00:40.208829  9519 layer_factory.hpp:77] Creating layer penlu5
I1005 13:00:40.208833  9519 net.cpp:84] Creating Layer penlu5
I1005 13:00:40.208837  9519 net.cpp:406] penlu5 <- Eltwise2
I1005 13:00:40.208839  9519 net.cpp:367] penlu5 -> Eltwise2 (in-place)
I1005 13:00:40.208953  9519 net.cpp:122] Setting up penlu5
I1005 13:00:40.208958  9519 net.cpp:129] Top shape: 100 16 32 32 (1638400)
I1005 13:00:40.208961  9519 net.cpp:137] Memory required for data: 171623600
I1005 13:00:40.208964  9519 layer_factory.hpp:77] Creating layer Eltwise2_penlu5_0_split
I1005 13:00:40.208968  9519 net.cpp:84] Creating Layer Eltwise2_penlu5_0_split
I1005 13:00:40.208971  9519 net.cpp:406] Eltwise2_penlu5_0_split <- Eltwise2
I1005 13:00:40.208973  9519 net.cpp:380] Eltwise2_penlu5_0_split -> Eltwise2_penlu5_0_split_0
I1005 13:00:40.208977  9519 net.cpp:380] Eltwise2_penlu5_0_split -> Eltwise2_penlu5_0_split_1
I1005 13:00:40.209000  9519 net.cpp:122] Setting up Eltwise2_penlu5_0_split
I1005 13:00:40.209004  9519 net.cpp:129] Top shape: 100 16 32 32 (1638400)
I1005 13:00:40.209007  9519 net.cpp:129] Top shape: 100 16 32 32 (1638400)
I1005 13:00:40.209009  9519 net.cpp:137] Memory required for data: 184730800
I1005 13:00:40.209012  9519 layer_factory.hpp:77] Creating layer Convolution6
I1005 13:00:40.209018  9519 net.cpp:84] Creating Layer Convolution6
I1005 13:00:40.209020  9519 net.cpp:406] Convolution6 <- Eltwise2_penlu5_0_split_0
I1005 13:00:40.209024  9519 net.cpp:380] Convolution6 -> Convolution6
I1005 13:00:40.209926  9519 net.cpp:122] Setting up Convolution6
I1005 13:00:40.209936  9519 net.cpp:129] Top shape: 100 16 32 32 (1638400)
I1005 13:00:40.209939  9519 net.cpp:137] Memory required for data: 191284400
I1005 13:00:40.209944  9519 layer_factory.hpp:77] Creating layer BatchNorm6
I1005 13:00:40.209947  9519 net.cpp:84] Creating Layer BatchNorm6
I1005 13:00:40.209950  9519 net.cpp:406] BatchNorm6 <- Convolution6
I1005 13:00:40.209954  9519 net.cpp:367] BatchNorm6 -> Convolution6 (in-place)
I1005 13:00:40.210089  9519 net.cpp:122] Setting up BatchNorm6
I1005 13:00:40.210093  9519 net.cpp:129] Top shape: 100 16 32 32 (1638400)
I1005 13:00:40.210095  9519 net.cpp:137] Memory required for data: 197838000
I1005 13:00:40.210100  9519 layer_factory.hpp:77] Creating layer Scale6
I1005 13:00:40.210104  9519 net.cpp:84] Creating Layer Scale6
I1005 13:00:40.210106  9519 net.cpp:406] Scale6 <- Convolution6
I1005 13:00:40.210109  9519 net.cpp:367] Scale6 -> Convolution6 (in-place)
I1005 13:00:40.210135  9519 layer_factory.hpp:77] Creating layer Scale6
I1005 13:00:40.210209  9519 net.cpp:122] Setting up Scale6
I1005 13:00:40.210214  9519 net.cpp:129] Top shape: 100 16 32 32 (1638400)
I1005 13:00:40.210216  9519 net.cpp:137] Memory required for data: 204391600
I1005 13:00:40.210219  9519 layer_factory.hpp:77] Creating layer penlu6
I1005 13:00:40.210225  9519 net.cpp:84] Creating Layer penlu6
I1005 13:00:40.210227  9519 net.cpp:406] penlu6 <- Convolution6
I1005 13:00:40.210230  9519 net.cpp:367] penlu6 -> Convolution6 (in-place)
I1005 13:00:40.210345  9519 net.cpp:122] Setting up penlu6
I1005 13:00:40.210350  9519 net.cpp:129] Top shape: 100 16 32 32 (1638400)
I1005 13:00:40.210352  9519 net.cpp:137] Memory required for data: 210945200
I1005 13:00:40.210356  9519 layer_factory.hpp:77] Creating layer Convolution7
I1005 13:00:40.210364  9519 net.cpp:84] Creating Layer Convolution7
I1005 13:00:40.210366  9519 net.cpp:406] Convolution7 <- Convolution6
I1005 13:00:40.210371  9519 net.cpp:380] Convolution7 -> Convolution7
I1005 13:00:40.211305  9519 net.cpp:122] Setting up Convolution7
I1005 13:00:40.211314  9519 net.cpp:129] Top shape: 100 16 32 32 (1638400)
I1005 13:00:40.211318  9519 net.cpp:137] Memory required for data: 217498800
I1005 13:00:40.211323  9519 layer_factory.hpp:77] Creating layer BatchNorm7
I1005 13:00:40.211335  9519 net.cpp:84] Creating Layer BatchNorm7
I1005 13:00:40.211338  9519 net.cpp:406] BatchNorm7 <- Convolution7
I1005 13:00:40.211344  9519 net.cpp:367] BatchNorm7 -> Convolution7 (in-place)
I1005 13:00:40.211483  9519 net.cpp:122] Setting up BatchNorm7
I1005 13:00:40.211488  9519 net.cpp:129] Top shape: 100 16 32 32 (1638400)
I1005 13:00:40.211489  9519 net.cpp:137] Memory required for data: 224052400
I1005 13:00:40.211499  9519 layer_factory.hpp:77] Creating layer Scale7
I1005 13:00:40.211503  9519 net.cpp:84] Creating Layer Scale7
I1005 13:00:40.211506  9519 net.cpp:406] Scale7 <- Convolution7
I1005 13:00:40.211509  9519 net.cpp:367] Scale7 -> Convolution7 (in-place)
I1005 13:00:40.211539  9519 layer_factory.hpp:77] Creating layer Scale7
I1005 13:00:40.211616  9519 net.cpp:122] Setting up Scale7
I1005 13:00:40.211621  9519 net.cpp:129] Top shape: 100 16 32 32 (1638400)
I1005 13:00:40.211623  9519 net.cpp:137] Memory required for data: 230606000
I1005 13:00:40.211627  9519 layer_factory.hpp:77] Creating layer Eltwise3
I1005 13:00:40.211630  9519 net.cpp:84] Creating Layer Eltwise3
I1005 13:00:40.211633  9519 net.cpp:406] Eltwise3 <- Eltwise2_penlu5_0_split_1
I1005 13:00:40.211637  9519 net.cpp:406] Eltwise3 <- Convolution7
I1005 13:00:40.211639  9519 net.cpp:380] Eltwise3 -> Eltwise3
I1005 13:00:40.211655  9519 net.cpp:122] Setting up Eltwise3
I1005 13:00:40.211659  9519 net.cpp:129] Top shape: 100 16 32 32 (1638400)
I1005 13:00:40.211661  9519 net.cpp:137] Memory required for data: 237159600
I1005 13:00:40.211663  9519 layer_factory.hpp:77] Creating layer penlu7
I1005 13:00:40.211668  9519 net.cpp:84] Creating Layer penlu7
I1005 13:00:40.211670  9519 net.cpp:406] penlu7 <- Eltwise3
I1005 13:00:40.211674  9519 net.cpp:367] penlu7 -> Eltwise3 (in-place)
I1005 13:00:40.211792  9519 net.cpp:122] Setting up penlu7
I1005 13:00:40.211796  9519 net.cpp:129] Top shape: 100 16 32 32 (1638400)
I1005 13:00:40.211799  9519 net.cpp:137] Memory required for data: 243713200
I1005 13:00:40.211803  9519 layer_factory.hpp:77] Creating layer Eltwise3_penlu7_0_split
I1005 13:00:40.211807  9519 net.cpp:84] Creating Layer Eltwise3_penlu7_0_split
I1005 13:00:40.211809  9519 net.cpp:406] Eltwise3_penlu7_0_split <- Eltwise3
I1005 13:00:40.211812  9519 net.cpp:380] Eltwise3_penlu7_0_split -> Eltwise3_penlu7_0_split_0
I1005 13:00:40.211815  9519 net.cpp:380] Eltwise3_penlu7_0_split -> Eltwise3_penlu7_0_split_1
I1005 13:00:40.211839  9519 net.cpp:122] Setting up Eltwise3_penlu7_0_split
I1005 13:00:40.211843  9519 net.cpp:129] Top shape: 100 16 32 32 (1638400)
I1005 13:00:40.211845  9519 net.cpp:129] Top shape: 100 16 32 32 (1638400)
I1005 13:00:40.211848  9519 net.cpp:137] Memory required for data: 256820400
I1005 13:00:40.211849  9519 layer_factory.hpp:77] Creating layer Convolution8
I1005 13:00:40.211855  9519 net.cpp:84] Creating Layer Convolution8
I1005 13:00:40.211858  9519 net.cpp:406] Convolution8 <- Eltwise3_penlu7_0_split_0
I1005 13:00:40.211863  9519 net.cpp:380] Convolution8 -> Convolution8
I1005 13:00:40.212749  9519 net.cpp:122] Setting up Convolution8
I1005 13:00:40.212757  9519 net.cpp:129] Top shape: 100 32 16 16 (819200)
I1005 13:00:40.212759  9519 net.cpp:137] Memory required for data: 260097200
I1005 13:00:40.212764  9519 layer_factory.hpp:77] Creating layer BatchNorm8
I1005 13:00:40.212769  9519 net.cpp:84] Creating Layer BatchNorm8
I1005 13:00:40.212771  9519 net.cpp:406] BatchNorm8 <- Convolution8
I1005 13:00:40.212775  9519 net.cpp:367] BatchNorm8 -> Convolution8 (in-place)
I1005 13:00:40.212904  9519 net.cpp:122] Setting up BatchNorm8
I1005 13:00:40.212909  9519 net.cpp:129] Top shape: 100 32 16 16 (819200)
I1005 13:00:40.212911  9519 net.cpp:137] Memory required for data: 263374000
I1005 13:00:40.212915  9519 layer_factory.hpp:77] Creating layer Scale8
I1005 13:00:40.212919  9519 net.cpp:84] Creating Layer Scale8
I1005 13:00:40.214507  9519 net.cpp:406] Scale8 <- Convolution8
I1005 13:00:40.214511  9519 net.cpp:367] Scale8 -> Convolution8 (in-place)
I1005 13:00:40.214553  9519 layer_factory.hpp:77] Creating layer Scale8
I1005 13:00:40.214646  9519 net.cpp:122] Setting up Scale8
I1005 13:00:40.214653  9519 net.cpp:129] Top shape: 100 32 16 16 (819200)
I1005 13:00:40.214654  9519 net.cpp:137] Memory required for data: 266650800
I1005 13:00:40.214658  9519 layer_factory.hpp:77] Creating layer Convolution9
I1005 13:00:40.214665  9519 net.cpp:84] Creating Layer Convolution9
I1005 13:00:40.214668  9519 net.cpp:406] Convolution9 <- Eltwise3_penlu7_0_split_1
I1005 13:00:40.214673  9519 net.cpp:380] Convolution9 -> Convolution9
I1005 13:00:40.215732  9519 net.cpp:122] Setting up Convolution9
I1005 13:00:40.215741  9519 net.cpp:129] Top shape: 100 32 16 16 (819200)
I1005 13:00:40.215744  9519 net.cpp:137] Memory required for data: 269927600
I1005 13:00:40.215749  9519 layer_factory.hpp:77] Creating layer BatchNorm9
I1005 13:00:40.215754  9519 net.cpp:84] Creating Layer BatchNorm9
I1005 13:00:40.215766  9519 net.cpp:406] BatchNorm9 <- Convolution9
I1005 13:00:40.215770  9519 net.cpp:367] BatchNorm9 -> Convolution9 (in-place)
I1005 13:00:40.215935  9519 net.cpp:122] Setting up BatchNorm9
I1005 13:00:40.215945  9519 net.cpp:129] Top shape: 100 32 16 16 (819200)
I1005 13:00:40.215950  9519 net.cpp:137] Memory required for data: 273204400
I1005 13:00:40.215957  9519 layer_factory.hpp:77] Creating layer Scale9
I1005 13:00:40.215966  9519 net.cpp:84] Creating Layer Scale9
I1005 13:00:40.215971  9519 net.cpp:406] Scale9 <- Convolution9
I1005 13:00:40.215977  9519 net.cpp:367] Scale9 -> Convolution9 (in-place)
I1005 13:00:40.216018  9519 layer_factory.hpp:77] Creating layer Scale9
I1005 13:00:40.216150  9519 net.cpp:122] Setting up Scale9
I1005 13:00:40.216158  9519 net.cpp:129] Top shape: 100 32 16 16 (819200)
I1005 13:00:40.216161  9519 net.cpp:137] Memory required for data: 276481200
I1005 13:00:40.216166  9519 layer_factory.hpp:77] Creating layer penlu8
I1005 13:00:40.216172  9519 net.cpp:84] Creating Layer penlu8
I1005 13:00:40.216184  9519 net.cpp:406] penlu8 <- Convolution9
I1005 13:00:40.216189  9519 net.cpp:367] penlu8 -> Convolution9 (in-place)
I1005 13:00:40.216353  9519 net.cpp:122] Setting up penlu8
I1005 13:00:40.216363  9519 net.cpp:129] Top shape: 100 32 16 16 (819200)
I1005 13:00:40.216368  9519 net.cpp:137] Memory required for data: 279758000
I1005 13:00:40.216377  9519 layer_factory.hpp:77] Creating layer Convolution10
I1005 13:00:40.216387  9519 net.cpp:84] Creating Layer Convolution10
I1005 13:00:40.216392  9519 net.cpp:406] Convolution10 <- Convolution9
I1005 13:00:40.216397  9519 net.cpp:380] Convolution10 -> Convolution10
I1005 13:00:40.217546  9519 net.cpp:122] Setting up Convolution10
I1005 13:00:40.217556  9519 net.cpp:129] Top shape: 100 32 16 16 (819200)
I1005 13:00:40.217558  9519 net.cpp:137] Memory required for data: 283034800
I1005 13:00:40.217563  9519 layer_factory.hpp:77] Creating layer BatchNorm10
I1005 13:00:40.217568  9519 net.cpp:84] Creating Layer BatchNorm10
I1005 13:00:40.217571  9519 net.cpp:406] BatchNorm10 <- Convolution10
I1005 13:00:40.217576  9519 net.cpp:367] BatchNorm10 -> Convolution10 (in-place)
I1005 13:00:40.217711  9519 net.cpp:122] Setting up BatchNorm10
I1005 13:00:40.217716  9519 net.cpp:129] Top shape: 100 32 16 16 (819200)
I1005 13:00:40.217718  9519 net.cpp:137] Memory required for data: 286311600
I1005 13:00:40.217723  9519 layer_factory.hpp:77] Creating layer Scale10
I1005 13:00:40.217727  9519 net.cpp:84] Creating Layer Scale10
I1005 13:00:40.217730  9519 net.cpp:406] Scale10 <- Convolution10
I1005 13:00:40.217733  9519 net.cpp:367] Scale10 -> Convolution10 (in-place)
I1005 13:00:40.217761  9519 layer_factory.hpp:77] Creating layer Scale10
I1005 13:00:40.217849  9519 net.cpp:122] Setting up Scale10
I1005 13:00:40.217854  9519 net.cpp:129] Top shape: 100 32 16 16 (819200)
I1005 13:00:40.217855  9519 net.cpp:137] Memory required for data: 289588400
I1005 13:00:40.217859  9519 layer_factory.hpp:77] Creating layer Eltwise4
I1005 13:00:40.217864  9519 net.cpp:84] Creating Layer Eltwise4
I1005 13:00:40.217865  9519 net.cpp:406] Eltwise4 <- Convolution8
I1005 13:00:40.217869  9519 net.cpp:406] Eltwise4 <- Convolution10
I1005 13:00:40.217880  9519 net.cpp:380] Eltwise4 -> Eltwise4
I1005 13:00:40.217895  9519 net.cpp:122] Setting up Eltwise4
I1005 13:00:40.217907  9519 net.cpp:129] Top shape: 100 32 16 16 (819200)
I1005 13:00:40.217909  9519 net.cpp:137] Memory required for data: 292865200
I1005 13:00:40.217911  9519 layer_factory.hpp:77] Creating layer penlu9
I1005 13:00:40.217917  9519 net.cpp:84] Creating Layer penlu9
I1005 13:00:40.217919  9519 net.cpp:406] penlu9 <- Eltwise4
I1005 13:00:40.217923  9519 net.cpp:367] penlu9 -> Eltwise4 (in-place)
I1005 13:00:40.218040  9519 net.cpp:122] Setting up penlu9
I1005 13:00:40.218045  9519 net.cpp:129] Top shape: 100 32 16 16 (819200)
I1005 13:00:40.218047  9519 net.cpp:137] Memory required for data: 296142000
I1005 13:00:40.218051  9519 layer_factory.hpp:77] Creating layer Eltwise4_penlu9_0_split
I1005 13:00:40.218055  9519 net.cpp:84] Creating Layer Eltwise4_penlu9_0_split
I1005 13:00:40.218057  9519 net.cpp:406] Eltwise4_penlu9_0_split <- Eltwise4
I1005 13:00:40.218060  9519 net.cpp:380] Eltwise4_penlu9_0_split -> Eltwise4_penlu9_0_split_0
I1005 13:00:40.218065  9519 net.cpp:380] Eltwise4_penlu9_0_split -> Eltwise4_penlu9_0_split_1
I1005 13:00:40.218088  9519 net.cpp:122] Setting up Eltwise4_penlu9_0_split
I1005 13:00:40.218092  9519 net.cpp:129] Top shape: 100 32 16 16 (819200)
I1005 13:00:40.218096  9519 net.cpp:129] Top shape: 100 32 16 16 (819200)
I1005 13:00:40.218097  9519 net.cpp:137] Memory required for data: 302695600
I1005 13:00:40.218099  9519 layer_factory.hpp:77] Creating layer Convolution11
I1005 13:00:40.218106  9519 net.cpp:84] Creating Layer Convolution11
I1005 13:00:40.218108  9519 net.cpp:406] Convolution11 <- Eltwise4_penlu9_0_split_0
I1005 13:00:40.218112  9519 net.cpp:380] Convolution11 -> Convolution11
I1005 13:00:40.219209  9519 net.cpp:122] Setting up Convolution11
I1005 13:00:40.219218  9519 net.cpp:129] Top shape: 100 32 16 16 (819200)
I1005 13:00:40.219220  9519 net.cpp:137] Memory required for data: 305972400
I1005 13:00:40.219224  9519 layer_factory.hpp:77] Creating layer BatchNorm11
I1005 13:00:40.219229  9519 net.cpp:84] Creating Layer BatchNorm11
I1005 13:00:40.219233  9519 net.cpp:406] BatchNorm11 <- Convolution11
I1005 13:00:40.219236  9519 net.cpp:367] BatchNorm11 -> Convolution11 (in-place)
I1005 13:00:40.219368  9519 net.cpp:122] Setting up BatchNorm11
I1005 13:00:40.219372  9519 net.cpp:129] Top shape: 100 32 16 16 (819200)
I1005 13:00:40.219375  9519 net.cpp:137] Memory required for data: 309249200
I1005 13:00:40.219379  9519 layer_factory.hpp:77] Creating layer Scale11
I1005 13:00:40.219383  9519 net.cpp:84] Creating Layer Scale11
I1005 13:00:40.219385  9519 net.cpp:406] Scale11 <- Convolution11
I1005 13:00:40.219389  9519 net.cpp:367] Scale11 -> Convolution11 (in-place)
I1005 13:00:40.219415  9519 layer_factory.hpp:77] Creating layer Scale11
I1005 13:00:40.219491  9519 net.cpp:122] Setting up Scale11
I1005 13:00:40.219494  9519 net.cpp:129] Top shape: 100 32 16 16 (819200)
I1005 13:00:40.219497  9519 net.cpp:137] Memory required for data: 312526000
I1005 13:00:40.219501  9519 layer_factory.hpp:77] Creating layer penlu10
I1005 13:00:40.219506  9519 net.cpp:84] Creating Layer penlu10
I1005 13:00:40.219508  9519 net.cpp:406] penlu10 <- Convolution11
I1005 13:00:40.219511  9519 net.cpp:367] penlu10 -> Convolution11 (in-place)
I1005 13:00:40.219619  9519 net.cpp:122] Setting up penlu10
I1005 13:00:40.219624  9519 net.cpp:129] Top shape: 100 32 16 16 (819200)
I1005 13:00:40.219626  9519 net.cpp:137] Memory required for data: 315802800
I1005 13:00:40.219630  9519 layer_factory.hpp:77] Creating layer Convolution12
I1005 13:00:40.219637  9519 net.cpp:84] Creating Layer Convolution12
I1005 13:00:40.219640  9519 net.cpp:406] Convolution12 <- Convolution11
I1005 13:00:40.219645  9519 net.cpp:380] Convolution12 -> Convolution12
I1005 13:00:40.220365  9519 net.cpp:122] Setting up Convolution12
I1005 13:00:40.220371  9519 net.cpp:129] Top shape: 100 32 16 16 (819200)
I1005 13:00:40.220374  9519 net.cpp:137] Memory required for data: 319079600
I1005 13:00:40.220384  9519 layer_factory.hpp:77] Creating layer BatchNorm12
I1005 13:00:40.220388  9519 net.cpp:84] Creating Layer BatchNorm12
I1005 13:00:40.220391  9519 net.cpp:406] BatchNorm12 <- Convolution12
I1005 13:00:40.220396  9519 net.cpp:367] BatchNorm12 -> Convolution12 (in-place)
I1005 13:00:40.220530  9519 net.cpp:122] Setting up BatchNorm12
I1005 13:00:40.220533  9519 net.cpp:129] Top shape: 100 32 16 16 (819200)
I1005 13:00:40.220535  9519 net.cpp:137] Memory required for data: 322356400
I1005 13:00:40.220541  9519 layer_factory.hpp:77] Creating layer Scale12
I1005 13:00:40.220544  9519 net.cpp:84] Creating Layer Scale12
I1005 13:00:40.220546  9519 net.cpp:406] Scale12 <- Convolution12
I1005 13:00:40.220549  9519 net.cpp:367] Scale12 -> Convolution12 (in-place)
I1005 13:00:40.220577  9519 layer_factory.hpp:77] Creating layer Scale12
I1005 13:00:40.220651  9519 net.cpp:122] Setting up Scale12
I1005 13:00:40.220655  9519 net.cpp:129] Top shape: 100 32 16 16 (819200)
I1005 13:00:40.220657  9519 net.cpp:137] Memory required for data: 325633200
I1005 13:00:40.220661  9519 layer_factory.hpp:77] Creating layer Eltwise5
I1005 13:00:40.220665  9519 net.cpp:84] Creating Layer Eltwise5
I1005 13:00:40.220669  9519 net.cpp:406] Eltwise5 <- Eltwise4_penlu9_0_split_1
I1005 13:00:40.220671  9519 net.cpp:406] Eltwise5 <- Convolution12
I1005 13:00:40.220674  9519 net.cpp:380] Eltwise5 -> Eltwise5
I1005 13:00:40.220686  9519 net.cpp:122] Setting up Eltwise5
I1005 13:00:40.220690  9519 net.cpp:129] Top shape: 100 32 16 16 (819200)
I1005 13:00:40.220691  9519 net.cpp:137] Memory required for data: 328910000
I1005 13:00:40.220695  9519 layer_factory.hpp:77] Creating layer penlu11
I1005 13:00:40.220700  9519 net.cpp:84] Creating Layer penlu11
I1005 13:00:40.220702  9519 net.cpp:406] penlu11 <- Eltwise5
I1005 13:00:40.220705  9519 net.cpp:367] penlu11 -> Eltwise5 (in-place)
I1005 13:00:40.220818  9519 net.cpp:122] Setting up penlu11
I1005 13:00:40.220821  9519 net.cpp:129] Top shape: 100 32 16 16 (819200)
I1005 13:00:40.220824  9519 net.cpp:137] Memory required for data: 332186800
I1005 13:00:40.220827  9519 layer_factory.hpp:77] Creating layer Eltwise5_penlu11_0_split
I1005 13:00:40.220831  9519 net.cpp:84] Creating Layer Eltwise5_penlu11_0_split
I1005 13:00:40.220834  9519 net.cpp:406] Eltwise5_penlu11_0_split <- Eltwise5
I1005 13:00:40.220837  9519 net.cpp:380] Eltwise5_penlu11_0_split -> Eltwise5_penlu11_0_split_0
I1005 13:00:40.220841  9519 net.cpp:380] Eltwise5_penlu11_0_split -> Eltwise5_penlu11_0_split_1
I1005 13:00:40.220866  9519 net.cpp:122] Setting up Eltwise5_penlu11_0_split
I1005 13:00:40.220870  9519 net.cpp:129] Top shape: 100 32 16 16 (819200)
I1005 13:00:40.220873  9519 net.cpp:129] Top shape: 100 32 16 16 (819200)
I1005 13:00:40.220876  9519 net.cpp:137] Memory required for data: 338740400
I1005 13:00:40.220878  9519 layer_factory.hpp:77] Creating layer Convolution13
I1005 13:00:40.220885  9519 net.cpp:84] Creating Layer Convolution13
I1005 13:00:40.220886  9519 net.cpp:406] Convolution13 <- Eltwise5_penlu11_0_split_0
I1005 13:00:40.220890  9519 net.cpp:380] Convolution13 -> Convolution13
I1005 13:00:40.221937  9519 net.cpp:122] Setting up Convolution13
I1005 13:00:40.221946  9519 net.cpp:129] Top shape: 100 32 16 16 (819200)
I1005 13:00:40.221948  9519 net.cpp:137] Memory required for data: 342017200
I1005 13:00:40.221952  9519 layer_factory.hpp:77] Creating layer BatchNorm13
I1005 13:00:40.221957  9519 net.cpp:84] Creating Layer BatchNorm13
I1005 13:00:40.221961  9519 net.cpp:406] BatchNorm13 <- Convolution13
I1005 13:00:40.221964  9519 net.cpp:367] BatchNorm13 -> Convolution13 (in-place)
I1005 13:00:40.222097  9519 net.cpp:122] Setting up BatchNorm13
I1005 13:00:40.222101  9519 net.cpp:129] Top shape: 100 32 16 16 (819200)
I1005 13:00:40.222103  9519 net.cpp:137] Memory required for data: 345294000
I1005 13:00:40.222108  9519 layer_factory.hpp:77] Creating layer Scale13
I1005 13:00:40.222113  9519 net.cpp:84] Creating Layer Scale13
I1005 13:00:40.222115  9519 net.cpp:406] Scale13 <- Convolution13
I1005 13:00:40.222126  9519 net.cpp:367] Scale13 -> Convolution13 (in-place)
I1005 13:00:40.222153  9519 layer_factory.hpp:77] Creating layer Scale13
I1005 13:00:40.222231  9519 net.cpp:122] Setting up Scale13
I1005 13:00:40.222235  9519 net.cpp:129] Top shape: 100 32 16 16 (819200)
I1005 13:00:40.222239  9519 net.cpp:137] Memory required for data: 348570800
I1005 13:00:40.222242  9519 layer_factory.hpp:77] Creating layer penlu12
I1005 13:00:40.222247  9519 net.cpp:84] Creating Layer penlu12
I1005 13:00:40.222250  9519 net.cpp:406] penlu12 <- Convolution13
I1005 13:00:40.222254  9519 net.cpp:367] penlu12 -> Convolution13 (in-place)
I1005 13:00:40.222362  9519 net.cpp:122] Setting up penlu12
I1005 13:00:40.222368  9519 net.cpp:129] Top shape: 100 32 16 16 (819200)
I1005 13:00:40.222369  9519 net.cpp:137] Memory required for data: 351847600
I1005 13:00:40.222373  9519 layer_factory.hpp:77] Creating layer Convolution14
I1005 13:00:40.222383  9519 net.cpp:84] Creating Layer Convolution14
I1005 13:00:40.222385  9519 net.cpp:406] Convolution14 <- Convolution13
I1005 13:00:40.222389  9519 net.cpp:380] Convolution14 -> Convolution14
I1005 13:00:40.223449  9519 net.cpp:122] Setting up Convolution14
I1005 13:00:40.223457  9519 net.cpp:129] Top shape: 100 32 16 16 (819200)
I1005 13:00:40.223460  9519 net.cpp:137] Memory required for data: 355124400
I1005 13:00:40.223474  9519 layer_factory.hpp:77] Creating layer BatchNorm14
I1005 13:00:40.223479  9519 net.cpp:84] Creating Layer BatchNorm14
I1005 13:00:40.223482  9519 net.cpp:406] BatchNorm14 <- Convolution14
I1005 13:00:40.223486  9519 net.cpp:367] BatchNorm14 -> Convolution14 (in-place)
I1005 13:00:40.223619  9519 net.cpp:122] Setting up BatchNorm14
I1005 13:00:40.223623  9519 net.cpp:129] Top shape: 100 32 16 16 (819200)
I1005 13:00:40.223625  9519 net.cpp:137] Memory required for data: 358401200
I1005 13:00:40.223633  9519 layer_factory.hpp:77] Creating layer Scale14
I1005 13:00:40.223636  9519 net.cpp:84] Creating Layer Scale14
I1005 13:00:40.223639  9519 net.cpp:406] Scale14 <- Convolution14
I1005 13:00:40.223641  9519 net.cpp:367] Scale14 -> Convolution14 (in-place)
I1005 13:00:40.223668  9519 layer_factory.hpp:77] Creating layer Scale14
I1005 13:00:40.223744  9519 net.cpp:122] Setting up Scale14
I1005 13:00:40.223749  9519 net.cpp:129] Top shape: 100 32 16 16 (819200)
I1005 13:00:40.223752  9519 net.cpp:137] Memory required for data: 361678000
I1005 13:00:40.223754  9519 layer_factory.hpp:77] Creating layer Eltwise6
I1005 13:00:40.223758  9519 net.cpp:84] Creating Layer Eltwise6
I1005 13:00:40.223762  9519 net.cpp:406] Eltwise6 <- Eltwise5_penlu11_0_split_1
I1005 13:00:40.223764  9519 net.cpp:406] Eltwise6 <- Convolution14
I1005 13:00:40.223767  9519 net.cpp:380] Eltwise6 -> Eltwise6
I1005 13:00:40.223779  9519 net.cpp:122] Setting up Eltwise6
I1005 13:00:40.223783  9519 net.cpp:129] Top shape: 100 32 16 16 (819200)
I1005 13:00:40.223785  9519 net.cpp:137] Memory required for data: 364954800
I1005 13:00:40.223788  9519 layer_factory.hpp:77] Creating layer penlu13
I1005 13:00:40.223793  9519 net.cpp:84] Creating Layer penlu13
I1005 13:00:40.223795  9519 net.cpp:406] penlu13 <- Eltwise6
I1005 13:00:40.223798  9519 net.cpp:367] penlu13 -> Eltwise6 (in-place)
I1005 13:00:40.223912  9519 net.cpp:122] Setting up penlu13
I1005 13:00:40.223917  9519 net.cpp:129] Top shape: 100 32 16 16 (819200)
I1005 13:00:40.223918  9519 net.cpp:137] Memory required for data: 368231600
I1005 13:00:40.223922  9519 layer_factory.hpp:77] Creating layer Eltwise6_penlu13_0_split
I1005 13:00:40.223927  9519 net.cpp:84] Creating Layer Eltwise6_penlu13_0_split
I1005 13:00:40.223928  9519 net.cpp:406] Eltwise6_penlu13_0_split <- Eltwise6
I1005 13:00:40.223932  9519 net.cpp:380] Eltwise6_penlu13_0_split -> Eltwise6_penlu13_0_split_0
I1005 13:00:40.245002  9519 net.cpp:380] Eltwise6_penlu13_0_split -> Eltwise6_penlu13_0_split_1
I1005 13:00:40.245043  9519 net.cpp:122] Setting up Eltwise6_penlu13_0_split
I1005 13:00:40.245048  9519 net.cpp:129] Top shape: 100 32 16 16 (819200)
I1005 13:00:40.245059  9519 net.cpp:129] Top shape: 100 32 16 16 (819200)
I1005 13:00:40.245062  9519 net.cpp:137] Memory required for data: 374785200
I1005 13:00:40.245065  9519 layer_factory.hpp:77] Creating layer Convolution15
I1005 13:00:40.245075  9519 net.cpp:84] Creating Layer Convolution15
I1005 13:00:40.245079  9519 net.cpp:406] Convolution15 <- Eltwise6_penlu13_0_split_0
I1005 13:00:40.245084  9519 net.cpp:380] Convolution15 -> Convolution15
I1005 13:00:40.246119  9519 net.cpp:122] Setting up Convolution15
I1005 13:00:40.246129  9519 net.cpp:129] Top shape: 100 64 8 8 (409600)
I1005 13:00:40.246130  9519 net.cpp:137] Memory required for data: 376423600
I1005 13:00:40.246135  9519 layer_factory.hpp:77] Creating layer BatchNorm15
I1005 13:00:40.246141  9519 net.cpp:84] Creating Layer BatchNorm15
I1005 13:00:40.246145  9519 net.cpp:406] BatchNorm15 <- Convolution15
I1005 13:00:40.246147  9519 net.cpp:367] BatchNorm15 -> Convolution15 (in-place)
I1005 13:00:40.246312  9519 net.cpp:122] Setting up BatchNorm15
I1005 13:00:40.246317  9519 net.cpp:129] Top shape: 100 64 8 8 (409600)
I1005 13:00:40.246320  9519 net.cpp:137] Memory required for data: 378062000
I1005 13:00:40.246325  9519 layer_factory.hpp:77] Creating layer Scale15
I1005 13:00:40.246328  9519 net.cpp:84] Creating Layer Scale15
I1005 13:00:40.246331  9519 net.cpp:406] Scale15 <- Convolution15
I1005 13:00:40.246335  9519 net.cpp:367] Scale15 -> Convolution15 (in-place)
I1005 13:00:40.246367  9519 layer_factory.hpp:77] Creating layer Scale15
I1005 13:00:40.246497  9519 net.cpp:122] Setting up Scale15
I1005 13:00:40.246508  9519 net.cpp:129] Top shape: 100 64 8 8 (409600)
I1005 13:00:40.246512  9519 net.cpp:137] Memory required for data: 379700400
I1005 13:00:40.246529  9519 layer_factory.hpp:77] Creating layer Convolution16
I1005 13:00:40.246543  9519 net.cpp:84] Creating Layer Convolution16
I1005 13:00:40.246549  9519 net.cpp:406] Convolution16 <- Eltwise6_penlu13_0_split_1
I1005 13:00:40.246558  9519 net.cpp:380] Convolution16 -> Convolution16
I1005 13:00:40.247989  9519 net.cpp:122] Setting up Convolution16
I1005 13:00:40.247999  9519 net.cpp:129] Top shape: 100 64 8 8 (409600)
I1005 13:00:40.248003  9519 net.cpp:137] Memory required for data: 381338800
I1005 13:00:40.248008  9519 layer_factory.hpp:77] Creating layer BatchNorm16
I1005 13:00:40.248013  9519 net.cpp:84] Creating Layer BatchNorm16
I1005 13:00:40.248014  9519 net.cpp:406] BatchNorm16 <- Convolution16
I1005 13:00:40.248019  9519 net.cpp:367] BatchNorm16 -> Convolution16 (in-place)
I1005 13:00:40.248162  9519 net.cpp:122] Setting up BatchNorm16
I1005 13:00:40.248167  9519 net.cpp:129] Top shape: 100 64 8 8 (409600)
I1005 13:00:40.248169  9519 net.cpp:137] Memory required for data: 382977200
I1005 13:00:40.248174  9519 layer_factory.hpp:77] Creating layer Scale16
I1005 13:00:40.248178  9519 net.cpp:84] Creating Layer Scale16
I1005 13:00:40.248181  9519 net.cpp:406] Scale16 <- Convolution16
I1005 13:00:40.248185  9519 net.cpp:367] Scale16 -> Convolution16 (in-place)
I1005 13:00:40.248212  9519 layer_factory.hpp:77] Creating layer Scale16
I1005 13:00:40.248294  9519 net.cpp:122] Setting up Scale16
I1005 13:00:40.248299  9519 net.cpp:129] Top shape: 100 64 8 8 (409600)
I1005 13:00:40.248301  9519 net.cpp:137] Memory required for data: 384615600
I1005 13:00:40.248306  9519 layer_factory.hpp:77] Creating layer penlu14
I1005 13:00:40.248311  9519 net.cpp:84] Creating Layer penlu14
I1005 13:00:40.248313  9519 net.cpp:406] penlu14 <- Convolution16
I1005 13:00:40.248317  9519 net.cpp:367] penlu14 -> Convolution16 (in-place)
I1005 13:00:40.248441  9519 net.cpp:122] Setting up penlu14
I1005 13:00:40.248446  9519 net.cpp:129] Top shape: 100 64 8 8 (409600)
I1005 13:00:40.248448  9519 net.cpp:137] Memory required for data: 386254000
I1005 13:00:40.248452  9519 layer_factory.hpp:77] Creating layer Convolution17
I1005 13:00:40.248461  9519 net.cpp:84] Creating Layer Convolution17
I1005 13:00:40.248463  9519 net.cpp:406] Convolution17 <- Convolution16
I1005 13:00:40.248467  9519 net.cpp:380] Convolution17 -> Convolution17
I1005 13:00:40.250342  9519 net.cpp:122] Setting up Convolution17
I1005 13:00:40.250355  9519 net.cpp:129] Top shape: 100 64 8 8 (409600)
I1005 13:00:40.250360  9519 net.cpp:137] Memory required for data: 387892400
I1005 13:00:40.250367  9519 layer_factory.hpp:77] Creating layer BatchNorm17
I1005 13:00:40.250376  9519 net.cpp:84] Creating Layer BatchNorm17
I1005 13:00:40.250381  9519 net.cpp:406] BatchNorm17 <- Convolution17
I1005 13:00:40.250387  9519 net.cpp:367] BatchNorm17 -> Convolution17 (in-place)
I1005 13:00:40.250572  9519 net.cpp:122] Setting up BatchNorm17
I1005 13:00:40.250579  9519 net.cpp:129] Top shape: 100 64 8 8 (409600)
I1005 13:00:40.250582  9519 net.cpp:137] Memory required for data: 389530800
I1005 13:00:40.250587  9519 layer_factory.hpp:77] Creating layer Scale17
I1005 13:00:40.250591  9519 net.cpp:84] Creating Layer Scale17
I1005 13:00:40.250594  9519 net.cpp:406] Scale17 <- Convolution17
I1005 13:00:40.250597  9519 net.cpp:367] Scale17 -> Convolution17 (in-place)
I1005 13:00:40.250628  9519 layer_factory.hpp:77] Creating layer Scale17
I1005 13:00:40.250711  9519 net.cpp:122] Setting up Scale17
I1005 13:00:40.250715  9519 net.cpp:129] Top shape: 100 64 8 8 (409600)
I1005 13:00:40.250717  9519 net.cpp:137] Memory required for data: 391169200
I1005 13:00:40.250721  9519 layer_factory.hpp:77] Creating layer Eltwise7
I1005 13:00:40.250726  9519 net.cpp:84] Creating Layer Eltwise7
I1005 13:00:40.250728  9519 net.cpp:406] Eltwise7 <- Convolution15
I1005 13:00:40.250731  9519 net.cpp:406] Eltwise7 <- Convolution17
I1005 13:00:40.250735  9519 net.cpp:380] Eltwise7 -> Eltwise7
I1005 13:00:40.250752  9519 net.cpp:122] Setting up Eltwise7
I1005 13:00:40.250756  9519 net.cpp:129] Top shape: 100 64 8 8 (409600)
I1005 13:00:40.250758  9519 net.cpp:137] Memory required for data: 392807600
I1005 13:00:40.250761  9519 layer_factory.hpp:77] Creating layer penlu15
I1005 13:00:40.250766  9519 net.cpp:84] Creating Layer penlu15
I1005 13:00:40.250768  9519 net.cpp:406] penlu15 <- Eltwise7
I1005 13:00:40.250771  9519 net.cpp:367] penlu15 -> Eltwise7 (in-place)
I1005 13:00:40.250886  9519 net.cpp:122] Setting up penlu15
I1005 13:00:40.250890  9519 net.cpp:129] Top shape: 100 64 8 8 (409600)
I1005 13:00:40.250892  9519 net.cpp:137] Memory required for data: 394446000
I1005 13:00:40.250897  9519 layer_factory.hpp:77] Creating layer Eltwise7_penlu15_0_split
I1005 13:00:40.250901  9519 net.cpp:84] Creating Layer Eltwise7_penlu15_0_split
I1005 13:00:40.250903  9519 net.cpp:406] Eltwise7_penlu15_0_split <- Eltwise7
I1005 13:00:40.250906  9519 net.cpp:380] Eltwise7_penlu15_0_split -> Eltwise7_penlu15_0_split_0
I1005 13:00:40.250910  9519 net.cpp:380] Eltwise7_penlu15_0_split -> Eltwise7_penlu15_0_split_1
I1005 13:00:40.250938  9519 net.cpp:122] Setting up Eltwise7_penlu15_0_split
I1005 13:00:40.250942  9519 net.cpp:129] Top shape: 100 64 8 8 (409600)
I1005 13:00:40.250946  9519 net.cpp:129] Top shape: 100 64 8 8 (409600)
I1005 13:00:40.250947  9519 net.cpp:137] Memory required for data: 397722800
I1005 13:00:40.250949  9519 layer_factory.hpp:77] Creating layer Convolution18
I1005 13:00:40.250955  9519 net.cpp:84] Creating Layer Convolution18
I1005 13:00:40.250958  9519 net.cpp:406] Convolution18 <- Eltwise7_penlu15_0_split_0
I1005 13:00:40.250962  9519 net.cpp:380] Convolution18 -> Convolution18
I1005 13:00:40.252740  9519 net.cpp:122] Setting up Convolution18
I1005 13:00:40.252749  9519 net.cpp:129] Top shape: 100 64 8 8 (409600)
I1005 13:00:40.252753  9519 net.cpp:137] Memory required for data: 399361200
I1005 13:00:40.252756  9519 layer_factory.hpp:77] Creating layer BatchNorm18
I1005 13:00:40.252763  9519 net.cpp:84] Creating Layer BatchNorm18
I1005 13:00:40.252765  9519 net.cpp:406] BatchNorm18 <- Convolution18
I1005 13:00:40.252768  9519 net.cpp:367] BatchNorm18 -> Convolution18 (in-place)
I1005 13:00:40.252913  9519 net.cpp:122] Setting up BatchNorm18
I1005 13:00:40.252918  9519 net.cpp:129] Top shape: 100 64 8 8 (409600)
I1005 13:00:40.252920  9519 net.cpp:137] Memory required for data: 400999600
I1005 13:00:40.252925  9519 layer_factory.hpp:77] Creating layer Scale18
I1005 13:00:40.252936  9519 net.cpp:84] Creating Layer Scale18
I1005 13:00:40.252939  9519 net.cpp:406] Scale18 <- Convolution18
I1005 13:00:40.252943  9519 net.cpp:367] Scale18 -> Convolution18 (in-place)
I1005 13:00:40.252974  9519 layer_factory.hpp:77] Creating layer Scale18
I1005 13:00:40.253056  9519 net.cpp:122] Setting up Scale18
I1005 13:00:40.253059  9519 net.cpp:129] Top shape: 100 64 8 8 (409600)
I1005 13:00:40.253062  9519 net.cpp:137] Memory required for data: 402638000
I1005 13:00:40.253065  9519 layer_factory.hpp:77] Creating layer penlu16
I1005 13:00:40.253070  9519 net.cpp:84] Creating Layer penlu16
I1005 13:00:40.253073  9519 net.cpp:406] penlu16 <- Convolution18
I1005 13:00:40.253077  9519 net.cpp:367] penlu16 -> Convolution18 (in-place)
I1005 13:00:40.253192  9519 net.cpp:122] Setting up penlu16
I1005 13:00:40.253196  9519 net.cpp:129] Top shape: 100 64 8 8 (409600)
I1005 13:00:40.253198  9519 net.cpp:137] Memory required for data: 404276400
I1005 13:00:40.253203  9519 layer_factory.hpp:77] Creating layer Convolution19
I1005 13:00:40.253209  9519 net.cpp:84] Creating Layer Convolution19
I1005 13:00:40.253211  9519 net.cpp:406] Convolution19 <- Convolution18
I1005 13:00:40.253216  9519 net.cpp:380] Convolution19 -> Convolution19
I1005 13:00:40.254956  9519 net.cpp:122] Setting up Convolution19
I1005 13:00:40.254964  9519 net.cpp:129] Top shape: 100 64 8 8 (409600)
I1005 13:00:40.254967  9519 net.cpp:137] Memory required for data: 405914800
I1005 13:00:40.254971  9519 layer_factory.hpp:77] Creating layer BatchNorm19
I1005 13:00:40.254977  9519 net.cpp:84] Creating Layer BatchNorm19
I1005 13:00:40.254981  9519 net.cpp:406] BatchNorm19 <- Convolution19
I1005 13:00:40.254983  9519 net.cpp:367] BatchNorm19 -> Convolution19 (in-place)
I1005 13:00:40.255129  9519 net.cpp:122] Setting up BatchNorm19
I1005 13:00:40.255133  9519 net.cpp:129] Top shape: 100 64 8 8 (409600)
I1005 13:00:40.255136  9519 net.cpp:137] Memory required for data: 407553200
I1005 13:00:40.255141  9519 layer_factory.hpp:77] Creating layer Scale19
I1005 13:00:40.255144  9519 net.cpp:84] Creating Layer Scale19
I1005 13:00:40.255147  9519 net.cpp:406] Scale19 <- Convolution19
I1005 13:00:40.255151  9519 net.cpp:367] Scale19 -> Convolution19 (in-place)
I1005 13:00:40.255179  9519 layer_factory.hpp:77] Creating layer Scale19
I1005 13:00:40.255261  9519 net.cpp:122] Setting up Scale19
I1005 13:00:40.255266  9519 net.cpp:129] Top shape: 100 64 8 8 (409600)
I1005 13:00:40.255269  9519 net.cpp:137] Memory required for data: 409191600
I1005 13:00:40.255272  9519 layer_factory.hpp:77] Creating layer Eltwise8
I1005 13:00:40.255276  9519 net.cpp:84] Creating Layer Eltwise8
I1005 13:00:40.255280  9519 net.cpp:406] Eltwise8 <- Eltwise7_penlu15_0_split_1
I1005 13:00:40.255282  9519 net.cpp:406] Eltwise8 <- Convolution19
I1005 13:00:40.255285  9519 net.cpp:380] Eltwise8 -> Eltwise8
I1005 13:00:40.255303  9519 net.cpp:122] Setting up Eltwise8
I1005 13:00:40.255307  9519 net.cpp:129] Top shape: 100 64 8 8 (409600)
I1005 13:00:40.255309  9519 net.cpp:137] Memory required for data: 410830000
I1005 13:00:40.255311  9519 layer_factory.hpp:77] Creating layer penlu17
I1005 13:00:40.255317  9519 net.cpp:84] Creating Layer penlu17
I1005 13:00:40.255319  9519 net.cpp:406] penlu17 <- Eltwise8
I1005 13:00:40.255322  9519 net.cpp:367] penlu17 -> Eltwise8 (in-place)
I1005 13:00:40.255439  9519 net.cpp:122] Setting up penlu17
I1005 13:00:40.255442  9519 net.cpp:129] Top shape: 100 64 8 8 (409600)
I1005 13:00:40.255445  9519 net.cpp:137] Memory required for data: 412468400
I1005 13:00:40.255450  9519 layer_factory.hpp:77] Creating layer Eltwise8_penlu17_0_split
I1005 13:00:40.255452  9519 net.cpp:84] Creating Layer Eltwise8_penlu17_0_split
I1005 13:00:40.255455  9519 net.cpp:406] Eltwise8_penlu17_0_split <- Eltwise8
I1005 13:00:40.255460  9519 net.cpp:380] Eltwise8_penlu17_0_split -> Eltwise8_penlu17_0_split_0
I1005 13:00:40.255463  9519 net.cpp:380] Eltwise8_penlu17_0_split -> Eltwise8_penlu17_0_split_1
I1005 13:00:40.255486  9519 net.cpp:122] Setting up Eltwise8_penlu17_0_split
I1005 13:00:40.255497  9519 net.cpp:129] Top shape: 100 64 8 8 (409600)
I1005 13:00:40.255501  9519 net.cpp:129] Top shape: 100 64 8 8 (409600)
I1005 13:00:40.255502  9519 net.cpp:137] Memory required for data: 415745200
I1005 13:00:40.255504  9519 layer_factory.hpp:77] Creating layer Convolution20
I1005 13:00:40.255511  9519 net.cpp:84] Creating Layer Convolution20
I1005 13:00:40.255513  9519 net.cpp:406] Convolution20 <- Eltwise8_penlu17_0_split_0
I1005 13:00:40.255517  9519 net.cpp:380] Convolution20 -> Convolution20
I1005 13:00:40.257525  9519 net.cpp:122] Setting up Convolution20
I1005 13:00:40.257535  9519 net.cpp:129] Top shape: 100 64 8 8 (409600)
I1005 13:00:40.257539  9519 net.cpp:137] Memory required for data: 417383600
I1005 13:00:40.257542  9519 layer_factory.hpp:77] Creating layer BatchNorm20
I1005 13:00:40.257547  9519 net.cpp:84] Creating Layer BatchNorm20
I1005 13:00:40.257550  9519 net.cpp:406] BatchNorm20 <- Convolution20
I1005 13:00:40.257555  9519 net.cpp:367] BatchNorm20 -> Convolution20 (in-place)
I1005 13:00:40.257704  9519 net.cpp:122] Setting up BatchNorm20
I1005 13:00:40.257709  9519 net.cpp:129] Top shape: 100 64 8 8 (409600)
I1005 13:00:40.257711  9519 net.cpp:137] Memory required for data: 419022000
I1005 13:00:40.257716  9519 layer_factory.hpp:77] Creating layer Scale20
I1005 13:00:40.257720  9519 net.cpp:84] Creating Layer Scale20
I1005 13:00:40.257722  9519 net.cpp:406] Scale20 <- Convolution20
I1005 13:00:40.257726  9519 net.cpp:367] Scale20 -> Convolution20 (in-place)
I1005 13:00:40.257755  9519 layer_factory.hpp:77] Creating layer Scale20
I1005 13:00:40.257838  9519 net.cpp:122] Setting up Scale20
I1005 13:00:40.257843  9519 net.cpp:129] Top shape: 100 64 8 8 (409600)
I1005 13:00:40.257844  9519 net.cpp:137] Memory required for data: 420660400
I1005 13:00:40.257848  9519 layer_factory.hpp:77] Creating layer penlu18
I1005 13:00:40.257853  9519 net.cpp:84] Creating Layer penlu18
I1005 13:00:40.257855  9519 net.cpp:406] penlu18 <- Convolution20
I1005 13:00:40.257859  9519 net.cpp:367] penlu18 -> Convolution20 (in-place)
I1005 13:00:40.257973  9519 net.cpp:122] Setting up penlu18
I1005 13:00:40.257977  9519 net.cpp:129] Top shape: 100 64 8 8 (409600)
I1005 13:00:40.257980  9519 net.cpp:137] Memory required for data: 422298800
I1005 13:00:40.257984  9519 layer_factory.hpp:77] Creating layer Convolution21
I1005 13:00:40.257990  9519 net.cpp:84] Creating Layer Convolution21
I1005 13:00:40.257993  9519 net.cpp:406] Convolution21 <- Convolution20
I1005 13:00:40.257997  9519 net.cpp:380] Convolution21 -> Convolution21
I1005 13:00:40.260036  9519 net.cpp:122] Setting up Convolution21
I1005 13:00:40.260046  9519 net.cpp:129] Top shape: 100 64 8 8 (409600)
I1005 13:00:40.260048  9519 net.cpp:137] Memory required for data: 423937200
I1005 13:00:40.260053  9519 layer_factory.hpp:77] Creating layer BatchNorm21
I1005 13:00:40.260058  9519 net.cpp:84] Creating Layer BatchNorm21
I1005 13:00:40.260061  9519 net.cpp:406] BatchNorm21 <- Convolution21
I1005 13:00:40.260066  9519 net.cpp:367] BatchNorm21 -> Convolution21 (in-place)
I1005 13:00:40.260208  9519 net.cpp:122] Setting up BatchNorm21
I1005 13:00:40.260213  9519 net.cpp:129] Top shape: 100 64 8 8 (409600)
I1005 13:00:40.260215  9519 net.cpp:137] Memory required for data: 425575600
I1005 13:00:40.260221  9519 layer_factory.hpp:77] Creating layer Scale21
I1005 13:00:40.260224  9519 net.cpp:84] Creating Layer Scale21
I1005 13:00:40.260227  9519 net.cpp:406] Scale21 <- Convolution21
I1005 13:00:40.260231  9519 net.cpp:367] Scale21 -> Convolution21 (in-place)
I1005 13:00:40.275503  9519 layer_factory.hpp:77] Creating layer Scale21
I1005 13:00:40.275604  9519 net.cpp:122] Setting up Scale21
I1005 13:00:40.275610  9519 net.cpp:129] Top shape: 100 64 8 8 (409600)
I1005 13:00:40.275612  9519 net.cpp:137] Memory required for data: 427214000
I1005 13:00:40.275617  9519 layer_factory.hpp:77] Creating layer Eltwise9
I1005 13:00:40.275621  9519 net.cpp:84] Creating Layer Eltwise9
I1005 13:00:40.275624  9519 net.cpp:406] Eltwise9 <- Eltwise8_penlu17_0_split_1
I1005 13:00:40.275636  9519 net.cpp:406] Eltwise9 <- Convolution21
I1005 13:00:40.275641  9519 net.cpp:380] Eltwise9 -> Eltwise9
I1005 13:00:40.275662  9519 net.cpp:122] Setting up Eltwise9
I1005 13:00:40.275666  9519 net.cpp:129] Top shape: 100 64 8 8 (409600)
I1005 13:00:40.275668  9519 net.cpp:137] Memory required for data: 428852400
I1005 13:00:40.275671  9519 layer_factory.hpp:77] Creating layer penlu19
I1005 13:00:40.275676  9519 net.cpp:84] Creating Layer penlu19
I1005 13:00:40.275679  9519 net.cpp:406] penlu19 <- Eltwise9
I1005 13:00:40.275683  9519 net.cpp:367] penlu19 -> Eltwise9 (in-place)
I1005 13:00:40.275810  9519 net.cpp:122] Setting up penlu19
I1005 13:00:40.275815  9519 net.cpp:129] Top shape: 100 64 8 8 (409600)
I1005 13:00:40.275816  9519 net.cpp:137] Memory required for data: 430490800
I1005 13:00:40.275821  9519 layer_factory.hpp:77] Creating layer Pooling1
I1005 13:00:40.275826  9519 net.cpp:84] Creating Layer Pooling1
I1005 13:00:40.275828  9519 net.cpp:406] Pooling1 <- Eltwise9
I1005 13:00:40.275833  9519 net.cpp:380] Pooling1 -> Pooling1
I1005 13:00:40.275982  9519 net.cpp:122] Setting up Pooling1
I1005 13:00:40.275990  9519 net.cpp:129] Top shape: 100 64 1 1 (6400)
I1005 13:00:40.275992  9519 net.cpp:137] Memory required for data: 430516400
I1005 13:00:40.275995  9519 layer_factory.hpp:77] Creating layer InnerProduct1
I1005 13:00:40.276001  9519 net.cpp:84] Creating Layer InnerProduct1
I1005 13:00:40.276005  9519 net.cpp:406] InnerProduct1 <- Pooling1
I1005 13:00:40.276008  9519 net.cpp:380] InnerProduct1 -> InnerProduct1
I1005 13:00:40.276118  9519 net.cpp:122] Setting up InnerProduct1
I1005 13:00:40.276123  9519 net.cpp:129] Top shape: 100 10 (1000)
I1005 13:00:40.276124  9519 net.cpp:137] Memory required for data: 430520400
I1005 13:00:40.276129  9519 layer_factory.hpp:77] Creating layer InnerProduct1_InnerProduct1_0_split
I1005 13:00:40.276132  9519 net.cpp:84] Creating Layer InnerProduct1_InnerProduct1_0_split
I1005 13:00:40.276135  9519 net.cpp:406] InnerProduct1_InnerProduct1_0_split <- InnerProduct1
I1005 13:00:40.276139  9519 net.cpp:380] InnerProduct1_InnerProduct1_0_split -> InnerProduct1_InnerProduct1_0_split_0
I1005 13:00:40.276146  9519 net.cpp:380] InnerProduct1_InnerProduct1_0_split -> InnerProduct1_InnerProduct1_0_split_1
I1005 13:00:40.276175  9519 net.cpp:122] Setting up InnerProduct1_InnerProduct1_0_split
I1005 13:00:40.276180  9519 net.cpp:129] Top shape: 100 10 (1000)
I1005 13:00:40.276182  9519 net.cpp:129] Top shape: 100 10 (1000)
I1005 13:00:40.276185  9519 net.cpp:137] Memory required for data: 430528400
I1005 13:00:40.276187  9519 layer_factory.hpp:77] Creating layer SoftmaxWithLoss1
I1005 13:00:40.276191  9519 net.cpp:84] Creating Layer SoftmaxWithLoss1
I1005 13:00:40.276195  9519 net.cpp:406] SoftmaxWithLoss1 <- InnerProduct1_InnerProduct1_0_split_0
I1005 13:00:40.276197  9519 net.cpp:406] SoftmaxWithLoss1 <- Data2_Data1_1_split_0
…
