…
I1005 10:19:46.865355  9385 net.cpp:294] The NetState phase (0) differed from the phase (1) specified by a rule in layer Accuracy1
I1005 10:19:46.865845  9385 net.cpp:51] Initializing net from parameters: 
name: "resnet_cifar10"
state {
  phase: TRAIN
  level: 0
  stage: ""
}
layer {
  name: "Data1"
  type: "Data"
  top: "Data1"
  top: "Data2"
  include {
    phase: TRAIN
  }
  transform_param {
    mirror: true
    crop_size: 28
    mean_file: "/home/x306/caffe/xn/PENLU/data/cifar10/mean.binaryproto"
  }
  data_param {
    source: "/home/x306/caffe/xn/PENLU/data/cifar10/cifar10_train_lmdb"
    batch_size: 100
    backend: LMDB
  }
}
layer {
  name: "Convolution1"
  type: "Convolution"
  bottom: "Data1"
  top: "Convolution1"
  param {
    lr_mult: 1
    decay_mult: 1
  }
  param {
    lr_mult: 2
    decay_mult: 0
  }
  convolution_param {
    num_output: 16
    pad: 1
    kernel_size: 3
    stride: 1
    weight_filler {
      type: "gaussian"
      std: 0.118
    }
    bias_filler {
      type: "constant"
      value: 0
    }
  }
}
layer {
  name: "BatchNorm1"
  type: "BatchNorm"
  bottom: "Convolution1"
  top: "Convolution1"
  param {
    lr_mult: 0
    decay_mult: 0
  }
  param {
    lr_mult: 0
    decay_mult: 0
  }
  param {
    lr_mult: 0
    decay_mult: 0
  }
}
layer {
  name: "Scale1"
  type: "Scale"
  bottom: "Convolution1"
  top: "Convolution1"
  scale_param {
    bias_term: true
  }
}
layer {
  name: "penlu1"
  type: "PENLU"
  bottom: "Convolution1"
  top: "Convolution1"
  param {
    lr_mult: 2
    decay_mult: 0
  }
  param {
    lr_mult: 2
    decay_mult: 0
  }
  param {
    lr_mult: 0
    decay_mult: 0
  }
  penlu_param {
    alpha_filler {
      type: "constant"
      value: 1
    }
    beta_filler {
      type: "constant"
      value: 1
    }
    eta_filler {
      type: "constant"
      value: 1
    }
  }
}
layer {
  name: "Convolution2"
  type: "Convolution"
  bottom: "Convolution1"
  top: "Convolution2"
  param {
    lr_mult: 1
    decay_mult: 1
  }
  param {
    lr_mult: 2
    decay_mult: 0
  }
  convolution_param {
    num_output: 16
    pad: 1
    kernel_size: 3
    stride: 1
    weight_filler {
      type: "gaussian"
      std: 0.118
    }
    bias_filler {
      type: "constant"
      value: 0
    }
  }
}
layer {
  name: "BatchNorm2"
  type: "BatchNorm"
  bottom: "Convolution2"
  top: "Convolution2"
  param {
    lr_mult: 0
    decay_mult: 0
  }
  param {
    lr_mult: 0
    decay_mult: 0
  }
  param {
    lr_mult: 0
    decay_mult: 0
  }
}
layer {
  name: "Scale2"
  type: "Scale"
  bottom: "Convolution2"
  top: "Convolution2"
  scale_param {
    bias_term: true
  }
}
layer {
  name: "penlu2"
  type: "PENLU"
  bottom: "Convolution2"
  top: "Convolution2"
  param {
    lr_mult: 2
    decay_mult: 0
  }
  param {
    lr_mult: 2
    decay_mult: 0
  }
  param {
    lr_mult: 0
    decay_mult: 0
  }
  penlu_param {
    alpha_filler {
      type: "constant"
      value: 1
    }
    beta_filler {
      type: "constant"
      value: 1
    }
    eta_filler {
      type: "constant"
      value: 1
    }
  }
}
layer {
  name: "Convolution3"
  type: "Convolution"
  bottom: "Convolution2"
  top: "Convolution3"
  param {
    lr_mult: 1
    decay_mult: 1
  }
  param {
    lr_mult: 2
    decay_mult: 0
  }
  convolution_param {
    num_output: 16
    pad: 1
    kernel_size: 3
    stride: 1
    weight_filler {
      type: "gaussian"
      std: 0.118
    }
    bias_filler {
      type: "constant"
      value: 0
    }
  }
}
layer {
  name: "BatchNorm3"
  type: "BatchNorm"
  bottom: "Convolution3"
  top: "Convolution3"
  param {
    lr_mult: 0
    decay_mult: 0
  }
  param {
    lr_mult: 0
    decay_mult: 0
  }
  param {
    lr_mult: 0
    decay_mult: 0
  }
}
layer {
  name: "Scale3"
  type: "Scale"
  bottom: "Convolution3"
  top: "Convolution3"
  scale_param {
    bias_term: true
  }
}
layer {
  name: "Eltwise1"
  type: "Eltwise"
  bottom: "Convolution1"
  bottom: "Convolution3"
  top: "Eltwise1"
  eltwise_param {
    operation: SUM
  }
}
layer {
  name: "penlu3"
  type: "PENLU"
  bottom: "Eltwise1"
  top: "Eltwise1"
  param {
    lr_mult: 2
    decay_mult: 0
  }
  param {
    lr_mult: 2
    decay_mult: 0
  }
  param {
    lr_mult: 0
    decay_mult: 0
  }
  penlu_param {
    alpha_filler {
      type: "constant"
      value: 1
    }
    beta_filler {
      type: "constant"
      value: 1
    }
    eta_filler {
      type: "constant"
      value: 1
    }
  }
}
layer {
  name: "Convolution4"
  type: "Convolution"
  bottom: "Eltwise1"
  top: "Convolution4"
  param {
    lr_mult: 1
    decay_mult: 1
  }
  param {
    lr_mult: 2
    decay_mult: 0
  }
  convolution_param {
    num_output: 16
    pad: 1
    kernel_size: 3
    stride: 1
    weight_filler {
      type: "gaussian"
      std: 0.118
    }
    bias_filler {
      type: "constant"
      value: 0
    }
  }
}
layer {
  name: "BatchNorm4"
  type: "BatchNorm"
  bottom: "Convolution4"
  top: "Convolution4"
  param {
    lr_mult: 0
    decay_mult: 0
  }
  param {
    lr_mult: 0
    decay_mult: 0
  }
  param {
    lr_mult: 0
    decay_mult: 0
  }
}
layer {
  name: "Scale4"
  type: "Scale"
  bottom: "Convolution4"
  top: "Convolution4"
  scale_param {
    bias_term: true
  }
}
layer {
  name: "penlu4"
  type: "PENLU"
  bottom: "Convolution4"
  top: "Convolution4"
  param {
    lr_mult: 2
    decay_mult: 0
  }
  param {
    lr_mult: 2
    decay_mult: 0
  }
  param {
    lr_mult: 0
    decay_mult: 0
  }
  penlu_param {
    alpha_filler {
      type: "constant"
      value: 1
    }
    beta_filler {
      type: "constant"
      value: 1
    }
    eta_filler {
      type: "constant"
      value: 1
    }
  }
}
layer {
  name: "Convolution5"
  type: "Convolution"
  bottom: "Convolution4"
  top: "Convolution5"
  param {
    lr_mult: 1
    decay_mult: 1
  }
  param {
    lr_mult: 2
    decay_mult: 0
  }
  convolution_param {
    num_output: 16
    pad: 1
    kernel_size: 3
    stride: 1
    weight_filler {
      type: "gaussian"
      std: 0.118
    }
    bias_filler {
      type: "constant"
      value: 0
    }
  }
}
layer {
  name: "BatchNorm5"
  type: "BatchNorm"
  bottom: "Convolution5"
  top: "Convolution5"
  param {
    lr_mult: 0
    decay_mult: 0
  }
  param {
    lr_mult: 0
    decay_mult: 0
  }
  param {
    lr_mult: 0
    decay_mult: 0
  }
}
layer {
  name: "Scale5"
  type: "Scale"
  bottom: "Convolution5"
  top: "Convolution5"
  scale_param {
    bias_term: true
  }
}
layer {
  name: "Eltwise2"
  type: "Eltwise"
  bottom: "Eltwise1"
  bottom: "Convolution5"
  top: "Eltwise2"
  eltwise_param {
    operation: SUM
  }
}
layer {
  name: "penlu5"
  type: "PENLU"
  bottom: "Eltwise2"
  top: "Eltwise2"
  param {
    lr_mult: 2
    decay_mult: 0
  }
  param {
    lr_mult: 2
    decay_mult: 0
  }
  param {
    lr_mult: 0
    decay_mult: 0
  }
  penlu_param {
    alpha_filler {
      type: "constant"
      value: 1
    }
    beta_filler {
      type: "constant"
      value: 1
    }
    eta_filler {
      type: "constant"
      value: 1
    }
  }
}
layer {
  name: "Convolution6"
  type: "Convolution"
  bottom: "Eltwise2"
  top: "Convolution6"
  param {
    lr_mult: 1
    decay_mult: 1
  }
  param {
    lr_mult: 2
    decay_mult: 0
  }
  convolution_param {
    num_output: 16
    pad: 1
    kernel_size: 3
    stride: 1
    weight_filler {
      type: "gaussian"
      std: 0.118
    }
    bias_filler {
      type: "constant"
      value: 0
    }
  }
}
layer {
  name: "BatchNorm6"
  type: "BatchNorm"
  bottom: "Convolution6"
  top: "Convolution6"
  param {
    lr_mult: 0
    decay_mult: 0
  }
  param {
    lr_mult: 0
    decay_mult: 0
  }
  param {
    lr_mult: 0
    decay_mult: 0
  }
}
layer {
  name: "Scale6"
  type: "Scale"
  bottom: "Convolution6"
  top: "Convolution6"
  scale_param {
    bias_term: true
  }
}
layer {
  name: "penlu6"
  type: "PENLU"
  bottom: "Convolution6"
  top: "Convolution6"
  param {
    lr_mult: 2
    decay_mult: 0
  }
  param {
    lr_mult: 2
    decay_mult: 0
  }
  param {
    lr_mult: 0
    decay_mult: 0
  }
  penlu_param {
    alpha_filler {
      type: "constant"
      value: 1
    }
    beta_filler {
      type: "constant"
      value: 1
    }
    eta_filler {
      type: "constant"
      value: 1
    }
  }
}
layer {
  name: "Convolution7"
  type: "Convolution"
  bottom: "Convolution6"
  top: "Convolution7"
  param {
    lr_mult: 1
    decay_mult: 1
  }
  param {
    lr_mult: 2
    decay_mult: 0
  }
  convolution_param {
    num_output: 16
    pad: 1
    kernel_size: 3
    stride: 1
    weight_filler {
      type: "gaussian"
      std: 0.118
    }
    bias_filler {
      type: "constant"
      value: 0
    }
  }
}
layer {
  name: "BatchNorm7"
  type: "BatchNorm"
  bottom: "Convolution7"
  top: "Convolution7"
  param {
    lr_mult: 0
    decay_mult: 0
  }
  param {
    lr_mult: 0
    decay_mult: 0
  }
  param {
    lr_mult: 0
    decay_mult: 0
  }
}
layer {
  name: "Scale7"
  type: "Scale"
  bottom: "Convolution7"
  top: "Convolution7"
  scale_param {
    bias_term: true
  }
}
layer {
  name: "Eltwise3"
  type: "Eltwise"
  bottom: "Eltwise2"
  bottom: "Convolution7"
  top: "Eltwise3"
  eltwise_param {
    operation: SUM
  }
}
layer {
  name: "penlu7"
  type: "PENLU"
  bottom: "Eltwise3"
  top: "Eltwise3"
  param {
    lr_mult: 2
    decay_mult: 0
  }
  param {
    lr_mult: 2
    decay_mult: 0
  }
  param {
    lr_mult: 0
    decay_mult: 0
  }
  penlu_param {
    alpha_filler {
      type: "constant"
      value: 1
    }
    beta_filler {
      type: "constant"
      value: 1
    }
    eta_filler {
      type: "constant"
      value: 1
    }
  }
}
layer {
  name: "Convolution8"
  type: "Convolution"
  bottom: "Eltwise3"
  top: "Convolution8"
  param {
    lr_mult: 1
    decay_mult: 1
  }
  param {
    lr_mult: 2
    decay_mult: 0
  }
  convolution_param {
    num_output: 32
    pad: 0
    kernel_size: 1
    stride: 2
    weight_filler {
      type: "gaussian"
      std: 0.25
    }
    bias_filler {
      type: "constant"
      value: 0
    }
  }
}
layer {
  name: "BatchNorm8"
  type: "BatchNorm"
  bottom: "Convolution8"
  top: "Convolution8"
  param {
    lr_mult: 0
    decay_mult: 0
  }
  param {
    lr_mult: 0
    decay_mult: 0
  }
  param {
    lr_mult: 0
    decay_mult: 0
  }
}
layer {
  name: "Scale8"
  type: "Scale"
  bottom: "Convolution8"
  top: "Convolution8"
  scale_param {
    bias_term: true
  }
}
layer {
  name: "Convolution9"
  type: "Convolution"
  bottom: "Eltwise3"
  top: "Convolution9"
  param {
    lr_mult: 1
    decay_mult: 1
  }
  param {
    lr_mult: 2
    decay_mult: 0
  }
  convolution_param {
    num_output: 32
    pad: 1
    kernel_size: 3
    stride: 2
    weight_filler {
      type: "gaussian"
      std: 0.083
    }
    bias_filler {
      type: "constant"
      value: 0
    }
  }
}
layer {
  name: "BatchNorm9"
  type: "BatchNorm"
  bottom: "Convolution9"
  top: "Convolution9"
  param {
    lr_mult: 0
    decay_mult: 0
  }
  param {
    lr_mult: 0
    decay_mult: 0
  }
  param {
    lr_mult: 0
    decay_mult: 0
  }
}
layer {
  name: "Scale9"
  type: "Scale"
  bottom: "Convolution9"
  top: "Convolution9"
  scale_param {
    bias_term: true
  }
}
layer {
  name: "penlu8"
  type: "PENLU"
  bottom: "Convolution9"
  top: "Convolution9"
  param {
    lr_mult: 2
    decay_mult: 0
  }
  param {
    lr_mult: 2
    decay_mult: 0
  }
  param {
    lr_mult: 0
    decay_mult: 0
  }
  penlu_param {
    alpha_filler {
      type: "constant"
      value: 1
    }
    beta_filler {
      type: "constant"
      value: 1
    }
    eta_filler {
      type: "constant"
      value: 1
    }
  }
}
layer {
  name: "Convolution10"
  type: "Convolution"
  bottom: "Convolution9"
  top: "Convolution10"
  param {
    lr_mult: 1
    decay_mult: 1
  }
  param {
    lr_mult: 2
    decay_mult: 0
  }
  convolution_param {
    num_output: 32
    pad: 1
    kernel_size: 3
    stride: 1
    weight_filler {
      type: "gaussian"
      std: 0.083
    }
    bias_filler {
      type: "constant"
      value: 0
    }
  }
}
layer {
  name: "BatchNorm10"
  type: "BatchNorm"
  bottom: "Convolution10"
  top: "Convolution10"
  param {
    lr_mult: 0
    decay_mult: 0
  }
  param {
    lr_mult: 0
    decay_mult: 0
  }
  param {
    lr_mult: 0
    decay_mult: 0
  }
}
layer {
  name: "Scale10"
  type: "Scale"
  bottom: "Convolution10"
  top: "Convolution10"
  scale_param {
    bias_term: true
  }
}
layer {
  name: "Eltwise4"
  type: "Eltwise"
  bottom: "Convolution8"
  bottom: "Convolution10"
  top: "Eltwise4"
  eltwise_param {
    operation: SUM
  }
}
layer {
  name: "penlu9"
  type: "PENLU"
  bottom: "Eltwise4"
  top: "Eltwise4"
  param {
    lr_mult: 2
    decay_mult: 0
  }
  param {
    lr_mult: 2
    decay_mult: 0
  }
  param {
    lr_mult: 0
    decay_mult: 0
  }
  penlu_param {
    alpha_filler {
      type: "constant"
      value: 1
    }
    beta_filler {
      type: "constant"
      value: 1
    }
    eta_filler {
      type: "constant"
      value: 1
    }
  }
}
layer {
  name: "Convolution11"
  type: "Convolution"
  bottom: "Eltwise4"
  top: "Convolution11"
  param {
    lr_mult: 1
    decay_mult: 1
  }
  param {
    lr_mult: 2
    decay_mult: 0
  }
  convolution_param {
    num_output: 32
    pad: 1
    kernel_size: 3
    stride: 1
    weight_filler {
      type: "gaussian"
      std: 0.083
    }
    bias_filler {
      type: "constant"
      value: 0
    }
  }
}
layer {
  name: "BatchNorm11"
  type: "BatchNorm"
  bottom: "Convolution11"
  top: "Convolution11"
  param {
    lr_mult: 0
    decay_mult: 0
  }
  param {
    lr_mult: 0
    decay_mult: 0
  }
  param {
    lr_mult: 0
    decay_mult: 0
  }
}
layer {
  name: "Scale11"
  type: "Scale"
  bottom: "Convolution11"
  top: "Convolution11"
  scale_param {
    bias_term: true
  }
}
layer {
  name: "penlu10"
  type: "PENLU"
  bottom: "Convolution11"
  top: "Convolution11"
  param {
    lr_mult: 2
    decay_mult: 0
  }
  param {
    lr_mult: 2
    decay_mult: 0
  }
  param {
    lr_mult: 0
    decay_mult: 0
  }
  penlu_param {
    alpha_filler {
      type: "constant"
      value: 1
    }
    beta_filler {
      type: "constant"
      value: 1
    }
    eta_filler {
      type: "constant"
      value: 1
    }
  }
}
layer {
  name: "Convolution12"
  type: "Convolution"
  bottom: "Convolution11"
  top: "Convolution12"
  param {
    lr_mult: 1
    decay_mult: 1
  }
  param {
    lr_mult: 2
    decay_mult: 0
  }
  convolution_param {
    num_output: 32
    pad: 1
    kernel_size: 3
    stride: 1
    weight_filler {
      type: "gaussian"
      std: 0.083
    }
    bias_filler {
      type: "constant"
      value: 0
    }
  }
}
layer {
  name: "BatchNorm12"
  type: "BatchNorm"
  bottom: "Convolution12"
  top: "Convolution12"
  param {
    lr_mult: 0
    decay_mult: 0
  }
  param {
    lr_mult: 0
    decay_mult: 0
  }
  param {
    lr_mult: 0
    decay_mult: 0
  }
}
layer {
  name: "Scale12"
  type: "Scale"
  bottom: "Convolution12"
  top: "Convolution12"
  scale_param {
    bias_term: true
  }
}
layer {
  name: "Eltwise5"
  type: "Eltwise"
  bottom: "Eltwise4"
  bottom: "Convolution12"
  top: "Eltwise5"
  eltwise_param {
    operation: SUM
  }
}
layer {
  name: "penlu11"
  type: "PENLU"
  bottom: "Eltwise5"
  top: "Eltwise5"
  param {
    lr_mult: 2
    decay_mult: 0
  }
  param {
    lr_mult: 2
    decay_mult: 0
  }
  param {
    lr_mult: 0
    decay_mult: 0
  }
  penlu_param {
    alpha_filler {
      type: "constant"
      value: 1
    }
    beta_filler {
      type: "constant"
      value: 1
    }
    eta_filler {
      type: "constant"
      value: 1
    }
  }
}
layer {
  name: "Convolution13"
  type: "Convolution"
  bottom: "Eltwise5"
  top: "Convolution13"
  param {
    lr_mult: 1
    decay_mult: 1
  }
  param {
    lr_mult: 2
    decay_mult: 0
  }
  convolution_param {
    num_output: 32
    pad: 1
    kernel_size: 3
    stride: 1
    weight_filler {
      type: "gaussian"
      std: 0.083
    }
    bias_filler {
      type: "constant"
      value: 0
    }
  }
}
layer {
  name: "BatchNorm13"
  type: "BatchNorm"
  bottom: "Convolution13"
  top: "Convolution13"
  param {
    lr_mult: 0
    decay_mult: 0
  }
  param {
    lr_mult: 0
    decay_mult: 0
  }
  param {
    lr_mult: 0
    decay_mult: 0
  }
}
layer {
  name: "Scale13"
  type: "Scale"
  bottom: "Convolution13"
  top: "Convolution13"
  scale_param {
    bias_term: true
  }
}
layer {
  name: "penlu12"
  type: "PENLU"
  bottom: "Convolution13"
  top: "Convolution13"
  param {
    lr_mult: 2
    decay_mult: 0
  }
  param {
    lr_mult: 2
    decay_mult: 0
  }
  param {
    lr_mult: 0
    decay_mult: 0
  }
  penlu_param {
    alpha_filler {
      type: "constant"
      value: 1
    }
    beta_filler {
      type: "constant"
      value: 1
    }
    eta_filler {
      type: "constant"
      value: 1
    }
  }
}
layer {
  name: "Convolution14"
  type: "Convolution"
  bottom: "Convolution13"
  top: "Convolution14"
  param {
    lr_mult: 1
    decay_mult: 1
  }
  param {
    lr_mult: 2
    decay_mult: 0
  }
  convolution_param {
    num_output: 32
    pad: 1
    kernel_size: 3
    stride: 1
    weight_filler {
      type: "gaussian"
      std: 0.083
    }
    bias_filler {
      type: "constant"
      value: 0
    }
  }
}
layer {
  name: "BatchNorm14"
  type: "BatchNorm"
  bottom: "Convolution14"
  top: "Convolution14"
  param {
    lr_mult: 0
    decay_mult: 0
  }
  param {
    lr_mult: 0
    decay_mult: 0
  }
  param {
    lr_mult: 0
    decay_mult: 0
  }
}
layer {
  name: "Scale14"
  type: "Scale"
  bottom: "Convolution14"
  top: "Convolution14"
  scale_param {
    bias_term: true
  }
}
layer {
  name: "Eltwise6"
  type: "Eltwise"
  bottom: "Eltwise5"
  bottom: "Convolution14"
  top: "Eltwise6"
  eltwise_param {
    operation: SUM
  }
}
layer {
  name: "penlu13"
  type: "PENLU"
  bottom: "Eltwise6"
  top: "Eltwise6"
  param {
    lr_mult: 2
    decay_mult: 0
  }
  param {
    lr_mult: 2
    decay_mult: 0
  }
  param {
    lr_mult: 0
    decay_mult: 0
  }
  penlu_param {
    alpha_filler {
      type: "constant"
      value: 1
    }
    beta_filler {
      type: "constant"
      value: 1
    }
    eta_filler {
      type: "constant"
      value: 1
    }
  }
}
layer {
  name: "Convolution15"
  type: "Convolution"
  bottom: "Eltwise6"
  top: "Convolution15"
  param {
    lr_mult: 1
    decay_mult: 1
  }
  param {
    lr_mult: 2
    decay_mult: 0
  }
  convolution_param {
    num_output: 64
    pad: 0
    kernel_size: 1
    stride: 2
    weight_filler {
      type: "gaussian"
      std: 0.17677669
    }
    bias_filler {
      type: "constant"
      value: 0
    }
  }
}
layer {
  name: "BatchNorm15"
  type: "BatchNorm"
  bottom: "Convolution15"
  top: "Convolution15"
  param {
    lr_mult: 0
    decay_mult: 0
  }
  param {
    lr_mult: 0
    decay_mult: 0
  }
  param {
    lr_mult: 0
    decay_mult: 0
  }
}
layer {
  name: "Scale15"
  type: "Scale"
  bottom: "Convolution15"
  top: "Convolution15"
  scale_param {
    bias_term: true
  }
}
layer {
  name: "Convolution16"
  type: "Convolution"
  bottom: "Eltwise6"
  top: "Convolution16"
  param {
    lr_mult: 1
    decay_mult: 1
  }
  param {
    lr_mult: 2
    decay_mult: 0
  }
  convolution_param {
    num_output: 64
    pad: 1
    kernel_size: 3
    stride: 2
    weight_filler {
      type: "gaussian"
      std: 0.059
    }
    bias_filler {
      type: "constant"
      value: 0
    }
  }
}
layer {
  name: "BatchNorm16"
  type: "BatchNorm"
  bottom: "Convolution16"
  top: "Convolution16"
  param {
    lr_mult: 0
    decay_mult: 0
  }
  param {
    lr_mult: 0
    decay_mult: 0
  }
  param {
    lr_mult: 0
    decay_mult: 0
  }
}
layer {
  name: "Scale16"
  type: "Scale"
  bottom: "Convolution16"
  top: "Convolution16"
  scale_param {
    bias_term: true
  }
}
layer {
  name: "penlu14"
  type: "PENLU"
  bottom: "Convolution16"
  top: "Convolution16"
  param {
    lr_mult: 2
    decay_mult: 0
  }
  param {
    lr_mult: 2
    decay_mult: 0
  }
  param {
    lr_mult: 0
    decay_mult: 0
  }
  penlu_param {
    alpha_filler {
      type: "constant"
      value: 1
    }
    beta_filler {
      type: "constant"
      value: 1
    }
    eta_filler {
      type: "constant"
      value: 1
    }
  }
}
layer {
  name: "Convolution17"
  type: "Convolution"
  bottom: "Convolution16"
  top: "Convolution17"
  param {
    lr_mult: 1
    decay_mult: 1
  }
  param {
    lr_mult: 2
    decay_mult: 0
  }
  convolution_param {
    num_output: 64
    pad: 1
    kernel_size: 3
    stride: 1
    weight_filler {
      type: "gaussian"
      std: 0.059
    }
    bias_filler {
      type: "constant"
      value: 0
    }
  }
}
layer {
  name: "BatchNorm17"
  type: "BatchNorm"
  bottom: "Convolution17"
  top: "Convolution17"
  param {
    lr_mult: 0
    decay_mult: 0
  }
  param {
    lr_mult: 0
    decay_mult: 0
  }
  param {
    lr_mult: 0
    decay_mult: 0
  }
}
layer {
  name: "Scale17"
  type: "Scale"
  bottom: "Convolution17"
  top: "Convolution17"
  scale_param {
    bias_term: true
  }
}
layer {
  name: "Eltwise7"
  type: "Eltwise"
  bottom: "Convolution15"
  bottom: "Convolution17"
  top: "Eltwise7"
  eltwise_param {
    operation: SUM
  }
}
layer {
  name: "penlu15"
  type: "PENLU"
  bottom: "Eltwise7"
  top: "Eltwise7"
  param {
    lr_mult: 2
    decay_mult: 0
  }
  param {
    lr_mult: 2
    decay_mult: 0
  }
  param {
    lr_mult: 0
    decay_mult: 0
  }
  penlu_param {
    alpha_filler {
      type: "constant"
      value: 1
    }
    beta_filler {
      type: "constant"
      value: 1
    }
    eta_filler {
      type: "constant"
      value: 1
    }
  }
}
layer {
  name: "Convolution18"
  type: "Convolution"
  bottom: "Eltwise7"
  top: "Convolution18"
  param {
    lr_mult: 1
    decay_mult: 1
  }
  param {
    lr_mult: 2
    decay_mult: 0
  }
  convolution_param {
    num_output: 64
    pad: 1
    kernel_size: 3
    stride: 1
    weight_filler {
      type: "gaussian"
      std: 0.059
    }
    bias_filler {
      type: "constant"
      value: 0
    }
  }
}
layer {
  name: "BatchNorm18"
  type: "BatchNorm"
  bottom: "Convolution18"
  top: "Convolution18"
  param {
    lr_mult: 0
    decay_mult: 0
  }
  param {
    lr_mult: 0
    decay_mult: 0
  }
  param {
    lr_mult: 0
    decay_mult: 0
  }
}
layer {
  name: "Scale18"
  type: "Scale"
  bottom: "Convolution18"
  top: "Convolution18"
  scale_param {
    bias_term: true
  }
}
layer {
  name: "penlu16"
  type: "PENLU"
  bottom: "Convolution18"
  top: "Convolution18"
  param {
    lr_mult: 2
    decay_mult: 0
  }
  param {
    lr_mult: 2
    decay_mult: 0
  }
  param {
    lr_mult: 0
    decay_mult: 0
  }
  penlu_param {
    alpha_filler {
      type: "constant"
      value: 1
    }
    beta_filler {
      type: "constant"
      value: 1
    }
    eta_filler {
      type: "constant"
      value: 1
    }
  }
}
layer {
  name: "Convolution19"
  type: "Convolution"
  bottom: "Convolution18"
  top: "Convolution19"
  param {
    lr_mult: 1
    decay_mult: 1
  }
  param {
    lr_mult: 2
    decay_mult: 0
  }
  convolution_param {
    num_output: 64
    pad: 1
    kernel_size: 3
    stride: 1
    weight_filler {
      type: "gaussian"
      std: 0.059
    }
    bias_filler {
      type: "constant"
      value: 0
    }
  }
}
layer {
  name: "BatchNorm19"
  type: "BatchNorm"
  bottom: "Convolution19"
  top: "Convolution19"
  param {
    lr_mult: 0
    decay_mult: 0
  }
  param {
    lr_mult: 0
    decay_mult: 0
  }
  param {
    lr_mult: 0
    decay_mult: 0
  }
}
layer {
  name: "Scale19"
  type: "Scale"
  bottom: "Convolution19"
  top: "Convolution19"
  scale_param {
    bias_term: true
  }
}
layer {
  name: "Eltwise8"
  type: "Eltwise"
  bottom: "Eltwise7"
  bottom: "Convolution19"
  top: "Eltwise8"
  eltwise_param {
    operation: SUM
  }
}
layer {
  name: "penlu17"
  type: "PENLU"
  bottom: "Eltwise8"
  top: "Eltwise8"
  param {
    lr_mult: 2
    decay_mult: 0
  }
  param {
    lr_mult: 2
    decay_mult: 0
  }
  param {
    lr_mult: 0
    decay_mult: 0
  }
  penlu_param {
    alpha_filler {
      type: "constant"
      value: 1
    }
    beta_filler {
      type: "constant"
      value: 1
    }
    eta_filler {
      type: "constant"
      value: 1
    }
  }
}
layer {
  name: "Convolution20"
  type: "Convolution"
  bottom: "Eltwise8"
  top: "Convolution20"
  param {
    lr_mult: 1
    decay_mult: 1
  }
  param {
    lr_mult: 2
    decay_mult: 0
  }
  convolution_param {
    num_output: 64
    pad: 1
    kernel_size: 3
    stride: 1
    weight_filler {
      type: "gaussian"
      std: 0.059
    }
    bias_filler {
      type: "constant"
      value: 0
    }
  }
}
layer {
  name: "BatchNorm20"
  type: "BatchNorm"
  bottom: "Convolution20"
  top: "Convolution20"
  param {
    lr_mult: 0
    decay_mult: 0
  }
  param {
    lr_mult: 0
    decay_mult: 0
  }
  param {
    lr_mult: 0
    decay_mult: 0
  }
}
layer {
  name: "Scale20"
  type: "Scale"
  bottom: "Convolution20"
  top: "Convolution20"
  scale_param {
    bias_term: true
  }
}
layer {
  name: "penlu18"
  type: "PENLU"
  bottom: "Convolution20"
  top: "Convolution20"
  param {
    lr_mult: 2
    decay_mult: 0
  }
  param {
    lr_mult: 2
    decay_mult: 0
  }
  param {
    lr_mult: 0
    decay_mult: 0
  }
  penlu_param {
    alpha_filler {
      type: "constant"
      value: 1
    }
    beta_filler {
      type: "constant"
      value: 1
    }
    eta_filler {
      type: "constant"
      value: 1
    }
  }
}
layer {
  name: "Convolution21"
  type: "Convolution"
  bottom: "Convolution20"
  top: "Convolution21"
  param {
    lr_mult: 1
    decay_mult: 1
  }
  param {
    lr_mult: 2
    decay_mult: 0
  }
  convolution_param {
    num_output: 64
    pad: 1
    kernel_size: 3
    stride: 1
    weight_filler {
      type: "gaussian"
      std: 0.059
    }
    bias_filler {
      type: "constant"
      value: 0
    }
  }
}
layer {
  name: "BatchNorm21"
  type: "BatchNorm"
  bottom: "Convolution21"
  top: "Convolution21"
  param {
    lr_mult: 0
    decay_mult: 0
  }
  param {
    lr_mult: 0
    decay_mult: 0
  }
  param {
    lr_mult: 0
    decay_mult: 0
  }
}
layer {
  name: "Scale21"
  type: "Scale"
  bottom: "Convolution21"
  top: "Convolution21"
  scale_param {
    bias_term: true
  }
}
layer {
  name: "Eltwise9"
  type: "Eltwise"
  bottom: "Eltwise8"
  bottom: "Convolution21"
  top: "Eltwise9"
  eltwise_param {
    operation: SUM
  }
}
layer {
  name: "penlu19"
  type: "PENLU"
  bottom: "Eltwise9"
  top: "Eltwise9"
  param {
    lr_mult: 2
    decay_mult: 0
  }
  param {
    lr_mult: 2
    decay_mult: 0
  }
  param {
    lr_mult: 0
    decay_mult: 0
  }
  penlu_param {
    alpha_filler {
      type: "constant"
      value: 1
    }
    beta_filler {
      type: "constant"
      value: 1
    }
    eta_filler {
      type: "constant"
      value: 1
    }
  }
}
layer {
  name: "Pooling1"
  type: "Pooling"
  bottom: "Eltwise9"
  top: "Pooling1"
  pooling_param {
    pool: AVE
    global_pooling: true
  }
}
layer {
  name: "InnerProduct1"
  type: "InnerProduct"
  bottom: "Pooling1"
  top: "InnerProduct1"
  param {
    lr_mult: 1
    decay_mult: 1
  }
  param {
    lr_mult: 2
    decay_mult: 1
  }
  inner_product_param {
    num_output: 10
    weight_filler {
      type: "gaussian"
      std: 0.01
    }
    bias_filler {
      type: "constant"
      value: 0
    }
  }
}
layer {
  name: "SoftmaxWithLoss1"
  type: "SoftmaxWithLoss"
  bottom: "InnerProduct1"
  bottom: "Data2"
  top: "SoftmaxWithLoss1"
}
I1005 10:19:46.866267  9385 layer_factory.hpp:77] Creating layer Data1
I1005 10:19:46.866361  9385 db_lmdb.cpp:35] Opened lmdb /home/x306/caffe/xn/PENLU/data/cifar10/cifar10_train_lmdb
I1005 10:19:46.866390  9385 net.cpp:84] Creating Layer Data1
I1005 10:19:46.866399  9385 net.cpp:380] Data1 -> Data1
I1005 10:19:46.866421  9385 net.cpp:380] Data1 -> Data2
I1005 10:19:46.866433  9385 data_transformer.cpp:25] Loading mean file from: /home/x306/caffe/xn/PENLU/data/cifar10/mean.binaryproto
I1005 10:19:46.867925  9385 data_layer.cpp:45] output data size: 100,3,28,28
I1005 10:19:46.870183  9385 net.cpp:122] Setting up Data1
I1005 10:19:46.870196  9385 net.cpp:129] Top shape: 100 3 28 28 (235200)
I1005 10:19:46.870201  9385 net.cpp:129] Top shape: 100 (100)
I1005 10:19:46.870203  9385 net.cpp:137] Memory required for data: 941200
I1005 10:19:46.870209  9385 layer_factory.hpp:77] Creating layer Convolution1
I1005 10:19:46.870225  9385 net.cpp:84] Creating Layer Convolution1
I1005 10:19:46.870229  9385 net.cpp:406] Convolution1 <- Data1
I1005 10:19:46.870240  9385 net.cpp:380] Convolution1 -> Convolution1
I1005 10:19:47.018599  9385 net.cpp:122] Setting up Convolution1
I1005 10:19:47.018623  9385 net.cpp:129] Top shape: 100 16 28 28 (1254400)
I1005 10:19:47.018627  9385 net.cpp:137] Memory required for data: 5958800
I1005 10:19:47.018641  9385 layer_factory.hpp:77] Creating layer BatchNorm1
I1005 10:19:47.018666  9385 net.cpp:84] Creating Layer BatchNorm1
I1005 10:19:47.018681  9385 net.cpp:406] BatchNorm1 <- Convolution1
I1005 10:19:47.018684  9385 net.cpp:367] BatchNorm1 -> Convolution1 (in-place)
I1005 10:19:47.018832  9385 net.cpp:122] Setting up BatchNorm1
I1005 10:19:47.018838  9385 net.cpp:129] Top shape: 100 16 28 28 (1254400)
I1005 10:19:47.018841  9385 net.cpp:137] Memory required for data: 10976400
I1005 10:19:47.018848  9385 layer_factory.hpp:77] Creating layer Scale1
I1005 10:19:47.018857  9385 net.cpp:84] Creating Layer Scale1
I1005 10:19:47.018858  9385 net.cpp:406] Scale1 <- Convolution1
I1005 10:19:47.018872  9385 net.cpp:367] Scale1 -> Convolution1 (in-place)
I1005 10:19:47.018932  9385 layer_factory.hpp:77] Creating layer Scale1
I1005 10:19:47.019073  9385 net.cpp:122] Setting up Scale1
I1005 10:19:47.019078  9385 net.cpp:129] Top shape: 100 16 28 28 (1254400)
I1005 10:19:47.019079  9385 net.cpp:137] Memory required for data: 15994000
I1005 10:19:47.019083  9385 layer_factory.hpp:77] Creating layer penlu1
I1005 10:19:47.019093  9385 net.cpp:84] Creating Layer penlu1
I1005 10:19:47.019094  9385 net.cpp:406] penlu1 <- Convolution1
I1005 10:19:47.019109  9385 net.cpp:367] penlu1 -> Convolution1 (in-place)
I1005 10:19:47.019733  9385 net.cpp:122] Setting up penlu1
I1005 10:19:47.019743  9385 net.cpp:129] Top shape: 100 16 28 28 (1254400)
I1005 10:19:47.019747  9385 net.cpp:137] Memory required for data: 21011600
I1005 10:19:47.019753  9385 layer_factory.hpp:77] Creating layer Convolution1_penlu1_0_split
I1005 10:19:47.019758  9385 net.cpp:84] Creating Layer Convolution1_penlu1_0_split
I1005 10:19:47.019760  9385 net.cpp:406] Convolution1_penlu1_0_split <- Convolution1
I1005 10:19:47.019774  9385 net.cpp:380] Convolution1_penlu1_0_split -> Convolution1_penlu1_0_split_0
I1005 10:19:47.019781  9385 net.cpp:380] Convolution1_penlu1_0_split -> Convolution1_penlu1_0_split_1
I1005 10:19:47.019824  9385 net.cpp:122] Setting up Convolution1_penlu1_0_split
I1005 10:19:47.019829  9385 net.cpp:129] Top shape: 100 16 28 28 (1254400)
I1005 10:19:47.019845  9385 net.cpp:129] Top shape: 100 16 28 28 (1254400)
I1005 10:19:47.019846  9385 net.cpp:137] Memory required for data: 31046800
I1005 10:19:47.019848  9385 layer_factory.hpp:77] Creating layer Convolution2
I1005 10:19:47.019855  9385 net.cpp:84] Creating Layer Convolution2
I1005 10:19:47.019858  9385 net.cpp:406] Convolution2 <- Convolution1_penlu1_0_split_0
I1005 10:19:47.019862  9385 net.cpp:380] Convolution2 -> Convolution2
I1005 10:19:47.020741  9385 net.cpp:122] Setting up Convolution2
I1005 10:19:47.020750  9385 net.cpp:129] Top shape: 100 16 28 28 (1254400)
I1005 10:19:47.020753  9385 net.cpp:137] Memory required for data: 36064400
I1005 10:19:47.020758  9385 layer_factory.hpp:77] Creating layer BatchNorm2
I1005 10:19:47.020784  9385 net.cpp:84] Creating Layer BatchNorm2
I1005 10:19:47.020788  9385 net.cpp:406] BatchNorm2 <- Convolution2
I1005 10:19:47.020803  9385 net.cpp:367] BatchNorm2 -> Convolution2 (in-place)
I1005 10:19:47.020941  9385 net.cpp:122] Setting up BatchNorm2
I1005 10:19:47.020946  9385 net.cpp:129] Top shape: 100 16 28 28 (1254400)
I1005 10:19:47.020948  9385 net.cpp:137] Memory required for data: 41082000
I1005 10:19:47.020953  9385 layer_factory.hpp:77] Creating layer Scale2
I1005 10:19:47.020959  9385 net.cpp:84] Creating Layer Scale2
I1005 10:19:47.020961  9385 net.cpp:406] Scale2 <- Convolution2
I1005 10:19:47.020975  9385 net.cpp:367] Scale2 -> Convolution2 (in-place)
I1005 10:19:47.021000  9385 layer_factory.hpp:77] Creating layer Scale2
I1005 10:19:47.021121  9385 net.cpp:122] Setting up Scale2
I1005 10:19:47.021126  9385 net.cpp:129] Top shape: 100 16 28 28 (1254400)
I1005 10:19:47.021128  9385 net.cpp:137] Memory required for data: 46099600
I1005 10:19:47.021144  9385 layer_factory.hpp:77] Creating layer penlu2
I1005 10:19:47.021152  9385 net.cpp:84] Creating Layer penlu2
I1005 10:19:47.021154  9385 net.cpp:406] penlu2 <- Convolution2
I1005 10:19:47.021157  9385 net.cpp:367] penlu2 -> Convolution2 (in-place)
I1005 10:19:47.021262  9385 net.cpp:122] Setting up penlu2
I1005 10:19:47.021268  9385 net.cpp:129] Top shape: 100 16 28 28 (1254400)
I1005 10:19:47.021270  9385 net.cpp:137] Memory required for data: 51117200
I1005 10:19:47.021275  9385 layer_factory.hpp:77] Creating layer Convolution3
I1005 10:19:47.021282  9385 net.cpp:84] Creating Layer Convolution3
I1005 10:19:47.021286  9385 net.cpp:406] Convolution3 <- Convolution2
I1005 10:19:47.021289  9385 net.cpp:380] Convolution3 -> Convolution3
I1005 10:19:47.022130  9385 net.cpp:122] Setting up Convolution3
I1005 10:19:47.022140  9385 net.cpp:129] Top shape: 100 16 28 28 (1254400)
I1005 10:19:47.022143  9385 net.cpp:137] Memory required for data: 56134800
I1005 10:19:47.022148  9385 layer_factory.hpp:77] Creating layer BatchNorm3
I1005 10:19:47.022155  9385 net.cpp:84] Creating Layer BatchNorm3
I1005 10:19:47.022157  9385 net.cpp:406] BatchNorm3 <- Convolution3
I1005 10:19:47.022161  9385 net.cpp:367] BatchNorm3 -> Convolution3 (in-place)
I1005 10:19:47.022281  9385 net.cpp:122] Setting up BatchNorm3
I1005 10:19:47.022286  9385 net.cpp:129] Top shape: 100 16 28 28 (1254400)
I1005 10:19:47.022289  9385 net.cpp:137] Memory required for data: 61152400
I1005 10:19:47.022294  9385 layer_factory.hpp:77] Creating layer Scale3
I1005 10:19:47.022298  9385 net.cpp:84] Creating Layer Scale3
I1005 10:19:47.022301  9385 net.cpp:406] Scale3 <- Convolution3
I1005 10:19:47.022305  9385 net.cpp:367] Scale3 -> Convolution3 (in-place)
I1005 10:19:47.022328  9385 layer_factory.hpp:77] Creating layer Scale3
I1005 10:19:47.022398  9385 net.cpp:122] Setting up Scale3
I1005 10:19:47.022404  9385 net.cpp:129] Top shape: 100 16 28 28 (1254400)
I1005 10:19:47.022406  9385 net.cpp:137] Memory required for data: 66170000
I1005 10:19:47.022410  9385 layer_factory.hpp:77] Creating layer Eltwise1
I1005 10:19:47.022414  9385 net.cpp:84] Creating Layer Eltwise1
I1005 10:19:47.022418  9385 net.cpp:406] Eltwise1 <- Convolution1_penlu1_0_split_1
I1005 10:19:47.022420  9385 net.cpp:406] Eltwise1 <- Convolution3
I1005 10:19:47.022423  9385 net.cpp:380] Eltwise1 -> Eltwise1
I1005 10:19:47.022439  9385 net.cpp:122] Setting up Eltwise1
I1005 10:19:47.022444  9385 net.cpp:129] Top shape: 100 16 28 28 (1254400)
I1005 10:19:47.022446  9385 net.cpp:137] Memory required for data: 71187600
I1005 10:19:47.022449  9385 layer_factory.hpp:77] Creating layer penlu3
I1005 10:19:47.022454  9385 net.cpp:84] Creating Layer penlu3
I1005 10:19:47.022456  9385 net.cpp:406] penlu3 <- Eltwise1
I1005 10:19:47.022460  9385 net.cpp:367] penlu3 -> Eltwise1 (in-place)
I1005 10:19:47.022598  9385 net.cpp:122] Setting up penlu3
I1005 10:19:47.022605  9385 net.cpp:129] Top shape: 100 16 28 28 (1254400)
I1005 10:19:47.022608  9385 net.cpp:137] Memory required for data: 76205200
I1005 10:19:47.022619  9385 layer_factory.hpp:77] Creating layer Eltwise1_penlu3_0_split
I1005 10:19:47.022625  9385 net.cpp:84] Creating Layer Eltwise1_penlu3_0_split
I1005 10:19:47.022629  9385 net.cpp:406] Eltwise1_penlu3_0_split <- Eltwise1
I1005 10:19:47.022631  9385 net.cpp:380] Eltwise1_penlu3_0_split -> Eltwise1_penlu3_0_split_0
I1005 10:19:47.022636  9385 net.cpp:380] Eltwise1_penlu3_0_split -> Eltwise1_penlu3_0_split_1
I1005 10:19:47.022658  9385 net.cpp:122] Setting up Eltwise1_penlu3_0_split
I1005 10:19:47.022663  9385 net.cpp:129] Top shape: 100 16 28 28 (1254400)
I1005 10:19:47.022666  9385 net.cpp:129] Top shape: 100 16 28 28 (1254400)
I1005 10:19:47.022670  9385 net.cpp:137] Memory required for data: 86240400
I1005 10:19:47.022672  9385 layer_factory.hpp:77] Creating layer Convolution4
I1005 10:19:47.022680  9385 net.cpp:84] Creating Layer Convolution4
I1005 10:19:47.022682  9385 net.cpp:406] Convolution4 <- Eltwise1_penlu3_0_split_0
I1005 10:19:47.022686  9385 net.cpp:380] Convolution4 -> Convolution4
I1005 10:19:47.023541  9385 net.cpp:122] Setting up Convolution4
I1005 10:19:47.023551  9385 net.cpp:129] Top shape: 100 16 28 28 (1254400)
I1005 10:19:47.023555  9385 net.cpp:137] Memory required for data: 91258000
I1005 10:19:47.023560  9385 layer_factory.hpp:77] Creating layer BatchNorm4
I1005 10:19:47.023566  9385 net.cpp:84] Creating Layer BatchNorm4
I1005 10:19:47.023569  9385 net.cpp:406] BatchNorm4 <- Convolution4
I1005 10:19:47.023572  9385 net.cpp:367] BatchNorm4 -> Convolution4 (in-place)
I1005 10:19:47.023692  9385 net.cpp:122] Setting up BatchNorm4
I1005 10:19:47.023697  9385 net.cpp:129] Top shape: 100 16 28 28 (1254400)
I1005 10:19:47.023699  9385 net.cpp:137] Memory required for data: 96275600
I1005 10:19:47.023707  9385 layer_factory.hpp:77] Creating layer Scale4
I1005 10:19:47.023715  9385 net.cpp:84] Creating Layer Scale4
I1005 10:19:47.023717  9385 net.cpp:406] Scale4 <- Convolution4
I1005 10:19:47.023720  9385 net.cpp:367] Scale4 -> Convolution4 (in-place)
I1005 10:19:47.023746  9385 layer_factory.hpp:77] Creating layer Scale4
I1005 10:19:47.023816  9385 net.cpp:122] Setting up Scale4
I1005 10:19:47.023821  9385 net.cpp:129] Top shape: 100 16 28 28 (1254400)
I1005 10:19:47.023823  9385 net.cpp:137] Memory required for data: 101293200
I1005 10:19:47.023828  9385 layer_factory.hpp:77] Creating layer penlu4
I1005 10:19:47.023834  9385 net.cpp:84] Creating Layer penlu4
I1005 10:19:47.023838  9385 net.cpp:406] penlu4 <- Convolution4
I1005 10:19:47.023841  9385 net.cpp:367] penlu4 -> Convolution4 (in-place)
I1005 10:19:47.023936  9385 net.cpp:122] Setting up penlu4
I1005 10:19:47.023941  9385 net.cpp:129] Top shape: 100 16 28 28 (1254400)
I1005 10:19:47.023942  9385 net.cpp:137] Memory required for data: 106310800
I1005 10:19:47.023947  9385 layer_factory.hpp:77] Creating layer Convolution5
I1005 10:19:47.023954  9385 net.cpp:84] Creating Layer Convolution5
I1005 10:19:47.023957  9385 net.cpp:406] Convolution5 <- Convolution4
I1005 10:19:47.023962  9385 net.cpp:380] Convolution5 -> Convolution5
I1005 10:19:47.024822  9385 net.cpp:122] Setting up Convolution5
I1005 10:19:47.024832  9385 net.cpp:129] Top shape: 100 16 28 28 (1254400)
I1005 10:19:47.024835  9385 net.cpp:137] Memory required for data: 111328400
I1005 10:19:47.024840  9385 layer_factory.hpp:77] Creating layer BatchNorm5
I1005 10:19:47.024845  9385 net.cpp:84] Creating Layer BatchNorm5
I1005 10:19:47.024848  9385 net.cpp:406] BatchNorm5 <- Convolution5
I1005 10:19:47.024852  9385 net.cpp:367] BatchNorm5 -> Convolution5 (in-place)
I1005 10:19:47.024972  9385 net.cpp:122] Setting up BatchNorm5
I1005 10:19:47.024977  9385 net.cpp:129] Top shape: 100 16 28 28 (1254400)
I1005 10:19:47.024979  9385 net.cpp:137] Memory required for data: 116346000
I1005 10:19:47.024984  9385 layer_factory.hpp:77] Creating layer Scale5
I1005 10:19:47.024989  9385 net.cpp:84] Creating Layer Scale5
I1005 10:19:47.024992  9385 net.cpp:406] Scale5 <- Convolution5
I1005 10:19:47.024996  9385 net.cpp:367] Scale5 -> Convolution5 (in-place)
I1005 10:19:47.025028  9385 layer_factory.hpp:77] Creating layer Scale5
I1005 10:19:47.025102  9385 net.cpp:122] Setting up Scale5
I1005 10:19:47.025107  9385 net.cpp:129] Top shape: 100 16 28 28 (1254400)
I1005 10:19:47.025110  9385 net.cpp:137] Memory required for data: 121363600
I1005 10:19:47.025113  9385 layer_factory.hpp:77] Creating layer Eltwise2
I1005 10:19:47.025118  9385 net.cpp:84] Creating Layer Eltwise2
I1005 10:19:47.025121  9385 net.cpp:406] Eltwise2 <- Eltwise1_penlu3_0_split_1
I1005 10:19:47.025125  9385 net.cpp:406] Eltwise2 <- Convolution5
I1005 10:19:47.025127  9385 net.cpp:380] Eltwise2 -> Eltwise2
I1005 10:19:47.025142  9385 net.cpp:122] Setting up Eltwise2
I1005 10:19:47.025146  9385 net.cpp:129] Top shape: 100 16 28 28 (1254400)
I1005 10:19:47.025148  9385 net.cpp:137] Memory required for data: 126381200
I1005 10:19:47.025151  9385 layer_factory.hpp:77] Creating layer penlu5
I1005 10:19:47.025156  9385 net.cpp:84] Creating Layer penlu5
I1005 10:19:47.025158  9385 net.cpp:406] penlu5 <- Eltwise2
I1005 10:19:47.025162  9385 net.cpp:367] penlu5 -> Eltwise2 (in-place)
I1005 10:19:47.025260  9385 net.cpp:122] Setting up penlu5
I1005 10:19:47.025265  9385 net.cpp:129] Top shape: 100 16 28 28 (1254400)
I1005 10:19:47.025267  9385 net.cpp:137] Memory required for data: 131398800
I1005 10:19:47.025272  9385 layer_factory.hpp:77] Creating layer Eltwise2_penlu5_0_split
I1005 10:19:47.025276  9385 net.cpp:84] Creating Layer Eltwise2_penlu5_0_split
I1005 10:19:47.025279  9385 net.cpp:406] Eltwise2_penlu5_0_split <- Eltwise2
I1005 10:19:47.025282  9385 net.cpp:380] Eltwise2_penlu5_0_split -> Eltwise2_penlu5_0_split_0
I1005 10:19:47.025286  9385 net.cpp:380] Eltwise2_penlu5_0_split -> Eltwise2_penlu5_0_split_1
I1005 10:19:47.025308  9385 net.cpp:122] Setting up Eltwise2_penlu5_0_split
I1005 10:19:47.025312  9385 net.cpp:129] Top shape: 100 16 28 28 (1254400)
I1005 10:19:47.025315  9385 net.cpp:129] Top shape: 100 16 28 28 (1254400)
I1005 10:19:47.025317  9385 net.cpp:137] Memory required for data: 141434000
I1005 10:19:47.025319  9385 layer_factory.hpp:77] Creating layer Convolution6
I1005 10:19:47.025326  9385 net.cpp:84] Creating Layer Convolution6
I1005 10:19:47.025329  9385 net.cpp:406] Convolution6 <- Eltwise2_penlu5_0_split_0
I1005 10:19:47.025333  9385 net.cpp:380] Convolution6 -> Convolution6
I1005 10:19:47.026180  9385 net.cpp:122] Setting up Convolution6
I1005 10:19:47.026190  9385 net.cpp:129] Top shape: 100 16 28 28 (1254400)
I1005 10:19:47.026192  9385 net.cpp:137] Memory required for data: 146451600
I1005 10:19:47.026197  9385 layer_factory.hpp:77] Creating layer BatchNorm6
I1005 10:19:47.026201  9385 net.cpp:84] Creating Layer BatchNorm6
I1005 10:19:47.026204  9385 net.cpp:406] BatchNorm6 <- Convolution6
I1005 10:19:47.026209  9385 net.cpp:367] BatchNorm6 -> Convolution6 (in-place)
I1005 10:19:47.026332  9385 net.cpp:122] Setting up BatchNorm6
I1005 10:19:47.026337  9385 net.cpp:129] Top shape: 100 16 28 28 (1254400)
I1005 10:19:47.026340  9385 net.cpp:137] Memory required for data: 151469200
I1005 10:19:47.026345  9385 layer_factory.hpp:77] Creating layer Scale6
I1005 10:19:47.026348  9385 net.cpp:84] Creating Layer Scale6
I1005 10:19:47.026351  9385 net.cpp:406] Scale6 <- Convolution6
I1005 10:19:47.026355  9385 net.cpp:367] Scale6 -> Convolution6 (in-place)
I1005 10:19:47.026378  9385 layer_factory.hpp:77] Creating layer Scale6
I1005 10:19:47.026449  9385 net.cpp:122] Setting up Scale6
I1005 10:19:47.026454  9385 net.cpp:129] Top shape: 100 16 28 28 (1254400)
I1005 10:19:47.026456  9385 net.cpp:137] Memory required for data: 156486800
I1005 10:19:47.026460  9385 layer_factory.hpp:77] Creating layer penlu6
I1005 10:19:47.026468  9385 net.cpp:84] Creating Layer penlu6
I1005 10:19:47.026471  9385 net.cpp:406] penlu6 <- Convolution6
I1005 10:19:47.026475  9385 net.cpp:367] penlu6 -> Convolution6 (in-place)
I1005 10:19:47.026598  9385 net.cpp:122] Setting up penlu6
I1005 10:19:47.026605  9385 net.cpp:129] Top shape: 100 16 28 28 (1254400)
I1005 10:19:47.026607  9385 net.cpp:137] Memory required for data: 161504400
I1005 10:19:47.026619  9385 layer_factory.hpp:77] Creating layer Convolution7
I1005 10:19:47.026626  9385 net.cpp:84] Creating Layer Convolution7
I1005 10:19:47.026629  9385 net.cpp:406] Convolution7 <- Convolution6
I1005 10:19:47.026634  9385 net.cpp:380] Convolution7 -> Convolution7
I1005 10:19:47.027163  9385 net.cpp:122] Setting up Convolution7
I1005 10:19:47.027173  9385 net.cpp:129] Top shape: 100 16 28 28 (1254400)
I1005 10:19:47.027176  9385 net.cpp:137] Memory required for data: 166522000
I1005 10:19:47.027180  9385 layer_factory.hpp:77] Creating layer BatchNorm7
I1005 10:19:47.027185  9385 net.cpp:84] Creating Layer BatchNorm7
I1005 10:19:47.027189  9385 net.cpp:406] BatchNorm7 <- Convolution7
I1005 10:19:47.027192  9385 net.cpp:367] BatchNorm7 -> Convolution7 (in-place)
I1005 10:19:47.027313  9385 net.cpp:122] Setting up BatchNorm7
I1005 10:19:47.027318  9385 net.cpp:129] Top shape: 100 16 28 28 (1254400)
I1005 10:19:47.027320  9385 net.cpp:137] Memory required for data: 171539600
I1005 10:19:47.027329  9385 layer_factory.hpp:77] Creating layer Scale7
I1005 10:19:47.027336  9385 net.cpp:84] Creating Layer Scale7
I1005 10:19:47.027339  9385 net.cpp:406] Scale7 <- Convolution7
I1005 10:19:47.027343  9385 net.cpp:367] Scale7 -> Convolution7 (in-place)
I1005 10:19:47.027367  9385 layer_factory.hpp:77] Creating layer Scale7
I1005 10:19:47.027439  9385 net.cpp:122] Setting up Scale7
I1005 10:19:47.027444  9385 net.cpp:129] Top shape: 100 16 28 28 (1254400)
I1005 10:19:47.027447  9385 net.cpp:137] Memory required for data: 176557200
I1005 10:19:47.027451  9385 layer_factory.hpp:77] Creating layer Eltwise3
I1005 10:19:47.027456  9385 net.cpp:84] Creating Layer Eltwise3
I1005 10:19:47.027457  9385 net.cpp:406] Eltwise3 <- Eltwise2_penlu5_0_split_1
I1005 10:19:47.027460  9385 net.cpp:406] Eltwise3 <- Convolution7
I1005 10:19:47.027463  9385 net.cpp:380] Eltwise3 -> Eltwise3
I1005 10:19:47.027478  9385 net.cpp:122] Setting up Eltwise3
I1005 10:19:47.027482  9385 net.cpp:129] Top shape: 100 16 28 28 (1254400)
I1005 10:19:47.027484  9385 net.cpp:137] Memory required for data: 181574800
I1005 10:19:47.027487  9385 layer_factory.hpp:77] Creating layer penlu7
I1005 10:19:47.027492  9385 net.cpp:84] Creating Layer penlu7
I1005 10:19:47.027494  9385 net.cpp:406] penlu7 <- Eltwise3
I1005 10:19:47.027498  9385 net.cpp:367] penlu7 -> Eltwise3 (in-place)
I1005 10:19:47.027597  9385 net.cpp:122] Setting up penlu7
I1005 10:19:47.027602  9385 net.cpp:129] Top shape: 100 16 28 28 (1254400)
I1005 10:19:47.027604  9385 net.cpp:137] Memory required for data: 186592400
I1005 10:19:47.027608  9385 layer_factory.hpp:77] Creating layer Eltwise3_penlu7_0_split
I1005 10:19:47.027612  9385 net.cpp:84] Creating Layer Eltwise3_penlu7_0_split
I1005 10:19:47.027614  9385 net.cpp:406] Eltwise3_penlu7_0_split <- Eltwise3
I1005 10:19:47.027618  9385 net.cpp:380] Eltwise3_penlu7_0_split -> Eltwise3_penlu7_0_split_0
I1005 10:19:47.027623  9385 net.cpp:380] Eltwise3_penlu7_0_split -> Eltwise3_penlu7_0_split_1
I1005 10:19:47.027643  9385 net.cpp:122] Setting up Eltwise3_penlu7_0_split
I1005 10:19:47.027647  9385 net.cpp:129] Top shape: 100 16 28 28 (1254400)
I1005 10:19:47.027650  9385 net.cpp:129] Top shape: 100 16 28 28 (1254400)
I1005 10:19:47.027652  9385 net.cpp:137] Memory required for data: 196627600
I1005 10:19:47.027654  9385 layer_factory.hpp:77] Creating layer Convolution8
I1005 10:19:47.027662  9385 net.cpp:84] Creating Layer Convolution8
I1005 10:19:47.027664  9385 net.cpp:406] Convolution8 <- Eltwise3_penlu7_0_split_0
I1005 10:19:47.027667  9385 net.cpp:380] Convolution8 -> Convolution8
I1005 10:19:47.028790  9385 net.cpp:122] Setting up Convolution8
I1005 10:19:47.028801  9385 net.cpp:129] Top shape: 100 32 14 14 (627200)
I1005 10:19:47.028805  9385 net.cpp:137] Memory required for data: 199136400
I1005 10:19:47.028810  9385 layer_factory.hpp:77] Creating layer BatchNorm8
I1005 10:19:47.028815  9385 net.cpp:84] Creating Layer BatchNorm8
I1005 10:19:47.028818  9385 net.cpp:406] BatchNorm8 <- Convolution8
I1005 10:19:47.028832  9385 net.cpp:367] BatchNorm8 -> Convolution8 (in-place)
I1005 10:19:47.028966  9385 net.cpp:122] Setting up BatchNorm8
I1005 10:19:47.028972  9385 net.cpp:129] Top shape: 100 32 14 14 (627200)
I1005 10:19:47.028975  9385 net.cpp:137] Memory required for data: 201645200
I1005 10:19:47.028980  9385 layer_factory.hpp:77] Creating layer Scale8
I1005 10:19:47.028985  9385 net.cpp:84] Creating Layer Scale8
I1005 10:19:47.028987  9385 net.cpp:406] Scale8 <- Convolution8
I1005 10:19:47.028991  9385 net.cpp:367] Scale8 -> Convolution8 (in-place)
I1005 10:19:47.029016  9385 layer_factory.hpp:77] Creating layer Scale8
I1005 10:19:47.029086  9385 net.cpp:122] Setting up Scale8
I1005 10:19:47.029091  9385 net.cpp:129] Top shape: 100 32 14 14 (627200)
I1005 10:19:47.029093  9385 net.cpp:137] Memory required for data: 204154000
I1005 10:19:47.029098  9385 layer_factory.hpp:77] Creating layer Convolution9
I1005 10:19:47.029104  9385 net.cpp:84] Creating Layer Convolution9
I1005 10:19:47.029108  9385 net.cpp:406] Convolution9 <- Eltwise3_penlu7_0_split_1
I1005 10:19:47.029111  9385 net.cpp:380] Convolution9 -> Convolution9
I1005 10:19:47.030539  9385 net.cpp:122] Setting up Convolution9
I1005 10:19:47.030550  9385 net.cpp:129] Top shape: 100 32 14 14 (627200)
I1005 10:19:47.030552  9385 net.cpp:137] Memory required for data: 206662800
I1005 10:19:47.030557  9385 layer_factory.hpp:77] Creating layer BatchNorm9
I1005 10:19:47.030562  9385 net.cpp:84] Creating Layer BatchNorm9
I1005 10:19:47.030565  9385 net.cpp:406] BatchNorm9 <- Convolution9
I1005 10:19:47.030570  9385 net.cpp:367] BatchNorm9 -> Convolution9 (in-place)
I1005 10:19:47.030833  9385 net.cpp:122] Setting up BatchNorm9
I1005 10:19:47.030841  9385 net.cpp:129] Top shape: 100 32 14 14 (627200)
I1005 10:19:47.030843  9385 net.cpp:137] Memory required for data: 209171600
I1005 10:19:47.030859  9385 layer_factory.hpp:77] Creating layer Scale9
I1005 10:19:47.030865  9385 net.cpp:84] Creating Layer Scale9
I1005 10:19:47.030869  9385 net.cpp:406] Scale9 <- Convolution9
I1005 10:19:47.030874  9385 net.cpp:367] Scale9 -> Convolution9 (in-place)
I1005 10:19:47.030901  9385 layer_factory.hpp:77] Creating layer Scale9
I1005 10:19:47.030975  9385 net.cpp:122] Setting up Scale9
I1005 10:19:47.030982  9385 net.cpp:129] Top shape: 100 32 14 14 (627200)
I1005 10:19:47.030983  9385 net.cpp:137] Memory required for data: 211680400
I1005 10:19:47.030988  9385 layer_factory.hpp:77] Creating layer penlu8
I1005 10:19:47.030994  9385 net.cpp:84] Creating Layer penlu8
I1005 10:19:47.030997  9385 net.cpp:406] penlu8 <- Convolution9
I1005 10:19:47.031002  9385 net.cpp:367] penlu8 -> Convolution9 (in-place)
I1005 10:19:47.031103  9385 net.cpp:122] Setting up penlu8
I1005 10:19:47.031108  9385 net.cpp:129] Top shape: 100 32 14 14 (627200)
I1005 10:19:47.031111  9385 net.cpp:137] Memory required for data: 214189200
I1005 10:19:47.031116  9385 layer_factory.hpp:77] Creating layer Convolution10
I1005 10:19:47.031122  9385 net.cpp:84] Creating Layer Convolution10
I1005 10:19:47.031126  9385 net.cpp:406] Convolution10 <- Convolution9
I1005 10:19:47.031131  9385 net.cpp:380] Convolution10 -> Convolution10
I1005 10:19:47.032207  9385 net.cpp:122] Setting up Convolution10
I1005 10:19:47.032236  9385 net.cpp:129] Top shape: 100 32 14 14 (627200)
I1005 10:19:47.032239  9385 net.cpp:137] Memory required for data: 216698000
I1005 10:19:47.032244  9385 layer_factory.hpp:77] Creating layer BatchNorm10
I1005 10:19:47.032249  9385 net.cpp:84] Creating Layer BatchNorm10
I1005 10:19:47.032253  9385 net.cpp:406] BatchNorm10 <- Convolution10
I1005 10:19:47.032258  9385 net.cpp:367] BatchNorm10 -> Convolution10 (in-place)
I1005 10:19:47.032397  9385 net.cpp:122] Setting up BatchNorm10
I1005 10:19:47.032402  9385 net.cpp:129] Top shape: 100 32 14 14 (627200)
I1005 10:19:47.032403  9385 net.cpp:137] Memory required for data: 219206800
I1005 10:19:47.032408  9385 layer_factory.hpp:77] Creating layer Scale10
I1005 10:19:47.032413  9385 net.cpp:84] Creating Layer Scale10
I1005 10:19:47.032415  9385 net.cpp:406] Scale10 <- Convolution10
I1005 10:19:47.032428  9385 net.cpp:367] Scale10 -> Convolution10 (in-place)
I1005 10:19:47.032455  9385 layer_factory.hpp:77] Creating layer Scale10
I1005 10:19:47.032529  9385 net.cpp:122] Setting up Scale10
I1005 10:19:47.032534  9385 net.cpp:129] Top shape: 100 32 14 14 (627200)
I1005 10:19:47.032536  9385 net.cpp:137] Memory required for data: 221715600
I1005 10:19:47.032541  9385 layer_factory.hpp:77] Creating layer Eltwise4
I1005 10:19:47.032544  9385 net.cpp:84] Creating Layer Eltwise4
I1005 10:19:47.032547  9385 net.cpp:406] Eltwise4 <- Convolution8
I1005 10:19:47.032551  9385 net.cpp:406] Eltwise4 <- Convolution10
I1005 10:19:47.032554  9385 net.cpp:380] Eltwise4 -> Eltwise4
I1005 10:19:47.032570  9385 net.cpp:122] Setting up Eltwise4
I1005 10:19:47.032585  9385 net.cpp:129] Top shape: 100 32 14 14 (627200)
I1005 10:19:47.032588  9385 net.cpp:137] Memory required for data: 224224400
I1005 10:19:47.032590  9385 layer_factory.hpp:77] Creating layer penlu9
I1005 10:19:47.032595  9385 net.cpp:84] Creating Layer penlu9
I1005 10:19:47.032598  9385 net.cpp:406] penlu9 <- Eltwise4
I1005 10:19:47.032603  9385 net.cpp:367] penlu9 -> Eltwise4 (in-place)
I1005 10:19:47.032723  9385 net.cpp:122] Setting up penlu9
I1005 10:19:47.032728  9385 net.cpp:129] Top shape: 100 32 14 14 (627200)
I1005 10:19:47.032740  9385 net.cpp:137] Memory required for data: 226733200
I1005 10:19:47.032745  9385 layer_factory.hpp:77] Creating layer Eltwise4_penlu9_0_split
I1005 10:19:47.032748  9385 net.cpp:84] Creating Layer Eltwise4_penlu9_0_split
I1005 10:19:47.032752  9385 net.cpp:406] Eltwise4_penlu9_0_split <- Eltwise4
I1005 10:19:47.032754  9385 net.cpp:380] Eltwise4_penlu9_0_split -> Eltwise4_penlu9_0_split_0
I1005 10:19:47.032759  9385 net.cpp:380] Eltwise4_penlu9_0_split -> Eltwise4_penlu9_0_split_1
I1005 10:19:47.032791  9385 net.cpp:122] Setting up Eltwise4_penlu9_0_split
I1005 10:19:47.032795  9385 net.cpp:129] Top shape: 100 32 14 14 (627200)
I1005 10:19:47.032809  9385 net.cpp:129] Top shape: 100 32 14 14 (627200)
I1005 10:19:47.032810  9385 net.cpp:137] Memory required for data: 231750800
I1005 10:19:47.032812  9385 layer_factory.hpp:77] Creating layer Convolution11
I1005 10:19:47.032819  9385 net.cpp:84] Creating Layer Convolution11
I1005 10:19:47.032821  9385 net.cpp:406] Convolution11 <- Eltwise4_penlu9_0_split_0
I1005 10:19:47.032826  9385 net.cpp:380] Convolution11 -> Convolution11
I1005 10:19:47.033860  9385 net.cpp:122] Setting up Convolution11
I1005 10:19:47.033871  9385 net.cpp:129] Top shape: 100 32 14 14 (627200)
I1005 10:19:47.033875  9385 net.cpp:137] Memory required for data: 234259600
I1005 10:19:47.033879  9385 layer_factory.hpp:77] Creating layer BatchNorm11
I1005 10:19:47.033885  9385 net.cpp:84] Creating Layer BatchNorm11
I1005 10:19:47.033887  9385 net.cpp:406] BatchNorm11 <- Convolution11
I1005 10:19:47.033892  9385 net.cpp:367] BatchNorm11 -> Convolution11 (in-place)
I1005 10:19:47.034024  9385 net.cpp:122] Setting up BatchNorm11
I1005 10:19:47.034029  9385 net.cpp:129] Top shape: 100 32 14 14 (627200)
I1005 10:19:47.034031  9385 net.cpp:137] Memory required for data: 236768400
I1005 10:19:47.034036  9385 layer_factory.hpp:77] Creating layer Scale11
I1005 10:19:47.034040  9385 net.cpp:84] Creating Layer Scale11
I1005 10:19:47.034044  9385 net.cpp:406] Scale11 <- Convolution11
I1005 10:19:47.034047  9385 net.cpp:367] Scale11 -> Convolution11 (in-place)
I1005 10:19:47.034073  9385 layer_factory.hpp:77] Creating layer Scale11
I1005 10:19:47.034149  9385 net.cpp:122] Setting up Scale11
I1005 10:19:47.034154  9385 net.cpp:129] Top shape: 100 32 14 14 (627200)
I1005 10:19:47.034157  9385 net.cpp:137] Memory required for data: 239277200
I1005 10:19:47.034160  9385 layer_factory.hpp:77] Creating layer penlu10
I1005 10:19:47.034165  9385 net.cpp:84] Creating Layer penlu10
I1005 10:19:47.034168  9385 net.cpp:406] penlu10 <- Convolution11
I1005 10:19:47.034173  9385 net.cpp:367] penlu10 -> Convolution11 (in-place)
I1005 10:19:47.034286  9385 net.cpp:122] Setting up penlu10
I1005 10:19:47.034291  9385 net.cpp:129] Top shape: 100 32 14 14 (627200)
I1005 10:19:47.034301  9385 net.cpp:137] Memory required for data: 241786000
I1005 10:19:47.034307  9385 layer_factory.hpp:77] Creating layer Convolution12
I1005 10:19:47.034323  9385 net.cpp:84] Creating Layer Convolution12
I1005 10:19:47.034327  9385 net.cpp:406] Convolution12 <- Convolution11
I1005 10:19:47.034332  9385 net.cpp:380] Convolution12 -> Convolution12
I1005 10:19:47.035400  9385 net.cpp:122] Setting up Convolution12
I1005 10:19:47.035410  9385 net.cpp:129] Top shape: 100 32 14 14 (627200)
I1005 10:19:47.035414  9385 net.cpp:137] Memory required for data: 244294800
I1005 10:19:47.035418  9385 layer_factory.hpp:77] Creating layer BatchNorm12
I1005 10:19:47.035424  9385 net.cpp:84] Creating Layer BatchNorm12
I1005 10:19:47.035428  9385 net.cpp:406] BatchNorm12 <- Convolution12
I1005 10:19:47.035431  9385 net.cpp:367] BatchNorm12 -> Convolution12 (in-place)
I1005 10:19:47.035567  9385 net.cpp:122] Setting up BatchNorm12
I1005 10:19:47.035571  9385 net.cpp:129] Top shape: 100 32 14 14 (627200)
I1005 10:19:47.035574  9385 net.cpp:137] Memory required for data: 246803600
I1005 10:19:47.035588  9385 layer_factory.hpp:77] Creating layer Scale12
I1005 10:19:47.035593  9385 net.cpp:84] Creating Layer Scale12
I1005 10:19:47.035596  9385 net.cpp:406] Scale12 <- Convolution12
I1005 10:19:47.035599  9385 net.cpp:367] Scale12 -> Convolution12 (in-place)
I1005 10:19:47.035626  9385 layer_factory.hpp:77] Creating layer Scale12
I1005 10:19:47.035701  9385 net.cpp:122] Setting up Scale12
I1005 10:19:47.035706  9385 net.cpp:129] Top shape: 100 32 14 14 (627200)
I1005 10:19:47.035708  9385 net.cpp:137] Memory required for data: 249312400
I1005 10:19:47.035712  9385 layer_factory.hpp:77] Creating layer Eltwise5
I1005 10:19:47.035717  9385 net.cpp:84] Creating Layer Eltwise5
I1005 10:19:47.035720  9385 net.cpp:406] Eltwise5 <- Eltwise4_penlu9_0_split_1
I1005 10:19:47.035723  9385 net.cpp:406] Eltwise5 <- Convolution12
I1005 10:19:47.035727  9385 net.cpp:380] Eltwise5 -> Eltwise5
I1005 10:19:47.035742  9385 net.cpp:122] Setting up Eltwise5
I1005 10:19:47.035748  9385 net.cpp:129] Top shape: 100 32 14 14 (627200)
I1005 10:19:47.035749  9385 net.cpp:137] Memory required for data: 251821200
I1005 10:19:47.035751  9385 layer_factory.hpp:77] Creating layer penlu11
I1005 10:19:47.035756  9385 net.cpp:84] Creating Layer penlu11
I1005 10:19:47.035759  9385 net.cpp:406] penlu11 <- Eltwise5
I1005 10:19:47.035763  9385 net.cpp:367] penlu11 -> Eltwise5 (in-place)
I1005 10:19:47.035868  9385 net.cpp:122] Setting up penlu11
I1005 10:19:47.035872  9385 net.cpp:129] Top shape: 100 32 14 14 (627200)
I1005 10:19:47.035876  9385 net.cpp:137] Memory required for data: 254330000
I1005 10:19:47.035881  9385 layer_factory.hpp:77] Creating layer Eltwise5_penlu11_0_split
I1005 10:19:47.035886  9385 net.cpp:84] Creating Layer Eltwise5_penlu11_0_split
I1005 10:19:47.035888  9385 net.cpp:406] Eltwise5_penlu11_0_split <- Eltwise5
I1005 10:19:47.035892  9385 net.cpp:380] Eltwise5_penlu11_0_split -> Eltwise5_penlu11_0_split_0
I1005 10:19:47.035897  9385 net.cpp:380] Eltwise5_penlu11_0_split -> Eltwise5_penlu11_0_split_1
I1005 10:19:47.035918  9385 net.cpp:122] Setting up Eltwise5_penlu11_0_split
I1005 10:19:47.035923  9385 net.cpp:129] Top shape: 100 32 14 14 (627200)
I1005 10:19:47.035926  9385 net.cpp:129] Top shape: 100 32 14 14 (627200)
I1005 10:19:47.035928  9385 net.cpp:137] Memory required for data: 259347600
I1005 10:19:47.035931  9385 layer_factory.hpp:77] Creating layer Convolution13
I1005 10:19:47.035936  9385 net.cpp:84] Creating Layer Convolution13
I1005 10:19:47.035940  9385 net.cpp:406] Convolution13 <- Eltwise5_penlu11_0_split_0
I1005 10:19:47.035944  9385 net.cpp:380] Convolution13 -> Convolution13
I1005 10:19:47.036976  9385 net.cpp:122] Setting up Convolution13
I1005 10:19:47.036986  9385 net.cpp:129] Top shape: 100 32 14 14 (627200)
I1005 10:19:47.036989  9385 net.cpp:137] Memory required for data: 261856400
I1005 10:19:47.036993  9385 layer_factory.hpp:77] Creating layer BatchNorm13
I1005 10:19:47.036999  9385 net.cpp:84] Creating Layer BatchNorm13
I1005 10:19:47.037009  9385 net.cpp:406] BatchNorm13 <- Convolution13
I1005 10:19:47.037014  9385 net.cpp:367] BatchNorm13 -> Convolution13 (in-place)
I1005 10:19:47.037145  9385 net.cpp:122] Setting up BatchNorm13
I1005 10:19:47.037151  9385 net.cpp:129] Top shape: 100 32 14 14 (627200)
I1005 10:19:47.037153  9385 net.cpp:137] Memory required for data: 264365200
I1005 10:19:47.037158  9385 layer_factory.hpp:77] Creating layer Scale13
I1005 10:19:47.037163  9385 net.cpp:84] Creating Layer Scale13
I1005 10:19:47.037166  9385 net.cpp:406] Scale13 <- Convolution13
I1005 10:19:47.037169  9385 net.cpp:367] Scale13 -> Convolution13 (in-place)
I1005 10:19:47.037196  9385 layer_factory.hpp:77] Creating layer Scale13
I1005 10:19:47.037271  9385 net.cpp:122] Setting up Scale13
I1005 10:19:47.037276  9385 net.cpp:129] Top shape: 100 32 14 14 (627200)
I1005 10:19:47.037278  9385 net.cpp:137] Memory required for data: 266874000
I1005 10:19:47.037282  9385 layer_factory.hpp:77] Creating layer penlu12
I1005 10:19:47.037288  9385 net.cpp:84] Creating Layer penlu12
I1005 10:19:47.037292  9385 net.cpp:406] penlu12 <- Convolution13
I1005 10:19:47.037295  9385 net.cpp:367] penlu12 -> Convolution13 (in-place)
I1005 10:19:47.037400  9385 net.cpp:122] Setting up penlu12
I1005 10:19:47.037405  9385 net.cpp:129] Top shape: 100 32 14 14 (627200)
I1005 10:19:47.037406  9385 net.cpp:137] Memory required for data: 269382800
I1005 10:19:47.037411  9385 layer_factory.hpp:77] Creating layer Convolution14
I1005 10:19:47.037418  9385 net.cpp:84] Creating Layer Convolution14
I1005 10:19:47.037421  9385 net.cpp:406] Convolution14 <- Convolution13
I1005 10:19:47.037425  9385 net.cpp:380] Convolution14 -> Convolution14
I1005 10:19:47.038485  9385 net.cpp:122] Setting up Convolution14
I1005 10:19:47.038494  9385 net.cpp:129] Top shape: 100 32 14 14 (627200)
I1005 10:19:47.038497  9385 net.cpp:137] Memory required for data: 271891600
I1005 10:19:47.038513  9385 layer_factory.hpp:77] Creating layer BatchNorm14
I1005 10:19:47.038525  9385 net.cpp:84] Creating Layer BatchNorm14
I1005 10:19:47.038529  9385 net.cpp:406] BatchNorm14 <- Convolution14
I1005 10:19:47.038533  9385 net.cpp:367] BatchNorm14 -> Convolution14 (in-place)
I1005 10:19:47.038663  9385 net.cpp:122] Setting up BatchNorm14
I1005 10:19:47.038669  9385 net.cpp:129] Top shape: 100 32 14 14 (627200)
I1005 10:19:47.038672  9385 net.cpp:137] Memory required for data: 274400400
I1005 10:19:47.038677  9385 layer_factory.hpp:77] Creating layer Scale14
I1005 10:19:47.038682  9385 net.cpp:84] Creating Layer Scale14
I1005 10:19:47.038686  9385 net.cpp:406] Scale14 <- Convolution14
I1005 10:19:47.038688  9385 net.cpp:367] Scale14 -> Convolution14 (in-place)
I1005 10:19:47.038714  9385 layer_factory.hpp:77] Creating layer Scale14
I1005 10:19:47.038790  9385 net.cpp:122] Setting up Scale14
I1005 10:19:47.038796  9385 net.cpp:129] Top shape: 100 32 14 14 (627200)
I1005 10:19:47.038799  9385 net.cpp:137] Memory required for data: 276909200
I1005 10:19:47.038802  9385 layer_factory.hpp:77] Creating layer Eltwise6
I1005 10:19:47.038806  9385 net.cpp:84] Creating Layer Eltwise6
I1005 10:19:47.038808  9385 net.cpp:406] Eltwise6 <- Eltwise5_penlu11_0_split_1
I1005 10:19:47.038811  9385 net.cpp:406] Eltwise6 <- Convolution14
I1005 10:19:47.038815  9385 net.cpp:380] Eltwise6 -> Eltwise6
I1005 10:19:47.038830  9385 net.cpp:122] Setting up Eltwise6
I1005 10:19:47.038833  9385 net.cpp:129] Top shape: 100 32 14 14 (627200)
I1005 10:19:47.038836  9385 net.cpp:137] Memory required for data: 279418000
I1005 10:19:47.038837  9385 layer_factory.hpp:77] Creating layer penlu13
I1005 10:19:47.038842  9385 net.cpp:84] Creating Layer penlu13
I1005 10:19:47.038844  9385 net.cpp:406] penlu13 <- Eltwise6
I1005 10:19:47.038848  9385 net.cpp:367] penlu13 -> Eltwise6 (in-place)
I1005 10:19:47.038972  9385 net.cpp:122] Setting up penlu13
I1005 10:19:47.038976  9385 net.cpp:129] Top shape: 100 32 14 14 (627200)
I1005 10:19:47.038978  9385 net.cpp:137] Memory required for data: 281926800
I1005 10:19:47.038982  9385 layer_factory.hpp:77] Creating layer Eltwise6_penlu13_0_split
I1005 10:19:47.038995  9385 net.cpp:84] Creating Layer Eltwise6_penlu13_0_split
I1005 10:19:47.038997  9385 net.cpp:406] Eltwise6_penlu13_0_split <- Eltwise6
I1005 10:19:47.039000  9385 net.cpp:380] Eltwise6_penlu13_0_split -> Eltwise6_penlu13_0_split_0
I1005 10:19:47.039005  9385 net.cpp:380] Eltwise6_penlu13_0_split -> Eltwise6_penlu13_0_split_1
I1005 10:19:47.039027  9385 net.cpp:122] Setting up Eltwise6_penlu13_0_split
I1005 10:19:47.039031  9385 net.cpp:129] Top shape: 100 32 14 14 (627200)
I1005 10:19:47.039034  9385 net.cpp:129] Top shape: 100 32 14 14 (627200)
I1005 10:19:47.039036  9385 net.cpp:137] Memory required for data: 286944400
I1005 10:19:47.039038  9385 layer_factory.hpp:77] Creating layer Convolution15
I1005 10:19:47.039043  9385 net.cpp:84] Creating Layer Convolution15
I1005 10:19:47.039047  9385 net.cpp:406] Convolution15 <- Eltwise6_penlu13_0_split_0
I1005 10:19:47.039050  9385 net.cpp:380] Convolution15 -> Convolution15
I1005 10:19:47.039933  9385 net.cpp:122] Setting up Convolution15
I1005 10:19:47.039942  9385 net.cpp:129] Top shape: 100 64 7 7 (313600)
I1005 10:19:47.039944  9385 net.cpp:137] Memory required for data: 288198800
I1005 10:19:47.039948  9385 layer_factory.hpp:77] Creating layer BatchNorm15
I1005 10:19:47.039954  9385 net.cpp:84] Creating Layer BatchNorm15
I1005 10:19:47.039957  9385 net.cpp:406] BatchNorm15 <- Convolution15
I1005 10:19:47.039960  9385 net.cpp:367] BatchNorm15 -> Convolution15 (in-place)
I1005 10:19:47.040091  9385 net.cpp:122] Setting up BatchNorm15
I1005 10:19:47.040094  9385 net.cpp:129] Top shape: 100 64 7 7 (313600)
I1005 10:19:47.040097  9385 net.cpp:137] Memory required for data: 289453200
I1005 10:19:47.040102  9385 layer_factory.hpp:77] Creating layer Scale15
I1005 10:19:47.040105  9385 net.cpp:84] Creating Layer Scale15
I1005 10:19:47.040108  9385 net.cpp:406] Scale15 <- Convolution15
I1005 10:19:47.040112  9385 net.cpp:367] Scale15 -> Convolution15 (in-place)
I1005 10:19:47.040138  9385 layer_factory.hpp:77] Creating layer Scale15
I1005 10:19:47.040210  9385 net.cpp:122] Setting up Scale15
I1005 10:19:47.040215  9385 net.cpp:129] Top shape: 100 64 7 7 (313600)
I1005 10:19:47.040217  9385 net.cpp:137] Memory required for data: 290707600
I1005 10:19:47.040220  9385 layer_factory.hpp:77] Creating layer Convolution16
I1005 10:19:47.040227  9385 net.cpp:84] Creating Layer Convolution16
I1005 10:19:47.040230  9385 net.cpp:406] Convolution16 <- Eltwise6_penlu13_0_split_1
I1005 10:19:47.040233  9385 net.cpp:380] Convolution16 -> Convolution16
I1005 10:19:47.041993  9385 net.cpp:122] Setting up Convolution16
I1005 10:19:47.042002  9385 net.cpp:129] Top shape: 100 64 7 7 (313600)
I1005 10:19:47.042006  9385 net.cpp:137] Memory required for data: 291962000
I1005 10:19:47.042011  9385 layer_factory.hpp:77] Creating layer BatchNorm16
I1005 10:19:47.042016  9385 net.cpp:84] Creating Layer BatchNorm16
I1005 10:19:47.042018  9385 net.cpp:406] BatchNorm16 <- Convolution16
I1005 10:19:47.042022  9385 net.cpp:367] BatchNorm16 -> Convolution16 (in-place)
I1005 10:19:47.042153  9385 net.cpp:122] Setting up BatchNorm16
I1005 10:19:47.042157  9385 net.cpp:129] Top shape: 100 64 7 7 (313600)
I1005 10:19:47.042160  9385 net.cpp:137] Memory required for data: 293216400
I1005 10:19:47.042165  9385 layer_factory.hpp:77] Creating layer Scale16
I1005 10:19:47.042168  9385 net.cpp:84] Creating Layer Scale16
I1005 10:19:47.042171  9385 net.cpp:406] Scale16 <- Convolution16
I1005 10:19:47.042173  9385 net.cpp:367] Scale16 -> Convolution16 (in-place)
I1005 10:19:47.042201  9385 layer_factory.hpp:77] Creating layer Scale16
I1005 10:19:47.042273  9385 net.cpp:122] Setting up Scale16
I1005 10:19:47.042277  9385 net.cpp:129] Top shape: 100 64 7 7 (313600)
I1005 10:19:47.042280  9385 net.cpp:137] Memory required for data: 294470800
I1005 10:19:47.042284  9385 layer_factory.hpp:77] Creating layer penlu14
I1005 10:19:47.042289  9385 net.cpp:84] Creating Layer penlu14
I1005 10:19:47.042290  9385 net.cpp:406] penlu14 <- Convolution16
I1005 10:19:47.042301  9385 net.cpp:367] penlu14 -> Convolution16 (in-place)
I1005 10:19:47.042407  9385 net.cpp:122] Setting up penlu14
I1005 10:19:47.042412  9385 net.cpp:129] Top shape: 100 64 7 7 (313600)
I1005 10:19:47.042413  9385 net.cpp:137] Memory required for data: 295725200
I1005 10:19:47.042418  9385 layer_factory.hpp:77] Creating layer Convolution17
I1005 10:19:47.042424  9385 net.cpp:84] Creating Layer Convolution17
I1005 10:19:47.042428  9385 net.cpp:406] Convolution17 <- Convolution16
I1005 10:19:47.042431  9385 net.cpp:380] Convolution17 -> Convolution17
I1005 10:19:47.044087  9385 net.cpp:122] Setting up Convolution17
I1005 10:19:47.044095  9385 net.cpp:129] Top shape: 100 64 7 7 (313600)
I1005 10:19:47.044098  9385 net.cpp:137] Memory required for data: 296979600
I1005 10:19:47.044103  9385 layer_factory.hpp:77] Creating layer BatchNorm17
I1005 10:19:47.044109  9385 net.cpp:84] Creating Layer BatchNorm17
I1005 10:19:47.044112  9385 net.cpp:406] BatchNorm17 <- Convolution17
I1005 10:19:47.044116  9385 net.cpp:367] BatchNorm17 -> Convolution17 (in-place)
I1005 10:19:47.044248  9385 net.cpp:122] Setting up BatchNorm17
I1005 10:19:47.044252  9385 net.cpp:129] Top shape: 100 64 7 7 (313600)
I1005 10:19:47.044255  9385 net.cpp:137] Memory required for data: 298234000
I1005 10:19:47.044260  9385 layer_factory.hpp:77] Creating layer Scale17
I1005 10:19:47.044263  9385 net.cpp:84] Creating Layer Scale17
I1005 10:19:47.044266  9385 net.cpp:406] Scale17 <- Convolution17
I1005 10:19:47.044270  9385 net.cpp:367] Scale17 -> Convolution17 (in-place)
I1005 10:19:47.044296  9385 layer_factory.hpp:77] Creating layer Scale17
I1005 10:19:47.044370  9385 net.cpp:122] Setting up Scale17
I1005 10:19:47.044374  9385 net.cpp:129] Top shape: 100 64 7 7 (313600)
I1005 10:19:47.044376  9385 net.cpp:137] Memory required for data: 299488400
I1005 10:19:47.044380  9385 layer_factory.hpp:77] Creating layer Eltwise7
I1005 10:19:47.044385  9385 net.cpp:84] Creating Layer Eltwise7
I1005 10:19:47.044387  9385 net.cpp:406] Eltwise7 <- Convolution15
I1005 10:19:47.044390  9385 net.cpp:406] Eltwise7 <- Convolution17
I1005 10:19:47.044394  9385 net.cpp:380] Eltwise7 -> Eltwise7
I1005 10:19:47.044409  9385 net.cpp:122] Setting up Eltwise7
I1005 10:19:47.044412  9385 net.cpp:129] Top shape: 100 64 7 7 (313600)
I1005 10:19:47.044414  9385 net.cpp:137] Memory required for data: 300742800
I1005 10:19:47.044416  9385 layer_factory.hpp:77] Creating layer penlu15
I1005 10:19:47.044422  9385 net.cpp:84] Creating Layer penlu15
I1005 10:19:47.044425  9385 net.cpp:406] penlu15 <- Eltwise7
I1005 10:19:47.044427  9385 net.cpp:367] penlu15 -> Eltwise7 (in-place)
I1005 10:19:47.044533  9385 net.cpp:122] Setting up penlu15
I1005 10:19:47.044538  9385 net.cpp:129] Top shape: 100 64 7 7 (313600)
I1005 10:19:47.044539  9385 net.cpp:137] Memory required for data: 301997200
I1005 10:19:47.044543  9385 layer_factory.hpp:77] Creating layer Eltwise7_penlu15_0_split
I1005 10:19:47.044548  9385 net.cpp:84] Creating Layer Eltwise7_penlu15_0_split
I1005 10:19:47.044549  9385 net.cpp:406] Eltwise7_penlu15_0_split <- Eltwise7
I1005 10:19:47.044553  9385 net.cpp:380] Eltwise7_penlu15_0_split -> Eltwise7_penlu15_0_split_0
I1005 10:19:47.044556  9385 net.cpp:380] Eltwise7_penlu15_0_split -> Eltwise7_penlu15_0_split_1
I1005 10:19:47.044579  9385 net.cpp:122] Setting up Eltwise7_penlu15_0_split
I1005 10:19:47.044581  9385 net.cpp:129] Top shape: 100 64 7 7 (313600)
I1005 10:19:47.044584  9385 net.cpp:129] Top shape: 100 64 7 7 (313600)
I1005 10:19:47.044586  9385 net.cpp:137] Memory required for data: 304506000
I1005 10:19:47.044589  9385 layer_factory.hpp:77] Creating layer Convolution18
I1005 10:19:47.044611  9385 net.cpp:84] Creating Layer Convolution18
I1005 10:19:47.044613  9385 net.cpp:406] Convolution18 <- Eltwise7_penlu15_0_split_0
I1005 10:19:47.044630  9385 net.cpp:380] Convolution18 -> Convolution18
I1005 10:19:47.046504  9385 net.cpp:122] Setting up Convolution18
I1005 10:19:47.046515  9385 net.cpp:129] Top shape: 100 64 7 7 (313600)
I1005 10:19:47.046519  9385 net.cpp:137] Memory required for data: 305760400
I1005 10:19:47.046537  9385 layer_factory.hpp:77] Creating layer BatchNorm18
I1005 10:19:47.046543  9385 net.cpp:84] Creating Layer BatchNorm18
I1005 10:19:47.046546  9385 net.cpp:406] BatchNorm18 <- Convolution18
I1005 10:19:47.046550  9385 net.cpp:367] BatchNorm18 -> Convolution18 (in-place)
I1005 10:19:47.046687  9385 net.cpp:122] Setting up BatchNorm18
I1005 10:19:47.046692  9385 net.cpp:129] Top shape: 100 64 7 7 (313600)
I1005 10:19:47.046694  9385 net.cpp:137] Memory required for data: 307014800
I1005 10:19:47.046700  9385 layer_factory.hpp:77] Creating layer Scale18
I1005 10:19:47.046705  9385 net.cpp:84] Creating Layer Scale18
I1005 10:19:47.046706  9385 net.cpp:406] Scale18 <- Convolution18
I1005 10:19:47.046710  9385 net.cpp:367] Scale18 -> Convolution18 (in-place)
I1005 10:19:47.046737  9385 layer_factory.hpp:77] Creating layer Scale18
I1005 10:19:47.046834  9385 net.cpp:122] Setting up Scale18
I1005 10:19:47.046840  9385 net.cpp:129] Top shape: 100 64 7 7 (313600)
I1005 10:19:47.046852  9385 net.cpp:137] Memory required for data: 308269200
I1005 10:19:47.046856  9385 layer_factory.hpp:77] Creating layer penlu16
I1005 10:19:47.046861  9385 net.cpp:84] Creating Layer penlu16
I1005 10:19:47.046864  9385 net.cpp:406] penlu16 <- Convolution18
I1005 10:19:47.046869  9385 net.cpp:367] penlu16 -> Convolution18 (in-place)
I1005 10:19:47.046983  9385 net.cpp:122] Setting up penlu16
I1005 10:19:47.046989  9385 net.cpp:129] Top shape: 100 64 7 7 (313600)
I1005 10:19:47.047000  9385 net.cpp:137] Memory required for data: 309523600
I1005 10:19:47.047005  9385 layer_factory.hpp:77] Creating layer Convolution19
I1005 10:19:47.047011  9385 net.cpp:84] Creating Layer Convolution19
I1005 10:19:47.047014  9385 net.cpp:406] Convolution19 <- Convolution18
I1005 10:19:47.047019  9385 net.cpp:380] Convolution19 -> Convolution19
I1005 10:19:47.049161  9385 net.cpp:122] Setting up Convolution19
I1005 10:19:47.049171  9385 net.cpp:129] Top shape: 100 64 7 7 (313600)
I1005 10:19:47.049175  9385 net.cpp:137] Memory required for data: 310778000
I1005 10:19:47.049180  9385 layer_factory.hpp:77] Creating layer BatchNorm19
I1005 10:19:47.049185  9385 net.cpp:84] Creating Layer BatchNorm19
I1005 10:19:47.049190  9385 net.cpp:406] BatchNorm19 <- Convolution19
I1005 10:19:47.049193  9385 net.cpp:367] BatchNorm19 -> Convolution19 (in-place)
I1005 10:19:47.049347  9385 net.cpp:122] Setting up BatchNorm19
I1005 10:19:47.049352  9385 net.cpp:129] Top shape: 100 64 7 7 (313600)
I1005 10:19:47.049355  9385 net.cpp:137] Memory required for data: 312032400
I1005 10:19:47.049360  9385 layer_factory.hpp:77] Creating layer Scale19
I1005 10:19:47.049365  9385 net.cpp:84] Creating Layer Scale19
I1005 10:19:47.049367  9385 net.cpp:406] Scale19 <- Convolution19
I1005 10:19:47.049371  9385 net.cpp:367] Scale19 -> Convolution19 (in-place)
I1005 10:19:47.049397  9385 layer_factory.hpp:77] Creating layer Scale19
I1005 10:19:47.049475  9385 net.cpp:122] Setting up Scale19
I1005 10:19:47.049479  9385 net.cpp:129] Top shape: 100 64 7 7 (313600)
I1005 10:19:47.049482  9385 net.cpp:137] Memory required for data: 313286800
I1005 10:19:47.049486  9385 layer_factory.hpp:77] Creating layer Eltwise8
I1005 10:19:47.049490  9385 net.cpp:84] Creating Layer Eltwise8
I1005 10:19:47.049494  9385 net.cpp:406] Eltwise8 <- Eltwise7_penlu15_0_split_1
I1005 10:19:47.049496  9385 net.cpp:406] Eltwise8 <- Convolution19
I1005 10:19:47.049501  9385 net.cpp:380] Eltwise8 -> Eltwise8
I1005 10:19:47.049517  9385 net.cpp:122] Setting up Eltwise8
I1005 10:19:47.049521  9385 net.cpp:129] Top shape: 100 64 7 7 (313600)
I1005 10:19:47.049523  9385 net.cpp:137] Memory required for data: 314541200
I1005 10:19:47.049525  9385 layer_factory.hpp:77] Creating layer penlu17
I1005 10:19:47.049531  9385 net.cpp:84] Creating Layer penlu17
I1005 10:19:47.049535  9385 net.cpp:406] penlu17 <- Eltwise8
I1005 10:19:47.049538  9385 net.cpp:367] penlu17 -> Eltwise8 (in-place)
I1005 10:19:47.049656  9385 net.cpp:122] Setting up penlu17
I1005 10:19:47.049661  9385 net.cpp:129] Top shape: 100 64 7 7 (313600)
I1005 10:19:47.049671  9385 net.cpp:137] Memory required for data: 315795600
I1005 10:19:47.049687  9385 layer_factory.hpp:77] Creating layer Eltwise8_penlu17_0_split
I1005 10:19:47.049692  9385 net.cpp:84] Creating Layer Eltwise8_penlu17_0_split
I1005 10:19:47.049695  9385 net.cpp:406] Eltwise8_penlu17_0_split <- Eltwise8
I1005 10:19:47.049698  9385 net.cpp:380] Eltwise8_penlu17_0_split -> Eltwise8_penlu17_0_split_0
I1005 10:19:47.049703  9385 net.cpp:380] Eltwise8_penlu17_0_split -> Eltwise8_penlu17_0_split_1
I1005 10:19:47.049727  9385 net.cpp:122] Setting up Eltwise8_penlu17_0_split
I1005 10:19:47.049732  9385 net.cpp:129] Top shape: 100 64 7 7 (313600)
I1005 10:19:47.049736  9385 net.cpp:129] Top shape: 100 64 7 7 (313600)
I1005 10:19:47.049737  9385 net.cpp:137] Memory required for data: 318304400
I1005 10:19:47.049739  9385 layer_factory.hpp:77] Creating layer Convolution20
I1005 10:19:47.049746  9385 net.cpp:84] Creating Layer Convolution20
I1005 10:19:47.049748  9385 net.cpp:406] Convolution20 <- Eltwise8_penlu17_0_split_0
I1005 10:19:47.049753  9385 net.cpp:380] Convolution20 -> Convolution20
I1005 10:19:47.051445  9385 net.cpp:122] Setting up Convolution20
I1005 10:19:47.051456  9385 net.cpp:129] Top shape: 100 64 7 7 (313600)
I1005 10:19:47.051460  9385 net.cpp:137] Memory required for data: 319558800
I1005 10:19:47.051465  9385 layer_factory.hpp:77] Creating layer BatchNorm20
I1005 10:19:47.051471  9385 net.cpp:84] Creating Layer BatchNorm20
I1005 10:19:47.051475  9385 net.cpp:406] BatchNorm20 <- Convolution20
I1005 10:19:47.051478  9385 net.cpp:367] BatchNorm20 -> Convolution20 (in-place)
I1005 10:19:47.051610  9385 net.cpp:122] Setting up BatchNorm20
I1005 10:19:47.051615  9385 net.cpp:129] Top shape: 100 64 7 7 (313600)
I1005 10:19:47.051618  9385 net.cpp:137] Memory required for data: 320813200
I1005 10:19:47.051623  9385 layer_factory.hpp:77] Creating layer Scale20
I1005 10:19:47.051628  9385 net.cpp:84] Creating Layer Scale20
I1005 10:19:47.051631  9385 net.cpp:406] Scale20 <- Convolution20
I1005 10:19:47.051635  9385 net.cpp:367] Scale20 -> Convolution20 (in-place)
I1005 10:19:47.051663  9385 layer_factory.hpp:77] Creating layer Scale20
I1005 10:19:47.051740  9385 net.cpp:122] Setting up Scale20
I1005 10:19:47.051745  9385 net.cpp:129] Top shape: 100 64 7 7 (313600)
I1005 10:19:47.051748  9385 net.cpp:137] Memory required for data: 322067600
I1005 10:19:47.051753  9385 layer_factory.hpp:77] Creating layer penlu18
I1005 10:19:47.051759  9385 net.cpp:84] Creating Layer penlu18
I1005 10:19:47.051762  9385 net.cpp:406] penlu18 <- Convolution20
I1005 10:19:47.051765  9385 net.cpp:367] penlu18 -> Convolution20 (in-place)
I1005 10:19:47.051872  9385 net.cpp:122] Setting up penlu18
I1005 10:19:47.051875  9385 net.cpp:129] Top shape: 100 64 7 7 (313600)
I1005 10:19:47.051877  9385 net.cpp:137] Memory required for data: 323322000
I1005 10:19:47.051882  9385 layer_factory.hpp:77] Creating layer Convolution21
I1005 10:19:47.051889  9385 net.cpp:84] Creating Layer Convolution21
I1005 10:19:47.051892  9385 net.cpp:406] Convolution21 <- Convolution20
I1005 10:19:47.051895  9385 net.cpp:380] Convolution21 -> Convolution21
I1005 10:19:47.054177  9385 net.cpp:122] Setting up Convolution21
I1005 10:19:47.054185  9385 net.cpp:129] Top shape: 100 64 7 7 (313600)
I1005 10:19:47.054188  9385 net.cpp:137] Memory required for data: 324576400
I1005 10:19:47.054193  9385 layer_factory.hpp:77] Creating layer BatchNorm21
I1005 10:19:47.054198  9385 net.cpp:84] Creating Layer BatchNorm21
I1005 10:19:47.054200  9385 net.cpp:406] BatchNorm21 <- Convolution21
I1005 10:19:47.054204  9385 net.cpp:367] BatchNorm21 -> Convolution21 (in-place)
I1005 10:19:47.054353  9385 net.cpp:122] Setting up BatchNorm21
I1005 10:19:47.054358  9385 net.cpp:129] Top shape: 100 64 7 7 (313600)
I1005 10:19:47.054360  9385 net.cpp:137] Memory required for data: 325830800
I1005 10:19:47.054365  9385 layer_factory.hpp:77] Creating layer Scale21
I1005 10:19:47.054369  9385 net.cpp:84] Creating Layer Scale21
I1005 10:19:47.054378  9385 net.cpp:406] Scale21 <- Convolution21
I1005 10:19:47.054383  9385 net.cpp:367] Scale21 -> Convolution21 (in-place)
I1005 10:19:47.054414  9385 layer_factory.hpp:77] Creating layer Scale21
I1005 10:19:47.054496  9385 net.cpp:122] Setting up Scale21
I1005 10:19:47.054500  9385 net.cpp:129] Top shape: 100 64 7 7 (313600)
I1005 10:19:47.054502  9385 net.cpp:137] Memory required for data: 327085200
I1005 10:19:47.054507  9385 layer_factory.hpp:77] Creating layer Eltwise9
I1005 10:19:47.054512  9385 net.cpp:84] Creating Layer Eltwise9
I1005 10:19:47.054513  9385 net.cpp:406] Eltwise9 <- Eltwise8_penlu17_0_split_1
I1005 10:19:47.054517  9385 net.cpp:406] Eltwise9 <- Convolution21
I1005 10:19:47.054523  9385 net.cpp:380] Eltwise9 -> Eltwise9
I1005 10:19:47.054543  9385 net.cpp:122] Setting up Eltwise9
I1005 10:19:47.054555  9385 net.cpp:129] Top shape: 100 64 7 7 (313600)
I1005 10:19:47.054558  9385 net.cpp:137] Memory required for data: 328339600
I1005 10:19:47.054559  9385 layer_factory.hpp:77] Creating layer penlu19
I1005 10:19:47.054564  9385 net.cpp:84] Creating Layer penlu19
I1005 10:19:47.054566  9385 net.cpp:406] penlu19 <- Eltwise9
I1005 10:19:47.054570  9385 net.cpp:367] penlu19 -> Eltwise9 (in-place)
I1005 10:19:47.054678  9385 net.cpp:122] Setting up penlu19
I1005 10:19:47.054682  9385 net.cpp:129] Top shape: 100 64 7 7 (313600)
I1005 10:19:47.054684  9385 net.cpp:137] Memory required for data: 329594000
I1005 10:19:47.054688  9385 layer_factory.hpp:77] Creating layer Pooling1
I1005 10:19:47.054693  9385 net.cpp:84] Creating Layer Pooling1
I1005 10:19:47.054697  9385 net.cpp:406] Pooling1 <- Eltwise9
I1005 10:19:47.054699  9385 net.cpp:380] Pooling1 -> Pooling1
I1005 10:19:47.054853  9385 net.cpp:122] Setting up Pooling1
I1005 10:19:47.054859  9385 net.cpp:129] Top shape: 100 64 1 1 (6400)
I1005 10:19:47.054862  9385 net.cpp:137] Memory required for data: 329619600
I1005 10:19:47.054864  9385 layer_factory.hpp:77] Creating layer InnerProduct1
I1005 10:19:47.054872  9385 net.cpp:84] Creating Layer InnerProduct1
I1005 10:19:47.054875  9385 net.cpp:406] InnerProduct1 <- Pooling1
I1005 10:19:47.054879  9385 net.cpp:380] InnerProduct1 -> InnerProduct1
I1005 10:19:47.054971  9385 net.cpp:122] Setting up InnerProduct1
I1005 10:19:47.054976  9385 net.cpp:129] Top shape: 100 10 (1000)
I1005 10:19:47.054978  9385 net.cpp:137] Memory required for data: 329623600
I1005 10:19:47.054981  9385 layer_factory.hpp:77] Creating layer SoftmaxWithLoss1
I1005 10:19:47.054986  9385 net.cpp:84] Creating Layer SoftmaxWithLoss1
I1005 10:19:47.054989  9385 net.cpp:406] SoftmaxWithLoss1 <- InnerProduct1
I1005 10:19:47.054991  9385 net.cpp:406] SoftmaxWithLoss1 <- Data2
I1005 10:19:47.054996  9385 net.cpp:380] SoftmaxWithLoss1 -> SoftmaxWithLoss1
…
I1005 10:19:47.057551  9385 net.cpp:294] The NetState phase (1) differed from the phase (0) specified by a rule in layer Data1
I1005 10:19:47.058019  9385 net.cpp:51] Initializing net from parameters: 
name: "resnet_cifar10"
state {
  phase: TEST
}
layer {
  name: "Data1"
  type: "Data"
  top: "Data1"
  top: "Data2"
  include {
    phase: TEST
  }
  transform_param {
    mean_file: "/home/x306/caffe/xn/PENLU/data/cifar10/mean.binaryproto"
  }
  data_param {
    source: "/home/x306/caffe/xn/PENLU/data/cifar10/cifar10_test_lmdb"
    batch_size: 100
    backend: LMDB
  }
}
layer {
  name: "Convolution1"
  type: "Convolution"
  bottom: "Data1"
  top: "Convolution1"
  param {
    lr_mult: 1
    decay_mult: 1
  }
  param {
    lr_mult: 2
    decay_mult: 0
  }
  convolution_param {
    num_output: 16
    pad: 1
    kernel_size: 3
    stride: 1
    weight_filler {
      type: "gaussian"
      std: 0.118
    }
    bias_filler {
      type: "constant"
      value: 0
    }
  }
}
layer {
  name: "BatchNorm1"
  type: "BatchNorm"
  bottom: "Convolution1"
  top: "Convolution1"
  param {
    lr_mult: 0
    decay_mult: 0
  }
  param {
    lr_mult: 0
    decay_mult: 0
  }
  param {
    lr_mult: 0
    decay_mult: 0
  }
}
layer {
  name: "Scale1"
  type: "Scale"
  bottom: "Convolution1"
  top: "Convolution1"
  scale_param {
    bias_term: true
  }
}
layer {
  name: "penlu1"
  type: "PENLU"
  bottom: "Convolution1"
  top: "Convolution1"
  param {
    lr_mult: 2
    decay_mult: 0
  }
  param {
    lr_mult: 2
    decay_mult: 0
  }
  param {
    lr_mult: 0
    decay_mult: 0
  }
  penlu_param {
    alpha_filler {
      type: "constant"
      value: 1
    }
    beta_filler {
      type: "constant"
      value: 1
    }
    eta_filler {
      type: "constant"
      value: 1
    }
  }
}
layer {
  name: "Convolution2"
  type: "Convolution"
  bottom: "Convolution1"
  top: "Convolution2"
  param {
    lr_mult: 1
    decay_mult: 1
  }
  param {
    lr_mult: 2
    decay_mult: 0
  }
  convolution_param {
    num_output: 16
    pad: 1
    kernel_size: 3
    stride: 1
    weight_filler {
      type: "gaussian"
      std: 0.118
    }
    bias_filler {
      type: "constant"
      value: 0
    }
  }
}
layer {
  name: "BatchNorm2"
  type: "BatchNorm"
  bottom: "Convolution2"
  top: "Convolution2"
  param {
    lr_mult: 0
    decay_mult: 0
  }
  param {
    lr_mult: 0
    decay_mult: 0
  }
  param {
    lr_mult: 0
    decay_mult: 0
  }
}
layer {
  name: "Scale2"
  type: "Scale"
  bottom: "Convolution2"
  top: "Convolution2"
  scale_param {
    bias_term: true
  }
}
layer {
  name: "penlu2"
  type: "PENLU"
  bottom: "Convolution2"
  top: "Convolution2"
  param {
    lr_mult: 2
    decay_mult: 0
  }
  param {
    lr_mult: 2
    decay_mult: 0
  }
  param {
    lr_mult: 0
    decay_mult: 0
  }
  penlu_param {
    alpha_filler {
      type: "constant"
      value: 1
    }
    beta_filler {
      type: "constant"
      value: 1
    }
    eta_filler {
      type: "constant"
      value: 1
    }
  }
}
layer {
  name: "Convolution3"
  type: "Convolution"
  bottom: "Convolution2"
  top: "Convolution3"
  param {
    lr_mult: 1
    decay_mult: 1
  }
  param {
    lr_mult: 2
    decay_mult: 0
  }
  convolution_param {
    num_output: 16
    pad: 1
    kernel_size: 3
    stride: 1
    weight_filler {
      type: "gaussian"
      std: 0.118
    }
    bias_filler {
      type: "constant"
      value: 0
    }
  }
}
layer {
  name: "BatchNorm3"
  type: "BatchNorm"
  bottom: "Convolution3"
  top: "Convolution3"
  param {
    lr_mult: 0
    decay_mult: 0
  }
  param {
    lr_mult: 0
    decay_mult: 0
  }
  param {
    lr_mult: 0
    decay_mult: 0
  }
}
layer {
  name: "Scale3"
  type: "Scale"
  bottom: "Convolution3"
  top: "Convolution3"
  scale_param {
    bias_term: true
  }
}
layer {
  name: "Eltwise1"
  type: "Eltwise"
  bottom: "Convolution1"
  bottom: "Convolution3"
  top: "Eltwise1"
  eltwise_param {
    operation: SUM
  }
}
layer {
  name: "penlu3"
  type: "PENLU"
  bottom: "Eltwise1"
  top: "Eltwise1"
  param {
    lr_mult: 2
    decay_mult: 0
  }
  param {
    lr_mult: 2
    decay_mult: 0
  }
  param {
    lr_mult: 0
    decay_mult: 0
  }
  penlu_param {
    alpha_filler {
      type: "constant"
      value: 1
    }
    beta_filler {
      type: "constant"
      value: 1
    }
    eta_filler {
      type: "constant"
      value: 1
    }
  }
}
layer {
  name: "Convolution4"
  type: "Convolution"
  bottom: "Eltwise1"
  top: "Convolution4"
  param {
    lr_mult: 1
    decay_mult: 1
  }
  param {
    lr_mult: 2
    decay_mult: 0
  }
  convolution_param {
    num_output: 16
    pad: 1
    kernel_size: 3
    stride: 1
    weight_filler {
      type: "gaussian"
      std: 0.118
    }
    bias_filler {
      type: "constant"
      value: 0
    }
  }
}
layer {
  name: "BatchNorm4"
  type: "BatchNorm"
  bottom: "Convolution4"
  top: "Convolution4"
  param {
    lr_mult: 0
    decay_mult: 0
  }
  param {
    lr_mult: 0
    decay_mult: 0
  }
  param {
    lr_mult: 0
    decay_mult: 0
  }
}
layer {
  name: "Scale4"
  type: "Scale"
  bottom: "Convolution4"
  top: "Convolution4"
  scale_param {
    bias_term: true
  }
}
layer {
  name: "penlu4"
  type: "PENLU"
  bottom: "Convolution4"
  top: "Convolution4"
  param {
    lr_mult: 2
    decay_mult: 0
  }
  param {
    lr_mult: 2
    decay_mult: 0
  }
  param {
    lr_mult: 0
    decay_mult: 0
  }
  penlu_param {
    alpha_filler {
      type: "constant"
      value: 1
    }
    beta_filler {
      type: "constant"
      value: 1
    }
    eta_filler {
      type: "constant"
      value: 1
    }
  }
}
layer {
  name: "Convolution5"
  type: "Convolution"
  bottom: "Convolution4"
  top: "Convolution5"
  param {
    lr_mult: 1
    decay_mult: 1
  }
  param {
    lr_mult: 2
    decay_mult: 0
  }
  convolution_param {
    num_output: 16
    pad: 1
    kernel_size: 3
    stride: 1
    weight_filler {
      type: "gaussian"
      std: 0.118
    }
    bias_filler {
      type: "constant"
      value: 0
    }
  }
}
layer {
  name: "BatchNorm5"
  type: "BatchNorm"
  bottom: "Convolution5"
  top: "Convolution5"
  param {
    lr_mult: 0
    decay_mult: 0
  }
  param {
    lr_mult: 0
    decay_mult: 0
  }
  param {
    lr_mult: 0
    decay_mult: 0
  }
}
layer {
  name: "Scale5"
  type: "Scale"
  bottom: "Convolution5"
  top: "Convolution5"
  scale_param {
    bias_term: true
  }
}
layer {
  name: "Eltwise2"
  type: "Eltwise"
  bottom: "Eltwise1"
  bottom: "Convolution5"
  top: "Eltwise2"
  eltwise_param {
    operation: SUM
  }
}
layer {
  name: "penlu5"
  type: "PENLU"
  bottom: "Eltwise2"
  top: "Eltwise2"
  param {
    lr_mult: 2
    decay_mult: 0
  }
  param {
    lr_mult: 2
    decay_mult: 0
  }
  param {
    lr_mult: 0
    decay_mult: 0
  }
  penlu_param {
    alpha_filler {
      type: "constant"
      value: 1
    }
    beta_filler {
      type: "constant"
      value: 1
    }
    eta_filler {
      type: "constant"
      value: 1
    }
  }
}
layer {
  name: "Convolution6"
  type: "Convolution"
  bottom: "Eltwise2"
  top: "Convolution6"
  param {
    lr_mult: 1
    decay_mult: 1
  }
  param {
    lr_mult: 2
    decay_mult: 0
  }
  convolution_param {
    num_output: 16
    pad: 1
    kernel_size: 3
    stride: 1
    weight_filler {
      type: "gaussian"
      std: 0.118
    }
    bias_filler {
      type: "constant"
      value: 0
    }
  }
}
layer {
  name: "BatchNorm6"
  type: "BatchNorm"
  bottom: "Convolution6"
  top: "Convolution6"
  param {
    lr_mult: 0
    decay_mult: 0
  }
  param {
    lr_mult: 0
    decay_mult: 0
  }
  param {
    lr_mult: 0
    decay_mult: 0
  }
}
layer {
  name: "Scale6"
  type: "Scale"
  bottom: "Convolution6"
  top: "Convolution6"
  scale_param {
    bias_term: true
  }
}
layer {
  name: "penlu6"
  type: "PENLU"
  bottom: "Convolution6"
  top: "Convolution6"
  param {
    lr_mult: 2
    decay_mult: 0
  }
  param {
    lr_mult: 2
    decay_mult: 0
  }
  param {
    lr_mult: 0
    decay_mult: 0
  }
  penlu_param {
    alpha_filler {
      type: "constant"
      value: 1
    }
    beta_filler {
      type: "constant"
      value: 1
    }
    eta_filler {
      type: "constant"
      value: 1
    }
  }
}
layer {
  name: "Convolution7"
  type: "Convolution"
  bottom: "Convolution6"
  top: "Convolution7"
  param {
    lr_mult: 1
    decay_mult: 1
  }
  param {
    lr_mult: 2
    decay_mult: 0
  }
  convolution_param {
    num_output: 16
    pad: 1
    kernel_size: 3
    stride: 1
    weight_filler {
      type: "gaussian"
      std: 0.118
    }
    bias_filler {
      type: "constant"
      value: 0
    }
  }
}
layer {
  name: "BatchNorm7"
  type: "BatchNorm"
  bottom: "Convolution7"
  top: "Convolution7"
  param {
    lr_mult: 0
    decay_mult: 0
  }
  param {
    lr_mult: 0
    decay_mult: 0
  }
  param {
    lr_mult: 0
    decay_mult: 0
  }
}
layer {
  name: "Scale7"
  type: "Scale"
  bottom: "Convolution7"
  top: "Convolution7"
  scale_param {
    bias_term: true
  }
}
layer {
  name: "Eltwise3"
  type: "Eltwise"
  bottom: "Eltwise2"
  bottom: "Convolution7"
  top: "Eltwise3"
  eltwise_param {
    operation: SUM
  }
}
layer {
  name: "penlu7"
  type: "PENLU"
  bottom: "Eltwise3"
  top: "Eltwise3"
  param {
    lr_mult: 2
    decay_mult: 0
  }
  param {
    lr_mult: 2
    decay_mult: 0
  }
  param {
    lr_mult: 0
    decay_mult: 0
  }
  penlu_param {
    alpha_filler {
      type: "constant"
      value: 1
    }
    beta_filler {
      type: "constant"
      value: 1
    }
    eta_filler {
      type: "constant"
      value: 1
    }
  }
}
layer {
  name: "Convolution8"
  type: "Convolution"
  bottom: "Eltwise3"
  top: "Convolution8"
  param {
    lr_mult: 1
    decay_mult: 1
  }
  param {
    lr_mult: 2
    decay_mult: 0
  }
  convolution_param {
    num_output: 32
    pad: 0
    kernel_size: 1
    stride: 2
    weight_filler {
      type: "gaussian"
      std: 0.25
    }
    bias_filler {
      type: "constant"
      value: 0
    }
  }
}
layer {
  name: "BatchNorm8"
  type: "BatchNorm"
  bottom: "Convolution8"
  top: "Convolution8"
  param {
    lr_mult: 0
    decay_mult: 0
  }
  param {
    lr_mult: 0
    decay_mult: 0
  }
  param {
    lr_mult: 0
    decay_mult: 0
  }
}
layer {
  name: "Scale8"
  type: "Scale"
  bottom: "Convolution8"
  top: "Convolution8"
  scale_param {
    bias_term: true
  }
}
layer {
  name: "Convolution9"
  type: "Convolution"
  bottom: "Eltwise3"
  top: "Convolution9"
  param {
    lr_mult: 1
    decay_mult: 1
  }
  param {
    lr_mult: 2
    decay_mult: 0
  }
  convolution_param {
    num_output: 32
    pad: 1
    kernel_size: 3
    stride: 2
    weight_filler {
      type: "gaussian"
      std: 0.083
    }
    bias_filler {
      type: "constant"
      value: 0
    }
  }
}
layer {
  name: "BatchNorm9"
  type: "BatchNorm"
  bottom: "Convolution9"
  top: "Convolution9"
  param {
    lr_mult: 0
    decay_mult: 0
  }
  param {
    lr_mult: 0
    decay_mult: 0
  }
  param {
    lr_mult: 0
    decay_mult: 0
  }
}
layer {
  name: "Scale9"
  type: "Scale"
  bottom: "Convolution9"
  top: "Convolution9"
  scale_param {
    bias_term: true
  }
}
layer {
  name: "penlu8"
  type: "PENLU"
  bottom: "Convolution9"
  top: "Convolution9"
  param {
    lr_mult: 2
    decay_mult: 0
  }
  param {
    lr_mult: 2
    decay_mult: 0
  }
  param {
    lr_mult: 0
    decay_mult: 0
  }
  penlu_param {
    alpha_filler {
      type: "constant"
      value: 1
    }
    beta_filler {
      type: "constant"
      value: 1
    }
    eta_filler {
      type: "constant"
      value: 1
    }
  }
}
layer {
  name: "Convolution10"
  type: "Convolution"
  bottom: "Convolution9"
  top: "Convolution10"
  param {
    lr_mult: 1
    decay_mult: 1
  }
  param {
    lr_mult: 2
    decay_mult: 0
  }
  convolution_param {
    num_output: 32
    pad: 1
    kernel_size: 3
    stride: 1
    weight_filler {
      type: "gaussian"
      std: 0.083
    }
    bias_filler {
      type: "constant"
      value: 0
    }
  }
}
layer {
  name: "BatchNorm10"
  type: "BatchNorm"
  bottom: "Convolution10"
  top: "Convolution10"
  param {
    lr_mult: 0
    decay_mult: 0
  }
  param {
    lr_mult: 0
    decay_mult: 0
  }
  param {
    lr_mult: 0
    decay_mult: 0
  }
}
layer {
  name: "Scale10"
  type: "Scale"
  bottom: "Convolution10"
  top: "Convolution10"
  scale_param {
    bias_term: true
  }
}
layer {
  name: "Eltwise4"
  type: "Eltwise"
  bottom: "Convolution8"
  bottom: "Convolution10"
  top: "Eltwise4"
  eltwise_param {
    operation: SUM
  }
}
layer {
  name: "penlu9"
  type: "PENLU"
  bottom: "Eltwise4"
  top: "Eltwise4"
  param {
    lr_mult: 2
    decay_mult: 0
  }
  param {
    lr_mult: 2
    decay_mult: 0
  }
  param {
    lr_mult: 0
    decay_mult: 0
  }
  penlu_param {
    alpha_filler {
      type: "constant"
      value: 1
    }
    beta_filler {
      type: "constant"
      value: 1
    }
    eta_filler {
      type: "constant"
      value: 1
    }
  }
}
layer {
  name: "Convolution11"
  type: "Convolution"
  bottom: "Eltwise4"
  top: "Convolution11"
  param {
    lr_mult: 1
    decay_mult: 1
  }
  param {
    lr_mult: 2
    decay_mult: 0
  }
  convolution_param {
    num_output: 32
    pad: 1
    kernel_size: 3
    stride: 1
    weight_filler {
      type: "gaussian"
      std: 0.083
    }
    bias_filler {
      type: "constant"
      value: 0
    }
  }
}
layer {
  name: "BatchNorm11"
  type: "BatchNorm"
  bottom: "Convolution11"
  top: "Convolution11"
  param {
    lr_mult: 0
    decay_mult: 0
  }
  param {
    lr_mult: 0
    decay_mult: 0
  }
  param {
    lr_mult: 0
    decay_mult: 0
  }
}
layer {
  name: "Scale11"
  type: "Scale"
  bottom: "Convolution11"
  top: "Convolution11"
  scale_param {
    bias_term: true
  }
}
layer {
  name: "penlu10"
  type: "PENLU"
  bottom: "Convolution11"
  top: "Convolution11"
  param {
    lr_mult: 2
    decay_mult: 0
  }
  param {
    lr_mult: 2
    decay_mult: 0
  }
  param {
    lr_mult: 0
    decay_mult: 0
  }
  penlu_param {
    alpha_filler {
      type: "constant"
      value: 1
    }
    beta_filler {
      type: "constant"
      value: 1
    }
    eta_filler {
      type: "constant"
      value: 1
    }
  }
}
layer {
  name: "Convolution12"
  type: "Convolution"
  bottom: "Convolution11"
  top: "Convolution12"
  param {
    lr_mult: 1
    decay_mult: 1
  }
  param {
    lr_mult: 2
    decay_mult: 0
  }
  convolution_param {
    num_output: 32
    pad: 1
    kernel_size: 3
    stride: 1
    weight_filler {
      type: "gaussian"
      std: 0.083
    }
    bias_filler {
      type: "constant"
      value: 0
    }
  }
}
layer {
  name: "BatchNorm12"
  type: "BatchNorm"
  bottom: "Convolution12"
  top: "Convolution12"
  param {
    lr_mult: 0
    decay_mult: 0
  }
  param {
    lr_mult: 0
    decay_mult: 0
  }
  param {
    lr_mult: 0
    decay_mult: 0
  }
}
layer {
  name: "Scale12"
  type: "Scale"
  bottom: "Convolution12"
  top: "Convolution12"
  scale_param {
    bias_term: true
  }
}
layer {
  name: "Eltwise5"
  type: "Eltwise"
  bottom: "Eltwise4"
  bottom: "Convolution12"
  top: "Eltwise5"
  eltwise_param {
    operation: SUM
  }
}
layer {
  name: "penlu11"
  type: "PENLU"
  bottom: "Eltwise5"
  top: "Eltwise5"
  param {
    lr_mult: 2
    decay_mult: 0
  }
  param {
    lr_mult: 2
    decay_mult: 0
  }
  param {
    lr_mult: 0
    decay_mult: 0
  }
  penlu_param {
    alpha_filler {
      type: "constant"
      value: 1
    }
    beta_filler {
      type: "constant"
      value: 1
    }
    eta_filler {
      type: "constant"
      value: 1
    }
  }
}
layer {
  name: "Convolution13"
  type: "Convolution"
  bottom: "Eltwise5"
  top: "Convolution13"
  param {
    lr_mult: 1
    decay_mult: 1
  }
  param {
    lr_mult: 2
    decay_mult: 0
  }
  convolution_param {
    num_output: 32
    pad: 1
    kernel_size: 3
    stride: 1
    weight_filler {
      type: "gaussian"
      std: 0.083
    }
    bias_filler {
      type: "constant"
      value: 0
    }
  }
}
layer {
  name: "BatchNorm13"
  type: "BatchNorm"
  bottom: "Convolution13"
  top: "Convolution13"
  param {
    lr_mult: 0
    decay_mult: 0
  }
  param {
    lr_mult: 0
    decay_mult: 0
  }
  param {
    lr_mult: 0
    decay_mult: 0
  }
}
layer {
  name: "Scale13"
  type: "Scale"
  bottom: "Convolution13"
  top: "Convolution13"
  scale_param {
    bias_term: true
  }
}
layer {
  name: "penlu12"
  type: "PENLU"
  bottom: "Convolution13"
  top: "Convolution13"
  param {
    lr_mult: 2
    decay_mult: 0
  }
  param {
    lr_mult: 2
    decay_mult: 0
  }
  param {
    lr_mult: 0
    decay_mult: 0
  }
  penlu_param {
    alpha_filler {
      type: "constant"
      value: 1
    }
    beta_filler {
      type: "constant"
      value: 1
    }
    eta_filler {
      type: "constant"
      value: 1
    }
  }
}
layer {
  name: "Convolution14"
  type: "Convolution"
  bottom: "Convolution13"
  top: "Convolution14"
  param {
    lr_mult: 1
    decay_mult: 1
  }
  param {
    lr_mult: 2
    decay_mult: 0
  }
  convolution_param {
    num_output: 32
    pad: 1
    kernel_size: 3
    stride: 1
    weight_filler {
      type: "gaussian"
      std: 0.083
    }
    bias_filler {
      type: "constant"
      value: 0
    }
  }
}
layer {
  name: "BatchNorm14"
  type: "BatchNorm"
  bottom: "Convolution14"
  top: "Convolution14"
  param {
    lr_mult: 0
    decay_mult: 0
  }
  param {
    lr_mult: 0
    decay_mult: 0
  }
  param {
    lr_mult: 0
    decay_mult: 0
  }
}
layer {
  name: "Scale14"
  type: "Scale"
  bottom: "Convolution14"
  top: "Convolution14"
  scale_param {
    bias_term: true
  }
}
layer {
  name: "Eltwise6"
  type: "Eltwise"
  bottom: "Eltwise5"
  bottom: "Convolution14"
  top: "Eltwise6"
  eltwise_param {
    operation: SUM
  }
}
layer {
  name: "penlu13"
  type: "PENLU"
  bottom: "Eltwise6"
  top: "Eltwise6"
  param {
    lr_mult: 2
    decay_mult: 0
  }
  param {
    lr_mult: 2
    decay_mult: 0
  }
  param {
    lr_mult: 0
    decay_mult: 0
  }
  penlu_param {
    alpha_filler {
      type: "constant"
      value: 1
    }
    beta_filler {
      type: "constant"
      value: 1
    }
    eta_filler {
      type: "constant"
      value: 1
    }
  }
}
layer {
  name: "Convolution15"
  type: "Convolution"
  bottom: "Eltwise6"
  top: "Convolution15"
  param {
    lr_mult: 1
    decay_mult: 1
  }
  param {
    lr_mult: 2
    decay_mult: 0
  }
  convolution_param {
    num_output: 64
    pad: 0
    kernel_size: 1
    stride: 2
    weight_filler {
      type: "gaussian"
      std: 0.17677669
    }
    bias_filler {
      type: "constant"
      value: 0
    }
  }
}
layer {
  name: "BatchNorm15"
  type: "BatchNorm"
  bottom: "Convolution15"
  top: "Convolution15"
  param {
    lr_mult: 0
    decay_mult: 0
  }
  param {
    lr_mult: 0
    decay_mult: 0
  }
  param {
    lr_mult: 0
    decay_mult: 0
  }
}
layer {
  name: "Scale15"
  type: "Scale"
  bottom: "Convolution15"
  top: "Convolution15"
  scale_param {
    bias_term: true
  }
}
layer {
  name: "Convolution16"
  type: "Convolution"
  bottom: "Eltwise6"
  top: "Convolution16"
  param {
    lr_mult: 1
    decay_mult: 1
  }
  param {
    lr_mult: 2
    decay_mult: 0
  }
  convolution_param {
    num_output: 64
    pad: 1
    kernel_size: 3
    stride: 2
    weight_filler {
      type: "gaussian"
      std: 0.059
    }
    bias_filler {
      type: "constant"
      value: 0
    }
  }
}
layer {
  name: "BatchNorm16"
  type: "BatchNorm"
  bottom: "Convolution16"
  top: "Convolution16"
  param {
    lr_mult: 0
    decay_mult: 0
  }
  param {
    lr_mult: 0
    decay_mult: 0
  }
  param {
    lr_mult: 0
    decay_mult: 0
  }
}
layer {
  name: "Scale16"
  type: "Scale"
  bottom: "Convolution16"
  top: "Convolution16"
  scale_param {
    bias_term: true
  }
}
layer {
  name: "penlu14"
  type: "PENLU"
  bottom: "Convolution16"
  top: "Convolution16"
  param {
    lr_mult: 2
    decay_mult: 0
  }
  param {
    lr_mult: 2
    decay_mult: 0
  }
  param {
    lr_mult: 0
    decay_mult: 0
  }
  penlu_param {
    alpha_filler {
      type: "constant"
      value: 1
    }
    beta_filler {
      type: "constant"
      value: 1
    }
    eta_filler {
      type: "constant"
      value: 1
    }
  }
}
layer {
  name: "Convolution17"
  type: "Convolution"
  bottom: "Convolution16"
  top: "Convolution17"
  param {
    lr_mult: 1
    decay_mult: 1
  }
  param {
    lr_mult: 2
    decay_mult: 0
  }
  convolution_param {
    num_output: 64
    pad: 1
    kernel_size: 3
    stride: 1
    weight_filler {
      type: "gaussian"
      std: 0.059
    }
    bias_filler {
      type: "constant"
      value: 0
    }
  }
}
layer {
  name: "BatchNorm17"
  type: "BatchNorm"
  bottom: "Convolution17"
  top: "Convolution17"
  param {
    lr_mult: 0
    decay_mult: 0
  }
  param {
    lr_mult: 0
    decay_mult: 0
  }
  param {
    lr_mult: 0
    decay_mult: 0
  }
}
layer {
  name: "Scale17"
  type: "Scale"
  bottom: "Convolution17"
  top: "Convolution17"
  scale_param {
    bias_term: true
  }
}
layer {
  name: "Eltwise7"
  type: "Eltwise"
  bottom: "Convolution15"
  bottom: "Convolution17"
  top: "Eltwise7"
  eltwise_param {
    operation: SUM
  }
}
layer {
  name: "penlu15"
  type: "PENLU"
  bottom: "Eltwise7"
  top: "Eltwise7"
  param {
    lr_mult: 2
    decay_mult: 0
  }
  param {
    lr_mult: 2
    decay_mult: 0
  }
  param {
    lr_mult: 0
    decay_mult: 0
  }
  penlu_param {
    alpha_filler {
      type: "constant"
      value: 1
    }
    beta_filler {
      type: "constant"
      value: 1
    }
    eta_filler {
      type: "constant"
      value: 1
    }
  }
}
layer {
  name: "Convolution18"
  type: "Convolution"
  bottom: "Eltwise7"
  top: "Convolution18"
  param {
    lr_mult: 1
    decay_mult: 1
  }
  param {
    lr_mult: 2
    decay_mult: 0
  }
  convolution_param {
    num_output: 64
    pad: 1
    kernel_size: 3
    stride: 1
    weight_filler {
      type: "gaussian"
      std: 0.059
    }
    bias_filler {
      type: "constant"
      value: 0
    }
  }
}
layer {
  name: "BatchNorm18"
  type: "BatchNorm"
  bottom: "Convolution18"
  top: "Convolution18"
  param {
    lr_mult: 0
    decay_mult: 0
  }
  param {
    lr_mult: 0
    decay_mult: 0
  }
  param {
    lr_mult: 0
    decay_mult: 0
  }
}
layer {
  name: "Scale18"
  type: "Scale"
  bottom: "Convolution18"
  top: "Convolution18"
  scale_param {
    bias_term: true
  }
}
layer {
  name: "penlu16"
  type: "PENLU"
  bottom: "Convolution18"
  top: "Convolution18"
  param {
    lr_mult: 2
    decay_mult: 0
  }
  param {
    lr_mult: 2
    decay_mult: 0
  }
  param {
    lr_mult: 0
    decay_mult: 0
  }
  penlu_param {
    alpha_filler {
      type: "constant"
      value: 1
    }
    beta_filler {
      type: "constant"
      value: 1
    }
    eta_filler {
      type: "constant"
      value: 1
    }
  }
}
layer {
  name: "Convolution19"
  type: "Convolution"
  bottom: "Convolution18"
  top: "Convolution19"
  param {
    lr_mult: 1
    decay_mult: 1
  }
  param {
    lr_mult: 2
    decay_mult: 0
  }
  convolution_param {
    num_output: 64
    pad: 1
    kernel_size: 3
    stride: 1
    weight_filler {
      type: "gaussian"
      std: 0.059
    }
    bias_filler {
      type: "constant"
      value: 0
    }
  }
}
layer {
  name: "BatchNorm19"
  type: "BatchNorm"
  bottom: "Convolution19"
  top: "Convolution19"
  param {
    lr_mult: 0
    decay_mult: 0
  }
  param {
    lr_mult: 0
    decay_mult: 0
  }
  param {
    lr_mult: 0
    decay_mult: 0
  }
}
layer {
  name: "Scale19"
  type: "Scale"
  bottom: "Convolution19"
  top: "Convolution19"
  scale_param {
    bias_term: true
  }
}
layer {
  name: "Eltwise8"
  type: "Eltwise"
  bottom: "Eltwise7"
  bottom: "Convolution19"
  top: "Eltwise8"
  eltwise_param {
    operation: SUM
  }
}
layer {
  name: "penlu17"
  type: "PENLU"
  bottom: "Eltwise8"
  top: "Eltwise8"
  param {
    lr_mult: 2
    decay_mult: 0
  }
  param {
    lr_mult: 2
    decay_mult: 0
  }
  param {
    lr_mult: 0
    decay_mult: 0
  }
  penlu_param {
    alpha_filler {
      type: "constant"
      value: 1
    }
    beta_filler {
      type: "constant"
      value: 1
    }
    eta_filler {
      type: "constant"
      value: 1
    }
  }
}
layer {
  name: "Convolution20"
  type: "Convolution"
  bottom: "Eltwise8"
  top: "Convolution20"
  param {
    lr_mult: 1
    decay_mult: 1
  }
  param {
    lr_mult: 2
    decay_mult: 0
  }
  convolution_param {
    num_output: 64
    pad: 1
    kernel_size: 3
    stride: 1
    weight_filler {
      type: "gaussian"
      std: 0.059
    }
    bias_filler {
      type: "constant"
      value: 0
    }
  }
}
layer {
  name: "BatchNorm20"
  type: "BatchNorm"
  bottom: "Convolution20"
  top: "Convolution20"
  param {
    lr_mult: 0
    decay_mult: 0
  }
  param {
    lr_mult: 0
    decay_mult: 0
  }
  param {
    lr_mult: 0
    decay_mult: 0
  }
}
layer {
  name: "Scale20"
  type: "Scale"
  bottom: "Convolution20"
  top: "Convolution20"
  scale_param {
    bias_term: true
  }
}
layer {
  name: "penlu18"
  type: "PENLU"
  bottom: "Convolution20"
  top: "Convolution20"
  param {
    lr_mult: 2
    decay_mult: 0
  }
  param {
    lr_mult: 2
    decay_mult: 0
  }
  param {
    lr_mult: 0
    decay_mult: 0
  }
  penlu_param {
    alpha_filler {
      type: "constant"
      value: 1
    }
    beta_filler {
      type: "constant"
      value: 1
    }
    eta_filler {
      type: "constant"
      value: 1
    }
  }
}
layer {
  name: "Convolution21"
  type: "Convolution"
  bottom: "Convolution20"
  top: "Convolution21"
  param {
    lr_mult: 1
    decay_mult: 1
  }
  param {
    lr_mult: 2
    decay_mult: 0
  }
  convolution_param {
    num_output: 64
    pad: 1
    kernel_size: 3
    stride: 1
    weight_filler {
      type: "gaussian"
      std: 0.059
    }
    bias_filler {
      type: "constant"
      value: 0
    }
  }
}
layer {
  name: "BatchNorm21"
  type: "BatchNorm"
  bottom: "Convolution21"
  top: "Convolution21"
  param {
    lr_mult: 0
    decay_mult: 0
  }
  param {
    lr_mult: 0
    decay_mult: 0
  }
  param {
    lr_mult: 0
    decay_mult: 0
  }
}
layer {
  name: "Scale21"
  type: "Scale"
  bottom: "Convolution21"
  top: "Convolution21"
  scale_param {
    bias_term: true
  }
}
layer {
  name: "Eltwise9"
  type: "Eltwise"
  bottom: "Eltwise8"
  bottom: "Convolution21"
  top: "Eltwise9"
  eltwise_param {
    operation: SUM
  }
}
layer {
  name: "penlu19"
  type: "PENLU"
  bottom: "Eltwise9"
  top: "Eltwise9"
  param {
    lr_mult: 2
    decay_mult: 0
  }
  param {
    lr_mult: 2
    decay_mult: 0
  }
  param {
    lr_mult: 0
    decay_mult: 0
  }
  penlu_param {
    alpha_filler {
      type: "constant"
      value: 1
    }
    beta_filler {
      type: "constant"
      value: 1
    }
    eta_filler {
      type: "constant"
      value: 1
    }
  }
}
layer {
  name: "Pooling1"
  type: "Pooling"
  bottom: "Eltwise9"
  top: "Pooling1"
  pooling_param {
    pool: AVE
    global_pooling: true
  }
}
layer {
  name: "InnerProduct1"
  type: "InnerProduct"
  bottom: "Pooling1"
  top: "InnerProduct1"
  param {
    lr_mult: 1
    decay_mult: 1
  }
  param {
    lr_mult: 2
    decay_mult: 1
  }
  inner_product_param {
    num_output: 10
    weight_filler {
      type: "gaussian"
      std: 0.01
    }
    bias_filler {
      type: "constant"
      value: 0
    }
  }
}
layer {
  name: "SoftmaxWithLoss1"
  type: "SoftmaxWithLoss"
  bottom: "InnerProduct1"
  bottom: "Data2"
  top: "SoftmaxWithLoss1"
}
layer {
  name: "Accuracy1"
  type: "Accuracy"
  bottom: "InnerProduct1"
  bottom: "Data2"
  top: "Accuracy1"
  include {
    phase: TEST
  }
}
I1005 10:19:47.058270  9385 layer_factory.hpp:77] Creating layer Data1
I1005 10:19:47.058310  9385 db_lmdb.cpp:35] Opened lmdb /home/x306/caffe/xn/PENLU/data/cifar10/cifar10_test_lmdb
I1005 10:19:47.058320  9385 net.cpp:84] Creating Layer Data1
I1005 10:19:47.058323  9385 net.cpp:380] Data1 -> Data1
I1005 10:19:47.058329  9385 net.cpp:380] Data1 -> Data2
I1005 10:19:47.058334  9385 data_transformer.cpp:25] Loading mean file from: /home/x306/caffe/xn/PENLU/data/cifar10/mean.binaryproto
I1005 10:19:47.058444  9385 data_layer.cpp:45] output data size: 100,3,32,32
I1005 10:19:47.062279  9385 net.cpp:122] Setting up Data1
I1005 10:19:47.062299  9385 net.cpp:129] Top shape: 100 3 32 32 (307200)
I1005 10:19:47.062304  9385 net.cpp:129] Top shape: 100 (100)
I1005 10:19:47.062305  9385 net.cpp:137] Memory required for data: 1229200
I1005 10:19:47.062310  9385 layer_factory.hpp:77] Creating layer Data2_Data1_1_split
I1005 10:19:47.062319  9385 net.cpp:84] Creating Layer Data2_Data1_1_split
I1005 10:19:47.062321  9385 net.cpp:406] Data2_Data1_1_split <- Data2
I1005 10:19:47.062327  9385 net.cpp:380] Data2_Data1_1_split -> Data2_Data1_1_split_0
I1005 10:19:47.062333  9385 net.cpp:380] Data2_Data1_1_split -> Data2_Data1_1_split_1
I1005 10:19:47.062391  9385 net.cpp:122] Setting up Data2_Data1_1_split
I1005 10:19:47.062397  9385 net.cpp:129] Top shape: 100 (100)
I1005 10:19:47.062413  9385 net.cpp:129] Top shape: 100 (100)
I1005 10:19:47.062417  9385 net.cpp:137] Memory required for data: 1230000
I1005 10:19:47.062418  9385 layer_factory.hpp:77] Creating layer Convolution1
I1005 10:19:47.062428  9385 net.cpp:84] Creating Layer Convolution1
I1005 10:19:47.062430  9385 net.cpp:406] Convolution1 <- Data1
I1005 10:19:47.062435  9385 net.cpp:380] Convolution1 -> Convolution1
I1005 10:19:47.063573  9385 net.cpp:122] Setting up Convolution1
I1005 10:19:47.063583  9385 net.cpp:129] Top shape: 100 16 32 32 (1638400)
I1005 10:19:47.063586  9385 net.cpp:137] Memory required for data: 7783600
I1005 10:19:47.063593  9385 layer_factory.hpp:77] Creating layer BatchNorm1
I1005 10:19:47.063599  9385 net.cpp:84] Creating Layer BatchNorm1
I1005 10:19:47.063607  9385 net.cpp:406] BatchNorm1 <- Convolution1
I1005 10:19:47.063611  9385 net.cpp:367] BatchNorm1 -> Convolution1 (in-place)
I1005 10:19:47.063748  9385 net.cpp:122] Setting up BatchNorm1
I1005 10:19:47.063753  9385 net.cpp:129] Top shape: 100 16 32 32 (1638400)
I1005 10:19:47.063755  9385 net.cpp:137] Memory required for data: 14337200
I1005 10:19:47.063762  9385 layer_factory.hpp:77] Creating layer Scale1
I1005 10:19:47.063768  9385 net.cpp:84] Creating Layer Scale1
I1005 10:19:47.063772  9385 net.cpp:406] Scale1 <- Convolution1
I1005 10:19:47.063776  9385 net.cpp:367] Scale1 -> Convolution1 (in-place)
I1005 10:19:47.063804  9385 layer_factory.hpp:77] Creating layer Scale1
I1005 10:19:47.063884  9385 net.cpp:122] Setting up Scale1
I1005 10:19:47.063889  9385 net.cpp:129] Top shape: 100 16 32 32 (1638400)
I1005 10:19:47.063890  9385 net.cpp:137] Memory required for data: 20890800
I1005 10:19:47.063894  9385 layer_factory.hpp:77] Creating layer penlu1
I1005 10:19:47.063900  9385 net.cpp:84] Creating Layer penlu1
I1005 10:19:47.063904  9385 net.cpp:406] penlu1 <- Convolution1
I1005 10:19:47.063906  9385 net.cpp:367] penlu1 -> Convolution1 (in-place)
I1005 10:19:47.064024  9385 net.cpp:122] Setting up penlu1
I1005 10:19:47.064028  9385 net.cpp:129] Top shape: 100 16 32 32 (1638400)
I1005 10:19:47.064030  9385 net.cpp:137] Memory required for data: 27444400
I1005 10:19:47.064038  9385 layer_factory.hpp:77] Creating layer Convolution1_penlu1_0_split
I1005 10:19:47.064044  9385 net.cpp:84] Creating Layer Convolution1_penlu1_0_split
I1005 10:19:47.064049  9385 net.cpp:406] Convolution1_penlu1_0_split <- Convolution1
I1005 10:19:47.064051  9385 net.cpp:380] Convolution1_penlu1_0_split -> Convolution1_penlu1_0_split_0
I1005 10:19:47.064055  9385 net.cpp:380] Convolution1_penlu1_0_split -> Convolution1_penlu1_0_split_1
I1005 10:19:47.064079  9385 net.cpp:122] Setting up Convolution1_penlu1_0_split
I1005 10:19:47.064083  9385 net.cpp:129] Top shape: 100 16 32 32 (1638400)
I1005 10:19:47.064086  9385 net.cpp:129] Top shape: 100 16 32 32 (1638400)
I1005 10:19:47.064088  9385 net.cpp:137] Memory required for data: 40551600
I1005 10:19:47.064090  9385 layer_factory.hpp:77] Creating layer Convolution2
I1005 10:19:47.064096  9385 net.cpp:84] Creating Layer Convolution2
I1005 10:19:47.064098  9385 net.cpp:406] Convolution2 <- Convolution1_penlu1_0_split_0
I1005 10:19:47.064103  9385 net.cpp:380] Convolution2 -> Convolution2
I1005 10:19:47.064693  9385 net.cpp:122] Setting up Convolution2
I1005 10:19:47.064700  9385 net.cpp:129] Top shape: 100 16 32 32 (1638400)
I1005 10:19:47.064703  9385 net.cpp:137] Memory required for data: 47105200
I1005 10:19:47.064707  9385 layer_factory.hpp:77] Creating layer BatchNorm2
I1005 10:19:47.064714  9385 net.cpp:84] Creating Layer BatchNorm2
I1005 10:19:47.064716  9385 net.cpp:406] BatchNorm2 <- Convolution2
I1005 10:19:47.064720  9385 net.cpp:367] BatchNorm2 -> Convolution2 (in-place)
I1005 10:19:47.064865  9385 net.cpp:122] Setting up BatchNorm2
I1005 10:19:47.064872  9385 net.cpp:129] Top shape: 100 16 32 32 (1638400)
I1005 10:19:47.064873  9385 net.cpp:137] Memory required for data: 53658800
I1005 10:19:47.064878  9385 layer_factory.hpp:77] Creating layer Scale2
I1005 10:19:47.064883  9385 net.cpp:84] Creating Layer Scale2
I1005 10:19:47.064893  9385 net.cpp:406] Scale2 <- Convolution2
I1005 10:19:47.064898  9385 net.cpp:367] Scale2 -> Convolution2 (in-place)
I1005 10:19:47.065006  9385 layer_factory.hpp:77] Creating layer Scale2
I1005 10:19:47.065083  9385 net.cpp:122] Setting up Scale2
I1005 10:19:47.065089  9385 net.cpp:129] Top shape: 100 16 32 32 (1638400)
I1005 10:19:47.065091  9385 net.cpp:137] Memory required for data: 60212400
I1005 10:19:47.065098  9385 layer_factory.hpp:77] Creating layer penlu2
I1005 10:19:47.065104  9385 net.cpp:84] Creating Layer penlu2
I1005 10:19:47.065105  9385 net.cpp:406] penlu2 <- Convolution2
I1005 10:19:47.065110  9385 net.cpp:367] penlu2 -> Convolution2 (in-place)
I1005 10:19:47.065224  9385 net.cpp:122] Setting up penlu2
I1005 10:19:47.065230  9385 net.cpp:129] Top shape: 100 16 32 32 (1638400)
I1005 10:19:47.065232  9385 net.cpp:137] Memory required for data: 66766000
I1005 10:19:47.065237  9385 layer_factory.hpp:77] Creating layer Convolution3
I1005 10:19:47.065243  9385 net.cpp:84] Creating Layer Convolution3
I1005 10:19:47.065245  9385 net.cpp:406] Convolution3 <- Convolution2
I1005 10:19:47.065250  9385 net.cpp:380] Convolution3 -> Convolution3
I1005 10:19:47.066175  9385 net.cpp:122] Setting up Convolution3
I1005 10:19:47.066184  9385 net.cpp:129] Top shape: 100 16 32 32 (1638400)
I1005 10:19:47.066187  9385 net.cpp:137] Memory required for data: 73319600
I1005 10:19:47.066191  9385 layer_factory.hpp:77] Creating layer BatchNorm3
I1005 10:19:47.066198  9385 net.cpp:84] Creating Layer BatchNorm3
I1005 10:19:47.066200  9385 net.cpp:406] BatchNorm3 <- Convolution3
I1005 10:19:47.066205  9385 net.cpp:367] BatchNorm3 -> Convolution3 (in-place)
I1005 10:19:47.066468  9385 net.cpp:122] Setting up BatchNorm3
I1005 10:19:47.066474  9385 net.cpp:129] Top shape: 100 16 32 32 (1638400)
I1005 10:19:47.066476  9385 net.cpp:137] Memory required for data: 79873200
I1005 10:19:47.066481  9385 layer_factory.hpp:77] Creating layer Scale3
I1005 10:19:47.066485  9385 net.cpp:84] Creating Layer Scale3
I1005 10:19:47.066493  9385 net.cpp:406] Scale3 <- Convolution3
I1005 10:19:47.066498  9385 net.cpp:367] Scale3 -> Convolution3 (in-place)
I1005 10:19:47.066537  9385 layer_factory.hpp:77] Creating layer Scale3
I1005 10:19:47.066614  9385 net.cpp:122] Setting up Scale3
I1005 10:19:47.066619  9385 net.cpp:129] Top shape: 100 16 32 32 (1638400)
I1005 10:19:47.066622  9385 net.cpp:137] Memory required for data: 86426800
I1005 10:19:47.066625  9385 layer_factory.hpp:77] Creating layer Eltwise1
I1005 10:19:47.066630  9385 net.cpp:84] Creating Layer Eltwise1
I1005 10:19:47.066632  9385 net.cpp:406] Eltwise1 <- Convolution1_penlu1_0_split_1
I1005 10:19:47.066637  9385 net.cpp:406] Eltwise1 <- Convolution3
I1005 10:19:47.066642  9385 net.cpp:380] Eltwise1 -> Eltwise1
I1005 10:19:47.066658  9385 net.cpp:122] Setting up Eltwise1
I1005 10:19:47.066661  9385 net.cpp:129] Top shape: 100 16 32 32 (1638400)
I1005 10:19:47.066663  9385 net.cpp:137] Memory required for data: 92980400
I1005 10:19:47.066665  9385 layer_factory.hpp:77] Creating layer penlu3
I1005 10:19:47.066671  9385 net.cpp:84] Creating Layer penlu3
I1005 10:19:47.066673  9385 net.cpp:406] penlu3 <- Eltwise1
I1005 10:19:47.066678  9385 net.cpp:367] penlu3 -> Eltwise1 (in-place)
I1005 10:19:47.066792  9385 net.cpp:122] Setting up penlu3
I1005 10:19:47.066797  9385 net.cpp:129] Top shape: 100 16 32 32 (1638400)
I1005 10:19:47.066799  9385 net.cpp:137] Memory required for data: 99534000
I1005 10:19:47.066803  9385 layer_factory.hpp:77] Creating layer Eltwise1_penlu3_0_split
I1005 10:19:47.066808  9385 net.cpp:84] Creating Layer Eltwise1_penlu3_0_split
I1005 10:19:47.066810  9385 net.cpp:406] Eltwise1_penlu3_0_split <- Eltwise1
I1005 10:19:47.066814  9385 net.cpp:380] Eltwise1_penlu3_0_split -> Eltwise1_penlu3_0_split_0
I1005 10:19:47.066818  9385 net.cpp:380] Eltwise1_penlu3_0_split -> Eltwise1_penlu3_0_split_1
I1005 10:19:47.066840  9385 net.cpp:122] Setting up Eltwise1_penlu3_0_split
I1005 10:19:47.066844  9385 net.cpp:129] Top shape: 100 16 32 32 (1638400)
I1005 10:19:47.066856  9385 net.cpp:129] Top shape: 100 16 32 32 (1638400)
I1005 10:19:47.066859  9385 net.cpp:137] Memory required for data: 112641200
I1005 10:19:47.066861  9385 layer_factory.hpp:77] Creating layer Convolution4
I1005 10:19:47.066872  9385 net.cpp:84] Creating Layer Convolution4
I1005 10:19:47.066875  9385 net.cpp:406] Convolution4 <- Eltwise1_penlu3_0_split_0
I1005 10:19:47.066879  9385 net.cpp:380] Convolution4 -> Convolution4
I1005 10:19:47.067934  9385 net.cpp:122] Setting up Convolution4
I1005 10:19:47.067942  9385 net.cpp:129] Top shape: 100 16 32 32 (1638400)
I1005 10:19:47.067945  9385 net.cpp:137] Memory required for data: 119194800
I1005 10:19:47.067950  9385 layer_factory.hpp:77] Creating layer BatchNorm4
I1005 10:19:47.067957  9385 net.cpp:84] Creating Layer BatchNorm4
I1005 10:19:47.067960  9385 net.cpp:406] BatchNorm4 <- Convolution4
I1005 10:19:47.067963  9385 net.cpp:367] BatchNorm4 -> Convolution4 (in-place)
I1005 10:19:47.068100  9385 net.cpp:122] Setting up BatchNorm4
I1005 10:19:47.068105  9385 net.cpp:129] Top shape: 100 16 32 32 (1638400)
I1005 10:19:47.068107  9385 net.cpp:137] Memory required for data: 125748400
I1005 10:19:47.068115  9385 layer_factory.hpp:77] Creating layer Scale4
I1005 10:19:47.068120  9385 net.cpp:84] Creating Layer Scale4
I1005 10:19:47.068122  9385 net.cpp:406] Scale4 <- Convolution4
I1005 10:19:47.068126  9385 net.cpp:367] Scale4 -> Convolution4 (in-place)
I1005 10:19:47.068153  9385 layer_factory.hpp:77] Creating layer Scale4
I1005 10:19:47.068235  9385 net.cpp:122] Setting up Scale4
I1005 10:19:47.068239  9385 net.cpp:129] Top shape: 100 16 32 32 (1638400)
I1005 10:19:47.068241  9385 net.cpp:137] Memory required for data: 132302000
I1005 10:19:47.068245  9385 layer_factory.hpp:77] Creating layer penlu4
I1005 10:19:47.068251  9385 net.cpp:84] Creating Layer penlu4
I1005 10:19:47.068253  9385 net.cpp:406] penlu4 <- Convolution4
I1005 10:19:47.068262  9385 net.cpp:367] penlu4 -> Convolution4 (in-place)
I1005 10:19:47.068378  9385 net.cpp:122] Setting up penlu4
I1005 10:19:47.068382  9385 net.cpp:129] Top shape: 100 16 32 32 (1638400)
I1005 10:19:47.068385  9385 net.cpp:137] Memory required for data: 138855600
I1005 10:19:47.068389  9385 layer_factory.hpp:77] Creating layer Convolution5
I1005 10:19:47.068397  9385 net.cpp:84] Creating Layer Convolution5
I1005 10:19:47.068398  9385 net.cpp:406] Convolution5 <- Convolution4
I1005 10:19:47.068403  9385 net.cpp:380] Convolution5 -> Convolution5
I1005 10:19:47.069654  9385 net.cpp:122] Setting up Convolution5
I1005 10:19:47.069664  9385 net.cpp:129] Top shape: 100 16 32 32 (1638400)
I1005 10:19:47.069667  9385 net.cpp:137] Memory required for data: 145409200
I1005 10:19:47.069671  9385 layer_factory.hpp:77] Creating layer BatchNorm5
I1005 10:19:47.069677  9385 net.cpp:84] Creating Layer BatchNorm5
I1005 10:19:47.069679  9385 net.cpp:406] BatchNorm5 <- Convolution5
I1005 10:19:47.069684  9385 net.cpp:367] BatchNorm5 -> Convolution5 (in-place)
I1005 10:19:47.069823  9385 net.cpp:122] Setting up BatchNorm5
I1005 10:19:47.069828  9385 net.cpp:129] Top shape: 100 16 32 32 (1638400)
I1005 10:19:47.069830  9385 net.cpp:137] Memory required for data: 151962800
I1005 10:19:47.069834  9385 layer_factory.hpp:77] Creating layer Scale5
I1005 10:19:47.069839  9385 net.cpp:84] Creating Layer Scale5
I1005 10:19:47.069842  9385 net.cpp:406] Scale5 <- Convolution5
I1005 10:19:47.069845  9385 net.cpp:367] Scale5 -> Convolution5 (in-place)
I1005 10:19:47.069872  9385 layer_factory.hpp:77] Creating layer Scale5
I1005 10:19:47.069952  9385 net.cpp:122] Setting up Scale5
I1005 10:19:47.069957  9385 net.cpp:129] Top shape: 100 16 32 32 (1638400)
I1005 10:19:47.069959  9385 net.cpp:137] Memory required for data: 158516400
I1005 10:19:47.069963  9385 layer_factory.hpp:77] Creating layer Eltwise2
I1005 10:19:47.069967  9385 net.cpp:84] Creating Layer Eltwise2
I1005 10:19:47.069970  9385 net.cpp:406] Eltwise2 <- Eltwise1_penlu3_0_split_1
I1005 10:19:47.069973  9385 net.cpp:406] Eltwise2 <- Convolution5
I1005 10:19:47.069977  9385 net.cpp:380] Eltwise2 -> Eltwise2
I1005 10:19:47.070000  9385 net.cpp:122] Setting up Eltwise2
I1005 10:19:47.070005  9385 net.cpp:129] Top shape: 100 16 32 32 (1638400)
I1005 10:19:47.070008  9385 net.cpp:137] Memory required for data: 165070000
I1005 10:19:47.070009  9385 layer_factory.hpp:77] Creating layer penlu5
I1005 10:19:47.070015  9385 net.cpp:84] Creating Layer penlu5
I1005 10:19:47.070017  9385 net.cpp:406] penlu5 <- Eltwise2
I1005 10:19:47.070021  9385 net.cpp:367] penlu5 -> Eltwise2 (in-place)
I1005 10:19:47.070137  9385 net.cpp:122] Setting up penlu5
I1005 10:19:47.070142  9385 net.cpp:129] Top shape: 100 16 32 32 (1638400)
I1005 10:19:47.070143  9385 net.cpp:137] Memory required for data: 171623600
I1005 10:19:47.070147  9385 layer_factory.hpp:77] Creating layer Eltwise2_penlu5_0_split
I1005 10:19:47.070152  9385 net.cpp:84] Creating Layer Eltwise2_penlu5_0_split
I1005 10:19:47.070153  9385 net.cpp:406] Eltwise2_penlu5_0_split <- Eltwise2
I1005 10:19:47.070156  9385 net.cpp:380] Eltwise2_penlu5_0_split -> Eltwise2_penlu5_0_split_0
I1005 10:19:47.070160  9385 net.cpp:380] Eltwise2_penlu5_0_split -> Eltwise2_penlu5_0_split_1
I1005 10:19:47.070184  9385 net.cpp:122] Setting up Eltwise2_penlu5_0_split
I1005 10:19:47.070188  9385 net.cpp:129] Top shape: 100 16 32 32 (1638400)
I1005 10:19:47.070191  9385 net.cpp:129] Top shape: 100 16 32 32 (1638400)
I1005 10:19:47.070194  9385 net.cpp:137] Memory required for data: 184730800
I1005 10:19:47.070196  9385 layer_factory.hpp:77] Creating layer Convolution6
I1005 10:19:47.070202  9385 net.cpp:84] Creating Layer Convolution6
I1005 10:19:47.070204  9385 net.cpp:406] Convolution6 <- Eltwise2_penlu5_0_split_0
I1005 10:19:47.070209  9385 net.cpp:380] Convolution6 -> Convolution6
I1005 10:19:47.071142  9385 net.cpp:122] Setting up Convolution6
I1005 10:19:47.071151  9385 net.cpp:129] Top shape: 100 16 32 32 (1638400)
I1005 10:19:47.071154  9385 net.cpp:137] Memory required for data: 191284400
I1005 10:19:47.071158  9385 layer_factory.hpp:77] Creating layer BatchNorm6
I1005 10:19:47.071163  9385 net.cpp:84] Creating Layer BatchNorm6
I1005 10:19:47.071166  9385 net.cpp:406] BatchNorm6 <- Convolution6
I1005 10:19:47.071171  9385 net.cpp:367] BatchNorm6 -> Convolution6 (in-place)
I1005 10:19:47.071317  9385 net.cpp:122] Setting up BatchNorm6
I1005 10:19:47.071322  9385 net.cpp:129] Top shape: 100 16 32 32 (1638400)
I1005 10:19:47.071324  9385 net.cpp:137] Memory required for data: 197838000
I1005 10:19:47.071329  9385 layer_factory.hpp:77] Creating layer Scale6
I1005 10:19:47.071342  9385 net.cpp:84] Creating Layer Scale6
I1005 10:19:47.071346  9385 net.cpp:406] Scale6 <- Convolution6
I1005 10:19:47.071348  9385 net.cpp:367] Scale6 -> Convolution6 (in-place)
I1005 10:19:47.071375  9385 layer_factory.hpp:77] Creating layer Scale6
I1005 10:19:47.071450  9385 net.cpp:122] Setting up Scale6
I1005 10:19:47.071455  9385 net.cpp:129] Top shape: 100 16 32 32 (1638400)
I1005 10:19:47.071456  9385 net.cpp:137] Memory required for data: 204391600
I1005 10:19:47.071460  9385 layer_factory.hpp:77] Creating layer penlu6
I1005 10:19:47.071465  9385 net.cpp:84] Creating Layer penlu6
I1005 10:19:47.071468  9385 net.cpp:406] penlu6 <- Convolution6
I1005 10:19:47.071471  9385 net.cpp:367] penlu6 -> Convolution6 (in-place)
I1005 10:19:47.071589  9385 net.cpp:122] Setting up penlu6
I1005 10:19:47.071593  9385 net.cpp:129] Top shape: 100 16 32 32 (1638400)
I1005 10:19:47.071595  9385 net.cpp:137] Memory required for data: 210945200
I1005 10:19:47.071600  9385 layer_factory.hpp:77] Creating layer Convolution7
I1005 10:19:47.071607  9385 net.cpp:84] Creating Layer Convolution7
I1005 10:19:47.071609  9385 net.cpp:406] Convolution7 <- Convolution6
I1005 10:19:47.071614  9385 net.cpp:380] Convolution7 -> Convolution7
I1005 10:19:47.072535  9385 net.cpp:122] Setting up Convolution7
I1005 10:19:47.072544  9385 net.cpp:129] Top shape: 100 16 32 32 (1638400)
I1005 10:19:47.072546  9385 net.cpp:137] Memory required for data: 217498800
I1005 10:19:47.072552  9385 layer_factory.hpp:77] Creating layer BatchNorm7
I1005 10:19:47.072566  9385 net.cpp:84] Creating Layer BatchNorm7
I1005 10:19:47.072569  9385 net.cpp:406] BatchNorm7 <- Convolution7
I1005 10:19:47.072573  9385 net.cpp:367] BatchNorm7 -> Convolution7 (in-place)
I1005 10:19:47.072712  9385 net.cpp:122] Setting up BatchNorm7
I1005 10:19:47.072717  9385 net.cpp:129] Top shape: 100 16 32 32 (1638400)
I1005 10:19:47.072720  9385 net.cpp:137] Memory required for data: 224052400
I1005 10:19:47.072729  9385 layer_factory.hpp:77] Creating layer Scale7
I1005 10:19:47.072734  9385 net.cpp:84] Creating Layer Scale7
I1005 10:19:47.072736  9385 net.cpp:406] Scale7 <- Convolution7
I1005 10:19:47.072741  9385 net.cpp:367] Scale7 -> Convolution7 (in-place)
I1005 10:19:47.072769  9385 layer_factory.hpp:77] Creating layer Scale7
I1005 10:19:47.072845  9385 net.cpp:122] Setting up Scale7
I1005 10:19:47.072850  9385 net.cpp:129] Top shape: 100 16 32 32 (1638400)
I1005 10:19:47.072852  9385 net.cpp:137] Memory required for data: 230606000
I1005 10:19:47.072856  9385 layer_factory.hpp:77] Creating layer Eltwise3
I1005 10:19:47.072860  9385 net.cpp:84] Creating Layer Eltwise3
I1005 10:19:47.072862  9385 net.cpp:406] Eltwise3 <- Eltwise2_penlu5_0_split_1
I1005 10:19:47.072865  9385 net.cpp:406] Eltwise3 <- Convolution7
I1005 10:19:47.072870  9385 net.cpp:380] Eltwise3 -> Eltwise3
I1005 10:19:47.072885  9385 net.cpp:122] Setting up Eltwise3
I1005 10:19:47.072888  9385 net.cpp:129] Top shape: 100 16 32 32 (1638400)
I1005 10:19:47.072890  9385 net.cpp:137] Memory required for data: 237159600
I1005 10:19:47.072892  9385 layer_factory.hpp:77] Creating layer penlu7
I1005 10:19:47.072896  9385 net.cpp:84] Creating Layer penlu7
I1005 10:19:47.072898  9385 net.cpp:406] penlu7 <- Eltwise3
I1005 10:19:47.072902  9385 net.cpp:367] penlu7 -> Eltwise3 (in-place)
I1005 10:19:47.073019  9385 net.cpp:122] Setting up penlu7
I1005 10:19:47.073024  9385 net.cpp:129] Top shape: 100 16 32 32 (1638400)
I1005 10:19:47.073025  9385 net.cpp:137] Memory required for data: 243713200
I1005 10:19:47.073030  9385 layer_factory.hpp:77] Creating layer Eltwise3_penlu7_0_split
I1005 10:19:47.073034  9385 net.cpp:84] Creating Layer Eltwise3_penlu7_0_split
I1005 10:19:47.073036  9385 net.cpp:406] Eltwise3_penlu7_0_split <- Eltwise3
I1005 10:19:47.073040  9385 net.cpp:380] Eltwise3_penlu7_0_split -> Eltwise3_penlu7_0_split_0
I1005 10:19:47.073043  9385 net.cpp:380] Eltwise3_penlu7_0_split -> Eltwise3_penlu7_0_split_1
I1005 10:19:47.073067  9385 net.cpp:122] Setting up Eltwise3_penlu7_0_split
I1005 10:19:47.073071  9385 net.cpp:129] Top shape: 100 16 32 32 (1638400)
I1005 10:19:47.073073  9385 net.cpp:129] Top shape: 100 16 32 32 (1638400)
I1005 10:19:47.073076  9385 net.cpp:137] Memory required for data: 256820400
I1005 10:19:47.073078  9385 layer_factory.hpp:77] Creating layer Convolution8
I1005 10:19:47.073084  9385 net.cpp:84] Creating Layer Convolution8
I1005 10:19:47.073087  9385 net.cpp:406] Convolution8 <- Eltwise3_penlu7_0_split_0
I1005 10:19:47.073091  9385 net.cpp:380] Convolution8 -> Convolution8
I1005 10:19:47.073985  9385 net.cpp:122] Setting up Convolution8
I1005 10:19:47.073994  9385 net.cpp:129] Top shape: 100 32 16 16 (819200)
I1005 10:19:47.073997  9385 net.cpp:137] Memory required for data: 260097200
I1005 10:19:47.074002  9385 layer_factory.hpp:77] Creating layer BatchNorm8
I1005 10:19:47.074007  9385 net.cpp:84] Creating Layer BatchNorm8
I1005 10:19:47.074009  9385 net.cpp:406] BatchNorm8 <- Convolution8
I1005 10:19:47.074013  9385 net.cpp:367] BatchNorm8 -> Convolution8 (in-place)
I1005 10:19:47.074147  9385 net.cpp:122] Setting up BatchNorm8
I1005 10:19:47.074151  9385 net.cpp:129] Top shape: 100 32 16 16 (819200)
I1005 10:19:47.074154  9385 net.cpp:137] Memory required for data: 263374000
I1005 10:19:47.074158  9385 layer_factory.hpp:77] Creating layer Scale8
I1005 10:19:47.074162  9385 net.cpp:84] Creating Layer Scale8
I1005 10:19:47.076923  9385 net.cpp:406] Scale8 <- Convolution8
I1005 10:19:47.076930  9385 net.cpp:367] Scale8 -> Convolution8 (in-place)
I1005 10:19:47.076972  9385 layer_factory.hpp:77] Creating layer Scale8
I1005 10:19:47.077069  9385 net.cpp:122] Setting up Scale8
I1005 10:19:47.077075  9385 net.cpp:129] Top shape: 100 32 16 16 (819200)
I1005 10:19:47.077076  9385 net.cpp:137] Memory required for data: 266650800
I1005 10:19:47.077081  9385 layer_factory.hpp:77] Creating layer Convolution9
I1005 10:19:47.077088  9385 net.cpp:84] Creating Layer Convolution9
I1005 10:19:47.077091  9385 net.cpp:406] Convolution9 <- Eltwise3_penlu7_0_split_1
I1005 10:19:47.077096  9385 net.cpp:380] Convolution9 -> Convolution9
I1005 10:19:47.078146  9385 net.cpp:122] Setting up Convolution9
I1005 10:19:47.078156  9385 net.cpp:129] Top shape: 100 32 16 16 (819200)
I1005 10:19:47.078160  9385 net.cpp:137] Memory required for data: 269927600
I1005 10:19:47.078163  9385 layer_factory.hpp:77] Creating layer BatchNorm9
I1005 10:19:47.078169  9385 net.cpp:84] Creating Layer BatchNorm9
I1005 10:19:47.078172  9385 net.cpp:406] BatchNorm9 <- Convolution9
I1005 10:19:47.078176  9385 net.cpp:367] BatchNorm9 -> Convolution9 (in-place)
I1005 10:19:47.078362  9385 net.cpp:122] Setting up BatchNorm9
I1005 10:19:47.078372  9385 net.cpp:129] Top shape: 100 32 16 16 (819200)
I1005 10:19:47.078377  9385 net.cpp:137] Memory required for data: 273204400
I1005 10:19:47.078384  9385 layer_factory.hpp:77] Creating layer Scale9
I1005 10:19:47.078392  9385 net.cpp:84] Creating Layer Scale9
I1005 10:19:47.078397  9385 net.cpp:406] Scale9 <- Convolution9
I1005 10:19:47.078402  9385 net.cpp:367] Scale9 -> Convolution9 (in-place)
I1005 10:19:47.078444  9385 layer_factory.hpp:77] Creating layer Scale9
I1005 10:19:47.078613  9385 net.cpp:122] Setting up Scale9
I1005 10:19:47.078621  9385 net.cpp:129] Top shape: 100 32 16 16 (819200)
I1005 10:19:47.078624  9385 net.cpp:137] Memory required for data: 276481200
I1005 10:19:47.078629  9385 layer_factory.hpp:77] Creating layer penlu8
I1005 10:19:47.078635  9385 net.cpp:84] Creating Layer penlu8
I1005 10:19:47.078639  9385 net.cpp:406] penlu8 <- Convolution9
I1005 10:19:47.078642  9385 net.cpp:367] penlu8 -> Convolution9 (in-place)
I1005 10:19:47.078838  9385 net.cpp:122] Setting up penlu8
I1005 10:19:47.078856  9385 net.cpp:129] Top shape: 100 32 16 16 (819200)
I1005 10:19:47.078860  9385 net.cpp:137] Memory required for data: 279758000
I1005 10:19:47.078863  9385 layer_factory.hpp:77] Creating layer Convolution10
I1005 10:19:47.078871  9385 net.cpp:84] Creating Layer Convolution10
I1005 10:19:47.078874  9385 net.cpp:406] Convolution10 <- Convolution9
I1005 10:19:47.078878  9385 net.cpp:380] Convolution10 -> Convolution10
I1005 10:19:47.080019  9385 net.cpp:122] Setting up Convolution10
I1005 10:19:47.080029  9385 net.cpp:129] Top shape: 100 32 16 16 (819200)
I1005 10:19:47.080030  9385 net.cpp:137] Memory required for data: 283034800
I1005 10:19:47.080035  9385 layer_factory.hpp:77] Creating layer BatchNorm10
I1005 10:19:47.080039  9385 net.cpp:84] Creating Layer BatchNorm10
I1005 10:19:47.080042  9385 net.cpp:406] BatchNorm10 <- Convolution10
I1005 10:19:47.080046  9385 net.cpp:367] BatchNorm10 -> Convolution10 (in-place)
I1005 10:19:47.080180  9385 net.cpp:122] Setting up BatchNorm10
I1005 10:19:47.080185  9385 net.cpp:129] Top shape: 100 32 16 16 (819200)
I1005 10:19:47.080188  9385 net.cpp:137] Memory required for data: 286311600
I1005 10:19:47.080193  9385 layer_factory.hpp:77] Creating layer Scale10
I1005 10:19:47.080205  9385 net.cpp:84] Creating Layer Scale10
I1005 10:19:47.080209  9385 net.cpp:406] Scale10 <- Convolution10
I1005 10:19:47.080211  9385 net.cpp:367] Scale10 -> Convolution10 (in-place)
I1005 10:19:47.080250  9385 layer_factory.hpp:77] Creating layer Scale10
I1005 10:19:47.080368  9385 net.cpp:122] Setting up Scale10
I1005 10:19:47.080374  9385 net.cpp:129] Top shape: 100 32 16 16 (819200)
I1005 10:19:47.080375  9385 net.cpp:137] Memory required for data: 289588400
I1005 10:19:47.080379  9385 layer_factory.hpp:77] Creating layer Eltwise4
I1005 10:19:47.080384  9385 net.cpp:84] Creating Layer Eltwise4
I1005 10:19:47.080395  9385 net.cpp:406] Eltwise4 <- Convolution8
I1005 10:19:47.080399  9385 net.cpp:406] Eltwise4 <- Convolution10
I1005 10:19:47.080410  9385 net.cpp:380] Eltwise4 -> Eltwise4
I1005 10:19:47.080425  9385 net.cpp:122] Setting up Eltwise4
I1005 10:19:47.080428  9385 net.cpp:129] Top shape: 100 32 16 16 (819200)
I1005 10:19:47.080430  9385 net.cpp:137] Memory required for data: 292865200
I1005 10:19:47.080433  9385 layer_factory.hpp:77] Creating layer penlu9
I1005 10:19:47.080438  9385 net.cpp:84] Creating Layer penlu9
I1005 10:19:47.080441  9385 net.cpp:406] penlu9 <- Eltwise4
I1005 10:19:47.080446  9385 net.cpp:367] penlu9 -> Eltwise4 (in-place)
I1005 10:19:47.080561  9385 net.cpp:122] Setting up penlu9
I1005 10:19:47.080566  9385 net.cpp:129] Top shape: 100 32 16 16 (819200)
I1005 10:19:47.080569  9385 net.cpp:137] Memory required for data: 296142000
I1005 10:19:47.080572  9385 layer_factory.hpp:77] Creating layer Eltwise4_penlu9_0_split
I1005 10:19:47.080576  9385 net.cpp:84] Creating Layer Eltwise4_penlu9_0_split
I1005 10:19:47.080579  9385 net.cpp:406] Eltwise4_penlu9_0_split <- Eltwise4
I1005 10:19:47.080582  9385 net.cpp:380] Eltwise4_penlu9_0_split -> Eltwise4_penlu9_0_split_0
I1005 10:19:47.080586  9385 net.cpp:380] Eltwise4_penlu9_0_split -> Eltwise4_penlu9_0_split_1
I1005 10:19:47.080610  9385 net.cpp:122] Setting up Eltwise4_penlu9_0_split
I1005 10:19:47.080612  9385 net.cpp:129] Top shape: 100 32 16 16 (819200)
I1005 10:19:47.080615  9385 net.cpp:129] Top shape: 100 32 16 16 (819200)
I1005 10:19:47.080617  9385 net.cpp:137] Memory required for data: 302695600
I1005 10:19:47.080620  9385 layer_factory.hpp:77] Creating layer Convolution11
I1005 10:19:47.080626  9385 net.cpp:84] Creating Layer Convolution11
I1005 10:19:47.080628  9385 net.cpp:406] Convolution11 <- Eltwise4_penlu9_0_split_0
I1005 10:19:47.080632  9385 net.cpp:380] Convolution11 -> Convolution11
I1005 10:19:47.081749  9385 net.cpp:122] Setting up Convolution11
I1005 10:19:47.081758  9385 net.cpp:129] Top shape: 100 32 16 16 (819200)
I1005 10:19:47.081761  9385 net.cpp:137] Memory required for data: 305972400
I1005 10:19:47.081765  9385 layer_factory.hpp:77] Creating layer BatchNorm11
I1005 10:19:47.081770  9385 net.cpp:84] Creating Layer BatchNorm11
I1005 10:19:47.081773  9385 net.cpp:406] BatchNorm11 <- Convolution11
I1005 10:19:47.081778  9385 net.cpp:367] BatchNorm11 -> Convolution11 (in-place)
I1005 10:19:47.081909  9385 net.cpp:122] Setting up BatchNorm11
I1005 10:19:47.081914  9385 net.cpp:129] Top shape: 100 32 16 16 (819200)
I1005 10:19:47.081917  9385 net.cpp:137] Memory required for data: 309249200
I1005 10:19:47.081921  9385 layer_factory.hpp:77] Creating layer Scale11
I1005 10:19:47.081925  9385 net.cpp:84] Creating Layer Scale11
I1005 10:19:47.081928  9385 net.cpp:406] Scale11 <- Convolution11
I1005 10:19:47.081931  9385 net.cpp:367] Scale11 -> Convolution11 (in-place)
I1005 10:19:47.081959  9385 layer_factory.hpp:77] Creating layer Scale11
I1005 10:19:47.082033  9385 net.cpp:122] Setting up Scale11
I1005 10:19:47.082037  9385 net.cpp:129] Top shape: 100 32 16 16 (819200)
I1005 10:19:47.082039  9385 net.cpp:137] Memory required for data: 312526000
I1005 10:19:47.082043  9385 layer_factory.hpp:77] Creating layer penlu10
I1005 10:19:47.082048  9385 net.cpp:84] Creating Layer penlu10
I1005 10:19:47.082051  9385 net.cpp:406] penlu10 <- Convolution11
I1005 10:19:47.082054  9385 net.cpp:367] penlu10 -> Convolution11 (in-place)
I1005 10:19:47.082162  9385 net.cpp:122] Setting up penlu10
I1005 10:19:47.082166  9385 net.cpp:129] Top shape: 100 32 16 16 (819200)
I1005 10:19:47.082168  9385 net.cpp:137] Memory required for data: 315802800
I1005 10:19:47.082173  9385 layer_factory.hpp:77] Creating layer Convolution12
I1005 10:19:47.082180  9385 net.cpp:84] Creating Layer Convolution12
I1005 10:19:47.082183  9385 net.cpp:406] Convolution12 <- Convolution11
I1005 10:19:47.082188  9385 net.cpp:380] Convolution12 -> Convolution12
I1005 10:19:47.082943  9385 net.cpp:122] Setting up Convolution12
I1005 10:19:47.082950  9385 net.cpp:129] Top shape: 100 32 16 16 (819200)
I1005 10:19:47.082953  9385 net.cpp:137] Memory required for data: 319079600
I1005 10:19:47.082964  9385 layer_factory.hpp:77] Creating layer BatchNorm12
I1005 10:19:47.082969  9385 net.cpp:84] Creating Layer BatchNorm12
I1005 10:19:47.082973  9385 net.cpp:406] BatchNorm12 <- Convolution12
I1005 10:19:47.082975  9385 net.cpp:367] BatchNorm12 -> Convolution12 (in-place)
I1005 10:19:47.083111  9385 net.cpp:122] Setting up BatchNorm12
I1005 10:19:47.083114  9385 net.cpp:129] Top shape: 100 32 16 16 (819200)
I1005 10:19:47.083117  9385 net.cpp:137] Memory required for data: 322356400
I1005 10:19:47.083122  9385 layer_factory.hpp:77] Creating layer Scale12
I1005 10:19:47.083124  9385 net.cpp:84] Creating Layer Scale12
I1005 10:19:47.083127  9385 net.cpp:406] Scale12 <- Convolution12
I1005 10:19:47.083130  9385 net.cpp:367] Scale12 -> Convolution12 (in-place)
I1005 10:19:47.083156  9385 layer_factory.hpp:77] Creating layer Scale12
I1005 10:19:47.083232  9385 net.cpp:122] Setting up Scale12
I1005 10:19:47.083236  9385 net.cpp:129] Top shape: 100 32 16 16 (819200)
I1005 10:19:47.083238  9385 net.cpp:137] Memory required for data: 325633200
I1005 10:19:47.083242  9385 layer_factory.hpp:77] Creating layer Eltwise5
I1005 10:19:47.083246  9385 net.cpp:84] Creating Layer Eltwise5
I1005 10:19:47.083248  9385 net.cpp:406] Eltwise5 <- Eltwise4_penlu9_0_split_1
I1005 10:19:47.083251  9385 net.cpp:406] Eltwise5 <- Convolution12
I1005 10:19:47.083254  9385 net.cpp:380] Eltwise5 -> Eltwise5
I1005 10:19:47.083267  9385 net.cpp:122] Setting up Eltwise5
I1005 10:19:47.083271  9385 net.cpp:129] Top shape: 100 32 16 16 (819200)
I1005 10:19:47.083272  9385 net.cpp:137] Memory required for data: 328910000
I1005 10:19:47.083274  9385 layer_factory.hpp:77] Creating layer penlu11
I1005 10:19:47.083281  9385 net.cpp:84] Creating Layer penlu11
I1005 10:19:47.083282  9385 net.cpp:406] penlu11 <- Eltwise5
I1005 10:19:47.083286  9385 net.cpp:367] penlu11 -> Eltwise5 (in-place)
I1005 10:19:47.083397  9385 net.cpp:122] Setting up penlu11
I1005 10:19:47.083402  9385 net.cpp:129] Top shape: 100 32 16 16 (819200)
I1005 10:19:47.083405  9385 net.cpp:137] Memory required for data: 332186800
I1005 10:19:47.083408  9385 layer_factory.hpp:77] Creating layer Eltwise5_penlu11_0_split
I1005 10:19:47.083411  9385 net.cpp:84] Creating Layer Eltwise5_penlu11_0_split
I1005 10:19:47.083415  9385 net.cpp:406] Eltwise5_penlu11_0_split <- Eltwise5
I1005 10:19:47.083418  9385 net.cpp:380] Eltwise5_penlu11_0_split -> Eltwise5_penlu11_0_split_0
I1005 10:19:47.083422  9385 net.cpp:380] Eltwise5_penlu11_0_split -> Eltwise5_penlu11_0_split_1
I1005 10:19:47.083448  9385 net.cpp:122] Setting up Eltwise5_penlu11_0_split
I1005 10:19:47.083452  9385 net.cpp:129] Top shape: 100 32 16 16 (819200)
I1005 10:19:47.083456  9385 net.cpp:129] Top shape: 100 32 16 16 (819200)
I1005 10:19:47.083457  9385 net.cpp:137] Memory required for data: 338740400
I1005 10:19:47.083459  9385 layer_factory.hpp:77] Creating layer Convolution13
I1005 10:19:47.083464  9385 net.cpp:84] Creating Layer Convolution13
I1005 10:19:47.083467  9385 net.cpp:406] Convolution13 <- Eltwise5_penlu11_0_split_0
I1005 10:19:47.083472  9385 net.cpp:380] Convolution13 -> Convolution13
I1005 10:19:47.084517  9385 net.cpp:122] Setting up Convolution13
I1005 10:19:47.084524  9385 net.cpp:129] Top shape: 100 32 16 16 (819200)
I1005 10:19:47.084527  9385 net.cpp:137] Memory required for data: 342017200
I1005 10:19:47.084532  9385 layer_factory.hpp:77] Creating layer BatchNorm13
I1005 10:19:47.084537  9385 net.cpp:84] Creating Layer BatchNorm13
I1005 10:19:47.084540  9385 net.cpp:406] BatchNorm13 <- Convolution13
I1005 10:19:47.084544  9385 net.cpp:367] BatchNorm13 -> Convolution13 (in-place)
I1005 10:19:47.084677  9385 net.cpp:122] Setting up BatchNorm13
I1005 10:19:47.084681  9385 net.cpp:129] Top shape: 100 32 16 16 (819200)
I1005 10:19:47.084684  9385 net.cpp:137] Memory required for data: 345294000
I1005 10:19:47.084688  9385 layer_factory.hpp:77] Creating layer Scale13
I1005 10:19:47.084692  9385 net.cpp:84] Creating Layer Scale13
I1005 10:19:47.084694  9385 net.cpp:406] Scale13 <- Convolution13
I1005 10:19:47.084704  9385 net.cpp:367] Scale13 -> Convolution13 (in-place)
I1005 10:19:47.084733  9385 layer_factory.hpp:77] Creating layer Scale13
I1005 10:19:47.084811  9385 net.cpp:122] Setting up Scale13
I1005 10:19:47.084816  9385 net.cpp:129] Top shape: 100 32 16 16 (819200)
I1005 10:19:47.084818  9385 net.cpp:137] Memory required for data: 348570800
I1005 10:19:47.084821  9385 layer_factory.hpp:77] Creating layer penlu12
I1005 10:19:47.084827  9385 net.cpp:84] Creating Layer penlu12
I1005 10:19:47.084830  9385 net.cpp:406] penlu12 <- Convolution13
I1005 10:19:47.084833  9385 net.cpp:367] penlu12 -> Convolution13 (in-place)
I1005 10:19:47.084941  9385 net.cpp:122] Setting up penlu12
I1005 10:19:47.084945  9385 net.cpp:129] Top shape: 100 32 16 16 (819200)
I1005 10:19:47.084947  9385 net.cpp:137] Memory required for data: 351847600
I1005 10:19:47.084951  9385 layer_factory.hpp:77] Creating layer Convolution14
I1005 10:19:47.084961  9385 net.cpp:84] Creating Layer Convolution14
I1005 10:19:47.084964  9385 net.cpp:406] Convolution14 <- Convolution13
I1005 10:19:47.084969  9385 net.cpp:380] Convolution14 -> Convolution14
I1005 10:19:47.086019  9385 net.cpp:122] Setting up Convolution14
I1005 10:19:47.086026  9385 net.cpp:129] Top shape: 100 32 16 16 (819200)
I1005 10:19:47.086030  9385 net.cpp:137] Memory required for data: 355124400
I1005 10:19:47.086045  9385 layer_factory.hpp:77] Creating layer BatchNorm14
I1005 10:19:47.086050  9385 net.cpp:84] Creating Layer BatchNorm14
I1005 10:19:47.086052  9385 net.cpp:406] BatchNorm14 <- Convolution14
I1005 10:19:47.086056  9385 net.cpp:367] BatchNorm14 -> Convolution14 (in-place)
I1005 10:19:47.086189  9385 net.cpp:122] Setting up BatchNorm14
I1005 10:19:47.086195  9385 net.cpp:129] Top shape: 100 32 16 16 (819200)
I1005 10:19:47.086197  9385 net.cpp:137] Memory required for data: 358401200
I1005 10:19:47.086202  9385 layer_factory.hpp:77] Creating layer Scale14
I1005 10:19:47.086205  9385 net.cpp:84] Creating Layer Scale14
I1005 10:19:47.086208  9385 net.cpp:406] Scale14 <- Convolution14
I1005 10:19:47.086211  9385 net.cpp:367] Scale14 -> Convolution14 (in-place)
I1005 10:19:47.086238  9385 layer_factory.hpp:77] Creating layer Scale14
I1005 10:19:47.086313  9385 net.cpp:122] Setting up Scale14
I1005 10:19:47.086318  9385 net.cpp:129] Top shape: 100 32 16 16 (819200)
I1005 10:19:47.086320  9385 net.cpp:137] Memory required for data: 361678000
I1005 10:19:47.086324  9385 layer_factory.hpp:77] Creating layer Eltwise6
I1005 10:19:47.086328  9385 net.cpp:84] Creating Layer Eltwise6
I1005 10:19:47.086330  9385 net.cpp:406] Eltwise6 <- Eltwise5_penlu11_0_split_1
I1005 10:19:47.086333  9385 net.cpp:406] Eltwise6 <- Convolution14
I1005 10:19:47.086336  9385 net.cpp:380] Eltwise6 -> Eltwise6
I1005 10:19:47.086349  9385 net.cpp:122] Setting up Eltwise6
I1005 10:19:47.086352  9385 net.cpp:129] Top shape: 100 32 16 16 (819200)
I1005 10:19:47.086354  9385 net.cpp:137] Memory required for data: 364954800
I1005 10:19:47.086356  9385 layer_factory.hpp:77] Creating layer penlu13
I1005 10:19:47.086361  9385 net.cpp:84] Creating Layer penlu13
I1005 10:19:47.086364  9385 net.cpp:406] penlu13 <- Eltwise6
I1005 10:19:47.086367  9385 net.cpp:367] penlu13 -> Eltwise6 (in-place)
I1005 10:19:47.086480  9385 net.cpp:122] Setting up penlu13
I1005 10:19:47.086484  9385 net.cpp:129] Top shape: 100 32 16 16 (819200)
I1005 10:19:47.086486  9385 net.cpp:137] Memory required for data: 368231600
I1005 10:19:47.086490  9385 layer_factory.hpp:77] Creating layer Eltwise6_penlu13_0_split
I1005 10:19:47.086494  9385 net.cpp:84] Creating Layer Eltwise6_penlu13_0_split
I1005 10:19:47.086496  9385 net.cpp:406] Eltwise6_penlu13_0_split <- Eltwise6
I1005 10:19:47.086500  9385 net.cpp:380] Eltwise6_penlu13_0_split -> Eltwise6_penlu13_0_split_0
I1005 10:19:47.107406  9385 net.cpp:380] Eltwise6_penlu13_0_split -> Eltwise6_penlu13_0_split_1
I1005 10:19:47.107450  9385 net.cpp:122] Setting up Eltwise6_penlu13_0_split
I1005 10:19:47.107455  9385 net.cpp:129] Top shape: 100 32 16 16 (819200)
I1005 10:19:47.107467  9385 net.cpp:129] Top shape: 100 32 16 16 (819200)
I1005 10:19:47.107470  9385 net.cpp:137] Memory required for data: 374785200
I1005 10:19:47.107472  9385 layer_factory.hpp:77] Creating layer Convolution15
I1005 10:19:47.107483  9385 net.cpp:84] Creating Layer Convolution15
I1005 10:19:47.107486  9385 net.cpp:406] Convolution15 <- Eltwise6_penlu13_0_split_0
I1005 10:19:47.107491  9385 net.cpp:380] Convolution15 -> Convolution15
I1005 10:19:47.108521  9385 net.cpp:122] Setting up Convolution15
I1005 10:19:47.108530  9385 net.cpp:129] Top shape: 100 64 8 8 (409600)
I1005 10:19:47.108533  9385 net.cpp:137] Memory required for data: 376423600
I1005 10:19:47.108538  9385 layer_factory.hpp:77] Creating layer BatchNorm15
I1005 10:19:47.108544  9385 net.cpp:84] Creating Layer BatchNorm15
I1005 10:19:47.108547  9385 net.cpp:406] BatchNorm15 <- Convolution15
I1005 10:19:47.108551  9385 net.cpp:367] BatchNorm15 -> Convolution15 (in-place)
I1005 10:19:47.108754  9385 net.cpp:122] Setting up BatchNorm15
I1005 10:19:47.108767  9385 net.cpp:129] Top shape: 100 64 8 8 (409600)
I1005 10:19:47.108772  9385 net.cpp:137] Memory required for data: 378062000
I1005 10:19:47.108788  9385 layer_factory.hpp:77] Creating layer Scale15
I1005 10:19:47.108795  9385 net.cpp:84] Creating Layer Scale15
I1005 10:19:47.108799  9385 net.cpp:406] Scale15 <- Convolution15
I1005 10:19:47.108805  9385 net.cpp:367] Scale15 -> Convolution15 (in-place)
I1005 10:19:47.108875  9385 layer_factory.hpp:77] Creating layer Scale15
I1005 10:19:47.108979  9385 net.cpp:122] Setting up Scale15
I1005 10:19:47.108988  9385 net.cpp:129] Top shape: 100 64 8 8 (409600)
I1005 10:19:47.108991  9385 net.cpp:137] Memory required for data: 379700400
I1005 10:19:47.108999  9385 layer_factory.hpp:77] Creating layer Convolution16
I1005 10:19:47.109019  9385 net.cpp:84] Creating Layer Convolution16
I1005 10:19:47.109024  9385 net.cpp:406] Convolution16 <- Eltwise6_penlu13_0_split_1
I1005 10:19:47.109032  9385 net.cpp:380] Convolution16 -> Convolution16
I1005 10:19:47.110447  9385 net.cpp:122] Setting up Convolution16
I1005 10:19:47.110456  9385 net.cpp:129] Top shape: 100 64 8 8 (409600)
I1005 10:19:47.110460  9385 net.cpp:137] Memory required for data: 381338800
I1005 10:19:47.110463  9385 layer_factory.hpp:77] Creating layer BatchNorm16
I1005 10:19:47.110468  9385 net.cpp:84] Creating Layer BatchNorm16
I1005 10:19:47.110471  9385 net.cpp:406] BatchNorm16 <- Convolution16
I1005 10:19:47.110476  9385 net.cpp:367] BatchNorm16 -> Convolution16 (in-place)
I1005 10:19:47.110677  9385 net.cpp:122] Setting up BatchNorm16
I1005 10:19:47.110682  9385 net.cpp:129] Top shape: 100 64 8 8 (409600)
I1005 10:19:47.110684  9385 net.cpp:137] Memory required for data: 382977200
I1005 10:19:47.110690  9385 layer_factory.hpp:77] Creating layer Scale16
I1005 10:19:47.110704  9385 net.cpp:84] Creating Layer Scale16
I1005 10:19:47.110707  9385 net.cpp:406] Scale16 <- Convolution16
I1005 10:19:47.110711  9385 net.cpp:367] Scale16 -> Convolution16 (in-place)
I1005 10:19:47.110749  9385 layer_factory.hpp:77] Creating layer Scale16
I1005 10:19:47.110828  9385 net.cpp:122] Setting up Scale16
I1005 10:19:47.110833  9385 net.cpp:129] Top shape: 100 64 8 8 (409600)
I1005 10:19:47.110836  9385 net.cpp:137] Memory required for data: 384615600
I1005 10:19:47.110839  9385 layer_factory.hpp:77] Creating layer penlu14
I1005 10:19:47.110844  9385 net.cpp:84] Creating Layer penlu14
I1005 10:19:47.110847  9385 net.cpp:406] penlu14 <- Convolution16
I1005 10:19:47.110852  9385 net.cpp:367] penlu14 -> Convolution16 (in-place)
I1005 10:19:47.111016  9385 net.cpp:122] Setting up penlu14
I1005 10:19:47.111022  9385 net.cpp:129] Top shape: 100 64 8 8 (409600)
I1005 10:19:47.111024  9385 net.cpp:137] Memory required for data: 386254000
I1005 10:19:47.111029  9385 layer_factory.hpp:77] Creating layer Convolution17
I1005 10:19:47.111035  9385 net.cpp:84] Creating Layer Convolution17
I1005 10:19:47.111038  9385 net.cpp:406] Convolution17 <- Convolution16
I1005 10:19:47.111053  9385 net.cpp:380] Convolution17 -> Convolution17
I1005 10:19:47.112818  9385 net.cpp:122] Setting up Convolution17
I1005 10:19:47.112828  9385 net.cpp:129] Top shape: 100 64 8 8 (409600)
I1005 10:19:47.112830  9385 net.cpp:137] Memory required for data: 387892400
I1005 10:19:47.112834  9385 layer_factory.hpp:77] Creating layer BatchNorm17
I1005 10:19:47.112840  9385 net.cpp:84] Creating Layer BatchNorm17
I1005 10:19:47.112843  9385 net.cpp:406] BatchNorm17 <- Convolution17
I1005 10:19:47.112846  9385 net.cpp:367] BatchNorm17 -> Convolution17 (in-place)
I1005 10:19:47.112985  9385 net.cpp:122] Setting up BatchNorm17
I1005 10:19:47.112990  9385 net.cpp:129] Top shape: 100 64 8 8 (409600)
I1005 10:19:47.112993  9385 net.cpp:137] Memory required for data: 389530800
I1005 10:19:47.112996  9385 layer_factory.hpp:77] Creating layer Scale17
I1005 10:19:47.113000  9385 net.cpp:84] Creating Layer Scale17
I1005 10:19:47.113003  9385 net.cpp:406] Scale17 <- Convolution17
I1005 10:19:47.113006  9385 net.cpp:367] Scale17 -> Convolution17 (in-place)
I1005 10:19:47.113034  9385 layer_factory.hpp:77] Creating layer Scale17
I1005 10:19:47.113116  9385 net.cpp:122] Setting up Scale17
I1005 10:19:47.113121  9385 net.cpp:129] Top shape: 100 64 8 8 (409600)
I1005 10:19:47.113122  9385 net.cpp:137] Memory required for data: 391169200
I1005 10:19:47.113126  9385 layer_factory.hpp:77] Creating layer Eltwise7
I1005 10:19:47.113131  9385 net.cpp:84] Creating Layer Eltwise7
I1005 10:19:47.113132  9385 net.cpp:406] Eltwise7 <- Convolution15
I1005 10:19:47.113135  9385 net.cpp:406] Eltwise7 <- Convolution17
I1005 10:19:47.113138  9385 net.cpp:380] Eltwise7 -> Eltwise7
I1005 10:19:47.113154  9385 net.cpp:122] Setting up Eltwise7
I1005 10:19:47.113158  9385 net.cpp:129] Top shape: 100 64 8 8 (409600)
I1005 10:19:47.113160  9385 net.cpp:137] Memory required for data: 392807600
I1005 10:19:47.113162  9385 layer_factory.hpp:77] Creating layer penlu15
I1005 10:19:47.113168  9385 net.cpp:84] Creating Layer penlu15
I1005 10:19:47.113170  9385 net.cpp:406] penlu15 <- Eltwise7
I1005 10:19:47.113174  9385 net.cpp:367] penlu15 -> Eltwise7 (in-place)
I1005 10:19:47.113284  9385 net.cpp:122] Setting up penlu15
I1005 10:19:47.113288  9385 net.cpp:129] Top shape: 100 64 8 8 (409600)
I1005 10:19:47.113291  9385 net.cpp:137] Memory required for data: 394446000
I1005 10:19:47.113296  9385 layer_factory.hpp:77] Creating layer Eltwise7_penlu15_0_split
I1005 10:19:47.113299  9385 net.cpp:84] Creating Layer Eltwise7_penlu15_0_split
I1005 10:19:47.113302  9385 net.cpp:406] Eltwise7_penlu15_0_split <- Eltwise7
I1005 10:19:47.113306  9385 net.cpp:380] Eltwise7_penlu15_0_split -> Eltwise7_penlu15_0_split_0
I1005 10:19:47.113308  9385 net.cpp:380] Eltwise7_penlu15_0_split -> Eltwise7_penlu15_0_split_1
I1005 10:19:47.113333  9385 net.cpp:122] Setting up Eltwise7_penlu15_0_split
I1005 10:19:47.113337  9385 net.cpp:129] Top shape: 100 64 8 8 (409600)
I1005 10:19:47.113340  9385 net.cpp:129] Top shape: 100 64 8 8 (409600)
I1005 10:19:47.113343  9385 net.cpp:137] Memory required for data: 397722800
I1005 10:19:47.113344  9385 layer_factory.hpp:77] Creating layer Convolution18
I1005 10:19:47.113350  9385 net.cpp:84] Creating Layer Convolution18
I1005 10:19:47.113353  9385 net.cpp:406] Convolution18 <- Eltwise7_penlu15_0_split_0
I1005 10:19:47.113358  9385 net.cpp:380] Convolution18 -> Convolution18
I1005 10:19:47.115074  9385 net.cpp:122] Setting up Convolution18
I1005 10:19:47.115083  9385 net.cpp:129] Top shape: 100 64 8 8 (409600)
I1005 10:19:47.115087  9385 net.cpp:137] Memory required for data: 399361200
I1005 10:19:47.115090  9385 layer_factory.hpp:77] Creating layer BatchNorm18
I1005 10:19:47.115095  9385 net.cpp:84] Creating Layer BatchNorm18
I1005 10:19:47.115098  9385 net.cpp:406] BatchNorm18 <- Convolution18
I1005 10:19:47.115103  9385 net.cpp:367] BatchNorm18 -> Convolution18 (in-place)
I1005 10:19:47.115242  9385 net.cpp:122] Setting up BatchNorm18
I1005 10:19:47.115247  9385 net.cpp:129] Top shape: 100 64 8 8 (409600)
I1005 10:19:47.115248  9385 net.cpp:137] Memory required for data: 400999600
I1005 10:19:47.115252  9385 layer_factory.hpp:77] Creating layer Scale18
I1005 10:19:47.115263  9385 net.cpp:84] Creating Layer Scale18
I1005 10:19:47.115267  9385 net.cpp:406] Scale18 <- Convolution18
I1005 10:19:47.115269  9385 net.cpp:367] Scale18 -> Convolution18 (in-place)
I1005 10:19:47.115300  9385 layer_factory.hpp:77] Creating layer Scale18
I1005 10:19:47.115378  9385 net.cpp:122] Setting up Scale18
I1005 10:19:47.115383  9385 net.cpp:129] Top shape: 100 64 8 8 (409600)
I1005 10:19:47.115386  9385 net.cpp:137] Memory required for data: 402638000
I1005 10:19:47.115389  9385 layer_factory.hpp:77] Creating layer penlu16
I1005 10:19:47.115393  9385 net.cpp:84] Creating Layer penlu16
I1005 10:19:47.115396  9385 net.cpp:406] penlu16 <- Convolution18
I1005 10:19:47.115401  9385 net.cpp:367] penlu16 -> Convolution18 (in-place)
I1005 10:19:47.115509  9385 net.cpp:122] Setting up penlu16
I1005 10:19:47.115514  9385 net.cpp:129] Top shape: 100 64 8 8 (409600)
I1005 10:19:47.115515  9385 net.cpp:137] Memory required for data: 404276400
I1005 10:19:47.115520  9385 layer_factory.hpp:77] Creating layer Convolution19
I1005 10:19:47.115525  9385 net.cpp:84] Creating Layer Convolution19
I1005 10:19:47.115528  9385 net.cpp:406] Convolution19 <- Convolution18
I1005 10:19:47.115532  9385 net.cpp:380] Convolution19 -> Convolution19
I1005 10:19:47.117223  9385 net.cpp:122] Setting up Convolution19
I1005 10:19:47.117230  9385 net.cpp:129] Top shape: 100 64 8 8 (409600)
I1005 10:19:47.117233  9385 net.cpp:137] Memory required for data: 405914800
I1005 10:19:47.117238  9385 layer_factory.hpp:77] Creating layer BatchNorm19
I1005 10:19:47.117242  9385 net.cpp:84] Creating Layer BatchNorm19
I1005 10:19:47.117245  9385 net.cpp:406] BatchNorm19 <- Convolution19
I1005 10:19:47.117249  9385 net.cpp:367] BatchNorm19 -> Convolution19 (in-place)
I1005 10:19:47.117388  9385 net.cpp:122] Setting up BatchNorm19
I1005 10:19:47.117393  9385 net.cpp:129] Top shape: 100 64 8 8 (409600)
I1005 10:19:47.117394  9385 net.cpp:137] Memory required for data: 407553200
I1005 10:19:47.117399  9385 layer_factory.hpp:77] Creating layer Scale19
I1005 10:19:47.117403  9385 net.cpp:84] Creating Layer Scale19
I1005 10:19:47.117405  9385 net.cpp:406] Scale19 <- Convolution19
I1005 10:19:47.117408  9385 net.cpp:367] Scale19 -> Convolution19 (in-place)
I1005 10:19:47.117436  9385 layer_factory.hpp:77] Creating layer Scale19
I1005 10:19:47.117533  9385 net.cpp:122] Setting up Scale19
I1005 10:19:47.117539  9385 net.cpp:129] Top shape: 100 64 8 8 (409600)
I1005 10:19:47.117542  9385 net.cpp:137] Memory required for data: 409191600
I1005 10:19:47.117545  9385 layer_factory.hpp:77] Creating layer Eltwise8
I1005 10:19:47.117550  9385 net.cpp:84] Creating Layer Eltwise8
I1005 10:19:47.117553  9385 net.cpp:406] Eltwise8 <- Eltwise7_penlu15_0_split_1
I1005 10:19:47.117557  9385 net.cpp:406] Eltwise8 <- Convolution19
I1005 10:19:47.117559  9385 net.cpp:380] Eltwise8 -> Eltwise8
I1005 10:19:47.117578  9385 net.cpp:122] Setting up Eltwise8
I1005 10:19:47.117580  9385 net.cpp:129] Top shape: 100 64 8 8 (409600)
I1005 10:19:47.117583  9385 net.cpp:137] Memory required for data: 410830000
I1005 10:19:47.117584  9385 layer_factory.hpp:77] Creating layer penlu17
I1005 10:19:47.117590  9385 net.cpp:84] Creating Layer penlu17
I1005 10:19:47.117594  9385 net.cpp:406] penlu17 <- Eltwise8
I1005 10:19:47.117596  9385 net.cpp:367] penlu17 -> Eltwise8 (in-place)
I1005 10:19:47.117707  9385 net.cpp:122] Setting up penlu17
I1005 10:19:47.117712  9385 net.cpp:129] Top shape: 100 64 8 8 (409600)
I1005 10:19:47.117713  9385 net.cpp:137] Memory required for data: 412468400
I1005 10:19:47.117717  9385 layer_factory.hpp:77] Creating layer Eltwise8_penlu17_0_split
I1005 10:19:47.117722  9385 net.cpp:84] Creating Layer Eltwise8_penlu17_0_split
I1005 10:19:47.117724  9385 net.cpp:406] Eltwise8_penlu17_0_split <- Eltwise8
I1005 10:19:47.117727  9385 net.cpp:380] Eltwise8_penlu17_0_split -> Eltwise8_penlu17_0_split_0
I1005 10:19:47.117732  9385 net.cpp:380] Eltwise8_penlu17_0_split -> Eltwise8_penlu17_0_split_1
I1005 10:19:47.117754  9385 net.cpp:122] Setting up Eltwise8_penlu17_0_split
I1005 10:19:47.117764  9385 net.cpp:129] Top shape: 100 64 8 8 (409600)
I1005 10:19:47.117769  9385 net.cpp:129] Top shape: 100 64 8 8 (409600)
I1005 10:19:47.117770  9385 net.cpp:137] Memory required for data: 415745200
I1005 10:19:47.117772  9385 layer_factory.hpp:77] Creating layer Convolution20
I1005 10:19:47.117777  9385 net.cpp:84] Creating Layer Convolution20
I1005 10:19:47.117780  9385 net.cpp:406] Convolution20 <- Eltwise8_penlu17_0_split_0
I1005 10:19:47.117785  9385 net.cpp:380] Convolution20 -> Convolution20
I1005 10:19:47.119817  9385 net.cpp:122] Setting up Convolution20
I1005 10:19:47.119827  9385 net.cpp:129] Top shape: 100 64 8 8 (409600)
I1005 10:19:47.119829  9385 net.cpp:137] Memory required for data: 417383600
I1005 10:19:47.119833  9385 layer_factory.hpp:77] Creating layer BatchNorm20
I1005 10:19:47.119838  9385 net.cpp:84] Creating Layer BatchNorm20
I1005 10:19:47.119840  9385 net.cpp:406] BatchNorm20 <- Convolution20
I1005 10:19:47.119846  9385 net.cpp:367] BatchNorm20 -> Convolution20 (in-place)
I1005 10:19:47.119988  9385 net.cpp:122] Setting up BatchNorm20
I1005 10:19:47.119992  9385 net.cpp:129] Top shape: 100 64 8 8 (409600)
I1005 10:19:47.119995  9385 net.cpp:137] Memory required for data: 419022000
I1005 10:19:47.119999  9385 layer_factory.hpp:77] Creating layer Scale20
I1005 10:19:47.120003  9385 net.cpp:84] Creating Layer Scale20
I1005 10:19:47.120005  9385 net.cpp:406] Scale20 <- Convolution20
I1005 10:19:47.120009  9385 net.cpp:367] Scale20 -> Convolution20 (in-place)
I1005 10:19:47.120036  9385 layer_factory.hpp:77] Creating layer Scale20
I1005 10:19:47.120117  9385 net.cpp:122] Setting up Scale20
I1005 10:19:47.120121  9385 net.cpp:129] Top shape: 100 64 8 8 (409600)
I1005 10:19:47.120123  9385 net.cpp:137] Memory required for data: 420660400
I1005 10:19:47.120127  9385 layer_factory.hpp:77] Creating layer penlu18
I1005 10:19:47.120132  9385 net.cpp:84] Creating Layer penlu18
I1005 10:19:47.120134  9385 net.cpp:406] penlu18 <- Convolution20
I1005 10:19:47.120138  9385 net.cpp:367] penlu18 -> Convolution20 (in-place)
I1005 10:19:47.120249  9385 net.cpp:122] Setting up penlu18
I1005 10:19:47.120254  9385 net.cpp:129] Top shape: 100 64 8 8 (409600)
I1005 10:19:47.120255  9385 net.cpp:137] Memory required for data: 422298800
I1005 10:19:47.120260  9385 layer_factory.hpp:77] Creating layer Convolution21
I1005 10:19:47.120265  9385 net.cpp:84] Creating Layer Convolution21
I1005 10:19:47.120267  9385 net.cpp:406] Convolution21 <- Convolution20
I1005 10:19:47.120272  9385 net.cpp:380] Convolution21 -> Convolution21
I1005 10:19:47.122301  9385 net.cpp:122] Setting up Convolution21
I1005 10:19:47.122310  9385 net.cpp:129] Top shape: 100 64 8 8 (409600)
I1005 10:19:47.122313  9385 net.cpp:137] Memory required for data: 423937200
I1005 10:19:47.122318  9385 layer_factory.hpp:77] Creating layer BatchNorm21
I1005 10:19:47.122323  9385 net.cpp:84] Creating Layer BatchNorm21
I1005 10:19:47.122325  9385 net.cpp:406] BatchNorm21 <- Convolution21
I1005 10:19:47.122329  9385 net.cpp:367] BatchNorm21 -> Convolution21 (in-place)
I1005 10:19:47.122469  9385 net.cpp:122] Setting up BatchNorm21
I1005 10:19:47.122474  9385 net.cpp:129] Top shape: 100 64 8 8 (409600)
I1005 10:19:47.122476  9385 net.cpp:137] Memory required for data: 425575600
I1005 10:19:47.122480  9385 layer_factory.hpp:77] Creating layer Scale21
I1005 10:19:47.122485  9385 net.cpp:84] Creating Layer Scale21
I1005 10:19:47.122488  9385 net.cpp:406] Scale21 <- Convolution21
I1005 10:19:47.122491  9385 net.cpp:367] Scale21 -> Convolution21 (in-place)
I1005 10:19:47.137761  9385 layer_factory.hpp:77] Creating layer Scale21
I1005 10:19:47.137861  9385 net.cpp:122] Setting up Scale21
I1005 10:19:47.137867  9385 net.cpp:129] Top shape: 100 64 8 8 (409600)
I1005 10:19:47.137871  9385 net.cpp:137] Memory required for data: 427214000
I1005 10:19:47.137874  9385 layer_factory.hpp:77] Creating layer Eltwise9
I1005 10:19:47.137879  9385 net.cpp:84] Creating Layer Eltwise9
I1005 10:19:47.137882  9385 net.cpp:406] Eltwise9 <- Eltwise8_penlu17_0_split_1
I1005 10:19:47.137893  9385 net.cpp:406] Eltwise9 <- Convolution21
I1005 10:19:47.137899  9385 net.cpp:380] Eltwise9 -> Eltwise9
I1005 10:19:47.137919  9385 net.cpp:122] Setting up Eltwise9
I1005 10:19:47.137923  9385 net.cpp:129] Top shape: 100 64 8 8 (409600)
I1005 10:19:47.137926  9385 net.cpp:137] Memory required for data: 428852400
I1005 10:19:47.137928  9385 layer_factory.hpp:77] Creating layer penlu19
I1005 10:19:47.137934  9385 net.cpp:84] Creating Layer penlu19
I1005 10:19:47.137938  9385 net.cpp:406] penlu19 <- Eltwise9
I1005 10:19:47.137940  9385 net.cpp:367] penlu19 -> Eltwise9 (in-place)
I1005 10:19:47.138067  9385 net.cpp:122] Setting up penlu19
I1005 10:19:47.138072  9385 net.cpp:129] Top shape: 100 64 8 8 (409600)
I1005 10:19:47.138073  9385 net.cpp:137] Memory required for data: 430490800
I1005 10:19:47.138078  9385 layer_factory.hpp:77] Creating layer Pooling1
I1005 10:19:47.138083  9385 net.cpp:84] Creating Layer Pooling1
I1005 10:19:47.138087  9385 net.cpp:406] Pooling1 <- Eltwise9
I1005 10:19:47.138090  9385 net.cpp:380] Pooling1 -> Pooling1
I1005 10:19:47.138240  9385 net.cpp:122] Setting up Pooling1
I1005 10:19:47.138247  9385 net.cpp:129] Top shape: 100 64 1 1 (6400)
I1005 10:19:47.138250  9385 net.cpp:137] Memory required for data: 430516400
I1005 10:19:47.138252  9385 layer_factory.hpp:77] Creating layer InnerProduct1
I1005 10:19:47.138258  9385 net.cpp:84] Creating Layer InnerProduct1
I1005 10:19:47.138262  9385 net.cpp:406] InnerProduct1 <- Pooling1
I1005 10:19:47.138265  9385 net.cpp:380] InnerProduct1 -> InnerProduct1
I1005 10:19:47.138375  9385 net.cpp:122] Setting up InnerProduct1
I1005 10:19:47.138380  9385 net.cpp:129] Top shape: 100 10 (1000)
I1005 10:19:47.138381  9385 net.cpp:137] Memory required for data: 430520400
I1005 10:19:47.138386  9385 layer_factory.hpp:77] Creating layer InnerProduct1_InnerProduct1_0_split
I1005 10:19:47.138389  9385 net.cpp:84] Creating Layer InnerProduct1_InnerProduct1_0_split
I1005 10:19:47.138392  9385 net.cpp:406] InnerProduct1_InnerProduct1_0_split <- InnerProduct1
I1005 10:19:47.138399  9385 net.cpp:380] InnerProduct1_InnerProduct1_0_split -> InnerProduct1_InnerProduct1_0_split_0
I1005 10:19:47.138404  9385 net.cpp:380] InnerProduct1_InnerProduct1_0_split -> InnerProduct1_InnerProduct1_0_split_1
I1005 10:19:47.138433  9385 net.cpp:122] Setting up InnerProduct1_InnerProduct1_0_split
I1005 10:19:47.138437  9385 net.cpp:129] Top shape: 100 10 (1000)
I1005 10:19:47.138440  9385 net.cpp:129] Top shape: 100 10 (1000)
I1005 10:19:47.138442  9385 net.cpp:137] Memory required for data: 430528400
I1005 10:19:47.138444  9385 layer_factory.hpp:77] Creating layer SoftmaxWithLoss1
I1005 10:19:47.138449  9385 net.cpp:84] Creating Layer SoftmaxWithLoss1
I1005 10:19:47.138453  9385 net.cpp:406] SoftmaxWithLoss1 <- InnerProduct1_InnerProduct1_0_split_0
I1005 10:19:47.138455  9385 net.cpp:406] SoftmaxWithLoss1 <- Data2_Data1_1_split_0
…
