…
I0930 20:11:10.448411  4070 net.cpp:294] The NetState phase (0) differed from the phase (1) specified by a rule in layer Accuracy1
I0930 20:11:10.448886  4070 net.cpp:51] Initializing net from parameters: 
name: "resnet_cifar10"
state {
  phase: TRAIN
  level: 0
  stage: ""
}
layer {
  name: "Data1"
  type: "Data"
  top: "Data1"
  top: "Data2"
  include {
    phase: TRAIN
  }
  transform_param {
    mirror: true
    crop_size: 28
    mean_file: "/home/x306/caffe/xn/PENLU/data/cifar10/mean.binaryproto"
  }
  data_param {
    source: "/home/x306/caffe/xn/PENLU/data/cifar10/cifar10_train_lmdb"
    batch_size: 100
    backend: LMDB
  }
}
layer {
  name: "Convolution1"
  type: "Convolution"
  bottom: "Data1"
  top: "Convolution1"
  param {
    lr_mult: 1
    decay_mult: 1
  }
  param {
    lr_mult: 2
    decay_mult: 0
  }
  convolution_param {
    num_output: 16
    pad: 1
    kernel_size: 3
    stride: 1
    weight_filler {
      type: "gaussian"
      std: 0.118
    }
    bias_filler {
      type: "constant"
      value: 0
    }
  }
}
layer {
  name: "BatchNorm1"
  type: "BatchNorm"
  bottom: "Convolution1"
  top: "Convolution1"
  param {
    lr_mult: 0
    decay_mult: 0
  }
  param {
    lr_mult: 0
    decay_mult: 0
  }
  param {
    lr_mult: 0
    decay_mult: 0
  }
}
layer {
  name: "Scale1"
  type: "Scale"
  bottom: "Convolution1"
  top: "Convolution1"
  scale_param {
    bias_term: true
  }
}
layer {
  name: "penlu1"
  type: "PENLU"
  bottom: "Convolution1"
  top: "Convolution1"
  param {
    lr_mult: 2
    decay_mult: 0
  }
  param {
    lr_mult: 2
    decay_mult: 0
  }
  param {
    lr_mult: 0
    decay_mult: 0
  }
  penlu_param {
    alpha_filler {
      type: "constant"
      value: 2
    }
    beta_filler {
      type: "constant"
      value: 1
    }
    eta_filler {
      type: "constant"
      value: 1
    }
  }
}
layer {
  name: "Convolution2"
  type: "Convolution"
  bottom: "Convolution1"
  top: "Convolution2"
  param {
    lr_mult: 1
    decay_mult: 1
  }
  param {
    lr_mult: 2
    decay_mult: 0
  }
  convolution_param {
    num_output: 16
    pad: 1
    kernel_size: 3
    stride: 1
    weight_filler {
      type: "gaussian"
      std: 0.118
    }
    bias_filler {
      type: "constant"
      value: 0
    }
  }
}
layer {
  name: "BatchNorm2"
  type: "BatchNorm"
  bottom: "Convolution2"
  top: "Convolution2"
  param {
    lr_mult: 0
    decay_mult: 0
  }
  param {
    lr_mult: 0
    decay_mult: 0
  }
  param {
    lr_mult: 0
    decay_mult: 0
  }
}
layer {
  name: "Scale2"
  type: "Scale"
  bottom: "Convolution2"
  top: "Convolution2"
  scale_param {
    bias_term: true
  }
}
layer {
  name: "penlu2"
  type: "PENLU"
  bottom: "Convolution2"
  top: "Convolution2"
  param {
    lr_mult: 2
    decay_mult: 0
  }
  param {
    lr_mult: 2
    decay_mult: 0
  }
  param {
    lr_mult: 0
    decay_mult: 0
  }
  penlu_param {
    alpha_filler {
      type: "constant"
      value: 2
    }
    beta_filler {
      type: "constant"
      value: 1
    }
    eta_filler {
      type: "constant"
      value: 1
    }
  }
}
layer {
  name: "Convolution3"
  type: "Convolution"
  bottom: "Convolution2"
  top: "Convolution3"
  param {
    lr_mult: 1
    decay_mult: 1
  }
  param {
    lr_mult: 2
    decay_mult: 0
  }
  convolution_param {
    num_output: 16
    pad: 1
    kernel_size: 3
    stride: 1
    weight_filler {
      type: "gaussian"
      std: 0.118
    }
    bias_filler {
      type: "constant"
      value: 0
    }
  }
}
layer {
  name: "BatchNorm3"
  type: "BatchNorm"
  bottom: "Convolution3"
  top: "Convolution3"
  param {
    lr_mult: 0
    decay_mult: 0
  }
  param {
    lr_mult: 0
    decay_mult: 0
  }
  param {
    lr_mult: 0
    decay_mult: 0
  }
}
layer {
  name: "Scale3"
  type: "Scale"
  bottom: "Convolution3"
  top: "Convolution3"
  scale_param {
    bias_term: true
  }
}
layer {
  name: "Eltwise1"
  type: "Eltwise"
  bottom: "Convolution1"
  bottom: "Convolution3"
  top: "Eltwise1"
  eltwise_param {
    operation: SUM
  }
}
layer {
  name: "penlu3"
  type: "PENLU"
  bottom: "Eltwise1"
  top: "Eltwise1"
  param {
    lr_mult: 2
    decay_mult: 0
  }
  param {
    lr_mult: 2
    decay_mult: 0
  }
  param {
    lr_mult: 0
    decay_mult: 0
  }
  penlu_param {
    alpha_filler {
      type: "constant"
      value: 2
    }
    beta_filler {
      type: "constant"
      value: 1
    }
    eta_filler {
      type: "constant"
      value: 1
    }
  }
}
layer {
  name: "Convolution4"
  type: "Convolution"
  bottom: "Eltwise1"
  top: "Convolution4"
  param {
    lr_mult: 1
    decay_mult: 1
  }
  param {
    lr_mult: 2
    decay_mult: 0
  }
  convolution_param {
    num_output: 16
    pad: 1
    kernel_size: 3
    stride: 1
    weight_filler {
      type: "gaussian"
      std: 0.118
    }
    bias_filler {
      type: "constant"
      value: 0
    }
  }
}
layer {
  name: "BatchNorm4"
  type: "BatchNorm"
  bottom: "Convolution4"
  top: "Convolution4"
  param {
    lr_mult: 0
    decay_mult: 0
  }
  param {
    lr_mult: 0
    decay_mult: 0
  }
  param {
    lr_mult: 0
    decay_mult: 0
  }
}
layer {
  name: "Scale4"
  type: "Scale"
  bottom: "Convolution4"
  top: "Convolution4"
  scale_param {
    bias_term: true
  }
}
layer {
  name: "penlu4"
  type: "PENLU"
  bottom: "Convolution4"
  top: "Convolution4"
  param {
    lr_mult: 2
    decay_mult: 0
  }
  param {
    lr_mult: 2
    decay_mult: 0
  }
  param {
    lr_mult: 0
    decay_mult: 0
  }
  penlu_param {
    alpha_filler {
      type: "constant"
      value: 2
    }
    beta_filler {
      type: "constant"
      value: 1
    }
    eta_filler {
      type: "constant"
      value: 1
    }
  }
}
layer {
  name: "Convolution5"
  type: "Convolution"
  bottom: "Convolution4"
  top: "Convolution5"
  param {
    lr_mult: 1
    decay_mult: 1
  }
  param {
    lr_mult: 2
    decay_mult: 0
  }
  convolution_param {
    num_output: 16
    pad: 1
    kernel_size: 3
    stride: 1
    weight_filler {
      type: "gaussian"
      std: 0.118
    }
    bias_filler {
      type: "constant"
      value: 0
    }
  }
}
layer {
  name: "BatchNorm5"
  type: "BatchNorm"
  bottom: "Convolution5"
  top: "Convolution5"
  param {
    lr_mult: 0
    decay_mult: 0
  }
  param {
    lr_mult: 0
    decay_mult: 0
  }
  param {
    lr_mult: 0
    decay_mult: 0
  }
}
layer {
  name: "Scale5"
  type: "Scale"
  bottom: "Convolution5"
  top: "Convolution5"
  scale_param {
    bias_term: true
  }
}
layer {
  name: "Eltwise2"
  type: "Eltwise"
  bottom: "Eltwise1"
  bottom: "Convolution5"
  top: "Eltwise2"
  eltwise_param {
    operation: SUM
  }
}
layer {
  name: "penlu5"
  type: "PENLU"
  bottom: "Eltwise2"
  top: "Eltwise2"
  param {
    lr_mult: 2
    decay_mult: 0
  }
  param {
    lr_mult: 2
    decay_mult: 0
  }
  param {
    lr_mult: 0
    decay_mult: 0
  }
  penlu_param {
    alpha_filler {
      type: "constant"
      value: 2
    }
    beta_filler {
      type: "constant"
      value: 1
    }
    eta_filler {
      type: "constant"
      value: 1
    }
  }
}
layer {
  name: "Convolution6"
  type: "Convolution"
  bottom: "Eltwise2"
  top: "Convolution6"
  param {
    lr_mult: 1
    decay_mult: 1
  }
  param {
    lr_mult: 2
    decay_mult: 0
  }
  convolution_param {
    num_output: 16
    pad: 1
    kernel_size: 3
    stride: 1
    weight_filler {
      type: "gaussian"
      std: 0.118
    }
    bias_filler {
      type: "constant"
      value: 0
    }
  }
}
layer {
  name: "BatchNorm6"
  type: "BatchNorm"
  bottom: "Convolution6"
  top: "Convolution6"
  param {
    lr_mult: 0
    decay_mult: 0
  }
  param {
    lr_mult: 0
    decay_mult: 0
  }
  param {
    lr_mult: 0
    decay_mult: 0
  }
}
layer {
  name: "Scale6"
  type: "Scale"
  bottom: "Convolution6"
  top: "Convolution6"
  scale_param {
    bias_term: true
  }
}
layer {
  name: "penlu6"
  type: "PENLU"
  bottom: "Convolution6"
  top: "Convolution6"
  param {
    lr_mult: 2
    decay_mult: 0
  }
  param {
    lr_mult: 2
    decay_mult: 0
  }
  param {
    lr_mult: 0
    decay_mult: 0
  }
  penlu_param {
    alpha_filler {
      type: "constant"
      value: 2
    }
    beta_filler {
      type: "constant"
      value: 1
    }
    eta_filler {
      type: "constant"
      value: 1
    }
  }
}
layer {
  name: "Convolution7"
  type: "Convolution"
  bottom: "Convolution6"
  top: "Convolution7"
  param {
    lr_mult: 1
    decay_mult: 1
  }
  param {
    lr_mult: 2
    decay_mult: 0
  }
  convolution_param {
    num_output: 16
    pad: 1
    kernel_size: 3
    stride: 1
    weight_filler {
      type: "gaussian"
      std: 0.118
    }
    bias_filler {
      type: "constant"
      value: 0
    }
  }
}
layer {
  name: "BatchNorm7"
  type: "BatchNorm"
  bottom: "Convolution7"
  top: "Convolution7"
  param {
    lr_mult: 0
    decay_mult: 0
  }
  param {
    lr_mult: 0
    decay_mult: 0
  }
  param {
    lr_mult: 0
    decay_mult: 0
  }
}
layer {
  name: "Scale7"
  type: "Scale"
  bottom: "Convolution7"
  top: "Convolution7"
  scale_param {
    bias_term: true
  }
}
layer {
  name: "Eltwise3"
  type: "Eltwise"
  bottom: "Eltwise2"
  bottom: "Convolution7"
  top: "Eltwise3"
  eltwise_param {
    operation: SUM
  }
}
layer {
  name: "penlu7"
  type: "PENLU"
  bottom: "Eltwise3"
  top: "Eltwise3"
  param {
    lr_mult: 2
    decay_mult: 0
  }
  param {
    lr_mult: 2
    decay_mult: 0
  }
  param {
    lr_mult: 0
    decay_mult: 0
  }
  penlu_param {
    alpha_filler {
      type: "constant"
      value: 2
    }
    beta_filler {
      type: "constant"
      value: 1
    }
    eta_filler {
      type: "constant"
      value: 1
    }
  }
}
layer {
  name: "Convolution8"
  type: "Convolution"
  bottom: "Eltwise3"
  top: "Convolution8"
  param {
    lr_mult: 1
    decay_mult: 1
  }
  param {
    lr_mult: 2
    decay_mult: 0
  }
  convolution_param {
    num_output: 32
    pad: 0
    kernel_size: 1
    stride: 2
    weight_filler {
      type: "gaussian"
      std: 0.25
    }
    bias_filler {
      type: "constant"
      value: 0
    }
  }
}
layer {
  name: "BatchNorm8"
  type: "BatchNorm"
  bottom: "Convolution8"
  top: "Convolution8"
  param {
    lr_mult: 0
    decay_mult: 0
  }
  param {
    lr_mult: 0
    decay_mult: 0
  }
  param {
    lr_mult: 0
    decay_mult: 0
  }
}
layer {
  name: "Scale8"
  type: "Scale"
  bottom: "Convolution8"
  top: "Convolution8"
  scale_param {
    bias_term: true
  }
}
layer {
  name: "Convolution9"
  type: "Convolution"
  bottom: "Eltwise3"
  top: "Convolution9"
  param {
    lr_mult: 1
    decay_mult: 1
  }
  param {
    lr_mult: 2
    decay_mult: 0
  }
  convolution_param {
    num_output: 32
    pad: 1
    kernel_size: 3
    stride: 2
    weight_filler {
      type: "gaussian"
      std: 0.083
    }
    bias_filler {
      type: "constant"
      value: 0
    }
  }
}
layer {
  name: "BatchNorm9"
  type: "BatchNorm"
  bottom: "Convolution9"
  top: "Convolution9"
  param {
    lr_mult: 0
    decay_mult: 0
  }
  param {
    lr_mult: 0
    decay_mult: 0
  }
  param {
    lr_mult: 0
    decay_mult: 0
  }
}
layer {
  name: "Scale9"
  type: "Scale"
  bottom: "Convolution9"
  top: "Convolution9"
  scale_param {
    bias_term: true
  }
}
layer {
  name: "penlu8"
  type: "PENLU"
  bottom: "Convolution9"
  top: "Convolution9"
  param {
    lr_mult: 2
    decay_mult: 0
  }
  param {
    lr_mult: 2
    decay_mult: 0
  }
  param {
    lr_mult: 0
    decay_mult: 0
  }
  penlu_param {
    alpha_filler {
      type: "constant"
      value: 2
    }
    beta_filler {
      type: "constant"
      value: 1
    }
    eta_filler {
      type: "constant"
      value: 1
    }
  }
}
layer {
  name: "Convolution10"
  type: "Convolution"
  bottom: "Convolution9"
  top: "Convolution10"
  param {
    lr_mult: 1
    decay_mult: 1
  }
  param {
    lr_mult: 2
    decay_mult: 0
  }
  convolution_param {
    num_output: 32
    pad: 1
    kernel_size: 3
    stride: 1
    weight_filler {
      type: "gaussian"
      std: 0.083
    }
    bias_filler {
      type: "constant"
      value: 0
    }
  }
}
layer {
  name: "BatchNorm10"
  type: "BatchNorm"
  bottom: "Convolution10"
  top: "Convolution10"
  param {
    lr_mult: 0
    decay_mult: 0
  }
  param {
    lr_mult: 0
    decay_mult: 0
  }
  param {
    lr_mult: 0
    decay_mult: 0
  }
}
layer {
  name: "Scale10"
  type: "Scale"
  bottom: "Convolution10"
  top: "Convolution10"
  scale_param {
    bias_term: true
  }
}
layer {
  name: "Eltwise4"
  type: "Eltwise"
  bottom: "Convolution8"
  bottom: "Convolution10"
  top: "Eltwise4"
  eltwise_param {
    operation: SUM
  }
}
layer {
  name: "penlu9"
  type: "PENLU"
  bottom: "Eltwise4"
  top: "Eltwise4"
  param {
    lr_mult: 2
    decay_mult: 0
  }
  param {
    lr_mult: 2
    decay_mult: 0
  }
  param {
    lr_mult: 0
    decay_mult: 0
  }
  penlu_param {
    alpha_filler {
      type: "constant"
      value: 2
    }
    beta_filler {
      type: "constant"
      value: 1
    }
    eta_filler {
      type: "constant"
      value: 1
    }
  }
}
layer {
  name: "Convolution11"
  type: "Convolution"
  bottom: "Eltwise4"
  top: "Convolution11"
  param {
    lr_mult: 1
    decay_mult: 1
  }
  param {
    lr_mult: 2
    decay_mult: 0
  }
  convolution_param {
    num_output: 32
    pad: 1
    kernel_size: 3
    stride: 1
    weight_filler {
      type: "gaussian"
      std: 0.083
    }
    bias_filler {
      type: "constant"
      value: 0
    }
  }
}
layer {
  name: "BatchNorm11"
  type: "BatchNorm"
  bottom: "Convolution11"
  top: "Convolution11"
  param {
    lr_mult: 0
    decay_mult: 0
  }
  param {
    lr_mult: 0
    decay_mult: 0
  }
  param {
    lr_mult: 0
    decay_mult: 0
  }
}
layer {
  name: "Scale11"
  type: "Scale"
  bottom: "Convolution11"
  top: "Convolution11"
  scale_param {
    bias_term: true
  }
}
layer {
  name: "penlu10"
  type: "PENLU"
  bottom: "Convolution11"
  top: "Convolution11"
  param {
    lr_mult: 2
    decay_mult: 0
  }
  param {
    lr_mult: 2
    decay_mult: 0
  }
  param {
    lr_mult: 0
    decay_mult: 0
  }
  penlu_param {
    alpha_filler {
      type: "constant"
      value: 2
    }
    beta_filler {
      type: "constant"
      value: 1
    }
    eta_filler {
      type: "constant"
      value: 1
    }
  }
}
layer {
  name: "Convolution12"
  type: "Convolution"
  bottom: "Convolution11"
  top: "Convolution12"
  param {
    lr_mult: 1
    decay_mult: 1
  }
  param {
    lr_mult: 2
    decay_mult: 0
  }
  convolution_param {
    num_output: 32
    pad: 1
    kernel_size: 3
    stride: 1
    weight_filler {
      type: "gaussian"
      std: 0.083
    }
    bias_filler {
      type: "constant"
      value: 0
    }
  }
}
layer {
  name: "BatchNorm12"
  type: "BatchNorm"
  bottom: "Convolution12"
  top: "Convolution12"
  param {
    lr_mult: 0
    decay_mult: 0
  }
  param {
    lr_mult: 0
    decay_mult: 0
  }
  param {
    lr_mult: 0
    decay_mult: 0
  }
}
layer {
  name: "Scale12"
  type: "Scale"
  bottom: "Convolution12"
  top: "Convolution12"
  scale_param {
    bias_term: true
  }
}
layer {
  name: "Eltwise5"
  type: "Eltwise"
  bottom: "Eltwise4"
  bottom: "Convolution12"
  top: "Eltwise5"
  eltwise_param {
    operation: SUM
  }
}
layer {
  name: "penlu11"
  type: "PENLU"
  bottom: "Eltwise5"
  top: "Eltwise5"
  param {
    lr_mult: 2
    decay_mult: 0
  }
  param {
    lr_mult: 2
    decay_mult: 0
  }
  param {
    lr_mult: 0
    decay_mult: 0
  }
  penlu_param {
    alpha_filler {
      type: "constant"
      value: 2
    }
    beta_filler {
      type: "constant"
      value: 1
    }
    eta_filler {
      type: "constant"
      value: 1
    }
  }
}
layer {
  name: "Convolution13"
  type: "Convolution"
  bottom: "Eltwise5"
  top: "Convolution13"
  param {
    lr_mult: 1
    decay_mult: 1
  }
  param {
    lr_mult: 2
    decay_mult: 0
  }
  convolution_param {
    num_output: 32
    pad: 1
    kernel_size: 3
    stride: 1
    weight_filler {
      type: "gaussian"
      std: 0.083
    }
    bias_filler {
      type: "constant"
      value: 0
    }
  }
}
layer {
  name: "BatchNorm13"
  type: "BatchNorm"
  bottom: "Convolution13"
  top: "Convolution13"
  param {
    lr_mult: 0
    decay_mult: 0
  }
  param {
    lr_mult: 0
    decay_mult: 0
  }
  param {
    lr_mult: 0
    decay_mult: 0
  }
}
layer {
  name: "Scale13"
  type: "Scale"
  bottom: "Convolution13"
  top: "Convolution13"
  scale_param {
    bias_term: true
  }
}
layer {
  name: "penlu12"
  type: "PENLU"
  bottom: "Convolution13"
  top: "Convolution13"
  param {
    lr_mult: 2
    decay_mult: 0
  }
  param {
    lr_mult: 2
    decay_mult: 0
  }
  param {
    lr_mult: 0
    decay_mult: 0
  }
  penlu_param {
    alpha_filler {
      type: "constant"
      value: 2
    }
    beta_filler {
      type: "constant"
      value: 1
    }
    eta_filler {
      type: "constant"
      value: 1
    }
  }
}
layer {
  name: "Convolution14"
  type: "Convolution"
  bottom: "Convolution13"
  top: "Convolution14"
  param {
    lr_mult: 1
    decay_mult: 1
  }
  param {
    lr_mult: 2
    decay_mult: 0
  }
  convolution_param {
    num_output: 32
    pad: 1
    kernel_size: 3
    stride: 1
    weight_filler {
      type: "gaussian"
      std: 0.083
    }
    bias_filler {
      type: "constant"
      value: 0
    }
  }
}
layer {
  name: "BatchNorm14"
  type: "BatchNorm"
  bottom: "Convolution14"
  top: "Convolution14"
  param {
    lr_mult: 0
    decay_mult: 0
  }
  param {
    lr_mult: 0
    decay_mult: 0
  }
  param {
    lr_mult: 0
    decay_mult: 0
  }
}
layer {
  name: "Scale14"
  type: "Scale"
  bottom: "Convolution14"
  top: "Convolution14"
  scale_param {
    bias_term: true
  }
}
layer {
  name: "Eltwise6"
  type: "Eltwise"
  bottom: "Eltwise5"
  bottom: "Convolution14"
  top: "Eltwise6"
  eltwise_param {
    operation: SUM
  }
}
layer {
  name: "penlu13"
  type: "PENLU"
  bottom: "Eltwise6"
  top: "Eltwise6"
  param {
    lr_mult: 2
    decay_mult: 0
  }
  param {
    lr_mult: 2
    decay_mult: 0
  }
  param {
    lr_mult: 0
    decay_mult: 0
  }
  penlu_param {
    alpha_filler {
      type: "constant"
      value: 2
    }
    beta_filler {
      type: "constant"
      value: 1
    }
    eta_filler {
      type: "constant"
      value: 1
    }
  }
}
layer {
  name: "Convolution15"
  type: "Convolution"
  bottom: "Eltwise6"
  top: "Convolution15"
  param {
    lr_mult: 1
    decay_mult: 1
  }
  param {
    lr_mult: 2
    decay_mult: 0
  }
  convolution_param {
    num_output: 64
    pad: 0
    kernel_size: 1
    stride: 2
    weight_filler {
      type: "gaussian"
      std: 0.17677669
    }
    bias_filler {
      type: "constant"
      value: 0
    }
  }
}
layer {
  name: "BatchNorm15"
  type: "BatchNorm"
  bottom: "Convolution15"
  top: "Convolution15"
  param {
    lr_mult: 0
    decay_mult: 0
  }
  param {
    lr_mult: 0
    decay_mult: 0
  }
  param {
    lr_mult: 0
    decay_mult: 0
  }
}
layer {
  name: "Scale15"
  type: "Scale"
  bottom: "Convolution15"
  top: "Convolution15"
  scale_param {
    bias_term: true
  }
}
layer {
  name: "Convolution16"
  type: "Convolution"
  bottom: "Eltwise6"
  top: "Convolution16"
  param {
    lr_mult: 1
    decay_mult: 1
  }
  param {
    lr_mult: 2
    decay_mult: 0
  }
  convolution_param {
    num_output: 64
    pad: 1
    kernel_size: 3
    stride: 2
    weight_filler {
      type: "gaussian"
      std: 0.059
    }
    bias_filler {
      type: "constant"
      value: 0
    }
  }
}
layer {
  name: "BatchNorm16"
  type: "BatchNorm"
  bottom: "Convolution16"
  top: "Convolution16"
  param {
    lr_mult: 0
    decay_mult: 0
  }
  param {
    lr_mult: 0
    decay_mult: 0
  }
  param {
    lr_mult: 0
    decay_mult: 0
  }
}
layer {
  name: "Scale16"
  type: "Scale"
  bottom: "Convolution16"
  top: "Convolution16"
  scale_param {
    bias_term: true
  }
}
layer {
  name: "penlu14"
  type: "PENLU"
  bottom: "Convolution16"
  top: "Convolution16"
  param {
    lr_mult: 2
    decay_mult: 0
  }
  param {
    lr_mult: 2
    decay_mult: 0
  }
  param {
    lr_mult: 0
    decay_mult: 0
  }
  penlu_param {
    alpha_filler {
      type: "constant"
      value: 2
    }
    beta_filler {
      type: "constant"
      value: 1
    }
    eta_filler {
      type: "constant"
      value: 1
    }
  }
}
layer {
  name: "Convolution17"
  type: "Convolution"
  bottom: "Convolution16"
  top: "Convolution17"
  param {
    lr_mult: 1
    decay_mult: 1
  }
  param {
    lr_mult: 2
    decay_mult: 0
  }
  convolution_param {
    num_output: 64
    pad: 1
    kernel_size: 3
    stride: 1
    weight_filler {
      type: "gaussian"
      std: 0.059
    }
    bias_filler {
      type: "constant"
      value: 0
    }
  }
}
layer {
  name: "BatchNorm17"
  type: "BatchNorm"
  bottom: "Convolution17"
  top: "Convolution17"
  param {
    lr_mult: 0
    decay_mult: 0
  }
  param {
    lr_mult: 0
    decay_mult: 0
  }
  param {
    lr_mult: 0
    decay_mult: 0
  }
}
layer {
  name: "Scale17"
  type: "Scale"
  bottom: "Convolution17"
  top: "Convolution17"
  scale_param {
    bias_term: true
  }
}
layer {
  name: "Eltwise7"
  type: "Eltwise"
  bottom: "Convolution15"
  bottom: "Convolution17"
  top: "Eltwise7"
  eltwise_param {
    operation: SUM
  }
}
layer {
  name: "penlu15"
  type: "PENLU"
  bottom: "Eltwise7"
  top: "Eltwise7"
  param {
    lr_mult: 2
    decay_mult: 0
  }
  param {
    lr_mult: 2
    decay_mult: 0
  }
  param {
    lr_mult: 0
    decay_mult: 0
  }
  penlu_param {
    alpha_filler {
      type: "constant"
      value: 2
    }
    beta_filler {
      type: "constant"
      value: 1
    }
    eta_filler {
      type: "constant"
      value: 1
    }
  }
}
layer {
  name: "Convolution18"
  type: "Convolution"
  bottom: "Eltwise7"
  top: "Convolution18"
  param {
    lr_mult: 1
    decay_mult: 1
  }
  param {
    lr_mult: 2
    decay_mult: 0
  }
  convolution_param {
    num_output: 64
    pad: 1
    kernel_size: 3
    stride: 1
    weight_filler {
      type: "gaussian"
      std: 0.059
    }
    bias_filler {
      type: "constant"
      value: 0
    }
  }
}
layer {
  name: "BatchNorm18"
  type: "BatchNorm"
  bottom: "Convolution18"
  top: "Convolution18"
  param {
    lr_mult: 0
    decay_mult: 0
  }
  param {
    lr_mult: 0
    decay_mult: 0
  }
  param {
    lr_mult: 0
    decay_mult: 0
  }
}
layer {
  name: "Scale18"
  type: "Scale"
  bottom: "Convolution18"
  top: "Convolution18"
  scale_param {
    bias_term: true
  }
}
layer {
  name: "penlu16"
  type: "PENLU"
  bottom: "Convolution18"
  top: "Convolution18"
  param {
    lr_mult: 2
    decay_mult: 0
  }
  param {
    lr_mult: 2
    decay_mult: 0
  }
  param {
    lr_mult: 0
    decay_mult: 0
  }
  penlu_param {
    alpha_filler {
      type: "constant"
      value: 2
    }
    beta_filler {
      type: "constant"
      value: 1
    }
    eta_filler {
      type: "constant"
      value: 1
    }
  }
}
layer {
  name: "Convolution19"
  type: "Convolution"
  bottom: "Convolution18"
  top: "Convolution19"
  param {
    lr_mult: 1
    decay_mult: 1
  }
  param {
    lr_mult: 2
    decay_mult: 0
  }
  convolution_param {
    num_output: 64
    pad: 1
    kernel_size: 3
    stride: 1
    weight_filler {
      type: "gaussian"
      std: 0.059
    }
    bias_filler {
      type: "constant"
      value: 0
    }
  }
}
layer {
  name: "BatchNorm19"
  type: "BatchNorm"
  bottom: "Convolution19"
  top: "Convolution19"
  param {
    lr_mult: 0
    decay_mult: 0
  }
  param {
    lr_mult: 0
    decay_mult: 0
  }
  param {
    lr_mult: 0
    decay_mult: 0
  }
}
layer {
  name: "Scale19"
  type: "Scale"
  bottom: "Convolution19"
  top: "Convolution19"
  scale_param {
    bias_term: true
  }
}
layer {
  name: "Eltwise8"
  type: "Eltwise"
  bottom: "Eltwise7"
  bottom: "Convolution19"
  top: "Eltwise8"
  eltwise_param {
    operation: SUM
  }
}
layer {
  name: "penlu17"
  type: "PENLU"
  bottom: "Eltwise8"
  top: "Eltwise8"
  param {
    lr_mult: 2
    decay_mult: 0
  }
  param {
    lr_mult: 2
    decay_mult: 0
  }
  param {
    lr_mult: 0
    decay_mult: 0
  }
  penlu_param {
    alpha_filler {
      type: "constant"
      value: 2
    }
    beta_filler {
      type: "constant"
      value: 1
    }
    eta_filler {
      type: "constant"
      value: 1
    }
  }
}
layer {
  name: "Convolution20"
  type: "Convolution"
  bottom: "Eltwise8"
  top: "Convolution20"
  param {
    lr_mult: 1
    decay_mult: 1
  }
  param {
    lr_mult: 2
    decay_mult: 0
  }
  convolution_param {
    num_output: 64
    pad: 1
    kernel_size: 3
    stride: 1
    weight_filler {
      type: "gaussian"
      std: 0.059
    }
    bias_filler {
      type: "constant"
      value: 0
    }
  }
}
layer {
  name: "BatchNorm20"
  type: "BatchNorm"
  bottom: "Convolution20"
  top: "Convolution20"
  param {
    lr_mult: 0
    decay_mult: 0
  }
  param {
    lr_mult: 0
    decay_mult: 0
  }
  param {
    lr_mult: 0
    decay_mult: 0
  }
}
layer {
  name: "Scale20"
  type: "Scale"
  bottom: "Convolution20"
  top: "Convolution20"
  scale_param {
    bias_term: true
  }
}
layer {
  name: "penlu18"
  type: "PENLU"
  bottom: "Convolution20"
  top: "Convolution20"
  param {
    lr_mult: 2
    decay_mult: 0
  }
  param {
    lr_mult: 2
    decay_mult: 0
  }
  param {
    lr_mult: 0
    decay_mult: 0
  }
  penlu_param {
    alpha_filler {
      type: "constant"
      value: 2
    }
    beta_filler {
      type: "constant"
      value: 1
    }
    eta_filler {
      type: "constant"
      value: 1
    }
  }
}
layer {
  name: "Convolution21"
  type: "Convolution"
  bottom: "Convolution20"
  top: "Convolution21"
  param {
    lr_mult: 1
    decay_mult: 1
  }
  param {
    lr_mult: 2
    decay_mult: 0
  }
  convolution_param {
    num_output: 64
    pad: 1
    kernel_size: 3
    stride: 1
    weight_filler {
      type: "gaussian"
      std: 0.059
    }
    bias_filler {
      type: "constant"
      value: 0
    }
  }
}
layer {
  name: "BatchNorm21"
  type: "BatchNorm"
  bottom: "Convolution21"
  top: "Convolution21"
  param {
    lr_mult: 0
    decay_mult: 0
  }
  param {
    lr_mult: 0
    decay_mult: 0
  }
  param {
    lr_mult: 0
    decay_mult: 0
  }
}
layer {
  name: "Scale21"
  type: "Scale"
  bottom: "Convolution21"
  top: "Convolution21"
  scale_param {
    bias_term: true
  }
}
layer {
  name: "Eltwise9"
  type: "Eltwise"
  bottom: "Eltwise8"
  bottom: "Convolution21"
  top: "Eltwise9"
  eltwise_param {
    operation: SUM
  }
}
layer {
  name: "penlu19"
  type: "PENLU"
  bottom: "Eltwise9"
  top: "Eltwise9"
  param {
    lr_mult: 2
    decay_mult: 0
  }
  param {
    lr_mult: 2
    decay_mult: 0
  }
  param {
    lr_mult: 0
    decay_mult: 0
  }
  penlu_param {
    alpha_filler {
      type: "constant"
      value: 2
    }
    beta_filler {
      type: "constant"
      value: 1
    }
    eta_filler {
      type: "constant"
      value: 1
    }
  }
}
layer {
  name: "Pooling1"
  type: "Pooling"
  bottom: "Eltwise9"
  top: "Pooling1"
  pooling_param {
    pool: AVE
    global_pooling: true
  }
}
layer {
  name: "InnerProduct1"
  type: "InnerProduct"
  bottom: "Pooling1"
  top: "InnerProduct1"
  param {
    lr_mult: 1
    decay_mult: 1
  }
  param {
    lr_mult: 2
    decay_mult: 1
  }
  inner_product_param {
    num_output: 10
    weight_filler {
      type: "gaussian"
      std: 0.01
    }
    bias_filler {
      type: "constant"
      value: 0
    }
  }
}
layer {
  name: "SoftmaxWithLoss1"
  type: "SoftmaxWithLoss"
  bottom: "InnerProduct1"
  bottom: "Data2"
  top: "SoftmaxWithLoss1"
}
I0930 20:11:10.449249  4070 layer_factory.hpp:77] Creating layer Data1
I0930 20:11:10.449327  4070 db_lmdb.cpp:35] Opened lmdb /home/x306/caffe/xn/PENLU/data/cifar10/cifar10_train_lmdb
I0930 20:11:10.449352  4070 net.cpp:84] Creating Layer Data1
I0930 20:11:10.449357  4070 net.cpp:380] Data1 -> Data1
I0930 20:11:10.449375  4070 net.cpp:380] Data1 -> Data2
I0930 20:11:10.449383  4070 data_transformer.cpp:25] Loading mean file from: /home/x306/caffe/xn/PENLU/data/cifar10/mean.binaryproto
I0930 20:11:10.450825  4070 data_layer.cpp:45] output data size: 100,3,28,28
I0930 20:11:10.453088  4070 net.cpp:122] Setting up Data1
I0930 20:11:10.453100  4070 net.cpp:129] Top shape: 100 3 28 28 (235200)
I0930 20:11:10.453104  4070 net.cpp:129] Top shape: 100 (100)
I0930 20:11:10.453107  4070 net.cpp:137] Memory required for data: 941200
I0930 20:11:10.453112  4070 layer_factory.hpp:77] Creating layer Convolution1
I0930 20:11:10.453130  4070 net.cpp:84] Creating Layer Convolution1
I0930 20:11:10.453135  4070 net.cpp:406] Convolution1 <- Data1
I0930 20:11:10.453145  4070 net.cpp:380] Convolution1 -> Convolution1
I0930 20:11:10.605248  4070 net.cpp:122] Setting up Convolution1
I0930 20:11:10.605273  4070 net.cpp:129] Top shape: 100 16 28 28 (1254400)
I0930 20:11:10.605275  4070 net.cpp:137] Memory required for data: 5958800
I0930 20:11:10.605290  4070 layer_factory.hpp:77] Creating layer BatchNorm1
I0930 20:11:10.605305  4070 net.cpp:84] Creating Layer BatchNorm1
I0930 20:11:10.605324  4070 net.cpp:406] BatchNorm1 <- Convolution1
I0930 20:11:10.605331  4070 net.cpp:367] BatchNorm1 -> Convolution1 (in-place)
I0930 20:11:10.605473  4070 net.cpp:122] Setting up BatchNorm1
I0930 20:11:10.605480  4070 net.cpp:129] Top shape: 100 16 28 28 (1254400)
I0930 20:11:10.605484  4070 net.cpp:137] Memory required for data: 10976400
I0930 20:11:10.605491  4070 layer_factory.hpp:77] Creating layer Scale1
I0930 20:11:10.605500  4070 net.cpp:84] Creating Layer Scale1
I0930 20:11:10.605504  4070 net.cpp:406] Scale1 <- Convolution1
I0930 20:11:10.605510  4070 net.cpp:367] Scale1 -> Convolution1 (in-place)
I0930 20:11:10.605569  4070 layer_factory.hpp:77] Creating layer Scale1
I0930 20:11:10.605679  4070 net.cpp:122] Setting up Scale1
I0930 20:11:10.605685  4070 net.cpp:129] Top shape: 100 16 28 28 (1254400)
I0930 20:11:10.605698  4070 net.cpp:137] Memory required for data: 15994000
I0930 20:11:10.605705  4070 layer_factory.hpp:77] Creating layer penlu1
I0930 20:11:10.605718  4070 net.cpp:84] Creating Layer penlu1
I0930 20:11:10.605725  4070 net.cpp:406] penlu1 <- Convolution1
I0930 20:11:10.605741  4070 net.cpp:367] penlu1 -> Convolution1 (in-place)
I0930 20:11:10.606367  4070 net.cpp:122] Setting up penlu1
I0930 20:11:10.606377  4070 net.cpp:129] Top shape: 100 16 28 28 (1254400)
I0930 20:11:10.606391  4070 net.cpp:137] Memory required for data: 21011600
I0930 20:11:10.606401  4070 layer_factory.hpp:77] Creating layer Convolution1_penlu1_0_split
I0930 20:11:10.606420  4070 net.cpp:84] Creating Layer Convolution1_penlu1_0_split
I0930 20:11:10.606425  4070 net.cpp:406] Convolution1_penlu1_0_split <- Convolution1
I0930 20:11:10.606432  4070 net.cpp:380] Convolution1_penlu1_0_split -> Convolution1_penlu1_0_split_0
I0930 20:11:10.606452  4070 net.cpp:380] Convolution1_penlu1_0_split -> Convolution1_penlu1_0_split_1
I0930 20:11:10.606494  4070 net.cpp:122] Setting up Convolution1_penlu1_0_split
I0930 20:11:10.606500  4070 net.cpp:129] Top shape: 100 16 28 28 (1254400)
I0930 20:11:10.606506  4070 net.cpp:129] Top shape: 100 16 28 28 (1254400)
I0930 20:11:10.606511  4070 net.cpp:137] Memory required for data: 31046800
I0930 20:11:10.606518  4070 layer_factory.hpp:77] Creating layer Convolution2
I0930 20:11:10.606546  4070 net.cpp:84] Creating Layer Convolution2
I0930 20:11:10.606552  4070 net.cpp:406] Convolution2 <- Convolution1_penlu1_0_split_0
I0930 20:11:10.606559  4070 net.cpp:380] Convolution2 -> Convolution2
I0930 20:11:10.607424  4070 net.cpp:122] Setting up Convolution2
I0930 20:11:10.607434  4070 net.cpp:129] Top shape: 100 16 28 28 (1254400)
I0930 20:11:10.607447  4070 net.cpp:137] Memory required for data: 36064400
I0930 20:11:10.607452  4070 layer_factory.hpp:77] Creating layer BatchNorm2
I0930 20:11:10.607473  4070 net.cpp:84] Creating Layer BatchNorm2
I0930 20:11:10.607481  4070 net.cpp:406] BatchNorm2 <- Convolution2
I0930 20:11:10.607486  4070 net.cpp:367] BatchNorm2 -> Convolution2 (in-place)
I0930 20:11:10.607622  4070 net.cpp:122] Setting up BatchNorm2
I0930 20:11:10.607630  4070 net.cpp:129] Top shape: 100 16 28 28 (1254400)
I0930 20:11:10.607642  4070 net.cpp:137] Memory required for data: 41082000
I0930 20:11:10.607647  4070 layer_factory.hpp:77] Creating layer Scale2
I0930 20:11:10.607653  4070 net.cpp:84] Creating Layer Scale2
I0930 20:11:10.607661  4070 net.cpp:406] Scale2 <- Convolution2
I0930 20:11:10.607667  4070 net.cpp:367] Scale2 -> Convolution2 (in-place)
I0930 20:11:10.607707  4070 layer_factory.hpp:77] Creating layer Scale2
I0930 20:11:10.607789  4070 net.cpp:122] Setting up Scale2
I0930 20:11:10.607795  4070 net.cpp:129] Top shape: 100 16 28 28 (1254400)
I0930 20:11:10.607800  4070 net.cpp:137] Memory required for data: 46099600
I0930 20:11:10.607811  4070 layer_factory.hpp:77] Creating layer penlu2
I0930 20:11:10.607821  4070 net.cpp:84] Creating Layer penlu2
I0930 20:11:10.607826  4070 net.cpp:406] penlu2 <- Convolution2
I0930 20:11:10.607831  4070 net.cpp:367] penlu2 -> Convolution2 (in-place)
I0930 20:11:10.607929  4070 net.cpp:122] Setting up penlu2
I0930 20:11:10.607935  4070 net.cpp:129] Top shape: 100 16 28 28 (1254400)
I0930 20:11:10.607939  4070 net.cpp:137] Memory required for data: 51117200
I0930 20:11:10.607944  4070 layer_factory.hpp:77] Creating layer Convolution3
I0930 20:11:10.607951  4070 net.cpp:84] Creating Layer Convolution3
I0930 20:11:10.607954  4070 net.cpp:406] Convolution3 <- Convolution2
I0930 20:11:10.607959  4070 net.cpp:380] Convolution3 -> Convolution3
I0930 20:11:10.608803  4070 net.cpp:122] Setting up Convolution3
I0930 20:11:10.608814  4070 net.cpp:129] Top shape: 100 16 28 28 (1254400)
I0930 20:11:10.608819  4070 net.cpp:137] Memory required for data: 56134800
I0930 20:11:10.608824  4070 layer_factory.hpp:77] Creating layer BatchNorm3
I0930 20:11:10.608829  4070 net.cpp:84] Creating Layer BatchNorm3
I0930 20:11:10.608832  4070 net.cpp:406] BatchNorm3 <- Convolution3
I0930 20:11:10.608836  4070 net.cpp:367] BatchNorm3 -> Convolution3 (in-place)
I0930 20:11:10.608954  4070 net.cpp:122] Setting up BatchNorm3
I0930 20:11:10.608960  4070 net.cpp:129] Top shape: 100 16 28 28 (1254400)
I0930 20:11:10.608963  4070 net.cpp:137] Memory required for data: 61152400
I0930 20:11:10.608968  4070 layer_factory.hpp:77] Creating layer Scale3
I0930 20:11:10.608973  4070 net.cpp:84] Creating Layer Scale3
I0930 20:11:10.608976  4070 net.cpp:406] Scale3 <- Convolution3
I0930 20:11:10.608980  4070 net.cpp:367] Scale3 -> Convolution3 (in-place)
I0930 20:11:10.609004  4070 layer_factory.hpp:77] Creating layer Scale3
I0930 20:11:10.609086  4070 net.cpp:122] Setting up Scale3
I0930 20:11:10.609092  4070 net.cpp:129] Top shape: 100 16 28 28 (1254400)
I0930 20:11:10.609096  4070 net.cpp:137] Memory required for data: 66170000
I0930 20:11:10.609099  4070 layer_factory.hpp:77] Creating layer Eltwise1
I0930 20:11:10.609104  4070 net.cpp:84] Creating Layer Eltwise1
I0930 20:11:10.609107  4070 net.cpp:406] Eltwise1 <- Convolution1_penlu1_0_split_1
I0930 20:11:10.609110  4070 net.cpp:406] Eltwise1 <- Convolution3
I0930 20:11:10.609113  4070 net.cpp:380] Eltwise1 -> Eltwise1
I0930 20:11:10.609133  4070 net.cpp:122] Setting up Eltwise1
I0930 20:11:10.609148  4070 net.cpp:129] Top shape: 100 16 28 28 (1254400)
I0930 20:11:10.609149  4070 net.cpp:137] Memory required for data: 71187600
I0930 20:11:10.609163  4070 layer_factory.hpp:77] Creating layer penlu3
I0930 20:11:10.609167  4070 net.cpp:84] Creating Layer penlu3
I0930 20:11:10.609169  4070 net.cpp:406] penlu3 <- Eltwise1
I0930 20:11:10.609174  4070 net.cpp:367] penlu3 -> Eltwise1 (in-place)
I0930 20:11:10.609289  4070 net.cpp:122] Setting up penlu3
I0930 20:11:10.609295  4070 net.cpp:129] Top shape: 100 16 28 28 (1254400)
I0930 20:11:10.609298  4070 net.cpp:137] Memory required for data: 76205200
I0930 20:11:10.609310  4070 layer_factory.hpp:77] Creating layer Eltwise1_penlu3_0_split
I0930 20:11:10.609315  4070 net.cpp:84] Creating Layer Eltwise1_penlu3_0_split
I0930 20:11:10.609318  4070 net.cpp:406] Eltwise1_penlu3_0_split <- Eltwise1
I0930 20:11:10.609321  4070 net.cpp:380] Eltwise1_penlu3_0_split -> Eltwise1_penlu3_0_split_0
I0930 20:11:10.609326  4070 net.cpp:380] Eltwise1_penlu3_0_split -> Eltwise1_penlu3_0_split_1
I0930 20:11:10.609349  4070 net.cpp:122] Setting up Eltwise1_penlu3_0_split
I0930 20:11:10.609355  4070 net.cpp:129] Top shape: 100 16 28 28 (1254400)
I0930 20:11:10.609359  4070 net.cpp:129] Top shape: 100 16 28 28 (1254400)
I0930 20:11:10.609361  4070 net.cpp:137] Memory required for data: 86240400
I0930 20:11:10.609364  4070 layer_factory.hpp:77] Creating layer Convolution4
I0930 20:11:10.609371  4070 net.cpp:84] Creating Layer Convolution4
I0930 20:11:10.609375  4070 net.cpp:406] Convolution4 <- Eltwise1_penlu3_0_split_0
I0930 20:11:10.609378  4070 net.cpp:380] Convolution4 -> Convolution4
I0930 20:11:10.610229  4070 net.cpp:122] Setting up Convolution4
I0930 20:11:10.610239  4070 net.cpp:129] Top shape: 100 16 28 28 (1254400)
I0930 20:11:10.610244  4070 net.cpp:137] Memory required for data: 91258000
I0930 20:11:10.610249  4070 layer_factory.hpp:77] Creating layer BatchNorm4
I0930 20:11:10.610255  4070 net.cpp:84] Creating Layer BatchNorm4
I0930 20:11:10.610257  4070 net.cpp:406] BatchNorm4 <- Convolution4
I0930 20:11:10.610261  4070 net.cpp:367] BatchNorm4 -> Convolution4 (in-place)
I0930 20:11:10.610379  4070 net.cpp:122] Setting up BatchNorm4
I0930 20:11:10.610385  4070 net.cpp:129] Top shape: 100 16 28 28 (1254400)
I0930 20:11:10.610388  4070 net.cpp:137] Memory required for data: 96275600
I0930 20:11:10.610396  4070 layer_factory.hpp:77] Creating layer Scale4
I0930 20:11:10.610401  4070 net.cpp:84] Creating Layer Scale4
I0930 20:11:10.610404  4070 net.cpp:406] Scale4 <- Convolution4
I0930 20:11:10.610407  4070 net.cpp:367] Scale4 -> Convolution4 (in-place)
I0930 20:11:10.610432  4070 layer_factory.hpp:77] Creating layer Scale4
I0930 20:11:10.610515  4070 net.cpp:122] Setting up Scale4
I0930 20:11:10.610527  4070 net.cpp:129] Top shape: 100 16 28 28 (1254400)
I0930 20:11:10.610529  4070 net.cpp:137] Memory required for data: 101293200
I0930 20:11:10.610533  4070 layer_factory.hpp:77] Creating layer penlu4
I0930 20:11:10.610539  4070 net.cpp:84] Creating Layer penlu4
I0930 20:11:10.610543  4070 net.cpp:406] penlu4 <- Convolution4
I0930 20:11:10.610548  4070 net.cpp:367] penlu4 -> Convolution4 (in-place)
I0930 20:11:10.610649  4070 net.cpp:122] Setting up penlu4
I0930 20:11:10.610654  4070 net.cpp:129] Top shape: 100 16 28 28 (1254400)
I0930 20:11:10.610657  4070 net.cpp:137] Memory required for data: 106310800
I0930 20:11:10.610662  4070 layer_factory.hpp:77] Creating layer Convolution5
I0930 20:11:10.610669  4070 net.cpp:84] Creating Layer Convolution5
I0930 20:11:10.610673  4070 net.cpp:406] Convolution5 <- Convolution4
I0930 20:11:10.610677  4070 net.cpp:380] Convolution5 -> Convolution5
I0930 20:11:10.611596  4070 net.cpp:122] Setting up Convolution5
I0930 20:11:10.611608  4070 net.cpp:129] Top shape: 100 16 28 28 (1254400)
I0930 20:11:10.611611  4070 net.cpp:137] Memory required for data: 111328400
I0930 20:11:10.611615  4070 layer_factory.hpp:77] Creating layer BatchNorm5
I0930 20:11:10.611624  4070 net.cpp:84] Creating Layer BatchNorm5
I0930 20:11:10.611627  4070 net.cpp:406] BatchNorm5 <- Convolution5
I0930 20:11:10.611631  4070 net.cpp:367] BatchNorm5 -> Convolution5 (in-place)
I0930 20:11:10.611778  4070 net.cpp:122] Setting up BatchNorm5
I0930 20:11:10.611784  4070 net.cpp:129] Top shape: 100 16 28 28 (1254400)
I0930 20:11:10.611786  4070 net.cpp:137] Memory required for data: 116346000
I0930 20:11:10.611791  4070 layer_factory.hpp:77] Creating layer Scale5
I0930 20:11:10.611798  4070 net.cpp:84] Creating Layer Scale5
I0930 20:11:10.611800  4070 net.cpp:406] Scale5 <- Convolution5
I0930 20:11:10.611804  4070 net.cpp:367] Scale5 -> Convolution5 (in-place)
I0930 20:11:10.611830  4070 layer_factory.hpp:77] Creating layer Scale5
I0930 20:11:10.611918  4070 net.cpp:122] Setting up Scale5
I0930 20:11:10.611925  4070 net.cpp:129] Top shape: 100 16 28 28 (1254400)
I0930 20:11:10.611927  4070 net.cpp:137] Memory required for data: 121363600
I0930 20:11:10.611932  4070 layer_factory.hpp:77] Creating layer Eltwise2
I0930 20:11:10.611937  4070 net.cpp:84] Creating Layer Eltwise2
I0930 20:11:10.611940  4070 net.cpp:406] Eltwise2 <- Eltwise1_penlu3_0_split_1
I0930 20:11:10.611944  4070 net.cpp:406] Eltwise2 <- Convolution5
I0930 20:11:10.611948  4070 net.cpp:380] Eltwise2 -> Eltwise2
I0930 20:11:10.611964  4070 net.cpp:122] Setting up Eltwise2
I0930 20:11:10.611969  4070 net.cpp:129] Top shape: 100 16 28 28 (1254400)
I0930 20:11:10.611971  4070 net.cpp:137] Memory required for data: 126381200
I0930 20:11:10.611974  4070 layer_factory.hpp:77] Creating layer penlu5
I0930 20:11:10.611979  4070 net.cpp:84] Creating Layer penlu5
I0930 20:11:10.611982  4070 net.cpp:406] penlu5 <- Eltwise2
I0930 20:11:10.611986  4070 net.cpp:367] penlu5 -> Eltwise2 (in-place)
I0930 20:11:10.612089  4070 net.cpp:122] Setting up penlu5
I0930 20:11:10.612095  4070 net.cpp:129] Top shape: 100 16 28 28 (1254400)
I0930 20:11:10.612098  4070 net.cpp:137] Memory required for data: 131398800
I0930 20:11:10.612103  4070 layer_factory.hpp:77] Creating layer Eltwise2_penlu5_0_split
I0930 20:11:10.612107  4070 net.cpp:84] Creating Layer Eltwise2_penlu5_0_split
I0930 20:11:10.612109  4070 net.cpp:406] Eltwise2_penlu5_0_split <- Eltwise2
I0930 20:11:10.612113  4070 net.cpp:380] Eltwise2_penlu5_0_split -> Eltwise2_penlu5_0_split_0
I0930 20:11:10.612118  4070 net.cpp:380] Eltwise2_penlu5_0_split -> Eltwise2_penlu5_0_split_1
I0930 20:11:10.612139  4070 net.cpp:122] Setting up Eltwise2_penlu5_0_split
I0930 20:11:10.612144  4070 net.cpp:129] Top shape: 100 16 28 28 (1254400)
I0930 20:11:10.612148  4070 net.cpp:129] Top shape: 100 16 28 28 (1254400)
I0930 20:11:10.612150  4070 net.cpp:137] Memory required for data: 141434000
I0930 20:11:10.612152  4070 layer_factory.hpp:77] Creating layer Convolution6
I0930 20:11:10.612160  4070 net.cpp:84] Creating Layer Convolution6
I0930 20:11:10.612164  4070 net.cpp:406] Convolution6 <- Eltwise2_penlu5_0_split_0
I0930 20:11:10.612167  4070 net.cpp:380] Convolution6 -> Convolution6
I0930 20:11:10.613052  4070 net.cpp:122] Setting up Convolution6
I0930 20:11:10.613062  4070 net.cpp:129] Top shape: 100 16 28 28 (1254400)
I0930 20:11:10.613066  4070 net.cpp:137] Memory required for data: 146451600
I0930 20:11:10.613071  4070 layer_factory.hpp:77] Creating layer BatchNorm6
I0930 20:11:10.613076  4070 net.cpp:84] Creating Layer BatchNorm6
I0930 20:11:10.613080  4070 net.cpp:406] BatchNorm6 <- Convolution6
I0930 20:11:10.613085  4070 net.cpp:367] BatchNorm6 -> Convolution6 (in-place)
I0930 20:11:10.613214  4070 net.cpp:122] Setting up BatchNorm6
I0930 20:11:10.613220  4070 net.cpp:129] Top shape: 100 16 28 28 (1254400)
I0930 20:11:10.613224  4070 net.cpp:137] Memory required for data: 151469200
I0930 20:11:10.613229  4070 layer_factory.hpp:77] Creating layer Scale6
I0930 20:11:10.613234  4070 net.cpp:84] Creating Layer Scale6
I0930 20:11:10.613237  4070 net.cpp:406] Scale6 <- Convolution6
I0930 20:11:10.613241  4070 net.cpp:367] Scale6 -> Convolution6 (in-place)
I0930 20:11:10.613266  4070 layer_factory.hpp:77] Creating layer Scale6
I0930 20:11:10.613343  4070 net.cpp:122] Setting up Scale6
I0930 20:11:10.613348  4070 net.cpp:129] Top shape: 100 16 28 28 (1254400)
I0930 20:11:10.613353  4070 net.cpp:137] Memory required for data: 156486800
I0930 20:11:10.613356  4070 layer_factory.hpp:77] Creating layer penlu6
I0930 20:11:10.613363  4070 net.cpp:84] Creating Layer penlu6
I0930 20:11:10.613365  4070 net.cpp:406] penlu6 <- Convolution6
I0930 20:11:10.613370  4070 net.cpp:367] penlu6 -> Convolution6 (in-place)
I0930 20:11:10.613476  4070 net.cpp:122] Setting up penlu6
I0930 20:11:10.613482  4070 net.cpp:129] Top shape: 100 16 28 28 (1254400)
I0930 20:11:10.613485  4070 net.cpp:137] Memory required for data: 161504400
I0930 20:11:10.613489  4070 layer_factory.hpp:77] Creating layer Convolution7
I0930 20:11:10.613503  4070 net.cpp:84] Creating Layer Convolution7
I0930 20:11:10.613507  4070 net.cpp:406] Convolution7 <- Convolution6
I0930 20:11:10.613512  4070 net.cpp:380] Convolution7 -> Convolution7
I0930 20:11:10.614068  4070 net.cpp:122] Setting up Convolution7
I0930 20:11:10.614078  4070 net.cpp:129] Top shape: 100 16 28 28 (1254400)
I0930 20:11:10.614081  4070 net.cpp:137] Memory required for data: 166522000
I0930 20:11:10.614086  4070 layer_factory.hpp:77] Creating layer BatchNorm7
I0930 20:11:10.614091  4070 net.cpp:84] Creating Layer BatchNorm7
I0930 20:11:10.614094  4070 net.cpp:406] BatchNorm7 <- Convolution7
I0930 20:11:10.614099  4070 net.cpp:367] BatchNorm7 -> Convolution7 (in-place)
I0930 20:11:10.614225  4070 net.cpp:122] Setting up BatchNorm7
I0930 20:11:10.614231  4070 net.cpp:129] Top shape: 100 16 28 28 (1254400)
I0930 20:11:10.614234  4070 net.cpp:137] Memory required for data: 171539600
I0930 20:11:10.614244  4070 layer_factory.hpp:77] Creating layer Scale7
I0930 20:11:10.614253  4070 net.cpp:84] Creating Layer Scale7
I0930 20:11:10.614256  4070 net.cpp:406] Scale7 <- Convolution7
I0930 20:11:10.614260  4070 net.cpp:367] Scale7 -> Convolution7 (in-place)
I0930 20:11:10.614287  4070 layer_factory.hpp:77] Creating layer Scale7
I0930 20:11:10.614362  4070 net.cpp:122] Setting up Scale7
I0930 20:11:10.614367  4070 net.cpp:129] Top shape: 100 16 28 28 (1254400)
I0930 20:11:10.614370  4070 net.cpp:137] Memory required for data: 176557200
I0930 20:11:10.614374  4070 layer_factory.hpp:77] Creating layer Eltwise3
I0930 20:11:10.614379  4070 net.cpp:84] Creating Layer Eltwise3
I0930 20:11:10.614382  4070 net.cpp:406] Eltwise3 <- Eltwise2_penlu5_0_split_1
I0930 20:11:10.614387  4070 net.cpp:406] Eltwise3 <- Convolution7
I0930 20:11:10.614389  4070 net.cpp:380] Eltwise3 -> Eltwise3
I0930 20:11:10.614405  4070 net.cpp:122] Setting up Eltwise3
I0930 20:11:10.614410  4070 net.cpp:129] Top shape: 100 16 28 28 (1254400)
I0930 20:11:10.614414  4070 net.cpp:137] Memory required for data: 181574800
I0930 20:11:10.614416  4070 layer_factory.hpp:77] Creating layer penlu7
I0930 20:11:10.614421  4070 net.cpp:84] Creating Layer penlu7
I0930 20:11:10.614424  4070 net.cpp:406] penlu7 <- Eltwise3
I0930 20:11:10.614428  4070 net.cpp:367] penlu7 -> Eltwise3 (in-place)
I0930 20:11:10.614542  4070 net.cpp:122] Setting up penlu7
I0930 20:11:10.614548  4070 net.cpp:129] Top shape: 100 16 28 28 (1254400)
I0930 20:11:10.614552  4070 net.cpp:137] Memory required for data: 186592400
I0930 20:11:10.614555  4070 layer_factory.hpp:77] Creating layer Eltwise3_penlu7_0_split
I0930 20:11:10.614560  4070 net.cpp:84] Creating Layer Eltwise3_penlu7_0_split
I0930 20:11:10.614564  4070 net.cpp:406] Eltwise3_penlu7_0_split <- Eltwise3
I0930 20:11:10.614567  4070 net.cpp:380] Eltwise3_penlu7_0_split -> Eltwise3_penlu7_0_split_0
I0930 20:11:10.614572  4070 net.cpp:380] Eltwise3_penlu7_0_split -> Eltwise3_penlu7_0_split_1
I0930 20:11:10.614594  4070 net.cpp:122] Setting up Eltwise3_penlu7_0_split
I0930 20:11:10.614599  4070 net.cpp:129] Top shape: 100 16 28 28 (1254400)
I0930 20:11:10.614603  4070 net.cpp:129] Top shape: 100 16 28 28 (1254400)
I0930 20:11:10.614606  4070 net.cpp:137] Memory required for data: 196627600
I0930 20:11:10.614609  4070 layer_factory.hpp:77] Creating layer Convolution8
I0930 20:11:10.614614  4070 net.cpp:84] Creating Layer Convolution8
I0930 20:11:10.614617  4070 net.cpp:406] Convolution8 <- Eltwise3_penlu7_0_split_0
I0930 20:11:10.614622  4070 net.cpp:380] Convolution8 -> Convolution8
I0930 20:11:10.615772  4070 net.cpp:122] Setting up Convolution8
I0930 20:11:10.615782  4070 net.cpp:129] Top shape: 100 32 14 14 (627200)
I0930 20:11:10.615787  4070 net.cpp:137] Memory required for data: 199136400
I0930 20:11:10.615792  4070 layer_factory.hpp:77] Creating layer BatchNorm8
I0930 20:11:10.615797  4070 net.cpp:84] Creating Layer BatchNorm8
I0930 20:11:10.615802  4070 net.cpp:406] BatchNorm8 <- Convolution8
I0930 20:11:10.615814  4070 net.cpp:367] BatchNorm8 -> Convolution8 (in-place)
I0930 20:11:10.615988  4070 net.cpp:122] Setting up BatchNorm8
I0930 20:11:10.615998  4070 net.cpp:129] Top shape: 100 32 14 14 (627200)
I0930 20:11:10.616004  4070 net.cpp:137] Memory required for data: 201645200
I0930 20:11:10.616014  4070 layer_factory.hpp:77] Creating layer Scale8
I0930 20:11:10.616022  4070 net.cpp:84] Creating Layer Scale8
I0930 20:11:10.616029  4070 net.cpp:406] Scale8 <- Convolution8
I0930 20:11:10.616034  4070 net.cpp:367] Scale8 -> Convolution8 (in-place)
I0930 20:11:10.616072  4070 layer_factory.hpp:77] Creating layer Scale8
I0930 20:11:10.616178  4070 net.cpp:122] Setting up Scale8
I0930 20:11:10.616186  4070 net.cpp:129] Top shape: 100 32 14 14 (627200)
I0930 20:11:10.616191  4070 net.cpp:137] Memory required for data: 204154000
I0930 20:11:10.616199  4070 layer_factory.hpp:77] Creating layer Convolution9
I0930 20:11:10.616209  4070 net.cpp:84] Creating Layer Convolution9
I0930 20:11:10.616215  4070 net.cpp:406] Convolution9 <- Eltwise3_penlu7_0_split_1
I0930 20:11:10.616222  4070 net.cpp:380] Convolution9 -> Convolution9
I0930 20:11:10.617981  4070 net.cpp:122] Setting up Convolution9
I0930 20:11:10.617992  4070 net.cpp:129] Top shape: 100 32 14 14 (627200)
I0930 20:11:10.617995  4070 net.cpp:137] Memory required for data: 206662800
I0930 20:11:10.618010  4070 layer_factory.hpp:77] Creating layer BatchNorm9
I0930 20:11:10.618016  4070 net.cpp:84] Creating Layer BatchNorm9
I0930 20:11:10.618021  4070 net.cpp:406] BatchNorm9 <- Convolution9
I0930 20:11:10.618026  4070 net.cpp:367] BatchNorm9 -> Convolution9 (in-place)
I0930 20:11:10.618191  4070 net.cpp:122] Setting up BatchNorm9
I0930 20:11:10.618196  4070 net.cpp:129] Top shape: 100 32 14 14 (627200)
I0930 20:11:10.618199  4070 net.cpp:137] Memory required for data: 209171600
I0930 20:11:10.618216  4070 layer_factory.hpp:77] Creating layer Scale9
I0930 20:11:10.618221  4070 net.cpp:84] Creating Layer Scale9
I0930 20:11:10.618224  4070 net.cpp:406] Scale9 <- Convolution9
I0930 20:11:10.618229  4070 net.cpp:367] Scale9 -> Convolution9 (in-place)
I0930 20:11:10.618264  4070 layer_factory.hpp:77] Creating layer Scale9
I0930 20:11:10.618357  4070 net.cpp:122] Setting up Scale9
I0930 20:11:10.618363  4070 net.cpp:129] Top shape: 100 32 14 14 (627200)
I0930 20:11:10.618366  4070 net.cpp:137] Memory required for data: 211680400
I0930 20:11:10.618381  4070 layer_factory.hpp:77] Creating layer penlu8
I0930 20:11:10.618387  4070 net.cpp:84] Creating Layer penlu8
I0930 20:11:10.618391  4070 net.cpp:406] penlu8 <- Convolution9
I0930 20:11:10.618396  4070 net.cpp:367] penlu8 -> Convolution9 (in-place)
I0930 20:11:10.618500  4070 net.cpp:122] Setting up penlu8
I0930 20:11:10.618505  4070 net.cpp:129] Top shape: 100 32 14 14 (627200)
I0930 20:11:10.618510  4070 net.cpp:137] Memory required for data: 214189200
I0930 20:11:10.618513  4070 layer_factory.hpp:77] Creating layer Convolution10
I0930 20:11:10.618525  4070 net.cpp:84] Creating Layer Convolution10
I0930 20:11:10.618530  4070 net.cpp:406] Convolution10 <- Convolution9
I0930 20:11:10.618535  4070 net.cpp:380] Convolution10 -> Convolution10
I0930 20:11:10.619582  4070 net.cpp:122] Setting up Convolution10
I0930 20:11:10.619592  4070 net.cpp:129] Top shape: 100 32 14 14 (627200)
I0930 20:11:10.619596  4070 net.cpp:137] Memory required for data: 216698000
I0930 20:11:10.619601  4070 layer_factory.hpp:77] Creating layer BatchNorm10
I0930 20:11:10.619606  4070 net.cpp:84] Creating Layer BatchNorm10
I0930 20:11:10.619611  4070 net.cpp:406] BatchNorm10 <- Convolution10
I0930 20:11:10.619614  4070 net.cpp:367] BatchNorm10 -> Convolution10 (in-place)
I0930 20:11:10.619743  4070 net.cpp:122] Setting up BatchNorm10
I0930 20:11:10.619750  4070 net.cpp:129] Top shape: 100 32 14 14 (627200)
I0930 20:11:10.619752  4070 net.cpp:137] Memory required for data: 219206800
I0930 20:11:10.619757  4070 layer_factory.hpp:77] Creating layer Scale10
I0930 20:11:10.619762  4070 net.cpp:84] Creating Layer Scale10
I0930 20:11:10.619765  4070 net.cpp:406] Scale10 <- Convolution10
I0930 20:11:10.619770  4070 net.cpp:367] Scale10 -> Convolution10 (in-place)
I0930 20:11:10.619804  4070 layer_factory.hpp:77] Creating layer Scale10
I0930 20:11:10.619891  4070 net.cpp:122] Setting up Scale10
I0930 20:11:10.619897  4070 net.cpp:129] Top shape: 100 32 14 14 (627200)
I0930 20:11:10.619901  4070 net.cpp:137] Memory required for data: 221715600
I0930 20:11:10.619905  4070 layer_factory.hpp:77] Creating layer Eltwise4
I0930 20:11:10.619910  4070 net.cpp:84] Creating Layer Eltwise4
I0930 20:11:10.619915  4070 net.cpp:406] Eltwise4 <- Convolution8
I0930 20:11:10.619917  4070 net.cpp:406] Eltwise4 <- Convolution10
I0930 20:11:10.619922  4070 net.cpp:380] Eltwise4 -> Eltwise4
I0930 20:11:10.619938  4070 net.cpp:122] Setting up Eltwise4
I0930 20:11:10.619945  4070 net.cpp:129] Top shape: 100 32 14 14 (627200)
I0930 20:11:10.619948  4070 net.cpp:137] Memory required for data: 224224400
I0930 20:11:10.619951  4070 layer_factory.hpp:77] Creating layer penlu9
I0930 20:11:10.619964  4070 net.cpp:84] Creating Layer penlu9
I0930 20:11:10.619967  4070 net.cpp:406] penlu9 <- Eltwise4
I0930 20:11:10.619972  4070 net.cpp:367] penlu9 -> Eltwise4 (in-place)
I0930 20:11:10.620076  4070 net.cpp:122] Setting up penlu9
I0930 20:11:10.620082  4070 net.cpp:129] Top shape: 100 32 14 14 (627200)
I0930 20:11:10.620085  4070 net.cpp:137] Memory required for data: 226733200
I0930 20:11:10.620090  4070 layer_factory.hpp:77] Creating layer Eltwise4_penlu9_0_split
I0930 20:11:10.620095  4070 net.cpp:84] Creating Layer Eltwise4_penlu9_0_split
I0930 20:11:10.620098  4070 net.cpp:406] Eltwise4_penlu9_0_split <- Eltwise4
I0930 20:11:10.620101  4070 net.cpp:380] Eltwise4_penlu9_0_split -> Eltwise4_penlu9_0_split_0
I0930 20:11:10.620106  4070 net.cpp:380] Eltwise4_penlu9_0_split -> Eltwise4_penlu9_0_split_1
I0930 20:11:10.620129  4070 net.cpp:122] Setting up Eltwise4_penlu9_0_split
I0930 20:11:10.620134  4070 net.cpp:129] Top shape: 100 32 14 14 (627200)
I0930 20:11:10.620138  4070 net.cpp:129] Top shape: 100 32 14 14 (627200)
I0930 20:11:10.620141  4070 net.cpp:137] Memory required for data: 231750800
I0930 20:11:10.620143  4070 layer_factory.hpp:77] Creating layer Convolution11
I0930 20:11:10.620151  4070 net.cpp:84] Creating Layer Convolution11
I0930 20:11:10.620154  4070 net.cpp:406] Convolution11 <- Eltwise4_penlu9_0_split_0
I0930 20:11:10.620159  4070 net.cpp:380] Convolution11 -> Convolution11
I0930 20:11:10.621197  4070 net.cpp:122] Setting up Convolution11
I0930 20:11:10.621208  4070 net.cpp:129] Top shape: 100 32 14 14 (627200)
I0930 20:11:10.621212  4070 net.cpp:137] Memory required for data: 234259600
I0930 20:11:10.621217  4070 layer_factory.hpp:77] Creating layer BatchNorm11
I0930 20:11:10.621222  4070 net.cpp:84] Creating Layer BatchNorm11
I0930 20:11:10.621225  4070 net.cpp:406] BatchNorm11 <- Convolution11
I0930 20:11:10.621230  4070 net.cpp:367] BatchNorm11 -> Convolution11 (in-place)
I0930 20:11:10.621361  4070 net.cpp:122] Setting up BatchNorm11
I0930 20:11:10.621367  4070 net.cpp:129] Top shape: 100 32 14 14 (627200)
I0930 20:11:10.621371  4070 net.cpp:137] Memory required for data: 236768400
I0930 20:11:10.621376  4070 layer_factory.hpp:77] Creating layer Scale11
I0930 20:11:10.621381  4070 net.cpp:84] Creating Layer Scale11
I0930 20:11:10.621384  4070 net.cpp:406] Scale11 <- Convolution11
I0930 20:11:10.621388  4070 net.cpp:367] Scale11 -> Convolution11 (in-place)
I0930 20:11:10.621414  4070 layer_factory.hpp:77] Creating layer Scale11
I0930 20:11:10.621490  4070 net.cpp:122] Setting up Scale11
I0930 20:11:10.621496  4070 net.cpp:129] Top shape: 100 32 14 14 (627200)
I0930 20:11:10.621500  4070 net.cpp:137] Memory required for data: 239277200
I0930 20:11:10.621503  4070 layer_factory.hpp:77] Creating layer penlu10
I0930 20:11:10.621510  4070 net.cpp:84] Creating Layer penlu10
I0930 20:11:10.621513  4070 net.cpp:406] penlu10 <- Convolution11
I0930 20:11:10.621517  4070 net.cpp:367] penlu10 -> Convolution11 (in-place)
I0930 20:11:10.621623  4070 net.cpp:122] Setting up penlu10
I0930 20:11:10.621629  4070 net.cpp:129] Top shape: 100 32 14 14 (627200)
I0930 20:11:10.621639  4070 net.cpp:137] Memory required for data: 241786000
I0930 20:11:10.621644  4070 layer_factory.hpp:77] Creating layer Convolution12
I0930 20:11:10.621650  4070 net.cpp:84] Creating Layer Convolution12
I0930 20:11:10.621654  4070 net.cpp:406] Convolution12 <- Convolution11
I0930 20:11:10.621659  4070 net.cpp:380] Convolution12 -> Convolution12
I0930 20:11:10.622709  4070 net.cpp:122] Setting up Convolution12
I0930 20:11:10.622720  4070 net.cpp:129] Top shape: 100 32 14 14 (627200)
I0930 20:11:10.622722  4070 net.cpp:137] Memory required for data: 244294800
I0930 20:11:10.622727  4070 layer_factory.hpp:77] Creating layer BatchNorm12
I0930 20:11:10.622733  4070 net.cpp:84] Creating Layer BatchNorm12
I0930 20:11:10.622737  4070 net.cpp:406] BatchNorm12 <- Convolution12
I0930 20:11:10.622740  4070 net.cpp:367] BatchNorm12 -> Convolution12 (in-place)
I0930 20:11:10.622872  4070 net.cpp:122] Setting up BatchNorm12
I0930 20:11:10.622879  4070 net.cpp:129] Top shape: 100 32 14 14 (627200)
I0930 20:11:10.622881  4070 net.cpp:137] Memory required for data: 246803600
I0930 20:11:10.622886  4070 layer_factory.hpp:77] Creating layer Scale12
I0930 20:11:10.622891  4070 net.cpp:84] Creating Layer Scale12
I0930 20:11:10.622895  4070 net.cpp:406] Scale12 <- Convolution12
I0930 20:11:10.622898  4070 net.cpp:367] Scale12 -> Convolution12 (in-place)
I0930 20:11:10.622926  4070 layer_factory.hpp:77] Creating layer Scale12
I0930 20:11:10.623001  4070 net.cpp:122] Setting up Scale12
I0930 20:11:10.623006  4070 net.cpp:129] Top shape: 100 32 14 14 (627200)
I0930 20:11:10.623010  4070 net.cpp:137] Memory required for data: 249312400
I0930 20:11:10.623014  4070 layer_factory.hpp:77] Creating layer Eltwise5
I0930 20:11:10.623019  4070 net.cpp:84] Creating Layer Eltwise5
I0930 20:11:10.623023  4070 net.cpp:406] Eltwise5 <- Eltwise4_penlu9_0_split_1
I0930 20:11:10.623025  4070 net.cpp:406] Eltwise5 <- Convolution12
I0930 20:11:10.623029  4070 net.cpp:380] Eltwise5 -> Eltwise5
I0930 20:11:10.623046  4070 net.cpp:122] Setting up Eltwise5
I0930 20:11:10.623051  4070 net.cpp:129] Top shape: 100 32 14 14 (627200)
I0930 20:11:10.623054  4070 net.cpp:137] Memory required for data: 251821200
I0930 20:11:10.623057  4070 layer_factory.hpp:77] Creating layer penlu11
I0930 20:11:10.623062  4070 net.cpp:84] Creating Layer penlu11
I0930 20:11:10.623065  4070 net.cpp:406] penlu11 <- Eltwise5
I0930 20:11:10.623070  4070 net.cpp:367] penlu11 -> Eltwise5 (in-place)
I0930 20:11:10.623174  4070 net.cpp:122] Setting up penlu11
I0930 20:11:10.623180  4070 net.cpp:129] Top shape: 100 32 14 14 (627200)
I0930 20:11:10.623183  4070 net.cpp:137] Memory required for data: 254330000
I0930 20:11:10.623188  4070 layer_factory.hpp:77] Creating layer Eltwise5_penlu11_0_split
I0930 20:11:10.623193  4070 net.cpp:84] Creating Layer Eltwise5_penlu11_0_split
I0930 20:11:10.623198  4070 net.cpp:406] Eltwise5_penlu11_0_split <- Eltwise5
I0930 20:11:10.623200  4070 net.cpp:380] Eltwise5_penlu11_0_split -> Eltwise5_penlu11_0_split_0
I0930 20:11:10.623205  4070 net.cpp:380] Eltwise5_penlu11_0_split -> Eltwise5_penlu11_0_split_1
I0930 20:11:10.623229  4070 net.cpp:122] Setting up Eltwise5_penlu11_0_split
I0930 20:11:10.623234  4070 net.cpp:129] Top shape: 100 32 14 14 (627200)
I0930 20:11:10.623237  4070 net.cpp:129] Top shape: 100 32 14 14 (627200)
I0930 20:11:10.623241  4070 net.cpp:137] Memory required for data: 259347600
I0930 20:11:10.623244  4070 layer_factory.hpp:77] Creating layer Convolution13
I0930 20:11:10.623250  4070 net.cpp:84] Creating Layer Convolution13
I0930 20:11:10.623252  4070 net.cpp:406] Convolution13 <- Eltwise5_penlu11_0_split_0
I0930 20:11:10.623257  4070 net.cpp:380] Convolution13 -> Convolution13
I0930 20:11:10.624296  4070 net.cpp:122] Setting up Convolution13
I0930 20:11:10.624306  4070 net.cpp:129] Top shape: 100 32 14 14 (627200)
I0930 20:11:10.624310  4070 net.cpp:137] Memory required for data: 261856400
I0930 20:11:10.624315  4070 layer_factory.hpp:77] Creating layer BatchNorm13
I0930 20:11:10.624321  4070 net.cpp:84] Creating Layer BatchNorm13
I0930 20:11:10.624332  4070 net.cpp:406] BatchNorm13 <- Convolution13
I0930 20:11:10.624337  4070 net.cpp:367] BatchNorm13 -> Convolution13 (in-place)
I0930 20:11:10.624469  4070 net.cpp:122] Setting up BatchNorm13
I0930 20:11:10.624475  4070 net.cpp:129] Top shape: 100 32 14 14 (627200)
I0930 20:11:10.624480  4070 net.cpp:137] Memory required for data: 264365200
I0930 20:11:10.624485  4070 layer_factory.hpp:77] Creating layer Scale13
I0930 20:11:10.624490  4070 net.cpp:84] Creating Layer Scale13
I0930 20:11:10.624492  4070 net.cpp:406] Scale13 <- Convolution13
I0930 20:11:10.624495  4070 net.cpp:367] Scale13 -> Convolution13 (in-place)
I0930 20:11:10.624524  4070 layer_factory.hpp:77] Creating layer Scale13
I0930 20:11:10.624601  4070 net.cpp:122] Setting up Scale13
I0930 20:11:10.624608  4070 net.cpp:129] Top shape: 100 32 14 14 (627200)
I0930 20:11:10.624611  4070 net.cpp:137] Memory required for data: 266874000
I0930 20:11:10.624615  4070 layer_factory.hpp:77] Creating layer penlu12
I0930 20:11:10.624621  4070 net.cpp:84] Creating Layer penlu12
I0930 20:11:10.624624  4070 net.cpp:406] penlu12 <- Convolution13
I0930 20:11:10.624629  4070 net.cpp:367] penlu12 -> Convolution13 (in-place)
I0930 20:11:10.624737  4070 net.cpp:122] Setting up penlu12
I0930 20:11:10.624742  4070 net.cpp:129] Top shape: 100 32 14 14 (627200)
I0930 20:11:10.624745  4070 net.cpp:137] Memory required for data: 269382800
I0930 20:11:10.624750  4070 layer_factory.hpp:77] Creating layer Convolution14
I0930 20:11:10.624758  4070 net.cpp:84] Creating Layer Convolution14
I0930 20:11:10.624761  4070 net.cpp:406] Convolution14 <- Convolution13
I0930 20:11:10.624765  4070 net.cpp:380] Convolution14 -> Convolution14
I0930 20:11:10.625835  4070 net.cpp:122] Setting up Convolution14
I0930 20:11:10.625846  4070 net.cpp:129] Top shape: 100 32 14 14 (627200)
I0930 20:11:10.625849  4070 net.cpp:137] Memory required for data: 271891600
I0930 20:11:10.625867  4070 layer_factory.hpp:77] Creating layer BatchNorm14
I0930 20:11:10.625877  4070 net.cpp:84] Creating Layer BatchNorm14
I0930 20:11:10.625881  4070 net.cpp:406] BatchNorm14 <- Convolution14
I0930 20:11:10.625885  4070 net.cpp:367] BatchNorm14 -> Convolution14 (in-place)
I0930 20:11:10.626026  4070 net.cpp:122] Setting up BatchNorm14
I0930 20:11:10.626032  4070 net.cpp:129] Top shape: 100 32 14 14 (627200)
I0930 20:11:10.626036  4070 net.cpp:137] Memory required for data: 274400400
I0930 20:11:10.626041  4070 layer_factory.hpp:77] Creating layer Scale14
I0930 20:11:10.626046  4070 net.cpp:84] Creating Layer Scale14
I0930 20:11:10.626049  4070 net.cpp:406] Scale14 <- Convolution14
I0930 20:11:10.626052  4070 net.cpp:367] Scale14 -> Convolution14 (in-place)
I0930 20:11:10.626080  4070 layer_factory.hpp:77] Creating layer Scale14
I0930 20:11:10.626158  4070 net.cpp:122] Setting up Scale14
I0930 20:11:10.626164  4070 net.cpp:129] Top shape: 100 32 14 14 (627200)
I0930 20:11:10.626166  4070 net.cpp:137] Memory required for data: 276909200
I0930 20:11:10.626170  4070 layer_factory.hpp:77] Creating layer Eltwise6
I0930 20:11:10.626174  4070 net.cpp:84] Creating Layer Eltwise6
I0930 20:11:10.626178  4070 net.cpp:406] Eltwise6 <- Eltwise5_penlu11_0_split_1
I0930 20:11:10.626180  4070 net.cpp:406] Eltwise6 <- Convolution14
I0930 20:11:10.626183  4070 net.cpp:380] Eltwise6 -> Eltwise6
I0930 20:11:10.626200  4070 net.cpp:122] Setting up Eltwise6
I0930 20:11:10.626204  4070 net.cpp:129] Top shape: 100 32 14 14 (627200)
I0930 20:11:10.626206  4070 net.cpp:137] Memory required for data: 279418000
I0930 20:11:10.626209  4070 layer_factory.hpp:77] Creating layer penlu13
I0930 20:11:10.626214  4070 net.cpp:84] Creating Layer penlu13
I0930 20:11:10.626216  4070 net.cpp:406] penlu13 <- Eltwise6
I0930 20:11:10.626220  4070 net.cpp:367] penlu13 -> Eltwise6 (in-place)
I0930 20:11:10.626325  4070 net.cpp:122] Setting up penlu13
I0930 20:11:10.626329  4070 net.cpp:129] Top shape: 100 32 14 14 (627200)
I0930 20:11:10.626332  4070 net.cpp:137] Memory required for data: 281926800
I0930 20:11:10.626335  4070 layer_factory.hpp:77] Creating layer Eltwise6_penlu13_0_split
I0930 20:11:10.626346  4070 net.cpp:84] Creating Layer Eltwise6_penlu13_0_split
I0930 20:11:10.626348  4070 net.cpp:406] Eltwise6_penlu13_0_split <- Eltwise6
I0930 20:11:10.626353  4070 net.cpp:380] Eltwise6_penlu13_0_split -> Eltwise6_penlu13_0_split_0
I0930 20:11:10.626355  4070 net.cpp:380] Eltwise6_penlu13_0_split -> Eltwise6_penlu13_0_split_1
I0930 20:11:10.626379  4070 net.cpp:122] Setting up Eltwise6_penlu13_0_split
I0930 20:11:10.626384  4070 net.cpp:129] Top shape: 100 32 14 14 (627200)
I0930 20:11:10.626396  4070 net.cpp:129] Top shape: 100 32 14 14 (627200)
I0930 20:11:10.626399  4070 net.cpp:137] Memory required for data: 286944400
I0930 20:11:10.626401  4070 layer_factory.hpp:77] Creating layer Convolution15
I0930 20:11:10.626406  4070 net.cpp:84] Creating Layer Convolution15
I0930 20:11:10.626410  4070 net.cpp:406] Convolution15 <- Eltwise6_penlu13_0_split_0
I0930 20:11:10.626415  4070 net.cpp:380] Convolution15 -> Convolution15
I0930 20:11:10.627405  4070 net.cpp:122] Setting up Convolution15
I0930 20:11:10.627414  4070 net.cpp:129] Top shape: 100 64 7 7 (313600)
I0930 20:11:10.627418  4070 net.cpp:137] Memory required for data: 288198800
I0930 20:11:10.627423  4070 layer_factory.hpp:77] Creating layer BatchNorm15
I0930 20:11:10.627427  4070 net.cpp:84] Creating Layer BatchNorm15
I0930 20:11:10.627430  4070 net.cpp:406] BatchNorm15 <- Convolution15
I0930 20:11:10.627434  4070 net.cpp:367] BatchNorm15 -> Convolution15 (in-place)
I0930 20:11:10.627564  4070 net.cpp:122] Setting up BatchNorm15
I0930 20:11:10.627568  4070 net.cpp:129] Top shape: 100 64 7 7 (313600)
I0930 20:11:10.627570  4070 net.cpp:137] Memory required for data: 289453200
I0930 20:11:10.627575  4070 layer_factory.hpp:77] Creating layer Scale15
I0930 20:11:10.627579  4070 net.cpp:84] Creating Layer Scale15
I0930 20:11:10.627581  4070 net.cpp:406] Scale15 <- Convolution15
I0930 20:11:10.627585  4070 net.cpp:367] Scale15 -> Convolution15 (in-place)
I0930 20:11:10.627611  4070 layer_factory.hpp:77] Creating layer Scale15
I0930 20:11:10.627686  4070 net.cpp:122] Setting up Scale15
I0930 20:11:10.627691  4070 net.cpp:129] Top shape: 100 64 7 7 (313600)
I0930 20:11:10.627692  4070 net.cpp:137] Memory required for data: 290707600
I0930 20:11:10.627696  4070 layer_factory.hpp:77] Creating layer Convolution16
I0930 20:11:10.627703  4070 net.cpp:84] Creating Layer Convolution16
I0930 20:11:10.627707  4070 net.cpp:406] Convolution16 <- Eltwise6_penlu13_0_split_1
I0930 20:11:10.627710  4070 net.cpp:380] Convolution16 -> Convolution16
I0930 20:11:10.629586  4070 net.cpp:122] Setting up Convolution16
I0930 20:11:10.629597  4070 net.cpp:129] Top shape: 100 64 7 7 (313600)
I0930 20:11:10.629601  4070 net.cpp:137] Memory required for data: 291962000
I0930 20:11:10.629604  4070 layer_factory.hpp:77] Creating layer BatchNorm16
I0930 20:11:10.629609  4070 net.cpp:84] Creating Layer BatchNorm16
I0930 20:11:10.629612  4070 net.cpp:406] BatchNorm16 <- Convolution16
I0930 20:11:10.629617  4070 net.cpp:367] BatchNorm16 -> Convolution16 (in-place)
I0930 20:11:10.629747  4070 net.cpp:122] Setting up BatchNorm16
I0930 20:11:10.629752  4070 net.cpp:129] Top shape: 100 64 7 7 (313600)
I0930 20:11:10.629755  4070 net.cpp:137] Memory required for data: 293216400
I0930 20:11:10.629760  4070 layer_factory.hpp:77] Creating layer Scale16
I0930 20:11:10.629763  4070 net.cpp:84] Creating Layer Scale16
I0930 20:11:10.629766  4070 net.cpp:406] Scale16 <- Convolution16
I0930 20:11:10.629770  4070 net.cpp:367] Scale16 -> Convolution16 (in-place)
I0930 20:11:10.629796  4070 layer_factory.hpp:77] Creating layer Scale16
I0930 20:11:10.629870  4070 net.cpp:122] Setting up Scale16
I0930 20:11:10.629874  4070 net.cpp:129] Top shape: 100 64 7 7 (313600)
I0930 20:11:10.629876  4070 net.cpp:137] Memory required for data: 294470800
I0930 20:11:10.629880  4070 layer_factory.hpp:77] Creating layer penlu14
I0930 20:11:10.629885  4070 net.cpp:84] Creating Layer penlu14
I0930 20:11:10.629887  4070 net.cpp:406] penlu14 <- Convolution16
I0930 20:11:10.629894  4070 net.cpp:367] penlu14 -> Convolution16 (in-place)
I0930 20:11:10.630010  4070 net.cpp:122] Setting up penlu14
I0930 20:11:10.630015  4070 net.cpp:129] Top shape: 100 64 7 7 (313600)
I0930 20:11:10.630018  4070 net.cpp:137] Memory required for data: 295725200
I0930 20:11:10.630023  4070 layer_factory.hpp:77] Creating layer Convolution17
I0930 20:11:10.630029  4070 net.cpp:84] Creating Layer Convolution17
I0930 20:11:10.630033  4070 net.cpp:406] Convolution17 <- Convolution16
I0930 20:11:10.630036  4070 net.cpp:380] Convolution17 -> Convolution17
I0930 20:11:10.631692  4070 net.cpp:122] Setting up Convolution17
I0930 20:11:10.631701  4070 net.cpp:129] Top shape: 100 64 7 7 (313600)
I0930 20:11:10.631705  4070 net.cpp:137] Memory required for data: 296979600
I0930 20:11:10.631711  4070 layer_factory.hpp:77] Creating layer BatchNorm17
I0930 20:11:10.631714  4070 net.cpp:84] Creating Layer BatchNorm17
I0930 20:11:10.631717  4070 net.cpp:406] BatchNorm17 <- Convolution17
I0930 20:11:10.631721  4070 net.cpp:367] BatchNorm17 -> Convolution17 (in-place)
I0930 20:11:10.631893  4070 net.cpp:122] Setting up BatchNorm17
I0930 20:11:10.631906  4070 net.cpp:129] Top shape: 100 64 7 7 (313600)
I0930 20:11:10.631911  4070 net.cpp:137] Memory required for data: 298234000
I0930 20:11:10.631918  4070 layer_factory.hpp:77] Creating layer Scale17
I0930 20:11:10.631927  4070 net.cpp:84] Creating Layer Scale17
I0930 20:11:10.631932  4070 net.cpp:406] Scale17 <- Convolution17
I0930 20:11:10.631938  4070 net.cpp:367] Scale17 -> Convolution17 (in-place)
I0930 20:11:10.631979  4070 layer_factory.hpp:77] Creating layer Scale17
I0930 20:11:10.632098  4070 net.cpp:122] Setting up Scale17
I0930 20:11:10.632109  4070 net.cpp:129] Top shape: 100 64 7 7 (313600)
I0930 20:11:10.632114  4070 net.cpp:137] Memory required for data: 299488400
I0930 20:11:10.632122  4070 layer_factory.hpp:77] Creating layer Eltwise7
I0930 20:11:10.632130  4070 net.cpp:84] Creating Layer Eltwise7
I0930 20:11:10.632135  4070 net.cpp:406] Eltwise7 <- Convolution15
I0930 20:11:10.632141  4070 net.cpp:406] Eltwise7 <- Convolution17
I0930 20:11:10.632148  4070 net.cpp:380] Eltwise7 -> Eltwise7
I0930 20:11:10.632174  4070 net.cpp:122] Setting up Eltwise7
I0930 20:11:10.632181  4070 net.cpp:129] Top shape: 100 64 7 7 (313600)
I0930 20:11:10.632186  4070 net.cpp:137] Memory required for data: 300742800
I0930 20:11:10.632190  4070 layer_factory.hpp:77] Creating layer penlu15
I0930 20:11:10.632200  4070 net.cpp:84] Creating Layer penlu15
I0930 20:11:10.632206  4070 net.cpp:406] penlu15 <- Eltwise7
I0930 20:11:10.632215  4070 net.cpp:367] penlu15 -> Eltwise7 (in-place)
I0930 20:11:10.632371  4070 net.cpp:122] Setting up penlu15
I0930 20:11:10.632380  4070 net.cpp:129] Top shape: 100 64 7 7 (313600)
I0930 20:11:10.632385  4070 net.cpp:137] Memory required for data: 301997200
I0930 20:11:10.632391  4070 layer_factory.hpp:77] Creating layer Eltwise7_penlu15_0_split
I0930 20:11:10.632398  4070 net.cpp:84] Creating Layer Eltwise7_penlu15_0_split
I0930 20:11:10.632402  4070 net.cpp:406] Eltwise7_penlu15_0_split <- Eltwise7
I0930 20:11:10.632407  4070 net.cpp:380] Eltwise7_penlu15_0_split -> Eltwise7_penlu15_0_split_0
I0930 20:11:10.632414  4070 net.cpp:380] Eltwise7_penlu15_0_split -> Eltwise7_penlu15_0_split_1
I0930 20:11:10.632447  4070 net.cpp:122] Setting up Eltwise7_penlu15_0_split
I0930 20:11:10.632453  4070 net.cpp:129] Top shape: 100 64 7 7 (313600)
I0930 20:11:10.632458  4070 net.cpp:129] Top shape: 100 64 7 7 (313600)
I0930 20:11:10.632462  4070 net.cpp:137] Memory required for data: 304506000
I0930 20:11:10.632465  4070 layer_factory.hpp:77] Creating layer Convolution18
I0930 20:11:10.632474  4070 net.cpp:84] Creating Layer Convolution18
I0930 20:11:10.632478  4070 net.cpp:406] Convolution18 <- Eltwise7_penlu15_0_split_0
I0930 20:11:10.632485  4070 net.cpp:380] Convolution18 -> Convolution18
I0930 20:11:10.634899  4070 net.cpp:122] Setting up Convolution18
I0930 20:11:10.634910  4070 net.cpp:129] Top shape: 100 64 7 7 (313600)
I0930 20:11:10.634913  4070 net.cpp:137] Memory required for data: 305760400
I0930 20:11:10.634925  4070 layer_factory.hpp:77] Creating layer BatchNorm18
I0930 20:11:10.634930  4070 net.cpp:84] Creating Layer BatchNorm18
I0930 20:11:10.634932  4070 net.cpp:406] BatchNorm18 <- Convolution18
I0930 20:11:10.634938  4070 net.cpp:367] BatchNorm18 -> Convolution18 (in-place)
I0930 20:11:10.635069  4070 net.cpp:122] Setting up BatchNorm18
I0930 20:11:10.635073  4070 net.cpp:129] Top shape: 100 64 7 7 (313600)
I0930 20:11:10.635076  4070 net.cpp:137] Memory required for data: 307014800
I0930 20:11:10.635080  4070 layer_factory.hpp:77] Creating layer Scale18
I0930 20:11:10.635084  4070 net.cpp:84] Creating Layer Scale18
I0930 20:11:10.635087  4070 net.cpp:406] Scale18 <- Convolution18
I0930 20:11:10.635090  4070 net.cpp:367] Scale18 -> Convolution18 (in-place)
I0930 20:11:10.635118  4070 layer_factory.hpp:77] Creating layer Scale18
I0930 20:11:10.635193  4070 net.cpp:122] Setting up Scale18
I0930 20:11:10.635198  4070 net.cpp:129] Top shape: 100 64 7 7 (313600)
I0930 20:11:10.635200  4070 net.cpp:137] Memory required for data: 308269200
I0930 20:11:10.635205  4070 layer_factory.hpp:77] Creating layer penlu16
I0930 20:11:10.635208  4070 net.cpp:84] Creating Layer penlu16
I0930 20:11:10.635211  4070 net.cpp:406] penlu16 <- Convolution18
I0930 20:11:10.635215  4070 net.cpp:367] penlu16 -> Convolution18 (in-place)
I0930 20:11:10.635321  4070 net.cpp:122] Setting up penlu16
I0930 20:11:10.635326  4070 net.cpp:129] Top shape: 100 64 7 7 (313600)
I0930 20:11:10.635329  4070 net.cpp:137] Memory required for data: 309523600
I0930 20:11:10.635334  4070 layer_factory.hpp:77] Creating layer Convolution19
I0930 20:11:10.635339  4070 net.cpp:84] Creating Layer Convolution19
I0930 20:11:10.635342  4070 net.cpp:406] Convolution19 <- Convolution18
I0930 20:11:10.635346  4070 net.cpp:380] Convolution19 -> Convolution19
I0930 20:11:10.637394  4070 net.cpp:122] Setting up Convolution19
I0930 20:11:10.637405  4070 net.cpp:129] Top shape: 100 64 7 7 (313600)
I0930 20:11:10.637409  4070 net.cpp:137] Memory required for data: 310778000
I0930 20:11:10.637425  4070 layer_factory.hpp:77] Creating layer BatchNorm19
I0930 20:11:10.637432  4070 net.cpp:84] Creating Layer BatchNorm19
I0930 20:11:10.637435  4070 net.cpp:406] BatchNorm19 <- Convolution19
I0930 20:11:10.637439  4070 net.cpp:367] BatchNorm19 -> Convolution19 (in-place)
I0930 20:11:10.637585  4070 net.cpp:122] Setting up BatchNorm19
I0930 20:11:10.637591  4070 net.cpp:129] Top shape: 100 64 7 7 (313600)
I0930 20:11:10.637594  4070 net.cpp:137] Memory required for data: 312032400
I0930 20:11:10.637600  4070 layer_factory.hpp:77] Creating layer Scale19
I0930 20:11:10.637605  4070 net.cpp:84] Creating Layer Scale19
I0930 20:11:10.637607  4070 net.cpp:406] Scale19 <- Convolution19
I0930 20:11:10.637612  4070 net.cpp:367] Scale19 -> Convolution19 (in-place)
I0930 20:11:10.637640  4070 layer_factory.hpp:77] Creating layer Scale19
I0930 20:11:10.637719  4070 net.cpp:122] Setting up Scale19
I0930 20:11:10.637725  4070 net.cpp:129] Top shape: 100 64 7 7 (313600)
I0930 20:11:10.637728  4070 net.cpp:137] Memory required for data: 313286800
I0930 20:11:10.637732  4070 layer_factory.hpp:77] Creating layer Eltwise8
I0930 20:11:10.637738  4070 net.cpp:84] Creating Layer Eltwise8
I0930 20:11:10.637742  4070 net.cpp:406] Eltwise8 <- Eltwise7_penlu15_0_split_1
I0930 20:11:10.637744  4070 net.cpp:406] Eltwise8 <- Convolution19
I0930 20:11:10.637749  4070 net.cpp:380] Eltwise8 -> Eltwise8
I0930 20:11:10.637765  4070 net.cpp:122] Setting up Eltwise8
I0930 20:11:10.637770  4070 net.cpp:129] Top shape: 100 64 7 7 (313600)
I0930 20:11:10.637773  4070 net.cpp:137] Memory required for data: 314541200
I0930 20:11:10.637775  4070 layer_factory.hpp:77] Creating layer penlu17
I0930 20:11:10.637781  4070 net.cpp:84] Creating Layer penlu17
I0930 20:11:10.637784  4070 net.cpp:406] penlu17 <- Eltwise8
I0930 20:11:10.637789  4070 net.cpp:367] penlu17 -> Eltwise8 (in-place)
I0930 20:11:10.637897  4070 net.cpp:122] Setting up penlu17
I0930 20:11:10.637902  4070 net.cpp:129] Top shape: 100 64 7 7 (313600)
I0930 20:11:10.637912  4070 net.cpp:137] Memory required for data: 315795600
I0930 20:11:10.637917  4070 layer_factory.hpp:77] Creating layer Eltwise8_penlu17_0_split
I0930 20:11:10.637923  4070 net.cpp:84] Creating Layer Eltwise8_penlu17_0_split
I0930 20:11:10.637925  4070 net.cpp:406] Eltwise8_penlu17_0_split <- Eltwise8
I0930 20:11:10.637928  4070 net.cpp:380] Eltwise8_penlu17_0_split -> Eltwise8_penlu17_0_split_0
I0930 20:11:10.637934  4070 net.cpp:380] Eltwise8_penlu17_0_split -> Eltwise8_penlu17_0_split_1
I0930 20:11:10.637959  4070 net.cpp:122] Setting up Eltwise8_penlu17_0_split
I0930 20:11:10.637964  4070 net.cpp:129] Top shape: 100 64 7 7 (313600)
I0930 20:11:10.637969  4070 net.cpp:129] Top shape: 100 64 7 7 (313600)
I0930 20:11:10.637971  4070 net.cpp:137] Memory required for data: 318304400
I0930 20:11:10.637974  4070 layer_factory.hpp:77] Creating layer Convolution20
I0930 20:11:10.637980  4070 net.cpp:84] Creating Layer Convolution20
I0930 20:11:10.637984  4070 net.cpp:406] Convolution20 <- Eltwise8_penlu17_0_split_0
I0930 20:11:10.637989  4070 net.cpp:380] Convolution20 -> Convolution20
I0930 20:11:10.639677  4070 net.cpp:122] Setting up Convolution20
I0930 20:11:10.639688  4070 net.cpp:129] Top shape: 100 64 7 7 (313600)
I0930 20:11:10.639691  4070 net.cpp:137] Memory required for data: 319558800
I0930 20:11:10.639696  4070 layer_factory.hpp:77] Creating layer BatchNorm20
I0930 20:11:10.639703  4070 net.cpp:84] Creating Layer BatchNorm20
I0930 20:11:10.639705  4070 net.cpp:406] BatchNorm20 <- Convolution20
I0930 20:11:10.639709  4070 net.cpp:367] BatchNorm20 -> Convolution20 (in-place)
I0930 20:11:10.639845  4070 net.cpp:122] Setting up BatchNorm20
I0930 20:11:10.639852  4070 net.cpp:129] Top shape: 100 64 7 7 (313600)
I0930 20:11:10.639855  4070 net.cpp:137] Memory required for data: 320813200
I0930 20:11:10.639860  4070 layer_factory.hpp:77] Creating layer Scale20
I0930 20:11:10.639864  4070 net.cpp:84] Creating Layer Scale20
I0930 20:11:10.639868  4070 net.cpp:406] Scale20 <- Convolution20
I0930 20:11:10.639871  4070 net.cpp:367] Scale20 -> Convolution20 (in-place)
I0930 20:11:10.639900  4070 layer_factory.hpp:77] Creating layer Scale20
I0930 20:11:10.639979  4070 net.cpp:122] Setting up Scale20
I0930 20:11:10.639984  4070 net.cpp:129] Top shape: 100 64 7 7 (313600)
I0930 20:11:10.639988  4070 net.cpp:137] Memory required for data: 322067600
I0930 20:11:10.639992  4070 layer_factory.hpp:77] Creating layer penlu18
I0930 20:11:10.639998  4070 net.cpp:84] Creating Layer penlu18
I0930 20:11:10.640002  4070 net.cpp:406] penlu18 <- Convolution20
I0930 20:11:10.640005  4070 net.cpp:367] penlu18 -> Convolution20 (in-place)
I0930 20:11:10.640115  4070 net.cpp:122] Setting up penlu18
I0930 20:11:10.640118  4070 net.cpp:129] Top shape: 100 64 7 7 (313600)
I0930 20:11:10.640120  4070 net.cpp:137] Memory required for data: 323322000
I0930 20:11:10.640125  4070 layer_factory.hpp:77] Creating layer Convolution21
I0930 20:11:10.640132  4070 net.cpp:84] Creating Layer Convolution21
I0930 20:11:10.640135  4070 net.cpp:406] Convolution21 <- Convolution20
I0930 20:11:10.640138  4070 net.cpp:380] Convolution21 -> Convolution21
I0930 20:11:10.642438  4070 net.cpp:122] Setting up Convolution21
I0930 20:11:10.642447  4070 net.cpp:129] Top shape: 100 64 7 7 (313600)
I0930 20:11:10.642451  4070 net.cpp:137] Memory required for data: 324576400
I0930 20:11:10.642465  4070 layer_factory.hpp:77] Creating layer BatchNorm21
I0930 20:11:10.642470  4070 net.cpp:84] Creating Layer BatchNorm21
I0930 20:11:10.642473  4070 net.cpp:406] BatchNorm21 <- Convolution21
I0930 20:11:10.642477  4070 net.cpp:367] BatchNorm21 -> Convolution21 (in-place)
I0930 20:11:10.642626  4070 net.cpp:122] Setting up BatchNorm21
I0930 20:11:10.642632  4070 net.cpp:129] Top shape: 100 64 7 7 (313600)
I0930 20:11:10.642633  4070 net.cpp:137] Memory required for data: 325830800
I0930 20:11:10.642638  4070 layer_factory.hpp:77] Creating layer Scale21
I0930 20:11:10.642643  4070 net.cpp:84] Creating Layer Scale21
I0930 20:11:10.642645  4070 net.cpp:406] Scale21 <- Convolution21
I0930 20:11:10.642657  4070 net.cpp:367] Scale21 -> Convolution21 (in-place)
I0930 20:11:10.642688  4070 layer_factory.hpp:77] Creating layer Scale21
I0930 20:11:10.642777  4070 net.cpp:122] Setting up Scale21
I0930 20:11:10.642782  4070 net.cpp:129] Top shape: 100 64 7 7 (313600)
I0930 20:11:10.642784  4070 net.cpp:137] Memory required for data: 327085200
I0930 20:11:10.642788  4070 layer_factory.hpp:77] Creating layer Eltwise9
I0930 20:11:10.642793  4070 net.cpp:84] Creating Layer Eltwise9
I0930 20:11:10.642796  4070 net.cpp:406] Eltwise9 <- Eltwise8_penlu17_0_split_1
I0930 20:11:10.642798  4070 net.cpp:406] Eltwise9 <- Convolution21
I0930 20:11:10.642802  4070 net.cpp:380] Eltwise9 -> Eltwise9
I0930 20:11:10.642818  4070 net.cpp:122] Setting up Eltwise9
I0930 20:11:10.642822  4070 net.cpp:129] Top shape: 100 64 7 7 (313600)
I0930 20:11:10.642824  4070 net.cpp:137] Memory required for data: 328339600
I0930 20:11:10.642827  4070 layer_factory.hpp:77] Creating layer penlu19
I0930 20:11:10.642832  4070 net.cpp:84] Creating Layer penlu19
I0930 20:11:10.642834  4070 net.cpp:406] penlu19 <- Eltwise9
I0930 20:11:10.642838  4070 net.cpp:367] penlu19 -> Eltwise9 (in-place)
I0930 20:11:10.642948  4070 net.cpp:122] Setting up penlu19
I0930 20:11:10.642953  4070 net.cpp:129] Top shape: 100 64 7 7 (313600)
I0930 20:11:10.642956  4070 net.cpp:137] Memory required for data: 329594000
I0930 20:11:10.642959  4070 layer_factory.hpp:77] Creating layer Pooling1
I0930 20:11:10.642966  4070 net.cpp:84] Creating Layer Pooling1
I0930 20:11:10.642967  4070 net.cpp:406] Pooling1 <- Eltwise9
I0930 20:11:10.642971  4070 net.cpp:380] Pooling1 -> Pooling1
I0930 20:11:10.643124  4070 net.cpp:122] Setting up Pooling1
I0930 20:11:10.643131  4070 net.cpp:129] Top shape: 100 64 1 1 (6400)
I0930 20:11:10.643133  4070 net.cpp:137] Memory required for data: 329619600
I0930 20:11:10.643136  4070 layer_factory.hpp:77] Creating layer InnerProduct1
I0930 20:11:10.643146  4070 net.cpp:84] Creating Layer InnerProduct1
I0930 20:11:10.643147  4070 net.cpp:406] InnerProduct1 <- Pooling1
I0930 20:11:10.643152  4070 net.cpp:380] InnerProduct1 -> InnerProduct1
I0930 20:11:10.643254  4070 net.cpp:122] Setting up InnerProduct1
I0930 20:11:10.643259  4070 net.cpp:129] Top shape: 100 10 (1000)
I0930 20:11:10.643261  4070 net.cpp:137] Memory required for data: 329623600
I0930 20:11:10.643265  4070 layer_factory.hpp:77] Creating layer SoftmaxWithLoss1
I0930 20:11:10.643270  4070 net.cpp:84] Creating Layer SoftmaxWithLoss1
I0930 20:11:10.643271  4070 net.cpp:406] SoftmaxWithLoss1 <- InnerProduct1
I0930 20:11:10.643275  4070 net.cpp:406] SoftmaxWithLoss1 <- Data2
I0930 20:11:10.643278  4070 net.cpp:380] SoftmaxWithLoss1 -> SoftmaxWithLoss1
…
I0930 20:11:10.645952  4070 net.cpp:294] The NetState phase (1) differed from the phase (0) specified by a rule in layer Data1
I0930 20:11:10.646476  4070 net.cpp:51] Initializing net from parameters: 
name: "resnet_cifar10"
state {
  phase: TEST
}
layer {
  name: "Data1"
  type: "Data"
  top: "Data1"
  top: "Data2"
  include {
    phase: TEST
  }
  transform_param {
    mean_file: "/home/x306/caffe/xn/PENLU/data/cifar10/mean.binaryproto"
  }
  data_param {
    source: "/home/x306/caffe/xn/PENLU/data/cifar10/cifar10_test_lmdb"
    batch_size: 100
    backend: LMDB
  }
}
layer {
  name: "Convolution1"
  type: "Convolution"
  bottom: "Data1"
  top: "Convolution1"
  param {
    lr_mult: 1
    decay_mult: 1
  }
  param {
    lr_mult: 2
    decay_mult: 0
  }
  convolution_param {
    num_output: 16
    pad: 1
    kernel_size: 3
    stride: 1
    weight_filler {
      type: "gaussian"
      std: 0.118
    }
    bias_filler {
      type: "constant"
      value: 0
    }
  }
}
layer {
  name: "BatchNorm1"
  type: "BatchNorm"
  bottom: "Convolution1"
  top: "Convolution1"
  param {
    lr_mult: 0
    decay_mult: 0
  }
  param {
    lr_mult: 0
    decay_mult: 0
  }
  param {
    lr_mult: 0
    decay_mult: 0
  }
}
layer {
  name: "Scale1"
  type: "Scale"
  bottom: "Convolution1"
  top: "Convolution1"
  scale_param {
    bias_term: true
  }
}
layer {
  name: "penlu1"
  type: "PENLU"
  bottom: "Convolution1"
  top: "Convolution1"
  param {
    lr_mult: 2
    decay_mult: 0
  }
  param {
    lr_mult: 2
    decay_mult: 0
  }
  param {
    lr_mult: 0
    decay_mult: 0
  }
  penlu_param {
    alpha_filler {
      type: "constant"
      value: 2
    }
    beta_filler {
      type: "constant"
      value: 1
    }
    eta_filler {
      type: "constant"
      value: 1
    }
  }
}
layer {
  name: "Convolution2"
  type: "Convolution"
  bottom: "Convolution1"
  top: "Convolution2"
  param {
    lr_mult: 1
    decay_mult: 1
  }
  param {
    lr_mult: 2
    decay_mult: 0
  }
  convolution_param {
    num_output: 16
    pad: 1
    kernel_size: 3
    stride: 1
    weight_filler {
      type: "gaussian"
      std: 0.118
    }
    bias_filler {
      type: "constant"
      value: 0
    }
  }
}
layer {
  name: "BatchNorm2"
  type: "BatchNorm"
  bottom: "Convolution2"
  top: "Convolution2"
  param {
    lr_mult: 0
    decay_mult: 0
  }
  param {
    lr_mult: 0
    decay_mult: 0
  }
  param {
    lr_mult: 0
    decay_mult: 0
  }
}
layer {
  name: "Scale2"
  type: "Scale"
  bottom: "Convolution2"
  top: "Convolution2"
  scale_param {
    bias_term: true
  }
}
layer {
  name: "penlu2"
  type: "PENLU"
  bottom: "Convolution2"
  top: "Convolution2"
  param {
    lr_mult: 2
    decay_mult: 0
  }
  param {
    lr_mult: 2
    decay_mult: 0
  }
  param {
    lr_mult: 0
    decay_mult: 0
  }
  penlu_param {
    alpha_filler {
      type: "constant"
      value: 2
    }
    beta_filler {
      type: "constant"
      value: 1
    }
    eta_filler {
      type: "constant"
      value: 1
    }
  }
}
layer {
  name: "Convolution3"
  type: "Convolution"
  bottom: "Convolution2"
  top: "Convolution3"
  param {
    lr_mult: 1
    decay_mult: 1
  }
  param {
    lr_mult: 2
    decay_mult: 0
  }
  convolution_param {
    num_output: 16
    pad: 1
    kernel_size: 3
    stride: 1
    weight_filler {
      type: "gaussian"
      std: 0.118
    }
    bias_filler {
      type: "constant"
      value: 0
    }
  }
}
layer {
  name: "BatchNorm3"
  type: "BatchNorm"
  bottom: "Convolution3"
  top: "Convolution3"
  param {
    lr_mult: 0
    decay_mult: 0
  }
  param {
    lr_mult: 0
    decay_mult: 0
  }
  param {
    lr_mult: 0
    decay_mult: 0
  }
}
layer {
  name: "Scale3"
  type: "Scale"
  bottom: "Convolution3"
  top: "Convolution3"
  scale_param {
    bias_term: true
  }
}
layer {
  name: "Eltwise1"
  type: "Eltwise"
  bottom: "Convolution1"
  bottom: "Convolution3"
  top: "Eltwise1"
  eltwise_param {
    operation: SUM
  }
}
layer {
  name: "penlu3"
  type: "PENLU"
  bottom: "Eltwise1"
  top: "Eltwise1"
  param {
    lr_mult: 2
    decay_mult: 0
  }
  param {
    lr_mult: 2
    decay_mult: 0
  }
  param {
    lr_mult: 0
    decay_mult: 0
  }
  penlu_param {
    alpha_filler {
      type: "constant"
      value: 2
    }
    beta_filler {
      type: "constant"
      value: 1
    }
    eta_filler {
      type: "constant"
      value: 1
    }
  }
}
layer {
  name: "Convolution4"
  type: "Convolution"
  bottom: "Eltwise1"
  top: "Convolution4"
  param {
    lr_mult: 1
    decay_mult: 1
  }
  param {
    lr_mult: 2
    decay_mult: 0
  }
  convolution_param {
    num_output: 16
    pad: 1
    kernel_size: 3
    stride: 1
    weight_filler {
      type: "gaussian"
      std: 0.118
    }
    bias_filler {
      type: "constant"
      value: 0
    }
  }
}
layer {
  name: "BatchNorm4"
  type: "BatchNorm"
  bottom: "Convolution4"
  top: "Convolution4"
  param {
    lr_mult: 0
    decay_mult: 0
  }
  param {
    lr_mult: 0
    decay_mult: 0
  }
  param {
    lr_mult: 0
    decay_mult: 0
  }
}
layer {
  name: "Scale4"
  type: "Scale"
  bottom: "Convolution4"
  top: "Convolution4"
  scale_param {
    bias_term: true
  }
}
layer {
  name: "penlu4"
  type: "PENLU"
  bottom: "Convolution4"
  top: "Convolution4"
  param {
    lr_mult: 2
    decay_mult: 0
  }
  param {
    lr_mult: 2
    decay_mult: 0
  }
  param {
    lr_mult: 0
    decay_mult: 0
  }
  penlu_param {
    alpha_filler {
      type: "constant"
      value: 2
    }
    beta_filler {
      type: "constant"
      value: 1
    }
    eta_filler {
      type: "constant"
      value: 1
    }
  }
}
layer {
  name: "Convolution5"
  type: "Convolution"
  bottom: "Convolution4"
  top: "Convolution5"
  param {
    lr_mult: 1
    decay_mult: 1
  }
  param {
    lr_mult: 2
    decay_mult: 0
  }
  convolution_param {
    num_output: 16
    pad: 1
    kernel_size: 3
    stride: 1
    weight_filler {
      type: "gaussian"
      std: 0.118
    }
    bias_filler {
      type: "constant"
      value: 0
    }
  }
}
layer {
  name: "BatchNorm5"
  type: "BatchNorm"
  bottom: "Convolution5"
  top: "Convolution5"
  param {
    lr_mult: 0
    decay_mult: 0
  }
  param {
    lr_mult: 0
    decay_mult: 0
  }
  param {
    lr_mult: 0
    decay_mult: 0
  }
}
layer {
  name: "Scale5"
  type: "Scale"
  bottom: "Convolution5"
  top: "Convolution5"
  scale_param {
    bias_term: true
  }
}
layer {
  name: "Eltwise2"
  type: "Eltwise"
  bottom: "Eltwise1"
  bottom: "Convolution5"
  top: "Eltwise2"
  eltwise_param {
    operation: SUM
  }
}
layer {
  name: "penlu5"
  type: "PENLU"
  bottom: "Eltwise2"
  top: "Eltwise2"
  param {
    lr_mult: 2
    decay_mult: 0
  }
  param {
    lr_mult: 2
    decay_mult: 0
  }
  param {
    lr_mult: 0
    decay_mult: 0
  }
  penlu_param {
    alpha_filler {
      type: "constant"
      value: 2
    }
    beta_filler {
      type: "constant"
      value: 1
    }
    eta_filler {
      type: "constant"
      value: 1
    }
  }
}
layer {
  name: "Convolution6"
  type: "Convolution"
  bottom: "Eltwise2"
  top: "Convolution6"
  param {
    lr_mult: 1
    decay_mult: 1
  }
  param {
    lr_mult: 2
    decay_mult: 0
  }
  convolution_param {
    num_output: 16
    pad: 1
    kernel_size: 3
    stride: 1
    weight_filler {
      type: "gaussian"
      std: 0.118
    }
    bias_filler {
      type: "constant"
      value: 0
    }
  }
}
layer {
  name: "BatchNorm6"
  type: "BatchNorm"
  bottom: "Convolution6"
  top: "Convolution6"
  param {
    lr_mult: 0
    decay_mult: 0
  }
  param {
    lr_mult: 0
    decay_mult: 0
  }
  param {
    lr_mult: 0
    decay_mult: 0
  }
}
layer {
  name: "Scale6"
  type: "Scale"
  bottom: "Convolution6"
  top: "Convolution6"
  scale_param {
    bias_term: true
  }
}
layer {
  name: "penlu6"
  type: "PENLU"
  bottom: "Convolution6"
  top: "Convolution6"
  param {
    lr_mult: 2
    decay_mult: 0
  }
  param {
    lr_mult: 2
    decay_mult: 0
  }
  param {
    lr_mult: 0
    decay_mult: 0
  }
  penlu_param {
    alpha_filler {
      type: "constant"
      value: 2
    }
    beta_filler {
      type: "constant"
      value: 1
    }
    eta_filler {
      type: "constant"
      value: 1
    }
  }
}
layer {
  name: "Convolution7"
  type: "Convolution"
  bottom: "Convolution6"
  top: "Convolution7"
  param {
    lr_mult: 1
    decay_mult: 1
  }
  param {
    lr_mult: 2
    decay_mult: 0
  }
  convolution_param {
    num_output: 16
    pad: 1
    kernel_size: 3
    stride: 1
    weight_filler {
      type: "gaussian"
      std: 0.118
    }
    bias_filler {
      type: "constant"
      value: 0
    }
  }
}
layer {
  name: "BatchNorm7"
  type: "BatchNorm"
  bottom: "Convolution7"
  top: "Convolution7"
  param {
    lr_mult: 0
    decay_mult: 0
  }
  param {
    lr_mult: 0
    decay_mult: 0
  }
  param {
    lr_mult: 0
    decay_mult: 0
  }
}
layer {
  name: "Scale7"
  type: "Scale"
  bottom: "Convolution7"
  top: "Convolution7"
  scale_param {
    bias_term: true
  }
}
layer {
  name: "Eltwise3"
  type: "Eltwise"
  bottom: "Eltwise2"
  bottom: "Convolution7"
  top: "Eltwise3"
  eltwise_param {
    operation: SUM
  }
}
layer {
  name: "penlu7"
  type: "PENLU"
  bottom: "Eltwise3"
  top: "Eltwise3"
  param {
    lr_mult: 2
    decay_mult: 0
  }
  param {
    lr_mult: 2
    decay_mult: 0
  }
  param {
    lr_mult: 0
    decay_mult: 0
  }
  penlu_param {
    alpha_filler {
      type: "constant"
      value: 2
    }
    beta_filler {
      type: "constant"
      value: 1
    }
    eta_filler {
      type: "constant"
      value: 1
    }
  }
}
layer {
  name: "Convolution8"
  type: "Convolution"
  bottom: "Eltwise3"
  top: "Convolution8"
  param {
    lr_mult: 1
    decay_mult: 1
  }
  param {
    lr_mult: 2
    decay_mult: 0
  }
  convolution_param {
    num_output: 32
    pad: 0
    kernel_size: 1
    stride: 2
    weight_filler {
      type: "gaussian"
      std: 0.25
    }
    bias_filler {
      type: "constant"
      value: 0
    }
  }
}
layer {
  name: "BatchNorm8"
  type: "BatchNorm"
  bottom: "Convolution8"
  top: "Convolution8"
  param {
    lr_mult: 0
    decay_mult: 0
  }
  param {
    lr_mult: 0
    decay_mult: 0
  }
  param {
    lr_mult: 0
    decay_mult: 0
  }
}
layer {
  name: "Scale8"
  type: "Scale"
  bottom: "Convolution8"
  top: "Convolution8"
  scale_param {
    bias_term: true
  }
}
layer {
  name: "Convolution9"
  type: "Convolution"
  bottom: "Eltwise3"
  top: "Convolution9"
  param {
    lr_mult: 1
    decay_mult: 1
  }
  param {
    lr_mult: 2
    decay_mult: 0
  }
  convolution_param {
    num_output: 32
    pad: 1
    kernel_size: 3
    stride: 2
    weight_filler {
      type: "gaussian"
      std: 0.083
    }
    bias_filler {
      type: "constant"
      value: 0
    }
  }
}
layer {
  name: "BatchNorm9"
  type: "BatchNorm"
  bottom: "Convolution9"
  top: "Convolution9"
  param {
    lr_mult: 0
    decay_mult: 0
  }
  param {
    lr_mult: 0
    decay_mult: 0
  }
  param {
    lr_mult: 0
    decay_mult: 0
  }
}
layer {
  name: "Scale9"
  type: "Scale"
  bottom: "Convolution9"
  top: "Convolution9"
  scale_param {
    bias_term: true
  }
}
layer {
  name: "penlu8"
  type: "PENLU"
  bottom: "Convolution9"
  top: "Convolution9"
  param {
    lr_mult: 2
    decay_mult: 0
  }
  param {
    lr_mult: 2
    decay_mult: 0
  }
  param {
    lr_mult: 0
    decay_mult: 0
  }
  penlu_param {
    alpha_filler {
      type: "constant"
      value: 2
    }
    beta_filler {
      type: "constant"
      value: 1
    }
    eta_filler {
      type: "constant"
      value: 1
    }
  }
}
layer {
  name: "Convolution10"
  type: "Convolution"
  bottom: "Convolution9"
  top: "Convolution10"
  param {
    lr_mult: 1
    decay_mult: 1
  }
  param {
    lr_mult: 2
    decay_mult: 0
  }
  convolution_param {
    num_output: 32
    pad: 1
    kernel_size: 3
    stride: 1
    weight_filler {
      type: "gaussian"
      std: 0.083
    }
    bias_filler {
      type: "constant"
      value: 0
    }
  }
}
layer {
  name: "BatchNorm10"
  type: "BatchNorm"
  bottom: "Convolution10"
  top: "Convolution10"
  param {
    lr_mult: 0
    decay_mult: 0
  }
  param {
    lr_mult: 0
    decay_mult: 0
  }
  param {
    lr_mult: 0
    decay_mult: 0
  }
}
layer {
  name: "Scale10"
  type: "Scale"
  bottom: "Convolution10"
  top: "Convolution10"
  scale_param {
    bias_term: true
  }
}
layer {
  name: "Eltwise4"
  type: "Eltwise"
  bottom: "Convolution8"
  bottom: "Convolution10"
  top: "Eltwise4"
  eltwise_param {
    operation: SUM
  }
}
layer {
  name: "penlu9"
  type: "PENLU"
  bottom: "Eltwise4"
  top: "Eltwise4"
  param {
    lr_mult: 2
    decay_mult: 0
  }
  param {
    lr_mult: 2
    decay_mult: 0
  }
  param {
    lr_mult: 0
    decay_mult: 0
  }
  penlu_param {
    alpha_filler {
      type: "constant"
      value: 2
    }
    beta_filler {
      type: "constant"
      value: 1
    }
    eta_filler {
      type: "constant"
      value: 1
    }
  }
}
layer {
  name: "Convolution11"
  type: "Convolution"
  bottom: "Eltwise4"
  top: "Convolution11"
  param {
    lr_mult: 1
    decay_mult: 1
  }
  param {
    lr_mult: 2
    decay_mult: 0
  }
  convolution_param {
    num_output: 32
    pad: 1
    kernel_size: 3
    stride: 1
    weight_filler {
      type: "gaussian"
      std: 0.083
    }
    bias_filler {
      type: "constant"
      value: 0
    }
  }
}
layer {
  name: "BatchNorm11"
  type: "BatchNorm"
  bottom: "Convolution11"
  top: "Convolution11"
  param {
    lr_mult: 0
    decay_mult: 0
  }
  param {
    lr_mult: 0
    decay_mult: 0
  }
  param {
    lr_mult: 0
    decay_mult: 0
  }
}
layer {
  name: "Scale11"
  type: "Scale"
  bottom: "Convolution11"
  top: "Convolution11"
  scale_param {
    bias_term: true
  }
}
layer {
  name: "penlu10"
  type: "PENLU"
  bottom: "Convolution11"
  top: "Convolution11"
  param {
    lr_mult: 2
    decay_mult: 0
  }
  param {
    lr_mult: 2
    decay_mult: 0
  }
  param {
    lr_mult: 0
    decay_mult: 0
  }
  penlu_param {
    alpha_filler {
      type: "constant"
      value: 2
    }
    beta_filler {
      type: "constant"
      value: 1
    }
    eta_filler {
      type: "constant"
      value: 1
    }
  }
}
layer {
  name: "Convolution12"
  type: "Convolution"
  bottom: "Convolution11"
  top: "Convolution12"
  param {
    lr_mult: 1
    decay_mult: 1
  }
  param {
    lr_mult: 2
    decay_mult: 0
  }
  convolution_param {
    num_output: 32
    pad: 1
    kernel_size: 3
    stride: 1
    weight_filler {
      type: "gaussian"
      std: 0.083
    }
    bias_filler {
      type: "constant"
      value: 0
    }
  }
}
layer {
  name: "BatchNorm12"
  type: "BatchNorm"
  bottom: "Convolution12"
  top: "Convolution12"
  param {
    lr_mult: 0
    decay_mult: 0
  }
  param {
    lr_mult: 0
    decay_mult: 0
  }
  param {
    lr_mult: 0
    decay_mult: 0
  }
}
layer {
  name: "Scale12"
  type: "Scale"
  bottom: "Convolution12"
  top: "Convolution12"
  scale_param {
    bias_term: true
  }
}
layer {
  name: "Eltwise5"
  type: "Eltwise"
  bottom: "Eltwise4"
  bottom: "Convolution12"
  top: "Eltwise5"
  eltwise_param {
    operation: SUM
  }
}
layer {
  name: "penlu11"
  type: "PENLU"
  bottom: "Eltwise5"
  top: "Eltwise5"
  param {
    lr_mult: 2
    decay_mult: 0
  }
  param {
    lr_mult: 2
    decay_mult: 0
  }
  param {
    lr_mult: 0
    decay_mult: 0
  }
  penlu_param {
    alpha_filler {
      type: "constant"
      value: 2
    }
    beta_filler {
      type: "constant"
      value: 1
    }
    eta_filler {
      type: "constant"
      value: 1
    }
  }
}
layer {
  name: "Convolution13"
  type: "Convolution"
  bottom: "Eltwise5"
  top: "Convolution13"
  param {
    lr_mult: 1
    decay_mult: 1
  }
  param {
    lr_mult: 2
    decay_mult: 0
  }
  convolution_param {
    num_output: 32
    pad: 1
    kernel_size: 3
    stride: 1
    weight_filler {
      type: "gaussian"
      std: 0.083
    }
    bias_filler {
      type: "constant"
      value: 0
    }
  }
}
layer {
  name: "BatchNorm13"
  type: "BatchNorm"
  bottom: "Convolution13"
  top: "Convolution13"
  param {
    lr_mult: 0
    decay_mult: 0
  }
  param {
    lr_mult: 0
    decay_mult: 0
  }
  param {
    lr_mult: 0
    decay_mult: 0
  }
}
layer {
  name: "Scale13"
  type: "Scale"
  bottom: "Convolution13"
  top: "Convolution13"
  scale_param {
    bias_term: true
  }
}
layer {
  name: "penlu12"
  type: "PENLU"
  bottom: "Convolution13"
  top: "Convolution13"
  param {
    lr_mult: 2
    decay_mult: 0
  }
  param {
    lr_mult: 2
    decay_mult: 0
  }
  param {
    lr_mult: 0
    decay_mult: 0
  }
  penlu_param {
    alpha_filler {
      type: "constant"
      value: 2
    }
    beta_filler {
      type: "constant"
      value: 1
    }
    eta_filler {
      type: "constant"
      value: 1
    }
  }
}
layer {
  name: "Convolution14"
  type: "Convolution"
  bottom: "Convolution13"
  top: "Convolution14"
  param {
    lr_mult: 1
    decay_mult: 1
  }
  param {
    lr_mult: 2
    decay_mult: 0
  }
  convolution_param {
    num_output: 32
    pad: 1
    kernel_size: 3
    stride: 1
    weight_filler {
      type: "gaussian"
      std: 0.083
    }
    bias_filler {
      type: "constant"
      value: 0
    }
  }
}
layer {
  name: "BatchNorm14"
  type: "BatchNorm"
  bottom: "Convolution14"
  top: "Convolution14"
  param {
    lr_mult: 0
    decay_mult: 0
  }
  param {
    lr_mult: 0
    decay_mult: 0
  }
  param {
    lr_mult: 0
    decay_mult: 0
  }
}
layer {
  name: "Scale14"
  type: "Scale"
  bottom: "Convolution14"
  top: "Convolution14"
  scale_param {
    bias_term: true
  }
}
layer {
  name: "Eltwise6"
  type: "Eltwise"
  bottom: "Eltwise5"
  bottom: "Convolution14"
  top: "Eltwise6"
  eltwise_param {
    operation: SUM
  }
}
layer {
  name: "penlu13"
  type: "PENLU"
  bottom: "Eltwise6"
  top: "Eltwise6"
  param {
    lr_mult: 2
    decay_mult: 0
  }
  param {
    lr_mult: 2
    decay_mult: 0
  }
  param {
    lr_mult: 0
    decay_mult: 0
  }
  penlu_param {
    alpha_filler {
      type: "constant"
      value: 2
    }
    beta_filler {
      type: "constant"
      value: 1
    }
    eta_filler {
      type: "constant"
      value: 1
    }
  }
}
layer {
  name: "Convolution15"
  type: "Convolution"
  bottom: "Eltwise6"
  top: "Convolution15"
  param {
    lr_mult: 1
    decay_mult: 1
  }
  param {
    lr_mult: 2
    decay_mult: 0
  }
  convolution_param {
    num_output: 64
    pad: 0
    kernel_size: 1
    stride: 2
    weight_filler {
      type: "gaussian"
      std: 0.17677669
    }
    bias_filler {
      type: "constant"
      value: 0
    }
  }
}
layer {
  name: "BatchNorm15"
  type: "BatchNorm"
  bottom: "Convolution15"
  top: "Convolution15"
  param {
    lr_mult: 0
    decay_mult: 0
  }
  param {
    lr_mult: 0
    decay_mult: 0
  }
  param {
    lr_mult: 0
    decay_mult: 0
  }
}
layer {
  name: "Scale15"
  type: "Scale"
  bottom: "Convolution15"
  top: "Convolution15"
  scale_param {
    bias_term: true
  }
}
layer {
  name: "Convolution16"
  type: "Convolution"
  bottom: "Eltwise6"
  top: "Convolution16"
  param {
    lr_mult: 1
    decay_mult: 1
  }
  param {
    lr_mult: 2
    decay_mult: 0
  }
  convolution_param {
    num_output: 64
    pad: 1
    kernel_size: 3
    stride: 2
    weight_filler {
      type: "gaussian"
      std: 0.059
    }
    bias_filler {
      type: "constant"
      value: 0
    }
  }
}
layer {
  name: "BatchNorm16"
  type: "BatchNorm"
  bottom: "Convolution16"
  top: "Convolution16"
  param {
    lr_mult: 0
    decay_mult: 0
  }
  param {
    lr_mult: 0
    decay_mult: 0
  }
  param {
    lr_mult: 0
    decay_mult: 0
  }
}
layer {
  name: "Scale16"
  type: "Scale"
  bottom: "Convolution16"
  top: "Convolution16"
  scale_param {
    bias_term: true
  }
}
layer {
  name: "penlu14"
  type: "PENLU"
  bottom: "Convolution16"
  top: "Convolution16"
  param {
    lr_mult: 2
    decay_mult: 0
  }
  param {
    lr_mult: 2
    decay_mult: 0
  }
  param {
    lr_mult: 0
    decay_mult: 0
  }
  penlu_param {
    alpha_filler {
      type: "constant"
      value: 2
    }
    beta_filler {
      type: "constant"
      value: 1
    }
    eta_filler {
      type: "constant"
      value: 1
    }
  }
}
layer {
  name: "Convolution17"
  type: "Convolution"
  bottom: "Convolution16"
  top: "Convolution17"
  param {
    lr_mult: 1
    decay_mult: 1
  }
  param {
    lr_mult: 2
    decay_mult: 0
  }
  convolution_param {
    num_output: 64
    pad: 1
    kernel_size: 3
    stride: 1
    weight_filler {
      type: "gaussian"
      std: 0.059
    }
    bias_filler {
      type: "constant"
      value: 0
    }
  }
}
layer {
  name: "BatchNorm17"
  type: "BatchNorm"
  bottom: "Convolution17"
  top: "Convolution17"
  param {
    lr_mult: 0
    decay_mult: 0
  }
  param {
    lr_mult: 0
    decay_mult: 0
  }
  param {
    lr_mult: 0
    decay_mult: 0
  }
}
layer {
  name: "Scale17"
  type: "Scale"
  bottom: "Convolution17"
  top: "Convolution17"
  scale_param {
    bias_term: true
  }
}
layer {
  name: "Eltwise7"
  type: "Eltwise"
  bottom: "Convolution15"
  bottom: "Convolution17"
  top: "Eltwise7"
  eltwise_param {
    operation: SUM
  }
}
layer {
  name: "penlu15"
  type: "PENLU"
  bottom: "Eltwise7"
  top: "Eltwise7"
  param {
    lr_mult: 2
    decay_mult: 0
  }
  param {
    lr_mult: 2
    decay_mult: 0
  }
  param {
    lr_mult: 0
    decay_mult: 0
  }
  penlu_param {
    alpha_filler {
      type: "constant"
      value: 2
    }
    beta_filler {
      type: "constant"
      value: 1
    }
    eta_filler {
      type: "constant"
      value: 1
    }
  }
}
layer {
  name: "Convolution18"
  type: "Convolution"
  bottom: "Eltwise7"
  top: "Convolution18"
  param {
    lr_mult: 1
    decay_mult: 1
  }
  param {
    lr_mult: 2
    decay_mult: 0
  }
  convolution_param {
    num_output: 64
    pad: 1
    kernel_size: 3
    stride: 1
    weight_filler {
      type: "gaussian"
      std: 0.059
    }
    bias_filler {
      type: "constant"
      value: 0
    }
  }
}
layer {
  name: "BatchNorm18"
  type: "BatchNorm"
  bottom: "Convolution18"
  top: "Convolution18"
  param {
    lr_mult: 0
    decay_mult: 0
  }
  param {
    lr_mult: 0
    decay_mult: 0
  }
  param {
    lr_mult: 0
    decay_mult: 0
  }
}
layer {
  name: "Scale18"
  type: "Scale"
  bottom: "Convolution18"
  top: "Convolution18"
  scale_param {
    bias_term: true
  }
}
layer {
  name: "penlu16"
  type: "PENLU"
  bottom: "Convolution18"
  top: "Convolution18"
  param {
    lr_mult: 2
    decay_mult: 0
  }
  param {
    lr_mult: 2
    decay_mult: 0
  }
  param {
    lr_mult: 0
    decay_mult: 0
  }
  penlu_param {
    alpha_filler {
      type: "constant"
      value: 2
    }
    beta_filler {
      type: "constant"
      value: 1
    }
    eta_filler {
      type: "constant"
      value: 1
    }
  }
}
layer {
  name: "Convolution19"
  type: "Convolution"
  bottom: "Convolution18"
  top: "Convolution19"
  param {
    lr_mult: 1
    decay_mult: 1
  }
  param {
    lr_mult: 2
    decay_mult: 0
  }
  convolution_param {
    num_output: 64
    pad: 1
    kernel_size: 3
    stride: 1
    weight_filler {
      type: "gaussian"
      std: 0.059
    }
    bias_filler {
      type: "constant"
      value: 0
    }
  }
}
layer {
  name: "BatchNorm19"
  type: "BatchNorm"
  bottom: "Convolution19"
  top: "Convolution19"
  param {
    lr_mult: 0
    decay_mult: 0
  }
  param {
    lr_mult: 0
    decay_mult: 0
  }
  param {
    lr_mult: 0
    decay_mult: 0
  }
}
layer {
  name: "Scale19"
  type: "Scale"
  bottom: "Convolution19"
  top: "Convolution19"
  scale_param {
    bias_term: true
  }
}
layer {
  name: "Eltwise8"
  type: "Eltwise"
  bottom: "Eltwise7"
  bottom: "Convolution19"
  top: "Eltwise8"
  eltwise_param {
    operation: SUM
  }
}
layer {
  name: "penlu17"
  type: "PENLU"
  bottom: "Eltwise8"
  top: "Eltwise8"
  param {
    lr_mult: 2
    decay_mult: 0
  }
  param {
    lr_mult: 2
    decay_mult: 0
  }
  param {
    lr_mult: 0
    decay_mult: 0
  }
  penlu_param {
    alpha_filler {
      type: "constant"
      value: 2
    }
    beta_filler {
      type: "constant"
      value: 1
    }
    eta_filler {
      type: "constant"
      value: 1
    }
  }
}
layer {
  name: "Convolution20"
  type: "Convolution"
  bottom: "Eltwise8"
  top: "Convolution20"
  param {
    lr_mult: 1
    decay_mult: 1
  }
  param {
    lr_mult: 2
    decay_mult: 0
  }
  convolution_param {
    num_output: 64
    pad: 1
    kernel_size: 3
    stride: 1
    weight_filler {
      type: "gaussian"
      std: 0.059
    }
    bias_filler {
      type: "constant"
      value: 0
    }
  }
}
layer {
  name: "BatchNorm20"
  type: "BatchNorm"
  bottom: "Convolution20"
  top: "Convolution20"
  param {
    lr_mult: 0
    decay_mult: 0
  }
  param {
    lr_mult: 0
    decay_mult: 0
  }
  param {
    lr_mult: 0
    decay_mult: 0
  }
}
layer {
  name: "Scale20"
  type: "Scale"
  bottom: "Convolution20"
  top: "Convolution20"
  scale_param {
    bias_term: true
  }
}
layer {
  name: "penlu18"
  type: "PENLU"
  bottom: "Convolution20"
  top: "Convolution20"
  param {
    lr_mult: 2
    decay_mult: 0
  }
  param {
    lr_mult: 2
    decay_mult: 0
  }
  param {
    lr_mult: 0
    decay_mult: 0
  }
  penlu_param {
    alpha_filler {
      type: "constant"
      value: 2
    }
    beta_filler {
      type: "constant"
      value: 1
    }
    eta_filler {
      type: "constant"
      value: 1
    }
  }
}
layer {
  name: "Convolution21"
  type: "Convolution"
  bottom: "Convolution20"
  top: "Convolution21"
  param {
    lr_mult: 1
    decay_mult: 1
  }
  param {
    lr_mult: 2
    decay_mult: 0
  }
  convolution_param {
    num_output: 64
    pad: 1
    kernel_size: 3
    stride: 1
    weight_filler {
      type: "gaussian"
      std: 0.059
    }
    bias_filler {
      type: "constant"
      value: 0
    }
  }
}
layer {
  name: "BatchNorm21"
  type: "BatchNorm"
  bottom: "Convolution21"
  top: "Convolution21"
  param {
    lr_mult: 0
    decay_mult: 0
  }
  param {
    lr_mult: 0
    decay_mult: 0
  }
  param {
    lr_mult: 0
    decay_mult: 0
  }
}
layer {
  name: "Scale21"
  type: "Scale"
  bottom: "Convolution21"
  top: "Convolution21"
  scale_param {
    bias_term: true
  }
}
layer {
  name: "Eltwise9"
  type: "Eltwise"
  bottom: "Eltwise8"
  bottom: "Convolution21"
  top: "Eltwise9"
  eltwise_param {
    operation: SUM
  }
}
layer {
  name: "penlu19"
  type: "PENLU"
  bottom: "Eltwise9"
  top: "Eltwise9"
  param {
    lr_mult: 2
    decay_mult: 0
  }
  param {
    lr_mult: 2
    decay_mult: 0
  }
  param {
    lr_mult: 0
    decay_mult: 0
  }
  penlu_param {
    alpha_filler {
      type: "constant"
      value: 2
    }
    beta_filler {
      type: "constant"
      value: 1
    }
    eta_filler {
      type: "constant"
      value: 1
    }
  }
}
layer {
  name: "Pooling1"
  type: "Pooling"
  bottom: "Eltwise9"
  top: "Pooling1"
  pooling_param {
    pool: AVE
    global_pooling: true
  }
}
layer {
  name: "InnerProduct1"
  type: "InnerProduct"
  bottom: "Pooling1"
  top: "InnerProduct1"
  param {
    lr_mult: 1
    decay_mult: 1
  }
  param {
    lr_mult: 2
    decay_mult: 1
  }
  inner_product_param {
    num_output: 10
    weight_filler {
      type: "gaussian"
      std: 0.01
    }
    bias_filler {
      type: "constant"
      value: 0
    }
  }
}
layer {
  name: "SoftmaxWithLoss1"
  type: "SoftmaxWithLoss"
  bottom: "InnerProduct1"
  bottom: "Data2"
  top: "SoftmaxWithLoss1"
}
layer {
  name: "Accuracy1"
  type: "Accuracy"
  bottom: "InnerProduct1"
  bottom: "Data2"
  top: "Accuracy1"
  include {
    phase: TEST
  }
}
I0930 20:11:10.646750  4070 layer_factory.hpp:77] Creating layer Data1
I0930 20:11:10.646791  4070 db_lmdb.cpp:35] Opened lmdb /home/x306/caffe/xn/PENLU/data/cifar10/cifar10_test_lmdb
I0930 20:11:10.646801  4070 net.cpp:84] Creating Layer Data1
I0930 20:11:10.646806  4070 net.cpp:380] Data1 -> Data1
I0930 20:11:10.646811  4070 net.cpp:380] Data1 -> Data2
I0930 20:11:10.646816  4070 data_transformer.cpp:25] Loading mean file from: /home/x306/caffe/xn/PENLU/data/cifar10/mean.binaryproto
I0930 20:11:10.646929  4070 data_layer.cpp:45] output data size: 100,3,32,32
I0930 20:11:10.650840  4070 net.cpp:122] Setting up Data1
I0930 20:11:10.650858  4070 net.cpp:129] Top shape: 100 3 32 32 (307200)
I0930 20:11:10.650862  4070 net.cpp:129] Top shape: 100 (100)
I0930 20:11:10.650864  4070 net.cpp:137] Memory required for data: 1229200
I0930 20:11:10.650869  4070 layer_factory.hpp:77] Creating layer Data2_Data1_1_split
I0930 20:11:10.650878  4070 net.cpp:84] Creating Layer Data2_Data1_1_split
I0930 20:11:10.650882  4070 net.cpp:406] Data2_Data1_1_split <- Data2
I0930 20:11:10.650887  4070 net.cpp:380] Data2_Data1_1_split -> Data2_Data1_1_split_0
I0930 20:11:10.650893  4070 net.cpp:380] Data2_Data1_1_split -> Data2_Data1_1_split_1
I0930 20:11:10.650933  4070 net.cpp:122] Setting up Data2_Data1_1_split
I0930 20:11:10.650938  4070 net.cpp:129] Top shape: 100 (100)
I0930 20:11:10.650954  4070 net.cpp:129] Top shape: 100 (100)
I0930 20:11:10.650955  4070 net.cpp:137] Memory required for data: 1230000
I0930 20:11:10.650957  4070 layer_factory.hpp:77] Creating layer Convolution1
I0930 20:11:10.650967  4070 net.cpp:84] Creating Layer Convolution1
I0930 20:11:10.650969  4070 net.cpp:406] Convolution1 <- Data1
I0930 20:11:10.650974  4070 net.cpp:380] Convolution1 -> Convolution1
I0930 20:11:10.652081  4070 net.cpp:122] Setting up Convolution1
I0930 20:11:10.652089  4070 net.cpp:129] Top shape: 100 16 32 32 (1638400)
I0930 20:11:10.652092  4070 net.cpp:137] Memory required for data: 7783600
I0930 20:11:10.652101  4070 layer_factory.hpp:77] Creating layer BatchNorm1
I0930 20:11:10.652106  4070 net.cpp:84] Creating Layer BatchNorm1
I0930 20:11:10.652107  4070 net.cpp:406] BatchNorm1 <- Convolution1
I0930 20:11:10.652112  4070 net.cpp:367] BatchNorm1 -> Convolution1 (in-place)
I0930 20:11:10.652246  4070 net.cpp:122] Setting up BatchNorm1
I0930 20:11:10.652251  4070 net.cpp:129] Top shape: 100 16 32 32 (1638400)
I0930 20:11:10.652256  4070 net.cpp:137] Memory required for data: 14337200
I0930 20:11:10.652263  4070 layer_factory.hpp:77] Creating layer Scale1
I0930 20:11:10.652268  4070 net.cpp:84] Creating Layer Scale1
I0930 20:11:10.652271  4070 net.cpp:406] Scale1 <- Convolution1
I0930 20:11:10.652274  4070 net.cpp:367] Scale1 -> Convolution1 (in-place)
I0930 20:11:10.652304  4070 layer_factory.hpp:77] Creating layer Scale1
I0930 20:11:10.652379  4070 net.cpp:122] Setting up Scale1
I0930 20:11:10.652384  4070 net.cpp:129] Top shape: 100 16 32 32 (1638400)
I0930 20:11:10.652385  4070 net.cpp:137] Memory required for data: 20890800
I0930 20:11:10.652391  4070 layer_factory.hpp:77] Creating layer penlu1
I0930 20:11:10.652396  4070 net.cpp:84] Creating Layer penlu1
I0930 20:11:10.652400  4070 net.cpp:406] penlu1 <- Convolution1
I0930 20:11:10.652406  4070 net.cpp:367] penlu1 -> Convolution1 (in-place)
I0930 20:11:10.652525  4070 net.cpp:122] Setting up penlu1
I0930 20:11:10.652530  4070 net.cpp:129] Top shape: 100 16 32 32 (1638400)
I0930 20:11:10.652534  4070 net.cpp:137] Memory required for data: 27444400
I0930 20:11:10.652539  4070 layer_factory.hpp:77] Creating layer Convolution1_penlu1_0_split
I0930 20:11:10.652544  4070 net.cpp:84] Creating Layer Convolution1_penlu1_0_split
I0930 20:11:10.652547  4070 net.cpp:406] Convolution1_penlu1_0_split <- Convolution1
I0930 20:11:10.652550  4070 net.cpp:380] Convolution1_penlu1_0_split -> Convolution1_penlu1_0_split_0
I0930 20:11:10.652554  4070 net.cpp:380] Convolution1_penlu1_0_split -> Convolution1_penlu1_0_split_1
I0930 20:11:10.652580  4070 net.cpp:122] Setting up Convolution1_penlu1_0_split
I0930 20:11:10.652585  4070 net.cpp:129] Top shape: 100 16 32 32 (1638400)
I0930 20:11:10.652587  4070 net.cpp:129] Top shape: 100 16 32 32 (1638400)
I0930 20:11:10.652592  4070 net.cpp:137] Memory required for data: 40551600
I0930 20:11:10.652595  4070 layer_factory.hpp:77] Creating layer Convolution2
I0930 20:11:10.652601  4070 net.cpp:84] Creating Layer Convolution2
I0930 20:11:10.652602  4070 net.cpp:406] Convolution2 <- Convolution1_penlu1_0_split_0
I0930 20:11:10.652607  4070 net.cpp:380] Convolution2 -> Convolution2
I0930 20:11:10.653190  4070 net.cpp:122] Setting up Convolution2
I0930 20:11:10.653198  4070 net.cpp:129] Top shape: 100 16 32 32 (1638400)
I0930 20:11:10.653201  4070 net.cpp:137] Memory required for data: 47105200
I0930 20:11:10.653205  4070 layer_factory.hpp:77] Creating layer BatchNorm2
I0930 20:11:10.653211  4070 net.cpp:84] Creating Layer BatchNorm2
I0930 20:11:10.653214  4070 net.cpp:406] BatchNorm2 <- Convolution2
I0930 20:11:10.653218  4070 net.cpp:367] BatchNorm2 -> Convolution2 (in-place)
I0930 20:11:10.653465  4070 net.cpp:122] Setting up BatchNorm2
I0930 20:11:10.653471  4070 net.cpp:129] Top shape: 100 16 32 32 (1638400)
I0930 20:11:10.653475  4070 net.cpp:137] Memory required for data: 53658800
I0930 20:11:10.653479  4070 layer_factory.hpp:77] Creating layer Scale2
I0930 20:11:10.653483  4070 net.cpp:84] Creating Layer Scale2
I0930 20:11:10.653496  4070 net.cpp:406] Scale2 <- Convolution2
I0930 20:11:10.653503  4070 net.cpp:367] Scale2 -> Convolution2 (in-place)
I0930 20:11:10.653532  4070 layer_factory.hpp:77] Creating layer Scale2
I0930 20:11:10.653604  4070 net.cpp:122] Setting up Scale2
I0930 20:11:10.653612  4070 net.cpp:129] Top shape: 100 16 32 32 (1638400)
I0930 20:11:10.653614  4070 net.cpp:137] Memory required for data: 60212400
I0930 20:11:10.653620  4070 layer_factory.hpp:77] Creating layer penlu2
I0930 20:11:10.653626  4070 net.cpp:84] Creating Layer penlu2
I0930 20:11:10.653630  4070 net.cpp:406] penlu2 <- Convolution2
I0930 20:11:10.653633  4070 net.cpp:367] penlu2 -> Convolution2 (in-place)
I0930 20:11:10.653782  4070 net.cpp:122] Setting up penlu2
I0930 20:11:10.653787  4070 net.cpp:129] Top shape: 100 16 32 32 (1638400)
I0930 20:11:10.653790  4070 net.cpp:137] Memory required for data: 66766000
I0930 20:11:10.653795  4070 layer_factory.hpp:77] Creating layer Convolution3
I0930 20:11:10.653810  4070 net.cpp:84] Creating Layer Convolution3
I0930 20:11:10.653812  4070 net.cpp:406] Convolution3 <- Convolution2
I0930 20:11:10.653817  4070 net.cpp:380] Convolution3 -> Convolution3
I0930 20:11:10.654745  4070 net.cpp:122] Setting up Convolution3
I0930 20:11:10.654754  4070 net.cpp:129] Top shape: 100 16 32 32 (1638400)
I0930 20:11:10.654757  4070 net.cpp:137] Memory required for data: 73319600
I0930 20:11:10.654762  4070 layer_factory.hpp:77] Creating layer BatchNorm3
I0930 20:11:10.654767  4070 net.cpp:84] Creating Layer BatchNorm3
I0930 20:11:10.654769  4070 net.cpp:406] BatchNorm3 <- Convolution3
I0930 20:11:10.654773  4070 net.cpp:367] BatchNorm3 -> Convolution3 (in-place)
I0930 20:11:10.654994  4070 net.cpp:122] Setting up BatchNorm3
I0930 20:11:10.654999  4070 net.cpp:129] Top shape: 100 16 32 32 (1638400)
I0930 20:11:10.655001  4070 net.cpp:137] Memory required for data: 79873200
I0930 20:11:10.655006  4070 layer_factory.hpp:77] Creating layer Scale3
I0930 20:11:10.655010  4070 net.cpp:84] Creating Layer Scale3
I0930 20:11:10.655014  4070 net.cpp:406] Scale3 <- Convolution3
I0930 20:11:10.655016  4070 net.cpp:367] Scale3 -> Convolution3 (in-place)
I0930 20:11:10.655043  4070 layer_factory.hpp:77] Creating layer Scale3
I0930 20:11:10.655117  4070 net.cpp:122] Setting up Scale3
I0930 20:11:10.655123  4070 net.cpp:129] Top shape: 100 16 32 32 (1638400)
I0930 20:11:10.655125  4070 net.cpp:137] Memory required for data: 86426800
I0930 20:11:10.655129  4070 layer_factory.hpp:77] Creating layer Eltwise1
I0930 20:11:10.655135  4070 net.cpp:84] Creating Layer Eltwise1
I0930 20:11:10.655138  4070 net.cpp:406] Eltwise1 <- Convolution1_penlu1_0_split_1
I0930 20:11:10.655140  4070 net.cpp:406] Eltwise1 <- Convolution3
I0930 20:11:10.655144  4070 net.cpp:380] Eltwise1 -> Eltwise1
I0930 20:11:10.655163  4070 net.cpp:122] Setting up Eltwise1
I0930 20:11:10.655165  4070 net.cpp:129] Top shape: 100 16 32 32 (1638400)
I0930 20:11:10.655169  4070 net.cpp:137] Memory required for data: 92980400
I0930 20:11:10.655174  4070 layer_factory.hpp:77] Creating layer penlu3
I0930 20:11:10.655179  4070 net.cpp:84] Creating Layer penlu3
I0930 20:11:10.655182  4070 net.cpp:406] penlu3 <- Eltwise1
I0930 20:11:10.655186  4070 net.cpp:367] penlu3 -> Eltwise1 (in-place)
I0930 20:11:10.655300  4070 net.cpp:122] Setting up penlu3
I0930 20:11:10.655305  4070 net.cpp:129] Top shape: 100 16 32 32 (1638400)
I0930 20:11:10.655308  4070 net.cpp:137] Memory required for data: 99534000
I0930 20:11:10.655311  4070 layer_factory.hpp:77] Creating layer Eltwise1_penlu3_0_split
I0930 20:11:10.655316  4070 net.cpp:84] Creating Layer Eltwise1_penlu3_0_split
I0930 20:11:10.655318  4070 net.cpp:406] Eltwise1_penlu3_0_split <- Eltwise1
I0930 20:11:10.655323  4070 net.cpp:380] Eltwise1_penlu3_0_split -> Eltwise1_penlu3_0_split_0
I0930 20:11:10.655326  4070 net.cpp:380] Eltwise1_penlu3_0_split -> Eltwise1_penlu3_0_split_1
I0930 20:11:10.655349  4070 net.cpp:122] Setting up Eltwise1_penlu3_0_split
I0930 20:11:10.655352  4070 net.cpp:129] Top shape: 100 16 32 32 (1638400)
I0930 20:11:10.655364  4070 net.cpp:129] Top shape: 100 16 32 32 (1638400)
I0930 20:11:10.655366  4070 net.cpp:137] Memory required for data: 112641200
I0930 20:11:10.655371  4070 layer_factory.hpp:77] Creating layer Convolution4
I0930 20:11:10.655378  4070 net.cpp:84] Creating Layer Convolution4
I0930 20:11:10.655383  4070 net.cpp:406] Convolution4 <- Eltwise1_penlu3_0_split_0
I0930 20:11:10.655387  4070 net.cpp:380] Convolution4 -> Convolution4
I0930 20:11:10.656421  4070 net.cpp:122] Setting up Convolution4
I0930 20:11:10.656431  4070 net.cpp:129] Top shape: 100 16 32 32 (1638400)
I0930 20:11:10.656435  4070 net.cpp:137] Memory required for data: 119194800
I0930 20:11:10.656440  4070 layer_factory.hpp:77] Creating layer BatchNorm4
I0930 20:11:10.656445  4070 net.cpp:84] Creating Layer BatchNorm4
I0930 20:11:10.656446  4070 net.cpp:406] BatchNorm4 <- Convolution4
I0930 20:11:10.656450  4070 net.cpp:367] BatchNorm4 -> Convolution4 (in-place)
I0930 20:11:10.656584  4070 net.cpp:122] Setting up BatchNorm4
I0930 20:11:10.656589  4070 net.cpp:129] Top shape: 100 16 32 32 (1638400)
I0930 20:11:10.656590  4070 net.cpp:137] Memory required for data: 125748400
I0930 20:11:10.656599  4070 layer_factory.hpp:77] Creating layer Scale4
I0930 20:11:10.656602  4070 net.cpp:84] Creating Layer Scale4
I0930 20:11:10.656605  4070 net.cpp:406] Scale4 <- Convolution4
I0930 20:11:10.656608  4070 net.cpp:367] Scale4 -> Convolution4 (in-place)
I0930 20:11:10.656638  4070 layer_factory.hpp:77] Creating layer Scale4
I0930 20:11:10.656714  4070 net.cpp:122] Setting up Scale4
I0930 20:11:10.656719  4070 net.cpp:129] Top shape: 100 16 32 32 (1638400)
I0930 20:11:10.656721  4070 net.cpp:137] Memory required for data: 132302000
I0930 20:11:10.656725  4070 layer_factory.hpp:77] Creating layer penlu4
I0930 20:11:10.656730  4070 net.cpp:84] Creating Layer penlu4
I0930 20:11:10.656733  4070 net.cpp:406] penlu4 <- Convolution4
I0930 20:11:10.656738  4070 net.cpp:367] penlu4 -> Convolution4 (in-place)
I0930 20:11:10.656855  4070 net.cpp:122] Setting up penlu4
I0930 20:11:10.656860  4070 net.cpp:129] Top shape: 100 16 32 32 (1638400)
I0930 20:11:10.656862  4070 net.cpp:137] Memory required for data: 138855600
I0930 20:11:10.656867  4070 layer_factory.hpp:77] Creating layer Convolution5
I0930 20:11:10.656873  4070 net.cpp:84] Creating Layer Convolution5
I0930 20:11:10.656875  4070 net.cpp:406] Convolution5 <- Convolution4
I0930 20:11:10.656879  4070 net.cpp:380] Convolution5 -> Convolution5
I0930 20:11:10.658118  4070 net.cpp:122] Setting up Convolution5
I0930 20:11:10.658126  4070 net.cpp:129] Top shape: 100 16 32 32 (1638400)
I0930 20:11:10.658129  4070 net.cpp:137] Memory required for data: 145409200
I0930 20:11:10.658133  4070 layer_factory.hpp:77] Creating layer BatchNorm5
I0930 20:11:10.658139  4070 net.cpp:84] Creating Layer BatchNorm5
I0930 20:11:10.658141  4070 net.cpp:406] BatchNorm5 <- Convolution5
I0930 20:11:10.658145  4070 net.cpp:367] BatchNorm5 -> Convolution5 (in-place)
I0930 20:11:10.658280  4070 net.cpp:122] Setting up BatchNorm5
I0930 20:11:10.658285  4070 net.cpp:129] Top shape: 100 16 32 32 (1638400)
I0930 20:11:10.658288  4070 net.cpp:137] Memory required for data: 151962800
I0930 20:11:10.658293  4070 layer_factory.hpp:77] Creating layer Scale5
I0930 20:11:10.658296  4070 net.cpp:84] Creating Layer Scale5
I0930 20:11:10.658309  4070 net.cpp:406] Scale5 <- Convolution5
I0930 20:11:10.658313  4070 net.cpp:367] Scale5 -> Convolution5 (in-place)
I0930 20:11:10.658341  4070 layer_factory.hpp:77] Creating layer Scale5
I0930 20:11:10.658440  4070 net.cpp:122] Setting up Scale5
I0930 20:11:10.658444  4070 net.cpp:129] Top shape: 100 16 32 32 (1638400)
I0930 20:11:10.658447  4070 net.cpp:137] Memory required for data: 158516400
I0930 20:11:10.658450  4070 layer_factory.hpp:77] Creating layer Eltwise2
I0930 20:11:10.658455  4070 net.cpp:84] Creating Layer Eltwise2
I0930 20:11:10.658458  4070 net.cpp:406] Eltwise2 <- Eltwise1_penlu3_0_split_1
I0930 20:11:10.658462  4070 net.cpp:406] Eltwise2 <- Convolution5
I0930 20:11:10.658464  4070 net.cpp:380] Eltwise2 -> Eltwise2
I0930 20:11:10.658489  4070 net.cpp:122] Setting up Eltwise2
I0930 20:11:10.658494  4070 net.cpp:129] Top shape: 100 16 32 32 (1638400)
I0930 20:11:10.658496  4070 net.cpp:137] Memory required for data: 165070000
I0930 20:11:10.658499  4070 layer_factory.hpp:77] Creating layer penlu5
I0930 20:11:10.658504  4070 net.cpp:84] Creating Layer penlu5
I0930 20:11:10.658506  4070 net.cpp:406] penlu5 <- Eltwise2
I0930 20:11:10.658510  4070 net.cpp:367] penlu5 -> Eltwise2 (in-place)
I0930 20:11:10.658638  4070 net.cpp:122] Setting up penlu5
I0930 20:11:10.658644  4070 net.cpp:129] Top shape: 100 16 32 32 (1638400)
I0930 20:11:10.658646  4070 net.cpp:137] Memory required for data: 171623600
I0930 20:11:10.658650  4070 layer_factory.hpp:77] Creating layer Eltwise2_penlu5_0_split
I0930 20:11:10.658654  4070 net.cpp:84] Creating Layer Eltwise2_penlu5_0_split
I0930 20:11:10.658656  4070 net.cpp:406] Eltwise2_penlu5_0_split <- Eltwise2
I0930 20:11:10.658660  4070 net.cpp:380] Eltwise2_penlu5_0_split -> Eltwise2_penlu5_0_split_0
I0930 20:11:10.658664  4070 net.cpp:380] Eltwise2_penlu5_0_split -> Eltwise2_penlu5_0_split_1
I0930 20:11:10.658690  4070 net.cpp:122] Setting up Eltwise2_penlu5_0_split
I0930 20:11:10.658694  4070 net.cpp:129] Top shape: 100 16 32 32 (1638400)
I0930 20:11:10.658699  4070 net.cpp:129] Top shape: 100 16 32 32 (1638400)
I0930 20:11:10.658700  4070 net.cpp:137] Memory required for data: 184730800
I0930 20:11:10.658702  4070 layer_factory.hpp:77] Creating layer Convolution6
I0930 20:11:10.658709  4070 net.cpp:84] Creating Layer Convolution6
I0930 20:11:10.658711  4070 net.cpp:406] Convolution6 <- Eltwise2_penlu5_0_split_0
I0930 20:11:10.658715  4070 net.cpp:380] Convolution6 -> Convolution6
I0930 20:11:10.659693  4070 net.cpp:122] Setting up Convolution6
I0930 20:11:10.659701  4070 net.cpp:129] Top shape: 100 16 32 32 (1638400)
I0930 20:11:10.659703  4070 net.cpp:137] Memory required for data: 191284400
I0930 20:11:10.659708  4070 layer_factory.hpp:77] Creating layer BatchNorm6
I0930 20:11:10.659713  4070 net.cpp:84] Creating Layer BatchNorm6
I0930 20:11:10.659715  4070 net.cpp:406] BatchNorm6 <- Convolution6
I0930 20:11:10.659719  4070 net.cpp:367] BatchNorm6 -> Convolution6 (in-place)
I0930 20:11:10.659858  4070 net.cpp:122] Setting up BatchNorm6
I0930 20:11:10.659863  4070 net.cpp:129] Top shape: 100 16 32 32 (1638400)
I0930 20:11:10.659865  4070 net.cpp:137] Memory required for data: 197838000
I0930 20:11:10.659870  4070 layer_factory.hpp:77] Creating layer Scale6
I0930 20:11:10.659874  4070 net.cpp:84] Creating Layer Scale6
I0930 20:11:10.659876  4070 net.cpp:406] Scale6 <- Convolution6
I0930 20:11:10.659880  4070 net.cpp:367] Scale6 -> Convolution6 (in-place)
I0930 20:11:10.659909  4070 layer_factory.hpp:77] Creating layer Scale6
I0930 20:11:10.659986  4070 net.cpp:122] Setting up Scale6
I0930 20:11:10.659991  4070 net.cpp:129] Top shape: 100 16 32 32 (1638400)
I0930 20:11:10.659993  4070 net.cpp:137] Memory required for data: 204391600
I0930 20:11:10.659996  4070 layer_factory.hpp:77] Creating layer penlu6
I0930 20:11:10.660002  4070 net.cpp:84] Creating Layer penlu6
I0930 20:11:10.660004  4070 net.cpp:406] penlu6 <- Convolution6
I0930 20:11:10.660008  4070 net.cpp:367] penlu6 -> Convolution6 (in-place)
I0930 20:11:10.660127  4070 net.cpp:122] Setting up penlu6
I0930 20:11:10.660132  4070 net.cpp:129] Top shape: 100 16 32 32 (1638400)
I0930 20:11:10.660135  4070 net.cpp:137] Memory required for data: 210945200
I0930 20:11:10.660147  4070 layer_factory.hpp:77] Creating layer Convolution7
I0930 20:11:10.660156  4070 net.cpp:84] Creating Layer Convolution7
I0930 20:11:10.660157  4070 net.cpp:406] Convolution7 <- Convolution6
I0930 20:11:10.660161  4070 net.cpp:380] Convolution7 -> Convolution7
I0930 20:11:10.661113  4070 net.cpp:122] Setting up Convolution7
I0930 20:11:10.661121  4070 net.cpp:129] Top shape: 100 16 32 32 (1638400)
I0930 20:11:10.661124  4070 net.cpp:137] Memory required for data: 217498800
I0930 20:11:10.661128  4070 layer_factory.hpp:77] Creating layer BatchNorm7
I0930 20:11:10.661136  4070 net.cpp:84] Creating Layer BatchNorm7
I0930 20:11:10.661147  4070 net.cpp:406] BatchNorm7 <- Convolution7
I0930 20:11:10.661152  4070 net.cpp:367] BatchNorm7 -> Convolution7 (in-place)
I0930 20:11:10.661288  4070 net.cpp:122] Setting up BatchNorm7
I0930 20:11:10.661293  4070 net.cpp:129] Top shape: 100 16 32 32 (1638400)
I0930 20:11:10.661295  4070 net.cpp:137] Memory required for data: 224052400
I0930 20:11:10.661306  4070 layer_factory.hpp:77] Creating layer Scale7
I0930 20:11:10.661311  4070 net.cpp:84] Creating Layer Scale7
I0930 20:11:10.661314  4070 net.cpp:406] Scale7 <- Convolution7
I0930 20:11:10.661316  4070 net.cpp:367] Scale7 -> Convolution7 (in-place)
I0930 20:11:10.661345  4070 layer_factory.hpp:77] Creating layer Scale7
I0930 20:11:10.661422  4070 net.cpp:122] Setting up Scale7
I0930 20:11:10.661427  4070 net.cpp:129] Top shape: 100 16 32 32 (1638400)
I0930 20:11:10.661429  4070 net.cpp:137] Memory required for data: 230606000
I0930 20:11:10.661433  4070 layer_factory.hpp:77] Creating layer Eltwise3
I0930 20:11:10.661437  4070 net.cpp:84] Creating Layer Eltwise3
I0930 20:11:10.661439  4070 net.cpp:406] Eltwise3 <- Eltwise2_penlu5_0_split_1
I0930 20:11:10.661442  4070 net.cpp:406] Eltwise3 <- Convolution7
I0930 20:11:10.661447  4070 net.cpp:380] Eltwise3 -> Eltwise3
I0930 20:11:10.661461  4070 net.cpp:122] Setting up Eltwise3
I0930 20:11:10.661465  4070 net.cpp:129] Top shape: 100 16 32 32 (1638400)
I0930 20:11:10.661468  4070 net.cpp:137] Memory required for data: 237159600
I0930 20:11:10.661469  4070 layer_factory.hpp:77] Creating layer penlu7
I0930 20:11:10.661474  4070 net.cpp:84] Creating Layer penlu7
I0930 20:11:10.661476  4070 net.cpp:406] penlu7 <- Eltwise3
I0930 20:11:10.661480  4070 net.cpp:367] penlu7 -> Eltwise3 (in-place)
I0930 20:11:10.661597  4070 net.cpp:122] Setting up penlu7
I0930 20:11:10.661602  4070 net.cpp:129] Top shape: 100 16 32 32 (1638400)
I0930 20:11:10.661604  4070 net.cpp:137] Memory required for data: 243713200
I0930 20:11:10.661608  4070 layer_factory.hpp:77] Creating layer Eltwise3_penlu7_0_split
I0930 20:11:10.661612  4070 net.cpp:84] Creating Layer Eltwise3_penlu7_0_split
I0930 20:11:10.661614  4070 net.cpp:406] Eltwise3_penlu7_0_split <- Eltwise3
I0930 20:11:10.661617  4070 net.cpp:380] Eltwise3_penlu7_0_split -> Eltwise3_penlu7_0_split_0
I0930 20:11:10.661622  4070 net.cpp:380] Eltwise3_penlu7_0_split -> Eltwise3_penlu7_0_split_1
I0930 20:11:10.661644  4070 net.cpp:122] Setting up Eltwise3_penlu7_0_split
I0930 20:11:10.661648  4070 net.cpp:129] Top shape: 100 16 32 32 (1638400)
I0930 20:11:10.661651  4070 net.cpp:129] Top shape: 100 16 32 32 (1638400)
I0930 20:11:10.661653  4070 net.cpp:137] Memory required for data: 256820400
I0930 20:11:10.661655  4070 layer_factory.hpp:77] Creating layer Convolution8
I0930 20:11:10.661661  4070 net.cpp:84] Creating Layer Convolution8
I0930 20:11:10.661664  4070 net.cpp:406] Convolution8 <- Eltwise3_penlu7_0_split_0
I0930 20:11:10.661669  4070 net.cpp:380] Convolution8 -> Convolution8
I0930 20:11:10.662550  4070 net.cpp:122] Setting up Convolution8
I0930 20:11:10.662559  4070 net.cpp:129] Top shape: 100 32 16 16 (819200)
I0930 20:11:10.662561  4070 net.cpp:137] Memory required for data: 260097200
I0930 20:11:10.662566  4070 layer_factory.hpp:77] Creating layer BatchNorm8
I0930 20:11:10.662571  4070 net.cpp:84] Creating Layer BatchNorm8
I0930 20:11:10.662573  4070 net.cpp:406] BatchNorm8 <- Convolution8
I0930 20:11:10.662577  4070 net.cpp:367] BatchNorm8 -> Convolution8 (in-place)
I0930 20:11:10.662708  4070 net.cpp:122] Setting up BatchNorm8
I0930 20:11:10.662713  4070 net.cpp:129] Top shape: 100 32 16 16 (819200)
I0930 20:11:10.662714  4070 net.cpp:137] Memory required for data: 263374000
I0930 20:11:10.662719  4070 layer_factory.hpp:77] Creating layer Scale8
I0930 20:11:10.662724  4070 net.cpp:84] Creating Layer Scale8
I0930 20:11:10.665652  4070 net.cpp:406] Scale8 <- Convolution8
I0930 20:11:10.665659  4070 net.cpp:367] Scale8 -> Convolution8 (in-place)
I0930 20:11:10.665706  4070 layer_factory.hpp:77] Creating layer Scale8
I0930 20:11:10.665834  4070 net.cpp:122] Setting up Scale8
I0930 20:11:10.665843  4070 net.cpp:129] Top shape: 100 32 16 16 (819200)
I0930 20:11:10.665848  4070 net.cpp:137] Memory required for data: 266650800
I0930 20:11:10.665855  4070 layer_factory.hpp:77] Creating layer Convolution9
I0930 20:11:10.665865  4070 net.cpp:84] Creating Layer Convolution9
I0930 20:11:10.665870  4070 net.cpp:406] Convolution9 <- Eltwise3_penlu7_0_split_1
I0930 20:11:10.665879  4070 net.cpp:380] Convolution9 -> Convolution9
I0930 20:11:10.667366  4070 net.cpp:122] Setting up Convolution9
I0930 20:11:10.667378  4070 net.cpp:129] Top shape: 100 32 16 16 (819200)
I0930 20:11:10.667383  4070 net.cpp:137] Memory required for data: 269927600
I0930 20:11:10.667390  4070 layer_factory.hpp:77] Creating layer BatchNorm9
I0930 20:11:10.667397  4070 net.cpp:84] Creating Layer BatchNorm9
I0930 20:11:10.667402  4070 net.cpp:406] BatchNorm9 <- Convolution9
I0930 20:11:10.667407  4070 net.cpp:367] BatchNorm9 -> Convolution9 (in-place)
I0930 20:11:10.667598  4070 net.cpp:122] Setting up BatchNorm9
I0930 20:11:10.667608  4070 net.cpp:129] Top shape: 100 32 16 16 (819200)
I0930 20:11:10.667611  4070 net.cpp:137] Memory required for data: 273204400
I0930 20:11:10.667619  4070 layer_factory.hpp:77] Creating layer Scale9
I0930 20:11:10.667628  4070 net.cpp:84] Creating Layer Scale9
I0930 20:11:10.667631  4070 net.cpp:406] Scale9 <- Convolution9
I0930 20:11:10.667637  4070 net.cpp:367] Scale9 -> Convolution9 (in-place)
I0930 20:11:10.667683  4070 layer_factory.hpp:77] Creating layer Scale9
I0930 20:11:10.667801  4070 net.cpp:122] Setting up Scale9
I0930 20:11:10.667810  4070 net.cpp:129] Top shape: 100 32 16 16 (819200)
I0930 20:11:10.667814  4070 net.cpp:137] Memory required for data: 276481200
I0930 20:11:10.667820  4070 layer_factory.hpp:77] Creating layer penlu8
I0930 20:11:10.667830  4070 net.cpp:84] Creating Layer penlu8
I0930 20:11:10.667835  4070 net.cpp:406] penlu8 <- Convolution9
I0930 20:11:10.667842  4070 net.cpp:367] penlu8 -> Convolution9 (in-place)
I0930 20:11:10.667990  4070 net.cpp:122] Setting up penlu8
I0930 20:11:10.667999  4070 net.cpp:129] Top shape: 100 32 16 16 (819200)
I0930 20:11:10.668001  4070 net.cpp:137] Memory required for data: 279758000
I0930 20:11:10.668009  4070 layer_factory.hpp:77] Creating layer Convolution10
I0930 20:11:10.668017  4070 net.cpp:84] Creating Layer Convolution10
I0930 20:11:10.668022  4070 net.cpp:406] Convolution10 <- Convolution9
I0930 20:11:10.668028  4070 net.cpp:380] Convolution10 -> Convolution10
I0930 20:11:10.669657  4070 net.cpp:122] Setting up Convolution10
I0930 20:11:10.669667  4070 net.cpp:129] Top shape: 100 32 16 16 (819200)
I0930 20:11:10.669670  4070 net.cpp:137] Memory required for data: 283034800
I0930 20:11:10.669674  4070 layer_factory.hpp:77] Creating layer BatchNorm10
I0930 20:11:10.669679  4070 net.cpp:84] Creating Layer BatchNorm10
I0930 20:11:10.669682  4070 net.cpp:406] BatchNorm10 <- Convolution10
I0930 20:11:10.669687  4070 net.cpp:367] BatchNorm10 -> Convolution10 (in-place)
I0930 20:11:10.669823  4070 net.cpp:122] Setting up BatchNorm10
I0930 20:11:10.669827  4070 net.cpp:129] Top shape: 100 32 16 16 (819200)
I0930 20:11:10.669829  4070 net.cpp:137] Memory required for data: 286311600
I0930 20:11:10.669834  4070 layer_factory.hpp:77] Creating layer Scale10
I0930 20:11:10.669838  4070 net.cpp:84] Creating Layer Scale10
I0930 20:11:10.669842  4070 net.cpp:406] Scale10 <- Convolution10
I0930 20:11:10.669844  4070 net.cpp:367] Scale10 -> Convolution10 (in-place)
I0930 20:11:10.669872  4070 layer_factory.hpp:77] Creating layer Scale10
I0930 20:11:10.669950  4070 net.cpp:122] Setting up Scale10
I0930 20:11:10.669955  4070 net.cpp:129] Top shape: 100 32 16 16 (819200)
I0930 20:11:10.669957  4070 net.cpp:137] Memory required for data: 289588400
I0930 20:11:10.669961  4070 layer_factory.hpp:77] Creating layer Eltwise4
I0930 20:11:10.669966  4070 net.cpp:84] Creating Layer Eltwise4
I0930 20:11:10.669968  4070 net.cpp:406] Eltwise4 <- Convolution8
I0930 20:11:10.669971  4070 net.cpp:406] Eltwise4 <- Convolution10
I0930 20:11:10.669982  4070 net.cpp:380] Eltwise4 -> Eltwise4
I0930 20:11:10.669997  4070 net.cpp:122] Setting up Eltwise4
I0930 20:11:10.670001  4070 net.cpp:129] Top shape: 100 32 16 16 (819200)
I0930 20:11:10.670003  4070 net.cpp:137] Memory required for data: 292865200
I0930 20:11:10.670006  4070 layer_factory.hpp:77] Creating layer penlu9
I0930 20:11:10.670011  4070 net.cpp:84] Creating Layer penlu9
I0930 20:11:10.670013  4070 net.cpp:406] penlu9 <- Eltwise4
I0930 20:11:10.670017  4070 net.cpp:367] penlu9 -> Eltwise4 (in-place)
I0930 20:11:10.670133  4070 net.cpp:122] Setting up penlu9
I0930 20:11:10.670138  4070 net.cpp:129] Top shape: 100 32 16 16 (819200)
I0930 20:11:10.670140  4070 net.cpp:137] Memory required for data: 296142000
I0930 20:11:10.670145  4070 layer_factory.hpp:77] Creating layer Eltwise4_penlu9_0_split
I0930 20:11:10.670148  4070 net.cpp:84] Creating Layer Eltwise4_penlu9_0_split
I0930 20:11:10.670151  4070 net.cpp:406] Eltwise4_penlu9_0_split <- Eltwise4
I0930 20:11:10.670156  4070 net.cpp:380] Eltwise4_penlu9_0_split -> Eltwise4_penlu9_0_split_0
I0930 20:11:10.670159  4070 net.cpp:380] Eltwise4_penlu9_0_split -> Eltwise4_penlu9_0_split_1
I0930 20:11:10.670182  4070 net.cpp:122] Setting up Eltwise4_penlu9_0_split
I0930 20:11:10.670186  4070 net.cpp:129] Top shape: 100 32 16 16 (819200)
I0930 20:11:10.670189  4070 net.cpp:129] Top shape: 100 32 16 16 (819200)
I0930 20:11:10.670192  4070 net.cpp:137] Memory required for data: 302695600
I0930 20:11:10.670193  4070 layer_factory.hpp:77] Creating layer Convolution11
I0930 20:11:10.670200  4070 net.cpp:84] Creating Layer Convolution11
I0930 20:11:10.670202  4070 net.cpp:406] Convolution11 <- Eltwise4_penlu9_0_split_0
I0930 20:11:10.670207  4070 net.cpp:380] Convolution11 -> Convolution11
I0930 20:11:10.671295  4070 net.cpp:122] Setting up Convolution11
I0930 20:11:10.671304  4070 net.cpp:129] Top shape: 100 32 16 16 (819200)
I0930 20:11:10.671308  4070 net.cpp:137] Memory required for data: 305972400
I0930 20:11:10.671311  4070 layer_factory.hpp:77] Creating layer BatchNorm11
I0930 20:11:10.671316  4070 net.cpp:84] Creating Layer BatchNorm11
I0930 20:11:10.671319  4070 net.cpp:406] BatchNorm11 <- Convolution11
I0930 20:11:10.671324  4070 net.cpp:367] BatchNorm11 -> Convolution11 (in-place)
I0930 20:11:10.671460  4070 net.cpp:122] Setting up BatchNorm11
I0930 20:11:10.671465  4070 net.cpp:129] Top shape: 100 32 16 16 (819200)
I0930 20:11:10.671468  4070 net.cpp:137] Memory required for data: 309249200
I0930 20:11:10.671471  4070 layer_factory.hpp:77] Creating layer Scale11
I0930 20:11:10.671476  4070 net.cpp:84] Creating Layer Scale11
I0930 20:11:10.671479  4070 net.cpp:406] Scale11 <- Convolution11
I0930 20:11:10.671483  4070 net.cpp:367] Scale11 -> Convolution11 (in-place)
I0930 20:11:10.671510  4070 layer_factory.hpp:77] Creating layer Scale11
I0930 20:11:10.671588  4070 net.cpp:122] Setting up Scale11
I0930 20:11:10.671593  4070 net.cpp:129] Top shape: 100 32 16 16 (819200)
I0930 20:11:10.671596  4070 net.cpp:137] Memory required for data: 312526000
I0930 20:11:10.671599  4070 layer_factory.hpp:77] Creating layer penlu10
I0930 20:11:10.671604  4070 net.cpp:84] Creating Layer penlu10
I0930 20:11:10.671607  4070 net.cpp:406] penlu10 <- Convolution11
I0930 20:11:10.671612  4070 net.cpp:367] penlu10 -> Convolution11 (in-place)
I0930 20:11:10.671721  4070 net.cpp:122] Setting up penlu10
I0930 20:11:10.671726  4070 net.cpp:129] Top shape: 100 32 16 16 (819200)
I0930 20:11:10.671728  4070 net.cpp:137] Memory required for data: 315802800
I0930 20:11:10.671732  4070 layer_factory.hpp:77] Creating layer Convolution12
I0930 20:11:10.671739  4070 net.cpp:84] Creating Layer Convolution12
I0930 20:11:10.671741  4070 net.cpp:406] Convolution12 <- Convolution11
I0930 20:11:10.671746  4070 net.cpp:380] Convolution12 -> Convolution12
I0930 20:11:10.672492  4070 net.cpp:122] Setting up Convolution12
I0930 20:11:10.672500  4070 net.cpp:129] Top shape: 100 32 16 16 (819200)
I0930 20:11:10.672503  4070 net.cpp:137] Memory required for data: 319079600
I0930 20:11:10.672514  4070 layer_factory.hpp:77] Creating layer BatchNorm12
I0930 20:11:10.672519  4070 net.cpp:84] Creating Layer BatchNorm12
I0930 20:11:10.672523  4070 net.cpp:406] BatchNorm12 <- Convolution12
I0930 20:11:10.672525  4070 net.cpp:367] BatchNorm12 -> Convolution12 (in-place)
I0930 20:11:10.672664  4070 net.cpp:122] Setting up BatchNorm12
I0930 20:11:10.672669  4070 net.cpp:129] Top shape: 100 32 16 16 (819200)
I0930 20:11:10.672672  4070 net.cpp:137] Memory required for data: 322356400
I0930 20:11:10.672677  4070 layer_factory.hpp:77] Creating layer Scale12
I0930 20:11:10.672680  4070 net.cpp:84] Creating Layer Scale12
I0930 20:11:10.672683  4070 net.cpp:406] Scale12 <- Convolution12
I0930 20:11:10.672685  4070 net.cpp:367] Scale12 -> Convolution12 (in-place)
I0930 20:11:10.672713  4070 layer_factory.hpp:77] Creating layer Scale12
I0930 20:11:10.672791  4070 net.cpp:122] Setting up Scale12
I0930 20:11:10.672797  4070 net.cpp:129] Top shape: 100 32 16 16 (819200)
I0930 20:11:10.672799  4070 net.cpp:137] Memory required for data: 325633200
I0930 20:11:10.672803  4070 layer_factory.hpp:77] Creating layer Eltwise5
I0930 20:11:10.672807  4070 net.cpp:84] Creating Layer Eltwise5
I0930 20:11:10.672809  4070 net.cpp:406] Eltwise5 <- Eltwise4_penlu9_0_split_1
I0930 20:11:10.672812  4070 net.cpp:406] Eltwise5 <- Convolution12
I0930 20:11:10.672816  4070 net.cpp:380] Eltwise5 -> Eltwise5
I0930 20:11:10.672829  4070 net.cpp:122] Setting up Eltwise5
I0930 20:11:10.672833  4070 net.cpp:129] Top shape: 100 32 16 16 (819200)
I0930 20:11:10.672835  4070 net.cpp:137] Memory required for data: 328910000
I0930 20:11:10.672838  4070 layer_factory.hpp:77] Creating layer penlu11
I0930 20:11:10.672843  4070 net.cpp:84] Creating Layer penlu11
I0930 20:11:10.672845  4070 net.cpp:406] penlu11 <- Eltwise5
I0930 20:11:10.672849  4070 net.cpp:367] penlu11 -> Eltwise5 (in-place)
I0930 20:11:10.672965  4070 net.cpp:122] Setting up penlu11
I0930 20:11:10.672969  4070 net.cpp:129] Top shape: 100 32 16 16 (819200)
I0930 20:11:10.672971  4070 net.cpp:137] Memory required for data: 332186800
I0930 20:11:10.672976  4070 layer_factory.hpp:77] Creating layer Eltwise5_penlu11_0_split
I0930 20:11:10.672979  4070 net.cpp:84] Creating Layer Eltwise5_penlu11_0_split
I0930 20:11:10.672981  4070 net.cpp:406] Eltwise5_penlu11_0_split <- Eltwise5
I0930 20:11:10.672986  4070 net.cpp:380] Eltwise5_penlu11_0_split -> Eltwise5_penlu11_0_split_0
I0930 20:11:10.672991  4070 net.cpp:380] Eltwise5_penlu11_0_split -> Eltwise5_penlu11_0_split_1
I0930 20:11:10.673017  4070 net.cpp:122] Setting up Eltwise5_penlu11_0_split
I0930 20:11:10.673020  4070 net.cpp:129] Top shape: 100 32 16 16 (819200)
I0930 20:11:10.673024  4070 net.cpp:129] Top shape: 100 32 16 16 (819200)
I0930 20:11:10.673027  4070 net.cpp:137] Memory required for data: 338740400
I0930 20:11:10.673028  4070 layer_factory.hpp:77] Creating layer Convolution13
I0930 20:11:10.673034  4070 net.cpp:84] Creating Layer Convolution13
I0930 20:11:10.673036  4070 net.cpp:406] Convolution13 <- Eltwise5_penlu11_0_split_0
I0930 20:11:10.673043  4070 net.cpp:380] Convolution13 -> Convolution13
I0930 20:11:10.674116  4070 net.cpp:122] Setting up Convolution13
I0930 20:11:10.674125  4070 net.cpp:129] Top shape: 100 32 16 16 (819200)
I0930 20:11:10.674129  4070 net.cpp:137] Memory required for data: 342017200
I0930 20:11:10.674132  4070 layer_factory.hpp:77] Creating layer BatchNorm13
I0930 20:11:10.674137  4070 net.cpp:84] Creating Layer BatchNorm13
I0930 20:11:10.674140  4070 net.cpp:406] BatchNorm13 <- Convolution13
I0930 20:11:10.674144  4070 net.cpp:367] BatchNorm13 -> Convolution13 (in-place)
I0930 20:11:10.674281  4070 net.cpp:122] Setting up BatchNorm13
I0930 20:11:10.674286  4070 net.cpp:129] Top shape: 100 32 16 16 (819200)
I0930 20:11:10.674288  4070 net.cpp:137] Memory required for data: 345294000
I0930 20:11:10.674293  4070 layer_factory.hpp:77] Creating layer Scale13
I0930 20:11:10.674298  4070 net.cpp:84] Creating Layer Scale13
I0930 20:11:10.674300  4070 net.cpp:406] Scale13 <- Convolution13
I0930 20:11:10.674309  4070 net.cpp:367] Scale13 -> Convolution13 (in-place)
I0930 20:11:10.674340  4070 layer_factory.hpp:77] Creating layer Scale13
I0930 20:11:10.674418  4070 net.cpp:122] Setting up Scale13
I0930 20:11:10.674423  4070 net.cpp:129] Top shape: 100 32 16 16 (819200)
I0930 20:11:10.674425  4070 net.cpp:137] Memory required for data: 348570800
I0930 20:11:10.674429  4070 layer_factory.hpp:77] Creating layer penlu12
I0930 20:11:10.674434  4070 net.cpp:84] Creating Layer penlu12
I0930 20:11:10.674437  4070 net.cpp:406] penlu12 <- Convolution13
I0930 20:11:10.674440  4070 net.cpp:367] penlu12 -> Convolution13 (in-place)
I0930 20:11:10.674561  4070 net.cpp:122] Setting up penlu12
I0930 20:11:10.674567  4070 net.cpp:129] Top shape: 100 32 16 16 (819200)
I0930 20:11:10.674569  4070 net.cpp:137] Memory required for data: 351847600
I0930 20:11:10.674574  4070 layer_factory.hpp:77] Creating layer Convolution14
I0930 20:11:10.674584  4070 net.cpp:84] Creating Layer Convolution14
I0930 20:11:10.674587  4070 net.cpp:406] Convolution14 <- Convolution13
I0930 20:11:10.674590  4070 net.cpp:380] Convolution14 -> Convolution14
I0930 20:11:10.675698  4070 net.cpp:122] Setting up Convolution14
I0930 20:11:10.675706  4070 net.cpp:129] Top shape: 100 32 16 16 (819200)
I0930 20:11:10.675709  4070 net.cpp:137] Memory required for data: 355124400
I0930 20:11:10.675726  4070 layer_factory.hpp:77] Creating layer BatchNorm14
I0930 20:11:10.675741  4070 net.cpp:84] Creating Layer BatchNorm14
I0930 20:11:10.675745  4070 net.cpp:406] BatchNorm14 <- Convolution14
I0930 20:11:10.675748  4070 net.cpp:367] BatchNorm14 -> Convolution14 (in-place)
I0930 20:11:10.675895  4070 net.cpp:122] Setting up BatchNorm14
I0930 20:11:10.675900  4070 net.cpp:129] Top shape: 100 32 16 16 (819200)
I0930 20:11:10.675904  4070 net.cpp:137] Memory required for data: 358401200
I0930 20:11:10.675907  4070 layer_factory.hpp:77] Creating layer Scale14
I0930 20:11:10.675911  4070 net.cpp:84] Creating Layer Scale14
I0930 20:11:10.675915  4070 net.cpp:406] Scale14 <- Convolution14
I0930 20:11:10.675917  4070 net.cpp:367] Scale14 -> Convolution14 (in-place)
I0930 20:11:10.675945  4070 layer_factory.hpp:77] Creating layer Scale14
I0930 20:11:10.676024  4070 net.cpp:122] Setting up Scale14
I0930 20:11:10.676029  4070 net.cpp:129] Top shape: 100 32 16 16 (819200)
I0930 20:11:10.676033  4070 net.cpp:137] Memory required for data: 361678000
I0930 20:11:10.676036  4070 layer_factory.hpp:77] Creating layer Eltwise6
I0930 20:11:10.676039  4070 net.cpp:84] Creating Layer Eltwise6
I0930 20:11:10.676043  4070 net.cpp:406] Eltwise6 <- Eltwise5_penlu11_0_split_1
I0930 20:11:10.676045  4070 net.cpp:406] Eltwise6 <- Convolution14
I0930 20:11:10.676048  4070 net.cpp:380] Eltwise6 -> Eltwise6
I0930 20:11:10.676062  4070 net.cpp:122] Setting up Eltwise6
I0930 20:11:10.676065  4070 net.cpp:129] Top shape: 100 32 16 16 (819200)
I0930 20:11:10.676069  4070 net.cpp:137] Memory required for data: 364954800
I0930 20:11:10.676070  4070 layer_factory.hpp:77] Creating layer penlu13
I0930 20:11:10.676075  4070 net.cpp:84] Creating Layer penlu13
I0930 20:11:10.676077  4070 net.cpp:406] penlu13 <- Eltwise6
I0930 20:11:10.676081  4070 net.cpp:367] penlu13 -> Eltwise6 (in-place)
I0930 20:11:10.676198  4070 net.cpp:122] Setting up penlu13
I0930 20:11:10.676203  4070 net.cpp:129] Top shape: 100 32 16 16 (819200)
I0930 20:11:10.676204  4070 net.cpp:137] Memory required for data: 368231600
I0930 20:11:10.676208  4070 layer_factory.hpp:77] Creating layer Eltwise6_penlu13_0_split
I0930 20:11:10.676213  4070 net.cpp:84] Creating Layer Eltwise6_penlu13_0_split
I0930 20:11:10.676214  4070 net.cpp:406] Eltwise6_penlu13_0_split <- Eltwise6
I0930 20:11:10.676218  4070 net.cpp:380] Eltwise6_penlu13_0_split -> Eltwise6_penlu13_0_split_0
I0930 20:11:10.696760  4070 net.cpp:380] Eltwise6_penlu13_0_split -> Eltwise6_penlu13_0_split_1
I0930 20:11:10.696854  4070 net.cpp:122] Setting up Eltwise6_penlu13_0_split
I0930 20:11:10.696866  4070 net.cpp:129] Top shape: 100 32 16 16 (819200)
I0930 20:11:10.696871  4070 net.cpp:129] Top shape: 100 32 16 16 (819200)
I0930 20:11:10.696887  4070 net.cpp:137] Memory required for data: 374785200
I0930 20:11:10.696893  4070 layer_factory.hpp:77] Creating layer Convolution15
I0930 20:11:10.696909  4070 net.cpp:84] Creating Layer Convolution15
I0930 20:11:10.696915  4070 net.cpp:406] Convolution15 <- Eltwise6_penlu13_0_split_0
I0930 20:11:10.696924  4070 net.cpp:380] Convolution15 -> Convolution15
I0930 20:11:10.698467  4070 net.cpp:122] Setting up Convolution15
I0930 20:11:10.698479  4070 net.cpp:129] Top shape: 100 64 8 8 (409600)
I0930 20:11:10.698483  4070 net.cpp:137] Memory required for data: 376423600
I0930 20:11:10.698493  4070 layer_factory.hpp:77] Creating layer BatchNorm15
I0930 20:11:10.698499  4070 net.cpp:84] Creating Layer BatchNorm15
I0930 20:11:10.698503  4070 net.cpp:406] BatchNorm15 <- Convolution15
I0930 20:11:10.698509  4070 net.cpp:367] BatchNorm15 -> Convolution15 (in-place)
I0930 20:11:10.698738  4070 net.cpp:122] Setting up BatchNorm15
I0930 20:11:10.698748  4070 net.cpp:129] Top shape: 100 64 8 8 (409600)
I0930 20:11:10.698753  4070 net.cpp:137] Memory required for data: 378062000
I0930 20:11:10.698763  4070 layer_factory.hpp:77] Creating layer Scale15
I0930 20:11:10.698770  4070 net.cpp:84] Creating Layer Scale15
I0930 20:11:10.698774  4070 net.cpp:406] Scale15 <- Convolution15
I0930 20:11:10.698781  4070 net.cpp:367] Scale15 -> Convolution15 (in-place)
I0930 20:11:10.698832  4070 layer_factory.hpp:77] Creating layer Scale15
I0930 20:11:10.698959  4070 net.cpp:122] Setting up Scale15
I0930 20:11:10.698978  4070 net.cpp:129] Top shape: 100 64 8 8 (409600)
I0930 20:11:10.698982  4070 net.cpp:137] Memory required for data: 379700400
I0930 20:11:10.698987  4070 layer_factory.hpp:77] Creating layer Convolution16
I0930 20:11:10.698994  4070 net.cpp:84] Creating Layer Convolution16
I0930 20:11:10.698997  4070 net.cpp:406] Convolution16 <- Eltwise6_penlu13_0_split_1
I0930 20:11:10.699002  4070 net.cpp:380] Convolution16 -> Convolution16
I0930 20:11:10.700767  4070 net.cpp:122] Setting up Convolution16
I0930 20:11:10.700778  4070 net.cpp:129] Top shape: 100 64 8 8 (409600)
I0930 20:11:10.700780  4070 net.cpp:137] Memory required for data: 381338800
I0930 20:11:10.700785  4070 layer_factory.hpp:77] Creating layer BatchNorm16
I0930 20:11:10.700789  4070 net.cpp:84] Creating Layer BatchNorm16
I0930 20:11:10.700793  4070 net.cpp:406] BatchNorm16 <- Convolution16
I0930 20:11:10.700798  4070 net.cpp:367] BatchNorm16 -> Convolution16 (in-place)
I0930 20:11:10.700938  4070 net.cpp:122] Setting up BatchNorm16
I0930 20:11:10.700942  4070 net.cpp:129] Top shape: 100 64 8 8 (409600)
I0930 20:11:10.700945  4070 net.cpp:137] Memory required for data: 382977200
I0930 20:11:10.700949  4070 layer_factory.hpp:77] Creating layer Scale16
I0930 20:11:10.700953  4070 net.cpp:84] Creating Layer Scale16
I0930 20:11:10.700956  4070 net.cpp:406] Scale16 <- Convolution16
I0930 20:11:10.700960  4070 net.cpp:367] Scale16 -> Convolution16 (in-place)
I0930 20:11:10.700989  4070 layer_factory.hpp:77] Creating layer Scale16
I0930 20:11:10.701069  4070 net.cpp:122] Setting up Scale16
I0930 20:11:10.701074  4070 net.cpp:129] Top shape: 100 64 8 8 (409600)
I0930 20:11:10.701076  4070 net.cpp:137] Memory required for data: 384615600
I0930 20:11:10.701081  4070 layer_factory.hpp:77] Creating layer penlu14
I0930 20:11:10.701086  4070 net.cpp:84] Creating Layer penlu14
I0930 20:11:10.701089  4070 net.cpp:406] penlu14 <- Convolution16
I0930 20:11:10.701093  4070 net.cpp:367] penlu14 -> Convolution16 (in-place)
I0930 20:11:10.701207  4070 net.cpp:122] Setting up penlu14
I0930 20:11:10.701213  4070 net.cpp:129] Top shape: 100 64 8 8 (409600)
I0930 20:11:10.701215  4070 net.cpp:137] Memory required for data: 386254000
I0930 20:11:10.701220  4070 layer_factory.hpp:77] Creating layer Convolution17
I0930 20:11:10.701226  4070 net.cpp:84] Creating Layer Convolution17
I0930 20:11:10.701230  4070 net.cpp:406] Convolution17 <- Convolution16
I0930 20:11:10.701233  4070 net.cpp:380] Convolution17 -> Convolution17
I0930 20:11:10.702949  4070 net.cpp:122] Setting up Convolution17
I0930 20:11:10.702965  4070 net.cpp:129] Top shape: 100 64 8 8 (409600)
I0930 20:11:10.702968  4070 net.cpp:137] Memory required for data: 387892400
I0930 20:11:10.702972  4070 layer_factory.hpp:77] Creating layer BatchNorm17
I0930 20:11:10.702978  4070 net.cpp:84] Creating Layer BatchNorm17
I0930 20:11:10.702980  4070 net.cpp:406] BatchNorm17 <- Convolution17
I0930 20:11:10.702985  4070 net.cpp:367] BatchNorm17 -> Convolution17 (in-place)
I0930 20:11:10.703130  4070 net.cpp:122] Setting up BatchNorm17
I0930 20:11:10.703135  4070 net.cpp:129] Top shape: 100 64 8 8 (409600)
I0930 20:11:10.703136  4070 net.cpp:137] Memory required for data: 389530800
I0930 20:11:10.703141  4070 layer_factory.hpp:77] Creating layer Scale17
I0930 20:11:10.703145  4070 net.cpp:84] Creating Layer Scale17
I0930 20:11:10.703147  4070 net.cpp:406] Scale17 <- Convolution17
I0930 20:11:10.703150  4070 net.cpp:367] Scale17 -> Convolution17 (in-place)
I0930 20:11:10.703181  4070 layer_factory.hpp:77] Creating layer Scale17
I0930 20:11:10.703263  4070 net.cpp:122] Setting up Scale17
I0930 20:11:10.703269  4070 net.cpp:129] Top shape: 100 64 8 8 (409600)
I0930 20:11:10.703270  4070 net.cpp:137] Memory required for data: 391169200
I0930 20:11:10.703274  4070 layer_factory.hpp:77] Creating layer Eltwise7
I0930 20:11:10.703279  4070 net.cpp:84] Creating Layer Eltwise7
I0930 20:11:10.703281  4070 net.cpp:406] Eltwise7 <- Convolution15
I0930 20:11:10.703284  4070 net.cpp:406] Eltwise7 <- Convolution17
I0930 20:11:10.703287  4070 net.cpp:380] Eltwise7 -> Eltwise7
I0930 20:11:10.703307  4070 net.cpp:122] Setting up Eltwise7
I0930 20:11:10.703311  4070 net.cpp:129] Top shape: 100 64 8 8 (409600)
I0930 20:11:10.703313  4070 net.cpp:137] Memory required for data: 392807600
I0930 20:11:10.703315  4070 layer_factory.hpp:77] Creating layer penlu15
I0930 20:11:10.703321  4070 net.cpp:84] Creating Layer penlu15
I0930 20:11:10.703323  4070 net.cpp:406] penlu15 <- Eltwise7
I0930 20:11:10.703328  4070 net.cpp:367] penlu15 -> Eltwise7 (in-place)
I0930 20:11:10.703441  4070 net.cpp:122] Setting up penlu15
I0930 20:11:10.703446  4070 net.cpp:129] Top shape: 100 64 8 8 (409600)
I0930 20:11:10.703449  4070 net.cpp:137] Memory required for data: 394446000
I0930 20:11:10.703452  4070 layer_factory.hpp:77] Creating layer Eltwise7_penlu15_0_split
I0930 20:11:10.703456  4070 net.cpp:84] Creating Layer Eltwise7_penlu15_0_split
I0930 20:11:10.703459  4070 net.cpp:406] Eltwise7_penlu15_0_split <- Eltwise7
I0930 20:11:10.703462  4070 net.cpp:380] Eltwise7_penlu15_0_split -> Eltwise7_penlu15_0_split_0
I0930 20:11:10.703466  4070 net.cpp:380] Eltwise7_penlu15_0_split -> Eltwise7_penlu15_0_split_1
I0930 20:11:10.703490  4070 net.cpp:122] Setting up Eltwise7_penlu15_0_split
I0930 20:11:10.703495  4070 net.cpp:129] Top shape: 100 64 8 8 (409600)
I0930 20:11:10.703497  4070 net.cpp:129] Top shape: 100 64 8 8 (409600)
I0930 20:11:10.703500  4070 net.cpp:137] Memory required for data: 397722800
I0930 20:11:10.703502  4070 layer_factory.hpp:77] Creating layer Convolution18
I0930 20:11:10.703507  4070 net.cpp:84] Creating Layer Convolution18
I0930 20:11:10.703510  4070 net.cpp:406] Convolution18 <- Eltwise7_penlu15_0_split_0
I0930 20:11:10.703514  4070 net.cpp:380] Convolution18 -> Convolution18
I0930 20:11:10.705206  4070 net.cpp:122] Setting up Convolution18
I0930 20:11:10.705215  4070 net.cpp:129] Top shape: 100 64 8 8 (409600)
I0930 20:11:10.705217  4070 net.cpp:137] Memory required for data: 399361200
I0930 20:11:10.705222  4070 layer_factory.hpp:77] Creating layer BatchNorm18
I0930 20:11:10.705227  4070 net.cpp:84] Creating Layer BatchNorm18
I0930 20:11:10.705230  4070 net.cpp:406] BatchNorm18 <- Convolution18
I0930 20:11:10.705235  4070 net.cpp:367] BatchNorm18 -> Convolution18 (in-place)
I0930 20:11:10.705376  4070 net.cpp:122] Setting up BatchNorm18
I0930 20:11:10.705380  4070 net.cpp:129] Top shape: 100 64 8 8 (409600)
I0930 20:11:10.705384  4070 net.cpp:137] Memory required for data: 400999600
I0930 20:11:10.705387  4070 layer_factory.hpp:77] Creating layer Scale18
I0930 20:11:10.705399  4070 net.cpp:84] Creating Layer Scale18
I0930 20:11:10.705401  4070 net.cpp:406] Scale18 <- Convolution18
I0930 20:11:10.705404  4070 net.cpp:367] Scale18 -> Convolution18 (in-place)
I0930 20:11:10.705435  4070 layer_factory.hpp:77] Creating layer Scale18
I0930 20:11:10.705516  4070 net.cpp:122] Setting up Scale18
I0930 20:11:10.705521  4070 net.cpp:129] Top shape: 100 64 8 8 (409600)
I0930 20:11:10.705523  4070 net.cpp:137] Memory required for data: 402638000
I0930 20:11:10.705528  4070 layer_factory.hpp:77] Creating layer penlu16
I0930 20:11:10.705533  4070 net.cpp:84] Creating Layer penlu16
I0930 20:11:10.705534  4070 net.cpp:406] penlu16 <- Convolution18
I0930 20:11:10.705539  4070 net.cpp:367] penlu16 -> Convolution18 (in-place)
I0930 20:11:10.705653  4070 net.cpp:122] Setting up penlu16
I0930 20:11:10.705658  4070 net.cpp:129] Top shape: 100 64 8 8 (409600)
I0930 20:11:10.705660  4070 net.cpp:137] Memory required for data: 404276400
I0930 20:11:10.705665  4070 layer_factory.hpp:77] Creating layer Convolution19
I0930 20:11:10.705672  4070 net.cpp:84] Creating Layer Convolution19
I0930 20:11:10.705674  4070 net.cpp:406] Convolution19 <- Convolution18
I0930 20:11:10.705678  4070 net.cpp:380] Convolution19 -> Convolution19
I0930 20:11:10.707394  4070 net.cpp:122] Setting up Convolution19
I0930 20:11:10.707403  4070 net.cpp:129] Top shape: 100 64 8 8 (409600)
I0930 20:11:10.707406  4070 net.cpp:137] Memory required for data: 405914800
I0930 20:11:10.707412  4070 layer_factory.hpp:77] Creating layer BatchNorm19
I0930 20:11:10.707417  4070 net.cpp:84] Creating Layer BatchNorm19
I0930 20:11:10.707419  4070 net.cpp:406] BatchNorm19 <- Convolution19
I0930 20:11:10.707422  4070 net.cpp:367] BatchNorm19 -> Convolution19 (in-place)
I0930 20:11:10.707566  4070 net.cpp:122] Setting up BatchNorm19
I0930 20:11:10.707571  4070 net.cpp:129] Top shape: 100 64 8 8 (409600)
I0930 20:11:10.707573  4070 net.cpp:137] Memory required for data: 407553200
I0930 20:11:10.707577  4070 layer_factory.hpp:77] Creating layer Scale19
I0930 20:11:10.707581  4070 net.cpp:84] Creating Layer Scale19
I0930 20:11:10.707584  4070 net.cpp:406] Scale19 <- Convolution19
I0930 20:11:10.707587  4070 net.cpp:367] Scale19 -> Convolution19 (in-place)
I0930 20:11:10.707617  4070 layer_factory.hpp:77] Creating layer Scale19
I0930 20:11:10.707697  4070 net.cpp:122] Setting up Scale19
I0930 20:11:10.707702  4070 net.cpp:129] Top shape: 100 64 8 8 (409600)
I0930 20:11:10.707705  4070 net.cpp:137] Memory required for data: 409191600
I0930 20:11:10.707708  4070 layer_factory.hpp:77] Creating layer Eltwise8
I0930 20:11:10.707712  4070 net.cpp:84] Creating Layer Eltwise8
I0930 20:11:10.707715  4070 net.cpp:406] Eltwise8 <- Eltwise7_penlu15_0_split_1
I0930 20:11:10.707718  4070 net.cpp:406] Eltwise8 <- Convolution19
I0930 20:11:10.707721  4070 net.cpp:380] Eltwise8 -> Eltwise8
I0930 20:11:10.707739  4070 net.cpp:122] Setting up Eltwise8
I0930 20:11:10.707743  4070 net.cpp:129] Top shape: 100 64 8 8 (409600)
I0930 20:11:10.707746  4070 net.cpp:137] Memory required for data: 410830000
I0930 20:11:10.707747  4070 layer_factory.hpp:77] Creating layer penlu17
I0930 20:11:10.707753  4070 net.cpp:84] Creating Layer penlu17
I0930 20:11:10.707756  4070 net.cpp:406] penlu17 <- Eltwise8
I0930 20:11:10.707759  4070 net.cpp:367] penlu17 -> Eltwise8 (in-place)
I0930 20:11:10.707875  4070 net.cpp:122] Setting up penlu17
I0930 20:11:10.707878  4070 net.cpp:129] Top shape: 100 64 8 8 (409600)
I0930 20:11:10.707880  4070 net.cpp:137] Memory required for data: 412468400
I0930 20:11:10.707885  4070 layer_factory.hpp:77] Creating layer Eltwise8_penlu17_0_split
I0930 20:11:10.707890  4070 net.cpp:84] Creating Layer Eltwise8_penlu17_0_split
I0930 20:11:10.707891  4070 net.cpp:406] Eltwise8_penlu17_0_split <- Eltwise8
I0930 20:11:10.707895  4070 net.cpp:380] Eltwise8_penlu17_0_split -> Eltwise8_penlu17_0_split_0
I0930 20:11:10.707900  4070 net.cpp:380] Eltwise8_penlu17_0_split -> Eltwise8_penlu17_0_split_1
I0930 20:11:10.707923  4070 net.cpp:122] Setting up Eltwise8_penlu17_0_split
I0930 20:11:10.707933  4070 net.cpp:129] Top shape: 100 64 8 8 (409600)
I0930 20:11:10.707937  4070 net.cpp:129] Top shape: 100 64 8 8 (409600)
I0930 20:11:10.707939  4070 net.cpp:137] Memory required for data: 415745200
I0930 20:11:10.707942  4070 layer_factory.hpp:77] Creating layer Convolution20
I0930 20:11:10.707947  4070 net.cpp:84] Creating Layer Convolution20
I0930 20:11:10.707949  4070 net.cpp:406] Convolution20 <- Eltwise8_penlu17_0_split_0
I0930 20:11:10.707954  4070 net.cpp:380] Convolution20 -> Convolution20
I0930 20:11:10.710047  4070 net.cpp:122] Setting up Convolution20
I0930 20:11:10.710055  4070 net.cpp:129] Top shape: 100 64 8 8 (409600)
I0930 20:11:10.710058  4070 net.cpp:137] Memory required for data: 417383600
I0930 20:11:10.710063  4070 layer_factory.hpp:77] Creating layer BatchNorm20
I0930 20:11:10.710068  4070 net.cpp:84] Creating Layer BatchNorm20
I0930 20:11:10.710072  4070 net.cpp:406] BatchNorm20 <- Convolution20
I0930 20:11:10.710075  4070 net.cpp:367] BatchNorm20 -> Convolution20 (in-place)
I0930 20:11:10.710233  4070 net.cpp:122] Setting up BatchNorm20
I0930 20:11:10.710237  4070 net.cpp:129] Top shape: 100 64 8 8 (409600)
I0930 20:11:10.710240  4070 net.cpp:137] Memory required for data: 419022000
I0930 20:11:10.710244  4070 layer_factory.hpp:77] Creating layer Scale20
I0930 20:11:10.710248  4070 net.cpp:84] Creating Layer Scale20
I0930 20:11:10.710252  4070 net.cpp:406] Scale20 <- Convolution20
I0930 20:11:10.710256  4070 net.cpp:367] Scale20 -> Convolution20 (in-place)
I0930 20:11:10.710285  4070 layer_factory.hpp:77] Creating layer Scale20
I0930 20:11:10.710367  4070 net.cpp:122] Setting up Scale20
I0930 20:11:10.710372  4070 net.cpp:129] Top shape: 100 64 8 8 (409600)
I0930 20:11:10.710374  4070 net.cpp:137] Memory required for data: 420660400
I0930 20:11:10.710378  4070 layer_factory.hpp:77] Creating layer penlu18
I0930 20:11:10.710384  4070 net.cpp:84] Creating Layer penlu18
I0930 20:11:10.710387  4070 net.cpp:406] penlu18 <- Convolution20
I0930 20:11:10.710391  4070 net.cpp:367] penlu18 -> Convolution20 (in-place)
I0930 20:11:10.710505  4070 net.cpp:122] Setting up penlu18
I0930 20:11:10.710510  4070 net.cpp:129] Top shape: 100 64 8 8 (409600)
I0930 20:11:10.710511  4070 net.cpp:137] Memory required for data: 422298800
I0930 20:11:10.710516  4070 layer_factory.hpp:77] Creating layer Convolution21
I0930 20:11:10.710527  4070 net.cpp:84] Creating Layer Convolution21
I0930 20:11:10.710531  4070 net.cpp:406] Convolution21 <- Convolution20
I0930 20:11:10.710536  4070 net.cpp:380] Convolution21 -> Convolution21
I0930 20:11:10.712586  4070 net.cpp:122] Setting up Convolution21
I0930 20:11:10.712595  4070 net.cpp:129] Top shape: 100 64 8 8 (409600)
I0930 20:11:10.712599  4070 net.cpp:137] Memory required for data: 423937200
I0930 20:11:10.712604  4070 layer_factory.hpp:77] Creating layer BatchNorm21
I0930 20:11:10.712608  4070 net.cpp:84] Creating Layer BatchNorm21
I0930 20:11:10.712611  4070 net.cpp:406] BatchNorm21 <- Convolution21
I0930 20:11:10.712615  4070 net.cpp:367] BatchNorm21 -> Convolution21 (in-place)
I0930 20:11:10.712759  4070 net.cpp:122] Setting up BatchNorm21
I0930 20:11:10.712764  4070 net.cpp:129] Top shape: 100 64 8 8 (409600)
I0930 20:11:10.712766  4070 net.cpp:137] Memory required for data: 425575600
I0930 20:11:10.712771  4070 layer_factory.hpp:77] Creating layer Scale21
I0930 20:11:10.712774  4070 net.cpp:84] Creating Layer Scale21
I0930 20:11:10.712777  4070 net.cpp:406] Scale21 <- Convolution21
I0930 20:11:10.712780  4070 net.cpp:367] Scale21 -> Convolution21 (in-place)
I0930 20:11:10.727813  4070 layer_factory.hpp:77] Creating layer Scale21
I0930 20:11:10.727943  4070 net.cpp:122] Setting up Scale21
I0930 20:11:10.727952  4070 net.cpp:129] Top shape: 100 64 8 8 (409600)
I0930 20:11:10.727957  4070 net.cpp:137] Memory required for data: 427214000
I0930 20:11:10.727963  4070 layer_factory.hpp:77] Creating layer Eltwise9
I0930 20:11:10.727970  4070 net.cpp:84] Creating Layer Eltwise9
I0930 20:11:10.727975  4070 net.cpp:406] Eltwise9 <- Eltwise8_penlu17_0_split_1
I0930 20:11:10.727991  4070 net.cpp:406] Eltwise9 <- Convolution21
I0930 20:11:10.727999  4070 net.cpp:380] Eltwise9 -> Eltwise9
I0930 20:11:10.728026  4070 net.cpp:122] Setting up Eltwise9
I0930 20:11:10.728034  4070 net.cpp:129] Top shape: 100 64 8 8 (409600)
I0930 20:11:10.728046  4070 net.cpp:137] Memory required for data: 428852400
I0930 20:11:10.728050  4070 layer_factory.hpp:77] Creating layer penlu19
I0930 20:11:10.728060  4070 net.cpp:84] Creating Layer penlu19
I0930 20:11:10.728065  4070 net.cpp:406] penlu19 <- Eltwise9
I0930 20:11:10.728070  4070 net.cpp:367] penlu19 -> Eltwise9 (in-place)
I0930 20:11:10.728263  4070 net.cpp:122] Setting up penlu19
I0930 20:11:10.728271  4070 net.cpp:129] Top shape: 100 64 8 8 (409600)
I0930 20:11:10.728276  4070 net.cpp:137] Memory required for data: 430490800
I0930 20:11:10.728282  4070 layer_factory.hpp:77] Creating layer Pooling1
I0930 20:11:10.728291  4070 net.cpp:84] Creating Layer Pooling1
I0930 20:11:10.728294  4070 net.cpp:406] Pooling1 <- Eltwise9
I0930 20:11:10.728301  4070 net.cpp:380] Pooling1 -> Pooling1
I0930 20:11:10.728502  4070 net.cpp:122] Setting up Pooling1
I0930 20:11:10.728512  4070 net.cpp:129] Top shape: 100 64 1 1 (6400)
I0930 20:11:10.728515  4070 net.cpp:137] Memory required for data: 430516400
I0930 20:11:10.728519  4070 layer_factory.hpp:77] Creating layer InnerProduct1
I0930 20:11:10.728528  4070 net.cpp:84] Creating Layer InnerProduct1
I0930 20:11:10.728533  4070 net.cpp:406] InnerProduct1 <- Pooling1
I0930 20:11:10.728539  4070 net.cpp:380] InnerProduct1 -> InnerProduct1
I0930 20:11:10.728679  4070 net.cpp:122] Setting up InnerProduct1
I0930 20:11:10.728687  4070 net.cpp:129] Top shape: 100 10 (1000)
I0930 20:11:10.728690  4070 net.cpp:137] Memory required for data: 430520400
I0930 20:11:10.728698  4070 layer_factory.hpp:77] Creating layer InnerProduct1_InnerProduct1_0_split
I0930 20:11:10.728703  4070 net.cpp:84] Creating Layer InnerProduct1_InnerProduct1_0_split
I0930 20:11:10.728708  4070 net.cpp:406] InnerProduct1_InnerProduct1_0_split <- InnerProduct1
I0930 20:11:10.728714  4070 net.cpp:380] InnerProduct1_InnerProduct1_0_split -> InnerProduct1_InnerProduct1_0_split_0
I0930 20:11:10.728721  4070 net.cpp:380] InnerProduct1_InnerProduct1_0_split -> InnerProduct1_InnerProduct1_0_split_1
I0930 20:11:10.728760  4070 net.cpp:122] Setting up InnerProduct1_InnerProduct1_0_split
I0930 20:11:10.728767  4070 net.cpp:129] Top shape: 100 10 (1000)
I0930 20:11:10.728772  4070 net.cpp:129] Top shape: 100 10 (1000)
I0930 20:11:10.728775  4070 net.cpp:137] Memory required for data: 430528400
I0930 20:11:10.728780  4070 layer_factory.hpp:77] Creating layer SoftmaxWithLoss1
I0930 20:11:10.728786  4070 net.cpp:84] Creating Layer SoftmaxWithLoss1
I0930 20:11:10.728790  4070 net.cpp:406] SoftmaxWithLoss1 <- InnerProduct1_InnerProduct1_0_split_0
I0930 20:11:10.728796  4070 net.cpp:406] SoftmaxWithLoss1 <- Data2_Data1_1_split_0
…
