…
I1001 10:43:05.956735  5182 net.cpp:294] The NetState phase (0) differed from the phase (1) specified by a rule in layer Accuracy1
I1001 10:43:05.957214  5182 net.cpp:51] Initializing net from parameters: 
name: "resnet_cifar10"
state {
  phase: TRAIN
  level: 0
  stage: ""
}
layer {
  name: "Data1"
  type: "Data"
  top: "Data1"
  top: "Data2"
  include {
    phase: TRAIN
  }
  transform_param {
    mirror: true
    crop_size: 28
    mean_file: "/home/x306/caffe/xn/PENLU/data/cifar10/mean.binaryproto"
  }
  data_param {
    source: "/home/x306/caffe/xn/PENLU/data/cifar10/cifar10_train_lmdb"
    batch_size: 100
    backend: LMDB
  }
}
layer {
  name: "Convolution1"
  type: "Convolution"
  bottom: "Data1"
  top: "Convolution1"
  param {
    lr_mult: 1
    decay_mult: 1
  }
  param {
    lr_mult: 2
    decay_mult: 0
  }
  convolution_param {
    num_output: 16
    pad: 1
    kernel_size: 3
    stride: 1
    weight_filler {
      type: "gaussian"
      std: 0.118
    }
    bias_filler {
      type: "constant"
      value: 0
    }
  }
}
layer {
  name: "BatchNorm1"
  type: "BatchNorm"
  bottom: "Convolution1"
  top: "Convolution1"
  param {
    lr_mult: 0
    decay_mult: 0
  }
  param {
    lr_mult: 0
    decay_mult: 0
  }
  param {
    lr_mult: 0
    decay_mult: 0
  }
}
layer {
  name: "Scale1"
  type: "Scale"
  bottom: "Convolution1"
  top: "Convolution1"
  scale_param {
    bias_term: true
  }
}
layer {
  name: "penlu1"
  type: "PENLU"
  bottom: "Convolution1"
  top: "Convolution1"
  param {
    lr_mult: 2
    decay_mult: 2
  }
  param {
    lr_mult: 2
    decay_mult: 2
  }
  param {
    lr_mult: 0
    decay_mult: 0
  }
  penlu_param {
    alpha_filler {
      type: "constant"
      value: 0.25
    }
    beta_filler {
      type: "constant"
      value: 1
    }
    eta_filler {
      type: "constant"
      value: 1
    }
  }
}
layer {
  name: "Convolution2"
  type: "Convolution"
  bottom: "Convolution1"
  top: "Convolution2"
  param {
    lr_mult: 1
    decay_mult: 1
  }
  param {
    lr_mult: 2
    decay_mult: 0
  }
  convolution_param {
    num_output: 16
    pad: 1
    kernel_size: 3
    stride: 1
    weight_filler {
      type: "gaussian"
      std: 0.118
    }
    bias_filler {
      type: "constant"
      value: 0
    }
  }
}
layer {
  name: "BatchNorm2"
  type: "BatchNorm"
  bottom: "Convolution2"
  top: "Convolution2"
  param {
    lr_mult: 0
    decay_mult: 0
  }
  param {
    lr_mult: 0
    decay_mult: 0
  }
  param {
    lr_mult: 0
    decay_mult: 0
  }
}
layer {
  name: "Scale2"
  type: "Scale"
  bottom: "Convolution2"
  top: "Convolution2"
  scale_param {
    bias_term: true
  }
}
layer {
  name: "penlu2"
  type: "PENLU"
  bottom: "Convolution2"
  top: "Convolution2"
  param {
    lr_mult: 2
    decay_mult: 2
  }
  param {
    lr_mult: 2
    decay_mult: 2
  }
  param {
    lr_mult: 0
    decay_mult: 0
  }
  penlu_param {
    alpha_filler {
      type: "constant"
      value: 0.25
    }
    beta_filler {
      type: "constant"
      value: 1
    }
    eta_filler {
      type: "constant"
      value: 1
    }
  }
}
layer {
  name: "Convolution3"
  type: "Convolution"
  bottom: "Convolution2"
  top: "Convolution3"
  param {
    lr_mult: 1
    decay_mult: 1
  }
  param {
    lr_mult: 2
    decay_mult: 0
  }
  convolution_param {
    num_output: 16
    pad: 1
    kernel_size: 3
    stride: 1
    weight_filler {
      type: "gaussian"
      std: 0.118
    }
    bias_filler {
      type: "constant"
      value: 0
    }
  }
}
layer {
  name: "BatchNorm3"
  type: "BatchNorm"
  bottom: "Convolution3"
  top: "Convolution3"
  param {
    lr_mult: 0
    decay_mult: 0
  }
  param {
    lr_mult: 0
    decay_mult: 0
  }
  param {
    lr_mult: 0
    decay_mult: 0
  }
}
layer {
  name: "Scale3"
  type: "Scale"
  bottom: "Convolution3"
  top: "Convolution3"
  scale_param {
    bias_term: true
  }
}
layer {
  name: "Eltwise1"
  type: "Eltwise"
  bottom: "Convolution1"
  bottom: "Convolution3"
  top: "Eltwise1"
  eltwise_param {
    operation: SUM
  }
}
layer {
  name: "penlu3"
  type: "PENLU"
  bottom: "Eltwise1"
  top: "Eltwise1"
  param {
    lr_mult: 2
    decay_mult: 2
  }
  param {
    lr_mult: 2
    decay_mult: 2
  }
  param {
    lr_mult: 0
    decay_mult: 0
  }
  penlu_param {
    alpha_filler {
      type: "constant"
      value: 0.25
    }
    beta_filler {
      type: "constant"
      value: 1
    }
    eta_filler {
      type: "constant"
      value: 1
    }
  }
}
layer {
  name: "Convolution4"
  type: "Convolution"
  bottom: "Eltwise1"
  top: "Convolution4"
  param {
    lr_mult: 1
    decay_mult: 1
  }
  param {
    lr_mult: 2
    decay_mult: 0
  }
  convolution_param {
    num_output: 16
    pad: 1
    kernel_size: 3
    stride: 1
    weight_filler {
      type: "gaussian"
      std: 0.118
    }
    bias_filler {
      type: "constant"
      value: 0
    }
  }
}
layer {
  name: "BatchNorm4"
  type: "BatchNorm"
  bottom: "Convolution4"
  top: "Convolution4"
  param {
    lr_mult: 0
    decay_mult: 0
  }
  param {
    lr_mult: 0
    decay_mult: 0
  }
  param {
    lr_mult: 0
    decay_mult: 0
  }
}
layer {
  name: "Scale4"
  type: "Scale"
  bottom: "Convolution4"
  top: "Convolution4"
  scale_param {
    bias_term: true
  }
}
layer {
  name: "penlu4"
  type: "PENLU"
  bottom: "Convolution4"
  top: "Convolution4"
  param {
    lr_mult: 2
    decay_mult: 2
  }
  param {
    lr_mult: 2
    decay_mult: 2
  }
  param {
    lr_mult: 0
    decay_mult: 0
  }
  penlu_param {
    alpha_filler {
      type: "constant"
      value: 0.25
    }
    beta_filler {
      type: "constant"
      value: 1
    }
    eta_filler {
      type: "constant"
      value: 1
    }
  }
}
layer {
  name: "Convolution5"
  type: "Convolution"
  bottom: "Convolution4"
  top: "Convolution5"
  param {
    lr_mult: 1
    decay_mult: 1
  }
  param {
    lr_mult: 2
    decay_mult: 0
  }
  convolution_param {
    num_output: 16
    pad: 1
    kernel_size: 3
    stride: 1
    weight_filler {
      type: "gaussian"
      std: 0.118
    }
    bias_filler {
      type: "constant"
      value: 0
    }
  }
}
layer {
  name: "BatchNorm5"
  type: "BatchNorm"
  bottom: "Convolution5"
  top: "Convolution5"
  param {
    lr_mult: 0
    decay_mult: 0
  }
  param {
    lr_mult: 0
    decay_mult: 0
  }
  param {
    lr_mult: 0
    decay_mult: 0
  }
}
layer {
  name: "Scale5"
  type: "Scale"
  bottom: "Convolution5"
  top: "Convolution5"
  scale_param {
    bias_term: true
  }
}
layer {
  name: "Eltwise2"
  type: "Eltwise"
  bottom: "Eltwise1"
  bottom: "Convolution5"
  top: "Eltwise2"
  eltwise_param {
    operation: SUM
  }
}
layer {
  name: "penlu5"
  type: "PENLU"
  bottom: "Eltwise2"
  top: "Eltwise2"
  param {
    lr_mult: 2
    decay_mult: 2
  }
  param {
    lr_mult: 2
    decay_mult: 2
  }
  param {
    lr_mult: 0
    decay_mult: 0
  }
  penlu_param {
    alpha_filler {
      type: "constant"
      value: 0.25
    }
    beta_filler {
      type: "constant"
      value: 1
    }
    eta_filler {
      type: "constant"
      value: 1
    }
  }
}
layer {
  name: "Convolution6"
  type: "Convolution"
  bottom: "Eltwise2"
  top: "Convolution6"
  param {
    lr_mult: 1
    decay_mult: 1
  }
  param {
    lr_mult: 2
    decay_mult: 0
  }
  convolution_param {
    num_output: 16
    pad: 1
    kernel_size: 3
    stride: 1
    weight_filler {
      type: "gaussian"
      std: 0.118
    }
    bias_filler {
      type: "constant"
      value: 0
    }
  }
}
layer {
  name: "BatchNorm6"
  type: "BatchNorm"
  bottom: "Convolution6"
  top: "Convolution6"
  param {
    lr_mult: 0
    decay_mult: 0
  }
  param {
    lr_mult: 0
    decay_mult: 0
  }
  param {
    lr_mult: 0
    decay_mult: 0
  }
}
layer {
  name: "Scale6"
  type: "Scale"
  bottom: "Convolution6"
  top: "Convolution6"
  scale_param {
    bias_term: true
  }
}
layer {
  name: "penlu6"
  type: "PENLU"
  bottom: "Convolution6"
  top: "Convolution6"
  param {
    lr_mult: 2
    decay_mult: 2
  }
  param {
    lr_mult: 2
    decay_mult: 2
  }
  param {
    lr_mult: 0
    decay_mult: 0
  }
  penlu_param {
    alpha_filler {
      type: "constant"
      value: 0.25
    }
    beta_filler {
      type: "constant"
      value: 1
    }
    eta_filler {
      type: "constant"
      value: 1
    }
  }
}
layer {
  name: "Convolution7"
  type: "Convolution"
  bottom: "Convolution6"
  top: "Convolution7"
  param {
    lr_mult: 1
    decay_mult: 1
  }
  param {
    lr_mult: 2
    decay_mult: 0
  }
  convolution_param {
    num_output: 16
    pad: 1
    kernel_size: 3
    stride: 1
    weight_filler {
      type: "gaussian"
      std: 0.118
    }
    bias_filler {
      type: "constant"
      value: 0
    }
  }
}
layer {
  name: "BatchNorm7"
  type: "BatchNorm"
  bottom: "Convolution7"
  top: "Convolution7"
  param {
    lr_mult: 0
    decay_mult: 0
  }
  param {
    lr_mult: 0
    decay_mult: 0
  }
  param {
    lr_mult: 0
    decay_mult: 0
  }
}
layer {
  name: "Scale7"
  type: "Scale"
  bottom: "Convolution7"
  top: "Convolution7"
  scale_param {
    bias_term: true
  }
}
layer {
  name: "Eltwise3"
  type: "Eltwise"
  bottom: "Eltwise2"
  bottom: "Convolution7"
  top: "Eltwise3"
  eltwise_param {
    operation: SUM
  }
}
layer {
  name: "penlu7"
  type: "PENLU"
  bottom: "Eltwise3"
  top: "Eltwise3"
  param {
    lr_mult: 2
    decay_mult: 2
  }
  param {
    lr_mult: 2
    decay_mult: 2
  }
  param {
    lr_mult: 0
    decay_mult: 0
  }
  penlu_param {
    alpha_filler {
      type: "constant"
      value: 0.25
    }
    beta_filler {
      type: "constant"
      value: 1
    }
    eta_filler {
      type: "constant"
      value: 1
    }
  }
}
layer {
  name: "Convolution8"
  type: "Convolution"
  bottom: "Eltwise3"
  top: "Convolution8"
  param {
    lr_mult: 1
    decay_mult: 1
  }
  param {
    lr_mult: 2
    decay_mult: 0
  }
  convolution_param {
    num_output: 32
    pad: 0
    kernel_size: 1
    stride: 2
    weight_filler {
      type: "gaussian"
      std: 0.25
    }
    bias_filler {
      type: "constant"
      value: 0
    }
  }
}
layer {
  name: "BatchNorm8"
  type: "BatchNorm"
  bottom: "Convolution8"
  top: "Convolution8"
  param {
    lr_mult: 0
    decay_mult: 0
  }
  param {
    lr_mult: 0
    decay_mult: 0
  }
  param {
    lr_mult: 0
    decay_mult: 0
  }
}
layer {
  name: "Scale8"
  type: "Scale"
  bottom: "Convolution8"
  top: "Convolution8"
  scale_param {
    bias_term: true
  }
}
layer {
  name: "Convolution9"
  type: "Convolution"
  bottom: "Eltwise3"
  top: "Convolution9"
  param {
    lr_mult: 1
    decay_mult: 1
  }
  param {
    lr_mult: 2
    decay_mult: 0
  }
  convolution_param {
    num_output: 32
    pad: 1
    kernel_size: 3
    stride: 2
    weight_filler {
      type: "gaussian"
      std: 0.083
    }
    bias_filler {
      type: "constant"
      value: 0
    }
  }
}
layer {
  name: "BatchNorm9"
  type: "BatchNorm"
  bottom: "Convolution9"
  top: "Convolution9"
  param {
    lr_mult: 0
    decay_mult: 0
  }
  param {
    lr_mult: 0
    decay_mult: 0
  }
  param {
    lr_mult: 0
    decay_mult: 0
  }
}
layer {
  name: "Scale9"
  type: "Scale"
  bottom: "Convolution9"
  top: "Convolution9"
  scale_param {
    bias_term: true
  }
}
layer {
  name: "penlu8"
  type: "PENLU"
  bottom: "Convolution9"
  top: "Convolution9"
  param {
    lr_mult: 2
    decay_mult: 2
  }
  param {
    lr_mult: 2
    decay_mult: 2
  }
  param {
    lr_mult: 0
    decay_mult: 0
  }
  penlu_param {
    alpha_filler {
      type: "constant"
      value: 0.25
    }
    beta_filler {
      type: "constant"
      value: 1
    }
    eta_filler {
      type: "constant"
      value: 1
    }
  }
}
layer {
  name: "Convolution10"
  type: "Convolution"
  bottom: "Convolution9"
  top: "Convolution10"
  param {
    lr_mult: 1
    decay_mult: 1
  }
  param {
    lr_mult: 2
    decay_mult: 0
  }
  convolution_param {
    num_output: 32
    pad: 1
    kernel_size: 3
    stride: 1
    weight_filler {
      type: "gaussian"
      std: 0.083
    }
    bias_filler {
      type: "constant"
      value: 0
    }
  }
}
layer {
  name: "BatchNorm10"
  type: "BatchNorm"
  bottom: "Convolution10"
  top: "Convolution10"
  param {
    lr_mult: 0
    decay_mult: 0
  }
  param {
    lr_mult: 0
    decay_mult: 0
  }
  param {
    lr_mult: 0
    decay_mult: 0
  }
}
layer {
  name: "Scale10"
  type: "Scale"
  bottom: "Convolution10"
  top: "Convolution10"
  scale_param {
    bias_term: true
  }
}
layer {
  name: "Eltwise4"
  type: "Eltwise"
  bottom: "Convolution8"
  bottom: "Convolution10"
  top: "Eltwise4"
  eltwise_param {
    operation: SUM
  }
}
layer {
  name: "penlu9"
  type: "PENLU"
  bottom: "Eltwise4"
  top: "Eltwise4"
  param {
    lr_mult: 2
    decay_mult: 2
  }
  param {
    lr_mult: 2
    decay_mult: 2
  }
  param {
    lr_mult: 0
    decay_mult: 0
  }
  penlu_param {
    alpha_filler {
      type: "constant"
      value: 0.25
    }
    beta_filler {
      type: "constant"
      value: 1
    }
    eta_filler {
      type: "constant"
      value: 1
    }
  }
}
layer {
  name: "Convolution11"
  type: "Convolution"
  bottom: "Eltwise4"
  top: "Convolution11"
  param {
    lr_mult: 1
    decay_mult: 1
  }
  param {
    lr_mult: 2
    decay_mult: 0
  }
  convolution_param {
    num_output: 32
    pad: 1
    kernel_size: 3
    stride: 1
    weight_filler {
      type: "gaussian"
      std: 0.083
    }
    bias_filler {
      type: "constant"
      value: 0
    }
  }
}
layer {
  name: "BatchNorm11"
  type: "BatchNorm"
  bottom: "Convolution11"
  top: "Convolution11"
  param {
    lr_mult: 0
    decay_mult: 0
  }
  param {
    lr_mult: 0
    decay_mult: 0
  }
  param {
    lr_mult: 0
    decay_mult: 0
  }
}
layer {
  name: "Scale11"
  type: "Scale"
  bottom: "Convolution11"
  top: "Convolution11"
  scale_param {
    bias_term: true
  }
}
layer {
  name: "penlu10"
  type: "PENLU"
  bottom: "Convolution11"
  top: "Convolution11"
  param {
    lr_mult: 2
    decay_mult: 2
  }
  param {
    lr_mult: 2
    decay_mult: 2
  }
  param {
    lr_mult: 0
    decay_mult: 0
  }
  penlu_param {
    alpha_filler {
      type: "constant"
      value: 0.25
    }
    beta_filler {
      type: "constant"
      value: 1
    }
    eta_filler {
      type: "constant"
      value: 1
    }
  }
}
layer {
  name: "Convolution12"
  type: "Convolution"
  bottom: "Convolution11"
  top: "Convolution12"
  param {
    lr_mult: 1
    decay_mult: 1
  }
  param {
    lr_mult: 2
    decay_mult: 0
  }
  convolution_param {
    num_output: 32
    pad: 1
    kernel_size: 3
    stride: 1
    weight_filler {
      type: "gaussian"
      std: 0.083
    }
    bias_filler {
      type: "constant"
      value: 0
    }
  }
}
layer {
  name: "BatchNorm12"
  type: "BatchNorm"
  bottom: "Convolution12"
  top: "Convolution12"
  param {
    lr_mult: 0
    decay_mult: 0
  }
  param {
    lr_mult: 0
    decay_mult: 0
  }
  param {
    lr_mult: 0
    decay_mult: 0
  }
}
layer {
  name: "Scale12"
  type: "Scale"
  bottom: "Convolution12"
  top: "Convolution12"
  scale_param {
    bias_term: true
  }
}
layer {
  name: "Eltwise5"
  type: "Eltwise"
  bottom: "Eltwise4"
  bottom: "Convolution12"
  top: "Eltwise5"
  eltwise_param {
    operation: SUM
  }
}
layer {
  name: "penlu11"
  type: "PENLU"
  bottom: "Eltwise5"
  top: "Eltwise5"
  param {
    lr_mult: 2
    decay_mult: 2
  }
  param {
    lr_mult: 2
    decay_mult: 2
  }
  param {
    lr_mult: 0
    decay_mult: 0
  }
  penlu_param {
    alpha_filler {
      type: "constant"
      value: 0.25
    }
    beta_filler {
      type: "constant"
      value: 1
    }
    eta_filler {
      type: "constant"
      value: 1
    }
  }
}
layer {
  name: "Convolution13"
  type: "Convolution"
  bottom: "Eltwise5"
  top: "Convolution13"
  param {
    lr_mult: 1
    decay_mult: 1
  }
  param {
    lr_mult: 2
    decay_mult: 0
  }
  convolution_param {
    num_output: 32
    pad: 1
    kernel_size: 3
    stride: 1
    weight_filler {
      type: "gaussian"
      std: 0.083
    }
    bias_filler {
      type: "constant"
      value: 0
    }
  }
}
layer {
  name: "BatchNorm13"
  type: "BatchNorm"
  bottom: "Convolution13"
  top: "Convolution13"
  param {
    lr_mult: 0
    decay_mult: 0
  }
  param {
    lr_mult: 0
    decay_mult: 0
  }
  param {
    lr_mult: 0
    decay_mult: 0
  }
}
layer {
  name: "Scale13"
  type: "Scale"
  bottom: "Convolution13"
  top: "Convolution13"
  scale_param {
    bias_term: true
  }
}
layer {
  name: "penlu12"
  type: "PENLU"
  bottom: "Convolution13"
  top: "Convolution13"
  param {
    lr_mult: 2
    decay_mult: 2
  }
  param {
    lr_mult: 2
    decay_mult: 2
  }
  param {
    lr_mult: 0
    decay_mult: 0
  }
  penlu_param {
    alpha_filler {
      type: "constant"
      value: 0.25
    }
    beta_filler {
      type: "constant"
      value: 1
    }
    eta_filler {
      type: "constant"
      value: 1
    }
  }
}
layer {
  name: "Convolution14"
  type: "Convolution"
  bottom: "Convolution13"
  top: "Convolution14"
  param {
    lr_mult: 1
    decay_mult: 1
  }
  param {
    lr_mult: 2
    decay_mult: 0
  }
  convolution_param {
    num_output: 32
    pad: 1
    kernel_size: 3
    stride: 1
    weight_filler {
      type: "gaussian"
      std: 0.083
    }
    bias_filler {
      type: "constant"
      value: 0
    }
  }
}
layer {
  name: "BatchNorm14"
  type: "BatchNorm"
  bottom: "Convolution14"
  top: "Convolution14"
  param {
    lr_mult: 0
    decay_mult: 0
  }
  param {
    lr_mult: 0
    decay_mult: 0
  }
  param {
    lr_mult: 0
    decay_mult: 0
  }
}
layer {
  name: "Scale14"
  type: "Scale"
  bottom: "Convolution14"
  top: "Convolution14"
  scale_param {
    bias_term: true
  }
}
layer {
  name: "Eltwise6"
  type: "Eltwise"
  bottom: "Eltwise5"
  bottom: "Convolution14"
  top: "Eltwise6"
  eltwise_param {
    operation: SUM
  }
}
layer {
  name: "penlu13"
  type: "PENLU"
  bottom: "Eltwise6"
  top: "Eltwise6"
  param {
    lr_mult: 2
    decay_mult: 2
  }
  param {
    lr_mult: 2
    decay_mult: 2
  }
  param {
    lr_mult: 0
    decay_mult: 0
  }
  penlu_param {
    alpha_filler {
      type: "constant"
      value: 0.25
    }
    beta_filler {
      type: "constant"
      value: 1
    }
    eta_filler {
      type: "constant"
      value: 1
    }
  }
}
layer {
  name: "Convolution15"
  type: "Convolution"
  bottom: "Eltwise6"
  top: "Convolution15"
  param {
    lr_mult: 1
    decay_mult: 1
  }
  param {
    lr_mult: 2
    decay_mult: 0
  }
  convolution_param {
    num_output: 64
    pad: 0
    kernel_size: 1
    stride: 2
    weight_filler {
      type: "gaussian"
      std: 0.17677669
    }
    bias_filler {
      type: "constant"
      value: 0
    }
  }
}
layer {
  name: "BatchNorm15"
  type: "BatchNorm"
  bottom: "Convolution15"
  top: "Convolution15"
  param {
    lr_mult: 0
    decay_mult: 0
  }
  param {
    lr_mult: 0
    decay_mult: 0
  }
  param {
    lr_mult: 0
    decay_mult: 0
  }
}
layer {
  name: "Scale15"
  type: "Scale"
  bottom: "Convolution15"
  top: "Convolution15"
  scale_param {
    bias_term: true
  }
}
layer {
  name: "Convolution16"
  type: "Convolution"
  bottom: "Eltwise6"
  top: "Convolution16"
  param {
    lr_mult: 1
    decay_mult: 1
  }
  param {
    lr_mult: 2
    decay_mult: 0
  }
  convolution_param {
    num_output: 64
    pad: 1
    kernel_size: 3
    stride: 2
    weight_filler {
      type: "gaussian"
      std: 0.059
    }
    bias_filler {
      type: "constant"
      value: 0
    }
  }
}
layer {
  name: "BatchNorm16"
  type: "BatchNorm"
  bottom: "Convolution16"
  top: "Convolution16"
  param {
    lr_mult: 0
    decay_mult: 0
  }
  param {
    lr_mult: 0
    decay_mult: 0
  }
  param {
    lr_mult: 0
    decay_mult: 0
  }
}
layer {
  name: "Scale16"
  type: "Scale"
  bottom: "Convolution16"
  top: "Convolution16"
  scale_param {
    bias_term: true
  }
}
layer {
  name: "penlu14"
  type: "PENLU"
  bottom: "Convolution16"
  top: "Convolution16"
  param {
    lr_mult: 2
    decay_mult: 2
  }
  param {
    lr_mult: 2
    decay_mult: 2
  }
  param {
    lr_mult: 0
    decay_mult: 0
  }
  penlu_param {
    alpha_filler {
      type: "constant"
      value: 0.25
    }
    beta_filler {
      type: "constant"
      value: 1
    }
    eta_filler {
      type: "constant"
      value: 1
    }
  }
}
layer {
  name: "Convolution17"
  type: "Convolution"
  bottom: "Convolution16"
  top: "Convolution17"
  param {
    lr_mult: 1
    decay_mult: 1
  }
  param {
    lr_mult: 2
    decay_mult: 0
  }
  convolution_param {
    num_output: 64
    pad: 1
    kernel_size: 3
    stride: 1
    weight_filler {
      type: "gaussian"
      std: 0.059
    }
    bias_filler {
      type: "constant"
      value: 0
    }
  }
}
layer {
  name: "BatchNorm17"
  type: "BatchNorm"
  bottom: "Convolution17"
  top: "Convolution17"
  param {
    lr_mult: 0
    decay_mult: 0
  }
  param {
    lr_mult: 0
    decay_mult: 0
  }
  param {
    lr_mult: 0
    decay_mult: 0
  }
}
layer {
  name: "Scale17"
  type: "Scale"
  bottom: "Convolution17"
  top: "Convolution17"
  scale_param {
    bias_term: true
  }
}
layer {
  name: "Eltwise7"
  type: "Eltwise"
  bottom: "Convolution15"
  bottom: "Convolution17"
  top: "Eltwise7"
  eltwise_param {
    operation: SUM
  }
}
layer {
  name: "penlu15"
  type: "PENLU"
  bottom: "Eltwise7"
  top: "Eltwise7"
  param {
    lr_mult: 2
    decay_mult: 2
  }
  param {
    lr_mult: 2
    decay_mult: 2
  }
  param {
    lr_mult: 0
    decay_mult: 0
  }
  penlu_param {
    alpha_filler {
      type: "constant"
      value: 0.25
    }
    beta_filler {
      type: "constant"
      value: 1
    }
    eta_filler {
      type: "constant"
      value: 1
    }
  }
}
layer {
  name: "Convolution18"
  type: "Convolution"
  bottom: "Eltwise7"
  top: "Convolution18"
  param {
    lr_mult: 1
    decay_mult: 1
  }
  param {
    lr_mult: 2
    decay_mult: 0
  }
  convolution_param {
    num_output: 64
    pad: 1
    kernel_size: 3
    stride: 1
    weight_filler {
      type: "gaussian"
      std: 0.059
    }
    bias_filler {
      type: "constant"
      value: 0
    }
  }
}
layer {
  name: "BatchNorm18"
  type: "BatchNorm"
  bottom: "Convolution18"
  top: "Convolution18"
  param {
    lr_mult: 0
    decay_mult: 0
  }
  param {
    lr_mult: 0
    decay_mult: 0
  }
  param {
    lr_mult: 0
    decay_mult: 0
  }
}
layer {
  name: "Scale18"
  type: "Scale"
  bottom: "Convolution18"
  top: "Convolution18"
  scale_param {
    bias_term: true
  }
}
layer {
  name: "penlu16"
  type: "PENLU"
  bottom: "Convolution18"
  top: "Convolution18"
  param {
    lr_mult: 2
    decay_mult: 2
  }
  param {
    lr_mult: 2
    decay_mult: 2
  }
  param {
    lr_mult: 0
    decay_mult: 0
  }
  penlu_param {
    alpha_filler {
      type: "constant"
      value: 0.25
    }
    beta_filler {
      type: "constant"
      value: 1
    }
    eta_filler {
      type: "constant"
      value: 1
    }
  }
}
layer {
  name: "Convolution19"
  type: "Convolution"
  bottom: "Convolution18"
  top: "Convolution19"
  param {
    lr_mult: 1
    decay_mult: 1
  }
  param {
    lr_mult: 2
    decay_mult: 0
  }
  convolution_param {
    num_output: 64
    pad: 1
    kernel_size: 3
    stride: 1
    weight_filler {
      type: "gaussian"
      std: 0.059
    }
    bias_filler {
      type: "constant"
      value: 0
    }
  }
}
layer {
  name: "BatchNorm19"
  type: "BatchNorm"
  bottom: "Convolution19"
  top: "Convolution19"
  param {
    lr_mult: 0
    decay_mult: 0
  }
  param {
    lr_mult: 0
    decay_mult: 0
  }
  param {
    lr_mult: 0
    decay_mult: 0
  }
}
layer {
  name: "Scale19"
  type: "Scale"
  bottom: "Convolution19"
  top: "Convolution19"
  scale_param {
    bias_term: true
  }
}
layer {
  name: "Eltwise8"
  type: "Eltwise"
  bottom: "Eltwise7"
  bottom: "Convolution19"
  top: "Eltwise8"
  eltwise_param {
    operation: SUM
  }
}
layer {
  name: "penlu17"
  type: "PENLU"
  bottom: "Eltwise8"
  top: "Eltwise8"
  param {
    lr_mult: 2
    decay_mult: 2
  }
  param {
    lr_mult: 2
    decay_mult: 2
  }
  param {
    lr_mult: 0
    decay_mult: 0
  }
  penlu_param {
    alpha_filler {
      type: "constant"
      value: 0.25
    }
    beta_filler {
      type: "constant"
      value: 1
    }
    eta_filler {
      type: "constant"
      value: 1
    }
  }
}
layer {
  name: "Convolution20"
  type: "Convolution"
  bottom: "Eltwise8"
  top: "Convolution20"
  param {
    lr_mult: 1
    decay_mult: 1
  }
  param {
    lr_mult: 2
    decay_mult: 0
  }
  convolution_param {
    num_output: 64
    pad: 1
    kernel_size: 3
    stride: 1
    weight_filler {
      type: "gaussian"
      std: 0.059
    }
    bias_filler {
      type: "constant"
      value: 0
    }
  }
}
layer {
  name: "BatchNorm20"
  type: "BatchNorm"
  bottom: "Convolution20"
  top: "Convolution20"
  param {
    lr_mult: 0
    decay_mult: 0
  }
  param {
    lr_mult: 0
    decay_mult: 0
  }
  param {
    lr_mult: 0
    decay_mult: 0
  }
}
layer {
  name: "Scale20"
  type: "Scale"
  bottom: "Convolution20"
  top: "Convolution20"
  scale_param {
    bias_term: true
  }
}
layer {
  name: "penlu18"
  type: "PENLU"
  bottom: "Convolution20"
  top: "Convolution20"
  param {
    lr_mult: 2
    decay_mult: 2
  }
  param {
    lr_mult: 2
    decay_mult: 2
  }
  param {
    lr_mult: 0
    decay_mult: 0
  }
  penlu_param {
    alpha_filler {
      type: "constant"
      value: 0.25
    }
    beta_filler {
      type: "constant"
      value: 1
    }
    eta_filler {
      type: "constant"
      value: 1
    }
  }
}
layer {
  name: "Convolution21"
  type: "Convolution"
  bottom: "Convolution20"
  top: "Convolution21"
  param {
    lr_mult: 1
    decay_mult: 1
  }
  param {
    lr_mult: 2
    decay_mult: 0
  }
  convolution_param {
    num_output: 64
    pad: 1
    kernel_size: 3
    stride: 1
    weight_filler {
      type: "gaussian"
      std: 0.059
    }
    bias_filler {
      type: "constant"
      value: 0
    }
  }
}
layer {
  name: "BatchNorm21"
  type: "BatchNorm"
  bottom: "Convolution21"
  top: "Convolution21"
  param {
    lr_mult: 0
    decay_mult: 0
  }
  param {
    lr_mult: 0
    decay_mult: 0
  }
  param {
    lr_mult: 0
    decay_mult: 0
  }
}
layer {
  name: "Scale21"
  type: "Scale"
  bottom: "Convolution21"
  top: "Convolution21"
  scale_param {
    bias_term: true
  }
}
layer {
  name: "Eltwise9"
  type: "Eltwise"
  bottom: "Eltwise8"
  bottom: "Convolution21"
  top: "Eltwise9"
  eltwise_param {
    operation: SUM
  }
}
layer {
  name: "penlu19"
  type: "PENLU"
  bottom: "Eltwise9"
  top: "Eltwise9"
  param {
    lr_mult: 2
    decay_mult: 2
  }
  param {
    lr_mult: 2
    decay_mult: 2
  }
  param {
    lr_mult: 0
    decay_mult: 0
  }
  penlu_param {
    alpha_filler {
      type: "constant"
      value: 0.25
    }
    beta_filler {
      type: "constant"
      value: 1
    }
    eta_filler {
      type: "constant"
      value: 1
    }
  }
}
layer {
  name: "Pooling1"
  type: "Pooling"
  bottom: "Eltwise9"
  top: "Pooling1"
  pooling_param {
    pool: AVE
    global_pooling: true
  }
}
layer {
  name: "InnerProduct1"
  type: "InnerProduct"
  bottom: "Pooling1"
  top: "InnerProduct1"
  param {
    lr_mult: 1
    decay_mult: 1
  }
  param {
    lr_mult: 2
    decay_mult: 1
  }
  inner_product_param {
    num_output: 10
    weight_filler {
      type: "gaussian"
      std: 0.01
    }
    bias_filler {
      type: "constant"
      value: 0
    }
  }
}
layer {
  name: "SoftmaxWithLoss1"
  type: "SoftmaxWithLoss"
  bottom: "InnerProduct1"
  bottom: "Data2"
  top: "SoftmaxWithLoss1"
}
I1001 10:43:05.957535  5182 layer_factory.hpp:77] Creating layer Data1
I1001 10:43:05.957614  5182 db_lmdb.cpp:35] Opened lmdb /home/x306/caffe/xn/PENLU/data/cifar10/cifar10_train_lmdb
I1001 10:43:05.957633  5182 net.cpp:84] Creating Layer Data1
I1001 10:43:05.957638  5182 net.cpp:380] Data1 -> Data1
I1001 10:43:05.957655  5182 net.cpp:380] Data1 -> Data2
I1001 10:43:05.957666  5182 data_transformer.cpp:25] Loading mean file from: /home/x306/caffe/xn/PENLU/data/cifar10/mean.binaryproto
I1001 10:43:05.975893  5182 data_layer.cpp:45] output data size: 100,3,28,28
I1001 10:43:05.978376  5182 net.cpp:122] Setting up Data1
I1001 10:43:05.978404  5182 net.cpp:129] Top shape: 100 3 28 28 (235200)
I1001 10:43:05.978410  5182 net.cpp:129] Top shape: 100 (100)
I1001 10:43:05.978411  5182 net.cpp:137] Memory required for data: 941200
I1001 10:43:05.978418  5182 layer_factory.hpp:77] Creating layer Convolution1
I1001 10:43:05.978449  5182 net.cpp:84] Creating Layer Convolution1
I1001 10:43:05.978464  5182 net.cpp:406] Convolution1 <- Data1
I1001 10:43:05.978483  5182 net.cpp:380] Convolution1 -> Convolution1
I1001 10:43:06.167225  5182 net.cpp:122] Setting up Convolution1
I1001 10:43:06.167253  5182 net.cpp:129] Top shape: 100 16 28 28 (1254400)
I1001 10:43:06.167256  5182 net.cpp:137] Memory required for data: 5958800
I1001 10:43:06.167282  5182 layer_factory.hpp:77] Creating layer BatchNorm1
I1001 10:43:06.167294  5182 net.cpp:84] Creating Layer BatchNorm1
I1001 10:43:06.167307  5182 net.cpp:406] BatchNorm1 <- Convolution1
I1001 10:43:06.167313  5182 net.cpp:367] BatchNorm1 -> Convolution1 (in-place)
I1001 10:43:06.167464  5182 net.cpp:122] Setting up BatchNorm1
I1001 10:43:06.167469  5182 net.cpp:129] Top shape: 100 16 28 28 (1254400)
I1001 10:43:06.167472  5182 net.cpp:137] Memory required for data: 10976400
I1001 10:43:06.167479  5182 layer_factory.hpp:77] Creating layer Scale1
I1001 10:43:06.167500  5182 net.cpp:84] Creating Layer Scale1
I1001 10:43:06.167503  5182 net.cpp:406] Scale1 <- Convolution1
I1001 10:43:06.167507  5182 net.cpp:367] Scale1 -> Convolution1 (in-place)
I1001 10:43:06.167569  5182 layer_factory.hpp:77] Creating layer Scale1
I1001 10:43:06.167690  5182 net.cpp:122] Setting up Scale1
I1001 10:43:06.167695  5182 net.cpp:129] Top shape: 100 16 28 28 (1254400)
I1001 10:43:06.167697  5182 net.cpp:137] Memory required for data: 15994000
I1001 10:43:06.167701  5182 layer_factory.hpp:77] Creating layer penlu1
I1001 10:43:06.167711  5182 net.cpp:84] Creating Layer penlu1
I1001 10:43:06.167713  5182 net.cpp:406] penlu1 <- Convolution1
I1001 10:43:06.167716  5182 net.cpp:367] penlu1 -> Convolution1 (in-place)
I1001 10:43:06.168366  5182 net.cpp:122] Setting up penlu1
I1001 10:43:06.168376  5182 net.cpp:129] Top shape: 100 16 28 28 (1254400)
I1001 10:43:06.168380  5182 net.cpp:137] Memory required for data: 21011600
I1001 10:43:06.168387  5182 layer_factory.hpp:77] Creating layer Convolution1_penlu1_0_split
I1001 10:43:06.168396  5182 net.cpp:84] Creating Layer Convolution1_penlu1_0_split
I1001 10:43:06.168408  5182 net.cpp:406] Convolution1_penlu1_0_split <- Convolution1
I1001 10:43:06.168412  5182 net.cpp:380] Convolution1_penlu1_0_split -> Convolution1_penlu1_0_split_0
I1001 10:43:06.168418  5182 net.cpp:380] Convolution1_penlu1_0_split -> Convolution1_penlu1_0_split_1
I1001 10:43:06.168442  5182 net.cpp:122] Setting up Convolution1_penlu1_0_split
I1001 10:43:06.168455  5182 net.cpp:129] Top shape: 100 16 28 28 (1254400)
I1001 10:43:06.168459  5182 net.cpp:129] Top shape: 100 16 28 28 (1254400)
I1001 10:43:06.168462  5182 net.cpp:137] Memory required for data: 31046800
I1001 10:43:06.168473  5182 layer_factory.hpp:77] Creating layer Convolution2
I1001 10:43:06.168481  5182 net.cpp:84] Creating Layer Convolution2
I1001 10:43:06.168485  5182 net.cpp:406] Convolution2 <- Convolution1_penlu1_0_split_0
I1001 10:43:06.168489  5182 net.cpp:380] Convolution2 -> Convolution2
I1001 10:43:06.169338  5182 net.cpp:122] Setting up Convolution2
I1001 10:43:06.169349  5182 net.cpp:129] Top shape: 100 16 28 28 (1254400)
I1001 10:43:06.169353  5182 net.cpp:137] Memory required for data: 36064400
I1001 10:43:06.169378  5182 layer_factory.hpp:77] Creating layer BatchNorm2
I1001 10:43:06.169385  5182 net.cpp:84] Creating Layer BatchNorm2
I1001 10:43:06.169387  5182 net.cpp:406] BatchNorm2 <- Convolution2
I1001 10:43:06.169391  5182 net.cpp:367] BatchNorm2 -> Convolution2 (in-place)
I1001 10:43:06.169540  5182 net.cpp:122] Setting up BatchNorm2
I1001 10:43:06.169545  5182 net.cpp:129] Top shape: 100 16 28 28 (1254400)
I1001 10:43:06.169548  5182 net.cpp:137] Memory required for data: 41082000
I1001 10:43:06.169562  5182 layer_factory.hpp:77] Creating layer Scale2
I1001 10:43:06.169569  5182 net.cpp:84] Creating Layer Scale2
I1001 10:43:06.169572  5182 net.cpp:406] Scale2 <- Convolution2
I1001 10:43:06.169575  5182 net.cpp:367] Scale2 -> Convolution2 (in-place)
I1001 10:43:06.169600  5182 layer_factory.hpp:77] Creating layer Scale2
I1001 10:43:06.169698  5182 net.cpp:122] Setting up Scale2
I1001 10:43:06.169703  5182 net.cpp:129] Top shape: 100 16 28 28 (1254400)
I1001 10:43:06.169704  5182 net.cpp:137] Memory required for data: 46099600
I1001 10:43:06.169721  5182 layer_factory.hpp:77] Creating layer penlu2
I1001 10:43:06.169728  5182 net.cpp:84] Creating Layer penlu2
I1001 10:43:06.169730  5182 net.cpp:406] penlu2 <- Convolution2
I1001 10:43:06.169734  5182 net.cpp:367] penlu2 -> Convolution2 (in-place)
I1001 10:43:06.169837  5182 net.cpp:122] Setting up penlu2
I1001 10:43:06.169842  5182 net.cpp:129] Top shape: 100 16 28 28 (1254400)
I1001 10:43:06.169845  5182 net.cpp:137] Memory required for data: 51117200
I1001 10:43:06.169849  5182 layer_factory.hpp:77] Creating layer Convolution3
I1001 10:43:06.169857  5182 net.cpp:84] Creating Layer Convolution3
I1001 10:43:06.169859  5182 net.cpp:406] Convolution3 <- Convolution2
I1001 10:43:06.169863  5182 net.cpp:380] Convolution3 -> Convolution3
I1001 10:43:06.170723  5182 net.cpp:122] Setting up Convolution3
I1001 10:43:06.170734  5182 net.cpp:129] Top shape: 100 16 28 28 (1254400)
I1001 10:43:06.170737  5182 net.cpp:137] Memory required for data: 56134800
I1001 10:43:06.170742  5182 layer_factory.hpp:77] Creating layer BatchNorm3
I1001 10:43:06.170747  5182 net.cpp:84] Creating Layer BatchNorm3
I1001 10:43:06.170750  5182 net.cpp:406] BatchNorm3 <- Convolution3
I1001 10:43:06.170754  5182 net.cpp:367] BatchNorm3 -> Convolution3 (in-place)
I1001 10:43:06.170866  5182 net.cpp:122] Setting up BatchNorm3
I1001 10:43:06.170871  5182 net.cpp:129] Top shape: 100 16 28 28 (1254400)
I1001 10:43:06.170872  5182 net.cpp:137] Memory required for data: 61152400
I1001 10:43:06.170876  5182 layer_factory.hpp:77] Creating layer Scale3
I1001 10:43:06.170882  5182 net.cpp:84] Creating Layer Scale3
I1001 10:43:06.170886  5182 net.cpp:406] Scale3 <- Convolution3
I1001 10:43:06.170888  5182 net.cpp:367] Scale3 -> Convolution3 (in-place)
I1001 10:43:06.170912  5182 layer_factory.hpp:77] Creating layer Scale3
I1001 10:43:06.170977  5182 net.cpp:122] Setting up Scale3
I1001 10:43:06.170982  5182 net.cpp:129] Top shape: 100 16 28 28 (1254400)
I1001 10:43:06.170984  5182 net.cpp:137] Memory required for data: 66170000
I1001 10:43:06.170989  5182 layer_factory.hpp:77] Creating layer Eltwise1
I1001 10:43:06.170992  5182 net.cpp:84] Creating Layer Eltwise1
I1001 10:43:06.170996  5182 net.cpp:406] Eltwise1 <- Convolution1_penlu1_0_split_1
I1001 10:43:06.171000  5182 net.cpp:406] Eltwise1 <- Convolution3
I1001 10:43:06.171002  5182 net.cpp:380] Eltwise1 -> Eltwise1
I1001 10:43:06.171018  5182 net.cpp:122] Setting up Eltwise1
I1001 10:43:06.171022  5182 net.cpp:129] Top shape: 100 16 28 28 (1254400)
I1001 10:43:06.171025  5182 net.cpp:137] Memory required for data: 71187600
I1001 10:43:06.171026  5182 layer_factory.hpp:77] Creating layer penlu3
I1001 10:43:06.171031  5182 net.cpp:84] Creating Layer penlu3
I1001 10:43:06.171034  5182 net.cpp:406] penlu3 <- Eltwise1
I1001 10:43:06.171037  5182 net.cpp:367] penlu3 -> Eltwise1 (in-place)
I1001 10:43:06.171129  5182 net.cpp:122] Setting up penlu3
I1001 10:43:06.171134  5182 net.cpp:129] Top shape: 100 16 28 28 (1254400)
I1001 10:43:06.171145  5182 net.cpp:137] Memory required for data: 76205200
I1001 10:43:06.171150  5182 layer_factory.hpp:77] Creating layer Eltwise1_penlu3_0_split
I1001 10:43:06.171154  5182 net.cpp:84] Creating Layer Eltwise1_penlu3_0_split
I1001 10:43:06.171156  5182 net.cpp:406] Eltwise1_penlu3_0_split <- Eltwise1
I1001 10:43:06.171159  5182 net.cpp:380] Eltwise1_penlu3_0_split -> Eltwise1_penlu3_0_split_0
I1001 10:43:06.171164  5182 net.cpp:380] Eltwise1_penlu3_0_split -> Eltwise1_penlu3_0_split_1
I1001 10:43:06.171185  5182 net.cpp:122] Setting up Eltwise1_penlu3_0_split
I1001 10:43:06.171190  5182 net.cpp:129] Top shape: 100 16 28 28 (1254400)
I1001 10:43:06.171193  5182 net.cpp:129] Top shape: 100 16 28 28 (1254400)
I1001 10:43:06.171195  5182 net.cpp:137] Memory required for data: 86240400
I1001 10:43:06.171197  5182 layer_factory.hpp:77] Creating layer Convolution4
I1001 10:43:06.171205  5182 net.cpp:84] Creating Layer Convolution4
I1001 10:43:06.171207  5182 net.cpp:406] Convolution4 <- Eltwise1_penlu3_0_split_0
I1001 10:43:06.171211  5182 net.cpp:380] Convolution4 -> Convolution4
I1001 10:43:06.172022  5182 net.cpp:122] Setting up Convolution4
I1001 10:43:06.172034  5182 net.cpp:129] Top shape: 100 16 28 28 (1254400)
I1001 10:43:06.172036  5182 net.cpp:137] Memory required for data: 91258000
I1001 10:43:06.172041  5182 layer_factory.hpp:77] Creating layer BatchNorm4
I1001 10:43:06.172046  5182 net.cpp:84] Creating Layer BatchNorm4
I1001 10:43:06.172049  5182 net.cpp:406] BatchNorm4 <- Convolution4
I1001 10:43:06.172053  5182 net.cpp:367] BatchNorm4 -> Convolution4 (in-place)
I1001 10:43:06.172163  5182 net.cpp:122] Setting up BatchNorm4
I1001 10:43:06.172168  5182 net.cpp:129] Top shape: 100 16 28 28 (1254400)
I1001 10:43:06.172170  5182 net.cpp:137] Memory required for data: 96275600
I1001 10:43:06.172178  5182 layer_factory.hpp:77] Creating layer Scale4
I1001 10:43:06.172183  5182 net.cpp:84] Creating Layer Scale4
I1001 10:43:06.172186  5182 net.cpp:406] Scale4 <- Convolution4
I1001 10:43:06.172189  5182 net.cpp:367] Scale4 -> Convolution4 (in-place)
I1001 10:43:06.172212  5182 layer_factory.hpp:77] Creating layer Scale4
I1001 10:43:06.172277  5182 net.cpp:122] Setting up Scale4
I1001 10:43:06.172281  5182 net.cpp:129] Top shape: 100 16 28 28 (1254400)
I1001 10:43:06.172284  5182 net.cpp:137] Memory required for data: 101293200
I1001 10:43:06.172288  5182 layer_factory.hpp:77] Creating layer penlu4
I1001 10:43:06.172294  5182 net.cpp:84] Creating Layer penlu4
I1001 10:43:06.172297  5182 net.cpp:406] penlu4 <- Convolution4
I1001 10:43:06.172300  5182 net.cpp:367] penlu4 -> Convolution4 (in-place)
I1001 10:43:06.172391  5182 net.cpp:122] Setting up penlu4
I1001 10:43:06.172396  5182 net.cpp:129] Top shape: 100 16 28 28 (1254400)
I1001 10:43:06.172399  5182 net.cpp:137] Memory required for data: 106310800
I1001 10:43:06.172402  5182 layer_factory.hpp:77] Creating layer Convolution5
I1001 10:43:06.172410  5182 net.cpp:84] Creating Layer Convolution5
I1001 10:43:06.172412  5182 net.cpp:406] Convolution5 <- Convolution4
I1001 10:43:06.172416  5182 net.cpp:380] Convolution5 -> Convolution5
I1001 10:43:06.173220  5182 net.cpp:122] Setting up Convolution5
I1001 10:43:06.173230  5182 net.cpp:129] Top shape: 100 16 28 28 (1254400)
I1001 10:43:06.173234  5182 net.cpp:137] Memory required for data: 111328400
I1001 10:43:06.173238  5182 layer_factory.hpp:77] Creating layer BatchNorm5
I1001 10:43:06.173243  5182 net.cpp:84] Creating Layer BatchNorm5
I1001 10:43:06.173247  5182 net.cpp:406] BatchNorm5 <- Convolution5
I1001 10:43:06.173250  5182 net.cpp:367] BatchNorm5 -> Convolution5 (in-place)
I1001 10:43:06.173367  5182 net.cpp:122] Setting up BatchNorm5
I1001 10:43:06.173382  5182 net.cpp:129] Top shape: 100 16 28 28 (1254400)
I1001 10:43:06.173385  5182 net.cpp:137] Memory required for data: 116346000
I1001 10:43:06.173390  5182 layer_factory.hpp:77] Creating layer Scale5
I1001 10:43:06.173395  5182 net.cpp:84] Creating Layer Scale5
I1001 10:43:06.173398  5182 net.cpp:406] Scale5 <- Convolution5
I1001 10:43:06.173400  5182 net.cpp:367] Scale5 -> Convolution5 (in-place)
I1001 10:43:06.173442  5182 layer_factory.hpp:77] Creating layer Scale5
I1001 10:43:06.173511  5182 net.cpp:122] Setting up Scale5
I1001 10:43:06.173516  5182 net.cpp:129] Top shape: 100 16 28 28 (1254400)
I1001 10:43:06.173517  5182 net.cpp:137] Memory required for data: 121363600
I1001 10:43:06.173521  5182 layer_factory.hpp:77] Creating layer Eltwise2
I1001 10:43:06.173527  5182 net.cpp:84] Creating Layer Eltwise2
I1001 10:43:06.173529  5182 net.cpp:406] Eltwise2 <- Eltwise1_penlu3_0_split_1
I1001 10:43:06.173532  5182 net.cpp:406] Eltwise2 <- Convolution5
I1001 10:43:06.173535  5182 net.cpp:380] Eltwise2 -> Eltwise2
I1001 10:43:06.173549  5182 net.cpp:122] Setting up Eltwise2
I1001 10:43:06.173553  5182 net.cpp:129] Top shape: 100 16 28 28 (1254400)
I1001 10:43:06.173555  5182 net.cpp:137] Memory required for data: 126381200
I1001 10:43:06.173557  5182 layer_factory.hpp:77] Creating layer penlu5
I1001 10:43:06.173563  5182 net.cpp:84] Creating Layer penlu5
I1001 10:43:06.173565  5182 net.cpp:406] penlu5 <- Eltwise2
I1001 10:43:06.173568  5182 net.cpp:367] penlu5 -> Eltwise2 (in-place)
I1001 10:43:06.173667  5182 net.cpp:122] Setting up penlu5
I1001 10:43:06.173672  5182 net.cpp:129] Top shape: 100 16 28 28 (1254400)
I1001 10:43:06.173674  5182 net.cpp:137] Memory required for data: 131398800
I1001 10:43:06.173679  5182 layer_factory.hpp:77] Creating layer Eltwise2_penlu5_0_split
I1001 10:43:06.173684  5182 net.cpp:84] Creating Layer Eltwise2_penlu5_0_split
I1001 10:43:06.173687  5182 net.cpp:406] Eltwise2_penlu5_0_split <- Eltwise2
I1001 10:43:06.173691  5182 net.cpp:380] Eltwise2_penlu5_0_split -> Eltwise2_penlu5_0_split_0
I1001 10:43:06.173694  5182 net.cpp:380] Eltwise2_penlu5_0_split -> Eltwise2_penlu5_0_split_1
I1001 10:43:06.173717  5182 net.cpp:122] Setting up Eltwise2_penlu5_0_split
I1001 10:43:06.173722  5182 net.cpp:129] Top shape: 100 16 28 28 (1254400)
I1001 10:43:06.173724  5182 net.cpp:129] Top shape: 100 16 28 28 (1254400)
I1001 10:43:06.173727  5182 net.cpp:137] Memory required for data: 141434000
I1001 10:43:06.173728  5182 layer_factory.hpp:77] Creating layer Convolution6
I1001 10:43:06.173734  5182 net.cpp:84] Creating Layer Convolution6
I1001 10:43:06.173738  5182 net.cpp:406] Convolution6 <- Eltwise2_penlu5_0_split_0
I1001 10:43:06.173743  5182 net.cpp:380] Convolution6 -> Convolution6
I1001 10:43:06.174607  5182 net.cpp:122] Setting up Convolution6
I1001 10:43:06.174616  5182 net.cpp:129] Top shape: 100 16 28 28 (1254400)
I1001 10:43:06.174620  5182 net.cpp:137] Memory required for data: 146451600
I1001 10:43:06.174624  5182 layer_factory.hpp:77] Creating layer BatchNorm6
I1001 10:43:06.174630  5182 net.cpp:84] Creating Layer BatchNorm6
I1001 10:43:06.174634  5182 net.cpp:406] BatchNorm6 <- Convolution6
I1001 10:43:06.174638  5182 net.cpp:367] BatchNorm6 -> Convolution6 (in-place)
I1001 10:43:06.174757  5182 net.cpp:122] Setting up BatchNorm6
I1001 10:43:06.174762  5182 net.cpp:129] Top shape: 100 16 28 28 (1254400)
I1001 10:43:06.174764  5182 net.cpp:137] Memory required for data: 151469200
I1001 10:43:06.174769  5182 layer_factory.hpp:77] Creating layer Scale6
I1001 10:43:06.174774  5182 net.cpp:84] Creating Layer Scale6
I1001 10:43:06.174777  5182 net.cpp:406] Scale6 <- Convolution6
I1001 10:43:06.174780  5182 net.cpp:367] Scale6 -> Convolution6 (in-place)
I1001 10:43:06.174805  5182 layer_factory.hpp:77] Creating layer Scale6
I1001 10:43:06.174875  5182 net.cpp:122] Setting up Scale6
I1001 10:43:06.174880  5182 net.cpp:129] Top shape: 100 16 28 28 (1254400)
I1001 10:43:06.174882  5182 net.cpp:137] Memory required for data: 156486800
I1001 10:43:06.174886  5182 layer_factory.hpp:77] Creating layer penlu6
I1001 10:43:06.174892  5182 net.cpp:84] Creating Layer penlu6
I1001 10:43:06.174896  5182 net.cpp:406] penlu6 <- Convolution6
I1001 10:43:06.174899  5182 net.cpp:367] penlu6 -> Convolution6 (in-place)
I1001 10:43:06.175000  5182 net.cpp:122] Setting up penlu6
I1001 10:43:06.175004  5182 net.cpp:129] Top shape: 100 16 28 28 (1254400)
I1001 10:43:06.175014  5182 net.cpp:137] Memory required for data: 161504400
I1001 10:43:06.175019  5182 layer_factory.hpp:77] Creating layer Convolution7
I1001 10:43:06.175026  5182 net.cpp:84] Creating Layer Convolution7
I1001 10:43:06.175030  5182 net.cpp:406] Convolution7 <- Convolution6
I1001 10:43:06.175034  5182 net.cpp:380] Convolution7 -> Convolution7
I1001 10:43:06.175559  5182 net.cpp:122] Setting up Convolution7
I1001 10:43:06.175567  5182 net.cpp:129] Top shape: 100 16 28 28 (1254400)
I1001 10:43:06.175570  5182 net.cpp:137] Memory required for data: 166522000
I1001 10:43:06.175575  5182 layer_factory.hpp:77] Creating layer BatchNorm7
I1001 10:43:06.175580  5182 net.cpp:84] Creating Layer BatchNorm7
I1001 10:43:06.175582  5182 net.cpp:406] BatchNorm7 <- Convolution7
I1001 10:43:06.175586  5182 net.cpp:367] BatchNorm7 -> Convolution7 (in-place)
I1001 10:43:06.175705  5182 net.cpp:122] Setting up BatchNorm7
I1001 10:43:06.175710  5182 net.cpp:129] Top shape: 100 16 28 28 (1254400)
I1001 10:43:06.175712  5182 net.cpp:137] Memory required for data: 171539600
I1001 10:43:06.175722  5182 layer_factory.hpp:77] Creating layer Scale7
I1001 10:43:06.175729  5182 net.cpp:84] Creating Layer Scale7
I1001 10:43:06.175732  5182 net.cpp:406] Scale7 <- Convolution7
I1001 10:43:06.175736  5182 net.cpp:367] Scale7 -> Convolution7 (in-place)
I1001 10:43:06.175760  5182 layer_factory.hpp:77] Creating layer Scale7
I1001 10:43:06.175829  5182 net.cpp:122] Setting up Scale7
I1001 10:43:06.175834  5182 net.cpp:129] Top shape: 100 16 28 28 (1254400)
I1001 10:43:06.175837  5182 net.cpp:137] Memory required for data: 176557200
I1001 10:43:06.175840  5182 layer_factory.hpp:77] Creating layer Eltwise3
I1001 10:43:06.175846  5182 net.cpp:84] Creating Layer Eltwise3
I1001 10:43:06.175849  5182 net.cpp:406] Eltwise3 <- Eltwise2_penlu5_0_split_1
I1001 10:43:06.175851  5182 net.cpp:406] Eltwise3 <- Convolution7
I1001 10:43:06.175855  5182 net.cpp:380] Eltwise3 -> Eltwise3
I1001 10:43:06.175868  5182 net.cpp:122] Setting up Eltwise3
I1001 10:43:06.175873  5182 net.cpp:129] Top shape: 100 16 28 28 (1254400)
I1001 10:43:06.175874  5182 net.cpp:137] Memory required for data: 181574800
I1001 10:43:06.175876  5182 layer_factory.hpp:77] Creating layer penlu7
I1001 10:43:06.175882  5182 net.cpp:84] Creating Layer penlu7
I1001 10:43:06.175885  5182 net.cpp:406] penlu7 <- Eltwise3
I1001 10:43:06.175889  5182 net.cpp:367] penlu7 -> Eltwise3 (in-place)
I1001 10:43:06.176008  5182 net.cpp:122] Setting up penlu7
I1001 10:43:06.176013  5182 net.cpp:129] Top shape: 100 16 28 28 (1254400)
I1001 10:43:06.176015  5182 net.cpp:137] Memory required for data: 186592400
I1001 10:43:06.176020  5182 layer_factory.hpp:77] Creating layer Eltwise3_penlu7_0_split
I1001 10:43:06.176024  5182 net.cpp:84] Creating Layer Eltwise3_penlu7_0_split
I1001 10:43:06.176028  5182 net.cpp:406] Eltwise3_penlu7_0_split <- Eltwise3
I1001 10:43:06.176031  5182 net.cpp:380] Eltwise3_penlu7_0_split -> Eltwise3_penlu7_0_split_0
I1001 10:43:06.176034  5182 net.cpp:380] Eltwise3_penlu7_0_split -> Eltwise3_penlu7_0_split_1
I1001 10:43:06.176057  5182 net.cpp:122] Setting up Eltwise3_penlu7_0_split
I1001 10:43:06.176061  5182 net.cpp:129] Top shape: 100 16 28 28 (1254400)
I1001 10:43:06.176064  5182 net.cpp:129] Top shape: 100 16 28 28 (1254400)
I1001 10:43:06.176066  5182 net.cpp:137] Memory required for data: 196627600
I1001 10:43:06.176069  5182 layer_factory.hpp:77] Creating layer Convolution8
I1001 10:43:06.176074  5182 net.cpp:84] Creating Layer Convolution8
I1001 10:43:06.176077  5182 net.cpp:406] Convolution8 <- Eltwise3_penlu7_0_split_0
I1001 10:43:06.176081  5182 net.cpp:380] Convolution8 -> Convolution8
I1001 10:43:06.177188  5182 net.cpp:122] Setting up Convolution8
I1001 10:43:06.177199  5182 net.cpp:129] Top shape: 100 32 14 14 (627200)
I1001 10:43:06.177202  5182 net.cpp:137] Memory required for data: 199136400
I1001 10:43:06.177207  5182 layer_factory.hpp:77] Creating layer BatchNorm8
I1001 10:43:06.177212  5182 net.cpp:84] Creating Layer BatchNorm8
I1001 10:43:06.177217  5182 net.cpp:406] BatchNorm8 <- Convolution8
I1001 10:43:06.177227  5182 net.cpp:367] BatchNorm8 -> Convolution8 (in-place)
I1001 10:43:06.177356  5182 net.cpp:122] Setting up BatchNorm8
I1001 10:43:06.177361  5182 net.cpp:129] Top shape: 100 32 14 14 (627200)
I1001 10:43:06.177362  5182 net.cpp:137] Memory required for data: 201645200
I1001 10:43:06.177367  5182 layer_factory.hpp:77] Creating layer Scale8
I1001 10:43:06.177372  5182 net.cpp:84] Creating Layer Scale8
I1001 10:43:06.177376  5182 net.cpp:406] Scale8 <- Convolution8
I1001 10:43:06.177379  5182 net.cpp:367] Scale8 -> Convolution8 (in-place)
I1001 10:43:06.177423  5182 layer_factory.hpp:77] Creating layer Scale8
I1001 10:43:06.177511  5182 net.cpp:122] Setting up Scale8
I1001 10:43:06.177516  5182 net.cpp:129] Top shape: 100 32 14 14 (627200)
I1001 10:43:06.177518  5182 net.cpp:137] Memory required for data: 204154000
I1001 10:43:06.177533  5182 layer_factory.hpp:77] Creating layer Convolution9
I1001 10:43:06.177551  5182 net.cpp:84] Creating Layer Convolution9
I1001 10:43:06.177554  5182 net.cpp:406] Convolution9 <- Eltwise3_penlu7_0_split_1
I1001 10:43:06.177559  5182 net.cpp:380] Convolution9 -> Convolution9
I1001 10:43:06.178892  5182 net.cpp:122] Setting up Convolution9
I1001 10:43:06.178903  5182 net.cpp:129] Top shape: 100 32 14 14 (627200)
I1001 10:43:06.178906  5182 net.cpp:137] Memory required for data: 206662800
I1001 10:43:06.178911  5182 layer_factory.hpp:77] Creating layer BatchNorm9
I1001 10:43:06.178918  5182 net.cpp:84] Creating Layer BatchNorm9
I1001 10:43:06.178921  5182 net.cpp:406] BatchNorm9 <- Convolution9
I1001 10:43:06.178925  5182 net.cpp:367] BatchNorm9 -> Convolution9 (in-place)
I1001 10:43:06.179083  5182 net.cpp:122] Setting up BatchNorm9
I1001 10:43:06.179111  5182 net.cpp:129] Top shape: 100 32 14 14 (627200)
I1001 10:43:06.179126  5182 net.cpp:137] Memory required for data: 209171600
I1001 10:43:06.179144  5182 layer_factory.hpp:77] Creating layer Scale9
I1001 10:43:06.179154  5182 net.cpp:84] Creating Layer Scale9
I1001 10:43:06.179158  5182 net.cpp:406] Scale9 <- Convolution9
I1001 10:43:06.179164  5182 net.cpp:367] Scale9 -> Convolution9 (in-place)
I1001 10:43:06.179225  5182 layer_factory.hpp:77] Creating layer Scale9
I1001 10:43:06.179342  5182 net.cpp:122] Setting up Scale9
I1001 10:43:06.179349  5182 net.cpp:129] Top shape: 100 32 14 14 (627200)
I1001 10:43:06.179352  5182 net.cpp:137] Memory required for data: 211680400
I1001 10:43:06.179355  5182 layer_factory.hpp:77] Creating layer penlu8
I1001 10:43:06.179361  5182 net.cpp:84] Creating Layer penlu8
I1001 10:43:06.179364  5182 net.cpp:406] penlu8 <- Convolution9
I1001 10:43:06.179369  5182 net.cpp:367] penlu8 -> Convolution9 (in-place)
I1001 10:43:06.179471  5182 net.cpp:122] Setting up penlu8
I1001 10:43:06.179476  5182 net.cpp:129] Top shape: 100 32 14 14 (627200)
I1001 10:43:06.179478  5182 net.cpp:137] Memory required for data: 214189200
I1001 10:43:06.179483  5182 layer_factory.hpp:77] Creating layer Convolution10
I1001 10:43:06.179491  5182 net.cpp:84] Creating Layer Convolution10
I1001 10:43:06.179494  5182 net.cpp:406] Convolution10 <- Convolution9
I1001 10:43:06.179498  5182 net.cpp:380] Convolution10 -> Convolution10
I1001 10:43:06.180575  5182 net.cpp:122] Setting up Convolution10
I1001 10:43:06.180585  5182 net.cpp:129] Top shape: 100 32 14 14 (627200)
I1001 10:43:06.180588  5182 net.cpp:137] Memory required for data: 216698000
I1001 10:43:06.180594  5182 layer_factory.hpp:77] Creating layer BatchNorm10
I1001 10:43:06.180599  5182 net.cpp:84] Creating Layer BatchNorm10
I1001 10:43:06.180603  5182 net.cpp:406] BatchNorm10 <- Convolution10
I1001 10:43:06.180606  5182 net.cpp:367] BatchNorm10 -> Convolution10 (in-place)
I1001 10:43:06.180752  5182 net.cpp:122] Setting up BatchNorm10
I1001 10:43:06.180757  5182 net.cpp:129] Top shape: 100 32 14 14 (627200)
I1001 10:43:06.180759  5182 net.cpp:137] Memory required for data: 219206800
I1001 10:43:06.180764  5182 layer_factory.hpp:77] Creating layer Scale10
I1001 10:43:06.180768  5182 net.cpp:84] Creating Layer Scale10
I1001 10:43:06.180779  5182 net.cpp:406] Scale10 <- Convolution10
I1001 10:43:06.180783  5182 net.cpp:367] Scale10 -> Convolution10 (in-place)
I1001 10:43:06.180811  5182 layer_factory.hpp:77] Creating layer Scale10
I1001 10:43:06.180884  5182 net.cpp:122] Setting up Scale10
I1001 10:43:06.180889  5182 net.cpp:129] Top shape: 100 32 14 14 (627200)
I1001 10:43:06.180892  5182 net.cpp:137] Memory required for data: 221715600
I1001 10:43:06.180896  5182 layer_factory.hpp:77] Creating layer Eltwise4
I1001 10:43:06.180901  5182 net.cpp:84] Creating Layer Eltwise4
I1001 10:43:06.180903  5182 net.cpp:406] Eltwise4 <- Convolution8
I1001 10:43:06.180907  5182 net.cpp:406] Eltwise4 <- Convolution10
I1001 10:43:06.180910  5182 net.cpp:380] Eltwise4 -> Eltwise4
I1001 10:43:06.180925  5182 net.cpp:122] Setting up Eltwise4
I1001 10:43:06.180930  5182 net.cpp:129] Top shape: 100 32 14 14 (627200)
I1001 10:43:06.180932  5182 net.cpp:137] Memory required for data: 224224400
I1001 10:43:06.180934  5182 layer_factory.hpp:77] Creating layer penlu9
I1001 10:43:06.180939  5182 net.cpp:84] Creating Layer penlu9
I1001 10:43:06.180943  5182 net.cpp:406] penlu9 <- Eltwise4
I1001 10:43:06.180946  5182 net.cpp:367] penlu9 -> Eltwise4 (in-place)
I1001 10:43:06.181077  5182 net.cpp:122] Setting up penlu9
I1001 10:43:06.181082  5182 net.cpp:129] Top shape: 100 32 14 14 (627200)
I1001 10:43:06.181085  5182 net.cpp:137] Memory required for data: 226733200
I1001 10:43:06.181089  5182 layer_factory.hpp:77] Creating layer Eltwise4_penlu9_0_split
I1001 10:43:06.181093  5182 net.cpp:84] Creating Layer Eltwise4_penlu9_0_split
I1001 10:43:06.181097  5182 net.cpp:406] Eltwise4_penlu9_0_split <- Eltwise4
I1001 10:43:06.181110  5182 net.cpp:380] Eltwise4_penlu9_0_split -> Eltwise4_penlu9_0_split_0
I1001 10:43:06.181115  5182 net.cpp:380] Eltwise4_penlu9_0_split -> Eltwise4_penlu9_0_split_1
I1001 10:43:06.181136  5182 net.cpp:122] Setting up Eltwise4_penlu9_0_split
I1001 10:43:06.181140  5182 net.cpp:129] Top shape: 100 32 14 14 (627200)
I1001 10:43:06.181143  5182 net.cpp:129] Top shape: 100 32 14 14 (627200)
I1001 10:43:06.181145  5182 net.cpp:137] Memory required for data: 231750800
I1001 10:43:06.181147  5182 layer_factory.hpp:77] Creating layer Convolution11
I1001 10:43:06.181154  5182 net.cpp:84] Creating Layer Convolution11
I1001 10:43:06.181157  5182 net.cpp:406] Convolution11 <- Eltwise4_penlu9_0_split_0
I1001 10:43:06.181161  5182 net.cpp:380] Convolution11 -> Convolution11
I1001 10:43:06.182194  5182 net.cpp:122] Setting up Convolution11
I1001 10:43:06.182205  5182 net.cpp:129] Top shape: 100 32 14 14 (627200)
I1001 10:43:06.182209  5182 net.cpp:137] Memory required for data: 234259600
I1001 10:43:06.182214  5182 layer_factory.hpp:77] Creating layer BatchNorm11
I1001 10:43:06.182219  5182 net.cpp:84] Creating Layer BatchNorm11
I1001 10:43:06.182222  5182 net.cpp:406] BatchNorm11 <- Convolution11
I1001 10:43:06.182226  5182 net.cpp:367] BatchNorm11 -> Convolution11 (in-place)
I1001 10:43:06.182354  5182 net.cpp:122] Setting up BatchNorm11
I1001 10:43:06.182359  5182 net.cpp:129] Top shape: 100 32 14 14 (627200)
I1001 10:43:06.182361  5182 net.cpp:137] Memory required for data: 236768400
I1001 10:43:06.182366  5182 layer_factory.hpp:77] Creating layer Scale11
I1001 10:43:06.182371  5182 net.cpp:84] Creating Layer Scale11
I1001 10:43:06.182374  5182 net.cpp:406] Scale11 <- Convolution11
I1001 10:43:06.182376  5182 net.cpp:367] Scale11 -> Convolution11 (in-place)
I1001 10:43:06.182404  5182 layer_factory.hpp:77] Creating layer Scale11
I1001 10:43:06.182479  5182 net.cpp:122] Setting up Scale11
I1001 10:43:06.182484  5182 net.cpp:129] Top shape: 100 32 14 14 (627200)
I1001 10:43:06.182487  5182 net.cpp:137] Memory required for data: 239277200
I1001 10:43:06.182490  5182 layer_factory.hpp:77] Creating layer penlu10
I1001 10:43:06.182497  5182 net.cpp:84] Creating Layer penlu10
I1001 10:43:06.182500  5182 net.cpp:406] penlu10 <- Convolution11
I1001 10:43:06.182503  5182 net.cpp:367] penlu10 -> Convolution11 (in-place)
I1001 10:43:06.182637  5182 net.cpp:122] Setting up penlu10
I1001 10:43:06.182651  5182 net.cpp:129] Top shape: 100 32 14 14 (627200)
I1001 10:43:06.182652  5182 net.cpp:137] Memory required for data: 241786000
I1001 10:43:06.182657  5182 layer_factory.hpp:77] Creating layer Convolution12
I1001 10:43:06.182665  5182 net.cpp:84] Creating Layer Convolution12
I1001 10:43:06.182668  5182 net.cpp:406] Convolution12 <- Convolution11
I1001 10:43:06.182672  5182 net.cpp:380] Convolution12 -> Convolution12
I1001 10:43:06.183709  5182 net.cpp:122] Setting up Convolution12
I1001 10:43:06.183719  5182 net.cpp:129] Top shape: 100 32 14 14 (627200)
I1001 10:43:06.183722  5182 net.cpp:137] Memory required for data: 244294800
I1001 10:43:06.183727  5182 layer_factory.hpp:77] Creating layer BatchNorm12
I1001 10:43:06.183732  5182 net.cpp:84] Creating Layer BatchNorm12
I1001 10:43:06.183737  5182 net.cpp:406] BatchNorm12 <- Convolution12
I1001 10:43:06.183740  5182 net.cpp:367] BatchNorm12 -> Convolution12 (in-place)
I1001 10:43:06.183866  5182 net.cpp:122] Setting up BatchNorm12
I1001 10:43:06.183871  5182 net.cpp:129] Top shape: 100 32 14 14 (627200)
I1001 10:43:06.183873  5182 net.cpp:137] Memory required for data: 246803600
I1001 10:43:06.183877  5182 layer_factory.hpp:77] Creating layer Scale12
I1001 10:43:06.183882  5182 net.cpp:84] Creating Layer Scale12
I1001 10:43:06.183885  5182 net.cpp:406] Scale12 <- Convolution12
I1001 10:43:06.183889  5182 net.cpp:367] Scale12 -> Convolution12 (in-place)
I1001 10:43:06.183914  5182 layer_factory.hpp:77] Creating layer Scale12
I1001 10:43:06.183987  5182 net.cpp:122] Setting up Scale12
I1001 10:43:06.183992  5182 net.cpp:129] Top shape: 100 32 14 14 (627200)
I1001 10:43:06.183995  5182 net.cpp:137] Memory required for data: 249312400
I1001 10:43:06.183998  5182 layer_factory.hpp:77] Creating layer Eltwise5
I1001 10:43:06.184002  5182 net.cpp:84] Creating Layer Eltwise5
I1001 10:43:06.184005  5182 net.cpp:406] Eltwise5 <- Eltwise4_penlu9_0_split_1
I1001 10:43:06.184008  5182 net.cpp:406] Eltwise5 <- Convolution12
I1001 10:43:06.184011  5182 net.cpp:380] Eltwise5 -> Eltwise5
I1001 10:43:06.184027  5182 net.cpp:122] Setting up Eltwise5
I1001 10:43:06.184031  5182 net.cpp:129] Top shape: 100 32 14 14 (627200)
I1001 10:43:06.184033  5182 net.cpp:137] Memory required for data: 251821200
I1001 10:43:06.184036  5182 layer_factory.hpp:77] Creating layer penlu11
I1001 10:43:06.184041  5182 net.cpp:84] Creating Layer penlu11
I1001 10:43:06.184044  5182 net.cpp:406] penlu11 <- Eltwise5
I1001 10:43:06.184047  5182 net.cpp:367] penlu11 -> Eltwise5 (in-place)
I1001 10:43:06.184152  5182 net.cpp:122] Setting up penlu11
I1001 10:43:06.184157  5182 net.cpp:129] Top shape: 100 32 14 14 (627200)
I1001 10:43:06.184159  5182 net.cpp:137] Memory required for data: 254330000
I1001 10:43:06.184165  5182 layer_factory.hpp:77] Creating layer Eltwise5_penlu11_0_split
I1001 10:43:06.184168  5182 net.cpp:84] Creating Layer Eltwise5_penlu11_0_split
I1001 10:43:06.184171  5182 net.cpp:406] Eltwise5_penlu11_0_split <- Eltwise5
I1001 10:43:06.184175  5182 net.cpp:380] Eltwise5_penlu11_0_split -> Eltwise5_penlu11_0_split_0
I1001 10:43:06.184180  5182 net.cpp:380] Eltwise5_penlu11_0_split -> Eltwise5_penlu11_0_split_1
I1001 10:43:06.184202  5182 net.cpp:122] Setting up Eltwise5_penlu11_0_split
I1001 10:43:06.184206  5182 net.cpp:129] Top shape: 100 32 14 14 (627200)
I1001 10:43:06.184209  5182 net.cpp:129] Top shape: 100 32 14 14 (627200)
I1001 10:43:06.184211  5182 net.cpp:137] Memory required for data: 259347600
I1001 10:43:06.184214  5182 layer_factory.hpp:77] Creating layer Convolution13
I1001 10:43:06.184221  5182 net.cpp:84] Creating Layer Convolution13
I1001 10:43:06.184223  5182 net.cpp:406] Convolution13 <- Eltwise5_penlu11_0_split_0
I1001 10:43:06.184227  5182 net.cpp:380] Convolution13 -> Convolution13
I1001 10:43:06.185281  5182 net.cpp:122] Setting up Convolution13
I1001 10:43:06.185292  5182 net.cpp:129] Top shape: 100 32 14 14 (627200)
I1001 10:43:06.185295  5182 net.cpp:137] Memory required for data: 261856400
I1001 10:43:06.185299  5182 layer_factory.hpp:77] Creating layer BatchNorm13
I1001 10:43:06.185312  5182 net.cpp:84] Creating Layer BatchNorm13
I1001 10:43:06.185317  5182 net.cpp:406] BatchNorm13 <- Convolution13
I1001 10:43:06.185320  5182 net.cpp:367] BatchNorm13 -> Convolution13 (in-place)
I1001 10:43:06.185448  5182 net.cpp:122] Setting up BatchNorm13
I1001 10:43:06.185453  5182 net.cpp:129] Top shape: 100 32 14 14 (627200)
I1001 10:43:06.185456  5182 net.cpp:137] Memory required for data: 264365200
I1001 10:43:06.185461  5182 layer_factory.hpp:77] Creating layer Scale13
I1001 10:43:06.185467  5182 net.cpp:84] Creating Layer Scale13
I1001 10:43:06.185469  5182 net.cpp:406] Scale13 <- Convolution13
I1001 10:43:06.185472  5182 net.cpp:367] Scale13 -> Convolution13 (in-place)
I1001 10:43:06.185497  5182 layer_factory.hpp:77] Creating layer Scale13
I1001 10:43:06.185572  5182 net.cpp:122] Setting up Scale13
I1001 10:43:06.185577  5182 net.cpp:129] Top shape: 100 32 14 14 (627200)
I1001 10:43:06.185580  5182 net.cpp:137] Memory required for data: 266874000
I1001 10:43:06.185583  5182 layer_factory.hpp:77] Creating layer penlu12
I1001 10:43:06.185588  5182 net.cpp:84] Creating Layer penlu12
I1001 10:43:06.185591  5182 net.cpp:406] penlu12 <- Convolution13
I1001 10:43:06.185595  5182 net.cpp:367] penlu12 -> Convolution13 (in-place)
I1001 10:43:06.185698  5182 net.cpp:122] Setting up penlu12
I1001 10:43:06.185703  5182 net.cpp:129] Top shape: 100 32 14 14 (627200)
I1001 10:43:06.185705  5182 net.cpp:137] Memory required for data: 269382800
I1001 10:43:06.185709  5182 layer_factory.hpp:77] Creating layer Convolution14
I1001 10:43:06.185717  5182 net.cpp:84] Creating Layer Convolution14
I1001 10:43:06.185720  5182 net.cpp:406] Convolution14 <- Convolution13
I1001 10:43:06.185724  5182 net.cpp:380] Convolution14 -> Convolution14
I1001 10:43:06.186800  5182 net.cpp:122] Setting up Convolution14
I1001 10:43:06.186810  5182 net.cpp:129] Top shape: 100 32 14 14 (627200)
I1001 10:43:06.186815  5182 net.cpp:137] Memory required for data: 271891600
I1001 10:43:06.186830  5182 layer_factory.hpp:77] Creating layer BatchNorm14
I1001 10:43:06.186839  5182 net.cpp:84] Creating Layer BatchNorm14
I1001 10:43:06.186842  5182 net.cpp:406] BatchNorm14 <- Convolution14
I1001 10:43:06.186846  5182 net.cpp:367] BatchNorm14 -> Convolution14 (in-place)
I1001 10:43:06.186975  5182 net.cpp:122] Setting up BatchNorm14
I1001 10:43:06.186981  5182 net.cpp:129] Top shape: 100 32 14 14 (627200)
I1001 10:43:06.186983  5182 net.cpp:137] Memory required for data: 274400400
I1001 10:43:06.186988  5182 layer_factory.hpp:77] Creating layer Scale14
I1001 10:43:06.186995  5182 net.cpp:84] Creating Layer Scale14
I1001 10:43:06.187000  5182 net.cpp:406] Scale14 <- Convolution14
I1001 10:43:06.187002  5182 net.cpp:367] Scale14 -> Convolution14 (in-place)
I1001 10:43:06.187028  5182 layer_factory.hpp:77] Creating layer Scale14
I1001 10:43:06.187103  5182 net.cpp:122] Setting up Scale14
I1001 10:43:06.187108  5182 net.cpp:129] Top shape: 100 32 14 14 (627200)
I1001 10:43:06.187111  5182 net.cpp:137] Memory required for data: 276909200
I1001 10:43:06.187114  5182 layer_factory.hpp:77] Creating layer Eltwise6
I1001 10:43:06.187119  5182 net.cpp:84] Creating Layer Eltwise6
I1001 10:43:06.187121  5182 net.cpp:406] Eltwise6 <- Eltwise5_penlu11_0_split_1
I1001 10:43:06.187124  5182 net.cpp:406] Eltwise6 <- Convolution14
I1001 10:43:06.187129  5182 net.cpp:380] Eltwise6 -> Eltwise6
I1001 10:43:06.187142  5182 net.cpp:122] Setting up Eltwise6
I1001 10:43:06.187146  5182 net.cpp:129] Top shape: 100 32 14 14 (627200)
I1001 10:43:06.187149  5182 net.cpp:137] Memory required for data: 279418000
I1001 10:43:06.187150  5182 layer_factory.hpp:77] Creating layer penlu13
I1001 10:43:06.187155  5182 net.cpp:84] Creating Layer penlu13
I1001 10:43:06.187158  5182 net.cpp:406] penlu13 <- Eltwise6
I1001 10:43:06.187161  5182 net.cpp:367] penlu13 -> Eltwise6 (in-place)
I1001 10:43:06.187263  5182 net.cpp:122] Setting up penlu13
I1001 10:43:06.187266  5182 net.cpp:129] Top shape: 100 32 14 14 (627200)
I1001 10:43:06.187268  5182 net.cpp:137] Memory required for data: 281926800
I1001 10:43:06.187279  5182 layer_factory.hpp:77] Creating layer Eltwise6_penlu13_0_split
I1001 10:43:06.187283  5182 net.cpp:84] Creating Layer Eltwise6_penlu13_0_split
I1001 10:43:06.187286  5182 net.cpp:406] Eltwise6_penlu13_0_split <- Eltwise6
I1001 10:43:06.187289  5182 net.cpp:380] Eltwise6_penlu13_0_split -> Eltwise6_penlu13_0_split_0
I1001 10:43:06.187294  5182 net.cpp:380] Eltwise6_penlu13_0_split -> Eltwise6_penlu13_0_split_1
I1001 10:43:06.187316  5182 net.cpp:122] Setting up Eltwise6_penlu13_0_split
I1001 10:43:06.187320  5182 net.cpp:129] Top shape: 100 32 14 14 (627200)
I1001 10:43:06.187324  5182 net.cpp:129] Top shape: 100 32 14 14 (627200)
I1001 10:43:06.187325  5182 net.cpp:137] Memory required for data: 286944400
I1001 10:43:06.187327  5182 layer_factory.hpp:77] Creating layer Convolution15
I1001 10:43:06.187333  5182 net.cpp:84] Creating Layer Convolution15
I1001 10:43:06.187336  5182 net.cpp:406] Convolution15 <- Eltwise6_penlu13_0_split_0
I1001 10:43:06.187340  5182 net.cpp:380] Convolution15 -> Convolution15
I1001 10:43:06.188251  5182 net.cpp:122] Setting up Convolution15
I1001 10:43:06.188259  5182 net.cpp:129] Top shape: 100 64 7 7 (313600)
I1001 10:43:06.188262  5182 net.cpp:137] Memory required for data: 288198800
I1001 10:43:06.188266  5182 layer_factory.hpp:77] Creating layer BatchNorm15
I1001 10:43:06.188273  5182 net.cpp:84] Creating Layer BatchNorm15
I1001 10:43:06.188275  5182 net.cpp:406] BatchNorm15 <- Convolution15
I1001 10:43:06.188279  5182 net.cpp:367] BatchNorm15 -> Convolution15 (in-place)
I1001 10:43:06.188405  5182 net.cpp:122] Setting up BatchNorm15
I1001 10:43:06.188408  5182 net.cpp:129] Top shape: 100 64 7 7 (313600)
I1001 10:43:06.188411  5182 net.cpp:137] Memory required for data: 289453200
I1001 10:43:06.188416  5182 layer_factory.hpp:77] Creating layer Scale15
I1001 10:43:06.188421  5182 net.cpp:84] Creating Layer Scale15
I1001 10:43:06.188422  5182 net.cpp:406] Scale15 <- Convolution15
I1001 10:43:06.188426  5182 net.cpp:367] Scale15 -> Convolution15 (in-place)
I1001 10:43:06.188450  5182 layer_factory.hpp:77] Creating layer Scale15
I1001 10:43:06.188522  5182 net.cpp:122] Setting up Scale15
I1001 10:43:06.188526  5182 net.cpp:129] Top shape: 100 64 7 7 (313600)
I1001 10:43:06.188529  5182 net.cpp:137] Memory required for data: 290707600
I1001 10:43:06.188532  5182 layer_factory.hpp:77] Creating layer Convolution16
I1001 10:43:06.188539  5182 net.cpp:84] Creating Layer Convolution16
I1001 10:43:06.188541  5182 net.cpp:406] Convolution16 <- Eltwise6_penlu13_0_split_1
I1001 10:43:06.188545  5182 net.cpp:380] Convolution16 -> Convolution16
I1001 10:43:06.190263  5182 net.cpp:122] Setting up Convolution16
I1001 10:43:06.190271  5182 net.cpp:129] Top shape: 100 64 7 7 (313600)
I1001 10:43:06.190274  5182 net.cpp:137] Memory required for data: 291962000
I1001 10:43:06.190279  5182 layer_factory.hpp:77] Creating layer BatchNorm16
I1001 10:43:06.190284  5182 net.cpp:84] Creating Layer BatchNorm16
I1001 10:43:06.190286  5182 net.cpp:406] BatchNorm16 <- Convolution16
I1001 10:43:06.190290  5182 net.cpp:367] BatchNorm16 -> Convolution16 (in-place)
I1001 10:43:06.190416  5182 net.cpp:122] Setting up BatchNorm16
I1001 10:43:06.190420  5182 net.cpp:129] Top shape: 100 64 7 7 (313600)
I1001 10:43:06.190423  5182 net.cpp:137] Memory required for data: 293216400
I1001 10:43:06.190428  5182 layer_factory.hpp:77] Creating layer Scale16
I1001 10:43:06.190433  5182 net.cpp:84] Creating Layer Scale16
I1001 10:43:06.190434  5182 net.cpp:406] Scale16 <- Convolution16
I1001 10:43:06.190438  5182 net.cpp:367] Scale16 -> Convolution16 (in-place)
I1001 10:43:06.190462  5182 layer_factory.hpp:77] Creating layer Scale16
I1001 10:43:06.190553  5182 net.cpp:122] Setting up Scale16
I1001 10:43:06.190567  5182 net.cpp:129] Top shape: 100 64 7 7 (313600)
I1001 10:43:06.190569  5182 net.cpp:137] Memory required for data: 294470800
I1001 10:43:06.190573  5182 layer_factory.hpp:77] Creating layer penlu14
I1001 10:43:06.190578  5182 net.cpp:84] Creating Layer penlu14
I1001 10:43:06.190587  5182 net.cpp:406] penlu14 <- Convolution16
I1001 10:43:06.190592  5182 net.cpp:367] penlu14 -> Convolution16 (in-place)
I1001 10:43:06.190695  5182 net.cpp:122] Setting up penlu14
I1001 10:43:06.190699  5182 net.cpp:129] Top shape: 100 64 7 7 (313600)
I1001 10:43:06.190701  5182 net.cpp:137] Memory required for data: 295725200
I1001 10:43:06.190706  5182 layer_factory.hpp:77] Creating layer Convolution17
I1001 10:43:06.190712  5182 net.cpp:84] Creating Layer Convolution17
I1001 10:43:06.190714  5182 net.cpp:406] Convolution17 <- Convolution16
I1001 10:43:06.190718  5182 net.cpp:380] Convolution17 -> Convolution17
I1001 10:43:06.192369  5182 net.cpp:122] Setting up Convolution17
I1001 10:43:06.192378  5182 net.cpp:129] Top shape: 100 64 7 7 (313600)
I1001 10:43:06.192380  5182 net.cpp:137] Memory required for data: 296979600
I1001 10:43:06.192385  5182 layer_factory.hpp:77] Creating layer BatchNorm17
I1001 10:43:06.192390  5182 net.cpp:84] Creating Layer BatchNorm17
I1001 10:43:06.192392  5182 net.cpp:406] BatchNorm17 <- Convolution17
I1001 10:43:06.192399  5182 net.cpp:367] BatchNorm17 -> Convolution17 (in-place)
I1001 10:43:06.192528  5182 net.cpp:122] Setting up BatchNorm17
I1001 10:43:06.192533  5182 net.cpp:129] Top shape: 100 64 7 7 (313600)
I1001 10:43:06.192534  5182 net.cpp:137] Memory required for data: 298234000
I1001 10:43:06.192539  5182 layer_factory.hpp:77] Creating layer Scale17
I1001 10:43:06.192543  5182 net.cpp:84] Creating Layer Scale17
I1001 10:43:06.192546  5182 net.cpp:406] Scale17 <- Convolution17
I1001 10:43:06.192549  5182 net.cpp:367] Scale17 -> Convolution17 (in-place)
I1001 10:43:06.192574  5182 layer_factory.hpp:77] Creating layer Scale17
I1001 10:43:06.192680  5182 net.cpp:122] Setting up Scale17
I1001 10:43:06.192684  5182 net.cpp:129] Top shape: 100 64 7 7 (313600)
I1001 10:43:06.192687  5182 net.cpp:137] Memory required for data: 299488400
I1001 10:43:06.192690  5182 layer_factory.hpp:77] Creating layer Eltwise7
I1001 10:43:06.192695  5182 net.cpp:84] Creating Layer Eltwise7
I1001 10:43:06.192698  5182 net.cpp:406] Eltwise7 <- Convolution15
I1001 10:43:06.192700  5182 net.cpp:406] Eltwise7 <- Convolution17
I1001 10:43:06.192703  5182 net.cpp:380] Eltwise7 -> Eltwise7
I1001 10:43:06.192718  5182 net.cpp:122] Setting up Eltwise7
I1001 10:43:06.192723  5182 net.cpp:129] Top shape: 100 64 7 7 (313600)
I1001 10:43:06.192724  5182 net.cpp:137] Memory required for data: 300742800
I1001 10:43:06.192726  5182 layer_factory.hpp:77] Creating layer penlu15
I1001 10:43:06.192731  5182 net.cpp:84] Creating Layer penlu15
I1001 10:43:06.192734  5182 net.cpp:406] penlu15 <- Eltwise7
I1001 10:43:06.192737  5182 net.cpp:367] penlu15 -> Eltwise7 (in-place)
I1001 10:43:06.192849  5182 net.cpp:122] Setting up penlu15
I1001 10:43:06.192853  5182 net.cpp:129] Top shape: 100 64 7 7 (313600)
I1001 10:43:06.192855  5182 net.cpp:137] Memory required for data: 301997200
I1001 10:43:06.192860  5182 layer_factory.hpp:77] Creating layer Eltwise7_penlu15_0_split
I1001 10:43:06.192863  5182 net.cpp:84] Creating Layer Eltwise7_penlu15_0_split
I1001 10:43:06.192867  5182 net.cpp:406] Eltwise7_penlu15_0_split <- Eltwise7
I1001 10:43:06.192869  5182 net.cpp:380] Eltwise7_penlu15_0_split -> Eltwise7_penlu15_0_split_0
I1001 10:43:06.192873  5182 net.cpp:380] Eltwise7_penlu15_0_split -> Eltwise7_penlu15_0_split_1
I1001 10:43:06.192894  5182 net.cpp:122] Setting up Eltwise7_penlu15_0_split
I1001 10:43:06.192898  5182 net.cpp:129] Top shape: 100 64 7 7 (313600)
I1001 10:43:06.192900  5182 net.cpp:129] Top shape: 100 64 7 7 (313600)
I1001 10:43:06.192903  5182 net.cpp:137] Memory required for data: 304506000
I1001 10:43:06.192904  5182 layer_factory.hpp:77] Creating layer Convolution18
I1001 10:43:06.192910  5182 net.cpp:84] Creating Layer Convolution18
I1001 10:43:06.192914  5182 net.cpp:406] Convolution18 <- Eltwise7_penlu15_0_split_0
I1001 10:43:06.192916  5182 net.cpp:380] Convolution18 -> Convolution18
I1001 10:43:06.194629  5182 net.cpp:122] Setting up Convolution18
I1001 10:43:06.194638  5182 net.cpp:129] Top shape: 100 64 7 7 (313600)
I1001 10:43:06.194648  5182 net.cpp:137] Memory required for data: 305760400
I1001 10:43:06.194651  5182 layer_factory.hpp:77] Creating layer BatchNorm18
I1001 10:43:06.194658  5182 net.cpp:84] Creating Layer BatchNorm18
I1001 10:43:06.194660  5182 net.cpp:406] BatchNorm18 <- Convolution18
I1001 10:43:06.194664  5182 net.cpp:367] BatchNorm18 -> Convolution18 (in-place)
I1001 10:43:06.194826  5182 net.cpp:122] Setting up BatchNorm18
I1001 10:43:06.194830  5182 net.cpp:129] Top shape: 100 64 7 7 (313600)
I1001 10:43:06.194833  5182 net.cpp:137] Memory required for data: 307014800
I1001 10:43:06.194838  5182 layer_factory.hpp:77] Creating layer Scale18
I1001 10:43:06.194842  5182 net.cpp:84] Creating Layer Scale18
I1001 10:43:06.194844  5182 net.cpp:406] Scale18 <- Convolution18
I1001 10:43:06.194849  5182 net.cpp:367] Scale18 -> Convolution18 (in-place)
I1001 10:43:06.194895  5182 layer_factory.hpp:77] Creating layer Scale18
I1001 10:43:06.195017  5182 net.cpp:122] Setting up Scale18
I1001 10:43:06.195024  5182 net.cpp:129] Top shape: 100 64 7 7 (313600)
I1001 10:43:06.195026  5182 net.cpp:137] Memory required for data: 308269200
I1001 10:43:06.195032  5182 layer_factory.hpp:77] Creating layer penlu16
I1001 10:43:06.195041  5182 net.cpp:84] Creating Layer penlu16
I1001 10:43:06.195046  5182 net.cpp:406] penlu16 <- Convolution18
I1001 10:43:06.195060  5182 net.cpp:367] penlu16 -> Convolution18 (in-place)
I1001 10:43:06.195207  5182 net.cpp:122] Setting up penlu16
I1001 10:43:06.195211  5182 net.cpp:129] Top shape: 100 64 7 7 (313600)
I1001 10:43:06.195214  5182 net.cpp:137] Memory required for data: 309523600
I1001 10:43:06.195217  5182 layer_factory.hpp:77] Creating layer Convolution19
I1001 10:43:06.195225  5182 net.cpp:84] Creating Layer Convolution19
I1001 10:43:06.195227  5182 net.cpp:406] Convolution19 <- Convolution18
I1001 10:43:06.195231  5182 net.cpp:380] Convolution19 -> Convolution19
I1001 10:43:06.197338  5182 net.cpp:122] Setting up Convolution19
I1001 10:43:06.197350  5182 net.cpp:129] Top shape: 100 64 7 7 (313600)
I1001 10:43:06.197361  5182 net.cpp:137] Memory required for data: 310778000
I1001 10:43:06.197366  5182 layer_factory.hpp:77] Creating layer BatchNorm19
I1001 10:43:06.197372  5182 net.cpp:84] Creating Layer BatchNorm19
I1001 10:43:06.197376  5182 net.cpp:406] BatchNorm19 <- Convolution19
I1001 10:43:06.197381  5182 net.cpp:367] BatchNorm19 -> Convolution19 (in-place)
I1001 10:43:06.197533  5182 net.cpp:122] Setting up BatchNorm19
I1001 10:43:06.197538  5182 net.cpp:129] Top shape: 100 64 7 7 (313600)
I1001 10:43:06.197540  5182 net.cpp:137] Memory required for data: 312032400
I1001 10:43:06.197554  5182 layer_factory.hpp:77] Creating layer Scale19
I1001 10:43:06.197559  5182 net.cpp:84] Creating Layer Scale19
I1001 10:43:06.197562  5182 net.cpp:406] Scale19 <- Convolution19
I1001 10:43:06.197567  5182 net.cpp:367] Scale19 -> Convolution19 (in-place)
I1001 10:43:06.197594  5182 layer_factory.hpp:77] Creating layer Scale19
I1001 10:43:06.197691  5182 net.cpp:122] Setting up Scale19
I1001 10:43:06.197697  5182 net.cpp:129] Top shape: 100 64 7 7 (313600)
I1001 10:43:06.197700  5182 net.cpp:137] Memory required for data: 313286800
I1001 10:43:06.197703  5182 layer_factory.hpp:77] Creating layer Eltwise8
I1001 10:43:06.197710  5182 net.cpp:84] Creating Layer Eltwise8
I1001 10:43:06.197712  5182 net.cpp:406] Eltwise8 <- Eltwise7_penlu15_0_split_1
I1001 10:43:06.197716  5182 net.cpp:406] Eltwise8 <- Convolution19
I1001 10:43:06.197721  5182 net.cpp:380] Eltwise8 -> Eltwise8
I1001 10:43:06.197737  5182 net.cpp:122] Setting up Eltwise8
I1001 10:43:06.197742  5182 net.cpp:129] Top shape: 100 64 7 7 (313600)
I1001 10:43:06.197744  5182 net.cpp:137] Memory required for data: 314541200
I1001 10:43:06.197746  5182 layer_factory.hpp:77] Creating layer penlu17
I1001 10:43:06.197752  5182 net.cpp:84] Creating Layer penlu17
I1001 10:43:06.197754  5182 net.cpp:406] penlu17 <- Eltwise8
I1001 10:43:06.197757  5182 net.cpp:367] penlu17 -> Eltwise8 (in-place)
I1001 10:43:06.197883  5182 net.cpp:122] Setting up penlu17
I1001 10:43:06.197896  5182 net.cpp:129] Top shape: 100 64 7 7 (313600)
I1001 10:43:06.197899  5182 net.cpp:137] Memory required for data: 315795600
I1001 10:43:06.197903  5182 layer_factory.hpp:77] Creating layer Eltwise8_penlu17_0_split
I1001 10:43:06.197908  5182 net.cpp:84] Creating Layer Eltwise8_penlu17_0_split
I1001 10:43:06.197911  5182 net.cpp:406] Eltwise8_penlu17_0_split <- Eltwise8
I1001 10:43:06.197916  5182 net.cpp:380] Eltwise8_penlu17_0_split -> Eltwise8_penlu17_0_split_0
I1001 10:43:06.197919  5182 net.cpp:380] Eltwise8_penlu17_0_split -> Eltwise8_penlu17_0_split_1
I1001 10:43:06.197944  5182 net.cpp:122] Setting up Eltwise8_penlu17_0_split
I1001 10:43:06.197949  5182 net.cpp:129] Top shape: 100 64 7 7 (313600)
I1001 10:43:06.197953  5182 net.cpp:129] Top shape: 100 64 7 7 (313600)
I1001 10:43:06.197955  5182 net.cpp:137] Memory required for data: 318304400
I1001 10:43:06.197957  5182 layer_factory.hpp:77] Creating layer Convolution20
I1001 10:43:06.197963  5182 net.cpp:84] Creating Layer Convolution20
I1001 10:43:06.197968  5182 net.cpp:406] Convolution20 <- Eltwise8_penlu17_0_split_0
I1001 10:43:06.197971  5182 net.cpp:380] Convolution20 -> Convolution20
I1001 10:43:06.199635  5182 net.cpp:122] Setting up Convolution20
I1001 10:43:06.199646  5182 net.cpp:129] Top shape: 100 64 7 7 (313600)
I1001 10:43:06.199650  5182 net.cpp:137] Memory required for data: 319558800
I1001 10:43:06.199654  5182 layer_factory.hpp:77] Creating layer BatchNorm20
I1001 10:43:06.199661  5182 net.cpp:84] Creating Layer BatchNorm20
I1001 10:43:06.199663  5182 net.cpp:406] BatchNorm20 <- Convolution20
I1001 10:43:06.199667  5182 net.cpp:367] BatchNorm20 -> Convolution20 (in-place)
I1001 10:43:06.199800  5182 net.cpp:122] Setting up BatchNorm20
I1001 10:43:06.199805  5182 net.cpp:129] Top shape: 100 64 7 7 (313600)
I1001 10:43:06.199808  5182 net.cpp:137] Memory required for data: 320813200
I1001 10:43:06.199813  5182 layer_factory.hpp:77] Creating layer Scale20
I1001 10:43:06.199817  5182 net.cpp:84] Creating Layer Scale20
I1001 10:43:06.199820  5182 net.cpp:406] Scale20 <- Convolution20
I1001 10:43:06.199826  5182 net.cpp:367] Scale20 -> Convolution20 (in-place)
I1001 10:43:06.199851  5182 layer_factory.hpp:77] Creating layer Scale20
I1001 10:43:06.199929  5182 net.cpp:122] Setting up Scale20
I1001 10:43:06.199934  5182 net.cpp:129] Top shape: 100 64 7 7 (313600)
I1001 10:43:06.199937  5182 net.cpp:137] Memory required for data: 322067600
I1001 10:43:06.199941  5182 layer_factory.hpp:77] Creating layer penlu18
I1001 10:43:06.199949  5182 net.cpp:84] Creating Layer penlu18
I1001 10:43:06.199951  5182 net.cpp:406] penlu18 <- Convolution20
I1001 10:43:06.199955  5182 net.cpp:367] penlu18 -> Convolution20 (in-place)
I1001 10:43:06.200062  5182 net.cpp:122] Setting up penlu18
I1001 10:43:06.200067  5182 net.cpp:129] Top shape: 100 64 7 7 (313600)
I1001 10:43:06.200068  5182 net.cpp:137] Memory required for data: 323322000
I1001 10:43:06.200073  5182 layer_factory.hpp:77] Creating layer Convolution21
I1001 10:43:06.200079  5182 net.cpp:84] Creating Layer Convolution21
I1001 10:43:06.200081  5182 net.cpp:406] Convolution21 <- Convolution20
I1001 10:43:06.200085  5182 net.cpp:380] Convolution21 -> Convolution21
I1001 10:43:06.202356  5182 net.cpp:122] Setting up Convolution21
I1001 10:43:06.202364  5182 net.cpp:129] Top shape: 100 64 7 7 (313600)
I1001 10:43:06.202368  5182 net.cpp:137] Memory required for data: 324576400
I1001 10:43:06.202373  5182 layer_factory.hpp:77] Creating layer BatchNorm21
I1001 10:43:06.202378  5182 net.cpp:84] Creating Layer BatchNorm21
I1001 10:43:06.202380  5182 net.cpp:406] BatchNorm21 <- Convolution21
I1001 10:43:06.202384  5182 net.cpp:367] BatchNorm21 -> Convolution21 (in-place)
I1001 10:43:06.202524  5182 net.cpp:122] Setting up BatchNorm21
I1001 10:43:06.202530  5182 net.cpp:129] Top shape: 100 64 7 7 (313600)
I1001 10:43:06.202533  5182 net.cpp:137] Memory required for data: 325830800
I1001 10:43:06.202538  5182 layer_factory.hpp:77] Creating layer Scale21
I1001 10:43:06.202543  5182 net.cpp:84] Creating Layer Scale21
I1001 10:43:06.202551  5182 net.cpp:406] Scale21 <- Convolution21
I1001 10:43:06.202554  5182 net.cpp:367] Scale21 -> Convolution21 (in-place)
I1001 10:43:06.202584  5182 layer_factory.hpp:77] Creating layer Scale21
I1001 10:43:06.202661  5182 net.cpp:122] Setting up Scale21
I1001 10:43:06.202666  5182 net.cpp:129] Top shape: 100 64 7 7 (313600)
I1001 10:43:06.202667  5182 net.cpp:137] Memory required for data: 327085200
I1001 10:43:06.202672  5182 layer_factory.hpp:77] Creating layer Eltwise9
I1001 10:43:06.202677  5182 net.cpp:84] Creating Layer Eltwise9
I1001 10:43:06.202679  5182 net.cpp:406] Eltwise9 <- Eltwise8_penlu17_0_split_1
I1001 10:43:06.202682  5182 net.cpp:406] Eltwise9 <- Convolution21
I1001 10:43:06.202685  5182 net.cpp:380] Eltwise9 -> Eltwise9
I1001 10:43:06.202702  5182 net.cpp:122] Setting up Eltwise9
I1001 10:43:06.202705  5182 net.cpp:129] Top shape: 100 64 7 7 (313600)
I1001 10:43:06.202708  5182 net.cpp:137] Memory required for data: 328339600
I1001 10:43:06.202709  5182 layer_factory.hpp:77] Creating layer penlu19
I1001 10:43:06.202714  5182 net.cpp:84] Creating Layer penlu19
I1001 10:43:06.202716  5182 net.cpp:406] penlu19 <- Eltwise9
I1001 10:43:06.202720  5182 net.cpp:367] penlu19 -> Eltwise9 (in-place)
I1001 10:43:06.202826  5182 net.cpp:122] Setting up penlu19
I1001 10:43:06.202831  5182 net.cpp:129] Top shape: 100 64 7 7 (313600)
I1001 10:43:06.202832  5182 net.cpp:137] Memory required for data: 329594000
I1001 10:43:06.202837  5182 layer_factory.hpp:77] Creating layer Pooling1
I1001 10:43:06.202841  5182 net.cpp:84] Creating Layer Pooling1
I1001 10:43:06.202843  5182 net.cpp:406] Pooling1 <- Eltwise9
I1001 10:43:06.202847  5182 net.cpp:380] Pooling1 -> Pooling1
I1001 10:43:06.202992  5182 net.cpp:122] Setting up Pooling1
I1001 10:43:06.202998  5182 net.cpp:129] Top shape: 100 64 1 1 (6400)
I1001 10:43:06.203001  5182 net.cpp:137] Memory required for data: 329619600
I1001 10:43:06.203003  5182 layer_factory.hpp:77] Creating layer InnerProduct1
I1001 10:43:06.203013  5182 net.cpp:84] Creating Layer InnerProduct1
I1001 10:43:06.203016  5182 net.cpp:406] InnerProduct1 <- Pooling1
I1001 10:43:06.203019  5182 net.cpp:380] InnerProduct1 -> InnerProduct1
I1001 10:43:06.203114  5182 net.cpp:122] Setting up InnerProduct1
I1001 10:43:06.203117  5182 net.cpp:129] Top shape: 100 10 (1000)
I1001 10:43:06.203119  5182 net.cpp:137] Memory required for data: 329623600
I1001 10:43:06.203124  5182 layer_factory.hpp:77] Creating layer SoftmaxWithLoss1
I1001 10:43:06.203127  5182 net.cpp:84] Creating Layer SoftmaxWithLoss1
I1001 10:43:06.203130  5182 net.cpp:406] SoftmaxWithLoss1 <- InnerProduct1
I1001 10:43:06.203133  5182 net.cpp:406] SoftmaxWithLoss1 <- Data2
I1001 10:43:06.203137  5182 net.cpp:380] SoftmaxWithLoss1 -> SoftmaxWithLoss1
…
I1001 10:43:06.205838  5182 net.cpp:294] The NetState phase (1) differed from the phase (0) specified by a rule in layer Data1
I1001 10:43:06.206326  5182 net.cpp:51] Initializing net from parameters: 
name: "resnet_cifar10"
state {
  phase: TEST
}
layer {
  name: "Data1"
  type: "Data"
  top: "Data1"
  top: "Data2"
  include {
    phase: TEST
  }
  transform_param {
    mean_file: "/home/x306/caffe/xn/PENLU/data/cifar10/mean.binaryproto"
  }
  data_param {
    source: "/home/x306/caffe/xn/PENLU/data/cifar10/cifar10_test_lmdb"
    batch_size: 100
    backend: LMDB
  }
}
layer {
  name: "Convolution1"
  type: "Convolution"
  bottom: "Data1"
  top: "Convolution1"
  param {
    lr_mult: 1
    decay_mult: 1
  }
  param {
    lr_mult: 2
    decay_mult: 0
  }
  convolution_param {
    num_output: 16
    pad: 1
    kernel_size: 3
    stride: 1
    weight_filler {
      type: "gaussian"
      std: 0.118
    }
    bias_filler {
      type: "constant"
      value: 0
    }
  }
}
layer {
  name: "BatchNorm1"
  type: "BatchNorm"
  bottom: "Convolution1"
  top: "Convolution1"
  param {
    lr_mult: 0
    decay_mult: 0
  }
  param {
    lr_mult: 0
    decay_mult: 0
  }
  param {
    lr_mult: 0
    decay_mult: 0
  }
}
layer {
  name: "Scale1"
  type: "Scale"
  bottom: "Convolution1"
  top: "Convolution1"
  scale_param {
    bias_term: true
  }
}
layer {
  name: "penlu1"
  type: "PENLU"
  bottom: "Convolution1"
  top: "Convolution1"
  param {
    lr_mult: 2
    decay_mult: 2
  }
  param {
    lr_mult: 2
    decay_mult: 2
  }
  param {
    lr_mult: 0
    decay_mult: 0
  }
  penlu_param {
    alpha_filler {
      type: "constant"
      value: 0.25
    }
    beta_filler {
      type: "constant"
      value: 1
    }
    eta_filler {
      type: "constant"
      value: 1
    }
  }
}
layer {
  name: "Convolution2"
  type: "Convolution"
  bottom: "Convolution1"
  top: "Convolution2"
  param {
    lr_mult: 1
    decay_mult: 1
  }
  param {
    lr_mult: 2
    decay_mult: 0
  }
  convolution_param {
    num_output: 16
    pad: 1
    kernel_size: 3
    stride: 1
    weight_filler {
      type: "gaussian"
      std: 0.118
    }
    bias_filler {
      type: "constant"
      value: 0
    }
  }
}
layer {
  name: "BatchNorm2"
  type: "BatchNorm"
  bottom: "Convolution2"
  top: "Convolution2"
  param {
    lr_mult: 0
    decay_mult: 0
  }
  param {
    lr_mult: 0
    decay_mult: 0
  }
  param {
    lr_mult: 0
    decay_mult: 0
  }
}
layer {
  name: "Scale2"
  type: "Scale"
  bottom: "Convolution2"
  top: "Convolution2"
  scale_param {
    bias_term: true
  }
}
layer {
  name: "penlu2"
  type: "PENLU"
  bottom: "Convolution2"
  top: "Convolution2"
  param {
    lr_mult: 2
    decay_mult: 2
  }
  param {
    lr_mult: 2
    decay_mult: 2
  }
  param {
    lr_mult: 0
    decay_mult: 0
  }
  penlu_param {
    alpha_filler {
      type: "constant"
      value: 0.25
    }
    beta_filler {
      type: "constant"
      value: 1
    }
    eta_filler {
      type: "constant"
      value: 1
    }
  }
}
layer {
  name: "Convolution3"
  type: "Convolution"
  bottom: "Convolution2"
  top: "Convolution3"
  param {
    lr_mult: 1
    decay_mult: 1
  }
  param {
    lr_mult: 2
    decay_mult: 0
  }
  convolution_param {
    num_output: 16
    pad: 1
    kernel_size: 3
    stride: 1
    weight_filler {
      type: "gaussian"
      std: 0.118
    }
    bias_filler {
      type: "constant"
      value: 0
    }
  }
}
layer {
  name: "BatchNorm3"
  type: "BatchNorm"
  bottom: "Convolution3"
  top: "Convolution3"
  param {
    lr_mult: 0
    decay_mult: 0
  }
  param {
    lr_mult: 0
    decay_mult: 0
  }
  param {
    lr_mult: 0
    decay_mult: 0
  }
}
layer {
  name: "Scale3"
  type: "Scale"
  bottom: "Convolution3"
  top: "Convolution3"
  scale_param {
    bias_term: true
  }
}
layer {
  name: "Eltwise1"
  type: "Eltwise"
  bottom: "Convolution1"
  bottom: "Convolution3"
  top: "Eltwise1"
  eltwise_param {
    operation: SUM
  }
}
layer {
  name: "penlu3"
  type: "PENLU"
  bottom: "Eltwise1"
  top: "Eltwise1"
  param {
    lr_mult: 2
    decay_mult: 2
  }
  param {
    lr_mult: 2
    decay_mult: 2
  }
  param {
    lr_mult: 0
    decay_mult: 0
  }
  penlu_param {
    alpha_filler {
      type: "constant"
      value: 0.25
    }
    beta_filler {
      type: "constant"
      value: 1
    }
    eta_filler {
      type: "constant"
      value: 1
    }
  }
}
layer {
  name: "Convolution4"
  type: "Convolution"
  bottom: "Eltwise1"
  top: "Convolution4"
  param {
    lr_mult: 1
    decay_mult: 1
  }
  param {
    lr_mult: 2
    decay_mult: 0
  }
  convolution_param {
    num_output: 16
    pad: 1
    kernel_size: 3
    stride: 1
    weight_filler {
      type: "gaussian"
      std: 0.118
    }
    bias_filler {
      type: "constant"
      value: 0
    }
  }
}
layer {
  name: "BatchNorm4"
  type: "BatchNorm"
  bottom: "Convolution4"
  top: "Convolution4"
  param {
    lr_mult: 0
    decay_mult: 0
  }
  param {
    lr_mult: 0
    decay_mult: 0
  }
  param {
    lr_mult: 0
    decay_mult: 0
  }
}
layer {
  name: "Scale4"
  type: "Scale"
  bottom: "Convolution4"
  top: "Convolution4"
  scale_param {
    bias_term: true
  }
}
layer {
  name: "penlu4"
  type: "PENLU"
  bottom: "Convolution4"
  top: "Convolution4"
  param {
    lr_mult: 2
    decay_mult: 2
  }
  param {
    lr_mult: 2
    decay_mult: 2
  }
  param {
    lr_mult: 0
    decay_mult: 0
  }
  penlu_param {
    alpha_filler {
      type: "constant"
      value: 0.25
    }
    beta_filler {
      type: "constant"
      value: 1
    }
    eta_filler {
      type: "constant"
      value: 1
    }
  }
}
layer {
  name: "Convolution5"
  type: "Convolution"
  bottom: "Convolution4"
  top: "Convolution5"
  param {
    lr_mult: 1
    decay_mult: 1
  }
  param {
    lr_mult: 2
    decay_mult: 0
  }
  convolution_param {
    num_output: 16
    pad: 1
    kernel_size: 3
    stride: 1
    weight_filler {
      type: "gaussian"
      std: 0.118
    }
    bias_filler {
      type: "constant"
      value: 0
    }
  }
}
layer {
  name: "BatchNorm5"
  type: "BatchNorm"
  bottom: "Convolution5"
  top: "Convolution5"
  param {
    lr_mult: 0
    decay_mult: 0
  }
  param {
    lr_mult: 0
    decay_mult: 0
  }
  param {
    lr_mult: 0
    decay_mult: 0
  }
}
layer {
  name: "Scale5"
  type: "Scale"
  bottom: "Convolution5"
  top: "Convolution5"
  scale_param {
    bias_term: true
  }
}
layer {
  name: "Eltwise2"
  type: "Eltwise"
  bottom: "Eltwise1"
  bottom: "Convolution5"
  top: "Eltwise2"
  eltwise_param {
    operation: SUM
  }
}
layer {
  name: "penlu5"
  type: "PENLU"
  bottom: "Eltwise2"
  top: "Eltwise2"
  param {
    lr_mult: 2
    decay_mult: 2
  }
  param {
    lr_mult: 2
    decay_mult: 2
  }
  param {
    lr_mult: 0
    decay_mult: 0
  }
  penlu_param {
    alpha_filler {
      type: "constant"
      value: 0.25
    }
    beta_filler {
      type: "constant"
      value: 1
    }
    eta_filler {
      type: "constant"
      value: 1
    }
  }
}
layer {
  name: "Convolution6"
  type: "Convolution"
  bottom: "Eltwise2"
  top: "Convolution6"
  param {
    lr_mult: 1
    decay_mult: 1
  }
  param {
    lr_mult: 2
    decay_mult: 0
  }
  convolution_param {
    num_output: 16
    pad: 1
    kernel_size: 3
    stride: 1
    weight_filler {
      type: "gaussian"
      std: 0.118
    }
    bias_filler {
      type: "constant"
      value: 0
    }
  }
}
layer {
  name: "BatchNorm6"
  type: "BatchNorm"
  bottom: "Convolution6"
  top: "Convolution6"
  param {
    lr_mult: 0
    decay_mult: 0
  }
  param {
    lr_mult: 0
    decay_mult: 0
  }
  param {
    lr_mult: 0
    decay_mult: 0
  }
}
layer {
  name: "Scale6"
  type: "Scale"
  bottom: "Convolution6"
  top: "Convolution6"
  scale_param {
    bias_term: true
  }
}
layer {
  name: "penlu6"
  type: "PENLU"
  bottom: "Convolution6"
  top: "Convolution6"
  param {
    lr_mult: 2
    decay_mult: 2
  }
  param {
    lr_mult: 2
    decay_mult: 2
  }
  param {
    lr_mult: 0
    decay_mult: 0
  }
  penlu_param {
    alpha_filler {
      type: "constant"
      value: 0.25
    }
    beta_filler {
      type: "constant"
      value: 1
    }
    eta_filler {
      type: "constant"
      value: 1
    }
  }
}
layer {
  name: "Convolution7"
  type: "Convolution"
  bottom: "Convolution6"
  top: "Convolution7"
  param {
    lr_mult: 1
    decay_mult: 1
  }
  param {
    lr_mult: 2
    decay_mult: 0
  }
  convolution_param {
    num_output: 16
    pad: 1
    kernel_size: 3
    stride: 1
    weight_filler {
      type: "gaussian"
      std: 0.118
    }
    bias_filler {
      type: "constant"
      value: 0
    }
  }
}
layer {
  name: "BatchNorm7"
  type: "BatchNorm"
  bottom: "Convolution7"
  top: "Convolution7"
  param {
    lr_mult: 0
    decay_mult: 0
  }
  param {
    lr_mult: 0
    decay_mult: 0
  }
  param {
    lr_mult: 0
    decay_mult: 0
  }
}
layer {
  name: "Scale7"
  type: "Scale"
  bottom: "Convolution7"
  top: "Convolution7"
  scale_param {
    bias_term: true
  }
}
layer {
  name: "Eltwise3"
  type: "Eltwise"
  bottom: "Eltwise2"
  bottom: "Convolution7"
  top: "Eltwise3"
  eltwise_param {
    operation: SUM
  }
}
layer {
  name: "penlu7"
  type: "PENLU"
  bottom: "Eltwise3"
  top: "Eltwise3"
  param {
    lr_mult: 2
    decay_mult: 2
  }
  param {
    lr_mult: 2
    decay_mult: 2
  }
  param {
    lr_mult: 0
    decay_mult: 0
  }
  penlu_param {
    alpha_filler {
      type: "constant"
      value: 0.25
    }
    beta_filler {
      type: "constant"
      value: 1
    }
    eta_filler {
      type: "constant"
      value: 1
    }
  }
}
layer {
  name: "Convolution8"
  type: "Convolution"
  bottom: "Eltwise3"
  top: "Convolution8"
  param {
    lr_mult: 1
    decay_mult: 1
  }
  param {
    lr_mult: 2
    decay_mult: 0
  }
  convolution_param {
    num_output: 32
    pad: 0
    kernel_size: 1
    stride: 2
    weight_filler {
      type: "gaussian"
      std: 0.25
    }
    bias_filler {
      type: "constant"
      value: 0
    }
  }
}
layer {
  name: "BatchNorm8"
  type: "BatchNorm"
  bottom: "Convolution8"
  top: "Convolution8"
  param {
    lr_mult: 0
    decay_mult: 0
  }
  param {
    lr_mult: 0
    decay_mult: 0
  }
  param {
    lr_mult: 0
    decay_mult: 0
  }
}
layer {
  name: "Scale8"
  type: "Scale"
  bottom: "Convolution8"
  top: "Convolution8"
  scale_param {
    bias_term: true
  }
}
layer {
  name: "Convolution9"
  type: "Convolution"
  bottom: "Eltwise3"
  top: "Convolution9"
  param {
    lr_mult: 1
    decay_mult: 1
  }
  param {
    lr_mult: 2
    decay_mult: 0
  }
  convolution_param {
    num_output: 32
    pad: 1
    kernel_size: 3
    stride: 2
    weight_filler {
      type: "gaussian"
      std: 0.083
    }
    bias_filler {
      type: "constant"
      value: 0
    }
  }
}
layer {
  name: "BatchNorm9"
  type: "BatchNorm"
  bottom: "Convolution9"
  top: "Convolution9"
  param {
    lr_mult: 0
    decay_mult: 0
  }
  param {
    lr_mult: 0
    decay_mult: 0
  }
  param {
    lr_mult: 0
    decay_mult: 0
  }
}
layer {
  name: "Scale9"
  type: "Scale"
  bottom: "Convolution9"
  top: "Convolution9"
  scale_param {
    bias_term: true
  }
}
layer {
  name: "penlu8"
  type: "PENLU"
  bottom: "Convolution9"
  top: "Convolution9"
  param {
    lr_mult: 2
    decay_mult: 2
  }
  param {
    lr_mult: 2
    decay_mult: 2
  }
  param {
    lr_mult: 0
    decay_mult: 0
  }
  penlu_param {
    alpha_filler {
      type: "constant"
      value: 0.25
    }
    beta_filler {
      type: "constant"
      value: 1
    }
    eta_filler {
      type: "constant"
      value: 1
    }
  }
}
layer {
  name: "Convolution10"
  type: "Convolution"
  bottom: "Convolution9"
  top: "Convolution10"
  param {
    lr_mult: 1
    decay_mult: 1
  }
  param {
    lr_mult: 2
    decay_mult: 0
  }
  convolution_param {
    num_output: 32
    pad: 1
    kernel_size: 3
    stride: 1
    weight_filler {
      type: "gaussian"
      std: 0.083
    }
    bias_filler {
      type: "constant"
      value: 0
    }
  }
}
layer {
  name: "BatchNorm10"
  type: "BatchNorm"
  bottom: "Convolution10"
  top: "Convolution10"
  param {
    lr_mult: 0
    decay_mult: 0
  }
  param {
    lr_mult: 0
    decay_mult: 0
  }
  param {
    lr_mult: 0
    decay_mult: 0
  }
}
layer {
  name: "Scale10"
  type: "Scale"
  bottom: "Convolution10"
  top: "Convolution10"
  scale_param {
    bias_term: true
  }
}
layer {
  name: "Eltwise4"
  type: "Eltwise"
  bottom: "Convolution8"
  bottom: "Convolution10"
  top: "Eltwise4"
  eltwise_param {
    operation: SUM
  }
}
layer {
  name: "penlu9"
  type: "PENLU"
  bottom: "Eltwise4"
  top: "Eltwise4"
  param {
    lr_mult: 2
    decay_mult: 2
  }
  param {
    lr_mult: 2
    decay_mult: 2
  }
  param {
    lr_mult: 0
    decay_mult: 0
  }
  penlu_param {
    alpha_filler {
      type: "constant"
      value: 0.25
    }
    beta_filler {
      type: "constant"
      value: 1
    }
    eta_filler {
      type: "constant"
      value: 1
    }
  }
}
layer {
  name: "Convolution11"
  type: "Convolution"
  bottom: "Eltwise4"
  top: "Convolution11"
  param {
    lr_mult: 1
    decay_mult: 1
  }
  param {
    lr_mult: 2
    decay_mult: 0
  }
  convolution_param {
    num_output: 32
    pad: 1
    kernel_size: 3
    stride: 1
    weight_filler {
      type: "gaussian"
      std: 0.083
    }
    bias_filler {
      type: "constant"
      value: 0
    }
  }
}
layer {
  name: "BatchNorm11"
  type: "BatchNorm"
  bottom: "Convolution11"
  top: "Convolution11"
  param {
    lr_mult: 0
    decay_mult: 0
  }
  param {
    lr_mult: 0
    decay_mult: 0
  }
  param {
    lr_mult: 0
    decay_mult: 0
  }
}
layer {
  name: "Scale11"
  type: "Scale"
  bottom: "Convolution11"
  top: "Convolution11"
  scale_param {
    bias_term: true
  }
}
layer {
  name: "penlu10"
  type: "PENLU"
  bottom: "Convolution11"
  top: "Convolution11"
  param {
    lr_mult: 2
    decay_mult: 2
  }
  param {
    lr_mult: 2
    decay_mult: 2
  }
  param {
    lr_mult: 0
    decay_mult: 0
  }
  penlu_param {
    alpha_filler {
      type: "constant"
      value: 0.25
    }
    beta_filler {
      type: "constant"
      value: 1
    }
    eta_filler {
      type: "constant"
      value: 1
    }
  }
}
layer {
  name: "Convolution12"
  type: "Convolution"
  bottom: "Convolution11"
  top: "Convolution12"
  param {
    lr_mult: 1
    decay_mult: 1
  }
  param {
    lr_mult: 2
    decay_mult: 0
  }
  convolution_param {
    num_output: 32
    pad: 1
    kernel_size: 3
    stride: 1
    weight_filler {
      type: "gaussian"
      std: 0.083
    }
    bias_filler {
      type: "constant"
      value: 0
    }
  }
}
layer {
  name: "BatchNorm12"
  type: "BatchNorm"
  bottom: "Convolution12"
  top: "Convolution12"
  param {
    lr_mult: 0
    decay_mult: 0
  }
  param {
    lr_mult: 0
    decay_mult: 0
  }
  param {
    lr_mult: 0
    decay_mult: 0
  }
}
layer {
  name: "Scale12"
  type: "Scale"
  bottom: "Convolution12"
  top: "Convolution12"
  scale_param {
    bias_term: true
  }
}
layer {
  name: "Eltwise5"
  type: "Eltwise"
  bottom: "Eltwise4"
  bottom: "Convolution12"
  top: "Eltwise5"
  eltwise_param {
    operation: SUM
  }
}
layer {
  name: "penlu11"
  type: "PENLU"
  bottom: "Eltwise5"
  top: "Eltwise5"
  param {
    lr_mult: 2
    decay_mult: 2
  }
  param {
    lr_mult: 2
    decay_mult: 2
  }
  param {
    lr_mult: 0
    decay_mult: 0
  }
  penlu_param {
    alpha_filler {
      type: "constant"
      value: 0.25
    }
    beta_filler {
      type: "constant"
      value: 1
    }
    eta_filler {
      type: "constant"
      value: 1
    }
  }
}
layer {
  name: "Convolution13"
  type: "Convolution"
  bottom: "Eltwise5"
  top: "Convolution13"
  param {
    lr_mult: 1
    decay_mult: 1
  }
  param {
    lr_mult: 2
    decay_mult: 0
  }
  convolution_param {
    num_output: 32
    pad: 1
    kernel_size: 3
    stride: 1
    weight_filler {
      type: "gaussian"
      std: 0.083
    }
    bias_filler {
      type: "constant"
      value: 0
    }
  }
}
layer {
  name: "BatchNorm13"
  type: "BatchNorm"
  bottom: "Convolution13"
  top: "Convolution13"
  param {
    lr_mult: 0
    decay_mult: 0
  }
  param {
    lr_mult: 0
    decay_mult: 0
  }
  param {
    lr_mult: 0
    decay_mult: 0
  }
}
layer {
  name: "Scale13"
  type: "Scale"
  bottom: "Convolution13"
  top: "Convolution13"
  scale_param {
    bias_term: true
  }
}
layer {
  name: "penlu12"
  type: "PENLU"
  bottom: "Convolution13"
  top: "Convolution13"
  param {
    lr_mult: 2
    decay_mult: 2
  }
  param {
    lr_mult: 2
    decay_mult: 2
  }
  param {
    lr_mult: 0
    decay_mult: 0
  }
  penlu_param {
    alpha_filler {
      type: "constant"
      value: 0.25
    }
    beta_filler {
      type: "constant"
      value: 1
    }
    eta_filler {
      type: "constant"
      value: 1
    }
  }
}
layer {
  name: "Convolution14"
  type: "Convolution"
  bottom: "Convolution13"
  top: "Convolution14"
  param {
    lr_mult: 1
    decay_mult: 1
  }
  param {
    lr_mult: 2
    decay_mult: 0
  }
  convolution_param {
    num_output: 32
    pad: 1
    kernel_size: 3
    stride: 1
    weight_filler {
      type: "gaussian"
      std: 0.083
    }
    bias_filler {
      type: "constant"
      value: 0
    }
  }
}
layer {
  name: "BatchNorm14"
  type: "BatchNorm"
  bottom: "Convolution14"
  top: "Convolution14"
  param {
    lr_mult: 0
    decay_mult: 0
  }
  param {
    lr_mult: 0
    decay_mult: 0
  }
  param {
    lr_mult: 0
    decay_mult: 0
  }
}
layer {
  name: "Scale14"
  type: "Scale"
  bottom: "Convolution14"
  top: "Convolution14"
  scale_param {
    bias_term: true
  }
}
layer {
  name: "Eltwise6"
  type: "Eltwise"
  bottom: "Eltwise5"
  bottom: "Convolution14"
  top: "Eltwise6"
  eltwise_param {
    operation: SUM
  }
}
layer {
  name: "penlu13"
  type: "PENLU"
  bottom: "Eltwise6"
  top: "Eltwise6"
  param {
    lr_mult: 2
    decay_mult: 2
  }
  param {
    lr_mult: 2
    decay_mult: 2
  }
  param {
    lr_mult: 0
    decay_mult: 0
  }
  penlu_param {
    alpha_filler {
      type: "constant"
      value: 0.25
    }
    beta_filler {
      type: "constant"
      value: 1
    }
    eta_filler {
      type: "constant"
      value: 1
    }
  }
}
layer {
  name: "Convolution15"
  type: "Convolution"
  bottom: "Eltwise6"
  top: "Convolution15"
  param {
    lr_mult: 1
    decay_mult: 1
  }
  param {
    lr_mult: 2
    decay_mult: 0
  }
  convolution_param {
    num_output: 64
    pad: 0
    kernel_size: 1
    stride: 2
    weight_filler {
      type: "gaussian"
      std: 0.17677669
    }
    bias_filler {
      type: "constant"
      value: 0
    }
  }
}
layer {
  name: "BatchNorm15"
  type: "BatchNorm"
  bottom: "Convolution15"
  top: "Convolution15"
  param {
    lr_mult: 0
    decay_mult: 0
  }
  param {
    lr_mult: 0
    decay_mult: 0
  }
  param {
    lr_mult: 0
    decay_mult: 0
  }
}
layer {
  name: "Scale15"
  type: "Scale"
  bottom: "Convolution15"
  top: "Convolution15"
  scale_param {
    bias_term: true
  }
}
layer {
  name: "Convolution16"
  type: "Convolution"
  bottom: "Eltwise6"
  top: "Convolution16"
  param {
    lr_mult: 1
    decay_mult: 1
  }
  param {
    lr_mult: 2
    decay_mult: 0
  }
  convolution_param {
    num_output: 64
    pad: 1
    kernel_size: 3
    stride: 2
    weight_filler {
      type: "gaussian"
      std: 0.059
    }
    bias_filler {
      type: "constant"
      value: 0
    }
  }
}
layer {
  name: "BatchNorm16"
  type: "BatchNorm"
  bottom: "Convolution16"
  top: "Convolution16"
  param {
    lr_mult: 0
    decay_mult: 0
  }
  param {
    lr_mult: 0
    decay_mult: 0
  }
  param {
    lr_mult: 0
    decay_mult: 0
  }
}
layer {
  name: "Scale16"
  type: "Scale"
  bottom: "Convolution16"
  top: "Convolution16"
  scale_param {
    bias_term: true
  }
}
layer {
  name: "penlu14"
  type: "PENLU"
  bottom: "Convolution16"
  top: "Convolution16"
  param {
    lr_mult: 2
    decay_mult: 2
  }
  param {
    lr_mult: 2
    decay_mult: 2
  }
  param {
    lr_mult: 0
    decay_mult: 0
  }
  penlu_param {
    alpha_filler {
      type: "constant"
      value: 0.25
    }
    beta_filler {
      type: "constant"
      value: 1
    }
    eta_filler {
      type: "constant"
      value: 1
    }
  }
}
layer {
  name: "Convolution17"
  type: "Convolution"
  bottom: "Convolution16"
  top: "Convolution17"
  param {
    lr_mult: 1
    decay_mult: 1
  }
  param {
    lr_mult: 2
    decay_mult: 0
  }
  convolution_param {
    num_output: 64
    pad: 1
    kernel_size: 3
    stride: 1
    weight_filler {
      type: "gaussian"
      std: 0.059
    }
    bias_filler {
      type: "constant"
      value: 0
    }
  }
}
layer {
  name: "BatchNorm17"
  type: "BatchNorm"
  bottom: "Convolution17"
  top: "Convolution17"
  param {
    lr_mult: 0
    decay_mult: 0
  }
  param {
    lr_mult: 0
    decay_mult: 0
  }
  param {
    lr_mult: 0
    decay_mult: 0
  }
}
layer {
  name: "Scale17"
  type: "Scale"
  bottom: "Convolution17"
  top: "Convolution17"
  scale_param {
    bias_term: true
  }
}
layer {
  name: "Eltwise7"
  type: "Eltwise"
  bottom: "Convolution15"
  bottom: "Convolution17"
  top: "Eltwise7"
  eltwise_param {
    operation: SUM
  }
}
layer {
  name: "penlu15"
  type: "PENLU"
  bottom: "Eltwise7"
  top: "Eltwise7"
  param {
    lr_mult: 2
    decay_mult: 2
  }
  param {
    lr_mult: 2
    decay_mult: 2
  }
  param {
    lr_mult: 0
    decay_mult: 0
  }
  penlu_param {
    alpha_filler {
      type: "constant"
      value: 0.25
    }
    beta_filler {
      type: "constant"
      value: 1
    }
    eta_filler {
      type: "constant"
      value: 1
    }
  }
}
layer {
  name: "Convolution18"
  type: "Convolution"
  bottom: "Eltwise7"
  top: "Convolution18"
  param {
    lr_mult: 1
    decay_mult: 1
  }
  param {
    lr_mult: 2
    decay_mult: 0
  }
  convolution_param {
    num_output: 64
    pad: 1
    kernel_size: 3
    stride: 1
    weight_filler {
      type: "gaussian"
      std: 0.059
    }
    bias_filler {
      type: "constant"
      value: 0
    }
  }
}
layer {
  name: "BatchNorm18"
  type: "BatchNorm"
  bottom: "Convolution18"
  top: "Convolution18"
  param {
    lr_mult: 0
    decay_mult: 0
  }
  param {
    lr_mult: 0
    decay_mult: 0
  }
  param {
    lr_mult: 0
    decay_mult: 0
  }
}
layer {
  name: "Scale18"
  type: "Scale"
  bottom: "Convolution18"
  top: "Convolution18"
  scale_param {
    bias_term: true
  }
}
layer {
  name: "penlu16"
  type: "PENLU"
  bottom: "Convolution18"
  top: "Convolution18"
  param {
    lr_mult: 2
    decay_mult: 2
  }
  param {
    lr_mult: 2
    decay_mult: 2
  }
  param {
    lr_mult: 0
    decay_mult: 0
  }
  penlu_param {
    alpha_filler {
      type: "constant"
      value: 0.25
    }
    beta_filler {
      type: "constant"
      value: 1
    }
    eta_filler {
      type: "constant"
      value: 1
    }
  }
}
layer {
  name: "Convolution19"
  type: "Convolution"
  bottom: "Convolution18"
  top: "Convolution19"
  param {
    lr_mult: 1
    decay_mult: 1
  }
  param {
    lr_mult: 2
    decay_mult: 0
  }
  convolution_param {
    num_output: 64
    pad: 1
    kernel_size: 3
    stride: 1
    weight_filler {
      type: "gaussian"
      std: 0.059
    }
    bias_filler {
      type: "constant"
      value: 0
    }
  }
}
layer {
  name: "BatchNorm19"
  type: "BatchNorm"
  bottom: "Convolution19"
  top: "Convolution19"
  param {
    lr_mult: 0
    decay_mult: 0
  }
  param {
    lr_mult: 0
    decay_mult: 0
  }
  param {
    lr_mult: 0
    decay_mult: 0
  }
}
layer {
  name: "Scale19"
  type: "Scale"
  bottom: "Convolution19"
  top: "Convolution19"
  scale_param {
    bias_term: true
  }
}
layer {
  name: "Eltwise8"
  type: "Eltwise"
  bottom: "Eltwise7"
  bottom: "Convolution19"
  top: "Eltwise8"
  eltwise_param {
    operation: SUM
  }
}
layer {
  name: "penlu17"
  type: "PENLU"
  bottom: "Eltwise8"
  top: "Eltwise8"
  param {
    lr_mult: 2
    decay_mult: 2
  }
  param {
    lr_mult: 2
    decay_mult: 2
  }
  param {
    lr_mult: 0
    decay_mult: 0
  }
  penlu_param {
    alpha_filler {
      type: "constant"
      value: 0.25
    }
    beta_filler {
      type: "constant"
      value: 1
    }
    eta_filler {
      type: "constant"
      value: 1
    }
  }
}
layer {
  name: "Convolution20"
  type: "Convolution"
  bottom: "Eltwise8"
  top: "Convolution20"
  param {
    lr_mult: 1
    decay_mult: 1
  }
  param {
    lr_mult: 2
    decay_mult: 0
  }
  convolution_param {
    num_output: 64
    pad: 1
    kernel_size: 3
    stride: 1
    weight_filler {
      type: "gaussian"
      std: 0.059
    }
    bias_filler {
      type: "constant"
      value: 0
    }
  }
}
layer {
  name: "BatchNorm20"
  type: "BatchNorm"
  bottom: "Convolution20"
  top: "Convolution20"
  param {
    lr_mult: 0
    decay_mult: 0
  }
  param {
    lr_mult: 0
    decay_mult: 0
  }
  param {
    lr_mult: 0
    decay_mult: 0
  }
}
layer {
  name: "Scale20"
  type: "Scale"
  bottom: "Convolution20"
  top: "Convolution20"
  scale_param {
    bias_term: true
  }
}
layer {
  name: "penlu18"
  type: "PENLU"
  bottom: "Convolution20"
  top: "Convolution20"
  param {
    lr_mult: 2
    decay_mult: 2
  }
  param {
    lr_mult: 2
    decay_mult: 2
  }
  param {
    lr_mult: 0
    decay_mult: 0
  }
  penlu_param {
    alpha_filler {
      type: "constant"
      value: 0.25
    }
    beta_filler {
      type: "constant"
      value: 1
    }
    eta_filler {
      type: "constant"
      value: 1
    }
  }
}
layer {
  name: "Convolution21"
  type: "Convolution"
  bottom: "Convolution20"
  top: "Convolution21"
  param {
    lr_mult: 1
    decay_mult: 1
  }
  param {
    lr_mult: 2
    decay_mult: 0
  }
  convolution_param {
    num_output: 64
    pad: 1
    kernel_size: 3
    stride: 1
    weight_filler {
      type: "gaussian"
      std: 0.059
    }
    bias_filler {
      type: "constant"
      value: 0
    }
  }
}
layer {
  name: "BatchNorm21"
  type: "BatchNorm"
  bottom: "Convolution21"
  top: "Convolution21"
  param {
    lr_mult: 0
    decay_mult: 0
  }
  param {
    lr_mult: 0
    decay_mult: 0
  }
  param {
    lr_mult: 0
    decay_mult: 0
  }
}
layer {
  name: "Scale21"
  type: "Scale"
  bottom: "Convolution21"
  top: "Convolution21"
  scale_param {
    bias_term: true
  }
}
layer {
  name: "Eltwise9"
  type: "Eltwise"
  bottom: "Eltwise8"
  bottom: "Convolution21"
  top: "Eltwise9"
  eltwise_param {
    operation: SUM
  }
}
layer {
  name: "penlu19"
  type: "PENLU"
  bottom: "Eltwise9"
  top: "Eltwise9"
  param {
    lr_mult: 2
    decay_mult: 2
  }
  param {
    lr_mult: 2
    decay_mult: 2
  }
  param {
    lr_mult: 0
    decay_mult: 0
  }
  penlu_param {
    alpha_filler {
      type: "constant"
      value: 0.25
    }
    beta_filler {
      type: "constant"
      value: 1
    }
    eta_filler {
      type: "constant"
      value: 1
    }
  }
}
layer {
  name: "Pooling1"
  type: "Pooling"
  bottom: "Eltwise9"
  top: "Pooling1"
  pooling_param {
    pool: AVE
    global_pooling: true
  }
}
layer {
  name: "InnerProduct1"
  type: "InnerProduct"
  bottom: "Pooling1"
  top: "InnerProduct1"
  param {
    lr_mult: 1
    decay_mult: 1
  }
  param {
    lr_mult: 2
    decay_mult: 1
  }
  inner_product_param {
    num_output: 10
    weight_filler {
      type: "gaussian"
      std: 0.01
    }
    bias_filler {
      type: "constant"
      value: 0
    }
  }
}
layer {
  name: "SoftmaxWithLoss1"
  type: "SoftmaxWithLoss"
  bottom: "InnerProduct1"
  bottom: "Data2"
  top: "SoftmaxWithLoss1"
}
layer {
  name: "Accuracy1"
  type: "Accuracy"
  bottom: "InnerProduct1"
  bottom: "Data2"
  top: "Accuracy1"
  include {
    phase: TEST
  }
}
I1001 10:43:06.206589  5182 layer_factory.hpp:77] Creating layer Data1
I1001 10:43:06.206627  5182 db_lmdb.cpp:35] Opened lmdb /home/x306/caffe/xn/PENLU/data/cifar10/cifar10_test_lmdb
I1001 10:43:06.206637  5182 net.cpp:84] Creating Layer Data1
I1001 10:43:06.206641  5182 net.cpp:380] Data1 -> Data1
I1001 10:43:06.206647  5182 net.cpp:380] Data1 -> Data2
I1001 10:43:06.206652  5182 data_transformer.cpp:25] Loading mean file from: /home/x306/caffe/xn/PENLU/data/cifar10/mean.binaryproto
I1001 10:43:06.206765  5182 data_layer.cpp:45] output data size: 100,3,32,32
I1001 10:43:06.210606  5182 net.cpp:122] Setting up Data1
I1001 10:43:06.210631  5182 net.cpp:129] Top shape: 100 3 32 32 (307200)
I1001 10:43:06.210638  5182 net.cpp:129] Top shape: 100 (100)
I1001 10:43:06.210639  5182 net.cpp:137] Memory required for data: 1229200
I1001 10:43:06.210642  5182 layer_factory.hpp:77] Creating layer Data2_Data1_1_split
I1001 10:43:06.210650  5182 net.cpp:84] Creating Layer Data2_Data1_1_split
I1001 10:43:06.210654  5182 net.cpp:406] Data2_Data1_1_split <- Data2
I1001 10:43:06.210657  5182 net.cpp:380] Data2_Data1_1_split -> Data2_Data1_1_split_0
I1001 10:43:06.210664  5182 net.cpp:380] Data2_Data1_1_split -> Data2_Data1_1_split_1
I1001 10:43:06.210724  5182 net.cpp:122] Setting up Data2_Data1_1_split
I1001 10:43:06.210731  5182 net.cpp:129] Top shape: 100 (100)
I1001 10:43:06.210733  5182 net.cpp:129] Top shape: 100 (100)
I1001 10:43:06.210736  5182 net.cpp:137] Memory required for data: 1230000
I1001 10:43:06.210737  5182 layer_factory.hpp:77] Creating layer Convolution1
I1001 10:43:06.210747  5182 net.cpp:84] Creating Layer Convolution1
I1001 10:43:06.210749  5182 net.cpp:406] Convolution1 <- Data1
I1001 10:43:06.210753  5182 net.cpp:380] Convolution1 -> Convolution1
I1001 10:43:06.211899  5182 net.cpp:122] Setting up Convolution1
I1001 10:43:06.211910  5182 net.cpp:129] Top shape: 100 16 32 32 (1638400)
I1001 10:43:06.211912  5182 net.cpp:137] Memory required for data: 7783600
I1001 10:43:06.211920  5182 layer_factory.hpp:77] Creating layer BatchNorm1
I1001 10:43:06.211926  5182 net.cpp:84] Creating Layer BatchNorm1
I1001 10:43:06.211932  5182 net.cpp:406] BatchNorm1 <- Convolution1
I1001 10:43:06.211936  5182 net.cpp:367] BatchNorm1 -> Convolution1 (in-place)
I1001 10:43:06.212085  5182 net.cpp:122] Setting up BatchNorm1
I1001 10:43:06.212090  5182 net.cpp:129] Top shape: 100 16 32 32 (1638400)
I1001 10:43:06.212091  5182 net.cpp:137] Memory required for data: 14337200
I1001 10:43:06.212100  5182 layer_factory.hpp:77] Creating layer Scale1
I1001 10:43:06.212106  5182 net.cpp:84] Creating Layer Scale1
I1001 10:43:06.212108  5182 net.cpp:406] Scale1 <- Convolution1
I1001 10:43:06.212116  5182 net.cpp:367] Scale1 -> Convolution1 (in-place)
I1001 10:43:06.212147  5182 layer_factory.hpp:77] Creating layer Scale1
I1001 10:43:06.212227  5182 net.cpp:122] Setting up Scale1
I1001 10:43:06.212231  5182 net.cpp:129] Top shape: 100 16 32 32 (1638400)
I1001 10:43:06.212242  5182 net.cpp:137] Memory required for data: 20890800
I1001 10:43:06.212245  5182 layer_factory.hpp:77] Creating layer penlu1
I1001 10:43:06.212252  5182 net.cpp:84] Creating Layer penlu1
I1001 10:43:06.212255  5182 net.cpp:406] penlu1 <- Convolution1
I1001 10:43:06.212258  5182 net.cpp:367] penlu1 -> Convolution1 (in-place)
I1001 10:43:06.212375  5182 net.cpp:122] Setting up penlu1
I1001 10:43:06.212380  5182 net.cpp:129] Top shape: 100 16 32 32 (1638400)
I1001 10:43:06.212383  5182 net.cpp:137] Memory required for data: 27444400
I1001 10:43:06.212388  5182 layer_factory.hpp:77] Creating layer Convolution1_penlu1_0_split
I1001 10:43:06.212393  5182 net.cpp:84] Creating Layer Convolution1_penlu1_0_split
I1001 10:43:06.212394  5182 net.cpp:406] Convolution1_penlu1_0_split <- Convolution1
I1001 10:43:06.212397  5182 net.cpp:380] Convolution1_penlu1_0_split -> Convolution1_penlu1_0_split_0
I1001 10:43:06.212402  5182 net.cpp:380] Convolution1_penlu1_0_split -> Convolution1_penlu1_0_split_1
I1001 10:43:06.212425  5182 net.cpp:122] Setting up Convolution1_penlu1_0_split
I1001 10:43:06.212430  5182 net.cpp:129] Top shape: 100 16 32 32 (1638400)
I1001 10:43:06.212432  5182 net.cpp:129] Top shape: 100 16 32 32 (1638400)
I1001 10:43:06.212435  5182 net.cpp:137] Memory required for data: 40551600
I1001 10:43:06.212436  5182 layer_factory.hpp:77] Creating layer Convolution2
I1001 10:43:06.212443  5182 net.cpp:84] Creating Layer Convolution2
I1001 10:43:06.212446  5182 net.cpp:406] Convolution2 <- Convolution1_penlu1_0_split_0
I1001 10:43:06.212450  5182 net.cpp:380] Convolution2 -> Convolution2
I1001 10:43:06.213055  5182 net.cpp:122] Setting up Convolution2
I1001 10:43:06.213063  5182 net.cpp:129] Top shape: 100 16 32 32 (1638400)
I1001 10:43:06.213065  5182 net.cpp:137] Memory required for data: 47105200
I1001 10:43:06.213070  5182 layer_factory.hpp:77] Creating layer BatchNorm2
I1001 10:43:06.213078  5182 net.cpp:84] Creating Layer BatchNorm2
I1001 10:43:06.213080  5182 net.cpp:406] BatchNorm2 <- Convolution2
I1001 10:43:06.213084  5182 net.cpp:367] BatchNorm2 -> Convolution2 (in-place)
I1001 10:43:06.213304  5182 net.cpp:122] Setting up BatchNorm2
I1001 10:43:06.213309  5182 net.cpp:129] Top shape: 100 16 32 32 (1638400)
I1001 10:43:06.213310  5182 net.cpp:137] Memory required for data: 53658800
I1001 10:43:06.213323  5182 layer_factory.hpp:77] Creating layer Scale2
I1001 10:43:06.213328  5182 net.cpp:84] Creating Layer Scale2
I1001 10:43:06.213331  5182 net.cpp:406] Scale2 <- Convolution2
I1001 10:43:06.213335  5182 net.cpp:367] Scale2 -> Convolution2 (in-place)
I1001 10:43:06.213364  5182 layer_factory.hpp:77] Creating layer Scale2
I1001 10:43:06.213438  5182 net.cpp:122] Setting up Scale2
I1001 10:43:06.213441  5182 net.cpp:129] Top shape: 100 16 32 32 (1638400)
I1001 10:43:06.213443  5182 net.cpp:137] Memory required for data: 60212400
I1001 10:43:06.213450  5182 layer_factory.hpp:77] Creating layer penlu2
I1001 10:43:06.213456  5182 net.cpp:84] Creating Layer penlu2
I1001 10:43:06.213459  5182 net.cpp:406] penlu2 <- Convolution2
I1001 10:43:06.213462  5182 net.cpp:367] penlu2 -> Convolution2 (in-place)
I1001 10:43:06.213582  5182 net.cpp:122] Setting up penlu2
I1001 10:43:06.213585  5182 net.cpp:129] Top shape: 100 16 32 32 (1638400)
I1001 10:43:06.213587  5182 net.cpp:137] Memory required for data: 66766000
I1001 10:43:06.213593  5182 layer_factory.hpp:77] Creating layer Convolution3
I1001 10:43:06.213598  5182 net.cpp:84] Creating Layer Convolution3
I1001 10:43:06.213601  5182 net.cpp:406] Convolution3 <- Convolution2
I1001 10:43:06.213605  5182 net.cpp:380] Convolution3 -> Convolution3
I1001 10:43:06.214679  5182 net.cpp:122] Setting up Convolution3
I1001 10:43:06.214689  5182 net.cpp:129] Top shape: 100 16 32 32 (1638400)
I1001 10:43:06.214691  5182 net.cpp:137] Memory required for data: 73319600
I1001 10:43:06.214695  5182 layer_factory.hpp:77] Creating layer BatchNorm3
I1001 10:43:06.214700  5182 net.cpp:84] Creating Layer BatchNorm3
I1001 10:43:06.214704  5182 net.cpp:406] BatchNorm3 <- Convolution3
I1001 10:43:06.214709  5182 net.cpp:367] BatchNorm3 -> Convolution3 (in-place)
I1001 10:43:06.214843  5182 net.cpp:122] Setting up BatchNorm3
I1001 10:43:06.214848  5182 net.cpp:129] Top shape: 100 16 32 32 (1638400)
I1001 10:43:06.214850  5182 net.cpp:137] Memory required for data: 79873200
I1001 10:43:06.214855  5182 layer_factory.hpp:77] Creating layer Scale3
I1001 10:43:06.214860  5182 net.cpp:84] Creating Layer Scale3
I1001 10:43:06.214862  5182 net.cpp:406] Scale3 <- Convolution3
I1001 10:43:06.214865  5182 net.cpp:367] Scale3 -> Convolution3 (in-place)
I1001 10:43:06.214892  5182 layer_factory.hpp:77] Creating layer Scale3
I1001 10:43:06.214967  5182 net.cpp:122] Setting up Scale3
I1001 10:43:06.214973  5182 net.cpp:129] Top shape: 100 16 32 32 (1638400)
I1001 10:43:06.214975  5182 net.cpp:137] Memory required for data: 86426800
I1001 10:43:06.214979  5182 layer_factory.hpp:77] Creating layer Eltwise1
I1001 10:43:06.214984  5182 net.cpp:84] Creating Layer Eltwise1
I1001 10:43:06.214987  5182 net.cpp:406] Eltwise1 <- Convolution1_penlu1_0_split_1
I1001 10:43:06.214989  5182 net.cpp:406] Eltwise1 <- Convolution3
I1001 10:43:06.214995  5182 net.cpp:380] Eltwise1 -> Eltwise1
I1001 10:43:06.215011  5182 net.cpp:122] Setting up Eltwise1
I1001 10:43:06.215018  5182 net.cpp:129] Top shape: 100 16 32 32 (1638400)
I1001 10:43:06.215019  5182 net.cpp:137] Memory required for data: 92980400
I1001 10:43:06.215021  5182 layer_factory.hpp:77] Creating layer penlu3
I1001 10:43:06.215026  5182 net.cpp:84] Creating Layer penlu3
I1001 10:43:06.215029  5182 net.cpp:406] penlu3 <- Eltwise1
I1001 10:43:06.215032  5182 net.cpp:367] penlu3 -> Eltwise1 (in-place)
I1001 10:43:06.215147  5182 net.cpp:122] Setting up penlu3
I1001 10:43:06.215152  5182 net.cpp:129] Top shape: 100 16 32 32 (1638400)
I1001 10:43:06.215153  5182 net.cpp:137] Memory required for data: 99534000
I1001 10:43:06.215162  5182 layer_factory.hpp:77] Creating layer Eltwise1_penlu3_0_split
I1001 10:43:06.215167  5182 net.cpp:84] Creating Layer Eltwise1_penlu3_0_split
I1001 10:43:06.215171  5182 net.cpp:406] Eltwise1_penlu3_0_split <- Eltwise1
I1001 10:43:06.215174  5182 net.cpp:380] Eltwise1_penlu3_0_split -> Eltwise1_penlu3_0_split_0
I1001 10:43:06.215178  5182 net.cpp:380] Eltwise1_penlu3_0_split -> Eltwise1_penlu3_0_split_1
I1001 10:43:06.215204  5182 net.cpp:122] Setting up Eltwise1_penlu3_0_split
I1001 10:43:06.215215  5182 net.cpp:129] Top shape: 100 16 32 32 (1638400)
I1001 10:43:06.215219  5182 net.cpp:129] Top shape: 100 16 32 32 (1638400)
I1001 10:43:06.215220  5182 net.cpp:137] Memory required for data: 112641200
I1001 10:43:06.215222  5182 layer_factory.hpp:77] Creating layer Convolution4
I1001 10:43:06.215229  5182 net.cpp:84] Creating Layer Convolution4
I1001 10:43:06.215232  5182 net.cpp:406] Convolution4 <- Eltwise1_penlu3_0_split_0
I1001 10:43:06.215236  5182 net.cpp:380] Convolution4 -> Convolution4
I1001 10:43:06.216282  5182 net.cpp:122] Setting up Convolution4
I1001 10:43:06.216291  5182 net.cpp:129] Top shape: 100 16 32 32 (1638400)
I1001 10:43:06.216295  5182 net.cpp:137] Memory required for data: 119194800
I1001 10:43:06.216300  5182 layer_factory.hpp:77] Creating layer BatchNorm4
I1001 10:43:06.216305  5182 net.cpp:84] Creating Layer BatchNorm4
I1001 10:43:06.216306  5182 net.cpp:406] BatchNorm4 <- Convolution4
I1001 10:43:06.216310  5182 net.cpp:367] BatchNorm4 -> Convolution4 (in-place)
I1001 10:43:06.216442  5182 net.cpp:122] Setting up BatchNorm4
I1001 10:43:06.216446  5182 net.cpp:129] Top shape: 100 16 32 32 (1638400)
I1001 10:43:06.216449  5182 net.cpp:137] Memory required for data: 125748400
I1001 10:43:06.216456  5182 layer_factory.hpp:77] Creating layer Scale4
I1001 10:43:06.216460  5182 net.cpp:84] Creating Layer Scale4
I1001 10:43:06.216462  5182 net.cpp:406] Scale4 <- Convolution4
I1001 10:43:06.216467  5182 net.cpp:367] Scale4 -> Convolution4 (in-place)
I1001 10:43:06.216495  5182 layer_factory.hpp:77] Creating layer Scale4
I1001 10:43:06.216573  5182 net.cpp:122] Setting up Scale4
I1001 10:43:06.216578  5182 net.cpp:129] Top shape: 100 16 32 32 (1638400)
I1001 10:43:06.216580  5182 net.cpp:137] Memory required for data: 132302000
I1001 10:43:06.216584  5182 layer_factory.hpp:77] Creating layer penlu4
I1001 10:43:06.216590  5182 net.cpp:84] Creating Layer penlu4
I1001 10:43:06.216593  5182 net.cpp:406] penlu4 <- Convolution4
I1001 10:43:06.216598  5182 net.cpp:367] penlu4 -> Convolution4 (in-place)
I1001 10:43:06.216712  5182 net.cpp:122] Setting up penlu4
I1001 10:43:06.216717  5182 net.cpp:129] Top shape: 100 16 32 32 (1638400)
I1001 10:43:06.216718  5182 net.cpp:137] Memory required for data: 138855600
I1001 10:43:06.216724  5182 layer_factory.hpp:77] Creating layer Convolution5
I1001 10:43:06.216732  5182 net.cpp:84] Creating Layer Convolution5
I1001 10:43:06.216734  5182 net.cpp:406] Convolution5 <- Convolution4
I1001 10:43:06.216739  5182 net.cpp:380] Convolution5 -> Convolution5
I1001 10:43:06.217979  5182 net.cpp:122] Setting up Convolution5
I1001 10:43:06.217988  5182 net.cpp:129] Top shape: 100 16 32 32 (1638400)
I1001 10:43:06.217990  5182 net.cpp:137] Memory required for data: 145409200
I1001 10:43:06.217995  5182 layer_factory.hpp:77] Creating layer BatchNorm5
I1001 10:43:06.218000  5182 net.cpp:84] Creating Layer BatchNorm5
I1001 10:43:06.218003  5182 net.cpp:406] BatchNorm5 <- Convolution5
I1001 10:43:06.218006  5182 net.cpp:367] BatchNorm5 -> Convolution5 (in-place)
I1001 10:43:06.218144  5182 net.cpp:122] Setting up BatchNorm5
I1001 10:43:06.218148  5182 net.cpp:129] Top shape: 100 16 32 32 (1638400)
I1001 10:43:06.218150  5182 net.cpp:137] Memory required for data: 151962800
I1001 10:43:06.218155  5182 layer_factory.hpp:77] Creating layer Scale5
I1001 10:43:06.218159  5182 net.cpp:84] Creating Layer Scale5
I1001 10:43:06.218161  5182 net.cpp:406] Scale5 <- Convolution5
I1001 10:43:06.218165  5182 net.cpp:367] Scale5 -> Convolution5 (in-place)
I1001 10:43:06.218191  5182 layer_factory.hpp:77] Creating layer Scale5
I1001 10:43:06.218266  5182 net.cpp:122] Setting up Scale5
I1001 10:43:06.218271  5182 net.cpp:129] Top shape: 100 16 32 32 (1638400)
I1001 10:43:06.218273  5182 net.cpp:137] Memory required for data: 158516400
I1001 10:43:06.218277  5182 layer_factory.hpp:77] Creating layer Eltwise2
I1001 10:43:06.218281  5182 net.cpp:84] Creating Layer Eltwise2
I1001 10:43:06.218283  5182 net.cpp:406] Eltwise2 <- Eltwise1_penlu3_0_split_1
I1001 10:43:06.218293  5182 net.cpp:406] Eltwise2 <- Convolution5
I1001 10:43:06.218297  5182 net.cpp:380] Eltwise2 -> Eltwise2
I1001 10:43:06.218314  5182 net.cpp:122] Setting up Eltwise2
I1001 10:43:06.218318  5182 net.cpp:129] Top shape: 100 16 32 32 (1638400)
I1001 10:43:06.218320  5182 net.cpp:137] Memory required for data: 165070000
I1001 10:43:06.218322  5182 layer_factory.hpp:77] Creating layer penlu5
I1001 10:43:06.218329  5182 net.cpp:84] Creating Layer penlu5
I1001 10:43:06.218331  5182 net.cpp:406] penlu5 <- Eltwise2
I1001 10:43:06.218335  5182 net.cpp:367] penlu5 -> Eltwise2 (in-place)
I1001 10:43:06.218451  5182 net.cpp:122] Setting up penlu5
I1001 10:43:06.218454  5182 net.cpp:129] Top shape: 100 16 32 32 (1638400)
I1001 10:43:06.218456  5182 net.cpp:137] Memory required for data: 171623600
I1001 10:43:06.218461  5182 layer_factory.hpp:77] Creating layer Eltwise2_penlu5_0_split
I1001 10:43:06.218466  5182 net.cpp:84] Creating Layer Eltwise2_penlu5_0_split
I1001 10:43:06.218468  5182 net.cpp:406] Eltwise2_penlu5_0_split <- Eltwise2
I1001 10:43:06.218472  5182 net.cpp:380] Eltwise2_penlu5_0_split -> Eltwise2_penlu5_0_split_0
I1001 10:43:06.218475  5182 net.cpp:380] Eltwise2_penlu5_0_split -> Eltwise2_penlu5_0_split_1
I1001 10:43:06.218499  5182 net.cpp:122] Setting up Eltwise2_penlu5_0_split
I1001 10:43:06.218503  5182 net.cpp:129] Top shape: 100 16 32 32 (1638400)
I1001 10:43:06.218506  5182 net.cpp:129] Top shape: 100 16 32 32 (1638400)
I1001 10:43:06.218508  5182 net.cpp:137] Memory required for data: 184730800
I1001 10:43:06.218510  5182 layer_factory.hpp:77] Creating layer Convolution6
I1001 10:43:06.218515  5182 net.cpp:84] Creating Layer Convolution6
I1001 10:43:06.218518  5182 net.cpp:406] Convolution6 <- Eltwise2_penlu5_0_split_0
I1001 10:43:06.218544  5182 net.cpp:380] Convolution6 -> Convolution6
I1001 10:43:06.219466  5182 net.cpp:122] Setting up Convolution6
I1001 10:43:06.219475  5182 net.cpp:129] Top shape: 100 16 32 32 (1638400)
I1001 10:43:06.219477  5182 net.cpp:137] Memory required for data: 191284400
I1001 10:43:06.219481  5182 layer_factory.hpp:77] Creating layer BatchNorm6
I1001 10:43:06.219487  5182 net.cpp:84] Creating Layer BatchNorm6
I1001 10:43:06.219489  5182 net.cpp:406] BatchNorm6 <- Convolution6
I1001 10:43:06.219493  5182 net.cpp:367] BatchNorm6 -> Convolution6 (in-place)
I1001 10:43:06.219627  5182 net.cpp:122] Setting up BatchNorm6
I1001 10:43:06.219632  5182 net.cpp:129] Top shape: 100 16 32 32 (1638400)
I1001 10:43:06.219635  5182 net.cpp:137] Memory required for data: 197838000
I1001 10:43:06.219638  5182 layer_factory.hpp:77] Creating layer Scale6
I1001 10:43:06.219643  5182 net.cpp:84] Creating Layer Scale6
I1001 10:43:06.219645  5182 net.cpp:406] Scale6 <- Convolution6
I1001 10:43:06.219650  5182 net.cpp:367] Scale6 -> Convolution6 (in-place)
I1001 10:43:06.219676  5182 layer_factory.hpp:77] Creating layer Scale6
I1001 10:43:06.219750  5182 net.cpp:122] Setting up Scale6
I1001 10:43:06.219754  5182 net.cpp:129] Top shape: 100 16 32 32 (1638400)
I1001 10:43:06.219756  5182 net.cpp:137] Memory required for data: 204391600
I1001 10:43:06.219760  5182 layer_factory.hpp:77] Creating layer penlu6
I1001 10:43:06.219765  5182 net.cpp:84] Creating Layer penlu6
I1001 10:43:06.219769  5182 net.cpp:406] penlu6 <- Convolution6
I1001 10:43:06.219772  5182 net.cpp:367] penlu6 -> Convolution6 (in-place)
I1001 10:43:06.219885  5182 net.cpp:122] Setting up penlu6
I1001 10:43:06.219889  5182 net.cpp:129] Top shape: 100 16 32 32 (1638400)
I1001 10:43:06.219892  5182 net.cpp:137] Memory required for data: 210945200
I1001 10:43:06.219895  5182 layer_factory.hpp:77] Creating layer Convolution7
I1001 10:43:06.219903  5182 net.cpp:84] Creating Layer Convolution7
I1001 10:43:06.219907  5182 net.cpp:406] Convolution7 <- Convolution6
I1001 10:43:06.219909  5182 net.cpp:380] Convolution7 -> Convolution7
I1001 10:43:06.220850  5182 net.cpp:122] Setting up Convolution7
I1001 10:43:06.220860  5182 net.cpp:129] Top shape: 100 16 32 32 (1638400)
I1001 10:43:06.220862  5182 net.cpp:137] Memory required for data: 217498800
I1001 10:43:06.220875  5182 layer_factory.hpp:77] Creating layer BatchNorm7
I1001 10:43:06.220882  5182 net.cpp:84] Creating Layer BatchNorm7
I1001 10:43:06.220885  5182 net.cpp:406] BatchNorm7 <- Convolution7
I1001 10:43:06.220888  5182 net.cpp:367] BatchNorm7 -> Convolution7 (in-place)
I1001 10:43:06.221024  5182 net.cpp:122] Setting up BatchNorm7
I1001 10:43:06.221029  5182 net.cpp:129] Top shape: 100 16 32 32 (1638400)
I1001 10:43:06.221031  5182 net.cpp:137] Memory required for data: 224052400
I1001 10:43:06.221041  5182 layer_factory.hpp:77] Creating layer Scale7
I1001 10:43:06.221045  5182 net.cpp:84] Creating Layer Scale7
I1001 10:43:06.221047  5182 net.cpp:406] Scale7 <- Convolution7
I1001 10:43:06.221051  5182 net.cpp:367] Scale7 -> Convolution7 (in-place)
I1001 10:43:06.221079  5182 layer_factory.hpp:77] Creating layer Scale7
I1001 10:43:06.221155  5182 net.cpp:122] Setting up Scale7
I1001 10:43:06.221159  5182 net.cpp:129] Top shape: 100 16 32 32 (1638400)
I1001 10:43:06.221163  5182 net.cpp:137] Memory required for data: 230606000
I1001 10:43:06.221166  5182 layer_factory.hpp:77] Creating layer Eltwise3
I1001 10:43:06.221170  5182 net.cpp:84] Creating Layer Eltwise3
I1001 10:43:06.221174  5182 net.cpp:406] Eltwise3 <- Eltwise2_penlu5_0_split_1
I1001 10:43:06.221175  5182 net.cpp:406] Eltwise3 <- Convolution7
I1001 10:43:06.221179  5182 net.cpp:380] Eltwise3 -> Eltwise3
I1001 10:43:06.221194  5182 net.cpp:122] Setting up Eltwise3
I1001 10:43:06.221197  5182 net.cpp:129] Top shape: 100 16 32 32 (1638400)
I1001 10:43:06.221199  5182 net.cpp:137] Memory required for data: 237159600
I1001 10:43:06.221201  5182 layer_factory.hpp:77] Creating layer penlu7
I1001 10:43:06.221207  5182 net.cpp:84] Creating Layer penlu7
I1001 10:43:06.221210  5182 net.cpp:406] penlu7 <- Eltwise3
I1001 10:43:06.221212  5182 net.cpp:367] penlu7 -> Eltwise3 (in-place)
I1001 10:43:06.221328  5182 net.cpp:122] Setting up penlu7
I1001 10:43:06.221333  5182 net.cpp:129] Top shape: 100 16 32 32 (1638400)
I1001 10:43:06.221334  5182 net.cpp:137] Memory required for data: 243713200
I1001 10:43:06.221338  5182 layer_factory.hpp:77] Creating layer Eltwise3_penlu7_0_split
I1001 10:43:06.221343  5182 net.cpp:84] Creating Layer Eltwise3_penlu7_0_split
I1001 10:43:06.221344  5182 net.cpp:406] Eltwise3_penlu7_0_split <- Eltwise3
I1001 10:43:06.221349  5182 net.cpp:380] Eltwise3_penlu7_0_split -> Eltwise3_penlu7_0_split_0
I1001 10:43:06.221352  5182 net.cpp:380] Eltwise3_penlu7_0_split -> Eltwise3_penlu7_0_split_1
I1001 10:43:06.221374  5182 net.cpp:122] Setting up Eltwise3_penlu7_0_split
I1001 10:43:06.221379  5182 net.cpp:129] Top shape: 100 16 32 32 (1638400)
I1001 10:43:06.221380  5182 net.cpp:129] Top shape: 100 16 32 32 (1638400)
I1001 10:43:06.221382  5182 net.cpp:137] Memory required for data: 256820400
I1001 10:43:06.221385  5182 layer_factory.hpp:77] Creating layer Convolution8
I1001 10:43:06.221391  5182 net.cpp:84] Creating Layer Convolution8
I1001 10:43:06.221393  5182 net.cpp:406] Convolution8 <- Eltwise3_penlu7_0_split_0
I1001 10:43:06.221397  5182 net.cpp:380] Convolution8 -> Convolution8
I1001 10:43:06.222268  5182 net.cpp:122] Setting up Convolution8
I1001 10:43:06.222277  5182 net.cpp:129] Top shape: 100 32 16 16 (819200)
I1001 10:43:06.222280  5182 net.cpp:137] Memory required for data: 260097200
I1001 10:43:06.222285  5182 layer_factory.hpp:77] Creating layer BatchNorm8
I1001 10:43:06.222290  5182 net.cpp:84] Creating Layer BatchNorm8
I1001 10:43:06.222293  5182 net.cpp:406] BatchNorm8 <- Convolution8
I1001 10:43:06.222297  5182 net.cpp:367] BatchNorm8 -> Convolution8 (in-place)
I1001 10:43:06.222426  5182 net.cpp:122] Setting up BatchNorm8
I1001 10:43:06.222430  5182 net.cpp:129] Top shape: 100 32 16 16 (819200)
I1001 10:43:06.222432  5182 net.cpp:137] Memory required for data: 263374000
I1001 10:43:06.222436  5182 layer_factory.hpp:77] Creating layer Scale8
I1001 10:43:06.226068  5182 net.cpp:84] Creating Layer Scale8
I1001 10:43:06.226071  5182 net.cpp:406] Scale8 <- Convolution8
I1001 10:43:06.226083  5182 net.cpp:367] Scale8 -> Convolution8 (in-place)
I1001 10:43:06.226117  5182 layer_factory.hpp:77] Creating layer Scale8
I1001 10:43:06.226202  5182 net.cpp:122] Setting up Scale8
I1001 10:43:06.226207  5182 net.cpp:129] Top shape: 100 32 16 16 (819200)
I1001 10:43:06.226208  5182 net.cpp:137] Memory required for data: 266650800
I1001 10:43:06.226213  5182 layer_factory.hpp:77] Creating layer Convolution9
I1001 10:43:06.226220  5182 net.cpp:84] Creating Layer Convolution9
I1001 10:43:06.226223  5182 net.cpp:406] Convolution9 <- Eltwise3_penlu7_0_split_1
I1001 10:43:06.226228  5182 net.cpp:380] Convolution9 -> Convolution9
I1001 10:43:06.227303  5182 net.cpp:122] Setting up Convolution9
I1001 10:43:06.227311  5182 net.cpp:129] Top shape: 100 32 16 16 (819200)
I1001 10:43:06.227314  5182 net.cpp:137] Memory required for data: 269927600
I1001 10:43:06.227319  5182 layer_factory.hpp:77] Creating layer BatchNorm9
I1001 10:43:06.227325  5182 net.cpp:84] Creating Layer BatchNorm9
I1001 10:43:06.227327  5182 net.cpp:406] BatchNorm9 <- Convolution9
I1001 10:43:06.227334  5182 net.cpp:367] BatchNorm9 -> Convolution9 (in-place)
I1001 10:43:06.227473  5182 net.cpp:122] Setting up BatchNorm9
I1001 10:43:06.227478  5182 net.cpp:129] Top shape: 100 32 16 16 (819200)
I1001 10:43:06.227480  5182 net.cpp:137] Memory required for data: 273204400
I1001 10:43:06.227486  5182 layer_factory.hpp:77] Creating layer Scale9
I1001 10:43:06.227490  5182 net.cpp:84] Creating Layer Scale9
I1001 10:43:06.227493  5182 net.cpp:406] Scale9 <- Convolution9
I1001 10:43:06.227496  5182 net.cpp:367] Scale9 -> Convolution9 (in-place)
I1001 10:43:06.227524  5182 layer_factory.hpp:77] Creating layer Scale9
I1001 10:43:06.227607  5182 net.cpp:122] Setting up Scale9
I1001 10:43:06.227610  5182 net.cpp:129] Top shape: 100 32 16 16 (819200)
I1001 10:43:06.227612  5182 net.cpp:137] Memory required for data: 276481200
I1001 10:43:06.227617  5182 layer_factory.hpp:77] Creating layer penlu8
I1001 10:43:06.227622  5182 net.cpp:84] Creating Layer penlu8
I1001 10:43:06.227624  5182 net.cpp:406] penlu8 <- Convolution9
I1001 10:43:06.227629  5182 net.cpp:367] penlu8 -> Convolution9 (in-place)
I1001 10:43:06.227743  5182 net.cpp:122] Setting up penlu8
I1001 10:43:06.227748  5182 net.cpp:129] Top shape: 100 32 16 16 (819200)
I1001 10:43:06.227751  5182 net.cpp:137] Memory required for data: 279758000
I1001 10:43:06.227754  5182 layer_factory.hpp:77] Creating layer Convolution10
I1001 10:43:06.227761  5182 net.cpp:84] Creating Layer Convolution10
I1001 10:43:06.227764  5182 net.cpp:406] Convolution10 <- Convolution9
I1001 10:43:06.227768  5182 net.cpp:380] Convolution10 -> Convolution10
I1001 10:43:06.229297  5182 net.cpp:122] Setting up Convolution10
I1001 10:43:06.229306  5182 net.cpp:129] Top shape: 100 32 16 16 (819200)
I1001 10:43:06.229310  5182 net.cpp:137] Memory required for data: 283034800
I1001 10:43:06.229313  5182 layer_factory.hpp:77] Creating layer BatchNorm10
I1001 10:43:06.229320  5182 net.cpp:84] Creating Layer BatchNorm10
I1001 10:43:06.229321  5182 net.cpp:406] BatchNorm10 <- Convolution10
I1001 10:43:06.229326  5182 net.cpp:367] BatchNorm10 -> Convolution10 (in-place)
I1001 10:43:06.229460  5182 net.cpp:122] Setting up BatchNorm10
I1001 10:43:06.229463  5182 net.cpp:129] Top shape: 100 32 16 16 (819200)
I1001 10:43:06.229466  5182 net.cpp:137] Memory required for data: 286311600
I1001 10:43:06.229470  5182 layer_factory.hpp:77] Creating layer Scale10
I1001 10:43:06.229475  5182 net.cpp:84] Creating Layer Scale10
I1001 10:43:06.229478  5182 net.cpp:406] Scale10 <- Convolution10
I1001 10:43:06.229481  5182 net.cpp:367] Scale10 -> Convolution10 (in-place)
I1001 10:43:06.229509  5182 layer_factory.hpp:77] Creating layer Scale10
I1001 10:43:06.229588  5182 net.cpp:122] Setting up Scale10
I1001 10:43:06.229593  5182 net.cpp:129] Top shape: 100 32 16 16 (819200)
I1001 10:43:06.229594  5182 net.cpp:137] Memory required for data: 289588400
I1001 10:43:06.229598  5182 layer_factory.hpp:77] Creating layer Eltwise4
I1001 10:43:06.229604  5182 net.cpp:84] Creating Layer Eltwise4
I1001 10:43:06.229612  5182 net.cpp:406] Eltwise4 <- Convolution8
I1001 10:43:06.229615  5182 net.cpp:406] Eltwise4 <- Convolution10
I1001 10:43:06.229619  5182 net.cpp:380] Eltwise4 -> Eltwise4
I1001 10:43:06.229635  5182 net.cpp:122] Setting up Eltwise4
I1001 10:43:06.229638  5182 net.cpp:129] Top shape: 100 32 16 16 (819200)
I1001 10:43:06.229640  5182 net.cpp:137] Memory required for data: 292865200
I1001 10:43:06.229642  5182 layer_factory.hpp:77] Creating layer penlu9
I1001 10:43:06.229647  5182 net.cpp:84] Creating Layer penlu9
I1001 10:43:06.229650  5182 net.cpp:406] penlu9 <- Eltwise4
I1001 10:43:06.229655  5182 net.cpp:367] penlu9 -> Eltwise4 (in-place)
I1001 10:43:06.229775  5182 net.cpp:122] Setting up penlu9
I1001 10:43:06.229790  5182 net.cpp:129] Top shape: 100 32 16 16 (819200)
I1001 10:43:06.229792  5182 net.cpp:137] Memory required for data: 296142000
I1001 10:43:06.229797  5182 layer_factory.hpp:77] Creating layer Eltwise4_penlu9_0_split
I1001 10:43:06.229801  5182 net.cpp:84] Creating Layer Eltwise4_penlu9_0_split
I1001 10:43:06.229804  5182 net.cpp:406] Eltwise4_penlu9_0_split <- Eltwise4
I1001 10:43:06.229806  5182 net.cpp:380] Eltwise4_penlu9_0_split -> Eltwise4_penlu9_0_split_0
I1001 10:43:06.229810  5182 net.cpp:380] Eltwise4_penlu9_0_split -> Eltwise4_penlu9_0_split_1
I1001 10:43:06.229846  5182 net.cpp:122] Setting up Eltwise4_penlu9_0_split
I1001 10:43:06.229849  5182 net.cpp:129] Top shape: 100 32 16 16 (819200)
I1001 10:43:06.229852  5182 net.cpp:129] Top shape: 100 32 16 16 (819200)
I1001 10:43:06.229854  5182 net.cpp:137] Memory required for data: 302695600
I1001 10:43:06.229856  5182 layer_factory.hpp:77] Creating layer Convolution11
I1001 10:43:06.229863  5182 net.cpp:84] Creating Layer Convolution11
I1001 10:43:06.229866  5182 net.cpp:406] Convolution11 <- Eltwise4_penlu9_0_split_0
I1001 10:43:06.229869  5182 net.cpp:380] Convolution11 -> Convolution11
I1001 10:43:06.231003  5182 net.cpp:122] Setting up Convolution11
I1001 10:43:06.231011  5182 net.cpp:129] Top shape: 100 32 16 16 (819200)
I1001 10:43:06.231014  5182 net.cpp:137] Memory required for data: 305972400
I1001 10:43:06.231017  5182 layer_factory.hpp:77] Creating layer BatchNorm11
I1001 10:43:06.231022  5182 net.cpp:84] Creating Layer BatchNorm11
I1001 10:43:06.231024  5182 net.cpp:406] BatchNorm11 <- Convolution11
I1001 10:43:06.231029  5182 net.cpp:367] BatchNorm11 -> Convolution11 (in-place)
I1001 10:43:06.231163  5182 net.cpp:122] Setting up BatchNorm11
I1001 10:43:06.231166  5182 net.cpp:129] Top shape: 100 32 16 16 (819200)
I1001 10:43:06.231168  5182 net.cpp:137] Memory required for data: 309249200
I1001 10:43:06.231173  5182 layer_factory.hpp:77] Creating layer Scale11
I1001 10:43:06.231178  5182 net.cpp:84] Creating Layer Scale11
I1001 10:43:06.231179  5182 net.cpp:406] Scale11 <- Convolution11
I1001 10:43:06.231182  5182 net.cpp:367] Scale11 -> Convolution11 (in-place)
I1001 10:43:06.231209  5182 layer_factory.hpp:77] Creating layer Scale11
I1001 10:43:06.231284  5182 net.cpp:122] Setting up Scale11
I1001 10:43:06.231288  5182 net.cpp:129] Top shape: 100 32 16 16 (819200)
I1001 10:43:06.231290  5182 net.cpp:137] Memory required for data: 312526000
I1001 10:43:06.231294  5182 layer_factory.hpp:77] Creating layer penlu10
I1001 10:43:06.231299  5182 net.cpp:84] Creating Layer penlu10
I1001 10:43:06.231302  5182 net.cpp:406] penlu10 <- Convolution11
I1001 10:43:06.231305  5182 net.cpp:367] penlu10 -> Convolution11 (in-place)
I1001 10:43:06.231412  5182 net.cpp:122] Setting up penlu10
I1001 10:43:06.231417  5182 net.cpp:129] Top shape: 100 32 16 16 (819200)
I1001 10:43:06.231420  5182 net.cpp:137] Memory required for data: 315802800
I1001 10:43:06.231423  5182 layer_factory.hpp:77] Creating layer Convolution12
I1001 10:43:06.231431  5182 net.cpp:84] Creating Layer Convolution12
I1001 10:43:06.231433  5182 net.cpp:406] Convolution12 <- Convolution11
I1001 10:43:06.231436  5182 net.cpp:380] Convolution12 -> Convolution12
I1001 10:43:06.232161  5182 net.cpp:122] Setting up Convolution12
I1001 10:43:06.232177  5182 net.cpp:129] Top shape: 100 32 16 16 (819200)
I1001 10:43:06.232179  5182 net.cpp:137] Memory required for data: 319079600
I1001 10:43:06.232183  5182 layer_factory.hpp:77] Creating layer BatchNorm12
I1001 10:43:06.232188  5182 net.cpp:84] Creating Layer BatchNorm12
I1001 10:43:06.232192  5182 net.cpp:406] BatchNorm12 <- Convolution12
I1001 10:43:06.232194  5182 net.cpp:367] BatchNorm12 -> Convolution12 (in-place)
I1001 10:43:06.232328  5182 net.cpp:122] Setting up BatchNorm12
I1001 10:43:06.232333  5182 net.cpp:129] Top shape: 100 32 16 16 (819200)
I1001 10:43:06.232336  5182 net.cpp:137] Memory required for data: 322356400
I1001 10:43:06.232339  5182 layer_factory.hpp:77] Creating layer Scale12
I1001 10:43:06.232344  5182 net.cpp:84] Creating Layer Scale12
I1001 10:43:06.232347  5182 net.cpp:406] Scale12 <- Convolution12
I1001 10:43:06.232349  5182 net.cpp:367] Scale12 -> Convolution12 (in-place)
I1001 10:43:06.232376  5182 layer_factory.hpp:77] Creating layer Scale12
I1001 10:43:06.232453  5182 net.cpp:122] Setting up Scale12
I1001 10:43:06.232457  5182 net.cpp:129] Top shape: 100 32 16 16 (819200)
I1001 10:43:06.232460  5182 net.cpp:137] Memory required for data: 325633200
I1001 10:43:06.232463  5182 layer_factory.hpp:77] Creating layer Eltwise5
I1001 10:43:06.232467  5182 net.cpp:84] Creating Layer Eltwise5
I1001 10:43:06.232470  5182 net.cpp:406] Eltwise5 <- Eltwise4_penlu9_0_split_1
I1001 10:43:06.232473  5182 net.cpp:406] Eltwise5 <- Convolution12
I1001 10:43:06.232477  5182 net.cpp:380] Eltwise5 -> Eltwise5
I1001 10:43:06.232489  5182 net.cpp:122] Setting up Eltwise5
I1001 10:43:06.232492  5182 net.cpp:129] Top shape: 100 32 16 16 (819200)
I1001 10:43:06.232494  5182 net.cpp:137] Memory required for data: 328910000
I1001 10:43:06.232496  5182 layer_factory.hpp:77] Creating layer penlu11
I1001 10:43:06.232502  5182 net.cpp:84] Creating Layer penlu11
I1001 10:43:06.232504  5182 net.cpp:406] penlu11 <- Eltwise5
I1001 10:43:06.232507  5182 net.cpp:367] penlu11 -> Eltwise5 (in-place)
I1001 10:43:06.232620  5182 net.cpp:122] Setting up penlu11
I1001 10:43:06.232625  5182 net.cpp:129] Top shape: 100 32 16 16 (819200)
I1001 10:43:06.232626  5182 net.cpp:137] Memory required for data: 332186800
I1001 10:43:06.232630  5182 layer_factory.hpp:77] Creating layer Eltwise5_penlu11_0_split
I1001 10:43:06.232635  5182 net.cpp:84] Creating Layer Eltwise5_penlu11_0_split
I1001 10:43:06.232636  5182 net.cpp:406] Eltwise5_penlu11_0_split <- Eltwise5
I1001 10:43:06.232640  5182 net.cpp:380] Eltwise5_penlu11_0_split -> Eltwise5_penlu11_0_split_0
I1001 10:43:06.232643  5182 net.cpp:380] Eltwise5_penlu11_0_split -> Eltwise5_penlu11_0_split_1
I1001 10:43:06.232669  5182 net.cpp:122] Setting up Eltwise5_penlu11_0_split
I1001 10:43:06.232673  5182 net.cpp:129] Top shape: 100 32 16 16 (819200)
I1001 10:43:06.232676  5182 net.cpp:129] Top shape: 100 32 16 16 (819200)
I1001 10:43:06.232678  5182 net.cpp:137] Memory required for data: 338740400
I1001 10:43:06.232681  5182 layer_factory.hpp:77] Creating layer Convolution13
I1001 10:43:06.232686  5182 net.cpp:84] Creating Layer Convolution13
I1001 10:43:06.232688  5182 net.cpp:406] Convolution13 <- Eltwise5_penlu11_0_split_0
I1001 10:43:06.232692  5182 net.cpp:380] Convolution13 -> Convolution13
I1001 10:43:06.233747  5182 net.cpp:122] Setting up Convolution13
I1001 10:43:06.233755  5182 net.cpp:129] Top shape: 100 32 16 16 (819200)
I1001 10:43:06.233757  5182 net.cpp:137] Memory required for data: 342017200
I1001 10:43:06.233762  5182 layer_factory.hpp:77] Creating layer BatchNorm13
I1001 10:43:06.233767  5182 net.cpp:84] Creating Layer BatchNorm13
I1001 10:43:06.233770  5182 net.cpp:406] BatchNorm13 <- Convolution13
I1001 10:43:06.233774  5182 net.cpp:367] BatchNorm13 -> Convolution13 (in-place)
I1001 10:43:06.233907  5182 net.cpp:122] Setting up BatchNorm13
I1001 10:43:06.233911  5182 net.cpp:129] Top shape: 100 32 16 16 (819200)
I1001 10:43:06.233913  5182 net.cpp:137] Memory required for data: 345294000
I1001 10:43:06.233918  5182 layer_factory.hpp:77] Creating layer Scale13
I1001 10:43:06.233929  5182 net.cpp:84] Creating Layer Scale13
I1001 10:43:06.233932  5182 net.cpp:406] Scale13 <- Convolution13
I1001 10:43:06.233935  5182 net.cpp:367] Scale13 -> Convolution13 (in-place)
I1001 10:43:06.233963  5182 layer_factory.hpp:77] Creating layer Scale13
I1001 10:43:06.234040  5182 net.cpp:122] Setting up Scale13
I1001 10:43:06.234043  5182 net.cpp:129] Top shape: 100 32 16 16 (819200)
I1001 10:43:06.234045  5182 net.cpp:137] Memory required for data: 348570800
I1001 10:43:06.234050  5182 layer_factory.hpp:77] Creating layer penlu12
I1001 10:43:06.234055  5182 net.cpp:84] Creating Layer penlu12
I1001 10:43:06.234057  5182 net.cpp:406] penlu12 <- Convolution13
I1001 10:43:06.234061  5182 net.cpp:367] penlu12 -> Convolution13 (in-place)
I1001 10:43:06.234166  5182 net.cpp:122] Setting up penlu12
I1001 10:43:06.234170  5182 net.cpp:129] Top shape: 100 32 16 16 (819200)
I1001 10:43:06.234172  5182 net.cpp:137] Memory required for data: 351847600
I1001 10:43:06.234176  5182 layer_factory.hpp:77] Creating layer Convolution14
I1001 10:43:06.234187  5182 net.cpp:84] Creating Layer Convolution14
I1001 10:43:06.234189  5182 net.cpp:406] Convolution14 <- Convolution13
I1001 10:43:06.234194  5182 net.cpp:380] Convolution14 -> Convolution14
I1001 10:43:06.235275  5182 net.cpp:122] Setting up Convolution14
I1001 10:43:06.235285  5182 net.cpp:129] Top shape: 100 32 16 16 (819200)
I1001 10:43:06.235287  5182 net.cpp:137] Memory required for data: 355124400
I1001 10:43:06.235302  5182 layer_factory.hpp:77] Creating layer BatchNorm14
I1001 10:43:06.235307  5182 net.cpp:84] Creating Layer BatchNorm14
I1001 10:43:06.235311  5182 net.cpp:406] BatchNorm14 <- Convolution14
I1001 10:43:06.235313  5182 net.cpp:367] BatchNorm14 -> Convolution14 (in-place)
I1001 10:43:06.235446  5182 net.cpp:122] Setting up BatchNorm14
I1001 10:43:06.235451  5182 net.cpp:129] Top shape: 100 32 16 16 (819200)
I1001 10:43:06.235453  5182 net.cpp:137] Memory required for data: 358401200
I1001 10:43:06.235458  5182 layer_factory.hpp:77] Creating layer Scale14
I1001 10:43:06.235462  5182 net.cpp:84] Creating Layer Scale14
I1001 10:43:06.235466  5182 net.cpp:406] Scale14 <- Convolution14
I1001 10:43:06.235468  5182 net.cpp:367] Scale14 -> Convolution14 (in-place)
I1001 10:43:06.235496  5182 layer_factory.hpp:77] Creating layer Scale14
I1001 10:43:06.235570  5182 net.cpp:122] Setting up Scale14
I1001 10:43:06.235574  5182 net.cpp:129] Top shape: 100 32 16 16 (819200)
I1001 10:43:06.235576  5182 net.cpp:137] Memory required for data: 361678000
I1001 10:43:06.235580  5182 layer_factory.hpp:77] Creating layer Eltwise6
I1001 10:43:06.235585  5182 net.cpp:84] Creating Layer Eltwise6
I1001 10:43:06.235587  5182 net.cpp:406] Eltwise6 <- Eltwise5_penlu11_0_split_1
I1001 10:43:06.235590  5182 net.cpp:406] Eltwise6 <- Convolution14
I1001 10:43:06.235594  5182 net.cpp:380] Eltwise6 -> Eltwise6
I1001 10:43:06.235606  5182 net.cpp:122] Setting up Eltwise6
I1001 10:43:06.235610  5182 net.cpp:129] Top shape: 100 32 16 16 (819200)
I1001 10:43:06.235611  5182 net.cpp:137] Memory required for data: 364954800
I1001 10:43:06.235613  5182 layer_factory.hpp:77] Creating layer penlu13
I1001 10:43:06.235618  5182 net.cpp:84] Creating Layer penlu13
I1001 10:43:06.235621  5182 net.cpp:406] penlu13 <- Eltwise6
I1001 10:43:06.235625  5182 net.cpp:367] penlu13 -> Eltwise6 (in-place)
I1001 10:43:06.235736  5182 net.cpp:122] Setting up penlu13
I1001 10:43:06.235740  5182 net.cpp:129] Top shape: 100 32 16 16 (819200)
I1001 10:43:06.235743  5182 net.cpp:137] Memory required for data: 368231600
I1001 10:43:06.235746  5182 layer_factory.hpp:77] Creating layer Eltwise6_penlu13_0_split
I1001 10:43:06.235749  5182 net.cpp:84] Creating Layer Eltwise6_penlu13_0_split
I1001 10:43:06.256973  5182 net.cpp:406] Eltwise6_penlu13_0_split <- Eltwise6
I1001 10:43:06.256984  5182 net.cpp:380] Eltwise6_penlu13_0_split -> Eltwise6_penlu13_0_split_0
I1001 10:43:06.256990  5182 net.cpp:380] Eltwise6_penlu13_0_split -> Eltwise6_penlu13_0_split_1
I1001 10:43:06.257028  5182 net.cpp:122] Setting up Eltwise6_penlu13_0_split
I1001 10:43:06.257041  5182 net.cpp:129] Top shape: 100 32 16 16 (819200)
I1001 10:43:06.257045  5182 net.cpp:129] Top shape: 100 32 16 16 (819200)
I1001 10:43:06.257047  5182 net.cpp:137] Memory required for data: 374785200
I1001 10:43:06.257050  5182 layer_factory.hpp:77] Creating layer Convolution15
I1001 10:43:06.257058  5182 net.cpp:84] Creating Layer Convolution15
I1001 10:43:06.257061  5182 net.cpp:406] Convolution15 <- Eltwise6_penlu13_0_split_0
I1001 10:43:06.257066  5182 net.cpp:380] Convolution15 -> Convolution15
I1001 10:43:06.258105  5182 net.cpp:122] Setting up Convolution15
I1001 10:43:06.258116  5182 net.cpp:129] Top shape: 100 64 8 8 (409600)
I1001 10:43:06.258118  5182 net.cpp:137] Memory required for data: 376423600
I1001 10:43:06.258123  5182 layer_factory.hpp:77] Creating layer BatchNorm15
I1001 10:43:06.258129  5182 net.cpp:84] Creating Layer BatchNorm15
I1001 10:43:06.258132  5182 net.cpp:406] BatchNorm15 <- Convolution15
I1001 10:43:06.258138  5182 net.cpp:367] BatchNorm15 -> Convolution15 (in-place)
I1001 10:43:06.258287  5182 net.cpp:122] Setting up BatchNorm15
I1001 10:43:06.258292  5182 net.cpp:129] Top shape: 100 64 8 8 (409600)
I1001 10:43:06.258294  5182 net.cpp:137] Memory required for data: 378062000
I1001 10:43:06.258301  5182 layer_factory.hpp:77] Creating layer Scale15
I1001 10:43:06.258306  5182 net.cpp:84] Creating Layer Scale15
I1001 10:43:06.258311  5182 net.cpp:406] Scale15 <- Convolution15
I1001 10:43:06.258313  5182 net.cpp:367] Scale15 -> Convolution15 (in-place)
I1001 10:43:06.258344  5182 layer_factory.hpp:77] Creating layer Scale15
I1001 10:43:06.258440  5182 net.cpp:122] Setting up Scale15
I1001 10:43:06.258443  5182 net.cpp:129] Top shape: 100 64 8 8 (409600)
I1001 10:43:06.258445  5182 net.cpp:137] Memory required for data: 379700400
I1001 10:43:06.258450  5182 layer_factory.hpp:77] Creating layer Convolution16
I1001 10:43:06.258457  5182 net.cpp:84] Creating Layer Convolution16
I1001 10:43:06.258460  5182 net.cpp:406] Convolution16 <- Eltwise6_penlu13_0_split_1
I1001 10:43:06.258466  5182 net.cpp:380] Convolution16 -> Convolution16
I1001 10:43:06.260020  5182 net.cpp:122] Setting up Convolution16
I1001 10:43:06.260030  5182 net.cpp:129] Top shape: 100 64 8 8 (409600)
I1001 10:43:06.260031  5182 net.cpp:137] Memory required for data: 381338800
I1001 10:43:06.260036  5182 layer_factory.hpp:77] Creating layer BatchNorm16
I1001 10:43:06.260042  5182 net.cpp:84] Creating Layer BatchNorm16
I1001 10:43:06.260046  5182 net.cpp:406] BatchNorm16 <- Convolution16
I1001 10:43:06.260049  5182 net.cpp:367] BatchNorm16 -> Convolution16 (in-place)
I1001 10:43:06.260191  5182 net.cpp:122] Setting up BatchNorm16
I1001 10:43:06.260195  5182 net.cpp:129] Top shape: 100 64 8 8 (409600)
I1001 10:43:06.260197  5182 net.cpp:137] Memory required for data: 382977200
I1001 10:43:06.260202  5182 layer_factory.hpp:77] Creating layer Scale16
I1001 10:43:06.260206  5182 net.cpp:84] Creating Layer Scale16
I1001 10:43:06.260210  5182 net.cpp:406] Scale16 <- Convolution16
I1001 10:43:06.260212  5182 net.cpp:367] Scale16 -> Convolution16 (in-place)
I1001 10:43:06.260241  5182 layer_factory.hpp:77] Creating layer Scale16
I1001 10:43:06.260321  5182 net.cpp:122] Setting up Scale16
I1001 10:43:06.260325  5182 net.cpp:129] Top shape: 100 64 8 8 (409600)
I1001 10:43:06.260327  5182 net.cpp:137] Memory required for data: 384615600
I1001 10:43:06.260331  5182 layer_factory.hpp:77] Creating layer penlu14
I1001 10:43:06.260337  5182 net.cpp:84] Creating Layer penlu14
I1001 10:43:06.260339  5182 net.cpp:406] penlu14 <- Convolution16
I1001 10:43:06.260344  5182 net.cpp:367] penlu14 -> Convolution16 (in-place)
I1001 10:43:06.260458  5182 net.cpp:122] Setting up penlu14
I1001 10:43:06.260462  5182 net.cpp:129] Top shape: 100 64 8 8 (409600)
I1001 10:43:06.260464  5182 net.cpp:137] Memory required for data: 386254000
I1001 10:43:06.260469  5182 layer_factory.hpp:77] Creating layer Convolution17
I1001 10:43:06.260478  5182 net.cpp:84] Creating Layer Convolution17
I1001 10:43:06.260479  5182 net.cpp:406] Convolution17 <- Convolution16
I1001 10:43:06.260491  5182 net.cpp:380] Convolution17 -> Convolution17
I1001 10:43:06.262255  5182 net.cpp:122] Setting up Convolution17
I1001 10:43:06.262264  5182 net.cpp:129] Top shape: 100 64 8 8 (409600)
I1001 10:43:06.262266  5182 net.cpp:137] Memory required for data: 387892400
I1001 10:43:06.262271  5182 layer_factory.hpp:77] Creating layer BatchNorm17
I1001 10:43:06.262276  5182 net.cpp:84] Creating Layer BatchNorm17
I1001 10:43:06.262279  5182 net.cpp:406] BatchNorm17 <- Convolution17
I1001 10:43:06.262284  5182 net.cpp:367] BatchNorm17 -> Convolution17 (in-place)
I1001 10:43:06.262424  5182 net.cpp:122] Setting up BatchNorm17
I1001 10:43:06.262429  5182 net.cpp:129] Top shape: 100 64 8 8 (409600)
I1001 10:43:06.262431  5182 net.cpp:137] Memory required for data: 389530800
I1001 10:43:06.262436  5182 layer_factory.hpp:77] Creating layer Scale17
I1001 10:43:06.262441  5182 net.cpp:84] Creating Layer Scale17
I1001 10:43:06.262444  5182 net.cpp:406] Scale17 <- Convolution17
I1001 10:43:06.262447  5182 net.cpp:367] Scale17 -> Convolution17 (in-place)
I1001 10:43:06.262475  5182 layer_factory.hpp:77] Creating layer Scale17
I1001 10:43:06.262562  5182 net.cpp:122] Setting up Scale17
I1001 10:43:06.262567  5182 net.cpp:129] Top shape: 100 64 8 8 (409600)
I1001 10:43:06.262569  5182 net.cpp:137] Memory required for data: 391169200
I1001 10:43:06.262573  5182 layer_factory.hpp:77] Creating layer Eltwise7
I1001 10:43:06.262578  5182 net.cpp:84] Creating Layer Eltwise7
I1001 10:43:06.262581  5182 net.cpp:406] Eltwise7 <- Convolution15
I1001 10:43:06.262584  5182 net.cpp:406] Eltwise7 <- Convolution17
I1001 10:43:06.262588  5182 net.cpp:380] Eltwise7 -> Eltwise7
I1001 10:43:06.262605  5182 net.cpp:122] Setting up Eltwise7
I1001 10:43:06.262609  5182 net.cpp:129] Top shape: 100 64 8 8 (409600)
I1001 10:43:06.262611  5182 net.cpp:137] Memory required for data: 392807600
I1001 10:43:06.262614  5182 layer_factory.hpp:77] Creating layer penlu15
I1001 10:43:06.262619  5182 net.cpp:84] Creating Layer penlu15
I1001 10:43:06.262621  5182 net.cpp:406] penlu15 <- Eltwise7
I1001 10:43:06.262624  5182 net.cpp:367] penlu15 -> Eltwise7 (in-place)
I1001 10:43:06.262737  5182 net.cpp:122] Setting up penlu15
I1001 10:43:06.262742  5182 net.cpp:129] Top shape: 100 64 8 8 (409600)
I1001 10:43:06.262743  5182 net.cpp:137] Memory required for data: 394446000
I1001 10:43:06.262748  5182 layer_factory.hpp:77] Creating layer Eltwise7_penlu15_0_split
I1001 10:43:06.262751  5182 net.cpp:84] Creating Layer Eltwise7_penlu15_0_split
I1001 10:43:06.262753  5182 net.cpp:406] Eltwise7_penlu15_0_split <- Eltwise7
I1001 10:43:06.262756  5182 net.cpp:380] Eltwise7_penlu15_0_split -> Eltwise7_penlu15_0_split_0
I1001 10:43:06.262761  5182 net.cpp:380] Eltwise7_penlu15_0_split -> Eltwise7_penlu15_0_split_1
I1001 10:43:06.262785  5182 net.cpp:122] Setting up Eltwise7_penlu15_0_split
I1001 10:43:06.262789  5182 net.cpp:129] Top shape: 100 64 8 8 (409600)
I1001 10:43:06.262791  5182 net.cpp:129] Top shape: 100 64 8 8 (409600)
I1001 10:43:06.262794  5182 net.cpp:137] Memory required for data: 397722800
I1001 10:43:06.262795  5182 layer_factory.hpp:77] Creating layer Convolution18
I1001 10:43:06.262804  5182 net.cpp:84] Creating Layer Convolution18
I1001 10:43:06.262806  5182 net.cpp:406] Convolution18 <- Eltwise7_penlu15_0_split_0
I1001 10:43:06.262810  5182 net.cpp:380] Convolution18 -> Convolution18
I1001 10:43:06.264509  5182 net.cpp:122] Setting up Convolution18
I1001 10:43:06.264518  5182 net.cpp:129] Top shape: 100 64 8 8 (409600)
I1001 10:43:06.264520  5182 net.cpp:137] Memory required for data: 399361200
I1001 10:43:06.264525  5182 layer_factory.hpp:77] Creating layer BatchNorm18
I1001 10:43:06.264530  5182 net.cpp:84] Creating Layer BatchNorm18
I1001 10:43:06.264533  5182 net.cpp:406] BatchNorm18 <- Convolution18
I1001 10:43:06.264538  5182 net.cpp:367] BatchNorm18 -> Convolution18 (in-place)
I1001 10:43:06.264678  5182 net.cpp:122] Setting up BatchNorm18
I1001 10:43:06.264683  5182 net.cpp:129] Top shape: 100 64 8 8 (409600)
I1001 10:43:06.264691  5182 net.cpp:137] Memory required for data: 400999600
I1001 10:43:06.264696  5182 layer_factory.hpp:77] Creating layer Scale18
I1001 10:43:06.264701  5182 net.cpp:84] Creating Layer Scale18
I1001 10:43:06.264704  5182 net.cpp:406] Scale18 <- Convolution18
I1001 10:43:06.264708  5182 net.cpp:367] Scale18 -> Convolution18 (in-place)
I1001 10:43:06.264737  5182 layer_factory.hpp:77] Creating layer Scale18
I1001 10:43:06.264817  5182 net.cpp:122] Setting up Scale18
I1001 10:43:06.264822  5182 net.cpp:129] Top shape: 100 64 8 8 (409600)
I1001 10:43:06.264824  5182 net.cpp:137] Memory required for data: 402638000
I1001 10:43:06.264828  5182 layer_factory.hpp:77] Creating layer penlu16
I1001 10:43:06.264834  5182 net.cpp:84] Creating Layer penlu16
I1001 10:43:06.264837  5182 net.cpp:406] penlu16 <- Convolution18
I1001 10:43:06.264840  5182 net.cpp:367] penlu16 -> Convolution18 (in-place)
I1001 10:43:06.264953  5182 net.cpp:122] Setting up penlu16
I1001 10:43:06.264957  5182 net.cpp:129] Top shape: 100 64 8 8 (409600)
I1001 10:43:06.264960  5182 net.cpp:137] Memory required for data: 404276400
I1001 10:43:06.264964  5182 layer_factory.hpp:77] Creating layer Convolution19
I1001 10:43:06.264971  5182 net.cpp:84] Creating Layer Convolution19
I1001 10:43:06.264973  5182 net.cpp:406] Convolution19 <- Convolution18
I1001 10:43:06.264977  5182 net.cpp:380] Convolution19 -> Convolution19
I1001 10:43:06.266676  5182 net.cpp:122] Setting up Convolution19
I1001 10:43:06.266685  5182 net.cpp:129] Top shape: 100 64 8 8 (409600)
I1001 10:43:06.266687  5182 net.cpp:137] Memory required for data: 405914800
I1001 10:43:06.266692  5182 layer_factory.hpp:77] Creating layer BatchNorm19
I1001 10:43:06.266697  5182 net.cpp:84] Creating Layer BatchNorm19
I1001 10:43:06.266700  5182 net.cpp:406] BatchNorm19 <- Convolution19
I1001 10:43:06.266705  5182 net.cpp:367] BatchNorm19 -> Convolution19 (in-place)
I1001 10:43:06.266849  5182 net.cpp:122] Setting up BatchNorm19
I1001 10:43:06.266852  5182 net.cpp:129] Top shape: 100 64 8 8 (409600)
I1001 10:43:06.266855  5182 net.cpp:137] Memory required for data: 407553200
I1001 10:43:06.266860  5182 layer_factory.hpp:77] Creating layer Scale19
I1001 10:43:06.266863  5182 net.cpp:84] Creating Layer Scale19
I1001 10:43:06.266866  5182 net.cpp:406] Scale19 <- Convolution19
I1001 10:43:06.266870  5182 net.cpp:367] Scale19 -> Convolution19 (in-place)
I1001 10:43:06.266898  5182 layer_factory.hpp:77] Creating layer Scale19
I1001 10:43:06.266979  5182 net.cpp:122] Setting up Scale19
I1001 10:43:06.266983  5182 net.cpp:129] Top shape: 100 64 8 8 (409600)
I1001 10:43:06.266985  5182 net.cpp:137] Memory required for data: 409191600
I1001 10:43:06.266988  5182 layer_factory.hpp:77] Creating layer Eltwise8
I1001 10:43:06.266993  5182 net.cpp:84] Creating Layer Eltwise8
I1001 10:43:06.266996  5182 net.cpp:406] Eltwise8 <- Eltwise7_penlu15_0_split_1
I1001 10:43:06.266999  5182 net.cpp:406] Eltwise8 <- Convolution19
I1001 10:43:06.267002  5182 net.cpp:380] Eltwise8 -> Eltwise8
I1001 10:43:06.267019  5182 net.cpp:122] Setting up Eltwise8
I1001 10:43:06.267024  5182 net.cpp:129] Top shape: 100 64 8 8 (409600)
I1001 10:43:06.267025  5182 net.cpp:137] Memory required for data: 410830000
I1001 10:43:06.267027  5182 layer_factory.hpp:77] Creating layer penlu17
I1001 10:43:06.267033  5182 net.cpp:84] Creating Layer penlu17
I1001 10:43:06.267035  5182 net.cpp:406] penlu17 <- Eltwise8
I1001 10:43:06.267040  5182 net.cpp:367] penlu17 -> Eltwise8 (in-place)
I1001 10:43:06.267151  5182 net.cpp:122] Setting up penlu17
I1001 10:43:06.267155  5182 net.cpp:129] Top shape: 100 64 8 8 (409600)
I1001 10:43:06.267158  5182 net.cpp:137] Memory required for data: 412468400
I1001 10:43:06.267163  5182 layer_factory.hpp:77] Creating layer Eltwise8_penlu17_0_split
I1001 10:43:06.267166  5182 net.cpp:84] Creating Layer Eltwise8_penlu17_0_split
I1001 10:43:06.267168  5182 net.cpp:406] Eltwise8_penlu17_0_split <- Eltwise8
I1001 10:43:06.267171  5182 net.cpp:380] Eltwise8_penlu17_0_split -> Eltwise8_penlu17_0_split_0
I1001 10:43:06.267182  5182 net.cpp:380] Eltwise8_penlu17_0_split -> Eltwise8_penlu17_0_split_1
I1001 10:43:06.267208  5182 net.cpp:122] Setting up Eltwise8_penlu17_0_split
I1001 10:43:06.267212  5182 net.cpp:129] Top shape: 100 64 8 8 (409600)
I1001 10:43:06.267215  5182 net.cpp:129] Top shape: 100 64 8 8 (409600)
I1001 10:43:06.267217  5182 net.cpp:137] Memory required for data: 415745200
I1001 10:43:06.267220  5182 layer_factory.hpp:77] Creating layer Convolution20
I1001 10:43:06.267226  5182 net.cpp:84] Creating Layer Convolution20
I1001 10:43:06.267228  5182 net.cpp:406] Convolution20 <- Eltwise8_penlu17_0_split_0
I1001 10:43:06.267233  5182 net.cpp:380] Convolution20 -> Convolution20
I1001 10:43:06.269250  5182 net.cpp:122] Setting up Convolution20
I1001 10:43:06.269258  5182 net.cpp:129] Top shape: 100 64 8 8 (409600)
I1001 10:43:06.269261  5182 net.cpp:137] Memory required for data: 417383600
I1001 10:43:06.269266  5182 layer_factory.hpp:77] Creating layer BatchNorm20
I1001 10:43:06.269271  5182 net.cpp:84] Creating Layer BatchNorm20
I1001 10:43:06.269274  5182 net.cpp:406] BatchNorm20 <- Convolution20
I1001 10:43:06.269279  5182 net.cpp:367] BatchNorm20 -> Convolution20 (in-place)
I1001 10:43:06.269424  5182 net.cpp:122] Setting up BatchNorm20
I1001 10:43:06.269429  5182 net.cpp:129] Top shape: 100 64 8 8 (409600)
I1001 10:43:06.269431  5182 net.cpp:137] Memory required for data: 419022000
I1001 10:43:06.269436  5182 layer_factory.hpp:77] Creating layer Scale20
I1001 10:43:06.269440  5182 net.cpp:84] Creating Layer Scale20
I1001 10:43:06.269443  5182 net.cpp:406] Scale20 <- Convolution20
I1001 10:43:06.269445  5182 net.cpp:367] Scale20 -> Convolution20 (in-place)
I1001 10:43:06.269475  5182 layer_factory.hpp:77] Creating layer Scale20
I1001 10:43:06.269557  5182 net.cpp:122] Setting up Scale20
I1001 10:43:06.269562  5182 net.cpp:129] Top shape: 100 64 8 8 (409600)
I1001 10:43:06.269563  5182 net.cpp:137] Memory required for data: 420660400
I1001 10:43:06.269567  5182 layer_factory.hpp:77] Creating layer penlu18
I1001 10:43:06.269572  5182 net.cpp:84] Creating Layer penlu18
I1001 10:43:06.269575  5182 net.cpp:406] penlu18 <- Convolution20
I1001 10:43:06.269579  5182 net.cpp:367] penlu18 -> Convolution20 (in-place)
I1001 10:43:06.269692  5182 net.cpp:122] Setting up penlu18
I1001 10:43:06.269697  5182 net.cpp:129] Top shape: 100 64 8 8 (409600)
I1001 10:43:06.269700  5182 net.cpp:137] Memory required for data: 422298800
I1001 10:43:06.269703  5182 layer_factory.hpp:77] Creating layer Convolution21
I1001 10:43:06.269711  5182 net.cpp:84] Creating Layer Convolution21
I1001 10:43:06.269713  5182 net.cpp:406] Convolution21 <- Convolution20
I1001 10:43:06.269717  5182 net.cpp:380] Convolution21 -> Convolution21
I1001 10:43:06.271772  5182 net.cpp:122] Setting up Convolution21
I1001 10:43:06.271781  5182 net.cpp:129] Top shape: 100 64 8 8 (409600)
I1001 10:43:06.271785  5182 net.cpp:137] Memory required for data: 423937200
I1001 10:43:06.271788  5182 layer_factory.hpp:77] Creating layer BatchNorm21
I1001 10:43:06.271793  5182 net.cpp:84] Creating Layer BatchNorm21
I1001 10:43:06.271796  5182 net.cpp:406] BatchNorm21 <- Convolution21
I1001 10:43:06.271800  5182 net.cpp:367] BatchNorm21 -> Convolution21 (in-place)
I1001 10:43:06.271944  5182 net.cpp:122] Setting up BatchNorm21
I1001 10:43:06.271948  5182 net.cpp:129] Top shape: 100 64 8 8 (409600)
I1001 10:43:06.271950  5182 net.cpp:137] Memory required for data: 425575600
I1001 10:43:06.271955  5182 layer_factory.hpp:77] Creating layer Scale21
I1001 10:43:06.271960  5182 net.cpp:84] Creating Layer Scale21
I1001 10:43:06.287838  5182 net.cpp:406] Scale21 <- Convolution21
I1001 10:43:06.287852  5182 net.cpp:367] Scale21 -> Convolution21 (in-place)
I1001 10:43:06.287895  5182 layer_factory.hpp:77] Creating layer Scale21
I1001 10:43:06.287992  5182 net.cpp:122] Setting up Scale21
I1001 10:43:06.287997  5182 net.cpp:129] Top shape: 100 64 8 8 (409600)
I1001 10:43:06.287998  5182 net.cpp:137] Memory required for data: 427214000
I1001 10:43:06.288003  5182 layer_factory.hpp:77] Creating layer Eltwise9
I1001 10:43:06.288017  5182 net.cpp:84] Creating Layer Eltwise9
I1001 10:43:06.288019  5182 net.cpp:406] Eltwise9 <- Eltwise8_penlu17_0_split_1
I1001 10:43:06.288023  5182 net.cpp:406] Eltwise9 <- Convolution21
I1001 10:43:06.288028  5182 net.cpp:380] Eltwise9 -> Eltwise9
I1001 10:43:06.288048  5182 net.cpp:122] Setting up Eltwise9
I1001 10:43:06.288053  5182 net.cpp:129] Top shape: 100 64 8 8 (409600)
I1001 10:43:06.288055  5182 net.cpp:137] Memory required for data: 428852400
I1001 10:43:06.288058  5182 layer_factory.hpp:77] Creating layer penlu19
I1001 10:43:06.288063  5182 net.cpp:84] Creating Layer penlu19
I1001 10:43:06.288065  5182 net.cpp:406] penlu19 <- Eltwise9
I1001 10:43:06.288069  5182 net.cpp:367] penlu19 -> Eltwise9 (in-place)
I1001 10:43:06.288198  5182 net.cpp:122] Setting up penlu19
I1001 10:43:06.288203  5182 net.cpp:129] Top shape: 100 64 8 8 (409600)
I1001 10:43:06.288206  5182 net.cpp:137] Memory required for data: 430490800
I1001 10:43:06.288211  5182 layer_factory.hpp:77] Creating layer Pooling1
I1001 10:43:06.288216  5182 net.cpp:84] Creating Layer Pooling1
I1001 10:43:06.288218  5182 net.cpp:406] Pooling1 <- Eltwise9
I1001 10:43:06.288223  5182 net.cpp:380] Pooling1 -> Pooling1
I1001 10:43:06.288373  5182 net.cpp:122] Setting up Pooling1
I1001 10:43:06.288380  5182 net.cpp:129] Top shape: 100 64 1 1 (6400)
I1001 10:43:06.288383  5182 net.cpp:137] Memory required for data: 430516400
I1001 10:43:06.288385  5182 layer_factory.hpp:77] Creating layer InnerProduct1
I1001 10:43:06.288393  5182 net.cpp:84] Creating Layer InnerProduct1
I1001 10:43:06.288394  5182 net.cpp:406] InnerProduct1 <- Pooling1
I1001 10:43:06.288399  5182 net.cpp:380] InnerProduct1 -> InnerProduct1
I1001 10:43:06.288506  5182 net.cpp:122] Setting up InnerProduct1
I1001 10:43:06.288511  5182 net.cpp:129] Top shape: 100 10 (1000)
I1001 10:43:06.288513  5182 net.cpp:137] Memory required for data: 430520400
I1001 10:43:06.288517  5182 layer_factory.hpp:77] Creating layer InnerProduct1_InnerProduct1_0_split
I1001 10:43:06.288522  5182 net.cpp:84] Creating Layer InnerProduct1_InnerProduct1_0_split
I1001 10:43:06.288525  5182 net.cpp:406] InnerProduct1_InnerProduct1_0_split <- InnerProduct1
I1001 10:43:06.288528  5182 net.cpp:380] InnerProduct1_InnerProduct1_0_split -> InnerProduct1_InnerProduct1_0_split_0
I1001 10:43:06.288533  5182 net.cpp:380] InnerProduct1_InnerProduct1_0_split -> InnerProduct1_InnerProduct1_0_split_1
I1001 10:43:06.288561  5182 net.cpp:122] Setting up InnerProduct1_InnerProduct1_0_split
I1001 10:43:06.288565  5182 net.cpp:129] Top shape: 100 10 (1000)
I1001 10:43:06.288568  5182 net.cpp:129] Top shape: 100 10 (1000)
I1001 10:43:06.288570  5182 net.cpp:137] Memory required for data: 430528400
I1001 10:43:06.288573  5182 layer_factory.hpp:77] Creating layer SoftmaxWithLoss1
I1001 10:43:06.288576  5182 net.cpp:84] Creating Layer SoftmaxWithLoss1
I1001 10:43:06.288579  5182 net.cpp:406] SoftmaxWithLoss1 <- InnerProduct1_InnerProduct1_0_split_0
I1001 10:43:06.288583  5182 net.cpp:406] SoftmaxWithLoss1 <- Data2_Data1_1_split_0
…
