…
I1001 15:00:41.163898  5332 net.cpp:294] The NetState phase (0) differed from the phase (1) specified by a rule in layer Accuracy1
I1001 15:00:41.164374  5332 net.cpp:51] Initializing net from parameters: 
name: "resnet_cifar10"
state {
  phase: TRAIN
  level: 0
  stage: ""
}
layer {
  name: "Data1"
  type: "Data"
  top: "Data1"
  top: "Data2"
  include {
    phase: TRAIN
  }
  transform_param {
    mirror: true
    crop_size: 28
    mean_file: "/home/x306/caffe/xn/PENLU/data/cifar10/mean.binaryproto"
  }
  data_param {
    source: "/home/x306/caffe/xn/PENLU/data/cifar10/cifar10_train_lmdb"
    batch_size: 100
    backend: LMDB
  }
}
layer {
  name: "Convolution1"
  type: "Convolution"
  bottom: "Data1"
  top: "Convolution1"
  param {
    lr_mult: 1
    decay_mult: 1
  }
  param {
    lr_mult: 2
    decay_mult: 0
  }
  convolution_param {
    num_output: 16
    pad: 1
    kernel_size: 3
    stride: 1
    weight_filler {
      type: "gaussian"
      std: 0.118
    }
    bias_filler {
      type: "constant"
      value: 0
    }
  }
}
layer {
  name: "BatchNorm1"
  type: "BatchNorm"
  bottom: "Convolution1"
  top: "Convolution1"
  param {
    lr_mult: 0
    decay_mult: 0
  }
  param {
    lr_mult: 0
    decay_mult: 0
  }
  param {
    lr_mult: 0
    decay_mult: 0
  }
}
layer {
  name: "Scale1"
  type: "Scale"
  bottom: "Convolution1"
  top: "Convolution1"
  scale_param {
    bias_term: true
  }
}
layer {
  name: "penlu1"
  type: "PENLU"
  bottom: "Convolution1"
  top: "Convolution1"
  param {
    lr_mult: 2
    decay_mult: 2
  }
  param {
    lr_mult: 2
    decay_mult: 2
  }
  param {
    lr_mult: 0
    decay_mult: 0
  }
  penlu_param {
    alpha_filler {
      type: "constant"
      value: 1
    }
    beta_filler {
      type: "constant"
      value: 1
    }
    eta_filler {
      type: "constant"
      value: 1
    }
  }
}
layer {
  name: "Convolution2"
  type: "Convolution"
  bottom: "Convolution1"
  top: "Convolution2"
  param {
    lr_mult: 1
    decay_mult: 1
  }
  param {
    lr_mult: 2
    decay_mult: 0
  }
  convolution_param {
    num_output: 16
    pad: 1
    kernel_size: 3
    stride: 1
    weight_filler {
      type: "gaussian"
      std: 0.118
    }
    bias_filler {
      type: "constant"
      value: 0
    }
  }
}
layer {
  name: "BatchNorm2"
  type: "BatchNorm"
  bottom: "Convolution2"
  top: "Convolution2"
  param {
    lr_mult: 0
    decay_mult: 0
  }
  param {
    lr_mult: 0
    decay_mult: 0
  }
  param {
    lr_mult: 0
    decay_mult: 0
  }
}
layer {
  name: "Scale2"
  type: "Scale"
  bottom: "Convolution2"
  top: "Convolution2"
  scale_param {
    bias_term: true
  }
}
layer {
  name: "penlu2"
  type: "PENLU"
  bottom: "Convolution2"
  top: "Convolution2"
  param {
    lr_mult: 2
    decay_mult: 2
  }
  param {
    lr_mult: 2
    decay_mult: 2
  }
  param {
    lr_mult: 0
    decay_mult: 0
  }
  penlu_param {
    alpha_filler {
      type: "constant"
      value: 1
    }
    beta_filler {
      type: "constant"
      value: 1
    }
    eta_filler {
      type: "constant"
      value: 1
    }
  }
}
layer {
  name: "Convolution3"
  type: "Convolution"
  bottom: "Convolution2"
  top: "Convolution3"
  param {
    lr_mult: 1
    decay_mult: 1
  }
  param {
    lr_mult: 2
    decay_mult: 0
  }
  convolution_param {
    num_output: 16
    pad: 1
    kernel_size: 3
    stride: 1
    weight_filler {
      type: "gaussian"
      std: 0.118
    }
    bias_filler {
      type: "constant"
      value: 0
    }
  }
}
layer {
  name: "BatchNorm3"
  type: "BatchNorm"
  bottom: "Convolution3"
  top: "Convolution3"
  param {
    lr_mult: 0
    decay_mult: 0
  }
  param {
    lr_mult: 0
    decay_mult: 0
  }
  param {
    lr_mult: 0
    decay_mult: 0
  }
}
layer {
  name: "Scale3"
  type: "Scale"
  bottom: "Convolution3"
  top: "Convolution3"
  scale_param {
    bias_term: true
  }
}
layer {
  name: "Eltwise1"
  type: "Eltwise"
  bottom: "Convolution1"
  bottom: "Convolution3"
  top: "Eltwise1"
  eltwise_param {
    operation: SUM
  }
}
layer {
  name: "penlu3"
  type: "PENLU"
  bottom: "Eltwise1"
  top: "Eltwise1"
  param {
    lr_mult: 2
    decay_mult: 2
  }
  param {
    lr_mult: 2
    decay_mult: 2
  }
  param {
    lr_mult: 0
    decay_mult: 0
  }
  penlu_param {
    alpha_filler {
      type: "constant"
      value: 1
    }
    beta_filler {
      type: "constant"
      value: 1
    }
    eta_filler {
      type: "constant"
      value: 1
    }
  }
}
layer {
  name: "Convolution4"
  type: "Convolution"
  bottom: "Eltwise1"
  top: "Convolution4"
  param {
    lr_mult: 1
    decay_mult: 1
  }
  param {
    lr_mult: 2
    decay_mult: 0
  }
  convolution_param {
    num_output: 16
    pad: 1
    kernel_size: 3
    stride: 1
    weight_filler {
      type: "gaussian"
      std: 0.118
    }
    bias_filler {
      type: "constant"
      value: 0
    }
  }
}
layer {
  name: "BatchNorm4"
  type: "BatchNorm"
  bottom: "Convolution4"
  top: "Convolution4"
  param {
    lr_mult: 0
    decay_mult: 0
  }
  param {
    lr_mult: 0
    decay_mult: 0
  }
  param {
    lr_mult: 0
    decay_mult: 0
  }
}
layer {
  name: "Scale4"
  type: "Scale"
  bottom: "Convolution4"
  top: "Convolution4"
  scale_param {
    bias_term: true
  }
}
layer {
  name: "penlu4"
  type: "PENLU"
  bottom: "Convolution4"
  top: "Convolution4"
  param {
    lr_mult: 2
    decay_mult: 2
  }
  param {
    lr_mult: 2
    decay_mult: 2
  }
  param {
    lr_mult: 0
    decay_mult: 0
  }
  penlu_param {
    alpha_filler {
      type: "constant"
      value: 1
    }
    beta_filler {
      type: "constant"
      value: 1
    }
    eta_filler {
      type: "constant"
      value: 1
    }
  }
}
layer {
  name: "Convolution5"
  type: "Convolution"
  bottom: "Convolution4"
  top: "Convolution5"
  param {
    lr_mult: 1
    decay_mult: 1
  }
  param {
    lr_mult: 2
    decay_mult: 0
  }
  convolution_param {
    num_output: 16
    pad: 1
    kernel_size: 3
    stride: 1
    weight_filler {
      type: "gaussian"
      std: 0.118
    }
    bias_filler {
      type: "constant"
      value: 0
    }
  }
}
layer {
  name: "BatchNorm5"
  type: "BatchNorm"
  bottom: "Convolution5"
  top: "Convolution5"
  param {
    lr_mult: 0
    decay_mult: 0
  }
  param {
    lr_mult: 0
    decay_mult: 0
  }
  param {
    lr_mult: 0
    decay_mult: 0
  }
}
layer {
  name: "Scale5"
  type: "Scale"
  bottom: "Convolution5"
  top: "Convolution5"
  scale_param {
    bias_term: true
  }
}
layer {
  name: "Eltwise2"
  type: "Eltwise"
  bottom: "Eltwise1"
  bottom: "Convolution5"
  top: "Eltwise2"
  eltwise_param {
    operation: SUM
  }
}
layer {
  name: "penlu5"
  type: "PENLU"
  bottom: "Eltwise2"
  top: "Eltwise2"
  param {
    lr_mult: 2
    decay_mult: 2
  }
  param {
    lr_mult: 2
    decay_mult: 2
  }
  param {
    lr_mult: 0
    decay_mult: 0
  }
  penlu_param {
    alpha_filler {
      type: "constant"
      value: 1
    }
    beta_filler {
      type: "constant"
      value: 1
    }
    eta_filler {
      type: "constant"
      value: 1
    }
  }
}
layer {
  name: "Convolution6"
  type: "Convolution"
  bottom: "Eltwise2"
  top: "Convolution6"
  param {
    lr_mult: 1
    decay_mult: 1
  }
  param {
    lr_mult: 2
    decay_mult: 0
  }
  convolution_param {
    num_output: 16
    pad: 1
    kernel_size: 3
    stride: 1
    weight_filler {
      type: "gaussian"
      std: 0.118
    }
    bias_filler {
      type: "constant"
      value: 0
    }
  }
}
layer {
  name: "BatchNorm6"
  type: "BatchNorm"
  bottom: "Convolution6"
  top: "Convolution6"
  param {
    lr_mult: 0
    decay_mult: 0
  }
  param {
    lr_mult: 0
    decay_mult: 0
  }
  param {
    lr_mult: 0
    decay_mult: 0
  }
}
layer {
  name: "Scale6"
  type: "Scale"
  bottom: "Convolution6"
  top: "Convolution6"
  scale_param {
    bias_term: true
  }
}
layer {
  name: "penlu6"
  type: "PENLU"
  bottom: "Convolution6"
  top: "Convolution6"
  param {
    lr_mult: 2
    decay_mult: 2
  }
  param {
    lr_mult: 2
    decay_mult: 2
  }
  param {
    lr_mult: 0
    decay_mult: 0
  }
  penlu_param {
    alpha_filler {
      type: "constant"
      value: 1
    }
    beta_filler {
      type: "constant"
      value: 1
    }
    eta_filler {
      type: "constant"
      value: 1
    }
  }
}
layer {
  name: "Convolution7"
  type: "Convolution"
  bottom: "Convolution6"
  top: "Convolution7"
  param {
    lr_mult: 1
    decay_mult: 1
  }
  param {
    lr_mult: 2
    decay_mult: 0
  }
  convolution_param {
    num_output: 16
    pad: 1
    kernel_size: 3
    stride: 1
    weight_filler {
      type: "gaussian"
      std: 0.118
    }
    bias_filler {
      type: "constant"
      value: 0
    }
  }
}
layer {
  name: "BatchNorm7"
  type: "BatchNorm"
  bottom: "Convolution7"
  top: "Convolution7"
  param {
    lr_mult: 0
    decay_mult: 0
  }
  param {
    lr_mult: 0
    decay_mult: 0
  }
  param {
    lr_mult: 0
    decay_mult: 0
  }
}
layer {
  name: "Scale7"
  type: "Scale"
  bottom: "Convolution7"
  top: "Convolution7"
  scale_param {
    bias_term: true
  }
}
layer {
  name: "Eltwise3"
  type: "Eltwise"
  bottom: "Eltwise2"
  bottom: "Convolution7"
  top: "Eltwise3"
  eltwise_param {
    operation: SUM
  }
}
layer {
  name: "penlu7"
  type: "PENLU"
  bottom: "Eltwise3"
  top: "Eltwise3"
  param {
    lr_mult: 2
    decay_mult: 2
  }
  param {
    lr_mult: 2
    decay_mult: 2
  }
  param {
    lr_mult: 0
    decay_mult: 0
  }
  penlu_param {
    alpha_filler {
      type: "constant"
      value: 1
    }
    beta_filler {
      type: "constant"
      value: 1
    }
    eta_filler {
      type: "constant"
      value: 1
    }
  }
}
layer {
  name: "Convolution8"
  type: "Convolution"
  bottom: "Eltwise3"
  top: "Convolution8"
  param {
    lr_mult: 1
    decay_mult: 1
  }
  param {
    lr_mult: 2
    decay_mult: 0
  }
  convolution_param {
    num_output: 32
    pad: 0
    kernel_size: 1
    stride: 2
    weight_filler {
      type: "gaussian"
      std: 0.25
    }
    bias_filler {
      type: "constant"
      value: 0
    }
  }
}
layer {
  name: "BatchNorm8"
  type: "BatchNorm"
  bottom: "Convolution8"
  top: "Convolution8"
  param {
    lr_mult: 0
    decay_mult: 0
  }
  param {
    lr_mult: 0
    decay_mult: 0
  }
  param {
    lr_mult: 0
    decay_mult: 0
  }
}
layer {
  name: "Scale8"
  type: "Scale"
  bottom: "Convolution8"
  top: "Convolution8"
  scale_param {
    bias_term: true
  }
}
layer {
  name: "Convolution9"
  type: "Convolution"
  bottom: "Eltwise3"
  top: "Convolution9"
  param {
    lr_mult: 1
    decay_mult: 1
  }
  param {
    lr_mult: 2
    decay_mult: 0
  }
  convolution_param {
    num_output: 32
    pad: 1
    kernel_size: 3
    stride: 2
    weight_filler {
      type: "gaussian"
      std: 0.083
    }
    bias_filler {
      type: "constant"
      value: 0
    }
  }
}
layer {
  name: "BatchNorm9"
  type: "BatchNorm"
  bottom: "Convolution9"
  top: "Convolution9"
  param {
    lr_mult: 0
    decay_mult: 0
  }
  param {
    lr_mult: 0
    decay_mult: 0
  }
  param {
    lr_mult: 0
    decay_mult: 0
  }
}
layer {
  name: "Scale9"
  type: "Scale"
  bottom: "Convolution9"
  top: "Convolution9"
  scale_param {
    bias_term: true
  }
}
layer {
  name: "penlu8"
  type: "PENLU"
  bottom: "Convolution9"
  top: "Convolution9"
  param {
    lr_mult: 2
    decay_mult: 2
  }
  param {
    lr_mult: 2
    decay_mult: 2
  }
  param {
    lr_mult: 0
    decay_mult: 0
  }
  penlu_param {
    alpha_filler {
      type: "constant"
      value: 1
    }
    beta_filler {
      type: "constant"
      value: 1
    }
    eta_filler {
      type: "constant"
      value: 1
    }
  }
}
layer {
  name: "Convolution10"
  type: "Convolution"
  bottom: "Convolution9"
  top: "Convolution10"
  param {
    lr_mult: 1
    decay_mult: 1
  }
  param {
    lr_mult: 2
    decay_mult: 0
  }
  convolution_param {
    num_output: 32
    pad: 1
    kernel_size: 3
    stride: 1
    weight_filler {
      type: "gaussian"
      std: 0.083
    }
    bias_filler {
      type: "constant"
      value: 0
    }
  }
}
layer {
  name: "BatchNorm10"
  type: "BatchNorm"
  bottom: "Convolution10"
  top: "Convolution10"
  param {
    lr_mult: 0
    decay_mult: 0
  }
  param {
    lr_mult: 0
    decay_mult: 0
  }
  param {
    lr_mult: 0
    decay_mult: 0
  }
}
layer {
  name: "Scale10"
  type: "Scale"
  bottom: "Convolution10"
  top: "Convolution10"
  scale_param {
    bias_term: true
  }
}
layer {
  name: "Eltwise4"
  type: "Eltwise"
  bottom: "Convolution8"
  bottom: "Convolution10"
  top: "Eltwise4"
  eltwise_param {
    operation: SUM
  }
}
layer {
  name: "penlu9"
  type: "PENLU"
  bottom: "Eltwise4"
  top: "Eltwise4"
  param {
    lr_mult: 2
    decay_mult: 2
  }
  param {
    lr_mult: 2
    decay_mult: 2
  }
  param {
    lr_mult: 0
    decay_mult: 0
  }
  penlu_param {
    alpha_filler {
      type: "constant"
      value: 1
    }
    beta_filler {
      type: "constant"
      value: 1
    }
    eta_filler {
      type: "constant"
      value: 1
    }
  }
}
layer {
  name: "Convolution11"
  type: "Convolution"
  bottom: "Eltwise4"
  top: "Convolution11"
  param {
    lr_mult: 1
    decay_mult: 1
  }
  param {
    lr_mult: 2
    decay_mult: 0
  }
  convolution_param {
    num_output: 32
    pad: 1
    kernel_size: 3
    stride: 1
    weight_filler {
      type: "gaussian"
      std: 0.083
    }
    bias_filler {
      type: "constant"
      value: 0
    }
  }
}
layer {
  name: "BatchNorm11"
  type: "BatchNorm"
  bottom: "Convolution11"
  top: "Convolution11"
  param {
    lr_mult: 0
    decay_mult: 0
  }
  param {
    lr_mult: 0
    decay_mult: 0
  }
  param {
    lr_mult: 0
    decay_mult: 0
  }
}
layer {
  name: "Scale11"
  type: "Scale"
  bottom: "Convolution11"
  top: "Convolution11"
  scale_param {
    bias_term: true
  }
}
layer {
  name: "penlu10"
  type: "PENLU"
  bottom: "Convolution11"
  top: "Convolution11"
  param {
    lr_mult: 2
    decay_mult: 2
  }
  param {
    lr_mult: 2
    decay_mult: 2
  }
  param {
    lr_mult: 0
    decay_mult: 0
  }
  penlu_param {
    alpha_filler {
      type: "constant"
      value: 1
    }
    beta_filler {
      type: "constant"
      value: 1
    }
    eta_filler {
      type: "constant"
      value: 1
    }
  }
}
layer {
  name: "Convolution12"
  type: "Convolution"
  bottom: "Convolution11"
  top: "Convolution12"
  param {
    lr_mult: 1
    decay_mult: 1
  }
  param {
    lr_mult: 2
    decay_mult: 0
  }
  convolution_param {
    num_output: 32
    pad: 1
    kernel_size: 3
    stride: 1
    weight_filler {
      type: "gaussian"
      std: 0.083
    }
    bias_filler {
      type: "constant"
      value: 0
    }
  }
}
layer {
  name: "BatchNorm12"
  type: "BatchNorm"
  bottom: "Convolution12"
  top: "Convolution12"
  param {
    lr_mult: 0
    decay_mult: 0
  }
  param {
    lr_mult: 0
    decay_mult: 0
  }
  param {
    lr_mult: 0
    decay_mult: 0
  }
}
layer {
  name: "Scale12"
  type: "Scale"
  bottom: "Convolution12"
  top: "Convolution12"
  scale_param {
    bias_term: true
  }
}
layer {
  name: "Eltwise5"
  type: "Eltwise"
  bottom: "Eltwise4"
  bottom: "Convolution12"
  top: "Eltwise5"
  eltwise_param {
    operation: SUM
  }
}
layer {
  name: "penlu11"
  type: "PENLU"
  bottom: "Eltwise5"
  top: "Eltwise5"
  param {
    lr_mult: 2
    decay_mult: 2
  }
  param {
    lr_mult: 2
    decay_mult: 2
  }
  param {
    lr_mult: 0
    decay_mult: 0
  }
  penlu_param {
    alpha_filler {
      type: "constant"
      value: 1
    }
    beta_filler {
      type: "constant"
      value: 1
    }
    eta_filler {
      type: "constant"
      value: 1
    }
  }
}
layer {
  name: "Convolution13"
  type: "Convolution"
  bottom: "Eltwise5"
  top: "Convolution13"
  param {
    lr_mult: 1
    decay_mult: 1
  }
  param {
    lr_mult: 2
    decay_mult: 0
  }
  convolution_param {
    num_output: 32
    pad: 1
    kernel_size: 3
    stride: 1
    weight_filler {
      type: "gaussian"
      std: 0.083
    }
    bias_filler {
      type: "constant"
      value: 0
    }
  }
}
layer {
  name: "BatchNorm13"
  type: "BatchNorm"
  bottom: "Convolution13"
  top: "Convolution13"
  param {
    lr_mult: 0
    decay_mult: 0
  }
  param {
    lr_mult: 0
    decay_mult: 0
  }
  param {
    lr_mult: 0
    decay_mult: 0
  }
}
layer {
  name: "Scale13"
  type: "Scale"
  bottom: "Convolution13"
  top: "Convolution13"
  scale_param {
    bias_term: true
  }
}
layer {
  name: "penlu12"
  type: "PENLU"
  bottom: "Convolution13"
  top: "Convolution13"
  param {
    lr_mult: 2
    decay_mult: 2
  }
  param {
    lr_mult: 2
    decay_mult: 2
  }
  param {
    lr_mult: 0
    decay_mult: 0
  }
  penlu_param {
    alpha_filler {
      type: "constant"
      value: 1
    }
    beta_filler {
      type: "constant"
      value: 1
    }
    eta_filler {
      type: "constant"
      value: 1
    }
  }
}
layer {
  name: "Convolution14"
  type: "Convolution"
  bottom: "Convolution13"
  top: "Convolution14"
  param {
    lr_mult: 1
    decay_mult: 1
  }
  param {
    lr_mult: 2
    decay_mult: 0
  }
  convolution_param {
    num_output: 32
    pad: 1
    kernel_size: 3
    stride: 1
    weight_filler {
      type: "gaussian"
      std: 0.083
    }
    bias_filler {
      type: "constant"
      value: 0
    }
  }
}
layer {
  name: "BatchNorm14"
  type: "BatchNorm"
  bottom: "Convolution14"
  top: "Convolution14"
  param {
    lr_mult: 0
    decay_mult: 0
  }
  param {
    lr_mult: 0
    decay_mult: 0
  }
  param {
    lr_mult: 0
    decay_mult: 0
  }
}
layer {
  name: "Scale14"
  type: "Scale"
  bottom: "Convolution14"
  top: "Convolution14"
  scale_param {
    bias_term: true
  }
}
layer {
  name: "Eltwise6"
  type: "Eltwise"
  bottom: "Eltwise5"
  bottom: "Convolution14"
  top: "Eltwise6"
  eltwise_param {
    operation: SUM
  }
}
layer {
  name: "penlu13"
  type: "PENLU"
  bottom: "Eltwise6"
  top: "Eltwise6"
  param {
    lr_mult: 2
    decay_mult: 2
  }
  param {
    lr_mult: 2
    decay_mult: 2
  }
  param {
    lr_mult: 0
    decay_mult: 0
  }
  penlu_param {
    alpha_filler {
      type: "constant"
      value: 1
    }
    beta_filler {
      type: "constant"
      value: 1
    }
    eta_filler {
      type: "constant"
      value: 1
    }
  }
}
layer {
  name: "Convolution15"
  type: "Convolution"
  bottom: "Eltwise6"
  top: "Convolution15"
  param {
    lr_mult: 1
    decay_mult: 1
  }
  param {
    lr_mult: 2
    decay_mult: 0
  }
  convolution_param {
    num_output: 64
    pad: 0
    kernel_size: 1
    stride: 2
    weight_filler {
      type: "gaussian"
      std: 0.17677669
    }
    bias_filler {
      type: "constant"
      value: 0
    }
  }
}
layer {
  name: "BatchNorm15"
  type: "BatchNorm"
  bottom: "Convolution15"
  top: "Convolution15"
  param {
    lr_mult: 0
    decay_mult: 0
  }
  param {
    lr_mult: 0
    decay_mult: 0
  }
  param {
    lr_mult: 0
    decay_mult: 0
  }
}
layer {
  name: "Scale15"
  type: "Scale"
  bottom: "Convolution15"
  top: "Convolution15"
  scale_param {
    bias_term: true
  }
}
layer {
  name: "Convolution16"
  type: "Convolution"
  bottom: "Eltwise6"
  top: "Convolution16"
  param {
    lr_mult: 1
    decay_mult: 1
  }
  param {
    lr_mult: 2
    decay_mult: 0
  }
  convolution_param {
    num_output: 64
    pad: 1
    kernel_size: 3
    stride: 2
    weight_filler {
      type: "gaussian"
      std: 0.059
    }
    bias_filler {
      type: "constant"
      value: 0
    }
  }
}
layer {
  name: "BatchNorm16"
  type: "BatchNorm"
  bottom: "Convolution16"
  top: "Convolution16"
  param {
    lr_mult: 0
    decay_mult: 0
  }
  param {
    lr_mult: 0
    decay_mult: 0
  }
  param {
    lr_mult: 0
    decay_mult: 0
  }
}
layer {
  name: "Scale16"
  type: "Scale"
  bottom: "Convolution16"
  top: "Convolution16"
  scale_param {
    bias_term: true
  }
}
layer {
  name: "penlu14"
  type: "PENLU"
  bottom: "Convolution16"
  top: "Convolution16"
  param {
    lr_mult: 2
    decay_mult: 2
  }
  param {
    lr_mult: 2
    decay_mult: 2
  }
  param {
    lr_mult: 0
    decay_mult: 0
  }
  penlu_param {
    alpha_filler {
      type: "constant"
      value: 1
    }
    beta_filler {
      type: "constant"
      value: 1
    }
    eta_filler {
      type: "constant"
      value: 1
    }
  }
}
layer {
  name: "Convolution17"
  type: "Convolution"
  bottom: "Convolution16"
  top: "Convolution17"
  param {
    lr_mult: 1
    decay_mult: 1
  }
  param {
    lr_mult: 2
    decay_mult: 0
  }
  convolution_param {
    num_output: 64
    pad: 1
    kernel_size: 3
    stride: 1
    weight_filler {
      type: "gaussian"
      std: 0.059
    }
    bias_filler {
      type: "constant"
      value: 0
    }
  }
}
layer {
  name: "BatchNorm17"
  type: "BatchNorm"
  bottom: "Convolution17"
  top: "Convolution17"
  param {
    lr_mult: 0
    decay_mult: 0
  }
  param {
    lr_mult: 0
    decay_mult: 0
  }
  param {
    lr_mult: 0
    decay_mult: 0
  }
}
layer {
  name: "Scale17"
  type: "Scale"
  bottom: "Convolution17"
  top: "Convolution17"
  scale_param {
    bias_term: true
  }
}
layer {
  name: "Eltwise7"
  type: "Eltwise"
  bottom: "Convolution15"
  bottom: "Convolution17"
  top: "Eltwise7"
  eltwise_param {
    operation: SUM
  }
}
layer {
  name: "penlu15"
  type: "PENLU"
  bottom: "Eltwise7"
  top: "Eltwise7"
  param {
    lr_mult: 2
    decay_mult: 2
  }
  param {
    lr_mult: 2
    decay_mult: 2
  }
  param {
    lr_mult: 0
    decay_mult: 0
  }
  penlu_param {
    alpha_filler {
      type: "constant"
      value: 1
    }
    beta_filler {
      type: "constant"
      value: 1
    }
    eta_filler {
      type: "constant"
      value: 1
    }
  }
}
layer {
  name: "Convolution18"
  type: "Convolution"
  bottom: "Eltwise7"
  top: "Convolution18"
  param {
    lr_mult: 1
    decay_mult: 1
  }
  param {
    lr_mult: 2
    decay_mult: 0
  }
  convolution_param {
    num_output: 64
    pad: 1
    kernel_size: 3
    stride: 1
    weight_filler {
      type: "gaussian"
      std: 0.059
    }
    bias_filler {
      type: "constant"
      value: 0
    }
  }
}
layer {
  name: "BatchNorm18"
  type: "BatchNorm"
  bottom: "Convolution18"
  top: "Convolution18"
  param {
    lr_mult: 0
    decay_mult: 0
  }
  param {
    lr_mult: 0
    decay_mult: 0
  }
  param {
    lr_mult: 0
    decay_mult: 0
  }
}
layer {
  name: "Scale18"
  type: "Scale"
  bottom: "Convolution18"
  top: "Convolution18"
  scale_param {
    bias_term: true
  }
}
layer {
  name: "penlu16"
  type: "PENLU"
  bottom: "Convolution18"
  top: "Convolution18"
  param {
    lr_mult: 2
    decay_mult: 2
  }
  param {
    lr_mult: 2
    decay_mult: 2
  }
  param {
    lr_mult: 0
    decay_mult: 0
  }
  penlu_param {
    alpha_filler {
      type: "constant"
      value: 1
    }
    beta_filler {
      type: "constant"
      value: 1
    }
    eta_filler {
      type: "constant"
      value: 1
    }
  }
}
layer {
  name: "Convolution19"
  type: "Convolution"
  bottom: "Convolution18"
  top: "Convolution19"
  param {
    lr_mult: 1
    decay_mult: 1
  }
  param {
    lr_mult: 2
    decay_mult: 0
  }
  convolution_param {
    num_output: 64
    pad: 1
    kernel_size: 3
    stride: 1
    weight_filler {
      type: "gaussian"
      std: 0.059
    }
    bias_filler {
      type: "constant"
      value: 0
    }
  }
}
layer {
  name: "BatchNorm19"
  type: "BatchNorm"
  bottom: "Convolution19"
  top: "Convolution19"
  param {
    lr_mult: 0
    decay_mult: 0
  }
  param {
    lr_mult: 0
    decay_mult: 0
  }
  param {
    lr_mult: 0
    decay_mult: 0
  }
}
layer {
  name: "Scale19"
  type: "Scale"
  bottom: "Convolution19"
  top: "Convolution19"
  scale_param {
    bias_term: true
  }
}
layer {
  name: "Eltwise8"
  type: "Eltwise"
  bottom: "Eltwise7"
  bottom: "Convolution19"
  top: "Eltwise8"
  eltwise_param {
    operation: SUM
  }
}
layer {
  name: "penlu17"
  type: "PENLU"
  bottom: "Eltwise8"
  top: "Eltwise8"
  param {
    lr_mult: 2
    decay_mult: 2
  }
  param {
    lr_mult: 2
    decay_mult: 2
  }
  param {
    lr_mult: 0
    decay_mult: 0
  }
  penlu_param {
    alpha_filler {
      type: "constant"
      value: 1
    }
    beta_filler {
      type: "constant"
      value: 1
    }
    eta_filler {
      type: "constant"
      value: 1
    }
  }
}
layer {
  name: "Convolution20"
  type: "Convolution"
  bottom: "Eltwise8"
  top: "Convolution20"
  param {
    lr_mult: 1
    decay_mult: 1
  }
  param {
    lr_mult: 2
    decay_mult: 0
  }
  convolution_param {
    num_output: 64
    pad: 1
    kernel_size: 3
    stride: 1
    weight_filler {
      type: "gaussian"
      std: 0.059
    }
    bias_filler {
      type: "constant"
      value: 0
    }
  }
}
layer {
  name: "BatchNorm20"
  type: "BatchNorm"
  bottom: "Convolution20"
  top: "Convolution20"
  param {
    lr_mult: 0
    decay_mult: 0
  }
  param {
    lr_mult: 0
    decay_mult: 0
  }
  param {
    lr_mult: 0
    decay_mult: 0
  }
}
layer {
  name: "Scale20"
  type: "Scale"
  bottom: "Convolution20"
  top: "Convolution20"
  scale_param {
    bias_term: true
  }
}
layer {
  name: "penlu18"
  type: "PENLU"
  bottom: "Convolution20"
  top: "Convolution20"
  param {
    lr_mult: 2
    decay_mult: 2
  }
  param {
    lr_mult: 2
    decay_mult: 2
  }
  param {
    lr_mult: 0
    decay_mult: 0
  }
  penlu_param {
    alpha_filler {
      type: "constant"
      value: 1
    }
    beta_filler {
      type: "constant"
      value: 1
    }
    eta_filler {
      type: "constant"
      value: 1
    }
  }
}
layer {
  name: "Convolution21"
  type: "Convolution"
  bottom: "Convolution20"
  top: "Convolution21"
  param {
    lr_mult: 1
    decay_mult: 1
  }
  param {
    lr_mult: 2
    decay_mult: 0
  }
  convolution_param {
    num_output: 64
    pad: 1
    kernel_size: 3
    stride: 1
    weight_filler {
      type: "gaussian"
      std: 0.059
    }
    bias_filler {
      type: "constant"
      value: 0
    }
  }
}
layer {
  name: "BatchNorm21"
  type: "BatchNorm"
  bottom: "Convolution21"
  top: "Convolution21"
  param {
    lr_mult: 0
    decay_mult: 0
  }
  param {
    lr_mult: 0
    decay_mult: 0
  }
  param {
    lr_mult: 0
    decay_mult: 0
  }
}
layer {
  name: "Scale21"
  type: "Scale"
  bottom: "Convolution21"
  top: "Convolution21"
  scale_param {
    bias_term: true
  }
}
layer {
  name: "Eltwise9"
  type: "Eltwise"
  bottom: "Eltwise8"
  bottom: "Convolution21"
  top: "Eltwise9"
  eltwise_param {
    operation: SUM
  }
}
layer {
  name: "penlu19"
  type: "PENLU"
  bottom: "Eltwise9"
  top: "Eltwise9"
  param {
    lr_mult: 2
    decay_mult: 2
  }
  param {
    lr_mult: 2
    decay_mult: 2
  }
  param {
    lr_mult: 0
    decay_mult: 0
  }
  penlu_param {
    alpha_filler {
      type: "constant"
      value: 1
    }
    beta_filler {
      type: "constant"
      value: 1
    }
    eta_filler {
      type: "constant"
      value: 1
    }
  }
}
layer {
  name: "Pooling1"
  type: "Pooling"
  bottom: "Eltwise9"
  top: "Pooling1"
  pooling_param {
    pool: AVE
    global_pooling: true
  }
}
layer {
  name: "InnerProduct1"
  type: "InnerProduct"
  bottom: "Pooling1"
  top: "InnerProduct1"
  param {
    lr_mult: 1
    decay_mult: 1
  }
  param {
    lr_mult: 2
    decay_mult: 1
  }
  inner_product_param {
    num_output: 10
    weight_filler {
      type: "gaussian"
      std: 0.01
    }
    bias_filler {
      type: "constant"
      value: 0
    }
  }
}
layer {
  name: "SoftmaxWithLoss1"
  type: "SoftmaxWithLoss"
  bottom: "InnerProduct1"
  bottom: "Data2"
  top: "SoftmaxWithLoss1"
}
I1001 15:00:41.164752  5332 layer_factory.hpp:77] Creating layer Data1
I1001 15:00:41.164829  5332 db_lmdb.cpp:35] Opened lmdb /home/x306/caffe/xn/PENLU/data/cifar10/cifar10_train_lmdb
I1001 15:00:41.164855  5332 net.cpp:84] Creating Layer Data1
I1001 15:00:41.164860  5332 net.cpp:380] Data1 -> Data1
I1001 15:00:41.164876  5332 net.cpp:380] Data1 -> Data2
I1001 15:00:41.164885  5332 data_transformer.cpp:25] Loading mean file from: /home/x306/caffe/xn/PENLU/data/cifar10/mean.binaryproto
I1001 15:00:41.166358  5332 data_layer.cpp:45] output data size: 100,3,28,28
I1001 15:00:41.168808  5332 net.cpp:122] Setting up Data1
I1001 15:00:41.168824  5332 net.cpp:129] Top shape: 100 3 28 28 (235200)
I1001 15:00:41.168829  5332 net.cpp:129] Top shape: 100 (100)
I1001 15:00:41.168831  5332 net.cpp:137] Memory required for data: 941200
I1001 15:00:41.168838  5332 layer_factory.hpp:77] Creating layer Convolution1
I1001 15:00:41.168856  5332 net.cpp:84] Creating Layer Convolution1
I1001 15:00:41.168861  5332 net.cpp:406] Convolution1 <- Data1
I1001 15:00:41.168871  5332 net.cpp:380] Convolution1 -> Convolution1
I1001 15:00:41.320097  5332 net.cpp:122] Setting up Convolution1
I1001 15:00:41.320122  5332 net.cpp:129] Top shape: 100 16 28 28 (1254400)
I1001 15:00:41.320125  5332 net.cpp:137] Memory required for data: 5958800
I1001 15:00:41.320139  5332 layer_factory.hpp:77] Creating layer BatchNorm1
I1001 15:00:41.320158  5332 net.cpp:84] Creating Layer BatchNorm1
I1001 15:00:41.320163  5332 net.cpp:406] BatchNorm1 <- Convolution1
I1001 15:00:41.320178  5332 net.cpp:367] BatchNorm1 -> Convolution1 (in-place)
I1001 15:00:41.320338  5332 net.cpp:122] Setting up BatchNorm1
I1001 15:00:41.320344  5332 net.cpp:129] Top shape: 100 16 28 28 (1254400)
I1001 15:00:41.320346  5332 net.cpp:137] Memory required for data: 10976400
I1001 15:00:41.320354  5332 layer_factory.hpp:77] Creating layer Scale1
I1001 15:00:41.320375  5332 net.cpp:84] Creating Layer Scale1
I1001 15:00:41.320379  5332 net.cpp:406] Scale1 <- Convolution1
I1001 15:00:41.320382  5332 net.cpp:367] Scale1 -> Convolution1 (in-place)
I1001 15:00:41.320436  5332 layer_factory.hpp:77] Creating layer Scale1
I1001 15:00:41.320543  5332 net.cpp:122] Setting up Scale1
I1001 15:00:41.320549  5332 net.cpp:129] Top shape: 100 16 28 28 (1254400)
I1001 15:00:41.320551  5332 net.cpp:137] Memory required for data: 15994000
I1001 15:00:41.320555  5332 layer_factory.hpp:77] Creating layer penlu1
I1001 15:00:41.320565  5332 net.cpp:84] Creating Layer penlu1
I1001 15:00:41.320578  5332 net.cpp:406] penlu1 <- Convolution1
I1001 15:00:41.320582  5332 net.cpp:367] penlu1 -> Convolution1 (in-place)
I1001 15:00:41.321197  5332 net.cpp:122] Setting up penlu1
I1001 15:00:41.321207  5332 net.cpp:129] Top shape: 100 16 28 28 (1254400)
I1001 15:00:41.321209  5332 net.cpp:137] Memory required for data: 21011600
I1001 15:00:41.321216  5332 layer_factory.hpp:77] Creating layer Convolution1_penlu1_0_split
I1001 15:00:41.321221  5332 net.cpp:84] Creating Layer Convolution1_penlu1_0_split
I1001 15:00:41.321223  5332 net.cpp:406] Convolution1_penlu1_0_split <- Convolution1
I1001 15:00:41.321238  5332 net.cpp:380] Convolution1_penlu1_0_split -> Convolution1_penlu1_0_split_0
I1001 15:00:41.321245  5332 net.cpp:380] Convolution1_penlu1_0_split -> Convolution1_penlu1_0_split_1
I1001 15:00:41.321305  5332 net.cpp:122] Setting up Convolution1_penlu1_0_split
I1001 15:00:41.321313  5332 net.cpp:129] Top shape: 100 16 28 28 (1254400)
I1001 15:00:41.321319  5332 net.cpp:129] Top shape: 100 16 28 28 (1254400)
I1001 15:00:41.321321  5332 net.cpp:137] Memory required for data: 31046800
I1001 15:00:41.321323  5332 layer_factory.hpp:77] Creating layer Convolution2
I1001 15:00:41.321331  5332 net.cpp:84] Creating Layer Convolution2
I1001 15:00:41.321343  5332 net.cpp:406] Convolution2 <- Convolution1_penlu1_0_split_0
I1001 15:00:41.321347  5332 net.cpp:380] Convolution2 -> Convolution2
I1001 15:00:41.322199  5332 net.cpp:122] Setting up Convolution2
I1001 15:00:41.322209  5332 net.cpp:129] Top shape: 100 16 28 28 (1254400)
I1001 15:00:41.322211  5332 net.cpp:137] Memory required for data: 36064400
I1001 15:00:41.322216  5332 layer_factory.hpp:77] Creating layer BatchNorm2
I1001 15:00:41.322242  5332 net.cpp:84] Creating Layer BatchNorm2
I1001 15:00:41.322249  5332 net.cpp:406] BatchNorm2 <- Convolution2
I1001 15:00:41.322257  5332 net.cpp:367] BatchNorm2 -> Convolution2 (in-place)
I1001 15:00:41.322412  5332 net.cpp:122] Setting up BatchNorm2
I1001 15:00:41.322419  5332 net.cpp:129] Top shape: 100 16 28 28 (1254400)
I1001 15:00:41.322422  5332 net.cpp:137] Memory required for data: 41082000
I1001 15:00:41.322427  5332 layer_factory.hpp:77] Creating layer Scale2
I1001 15:00:41.322432  5332 net.cpp:84] Creating Layer Scale2
I1001 15:00:41.322434  5332 net.cpp:406] Scale2 <- Convolution2
I1001 15:00:41.322438  5332 net.cpp:367] Scale2 -> Convolution2 (in-place)
I1001 15:00:41.322489  5332 layer_factory.hpp:77] Creating layer Scale2
I1001 15:00:41.322592  5332 net.cpp:122] Setting up Scale2
I1001 15:00:41.322599  5332 net.cpp:129] Top shape: 100 16 28 28 (1254400)
I1001 15:00:41.322602  5332 net.cpp:137] Memory required for data: 46099600
I1001 15:00:41.322608  5332 layer_factory.hpp:77] Creating layer penlu2
I1001 15:00:41.322613  5332 net.cpp:84] Creating Layer penlu2
I1001 15:00:41.322616  5332 net.cpp:406] penlu2 <- Convolution2
I1001 15:00:41.322630  5332 net.cpp:367] penlu2 -> Convolution2 (in-place)
I1001 15:00:41.322741  5332 net.cpp:122] Setting up penlu2
I1001 15:00:41.322747  5332 net.cpp:129] Top shape: 100 16 28 28 (1254400)
I1001 15:00:41.322749  5332 net.cpp:137] Memory required for data: 51117200
I1001 15:00:41.322754  5332 layer_factory.hpp:77] Creating layer Convolution3
I1001 15:00:41.322762  5332 net.cpp:84] Creating Layer Convolution3
I1001 15:00:41.322763  5332 net.cpp:406] Convolution3 <- Convolution2
I1001 15:00:41.322777  5332 net.cpp:380] Convolution3 -> Convolution3
I1001 15:00:41.323624  5332 net.cpp:122] Setting up Convolution3
I1001 15:00:41.323635  5332 net.cpp:129] Top shape: 100 16 28 28 (1254400)
I1001 15:00:41.323638  5332 net.cpp:137] Memory required for data: 56134800
I1001 15:00:41.323642  5332 layer_factory.hpp:77] Creating layer BatchNorm3
I1001 15:00:41.323647  5332 net.cpp:84] Creating Layer BatchNorm3
I1001 15:00:41.323649  5332 net.cpp:406] BatchNorm3 <- Convolution3
I1001 15:00:41.323663  5332 net.cpp:367] BatchNorm3 -> Convolution3 (in-place)
I1001 15:00:41.323786  5332 net.cpp:122] Setting up BatchNorm3
I1001 15:00:41.323791  5332 net.cpp:129] Top shape: 100 16 28 28 (1254400)
I1001 15:00:41.323792  5332 net.cpp:137] Memory required for data: 61152400
I1001 15:00:41.323797  5332 layer_factory.hpp:77] Creating layer Scale3
I1001 15:00:41.323801  5332 net.cpp:84] Creating Layer Scale3
I1001 15:00:41.323804  5332 net.cpp:406] Scale3 <- Convolution3
I1001 15:00:41.323807  5332 net.cpp:367] Scale3 -> Convolution3 (in-place)
I1001 15:00:41.323848  5332 layer_factory.hpp:77] Creating layer Scale3
I1001 15:00:41.323935  5332 net.cpp:122] Setting up Scale3
I1001 15:00:41.323940  5332 net.cpp:129] Top shape: 100 16 28 28 (1254400)
I1001 15:00:41.323941  5332 net.cpp:137] Memory required for data: 66170000
I1001 15:00:41.323945  5332 layer_factory.hpp:77] Creating layer Eltwise1
I1001 15:00:41.323951  5332 net.cpp:84] Creating Layer Eltwise1
I1001 15:00:41.323952  5332 net.cpp:406] Eltwise1 <- Convolution1_penlu1_0_split_1
I1001 15:00:41.323956  5332 net.cpp:406] Eltwise1 <- Convolution3
I1001 15:00:41.323958  5332 net.cpp:380] Eltwise1 -> Eltwise1
I1001 15:00:41.323984  5332 net.cpp:122] Setting up Eltwise1
I1001 15:00:41.323998  5332 net.cpp:129] Top shape: 100 16 28 28 (1254400)
I1001 15:00:41.324000  5332 net.cpp:137] Memory required for data: 71187600
I1001 15:00:41.324002  5332 layer_factory.hpp:77] Creating layer penlu3
I1001 15:00:41.324007  5332 net.cpp:84] Creating Layer penlu3
I1001 15:00:41.324009  5332 net.cpp:406] penlu3 <- Eltwise1
I1001 15:00:41.324013  5332 net.cpp:367] penlu3 -> Eltwise1 (in-place)
I1001 15:00:41.324123  5332 net.cpp:122] Setting up penlu3
I1001 15:00:41.324128  5332 net.cpp:129] Top shape: 100 16 28 28 (1254400)
I1001 15:00:41.324131  5332 net.cpp:137] Memory required for data: 76205200
I1001 15:00:41.324142  5332 layer_factory.hpp:77] Creating layer Eltwise1_penlu3_0_split
I1001 15:00:41.324146  5332 net.cpp:84] Creating Layer Eltwise1_penlu3_0_split
I1001 15:00:41.324158  5332 net.cpp:406] Eltwise1_penlu3_0_split <- Eltwise1
I1001 15:00:41.324162  5332 net.cpp:380] Eltwise1_penlu3_0_split -> Eltwise1_penlu3_0_split_0
I1001 15:00:41.324167  5332 net.cpp:380] Eltwise1_penlu3_0_split -> Eltwise1_penlu3_0_split_1
I1001 15:00:41.324198  5332 net.cpp:122] Setting up Eltwise1_penlu3_0_split
I1001 15:00:41.324203  5332 net.cpp:129] Top shape: 100 16 28 28 (1254400)
I1001 15:00:41.324205  5332 net.cpp:129] Top shape: 100 16 28 28 (1254400)
I1001 15:00:41.324208  5332 net.cpp:137] Memory required for data: 86240400
I1001 15:00:41.324209  5332 layer_factory.hpp:77] Creating layer Convolution4
I1001 15:00:41.324226  5332 net.cpp:84] Creating Layer Convolution4
I1001 15:00:41.324229  5332 net.cpp:406] Convolution4 <- Eltwise1_penlu3_0_split_0
I1001 15:00:41.324234  5332 net.cpp:380] Convolution4 -> Convolution4
I1001 15:00:41.325078  5332 net.cpp:122] Setting up Convolution4
I1001 15:00:41.325088  5332 net.cpp:129] Top shape: 100 16 28 28 (1254400)
I1001 15:00:41.325093  5332 net.cpp:137] Memory required for data: 91258000
I1001 15:00:41.325098  5332 layer_factory.hpp:77] Creating layer BatchNorm4
I1001 15:00:41.325103  5332 net.cpp:84] Creating Layer BatchNorm4
I1001 15:00:41.325105  5332 net.cpp:406] BatchNorm4 <- Convolution4
I1001 15:00:41.325109  5332 net.cpp:367] BatchNorm4 -> Convolution4 (in-place)
I1001 15:00:41.325222  5332 net.cpp:122] Setting up BatchNorm4
I1001 15:00:41.325227  5332 net.cpp:129] Top shape: 100 16 28 28 (1254400)
I1001 15:00:41.325230  5332 net.cpp:137] Memory required for data: 96275600
I1001 15:00:41.325237  5332 layer_factory.hpp:77] Creating layer Scale4
I1001 15:00:41.325242  5332 net.cpp:84] Creating Layer Scale4
I1001 15:00:41.325244  5332 net.cpp:406] Scale4 <- Convolution4
I1001 15:00:41.325248  5332 net.cpp:367] Scale4 -> Convolution4 (in-place)
I1001 15:00:41.325271  5332 layer_factory.hpp:77] Creating layer Scale4
I1001 15:00:41.325338  5332 net.cpp:122] Setting up Scale4
I1001 15:00:41.325343  5332 net.cpp:129] Top shape: 100 16 28 28 (1254400)
I1001 15:00:41.325346  5332 net.cpp:137] Memory required for data: 101293200
I1001 15:00:41.325351  5332 layer_factory.hpp:77] Creating layer penlu4
I1001 15:00:41.325356  5332 net.cpp:84] Creating Layer penlu4
I1001 15:00:41.325359  5332 net.cpp:406] penlu4 <- Convolution4
I1001 15:00:41.325362  5332 net.cpp:367] penlu4 -> Convolution4 (in-place)
I1001 15:00:41.325454  5332 net.cpp:122] Setting up penlu4
I1001 15:00:41.325459  5332 net.cpp:129] Top shape: 100 16 28 28 (1254400)
I1001 15:00:41.325462  5332 net.cpp:137] Memory required for data: 106310800
I1001 15:00:41.325467  5332 layer_factory.hpp:77] Creating layer Convolution5
I1001 15:00:41.325474  5332 net.cpp:84] Creating Layer Convolution5
I1001 15:00:41.325477  5332 net.cpp:406] Convolution5 <- Convolution4
I1001 15:00:41.325481  5332 net.cpp:380] Convolution5 -> Convolution5
I1001 15:00:41.326310  5332 net.cpp:122] Setting up Convolution5
I1001 15:00:41.326320  5332 net.cpp:129] Top shape: 100 16 28 28 (1254400)
I1001 15:00:41.326324  5332 net.cpp:137] Memory required for data: 111328400
I1001 15:00:41.326329  5332 layer_factory.hpp:77] Creating layer BatchNorm5
I1001 15:00:41.326334  5332 net.cpp:84] Creating Layer BatchNorm5
I1001 15:00:41.326337  5332 net.cpp:406] BatchNorm5 <- Convolution5
I1001 15:00:41.326340  5332 net.cpp:367] BatchNorm5 -> Convolution5 (in-place)
I1001 15:00:41.326458  5332 net.cpp:122] Setting up BatchNorm5
I1001 15:00:41.326463  5332 net.cpp:129] Top shape: 100 16 28 28 (1254400)
I1001 15:00:41.326467  5332 net.cpp:137] Memory required for data: 116346000
I1001 15:00:41.326472  5332 layer_factory.hpp:77] Creating layer Scale5
I1001 15:00:41.326477  5332 net.cpp:84] Creating Layer Scale5
I1001 15:00:41.326478  5332 net.cpp:406] Scale5 <- Convolution5
I1001 15:00:41.326483  5332 net.cpp:367] Scale5 -> Convolution5 (in-place)
I1001 15:00:41.326514  5332 layer_factory.hpp:77] Creating layer Scale5
I1001 15:00:41.326589  5332 net.cpp:122] Setting up Scale5
I1001 15:00:41.326596  5332 net.cpp:129] Top shape: 100 16 28 28 (1254400)
I1001 15:00:41.326598  5332 net.cpp:137] Memory required for data: 121363600
I1001 15:00:41.326602  5332 layer_factory.hpp:77] Creating layer Eltwise2
I1001 15:00:41.326607  5332 net.cpp:84] Creating Layer Eltwise2
I1001 15:00:41.326611  5332 net.cpp:406] Eltwise2 <- Eltwise1_penlu3_0_split_1
I1001 15:00:41.326613  5332 net.cpp:406] Eltwise2 <- Convolution5
I1001 15:00:41.326617  5332 net.cpp:380] Eltwise2 -> Eltwise2
I1001 15:00:41.326632  5332 net.cpp:122] Setting up Eltwise2
I1001 15:00:41.326637  5332 net.cpp:129] Top shape: 100 16 28 28 (1254400)
I1001 15:00:41.326639  5332 net.cpp:137] Memory required for data: 126381200
I1001 15:00:41.326642  5332 layer_factory.hpp:77] Creating layer penlu5
I1001 15:00:41.326647  5332 net.cpp:84] Creating Layer penlu5
I1001 15:00:41.326650  5332 net.cpp:406] penlu5 <- Eltwise2
I1001 15:00:41.326654  5332 net.cpp:367] penlu5 -> Eltwise2 (in-place)
I1001 15:00:41.326750  5332 net.cpp:122] Setting up penlu5
I1001 15:00:41.326756  5332 net.cpp:129] Top shape: 100 16 28 28 (1254400)
I1001 15:00:41.326758  5332 net.cpp:137] Memory required for data: 131398800
I1001 15:00:41.326763  5332 layer_factory.hpp:77] Creating layer Eltwise2_penlu5_0_split
I1001 15:00:41.326767  5332 net.cpp:84] Creating Layer Eltwise2_penlu5_0_split
I1001 15:00:41.326771  5332 net.cpp:406] Eltwise2_penlu5_0_split <- Eltwise2
I1001 15:00:41.326773  5332 net.cpp:380] Eltwise2_penlu5_0_split -> Eltwise2_penlu5_0_split_0
I1001 15:00:41.326778  5332 net.cpp:380] Eltwise2_penlu5_0_split -> Eltwise2_penlu5_0_split_1
I1001 15:00:41.326799  5332 net.cpp:122] Setting up Eltwise2_penlu5_0_split
I1001 15:00:41.326803  5332 net.cpp:129] Top shape: 100 16 28 28 (1254400)
I1001 15:00:41.326807  5332 net.cpp:129] Top shape: 100 16 28 28 (1254400)
I1001 15:00:41.326809  5332 net.cpp:137] Memory required for data: 141434000
I1001 15:00:41.326812  5332 layer_factory.hpp:77] Creating layer Convolution6
I1001 15:00:41.326819  5332 net.cpp:84] Creating Layer Convolution6
I1001 15:00:41.326822  5332 net.cpp:406] Convolution6 <- Eltwise2_penlu5_0_split_0
I1001 15:00:41.326827  5332 net.cpp:380] Convolution6 -> Convolution6
I1001 15:00:41.327657  5332 net.cpp:122] Setting up Convolution6
I1001 15:00:41.327667  5332 net.cpp:129] Top shape: 100 16 28 28 (1254400)
I1001 15:00:41.327672  5332 net.cpp:137] Memory required for data: 146451600
I1001 15:00:41.327675  5332 layer_factory.hpp:77] Creating layer BatchNorm6
I1001 15:00:41.327682  5332 net.cpp:84] Creating Layer BatchNorm6
I1001 15:00:41.327684  5332 net.cpp:406] BatchNorm6 <- Convolution6
I1001 15:00:41.327688  5332 net.cpp:367] BatchNorm6 -> Convolution6 (in-place)
I1001 15:00:41.327810  5332 net.cpp:122] Setting up BatchNorm6
I1001 15:00:41.327814  5332 net.cpp:129] Top shape: 100 16 28 28 (1254400)
I1001 15:00:41.327817  5332 net.cpp:137] Memory required for data: 151469200
I1001 15:00:41.327822  5332 layer_factory.hpp:77] Creating layer Scale6
I1001 15:00:41.327826  5332 net.cpp:84] Creating Layer Scale6
I1001 15:00:41.327831  5332 net.cpp:406] Scale6 <- Convolution6
I1001 15:00:41.327833  5332 net.cpp:367] Scale6 -> Convolution6 (in-place)
I1001 15:00:41.327857  5332 layer_factory.hpp:77] Creating layer Scale6
I1001 15:00:41.327927  5332 net.cpp:122] Setting up Scale6
I1001 15:00:41.327932  5332 net.cpp:129] Top shape: 100 16 28 28 (1254400)
I1001 15:00:41.327935  5332 net.cpp:137] Memory required for data: 156486800
I1001 15:00:41.327939  5332 layer_factory.hpp:77] Creating layer penlu6
I1001 15:00:41.327945  5332 net.cpp:84] Creating Layer penlu6
I1001 15:00:41.327949  5332 net.cpp:406] penlu6 <- Convolution6
I1001 15:00:41.327952  5332 net.cpp:367] penlu6 -> Convolution6 (in-place)
I1001 15:00:41.328047  5332 net.cpp:122] Setting up penlu6
I1001 15:00:41.328052  5332 net.cpp:129] Top shape: 100 16 28 28 (1254400)
I1001 15:00:41.328055  5332 net.cpp:137] Memory required for data: 161504400
I1001 15:00:41.328068  5332 layer_factory.hpp:77] Creating layer Convolution7
I1001 15:00:41.328074  5332 net.cpp:84] Creating Layer Convolution7
I1001 15:00:41.328078  5332 net.cpp:406] Convolution7 <- Convolution6
I1001 15:00:41.328083  5332 net.cpp:380] Convolution7 -> Convolution7
I1001 15:00:41.328593  5332 net.cpp:122] Setting up Convolution7
I1001 15:00:41.328601  5332 net.cpp:129] Top shape: 100 16 28 28 (1254400)
I1001 15:00:41.328604  5332 net.cpp:137] Memory required for data: 166522000
I1001 15:00:41.328609  5332 layer_factory.hpp:77] Creating layer BatchNorm7
I1001 15:00:41.328614  5332 net.cpp:84] Creating Layer BatchNorm7
I1001 15:00:41.328618  5332 net.cpp:406] BatchNorm7 <- Convolution7
I1001 15:00:41.328621  5332 net.cpp:367] BatchNorm7 -> Convolution7 (in-place)
I1001 15:00:41.328740  5332 net.cpp:122] Setting up BatchNorm7
I1001 15:00:41.328745  5332 net.cpp:129] Top shape: 100 16 28 28 (1254400)
I1001 15:00:41.328748  5332 net.cpp:137] Memory required for data: 171539600
I1001 15:00:41.328758  5332 layer_factory.hpp:77] Creating layer Scale7
I1001 15:00:41.328763  5332 net.cpp:84] Creating Layer Scale7
I1001 15:00:41.328766  5332 net.cpp:406] Scale7 <- Convolution7
I1001 15:00:41.328770  5332 net.cpp:367] Scale7 -> Convolution7 (in-place)
I1001 15:00:41.328794  5332 layer_factory.hpp:77] Creating layer Scale7
I1001 15:00:41.328863  5332 net.cpp:122] Setting up Scale7
I1001 15:00:41.328868  5332 net.cpp:129] Top shape: 100 16 28 28 (1254400)
I1001 15:00:41.328872  5332 net.cpp:137] Memory required for data: 176557200
I1001 15:00:41.328876  5332 layer_factory.hpp:77] Creating layer Eltwise3
I1001 15:00:41.328881  5332 net.cpp:84] Creating Layer Eltwise3
I1001 15:00:41.328883  5332 net.cpp:406] Eltwise3 <- Eltwise2_penlu5_0_split_1
I1001 15:00:41.328886  5332 net.cpp:406] Eltwise3 <- Convolution7
I1001 15:00:41.328891  5332 net.cpp:380] Eltwise3 -> Eltwise3
I1001 15:00:41.328905  5332 net.cpp:122] Setting up Eltwise3
I1001 15:00:41.328909  5332 net.cpp:129] Top shape: 100 16 28 28 (1254400)
I1001 15:00:41.328912  5332 net.cpp:137] Memory required for data: 181574800
I1001 15:00:41.328915  5332 layer_factory.hpp:77] Creating layer penlu7
I1001 15:00:41.328920  5332 net.cpp:84] Creating Layer penlu7
I1001 15:00:41.328923  5332 net.cpp:406] penlu7 <- Eltwise3
I1001 15:00:41.328927  5332 net.cpp:367] penlu7 -> Eltwise3 (in-place)
I1001 15:00:41.329026  5332 net.cpp:122] Setting up penlu7
I1001 15:00:41.329031  5332 net.cpp:129] Top shape: 100 16 28 28 (1254400)
I1001 15:00:41.329035  5332 net.cpp:137] Memory required for data: 186592400
I1001 15:00:41.329038  5332 layer_factory.hpp:77] Creating layer Eltwise3_penlu7_0_split
I1001 15:00:41.329043  5332 net.cpp:84] Creating Layer Eltwise3_penlu7_0_split
I1001 15:00:41.329046  5332 net.cpp:406] Eltwise3_penlu7_0_split <- Eltwise3
I1001 15:00:41.329049  5332 net.cpp:380] Eltwise3_penlu7_0_split -> Eltwise3_penlu7_0_split_0
I1001 15:00:41.329054  5332 net.cpp:380] Eltwise3_penlu7_0_split -> Eltwise3_penlu7_0_split_1
I1001 15:00:41.329075  5332 net.cpp:122] Setting up Eltwise3_penlu7_0_split
I1001 15:00:41.329079  5332 net.cpp:129] Top shape: 100 16 28 28 (1254400)
I1001 15:00:41.329082  5332 net.cpp:129] Top shape: 100 16 28 28 (1254400)
I1001 15:00:41.329085  5332 net.cpp:137] Memory required for data: 196627600
I1001 15:00:41.329087  5332 layer_factory.hpp:77] Creating layer Convolution8
I1001 15:00:41.329093  5332 net.cpp:84] Creating Layer Convolution8
I1001 15:00:41.329097  5332 net.cpp:406] Convolution8 <- Eltwise3_penlu7_0_split_0
I1001 15:00:41.329100  5332 net.cpp:380] Convolution8 -> Convolution8
I1001 15:00:41.330214  5332 net.cpp:122] Setting up Convolution8
I1001 15:00:41.330224  5332 net.cpp:129] Top shape: 100 32 14 14 (627200)
I1001 15:00:41.330227  5332 net.cpp:137] Memory required for data: 199136400
I1001 15:00:41.330232  5332 layer_factory.hpp:77] Creating layer BatchNorm8
I1001 15:00:41.330238  5332 net.cpp:84] Creating Layer BatchNorm8
I1001 15:00:41.330241  5332 net.cpp:406] BatchNorm8 <- Convolution8
I1001 15:00:41.330245  5332 net.cpp:367] BatchNorm8 -> Convolution8 (in-place)
I1001 15:00:41.330401  5332 net.cpp:122] Setting up BatchNorm8
I1001 15:00:41.330407  5332 net.cpp:129] Top shape: 100 32 14 14 (627200)
I1001 15:00:41.330410  5332 net.cpp:137] Memory required for data: 201645200
I1001 15:00:41.330425  5332 layer_factory.hpp:77] Creating layer Scale8
I1001 15:00:41.330430  5332 net.cpp:84] Creating Layer Scale8
I1001 15:00:41.330432  5332 net.cpp:406] Scale8 <- Convolution8
I1001 15:00:41.330436  5332 net.cpp:367] Scale8 -> Convolution8 (in-place)
I1001 15:00:41.330471  5332 layer_factory.hpp:77] Creating layer Scale8
I1001 15:00:41.330544  5332 net.cpp:122] Setting up Scale8
I1001 15:00:41.330550  5332 net.cpp:129] Top shape: 100 32 14 14 (627200)
I1001 15:00:41.330552  5332 net.cpp:137] Memory required for data: 204154000
I1001 15:00:41.330556  5332 layer_factory.hpp:77] Creating layer Convolution9
I1001 15:00:41.330564  5332 net.cpp:84] Creating Layer Convolution9
I1001 15:00:41.330567  5332 net.cpp:406] Convolution9 <- Eltwise3_penlu7_0_split_1
I1001 15:00:41.330571  5332 net.cpp:380] Convolution9 -> Convolution9
I1001 15:00:41.332181  5332 net.cpp:122] Setting up Convolution9
I1001 15:00:41.332195  5332 net.cpp:129] Top shape: 100 32 14 14 (627200)
I1001 15:00:41.332201  5332 net.cpp:137] Memory required for data: 206662800
I1001 15:00:41.332208  5332 layer_factory.hpp:77] Creating layer BatchNorm9
I1001 15:00:41.332216  5332 net.cpp:84] Creating Layer BatchNorm9
I1001 15:00:41.332221  5332 net.cpp:406] BatchNorm9 <- Convolution9
I1001 15:00:41.332227  5332 net.cpp:367] BatchNorm9 -> Convolution9 (in-place)
I1001 15:00:41.332432  5332 net.cpp:122] Setting up BatchNorm9
I1001 15:00:41.332444  5332 net.cpp:129] Top shape: 100 32 14 14 (627200)
I1001 15:00:41.332449  5332 net.cpp:137] Memory required for data: 209171600
I1001 15:00:41.332459  5332 layer_factory.hpp:77] Creating layer Scale9
I1001 15:00:41.332468  5332 net.cpp:84] Creating Layer Scale9
I1001 15:00:41.332474  5332 net.cpp:406] Scale9 <- Convolution9
I1001 15:00:41.332481  5332 net.cpp:367] Scale9 -> Convolution9 (in-place)
I1001 15:00:41.332525  5332 layer_factory.hpp:77] Creating layer Scale9
I1001 15:00:41.332612  5332 net.cpp:122] Setting up Scale9
I1001 15:00:41.332623  5332 net.cpp:129] Top shape: 100 32 14 14 (627200)
I1001 15:00:41.332626  5332 net.cpp:137] Memory required for data: 211680400
I1001 15:00:41.332630  5332 layer_factory.hpp:77] Creating layer penlu8
I1001 15:00:41.332636  5332 net.cpp:84] Creating Layer penlu8
I1001 15:00:41.332639  5332 net.cpp:406] penlu8 <- Convolution9
I1001 15:00:41.332643  5332 net.cpp:367] penlu8 -> Convolution9 (in-place)
I1001 15:00:41.332756  5332 net.cpp:122] Setting up penlu8
I1001 15:00:41.332761  5332 net.cpp:129] Top shape: 100 32 14 14 (627200)
I1001 15:00:41.332772  5332 net.cpp:137] Memory required for data: 214189200
I1001 15:00:41.332777  5332 layer_factory.hpp:77] Creating layer Convolution10
I1001 15:00:41.332784  5332 net.cpp:84] Creating Layer Convolution10
I1001 15:00:41.332787  5332 net.cpp:406] Convolution10 <- Convolution9
I1001 15:00:41.332792  5332 net.cpp:380] Convolution10 -> Convolution10
I1001 15:00:41.333814  5332 net.cpp:122] Setting up Convolution10
I1001 15:00:41.333824  5332 net.cpp:129] Top shape: 100 32 14 14 (627200)
I1001 15:00:41.333838  5332 net.cpp:137] Memory required for data: 216698000
I1001 15:00:41.333843  5332 layer_factory.hpp:77] Creating layer BatchNorm10
I1001 15:00:41.333848  5332 net.cpp:84] Creating Layer BatchNorm10
I1001 15:00:41.333850  5332 net.cpp:406] BatchNorm10 <- Convolution10
I1001 15:00:41.333855  5332 net.cpp:367] BatchNorm10 -> Convolution10 (in-place)
I1001 15:00:41.333981  5332 net.cpp:122] Setting up BatchNorm10
I1001 15:00:41.333986  5332 net.cpp:129] Top shape: 100 32 14 14 (627200)
I1001 15:00:41.333989  5332 net.cpp:137] Memory required for data: 219206800
I1001 15:00:41.333994  5332 layer_factory.hpp:77] Creating layer Scale10
I1001 15:00:41.333999  5332 net.cpp:84] Creating Layer Scale10
I1001 15:00:41.334002  5332 net.cpp:406] Scale10 <- Convolution10
I1001 15:00:41.334013  5332 net.cpp:367] Scale10 -> Convolution10 (in-place)
I1001 15:00:41.334040  5332 layer_factory.hpp:77] Creating layer Scale10
I1001 15:00:41.334121  5332 net.cpp:122] Setting up Scale10
I1001 15:00:41.334126  5332 net.cpp:129] Top shape: 100 32 14 14 (627200)
I1001 15:00:41.334138  5332 net.cpp:137] Memory required for data: 221715600
I1001 15:00:41.334142  5332 layer_factory.hpp:77] Creating layer Eltwise4
I1001 15:00:41.334147  5332 net.cpp:84] Creating Layer Eltwise4
I1001 15:00:41.334149  5332 net.cpp:406] Eltwise4 <- Convolution8
I1001 15:00:41.334153  5332 net.cpp:406] Eltwise4 <- Convolution10
I1001 15:00:41.334156  5332 net.cpp:380] Eltwise4 -> Eltwise4
I1001 15:00:41.334172  5332 net.cpp:122] Setting up Eltwise4
I1001 15:00:41.334177  5332 net.cpp:129] Top shape: 100 32 14 14 (627200)
I1001 15:00:41.334179  5332 net.cpp:137] Memory required for data: 224224400
I1001 15:00:41.334182  5332 layer_factory.hpp:77] Creating layer penlu9
I1001 15:00:41.334187  5332 net.cpp:84] Creating Layer penlu9
I1001 15:00:41.334190  5332 net.cpp:406] penlu9 <- Eltwise4
I1001 15:00:41.334194  5332 net.cpp:367] penlu9 -> Eltwise4 (in-place)
I1001 15:00:41.334296  5332 net.cpp:122] Setting up penlu9
I1001 15:00:41.334301  5332 net.cpp:129] Top shape: 100 32 14 14 (627200)
I1001 15:00:41.334305  5332 net.cpp:137] Memory required for data: 226733200
I1001 15:00:41.334309  5332 layer_factory.hpp:77] Creating layer Eltwise4_penlu9_0_split
I1001 15:00:41.334313  5332 net.cpp:84] Creating Layer Eltwise4_penlu9_0_split
I1001 15:00:41.334317  5332 net.cpp:406] Eltwise4_penlu9_0_split <- Eltwise4
I1001 15:00:41.334321  5332 net.cpp:380] Eltwise4_penlu9_0_split -> Eltwise4_penlu9_0_split_0
I1001 15:00:41.334326  5332 net.cpp:380] Eltwise4_penlu9_0_split -> Eltwise4_penlu9_0_split_1
I1001 15:00:41.334347  5332 net.cpp:122] Setting up Eltwise4_penlu9_0_split
I1001 15:00:41.334352  5332 net.cpp:129] Top shape: 100 32 14 14 (627200)
I1001 15:00:41.334355  5332 net.cpp:129] Top shape: 100 32 14 14 (627200)
I1001 15:00:41.334358  5332 net.cpp:137] Memory required for data: 231750800
I1001 15:00:41.334360  5332 layer_factory.hpp:77] Creating layer Convolution11
I1001 15:00:41.334367  5332 net.cpp:84] Creating Layer Convolution11
I1001 15:00:41.334369  5332 net.cpp:406] Convolution11 <- Eltwise4_penlu9_0_split_0
I1001 15:00:41.334374  5332 net.cpp:380] Convolution11 -> Convolution11
I1001 15:00:41.335409  5332 net.cpp:122] Setting up Convolution11
I1001 15:00:41.335420  5332 net.cpp:129] Top shape: 100 32 14 14 (627200)
I1001 15:00:41.335424  5332 net.cpp:137] Memory required for data: 234259600
I1001 15:00:41.335429  5332 layer_factory.hpp:77] Creating layer BatchNorm11
I1001 15:00:41.335435  5332 net.cpp:84] Creating Layer BatchNorm11
I1001 15:00:41.335438  5332 net.cpp:406] BatchNorm11 <- Convolution11
I1001 15:00:41.335443  5332 net.cpp:367] BatchNorm11 -> Convolution11 (in-place)
I1001 15:00:41.335572  5332 net.cpp:122] Setting up BatchNorm11
I1001 15:00:41.335577  5332 net.cpp:129] Top shape: 100 32 14 14 (627200)
I1001 15:00:41.335580  5332 net.cpp:137] Memory required for data: 236768400
I1001 15:00:41.335585  5332 layer_factory.hpp:77] Creating layer Scale11
I1001 15:00:41.335589  5332 net.cpp:84] Creating Layer Scale11
I1001 15:00:41.335592  5332 net.cpp:406] Scale11 <- Convolution11
I1001 15:00:41.335595  5332 net.cpp:367] Scale11 -> Convolution11 (in-place)
I1001 15:00:41.335630  5332 layer_factory.hpp:77] Creating layer Scale11
I1001 15:00:41.335724  5332 net.cpp:122] Setting up Scale11
I1001 15:00:41.335729  5332 net.cpp:129] Top shape: 100 32 14 14 (627200)
I1001 15:00:41.335742  5332 net.cpp:137] Memory required for data: 239277200
I1001 15:00:41.335747  5332 layer_factory.hpp:77] Creating layer penlu10
I1001 15:00:41.335752  5332 net.cpp:84] Creating Layer penlu10
I1001 15:00:41.335754  5332 net.cpp:406] penlu10 <- Convolution11
I1001 15:00:41.335757  5332 net.cpp:367] penlu10 -> Convolution11 (in-place)
I1001 15:00:41.335870  5332 net.cpp:122] Setting up penlu10
I1001 15:00:41.335875  5332 net.cpp:129] Top shape: 100 32 14 14 (627200)
I1001 15:00:41.335893  5332 net.cpp:137] Memory required for data: 241786000
I1001 15:00:41.335898  5332 layer_factory.hpp:77] Creating layer Convolution12
I1001 15:00:41.335906  5332 net.cpp:84] Creating Layer Convolution12
I1001 15:00:41.335911  5332 net.cpp:406] Convolution12 <- Convolution11
I1001 15:00:41.335914  5332 net.cpp:380] Convolution12 -> Convolution12
I1001 15:00:41.336961  5332 net.cpp:122] Setting up Convolution12
I1001 15:00:41.336971  5332 net.cpp:129] Top shape: 100 32 14 14 (627200)
I1001 15:00:41.336983  5332 net.cpp:137] Memory required for data: 244294800
I1001 15:00:41.336988  5332 layer_factory.hpp:77] Creating layer BatchNorm12
I1001 15:00:41.336993  5332 net.cpp:84] Creating Layer BatchNorm12
I1001 15:00:41.336997  5332 net.cpp:406] BatchNorm12 <- Convolution12
I1001 15:00:41.337002  5332 net.cpp:367] BatchNorm12 -> Convolution12 (in-place)
I1001 15:00:41.337139  5332 net.cpp:122] Setting up BatchNorm12
I1001 15:00:41.337144  5332 net.cpp:129] Top shape: 100 32 14 14 (627200)
I1001 15:00:41.337155  5332 net.cpp:137] Memory required for data: 246803600
I1001 15:00:41.337162  5332 layer_factory.hpp:77] Creating layer Scale12
I1001 15:00:41.337167  5332 net.cpp:84] Creating Layer Scale12
I1001 15:00:41.337169  5332 net.cpp:406] Scale12 <- Convolution12
I1001 15:00:41.337173  5332 net.cpp:367] Scale12 -> Convolution12 (in-place)
I1001 15:00:41.337208  5332 layer_factory.hpp:77] Creating layer Scale12
I1001 15:00:41.337301  5332 net.cpp:122] Setting up Scale12
I1001 15:00:41.337306  5332 net.cpp:129] Top shape: 100 32 14 14 (627200)
I1001 15:00:41.337308  5332 net.cpp:137] Memory required for data: 249312400
I1001 15:00:41.337321  5332 layer_factory.hpp:77] Creating layer Eltwise5
I1001 15:00:41.337327  5332 net.cpp:84] Creating Layer Eltwise5
I1001 15:00:41.337329  5332 net.cpp:406] Eltwise5 <- Eltwise4_penlu9_0_split_1
I1001 15:00:41.337332  5332 net.cpp:406] Eltwise5 <- Convolution12
I1001 15:00:41.337335  5332 net.cpp:380] Eltwise5 -> Eltwise5
I1001 15:00:41.337352  5332 net.cpp:122] Setting up Eltwise5
I1001 15:00:41.337357  5332 net.cpp:129] Top shape: 100 32 14 14 (627200)
I1001 15:00:41.337358  5332 net.cpp:137] Memory required for data: 251821200
I1001 15:00:41.337360  5332 layer_factory.hpp:77] Creating layer penlu11
I1001 15:00:41.337368  5332 net.cpp:84] Creating Layer penlu11
I1001 15:00:41.337370  5332 net.cpp:406] penlu11 <- Eltwise5
I1001 15:00:41.337374  5332 net.cpp:367] penlu11 -> Eltwise5 (in-place)
I1001 15:00:41.337478  5332 net.cpp:122] Setting up penlu11
I1001 15:00:41.337483  5332 net.cpp:129] Top shape: 100 32 14 14 (627200)
I1001 15:00:41.337486  5332 net.cpp:137] Memory required for data: 254330000
I1001 15:00:41.337491  5332 layer_factory.hpp:77] Creating layer Eltwise5_penlu11_0_split
I1001 15:00:41.337496  5332 net.cpp:84] Creating Layer Eltwise5_penlu11_0_split
I1001 15:00:41.337498  5332 net.cpp:406] Eltwise5_penlu11_0_split <- Eltwise5
I1001 15:00:41.337502  5332 net.cpp:380] Eltwise5_penlu11_0_split -> Eltwise5_penlu11_0_split_0
I1001 15:00:41.337507  5332 net.cpp:380] Eltwise5_penlu11_0_split -> Eltwise5_penlu11_0_split_1
I1001 15:00:41.337529  5332 net.cpp:122] Setting up Eltwise5_penlu11_0_split
I1001 15:00:41.337533  5332 net.cpp:129] Top shape: 100 32 14 14 (627200)
I1001 15:00:41.337538  5332 net.cpp:129] Top shape: 100 32 14 14 (627200)
I1001 15:00:41.337539  5332 net.cpp:137] Memory required for data: 259347600
I1001 15:00:41.337543  5332 layer_factory.hpp:77] Creating layer Convolution13
I1001 15:00:41.337548  5332 net.cpp:84] Creating Layer Convolution13
I1001 15:00:41.337551  5332 net.cpp:406] Convolution13 <- Eltwise5_penlu11_0_split_0
I1001 15:00:41.337556  5332 net.cpp:380] Convolution13 -> Convolution13
I1001 15:00:41.338618  5332 net.cpp:122] Setting up Convolution13
I1001 15:00:41.338629  5332 net.cpp:129] Top shape: 100 32 14 14 (627200)
I1001 15:00:41.338632  5332 net.cpp:137] Memory required for data: 261856400
I1001 15:00:41.338636  5332 layer_factory.hpp:77] Creating layer BatchNorm13
I1001 15:00:41.338642  5332 net.cpp:84] Creating Layer BatchNorm13
I1001 15:00:41.338654  5332 net.cpp:406] BatchNorm13 <- Convolution13
I1001 15:00:41.338659  5332 net.cpp:367] BatchNorm13 -> Convolution13 (in-place)
I1001 15:00:41.338793  5332 net.cpp:122] Setting up BatchNorm13
I1001 15:00:41.338798  5332 net.cpp:129] Top shape: 100 32 14 14 (627200)
I1001 15:00:41.338801  5332 net.cpp:137] Memory required for data: 264365200
I1001 15:00:41.338806  5332 layer_factory.hpp:77] Creating layer Scale13
I1001 15:00:41.338812  5332 net.cpp:84] Creating Layer Scale13
I1001 15:00:41.338815  5332 net.cpp:406] Scale13 <- Convolution13
I1001 15:00:41.338819  5332 net.cpp:367] Scale13 -> Convolution13 (in-place)
I1001 15:00:41.338848  5332 layer_factory.hpp:77] Creating layer Scale13
I1001 15:00:41.338927  5332 net.cpp:122] Setting up Scale13
I1001 15:00:41.338932  5332 net.cpp:129] Top shape: 100 32 14 14 (627200)
I1001 15:00:41.338934  5332 net.cpp:137] Memory required for data: 266874000
I1001 15:00:41.338938  5332 layer_factory.hpp:77] Creating layer penlu12
I1001 15:00:41.338944  5332 net.cpp:84] Creating Layer penlu12
I1001 15:00:41.338948  5332 net.cpp:406] penlu12 <- Convolution13
I1001 15:00:41.338953  5332 net.cpp:367] penlu12 -> Convolution13 (in-place)
I1001 15:00:41.339058  5332 net.cpp:122] Setting up penlu12
I1001 15:00:41.339063  5332 net.cpp:129] Top shape: 100 32 14 14 (627200)
I1001 15:00:41.339066  5332 net.cpp:137] Memory required for data: 269382800
I1001 15:00:41.339071  5332 layer_factory.hpp:77] Creating layer Convolution14
I1001 15:00:41.339078  5332 net.cpp:84] Creating Layer Convolution14
I1001 15:00:41.339082  5332 net.cpp:406] Convolution14 <- Convolution13
I1001 15:00:41.339085  5332 net.cpp:380] Convolution14 -> Convolution14
I1001 15:00:41.340147  5332 net.cpp:122] Setting up Convolution14
I1001 15:00:41.340158  5332 net.cpp:129] Top shape: 100 32 14 14 (627200)
I1001 15:00:41.340162  5332 net.cpp:137] Memory required for data: 271891600
I1001 15:00:41.340176  5332 layer_factory.hpp:77] Creating layer BatchNorm14
I1001 15:00:41.340186  5332 net.cpp:84] Creating Layer BatchNorm14
I1001 15:00:41.340190  5332 net.cpp:406] BatchNorm14 <- Convolution14
I1001 15:00:41.340194  5332 net.cpp:367] BatchNorm14 -> Convolution14 (in-place)
I1001 15:00:41.340327  5332 net.cpp:122] Setting up BatchNorm14
I1001 15:00:41.340333  5332 net.cpp:129] Top shape: 100 32 14 14 (627200)
I1001 15:00:41.340337  5332 net.cpp:137] Memory required for data: 274400400
I1001 15:00:41.340342  5332 layer_factory.hpp:77] Creating layer Scale14
I1001 15:00:41.340348  5332 net.cpp:84] Creating Layer Scale14
I1001 15:00:41.340350  5332 net.cpp:406] Scale14 <- Convolution14
I1001 15:00:41.340353  5332 net.cpp:367] Scale14 -> Convolution14 (in-place)
I1001 15:00:41.340380  5332 layer_factory.hpp:77] Creating layer Scale14
I1001 15:00:41.340457  5332 net.cpp:122] Setting up Scale14
I1001 15:00:41.340462  5332 net.cpp:129] Top shape: 100 32 14 14 (627200)
I1001 15:00:41.340464  5332 net.cpp:137] Memory required for data: 276909200
I1001 15:00:41.340468  5332 layer_factory.hpp:77] Creating layer Eltwise6
I1001 15:00:41.340473  5332 net.cpp:84] Creating Layer Eltwise6
I1001 15:00:41.340476  5332 net.cpp:406] Eltwise6 <- Eltwise5_penlu11_0_split_1
I1001 15:00:41.340479  5332 net.cpp:406] Eltwise6 <- Convolution14
I1001 15:00:41.340482  5332 net.cpp:380] Eltwise6 -> Eltwise6
I1001 15:00:41.340497  5332 net.cpp:122] Setting up Eltwise6
I1001 15:00:41.340502  5332 net.cpp:129] Top shape: 100 32 14 14 (627200)
I1001 15:00:41.340503  5332 net.cpp:137] Memory required for data: 279418000
I1001 15:00:41.340505  5332 layer_factory.hpp:77] Creating layer penlu13
I1001 15:00:41.340512  5332 net.cpp:84] Creating Layer penlu13
I1001 15:00:41.340513  5332 net.cpp:406] penlu13 <- Eltwise6
I1001 15:00:41.340517  5332 net.cpp:367] penlu13 -> Eltwise6 (in-place)
I1001 15:00:41.340623  5332 net.cpp:122] Setting up penlu13
I1001 15:00:41.340627  5332 net.cpp:129] Top shape: 100 32 14 14 (627200)
I1001 15:00:41.340629  5332 net.cpp:137] Memory required for data: 281926800
I1001 15:00:41.340634  5332 layer_factory.hpp:77] Creating layer Eltwise6_penlu13_0_split
I1001 15:00:41.340646  5332 net.cpp:84] Creating Layer Eltwise6_penlu13_0_split
I1001 15:00:41.340648  5332 net.cpp:406] Eltwise6_penlu13_0_split <- Eltwise6
I1001 15:00:41.340651  5332 net.cpp:380] Eltwise6_penlu13_0_split -> Eltwise6_penlu13_0_split_0
I1001 15:00:41.340656  5332 net.cpp:380] Eltwise6_penlu13_0_split -> Eltwise6_penlu13_0_split_1
I1001 15:00:41.340679  5332 net.cpp:122] Setting up Eltwise6_penlu13_0_split
I1001 15:00:41.340683  5332 net.cpp:129] Top shape: 100 32 14 14 (627200)
I1001 15:00:41.340687  5332 net.cpp:129] Top shape: 100 32 14 14 (627200)
I1001 15:00:41.340688  5332 net.cpp:137] Memory required for data: 286944400
I1001 15:00:41.340690  5332 layer_factory.hpp:77] Creating layer Convolution15
I1001 15:00:41.340697  5332 net.cpp:84] Creating Layer Convolution15
I1001 15:00:41.340699  5332 net.cpp:406] Convolution15 <- Eltwise6_penlu13_0_split_0
I1001 15:00:41.340703  5332 net.cpp:380] Convolution15 -> Convolution15
I1001 15:00:41.341608  5332 net.cpp:122] Setting up Convolution15
I1001 15:00:41.341616  5332 net.cpp:129] Top shape: 100 64 7 7 (313600)
I1001 15:00:41.341619  5332 net.cpp:137] Memory required for data: 288198800
I1001 15:00:41.341624  5332 layer_factory.hpp:77] Creating layer BatchNorm15
I1001 15:00:41.341629  5332 net.cpp:84] Creating Layer BatchNorm15
I1001 15:00:41.341631  5332 net.cpp:406] BatchNorm15 <- Convolution15
I1001 15:00:41.341635  5332 net.cpp:367] BatchNorm15 -> Convolution15 (in-place)
I1001 15:00:41.341766  5332 net.cpp:122] Setting up BatchNorm15
I1001 15:00:41.341770  5332 net.cpp:129] Top shape: 100 64 7 7 (313600)
I1001 15:00:41.341773  5332 net.cpp:137] Memory required for data: 289453200
I1001 15:00:41.341778  5332 layer_factory.hpp:77] Creating layer Scale15
I1001 15:00:41.341783  5332 net.cpp:84] Creating Layer Scale15
I1001 15:00:41.341785  5332 net.cpp:406] Scale15 <- Convolution15
I1001 15:00:41.341789  5332 net.cpp:367] Scale15 -> Convolution15 (in-place)
I1001 15:00:41.341815  5332 layer_factory.hpp:77] Creating layer Scale15
I1001 15:00:41.341891  5332 net.cpp:122] Setting up Scale15
I1001 15:00:41.341894  5332 net.cpp:129] Top shape: 100 64 7 7 (313600)
I1001 15:00:41.341897  5332 net.cpp:137] Memory required for data: 290707600
I1001 15:00:41.341900  5332 layer_factory.hpp:77] Creating layer Convolution16
I1001 15:00:41.341908  5332 net.cpp:84] Creating Layer Convolution16
I1001 15:00:41.341912  5332 net.cpp:406] Convolution16 <- Eltwise6_penlu13_0_split_1
I1001 15:00:41.341915  5332 net.cpp:380] Convolution16 -> Convolution16
I1001 15:00:41.343736  5332 net.cpp:122] Setting up Convolution16
I1001 15:00:41.343746  5332 net.cpp:129] Top shape: 100 64 7 7 (313600)
I1001 15:00:41.343750  5332 net.cpp:137] Memory required for data: 291962000
I1001 15:00:41.343755  5332 layer_factory.hpp:77] Creating layer BatchNorm16
I1001 15:00:41.343760  5332 net.cpp:84] Creating Layer BatchNorm16
I1001 15:00:41.343762  5332 net.cpp:406] BatchNorm16 <- Convolution16
I1001 15:00:41.343767  5332 net.cpp:367] BatchNorm16 -> Convolution16 (in-place)
I1001 15:00:41.343901  5332 net.cpp:122] Setting up BatchNorm16
I1001 15:00:41.343906  5332 net.cpp:129] Top shape: 100 64 7 7 (313600)
I1001 15:00:41.343909  5332 net.cpp:137] Memory required for data: 293216400
I1001 15:00:41.343914  5332 layer_factory.hpp:77] Creating layer Scale16
I1001 15:00:41.343919  5332 net.cpp:84] Creating Layer Scale16
I1001 15:00:41.343920  5332 net.cpp:406] Scale16 <- Convolution16
I1001 15:00:41.343924  5332 net.cpp:367] Scale16 -> Convolution16 (in-place)
I1001 15:00:41.343950  5332 layer_factory.hpp:77] Creating layer Scale16
I1001 15:00:41.344027  5332 net.cpp:122] Setting up Scale16
I1001 15:00:41.344030  5332 net.cpp:129] Top shape: 100 64 7 7 (313600)
I1001 15:00:41.344033  5332 net.cpp:137] Memory required for data: 294470800
I1001 15:00:41.344036  5332 layer_factory.hpp:77] Creating layer penlu14
I1001 15:00:41.344041  5332 net.cpp:84] Creating Layer penlu14
I1001 15:00:41.344045  5332 net.cpp:406] penlu14 <- Convolution16
I1001 15:00:41.344056  5332 net.cpp:367] penlu14 -> Convolution16 (in-place)
I1001 15:00:41.344172  5332 net.cpp:122] Setting up penlu14
I1001 15:00:41.344177  5332 net.cpp:129] Top shape: 100 64 7 7 (313600)
I1001 15:00:41.344179  5332 net.cpp:137] Memory required for data: 295725200
I1001 15:00:41.344183  5332 layer_factory.hpp:77] Creating layer Convolution17
I1001 15:00:41.344190  5332 net.cpp:84] Creating Layer Convolution17
I1001 15:00:41.344193  5332 net.cpp:406] Convolution17 <- Convolution16
I1001 15:00:41.344197  5332 net.cpp:380] Convolution17 -> Convolution17
I1001 15:00:41.345851  5332 net.cpp:122] Setting up Convolution17
I1001 15:00:41.345860  5332 net.cpp:129] Top shape: 100 64 7 7 (313600)
I1001 15:00:41.345862  5332 net.cpp:137] Memory required for data: 296979600
I1001 15:00:41.345867  5332 layer_factory.hpp:77] Creating layer BatchNorm17
I1001 15:00:41.345872  5332 net.cpp:84] Creating Layer BatchNorm17
I1001 15:00:41.345875  5332 net.cpp:406] BatchNorm17 <- Convolution17
I1001 15:00:41.345878  5332 net.cpp:367] BatchNorm17 -> Convolution17 (in-place)
I1001 15:00:41.346012  5332 net.cpp:122] Setting up BatchNorm17
I1001 15:00:41.346016  5332 net.cpp:129] Top shape: 100 64 7 7 (313600)
I1001 15:00:41.346019  5332 net.cpp:137] Memory required for data: 298234000
I1001 15:00:41.346024  5332 layer_factory.hpp:77] Creating layer Scale17
I1001 15:00:41.346029  5332 net.cpp:84] Creating Layer Scale17
I1001 15:00:41.346031  5332 net.cpp:406] Scale17 <- Convolution17
I1001 15:00:41.346035  5332 net.cpp:367] Scale17 -> Convolution17 (in-place)
I1001 15:00:41.346060  5332 layer_factory.hpp:77] Creating layer Scale17
I1001 15:00:41.346137  5332 net.cpp:122] Setting up Scale17
I1001 15:00:41.346140  5332 net.cpp:129] Top shape: 100 64 7 7 (313600)
I1001 15:00:41.346143  5332 net.cpp:137] Memory required for data: 299488400
I1001 15:00:41.346146  5332 layer_factory.hpp:77] Creating layer Eltwise7
I1001 15:00:41.346151  5332 net.cpp:84] Creating Layer Eltwise7
I1001 15:00:41.346153  5332 net.cpp:406] Eltwise7 <- Convolution15
I1001 15:00:41.346156  5332 net.cpp:406] Eltwise7 <- Convolution17
I1001 15:00:41.346159  5332 net.cpp:380] Eltwise7 -> Eltwise7
I1001 15:00:41.346175  5332 net.cpp:122] Setting up Eltwise7
I1001 15:00:41.346179  5332 net.cpp:129] Top shape: 100 64 7 7 (313600)
I1001 15:00:41.346180  5332 net.cpp:137] Memory required for data: 300742800
I1001 15:00:41.346182  5332 layer_factory.hpp:77] Creating layer penlu15
I1001 15:00:41.346189  5332 net.cpp:84] Creating Layer penlu15
I1001 15:00:41.346190  5332 net.cpp:406] penlu15 <- Eltwise7
I1001 15:00:41.346194  5332 net.cpp:367] penlu15 -> Eltwise7 (in-place)
I1001 15:00:41.346298  5332 net.cpp:122] Setting up penlu15
I1001 15:00:41.346302  5332 net.cpp:129] Top shape: 100 64 7 7 (313600)
I1001 15:00:41.346304  5332 net.cpp:137] Memory required for data: 301997200
I1001 15:00:41.346309  5332 layer_factory.hpp:77] Creating layer Eltwise7_penlu15_0_split
I1001 15:00:41.346313  5332 net.cpp:84] Creating Layer Eltwise7_penlu15_0_split
I1001 15:00:41.346315  5332 net.cpp:406] Eltwise7_penlu15_0_split <- Eltwise7
I1001 15:00:41.346318  5332 net.cpp:380] Eltwise7_penlu15_0_split -> Eltwise7_penlu15_0_split_0
I1001 15:00:41.346323  5332 net.cpp:380] Eltwise7_penlu15_0_split -> Eltwise7_penlu15_0_split_1
I1001 15:00:41.346344  5332 net.cpp:122] Setting up Eltwise7_penlu15_0_split
I1001 15:00:41.346349  5332 net.cpp:129] Top shape: 100 64 7 7 (313600)
I1001 15:00:41.346350  5332 net.cpp:129] Top shape: 100 64 7 7 (313600)
I1001 15:00:41.346352  5332 net.cpp:137] Memory required for data: 304506000
I1001 15:00:41.346355  5332 layer_factory.hpp:77] Creating layer Convolution18
I1001 15:00:41.346361  5332 net.cpp:84] Creating Layer Convolution18
I1001 15:00:41.346364  5332 net.cpp:406] Convolution18 <- Eltwise7_penlu15_0_split_0
I1001 15:00:41.346367  5332 net.cpp:380] Convolution18 -> Convolution18
I1001 15:00:41.348577  5332 net.cpp:122] Setting up Convolution18
I1001 15:00:41.348588  5332 net.cpp:129] Top shape: 100 64 7 7 (313600)
I1001 15:00:41.348592  5332 net.cpp:137] Memory required for data: 305760400
I1001 15:00:41.348608  5332 layer_factory.hpp:77] Creating layer BatchNorm18
I1001 15:00:41.348618  5332 net.cpp:84] Creating Layer BatchNorm18
I1001 15:00:41.348623  5332 net.cpp:406] BatchNorm18 <- Convolution18
I1001 15:00:41.348628  5332 net.cpp:367] BatchNorm18 -> Convolution18 (in-place)
I1001 15:00:41.348816  5332 net.cpp:122] Setting up BatchNorm18
I1001 15:00:41.348826  5332 net.cpp:129] Top shape: 100 64 7 7 (313600)
I1001 15:00:41.348829  5332 net.cpp:137] Memory required for data: 307014800
I1001 15:00:41.348839  5332 layer_factory.hpp:77] Creating layer Scale18
I1001 15:00:41.348845  5332 net.cpp:84] Creating Layer Scale18
I1001 15:00:41.348850  5332 net.cpp:406] Scale18 <- Convolution18
I1001 15:00:41.348855  5332 net.cpp:367] Scale18 -> Convolution18 (in-place)
I1001 15:00:41.348893  5332 layer_factory.hpp:77] Creating layer Scale18
I1001 15:00:41.348992  5332 net.cpp:122] Setting up Scale18
I1001 15:00:41.349002  5332 net.cpp:129] Top shape: 100 64 7 7 (313600)
I1001 15:00:41.349005  5332 net.cpp:137] Memory required for data: 308269200
I1001 15:00:41.349011  5332 layer_factory.hpp:77] Creating layer penlu16
I1001 15:00:41.349020  5332 net.cpp:84] Creating Layer penlu16
I1001 15:00:41.349025  5332 net.cpp:406] penlu16 <- Convolution18
I1001 15:00:41.349040  5332 net.cpp:367] penlu16 -> Convolution18 (in-place)
I1001 15:00:41.349200  5332 net.cpp:122] Setting up penlu16
I1001 15:00:41.349210  5332 net.cpp:129] Top shape: 100 64 7 7 (313600)
I1001 15:00:41.349215  5332 net.cpp:137] Memory required for data: 309523600
I1001 15:00:41.349231  5332 layer_factory.hpp:77] Creating layer Convolution19
I1001 15:00:41.349242  5332 net.cpp:84] Creating Layer Convolution19
I1001 15:00:41.349246  5332 net.cpp:406] Convolution19 <- Convolution18
I1001 15:00:41.349253  5332 net.cpp:380] Convolution19 -> Convolution19
I1001 15:00:41.351490  5332 net.cpp:122] Setting up Convolution19
I1001 15:00:41.351501  5332 net.cpp:129] Top shape: 100 64 7 7 (313600)
I1001 15:00:41.351519  5332 net.cpp:137] Memory required for data: 310778000
I1001 15:00:41.351524  5332 layer_factory.hpp:77] Creating layer BatchNorm19
I1001 15:00:41.351529  5332 net.cpp:84] Creating Layer BatchNorm19
I1001 15:00:41.351541  5332 net.cpp:406] BatchNorm19 <- Convolution19
I1001 15:00:41.351547  5332 net.cpp:367] BatchNorm19 -> Convolution19 (in-place)
I1001 15:00:41.351732  5332 net.cpp:122] Setting up BatchNorm19
I1001 15:00:41.351747  5332 net.cpp:129] Top shape: 100 64 7 7 (313600)
I1001 15:00:41.351750  5332 net.cpp:137] Memory required for data: 312032400
I1001 15:00:41.351755  5332 layer_factory.hpp:77] Creating layer Scale19
I1001 15:00:41.351769  5332 net.cpp:84] Creating Layer Scale19
I1001 15:00:41.351773  5332 net.cpp:406] Scale19 <- Convolution19
I1001 15:00:41.351776  5332 net.cpp:367] Scale19 -> Convolution19 (in-place)
I1001 15:00:41.351830  5332 layer_factory.hpp:77] Creating layer Scale19
I1001 15:00:41.351927  5332 net.cpp:122] Setting up Scale19
I1001 15:00:41.351933  5332 net.cpp:129] Top shape: 100 64 7 7 (313600)
I1001 15:00:41.351944  5332 net.cpp:137] Memory required for data: 313286800
I1001 15:00:41.351948  5332 layer_factory.hpp:77] Creating layer Eltwise8
I1001 15:00:41.351953  5332 net.cpp:84] Creating Layer Eltwise8
I1001 15:00:41.351955  5332 net.cpp:406] Eltwise8 <- Eltwise7_penlu15_0_split_1
I1001 15:00:41.351959  5332 net.cpp:406] Eltwise8 <- Convolution19
I1001 15:00:41.351963  5332 net.cpp:380] Eltwise8 -> Eltwise8
I1001 15:00:41.351979  5332 net.cpp:122] Setting up Eltwise8
I1001 15:00:41.351984  5332 net.cpp:129] Top shape: 100 64 7 7 (313600)
I1001 15:00:41.351985  5332 net.cpp:137] Memory required for data: 314541200
I1001 15:00:41.351997  5332 layer_factory.hpp:77] Creating layer penlu17
I1001 15:00:41.352002  5332 net.cpp:84] Creating Layer penlu17
I1001 15:00:41.352005  5332 net.cpp:406] penlu17 <- Eltwise8
I1001 15:00:41.352020  5332 net.cpp:367] penlu17 -> Eltwise8 (in-place)
I1001 15:00:41.352166  5332 net.cpp:122] Setting up penlu17
I1001 15:00:41.352171  5332 net.cpp:129] Top shape: 100 64 7 7 (313600)
I1001 15:00:41.352190  5332 net.cpp:137] Memory required for data: 315795600
I1001 15:00:41.352195  5332 layer_factory.hpp:77] Creating layer Eltwise8_penlu17_0_split
I1001 15:00:41.352210  5332 net.cpp:84] Creating Layer Eltwise8_penlu17_0_split
I1001 15:00:41.352214  5332 net.cpp:406] Eltwise8_penlu17_0_split <- Eltwise8
I1001 15:00:41.352217  5332 net.cpp:380] Eltwise8_penlu17_0_split -> Eltwise8_penlu17_0_split_0
I1001 15:00:41.352221  5332 net.cpp:380] Eltwise8_penlu17_0_split -> Eltwise8_penlu17_0_split_1
I1001 15:00:41.352246  5332 net.cpp:122] Setting up Eltwise8_penlu17_0_split
I1001 15:00:41.352250  5332 net.cpp:129] Top shape: 100 64 7 7 (313600)
I1001 15:00:41.352254  5332 net.cpp:129] Top shape: 100 64 7 7 (313600)
I1001 15:00:41.352257  5332 net.cpp:137] Memory required for data: 318304400
I1001 15:00:41.352259  5332 layer_factory.hpp:77] Creating layer Convolution20
I1001 15:00:41.352267  5332 net.cpp:84] Creating Layer Convolution20
I1001 15:00:41.352269  5332 net.cpp:406] Convolution20 <- Eltwise8_penlu17_0_split_0
I1001 15:00:41.352273  5332 net.cpp:380] Convolution20 -> Convolution20
I1001 15:00:41.353956  5332 net.cpp:122] Setting up Convolution20
I1001 15:00:41.353966  5332 net.cpp:129] Top shape: 100 64 7 7 (313600)
I1001 15:00:41.353971  5332 net.cpp:137] Memory required for data: 319558800
I1001 15:00:41.353976  5332 layer_factory.hpp:77] Creating layer BatchNorm20
I1001 15:00:41.353981  5332 net.cpp:84] Creating Layer BatchNorm20
I1001 15:00:41.353983  5332 net.cpp:406] BatchNorm20 <- Convolution20
I1001 15:00:41.353988  5332 net.cpp:367] BatchNorm20 -> Convolution20 (in-place)
I1001 15:00:41.354123  5332 net.cpp:122] Setting up BatchNorm20
I1001 15:00:41.354128  5332 net.cpp:129] Top shape: 100 64 7 7 (313600)
I1001 15:00:41.354130  5332 net.cpp:137] Memory required for data: 320813200
I1001 15:00:41.354135  5332 layer_factory.hpp:77] Creating layer Scale20
I1001 15:00:41.354140  5332 net.cpp:84] Creating Layer Scale20
I1001 15:00:41.354143  5332 net.cpp:406] Scale20 <- Convolution20
I1001 15:00:41.354147  5332 net.cpp:367] Scale20 -> Convolution20 (in-place)
I1001 15:00:41.354173  5332 layer_factory.hpp:77] Creating layer Scale20
I1001 15:00:41.354261  5332 net.cpp:122] Setting up Scale20
I1001 15:00:41.354266  5332 net.cpp:129] Top shape: 100 64 7 7 (313600)
I1001 15:00:41.354269  5332 net.cpp:137] Memory required for data: 322067600
I1001 15:00:41.354274  5332 layer_factory.hpp:77] Creating layer penlu18
I1001 15:00:41.354280  5332 net.cpp:84] Creating Layer penlu18
I1001 15:00:41.354284  5332 net.cpp:406] penlu18 <- Convolution20
I1001 15:00:41.354287  5332 net.cpp:367] penlu18 -> Convolution20 (in-place)
I1001 15:00:41.354408  5332 net.cpp:122] Setting up penlu18
I1001 15:00:41.354413  5332 net.cpp:129] Top shape: 100 64 7 7 (313600)
I1001 15:00:41.354414  5332 net.cpp:137] Memory required for data: 323322000
I1001 15:00:41.354419  5332 layer_factory.hpp:77] Creating layer Convolution21
I1001 15:00:41.354425  5332 net.cpp:84] Creating Layer Convolution21
I1001 15:00:41.354427  5332 net.cpp:406] Convolution21 <- Convolution20
I1001 15:00:41.354431  5332 net.cpp:380] Convolution21 -> Convolution21
I1001 15:00:41.356714  5332 net.cpp:122] Setting up Convolution21
I1001 15:00:41.356724  5332 net.cpp:129] Top shape: 100 64 7 7 (313600)
I1001 15:00:41.356726  5332 net.cpp:137] Memory required for data: 324576400
I1001 15:00:41.356731  5332 layer_factory.hpp:77] Creating layer BatchNorm21
I1001 15:00:41.356735  5332 net.cpp:84] Creating Layer BatchNorm21
I1001 15:00:41.356739  5332 net.cpp:406] BatchNorm21 <- Convolution21
I1001 15:00:41.356742  5332 net.cpp:367] BatchNorm21 -> Convolution21 (in-place)
I1001 15:00:41.356899  5332 net.cpp:122] Setting up BatchNorm21
I1001 15:00:41.356904  5332 net.cpp:129] Top shape: 100 64 7 7 (313600)
I1001 15:00:41.356906  5332 net.cpp:137] Memory required for data: 325830800
I1001 15:00:41.356911  5332 layer_factory.hpp:77] Creating layer Scale21
I1001 15:00:41.356915  5332 net.cpp:84] Creating Layer Scale21
I1001 15:00:41.356925  5332 net.cpp:406] Scale21 <- Convolution21
I1001 15:00:41.356930  5332 net.cpp:367] Scale21 -> Convolution21 (in-place)
I1001 15:00:41.356956  5332 layer_factory.hpp:77] Creating layer Scale21
I1001 15:00:41.357036  5332 net.cpp:122] Setting up Scale21
I1001 15:00:41.357040  5332 net.cpp:129] Top shape: 100 64 7 7 (313600)
I1001 15:00:41.357043  5332 net.cpp:137] Memory required for data: 327085200
I1001 15:00:41.357048  5332 layer_factory.hpp:77] Creating layer Eltwise9
I1001 15:00:41.357050  5332 net.cpp:84] Creating Layer Eltwise9
I1001 15:00:41.357053  5332 net.cpp:406] Eltwise9 <- Eltwise8_penlu17_0_split_1
I1001 15:00:41.357056  5332 net.cpp:406] Eltwise9 <- Convolution21
I1001 15:00:41.357060  5332 net.cpp:380] Eltwise9 -> Eltwise9
I1001 15:00:41.357076  5332 net.cpp:122] Setting up Eltwise9
I1001 15:00:41.357080  5332 net.cpp:129] Top shape: 100 64 7 7 (313600)
I1001 15:00:41.357082  5332 net.cpp:137] Memory required for data: 328339600
I1001 15:00:41.357084  5332 layer_factory.hpp:77] Creating layer penlu19
I1001 15:00:41.357089  5332 net.cpp:84] Creating Layer penlu19
I1001 15:00:41.357090  5332 net.cpp:406] penlu19 <- Eltwise9
I1001 15:00:41.357095  5332 net.cpp:367] penlu19 -> Eltwise9 (in-place)
I1001 15:00:41.357203  5332 net.cpp:122] Setting up penlu19
I1001 15:00:41.357208  5332 net.cpp:129] Top shape: 100 64 7 7 (313600)
I1001 15:00:41.357209  5332 net.cpp:137] Memory required for data: 329594000
I1001 15:00:41.357214  5332 layer_factory.hpp:77] Creating layer Pooling1
I1001 15:00:41.357218  5332 net.cpp:84] Creating Layer Pooling1
I1001 15:00:41.357221  5332 net.cpp:406] Pooling1 <- Eltwise9
I1001 15:00:41.357224  5332 net.cpp:380] Pooling1 -> Pooling1
I1001 15:00:41.357372  5332 net.cpp:122] Setting up Pooling1
I1001 15:00:41.357379  5332 net.cpp:129] Top shape: 100 64 1 1 (6400)
I1001 15:00:41.357381  5332 net.cpp:137] Memory required for data: 329619600
I1001 15:00:41.357383  5332 layer_factory.hpp:77] Creating layer InnerProduct1
I1001 15:00:41.357393  5332 net.cpp:84] Creating Layer InnerProduct1
I1001 15:00:41.357396  5332 net.cpp:406] InnerProduct1 <- Pooling1
I1001 15:00:41.357400  5332 net.cpp:380] InnerProduct1 -> InnerProduct1
I1001 15:00:41.357494  5332 net.cpp:122] Setting up InnerProduct1
I1001 15:00:41.357499  5332 net.cpp:129] Top shape: 100 10 (1000)
I1001 15:00:41.357501  5332 net.cpp:137] Memory required for data: 329623600
I1001 15:00:41.357506  5332 layer_factory.hpp:77] Creating layer SoftmaxWithLoss1
I1001 15:00:41.357509  5332 net.cpp:84] Creating Layer SoftmaxWithLoss1
I1001 15:00:41.357511  5332 net.cpp:406] SoftmaxWithLoss1 <- InnerProduct1
I1001 15:00:41.357514  5332 net.cpp:406] SoftmaxWithLoss1 <- Data2
I1001 15:00:41.357518  5332 net.cpp:380] SoftmaxWithLoss1 -> SoftmaxWithLoss1
…
I1001 15:00:41.360157  5332 net.cpp:294] The NetState phase (1) differed from the phase (0) specified by a rule in layer Data1
I1001 15:00:41.360625  5332 net.cpp:51] Initializing net from parameters: 
name: "resnet_cifar10"
state {
  phase: TEST
}
layer {
  name: "Data1"
  type: "Data"
  top: "Data1"
  top: "Data2"
  include {
    phase: TEST
  }
  transform_param {
    mean_file: "/home/x306/caffe/xn/PENLU/data/cifar10/mean.binaryproto"
  }
  data_param {
    source: "/home/x306/caffe/xn/PENLU/data/cifar10/cifar10_test_lmdb"
    batch_size: 100
    backend: LMDB
  }
}
layer {
  name: "Convolution1"
  type: "Convolution"
  bottom: "Data1"
  top: "Convolution1"
  param {
    lr_mult: 1
    decay_mult: 1
  }
  param {
    lr_mult: 2
    decay_mult: 0
  }
  convolution_param {
    num_output: 16
    pad: 1
    kernel_size: 3
    stride: 1
    weight_filler {
      type: "gaussian"
      std: 0.118
    }
    bias_filler {
      type: "constant"
      value: 0
    }
  }
}
layer {
  name: "BatchNorm1"
  type: "BatchNorm"
  bottom: "Convolution1"
  top: "Convolution1"
  param {
    lr_mult: 0
    decay_mult: 0
  }
  param {
    lr_mult: 0
    decay_mult: 0
  }
  param {
    lr_mult: 0
    decay_mult: 0
  }
}
layer {
  name: "Scale1"
  type: "Scale"
  bottom: "Convolution1"
  top: "Convolution1"
  scale_param {
    bias_term: true
  }
}
layer {
  name: "penlu1"
  type: "PENLU"
  bottom: "Convolution1"
  top: "Convolution1"
  param {
    lr_mult: 2
    decay_mult: 2
  }
  param {
    lr_mult: 2
    decay_mult: 2
  }
  param {
    lr_mult: 0
    decay_mult: 0
  }
  penlu_param {
    alpha_filler {
      type: "constant"
      value: 1
    }
    beta_filler {
      type: "constant"
      value: 1
    }
    eta_filler {
      type: "constant"
      value: 1
    }
  }
}
layer {
  name: "Convolution2"
  type: "Convolution"
  bottom: "Convolution1"
  top: "Convolution2"
  param {
    lr_mult: 1
    decay_mult: 1
  }
  param {
    lr_mult: 2
    decay_mult: 0
  }
  convolution_param {
    num_output: 16
    pad: 1
    kernel_size: 3
    stride: 1
    weight_filler {
      type: "gaussian"
      std: 0.118
    }
    bias_filler {
      type: "constant"
      value: 0
    }
  }
}
layer {
  name: "BatchNorm2"
  type: "BatchNorm"
  bottom: "Convolution2"
  top: "Convolution2"
  param {
    lr_mult: 0
    decay_mult: 0
  }
  param {
    lr_mult: 0
    decay_mult: 0
  }
  param {
    lr_mult: 0
    decay_mult: 0
  }
}
layer {
  name: "Scale2"
  type: "Scale"
  bottom: "Convolution2"
  top: "Convolution2"
  scale_param {
    bias_term: true
  }
}
layer {
  name: "penlu2"
  type: "PENLU"
  bottom: "Convolution2"
  top: "Convolution2"
  param {
    lr_mult: 2
    decay_mult: 2
  }
  param {
    lr_mult: 2
    decay_mult: 2
  }
  param {
    lr_mult: 0
    decay_mult: 0
  }
  penlu_param {
    alpha_filler {
      type: "constant"
      value: 1
    }
    beta_filler {
      type: "constant"
      value: 1
    }
    eta_filler {
      type: "constant"
      value: 1
    }
  }
}
layer {
  name: "Convolution3"
  type: "Convolution"
  bottom: "Convolution2"
  top: "Convolution3"
  param {
    lr_mult: 1
    decay_mult: 1
  }
  param {
    lr_mult: 2
    decay_mult: 0
  }
  convolution_param {
    num_output: 16
    pad: 1
    kernel_size: 3
    stride: 1
    weight_filler {
      type: "gaussian"
      std: 0.118
    }
    bias_filler {
      type: "constant"
      value: 0
    }
  }
}
layer {
  name: "BatchNorm3"
  type: "BatchNorm"
  bottom: "Convolution3"
  top: "Convolution3"
  param {
    lr_mult: 0
    decay_mult: 0
  }
  param {
    lr_mult: 0
    decay_mult: 0
  }
  param {
    lr_mult: 0
    decay_mult: 0
  }
}
layer {
  name: "Scale3"
  type: "Scale"
  bottom: "Convolution3"
  top: "Convolution3"
  scale_param {
    bias_term: true
  }
}
layer {
  name: "Eltwise1"
  type: "Eltwise"
  bottom: "Convolution1"
  bottom: "Convolution3"
  top: "Eltwise1"
  eltwise_param {
    operation: SUM
  }
}
layer {
  name: "penlu3"
  type: "PENLU"
  bottom: "Eltwise1"
  top: "Eltwise1"
  param {
    lr_mult: 2
    decay_mult: 2
  }
  param {
    lr_mult: 2
    decay_mult: 2
  }
  param {
    lr_mult: 0
    decay_mult: 0
  }
  penlu_param {
    alpha_filler {
      type: "constant"
      value: 1
    }
    beta_filler {
      type: "constant"
      value: 1
    }
    eta_filler {
      type: "constant"
      value: 1
    }
  }
}
layer {
  name: "Convolution4"
  type: "Convolution"
  bottom: "Eltwise1"
  top: "Convolution4"
  param {
    lr_mult: 1
    decay_mult: 1
  }
  param {
    lr_mult: 2
    decay_mult: 0
  }
  convolution_param {
    num_output: 16
    pad: 1
    kernel_size: 3
    stride: 1
    weight_filler {
      type: "gaussian"
      std: 0.118
    }
    bias_filler {
      type: "constant"
      value: 0
    }
  }
}
layer {
  name: "BatchNorm4"
  type: "BatchNorm"
  bottom: "Convolution4"
  top: "Convolution4"
  param {
    lr_mult: 0
    decay_mult: 0
  }
  param {
    lr_mult: 0
    decay_mult: 0
  }
  param {
    lr_mult: 0
    decay_mult: 0
  }
}
layer {
  name: "Scale4"
  type: "Scale"
  bottom: "Convolution4"
  top: "Convolution4"
  scale_param {
    bias_term: true
  }
}
layer {
  name: "penlu4"
  type: "PENLU"
  bottom: "Convolution4"
  top: "Convolution4"
  param {
    lr_mult: 2
    decay_mult: 2
  }
  param {
    lr_mult: 2
    decay_mult: 2
  }
  param {
    lr_mult: 0
    decay_mult: 0
  }
  penlu_param {
    alpha_filler {
      type: "constant"
      value: 1
    }
    beta_filler {
      type: "constant"
      value: 1
    }
    eta_filler {
      type: "constant"
      value: 1
    }
  }
}
layer {
  name: "Convolution5"
  type: "Convolution"
  bottom: "Convolution4"
  top: "Convolution5"
  param {
    lr_mult: 1
    decay_mult: 1
  }
  param {
    lr_mult: 2
    decay_mult: 0
  }
  convolution_param {
    num_output: 16
    pad: 1
    kernel_size: 3
    stride: 1
    weight_filler {
      type: "gaussian"
      std: 0.118
    }
    bias_filler {
      type: "constant"
      value: 0
    }
  }
}
layer {
  name: "BatchNorm5"
  type: "BatchNorm"
  bottom: "Convolution5"
  top: "Convolution5"
  param {
    lr_mult: 0
    decay_mult: 0
  }
  param {
    lr_mult: 0
    decay_mult: 0
  }
  param {
    lr_mult: 0
    decay_mult: 0
  }
}
layer {
  name: "Scale5"
  type: "Scale"
  bottom: "Convolution5"
  top: "Convolution5"
  scale_param {
    bias_term: true
  }
}
layer {
  name: "Eltwise2"
  type: "Eltwise"
  bottom: "Eltwise1"
  bottom: "Convolution5"
  top: "Eltwise2"
  eltwise_param {
    operation: SUM
  }
}
layer {
  name: "penlu5"
  type: "PENLU"
  bottom: "Eltwise2"
  top: "Eltwise2"
  param {
    lr_mult: 2
    decay_mult: 2
  }
  param {
    lr_mult: 2
    decay_mult: 2
  }
  param {
    lr_mult: 0
    decay_mult: 0
  }
  penlu_param {
    alpha_filler {
      type: "constant"
      value: 1
    }
    beta_filler {
      type: "constant"
      value: 1
    }
    eta_filler {
      type: "constant"
      value: 1
    }
  }
}
layer {
  name: "Convolution6"
  type: "Convolution"
  bottom: "Eltwise2"
  top: "Convolution6"
  param {
    lr_mult: 1
    decay_mult: 1
  }
  param {
    lr_mult: 2
    decay_mult: 0
  }
  convolution_param {
    num_output: 16
    pad: 1
    kernel_size: 3
    stride: 1
    weight_filler {
      type: "gaussian"
      std: 0.118
    }
    bias_filler {
      type: "constant"
      value: 0
    }
  }
}
layer {
  name: "BatchNorm6"
  type: "BatchNorm"
  bottom: "Convolution6"
  top: "Convolution6"
  param {
    lr_mult: 0
    decay_mult: 0
  }
  param {
    lr_mult: 0
    decay_mult: 0
  }
  param {
    lr_mult: 0
    decay_mult: 0
  }
}
layer {
  name: "Scale6"
  type: "Scale"
  bottom: "Convolution6"
  top: "Convolution6"
  scale_param {
    bias_term: true
  }
}
layer {
  name: "penlu6"
  type: "PENLU"
  bottom: "Convolution6"
  top: "Convolution6"
  param {
    lr_mult: 2
    decay_mult: 2
  }
  param {
    lr_mult: 2
    decay_mult: 2
  }
  param {
    lr_mult: 0
    decay_mult: 0
  }
  penlu_param {
    alpha_filler {
      type: "constant"
      value: 1
    }
    beta_filler {
      type: "constant"
      value: 1
    }
    eta_filler {
      type: "constant"
      value: 1
    }
  }
}
layer {
  name: "Convolution7"
  type: "Convolution"
  bottom: "Convolution6"
  top: "Convolution7"
  param {
    lr_mult: 1
    decay_mult: 1
  }
  param {
    lr_mult: 2
    decay_mult: 0
  }
  convolution_param {
    num_output: 16
    pad: 1
    kernel_size: 3
    stride: 1
    weight_filler {
      type: "gaussian"
      std: 0.118
    }
    bias_filler {
      type: "constant"
      value: 0
    }
  }
}
layer {
  name: "BatchNorm7"
  type: "BatchNorm"
  bottom: "Convolution7"
  top: "Convolution7"
  param {
    lr_mult: 0
    decay_mult: 0
  }
  param {
    lr_mult: 0
    decay_mult: 0
  }
  param {
    lr_mult: 0
    decay_mult: 0
  }
}
layer {
  name: "Scale7"
  type: "Scale"
  bottom: "Convolution7"
  top: "Convolution7"
  scale_param {
    bias_term: true
  }
}
layer {
  name: "Eltwise3"
  type: "Eltwise"
  bottom: "Eltwise2"
  bottom: "Convolution7"
  top: "Eltwise3"
  eltwise_param {
    operation: SUM
  }
}
layer {
  name: "penlu7"
  type: "PENLU"
  bottom: "Eltwise3"
  top: "Eltwise3"
  param {
    lr_mult: 2
    decay_mult: 2
  }
  param {
    lr_mult: 2
    decay_mult: 2
  }
  param {
    lr_mult: 0
    decay_mult: 0
  }
  penlu_param {
    alpha_filler {
      type: "constant"
      value: 1
    }
    beta_filler {
      type: "constant"
      value: 1
    }
    eta_filler {
      type: "constant"
      value: 1
    }
  }
}
layer {
  name: "Convolution8"
  type: "Convolution"
  bottom: "Eltwise3"
  top: "Convolution8"
  param {
    lr_mult: 1
    decay_mult: 1
  }
  param {
    lr_mult: 2
    decay_mult: 0
  }
  convolution_param {
    num_output: 32
    pad: 0
    kernel_size: 1
    stride: 2
    weight_filler {
      type: "gaussian"
      std: 0.25
    }
    bias_filler {
      type: "constant"
      value: 0
    }
  }
}
layer {
  name: "BatchNorm8"
  type: "BatchNorm"
  bottom: "Convolution8"
  top: "Convolution8"
  param {
    lr_mult: 0
    decay_mult: 0
  }
  param {
    lr_mult: 0
    decay_mult: 0
  }
  param {
    lr_mult: 0
    decay_mult: 0
  }
}
layer {
  name: "Scale8"
  type: "Scale"
  bottom: "Convolution8"
  top: "Convolution8"
  scale_param {
    bias_term: true
  }
}
layer {
  name: "Convolution9"
  type: "Convolution"
  bottom: "Eltwise3"
  top: "Convolution9"
  param {
    lr_mult: 1
    decay_mult: 1
  }
  param {
    lr_mult: 2
    decay_mult: 0
  }
  convolution_param {
    num_output: 32
    pad: 1
    kernel_size: 3
    stride: 2
    weight_filler {
      type: "gaussian"
      std: 0.083
    }
    bias_filler {
      type: "constant"
      value: 0
    }
  }
}
layer {
  name: "BatchNorm9"
  type: "BatchNorm"
  bottom: "Convolution9"
  top: "Convolution9"
  param {
    lr_mult: 0
    decay_mult: 0
  }
  param {
    lr_mult: 0
    decay_mult: 0
  }
  param {
    lr_mult: 0
    decay_mult: 0
  }
}
layer {
  name: "Scale9"
  type: "Scale"
  bottom: "Convolution9"
  top: "Convolution9"
  scale_param {
    bias_term: true
  }
}
layer {
  name: "penlu8"
  type: "PENLU"
  bottom: "Convolution9"
  top: "Convolution9"
  param {
    lr_mult: 2
    decay_mult: 2
  }
  param {
    lr_mult: 2
    decay_mult: 2
  }
  param {
    lr_mult: 0
    decay_mult: 0
  }
  penlu_param {
    alpha_filler {
      type: "constant"
      value: 1
    }
    beta_filler {
      type: "constant"
      value: 1
    }
    eta_filler {
      type: "constant"
      value: 1
    }
  }
}
layer {
  name: "Convolution10"
  type: "Convolution"
  bottom: "Convolution9"
  top: "Convolution10"
  param {
    lr_mult: 1
    decay_mult: 1
  }
  param {
    lr_mult: 2
    decay_mult: 0
  }
  convolution_param {
    num_output: 32
    pad: 1
    kernel_size: 3
    stride: 1
    weight_filler {
      type: "gaussian"
      std: 0.083
    }
    bias_filler {
      type: "constant"
      value: 0
    }
  }
}
layer {
  name: "BatchNorm10"
  type: "BatchNorm"
  bottom: "Convolution10"
  top: "Convolution10"
  param {
    lr_mult: 0
    decay_mult: 0
  }
  param {
    lr_mult: 0
    decay_mult: 0
  }
  param {
    lr_mult: 0
    decay_mult: 0
  }
}
layer {
  name: "Scale10"
  type: "Scale"
  bottom: "Convolution10"
  top: "Convolution10"
  scale_param {
    bias_term: true
  }
}
layer {
  name: "Eltwise4"
  type: "Eltwise"
  bottom: "Convolution8"
  bottom: "Convolution10"
  top: "Eltwise4"
  eltwise_param {
    operation: SUM
  }
}
layer {
  name: "penlu9"
  type: "PENLU"
  bottom: "Eltwise4"
  top: "Eltwise4"
  param {
    lr_mult: 2
    decay_mult: 2
  }
  param {
    lr_mult: 2
    decay_mult: 2
  }
  param {
    lr_mult: 0
    decay_mult: 0
  }
  penlu_param {
    alpha_filler {
      type: "constant"
      value: 1
    }
    beta_filler {
      type: "constant"
      value: 1
    }
    eta_filler {
      type: "constant"
      value: 1
    }
  }
}
layer {
  name: "Convolution11"
  type: "Convolution"
  bottom: "Eltwise4"
  top: "Convolution11"
  param {
    lr_mult: 1
    decay_mult: 1
  }
  param {
    lr_mult: 2
    decay_mult: 0
  }
  convolution_param {
    num_output: 32
    pad: 1
    kernel_size: 3
    stride: 1
    weight_filler {
      type: "gaussian"
      std: 0.083
    }
    bias_filler {
      type: "constant"
      value: 0
    }
  }
}
layer {
  name: "BatchNorm11"
  type: "BatchNorm"
  bottom: "Convolution11"
  top: "Convolution11"
  param {
    lr_mult: 0
    decay_mult: 0
  }
  param {
    lr_mult: 0
    decay_mult: 0
  }
  param {
    lr_mult: 0
    decay_mult: 0
  }
}
layer {
  name: "Scale11"
  type: "Scale"
  bottom: "Convolution11"
  top: "Convolution11"
  scale_param {
    bias_term: true
  }
}
layer {
  name: "penlu10"
  type: "PENLU"
  bottom: "Convolution11"
  top: "Convolution11"
  param {
    lr_mult: 2
    decay_mult: 2
  }
  param {
    lr_mult: 2
    decay_mult: 2
  }
  param {
    lr_mult: 0
    decay_mult: 0
  }
  penlu_param {
    alpha_filler {
      type: "constant"
      value: 1
    }
    beta_filler {
      type: "constant"
      value: 1
    }
    eta_filler {
      type: "constant"
      value: 1
    }
  }
}
layer {
  name: "Convolution12"
  type: "Convolution"
  bottom: "Convolution11"
  top: "Convolution12"
  param {
    lr_mult: 1
    decay_mult: 1
  }
  param {
    lr_mult: 2
    decay_mult: 0
  }
  convolution_param {
    num_output: 32
    pad: 1
    kernel_size: 3
    stride: 1
    weight_filler {
      type: "gaussian"
      std: 0.083
    }
    bias_filler {
      type: "constant"
      value: 0
    }
  }
}
layer {
  name: "BatchNorm12"
  type: "BatchNorm"
  bottom: "Convolution12"
  top: "Convolution12"
  param {
    lr_mult: 0
    decay_mult: 0
  }
  param {
    lr_mult: 0
    decay_mult: 0
  }
  param {
    lr_mult: 0
    decay_mult: 0
  }
}
layer {
  name: "Scale12"
  type: "Scale"
  bottom: "Convolution12"
  top: "Convolution12"
  scale_param {
    bias_term: true
  }
}
layer {
  name: "Eltwise5"
  type: "Eltwise"
  bottom: "Eltwise4"
  bottom: "Convolution12"
  top: "Eltwise5"
  eltwise_param {
    operation: SUM
  }
}
layer {
  name: "penlu11"
  type: "PENLU"
  bottom: "Eltwise5"
  top: "Eltwise5"
  param {
    lr_mult: 2
    decay_mult: 2
  }
  param {
    lr_mult: 2
    decay_mult: 2
  }
  param {
    lr_mult: 0
    decay_mult: 0
  }
  penlu_param {
    alpha_filler {
      type: "constant"
      value: 1
    }
    beta_filler {
      type: "constant"
      value: 1
    }
    eta_filler {
      type: "constant"
      value: 1
    }
  }
}
layer {
  name: "Convolution13"
  type: "Convolution"
  bottom: "Eltwise5"
  top: "Convolution13"
  param {
    lr_mult: 1
    decay_mult: 1
  }
  param {
    lr_mult: 2
    decay_mult: 0
  }
  convolution_param {
    num_output: 32
    pad: 1
    kernel_size: 3
    stride: 1
    weight_filler {
      type: "gaussian"
      std: 0.083
    }
    bias_filler {
      type: "constant"
      value: 0
    }
  }
}
layer {
  name: "BatchNorm13"
  type: "BatchNorm"
  bottom: "Convolution13"
  top: "Convolution13"
  param {
    lr_mult: 0
    decay_mult: 0
  }
  param {
    lr_mult: 0
    decay_mult: 0
  }
  param {
    lr_mult: 0
    decay_mult: 0
  }
}
layer {
  name: "Scale13"
  type: "Scale"
  bottom: "Convolution13"
  top: "Convolution13"
  scale_param {
    bias_term: true
  }
}
layer {
  name: "penlu12"
  type: "PENLU"
  bottom: "Convolution13"
  top: "Convolution13"
  param {
    lr_mult: 2
    decay_mult: 2
  }
  param {
    lr_mult: 2
    decay_mult: 2
  }
  param {
    lr_mult: 0
    decay_mult: 0
  }
  penlu_param {
    alpha_filler {
      type: "constant"
      value: 1
    }
    beta_filler {
      type: "constant"
      value: 1
    }
    eta_filler {
      type: "constant"
      value: 1
    }
  }
}
layer {
  name: "Convolution14"
  type: "Convolution"
  bottom: "Convolution13"
  top: "Convolution14"
  param {
    lr_mult: 1
    decay_mult: 1
  }
  param {
    lr_mult: 2
    decay_mult: 0
  }
  convolution_param {
    num_output: 32
    pad: 1
    kernel_size: 3
    stride: 1
    weight_filler {
      type: "gaussian"
      std: 0.083
    }
    bias_filler {
      type: "constant"
      value: 0
    }
  }
}
layer {
  name: "BatchNorm14"
  type: "BatchNorm"
  bottom: "Convolution14"
  top: "Convolution14"
  param {
    lr_mult: 0
    decay_mult: 0
  }
  param {
    lr_mult: 0
    decay_mult: 0
  }
  param {
    lr_mult: 0
    decay_mult: 0
  }
}
layer {
  name: "Scale14"
  type: "Scale"
  bottom: "Convolution14"
  top: "Convolution14"
  scale_param {
    bias_term: true
  }
}
layer {
  name: "Eltwise6"
  type: "Eltwise"
  bottom: "Eltwise5"
  bottom: "Convolution14"
  top: "Eltwise6"
  eltwise_param {
    operation: SUM
  }
}
layer {
  name: "penlu13"
  type: "PENLU"
  bottom: "Eltwise6"
  top: "Eltwise6"
  param {
    lr_mult: 2
    decay_mult: 2
  }
  param {
    lr_mult: 2
    decay_mult: 2
  }
  param {
    lr_mult: 0
    decay_mult: 0
  }
  penlu_param {
    alpha_filler {
      type: "constant"
      value: 1
    }
    beta_filler {
      type: "constant"
      value: 1
    }
    eta_filler {
      type: "constant"
      value: 1
    }
  }
}
layer {
  name: "Convolution15"
  type: "Convolution"
  bottom: "Eltwise6"
  top: "Convolution15"
  param {
    lr_mult: 1
    decay_mult: 1
  }
  param {
    lr_mult: 2
    decay_mult: 0
  }
  convolution_param {
    num_output: 64
    pad: 0
    kernel_size: 1
    stride: 2
    weight_filler {
      type: "gaussian"
      std: 0.17677669
    }
    bias_filler {
      type: "constant"
      value: 0
    }
  }
}
layer {
  name: "BatchNorm15"
  type: "BatchNorm"
  bottom: "Convolution15"
  top: "Convolution15"
  param {
    lr_mult: 0
    decay_mult: 0
  }
  param {
    lr_mult: 0
    decay_mult: 0
  }
  param {
    lr_mult: 0
    decay_mult: 0
  }
}
layer {
  name: "Scale15"
  type: "Scale"
  bottom: "Convolution15"
  top: "Convolution15"
  scale_param {
    bias_term: true
  }
}
layer {
  name: "Convolution16"
  type: "Convolution"
  bottom: "Eltwise6"
  top: "Convolution16"
  param {
    lr_mult: 1
    decay_mult: 1
  }
  param {
    lr_mult: 2
    decay_mult: 0
  }
  convolution_param {
    num_output: 64
    pad: 1
    kernel_size: 3
    stride: 2
    weight_filler {
      type: "gaussian"
      std: 0.059
    }
    bias_filler {
      type: "constant"
      value: 0
    }
  }
}
layer {
  name: "BatchNorm16"
  type: "BatchNorm"
  bottom: "Convolution16"
  top: "Convolution16"
  param {
    lr_mult: 0
    decay_mult: 0
  }
  param {
    lr_mult: 0
    decay_mult: 0
  }
  param {
    lr_mult: 0
    decay_mult: 0
  }
}
layer {
  name: "Scale16"
  type: "Scale"
  bottom: "Convolution16"
  top: "Convolution16"
  scale_param {
    bias_term: true
  }
}
layer {
  name: "penlu14"
  type: "PENLU"
  bottom: "Convolution16"
  top: "Convolution16"
  param {
    lr_mult: 2
    decay_mult: 2
  }
  param {
    lr_mult: 2
    decay_mult: 2
  }
  param {
    lr_mult: 0
    decay_mult: 0
  }
  penlu_param {
    alpha_filler {
      type: "constant"
      value: 1
    }
    beta_filler {
      type: "constant"
      value: 1
    }
    eta_filler {
      type: "constant"
      value: 1
    }
  }
}
layer {
  name: "Convolution17"
  type: "Convolution"
  bottom: "Convolution16"
  top: "Convolution17"
  param {
    lr_mult: 1
    decay_mult: 1
  }
  param {
    lr_mult: 2
    decay_mult: 0
  }
  convolution_param {
    num_output: 64
    pad: 1
    kernel_size: 3
    stride: 1
    weight_filler {
      type: "gaussian"
      std: 0.059
    }
    bias_filler {
      type: "constant"
      value: 0
    }
  }
}
layer {
  name: "BatchNorm17"
  type: "BatchNorm"
  bottom: "Convolution17"
  top: "Convolution17"
  param {
    lr_mult: 0
    decay_mult: 0
  }
  param {
    lr_mult: 0
    decay_mult: 0
  }
  param {
    lr_mult: 0
    decay_mult: 0
  }
}
layer {
  name: "Scale17"
  type: "Scale"
  bottom: "Convolution17"
  top: "Convolution17"
  scale_param {
    bias_term: true
  }
}
layer {
  name: "Eltwise7"
  type: "Eltwise"
  bottom: "Convolution15"
  bottom: "Convolution17"
  top: "Eltwise7"
  eltwise_param {
    operation: SUM
  }
}
layer {
  name: "penlu15"
  type: "PENLU"
  bottom: "Eltwise7"
  top: "Eltwise7"
  param {
    lr_mult: 2
    decay_mult: 2
  }
  param {
    lr_mult: 2
    decay_mult: 2
  }
  param {
    lr_mult: 0
    decay_mult: 0
  }
  penlu_param {
    alpha_filler {
      type: "constant"
      value: 1
    }
    beta_filler {
      type: "constant"
      value: 1
    }
    eta_filler {
      type: "constant"
      value: 1
    }
  }
}
layer {
  name: "Convolution18"
  type: "Convolution"
  bottom: "Eltwise7"
  top: "Convolution18"
  param {
    lr_mult: 1
    decay_mult: 1
  }
  param {
    lr_mult: 2
    decay_mult: 0
  }
  convolution_param {
    num_output: 64
    pad: 1
    kernel_size: 3
    stride: 1
    weight_filler {
      type: "gaussian"
      std: 0.059
    }
    bias_filler {
      type: "constant"
      value: 0
    }
  }
}
layer {
  name: "BatchNorm18"
  type: "BatchNorm"
  bottom: "Convolution18"
  top: "Convolution18"
  param {
    lr_mult: 0
    decay_mult: 0
  }
  param {
    lr_mult: 0
    decay_mult: 0
  }
  param {
    lr_mult: 0
    decay_mult: 0
  }
}
layer {
  name: "Scale18"
  type: "Scale"
  bottom: "Convolution18"
  top: "Convolution18"
  scale_param {
    bias_term: true
  }
}
layer {
  name: "penlu16"
  type: "PENLU"
  bottom: "Convolution18"
  top: "Convolution18"
  param {
    lr_mult: 2
    decay_mult: 2
  }
  param {
    lr_mult: 2
    decay_mult: 2
  }
  param {
    lr_mult: 0
    decay_mult: 0
  }
  penlu_param {
    alpha_filler {
      type: "constant"
      value: 1
    }
    beta_filler {
      type: "constant"
      value: 1
    }
    eta_filler {
      type: "constant"
      value: 1
    }
  }
}
layer {
  name: "Convolution19"
  type: "Convolution"
  bottom: "Convolution18"
  top: "Convolution19"
  param {
    lr_mult: 1
    decay_mult: 1
  }
  param {
    lr_mult: 2
    decay_mult: 0
  }
  convolution_param {
    num_output: 64
    pad: 1
    kernel_size: 3
    stride: 1
    weight_filler {
      type: "gaussian"
      std: 0.059
    }
    bias_filler {
      type: "constant"
      value: 0
    }
  }
}
layer {
  name: "BatchNorm19"
  type: "BatchNorm"
  bottom: "Convolution19"
  top: "Convolution19"
  param {
    lr_mult: 0
    decay_mult: 0
  }
  param {
    lr_mult: 0
    decay_mult: 0
  }
  param {
    lr_mult: 0
    decay_mult: 0
  }
}
layer {
  name: "Scale19"
  type: "Scale"
  bottom: "Convolution19"
  top: "Convolution19"
  scale_param {
    bias_term: true
  }
}
layer {
  name: "Eltwise8"
  type: "Eltwise"
  bottom: "Eltwise7"
  bottom: "Convolution19"
  top: "Eltwise8"
  eltwise_param {
    operation: SUM
  }
}
layer {
  name: "penlu17"
  type: "PENLU"
  bottom: "Eltwise8"
  top: "Eltwise8"
  param {
    lr_mult: 2
    decay_mult: 2
  }
  param {
    lr_mult: 2
    decay_mult: 2
  }
  param {
    lr_mult: 0
    decay_mult: 0
  }
  penlu_param {
    alpha_filler {
      type: "constant"
      value: 1
    }
    beta_filler {
      type: "constant"
      value: 1
    }
    eta_filler {
      type: "constant"
      value: 1
    }
  }
}
layer {
  name: "Convolution20"
  type: "Convolution"
  bottom: "Eltwise8"
  top: "Convolution20"
  param {
    lr_mult: 1
    decay_mult: 1
  }
  param {
    lr_mult: 2
    decay_mult: 0
  }
  convolution_param {
    num_output: 64
    pad: 1
    kernel_size: 3
    stride: 1
    weight_filler {
      type: "gaussian"
      std: 0.059
    }
    bias_filler {
      type: "constant"
      value: 0
    }
  }
}
layer {
  name: "BatchNorm20"
  type: "BatchNorm"
  bottom: "Convolution20"
  top: "Convolution20"
  param {
    lr_mult: 0
    decay_mult: 0
  }
  param {
    lr_mult: 0
    decay_mult: 0
  }
  param {
    lr_mult: 0
    decay_mult: 0
  }
}
layer {
  name: "Scale20"
  type: "Scale"
  bottom: "Convolution20"
  top: "Convolution20"
  scale_param {
    bias_term: true
  }
}
layer {
  name: "penlu18"
  type: "PENLU"
  bottom: "Convolution20"
  top: "Convolution20"
  param {
    lr_mult: 2
    decay_mult: 2
  }
  param {
    lr_mult: 2
    decay_mult: 2
  }
  param {
    lr_mult: 0
    decay_mult: 0
  }
  penlu_param {
    alpha_filler {
      type: "constant"
      value: 1
    }
    beta_filler {
      type: "constant"
      value: 1
    }
    eta_filler {
      type: "constant"
      value: 1
    }
  }
}
layer {
  name: "Convolution21"
  type: "Convolution"
  bottom: "Convolution20"
  top: "Convolution21"
  param {
    lr_mult: 1
    decay_mult: 1
  }
  param {
    lr_mult: 2
    decay_mult: 0
  }
  convolution_param {
    num_output: 64
    pad: 1
    kernel_size: 3
    stride: 1
    weight_filler {
      type: "gaussian"
      std: 0.059
    }
    bias_filler {
      type: "constant"
      value: 0
    }
  }
}
layer {
  name: "BatchNorm21"
  type: "BatchNorm"
  bottom: "Convolution21"
  top: "Convolution21"
  param {
    lr_mult: 0
    decay_mult: 0
  }
  param {
    lr_mult: 0
    decay_mult: 0
  }
  param {
    lr_mult: 0
    decay_mult: 0
  }
}
layer {
  name: "Scale21"
  type: "Scale"
  bottom: "Convolution21"
  top: "Convolution21"
  scale_param {
    bias_term: true
  }
}
layer {
  name: "Eltwise9"
  type: "Eltwise"
  bottom: "Eltwise8"
  bottom: "Convolution21"
  top: "Eltwise9"
  eltwise_param {
    operation: SUM
  }
}
layer {
  name: "penlu19"
  type: "PENLU"
  bottom: "Eltwise9"
  top: "Eltwise9"
  param {
    lr_mult: 2
    decay_mult: 2
  }
  param {
    lr_mult: 2
    decay_mult: 2
  }
  param {
    lr_mult: 0
    decay_mult: 0
  }
  penlu_param {
    alpha_filler {
      type: "constant"
      value: 1
    }
    beta_filler {
      type: "constant"
      value: 1
    }
    eta_filler {
      type: "constant"
      value: 1
    }
  }
}
layer {
  name: "Pooling1"
  type: "Pooling"
  bottom: "Eltwise9"
  top: "Pooling1"
  pooling_param {
    pool: AVE
    global_pooling: true
  }
}
layer {
  name: "InnerProduct1"
  type: "InnerProduct"
  bottom: "Pooling1"
  top: "InnerProduct1"
  param {
    lr_mult: 1
    decay_mult: 1
  }
  param {
    lr_mult: 2
    decay_mult: 1
  }
  inner_product_param {
    num_output: 10
    weight_filler {
      type: "gaussian"
      std: 0.01
    }
    bias_filler {
      type: "constant"
      value: 0
    }
  }
}
layer {
  name: "SoftmaxWithLoss1"
  type: "SoftmaxWithLoss"
  bottom: "InnerProduct1"
  bottom: "Data2"
  top: "SoftmaxWithLoss1"
}
layer {
  name: "Accuracy1"
  type: "Accuracy"
  bottom: "InnerProduct1"
  bottom: "Data2"
  top: "Accuracy1"
  include {
    phase: TEST
  }
}
I1001 15:00:41.360874  5332 layer_factory.hpp:77] Creating layer Data1
I1001 15:00:41.360911  5332 db_lmdb.cpp:35] Opened lmdb /home/x306/caffe/xn/PENLU/data/cifar10/cifar10_test_lmdb
I1001 15:00:41.360921  5332 net.cpp:84] Creating Layer Data1
I1001 15:00:41.360926  5332 net.cpp:380] Data1 -> Data1
I1001 15:00:41.360932  5332 net.cpp:380] Data1 -> Data2
I1001 15:00:41.360937  5332 data_transformer.cpp:25] Loading mean file from: /home/x306/caffe/xn/PENLU/data/cifar10/mean.binaryproto
I1001 15:00:41.361047  5332 data_layer.cpp:45] output data size: 100,3,32,32
I1001 15:00:41.364815  5332 net.cpp:122] Setting up Data1
I1001 15:00:41.364835  5332 net.cpp:129] Top shape: 100 3 32 32 (307200)
I1001 15:00:41.364840  5332 net.cpp:129] Top shape: 100 (100)
I1001 15:00:41.364841  5332 net.cpp:137] Memory required for data: 1229200
I1001 15:00:41.364845  5332 layer_factory.hpp:77] Creating layer Data2_Data1_1_split
I1001 15:00:41.364853  5332 net.cpp:84] Creating Layer Data2_Data1_1_split
I1001 15:00:41.364857  5332 net.cpp:406] Data2_Data1_1_split <- Data2
I1001 15:00:41.364861  5332 net.cpp:380] Data2_Data1_1_split -> Data2_Data1_1_split_0
I1001 15:00:41.364868  5332 net.cpp:380] Data2_Data1_1_split -> Data2_Data1_1_split_1
I1001 15:00:41.364938  5332 net.cpp:122] Setting up Data2_Data1_1_split
I1001 15:00:41.364943  5332 net.cpp:129] Top shape: 100 (100)
I1001 15:00:41.364958  5332 net.cpp:129] Top shape: 100 (100)
I1001 15:00:41.364959  5332 net.cpp:137] Memory required for data: 1230000
I1001 15:00:41.364962  5332 layer_factory.hpp:77] Creating layer Convolution1
I1001 15:00:41.364971  5332 net.cpp:84] Creating Layer Convolution1
I1001 15:00:41.364974  5332 net.cpp:406] Convolution1 <- Data1
I1001 15:00:41.364979  5332 net.cpp:380] Convolution1 -> Convolution1
I1001 15:00:41.366129  5332 net.cpp:122] Setting up Convolution1
I1001 15:00:41.366139  5332 net.cpp:129] Top shape: 100 16 32 32 (1638400)
I1001 15:00:41.366142  5332 net.cpp:137] Memory required for data: 7783600
I1001 15:00:41.366149  5332 layer_factory.hpp:77] Creating layer BatchNorm1
I1001 15:00:41.366155  5332 net.cpp:84] Creating Layer BatchNorm1
I1001 15:00:41.366158  5332 net.cpp:406] BatchNorm1 <- Convolution1
I1001 15:00:41.366163  5332 net.cpp:367] BatchNorm1 -> Convolution1 (in-place)
I1001 15:00:41.366300  5332 net.cpp:122] Setting up BatchNorm1
I1001 15:00:41.366305  5332 net.cpp:129] Top shape: 100 16 32 32 (1638400)
I1001 15:00:41.366307  5332 net.cpp:137] Memory required for data: 14337200
I1001 15:00:41.366314  5332 layer_factory.hpp:77] Creating layer Scale1
I1001 15:00:41.366322  5332 net.cpp:84] Creating Layer Scale1
I1001 15:00:41.366325  5332 net.cpp:406] Scale1 <- Convolution1
I1001 15:00:41.366328  5332 net.cpp:367] Scale1 -> Convolution1 (in-place)
I1001 15:00:41.366356  5332 layer_factory.hpp:77] Creating layer Scale1
I1001 15:00:41.366432  5332 net.cpp:122] Setting up Scale1
I1001 15:00:41.366437  5332 net.cpp:129] Top shape: 100 16 32 32 (1638400)
I1001 15:00:41.366439  5332 net.cpp:137] Memory required for data: 20890800
I1001 15:00:41.366443  5332 layer_factory.hpp:77] Creating layer penlu1
I1001 15:00:41.366451  5332 net.cpp:84] Creating Layer penlu1
I1001 15:00:41.366452  5332 net.cpp:406] penlu1 <- Convolution1
I1001 15:00:41.366456  5332 net.cpp:367] penlu1 -> Convolution1 (in-place)
I1001 15:00:41.366607  5332 net.cpp:122] Setting up penlu1
I1001 15:00:41.366613  5332 net.cpp:129] Top shape: 100 16 32 32 (1638400)
I1001 15:00:41.366616  5332 net.cpp:137] Memory required for data: 27444400
I1001 15:00:41.366622  5332 layer_factory.hpp:77] Creating layer Convolution1_penlu1_0_split
I1001 15:00:41.366626  5332 net.cpp:84] Creating Layer Convolution1_penlu1_0_split
I1001 15:00:41.366629  5332 net.cpp:406] Convolution1_penlu1_0_split <- Convolution1
I1001 15:00:41.366632  5332 net.cpp:380] Convolution1_penlu1_0_split -> Convolution1_penlu1_0_split_0
I1001 15:00:41.366636  5332 net.cpp:380] Convolution1_penlu1_0_split -> Convolution1_penlu1_0_split_1
I1001 15:00:41.366662  5332 net.cpp:122] Setting up Convolution1_penlu1_0_split
I1001 15:00:41.366665  5332 net.cpp:129] Top shape: 100 16 32 32 (1638400)
I1001 15:00:41.366668  5332 net.cpp:129] Top shape: 100 16 32 32 (1638400)
I1001 15:00:41.366670  5332 net.cpp:137] Memory required for data: 40551600
I1001 15:00:41.366677  5332 layer_factory.hpp:77] Creating layer Convolution2
I1001 15:00:41.366683  5332 net.cpp:84] Creating Layer Convolution2
I1001 15:00:41.366688  5332 net.cpp:406] Convolution2 <- Convolution1_penlu1_0_split_0
I1001 15:00:41.366693  5332 net.cpp:380] Convolution2 -> Convolution2
I1001 15:00:41.367296  5332 net.cpp:122] Setting up Convolution2
I1001 15:00:41.367303  5332 net.cpp:129] Top shape: 100 16 32 32 (1638400)
I1001 15:00:41.367306  5332 net.cpp:137] Memory required for data: 47105200
I1001 15:00:41.367311  5332 layer_factory.hpp:77] Creating layer BatchNorm2
I1001 15:00:41.367317  5332 net.cpp:84] Creating Layer BatchNorm2
I1001 15:00:41.367321  5332 net.cpp:406] BatchNorm2 <- Convolution2
I1001 15:00:41.367324  5332 net.cpp:367] BatchNorm2 -> Convolution2 (in-place)
I1001 15:00:41.367561  5332 net.cpp:122] Setting up BatchNorm2
I1001 15:00:41.367566  5332 net.cpp:129] Top shape: 100 16 32 32 (1638400)
I1001 15:00:41.367568  5332 net.cpp:137] Memory required for data: 53658800
I1001 15:00:41.367573  5332 layer_factory.hpp:77] Creating layer Scale2
I1001 15:00:41.367578  5332 net.cpp:84] Creating Layer Scale2
I1001 15:00:41.367588  5332 net.cpp:406] Scale2 <- Convolution2
I1001 15:00:41.367591  5332 net.cpp:367] Scale2 -> Convolution2 (in-place)
I1001 15:00:41.367619  5332 layer_factory.hpp:77] Creating layer Scale2
I1001 15:00:41.367697  5332 net.cpp:122] Setting up Scale2
I1001 15:00:41.367702  5332 net.cpp:129] Top shape: 100 16 32 32 (1638400)
I1001 15:00:41.367703  5332 net.cpp:137] Memory required for data: 60212400
I1001 15:00:41.367710  5332 layer_factory.hpp:77] Creating layer penlu2
I1001 15:00:41.367715  5332 net.cpp:84] Creating Layer penlu2
I1001 15:00:41.367718  5332 net.cpp:406] penlu2 <- Convolution2
I1001 15:00:41.367723  5332 net.cpp:367] penlu2 -> Convolution2 (in-place)
I1001 15:00:41.367838  5332 net.cpp:122] Setting up penlu2
I1001 15:00:41.367843  5332 net.cpp:129] Top shape: 100 16 32 32 (1638400)
I1001 15:00:41.367846  5332 net.cpp:137] Memory required for data: 66766000
I1001 15:00:41.367849  5332 layer_factory.hpp:77] Creating layer Convolution3
I1001 15:00:41.367856  5332 net.cpp:84] Creating Layer Convolution3
I1001 15:00:41.367859  5332 net.cpp:406] Convolution3 <- Convolution2
I1001 15:00:41.367863  5332 net.cpp:380] Convolution3 -> Convolution3
I1001 15:00:41.368930  5332 net.cpp:122] Setting up Convolution3
I1001 15:00:41.368939  5332 net.cpp:129] Top shape: 100 16 32 32 (1638400)
I1001 15:00:41.368943  5332 net.cpp:137] Memory required for data: 73319600
I1001 15:00:41.368948  5332 layer_factory.hpp:77] Creating layer BatchNorm3
I1001 15:00:41.368953  5332 net.cpp:84] Creating Layer BatchNorm3
I1001 15:00:41.368957  5332 net.cpp:406] BatchNorm3 <- Convolution3
I1001 15:00:41.368962  5332 net.cpp:367] BatchNorm3 -> Convolution3 (in-place)
I1001 15:00:41.369096  5332 net.cpp:122] Setting up BatchNorm3
I1001 15:00:41.369104  5332 net.cpp:129] Top shape: 100 16 32 32 (1638400)
I1001 15:00:41.369107  5332 net.cpp:137] Memory required for data: 79873200
I1001 15:00:41.369112  5332 layer_factory.hpp:77] Creating layer Scale3
I1001 15:00:41.369117  5332 net.cpp:84] Creating Layer Scale3
I1001 15:00:41.369118  5332 net.cpp:406] Scale3 <- Convolution3
I1001 15:00:41.369122  5332 net.cpp:367] Scale3 -> Convolution3 (in-place)
I1001 15:00:41.369154  5332 layer_factory.hpp:77] Creating layer Scale3
I1001 15:00:41.369231  5332 net.cpp:122] Setting up Scale3
I1001 15:00:41.369236  5332 net.cpp:129] Top shape: 100 16 32 32 (1638400)
I1001 15:00:41.369238  5332 net.cpp:137] Memory required for data: 86426800
I1001 15:00:41.369242  5332 layer_factory.hpp:77] Creating layer Eltwise1
I1001 15:00:41.369246  5332 net.cpp:84] Creating Layer Eltwise1
I1001 15:00:41.369251  5332 net.cpp:406] Eltwise1 <- Convolution1_penlu1_0_split_1
I1001 15:00:41.369253  5332 net.cpp:406] Eltwise1 <- Convolution3
I1001 15:00:41.369256  5332 net.cpp:380] Eltwise1 -> Eltwise1
I1001 15:00:41.369273  5332 net.cpp:122] Setting up Eltwise1
I1001 15:00:41.369279  5332 net.cpp:129] Top shape: 100 16 32 32 (1638400)
I1001 15:00:41.369282  5332 net.cpp:137] Memory required for data: 92980400
I1001 15:00:41.369284  5332 layer_factory.hpp:77] Creating layer penlu3
I1001 15:00:41.369292  5332 net.cpp:84] Creating Layer penlu3
I1001 15:00:41.369295  5332 net.cpp:406] penlu3 <- Eltwise1
I1001 15:00:41.369299  5332 net.cpp:367] penlu3 -> Eltwise1 (in-place)
I1001 15:00:41.369418  5332 net.cpp:122] Setting up penlu3
I1001 15:00:41.369422  5332 net.cpp:129] Top shape: 100 16 32 32 (1638400)
I1001 15:00:41.369424  5332 net.cpp:137] Memory required for data: 99534000
I1001 15:00:41.369428  5332 layer_factory.hpp:77] Creating layer Eltwise1_penlu3_0_split
I1001 15:00:41.369433  5332 net.cpp:84] Creating Layer Eltwise1_penlu3_0_split
I1001 15:00:41.369436  5332 net.cpp:406] Eltwise1_penlu3_0_split <- Eltwise1
I1001 15:00:41.369438  5332 net.cpp:380] Eltwise1_penlu3_0_split -> Eltwise1_penlu3_0_split_0
I1001 15:00:41.369442  5332 net.cpp:380] Eltwise1_penlu3_0_split -> Eltwise1_penlu3_0_split_1
I1001 15:00:41.369467  5332 net.cpp:122] Setting up Eltwise1_penlu3_0_split
I1001 15:00:41.369470  5332 net.cpp:129] Top shape: 100 16 32 32 (1638400)
I1001 15:00:41.369478  5332 net.cpp:129] Top shape: 100 16 32 32 (1638400)
I1001 15:00:41.369482  5332 net.cpp:137] Memory required for data: 112641200
I1001 15:00:41.369483  5332 layer_factory.hpp:77] Creating layer Convolution4
I1001 15:00:41.369490  5332 net.cpp:84] Creating Layer Convolution4
I1001 15:00:41.369493  5332 net.cpp:406] Convolution4 <- Eltwise1_penlu3_0_split_0
I1001 15:00:41.369496  5332 net.cpp:380] Convolution4 -> Convolution4
I1001 15:00:41.370584  5332 net.cpp:122] Setting up Convolution4
I1001 15:00:41.370592  5332 net.cpp:129] Top shape: 100 16 32 32 (1638400)
I1001 15:00:41.370595  5332 net.cpp:137] Memory required for data: 119194800
I1001 15:00:41.370600  5332 layer_factory.hpp:77] Creating layer BatchNorm4
I1001 15:00:41.370605  5332 net.cpp:84] Creating Layer BatchNorm4
I1001 15:00:41.370609  5332 net.cpp:406] BatchNorm4 <- Convolution4
I1001 15:00:41.370612  5332 net.cpp:367] BatchNorm4 -> Convolution4 (in-place)
I1001 15:00:41.370748  5332 net.cpp:122] Setting up BatchNorm4
I1001 15:00:41.370754  5332 net.cpp:129] Top shape: 100 16 32 32 (1638400)
I1001 15:00:41.370755  5332 net.cpp:137] Memory required for data: 125748400
I1001 15:00:41.370762  5332 layer_factory.hpp:77] Creating layer Scale4
I1001 15:00:41.370767  5332 net.cpp:84] Creating Layer Scale4
I1001 15:00:41.370774  5332 net.cpp:406] Scale4 <- Convolution4
I1001 15:00:41.370779  5332 net.cpp:367] Scale4 -> Convolution4 (in-place)
I1001 15:00:41.370807  5332 layer_factory.hpp:77] Creating layer Scale4
I1001 15:00:41.370883  5332 net.cpp:122] Setting up Scale4
I1001 15:00:41.370887  5332 net.cpp:129] Top shape: 100 16 32 32 (1638400)
I1001 15:00:41.370890  5332 net.cpp:137] Memory required for data: 132302000
I1001 15:00:41.370893  5332 layer_factory.hpp:77] Creating layer penlu4
I1001 15:00:41.370899  5332 net.cpp:84] Creating Layer penlu4
I1001 15:00:41.370901  5332 net.cpp:406] penlu4 <- Convolution4
I1001 15:00:41.370905  5332 net.cpp:367] penlu4 -> Convolution4 (in-place)
I1001 15:00:41.371023  5332 net.cpp:122] Setting up penlu4
I1001 15:00:41.371027  5332 net.cpp:129] Top shape: 100 16 32 32 (1638400)
I1001 15:00:41.371031  5332 net.cpp:137] Memory required for data: 138855600
I1001 15:00:41.371034  5332 layer_factory.hpp:77] Creating layer Convolution5
I1001 15:00:41.371042  5332 net.cpp:84] Creating Layer Convolution5
I1001 15:00:41.371043  5332 net.cpp:406] Convolution5 <- Convolution4
I1001 15:00:41.371047  5332 net.cpp:380] Convolution5 -> Convolution5
I1001 15:00:41.372304  5332 net.cpp:122] Setting up Convolution5
I1001 15:00:41.372313  5332 net.cpp:129] Top shape: 100 16 32 32 (1638400)
I1001 15:00:41.372316  5332 net.cpp:137] Memory required for data: 145409200
I1001 15:00:41.372321  5332 layer_factory.hpp:77] Creating layer BatchNorm5
I1001 15:00:41.372325  5332 net.cpp:84] Creating Layer BatchNorm5
I1001 15:00:41.372328  5332 net.cpp:406] BatchNorm5 <- Convolution5
I1001 15:00:41.372333  5332 net.cpp:367] BatchNorm5 -> Convolution5 (in-place)
I1001 15:00:41.372474  5332 net.cpp:122] Setting up BatchNorm5
I1001 15:00:41.372478  5332 net.cpp:129] Top shape: 100 16 32 32 (1638400)
I1001 15:00:41.372481  5332 net.cpp:137] Memory required for data: 151962800
I1001 15:00:41.372485  5332 layer_factory.hpp:77] Creating layer Scale5
I1001 15:00:41.372489  5332 net.cpp:84] Creating Layer Scale5
I1001 15:00:41.372493  5332 net.cpp:406] Scale5 <- Convolution5
I1001 15:00:41.372495  5332 net.cpp:367] Scale5 -> Convolution5 (in-place)
I1001 15:00:41.372522  5332 layer_factory.hpp:77] Creating layer Scale5
I1001 15:00:41.372601  5332 net.cpp:122] Setting up Scale5
I1001 15:00:41.372604  5332 net.cpp:129] Top shape: 100 16 32 32 (1638400)
I1001 15:00:41.372607  5332 net.cpp:137] Memory required for data: 158516400
I1001 15:00:41.372611  5332 layer_factory.hpp:77] Creating layer Eltwise2
I1001 15:00:41.372615  5332 net.cpp:84] Creating Layer Eltwise2
I1001 15:00:41.372618  5332 net.cpp:406] Eltwise2 <- Eltwise1_penlu3_0_split_1
I1001 15:00:41.372622  5332 net.cpp:406] Eltwise2 <- Convolution5
I1001 15:00:41.372624  5332 net.cpp:380] Eltwise2 -> Eltwise2
I1001 15:00:41.372648  5332 net.cpp:122] Setting up Eltwise2
I1001 15:00:41.372653  5332 net.cpp:129] Top shape: 100 16 32 32 (1638400)
I1001 15:00:41.372654  5332 net.cpp:137] Memory required for data: 165070000
I1001 15:00:41.372656  5332 layer_factory.hpp:77] Creating layer penlu5
I1001 15:00:41.372663  5332 net.cpp:84] Creating Layer penlu5
I1001 15:00:41.372664  5332 net.cpp:406] penlu5 <- Eltwise2
I1001 15:00:41.372668  5332 net.cpp:367] penlu5 -> Eltwise2 (in-place)
I1001 15:00:41.372786  5332 net.cpp:122] Setting up penlu5
I1001 15:00:41.372790  5332 net.cpp:129] Top shape: 100 16 32 32 (1638400)
I1001 15:00:41.372792  5332 net.cpp:137] Memory required for data: 171623600
I1001 15:00:41.372797  5332 layer_factory.hpp:77] Creating layer Eltwise2_penlu5_0_split
I1001 15:00:41.372800  5332 net.cpp:84] Creating Layer Eltwise2_penlu5_0_split
I1001 15:00:41.372802  5332 net.cpp:406] Eltwise2_penlu5_0_split <- Eltwise2
I1001 15:00:41.372807  5332 net.cpp:380] Eltwise2_penlu5_0_split -> Eltwise2_penlu5_0_split_0
I1001 15:00:41.372810  5332 net.cpp:380] Eltwise2_penlu5_0_split -> Eltwise2_penlu5_0_split_1
I1001 15:00:41.372835  5332 net.cpp:122] Setting up Eltwise2_penlu5_0_split
I1001 15:00:41.372839  5332 net.cpp:129] Top shape: 100 16 32 32 (1638400)
I1001 15:00:41.372843  5332 net.cpp:129] Top shape: 100 16 32 32 (1638400)
I1001 15:00:41.372844  5332 net.cpp:137] Memory required for data: 184730800
I1001 15:00:41.372846  5332 layer_factory.hpp:77] Creating layer Convolution6
I1001 15:00:41.372853  5332 net.cpp:84] Creating Layer Convolution6
I1001 15:00:41.372854  5332 net.cpp:406] Convolution6 <- Eltwise2_penlu5_0_split_0
I1001 15:00:41.372859  5332 net.cpp:380] Convolution6 -> Convolution6
I1001 15:00:41.373808  5332 net.cpp:122] Setting up Convolution6
I1001 15:00:41.373817  5332 net.cpp:129] Top shape: 100 16 32 32 (1638400)
I1001 15:00:41.373821  5332 net.cpp:137] Memory required for data: 191284400
I1001 15:00:41.373824  5332 layer_factory.hpp:77] Creating layer BatchNorm6
I1001 15:00:41.373831  5332 net.cpp:84] Creating Layer BatchNorm6
I1001 15:00:41.373832  5332 net.cpp:406] BatchNorm6 <- Convolution6
I1001 15:00:41.373837  5332 net.cpp:367] BatchNorm6 -> Convolution6 (in-place)
I1001 15:00:41.373976  5332 net.cpp:122] Setting up BatchNorm6
I1001 15:00:41.373980  5332 net.cpp:129] Top shape: 100 16 32 32 (1638400)
I1001 15:00:41.373983  5332 net.cpp:137] Memory required for data: 197838000
I1001 15:00:41.373987  5332 layer_factory.hpp:77] Creating layer Scale6
I1001 15:00:41.373992  5332 net.cpp:84] Creating Layer Scale6
I1001 15:00:41.373996  5332 net.cpp:406] Scale6 <- Convolution6
I1001 15:00:41.373998  5332 net.cpp:367] Scale6 -> Convolution6 (in-place)
I1001 15:00:41.374025  5332 layer_factory.hpp:77] Creating layer Scale6
I1001 15:00:41.374101  5332 net.cpp:122] Setting up Scale6
I1001 15:00:41.374106  5332 net.cpp:129] Top shape: 100 16 32 32 (1638400)
I1001 15:00:41.374109  5332 net.cpp:137] Memory required for data: 204391600
I1001 15:00:41.374112  5332 layer_factory.hpp:77] Creating layer penlu6
I1001 15:00:41.374117  5332 net.cpp:84] Creating Layer penlu6
I1001 15:00:41.374119  5332 net.cpp:406] penlu6 <- Convolution6
I1001 15:00:41.374124  5332 net.cpp:367] penlu6 -> Convolution6 (in-place)
I1001 15:00:41.374240  5332 net.cpp:122] Setting up penlu6
I1001 15:00:41.374245  5332 net.cpp:129] Top shape: 100 16 32 32 (1638400)
I1001 15:00:41.374248  5332 net.cpp:137] Memory required for data: 210945200
I1001 15:00:41.374253  5332 layer_factory.hpp:77] Creating layer Convolution7
I1001 15:00:41.374258  5332 net.cpp:84] Creating Layer Convolution7
I1001 15:00:41.374260  5332 net.cpp:406] Convolution7 <- Convolution6
I1001 15:00:41.374265  5332 net.cpp:380] Convolution7 -> Convolution7
I1001 15:00:41.375207  5332 net.cpp:122] Setting up Convolution7
I1001 15:00:41.375216  5332 net.cpp:129] Top shape: 100 16 32 32 (1638400)
I1001 15:00:41.375219  5332 net.cpp:137] Memory required for data: 217498800
I1001 15:00:41.375223  5332 layer_factory.hpp:77] Creating layer BatchNorm7
I1001 15:00:41.375236  5332 net.cpp:84] Creating Layer BatchNorm7
I1001 15:00:41.375239  5332 net.cpp:406] BatchNorm7 <- Convolution7
I1001 15:00:41.375243  5332 net.cpp:367] BatchNorm7 -> Convolution7 (in-place)
I1001 15:00:41.375383  5332 net.cpp:122] Setting up BatchNorm7
I1001 15:00:41.375388  5332 net.cpp:129] Top shape: 100 16 32 32 (1638400)
I1001 15:00:41.375391  5332 net.cpp:137] Memory required for data: 224052400
I1001 15:00:41.375401  5332 layer_factory.hpp:77] Creating layer Scale7
I1001 15:00:41.375404  5332 net.cpp:84] Creating Layer Scale7
I1001 15:00:41.375406  5332 net.cpp:406] Scale7 <- Convolution7
I1001 15:00:41.375411  5332 net.cpp:367] Scale7 -> Convolution7 (in-place)
I1001 15:00:41.375438  5332 layer_factory.hpp:77] Creating layer Scale7
I1001 15:00:41.375514  5332 net.cpp:122] Setting up Scale7
I1001 15:00:41.375519  5332 net.cpp:129] Top shape: 100 16 32 32 (1638400)
I1001 15:00:41.375521  5332 net.cpp:137] Memory required for data: 230606000
I1001 15:00:41.375524  5332 layer_factory.hpp:77] Creating layer Eltwise3
I1001 15:00:41.375529  5332 net.cpp:84] Creating Layer Eltwise3
I1001 15:00:41.375530  5332 net.cpp:406] Eltwise3 <- Eltwise2_penlu5_0_split_1
I1001 15:00:41.375533  5332 net.cpp:406] Eltwise3 <- Convolution7
I1001 15:00:41.375537  5332 net.cpp:380] Eltwise3 -> Eltwise3
I1001 15:00:41.375552  5332 net.cpp:122] Setting up Eltwise3
I1001 15:00:41.375556  5332 net.cpp:129] Top shape: 100 16 32 32 (1638400)
I1001 15:00:41.375558  5332 net.cpp:137] Memory required for data: 237159600
I1001 15:00:41.375560  5332 layer_factory.hpp:77] Creating layer penlu7
I1001 15:00:41.375566  5332 net.cpp:84] Creating Layer penlu7
I1001 15:00:41.375567  5332 net.cpp:406] penlu7 <- Eltwise3
I1001 15:00:41.375571  5332 net.cpp:367] penlu7 -> Eltwise3 (in-place)
I1001 15:00:41.375686  5332 net.cpp:122] Setting up penlu7
I1001 15:00:41.375690  5332 net.cpp:129] Top shape: 100 16 32 32 (1638400)
I1001 15:00:41.375692  5332 net.cpp:137] Memory required for data: 243713200
I1001 15:00:41.375696  5332 layer_factory.hpp:77] Creating layer Eltwise3_penlu7_0_split
I1001 15:00:41.375700  5332 net.cpp:84] Creating Layer Eltwise3_penlu7_0_split
I1001 15:00:41.375702  5332 net.cpp:406] Eltwise3_penlu7_0_split <- Eltwise3
I1001 15:00:41.375706  5332 net.cpp:380] Eltwise3_penlu7_0_split -> Eltwise3_penlu7_0_split_0
I1001 15:00:41.375711  5332 net.cpp:380] Eltwise3_penlu7_0_split -> Eltwise3_penlu7_0_split_1
I1001 15:00:41.375733  5332 net.cpp:122] Setting up Eltwise3_penlu7_0_split
I1001 15:00:41.375737  5332 net.cpp:129] Top shape: 100 16 32 32 (1638400)
I1001 15:00:41.375739  5332 net.cpp:129] Top shape: 100 16 32 32 (1638400)
I1001 15:00:41.375741  5332 net.cpp:137] Memory required for data: 256820400
I1001 15:00:41.375743  5332 layer_factory.hpp:77] Creating layer Convolution8
I1001 15:00:41.375749  5332 net.cpp:84] Creating Layer Convolution8
I1001 15:00:41.375752  5332 net.cpp:406] Convolution8 <- Eltwise3_penlu7_0_split_0
I1001 15:00:41.375756  5332 net.cpp:380] Convolution8 -> Convolution8
I1001 15:00:41.376631  5332 net.cpp:122] Setting up Convolution8
I1001 15:00:41.376641  5332 net.cpp:129] Top shape: 100 32 16 16 (819200)
I1001 15:00:41.376642  5332 net.cpp:137] Memory required for data: 260097200
I1001 15:00:41.376647  5332 layer_factory.hpp:77] Creating layer BatchNorm8
I1001 15:00:41.376652  5332 net.cpp:84] Creating Layer BatchNorm8
I1001 15:00:41.376654  5332 net.cpp:406] BatchNorm8 <- Convolution8
I1001 15:00:41.376658  5332 net.cpp:367] BatchNorm8 -> Convolution8 (in-place)
I1001 15:00:41.376790  5332 net.cpp:122] Setting up BatchNorm8
I1001 15:00:41.376793  5332 net.cpp:129] Top shape: 100 32 16 16 (819200)
I1001 15:00:41.376796  5332 net.cpp:137] Memory required for data: 263374000
I1001 15:00:41.376801  5332 layer_factory.hpp:77] Creating layer Scale8
I1001 15:00:41.376806  5332 net.cpp:84] Creating Layer Scale8
I1001 15:00:41.380597  5332 net.cpp:406] Scale8 <- Convolution8
I1001 15:00:41.380606  5332 net.cpp:367] Scale8 -> Convolution8 (in-place)
I1001 15:00:41.380656  5332 layer_factory.hpp:77] Creating layer Scale8
I1001 15:00:41.380786  5332 net.cpp:122] Setting up Scale8
I1001 15:00:41.380795  5332 net.cpp:129] Top shape: 100 32 16 16 (819200)
I1001 15:00:41.380798  5332 net.cpp:137] Memory required for data: 266650800
I1001 15:00:41.380806  5332 layer_factory.hpp:77] Creating layer Convolution9
I1001 15:00:41.380817  5332 net.cpp:84] Creating Layer Convolution9
I1001 15:00:41.380822  5332 net.cpp:406] Convolution9 <- Eltwise3_penlu7_0_split_1
I1001 15:00:41.380831  5332 net.cpp:380] Convolution9 -> Convolution9
I1001 15:00:41.382323  5332 net.cpp:122] Setting up Convolution9
I1001 15:00:41.382333  5332 net.cpp:129] Top shape: 100 32 16 16 (819200)
I1001 15:00:41.382339  5332 net.cpp:137] Memory required for data: 269927600
I1001 15:00:41.382345  5332 layer_factory.hpp:77] Creating layer BatchNorm9
I1001 15:00:41.382352  5332 net.cpp:84] Creating Layer BatchNorm9
I1001 15:00:41.382357  5332 net.cpp:406] BatchNorm9 <- Convolution9
I1001 15:00:41.382362  5332 net.cpp:367] BatchNorm9 -> Convolution9 (in-place)
I1001 15:00:41.382578  5332 net.cpp:122] Setting up BatchNorm9
I1001 15:00:41.382588  5332 net.cpp:129] Top shape: 100 32 16 16 (819200)
I1001 15:00:41.382591  5332 net.cpp:137] Memory required for data: 273204400
I1001 15:00:41.382599  5332 layer_factory.hpp:77] Creating layer Scale9
I1001 15:00:41.382606  5332 net.cpp:84] Creating Layer Scale9
I1001 15:00:41.382609  5332 net.cpp:406] Scale9 <- Convolution9
I1001 15:00:41.382614  5332 net.cpp:367] Scale9 -> Convolution9 (in-place)
I1001 15:00:41.382656  5332 layer_factory.hpp:77] Creating layer Scale9
I1001 15:00:41.382774  5332 net.cpp:122] Setting up Scale9
I1001 15:00:41.382782  5332 net.cpp:129] Top shape: 100 32 16 16 (819200)
I1001 15:00:41.382786  5332 net.cpp:137] Memory required for data: 276481200
I1001 15:00:41.382792  5332 layer_factory.hpp:77] Creating layer penlu8
I1001 15:00:41.382800  5332 net.cpp:84] Creating Layer penlu8
I1001 15:00:41.382804  5332 net.cpp:406] penlu8 <- Convolution9
I1001 15:00:41.382812  5332 net.cpp:367] penlu8 -> Convolution9 (in-place)
I1001 15:00:41.382985  5332 net.cpp:122] Setting up penlu8
I1001 15:00:41.382992  5332 net.cpp:129] Top shape: 100 32 16 16 (819200)
I1001 15:00:41.382994  5332 net.cpp:137] Memory required for data: 279758000
I1001 15:00:41.382999  5332 layer_factory.hpp:77] Creating layer Convolution10
I1001 15:00:41.383008  5332 net.cpp:84] Creating Layer Convolution10
I1001 15:00:41.383010  5332 net.cpp:406] Convolution10 <- Convolution9
I1001 15:00:41.383014  5332 net.cpp:380] Convolution10 -> Convolution10
I1001 15:00:41.384428  5332 net.cpp:122] Setting up Convolution10
I1001 15:00:41.384439  5332 net.cpp:129] Top shape: 100 32 16 16 (819200)
I1001 15:00:41.384443  5332 net.cpp:137] Memory required for data: 283034800
I1001 15:00:41.384449  5332 layer_factory.hpp:77] Creating layer BatchNorm10
I1001 15:00:41.384454  5332 net.cpp:84] Creating Layer BatchNorm10
I1001 15:00:41.384457  5332 net.cpp:406] BatchNorm10 <- Convolution10
I1001 15:00:41.384462  5332 net.cpp:367] BatchNorm10 -> Convolution10 (in-place)
I1001 15:00:41.384661  5332 net.cpp:122] Setting up BatchNorm10
I1001 15:00:41.384668  5332 net.cpp:129] Top shape: 100 32 16 16 (819200)
I1001 15:00:41.384671  5332 net.cpp:137] Memory required for data: 286311600
I1001 15:00:41.384676  5332 layer_factory.hpp:77] Creating layer Scale10
I1001 15:00:41.384682  5332 net.cpp:84] Creating Layer Scale10
I1001 15:00:41.384685  5332 net.cpp:406] Scale10 <- Convolution10
I1001 15:00:41.384688  5332 net.cpp:367] Scale10 -> Convolution10 (in-place)
I1001 15:00:41.384718  5332 layer_factory.hpp:77] Creating layer Scale10
I1001 15:00:41.384806  5332 net.cpp:122] Setting up Scale10
I1001 15:00:41.384810  5332 net.cpp:129] Top shape: 100 32 16 16 (819200)
I1001 15:00:41.384812  5332 net.cpp:137] Memory required for data: 289588400
I1001 15:00:41.384816  5332 layer_factory.hpp:77] Creating layer Eltwise4
I1001 15:00:41.384820  5332 net.cpp:84] Creating Layer Eltwise4
I1001 15:00:41.384824  5332 net.cpp:406] Eltwise4 <- Convolution8
I1001 15:00:41.384826  5332 net.cpp:406] Eltwise4 <- Convolution10
I1001 15:00:41.384837  5332 net.cpp:380] Eltwise4 -> Eltwise4
I1001 15:00:41.384851  5332 net.cpp:122] Setting up Eltwise4
I1001 15:00:41.384856  5332 net.cpp:129] Top shape: 100 32 16 16 (819200)
I1001 15:00:41.384858  5332 net.cpp:137] Memory required for data: 292865200
I1001 15:00:41.384860  5332 layer_factory.hpp:77] Creating layer penlu9
I1001 15:00:41.384865  5332 net.cpp:84] Creating Layer penlu9
I1001 15:00:41.384867  5332 net.cpp:406] penlu9 <- Eltwise4
I1001 15:00:41.384872  5332 net.cpp:367] penlu9 -> Eltwise4 (in-place)
I1001 15:00:41.384987  5332 net.cpp:122] Setting up penlu9
I1001 15:00:41.384991  5332 net.cpp:129] Top shape: 100 32 16 16 (819200)
I1001 15:00:41.384994  5332 net.cpp:137] Memory required for data: 296142000
I1001 15:00:41.384997  5332 layer_factory.hpp:77] Creating layer Eltwise4_penlu9_0_split
I1001 15:00:41.385001  5332 net.cpp:84] Creating Layer Eltwise4_penlu9_0_split
I1001 15:00:41.385004  5332 net.cpp:406] Eltwise4_penlu9_0_split <- Eltwise4
I1001 15:00:41.385006  5332 net.cpp:380] Eltwise4_penlu9_0_split -> Eltwise4_penlu9_0_split_0
I1001 15:00:41.385010  5332 net.cpp:380] Eltwise4_penlu9_0_split -> Eltwise4_penlu9_0_split_1
I1001 15:00:41.385035  5332 net.cpp:122] Setting up Eltwise4_penlu9_0_split
I1001 15:00:41.385038  5332 net.cpp:129] Top shape: 100 32 16 16 (819200)
I1001 15:00:41.385040  5332 net.cpp:129] Top shape: 100 32 16 16 (819200)
I1001 15:00:41.385043  5332 net.cpp:137] Memory required for data: 302695600
I1001 15:00:41.385046  5332 layer_factory.hpp:77] Creating layer Convolution11
I1001 15:00:41.385051  5332 net.cpp:84] Creating Layer Convolution11
I1001 15:00:41.385053  5332 net.cpp:406] Convolution11 <- Eltwise4_penlu9_0_split_0
I1001 15:00:41.385057  5332 net.cpp:380] Convolution11 -> Convolution11
I1001 15:00:41.386137  5332 net.cpp:122] Setting up Convolution11
I1001 15:00:41.386147  5332 net.cpp:129] Top shape: 100 32 16 16 (819200)
I1001 15:00:41.386149  5332 net.cpp:137] Memory required for data: 305972400
I1001 15:00:41.386153  5332 layer_factory.hpp:77] Creating layer BatchNorm11
I1001 15:00:41.386158  5332 net.cpp:84] Creating Layer BatchNorm11
I1001 15:00:41.386162  5332 net.cpp:406] BatchNorm11 <- Convolution11
I1001 15:00:41.386167  5332 net.cpp:367] BatchNorm11 -> Convolution11 (in-place)
I1001 15:00:41.386304  5332 net.cpp:122] Setting up BatchNorm11
I1001 15:00:41.386308  5332 net.cpp:129] Top shape: 100 32 16 16 (819200)
I1001 15:00:41.386310  5332 net.cpp:137] Memory required for data: 309249200
I1001 15:00:41.386315  5332 layer_factory.hpp:77] Creating layer Scale11
I1001 15:00:41.386319  5332 net.cpp:84] Creating Layer Scale11
I1001 15:00:41.386322  5332 net.cpp:406] Scale11 <- Convolution11
I1001 15:00:41.386325  5332 net.cpp:367] Scale11 -> Convolution11 (in-place)
I1001 15:00:41.386353  5332 layer_factory.hpp:77] Creating layer Scale11
I1001 15:00:41.386430  5332 net.cpp:122] Setting up Scale11
I1001 15:00:41.386433  5332 net.cpp:129] Top shape: 100 32 16 16 (819200)
I1001 15:00:41.386435  5332 net.cpp:137] Memory required for data: 312526000
I1001 15:00:41.386440  5332 layer_factory.hpp:77] Creating layer penlu10
I1001 15:00:41.386445  5332 net.cpp:84] Creating Layer penlu10
I1001 15:00:41.386447  5332 net.cpp:406] penlu10 <- Convolution11
I1001 15:00:41.386451  5332 net.cpp:367] penlu10 -> Convolution11 (in-place)
I1001 15:00:41.386582  5332 net.cpp:122] Setting up penlu10
I1001 15:00:41.386589  5332 net.cpp:129] Top shape: 100 32 16 16 (819200)
I1001 15:00:41.386590  5332 net.cpp:137] Memory required for data: 315802800
I1001 15:00:41.386595  5332 layer_factory.hpp:77] Creating layer Convolution12
I1001 15:00:41.386601  5332 net.cpp:84] Creating Layer Convolution12
I1001 15:00:41.386605  5332 net.cpp:406] Convolution12 <- Convolution11
I1001 15:00:41.386610  5332 net.cpp:380] Convolution12 -> Convolution12
I1001 15:00:41.387333  5332 net.cpp:122] Setting up Convolution12
I1001 15:00:41.387341  5332 net.cpp:129] Top shape: 100 32 16 16 (819200)
I1001 15:00:41.387342  5332 net.cpp:137] Memory required for data: 319079600
I1001 15:00:41.387353  5332 layer_factory.hpp:77] Creating layer BatchNorm12
I1001 15:00:41.387359  5332 net.cpp:84] Creating Layer BatchNorm12
I1001 15:00:41.387362  5332 net.cpp:406] BatchNorm12 <- Convolution12
I1001 15:00:41.387364  5332 net.cpp:367] BatchNorm12 -> Convolution12 (in-place)
I1001 15:00:41.387501  5332 net.cpp:122] Setting up BatchNorm12
I1001 15:00:41.387506  5332 net.cpp:129] Top shape: 100 32 16 16 (819200)
I1001 15:00:41.387507  5332 net.cpp:137] Memory required for data: 322356400
I1001 15:00:41.387511  5332 layer_factory.hpp:77] Creating layer Scale12
I1001 15:00:41.387516  5332 net.cpp:84] Creating Layer Scale12
I1001 15:00:41.387519  5332 net.cpp:406] Scale12 <- Convolution12
I1001 15:00:41.387522  5332 net.cpp:367] Scale12 -> Convolution12 (in-place)
I1001 15:00:41.387549  5332 layer_factory.hpp:77] Creating layer Scale12
I1001 15:00:41.387624  5332 net.cpp:122] Setting up Scale12
I1001 15:00:41.387629  5332 net.cpp:129] Top shape: 100 32 16 16 (819200)
I1001 15:00:41.387631  5332 net.cpp:137] Memory required for data: 325633200
I1001 15:00:41.387634  5332 layer_factory.hpp:77] Creating layer Eltwise5
I1001 15:00:41.387639  5332 net.cpp:84] Creating Layer Eltwise5
I1001 15:00:41.387641  5332 net.cpp:406] Eltwise5 <- Eltwise4_penlu9_0_split_1
I1001 15:00:41.387643  5332 net.cpp:406] Eltwise5 <- Convolution12
I1001 15:00:41.387646  5332 net.cpp:380] Eltwise5 -> Eltwise5
I1001 15:00:41.387660  5332 net.cpp:122] Setting up Eltwise5
I1001 15:00:41.387663  5332 net.cpp:129] Top shape: 100 32 16 16 (819200)
I1001 15:00:41.387665  5332 net.cpp:137] Memory required for data: 328910000
I1001 15:00:41.387667  5332 layer_factory.hpp:77] Creating layer penlu11
I1001 15:00:41.387671  5332 net.cpp:84] Creating Layer penlu11
I1001 15:00:41.387675  5332 net.cpp:406] penlu11 <- Eltwise5
I1001 15:00:41.387678  5332 net.cpp:367] penlu11 -> Eltwise5 (in-place)
I1001 15:00:41.387790  5332 net.cpp:122] Setting up penlu11
I1001 15:00:41.387794  5332 net.cpp:129] Top shape: 100 32 16 16 (819200)
I1001 15:00:41.387796  5332 net.cpp:137] Memory required for data: 332186800
I1001 15:00:41.387800  5332 layer_factory.hpp:77] Creating layer Eltwise5_penlu11_0_split
I1001 15:00:41.387804  5332 net.cpp:84] Creating Layer Eltwise5_penlu11_0_split
I1001 15:00:41.387806  5332 net.cpp:406] Eltwise5_penlu11_0_split <- Eltwise5
I1001 15:00:41.387809  5332 net.cpp:380] Eltwise5_penlu11_0_split -> Eltwise5_penlu11_0_split_0
I1001 15:00:41.387812  5332 net.cpp:380] Eltwise5_penlu11_0_split -> Eltwise5_penlu11_0_split_1
I1001 15:00:41.387838  5332 net.cpp:122] Setting up Eltwise5_penlu11_0_split
I1001 15:00:41.387842  5332 net.cpp:129] Top shape: 100 32 16 16 (819200)
I1001 15:00:41.387845  5332 net.cpp:129] Top shape: 100 32 16 16 (819200)
I1001 15:00:41.387848  5332 net.cpp:137] Memory required for data: 338740400
I1001 15:00:41.387850  5332 layer_factory.hpp:77] Creating layer Convolution13
I1001 15:00:41.387856  5332 net.cpp:84] Creating Layer Convolution13
I1001 15:00:41.387858  5332 net.cpp:406] Convolution13 <- Eltwise5_penlu11_0_split_0
I1001 15:00:41.387862  5332 net.cpp:380] Convolution13 -> Convolution13
I1001 15:00:41.388917  5332 net.cpp:122] Setting up Convolution13
I1001 15:00:41.388926  5332 net.cpp:129] Top shape: 100 32 16 16 (819200)
I1001 15:00:41.388928  5332 net.cpp:137] Memory required for data: 342017200
I1001 15:00:41.388933  5332 layer_factory.hpp:77] Creating layer BatchNorm13
I1001 15:00:41.388938  5332 net.cpp:84] Creating Layer BatchNorm13
I1001 15:00:41.388941  5332 net.cpp:406] BatchNorm13 <- Convolution13
I1001 15:00:41.388945  5332 net.cpp:367] BatchNorm13 -> Convolution13 (in-place)
I1001 15:00:41.389077  5332 net.cpp:122] Setting up BatchNorm13
I1001 15:00:41.389081  5332 net.cpp:129] Top shape: 100 32 16 16 (819200)
I1001 15:00:41.389084  5332 net.cpp:137] Memory required for data: 345294000
I1001 15:00:41.389088  5332 layer_factory.hpp:77] Creating layer Scale13
I1001 15:00:41.389092  5332 net.cpp:84] Creating Layer Scale13
I1001 15:00:41.389096  5332 net.cpp:406] Scale13 <- Convolution13
I1001 15:00:41.389106  5332 net.cpp:367] Scale13 -> Convolution13 (in-place)
I1001 15:00:41.389133  5332 layer_factory.hpp:77] Creating layer Scale13
I1001 15:00:41.389214  5332 net.cpp:122] Setting up Scale13
I1001 15:00:41.389217  5332 net.cpp:129] Top shape: 100 32 16 16 (819200)
I1001 15:00:41.389220  5332 net.cpp:137] Memory required for data: 348570800
I1001 15:00:41.389223  5332 layer_factory.hpp:77] Creating layer penlu12
I1001 15:00:41.389228  5332 net.cpp:84] Creating Layer penlu12
I1001 15:00:41.389230  5332 net.cpp:406] penlu12 <- Convolution13
I1001 15:00:41.389235  5332 net.cpp:367] penlu12 -> Convolution13 (in-place)
I1001 15:00:41.389356  5332 net.cpp:122] Setting up penlu12
I1001 15:00:41.389361  5332 net.cpp:129] Top shape: 100 32 16 16 (819200)
I1001 15:00:41.389364  5332 net.cpp:137] Memory required for data: 351847600
I1001 15:00:41.389367  5332 layer_factory.hpp:77] Creating layer Convolution14
I1001 15:00:41.389377  5332 net.cpp:84] Creating Layer Convolution14
I1001 15:00:41.389380  5332 net.cpp:406] Convolution14 <- Convolution13
I1001 15:00:41.389384  5332 net.cpp:380] Convolution14 -> Convolution14
I1001 15:00:41.390460  5332 net.cpp:122] Setting up Convolution14
I1001 15:00:41.390470  5332 net.cpp:129] Top shape: 100 32 16 16 (819200)
I1001 15:00:41.390472  5332 net.cpp:137] Memory required for data: 355124400
I1001 15:00:41.390486  5332 layer_factory.hpp:77] Creating layer BatchNorm14
I1001 15:00:41.390491  5332 net.cpp:84] Creating Layer BatchNorm14
I1001 15:00:41.390494  5332 net.cpp:406] BatchNorm14 <- Convolution14
I1001 15:00:41.390498  5332 net.cpp:367] BatchNorm14 -> Convolution14 (in-place)
I1001 15:00:41.390645  5332 net.cpp:122] Setting up BatchNorm14
I1001 15:00:41.390651  5332 net.cpp:129] Top shape: 100 32 16 16 (819200)
I1001 15:00:41.390653  5332 net.cpp:137] Memory required for data: 358401200
I1001 15:00:41.390658  5332 layer_factory.hpp:77] Creating layer Scale14
I1001 15:00:41.390663  5332 net.cpp:84] Creating Layer Scale14
I1001 15:00:41.390666  5332 net.cpp:406] Scale14 <- Convolution14
I1001 15:00:41.390669  5332 net.cpp:367] Scale14 -> Convolution14 (in-place)
I1001 15:00:41.390697  5332 layer_factory.hpp:77] Creating layer Scale14
I1001 15:00:41.390803  5332 net.cpp:122] Setting up Scale14
I1001 15:00:41.390808  5332 net.cpp:129] Top shape: 100 32 16 16 (819200)
I1001 15:00:41.390810  5332 net.cpp:137] Memory required for data: 361678000
I1001 15:00:41.390815  5332 layer_factory.hpp:77] Creating layer Eltwise6
I1001 15:00:41.390818  5332 net.cpp:84] Creating Layer Eltwise6
I1001 15:00:41.390821  5332 net.cpp:406] Eltwise6 <- Eltwise5_penlu11_0_split_1
I1001 15:00:41.390825  5332 net.cpp:406] Eltwise6 <- Convolution14
I1001 15:00:41.390827  5332 net.cpp:380] Eltwise6 -> Eltwise6
I1001 15:00:41.390841  5332 net.cpp:122] Setting up Eltwise6
I1001 15:00:41.390846  5332 net.cpp:129] Top shape: 100 32 16 16 (819200)
I1001 15:00:41.390847  5332 net.cpp:137] Memory required for data: 364954800
I1001 15:00:41.390849  5332 layer_factory.hpp:77] Creating layer penlu13
I1001 15:00:41.390853  5332 net.cpp:84] Creating Layer penlu13
I1001 15:00:41.390856  5332 net.cpp:406] penlu13 <- Eltwise6
I1001 15:00:41.390861  5332 net.cpp:367] penlu13 -> Eltwise6 (in-place)
I1001 15:00:41.390974  5332 net.cpp:122] Setting up penlu13
I1001 15:00:41.390977  5332 net.cpp:129] Top shape: 100 32 16 16 (819200)
I1001 15:00:41.390980  5332 net.cpp:137] Memory required for data: 368231600
I1001 15:00:41.390983  5332 layer_factory.hpp:77] Creating layer Eltwise6_penlu13_0_split
I1001 15:00:41.390986  5332 net.cpp:84] Creating Layer Eltwise6_penlu13_0_split
I1001 15:00:41.390990  5332 net.cpp:406] Eltwise6_penlu13_0_split <- Eltwise6
I1001 15:00:41.390992  5332 net.cpp:380] Eltwise6_penlu13_0_split -> Eltwise6_penlu13_0_split_0
I1001 15:00:41.410743  5332 net.cpp:380] Eltwise6_penlu13_0_split -> Eltwise6_penlu13_0_split_1
I1001 15:00:41.410797  5332 net.cpp:122] Setting up Eltwise6_penlu13_0_split
I1001 15:00:41.410805  5332 net.cpp:129] Top shape: 100 32 16 16 (819200)
I1001 15:00:41.410811  5332 net.cpp:129] Top shape: 100 32 16 16 (819200)
I1001 15:00:41.410825  5332 net.cpp:137] Memory required for data: 374785200
I1001 15:00:41.410828  5332 layer_factory.hpp:77] Creating layer Convolution15
I1001 15:00:41.410842  5332 net.cpp:84] Creating Layer Convolution15
I1001 15:00:41.410847  5332 net.cpp:406] Convolution15 <- Eltwise6_penlu13_0_split_0
I1001 15:00:41.410854  5332 net.cpp:380] Convolution15 -> Convolution15
I1001 15:00:41.412266  5332 net.cpp:122] Setting up Convolution15
I1001 15:00:41.412277  5332 net.cpp:129] Top shape: 100 64 8 8 (409600)
I1001 15:00:41.412282  5332 net.cpp:137] Memory required for data: 376423600
I1001 15:00:41.412289  5332 layer_factory.hpp:77] Creating layer BatchNorm15
I1001 15:00:41.412297  5332 net.cpp:84] Creating Layer BatchNorm15
I1001 15:00:41.412302  5332 net.cpp:406] BatchNorm15 <- Convolution15
I1001 15:00:41.412308  5332 net.cpp:367] BatchNorm15 -> Convolution15 (in-place)
I1001 15:00:41.412513  5332 net.cpp:122] Setting up BatchNorm15
I1001 15:00:41.412520  5332 net.cpp:129] Top shape: 100 64 8 8 (409600)
I1001 15:00:41.412524  5332 net.cpp:137] Memory required for data: 378062000
I1001 15:00:41.412533  5332 layer_factory.hpp:77] Creating layer Scale15
I1001 15:00:41.412539  5332 net.cpp:84] Creating Layer Scale15
I1001 15:00:41.412544  5332 net.cpp:406] Scale15 <- Convolution15
I1001 15:00:41.412549  5332 net.cpp:367] Scale15 -> Convolution15 (in-place)
I1001 15:00:41.412591  5332 layer_factory.hpp:77] Creating layer Scale15
I1001 15:00:41.412719  5332 net.cpp:122] Setting up Scale15
I1001 15:00:41.412729  5332 net.cpp:129] Top shape: 100 64 8 8 (409600)
I1001 15:00:41.412732  5332 net.cpp:137] Memory required for data: 379700400
I1001 15:00:41.412739  5332 layer_factory.hpp:77] Creating layer Convolution16
I1001 15:00:41.412750  5332 net.cpp:84] Creating Layer Convolution16
I1001 15:00:41.412755  5332 net.cpp:406] Convolution16 <- Eltwise6_penlu13_0_split_1
I1001 15:00:41.412762  5332 net.cpp:380] Convolution16 -> Convolution16
I1001 15:00:41.414573  5332 net.cpp:122] Setting up Convolution16
I1001 15:00:41.414583  5332 net.cpp:129] Top shape: 100 64 8 8 (409600)
I1001 15:00:41.414587  5332 net.cpp:137] Memory required for data: 381338800
I1001 15:00:41.414592  5332 layer_factory.hpp:77] Creating layer BatchNorm16
I1001 15:00:41.414597  5332 net.cpp:84] Creating Layer BatchNorm16
I1001 15:00:41.414600  5332 net.cpp:406] BatchNorm16 <- Convolution16
I1001 15:00:41.414604  5332 net.cpp:367] BatchNorm16 -> Convolution16 (in-place)
I1001 15:00:41.414759  5332 net.cpp:122] Setting up BatchNorm16
I1001 15:00:41.414764  5332 net.cpp:129] Top shape: 100 64 8 8 (409600)
I1001 15:00:41.414767  5332 net.cpp:137] Memory required for data: 382977200
I1001 15:00:41.414772  5332 layer_factory.hpp:77] Creating layer Scale16
I1001 15:00:41.414775  5332 net.cpp:84] Creating Layer Scale16
I1001 15:00:41.414777  5332 net.cpp:406] Scale16 <- Convolution16
I1001 15:00:41.414780  5332 net.cpp:367] Scale16 -> Convolution16 (in-place)
I1001 15:00:41.414808  5332 layer_factory.hpp:77] Creating layer Scale16
I1001 15:00:41.414890  5332 net.cpp:122] Setting up Scale16
I1001 15:00:41.414894  5332 net.cpp:129] Top shape: 100 64 8 8 (409600)
I1001 15:00:41.414896  5332 net.cpp:137] Memory required for data: 384615600
I1001 15:00:41.414901  5332 layer_factory.hpp:77] Creating layer penlu14
I1001 15:00:41.414906  5332 net.cpp:84] Creating Layer penlu14
I1001 15:00:41.414908  5332 net.cpp:406] penlu14 <- Convolution16
I1001 15:00:41.414911  5332 net.cpp:367] penlu14 -> Convolution16 (in-place)
I1001 15:00:41.415024  5332 net.cpp:122] Setting up penlu14
I1001 15:00:41.415030  5332 net.cpp:129] Top shape: 100 64 8 8 (409600)
I1001 15:00:41.415031  5332 net.cpp:137] Memory required for data: 386254000
I1001 15:00:41.415035  5332 layer_factory.hpp:77] Creating layer Convolution17
I1001 15:00:41.415043  5332 net.cpp:84] Creating Layer Convolution17
I1001 15:00:41.415046  5332 net.cpp:406] Convolution17 <- Convolution16
I1001 15:00:41.415050  5332 net.cpp:380] Convolution17 -> Convolution17
I1001 15:00:41.416837  5332 net.cpp:122] Setting up Convolution17
I1001 15:00:41.416846  5332 net.cpp:129] Top shape: 100 64 8 8 (409600)
I1001 15:00:41.416848  5332 net.cpp:137] Memory required for data: 387892400
I1001 15:00:41.416853  5332 layer_factory.hpp:77] Creating layer BatchNorm17
I1001 15:00:41.416858  5332 net.cpp:84] Creating Layer BatchNorm17
I1001 15:00:41.416862  5332 net.cpp:406] BatchNorm17 <- Convolution17
I1001 15:00:41.416865  5332 net.cpp:367] BatchNorm17 -> Convolution17 (in-place)
I1001 15:00:41.417008  5332 net.cpp:122] Setting up BatchNorm17
I1001 15:00:41.417013  5332 net.cpp:129] Top shape: 100 64 8 8 (409600)
I1001 15:00:41.417016  5332 net.cpp:137] Memory required for data: 389530800
I1001 15:00:41.417019  5332 layer_factory.hpp:77] Creating layer Scale17
I1001 15:00:41.417024  5332 net.cpp:84] Creating Layer Scale17
I1001 15:00:41.417027  5332 net.cpp:406] Scale17 <- Convolution17
I1001 15:00:41.417031  5332 net.cpp:367] Scale17 -> Convolution17 (in-place)
I1001 15:00:41.417058  5332 layer_factory.hpp:77] Creating layer Scale17
I1001 15:00:41.417141  5332 net.cpp:122] Setting up Scale17
I1001 15:00:41.417146  5332 net.cpp:129] Top shape: 100 64 8 8 (409600)
I1001 15:00:41.417148  5332 net.cpp:137] Memory required for data: 391169200
I1001 15:00:41.417151  5332 layer_factory.hpp:77] Creating layer Eltwise7
I1001 15:00:41.417156  5332 net.cpp:84] Creating Layer Eltwise7
I1001 15:00:41.417160  5332 net.cpp:406] Eltwise7 <- Convolution15
I1001 15:00:41.417161  5332 net.cpp:406] Eltwise7 <- Convolution17
I1001 15:00:41.417165  5332 net.cpp:380] Eltwise7 -> Eltwise7
I1001 15:00:41.417182  5332 net.cpp:122] Setting up Eltwise7
I1001 15:00:41.417186  5332 net.cpp:129] Top shape: 100 64 8 8 (409600)
I1001 15:00:41.417188  5332 net.cpp:137] Memory required for data: 392807600
I1001 15:00:41.417191  5332 layer_factory.hpp:77] Creating layer penlu15
I1001 15:00:41.417196  5332 net.cpp:84] Creating Layer penlu15
I1001 15:00:41.417197  5332 net.cpp:406] penlu15 <- Eltwise7
I1001 15:00:41.417201  5332 net.cpp:367] penlu15 -> Eltwise7 (in-place)
I1001 15:00:41.417315  5332 net.cpp:122] Setting up penlu15
I1001 15:00:41.417318  5332 net.cpp:129] Top shape: 100 64 8 8 (409600)
I1001 15:00:41.417320  5332 net.cpp:137] Memory required for data: 394446000
I1001 15:00:41.417325  5332 layer_factory.hpp:77] Creating layer Eltwise7_penlu15_0_split
I1001 15:00:41.417328  5332 net.cpp:84] Creating Layer Eltwise7_penlu15_0_split
I1001 15:00:41.417330  5332 net.cpp:406] Eltwise7_penlu15_0_split <- Eltwise7
I1001 15:00:41.417335  5332 net.cpp:380] Eltwise7_penlu15_0_split -> Eltwise7_penlu15_0_split_0
I1001 15:00:41.417338  5332 net.cpp:380] Eltwise7_penlu15_0_split -> Eltwise7_penlu15_0_split_1
I1001 15:00:41.417363  5332 net.cpp:122] Setting up Eltwise7_penlu15_0_split
I1001 15:00:41.417368  5332 net.cpp:129] Top shape: 100 64 8 8 (409600)
I1001 15:00:41.417371  5332 net.cpp:129] Top shape: 100 64 8 8 (409600)
I1001 15:00:41.417372  5332 net.cpp:137] Memory required for data: 397722800
I1001 15:00:41.417376  5332 layer_factory.hpp:77] Creating layer Convolution18
I1001 15:00:41.417382  5332 net.cpp:84] Creating Layer Convolution18
I1001 15:00:41.417384  5332 net.cpp:406] Convolution18 <- Eltwise7_penlu15_0_split_0
I1001 15:00:41.417388  5332 net.cpp:380] Convolution18 -> Convolution18
I1001 15:00:41.419085  5332 net.cpp:122] Setting up Convolution18
I1001 15:00:41.419093  5332 net.cpp:129] Top shape: 100 64 8 8 (409600)
I1001 15:00:41.419096  5332 net.cpp:137] Memory required for data: 399361200
I1001 15:00:41.419100  5332 layer_factory.hpp:77] Creating layer BatchNorm18
I1001 15:00:41.419106  5332 net.cpp:84] Creating Layer BatchNorm18
I1001 15:00:41.419108  5332 net.cpp:406] BatchNorm18 <- Convolution18
I1001 15:00:41.419113  5332 net.cpp:367] BatchNorm18 -> Convolution18 (in-place)
I1001 15:00:41.419253  5332 net.cpp:122] Setting up BatchNorm18
I1001 15:00:41.419258  5332 net.cpp:129] Top shape: 100 64 8 8 (409600)
I1001 15:00:41.419260  5332 net.cpp:137] Memory required for data: 400999600
I1001 15:00:41.419265  5332 layer_factory.hpp:77] Creating layer Scale18
I1001 15:00:41.419276  5332 net.cpp:84] Creating Layer Scale18
I1001 15:00:41.419279  5332 net.cpp:406] Scale18 <- Convolution18
I1001 15:00:41.419282  5332 net.cpp:367] Scale18 -> Convolution18 (in-place)
I1001 15:00:41.419312  5332 layer_factory.hpp:77] Creating layer Scale18
I1001 15:00:41.419391  5332 net.cpp:122] Setting up Scale18
I1001 15:00:41.419395  5332 net.cpp:129] Top shape: 100 64 8 8 (409600)
I1001 15:00:41.419397  5332 net.cpp:137] Memory required for data: 402638000
I1001 15:00:41.419401  5332 layer_factory.hpp:77] Creating layer penlu16
I1001 15:00:41.419406  5332 net.cpp:84] Creating Layer penlu16
I1001 15:00:41.419409  5332 net.cpp:406] penlu16 <- Convolution18
I1001 15:00:41.419414  5332 net.cpp:367] penlu16 -> Convolution18 (in-place)
I1001 15:00:41.419523  5332 net.cpp:122] Setting up penlu16
I1001 15:00:41.419528  5332 net.cpp:129] Top shape: 100 64 8 8 (409600)
I1001 15:00:41.419529  5332 net.cpp:137] Memory required for data: 404276400
I1001 15:00:41.419533  5332 layer_factory.hpp:77] Creating layer Convolution19
I1001 15:00:41.419539  5332 net.cpp:84] Creating Layer Convolution19
I1001 15:00:41.419543  5332 net.cpp:406] Convolution19 <- Convolution18
I1001 15:00:41.419545  5332 net.cpp:380] Convolution19 -> Convolution19
I1001 15:00:41.421239  5332 net.cpp:122] Setting up Convolution19
I1001 15:00:41.421248  5332 net.cpp:129] Top shape: 100 64 8 8 (409600)
I1001 15:00:41.421250  5332 net.cpp:137] Memory required for data: 405914800
I1001 15:00:41.421255  5332 layer_factory.hpp:77] Creating layer BatchNorm19
I1001 15:00:41.421260  5332 net.cpp:84] Creating Layer BatchNorm19
I1001 15:00:41.421262  5332 net.cpp:406] BatchNorm19 <- Convolution19
I1001 15:00:41.421267  5332 net.cpp:367] BatchNorm19 -> Convolution19 (in-place)
I1001 15:00:41.421406  5332 net.cpp:122] Setting up BatchNorm19
I1001 15:00:41.421411  5332 net.cpp:129] Top shape: 100 64 8 8 (409600)
I1001 15:00:41.421412  5332 net.cpp:137] Memory required for data: 407553200
I1001 15:00:41.421416  5332 layer_factory.hpp:77] Creating layer Scale19
I1001 15:00:41.421422  5332 net.cpp:84] Creating Layer Scale19
I1001 15:00:41.421423  5332 net.cpp:406] Scale19 <- Convolution19
I1001 15:00:41.421427  5332 net.cpp:367] Scale19 -> Convolution19 (in-place)
I1001 15:00:41.421454  5332 layer_factory.hpp:77] Creating layer Scale19
I1001 15:00:41.421536  5332 net.cpp:122] Setting up Scale19
I1001 15:00:41.421540  5332 net.cpp:129] Top shape: 100 64 8 8 (409600)
I1001 15:00:41.421542  5332 net.cpp:137] Memory required for data: 409191600
I1001 15:00:41.421546  5332 layer_factory.hpp:77] Creating layer Eltwise8
I1001 15:00:41.421550  5332 net.cpp:84] Creating Layer Eltwise8
I1001 15:00:41.421553  5332 net.cpp:406] Eltwise8 <- Eltwise7_penlu15_0_split_1
I1001 15:00:41.421556  5332 net.cpp:406] Eltwise8 <- Convolution19
I1001 15:00:41.421560  5332 net.cpp:380] Eltwise8 -> Eltwise8
I1001 15:00:41.421577  5332 net.cpp:122] Setting up Eltwise8
I1001 15:00:41.421581  5332 net.cpp:129] Top shape: 100 64 8 8 (409600)
I1001 15:00:41.421582  5332 net.cpp:137] Memory required for data: 410830000
I1001 15:00:41.421584  5332 layer_factory.hpp:77] Creating layer penlu17
I1001 15:00:41.421589  5332 net.cpp:84] Creating Layer penlu17
I1001 15:00:41.421592  5332 net.cpp:406] penlu17 <- Eltwise8
I1001 15:00:41.421596  5332 net.cpp:367] penlu17 -> Eltwise8 (in-place)
I1001 15:00:41.421717  5332 net.cpp:122] Setting up penlu17
I1001 15:00:41.421722  5332 net.cpp:129] Top shape: 100 64 8 8 (409600)
I1001 15:00:41.421725  5332 net.cpp:137] Memory required for data: 412468400
I1001 15:00:41.421737  5332 layer_factory.hpp:77] Creating layer Eltwise8_penlu17_0_split
I1001 15:00:41.421741  5332 net.cpp:84] Creating Layer Eltwise8_penlu17_0_split
I1001 15:00:41.421743  5332 net.cpp:406] Eltwise8_penlu17_0_split <- Eltwise8
I1001 15:00:41.421746  5332 net.cpp:380] Eltwise8_penlu17_0_split -> Eltwise8_penlu17_0_split_0
I1001 15:00:41.421751  5332 net.cpp:380] Eltwise8_penlu17_0_split -> Eltwise8_penlu17_0_split_1
I1001 15:00:41.421774  5332 net.cpp:122] Setting up Eltwise8_penlu17_0_split
I1001 15:00:41.421784  5332 net.cpp:129] Top shape: 100 64 8 8 (409600)
I1001 15:00:41.421787  5332 net.cpp:129] Top shape: 100 64 8 8 (409600)
I1001 15:00:41.421789  5332 net.cpp:137] Memory required for data: 415745200
I1001 15:00:41.421792  5332 layer_factory.hpp:77] Creating layer Convolution20
I1001 15:00:41.421797  5332 net.cpp:84] Creating Layer Convolution20
I1001 15:00:41.421800  5332 net.cpp:406] Convolution20 <- Eltwise8_penlu17_0_split_0
I1001 15:00:41.421804  5332 net.cpp:380] Convolution20 -> Convolution20
I1001 15:00:41.423794  5332 net.cpp:122] Setting up Convolution20
I1001 15:00:41.423804  5332 net.cpp:129] Top shape: 100 64 8 8 (409600)
I1001 15:00:41.423806  5332 net.cpp:137] Memory required for data: 417383600
I1001 15:00:41.423811  5332 layer_factory.hpp:77] Creating layer BatchNorm20
I1001 15:00:41.423816  5332 net.cpp:84] Creating Layer BatchNorm20
I1001 15:00:41.423818  5332 net.cpp:406] BatchNorm20 <- Convolution20
I1001 15:00:41.423822  5332 net.cpp:367] BatchNorm20 -> Convolution20 (in-place)
I1001 15:00:41.423985  5332 net.cpp:122] Setting up BatchNorm20
I1001 15:00:41.423990  5332 net.cpp:129] Top shape: 100 64 8 8 (409600)
I1001 15:00:41.423992  5332 net.cpp:137] Memory required for data: 419022000
I1001 15:00:41.423996  5332 layer_factory.hpp:77] Creating layer Scale20
I1001 15:00:41.424001  5332 net.cpp:84] Creating Layer Scale20
I1001 15:00:41.424005  5332 net.cpp:406] Scale20 <- Convolution20
I1001 15:00:41.424007  5332 net.cpp:367] Scale20 -> Convolution20 (in-place)
I1001 15:00:41.424036  5332 layer_factory.hpp:77] Creating layer Scale20
I1001 15:00:41.424118  5332 net.cpp:122] Setting up Scale20
I1001 15:00:41.424121  5332 net.cpp:129] Top shape: 100 64 8 8 (409600)
I1001 15:00:41.424124  5332 net.cpp:137] Memory required for data: 420660400
I1001 15:00:41.424127  5332 layer_factory.hpp:77] Creating layer penlu18
I1001 15:00:41.424132  5332 net.cpp:84] Creating Layer penlu18
I1001 15:00:41.424135  5332 net.cpp:406] penlu18 <- Convolution20
I1001 15:00:41.424139  5332 net.cpp:367] penlu18 -> Convolution20 (in-place)
I1001 15:00:41.424249  5332 net.cpp:122] Setting up penlu18
I1001 15:00:41.424254  5332 net.cpp:129] Top shape: 100 64 8 8 (409600)
I1001 15:00:41.424257  5332 net.cpp:137] Memory required for data: 422298800
I1001 15:00:41.424260  5332 layer_factory.hpp:77] Creating layer Convolution21
I1001 15:00:41.424266  5332 net.cpp:84] Creating Layer Convolution21
I1001 15:00:41.424269  5332 net.cpp:406] Convolution21 <- Convolution20
I1001 15:00:41.424273  5332 net.cpp:380] Convolution21 -> Convolution21
I1001 15:00:41.426264  5332 net.cpp:122] Setting up Convolution21
I1001 15:00:41.426272  5332 net.cpp:129] Top shape: 100 64 8 8 (409600)
I1001 15:00:41.426275  5332 net.cpp:137] Memory required for data: 423937200
I1001 15:00:41.426280  5332 layer_factory.hpp:77] Creating layer BatchNorm21
I1001 15:00:41.426283  5332 net.cpp:84] Creating Layer BatchNorm21
I1001 15:00:41.426286  5332 net.cpp:406] BatchNorm21 <- Convolution21
I1001 15:00:41.426290  5332 net.cpp:367] BatchNorm21 -> Convolution21 (in-place)
I1001 15:00:41.426430  5332 net.cpp:122] Setting up BatchNorm21
I1001 15:00:41.426434  5332 net.cpp:129] Top shape: 100 64 8 8 (409600)
I1001 15:00:41.426436  5332 net.cpp:137] Memory required for data: 425575600
I1001 15:00:41.426441  5332 layer_factory.hpp:77] Creating layer Scale21
I1001 15:00:41.426445  5332 net.cpp:84] Creating Layer Scale21
I1001 15:00:41.426447  5332 net.cpp:406] Scale21 <- Convolution21
I1001 15:00:41.426451  5332 net.cpp:367] Scale21 -> Convolution21 (in-place)
I1001 15:00:41.441627  5332 layer_factory.hpp:77] Creating layer Scale21
I1001 15:00:41.441763  5332 net.cpp:122] Setting up Scale21
I1001 15:00:41.441772  5332 net.cpp:129] Top shape: 100 64 8 8 (409600)
I1001 15:00:41.441776  5332 net.cpp:137] Memory required for data: 427214000
I1001 15:00:41.441784  5332 layer_factory.hpp:77] Creating layer Eltwise9
I1001 15:00:41.441792  5332 net.cpp:84] Creating Layer Eltwise9
I1001 15:00:41.441797  5332 net.cpp:406] Eltwise9 <- Eltwise8_penlu17_0_split_1
I1001 15:00:41.441812  5332 net.cpp:406] Eltwise9 <- Convolution21
I1001 15:00:41.441819  5332 net.cpp:380] Eltwise9 -> Eltwise9
I1001 15:00:41.441848  5332 net.cpp:122] Setting up Eltwise9
I1001 15:00:41.441855  5332 net.cpp:129] Top shape: 100 64 8 8 (409600)
I1001 15:00:41.441859  5332 net.cpp:137] Memory required for data: 428852400
I1001 15:00:41.441864  5332 layer_factory.hpp:77] Creating layer penlu19
I1001 15:00:41.441871  5332 net.cpp:84] Creating Layer penlu19
I1001 15:00:41.441875  5332 net.cpp:406] penlu19 <- Eltwise9
I1001 15:00:41.441884  5332 net.cpp:367] penlu19 -> Eltwise9 (in-place)
I1001 15:00:41.442066  5332 net.cpp:122] Setting up penlu19
I1001 15:00:41.442075  5332 net.cpp:129] Top shape: 100 64 8 8 (409600)
I1001 15:00:41.442078  5332 net.cpp:137] Memory required for data: 430490800
I1001 15:00:41.442087  5332 layer_factory.hpp:77] Creating layer Pooling1
I1001 15:00:41.442095  5332 net.cpp:84] Creating Layer Pooling1
I1001 15:00:41.442098  5332 net.cpp:406] Pooling1 <- Eltwise9
I1001 15:00:41.442104  5332 net.cpp:380] Pooling1 -> Pooling1
I1001 15:00:41.442315  5332 net.cpp:122] Setting up Pooling1
I1001 15:00:41.442325  5332 net.cpp:129] Top shape: 100 64 1 1 (6400)
I1001 15:00:41.442329  5332 net.cpp:137] Memory required for data: 430516400
I1001 15:00:41.442334  5332 layer_factory.hpp:77] Creating layer InnerProduct1
I1001 15:00:41.442343  5332 net.cpp:84] Creating Layer InnerProduct1
I1001 15:00:41.442348  5332 net.cpp:406] InnerProduct1 <- Pooling1
I1001 15:00:41.442354  5332 net.cpp:380] InnerProduct1 -> InnerProduct1
I1001 15:00:41.442502  5332 net.cpp:122] Setting up InnerProduct1
I1001 15:00:41.442510  5332 net.cpp:129] Top shape: 100 10 (1000)
I1001 15:00:41.442514  5332 net.cpp:137] Memory required for data: 430520400
I1001 15:00:41.442530  5332 layer_factory.hpp:77] Creating layer InnerProduct1_InnerProduct1_0_split
I1001 15:00:41.442538  5332 net.cpp:84] Creating Layer InnerProduct1_InnerProduct1_0_split
I1001 15:00:41.442543  5332 net.cpp:406] InnerProduct1_InnerProduct1_0_split <- InnerProduct1
I1001 15:00:41.442550  5332 net.cpp:380] InnerProduct1_InnerProduct1_0_split -> InnerProduct1_InnerProduct1_0_split_0
I1001 15:00:41.442558  5332 net.cpp:380] InnerProduct1_InnerProduct1_0_split -> InnerProduct1_InnerProduct1_0_split_1
I1001 15:00:41.442603  5332 net.cpp:122] Setting up InnerProduct1_InnerProduct1_0_split
I1001 15:00:41.442612  5332 net.cpp:129] Top shape: 100 10 (1000)
I1001 15:00:41.442617  5332 net.cpp:129] Top shape: 100 10 (1000)
I1001 15:00:41.442621  5332 net.cpp:137] Memory required for data: 430528400
I1001 15:00:41.442625  5332 layer_factory.hpp:77] Creating layer SoftmaxWithLoss1
I1001 15:00:41.442632  5332 net.cpp:84] Creating Layer SoftmaxWithLoss1
I1001 15:00:41.442636  5332 net.cpp:406] SoftmaxWithLoss1 <- InnerProduct1_InnerProduct1_0_split_0
I1001 15:00:41.442642  5332 net.cpp:406] SoftmaxWithLoss1 <- Data2_Data1_1_split_0
…
