…
I1001 09:18:31.182799  4916 net.cpp:294] The NetState phase (0) differed from the phase (1) specified by a rule in layer Accuracy1
I1001 09:18:31.183154  4916 net.cpp:51] Initializing net from parameters: 
name: "resnet_cifar10"
state {
  phase: TRAIN
  level: 0
  stage: ""
}
layer {
  name: "Data1"
  type: "Data"
  top: "Data1"
  top: "Data2"
  include {
    phase: TRAIN
  }
  transform_param {
    mirror: true
    crop_size: 28
    mean_file: "/home/x306/caffe/xn/PENLU/data/cifar10/mean.binaryproto"
  }
  data_param {
    source: "/home/x306/caffe/xn/PENLU/data/cifar10/cifar10_train_lmdb"
    batch_size: 100
    backend: LMDB
  }
}
layer {
  name: "Convolution1"
  type: "Convolution"
  bottom: "Data1"
  top: "Convolution1"
  param {
    lr_mult: 1
    decay_mult: 1
  }
  param {
    lr_mult: 2
    decay_mult: 0
  }
  convolution_param {
    num_output: 16
    pad: 1
    kernel_size: 3
    stride: 1
    weight_filler {
      type: "gaussian"
      std: 0.118
    }
    bias_filler {
      type: "constant"
      value: 0
    }
  }
}
layer {
  name: "BatchNorm1"
  type: "BatchNorm"
  bottom: "Convolution1"
  top: "Convolution1"
  param {
    lr_mult: 0
    decay_mult: 0
  }
  param {
    lr_mult: 0
    decay_mult: 0
  }
  param {
    lr_mult: 0
    decay_mult: 0
  }
}
layer {
  name: "Scale1"
  type: "Scale"
  bottom: "Convolution1"
  top: "Convolution1"
  scale_param {
    bias_term: true
  }
}
layer {
  name: "ReLU1"
  type: "ReLU"
  bottom: "Convolution1"
  top: "Convolution1"
}
layer {
  name: "Convolution2"
  type: "Convolution"
  bottom: "Convolution1"
  top: "Convolution2"
  param {
    lr_mult: 1
    decay_mult: 1
  }
  param {
    lr_mult: 2
    decay_mult: 0
  }
  convolution_param {
    num_output: 16
    pad: 1
    kernel_size: 3
    stride: 1
    weight_filler {
      type: "gaussian"
      std: 0.118
    }
    bias_filler {
      type: "constant"
      value: 0
    }
  }
}
layer {
  name: "BatchNorm2"
  type: "BatchNorm"
  bottom: "Convolution2"
  top: "Convolution2"
  param {
    lr_mult: 0
    decay_mult: 0
  }
  param {
    lr_mult: 0
    decay_mult: 0
  }
  param {
    lr_mult: 0
    decay_mult: 0
  }
}
layer {
  name: "Scale2"
  type: "Scale"
  bottom: "Convolution2"
  top: "Convolution2"
  scale_param {
    bias_term: true
  }
}
layer {
  name: "ReLU2"
  type: "ReLU"
  bottom: "Convolution2"
  top: "Convolution2"
}
layer {
  name: "Convolution3"
  type: "Convolution"
  bottom: "Convolution2"
  top: "Convolution3"
  param {
    lr_mult: 1
    decay_mult: 1
  }
  param {
    lr_mult: 2
    decay_mult: 0
  }
  convolution_param {
    num_output: 16
    pad: 1
    kernel_size: 3
    stride: 1
    weight_filler {
      type: "gaussian"
      std: 0.118
    }
    bias_filler {
      type: "constant"
      value: 0
    }
  }
}
layer {
  name: "BatchNorm3"
  type: "BatchNorm"
  bottom: "Convolution3"
  top: "Convolution3"
  param {
    lr_mult: 0
    decay_mult: 0
  }
  param {
    lr_mult: 0
    decay_mult: 0
  }
  param {
    lr_mult: 0
    decay_mult: 0
  }
}
layer {
  name: "Scale3"
  type: "Scale"
  bottom: "Convolution3"
  top: "Convolution3"
  scale_param {
    bias_term: true
  }
}
layer {
  name: "Eltwise1"
  type: "Eltwise"
  bottom: "Convolution1"
  bottom: "Convolution3"
  top: "Eltwise1"
  eltwise_param {
    operation: SUM
  }
}
layer {
  name: "ReLU3"
  type: "ReLU"
  bottom: "Eltwise1"
  top: "Eltwise1"
}
layer {
  name: "Convolution4"
  type: "Convolution"
  bottom: "Eltwise1"
  top: "Convolution4"
  param {
    lr_mult: 1
    decay_mult: 1
  }
  param {
    lr_mult: 2
    decay_mult: 0
  }
  convolution_param {
    num_output: 16
    pad: 1
    kernel_size: 3
    stride: 1
    weight_filler {
      type: "gaussian"
      std: 0.118
    }
    bias_filler {
      type: "constant"
      value: 0
    }
  }
}
layer {
  name: "BatchNorm4"
  type: "BatchNorm"
  bottom: "Convolution4"
  top: "Convolution4"
  param {
    lr_mult: 0
    decay_mult: 0
  }
  param {
    lr_mult: 0
    decay_mult: 0
  }
  param {
    lr_mult: 0
    decay_mult: 0
  }
}
layer {
  name: "Scale4"
  type: "Scale"
  bottom: "Convolution4"
  top: "Convolution4"
  scale_param {
    bias_term: true
  }
}
layer {
  name: "ReLU4"
  type: "ReLU"
  bottom: "Convolution4"
  top: "Convolution4"
}
layer {
  name: "Convolution5"
  type: "Convolution"
  bottom: "Convolution4"
  top: "Convolution5"
  param {
    lr_mult: 1
    decay_mult: 1
  }
  param {
    lr_mult: 2
    decay_mult: 0
  }
  convolution_param {
    num_output: 16
    pad: 1
    kernel_size: 3
    stride: 1
    weight_filler {
      type: "gaussian"
      std: 0.118
    }
    bias_filler {
      type: "constant"
      value: 0
    }
  }
}
layer {
  name: "BatchNorm5"
  type: "BatchNorm"
  bottom: "Convolution5"
  top: "Convolution5"
  param {
    lr_mult: 0
    decay_mult: 0
  }
  param {
    lr_mult: 0
    decay_mult: 0
  }
  param {
    lr_mult: 0
    decay_mult: 0
  }
}
layer {
  name: "Scale5"
  type: "Scale"
  bottom: "Convolution5"
  top: "Convolution5"
  scale_param {
    bias_term: true
  }
}
layer {
  name: "Eltwise2"
  type: "Eltwise"
  bottom: "Eltwise1"
  bottom: "Convolution5"
  top: "Eltwise2"
  eltwise_param {
    operation: SUM
  }
}
layer {
  name: "ReLU5"
  type: "ReLU"
  bottom: "Eltwise2"
  top: "Eltwise2"
}
layer {
  name: "Convolution6"
  type: "Convolution"
  bottom: "Eltwise2"
  top: "Convolution6"
  param {
    lr_mult: 1
    decay_mult: 1
  }
  param {
    lr_mult: 2
    decay_mult: 0
  }
  convolution_param {
    num_output: 16
    pad: 1
    kernel_size: 3
    stride: 1
    weight_filler {
      type: "gaussian"
      std: 0.118
    }
    bias_filler {
      type: "constant"
      value: 0
    }
  }
}
layer {
  name: "BatchNorm6"
  type: "BatchNorm"
  bottom: "Convolution6"
  top: "Convolution6"
  param {
    lr_mult: 0
    decay_mult: 0
  }
  param {
    lr_mult: 0
    decay_mult: 0
  }
  param {
    lr_mult: 0
    decay_mult: 0
  }
}
layer {
  name: "Scale6"
  type: "Scale"
  bottom: "Convolution6"
  top: "Convolution6"
  scale_param {
    bias_term: true
  }
}
layer {
  name: "ReLU6"
  type: "ReLU"
  bottom: "Convolution6"
  top: "Convolution6"
}
layer {
  name: "Convolution7"
  type: "Convolution"
  bottom: "Convolution6"
  top: "Convolution7"
  param {
    lr_mult: 1
    decay_mult: 1
  }
  param {
    lr_mult: 2
    decay_mult: 0
  }
  convolution_param {
    num_output: 16
    pad: 1
    kernel_size: 3
    stride: 1
    weight_filler {
      type: "gaussian"
      std: 0.118
    }
    bias_filler {
      type: "constant"
      value: 0
    }
  }
}
layer {
  name: "BatchNorm7"
  type: "BatchNorm"
  bottom: "Convolution7"
  top: "Convolution7"
  param {
    lr_mult: 0
    decay_mult: 0
  }
  param {
    lr_mult: 0
    decay_mult: 0
  }
  param {
    lr_mult: 0
    decay_mult: 0
  }
}
layer {
  name: "Scale7"
  type: "Scale"
  bottom: "Convolution7"
  top: "Convolution7"
  scale_param {
    bias_term: true
  }
}
layer {
  name: "Eltwise3"
  type: "Eltwise"
  bottom: "Eltwise2"
  bottom: "Convolution7"
  top: "Eltwise3"
  eltwise_param {
    operation: SUM
  }
}
layer {
  name: "ReLU7"
  type: "ReLU"
  bottom: "Eltwise3"
  top: "Eltwise3"
}
layer {
  name: "Convolution8"
  type: "Convolution"
  bottom: "Eltwise3"
  top: "Convolution8"
  param {
    lr_mult: 1
    decay_mult: 1
  }
  param {
    lr_mult: 2
    decay_mult: 0
  }
  convolution_param {
    num_output: 32
    pad: 0
    kernel_size: 1
    stride: 2
    weight_filler {
      type: "gaussian"
      std: 0.25
    }
    bias_filler {
      type: "constant"
      value: 0
    }
  }
}
layer {
  name: "BatchNorm8"
  type: "BatchNorm"
  bottom: "Convolution8"
  top: "Convolution8"
  param {
    lr_mult: 0
    decay_mult: 0
  }
  param {
    lr_mult: 0
    decay_mult: 0
  }
  param {
    lr_mult: 0
    decay_mult: 0
  }
}
layer {
  name: "Scale8"
  type: "Scale"
  bottom: "Convolution8"
  top: "Convolution8"
  scale_param {
    bias_term: true
  }
}
layer {
  name: "Convolution9"
  type: "Convolution"
  bottom: "Eltwise3"
  top: "Convolution9"
  param {
    lr_mult: 1
    decay_mult: 1
  }
  param {
    lr_mult: 2
    decay_mult: 0
  }
  convolution_param {
    num_output: 32
    pad: 1
    kernel_size: 3
    stride: 2
    weight_filler {
      type: "gaussian"
      std: 0.083
    }
    bias_filler {
      type: "constant"
      value: 0
    }
  }
}
layer {
  name: "BatchNorm9"
  type: "BatchNorm"
  bottom: "Convolution9"
  top: "Convolution9"
  param {
    lr_mult: 0
    decay_mult: 0
  }
  param {
    lr_mult: 0
    decay_mult: 0
  }
  param {
    lr_mult: 0
    decay_mult: 0
  }
}
layer {
  name: "Scale9"
  type: "Scale"
  bottom: "Convolution9"
  top: "Convolution9"
  scale_param {
    bias_term: true
  }
}
layer {
  name: "ReLU8"
  type: "ReLU"
  bottom: "Convolution9"
  top: "Convolution9"
}
layer {
  name: "Convolution10"
  type: "Convolution"
  bottom: "Convolution9"
  top: "Convolution10"
  param {
    lr_mult: 1
    decay_mult: 1
  }
  param {
    lr_mult: 2
    decay_mult: 0
  }
  convolution_param {
    num_output: 32
    pad: 1
    kernel_size: 3
    stride: 1
    weight_filler {
      type: "gaussian"
      std: 0.083
    }
    bias_filler {
      type: "constant"
      value: 0
    }
  }
}
layer {
  name: "BatchNorm10"
  type: "BatchNorm"
  bottom: "Convolution10"
  top: "Convolution10"
  param {
    lr_mult: 0
    decay_mult: 0
  }
  param {
    lr_mult: 0
    decay_mult: 0
  }
  param {
    lr_mult: 0
    decay_mult: 0
  }
}
layer {
  name: "Scale10"
  type: "Scale"
  bottom: "Convolution10"
  top: "Convolution10"
  scale_param {
    bias_term: true
  }
}
layer {
  name: "Eltwise4"
  type: "Eltwise"
  bottom: "Convolution8"
  bottom: "Convolution10"
  top: "Eltwise4"
  eltwise_param {
    operation: SUM
  }
}
layer {
  name: "ReLU9"
  type: "ReLU"
  bottom: "Eltwise4"
  top: "Eltwise4"
}
layer {
  name: "Convolution11"
  type: "Convolution"
  bottom: "Eltwise4"
  top: "Convolution11"
  param {
    lr_mult: 1
    decay_mult: 1
  }
  param {
    lr_mult: 2
    decay_mult: 0
  }
  convolution_param {
    num_output: 32
    pad: 1
    kernel_size: 3
    stride: 1
    weight_filler {
      type: "gaussian"
      std: 0.083
    }
    bias_filler {
      type: "constant"
      value: 0
    }
  }
}
layer {
  name: "BatchNorm11"
  type: "BatchNorm"
  bottom: "Convolution11"
  top: "Convolution11"
  param {
    lr_mult: 0
    decay_mult: 0
  }
  param {
    lr_mult: 0
    decay_mult: 0
  }
  param {
    lr_mult: 0
    decay_mult: 0
  }
}
layer {
  name: "Scale11"
  type: "Scale"
  bottom: "Convolution11"
  top: "Convolution11"
  scale_param {
    bias_term: true
  }
}
layer {
  name: "ReLU10"
  type: "ReLU"
  bottom: "Convolution11"
  top: "Convolution11"
}
layer {
  name: "Convolution12"
  type: "Convolution"
  bottom: "Convolution11"
  top: "Convolution12"
  param {
    lr_mult: 1
    decay_mult: 1
  }
  param {
    lr_mult: 2
    decay_mult: 0
  }
  convolution_param {
    num_output: 32
    pad: 1
    kernel_size: 3
    stride: 1
    weight_filler {
      type: "gaussian"
      std: 0.083
    }
    bias_filler {
      type: "constant"
      value: 0
    }
  }
}
layer {
  name: "BatchNorm12"
  type: "BatchNorm"
  bottom: "Convolution12"
  top: "Convolution12"
  param {
    lr_mult: 0
    decay_mult: 0
  }
  param {
    lr_mult: 0
    decay_mult: 0
  }
  param {
    lr_mult: 0
    decay_mult: 0
  }
}
layer {
  name: "Scale12"
  type: "Scale"
  bottom: "Convolution12"
  top: "Convolution12"
  scale_param {
    bias_term: true
  }
}
layer {
  name: "Eltwise5"
  type: "Eltwise"
  bottom: "Eltwise4"
  bottom: "Convolution12"
  top: "Eltwise5"
  eltwise_param {
    operation: SUM
  }
}
layer {
  name: "ReLU11"
  type: "ReLU"
  bottom: "Eltwise5"
  top: "Eltwise5"
}
layer {
  name: "Convolution13"
  type: "Convolution"
  bottom: "Eltwise5"
  top: "Convolution13"
  param {
    lr_mult: 1
    decay_mult: 1
  }
  param {
    lr_mult: 2
    decay_mult: 0
  }
  convolution_param {
    num_output: 32
    pad: 1
    kernel_size: 3
    stride: 1
    weight_filler {
      type: "gaussian"
      std: 0.083
    }
    bias_filler {
      type: "constant"
      value: 0
    }
  }
}
layer {
  name: "BatchNorm13"
  type: "BatchNorm"
  bottom: "Convolution13"
  top: "Convolution13"
  param {
    lr_mult: 0
    decay_mult: 0
  }
  param {
    lr_mult: 0
    decay_mult: 0
  }
  param {
    lr_mult: 0
    decay_mult: 0
  }
}
layer {
  name: "Scale13"
  type: "Scale"
  bottom: "Convolution13"
  top: "Convolution13"
  scale_param {
    bias_term: true
  }
}
layer {
  name: "ReLU12"
  type: "ReLU"
  bottom: "Convolution13"
  top: "Convolution13"
}
layer {
  name: "Convolution14"
  type: "Convolution"
  bottom: "Convolution13"
  top: "Convolution14"
  param {
    lr_mult: 1
    decay_mult: 1
  }
  param {
    lr_mult: 2
    decay_mult: 0
  }
  convolution_param {
    num_output: 32
    pad: 1
    kernel_size: 3
    stride: 1
    weight_filler {
      type: "gaussian"
      std: 0.083
    }
    bias_filler {
      type: "constant"
      value: 0
    }
  }
}
layer {
  name: "BatchNorm14"
  type: "BatchNorm"
  bottom: "Convolution14"
  top: "Convolution14"
  param {
    lr_mult: 0
    decay_mult: 0
  }
  param {
    lr_mult: 0
    decay_mult: 0
  }
  param {
    lr_mult: 0
    decay_mult: 0
  }
}
layer {
  name: "Scale14"
  type: "Scale"
  bottom: "Convolution14"
  top: "Convolution14"
  scale_param {
    bias_term: true
  }
}
layer {
  name: "Eltwise6"
  type: "Eltwise"
  bottom: "Eltwise5"
  bottom: "Convolution14"
  top: "Eltwise6"
  eltwise_param {
    operation: SUM
  }
}
layer {
  name: "ReLU13"
  type: "ReLU"
  bottom: "Eltwise6"
  top: "Eltwise6"
}
layer {
  name: "Convolution15"
  type: "Convolution"
  bottom: "Eltwise6"
  top: "Convolution15"
  param {
    lr_mult: 1
    decay_mult: 1
  }
  param {
    lr_mult: 2
    decay_mult: 0
  }
  convolution_param {
    num_output: 64
    pad: 0
    kernel_size: 1
    stride: 2
    weight_filler {
      type: "gaussian"
      std: 0.17677669
    }
    bias_filler {
      type: "constant"
      value: 0
    }
  }
}
layer {
  name: "BatchNorm15"
  type: "BatchNorm"
  bottom: "Convolution15"
  top: "Convolution15"
  param {
    lr_mult: 0
    decay_mult: 0
  }
  param {
    lr_mult: 0
    decay_mult: 0
  }
  param {
    lr_mult: 0
    decay_mult: 0
  }
}
layer {
  name: "Scale15"
  type: "Scale"
  bottom: "Convolution15"
  top: "Convolution15"
  scale_param {
    bias_term: true
  }
}
layer {
  name: "Convolution16"
  type: "Convolution"
  bottom: "Eltwise6"
  top: "Convolution16"
  param {
    lr_mult: 1
    decay_mult: 1
  }
  param {
    lr_mult: 2
    decay_mult: 0
  }
  convolution_param {
    num_output: 64
    pad: 1
    kernel_size: 3
    stride: 2
    weight_filler {
      type: "gaussian"
      std: 0.059
    }
    bias_filler {
      type: "constant"
      value: 0
    }
  }
}
layer {
  name: "BatchNorm16"
  type: "BatchNorm"
  bottom: "Convolution16"
  top: "Convolution16"
  param {
    lr_mult: 0
    decay_mult: 0
  }
  param {
    lr_mult: 0
    decay_mult: 0
  }
  param {
    lr_mult: 0
    decay_mult: 0
  }
}
layer {
  name: "Scale16"
  type: "Scale"
  bottom: "Convolution16"
  top: "Convolution16"
  scale_param {
    bias_term: true
  }
}
layer {
  name: "ReLU14"
  type: "ReLU"
  bottom: "Convolution16"
  top: "Convolution16"
}
layer {
  name: "Convolution17"
  type: "Convolution"
  bottom: "Convolution16"
  top: "Convolution17"
  param {
    lr_mult: 1
    decay_mult: 1
  }
  param {
    lr_mult: 2
    decay_mult: 0
  }
  convolution_param {
    num_output: 64
    pad: 1
    kernel_size: 3
    stride: 1
    weight_filler {
      type: "gaussian"
      std: 0.059
    }
    bias_filler {
      type: "constant"
      value: 0
    }
  }
}
layer {
  name: "BatchNorm17"
  type: "BatchNorm"
  bottom: "Convolution17"
  top: "Convolution17"
  param {
    lr_mult: 0
    decay_mult: 0
  }
  param {
    lr_mult: 0
    decay_mult: 0
  }
  param {
    lr_mult: 0
    decay_mult: 0
  }
}
layer {
  name: "Scale17"
  type: "Scale"
  bottom: "Convolution17"
  top: "Convolution17"
  scale_param {
    bias_term: true
  }
}
layer {
  name: "Eltwise7"
  type: "Eltwise"
  bottom: "Convolution15"
  bottom: "Convolution17"
  top: "Eltwise7"
  eltwise_param {
    operation: SUM
  }
}
layer {
  name: "ReLU15"
  type: "ReLU"
  bottom: "Eltwise7"
  top: "Eltwise7"
}
layer {
  name: "Convolution18"
  type: "Convolution"
  bottom: "Eltwise7"
  top: "Convolution18"
  param {
    lr_mult: 1
    decay_mult: 1
  }
  param {
    lr_mult: 2
    decay_mult: 0
  }
  convolution_param {
    num_output: 64
    pad: 1
    kernel_size: 3
    stride: 1
    weight_filler {
      type: "gaussian"
      std: 0.059
    }
    bias_filler {
      type: "constant"
      value: 0
    }
  }
}
layer {
  name: "BatchNorm18"
  type: "BatchNorm"
  bottom: "Convolution18"
  top: "Convolution18"
  param {
    lr_mult: 0
    decay_mult: 0
  }
  param {
    lr_mult: 0
    decay_mult: 0
  }
  param {
    lr_mult: 0
    decay_mult: 0
  }
}
layer {
  name: "Scale18"
  type: "Scale"
  bottom: "Convolution18"
  top: "Convolution18"
  scale_param {
    bias_term: true
  }
}
layer {
  name: "ReLU16"
  type: "ReLU"
  bottom: "Convolution18"
  top: "Convolution18"
}
layer {
  name: "Convolution19"
  type: "Convolution"
  bottom: "Convolution18"
  top: "Convolution19"
  param {
    lr_mult: 1
    decay_mult: 1
  }
  param {
    lr_mult: 2
    decay_mult: 0
  }
  convolution_param {
    num_output: 64
    pad: 1
    kernel_size: 3
    stride: 1
    weight_filler {
      type: "gaussian"
      std: 0.059
    }
    bias_filler {
      type: "constant"
      value: 0
    }
  }
}
layer {
  name: "BatchNorm19"
  type: "BatchNorm"
  bottom: "Convolution19"
  top: "Convolution19"
  param {
    lr_mult: 0
    decay_mult: 0
  }
  param {
    lr_mult: 0
    decay_mult: 0
  }
  param {
    lr_mult: 0
    decay_mult: 0
  }
}
layer {
  name: "Scale19"
  type: "Scale"
  bottom: "Convolution19"
  top: "Convolution19"
  scale_param {
    bias_term: true
  }
}
layer {
  name: "Eltwise8"
  type: "Eltwise"
  bottom: "Eltwise7"
  bottom: "Convolution19"
  top: "Eltwise8"
  eltwise_param {
    operation: SUM
  }
}
layer {
  name: "ReLU17"
  type: "ReLU"
  bottom: "Eltwise8"
  top: "Eltwise8"
}
layer {
  name: "Convolution20"
  type: "Convolution"
  bottom: "Eltwise8"
  top: "Convolution20"
  param {
    lr_mult: 1
    decay_mult: 1
  }
  param {
    lr_mult: 2
    decay_mult: 0
  }
  convolution_param {
    num_output: 64
    pad: 1
    kernel_size: 3
    stride: 1
    weight_filler {
      type: "gaussian"
      std: 0.059
    }
    bias_filler {
      type: "constant"
      value: 0
    }
  }
}
layer {
  name: "BatchNorm20"
  type: "BatchNorm"
  bottom: "Convolution20"
  top: "Convolution20"
  param {
    lr_mult: 0
    decay_mult: 0
  }
  param {
    lr_mult: 0
    decay_mult: 0
  }
  param {
    lr_mult: 0
    decay_mult: 0
  }
}
layer {
  name: "Scale20"
  type: "Scale"
  bottom: "Convolution20"
  top: "Convolution20"
  scale_param {
    bias_term: true
  }
}
layer {
  name: "ReLU18"
  type: "ReLU"
  bottom: "Convolution20"
  top: "Convolution20"
}
layer {
  name: "Convolution21"
  type: "Convolution"
  bottom: "Convolution20"
  top: "Convolution21"
  param {
    lr_mult: 1
    decay_mult: 1
  }
  param {
    lr_mult: 2
    decay_mult: 0
  }
  convolution_param {
    num_output: 64
    pad: 1
    kernel_size: 3
    stride: 1
    weight_filler {
      type: "gaussian"
      std: 0.059
    }
    bias_filler {
      type: "constant"
      value: 0
    }
  }
}
layer {
  name: "BatchNorm21"
  type: "BatchNorm"
  bottom: "Convolution21"
  top: "Convolution21"
  param {
    lr_mult: 0
    decay_mult: 0
  }
  param {
    lr_mult: 0
    decay_mult: 0
  }
  param {
    lr_mult: 0
    decay_mult: 0
  }
}
layer {
  name: "Scale21"
  type: "Scale"
  bottom: "Convolution21"
  top: "Convolution21"
  scale_param {
    bias_term: true
  }
}
layer {
  name: "Eltwise9"
  type: "Eltwise"
  bottom: "Eltwise8"
  bottom: "Convolution21"
  top: "Eltwise9"
  eltwise_param {
    operation: SUM
  }
}
layer {
  name: "ReLU19"
  type: "ReLU"
  bottom: "Eltwise9"
  top: "Eltwise9"
}
layer {
  name: "Pooling1"
  type: "Pooling"
  bottom: "Eltwise9"
  top: "Pooling1"
  pooling_param {
    pool: AVE
    global_pooling: true
  }
}
layer {
  name: "InnerProduct1"
  type: "InnerProduct"
  bottom: "Pooling1"
  top: "InnerProduct1"
  param {
    lr_mult: 1
    decay_mult: 1
  }
  param {
    lr_mult: 2
    decay_mult: 1
  }
  inner_product_param {
    num_output: 10
    weight_filler {
      type: "gaussian"
      std: 0.01
    }
    bias_filler {
      type: "constant"
      value: 0
    }
  }
}
layer {
  name: "SoftmaxWithLoss1"
  type: "SoftmaxWithLoss"
  bottom: "InnerProduct1"
  bottom: "Data2"
  top: "SoftmaxWithLoss1"
}
I1001 09:18:31.183555  4916 layer_factory.hpp:77] Creating layer Data1
I1001 09:18:31.183650  4916 db_lmdb.cpp:35] Opened lmdb /home/x306/caffe/xn/PENLU/data/cifar10/cifar10_train_lmdb
I1001 09:18:31.183673  4916 net.cpp:84] Creating Layer Data1
I1001 09:18:31.183681  4916 net.cpp:380] Data1 -> Data1
I1001 09:18:31.183701  4916 net.cpp:380] Data1 -> Data2
I1001 09:18:31.183712  4916 data_transformer.cpp:25] Loading mean file from: /home/x306/caffe/xn/PENLU/data/cifar10/mean.binaryproto
I1001 09:18:31.185133  4916 data_layer.cpp:45] output data size: 100,3,28,28
I1001 09:18:31.187435  4916 net.cpp:122] Setting up Data1
I1001 09:18:31.187460  4916 net.cpp:129] Top shape: 100 3 28 28 (235200)
I1001 09:18:31.187465  4916 net.cpp:129] Top shape: 100 (100)
I1001 09:18:31.187467  4916 net.cpp:137] Memory required for data: 941200
I1001 09:18:31.187474  4916 layer_factory.hpp:77] Creating layer Convolution1
I1001 09:18:31.187492  4916 net.cpp:84] Creating Layer Convolution1
I1001 09:18:31.187499  4916 net.cpp:406] Convolution1 <- Data1
I1001 09:18:31.187507  4916 net.cpp:380] Convolution1 -> Convolution1
I1001 09:18:31.333942  4916 net.cpp:122] Setting up Convolution1
I1001 09:18:31.333967  4916 net.cpp:129] Top shape: 100 16 28 28 (1254400)
I1001 09:18:31.333971  4916 net.cpp:137] Memory required for data: 5958800
I1001 09:18:31.333986  4916 layer_factory.hpp:77] Creating layer BatchNorm1
I1001 09:18:31.334007  4916 net.cpp:84] Creating Layer BatchNorm1
I1001 09:18:31.334010  4916 net.cpp:406] BatchNorm1 <- Convolution1
I1001 09:18:31.334026  4916 net.cpp:367] BatchNorm1 -> Convolution1 (in-place)
I1001 09:18:31.334173  4916 net.cpp:122] Setting up BatchNorm1
I1001 09:18:31.334179  4916 net.cpp:129] Top shape: 100 16 28 28 (1254400)
I1001 09:18:31.334182  4916 net.cpp:137] Memory required for data: 10976400
I1001 09:18:31.334189  4916 layer_factory.hpp:77] Creating layer Scale1
I1001 09:18:31.334214  4916 net.cpp:84] Creating Layer Scale1
I1001 09:18:31.334218  4916 net.cpp:406] Scale1 <- Convolution1
I1001 09:18:31.334223  4916 net.cpp:367] Scale1 -> Convolution1 (in-place)
I1001 09:18:31.334264  4916 layer_factory.hpp:77] Creating layer Scale1
I1001 09:18:31.334364  4916 net.cpp:122] Setting up Scale1
I1001 09:18:31.334370  4916 net.cpp:129] Top shape: 100 16 28 28 (1254400)
I1001 09:18:31.334375  4916 net.cpp:137] Memory required for data: 15994000
I1001 09:18:31.334393  4916 layer_factory.hpp:77] Creating layer ReLU1
I1001 09:18:31.334401  4916 net.cpp:84] Creating Layer ReLU1
I1001 09:18:31.334405  4916 net.cpp:406] ReLU1 <- Convolution1
I1001 09:18:31.334411  4916 net.cpp:367] ReLU1 -> Convolution1 (in-place)
I1001 09:18:31.334575  4916 net.cpp:122] Setting up ReLU1
I1001 09:18:31.334584  4916 net.cpp:129] Top shape: 100 16 28 28 (1254400)
I1001 09:18:31.334589  4916 net.cpp:137] Memory required for data: 21011600
I1001 09:18:31.334604  4916 layer_factory.hpp:77] Creating layer Convolution1_ReLU1_0_split
I1001 09:18:31.334611  4916 net.cpp:84] Creating Layer Convolution1_ReLU1_0_split
I1001 09:18:31.334615  4916 net.cpp:406] Convolution1_ReLU1_0_split <- Convolution1
I1001 09:18:31.334621  4916 net.cpp:380] Convolution1_ReLU1_0_split -> Convolution1_ReLU1_0_split_0
I1001 09:18:31.334630  4916 net.cpp:380] Convolution1_ReLU1_0_split -> Convolution1_ReLU1_0_split_1
I1001 09:18:31.334666  4916 net.cpp:122] Setting up Convolution1_ReLU1_0_split
I1001 09:18:31.334671  4916 net.cpp:129] Top shape: 100 16 28 28 (1254400)
I1001 09:18:31.334687  4916 net.cpp:129] Top shape: 100 16 28 28 (1254400)
I1001 09:18:31.334692  4916 net.cpp:137] Memory required for data: 31046800
I1001 09:18:31.334697  4916 layer_factory.hpp:77] Creating layer Convolution2
I1001 09:18:31.334707  4916 net.cpp:84] Creating Layer Convolution2
I1001 09:18:31.334710  4916 net.cpp:406] Convolution2 <- Convolution1_ReLU1_0_split_0
I1001 09:18:31.334717  4916 net.cpp:380] Convolution2 -> Convolution2
I1001 09:18:31.335546  4916 net.cpp:122] Setting up Convolution2
I1001 09:18:31.335557  4916 net.cpp:129] Top shape: 100 16 28 28 (1254400)
I1001 09:18:31.335573  4916 net.cpp:137] Memory required for data: 36064400
I1001 09:18:31.335583  4916 layer_factory.hpp:77] Creating layer BatchNorm2
I1001 09:18:31.335590  4916 net.cpp:84] Creating Layer BatchNorm2
I1001 09:18:31.335595  4916 net.cpp:406] BatchNorm2 <- Convolution2
I1001 09:18:31.335602  4916 net.cpp:367] BatchNorm2 -> Convolution2 (in-place)
I1001 09:18:31.335728  4916 net.cpp:122] Setting up BatchNorm2
I1001 09:18:31.335734  4916 net.cpp:129] Top shape: 100 16 28 28 (1254400)
I1001 09:18:31.335737  4916 net.cpp:137] Memory required for data: 41082000
I1001 09:18:31.335753  4916 layer_factory.hpp:77] Creating layer Scale2
I1001 09:18:31.335759  4916 net.cpp:84] Creating Layer Scale2
I1001 09:18:31.335763  4916 net.cpp:406] Scale2 <- Convolution2
I1001 09:18:31.335767  4916 net.cpp:367] Scale2 -> Convolution2 (in-place)
I1001 09:18:31.335803  4916 layer_factory.hpp:77] Creating layer Scale2
I1001 09:18:31.335892  4916 net.cpp:122] Setting up Scale2
I1001 09:18:31.335898  4916 net.cpp:129] Top shape: 100 16 28 28 (1254400)
I1001 09:18:31.335903  4916 net.cpp:137] Memory required for data: 46099600
I1001 09:18:31.335921  4916 layer_factory.hpp:77] Creating layer ReLU2
I1001 09:18:31.335927  4916 net.cpp:84] Creating Layer ReLU2
I1001 09:18:31.335930  4916 net.cpp:406] ReLU2 <- Convolution2
I1001 09:18:31.335937  4916 net.cpp:367] ReLU2 -> Convolution2 (in-place)
I1001 09:18:31.336364  4916 net.cpp:122] Setting up ReLU2
I1001 09:18:31.336374  4916 net.cpp:129] Top shape: 100 16 28 28 (1254400)
I1001 09:18:31.336378  4916 net.cpp:137] Memory required for data: 51117200
I1001 09:18:31.336383  4916 layer_factory.hpp:77] Creating layer Convolution3
I1001 09:18:31.336393  4916 net.cpp:84] Creating Layer Convolution3
I1001 09:18:31.336397  4916 net.cpp:406] Convolution3 <- Convolution2
I1001 09:18:31.336405  4916 net.cpp:380] Convolution3 -> Convolution3
I1001 09:18:31.336899  4916 net.cpp:122] Setting up Convolution3
I1001 09:18:31.336908  4916 net.cpp:129] Top shape: 100 16 28 28 (1254400)
I1001 09:18:31.336913  4916 net.cpp:137] Memory required for data: 56134800
I1001 09:18:31.336921  4916 layer_factory.hpp:77] Creating layer BatchNorm3
I1001 09:18:31.336927  4916 net.cpp:84] Creating Layer BatchNorm3
I1001 09:18:31.336931  4916 net.cpp:406] BatchNorm3 <- Convolution3
I1001 09:18:31.336937  4916 net.cpp:367] BatchNorm3 -> Convolution3 (in-place)
I1001 09:18:31.337052  4916 net.cpp:122] Setting up BatchNorm3
I1001 09:18:31.337059  4916 net.cpp:129] Top shape: 100 16 28 28 (1254400)
I1001 09:18:31.337062  4916 net.cpp:137] Memory required for data: 61152400
I1001 09:18:31.337072  4916 layer_factory.hpp:77] Creating layer Scale3
I1001 09:18:31.337096  4916 net.cpp:84] Creating Layer Scale3
I1001 09:18:31.337110  4916 net.cpp:406] Scale3 <- Convolution3
I1001 09:18:31.337116  4916 net.cpp:367] Scale3 -> Convolution3 (in-place)
I1001 09:18:31.337143  4916 layer_factory.hpp:77] Creating layer Scale3
I1001 09:18:31.337215  4916 net.cpp:122] Setting up Scale3
I1001 09:18:31.337221  4916 net.cpp:129] Top shape: 100 16 28 28 (1254400)
I1001 09:18:31.337225  4916 net.cpp:137] Memory required for data: 66170000
I1001 09:18:31.337232  4916 layer_factory.hpp:77] Creating layer Eltwise1
I1001 09:18:31.337239  4916 net.cpp:84] Creating Layer Eltwise1
I1001 09:18:31.337242  4916 net.cpp:406] Eltwise1 <- Convolution1_ReLU1_0_split_1
I1001 09:18:31.337247  4916 net.cpp:406] Eltwise1 <- Convolution3
I1001 09:18:31.337254  4916 net.cpp:380] Eltwise1 -> Eltwise1
I1001 09:18:31.337272  4916 net.cpp:122] Setting up Eltwise1
I1001 09:18:31.337277  4916 net.cpp:129] Top shape: 100 16 28 28 (1254400)
I1001 09:18:31.337281  4916 net.cpp:137] Memory required for data: 71187600
I1001 09:18:31.337286  4916 layer_factory.hpp:77] Creating layer ReLU3
I1001 09:18:31.337292  4916 net.cpp:84] Creating Layer ReLU3
I1001 09:18:31.337296  4916 net.cpp:406] ReLU3 <- Eltwise1
I1001 09:18:31.337302  4916 net.cpp:367] ReLU3 -> Eltwise1 (in-place)
I1001 09:18:31.337725  4916 net.cpp:122] Setting up ReLU3
I1001 09:18:31.337735  4916 net.cpp:129] Top shape: 100 16 28 28 (1254400)
I1001 09:18:31.337740  4916 net.cpp:137] Memory required for data: 76205200
I1001 09:18:31.337745  4916 layer_factory.hpp:77] Creating layer Eltwise1_ReLU3_0_split
I1001 09:18:31.337751  4916 net.cpp:84] Creating Layer Eltwise1_ReLU3_0_split
I1001 09:18:31.337756  4916 net.cpp:406] Eltwise1_ReLU3_0_split <- Eltwise1
I1001 09:18:31.337762  4916 net.cpp:380] Eltwise1_ReLU3_0_split -> Eltwise1_ReLU3_0_split_0
I1001 09:18:31.337769  4916 net.cpp:380] Eltwise1_ReLU3_0_split -> Eltwise1_ReLU3_0_split_1
I1001 09:18:31.337796  4916 net.cpp:122] Setting up Eltwise1_ReLU3_0_split
I1001 09:18:31.337802  4916 net.cpp:129] Top shape: 100 16 28 28 (1254400)
I1001 09:18:31.337807  4916 net.cpp:129] Top shape: 100 16 28 28 (1254400)
I1001 09:18:31.337811  4916 net.cpp:137] Memory required for data: 86240400
I1001 09:18:31.337815  4916 layer_factory.hpp:77] Creating layer Convolution4
I1001 09:18:31.337826  4916 net.cpp:84] Creating Layer Convolution4
I1001 09:18:31.337829  4916 net.cpp:406] Convolution4 <- Eltwise1_ReLU3_0_split_0
I1001 09:18:31.337836  4916 net.cpp:380] Convolution4 -> Convolution4
I1001 09:18:31.338657  4916 net.cpp:122] Setting up Convolution4
I1001 09:18:31.338668  4916 net.cpp:129] Top shape: 100 16 28 28 (1254400)
I1001 09:18:31.338675  4916 net.cpp:137] Memory required for data: 91258000
I1001 09:18:31.338682  4916 layer_factory.hpp:77] Creating layer BatchNorm4
I1001 09:18:31.338688  4916 net.cpp:84] Creating Layer BatchNorm4
I1001 09:18:31.338692  4916 net.cpp:406] BatchNorm4 <- Convolution4
I1001 09:18:31.338699  4916 net.cpp:367] BatchNorm4 -> Convolution4 (in-place)
I1001 09:18:31.338814  4916 net.cpp:122] Setting up BatchNorm4
I1001 09:18:31.338819  4916 net.cpp:129] Top shape: 100 16 28 28 (1254400)
I1001 09:18:31.338824  4916 net.cpp:137] Memory required for data: 96275600
I1001 09:18:31.338831  4916 layer_factory.hpp:77] Creating layer Scale4
I1001 09:18:31.338837  4916 net.cpp:84] Creating Layer Scale4
I1001 09:18:31.338841  4916 net.cpp:406] Scale4 <- Convolution4
I1001 09:18:31.338847  4916 net.cpp:367] Scale4 -> Convolution4 (in-place)
I1001 09:18:31.338874  4916 layer_factory.hpp:77] Creating layer Scale4
I1001 09:18:31.338943  4916 net.cpp:122] Setting up Scale4
I1001 09:18:31.338949  4916 net.cpp:129] Top shape: 100 16 28 28 (1254400)
I1001 09:18:31.338953  4916 net.cpp:137] Memory required for data: 101293200
I1001 09:18:31.338960  4916 layer_factory.hpp:77] Creating layer ReLU4
I1001 09:18:31.338965  4916 net.cpp:84] Creating Layer ReLU4
I1001 09:18:31.338970  4916 net.cpp:406] ReLU4 <- Convolution4
I1001 09:18:31.338975  4916 net.cpp:367] ReLU4 -> Convolution4 (in-place)
I1001 09:18:31.339107  4916 net.cpp:122] Setting up ReLU4
I1001 09:18:31.339115  4916 net.cpp:129] Top shape: 100 16 28 28 (1254400)
I1001 09:18:31.339120  4916 net.cpp:137] Memory required for data: 106310800
I1001 09:18:31.339124  4916 layer_factory.hpp:77] Creating layer Convolution5
I1001 09:18:31.339133  4916 net.cpp:84] Creating Layer Convolution5
I1001 09:18:31.339138  4916 net.cpp:406] Convolution5 <- Convolution4
I1001 09:18:31.339144  4916 net.cpp:380] Convolution5 -> Convolution5
I1001 09:18:31.339952  4916 net.cpp:122] Setting up Convolution5
I1001 09:18:31.339963  4916 net.cpp:129] Top shape: 100 16 28 28 (1254400)
I1001 09:18:31.339968  4916 net.cpp:137] Memory required for data: 111328400
I1001 09:18:31.339975  4916 layer_factory.hpp:77] Creating layer BatchNorm5
I1001 09:18:31.339982  4916 net.cpp:84] Creating Layer BatchNorm5
I1001 09:18:31.339987  4916 net.cpp:406] BatchNorm5 <- Convolution5
I1001 09:18:31.339993  4916 net.cpp:367] BatchNorm5 -> Convolution5 (in-place)
I1001 09:18:31.340111  4916 net.cpp:122] Setting up BatchNorm5
I1001 09:18:31.340117  4916 net.cpp:129] Top shape: 100 16 28 28 (1254400)
I1001 09:18:31.340121  4916 net.cpp:137] Memory required for data: 116346000
I1001 09:18:31.340132  4916 layer_factory.hpp:77] Creating layer Scale5
I1001 09:18:31.340138  4916 net.cpp:84] Creating Layer Scale5
I1001 09:18:31.340142  4916 net.cpp:406] Scale5 <- Convolution5
I1001 09:18:31.340147  4916 net.cpp:367] Scale5 -> Convolution5 (in-place)
I1001 09:18:31.340175  4916 layer_factory.hpp:77] Creating layer Scale5
I1001 09:18:31.340246  4916 net.cpp:122] Setting up Scale5
I1001 09:18:31.340251  4916 net.cpp:129] Top shape: 100 16 28 28 (1254400)
I1001 09:18:31.340255  4916 net.cpp:137] Memory required for data: 121363600
I1001 09:18:31.340262  4916 layer_factory.hpp:77] Creating layer Eltwise2
I1001 09:18:31.340268  4916 net.cpp:84] Creating Layer Eltwise2
I1001 09:18:31.340272  4916 net.cpp:406] Eltwise2 <- Eltwise1_ReLU3_0_split_1
I1001 09:18:31.340278  4916 net.cpp:406] Eltwise2 <- Convolution5
I1001 09:18:31.340283  4916 net.cpp:380] Eltwise2 -> Eltwise2
I1001 09:18:31.340301  4916 net.cpp:122] Setting up Eltwise2
I1001 09:18:31.340306  4916 net.cpp:129] Top shape: 100 16 28 28 (1254400)
I1001 09:18:31.340309  4916 net.cpp:137] Memory required for data: 126381200
I1001 09:18:31.340314  4916 layer_factory.hpp:77] Creating layer ReLU5
I1001 09:18:31.340320  4916 net.cpp:84] Creating Layer ReLU5
I1001 09:18:31.340324  4916 net.cpp:406] ReLU5 <- Eltwise2
I1001 09:18:31.340329  4916 net.cpp:367] ReLU5 -> Eltwise2 (in-place)
I1001 09:18:31.340435  4916 net.cpp:122] Setting up ReLU5
I1001 09:18:31.340441  4916 net.cpp:129] Top shape: 100 16 28 28 (1254400)
I1001 09:18:31.340446  4916 net.cpp:137] Memory required for data: 131398800
I1001 09:18:31.340451  4916 layer_factory.hpp:77] Creating layer Eltwise2_ReLU5_0_split
I1001 09:18:31.340456  4916 net.cpp:84] Creating Layer Eltwise2_ReLU5_0_split
I1001 09:18:31.340461  4916 net.cpp:406] Eltwise2_ReLU5_0_split <- Eltwise2
I1001 09:18:31.340466  4916 net.cpp:380] Eltwise2_ReLU5_0_split -> Eltwise2_ReLU5_0_split_0
I1001 09:18:31.340473  4916 net.cpp:380] Eltwise2_ReLU5_0_split -> Eltwise2_ReLU5_0_split_1
I1001 09:18:31.340497  4916 net.cpp:122] Setting up Eltwise2_ReLU5_0_split
I1001 09:18:31.340502  4916 net.cpp:129] Top shape: 100 16 28 28 (1254400)
I1001 09:18:31.340507  4916 net.cpp:129] Top shape: 100 16 28 28 (1254400)
I1001 09:18:31.340512  4916 net.cpp:137] Memory required for data: 141434000
I1001 09:18:31.340517  4916 layer_factory.hpp:77] Creating layer Convolution6
I1001 09:18:31.340525  4916 net.cpp:84] Creating Layer Convolution6
I1001 09:18:31.340528  4916 net.cpp:406] Convolution6 <- Eltwise2_ReLU5_0_split_0
I1001 09:18:31.340535  4916 net.cpp:380] Convolution6 -> Convolution6
I1001 09:18:31.341346  4916 net.cpp:122] Setting up Convolution6
I1001 09:18:31.341356  4916 net.cpp:129] Top shape: 100 16 28 28 (1254400)
I1001 09:18:31.341362  4916 net.cpp:137] Memory required for data: 146451600
I1001 09:18:31.341369  4916 layer_factory.hpp:77] Creating layer BatchNorm6
I1001 09:18:31.341382  4916 net.cpp:84] Creating Layer BatchNorm6
I1001 09:18:31.341387  4916 net.cpp:406] BatchNorm6 <- Convolution6
I1001 09:18:31.341394  4916 net.cpp:367] BatchNorm6 -> Convolution6 (in-place)
I1001 09:18:31.341516  4916 net.cpp:122] Setting up BatchNorm6
I1001 09:18:31.341521  4916 net.cpp:129] Top shape: 100 16 28 28 (1254400)
I1001 09:18:31.341526  4916 net.cpp:137] Memory required for data: 151469200
I1001 09:18:31.341534  4916 layer_factory.hpp:77] Creating layer Scale6
I1001 09:18:31.341540  4916 net.cpp:84] Creating Layer Scale6
I1001 09:18:31.341544  4916 net.cpp:406] Scale6 <- Convolution6
I1001 09:18:31.341550  4916 net.cpp:367] Scale6 -> Convolution6 (in-place)
I1001 09:18:31.341578  4916 layer_factory.hpp:77] Creating layer Scale6
I1001 09:18:31.341650  4916 net.cpp:122] Setting up Scale6
I1001 09:18:31.341655  4916 net.cpp:129] Top shape: 100 16 28 28 (1254400)
I1001 09:18:31.341660  4916 net.cpp:137] Memory required for data: 156486800
I1001 09:18:31.341665  4916 layer_factory.hpp:77] Creating layer ReLU6
I1001 09:18:31.341671  4916 net.cpp:84] Creating Layer ReLU6
I1001 09:18:31.341675  4916 net.cpp:406] ReLU6 <- Convolution6
I1001 09:18:31.341681  4916 net.cpp:367] ReLU6 -> Convolution6 (in-place)
I1001 09:18:31.341786  4916 net.cpp:122] Setting up ReLU6
I1001 09:18:31.341794  4916 net.cpp:129] Top shape: 100 16 28 28 (1254400)
I1001 09:18:31.341799  4916 net.cpp:137] Memory required for data: 161504400
I1001 09:18:31.341804  4916 layer_factory.hpp:77] Creating layer Convolution7
I1001 09:18:31.341812  4916 net.cpp:84] Creating Layer Convolution7
I1001 09:18:31.341815  4916 net.cpp:406] Convolution7 <- Convolution6
I1001 09:18:31.341822  4916 net.cpp:380] Convolution7 -> Convolution7
I1001 09:18:31.342670  4916 net.cpp:122] Setting up Convolution7
I1001 09:18:31.342681  4916 net.cpp:129] Top shape: 100 16 28 28 (1254400)
I1001 09:18:31.342687  4916 net.cpp:137] Memory required for data: 166522000
I1001 09:18:31.342692  4916 layer_factory.hpp:77] Creating layer BatchNorm7
I1001 09:18:31.342700  4916 net.cpp:84] Creating Layer BatchNorm7
I1001 09:18:31.342703  4916 net.cpp:406] BatchNorm7 <- Convolution7
I1001 09:18:31.342710  4916 net.cpp:367] BatchNorm7 -> Convolution7 (in-place)
I1001 09:18:31.342835  4916 net.cpp:122] Setting up BatchNorm7
I1001 09:18:31.342842  4916 net.cpp:129] Top shape: 100 16 28 28 (1254400)
I1001 09:18:31.342846  4916 net.cpp:137] Memory required for data: 171539600
I1001 09:18:31.342854  4916 layer_factory.hpp:77] Creating layer Scale7
I1001 09:18:31.342864  4916 net.cpp:84] Creating Layer Scale7
I1001 09:18:31.342866  4916 net.cpp:406] Scale7 <- Convolution7
I1001 09:18:31.342872  4916 net.cpp:367] Scale7 -> Convolution7 (in-place)
I1001 09:18:31.342901  4916 layer_factory.hpp:77] Creating layer Scale7
I1001 09:18:31.342975  4916 net.cpp:122] Setting up Scale7
I1001 09:18:31.342981  4916 net.cpp:129] Top shape: 100 16 28 28 (1254400)
I1001 09:18:31.342985  4916 net.cpp:137] Memory required for data: 176557200
I1001 09:18:31.342993  4916 layer_factory.hpp:77] Creating layer Eltwise3
I1001 09:18:31.342999  4916 net.cpp:84] Creating Layer Eltwise3
I1001 09:18:31.343003  4916 net.cpp:406] Eltwise3 <- Eltwise2_ReLU5_0_split_1
I1001 09:18:31.343008  4916 net.cpp:406] Eltwise3 <- Convolution7
I1001 09:18:31.343014  4916 net.cpp:380] Eltwise3 -> Eltwise3
I1001 09:18:31.343032  4916 net.cpp:122] Setting up Eltwise3
I1001 09:18:31.343039  4916 net.cpp:129] Top shape: 100 16 28 28 (1254400)
I1001 09:18:31.343052  4916 net.cpp:137] Memory required for data: 181574800
I1001 09:18:31.343056  4916 layer_factory.hpp:77] Creating layer ReLU7
I1001 09:18:31.343063  4916 net.cpp:84] Creating Layer ReLU7
I1001 09:18:31.343067  4916 net.cpp:406] ReLU7 <- Eltwise3
I1001 09:18:31.343072  4916 net.cpp:367] ReLU7 -> Eltwise3 (in-place)
I1001 09:18:31.343195  4916 net.cpp:122] Setting up ReLU7
I1001 09:18:31.343204  4916 net.cpp:129] Top shape: 100 16 28 28 (1254400)
I1001 09:18:31.343207  4916 net.cpp:137] Memory required for data: 186592400
I1001 09:18:31.343212  4916 layer_factory.hpp:77] Creating layer Eltwise3_ReLU7_0_split
I1001 09:18:31.343225  4916 net.cpp:84] Creating Layer Eltwise3_ReLU7_0_split
I1001 09:18:31.343230  4916 net.cpp:406] Eltwise3_ReLU7_0_split <- Eltwise3
I1001 09:18:31.343237  4916 net.cpp:380] Eltwise3_ReLU7_0_split -> Eltwise3_ReLU7_0_split_0
I1001 09:18:31.343243  4916 net.cpp:380] Eltwise3_ReLU7_0_split -> Eltwise3_ReLU7_0_split_1
I1001 09:18:31.343271  4916 net.cpp:122] Setting up Eltwise3_ReLU7_0_split
I1001 09:18:31.343277  4916 net.cpp:129] Top shape: 100 16 28 28 (1254400)
I1001 09:18:31.343282  4916 net.cpp:129] Top shape: 100 16 28 28 (1254400)
I1001 09:18:31.343286  4916 net.cpp:137] Memory required for data: 196627600
I1001 09:18:31.343291  4916 layer_factory.hpp:77] Creating layer Convolution8
I1001 09:18:31.343300  4916 net.cpp:84] Creating Layer Convolution8
I1001 09:18:31.343304  4916 net.cpp:406] Convolution8 <- Eltwise3_ReLU7_0_split_0
I1001 09:18:31.343312  4916 net.cpp:380] Convolution8 -> Convolution8
I1001 09:18:31.344449  4916 net.cpp:122] Setting up Convolution8
I1001 09:18:31.344460  4916 net.cpp:129] Top shape: 100 32 14 14 (627200)
I1001 09:18:31.344475  4916 net.cpp:137] Memory required for data: 199136400
I1001 09:18:31.344485  4916 layer_factory.hpp:77] Creating layer BatchNorm8
I1001 09:18:31.344491  4916 net.cpp:84] Creating Layer BatchNorm8
I1001 09:18:31.344496  4916 net.cpp:406] BatchNorm8 <- Convolution8
I1001 09:18:31.344511  4916 net.cpp:367] BatchNorm8 -> Convolution8 (in-place)
I1001 09:18:31.344642  4916 net.cpp:122] Setting up BatchNorm8
I1001 09:18:31.344650  4916 net.cpp:129] Top shape: 100 32 14 14 (627200)
I1001 09:18:31.344653  4916 net.cpp:137] Memory required for data: 201645200
I1001 09:18:31.344661  4916 layer_factory.hpp:77] Creating layer Scale8
I1001 09:18:31.344667  4916 net.cpp:84] Creating Layer Scale8
I1001 09:18:31.344671  4916 net.cpp:406] Scale8 <- Convolution8
I1001 09:18:31.344677  4916 net.cpp:367] Scale8 -> Convolution8 (in-place)
I1001 09:18:31.344707  4916 layer_factory.hpp:77] Creating layer Scale8
I1001 09:18:31.344779  4916 net.cpp:122] Setting up Scale8
I1001 09:18:31.344786  4916 net.cpp:129] Top shape: 100 32 14 14 (627200)
I1001 09:18:31.344790  4916 net.cpp:137] Memory required for data: 204154000
I1001 09:18:31.344797  4916 layer_factory.hpp:77] Creating layer Convolution9
I1001 09:18:31.344807  4916 net.cpp:84] Creating Layer Convolution9
I1001 09:18:31.344811  4916 net.cpp:406] Convolution9 <- Eltwise3_ReLU7_0_split_1
I1001 09:18:31.344818  4916 net.cpp:380] Convolution9 -> Convolution9
I1001 09:18:31.346726  4916 net.cpp:122] Setting up Convolution9
I1001 09:18:31.346738  4916 net.cpp:129] Top shape: 100 32 14 14 (627200)
I1001 09:18:31.346741  4916 net.cpp:137] Memory required for data: 206662800
I1001 09:18:31.346757  4916 layer_factory.hpp:77] Creating layer BatchNorm9
I1001 09:18:31.346762  4916 net.cpp:84] Creating Layer BatchNorm9
I1001 09:18:31.346766  4916 net.cpp:406] BatchNorm9 <- Convolution9
I1001 09:18:31.346781  4916 net.cpp:367] BatchNorm9 -> Convolution9 (in-place)
I1001 09:18:31.346930  4916 net.cpp:122] Setting up BatchNorm9
I1001 09:18:31.346935  4916 net.cpp:129] Top shape: 100 32 14 14 (627200)
I1001 09:18:31.346936  4916 net.cpp:137] Memory required for data: 209171600
I1001 09:18:31.346941  4916 layer_factory.hpp:77] Creating layer Scale9
I1001 09:18:31.346946  4916 net.cpp:84] Creating Layer Scale9
I1001 09:18:31.346958  4916 net.cpp:406] Scale9 <- Convolution9
I1001 09:18:31.346963  4916 net.cpp:367] Scale9 -> Convolution9 (in-place)
I1001 09:18:31.347008  4916 layer_factory.hpp:77] Creating layer Scale9
I1001 09:18:31.347103  4916 net.cpp:122] Setting up Scale9
I1001 09:18:31.347110  4916 net.cpp:129] Top shape: 100 32 14 14 (627200)
I1001 09:18:31.347112  4916 net.cpp:137] Memory required for data: 211680400
I1001 09:18:31.347115  4916 layer_factory.hpp:77] Creating layer ReLU8
I1001 09:18:31.347121  4916 net.cpp:84] Creating Layer ReLU8
I1001 09:18:31.347122  4916 net.cpp:406] ReLU8 <- Convolution9
I1001 09:18:31.347127  4916 net.cpp:367] ReLU8 -> Convolution9 (in-place)
I1001 09:18:31.347252  4916 net.cpp:122] Setting up ReLU8
I1001 09:18:31.347259  4916 net.cpp:129] Top shape: 100 32 14 14 (627200)
I1001 09:18:31.347262  4916 net.cpp:137] Memory required for data: 214189200
I1001 09:18:31.347265  4916 layer_factory.hpp:77] Creating layer Convolution10
I1001 09:18:31.347272  4916 net.cpp:84] Creating Layer Convolution10
I1001 09:18:31.347276  4916 net.cpp:406] Convolution10 <- Convolution9
I1001 09:18:31.347281  4916 net.cpp:380] Convolution10 -> Convolution10
I1001 09:18:31.348466  4916 net.cpp:122] Setting up Convolution10
I1001 09:18:31.348476  4916 net.cpp:129] Top shape: 100 32 14 14 (627200)
I1001 09:18:31.348489  4916 net.cpp:137] Memory required for data: 216698000
I1001 09:18:31.348500  4916 layer_factory.hpp:77] Creating layer BatchNorm10
I1001 09:18:31.348516  4916 net.cpp:84] Creating Layer BatchNorm10
I1001 09:18:31.348520  4916 net.cpp:406] BatchNorm10 <- Convolution10
I1001 09:18:31.348533  4916 net.cpp:367] BatchNorm10 -> Convolution10 (in-place)
I1001 09:18:31.348665  4916 net.cpp:122] Setting up BatchNorm10
I1001 09:18:31.348671  4916 net.cpp:129] Top shape: 100 32 14 14 (627200)
I1001 09:18:31.348683  4916 net.cpp:137] Memory required for data: 219206800
I1001 09:18:31.348688  4916 layer_factory.hpp:77] Creating layer Scale10
I1001 09:18:31.348693  4916 net.cpp:84] Creating Layer Scale10
I1001 09:18:31.348696  4916 net.cpp:406] Scale10 <- Convolution10
I1001 09:18:31.348701  4916 net.cpp:367] Scale10 -> Convolution10 (in-place)
I1001 09:18:31.348726  4916 layer_factory.hpp:77] Creating layer Scale10
I1001 09:18:31.348801  4916 net.cpp:122] Setting up Scale10
I1001 09:18:31.348808  4916 net.cpp:129] Top shape: 100 32 14 14 (627200)
I1001 09:18:31.348809  4916 net.cpp:137] Memory required for data: 221715600
I1001 09:18:31.348814  4916 layer_factory.hpp:77] Creating layer Eltwise4
I1001 09:18:31.348819  4916 net.cpp:84] Creating Layer Eltwise4
I1001 09:18:31.348824  4916 net.cpp:406] Eltwise4 <- Convolution8
I1001 09:18:31.348826  4916 net.cpp:406] Eltwise4 <- Convolution10
I1001 09:18:31.348830  4916 net.cpp:380] Eltwise4 -> Eltwise4
I1001 09:18:31.348846  4916 net.cpp:122] Setting up Eltwise4
I1001 09:18:31.348851  4916 net.cpp:129] Top shape: 100 32 14 14 (627200)
I1001 09:18:31.348855  4916 net.cpp:137] Memory required for data: 224224400
I1001 09:18:31.348856  4916 layer_factory.hpp:77] Creating layer ReLU9
I1001 09:18:31.348860  4916 net.cpp:84] Creating Layer ReLU9
I1001 09:18:31.348863  4916 net.cpp:406] ReLU9 <- Eltwise4
I1001 09:18:31.348866  4916 net.cpp:367] ReLU9 -> Eltwise4 (in-place)
I1001 09:18:31.349299  4916 net.cpp:122] Setting up ReLU9
I1001 09:18:31.349308  4916 net.cpp:129] Top shape: 100 32 14 14 (627200)
I1001 09:18:31.349313  4916 net.cpp:137] Memory required for data: 226733200
I1001 09:18:31.349314  4916 layer_factory.hpp:77] Creating layer Eltwise4_ReLU9_0_split
I1001 09:18:31.349320  4916 net.cpp:84] Creating Layer Eltwise4_ReLU9_0_split
I1001 09:18:31.349324  4916 net.cpp:406] Eltwise4_ReLU9_0_split <- Eltwise4
I1001 09:18:31.349328  4916 net.cpp:380] Eltwise4_ReLU9_0_split -> Eltwise4_ReLU9_0_split_0
I1001 09:18:31.349333  4916 net.cpp:380] Eltwise4_ReLU9_0_split -> Eltwise4_ReLU9_0_split_1
I1001 09:18:31.349360  4916 net.cpp:122] Setting up Eltwise4_ReLU9_0_split
I1001 09:18:31.349365  4916 net.cpp:129] Top shape: 100 32 14 14 (627200)
I1001 09:18:31.349370  4916 net.cpp:129] Top shape: 100 32 14 14 (627200)
I1001 09:18:31.349372  4916 net.cpp:137] Memory required for data: 231750800
I1001 09:18:31.349375  4916 layer_factory.hpp:77] Creating layer Convolution11
I1001 09:18:31.349381  4916 net.cpp:84] Creating Layer Convolution11
I1001 09:18:31.349385  4916 net.cpp:406] Convolution11 <- Eltwise4_ReLU9_0_split_0
I1001 09:18:31.349390  4916 net.cpp:380] Convolution11 -> Convolution11
I1001 09:18:31.350097  4916 net.cpp:122] Setting up Convolution11
I1001 09:18:31.350106  4916 net.cpp:129] Top shape: 100 32 14 14 (627200)
I1001 09:18:31.350109  4916 net.cpp:137] Memory required for data: 234259600
I1001 09:18:31.350114  4916 layer_factory.hpp:77] Creating layer BatchNorm11
I1001 09:18:31.350127  4916 net.cpp:84] Creating Layer BatchNorm11
I1001 09:18:31.350131  4916 net.cpp:406] BatchNorm11 <- Convolution11
I1001 09:18:31.350136  4916 net.cpp:367] BatchNorm11 -> Convolution11 (in-place)
I1001 09:18:31.350262  4916 net.cpp:122] Setting up BatchNorm11
I1001 09:18:31.350267  4916 net.cpp:129] Top shape: 100 32 14 14 (627200)
I1001 09:18:31.350270  4916 net.cpp:137] Memory required for data: 236768400
I1001 09:18:31.350275  4916 layer_factory.hpp:77] Creating layer Scale11
I1001 09:18:31.350281  4916 net.cpp:84] Creating Layer Scale11
I1001 09:18:31.350283  4916 net.cpp:406] Scale11 <- Convolution11
I1001 09:18:31.350286  4916 net.cpp:367] Scale11 -> Convolution11 (in-place)
I1001 09:18:31.350313  4916 layer_factory.hpp:77] Creating layer Scale11
I1001 09:18:31.350389  4916 net.cpp:122] Setting up Scale11
I1001 09:18:31.350394  4916 net.cpp:129] Top shape: 100 32 14 14 (627200)
I1001 09:18:31.350397  4916 net.cpp:137] Memory required for data: 239277200
I1001 09:18:31.350401  4916 layer_factory.hpp:77] Creating layer ReLU10
I1001 09:18:31.350407  4916 net.cpp:84] Creating Layer ReLU10
I1001 09:18:31.350410  4916 net.cpp:406] ReLU10 <- Convolution11
I1001 09:18:31.350414  4916 net.cpp:367] ReLU10 -> Convolution11 (in-place)
I1001 09:18:31.350869  4916 net.cpp:122] Setting up ReLU10
I1001 09:18:31.350879  4916 net.cpp:129] Top shape: 100 32 14 14 (627200)
I1001 09:18:31.350883  4916 net.cpp:137] Memory required for data: 241786000
I1001 09:18:31.350885  4916 layer_factory.hpp:77] Creating layer Convolution12
I1001 09:18:31.350893  4916 net.cpp:84] Creating Layer Convolution12
I1001 09:18:31.350898  4916 net.cpp:406] Convolution12 <- Convolution11
I1001 09:18:31.350901  4916 net.cpp:380] Convolution12 -> Convolution12
I1001 09:18:31.351935  4916 net.cpp:122] Setting up Convolution12
I1001 09:18:31.351945  4916 net.cpp:129] Top shape: 100 32 14 14 (627200)
I1001 09:18:31.351949  4916 net.cpp:137] Memory required for data: 244294800
I1001 09:18:31.351953  4916 layer_factory.hpp:77] Creating layer BatchNorm12
I1001 09:18:31.351959  4916 net.cpp:84] Creating Layer BatchNorm12
I1001 09:18:31.351963  4916 net.cpp:406] BatchNorm12 <- Convolution12
I1001 09:18:31.351968  4916 net.cpp:367] BatchNorm12 -> Convolution12 (in-place)
I1001 09:18:31.352097  4916 net.cpp:122] Setting up BatchNorm12
I1001 09:18:31.352102  4916 net.cpp:129] Top shape: 100 32 14 14 (627200)
I1001 09:18:31.352104  4916 net.cpp:137] Memory required for data: 246803600
I1001 09:18:31.352109  4916 layer_factory.hpp:77] Creating layer Scale12
I1001 09:18:31.352114  4916 net.cpp:84] Creating Layer Scale12
I1001 09:18:31.352118  4916 net.cpp:406] Scale12 <- Convolution12
I1001 09:18:31.352121  4916 net.cpp:367] Scale12 -> Convolution12 (in-place)
I1001 09:18:31.352149  4916 layer_factory.hpp:77] Creating layer Scale12
I1001 09:18:31.352222  4916 net.cpp:122] Setting up Scale12
I1001 09:18:31.352227  4916 net.cpp:129] Top shape: 100 32 14 14 (627200)
I1001 09:18:31.352231  4916 net.cpp:137] Memory required for data: 249312400
I1001 09:18:31.352234  4916 layer_factory.hpp:77] Creating layer Eltwise5
I1001 09:18:31.352241  4916 net.cpp:84] Creating Layer Eltwise5
I1001 09:18:31.352243  4916 net.cpp:406] Eltwise5 <- Eltwise4_ReLU9_0_split_1
I1001 09:18:31.352246  4916 net.cpp:406] Eltwise5 <- Convolution12
I1001 09:18:31.352250  4916 net.cpp:380] Eltwise5 -> Eltwise5
I1001 09:18:31.352267  4916 net.cpp:122] Setting up Eltwise5
I1001 09:18:31.352272  4916 net.cpp:129] Top shape: 100 32 14 14 (627200)
I1001 09:18:31.352274  4916 net.cpp:137] Memory required for data: 251821200
I1001 09:18:31.352277  4916 layer_factory.hpp:77] Creating layer ReLU11
I1001 09:18:31.352280  4916 net.cpp:84] Creating Layer ReLU11
I1001 09:18:31.352283  4916 net.cpp:406] ReLU11 <- Eltwise5
I1001 09:18:31.352288  4916 net.cpp:367] ReLU11 -> Eltwise5 (in-place)
I1001 09:18:31.352401  4916 net.cpp:122] Setting up ReLU11
I1001 09:18:31.352408  4916 net.cpp:129] Top shape: 100 32 14 14 (627200)
I1001 09:18:31.352411  4916 net.cpp:137] Memory required for data: 254330000
I1001 09:18:31.352421  4916 layer_factory.hpp:77] Creating layer Eltwise5_ReLU11_0_split
I1001 09:18:31.352427  4916 net.cpp:84] Creating Layer Eltwise5_ReLU11_0_split
I1001 09:18:31.352429  4916 net.cpp:406] Eltwise5_ReLU11_0_split <- Eltwise5
I1001 09:18:31.352434  4916 net.cpp:380] Eltwise5_ReLU11_0_split -> Eltwise5_ReLU11_0_split_0
I1001 09:18:31.352439  4916 net.cpp:380] Eltwise5_ReLU11_0_split -> Eltwise5_ReLU11_0_split_1
I1001 09:18:31.352465  4916 net.cpp:122] Setting up Eltwise5_ReLU11_0_split
I1001 09:18:31.352470  4916 net.cpp:129] Top shape: 100 32 14 14 (627200)
I1001 09:18:31.352474  4916 net.cpp:129] Top shape: 100 32 14 14 (627200)
I1001 09:18:31.352478  4916 net.cpp:137] Memory required for data: 259347600
I1001 09:18:31.352479  4916 layer_factory.hpp:77] Creating layer Convolution13
I1001 09:18:31.352486  4916 net.cpp:84] Creating Layer Convolution13
I1001 09:18:31.352490  4916 net.cpp:406] Convolution13 <- Eltwise5_ReLU11_0_split_0
I1001 09:18:31.352494  4916 net.cpp:380] Convolution13 -> Convolution13
I1001 09:18:31.353549  4916 net.cpp:122] Setting up Convolution13
I1001 09:18:31.353559  4916 net.cpp:129] Top shape: 100 32 14 14 (627200)
I1001 09:18:31.353564  4916 net.cpp:137] Memory required for data: 261856400
I1001 09:18:31.353567  4916 layer_factory.hpp:77] Creating layer BatchNorm13
I1001 09:18:31.353574  4916 net.cpp:84] Creating Layer BatchNorm13
I1001 09:18:31.353577  4916 net.cpp:406] BatchNorm13 <- Convolution13
I1001 09:18:31.353581  4916 net.cpp:367] BatchNorm13 -> Convolution13 (in-place)
I1001 09:18:31.353709  4916 net.cpp:122] Setting up BatchNorm13
I1001 09:18:31.353715  4916 net.cpp:129] Top shape: 100 32 14 14 (627200)
I1001 09:18:31.353718  4916 net.cpp:137] Memory required for data: 264365200
I1001 09:18:31.353724  4916 layer_factory.hpp:77] Creating layer Scale13
I1001 09:18:31.353727  4916 net.cpp:84] Creating Layer Scale13
I1001 09:18:31.353731  4916 net.cpp:406] Scale13 <- Convolution13
I1001 09:18:31.353734  4916 net.cpp:367] Scale13 -> Convolution13 (in-place)
I1001 09:18:31.353762  4916 layer_factory.hpp:77] Creating layer Scale13
I1001 09:18:31.353837  4916 net.cpp:122] Setting up Scale13
I1001 09:18:31.353842  4916 net.cpp:129] Top shape: 100 32 14 14 (627200)
I1001 09:18:31.353845  4916 net.cpp:137] Memory required for data: 266874000
I1001 09:18:31.353849  4916 layer_factory.hpp:77] Creating layer ReLU12
I1001 09:18:31.353854  4916 net.cpp:84] Creating Layer ReLU12
I1001 09:18:31.353857  4916 net.cpp:406] ReLU12 <- Convolution13
I1001 09:18:31.353862  4916 net.cpp:367] ReLU12 -> Convolution13 (in-place)
I1001 09:18:31.353974  4916 net.cpp:122] Setting up ReLU12
I1001 09:18:31.353981  4916 net.cpp:129] Top shape: 100 32 14 14 (627200)
I1001 09:18:31.353984  4916 net.cpp:137] Memory required for data: 269382800
I1001 09:18:31.353987  4916 layer_factory.hpp:77] Creating layer Convolution14
I1001 09:18:31.353996  4916 net.cpp:84] Creating Layer Convolution14
I1001 09:18:31.353999  4916 net.cpp:406] Convolution14 <- Convolution13
I1001 09:18:31.354004  4916 net.cpp:380] Convolution14 -> Convolution14
I1001 09:18:31.355068  4916 net.cpp:122] Setting up Convolution14
I1001 09:18:31.355079  4916 net.cpp:129] Top shape: 100 32 14 14 (627200)
I1001 09:18:31.355083  4916 net.cpp:137] Memory required for data: 271891600
I1001 09:18:31.355103  4916 layer_factory.hpp:77] Creating layer BatchNorm14
I1001 09:18:31.355111  4916 net.cpp:84] Creating Layer BatchNorm14
I1001 09:18:31.355115  4916 net.cpp:406] BatchNorm14 <- Convolution14
I1001 09:18:31.355129  4916 net.cpp:367] BatchNorm14 -> Convolution14 (in-place)
I1001 09:18:31.355260  4916 net.cpp:122] Setting up BatchNorm14
I1001 09:18:31.355267  4916 net.cpp:129] Top shape: 100 32 14 14 (627200)
I1001 09:18:31.355268  4916 net.cpp:137] Memory required for data: 274400400
I1001 09:18:31.355274  4916 layer_factory.hpp:77] Creating layer Scale14
I1001 09:18:31.355279  4916 net.cpp:84] Creating Layer Scale14
I1001 09:18:31.355283  4916 net.cpp:406] Scale14 <- Convolution14
I1001 09:18:31.355293  4916 net.cpp:367] Scale14 -> Convolution14 (in-place)
I1001 09:18:31.355330  4916 layer_factory.hpp:77] Creating layer Scale14
I1001 09:18:31.355415  4916 net.cpp:122] Setting up Scale14
I1001 09:18:31.355420  4916 net.cpp:129] Top shape: 100 32 14 14 (627200)
I1001 09:18:31.355423  4916 net.cpp:137] Memory required for data: 276909200
I1001 09:18:31.355427  4916 layer_factory.hpp:77] Creating layer Eltwise6
I1001 09:18:31.355432  4916 net.cpp:84] Creating Layer Eltwise6
I1001 09:18:31.355437  4916 net.cpp:406] Eltwise6 <- Eltwise5_ReLU11_0_split_1
I1001 09:18:31.355438  4916 net.cpp:406] Eltwise6 <- Convolution14
I1001 09:18:31.355443  4916 net.cpp:380] Eltwise6 -> Eltwise6
I1001 09:18:31.355458  4916 net.cpp:122] Setting up Eltwise6
I1001 09:18:31.355461  4916 net.cpp:129] Top shape: 100 32 14 14 (627200)
I1001 09:18:31.355463  4916 net.cpp:137] Memory required for data: 279418000
I1001 09:18:31.355465  4916 layer_factory.hpp:77] Creating layer ReLU13
I1001 09:18:31.355468  4916 net.cpp:84] Creating Layer ReLU13
I1001 09:18:31.355471  4916 net.cpp:406] ReLU13 <- Eltwise6
I1001 09:18:31.355474  4916 net.cpp:367] ReLU13 -> Eltwise6 (in-place)
I1001 09:18:31.355587  4916 net.cpp:122] Setting up ReLU13
I1001 09:18:31.355592  4916 net.cpp:129] Top shape: 100 32 14 14 (627200)
I1001 09:18:31.355594  4916 net.cpp:137] Memory required for data: 281926800
I1001 09:18:31.355597  4916 layer_factory.hpp:77] Creating layer Eltwise6_ReLU13_0_split
I1001 09:18:31.355602  4916 net.cpp:84] Creating Layer Eltwise6_ReLU13_0_split
I1001 09:18:31.355605  4916 net.cpp:406] Eltwise6_ReLU13_0_split <- Eltwise6
I1001 09:18:31.355608  4916 net.cpp:380] Eltwise6_ReLU13_0_split -> Eltwise6_ReLU13_0_split_0
I1001 09:18:31.355612  4916 net.cpp:380] Eltwise6_ReLU13_0_split -> Eltwise6_ReLU13_0_split_1
I1001 09:18:31.355638  4916 net.cpp:122] Setting up Eltwise6_ReLU13_0_split
I1001 09:18:31.355643  4916 net.cpp:129] Top shape: 100 32 14 14 (627200)
I1001 09:18:31.355645  4916 net.cpp:129] Top shape: 100 32 14 14 (627200)
I1001 09:18:31.355648  4916 net.cpp:137] Memory required for data: 286944400
I1001 09:18:31.355649  4916 layer_factory.hpp:77] Creating layer Convolution15
I1001 09:18:31.355656  4916 net.cpp:84] Creating Layer Convolution15
I1001 09:18:31.355659  4916 net.cpp:406] Convolution15 <- Eltwise6_ReLU13_0_split_0
I1001 09:18:31.355664  4916 net.cpp:380] Convolution15 -> Convolution15
I1001 09:18:31.356573  4916 net.cpp:122] Setting up Convolution15
I1001 09:18:31.356582  4916 net.cpp:129] Top shape: 100 64 7 7 (313600)
I1001 09:18:31.356585  4916 net.cpp:137] Memory required for data: 288198800
I1001 09:18:31.356590  4916 layer_factory.hpp:77] Creating layer BatchNorm15
I1001 09:18:31.356595  4916 net.cpp:84] Creating Layer BatchNorm15
I1001 09:18:31.356597  4916 net.cpp:406] BatchNorm15 <- Convolution15
I1001 09:18:31.356601  4916 net.cpp:367] BatchNorm15 -> Convolution15 (in-place)
I1001 09:18:31.356729  4916 net.cpp:122] Setting up BatchNorm15
I1001 09:18:31.356734  4916 net.cpp:129] Top shape: 100 64 7 7 (313600)
I1001 09:18:31.356735  4916 net.cpp:137] Memory required for data: 289453200
I1001 09:18:31.356739  4916 layer_factory.hpp:77] Creating layer Scale15
I1001 09:18:31.356744  4916 net.cpp:84] Creating Layer Scale15
I1001 09:18:31.356746  4916 net.cpp:406] Scale15 <- Convolution15
I1001 09:18:31.356750  4916 net.cpp:367] Scale15 -> Convolution15 (in-place)
I1001 09:18:31.356776  4916 layer_factory.hpp:77] Creating layer Scale15
I1001 09:18:31.356850  4916 net.cpp:122] Setting up Scale15
I1001 09:18:31.356855  4916 net.cpp:129] Top shape: 100 64 7 7 (313600)
I1001 09:18:31.356858  4916 net.cpp:137] Memory required for data: 290707600
I1001 09:18:31.356861  4916 layer_factory.hpp:77] Creating layer Convolution16
I1001 09:18:31.356868  4916 net.cpp:84] Creating Layer Convolution16
I1001 09:18:31.356870  4916 net.cpp:406] Convolution16 <- Eltwise6_ReLU13_0_split_1
I1001 09:18:31.356874  4916 net.cpp:380] Convolution16 -> Convolution16
I1001 09:18:31.358662  4916 net.cpp:122] Setting up Convolution16
I1001 09:18:31.358672  4916 net.cpp:129] Top shape: 100 64 7 7 (313600)
I1001 09:18:31.358681  4916 net.cpp:137] Memory required for data: 291962000
I1001 09:18:31.358686  4916 layer_factory.hpp:77] Creating layer BatchNorm16
I1001 09:18:31.358691  4916 net.cpp:84] Creating Layer BatchNorm16
I1001 09:18:31.358695  4916 net.cpp:406] BatchNorm16 <- Convolution16
I1001 09:18:31.358698  4916 net.cpp:367] BatchNorm16 -> Convolution16 (in-place)
I1001 09:18:31.358830  4916 net.cpp:122] Setting up BatchNorm16
I1001 09:18:31.358834  4916 net.cpp:129] Top shape: 100 64 7 7 (313600)
I1001 09:18:31.358837  4916 net.cpp:137] Memory required for data: 293216400
I1001 09:18:31.358841  4916 layer_factory.hpp:77] Creating layer Scale16
I1001 09:18:31.358845  4916 net.cpp:84] Creating Layer Scale16
I1001 09:18:31.358849  4916 net.cpp:406] Scale16 <- Convolution16
I1001 09:18:31.358851  4916 net.cpp:367] Scale16 -> Convolution16 (in-place)
I1001 09:18:31.358880  4916 layer_factory.hpp:77] Creating layer Scale16
I1001 09:18:31.358952  4916 net.cpp:122] Setting up Scale16
I1001 09:18:31.358958  4916 net.cpp:129] Top shape: 100 64 7 7 (313600)
I1001 09:18:31.358959  4916 net.cpp:137] Memory required for data: 294470800
I1001 09:18:31.358963  4916 layer_factory.hpp:77] Creating layer ReLU14
I1001 09:18:31.358968  4916 net.cpp:84] Creating Layer ReLU14
I1001 09:18:31.358969  4916 net.cpp:406] ReLU14 <- Convolution16
I1001 09:18:31.358973  4916 net.cpp:367] ReLU14 -> Convolution16 (in-place)
I1001 09:18:31.359086  4916 net.cpp:122] Setting up ReLU14
I1001 09:18:31.359092  4916 net.cpp:129] Top shape: 100 64 7 7 (313600)
I1001 09:18:31.359094  4916 net.cpp:137] Memory required for data: 295725200
I1001 09:18:31.359097  4916 layer_factory.hpp:77] Creating layer Convolution17
I1001 09:18:31.359104  4916 net.cpp:84] Creating Layer Convolution17
I1001 09:18:31.359107  4916 net.cpp:406] Convolution17 <- Convolution16
I1001 09:18:31.359112  4916 net.cpp:380] Convolution17 -> Convolution17
I1001 09:18:31.361445  4916 net.cpp:122] Setting up Convolution17
I1001 09:18:31.361465  4916 net.cpp:129] Top shape: 100 64 7 7 (313600)
I1001 09:18:31.361469  4916 net.cpp:137] Memory required for data: 296979600
I1001 09:18:31.361474  4916 layer_factory.hpp:77] Creating layer BatchNorm17
I1001 09:18:31.361490  4916 net.cpp:84] Creating Layer BatchNorm17
I1001 09:18:31.361492  4916 net.cpp:406] BatchNorm17 <- Convolution17
I1001 09:18:31.361497  4916 net.cpp:367] BatchNorm17 -> Convolution17 (in-place)
I1001 09:18:31.361650  4916 net.cpp:122] Setting up BatchNorm17
I1001 09:18:31.361655  4916 net.cpp:129] Top shape: 100 64 7 7 (313600)
I1001 09:18:31.361667  4916 net.cpp:137] Memory required for data: 298234000
I1001 09:18:31.361672  4916 layer_factory.hpp:77] Creating layer Scale17
I1001 09:18:31.361687  4916 net.cpp:84] Creating Layer Scale17
I1001 09:18:31.361691  4916 net.cpp:406] Scale17 <- Convolution17
I1001 09:18:31.361696  4916 net.cpp:367] Scale17 -> Convolution17 (in-place)
I1001 09:18:31.361724  4916 layer_factory.hpp:77] Creating layer Scale17
I1001 09:18:31.361819  4916 net.cpp:122] Setting up Scale17
I1001 09:18:31.361826  4916 net.cpp:129] Top shape: 100 64 7 7 (313600)
I1001 09:18:31.361829  4916 net.cpp:137] Memory required for data: 299488400
I1001 09:18:31.361834  4916 layer_factory.hpp:77] Creating layer Eltwise7
I1001 09:18:31.361840  4916 net.cpp:84] Creating Layer Eltwise7
I1001 09:18:31.361842  4916 net.cpp:406] Eltwise7 <- Convolution15
I1001 09:18:31.361845  4916 net.cpp:406] Eltwise7 <- Convolution17
I1001 09:18:31.361851  4916 net.cpp:380] Eltwise7 -> Eltwise7
I1001 09:18:31.361870  4916 net.cpp:122] Setting up Eltwise7
I1001 09:18:31.361874  4916 net.cpp:129] Top shape: 100 64 7 7 (313600)
I1001 09:18:31.361877  4916 net.cpp:137] Memory required for data: 300742800
I1001 09:18:31.361879  4916 layer_factory.hpp:77] Creating layer ReLU15
I1001 09:18:31.361883  4916 net.cpp:84] Creating Layer ReLU15
I1001 09:18:31.361886  4916 net.cpp:406] ReLU15 <- Eltwise7
I1001 09:18:31.361888  4916 net.cpp:367] ReLU15 -> Eltwise7 (in-place)
I1001 09:18:31.362037  4916 net.cpp:122] Setting up ReLU15
I1001 09:18:31.362056  4916 net.cpp:129] Top shape: 100 64 7 7 (313600)
I1001 09:18:31.362061  4916 net.cpp:137] Memory required for data: 301997200
I1001 09:18:31.362064  4916 layer_factory.hpp:77] Creating layer Eltwise7_ReLU15_0_split
I1001 09:18:31.362071  4916 net.cpp:84] Creating Layer Eltwise7_ReLU15_0_split
I1001 09:18:31.362078  4916 net.cpp:406] Eltwise7_ReLU15_0_split <- Eltwise7
I1001 09:18:31.362084  4916 net.cpp:380] Eltwise7_ReLU15_0_split -> Eltwise7_ReLU15_0_split_0
I1001 09:18:31.362092  4916 net.cpp:380] Eltwise7_ReLU15_0_split -> Eltwise7_ReLU15_0_split_1
I1001 09:18:31.362134  4916 net.cpp:122] Setting up Eltwise7_ReLU15_0_split
I1001 09:18:31.362143  4916 net.cpp:129] Top shape: 100 64 7 7 (313600)
I1001 09:18:31.362149  4916 net.cpp:129] Top shape: 100 64 7 7 (313600)
I1001 09:18:31.362151  4916 net.cpp:137] Memory required for data: 304506000
I1001 09:18:31.362156  4916 layer_factory.hpp:77] Creating layer Convolution18
I1001 09:18:31.362164  4916 net.cpp:84] Creating Layer Convolution18
I1001 09:18:31.362166  4916 net.cpp:406] Convolution18 <- Eltwise7_ReLU15_0_split_0
I1001 09:18:31.362172  4916 net.cpp:380] Convolution18 -> Convolution18
I1001 09:18:31.363886  4916 net.cpp:122] Setting up Convolution18
I1001 09:18:31.363898  4916 net.cpp:129] Top shape: 100 64 7 7 (313600)
I1001 09:18:31.363904  4916 net.cpp:137] Memory required for data: 305760400
I1001 09:18:31.363911  4916 layer_factory.hpp:77] Creating layer BatchNorm18
I1001 09:18:31.363922  4916 net.cpp:84] Creating Layer BatchNorm18
I1001 09:18:31.363929  4916 net.cpp:406] BatchNorm18 <- Convolution18
I1001 09:18:31.363945  4916 net.cpp:367] BatchNorm18 -> Convolution18 (in-place)
I1001 09:18:31.364116  4916 net.cpp:122] Setting up BatchNorm18
I1001 09:18:31.364125  4916 net.cpp:129] Top shape: 100 64 7 7 (313600)
I1001 09:18:31.364128  4916 net.cpp:137] Memory required for data: 307014800
I1001 09:18:31.364146  4916 layer_factory.hpp:77] Creating layer Scale18
I1001 09:18:31.364164  4916 net.cpp:84] Creating Layer Scale18
I1001 09:18:31.364171  4916 net.cpp:406] Scale18 <- Convolution18
I1001 09:18:31.364187  4916 net.cpp:367] Scale18 -> Convolution18 (in-place)
I1001 09:18:31.364241  4916 layer_factory.hpp:77] Creating layer Scale18
I1001 09:18:31.364326  4916 net.cpp:122] Setting up Scale18
I1001 09:18:31.364333  4916 net.cpp:129] Top shape: 100 64 7 7 (313600)
I1001 09:18:31.364338  4916 net.cpp:137] Memory required for data: 308269200
I1001 09:18:31.364346  4916 layer_factory.hpp:77] Creating layer ReLU16
I1001 09:18:31.364353  4916 net.cpp:84] Creating Layer ReLU16
I1001 09:18:31.364358  4916 net.cpp:406] ReLU16 <- Convolution18
I1001 09:18:31.364364  4916 net.cpp:367] ReLU16 -> Convolution18 (in-place)
I1001 09:18:31.364810  4916 net.cpp:122] Setting up ReLU16
I1001 09:18:31.364830  4916 net.cpp:129] Top shape: 100 64 7 7 (313600)
I1001 09:18:31.364835  4916 net.cpp:137] Memory required for data: 309523600
I1001 09:18:31.364840  4916 layer_factory.hpp:77] Creating layer Convolution19
I1001 09:18:31.364850  4916 net.cpp:84] Creating Layer Convolution19
I1001 09:18:31.364856  4916 net.cpp:406] Convolution19 <- Convolution18
I1001 09:18:31.364874  4916 net.cpp:380] Convolution19 -> Convolution19
I1001 09:18:31.366853  4916 net.cpp:122] Setting up Convolution19
I1001 09:18:31.366864  4916 net.cpp:129] Top shape: 100 64 7 7 (313600)
I1001 09:18:31.366869  4916 net.cpp:137] Memory required for data: 310778000
I1001 09:18:31.366888  4916 layer_factory.hpp:77] Creating layer BatchNorm19
I1001 09:18:31.366897  4916 net.cpp:84] Creating Layer BatchNorm19
I1001 09:18:31.366904  4916 net.cpp:406] BatchNorm19 <- Convolution19
I1001 09:18:31.366911  4916 net.cpp:367] BatchNorm19 -> Convolution19 (in-place)
I1001 09:18:31.367059  4916 net.cpp:122] Setting up BatchNorm19
I1001 09:18:31.367067  4916 net.cpp:129] Top shape: 100 64 7 7 (313600)
I1001 09:18:31.367071  4916 net.cpp:137] Memory required for data: 312032400
I1001 09:18:31.367095  4916 layer_factory.hpp:77] Creating layer Scale19
I1001 09:18:31.367103  4916 net.cpp:84] Creating Layer Scale19
I1001 09:18:31.367115  4916 net.cpp:406] Scale19 <- Convolution19
I1001 09:18:31.367123  4916 net.cpp:367] Scale19 -> Convolution19 (in-place)
I1001 09:18:31.367158  4916 layer_factory.hpp:77] Creating layer Scale19
I1001 09:18:31.367244  4916 net.cpp:122] Setting up Scale19
I1001 09:18:31.367252  4916 net.cpp:129] Top shape: 100 64 7 7 (313600)
I1001 09:18:31.367256  4916 net.cpp:137] Memory required for data: 313286800
I1001 09:18:31.367264  4916 layer_factory.hpp:77] Creating layer Eltwise8
I1001 09:18:31.367271  4916 net.cpp:84] Creating Layer Eltwise8
I1001 09:18:31.367277  4916 net.cpp:406] Eltwise8 <- Eltwise7_ReLU15_0_split_1
I1001 09:18:31.367283  4916 net.cpp:406] Eltwise8 <- Convolution19
I1001 09:18:31.367290  4916 net.cpp:380] Eltwise8 -> Eltwise8
I1001 09:18:31.367311  4916 net.cpp:122] Setting up Eltwise8
I1001 09:18:31.367318  4916 net.cpp:129] Top shape: 100 64 7 7 (313600)
I1001 09:18:31.367322  4916 net.cpp:137] Memory required for data: 314541200
I1001 09:18:31.367327  4916 layer_factory.hpp:77] Creating layer ReLU17
I1001 09:18:31.367336  4916 net.cpp:84] Creating Layer ReLU17
I1001 09:18:31.367341  4916 net.cpp:406] ReLU17 <- Eltwise8
I1001 09:18:31.367346  4916 net.cpp:367] ReLU17 -> Eltwise8 (in-place)
I1001 09:18:31.367467  4916 net.cpp:122] Setting up ReLU17
I1001 09:18:31.367476  4916 net.cpp:129] Top shape: 100 64 7 7 (313600)
I1001 09:18:31.367480  4916 net.cpp:137] Memory required for data: 315795600
I1001 09:18:31.367486  4916 layer_factory.hpp:77] Creating layer Eltwise8_ReLU17_0_split
I1001 09:18:31.367493  4916 net.cpp:84] Creating Layer Eltwise8_ReLU17_0_split
I1001 09:18:31.367498  4916 net.cpp:406] Eltwise8_ReLU17_0_split <- Eltwise8
I1001 09:18:31.367504  4916 net.cpp:380] Eltwise8_ReLU17_0_split -> Eltwise8_ReLU17_0_split_0
I1001 09:18:31.367513  4916 net.cpp:380] Eltwise8_ReLU17_0_split -> Eltwise8_ReLU17_0_split_1
I1001 09:18:31.367545  4916 net.cpp:122] Setting up Eltwise8_ReLU17_0_split
I1001 09:18:31.367552  4916 net.cpp:129] Top shape: 100 64 7 7 (313600)
I1001 09:18:31.367558  4916 net.cpp:129] Top shape: 100 64 7 7 (313600)
I1001 09:18:31.367563  4916 net.cpp:137] Memory required for data: 318304400
I1001 09:18:31.367566  4916 layer_factory.hpp:77] Creating layer Convolution20
I1001 09:18:31.367578  4916 net.cpp:84] Creating Layer Convolution20
I1001 09:18:31.367583  4916 net.cpp:406] Convolution20 <- Eltwise8_ReLU17_0_split_0
I1001 09:18:31.367590  4916 net.cpp:380] Convolution20 -> Convolution20
I1001 09:18:31.369217  4916 net.cpp:122] Setting up Convolution20
I1001 09:18:31.369228  4916 net.cpp:129] Top shape: 100 64 7 7 (313600)
I1001 09:18:31.369233  4916 net.cpp:137] Memory required for data: 319558800
I1001 09:18:31.369240  4916 layer_factory.hpp:77] Creating layer BatchNorm20
I1001 09:18:31.369249  4916 net.cpp:84] Creating Layer BatchNorm20
I1001 09:18:31.369256  4916 net.cpp:406] BatchNorm20 <- Convolution20
I1001 09:18:31.369261  4916 net.cpp:367] BatchNorm20 -> Convolution20 (in-place)
I1001 09:18:31.369398  4916 net.cpp:122] Setting up BatchNorm20
I1001 09:18:31.369405  4916 net.cpp:129] Top shape: 100 64 7 7 (313600)
I1001 09:18:31.369410  4916 net.cpp:137] Memory required for data: 320813200
I1001 09:18:31.369417  4916 layer_factory.hpp:77] Creating layer Scale20
I1001 09:18:31.369424  4916 net.cpp:84] Creating Layer Scale20
I1001 09:18:31.369429  4916 net.cpp:406] Scale20 <- Convolution20
I1001 09:18:31.369436  4916 net.cpp:367] Scale20 -> Convolution20 (in-place)
I1001 09:18:31.369469  4916 layer_factory.hpp:77] Creating layer Scale20
I1001 09:18:31.369552  4916 net.cpp:122] Setting up Scale20
I1001 09:18:31.369560  4916 net.cpp:129] Top shape: 100 64 7 7 (313600)
I1001 09:18:31.369563  4916 net.cpp:137] Memory required for data: 322067600
I1001 09:18:31.369570  4916 layer_factory.hpp:77] Creating layer ReLU18
I1001 09:18:31.369578  4916 net.cpp:84] Creating Layer ReLU18
I1001 09:18:31.369583  4916 net.cpp:406] ReLU18 <- Convolution20
I1001 09:18:31.369588  4916 net.cpp:367] ReLU18 -> Convolution20 (in-place)
I1001 09:18:31.369710  4916 net.cpp:122] Setting up ReLU18
I1001 09:18:31.369724  4916 net.cpp:129] Top shape: 100 64 7 7 (313600)
I1001 09:18:31.369732  4916 net.cpp:137] Memory required for data: 323322000
I1001 09:18:31.369737  4916 layer_factory.hpp:77] Creating layer Convolution21
I1001 09:18:31.369748  4916 net.cpp:84] Creating Layer Convolution21
I1001 09:18:31.369752  4916 net.cpp:406] Convolution21 <- Convolution20
I1001 09:18:31.369756  4916 net.cpp:380] Convolution21 -> Convolution21
I1001 09:18:31.371687  4916 net.cpp:122] Setting up Convolution21
I1001 09:18:31.371695  4916 net.cpp:129] Top shape: 100 64 7 7 (313600)
I1001 09:18:31.371698  4916 net.cpp:137] Memory required for data: 324576400
I1001 09:18:31.371703  4916 layer_factory.hpp:77] Creating layer BatchNorm21
I1001 09:18:31.371709  4916 net.cpp:84] Creating Layer BatchNorm21
I1001 09:18:31.371712  4916 net.cpp:406] BatchNorm21 <- Convolution21
I1001 09:18:31.371716  4916 net.cpp:367] BatchNorm21 -> Convolution21 (in-place)
I1001 09:18:31.371850  4916 net.cpp:122] Setting up BatchNorm21
I1001 09:18:31.371855  4916 net.cpp:129] Top shape: 100 64 7 7 (313600)
I1001 09:18:31.371856  4916 net.cpp:137] Memory required for data: 325830800
I1001 09:18:31.371860  4916 layer_factory.hpp:77] Creating layer Scale21
I1001 09:18:31.371865  4916 net.cpp:84] Creating Layer Scale21
I1001 09:18:31.371867  4916 net.cpp:406] Scale21 <- Convolution21
I1001 09:18:31.371870  4916 net.cpp:367] Scale21 -> Convolution21 (in-place)
I1001 09:18:31.371897  4916 layer_factory.hpp:77] Creating layer Scale21
I1001 09:18:31.371973  4916 net.cpp:122] Setting up Scale21
I1001 09:18:31.371978  4916 net.cpp:129] Top shape: 100 64 7 7 (313600)
I1001 09:18:31.371979  4916 net.cpp:137] Memory required for data: 327085200
I1001 09:18:31.371982  4916 layer_factory.hpp:77] Creating layer Eltwise9
I1001 09:18:31.371987  4916 net.cpp:84] Creating Layer Eltwise9
I1001 09:18:31.371990  4916 net.cpp:406] Eltwise9 <- Eltwise8_ReLU17_0_split_1
I1001 09:18:31.371992  4916 net.cpp:406] Eltwise9 <- Convolution21
I1001 09:18:31.371995  4916 net.cpp:380] Eltwise9 -> Eltwise9
I1001 09:18:31.372011  4916 net.cpp:122] Setting up Eltwise9
I1001 09:18:31.372014  4916 net.cpp:129] Top shape: 100 64 7 7 (313600)
I1001 09:18:31.372016  4916 net.cpp:137] Memory required for data: 328339600
I1001 09:18:31.372018  4916 layer_factory.hpp:77] Creating layer ReLU19
I1001 09:18:31.372023  4916 net.cpp:84] Creating Layer ReLU19
I1001 09:18:31.372025  4916 net.cpp:406] ReLU19 <- Eltwise9
I1001 09:18:31.372028  4916 net.cpp:367] ReLU19 -> Eltwise9 (in-place)
I1001 09:18:31.372144  4916 net.cpp:122] Setting up ReLU19
I1001 09:18:31.372150  4916 net.cpp:129] Top shape: 100 64 7 7 (313600)
I1001 09:18:31.372153  4916 net.cpp:137] Memory required for data: 329594000
I1001 09:18:31.372155  4916 layer_factory.hpp:77] Creating layer Pooling1
I1001 09:18:31.372159  4916 net.cpp:84] Creating Layer Pooling1
I1001 09:18:31.372161  4916 net.cpp:406] Pooling1 <- Eltwise9
I1001 09:18:31.372165  4916 net.cpp:380] Pooling1 -> Pooling1
I1001 09:18:31.372304  4916 net.cpp:122] Setting up Pooling1
I1001 09:18:31.372310  4916 net.cpp:129] Top shape: 100 64 1 1 (6400)
I1001 09:18:31.372313  4916 net.cpp:137] Memory required for data: 329619600
I1001 09:18:31.372315  4916 layer_factory.hpp:77] Creating layer InnerProduct1
I1001 09:18:31.372324  4916 net.cpp:84] Creating Layer InnerProduct1
I1001 09:18:31.372328  4916 net.cpp:406] InnerProduct1 <- Pooling1
I1001 09:18:31.372330  4916 net.cpp:380] InnerProduct1 -> InnerProduct1
I1001 09:18:31.372426  4916 net.cpp:122] Setting up InnerProduct1
I1001 09:18:31.372431  4916 net.cpp:129] Top shape: 100 10 (1000)
I1001 09:18:31.372432  4916 net.cpp:137] Memory required for data: 329623600
I1001 09:18:31.372437  4916 layer_factory.hpp:77] Creating layer SoftmaxWithLoss1
I1001 09:18:31.372440  4916 net.cpp:84] Creating Layer SoftmaxWithLoss1
I1001 09:18:31.372442  4916 net.cpp:406] SoftmaxWithLoss1 <- InnerProduct1
I1001 09:18:31.372445  4916 net.cpp:406] SoftmaxWithLoss1 <- Data2
I1001 09:18:31.372450  4916 net.cpp:380] SoftmaxWithLoss1 -> SoftmaxWithLoss1
…
I1001 09:18:31.374639  4916 net.cpp:294] The NetState phase (1) differed from the phase (0) specified by a rule in layer Data1
I1001 09:18:31.374991  4916 net.cpp:51] Initializing net from parameters: 
name: "resnet_cifar10"
state {
  phase: TEST
}
layer {
  name: "Data1"
  type: "Data"
  top: "Data1"
  top: "Data2"
  include {
    phase: TEST
  }
  transform_param {
    mean_file: "/home/x306/caffe/xn/PENLU/data/cifar10/mean.binaryproto"
  }
  data_param {
    source: "/home/x306/caffe/xn/PENLU/data/cifar10/cifar10_test_lmdb"
    batch_size: 100
    backend: LMDB
  }
}
layer {
  name: "Convolution1"
  type: "Convolution"
  bottom: "Data1"
  top: "Convolution1"
  param {
    lr_mult: 1
    decay_mult: 1
  }
  param {
    lr_mult: 2
    decay_mult: 0
  }
  convolution_param {
    num_output: 16
    pad: 1
    kernel_size: 3
    stride: 1
    weight_filler {
      type: "gaussian"
      std: 0.118
    }
    bias_filler {
      type: "constant"
      value: 0
    }
  }
}
layer {
  name: "BatchNorm1"
  type: "BatchNorm"
  bottom: "Convolution1"
  top: "Convolution1"
  param {
    lr_mult: 0
    decay_mult: 0
  }
  param {
    lr_mult: 0
    decay_mult: 0
  }
  param {
    lr_mult: 0
    decay_mult: 0
  }
}
layer {
  name: "Scale1"
  type: "Scale"
  bottom: "Convolution1"
  top: "Convolution1"
  scale_param {
    bias_term: true
  }
}
layer {
  name: "ReLU1"
  type: "ReLU"
  bottom: "Convolution1"
  top: "Convolution1"
}
layer {
  name: "Convolution2"
  type: "Convolution"
  bottom: "Convolution1"
  top: "Convolution2"
  param {
    lr_mult: 1
    decay_mult: 1
  }
  param {
    lr_mult: 2
    decay_mult: 0
  }
  convolution_param {
    num_output: 16
    pad: 1
    kernel_size: 3
    stride: 1
    weight_filler {
      type: "gaussian"
      std: 0.118
    }
    bias_filler {
      type: "constant"
      value: 0
    }
  }
}
layer {
  name: "BatchNorm2"
  type: "BatchNorm"
  bottom: "Convolution2"
  top: "Convolution2"
  param {
    lr_mult: 0
    decay_mult: 0
  }
  param {
    lr_mult: 0
    decay_mult: 0
  }
  param {
    lr_mult: 0
    decay_mult: 0
  }
}
layer {
  name: "Scale2"
  type: "Scale"
  bottom: "Convolution2"
  top: "Convolution2"
  scale_param {
    bias_term: true
  }
}
layer {
  name: "ReLU2"
  type: "ReLU"
  bottom: "Convolution2"
  top: "Convolution2"
}
layer {
  name: "Convolution3"
  type: "Convolution"
  bottom: "Convolution2"
  top: "Convolution3"
  param {
    lr_mult: 1
    decay_mult: 1
  }
  param {
    lr_mult: 2
    decay_mult: 0
  }
  convolution_param {
    num_output: 16
    pad: 1
    kernel_size: 3
    stride: 1
    weight_filler {
      type: "gaussian"
      std: 0.118
    }
    bias_filler {
      type: "constant"
      value: 0
    }
  }
}
layer {
  name: "BatchNorm3"
  type: "BatchNorm"
  bottom: "Convolution3"
  top: "Convolution3"
  param {
    lr_mult: 0
    decay_mult: 0
  }
  param {
    lr_mult: 0
    decay_mult: 0
  }
  param {
    lr_mult: 0
    decay_mult: 0
  }
}
layer {
  name: "Scale3"
  type: "Scale"
  bottom: "Convolution3"
  top: "Convolution3"
  scale_param {
    bias_term: true
  }
}
layer {
  name: "Eltwise1"
  type: "Eltwise"
  bottom: "Convolution1"
  bottom: "Convolution3"
  top: "Eltwise1"
  eltwise_param {
    operation: SUM
  }
}
layer {
  name: "ReLU3"
  type: "ReLU"
  bottom: "Eltwise1"
  top: "Eltwise1"
}
layer {
  name: "Convolution4"
  type: "Convolution"
  bottom: "Eltwise1"
  top: "Convolution4"
  param {
    lr_mult: 1
    decay_mult: 1
  }
  param {
    lr_mult: 2
    decay_mult: 0
  }
  convolution_param {
    num_output: 16
    pad: 1
    kernel_size: 3
    stride: 1
    weight_filler {
      type: "gaussian"
      std: 0.118
    }
    bias_filler {
      type: "constant"
      value: 0
    }
  }
}
layer {
  name: "BatchNorm4"
  type: "BatchNorm"
  bottom: "Convolution4"
  top: "Convolution4"
  param {
    lr_mult: 0
    decay_mult: 0
  }
  param {
    lr_mult: 0
    decay_mult: 0
  }
  param {
    lr_mult: 0
    decay_mult: 0
  }
}
layer {
  name: "Scale4"
  type: "Scale"
  bottom: "Convolution4"
  top: "Convolution4"
  scale_param {
    bias_term: true
  }
}
layer {
  name: "ReLU4"
  type: "ReLU"
  bottom: "Convolution4"
  top: "Convolution4"
}
layer {
  name: "Convolution5"
  type: "Convolution"
  bottom: "Convolution4"
  top: "Convolution5"
  param {
    lr_mult: 1
    decay_mult: 1
  }
  param {
    lr_mult: 2
    decay_mult: 0
  }
  convolution_param {
    num_output: 16
    pad: 1
    kernel_size: 3
    stride: 1
    weight_filler {
      type: "gaussian"
      std: 0.118
    }
    bias_filler {
      type: "constant"
      value: 0
    }
  }
}
layer {
  name: "BatchNorm5"
  type: "BatchNorm"
  bottom: "Convolution5"
  top: "Convolution5"
  param {
    lr_mult: 0
    decay_mult: 0
  }
  param {
    lr_mult: 0
    decay_mult: 0
  }
  param {
    lr_mult: 0
    decay_mult: 0
  }
}
layer {
  name: "Scale5"
  type: "Scale"
  bottom: "Convolution5"
  top: "Convolution5"
  scale_param {
    bias_term: true
  }
}
layer {
  name: "Eltwise2"
  type: "Eltwise"
  bottom: "Eltwise1"
  bottom: "Convolution5"
  top: "Eltwise2"
  eltwise_param {
    operation: SUM
  }
}
layer {
  name: "ReLU5"
  type: "ReLU"
  bottom: "Eltwise2"
  top: "Eltwise2"
}
layer {
  name: "Convolution6"
  type: "Convolution"
  bottom: "Eltwise2"
  top: "Convolution6"
  param {
    lr_mult: 1
    decay_mult: 1
  }
  param {
    lr_mult: 2
    decay_mult: 0
  }
  convolution_param {
    num_output: 16
    pad: 1
    kernel_size: 3
    stride: 1
    weight_filler {
      type: "gaussian"
      std: 0.118
    }
    bias_filler {
      type: "constant"
      value: 0
    }
  }
}
layer {
  name: "BatchNorm6"
  type: "BatchNorm"
  bottom: "Convolution6"
  top: "Convolution6"
  param {
    lr_mult: 0
    decay_mult: 0
  }
  param {
    lr_mult: 0
    decay_mult: 0
  }
  param {
    lr_mult: 0
    decay_mult: 0
  }
}
layer {
  name: "Scale6"
  type: "Scale"
  bottom: "Convolution6"
  top: "Convolution6"
  scale_param {
    bias_term: true
  }
}
layer {
  name: "ReLU6"
  type: "ReLU"
  bottom: "Convolution6"
  top: "Convolution6"
}
layer {
  name: "Convolution7"
  type: "Convolution"
  bottom: "Convolution6"
  top: "Convolution7"
  param {
    lr_mult: 1
    decay_mult: 1
  }
  param {
    lr_mult: 2
    decay_mult: 0
  }
  convolution_param {
    num_output: 16
    pad: 1
    kernel_size: 3
    stride: 1
    weight_filler {
      type: "gaussian"
      std: 0.118
    }
    bias_filler {
      type: "constant"
      value: 0
    }
  }
}
layer {
  name: "BatchNorm7"
  type: "BatchNorm"
  bottom: "Convolution7"
  top: "Convolution7"
  param {
    lr_mult: 0
    decay_mult: 0
  }
  param {
    lr_mult: 0
    decay_mult: 0
  }
  param {
    lr_mult: 0
    decay_mult: 0
  }
}
layer {
  name: "Scale7"
  type: "Scale"
  bottom: "Convolution7"
  top: "Convolution7"
  scale_param {
    bias_term: true
  }
}
layer {
  name: "Eltwise3"
  type: "Eltwise"
  bottom: "Eltwise2"
  bottom: "Convolution7"
  top: "Eltwise3"
  eltwise_param {
    operation: SUM
  }
}
layer {
  name: "ReLU7"
  type: "ReLU"
  bottom: "Eltwise3"
  top: "Eltwise3"
}
layer {
  name: "Convolution8"
  type: "Convolution"
  bottom: "Eltwise3"
  top: "Convolution8"
  param {
    lr_mult: 1
    decay_mult: 1
  }
  param {
    lr_mult: 2
    decay_mult: 0
  }
  convolution_param {
    num_output: 32
    pad: 0
    kernel_size: 1
    stride: 2
    weight_filler {
      type: "gaussian"
      std: 0.25
    }
    bias_filler {
      type: "constant"
      value: 0
    }
  }
}
layer {
  name: "BatchNorm8"
  type: "BatchNorm"
  bottom: "Convolution8"
  top: "Convolution8"
  param {
    lr_mult: 0
    decay_mult: 0
  }
  param {
    lr_mult: 0
    decay_mult: 0
  }
  param {
    lr_mult: 0
    decay_mult: 0
  }
}
layer {
  name: "Scale8"
  type: "Scale"
  bottom: "Convolution8"
  top: "Convolution8"
  scale_param {
    bias_term: true
  }
}
layer {
  name: "Convolution9"
  type: "Convolution"
  bottom: "Eltwise3"
  top: "Convolution9"
  param {
    lr_mult: 1
    decay_mult: 1
  }
  param {
    lr_mult: 2
    decay_mult: 0
  }
  convolution_param {
    num_output: 32
    pad: 1
    kernel_size: 3
    stride: 2
    weight_filler {
      type: "gaussian"
      std: 0.083
    }
    bias_filler {
      type: "constant"
      value: 0
    }
  }
}
layer {
  name: "BatchNorm9"
  type: "BatchNorm"
  bottom: "Convolution9"
  top: "Convolution9"
  param {
    lr_mult: 0
    decay_mult: 0
  }
  param {
    lr_mult: 0
    decay_mult: 0
  }
  param {
    lr_mult: 0
    decay_mult: 0
  }
}
layer {
  name: "Scale9"
  type: "Scale"
  bottom: "Convolution9"
  top: "Convolution9"
  scale_param {
    bias_term: true
  }
}
layer {
  name: "ReLU8"
  type: "ReLU"
  bottom: "Convolution9"
  top: "Convolution9"
}
layer {
  name: "Convolution10"
  type: "Convolution"
  bottom: "Convolution9"
  top: "Convolution10"
  param {
    lr_mult: 1
    decay_mult: 1
  }
  param {
    lr_mult: 2
    decay_mult: 0
  }
  convolution_param {
    num_output: 32
    pad: 1
    kernel_size: 3
    stride: 1
    weight_filler {
      type: "gaussian"
      std: 0.083
    }
    bias_filler {
      type: "constant"
      value: 0
    }
  }
}
layer {
  name: "BatchNorm10"
  type: "BatchNorm"
  bottom: "Convolution10"
  top: "Convolution10"
  param {
    lr_mult: 0
    decay_mult: 0
  }
  param {
    lr_mult: 0
    decay_mult: 0
  }
  param {
    lr_mult: 0
    decay_mult: 0
  }
}
layer {
  name: "Scale10"
  type: "Scale"
  bottom: "Convolution10"
  top: "Convolution10"
  scale_param {
    bias_term: true
  }
}
layer {
  name: "Eltwise4"
  type: "Eltwise"
  bottom: "Convolution8"
  bottom: "Convolution10"
  top: "Eltwise4"
  eltwise_param {
    operation: SUM
  }
}
layer {
  name: "ReLU9"
  type: "ReLU"
  bottom: "Eltwise4"
  top: "Eltwise4"
}
layer {
  name: "Convolution11"
  type: "Convolution"
  bottom: "Eltwise4"
  top: "Convolution11"
  param {
    lr_mult: 1
    decay_mult: 1
  }
  param {
    lr_mult: 2
    decay_mult: 0
  }
  convolution_param {
    num_output: 32
    pad: 1
    kernel_size: 3
    stride: 1
    weight_filler {
      type: "gaussian"
      std: 0.083
    }
    bias_filler {
      type: "constant"
      value: 0
    }
  }
}
layer {
  name: "BatchNorm11"
  type: "BatchNorm"
  bottom: "Convolution11"
  top: "Convolution11"
  param {
    lr_mult: 0
    decay_mult: 0
  }
  param {
    lr_mult: 0
    decay_mult: 0
  }
  param {
    lr_mult: 0
    decay_mult: 0
  }
}
layer {
  name: "Scale11"
  type: "Scale"
  bottom: "Convolution11"
  top: "Convolution11"
  scale_param {
    bias_term: true
  }
}
layer {
  name: "ReLU10"
  type: "ReLU"
  bottom: "Convolution11"
  top: "Convolution11"
}
layer {
  name: "Convolution12"
  type: "Convolution"
  bottom: "Convolution11"
  top: "Convolution12"
  param {
    lr_mult: 1
    decay_mult: 1
  }
  param {
    lr_mult: 2
    decay_mult: 0
  }
  convolution_param {
    num_output: 32
    pad: 1
    kernel_size: 3
    stride: 1
    weight_filler {
      type: "gaussian"
      std: 0.083
    }
    bias_filler {
      type: "constant"
      value: 0
    }
  }
}
layer {
  name: "BatchNorm12"
  type: "BatchNorm"
  bottom: "Convolution12"
  top: "Convolution12"
  param {
    lr_mult: 0
    decay_mult: 0
  }
  param {
    lr_mult: 0
    decay_mult: 0
  }
  param {
    lr_mult: 0
    decay_mult: 0
  }
}
layer {
  name: "Scale12"
  type: "Scale"
  bottom: "Convolution12"
  top: "Convolution12"
  scale_param {
    bias_term: true
  }
}
layer {
  name: "Eltwise5"
  type: "Eltwise"
  bottom: "Eltwise4"
  bottom: "Convolution12"
  top: "Eltwise5"
  eltwise_param {
    operation: SUM
  }
}
layer {
  name: "ReLU11"
  type: "ReLU"
  bottom: "Eltwise5"
  top: "Eltwise5"
}
layer {
  name: "Convolution13"
  type: "Convolution"
  bottom: "Eltwise5"
  top: "Convolution13"
  param {
    lr_mult: 1
    decay_mult: 1
  }
  param {
    lr_mult: 2
    decay_mult: 0
  }
  convolution_param {
    num_output: 32
    pad: 1
    kernel_size: 3
    stride: 1
    weight_filler {
      type: "gaussian"
      std: 0.083
    }
    bias_filler {
      type: "constant"
      value: 0
    }
  }
}
layer {
  name: "BatchNorm13"
  type: "BatchNorm"
  bottom: "Convolution13"
  top: "Convolution13"
  param {
    lr_mult: 0
    decay_mult: 0
  }
  param {
    lr_mult: 0
    decay_mult: 0
  }
  param {
    lr_mult: 0
    decay_mult: 0
  }
}
layer {
  name: "Scale13"
  type: "Scale"
  bottom: "Convolution13"
  top: "Convolution13"
  scale_param {
    bias_term: true
  }
}
layer {
  name: "ReLU12"
  type: "ReLU"
  bottom: "Convolution13"
  top: "Convolution13"
}
layer {
  name: "Convolution14"
  type: "Convolution"
  bottom: "Convolution13"
  top: "Convolution14"
  param {
    lr_mult: 1
    decay_mult: 1
  }
  param {
    lr_mult: 2
    decay_mult: 0
  }
  convolution_param {
    num_output: 32
    pad: 1
    kernel_size: 3
    stride: 1
    weight_filler {
      type: "gaussian"
      std: 0.083
    }
    bias_filler {
      type: "constant"
      value: 0
    }
  }
}
layer {
  name: "BatchNorm14"
  type: "BatchNorm"
  bottom: "Convolution14"
  top: "Convolution14"
  param {
    lr_mult: 0
    decay_mult: 0
  }
  param {
    lr_mult: 0
    decay_mult: 0
  }
  param {
    lr_mult: 0
    decay_mult: 0
  }
}
layer {
  name: "Scale14"
  type: "Scale"
  bottom: "Convolution14"
  top: "Convolution14"
  scale_param {
    bias_term: true
  }
}
layer {
  name: "Eltwise6"
  type: "Eltwise"
  bottom: "Eltwise5"
  bottom: "Convolution14"
  top: "Eltwise6"
  eltwise_param {
    operation: SUM
  }
}
layer {
  name: "ReLU13"
  type: "ReLU"
  bottom: "Eltwise6"
  top: "Eltwise6"
}
layer {
  name: "Convolution15"
  type: "Convolution"
  bottom: "Eltwise6"
  top: "Convolution15"
  param {
    lr_mult: 1
    decay_mult: 1
  }
  param {
    lr_mult: 2
    decay_mult: 0
  }
  convolution_param {
    num_output: 64
    pad: 0
    kernel_size: 1
    stride: 2
    weight_filler {
      type: "gaussian"
      std: 0.17677669
    }
    bias_filler {
      type: "constant"
      value: 0
    }
  }
}
layer {
  name: "BatchNorm15"
  type: "BatchNorm"
  bottom: "Convolution15"
  top: "Convolution15"
  param {
    lr_mult: 0
    decay_mult: 0
  }
  param {
    lr_mult: 0
    decay_mult: 0
  }
  param {
    lr_mult: 0
    decay_mult: 0
  }
}
layer {
  name: "Scale15"
  type: "Scale"
  bottom: "Convolution15"
  top: "Convolution15"
  scale_param {
    bias_term: true
  }
}
layer {
  name: "Convolution16"
  type: "Convolution"
  bottom: "Eltwise6"
  top: "Convolution16"
  param {
    lr_mult: 1
    decay_mult: 1
  }
  param {
    lr_mult: 2
    decay_mult: 0
  }
  convolution_param {
    num_output: 64
    pad: 1
    kernel_size: 3
    stride: 2
    weight_filler {
      type: "gaussian"
      std: 0.059
    }
    bias_filler {
      type: "constant"
      value: 0
    }
  }
}
layer {
  name: "BatchNorm16"
  type: "BatchNorm"
  bottom: "Convolution16"
  top: "Convolution16"
  param {
    lr_mult: 0
    decay_mult: 0
  }
  param {
    lr_mult: 0
    decay_mult: 0
  }
  param {
    lr_mult: 0
    decay_mult: 0
  }
}
layer {
  name: "Scale16"
  type: "Scale"
  bottom: "Convolution16"
  top: "Convolution16"
  scale_param {
    bias_term: true
  }
}
layer {
  name: "ReLU14"
  type: "ReLU"
  bottom: "Convolution16"
  top: "Convolution16"
}
layer {
  name: "Convolution17"
  type: "Convolution"
  bottom: "Convolution16"
  top: "Convolution17"
  param {
    lr_mult: 1
    decay_mult: 1
  }
  param {
    lr_mult: 2
    decay_mult: 0
  }
  convolution_param {
    num_output: 64
    pad: 1
    kernel_size: 3
    stride: 1
    weight_filler {
      type: "gaussian"
      std: 0.059
    }
    bias_filler {
      type: "constant"
      value: 0
    }
  }
}
layer {
  name: "BatchNorm17"
  type: "BatchNorm"
  bottom: "Convolution17"
  top: "Convolution17"
  param {
    lr_mult: 0
    decay_mult: 0
  }
  param {
    lr_mult: 0
    decay_mult: 0
  }
  param {
    lr_mult: 0
    decay_mult: 0
  }
}
layer {
  name: "Scale17"
  type: "Scale"
  bottom: "Convolution17"
  top: "Convolution17"
  scale_param {
    bias_term: true
  }
}
layer {
  name: "Eltwise7"
  type: "Eltwise"
  bottom: "Convolution15"
  bottom: "Convolution17"
  top: "Eltwise7"
  eltwise_param {
    operation: SUM
  }
}
layer {
  name: "ReLU15"
  type: "ReLU"
  bottom: "Eltwise7"
  top: "Eltwise7"
}
layer {
  name: "Convolution18"
  type: "Convolution"
  bottom: "Eltwise7"
  top: "Convolution18"
  param {
    lr_mult: 1
    decay_mult: 1
  }
  param {
    lr_mult: 2
    decay_mult: 0
  }
  convolution_param {
    num_output: 64
    pad: 1
    kernel_size: 3
    stride: 1
    weight_filler {
      type: "gaussian"
      std: 0.059
    }
    bias_filler {
      type: "constant"
      value: 0
    }
  }
}
layer {
  name: "BatchNorm18"
  type: "BatchNorm"
  bottom: "Convolution18"
  top: "Convolution18"
  param {
    lr_mult: 0
    decay_mult: 0
  }
  param {
    lr_mult: 0
    decay_mult: 0
  }
  param {
    lr_mult: 0
    decay_mult: 0
  }
}
layer {
  name: "Scale18"
  type: "Scale"
  bottom: "Convolution18"
  top: "Convolution18"
  scale_param {
    bias_term: true
  }
}
layer {
  name: "ReLU16"
  type: "ReLU"
  bottom: "Convolution18"
  top: "Convolution18"
}
layer {
  name: "Convolution19"
  type: "Convolution"
  bottom: "Convolution18"
  top: "Convolution19"
  param {
    lr_mult: 1
    decay_mult: 1
  }
  param {
    lr_mult: 2
    decay_mult: 0
  }
  convolution_param {
    num_output: 64
    pad: 1
    kernel_size: 3
    stride: 1
    weight_filler {
      type: "gaussian"
      std: 0.059
    }
    bias_filler {
      type: "constant"
      value: 0
    }
  }
}
layer {
  name: "BatchNorm19"
  type: "BatchNorm"
  bottom: "Convolution19"
  top: "Convolution19"
  param {
    lr_mult: 0
    decay_mult: 0
  }
  param {
    lr_mult: 0
    decay_mult: 0
  }
  param {
    lr_mult: 0
    decay_mult: 0
  }
}
layer {
  name: "Scale19"
  type: "Scale"
  bottom: "Convolution19"
  top: "Convolution19"
  scale_param {
    bias_term: true
  }
}
layer {
  name: "Eltwise8"
  type: "Eltwise"
  bottom: "Eltwise7"
  bottom: "Convolution19"
  top: "Eltwise8"
  eltwise_param {
    operation: SUM
  }
}
layer {
  name: "ReLU17"
  type: "ReLU"
  bottom: "Eltwise8"
  top: "Eltwise8"
}
layer {
  name: "Convolution20"
  type: "Convolution"
  bottom: "Eltwise8"
  top: "Convolution20"
  param {
    lr_mult: 1
    decay_mult: 1
  }
  param {
    lr_mult: 2
    decay_mult: 0
  }
  convolution_param {
    num_output: 64
    pad: 1
    kernel_size: 3
    stride: 1
    weight_filler {
      type: "gaussian"
      std: 0.059
    }
    bias_filler {
      type: "constant"
      value: 0
    }
  }
}
layer {
  name: "BatchNorm20"
  type: "BatchNorm"
  bottom: "Convolution20"
  top: "Convolution20"
  param {
    lr_mult: 0
    decay_mult: 0
  }
  param {
    lr_mult: 0
    decay_mult: 0
  }
  param {
    lr_mult: 0
    decay_mult: 0
  }
}
layer {
  name: "Scale20"
  type: "Scale"
  bottom: "Convolution20"
  top: "Convolution20"
  scale_param {
    bias_term: true
  }
}
layer {
  name: "ReLU18"
  type: "ReLU"
  bottom: "Convolution20"
  top: "Convolution20"
}
layer {
  name: "Convolution21"
  type: "Convolution"
  bottom: "Convolution20"
  top: "Convolution21"
  param {
    lr_mult: 1
    decay_mult: 1
  }
  param {
    lr_mult: 2
    decay_mult: 0
  }
  convolution_param {
    num_output: 64
    pad: 1
    kernel_size: 3
    stride: 1
    weight_filler {
      type: "gaussian"
      std: 0.059
    }
    bias_filler {
      type: "constant"
      value: 0
    }
  }
}
layer {
  name: "BatchNorm21"
  type: "BatchNorm"
  bottom: "Convolution21"
  top: "Convolution21"
  param {
    lr_mult: 0
    decay_mult: 0
  }
  param {
    lr_mult: 0
    decay_mult: 0
  }
  param {
    lr_mult: 0
    decay_mult: 0
  }
}
layer {
  name: "Scale21"
  type: "Scale"
  bottom: "Convolution21"
  top: "Convolution21"
  scale_param {
    bias_term: true
  }
}
layer {
  name: "Eltwise9"
  type: "Eltwise"
  bottom: "Eltwise8"
  bottom: "Convolution21"
  top: "Eltwise9"
  eltwise_param {
    operation: SUM
  }
}
layer {
  name: "ReLU19"
  type: "ReLU"
  bottom: "Eltwise9"
  top: "Eltwise9"
}
layer {
  name: "Pooling1"
  type: "Pooling"
  bottom: "Eltwise9"
  top: "Pooling1"
  pooling_param {
    pool: AVE
    global_pooling: true
  }
}
layer {
  name: "InnerProduct1"
  type: "InnerProduct"
  bottom: "Pooling1"
  top: "InnerProduct1"
  param {
    lr_mult: 1
    decay_mult: 1
  }
  param {
    lr_mult: 2
    decay_mult: 1
  }
  inner_product_param {
    num_output: 10
    weight_filler {
      type: "gaussian"
      std: 0.01
    }
    bias_filler {
      type: "constant"
      value: 0
    }
  }
}
layer {
  name: "SoftmaxWithLoss1"
  type: "SoftmaxWithLoss"
  bottom: "InnerProduct1"
  bottom: "Data2"
  top: "SoftmaxWithLoss1"
}
layer {
  name: "Accuracy1"
  type: "Accuracy"
  bottom: "InnerProduct1"
  bottom: "Data2"
  top: "Accuracy1"
  include {
    phase: TEST
  }
}
I1001 09:18:31.375219  4916 layer_factory.hpp:77] Creating layer Data1
I1001 09:18:31.375255  4916 db_lmdb.cpp:35] Opened lmdb /home/x306/caffe/xn/PENLU/data/cifar10/cifar10_test_lmdb
I1001 09:18:31.375265  4916 net.cpp:84] Creating Layer Data1
I1001 09:18:31.375269  4916 net.cpp:380] Data1 -> Data1
I1001 09:18:31.375274  4916 net.cpp:380] Data1 -> Data2
I1001 09:18:31.375280  4916 data_transformer.cpp:25] Loading mean file from: /home/x306/caffe/xn/PENLU/data/cifar10/mean.binaryproto
I1001 09:18:31.375391  4916 data_layer.cpp:45] output data size: 100,3,32,32
I1001 09:18:31.379127  4916 net.cpp:122] Setting up Data1
I1001 09:18:31.379145  4916 net.cpp:129] Top shape: 100 3 32 32 (307200)
I1001 09:18:31.379150  4916 net.cpp:129] Top shape: 100 (100)
I1001 09:18:31.379153  4916 net.cpp:137] Memory required for data: 1229200
I1001 09:18:31.379156  4916 layer_factory.hpp:77] Creating layer Data2_Data1_1_split
I1001 09:18:31.379164  4916 net.cpp:84] Creating Layer Data2_Data1_1_split
I1001 09:18:31.379168  4916 net.cpp:406] Data2_Data1_1_split <- Data2
I1001 09:18:31.379171  4916 net.cpp:380] Data2_Data1_1_split -> Data2_Data1_1_split_0
I1001 09:18:31.379179  4916 net.cpp:380] Data2_Data1_1_split -> Data2_Data1_1_split_1
I1001 09:18:31.379217  4916 net.cpp:122] Setting up Data2_Data1_1_split
I1001 09:18:31.379221  4916 net.cpp:129] Top shape: 100 (100)
I1001 09:18:31.379225  4916 net.cpp:129] Top shape: 100 (100)
I1001 09:18:31.379226  4916 net.cpp:137] Memory required for data: 1230000
I1001 09:18:31.379228  4916 layer_factory.hpp:77] Creating layer Convolution1
I1001 09:18:31.379238  4916 net.cpp:84] Creating Layer Convolution1
I1001 09:18:31.379240  4916 net.cpp:406] Convolution1 <- Data1
I1001 09:18:31.379245  4916 net.cpp:380] Convolution1 -> Convolution1
I1001 09:18:31.380393  4916 net.cpp:122] Setting up Convolution1
I1001 09:18:31.380403  4916 net.cpp:129] Top shape: 100 16 32 32 (1638400)
I1001 09:18:31.380404  4916 net.cpp:137] Memory required for data: 7783600
I1001 09:18:31.380411  4916 layer_factory.hpp:77] Creating layer BatchNorm1
I1001 09:18:31.380417  4916 net.cpp:84] Creating Layer BatchNorm1
I1001 09:18:31.380420  4916 net.cpp:406] BatchNorm1 <- Convolution1
I1001 09:18:31.380424  4916 net.cpp:367] BatchNorm1 -> Convolution1 (in-place)
I1001 09:18:31.380600  4916 net.cpp:122] Setting up BatchNorm1
I1001 09:18:31.380605  4916 net.cpp:129] Top shape: 100 16 32 32 (1638400)
I1001 09:18:31.380607  4916 net.cpp:137] Memory required for data: 14337200
I1001 09:18:31.380614  4916 layer_factory.hpp:77] Creating layer Scale1
I1001 09:18:31.380635  4916 net.cpp:84] Creating Layer Scale1
I1001 09:18:31.380638  4916 net.cpp:406] Scale1 <- Convolution1
I1001 09:18:31.380642  4916 net.cpp:367] Scale1 -> Convolution1 (in-place)
I1001 09:18:31.380672  4916 layer_factory.hpp:77] Creating layer Scale1
I1001 09:18:31.380748  4916 net.cpp:122] Setting up Scale1
I1001 09:18:31.380753  4916 net.cpp:129] Top shape: 100 16 32 32 (1638400)
I1001 09:18:31.380755  4916 net.cpp:137] Memory required for data: 20890800
I1001 09:18:31.380759  4916 layer_factory.hpp:77] Creating layer ReLU1
I1001 09:18:31.380767  4916 net.cpp:84] Creating Layer ReLU1
I1001 09:18:31.380769  4916 net.cpp:406] ReLU1 <- Convolution1
I1001 09:18:31.380774  4916 net.cpp:367] ReLU1 -> Convolution1 (in-place)
I1001 09:18:31.380889  4916 net.cpp:122] Setting up ReLU1
I1001 09:18:31.380897  4916 net.cpp:129] Top shape: 100 16 32 32 (1638400)
I1001 09:18:31.380899  4916 net.cpp:137] Memory required for data: 27444400
I1001 09:18:31.380901  4916 layer_factory.hpp:77] Creating layer Convolution1_ReLU1_0_split
I1001 09:18:31.380905  4916 net.cpp:84] Creating Layer Convolution1_ReLU1_0_split
I1001 09:18:31.380908  4916 net.cpp:406] Convolution1_ReLU1_0_split <- Convolution1
I1001 09:18:31.380911  4916 net.cpp:380] Convolution1_ReLU1_0_split -> Convolution1_ReLU1_0_split_0
I1001 09:18:31.380915  4916 net.cpp:380] Convolution1_ReLU1_0_split -> Convolution1_ReLU1_0_split_1
I1001 09:18:31.380944  4916 net.cpp:122] Setting up Convolution1_ReLU1_0_split
I1001 09:18:31.380947  4916 net.cpp:129] Top shape: 100 16 32 32 (1638400)
I1001 09:18:31.380956  4916 net.cpp:129] Top shape: 100 16 32 32 (1638400)
I1001 09:18:31.380959  4916 net.cpp:137] Memory required for data: 40551600
I1001 09:18:31.380960  4916 layer_factory.hpp:77] Creating layer Convolution2
I1001 09:18:31.380970  4916 net.cpp:84] Creating Layer Convolution2
I1001 09:18:31.380972  4916 net.cpp:406] Convolution2 <- Convolution1_ReLU1_0_split_0
I1001 09:18:31.380976  4916 net.cpp:380] Convolution2 -> Convolution2
I1001 09:18:31.381893  4916 net.cpp:122] Setting up Convolution2
I1001 09:18:31.381901  4916 net.cpp:129] Top shape: 100 16 32 32 (1638400)
I1001 09:18:31.381904  4916 net.cpp:137] Memory required for data: 47105200
I1001 09:18:31.381911  4916 layer_factory.hpp:77] Creating layer BatchNorm2
I1001 09:18:31.381917  4916 net.cpp:84] Creating Layer BatchNorm2
I1001 09:18:31.381920  4916 net.cpp:406] BatchNorm2 <- Convolution2
I1001 09:18:31.381924  4916 net.cpp:367] BatchNorm2 -> Convolution2 (in-place)
I1001 09:18:31.382138  4916 net.cpp:122] Setting up BatchNorm2
I1001 09:18:31.382144  4916 net.cpp:129] Top shape: 100 16 32 32 (1638400)
I1001 09:18:31.382146  4916 net.cpp:137] Memory required for data: 53658800
I1001 09:18:31.382151  4916 layer_factory.hpp:77] Creating layer Scale2
I1001 09:18:31.382156  4916 net.cpp:84] Creating Layer Scale2
I1001 09:18:31.382158  4916 net.cpp:406] Scale2 <- Convolution2
I1001 09:18:31.382161  4916 net.cpp:367] Scale2 -> Convolution2 (in-place)
I1001 09:18:31.382189  4916 layer_factory.hpp:77] Creating layer Scale2
I1001 09:18:31.382263  4916 net.cpp:122] Setting up Scale2
I1001 09:18:31.382267  4916 net.cpp:129] Top shape: 100 16 32 32 (1638400)
I1001 09:18:31.382269  4916 net.cpp:137] Memory required for data: 60212400
I1001 09:18:31.382273  4916 layer_factory.hpp:77] Creating layer ReLU2
I1001 09:18:31.382278  4916 net.cpp:84] Creating Layer ReLU2
I1001 09:18:31.382280  4916 net.cpp:406] ReLU2 <- Convolution2
I1001 09:18:31.382283  4916 net.cpp:367] ReLU2 -> Convolution2 (in-place)
I1001 09:18:31.382397  4916 net.cpp:122] Setting up ReLU2
I1001 09:18:31.382403  4916 net.cpp:129] Top shape: 100 16 32 32 (1638400)
I1001 09:18:31.382410  4916 net.cpp:137] Memory required for data: 66766000
I1001 09:18:31.382411  4916 layer_factory.hpp:77] Creating layer Convolution3
I1001 09:18:31.382419  4916 net.cpp:84] Creating Layer Convolution3
I1001 09:18:31.382421  4916 net.cpp:406] Convolution3 <- Convolution2
I1001 09:18:31.382426  4916 net.cpp:380] Convolution3 -> Convolution3
I1001 09:18:31.383482  4916 net.cpp:122] Setting up Convolution3
I1001 09:18:31.383491  4916 net.cpp:129] Top shape: 100 16 32 32 (1638400)
I1001 09:18:31.383494  4916 net.cpp:137] Memory required for data: 73319600
I1001 09:18:31.383498  4916 layer_factory.hpp:77] Creating layer BatchNorm3
I1001 09:18:31.383504  4916 net.cpp:84] Creating Layer BatchNorm3
I1001 09:18:31.383507  4916 net.cpp:406] BatchNorm3 <- Convolution3
I1001 09:18:31.383512  4916 net.cpp:367] BatchNorm3 -> Convolution3 (in-place)
I1001 09:18:31.383646  4916 net.cpp:122] Setting up BatchNorm3
I1001 09:18:31.383651  4916 net.cpp:129] Top shape: 100 16 32 32 (1638400)
I1001 09:18:31.383652  4916 net.cpp:137] Memory required for data: 79873200
I1001 09:18:31.383661  4916 layer_factory.hpp:77] Creating layer Scale3
I1001 09:18:31.383667  4916 net.cpp:84] Creating Layer Scale3
I1001 09:18:31.383671  4916 net.cpp:406] Scale3 <- Convolution3
I1001 09:18:31.383673  4916 net.cpp:367] Scale3 -> Convolution3 (in-place)
I1001 09:18:31.383702  4916 layer_factory.hpp:77] Creating layer Scale3
I1001 09:18:31.383776  4916 net.cpp:122] Setting up Scale3
I1001 09:18:31.383780  4916 net.cpp:129] Top shape: 100 16 32 32 (1638400)
I1001 09:18:31.383782  4916 net.cpp:137] Memory required for data: 86426800
I1001 09:18:31.383791  4916 layer_factory.hpp:77] Creating layer Eltwise1
I1001 09:18:31.383796  4916 net.cpp:84] Creating Layer Eltwise1
I1001 09:18:31.383800  4916 net.cpp:406] Eltwise1 <- Convolution1_ReLU1_0_split_1
I1001 09:18:31.383803  4916 net.cpp:406] Eltwise1 <- Convolution3
I1001 09:18:31.383806  4916 net.cpp:380] Eltwise1 -> Eltwise1
I1001 09:18:31.383824  4916 net.cpp:122] Setting up Eltwise1
I1001 09:18:31.383828  4916 net.cpp:129] Top shape: 100 16 32 32 (1638400)
I1001 09:18:31.383831  4916 net.cpp:137] Memory required for data: 92980400
I1001 09:18:31.383832  4916 layer_factory.hpp:77] Creating layer ReLU3
I1001 09:18:31.383839  4916 net.cpp:84] Creating Layer ReLU3
I1001 09:18:31.383841  4916 net.cpp:406] ReLU3 <- Eltwise1
I1001 09:18:31.383844  4916 net.cpp:367] ReLU3 -> Eltwise1 (in-place)
I1001 09:18:31.383961  4916 net.cpp:122] Setting up ReLU3
I1001 09:18:31.383967  4916 net.cpp:129] Top shape: 100 16 32 32 (1638400)
I1001 09:18:31.383970  4916 net.cpp:137] Memory required for data: 99534000
I1001 09:18:31.383972  4916 layer_factory.hpp:77] Creating layer Eltwise1_ReLU3_0_split
I1001 09:18:31.383977  4916 net.cpp:84] Creating Layer Eltwise1_ReLU3_0_split
I1001 09:18:31.383982  4916 net.cpp:406] Eltwise1_ReLU3_0_split <- Eltwise1
I1001 09:18:31.383986  4916 net.cpp:380] Eltwise1_ReLU3_0_split -> Eltwise1_ReLU3_0_split_0
I1001 09:18:31.383991  4916 net.cpp:380] Eltwise1_ReLU3_0_split -> Eltwise1_ReLU3_0_split_1
I1001 09:18:31.384018  4916 net.cpp:122] Setting up Eltwise1_ReLU3_0_split
I1001 09:18:31.384022  4916 net.cpp:129] Top shape: 100 16 32 32 (1638400)
I1001 09:18:31.384026  4916 net.cpp:129] Top shape: 100 16 32 32 (1638400)
I1001 09:18:31.384027  4916 net.cpp:137] Memory required for data: 112641200
I1001 09:18:31.384029  4916 layer_factory.hpp:77] Creating layer Convolution4
I1001 09:18:31.384035  4916 net.cpp:84] Creating Layer Convolution4
I1001 09:18:31.384038  4916 net.cpp:406] Convolution4 <- Eltwise1_ReLU3_0_split_0
I1001 09:18:31.384042  4916 net.cpp:380] Convolution4 -> Convolution4
I1001 09:18:31.385062  4916 net.cpp:122] Setting up Convolution4
I1001 09:18:31.385072  4916 net.cpp:129] Top shape: 100 16 32 32 (1638400)
I1001 09:18:31.385074  4916 net.cpp:137] Memory required for data: 119194800
I1001 09:18:31.385079  4916 layer_factory.hpp:77] Creating layer BatchNorm4
I1001 09:18:31.385084  4916 net.cpp:84] Creating Layer BatchNorm4
I1001 09:18:31.385087  4916 net.cpp:406] BatchNorm4 <- Convolution4
I1001 09:18:31.385092  4916 net.cpp:367] BatchNorm4 -> Convolution4 (in-place)
I1001 09:18:31.385226  4916 net.cpp:122] Setting up BatchNorm4
I1001 09:18:31.385231  4916 net.cpp:129] Top shape: 100 16 32 32 (1638400)
I1001 09:18:31.385232  4916 net.cpp:137] Memory required for data: 125748400
I1001 09:18:31.385237  4916 layer_factory.hpp:77] Creating layer Scale4
I1001 09:18:31.385249  4916 net.cpp:84] Creating Layer Scale4
I1001 09:18:31.385254  4916 net.cpp:406] Scale4 <- Convolution4
I1001 09:18:31.385258  4916 net.cpp:367] Scale4 -> Convolution4 (in-place)
I1001 09:18:31.385288  4916 layer_factory.hpp:77] Creating layer Scale4
I1001 09:18:31.385362  4916 net.cpp:122] Setting up Scale4
I1001 09:18:31.385367  4916 net.cpp:129] Top shape: 100 16 32 32 (1638400)
I1001 09:18:31.385370  4916 net.cpp:137] Memory required for data: 132302000
I1001 09:18:31.385373  4916 layer_factory.hpp:77] Creating layer ReLU4
I1001 09:18:31.385377  4916 net.cpp:84] Creating Layer ReLU4
I1001 09:18:31.385380  4916 net.cpp:406] ReLU4 <- Convolution4
I1001 09:18:31.385390  4916 net.cpp:367] ReLU4 -> Convolution4 (in-place)
I1001 09:18:31.385506  4916 net.cpp:122] Setting up ReLU4
I1001 09:18:31.385512  4916 net.cpp:129] Top shape: 100 16 32 32 (1638400)
I1001 09:18:31.385514  4916 net.cpp:137] Memory required for data: 138855600
I1001 09:18:31.385516  4916 layer_factory.hpp:77] Creating layer Convolution5
I1001 09:18:31.385524  4916 net.cpp:84] Creating Layer Convolution5
I1001 09:18:31.385525  4916 net.cpp:406] Convolution5 <- Convolution4
I1001 09:18:31.385530  4916 net.cpp:380] Convolution5 -> Convolution5
I1001 09:18:31.386777  4916 net.cpp:122] Setting up Convolution5
I1001 09:18:31.386786  4916 net.cpp:129] Top shape: 100 16 32 32 (1638400)
I1001 09:18:31.386788  4916 net.cpp:137] Memory required for data: 145409200
I1001 09:18:31.386793  4916 layer_factory.hpp:77] Creating layer BatchNorm5
I1001 09:18:31.386800  4916 net.cpp:84] Creating Layer BatchNorm5
I1001 09:18:31.386801  4916 net.cpp:406] BatchNorm5 <- Convolution5
I1001 09:18:31.386806  4916 net.cpp:367] BatchNorm5 -> Convolution5 (in-place)
I1001 09:18:31.386943  4916 net.cpp:122] Setting up BatchNorm5
I1001 09:18:31.386948  4916 net.cpp:129] Top shape: 100 16 32 32 (1638400)
I1001 09:18:31.386950  4916 net.cpp:137] Memory required for data: 151962800
I1001 09:18:31.386957  4916 layer_factory.hpp:77] Creating layer Scale5
I1001 09:18:31.386961  4916 net.cpp:84] Creating Layer Scale5
I1001 09:18:31.386965  4916 net.cpp:406] Scale5 <- Convolution5
I1001 09:18:31.386968  4916 net.cpp:367] Scale5 -> Convolution5 (in-place)
I1001 09:18:31.386997  4916 layer_factory.hpp:77] Creating layer Scale5
I1001 09:18:31.387073  4916 net.cpp:122] Setting up Scale5
I1001 09:18:31.387078  4916 net.cpp:129] Top shape: 100 16 32 32 (1638400)
I1001 09:18:31.387079  4916 net.cpp:137] Memory required for data: 158516400
I1001 09:18:31.387084  4916 layer_factory.hpp:77] Creating layer Eltwise2
I1001 09:18:31.387086  4916 net.cpp:84] Creating Layer Eltwise2
I1001 09:18:31.387089  4916 net.cpp:406] Eltwise2 <- Eltwise1_ReLU3_0_split_1
I1001 09:18:31.387092  4916 net.cpp:406] Eltwise2 <- Convolution5
I1001 09:18:31.387095  4916 net.cpp:380] Eltwise2 -> Eltwise2
I1001 09:18:31.387110  4916 net.cpp:122] Setting up Eltwise2
I1001 09:18:31.387115  4916 net.cpp:129] Top shape: 100 16 32 32 (1638400)
I1001 09:18:31.387116  4916 net.cpp:137] Memory required for data: 165070000
I1001 09:18:31.387118  4916 layer_factory.hpp:77] Creating layer ReLU5
I1001 09:18:31.387121  4916 net.cpp:84] Creating Layer ReLU5
I1001 09:18:31.387125  4916 net.cpp:406] ReLU5 <- Eltwise2
I1001 09:18:31.387126  4916 net.cpp:367] ReLU5 -> Eltwise2 (in-place)
I1001 09:18:31.387567  4916 net.cpp:122] Setting up ReLU5
I1001 09:18:31.387575  4916 net.cpp:129] Top shape: 100 16 32 32 (1638400)
I1001 09:18:31.387578  4916 net.cpp:137] Memory required for data: 171623600
I1001 09:18:31.387580  4916 layer_factory.hpp:77] Creating layer Eltwise2_ReLU5_0_split
I1001 09:18:31.387584  4916 net.cpp:84] Creating Layer Eltwise2_ReLU5_0_split
I1001 09:18:31.387588  4916 net.cpp:406] Eltwise2_ReLU5_0_split <- Eltwise2
I1001 09:18:31.387591  4916 net.cpp:380] Eltwise2_ReLU5_0_split -> Eltwise2_ReLU5_0_split_0
I1001 09:18:31.387595  4916 net.cpp:380] Eltwise2_ReLU5_0_split -> Eltwise2_ReLU5_0_split_1
I1001 09:18:31.387626  4916 net.cpp:122] Setting up Eltwise2_ReLU5_0_split
I1001 09:18:31.387630  4916 net.cpp:129] Top shape: 100 16 32 32 (1638400)
I1001 09:18:31.387640  4916 net.cpp:129] Top shape: 100 16 32 32 (1638400)
I1001 09:18:31.387642  4916 net.cpp:137] Memory required for data: 184730800
I1001 09:18:31.387645  4916 layer_factory.hpp:77] Creating layer Convolution6
I1001 09:18:31.387651  4916 net.cpp:84] Creating Layer Convolution6
I1001 09:18:31.387655  4916 net.cpp:406] Convolution6 <- Eltwise2_ReLU5_0_split_0
I1001 09:18:31.387658  4916 net.cpp:380] Convolution6 -> Convolution6
I1001 09:18:31.388227  4916 net.cpp:122] Setting up Convolution6
I1001 09:18:31.388234  4916 net.cpp:129] Top shape: 100 16 32 32 (1638400)
I1001 09:18:31.388237  4916 net.cpp:137] Memory required for data: 191284400
I1001 09:18:31.388242  4916 layer_factory.hpp:77] Creating layer BatchNorm6
I1001 09:18:31.388245  4916 net.cpp:84] Creating Layer BatchNorm6
I1001 09:18:31.388248  4916 net.cpp:406] BatchNorm6 <- Convolution6
I1001 09:18:31.388252  4916 net.cpp:367] BatchNorm6 -> Convolution6 (in-place)
I1001 09:18:31.388387  4916 net.cpp:122] Setting up BatchNorm6
I1001 09:18:31.388391  4916 net.cpp:129] Top shape: 100 16 32 32 (1638400)
I1001 09:18:31.388393  4916 net.cpp:137] Memory required for data: 197838000
I1001 09:18:31.388398  4916 layer_factory.hpp:77] Creating layer Scale6
I1001 09:18:31.388402  4916 net.cpp:84] Creating Layer Scale6
I1001 09:18:31.388406  4916 net.cpp:406] Scale6 <- Convolution6
I1001 09:18:31.388408  4916 net.cpp:367] Scale6 -> Convolution6 (in-place)
I1001 09:18:31.388435  4916 layer_factory.hpp:77] Creating layer Scale6
I1001 09:18:31.388512  4916 net.cpp:122] Setting up Scale6
I1001 09:18:31.388516  4916 net.cpp:129] Top shape: 100 16 32 32 (1638400)
I1001 09:18:31.388519  4916 net.cpp:137] Memory required for data: 204391600
I1001 09:18:31.388522  4916 layer_factory.hpp:77] Creating layer ReLU6
I1001 09:18:31.388525  4916 net.cpp:84] Creating Layer ReLU6
I1001 09:18:31.388527  4916 net.cpp:406] ReLU6 <- Convolution6
I1001 09:18:31.388531  4916 net.cpp:367] ReLU6 -> Convolution6 (in-place)
I1001 09:18:31.388970  4916 net.cpp:122] Setting up ReLU6
I1001 09:18:31.388978  4916 net.cpp:129] Top shape: 100 16 32 32 (1638400)
I1001 09:18:31.388980  4916 net.cpp:137] Memory required for data: 210945200
I1001 09:18:31.388983  4916 layer_factory.hpp:77] Creating layer Convolution7
I1001 09:18:31.388990  4916 net.cpp:84] Creating Layer Convolution7
I1001 09:18:31.388993  4916 net.cpp:406] Convolution7 <- Convolution6
I1001 09:18:31.388998  4916 net.cpp:380] Convolution7 -> Convolution7
I1001 09:18:31.389900  4916 net.cpp:122] Setting up Convolution7
I1001 09:18:31.389909  4916 net.cpp:129] Top shape: 100 16 32 32 (1638400)
I1001 09:18:31.389911  4916 net.cpp:137] Memory required for data: 217498800
I1001 09:18:31.389915  4916 layer_factory.hpp:77] Creating layer BatchNorm7
I1001 09:18:31.389922  4916 net.cpp:84] Creating Layer BatchNorm7
I1001 09:18:31.389925  4916 net.cpp:406] BatchNorm7 <- Convolution7
I1001 09:18:31.389930  4916 net.cpp:367] BatchNorm7 -> Convolution7 (in-place)
I1001 09:18:31.390065  4916 net.cpp:122] Setting up BatchNorm7
I1001 09:18:31.390070  4916 net.cpp:129] Top shape: 100 16 32 32 (1638400)
I1001 09:18:31.390072  4916 net.cpp:137] Memory required for data: 224052400
I1001 09:18:31.390076  4916 layer_factory.hpp:77] Creating layer Scale7
I1001 09:18:31.390082  4916 net.cpp:84] Creating Layer Scale7
I1001 09:18:31.390085  4916 net.cpp:406] Scale7 <- Convolution7
I1001 09:18:31.390089  4916 net.cpp:367] Scale7 -> Convolution7 (in-place)
I1001 09:18:31.390115  4916 layer_factory.hpp:77] Creating layer Scale7
I1001 09:18:31.390193  4916 net.cpp:122] Setting up Scale7
I1001 09:18:31.390197  4916 net.cpp:129] Top shape: 100 16 32 32 (1638400)
I1001 09:18:31.390200  4916 net.cpp:137] Memory required for data: 230606000
I1001 09:18:31.390203  4916 layer_factory.hpp:77] Creating layer Eltwise3
I1001 09:18:31.390208  4916 net.cpp:84] Creating Layer Eltwise3
I1001 09:18:31.390209  4916 net.cpp:406] Eltwise3 <- Eltwise2_ReLU5_0_split_1
I1001 09:18:31.390213  4916 net.cpp:406] Eltwise3 <- Convolution7
I1001 09:18:31.390223  4916 net.cpp:380] Eltwise3 -> Eltwise3
I1001 09:18:31.390239  4916 net.cpp:122] Setting up Eltwise3
I1001 09:18:31.390244  4916 net.cpp:129] Top shape: 100 16 32 32 (1638400)
I1001 09:18:31.390246  4916 net.cpp:137] Memory required for data: 237159600
I1001 09:18:31.390249  4916 layer_factory.hpp:77] Creating layer ReLU7
I1001 09:18:31.390251  4916 net.cpp:84] Creating Layer ReLU7
I1001 09:18:31.390254  4916 net.cpp:406] ReLU7 <- Eltwise3
I1001 09:18:31.390256  4916 net.cpp:367] ReLU7 -> Eltwise3 (in-place)
I1001 09:18:31.390373  4916 net.cpp:122] Setting up ReLU7
I1001 09:18:31.390379  4916 net.cpp:129] Top shape: 100 16 32 32 (1638400)
I1001 09:18:31.390381  4916 net.cpp:137] Memory required for data: 243713200
I1001 09:18:31.390384  4916 layer_factory.hpp:77] Creating layer Eltwise3_ReLU7_0_split
I1001 09:18:31.390388  4916 net.cpp:84] Creating Layer Eltwise3_ReLU7_0_split
I1001 09:18:31.390389  4916 net.cpp:406] Eltwise3_ReLU7_0_split <- Eltwise3
I1001 09:18:31.390393  4916 net.cpp:380] Eltwise3_ReLU7_0_split -> Eltwise3_ReLU7_0_split_0
I1001 09:18:31.390396  4916 net.cpp:380] Eltwise3_ReLU7_0_split -> Eltwise3_ReLU7_0_split_1
I1001 09:18:31.390424  4916 net.cpp:122] Setting up Eltwise3_ReLU7_0_split
I1001 09:18:31.390429  4916 net.cpp:129] Top shape: 100 16 32 32 (1638400)
I1001 09:18:31.390431  4916 net.cpp:129] Top shape: 100 16 32 32 (1638400)
I1001 09:18:31.390432  4916 net.cpp:137] Memory required for data: 256820400
I1001 09:18:31.390435  4916 layer_factory.hpp:77] Creating layer Convolution8
I1001 09:18:31.390441  4916 net.cpp:84] Creating Layer Convolution8
I1001 09:18:31.390444  4916 net.cpp:406] Convolution8 <- Eltwise3_ReLU7_0_split_0
I1001 09:18:31.390449  4916 net.cpp:380] Convolution8 -> Convolution8
I1001 09:18:31.391322  4916 net.cpp:122] Setting up Convolution8
I1001 09:18:31.391330  4916 net.cpp:129] Top shape: 100 32 16 16 (819200)
I1001 09:18:31.391333  4916 net.cpp:137] Memory required for data: 260097200
I1001 09:18:31.391337  4916 layer_factory.hpp:77] Creating layer BatchNorm8
I1001 09:18:31.391343  4916 net.cpp:84] Creating Layer BatchNorm8
I1001 09:18:31.391346  4916 net.cpp:406] BatchNorm8 <- Convolution8
I1001 09:18:31.391350  4916 net.cpp:367] BatchNorm8 -> Convolution8 (in-place)
I1001 09:18:31.391481  4916 net.cpp:122] Setting up BatchNorm8
I1001 09:18:31.391485  4916 net.cpp:129] Top shape: 100 32 16 16 (819200)
I1001 09:18:31.391487  4916 net.cpp:137] Memory required for data: 263374000
I1001 09:18:31.391491  4916 layer_factory.hpp:77] Creating layer Scale8
I1001 09:18:31.391495  4916 net.cpp:84] Creating Layer Scale8
I1001 09:18:31.391499  4916 net.cpp:406] Scale8 <- Convolution8
I1001 09:18:31.391502  4916 net.cpp:367] Scale8 -> Convolution8 (in-place)
I1001 09:18:31.391530  4916 layer_factory.hpp:77] Creating layer Scale8
I1001 09:18:31.391607  4916 net.cpp:122] Setting up Scale8
I1001 09:18:31.391610  4916 net.cpp:129] Top shape: 100 32 16 16 (819200)
I1001 09:18:31.391613  4916 net.cpp:137] Memory required for data: 266650800
I1001 09:18:31.391616  4916 layer_factory.hpp:77] Creating layer Convolution9
I1001 09:18:31.391623  4916 net.cpp:84] Creating Layer Convolution9
I1001 09:18:31.391625  4916 net.cpp:406] Convolution9 <- Eltwise3_ReLU7_0_split_1
I1001 09:18:31.391630  4916 net.cpp:380] Convolution9 -> Convolution9
I1001 09:18:31.392602  4916 net.cpp:122] Setting up Convolution9
I1001 09:18:31.392611  4916 net.cpp:129] Top shape: 100 32 16 16 (819200)
I1001 09:18:31.392613  4916 net.cpp:137] Memory required for data: 269927600
I1001 09:18:31.392617  4916 layer_factory.hpp:77] Creating layer BatchNorm9
I1001 09:18:31.392622  4916 net.cpp:84] Creating Layer BatchNorm9
I1001 09:18:31.392624  4916 net.cpp:406] BatchNorm9 <- Convolution9
I1001 09:18:31.392629  4916 net.cpp:367] BatchNorm9 -> Convolution9 (in-place)
I1001 09:18:31.392761  4916 net.cpp:122] Setting up BatchNorm9
I1001 09:18:31.392765  4916 net.cpp:129] Top shape: 100 32 16 16 (819200)
I1001 09:18:31.392767  4916 net.cpp:137] Memory required for data: 273204400
I1001 09:18:31.392772  4916 layer_factory.hpp:77] Creating layer Scale9
I1001 09:18:31.392782  4916 net.cpp:84] Creating Layer Scale9
I1001 09:18:31.392786  4916 net.cpp:406] Scale9 <- Convolution9
I1001 09:18:31.392788  4916 net.cpp:367] Scale9 -> Convolution9 (in-place)
I1001 09:18:31.392817  4916 layer_factory.hpp:77] Creating layer Scale9
I1001 09:18:31.392894  4916 net.cpp:122] Setting up Scale9
I1001 09:18:31.392897  4916 net.cpp:129] Top shape: 100 32 16 16 (819200)
I1001 09:18:31.392899  4916 net.cpp:137] Memory required for data: 276481200
I1001 09:18:31.392904  4916 layer_factory.hpp:77] Creating layer ReLU8
I1001 09:18:31.392906  4916 net.cpp:84] Creating Layer ReLU8
I1001 09:18:31.392910  4916 net.cpp:406] ReLU8 <- Convolution9
I1001 09:18:31.392912  4916 net.cpp:367] ReLU8 -> Convolution9 (in-place)
I1001 09:18:31.393084  4916 net.cpp:122] Setting up ReLU8
I1001 09:18:31.393092  4916 net.cpp:129] Top shape: 100 32 16 16 (819200)
I1001 09:18:31.393095  4916 net.cpp:137] Memory required for data: 279758000
I1001 09:18:31.393097  4916 layer_factory.hpp:77] Creating layer Convolution10
I1001 09:18:31.393105  4916 net.cpp:84] Creating Layer Convolution10
I1001 09:18:31.393107  4916 net.cpp:406] Convolution10 <- Convolution9
I1001 09:18:31.393115  4916 net.cpp:380] Convolution10 -> Convolution10
I1001 09:18:31.394222  4916 net.cpp:122] Setting up Convolution10
I1001 09:18:31.394230  4916 net.cpp:129] Top shape: 100 32 16 16 (819200)
I1001 09:18:31.394232  4916 net.cpp:137] Memory required for data: 283034800
I1001 09:18:31.394243  4916 layer_factory.hpp:77] Creating layer BatchNorm10
I1001 09:18:31.394249  4916 net.cpp:84] Creating Layer BatchNorm10
I1001 09:18:31.394253  4916 net.cpp:406] BatchNorm10 <- Convolution10
I1001 09:18:31.394256  4916 net.cpp:367] BatchNorm10 -> Convolution10 (in-place)
I1001 09:18:31.394409  4916 net.cpp:122] Setting up BatchNorm10
I1001 09:18:31.394417  4916 net.cpp:129] Top shape: 100 32 16 16 (819200)
I1001 09:18:31.394419  4916 net.cpp:137] Memory required for data: 286311600
I1001 09:18:31.394424  4916 layer_factory.hpp:77] Creating layer Scale10
I1001 09:18:31.394429  4916 net.cpp:84] Creating Layer Scale10
I1001 09:18:31.394433  4916 net.cpp:406] Scale10 <- Convolution10
I1001 09:18:31.394435  4916 net.cpp:367] Scale10 -> Convolution10 (in-place)
I1001 09:18:31.394465  4916 layer_factory.hpp:77] Creating layer Scale10
I1001 09:18:31.394587  4916 net.cpp:122] Setting up Scale10
I1001 09:18:31.394603  4916 net.cpp:129] Top shape: 100 32 16 16 (819200)
I1001 09:18:31.394606  4916 net.cpp:137] Memory required for data: 289588400
I1001 09:18:31.394610  4916 layer_factory.hpp:77] Creating layer Eltwise4
I1001 09:18:31.394616  4916 net.cpp:84] Creating Layer Eltwise4
I1001 09:18:31.394618  4916 net.cpp:406] Eltwise4 <- Convolution8
I1001 09:18:31.394621  4916 net.cpp:406] Eltwise4 <- Convolution10
I1001 09:18:31.394625  4916 net.cpp:380] Eltwise4 -> Eltwise4
I1001 09:18:31.394640  4916 net.cpp:122] Setting up Eltwise4
I1001 09:18:31.394654  4916 net.cpp:129] Top shape: 100 32 16 16 (819200)
I1001 09:18:31.394656  4916 net.cpp:137] Memory required for data: 292865200
I1001 09:18:31.394659  4916 layer_factory.hpp:77] Creating layer ReLU9
I1001 09:18:31.394664  4916 net.cpp:84] Creating Layer ReLU9
I1001 09:18:31.394667  4916 net.cpp:406] ReLU9 <- Eltwise4
I1001 09:18:31.394671  4916 net.cpp:367] ReLU9 -> Eltwise4 (in-place)
I1001 09:18:31.394845  4916 net.cpp:122] Setting up ReLU9
I1001 09:18:31.394861  4916 net.cpp:129] Top shape: 100 32 16 16 (819200)
I1001 09:18:31.394865  4916 net.cpp:137] Memory required for data: 296142000
I1001 09:18:31.394866  4916 layer_factory.hpp:77] Creating layer Eltwise4_ReLU9_0_split
I1001 09:18:31.394870  4916 net.cpp:84] Creating Layer Eltwise4_ReLU9_0_split
I1001 09:18:31.394872  4916 net.cpp:406] Eltwise4_ReLU9_0_split <- Eltwise4
I1001 09:18:31.394876  4916 net.cpp:380] Eltwise4_ReLU9_0_split -> Eltwise4_ReLU9_0_split_0
I1001 09:18:31.394881  4916 net.cpp:380] Eltwise4_ReLU9_0_split -> Eltwise4_ReLU9_0_split_1
I1001 09:18:31.394909  4916 net.cpp:122] Setting up Eltwise4_ReLU9_0_split
I1001 09:18:31.394920  4916 net.cpp:129] Top shape: 100 32 16 16 (819200)
I1001 09:18:31.394923  4916 net.cpp:129] Top shape: 100 32 16 16 (819200)
I1001 09:18:31.394925  4916 net.cpp:137] Memory required for data: 302695600
I1001 09:18:31.394927  4916 layer_factory.hpp:77] Creating layer Convolution11
I1001 09:18:31.394934  4916 net.cpp:84] Creating Layer Convolution11
I1001 09:18:31.394937  4916 net.cpp:406] Convolution11 <- Eltwise4_ReLU9_0_split_0
I1001 09:18:31.394942  4916 net.cpp:380] Convolution11 -> Convolution11
I1001 09:18:31.396417  4916 net.cpp:122] Setting up Convolution11
I1001 09:18:31.396427  4916 net.cpp:129] Top shape: 100 32 16 16 (819200)
I1001 09:18:31.396430  4916 net.cpp:137] Memory required for data: 305972400
I1001 09:18:31.396435  4916 layer_factory.hpp:77] Creating layer BatchNorm11
I1001 09:18:31.396440  4916 net.cpp:84] Creating Layer BatchNorm11
I1001 09:18:31.396441  4916 net.cpp:406] BatchNorm11 <- Convolution11
I1001 09:18:31.396446  4916 net.cpp:367] BatchNorm11 -> Convolution11 (in-place)
I1001 09:18:31.396587  4916 net.cpp:122] Setting up BatchNorm11
I1001 09:18:31.396592  4916 net.cpp:129] Top shape: 100 32 16 16 (819200)
I1001 09:18:31.396595  4916 net.cpp:137] Memory required for data: 309249200
I1001 09:18:31.396600  4916 layer_factory.hpp:77] Creating layer Scale11
I1001 09:18:31.396603  4916 net.cpp:84] Creating Layer Scale11
I1001 09:18:31.396605  4916 net.cpp:406] Scale11 <- Convolution11
I1001 09:18:31.396610  4916 net.cpp:367] Scale11 -> Convolution11 (in-place)
I1001 09:18:31.396649  4916 layer_factory.hpp:77] Creating layer Scale11
I1001 09:18:31.396731  4916 net.cpp:122] Setting up Scale11
I1001 09:18:31.396735  4916 net.cpp:129] Top shape: 100 32 16 16 (819200)
I1001 09:18:31.396737  4916 net.cpp:137] Memory required for data: 312526000
I1001 09:18:31.396741  4916 layer_factory.hpp:77] Creating layer ReLU10
I1001 09:18:31.396745  4916 net.cpp:84] Creating Layer ReLU10
I1001 09:18:31.396747  4916 net.cpp:406] ReLU10 <- Convolution11
I1001 09:18:31.396751  4916 net.cpp:367] ReLU10 -> Convolution11 (in-place)
I1001 09:18:31.396872  4916 net.cpp:122] Setting up ReLU10
I1001 09:18:31.396878  4916 net.cpp:129] Top shape: 100 32 16 16 (819200)
I1001 09:18:31.396881  4916 net.cpp:137] Memory required for data: 315802800
I1001 09:18:31.396883  4916 layer_factory.hpp:77] Creating layer Convolution12
I1001 09:18:31.396893  4916 net.cpp:84] Creating Layer Convolution12
I1001 09:18:31.396894  4916 net.cpp:406] Convolution12 <- Convolution11
I1001 09:18:31.396900  4916 net.cpp:380] Convolution12 -> Convolution12
I1001 09:18:31.398046  4916 net.cpp:122] Setting up Convolution12
I1001 09:18:31.398054  4916 net.cpp:129] Top shape: 100 32 16 16 (819200)
I1001 09:18:31.398057  4916 net.cpp:137] Memory required for data: 319079600
I1001 09:18:31.398061  4916 layer_factory.hpp:77] Creating layer BatchNorm12
I1001 09:18:31.398068  4916 net.cpp:84] Creating Layer BatchNorm12
I1001 09:18:31.398072  4916 net.cpp:406] BatchNorm12 <- Convolution12
I1001 09:18:31.398075  4916 net.cpp:367] BatchNorm12 -> Convolution12 (in-place)
I1001 09:18:31.398217  4916 net.cpp:122] Setting up BatchNorm12
I1001 09:18:31.398221  4916 net.cpp:129] Top shape: 100 32 16 16 (819200)
I1001 09:18:31.398224  4916 net.cpp:137] Memory required for data: 322356400
I1001 09:18:31.398228  4916 layer_factory.hpp:77] Creating layer Scale12
I1001 09:18:31.398233  4916 net.cpp:84] Creating Layer Scale12
I1001 09:18:31.398236  4916 net.cpp:406] Scale12 <- Convolution12
I1001 09:18:31.398239  4916 net.cpp:367] Scale12 -> Convolution12 (in-place)
I1001 09:18:31.398269  4916 layer_factory.hpp:77] Creating layer Scale12
I1001 09:18:31.398350  4916 net.cpp:122] Setting up Scale12
I1001 09:18:31.398355  4916 net.cpp:129] Top shape: 100 32 16 16 (819200)
I1001 09:18:31.398356  4916 net.cpp:137] Memory required for data: 325633200
I1001 09:18:31.398360  4916 layer_factory.hpp:77] Creating layer Eltwise5
I1001 09:18:31.398365  4916 net.cpp:84] Creating Layer Eltwise5
I1001 09:18:31.398367  4916 net.cpp:406] Eltwise5 <- Eltwise4_ReLU9_0_split_1
I1001 09:18:31.398378  4916 net.cpp:406] Eltwise5 <- Convolution12
I1001 09:18:31.398383  4916 net.cpp:380] Eltwise5 -> Eltwise5
I1001 09:18:31.398398  4916 net.cpp:122] Setting up Eltwise5
I1001 09:18:31.398402  4916 net.cpp:129] Top shape: 100 32 16 16 (819200)
I1001 09:18:31.398404  4916 net.cpp:137] Memory required for data: 328910000
I1001 09:18:31.398406  4916 layer_factory.hpp:77] Creating layer ReLU11
I1001 09:18:31.398411  4916 net.cpp:84] Creating Layer ReLU11
I1001 09:18:31.398413  4916 net.cpp:406] ReLU11 <- Eltwise5
I1001 09:18:31.398416  4916 net.cpp:367] ReLU11 -> Eltwise5 (in-place)
I1001 09:18:31.398561  4916 net.cpp:122] Setting up ReLU11
I1001 09:18:31.398569  4916 net.cpp:129] Top shape: 100 32 16 16 (819200)
I1001 09:18:31.398571  4916 net.cpp:137] Memory required for data: 332186800
I1001 09:18:31.398573  4916 layer_factory.hpp:77] Creating layer Eltwise5_ReLU11_0_split
I1001 09:18:31.398577  4916 net.cpp:84] Creating Layer Eltwise5_ReLU11_0_split
I1001 09:18:31.398581  4916 net.cpp:406] Eltwise5_ReLU11_0_split <- Eltwise5
I1001 09:18:31.398583  4916 net.cpp:380] Eltwise5_ReLU11_0_split -> Eltwise5_ReLU11_0_split_0
I1001 09:18:31.398587  4916 net.cpp:380] Eltwise5_ReLU11_0_split -> Eltwise5_ReLU11_0_split_1
I1001 09:18:31.398619  4916 net.cpp:122] Setting up Eltwise5_ReLU11_0_split
I1001 09:18:31.398624  4916 net.cpp:129] Top shape: 100 32 16 16 (819200)
I1001 09:18:31.398627  4916 net.cpp:129] Top shape: 100 32 16 16 (819200)
I1001 09:18:31.398629  4916 net.cpp:137] Memory required for data: 338740400
I1001 09:18:31.398641  4916 layer_factory.hpp:77] Creating layer Convolution13
I1001 09:18:31.398649  4916 net.cpp:84] Creating Layer Convolution13
I1001 09:18:31.398653  4916 net.cpp:406] Convolution13 <- Eltwise5_ReLU11_0_split_0
I1001 09:18:31.398656  4916 net.cpp:380] Convolution13 -> Convolution13
I1001 09:18:31.399765  4916 net.cpp:122] Setting up Convolution13
I1001 09:18:31.399775  4916 net.cpp:129] Top shape: 100 32 16 16 (819200)
I1001 09:18:31.399777  4916 net.cpp:137] Memory required for data: 342017200
I1001 09:18:31.399781  4916 layer_factory.hpp:77] Creating layer BatchNorm13
I1001 09:18:31.399787  4916 net.cpp:84] Creating Layer BatchNorm13
I1001 09:18:31.399791  4916 net.cpp:406] BatchNorm13 <- Convolution13
I1001 09:18:31.399794  4916 net.cpp:367] BatchNorm13 -> Convolution13 (in-place)
I1001 09:18:31.399936  4916 net.cpp:122] Setting up BatchNorm13
I1001 09:18:31.399940  4916 net.cpp:129] Top shape: 100 32 16 16 (819200)
I1001 09:18:31.399942  4916 net.cpp:137] Memory required for data: 345294000
I1001 09:18:31.399947  4916 layer_factory.hpp:77] Creating layer Scale13
I1001 09:18:31.399952  4916 net.cpp:84] Creating Layer Scale13
I1001 09:18:31.399955  4916 net.cpp:406] Scale13 <- Convolution13
I1001 09:18:31.399957  4916 net.cpp:367] Scale13 -> Convolution13 (in-place)
I1001 09:18:31.399986  4916 layer_factory.hpp:77] Creating layer Scale13
I1001 09:18:31.400063  4916 net.cpp:122] Setting up Scale13
I1001 09:18:31.400068  4916 net.cpp:129] Top shape: 100 32 16 16 (819200)
I1001 09:18:31.400070  4916 net.cpp:137] Memory required for data: 348570800
I1001 09:18:31.400074  4916 layer_factory.hpp:77] Creating layer ReLU12
I1001 09:18:31.400077  4916 net.cpp:84] Creating Layer ReLU12
I1001 09:18:31.400079  4916 net.cpp:406] ReLU12 <- Convolution13
I1001 09:18:31.400084  4916 net.cpp:367] ReLU12 -> Convolution13 (in-place)
I1001 09:18:31.400521  4916 net.cpp:122] Setting up ReLU12
I1001 09:18:31.400528  4916 net.cpp:129] Top shape: 100 32 16 16 (819200)
I1001 09:18:31.400532  4916 net.cpp:137] Memory required for data: 351847600
I1001 09:18:31.400533  4916 layer_factory.hpp:77] Creating layer Convolution14
I1001 09:18:31.400545  4916 net.cpp:84] Creating Layer Convolution14
I1001 09:18:31.400548  4916 net.cpp:406] Convolution14 <- Convolution13
I1001 09:18:31.400553  4916 net.cpp:380] Convolution14 -> Convolution14
I1001 09:18:31.401607  4916 net.cpp:122] Setting up Convolution14
I1001 09:18:31.401615  4916 net.cpp:129] Top shape: 100 32 16 16 (819200)
I1001 09:18:31.401618  4916 net.cpp:137] Memory required for data: 355124400
I1001 09:18:31.401628  4916 layer_factory.hpp:77] Creating layer BatchNorm14
I1001 09:18:31.401633  4916 net.cpp:84] Creating Layer BatchNorm14
I1001 09:18:31.401635  4916 net.cpp:406] BatchNorm14 <- Convolution14
I1001 09:18:31.401640  4916 net.cpp:367] BatchNorm14 -> Convolution14 (in-place)
I1001 09:18:31.401777  4916 net.cpp:122] Setting up BatchNorm14
I1001 09:18:31.401780  4916 net.cpp:129] Top shape: 100 32 16 16 (819200)
I1001 09:18:31.401783  4916 net.cpp:137] Memory required for data: 358401200
I1001 09:18:31.401787  4916 layer_factory.hpp:77] Creating layer Scale14
I1001 09:18:31.401792  4916 net.cpp:84] Creating Layer Scale14
I1001 09:18:31.401793  4916 net.cpp:406] Scale14 <- Convolution14
I1001 09:18:31.401798  4916 net.cpp:367] Scale14 -> Convolution14 (in-place)
I1001 09:18:31.401824  4916 layer_factory.hpp:77] Creating layer Scale14
I1001 09:18:31.401902  4916 net.cpp:122] Setting up Scale14
I1001 09:18:31.401906  4916 net.cpp:129] Top shape: 100 32 16 16 (819200)
I1001 09:18:31.401908  4916 net.cpp:137] Memory required for data: 361678000
I1001 09:18:31.401912  4916 layer_factory.hpp:77] Creating layer Eltwise6
I1001 09:18:31.401916  4916 net.cpp:84] Creating Layer Eltwise6
I1001 09:18:31.401919  4916 net.cpp:406] Eltwise6 <- Eltwise5_ReLU11_0_split_1
I1001 09:18:31.401922  4916 net.cpp:406] Eltwise6 <- Convolution14
I1001 09:18:31.401926  4916 net.cpp:380] Eltwise6 -> Eltwise6
I1001 09:18:31.401938  4916 net.cpp:122] Setting up Eltwise6
I1001 09:18:31.401942  4916 net.cpp:129] Top shape: 100 32 16 16 (819200)
I1001 09:18:31.401944  4916 net.cpp:137] Memory required for data: 364954800
I1001 09:18:31.401947  4916 layer_factory.hpp:77] Creating layer ReLU13
I1001 09:18:31.401949  4916 net.cpp:84] Creating Layer ReLU13
I1001 09:18:31.401952  4916 net.cpp:406] ReLU13 <- Eltwise6
I1001 09:18:31.401955  4916 net.cpp:367] ReLU13 -> Eltwise6 (in-place)
I1001 09:18:31.402071  4916 net.cpp:122] Setting up ReLU13
I1001 09:18:31.402077  4916 net.cpp:129] Top shape: 100 32 16 16 (819200)
I1001 09:18:31.402079  4916 net.cpp:137] Memory required for data: 368231600
I1001 09:18:31.402082  4916 layer_factory.hpp:77] Creating layer Eltwise6_ReLU13_0_split
I1001 09:18:31.402086  4916 net.cpp:84] Creating Layer Eltwise6_ReLU13_0_split
I1001 09:18:31.402088  4916 net.cpp:406] Eltwise6_ReLU13_0_split <- Eltwise6
I1001 09:18:31.402091  4916 net.cpp:380] Eltwise6_ReLU13_0_split -> Eltwise6_ReLU13_0_split_0
I1001 09:18:31.402096  4916 net.cpp:380] Eltwise6_ReLU13_0_split -> Eltwise6_ReLU13_0_split_1
I1001 09:18:31.402123  4916 net.cpp:122] Setting up Eltwise6_ReLU13_0_split
I1001 09:18:31.402127  4916 net.cpp:129] Top shape: 100 32 16 16 (819200)
I1001 09:18:31.402129  4916 net.cpp:129] Top shape: 100 32 16 16 (819200)
I1001 09:18:31.402132  4916 net.cpp:137] Memory required for data: 374785200
I1001 09:18:31.402134  4916 layer_factory.hpp:77] Creating layer Convolution15
I1001 09:18:31.402140  4916 net.cpp:84] Creating Layer Convolution15
I1001 09:18:31.402143  4916 net.cpp:406] Convolution15 <- Eltwise6_ReLU13_0_split_0
I1001 09:18:31.402148  4916 net.cpp:380] Convolution15 -> Convolution15
I1001 09:18:31.403144  4916 net.cpp:122] Setting up Convolution15
I1001 09:18:31.403153  4916 net.cpp:129] Top shape: 100 64 8 8 (409600)
I1001 09:18:31.403156  4916 net.cpp:137] Memory required for data: 376423600
I1001 09:18:31.403159  4916 layer_factory.hpp:77] Creating layer BatchNorm15
I1001 09:18:31.403165  4916 net.cpp:84] Creating Layer BatchNorm15
I1001 09:18:31.403167  4916 net.cpp:406] BatchNorm15 <- Convolution15
I1001 09:18:31.403172  4916 net.cpp:367] BatchNorm15 -> Convolution15 (in-place)
I1001 09:18:31.403316  4916 net.cpp:122] Setting up BatchNorm15
I1001 09:18:31.403319  4916 net.cpp:129] Top shape: 100 64 8 8 (409600)
I1001 09:18:31.403321  4916 net.cpp:137] Memory required for data: 378062000
I1001 09:18:31.403326  4916 layer_factory.hpp:77] Creating layer Scale15
I1001 09:18:31.403331  4916 net.cpp:84] Creating Layer Scale15
I1001 09:18:31.403333  4916 net.cpp:406] Scale15 <- Convolution15
I1001 09:18:31.403342  4916 net.cpp:367] Scale15 -> Convolution15 (in-place)
I1001 09:18:31.403373  4916 layer_factory.hpp:77] Creating layer Scale15
I1001 09:18:31.403452  4916 net.cpp:122] Setting up Scale15
I1001 09:18:31.403457  4916 net.cpp:129] Top shape: 100 64 8 8 (409600)
I1001 09:18:31.403460  4916 net.cpp:137] Memory required for data: 379700400
I1001 09:18:31.403463  4916 layer_factory.hpp:77] Creating layer Convolution16
I1001 09:18:31.403470  4916 net.cpp:84] Creating Layer Convolution16
I1001 09:18:31.403472  4916 net.cpp:406] Convolution16 <- Eltwise6_ReLU13_0_split_1
I1001 09:18:31.403476  4916 net.cpp:380] Convolution16 -> Convolution16
I1001 09:18:31.404755  4916 net.cpp:122] Setting up Convolution16
I1001 09:18:31.404763  4916 net.cpp:129] Top shape: 100 64 8 8 (409600)
I1001 09:18:31.404767  4916 net.cpp:137] Memory required for data: 381338800
I1001 09:18:31.404770  4916 layer_factory.hpp:77] Creating layer BatchNorm16
I1001 09:18:31.404775  4916 net.cpp:84] Creating Layer BatchNorm16
I1001 09:18:31.404778  4916 net.cpp:406] BatchNorm16 <- Convolution16
I1001 09:18:31.404783  4916 net.cpp:367] BatchNorm16 -> Convolution16 (in-place)
I1001 09:18:31.404922  4916 net.cpp:122] Setting up BatchNorm16
I1001 09:18:31.404927  4916 net.cpp:129] Top shape: 100 64 8 8 (409600)
I1001 09:18:31.404928  4916 net.cpp:137] Memory required for data: 382977200
I1001 09:18:31.404932  4916 layer_factory.hpp:77] Creating layer Scale16
I1001 09:18:31.404937  4916 net.cpp:84] Creating Layer Scale16
I1001 09:18:31.404939  4916 net.cpp:406] Scale16 <- Convolution16
I1001 09:18:31.404942  4916 net.cpp:367] Scale16 -> Convolution16 (in-place)
I1001 09:18:31.404971  4916 layer_factory.hpp:77] Creating layer Scale16
I1001 09:18:31.405051  4916 net.cpp:122] Setting up Scale16
I1001 09:18:31.405055  4916 net.cpp:129] Top shape: 100 64 8 8 (409600)
I1001 09:18:31.405058  4916 net.cpp:137] Memory required for data: 384615600
I1001 09:18:31.405061  4916 layer_factory.hpp:77] Creating layer ReLU14
I1001 09:18:31.405064  4916 net.cpp:84] Creating Layer ReLU14
I1001 09:18:31.405067  4916 net.cpp:406] ReLU14 <- Convolution16
I1001 09:18:31.405071  4916 net.cpp:367] ReLU14 -> Convolution16 (in-place)
I1001 09:18:31.405187  4916 net.cpp:122] Setting up ReLU14
I1001 09:18:31.405192  4916 net.cpp:129] Top shape: 100 64 8 8 (409600)
I1001 09:18:31.405194  4916 net.cpp:137] Memory required for data: 386254000
I1001 09:18:31.405197  4916 layer_factory.hpp:77] Creating layer Convolution17
I1001 09:18:31.405205  4916 net.cpp:84] Creating Layer Convolution17
I1001 09:18:31.405206  4916 net.cpp:406] Convolution17 <- Convolution16
I1001 09:18:31.405210  4916 net.cpp:380] Convolution17 -> Convolution17
I1001 09:18:31.406893  4916 net.cpp:122] Setting up Convolution17
I1001 09:18:31.406901  4916 net.cpp:129] Top shape: 100 64 8 8 (409600)
I1001 09:18:31.406903  4916 net.cpp:137] Memory required for data: 387892400
I1001 09:18:31.406908  4916 layer_factory.hpp:77] Creating layer BatchNorm17
I1001 09:18:31.406913  4916 net.cpp:84] Creating Layer BatchNorm17
I1001 09:18:31.406916  4916 net.cpp:406] BatchNorm17 <- Convolution17
I1001 09:18:31.406920  4916 net.cpp:367] BatchNorm17 -> Convolution17 (in-place)
I1001 09:18:31.407063  4916 net.cpp:122] Setting up BatchNorm17
I1001 09:18:31.407066  4916 net.cpp:129] Top shape: 100 64 8 8 (409600)
I1001 09:18:31.407068  4916 net.cpp:137] Memory required for data: 389530800
I1001 09:18:31.407073  4916 layer_factory.hpp:77] Creating layer Scale17
I1001 09:18:31.407078  4916 net.cpp:84] Creating Layer Scale17
I1001 09:18:31.407080  4916 net.cpp:406] Scale17 <- Convolution17
I1001 09:18:31.407083  4916 net.cpp:367] Scale17 -> Convolution17 (in-place)
I1001 09:18:31.407112  4916 layer_factory.hpp:77] Creating layer Scale17
I1001 09:18:31.407191  4916 net.cpp:122] Setting up Scale17
I1001 09:18:31.407196  4916 net.cpp:129] Top shape: 100 64 8 8 (409600)
I1001 09:18:31.407197  4916 net.cpp:137] Memory required for data: 391169200
I1001 09:18:31.407202  4916 layer_factory.hpp:77] Creating layer Eltwise7
I1001 09:18:31.407212  4916 net.cpp:84] Creating Layer Eltwise7
I1001 09:18:31.407215  4916 net.cpp:406] Eltwise7 <- Convolution15
I1001 09:18:31.407218  4916 net.cpp:406] Eltwise7 <- Convolution17
I1001 09:18:31.407222  4916 net.cpp:380] Eltwise7 -> Eltwise7
I1001 09:18:31.407239  4916 net.cpp:122] Setting up Eltwise7
I1001 09:18:31.407243  4916 net.cpp:129] Top shape: 100 64 8 8 (409600)
I1001 09:18:31.407245  4916 net.cpp:137] Memory required for data: 392807600
I1001 09:18:31.407248  4916 layer_factory.hpp:77] Creating layer ReLU15
I1001 09:18:31.407251  4916 net.cpp:84] Creating Layer ReLU15
I1001 09:18:31.407253  4916 net.cpp:406] ReLU15 <- Eltwise7
I1001 09:18:31.407256  4916 net.cpp:367] ReLU15 -> Eltwise7 (in-place)
I1001 09:18:31.407371  4916 net.cpp:122] Setting up ReLU15
I1001 09:18:31.407377  4916 net.cpp:129] Top shape: 100 64 8 8 (409600)
I1001 09:18:31.407378  4916 net.cpp:137] Memory required for data: 394446000
I1001 09:18:31.407382  4916 layer_factory.hpp:77] Creating layer Eltwise7_ReLU15_0_split
I1001 09:18:31.407384  4916 net.cpp:84] Creating Layer Eltwise7_ReLU15_0_split
I1001 09:18:31.407387  4916 net.cpp:406] Eltwise7_ReLU15_0_split <- Eltwise7
I1001 09:18:31.407390  4916 net.cpp:380] Eltwise7_ReLU15_0_split -> Eltwise7_ReLU15_0_split_0
I1001 09:18:31.423701  4916 net.cpp:380] Eltwise7_ReLU15_0_split -> Eltwise7_ReLU15_0_split_1
I1001 09:18:31.423755  4916 net.cpp:122] Setting up Eltwise7_ReLU15_0_split
I1001 09:18:31.423765  4916 net.cpp:129] Top shape: 100 64 8 8 (409600)
I1001 09:18:31.423770  4916 net.cpp:129] Top shape: 100 64 8 8 (409600)
I1001 09:18:31.423774  4916 net.cpp:137] Memory required for data: 397722800
I1001 09:18:31.423779  4916 layer_factory.hpp:77] Creating layer Convolution18
I1001 09:18:31.423789  4916 net.cpp:84] Creating Layer Convolution18
I1001 09:18:31.423794  4916 net.cpp:406] Convolution18 <- Eltwise7_ReLU15_0_split_0
I1001 09:18:31.423801  4916 net.cpp:380] Convolution18 -> Convolution18
I1001 09:18:31.425781  4916 net.cpp:122] Setting up Convolution18
I1001 09:18:31.425789  4916 net.cpp:129] Top shape: 100 64 8 8 (409600)
I1001 09:18:31.425792  4916 net.cpp:137] Memory required for data: 399361200
I1001 09:18:31.425797  4916 layer_factory.hpp:77] Creating layer BatchNorm18
I1001 09:18:31.425803  4916 net.cpp:84] Creating Layer BatchNorm18
I1001 09:18:31.425806  4916 net.cpp:406] BatchNorm18 <- Convolution18
I1001 09:18:31.425809  4916 net.cpp:367] BatchNorm18 -> Convolution18 (in-place)
I1001 09:18:31.425956  4916 net.cpp:122] Setting up BatchNorm18
I1001 09:18:31.425961  4916 net.cpp:129] Top shape: 100 64 8 8 (409600)
I1001 09:18:31.425963  4916 net.cpp:137] Memory required for data: 400999600
I1001 09:18:31.425968  4916 layer_factory.hpp:77] Creating layer Scale18
I1001 09:18:31.425972  4916 net.cpp:84] Creating Layer Scale18
I1001 09:18:31.425976  4916 net.cpp:406] Scale18 <- Convolution18
I1001 09:18:31.425978  4916 net.cpp:367] Scale18 -> Convolution18 (in-place)
I1001 09:18:31.426009  4916 layer_factory.hpp:77] Creating layer Scale18
I1001 09:18:31.426092  4916 net.cpp:122] Setting up Scale18
I1001 09:18:31.426096  4916 net.cpp:129] Top shape: 100 64 8 8 (409600)
I1001 09:18:31.426098  4916 net.cpp:137] Memory required for data: 402638000
I1001 09:18:31.426102  4916 layer_factory.hpp:77] Creating layer ReLU16
I1001 09:18:31.426106  4916 net.cpp:84] Creating Layer ReLU16
I1001 09:18:31.426110  4916 net.cpp:406] ReLU16 <- Convolution18
I1001 09:18:31.426112  4916 net.cpp:367] ReLU16 -> Convolution18 (in-place)
I1001 09:18:31.426384  4916 net.cpp:122] Setting up ReLU16
I1001 09:18:31.426393  4916 net.cpp:129] Top shape: 100 64 8 8 (409600)
I1001 09:18:31.426398  4916 net.cpp:137] Memory required for data: 404276400
I1001 09:18:31.426401  4916 layer_factory.hpp:77] Creating layer Convolution19
I1001 09:18:31.426411  4916 net.cpp:84] Creating Layer Convolution19
I1001 09:18:31.426415  4916 net.cpp:406] Convolution19 <- Convolution18
I1001 09:18:31.426422  4916 net.cpp:380] Convolution19 -> Convolution19
I1001 09:18:31.428243  4916 net.cpp:122] Setting up Convolution19
I1001 09:18:31.428261  4916 net.cpp:129] Top shape: 100 64 8 8 (409600)
I1001 09:18:31.428263  4916 net.cpp:137] Memory required for data: 405914800
I1001 09:18:31.428268  4916 layer_factory.hpp:77] Creating layer BatchNorm19
I1001 09:18:31.428273  4916 net.cpp:84] Creating Layer BatchNorm19
I1001 09:18:31.428277  4916 net.cpp:406] BatchNorm19 <- Convolution19
I1001 09:18:31.428280  4916 net.cpp:367] BatchNorm19 -> Convolution19 (in-place)
I1001 09:18:31.428431  4916 net.cpp:122] Setting up BatchNorm19
I1001 09:18:31.428436  4916 net.cpp:129] Top shape: 100 64 8 8 (409600)
I1001 09:18:31.428437  4916 net.cpp:137] Memory required for data: 407553200
I1001 09:18:31.428453  4916 layer_factory.hpp:77] Creating layer Scale19
I1001 09:18:31.428458  4916 net.cpp:84] Creating Layer Scale19
I1001 09:18:31.428462  4916 net.cpp:406] Scale19 <- Convolution19
I1001 09:18:31.428464  4916 net.cpp:367] Scale19 -> Convolution19 (in-place)
I1001 09:18:31.428496  4916 layer_factory.hpp:77] Creating layer Scale19
I1001 09:18:31.428580  4916 net.cpp:122] Setting up Scale19
I1001 09:18:31.428583  4916 net.cpp:129] Top shape: 100 64 8 8 (409600)
I1001 09:18:31.428586  4916 net.cpp:137] Memory required for data: 409191600
I1001 09:18:31.428589  4916 layer_factory.hpp:77] Creating layer Eltwise8
I1001 09:18:31.428593  4916 net.cpp:84] Creating Layer Eltwise8
I1001 09:18:31.428596  4916 net.cpp:406] Eltwise8 <- Eltwise7_ReLU15_0_split_1
I1001 09:18:31.428599  4916 net.cpp:406] Eltwise8 <- Convolution19
I1001 09:18:31.428602  4916 net.cpp:380] Eltwise8 -> Eltwise8
I1001 09:18:31.428622  4916 net.cpp:122] Setting up Eltwise8
I1001 09:18:31.428627  4916 net.cpp:129] Top shape: 100 64 8 8 (409600)
I1001 09:18:31.428628  4916 net.cpp:137] Memory required for data: 410830000
I1001 09:18:31.428630  4916 layer_factory.hpp:77] Creating layer ReLU17
I1001 09:18:31.428634  4916 net.cpp:84] Creating Layer ReLU17
I1001 09:18:31.428637  4916 net.cpp:406] ReLU17 <- Eltwise8
I1001 09:18:31.428640  4916 net.cpp:367] ReLU17 -> Eltwise8 (in-place)
I1001 09:18:31.428762  4916 net.cpp:122] Setting up ReLU17
I1001 09:18:31.428768  4916 net.cpp:129] Top shape: 100 64 8 8 (409600)
I1001 09:18:31.428771  4916 net.cpp:137] Memory required for data: 412468400
I1001 09:18:31.428772  4916 layer_factory.hpp:77] Creating layer Eltwise8_ReLU17_0_split
I1001 09:18:31.428776  4916 net.cpp:84] Creating Layer Eltwise8_ReLU17_0_split
I1001 09:18:31.428778  4916 net.cpp:406] Eltwise8_ReLU17_0_split <- Eltwise8
I1001 09:18:31.428782  4916 net.cpp:380] Eltwise8_ReLU17_0_split -> Eltwise8_ReLU17_0_split_0
I1001 09:18:31.428787  4916 net.cpp:380] Eltwise8_ReLU17_0_split -> Eltwise8_ReLU17_0_split_1
I1001 09:18:31.428817  4916 net.cpp:122] Setting up Eltwise8_ReLU17_0_split
I1001 09:18:31.428820  4916 net.cpp:129] Top shape: 100 64 8 8 (409600)
I1001 09:18:31.428823  4916 net.cpp:129] Top shape: 100 64 8 8 (409600)
I1001 09:18:31.428825  4916 net.cpp:137] Memory required for data: 415745200
I1001 09:18:31.428828  4916 layer_factory.hpp:77] Creating layer Convolution20
I1001 09:18:31.428834  4916 net.cpp:84] Creating Layer Convolution20
I1001 09:18:31.428836  4916 net.cpp:406] Convolution20 <- Eltwise8_ReLU17_0_split_0
I1001 09:18:31.428841  4916 net.cpp:380] Convolution20 -> Convolution20
I1001 09:18:31.430905  4916 net.cpp:122] Setting up Convolution20
I1001 09:18:31.430914  4916 net.cpp:129] Top shape: 100 64 8 8 (409600)
I1001 09:18:31.430917  4916 net.cpp:137] Memory required for data: 417383600
I1001 09:18:31.430923  4916 layer_factory.hpp:77] Creating layer BatchNorm20
I1001 09:18:31.430928  4916 net.cpp:84] Creating Layer BatchNorm20
I1001 09:18:31.430932  4916 net.cpp:406] BatchNorm20 <- Convolution20
I1001 09:18:31.430935  4916 net.cpp:367] BatchNorm20 -> Convolution20 (in-place)
I1001 09:18:31.431087  4916 net.cpp:122] Setting up BatchNorm20
I1001 09:18:31.431092  4916 net.cpp:129] Top shape: 100 64 8 8 (409600)
I1001 09:18:31.431093  4916 net.cpp:137] Memory required for data: 419022000
I1001 09:18:31.431098  4916 layer_factory.hpp:77] Creating layer Scale20
I1001 09:18:31.431109  4916 net.cpp:84] Creating Layer Scale20
I1001 09:18:31.431113  4916 net.cpp:406] Scale20 <- Convolution20
I1001 09:18:31.431116  4916 net.cpp:367] Scale20 -> Convolution20 (in-place)
I1001 09:18:31.431147  4916 layer_factory.hpp:77] Creating layer Scale20
I1001 09:18:31.431233  4916 net.cpp:122] Setting up Scale20
I1001 09:18:31.431237  4916 net.cpp:129] Top shape: 100 64 8 8 (409600)
I1001 09:18:31.431239  4916 net.cpp:137] Memory required for data: 420660400
I1001 09:18:31.431243  4916 layer_factory.hpp:77] Creating layer ReLU18
I1001 09:18:31.431247  4916 net.cpp:84] Creating Layer ReLU18
I1001 09:18:31.431251  4916 net.cpp:406] ReLU18 <- Convolution20
I1001 09:18:31.431253  4916 net.cpp:367] ReLU18 -> Convolution20 (in-place)
I1001 09:18:31.431707  4916 net.cpp:122] Setting up ReLU18
I1001 09:18:31.431715  4916 net.cpp:129] Top shape: 100 64 8 8 (409600)
I1001 09:18:31.431717  4916 net.cpp:137] Memory required for data: 422298800
I1001 09:18:31.431720  4916 layer_factory.hpp:77] Creating layer Convolution21
I1001 09:18:31.431727  4916 net.cpp:84] Creating Layer Convolution21
I1001 09:18:31.431730  4916 net.cpp:406] Convolution21 <- Convolution20
I1001 09:18:31.431736  4916 net.cpp:380] Convolution21 -> Convolution21
I1001 09:18:31.433102  4916 net.cpp:122] Setting up Convolution21
I1001 09:18:31.433110  4916 net.cpp:129] Top shape: 100 64 8 8 (409600)
I1001 09:18:31.433112  4916 net.cpp:137] Memory required for data: 423937200
I1001 09:18:31.433117  4916 layer_factory.hpp:77] Creating layer BatchNorm21
I1001 09:18:31.433122  4916 net.cpp:84] Creating Layer BatchNorm21
I1001 09:18:31.433125  4916 net.cpp:406] BatchNorm21 <- Convolution21
I1001 09:18:31.433128  4916 net.cpp:367] BatchNorm21 -> Convolution21 (in-place)
I1001 09:18:31.433279  4916 net.cpp:122] Setting up BatchNorm21
I1001 09:18:31.433282  4916 net.cpp:129] Top shape: 100 64 8 8 (409600)
I1001 09:18:31.433285  4916 net.cpp:137] Memory required for data: 425575600
I1001 09:18:31.433290  4916 layer_factory.hpp:77] Creating layer Scale21
I1001 09:18:31.433295  4916 net.cpp:84] Creating Layer Scale21
I1001 09:18:31.433296  4916 net.cpp:406] Scale21 <- Convolution21
I1001 09:18:31.433300  4916 net.cpp:367] Scale21 -> Convolution21 (in-place)
I1001 09:18:31.433329  4916 layer_factory.hpp:77] Creating layer Scale21
I1001 09:18:31.433413  4916 net.cpp:122] Setting up Scale21
I1001 09:18:31.433418  4916 net.cpp:129] Top shape: 100 64 8 8 (409600)
I1001 09:18:31.433420  4916 net.cpp:137] Memory required for data: 427214000
I1001 09:18:31.433424  4916 layer_factory.hpp:77] Creating layer Eltwise9
I1001 09:18:31.433429  4916 net.cpp:84] Creating Layer Eltwise9
I1001 09:18:31.433430  4916 net.cpp:406] Eltwise9 <- Eltwise8_ReLU17_0_split_1
I1001 09:18:31.433434  4916 net.cpp:406] Eltwise9 <- Convolution21
I1001 09:18:31.433436  4916 net.cpp:380] Eltwise9 -> Eltwise9
I1001 09:18:31.433454  4916 net.cpp:122] Setting up Eltwise9
I1001 09:18:31.433459  4916 net.cpp:129] Top shape: 100 64 8 8 (409600)
I1001 09:18:31.433460  4916 net.cpp:137] Memory required for data: 428852400
I1001 09:18:31.433462  4916 layer_factory.hpp:77] Creating layer ReLU19
I1001 09:18:31.433465  4916 net.cpp:84] Creating Layer ReLU19
I1001 09:18:31.433468  4916 net.cpp:406] ReLU19 <- Eltwise9
I1001 09:18:31.433471  4916 net.cpp:367] ReLU19 -> Eltwise9 (in-place)
I1001 09:18:31.433943  4916 net.cpp:122] Setting up ReLU19
I1001 09:18:31.433953  4916 net.cpp:129] Top shape: 100 64 8 8 (409600)
I1001 09:18:31.433954  4916 net.cpp:137] Memory required for data: 430490800
I1001 09:18:31.433957  4916 layer_factory.hpp:77] Creating layer Pooling1
I1001 09:18:31.433962  4916 net.cpp:84] Creating Layer Pooling1
I1001 09:18:31.433965  4916 net.cpp:406] Pooling1 <- Eltwise9
I1001 09:18:31.433969  4916 net.cpp:380] Pooling1 -> Pooling1
I1001 09:18:31.434100  4916 net.cpp:122] Setting up Pooling1
I1001 09:18:31.434108  4916 net.cpp:129] Top shape: 100 64 1 1 (6400)
I1001 09:18:31.434110  4916 net.cpp:137] Memory required for data: 430516400
I1001 09:18:31.434113  4916 layer_factory.hpp:77] Creating layer InnerProduct1
I1001 09:18:31.434124  4916 net.cpp:84] Creating Layer InnerProduct1
I1001 09:18:31.434126  4916 net.cpp:406] InnerProduct1 <- Pooling1
I1001 09:18:31.434134  4916 net.cpp:380] InnerProduct1 -> InnerProduct1
I1001 09:18:31.434240  4916 net.cpp:122] Setting up InnerProduct1
I1001 09:18:31.434245  4916 net.cpp:129] Top shape: 100 10 (1000)
I1001 09:18:31.434248  4916 net.cpp:137] Memory required for data: 430520400
I1001 09:18:31.434252  4916 layer_factory.hpp:77] Creating layer InnerProduct1_InnerProduct1_0_split
I1001 09:18:31.434257  4916 net.cpp:84] Creating Layer InnerProduct1_InnerProduct1_0_split
I1001 09:18:31.434259  4916 net.cpp:406] InnerProduct1_InnerProduct1_0_split <- InnerProduct1
I1001 09:18:31.434263  4916 net.cpp:380] InnerProduct1_InnerProduct1_0_split -> InnerProduct1_InnerProduct1_0_split_0
I1001 09:18:31.434267  4916 net.cpp:380] InnerProduct1_InnerProduct1_0_split -> InnerProduct1_InnerProduct1_0_split_1
I1001 09:18:31.434295  4916 net.cpp:122] Setting up InnerProduct1_InnerProduct1_0_split
I1001 09:18:31.434299  4916 net.cpp:129] Top shape: 100 10 (1000)
I1001 09:18:31.434303  4916 net.cpp:129] Top shape: 100 10 (1000)
I1001 09:18:31.434304  4916 net.cpp:137] Memory required for data: 430528400
I1001 09:18:31.434306  4916 layer_factory.hpp:77] Creating layer SoftmaxWithLoss1
I1001 09:18:31.434310  4916 net.cpp:84] Creating Layer SoftmaxWithLoss1
I1001 09:18:31.434314  4916 net.cpp:406] SoftmaxWithLoss1 <- InnerProduct1_InnerProduct1_0_split_0
I1001 09:18:31.434316  4916 net.cpp:406] SoftmaxWithLoss1 <- Data2_Data1_1_split_0
…
