…
I1005 17:13:36.700465  9762 net.cpp:294] The NetState phase (0) differed from the phase (1) specified by a rule in layer Accuracy1
I1005 17:13:36.700868  9762 net.cpp:51] Initializing net from parameters: 
name: "resnet_cifar10"
state {
  phase: TRAIN
  level: 0
  stage: ""
}
layer {
  name: "Data1"
  type: "Data"
  top: "Data1"
  top: "Data2"
  include {
    phase: TRAIN
  }
  transform_param {
    mirror: true
    crop_size: 28
    mean_file: "/home/x306/caffe/xn/PENLU/data/cifar10/mean.binaryproto"
  }
  data_param {
    source: "/home/x306/caffe/xn/PENLU/data/cifar10/cifar10_train_lmdb"
    batch_size: 100
    backend: LMDB
  }
}
layer {
  name: "Convolution1"
  type: "Convolution"
  bottom: "Data1"
  top: "Convolution1"
  param {
    lr_mult: 1
    decay_mult: 1
  }
  param {
    lr_mult: 2
    decay_mult: 0
  }
  convolution_param {
    num_output: 16
    pad: 1
    kernel_size: 3
    stride: 1
    weight_filler {
      type: "gaussian"
      std: 0.118
    }
    bias_filler {
      type: "constant"
      value: 0
    }
  }
}
layer {
  name: "BatchNorm1"
  type: "BatchNorm"
  bottom: "Convolution1"
  top: "Convolution1"
  param {
    lr_mult: 0
    decay_mult: 0
  }
  param {
    lr_mult: 0
    decay_mult: 0
  }
  param {
    lr_mult: 0
    decay_mult: 0
  }
}
layer {
  name: "Scale1"
  type: "Scale"
  bottom: "Convolution1"
  top: "Convolution1"
  scale_param {
    bias_term: true
  }
}
layer {
  name: "elu1"
  type: "ELU"
  bottom: "Convolution1"
  top: "Convolution1"
  elu_param {
    alpha: 1
  }
}
layer {
  name: "Convolution2"
  type: "Convolution"
  bottom: "Convolution1"
  top: "Convolution2"
  param {
    lr_mult: 1
    decay_mult: 1
  }
  param {
    lr_mult: 2
    decay_mult: 0
  }
  convolution_param {
    num_output: 16
    pad: 1
    kernel_size: 3
    stride: 1
    weight_filler {
      type: "gaussian"
      std: 0.118
    }
    bias_filler {
      type: "constant"
      value: 0
    }
  }
}
layer {
  name: "BatchNorm2"
  type: "BatchNorm"
  bottom: "Convolution2"
  top: "Convolution2"
  param {
    lr_mult: 0
    decay_mult: 0
  }
  param {
    lr_mult: 0
    decay_mult: 0
  }
  param {
    lr_mult: 0
    decay_mult: 0
  }
}
layer {
  name: "Scale2"
  type: "Scale"
  bottom: "Convolution2"
  top: "Convolution2"
  scale_param {
    bias_term: true
  }
}
layer {
  name: "elu2"
  type: "ELU"
  bottom: "Convolution2"
  top: "Convolution2"
  elu_param {
    alpha: 1
  }
}
layer {
  name: "Convolution3"
  type: "Convolution"
  bottom: "Convolution2"
  top: "Convolution3"
  param {
    lr_mult: 1
    decay_mult: 1
  }
  param {
    lr_mult: 2
    decay_mult: 0
  }
  convolution_param {
    num_output: 16
    pad: 1
    kernel_size: 3
    stride: 1
    weight_filler {
      type: "gaussian"
      std: 0.118
    }
    bias_filler {
      type: "constant"
      value: 0
    }
  }
}
layer {
  name: "BatchNorm3"
  type: "BatchNorm"
  bottom: "Convolution3"
  top: "Convolution3"
  param {
    lr_mult: 0
    decay_mult: 0
  }
  param {
    lr_mult: 0
    decay_mult: 0
  }
  param {
    lr_mult: 0
    decay_mult: 0
  }
}
layer {
  name: "Scale3"
  type: "Scale"
  bottom: "Convolution3"
  top: "Convolution3"
  scale_param {
    bias_term: true
  }
}
layer {
  name: "Eltwise1"
  type: "Eltwise"
  bottom: "Convolution1"
  bottom: "Convolution3"
  top: "Eltwise1"
  eltwise_param {
    operation: SUM
  }
}
layer {
  name: "elu3"
  type: "ELU"
  bottom: "Eltwise1"
  top: "Eltwise1"
  elu_param {
    alpha: 1
  }
}
layer {
  name: "Convolution4"
  type: "Convolution"
  bottom: "Eltwise1"
  top: "Convolution4"
  param {
    lr_mult: 1
    decay_mult: 1
  }
  param {
    lr_mult: 2
    decay_mult: 0
  }
  convolution_param {
    num_output: 16
    pad: 1
    kernel_size: 3
    stride: 1
    weight_filler {
      type: "gaussian"
      std: 0.118
    }
    bias_filler {
      type: "constant"
      value: 0
    }
  }
}
layer {
  name: "BatchNorm4"
  type: "BatchNorm"
  bottom: "Convolution4"
  top: "Convolution4"
  param {
    lr_mult: 0
    decay_mult: 0
  }
  param {
    lr_mult: 0
    decay_mult: 0
  }
  param {
    lr_mult: 0
    decay_mult: 0
  }
}
layer {
  name: "Scale4"
  type: "Scale"
  bottom: "Convolution4"
  top: "Convolution4"
  scale_param {
    bias_term: true
  }
}
layer {
  name: "elu4"
  type: "ELU"
  bottom: "Convolution4"
  top: "Convolution4"
  elu_param {
    alpha: 1
  }
}
layer {
  name: "Convolution5"
  type: "Convolution"
  bottom: "Convolution4"
  top: "Convolution5"
  param {
    lr_mult: 1
    decay_mult: 1
  }
  param {
    lr_mult: 2
    decay_mult: 0
  }
  convolution_param {
    num_output: 16
    pad: 1
    kernel_size: 3
    stride: 1
    weight_filler {
      type: "gaussian"
      std: 0.118
    }
    bias_filler {
      type: "constant"
      value: 0
    }
  }
}
layer {
  name: "BatchNorm5"
  type: "BatchNorm"
  bottom: "Convolution5"
  top: "Convolution5"
  param {
    lr_mult: 0
    decay_mult: 0
  }
  param {
    lr_mult: 0
    decay_mult: 0
  }
  param {
    lr_mult: 0
    decay_mult: 0
  }
}
layer {
  name: "Scale5"
  type: "Scale"
  bottom: "Convolution5"
  top: "Convolution5"
  scale_param {
    bias_term: true
  }
}
layer {
  name: "Eltwise2"
  type: "Eltwise"
  bottom: "Eltwise1"
  bottom: "Convolution5"
  top: "Eltwise2"
  eltwise_param {
    operation: SUM
  }
}
layer {
  name: "elu5"
  type: "ELU"
  bottom: "Eltwise2"
  top: "Eltwise2"
  elu_param {
    alpha: 1
  }
}
layer {
  name: "Convolution6"
  type: "Convolution"
  bottom: "Eltwise2"
  top: "Convolution6"
  param {
    lr_mult: 1
    decay_mult: 1
  }
  param {
    lr_mult: 2
    decay_mult: 0
  }
  convolution_param {
    num_output: 16
    pad: 1
    kernel_size: 3
    stride: 1
    weight_filler {
      type: "gaussian"
      std: 0.118
    }
    bias_filler {
      type: "constant"
      value: 0
    }
  }
}
layer {
  name: "BatchNorm6"
  type: "BatchNorm"
  bottom: "Convolution6"
  top: "Convolution6"
  param {
    lr_mult: 0
    decay_mult: 0
  }
  param {
    lr_mult: 0
    decay_mult: 0
  }
  param {
    lr_mult: 0
    decay_mult: 0
  }
}
layer {
  name: "Scale6"
  type: "Scale"
  bottom: "Convolution6"
  top: "Convolution6"
  scale_param {
    bias_term: true
  }
}
layer {
  name: "elu6"
  type: "ELU"
  bottom: "Convolution6"
  top: "Convolution6"
  elu_param {
    alpha: 1
  }
}
layer {
  name: "Convolution7"
  type: "Convolution"
  bottom: "Convolution6"
  top: "Convolution7"
  param {
    lr_mult: 1
    decay_mult: 1
  }
  param {
    lr_mult: 2
    decay_mult: 0
  }
  convolution_param {
    num_output: 16
    pad: 1
    kernel_size: 3
    stride: 1
    weight_filler {
      type: "gaussian"
      std: 0.118
    }
    bias_filler {
      type: "constant"
      value: 0
    }
  }
}
layer {
  name: "BatchNorm7"
  type: "BatchNorm"
  bottom: "Convolution7"
  top: "Convolution7"
  param {
    lr_mult: 0
    decay_mult: 0
  }
  param {
    lr_mult: 0
    decay_mult: 0
  }
  param {
    lr_mult: 0
    decay_mult: 0
  }
}
layer {
  name: "Scale7"
  type: "Scale"
  bottom: "Convolution7"
  top: "Convolution7"
  scale_param {
    bias_term: true
  }
}
layer {
  name: "Eltwise3"
  type: "Eltwise"
  bottom: "Eltwise2"
  bottom: "Convolution7"
  top: "Eltwise3"
  eltwise_param {
    operation: SUM
  }
}
layer {
  name: "elu7"
  type: "ELU"
  bottom: "Eltwise3"
  top: "Eltwise3"
  elu_param {
    alpha: 1
  }
}
layer {
  name: "Convolution8"
  type: "Convolution"
  bottom: "Eltwise3"
  top: "Convolution8"
  param {
    lr_mult: 1
    decay_mult: 1
  }
  param {
    lr_mult: 2
    decay_mult: 0
  }
  convolution_param {
    num_output: 32
    pad: 0
    kernel_size: 1
    stride: 2
    weight_filler {
      type: "gaussian"
      std: 0.25
    }
    bias_filler {
      type: "constant"
      value: 0
    }
  }
}
layer {
  name: "BatchNorm8"
  type: "BatchNorm"
  bottom: "Convolution8"
  top: "Convolution8"
  param {
    lr_mult: 0
    decay_mult: 0
  }
  param {
    lr_mult: 0
    decay_mult: 0
  }
  param {
    lr_mult: 0
    decay_mult: 0
  }
}
layer {
  name: "Scale8"
  type: "Scale"
  bottom: "Convolution8"
  top: "Convolution8"
  scale_param {
    bias_term: true
  }
}
layer {
  name: "Convolution9"
  type: "Convolution"
  bottom: "Eltwise3"
  top: "Convolution9"
  param {
    lr_mult: 1
    decay_mult: 1
  }
  param {
    lr_mult: 2
    decay_mult: 0
  }
  convolution_param {
    num_output: 32
    pad: 1
    kernel_size: 3
    stride: 2
    weight_filler {
      type: "gaussian"
      std: 0.083
    }
    bias_filler {
      type: "constant"
      value: 0
    }
  }
}
layer {
  name: "BatchNorm9"
  type: "BatchNorm"
  bottom: "Convolution9"
  top: "Convolution9"
  param {
    lr_mult: 0
    decay_mult: 0
  }
  param {
    lr_mult: 0
    decay_mult: 0
  }
  param {
    lr_mult: 0
    decay_mult: 0
  }
}
layer {
  name: "Scale9"
  type: "Scale"
  bottom: "Convolution9"
  top: "Convolution9"
  scale_param {
    bias_term: true
  }
}
layer {
  name: "elu8"
  type: "ELU"
  bottom: "Convolution9"
  top: "Convolution9"
  elu_param {
    alpha: 1
  }
}
layer {
  name: "Convolution10"
  type: "Convolution"
  bottom: "Convolution9"
  top: "Convolution10"
  param {
    lr_mult: 1
    decay_mult: 1
  }
  param {
    lr_mult: 2
    decay_mult: 0
  }
  convolution_param {
    num_output: 32
    pad: 1
    kernel_size: 3
    stride: 1
    weight_filler {
      type: "gaussian"
      std: 0.083
    }
    bias_filler {
      type: "constant"
      value: 0
    }
  }
}
layer {
  name: "BatchNorm10"
  type: "BatchNorm"
  bottom: "Convolution10"
  top: "Convolution10"
  param {
    lr_mult: 0
    decay_mult: 0
  }
  param {
    lr_mult: 0
    decay_mult: 0
  }
  param {
    lr_mult: 0
    decay_mult: 0
  }
}
layer {
  name: "Scale10"
  type: "Scale"
  bottom: "Convolution10"
  top: "Convolution10"
  scale_param {
    bias_term: true
  }
}
layer {
  name: "Eltwise4"
  type: "Eltwise"
  bottom: "Convolution8"
  bottom: "Convolution10"
  top: "Eltwise4"
  eltwise_param {
    operation: SUM
  }
}
layer {
  name: "elu9"
  type: "ELU"
  bottom: "Eltwise4"
  top: "Eltwise4"
  elu_param {
    alpha: 1
  }
}
layer {
  name: "Convolution11"
  type: "Convolution"
  bottom: "Eltwise4"
  top: "Convolution11"
  param {
    lr_mult: 1
    decay_mult: 1
  }
  param {
    lr_mult: 2
    decay_mult: 0
  }
  convolution_param {
    num_output: 32
    pad: 1
    kernel_size: 3
    stride: 1
    weight_filler {
      type: "gaussian"
      std: 0.083
    }
    bias_filler {
      type: "constant"
      value: 0
    }
  }
}
layer {
  name: "BatchNorm11"
  type: "BatchNorm"
  bottom: "Convolution11"
  top: "Convolution11"
  param {
    lr_mult: 0
    decay_mult: 0
  }
  param {
    lr_mult: 0
    decay_mult: 0
  }
  param {
    lr_mult: 0
    decay_mult: 0
  }
}
layer {
  name: "Scale11"
  type: "Scale"
  bottom: "Convolution11"
  top: "Convolution11"
  scale_param {
    bias_term: true
  }
}
layer {
  name: "elu10"
  type: "ELU"
  bottom: "Convolution11"
  top: "Convolution11"
  elu_param {
    alpha: 1
  }
}
layer {
  name: "Convolution12"
  type: "Convolution"
  bottom: "Convolution11"
  top: "Convolution12"
  param {
    lr_mult: 1
    decay_mult: 1
  }
  param {
    lr_mult: 2
    decay_mult: 0
  }
  convolution_param {
    num_output: 32
    pad: 1
    kernel_size: 3
    stride: 1
    weight_filler {
      type: "gaussian"
      std: 0.083
    }
    bias_filler {
      type: "constant"
      value: 0
    }
  }
}
layer {
  name: "BatchNorm12"
  type: "BatchNorm"
  bottom: "Convolution12"
  top: "Convolution12"
  param {
    lr_mult: 0
    decay_mult: 0
  }
  param {
    lr_mult: 0
    decay_mult: 0
  }
  param {
    lr_mult: 0
    decay_mult: 0
  }
}
layer {
  name: "Scale12"
  type: "Scale"
  bottom: "Convolution12"
  top: "Convolution12"
  scale_param {
    bias_term: true
  }
}
layer {
  name: "Eltwise5"
  type: "Eltwise"
  bottom: "Eltwise4"
  bottom: "Convolution12"
  top: "Eltwise5"
  eltwise_param {
    operation: SUM
  }
}
layer {
  name: "elu11"
  type: "ELU"
  bottom: "Eltwise5"
  top: "Eltwise5"
  elu_param {
    alpha: 1
  }
}
layer {
  name: "Convolution13"
  type: "Convolution"
  bottom: "Eltwise5"
  top: "Convolution13"
  param {
    lr_mult: 1
    decay_mult: 1
  }
  param {
    lr_mult: 2
    decay_mult: 0
  }
  convolution_param {
    num_output: 32
    pad: 1
    kernel_size: 3
    stride: 1
    weight_filler {
      type: "gaussian"
      std: 0.083
    }
    bias_filler {
      type: "constant"
      value: 0
    }
  }
}
layer {
  name: "BatchNorm13"
  type: "BatchNorm"
  bottom: "Convolution13"
  top: "Convolution13"
  param {
    lr_mult: 0
    decay_mult: 0
  }
  param {
    lr_mult: 0
    decay_mult: 0
  }
  param {
    lr_mult: 0
    decay_mult: 0
  }
}
layer {
  name: "Scale13"
  type: "Scale"
  bottom: "Convolution13"
  top: "Convolution13"
  scale_param {
    bias_term: true
  }
}
layer {
  name: "elu12"
  type: "ELU"
  bottom: "Convolution13"
  top: "Convolution13"
  elu_param {
    alpha: 1
  }
}
layer {
  name: "Convolution14"
  type: "Convolution"
  bottom: "Convolution13"
  top: "Convolution14"
  param {
    lr_mult: 1
    decay_mult: 1
  }
  param {
    lr_mult: 2
    decay_mult: 0
  }
  convolution_param {
    num_output: 32
    pad: 1
    kernel_size: 3
    stride: 1
    weight_filler {
      type: "gaussian"
      std: 0.083
    }
    bias_filler {
      type: "constant"
      value: 0
    }
  }
}
layer {
  name: "BatchNorm14"
  type: "BatchNorm"
  bottom: "Convolution14"
  top: "Convolution14"
  param {
    lr_mult: 0
    decay_mult: 0
  }
  param {
    lr_mult: 0
    decay_mult: 0
  }
  param {
    lr_mult: 0
    decay_mult: 0
  }
}
layer {
  name: "Scale14"
  type: "Scale"
  bottom: "Convolution14"
  top: "Convolution14"
  scale_param {
    bias_term: true
  }
}
layer {
  name: "Eltwise6"
  type: "Eltwise"
  bottom: "Eltwise5"
  bottom: "Convolution14"
  top: "Eltwise6"
  eltwise_param {
    operation: SUM
  }
}
layer {
  name: "elu13"
  type: "ELU"
  bottom: "Eltwise6"
  top: "Eltwise6"
  elu_param {
    alpha: 1
  }
}
layer {
  name: "Convolution15"
  type: "Convolution"
  bottom: "Eltwise6"
  top: "Convolution15"
  param {
    lr_mult: 1
    decay_mult: 1
  }
  param {
    lr_mult: 2
    decay_mult: 0
  }
  convolution_param {
    num_output: 64
    pad: 0
    kernel_size: 1
    stride: 2
    weight_filler {
      type: "gaussian"
      std: 0.17677669
    }
    bias_filler {
      type: "constant"
      value: 0
    }
  }
}
layer {
  name: "BatchNorm15"
  type: "BatchNorm"
  bottom: "Convolution15"
  top: "Convolution15"
  param {
    lr_mult: 0
    decay_mult: 0
  }
  param {
    lr_mult: 0
    decay_mult: 0
  }
  param {
    lr_mult: 0
    decay_mult: 0
  }
}
layer {
  name: "Scale15"
  type: "Scale"
  bottom: "Convolution15"
  top: "Convolution15"
  scale_param {
    bias_term: true
  }
}
layer {
  name: "Convolution16"
  type: "Convolution"
  bottom: "Eltwise6"
  top: "Convolution16"
  param {
    lr_mult: 1
    decay_mult: 1
  }
  param {
    lr_mult: 2
    decay_mult: 0
  }
  convolution_param {
    num_output: 64
    pad: 1
    kernel_size: 3
    stride: 2
    weight_filler {
      type: "gaussian"
      std: 0.059
    }
    bias_filler {
      type: "constant"
      value: 0
    }
  }
}
layer {
  name: "BatchNorm16"
  type: "BatchNorm"
  bottom: "Convolution16"
  top: "Convolution16"
  param {
    lr_mult: 0
    decay_mult: 0
  }
  param {
    lr_mult: 0
    decay_mult: 0
  }
  param {
    lr_mult: 0
    decay_mult: 0
  }
}
layer {
  name: "Scale16"
  type: "Scale"
  bottom: "Convolution16"
  top: "Convolution16"
  scale_param {
    bias_term: true
  }
}
layer {
  name: "elu14"
  type: "ELU"
  bottom: "Convolution16"
  top: "Convolution16"
  elu_param {
    alpha: 1
  }
}
layer {
  name: "Convolution17"
  type: "Convolution"
  bottom: "Convolution16"
  top: "Convolution17"
  param {
    lr_mult: 1
    decay_mult: 1
  }
  param {
    lr_mult: 2
    decay_mult: 0
  }
  convolution_param {
    num_output: 64
    pad: 1
    kernel_size: 3
    stride: 1
    weight_filler {
      type: "gaussian"
      std: 0.059
    }
    bias_filler {
      type: "constant"
      value: 0
    }
  }
}
layer {
  name: "BatchNorm17"
  type: "BatchNorm"
  bottom: "Convolution17"
  top: "Convolution17"
  param {
    lr_mult: 0
    decay_mult: 0
  }
  param {
    lr_mult: 0
    decay_mult: 0
  }
  param {
    lr_mult: 0
    decay_mult: 0
  }
}
layer {
  name: "Scale17"
  type: "Scale"
  bottom: "Convolution17"
  top: "Convolution17"
  scale_param {
    bias_term: true
  }
}
layer {
  name: "Eltwise7"
  type: "Eltwise"
  bottom: "Convolution15"
  bottom: "Convolution17"
  top: "Eltwise7"
  eltwise_param {
    operation: SUM
  }
}
layer {
  name: "elu15"
  type: "ELU"
  bottom: "Eltwise7"
  top: "Eltwise7"
  elu_param {
    alpha: 1
  }
}
layer {
  name: "Convolution18"
  type: "Convolution"
  bottom: "Eltwise7"
  top: "Convolution18"
  param {
    lr_mult: 1
    decay_mult: 1
  }
  param {
    lr_mult: 2
    decay_mult: 0
  }
  convolution_param {
    num_output: 64
    pad: 1
    kernel_size: 3
    stride: 1
    weight_filler {
      type: "gaussian"
      std: 0.059
    }
    bias_filler {
      type: "constant"
      value: 0
    }
  }
}
layer {
  name: "BatchNorm18"
  type: "BatchNorm"
  bottom: "Convolution18"
  top: "Convolution18"
  param {
    lr_mult: 0
    decay_mult: 0
  }
  param {
    lr_mult: 0
    decay_mult: 0
  }
  param {
    lr_mult: 0
    decay_mult: 0
  }
}
layer {
  name: "Scale18"
  type: "Scale"
  bottom: "Convolution18"
  top: "Convolution18"
  scale_param {
    bias_term: true
  }
}
layer {
  name: "elu16"
  type: "ELU"
  bottom: "Convolution18"
  top: "Convolution18"
  elu_param {
    alpha: 1
  }
}
layer {
  name: "Convolution19"
  type: "Convolution"
  bottom: "Convolution18"
  top: "Convolution19"
  param {
    lr_mult: 1
    decay_mult: 1
  }
  param {
    lr_mult: 2
    decay_mult: 0
  }
  convolution_param {
    num_output: 64
    pad: 1
    kernel_size: 3
    stride: 1
    weight_filler {
      type: "gaussian"
      std: 0.059
    }
    bias_filler {
      type: "constant"
      value: 0
    }
  }
}
layer {
  name: "BatchNorm19"
  type: "BatchNorm"
  bottom: "Convolution19"
  top: "Convolution19"
  param {
    lr_mult: 0
    decay_mult: 0
  }
  param {
    lr_mult: 0
    decay_mult: 0
  }
  param {
    lr_mult: 0
    decay_mult: 0
  }
}
layer {
  name: "Scale19"
  type: "Scale"
  bottom: "Convolution19"
  top: "Convolution19"
  scale_param {
    bias_term: true
  }
}
layer {
  name: "Eltwise8"
  type: "Eltwise"
  bottom: "Eltwise7"
  bottom: "Convolution19"
  top: "Eltwise8"
  eltwise_param {
    operation: SUM
  }
}
layer {
  name: "elu17"
  type: "ELU"
  bottom: "Eltwise8"
  top: "Eltwise8"
  elu_param {
    alpha: 1
  }
}
layer {
  name: "Convolution20"
  type: "Convolution"
  bottom: "Eltwise8"
  top: "Convolution20"
  param {
    lr_mult: 1
    decay_mult: 1
  }
  param {
    lr_mult: 2
    decay_mult: 0
  }
  convolution_param {
    num_output: 64
    pad: 1
    kernel_size: 3
    stride: 1
    weight_filler {
      type: "gaussian"
      std: 0.059
    }
    bias_filler {
      type: "constant"
      value: 0
    }
  }
}
layer {
  name: "BatchNorm20"
  type: "BatchNorm"
  bottom: "Convolution20"
  top: "Convolution20"
  param {
    lr_mult: 0
    decay_mult: 0
  }
  param {
    lr_mult: 0
    decay_mult: 0
  }
  param {
    lr_mult: 0
    decay_mult: 0
  }
}
layer {
  name: "Scale20"
  type: "Scale"
  bottom: "Convolution20"
  top: "Convolution20"
  scale_param {
    bias_term: true
  }
}
layer {
  name: "elu18"
  type: "ELU"
  bottom: "Convolution20"
  top: "Convolution20"
  elu_param {
    alpha: 1
  }
}
layer {
  name: "Convolution21"
  type: "Convolution"
  bottom: "Convolution20"
  top: "Convolution21"
  param {
    lr_mult: 1
    decay_mult: 1
  }
  param {
    lr_mult: 2
    decay_mult: 0
  }
  convolution_param {
    num_output: 64
    pad: 1
    kernel_size: 3
    stride: 1
    weight_filler {
      type: "gaussian"
      std: 0.059
    }
    bias_filler {
      type: "constant"
      value: 0
    }
  }
}
layer {
  name: "BatchNorm21"
  type: "BatchNorm"
  bottom: "Convolution21"
  top: "Convolution21"
  param {
    lr_mult: 0
    decay_mult: 0
  }
  param {
    lr_mult: 0
    decay_mult: 0
  }
  param {
    lr_mult: 0
    decay_mult: 0
  }
}
layer {
  name: "Scale21"
  type: "Scale"
  bottom: "Convolution21"
  top: "Convolution21"
  scale_param {
    bias_term: true
  }
}
layer {
  name: "Eltwise9"
  type: "Eltwise"
  bottom: "Eltwise8"
  bottom: "Convolution21"
  top: "Eltwise9"
  eltwise_param {
    operation: SUM
  }
}
layer {
  name: "elu19"
  type: "ELU"
  bottom: "Eltwise9"
  top: "Eltwise9"
  elu_param {
    alpha: 1
  }
}
layer {
  name: "Pooling1"
  type: "Pooling"
  bottom: "Eltwise9"
  top: "Pooling1"
  pooling_param {
    pool: AVE
    global_pooling: true
  }
}
layer {
  name: "InnerProduct1"
  type: "InnerProduct"
  bottom: "Pooling1"
  top: "InnerProduct1"
  param {
    lr_mult: 1
    decay_mult: 1
  }
  param {
    lr_mult: 2
    decay_mult: 1
  }
  inner_product_param {
    num_output: 10
    weight_filler {
      type: "gaussian"
      std: 0.01
    }
    bias_filler {
      type: "constant"
      value: 0
    }
  }
}
layer {
  name: "SoftmaxWithLoss1"
  type: "SoftmaxWithLoss"
  bottom: "InnerProduct1"
  bottom: "Data2"
  top: "SoftmaxWithLoss1"
}
I1005 17:13:36.701191  9762 layer_factory.hpp:77] Creating layer Data1
I1005 17:13:36.701272  9762 db_lmdb.cpp:35] Opened lmdb /home/x306/caffe/xn/PENLU/data/cifar10/cifar10_train_lmdb
I1005 17:13:36.701290  9762 net.cpp:84] Creating Layer Data1
I1005 17:13:36.701297  9762 net.cpp:380] Data1 -> Data1
I1005 17:13:36.701311  9762 net.cpp:380] Data1 -> Data2
I1005 17:13:36.701323  9762 data_transformer.cpp:25] Loading mean file from: /home/x306/caffe/xn/PENLU/data/cifar10/mean.binaryproto
I1005 17:13:36.702755  9762 data_layer.cpp:45] output data size: 100,3,28,28
I1005 17:13:36.705096  9762 net.cpp:122] Setting up Data1
I1005 17:13:36.705127  9762 net.cpp:129] Top shape: 100 3 28 28 (235200)
I1005 17:13:36.705132  9762 net.cpp:129] Top shape: 100 (100)
I1005 17:13:36.705134  9762 net.cpp:137] Memory required for data: 941200
I1005 17:13:36.705152  9762 layer_factory.hpp:77] Creating layer Convolution1
I1005 17:13:36.705181  9762 net.cpp:84] Creating Layer Convolution1
I1005 17:13:36.705186  9762 net.cpp:406] Convolution1 <- Data1
I1005 17:13:36.705204  9762 net.cpp:380] Convolution1 -> Convolution1
I1005 17:13:36.852087  9762 net.cpp:122] Setting up Convolution1
I1005 17:13:36.852111  9762 net.cpp:129] Top shape: 100 16 28 28 (1254400)
I1005 17:13:36.852114  9762 net.cpp:137] Memory required for data: 5958800
I1005 17:13:36.852140  9762 layer_factory.hpp:77] Creating layer BatchNorm1
I1005 17:13:36.852150  9762 net.cpp:84] Creating Layer BatchNorm1
I1005 17:13:36.852165  9762 net.cpp:406] BatchNorm1 <- Convolution1
I1005 17:13:36.852170  9762 net.cpp:367] BatchNorm1 -> Convolution1 (in-place)
I1005 17:13:36.852332  9762 net.cpp:122] Setting up BatchNorm1
I1005 17:13:36.852337  9762 net.cpp:129] Top shape: 100 16 28 28 (1254400)
I1005 17:13:36.852340  9762 net.cpp:137] Memory required for data: 10976400
I1005 17:13:36.852347  9762 layer_factory.hpp:77] Creating layer Scale1
I1005 17:13:36.852354  9762 net.cpp:84] Creating Layer Scale1
I1005 17:13:36.852355  9762 net.cpp:406] Scale1 <- Convolution1
I1005 17:13:36.852368  9762 net.cpp:367] Scale1 -> Convolution1 (in-place)
I1005 17:13:36.852459  9762 layer_factory.hpp:77] Creating layer Scale1
I1005 17:13:36.852586  9762 net.cpp:122] Setting up Scale1
I1005 17:13:36.852591  9762 net.cpp:129] Top shape: 100 16 28 28 (1254400)
I1005 17:13:36.852593  9762 net.cpp:137] Memory required for data: 15994000
I1005 17:13:36.852597  9762 layer_factory.hpp:77] Creating layer elu1
I1005 17:13:36.852602  9762 net.cpp:84] Creating Layer elu1
I1005 17:13:36.852604  9762 net.cpp:406] elu1 <- Convolution1
I1005 17:13:36.852607  9762 net.cpp:367] elu1 -> Convolution1 (in-place)
I1005 17:13:36.852625  9762 net.cpp:122] Setting up elu1
I1005 17:13:36.852629  9762 net.cpp:129] Top shape: 100 16 28 28 (1254400)
I1005 17:13:36.852632  9762 net.cpp:137] Memory required for data: 21011600
I1005 17:13:36.852646  9762 layer_factory.hpp:77] Creating layer Convolution1_elu1_0_split
I1005 17:13:36.852650  9762 net.cpp:84] Creating Layer Convolution1_elu1_0_split
I1005 17:13:36.852653  9762 net.cpp:406] Convolution1_elu1_0_split <- Convolution1
I1005 17:13:36.852666  9762 net.cpp:380] Convolution1_elu1_0_split -> Convolution1_elu1_0_split_0
I1005 17:13:36.852670  9762 net.cpp:380] Convolution1_elu1_0_split -> Convolution1_elu1_0_split_1
I1005 17:13:36.852727  9762 net.cpp:122] Setting up Convolution1_elu1_0_split
I1005 17:13:36.852731  9762 net.cpp:129] Top shape: 100 16 28 28 (1254400)
I1005 17:13:36.852743  9762 net.cpp:129] Top shape: 100 16 28 28 (1254400)
I1005 17:13:36.852746  9762 net.cpp:137] Memory required for data: 31046800
I1005 17:13:36.852747  9762 layer_factory.hpp:77] Creating layer Convolution2
I1005 17:13:36.852766  9762 net.cpp:84] Creating Layer Convolution2
I1005 17:13:36.852767  9762 net.cpp:406] Convolution2 <- Convolution1_elu1_0_split_0
I1005 17:13:36.852771  9762 net.cpp:380] Convolution2 -> Convolution2
I1005 17:13:36.853634  9762 net.cpp:122] Setting up Convolution2
I1005 17:13:36.853646  9762 net.cpp:129] Top shape: 100 16 28 28 (1254400)
I1005 17:13:36.853648  9762 net.cpp:137] Memory required for data: 36064400
I1005 17:13:36.853657  9762 layer_factory.hpp:77] Creating layer BatchNorm2
I1005 17:13:36.853662  9762 net.cpp:84] Creating Layer BatchNorm2
I1005 17:13:36.853665  9762 net.cpp:406] BatchNorm2 <- Convolution2
I1005 17:13:36.853668  9762 net.cpp:367] BatchNorm2 -> Convolution2 (in-place)
I1005 17:13:36.853794  9762 net.cpp:122] Setting up BatchNorm2
I1005 17:13:36.853799  9762 net.cpp:129] Top shape: 100 16 28 28 (1254400)
I1005 17:13:36.853801  9762 net.cpp:137] Memory required for data: 41082000
I1005 17:13:36.853817  9762 layer_factory.hpp:77] Creating layer Scale2
I1005 17:13:36.853833  9762 net.cpp:84] Creating Layer Scale2
I1005 17:13:36.853837  9762 net.cpp:406] Scale2 <- Convolution2
I1005 17:13:36.853840  9762 net.cpp:367] Scale2 -> Convolution2 (in-place)
I1005 17:13:36.853878  9762 layer_factory.hpp:77] Creating layer Scale2
I1005 17:13:36.853984  9762 net.cpp:122] Setting up Scale2
I1005 17:13:36.853989  9762 net.cpp:129] Top shape: 100 16 28 28 (1254400)
I1005 17:13:36.853992  9762 net.cpp:137] Memory required for data: 46099600
I1005 17:13:36.854007  9762 layer_factory.hpp:77] Creating layer elu2
I1005 17:13:36.854012  9762 net.cpp:84] Creating Layer elu2
I1005 17:13:36.854014  9762 net.cpp:406] elu2 <- Convolution2
I1005 17:13:36.854017  9762 net.cpp:367] elu2 -> Convolution2 (in-place)
I1005 17:13:36.854022  9762 net.cpp:122] Setting up elu2
I1005 17:13:36.854025  9762 net.cpp:129] Top shape: 100 16 28 28 (1254400)
I1005 17:13:36.854028  9762 net.cpp:137] Memory required for data: 51117200
I1005 17:13:36.854030  9762 layer_factory.hpp:77] Creating layer Convolution3
I1005 17:13:36.854038  9762 net.cpp:84] Creating Layer Convolution3
I1005 17:13:36.854039  9762 net.cpp:406] Convolution3 <- Convolution2
I1005 17:13:36.854043  9762 net.cpp:380] Convolution3 -> Convolution3
I1005 17:13:36.854894  9762 net.cpp:122] Setting up Convolution3
I1005 17:13:36.854905  9762 net.cpp:129] Top shape: 100 16 28 28 (1254400)
I1005 17:13:36.854908  9762 net.cpp:137] Memory required for data: 56134800
I1005 17:13:36.854913  9762 layer_factory.hpp:77] Creating layer BatchNorm3
I1005 17:13:36.854925  9762 net.cpp:84] Creating Layer BatchNorm3
I1005 17:13:36.854929  9762 net.cpp:406] BatchNorm3 <- Convolution3
I1005 17:13:36.854933  9762 net.cpp:367] BatchNorm3 -> Convolution3 (in-place)
I1005 17:13:36.855051  9762 net.cpp:122] Setting up BatchNorm3
I1005 17:13:36.855056  9762 net.cpp:129] Top shape: 100 16 28 28 (1254400)
I1005 17:13:36.855058  9762 net.cpp:137] Memory required for data: 61152400
I1005 17:13:36.855065  9762 layer_factory.hpp:77] Creating layer Scale3
I1005 17:13:36.855070  9762 net.cpp:84] Creating Layer Scale3
I1005 17:13:36.855073  9762 net.cpp:406] Scale3 <- Convolution3
I1005 17:13:36.855077  9762 net.cpp:367] Scale3 -> Convolution3 (in-place)
I1005 17:13:36.855100  9762 layer_factory.hpp:77] Creating layer Scale3
I1005 17:13:36.855172  9762 net.cpp:122] Setting up Scale3
I1005 17:13:36.855177  9762 net.cpp:129] Top shape: 100 16 28 28 (1254400)
I1005 17:13:36.855180  9762 net.cpp:137] Memory required for data: 66170000
I1005 17:13:36.855185  9762 layer_factory.hpp:77] Creating layer Eltwise1
I1005 17:13:36.855190  9762 net.cpp:84] Creating Layer Eltwise1
I1005 17:13:36.855192  9762 net.cpp:406] Eltwise1 <- Convolution1_elu1_0_split_1
I1005 17:13:36.855195  9762 net.cpp:406] Eltwise1 <- Convolution3
I1005 17:13:36.855198  9762 net.cpp:380] Eltwise1 -> Eltwise1
I1005 17:13:36.855216  9762 net.cpp:122] Setting up Eltwise1
I1005 17:13:36.855221  9762 net.cpp:129] Top shape: 100 16 28 28 (1254400)
I1005 17:13:36.855222  9762 net.cpp:137] Memory required for data: 71187600
I1005 17:13:36.855226  9762 layer_factory.hpp:77] Creating layer elu3
I1005 17:13:36.855228  9762 net.cpp:84] Creating Layer elu3
I1005 17:13:36.855232  9762 net.cpp:406] elu3 <- Eltwise1
I1005 17:13:36.855234  9762 net.cpp:367] elu3 -> Eltwise1 (in-place)
I1005 17:13:36.855238  9762 net.cpp:122] Setting up elu3
I1005 17:13:36.855242  9762 net.cpp:129] Top shape: 100 16 28 28 (1254400)
I1005 17:13:36.855245  9762 net.cpp:137] Memory required for data: 76205200
I1005 17:13:36.855247  9762 layer_factory.hpp:77] Creating layer Eltwise1_elu3_0_split
I1005 17:13:36.855252  9762 net.cpp:84] Creating Layer Eltwise1_elu3_0_split
I1005 17:13:36.855253  9762 net.cpp:406] Eltwise1_elu3_0_split <- Eltwise1
I1005 17:13:36.855257  9762 net.cpp:380] Eltwise1_elu3_0_split -> Eltwise1_elu3_0_split_0
I1005 17:13:36.855262  9762 net.cpp:380] Eltwise1_elu3_0_split -> Eltwise1_elu3_0_split_1
I1005 17:13:36.855283  9762 net.cpp:122] Setting up Eltwise1_elu3_0_split
I1005 17:13:36.855286  9762 net.cpp:129] Top shape: 100 16 28 28 (1254400)
I1005 17:13:36.855290  9762 net.cpp:129] Top shape: 100 16 28 28 (1254400)
I1005 17:13:36.855293  9762 net.cpp:137] Memory required for data: 86240400
I1005 17:13:36.855295  9762 layer_factory.hpp:77] Creating layer Convolution4
I1005 17:13:36.855303  9762 net.cpp:84] Creating Layer Convolution4
I1005 17:13:36.855305  9762 net.cpp:406] Convolution4 <- Eltwise1_elu3_0_split_0
I1005 17:13:36.855309  9762 net.cpp:380] Convolution4 -> Convolution4
I1005 17:13:36.856145  9762 net.cpp:122] Setting up Convolution4
I1005 17:13:36.856155  9762 net.cpp:129] Top shape: 100 16 28 28 (1254400)
I1005 17:13:36.856159  9762 net.cpp:137] Memory required for data: 91258000
I1005 17:13:36.856164  9762 layer_factory.hpp:77] Creating layer BatchNorm4
I1005 17:13:36.856169  9762 net.cpp:84] Creating Layer BatchNorm4
I1005 17:13:36.856173  9762 net.cpp:406] BatchNorm4 <- Convolution4
I1005 17:13:36.856176  9762 net.cpp:367] BatchNorm4 -> Convolution4 (in-place)
I1005 17:13:36.856292  9762 net.cpp:122] Setting up BatchNorm4
I1005 17:13:36.856297  9762 net.cpp:129] Top shape: 100 16 28 28 (1254400)
I1005 17:13:36.856300  9762 net.cpp:137] Memory required for data: 96275600
I1005 17:13:36.856305  9762 layer_factory.hpp:77] Creating layer Scale4
I1005 17:13:36.856310  9762 net.cpp:84] Creating Layer Scale4
I1005 17:13:36.856313  9762 net.cpp:406] Scale4 <- Convolution4
I1005 17:13:36.856317  9762 net.cpp:367] Scale4 -> Convolution4 (in-place)
I1005 17:13:36.856339  9762 layer_factory.hpp:77] Creating layer Scale4
I1005 17:13:36.856417  9762 net.cpp:122] Setting up Scale4
I1005 17:13:36.856423  9762 net.cpp:129] Top shape: 100 16 28 28 (1254400)
I1005 17:13:36.856426  9762 net.cpp:137] Memory required for data: 101293200
I1005 17:13:36.856431  9762 layer_factory.hpp:77] Creating layer elu4
I1005 17:13:36.856434  9762 net.cpp:84] Creating Layer elu4
I1005 17:13:36.856437  9762 net.cpp:406] elu4 <- Convolution4
I1005 17:13:36.856441  9762 net.cpp:367] elu4 -> Convolution4 (in-place)
I1005 17:13:36.856446  9762 net.cpp:122] Setting up elu4
I1005 17:13:36.856449  9762 net.cpp:129] Top shape: 100 16 28 28 (1254400)
I1005 17:13:36.856452  9762 net.cpp:137] Memory required for data: 106310800
I1005 17:13:36.856454  9762 layer_factory.hpp:77] Creating layer Convolution5
I1005 17:13:36.856461  9762 net.cpp:84] Creating Layer Convolution5
I1005 17:13:36.856463  9762 net.cpp:406] Convolution5 <- Convolution4
I1005 17:13:36.856467  9762 net.cpp:380] Convolution5 -> Convolution5
I1005 17:13:36.857300  9762 net.cpp:122] Setting up Convolution5
I1005 17:13:36.857311  9762 net.cpp:129] Top shape: 100 16 28 28 (1254400)
I1005 17:13:36.857313  9762 net.cpp:137] Memory required for data: 111328400
I1005 17:13:36.857318  9762 layer_factory.hpp:77] Creating layer BatchNorm5
I1005 17:13:36.857323  9762 net.cpp:84] Creating Layer BatchNorm5
I1005 17:13:36.857327  9762 net.cpp:406] BatchNorm5 <- Convolution5
I1005 17:13:36.857331  9762 net.cpp:367] BatchNorm5 -> Convolution5 (in-place)
I1005 17:13:36.857448  9762 net.cpp:122] Setting up BatchNorm5
I1005 17:13:36.857453  9762 net.cpp:129] Top shape: 100 16 28 28 (1254400)
I1005 17:13:36.857455  9762 net.cpp:137] Memory required for data: 116346000
I1005 17:13:36.857463  9762 layer_factory.hpp:77] Creating layer Scale5
I1005 17:13:36.857468  9762 net.cpp:84] Creating Layer Scale5
I1005 17:13:36.857471  9762 net.cpp:406] Scale5 <- Convolution5
I1005 17:13:36.857475  9762 net.cpp:367] Scale5 -> Convolution5 (in-place)
I1005 17:13:36.857499  9762 layer_factory.hpp:77] Creating layer Scale5
I1005 17:13:36.857568  9762 net.cpp:122] Setting up Scale5
I1005 17:13:36.857573  9762 net.cpp:129] Top shape: 100 16 28 28 (1254400)
I1005 17:13:36.857576  9762 net.cpp:137] Memory required for data: 121363600
I1005 17:13:36.857580  9762 layer_factory.hpp:77] Creating layer Eltwise2
I1005 17:13:36.857585  9762 net.cpp:84] Creating Layer Eltwise2
I1005 17:13:36.857589  9762 net.cpp:406] Eltwise2 <- Eltwise1_elu3_0_split_1
I1005 17:13:36.857591  9762 net.cpp:406] Eltwise2 <- Convolution5
I1005 17:13:36.857594  9762 net.cpp:380] Eltwise2 -> Eltwise2
I1005 17:13:36.857609  9762 net.cpp:122] Setting up Eltwise2
I1005 17:13:36.857614  9762 net.cpp:129] Top shape: 100 16 28 28 (1254400)
I1005 17:13:36.857616  9762 net.cpp:137] Memory required for data: 126381200
I1005 17:13:36.857619  9762 layer_factory.hpp:77] Creating layer elu5
I1005 17:13:36.857622  9762 net.cpp:84] Creating Layer elu5
I1005 17:13:36.857625  9762 net.cpp:406] elu5 <- Eltwise2
I1005 17:13:36.857628  9762 net.cpp:367] elu5 -> Eltwise2 (in-place)
I1005 17:13:36.857632  9762 net.cpp:122] Setting up elu5
I1005 17:13:36.857636  9762 net.cpp:129] Top shape: 100 16 28 28 (1254400)
I1005 17:13:36.857640  9762 net.cpp:137] Memory required for data: 131398800
I1005 17:13:36.857641  9762 layer_factory.hpp:77] Creating layer Eltwise2_elu5_0_split
I1005 17:13:36.857645  9762 net.cpp:84] Creating Layer Eltwise2_elu5_0_split
I1005 17:13:36.857647  9762 net.cpp:406] Eltwise2_elu5_0_split <- Eltwise2
I1005 17:13:36.857650  9762 net.cpp:380] Eltwise2_elu5_0_split -> Eltwise2_elu5_0_split_0
I1005 17:13:36.857655  9762 net.cpp:380] Eltwise2_elu5_0_split -> Eltwise2_elu5_0_split_1
I1005 17:13:36.857674  9762 net.cpp:122] Setting up Eltwise2_elu5_0_split
I1005 17:13:36.857678  9762 net.cpp:129] Top shape: 100 16 28 28 (1254400)
I1005 17:13:36.857682  9762 net.cpp:129] Top shape: 100 16 28 28 (1254400)
I1005 17:13:36.857686  9762 net.cpp:137] Memory required for data: 141434000
I1005 17:13:36.857687  9762 layer_factory.hpp:77] Creating layer Convolution6
I1005 17:13:36.857700  9762 net.cpp:84] Creating Layer Convolution6
I1005 17:13:36.857703  9762 net.cpp:406] Convolution6 <- Eltwise2_elu5_0_split_0
I1005 17:13:36.857707  9762 net.cpp:380] Convolution6 -> Convolution6
I1005 17:13:36.858552  9762 net.cpp:122] Setting up Convolution6
I1005 17:13:36.858562  9762 net.cpp:129] Top shape: 100 16 28 28 (1254400)
I1005 17:13:36.858566  9762 net.cpp:137] Memory required for data: 146451600
I1005 17:13:36.858570  9762 layer_factory.hpp:77] Creating layer BatchNorm6
I1005 17:13:36.858577  9762 net.cpp:84] Creating Layer BatchNorm6
I1005 17:13:36.858579  9762 net.cpp:406] BatchNorm6 <- Convolution6
I1005 17:13:36.858584  9762 net.cpp:367] BatchNorm6 -> Convolution6 (in-place)
I1005 17:13:36.858706  9762 net.cpp:122] Setting up BatchNorm6
I1005 17:13:36.858711  9762 net.cpp:129] Top shape: 100 16 28 28 (1254400)
I1005 17:13:36.858714  9762 net.cpp:137] Memory required for data: 151469200
I1005 17:13:36.858719  9762 layer_factory.hpp:77] Creating layer Scale6
I1005 17:13:36.858723  9762 net.cpp:84] Creating Layer Scale6
I1005 17:13:36.858726  9762 net.cpp:406] Scale6 <- Convolution6
I1005 17:13:36.858731  9762 net.cpp:367] Scale6 -> Convolution6 (in-place)
I1005 17:13:36.858754  9762 layer_factory.hpp:77] Creating layer Scale6
I1005 17:13:36.858824  9762 net.cpp:122] Setting up Scale6
I1005 17:13:36.858829  9762 net.cpp:129] Top shape: 100 16 28 28 (1254400)
I1005 17:13:36.858832  9762 net.cpp:137] Memory required for data: 156486800
I1005 17:13:36.858836  9762 layer_factory.hpp:77] Creating layer elu6
I1005 17:13:36.858840  9762 net.cpp:84] Creating Layer elu6
I1005 17:13:36.858844  9762 net.cpp:406] elu6 <- Convolution6
I1005 17:13:36.858847  9762 net.cpp:367] elu6 -> Convolution6 (in-place)
I1005 17:13:36.858851  9762 net.cpp:122] Setting up elu6
I1005 17:13:36.858855  9762 net.cpp:129] Top shape: 100 16 28 28 (1254400)
I1005 17:13:36.858858  9762 net.cpp:137] Memory required for data: 161504400
I1005 17:13:36.858860  9762 layer_factory.hpp:77] Creating layer Convolution7
I1005 17:13:36.858867  9762 net.cpp:84] Creating Layer Convolution7
I1005 17:13:36.858870  9762 net.cpp:406] Convolution7 <- Convolution6
I1005 17:13:36.858873  9762 net.cpp:380] Convolution7 -> Convolution7
I1005 17:13:36.859387  9762 net.cpp:122] Setting up Convolution7
I1005 17:13:36.859395  9762 net.cpp:129] Top shape: 100 16 28 28 (1254400)
I1005 17:13:36.859400  9762 net.cpp:137] Memory required for data: 166522000
I1005 17:13:36.859403  9762 layer_factory.hpp:77] Creating layer BatchNorm7
I1005 17:13:36.859408  9762 net.cpp:84] Creating Layer BatchNorm7
I1005 17:13:36.859412  9762 net.cpp:406] BatchNorm7 <- Convolution7
I1005 17:13:36.859416  9762 net.cpp:367] BatchNorm7 -> Convolution7 (in-place)
I1005 17:13:36.859536  9762 net.cpp:122] Setting up BatchNorm7
I1005 17:13:36.859541  9762 net.cpp:129] Top shape: 100 16 28 28 (1254400)
I1005 17:13:36.859544  9762 net.cpp:137] Memory required for data: 171539600
I1005 17:13:36.859549  9762 layer_factory.hpp:77] Creating layer Scale7
I1005 17:13:36.859555  9762 net.cpp:84] Creating Layer Scale7
I1005 17:13:36.859558  9762 net.cpp:406] Scale7 <- Convolution7
I1005 17:13:36.859561  9762 net.cpp:367] Scale7 -> Convolution7 (in-place)
I1005 17:13:36.859586  9762 layer_factory.hpp:77] Creating layer Scale7
I1005 17:13:36.859655  9762 net.cpp:122] Setting up Scale7
I1005 17:13:36.859660  9762 net.cpp:129] Top shape: 100 16 28 28 (1254400)
I1005 17:13:36.859663  9762 net.cpp:137] Memory required for data: 176557200
I1005 17:13:36.859668  9762 layer_factory.hpp:77] Creating layer Eltwise3
I1005 17:13:36.859671  9762 net.cpp:84] Creating Layer Eltwise3
I1005 17:13:36.859674  9762 net.cpp:406] Eltwise3 <- Eltwise2_elu5_0_split_1
I1005 17:13:36.859678  9762 net.cpp:406] Eltwise3 <- Convolution7
I1005 17:13:36.859681  9762 net.cpp:380] Eltwise3 -> Eltwise3
I1005 17:13:36.859696  9762 net.cpp:122] Setting up Eltwise3
I1005 17:13:36.859700  9762 net.cpp:129] Top shape: 100 16 28 28 (1254400)
I1005 17:13:36.859704  9762 net.cpp:137] Memory required for data: 181574800
I1005 17:13:36.859714  9762 layer_factory.hpp:77] Creating layer elu7
I1005 17:13:36.859717  9762 net.cpp:84] Creating Layer elu7
I1005 17:13:36.859719  9762 net.cpp:406] elu7 <- Eltwise3
I1005 17:13:36.859724  9762 net.cpp:367] elu7 -> Eltwise3 (in-place)
I1005 17:13:36.859726  9762 net.cpp:122] Setting up elu7
I1005 17:13:36.859730  9762 net.cpp:129] Top shape: 100 16 28 28 (1254400)
I1005 17:13:36.859733  9762 net.cpp:137] Memory required for data: 186592400
I1005 17:13:36.859735  9762 layer_factory.hpp:77] Creating layer Eltwise3_elu7_0_split
I1005 17:13:36.859738  9762 net.cpp:84] Creating Layer Eltwise3_elu7_0_split
I1005 17:13:36.859741  9762 net.cpp:406] Eltwise3_elu7_0_split <- Eltwise3
I1005 17:13:36.859745  9762 net.cpp:380] Eltwise3_elu7_0_split -> Eltwise3_elu7_0_split_0
I1005 17:13:36.859750  9762 net.cpp:380] Eltwise3_elu7_0_split -> Eltwise3_elu7_0_split_1
I1005 17:13:36.859771  9762 net.cpp:122] Setting up Eltwise3_elu7_0_split
I1005 17:13:36.859774  9762 net.cpp:129] Top shape: 100 16 28 28 (1254400)
I1005 17:13:36.859778  9762 net.cpp:129] Top shape: 100 16 28 28 (1254400)
I1005 17:13:36.859781  9762 net.cpp:137] Memory required for data: 196627600
I1005 17:13:36.859783  9762 layer_factory.hpp:77] Creating layer Convolution8
I1005 17:13:36.859788  9762 net.cpp:84] Creating Layer Convolution8
I1005 17:13:36.859791  9762 net.cpp:406] Convolution8 <- Eltwise3_elu7_0_split_0
I1005 17:13:36.859796  9762 net.cpp:380] Convolution8 -> Convolution8
I1005 17:13:36.860903  9762 net.cpp:122] Setting up Convolution8
I1005 17:13:36.860913  9762 net.cpp:129] Top shape: 100 32 14 14 (627200)
I1005 17:13:36.860916  9762 net.cpp:137] Memory required for data: 199136400
I1005 17:13:36.860921  9762 layer_factory.hpp:77] Creating layer BatchNorm8
I1005 17:13:36.860927  9762 net.cpp:84] Creating Layer BatchNorm8
I1005 17:13:36.860930  9762 net.cpp:406] BatchNorm8 <- Convolution8
I1005 17:13:36.860934  9762 net.cpp:367] BatchNorm8 -> Convolution8 (in-place)
I1005 17:13:36.861065  9762 net.cpp:122] Setting up BatchNorm8
I1005 17:13:36.861069  9762 net.cpp:129] Top shape: 100 32 14 14 (627200)
I1005 17:13:36.861073  9762 net.cpp:137] Memory required for data: 201645200
I1005 17:13:36.861078  9762 layer_factory.hpp:77] Creating layer Scale8
I1005 17:13:36.861083  9762 net.cpp:84] Creating Layer Scale8
I1005 17:13:36.861085  9762 net.cpp:406] Scale8 <- Convolution8
I1005 17:13:36.861088  9762 net.cpp:367] Scale8 -> Convolution8 (in-place)
I1005 17:13:36.861114  9762 layer_factory.hpp:77] Creating layer Scale8
I1005 17:13:36.861182  9762 net.cpp:122] Setting up Scale8
I1005 17:13:36.861186  9762 net.cpp:129] Top shape: 100 32 14 14 (627200)
I1005 17:13:36.861189  9762 net.cpp:137] Memory required for data: 204154000
I1005 17:13:36.861194  9762 layer_factory.hpp:77] Creating layer Convolution9
I1005 17:13:36.861201  9762 net.cpp:84] Creating Layer Convolution9
I1005 17:13:36.861204  9762 net.cpp:406] Convolution9 <- Eltwise3_elu7_0_split_1
I1005 17:13:36.861208  9762 net.cpp:380] Convolution9 -> Convolution9
I1005 17:13:36.862915  9762 net.cpp:122] Setting up Convolution9
I1005 17:13:36.862924  9762 net.cpp:129] Top shape: 100 32 14 14 (627200)
I1005 17:13:36.862928  9762 net.cpp:137] Memory required for data: 206662800
I1005 17:13:36.862933  9762 layer_factory.hpp:77] Creating layer BatchNorm9
I1005 17:13:36.862938  9762 net.cpp:84] Creating Layer BatchNorm9
I1005 17:13:36.862941  9762 net.cpp:406] BatchNorm9 <- Convolution9
I1005 17:13:36.862946  9762 net.cpp:367] BatchNorm9 -> Convolution9 (in-place)
I1005 17:13:36.863071  9762 net.cpp:122] Setting up BatchNorm9
I1005 17:13:36.863077  9762 net.cpp:129] Top shape: 100 32 14 14 (627200)
I1005 17:13:36.863080  9762 net.cpp:137] Memory required for data: 209171600
I1005 17:13:36.863085  9762 layer_factory.hpp:77] Creating layer Scale9
I1005 17:13:36.863090  9762 net.cpp:84] Creating Layer Scale9
I1005 17:13:36.863091  9762 net.cpp:406] Scale9 <- Convolution9
I1005 17:13:36.863095  9762 net.cpp:367] Scale9 -> Convolution9 (in-place)
I1005 17:13:36.863139  9762 layer_factory.hpp:77] Creating layer Scale9
I1005 17:13:36.863229  9762 net.cpp:122] Setting up Scale9
I1005 17:13:36.863234  9762 net.cpp:129] Top shape: 100 32 14 14 (627200)
I1005 17:13:36.863236  9762 net.cpp:137] Memory required for data: 211680400
I1005 17:13:36.863240  9762 layer_factory.hpp:77] Creating layer elu8
I1005 17:13:36.863245  9762 net.cpp:84] Creating Layer elu8
I1005 17:13:36.863248  9762 net.cpp:406] elu8 <- Convolution9
I1005 17:13:36.863251  9762 net.cpp:367] elu8 -> Convolution9 (in-place)
I1005 17:13:36.863256  9762 net.cpp:122] Setting up elu8
I1005 17:13:36.863260  9762 net.cpp:129] Top shape: 100 32 14 14 (627200)
I1005 17:13:36.863263  9762 net.cpp:137] Memory required for data: 214189200
I1005 17:13:36.863265  9762 layer_factory.hpp:77] Creating layer Convolution10
I1005 17:13:36.863272  9762 net.cpp:84] Creating Layer Convolution10
I1005 17:13:36.863276  9762 net.cpp:406] Convolution10 <- Convolution9
I1005 17:13:36.863279  9762 net.cpp:380] Convolution10 -> Convolution10
I1005 17:13:36.864368  9762 net.cpp:122] Setting up Convolution10
I1005 17:13:36.864392  9762 net.cpp:129] Top shape: 100 32 14 14 (627200)
I1005 17:13:36.864398  9762 net.cpp:137] Memory required for data: 216698000
I1005 17:13:36.864414  9762 layer_factory.hpp:77] Creating layer BatchNorm10
I1005 17:13:36.864423  9762 net.cpp:84] Creating Layer BatchNorm10
I1005 17:13:36.864426  9762 net.cpp:406] BatchNorm10 <- Convolution10
I1005 17:13:36.864430  9762 net.cpp:367] BatchNorm10 -> Convolution10 (in-place)
I1005 17:13:36.864562  9762 net.cpp:122] Setting up BatchNorm10
I1005 17:13:36.864567  9762 net.cpp:129] Top shape: 100 32 14 14 (627200)
I1005 17:13:36.864570  9762 net.cpp:137] Memory required for data: 219206800
I1005 17:13:36.864575  9762 layer_factory.hpp:77] Creating layer Scale10
I1005 17:13:36.864579  9762 net.cpp:84] Creating Layer Scale10
I1005 17:13:36.864583  9762 net.cpp:406] Scale10 <- Convolution10
I1005 17:13:36.864586  9762 net.cpp:367] Scale10 -> Convolution10 (in-place)
I1005 17:13:36.864610  9762 layer_factory.hpp:77] Creating layer Scale10
I1005 17:13:36.864677  9762 net.cpp:122] Setting up Scale10
I1005 17:13:36.864681  9762 net.cpp:129] Top shape: 100 32 14 14 (627200)
I1005 17:13:36.864684  9762 net.cpp:137] Memory required for data: 221715600
I1005 17:13:36.864688  9762 layer_factory.hpp:77] Creating layer Eltwise4
I1005 17:13:36.864693  9762 net.cpp:84] Creating Layer Eltwise4
I1005 17:13:36.864696  9762 net.cpp:406] Eltwise4 <- Convolution8
I1005 17:13:36.864699  9762 net.cpp:406] Eltwise4 <- Convolution10
I1005 17:13:36.864703  9762 net.cpp:380] Eltwise4 -> Eltwise4
I1005 17:13:36.864717  9762 net.cpp:122] Setting up Eltwise4
I1005 17:13:36.864722  9762 net.cpp:129] Top shape: 100 32 14 14 (627200)
I1005 17:13:36.864724  9762 net.cpp:137] Memory required for data: 224224400
I1005 17:13:36.864727  9762 layer_factory.hpp:77] Creating layer elu9
I1005 17:13:36.864730  9762 net.cpp:84] Creating Layer elu9
I1005 17:13:36.864733  9762 net.cpp:406] elu9 <- Eltwise4
I1005 17:13:36.864737  9762 net.cpp:367] elu9 -> Eltwise4 (in-place)
I1005 17:13:36.864740  9762 net.cpp:122] Setting up elu9
I1005 17:13:36.864744  9762 net.cpp:129] Top shape: 100 32 14 14 (627200)
I1005 17:13:36.864747  9762 net.cpp:137] Memory required for data: 226733200
I1005 17:13:36.864748  9762 layer_factory.hpp:77] Creating layer Eltwise4_elu9_0_split
I1005 17:13:36.864753  9762 net.cpp:84] Creating Layer Eltwise4_elu9_0_split
I1005 17:13:36.864754  9762 net.cpp:406] Eltwise4_elu9_0_split <- Eltwise4
I1005 17:13:36.864758  9762 net.cpp:380] Eltwise4_elu9_0_split -> Eltwise4_elu9_0_split_0
I1005 17:13:36.864763  9762 net.cpp:380] Eltwise4_elu9_0_split -> Eltwise4_elu9_0_split_1
I1005 17:13:36.864783  9762 net.cpp:122] Setting up Eltwise4_elu9_0_split
I1005 17:13:36.864786  9762 net.cpp:129] Top shape: 100 32 14 14 (627200)
I1005 17:13:36.864790  9762 net.cpp:129] Top shape: 100 32 14 14 (627200)
I1005 17:13:36.864794  9762 net.cpp:137] Memory required for data: 231750800
I1005 17:13:36.864795  9762 layer_factory.hpp:77] Creating layer Convolution11
I1005 17:13:36.864809  9762 net.cpp:84] Creating Layer Convolution11
I1005 17:13:36.864811  9762 net.cpp:406] Convolution11 <- Eltwise4_elu9_0_split_0
I1005 17:13:36.864816  9762 net.cpp:380] Convolution11 -> Convolution11
I1005 17:13:36.865957  9762 net.cpp:122] Setting up Convolution11
I1005 17:13:36.865970  9762 net.cpp:129] Top shape: 100 32 14 14 (627200)
I1005 17:13:36.865986  9762 net.cpp:137] Memory required for data: 234259600
I1005 17:13:36.865993  9762 layer_factory.hpp:77] Creating layer BatchNorm11
I1005 17:13:36.865999  9762 net.cpp:84] Creating Layer BatchNorm11
I1005 17:13:36.866003  9762 net.cpp:406] BatchNorm11 <- Convolution11
I1005 17:13:36.866006  9762 net.cpp:367] BatchNorm11 -> Convolution11 (in-place)
I1005 17:13:36.866194  9762 net.cpp:122] Setting up BatchNorm11
I1005 17:13:36.866205  9762 net.cpp:129] Top shape: 100 32 14 14 (627200)
I1005 17:13:36.866210  9762 net.cpp:137] Memory required for data: 236768400
I1005 17:13:36.866219  9762 layer_factory.hpp:77] Creating layer Scale11
I1005 17:13:36.866226  9762 net.cpp:84] Creating Layer Scale11
I1005 17:13:36.866231  9762 net.cpp:406] Scale11 <- Convolution11
I1005 17:13:36.866237  9762 net.cpp:367] Scale11 -> Convolution11 (in-place)
I1005 17:13:36.866274  9762 layer_factory.hpp:77] Creating layer Scale11
I1005 17:13:36.866375  9762 net.cpp:122] Setting up Scale11
I1005 17:13:36.866386  9762 net.cpp:129] Top shape: 100 32 14 14 (627200)
I1005 17:13:36.866391  9762 net.cpp:137] Memory required for data: 239277200
I1005 17:13:36.866400  9762 layer_factory.hpp:77] Creating layer elu10
I1005 17:13:36.866406  9762 net.cpp:84] Creating Layer elu10
I1005 17:13:36.866410  9762 net.cpp:406] elu10 <- Convolution11
I1005 17:13:36.866416  9762 net.cpp:367] elu10 -> Convolution11 (in-place)
I1005 17:13:36.866425  9762 net.cpp:122] Setting up elu10
I1005 17:13:36.866430  9762 net.cpp:129] Top shape: 100 32 14 14 (627200)
I1005 17:13:36.866436  9762 net.cpp:137] Memory required for data: 241786000
I1005 17:13:36.866439  9762 layer_factory.hpp:77] Creating layer Convolution12
I1005 17:13:36.866449  9762 net.cpp:84] Creating Layer Convolution12
I1005 17:13:36.866454  9762 net.cpp:406] Convolution12 <- Convolution11
I1005 17:13:36.866472  9762 net.cpp:380] Convolution12 -> Convolution12
I1005 17:13:36.867508  9762 net.cpp:122] Setting up Convolution12
I1005 17:13:36.867518  9762 net.cpp:129] Top shape: 100 32 14 14 (627200)
I1005 17:13:36.867522  9762 net.cpp:137] Memory required for data: 244294800
I1005 17:13:36.867527  9762 layer_factory.hpp:77] Creating layer BatchNorm12
I1005 17:13:36.867532  9762 net.cpp:84] Creating Layer BatchNorm12
I1005 17:13:36.867535  9762 net.cpp:406] BatchNorm12 <- Convolution12
I1005 17:13:36.867539  9762 net.cpp:367] BatchNorm12 -> Convolution12 (in-place)
I1005 17:13:36.867660  9762 net.cpp:122] Setting up BatchNorm12
I1005 17:13:36.867666  9762 net.cpp:129] Top shape: 100 32 14 14 (627200)
I1005 17:13:36.867668  9762 net.cpp:137] Memory required for data: 246803600
I1005 17:13:36.867673  9762 layer_factory.hpp:77] Creating layer Scale12
I1005 17:13:36.867678  9762 net.cpp:84] Creating Layer Scale12
I1005 17:13:36.867681  9762 net.cpp:406] Scale12 <- Convolution12
I1005 17:13:36.867684  9762 net.cpp:367] Scale12 -> Convolution12 (in-place)
I1005 17:13:36.867709  9762 layer_factory.hpp:77] Creating layer Scale12
I1005 17:13:36.867779  9762 net.cpp:122] Setting up Scale12
I1005 17:13:36.867784  9762 net.cpp:129] Top shape: 100 32 14 14 (627200)
I1005 17:13:36.867786  9762 net.cpp:137] Memory required for data: 249312400
I1005 17:13:36.867790  9762 layer_factory.hpp:77] Creating layer Eltwise5
I1005 17:13:36.867794  9762 net.cpp:84] Creating Layer Eltwise5
I1005 17:13:36.867797  9762 net.cpp:406] Eltwise5 <- Eltwise4_elu9_0_split_1
I1005 17:13:36.867801  9762 net.cpp:406] Eltwise5 <- Convolution12
I1005 17:13:36.867805  9762 net.cpp:380] Eltwise5 -> Eltwise5
I1005 17:13:36.867820  9762 net.cpp:122] Setting up Eltwise5
I1005 17:13:36.867825  9762 net.cpp:129] Top shape: 100 32 14 14 (627200)
I1005 17:13:36.867827  9762 net.cpp:137] Memory required for data: 251821200
I1005 17:13:36.867837  9762 layer_factory.hpp:77] Creating layer elu11
I1005 17:13:36.867841  9762 net.cpp:84] Creating Layer elu11
I1005 17:13:36.867844  9762 net.cpp:406] elu11 <- Eltwise5
I1005 17:13:36.867847  9762 net.cpp:367] elu11 -> Eltwise5 (in-place)
I1005 17:13:36.867852  9762 net.cpp:122] Setting up elu11
I1005 17:13:36.867856  9762 net.cpp:129] Top shape: 100 32 14 14 (627200)
I1005 17:13:36.867858  9762 net.cpp:137] Memory required for data: 254330000
I1005 17:13:36.867861  9762 layer_factory.hpp:77] Creating layer Eltwise5_elu11_0_split
I1005 17:13:36.867864  9762 net.cpp:84] Creating Layer Eltwise5_elu11_0_split
I1005 17:13:36.867866  9762 net.cpp:406] Eltwise5_elu11_0_split <- Eltwise5
I1005 17:13:36.867869  9762 net.cpp:380] Eltwise5_elu11_0_split -> Eltwise5_elu11_0_split_0
I1005 17:13:36.867873  9762 net.cpp:380] Eltwise5_elu11_0_split -> Eltwise5_elu11_0_split_1
I1005 17:13:36.867897  9762 net.cpp:122] Setting up Eltwise5_elu11_0_split
I1005 17:13:36.867900  9762 net.cpp:129] Top shape: 100 32 14 14 (627200)
I1005 17:13:36.867904  9762 net.cpp:129] Top shape: 100 32 14 14 (627200)
I1005 17:13:36.867908  9762 net.cpp:137] Memory required for data: 259347600
I1005 17:13:36.867910  9762 layer_factory.hpp:77] Creating layer Convolution13
I1005 17:13:36.867916  9762 net.cpp:84] Creating Layer Convolution13
I1005 17:13:36.867919  9762 net.cpp:406] Convolution13 <- Eltwise5_elu11_0_split_0
I1005 17:13:36.867923  9762 net.cpp:380] Convolution13 -> Convolution13
I1005 17:13:36.868916  9762 net.cpp:122] Setting up Convolution13
I1005 17:13:36.868926  9762 net.cpp:129] Top shape: 100 32 14 14 (627200)
I1005 17:13:36.868928  9762 net.cpp:137] Memory required for data: 261856400
I1005 17:13:36.868933  9762 layer_factory.hpp:77] Creating layer BatchNorm13
I1005 17:13:36.868939  9762 net.cpp:84] Creating Layer BatchNorm13
I1005 17:13:36.868942  9762 net.cpp:406] BatchNorm13 <- Convolution13
I1005 17:13:36.868947  9762 net.cpp:367] BatchNorm13 -> Convolution13 (in-place)
I1005 17:13:36.869069  9762 net.cpp:122] Setting up BatchNorm13
I1005 17:13:36.869073  9762 net.cpp:129] Top shape: 100 32 14 14 (627200)
I1005 17:13:36.869076  9762 net.cpp:137] Memory required for data: 264365200
I1005 17:13:36.869081  9762 layer_factory.hpp:77] Creating layer Scale13
I1005 17:13:36.869086  9762 net.cpp:84] Creating Layer Scale13
I1005 17:13:36.869088  9762 net.cpp:406] Scale13 <- Convolution13
I1005 17:13:36.869092  9762 net.cpp:367] Scale13 -> Convolution13 (in-place)
I1005 17:13:36.869117  9762 layer_factory.hpp:77] Creating layer Scale13
I1005 17:13:36.869189  9762 net.cpp:122] Setting up Scale13
I1005 17:13:36.869194  9762 net.cpp:129] Top shape: 100 32 14 14 (627200)
I1005 17:13:36.869196  9762 net.cpp:137] Memory required for data: 266874000
I1005 17:13:36.869200  9762 layer_factory.hpp:77] Creating layer elu12
I1005 17:13:36.869204  9762 net.cpp:84] Creating Layer elu12
I1005 17:13:36.869207  9762 net.cpp:406] elu12 <- Convolution13
I1005 17:13:36.869210  9762 net.cpp:367] elu12 -> Convolution13 (in-place)
I1005 17:13:36.869215  9762 net.cpp:122] Setting up elu12
I1005 17:13:36.869220  9762 net.cpp:129] Top shape: 100 32 14 14 (627200)
I1005 17:13:36.869221  9762 net.cpp:137] Memory required for data: 269382800
I1005 17:13:36.869223  9762 layer_factory.hpp:77] Creating layer Convolution14
I1005 17:13:36.869230  9762 net.cpp:84] Creating Layer Convolution14
I1005 17:13:36.869232  9762 net.cpp:406] Convolution14 <- Convolution13
I1005 17:13:36.869236  9762 net.cpp:380] Convolution14 -> Convolution14
I1005 17:13:36.870226  9762 net.cpp:122] Setting up Convolution14
I1005 17:13:36.870236  9762 net.cpp:129] Top shape: 100 32 14 14 (627200)
I1005 17:13:36.870239  9762 net.cpp:137] Memory required for data: 271891600
I1005 17:13:36.870244  9762 layer_factory.hpp:77] Creating layer BatchNorm14
I1005 17:13:36.870254  9762 net.cpp:84] Creating Layer BatchNorm14
I1005 17:13:36.870256  9762 net.cpp:406] BatchNorm14 <- Convolution14
I1005 17:13:36.870260  9762 net.cpp:367] BatchNorm14 -> Convolution14 (in-place)
I1005 17:13:36.870388  9762 net.cpp:122] Setting up BatchNorm14
I1005 17:13:36.870393  9762 net.cpp:129] Top shape: 100 32 14 14 (627200)
I1005 17:13:36.870396  9762 net.cpp:137] Memory required for data: 274400400
I1005 17:13:36.870402  9762 layer_factory.hpp:77] Creating layer Scale14
I1005 17:13:36.870407  9762 net.cpp:84] Creating Layer Scale14
I1005 17:13:36.870410  9762 net.cpp:406] Scale14 <- Convolution14
I1005 17:13:36.870414  9762 net.cpp:367] Scale14 -> Convolution14 (in-place)
I1005 17:13:36.870438  9762 layer_factory.hpp:77] Creating layer Scale14
I1005 17:13:36.870507  9762 net.cpp:122] Setting up Scale14
I1005 17:13:36.870512  9762 net.cpp:129] Top shape: 100 32 14 14 (627200)
I1005 17:13:36.870514  9762 net.cpp:137] Memory required for data: 276909200
I1005 17:13:36.870518  9762 layer_factory.hpp:77] Creating layer Eltwise6
I1005 17:13:36.870528  9762 net.cpp:84] Creating Layer Eltwise6
I1005 17:13:36.870532  9762 net.cpp:406] Eltwise6 <- Eltwise5_elu11_0_split_1
I1005 17:13:36.870535  9762 net.cpp:406] Eltwise6 <- Convolution14
I1005 17:13:36.870538  9762 net.cpp:380] Eltwise6 -> Eltwise6
I1005 17:13:36.870554  9762 net.cpp:122] Setting up Eltwise6
I1005 17:13:36.870559  9762 net.cpp:129] Top shape: 100 32 14 14 (627200)
I1005 17:13:36.870563  9762 net.cpp:137] Memory required for data: 279418000
I1005 17:13:36.870564  9762 layer_factory.hpp:77] Creating layer elu13
I1005 17:13:36.870568  9762 net.cpp:84] Creating Layer elu13
I1005 17:13:36.870570  9762 net.cpp:406] elu13 <- Eltwise6
I1005 17:13:36.870573  9762 net.cpp:367] elu13 -> Eltwise6 (in-place)
I1005 17:13:36.870578  9762 net.cpp:122] Setting up elu13
I1005 17:13:36.870579  9762 net.cpp:129] Top shape: 100 32 14 14 (627200)
I1005 17:13:36.870582  9762 net.cpp:137] Memory required for data: 281926800
I1005 17:13:36.870584  9762 layer_factory.hpp:77] Creating layer Eltwise6_elu13_0_split
I1005 17:13:36.870587  9762 net.cpp:84] Creating Layer Eltwise6_elu13_0_split
I1005 17:13:36.870589  9762 net.cpp:406] Eltwise6_elu13_0_split <- Eltwise6
I1005 17:13:36.870592  9762 net.cpp:380] Eltwise6_elu13_0_split -> Eltwise6_elu13_0_split_0
I1005 17:13:36.870596  9762 net.cpp:380] Eltwise6_elu13_0_split -> Eltwise6_elu13_0_split_1
I1005 17:13:36.870615  9762 net.cpp:122] Setting up Eltwise6_elu13_0_split
I1005 17:13:36.870620  9762 net.cpp:129] Top shape: 100 32 14 14 (627200)
I1005 17:13:36.870622  9762 net.cpp:129] Top shape: 100 32 14 14 (627200)
I1005 17:13:36.870625  9762 net.cpp:137] Memory required for data: 286944400
I1005 17:13:36.870626  9762 layer_factory.hpp:77] Creating layer Convolution15
I1005 17:13:36.870632  9762 net.cpp:84] Creating Layer Convolution15
I1005 17:13:36.870635  9762 net.cpp:406] Convolution15 <- Eltwise6_elu13_0_split_0
I1005 17:13:36.870638  9762 net.cpp:380] Convolution15 -> Convolution15
I1005 17:13:36.871471  9762 net.cpp:122] Setting up Convolution15
I1005 17:13:36.871479  9762 net.cpp:129] Top shape: 100 64 7 7 (313600)
I1005 17:13:36.871482  9762 net.cpp:137] Memory required for data: 288198800
I1005 17:13:36.871487  9762 layer_factory.hpp:77] Creating layer BatchNorm15
I1005 17:13:36.871491  9762 net.cpp:84] Creating Layer BatchNorm15
I1005 17:13:36.871495  9762 net.cpp:406] BatchNorm15 <- Convolution15
I1005 17:13:36.871498  9762 net.cpp:367] BatchNorm15 -> Convolution15 (in-place)
I1005 17:13:36.871619  9762 net.cpp:122] Setting up BatchNorm15
I1005 17:13:36.871623  9762 net.cpp:129] Top shape: 100 64 7 7 (313600)
I1005 17:13:36.871625  9762 net.cpp:137] Memory required for data: 289453200
I1005 17:13:36.871630  9762 layer_factory.hpp:77] Creating layer Scale15
I1005 17:13:36.871634  9762 net.cpp:84] Creating Layer Scale15
I1005 17:13:36.871636  9762 net.cpp:406] Scale15 <- Convolution15
I1005 17:13:36.871639  9762 net.cpp:367] Scale15 -> Convolution15 (in-place)
I1005 17:13:36.871664  9762 layer_factory.hpp:77] Creating layer Scale15
I1005 17:13:36.871731  9762 net.cpp:122] Setting up Scale15
I1005 17:13:36.871736  9762 net.cpp:129] Top shape: 100 64 7 7 (313600)
I1005 17:13:36.871737  9762 net.cpp:137] Memory required for data: 290707600
I1005 17:13:36.871748  9762 layer_factory.hpp:77] Creating layer Convolution16
I1005 17:13:36.871755  9762 net.cpp:84] Creating Layer Convolution16
I1005 17:13:36.871758  9762 net.cpp:406] Convolution16 <- Eltwise6_elu13_0_split_1
I1005 17:13:36.871762  9762 net.cpp:380] Convolution16 -> Convolution16
I1005 17:13:36.873467  9762 net.cpp:122] Setting up Convolution16
I1005 17:13:36.873476  9762 net.cpp:129] Top shape: 100 64 7 7 (313600)
I1005 17:13:36.873479  9762 net.cpp:137] Memory required for data: 291962000
I1005 17:13:36.873484  9762 layer_factory.hpp:77] Creating layer BatchNorm16
I1005 17:13:36.873489  9762 net.cpp:84] Creating Layer BatchNorm16
I1005 17:13:36.873492  9762 net.cpp:406] BatchNorm16 <- Convolution16
I1005 17:13:36.873495  9762 net.cpp:367] BatchNorm16 -> Convolution16 (in-place)
I1005 17:13:36.873627  9762 net.cpp:122] Setting up BatchNorm16
I1005 17:13:36.873631  9762 net.cpp:129] Top shape: 100 64 7 7 (313600)
I1005 17:13:36.873634  9762 net.cpp:137] Memory required for data: 293216400
I1005 17:13:36.873639  9762 layer_factory.hpp:77] Creating layer Scale16
I1005 17:13:36.873643  9762 net.cpp:84] Creating Layer Scale16
I1005 17:13:36.873646  9762 net.cpp:406] Scale16 <- Convolution16
I1005 17:13:36.873648  9762 net.cpp:367] Scale16 -> Convolution16 (in-place)
I1005 17:13:36.873682  9762 layer_factory.hpp:77] Creating layer Scale16
I1005 17:13:36.873750  9762 net.cpp:122] Setting up Scale16
I1005 17:13:36.873755  9762 net.cpp:129] Top shape: 100 64 7 7 (313600)
I1005 17:13:36.873757  9762 net.cpp:137] Memory required for data: 294470800
I1005 17:13:36.873761  9762 layer_factory.hpp:77] Creating layer elu14
I1005 17:13:36.873764  9762 net.cpp:84] Creating Layer elu14
I1005 17:13:36.873767  9762 net.cpp:406] elu14 <- Convolution16
I1005 17:13:36.873770  9762 net.cpp:367] elu14 -> Convolution16 (in-place)
I1005 17:13:36.873775  9762 net.cpp:122] Setting up elu14
I1005 17:13:36.873777  9762 net.cpp:129] Top shape: 100 64 7 7 (313600)
I1005 17:13:36.873780  9762 net.cpp:137] Memory required for data: 295725200
I1005 17:13:36.873781  9762 layer_factory.hpp:77] Creating layer Convolution17
I1005 17:13:36.873787  9762 net.cpp:84] Creating Layer Convolution17
I1005 17:13:36.873790  9762 net.cpp:406] Convolution17 <- Convolution16
I1005 17:13:36.873793  9762 net.cpp:380] Convolution17 -> Convolution17
I1005 17:13:36.875382  9762 net.cpp:122] Setting up Convolution17
I1005 17:13:36.875391  9762 net.cpp:129] Top shape: 100 64 7 7 (313600)
I1005 17:13:36.875393  9762 net.cpp:137] Memory required for data: 296979600
I1005 17:13:36.875398  9762 layer_factory.hpp:77] Creating layer BatchNorm17
I1005 17:13:36.875403  9762 net.cpp:84] Creating Layer BatchNorm17
I1005 17:13:36.875406  9762 net.cpp:406] BatchNorm17 <- Convolution17
I1005 17:13:36.875409  9762 net.cpp:367] BatchNorm17 -> Convolution17 (in-place)
I1005 17:13:36.875532  9762 net.cpp:122] Setting up BatchNorm17
I1005 17:13:36.875536  9762 net.cpp:129] Top shape: 100 64 7 7 (313600)
I1005 17:13:36.875538  9762 net.cpp:137] Memory required for data: 298234000
I1005 17:13:36.875543  9762 layer_factory.hpp:77] Creating layer Scale17
I1005 17:13:36.875547  9762 net.cpp:84] Creating Layer Scale17
I1005 17:13:36.875550  9762 net.cpp:406] Scale17 <- Convolution17
I1005 17:13:36.875553  9762 net.cpp:367] Scale17 -> Convolution17 (in-place)
I1005 17:13:36.875577  9762 layer_factory.hpp:77] Creating layer Scale17
I1005 17:13:36.875645  9762 net.cpp:122] Setting up Scale17
I1005 17:13:36.875649  9762 net.cpp:129] Top shape: 100 64 7 7 (313600)
I1005 17:13:36.875651  9762 net.cpp:137] Memory required for data: 299488400
I1005 17:13:36.875655  9762 layer_factory.hpp:77] Creating layer Eltwise7
I1005 17:13:36.875659  9762 net.cpp:84] Creating Layer Eltwise7
I1005 17:13:36.875661  9762 net.cpp:406] Eltwise7 <- Convolution15
I1005 17:13:36.875664  9762 net.cpp:406] Eltwise7 <- Convolution17
I1005 17:13:36.875668  9762 net.cpp:380] Eltwise7 -> Eltwise7
I1005 17:13:36.875682  9762 net.cpp:122] Setting up Eltwise7
I1005 17:13:36.875685  9762 net.cpp:129] Top shape: 100 64 7 7 (313600)
I1005 17:13:36.875694  9762 net.cpp:137] Memory required for data: 300742800
I1005 17:13:36.875697  9762 layer_factory.hpp:77] Creating layer elu15
I1005 17:13:36.875700  9762 net.cpp:84] Creating Layer elu15
I1005 17:13:36.875704  9762 net.cpp:406] elu15 <- Eltwise7
I1005 17:13:36.875706  9762 net.cpp:367] elu15 -> Eltwise7 (in-place)
I1005 17:13:36.875710  9762 net.cpp:122] Setting up elu15
I1005 17:13:36.875713  9762 net.cpp:129] Top shape: 100 64 7 7 (313600)
I1005 17:13:36.875715  9762 net.cpp:137] Memory required for data: 301997200
I1005 17:13:36.875717  9762 layer_factory.hpp:77] Creating layer Eltwise7_elu15_0_split
I1005 17:13:36.875720  9762 net.cpp:84] Creating Layer Eltwise7_elu15_0_split
I1005 17:13:36.875722  9762 net.cpp:406] Eltwise7_elu15_0_split <- Eltwise7
I1005 17:13:36.875725  9762 net.cpp:380] Eltwise7_elu15_0_split -> Eltwise7_elu15_0_split_0
I1005 17:13:36.875730  9762 net.cpp:380] Eltwise7_elu15_0_split -> Eltwise7_elu15_0_split_1
I1005 17:13:36.875751  9762 net.cpp:122] Setting up Eltwise7_elu15_0_split
I1005 17:13:36.875754  9762 net.cpp:129] Top shape: 100 64 7 7 (313600)
I1005 17:13:36.875756  9762 net.cpp:129] Top shape: 100 64 7 7 (313600)
I1005 17:13:36.875758  9762 net.cpp:137] Memory required for data: 304506000
I1005 17:13:36.875761  9762 layer_factory.hpp:77] Creating layer Convolution18
I1005 17:13:36.875766  9762 net.cpp:84] Creating Layer Convolution18
I1005 17:13:36.875769  9762 net.cpp:406] Convolution18 <- Eltwise7_elu15_0_split_0
I1005 17:13:36.875773  9762 net.cpp:380] Convolution18 -> Convolution18
I1005 17:13:36.877352  9762 net.cpp:122] Setting up Convolution18
I1005 17:13:36.877362  9762 net.cpp:129] Top shape: 100 64 7 7 (313600)
I1005 17:13:36.877364  9762 net.cpp:137] Memory required for data: 305760400
I1005 17:13:36.877368  9762 layer_factory.hpp:77] Creating layer BatchNorm18
I1005 17:13:36.877373  9762 net.cpp:84] Creating Layer BatchNorm18
I1005 17:13:36.877377  9762 net.cpp:406] BatchNorm18 <- Convolution18
I1005 17:13:36.877379  9762 net.cpp:367] BatchNorm18 -> Convolution18 (in-place)
I1005 17:13:36.877503  9762 net.cpp:122] Setting up BatchNorm18
I1005 17:13:36.877508  9762 net.cpp:129] Top shape: 100 64 7 7 (313600)
I1005 17:13:36.877511  9762 net.cpp:137] Memory required for data: 307014800
I1005 17:13:36.877516  9762 layer_factory.hpp:77] Creating layer Scale18
I1005 17:13:36.877518  9762 net.cpp:84] Creating Layer Scale18
I1005 17:13:36.877521  9762 net.cpp:406] Scale18 <- Convolution18
I1005 17:13:36.877524  9762 net.cpp:367] Scale18 -> Convolution18 (in-place)
I1005 17:13:36.877548  9762 layer_factory.hpp:77] Creating layer Scale18
I1005 17:13:36.877615  9762 net.cpp:122] Setting up Scale18
I1005 17:13:36.877619  9762 net.cpp:129] Top shape: 100 64 7 7 (313600)
I1005 17:13:36.877621  9762 net.cpp:137] Memory required for data: 308269200
I1005 17:13:36.877625  9762 layer_factory.hpp:77] Creating layer elu16
I1005 17:13:36.877629  9762 net.cpp:84] Creating Layer elu16
I1005 17:13:36.877631  9762 net.cpp:406] elu16 <- Convolution18
I1005 17:13:36.877635  9762 net.cpp:367] elu16 -> Convolution18 (in-place)
I1005 17:13:36.877638  9762 net.cpp:122] Setting up elu16
I1005 17:13:36.877641  9762 net.cpp:129] Top shape: 100 64 7 7 (313600)
I1005 17:13:36.877643  9762 net.cpp:137] Memory required for data: 309523600
I1005 17:13:36.877645  9762 layer_factory.hpp:77] Creating layer Convolution19
I1005 17:13:36.877651  9762 net.cpp:84] Creating Layer Convolution19
I1005 17:13:36.877655  9762 net.cpp:406] Convolution19 <- Convolution18
I1005 17:13:36.877657  9762 net.cpp:380] Convolution19 -> Convolution19
I1005 17:13:36.879609  9762 net.cpp:122] Setting up Convolution19
I1005 17:13:36.879618  9762 net.cpp:129] Top shape: 100 64 7 7 (313600)
I1005 17:13:36.879622  9762 net.cpp:137] Memory required for data: 310778000
I1005 17:13:36.879629  9762 layer_factory.hpp:77] Creating layer BatchNorm19
I1005 17:13:36.879637  9762 net.cpp:84] Creating Layer BatchNorm19
I1005 17:13:36.879640  9762 net.cpp:406] BatchNorm19 <- Convolution19
I1005 17:13:36.879655  9762 net.cpp:367] BatchNorm19 -> Convolution19 (in-place)
I1005 17:13:36.879794  9762 net.cpp:122] Setting up BatchNorm19
I1005 17:13:36.879802  9762 net.cpp:129] Top shape: 100 64 7 7 (313600)
I1005 17:13:36.879806  9762 net.cpp:137] Memory required for data: 312032400
I1005 17:13:36.879828  9762 layer_factory.hpp:77] Creating layer Scale19
I1005 17:13:36.879835  9762 net.cpp:84] Creating Layer Scale19
I1005 17:13:36.879840  9762 net.cpp:406] Scale19 <- Convolution19
I1005 17:13:36.879845  9762 net.cpp:367] Scale19 -> Convolution19 (in-place)
I1005 17:13:36.879878  9762 layer_factory.hpp:77] Creating layer Scale19
I1005 17:13:36.879951  9762 net.cpp:122] Setting up Scale19
I1005 17:13:36.879956  9762 net.cpp:129] Top shape: 100 64 7 7 (313600)
I1005 17:13:36.879958  9762 net.cpp:137] Memory required for data: 313286800
I1005 17:13:36.879962  9762 layer_factory.hpp:77] Creating layer Eltwise8
I1005 17:13:36.879966  9762 net.cpp:84] Creating Layer Eltwise8
I1005 17:13:36.879969  9762 net.cpp:406] Eltwise8 <- Eltwise7_elu15_0_split_1
I1005 17:13:36.879972  9762 net.cpp:406] Eltwise8 <- Convolution19
I1005 17:13:36.879976  9762 net.cpp:380] Eltwise8 -> Eltwise8
I1005 17:13:36.879990  9762 net.cpp:122] Setting up Eltwise8
I1005 17:13:36.879994  9762 net.cpp:129] Top shape: 100 64 7 7 (313600)
I1005 17:13:36.879997  9762 net.cpp:137] Memory required for data: 314541200
I1005 17:13:36.879999  9762 layer_factory.hpp:77] Creating layer elu17
I1005 17:13:36.880003  9762 net.cpp:84] Creating Layer elu17
I1005 17:13:36.880005  9762 net.cpp:406] elu17 <- Eltwise8
I1005 17:13:36.880008  9762 net.cpp:367] elu17 -> Eltwise8 (in-place)
I1005 17:13:36.880012  9762 net.cpp:122] Setting up elu17
I1005 17:13:36.880015  9762 net.cpp:129] Top shape: 100 64 7 7 (313600)
I1005 17:13:36.880017  9762 net.cpp:137] Memory required for data: 315795600
I1005 17:13:36.880019  9762 layer_factory.hpp:77] Creating layer Eltwise8_elu17_0_split
I1005 17:13:36.880023  9762 net.cpp:84] Creating Layer Eltwise8_elu17_0_split
I1005 17:13:36.880024  9762 net.cpp:406] Eltwise8_elu17_0_split <- Eltwise8
I1005 17:13:36.880028  9762 net.cpp:380] Eltwise8_elu17_0_split -> Eltwise8_elu17_0_split_0
I1005 17:13:36.880031  9762 net.cpp:380] Eltwise8_elu17_0_split -> Eltwise8_elu17_0_split_1
I1005 17:13:36.880053  9762 net.cpp:122] Setting up Eltwise8_elu17_0_split
I1005 17:13:36.880056  9762 net.cpp:129] Top shape: 100 64 7 7 (313600)
I1005 17:13:36.880059  9762 net.cpp:129] Top shape: 100 64 7 7 (313600)
I1005 17:13:36.880061  9762 net.cpp:137] Memory required for data: 318304400
I1005 17:13:36.880064  9762 layer_factory.hpp:77] Creating layer Convolution20
I1005 17:13:36.880070  9762 net.cpp:84] Creating Layer Convolution20
I1005 17:13:36.880072  9762 net.cpp:406] Convolution20 <- Eltwise8_elu17_0_split_0
I1005 17:13:36.880076  9762 net.cpp:380] Convolution20 -> Convolution20
I1005 17:13:36.881741  9762 net.cpp:122] Setting up Convolution20
I1005 17:13:36.881752  9762 net.cpp:129] Top shape: 100 64 7 7 (313600)
I1005 17:13:36.881754  9762 net.cpp:137] Memory required for data: 319558800
I1005 17:13:36.881759  9762 layer_factory.hpp:77] Creating layer BatchNorm20
I1005 17:13:36.881764  9762 net.cpp:84] Creating Layer BatchNorm20
I1005 17:13:36.881767  9762 net.cpp:406] BatchNorm20 <- Convolution20
I1005 17:13:36.881774  9762 net.cpp:367] BatchNorm20 -> Convolution20 (in-place)
I1005 17:13:36.881903  9762 net.cpp:122] Setting up BatchNorm20
I1005 17:13:36.881908  9762 net.cpp:129] Top shape: 100 64 7 7 (313600)
I1005 17:13:36.881911  9762 net.cpp:137] Memory required for data: 320813200
I1005 17:13:36.881916  9762 layer_factory.hpp:77] Creating layer Scale20
I1005 17:13:36.881920  9762 net.cpp:84] Creating Layer Scale20
I1005 17:13:36.881923  9762 net.cpp:406] Scale20 <- Convolution20
I1005 17:13:36.881927  9762 net.cpp:367] Scale20 -> Convolution20 (in-place)
I1005 17:13:36.881953  9762 layer_factory.hpp:77] Creating layer Scale20
I1005 17:13:36.882026  9762 net.cpp:122] Setting up Scale20
I1005 17:13:36.882031  9762 net.cpp:129] Top shape: 100 64 7 7 (313600)
I1005 17:13:36.882041  9762 net.cpp:137] Memory required for data: 322067600
I1005 17:13:36.882045  9762 layer_factory.hpp:77] Creating layer elu18
I1005 17:13:36.882050  9762 net.cpp:84] Creating Layer elu18
I1005 17:13:36.882052  9762 net.cpp:406] elu18 <- Convolution20
I1005 17:13:36.882056  9762 net.cpp:367] elu18 -> Convolution20 (in-place)
I1005 17:13:36.882061  9762 net.cpp:122] Setting up elu18
I1005 17:13:36.882066  9762 net.cpp:129] Top shape: 100 64 7 7 (313600)
I1005 17:13:36.882067  9762 net.cpp:137] Memory required for data: 323322000
I1005 17:13:36.882071  9762 layer_factory.hpp:77] Creating layer Convolution21
I1005 17:13:36.882076  9762 net.cpp:84] Creating Layer Convolution21
I1005 17:13:36.882079  9762 net.cpp:406] Convolution21 <- Convolution20
I1005 17:13:36.882083  9762 net.cpp:380] Convolution21 -> Convolution21
I1005 17:13:36.884706  9762 net.cpp:122] Setting up Convolution21
I1005 17:13:36.884714  9762 net.cpp:129] Top shape: 100 64 7 7 (313600)
I1005 17:13:36.884717  9762 net.cpp:137] Memory required for data: 324576400
I1005 17:13:36.884722  9762 layer_factory.hpp:77] Creating layer BatchNorm21
I1005 17:13:36.884727  9762 net.cpp:84] Creating Layer BatchNorm21
I1005 17:13:36.884730  9762 net.cpp:406] BatchNorm21 <- Convolution21
I1005 17:13:36.884734  9762 net.cpp:367] BatchNorm21 -> Convolution21 (in-place)
I1005 17:13:36.884868  9762 net.cpp:122] Setting up BatchNorm21
I1005 17:13:36.884873  9762 net.cpp:129] Top shape: 100 64 7 7 (313600)
I1005 17:13:36.884876  9762 net.cpp:137] Memory required for data: 325830800
I1005 17:13:36.884881  9762 layer_factory.hpp:77] Creating layer Scale21
I1005 17:13:36.884884  9762 net.cpp:84] Creating Layer Scale21
I1005 17:13:36.884886  9762 net.cpp:406] Scale21 <- Convolution21
I1005 17:13:36.884889  9762 net.cpp:367] Scale21 -> Convolution21 (in-place)
I1005 17:13:36.884917  9762 layer_factory.hpp:77] Creating layer Scale21
I1005 17:13:36.884991  9762 net.cpp:122] Setting up Scale21
I1005 17:13:36.884995  9762 net.cpp:129] Top shape: 100 64 7 7 (313600)
I1005 17:13:36.884997  9762 net.cpp:137] Memory required for data: 327085200
I1005 17:13:36.885001  9762 layer_factory.hpp:77] Creating layer Eltwise9
I1005 17:13:36.885005  9762 net.cpp:84] Creating Layer Eltwise9
I1005 17:13:36.885009  9762 net.cpp:406] Eltwise9 <- Eltwise8_elu17_0_split_1
I1005 17:13:36.885011  9762 net.cpp:406] Eltwise9 <- Convolution21
I1005 17:13:36.885015  9762 net.cpp:380] Eltwise9 -> Eltwise9
I1005 17:13:36.885030  9762 net.cpp:122] Setting up Eltwise9
I1005 17:13:36.885033  9762 net.cpp:129] Top shape: 100 64 7 7 (313600)
I1005 17:13:36.885035  9762 net.cpp:137] Memory required for data: 328339600
I1005 17:13:36.885037  9762 layer_factory.hpp:77] Creating layer elu19
I1005 17:13:36.885041  9762 net.cpp:84] Creating Layer elu19
I1005 17:13:36.885043  9762 net.cpp:406] elu19 <- Eltwise9
I1005 17:13:36.885046  9762 net.cpp:367] elu19 -> Eltwise9 (in-place)
I1005 17:13:36.885051  9762 net.cpp:122] Setting up elu19
I1005 17:13:36.885053  9762 net.cpp:129] Top shape: 100 64 7 7 (313600)
I1005 17:13:36.885056  9762 net.cpp:137] Memory required for data: 329594000
I1005 17:13:36.885057  9762 layer_factory.hpp:77] Creating layer Pooling1
I1005 17:13:36.885061  9762 net.cpp:84] Creating Layer Pooling1
I1005 17:13:36.885063  9762 net.cpp:406] Pooling1 <- Eltwise9
I1005 17:13:36.885066  9762 net.cpp:380] Pooling1 -> Pooling1
I1005 17:13:36.885210  9762 net.cpp:122] Setting up Pooling1
I1005 17:13:36.885216  9762 net.cpp:129] Top shape: 100 64 1 1 (6400)
I1005 17:13:36.885218  9762 net.cpp:137] Memory required for data: 329619600
I1005 17:13:36.885221  9762 layer_factory.hpp:77] Creating layer InnerProduct1
I1005 17:13:36.885231  9762 net.cpp:84] Creating Layer InnerProduct1
I1005 17:13:36.885233  9762 net.cpp:406] InnerProduct1 <- Pooling1
I1005 17:13:36.885237  9762 net.cpp:380] InnerProduct1 -> InnerProduct1
I1005 17:13:36.885332  9762 net.cpp:122] Setting up InnerProduct1
I1005 17:13:36.885336  9762 net.cpp:129] Top shape: 100 10 (1000)
I1005 17:13:36.885339  9762 net.cpp:137] Memory required for data: 329623600
I1005 17:13:36.885349  9762 layer_factory.hpp:77] Creating layer SoftmaxWithLoss1
I1005 17:13:36.885354  9762 net.cpp:84] Creating Layer SoftmaxWithLoss1
I1005 17:13:36.885357  9762 net.cpp:406] SoftmaxWithLoss1 <- InnerProduct1
I1005 17:13:36.885360  9762 net.cpp:406] SoftmaxWithLoss1 <- Data2
I1005 17:13:36.885365  9762 net.cpp:380] SoftmaxWithLoss1 -> SoftmaxWithLoss1
…
I1005 17:13:36.887651  9762 net.cpp:294] The NetState phase (1) differed from the phase (0) specified by a rule in layer Data1
I1005 17:13:36.888027  9762 net.cpp:51] Initializing net from parameters: 
name: "resnet_cifar10"
state {
  phase: TEST
}
layer {
  name: "Data1"
  type: "Data"
  top: "Data1"
  top: "Data2"
  include {
    phase: TEST
  }
  transform_param {
    mean_file: "/home/x306/caffe/xn/PENLU/data/cifar10/mean.binaryproto"
  }
  data_param {
    source: "/home/x306/caffe/xn/PENLU/data/cifar10/cifar10_test_lmdb"
    batch_size: 100
    backend: LMDB
  }
}
layer {
  name: "Convolution1"
  type: "Convolution"
  bottom: "Data1"
  top: "Convolution1"
  param {
    lr_mult: 1
    decay_mult: 1
  }
  param {
    lr_mult: 2
    decay_mult: 0
  }
  convolution_param {
    num_output: 16
    pad: 1
    kernel_size: 3
    stride: 1
    weight_filler {
      type: "gaussian"
      std: 0.118
    }
    bias_filler {
      type: "constant"
      value: 0
    }
  }
}
layer {
  name: "BatchNorm1"
  type: "BatchNorm"
  bottom: "Convolution1"
  top: "Convolution1"
  param {
    lr_mult: 0
    decay_mult: 0
  }
  param {
    lr_mult: 0
    decay_mult: 0
  }
  param {
    lr_mult: 0
    decay_mult: 0
  }
}
layer {
  name: "Scale1"
  type: "Scale"
  bottom: "Convolution1"
  top: "Convolution1"
  scale_param {
    bias_term: true
  }
}
layer {
  name: "elu1"
  type: "ELU"
  bottom: "Convolution1"
  top: "Convolution1"
  elu_param {
    alpha: 1
  }
}
layer {
  name: "Convolution2"
  type: "Convolution"
  bottom: "Convolution1"
  top: "Convolution2"
  param {
    lr_mult: 1
    decay_mult: 1
  }
  param {
    lr_mult: 2
    decay_mult: 0
  }
  convolution_param {
    num_output: 16
    pad: 1
    kernel_size: 3
    stride: 1
    weight_filler {
      type: "gaussian"
      std: 0.118
    }
    bias_filler {
      type: "constant"
      value: 0
    }
  }
}
layer {
  name: "BatchNorm2"
  type: "BatchNorm"
  bottom: "Convolution2"
  top: "Convolution2"
  param {
    lr_mult: 0
    decay_mult: 0
  }
  param {
    lr_mult: 0
    decay_mult: 0
  }
  param {
    lr_mult: 0
    decay_mult: 0
  }
}
layer {
  name: "Scale2"
  type: "Scale"
  bottom: "Convolution2"
  top: "Convolution2"
  scale_param {
    bias_term: true
  }
}
layer {
  name: "elu2"
  type: "ELU"
  bottom: "Convolution2"
  top: "Convolution2"
  elu_param {
    alpha: 1
  }
}
layer {
  name: "Convolution3"
  type: "Convolution"
  bottom: "Convolution2"
  top: "Convolution3"
  param {
    lr_mult: 1
    decay_mult: 1
  }
  param {
    lr_mult: 2
    decay_mult: 0
  }
  convolution_param {
    num_output: 16
    pad: 1
    kernel_size: 3
    stride: 1
    weight_filler {
      type: "gaussian"
      std: 0.118
    }
    bias_filler {
      type: "constant"
      value: 0
    }
  }
}
layer {
  name: "BatchNorm3"
  type: "BatchNorm"
  bottom: "Convolution3"
  top: "Convolution3"
  param {
    lr_mult: 0
    decay_mult: 0
  }
  param {
    lr_mult: 0
    decay_mult: 0
  }
  param {
    lr_mult: 0
    decay_mult: 0
  }
}
layer {
  name: "Scale3"
  type: "Scale"
  bottom: "Convolution3"
  top: "Convolution3"
  scale_param {
    bias_term: true
  }
}
layer {
  name: "Eltwise1"
  type: "Eltwise"
  bottom: "Convolution1"
  bottom: "Convolution3"
  top: "Eltwise1"
  eltwise_param {
    operation: SUM
  }
}
layer {
  name: "elu3"
  type: "ELU"
  bottom: "Eltwise1"
  top: "Eltwise1"
  elu_param {
    alpha: 1
  }
}
layer {
  name: "Convolution4"
  type: "Convolution"
  bottom: "Eltwise1"
  top: "Convolution4"
  param {
    lr_mult: 1
    decay_mult: 1
  }
  param {
    lr_mult: 2
    decay_mult: 0
  }
  convolution_param {
    num_output: 16
    pad: 1
    kernel_size: 3
    stride: 1
    weight_filler {
      type: "gaussian"
      std: 0.118
    }
    bias_filler {
      type: "constant"
      value: 0
    }
  }
}
layer {
  name: "BatchNorm4"
  type: "BatchNorm"
  bottom: "Convolution4"
  top: "Convolution4"
  param {
    lr_mult: 0
    decay_mult: 0
  }
  param {
    lr_mult: 0
    decay_mult: 0
  }
  param {
    lr_mult: 0
    decay_mult: 0
  }
}
layer {
  name: "Scale4"
  type: "Scale"
  bottom: "Convolution4"
  top: "Convolution4"
  scale_param {
    bias_term: true
  }
}
layer {
  name: "elu4"
  type: "ELU"
  bottom: "Convolution4"
  top: "Convolution4"
  elu_param {
    alpha: 1
  }
}
layer {
  name: "Convolution5"
  type: "Convolution"
  bottom: "Convolution4"
  top: "Convolution5"
  param {
    lr_mult: 1
    decay_mult: 1
  }
  param {
    lr_mult: 2
    decay_mult: 0
  }
  convolution_param {
    num_output: 16
    pad: 1
    kernel_size: 3
    stride: 1
    weight_filler {
      type: "gaussian"
      std: 0.118
    }
    bias_filler {
      type: "constant"
      value: 0
    }
  }
}
layer {
  name: "BatchNorm5"
  type: "BatchNorm"
  bottom: "Convolution5"
  top: "Convolution5"
  param {
    lr_mult: 0
    decay_mult: 0
  }
  param {
    lr_mult: 0
    decay_mult: 0
  }
  param {
    lr_mult: 0
    decay_mult: 0
  }
}
layer {
  name: "Scale5"
  type: "Scale"
  bottom: "Convolution5"
  top: "Convolution5"
  scale_param {
    bias_term: true
  }
}
layer {
  name: "Eltwise2"
  type: "Eltwise"
  bottom: "Eltwise1"
  bottom: "Convolution5"
  top: "Eltwise2"
  eltwise_param {
    operation: SUM
  }
}
layer {
  name: "elu5"
  type: "ELU"
  bottom: "Eltwise2"
  top: "Eltwise2"
  elu_param {
    alpha: 1
  }
}
layer {
  name: "Convolution6"
  type: "Convolution"
  bottom: "Eltwise2"
  top: "Convolution6"
  param {
    lr_mult: 1
    decay_mult: 1
  }
  param {
    lr_mult: 2
    decay_mult: 0
  }
  convolution_param {
    num_output: 16
    pad: 1
    kernel_size: 3
    stride: 1
    weight_filler {
      type: "gaussian"
      std: 0.118
    }
    bias_filler {
      type: "constant"
      value: 0
    }
  }
}
layer {
  name: "BatchNorm6"
  type: "BatchNorm"
  bottom: "Convolution6"
  top: "Convolution6"
  param {
    lr_mult: 0
    decay_mult: 0
  }
  param {
    lr_mult: 0
    decay_mult: 0
  }
  param {
    lr_mult: 0
    decay_mult: 0
  }
}
layer {
  name: "Scale6"
  type: "Scale"
  bottom: "Convolution6"
  top: "Convolution6"
  scale_param {
    bias_term: true
  }
}
layer {
  name: "elu6"
  type: "ELU"
  bottom: "Convolution6"
  top: "Convolution6"
  elu_param {
    alpha: 1
  }
}
layer {
  name: "Convolution7"
  type: "Convolution"
  bottom: "Convolution6"
  top: "Convolution7"
  param {
    lr_mult: 1
    decay_mult: 1
  }
  param {
    lr_mult: 2
    decay_mult: 0
  }
  convolution_param {
    num_output: 16
    pad: 1
    kernel_size: 3
    stride: 1
    weight_filler {
      type: "gaussian"
      std: 0.118
    }
    bias_filler {
      type: "constant"
      value: 0
    }
  }
}
layer {
  name: "BatchNorm7"
  type: "BatchNorm"
  bottom: "Convolution7"
  top: "Convolution7"
  param {
    lr_mult: 0
    decay_mult: 0
  }
  param {
    lr_mult: 0
    decay_mult: 0
  }
  param {
    lr_mult: 0
    decay_mult: 0
  }
}
layer {
  name: "Scale7"
  type: "Scale"
  bottom: "Convolution7"
  top: "Convolution7"
  scale_param {
    bias_term: true
  }
}
layer {
  name: "Eltwise3"
  type: "Eltwise"
  bottom: "Eltwise2"
  bottom: "Convolution7"
  top: "Eltwise3"
  eltwise_param {
    operation: SUM
  }
}
layer {
  name: "elu7"
  type: "ELU"
  bottom: "Eltwise3"
  top: "Eltwise3"
  elu_param {
    alpha: 1
  }
}
layer {
  name: "Convolution8"
  type: "Convolution"
  bottom: "Eltwise3"
  top: "Convolution8"
  param {
    lr_mult: 1
    decay_mult: 1
  }
  param {
    lr_mult: 2
    decay_mult: 0
  }
  convolution_param {
    num_output: 32
    pad: 0
    kernel_size: 1
    stride: 2
    weight_filler {
      type: "gaussian"
      std: 0.25
    }
    bias_filler {
      type: "constant"
      value: 0
    }
  }
}
layer {
  name: "BatchNorm8"
  type: "BatchNorm"
  bottom: "Convolution8"
  top: "Convolution8"
  param {
    lr_mult: 0
    decay_mult: 0
  }
  param {
    lr_mult: 0
    decay_mult: 0
  }
  param {
    lr_mult: 0
    decay_mult: 0
  }
}
layer {
  name: "Scale8"
  type: "Scale"
  bottom: "Convolution8"
  top: "Convolution8"
  scale_param {
    bias_term: true
  }
}
layer {
  name: "Convolution9"
  type: "Convolution"
  bottom: "Eltwise3"
  top: "Convolution9"
  param {
    lr_mult: 1
    decay_mult: 1
  }
  param {
    lr_mult: 2
    decay_mult: 0
  }
  convolution_param {
    num_output: 32
    pad: 1
    kernel_size: 3
    stride: 2
    weight_filler {
      type: "gaussian"
      std: 0.083
    }
    bias_filler {
      type: "constant"
      value: 0
    }
  }
}
layer {
  name: "BatchNorm9"
  type: "BatchNorm"
  bottom: "Convolution9"
  top: "Convolution9"
  param {
    lr_mult: 0
    decay_mult: 0
  }
  param {
    lr_mult: 0
    decay_mult: 0
  }
  param {
    lr_mult: 0
    decay_mult: 0
  }
}
layer {
  name: "Scale9"
  type: "Scale"
  bottom: "Convolution9"
  top: "Convolution9"
  scale_param {
    bias_term: true
  }
}
layer {
  name: "elu8"
  type: "ELU"
  bottom: "Convolution9"
  top: "Convolution9"
  elu_param {
    alpha: 1
  }
}
layer {
  name: "Convolution10"
  type: "Convolution"
  bottom: "Convolution9"
  top: "Convolution10"
  param {
    lr_mult: 1
    decay_mult: 1
  }
  param {
    lr_mult: 2
    decay_mult: 0
  }
  convolution_param {
    num_output: 32
    pad: 1
    kernel_size: 3
    stride: 1
    weight_filler {
      type: "gaussian"
      std: 0.083
    }
    bias_filler {
      type: "constant"
      value: 0
    }
  }
}
layer {
  name: "BatchNorm10"
  type: "BatchNorm"
  bottom: "Convolution10"
  top: "Convolution10"
  param {
    lr_mult: 0
    decay_mult: 0
  }
  param {
    lr_mult: 0
    decay_mult: 0
  }
  param {
    lr_mult: 0
    decay_mult: 0
  }
}
layer {
  name: "Scale10"
  type: "Scale"
  bottom: "Convolution10"
  top: "Convolution10"
  scale_param {
    bias_term: true
  }
}
layer {
  name: "Eltwise4"
  type: "Eltwise"
  bottom: "Convolution8"
  bottom: "Convolution10"
  top: "Eltwise4"
  eltwise_param {
    operation: SUM
  }
}
layer {
  name: "elu9"
  type: "ELU"
  bottom: "Eltwise4"
  top: "Eltwise4"
  elu_param {
    alpha: 1
  }
}
layer {
  name: "Convolution11"
  type: "Convolution"
  bottom: "Eltwise4"
  top: "Convolution11"
  param {
    lr_mult: 1
    decay_mult: 1
  }
  param {
    lr_mult: 2
    decay_mult: 0
  }
  convolution_param {
    num_output: 32
    pad: 1
    kernel_size: 3
    stride: 1
    weight_filler {
      type: "gaussian"
      std: 0.083
    }
    bias_filler {
      type: "constant"
      value: 0
    }
  }
}
layer {
  name: "BatchNorm11"
  type: "BatchNorm"
  bottom: "Convolution11"
  top: "Convolution11"
  param {
    lr_mult: 0
    decay_mult: 0
  }
  param {
    lr_mult: 0
    decay_mult: 0
  }
  param {
    lr_mult: 0
    decay_mult: 0
  }
}
layer {
  name: "Scale11"
  type: "Scale"
  bottom: "Convolution11"
  top: "Convolution11"
  scale_param {
    bias_term: true
  }
}
layer {
  name: "elu10"
  type: "ELU"
  bottom: "Convolution11"
  top: "Convolution11"
  elu_param {
    alpha: 1
  }
}
layer {
  name: "Convolution12"
  type: "Convolution"
  bottom: "Convolution11"
  top: "Convolution12"
  param {
    lr_mult: 1
    decay_mult: 1
  }
  param {
    lr_mult: 2
    decay_mult: 0
  }
  convolution_param {
    num_output: 32
    pad: 1
    kernel_size: 3
    stride: 1
    weight_filler {
      type: "gaussian"
      std: 0.083
    }
    bias_filler {
      type: "constant"
      value: 0
    }
  }
}
layer {
  name: "BatchNorm12"
  type: "BatchNorm"
  bottom: "Convolution12"
  top: "Convolution12"
  param {
    lr_mult: 0
    decay_mult: 0
  }
  param {
    lr_mult: 0
    decay_mult: 0
  }
  param {
    lr_mult: 0
    decay_mult: 0
  }
}
layer {
  name: "Scale12"
  type: "Scale"
  bottom: "Convolution12"
  top: "Convolution12"
  scale_param {
    bias_term: true
  }
}
layer {
  name: "Eltwise5"
  type: "Eltwise"
  bottom: "Eltwise4"
  bottom: "Convolution12"
  top: "Eltwise5"
  eltwise_param {
    operation: SUM
  }
}
layer {
  name: "elu11"
  type: "ELU"
  bottom: "Eltwise5"
  top: "Eltwise5"
  elu_param {
    alpha: 1
  }
}
layer {
  name: "Convolution13"
  type: "Convolution"
  bottom: "Eltwise5"
  top: "Convolution13"
  param {
    lr_mult: 1
    decay_mult: 1
  }
  param {
    lr_mult: 2
    decay_mult: 0
  }
  convolution_param {
    num_output: 32
    pad: 1
    kernel_size: 3
    stride: 1
    weight_filler {
      type: "gaussian"
      std: 0.083
    }
    bias_filler {
      type: "constant"
      value: 0
    }
  }
}
layer {
  name: "BatchNorm13"
  type: "BatchNorm"
  bottom: "Convolution13"
  top: "Convolution13"
  param {
    lr_mult: 0
    decay_mult: 0
  }
  param {
    lr_mult: 0
    decay_mult: 0
  }
  param {
    lr_mult: 0
    decay_mult: 0
  }
}
layer {
  name: "Scale13"
  type: "Scale"
  bottom: "Convolution13"
  top: "Convolution13"
  scale_param {
    bias_term: true
  }
}
layer {
  name: "elu12"
  type: "ELU"
  bottom: "Convolution13"
  top: "Convolution13"
  elu_param {
    alpha: 1
  }
}
layer {
  name: "Convolution14"
  type: "Convolution"
  bottom: "Convolution13"
  top: "Convolution14"
  param {
    lr_mult: 1
    decay_mult: 1
  }
  param {
    lr_mult: 2
    decay_mult: 0
  }
  convolution_param {
    num_output: 32
    pad: 1
    kernel_size: 3
    stride: 1
    weight_filler {
      type: "gaussian"
      std: 0.083
    }
    bias_filler {
      type: "constant"
      value: 0
    }
  }
}
layer {
  name: "BatchNorm14"
  type: "BatchNorm"
  bottom: "Convolution14"
  top: "Convolution14"
  param {
    lr_mult: 0
    decay_mult: 0
  }
  param {
    lr_mult: 0
    decay_mult: 0
  }
  param {
    lr_mult: 0
    decay_mult: 0
  }
}
layer {
  name: "Scale14"
  type: "Scale"
  bottom: "Convolution14"
  top: "Convolution14"
  scale_param {
    bias_term: true
  }
}
layer {
  name: "Eltwise6"
  type: "Eltwise"
  bottom: "Eltwise5"
  bottom: "Convolution14"
  top: "Eltwise6"
  eltwise_param {
    operation: SUM
  }
}
layer {
  name: "elu13"
  type: "ELU"
  bottom: "Eltwise6"
  top: "Eltwise6"
  elu_param {
    alpha: 1
  }
}
layer {
  name: "Convolution15"
  type: "Convolution"
  bottom: "Eltwise6"
  top: "Convolution15"
  param {
    lr_mult: 1
    decay_mult: 1
  }
  param {
    lr_mult: 2
    decay_mult: 0
  }
  convolution_param {
    num_output: 64
    pad: 0
    kernel_size: 1
    stride: 2
    weight_filler {
      type: "gaussian"
      std: 0.17677669
    }
    bias_filler {
      type: "constant"
      value: 0
    }
  }
}
layer {
  name: "BatchNorm15"
  type: "BatchNorm"
  bottom: "Convolution15"
  top: "Convolution15"
  param {
    lr_mult: 0
    decay_mult: 0
  }
  param {
    lr_mult: 0
    decay_mult: 0
  }
  param {
    lr_mult: 0
    decay_mult: 0
  }
}
layer {
  name: "Scale15"
  type: "Scale"
  bottom: "Convolution15"
  top: "Convolution15"
  scale_param {
    bias_term: true
  }
}
layer {
  name: "Convolution16"
  type: "Convolution"
  bottom: "Eltwise6"
  top: "Convolution16"
  param {
    lr_mult: 1
    decay_mult: 1
  }
  param {
    lr_mult: 2
    decay_mult: 0
  }
  convolution_param {
    num_output: 64
    pad: 1
    kernel_size: 3
    stride: 2
    weight_filler {
      type: "gaussian"
      std: 0.059
    }
    bias_filler {
      type: "constant"
      value: 0
    }
  }
}
layer {
  name: "BatchNorm16"
  type: "BatchNorm"
  bottom: "Convolution16"
  top: "Convolution16"
  param {
    lr_mult: 0
    decay_mult: 0
  }
  param {
    lr_mult: 0
    decay_mult: 0
  }
  param {
    lr_mult: 0
    decay_mult: 0
  }
}
layer {
  name: "Scale16"
  type: "Scale"
  bottom: "Convolution16"
  top: "Convolution16"
  scale_param {
    bias_term: true
  }
}
layer {
  name: "elu14"
  type: "ELU"
  bottom: "Convolution16"
  top: "Convolution16"
  elu_param {
    alpha: 1
  }
}
layer {
  name: "Convolution17"
  type: "Convolution"
  bottom: "Convolution16"
  top: "Convolution17"
  param {
    lr_mult: 1
    decay_mult: 1
  }
  param {
    lr_mult: 2
    decay_mult: 0
  }
  convolution_param {
    num_output: 64
    pad: 1
    kernel_size: 3
    stride: 1
    weight_filler {
      type: "gaussian"
      std: 0.059
    }
    bias_filler {
      type: "constant"
      value: 0
    }
  }
}
layer {
  name: "BatchNorm17"
  type: "BatchNorm"
  bottom: "Convolution17"
  top: "Convolution17"
  param {
    lr_mult: 0
    decay_mult: 0
  }
  param {
    lr_mult: 0
    decay_mult: 0
  }
  param {
    lr_mult: 0
    decay_mult: 0
  }
}
layer {
  name: "Scale17"
  type: "Scale"
  bottom: "Convolution17"
  top: "Convolution17"
  scale_param {
    bias_term: true
  }
}
layer {
  name: "Eltwise7"
  type: "Eltwise"
  bottom: "Convolution15"
  bottom: "Convolution17"
  top: "Eltwise7"
  eltwise_param {
    operation: SUM
  }
}
layer {
  name: "elu15"
  type: "ELU"
  bottom: "Eltwise7"
  top: "Eltwise7"
  elu_param {
    alpha: 1
  }
}
layer {
  name: "Convolution18"
  type: "Convolution"
  bottom: "Eltwise7"
  top: "Convolution18"
  param {
    lr_mult: 1
    decay_mult: 1
  }
  param {
    lr_mult: 2
    decay_mult: 0
  }
  convolution_param {
    num_output: 64
    pad: 1
    kernel_size: 3
    stride: 1
    weight_filler {
      type: "gaussian"
      std: 0.059
    }
    bias_filler {
      type: "constant"
      value: 0
    }
  }
}
layer {
  name: "BatchNorm18"
  type: "BatchNorm"
  bottom: "Convolution18"
  top: "Convolution18"
  param {
    lr_mult: 0
    decay_mult: 0
  }
  param {
    lr_mult: 0
    decay_mult: 0
  }
  param {
    lr_mult: 0
    decay_mult: 0
  }
}
layer {
  name: "Scale18"
  type: "Scale"
  bottom: "Convolution18"
  top: "Convolution18"
  scale_param {
    bias_term: true
  }
}
layer {
  name: "elu16"
  type: "ELU"
  bottom: "Convolution18"
  top: "Convolution18"
  elu_param {
    alpha: 1
  }
}
layer {
  name: "Convolution19"
  type: "Convolution"
  bottom: "Convolution18"
  top: "Convolution19"
  param {
    lr_mult: 1
    decay_mult: 1
  }
  param {
    lr_mult: 2
    decay_mult: 0
  }
  convolution_param {
    num_output: 64
    pad: 1
    kernel_size: 3
    stride: 1
    weight_filler {
      type: "gaussian"
      std: 0.059
    }
    bias_filler {
      type: "constant"
      value: 0
    }
  }
}
layer {
  name: "BatchNorm19"
  type: "BatchNorm"
  bottom: "Convolution19"
  top: "Convolution19"
  param {
    lr_mult: 0
    decay_mult: 0
  }
  param {
    lr_mult: 0
    decay_mult: 0
  }
  param {
    lr_mult: 0
    decay_mult: 0
  }
}
layer {
  name: "Scale19"
  type: "Scale"
  bottom: "Convolution19"
  top: "Convolution19"
  scale_param {
    bias_term: true
  }
}
layer {
  name: "Eltwise8"
  type: "Eltwise"
  bottom: "Eltwise7"
  bottom: "Convolution19"
  top: "Eltwise8"
  eltwise_param {
    operation: SUM
  }
}
layer {
  name: "elu17"
  type: "ELU"
  bottom: "Eltwise8"
  top: "Eltwise8"
  elu_param {
    alpha: 1
  }
}
layer {
  name: "Convolution20"
  type: "Convolution"
  bottom: "Eltwise8"
  top: "Convolution20"
  param {
    lr_mult: 1
    decay_mult: 1
  }
  param {
    lr_mult: 2
    decay_mult: 0
  }
  convolution_param {
    num_output: 64
    pad: 1
    kernel_size: 3
    stride: 1
    weight_filler {
      type: "gaussian"
      std: 0.059
    }
    bias_filler {
      type: "constant"
      value: 0
    }
  }
}
layer {
  name: "BatchNorm20"
  type: "BatchNorm"
  bottom: "Convolution20"
  top: "Convolution20"
  param {
    lr_mult: 0
    decay_mult: 0
  }
  param {
    lr_mult: 0
    decay_mult: 0
  }
  param {
    lr_mult: 0
    decay_mult: 0
  }
}
layer {
  name: "Scale20"
  type: "Scale"
  bottom: "Convolution20"
  top: "Convolution20"
  scale_param {
    bias_term: true
  }
}
layer {
  name: "elu18"
  type: "ELU"
  bottom: "Convolution20"
  top: "Convolution20"
  elu_param {
    alpha: 1
  }
}
layer {
  name: "Convolution21"
  type: "Convolution"
  bottom: "Convolution20"
  top: "Convolution21"
  param {
    lr_mult: 1
    decay_mult: 1
  }
  param {
    lr_mult: 2
    decay_mult: 0
  }
  convolution_param {
    num_output: 64
    pad: 1
    kernel_size: 3
    stride: 1
    weight_filler {
      type: "gaussian"
      std: 0.059
    }
    bias_filler {
      type: "constant"
      value: 0
    }
  }
}
layer {
  name: "BatchNorm21"
  type: "BatchNorm"
  bottom: "Convolution21"
  top: "Convolution21"
  param {
    lr_mult: 0
    decay_mult: 0
  }
  param {
    lr_mult: 0
    decay_mult: 0
  }
  param {
    lr_mult: 0
    decay_mult: 0
  }
}
layer {
  name: "Scale21"
  type: "Scale"
  bottom: "Convolution21"
  top: "Convolution21"
  scale_param {
    bias_term: true
  }
}
layer {
  name: "Eltwise9"
  type: "Eltwise"
  bottom: "Eltwise8"
  bottom: "Convolution21"
  top: "Eltwise9"
  eltwise_param {
    operation: SUM
  }
}
layer {
  name: "elu19"
  type: "ELU"
  bottom: "Eltwise9"
  top: "Eltwise9"
  elu_param {
    alpha: 1
  }
}
layer {
  name: "Pooling1"
  type: "Pooling"
  bottom: "Eltwise9"
  top: "Pooling1"
  pooling_param {
    pool: AVE
    global_pooling: true
  }
}
layer {
  name: "InnerProduct1"
  type: "InnerProduct"
  bottom: "Pooling1"
  top: "InnerProduct1"
  param {
    lr_mult: 1
    decay_mult: 1
  }
  param {
    lr_mult: 2
    decay_mult: 1
  }
  inner_product_param {
    num_output: 10
    weight_filler {
      type: "gaussian"
      std: 0.01
    }
    bias_filler {
      type: "constant"
      value: 0
    }
  }
}
layer {
  name: "SoftmaxWithLoss1"
  type: "SoftmaxWithLoss"
  bottom: "InnerProduct1"
  bottom: "Data2"
  top: "SoftmaxWithLoss1"
}
layer {
  name: "Accuracy1"
  type: "Accuracy"
  bottom: "InnerProduct1"
  bottom: "Data2"
  top: "Accuracy1"
  include {
    phase: TEST
  }
}
I1005 17:13:36.888260  9762 layer_factory.hpp:77] Creating layer Data1
I1005 17:13:36.888298  9762 db_lmdb.cpp:35] Opened lmdb /home/x306/caffe/xn/PENLU/data/cifar10/cifar10_test_lmdb
I1005 17:13:36.888309  9762 net.cpp:84] Creating Layer Data1
I1005 17:13:36.888312  9762 net.cpp:380] Data1 -> Data1
I1005 17:13:36.888319  9762 net.cpp:380] Data1 -> Data2
I1005 17:13:36.888324  9762 data_transformer.cpp:25] Loading mean file from: /home/x306/caffe/xn/PENLU/data/cifar10/mean.binaryproto
I1005 17:13:36.888437  9762 data_layer.cpp:45] output data size: 100,3,32,32
I1005 17:13:36.892248  9762 net.cpp:122] Setting up Data1
I1005 17:13:36.892268  9762 net.cpp:129] Top shape: 100 3 32 32 (307200)
I1005 17:13:36.892272  9762 net.cpp:129] Top shape: 100 (100)
I1005 17:13:36.892276  9762 net.cpp:137] Memory required for data: 1229200
I1005 17:13:36.892279  9762 layer_factory.hpp:77] Creating layer Data2_Data1_1_split
I1005 17:13:36.892287  9762 net.cpp:84] Creating Layer Data2_Data1_1_split
I1005 17:13:36.892290  9762 net.cpp:406] Data2_Data1_1_split <- Data2
I1005 17:13:36.892297  9762 net.cpp:380] Data2_Data1_1_split -> Data2_Data1_1_split_0
I1005 17:13:36.892303  9762 net.cpp:380] Data2_Data1_1_split -> Data2_Data1_1_split_1
I1005 17:13:36.892341  9762 net.cpp:122] Setting up Data2_Data1_1_split
I1005 17:13:36.892345  9762 net.cpp:129] Top shape: 100 (100)
I1005 17:13:36.892349  9762 net.cpp:129] Top shape: 100 (100)
I1005 17:13:36.892350  9762 net.cpp:137] Memory required for data: 1230000
I1005 17:13:36.892354  9762 layer_factory.hpp:77] Creating layer Convolution1
I1005 17:13:36.892364  9762 net.cpp:84] Creating Layer Convolution1
I1005 17:13:36.892377  9762 net.cpp:406] Convolution1 <- Data1
I1005 17:13:36.892382  9762 net.cpp:380] Convolution1 -> Convolution1
I1005 17:13:36.893502  9762 net.cpp:122] Setting up Convolution1
I1005 17:13:36.893512  9762 net.cpp:129] Top shape: 100 16 32 32 (1638400)
I1005 17:13:36.893514  9762 net.cpp:137] Memory required for data: 7783600
I1005 17:13:36.893522  9762 layer_factory.hpp:77] Creating layer BatchNorm1
I1005 17:13:36.893530  9762 net.cpp:84] Creating Layer BatchNorm1
I1005 17:13:36.893533  9762 net.cpp:406] BatchNorm1 <- Convolution1
I1005 17:13:36.893537  9762 net.cpp:367] BatchNorm1 -> Convolution1 (in-place)
I1005 17:13:36.893672  9762 net.cpp:122] Setting up BatchNorm1
I1005 17:13:36.893677  9762 net.cpp:129] Top shape: 100 16 32 32 (1638400)
I1005 17:13:36.893681  9762 net.cpp:137] Memory required for data: 14337200
I1005 17:13:36.893687  9762 layer_factory.hpp:77] Creating layer Scale1
I1005 17:13:36.893692  9762 net.cpp:84] Creating Layer Scale1
I1005 17:13:36.893694  9762 net.cpp:406] Scale1 <- Convolution1
I1005 17:13:36.893697  9762 net.cpp:367] Scale1 -> Convolution1 (in-place)
I1005 17:13:36.893728  9762 layer_factory.hpp:77] Creating layer Scale1
I1005 17:13:36.893803  9762 net.cpp:122] Setting up Scale1
I1005 17:13:36.893807  9762 net.cpp:129] Top shape: 100 16 32 32 (1638400)
I1005 17:13:36.893811  9762 net.cpp:137] Memory required for data: 20890800
I1005 17:13:36.893815  9762 layer_factory.hpp:77] Creating layer elu1
I1005 17:13:36.893820  9762 net.cpp:84] Creating Layer elu1
I1005 17:13:36.893822  9762 net.cpp:406] elu1 <- Convolution1
I1005 17:13:36.893826  9762 net.cpp:367] elu1 -> Convolution1 (in-place)
I1005 17:13:36.893831  9762 net.cpp:122] Setting up elu1
I1005 17:13:36.893833  9762 net.cpp:129] Top shape: 100 16 32 32 (1638400)
I1005 17:13:36.893836  9762 net.cpp:137] Memory required for data: 27444400
I1005 17:13:36.893838  9762 layer_factory.hpp:77] Creating layer Convolution1_elu1_0_split
I1005 17:13:36.893841  9762 net.cpp:84] Creating Layer Convolution1_elu1_0_split
I1005 17:13:36.893843  9762 net.cpp:406] Convolution1_elu1_0_split <- Convolution1
I1005 17:13:36.893846  9762 net.cpp:380] Convolution1_elu1_0_split -> Convolution1_elu1_0_split_0
I1005 17:13:36.893851  9762 net.cpp:380] Convolution1_elu1_0_split -> Convolution1_elu1_0_split_1
I1005 17:13:36.893875  9762 net.cpp:122] Setting up Convolution1_elu1_0_split
I1005 17:13:36.893879  9762 net.cpp:129] Top shape: 100 16 32 32 (1638400)
I1005 17:13:36.893882  9762 net.cpp:129] Top shape: 100 16 32 32 (1638400)
I1005 17:13:36.893888  9762 net.cpp:137] Memory required for data: 40551600
I1005 17:13:36.893890  9762 layer_factory.hpp:77] Creating layer Convolution2
I1005 17:13:36.893898  9762 net.cpp:84] Creating Layer Convolution2
I1005 17:13:36.893899  9762 net.cpp:406] Convolution2 <- Convolution1_elu1_0_split_0
I1005 17:13:36.893903  9762 net.cpp:380] Convolution2 -> Convolution2
I1005 17:13:36.894474  9762 net.cpp:122] Setting up Convolution2
I1005 17:13:36.894481  9762 net.cpp:129] Top shape: 100 16 32 32 (1638400)
I1005 17:13:36.894484  9762 net.cpp:137] Memory required for data: 47105200
I1005 17:13:36.894490  9762 layer_factory.hpp:77] Creating layer BatchNorm2
I1005 17:13:36.894496  9762 net.cpp:84] Creating Layer BatchNorm2
I1005 17:13:36.894500  9762 net.cpp:406] BatchNorm2 <- Convolution2
I1005 17:13:36.894502  9762 net.cpp:367] BatchNorm2 -> Convolution2 (in-place)
I1005 17:13:36.894701  9762 net.cpp:122] Setting up BatchNorm2
I1005 17:13:36.894707  9762 net.cpp:129] Top shape: 100 16 32 32 (1638400)
I1005 17:13:36.894709  9762 net.cpp:137] Memory required for data: 53658800
I1005 17:13:36.894714  9762 layer_factory.hpp:77] Creating layer Scale2
I1005 17:13:36.894719  9762 net.cpp:84] Creating Layer Scale2
I1005 17:13:36.894722  9762 net.cpp:406] Scale2 <- Convolution2
I1005 17:13:36.894726  9762 net.cpp:367] Scale2 -> Convolution2 (in-place)
I1005 17:13:36.894754  9762 layer_factory.hpp:77] Creating layer Scale2
I1005 17:13:36.894842  9762 net.cpp:122] Setting up Scale2
I1005 17:13:36.894847  9762 net.cpp:129] Top shape: 100 16 32 32 (1638400)
I1005 17:13:36.894856  9762 net.cpp:137] Memory required for data: 60212400
I1005 17:13:36.894860  9762 layer_factory.hpp:77] Creating layer elu2
I1005 17:13:36.894865  9762 net.cpp:84] Creating Layer elu2
I1005 17:13:36.894867  9762 net.cpp:406] elu2 <- Convolution2
I1005 17:13:36.894871  9762 net.cpp:367] elu2 -> Convolution2 (in-place)
I1005 17:13:36.894876  9762 net.cpp:122] Setting up elu2
I1005 17:13:36.894878  9762 net.cpp:129] Top shape: 100 16 32 32 (1638400)
I1005 17:13:36.894881  9762 net.cpp:137] Memory required for data: 66766000
I1005 17:13:36.894882  9762 layer_factory.hpp:77] Creating layer Convolution3
I1005 17:13:36.894888  9762 net.cpp:84] Creating Layer Convolution3
I1005 17:13:36.894891  9762 net.cpp:406] Convolution3 <- Convolution2
I1005 17:13:36.894896  9762 net.cpp:380] Convolution3 -> Convolution3
I1005 17:13:36.895894  9762 net.cpp:122] Setting up Convolution3
I1005 17:13:36.895902  9762 net.cpp:129] Top shape: 100 16 32 32 (1638400)
I1005 17:13:36.895905  9762 net.cpp:137] Memory required for data: 73319600
I1005 17:13:36.895910  9762 layer_factory.hpp:77] Creating layer BatchNorm3
I1005 17:13:36.895915  9762 net.cpp:84] Creating Layer BatchNorm3
I1005 17:13:36.895917  9762 net.cpp:406] BatchNorm3 <- Convolution3
I1005 17:13:36.895921  9762 net.cpp:367] BatchNorm3 -> Convolution3 (in-place)
I1005 17:13:36.896059  9762 net.cpp:122] Setting up BatchNorm3
I1005 17:13:36.896064  9762 net.cpp:129] Top shape: 100 16 32 32 (1638400)
I1005 17:13:36.896066  9762 net.cpp:137] Memory required for data: 79873200
I1005 17:13:36.896073  9762 layer_factory.hpp:77] Creating layer Scale3
I1005 17:13:36.896077  9762 net.cpp:84] Creating Layer Scale3
I1005 17:13:36.896080  9762 net.cpp:406] Scale3 <- Convolution3
I1005 17:13:36.896083  9762 net.cpp:367] Scale3 -> Convolution3 (in-place)
I1005 17:13:36.896111  9762 layer_factory.hpp:77] Creating layer Scale3
I1005 17:13:36.896185  9762 net.cpp:122] Setting up Scale3
I1005 17:13:36.896189  9762 net.cpp:129] Top shape: 100 16 32 32 (1638400)
I1005 17:13:36.896191  9762 net.cpp:137] Memory required for data: 86426800
I1005 17:13:36.896195  9762 layer_factory.hpp:77] Creating layer Eltwise1
I1005 17:13:36.896203  9762 net.cpp:84] Creating Layer Eltwise1
I1005 17:13:36.896205  9762 net.cpp:406] Eltwise1 <- Convolution1_elu1_0_split_1
I1005 17:13:36.896208  9762 net.cpp:406] Eltwise1 <- Convolution3
I1005 17:13:36.896211  9762 net.cpp:380] Eltwise1 -> Eltwise1
I1005 17:13:36.896229  9762 net.cpp:122] Setting up Eltwise1
I1005 17:13:36.896231  9762 net.cpp:129] Top shape: 100 16 32 32 (1638400)
I1005 17:13:36.896234  9762 net.cpp:137] Memory required for data: 92980400
I1005 17:13:36.896235  9762 layer_factory.hpp:77] Creating layer elu3
I1005 17:13:36.896240  9762 net.cpp:84] Creating Layer elu3
I1005 17:13:36.896242  9762 net.cpp:406] elu3 <- Eltwise1
I1005 17:13:36.896246  9762 net.cpp:367] elu3 -> Eltwise1 (in-place)
I1005 17:13:36.896250  9762 net.cpp:122] Setting up elu3
I1005 17:13:36.896253  9762 net.cpp:129] Top shape: 100 16 32 32 (1638400)
I1005 17:13:36.896255  9762 net.cpp:137] Memory required for data: 99534000
I1005 17:13:36.896257  9762 layer_factory.hpp:77] Creating layer Eltwise1_elu3_0_split
I1005 17:13:36.896261  9762 net.cpp:84] Creating Layer Eltwise1_elu3_0_split
I1005 17:13:36.896263  9762 net.cpp:406] Eltwise1_elu3_0_split <- Eltwise1
I1005 17:13:36.896266  9762 net.cpp:380] Eltwise1_elu3_0_split -> Eltwise1_elu3_0_split_0
I1005 17:13:36.896270  9762 net.cpp:380] Eltwise1_elu3_0_split -> Eltwise1_elu3_0_split_1
I1005 17:13:36.896292  9762 net.cpp:122] Setting up Eltwise1_elu3_0_split
I1005 17:13:36.896296  9762 net.cpp:129] Top shape: 100 16 32 32 (1638400)
I1005 17:13:36.896298  9762 net.cpp:129] Top shape: 100 16 32 32 (1638400)
I1005 17:13:36.896301  9762 net.cpp:137] Memory required for data: 112641200
I1005 17:13:36.896303  9762 layer_factory.hpp:77] Creating layer Convolution4
I1005 17:13:36.896309  9762 net.cpp:84] Creating Layer Convolution4
I1005 17:13:36.896311  9762 net.cpp:406] Convolution4 <- Eltwise1_elu3_0_split_0
I1005 17:13:36.896323  9762 net.cpp:380] Convolution4 -> Convolution4
I1005 17:13:36.897327  9762 net.cpp:122] Setting up Convolution4
I1005 17:13:36.897336  9762 net.cpp:129] Top shape: 100 16 32 32 (1638400)
I1005 17:13:36.897339  9762 net.cpp:137] Memory required for data: 119194800
I1005 17:13:36.897343  9762 layer_factory.hpp:77] Creating layer BatchNorm4
I1005 17:13:36.897348  9762 net.cpp:84] Creating Layer BatchNorm4
I1005 17:13:36.897351  9762 net.cpp:406] BatchNorm4 <- Convolution4
I1005 17:13:36.897356  9762 net.cpp:367] BatchNorm4 -> Convolution4 (in-place)
I1005 17:13:36.897491  9762 net.cpp:122] Setting up BatchNorm4
I1005 17:13:36.897500  9762 net.cpp:129] Top shape: 100 16 32 32 (1638400)
I1005 17:13:36.897502  9762 net.cpp:137] Memory required for data: 125748400
I1005 17:13:36.897508  9762 layer_factory.hpp:77] Creating layer Scale4
I1005 17:13:36.897512  9762 net.cpp:84] Creating Layer Scale4
I1005 17:13:36.897516  9762 net.cpp:406] Scale4 <- Convolution4
I1005 17:13:36.897518  9762 net.cpp:367] Scale4 -> Convolution4 (in-place)
I1005 17:13:36.897547  9762 layer_factory.hpp:77] Creating layer Scale4
I1005 17:13:36.897624  9762 net.cpp:122] Setting up Scale4
I1005 17:13:36.897629  9762 net.cpp:129] Top shape: 100 16 32 32 (1638400)
I1005 17:13:36.897630  9762 net.cpp:137] Memory required for data: 132302000
I1005 17:13:36.897634  9762 layer_factory.hpp:77] Creating layer elu4
I1005 17:13:36.897639  9762 net.cpp:84] Creating Layer elu4
I1005 17:13:36.897641  9762 net.cpp:406] elu4 <- Convolution4
I1005 17:13:36.897644  9762 net.cpp:367] elu4 -> Convolution4 (in-place)
I1005 17:13:36.897649  9762 net.cpp:122] Setting up elu4
I1005 17:13:36.897651  9762 net.cpp:129] Top shape: 100 16 32 32 (1638400)
I1005 17:13:36.897653  9762 net.cpp:137] Memory required for data: 138855600
I1005 17:13:36.897655  9762 layer_factory.hpp:77] Creating layer Convolution5
I1005 17:13:36.897665  9762 net.cpp:84] Creating Layer Convolution5
I1005 17:13:36.897666  9762 net.cpp:406] Convolution5 <- Convolution4
I1005 17:13:36.897671  9762 net.cpp:380] Convolution5 -> Convolution5
I1005 17:13:36.899101  9762 net.cpp:122] Setting up Convolution5
I1005 17:13:36.899113  9762 net.cpp:129] Top shape: 100 16 32 32 (1638400)
I1005 17:13:36.899116  9762 net.cpp:137] Memory required for data: 145409200
I1005 17:13:36.899121  9762 layer_factory.hpp:77] Creating layer BatchNorm5
I1005 17:13:36.899127  9762 net.cpp:84] Creating Layer BatchNorm5
I1005 17:13:36.899129  9762 net.cpp:406] BatchNorm5 <- Convolution5
I1005 17:13:36.899133  9762 net.cpp:367] BatchNorm5 -> Convolution5 (in-place)
I1005 17:13:36.899291  9762 net.cpp:122] Setting up BatchNorm5
I1005 17:13:36.899296  9762 net.cpp:129] Top shape: 100 16 32 32 (1638400)
I1005 17:13:36.899298  9762 net.cpp:137] Memory required for data: 151962800
I1005 17:13:36.899307  9762 layer_factory.hpp:77] Creating layer Scale5
I1005 17:13:36.899312  9762 net.cpp:84] Creating Layer Scale5
I1005 17:13:36.899314  9762 net.cpp:406] Scale5 <- Convolution5
I1005 17:13:36.899317  9762 net.cpp:367] Scale5 -> Convolution5 (in-place)
I1005 17:13:36.899345  9762 layer_factory.hpp:77] Creating layer Scale5
I1005 17:13:36.899421  9762 net.cpp:122] Setting up Scale5
I1005 17:13:36.899425  9762 net.cpp:129] Top shape: 100 16 32 32 (1638400)
I1005 17:13:36.899427  9762 net.cpp:137] Memory required for data: 158516400
I1005 17:13:36.899431  9762 layer_factory.hpp:77] Creating layer Eltwise2
I1005 17:13:36.899435  9762 net.cpp:84] Creating Layer Eltwise2
I1005 17:13:36.899438  9762 net.cpp:406] Eltwise2 <- Eltwise1_elu3_0_split_1
I1005 17:13:36.899441  9762 net.cpp:406] Eltwise2 <- Convolution5
I1005 17:13:36.899444  9762 net.cpp:380] Eltwise2 -> Eltwise2
I1005 17:13:36.899459  9762 net.cpp:122] Setting up Eltwise2
I1005 17:13:36.899463  9762 net.cpp:129] Top shape: 100 16 32 32 (1638400)
I1005 17:13:36.899466  9762 net.cpp:137] Memory required for data: 165070000
I1005 17:13:36.899467  9762 layer_factory.hpp:77] Creating layer elu5
I1005 17:13:36.899471  9762 net.cpp:84] Creating Layer elu5
I1005 17:13:36.899473  9762 net.cpp:406] elu5 <- Eltwise2
I1005 17:13:36.899484  9762 net.cpp:367] elu5 -> Eltwise2 (in-place)
I1005 17:13:36.899488  9762 net.cpp:122] Setting up elu5
I1005 17:13:36.899492  9762 net.cpp:129] Top shape: 100 16 32 32 (1638400)
I1005 17:13:36.899494  9762 net.cpp:137] Memory required for data: 171623600
I1005 17:13:36.899497  9762 layer_factory.hpp:77] Creating layer Eltwise2_elu5_0_split
I1005 17:13:36.899499  9762 net.cpp:84] Creating Layer Eltwise2_elu5_0_split
I1005 17:13:36.899502  9762 net.cpp:406] Eltwise2_elu5_0_split <- Eltwise2
I1005 17:13:36.899504  9762 net.cpp:380] Eltwise2_elu5_0_split -> Eltwise2_elu5_0_split_0
I1005 17:13:36.899508  9762 net.cpp:380] Eltwise2_elu5_0_split -> Eltwise2_elu5_0_split_1
I1005 17:13:36.899533  9762 net.cpp:122] Setting up Eltwise2_elu5_0_split
I1005 17:13:36.899538  9762 net.cpp:129] Top shape: 100 16 32 32 (1638400)
I1005 17:13:36.899540  9762 net.cpp:129] Top shape: 100 16 32 32 (1638400)
I1005 17:13:36.899543  9762 net.cpp:137] Memory required for data: 184730800
I1005 17:13:36.899544  9762 layer_factory.hpp:77] Creating layer Convolution6
I1005 17:13:36.899551  9762 net.cpp:84] Creating Layer Convolution6
I1005 17:13:36.899554  9762 net.cpp:406] Convolution6 <- Eltwise2_elu5_0_split_0
I1005 17:13:36.899557  9762 net.cpp:380] Convolution6 -> Convolution6
I1005 17:13:36.900482  9762 net.cpp:122] Setting up Convolution6
I1005 17:13:36.900490  9762 net.cpp:129] Top shape: 100 16 32 32 (1638400)
I1005 17:13:36.900493  9762 net.cpp:137] Memory required for data: 191284400
I1005 17:13:36.900497  9762 layer_factory.hpp:77] Creating layer BatchNorm6
I1005 17:13:36.900502  9762 net.cpp:84] Creating Layer BatchNorm6
I1005 17:13:36.900504  9762 net.cpp:406] BatchNorm6 <- Convolution6
I1005 17:13:36.900509  9762 net.cpp:367] BatchNorm6 -> Convolution6 (in-place)
I1005 17:13:36.900645  9762 net.cpp:122] Setting up BatchNorm6
I1005 17:13:36.900650  9762 net.cpp:129] Top shape: 100 16 32 32 (1638400)
I1005 17:13:36.900651  9762 net.cpp:137] Memory required for data: 197838000
I1005 17:13:36.900655  9762 layer_factory.hpp:77] Creating layer Scale6
I1005 17:13:36.900660  9762 net.cpp:84] Creating Layer Scale6
I1005 17:13:36.900662  9762 net.cpp:406] Scale6 <- Convolution6
I1005 17:13:36.900665  9762 net.cpp:367] Scale6 -> Convolution6 (in-place)
I1005 17:13:36.900692  9762 layer_factory.hpp:77] Creating layer Scale6
I1005 17:13:36.900766  9762 net.cpp:122] Setting up Scale6
I1005 17:13:36.900770  9762 net.cpp:129] Top shape: 100 16 32 32 (1638400)
I1005 17:13:36.900773  9762 net.cpp:137] Memory required for data: 204391600
I1005 17:13:36.900776  9762 layer_factory.hpp:77] Creating layer elu6
I1005 17:13:36.900780  9762 net.cpp:84] Creating Layer elu6
I1005 17:13:36.900782  9762 net.cpp:406] elu6 <- Convolution6
I1005 17:13:36.900785  9762 net.cpp:367] elu6 -> Convolution6 (in-place)
I1005 17:13:36.900789  9762 net.cpp:122] Setting up elu6
I1005 17:13:36.900792  9762 net.cpp:129] Top shape: 100 16 32 32 (1638400)
I1005 17:13:36.900794  9762 net.cpp:137] Memory required for data: 210945200
I1005 17:13:36.900796  9762 layer_factory.hpp:77] Creating layer Convolution7
I1005 17:13:36.900802  9762 net.cpp:84] Creating Layer Convolution7
I1005 17:13:36.900804  9762 net.cpp:406] Convolution7 <- Convolution6
I1005 17:13:36.900810  9762 net.cpp:380] Convolution7 -> Convolution7
I1005 17:13:36.901720  9762 net.cpp:122] Setting up Convolution7
I1005 17:13:36.901728  9762 net.cpp:129] Top shape: 100 16 32 32 (1638400)
I1005 17:13:36.901731  9762 net.cpp:137] Memory required for data: 217498800
I1005 17:13:36.901736  9762 layer_factory.hpp:77] Creating layer BatchNorm7
I1005 17:13:36.901742  9762 net.cpp:84] Creating Layer BatchNorm7
I1005 17:13:36.901746  9762 net.cpp:406] BatchNorm7 <- Convolution7
I1005 17:13:36.901749  9762 net.cpp:367] BatchNorm7 -> Convolution7 (in-place)
I1005 17:13:36.901885  9762 net.cpp:122] Setting up BatchNorm7
I1005 17:13:36.901888  9762 net.cpp:129] Top shape: 100 16 32 32 (1638400)
I1005 17:13:36.901890  9762 net.cpp:137] Memory required for data: 224052400
I1005 17:13:36.901901  9762 layer_factory.hpp:77] Creating layer Scale7
I1005 17:13:36.901906  9762 net.cpp:84] Creating Layer Scale7
I1005 17:13:36.901908  9762 net.cpp:406] Scale7 <- Convolution7
I1005 17:13:36.901912  9762 net.cpp:367] Scale7 -> Convolution7 (in-place)
I1005 17:13:36.901939  9762 layer_factory.hpp:77] Creating layer Scale7
I1005 17:13:36.902015  9762 net.cpp:122] Setting up Scale7
I1005 17:13:36.902021  9762 net.cpp:129] Top shape: 100 16 32 32 (1638400)
I1005 17:13:36.902024  9762 net.cpp:137] Memory required for data: 230606000
I1005 17:13:36.902027  9762 layer_factory.hpp:77] Creating layer Eltwise3
I1005 17:13:36.902030  9762 net.cpp:84] Creating Layer Eltwise3
I1005 17:13:36.902034  9762 net.cpp:406] Eltwise3 <- Eltwise2_elu5_0_split_1
I1005 17:13:36.902036  9762 net.cpp:406] Eltwise3 <- Convolution7
I1005 17:13:36.902040  9762 net.cpp:380] Eltwise3 -> Eltwise3
I1005 17:13:36.902055  9762 net.cpp:122] Setting up Eltwise3
I1005 17:13:36.902058  9762 net.cpp:129] Top shape: 100 16 32 32 (1638400)
I1005 17:13:36.902060  9762 net.cpp:137] Memory required for data: 237159600
I1005 17:13:36.902062  9762 layer_factory.hpp:77] Creating layer elu7
I1005 17:13:36.902066  9762 net.cpp:84] Creating Layer elu7
I1005 17:13:36.902068  9762 net.cpp:406] elu7 <- Eltwise3
I1005 17:13:36.902072  9762 net.cpp:367] elu7 -> Eltwise3 (in-place)
I1005 17:13:36.902076  9762 net.cpp:122] Setting up elu7
I1005 17:13:36.902078  9762 net.cpp:129] Top shape: 100 16 32 32 (1638400)
I1005 17:13:36.902081  9762 net.cpp:137] Memory required for data: 243713200
I1005 17:13:36.902082  9762 layer_factory.hpp:77] Creating layer Eltwise3_elu7_0_split
I1005 17:13:36.902086  9762 net.cpp:84] Creating Layer Eltwise3_elu7_0_split
I1005 17:13:36.902087  9762 net.cpp:406] Eltwise3_elu7_0_split <- Eltwise3
I1005 17:13:36.902091  9762 net.cpp:380] Eltwise3_elu7_0_split -> Eltwise3_elu7_0_split_0
I1005 17:13:36.902094  9762 net.cpp:380] Eltwise3_elu7_0_split -> Eltwise3_elu7_0_split_1
I1005 17:13:36.902117  9762 net.cpp:122] Setting up Eltwise3_elu7_0_split
I1005 17:13:36.902120  9762 net.cpp:129] Top shape: 100 16 32 32 (1638400)
I1005 17:13:36.902123  9762 net.cpp:129] Top shape: 100 16 32 32 (1638400)
I1005 17:13:36.902125  9762 net.cpp:137] Memory required for data: 256820400
I1005 17:13:36.902127  9762 layer_factory.hpp:77] Creating layer Convolution8
I1005 17:13:36.902133  9762 net.cpp:84] Creating Layer Convolution8
I1005 17:13:36.902137  9762 net.cpp:406] Convolution8 <- Eltwise3_elu7_0_split_0
I1005 17:13:36.902140  9762 net.cpp:380] Convolution8 -> Convolution8
I1005 17:13:36.903049  9762 net.cpp:122] Setting up Convolution8
I1005 17:13:36.903059  9762 net.cpp:129] Top shape: 100 32 16 16 (819200)
I1005 17:13:36.903061  9762 net.cpp:137] Memory required for data: 260097200
I1005 17:13:36.903065  9762 layer_factory.hpp:77] Creating layer BatchNorm8
I1005 17:13:36.903070  9762 net.cpp:84] Creating Layer BatchNorm8
I1005 17:13:36.903074  9762 net.cpp:406] BatchNorm8 <- Convolution8
I1005 17:13:36.903077  9762 net.cpp:367] BatchNorm8 -> Convolution8 (in-place)
I1005 17:13:36.903204  9762 net.cpp:122] Setting up BatchNorm8
I1005 17:13:36.903208  9762 net.cpp:129] Top shape: 100 32 16 16 (819200)
I1005 17:13:36.903210  9762 net.cpp:137] Memory required for data: 263374000
I1005 17:13:36.903214  9762 layer_factory.hpp:77] Creating layer Scale8
I1005 17:13:36.903219  9762 net.cpp:84] Creating Layer Scale8
I1005 17:13:36.903221  9762 net.cpp:406] Scale8 <- Convolution8
I1005 17:13:36.903224  9762 net.cpp:367] Scale8 -> Convolution8 (in-place)
I1005 17:13:36.903250  9762 layer_factory.hpp:77] Creating layer Scale8
I1005 17:13:36.903324  9762 net.cpp:122] Setting up Scale8
I1005 17:13:36.903328  9762 net.cpp:129] Top shape: 100 32 16 16 (819200)
I1005 17:13:36.903331  9762 net.cpp:137] Memory required for data: 266650800
I1005 17:13:36.903333  9762 layer_factory.hpp:77] Creating layer Convolution9
I1005 17:13:36.903340  9762 net.cpp:84] Creating Layer Convolution9
I1005 17:13:36.903342  9762 net.cpp:406] Convolution9 <- Eltwise3_elu7_0_split_1
I1005 17:13:36.903353  9762 net.cpp:380] Convolution9 -> Convolution9
I1005 17:13:36.904307  9762 net.cpp:122] Setting up Convolution9
I1005 17:13:36.904315  9762 net.cpp:129] Top shape: 100 32 16 16 (819200)
I1005 17:13:36.904319  9762 net.cpp:137] Memory required for data: 269927600
I1005 17:13:36.904322  9762 layer_factory.hpp:77] Creating layer BatchNorm9
I1005 17:13:36.904327  9762 net.cpp:84] Creating Layer BatchNorm9
I1005 17:13:36.904330  9762 net.cpp:406] BatchNorm9 <- Convolution9
I1005 17:13:36.904333  9762 net.cpp:367] BatchNorm9 -> Convolution9 (in-place)
I1005 17:13:36.904464  9762 net.cpp:122] Setting up BatchNorm9
I1005 17:13:36.904467  9762 net.cpp:129] Top shape: 100 32 16 16 (819200)
I1005 17:13:36.904469  9762 net.cpp:137] Memory required for data: 273204400
I1005 17:13:36.904474  9762 layer_factory.hpp:77] Creating layer Scale9
I1005 17:13:36.904479  9762 net.cpp:84] Creating Layer Scale9
I1005 17:13:36.904480  9762 net.cpp:406] Scale9 <- Convolution9
I1005 17:13:36.904484  9762 net.cpp:367] Scale9 -> Convolution9 (in-place)
I1005 17:13:36.904510  9762 layer_factory.hpp:77] Creating layer Scale9
I1005 17:13:36.904582  9762 net.cpp:122] Setting up Scale9
I1005 17:13:36.904587  9762 net.cpp:129] Top shape: 100 32 16 16 (819200)
I1005 17:13:36.904588  9762 net.cpp:137] Memory required for data: 276481200
I1005 17:13:36.904592  9762 layer_factory.hpp:77] Creating layer elu8
I1005 17:13:36.904597  9762 net.cpp:84] Creating Layer elu8
I1005 17:13:36.904598  9762 net.cpp:406] elu8 <- Convolution9
I1005 17:13:36.904602  9762 net.cpp:367] elu8 -> Convolution9 (in-place)
I1005 17:13:36.904604  9762 net.cpp:122] Setting up elu8
I1005 17:13:36.904608  9762 net.cpp:129] Top shape: 100 32 16 16 (819200)
I1005 17:13:36.904609  9762 net.cpp:137] Memory required for data: 279758000
I1005 17:13:36.904611  9762 layer_factory.hpp:77] Creating layer Convolution10
I1005 17:13:36.904618  9762 net.cpp:84] Creating Layer Convolution10
I1005 17:13:36.904620  9762 net.cpp:406] Convolution10 <- Convolution9
I1005 17:13:36.904624  9762 net.cpp:380] Convolution10 -> Convolution10
I1005 17:13:36.905664  9762 net.cpp:122] Setting up Convolution10
I1005 17:13:36.905673  9762 net.cpp:129] Top shape: 100 32 16 16 (819200)
I1005 17:13:36.905675  9762 net.cpp:137] Memory required for data: 283034800
I1005 17:13:36.905685  9762 layer_factory.hpp:77] Creating layer BatchNorm10
I1005 17:13:36.905690  9762 net.cpp:84] Creating Layer BatchNorm10
I1005 17:13:36.905692  9762 net.cpp:406] BatchNorm10 <- Convolution10
I1005 17:13:36.905696  9762 net.cpp:367] BatchNorm10 -> Convolution10 (in-place)
I1005 17:13:36.905827  9762 net.cpp:122] Setting up BatchNorm10
I1005 17:13:36.905833  9762 net.cpp:129] Top shape: 100 32 16 16 (819200)
I1005 17:13:36.905834  9762 net.cpp:137] Memory required for data: 286311600
I1005 17:13:36.905839  9762 layer_factory.hpp:77] Creating layer Scale10
I1005 17:13:36.905843  9762 net.cpp:84] Creating Layer Scale10
I1005 17:13:36.905845  9762 net.cpp:406] Scale10 <- Convolution10
I1005 17:13:36.905848  9762 net.cpp:367] Scale10 -> Convolution10 (in-place)
I1005 17:13:36.905875  9762 layer_factory.hpp:77] Creating layer Scale10
I1005 17:13:36.905951  9762 net.cpp:122] Setting up Scale10
I1005 17:13:36.905956  9762 net.cpp:129] Top shape: 100 32 16 16 (819200)
I1005 17:13:36.905957  9762 net.cpp:137] Memory required for data: 289588400
I1005 17:13:36.905961  9762 layer_factory.hpp:77] Creating layer Eltwise4
I1005 17:13:36.905964  9762 net.cpp:84] Creating Layer Eltwise4
I1005 17:13:36.905966  9762 net.cpp:406] Eltwise4 <- Convolution8
I1005 17:13:36.905969  9762 net.cpp:406] Eltwise4 <- Convolution10
I1005 17:13:36.905972  9762 net.cpp:380] Eltwise4 -> Eltwise4
I1005 17:13:36.905985  9762 net.cpp:122] Setting up Eltwise4
I1005 17:13:36.905988  9762 net.cpp:129] Top shape: 100 32 16 16 (819200)
I1005 17:13:36.905990  9762 net.cpp:137] Memory required for data: 292865200
I1005 17:13:36.905992  9762 layer_factory.hpp:77] Creating layer elu9
I1005 17:13:36.905997  9762 net.cpp:84] Creating Layer elu9
I1005 17:13:36.905998  9762 net.cpp:406] elu9 <- Eltwise4
I1005 17:13:36.906008  9762 net.cpp:367] elu9 -> Eltwise4 (in-place)
I1005 17:13:36.906013  9762 net.cpp:122] Setting up elu9
I1005 17:13:36.906015  9762 net.cpp:129] Top shape: 100 32 16 16 (819200)
I1005 17:13:36.906018  9762 net.cpp:137] Memory required for data: 296142000
I1005 17:13:36.906020  9762 layer_factory.hpp:77] Creating layer Eltwise4_elu9_0_split
I1005 17:13:36.906023  9762 net.cpp:84] Creating Layer Eltwise4_elu9_0_split
I1005 17:13:36.906025  9762 net.cpp:406] Eltwise4_elu9_0_split <- Eltwise4
I1005 17:13:36.906028  9762 net.cpp:380] Eltwise4_elu9_0_split -> Eltwise4_elu9_0_split_0
I1005 17:13:36.906031  9762 net.cpp:380] Eltwise4_elu9_0_split -> Eltwise4_elu9_0_split_1
I1005 17:13:36.906055  9762 net.cpp:122] Setting up Eltwise4_elu9_0_split
I1005 17:13:36.906059  9762 net.cpp:129] Top shape: 100 32 16 16 (819200)
I1005 17:13:36.906061  9762 net.cpp:129] Top shape: 100 32 16 16 (819200)
I1005 17:13:36.906064  9762 net.cpp:137] Memory required for data: 302695600
I1005 17:13:36.906065  9762 layer_factory.hpp:77] Creating layer Convolution11
I1005 17:13:36.906072  9762 net.cpp:84] Creating Layer Convolution11
I1005 17:13:36.906075  9762 net.cpp:406] Convolution11 <- Eltwise4_elu9_0_split_0
I1005 17:13:36.906078  9762 net.cpp:380] Convolution11 -> Convolution11
I1005 17:13:36.907157  9762 net.cpp:122] Setting up Convolution11
I1005 17:13:36.907166  9762 net.cpp:129] Top shape: 100 32 16 16 (819200)
I1005 17:13:36.907168  9762 net.cpp:137] Memory required for data: 305972400
I1005 17:13:36.907173  9762 layer_factory.hpp:77] Creating layer BatchNorm11
I1005 17:13:36.907177  9762 net.cpp:84] Creating Layer BatchNorm11
I1005 17:13:36.907181  9762 net.cpp:406] BatchNorm11 <- Convolution11
I1005 17:13:36.907184  9762 net.cpp:367] BatchNorm11 -> Convolution11 (in-place)
I1005 17:13:36.907315  9762 net.cpp:122] Setting up BatchNorm11
I1005 17:13:36.907320  9762 net.cpp:129] Top shape: 100 32 16 16 (819200)
I1005 17:13:36.907321  9762 net.cpp:137] Memory required for data: 309249200
I1005 17:13:36.907325  9762 layer_factory.hpp:77] Creating layer Scale11
I1005 17:13:36.907330  9762 net.cpp:84] Creating Layer Scale11
I1005 17:13:36.907331  9762 net.cpp:406] Scale11 <- Convolution11
I1005 17:13:36.910622  9762 net.cpp:367] Scale11 -> Convolution11 (in-place)
I1005 17:13:36.910670  9762 layer_factory.hpp:77] Creating layer Scale11
I1005 17:13:36.910758  9762 net.cpp:122] Setting up Scale11
I1005 17:13:36.910763  9762 net.cpp:129] Top shape: 100 32 16 16 (819200)
I1005 17:13:36.910766  9762 net.cpp:137] Memory required for data: 312526000
I1005 17:13:36.910770  9762 layer_factory.hpp:77] Creating layer elu10
I1005 17:13:36.910774  9762 net.cpp:84] Creating Layer elu10
I1005 17:13:36.910778  9762 net.cpp:406] elu10 <- Convolution11
I1005 17:13:36.910781  9762 net.cpp:367] elu10 -> Convolution11 (in-place)
I1005 17:13:36.910785  9762 net.cpp:122] Setting up elu10
I1005 17:13:36.910789  9762 net.cpp:129] Top shape: 100 32 16 16 (819200)
I1005 17:13:36.910791  9762 net.cpp:137] Memory required for data: 315802800
I1005 17:13:36.910794  9762 layer_factory.hpp:77] Creating layer Convolution12
I1005 17:13:36.910801  9762 net.cpp:84] Creating Layer Convolution12
I1005 17:13:36.910804  9762 net.cpp:406] Convolution12 <- Convolution11
I1005 17:13:36.910807  9762 net.cpp:380] Convolution12 -> Convolution12
I1005 17:13:36.911603  9762 net.cpp:122] Setting up Convolution12
I1005 17:13:36.911612  9762 net.cpp:129] Top shape: 100 32 16 16 (819200)
I1005 17:13:36.911614  9762 net.cpp:137] Memory required for data: 319079600
I1005 17:13:36.911619  9762 layer_factory.hpp:77] Creating layer BatchNorm12
I1005 17:13:36.911625  9762 net.cpp:84] Creating Layer BatchNorm12
I1005 17:13:36.911628  9762 net.cpp:406] BatchNorm12 <- Convolution12
I1005 17:13:36.911633  9762 net.cpp:367] BatchNorm12 -> Convolution12 (in-place)
I1005 17:13:36.911780  9762 net.cpp:122] Setting up BatchNorm12
I1005 17:13:36.911784  9762 net.cpp:129] Top shape: 100 32 16 16 (819200)
I1005 17:13:36.911787  9762 net.cpp:137] Memory required for data: 322356400
I1005 17:13:36.911799  9762 layer_factory.hpp:77] Creating layer Scale12
I1005 17:13:36.911803  9762 net.cpp:84] Creating Layer Scale12
I1005 17:13:36.911805  9762 net.cpp:406] Scale12 <- Convolution12
I1005 17:13:36.911810  9762 net.cpp:367] Scale12 -> Convolution12 (in-place)
I1005 17:13:36.911839  9762 layer_factory.hpp:77] Creating layer Scale12
I1005 17:13:36.911931  9762 net.cpp:122] Setting up Scale12
I1005 17:13:36.911938  9762 net.cpp:129] Top shape: 100 32 16 16 (819200)
I1005 17:13:36.911940  9762 net.cpp:137] Memory required for data: 325633200
I1005 17:13:36.911944  9762 layer_factory.hpp:77] Creating layer Eltwise5
I1005 17:13:36.911948  9762 net.cpp:84] Creating Layer Eltwise5
I1005 17:13:36.911952  9762 net.cpp:406] Eltwise5 <- Eltwise4_elu9_0_split_1
I1005 17:13:36.911954  9762 net.cpp:406] Eltwise5 <- Convolution12
I1005 17:13:36.911957  9762 net.cpp:380] Eltwise5 -> Eltwise5
I1005 17:13:36.911973  9762 net.cpp:122] Setting up Eltwise5
I1005 17:13:36.911978  9762 net.cpp:129] Top shape: 100 32 16 16 (819200)
I1005 17:13:36.911979  9762 net.cpp:137] Memory required for data: 328910000
I1005 17:13:36.911981  9762 layer_factory.hpp:77] Creating layer elu11
I1005 17:13:36.911985  9762 net.cpp:84] Creating Layer elu11
I1005 17:13:36.911988  9762 net.cpp:406] elu11 <- Eltwise5
I1005 17:13:36.911991  9762 net.cpp:367] elu11 -> Eltwise5 (in-place)
I1005 17:13:36.911994  9762 net.cpp:122] Setting up elu11
I1005 17:13:36.911998  9762 net.cpp:129] Top shape: 100 32 16 16 (819200)
I1005 17:13:36.911999  9762 net.cpp:137] Memory required for data: 332186800
I1005 17:13:36.912003  9762 layer_factory.hpp:77] Creating layer Eltwise5_elu11_0_split
I1005 17:13:36.912005  9762 net.cpp:84] Creating Layer Eltwise5_elu11_0_split
I1005 17:13:36.912008  9762 net.cpp:406] Eltwise5_elu11_0_split <- Eltwise5
I1005 17:13:36.912010  9762 net.cpp:380] Eltwise5_elu11_0_split -> Eltwise5_elu11_0_split_0
I1005 17:13:36.912014  9762 net.cpp:380] Eltwise5_elu11_0_split -> Eltwise5_elu11_0_split_1
I1005 17:13:36.912039  9762 net.cpp:122] Setting up Eltwise5_elu11_0_split
I1005 17:13:36.912044  9762 net.cpp:129] Top shape: 100 32 16 16 (819200)
I1005 17:13:36.912046  9762 net.cpp:129] Top shape: 100 32 16 16 (819200)
I1005 17:13:36.912050  9762 net.cpp:137] Memory required for data: 338740400
I1005 17:13:36.912051  9762 layer_factory.hpp:77] Creating layer Convolution13
I1005 17:13:36.912058  9762 net.cpp:84] Creating Layer Convolution13
I1005 17:13:36.912060  9762 net.cpp:406] Convolution13 <- Eltwise5_elu11_0_split_0
I1005 17:13:36.912065  9762 net.cpp:380] Convolution13 -> Convolution13
I1005 17:13:36.913235  9762 net.cpp:122] Setting up Convolution13
I1005 17:13:36.913245  9762 net.cpp:129] Top shape: 100 32 16 16 (819200)
I1005 17:13:36.913249  9762 net.cpp:137] Memory required for data: 342017200
I1005 17:13:36.913252  9762 layer_factory.hpp:77] Creating layer BatchNorm13
I1005 17:13:36.913259  9762 net.cpp:84] Creating Layer BatchNorm13
I1005 17:13:36.913260  9762 net.cpp:406] BatchNorm13 <- Convolution13
I1005 17:13:36.913264  9762 net.cpp:367] BatchNorm13 -> Convolution13 (in-place)
I1005 17:13:36.913394  9762 net.cpp:122] Setting up BatchNorm13
I1005 17:13:36.913398  9762 net.cpp:129] Top shape: 100 32 16 16 (819200)
I1005 17:13:36.913400  9762 net.cpp:137] Memory required for data: 345294000
I1005 17:13:36.913405  9762 layer_factory.hpp:77] Creating layer Scale13
I1005 17:13:36.913409  9762 net.cpp:84] Creating Layer Scale13
I1005 17:13:36.913413  9762 net.cpp:406] Scale13 <- Convolution13
I1005 17:13:36.913415  9762 net.cpp:367] Scale13 -> Convolution13 (in-place)
I1005 17:13:36.913441  9762 layer_factory.hpp:77] Creating layer Scale13
I1005 17:13:36.913519  9762 net.cpp:122] Setting up Scale13
I1005 17:13:36.913523  9762 net.cpp:129] Top shape: 100 32 16 16 (819200)
I1005 17:13:36.913525  9762 net.cpp:137] Memory required for data: 348570800
I1005 17:13:36.913528  9762 layer_factory.hpp:77] Creating layer elu12
I1005 17:13:36.913532  9762 net.cpp:84] Creating Layer elu12
I1005 17:13:36.913534  9762 net.cpp:406] elu12 <- Convolution13
I1005 17:13:36.913544  9762 net.cpp:367] elu12 -> Convolution13 (in-place)
I1005 17:13:36.913549  9762 net.cpp:122] Setting up elu12
I1005 17:13:36.913552  9762 net.cpp:129] Top shape: 100 32 16 16 (819200)
I1005 17:13:36.913554  9762 net.cpp:137] Memory required for data: 351847600
I1005 17:13:36.913556  9762 layer_factory.hpp:77] Creating layer Convolution14
I1005 17:13:36.913566  9762 net.cpp:84] Creating Layer Convolution14
I1005 17:13:36.913568  9762 net.cpp:406] Convolution14 <- Convolution13
I1005 17:13:36.913573  9762 net.cpp:380] Convolution14 -> Convolution14
I1005 17:13:36.914868  9762 net.cpp:122] Setting up Convolution14
I1005 17:13:36.914878  9762 net.cpp:129] Top shape: 100 32 16 16 (819200)
I1005 17:13:36.914880  9762 net.cpp:137] Memory required for data: 355124400
I1005 17:13:36.914885  9762 layer_factory.hpp:77] Creating layer BatchNorm14
I1005 17:13:36.914891  9762 net.cpp:84] Creating Layer BatchNorm14
I1005 17:13:36.914893  9762 net.cpp:406] BatchNorm14 <- Convolution14
I1005 17:13:36.914897  9762 net.cpp:367] BatchNorm14 -> Convolution14 (in-place)
I1005 17:13:36.915030  9762 net.cpp:122] Setting up BatchNorm14
I1005 17:13:36.915035  9762 net.cpp:129] Top shape: 100 32 16 16 (819200)
I1005 17:13:36.915036  9762 net.cpp:137] Memory required for data: 358401200
I1005 17:13:36.915041  9762 layer_factory.hpp:77] Creating layer Scale14
I1005 17:13:36.915045  9762 net.cpp:84] Creating Layer Scale14
I1005 17:13:36.915048  9762 net.cpp:406] Scale14 <- Convolution14
I1005 17:13:36.915051  9762 net.cpp:367] Scale14 -> Convolution14 (in-place)
I1005 17:13:36.915078  9762 layer_factory.hpp:77] Creating layer Scale14
I1005 17:13:36.915154  9762 net.cpp:122] Setting up Scale14
I1005 17:13:36.915158  9762 net.cpp:129] Top shape: 100 32 16 16 (819200)
I1005 17:13:36.915160  9762 net.cpp:137] Memory required for data: 361678000
I1005 17:13:36.915164  9762 layer_factory.hpp:77] Creating layer Eltwise6
I1005 17:13:36.915169  9762 net.cpp:84] Creating Layer Eltwise6
I1005 17:13:36.915171  9762 net.cpp:406] Eltwise6 <- Eltwise5_elu11_0_split_1
I1005 17:13:36.915174  9762 net.cpp:406] Eltwise6 <- Convolution14
I1005 17:13:36.915177  9762 net.cpp:380] Eltwise6 -> Eltwise6
I1005 17:13:36.915190  9762 net.cpp:122] Setting up Eltwise6
I1005 17:13:36.915194  9762 net.cpp:129] Top shape: 100 32 16 16 (819200)
I1005 17:13:36.915196  9762 net.cpp:137] Memory required for data: 364954800
I1005 17:13:36.915199  9762 layer_factory.hpp:77] Creating layer elu13
I1005 17:13:36.915202  9762 net.cpp:84] Creating Layer elu13
I1005 17:13:36.915205  9762 net.cpp:406] elu13 <- Eltwise6
I1005 17:13:36.915207  9762 net.cpp:367] elu13 -> Eltwise6 (in-place)
I1005 17:13:36.915211  9762 net.cpp:122] Setting up elu13
I1005 17:13:36.915215  9762 net.cpp:129] Top shape: 100 32 16 16 (819200)
I1005 17:13:36.915216  9762 net.cpp:137] Memory required for data: 368231600
I1005 17:13:36.915218  9762 layer_factory.hpp:77] Creating layer Eltwise6_elu13_0_split
I1005 17:13:36.915221  9762 net.cpp:84] Creating Layer Eltwise6_elu13_0_split
I1005 17:13:36.915223  9762 net.cpp:406] Eltwise6_elu13_0_split <- Eltwise6
I1005 17:13:36.915226  9762 net.cpp:380] Eltwise6_elu13_0_split -> Eltwise6_elu13_0_split_0
I1005 17:13:36.915230  9762 net.cpp:380] Eltwise6_elu13_0_split -> Eltwise6_elu13_0_split_1
I1005 17:13:36.915252  9762 net.cpp:122] Setting up Eltwise6_elu13_0_split
I1005 17:13:36.915256  9762 net.cpp:129] Top shape: 100 32 16 16 (819200)
I1005 17:13:36.915258  9762 net.cpp:129] Top shape: 100 32 16 16 (819200)
I1005 17:13:36.915261  9762 net.cpp:137] Memory required for data: 374785200
I1005 17:13:36.915262  9762 layer_factory.hpp:77] Creating layer Convolution15
I1005 17:13:36.915268  9762 net.cpp:84] Creating Layer Convolution15
I1005 17:13:36.915271  9762 net.cpp:406] Convolution15 <- Eltwise6_elu13_0_split_0
I1005 17:13:36.915276  9762 net.cpp:380] Convolution15 -> Convolution15
I1005 17:13:36.916182  9762 net.cpp:122] Setting up Convolution15
I1005 17:13:36.916191  9762 net.cpp:129] Top shape: 100 64 8 8 (409600)
I1005 17:13:36.916201  9762 net.cpp:137] Memory required for data: 376423600
I1005 17:13:36.916205  9762 layer_factory.hpp:77] Creating layer BatchNorm15
I1005 17:13:36.916210  9762 net.cpp:84] Creating Layer BatchNorm15
I1005 17:13:36.916213  9762 net.cpp:406] BatchNorm15 <- Convolution15
I1005 17:13:36.916218  9762 net.cpp:367] BatchNorm15 -> Convolution15 (in-place)
I1005 17:13:36.916354  9762 net.cpp:122] Setting up BatchNorm15
I1005 17:13:36.916358  9762 net.cpp:129] Top shape: 100 64 8 8 (409600)
I1005 17:13:36.916360  9762 net.cpp:137] Memory required for data: 378062000
I1005 17:13:36.916365  9762 layer_factory.hpp:77] Creating layer Scale15
I1005 17:13:36.916369  9762 net.cpp:84] Creating Layer Scale15
I1005 17:13:36.916371  9762 net.cpp:406] Scale15 <- Convolution15
I1005 17:13:36.916374  9762 net.cpp:367] Scale15 -> Convolution15 (in-place)
I1005 17:13:36.916400  9762 layer_factory.hpp:77] Creating layer Scale15
I1005 17:13:36.916477  9762 net.cpp:122] Setting up Scale15
I1005 17:13:36.916481  9762 net.cpp:129] Top shape: 100 64 8 8 (409600)
I1005 17:13:36.916483  9762 net.cpp:137] Memory required for data: 379700400
I1005 17:13:36.916487  9762 layer_factory.hpp:77] Creating layer Convolution16
I1005 17:13:36.916493  9762 net.cpp:84] Creating Layer Convolution16
I1005 17:13:36.916496  9762 net.cpp:406] Convolution16 <- Eltwise6_elu13_0_split_1
I1005 17:13:36.916501  9762 net.cpp:380] Convolution16 -> Convolution16
I1005 17:13:36.917752  9762 net.cpp:122] Setting up Convolution16
I1005 17:13:36.917760  9762 net.cpp:129] Top shape: 100 64 8 8 (409600)
I1005 17:13:36.917762  9762 net.cpp:137] Memory required for data: 381338800
I1005 17:13:36.917768  9762 layer_factory.hpp:77] Creating layer BatchNorm16
I1005 17:13:36.917773  9762 net.cpp:84] Creating Layer BatchNorm16
I1005 17:13:36.917775  9762 net.cpp:406] BatchNorm16 <- Convolution16
I1005 17:13:36.917778  9762 net.cpp:367] BatchNorm16 -> Convolution16 (in-place)
I1005 17:13:36.917913  9762 net.cpp:122] Setting up BatchNorm16
I1005 17:13:36.917917  9762 net.cpp:129] Top shape: 100 64 8 8 (409600)
I1005 17:13:36.917920  9762 net.cpp:137] Memory required for data: 382977200
I1005 17:13:36.917924  9762 layer_factory.hpp:77] Creating layer Scale16
I1005 17:13:36.917929  9762 net.cpp:84] Creating Layer Scale16
I1005 17:13:36.917932  9762 net.cpp:406] Scale16 <- Convolution16
I1005 17:13:36.917934  9762 net.cpp:367] Scale16 -> Convolution16 (in-place)
I1005 17:13:36.917961  9762 layer_factory.hpp:77] Creating layer Scale16
I1005 17:13:36.918038  9762 net.cpp:122] Setting up Scale16
I1005 17:13:36.918042  9762 net.cpp:129] Top shape: 100 64 8 8 (409600)
I1005 17:13:36.918045  9762 net.cpp:137] Memory required for data: 384615600
I1005 17:13:36.918047  9762 layer_factory.hpp:77] Creating layer elu14
I1005 17:13:36.918052  9762 net.cpp:84] Creating Layer elu14
I1005 17:13:36.918054  9762 net.cpp:406] elu14 <- Convolution16
I1005 17:13:36.918057  9762 net.cpp:367] elu14 -> Convolution16 (in-place)
I1005 17:13:36.918061  9762 net.cpp:122] Setting up elu14
I1005 17:13:36.918063  9762 net.cpp:129] Top shape: 100 64 8 8 (409600)
I1005 17:13:36.918066  9762 net.cpp:137] Memory required for data: 386254000
I1005 17:13:36.918068  9762 layer_factory.hpp:77] Creating layer Convolution17
I1005 17:13:36.918074  9762 net.cpp:84] Creating Layer Convolution17
I1005 17:13:36.918076  9762 net.cpp:406] Convolution17 <- Convolution16
I1005 17:13:36.918081  9762 net.cpp:380] Convolution17 -> Convolution17
I1005 17:13:36.919770  9762 net.cpp:122] Setting up Convolution17
I1005 17:13:36.919778  9762 net.cpp:129] Top shape: 100 64 8 8 (409600)
I1005 17:13:36.919781  9762 net.cpp:137] Memory required for data: 387892400
I1005 17:13:36.919785  9762 layer_factory.hpp:77] Creating layer BatchNorm17
I1005 17:13:36.919790  9762 net.cpp:84] Creating Layer BatchNorm17
I1005 17:13:36.919793  9762 net.cpp:406] BatchNorm17 <- Convolution17
I1005 17:13:36.919797  9762 net.cpp:367] BatchNorm17 -> Convolution17 (in-place)
I1005 17:13:36.919934  9762 net.cpp:122] Setting up BatchNorm17
I1005 17:13:36.919937  9762 net.cpp:129] Top shape: 100 64 8 8 (409600)
I1005 17:13:36.919945  9762 net.cpp:137] Memory required for data: 389530800
I1005 17:13:36.919950  9762 layer_factory.hpp:77] Creating layer Scale17
I1005 17:13:36.919955  9762 net.cpp:84] Creating Layer Scale17
I1005 17:13:36.919957  9762 net.cpp:406] Scale17 <- Convolution17
I1005 17:13:36.919960  9762 net.cpp:367] Scale17 -> Convolution17 (in-place)
I1005 17:13:36.919989  9762 layer_factory.hpp:77] Creating layer Scale17
I1005 17:13:36.920066  9762 net.cpp:122] Setting up Scale17
I1005 17:13:36.920070  9762 net.cpp:129] Top shape: 100 64 8 8 (409600)
I1005 17:13:36.920073  9762 net.cpp:137] Memory required for data: 391169200
I1005 17:13:36.920076  9762 layer_factory.hpp:77] Creating layer Eltwise7
I1005 17:13:36.920079  9762 net.cpp:84] Creating Layer Eltwise7
I1005 17:13:36.920083  9762 net.cpp:406] Eltwise7 <- Convolution15
I1005 17:13:36.920085  9762 net.cpp:406] Eltwise7 <- Convolution17
I1005 17:13:36.920089  9762 net.cpp:380] Eltwise7 -> Eltwise7
I1005 17:13:36.920104  9762 net.cpp:122] Setting up Eltwise7
I1005 17:13:36.920107  9762 net.cpp:129] Top shape: 100 64 8 8 (409600)
I1005 17:13:36.920109  9762 net.cpp:137] Memory required for data: 392807600
I1005 17:13:36.920111  9762 layer_factory.hpp:77] Creating layer elu15
I1005 17:13:36.920115  9762 net.cpp:84] Creating Layer elu15
I1005 17:13:36.920117  9762 net.cpp:406] elu15 <- Eltwise7
I1005 17:13:36.920120  9762 net.cpp:367] elu15 -> Eltwise7 (in-place)
I1005 17:13:36.920125  9762 net.cpp:122] Setting up elu15
I1005 17:13:36.920127  9762 net.cpp:129] Top shape: 100 64 8 8 (409600)
I1005 17:13:36.920130  9762 net.cpp:137] Memory required for data: 394446000
I1005 17:13:36.920131  9762 layer_factory.hpp:77] Creating layer Eltwise7_elu15_0_split
I1005 17:13:36.920135  9762 net.cpp:84] Creating Layer Eltwise7_elu15_0_split
I1005 17:13:36.920136  9762 net.cpp:406] Eltwise7_elu15_0_split <- Eltwise7
I1005 17:13:36.920140  9762 net.cpp:380] Eltwise7_elu15_0_split -> Eltwise7_elu15_0_split_0
I1005 17:13:36.920143  9762 net.cpp:380] Eltwise7_elu15_0_split -> Eltwise7_elu15_0_split_1
I1005 17:13:36.920166  9762 net.cpp:122] Setting up Eltwise7_elu15_0_split
I1005 17:13:36.941073  9762 net.cpp:129] Top shape: 100 64 8 8 (409600)
I1005 17:13:36.941082  9762 net.cpp:129] Top shape: 100 64 8 8 (409600)
I1005 17:13:36.941083  9762 net.cpp:137] Memory required for data: 397722800
I1005 17:13:36.941087  9762 layer_factory.hpp:77] Creating layer Convolution18
I1005 17:13:36.941095  9762 net.cpp:84] Creating Layer Convolution18
I1005 17:13:36.941099  9762 net.cpp:406] Convolution18 <- Eltwise7_elu15_0_split_0
I1005 17:13:36.941104  9762 net.cpp:380] Convolution18 -> Convolution18
I1005 17:13:36.943260  9762 net.cpp:122] Setting up Convolution18
I1005 17:13:36.943271  9762 net.cpp:129] Top shape: 100 64 8 8 (409600)
I1005 17:13:36.943274  9762 net.cpp:137] Memory required for data: 399361200
I1005 17:13:36.943279  9762 layer_factory.hpp:77] Creating layer BatchNorm18
I1005 17:13:36.943284  9762 net.cpp:84] Creating Layer BatchNorm18
I1005 17:13:36.943287  9762 net.cpp:406] BatchNorm18 <- Convolution18
I1005 17:13:36.943291  9762 net.cpp:367] BatchNorm18 -> Convolution18 (in-place)
I1005 17:13:36.943435  9762 net.cpp:122] Setting up BatchNorm18
I1005 17:13:36.943439  9762 net.cpp:129] Top shape: 100 64 8 8 (409600)
I1005 17:13:36.943441  9762 net.cpp:137] Memory required for data: 400999600
I1005 17:13:36.943446  9762 layer_factory.hpp:77] Creating layer Scale18
I1005 17:13:36.943451  9762 net.cpp:84] Creating Layer Scale18
I1005 17:13:36.943454  9762 net.cpp:406] Scale18 <- Convolution18
I1005 17:13:36.943457  9762 net.cpp:367] Scale18 -> Convolution18 (in-place)
I1005 17:13:36.943486  9762 layer_factory.hpp:77] Creating layer Scale18
I1005 17:13:36.943568  9762 net.cpp:122] Setting up Scale18
I1005 17:13:36.943573  9762 net.cpp:129] Top shape: 100 64 8 8 (409600)
I1005 17:13:36.943575  9762 net.cpp:137] Memory required for data: 402638000
I1005 17:13:36.943579  9762 layer_factory.hpp:77] Creating layer elu16
I1005 17:13:36.943583  9762 net.cpp:84] Creating Layer elu16
I1005 17:13:36.943593  9762 net.cpp:406] elu16 <- Convolution18
I1005 17:13:36.943598  9762 net.cpp:367] elu16 -> Convolution18 (in-place)
I1005 17:13:36.943603  9762 net.cpp:122] Setting up elu16
I1005 17:13:36.943605  9762 net.cpp:129] Top shape: 100 64 8 8 (409600)
I1005 17:13:36.943608  9762 net.cpp:137] Memory required for data: 404276400
I1005 17:13:36.943610  9762 layer_factory.hpp:77] Creating layer Convolution19
I1005 17:13:36.943617  9762 net.cpp:84] Creating Layer Convolution19
I1005 17:13:36.943619  9762 net.cpp:406] Convolution19 <- Convolution18
I1005 17:13:36.943624  9762 net.cpp:380] Convolution19 -> Convolution19
I1005 17:13:36.945538  9762 net.cpp:122] Setting up Convolution19
I1005 17:13:36.945549  9762 net.cpp:129] Top shape: 100 64 8 8 (409600)
I1005 17:13:36.945551  9762 net.cpp:137] Memory required for data: 405914800
I1005 17:13:36.945556  9762 layer_factory.hpp:77] Creating layer BatchNorm19
I1005 17:13:36.945561  9762 net.cpp:84] Creating Layer BatchNorm19
I1005 17:13:36.945564  9762 net.cpp:406] BatchNorm19 <- Convolution19
I1005 17:13:36.945569  9762 net.cpp:367] BatchNorm19 -> Convolution19 (in-place)
I1005 17:13:36.945713  9762 net.cpp:122] Setting up BatchNorm19
I1005 17:13:36.945719  9762 net.cpp:129] Top shape: 100 64 8 8 (409600)
I1005 17:13:36.945720  9762 net.cpp:137] Memory required for data: 407553200
I1005 17:13:36.945741  9762 layer_factory.hpp:77] Creating layer Scale19
I1005 17:13:36.945746  9762 net.cpp:84] Creating Layer Scale19
I1005 17:13:36.945749  9762 net.cpp:406] Scale19 <- Convolution19
I1005 17:13:36.945752  9762 net.cpp:367] Scale19 -> Convolution19 (in-place)
I1005 17:13:36.945783  9762 layer_factory.hpp:77] Creating layer Scale19
I1005 17:13:36.945868  9762 net.cpp:122] Setting up Scale19
I1005 17:13:36.945871  9762 net.cpp:129] Top shape: 100 64 8 8 (409600)
I1005 17:13:36.945873  9762 net.cpp:137] Memory required for data: 409191600
I1005 17:13:36.945878  9762 layer_factory.hpp:77] Creating layer Eltwise8
I1005 17:13:36.945883  9762 net.cpp:84] Creating Layer Eltwise8
I1005 17:13:36.945885  9762 net.cpp:406] Eltwise8 <- Eltwise7_elu15_0_split_1
I1005 17:13:36.945888  9762 net.cpp:406] Eltwise8 <- Convolution19
I1005 17:13:36.945891  9762 net.cpp:380] Eltwise8 -> Eltwise8
I1005 17:13:36.945909  9762 net.cpp:122] Setting up Eltwise8
I1005 17:13:36.945912  9762 net.cpp:129] Top shape: 100 64 8 8 (409600)
I1005 17:13:36.945914  9762 net.cpp:137] Memory required for data: 410830000
I1005 17:13:36.945916  9762 layer_factory.hpp:77] Creating layer elu17
I1005 17:13:36.945921  9762 net.cpp:84] Creating Layer elu17
I1005 17:13:36.945924  9762 net.cpp:406] elu17 <- Eltwise8
I1005 17:13:36.945926  9762 net.cpp:367] elu17 -> Eltwise8 (in-place)
I1005 17:13:36.945930  9762 net.cpp:122] Setting up elu17
I1005 17:13:36.945933  9762 net.cpp:129] Top shape: 100 64 8 8 (409600)
I1005 17:13:36.945935  9762 net.cpp:137] Memory required for data: 412468400
I1005 17:13:36.945937  9762 layer_factory.hpp:77] Creating layer Eltwise8_elu17_0_split
I1005 17:13:36.945940  9762 net.cpp:84] Creating Layer Eltwise8_elu17_0_split
I1005 17:13:36.945942  9762 net.cpp:406] Eltwise8_elu17_0_split <- Eltwise8
I1005 17:13:36.945946  9762 net.cpp:380] Eltwise8_elu17_0_split -> Eltwise8_elu17_0_split_0
I1005 17:13:36.945950  9762 net.cpp:380] Eltwise8_elu17_0_split -> Eltwise8_elu17_0_split_1
I1005 17:13:36.945976  9762 net.cpp:122] Setting up Eltwise8_elu17_0_split
I1005 17:13:36.945978  9762 net.cpp:129] Top shape: 100 64 8 8 (409600)
I1005 17:13:36.945981  9762 net.cpp:129] Top shape: 100 64 8 8 (409600)
I1005 17:13:36.945983  9762 net.cpp:137] Memory required for data: 415745200
I1005 17:13:36.945986  9762 layer_factory.hpp:77] Creating layer Convolution20
I1005 17:13:36.945992  9762 net.cpp:84] Creating Layer Convolution20
I1005 17:13:36.945996  9762 net.cpp:406] Convolution20 <- Eltwise8_elu17_0_split_0
I1005 17:13:36.945999  9762 net.cpp:380] Convolution20 -> Convolution20
I1005 17:13:36.948056  9762 net.cpp:122] Setting up Convolution20
I1005 17:13:36.948065  9762 net.cpp:129] Top shape: 100 64 8 8 (409600)
I1005 17:13:36.948076  9762 net.cpp:137] Memory required for data: 417383600
I1005 17:13:36.948081  9762 layer_factory.hpp:77] Creating layer BatchNorm20
I1005 17:13:36.948086  9762 net.cpp:84] Creating Layer BatchNorm20
I1005 17:13:36.948089  9762 net.cpp:406] BatchNorm20 <- Convolution20
I1005 17:13:36.948093  9762 net.cpp:367] BatchNorm20 -> Convolution20 (in-place)
I1005 17:13:36.948241  9762 net.cpp:122] Setting up BatchNorm20
I1005 17:13:36.948246  9762 net.cpp:129] Top shape: 100 64 8 8 (409600)
I1005 17:13:36.948248  9762 net.cpp:137] Memory required for data: 419022000
I1005 17:13:36.948252  9762 layer_factory.hpp:77] Creating layer Scale20
I1005 17:13:36.948257  9762 net.cpp:84] Creating Layer Scale20
I1005 17:13:36.948261  9762 net.cpp:406] Scale20 <- Convolution20
I1005 17:13:36.948263  9762 net.cpp:367] Scale20 -> Convolution20 (in-place)
I1005 17:13:36.948292  9762 layer_factory.hpp:77] Creating layer Scale20
I1005 17:13:36.948376  9762 net.cpp:122] Setting up Scale20
I1005 17:13:36.948381  9762 net.cpp:129] Top shape: 100 64 8 8 (409600)
I1005 17:13:36.948384  9762 net.cpp:137] Memory required for data: 420660400
I1005 17:13:36.948387  9762 layer_factory.hpp:77] Creating layer elu18
I1005 17:13:36.948391  9762 net.cpp:84] Creating Layer elu18
I1005 17:13:36.948393  9762 net.cpp:406] elu18 <- Convolution20
I1005 17:13:36.948396  9762 net.cpp:367] elu18 -> Convolution20 (in-place)
I1005 17:13:36.948400  9762 net.cpp:122] Setting up elu18
I1005 17:13:36.948403  9762 net.cpp:129] Top shape: 100 64 8 8 (409600)
I1005 17:13:36.948405  9762 net.cpp:137] Memory required for data: 422298800
I1005 17:13:36.948408  9762 layer_factory.hpp:77] Creating layer Convolution21
I1005 17:13:36.948415  9762 net.cpp:84] Creating Layer Convolution21
I1005 17:13:36.948417  9762 net.cpp:406] Convolution21 <- Convolution20
I1005 17:13:36.948421  9762 net.cpp:380] Convolution21 -> Convolution21
I1005 17:13:36.950456  9762 net.cpp:122] Setting up Convolution21
I1005 17:13:36.950464  9762 net.cpp:129] Top shape: 100 64 8 8 (409600)
I1005 17:13:36.950467  9762 net.cpp:137] Memory required for data: 423937200
I1005 17:13:36.950472  9762 layer_factory.hpp:77] Creating layer BatchNorm21
I1005 17:13:36.950477  9762 net.cpp:84] Creating Layer BatchNorm21
I1005 17:13:36.950480  9762 net.cpp:406] BatchNorm21 <- Convolution21
I1005 17:13:36.950484  9762 net.cpp:367] BatchNorm21 -> Convolution21 (in-place)
I1005 17:13:36.950652  9762 net.cpp:122] Setting up BatchNorm21
I1005 17:13:36.950659  9762 net.cpp:129] Top shape: 100 64 8 8 (409600)
I1005 17:13:36.950660  9762 net.cpp:137] Memory required for data: 425575600
I1005 17:13:36.950665  9762 layer_factory.hpp:77] Creating layer Scale21
I1005 17:13:36.950670  9762 net.cpp:84] Creating Layer Scale21
I1005 17:13:36.950673  9762 net.cpp:406] Scale21 <- Convolution21
I1005 17:13:36.950676  9762 net.cpp:367] Scale21 -> Convolution21 (in-place)
I1005 17:13:36.950706  9762 layer_factory.hpp:77] Creating layer Scale21
I1005 17:13:36.950786  9762 net.cpp:122] Setting up Scale21
I1005 17:13:36.950790  9762 net.cpp:129] Top shape: 100 64 8 8 (409600)
I1005 17:13:36.950793  9762 net.cpp:137] Memory required for data: 427214000
I1005 17:13:36.950796  9762 layer_factory.hpp:77] Creating layer Eltwise9
I1005 17:13:36.950800  9762 net.cpp:84] Creating Layer Eltwise9
I1005 17:13:36.950803  9762 net.cpp:406] Eltwise9 <- Eltwise8_elu17_0_split_1
I1005 17:13:36.950806  9762 net.cpp:406] Eltwise9 <- Convolution21
I1005 17:13:36.950810  9762 net.cpp:380] Eltwise9 -> Eltwise9
I1005 17:13:36.950826  9762 net.cpp:122] Setting up Eltwise9
I1005 17:13:36.950829  9762 net.cpp:129] Top shape: 100 64 8 8 (409600)
I1005 17:13:36.950831  9762 net.cpp:137] Memory required for data: 428852400
I1005 17:13:36.950834  9762 layer_factory.hpp:77] Creating layer elu19
I1005 17:13:36.950839  9762 net.cpp:84] Creating Layer elu19
I1005 17:13:36.950840  9762 net.cpp:406] elu19 <- Eltwise9
I1005 17:13:36.950844  9762 net.cpp:367] elu19 -> Eltwise9 (in-place)
I1005 17:13:36.950846  9762 net.cpp:122] Setting up elu19
I1005 17:13:36.950856  9762 net.cpp:129] Top shape: 100 64 8 8 (409600)
I1005 17:13:36.950860  9762 net.cpp:137] Memory required for data: 430490800
I1005 17:13:36.950861  9762 layer_factory.hpp:77] Creating layer Pooling1
I1005 17:13:36.950865  9762 net.cpp:84] Creating Layer Pooling1
I1005 17:13:36.950867  9762 net.cpp:406] Pooling1 <- Eltwise9
I1005 17:13:36.950870  9762 net.cpp:380] Pooling1 -> Pooling1
I1005 17:13:36.951006  9762 net.cpp:122] Setting up Pooling1
I1005 17:13:36.951012  9762 net.cpp:129] Top shape: 100 64 1 1 (6400)
I1005 17:13:36.951014  9762 net.cpp:137] Memory required for data: 430516400
I1005 17:13:36.951016  9762 layer_factory.hpp:77] Creating layer InnerProduct1
I1005 17:13:36.951022  9762 net.cpp:84] Creating Layer InnerProduct1
I1005 17:13:36.951025  9762 net.cpp:406] InnerProduct1 <- Pooling1
I1005 17:13:36.951030  9762 net.cpp:380] InnerProduct1 -> InnerProduct1
I1005 17:13:36.951128  9762 net.cpp:122] Setting up InnerProduct1
I1005 17:13:36.951133  9762 net.cpp:129] Top shape: 100 10 (1000)
I1005 17:13:36.951135  9762 net.cpp:137] Memory required for data: 430520400
I1005 17:13:36.951139  9762 layer_factory.hpp:77] Creating layer InnerProduct1_InnerProduct1_0_split
I1005 17:13:36.951143  9762 net.cpp:84] Creating Layer InnerProduct1_InnerProduct1_0_split
I1005 17:13:36.951146  9762 net.cpp:406] InnerProduct1_InnerProduct1_0_split <- InnerProduct1
I1005 17:13:36.951149  9762 net.cpp:380] InnerProduct1_InnerProduct1_0_split -> InnerProduct1_InnerProduct1_0_split_0
I1005 17:13:36.951153  9762 net.cpp:380] InnerProduct1_InnerProduct1_0_split -> InnerProduct1_InnerProduct1_0_split_1
I1005 17:13:36.951179  9762 net.cpp:122] Setting up InnerProduct1_InnerProduct1_0_split
I1005 17:13:36.951184  9762 net.cpp:129] Top shape: 100 10 (1000)
I1005 17:13:36.951185  9762 net.cpp:129] Top shape: 100 10 (1000)
I1005 17:13:36.951187  9762 net.cpp:137] Memory required for data: 430528400
I1005 17:13:36.951189  9762 layer_factory.hpp:77] Creating layer SoftmaxWithLoss1
I1005 17:13:36.951194  9762 net.cpp:84] Creating Layer SoftmaxWithLoss1
I1005 17:13:36.951196  9762 net.cpp:406] SoftmaxWithLoss1 <- InnerProduct1_InnerProduct1_0_split_0
I1005 17:13:36.951200  9762 net.cpp:406] SoftmaxWithLoss1 <- Data2_Data1_1_split_0
…
